…
I0403 17:06:22.565004 20466 net.cpp:313] The NetState phase (1) differed from the phase (0) specified by a rule in layer data
I0403 17:06:22.566203 20466 net.cpp:49] Initializing net from parameters: 
state {
  phase: TEST
}
layer {
  name: "data"
  type: "Data"
  top: "data"
  top: "label"
  include {
    phase: TEST
  }
  transform_param {
    mirror: false
    crop_size: 224
    mean_file: "/home/mohanty/data/final_dataset/lmdb/color-20-80/mean.binaryproto"
  }
  data_param {
    source: "/home/mohanty/data/final_dataset/lmdb/color-20-80/test_db"
    batch_size: 24
    backend: LMDB
  }
}
layer {
  name: "conv1/7x7_s2"
  type: "Convolution"
  bottom: "data"
  top: "conv1/7x7_s2"
  param {
    lr_mult: 1
    decay_mult: 1
  }
  param {
    lr_mult: 2
    decay_mult: 0
  }
  convolution_param {
    num_output: 64
    pad: 3
    kernel_size: 7
    stride: 2
    weight_filler {
      type: "xavier"
      std: 0.1
    }
    bias_filler {
      type: "constant"
      value: 0.2
    }
  }
}
layer {
  name: "conv1/relu_7x7"
  type: "ReLU"
  bottom: "conv1/7x7_s2"
  top: "conv1/7x7_s2"
}
layer {
  name: "pool1/3x3_s2"
  type: "Pooling"
  bottom: "conv1/7x7_s2"
  top: "pool1/3x3_s2"
  pooling_param {
    pool: MAX
    kernel_size: 3
    stride: 2
  }
}
layer {
  name: "pool1/norm1"
  type: "LRN"
  bottom: "pool1/3x3_s2"
  top: "pool1/norm1"
  lrn_param {
    local_size: 5
    alpha: 0.0001
    beta: 0.75
  }
}
layer {
  name: "conv2/3x3_reduce"
  type: "Convolution"
  bottom: "pool1/norm1"
  top: "conv2/3x3_reduce"
  param {
    lr_mult: 1
    decay_mult: 1
  }
  param {
    lr_mult: 2
    decay_mult: 0
  }
  convolution_param {
    num_output: 64
    kernel_size: 1
    weight_filler {
      type: "xavier"
      std: 0.1
    }
    bias_filler {
      type: "constant"
      value: 0.2
    }
  }
}
layer {
  name: "conv2/relu_3x3_reduce"
  type: "ReLU"
  bottom: "conv2/3x3_reduce"
  top: "conv2/3x3_reduce"
}
layer {
  name: "conv2/3x3"
  type: "Convolution"
  bottom: "conv2/3x3_reduce"
  top: "conv2/3x3"
  param {
    lr_mult: 1
    decay_mult: 1
  }
  param {
    lr_mult: 2
    decay_mult: 0
  }
  convolution_param {
    num_output: 192
    pad: 1
    kernel_size: 3
    weight_filler {
      type: "xavier"
      std: 0.03
    }
    bias_filler {
      type: "constant"
      value: 0.2
    }
  }
}
layer {
  name: "conv2/relu_3x3"
  type: "ReLU"
  bottom: "conv2/3x3"
  top: "conv2/3x3"
}
layer {
  name: "conv2/norm2"
  type: "LRN"
  bottom: "conv2/3x3"
  top: "conv2/norm2"
  lrn_param {
    local_size: 5
    alpha: 0.0001
    beta: 0.75
  }
}
layer {
  name: "pool2/3x3_s2"
  type: "Pooling"
  bottom: "conv2/norm2"
  top: "pool2/3x3_s2"
  pooling_param {
    pool: MAX
    kernel_size: 3
    stride: 2
  }
}
layer {
  name: "inception_3a/1x1"
  type: "Convolution"
  bottom: "pool2/3x3_s2"
  top: "inception_3a/1x1"
  param {
    lr_mult: 1
    decay_mult: 1
  }
  param {
    lr_mult: 2
    decay_mult: 0
  }
  convolution_param {
    num_output: 64
    kernel_size: 1
    weight_filler {
      type: "xavier"
      std: 0.03
    }
    bias_filler {
      type: "constant"
      value: 0.2
    }
  }
}
layer {
  name: "inception_3a/relu_1x1"
  type: "ReLU"
  bottom: "inception_3a/1x1"
  top: "inception_3a/1x1"
}
layer {
  name: "inception_3a/3x3_reduce"
  type: "Convolution"
  bottom: "pool2/3x3_s2"
  top: "inception_3a/3x3_reduce"
  param {
    lr_mult: 1
    decay_mult: 1
  }
  param {
    lr_mult: 2
    decay_mult: 0
  }
  convolution_param {
    num_output: 96
    kernel_size: 1
    weight_filler {
      type: "xavier"
      std: 0.09
    }
    bias_filler {
      type: "constant"
      value: 0.2
    }
  }
}
layer {
  name: "inception_3a/relu_3x3_reduce"
  type: "ReLU"
  bottom: "inception_3a/3x3_reduce"
  top: "inception_3a/3x3_reduce"
}
layer {
  name: "inception_3a/3x3"
  type: "Convolution"
  bottom: "inception_3a/3x3_reduce"
  top: "inception_3a/3x3"
  param {
    lr_mult: 1
    decay_mult: 1
  }
  param {
    lr_mult: 2
    decay_mult: 0
  }
  convolution_param {
    num_output: 128
    pad: 1
    kernel_size: 3
    weight_filler {
      type: "xavier"
      std: 0.03
    }
    bias_filler {
      type: "constant"
      value: 0.2
    }
  }
}
layer {
  name: "inception_3a/relu_3x3"
  type: "ReLU"
  bottom: "inception_3a/3x3"
  top: "inception_3a/3x3"
}
layer {
  name: "inception_3a/5x5_reduce"
  type: "Convolution"
  bottom: "pool2/3x3_s2"
  top: "inception_3a/5x5_reduce"
  param {
    lr_mult: 1
    decay_mult: 1
  }
  param {
    lr_mult: 2
    decay_mult: 0
  }
  convolution_param {
    num_output: 16
    kernel_size: 1
    weight_filler {
      type: "xavier"
      std: 0.2
    }
    bias_filler {
      type: "constant"
      value: 0.2
    }
  }
}
layer {
  name: "inception_3a/relu_5x5_reduce"
  type: "ReLU"
  bottom: "inception_3a/5x5_reduce"
  top: "inception_3a/5x5_reduce"
}
layer {
  name: "inception_3a/5x5"
  type: "Convolution"
  bottom: "inception_3a/5x5_reduce"
  top: "inception_3a/5x5"
  param {
    lr_mult: 1
    decay_mult: 1
  }
  param {
    lr_mult: 2
    decay_mult: 0
  }
  convolution_param {
    num_output: 32
    pad: 2
    kernel_size: 5
    weight_filler {
      type: "xavier"
      std: 0.03
    }
    bias_filler {
      type: "constant"
      value: 0.2
    }
  }
}
layer {
  name: "inception_3a/relu_5x5"
  type: "ReLU"
  bottom: "inception_3a/5x5"
  top: "inception_3a/5x5"
}
layer {
  name: "inception_3a/pool"
  type: "Pooling"
  bottom: "pool2/3x3_s2"
  top: "inception_3a/pool"
  pooling_param {
    pool: MAX
    kernel_size: 3
    stride: 1
    pad: 1
  }
}
layer {
  name: "inception_3a/pool_proj"
  type: "Convolution"
  bottom: "inception_3a/pool"
  top: "inception_3a/pool_proj"
  param {
    lr_mult: 1
    decay_mult: 1
  }
  param {
    lr_mult: 2
    decay_mult: 0
  }
  convolution_param {
    num_output: 32
    kernel_size: 1
    weight_filler {
      type: "xavier"
      std: 0.1
    }
    bias_filler {
      type: "constant"
      value: 0.2
    }
  }
}
layer {
  name: "inception_3a/relu_pool_proj"
  type: "ReLU"
  bottom: "inception_3a/pool_proj"
  top: "inception_3a/pool_proj"
}
layer {
  name: "inception_3a/output"
  type: "Concat"
  bottom: "inception_3a/1x1"
  bottom: "inception_3a/3x3"
  bottom: "inception_3a/5x5"
  bottom: "inception_3a/pool_proj"
  top: "inception_3a/output"
}
layer {
  name: "inception_3b/1x1"
  type: "Convolution"
  bottom: "inception_3a/output"
  top: "inception_3b/1x1"
  param {
    lr_mult: 1
    decay_mult: 1
  }
  param {
    lr_mult: 2
    decay_mult: 0
  }
  convolution_param {
    num_output: 128
    kernel_size: 1
    weight_filler {
      type: "xavier"
      std: 0.03
    }
    bias_filler {
      type: "constant"
      value: 0.2
    }
  }
}
layer {
  name: "inception_3b/relu_1x1"
  type: "ReLU"
  bottom: "inception_3b/1x1"
  top: "inception_3b/1x1"
}
layer {
  name: "inception_3b/3x3_reduce"
  type: "Convolution"
  bottom: "inception_3a/output"
  top: "inception_3b/3x3_reduce"
  param {
    lr_mult: 1
    decay_mult: 1
  }
  param {
    lr_mult: 2
    decay_mult: 0
  }
  convolution_param {
    num_output: 128
    kernel_size: 1
    weight_filler {
      type: "xavier"
      std: 0.09
    }
    bias_filler {
      type: "constant"
      value: 0.2
    }
  }
}
layer {
  name: "inception_3b/relu_3x3_reduce"
  type: "ReLU"
  bottom: "inception_3b/3x3_reduce"
  top: "inception_3b/3x3_reduce"
}
layer {
  name: "inception_3b/3x3"
  type: "Convolution"
  bottom: "inception_3b/3x3_reduce"
  top: "inception_3b/3x3"
  param {
    lr_mult: 1
    decay_mult: 1
  }
  param {
    lr_mult: 2
    decay_mult: 0
  }
  convolution_param {
    num_output: 192
    pad: 1
    kernel_size: 3
    weight_filler {
      type: "xavier"
      std: 0.03
    }
    bias_filler {
      type: "constant"
      value: 0.2
    }
  }
}
layer {
  name: "inception_3b/relu_3x3"
  type: "ReLU"
  bottom: "inception_3b/3x3"
  top: "inception_3b/3x3"
}
layer {
  name: "inception_3b/5x5_reduce"
  type: "Convolution"
  bottom: "inception_3a/output"
  top: "inception_3b/5x5_reduce"
  param {
    lr_mult: 1
    decay_mult: 1
  }
  param {
    lr_mult: 2
    decay_mult: 0
  }
  convolution_param {
    num_output: 32
    kernel_size: 1
    weight_filler {
      type: "xavier"
      std: 0.2
    }
    bias_filler {
      type: "constant"
      value: 0.2
    }
  }
}
layer {
  name: "inception_3b/relu_5x5_reduce"
  type: "ReLU"
  bottom: "inception_3b/5x5_reduce"
  top: "inception_3b/5x5_reduce"
}
layer {
  name: "inception_3b/5x5"
  type: "Convolution"
  bottom: "inception_3b/5x5_reduce"
  top: "inception_3b/5x5"
  param {
    lr_mult: 1
    decay_mult: 1
  }
  param {
    lr_mult: 2
    decay_mult: 0
  }
  convolution_param {
    num_output: 96
    pad: 2
    kernel_size: 5
    weight_filler {
      type: "xavier"
      std: 0.03
    }
    bias_filler {
      type: "constant"
      value: 0.2
    }
  }
}
layer {
  name: "inception_3b/relu_5x5"
  type: "ReLU"
  bottom: "inception_3b/5x5"
  top: "inception_3b/5x5"
}
layer {
  name: "inception_3b/pool"
  type: "Pooling"
  bottom: "inception_3a/output"
  top: "inception_3b/pool"
  pooling_param {
    pool: MAX
    kernel_size: 3
    stride: 1
    pad: 1
  }
}
layer {
  name: "inception_3b/pool_proj"
  type: "Convolution"
  bottom: "inception_3b/pool"
  top: "inception_3b/pool_proj"
  param {
    lr_mult: 1
    decay_mult: 1
  }
  param {
    lr_mult: 2
    decay_mult: 0
  }
  convolution_param {
    num_output: 64
    kernel_size: 1
    weight_filler {
      type: "xavier"
      std: 0.1
    }
    bias_filler {
      type: "constant"
      value: 0.2
    }
  }
}
layer {
  name: "inception_3b/relu_pool_proj"
  type: "ReLU"
  bottom: "inception_3b/pool_proj"
  top: "inception_3b/pool_proj"
}
layer {
  name: "inception_3b/output"
  type: "Concat"
  bottom: "inception_3b/1x1"
  bottom: "inception_3b/3x3"
  bottom: "inception_3b/5x5"
  bottom: "inception_3b/pool_proj"
  top: "inception_3b/output"
}
layer {
  name: "pool3/3x3_s2"
  type: "Pooling"
  bottom: "inception_3b/output"
  top: "pool3/3x3_s2"
  pooling_param {
    pool: MAX
    kernel_size: 3
    stride: 2
  }
}
layer {
  name: "inception_4a/1x1"
  type: "Convolution"
  bottom: "pool3/3x3_s2"
  top: "inception_4a/1x1"
  param {
    lr_mult: 1
    decay_mult: 1
  }
  param {
    lr_mult: 2
    decay_mult: 0
  }
  convolution_param {
    num_output: 192
    kernel_size: 1
    weight_filler {
      type: "xavier"
      std: 0.03
    }
    bias_filler {
      type: "constant"
      value: 0.2
    }
  }
}
layer {
  name: "inception_4a/relu_1x1"
  type: "ReLU"
  bottom: "inception_4a/1x1"
  top: "inception_4a/1x1"
}
layer {
  name: "inception_4a/3x3_reduce"
  type: "Convolution"
  bottom: "pool3/3x3_s2"
  top: "inception_4a/3x3_reduce"
  param {
    lr_mult: 1
    decay_mult: 1
  }
  param {
    lr_mult: 2
    decay_mult: 0
  }
  convolution_param {
    num_output: 96
    kernel_size: 1
    weight_filler {
      type: "xavier"
      std: 0.09
    }
    bias_filler {
      type: "constant"
      value: 0.2
    }
  }
}
layer {
  name: "inception_4a/relu_3x3_reduce"
  type: "ReLU"
  bottom: "inception_4a/3x3_reduce"
  top: "inception_4a/3x3_reduce"
}
layer {
  name: "inception_4a/3x3"
  type: "Convolution"
  bottom: "inception_4a/3x3_reduce"
  top: "inception_4a/3x3"
  param {
    lr_mult: 1
    decay_mult: 1
  }
  param {
    lr_mult: 2
    decay_mult: 0
  }
  convolution_param {
    num_output: 208
    pad: 1
    kernel_size: 3
    weight_filler {
      type: "xavier"
      std: 0.03
    }
    bias_filler {
      type: "constant"
      value: 0.2
    }
  }
}
layer {
  name: "inception_4a/relu_3x3"
  type: "ReLU"
  bottom: "inception_4a/3x3"
  top: "inception_4a/3x3"
}
layer {
  name: "inception_4a/5x5_reduce"
  type: "Convolution"
  bottom: "pool3/3x3_s2"
  top: "inception_4a/5x5_reduce"
  param {
    lr_mult: 1
    decay_mult: 1
  }
  param {
    lr_mult: 2
    decay_mult: 0
  }
  convolution_param {
    num_output: 16
    kernel_size: 1
    weight_filler {
      type: "xavier"
      std: 0.2
    }
    bias_filler {
      type: "constant"
      value: 0.2
    }
  }
}
layer {
  name: "inception_4a/relu_5x5_reduce"
  type: "ReLU"
  bottom: "inception_4a/5x5_reduce"
  top: "inception_4a/5x5_reduce"
}
layer {
  name: "inception_4a/5x5"
  type: "Convolution"
  bottom: "inception_4a/5x5_reduce"
  top: "inception_4a/5x5"
  param {
    lr_mult: 1
    decay_mult: 1
  }
  param {
    lr_mult: 2
    decay_mult: 0
  }
  convolution_param {
    num_output: 48
    pad: 2
    kernel_size: 5
    weight_filler {
      type: "xavier"
      std: 0.03
    }
    bias_filler {
      type: "constant"
      value: 0.2
    }
  }
}
layer {
  name: "inception_4a/relu_5x5"
  type: "ReLU"
  bottom: "inception_4a/5x5"
  top: "inception_4a/5x5"
}
layer {
  name: "inception_4a/pool"
  type: "Pooling"
  bottom: "pool3/3x3_s2"
  top: "inception_4a/pool"
  pooling_param {
    pool: MAX
    kernel_size: 3
    stride: 1
    pad: 1
  }
}
layer {
  name: "inception_4a/pool_proj"
  type: "Convolution"
  bottom: "inception_4a/pool"
  top: "inception_4a/pool_proj"
  param {
    lr_mult: 1
    decay_mult: 1
  }
  param {
    lr_mult: 2
    decay_mult: 0
  }
  convolution_param {
    num_output: 64
    kernel_size: 1
    weight_filler {
      type: "xavier"
      std: 0.1
    }
    bias_filler {
      type: "constant"
      value: 0.2
    }
  }
}
layer {
  name: "inception_4a/relu_pool_proj"
  type: "ReLU"
  bottom: "inception_4a/pool_proj"
  top: "inception_4a/pool_proj"
}
layer {
  name: "inception_4a/output"
  type: "Concat"
  bottom: "inception_4a/1x1"
  bottom: "inception_4a/3x3"
  bottom: "inception_4a/5x5"
  bottom: "inception_4a/pool_proj"
  top: "inception_4a/output"
}
layer {
  name: "loss1/ave_pool"
  type: "Pooling"
  bottom: "inception_4a/output"
  top: "loss1/ave_pool"
  pooling_param {
    pool: AVE
    kernel_size: 5
    stride: 3
  }
}
layer {
  name: "loss1/conv"
  type: "Convolution"
  bottom: "loss1/ave_pool"
  top: "loss1/conv"
  param {
    lr_mult: 1
    decay_mult: 1
  }
  param {
    lr_mult: 2
    decay_mult: 0
  }
  convolution_param {
    num_output: 128
    kernel_size: 1
    weight_filler {
      type: "xavier"
      std: 0.08
    }
    bias_filler {
      type: "constant"
      value: 0.2
    }
  }
}
layer {
  name: "loss1/relu_conv"
  type: "ReLU"
  bottom: "loss1/conv"
  top: "loss1/conv"
}
layer {
  name: "loss1/fc"
  type: "InnerProduct"
  bottom: "loss1/conv"
  top: "loss1/fc"
  param {
    lr_mult: 1
    decay_mult: 1
  }
  param {
    lr_mult: 2
    decay_mult: 0
  }
  inner_product_param {
    num_output: 1024
    weight_filler {
      type: "xavier"
      std: 0.02
    }
    bias_filler {
      type: "constant"
      value: 0.2
    }
  }
}
layer {
  name: "loss1/relu_fc"
  type: "ReLU"
  bottom: "loss1/fc"
  top: "loss1/fc"
}
layer {
  name: "loss1/drop_fc"
  type: "Dropout"
  bottom: "loss1/fc"
  top: "loss1/fc"
  dropout_param {
    dropout_ratio: 0.7
  }
}
layer {
  name: "loss1/classifier_plantvillage"
  type: "InnerProduct"
  bottom: "loss1/fc"
  top: "loss1/classifier_plantvillage"
  param {
    lr_mult: 1
    decay_mult: 1
  }
  param {
    lr_mult: 2
    decay_mult: 0
  }
  inner_product_param {
    num_output: 38
    weight_filler {
      type: "xavier"
      std: 0.0009765625
    }
    bias_filler {
      type: "constant"
      value: 0
    }
  }
}
layer {
  name: "inception_4b/1x1"
  type: "Convolution"
  bottom: "inception_4a/output"
  top: "inception_4b/1x1"
  param {
    lr_mult: 1
    decay_mult: 1
  }
  param {
    lr_mult: 2
    decay_mult: 0
  }
  convolution_param {
    num_output: 160
    kernel_size: 1
    weight_filler {
      type: "xavier"
      std: 0.03
    }
    bias_filler {
      type: "constant"
      value: 0.2
    }
  }
}
layer {
  name: "inception_4b/relu_1x1"
  type: "ReLU"
  bottom: "inception_4b/1x1"
  top: "inception_4b/1x1"
}
layer {
  name: "inception_4b/3x3_reduce"
  type: "Convolution"
  bottom: "inception_4a/output"
  top: "inception_4b/3x3_reduce"
  param {
    lr_mult: 1
    decay_mult: 1
  }
  param {
    lr_mult: 2
    decay_mult: 0
  }
  convolution_param {
    num_output: 112
    kernel_size: 1
    weight_filler {
      type: "xavier"
      std: 0.09
    }
    bias_filler {
      type: "constant"
      value: 0.2
    }
  }
}
layer {
  name: "inception_4b/relu_3x3_reduce"
  type: "ReLU"
  bottom: "inception_4b/3x3_reduce"
  top: "inception_4b/3x3_reduce"
}
layer {
  name: "inception_4b/3x3"
  type: "Convolution"
  bottom: "inception_4b/3x3_reduce"
  top: "inception_4b/3x3"
  param {
    lr_mult: 1
    decay_mult: 1
  }
  param {
    lr_mult: 2
    decay_mult: 0
  }
  convolution_param {
    num_output: 224
    pad: 1
    kernel_size: 3
    weight_filler {
      type: "xavier"
      std: 0.03
    }
    bias_filler {
      type: "constant"
      value: 0.2
    }
  }
}
layer {
  name: "inception_4b/relu_3x3"
  type: "ReLU"
  bottom: "inception_4b/3x3"
  top: "inception_4b/3x3"
}
layer {
  name: "inception_4b/5x5_reduce"
  type: "Convolution"
  bottom: "inception_4a/output"
  top: "inception_4b/5x5_reduce"
  param {
    lr_mult: 1
    decay_mult: 1
  }
  param {
    lr_mult: 2
    decay_mult: 0
  }
  convolution_param {
    num_output: 24
    kernel_size: 1
    weight_filler {
      type: "xavier"
      std: 0.2
    }
    bias_filler {
      type: "constant"
      value: 0.2
    }
  }
}
layer {
  name: "inception_4b/relu_5x5_reduce"
  type: "ReLU"
  bottom: "inception_4b/5x5_reduce"
  top: "inception_4b/5x5_reduce"
}
layer {
  name: "inception_4b/5x5"
  type: "Convolution"
  bottom: "inception_4b/5x5_reduce"
  top: "inception_4b/5x5"
  param {
    lr_mult: 1
    decay_mult: 1
  }
  param {
    lr_mult: 2
    decay_mult: 0
  }
  convolution_param {
    num_output: 64
    pad: 2
    kernel_size: 5
    weight_filler {
      type: "xavier"
      std: 0.03
    }
    bias_filler {
      type: "constant"
      value: 0.2
    }
  }
}
layer {
  name: "inception_4b/relu_5x5"
  type: "ReLU"
  bottom: "inception_4b/5x5"
  top: "inception_4b/5x5"
}
layer {
  name: "inception_4b/pool"
  type: "Pooling"
  bottom: "inception_4a/output"
  top: "inception_4b/pool"
  pooling_param {
    pool: MAX
    kernel_size: 3
    stride: 1
    pad: 1
  }
}
layer {
  name: "inception_4b/pool_proj"
  type: "Convolution"
  bottom: "inception_4b/pool"
  top: "inception_4b/pool_proj"
  param {
    lr_mult: 1
    decay_mult: 1
  }
  param {
    lr_mult: 2
    decay_mult: 0
  }
  convolution_param {
    num_output: 64
    kernel_size: 1
    weight_filler {
      type: "xavier"
      std: 0.1
    }
    bias_filler {
      type: "constant"
      value: 0.2
    }
  }
}
layer {
  name: "inception_4b/relu_pool_proj"
  type: "ReLU"
  bottom: "inception_4b/pool_proj"
  top: "inception_4b/pool_proj"
}
layer {
  name: "inception_4b/output"
  type: "Concat"
  bottom: "inception_4b/1x1"
  bottom: "inception_4b/3x3"
  bottom: "inception_4b/5x5"
  bottom: "inception_4b/pool_proj"
  top: "inception_4b/output"
}
layer {
  name: "inception_4c/1x1"
  type: "Convolution"
  bottom: "inception_4b/output"
  top: "inception_4c/1x1"
  param {
    lr_mult: 1
    decay_mult: 1
  }
  param {
    lr_mult: 2
    decay_mult: 0
  }
  convolution_param {
    num_output: 128
    kernel_size: 1
    weight_filler {
      type: "xavier"
      std: 0.03
    }
    bias_filler {
      type: "constant"
      value: 0.2
    }
  }
}
layer {
  name: "inception_4c/relu_1x1"
  type: "ReLU"
  bottom: "inception_4c/1x1"
  top: "inception_4c/1x1"
}
layer {
  name: "inception_4c/3x3_reduce"
  type: "Convolution"
  bottom: "inception_4b/output"
  top: "inception_4c/3x3_reduce"
  param {
    lr_mult: 1
    decay_mult: 1
  }
  param {
    lr_mult: 2
    decay_mult: 0
  }
  convolution_param {
    num_output: 128
    kernel_size: 1
    weight_filler {
      type: "xavier"
      std: 0.09
    }
    bias_filler {
      type: "constant"
      value: 0.2
    }
  }
}
layer {
  name: "inception_4c/relu_3x3_reduce"
  type: "ReLU"
  bottom: "inception_4c/3x3_reduce"
  top: "inception_4c/3x3_reduce"
}
layer {
  name: "inception_4c/3x3"
  type: "Convolution"
  bottom: "inception_4c/3x3_reduce"
  top: "inception_4c/3x3"
  param {
    lr_mult: 1
    decay_mult: 1
  }
  param {
    lr_mult: 2
    decay_mult: 0
  }
  convolution_param {
    num_output: 256
    pad: 1
    kernel_size: 3
    weight_filler {
      type: "xavier"
      std: 0.03
    }
    bias_filler {
      type: "constant"
      value: 0.2
    }
  }
}
layer {
  name: "inception_4c/relu_3x3"
  type: "ReLU"
  bottom: "inception_4c/3x3"
  top: "inception_4c/3x3"
}
layer {
  name: "inception_4c/5x5_reduce"
  type: "Convolution"
  bottom: "inception_4b/output"
  top: "inception_4c/5x5_reduce"
  param {
    lr_mult: 1
    decay_mult: 1
  }
  param {
    lr_mult: 2
    decay_mult: 0
  }
  convolution_param {
    num_output: 24
    kernel_size: 1
    weight_filler {
      type: "xavier"
      std: 0.2
    }
    bias_filler {
      type: "constant"
      value: 0.2
    }
  }
}
layer {
  name: "inception_4c/relu_5x5_reduce"
  type: "ReLU"
  bottom: "inception_4c/5x5_reduce"
  top: "inception_4c/5x5_reduce"
}
layer {
  name: "inception_4c/5x5"
  type: "Convolution"
  bottom: "inception_4c/5x5_reduce"
  top: "inception_4c/5x5"
  param {
    lr_mult: 1
    decay_mult: 1
  }
  param {
    lr_mult: 2
    decay_mult: 0
  }
  convolution_param {
    num_output: 64
    pad: 2
    kernel_size: 5
    weight_filler {
      type: "xavier"
      std: 0.03
    }
    bias_filler {
      type: "constant"
      value: 0.2
    }
  }
}
layer {
  name: "inception_4c/relu_5x5"
  type: "ReLU"
  bottom: "inception_4c/5x5"
  top: "inception_4c/5x5"
}
layer {
  name: "inception_4c/pool"
  type: "Pooling"
  bottom: "inception_4b/output"
  top: "inception_4c/pool"
  pooling_param {
    pool: MAX
    kernel_size: 3
    stride: 1
    pad: 1
  }
}
layer {
  name: "inception_4c/pool_proj"
  type: "Convolution"
  bottom: "inception_4c/pool"
  top: "inception_4c/pool_proj"
  param {
    lr_mult: 1
    decay_mult: 1
  }
  param {
    lr_mult: 2
    decay_mult: 0
  }
  convolution_param {
    num_output: 64
    kernel_size: 1
    weight_filler {
      type: "xavier"
      std: 0.1
    }
    bias_filler {
      type: "constant"
      value: 0.2
    }
  }
}
layer {
  name: "inception_4c/relu_pool_proj"
  type: "ReLU"
  bottom: "inception_4c/pool_proj"
  top: "inception_4c/pool_proj"
}
layer {
  name: "inception_4c/output"
  type: "Concat"
  bottom: "inception_4c/1x1"
  bottom: "inception_4c/3x3"
  bottom: "inception_4c/5x5"
  bottom: "inception_4c/pool_proj"
  top: "inception_4c/output"
}
layer {
  name: "inception_4d/1x1"
  type: "Convolution"
  bottom: "inception_4c/output"
  top: "inception_4d/1x1"
  param {
    lr_mult: 1
    decay_mult: 1
  }
  param {
    lr_mult: 2
    decay_mult: 0
  }
  convolution_param {
    num_output: 112
    kernel_size: 1
    weight_filler {
      type: "xavier"
      std: 0.03
    }
    bias_filler {
      type: "constant"
      value: 0.2
    }
  }
}
layer {
  name: "inception_4d/relu_1x1"
  type: "ReLU"
  bottom: "inception_4d/1x1"
  top: "inception_4d/1x1"
}
layer {
  name: "inception_4d/3x3_reduce"
  type: "Convolution"
  bottom: "inception_4c/output"
  top: "inception_4d/3x3_reduce"
  param {
    lr_mult: 1
    decay_mult: 1
  }
  param {
    lr_mult: 2
    decay_mult: 0
  }
  convolution_param {
    num_output: 144
    kernel_size: 1
    weight_filler {
      type: "xavier"
      std: 0.09
    }
    bias_filler {
      type: "constant"
      value: 0.2
    }
  }
}
layer {
  name: "inception_4d/relu_3x3_reduce"
  type: "ReLU"
  bottom: "inception_4d/3x3_reduce"
  top: "inception_4d/3x3_reduce"
}
layer {
  name: "inception_4d/3x3"
  type: "Convolution"
  bottom: "inception_4d/3x3_reduce"
  top: "inception_4d/3x3"
  param {
    lr_mult: 1
    decay_mult: 1
  }
  param {
    lr_mult: 2
    decay_mult: 0
  }
  convolution_param {
    num_output: 288
    pad: 1
    kernel_size: 3
    weight_filler {
      type: "xavier"
      std: 0.03
    }
    bias_filler {
      type: "constant"
      value: 0.2
    }
  }
}
layer {
  name: "inception_4d/relu_3x3"
  type: "ReLU"
  bottom: "inception_4d/3x3"
  top: "inception_4d/3x3"
}
layer {
  name: "inception_4d/5x5_reduce"
  type: "Convolution"
  bottom: "inception_4c/output"
  top: "inception_4d/5x5_reduce"
  param {
    lr_mult: 1
    decay_mult: 1
  }
  param {
    lr_mult: 2
    decay_mult: 0
  }
  convolution_param {
    num_output: 32
    kernel_size: 1
    weight_filler {
      type: "xavier"
      std: 0.2
    }
    bias_filler {
      type: "constant"
      value: 0.2
    }
  }
}
layer {
  name: "inception_4d/relu_5x5_reduce"
  type: "ReLU"
  bottom: "inception_4d/5x5_reduce"
  top: "inception_4d/5x5_reduce"
}
layer {
  name: "inception_4d/5x5"
  type: "Convolution"
  bottom: "inception_4d/5x5_reduce"
  top: "inception_4d/5x5"
  param {
    lr_mult: 1
    decay_mult: 1
  }
  param {
    lr_mult: 2
    decay_mult: 0
  }
  convolution_param {
    num_output: 64
    pad: 2
    kernel_size: 5
    weight_filler {
      type: "xavier"
      std: 0.03
    }
    bias_filler {
      type: "constant"
      value: 0.2
    }
  }
}
layer {
  name: "inception_4d/relu_5x5"
  type: "ReLU"
  bottom: "inception_4d/5x5"
  top: "inception_4d/5x5"
}
layer {
  name: "inception_4d/pool"
  type: "Pooling"
  bottom: "inception_4c/output"
  top: "inception_4d/pool"
  pooling_param {
    pool: MAX
    kernel_size: 3
    stride: 1
    pad: 1
  }
}
layer {
  name: "inception_4d/pool_proj"
  type: "Convolution"
  bottom: "inception_4d/pool"
  top: "inception_4d/pool_proj"
  param {
    lr_mult: 1
    decay_mult: 1
  }
  param {
    lr_mult: 2
    decay_mult: 0
  }
  convolution_param {
    num_output: 64
    kernel_size: 1
    weight_filler {
      type: "xavier"
      std: 0.1
    }
    bias_filler {
      type: "constant"
      value: 0.2
    }
  }
}
layer {
  name: "inception_4d/relu_pool_proj"
  type: "ReLU"
  bottom: "inception_4d/pool_proj"
  top: "inception_4d/pool_proj"
}
layer {
  name: "inception_4d/output"
  type: "Concat"
  bottom: "inception_4d/1x1"
  bottom: "inception_4d/3x3"
  bottom: "inception_4d/5x5"
  bottom: "inception_4d/pool_proj"
  top: "inception_4d/output"
}
layer {
  name: "loss2/ave_pool"
  type: "Pooling"
  bottom: "inception_4d/output"
  top: "loss2/ave_pool"
  pooling_param {
    pool: AVE
    kernel_size: 5
    stride: 3
  }
}
layer {
  name: "loss2/conv"
  type: "Convolution"
  bottom: "loss2/ave_pool"
  top: "loss2/conv"
  param {
    lr_mult: 1
    decay_mult: 1
  }
  param {
    lr_mult: 2
    decay_mult: 0
  }
  convolution_param {
    num_output: 128
    kernel_size: 1
    weight_filler {
      type: "xavier"
      std: 0.08
    }
    bias_filler {
      type: "constant"
      value: 0.2
    }
  }
}
layer {
  name: "loss2/relu_conv"
  type: "ReLU"
  bottom: "loss2/conv"
  top: "loss2/conv"
}
layer {
  name: "loss2/fc"
  type: "InnerProduct"
  bottom: "loss2/conv"
  top: "loss2/fc"
  param {
    lr_mult: 1
    decay_mult: 1
  }
  param {
    lr_mult: 2
    decay_mult: 0
  }
  inner_product_param {
    num_output: 1024
    weight_filler {
      type: "xavier"
      std: 0.02
    }
    bias_filler {
      type: "constant"
      value: 0.2
    }
  }
}
layer {
  name: "loss2/relu_fc"
  type: "ReLU"
  bottom: "loss2/fc"
  top: "loss2/fc"
}
layer {
  name: "loss2/drop_fc"
  type: "Dropout"
  bottom: "loss2/fc"
  top: "loss2/fc"
  dropout_param {
    dropout_ratio: 0.7
  }
}
layer {
  name: "loss2/classifier_plantvillage"
  type: "InnerProduct"
  bottom: "loss2/fc"
  top: "loss2/classifier_plantvillage"
  param {
    lr_mult: 1
    decay_mult: 1
  }
  param {
    lr_mult: 2
    decay_mult: 0
  }
  inner_product_param {
    num_output: 38
    weight_filler {
      type: "xavier"
      std: 0.0009765625
    }
    bias_filler {
      type: "constant"
      value: 0
    }
  }
}
layer {
  name: "inception_4e/1x1"
  type: "Convolution"
  bottom: "inception_4d/output"
  top: "inception_4e/1x1"
  param {
    lr_mult: 1
    decay_mult: 1
  }
  param {
    lr_mult: 2
    decay_mult: 0
  }
  convolution_param {
    num_output: 256
    kernel_size: 1
    weight_filler {
      type: "xavier"
      std: 0.03
    }
    bias_filler {
      type: "constant"
      value: 0.2
    }
  }
}
layer {
  name: "inception_4e/relu_1x1"
  type: "ReLU"
  bottom: "inception_4e/1x1"
  top: "inception_4e/1x1"
}
layer {
  name: "inception_4e/3x3_reduce"
  type: "Convolution"
  bottom: "inception_4d/output"
  top: "inception_4e/3x3_reduce"
  param {
    lr_mult: 1
    decay_mult: 1
  }
  param {
    lr_mult: 2
    decay_mult: 0
  }
  convolution_param {
    num_output: 160
    kernel_size: 1
    weight_filler {
      type: "xavier"
      std: 0.09
    }
    bias_filler {
      type: "constant"
      value: 0.2
    }
  }
}
layer {
  name: "inception_4e/relu_3x3_reduce"
  type: "ReLU"
  bottom: "inception_4e/3x3_reduce"
  top: "inception_4e/3x3_reduce"
}
layer {
  name: "inception_4e/3x3"
  type: "Convolution"
  bottom: "inception_4e/3x3_reduce"
  top: "inception_4e/3x3"
  param {
    lr_mult: 1
    decay_mult: 1
  }
  param {
    lr_mult: 2
    decay_mult: 0
  }
  convolution_param {
    num_output: 320
    pad: 1
    kernel_size: 3
    weight_filler {
      type: "xavier"
      std: 0.03
    }
    bias_filler {
      type: "constant"
      value: 0.2
    }
  }
}
layer {
  name: "inception_4e/relu_3x3"
  type: "ReLU"
  bottom: "inception_4e/3x3"
  top: "inception_4e/3x3"
}
layer {
  name: "inception_4e/5x5_reduce"
  type: "Convolution"
  bottom: "inception_4d/output"
  top: "inception_4e/5x5_reduce"
  param {
    lr_mult: 1
    decay_mult: 1
  }
  param {
    lr_mult: 2
    decay_mult: 0
  }
  convolution_param {
    num_output: 32
    kernel_size: 1
    weight_filler {
      type: "xavier"
      std: 0.2
    }
    bias_filler {
      type: "constant"
      value: 0.2
    }
  }
}
layer {
  name: "inception_4e/relu_5x5_reduce"
  type: "ReLU"
  bottom: "inception_4e/5x5_reduce"
  top: "inception_4e/5x5_reduce"
}
layer {
  name: "inception_4e/5x5"
  type: "Convolution"
  bottom: "inception_4e/5x5_reduce"
  top: "inception_4e/5x5"
  p
I0403 17:06:22.567405 20466 layer_factory.hpp:77] Creating layer data
I0403 17:06:22.568033 20466 net.cpp:91] Creating Layer data
I0403 17:06:22.568066 20466 net.cpp:399] data -> data
I0403 17:06:22.568119 20466 net.cpp:399] data -> label
I0403 17:06:22.568156 20466 data_transformer.cpp:25] Loading mean file from: /home/mohanty/data/final_dataset/lmdb/color-20-80/mean.binaryproto
I0403 17:06:22.569229 20468 db_lmdb.cpp:38] Opened lmdb /home/mohanty/data/final_dataset/lmdb/color-20-80/test_db
I0403 17:06:22.581723 20466 data_layer.cpp:41] output data size: 24,3,224,224
I0403 17:06:22.609802 20466 net.cpp:141] Setting up data
I0403 17:06:22.609890 20466 net.cpp:148] Top shape: 24 3 224 224 (3612672)
I0403 17:06:22.609915 20466 net.cpp:148] Top shape: 24 (24)
I0403 17:06:22.609930 20466 net.cpp:156] Memory required for data: 14450784
I0403 17:06:22.609958 20466 layer_factory.hpp:77] Creating layer label_data_1_split
I0403 17:06:22.609987 20466 net.cpp:91] Creating Layer label_data_1_split
I0403 17:06:22.610004 20466 net.cpp:425] label_data_1_split <- label
I0403 17:06:22.610038 20466 net.cpp:399] label_data_1_split -> label_data_1_split_0
I0403 17:06:22.610066 20466 net.cpp:399] label_data_1_split -> label_data_1_split_1
I0403 17:06:22.610088 20466 net.cpp:399] label_data_1_split -> label_data_1_split_2
I0403 17:06:22.610110 20466 net.cpp:399] label_data_1_split -> label_data_1_split_3
I0403 17:06:22.610129 20466 net.cpp:399] label_data_1_split -> label_data_1_split_4
I0403 17:06:22.610151 20466 net.cpp:399] label_data_1_split -> label_data_1_split_5
I0403 17:06:22.610169 20466 net.cpp:399] label_data_1_split -> label_data_1_split_6
I0403 17:06:22.610190 20466 net.cpp:399] label_data_1_split -> label_data_1_split_7
I0403 17:06:22.610211 20466 net.cpp:399] label_data_1_split -> label_data_1_split_8
I0403 17:06:22.610234 20466 net.cpp:399] label_data_1_split -> label_data_1_split_9
I0403 17:06:22.610352 20466 net.cpp:141] Setting up label_data_1_split
I0403 17:06:22.610376 20466 net.cpp:148] Top shape: 24 (24)
I0403 17:06:22.610394 20466 net.cpp:148] Top shape: 24 (24)
I0403 17:06:22.610409 20466 net.cpp:148] Top shape: 24 (24)
I0403 17:06:22.610424 20466 net.cpp:148] Top shape: 24 (24)
I0403 17:06:22.610440 20466 net.cpp:148] Top shape: 24 (24)
I0403 17:06:22.610457 20466 net.cpp:148] Top shape: 24 (24)
I0403 17:06:22.610473 20466 net.cpp:148] Top shape: 24 (24)
I0403 17:06:22.610488 20466 net.cpp:148] Top shape: 24 (24)
I0403 17:06:22.610504 20466 net.cpp:148] Top shape: 24 (24)
I0403 17:06:22.610520 20466 net.cpp:148] Top shape: 24 (24)
I0403 17:06:22.610559 20466 net.cpp:156] Memory required for data: 14451744
I0403 17:06:22.610576 20466 layer_factory.hpp:77] Creating layer conv1/7x7_s2
I0403 17:06:22.610613 20466 net.cpp:91] Creating Layer conv1/7x7_s2
I0403 17:06:22.610632 20466 net.cpp:425] conv1/7x7_s2 <- data
I0403 17:06:22.610652 20466 net.cpp:399] conv1/7x7_s2 -> conv1/7x7_s2
I0403 17:06:22.749289 20466 net.cpp:141] Setting up conv1/7x7_s2
I0403 17:06:22.749352 20466 net.cpp:148] Top shape: 24 64 112 112 (19267584)
I0403 17:06:22.749369 20466 net.cpp:156] Memory required for data: 91522080
I0403 17:06:22.749402 20466 layer_factory.hpp:77] Creating layer conv1/relu_7x7
I0403 17:06:22.749428 20466 net.cpp:91] Creating Layer conv1/relu_7x7
I0403 17:06:22.749447 20466 net.cpp:425] conv1/relu_7x7 <- conv1/7x7_s2
I0403 17:06:22.749467 20466 net.cpp:386] conv1/relu_7x7 -> conv1/7x7_s2 (in-place)
I0403 17:06:22.749728 20466 net.cpp:141] Setting up conv1/relu_7x7
I0403 17:06:22.749758 20466 net.cpp:148] Top shape: 24 64 112 112 (19267584)
I0403 17:06:22.749773 20466 net.cpp:156] Memory required for data: 168592416
I0403 17:06:22.749788 20466 layer_factory.hpp:77] Creating layer pool1/3x3_s2
I0403 17:06:22.749821 20466 net.cpp:91] Creating Layer pool1/3x3_s2
I0403 17:06:22.749838 20466 net.cpp:425] pool1/3x3_s2 <- conv1/7x7_s2
I0403 17:06:22.749856 20466 net.cpp:399] pool1/3x3_s2 -> pool1/3x3_s2
I0403 17:06:22.749930 20466 net.cpp:141] Setting up pool1/3x3_s2
I0403 17:06:22.749955 20466 net.cpp:148] Top shape: 24 64 56 56 (4816896)
I0403 17:06:22.749970 20466 net.cpp:156] Memory required for data: 187860000
I0403 17:06:22.749985 20466 layer_factory.hpp:77] Creating layer pool1/norm1
I0403 17:06:22.750010 20466 net.cpp:91] Creating Layer pool1/norm1
I0403 17:06:22.750026 20466 net.cpp:425] pool1/norm1 <- pool1/3x3_s2
I0403 17:06:22.750044 20466 net.cpp:399] pool1/norm1 -> pool1/norm1
I0403 17:06:22.750324 20466 net.cpp:141] Setting up pool1/norm1
I0403 17:06:22.750354 20466 net.cpp:148] Top shape: 24 64 56 56 (4816896)
I0403 17:06:22.750368 20466 net.cpp:156] Memory required for data: 207127584
I0403 17:06:22.750383 20466 layer_factory.hpp:77] Creating layer conv2/3x3_reduce
I0403 17:06:22.750408 20466 net.cpp:91] Creating Layer conv2/3x3_reduce
I0403 17:06:22.750427 20466 net.cpp:425] conv2/3x3_reduce <- pool1/norm1
I0403 17:06:22.750447 20466 net.cpp:399] conv2/3x3_reduce -> conv2/3x3_reduce
I0403 17:06:22.751744 20466 net.cpp:141] Setting up conv2/3x3_reduce
I0403 17:06:22.751773 20466 net.cpp:148] Top shape: 24 64 56 56 (4816896)
I0403 17:06:22.751791 20466 net.cpp:156] Memory required for data: 226395168
I0403 17:06:22.751811 20466 layer_factory.hpp:77] Creating layer conv2/relu_3x3_reduce
I0403 17:06:22.751830 20466 net.cpp:91] Creating Layer conv2/relu_3x3_reduce
I0403 17:06:22.751847 20466 net.cpp:425] conv2/relu_3x3_reduce <- conv2/3x3_reduce
I0403 17:06:22.751863 20466 net.cpp:386] conv2/relu_3x3_reduce -> conv2/3x3_reduce (in-place)
I0403 17:06:22.752115 20466 net.cpp:141] Setting up conv2/relu_3x3_reduce
I0403 17:06:22.752141 20466 net.cpp:148] Top shape: 24 64 56 56 (4816896)
I0403 17:06:22.752157 20466 net.cpp:156] Memory required for data: 245662752
I0403 17:06:22.752171 20466 layer_factory.hpp:77] Creating layer conv2/3x3
I0403 17:06:22.752192 20466 net.cpp:91] Creating Layer conv2/3x3
I0403 17:06:22.752209 20466 net.cpp:425] conv2/3x3 <- conv2/3x3_reduce
I0403 17:06:22.752228 20466 net.cpp:399] conv2/3x3 -> conv2/3x3
I0403 17:06:22.754452 20466 net.cpp:141] Setting up conv2/3x3
I0403 17:06:22.754482 20466 net.cpp:148] Top shape: 24 192 56 56 (14450688)
I0403 17:06:22.754499 20466 net.cpp:156] Memory required for data: 303465504
I0403 17:06:22.754521 20466 layer_factory.hpp:77] Creating layer conv2/relu_3x3
I0403 17:06:22.754540 20466 net.cpp:91] Creating Layer conv2/relu_3x3
I0403 17:06:22.754556 20466 net.cpp:425] conv2/relu_3x3 <- conv2/3x3
I0403 17:06:22.754583 20466 net.cpp:386] conv2/relu_3x3 -> conv2/3x3 (in-place)
I0403 17:06:22.754750 20466 net.cpp:141] Setting up conv2/relu_3x3
I0403 17:06:22.754776 20466 net.cpp:148] Top shape: 24 192 56 56 (14450688)
I0403 17:06:22.754825 20466 net.cpp:156] Memory required for data: 361268256
I0403 17:06:22.754842 20466 layer_factory.hpp:77] Creating layer conv2/norm2
I0403 17:06:22.754860 20466 net.cpp:91] Creating Layer conv2/norm2
I0403 17:06:22.754876 20466 net.cpp:425] conv2/norm2 <- conv2/3x3
I0403 17:06:22.754894 20466 net.cpp:399] conv2/norm2 -> conv2/norm2
I0403 17:06:22.755180 20466 net.cpp:141] Setting up conv2/norm2
I0403 17:06:22.755208 20466 net.cpp:148] Top shape: 24 192 56 56 (14450688)
I0403 17:06:22.755224 20466 net.cpp:156] Memory required for data: 419071008
I0403 17:06:22.755239 20466 layer_factory.hpp:77] Creating layer pool2/3x3_s2
I0403 17:06:22.755256 20466 net.cpp:91] Creating Layer pool2/3x3_s2
I0403 17:06:22.755271 20466 net.cpp:425] pool2/3x3_s2 <- conv2/norm2
I0403 17:06:22.755290 20466 net.cpp:399] pool2/3x3_s2 -> pool2/3x3_s2
I0403 17:06:22.755341 20466 net.cpp:141] Setting up pool2/3x3_s2
I0403 17:06:22.755363 20466 net.cpp:148] Top shape: 24 192 28 28 (3612672)
I0403 17:06:22.755378 20466 net.cpp:156] Memory required for data: 433521696
I0403 17:06:22.755393 20466 layer_factory.hpp:77] Creating layer pool2/3x3_s2_pool2/3x3_s2_0_split
I0403 17:06:22.755410 20466 net.cpp:91] Creating Layer pool2/3x3_s2_pool2/3x3_s2_0_split
I0403 17:06:22.755425 20466 net.cpp:425] pool2/3x3_s2_pool2/3x3_s2_0_split <- pool2/3x3_s2
I0403 17:06:22.755444 20466 net.cpp:399] pool2/3x3_s2_pool2/3x3_s2_0_split -> pool2/3x3_s2_pool2/3x3_s2_0_split_0
I0403 17:06:22.755463 20466 net.cpp:399] pool2/3x3_s2_pool2/3x3_s2_0_split -> pool2/3x3_s2_pool2/3x3_s2_0_split_1
I0403 17:06:22.755486 20466 net.cpp:399] pool2/3x3_s2_pool2/3x3_s2_0_split -> pool2/3x3_s2_pool2/3x3_s2_0_split_2
I0403 17:06:22.755508 20466 net.cpp:399] pool2/3x3_s2_pool2/3x3_s2_0_split -> pool2/3x3_s2_pool2/3x3_s2_0_split_3
I0403 17:06:22.755596 20466 net.cpp:141] Setting up pool2/3x3_s2_pool2/3x3_s2_0_split
I0403 17:06:22.755621 20466 net.cpp:148] Top shape: 24 192 28 28 (3612672)
I0403 17:06:22.755640 20466 net.cpp:148] Top shape: 24 192 28 28 (3612672)
I0403 17:06:22.755668 20466 net.cpp:148] Top shape: 24 192 28 28 (3612672)
I0403 17:06:22.755686 20466 net.cpp:148] Top shape: 24 192 28 28 (3612672)
I0403 17:06:22.755700 20466 net.cpp:156] Memory required for data: 491324448
I0403 17:06:22.755715 20466 layer_factory.hpp:77] Creating layer inception_3a/1x1
I0403 17:06:22.755740 20466 net.cpp:91] Creating Layer inception_3a/1x1
I0403 17:06:22.755759 20466 net.cpp:425] inception_3a/1x1 <- pool2/3x3_s2_pool2/3x3_s2_0_split_0
I0403 17:06:22.755782 20466 net.cpp:399] inception_3a/1x1 -> inception_3a/1x1
I0403 17:06:22.757387 20466 net.cpp:141] Setting up inception_3a/1x1
I0403 17:06:22.757422 20466 net.cpp:148] Top shape: 24 64 28 28 (1204224)
I0403 17:06:22.757441 20466 net.cpp:156] Memory required for data: 496141344
I0403 17:06:22.757460 20466 layer_factory.hpp:77] Creating layer inception_3a/relu_1x1
I0403 17:06:22.757479 20466 net.cpp:91] Creating Layer inception_3a/relu_1x1
I0403 17:06:22.757496 20466 net.cpp:425] inception_3a/relu_1x1 <- inception_3a/1x1
I0403 17:06:22.757518 20466 net.cpp:386] inception_3a/relu_1x1 -> inception_3a/1x1 (in-place)
I0403 17:06:22.757704 20466 net.cpp:141] Setting up inception_3a/relu_1x1
I0403 17:06:22.757731 20466 net.cpp:148] Top shape: 24 64 28 28 (1204224)
I0403 17:06:22.757747 20466 net.cpp:156] Memory required for data: 500958240
I0403 17:06:22.757763 20466 layer_factory.hpp:77] Creating layer inception_3a/3x3_reduce
I0403 17:06:22.757787 20466 net.cpp:91] Creating Layer inception_3a/3x3_reduce
I0403 17:06:22.757805 20466 net.cpp:425] inception_3a/3x3_reduce <- pool2/3x3_s2_pool2/3x3_s2_0_split_1
I0403 17:06:22.757828 20466 net.cpp:399] inception_3a/3x3_reduce -> inception_3a/3x3_reduce
I0403 17:06:22.759542 20466 net.cpp:141] Setting up inception_3a/3x3_reduce
I0403 17:06:22.759577 20466 net.cpp:148] Top shape: 24 96 28 28 (1806336)
I0403 17:06:22.759595 20466 net.cpp:156] Memory required for data: 508183584
I0403 17:06:22.759618 20466 layer_factory.hpp:77] Creating layer inception_3a/relu_3x3_reduce
I0403 17:06:22.759659 20466 net.cpp:91] Creating Layer inception_3a/relu_3x3_reduce
I0403 17:06:22.759678 20466 net.cpp:425] inception_3a/relu_3x3_reduce <- inception_3a/3x3_reduce
I0403 17:06:22.759696 20466 net.cpp:386] inception_3a/relu_3x3_reduce -> inception_3a/3x3_reduce (in-place)
I0403 17:06:22.759882 20466 net.cpp:141] Setting up inception_3a/relu_3x3_reduce
I0403 17:06:22.759912 20466 net.cpp:148] Top shape: 24 96 28 28 (1806336)
I0403 17:06:22.759929 20466 net.cpp:156] Memory required for data: 515408928
I0403 17:06:22.759946 20466 layer_factory.hpp:77] Creating layer inception_3a/3x3
I0403 17:06:22.759968 20466 net.cpp:91] Creating Layer inception_3a/3x3
I0403 17:06:22.759986 20466 net.cpp:425] inception_3a/3x3 <- inception_3a/3x3_reduce
I0403 17:06:22.760005 20466 net.cpp:399] inception_3a/3x3 -> inception_3a/3x3
I0403 17:06:22.761696 20466 net.cpp:141] Setting up inception_3a/3x3
I0403 17:06:22.761726 20466 net.cpp:148] Top shape: 24 128 28 28 (2408448)
I0403 17:06:22.761744 20466 net.cpp:156] Memory required for data: 525042720
I0403 17:06:22.761764 20466 layer_factory.hpp:77] Creating layer inception_3a/relu_3x3
I0403 17:06:22.761785 20466 net.cpp:91] Creating Layer inception_3a/relu_3x3
I0403 17:06:22.761802 20466 net.cpp:425] inception_3a/relu_3x3 <- inception_3a/3x3
I0403 17:06:22.761821 20466 net.cpp:386] inception_3a/relu_3x3 -> inception_3a/3x3 (in-place)
I0403 17:06:22.762095 20466 net.cpp:141] Setting up inception_3a/relu_3x3
I0403 17:06:22.762123 20466 net.cpp:148] Top shape: 24 128 28 28 (2408448)
I0403 17:06:22.762140 20466 net.cpp:156] Memory required for data: 534676512
I0403 17:06:22.762154 20466 layer_factory.hpp:77] Creating layer inception_3a/5x5_reduce
I0403 17:06:22.762177 20466 net.cpp:91] Creating Layer inception_3a/5x5_reduce
I0403 17:06:22.762197 20466 net.cpp:425] inception_3a/5x5_reduce <- pool2/3x3_s2_pool2/3x3_s2_0_split_2
I0403 17:06:22.762217 20466 net.cpp:399] inception_3a/5x5_reduce -> inception_3a/5x5_reduce
I0403 17:06:22.763188 20466 net.cpp:141] Setting up inception_3a/5x5_reduce
I0403 17:06:22.763217 20466 net.cpp:148] Top shape: 24 16 28 28 (301056)
I0403 17:06:22.763233 20466 net.cpp:156] Memory required for data: 535880736
I0403 17:06:22.763253 20466 layer_factory.hpp:77] Creating layer inception_3a/relu_5x5_reduce
I0403 17:06:22.763275 20466 net.cpp:91] Creating Layer inception_3a/relu_5x5_reduce
I0403 17:06:22.763293 20466 net.cpp:425] inception_3a/relu_5x5_reduce <- inception_3a/5x5_reduce
I0403 17:06:22.763311 20466 net.cpp:386] inception_3a/relu_5x5_reduce -> inception_3a/5x5_reduce (in-place)
I0403 17:06:22.763617 20466 net.cpp:141] Setting up inception_3a/relu_5x5_reduce
I0403 17:06:22.763646 20466 net.cpp:148] Top shape: 24 16 28 28 (301056)
I0403 17:06:22.763662 20466 net.cpp:156] Memory required for data: 537084960
I0403 17:06:22.763679 20466 layer_factory.hpp:77] Creating layer inception_3a/5x5
I0403 17:06:22.763701 20466 net.cpp:91] Creating Layer inception_3a/5x5
I0403 17:06:22.763720 20466 net.cpp:425] inception_3a/5x5 <- inception_3a/5x5_reduce
I0403 17:06:22.763741 20466 net.cpp:399] inception_3a/5x5 -> inception_3a/5x5
I0403 17:06:22.764785 20466 net.cpp:141] Setting up inception_3a/5x5
I0403 17:06:22.764823 20466 net.cpp:148] Top shape: 24 32 28 28 (602112)
I0403 17:06:22.764840 20466 net.cpp:156] Memory required for data: 539493408
I0403 17:06:22.764860 20466 layer_factory.hpp:77] Creating layer inception_3a/relu_5x5
I0403 17:06:22.764879 20466 net.cpp:91] Creating Layer inception_3a/relu_5x5
I0403 17:06:22.764895 20466 net.cpp:425] inception_3a/relu_5x5 <- inception_3a/5x5
I0403 17:06:22.764916 20466 net.cpp:386] inception_3a/relu_5x5 -> inception_3a/5x5 (in-place)
I0403 17:06:22.765089 20466 net.cpp:141] Setting up inception_3a/relu_5x5
I0403 17:06:22.765116 20466 net.cpp:148] Top shape: 24 32 28 28 (602112)
I0403 17:06:22.765132 20466 net.cpp:156] Memory required for data: 541901856
I0403 17:06:22.765148 20466 layer_factory.hpp:77] Creating layer inception_3a/pool
I0403 17:06:22.765168 20466 net.cpp:91] Creating Layer inception_3a/pool
I0403 17:06:22.765185 20466 net.cpp:425] inception_3a/pool <- pool2/3x3_s2_pool2/3x3_s2_0_split_3
I0403 17:06:22.765219 20466 net.cpp:399] inception_3a/pool -> inception_3a/pool
I0403 17:06:22.765280 20466 net.cpp:141] Setting up inception_3a/pool
I0403 17:06:22.765305 20466 net.cpp:148] Top shape: 24 192 28 28 (3612672)
I0403 17:06:22.765321 20466 net.cpp:156] Memory required for data: 556352544
I0403 17:06:22.765336 20466 layer_factory.hpp:77] Creating layer inception_3a/pool_proj
I0403 17:06:22.765358 20466 net.cpp:91] Creating Layer inception_3a/pool_proj
I0403 17:06:22.765377 20466 net.cpp:425] inception_3a/pool_proj <- inception_3a/pool
I0403 17:06:22.765398 20466 net.cpp:399] inception_3a/pool_proj -> inception_3a/pool_proj
I0403 17:06:22.766377 20466 net.cpp:141] Setting up inception_3a/pool_proj
I0403 17:06:22.766409 20466 net.cpp:148] Top shape: 24 32 28 28 (602112)
I0403 17:06:22.766427 20466 net.cpp:156] Memory required for data: 558760992
I0403 17:06:22.766449 20466 layer_factory.hpp:77] Creating layer inception_3a/relu_pool_proj
I0403 17:06:22.766471 20466 net.cpp:91] Creating Layer inception_3a/relu_pool_proj
I0403 17:06:22.766489 20466 net.cpp:425] inception_3a/relu_pool_proj <- inception_3a/pool_proj
I0403 17:06:22.766508 20466 net.cpp:386] inception_3a/relu_pool_proj -> inception_3a/pool_proj (in-place)
I0403 17:06:22.766795 20466 net.cpp:141] Setting up inception_3a/relu_pool_proj
I0403 17:06:22.766824 20466 net.cpp:148] Top shape: 24 32 28 28 (602112)
I0403 17:06:22.766839 20466 net.cpp:156] Memory required for data: 561169440
I0403 17:06:22.766855 20466 layer_factory.hpp:77] Creating layer inception_3a/output
I0403 17:06:22.766873 20466 net.cpp:91] Creating Layer inception_3a/output
I0403 17:06:22.766891 20466 net.cpp:425] inception_3a/output <- inception_3a/1x1
I0403 17:06:22.766909 20466 net.cpp:425] inception_3a/output <- inception_3a/3x3
I0403 17:06:22.766928 20466 net.cpp:425] inception_3a/output <- inception_3a/5x5
I0403 17:06:22.766945 20466 net.cpp:425] inception_3a/output <- inception_3a/pool_proj
I0403 17:06:22.766965 20466 net.cpp:399] inception_3a/output -> inception_3a/output
I0403 17:06:22.767014 20466 net.cpp:141] Setting up inception_3a/output
I0403 17:06:22.767040 20466 net.cpp:148] Top shape: 24 256 28 28 (4816896)
I0403 17:06:22.767057 20466 net.cpp:156] Memory required for data: 580437024
I0403 17:06:22.767072 20466 layer_factory.hpp:77] Creating layer inception_3a/output_inception_3a/output_0_split
I0403 17:06:22.767091 20466 net.cpp:91] Creating Layer inception_3a/output_inception_3a/output_0_split
I0403 17:06:22.767107 20466 net.cpp:425] inception_3a/output_inception_3a/output_0_split <- inception_3a/output
I0403 17:06:22.767127 20466 net.cpp:399] inception_3a/output_inception_3a/output_0_split -> inception_3a/output_inception_3a/output_0_split_0
I0403 17:06:22.767148 20466 net.cpp:399] inception_3a/output_inception_3a/output_0_split -> inception_3a/output_inception_3a/output_0_split_1
I0403 17:06:22.767173 20466 net.cpp:399] inception_3a/output_inception_3a/output_0_split -> inception_3a/output_inception_3a/output_0_split_2
I0403 17:06:22.767195 20466 net.cpp:399] inception_3a/output_inception_3a/output_0_split -> inception_3a/output_inception_3a/output_0_split_3
I0403 17:06:22.767273 20466 net.cpp:141] Setting up inception_3a/output_inception_3a/output_0_split
I0403 17:06:22.767297 20466 net.cpp:148] Top shape: 24 256 28 28 (4816896)
I0403 17:06:22.767315 20466 net.cpp:148] Top shape: 24 256 28 28 (4816896)
I0403 17:06:22.767331 20466 net.cpp:148] Top shape: 24 256 28 28 (4816896)
I0403 17:06:22.767348 20466 net.cpp:148] Top shape: 24 256 28 28 (4816896)
I0403 17:06:22.767362 20466 net.cpp:156] Memory required for data: 657507360
I0403 17:06:22.767376 20466 layer_factory.hpp:77] Creating layer inception_3b/1x1
I0403 17:06:22.767400 20466 net.cpp:91] Creating Layer inception_3b/1x1
I0403 17:06:22.767418 20466 net.cpp:425] inception_3b/1x1 <- inception_3a/output_inception_3a/output_0_split_0
I0403 17:06:22.767441 20466 net.cpp:399] inception_3b/1x1 -> inception_3b/1x1
I0403 17:06:22.768599 20466 net.cpp:141] Setting up inception_3b/1x1
I0403 17:06:22.768642 20466 net.cpp:148] Top shape: 24 128 28 28 (2408448)
I0403 17:06:22.768661 20466 net.cpp:156] Memory required for data: 667141152
I0403 17:06:22.768679 20466 layer_factory.hpp:77] Creating layer inception_3b/relu_1x1
I0403 17:06:22.768698 20466 net.cpp:91] Creating Layer inception_3b/relu_1x1
I0403 17:06:22.768717 20466 net.cpp:425] inception_3b/relu_1x1 <- inception_3b/1x1
I0403 17:06:22.768735 20466 net.cpp:386] inception_3b/relu_1x1 -> inception_3b/1x1 (in-place)
I0403 17:06:22.768915 20466 net.cpp:141] Setting up inception_3b/relu_1x1
I0403 17:06:22.768941 20466 net.cpp:148] Top shape: 24 128 28 28 (2408448)
I0403 17:06:22.768957 20466 net.cpp:156] Memory required for data: 676774944
I0403 17:06:22.768972 20466 layer_factory.hpp:77] Creating layer inception_3b/3x3_reduce
I0403 17:06:22.768996 20466 net.cpp:91] Creating Layer inception_3b/3x3_reduce
I0403 17:06:22.769012 20466 net.cpp:425] inception_3b/3x3_reduce <- inception_3a/output_inception_3a/output_0_split_1
I0403 17:06:22.769034 20466 net.cpp:399] inception_3b/3x3_reduce -> inception_3b/3x3_reduce
I0403 17:06:22.770189 20466 net.cpp:141] Setting up inception_3b/3x3_reduce
I0403 17:06:22.770220 20466 net.cpp:148] Top shape: 24 128 28 28 (2408448)
I0403 17:06:22.770236 20466 net.cpp:156] Memory required for data: 686408736
I0403 17:06:22.770256 20466 layer_factory.hpp:77] Creating layer inception_3b/relu_3x3_reduce
I0403 17:06:22.770275 20466 net.cpp:91] Creating Layer inception_3b/relu_3x3_reduce
I0403 17:06:22.770292 20466 net.cpp:425] inception_3b/relu_3x3_reduce <- inception_3b/3x3_reduce
I0403 17:06:22.770311 20466 net.cpp:386] inception_3b/relu_3x3_reduce -> inception_3b/3x3_reduce (in-place)
I0403 17:06:22.770493 20466 net.cpp:141] Setting up inception_3b/relu_3x3_reduce
I0403 17:06:22.770519 20466 net.cpp:148] Top shape: 24 128 28 28 (2408448)
I0403 17:06:22.770535 20466 net.cpp:156] Memory required for data: 696042528
I0403 17:06:22.770552 20466 layer_factory.hpp:77] Creating layer inception_3b/3x3
I0403 17:06:22.770583 20466 net.cpp:91] Creating Layer inception_3b/3x3
I0403 17:06:22.770604 20466 net.cpp:425] inception_3b/3x3 <- inception_3b/3x3_reduce
I0403 17:06:22.770624 20466 net.cpp:399] inception_3b/3x3 -> inception_3b/3x3
I0403 17:06:22.773602 20466 net.cpp:141] Setting up inception_3b/3x3
I0403 17:06:22.773633 20466 net.cpp:148] Top shape: 24 192 28 28 (3612672)
I0403 17:06:22.773649 20466 net.cpp:156] Memory required for data: 710493216
I0403 17:06:22.773669 20466 layer_factory.hpp:77] Creating layer inception_3b/relu_3x3
I0403 17:06:22.773690 20466 net.cpp:91] Creating Layer inception_3b/relu_3x3
I0403 17:06:22.773710 20466 net.cpp:425] inception_3b/relu_3x3 <- inception_3b/3x3
I0403 17:06:22.773728 20466 net.cpp:386] inception_3b/relu_3x3 -> inception_3b/3x3 (in-place)
I0403 17:06:22.774013 20466 net.cpp:141] Setting up inception_3b/relu_3x3
I0403 17:06:22.774041 20466 net.cpp:148] Top shape: 24 192 28 28 (3612672)
I0403 17:06:22.774057 20466 net.cpp:156] Memory required for data: 724943904
I0403 17:06:22.774073 20466 layer_factory.hpp:77] Creating layer inception_3b/5x5_reduce
I0403 17:06:22.774097 20466 net.cpp:91] Creating Layer inception_3b/5x5_reduce
I0403 17:06:22.774117 20466 net.cpp:425] inception_3b/5x5_reduce <- inception_3a/output_inception_3a/output_0_split_2
I0403 17:06:22.774139 20466 net.cpp:399] inception_3b/5x5_reduce -> inception_3b/5x5_reduce
I0403 17:06:22.775171 20466 net.cpp:141] Setting up inception_3b/5x5_reduce
I0403 17:06:22.775199 20466 net.cpp:148] Top shape: 24 32 28 28 (602112)
I0403 17:06:22.775214 20466 net.cpp:156] Memory required for data: 727352352
I0403 17:06:22.775233 20466 layer_factory.hpp:77] Creating layer inception_3b/relu_5x5_reduce
I0403 17:06:22.775255 20466 net.cpp:91] Creating Layer inception_3b/relu_5x5_reduce
I0403 17:06:22.775274 20466 net.cpp:425] inception_3b/relu_5x5_reduce <- inception_3b/5x5_reduce
I0403 17:06:22.775291 20466 net.cpp:386] inception_3b/relu_5x5_reduce -> inception_3b/5x5_reduce (in-place)
I0403 17:06:22.775460 20466 net.cpp:141] Setting up inception_3b/relu_5x5_reduce
I0403 17:06:22.775497 20466 net.cpp:148] Top shape: 24 32 28 28 (602112)
I0403 17:06:22.775513 20466 net.cpp:156] Memory required for data: 729760800
I0403 17:06:22.775528 20466 layer_factory.hpp:77] Creating layer inception_3b/5x5
I0403 17:06:22.775552 20466 net.cpp:91] Creating Layer inception_3b/5x5
I0403 17:06:22.775569 20466 net.cpp:425] inception_3b/5x5 <- inception_3b/5x5_reduce
I0403 17:06:22.775596 20466 net.cpp:399] inception_3b/5x5 -> inception_3b/5x5
I0403 17:06:22.777477 20466 net.cpp:141] Setting up inception_3b/5x5
I0403 17:06:22.777508 20466 net.cpp:148] Top shape: 24 96 28 28 (1806336)
I0403 17:06:22.777524 20466 net.cpp:156] Memory required for data: 736986144
I0403 17:06:22.777544 20466 layer_factory.hpp:77] Creating layer inception_3b/relu_5x5
I0403 17:06:22.777561 20466 net.cpp:91] Creating Layer inception_3b/relu_5x5
I0403 17:06:22.777583 20466 net.cpp:425] inception_3b/relu_5x5 <- inception_3b/5x5
I0403 17:06:22.777604 20466 net.cpp:386] inception_3b/relu_5x5 -> inception_3b/5x5 (in-place)
I0403 17:06:22.777789 20466 net.cpp:141] Setting up inception_3b/relu_5x5
I0403 17:06:22.777814 20466 net.cpp:148] Top shape: 24 96 28 28 (1806336)
I0403 17:06:22.777829 20466 net.cpp:156] Memory required for data: 744211488
I0403 17:06:22.777843 20466 layer_factory.hpp:77] Creating layer inception_3b/pool
I0403 17:06:22.777861 20466 net.cpp:91] Creating Layer inception_3b/pool
I0403 17:06:22.777876 20466 net.cpp:425] inception_3b/pool <- inception_3a/output_inception_3a/output_0_split_3
I0403 17:06:22.777895 20466 net.cpp:399] inception_3b/pool -> inception_3b/pool
I0403 17:06:22.777950 20466 net.cpp:141] Setting up inception_3b/pool
I0403 17:06:22.777973 20466 net.cpp:148] Top shape: 24 256 28 28 (4816896)
I0403 17:06:22.777987 20466 net.cpp:156] Memory required for data: 763479072
I0403 17:06:22.778002 20466 layer_factory.hpp:77] Creating layer inception_3b/pool_proj
I0403 17:06:22.778026 20466 net.cpp:91] Creating Layer inception_3b/pool_proj
I0403 17:06:22.778044 20466 net.cpp:425] inception_3b/pool_proj <- inception_3b/pool
I0403 17:06:22.778061 20466 net.cpp:399] inception_3b/pool_proj -> inception_3b/pool_proj
I0403 17:06:22.779068 20466 net.cpp:141] Setting up inception_3b/pool_proj
I0403 17:06:22.779096 20466 net.cpp:148] Top shape: 24 64 28 28 (1204224)
I0403 17:06:22.779112 20466 net.cpp:156] Memory required for data: 768295968
I0403 17:06:22.779129 20466 layer_factory.hpp:77] Creating layer inception_3b/relu_pool_proj
I0403 17:06:22.779150 20466 net.cpp:91] Creating Layer inception_3b/relu_pool_proj
I0403 17:06:22.779166 20466 net.cpp:425] inception_3b/relu_pool_proj <- inception_3b/pool_proj
I0403 17:06:22.779183 20466 net.cpp:386] inception_3b/relu_pool_proj -> inception_3b/pool_proj (in-place)
I0403 17:06:22.779556 20466 net.cpp:141] Setting up inception_3b/relu_pool_proj
I0403 17:06:22.779587 20466 net.cpp:148] Top shape: 24 64 28 28 (1204224)
I0403 17:06:22.779603 20466 net.cpp:156] Memory required for data: 773112864
I0403 17:06:22.779618 20466 layer_factory.hpp:77] Creating layer inception_3b/output
I0403 17:06:22.779638 20466 net.cpp:91] Creating Layer inception_3b/output
I0403 17:06:22.779654 20466 net.cpp:425] inception_3b/output <- inception_3b/1x1
I0403 17:06:22.779670 20466 net.cpp:425] inception_3b/output <- inception_3b/3x3
I0403 17:06:22.779685 20466 net.cpp:425] inception_3b/output <- inception_3b/5x5
I0403 17:06:22.779700 20466 net.cpp:425] inception_3b/output <- inception_3b/pool_proj
I0403 17:06:22.779717 20466 net.cpp:399] inception_3b/output -> inception_3b/output
I0403 17:06:22.779763 20466 net.cpp:141] Setting up inception_3b/output
I0403 17:06:22.779788 20466 net.cpp:148] Top shape: 24 480 28 28 (9031680)
I0403 17:06:22.779801 20466 net.cpp:156] Memory required for data: 809239584
I0403 17:06:22.779816 20466 layer_factory.hpp:77] Creating layer pool3/3x3_s2
I0403 17:06:22.779834 20466 net.cpp:91] Creating Layer pool3/3x3_s2
I0403 17:06:22.779849 20466 net.cpp:425] pool3/3x3_s2 <- inception_3b/output
I0403 17:06:22.779867 20466 net.cpp:399] pool3/3x3_s2 -> pool3/3x3_s2
I0403 17:06:22.779937 20466 net.cpp:141] Setting up pool3/3x3_s2
I0403 17:06:22.779963 20466 net.cpp:148] Top shape: 24 480 14 14 (2257920)
I0403 17:06:22.779978 20466 net.cpp:156] Memory required for data: 818271264
I0403 17:06:22.779994 20466 layer_factory.hpp:77] Creating layer pool3/3x3_s2_pool3/3x3_s2_0_split
I0403 17:06:22.780010 20466 net.cpp:91] Creating Layer pool3/3x3_s2_pool3/3x3_s2_0_split
I0403 17:06:22.780025 20466 net.cpp:425] pool3/3x3_s2_pool3/3x3_s2_0_split <- pool3/3x3_s2
I0403 17:06:22.780042 20466 net.cpp:399] pool3/3x3_s2_pool3/3x3_s2_0_split -> pool3/3x3_s2_pool3/3x3_s2_0_split_0
I0403 17:06:22.780061 20466 net.cpp:399] pool3/3x3_s2_pool3/3x3_s2_0_split -> pool3/3x3_s2_pool3/3x3_s2_0_split_1
I0403 17:06:22.780084 20466 net.cpp:399] pool3/3x3_s2_pool3/3x3_s2_0_split -> pool3/3x3_s2_pool3/3x3_s2_0_split_2
I0403 17:06:22.780104 20466 net.cpp:399] pool3/3x3_s2_pool3/3x3_s2_0_split -> pool3/3x3_s2_pool3/3x3_s2_0_split_3
I0403 17:06:22.780179 20466 net.cpp:141] Setting up pool3/3x3_s2_pool3/3x3_s2_0_split
I0403 17:06:22.780201 20466 net.cpp:148] Top shape: 24 480 14 14 (2257920)
I0403 17:06:22.780218 20466 net.cpp:148] Top shape: 24 480 14 14 (2257920)
I0403 17:06:22.780233 20466 net.cpp:148] Top shape: 24 480 14 14 (2257920)
I0403 17:06:22.780249 20466 net.cpp:148] Top shape: 24 480 14 14 (2257920)
I0403 17:06:22.780262 20466 net.cpp:156] Memory required for data: 854397984
I0403 17:06:22.780277 20466 layer_factory.hpp:77] Creating layer inception_4a/1x1
I0403 17:06:22.780298 20466 net.cpp:91] Creating Layer inception_4a/1x1
I0403 17:06:22.780316 20466 net.cpp:425] inception_4a/1x1 <- pool3/3x3_s2_pool3/3x3_s2_0_split_0
I0403 17:06:22.780339 20466 net.cpp:399] inception_4a/1x1 -> inception_4a/1x1
I0403 17:06:22.781847 20466 net.cpp:141] Setting up inception_4a/1x1
I0403 17:06:22.781874 20466 net.cpp:148] Top shape: 24 192 14 14 (903168)
I0403 17:06:22.781890 20466 net.cpp:156] Memory required for data: 858010656
I0403 17:06:22.781908 20466 layer_factory.hpp:77] Creating layer inception_4a/relu_1x1
I0403 17:06:22.781930 20466 net.cpp:91] Creating Layer inception_4a/relu_1x1
I0403 17:06:22.781949 20466 net.cpp:425] inception_4a/relu_1x1 <- inception_4a/1x1
I0403 17:06:22.781965 20466 net.cpp:386] inception_4a/relu_1x1 -> inception_4a/1x1 (in-place)
I0403 17:06:22.782135 20466 net.cpp:141] Setting up inception_4a/relu_1x1
I0403 17:06:22.782160 20466 net.cpp:148] Top shape: 24 192 14 14 (903168)
I0403 17:06:22.782176 20466 net.cpp:156] Memory required for data: 861623328
I0403 17:06:22.782189 20466 layer_factory.hpp:77] Creating layer inception_4a/3x3_reduce
I0403 17:06:22.782212 20466 net.cpp:91] Creating Layer inception_4a/3x3_reduce
I0403 17:06:22.782229 20466 net.cpp:425] inception_4a/3x3_reduce <- pool3/3x3_s2_pool3/3x3_s2_0_split_1
I0403 17:06:22.782250 20466 net.cpp:399] inception_4a/3x3_reduce -> inception_4a/3x3_reduce
I0403 17:06:22.783465 20466 net.cpp:141] Setting up inception_4a/3x3_reduce
I0403 17:06:22.783499 20466 net.cpp:148] Top shape: 24 96 14 14 (451584)
I0403 17:06:22.783516 20466 net.cpp:156] Memory required for data: 863429664
I0403 17:06:22.783538 20466 layer_factory.hpp:77] Creating layer inception_4a/relu_3x3_reduce
I0403 17:06:22.783560 20466 net.cpp:91] Creating Layer inception_4a/relu_3x3_reduce
I0403 17:06:22.783581 20466 net.cpp:425] inception_4a/relu_3x3_reduce <- inception_4a/3x3_reduce
I0403 17:06:22.783601 20466 net.cpp:386] inception_4a/relu_3x3_reduce -> inception_4a/3x3_reduce (in-place)
I0403 17:06:22.783771 20466 net.cpp:141] Setting up inception_4a/relu_3x3_reduce
I0403 17:06:22.783798 20466 net.cpp:148] Top shape: 24 96 14 14 (451584)
I0403 17:06:22.783818 20466 net.cpp:156] Memory required for data: 865236000
I0403 17:06:22.783833 20466 layer_factory.hpp:77] Creating layer inception_4a/3x3
I0403 17:06:22.783854 20466 net.cpp:91] Creating Layer inception_4a/3x3
I0403 17:06:22.783871 20466 net.cpp:425] inception_4a/3x3 <- inception_4a/3x3_reduce
I0403 17:06:22.783890 20466 net.cpp:399] inception_4a/3x3 -> inception_4a/3x3
I0403 17:06:22.786500 20466 net.cpp:141] Setting up inception_4a/3x3
I0403 17:06:22.786532 20466 net.cpp:148] Top shape: 24 208 14 14 (978432)
I0403 17:06:22.786550 20466 net.cpp:156] Memory required for data: 869149728
I0403 17:06:22.786569 20466 layer_factory.hpp:77] Creating layer inception_4a/relu_3x3
I0403 17:06:22.786592 20466 net.cpp:91] Creating Layer inception_4a/relu_3x3
I0403 17:06:22.786608 20466 net.cpp:425] inception_4a/relu_3x3 <- inception_4a/3x3
I0403 17:06:22.786628 20466 net.cpp:386] inception_4a/relu_3x3 -> inception_4a/3x3 (in-place)
I0403 17:06:22.786895 20466 net.cpp:141] Setting up inception_4a/relu_3x3
I0403 17:06:22.786923 20466 net.cpp:148] Top shape: 24 208 14 14 (978432)
I0403 17:06:22.786941 20466 net.cpp:156] Memory required for data: 873063456
I0403 17:06:22.786955 20466 layer_factory.hpp:77] Creating layer inception_4a/5x5_reduce
I0403 17:06:22.786978 20466 net.cpp:91] Creating Layer inception_4a/5x5_reduce
I0403 17:06:22.786995 20466 net.cpp:425] inception_4a/5x5_reduce <- pool3/3x3_s2_pool3/3x3_s2_0_split_2
I0403 17:06:22.787014 20466 net.cpp:399] inception_4a/5x5_reduce -> inception_4a/5x5_reduce
I0403 17:06:22.788061 20466 net.cpp:141] Setting up inception_4a/5x5_reduce
I0403 17:06:22.788090 20466 net.cpp:148] Top shape: 24 16 14 14 (75264)
I0403 17:06:22.788105 20466 net.cpp:156] Memory required for data: 873364512
I0403 17:06:22.788125 20466 layer_factory.hpp:77] Creating layer inception_4a/relu_5x5_reduce
I0403 17:06:22.788143 20466 net.cpp:91] Creating Layer inception_4a/relu_5x5_reduce
I0403 17:06:22.788161 20466 net.cpp:425] inception_4a/relu_5x5_reduce <- inception_4a/5x5_reduce
I0403 17:06:22.788180 20466 net.cpp:386] inception_4a/relu_5x5_reduce -> inception_4a/5x5_reduce (in-place)
I0403 17:06:22.788357 20466 net.cpp:141] Setting up inception_4a/relu_5x5_reduce
I0403 17:06:22.788383 20466 net.cpp:148] Top shape: 24 16 14 14 (75264)
I0403 17:06:22.788398 20466 net.cpp:156] Memory required for data: 873665568
I0403 17:06:22.788413 20466 layer_factory.hpp:77] Creating layer inception_4a/5x5
I0403 17:06:22.788434 20466 net.cpp:91] Creating Layer inception_4a/5x5
I0403 17:06:22.788450 20466 net.cpp:425] inception_4a/5x5 <- inception_4a/5x5_reduce
I0403 17:06:22.788473 20466 net.cpp:399] inception_4a/5x5 -> inception_4a/5x5
I0403 17:06:22.789558 20466 net.cpp:141] Setting up inception_4a/5x5
I0403 17:06:22.789592 20466 net.cpp:148] Top shape: 24 48 14 14 (225792)
I0403 17:06:22.789607 20466 net.cpp:156] Memory required for data: 874568736
I0403 17:06:22.789625 20466 layer_factory.hpp:77] Creating layer inception_4a/relu_5x5
I0403 17:06:22.789645 20466 net.cpp:91] Creating Layer inception_4a/relu_5x5
I0403 17:06:22.789662 20466 net.cpp:425] inception_4a/relu_5x5 <- inception_4a/5x5
I0403 17:06:22.789680 20466 net.cpp:386] inception_4a/relu_5x5 -> inception_4a/5x5 (in-place)
I0403 17:06:22.789855 20466 net.cpp:141] Setting up inception_4a/relu_5x5
I0403 17:06:22.789882 20466 net.cpp:148] Top shape: 24 48 14 14 (225792)
I0403 17:06:22.789898 20466 net.cpp:156] Memory required for data: 875471904
I0403 17:06:22.789914 20466 layer_factory.hpp:77] Creating layer inception_4a/pool
I0403 17:06:22.789932 20466 net.cpp:91] Creating Layer inception_4a/pool
I0403 17:06:22.789948 20466 net.cpp:425] inception_4a/pool <- pool3/3x3_s2_pool3/3x3_s2_0_split_3
I0403 17:06:22.789968 20466 net.cpp:399] inception_4a/pool -> inception_4a/pool
I0403 17:06:22.790030 20466 net.cpp:141] Setting up inception_4a/pool
I0403 17:06:22.790055 20466 net.cpp:148] Top shape: 24 480 14 14 (2257920)
I0403 17:06:22.790069 20466 net.cpp:156] Memory required for data: 884503584
I0403 17:06:22.790084 20466 layer_factory.hpp:77] Creating layer inception_4a/pool_proj
I0403 17:06:22.790107 20466 net.cpp:91] Creating Layer inception_4a/pool_proj
I0403 17:06:22.790123 20466 net.cpp:425] inception_4a/pool_proj <- inception_4a/pool
I0403 17:06:22.790144 20466 net.cpp:399] inception_4a/pool_proj -> inception_4a/pool_proj
I0403 17:06:22.791302 20466 net.cpp:141] Setting up inception_4a/pool_proj
I0403 17:06:22.791332 20466 net.cpp:148] Top shape: 24 64 14 14 (301056)
I0403 17:06:22.791366 20466 net.cpp:156] Memory required for data: 885707808
I0403 17:06:22.791386 20466 layer_factory.hpp:77] Creating layer inception_4a/relu_pool_proj
I0403 17:06:22.791405 20466 net.cpp:91] Creating Layer inception_4a/relu_pool_proj
I0403 17:06:22.791422 20466 net.cpp:425] inception_4a/relu_pool_proj <- inception_4a/pool_proj
I0403 17:06:22.791440 20466 net.cpp:386] inception_4a/relu_pool_proj -> inception_4a/pool_proj (in-place)
I0403 17:06:22.791725 20466 net.cpp:141] Setting up inception_4a/relu_pool_proj
I0403 17:06:22.791752 20466 net.cpp:148] Top shape: 24 64 14 14 (301056)
I0403 17:06:22.791776 20466 net.cpp:156] Memory required for data: 886912032
I0403 17:06:22.791791 20466 layer_factory.hpp:77] Creating layer inception_4a/output
I0403 17:06:22.791810 20466 net.cpp:91] Creating Layer inception_4a/output
I0403 17:06:22.791826 20466 net.cpp:425] inception_4a/output <- inception_4a/1x1
I0403 17:06:22.791842 20466 net.cpp:425] inception_4a/output <- inception_4a/3x3
I0403 17:06:22.791859 20466 net.cpp:425] inception_4a/output <- inception_4a/5x5
I0403 17:06:22.791875 20466 net.cpp:425] inception_4a/output <- inception_4a/pool_proj
I0403 17:06:22.791893 20466 net.cpp:399] inception_4a/output -> inception_4a/output
I0403 17:06:22.791939 20466 net.cpp:141] Setting up inception_4a/output
I0403 17:06:22.791963 20466 net.cpp:148] Top shape: 24 512 14 14 (2408448)
I0403 17:06:22.791978 20466 net.cpp:156] Memory required for data: 896545824
I0403 17:06:22.791993 20466 layer_factory.hpp:77] Creating layer inception_4a/output_inception_4a/output_0_split
I0403 17:06:22.792011 20466 net.cpp:91] Creating Layer inception_4a/output_inception_4a/output_0_split
I0403 17:06:22.792027 20466 net.cpp:425] inception_4a/output_inception_4a/output_0_split <- inception_4a/output
I0403 17:06:22.792052 20466 net.cpp:399] inception_4a/output_inception_4a/output_0_split -> inception_4a/output_inception_4a/output_0_split_0
I0403 17:06:22.792074 20466 net.cpp:399] inception_4a/output_inception_4a/output_0_split -> inception_4a/output_inception_4a/output_0_split_1
I0403 17:06:22.792095 20466 net.cpp:399] inception_4a/output_inception_4a/output_0_split -> inception_4a/output_inception_4a/output_0_split_2
I0403 17:06:22.792116 20466 net.cpp:399] inception_4a/output_inception_4a/output_0_split -> inception_4a/output_inception_4a/output_0_split_3
I0403 17:06:22.792137 20466 net.cpp:399] inception_4a/output_inception_4a/output_0_split -> inception_4a/output_inception_4a/output_0_split_4
I0403 17:06:22.792232 20466 net.cpp:141] Setting up inception_4a/output_inception_4a/output_0_split
I0403 17:06:22.792255 20466 net.cpp:148] Top shape: 24 512 14 14 (2408448)
I0403 17:06:22.792273 20466 net.cpp:148] Top shape: 24 512 14 14 (2408448)
I0403 17:06:22.792289 20466 net.cpp:148] Top shape: 24 512 14 14 (2408448)
I0403 17:06:22.792304 20466 net.cpp:148] Top shape: 24 512 14 14 (2408448)
I0403 17:06:22.792320 20466 net.cpp:148] Top shape: 24 512 14 14 (2408448)
I0403 17:06:22.792333 20466 net.cpp:156] Memory required for data: 944714784
I0403 17:06:22.792348 20466 layer_factory.hpp:77] Creating layer loss1/ave_pool
I0403 17:06:22.792366 20466 net.cpp:91] Creating Layer loss1/ave_pool
I0403 17:06:22.792382 20466 net.cpp:425] loss1/ave_pool <- inception_4a/output_inception_4a/output_0_split_0
I0403 17:06:22.792400 20466 net.cpp:399] loss1/ave_pool -> loss1/ave_pool
I0403 17:06:22.792610 20466 net.cpp:141] Setting up loss1/ave_pool
I0403 17:06:22.792639 20466 net.cpp:148] Top shape: 24 512 4 4 (196608)
I0403 17:06:22.792654 20466 net.cpp:156] Memory required for data: 945501216
I0403 17:06:22.792670 20466 layer_factory.hpp:77] Creating layer loss1/conv
I0403 17:06:22.792690 20466 net.cpp:91] Creating Layer loss1/conv
I0403 17:06:22.792707 20466 net.cpp:425] loss1/conv <- loss1/ave_pool
I0403 17:06:22.792727 20466 net.cpp:399] loss1/conv -> loss1/conv
I0403 17:06:22.794122 20466 net.cpp:141] Setting up loss1/conv
I0403 17:06:22.794153 20466 net.cpp:148] Top shape: 24 128 4 4 (49152)
I0403 17:06:22.794170 20466 net.cpp:156] Memory required for data: 945697824
I0403 17:06:22.794204 20466 layer_factory.hpp:77] Creating layer loss1/relu_conv
I0403 17:06:22.794224 20466 net.cpp:91] Creating Layer loss1/relu_conv
I0403 17:06:22.794239 20466 net.cpp:425] loss1/relu_conv <- loss1/conv
I0403 17:06:22.794257 20466 net.cpp:386] loss1/relu_conv -> loss1/conv (in-place)
I0403 17:06:22.794536 20466 net.cpp:141] Setting up loss1/relu_conv
I0403 17:06:22.794565 20466 net.cpp:148] Top shape: 24 128 4 4 (49152)
I0403 17:06:22.794594 20466 net.cpp:156] Memory required for data: 945894432
I0403 17:06:22.794611 20466 layer_factory.hpp:77] Creating layer loss1/fc
I0403 17:06:22.794636 20466 net.cpp:91] Creating Layer loss1/fc
I0403 17:06:22.794652 20466 net.cpp:425] loss1/fc <- loss1/conv
I0403 17:06:22.794673 20466 net.cpp:399] loss1/fc -> loss1/fc
I0403 17:06:22.812199 20466 net.cpp:141] Setting up loss1/fc
I0403 17:06:22.812233 20466 net.cpp:148] Top shape: 24 1024 (24576)
I0403 17:06:22.812249 20466 net.cpp:156] Memory required for data: 945992736
I0403 17:06:22.812268 20466 layer_factory.hpp:77] Creating layer loss1/relu_fc
I0403 17:06:22.812288 20466 net.cpp:91] Creating Layer loss1/relu_fc
I0403 17:06:22.812304 20466 net.cpp:425] loss1/relu_fc <- loss1/fc
I0403 17:06:22.812322 20466 net.cpp:386] loss1/relu_fc -> loss1/fc (in-place)
I0403 17:06:22.812507 20466 net.cpp:141] Setting up loss1/relu_fc
I0403 17:06:22.812533 20466 net.cpp:148] Top shape: 24 1024 (24576)
I0403 17:06:22.812551 20466 net.cpp:156] Memory required for data: 946091040
I0403 17:06:22.812566 20466 layer_factory.hpp:77] Creating layer loss1/drop_fc
I0403 17:06:22.812597 20466 net.cpp:91] Creating Layer loss1/drop_fc
I0403 17:06:22.812618 20466 net.cpp:425] loss1/drop_fc <- loss1/fc
I0403 17:06:22.812639 20466 net.cpp:386] loss1/drop_fc -> loss1/fc (in-place)
I0403 17:06:22.812690 20466 net.cpp:141] Setting up loss1/drop_fc
I0403 17:06:22.812713 20466 net.cpp:148] Top shape: 24 1024 (24576)
I0403 17:06:22.812729 20466 net.cpp:156] Memory required for data: 946189344
I0403 17:06:22.812743 20466 layer_factory.hpp:77] Creating layer loss1/classifier_plantvillage
I0403 17:06:22.812767 20466 net.cpp:91] Creating Layer loss1/classifier_plantvillage
I0403 17:06:22.812784 20466 net.cpp:425] loss1/classifier_plantvillage <- loss1/fc
I0403 17:06:22.812803 20466 net.cpp:399] loss1/classifier_plantvillage -> loss1/classifier_plantvillage
I0403 17:06:22.813678 20466 net.cpp:141] Setting up loss1/classifier_plantvillage
I0403 17:06:22.813709 20466 net.cpp:148] Top shape: 24 38 (912)
I0403 17:06:22.813725 20466 net.cpp:156] Memory required for data: 946192992
I0403 17:06:22.813743 20466 layer_factory.hpp:77] Creating layer loss1/classifier_plantvillage_loss1/classifier_plantvillage_0_split
I0403 17:06:22.813761 20466 net.cpp:91] Creating Layer loss1/classifier_plantvillage_loss1/classifier_plantvillage_0_split
I0403 17:06:22.813776 20466 net.cpp:425] loss1/classifier_plantvillage_loss1/classifier_plantvillage_0_split <- loss1/classifier_plantvillage
I0403 17:06:22.813792 20466 net.cpp:399] loss1/classifier_plantvillage_loss1/classifier_plantvillage_0_split -> loss1/classifier_plantvillage_loss1/classifier_plantvillage_0_split_0
I0403 17:06:22.813815 20466 net.cpp:399] loss1/classifier_plantvillage_loss1/classifier_plantvillage_0_split -> loss1/classifier_plantvillage_loss1/classifier_plantvillage_0_split_1
I0403 17:06:22.813838 20466 net.cpp:399] loss1/classifier_plantvillage_loss1/classifier_plantvillage_0_split -> loss1/classifier_plantvillage_loss1/classifier_plantvillage_0_split_2
I0403 17:06:22.813900 20466 net.cpp:141] Setting up loss1/classifier_plantvillage_loss1/classifier_plantvillage_0_split
I0403 17:06:22.813923 20466 net.cpp:148] Top shape: 24 38 (912)
I0403 17:06:22.813940 20466 net.cpp:148] Top shape: 24 38 (912)
I0403 17:06:22.813954 20466 net.cpp:148] Top shape: 24 38 (912)
I0403 17:06:22.813967 20466 net.cpp:156] Memory required for data: 946203936
I0403 17:06:22.813982 20466 layer_factory.hpp:77] Creating layer inception_4b/1x1
I0403 17:06:22.814002 20466 net.cpp:91] Creating Layer inception_4b/1x1
I0403 17:06:22.814038 20466 net.cpp:425] inception_4b/1x1 <- inception_4a/output_inception_4a/output_0_split_1
I0403 17:06:22.814056 20466 net.cpp:399] inception_4b/1x1 -> inception_4b/1x1
I0403 17:06:22.815659 20466 net.cpp:141] Setting up inception_4b/1x1
I0403 17:06:22.815690 20466 net.cpp:148] Top shape: 24 160 14 14 (752640)
I0403 17:06:22.815706 20466 net.cpp:156] Memory required for data: 949214496
I0403 17:06:22.815724 20466 layer_factory.hpp:77] Creating layer inception_4b/relu_1x1
I0403 17:06:22.815742 20466 net.cpp:91] Creating Layer inception_4b/relu_1x1
I0403 17:06:22.815759 20466 net.cpp:425] inception_4b/relu_1x1 <- inception_4b/1x1
I0403 17:06:22.815778 20466 net.cpp:386] inception_4b/relu_1x1 -> inception_4b/1x1 (in-place)
I0403 17:06:22.815953 20466 net.cpp:141] Setting up inception_4b/relu_1x1
I0403 17:06:22.815979 20466 net.cpp:148] Top shape: 24 160 14 14 (752640)
I0403 17:06:22.815994 20466 net.cpp:156] Memory required for data: 952225056
I0403 17:06:22.816009 20466 layer_factory.hpp:77] Creating layer inception_4b/3x3_reduce
I0403 17:06:22.816030 20466 net.cpp:91] Creating Layer inception_4b/3x3_reduce
I0403 17:06:22.816048 20466 net.cpp:425] inception_4b/3x3_reduce <- inception_4a/output_inception_4a/output_0_split_2
I0403 17:06:22.816069 20466 net.cpp:399] inception_4b/3x3_reduce -> inception_4b/3x3_reduce
I0403 17:06:22.817380 20466 net.cpp:141] Setting up inception_4b/3x3_reduce
I0403 17:06:22.817409 20466 net.cpp:148] Top shape: 24 112 14 14 (526848)
I0403 17:06:22.817425 20466 net.cpp:156] Memory required for data: 954332448
I0403 17:06:22.817442 20466 layer_factory.hpp:77] Creating layer inception_4b/relu_3x3_reduce
I0403 17:06:22.817461 20466 net.cpp:91] Creating Layer inception_4b/relu_3x3_reduce
I0403 17:06:22.817478 20466 net.cpp:425] inception_4b/relu_3x3_reduce <- inception_4b/3x3_reduce
I0403 17:06:22.817495 20466 net.cpp:386] inception_4b/relu_3x3_reduce -> inception_4b/3x3_reduce (in-place)
I0403 17:06:22.817775 20466 net.cpp:141] Setting up inception_4b/relu_3x3_reduce
I0403 17:06:22.817813 20466 net.cpp:148] Top shape: 24 112 14 14 (526848)
I0403 17:06:22.817828 20466 net.cpp:156] Memory required for data: 956439840
I0403 17:06:22.817842 20466 layer_factory.hpp:77] Creating layer inception_4b/3x3
I0403 17:06:22.817865 20466 net.cpp:91] Creating Layer inception_4b/3x3
I0403 17:06:22.817884 20466 net.cpp:425] inception_4b/3x3 <- inception_4b/3x3_reduce
I0403 17:06:22.817906 20466 net.cpp:399] inception_4b/3x3 -> inception_4b/3x3
I0403 17:06:22.820827 20466 net.cpp:141] Setting up inception_4b/3x3
I0403 17:06:22.820855 20466 net.cpp:148] Top shape: 24 224 14 14 (1053696)
I0403 17:06:22.820871 20466 net.cpp:156] Memory required for data: 960654624
I0403 17:06:22.820889 20466 layer_factory.hpp:77] Creating layer inception_4b/relu_3x3
I0403 17:06:22.820909 20466 net.cpp:91] Creating Layer inception_4b/relu_3x3
I0403 17:06:22.820925 20466 net.cpp:425] inception_4b/relu_3x3 <- inception_4b/3x3
I0403 17:06:22.820943 20466 net.cpp:386] inception_4b/relu_3x3 -> inception_4b/3x3 (in-place)
I0403 17:06:22.821120 20466 net.cpp:141] Setting up inception_4b/relu_3x3
I0403 17:06:22.821146 20466 net.cpp:148] Top shape: 24 224 14 14 (1053696)
I0403 17:06:22.821161 20466 net.cpp:156] Memory required for data: 964869408
I0403 17:06:22.821177 20466 layer_factory.hpp:77] Creating layer inception_4b/5x5_reduce
I0403 17:06:22.821197 20466 net.cpp:91] Creating Layer inception_4b/5x5_reduce
I0403 17:06:22.821214 20466 net.cpp:425] inception_4b/5x5_reduce <- inception_4a/output_inception_4a/output_0_split_3
I0403 17:06:22.821236 20466 net.cpp:399] inception_4b/5x5_reduce -> inception_4b/5x5_reduce
I0403 17:06:22.822290 20466 net.cpp:141] Setting up inception_4b/5x5_reduce
I0403 17:06:22.822319 20466 net.cpp:148] Top shape: 24 24 14 14 (112896)
I0403 17:06:22.822335 20466 net.cpp:156] Memory required for data: 965320992
I0403 17:06:22.822353 20466 layer_factory.hpp:77] Creating layer inception_4b/relu_5x5_reduce
I0403 17:06:22.822371 20466 net.cpp:91] Creating Layer inception_4b/relu_5x5_reduce
I0403 17:06:22.822401 20466 net.cpp:425] inception_4b/relu_5x5_reduce <- inception_4b/5x5_reduce
I0403 17:06:22.822422 20466 net.cpp:386] inception_4b/relu_5x5_reduce -> inception_4b/5x5_reduce (in-place)
I0403 17:06:22.822604 20466 net.cpp:141] Setting up inception_4b/relu_5x5_reduce
I0403 17:06:22.822630 20466 net.cpp:148] Top shape: 24 24 14 14 (112896)
I0403 17:06:22.822645 20466 net.cpp:156] Memory required for data: 965772576
I0403 17:06:22.822660 20466 layer_factory.hpp:77] Creating layer inception_4b/5x5
I0403 17:06:22.822681 20466 net.cpp:91] Creating Layer inception_4b/5x5
I0403 17:06:22.822700 20466 net.cpp:425] inception_4b/5x5 <- inception_4b/5x5_reduce
I0403 17:06:22.822722 20466 net.cpp:399] inception_4b/5x5 -> inception_4b/5x5
I0403 17:06:22.823920 20466 net.cpp:141] Setting up inception_4b/5x5
I0403 17:06:22.823947 20466 net.cpp:148] Top shape: 24 64 14 14 (301056)
I0403 17:06:22.823962 20466 net.cpp:156] Memory required for data: 966976800
I0403 17:06:22.823981 20466 layer_factory.hpp:77] Creating layer inception_4b/relu_5x5
I0403 17:06:22.823997 20466 net.cpp:91] Creating Layer inception_4b/relu_5x5
I0403 17:06:22.824013 20466 net.cpp:425] inception_4b/relu_5x5 <- inception_4b/5x5
I0403 17:06:22.824033 20466 net.cpp:386] inception_4b/relu_5x5 -> inception_4b/5x5 (in-place)
I0403 17:06:22.824311 20466 net.cpp:141] Setting up inception_4b/relu_5x5
I0403 17:06:22.824338 20466 net.cpp:148] Top shape: 24 64 14 14 (301056)
I0403 17:06:22.824353 20466 net.cpp:156] Memory required for data: 968181024
I0403 17:06:22.824368 20466 layer_factory.hpp:77] Creating layer inception_4b/pool
I0403 17:06:22.824384 20466 net.cpp:91] Creating Layer inception_4b/pool
I0403 17:06:22.824400 20466 net.cpp:425] inception_4b/pool <- inception_4a/output_inception_4a/output_0_split_4
I0403 17:06:22.824420 20466 net.cpp:399] inception_4b/pool -> inception_4b/pool
I0403 17:06:22.824482 20466 net.cpp:141] Setting up inception_4b/pool
I0403 17:06:22.824507 20466 net.cpp:148] Top shape: 24 512 14 14 (2408448)
I0403 17:06:22.824522 20466 net.cpp:156] Memory required for data: 977814816
I0403 17:06:22.824538 20466 layer_factory.hpp:77] Creating layer inception_4b/pool_proj
I0403 17:06:22.824559 20466 net.cpp:91] Creating Layer inception_4b/pool_proj
I0403 17:06:22.824587 20466 net.cpp:425] inception_4b/pool_proj <- inception_4b/pool
I0403 17:06:22.824609 20466 net.cpp:399] inception_4b/pool_proj -> inception_4b/pool_proj
I0403 17:06:22.825798 20466 net.cpp:141] Setting up inception_4b/pool_proj
I0403 17:06:22.825827 20466 net.cpp:148] Top shape: 24 64 14 14 (301056)
I0403 17:06:22.825844 20466 net.cpp:156] Memory required for data: 979019040
I0403 17:06:22.825862 20466 layer_factory.hpp:77] Creating layer inception_4b/relu_pool_proj
I0403 17:06:22.825883 20466 net.cpp:91] Creating Layer inception_4b/relu_pool_proj
I0403 17:06:22.825912 20466 net.cpp:425] inception_4b/relu_pool_proj <- inception_4b/pool_proj
I0403 17:06:22.825929 20466 net.cpp:386] inception_4b/relu_pool_proj -> inception_4b/pool_proj (in-place)
I0403 17:06:22.826107 20466 net.cpp:141] Setting up inception_4b/relu_pool_proj
I0403 17:06:22.826133 20466 net.cpp:148] Top shape: 24 64 14 14 (301056)
I0403 17:06:22.826148 20466 net.cpp:156] Memory required for data: 980223264
I0403 17:06:22.826161 20466 layer_factory.hpp:77] Creating layer inception_4b/output
I0403 17:06:22.826181 20466 net.cpp:91] Creating Layer inception_4b/output
I0403 17:06:22.826197 20466 net.cpp:425] inception_4b/output <- inception_4b/1x1
I0403 17:06:22.826215 20466 net.cpp:425] inception_4b/output <- inception_4b/3x3
I0403 17:06:22.826231 20466 net.cpp:425] inception_4b/output <- inception_4b/5x5
I0403 17:06:22.826247 20466 net.cpp:425] inception_4b/output <- inception_4b/pool_proj
I0403 17:06:22.826264 20466 net.cpp:399] inception_4b/output -> inception_4b/output
I0403 17:06:22.826310 20466 net.cpp:141] Setting up inception_4b/output
I0403 17:06:22.826333 20466 net.cpp:148] Top shape: 24 512 14 14 (2408448)
I0403 17:06:22.826349 20466 net.cpp:156] Memory required for data: 989857056
I0403 17:06:22.826380 20466 layer_factory.hpp:77] Creating layer inception_4b/output_inception_4b/output_0_split
I0403 17:06:22.826397 20466 net.cpp:91] Creating Layer inception_4b/output_inception_4b/output_0_split
I0403 17:06:22.826412 20466 net.cpp:425] inception_4b/output_inception_4b/output_0_split <- inception_4b/output
I0403 17:06:22.826431 20466 net.cpp:399] inception_4b/output_inception_4b/output_0_split -> inception_4b/output_inception_4b/output_0_split_0
I0403 17:06:22.826453 20466 net.cpp:399] inception_4b/output_inception_4b/output_0_split -> inception_4b/output_inception_4b/output_0_split_1
I0403 17:06:22.826473 20466 net.cpp:399] inception_4b/output_inception_4b/output_0_split -> inception_4b/output_inception_4b/output_0_split_2
I0403 17:06:22.826493 20466 net.cpp:399] inception_4b/output_inception_4b/output_0_split -> inception_4b/output_inception_4b/output_0_split_3
I0403 17:06:22.826581 20466 net.cpp:141] Setting up inception_4b/output_inception_4b/output_0_split
I0403 17:06:22.826607 20466 net.cpp:148] Top shape: 24 512 14 14 (2408448)
I0403 17:06:22.826624 20466 net.cpp:148] Top shape: 24 512 14 14 (2408448)
I0403 17:06:22.826639 20466 net.cpp:148] Top shape: 24 512 14 14 (2408448)
I0403 17:06:22.826655 20466 net.cpp:148] Top shape: 24 512 14 14 (2408448)
I0403 17:06:22.826669 20466 net.cpp:156] Memory required for data: 1028392224
I0403 17:06:22.826683 20466 layer_factory.hpp:77] Creating layer inception_4c/1x1
I0403 17:06:22.826704 20466 net.cpp:91] Creating Layer inception_4c/1x1
I0403 17:06:22.826720 20466 net.cpp:425] inception_4c/1x1 <- inception_4b/output_inception_4b/output_0_split_0
I0403 17:06:22.826740 20466 net.cpp:399] inception_4c/1x1 -> inception_4c/1x1
I0403 17:06:22.828126 20466 net.cpp:141] Setting up inception_4c/1x1
I0403 17:06:22.828155 20466 net.cpp:148] Top shape: 24 128 14 14 (602112)
I0403 17:06:22.828171 20466 net.cpp:156] Memory required for data: 1030800672
I0403 17:06:22.828188 20466 layer_factory.hpp:77] Creating layer inception_4c/relu_1x1
I0403 17:06:22.828209 20466 net.cpp:91] Creating Layer inception_4c/relu_1x1
I0403 17:06:22.828228 20466 net.cpp:425] inception_4c/relu_1x1 <- inception_4c/1x1
I0403 17:06:22.828244 20466 net.cpp:386] inception_4c/relu_1x1 -> inception_4c/1x1 (in-place)
I0403 17:06:22.828419 20466 net.cpp:141] Setting up inception_4c/relu_1x1
I0403 17:06:22.828446 20466 net.cpp:148] Top shape: 24 128 14 14 (602112)
I0403 17:06:22.828461 20466 net.cpp:156] Memory required for data: 1033209120
I0403 17:06:22.828476 20466 layer_factory.hpp:77] Creating layer inception_4c/3x3_reduce
I0403 17:06:22.828497 20466 net.cpp:91] Creating Layer inception_4c/3x3_reduce
I0403 17:06:22.828516 20466 net.cpp:425] inception_4c/3x3_reduce <- inception_4b/output_inception_4b/output_0_split_1
I0403 17:06:22.828536 20466 net.cpp:399] inception_4c/3x3_reduce -> inception_4c/3x3_reduce
I0403 17:06:22.830420 20466 net.cpp:141] Setting up inception_4c/3x3_reduce
I0403 17:06:22.830448 20466 net.cpp:148] Top shape: 24 128 14 14 (602112)
I0403 17:06:22.830463 20466 net.cpp:156] Memory required for data: 1035617568
I0403 17:06:22.830482 20466 layer_factory.hpp:77] Creating layer inception_4c/relu_3x3_reduce
I0403 17:06:22.830500 20466 net.cpp:91] Creating Layer inception_4c/relu_3x3_reduce
I0403 17:06:22.830516 20466 net.cpp:425] inception_4c/relu_3x3_reduce <- inception_4c/3x3_reduce
I0403 17:06:22.830535 20466 net.cpp:386] inception_4c/relu_3x3_reduce -> inception_4c/3x3_reduce (in-place)
I0403 17:06:22.830818 20466 net.cpp:141] Setting up inception_4c/relu_3x3_reduce
I0403 17:06:22.830845 20466 net.cpp:148] Top shape: 24 128 14 14 (602112)
I0403 17:06:22.830862 20466 net.cpp:156] Memory required for data: 1038026016
I0403 17:06:22.830876 20466 layer_factory.hpp:77] Creating layer inception_4c/3x3
I0403 17:06:22.830899 20466 net.cpp:91] Creating Layer inception_4c/3x3
I0403 17:06:22.830917 20466 net.cpp:425] inception_4c/3x3 <- inception_4c/3x3_reduce
I0403 17:06:22.830938 20466 net.cpp:399] inception_4c/3x3 -> inception_4c/3x3
I0403 17:06:22.834429 20466 net.cpp:141] Setting up inception_4c/3x3
I0403 17:06:22.834472 20466 net.cpp:148] Top shape: 24 256 14 14 (1204224)
I0403 17:06:22.834488 20466 net.cpp:156] Memory required for data: 1042842912
I0403 17:06:22.834519 20466 layer_factory.hpp:77] Creating layer inception_4c/relu_3x3
I0403 17:06:22.834542 20466 net.cpp:91] Creating Layer inception_4c/relu_3x3
I0403 17:06:22.834560 20466 net.cpp:425] inception_4c/relu_3x3 <- inception_4c/3x3
I0403 17:06:22.834590 20466 net.cpp:386] inception_4c/relu_3x3 -> inception_4c/3x3 (in-place)
I0403 17:06:22.834769 20466 net.cpp:141] Setting up inception_4c/relu_3x3
I0403 17:06:22.834796 20466 net.cpp:148] Top shape: 24 256 14 14 (1204224)
I0403 17:06:22.834812 20466 net.cpp:156] Memory required for data: 1047659808
I0403 17:06:22.834827 20466 layer_factory.hpp:77] Creating layer inception_4c/5x5_reduce
I0403 17:06:22.834851 20466 net.cpp:91] Creating Layer inception_4c/5x5_reduce
I0403 17:06:22.834868 20466 net.cpp:425] inception_4c/5x5_reduce <- inception_4b/output_inception_4b/output_0_split_2
I0403 17:06:22.834890 20466 net.cpp:399] inception_4c/5x5_reduce -> inception_4c/5x5_reduce
I0403 17:06:22.835983 20466 net.cpp:141] Setting up inception_4c/5x5_reduce
I0403 17:06:22.836011 20466 net.cpp:148] Top shape: 24 24 14 14 (112896)
I0403 17:06:22.836027 20466 net.cpp:156] Memory required for data: 1048111392
I0403 17:06:22.836046 20466 layer_factory.hpp:77] Creating layer inception_4c/relu_5x5_reduce
I0403 17:06:22.836066 20466 net.cpp:91] Creating Layer inception_4c/relu_5x5_reduce
I0403 17:06:22.836081 20466 net.cpp:425] inception_4c/relu_5x5_reduce <- inception_4c/5x5_reduce
I0403 17:06:22.836100 20466 net.cpp:386] inception_4c/relu_5x5_reduce -> inception_4c/5x5_reduce (in-place)
I0403 17:06:22.836285 20466 net.cpp:141] Setting up inception_4c/relu_5x5_reduce
I0403 17:06:22.836313 20466 net.cpp:148] Top shape: 24 24 14 14 (112896)
I0403 17:06:22.836328 20466 net.cpp:156] Memory required for data: 1048562976
I0403 17:06:22.836343 20466 layer_factory.hpp:77] Creating layer inception_4c/5x5
I0403 17:06:22.836365 20466 net.cpp:91] Creating Layer inception_4c/5x5
I0403 17:06:22.836383 20466 net.cpp:425] inception_4c/5x5 <- inception_4c/5x5_reduce
I0403 17:06:22.836403 20466 net.cpp:399] inception_4c/5x5 -> inception_4c/5x5
I0403 17:06:22.837651 20466 net.cpp:141] Setting up inception_4c/5x5
I0403 17:06:22.837679 20466 net.cpp:148] Top shape: 24 64 14 14 (301056)
I0403 17:06:22.837695 20466 net.cpp:156] Memory required for data: 1049767200
I0403 17:06:22.837713 20466 layer_factory.hpp:77] Creating layer inception_4c/relu_5x5
I0403 17:06:22.837734 20466 net.cpp:91] Creating Layer inception_4c/relu_5x5
I0403 17:06:22.837751 20466 net.cpp:425] inception_4c/relu_5x5 <- inception_4c/5x5
I0403 17:06:22.837769 20466 net.cpp:386] inception_4c/relu_5x5 -> inception_4c/5x5 (in-place)
I0403 17:06:22.838059 20466 net.cpp:141] Setting up inception_4c/relu_5x5
I0403 17:06:22.838088 20466 net.cpp:148] Top shape: 24 64 14 14 (301056)
I0403 17:06:22.838102 20466 net.cpp:156] Memory required for data: 1050971424
I0403 17:06:22.838119 20466 layer_factory.hpp:77] Creating layer inception_4c/pool
I0403 17:06:22.838138 20466 net.cpp:91] Creating Layer inception_4c/pool
I0403 17:06:22.838157 20466 net.cpp:425] inception_4c/pool <- inception_4b/output_inception_4b/output_0_split_3
I0403 17:06:22.838176 20466 net.cpp:399] inception_4c/pool -> inception_4c/pool
I0403 17:06:22.838243 20466 net.cpp:141] Setting up inception_4c/pool
I0403 17:06:22.838268 20466 net.cpp:148] Top shape: 24 512 14 14 (2408448)
I0403 17:06:22.838282 20466 net.cpp:156] Memory required for data: 1060605216
I0403 17:06:22.838297 20466 layer_factory.hpp:77] Creating layer inception_4c/pool_proj
I0403 17:06:22.838320 20466 net.cpp:91] Creating Layer inception_4c/pool_proj
I0403 17:06:22.838340 20466 net.cpp:425] inception_4c/pool_proj <- inception_4c/pool
I0403 17:06:22.838361 20466 net.cpp:399] inception_4c/pool_proj -> inception_4c/pool_proj
I0403 17:06:22.839587 20466 net.cpp:141] Setting up inception_4c/pool_proj
I0403 17:06:22.839615 20466 net.cpp:148] Top shape: 24 64 14 14 (301056)
I0403 17:06:22.839646 20466 net.cpp:156] Memory required for data: 1061809440
I0403 17:06:22.839668 20466 layer_factory.hpp:77] Creating layer inception_4c/relu_pool_proj
I0403 17:06:22.839689 20466 net.cpp:91] Creating Layer inception_4c/relu_pool_proj
I0403 17:06:22.839706 20466 net.cpp:425] inception_4c/relu_pool_proj <- inception_4c/pool_proj
I0403 17:06:22.839725 20466 net.cpp:386] inception_4c/relu_pool_proj -> inception_4c/pool_proj (in-place)
I0403 17:06:22.839905 20466 net.cpp:141] Setting up inception_4c/relu_pool_proj
I0403 17:06:22.839931 20466 net.cpp:148] Top shape: 24 64 14 14 (301056)
I0403 17:06:22.839947 20466 net.cpp:156] Memory required for data: 1063013664
I0403 17:06:22.839962 20466 layer_factory.hpp:77] Creating layer inception_4c/output
I0403 17:06:22.839982 20466 net.cpp:91] Creating Layer inception_4c/output
I0403 17:06:22.839999 20466 net.cpp:425] inception_4c/output <- inception_4c/1x1
I0403 17:06:22.840016 20466 net.cpp:425] inception_4c/output <- inception_4c/3x3
I0403 17:06:22.840032 20466 net.cpp:425] inception_4c/output <- inception_4c/5x5
I0403 17:06:22.840049 20466 net.cpp:425] inception_4c/output <- inception_4c/pool_proj
I0403 17:06:22.840066 20466 net.cpp:399] inception_4c/output -> inception_4c/output
I0403 17:06:22.840116 20466 net.cpp:141] Setting up inception_4c/output
I0403 17:06:22.840142 20466 net.cpp:148] Top shape: 24 512 14 14 (2408448)
I0403 17:06:22.840157 20466 net.cpp:156] Memory required for data: 1072647456
I0403 17:06:22.840170 20466 layer_factory.hpp:77] Creating layer inception_4c/output_inception_4c/output_0_split
I0403 17:06:22.840186 20466 net.cpp:91] Creating Layer inception_4c/output_inception_4c/output_0_split
I0403 17:06:22.840203 20466 net.cpp:425] inception_4c/output_inception_4c/output_0_split <- inception_4c/output
I0403 17:06:22.840222 20466 net.cpp:399] inception_4c/output_inception_4c/output_0_split -> inception_4c/output_inception_4c/output_0_split_0
I0403 17:06:22.840243 20466 net.cpp:399] inception_4c/output_inception_4c/output_0_split -> inception_4c/output_inception_4c/output_0_split_1
I0403 17:06:22.840265 20466 net.cpp:399] inception_4c/output_inception_4c/output_0_split -> inception_4c/output_inception_4c/output_0_split_2
I0403 17:06:22.840286 20466 net.cpp:399] inception_4c/output_inception_4c/output_0_split -> inception_4c/output_inception_4c/output_0_split_3
I0403 17:06:22.840373 20466 net.cpp:141] Setting up inception_4c/output_inception_4c/output_0_split
I0403 17:06:22.840399 20466 net.cpp:148] Top shape: 24 512 14 14 (2408448)
I0403 17:06:22.840417 20466 net.cpp:148] Top shape: 24 512 14 14 (2408448)
I0403 17:06:22.840433 20466 net.cpp:148] Top shape: 24 512 14 14 (2408448)
I0403 17:06:22.840448 20466 net.cpp:148] Top shape: 24 512 14 14 (2408448)
I0403 17:06:22.840461 20466 net.cpp:156] Memory required for data: 1111182624
I0403 17:06:22.840476 20466 layer_factory.hpp:77] Creating layer inception_4d/1x1
I0403 17:06:22.840498 20466 net.cpp:91] Creating Layer inception_4d/1x1
I0403 17:06:22.840517 20466 net.cpp:425] inception_4d/1x1 <- inception_4c/output_inception_4c/output_0_split_0
I0403 17:06:22.840536 20466 net.cpp:399] inception_4d/1x1 -> inception_4d/1x1
I0403 17:06:22.841922 20466 net.cpp:141] Setting up inception_4d/1x1
I0403 17:06:22.841955 20466 net.cpp:148] Top shape: 24 112 14 14 (526848)
I0403 17:06:22.841974 20466 net.cpp:156] Memory required for data: 1113290016
I0403 17:06:22.841992 20466 layer_factory.hpp:77] Creating layer inception_4d/relu_1x1
I0403 17:06:22.842011 20466 net.cpp:91] Creating Layer inception_4d/relu_1x1
I0403 17:06:22.842026 20466 net.cpp:425] inception_4d/relu_1x1 <- inception_4d/1x1
I0403 17:06:22.842046 20466 net.cpp:386] inception_4d/relu_1x1 -> inception_4d/1x1 (in-place)
I0403 17:06:22.842232 20466 net.cpp:141] Setting up inception_4d/relu_1x1
I0403 17:06:22.842259 20466 net.cpp:148] Top shape: 24 112 14 14 (526848)
I0403 17:06:22.842274 20466 net.cpp:156] Memory required for data: 1115397408
I0403 17:06:22.842288 20466 layer_factory.hpp:77] Creating layer inception_4d/3x3_reduce
I0403 17:06:22.842324 20466 net.cpp:91] Creating Layer inception_4d/3x3_reduce
I0403 17:06:22.842344 20466 net.cpp:425] inception_4d/3x3_reduce <- inception_4c/output_inception_4c/output_0_split_1
I0403 17:06:22.842365 20466 net.cpp:399] inception_4d/3x3_reduce -> inception_4d/3x3_reduce
I0403 17:06:22.843914 20466 net.cpp:141] Setting up inception_4d/3x3_reduce
I0403 17:06:22.843942 20466 net.cpp:148] Top shape: 24 144 14 14 (677376)
I0403 17:06:22.843960 20466 net.cpp:156] Memory required for data: 1118106912
I0403 17:06:22.843977 20466 layer_factory.hpp:77] Creating layer inception_4d/relu_3x3_reduce
I0403 17:06:22.843999 20466 net.cpp:91] Creating Layer inception_4d/relu_3x3_reduce
I0403 17:06:22.844017 20466 net.cpp:425] inception_4d/relu_3x3_reduce <- inception_4d/3x3_reduce
I0403 17:06:22.844034 20466 net.cpp:386] inception_4d/relu_3x3_reduce -> inception_4d/3x3_reduce (in-place)
I0403 17:06:22.844326 20466 net.cpp:141] Setting up inception_4d/relu_3x3_reduce
I0403 17:06:22.844353 20466 net.cpp:148] Top shape: 24 144 14 14 (677376)
I0403 17:06:22.844368 20466 net.cpp:156] Memory required for data: 1120816416
I0403 17:06:22.844384 20466 layer_factory.hpp:77] Creating layer inception_4d/3x3
I0403 17:06:22.844406 20466 net.cpp:91] Creating Layer inception_4d/3x3
I0403 17:06:22.844425 20466 net.cpp:425] inception_4d/3x3 <- inception_4d/3x3_reduce
I0403 17:06:22.844447 20466 net.cpp:399] inception_4d/3x3 -> inception_4d/3x3
I0403 17:06:22.848762 20466 net.cpp:141] Setting up inception_4d/3x3
I0403 17:06:22.848793 20466 net.cpp:148] Top shape: 24 288 14 14 (1354752)
I0403 17:06:22.848811 20466 net.cpp:156] Memory required for data: 1126235424
I0403 17:06:22.848831 20466 layer_factory.hpp:77] Creating layer inception_4d/relu_3x3
I0403 17:06:22.848848 20466 net.cpp:91] Creating Layer inception_4d/relu_3x3
I0403 17:06:22.848863 20466 net.cpp:425] inception_4d/relu_3x3 <- inception_4d/3x3
I0403 17:06:22.848882 20466 net.cpp:386] inception_4d/relu_3x3 -> inception_4d/3x3 (in-place)
I0403 17:06:22.849071 20466 net.cpp:141] Setting up inception_4d/relu_3x3
I0403 17:06:22.849097 20466 net.cpp:148] Top shape: 24 288 14 14 (1354752)
I0403 17:06:22.849113 20466 net.cpp:156] Memory required for data: 1131654432
I0403 17:06:22.849128 20466 layer_factory.hpp:77] Creating layer inception_4d/5x5_reduce
I0403 17:06:22.849150 20466 net.cpp:91] Creating Layer inception_4d/5x5_reduce
I0403 17:06:22.849169 20466 net.cpp:425] inception_4d/5x5_reduce <- inception_4c/output_inception_4c/output_0_split_2
I0403 17:06:22.849191 20466 net.cpp:399] inception_4d/5x5_reduce -> inception_4d/5x5_reduce
I0403 17:06:22.850374 20466 net.cpp:141] Setting up inception_4d/5x5_reduce
I0403 17:06:22.850405 20466 net.cpp:148] Top shape: 24 32 14 14 (150528)
I0403 17:06:22.850422 20466 net.cpp:156] Memory required for data: 1132256544
I0403 17:06:22.850441 20466 layer_factory.hpp:77] Creating layer inception_4d/relu_5x5_reduce
I0403 17:06:22.850461 20466 net.cpp:91] Creating Layer inception_4d/relu_5x5_reduce
I0403 17:06:22.850478 20466 net.cpp:425] inception_4d/relu_5x5_reduce <- inception_4d/5x5_reduce
I0403 17:06:22.850498 20466 net.cpp:386] inception_4d/relu_5x5_reduce -> inception_4d/5x5_reduce (in-place)
I0403 17:06:22.850692 20466 net.cpp:141] Setting up inception_4d/relu_5x5_reduce
I0403 17:06:22.850718 20466 net.cpp:148] Top shape: 24 32 14 14 (150528)
I0403 17:06:22.850733 20466 net.cpp:156] Memory required for data: 1132858656
I0403 17:06:22.850749 20466 layer_factory.hpp:77] Creating layer inception_4d/5x5
I0403 17:06:22.850770 20466 net.cpp:91] Creating Layer inception_4d/5x5
I0403 17:06:22.850788 20466 net.cpp:425] inception_4d/5x5 <- inception_4d/5x5_reduce
I0403 17:06:22.850810 20466 net.cpp:399] inception_4d/5x5 -> inception_4d/5x5
I0403 17:06:22.852291 20466 net.cpp:141] Setting up inception_4d/5x5
I0403 17:06:22.852319 20466 net.cpp:148] Top shape: 24 64 14 14 (301056)
I0403 17:06:22.852336 20466 net.cpp:156] Memory required for data: 1134062880
I0403 17:06:22.852355 20466 layer_factory.hpp:77] Creating layer inception_4d/relu_5x5
I0403 17:06:22.852391 20466 net.cpp:91] Creating Layer inception_4d/relu_5x5
I0403 17:06:22.852409 20466 net.cpp:425] inception_4d/relu_5x5 <- inception_4d/5x5
I0403 17:06:22.852427 20466 net.cpp:386] inception_4d/relu_5x5 -> inception_4d/5x5 (in-place)
I0403 17:06:22.852730 20466 net.cpp:141] Setting up inception_4d/relu_5x5
I0403 17:06:22.852756 20466 net.cpp:148] Top shape: 24 64 14 14 (301056)
I0403 17:06:22.852772 20466 net.cpp:156] Memory required for data: 1135267104
I0403 17:06:22.852788 20466 layer_factory.hpp:77] Creating layer inception_4d/pool
I0403 17:06:22.852807 20466 net.cpp:91] Creating Layer inception_4d/pool
I0403 17:06:22.852823 20466 net.cpp:425] inception_4d/pool <- inception_4c/output_inception_4c/output_0_split_3
I0403 17:06:22.852843 20466 net.cpp:399] inception_4d/pool -> inception_4d/pool
I0403 17:06:22.852916 20466 net.cpp:141] Setting up inception_4d/pool
I0403 17:06:22.852941 20466 net.cpp:148] Top shape: 24 512 14 14 (2408448)
I0403 17:06:22.852955 20466 net.cpp:156] Memory required for data: 1144900896
I0403 17:06:22.852970 20466 layer_factory.hpp:77] Creating layer inception_4d/pool_proj
I0403 17:06:22.852993 20466 net.cpp:91] Creating Layer inception_4d/pool_proj
I0403 17:06:22.853013 20466 net.cpp:425] inception_4d/pool_proj <- inception_4d/pool
I0403 17:06:22.853034 20466 net.cpp:399] inception_4d/pool_proj -> inception_4d/pool_proj
I0403 17:06:22.854833 20466 net.cpp:141] Setting up inception_4d/pool_proj
I0403 17:06:22.854866 20466 net.cpp:148] Top shape: 24 64 14 14 (301056)
I0403 17:06:22.854882 20466 net.cpp:156] Memory required for data: 1146105120
I0403 17:06:22.854899 20466 layer_factory.hpp:77] Creating layer inception_4d/relu_pool_proj
I0403 17:06:22.854918 20466 net.cpp:91] Creating Layer inception_4d/relu_pool_proj
I0403 17:06:22.854935 20466 net.cpp:425] inception_4d/relu_pool_proj <- inception_4d/pool_proj
I0403 17:06:22.854954 20466 net.cpp:386] inception_4d/relu_pool_proj -> inception_4d/pool_proj (in-place)
I0403 17:06:22.855149 20466 net.cpp:141] Setting up inception_4d/relu_pool_proj
I0403 17:06:22.855175 20466 net.cpp:148] Top shape: 24 64 14 14 (301056)
I0403 17:06:22.855190 20466 net.cpp:156] Memory required for data: 1147309344
I0403 17:06:22.855207 20466 layer_factory.hpp:77] Creating layer inception_4d/output
I0403 17:06:22.855224 20466 net.cpp:91] Creating Layer inception_4d/output
I0403 17:06:22.855240 20466 net.cpp:425] inception_4d/output <- inception_4d/1x1
I0403 17:06:22.855257 20466 net.cpp:425] inception_4d/output <- inception_4d/3x3
I0403 17:06:22.855273 20466 net.cpp:425] inception_4d/output <- inception_4d/5x5
I0403 17:06:22.855289 20466 net.cpp:425] inception_4d/output <- inception_4d/pool_proj
I0403 17:06:22.855309 20466 net.cpp:399] inception_4d/output -> inception_4d/output
I0403 17:06:22.855360 20466 net.cpp:141] Setting up inception_4d/output
I0403 17:06:22.855386 20466 net.cpp:148] Top shape: 24 528 14 14 (2483712)
I0403 17:06:22.855402 20466 net.cpp:156] Memory required for data: 1157244192
I0403 17:06:22.855417 20466 layer_factory.hpp:77] Creating layer inception_4d/output_inception_4d/output_0_split
I0403 17:06:22.855445 20466 net.cpp:91] Creating Layer inception_4d/output_inception_4d/output_0_split
I0403 17:06:22.855460 20466 net.cpp:425] inception_4d/output_inception_4d/output_0_split <- inception_4d/output
I0403 17:06:22.855480 20466 net.cpp:399] inception_4d/output_inception_4d/output_0_split -> inception_4d/output_inception_4d/output_0_split_0
I0403 17:06:22.855501 20466 net.cpp:399] inception_4d/output_inception_4d/output_0_split -> inception_4d/output_inception_4d/output_0_split_1
I0403 17:06:22.855522 20466 net.cpp:399] inception_4d/output_inception_4d/output_0_split -> inception_4d/output_inception_4d/output_0_split_2
I0403 17:06:22.855545 20466 net.cpp:399] inception_4d/output_inception_4d/output_0_split -> inception_4d/output_inception_4d/output_0_split_3
I0403 17:06:22.855566 20466 net.cpp:399] inception_4d/output_inception_4d/output_0_split -> inception_4d/output_inception_4d/output_0_split_4
I0403 17:06:22.855672 20466 net.cpp:141] Setting up inception_4d/output_inception_4d/output_0_split
I0403 17:06:22.855710 20466 net.cpp:148] Top shape: 24 528 14 14 (2483712)
I0403 17:06:22.855729 20466 net.cpp:148] Top shape: 24 528 14 14 (2483712)
I0403 17:06:22.855744 20466 net.cpp:148] Top shape: 24 528 14 14 (2483712)
I0403 17:06:22.855759 20466 net.cpp:148] Top shape: 24 528 14 14 (2483712)
I0403 17:06:22.855774 20466 net.cpp:148] Top shape: 24 528 14 14 (2483712)
I0403 17:06:22.855788 20466 net.cpp:156] Memory required for data: 1206918432
I0403 17:06:22.855803 20466 layer_factory.hpp:77] Creating layer loss2/ave_pool
I0403 17:06:22.855820 20466 net.cpp:91] Creating Layer loss2/ave_pool
I0403 17:06:22.855836 20466 net.cpp:425] loss2/ave_pool <- inception_4d/output_inception_4d/output_0_split_0
I0403 17:06:22.855859 20466 net.cpp:399] loss2/ave_pool -> loss2/ave_pool
I0403 17:06:22.856164 20466 net.cpp:141] Setting up loss2/ave_pool
I0403 17:06:22.856191 20466 net.cpp:148] Top shape: 24 528 4 4 (202752)
I0403 17:06:22.856207 20466 net.cpp:156] Memory required for data: 1207729440
I0403 17:06:22.856223 20466 layer_factory.hpp:77] Creating layer loss2/conv
I0403 17:06:22.856245 20466 net.cpp:91] Creating Layer loss2/conv
I0403 17:06:22.856262 20466 net.cpp:425] loss2/conv <- loss2/ave_pool
I0403 17:06:22.856283 20466 net.cpp:399] loss2/conv -> loss2/conv
I0403 17:06:22.858121 20466 net.cpp:141] Setting up loss2/conv
I0403 17:06:22.858150 20466 net.cpp:148] Top shape: 24 128 4 4 (49152)
I0403 17:06:22.858166 20466 net.cpp:156] Memory required for data: 1207926048
I0403 17:06:22.858185 20466 layer_factory.hpp:77] Creating layer loss2/relu_conv
I0403 17:06:22.858206 20466 net.cpp:91] Creating Layer loss2/relu_conv
I0403 17:06:22.858222 20466 net.cpp:425] loss2/relu_conv <- loss2/conv
I0403 17:06:22.858240 20466 net.cpp:386] loss2/relu_conv -> loss2/conv (in-place)
I0403 17:06:22.858520 20466 net.cpp:141] Setting up loss2/relu_conv
I0403 17:06:22.858546 20466 net.cpp:148] Top shape: 24 128 4 4 (49152)
I0403 17:06:22.858561 20466 net.cpp:156] Memory required for data: 1208122656
I0403 17:06:22.858580 20466 layer_factory.hpp:77] Creating layer loss2/fc
I0403 17:06:22.858603 20466 net.cpp:91] Creating Layer loss2/fc
I0403 17:06:22.858620 20466 net.cpp:425] loss2/fc <- loss2/conv
I0403 17:06:22.858639 20466 net.cpp:399] loss2/fc -> loss2/fc
I0403 17:06:22.875841 20466 net.cpp:141] Setting up loss2/fc
I0403 17:06:22.875874 20466 net.cpp:148] Top shape: 24 1024 (24576)
I0403 17:06:22.875888 20466 net.cpp:156] Memory required for data: 1208220960
I0403 17:06:22.875907 20466 layer_factory.hpp:77] Creating layer loss2/relu_fc
I0403 17:06:22.875926 20466 net.cpp:91] Creating Layer loss2/relu_fc
I0403 17:06:22.875942 20466 net.cpp:425] loss2/relu_fc <- loss2/fc
I0403 17:06:22.875962 20466 net.cpp:386] loss2/relu_fc -> loss2/fc (in-place)
I0403 17:06:22.876252 20466 net.cpp:141] Setting up loss2/relu_fc
I0403 17:06:22.876279 20466 net.cpp:148] Top shape: 24 1024 (24576)
I0403 17:06:22.876294 20466 net.cpp:156] Memory required for data: 1208319264
I0403 17:06:22.876309 20466 layer_factory.hpp:77] Creating layer loss2/drop_fc
I0403 17:06:22.876327 20466 net.cpp:91] Creating Layer loss2/drop_fc
I0403 17:06:22.876343 20466 net.cpp:425] loss2/drop_fc <- loss2/fc
I0403 17:06:22.876363 20466 net.cpp:386] loss2/drop_fc -> loss2/fc (in-place)
I0403 17:06:22.876410 20466 net.cpp:141] Setting up loss2/drop_fc
I0403 17:06:22.876433 20466 net.cpp:148] Top shape: 24 1024 (24576)
I0403 17:06:22.876446 20466 net.cpp:156] Memory required for data: 1208417568
I0403 17:06:22.876461 20466 layer_factory.hpp:77] Creating layer loss2/classifier_plantvillage
I0403 17:06:22.876482 20466 net.cpp:91] Creating Layer loss2/classifier_plantvillage
I0403 17:06:22.876498 20466 net.cpp:425] loss2/classifier_plantvillage <- loss2/fc
I0403 17:06:22.876518 20466 net.cpp:399] loss2/classifier_plantvillage -> loss2/classifier_plantvillage
I0403 17:06:22.876912 20466 net.cpp:141] Setting up loss2/classifier_plantvillage
I0403 17:06:22.876937 20466 net.cpp:148] Top shape: 24 38 (912)
I0403 17:06:22.876953 20466 net.cpp:156] Memory required for data: 1208421216
I0403 17:06:22.876988 20466 layer_factory.hpp:77] Creating layer loss2/classifier_plantvillage_loss2/classifier_plantvillage_0_split
I0403 17:06:22.877010 20466 net.cpp:91] Creating Layer loss2/classifier_plantvillage_loss2/classifier_plantvillage_0_split
I0403 17:06:22.877027 20466 net.cpp:425] loss2/classifier_plantvillage_loss2/classifier_plantvillage_0_split <- loss2/classifier_plantvillage
I0403 17:06:22.877045 20466 net.cpp:399] loss2/classifier_plantvillage_loss2/classifier_plantvillage_0_split -> loss2/classifier_plantvillage_loss2/classifier_plantvillage_0_split_0
I0403 17:06:22.877065 20466 net.cpp:399] loss2/classifier_plantvillage_loss2/classifier_plantvillage_0_split -> loss2/classifier_plantvillage_loss2/classifier_plantvillage_0_split_1
I0403 17:06:22.877086 20466 net.cpp:399] loss2/classifier_plantvillage_loss2/classifier_plantvillage_0_split -> loss2/classifier_plantvillage_loss2/classifier_plantvillage_0_split_2
I0403 17:06:22.877164 20466 net.cpp:141] Setting up loss2/classifier_plantvillage_loss2/classifier_plantvillage_0_split
I0403 17:06:22.877188 20466 net.cpp:148] Top shape: 24 38 (912)
I0403 17:06:22.877204 20466 net.cpp:148] Top shape: 24 38 (912)
I0403 17:06:22.877220 20466 net.cpp:148] Top shape: 24 38 (912)
I0403 17:06:22.877233 20466 net.cpp:156] Memory required for data: 1208432160
I0403 17:06:22.877246 20466 layer_factory.hpp:77] Creating layer inception_4e/1x1
I0403 17:06:22.877265 20466 net.cpp:91] Creating Layer inception_4e/1x1
I0403 17:06:22.877281 20466 net.cpp:425] inception_4e/1x1 <- inception_4d/output_inception_4d/output_0_split_1
I0403 17:06:22.877303 20466 net.cpp:399] inception_4e/1x1 -> inception_4e/1x1
I0403 17:06:22.879073 20466 net.cpp:141] Setting up inception_4e/1x1
I0403 17:06:22.879101 20466 net.cpp:148] Top shape: 24 256 14 14 (1204224)
I0403 17:06:22.879117 20466 net.cpp:156] Memory required for data: 1213249056
I0403 17:06:22.879133 20466 layer_factory.hpp:77] Creating layer inception_4e/relu_1x1
I0403 17:06:22.879153 20466 net.cpp:91] Creating Layer inception_4e/relu_1x1
I0403 17:06:22.879169 20466 net.cpp:425] inception_4e/relu_1x1 <- inception_4e/1x1
I0403 17:06:22.879186 20466 net.cpp:386] inception_4e/relu_1x1 -> inception_4e/1x1 (in-place)
I0403 17:06:22.879479 20466 net.cpp:141] Setting up inception_4e/relu_1x1
I0403 17:06:22.879505 20466 net.cpp:148] Top shape: 24 256 14 14 (1204224)
I0403 17:06:22.879520 20466 net.cpp:156] Memory required for data: 1218065952
I0403 17:06:22.879534 20466 layer_factory.hpp:77] Creating layer inception_4e/3x3_reduce
I0403 17:06:22.879557 20466 net.cpp:91] Creating Layer inception_4e/3x3_reduce
I0403 17:06:22.879578 20466 net.cpp:425] inception_4e/3x3_reduce <- inception_4d/output_inception_4d/output_0_split_2
I0403 17:06:22.879603 20466 net.cpp:399] inception_4e/3x3_reduce -> inception_4e/3x3_reduce
I0403 17:06:22.881683 20466 net.cpp:141] Setting up inception_4e/3x3_reduce
I0403 17:06:22.881712 20466 net.cpp:148] Top shape: 24 160 14 14 (752640)
I0403 17:06:22.881727 20466 net.cpp:156] Memory required for data: 1221076512
I0403 17:06:22.881745 20466 layer_factory.hpp:77] Creating layer inception_4e/relu_3x3_reduce
I0403 17:06:22.881765 20466 net.cpp:91] Creating Layer inception_4e/relu_3x3_reduce
I0403 17:06:22.881783 20466 net.cpp:425] inception_4e/relu_3x3_reduce <- inception_4e/3x3_reduce
I0403 17:06:22.881814 20466 net.cpp:386] inception_4e/relu_3x3_reduce -> inception_4e/3x3_reduce (in-place)
I0403 17:06:22.882000 20466 net.cpp:141] Setting up inception_4e/relu_3x3_reduce
I0403 17:06:22.882027 20466 net.cpp:148] Top shape: 24 160 14 14 (752640)
I0403 17:06:22.882042 20466 net.cpp:156] Memory required for data: 1224087072
I0403 17:06:22.882056 20466 layer_factory.hpp:77] Creating layer inception_4e/3x3
I0403 17:06:22.882091 20466 net.cpp:91] Creating Layer inception_4e/3x3
I0403 17:06:22.882109 20466 net.cpp:425] inception_4e/3x3 <- inception_4e/3x3_reduce
I0403 17:06:22.882129 20466 net.cpp:399] inception_4e/3x3 -> inception_4e/3x3
I0403 17:06:22.887033 20466 net.cpp:141] Setting up inception_4e/3x3
I0403 17:06:22.887076 20466 net.cpp:148] Top shape: 24 320 14 14 (1505280)
I0403 17:06:22.887094 20466 net.cpp:156] Memory required for data: 1230108192
I0403 17:06:22.887114 20466 layer_factory.hpp:77] Creating layer inception_4e/relu_3x3
I0403 17:06:22.887135 20466 net.cpp:91] Creating Layer inception_4e/relu_3x3
I0403 17:06:22.887152 20466 net.cpp:425] inception_4e/relu_3x3 <- inception_4e/3x3
I0403 17:06:22.887171 20466 net.cpp:386] inception_4e/relu_3x3 -> inception_4e/3x3 (in-place)
I0403 17:06:22.887473 20466 net.cpp:141] Setting up inception_4e/relu_3x3
I0403 17:06:22.887514 20466 net.cpp:148] Top shape: 24 320 14 14 (1505280)
I0403 17:06:22.887531 20466 net.cpp:156] Memory required for data: 1236129312
I0403 17:06:22.887547 20466 layer_factory.hpp:77] Creating layer inception_4e/5x5_reduce
I0403 17:06:22.887570 20466 net.cpp:91] Creating Layer inception_4e/5x5_reduce
I0403 17:06:22.887593 20466 net.cpp:425] inception_4e/5x5_reduce <- inception_4d/output_inception_4d/output_0_split_3
I0403 17:06:22.887610 20466 net.cpp:399] inception_4e/5x5_reduce -> inception_4e/5x5_reduce
I0403 17:06:22.888664 20466 net.cpp:141] Setting up inception_4e/5x5_reduce
I0403 17:06:22.888692 20466 net.cpp:148] Top shape: 24 32 14 14 (150528)
I0403 17:06:22.888708 20466 net.cpp:156] Memory required for data: 1236731424
I0403 17:06:22.888727 20466 layer_factory.hpp:77] Creating layer inception_4e/relu_5x5_reduce
I0403 17:06:22.888748 20466 net.cpp:91] Creating Layer inception_4e/relu_5x5_reduce
I0403 17:06:22.888766 20466 net.cpp:425] inception_4e/relu_5x5_reduce <- inception_4e/5x5_reduce
I0403 17:06:22.888783 20466 net.cpp:386] inception_4e/relu_5x5_reduce -> inception_4e/5x5_reduce (in-place)
I0403 17:06:22.889077 20466 net.cpp:141] Setting up inception_4e/relu_5x5_reduce
I0403 17:06:22.889103 20466 net.cpp:148] Top shape: 24 32 14 14 (150528)
I0403 17:06:22.889119 20466 net.cpp:156] Memory required for data: 1237333536
I0403 17:06:22.889134 20466 layer_factory.hpp:77] Creating layer inception_4e/5x5
I0403 17:06:22.889173 20466 net.cpp:91] Creating Layer inception_4e/5x5
I0403 17:06:22.889191 20466 net.cpp:425] inception_4e/5x5 <- inception_4e/5x5_reduce
I0403 17:06:22.889211 20466 net.cpp:399] inception_4e/5x5 -> inception_4e/5x5
I0403 17:06:22.891136 20466 net.cpp:141] Setting up inception_4e/5x5
I0403 17:06:22.891165 20466 net.cpp:148] Top shape: 24 128 14 14 (602112)
I0403 17:06:22.891181 20466 net.cpp:156] Memory required for data: 1239741984
I0403 17:06:22.891201 20466 layer_factory.hpp:77] Creating layer inception_4e/relu_5x5
I0403 17:06:22.891219 20466 net.cpp:91] Creating Layer inception_4e/relu_5x5
I0403 17:06:22.891237 20466 net.cpp:425] inception_4e/relu_5x5 <- inception_4e/5x5
I0403 17:06:22.891255 20466 net.cpp:386] inception_4e/relu_5x5 -> inception_4e/5x5 (in-place)
I0403 17:06:22.891455 20466 net.cpp:141] Setting up inception_4e/relu_5x5
I0403 17:06:22.891481 20466 net.cpp:148] Top shape: 24 128 14 14 (602112)
I0403 17:06:22.891496 20466 net.cpp:156] Memory required for data: 1242150432
I0403 17:06:22.891511 20466 layer_factory.hpp:77] Creating layer inception_4e/pool
I0403 17:06:22.891532 20466 net.cpp:91] Creating Layer inception_4e/pool
I0403 17:06:22.891551 20466 net.cpp:425] inception_4e/pool <- inception_4d/output_inception_4d/output_0_split_4
I0403 17:06:22.891573 20466 net.cpp:399] inception_4e/pool -> inception_4e/pool
I0403 17:06:22.891647 20466 net.cpp:141] Setting up inception_4e/pool
I0403 17:06:22.891672 20466 net.cpp:148] Top shape: 24 528 14 14 (2483712)
I0403 17:06:22.891688 20466 net.cpp:156] Memory required for data: 1252085280
I0403 17:06:22.891703 20466 layer_factory.hpp:77] Creating layer inception_4e/pool_proj
I0403 17:06:22.891726 20466 net.cpp:91] Creating Layer inception_4e/pool_proj
I0403 17:06:22.891742 20466 net.cpp:425] inception_4e/pool_proj <- inception_4e/pool
I0403 17:06:22.891763 20466 net.cpp:399] inception_4e/pool_proj -> inception_4e/pool_proj
I0403 17:06:22.893280 20466 net.cpp:141] Setting up inception_4e/pool_proj
I0403 17:06:22.893309 20466 net.cpp:148] Top shape: 24 128 14 14 (602112)
I0403 17:06:22.893339 20466 net.cpp:156] Memory required for data: 1254493728
I0403 17:06:22.893359 20466 layer_factory.hpp:77] Creating layer inception_4e/relu_pool_proj
I0403 17:06:22.893379 20466 net.cpp:91] Creating Layer inception_4e/relu_pool_proj
I0403 17:06:22.893396 20466 net.cpp:425] inception_4e/relu_pool_proj <- inception_4e/pool_proj
I0403 17:06:22.893419 20466 net.cpp:386] inception_4e/relu_pool_proj -> inception_4e/pool_proj (in-place)
I0403 17:06:22.893724 20466 net.cpp:141] Setting up inception_4e/relu_pool_proj
I0403 17:06:22.893751 20466 net.cpp:148] Top shape: 24 128 14 14 (602112)
I0403 17:06:22.893767 20466 net.cpp:156] Memory required for data: 1256902176
I0403 17:06:22.893784 20466 layer_factory.hpp:77] Creating layer inception_4e/output
I0403 17:06:22.893800 20466 net.cpp:91] Creating Layer inception_4e/output
I0403 17:06:22.893816 20466 net.cpp:425] inception_4e/output <- inception_4e/1x1
I0403 17:06:22.893831 20466 net.cpp:425] inception_4e/output <- inception_4e/3x3
I0403 17:06:22.893848 20466 net.cpp:425] inception_4e/output <- inception_4e/5x5
I0403 17:06:22.893864 20466 net.cpp:425] inception_4e/output <- inception_4e/pool_proj
I0403 17:06:22.893884 20466 net.cpp:399] inception_4e/output -> inception_4e/output
I0403 17:06:22.893934 20466 net.cpp:141] Setting up inception_4e/output
I0403 17:06:22.893959 20466 net.cpp:148] Top shape: 24 832 14 14 (3913728)
I0403 17:06:22.893977 20466 net.cpp:156] Memory required for data: 1272557088
I0403 17:06:22.893992 20466 layer_factory.hpp:77] Creating layer pool4/3x3_s2
I0403 17:06:22.894011 20466 net.cpp:91] Creating Layer pool4/3x3_s2
I0403 17:06:22.894027 20466 net.cpp:425] pool4/3x3_s2 <- inception_4e/output
I0403 17:06:22.894047 20466 net.cpp:399] pool4/3x3_s2 -> pool4/3x3_s2
I0403 17:06:22.894114 20466 net.cpp:141] Setting up pool4/3x3_s2
I0403 17:06:22.894140 20466 net.cpp:148] Top shape: 24 832 7 7 (978432)
I0403 17:06:22.894155 20466 net.cpp:156] Memory required for data: 1276470816
I0403 17:06:22.894170 20466 layer_factory.hpp:77] Creating layer pool4/3x3_s2_pool4/3x3_s2_0_split
I0403 17:06:22.894188 20466 net.cpp:91] Creating Layer pool4/3x3_s2_pool4/3x3_s2_0_split
I0403 17:06:22.894206 20466 net.cpp:425] pool4/3x3_s2_pool4/3x3_s2_0_split <- pool4/3x3_s2
I0403 17:06:22.894224 20466 net.cpp:399] pool4/3x3_s2_pool4/3x3_s2_0_split -> pool4/3x3_s2_pool4/3x3_s2_0_split_0
I0403 17:06:22.894245 20466 net.cpp:399] pool4/3x3_s2_pool4/3x3_s2_0_split -> pool4/3x3_s2_pool4/3x3_s2_0_split_1
I0403 17:06:22.894265 20466 net.cpp:399] pool4/3x3_s2_pool4/3x3_s2_0_split -> pool4/3x3_s2_pool4/3x3_s2_0_split_2
I0403 17:06:22.894286 20466 net.cpp:399] pool4/3x3_s2_pool4/3x3_s2_0_split -> pool4/3x3_s2_pool4/3x3_s2_0_split_3
I0403 17:06:22.894379 20466 net.cpp:141] Setting up pool4/3x3_s2_pool4/3x3_s2_0_split
I0403 17:06:22.894405 20466 net.cpp:148] Top shape: 24 832 7 7 (978432)
I0403 17:06:22.894423 20466 net.cpp:148] Top shape: 24 832 7 7 (978432)
I0403 17:06:22.894439 20466 net.cpp:148] Top shape: 24 832 7 7 (978432)
I0403 17:06:22.894457 20466 net.cpp:148] Top shape: 24 832 7 7 (978432)
I0403 17:06:22.894471 20466 net.cpp:156] Memory required for data: 1292125728
I0403 17:06:22.894485 20466 layer_factory.hpp:77] Creating layer inception_5a/1x1
I0403 17:06:22.894507 20466 net.cpp:91] Creating Layer inception_5a/1x1
I0403 17:06:22.894526 20466 net.cpp:425] inception_5a/1x1 <- pool4/3x3_s2_pool4/3x3_s2_0_split_0
I0403 17:06:22.894547 20466 net.cpp:399] inception_5a/1x1 -> inception_5a/1x1
I0403 17:06:22.897419 20466 net.cpp:141] Setting up inception_5a/1x1
I0403 17:06:22.897449 20466 net.cpp:148] Top shape: 24 256 7 7 (301056)
I0403 17:06:22.897465 20466 net.cpp:156] Memory required for data: 1293329952
I0403 17:06:22.897483 20466 layer_factory.hpp:77] Creating layer inception_5a/relu_1x1
I0403 17:06:22.897505 20466 net.cpp:91] Creating Layer inception_5a/relu_1x1
I0403 17:06:22.897522 20466 net.cpp:425] inception_5a/relu_1x1 <- inception_5a/1x1
I0403 17:06:22.897541 20466 net.cpp:386] inception_5a/relu_1x1 -> inception_5a/1x1 (in-place)
I0403 17:06:22.897861 20466 net.cpp:141] Setting up inception_5a/relu_1x1
I0403 17:06:22.897887 20466 net.cpp:148] Top shape: 24 256 7 7 (301056)
I0403 17:06:22.897903 20466 net.cpp:156] Memory required for data: 1294534176
I0403 17:06:22.897918 20466 layer_factory.hpp:77] Creating layer inception_5a/3x3_reduce
I0403 17:06:22.897940 20466 net.cpp:91] Creating Layer inception_5a/3x3_reduce
I0403 17:06:22.897959 20466 net.cpp:425] inception_5a/3x3_reduce <- pool4/3x3_s2_pool4/3x3_s2_0_split_1
I0403 17:06:22.897982 20466 net.cpp:399] inception_5a/3x3_reduce -> inception_5a/3x3_reduce
I0403 17:06:22.900439 20466 net.cpp:141] Setting up inception_5a/3x3_reduce
I0403 17:06:22.900470 20466 net.cpp:148] Top shape: 24 160 7 7 (188160)
I0403 17:06:22.900488 20466 net.cpp:156] Memory required for data: 1295286816
I0403 17:06:22.900508 20466 layer_factory.hpp:77] Creating layer inception_5a/relu_3x3_reduce
I0403 17:06:22.900527 20466 net.cpp:91] Creating Layer inception_5a/relu_3x3_reduce
I0403 17:06:22.900542 20466 net.cpp:425] inception_5a/relu_3x3_reduce <- inception_5a/3x3_reduce
I0403 17:06:22.900560 20466 net.cpp:386] inception_5a/relu_3x3_reduce -> inception_5a/3x3_reduce (in-place)
I0403 17:06:22.900756 20466 net.cpp:141] Setting up inception_5a/relu_3x3_reduce
I0403 17:06:22.900784 20466 net.cpp:148] Top shape: 24 160 7 7 (188160)
I0403 17:06:22.900799 20466 net.cpp:156] Memory required for data: 1296039456
I0403 17:06:22.900813 20466 layer_factory.hpp:77] Creating layer inception_5a/3x3
I0403 17:06:22.900835 20466 net.cpp:91] Creating Layer inception_5a/3x3
I0403 17:06:22.900853 20466 net.cpp:425] inception_5a/3x3 <- inception_5a/3x3_reduce
I0403 17:06:22.900876 20466 net.cpp:399] inception_5a/3x3 -> inception_5a/3x3
I0403 17:06:22.905936 20466 net.cpp:141] Setting up inception_5a/3x3
I0403 17:06:22.905967 20466 net.cpp:148] Top shape: 24 320 7 7 (376320)
I0403 17:06:22.905985 20466 net.cpp:156] Memory required for data: 1297544736
I0403 17:06:22.906004 20466 layer_factory.hpp:77] Creating layer inception_5a/relu_3x3
I0403 17:06:22.906024 20466 net.cpp:91] Creating Layer inception_5a/relu_3x3
I0403 17:06:22.906041 20466 net.cpp:425] inception_5a/relu_3x3 <- inception_5a/3x3
I0403 17:06:22.906061 20466 net.cpp:386] inception_5a/relu_3x3 -> inception_5a/3x3 (in-place)
I0403 17:06:22.906373 20466 net.cpp:141] Setting up inception_5a/relu_3x3
I0403 17:06:22.906399 20466 net.cpp:148] Top shape: 24 320 7 7 (376320)
I0403 17:06:22.906415 20466 net.cpp:156] Memory required for data: 1299050016
I0403 17:06:22.906431 20466 layer_factory.hpp:77] Creating layer inception_5a/5x5_reduce
I0403 17:06:22.906455 20466 net.cpp:91] Creating Layer inception_5a/5x5_reduce
I0403 17:06:22.906472 20466 net.cpp:425] inception_5a/5x5_reduce <- pool4/3x3_s2_pool4/3x3_s2_0_split_2
I0403 17:06:22.906494 20466 net.cpp:399] inception_5a/5x5_reduce -> inception_5a/5x5_reduce
I0403 17:06:22.907711 20466 net.cpp:141] Setting up inception_5a/5x5_reduce
I0403 17:06:22.907742 20466 net.cpp:148] Top shape: 24 32 7 7 (37632)
I0403 17:06:22.907758 20466 net.cpp:156] Memory required for data: 1299200544
I0403 17:06:22.907778 20466 layer_factory.hpp:77] Creating layer inception_5a/relu_5x5_reduce
I0403 17:06:22.907799 20466 net.cpp:91] Creating Layer inception_5a/relu_5x5_reduce
I0403 17:06:22.907815 20466 net.cpp:425] inception_5a/relu_5x5_reduce <- inception_5a/5x5_reduce
I0403 17:06:22.907834 20466 net.cpp:386] inception_5a/relu_5x5_reduce -> inception_5a/5x5_reduce (in-place)
I0403 17:06:22.908148 20466 net.cpp:141] Setting up inception_5a/relu_5x5_reduce
I0403 17:06:22.908174 20466 net.cpp:148] Top shape: 24 32 7 7 (37632)
I0403 17:06:22.908188 20466 net.cpp:156] Memory required for data: 1299351072
I0403 17:06:22.908203 20466 layer_factory.hpp:77] Creating layer inception_5a/5x5
I0403 17:06:22.908226 20466 net.cpp:91] Creating Layer inception_5a/5x5
I0403 17:06:22.908243 20466 net.cpp:425] inception_5a/5x5 <- inception_5a/5x5_reduce
I0403 17:06:22.908265 20466 net.cpp:399] inception_5a/5x5 -> inception_5a/5x5
I0403 17:06:22.909962 20466 net.cpp:141] Setting up inception_5a/5x5
I0403 17:06:22.910001 20466 net.cpp:148] Top shape: 24 128 7 7 (150528)
I0403 17:06:22.910017 20466 net.cpp:156] Memory required for data: 1299953184
I0403 17:06:22.910034 20466 layer_factory.hpp:77] Creating layer inception_5a/relu_5x5
I0403 17:06:22.910053 20466 net.cpp:91] Creating Layer inception_5a/relu_5x5
I0403 17:06:22.910069 20466 net.cpp:425] inception_5a/relu_5x5 <- inception_5a/5x5
I0403 17:06:22.910089 20466 net.cpp:386] inception_5a/relu_5x5 -> inception_5a/5x5 (in-place)
I0403 17:06:22.910275 20466 net.cpp:141] Setting up inception_5a/relu_5x5
I0403 17:06:22.910301 20466 net.cpp:148] Top shape: 24 128 7 7 (150528)
I0403 17:06:22.910316 20466 net.cpp:156] Memory required for data: 1300555296
I0403 17:06:22.910331 20466 layer_factory.hpp:77] Creating layer inception_5a/pool
I0403 17:06:22.910351 20466 net.cpp:91] Creating Layer inception_5a/pool
I0403 17:06:22.910367 20466 net.cpp:425] inception_5a/pool <- pool4/3x3_s2_pool4/3x3_s2_0_split_3
I0403 17:06:22.910385 20466 net.cpp:399] inception_5a/pool -> inception_5a/pool
I0403 17:06:22.910454 20466 net.cpp:141] Setting up inception_5a/pool
I0403 17:06:22.910480 20466 net.cpp:148] Top shape: 24 832 7 7 (978432)
I0403 17:06:22.910493 20466 net.cpp:156] Memory required for data: 1304469024
I0403 17:06:22.910508 20466 layer_factory.hpp:77] Creating layer inception_5a/pool_proj
I0403 17:06:22.910531 20466 net.cpp:91] Creating Layer inception_5a/pool_proj
I0403 17:06:22.910547 20466 net.cpp:425] inception_5a/pool_proj <- inception_5a/pool
I0403 17:06:22.910568 20466 net.cpp:399] inception_5a/pool_proj -> inception_5a/pool_proj
I0403 17:06:22.912804 20466 net.cpp:141] Setting up inception_5a/pool_proj
I0403 17:06:22.912837 20466 net.cpp:148] Top shape: 24 128 7 7 (150528)
I0403 17:06:22.912854 20466 net.cpp:156] Memory required for data: 1305071136
I0403 17:06:22.912873 20466 layer_factory.hpp:77] Creating layer inception_5a/relu_pool_proj
I0403 17:06:22.912890 20466 net.cpp:91] Creating Layer inception_5a/relu_pool_proj
I0403 17:06:22.912909 20466 net.cpp:425] inception_5a/relu_pool_proj <- inception_5a/pool_proj
I0403 17:06:22.912930 20466 net.cpp:386] inception_5a/relu_pool_proj -> inception_5a/pool_proj (in-place)
I0403 17:06:22.913214 20466 net.cpp:141] Setting up inception_5a/relu_pool_proj
I0403 17:06:22.913244 20466 net.cpp:148] Top shape: 24 128 7 7 (150528)
I0403 17:06:22.913259 20466 net.cpp:156] Memory required for data: 1305673248
I0403 17:06:22.913274 20466 layer_factory.hpp:77] Creating layer inception_5a/output
I0403 17:06:22.913291 20466 net.cpp:91] Creating Layer inception_5a/output
I0403 17:06:22.913307 20466 net.cpp:425] inception_5a/output <- inception_5a/1x1
I0403 17:06:22.913322 20466 net.cpp:425] inception_5a/output <- inception_5a/3x3
I0403 17:06:22.913338 20466 net.cpp:425] inception_5a/output <- inception_5a/5x5
I0403 17:06:22.913353 20466 net.cpp:425] inception_5a/output <- inception_5a/pool_proj
I0403 17:06:22.913373 20466 net.cpp:399] inception_5a/output -> inception_5a/output
I0403 17:06:22.913422 20466 net.cpp:141] Setting up inception_5a/output
I0403 17:06:22.913446 20466 net.cpp:148] Top shape: 24 832 7 7 (978432)
I0403 17:06:22.913461 20466 net.cpp:156] Memory required for data: 1309586976
I0403 17:06:22.913475 20466 layer_factory.hpp:77] Creating layer inception_5a/output_inception_5a/output_0_split
I0403 17:06:22.913494 20466 net.cpp:91] Creating Layer inception_5a/output_inception_5a/output_0_split
I0403 17:06:22.913511 20466 net.cpp:425] inception_5a/output_inception_5a/output_0_split <- inception_5a/output
I0403 17:06:22.913527 20466 net.cpp:399] inception_5a/output_inception_5a/output_0_split -> inception_5a/output_inception_5a/output_0_split_0
I0403 17:06:22.913549 20466 net.cpp:399] inception_5a/output_inception_5a/output_0_split -> inception_5a/output_inception_5a/output_0_split_1
I0403 17:06:22.913578 20466 net.cpp:399] inception_5a/output_inception_5a/output_0_split -> inception_5a/output_inception_5a/output_0_split_2
I0403 17:06:22.913601 20466 net.cpp:399] inception_5a/output_inception_5a/output_0_split -> inception_5a/output_inception_5a/output_0_split_3
I0403 17:06:22.913708 20466 net.cpp:141] Setting up inception_5a/output_inception_5a/output_0_split
I0403 17:06:22.913733 20466 net.cpp:148] Top shape: 24 832 7 7 (978432)
I0403 17:06:22.913748 20466 net.cpp:148] Top shape: 24 832 7 7 (978432)
I0403 17:06:22.913764 20466 net.cpp:148] Top shape: 24 832 7 7 (978432)
I0403 17:06:22.913779 20466 net.cpp:148] Top shape: 24 832 7 7 (978432)
I0403 17:06:22.913794 20466 net.cpp:156] Memory required for data: 1325241888
I0403 17:06:22.913820 20466 layer_factory.hpp:77] Creating layer inception_5b/1x1
I0403 17:06:22.913841 20466 net.cpp:91] Creating Layer inception_5b/1x1
I0403 17:06:22.913859 20466 net.cpp:425] inception_5b/1x1 <- inception_5a/output_inception_5a/output_0_split_0
I0403 17:06:22.913882 20466 net.cpp:399] inception_5b/1x1 -> inception_5b/1x1
I0403 17:06:22.917604 20466 net.cpp:141] Setting up inception_5b/1x1
I0403 17:06:22.917639 20466 net.cpp:148] Top shape: 24 384 7 7 (451584)
I0403 17:06:22.917657 20466 net.cpp:156] Memory required for data: 1327048224
I0403 17:06:22.917675 20466 layer_factory.hpp:77] Creating layer inception_5b/relu_1x1
I0403 17:06:22.917693 20466 net.cpp:91] Creating Layer inception_5b/relu_1x1
I0403 17:06:22.917709 20466 net.cpp:425] inception_5b/relu_1x1 <- inception_5b/1x1
I0403 17:06:22.917726 20466 net.cpp:386] inception_5b/relu_1x1 -> inception_5b/1x1 (in-place)
I0403 17:06:22.918025 20466 net.cpp:141] Setting up inception_5b/relu_1x1
I0403 17:06:22.918052 20466 net.cpp:148] Top shape: 24 384 7 7 (451584)
I0403 17:06:22.918069 20466 net.cpp:156] Memory required for data: 1328854560
I0403 17:06:22.918084 20466 layer_factory.hpp:77] Creating layer inception_5b/3x3_reduce
I0403 17:06:22.918107 20466 net.cpp:91] Creating Layer inception_5b/3x3_reduce
I0403 17:06:22.918125 20466 net.cpp:425] inception_5b/3x3_reduce <- inception_5a/output_inception_5a/output_0_split_1
I0403 17:06:22.918144 20466 net.cpp:399] inception_5b/3x3_reduce -> inception_5b/3x3_reduce
I0403 17:06:22.920743 20466 net.cpp:141] Setting up inception_5b/3x3_reduce
I0403 17:06:22.920774 20466 net.cpp:148] Top shape: 24 192 7 7 (225792)
I0403 17:06:22.920792 20466 net.cpp:156] Memory required for data: 1329757728
I0403 17:06:22.920810 20466 layer_factory.hpp:77] Creating layer inception_5b/relu_3x3_reduce
I0403 17:06:22.920828 20466 net.cpp:91] Creating Layer inception_5b/relu_3x3_reduce
I0403 17:06:22.920845 20466 net.cpp:425] inception_5b/relu_3x3_reduce <- inception_5b/3x3_reduce
I0403 17:06:22.920866 20466 net.cpp:386] inception_5b/relu_3x3_reduce -> inception_5b/3x3_reduce (in-place)
I0403 17:06:22.921054 20466 net.cpp:141] Setting up inception_5b/relu_3x3_reduce
I0403 17:06:22.921079 20466 net.cpp:148] Top shape: 24 192 7 7 (225792)
I0403 17:06:22.921094 20466 net.cpp:156] Memory required for data: 1330660896
I0403 17:06:22.921109 20466 layer_factory.hpp:77] Creating layer inception_5b/3x3
I0403 17:06:22.921131 20466 net.cpp:91] Creating Layer inception_5b/3x3
I0403 17:06:22.921149 20466 net.cpp:425] inception_5b/3x3 <- inception_5b/3x3_reduce
I0403 17:06:22.921170 20466 net.cpp:399] inception_5b/3x3 -> inception_5b/3x3
I0403 17:06:22.927780 20466 net.cpp:141] Setting up inception_5b/3x3
I0403 17:06:22.927811 20466 net.cpp:148] Top shape: 24 384 7 7 (451584)
I0403 17:06:22.927829 20466 net.cpp:156] Memory required for data: 1332467232
I0403 17:06:22.927848 20466 layer_factory.hpp:77] Creating layer inception_5b/relu_3x3
I0403 17:06:22.927868 20466 net.cpp:91] Creating Layer inception_5b/relu_3x3
I0403 17:06:22.927886 20466 net.cpp:425] inception_5b/relu_3x3 <- inception_5b/3x3
I0403 17:06:22.927904 20466 net.cpp:386] inception_5b/relu_3x3 -> inception_5b/3x3 (in-place)
I0403 17:06:22.928194 20466 net.cpp:141] Setting up inception_5b/relu_3x3
I0403 17:06:22.928223 20466 net.cpp:148] Top shape: 24 384 7 7 (451584)
I0403 17:06:22.928241 20466 net.cpp:156] Memory required for data: 1334273568
I0403 17:06:22.928256 20466 layer_factory.hpp:77] Creating layer inception_5b/5x5_reduce
I0403 17:06:22.928293 20466 net.cpp:91] Creating Layer inception_5b/5x5_reduce
I0403 17:06:22.928313 20466 net.cpp:425] inception_5b/5x5_reduce <- inception_5a/output_inception_5a/output_0_split_2
I0403 17:06:22.928330 20466 net.cpp:399] inception_5b/5x5_reduce -> inception_5b/5x5_reduce
I0403 17:06:22.929580 20466 net.cpp:141] Setting up inception_5b/5x5_reduce
I0403 17:06:22.929608 20466 net.cpp:148] Top shape: 24 48 7 7 (56448)
I0403 17:06:22.929625 20466 net.cpp:156] Memory required for data: 1334499360
I0403 17:06:22.929642 20466 layer_factory.hpp:77] Creating layer inception_5b/relu_5x5_reduce
I0403 17:06:22.929661 20466 net.cpp:91] Creating Layer inception_5b/relu_5x5_reduce
I0403 17:06:22.929677 20466 net.cpp:425] inception_5b/relu_5x5_reduce <- inception_5b/5x5_reduce
I0403 17:06:22.929697 20466 net.cpp:386] inception_5b/relu_5x5_reduce -> inception_5b/5x5_reduce (in-place)
I0403 17:06:22.930083 20466 net.cpp:141] Setting up inception_5b/relu_5x5_reduce
I0403 17:06:22.930121 20466 net.cpp:148] Top shape: 24 48 7 7 (56448)
I0403 17:06:22.930138 20466 net.cpp:156] Memory required for data: 1334725152
I0403 17:06:22.930153 20466 layer_factory.hpp:77] Creating layer inception_5b/5x5
I0403 17:06:22.930173 20466 net.cpp:91] Creating Layer inception_5b/5x5
I0403 17:06:22.930189 20466 net.cpp:425] inception_5b/5x5 <- inception_5b/5x5_reduce
I0403 17:06:22.930208 20466 net.cpp:399] inception_5b/5x5 -> inception_5b/5x5
I0403 17:06:22.932219 20466 net.cpp:141] Setting up inception_5b/5x5
I0403 17:06:22.932248 20466 net.cpp:148] Top shape: 24 128 7 7 (150528)
I0403 17:06:22.932265 20466 net.cpp:156] Memory required for data: 1335327264
I0403 17:06:22.932282 20466 layer_factory.hpp:77] Creating layer inception_5b/relu_5x5
I0403 17:06:22.932303 20466 net.cpp:91] Creating Layer inception_5b/relu_5x5
I0403 17:06:22.932320 20466 net.cpp:425] inception_5b/relu_5x5 <- inception_5b/5x5
I0403 17:06:22.932338 20466 net.cpp:386] inception_5b/relu_5x5 -> inception_5b/5x5 (in-place)
I0403 17:06:22.932528 20466 net.cpp:141] Setting up inception_5b/relu_5x5
I0403 17:06:22.932554 20466 net.cpp:148] Top shape: 24 128 7 7 (150528)
I0403 17:06:22.932569 20466 net.cpp:156] Memory required for data: 1335929376
I0403 17:06:22.932588 20466 layer_factory.hpp:77] Creating layer inception_5b/pool
I0403 17:06:22.932610 20466 net.cpp:91] Creating Layer inception_5b/pool
I0403 17:06:22.932627 20466 net.cpp:425] inception_5b/pool <- inception_5a/output_inception_5a/output_0_split_3
I0403 17:06:22.932646 20466 net.cpp:399] inception_5b/pool -> inception_5b/pool
I0403 17:06:22.932719 20466 net.cpp:141] Setting up inception_5b/pool
I0403 17:06:22.932744 20466 net.cpp:148] Top shape: 24 832 7 7 (978432)
I0403 17:06:22.932757 20466 net.cpp:156] Memory required for data: 1339843104
I0403 17:06:22.932772 20466 layer_factory.hpp:77] Creating layer inception_5b/pool_proj
I0403 17:06:22.932793 20466 net.cpp:91] Creating Layer inception_5b/pool_proj
I0403 17:06:22.932811 20466 net.cpp:425] inception_5b/pool_proj <- inception_5b/pool
I0403 17:06:22.932832 20466 net.cpp:399] inception_5b/pool_proj -> inception_5b/pool_proj
I0403 17:06:22.935099 20466 net.cpp:141] Setting up inception_5b/pool_proj
I0403 17:06:22.935130 20466 net.cpp:148] Top shape: 24 128 7 7 (150528)
I0403 17:06:22.935147 20466 net.cpp:156] Memory required for data: 1340445216
I0403 17:06:22.935166 20466 layer_factory.hpp:77] Creating layer inception_5b/relu_pool_proj
I0403 17:06:22.935184 20466 net.cpp:91] Creating Layer inception_5b/relu_pool_proj
I0403 17:06:22.935200 20466 net.cpp:425] inception_5b/relu_pool_proj <- inception_5b/pool_proj
I0403 17:06:22.935220 20466 net.cpp:386] inception_5b/relu_pool_proj -> inception_5b/pool_proj (in-place)
I0403 17:06:22.935513 20466 net.cpp:141] Setting up inception_5b/relu_pool_proj
I0403 17:06:22.935539 20466 net.cpp:148] Top shape: 24 128 7 7 (150528)
I0403 17:06:22.935554 20466 net.cpp:156] Memory required for data: 1341047328
I0403 17:06:22.935573 20466 layer_factory.hpp:77] Creating layer inception_5b/output
I0403 17:06:22.935592 20466 net.cpp:91] Creating Layer inception_5b/output
I0403 17:06:22.935623 20466 net.cpp:425] inception_5b/output <- inception_5b/1x1
I0403 17:06:22.935642 20466 net.cpp:425] inception_5b/output <- inception_5b/3x3
I0403 17:06:22.935658 20466 net.cpp:425] inception_5b/output <- inception_5b/5x5
I0403 17:06:22.935673 20466 net.cpp:425] inception_5b/output <- inception_5b/pool_proj
I0403 17:06:22.935693 20466 net.cpp:399] inception_5b/output -> inception_5b/output
I0403 17:06:22.935744 20466 net.cpp:141] Setting up inception_5b/output
I0403 17:06:22.935770 20466 net.cpp:148] Top shape: 24 1024 7 7 (1204224)
I0403 17:06:22.935786 20466 net.cpp:156] Memory required for data: 1345864224
I0403 17:06:22.935801 20466 layer_factory.hpp:77] Creating layer pool5/7x7_s1
I0403 17:06:22.935817 20466 net.cpp:91] Creating Layer pool5/7x7_s1
I0403 17:06:22.935832 20466 net.cpp:425] pool5/7x7_s1 <- inception_5b/output
I0403 17:06:22.935850 20466 net.cpp:399] pool5/7x7_s1 -> pool5/7x7_s1
I0403 17:06:22.936065 20466 net.cpp:141] Setting up pool5/7x7_s1
I0403 17:06:22.936092 20466 net.cpp:148] Top shape: 24 1024 1 1 (24576)
I0403 17:06:22.936107 20466 net.cpp:156] Memory required for data: 1345962528
I0403 17:06:22.936122 20466 layer_factory.hpp:77] Creating layer pool5/drop_7x7_s1
I0403 17:06:22.936141 20466 net.cpp:91] Creating Layer pool5/drop_7x7_s1
I0403 17:06:22.936156 20466 net.cpp:425] pool5/drop_7x7_s1 <- pool5/7x7_s1
I0403 17:06:22.936177 20466 net.cpp:386] pool5/drop_7x7_s1 -> pool5/7x7_s1 (in-place)
I0403 17:06:22.936228 20466 net.cpp:141] Setting up pool5/drop_7x7_s1
I0403 17:06:22.936255 20466 net.cpp:148] Top shape: 24 1024 1 1 (24576)
I0403 17:06:22.936271 20466 net.cpp:156] Memory required for data: 1346060832
I0403 17:06:22.936286 20466 layer_factory.hpp:77] Creating layer loss3/classifier_plantvillage
I0403 17:06:22.936305 20466 net.cpp:91] Creating Layer loss3/classifier_plantvillage
I0403 17:06:22.936321 20466 net.cpp:425] loss3/classifier_plantvillage <- pool5/7x7_s1
I0403 17:06:22.936341 20466 net.cpp:399] loss3/classifier_plantvillage -> loss3/classifier_plantvillage
I0403 17:06:22.936784 20466 net.cpp:141] Setting up loss3/classifier_plantvillage
I0403 17:06:22.936810 20466 net.cpp:148] Top shape: 24 38 (912)
I0403 17:06:22.936826 20466 net.cpp:156] Memory required for data: 1346064480
I0403 17:06:22.936844 20466 layer_factory.hpp:77] Creating layer loss3/classifier_plantvillage_loss3/classifier_plantvillage_0_split
I0403 17:06:22.936866 20466 net.cpp:91] Creating Layer loss3/classifier_plantvillage_loss3/classifier_plantvillage_0_split
I0403 17:06:22.936883 20466 net.cpp:425] loss3/classifier_plantvillage_loss3/classifier_plantvillage_0_split <- loss3/classifier_plantvillage
I0403 17:06:22.936902 20466 net.cpp:399] loss3/classifier_plantvillage_loss3/classifier_plantvillage_0_split -> loss3/classifier_plantvillage_loss3/classifier_plantvillage_0_split_0
I0403 17:06:22.936921 20466 net.cpp:399] loss3/classifier_plantvillage_loss3/classifier_plantvillage_0_split -> loss3/classifier_plantvillage_loss3/classifier_plantvillage_0_split_1
I0403 17:06:22.936945 20466 net.cpp:399] loss3/classifier_plantvillage_loss3/classifier_plantvillage_0_split -> loss3/classifier_plantvillage_loss3/classifier_plantvillage_0_split_2
I0403 17:06:22.936966 20466 net.cpp:399] loss3/classifier_plantvillage_loss3/classifier_plantvillage_0_split -> loss3/classifier_plantvillage_loss3/classifier_plantvillage_0_split_3
I0403 17:06:22.937067 20466 net.cpp:141] Setting up loss3/classifier_plantvillage_loss3/classifier_plantvillage_0_split
I0403 17:06:22.937090 20466 net.cpp:148] Top shape: 24 38 (912)
I0403 17:06:22.937108 20466 net.cpp:148] Top shape: 24 38 (912)
I0403 17:06:22.937124 20466 net.cpp:148] Top shape: 24 38 (912)
I0403 17:06:22.937139 20466 net.cpp:148] Top shape: 24 38 (912)
I0403 17:06:22.937153 20466 net.cpp:156] Memory required for data: 1346079072
I0403 17:06:22.937168 20466 layer_factory.hpp:77] Creating layer loss1/loss
I0403 17:06:22.937189 20466 net.cpp:91] Creating Layer loss1/loss
I0403 17:06:22.937208 20466 net.cpp:425] loss1/loss <- loss1/classifier_plantvillage_loss1/classifier_plantvillage_0_split_0
I0403 17:06:22.937240 20466 net.cpp:425] loss1/loss <- label_data_1_split_0
…
