…
I0403 16:52:44.886531 19837 net.cpp:313] The NetState phase (1) differed from the phase (0) specified by a rule in layer data
I0403 16:52:44.887928 19837 net.cpp:49] Initializing net from parameters: 
state {
  phase: TEST
}
layer {
  name: "data"
  type: "Data"
  top: "data"
  top: "label"
  include {
    phase: TEST
  }
  transform_param {
    mirror: false
    crop_size: 224
    mean_file: "/home/mohanty/data/final_dataset/lmdb/color-20-80/mean.binaryproto"
  }
  data_param {
    source: "/home/mohanty/data/final_dataset/lmdb/color-20-80/test_db"
    batch_size: 24
    backend: LMDB
  }
}
layer {
  name: "conv1/7x7_s2"
  type: "Convolution"
  bottom: "data"
  top: "conv1/7x7_s2"
  param {
    lr_mult: 1
    decay_mult: 1
  }
  param {
    lr_mult: 2
    decay_mult: 0
  }
  convolution_param {
    num_output: 64
    pad: 3
    kernel_size: 7
    stride: 2
    weight_filler {
      type: "xavier"
      std: 0.1
    }
    bias_filler {
      type: "constant"
      value: 0.2
    }
  }
}
layer {
  name: "conv1/relu_7x7"
  type: "ReLU"
  bottom: "conv1/7x7_s2"
  top: "conv1/7x7_s2"
}
layer {
  name: "pool1/3x3_s2"
  type: "Pooling"
  bottom: "conv1/7x7_s2"
  top: "pool1/3x3_s2"
  pooling_param {
    pool: MAX
    kernel_size: 3
    stride: 2
  }
}
layer {
  name: "pool1/norm1"
  type: "LRN"
  bottom: "pool1/3x3_s2"
  top: "pool1/norm1"
  lrn_param {
    local_size: 5
    alpha: 0.0001
    beta: 0.75
  }
}
layer {
  name: "conv2/3x3_reduce"
  type: "Convolution"
  bottom: "pool1/norm1"
  top: "conv2/3x3_reduce"
  param {
    lr_mult: 1
    decay_mult: 1
  }
  param {
    lr_mult: 2
    decay_mult: 0
  }
  convolution_param {
    num_output: 64
    kernel_size: 1
    weight_filler {
      type: "xavier"
      std: 0.1
    }
    bias_filler {
      type: "constant"
      value: 0.2
    }
  }
}
layer {
  name: "conv2/relu_3x3_reduce"
  type: "ReLU"
  bottom: "conv2/3x3_reduce"
  top: "conv2/3x3_reduce"
}
layer {
  name: "conv2/3x3"
  type: "Convolution"
  bottom: "conv2/3x3_reduce"
  top: "conv2/3x3"
  param {
    lr_mult: 1
    decay_mult: 1
  }
  param {
    lr_mult: 2
    decay_mult: 0
  }
  convolution_param {
    num_output: 192
    pad: 1
    kernel_size: 3
    weight_filler {
      type: "xavier"
      std: 0.03
    }
    bias_filler {
      type: "constant"
      value: 0.2
    }
  }
}
layer {
  name: "conv2/relu_3x3"
  type: "ReLU"
  bottom: "conv2/3x3"
  top: "conv2/3x3"
}
layer {
  name: "conv2/norm2"
  type: "LRN"
  bottom: "conv2/3x3"
  top: "conv2/norm2"
  lrn_param {
    local_size: 5
    alpha: 0.0001
    beta: 0.75
  }
}
layer {
  name: "pool2/3x3_s2"
  type: "Pooling"
  bottom: "conv2/norm2"
  top: "pool2/3x3_s2"
  pooling_param {
    pool: MAX
    kernel_size: 3
    stride: 2
  }
}
layer {
  name: "inception_3a/1x1"
  type: "Convolution"
  bottom: "pool2/3x3_s2"
  top: "inception_3a/1x1"
  param {
    lr_mult: 1
    decay_mult: 1
  }
  param {
    lr_mult: 2
    decay_mult: 0
  }
  convolution_param {
    num_output: 64
    kernel_size: 1
    weight_filler {
      type: "xavier"
      std: 0.03
    }
    bias_filler {
      type: "constant"
      value: 0.2
    }
  }
}
layer {
  name: "inception_3a/relu_1x1"
  type: "ReLU"
  bottom: "inception_3a/1x1"
  top: "inception_3a/1x1"
}
layer {
  name: "inception_3a/3x3_reduce"
  type: "Convolution"
  bottom: "pool2/3x3_s2"
  top: "inception_3a/3x3_reduce"
  param {
    lr_mult: 1
    decay_mult: 1
  }
  param {
    lr_mult: 2
    decay_mult: 0
  }
  convolution_param {
    num_output: 96
    kernel_size: 1
    weight_filler {
      type: "xavier"
      std: 0.09
    }
    bias_filler {
      type: "constant"
      value: 0.2
    }
  }
}
layer {
  name: "inception_3a/relu_3x3_reduce"
  type: "ReLU"
  bottom: "inception_3a/3x3_reduce"
  top: "inception_3a/3x3_reduce"
}
layer {
  name: "inception_3a/3x3"
  type: "Convolution"
  bottom: "inception_3a/3x3_reduce"
  top: "inception_3a/3x3"
  param {
    lr_mult: 1
    decay_mult: 1
  }
  param {
    lr_mult: 2
    decay_mult: 0
  }
  convolution_param {
    num_output: 128
    pad: 1
    kernel_size: 3
    weight_filler {
      type: "xavier"
      std: 0.03
    }
    bias_filler {
      type: "constant"
      value: 0.2
    }
  }
}
layer {
  name: "inception_3a/relu_3x3"
  type: "ReLU"
  bottom: "inception_3a/3x3"
  top: "inception_3a/3x3"
}
layer {
  name: "inception_3a/5x5_reduce"
  type: "Convolution"
  bottom: "pool2/3x3_s2"
  top: "inception_3a/5x5_reduce"
  param {
    lr_mult: 1
    decay_mult: 1
  }
  param {
    lr_mult: 2
    decay_mult: 0
  }
  convolution_param {
    num_output: 16
    kernel_size: 1
    weight_filler {
      type: "xavier"
      std: 0.2
    }
    bias_filler {
      type: "constant"
      value: 0.2
    }
  }
}
layer {
  name: "inception_3a/relu_5x5_reduce"
  type: "ReLU"
  bottom: "inception_3a/5x5_reduce"
  top: "inception_3a/5x5_reduce"
}
layer {
  name: "inception_3a/5x5"
  type: "Convolution"
  bottom: "inception_3a/5x5_reduce"
  top: "inception_3a/5x5"
  param {
    lr_mult: 1
    decay_mult: 1
  }
  param {
    lr_mult: 2
    decay_mult: 0
  }
  convolution_param {
    num_output: 32
    pad: 2
    kernel_size: 5
    weight_filler {
      type: "xavier"
      std: 0.03
    }
    bias_filler {
      type: "constant"
      value: 0.2
    }
  }
}
layer {
  name: "inception_3a/relu_5x5"
  type: "ReLU"
  bottom: "inception_3a/5x5"
  top: "inception_3a/5x5"
}
layer {
  name: "inception_3a/pool"
  type: "Pooling"
  bottom: "pool2/3x3_s2"
  top: "inception_3a/pool"
  pooling_param {
    pool: MAX
    kernel_size: 3
    stride: 1
    pad: 1
  }
}
layer {
  name: "inception_3a/pool_proj"
  type: "Convolution"
  bottom: "inception_3a/pool"
  top: "inception_3a/pool_proj"
  param {
    lr_mult: 1
    decay_mult: 1
  }
  param {
    lr_mult: 2
    decay_mult: 0
  }
  convolution_param {
    num_output: 32
    kernel_size: 1
    weight_filler {
      type: "xavier"
      std: 0.1
    }
    bias_filler {
      type: "constant"
      value: 0.2
    }
  }
}
layer {
  name: "inception_3a/relu_pool_proj"
  type: "ReLU"
  bottom: "inception_3a/pool_proj"
  top: "inception_3a/pool_proj"
}
layer {
  name: "inception_3a/output"
  type: "Concat"
  bottom: "inception_3a/1x1"
  bottom: "inception_3a/3x3"
  bottom: "inception_3a/5x5"
  bottom: "inception_3a/pool_proj"
  top: "inception_3a/output"
}
layer {
  name: "inception_3b/1x1"
  type: "Convolution"
  bottom: "inception_3a/output"
  top: "inception_3b/1x1"
  param {
    lr_mult: 1
    decay_mult: 1
  }
  param {
    lr_mult: 2
    decay_mult: 0
  }
  convolution_param {
    num_output: 128
    kernel_size: 1
    weight_filler {
      type: "xavier"
      std: 0.03
    }
    bias_filler {
      type: "constant"
      value: 0.2
    }
  }
}
layer {
  name: "inception_3b/relu_1x1"
  type: "ReLU"
  bottom: "inception_3b/1x1"
  top: "inception_3b/1x1"
}
layer {
  name: "inception_3b/3x3_reduce"
  type: "Convolution"
  bottom: "inception_3a/output"
  top: "inception_3b/3x3_reduce"
  param {
    lr_mult: 1
    decay_mult: 1
  }
  param {
    lr_mult: 2
    decay_mult: 0
  }
  convolution_param {
    num_output: 128
    kernel_size: 1
    weight_filler {
      type: "xavier"
      std: 0.09
    }
    bias_filler {
      type: "constant"
      value: 0.2
    }
  }
}
layer {
  name: "inception_3b/relu_3x3_reduce"
  type: "ReLU"
  bottom: "inception_3b/3x3_reduce"
  top: "inception_3b/3x3_reduce"
}
layer {
  name: "inception_3b/3x3"
  type: "Convolution"
  bottom: "inception_3b/3x3_reduce"
  top: "inception_3b/3x3"
  param {
    lr_mult: 1
    decay_mult: 1
  }
  param {
    lr_mult: 2
    decay_mult: 0
  }
  convolution_param {
    num_output: 192
    pad: 1
    kernel_size: 3
    weight_filler {
      type: "xavier"
      std: 0.03
    }
    bias_filler {
      type: "constant"
      value: 0.2
    }
  }
}
layer {
  name: "inception_3b/relu_3x3"
  type: "ReLU"
  bottom: "inception_3b/3x3"
  top: "inception_3b/3x3"
}
layer {
  name: "inception_3b/5x5_reduce"
  type: "Convolution"
  bottom: "inception_3a/output"
  top: "inception_3b/5x5_reduce"
  param {
    lr_mult: 1
    decay_mult: 1
  }
  param {
    lr_mult: 2
    decay_mult: 0
  }
  convolution_param {
    num_output: 32
    kernel_size: 1
    weight_filler {
      type: "xavier"
      std: 0.2
    }
    bias_filler {
      type: "constant"
      value: 0.2
    }
  }
}
layer {
  name: "inception_3b/relu_5x5_reduce"
  type: "ReLU"
  bottom: "inception_3b/5x5_reduce"
  top: "inception_3b/5x5_reduce"
}
layer {
  name: "inception_3b/5x5"
  type: "Convolution"
  bottom: "inception_3b/5x5_reduce"
  top: "inception_3b/5x5"
  param {
    lr_mult: 1
    decay_mult: 1
  }
  param {
    lr_mult: 2
    decay_mult: 0
  }
  convolution_param {
    num_output: 96
    pad: 2
    kernel_size: 5
    weight_filler {
      type: "xavier"
      std: 0.03
    }
    bias_filler {
      type: "constant"
      value: 0.2
    }
  }
}
layer {
  name: "inception_3b/relu_5x5"
  type: "ReLU"
  bottom: "inception_3b/5x5"
  top: "inception_3b/5x5"
}
layer {
  name: "inception_3b/pool"
  type: "Pooling"
  bottom: "inception_3a/output"
  top: "inception_3b/pool"
  pooling_param {
    pool: MAX
    kernel_size: 3
    stride: 1
    pad: 1
  }
}
layer {
  name: "inception_3b/pool_proj"
  type: "Convolution"
  bottom: "inception_3b/pool"
  top: "inception_3b/pool_proj"
  param {
    lr_mult: 1
    decay_mult: 1
  }
  param {
    lr_mult: 2
    decay_mult: 0
  }
  convolution_param {
    num_output: 64
    kernel_size: 1
    weight_filler {
      type: "xavier"
      std: 0.1
    }
    bias_filler {
      type: "constant"
      value: 0.2
    }
  }
}
layer {
  name: "inception_3b/relu_pool_proj"
  type: "ReLU"
  bottom: "inception_3b/pool_proj"
  top: "inception_3b/pool_proj"
}
layer {
  name: "inception_3b/output"
  type: "Concat"
  bottom: "inception_3b/1x1"
  bottom: "inception_3b/3x3"
  bottom: "inception_3b/5x5"
  bottom: "inception_3b/pool_proj"
  top: "inception_3b/output"
}
layer {
  name: "pool3/3x3_s2"
  type: "Pooling"
  bottom: "inception_3b/output"
  top: "pool3/3x3_s2"
  pooling_param {
    pool: MAX
    kernel_size: 3
    stride: 2
  }
}
layer {
  name: "inception_4a/1x1"
  type: "Convolution"
  bottom: "pool3/3x3_s2"
  top: "inception_4a/1x1"
  param {
    lr_mult: 1
    decay_mult: 1
  }
  param {
    lr_mult: 2
    decay_mult: 0
  }
  convolution_param {
    num_output: 192
    kernel_size: 1
    weight_filler {
      type: "xavier"
      std: 0.03
    }
    bias_filler {
      type: "constant"
      value: 0.2
    }
  }
}
layer {
  name: "inception_4a/relu_1x1"
  type: "ReLU"
  bottom: "inception_4a/1x1"
  top: "inception_4a/1x1"
}
layer {
  name: "inception_4a/3x3_reduce"
  type: "Convolution"
  bottom: "pool3/3x3_s2"
  top: "inception_4a/3x3_reduce"
  param {
    lr_mult: 1
    decay_mult: 1
  }
  param {
    lr_mult: 2
    decay_mult: 0
  }
  convolution_param {
    num_output: 96
    kernel_size: 1
    weight_filler {
      type: "xavier"
      std: 0.09
    }
    bias_filler {
      type: "constant"
      value: 0.2
    }
  }
}
layer {
  name: "inception_4a/relu_3x3_reduce"
  type: "ReLU"
  bottom: "inception_4a/3x3_reduce"
  top: "inception_4a/3x3_reduce"
}
layer {
  name: "inception_4a/3x3"
  type: "Convolution"
  bottom: "inception_4a/3x3_reduce"
  top: "inception_4a/3x3"
  param {
    lr_mult: 1
    decay_mult: 1
  }
  param {
    lr_mult: 2
    decay_mult: 0
  }
  convolution_param {
    num_output: 208
    pad: 1
    kernel_size: 3
    weight_filler {
      type: "xavier"
      std: 0.03
    }
    bias_filler {
      type: "constant"
      value: 0.2
    }
  }
}
layer {
  name: "inception_4a/relu_3x3"
  type: "ReLU"
  bottom: "inception_4a/3x3"
  top: "inception_4a/3x3"
}
layer {
  name: "inception_4a/5x5_reduce"
  type: "Convolution"
  bottom: "pool3/3x3_s2"
  top: "inception_4a/5x5_reduce"
  param {
    lr_mult: 1
    decay_mult: 1
  }
  param {
    lr_mult: 2
    decay_mult: 0
  }
  convolution_param {
    num_output: 16
    kernel_size: 1
    weight_filler {
      type: "xavier"
      std: 0.2
    }
    bias_filler {
      type: "constant"
      value: 0.2
    }
  }
}
layer {
  name: "inception_4a/relu_5x5_reduce"
  type: "ReLU"
  bottom: "inception_4a/5x5_reduce"
  top: "inception_4a/5x5_reduce"
}
layer {
  name: "inception_4a/5x5"
  type: "Convolution"
  bottom: "inception_4a/5x5_reduce"
  top: "inception_4a/5x5"
  param {
    lr_mult: 1
    decay_mult: 1
  }
  param {
    lr_mult: 2
    decay_mult: 0
  }
  convolution_param {
    num_output: 48
    pad: 2
    kernel_size: 5
    weight_filler {
      type: "xavier"
      std: 0.03
    }
    bias_filler {
      type: "constant"
      value: 0.2
    }
  }
}
layer {
  name: "inception_4a/relu_5x5"
  type: "ReLU"
  bottom: "inception_4a/5x5"
  top: "inception_4a/5x5"
}
layer {
  name: "inception_4a/pool"
  type: "Pooling"
  bottom: "pool3/3x3_s2"
  top: "inception_4a/pool"
  pooling_param {
    pool: MAX
    kernel_size: 3
    stride: 1
    pad: 1
  }
}
layer {
  name: "inception_4a/pool_proj"
  type: "Convolution"
  bottom: "inception_4a/pool"
  top: "inception_4a/pool_proj"
  param {
    lr_mult: 1
    decay_mult: 1
  }
  param {
    lr_mult: 2
    decay_mult: 0
  }
  convolution_param {
    num_output: 64
    kernel_size: 1
    weight_filler {
      type: "xavier"
      std: 0.1
    }
    bias_filler {
      type: "constant"
      value: 0.2
    }
  }
}
layer {
  name: "inception_4a/relu_pool_proj"
  type: "ReLU"
  bottom: "inception_4a/pool_proj"
  top: "inception_4a/pool_proj"
}
layer {
  name: "inception_4a/output"
  type: "Concat"
  bottom: "inception_4a/1x1"
  bottom: "inception_4a/3x3"
  bottom: "inception_4a/5x5"
  bottom: "inception_4a/pool_proj"
  top: "inception_4a/output"
}
layer {
  name: "loss1/ave_pool"
  type: "Pooling"
  bottom: "inception_4a/output"
  top: "loss1/ave_pool"
  pooling_param {
    pool: AVE
    kernel_size: 5
    stride: 3
  }
}
layer {
  name: "loss1/conv"
  type: "Convolution"
  bottom: "loss1/ave_pool"
  top: "loss1/conv"
  param {
    lr_mult: 1
    decay_mult: 1
  }
  param {
    lr_mult: 2
    decay_mult: 0
  }
  convolution_param {
    num_output: 128
    kernel_size: 1
    weight_filler {
      type: "xavier"
      std: 0.08
    }
    bias_filler {
      type: "constant"
      value: 0.2
    }
  }
}
layer {
  name: "loss1/relu_conv"
  type: "ReLU"
  bottom: "loss1/conv"
  top: "loss1/conv"
}
layer {
  name: "loss1/fc"
  type: "InnerProduct"
  bottom: "loss1/conv"
  top: "loss1/fc"
  param {
    lr_mult: 1
    decay_mult: 1
  }
  param {
    lr_mult: 2
    decay_mult: 0
  }
  inner_product_param {
    num_output: 1024
    weight_filler {
      type: "xavier"
      std: 0.02
    }
    bias_filler {
      type: "constant"
      value: 0.2
    }
  }
}
layer {
  name: "loss1/relu_fc"
  type: "ReLU"
  bottom: "loss1/fc"
  top: "loss1/fc"
}
layer {
  name: "loss1/drop_fc"
  type: "Dropout"
  bottom: "loss1/fc"
  top: "loss1/fc"
  dropout_param {
    dropout_ratio: 0.7
  }
}
layer {
  name: "loss1/classifier_plantvillage"
  type: "InnerProduct"
  bottom: "loss1/fc"
  top: "loss1/classifier_plantvillage"
  param {
    lr_mult: 1
    decay_mult: 1
  }
  param {
    lr_mult: 2
    decay_mult: 0
  }
  inner_product_param {
    num_output: 38
    weight_filler {
      type: "xavier"
      std: 0.0009765625
    }
    bias_filler {
      type: "constant"
      value: 0
    }
  }
}
layer {
  name: "inception_4b/1x1"
  type: "Convolution"
  bottom: "inception_4a/output"
  top: "inception_4b/1x1"
  param {
    lr_mult: 1
    decay_mult: 1
  }
  param {
    lr_mult: 2
    decay_mult: 0
  }
  convolution_param {
    num_output: 160
    kernel_size: 1
    weight_filler {
      type: "xavier"
      std: 0.03
    }
    bias_filler {
      type: "constant"
      value: 0.2
    }
  }
}
layer {
  name: "inception_4b/relu_1x1"
  type: "ReLU"
  bottom: "inception_4b/1x1"
  top: "inception_4b/1x1"
}
layer {
  name: "inception_4b/3x3_reduce"
  type: "Convolution"
  bottom: "inception_4a/output"
  top: "inception_4b/3x3_reduce"
  param {
    lr_mult: 1
    decay_mult: 1
  }
  param {
    lr_mult: 2
    decay_mult: 0
  }
  convolution_param {
    num_output: 112
    kernel_size: 1
    weight_filler {
      type: "xavier"
      std: 0.09
    }
    bias_filler {
      type: "constant"
      value: 0.2
    }
  }
}
layer {
  name: "inception_4b/relu_3x3_reduce"
  type: "ReLU"
  bottom: "inception_4b/3x3_reduce"
  top: "inception_4b/3x3_reduce"
}
layer {
  name: "inception_4b/3x3"
  type: "Convolution"
  bottom: "inception_4b/3x3_reduce"
  top: "inception_4b/3x3"
  param {
    lr_mult: 1
    decay_mult: 1
  }
  param {
    lr_mult: 2
    decay_mult: 0
  }
  convolution_param {
    num_output: 224
    pad: 1
    kernel_size: 3
    weight_filler {
      type: "xavier"
      std: 0.03
    }
    bias_filler {
      type: "constant"
      value: 0.2
    }
  }
}
layer {
  name: "inception_4b/relu_3x3"
  type: "ReLU"
  bottom: "inception_4b/3x3"
  top: "inception_4b/3x3"
}
layer {
  name: "inception_4b/5x5_reduce"
  type: "Convolution"
  bottom: "inception_4a/output"
  top: "inception_4b/5x5_reduce"
  param {
    lr_mult: 1
    decay_mult: 1
  }
  param {
    lr_mult: 2
    decay_mult: 0
  }
  convolution_param {
    num_output: 24
    kernel_size: 1
    weight_filler {
      type: "xavier"
      std: 0.2
    }
    bias_filler {
      type: "constant"
      value: 0.2
    }
  }
}
layer {
  name: "inception_4b/relu_5x5_reduce"
  type: "ReLU"
  bottom: "inception_4b/5x5_reduce"
  top: "inception_4b/5x5_reduce"
}
layer {
  name: "inception_4b/5x5"
  type: "Convolution"
  bottom: "inception_4b/5x5_reduce"
  top: "inception_4b/5x5"
  param {
    lr_mult: 1
    decay_mult: 1
  }
  param {
    lr_mult: 2
    decay_mult: 0
  }
  convolution_param {
    num_output: 64
    pad: 2
    kernel_size: 5
    weight_filler {
      type: "xavier"
      std: 0.03
    }
    bias_filler {
      type: "constant"
      value: 0.2
    }
  }
}
layer {
  name: "inception_4b/relu_5x5"
  type: "ReLU"
  bottom: "inception_4b/5x5"
  top: "inception_4b/5x5"
}
layer {
  name: "inception_4b/pool"
  type: "Pooling"
  bottom: "inception_4a/output"
  top: "inception_4b/pool"
  pooling_param {
    pool: MAX
    kernel_size: 3
    stride: 1
    pad: 1
  }
}
layer {
  name: "inception_4b/pool_proj"
  type: "Convolution"
  bottom: "inception_4b/pool"
  top: "inception_4b/pool_proj"
  param {
    lr_mult: 1
    decay_mult: 1
  }
  param {
    lr_mult: 2
    decay_mult: 0
  }
  convolution_param {
    num_output: 64
    kernel_size: 1
    weight_filler {
      type: "xavier"
      std: 0.1
    }
    bias_filler {
      type: "constant"
      value: 0.2
    }
  }
}
layer {
  name: "inception_4b/relu_pool_proj"
  type: "ReLU"
  bottom: "inception_4b/pool_proj"
  top: "inception_4b/pool_proj"
}
layer {
  name: "inception_4b/output"
  type: "Concat"
  bottom: "inception_4b/1x1"
  bottom: "inception_4b/3x3"
  bottom: "inception_4b/5x5"
  bottom: "inception_4b/pool_proj"
  top: "inception_4b/output"
}
layer {
  name: "inception_4c/1x1"
  type: "Convolution"
  bottom: "inception_4b/output"
  top: "inception_4c/1x1"
  param {
    lr_mult: 1
    decay_mult: 1
  }
  param {
    lr_mult: 2
    decay_mult: 0
  }
  convolution_param {
    num_output: 128
    kernel_size: 1
    weight_filler {
      type: "xavier"
      std: 0.03
    }
    bias_filler {
      type: "constant"
      value: 0.2
    }
  }
}
layer {
  name: "inception_4c/relu_1x1"
  type: "ReLU"
  bottom: "inception_4c/1x1"
  top: "inception_4c/1x1"
}
layer {
  name: "inception_4c/3x3_reduce"
  type: "Convolution"
  bottom: "inception_4b/output"
  top: "inception_4c/3x3_reduce"
  param {
    lr_mult: 1
    decay_mult: 1
  }
  param {
    lr_mult: 2
    decay_mult: 0
  }
  convolution_param {
    num_output: 128
    kernel_size: 1
    weight_filler {
      type: "xavier"
      std: 0.09
    }
    bias_filler {
      type: "constant"
      value: 0.2
    }
  }
}
layer {
  name: "inception_4c/relu_3x3_reduce"
  type: "ReLU"
  bottom: "inception_4c/3x3_reduce"
  top: "inception_4c/3x3_reduce"
}
layer {
  name: "inception_4c/3x3"
  type: "Convolution"
  bottom: "inception_4c/3x3_reduce"
  top: "inception_4c/3x3"
  param {
    lr_mult: 1
    decay_mult: 1
  }
  param {
    lr_mult: 2
    decay_mult: 0
  }
  convolution_param {
    num_output: 256
    pad: 1
    kernel_size: 3
    weight_filler {
      type: "xavier"
      std: 0.03
    }
    bias_filler {
      type: "constant"
      value: 0.2
    }
  }
}
layer {
  name: "inception_4c/relu_3x3"
  type: "ReLU"
  bottom: "inception_4c/3x3"
  top: "inception_4c/3x3"
}
layer {
  name: "inception_4c/5x5_reduce"
  type: "Convolution"
  bottom: "inception_4b/output"
  top: "inception_4c/5x5_reduce"
  param {
    lr_mult: 1
    decay_mult: 1
  }
  param {
    lr_mult: 2
    decay_mult: 0
  }
  convolution_param {
    num_output: 24
    kernel_size: 1
    weight_filler {
      type: "xavier"
      std: 0.2
    }
    bias_filler {
      type: "constant"
      value: 0.2
    }
  }
}
layer {
  name: "inception_4c/relu_5x5_reduce"
  type: "ReLU"
  bottom: "inception_4c/5x5_reduce"
  top: "inception_4c/5x5_reduce"
}
layer {
  name: "inception_4c/5x5"
  type: "Convolution"
  bottom: "inception_4c/5x5_reduce"
  top: "inception_4c/5x5"
  param {
    lr_mult: 1
    decay_mult: 1
  }
  param {
    lr_mult: 2
    decay_mult: 0
  }
  convolution_param {
    num_output: 64
    pad: 2
    kernel_size: 5
    weight_filler {
      type: "xavier"
      std: 0.03
    }
    bias_filler {
      type: "constant"
      value: 0.2
    }
  }
}
layer {
  name: "inception_4c/relu_5x5"
  type: "ReLU"
  bottom: "inception_4c/5x5"
  top: "inception_4c/5x5"
}
layer {
  name: "inception_4c/pool"
  type: "Pooling"
  bottom: "inception_4b/output"
  top: "inception_4c/pool"
  pooling_param {
    pool: MAX
    kernel_size: 3
    stride: 1
    pad: 1
  }
}
layer {
  name: "inception_4c/pool_proj"
  type: "Convolution"
  bottom: "inception_4c/pool"
  top: "inception_4c/pool_proj"
  param {
    lr_mult: 1
    decay_mult: 1
  }
  param {
    lr_mult: 2
    decay_mult: 0
  }
  convolution_param {
    num_output: 64
    kernel_size: 1
    weight_filler {
      type: "xavier"
      std: 0.1
    }
    bias_filler {
      type: "constant"
      value: 0.2
    }
  }
}
layer {
  name: "inception_4c/relu_pool_proj"
  type: "ReLU"
  bottom: "inception_4c/pool_proj"
  top: "inception_4c/pool_proj"
}
layer {
  name: "inception_4c/output"
  type: "Concat"
  bottom: "inception_4c/1x1"
  bottom: "inception_4c/3x3"
  bottom: "inception_4c/5x5"
  bottom: "inception_4c/pool_proj"
  top: "inception_4c/output"
}
layer {
  name: "inception_4d/1x1"
  type: "Convolution"
  bottom: "inception_4c/output"
  top: "inception_4d/1x1"
  param {
    lr_mult: 1
    decay_mult: 1
  }
  param {
    lr_mult: 2
    decay_mult: 0
  }
  convolution_param {
    num_output: 112
    kernel_size: 1
    weight_filler {
      type: "xavier"
      std: 0.03
    }
    bias_filler {
      type: "constant"
      value: 0.2
    }
  }
}
layer {
  name: "inception_4d/relu_1x1"
  type: "ReLU"
  bottom: "inception_4d/1x1"
  top: "inception_4d/1x1"
}
layer {
  name: "inception_4d/3x3_reduce"
  type: "Convolution"
  bottom: "inception_4c/output"
  top: "inception_4d/3x3_reduce"
  param {
    lr_mult: 1
    decay_mult: 1
  }
  param {
    lr_mult: 2
    decay_mult: 0
  }
  convolution_param {
    num_output: 144
    kernel_size: 1
    weight_filler {
      type: "xavier"
      std: 0.09
    }
    bias_filler {
      type: "constant"
      value: 0.2
    }
  }
}
layer {
  name: "inception_4d/relu_3x3_reduce"
  type: "ReLU"
  bottom: "inception_4d/3x3_reduce"
  top: "inception_4d/3x3_reduce"
}
layer {
  name: "inception_4d/3x3"
  type: "Convolution"
  bottom: "inception_4d/3x3_reduce"
  top: "inception_4d/3x3"
  param {
    lr_mult: 1
    decay_mult: 1
  }
  param {
    lr_mult: 2
    decay_mult: 0
  }
  convolution_param {
    num_output: 288
    pad: 1
    kernel_size: 3
    weight_filler {
      type: "xavier"
      std: 0.03
    }
    bias_filler {
      type: "constant"
      value: 0.2
    }
  }
}
layer {
  name: "inception_4d/relu_3x3"
  type: "ReLU"
  bottom: "inception_4d/3x3"
  top: "inception_4d/3x3"
}
layer {
  name: "inception_4d/5x5_reduce"
  type: "Convolution"
  bottom: "inception_4c/output"
  top: "inception_4d/5x5_reduce"
  param {
    lr_mult: 1
    decay_mult: 1
  }
  param {
    lr_mult: 2
    decay_mult: 0
  }
  convolution_param {
    num_output: 32
    kernel_size: 1
    weight_filler {
      type: "xavier"
      std: 0.2
    }
    bias_filler {
      type: "constant"
      value: 0.2
    }
  }
}
layer {
  name: "inception_4d/relu_5x5_reduce"
  type: "ReLU"
  bottom: "inception_4d/5x5_reduce"
  top: "inception_4d/5x5_reduce"
}
layer {
  name: "inception_4d/5x5"
  type: "Convolution"
  bottom: "inception_4d/5x5_reduce"
  top: "inception_4d/5x5"
  param {
    lr_mult: 1
    decay_mult: 1
  }
  param {
    lr_mult: 2
    decay_mult: 0
  }
  convolution_param {
    num_output: 64
    pad: 2
    kernel_size: 5
    weight_filler {
      type: "xavier"
      std: 0.03
    }
    bias_filler {
      type: "constant"
      value: 0.2
    }
  }
}
layer {
  name: "inception_4d/relu_5x5"
  type: "ReLU"
  bottom: "inception_4d/5x5"
  top: "inception_4d/5x5"
}
layer {
  name: "inception_4d/pool"
  type: "Pooling"
  bottom: "inception_4c/output"
  top: "inception_4d/pool"
  pooling_param {
    pool: MAX
    kernel_size: 3
    stride: 1
    pad: 1
  }
}
layer {
  name: "inception_4d/pool_proj"
  type: "Convolution"
  bottom: "inception_4d/pool"
  top: "inception_4d/pool_proj"
  param {
    lr_mult: 1
    decay_mult: 1
  }
  param {
    lr_mult: 2
    decay_mult: 0
  }
  convolution_param {
    num_output: 64
    kernel_size: 1
    weight_filler {
      type: "xavier"
      std: 0.1
    }
    bias_filler {
      type: "constant"
      value: 0.2
    }
  }
}
layer {
  name: "inception_4d/relu_pool_proj"
  type: "ReLU"
  bottom: "inception_4d/pool_proj"
  top: "inception_4d/pool_proj"
}
layer {
  name: "inception_4d/output"
  type: "Concat"
  bottom: "inception_4d/1x1"
  bottom: "inception_4d/3x3"
  bottom: "inception_4d/5x5"
  bottom: "inception_4d/pool_proj"
  top: "inception_4d/output"
}
layer {
  name: "loss2/ave_pool"
  type: "Pooling"
  bottom: "inception_4d/output"
  top: "loss2/ave_pool"
  pooling_param {
    pool: AVE
    kernel_size: 5
    stride: 3
  }
}
layer {
  name: "loss2/conv"
  type: "Convolution"
  bottom: "loss2/ave_pool"
  top: "loss2/conv"
  param {
    lr_mult: 1
    decay_mult: 1
  }
  param {
    lr_mult: 2
    decay_mult: 0
  }
  convolution_param {
    num_output: 128
    kernel_size: 1
    weight_filler {
      type: "xavier"
      std: 0.08
    }
    bias_filler {
      type: "constant"
      value: 0.2
    }
  }
}
layer {
  name: "loss2/relu_conv"
  type: "ReLU"
  bottom: "loss2/conv"
  top: "loss2/conv"
}
layer {
  name: "loss2/fc"
  type: "InnerProduct"
  bottom: "loss2/conv"
  top: "loss2/fc"
  param {
    lr_mult: 1
    decay_mult: 1
  }
  param {
    lr_mult: 2
    decay_mult: 0
  }
  inner_product_param {
    num_output: 1024
    weight_filler {
      type: "xavier"
      std: 0.02
    }
    bias_filler {
      type: "constant"
      value: 0.2
    }
  }
}
layer {
  name: "loss2/relu_fc"
  type: "ReLU"
  bottom: "loss2/fc"
  top: "loss2/fc"
}
layer {
  name: "loss2/drop_fc"
  type: "Dropout"
  bottom: "loss2/fc"
  top: "loss2/fc"
  dropout_param {
    dropout_ratio: 0.7
  }
}
layer {
  name: "loss2/classifier_plantvillage"
  type: "InnerProduct"
  bottom: "loss2/fc"
  top: "loss2/classifier_plantvillage"
  param {
    lr_mult: 1
    decay_mult: 1
  }
  param {
    lr_mult: 2
    decay_mult: 0
  }
  inner_product_param {
    num_output: 38
    weight_filler {
      type: "xavier"
      std: 0.0009765625
    }
    bias_filler {
      type: "constant"
      value: 0
    }
  }
}
layer {
  name: "inception_4e/1x1"
  type: "Convolution"
  bottom: "inception_4d/output"
  top: "inception_4e/1x1"
  param {
    lr_mult: 1
    decay_mult: 1
  }
  param {
    lr_mult: 2
    decay_mult: 0
  }
  convolution_param {
    num_output: 256
    kernel_size: 1
    weight_filler {
      type: "xavier"
      std: 0.03
    }
    bias_filler {
      type: "constant"
      value: 0.2
    }
  }
}
layer {
  name: "inception_4e/relu_1x1"
  type: "ReLU"
  bottom: "inception_4e/1x1"
  top: "inception_4e/1x1"
}
layer {
  name: "inception_4e/3x3_reduce"
  type: "Convolution"
  bottom: "inception_4d/output"
  top: "inception_4e/3x3_reduce"
  param {
    lr_mult: 1
    decay_mult: 1
  }
  param {
    lr_mult: 2
    decay_mult: 0
  }
  convolution_param {
    num_output: 160
    kernel_size: 1
    weight_filler {
      type: "xavier"
      std: 0.09
    }
    bias_filler {
      type: "constant"
      value: 0.2
    }
  }
}
layer {
  name: "inception_4e/relu_3x3_reduce"
  type: "ReLU"
  bottom: "inception_4e/3x3_reduce"
  top: "inception_4e/3x3_reduce"
}
layer {
  name: "inception_4e/3x3"
  type: "Convolution"
  bottom: "inception_4e/3x3_reduce"
  top: "inception_4e/3x3"
  param {
    lr_mult: 1
    decay_mult: 1
  }
  param {
    lr_mult: 2
    decay_mult: 0
  }
  convolution_param {
    num_output: 320
    pad: 1
    kernel_size: 3
    weight_filler {
      type: "xavier"
      std: 0.03
    }
    bias_filler {
      type: "constant"
      value: 0.2
    }
  }
}
layer {
  name: "inception_4e/relu_3x3"
  type: "ReLU"
  bottom: "inception_4e/3x3"
  top: "inception_4e/3x3"
}
layer {
  name: "inception_4e/5x5_reduce"
  type: "Convolution"
  bottom: "inception_4d/output"
  top: "inception_4e/5x5_reduce"
  param {
    lr_mult: 1
    decay_mult: 1
  }
  param {
    lr_mult: 2
    decay_mult: 0
  }
  convolution_param {
    num_output: 32
    kernel_size: 1
    weight_filler {
      type: "xavier"
      std: 0.2
    }
    bias_filler {
      type: "constant"
      value: 0.2
    }
  }
}
layer {
  name: "inception_4e/relu_5x5_reduce"
  type: "ReLU"
  bottom: "inception_4e/5x5_reduce"
  top: "inception_4e/5x5_reduce"
}
layer {
  name: "inception_4e/5x5"
  type: "Convolution"
  bottom: "inception_4e/5x5_reduce"
  top: "inception_4e/5x5"
  p
I0403 16:52:44.889605 19837 layer_factory.hpp:77] Creating layer data
I0403 16:52:44.890322 19837 net.cpp:91] Creating Layer data
I0403 16:52:44.890358 19837 net.cpp:399] data -> data
I0403 16:52:44.890421 19837 net.cpp:399] data -> label
I0403 16:52:44.890465 19837 data_transformer.cpp:25] Loading mean file from: /home/mohanty/data/final_dataset/lmdb/color-20-80/mean.binaryproto
I0403 16:52:44.891764 19842 db_lmdb.cpp:38] Opened lmdb /home/mohanty/data/final_dataset/lmdb/color-20-80/test_db
I0403 16:52:44.906136 19837 data_layer.cpp:41] output data size: 24,3,224,224
I0403 16:52:44.937711 19837 net.cpp:141] Setting up data
I0403 16:52:44.937803 19837 net.cpp:148] Top shape: 24 3 224 224 (3612672)
I0403 16:52:44.937829 19837 net.cpp:148] Top shape: 24 (24)
I0403 16:52:44.937850 19837 net.cpp:156] Memory required for data: 14450784
I0403 16:52:44.937885 19837 layer_factory.hpp:77] Creating layer label_data_1_split
I0403 16:52:44.937917 19837 net.cpp:91] Creating Layer label_data_1_split
I0403 16:52:44.937940 19837 net.cpp:425] label_data_1_split <- label
I0403 16:52:44.937978 19837 net.cpp:399] label_data_1_split -> label_data_1_split_0
I0403 16:52:44.938011 19837 net.cpp:399] label_data_1_split -> label_data_1_split_1
I0403 16:52:44.938038 19837 net.cpp:399] label_data_1_split -> label_data_1_split_2
I0403 16:52:44.938065 19837 net.cpp:399] label_data_1_split -> label_data_1_split_3
I0403 16:52:44.938089 19837 net.cpp:399] label_data_1_split -> label_data_1_split_4
I0403 16:52:44.938114 19837 net.cpp:399] label_data_1_split -> label_data_1_split_5
I0403 16:52:44.938139 19837 net.cpp:399] label_data_1_split -> label_data_1_split_6
I0403 16:52:44.938164 19837 net.cpp:399] label_data_1_split -> label_data_1_split_7
I0403 16:52:44.938189 19837 net.cpp:399] label_data_1_split -> label_data_1_split_8
I0403 16:52:44.938215 19837 net.cpp:399] label_data_1_split -> label_data_1_split_9
I0403 16:52:44.938351 19837 net.cpp:141] Setting up label_data_1_split
I0403 16:52:44.938380 19837 net.cpp:148] Top shape: 24 (24)
I0403 16:52:44.938401 19837 net.cpp:148] Top shape: 24 (24)
I0403 16:52:44.938421 19837 net.cpp:148] Top shape: 24 (24)
I0403 16:52:44.938441 19837 net.cpp:148] Top shape: 24 (24)
I0403 16:52:44.938460 19837 net.cpp:148] Top shape: 24 (24)
I0403 16:52:44.938479 19837 net.cpp:148] Top shape: 24 (24)
I0403 16:52:44.938498 19837 net.cpp:148] Top shape: 24 (24)
I0403 16:52:44.938518 19837 net.cpp:148] Top shape: 24 (24)
I0403 16:52:44.938536 19837 net.cpp:148] Top shape: 24 (24)
I0403 16:52:44.938556 19837 net.cpp:148] Top shape: 24 (24)
I0403 16:52:44.938614 19837 net.cpp:156] Memory required for data: 14451744
I0403 16:52:44.938635 19837 layer_factory.hpp:77] Creating layer conv1/7x7_s2
I0403 16:52:44.938673 19837 net.cpp:91] Creating Layer conv1/7x7_s2
I0403 16:52:44.938697 19837 net.cpp:425] conv1/7x7_s2 <- data
I0403 16:52:44.938722 19837 net.cpp:399] conv1/7x7_s2 -> conv1/7x7_s2
I0403 16:52:45.103858 19837 net.cpp:141] Setting up conv1/7x7_s2
I0403 16:52:45.103950 19837 net.cpp:148] Top shape: 24 64 112 112 (19267584)
I0403 16:52:45.103971 19837 net.cpp:156] Memory required for data: 91522080
I0403 16:52:45.104007 19837 layer_factory.hpp:77] Creating layer conv1/relu_7x7
I0403 16:52:45.104040 19837 net.cpp:91] Creating Layer conv1/relu_7x7
I0403 16:52:45.104064 19837 net.cpp:425] conv1/relu_7x7 <- conv1/7x7_s2
I0403 16:52:45.104087 19837 net.cpp:386] conv1/relu_7x7 -> conv1/7x7_s2 (in-place)
I0403 16:52:45.104392 19837 net.cpp:141] Setting up conv1/relu_7x7
I0403 16:52:45.104428 19837 net.cpp:148] Top shape: 24 64 112 112 (19267584)
I0403 16:52:45.104449 19837 net.cpp:156] Memory required for data: 168592416
I0403 16:52:45.104467 19837 layer_factory.hpp:77] Creating layer pool1/3x3_s2
I0403 16:52:45.104498 19837 net.cpp:91] Creating Layer pool1/3x3_s2
I0403 16:52:45.104522 19837 net.cpp:425] pool1/3x3_s2 <- conv1/7x7_s2
I0403 16:52:45.104547 19837 net.cpp:399] pool1/3x3_s2 -> pool1/3x3_s2
I0403 16:52:45.104650 19837 net.cpp:141] Setting up pool1/3x3_s2
I0403 16:52:45.104681 19837 net.cpp:148] Top shape: 24 64 56 56 (4816896)
I0403 16:52:45.104701 19837 net.cpp:156] Memory required for data: 187860000
I0403 16:52:45.104718 19837 layer_factory.hpp:77] Creating layer pool1/norm1
I0403 16:52:45.104748 19837 net.cpp:91] Creating Layer pool1/norm1
I0403 16:52:45.104771 19837 net.cpp:425] pool1/norm1 <- pool1/3x3_s2
I0403 16:52:45.104794 19837 net.cpp:399] pool1/norm1 -> pool1/norm1
I0403 16:52:45.105135 19837 net.cpp:141] Setting up pool1/norm1
I0403 16:52:45.105170 19837 net.cpp:148] Top shape: 24 64 56 56 (4816896)
I0403 16:52:45.105188 19837 net.cpp:156] Memory required for data: 207127584
I0403 16:52:45.105207 19837 layer_factory.hpp:77] Creating layer conv2/3x3_reduce
I0403 16:52:45.105237 19837 net.cpp:91] Creating Layer conv2/3x3_reduce
I0403 16:52:45.105258 19837 net.cpp:425] conv2/3x3_reduce <- pool1/norm1
I0403 16:52:45.105283 19837 net.cpp:399] conv2/3x3_reduce -> conv2/3x3_reduce
I0403 16:52:45.106850 19837 net.cpp:141] Setting up conv2/3x3_reduce
I0403 16:52:45.106887 19837 net.cpp:148] Top shape: 24 64 56 56 (4816896)
I0403 16:52:45.106906 19837 net.cpp:156] Memory required for data: 226395168
I0403 16:52:45.106933 19837 layer_factory.hpp:77] Creating layer conv2/relu_3x3_reduce
I0403 16:52:45.106957 19837 net.cpp:91] Creating Layer conv2/relu_3x3_reduce
I0403 16:52:45.106977 19837 net.cpp:425] conv2/relu_3x3_reduce <- conv2/3x3_reduce
I0403 16:52:45.106998 19837 net.cpp:386] conv2/relu_3x3_reduce -> conv2/3x3_reduce (in-place)
I0403 16:52:45.107305 19837 net.cpp:141] Setting up conv2/relu_3x3_reduce
I0403 16:52:45.107337 19837 net.cpp:148] Top shape: 24 64 56 56 (4816896)
I0403 16:52:45.107357 19837 net.cpp:156] Memory required for data: 245662752
I0403 16:52:45.107377 19837 layer_factory.hpp:77] Creating layer conv2/3x3
I0403 16:52:45.107403 19837 net.cpp:91] Creating Layer conv2/3x3
I0403 16:52:45.107424 19837 net.cpp:425] conv2/3x3 <- conv2/3x3_reduce
I0403 16:52:45.107447 19837 net.cpp:399] conv2/3x3 -> conv2/3x3
I0403 16:52:45.110100 19837 net.cpp:141] Setting up conv2/3x3
I0403 16:52:45.110137 19837 net.cpp:148] Top shape: 24 192 56 56 (14450688)
I0403 16:52:45.110157 19837 net.cpp:156] Memory required for data: 303465504
I0403 16:52:45.110184 19837 layer_factory.hpp:77] Creating layer conv2/relu_3x3
I0403 16:52:45.110208 19837 net.cpp:91] Creating Layer conv2/relu_3x3
I0403 16:52:45.110229 19837 net.cpp:425] conv2/relu_3x3 <- conv2/3x3
I0403 16:52:45.110250 19837 net.cpp:386] conv2/relu_3x3 -> conv2/3x3 (in-place)
I0403 16:52:45.110445 19837 net.cpp:141] Setting up conv2/relu_3x3
I0403 16:52:45.110481 19837 net.cpp:148] Top shape: 24 192 56 56 (14450688)
I0403 16:52:45.110541 19837 net.cpp:156] Memory required for data: 361268256
I0403 16:52:45.110563 19837 layer_factory.hpp:77] Creating layer conv2/norm2
I0403 16:52:45.110585 19837 net.cpp:91] Creating Layer conv2/norm2
I0403 16:52:45.110610 19837 net.cpp:425] conv2/norm2 <- conv2/3x3
I0403 16:52:45.110635 19837 net.cpp:399] conv2/norm2 -> conv2/norm2
I0403 16:52:45.110978 19837 net.cpp:141] Setting up conv2/norm2
I0403 16:52:45.111012 19837 net.cpp:148] Top shape: 24 192 56 56 (14450688)
I0403 16:52:45.111032 19837 net.cpp:156] Memory required for data: 419071008
I0403 16:52:45.111052 19837 layer_factory.hpp:77] Creating layer pool2/3x3_s2
I0403 16:52:45.111075 19837 net.cpp:91] Creating Layer pool2/3x3_s2
I0403 16:52:45.111095 19837 net.cpp:425] pool2/3x3_s2 <- conv2/norm2
I0403 16:52:45.111116 19837 net.cpp:399] pool2/3x3_s2 -> pool2/3x3_s2
I0403 16:52:45.111176 19837 net.cpp:141] Setting up pool2/3x3_s2
I0403 16:52:45.111203 19837 net.cpp:148] Top shape: 24 192 28 28 (3612672)
I0403 16:52:45.111222 19837 net.cpp:156] Memory required for data: 433521696
I0403 16:52:45.111241 19837 layer_factory.hpp:77] Creating layer pool2/3x3_s2_pool2/3x3_s2_0_split
I0403 16:52:45.111263 19837 net.cpp:91] Creating Layer pool2/3x3_s2_pool2/3x3_s2_0_split
I0403 16:52:45.111282 19837 net.cpp:425] pool2/3x3_s2_pool2/3x3_s2_0_split <- pool2/3x3_s2
I0403 16:52:45.111304 19837 net.cpp:399] pool2/3x3_s2_pool2/3x3_s2_0_split -> pool2/3x3_s2_pool2/3x3_s2_0_split_0
I0403 16:52:45.111327 19837 net.cpp:399] pool2/3x3_s2_pool2/3x3_s2_0_split -> pool2/3x3_s2_pool2/3x3_s2_0_split_1
I0403 16:52:45.111352 19837 net.cpp:399] pool2/3x3_s2_pool2/3x3_s2_0_split -> pool2/3x3_s2_pool2/3x3_s2_0_split_2
I0403 16:52:45.111378 19837 net.cpp:399] pool2/3x3_s2_pool2/3x3_s2_0_split -> pool2/3x3_s2_pool2/3x3_s2_0_split_3
I0403 16:52:45.111455 19837 net.cpp:141] Setting up pool2/3x3_s2_pool2/3x3_s2_0_split
I0403 16:52:45.111484 19837 net.cpp:148] Top shape: 24 192 28 28 (3612672)
I0403 16:52:45.111503 19837 net.cpp:148] Top shape: 24 192 28 28 (3612672)
I0403 16:52:45.111523 19837 net.cpp:148] Top shape: 24 192 28 28 (3612672)
I0403 16:52:45.111544 19837 net.cpp:148] Top shape: 24 192 28 28 (3612672)
I0403 16:52:45.111562 19837 net.cpp:156] Memory required for data: 491324448
I0403 16:52:45.111580 19837 layer_factory.hpp:77] Creating layer inception_3a/1x1
I0403 16:52:45.111610 19837 net.cpp:91] Creating Layer inception_3a/1x1
I0403 16:52:45.111632 19837 net.cpp:425] inception_3a/1x1 <- pool2/3x3_s2_pool2/3x3_s2_0_split_0
I0403 16:52:45.111655 19837 net.cpp:399] inception_3a/1x1 -> inception_3a/1x1
I0403 16:52:45.113409 19837 net.cpp:141] Setting up inception_3a/1x1
I0403 16:52:45.113445 19837 net.cpp:148] Top shape: 24 64 28 28 (1204224)
I0403 16:52:45.113466 19837 net.cpp:156] Memory required for data: 496141344
I0403 16:52:45.113489 19837 layer_factory.hpp:77] Creating layer inception_3a/relu_1x1
I0403 16:52:45.113517 19837 net.cpp:91] Creating Layer inception_3a/relu_1x1
I0403 16:52:45.113538 19837 net.cpp:425] inception_3a/relu_1x1 <- inception_3a/1x1
I0403 16:52:45.113559 19837 net.cpp:386] inception_3a/relu_1x1 -> inception_3a/1x1 (in-place)
I0403 16:52:45.113775 19837 net.cpp:141] Setting up inception_3a/relu_1x1
I0403 16:52:45.113806 19837 net.cpp:148] Top shape: 24 64 28 28 (1204224)
I0403 16:52:45.113829 19837 net.cpp:156] Memory required for data: 500958240
I0403 16:52:45.113848 19837 layer_factory.hpp:77] Creating layer inception_3a/3x3_reduce
I0403 16:52:45.113895 19837 net.cpp:91] Creating Layer inception_3a/3x3_reduce
I0403 16:52:45.113920 19837 net.cpp:425] inception_3a/3x3_reduce <- pool2/3x3_s2_pool2/3x3_s2_0_split_1
I0403 16:52:45.113947 19837 net.cpp:399] inception_3a/3x3_reduce -> inception_3a/3x3_reduce
I0403 16:52:45.115953 19837 net.cpp:141] Setting up inception_3a/3x3_reduce
I0403 16:52:45.115990 19837 net.cpp:148] Top shape: 24 96 28 28 (1806336)
I0403 16:52:45.116010 19837 net.cpp:156] Memory required for data: 508183584
I0403 16:52:45.116040 19837 layer_factory.hpp:77] Creating layer inception_3a/relu_3x3_reduce
I0403 16:52:45.116085 19837 net.cpp:91] Creating Layer inception_3a/relu_3x3_reduce
I0403 16:52:45.116106 19837 net.cpp:425] inception_3a/relu_3x3_reduce <- inception_3a/3x3_reduce
I0403 16:52:45.116129 19837 net.cpp:386] inception_3a/relu_3x3_reduce -> inception_3a/3x3_reduce (in-place)
I0403 16:52:45.116353 19837 net.cpp:141] Setting up inception_3a/relu_3x3_reduce
I0403 16:52:45.116385 19837 net.cpp:148] Top shape: 24 96 28 28 (1806336)
I0403 16:52:45.116405 19837 net.cpp:156] Memory required for data: 515408928
I0403 16:52:45.116423 19837 layer_factory.hpp:77] Creating layer inception_3a/3x3
I0403 16:52:45.116452 19837 net.cpp:91] Creating Layer inception_3a/3x3
I0403 16:52:45.116475 19837 net.cpp:425] inception_3a/3x3 <- inception_3a/3x3_reduce
I0403 16:52:45.116502 19837 net.cpp:399] inception_3a/3x3 -> inception_3a/3x3
I0403 16:52:45.118504 19837 net.cpp:141] Setting up inception_3a/3x3
I0403 16:52:45.118538 19837 net.cpp:148] Top shape: 24 128 28 28 (2408448)
I0403 16:52:45.118558 19837 net.cpp:156] Memory required for data: 525042720
I0403 16:52:45.118580 19837 layer_factory.hpp:77] Creating layer inception_3a/relu_3x3
I0403 16:52:45.118610 19837 net.cpp:91] Creating Layer inception_3a/relu_3x3
I0403 16:52:45.118633 19837 net.cpp:425] inception_3a/relu_3x3 <- inception_3a/3x3
I0403 16:52:45.118656 19837 net.cpp:386] inception_3a/relu_3x3 -> inception_3a/3x3 (in-place)
I0403 16:52:45.118988 19837 net.cpp:141] Setting up inception_3a/relu_3x3
I0403 16:52:45.119020 19837 net.cpp:148] Top shape: 24 128 28 28 (2408448)
I0403 16:52:45.119040 19837 net.cpp:156] Memory required for data: 534676512
I0403 16:52:45.119058 19837 layer_factory.hpp:77] Creating layer inception_3a/5x5_reduce
I0403 16:52:45.119086 19837 net.cpp:91] Creating Layer inception_3a/5x5_reduce
I0403 16:52:45.119109 19837 net.cpp:425] inception_3a/5x5_reduce <- pool2/3x3_s2_pool2/3x3_s2_0_split_2
I0403 16:52:45.119138 19837 net.cpp:399] inception_3a/5x5_reduce -> inception_3a/5x5_reduce
I0403 16:52:45.120311 19837 net.cpp:141] Setting up inception_3a/5x5_reduce
I0403 16:52:45.120345 19837 net.cpp:148] Top shape: 24 16 28 28 (301056)
I0403 16:52:45.120367 19837 net.cpp:156] Memory required for data: 535880736
I0403 16:52:45.120388 19837 layer_factory.hpp:77] Creating layer inception_3a/relu_5x5_reduce
I0403 16:52:45.120414 19837 net.cpp:91] Creating Layer inception_3a/relu_5x5_reduce
I0403 16:52:45.120436 19837 net.cpp:425] inception_3a/relu_5x5_reduce <- inception_3a/5x5_reduce
I0403 16:52:45.120457 19837 net.cpp:386] inception_3a/relu_5x5_reduce -> inception_3a/5x5_reduce (in-place)
I0403 16:52:45.120817 19837 net.cpp:141] Setting up inception_3a/relu_5x5_reduce
I0403 16:52:45.120851 19837 net.cpp:148] Top shape: 24 16 28 28 (301056)
I0403 16:52:45.120872 19837 net.cpp:156] Memory required for data: 537084960
I0403 16:52:45.120890 19837 layer_factory.hpp:77] Creating layer inception_3a/5x5
I0403 16:52:45.120918 19837 net.cpp:91] Creating Layer inception_3a/5x5
I0403 16:52:45.120941 19837 net.cpp:425] inception_3a/5x5 <- inception_3a/5x5_reduce
I0403 16:52:45.120965 19837 net.cpp:399] inception_3a/5x5 -> inception_3a/5x5
I0403 16:52:45.122198 19837 net.cpp:141] Setting up inception_3a/5x5
I0403 16:52:45.122233 19837 net.cpp:148] Top shape: 24 32 28 28 (602112)
I0403 16:52:45.122253 19837 net.cpp:156] Memory required for data: 539493408
I0403 16:52:45.122277 19837 layer_factory.hpp:77] Creating layer inception_3a/relu_5x5
I0403 16:52:45.122301 19837 net.cpp:91] Creating Layer inception_3a/relu_5x5
I0403 16:52:45.122324 19837 net.cpp:425] inception_3a/relu_5x5 <- inception_3a/5x5
I0403 16:52:45.122345 19837 net.cpp:386] inception_3a/relu_5x5 -> inception_3a/5x5 (in-place)
I0403 16:52:45.122555 19837 net.cpp:141] Setting up inception_3a/relu_5x5
I0403 16:52:45.122589 19837 net.cpp:148] Top shape: 24 32 28 28 (602112)
I0403 16:52:45.122617 19837 net.cpp:156] Memory required for data: 541901856
I0403 16:52:45.122637 19837 layer_factory.hpp:77] Creating layer inception_3a/pool
I0403 16:52:45.122658 19837 net.cpp:91] Creating Layer inception_3a/pool
I0403 16:52:45.122678 19837 net.cpp:425] inception_3a/pool <- pool2/3x3_s2_pool2/3x3_s2_0_split_3
I0403 16:52:45.122720 19837 net.cpp:399] inception_3a/pool -> inception_3a/pool
I0403 16:52:45.122793 19837 net.cpp:141] Setting up inception_3a/pool
I0403 16:52:45.122822 19837 net.cpp:148] Top shape: 24 192 28 28 (3612672)
I0403 16:52:45.122841 19837 net.cpp:156] Memory required for data: 556352544
I0403 16:52:45.122860 19837 layer_factory.hpp:77] Creating layer inception_3a/pool_proj
I0403 16:52:45.122889 19837 net.cpp:91] Creating Layer inception_3a/pool_proj
I0403 16:52:45.122910 19837 net.cpp:425] inception_3a/pool_proj <- inception_3a/pool
I0403 16:52:45.122936 19837 net.cpp:399] inception_3a/pool_proj -> inception_3a/pool_proj
I0403 16:52:45.124104 19837 net.cpp:141] Setting up inception_3a/pool_proj
I0403 16:52:45.124140 19837 net.cpp:148] Top shape: 24 32 28 28 (602112)
I0403 16:52:45.124160 19837 net.cpp:156] Memory required for data: 558760992
I0403 16:52:45.124186 19837 layer_factory.hpp:77] Creating layer inception_3a/relu_pool_proj
I0403 16:52:45.124213 19837 net.cpp:91] Creating Layer inception_3a/relu_pool_proj
I0403 16:52:45.124234 19837 net.cpp:425] inception_3a/relu_pool_proj <- inception_3a/pool_proj
I0403 16:52:45.124256 19837 net.cpp:386] inception_3a/relu_pool_proj -> inception_3a/pool_proj (in-place)
I0403 16:52:45.124590 19837 net.cpp:141] Setting up inception_3a/relu_pool_proj
I0403 16:52:45.124629 19837 net.cpp:148] Top shape: 24 32 28 28 (602112)
I0403 16:52:45.124649 19837 net.cpp:156] Memory required for data: 561169440
I0403 16:52:45.124667 19837 layer_factory.hpp:77] Creating layer inception_3a/output
I0403 16:52:45.124693 19837 net.cpp:91] Creating Layer inception_3a/output
I0403 16:52:45.124716 19837 net.cpp:425] inception_3a/output <- inception_3a/1x1
I0403 16:52:45.124737 19837 net.cpp:425] inception_3a/output <- inception_3a/3x3
I0403 16:52:45.124758 19837 net.cpp:425] inception_3a/output <- inception_3a/5x5
I0403 16:52:45.124779 19837 net.cpp:425] inception_3a/output <- inception_3a/pool_proj
I0403 16:52:45.124799 19837 net.cpp:399] inception_3a/output -> inception_3a/output
I0403 16:52:45.124857 19837 net.cpp:141] Setting up inception_3a/output
I0403 16:52:45.124887 19837 net.cpp:148] Top shape: 24 256 28 28 (4816896)
I0403 16:52:45.124905 19837 net.cpp:156] Memory required for data: 580437024
I0403 16:52:45.124924 19837 layer_factory.hpp:77] Creating layer inception_3a/output_inception_3a/output_0_split
I0403 16:52:45.124946 19837 net.cpp:91] Creating Layer inception_3a/output_inception_3a/output_0_split
I0403 16:52:45.124964 19837 net.cpp:425] inception_3a/output_inception_3a/output_0_split <- inception_3a/output
I0403 16:52:45.124987 19837 net.cpp:399] inception_3a/output_inception_3a/output_0_split -> inception_3a/output_inception_3a/output_0_split_0
I0403 16:52:45.125013 19837 net.cpp:399] inception_3a/output_inception_3a/output_0_split -> inception_3a/output_inception_3a/output_0_split_1
I0403 16:52:45.125044 19837 net.cpp:399] inception_3a/output_inception_3a/output_0_split -> inception_3a/output_inception_3a/output_0_split_2
I0403 16:52:45.125072 19837 net.cpp:399] inception_3a/output_inception_3a/output_0_split -> inception_3a/output_inception_3a/output_0_split_3
I0403 16:52:45.125162 19837 net.cpp:141] Setting up inception_3a/output_inception_3a/output_0_split
I0403 16:52:45.125191 19837 net.cpp:148] Top shape: 24 256 28 28 (4816896)
I0403 16:52:45.125213 19837 net.cpp:148] Top shape: 24 256 28 28 (4816896)
I0403 16:52:45.125234 19837 net.cpp:148] Top shape: 24 256 28 28 (4816896)
I0403 16:52:45.125253 19837 net.cpp:148] Top shape: 24 256 28 28 (4816896)
I0403 16:52:45.125272 19837 net.cpp:156] Memory required for data: 657507360
I0403 16:52:45.125289 19837 layer_factory.hpp:77] Creating layer inception_3b/1x1
I0403 16:52:45.125318 19837 net.cpp:91] Creating Layer inception_3b/1x1
I0403 16:52:45.125339 19837 net.cpp:425] inception_3b/1x1 <- inception_3a/output_inception_3a/output_0_split_0
I0403 16:52:45.125365 19837 net.cpp:399] inception_3b/1x1 -> inception_3b/1x1
I0403 16:52:45.126744 19837 net.cpp:141] Setting up inception_3b/1x1
I0403 16:52:45.126793 19837 net.cpp:148] Top shape: 24 128 28 28 (2408448)
I0403 16:52:45.126814 19837 net.cpp:156] Memory required for data: 667141152
I0403 16:52:45.126838 19837 layer_factory.hpp:77] Creating layer inception_3b/relu_1x1
I0403 16:52:45.126866 19837 net.cpp:91] Creating Layer inception_3b/relu_1x1
I0403 16:52:45.126888 19837 net.cpp:425] inception_3b/relu_1x1 <- inception_3b/1x1
I0403 16:52:45.126909 19837 net.cpp:386] inception_3b/relu_1x1 -> inception_3b/1x1 (in-place)
I0403 16:52:45.127118 19837 net.cpp:141] Setting up inception_3b/relu_1x1
I0403 16:52:45.127149 19837 net.cpp:148] Top shape: 24 128 28 28 (2408448)
I0403 16:52:45.127168 19837 net.cpp:156] Memory required for data: 676774944
I0403 16:52:45.127188 19837 layer_factory.hpp:77] Creating layer inception_3b/3x3_reduce
I0403 16:52:45.127215 19837 net.cpp:91] Creating Layer inception_3b/3x3_reduce
I0403 16:52:45.127238 19837 net.cpp:425] inception_3b/3x3_reduce <- inception_3a/output_inception_3a/output_0_split_1
I0403 16:52:45.127264 19837 net.cpp:399] inception_3b/3x3_reduce -> inception_3b/3x3_reduce
I0403 16:52:45.128635 19837 net.cpp:141] Setting up inception_3b/3x3_reduce
I0403 16:52:45.128669 19837 net.cpp:148] Top shape: 24 128 28 28 (2408448)
I0403 16:52:45.128690 19837 net.cpp:156] Memory required for data: 686408736
I0403 16:52:45.128715 19837 layer_factory.hpp:77] Creating layer inception_3b/relu_3x3_reduce
I0403 16:52:45.128737 19837 net.cpp:91] Creating Layer inception_3b/relu_3x3_reduce
I0403 16:52:45.128757 19837 net.cpp:425] inception_3b/relu_3x3_reduce <- inception_3b/3x3_reduce
I0403 16:52:45.128783 19837 net.cpp:386] inception_3b/relu_3x3_reduce -> inception_3b/3x3_reduce (in-place)
I0403 16:52:45.128996 19837 net.cpp:141] Setting up inception_3b/relu_3x3_reduce
I0403 16:52:45.129029 19837 net.cpp:148] Top shape: 24 128 28 28 (2408448)
I0403 16:52:45.129046 19837 net.cpp:156] Memory required for data: 696042528
I0403 16:52:45.129065 19837 layer_factory.hpp:77] Creating layer inception_3b/3x3
I0403 16:52:45.129096 19837 net.cpp:91] Creating Layer inception_3b/3x3
I0403 16:52:45.129120 19837 net.cpp:425] inception_3b/3x3 <- inception_3b/3x3_reduce
I0403 16:52:45.129144 19837 net.cpp:399] inception_3b/3x3 -> inception_3b/3x3
I0403 16:52:45.132658 19837 net.cpp:141] Setting up inception_3b/3x3
I0403 16:52:45.132694 19837 net.cpp:148] Top shape: 24 192 28 28 (3612672)
I0403 16:52:45.132714 19837 net.cpp:156] Memory required for data: 710493216
I0403 16:52:45.132738 19837 layer_factory.hpp:77] Creating layer inception_3b/relu_3x3
I0403 16:52:45.132764 19837 net.cpp:91] Creating Layer inception_3b/relu_3x3
I0403 16:52:45.132786 19837 net.cpp:425] inception_3b/relu_3x3 <- inception_3b/3x3
I0403 16:52:45.132808 19837 net.cpp:386] inception_3b/relu_3x3 -> inception_3b/3x3 (in-place)
I0403 16:52:45.133136 19837 net.cpp:141] Setting up inception_3b/relu_3x3
I0403 16:52:45.133168 19837 net.cpp:148] Top shape: 24 192 28 28 (3612672)
I0403 16:52:45.133188 19837 net.cpp:156] Memory required for data: 724943904
I0403 16:52:45.133206 19837 layer_factory.hpp:77] Creating layer inception_3b/5x5_reduce
I0403 16:52:45.133237 19837 net.cpp:91] Creating Layer inception_3b/5x5_reduce
I0403 16:52:45.133262 19837 net.cpp:425] inception_3b/5x5_reduce <- inception_3a/output_inception_3a/output_0_split_2
I0403 16:52:45.133290 19837 net.cpp:399] inception_3b/5x5_reduce -> inception_3b/5x5_reduce
I0403 16:52:45.134477 19837 net.cpp:141] Setting up inception_3b/5x5_reduce
I0403 16:52:45.134512 19837 net.cpp:148] Top shape: 24 32 28 28 (602112)
I0403 16:52:45.134532 19837 net.cpp:156] Memory required for data: 727352352
I0403 16:52:45.134557 19837 layer_factory.hpp:77] Creating layer inception_3b/relu_5x5_reduce
I0403 16:52:45.134582 19837 net.cpp:91] Creating Layer inception_3b/relu_5x5_reduce
I0403 16:52:45.134609 19837 net.cpp:425] inception_3b/relu_5x5_reduce <- inception_3b/5x5_reduce
I0403 16:52:45.134634 19837 net.cpp:386] inception_3b/relu_5x5_reduce -> inception_3b/5x5_reduce (in-place)
I0403 16:52:45.134845 19837 net.cpp:141] Setting up inception_3b/relu_5x5_reduce
I0403 16:52:45.134893 19837 net.cpp:148] Top shape: 24 32 28 28 (602112)
I0403 16:52:45.134914 19837 net.cpp:156] Memory required for data: 729760800
I0403 16:52:45.134933 19837 layer_factory.hpp:77] Creating layer inception_3b/5x5
I0403 16:52:45.134963 19837 net.cpp:91] Creating Layer inception_3b/5x5
I0403 16:52:45.134984 19837 net.cpp:425] inception_3b/5x5 <- inception_3b/5x5_reduce
I0403 16:52:45.135006 19837 net.cpp:399] inception_3b/5x5 -> inception_3b/5x5
I0403 16:52:45.137374 19837 net.cpp:141] Setting up inception_3b/5x5
I0403 16:52:45.137410 19837 net.cpp:148] Top shape: 24 96 28 28 (1806336)
I0403 16:52:45.137431 19837 net.cpp:156] Memory required for data: 736986144
I0403 16:52:45.137454 19837 layer_factory.hpp:77] Creating layer inception_3b/relu_5x5
I0403 16:52:45.137477 19837 net.cpp:91] Creating Layer inception_3b/relu_5x5
I0403 16:52:45.137497 19837 net.cpp:425] inception_3b/relu_5x5 <- inception_3b/5x5
I0403 16:52:45.137521 19837 net.cpp:386] inception_3b/relu_5x5 -> inception_3b/5x5 (in-place)
I0403 16:52:45.137764 19837 net.cpp:141] Setting up inception_3b/relu_5x5
I0403 16:52:45.137796 19837 net.cpp:148] Top shape: 24 96 28 28 (1806336)
I0403 16:52:45.137815 19837 net.cpp:156] Memory required for data: 744211488
I0403 16:52:45.137835 19837 layer_factory.hpp:77] Creating layer inception_3b/pool
I0403 16:52:45.137856 19837 net.cpp:91] Creating Layer inception_3b/pool
I0403 16:52:45.137876 19837 net.cpp:425] inception_3b/pool <- inception_3a/output_inception_3a/output_0_split_3
I0403 16:52:45.137898 19837 net.cpp:399] inception_3b/pool -> inception_3b/pool
I0403 16:52:45.137967 19837 net.cpp:141] Setting up inception_3b/pool
I0403 16:52:45.137996 19837 net.cpp:148] Top shape: 24 256 28 28 (4816896)
I0403 16:52:45.138015 19837 net.cpp:156] Memory required for data: 763479072
I0403 16:52:45.138034 19837 layer_factory.hpp:77] Creating layer inception_3b/pool_proj
I0403 16:52:45.138062 19837 net.cpp:91] Creating Layer inception_3b/pool_proj
I0403 16:52:45.138083 19837 net.cpp:425] inception_3b/pool_proj <- inception_3b/pool
I0403 16:52:45.138109 19837 net.cpp:399] inception_3b/pool_proj -> inception_3b/pool_proj
I0403 16:52:45.139385 19837 net.cpp:141] Setting up inception_3b/pool_proj
I0403 16:52:45.139423 19837 net.cpp:148] Top shape: 24 64 28 28 (1204224)
I0403 16:52:45.139446 19837 net.cpp:156] Memory required for data: 768295968
I0403 16:52:45.139467 19837 layer_factory.hpp:77] Creating layer inception_3b/relu_pool_proj
I0403 16:52:45.139490 19837 net.cpp:91] Creating Layer inception_3b/relu_pool_proj
I0403 16:52:45.139510 19837 net.cpp:425] inception_3b/relu_pool_proj <- inception_3b/pool_proj
I0403 16:52:45.139533 19837 net.cpp:386] inception_3b/relu_pool_proj -> inception_3b/pool_proj (in-place)
I0403 16:52:45.140002 19837 net.cpp:141] Setting up inception_3b/relu_pool_proj
I0403 16:52:45.140035 19837 net.cpp:148] Top shape: 24 64 28 28 (1204224)
I0403 16:52:45.140055 19837 net.cpp:156] Memory required for data: 773112864
I0403 16:52:45.140074 19837 layer_factory.hpp:77] Creating layer inception_3b/output
I0403 16:52:45.140100 19837 net.cpp:91] Creating Layer inception_3b/output
I0403 16:52:45.140120 19837 net.cpp:425] inception_3b/output <- inception_3b/1x1
I0403 16:52:45.140141 19837 net.cpp:425] inception_3b/output <- inception_3b/3x3
I0403 16:52:45.140161 19837 net.cpp:425] inception_3b/output <- inception_3b/5x5
I0403 16:52:45.140179 19837 net.cpp:425] inception_3b/output <- inception_3b/pool_proj
I0403 16:52:45.140200 19837 net.cpp:399] inception_3b/output -> inception_3b/output
I0403 16:52:45.140256 19837 net.cpp:141] Setting up inception_3b/output
I0403 16:52:45.140285 19837 net.cpp:148] Top shape: 24 480 28 28 (9031680)
I0403 16:52:45.140305 19837 net.cpp:156] Memory required for data: 809239584
I0403 16:52:45.140323 19837 layer_factory.hpp:77] Creating layer pool3/3x3_s2
I0403 16:52:45.140344 19837 net.cpp:91] Creating Layer pool3/3x3_s2
I0403 16:52:45.140364 19837 net.cpp:425] pool3/3x3_s2 <- inception_3b/output
I0403 16:52:45.140388 19837 net.cpp:399] pool3/3x3_s2 -> pool3/3x3_s2
I0403 16:52:45.140481 19837 net.cpp:141] Setting up pool3/3x3_s2
I0403 16:52:45.140511 19837 net.cpp:148] Top shape: 24 480 14 14 (2257920)
I0403 16:52:45.140529 19837 net.cpp:156] Memory required for data: 818271264
I0403 16:52:45.140548 19837 layer_factory.hpp:77] Creating layer pool3/3x3_s2_pool3/3x3_s2_0_split
I0403 16:52:45.140569 19837 net.cpp:91] Creating Layer pool3/3x3_s2_pool3/3x3_s2_0_split
I0403 16:52:45.140586 19837 net.cpp:425] pool3/3x3_s2_pool3/3x3_s2_0_split <- pool3/3x3_s2
I0403 16:52:45.140615 19837 net.cpp:399] pool3/3x3_s2_pool3/3x3_s2_0_split -> pool3/3x3_s2_pool3/3x3_s2_0_split_0
I0403 16:52:45.140645 19837 net.cpp:399] pool3/3x3_s2_pool3/3x3_s2_0_split -> pool3/3x3_s2_pool3/3x3_s2_0_split_1
I0403 16:52:45.140669 19837 net.cpp:399] pool3/3x3_s2_pool3/3x3_s2_0_split -> pool3/3x3_s2_pool3/3x3_s2_0_split_2
I0403 16:52:45.140694 19837 net.cpp:399] pool3/3x3_s2_pool3/3x3_s2_0_split -> pool3/3x3_s2_pool3/3x3_s2_0_split_3
I0403 16:52:45.140787 19837 net.cpp:141] Setting up pool3/3x3_s2_pool3/3x3_s2_0_split
I0403 16:52:45.140817 19837 net.cpp:148] Top shape: 24 480 14 14 (2257920)
I0403 16:52:45.140841 19837 net.cpp:148] Top shape: 24 480 14 14 (2257920)
I0403 16:52:45.140861 19837 net.cpp:148] Top shape: 24 480 14 14 (2257920)
I0403 16:52:45.140880 19837 net.cpp:148] Top shape: 24 480 14 14 (2257920)
I0403 16:52:45.140898 19837 net.cpp:156] Memory required for data: 854397984
I0403 16:52:45.140916 19837 layer_factory.hpp:77] Creating layer inception_4a/1x1
I0403 16:52:45.140944 19837 net.cpp:91] Creating Layer inception_4a/1x1
I0403 16:52:45.140964 19837 net.cpp:425] inception_4a/1x1 <- pool3/3x3_s2_pool3/3x3_s2_0_split_0
I0403 16:52:45.140990 19837 net.cpp:399] inception_4a/1x1 -> inception_4a/1x1
I0403 16:52:45.142894 19837 net.cpp:141] Setting up inception_4a/1x1
I0403 16:52:45.142932 19837 net.cpp:148] Top shape: 24 192 14 14 (903168)
I0403 16:52:45.142954 19837 net.cpp:156] Memory required for data: 858010656
I0403 16:52:45.142978 19837 layer_factory.hpp:77] Creating layer inception_4a/relu_1x1
I0403 16:52:45.143002 19837 net.cpp:91] Creating Layer inception_4a/relu_1x1
I0403 16:52:45.143021 19837 net.cpp:425] inception_4a/relu_1x1 <- inception_4a/1x1
I0403 16:52:45.143046 19837 net.cpp:386] inception_4a/relu_1x1 -> inception_4a/1x1 (in-place)
I0403 16:52:45.143265 19837 net.cpp:141] Setting up inception_4a/relu_1x1
I0403 16:52:45.143296 19837 net.cpp:148] Top shape: 24 192 14 14 (903168)
I0403 16:52:45.143316 19837 net.cpp:156] Memory required for data: 861623328
I0403 16:52:45.143334 19837 layer_factory.hpp:77] Creating layer inception_4a/3x3_reduce
I0403 16:52:45.143363 19837 net.cpp:91] Creating Layer inception_4a/3x3_reduce
I0403 16:52:45.143385 19837 net.cpp:425] inception_4a/3x3_reduce <- pool3/3x3_s2_pool3/3x3_s2_0_split_1
I0403 16:52:45.143411 19837 net.cpp:399] inception_4a/3x3_reduce -> inception_4a/3x3_reduce
I0403 16:52:45.144953 19837 net.cpp:141] Setting up inception_4a/3x3_reduce
I0403 16:52:45.144989 19837 net.cpp:148] Top shape: 24 96 14 14 (451584)
I0403 16:52:45.145010 19837 net.cpp:156] Memory required for data: 863429664
I0403 16:52:45.145041 19837 layer_factory.hpp:77] Creating layer inception_4a/relu_3x3_reduce
I0403 16:52:45.145067 19837 net.cpp:91] Creating Layer inception_4a/relu_3x3_reduce
I0403 16:52:45.145087 19837 net.cpp:425] inception_4a/relu_3x3_reduce <- inception_4a/3x3_reduce
I0403 16:52:45.145109 19837 net.cpp:386] inception_4a/relu_3x3_reduce -> inception_4a/3x3_reduce (in-place)
I0403 16:52:45.145320 19837 net.cpp:141] Setting up inception_4a/relu_3x3_reduce
I0403 16:52:45.145351 19837 net.cpp:148] Top shape: 24 96 14 14 (451584)
I0403 16:52:45.145370 19837 net.cpp:156] Memory required for data: 865236000
I0403 16:52:45.145390 19837 layer_factory.hpp:77] Creating layer inception_4a/3x3
I0403 16:52:45.145416 19837 net.cpp:91] Creating Layer inception_4a/3x3
I0403 16:52:45.145438 19837 net.cpp:425] inception_4a/3x3 <- inception_4a/3x3_reduce
I0403 16:52:45.145468 19837 net.cpp:399] inception_4a/3x3 -> inception_4a/3x3
I0403 16:52:45.148720 19837 net.cpp:141] Setting up inception_4a/3x3
I0403 16:52:45.148756 19837 net.cpp:148] Top shape: 24 208 14 14 (978432)
I0403 16:52:45.148777 19837 net.cpp:156] Memory required for data: 869149728
I0403 16:52:45.148800 19837 layer_factory.hpp:77] Creating layer inception_4a/relu_3x3
I0403 16:52:45.148824 19837 net.cpp:91] Creating Layer inception_4a/relu_3x3
I0403 16:52:45.148844 19837 net.cpp:425] inception_4a/relu_3x3 <- inception_4a/3x3
I0403 16:52:45.148869 19837 net.cpp:386] inception_4a/relu_3x3 -> inception_4a/3x3 (in-place)
I0403 16:52:45.149202 19837 net.cpp:141] Setting up inception_4a/relu_3x3
I0403 16:52:45.149235 19837 net.cpp:148] Top shape: 24 208 14 14 (978432)
I0403 16:52:45.149255 19837 net.cpp:156] Memory required for data: 873063456
I0403 16:52:45.149273 19837 layer_factory.hpp:77] Creating layer inception_4a/5x5_reduce
I0403 16:52:45.149302 19837 net.cpp:91] Creating Layer inception_4a/5x5_reduce
I0403 16:52:45.149325 19837 net.cpp:425] inception_4a/5x5_reduce <- pool3/3x3_s2_pool3/3x3_s2_0_split_2
I0403 16:52:45.149353 19837 net.cpp:399] inception_4a/5x5_reduce -> inception_4a/5x5_reduce
I0403 16:52:45.150605 19837 net.cpp:141] Setting up inception_4a/5x5_reduce
I0403 16:52:45.150640 19837 net.cpp:148] Top shape: 24 16 14 14 (75264)
I0403 16:52:45.150660 19837 net.cpp:156] Memory required for data: 873364512
I0403 16:52:45.150684 19837 layer_factory.hpp:77] Creating layer inception_4a/relu_5x5_reduce
I0403 16:52:45.150710 19837 net.cpp:91] Creating Layer inception_4a/relu_5x5_reduce
I0403 16:52:45.150732 19837 net.cpp:425] inception_4a/relu_5x5_reduce <- inception_4a/5x5_reduce
I0403 16:52:45.150753 19837 net.cpp:386] inception_4a/relu_5x5_reduce -> inception_4a/5x5_reduce (in-place)
I0403 16:52:45.150974 19837 net.cpp:141] Setting up inception_4a/relu_5x5_reduce
I0403 16:52:45.151010 19837 net.cpp:148] Top shape: 24 16 14 14 (75264)
I0403 16:52:45.151028 19837 net.cpp:156] Memory required for data: 873665568
I0403 16:52:45.151048 19837 layer_factory.hpp:77] Creating layer inception_4a/5x5
I0403 16:52:45.151075 19837 net.cpp:91] Creating Layer inception_4a/5x5
I0403 16:52:45.151098 19837 net.cpp:425] inception_4a/5x5 <- inception_4a/5x5_reduce
I0403 16:52:45.151121 19837 net.cpp:399] inception_4a/5x5 -> inception_4a/5x5
I0403 16:52:45.152446 19837 net.cpp:141] Setting up inception_4a/5x5
I0403 16:52:45.152480 19837 net.cpp:148] Top shape: 24 48 14 14 (225792)
I0403 16:52:45.152500 19837 net.cpp:156] Memory required for data: 874568736
I0403 16:52:45.152523 19837 layer_factory.hpp:77] Creating layer inception_4a/relu_5x5
I0403 16:52:45.152549 19837 net.cpp:91] Creating Layer inception_4a/relu_5x5
I0403 16:52:45.152570 19837 net.cpp:425] inception_4a/relu_5x5 <- inception_4a/5x5
I0403 16:52:45.152592 19837 net.cpp:386] inception_4a/relu_5x5 -> inception_4a/5x5 (in-place)
I0403 16:52:45.152822 19837 net.cpp:141] Setting up inception_4a/relu_5x5
I0403 16:52:45.152854 19837 net.cpp:148] Top shape: 24 48 14 14 (225792)
I0403 16:52:45.152873 19837 net.cpp:156] Memory required for data: 875471904
I0403 16:52:45.152891 19837 layer_factory.hpp:77] Creating layer inception_4a/pool
I0403 16:52:45.152912 19837 net.cpp:91] Creating Layer inception_4a/pool
I0403 16:52:45.152931 19837 net.cpp:425] inception_4a/pool <- pool3/3x3_s2_pool3/3x3_s2_0_split_3
I0403 16:52:45.152956 19837 net.cpp:399] inception_4a/pool -> inception_4a/pool
I0403 16:52:45.153033 19837 net.cpp:141] Setting up inception_4a/pool
I0403 16:52:45.153061 19837 net.cpp:148] Top shape: 24 480 14 14 (2257920)
I0403 16:52:45.153080 19837 net.cpp:156] Memory required for data: 884503584
I0403 16:52:45.153098 19837 layer_factory.hpp:77] Creating layer inception_4a/pool_proj
I0403 16:52:45.153126 19837 net.cpp:91] Creating Layer inception_4a/pool_proj
I0403 16:52:45.153149 19837 net.cpp:425] inception_4a/pool_proj <- inception_4a/pool
I0403 16:52:45.153172 19837 net.cpp:399] inception_4a/pool_proj -> inception_4a/pool_proj
I0403 16:52:45.154590 19837 net.cpp:141] Setting up inception_4a/pool_proj
I0403 16:52:45.154633 19837 net.cpp:148] Top shape: 24 64 14 14 (301056)
I0403 16:52:45.154671 19837 net.cpp:156] Memory required for data: 885707808
I0403 16:52:45.154697 19837 layer_factory.hpp:77] Creating layer inception_4a/relu_pool_proj
I0403 16:52:45.154721 19837 net.cpp:91] Creating Layer inception_4a/relu_pool_proj
I0403 16:52:45.154741 19837 net.cpp:425] inception_4a/relu_pool_proj <- inception_4a/pool_proj
I0403 16:52:45.154767 19837 net.cpp:386] inception_4a/relu_pool_proj -> inception_4a/pool_proj (in-place)
I0403 16:52:45.155107 19837 net.cpp:141] Setting up inception_4a/relu_pool_proj
I0403 16:52:45.155143 19837 net.cpp:148] Top shape: 24 64 14 14 (301056)
I0403 16:52:45.155163 19837 net.cpp:156] Memory required for data: 886912032
I0403 16:52:45.155182 19837 layer_factory.hpp:77] Creating layer inception_4a/output
I0403 16:52:45.155203 19837 net.cpp:91] Creating Layer inception_4a/output
I0403 16:52:45.155223 19837 net.cpp:425] inception_4a/output <- inception_4a/1x1
I0403 16:52:45.155246 19837 net.cpp:425] inception_4a/output <- inception_4a/3x3
I0403 16:52:45.155266 19837 net.cpp:425] inception_4a/output <- inception_4a/5x5
I0403 16:52:45.155285 19837 net.cpp:425] inception_4a/output <- inception_4a/pool_proj
I0403 16:52:45.155308 19837 net.cpp:399] inception_4a/output -> inception_4a/output
I0403 16:52:45.155364 19837 net.cpp:141] Setting up inception_4a/output
I0403 16:52:45.155392 19837 net.cpp:148] Top shape: 24 512 14 14 (2408448)
I0403 16:52:45.155411 19837 net.cpp:156] Memory required for data: 896545824
I0403 16:52:45.155429 19837 layer_factory.hpp:77] Creating layer inception_4a/output_inception_4a/output_0_split
I0403 16:52:45.155453 19837 net.cpp:91] Creating Layer inception_4a/output_inception_4a/output_0_split
I0403 16:52:45.155472 19837 net.cpp:425] inception_4a/output_inception_4a/output_0_split <- inception_4a/output
I0403 16:52:45.155495 19837 net.cpp:399] inception_4a/output_inception_4a/output_0_split -> inception_4a/output_inception_4a/output_0_split_0
I0403 16:52:45.155519 19837 net.cpp:399] inception_4a/output_inception_4a/output_0_split -> inception_4a/output_inception_4a/output_0_split_1
I0403 16:52:45.155550 19837 net.cpp:399] inception_4a/output_inception_4a/output_0_split -> inception_4a/output_inception_4a/output_0_split_2
I0403 16:52:45.155576 19837 net.cpp:399] inception_4a/output_inception_4a/output_0_split -> inception_4a/output_inception_4a/output_0_split_3
I0403 16:52:45.155613 19837 net.cpp:399] inception_4a/output_inception_4a/output_0_split -> inception_4a/output_inception_4a/output_0_split_4
I0403 16:52:45.155732 19837 net.cpp:141] Setting up inception_4a/output_inception_4a/output_0_split
I0403 16:52:45.155761 19837 net.cpp:148] Top shape: 24 512 14 14 (2408448)
I0403 16:52:45.155782 19837 net.cpp:148] Top shape: 24 512 14 14 (2408448)
I0403 16:52:45.155802 19837 net.cpp:148] Top shape: 24 512 14 14 (2408448)
I0403 16:52:45.155822 19837 net.cpp:148] Top shape: 24 512 14 14 (2408448)
I0403 16:52:45.155840 19837 net.cpp:148] Top shape: 24 512 14 14 (2408448)
I0403 16:52:45.155856 19837 net.cpp:156] Memory required for data: 944714784
I0403 16:52:45.155874 19837 layer_factory.hpp:77] Creating layer loss1/ave_pool
I0403 16:52:45.155900 19837 net.cpp:91] Creating Layer loss1/ave_pool
I0403 16:52:45.155920 19837 net.cpp:425] loss1/ave_pool <- inception_4a/output_inception_4a/output_0_split_0
I0403 16:52:45.155942 19837 net.cpp:399] loss1/ave_pool -> loss1/ave_pool
I0403 16:52:45.156195 19837 net.cpp:141] Setting up loss1/ave_pool
I0403 16:52:45.156230 19837 net.cpp:148] Top shape: 24 512 4 4 (196608)
I0403 16:52:45.156251 19837 net.cpp:156] Memory required for data: 945501216
I0403 16:52:45.156270 19837 layer_factory.hpp:77] Creating layer loss1/conv
I0403 16:52:45.156297 19837 net.cpp:91] Creating Layer loss1/conv
I0403 16:52:45.156319 19837 net.cpp:425] loss1/conv <- loss1/ave_pool
I0403 16:52:45.156343 19837 net.cpp:399] loss1/conv -> loss1/conv
I0403 16:52:45.158054 19837 net.cpp:141] Setting up loss1/conv
I0403 16:52:45.158089 19837 net.cpp:148] Top shape: 24 128 4 4 (49152)
I0403 16:52:45.158110 19837 net.cpp:156] Memory required for data: 945697824
I0403 16:52:45.158151 19837 layer_factory.hpp:77] Creating layer loss1/relu_conv
I0403 16:52:45.158179 19837 net.cpp:91] Creating Layer loss1/relu_conv
I0403 16:52:45.158201 19837 net.cpp:425] loss1/relu_conv <- loss1/conv
I0403 16:52:45.158221 19837 net.cpp:386] loss1/relu_conv -> loss1/conv (in-place)
I0403 16:52:45.158563 19837 net.cpp:141] Setting up loss1/relu_conv
I0403 16:52:45.158596 19837 net.cpp:148] Top shape: 24 128 4 4 (49152)
I0403 16:52:45.158622 19837 net.cpp:156] Memory required for data: 945894432
I0403 16:52:45.158641 19837 layer_factory.hpp:77] Creating layer loss1/fc
I0403 16:52:45.158670 19837 net.cpp:91] Creating Layer loss1/fc
I0403 16:52:45.158694 19837 net.cpp:425] loss1/fc <- loss1/conv
I0403 16:52:45.158720 19837 net.cpp:399] loss1/fc -> loss1/fc
I0403 16:52:45.180584 19837 net.cpp:141] Setting up loss1/fc
I0403 16:52:45.180626 19837 net.cpp:148] Top shape: 24 1024 (24576)
I0403 16:52:45.180647 19837 net.cpp:156] Memory required for data: 945992736
I0403 16:52:45.180671 19837 layer_factory.hpp:77] Creating layer loss1/relu_fc
I0403 16:52:45.180694 19837 net.cpp:91] Creating Layer loss1/relu_fc
I0403 16:52:45.180714 19837 net.cpp:425] loss1/relu_fc <- loss1/fc
I0403 16:52:45.180735 19837 net.cpp:386] loss1/relu_fc -> loss1/fc (in-place)
I0403 16:52:45.180961 19837 net.cpp:141] Setting up loss1/relu_fc
I0403 16:52:45.180994 19837 net.cpp:148] Top shape: 24 1024 (24576)
I0403 16:52:45.181012 19837 net.cpp:156] Memory required for data: 946091040
I0403 16:52:45.181032 19837 layer_factory.hpp:77] Creating layer loss1/drop_fc
I0403 16:52:45.181062 19837 net.cpp:91] Creating Layer loss1/drop_fc
I0403 16:52:45.181083 19837 net.cpp:425] loss1/drop_fc <- loss1/fc
I0403 16:52:45.181108 19837 net.cpp:386] loss1/drop_fc -> loss1/fc (in-place)
I0403 16:52:45.181171 19837 net.cpp:141] Setting up loss1/drop_fc
I0403 16:52:45.181203 19837 net.cpp:148] Top shape: 24 1024 (24576)
I0403 16:52:45.181224 19837 net.cpp:156] Memory required for data: 946189344
I0403 16:52:45.181244 19837 layer_factory.hpp:77] Creating layer loss1/classifier_plantvillage
I0403 16:52:45.181267 19837 net.cpp:91] Creating Layer loss1/classifier_plantvillage
I0403 16:52:45.181287 19837 net.cpp:425] loss1/classifier_plantvillage <- loss1/fc
I0403 16:52:45.181313 19837 net.cpp:399] loss1/classifier_plantvillage -> loss1/classifier_plantvillage
I0403 16:52:45.182402 19837 net.cpp:141] Setting up loss1/classifier_plantvillage
I0403 16:52:45.182436 19837 net.cpp:148] Top shape: 24 38 (912)
I0403 16:52:45.182457 19837 net.cpp:156] Memory required for data: 946192992
I0403 16:52:45.182479 19837 layer_factory.hpp:77] Creating layer loss1/classifier_plantvillage_loss1/classifier_plantvillage_0_split
I0403 16:52:45.182502 19837 net.cpp:91] Creating Layer loss1/classifier_plantvillage_loss1/classifier_plantvillage_0_split
I0403 16:52:45.182520 19837 net.cpp:425] loss1/classifier_plantvillage_loss1/classifier_plantvillage_0_split <- loss1/classifier_plantvillage
I0403 16:52:45.182545 19837 net.cpp:399] loss1/classifier_plantvillage_loss1/classifier_plantvillage_0_split -> loss1/classifier_plantvillage_loss1/classifier_plantvillage_0_split_0
I0403 16:52:45.182571 19837 net.cpp:399] loss1/classifier_plantvillage_loss1/classifier_plantvillage_0_split -> loss1/classifier_plantvillage_loss1/classifier_plantvillage_0_split_1
I0403 16:52:45.182598 19837 net.cpp:399] loss1/classifier_plantvillage_loss1/classifier_plantvillage_0_split -> loss1/classifier_plantvillage_loss1/classifier_plantvillage_0_split_2
I0403 16:52:45.182688 19837 net.cpp:141] Setting up loss1/classifier_plantvillage_loss1/classifier_plantvillage_0_split
I0403 16:52:45.182718 19837 net.cpp:148] Top shape: 24 38 (912)
I0403 16:52:45.182739 19837 net.cpp:148] Top shape: 24 38 (912)
I0403 16:52:45.182759 19837 net.cpp:148] Top shape: 24 38 (912)
I0403 16:52:45.182776 19837 net.cpp:156] Memory required for data: 946203936
I0403 16:52:45.182795 19837 layer_factory.hpp:77] Creating layer inception_4b/1x1
I0403 16:52:45.182822 19837 net.cpp:91] Creating Layer inception_4b/1x1
I0403 16:52:45.182862 19837 net.cpp:425] inception_4b/1x1 <- inception_4a/output_inception_4a/output_0_split_1
I0403 16:52:45.182888 19837 net.cpp:399] inception_4b/1x1 -> inception_4b/1x1
I0403 16:52:45.184882 19837 net.cpp:141] Setting up inception_4b/1x1
I0403 16:52:45.184918 19837 net.cpp:148] Top shape: 24 160 14 14 (752640)
I0403 16:52:45.184938 19837 net.cpp:156] Memory required for data: 949214496
I0403 16:52:45.184962 19837 layer_factory.hpp:77] Creating layer inception_4b/relu_1x1
I0403 16:52:45.184986 19837 net.cpp:91] Creating Layer inception_4b/relu_1x1
I0403 16:52:45.185008 19837 net.cpp:425] inception_4b/relu_1x1 <- inception_4b/1x1
I0403 16:52:45.185029 19837 net.cpp:386] inception_4b/relu_1x1 -> inception_4b/1x1 (in-place)
I0403 16:52:45.185247 19837 net.cpp:141] Setting up inception_4b/relu_1x1
I0403 16:52:45.185281 19837 net.cpp:148] Top shape: 24 160 14 14 (752640)
I0403 16:52:45.185302 19837 net.cpp:156] Memory required for data: 952225056
I0403 16:52:45.185320 19837 layer_factory.hpp:77] Creating layer inception_4b/3x3_reduce
I0403 16:52:45.185344 19837 net.cpp:91] Creating Layer inception_4b/3x3_reduce
I0403 16:52:45.185365 19837 net.cpp:425] inception_4b/3x3_reduce <- inception_4a/output_inception_4a/output_0_split_2
I0403 16:52:45.185394 19837 net.cpp:399] inception_4b/3x3_reduce -> inception_4b/3x3_reduce
I0403 16:52:45.187036 19837 net.cpp:141] Setting up inception_4b/3x3_reduce
I0403 16:52:45.187070 19837 net.cpp:148] Top shape: 24 112 14 14 (526848)
I0403 16:52:45.187090 19837 net.cpp:156] Memory required for data: 954332448
I0403 16:52:45.187114 19837 layer_factory.hpp:77] Creating layer inception_4b/relu_3x3_reduce
I0403 16:52:45.187144 19837 net.cpp:91] Creating Layer inception_4b/relu_3x3_reduce
I0403 16:52:45.187165 19837 net.cpp:425] inception_4b/relu_3x3_reduce <- inception_4b/3x3_reduce
I0403 16:52:45.187186 19837 net.cpp:386] inception_4b/relu_3x3_reduce -> inception_4b/3x3_reduce (in-place)
I0403 16:52:45.187527 19837 net.cpp:141] Setting up inception_4b/relu_3x3_reduce
I0403 16:52:45.187561 19837 net.cpp:148] Top shape: 24 112 14 14 (526848)
I0403 16:52:45.187579 19837 net.cpp:156] Memory required for data: 956439840
I0403 16:52:45.187598 19837 layer_factory.hpp:77] Creating layer inception_4b/3x3
I0403 16:52:45.187633 19837 net.cpp:91] Creating Layer inception_4b/3x3
I0403 16:52:45.187655 19837 net.cpp:425] inception_4b/3x3 <- inception_4b/3x3_reduce
I0403 16:52:45.187681 19837 net.cpp:399] inception_4b/3x3 -> inception_4b/3x3
I0403 16:52:45.191290 19837 net.cpp:141] Setting up inception_4b/3x3
I0403 16:52:45.191328 19837 net.cpp:148] Top shape: 24 224 14 14 (1053696)
I0403 16:52:45.191347 19837 net.cpp:156] Memory required for data: 960654624
I0403 16:52:45.191370 19837 layer_factory.hpp:77] Creating layer inception_4b/relu_3x3
I0403 16:52:45.191392 19837 net.cpp:91] Creating Layer inception_4b/relu_3x3
I0403 16:52:45.191413 19837 net.cpp:425] inception_4b/relu_3x3 <- inception_4b/3x3
I0403 16:52:45.191437 19837 net.cpp:386] inception_4b/relu_3x3 -> inception_4b/3x3 (in-place)
I0403 16:52:45.191668 19837 net.cpp:141] Setting up inception_4b/relu_3x3
I0403 16:52:45.191701 19837 net.cpp:148] Top shape: 24 224 14 14 (1053696)
I0403 16:52:45.191721 19837 net.cpp:156] Memory required for data: 964869408
I0403 16:52:45.191740 19837 layer_factory.hpp:77] Creating layer inception_4b/5x5_reduce
I0403 16:52:45.191767 19837 net.cpp:91] Creating Layer inception_4b/5x5_reduce
I0403 16:52:45.191792 19837 net.cpp:425] inception_4b/5x5_reduce <- inception_4a/output_inception_4a/output_0_split_3
I0403 16:52:45.191820 19837 net.cpp:399] inception_4b/5x5_reduce -> inception_4b/5x5_reduce
I0403 16:52:45.193138 19837 net.cpp:141] Setting up inception_4b/5x5_reduce
I0403 16:52:45.193173 19837 net.cpp:148] Top shape: 24 24 14 14 (112896)
I0403 16:52:45.193194 19837 net.cpp:156] Memory required for data: 965320992
I0403 16:52:45.193218 19837 layer_factory.hpp:77] Creating layer inception_4b/relu_5x5_reduce
I0403 16:52:45.193244 19837 net.cpp:91] Creating Layer inception_4b/relu_5x5_reduce
I0403 16:52:45.193284 19837 net.cpp:425] inception_4b/relu_5x5_reduce <- inception_4b/5x5_reduce
I0403 16:52:45.193307 19837 net.cpp:386] inception_4b/relu_5x5_reduce -> inception_4b/5x5_reduce (in-place)
I0403 16:52:45.193533 19837 net.cpp:141] Setting up inception_4b/relu_5x5_reduce
I0403 16:52:45.193567 19837 net.cpp:148] Top shape: 24 24 14 14 (112896)
I0403 16:52:45.193586 19837 net.cpp:156] Memory required for data: 965772576
I0403 16:52:45.193610 19837 layer_factory.hpp:77] Creating layer inception_4b/5x5
I0403 16:52:45.193640 19837 net.cpp:91] Creating Layer inception_4b/5x5
I0403 16:52:45.193663 19837 net.cpp:425] inception_4b/5x5 <- inception_4b/5x5_reduce
I0403 16:52:45.193687 19837 net.cpp:399] inception_4b/5x5 -> inception_4b/5x5
I0403 16:52:45.195179 19837 net.cpp:141] Setting up inception_4b/5x5
I0403 16:52:45.195214 19837 net.cpp:148] Top shape: 24 64 14 14 (301056)
I0403 16:52:45.195233 19837 net.cpp:156] Memory required for data: 966976800
I0403 16:52:45.195256 19837 layer_factory.hpp:77] Creating layer inception_4b/relu_5x5
I0403 16:52:45.195282 19837 net.cpp:91] Creating Layer inception_4b/relu_5x5
I0403 16:52:45.195304 19837 net.cpp:425] inception_4b/relu_5x5 <- inception_4b/5x5
I0403 16:52:45.195325 19837 net.cpp:386] inception_4b/relu_5x5 -> inception_4b/5x5 (in-place)
I0403 16:52:45.195685 19837 net.cpp:141] Setting up inception_4b/relu_5x5
I0403 16:52:45.195719 19837 net.cpp:148] Top shape: 24 64 14 14 (301056)
I0403 16:52:45.195739 19837 net.cpp:156] Memory required for data: 968181024
I0403 16:52:45.195757 19837 layer_factory.hpp:77] Creating layer inception_4b/pool
I0403 16:52:45.195780 19837 net.cpp:91] Creating Layer inception_4b/pool
I0403 16:52:45.195801 19837 net.cpp:425] inception_4b/pool <- inception_4a/output_inception_4a/output_0_split_4
I0403 16:52:45.195825 19837 net.cpp:399] inception_4b/pool -> inception_4b/pool
I0403 16:52:45.195907 19837 net.cpp:141] Setting up inception_4b/pool
I0403 16:52:45.195937 19837 net.cpp:148] Top shape: 24 512 14 14 (2408448)
I0403 16:52:45.195957 19837 net.cpp:156] Memory required for data: 977814816
I0403 16:52:45.195976 19837 layer_factory.hpp:77] Creating layer inception_4b/pool_proj
I0403 16:52:45.196003 19837 net.cpp:91] Creating Layer inception_4b/pool_proj
I0403 16:52:45.196027 19837 net.cpp:425] inception_4b/pool_proj <- inception_4b/pool
I0403 16:52:45.196053 19837 net.cpp:399] inception_4b/pool_proj -> inception_4b/pool_proj
I0403 16:52:45.197523 19837 net.cpp:141] Setting up inception_4b/pool_proj
I0403 16:52:45.197558 19837 net.cpp:148] Top shape: 24 64 14 14 (301056)
I0403 16:52:45.197578 19837 net.cpp:156] Memory required for data: 979019040
I0403 16:52:45.197607 19837 layer_factory.hpp:77] Creating layer inception_4b/relu_pool_proj
I0403 16:52:45.197634 19837 net.cpp:91] Creating Layer inception_4b/relu_pool_proj
I0403 16:52:45.197656 19837 net.cpp:425] inception_4b/relu_pool_proj <- inception_4b/pool_proj
I0403 16:52:45.197677 19837 net.cpp:386] inception_4b/relu_pool_proj -> inception_4b/pool_proj (in-place)
I0403 16:52:45.197901 19837 net.cpp:141] Setting up inception_4b/relu_pool_proj
I0403 16:52:45.197935 19837 net.cpp:148] Top shape: 24 64 14 14 (301056)
I0403 16:52:45.197954 19837 net.cpp:156] Memory required for data: 980223264
I0403 16:52:45.197973 19837 layer_factory.hpp:77] Creating layer inception_4b/output
I0403 16:52:45.197993 19837 net.cpp:91] Creating Layer inception_4b/output
I0403 16:52:45.198014 19837 net.cpp:425] inception_4b/output <- inception_4b/1x1
I0403 16:52:45.198035 19837 net.cpp:425] inception_4b/output <- inception_4b/3x3
I0403 16:52:45.198053 19837 net.cpp:425] inception_4b/output <- inception_4b/5x5
I0403 16:52:45.198073 19837 net.cpp:425] inception_4b/output <- inception_4b/pool_proj
I0403 16:52:45.198094 19837 net.cpp:399] inception_4b/output -> inception_4b/output
I0403 16:52:45.198153 19837 net.cpp:141] Setting up inception_4b/output
I0403 16:52:45.198182 19837 net.cpp:148] Top shape: 24 512 14 14 (2408448)
I0403 16:52:45.198200 19837 net.cpp:156] Memory required for data: 989857056
I0403 16:52:45.198237 19837 layer_factory.hpp:77] Creating layer inception_4b/output_inception_4b/output_0_split
I0403 16:52:45.198262 19837 net.cpp:91] Creating Layer inception_4b/output_inception_4b/output_0_split
I0403 16:52:45.198283 19837 net.cpp:425] inception_4b/output_inception_4b/output_0_split <- inception_4b/output
I0403 16:52:45.198305 19837 net.cpp:399] inception_4b/output_inception_4b/output_0_split -> inception_4b/output_inception_4b/output_0_split_0
I0403 16:52:45.198330 19837 net.cpp:399] inception_4b/output_inception_4b/output_0_split -> inception_4b/output_inception_4b/output_0_split_1
I0403 16:52:45.198356 19837 net.cpp:399] inception_4b/output_inception_4b/output_0_split -> inception_4b/output_inception_4b/output_0_split_2
I0403 16:52:45.198382 19837 net.cpp:399] inception_4b/output_inception_4b/output_0_split -> inception_4b/output_inception_4b/output_0_split_3
I0403 16:52:45.198487 19837 net.cpp:141] Setting up inception_4b/output_inception_4b/output_0_split
I0403 16:52:45.198515 19837 net.cpp:148] Top shape: 24 512 14 14 (2408448)
I0403 16:52:45.198536 19837 net.cpp:148] Top shape: 24 512 14 14 (2408448)
I0403 16:52:45.198556 19837 net.cpp:148] Top shape: 24 512 14 14 (2408448)
I0403 16:52:45.198575 19837 net.cpp:148] Top shape: 24 512 14 14 (2408448)
I0403 16:52:45.198592 19837 net.cpp:156] Memory required for data: 1028392224
I0403 16:52:45.198617 19837 layer_factory.hpp:77] Creating layer inception_4c/1x1
I0403 16:52:45.198647 19837 net.cpp:91] Creating Layer inception_4c/1x1
I0403 16:52:45.198669 19837 net.cpp:425] inception_4c/1x1 <- inception_4b/output_inception_4b/output_0_split_0
I0403 16:52:45.198695 19837 net.cpp:399] inception_4c/1x1 -> inception_4c/1x1
I0403 16:52:45.200439 19837 net.cpp:141] Setting up inception_4c/1x1
I0403 16:52:45.200479 19837 net.cpp:148] Top shape: 24 128 14 14 (602112)
I0403 16:52:45.200501 19837 net.cpp:156] Memory required for data: 1030800672
I0403 16:52:45.200525 19837 layer_factory.hpp:77] Creating layer inception_4c/relu_1x1
I0403 16:52:45.200548 19837 net.cpp:91] Creating Layer inception_4c/relu_1x1
I0403 16:52:45.200569 19837 net.cpp:425] inception_4c/relu_1x1 <- inception_4c/1x1
I0403 16:52:45.200590 19837 net.cpp:386] inception_4c/relu_1x1 -> inception_4c/1x1 (in-place)
I0403 16:52:45.200824 19837 net.cpp:141] Setting up inception_4c/relu_1x1
I0403 16:52:45.200855 19837 net.cpp:148] Top shape: 24 128 14 14 (602112)
I0403 16:52:45.200875 19837 net.cpp:156] Memory required for data: 1033209120
I0403 16:52:45.200893 19837 layer_factory.hpp:77] Creating layer inception_4c/3x3_reduce
I0403 16:52:45.200922 19837 net.cpp:91] Creating Layer inception_4c/3x3_reduce
I0403 16:52:45.200943 19837 net.cpp:425] inception_4c/3x3_reduce <- inception_4b/output_inception_4b/output_0_split_1
I0403 16:52:45.200973 19837 net.cpp:399] inception_4c/3x3_reduce -> inception_4c/3x3_reduce
I0403 16:52:45.203305 19837 net.cpp:141] Setting up inception_4c/3x3_reduce
I0403 16:52:45.203341 19837 net.cpp:148] Top shape: 24 128 14 14 (602112)
I0403 16:52:45.203361 19837 net.cpp:156] Memory required for data: 1035617568
I0403 16:52:45.203383 19837 layer_factory.hpp:77] Creating layer inception_4c/relu_3x3_reduce
I0403 16:52:45.203410 19837 net.cpp:91] Creating Layer inception_4c/relu_3x3_reduce
I0403 16:52:45.203433 19837 net.cpp:425] inception_4c/relu_3x3_reduce <- inception_4c/3x3_reduce
I0403 16:52:45.203454 19837 net.cpp:386] inception_4c/relu_3x3_reduce -> inception_4c/3x3_reduce (in-place)
I0403 16:52:45.203805 19837 net.cpp:141] Setting up inception_4c/relu_3x3_reduce
I0403 16:52:45.203838 19837 net.cpp:148] Top shape: 24 128 14 14 (602112)
I0403 16:52:45.203858 19837 net.cpp:156] Memory required for data: 1038026016
I0403 16:52:45.203877 19837 layer_factory.hpp:77] Creating layer inception_4c/3x3
I0403 16:52:45.203905 19837 net.cpp:91] Creating Layer inception_4c/3x3
I0403 16:52:45.203927 19837 net.cpp:425] inception_4c/3x3 <- inception_4c/3x3_reduce
I0403 16:52:45.203955 19837 net.cpp:399] inception_4c/3x3 -> inception_4c/3x3
I0403 16:52:45.208338 19837 net.cpp:141] Setting up inception_4c/3x3
I0403 16:52:45.208389 19837 net.cpp:148] Top shape: 24 256 14 14 (1204224)
I0403 16:52:45.208410 19837 net.cpp:156] Memory required for data: 1042842912
I0403 16:52:45.208449 19837 layer_factory.hpp:77] Creating layer inception_4c/relu_3x3
I0403 16:52:45.208478 19837 net.cpp:91] Creating Layer inception_4c/relu_3x3
I0403 16:52:45.208500 19837 net.cpp:425] inception_4c/relu_3x3 <- inception_4c/3x3
I0403 16:52:45.208521 19837 net.cpp:386] inception_4c/relu_3x3 -> inception_4c/3x3 (in-place)
I0403 16:52:45.208750 19837 net.cpp:141] Setting up inception_4c/relu_3x3
I0403 16:52:45.208782 19837 net.cpp:148] Top shape: 24 256 14 14 (1204224)
I0403 16:52:45.208802 19837 net.cpp:156] Memory required for data: 1047659808
I0403 16:52:45.208822 19837 layer_factory.hpp:77] Creating layer inception_4c/5x5_reduce
I0403 16:52:45.208850 19837 net.cpp:91] Creating Layer inception_4c/5x5_reduce
I0403 16:52:45.208873 19837 net.cpp:425] inception_4c/5x5_reduce <- inception_4b/output_inception_4b/output_0_split_2
I0403 16:52:45.208899 19837 net.cpp:399] inception_4c/5x5_reduce -> inception_4c/5x5_reduce
I0403 16:52:45.210237 19837 net.cpp:141] Setting up inception_4c/5x5_reduce
I0403 16:52:45.210273 19837 net.cpp:148] Top shape: 24 24 14 14 (112896)
I0403 16:52:45.210291 19837 net.cpp:156] Memory required for data: 1048111392
I0403 16:52:45.210314 19837 layer_factory.hpp:77] Creating layer inception_4c/relu_5x5_reduce
I0403 16:52:45.210341 19837 net.cpp:91] Creating Layer inception_4c/relu_5x5_reduce
I0403 16:52:45.210362 19837 net.cpp:425] inception_4c/relu_5x5_reduce <- inception_4c/5x5_reduce
I0403 16:52:45.210384 19837 net.cpp:386] inception_4c/relu_5x5_reduce -> inception_4c/5x5_reduce (in-place)
I0403 16:52:45.210616 19837 net.cpp:141] Setting up inception_4c/relu_5x5_reduce
I0403 16:52:45.210647 19837 net.cpp:148] Top shape: 24 24 14 14 (112896)
I0403 16:52:45.210666 19837 net.cpp:156] Memory required for data: 1048562976
I0403 16:52:45.210685 19837 layer_factory.hpp:77] Creating layer inception_4c/5x5
I0403 16:52:45.210714 19837 net.cpp:91] Creating Layer inception_4c/5x5
I0403 16:52:45.210737 19837 net.cpp:425] inception_4c/5x5 <- inception_4c/5x5_reduce
I0403 16:52:45.210762 19837 net.cpp:399] inception_4c/5x5 -> inception_4c/5x5
I0403 16:52:45.212292 19837 net.cpp:141] Setting up inception_4c/5x5
I0403 16:52:45.212330 19837 net.cpp:148] Top shape: 24 64 14 14 (301056)
I0403 16:52:45.212350 19837 net.cpp:156] Memory required for data: 1049767200
I0403 16:52:45.212374 19837 layer_factory.hpp:77] Creating layer inception_4c/relu_5x5
I0403 16:52:45.212398 19837 net.cpp:91] Creating Layer inception_4c/relu_5x5
I0403 16:52:45.212417 19837 net.cpp:425] inception_4c/relu_5x5 <- inception_4c/5x5
I0403 16:52:45.212440 19837 net.cpp:386] inception_4c/relu_5x5 -> inception_4c/5x5 (in-place)
I0403 16:52:45.212802 19837 net.cpp:141] Setting up inception_4c/relu_5x5
I0403 16:52:45.212838 19837 net.cpp:148] Top shape: 24 64 14 14 (301056)
I0403 16:52:45.212858 19837 net.cpp:156] Memory required for data: 1050971424
I0403 16:52:45.212878 19837 layer_factory.hpp:77] Creating layer inception_4c/pool
I0403 16:52:45.212900 19837 net.cpp:91] Creating Layer inception_4c/pool
I0403 16:52:45.212920 19837 net.cpp:425] inception_4c/pool <- inception_4b/output_inception_4b/output_0_split_3
I0403 16:52:45.212942 19837 net.cpp:399] inception_4c/pool -> inception_4c/pool
I0403 16:52:45.213026 19837 net.cpp:141] Setting up inception_4c/pool
I0403 16:52:45.213057 19837 net.cpp:148] Top shape: 24 512 14 14 (2408448)
I0403 16:52:45.213074 19837 net.cpp:156] Memory required for data: 1060605216
I0403 16:52:45.213091 19837 layer_factory.hpp:77] Creating layer inception_4c/pool_proj
I0403 16:52:45.213119 19837 net.cpp:91] Creating Layer inception_4c/pool_proj
I0403 16:52:45.213140 19837 net.cpp:425] inception_4c/pool_proj <- inception_4c/pool
I0403 16:52:45.213167 19837 net.cpp:399] inception_4c/pool_proj -> inception_4c/pool_proj
I0403 16:52:45.214679 19837 net.cpp:141] Setting up inception_4c/pool_proj
I0403 16:52:45.214714 19837 net.cpp:148] Top shape: 24 64 14 14 (301056)
I0403 16:52:45.214751 19837 net.cpp:156] Memory required for data: 1061809440
I0403 16:52:45.214777 19837 layer_factory.hpp:77] Creating layer inception_4c/relu_pool_proj
I0403 16:52:45.214805 19837 net.cpp:91] Creating Layer inception_4c/relu_pool_proj
I0403 16:52:45.214828 19837 net.cpp:425] inception_4c/relu_pool_proj <- inception_4c/pool_proj
I0403 16:52:45.214850 19837 net.cpp:386] inception_4c/relu_pool_proj -> inception_4c/pool_proj (in-place)
I0403 16:52:45.215075 19837 net.cpp:141] Setting up inception_4c/relu_pool_proj
I0403 16:52:45.215108 19837 net.cpp:148] Top shape: 24 64 14 14 (301056)
I0403 16:52:45.215128 19837 net.cpp:156] Memory required for data: 1063013664
I0403 16:52:45.215147 19837 layer_factory.hpp:77] Creating layer inception_4c/output
I0403 16:52:45.215168 19837 net.cpp:91] Creating Layer inception_4c/output
I0403 16:52:45.215188 19837 net.cpp:425] inception_4c/output <- inception_4c/1x1
I0403 16:52:45.215207 19837 net.cpp:425] inception_4c/output <- inception_4c/3x3
I0403 16:52:45.215227 19837 net.cpp:425] inception_4c/output <- inception_4c/5x5
I0403 16:52:45.215246 19837 net.cpp:425] inception_4c/output <- inception_4c/pool_proj
I0403 16:52:45.215267 19837 net.cpp:399] inception_4c/output -> inception_4c/output
I0403 16:52:45.215325 19837 net.cpp:141] Setting up inception_4c/output
I0403 16:52:45.215356 19837 net.cpp:148] Top shape: 24 512 14 14 (2408448)
I0403 16:52:45.215375 19837 net.cpp:156] Memory required for data: 1072647456
I0403 16:52:45.215394 19837 layer_factory.hpp:77] Creating layer inception_4c/output_inception_4c/output_0_split
I0403 16:52:45.215417 19837 net.cpp:91] Creating Layer inception_4c/output_inception_4c/output_0_split
I0403 16:52:45.215437 19837 net.cpp:425] inception_4c/output_inception_4c/output_0_split <- inception_4c/output
I0403 16:52:45.215458 19837 net.cpp:399] inception_4c/output_inception_4c/output_0_split -> inception_4c/output_inception_4c/output_0_split_0
I0403 16:52:45.215483 19837 net.cpp:399] inception_4c/output_inception_4c/output_0_split -> inception_4c/output_inception_4c/output_0_split_1
I0403 16:52:45.215508 19837 net.cpp:399] inception_4c/output_inception_4c/output_0_split -> inception_4c/output_inception_4c/output_0_split_2
I0403 16:52:45.215534 19837 net.cpp:399] inception_4c/output_inception_4c/output_0_split -> inception_4c/output_inception_4c/output_0_split_3
I0403 16:52:45.215659 19837 net.cpp:141] Setting up inception_4c/output_inception_4c/output_0_split
I0403 16:52:45.215689 19837 net.cpp:148] Top shape: 24 512 14 14 (2408448)
I0403 16:52:45.215711 19837 net.cpp:148] Top shape: 24 512 14 14 (2408448)
I0403 16:52:45.215731 19837 net.cpp:148] Top shape: 24 512 14 14 (2408448)
I0403 16:52:45.215751 19837 net.cpp:148] Top shape: 24 512 14 14 (2408448)
I0403 16:52:45.215770 19837 net.cpp:156] Memory required for data: 1111182624
I0403 16:52:45.215787 19837 layer_factory.hpp:77] Creating layer inception_4d/1x1
I0403 16:52:45.215816 19837 net.cpp:91] Creating Layer inception_4d/1x1
I0403 16:52:45.215838 19837 net.cpp:425] inception_4d/1x1 <- inception_4c/output_inception_4c/output_0_split_0
I0403 16:52:45.215865 19837 net.cpp:399] inception_4d/1x1 -> inception_4d/1x1
I0403 16:52:45.217556 19837 net.cpp:141] Setting up inception_4d/1x1
I0403 16:52:45.217592 19837 net.cpp:148] Top shape: 24 112 14 14 (526848)
I0403 16:52:45.217617 19837 net.cpp:156] Memory required for data: 1113290016
I0403 16:52:45.217641 19837 layer_factory.hpp:77] Creating layer inception_4d/relu_1x1
I0403 16:52:45.217665 19837 net.cpp:91] Creating Layer inception_4d/relu_1x1
I0403 16:52:45.217685 19837 net.cpp:425] inception_4d/relu_1x1 <- inception_4d/1x1
I0403 16:52:45.217710 19837 net.cpp:386] inception_4d/relu_1x1 -> inception_4d/1x1 (in-place)
I0403 16:52:45.217936 19837 net.cpp:141] Setting up inception_4d/relu_1x1
I0403 16:52:45.217968 19837 net.cpp:148] Top shape: 24 112 14 14 (526848)
I0403 16:52:45.217988 19837 net.cpp:156] Memory required for data: 1115397408
I0403 16:52:45.218006 19837 layer_factory.hpp:77] Creating layer inception_4d/3x3_reduce
I0403 16:52:45.218051 19837 net.cpp:91] Creating Layer inception_4d/3x3_reduce
I0403 16:52:45.218075 19837 net.cpp:425] inception_4d/3x3_reduce <- inception_4c/output_inception_4c/output_0_split_1
I0403 16:52:45.218103 19837 net.cpp:399] inception_4d/3x3_reduce -> inception_4d/3x3_reduce
I0403 16:52:45.219940 19837 net.cpp:141] Setting up inception_4d/3x3_reduce
I0403 16:52:45.219977 19837 net.cpp:148] Top shape: 24 144 14 14 (677376)
I0403 16:52:45.220000 19837 net.cpp:156] Memory required for data: 1118106912
I0403 16:52:45.220022 19837 layer_factory.hpp:77] Creating layer inception_4d/relu_3x3_reduce
I0403 16:52:45.220046 19837 net.cpp:91] Creating Layer inception_4d/relu_3x3_reduce
I0403 16:52:45.220067 19837 net.cpp:425] inception_4d/relu_3x3_reduce <- inception_4d/3x3_reduce
I0403 16:52:45.220091 19837 net.cpp:386] inception_4d/relu_3x3_reduce -> inception_4d/3x3_reduce (in-place)
I0403 16:52:45.220444 19837 net.cpp:141] Setting up inception_4d/relu_3x3_reduce
I0403 16:52:45.220479 19837 net.cpp:148] Top shape: 24 144 14 14 (677376)
I0403 16:52:45.220499 19837 net.cpp:156] Memory required for data: 1120816416
I0403 16:52:45.220518 19837 layer_factory.hpp:77] Creating layer inception_4d/3x3
I0403 16:52:45.220549 19837 net.cpp:91] Creating Layer inception_4d/3x3
I0403 16:52:45.220572 19837 net.cpp:425] inception_4d/3x3 <- inception_4d/3x3_reduce
I0403 16:52:45.220597 19837 net.cpp:399] inception_4d/3x3 -> inception_4d/3x3
I0403 16:52:45.225843 19837 net.cpp:141] Setting up inception_4d/3x3
I0403 16:52:45.225880 19837 net.cpp:148] Top shape: 24 288 14 14 (1354752)
I0403 16:52:45.225900 19837 net.cpp:156] Memory required for data: 1126235424
I0403 16:52:45.225924 19837 layer_factory.hpp:77] Creating layer inception_4d/relu_3x3
I0403 16:52:45.225947 19837 net.cpp:91] Creating Layer inception_4d/relu_3x3
I0403 16:52:45.225972 19837 net.cpp:425] inception_4d/relu_3x3 <- inception_4d/3x3
I0403 16:52:45.225994 19837 net.cpp:386] inception_4d/relu_3x3 -> inception_4d/3x3 (in-place)
I0403 16:52:45.226222 19837 net.cpp:141] Setting up inception_4d/relu_3x3
I0403 16:52:45.226254 19837 net.cpp:148] Top shape: 24 288 14 14 (1354752)
I0403 16:52:45.226274 19837 net.cpp:156] Memory required for data: 1131654432
I0403 16:52:45.226294 19837 layer_factory.hpp:77] Creating layer inception_4d/5x5_reduce
I0403 16:52:45.226321 19837 net.cpp:91] Creating Layer inception_4d/5x5_reduce
I0403 16:52:45.226344 19837 net.cpp:425] inception_4d/5x5_reduce <- inception_4c/output_inception_4c/output_0_split_2
I0403 16:52:45.226371 19837 net.cpp:399] inception_4d/5x5_reduce -> inception_4d/5x5_reduce
I0403 16:52:45.227787 19837 net.cpp:141] Setting up inception_4d/5x5_reduce
I0403 16:52:45.227821 19837 net.cpp:148] Top shape: 24 32 14 14 (150528)
I0403 16:52:45.227841 19837 net.cpp:156] Memory required for data: 1132256544
I0403 16:52:45.227865 19837 layer_factory.hpp:77] Creating layer inception_4d/relu_5x5_reduce
I0403 16:52:45.227890 19837 net.cpp:91] Creating Layer inception_4d/relu_5x5_reduce
I0403 16:52:45.227910 19837 net.cpp:425] inception_4d/relu_5x5_reduce <- inception_4d/5x5_reduce
I0403 16:52:45.227933 19837 net.cpp:386] inception_4d/relu_5x5_reduce -> inception_4d/5x5_reduce (in-place)
I0403 16:52:45.228165 19837 net.cpp:141] Setting up inception_4d/relu_5x5_reduce
I0403 16:52:45.228198 19837 net.cpp:148] Top shape: 24 32 14 14 (150528)
I0403 16:52:45.228215 19837 net.cpp:156] Memory required for data: 1132858656
I0403 16:52:45.228235 19837 layer_factory.hpp:77] Creating layer inception_4d/5x5
I0403 16:52:45.228261 19837 net.cpp:91] Creating Layer inception_4d/5x5
I0403 16:52:45.228283 19837 net.cpp:425] inception_4d/5x5 <- inception_4d/5x5_reduce
I0403 16:52:45.228312 19837 net.cpp:399] inception_4d/5x5 -> inception_4d/5x5
I0403 16:52:45.230106 19837 net.cpp:141] Setting up inception_4d/5x5
I0403 16:52:45.230140 19837 net.cpp:148] Top shape: 24 64 14 14 (301056)
I0403 16:52:45.230160 19837 net.cpp:156] Memory required for data: 1134062880
I0403 16:52:45.230185 19837 layer_factory.hpp:77] Creating layer inception_4d/relu_5x5
I0403 16:52:45.230229 19837 net.cpp:91] Creating Layer inception_4d/relu_5x5
I0403 16:52:45.230253 19837 net.cpp:425] inception_4d/relu_5x5 <- inception_4d/5x5
I0403 16:52:45.230275 19837 net.cpp:386] inception_4d/relu_5x5 -> inception_4d/5x5 (in-place)
I0403 16:52:45.230649 19837 net.cpp:141] Setting up inception_4d/relu_5x5
I0403 16:52:45.230684 19837 net.cpp:148] Top shape: 24 64 14 14 (301056)
I0403 16:52:45.230703 19837 net.cpp:156] Memory required for data: 1135267104
I0403 16:52:45.230721 19837 layer_factory.hpp:77] Creating layer inception_4d/pool
I0403 16:52:45.230746 19837 net.cpp:91] Creating Layer inception_4d/pool
I0403 16:52:45.230770 19837 net.cpp:425] inception_4d/pool <- inception_4c/output_inception_4c/output_0_split_3
I0403 16:52:45.230793 19837 net.cpp:399] inception_4d/pool -> inception_4d/pool
I0403 16:52:45.230876 19837 net.cpp:141] Setting up inception_4d/pool
I0403 16:52:45.230906 19837 net.cpp:148] Top shape: 24 512 14 14 (2408448)
I0403 16:52:45.230926 19837 net.cpp:156] Memory required for data: 1144900896
I0403 16:52:45.230943 19837 layer_factory.hpp:77] Creating layer inception_4d/pool_proj
I0403 16:52:45.230972 19837 net.cpp:91] Creating Layer inception_4d/pool_proj
I0403 16:52:45.230994 19837 net.cpp:425] inception_4d/pool_proj <- inception_4d/pool
I0403 16:52:45.231020 19837 net.cpp:399] inception_4d/pool_proj -> inception_4d/pool_proj
I0403 16:52:45.233147 19837 net.cpp:141] Setting up inception_4d/pool_proj
I0403 16:52:45.233185 19837 net.cpp:148] Top shape: 24 64 14 14 (301056)
I0403 16:52:45.233204 19837 net.cpp:156] Memory required for data: 1146105120
I0403 16:52:45.233227 19837 layer_factory.hpp:77] Creating layer inception_4d/relu_pool_proj
I0403 16:52:45.233250 19837 net.cpp:91] Creating Layer inception_4d/relu_pool_proj
I0403 16:52:45.233275 19837 net.cpp:425] inception_4d/relu_pool_proj <- inception_4d/pool_proj
I0403 16:52:45.233296 19837 net.cpp:386] inception_4d/relu_pool_proj -> inception_4d/pool_proj (in-place)
I0403 16:52:45.233523 19837 net.cpp:141] Setting up inception_4d/relu_pool_proj
I0403 16:52:45.233556 19837 net.cpp:148] Top shape: 24 64 14 14 (301056)
I0403 16:52:45.233574 19837 net.cpp:156] Memory required for data: 1147309344
I0403 16:52:45.233592 19837 layer_factory.hpp:77] Creating layer inception_4d/output
I0403 16:52:45.233624 19837 net.cpp:91] Creating Layer inception_4d/output
I0403 16:52:45.233647 19837 net.cpp:425] inception_4d/output <- inception_4d/1x1
I0403 16:52:45.233669 19837 net.cpp:425] inception_4d/output <- inception_4d/3x3
I0403 16:52:45.233688 19837 net.cpp:425] inception_4d/output <- inception_4d/5x5
I0403 16:52:45.233708 19837 net.cpp:425] inception_4d/output <- inception_4d/pool_proj
I0403 16:52:45.233729 19837 net.cpp:399] inception_4d/output -> inception_4d/output
I0403 16:52:45.233793 19837 net.cpp:141] Setting up inception_4d/output
I0403 16:52:45.233821 19837 net.cpp:148] Top shape: 24 528 14 14 (2483712)
I0403 16:52:45.233841 19837 net.cpp:156] Memory required for data: 1157244192
I0403 16:52:45.233860 19837 layer_factory.hpp:77] Creating layer inception_4d/output_inception_4d/output_0_split
I0403 16:52:45.233881 19837 net.cpp:91] Creating Layer inception_4d/output_inception_4d/output_0_split
I0403 16:52:45.233901 19837 net.cpp:425] inception_4d/output_inception_4d/output_0_split <- inception_4d/output
I0403 16:52:45.233925 19837 net.cpp:399] inception_4d/output_inception_4d/output_0_split -> inception_4d/output_inception_4d/output_0_split_0
I0403 16:52:45.233954 19837 net.cpp:399] inception_4d/output_inception_4d/output_0_split -> inception_4d/output_inception_4d/output_0_split_1
I0403 16:52:45.233980 19837 net.cpp:399] inception_4d/output_inception_4d/output_0_split -> inception_4d/output_inception_4d/output_0_split_2
I0403 16:52:45.234005 19837 net.cpp:399] inception_4d/output_inception_4d/output_0_split -> inception_4d/output_inception_4d/output_0_split_3
I0403 16:52:45.234030 19837 net.cpp:399] inception_4d/output_inception_4d/output_0_split -> inception_4d/output_inception_4d/output_0_split_4
I0403 16:52:45.234160 19837 net.cpp:141] Setting up inception_4d/output_inception_4d/output_0_split
I0403 16:52:45.234205 19837 net.cpp:148] Top shape: 24 528 14 14 (2483712)
I0403 16:52:45.234226 19837 net.cpp:148] Top shape: 24 528 14 14 (2483712)
I0403 16:52:45.234246 19837 net.cpp:148] Top shape: 24 528 14 14 (2483712)
I0403 16:52:45.234266 19837 net.cpp:148] Top shape: 24 528 14 14 (2483712)
I0403 16:52:45.234284 19837 net.cpp:148] Top shape: 24 528 14 14 (2483712)
I0403 16:52:45.234300 19837 net.cpp:156] Memory required for data: 1206918432
I0403 16:52:45.234318 19837 layer_factory.hpp:77] Creating layer loss2/ave_pool
I0403 16:52:45.234340 19837 net.cpp:91] Creating Layer loss2/ave_pool
I0403 16:52:45.234359 19837 net.cpp:425] loss2/ave_pool <- inception_4d/output_inception_4d/output_0_split_0
I0403 16:52:45.234385 19837 net.cpp:399] loss2/ave_pool -> loss2/ave_pool
I0403 16:52:45.234769 19837 net.cpp:141] Setting up loss2/ave_pool
I0403 16:52:45.234802 19837 net.cpp:148] Top shape: 24 528 4 4 (202752)
I0403 16:52:45.234820 19837 net.cpp:156] Memory required for data: 1207729440
I0403 16:52:45.234838 19837 layer_factory.hpp:77] Creating layer loss2/conv
I0403 16:52:45.234866 19837 net.cpp:91] Creating Layer loss2/conv
I0403 16:52:45.234887 19837 net.cpp:425] loss2/conv <- loss2/ave_pool
I0403 16:52:45.234913 19837 net.cpp:399] loss2/conv -> loss2/conv
I0403 16:52:45.237226 19837 net.cpp:141] Setting up loss2/conv
I0403 16:52:45.237262 19837 net.cpp:148] Top shape: 24 128 4 4 (49152)
I0403 16:52:45.237280 19837 net.cpp:156] Memory required for data: 1207926048
I0403 16:52:45.237303 19837 layer_factory.hpp:77] Creating layer loss2/relu_conv
I0403 16:52:45.237329 19837 net.cpp:91] Creating Layer loss2/relu_conv
I0403 16:52:45.237350 19837 net.cpp:425] loss2/relu_conv <- loss2/conv
I0403 16:52:45.237371 19837 net.cpp:386] loss2/relu_conv -> loss2/conv (in-place)
I0403 16:52:45.237728 19837 net.cpp:141] Setting up loss2/relu_conv
I0403 16:52:45.237761 19837 net.cpp:148] Top shape: 24 128 4 4 (49152)
I0403 16:52:45.237781 19837 net.cpp:156] Memory required for data: 1208122656
I0403 16:52:45.237798 19837 layer_factory.hpp:77] Creating layer loss2/fc
I0403 16:52:45.237824 19837 net.cpp:91] Creating Layer loss2/fc
I0403 16:52:45.237845 19837 net.cpp:425] loss2/fc <- loss2/conv
I0403 16:52:45.237870 19837 net.cpp:399] loss2/fc -> loss2/fc
I0403 16:52:45.259711 19837 net.cpp:141] Setting up loss2/fc
I0403 16:52:45.259750 19837 net.cpp:148] Top shape: 24 1024 (24576)
I0403 16:52:45.259769 19837 net.cpp:156] Memory required for data: 1208220960
I0403 16:52:45.259793 19837 layer_factory.hpp:77] Creating layer loss2/relu_fc
I0403 16:52:45.259814 19837 net.cpp:91] Creating Layer loss2/relu_fc
I0403 16:52:45.259835 19837 net.cpp:425] loss2/relu_fc <- loss2/fc
I0403 16:52:45.259860 19837 net.cpp:386] loss2/relu_fc -> loss2/fc (in-place)
I0403 16:52:45.260220 19837 net.cpp:141] Setting up loss2/relu_fc
I0403 16:52:45.260252 19837 net.cpp:148] Top shape: 24 1024 (24576)
I0403 16:52:45.260272 19837 net.cpp:156] Memory required for data: 1208319264
I0403 16:52:45.260289 19837 layer_factory.hpp:77] Creating layer loss2/drop_fc
I0403 16:52:45.260311 19837 net.cpp:91] Creating Layer loss2/drop_fc
I0403 16:52:45.260331 19837 net.cpp:425] loss2/drop_fc <- loss2/fc
I0403 16:52:45.260355 19837 net.cpp:386] loss2/drop_fc -> loss2/fc (in-place)
I0403 16:52:45.260416 19837 net.cpp:141] Setting up loss2/drop_fc
I0403 16:52:45.260447 19837 net.cpp:148] Top shape: 24 1024 (24576)
I0403 16:52:45.260464 19837 net.cpp:156] Memory required for data: 1208417568
I0403 16:52:45.260483 19837 layer_factory.hpp:77] Creating layer loss2/classifier_plantvillage
I0403 16:52:45.260505 19837 net.cpp:91] Creating Layer loss2/classifier_plantvillage
I0403 16:52:45.260524 19837 net.cpp:425] loss2/classifier_plantvillage <- loss2/fc
I0403 16:52:45.260551 19837 net.cpp:399] loss2/classifier_plantvillage -> loss2/classifier_plantvillage
I0403 16:52:45.261054 19837 net.cpp:141] Setting up loss2/classifier_plantvillage
I0403 16:52:45.261083 19837 net.cpp:148] Top shape: 24 38 (912)
I0403 16:52:45.261102 19837 net.cpp:156] Memory required for data: 1208421216
I0403 16:52:45.261143 19837 layer_factory.hpp:77] Creating layer loss2/classifier_plantvillage_loss2/classifier_plantvillage_0_split
I0403 16:52:45.261169 19837 net.cpp:91] Creating Layer loss2/classifier_plantvillage_loss2/classifier_plantvillage_0_split
I0403 16:52:45.261190 19837 net.cpp:425] loss2/classifier_plantvillage_loss2/classifier_plantvillage_0_split <- loss2/classifier_plantvillage
I0403 16:52:45.261211 19837 net.cpp:399] loss2/classifier_plantvillage_loss2/classifier_plantvillage_0_split -> loss2/classifier_plantvillage_loss2/classifier_plantvillage_0_split_0
I0403 16:52:45.261240 19837 net.cpp:399] loss2/classifier_plantvillage_loss2/classifier_plantvillage_0_split -> loss2/classifier_plantvillage_loss2/classifier_plantvillage_0_split_1
I0403 16:52:45.261265 19837 net.cpp:399] loss2/classifier_plantvillage_loss2/classifier_plantvillage_0_split -> loss2/classifier_plantvillage_loss2/classifier_plantvillage_0_split_2
I0403 16:52:45.261360 19837 net.cpp:141] Setting up loss2/classifier_plantvillage_loss2/classifier_plantvillage_0_split
I0403 16:52:45.261389 19837 net.cpp:148] Top shape: 24 38 (912)
I0403 16:52:45.261409 19837 net.cpp:148] Top shape: 24 38 (912)
I0403 16:52:45.261430 19837 net.cpp:148] Top shape: 24 38 (912)
I0403 16:52:45.261446 19837 net.cpp:156] Memory required for data: 1208432160
I0403 16:52:45.261463 19837 layer_factory.hpp:77] Creating layer inception_4e/1x1
I0403 16:52:45.261490 19837 net.cpp:91] Creating Layer inception_4e/1x1
I0403 16:52:45.261512 19837 net.cpp:425] inception_4e/1x1 <- inception_4d/output_inception_4d/output_0_split_1
I0403 16:52:45.261536 19837 net.cpp:399] inception_4e/1x1 -> inception_4e/1x1
I0403 16:52:45.263778 19837 net.cpp:141] Setting up inception_4e/1x1
I0403 16:52:45.263815 19837 net.cpp:148] Top shape: 24 256 14 14 (1204224)
I0403 16:52:45.263835 19837 net.cpp:156] Memory required for data: 1213249056
I0403 16:52:45.263859 19837 layer_factory.hpp:77] Creating layer inception_4e/relu_1x1
I0403 16:52:45.263882 19837 net.cpp:91] Creating Layer inception_4e/relu_1x1
I0403 16:52:45.263902 19837 net.cpp:425] inception_4e/relu_1x1 <- inception_4e/1x1
I0403 16:52:45.263923 19837 net.cpp:386] inception_4e/relu_1x1 -> inception_4e/1x1 (in-place)
I0403 16:52:45.264286 19837 net.cpp:141] Setting up inception_4e/relu_1x1
I0403 16:52:45.264322 19837 net.cpp:148] Top shape: 24 256 14 14 (1204224)
I0403 16:52:45.264341 19837 net.cpp:156] Memory required for data: 1218065952
I0403 16:52:45.264359 19837 layer_factory.hpp:77] Creating layer inception_4e/3x3_reduce
I0403 16:52:45.264386 19837 net.cpp:91] Creating Layer inception_4e/3x3_reduce
I0403 16:52:45.264408 19837 net.cpp:425] inception_4e/3x3_reduce <- inception_4d/output_inception_4d/output_0_split_2
I0403 16:52:45.264432 19837 net.cpp:399] inception_4e/3x3_reduce -> inception_4e/3x3_reduce
I0403 16:52:45.267024 19837 net.cpp:141] Setting up inception_4e/3x3_reduce
I0403 16:52:45.267060 19837 net.cpp:148] Top shape: 24 160 14 14 (752640)
I0403 16:52:45.267079 19837 net.cpp:156] Memory required for data: 1221076512
I0403 16:52:45.267102 19837 layer_factory.hpp:77] Creating layer inception_4e/relu_3x3_reduce
I0403 16:52:45.267127 19837 net.cpp:91] Creating Layer inception_4e/relu_3x3_reduce
I0403 16:52:45.267148 19837 net.cpp:425] inception_4e/relu_3x3_reduce <- inception_4e/3x3_reduce
I0403 16:52:45.267169 19837 net.cpp:386] inception_4e/relu_3x3_reduce -> inception_4e/3x3_reduce (in-place)
I0403 16:52:45.267400 19837 net.cpp:141] Setting up inception_4e/relu_3x3_reduce
I0403 16:52:45.267432 19837 net.cpp:148] Top shape: 24 160 14 14 (752640)
I0403 16:52:45.267452 19837 net.cpp:156] Memory required for data: 1224087072
I0403 16:52:45.267470 19837 layer_factory.hpp:77] Creating layer inception_4e/3x3
I0403 16:52:45.267498 19837 net.cpp:91] Creating Layer inception_4e/3x3
I0403 16:52:45.267519 19837 net.cpp:425] inception_4e/3x3 <- inception_4e/3x3_reduce
I0403 16:52:45.267542 19837 net.cpp:399] inception_4e/3x3 -> inception_4e/3x3
I0403 16:52:45.273751 19837 net.cpp:141] Setting up inception_4e/3x3
I0403 16:52:45.273803 19837 net.cpp:148] Top shape: 24 320 14 14 (1505280)
I0403 16:52:45.273824 19837 net.cpp:156] Memory required for data: 1230108192
I0403 16:52:45.273847 19837 layer_factory.hpp:77] Creating layer inception_4e/relu_3x3
I0403 16:52:45.273870 19837 net.cpp:91] Creating Layer inception_4e/relu_3x3
I0403 16:52:45.273890 19837 net.cpp:425] inception_4e/relu_3x3 <- inception_4e/3x3
I0403 16:52:45.273915 19837 net.cpp:386] inception_4e/relu_3x3 -> inception_4e/3x3 (in-place)
I0403 16:52:45.274291 19837 net.cpp:141] Setting up inception_4e/relu_3x3
I0403 16:52:45.274323 19837 net.cpp:148] Top shape: 24 320 14 14 (1505280)
I0403 16:52:45.274341 19837 net.cpp:156] Memory required for data: 1236129312
I0403 16:52:45.274359 19837 layer_factory.hpp:77] Creating layer inception_4e/5x5_reduce
I0403 16:52:45.274390 19837 net.cpp:91] Creating Layer inception_4e/5x5_reduce
I0403 16:52:45.274412 19837 net.cpp:425] inception_4e/5x5_reduce <- inception_4d/output_inception_4d/output_0_split_3
I0403 16:52:45.274438 19837 net.cpp:399] inception_4e/5x5_reduce -> inception_4e/5x5_reduce
I0403 16:52:45.275774 19837 net.cpp:141] Setting up inception_4e/5x5_reduce
I0403 16:52:45.275810 19837 net.cpp:148] Top shape: 24 32 14 14 (150528)
I0403 16:52:45.275830 19837 net.cpp:156] Memory required for data: 1236731424
I0403 16:52:45.275851 19837 layer_factory.hpp:77] Creating layer inception_4e/relu_5x5_reduce
I0403 16:52:45.275876 19837 net.cpp:91] Creating Layer inception_4e/relu_5x5_reduce
I0403 16:52:45.275897 19837 net.cpp:425] inception_4e/relu_5x5_reduce <- inception_4e/5x5_reduce
I0403 16:52:45.275918 19837 net.cpp:386] inception_4e/relu_5x5_reduce -> inception_4e/5x5_reduce (in-place)
I0403 16:52:45.276283 19837 net.cpp:141] Setting up inception_4e/relu_5x5_reduce
I0403 16:52:45.276314 19837 net.cpp:148] Top shape: 24 32 14 14 (150528)
I0403 16:52:45.276334 19837 net.cpp:156] Memory required for data: 1237333536
I0403 16:52:45.276351 19837 layer_factory.hpp:77] Creating layer inception_4e/5x5
I0403 16:52:45.276397 19837 net.cpp:91] Creating Layer inception_4e/5x5
I0403 16:52:45.276420 19837 net.cpp:425] inception_4e/5x5 <- inception_4e/5x5_reduce
I0403 16:52:45.276448 19837 net.cpp:399] inception_4e/5x5 -> inception_4e/5x5
I0403 16:52:45.278719 19837 net.cpp:141] Setting up inception_4e/5x5
I0403 16:52:45.278754 19837 net.cpp:148] Top shape: 24 128 14 14 (602112)
I0403 16:52:45.278774 19837 net.cpp:156] Memory required for data: 1239741984
I0403 16:52:45.278796 19837 layer_factory.hpp:77] Creating layer inception_4e/relu_5x5
I0403 16:52:45.278822 19837 net.cpp:91] Creating Layer inception_4e/relu_5x5
I0403 16:52:45.278844 19837 net.cpp:425] inception_4e/relu_5x5 <- inception_4e/5x5
I0403 16:52:45.278866 19837 net.cpp:386] inception_4e/relu_5x5 -> inception_4e/5x5 (in-place)
I0403 16:52:45.279109 19837 net.cpp:141] Setting up inception_4e/relu_5x5
I0403 16:52:45.279139 19837 net.cpp:148] Top shape: 24 128 14 14 (602112)
I0403 16:52:45.279157 19837 net.cpp:156] Memory required for data: 1242150432
I0403 16:52:45.279175 19837 layer_factory.hpp:77] Creating layer inception_4e/pool
I0403 16:52:45.279198 19837 net.cpp:91] Creating Layer inception_4e/pool
I0403 16:52:45.279219 19837 net.cpp:425] inception_4e/pool <- inception_4d/output_inception_4d/output_0_split_4
I0403 16:52:45.279242 19837 net.cpp:399] inception_4e/pool -> inception_4e/pool
I0403 16:52:45.279335 19837 net.cpp:141] Setting up inception_4e/pool
I0403 16:52:45.279364 19837 net.cpp:148] Top shape: 24 528 14 14 (2483712)
I0403 16:52:45.279383 19837 net.cpp:156] Memory required for data: 1252085280
I0403 16:52:45.279402 19837 layer_factory.hpp:77] Creating layer inception_4e/pool_proj
I0403 16:52:45.279428 19837 net.cpp:91] Creating Layer inception_4e/pool_proj
I0403 16:52:45.279449 19837 net.cpp:425] inception_4e/pool_proj <- inception_4e/pool
I0403 16:52:45.279474 19837 net.cpp:399] inception_4e/pool_proj -> inception_4e/pool_proj
I0403 16:52:45.281338 19837 net.cpp:141] Setting up inception_4e/pool_proj
I0403 16:52:45.281373 19837 net.cpp:148] Top shape: 24 128 14 14 (602112)
I0403 16:52:45.281409 19837 net.cpp:156] Memory required for data: 1254493728
I0403 16:52:45.281432 19837 layer_factory.hpp:77] Creating layer inception_4e/relu_pool_proj
I0403 16:52:45.281458 19837 net.cpp:91] Creating Layer inception_4e/relu_pool_proj
I0403 16:52:45.281479 19837 net.cpp:425] inception_4e/relu_pool_proj <- inception_4e/pool_proj
I0403 16:52:45.281500 19837 net.cpp:386] inception_4e/relu_pool_proj -> inception_4e/pool_proj (in-place)
I0403 16:52:45.281862 19837 net.cpp:141] Setting up inception_4e/relu_pool_proj
I0403 16:52:45.281893 19837 net.cpp:148] Top shape: 24 128 14 14 (602112)
I0403 16:52:45.281911 19837 net.cpp:156] Memory required for data: 1256902176
I0403 16:52:45.281930 19837 layer_factory.hpp:77] Creating layer inception_4e/output
I0403 16:52:45.281951 19837 net.cpp:91] Creating Layer inception_4e/output
I0403 16:52:45.281970 19837 net.cpp:425] inception_4e/output <- inception_4e/1x1
I0403 16:52:45.281991 19837 net.cpp:425] inception_4e/output <- inception_4e/3x3
I0403 16:52:45.282009 19837 net.cpp:425] inception_4e/output <- inception_4e/5x5
I0403 16:52:45.282028 19837 net.cpp:425] inception_4e/output <- inception_4e/pool_proj
I0403 16:52:45.282052 19837 net.cpp:399] inception_4e/output -> inception_4e/output
I0403 16:52:45.282114 19837 net.cpp:141] Setting up inception_4e/output
I0403 16:52:45.282145 19837 net.cpp:148] Top shape: 24 832 14 14 (3913728)
I0403 16:52:45.282166 19837 net.cpp:156] Memory required for data: 1272557088
I0403 16:52:45.282183 19837 layer_factory.hpp:77] Creating layer pool4/3x3_s2
I0403 16:52:45.282204 19837 net.cpp:91] Creating Layer pool4/3x3_s2
I0403 16:52:45.282224 19837 net.cpp:425] pool4/3x3_s2 <- inception_4e/output
I0403 16:52:45.282251 19837 net.cpp:399] pool4/3x3_s2 -> pool4/3x3_s2
I0403 16:52:45.282333 19837 net.cpp:141] Setting up pool4/3x3_s2
I0403 16:52:45.282362 19837 net.cpp:148] Top shape: 24 832 7 7 (978432)
I0403 16:52:45.282380 19837 net.cpp:156] Memory required for data: 1276470816
I0403 16:52:45.282398 19837 layer_factory.hpp:77] Creating layer pool4/3x3_s2_pool4/3x3_s2_0_split
I0403 16:52:45.282423 19837 net.cpp:91] Creating Layer pool4/3x3_s2_pool4/3x3_s2_0_split
I0403 16:52:45.282443 19837 net.cpp:425] pool4/3x3_s2_pool4/3x3_s2_0_split <- pool4/3x3_s2
I0403 16:52:45.282465 19837 net.cpp:399] pool4/3x3_s2_pool4/3x3_s2_0_split -> pool4/3x3_s2_pool4/3x3_s2_0_split_0
I0403 16:52:45.282490 19837 net.cpp:399] pool4/3x3_s2_pool4/3x3_s2_0_split -> pool4/3x3_s2_pool4/3x3_s2_0_split_1
I0403 16:52:45.282516 19837 net.cpp:399] pool4/3x3_s2_pool4/3x3_s2_0_split -> pool4/3x3_s2_pool4/3x3_s2_0_split_2
I0403 16:52:45.282542 19837 net.cpp:399] pool4/3x3_s2_pool4/3x3_s2_0_split -> pool4/3x3_s2_pool4/3x3_s2_0_split_3
I0403 16:52:45.282665 19837 net.cpp:141] Setting up pool4/3x3_s2_pool4/3x3_s2_0_split
I0403 16:52:45.282693 19837 net.cpp:148] Top shape: 24 832 7 7 (978432)
I0403 16:52:45.282713 19837 net.cpp:148] Top shape: 24 832 7 7 (978432)
I0403 16:52:45.282733 19837 net.cpp:148] Top shape: 24 832 7 7 (978432)
I0403 16:52:45.282752 19837 net.cpp:148] Top shape: 24 832 7 7 (978432)
I0403 16:52:45.282769 19837 net.cpp:156] Memory required for data: 1292125728
I0403 16:52:45.282786 19837 layer_factory.hpp:77] Creating layer inception_5a/1x1
I0403 16:52:45.282814 19837 net.cpp:91] Creating Layer inception_5a/1x1
I0403 16:52:45.282836 19837 net.cpp:425] inception_5a/1x1 <- pool4/3x3_s2_pool4/3x3_s2_0_split_0
I0403 16:52:45.282862 19837 net.cpp:399] inception_5a/1x1 -> inception_5a/1x1
I0403 16:52:45.286367 19837 net.cpp:141] Setting up inception_5a/1x1
I0403 16:52:45.286403 19837 net.cpp:148] Top shape: 24 256 7 7 (301056)
I0403 16:52:45.286423 19837 net.cpp:156] Memory required for data: 1293329952
I0403 16:52:45.286447 19837 layer_factory.hpp:77] Creating layer inception_5a/relu_1x1
I0403 16:52:45.286473 19837 net.cpp:91] Creating Layer inception_5a/relu_1x1
I0403 16:52:45.286494 19837 net.cpp:425] inception_5a/relu_1x1 <- inception_5a/1x1
I0403 16:52:45.286515 19837 net.cpp:386] inception_5a/relu_1x1 -> inception_5a/1x1 (in-place)
I0403 16:52:45.286906 19837 net.cpp:141] Setting up inception_5a/relu_1x1
I0403 16:52:45.286937 19837 net.cpp:148] Top shape: 24 256 7 7 (301056)
I0403 16:52:45.286957 19837 net.cpp:156] Memory required for data: 1294534176
I0403 16:52:45.286975 19837 layer_factory.hpp:77] Creating layer inception_5a/3x3_reduce
I0403 16:52:45.287003 19837 net.cpp:91] Creating Layer inception_5a/3x3_reduce
I0403 16:52:45.287026 19837 net.cpp:425] inception_5a/3x3_reduce <- pool4/3x3_s2_pool4/3x3_s2_0_split_1
I0403 16:52:45.287053 19837 net.cpp:399] inception_5a/3x3_reduce -> inception_5a/3x3_reduce
I0403 16:52:45.290065 19837 net.cpp:141] Setting up inception_5a/3x3_reduce
I0403 16:52:45.290102 19837 net.cpp:148] Top shape: 24 160 7 7 (188160)
I0403 16:52:45.290122 19837 net.cpp:156] Memory required for data: 1295286816
I0403 16:52:45.290146 19837 layer_factory.hpp:77] Creating layer inception_5a/relu_3x3_reduce
I0403 16:52:45.290169 19837 net.cpp:91] Creating Layer inception_5a/relu_3x3_reduce
I0403 16:52:45.290190 19837 net.cpp:425] inception_5a/relu_3x3_reduce <- inception_5a/3x3_reduce
I0403 16:52:45.290215 19837 net.cpp:386] inception_5a/relu_3x3_reduce -> inception_5a/3x3_reduce (in-place)
I0403 16:52:45.290447 19837 net.cpp:141] Setting up inception_5a/relu_3x3_reduce
I0403 16:52:45.290478 19837 net.cpp:148] Top shape: 24 160 7 7 (188160)
I0403 16:52:45.290498 19837 net.cpp:156] Memory required for data: 1296039456
I0403 16:52:45.290515 19837 layer_factory.hpp:77] Creating layer inception_5a/3x3
I0403 16:52:45.290542 19837 net.cpp:91] Creating Layer inception_5a/3x3
I0403 16:52:45.290565 19837 net.cpp:425] inception_5a/3x3 <- inception_5a/3x3_reduce
I0403 16:52:45.290591 19837 net.cpp:399] inception_5a/3x3 -> inception_5a/3x3
I0403 16:52:45.296833 19837 net.cpp:141] Setting up inception_5a/3x3
I0403 16:52:45.296869 19837 net.cpp:148] Top shape: 24 320 7 7 (376320)
I0403 16:52:45.296890 19837 net.cpp:156] Memory required for data: 1297544736
I0403 16:52:45.296912 19837 layer_factory.hpp:77] Creating layer inception_5a/relu_3x3
I0403 16:52:45.296938 19837 net.cpp:91] Creating Layer inception_5a/relu_3x3
I0403 16:52:45.296959 19837 net.cpp:425] inception_5a/relu_3x3 <- inception_5a/3x3
I0403 16:52:45.296980 19837 net.cpp:386] inception_5a/relu_3x3 -> inception_5a/3x3 (in-place)
I0403 16:52:45.297345 19837 net.cpp:141] Setting up inception_5a/relu_3x3
I0403 16:52:45.297377 19837 net.cpp:148] Top shape: 24 320 7 7 (376320)
I0403 16:52:45.297396 19837 net.cpp:156] Memory required for data: 1299050016
I0403 16:52:45.297413 19837 layer_factory.hpp:77] Creating layer inception_5a/5x5_reduce
I0403 16:52:45.297441 19837 net.cpp:91] Creating Layer inception_5a/5x5_reduce
I0403 16:52:45.297464 19837 net.cpp:425] inception_5a/5x5_reduce <- pool4/3x3_s2_pool4/3x3_s2_0_split_2
I0403 16:52:45.297489 19837 net.cpp:399] inception_5a/5x5_reduce -> inception_5a/5x5_reduce
I0403 16:52:45.298952 19837 net.cpp:141] Setting up inception_5a/5x5_reduce
I0403 16:52:45.298987 19837 net.cpp:148] Top shape: 24 32 7 7 (37632)
I0403 16:52:45.299006 19837 net.cpp:156] Memory required for data: 1299200544
I0403 16:52:45.299029 19837 layer_factory.hpp:77] Creating layer inception_5a/relu_5x5_reduce
I0403 16:52:45.299054 19837 net.cpp:91] Creating Layer inception_5a/relu_5x5_reduce
I0403 16:52:45.299077 19837 net.cpp:425] inception_5a/relu_5x5_reduce <- inception_5a/5x5_reduce
I0403 16:52:45.299098 19837 net.cpp:386] inception_5a/relu_5x5_reduce -> inception_5a/5x5_reduce (in-place)
I0403 16:52:45.299464 19837 net.cpp:141] Setting up inception_5a/relu_5x5_reduce
I0403 16:52:45.299496 19837 net.cpp:148] Top shape: 24 32 7 7 (37632)
I0403 16:52:45.299515 19837 net.cpp:156] Memory required for data: 1299351072
I0403 16:52:45.299533 19837 layer_factory.hpp:77] Creating layer inception_5a/5x5
I0403 16:52:45.299561 19837 net.cpp:91] Creating Layer inception_5a/5x5
I0403 16:52:45.299584 19837 net.cpp:425] inception_5a/5x5 <- inception_5a/5x5_reduce
I0403 16:52:45.299615 19837 net.cpp:399] inception_5a/5x5 -> inception_5a/5x5
I0403 16:52:45.301762 19837 net.cpp:141] Setting up inception_5a/5x5
I0403 16:52:45.301810 19837 net.cpp:148] Top shape: 24 128 7 7 (150528)
I0403 16:52:45.301831 19837 net.cpp:156] Memory required for data: 1299953184
I0403 16:52:45.301853 19837 layer_factory.hpp:77] Creating layer inception_5a/relu_5x5
I0403 16:52:45.301879 19837 net.cpp:91] Creating Layer inception_5a/relu_5x5
I0403 16:52:45.301900 19837 net.cpp:425] inception_5a/relu_5x5 <- inception_5a/5x5
I0403 16:52:45.301923 19837 net.cpp:386] inception_5a/relu_5x5 -> inception_5a/5x5 (in-place)
I0403 16:52:45.302163 19837 net.cpp:141] Setting up inception_5a/relu_5x5
I0403 16:52:45.302193 19837 net.cpp:148] Top shape: 24 128 7 7 (150528)
I0403 16:52:45.302212 19837 net.cpp:156] Memory required for data: 1300555296
I0403 16:52:45.302230 19837 layer_factory.hpp:77] Creating layer inception_5a/pool
I0403 16:52:45.302254 19837 net.cpp:91] Creating Layer inception_5a/pool
I0403 16:52:45.302276 19837 net.cpp:425] inception_5a/pool <- pool4/3x3_s2_pool4/3x3_s2_0_split_3
I0403 16:52:45.302297 19837 net.cpp:399] inception_5a/pool -> inception_5a/pool
I0403 16:52:45.302386 19837 net.cpp:141] Setting up inception_5a/pool
I0403 16:52:45.302417 19837 net.cpp:148] Top shape: 24 832 7 7 (978432)
I0403 16:52:45.302434 19837 net.cpp:156] Memory required for data: 1304469024
I0403 16:52:45.302453 19837 layer_factory.hpp:77] Creating layer inception_5a/pool_proj
I0403 16:52:45.302481 19837 net.cpp:91] Creating Layer inception_5a/pool_proj
I0403 16:52:45.302503 19837 net.cpp:425] inception_5a/pool_proj <- inception_5a/pool
I0403 16:52:45.302530 19837 net.cpp:399] inception_5a/pool_proj -> inception_5a/pool_proj
I0403 16:52:45.305361 19837 net.cpp:141] Setting up inception_5a/pool_proj
I0403 16:52:45.305398 19837 net.cpp:148] Top shape: 24 128 7 7 (150528)
I0403 16:52:45.305418 19837 net.cpp:156] Memory required for data: 1305071136
I0403 16:52:45.305441 19837 layer_factory.hpp:77] Creating layer inception_5a/relu_pool_proj
I0403 16:52:45.305464 19837 net.cpp:91] Creating Layer inception_5a/relu_pool_proj
I0403 16:52:45.305483 19837 net.cpp:425] inception_5a/relu_pool_proj <- inception_5a/pool_proj
I0403 16:52:45.305507 19837 net.cpp:386] inception_5a/relu_pool_proj -> inception_5a/pool_proj (in-place)
I0403 16:52:45.305879 19837 net.cpp:141] Setting up inception_5a/relu_pool_proj
I0403 16:52:45.305912 19837 net.cpp:148] Top shape: 24 128 7 7 (150528)
I0403 16:52:45.305929 19837 net.cpp:156] Memory required for data: 1305673248
I0403 16:52:45.305948 19837 layer_factory.hpp:77] Creating layer inception_5a/output
I0403 16:52:45.305969 19837 net.cpp:91] Creating Layer inception_5a/output
I0403 16:52:45.305989 19837 net.cpp:425] inception_5a/output <- inception_5a/1x1
I0403 16:52:45.306008 19837 net.cpp:425] inception_5a/output <- inception_5a/3x3
I0403 16:52:45.306030 19837 net.cpp:425] inception_5a/output <- inception_5a/5x5
I0403 16:52:45.306048 19837 net.cpp:425] inception_5a/output <- inception_5a/pool_proj
I0403 16:52:45.306072 19837 net.cpp:399] inception_5a/output -> inception_5a/output
I0403 16:52:45.306134 19837 net.cpp:141] Setting up inception_5a/output
I0403 16:52:45.306166 19837 net.cpp:148] Top shape: 24 832 7 7 (978432)
I0403 16:52:45.306185 19837 net.cpp:156] Memory required for data: 1309586976
I0403 16:52:45.306205 19837 layer_factory.hpp:77] Creating layer inception_5a/output_inception_5a/output_0_split
I0403 16:52:45.306226 19837 net.cpp:91] Creating Layer inception_5a/output_inception_5a/output_0_split
I0403 16:52:45.306246 19837 net.cpp:425] inception_5a/output_inception_5a/output_0_split <- inception_5a/output
I0403 16:52:45.306267 19837 net.cpp:399] inception_5a/output_inception_5a/output_0_split -> inception_5a/output_inception_5a/output_0_split_0
I0403 16:52:45.306294 19837 net.cpp:399] inception_5a/output_inception_5a/output_0_split -> inception_5a/output_inception_5a/output_0_split_1
I0403 16:52:45.306321 19837 net.cpp:399] inception_5a/output_inception_5a/output_0_split -> inception_5a/output_inception_5a/output_0_split_2
I0403 16:52:45.306347 19837 net.cpp:399] inception_5a/output_inception_5a/output_0_split -> inception_5a/output_inception_5a/output_0_split_3
I0403 16:52:45.306490 19837 net.cpp:141] Setting up inception_5a/output_inception_5a/output_0_split
I0403 16:52:45.306519 19837 net.cpp:148] Top shape: 24 832 7 7 (978432)
I0403 16:52:45.306540 19837 net.cpp:148] Top shape: 24 832 7 7 (978432)
I0403 16:52:45.306560 19837 net.cpp:148] Top shape: 24 832 7 7 (978432)
I0403 16:52:45.306578 19837 net.cpp:148] Top shape: 24 832 7 7 (978432)
I0403 16:52:45.306596 19837 net.cpp:156] Memory required for data: 1325241888
I0403 16:52:45.306635 19837 layer_factory.hpp:77] Creating layer inception_5b/1x1
I0403 16:52:45.306666 19837 net.cpp:91] Creating Layer inception_5b/1x1
I0403 16:52:45.306689 19837 net.cpp:425] inception_5b/1x1 <- inception_5a/output_inception_5a/output_0_split_0
I0403 16:52:45.306713 19837 net.cpp:399] inception_5b/1x1 -> inception_5b/1x1
I0403 16:52:45.311337 19837 net.cpp:141] Setting up inception_5b/1x1
I0403 16:52:45.311377 19837 net.cpp:148] Top shape: 24 384 7 7 (451584)
I0403 16:52:45.311398 19837 net.cpp:156] Memory required for data: 1327048224
I0403 16:52:45.311420 19837 layer_factory.hpp:77] Creating layer inception_5b/relu_1x1
I0403 16:52:45.311444 19837 net.cpp:91] Creating Layer inception_5b/relu_1x1
I0403 16:52:45.311463 19837 net.cpp:425] inception_5b/relu_1x1 <- inception_5b/1x1
I0403 16:52:45.311486 19837 net.cpp:386] inception_5b/relu_1x1 -> inception_5b/1x1 (in-place)
I0403 16:52:45.311866 19837 net.cpp:141] Setting up inception_5b/relu_1x1
I0403 16:52:45.311902 19837 net.cpp:148] Top shape: 24 384 7 7 (451584)
I0403 16:52:45.311921 19837 net.cpp:156] Memory required for data: 1328854560
I0403 16:52:45.311940 19837 layer_factory.hpp:77] Creating layer inception_5b/3x3_reduce
I0403 16:52:45.311966 19837 net.cpp:91] Creating Layer inception_5b/3x3_reduce
I0403 16:52:45.311988 19837 net.cpp:425] inception_5b/3x3_reduce <- inception_5a/output_inception_5a/output_0_split_1
I0403 16:52:45.312016 19837 net.cpp:399] inception_5b/3x3_reduce -> inception_5b/3x3_reduce
I0403 16:52:45.315299 19837 net.cpp:141] Setting up inception_5b/3x3_reduce
I0403 16:52:45.315335 19837 net.cpp:148] Top shape: 24 192 7 7 (225792)
I0403 16:52:45.315356 19837 net.cpp:156] Memory required for data: 1329757728
I0403 16:52:45.315379 19837 layer_factory.hpp:77] Creating layer inception_5b/relu_3x3_reduce
I0403 16:52:45.315402 19837 net.cpp:91] Creating Layer inception_5b/relu_3x3_reduce
I0403 16:52:45.315423 19837 net.cpp:425] inception_5b/relu_3x3_reduce <- inception_5b/3x3_reduce
I0403 16:52:45.315446 19837 net.cpp:386] inception_5b/relu_3x3_reduce -> inception_5b/3x3_reduce (in-place)
I0403 16:52:45.315693 19837 net.cpp:141] Setting up inception_5b/relu_3x3_reduce
I0403 16:52:45.315724 19837 net.cpp:148] Top shape: 24 192 7 7 (225792)
I0403 16:52:45.315743 19837 net.cpp:156] Memory required for data: 1330660896
I0403 16:52:45.315762 19837 layer_factory.hpp:77] Creating layer inception_5b/3x3
I0403 16:52:45.315789 19837 net.cpp:91] Creating Layer inception_5b/3x3
I0403 16:52:45.315811 19837 net.cpp:425] inception_5b/3x3 <- inception_5b/3x3_reduce
I0403 16:52:45.315837 19837 net.cpp:399] inception_5b/3x3 -> inception_5b/3x3
I0403 16:52:45.324187 19837 net.cpp:141] Setting up inception_5b/3x3
I0403 16:52:45.324223 19837 net.cpp:148] Top shape: 24 384 7 7 (451584)
I0403 16:52:45.324242 19837 net.cpp:156] Memory required for data: 1332467232
I0403 16:52:45.324266 19837 layer_factory.hpp:77] Creating layer inception_5b/relu_3x3
I0403 16:52:45.324290 19837 net.cpp:91] Creating Layer inception_5b/relu_3x3
I0403 16:52:45.324309 19837 net.cpp:425] inception_5b/relu_3x3 <- inception_5b/3x3
I0403 16:52:45.324332 19837 net.cpp:386] inception_5b/relu_3x3 -> inception_5b/3x3 (in-place)
I0403 16:52:45.324712 19837 net.cpp:141] Setting up inception_5b/relu_3x3
I0403 16:52:45.324744 19837 net.cpp:148] Top shape: 24 384 7 7 (451584)
I0403 16:52:45.324764 19837 net.cpp:156] Memory required for data: 1334273568
I0403 16:52:45.324782 19837 layer_factory.hpp:77] Creating layer inception_5b/5x5_reduce
I0403 16:52:45.324828 19837 net.cpp:91] Creating Layer inception_5b/5x5_reduce
I0403 16:52:45.324852 19837 net.cpp:425] inception_5b/5x5_reduce <- inception_5a/output_inception_5a/output_0_split_2
I0403 16:52:45.324882 19837 net.cpp:399] inception_5b/5x5_reduce -> inception_5b/5x5_reduce
I0403 16:52:45.326462 19837 net.cpp:141] Setting up inception_5b/5x5_reduce
I0403 16:52:45.326495 19837 net.cpp:148] Top shape: 24 48 7 7 (56448)
I0403 16:52:45.326514 19837 net.cpp:156] Memory required for data: 1334499360
I0403 16:52:45.326537 19837 layer_factory.hpp:77] Creating layer inception_5b/relu_5x5_reduce
I0403 16:52:45.326562 19837 net.cpp:91] Creating Layer inception_5b/relu_5x5_reduce
I0403 16:52:45.326584 19837 net.cpp:425] inception_5b/relu_5x5_reduce <- inception_5b/5x5_reduce
I0403 16:52:45.326612 19837 net.cpp:386] inception_5b/relu_5x5_reduce -> inception_5b/5x5_reduce (in-place)
I0403 16:52:45.327070 19837 net.cpp:141] Setting up inception_5b/relu_5x5_reduce
I0403 16:52:45.327102 19837 net.cpp:148] Top shape: 24 48 7 7 (56448)
I0403 16:52:45.327121 19837 net.cpp:156] Memory required for data: 1334725152
I0403 16:52:45.327139 19837 layer_factory.hpp:77] Creating layer inception_5b/5x5
I0403 16:52:45.327164 19837 net.cpp:91] Creating Layer inception_5b/5x5
I0403 16:52:45.327185 19837 net.cpp:425] inception_5b/5x5 <- inception_5b/5x5_reduce
I0403 16:52:45.327208 19837 net.cpp:399] inception_5b/5x5 -> inception_5b/5x5
I0403 16:52:45.329752 19837 net.cpp:141] Setting up inception_5b/5x5
I0403 16:52:45.329787 19837 net.cpp:148] Top shape: 24 128 7 7 (150528)
I0403 16:52:45.329807 19837 net.cpp:156] Memory required for data: 1335327264
I0403 16:52:45.329828 19837 layer_factory.hpp:77] Creating layer inception_5b/relu_5x5
I0403 16:52:45.329854 19837 net.cpp:91] Creating Layer inception_5b/relu_5x5
I0403 16:52:45.329875 19837 net.cpp:425] inception_5b/relu_5x5 <- inception_5b/5x5
I0403 16:52:45.329896 19837 net.cpp:386] inception_5b/relu_5x5 -> inception_5b/5x5 (in-place)
I0403 16:52:45.330138 19837 net.cpp:141] Setting up inception_5b/relu_5x5
I0403 16:52:45.330174 19837 net.cpp:148] Top shape: 24 128 7 7 (150528)
I0403 16:52:45.330194 19837 net.cpp:156] Memory required for data: 1335929376
I0403 16:52:45.330212 19837 layer_factory.hpp:77] Creating layer inception_5b/pool
I0403 16:52:45.330234 19837 net.cpp:91] Creating Layer inception_5b/pool
I0403 16:52:45.330253 19837 net.cpp:425] inception_5b/pool <- inception_5a/output_inception_5a/output_0_split_3
I0403 16:52:45.330276 19837 net.cpp:399] inception_5b/pool -> inception_5b/pool
I0403 16:52:45.330368 19837 net.cpp:141] Setting up inception_5b/pool
I0403 16:52:45.330396 19837 net.cpp:148] Top shape: 24 832 7 7 (978432)
I0403 16:52:45.330415 19837 net.cpp:156] Memory required for data: 1339843104
I0403 16:52:45.330433 19837 layer_factory.hpp:77] Creating layer inception_5b/pool_proj
I0403 16:52:45.330459 19837 net.cpp:91] Creating Layer inception_5b/pool_proj
I0403 16:52:45.330482 19837 net.cpp:425] inception_5b/pool_proj <- inception_5b/pool
I0403 16:52:45.330507 19837 net.cpp:399] inception_5b/pool_proj -> inception_5b/pool_proj
I0403 16:52:45.333359 19837 net.cpp:141] Setting up inception_5b/pool_proj
I0403 16:52:45.333395 19837 net.cpp:148] Top shape: 24 128 7 7 (150528)
I0403 16:52:45.333415 19837 net.cpp:156] Memory required for data: 1340445216
I0403 16:52:45.333436 19837 layer_factory.hpp:77] Creating layer inception_5b/relu_pool_proj
I0403 16:52:45.333461 19837 net.cpp:91] Creating Layer inception_5b/relu_pool_proj
I0403 16:52:45.333483 19837 net.cpp:425] inception_5b/relu_pool_proj <- inception_5b/pool_proj
I0403 16:52:45.333504 19837 net.cpp:386] inception_5b/relu_pool_proj -> inception_5b/pool_proj (in-place)
I0403 16:52:45.333876 19837 net.cpp:141] Setting up inception_5b/relu_pool_proj
I0403 16:52:45.333909 19837 net.cpp:148] Top shape: 24 128 7 7 (150528)
I0403 16:52:45.333927 19837 net.cpp:156] Memory required for data: 1341047328
I0403 16:52:45.333946 19837 layer_factory.hpp:77] Creating layer inception_5b/output
I0403 16:52:45.333967 19837 net.cpp:91] Creating Layer inception_5b/output
I0403 16:52:45.334004 19837 net.cpp:425] inception_5b/output <- inception_5b/1x1
I0403 16:52:45.334028 19837 net.cpp:425] inception_5b/output <- inception_5b/3x3
I0403 16:52:45.334048 19837 net.cpp:425] inception_5b/output <- inception_5b/5x5
I0403 16:52:45.334066 19837 net.cpp:425] inception_5b/output <- inception_5b/pool_proj
I0403 16:52:45.334091 19837 net.cpp:399] inception_5b/output -> inception_5b/output
I0403 16:52:45.334156 19837 net.cpp:141] Setting up inception_5b/output
I0403 16:52:45.334187 19837 net.cpp:148] Top shape: 24 1024 7 7 (1204224)
I0403 16:52:45.334208 19837 net.cpp:156] Memory required for data: 1345864224
I0403 16:52:45.334225 19837 layer_factory.hpp:77] Creating layer pool5/7x7_s1
I0403 16:52:45.334246 19837 net.cpp:91] Creating Layer pool5/7x7_s1
I0403 16:52:45.334266 19837 net.cpp:425] pool5/7x7_s1 <- inception_5b/output
I0403 16:52:45.334292 19837 net.cpp:399] pool5/7x7_s1 -> pool5/7x7_s1
I0403 16:52:45.334565 19837 net.cpp:141] Setting up pool5/7x7_s1
I0403 16:52:45.334597 19837 net.cpp:148] Top shape: 24 1024 1 1 (24576)
I0403 16:52:45.334631 19837 net.cpp:156] Memory required for data: 1345962528
I0403 16:52:45.334651 19837 layer_factory.hpp:77] Creating layer pool5/drop_7x7_s1
I0403 16:52:45.334676 19837 net.cpp:91] Creating Layer pool5/drop_7x7_s1
I0403 16:52:45.334697 19837 net.cpp:425] pool5/drop_7x7_s1 <- pool5/7x7_s1
I0403 16:52:45.334717 19837 net.cpp:386] pool5/drop_7x7_s1 -> pool5/7x7_s1 (in-place)
I0403 16:52:45.334779 19837 net.cpp:141] Setting up pool5/drop_7x7_s1
I0403 16:52:45.334811 19837 net.cpp:148] Top shape: 24 1024 1 1 (24576)
I0403 16:52:45.334831 19837 net.cpp:156] Memory required for data: 1346060832
I0403 16:52:45.334849 19837 layer_factory.hpp:77] Creating layer loss3/classifier_plantvillage
I0403 16:52:45.334872 19837 net.cpp:91] Creating Layer loss3/classifier_plantvillage
I0403 16:52:45.334892 19837 net.cpp:425] loss3/classifier_plantvillage <- pool5/7x7_s1
I0403 16:52:45.334918 19837 net.cpp:399] loss3/classifier_plantvillage -> loss3/classifier_plantvillage
I0403 16:52:45.335443 19837 net.cpp:141] Setting up loss3/classifier_plantvillage
I0403 16:52:45.335474 19837 net.cpp:148] Top shape: 24 38 (912)
I0403 16:52:45.335491 19837 net.cpp:156] Memory required for data: 1346064480
I0403 16:52:45.335513 19837 layer_factory.hpp:77] Creating layer loss3/classifier_plantvillage_loss3/classifier_plantvillage_0_split
I0403 16:52:45.335536 19837 net.cpp:91] Creating Layer loss3/classifier_plantvillage_loss3/classifier_plantvillage_0_split
I0403 16:52:45.335554 19837 net.cpp:425] loss3/classifier_plantvillage_loss3/classifier_plantvillage_0_split <- loss3/classifier_plantvillage
I0403 16:52:45.335575 19837 net.cpp:399] loss3/classifier_plantvillage_loss3/classifier_plantvillage_0_split -> loss3/classifier_plantvillage_loss3/classifier_plantvillage_0_split_0
I0403 16:52:45.335610 19837 net.cpp:399] loss3/classifier_plantvillage_loss3/classifier_plantvillage_0_split -> loss3/classifier_plantvillage_loss3/classifier_plantvillage_0_split_1
I0403 16:52:45.335639 19837 net.cpp:399] loss3/classifier_plantvillage_loss3/classifier_plantvillage_0_split -> loss3/classifier_plantvillage_loss3/classifier_plantvillage_0_split_2
I0403 16:52:45.335664 19837 net.cpp:399] loss3/classifier_plantvillage_loss3/classifier_plantvillage_0_split -> loss3/classifier_plantvillage_loss3/classifier_plantvillage_0_split_3
I0403 16:52:45.335793 19837 net.cpp:141] Setting up loss3/classifier_plantvillage_loss3/classifier_plantvillage_0_split
I0403 16:52:45.335821 19837 net.cpp:148] Top shape: 24 38 (912)
I0403 16:52:45.335841 19837 net.cpp:148] Top shape: 24 38 (912)
I0403 16:52:45.335860 19837 net.cpp:148] Top shape: 24 38 (912)
I0403 16:52:45.335880 19837 net.cpp:148] Top shape: 24 38 (912)
I0403 16:52:45.335896 19837 net.cpp:156] Memory required for data: 1346079072
I0403 16:52:45.335913 19837 layer_factory.hpp:77] Creating layer loss1/loss
I0403 16:52:45.335942 19837 net.cpp:91] Creating Layer loss1/loss
I0403 16:52:45.335964 19837 net.cpp:425] loss1/loss <- loss1/classifier_plantvillage_loss1/classifier_plantvillage_0_split_0
I0403 16:52:45.336001 19837 net.cpp:425] loss1/loss <- label_data_1_split_0
…
