…
I0403 16:03:51.589769 16913 net.cpp:313] The NetState phase (1) differed from the phase (0) specified by a rule in layer data
I0403 16:03:51.590971 16913 net.cpp:49] Initializing net from parameters: 
state {
  phase: TEST
}
layer {
  name: "data"
  type: "Data"
  top: "data"
  top: "label"
  include {
    phase: TEST
  }
  transform_param {
    mirror: false
    crop_size: 224
    mean_file: "/home/mohanty/data/final_dataset/lmdb/color-20-80/mean.binaryproto"
  }
  data_param {
    source: "/home/mohanty/data/final_dataset/lmdb/color-20-80/test_db"
    batch_size: 24
    backend: LMDB
  }
}
layer {
  name: "conv1/7x7_s2"
  type: "Convolution"
  bottom: "data"
  top: "conv1/7x7_s2"
  param {
    lr_mult: 1
    decay_mult: 1
  }
  param {
    lr_mult: 2
    decay_mult: 0
  }
  convolution_param {
    num_output: 64
    pad: 3
    kernel_size: 7
    stride: 2
    weight_filler {
      type: "xavier"
      std: 0.1
    }
    bias_filler {
      type: "constant"
      value: 0.2
    }
  }
}
layer {
  name: "conv1/relu_7x7"
  type: "ReLU"
  bottom: "conv1/7x7_s2"
  top: "conv1/7x7_s2"
}
layer {
  name: "pool1/3x3_s2"
  type: "Pooling"
  bottom: "conv1/7x7_s2"
  top: "pool1/3x3_s2"
  pooling_param {
    pool: MAX
    kernel_size: 3
    stride: 2
  }
}
layer {
  name: "pool1/norm1"
  type: "LRN"
  bottom: "pool1/3x3_s2"
  top: "pool1/norm1"
  lrn_param {
    local_size: 5
    alpha: 0.0001
    beta: 0.75
  }
}
layer {
  name: "conv2/3x3_reduce"
  type: "Convolution"
  bottom: "pool1/norm1"
  top: "conv2/3x3_reduce"
  param {
    lr_mult: 1
    decay_mult: 1
  }
  param {
    lr_mult: 2
    decay_mult: 0
  }
  convolution_param {
    num_output: 64
    kernel_size: 1
    weight_filler {
      type: "xavier"
      std: 0.1
    }
    bias_filler {
      type: "constant"
      value: 0.2
    }
  }
}
layer {
  name: "conv2/relu_3x3_reduce"
  type: "ReLU"
  bottom: "conv2/3x3_reduce"
  top: "conv2/3x3_reduce"
}
layer {
  name: "conv2/3x3"
  type: "Convolution"
  bottom: "conv2/3x3_reduce"
  top: "conv2/3x3"
  param {
    lr_mult: 1
    decay_mult: 1
  }
  param {
    lr_mult: 2
    decay_mult: 0
  }
  convolution_param {
    num_output: 192
    pad: 1
    kernel_size: 3
    weight_filler {
      type: "xavier"
      std: 0.03
    }
    bias_filler {
      type: "constant"
      value: 0.2
    }
  }
}
layer {
  name: "conv2/relu_3x3"
  type: "ReLU"
  bottom: "conv2/3x3"
  top: "conv2/3x3"
}
layer {
  name: "conv2/norm2"
  type: "LRN"
  bottom: "conv2/3x3"
  top: "conv2/norm2"
  lrn_param {
    local_size: 5
    alpha: 0.0001
    beta: 0.75
  }
}
layer {
  name: "pool2/3x3_s2"
  type: "Pooling"
  bottom: "conv2/norm2"
  top: "pool2/3x3_s2"
  pooling_param {
    pool: MAX
    kernel_size: 3
    stride: 2
  }
}
layer {
  name: "inception_3a/1x1"
  type: "Convolution"
  bottom: "pool2/3x3_s2"
  top: "inception_3a/1x1"
  param {
    lr_mult: 1
    decay_mult: 1
  }
  param {
    lr_mult: 2
    decay_mult: 0
  }
  convolution_param {
    num_output: 64
    kernel_size: 1
    weight_filler {
      type: "xavier"
      std: 0.03
    }
    bias_filler {
      type: "constant"
      value: 0.2
    }
  }
}
layer {
  name: "inception_3a/relu_1x1"
  type: "ReLU"
  bottom: "inception_3a/1x1"
  top: "inception_3a/1x1"
}
layer {
  name: "inception_3a/3x3_reduce"
  type: "Convolution"
  bottom: "pool2/3x3_s2"
  top: "inception_3a/3x3_reduce"
  param {
    lr_mult: 1
    decay_mult: 1
  }
  param {
    lr_mult: 2
    decay_mult: 0
  }
  convolution_param {
    num_output: 96
    kernel_size: 1
    weight_filler {
      type: "xavier"
      std: 0.09
    }
    bias_filler {
      type: "constant"
      value: 0.2
    }
  }
}
layer {
  name: "inception_3a/relu_3x3_reduce"
  type: "ReLU"
  bottom: "inception_3a/3x3_reduce"
  top: "inception_3a/3x3_reduce"
}
layer {
  name: "inception_3a/3x3"
  type: "Convolution"
  bottom: "inception_3a/3x3_reduce"
  top: "inception_3a/3x3"
  param {
    lr_mult: 1
    decay_mult: 1
  }
  param {
    lr_mult: 2
    decay_mult: 0
  }
  convolution_param {
    num_output: 128
    pad: 1
    kernel_size: 3
    weight_filler {
      type: "xavier"
      std: 0.03
    }
    bias_filler {
      type: "constant"
      value: 0.2
    }
  }
}
layer {
  name: "inception_3a/relu_3x3"
  type: "ReLU"
  bottom: "inception_3a/3x3"
  top: "inception_3a/3x3"
}
layer {
  name: "inception_3a/5x5_reduce"
  type: "Convolution"
  bottom: "pool2/3x3_s2"
  top: "inception_3a/5x5_reduce"
  param {
    lr_mult: 1
    decay_mult: 1
  }
  param {
    lr_mult: 2
    decay_mult: 0
  }
  convolution_param {
    num_output: 16
    kernel_size: 1
    weight_filler {
      type: "xavier"
      std: 0.2
    }
    bias_filler {
      type: "constant"
      value: 0.2
    }
  }
}
layer {
  name: "inception_3a/relu_5x5_reduce"
  type: "ReLU"
  bottom: "inception_3a/5x5_reduce"
  top: "inception_3a/5x5_reduce"
}
layer {
  name: "inception_3a/5x5"
  type: "Convolution"
  bottom: "inception_3a/5x5_reduce"
  top: "inception_3a/5x5"
  param {
    lr_mult: 1
    decay_mult: 1
  }
  param {
    lr_mult: 2
    decay_mult: 0
  }
  convolution_param {
    num_output: 32
    pad: 2
    kernel_size: 5
    weight_filler {
      type: "xavier"
      std: 0.03
    }
    bias_filler {
      type: "constant"
      value: 0.2
    }
  }
}
layer {
  name: "inception_3a/relu_5x5"
  type: "ReLU"
  bottom: "inception_3a/5x5"
  top: "inception_3a/5x5"
}
layer {
  name: "inception_3a/pool"
  type: "Pooling"
  bottom: "pool2/3x3_s2"
  top: "inception_3a/pool"
  pooling_param {
    pool: MAX
    kernel_size: 3
    stride: 1
    pad: 1
  }
}
layer {
  name: "inception_3a/pool_proj"
  type: "Convolution"
  bottom: "inception_3a/pool"
  top: "inception_3a/pool_proj"
  param {
    lr_mult: 1
    decay_mult: 1
  }
  param {
    lr_mult: 2
    decay_mult: 0
  }
  convolution_param {
    num_output: 32
    kernel_size: 1
    weight_filler {
      type: "xavier"
      std: 0.1
    }
    bias_filler {
      type: "constant"
      value: 0.2
    }
  }
}
layer {
  name: "inception_3a/relu_pool_proj"
  type: "ReLU"
  bottom: "inception_3a/pool_proj"
  top: "inception_3a/pool_proj"
}
layer {
  name: "inception_3a/output"
  type: "Concat"
  bottom: "inception_3a/1x1"
  bottom: "inception_3a/3x3"
  bottom: "inception_3a/5x5"
  bottom: "inception_3a/pool_proj"
  top: "inception_3a/output"
}
layer {
  name: "inception_3b/1x1"
  type: "Convolution"
  bottom: "inception_3a/output"
  top: "inception_3b/1x1"
  param {
    lr_mult: 1
    decay_mult: 1
  }
  param {
    lr_mult: 2
    decay_mult: 0
  }
  convolution_param {
    num_output: 128
    kernel_size: 1
    weight_filler {
      type: "xavier"
      std: 0.03
    }
    bias_filler {
      type: "constant"
      value: 0.2
    }
  }
}
layer {
  name: "inception_3b/relu_1x1"
  type: "ReLU"
  bottom: "inception_3b/1x1"
  top: "inception_3b/1x1"
}
layer {
  name: "inception_3b/3x3_reduce"
  type: "Convolution"
  bottom: "inception_3a/output"
  top: "inception_3b/3x3_reduce"
  param {
    lr_mult: 1
    decay_mult: 1
  }
  param {
    lr_mult: 2
    decay_mult: 0
  }
  convolution_param {
    num_output: 128
    kernel_size: 1
    weight_filler {
      type: "xavier"
      std: 0.09
    }
    bias_filler {
      type: "constant"
      value: 0.2
    }
  }
}
layer {
  name: "inception_3b/relu_3x3_reduce"
  type: "ReLU"
  bottom: "inception_3b/3x3_reduce"
  top: "inception_3b/3x3_reduce"
}
layer {
  name: "inception_3b/3x3"
  type: "Convolution"
  bottom: "inception_3b/3x3_reduce"
  top: "inception_3b/3x3"
  param {
    lr_mult: 1
    decay_mult: 1
  }
  param {
    lr_mult: 2
    decay_mult: 0
  }
  convolution_param {
    num_output: 192
    pad: 1
    kernel_size: 3
    weight_filler {
      type: "xavier"
      std: 0.03
    }
    bias_filler {
      type: "constant"
      value: 0.2
    }
  }
}
layer {
  name: "inception_3b/relu_3x3"
  type: "ReLU"
  bottom: "inception_3b/3x3"
  top: "inception_3b/3x3"
}
layer {
  name: "inception_3b/5x5_reduce"
  type: "Convolution"
  bottom: "inception_3a/output"
  top: "inception_3b/5x5_reduce"
  param {
    lr_mult: 1
    decay_mult: 1
  }
  param {
    lr_mult: 2
    decay_mult: 0
  }
  convolution_param {
    num_output: 32
    kernel_size: 1
    weight_filler {
      type: "xavier"
      std: 0.2
    }
    bias_filler {
      type: "constant"
      value: 0.2
    }
  }
}
layer {
  name: "inception_3b/relu_5x5_reduce"
  type: "ReLU"
  bottom: "inception_3b/5x5_reduce"
  top: "inception_3b/5x5_reduce"
}
layer {
  name: "inception_3b/5x5"
  type: "Convolution"
  bottom: "inception_3b/5x5_reduce"
  top: "inception_3b/5x5"
  param {
    lr_mult: 1
    decay_mult: 1
  }
  param {
    lr_mult: 2
    decay_mult: 0
  }
  convolution_param {
    num_output: 96
    pad: 2
    kernel_size: 5
    weight_filler {
      type: "xavier"
      std: 0.03
    }
    bias_filler {
      type: "constant"
      value: 0.2
    }
  }
}
layer {
  name: "inception_3b/relu_5x5"
  type: "ReLU"
  bottom: "inception_3b/5x5"
  top: "inception_3b/5x5"
}
layer {
  name: "inception_3b/pool"
  type: "Pooling"
  bottom: "inception_3a/output"
  top: "inception_3b/pool"
  pooling_param {
    pool: MAX
    kernel_size: 3
    stride: 1
    pad: 1
  }
}
layer {
  name: "inception_3b/pool_proj"
  type: "Convolution"
  bottom: "inception_3b/pool"
  top: "inception_3b/pool_proj"
  param {
    lr_mult: 1
    decay_mult: 1
  }
  param {
    lr_mult: 2
    decay_mult: 0
  }
  convolution_param {
    num_output: 64
    kernel_size: 1
    weight_filler {
      type: "xavier"
      std: 0.1
    }
    bias_filler {
      type: "constant"
      value: 0.2
    }
  }
}
layer {
  name: "inception_3b/relu_pool_proj"
  type: "ReLU"
  bottom: "inception_3b/pool_proj"
  top: "inception_3b/pool_proj"
}
layer {
  name: "inception_3b/output"
  type: "Concat"
  bottom: "inception_3b/1x1"
  bottom: "inception_3b/3x3"
  bottom: "inception_3b/5x5"
  bottom: "inception_3b/pool_proj"
  top: "inception_3b/output"
}
layer {
  name: "pool3/3x3_s2"
  type: "Pooling"
  bottom: "inception_3b/output"
  top: "pool3/3x3_s2"
  pooling_param {
    pool: MAX
    kernel_size: 3
    stride: 2
  }
}
layer {
  name: "inception_4a/1x1"
  type: "Convolution"
  bottom: "pool3/3x3_s2"
  top: "inception_4a/1x1"
  param {
    lr_mult: 1
    decay_mult: 1
  }
  param {
    lr_mult: 2
    decay_mult: 0
  }
  convolution_param {
    num_output: 192
    kernel_size: 1
    weight_filler {
      type: "xavier"
      std: 0.03
    }
    bias_filler {
      type: "constant"
      value: 0.2
    }
  }
}
layer {
  name: "inception_4a/relu_1x1"
  type: "ReLU"
  bottom: "inception_4a/1x1"
  top: "inception_4a/1x1"
}
layer {
  name: "inception_4a/3x3_reduce"
  type: "Convolution"
  bottom: "pool3/3x3_s2"
  top: "inception_4a/3x3_reduce"
  param {
    lr_mult: 1
    decay_mult: 1
  }
  param {
    lr_mult: 2
    decay_mult: 0
  }
  convolution_param {
    num_output: 96
    kernel_size: 1
    weight_filler {
      type: "xavier"
      std: 0.09
    }
    bias_filler {
      type: "constant"
      value: 0.2
    }
  }
}
layer {
  name: "inception_4a/relu_3x3_reduce"
  type: "ReLU"
  bottom: "inception_4a/3x3_reduce"
  top: "inception_4a/3x3_reduce"
}
layer {
  name: "inception_4a/3x3"
  type: "Convolution"
  bottom: "inception_4a/3x3_reduce"
  top: "inception_4a/3x3"
  param {
    lr_mult: 1
    decay_mult: 1
  }
  param {
    lr_mult: 2
    decay_mult: 0
  }
  convolution_param {
    num_output: 208
    pad: 1
    kernel_size: 3
    weight_filler {
      type: "xavier"
      std: 0.03
    }
    bias_filler {
      type: "constant"
      value: 0.2
    }
  }
}
layer {
  name: "inception_4a/relu_3x3"
  type: "ReLU"
  bottom: "inception_4a/3x3"
  top: "inception_4a/3x3"
}
layer {
  name: "inception_4a/5x5_reduce"
  type: "Convolution"
  bottom: "pool3/3x3_s2"
  top: "inception_4a/5x5_reduce"
  param {
    lr_mult: 1
    decay_mult: 1
  }
  param {
    lr_mult: 2
    decay_mult: 0
  }
  convolution_param {
    num_output: 16
    kernel_size: 1
    weight_filler {
      type: "xavier"
      std: 0.2
    }
    bias_filler {
      type: "constant"
      value: 0.2
    }
  }
}
layer {
  name: "inception_4a/relu_5x5_reduce"
  type: "ReLU"
  bottom: "inception_4a/5x5_reduce"
  top: "inception_4a/5x5_reduce"
}
layer {
  name: "inception_4a/5x5"
  type: "Convolution"
  bottom: "inception_4a/5x5_reduce"
  top: "inception_4a/5x5"
  param {
    lr_mult: 1
    decay_mult: 1
  }
  param {
    lr_mult: 2
    decay_mult: 0
  }
  convolution_param {
    num_output: 48
    pad: 2
    kernel_size: 5
    weight_filler {
      type: "xavier"
      std: 0.03
    }
    bias_filler {
      type: "constant"
      value: 0.2
    }
  }
}
layer {
  name: "inception_4a/relu_5x5"
  type: "ReLU"
  bottom: "inception_4a/5x5"
  top: "inception_4a/5x5"
}
layer {
  name: "inception_4a/pool"
  type: "Pooling"
  bottom: "pool3/3x3_s2"
  top: "inception_4a/pool"
  pooling_param {
    pool: MAX
    kernel_size: 3
    stride: 1
    pad: 1
  }
}
layer {
  name: "inception_4a/pool_proj"
  type: "Convolution"
  bottom: "inception_4a/pool"
  top: "inception_4a/pool_proj"
  param {
    lr_mult: 1
    decay_mult: 1
  }
  param {
    lr_mult: 2
    decay_mult: 0
  }
  convolution_param {
    num_output: 64
    kernel_size: 1
    weight_filler {
      type: "xavier"
      std: 0.1
    }
    bias_filler {
      type: "constant"
      value: 0.2
    }
  }
}
layer {
  name: "inception_4a/relu_pool_proj"
  type: "ReLU"
  bottom: "inception_4a/pool_proj"
  top: "inception_4a/pool_proj"
}
layer {
  name: "inception_4a/output"
  type: "Concat"
  bottom: "inception_4a/1x1"
  bottom: "inception_4a/3x3"
  bottom: "inception_4a/5x5"
  bottom: "inception_4a/pool_proj"
  top: "inception_4a/output"
}
layer {
  name: "loss1/ave_pool"
  type: "Pooling"
  bottom: "inception_4a/output"
  top: "loss1/ave_pool"
  pooling_param {
    pool: AVE
    kernel_size: 5
    stride: 3
  }
}
layer {
  name: "loss1/conv"
  type: "Convolution"
  bottom: "loss1/ave_pool"
  top: "loss1/conv"
  param {
    lr_mult: 1
    decay_mult: 1
  }
  param {
    lr_mult: 2
    decay_mult: 0
  }
  convolution_param {
    num_output: 128
    kernel_size: 1
    weight_filler {
      type: "xavier"
      std: 0.08
    }
    bias_filler {
      type: "constant"
      value: 0.2
    }
  }
}
layer {
  name: "loss1/relu_conv"
  type: "ReLU"
  bottom: "loss1/conv"
  top: "loss1/conv"
}
layer {
  name: "loss1/fc"
  type: "InnerProduct"
  bottom: "loss1/conv"
  top: "loss1/fc"
  param {
    lr_mult: 1
    decay_mult: 1
  }
  param {
    lr_mult: 2
    decay_mult: 0
  }
  inner_product_param {
    num_output: 1024
    weight_filler {
      type: "xavier"
      std: 0.02
    }
    bias_filler {
      type: "constant"
      value: 0.2
    }
  }
}
layer {
  name: "loss1/relu_fc"
  type: "ReLU"
  bottom: "loss1/fc"
  top: "loss1/fc"
}
layer {
  name: "loss1/drop_fc"
  type: "Dropout"
  bottom: "loss1/fc"
  top: "loss1/fc"
  dropout_param {
    dropout_ratio: 0.7
  }
}
layer {
  name: "loss1/classifier_plantvillage"
  type: "InnerProduct"
  bottom: "loss1/fc"
  top: "loss1/classifier_plantvillage"
  param {
    lr_mult: 1
    decay_mult: 1
  }
  param {
    lr_mult: 2
    decay_mult: 0
  }
  inner_product_param {
    num_output: 38
    weight_filler {
      type: "xavier"
      std: 0.0009765625
    }
    bias_filler {
      type: "constant"
      value: 0
    }
  }
}
layer {
  name: "inception_4b/1x1"
  type: "Convolution"
  bottom: "inception_4a/output"
  top: "inception_4b/1x1"
  param {
    lr_mult: 1
    decay_mult: 1
  }
  param {
    lr_mult: 2
    decay_mult: 0
  }
  convolution_param {
    num_output: 160
    kernel_size: 1
    weight_filler {
      type: "xavier"
      std: 0.03
    }
    bias_filler {
      type: "constant"
      value: 0.2
    }
  }
}
layer {
  name: "inception_4b/relu_1x1"
  type: "ReLU"
  bottom: "inception_4b/1x1"
  top: "inception_4b/1x1"
}
layer {
  name: "inception_4b/3x3_reduce"
  type: "Convolution"
  bottom: "inception_4a/output"
  top: "inception_4b/3x3_reduce"
  param {
    lr_mult: 1
    decay_mult: 1
  }
  param {
    lr_mult: 2
    decay_mult: 0
  }
  convolution_param {
    num_output: 112
    kernel_size: 1
    weight_filler {
      type: "xavier"
      std: 0.09
    }
    bias_filler {
      type: "constant"
      value: 0.2
    }
  }
}
layer {
  name: "inception_4b/relu_3x3_reduce"
  type: "ReLU"
  bottom: "inception_4b/3x3_reduce"
  top: "inception_4b/3x3_reduce"
}
layer {
  name: "inception_4b/3x3"
  type: "Convolution"
  bottom: "inception_4b/3x3_reduce"
  top: "inception_4b/3x3"
  param {
    lr_mult: 1
    decay_mult: 1
  }
  param {
    lr_mult: 2
    decay_mult: 0
  }
  convolution_param {
    num_output: 224
    pad: 1
    kernel_size: 3
    weight_filler {
      type: "xavier"
      std: 0.03
    }
    bias_filler {
      type: "constant"
      value: 0.2
    }
  }
}
layer {
  name: "inception_4b/relu_3x3"
  type: "ReLU"
  bottom: "inception_4b/3x3"
  top: "inception_4b/3x3"
}
layer {
  name: "inception_4b/5x5_reduce"
  type: "Convolution"
  bottom: "inception_4a/output"
  top: "inception_4b/5x5_reduce"
  param {
    lr_mult: 1
    decay_mult: 1
  }
  param {
    lr_mult: 2
    decay_mult: 0
  }
  convolution_param {
    num_output: 24
    kernel_size: 1
    weight_filler {
      type: "xavier"
      std: 0.2
    }
    bias_filler {
      type: "constant"
      value: 0.2
    }
  }
}
layer {
  name: "inception_4b/relu_5x5_reduce"
  type: "ReLU"
  bottom: "inception_4b/5x5_reduce"
  top: "inception_4b/5x5_reduce"
}
layer {
  name: "inception_4b/5x5"
  type: "Convolution"
  bottom: "inception_4b/5x5_reduce"
  top: "inception_4b/5x5"
  param {
    lr_mult: 1
    decay_mult: 1
  }
  param {
    lr_mult: 2
    decay_mult: 0
  }
  convolution_param {
    num_output: 64
    pad: 2
    kernel_size: 5
    weight_filler {
      type: "xavier"
      std: 0.03
    }
    bias_filler {
      type: "constant"
      value: 0.2
    }
  }
}
layer {
  name: "inception_4b/relu_5x5"
  type: "ReLU"
  bottom: "inception_4b/5x5"
  top: "inception_4b/5x5"
}
layer {
  name: "inception_4b/pool"
  type: "Pooling"
  bottom: "inception_4a/output"
  top: "inception_4b/pool"
  pooling_param {
    pool: MAX
    kernel_size: 3
    stride: 1
    pad: 1
  }
}
layer {
  name: "inception_4b/pool_proj"
  type: "Convolution"
  bottom: "inception_4b/pool"
  top: "inception_4b/pool_proj"
  param {
    lr_mult: 1
    decay_mult: 1
  }
  param {
    lr_mult: 2
    decay_mult: 0
  }
  convolution_param {
    num_output: 64
    kernel_size: 1
    weight_filler {
      type: "xavier"
      std: 0.1
    }
    bias_filler {
      type: "constant"
      value: 0.2
    }
  }
}
layer {
  name: "inception_4b/relu_pool_proj"
  type: "ReLU"
  bottom: "inception_4b/pool_proj"
  top: "inception_4b/pool_proj"
}
layer {
  name: "inception_4b/output"
  type: "Concat"
  bottom: "inception_4b/1x1"
  bottom: "inception_4b/3x3"
  bottom: "inception_4b/5x5"
  bottom: "inception_4b/pool_proj"
  top: "inception_4b/output"
}
layer {
  name: "inception_4c/1x1"
  type: "Convolution"
  bottom: "inception_4b/output"
  top: "inception_4c/1x1"
  param {
    lr_mult: 1
    decay_mult: 1
  }
  param {
    lr_mult: 2
    decay_mult: 0
  }
  convolution_param {
    num_output: 128
    kernel_size: 1
    weight_filler {
      type: "xavier"
      std: 0.03
    }
    bias_filler {
      type: "constant"
      value: 0.2
    }
  }
}
layer {
  name: "inception_4c/relu_1x1"
  type: "ReLU"
  bottom: "inception_4c/1x1"
  top: "inception_4c/1x1"
}
layer {
  name: "inception_4c/3x3_reduce"
  type: "Convolution"
  bottom: "inception_4b/output"
  top: "inception_4c/3x3_reduce"
  param {
    lr_mult: 1
    decay_mult: 1
  }
  param {
    lr_mult: 2
    decay_mult: 0
  }
  convolution_param {
    num_output: 128
    kernel_size: 1
    weight_filler {
      type: "xavier"
      std: 0.09
    }
    bias_filler {
      type: "constant"
      value: 0.2
    }
  }
}
layer {
  name: "inception_4c/relu_3x3_reduce"
  type: "ReLU"
  bottom: "inception_4c/3x3_reduce"
  top: "inception_4c/3x3_reduce"
}
layer {
  name: "inception_4c/3x3"
  type: "Convolution"
  bottom: "inception_4c/3x3_reduce"
  top: "inception_4c/3x3"
  param {
    lr_mult: 1
    decay_mult: 1
  }
  param {
    lr_mult: 2
    decay_mult: 0
  }
  convolution_param {
    num_output: 256
    pad: 1
    kernel_size: 3
    weight_filler {
      type: "xavier"
      std: 0.03
    }
    bias_filler {
      type: "constant"
      value: 0.2
    }
  }
}
layer {
  name: "inception_4c/relu_3x3"
  type: "ReLU"
  bottom: "inception_4c/3x3"
  top: "inception_4c/3x3"
}
layer {
  name: "inception_4c/5x5_reduce"
  type: "Convolution"
  bottom: "inception_4b/output"
  top: "inception_4c/5x5_reduce"
  param {
    lr_mult: 1
    decay_mult: 1
  }
  param {
    lr_mult: 2
    decay_mult: 0
  }
  convolution_param {
    num_output: 24
    kernel_size: 1
    weight_filler {
      type: "xavier"
      std: 0.2
    }
    bias_filler {
      type: "constant"
      value: 0.2
    }
  }
}
layer {
  name: "inception_4c/relu_5x5_reduce"
  type: "ReLU"
  bottom: "inception_4c/5x5_reduce"
  top: "inception_4c/5x5_reduce"
}
layer {
  name: "inception_4c/5x5"
  type: "Convolution"
  bottom: "inception_4c/5x5_reduce"
  top: "inception_4c/5x5"
  param {
    lr_mult: 1
    decay_mult: 1
  }
  param {
    lr_mult: 2
    decay_mult: 0
  }
  convolution_param {
    num_output: 64
    pad: 2
    kernel_size: 5
    weight_filler {
      type: "xavier"
      std: 0.03
    }
    bias_filler {
      type: "constant"
      value: 0.2
    }
  }
}
layer {
  name: "inception_4c/relu_5x5"
  type: "ReLU"
  bottom: "inception_4c/5x5"
  top: "inception_4c/5x5"
}
layer {
  name: "inception_4c/pool"
  type: "Pooling"
  bottom: "inception_4b/output"
  top: "inception_4c/pool"
  pooling_param {
    pool: MAX
    kernel_size: 3
    stride: 1
    pad: 1
  }
}
layer {
  name: "inception_4c/pool_proj"
  type: "Convolution"
  bottom: "inception_4c/pool"
  top: "inception_4c/pool_proj"
  param {
    lr_mult: 1
    decay_mult: 1
  }
  param {
    lr_mult: 2
    decay_mult: 0
  }
  convolution_param {
    num_output: 64
    kernel_size: 1
    weight_filler {
      type: "xavier"
      std: 0.1
    }
    bias_filler {
      type: "constant"
      value: 0.2
    }
  }
}
layer {
  name: "inception_4c/relu_pool_proj"
  type: "ReLU"
  bottom: "inception_4c/pool_proj"
  top: "inception_4c/pool_proj"
}
layer {
  name: "inception_4c/output"
  type: "Concat"
  bottom: "inception_4c/1x1"
  bottom: "inception_4c/3x3"
  bottom: "inception_4c/5x5"
  bottom: "inception_4c/pool_proj"
  top: "inception_4c/output"
}
layer {
  name: "inception_4d/1x1"
  type: "Convolution"
  bottom: "inception_4c/output"
  top: "inception_4d/1x1"
  param {
    lr_mult: 1
    decay_mult: 1
  }
  param {
    lr_mult: 2
    decay_mult: 0
  }
  convolution_param {
    num_output: 112
    kernel_size: 1
    weight_filler {
      type: "xavier"
      std: 0.03
    }
    bias_filler {
      type: "constant"
      value: 0.2
    }
  }
}
layer {
  name: "inception_4d/relu_1x1"
  type: "ReLU"
  bottom: "inception_4d/1x1"
  top: "inception_4d/1x1"
}
layer {
  name: "inception_4d/3x3_reduce"
  type: "Convolution"
  bottom: "inception_4c/output"
  top: "inception_4d/3x3_reduce"
  param {
    lr_mult: 1
    decay_mult: 1
  }
  param {
    lr_mult: 2
    decay_mult: 0
  }
  convolution_param {
    num_output: 144
    kernel_size: 1
    weight_filler {
      type: "xavier"
      std: 0.09
    }
    bias_filler {
      type: "constant"
      value: 0.2
    }
  }
}
layer {
  name: "inception_4d/relu_3x3_reduce"
  type: "ReLU"
  bottom: "inception_4d/3x3_reduce"
  top: "inception_4d/3x3_reduce"
}
layer {
  name: "inception_4d/3x3"
  type: "Convolution"
  bottom: "inception_4d/3x3_reduce"
  top: "inception_4d/3x3"
  param {
    lr_mult: 1
    decay_mult: 1
  }
  param {
    lr_mult: 2
    decay_mult: 0
  }
  convolution_param {
    num_output: 288
    pad: 1
    kernel_size: 3
    weight_filler {
      type: "xavier"
      std: 0.03
    }
    bias_filler {
      type: "constant"
      value: 0.2
    }
  }
}
layer {
  name: "inception_4d/relu_3x3"
  type: "ReLU"
  bottom: "inception_4d/3x3"
  top: "inception_4d/3x3"
}
layer {
  name: "inception_4d/5x5_reduce"
  type: "Convolution"
  bottom: "inception_4c/output"
  top: "inception_4d/5x5_reduce"
  param {
    lr_mult: 1
    decay_mult: 1
  }
  param {
    lr_mult: 2
    decay_mult: 0
  }
  convolution_param {
    num_output: 32
    kernel_size: 1
    weight_filler {
      type: "xavier"
      std: 0.2
    }
    bias_filler {
      type: "constant"
      value: 0.2
    }
  }
}
layer {
  name: "inception_4d/relu_5x5_reduce"
  type: "ReLU"
  bottom: "inception_4d/5x5_reduce"
  top: "inception_4d/5x5_reduce"
}
layer {
  name: "inception_4d/5x5"
  type: "Convolution"
  bottom: "inception_4d/5x5_reduce"
  top: "inception_4d/5x5"
  param {
    lr_mult: 1
    decay_mult: 1
  }
  param {
    lr_mult: 2
    decay_mult: 0
  }
  convolution_param {
    num_output: 64
    pad: 2
    kernel_size: 5
    weight_filler {
      type: "xavier"
      std: 0.03
    }
    bias_filler {
      type: "constant"
      value: 0.2
    }
  }
}
layer {
  name: "inception_4d/relu_5x5"
  type: "ReLU"
  bottom: "inception_4d/5x5"
  top: "inception_4d/5x5"
}
layer {
  name: "inception_4d/pool"
  type: "Pooling"
  bottom: "inception_4c/output"
  top: "inception_4d/pool"
  pooling_param {
    pool: MAX
    kernel_size: 3
    stride: 1
    pad: 1
  }
}
layer {
  name: "inception_4d/pool_proj"
  type: "Convolution"
  bottom: "inception_4d/pool"
  top: "inception_4d/pool_proj"
  param {
    lr_mult: 1
    decay_mult: 1
  }
  param {
    lr_mult: 2
    decay_mult: 0
  }
  convolution_param {
    num_output: 64
    kernel_size: 1
    weight_filler {
      type: "xavier"
      std: 0.1
    }
    bias_filler {
      type: "constant"
      value: 0.2
    }
  }
}
layer {
  name: "inception_4d/relu_pool_proj"
  type: "ReLU"
  bottom: "inception_4d/pool_proj"
  top: "inception_4d/pool_proj"
}
layer {
  name: "inception_4d/output"
  type: "Concat"
  bottom: "inception_4d/1x1"
  bottom: "inception_4d/3x3"
  bottom: "inception_4d/5x5"
  bottom: "inception_4d/pool_proj"
  top: "inception_4d/output"
}
layer {
  name: "loss2/ave_pool"
  type: "Pooling"
  bottom: "inception_4d/output"
  top: "loss2/ave_pool"
  pooling_param {
    pool: AVE
    kernel_size: 5
    stride: 3
  }
}
layer {
  name: "loss2/conv"
  type: "Convolution"
  bottom: "loss2/ave_pool"
  top: "loss2/conv"
  param {
    lr_mult: 1
    decay_mult: 1
  }
  param {
    lr_mult: 2
    decay_mult: 0
  }
  convolution_param {
    num_output: 128
    kernel_size: 1
    weight_filler {
      type: "xavier"
      std: 0.08
    }
    bias_filler {
      type: "constant"
      value: 0.2
    }
  }
}
layer {
  name: "loss2/relu_conv"
  type: "ReLU"
  bottom: "loss2/conv"
  top: "loss2/conv"
}
layer {
  name: "loss2/fc"
  type: "InnerProduct"
  bottom: "loss2/conv"
  top: "loss2/fc"
  param {
    lr_mult: 1
    decay_mult: 1
  }
  param {
    lr_mult: 2
    decay_mult: 0
  }
  inner_product_param {
    num_output: 1024
    weight_filler {
      type: "xavier"
      std: 0.02
    }
    bias_filler {
      type: "constant"
      value: 0.2
    }
  }
}
layer {
  name: "loss2/relu_fc"
  type: "ReLU"
  bottom: "loss2/fc"
  top: "loss2/fc"
}
layer {
  name: "loss2/drop_fc"
  type: "Dropout"
  bottom: "loss2/fc"
  top: "loss2/fc"
  dropout_param {
    dropout_ratio: 0.7
  }
}
layer {
  name: "loss2/classifier_plantvillage"
  type: "InnerProduct"
  bottom: "loss2/fc"
  top: "loss2/classifier_plantvillage"
  param {
    lr_mult: 1
    decay_mult: 1
  }
  param {
    lr_mult: 2
    decay_mult: 0
  }
  inner_product_param {
    num_output: 38
    weight_filler {
      type: "xavier"
      std: 0.0009765625
    }
    bias_filler {
      type: "constant"
      value: 0
    }
  }
}
layer {
  name: "inception_4e/1x1"
  type: "Convolution"
  bottom: "inception_4d/output"
  top: "inception_4e/1x1"
  param {
    lr_mult: 1
    decay_mult: 1
  }
  param {
    lr_mult: 2
    decay_mult: 0
  }
  convolution_param {
    num_output: 256
    kernel_size: 1
    weight_filler {
      type: "xavier"
      std: 0.03
    }
    bias_filler {
      type: "constant"
      value: 0.2
    }
  }
}
layer {
  name: "inception_4e/relu_1x1"
  type: "ReLU"
  bottom: "inception_4e/1x1"
  top: "inception_4e/1x1"
}
layer {
  name: "inception_4e/3x3_reduce"
  type: "Convolution"
  bottom: "inception_4d/output"
  top: "inception_4e/3x3_reduce"
  param {
    lr_mult: 1
    decay_mult: 1
  }
  param {
    lr_mult: 2
    decay_mult: 0
  }
  convolution_param {
    num_output: 160
    kernel_size: 1
    weight_filler {
      type: "xavier"
      std: 0.09
    }
    bias_filler {
      type: "constant"
      value: 0.2
    }
  }
}
layer {
  name: "inception_4e/relu_3x3_reduce"
  type: "ReLU"
  bottom: "inception_4e/3x3_reduce"
  top: "inception_4e/3x3_reduce"
}
layer {
  name: "inception_4e/3x3"
  type: "Convolution"
  bottom: "inception_4e/3x3_reduce"
  top: "inception_4e/3x3"
  param {
    lr_mult: 1
    decay_mult: 1
  }
  param {
    lr_mult: 2
    decay_mult: 0
  }
  convolution_param {
    num_output: 320
    pad: 1
    kernel_size: 3
    weight_filler {
      type: "xavier"
      std: 0.03
    }
    bias_filler {
      type: "constant"
      value: 0.2
    }
  }
}
layer {
  name: "inception_4e/relu_3x3"
  type: "ReLU"
  bottom: "inception_4e/3x3"
  top: "inception_4e/3x3"
}
layer {
  name: "inception_4e/5x5_reduce"
  type: "Convolution"
  bottom: "inception_4d/output"
  top: "inception_4e/5x5_reduce"
  param {
    lr_mult: 1
    decay_mult: 1
  }
  param {
    lr_mult: 2
    decay_mult: 0
  }
  convolution_param {
    num_output: 32
    kernel_size: 1
    weight_filler {
      type: "xavier"
      std: 0.2
    }
    bias_filler {
      type: "constant"
      value: 0.2
    }
  }
}
layer {
  name: "inception_4e/relu_5x5_reduce"
  type: "ReLU"
  bottom: "inception_4e/5x5_reduce"
  top: "inception_4e/5x5_reduce"
}
layer {
  name: "inception_4e/5x5"
  type: "Convolution"
  bottom: "inception_4e/5x5_reduce"
  top: "inception_4e/5x5"
  p
I0403 16:03:51.593003 16913 layer_factory.hpp:77] Creating layer data
I0403 16:03:51.594502 16913 net.cpp:91] Creating Layer data
I0403 16:03:51.594563 16913 net.cpp:399] data -> data
I0403 16:03:51.594655 16913 net.cpp:399] data -> label
I0403 16:03:51.594746 16913 data_transformer.cpp:25] Loading mean file from: /home/mohanty/data/final_dataset/lmdb/color-20-80/mean.binaryproto
I0403 16:03:51.596351 16916 db_lmdb.cpp:38] Opened lmdb /home/mohanty/data/final_dataset/lmdb/color-20-80/test_db
I0403 16:03:51.608434 16913 data_layer.cpp:41] output data size: 24,3,224,224
I0403 16:03:51.635663 16913 net.cpp:141] Setting up data
I0403 16:03:51.635740 16913 net.cpp:148] Top shape: 24 3 224 224 (3612672)
I0403 16:03:51.635766 16913 net.cpp:148] Top shape: 24 (24)
I0403 16:03:51.635782 16913 net.cpp:156] Memory required for data: 14450784
I0403 16:03:51.635810 16913 layer_factory.hpp:77] Creating layer label_data_1_split
I0403 16:03:51.635838 16913 net.cpp:91] Creating Layer label_data_1_split
I0403 16:03:51.635856 16913 net.cpp:425] label_data_1_split <- label
I0403 16:03:51.635890 16913 net.cpp:399] label_data_1_split -> label_data_1_split_0
I0403 16:03:51.635921 16913 net.cpp:399] label_data_1_split -> label_data_1_split_1
I0403 16:03:51.635943 16913 net.cpp:399] label_data_1_split -> label_data_1_split_2
I0403 16:03:51.635964 16913 net.cpp:399] label_data_1_split -> label_data_1_split_3
I0403 16:03:51.635984 16913 net.cpp:399] label_data_1_split -> label_data_1_split_4
I0403 16:03:51.636005 16913 net.cpp:399] label_data_1_split -> label_data_1_split_5
I0403 16:03:51.636025 16913 net.cpp:399] label_data_1_split -> label_data_1_split_6
I0403 16:03:51.636049 16913 net.cpp:399] label_data_1_split -> label_data_1_split_7
I0403 16:03:51.636070 16913 net.cpp:399] label_data_1_split -> label_data_1_split_8
I0403 16:03:51.636090 16913 net.cpp:399] label_data_1_split -> label_data_1_split_9
I0403 16:03:51.636203 16913 net.cpp:141] Setting up label_data_1_split
I0403 16:03:51.636229 16913 net.cpp:148] Top shape: 24 (24)
I0403 16:03:51.636245 16913 net.cpp:148] Top shape: 24 (24)
I0403 16:03:51.636261 16913 net.cpp:148] Top shape: 24 (24)
I0403 16:03:51.636278 16913 net.cpp:148] Top shape: 24 (24)
I0403 16:03:51.636293 16913 net.cpp:148] Top shape: 24 (24)
I0403 16:03:51.636309 16913 net.cpp:148] Top shape: 24 (24)
I0403 16:03:51.636325 16913 net.cpp:148] Top shape: 24 (24)
I0403 16:03:51.636342 16913 net.cpp:148] Top shape: 24 (24)
I0403 16:03:51.636358 16913 net.cpp:148] Top shape: 24 (24)
I0403 16:03:51.636375 16913 net.cpp:148] Top shape: 24 (24)
I0403 16:03:51.636421 16913 net.cpp:156] Memory required for data: 14451744
I0403 16:03:51.636437 16913 layer_factory.hpp:77] Creating layer conv1/7x7_s2
I0403 16:03:51.636469 16913 net.cpp:91] Creating Layer conv1/7x7_s2
I0403 16:03:51.636488 16913 net.cpp:425] conv1/7x7_s2 <- data
I0403 16:03:51.636508 16913 net.cpp:399] conv1/7x7_s2 -> conv1/7x7_s2
I0403 16:03:51.776276 16913 net.cpp:141] Setting up conv1/7x7_s2
I0403 16:03:51.776346 16913 net.cpp:148] Top shape: 24 64 112 112 (19267584)
I0403 16:03:51.776366 16913 net.cpp:156] Memory required for data: 91522080
I0403 16:03:51.776398 16913 layer_factory.hpp:77] Creating layer conv1/relu_7x7
I0403 16:03:51.776428 16913 net.cpp:91] Creating Layer conv1/relu_7x7
I0403 16:03:51.776448 16913 net.cpp:425] conv1/relu_7x7 <- conv1/7x7_s2
I0403 16:03:51.776468 16913 net.cpp:386] conv1/relu_7x7 -> conv1/7x7_s2 (in-place)
I0403 16:03:51.776731 16913 net.cpp:141] Setting up conv1/relu_7x7
I0403 16:03:51.776760 16913 net.cpp:148] Top shape: 24 64 112 112 (19267584)
I0403 16:03:51.776777 16913 net.cpp:156] Memory required for data: 168592416
I0403 16:03:51.776793 16913 layer_factory.hpp:77] Creating layer pool1/3x3_s2
I0403 16:03:51.776818 16913 net.cpp:91] Creating Layer pool1/3x3_s2
I0403 16:03:51.776835 16913 net.cpp:425] pool1/3x3_s2 <- conv1/7x7_s2
I0403 16:03:51.776855 16913 net.cpp:399] pool1/3x3_s2 -> pool1/3x3_s2
I0403 16:03:51.776988 16913 net.cpp:141] Setting up pool1/3x3_s2
I0403 16:03:51.777016 16913 net.cpp:148] Top shape: 24 64 56 56 (4816896)
I0403 16:03:51.777031 16913 net.cpp:156] Memory required for data: 187860000
I0403 16:03:51.777046 16913 layer_factory.hpp:77] Creating layer pool1/norm1
I0403 16:03:51.777071 16913 net.cpp:91] Creating Layer pool1/norm1
I0403 16:03:51.777091 16913 net.cpp:425] pool1/norm1 <- pool1/3x3_s2
I0403 16:03:51.777108 16913 net.cpp:399] pool1/norm1 -> pool1/norm1
I0403 16:03:51.777415 16913 net.cpp:141] Setting up pool1/norm1
I0403 16:03:51.777446 16913 net.cpp:148] Top shape: 24 64 56 56 (4816896)
I0403 16:03:51.777475 16913 net.cpp:156] Memory required for data: 207127584
I0403 16:03:51.777492 16913 layer_factory.hpp:77] Creating layer conv2/3x3_reduce
I0403 16:03:51.777516 16913 net.cpp:91] Creating Layer conv2/3x3_reduce
I0403 16:03:51.777534 16913 net.cpp:425] conv2/3x3_reduce <- pool1/norm1
I0403 16:03:51.777554 16913 net.cpp:399] conv2/3x3_reduce -> conv2/3x3_reduce
I0403 16:03:51.778911 16913 net.cpp:141] Setting up conv2/3x3_reduce
I0403 16:03:51.778942 16913 net.cpp:148] Top shape: 24 64 56 56 (4816896)
I0403 16:03:51.778959 16913 net.cpp:156] Memory required for data: 226395168
I0403 16:03:51.778980 16913 layer_factory.hpp:77] Creating layer conv2/relu_3x3_reduce
I0403 16:03:51.779000 16913 net.cpp:91] Creating Layer conv2/relu_3x3_reduce
I0403 16:03:51.779016 16913 net.cpp:425] conv2/relu_3x3_reduce <- conv2/3x3_reduce
I0403 16:03:51.779033 16913 net.cpp:386] conv2/relu_3x3_reduce -> conv2/3x3_reduce (in-place)
I0403 16:03:51.779284 16913 net.cpp:141] Setting up conv2/relu_3x3_reduce
I0403 16:03:51.779310 16913 net.cpp:148] Top shape: 24 64 56 56 (4816896)
I0403 16:03:51.779327 16913 net.cpp:156] Memory required for data: 245662752
I0403 16:03:51.779342 16913 layer_factory.hpp:77] Creating layer conv2/3x3
I0403 16:03:51.779364 16913 net.cpp:91] Creating Layer conv2/3x3
I0403 16:03:51.779381 16913 net.cpp:425] conv2/3x3 <- conv2/3x3_reduce
I0403 16:03:51.779402 16913 net.cpp:399] conv2/3x3 -> conv2/3x3
I0403 16:03:51.781719 16913 net.cpp:141] Setting up conv2/3x3
I0403 16:03:51.781751 16913 net.cpp:148] Top shape: 24 192 56 56 (14450688)
I0403 16:03:51.781769 16913 net.cpp:156] Memory required for data: 303465504
I0403 16:03:51.781791 16913 layer_factory.hpp:77] Creating layer conv2/relu_3x3
I0403 16:03:51.781810 16913 net.cpp:91] Creating Layer conv2/relu_3x3
I0403 16:03:51.781826 16913 net.cpp:425] conv2/relu_3x3 <- conv2/3x3
I0403 16:03:51.781883 16913 net.cpp:386] conv2/relu_3x3 -> conv2/3x3 (in-place)
I0403 16:03:51.782061 16913 net.cpp:141] Setting up conv2/relu_3x3
I0403 16:03:51.782088 16913 net.cpp:148] Top shape: 24 192 56 56 (14450688)
I0403 16:03:51.782124 16913 net.cpp:156] Memory required for data: 361268256
I0403 16:03:51.782140 16913 layer_factory.hpp:77] Creating layer conv2/norm2
I0403 16:03:51.782161 16913 net.cpp:91] Creating Layer conv2/norm2
I0403 16:03:51.782178 16913 net.cpp:425] conv2/norm2 <- conv2/3x3
I0403 16:03:51.782198 16913 net.cpp:399] conv2/norm2 -> conv2/norm2
I0403 16:03:51.782500 16913 net.cpp:141] Setting up conv2/norm2
I0403 16:03:51.782529 16913 net.cpp:148] Top shape: 24 192 56 56 (14450688)
I0403 16:03:51.782546 16913 net.cpp:156] Memory required for data: 419071008
I0403 16:03:51.782562 16913 layer_factory.hpp:77] Creating layer pool2/3x3_s2
I0403 16:03:51.782580 16913 net.cpp:91] Creating Layer pool2/3x3_s2
I0403 16:03:51.782598 16913 net.cpp:425] pool2/3x3_s2 <- conv2/norm2
I0403 16:03:51.782624 16913 net.cpp:399] pool2/3x3_s2 -> pool2/3x3_s2
I0403 16:03:51.782678 16913 net.cpp:141] Setting up pool2/3x3_s2
I0403 16:03:51.782702 16913 net.cpp:148] Top shape: 24 192 28 28 (3612672)
I0403 16:03:51.782718 16913 net.cpp:156] Memory required for data: 433521696
I0403 16:03:51.782733 16913 layer_factory.hpp:77] Creating layer pool2/3x3_s2_pool2/3x3_s2_0_split
I0403 16:03:51.782752 16913 net.cpp:91] Creating Layer pool2/3x3_s2_pool2/3x3_s2_0_split
I0403 16:03:51.782773 16913 net.cpp:425] pool2/3x3_s2_pool2/3x3_s2_0_split <- pool2/3x3_s2
I0403 16:03:51.782790 16913 net.cpp:399] pool2/3x3_s2_pool2/3x3_s2_0_split -> pool2/3x3_s2_pool2/3x3_s2_0_split_0
I0403 16:03:51.782809 16913 net.cpp:399] pool2/3x3_s2_pool2/3x3_s2_0_split -> pool2/3x3_s2_pool2/3x3_s2_0_split_1
I0403 16:03:51.782835 16913 net.cpp:399] pool2/3x3_s2_pool2/3x3_s2_0_split -> pool2/3x3_s2_pool2/3x3_s2_0_split_2
I0403 16:03:51.782856 16913 net.cpp:399] pool2/3x3_s2_pool2/3x3_s2_0_split -> pool2/3x3_s2_pool2/3x3_s2_0_split_3
I0403 16:03:51.782924 16913 net.cpp:141] Setting up pool2/3x3_s2_pool2/3x3_s2_0_split
I0403 16:03:51.782948 16913 net.cpp:148] Top shape: 24 192 28 28 (3612672)
I0403 16:03:51.782964 16913 net.cpp:148] Top shape: 24 192 28 28 (3612672)
I0403 16:03:51.782980 16913 net.cpp:148] Top shape: 24 192 28 28 (3612672)
I0403 16:03:51.782996 16913 net.cpp:148] Top shape: 24 192 28 28 (3612672)
I0403 16:03:51.783012 16913 net.cpp:156] Memory required for data: 491324448
I0403 16:03:51.783027 16913 layer_factory.hpp:77] Creating layer inception_3a/1x1
I0403 16:03:51.783051 16913 net.cpp:91] Creating Layer inception_3a/1x1
I0403 16:03:51.783068 16913 net.cpp:425] inception_3a/1x1 <- pool2/3x3_s2_pool2/3x3_s2_0_split_0
I0403 16:03:51.783089 16913 net.cpp:399] inception_3a/1x1 -> inception_3a/1x1
I0403 16:03:51.784617 16913 net.cpp:141] Setting up inception_3a/1x1
I0403 16:03:51.784651 16913 net.cpp:148] Top shape: 24 64 28 28 (1204224)
I0403 16:03:51.784667 16913 net.cpp:156] Memory required for data: 496141344
I0403 16:03:51.784687 16913 layer_factory.hpp:77] Creating layer inception_3a/relu_1x1
I0403 16:03:51.784706 16913 net.cpp:91] Creating Layer inception_3a/relu_1x1
I0403 16:03:51.784723 16913 net.cpp:425] inception_3a/relu_1x1 <- inception_3a/1x1
I0403 16:03:51.784741 16913 net.cpp:386] inception_3a/relu_1x1 -> inception_3a/1x1 (in-place)
I0403 16:03:51.784919 16913 net.cpp:141] Setting up inception_3a/relu_1x1
I0403 16:03:51.784945 16913 net.cpp:148] Top shape: 24 64 28 28 (1204224)
I0403 16:03:51.784960 16913 net.cpp:156] Memory required for data: 500958240
I0403 16:03:51.784976 16913 layer_factory.hpp:77] Creating layer inception_3a/3x3_reduce
I0403 16:03:51.784997 16913 net.cpp:91] Creating Layer inception_3a/3x3_reduce
I0403 16:03:51.785015 16913 net.cpp:425] inception_3a/3x3_reduce <- pool2/3x3_s2_pool2/3x3_s2_0_split_1
I0403 16:03:51.785037 16913 net.cpp:399] inception_3a/3x3_reduce -> inception_3a/3x3_reduce
I0403 16:03:51.786722 16913 net.cpp:141] Setting up inception_3a/3x3_reduce
I0403 16:03:51.786752 16913 net.cpp:148] Top shape: 24 96 28 28 (1806336)
I0403 16:03:51.786770 16913 net.cpp:156] Memory required for data: 508183584
I0403 16:03:51.786793 16913 layer_factory.hpp:77] Creating layer inception_3a/relu_3x3_reduce
I0403 16:03:51.786831 16913 net.cpp:91] Creating Layer inception_3a/relu_3x3_reduce
I0403 16:03:51.786851 16913 net.cpp:425] inception_3a/relu_3x3_reduce <- inception_3a/3x3_reduce
I0403 16:03:51.786870 16913 net.cpp:386] inception_3a/relu_3x3_reduce -> inception_3a/3x3_reduce (in-place)
I0403 16:03:51.787112 16913 net.cpp:141] Setting up inception_3a/relu_3x3_reduce
I0403 16:03:51.787142 16913 net.cpp:148] Top shape: 24 96 28 28 (1806336)
I0403 16:03:51.787159 16913 net.cpp:156] Memory required for data: 515408928
I0403 16:03:51.787175 16913 layer_factory.hpp:77] Creating layer inception_3a/3x3
I0403 16:03:51.787197 16913 net.cpp:91] Creating Layer inception_3a/3x3
I0403 16:03:51.787216 16913 net.cpp:425] inception_3a/3x3 <- inception_3a/3x3_reduce
I0403 16:03:51.787236 16913 net.cpp:399] inception_3a/3x3 -> inception_3a/3x3
I0403 16:03:51.788871 16913 net.cpp:141] Setting up inception_3a/3x3
I0403 16:03:51.788899 16913 net.cpp:148] Top shape: 24 128 28 28 (2408448)
I0403 16:03:51.788916 16913 net.cpp:156] Memory required for data: 525042720
I0403 16:03:51.788936 16913 layer_factory.hpp:77] Creating layer inception_3a/relu_3x3
I0403 16:03:51.788960 16913 net.cpp:91] Creating Layer inception_3a/relu_3x3
I0403 16:03:51.788978 16913 net.cpp:425] inception_3a/relu_3x3 <- inception_3a/3x3
I0403 16:03:51.788996 16913 net.cpp:386] inception_3a/relu_3x3 -> inception_3a/3x3 (in-place)
I0403 16:03:51.789264 16913 net.cpp:141] Setting up inception_3a/relu_3x3
I0403 16:03:51.789293 16913 net.cpp:148] Top shape: 24 128 28 28 (2408448)
I0403 16:03:51.789307 16913 net.cpp:156] Memory required for data: 534676512
I0403 16:03:51.789322 16913 layer_factory.hpp:77] Creating layer inception_3a/5x5_reduce
I0403 16:03:51.789346 16913 net.cpp:91] Creating Layer inception_3a/5x5_reduce
I0403 16:03:51.789364 16913 net.cpp:425] inception_3a/5x5_reduce <- pool2/3x3_s2_pool2/3x3_s2_0_split_2
I0403 16:03:51.789386 16913 net.cpp:399] inception_3a/5x5_reduce -> inception_3a/5x5_reduce
I0403 16:03:51.790325 16913 net.cpp:141] Setting up inception_3a/5x5_reduce
I0403 16:03:51.790354 16913 net.cpp:148] Top shape: 24 16 28 28 (301056)
I0403 16:03:51.790370 16913 net.cpp:156] Memory required for data: 535880736
I0403 16:03:51.790390 16913 layer_factory.hpp:77] Creating layer inception_3a/relu_5x5_reduce
I0403 16:03:51.790411 16913 net.cpp:91] Creating Layer inception_3a/relu_5x5_reduce
I0403 16:03:51.790429 16913 net.cpp:425] inception_3a/relu_5x5_reduce <- inception_3a/5x5_reduce
I0403 16:03:51.790448 16913 net.cpp:386] inception_3a/relu_5x5_reduce -> inception_3a/5x5_reduce (in-place)
I0403 16:03:51.790741 16913 net.cpp:141] Setting up inception_3a/relu_5x5_reduce
I0403 16:03:51.790781 16913 net.cpp:148] Top shape: 24 16 28 28 (301056)
I0403 16:03:51.790796 16913 net.cpp:156] Memory required for data: 537084960
I0403 16:03:51.790812 16913 layer_factory.hpp:77] Creating layer inception_3a/5x5
I0403 16:03:51.790835 16913 net.cpp:91] Creating Layer inception_3a/5x5
I0403 16:03:51.790853 16913 net.cpp:425] inception_3a/5x5 <- inception_3a/5x5_reduce
I0403 16:03:51.790874 16913 net.cpp:399] inception_3a/5x5 -> inception_3a/5x5
I0403 16:03:51.791836 16913 net.cpp:141] Setting up inception_3a/5x5
I0403 16:03:51.791864 16913 net.cpp:148] Top shape: 24 32 28 28 (602112)
I0403 16:03:51.791882 16913 net.cpp:156] Memory required for data: 539493408
I0403 16:03:51.791900 16913 layer_factory.hpp:77] Creating layer inception_3a/relu_5x5
I0403 16:03:51.791919 16913 net.cpp:91] Creating Layer inception_3a/relu_5x5
I0403 16:03:51.791939 16913 net.cpp:425] inception_3a/relu_5x5 <- inception_3a/5x5
I0403 16:03:51.791956 16913 net.cpp:386] inception_3a/relu_5x5 -> inception_3a/5x5 (in-place)
I0403 16:03:51.792124 16913 net.cpp:141] Setting up inception_3a/relu_5x5
I0403 16:03:51.792148 16913 net.cpp:148] Top shape: 24 32 28 28 (602112)
I0403 16:03:51.792163 16913 net.cpp:156] Memory required for data: 541901856
I0403 16:03:51.792178 16913 layer_factory.hpp:77] Creating layer inception_3a/pool
I0403 16:03:51.792198 16913 net.cpp:91] Creating Layer inception_3a/pool
I0403 16:03:51.792215 16913 net.cpp:425] inception_3a/pool <- pool2/3x3_s2_pool2/3x3_s2_0_split_3
I0403 16:03:51.792248 16913 net.cpp:399] inception_3a/pool -> inception_3a/pool
I0403 16:03:51.792306 16913 net.cpp:141] Setting up inception_3a/pool
I0403 16:03:51.792330 16913 net.cpp:148] Top shape: 24 192 28 28 (3612672)
I0403 16:03:51.792345 16913 net.cpp:156] Memory required for data: 556352544
I0403 16:03:51.792358 16913 layer_factory.hpp:77] Creating layer inception_3a/pool_proj
I0403 16:03:51.792381 16913 net.cpp:91] Creating Layer inception_3a/pool_proj
I0403 16:03:51.792397 16913 net.cpp:425] inception_3a/pool_proj <- inception_3a/pool
I0403 16:03:51.792420 16913 net.cpp:399] inception_3a/pool_proj -> inception_3a/pool_proj
I0403 16:03:51.793352 16913 net.cpp:141] Setting up inception_3a/pool_proj
I0403 16:03:51.793383 16913 net.cpp:148] Top shape: 24 32 28 28 (602112)
I0403 16:03:51.793400 16913 net.cpp:156] Memory required for data: 558760992
I0403 16:03:51.793421 16913 layer_factory.hpp:77] Creating layer inception_3a/relu_pool_proj
I0403 16:03:51.793442 16913 net.cpp:91] Creating Layer inception_3a/relu_pool_proj
I0403 16:03:51.793459 16913 net.cpp:425] inception_3a/relu_pool_proj <- inception_3a/pool_proj
I0403 16:03:51.793478 16913 net.cpp:386] inception_3a/relu_pool_proj -> inception_3a/pool_proj (in-place)
I0403 16:03:51.793750 16913 net.cpp:141] Setting up inception_3a/relu_pool_proj
I0403 16:03:51.793777 16913 net.cpp:148] Top shape: 24 32 28 28 (602112)
I0403 16:03:51.793793 16913 net.cpp:156] Memory required for data: 561169440
I0403 16:03:51.793807 16913 layer_factory.hpp:77] Creating layer inception_3a/output
I0403 16:03:51.793825 16913 net.cpp:91] Creating Layer inception_3a/output
I0403 16:03:51.793841 16913 net.cpp:425] inception_3a/output <- inception_3a/1x1
I0403 16:03:51.793859 16913 net.cpp:425] inception_3a/output <- inception_3a/3x3
I0403 16:03:51.793874 16913 net.cpp:425] inception_3a/output <- inception_3a/5x5
I0403 16:03:51.793890 16913 net.cpp:425] inception_3a/output <- inception_3a/pool_proj
I0403 16:03:51.793908 16913 net.cpp:399] inception_3a/output -> inception_3a/output
I0403 16:03:51.793953 16913 net.cpp:141] Setting up inception_3a/output
I0403 16:03:51.793980 16913 net.cpp:148] Top shape: 24 256 28 28 (4816896)
I0403 16:03:51.793997 16913 net.cpp:156] Memory required for data: 580437024
I0403 16:03:51.794013 16913 layer_factory.hpp:77] Creating layer inception_3a/output_inception_3a/output_0_split
I0403 16:03:51.794029 16913 net.cpp:91] Creating Layer inception_3a/output_inception_3a/output_0_split
I0403 16:03:51.794044 16913 net.cpp:425] inception_3a/output_inception_3a/output_0_split <- inception_3a/output
I0403 16:03:51.794064 16913 net.cpp:399] inception_3a/output_inception_3a/output_0_split -> inception_3a/output_inception_3a/output_0_split_0
I0403 16:03:51.794085 16913 net.cpp:399] inception_3a/output_inception_3a/output_0_split -> inception_3a/output_inception_3a/output_0_split_1
I0403 16:03:51.794108 16913 net.cpp:399] inception_3a/output_inception_3a/output_0_split -> inception_3a/output_inception_3a/output_0_split_2
I0403 16:03:51.794129 16913 net.cpp:399] inception_3a/output_inception_3a/output_0_split -> inception_3a/output_inception_3a/output_0_split_3
I0403 16:03:51.794201 16913 net.cpp:141] Setting up inception_3a/output_inception_3a/output_0_split
I0403 16:03:51.794224 16913 net.cpp:148] Top shape: 24 256 28 28 (4816896)
I0403 16:03:51.794240 16913 net.cpp:148] Top shape: 24 256 28 28 (4816896)
I0403 16:03:51.794257 16913 net.cpp:148] Top shape: 24 256 28 28 (4816896)
I0403 16:03:51.794273 16913 net.cpp:148] Top shape: 24 256 28 28 (4816896)
I0403 16:03:51.794287 16913 net.cpp:156] Memory required for data: 657507360
I0403 16:03:51.794301 16913 layer_factory.hpp:77] Creating layer inception_3b/1x1
I0403 16:03:51.794325 16913 net.cpp:91] Creating Layer inception_3b/1x1
I0403 16:03:51.794343 16913 net.cpp:425] inception_3b/1x1 <- inception_3a/output_inception_3a/output_0_split_0
I0403 16:03:51.794364 16913 net.cpp:399] inception_3b/1x1 -> inception_3b/1x1
I0403 16:03:51.795455 16913 net.cpp:141] Setting up inception_3b/1x1
I0403 16:03:51.795496 16913 net.cpp:148] Top shape: 24 128 28 28 (2408448)
I0403 16:03:51.795513 16913 net.cpp:156] Memory required for data: 667141152
I0403 16:03:51.795531 16913 layer_factory.hpp:77] Creating layer inception_3b/relu_1x1
I0403 16:03:51.795549 16913 net.cpp:91] Creating Layer inception_3b/relu_1x1
I0403 16:03:51.795565 16913 net.cpp:425] inception_3b/relu_1x1 <- inception_3b/1x1
I0403 16:03:51.795584 16913 net.cpp:386] inception_3b/relu_1x1 -> inception_3b/1x1 (in-place)
I0403 16:03:51.795766 16913 net.cpp:141] Setting up inception_3b/relu_1x1
I0403 16:03:51.795792 16913 net.cpp:148] Top shape: 24 128 28 28 (2408448)
I0403 16:03:51.795809 16913 net.cpp:156] Memory required for data: 676774944
I0403 16:03:51.795822 16913 layer_factory.hpp:77] Creating layer inception_3b/3x3_reduce
I0403 16:03:51.795845 16913 net.cpp:91] Creating Layer inception_3b/3x3_reduce
I0403 16:03:51.795863 16913 net.cpp:425] inception_3b/3x3_reduce <- inception_3a/output_inception_3a/output_0_split_1
I0403 16:03:51.795886 16913 net.cpp:399] inception_3b/3x3_reduce -> inception_3b/3x3_reduce
I0403 16:03:51.796973 16913 net.cpp:141] Setting up inception_3b/3x3_reduce
I0403 16:03:51.797003 16913 net.cpp:148] Top shape: 24 128 28 28 (2408448)
I0403 16:03:51.797020 16913 net.cpp:156] Memory required for data: 686408736
I0403 16:03:51.797037 16913 layer_factory.hpp:77] Creating layer inception_3b/relu_3x3_reduce
I0403 16:03:51.797056 16913 net.cpp:91] Creating Layer inception_3b/relu_3x3_reduce
I0403 16:03:51.797072 16913 net.cpp:425] inception_3b/relu_3x3_reduce <- inception_3b/3x3_reduce
I0403 16:03:51.797093 16913 net.cpp:386] inception_3b/relu_3x3_reduce -> inception_3b/3x3_reduce (in-place)
I0403 16:03:51.797258 16913 net.cpp:141] Setting up inception_3b/relu_3x3_reduce
I0403 16:03:51.797283 16913 net.cpp:148] Top shape: 24 128 28 28 (2408448)
I0403 16:03:51.797298 16913 net.cpp:156] Memory required for data: 696042528
I0403 16:03:51.797313 16913 layer_factory.hpp:77] Creating layer inception_3b/3x3
I0403 16:03:51.797338 16913 net.cpp:91] Creating Layer inception_3b/3x3
I0403 16:03:51.797358 16913 net.cpp:425] inception_3b/3x3 <- inception_3b/3x3_reduce
I0403 16:03:51.797376 16913 net.cpp:399] inception_3b/3x3 -> inception_3b/3x3
I0403 16:03:51.800235 16913 net.cpp:141] Setting up inception_3b/3x3
I0403 16:03:51.800266 16913 net.cpp:148] Top shape: 24 192 28 28 (3612672)
I0403 16:03:51.800282 16913 net.cpp:156] Memory required for data: 710493216
I0403 16:03:51.800300 16913 layer_factory.hpp:77] Creating layer inception_3b/relu_3x3
I0403 16:03:51.800323 16913 net.cpp:91] Creating Layer inception_3b/relu_3x3
I0403 16:03:51.800341 16913 net.cpp:425] inception_3b/relu_3x3 <- inception_3b/3x3
I0403 16:03:51.800359 16913 net.cpp:386] inception_3b/relu_3x3 -> inception_3b/3x3 (in-place)
I0403 16:03:51.800663 16913 net.cpp:141] Setting up inception_3b/relu_3x3
I0403 16:03:51.800691 16913 net.cpp:148] Top shape: 24 192 28 28 (3612672)
I0403 16:03:51.800709 16913 net.cpp:156] Memory required for data: 724943904
I0403 16:03:51.800724 16913 layer_factory.hpp:77] Creating layer inception_3b/5x5_reduce
I0403 16:03:51.800748 16913 net.cpp:91] Creating Layer inception_3b/5x5_reduce
I0403 16:03:51.800768 16913 net.cpp:425] inception_3b/5x5_reduce <- inception_3a/output_inception_3a/output_0_split_2
I0403 16:03:51.800802 16913 net.cpp:399] inception_3b/5x5_reduce -> inception_3b/5x5_reduce
I0403 16:03:51.801761 16913 net.cpp:141] Setting up inception_3b/5x5_reduce
I0403 16:03:51.801789 16913 net.cpp:148] Top shape: 24 32 28 28 (602112)
I0403 16:03:51.801805 16913 net.cpp:156] Memory required for data: 727352352
I0403 16:03:51.801825 16913 layer_factory.hpp:77] Creating layer inception_3b/relu_5x5_reduce
I0403 16:03:51.801844 16913 net.cpp:91] Creating Layer inception_3b/relu_5x5_reduce
I0403 16:03:51.801862 16913 net.cpp:425] inception_3b/relu_5x5_reduce <- inception_3b/5x5_reduce
I0403 16:03:51.801879 16913 net.cpp:386] inception_3b/relu_5x5_reduce -> inception_3b/5x5_reduce (in-place)
I0403 16:03:51.802049 16913 net.cpp:141] Setting up inception_3b/relu_5x5_reduce
I0403 16:03:51.802088 16913 net.cpp:148] Top shape: 24 32 28 28 (602112)
I0403 16:03:51.802105 16913 net.cpp:156] Memory required for data: 729760800
I0403 16:03:51.802120 16913 layer_factory.hpp:77] Creating layer inception_3b/5x5
I0403 16:03:51.802142 16913 net.cpp:91] Creating Layer inception_3b/5x5
I0403 16:03:51.802160 16913 net.cpp:425] inception_3b/5x5 <- inception_3b/5x5_reduce
I0403 16:03:51.802181 16913 net.cpp:399] inception_3b/5x5 -> inception_3b/5x5
I0403 16:03:51.804069 16913 net.cpp:141] Setting up inception_3b/5x5
I0403 16:03:51.804101 16913 net.cpp:148] Top shape: 24 96 28 28 (1806336)
I0403 16:03:51.804118 16913 net.cpp:156] Memory required for data: 736986144
I0403 16:03:51.804137 16913 layer_factory.hpp:77] Creating layer inception_3b/relu_5x5
I0403 16:03:51.804155 16913 net.cpp:91] Creating Layer inception_3b/relu_5x5
I0403 16:03:51.804172 16913 net.cpp:425] inception_3b/relu_5x5 <- inception_3b/5x5
I0403 16:03:51.804190 16913 net.cpp:386] inception_3b/relu_5x5 -> inception_3b/5x5 (in-place)
I0403 16:03:51.804373 16913 net.cpp:141] Setting up inception_3b/relu_5x5
I0403 16:03:51.804400 16913 net.cpp:148] Top shape: 24 96 28 28 (1806336)
I0403 16:03:51.804414 16913 net.cpp:156] Memory required for data: 744211488
I0403 16:03:51.804428 16913 layer_factory.hpp:77] Creating layer inception_3b/pool
I0403 16:03:51.804445 16913 net.cpp:91] Creating Layer inception_3b/pool
I0403 16:03:51.804461 16913 net.cpp:425] inception_3b/pool <- inception_3a/output_inception_3a/output_0_split_3
I0403 16:03:51.804481 16913 net.cpp:399] inception_3b/pool -> inception_3b/pool
I0403 16:03:51.804534 16913 net.cpp:141] Setting up inception_3b/pool
I0403 16:03:51.804558 16913 net.cpp:148] Top shape: 24 256 28 28 (4816896)
I0403 16:03:51.804571 16913 net.cpp:156] Memory required for data: 763479072
I0403 16:03:51.804585 16913 layer_factory.hpp:77] Creating layer inception_3b/pool_proj
I0403 16:03:51.804613 16913 net.cpp:91] Creating Layer inception_3b/pool_proj
I0403 16:03:51.804632 16913 net.cpp:425] inception_3b/pool_proj <- inception_3b/pool
I0403 16:03:51.804652 16913 net.cpp:399] inception_3b/pool_proj -> inception_3b/pool_proj
I0403 16:03:51.805698 16913 net.cpp:141] Setting up inception_3b/pool_proj
I0403 16:03:51.805728 16913 net.cpp:148] Top shape: 24 64 28 28 (1204224)
I0403 16:03:51.805745 16913 net.cpp:156] Memory required for data: 768295968
I0403 16:03:51.805765 16913 layer_factory.hpp:77] Creating layer inception_3b/relu_pool_proj
I0403 16:03:51.805786 16913 net.cpp:91] Creating Layer inception_3b/relu_pool_proj
I0403 16:03:51.805805 16913 net.cpp:425] inception_3b/relu_pool_proj <- inception_3b/pool_proj
I0403 16:03:51.805825 16913 net.cpp:386] inception_3b/relu_pool_proj -> inception_3b/pool_proj (in-place)
I0403 16:03:51.806222 16913 net.cpp:141] Setting up inception_3b/relu_pool_proj
I0403 16:03:51.806249 16913 net.cpp:148] Top shape: 24 64 28 28 (1204224)
I0403 16:03:51.806265 16913 net.cpp:156] Memory required for data: 773112864
I0403 16:03:51.806280 16913 layer_factory.hpp:77] Creating layer inception_3b/output
I0403 16:03:51.806301 16913 net.cpp:91] Creating Layer inception_3b/output
I0403 16:03:51.806319 16913 net.cpp:425] inception_3b/output <- inception_3b/1x1
I0403 16:03:51.806336 16913 net.cpp:425] inception_3b/output <- inception_3b/3x3
I0403 16:03:51.806352 16913 net.cpp:425] inception_3b/output <- inception_3b/5x5
I0403 16:03:51.806368 16913 net.cpp:425] inception_3b/output <- inception_3b/pool_proj
I0403 16:03:51.806386 16913 net.cpp:399] inception_3b/output -> inception_3b/output
I0403 16:03:51.806430 16913 net.cpp:141] Setting up inception_3b/output
I0403 16:03:51.806455 16913 net.cpp:148] Top shape: 24 480 28 28 (9031680)
I0403 16:03:51.806470 16913 net.cpp:156] Memory required for data: 809239584
I0403 16:03:51.806485 16913 layer_factory.hpp:77] Creating layer pool3/3x3_s2
I0403 16:03:51.806504 16913 net.cpp:91] Creating Layer pool3/3x3_s2
I0403 16:03:51.806519 16913 net.cpp:425] pool3/3x3_s2 <- inception_3b/output
I0403 16:03:51.806540 16913 net.cpp:399] pool3/3x3_s2 -> pool3/3x3_s2
I0403 16:03:51.806617 16913 net.cpp:141] Setting up pool3/3x3_s2
I0403 16:03:51.806644 16913 net.cpp:148] Top shape: 24 480 14 14 (2257920)
I0403 16:03:51.806660 16913 net.cpp:156] Memory required for data: 818271264
I0403 16:03:51.806675 16913 layer_factory.hpp:77] Creating layer pool3/3x3_s2_pool3/3x3_s2_0_split
I0403 16:03:51.806694 16913 net.cpp:91] Creating Layer pool3/3x3_s2_pool3/3x3_s2_0_split
I0403 16:03:51.806709 16913 net.cpp:425] pool3/3x3_s2_pool3/3x3_s2_0_split <- pool3/3x3_s2
I0403 16:03:51.806725 16913 net.cpp:399] pool3/3x3_s2_pool3/3x3_s2_0_split -> pool3/3x3_s2_pool3/3x3_s2_0_split_0
I0403 16:03:51.806747 16913 net.cpp:399] pool3/3x3_s2_pool3/3x3_s2_0_split -> pool3/3x3_s2_pool3/3x3_s2_0_split_1
I0403 16:03:51.806768 16913 net.cpp:399] pool3/3x3_s2_pool3/3x3_s2_0_split -> pool3/3x3_s2_pool3/3x3_s2_0_split_2
I0403 16:03:51.806788 16913 net.cpp:399] pool3/3x3_s2_pool3/3x3_s2_0_split -> pool3/3x3_s2_pool3/3x3_s2_0_split_3
I0403 16:03:51.806864 16913 net.cpp:141] Setting up pool3/3x3_s2_pool3/3x3_s2_0_split
I0403 16:03:51.806888 16913 net.cpp:148] Top shape: 24 480 14 14 (2257920)
I0403 16:03:51.806905 16913 net.cpp:148] Top shape: 24 480 14 14 (2257920)
I0403 16:03:51.806921 16913 net.cpp:148] Top shape: 24 480 14 14 (2257920)
I0403 16:03:51.806936 16913 net.cpp:148] Top shape: 24 480 14 14 (2257920)
I0403 16:03:51.806951 16913 net.cpp:156] Memory required for data: 854397984
I0403 16:03:51.806965 16913 layer_factory.hpp:77] Creating layer inception_4a/1x1
I0403 16:03:51.806988 16913 net.cpp:91] Creating Layer inception_4a/1x1
I0403 16:03:51.807005 16913 net.cpp:425] inception_4a/1x1 <- pool3/3x3_s2_pool3/3x3_s2_0_split_0
I0403 16:03:51.807029 16913 net.cpp:399] inception_4a/1x1 -> inception_4a/1x1
I0403 16:03:51.808593 16913 net.cpp:141] Setting up inception_4a/1x1
I0403 16:03:51.808624 16913 net.cpp:148] Top shape: 24 192 14 14 (903168)
I0403 16:03:51.808642 16913 net.cpp:156] Memory required for data: 858010656
I0403 16:03:51.808661 16913 layer_factory.hpp:77] Creating layer inception_4a/relu_1x1
I0403 16:03:51.808682 16913 net.cpp:91] Creating Layer inception_4a/relu_1x1
I0403 16:03:51.808701 16913 net.cpp:425] inception_4a/relu_1x1 <- inception_4a/1x1
I0403 16:03:51.808718 16913 net.cpp:386] inception_4a/relu_1x1 -> inception_4a/1x1 (in-place)
I0403 16:03:51.808898 16913 net.cpp:141] Setting up inception_4a/relu_1x1
I0403 16:03:51.808924 16913 net.cpp:148] Top shape: 24 192 14 14 (903168)
I0403 16:03:51.808940 16913 net.cpp:156] Memory required for data: 861623328
I0403 16:03:51.808954 16913 layer_factory.hpp:77] Creating layer inception_4a/3x3_reduce
I0403 16:03:51.808977 16913 net.cpp:91] Creating Layer inception_4a/3x3_reduce
I0403 16:03:51.808996 16913 net.cpp:425] inception_4a/3x3_reduce <- pool3/3x3_s2_pool3/3x3_s2_0_split_1
I0403 16:03:51.809018 16913 net.cpp:399] inception_4a/3x3_reduce -> inception_4a/3x3_reduce
I0403 16:03:51.810286 16913 net.cpp:141] Setting up inception_4a/3x3_reduce
I0403 16:03:51.810317 16913 net.cpp:148] Top shape: 24 96 14 14 (451584)
I0403 16:03:51.810336 16913 net.cpp:156] Memory required for data: 863429664
I0403 16:03:51.810359 16913 layer_factory.hpp:77] Creating layer inception_4a/relu_3x3_reduce
I0403 16:03:51.810381 16913 net.cpp:91] Creating Layer inception_4a/relu_3x3_reduce
I0403 16:03:51.810400 16913 net.cpp:425] inception_4a/relu_3x3_reduce <- inception_4a/3x3_reduce
I0403 16:03:51.810418 16913 net.cpp:386] inception_4a/relu_3x3_reduce -> inception_4a/3x3_reduce (in-place)
I0403 16:03:51.810593 16913 net.cpp:141] Setting up inception_4a/relu_3x3_reduce
I0403 16:03:51.810626 16913 net.cpp:148] Top shape: 24 96 14 14 (451584)
I0403 16:03:51.810644 16913 net.cpp:156] Memory required for data: 865236000
I0403 16:03:51.810659 16913 layer_factory.hpp:77] Creating layer inception_4a/3x3
I0403 16:03:51.810683 16913 net.cpp:91] Creating Layer inception_4a/3x3
I0403 16:03:51.810701 16913 net.cpp:425] inception_4a/3x3 <- inception_4a/3x3_reduce
I0403 16:03:51.810721 16913 net.cpp:399] inception_4a/3x3 -> inception_4a/3x3
I0403 16:03:51.813369 16913 net.cpp:141] Setting up inception_4a/3x3
I0403 16:03:51.813401 16913 net.cpp:148] Top shape: 24 208 14 14 (978432)
I0403 16:03:51.813419 16913 net.cpp:156] Memory required for data: 869149728
I0403 16:03:51.813438 16913 layer_factory.hpp:77] Creating layer inception_4a/relu_3x3
I0403 16:03:51.813457 16913 net.cpp:91] Creating Layer inception_4a/relu_3x3
I0403 16:03:51.813474 16913 net.cpp:425] inception_4a/relu_3x3 <- inception_4a/3x3
I0403 16:03:51.813496 16913 net.cpp:386] inception_4a/relu_3x3 -> inception_4a/3x3 (in-place)
I0403 16:03:51.813778 16913 net.cpp:141] Setting up inception_4a/relu_3x3
I0403 16:03:51.813808 16913 net.cpp:148] Top shape: 24 208 14 14 (978432)
I0403 16:03:51.813825 16913 net.cpp:156] Memory required for data: 873063456
I0403 16:03:51.813841 16913 layer_factory.hpp:77] Creating layer inception_4a/5x5_reduce
I0403 16:03:51.813864 16913 net.cpp:91] Creating Layer inception_4a/5x5_reduce
I0403 16:03:51.813882 16913 net.cpp:425] inception_4a/5x5_reduce <- pool3/3x3_s2_pool3/3x3_s2_0_split_2
I0403 16:03:51.813902 16913 net.cpp:399] inception_4a/5x5_reduce -> inception_4a/5x5_reduce
I0403 16:03:51.814916 16913 net.cpp:141] Setting up inception_4a/5x5_reduce
I0403 16:03:51.814945 16913 net.cpp:148] Top shape: 24 16 14 14 (75264)
I0403 16:03:51.814962 16913 net.cpp:156] Memory required for data: 873364512
I0403 16:03:51.814981 16913 layer_factory.hpp:77] Creating layer inception_4a/relu_5x5_reduce
I0403 16:03:51.815001 16913 net.cpp:91] Creating Layer inception_4a/relu_5x5_reduce
I0403 16:03:51.815021 16913 net.cpp:425] inception_4a/relu_5x5_reduce <- inception_4a/5x5_reduce
I0403 16:03:51.815038 16913 net.cpp:386] inception_4a/relu_5x5_reduce -> inception_4a/5x5_reduce (in-place)
I0403 16:03:51.815217 16913 net.cpp:141] Setting up inception_4a/relu_5x5_reduce
I0403 16:03:51.815243 16913 net.cpp:148] Top shape: 24 16 14 14 (75264)
I0403 16:03:51.815258 16913 net.cpp:156] Memory required for data: 873665568
I0403 16:03:51.815274 16913 layer_factory.hpp:77] Creating layer inception_4a/5x5
I0403 16:03:51.815296 16913 net.cpp:91] Creating Layer inception_4a/5x5
I0403 16:03:51.815315 16913 net.cpp:425] inception_4a/5x5 <- inception_4a/5x5_reduce
I0403 16:03:51.815336 16913 net.cpp:399] inception_4a/5x5 -> inception_4a/5x5
I0403 16:03:51.816417 16913 net.cpp:141] Setting up inception_4a/5x5
I0403 16:03:51.816447 16913 net.cpp:148] Top shape: 24 48 14 14 (225792)
I0403 16:03:51.816462 16913 net.cpp:156] Memory required for data: 874568736
I0403 16:03:51.816481 16913 layer_factory.hpp:77] Creating layer inception_4a/relu_5x5
I0403 16:03:51.816503 16913 net.cpp:91] Creating Layer inception_4a/relu_5x5
I0403 16:03:51.816520 16913 net.cpp:425] inception_4a/relu_5x5 <- inception_4a/5x5
I0403 16:03:51.816539 16913 net.cpp:386] inception_4a/relu_5x5 -> inception_4a/5x5 (in-place)
I0403 16:03:51.816722 16913 net.cpp:141] Setting up inception_4a/relu_5x5
I0403 16:03:51.816751 16913 net.cpp:148] Top shape: 24 48 14 14 (225792)
I0403 16:03:51.816768 16913 net.cpp:156] Memory required for data: 875471904
I0403 16:03:51.816783 16913 layer_factory.hpp:77] Creating layer inception_4a/pool
I0403 16:03:51.816802 16913 net.cpp:91] Creating Layer inception_4a/pool
I0403 16:03:51.816817 16913 net.cpp:425] inception_4a/pool <- pool3/3x3_s2_pool3/3x3_s2_0_split_3
I0403 16:03:51.816838 16913 net.cpp:399] inception_4a/pool -> inception_4a/pool
I0403 16:03:51.816901 16913 net.cpp:141] Setting up inception_4a/pool
I0403 16:03:51.816926 16913 net.cpp:148] Top shape: 24 480 14 14 (2257920)
I0403 16:03:51.816941 16913 net.cpp:156] Memory required for data: 884503584
I0403 16:03:51.816957 16913 layer_factory.hpp:77] Creating layer inception_4a/pool_proj
I0403 16:03:51.816980 16913 net.cpp:91] Creating Layer inception_4a/pool_proj
I0403 16:03:51.816998 16913 net.cpp:425] inception_4a/pool_proj <- inception_4a/pool
I0403 16:03:51.817021 16913 net.cpp:399] inception_4a/pool_proj -> inception_4a/pool_proj
I0403 16:03:51.818178 16913 net.cpp:141] Setting up inception_4a/pool_proj
I0403 16:03:51.818212 16913 net.cpp:148] Top shape: 24 64 14 14 (301056)
I0403 16:03:51.818243 16913 net.cpp:156] Memory required for data: 885707808
I0403 16:03:51.818262 16913 layer_factory.hpp:77] Creating layer inception_4a/relu_pool_proj
I0403 16:03:51.818281 16913 net.cpp:91] Creating Layer inception_4a/relu_pool_proj
I0403 16:03:51.818300 16913 net.cpp:425] inception_4a/relu_pool_proj <- inception_4a/pool_proj
I0403 16:03:51.818316 16913 net.cpp:386] inception_4a/relu_pool_proj -> inception_4a/pool_proj (in-place)
I0403 16:03:51.818605 16913 net.cpp:141] Setting up inception_4a/relu_pool_proj
I0403 16:03:51.818636 16913 net.cpp:148] Top shape: 24 64 14 14 (301056)
I0403 16:03:51.818653 16913 net.cpp:156] Memory required for data: 886912032
I0403 16:03:51.818670 16913 layer_factory.hpp:77] Creating layer inception_4a/output
I0403 16:03:51.818687 16913 net.cpp:91] Creating Layer inception_4a/output
I0403 16:03:51.818702 16913 net.cpp:425] inception_4a/output <- inception_4a/1x1
I0403 16:03:51.818720 16913 net.cpp:425] inception_4a/output <- inception_4a/3x3
I0403 16:03:51.818737 16913 net.cpp:425] inception_4a/output <- inception_4a/5x5
I0403 16:03:51.818753 16913 net.cpp:425] inception_4a/output <- inception_4a/pool_proj
I0403 16:03:51.818771 16913 net.cpp:399] inception_4a/output -> inception_4a/output
I0403 16:03:51.818819 16913 net.cpp:141] Setting up inception_4a/output
I0403 16:03:51.818843 16913 net.cpp:148] Top shape: 24 512 14 14 (2408448)
I0403 16:03:51.818857 16913 net.cpp:156] Memory required for data: 896545824
I0403 16:03:51.818872 16913 layer_factory.hpp:77] Creating layer inception_4a/output_inception_4a/output_0_split
I0403 16:03:51.818889 16913 net.cpp:91] Creating Layer inception_4a/output_inception_4a/output_0_split
I0403 16:03:51.818908 16913 net.cpp:425] inception_4a/output_inception_4a/output_0_split <- inception_4a/output
I0403 16:03:51.818927 16913 net.cpp:399] inception_4a/output_inception_4a/output_0_split -> inception_4a/output_inception_4a/output_0_split_0
I0403 16:03:51.818948 16913 net.cpp:399] inception_4a/output_inception_4a/output_0_split -> inception_4a/output_inception_4a/output_0_split_1
I0403 16:03:51.818969 16913 net.cpp:399] inception_4a/output_inception_4a/output_0_split -> inception_4a/output_inception_4a/output_0_split_2
I0403 16:03:51.818989 16913 net.cpp:399] inception_4a/output_inception_4a/output_0_split -> inception_4a/output_inception_4a/output_0_split_3
I0403 16:03:51.819008 16913 net.cpp:399] inception_4a/output_inception_4a/output_0_split -> inception_4a/output_inception_4a/output_0_split_4
I0403 16:03:51.819102 16913 net.cpp:141] Setting up inception_4a/output_inception_4a/output_0_split
I0403 16:03:51.819125 16913 net.cpp:148] Top shape: 24 512 14 14 (2408448)
I0403 16:03:51.819142 16913 net.cpp:148] Top shape: 24 512 14 14 (2408448)
I0403 16:03:51.819159 16913 net.cpp:148] Top shape: 24 512 14 14 (2408448)
I0403 16:03:51.819175 16913 net.cpp:148] Top shape: 24 512 14 14 (2408448)
I0403 16:03:51.819191 16913 net.cpp:148] Top shape: 24 512 14 14 (2408448)
I0403 16:03:51.819205 16913 net.cpp:156] Memory required for data: 944714784
I0403 16:03:51.819221 16913 layer_factory.hpp:77] Creating layer loss1/ave_pool
I0403 16:03:51.819238 16913 net.cpp:91] Creating Layer loss1/ave_pool
I0403 16:03:51.819255 16913 net.cpp:425] loss1/ave_pool <- inception_4a/output_inception_4a/output_0_split_0
I0403 16:03:51.819277 16913 net.cpp:399] loss1/ave_pool -> loss1/ave_pool
I0403 16:03:51.819485 16913 net.cpp:141] Setting up loss1/ave_pool
I0403 16:03:51.819514 16913 net.cpp:148] Top shape: 24 512 4 4 (196608)
I0403 16:03:51.819530 16913 net.cpp:156] Memory required for data: 945501216
I0403 16:03:51.819545 16913 layer_factory.hpp:77] Creating layer loss1/conv
I0403 16:03:51.819567 16913 net.cpp:91] Creating Layer loss1/conv
I0403 16:03:51.819583 16913 net.cpp:425] loss1/conv <- loss1/ave_pool
I0403 16:03:51.819609 16913 net.cpp:399] loss1/conv -> loss1/conv
I0403 16:03:51.821012 16913 net.cpp:141] Setting up loss1/conv
I0403 16:03:51.821043 16913 net.cpp:148] Top shape: 24 128 4 4 (49152)
I0403 16:03:51.821059 16913 net.cpp:156] Memory required for data: 945697824
I0403 16:03:51.821094 16913 layer_factory.hpp:77] Creating layer loss1/relu_conv
I0403 16:03:51.821115 16913 net.cpp:91] Creating Layer loss1/relu_conv
I0403 16:03:51.821131 16913 net.cpp:425] loss1/relu_conv <- loss1/conv
I0403 16:03:51.821151 16913 net.cpp:386] loss1/relu_conv -> loss1/conv (in-place)
I0403 16:03:51.821430 16913 net.cpp:141] Setting up loss1/relu_conv
I0403 16:03:51.821460 16913 net.cpp:148] Top shape: 24 128 4 4 (49152)
I0403 16:03:51.821478 16913 net.cpp:156] Memory required for data: 945894432
I0403 16:03:51.821494 16913 layer_factory.hpp:77] Creating layer loss1/fc
I0403 16:03:51.821518 16913 net.cpp:91] Creating Layer loss1/fc
I0403 16:03:51.821537 16913 net.cpp:425] loss1/fc <- loss1/conv
I0403 16:03:51.821557 16913 net.cpp:399] loss1/fc -> loss1/fc
I0403 16:03:51.838843 16913 net.cpp:141] Setting up loss1/fc
I0403 16:03:51.838877 16913 net.cpp:148] Top shape: 24 1024 (24576)
I0403 16:03:51.838894 16913 net.cpp:156] Memory required for data: 945992736
I0403 16:03:51.838913 16913 layer_factory.hpp:77] Creating layer loss1/relu_fc
I0403 16:03:51.838933 16913 net.cpp:91] Creating Layer loss1/relu_fc
I0403 16:03:51.838949 16913 net.cpp:425] loss1/relu_fc <- loss1/fc
I0403 16:03:51.838968 16913 net.cpp:386] loss1/relu_fc -> loss1/fc (in-place)
I0403 16:03:51.839148 16913 net.cpp:141] Setting up loss1/relu_fc
I0403 16:03:51.839174 16913 net.cpp:148] Top shape: 24 1024 (24576)
I0403 16:03:51.839190 16913 net.cpp:156] Memory required for data: 946091040
I0403 16:03:51.839205 16913 layer_factory.hpp:77] Creating layer loss1/drop_fc
I0403 16:03:51.839231 16913 net.cpp:91] Creating Layer loss1/drop_fc
I0403 16:03:51.839247 16913 net.cpp:425] loss1/drop_fc <- loss1/fc
I0403 16:03:51.839267 16913 net.cpp:386] loss1/drop_fc -> loss1/fc (in-place)
I0403 16:03:51.839318 16913 net.cpp:141] Setting up loss1/drop_fc
I0403 16:03:51.839342 16913 net.cpp:148] Top shape: 24 1024 (24576)
I0403 16:03:51.839356 16913 net.cpp:156] Memory required for data: 946189344
I0403 16:03:51.839371 16913 layer_factory.hpp:77] Creating layer loss1/classifier_plantvillage
I0403 16:03:51.839392 16913 net.cpp:91] Creating Layer loss1/classifier_plantvillage
I0403 16:03:51.839411 16913 net.cpp:425] loss1/classifier_plantvillage <- loss1/fc
I0403 16:03:51.839428 16913 net.cpp:399] loss1/classifier_plantvillage -> loss1/classifier_plantvillage
I0403 16:03:51.840309 16913 net.cpp:141] Setting up loss1/classifier_plantvillage
I0403 16:03:51.840340 16913 net.cpp:148] Top shape: 24 38 (912)
I0403 16:03:51.840358 16913 net.cpp:156] Memory required for data: 946192992
I0403 16:03:51.840375 16913 layer_factory.hpp:77] Creating layer loss1/classifier_plantvillage_loss1/classifier_plantvillage_0_split
I0403 16:03:51.840392 16913 net.cpp:91] Creating Layer loss1/classifier_plantvillage_loss1/classifier_plantvillage_0_split
I0403 16:03:51.840409 16913 net.cpp:425] loss1/classifier_plantvillage_loss1/classifier_plantvillage_0_split <- loss1/classifier_plantvillage
I0403 16:03:51.840427 16913 net.cpp:399] loss1/classifier_plantvillage_loss1/classifier_plantvillage_0_split -> loss1/classifier_plantvillage_loss1/classifier_plantvillage_0_split_0
I0403 16:03:51.840450 16913 net.cpp:399] loss1/classifier_plantvillage_loss1/classifier_plantvillage_0_split -> loss1/classifier_plantvillage_loss1/classifier_plantvillage_0_split_1
I0403 16:03:51.840469 16913 net.cpp:399] loss1/classifier_plantvillage_loss1/classifier_plantvillage_0_split -> loss1/classifier_plantvillage_loss1/classifier_plantvillage_0_split_2
I0403 16:03:51.840534 16913 net.cpp:141] Setting up loss1/classifier_plantvillage_loss1/classifier_plantvillage_0_split
I0403 16:03:51.840558 16913 net.cpp:148] Top shape: 24 38 (912)
I0403 16:03:51.840574 16913 net.cpp:148] Top shape: 24 38 (912)
I0403 16:03:51.840591 16913 net.cpp:148] Top shape: 24 38 (912)
I0403 16:03:51.840610 16913 net.cpp:156] Memory required for data: 946203936
I0403 16:03:51.840626 16913 layer_factory.hpp:77] Creating layer inception_4b/1x1
I0403 16:03:51.840648 16913 net.cpp:91] Creating Layer inception_4b/1x1
I0403 16:03:51.840679 16913 net.cpp:425] inception_4b/1x1 <- inception_4a/output_inception_4a/output_0_split_1
I0403 16:03:51.840700 16913 net.cpp:399] inception_4b/1x1 -> inception_4b/1x1
I0403 16:03:51.842288 16913 net.cpp:141] Setting up inception_4b/1x1
I0403 16:03:51.842316 16913 net.cpp:148] Top shape: 24 160 14 14 (752640)
I0403 16:03:51.842332 16913 net.cpp:156] Memory required for data: 949214496
I0403 16:03:51.842350 16913 layer_factory.hpp:77] Creating layer inception_4b/relu_1x1
I0403 16:03:51.842368 16913 net.cpp:91] Creating Layer inception_4b/relu_1x1
I0403 16:03:51.842384 16913 net.cpp:425] inception_4b/relu_1x1 <- inception_4b/1x1
I0403 16:03:51.842403 16913 net.cpp:386] inception_4b/relu_1x1 -> inception_4b/1x1 (in-place)
I0403 16:03:51.842583 16913 net.cpp:141] Setting up inception_4b/relu_1x1
I0403 16:03:51.842613 16913 net.cpp:148] Top shape: 24 160 14 14 (752640)
I0403 16:03:51.842631 16913 net.cpp:156] Memory required for data: 952225056
I0403 16:03:51.842645 16913 layer_factory.hpp:77] Creating layer inception_4b/3x3_reduce
I0403 16:03:51.842669 16913 net.cpp:91] Creating Layer inception_4b/3x3_reduce
I0403 16:03:51.842685 16913 net.cpp:425] inception_4b/3x3_reduce <- inception_4a/output_inception_4a/output_0_split_2
I0403 16:03:51.842707 16913 net.cpp:399] inception_4b/3x3_reduce -> inception_4b/3x3_reduce
I0403 16:03:51.844017 16913 net.cpp:141] Setting up inception_4b/3x3_reduce
I0403 16:03:51.844046 16913 net.cpp:148] Top shape: 24 112 14 14 (526848)
I0403 16:03:51.844063 16913 net.cpp:156] Memory required for data: 954332448
I0403 16:03:51.844080 16913 layer_factory.hpp:77] Creating layer inception_4b/relu_3x3_reduce
I0403 16:03:51.844101 16913 net.cpp:91] Creating Layer inception_4b/relu_3x3_reduce
I0403 16:03:51.844120 16913 net.cpp:425] inception_4b/relu_3x3_reduce <- inception_4b/3x3_reduce
I0403 16:03:51.844138 16913 net.cpp:386] inception_4b/relu_3x3_reduce -> inception_4b/3x3_reduce (in-place)
I0403 16:03:51.844413 16913 net.cpp:141] Setting up inception_4b/relu_3x3_reduce
I0403 16:03:51.844440 16913 net.cpp:148] Top shape: 24 112 14 14 (526848)
I0403 16:03:51.844456 16913 net.cpp:156] Memory required for data: 956439840
I0403 16:03:51.844471 16913 layer_factory.hpp:77] Creating layer inception_4b/3x3
I0403 16:03:51.844493 16913 net.cpp:91] Creating Layer inception_4b/3x3
I0403 16:03:51.844512 16913 net.cpp:425] inception_4b/3x3 <- inception_4b/3x3_reduce
I0403 16:03:51.844533 16913 net.cpp:399] inception_4b/3x3 -> inception_4b/3x3
I0403 16:03:51.847420 16913 net.cpp:141] Setting up inception_4b/3x3
I0403 16:03:51.847451 16913 net.cpp:148] Top shape: 24 224 14 14 (1053696)
I0403 16:03:51.847468 16913 net.cpp:156] Memory required for data: 960654624
I0403 16:03:51.847487 16913 layer_factory.hpp:77] Creating layer inception_4b/relu_3x3
I0403 16:03:51.847506 16913 net.cpp:91] Creating Layer inception_4b/relu_3x3
I0403 16:03:51.847522 16913 net.cpp:425] inception_4b/relu_3x3 <- inception_4b/3x3
I0403 16:03:51.847543 16913 net.cpp:386] inception_4b/relu_3x3 -> inception_4b/3x3 (in-place)
I0403 16:03:51.847725 16913 net.cpp:141] Setting up inception_4b/relu_3x3
I0403 16:03:51.847751 16913 net.cpp:148] Top shape: 24 224 14 14 (1053696)
I0403 16:03:51.847767 16913 net.cpp:156] Memory required for data: 964869408
I0403 16:03:51.847782 16913 layer_factory.hpp:77] Creating layer inception_4b/5x5_reduce
I0403 16:03:51.847805 16913 net.cpp:91] Creating Layer inception_4b/5x5_reduce
I0403 16:03:51.847821 16913 net.cpp:425] inception_4b/5x5_reduce <- inception_4a/output_inception_4a/output_0_split_3
I0403 16:03:51.847843 16913 net.cpp:399] inception_4b/5x5_reduce -> inception_4b/5x5_reduce
I0403 16:03:51.848896 16913 net.cpp:141] Setting up inception_4b/5x5_reduce
I0403 16:03:51.848924 16913 net.cpp:148] Top shape: 24 24 14 14 (112896)
I0403 16:03:51.848940 16913 net.cpp:156] Memory required for data: 965320992
I0403 16:03:51.848958 16913 layer_factory.hpp:77] Creating layer inception_4b/relu_5x5_reduce
I0403 16:03:51.848976 16913 net.cpp:91] Creating Layer inception_4b/relu_5x5_reduce
I0403 16:03:51.849007 16913 net.cpp:425] inception_4b/relu_5x5_reduce <- inception_4b/5x5_reduce
I0403 16:03:51.849028 16913 net.cpp:386] inception_4b/relu_5x5_reduce -> inception_4b/5x5_reduce (in-place)
I0403 16:03:51.849207 16913 net.cpp:141] Setting up inception_4b/relu_5x5_reduce
I0403 16:03:51.849232 16913 net.cpp:148] Top shape: 24 24 14 14 (112896)
I0403 16:03:51.849247 16913 net.cpp:156] Memory required for data: 965772576
I0403 16:03:51.849262 16913 layer_factory.hpp:77] Creating layer inception_4b/5x5
I0403 16:03:51.849285 16913 net.cpp:91] Creating Layer inception_4b/5x5
I0403 16:03:51.849301 16913 net.cpp:425] inception_4b/5x5 <- inception_4b/5x5_reduce
I0403 16:03:51.849323 16913 net.cpp:399] inception_4b/5x5 -> inception_4b/5x5
I0403 16:03:51.850513 16913 net.cpp:141] Setting up inception_4b/5x5
I0403 16:03:51.850541 16913 net.cpp:148] Top shape: 24 64 14 14 (301056)
I0403 16:03:51.850558 16913 net.cpp:156] Memory required for data: 966976800
I0403 16:03:51.850577 16913 layer_factory.hpp:77] Creating layer inception_4b/relu_5x5
I0403 16:03:51.850594 16913 net.cpp:91] Creating Layer inception_4b/relu_5x5
I0403 16:03:51.850616 16913 net.cpp:425] inception_4b/relu_5x5 <- inception_4b/5x5
I0403 16:03:51.850637 16913 net.cpp:386] inception_4b/relu_5x5 -> inception_4b/5x5 (in-place)
I0403 16:03:51.850921 16913 net.cpp:141] Setting up inception_4b/relu_5x5
I0403 16:03:51.850949 16913 net.cpp:148] Top shape: 24 64 14 14 (301056)
I0403 16:03:51.850963 16913 net.cpp:156] Memory required for data: 968181024
I0403 16:03:51.850977 16913 layer_factory.hpp:77] Creating layer inception_4b/pool
I0403 16:03:51.850996 16913 net.cpp:91] Creating Layer inception_4b/pool
I0403 16:03:51.851011 16913 net.cpp:425] inception_4b/pool <- inception_4a/output_inception_4a/output_0_split_4
I0403 16:03:51.851032 16913 net.cpp:399] inception_4b/pool -> inception_4b/pool
I0403 16:03:51.851095 16913 net.cpp:141] Setting up inception_4b/pool
I0403 16:03:51.851121 16913 net.cpp:148] Top shape: 24 512 14 14 (2408448)
I0403 16:03:51.851136 16913 net.cpp:156] Memory required for data: 977814816
I0403 16:03:51.851151 16913 layer_factory.hpp:77] Creating layer inception_4b/pool_proj
I0403 16:03:51.851172 16913 net.cpp:91] Creating Layer inception_4b/pool_proj
I0403 16:03:51.851189 16913 net.cpp:425] inception_4b/pool_proj <- inception_4b/pool
I0403 16:03:51.851209 16913 net.cpp:399] inception_4b/pool_proj -> inception_4b/pool_proj
I0403 16:03:51.852375 16913 net.cpp:141] Setting up inception_4b/pool_proj
I0403 16:03:51.852401 16913 net.cpp:148] Top shape: 24 64 14 14 (301056)
I0403 16:03:51.852417 16913 net.cpp:156] Memory required for data: 979019040
I0403 16:03:51.852435 16913 layer_factory.hpp:77] Creating layer inception_4b/relu_pool_proj
I0403 16:03:51.852455 16913 net.cpp:91] Creating Layer inception_4b/relu_pool_proj
I0403 16:03:51.852474 16913 net.cpp:425] inception_4b/relu_pool_proj <- inception_4b/pool_proj
I0403 16:03:51.852493 16913 net.cpp:386] inception_4b/relu_pool_proj -> inception_4b/pool_proj (in-place)
I0403 16:03:51.852675 16913 net.cpp:141] Setting up inception_4b/relu_pool_proj
I0403 16:03:51.852702 16913 net.cpp:148] Top shape: 24 64 14 14 (301056)
I0403 16:03:51.852716 16913 net.cpp:156] Memory required for data: 980223264
I0403 16:03:51.852731 16913 layer_factory.hpp:77] Creating layer inception_4b/output
I0403 16:03:51.852751 16913 net.cpp:91] Creating Layer inception_4b/output
I0403 16:03:51.852771 16913 net.cpp:425] inception_4b/output <- inception_4b/1x1
I0403 16:03:51.852787 16913 net.cpp:425] inception_4b/output <- inception_4b/3x3
I0403 16:03:51.852803 16913 net.cpp:425] inception_4b/output <- inception_4b/5x5
I0403 16:03:51.852819 16913 net.cpp:425] inception_4b/output <- inception_4b/pool_proj
I0403 16:03:51.852836 16913 net.cpp:399] inception_4b/output -> inception_4b/output
I0403 16:03:51.852881 16913 net.cpp:141] Setting up inception_4b/output
I0403 16:03:51.852905 16913 net.cpp:148] Top shape: 24 512 14 14 (2408448)
I0403 16:03:51.852921 16913 net.cpp:156] Memory required for data: 989857056
I0403 16:03:51.852951 16913 layer_factory.hpp:77] Creating layer inception_4b/output_inception_4b/output_0_split
I0403 16:03:51.852967 16913 net.cpp:91] Creating Layer inception_4b/output_inception_4b/output_0_split
I0403 16:03:51.852983 16913 net.cpp:425] inception_4b/output_inception_4b/output_0_split <- inception_4b/output
I0403 16:03:51.853003 16913 net.cpp:399] inception_4b/output_inception_4b/output_0_split -> inception_4b/output_inception_4b/output_0_split_0
I0403 16:03:51.853025 16913 net.cpp:399] inception_4b/output_inception_4b/output_0_split -> inception_4b/output_inception_4b/output_0_split_1
I0403 16:03:51.853047 16913 net.cpp:399] inception_4b/output_inception_4b/output_0_split -> inception_4b/output_inception_4b/output_0_split_2
I0403 16:03:51.853067 16913 net.cpp:399] inception_4b/output_inception_4b/output_0_split -> inception_4b/output_inception_4b/output_0_split_3
I0403 16:03:51.853148 16913 net.cpp:141] Setting up inception_4b/output_inception_4b/output_0_split
I0403 16:03:51.853174 16913 net.cpp:148] Top shape: 24 512 14 14 (2408448)
I0403 16:03:51.853191 16913 net.cpp:148] Top shape: 24 512 14 14 (2408448)
I0403 16:03:51.853207 16913 net.cpp:148] Top shape: 24 512 14 14 (2408448)
I0403 16:03:51.853224 16913 net.cpp:148] Top shape: 24 512 14 14 (2408448)
I0403 16:03:51.853237 16913 net.cpp:156] Memory required for data: 1028392224
I0403 16:03:51.853251 16913 layer_factory.hpp:77] Creating layer inception_4c/1x1
I0403 16:03:51.853272 16913 net.cpp:91] Creating Layer inception_4c/1x1
I0403 16:03:51.853289 16913 net.cpp:425] inception_4c/1x1 <- inception_4b/output_inception_4b/output_0_split_0
I0403 16:03:51.853308 16913 net.cpp:399] inception_4c/1x1 -> inception_4c/1x1
I0403 16:03:51.854786 16913 net.cpp:141] Setting up inception_4c/1x1
I0403 16:03:51.854815 16913 net.cpp:148] Top shape: 24 128 14 14 (602112)
I0403 16:03:51.854831 16913 net.cpp:156] Memory required for data: 1030800672
I0403 16:03:51.854849 16913 layer_factory.hpp:77] Creating layer inception_4c/relu_1x1
I0403 16:03:51.854871 16913 net.cpp:91] Creating Layer inception_4c/relu_1x1
I0403 16:03:51.854888 16913 net.cpp:425] inception_4c/relu_1x1 <- inception_4c/1x1
I0403 16:03:51.854907 16913 net.cpp:386] inception_4c/relu_1x1 -> inception_4c/1x1 (in-place)
I0403 16:03:51.855090 16913 net.cpp:141] Setting up inception_4c/relu_1x1
I0403 16:03:51.855116 16913 net.cpp:148] Top shape: 24 128 14 14 (602112)
I0403 16:03:51.855131 16913 net.cpp:156] Memory required for data: 1033209120
I0403 16:03:51.855146 16913 layer_factory.hpp:77] Creating layer inception_4c/3x3_reduce
I0403 16:03:51.855168 16913 net.cpp:91] Creating Layer inception_4c/3x3_reduce
I0403 16:03:51.855187 16913 net.cpp:425] inception_4c/3x3_reduce <- inception_4b/output_inception_4b/output_0_split_1
I0403 16:03:51.855211 16913 net.cpp:399] inception_4c/3x3_reduce -> inception_4c/3x3_reduce
I0403 16:03:51.857167 16913 net.cpp:141] Setting up inception_4c/3x3_reduce
I0403 16:03:51.857197 16913 net.cpp:148] Top shape: 24 128 14 14 (602112)
I0403 16:03:51.857213 16913 net.cpp:156] Memory required for data: 1035617568
I0403 16:03:51.857233 16913 layer_factory.hpp:77] Creating layer inception_4c/relu_3x3_reduce
I0403 16:03:51.857250 16913 net.cpp:91] Creating Layer inception_4c/relu_3x3_reduce
I0403 16:03:51.857269 16913 net.cpp:425] inception_4c/relu_3x3_reduce <- inception_4c/3x3_reduce
I0403 16:03:51.857288 16913 net.cpp:386] inception_4c/relu_3x3_reduce -> inception_4c/3x3_reduce (in-place)
I0403 16:03:51.857600 16913 net.cpp:141] Setting up inception_4c/relu_3x3_reduce
I0403 16:03:51.857632 16913 net.cpp:148] Top shape: 24 128 14 14 (602112)
I0403 16:03:51.857650 16913 net.cpp:156] Memory required for data: 1038026016
I0403 16:03:51.857666 16913 layer_factory.hpp:77] Creating layer inception_4c/3x3
I0403 16:03:51.857691 16913 net.cpp:91] Creating Layer inception_4c/3x3
I0403 16:03:51.857709 16913 net.cpp:425] inception_4c/3x3 <- inception_4c/3x3_reduce
I0403 16:03:51.857744 16913 net.cpp:399] inception_4c/3x3 -> inception_4c/3x3
I0403 16:03:51.861335 16913 net.cpp:141] Setting up inception_4c/3x3
I0403 16:03:51.861376 16913 net.cpp:148] Top shape: 24 256 14 14 (1204224)
I0403 16:03:51.861393 16913 net.cpp:156] Memory required for data: 1042842912
I0403 16:03:51.861425 16913 layer_factory.hpp:77] Creating layer inception_4c/relu_3x3
I0403 16:03:51.861449 16913 net.cpp:91] Creating Layer inception_4c/relu_3x3
I0403 16:03:51.861465 16913 net.cpp:425] inception_4c/relu_3x3 <- inception_4c/3x3
I0403 16:03:51.861484 16913 net.cpp:386] inception_4c/relu_3x3 -> inception_4c/3x3 (in-place)
I0403 16:03:51.861676 16913 net.cpp:141] Setting up inception_4c/relu_3x3
I0403 16:03:51.861703 16913 net.cpp:148] Top shape: 24 256 14 14 (1204224)
I0403 16:03:51.861719 16913 net.cpp:156] Memory required for data: 1047659808
I0403 16:03:51.861734 16913 layer_factory.hpp:77] Creating layer inception_4c/5x5_reduce
I0403 16:03:51.861757 16913 net.cpp:91] Creating Layer inception_4c/5x5_reduce
I0403 16:03:51.861775 16913 net.cpp:425] inception_4c/5x5_reduce <- inception_4b/output_inception_4b/output_0_split_2
I0403 16:03:51.861798 16913 net.cpp:399] inception_4c/5x5_reduce -> inception_4c/5x5_reduce
I0403 16:03:51.862898 16913 net.cpp:141] Setting up inception_4c/5x5_reduce
I0403 16:03:51.862928 16913 net.cpp:148] Top shape: 24 24 14 14 (112896)
I0403 16:03:51.862946 16913 net.cpp:156] Memory required for data: 1048111392
I0403 16:03:51.862964 16913 layer_factory.hpp:77] Creating layer inception_4c/relu_5x5_reduce
I0403 16:03:51.862983 16913 net.cpp:91] Creating Layer inception_4c/relu_5x5_reduce
I0403 16:03:51.863000 16913 net.cpp:425] inception_4c/relu_5x5_reduce <- inception_4c/5x5_reduce
I0403 16:03:51.863021 16913 net.cpp:386] inception_4c/relu_5x5_reduce -> inception_4c/5x5_reduce (in-place)
I0403 16:03:51.863207 16913 net.cpp:141] Setting up inception_4c/relu_5x5_reduce
I0403 16:03:51.863234 16913 net.cpp:148] Top shape: 24 24 14 14 (112896)
I0403 16:03:51.863250 16913 net.cpp:156] Memory required for data: 1048562976
I0403 16:03:51.863265 16913 layer_factory.hpp:77] Creating layer inception_4c/5x5
I0403 16:03:51.863287 16913 net.cpp:91] Creating Layer inception_4c/5x5
I0403 16:03:51.863306 16913 net.cpp:425] inception_4c/5x5 <- inception_4c/5x5_reduce
I0403 16:03:51.863328 16913 net.cpp:399] inception_4c/5x5 -> inception_4c/5x5
I0403 16:03:51.864573 16913 net.cpp:141] Setting up inception_4c/5x5
I0403 16:03:51.864600 16913 net.cpp:148] Top shape: 24 64 14 14 (301056)
I0403 16:03:51.864624 16913 net.cpp:156] Memory required for data: 1049767200
I0403 16:03:51.864641 16913 layer_factory.hpp:77] Creating layer inception_4c/relu_5x5
I0403 16:03:51.864662 16913 net.cpp:91] Creating Layer inception_4c/relu_5x5
I0403 16:03:51.864681 16913 net.cpp:425] inception_4c/relu_5x5 <- inception_4c/5x5
I0403 16:03:51.864699 16913 net.cpp:386] inception_4c/relu_5x5 -> inception_4c/5x5 (in-place)
I0403 16:03:51.864987 16913 net.cpp:141] Setting up inception_4c/relu_5x5
I0403 16:03:51.865015 16913 net.cpp:148] Top shape: 24 64 14 14 (301056)
I0403 16:03:51.865031 16913 net.cpp:156] Memory required for data: 1050971424
I0403 16:03:51.865047 16913 layer_factory.hpp:77] Creating layer inception_4c/pool
I0403 16:03:51.865067 16913 net.cpp:91] Creating Layer inception_4c/pool
I0403 16:03:51.865085 16913 net.cpp:425] inception_4c/pool <- inception_4b/output_inception_4b/output_0_split_3
I0403 16:03:51.865105 16913 net.cpp:399] inception_4c/pool -> inception_4c/pool
I0403 16:03:51.865175 16913 net.cpp:141] Setting up inception_4c/pool
I0403 16:03:51.865200 16913 net.cpp:148] Top shape: 24 512 14 14 (2408448)
I0403 16:03:51.865216 16913 net.cpp:156] Memory required for data: 1060605216
I0403 16:03:51.865231 16913 layer_factory.hpp:77] Creating layer inception_4c/pool_proj
I0403 16:03:51.865253 16913 net.cpp:91] Creating Layer inception_4c/pool_proj
I0403 16:03:51.865272 16913 net.cpp:425] inception_4c/pool_proj <- inception_4c/pool
I0403 16:03:51.865293 16913 net.cpp:399] inception_4c/pool_proj -> inception_4c/pool_proj
I0403 16:03:51.866514 16913 net.cpp:141] Setting up inception_4c/pool_proj
I0403 16:03:51.866544 16913 net.cpp:148] Top shape: 24 64 14 14 (301056)
I0403 16:03:51.866574 16913 net.cpp:156] Memory required for data: 1061809440
I0403 16:03:51.866593 16913 layer_factory.hpp:77] Creating layer inception_4c/relu_pool_proj
I0403 16:03:51.866621 16913 net.cpp:91] Creating Layer inception_4c/relu_pool_proj
I0403 16:03:51.866641 16913 net.cpp:425] inception_4c/relu_pool_proj <- inception_4c/pool_proj
I0403 16:03:51.866659 16913 net.cpp:386] inception_4c/relu_pool_proj -> inception_4c/pool_proj (in-place)
I0403 16:03:51.866842 16913 net.cpp:141] Setting up inception_4c/relu_pool_proj
I0403 16:03:51.866868 16913 net.cpp:148] Top shape: 24 64 14 14 (301056)
I0403 16:03:51.866883 16913 net.cpp:156] Memory required for data: 1063013664
I0403 16:03:51.866896 16913 layer_factory.hpp:77] Creating layer inception_4c/output
I0403 16:03:51.866916 16913 net.cpp:91] Creating Layer inception_4c/output
I0403 16:03:51.866933 16913 net.cpp:425] inception_4c/output <- inception_4c/1x1
I0403 16:03:51.866950 16913 net.cpp:425] inception_4c/output <- inception_4c/3x3
I0403 16:03:51.866966 16913 net.cpp:425] inception_4c/output <- inception_4c/5x5
I0403 16:03:51.866982 16913 net.cpp:425] inception_4c/output <- inception_4c/pool_proj
I0403 16:03:51.867000 16913 net.cpp:399] inception_4c/output -> inception_4c/output
I0403 16:03:51.867049 16913 net.cpp:141] Setting up inception_4c/output
I0403 16:03:51.867074 16913 net.cpp:148] Top shape: 24 512 14 14 (2408448)
I0403 16:03:51.867089 16913 net.cpp:156] Memory required for data: 1072647456
I0403 16:03:51.867105 16913 layer_factory.hpp:77] Creating layer inception_4c/output_inception_4c/output_0_split
I0403 16:03:51.867122 16913 net.cpp:91] Creating Layer inception_4c/output_inception_4c/output_0_split
I0403 16:03:51.867137 16913 net.cpp:425] inception_4c/output_inception_4c/output_0_split <- inception_4c/output
I0403 16:03:51.867158 16913 net.cpp:399] inception_4c/output_inception_4c/output_0_split -> inception_4c/output_inception_4c/output_0_split_0
I0403 16:03:51.867180 16913 net.cpp:399] inception_4c/output_inception_4c/output_0_split -> inception_4c/output_inception_4c/output_0_split_1
I0403 16:03:51.867202 16913 net.cpp:399] inception_4c/output_inception_4c/output_0_split -> inception_4c/output_inception_4c/output_0_split_2
I0403 16:03:51.867223 16913 net.cpp:399] inception_4c/output_inception_4c/output_0_split -> inception_4c/output_inception_4c/output_0_split_3
I0403 16:03:51.867310 16913 net.cpp:141] Setting up inception_4c/output_inception_4c/output_0_split
I0403 16:03:51.867336 16913 net.cpp:148] Top shape: 24 512 14 14 (2408448)
I0403 16:03:51.867354 16913 net.cpp:148] Top shape: 24 512 14 14 (2408448)
I0403 16:03:51.867372 16913 net.cpp:148] Top shape: 24 512 14 14 (2408448)
I0403 16:03:51.867386 16913 net.cpp:148] Top shape: 24 512 14 14 (2408448)
I0403 16:03:51.867400 16913 net.cpp:156] Memory required for data: 1111182624
I0403 16:03:51.867414 16913 layer_factory.hpp:77] Creating layer inception_4d/1x1
I0403 16:03:51.867435 16913 net.cpp:91] Creating Layer inception_4d/1x1
I0403 16:03:51.867455 16913 net.cpp:425] inception_4d/1x1 <- inception_4c/output_inception_4c/output_0_split_0
I0403 16:03:51.867475 16913 net.cpp:399] inception_4d/1x1 -> inception_4d/1x1
I0403 16:03:51.868860 16913 net.cpp:141] Setting up inception_4d/1x1
I0403 16:03:51.868891 16913 net.cpp:148] Top shape: 24 112 14 14 (526848)
I0403 16:03:51.868909 16913 net.cpp:156] Memory required for data: 1113290016
I0403 16:03:51.868927 16913 layer_factory.hpp:77] Creating layer inception_4d/relu_1x1
I0403 16:03:51.868947 16913 net.cpp:91] Creating Layer inception_4d/relu_1x1
I0403 16:03:51.868964 16913 net.cpp:425] inception_4d/relu_1x1 <- inception_4d/1x1
I0403 16:03:51.868983 16913 net.cpp:386] inception_4d/relu_1x1 -> inception_4d/1x1 (in-place)
I0403 16:03:51.869170 16913 net.cpp:141] Setting up inception_4d/relu_1x1
I0403 16:03:51.869196 16913 net.cpp:148] Top shape: 24 112 14 14 (526848)
I0403 16:03:51.869212 16913 net.cpp:156] Memory required for data: 1115397408
I0403 16:03:51.869227 16913 layer_factory.hpp:77] Creating layer inception_4d/3x3_reduce
I0403 16:03:51.869266 16913 net.cpp:91] Creating Layer inception_4d/3x3_reduce
I0403 16:03:51.869285 16913 net.cpp:425] inception_4d/3x3_reduce <- inception_4c/output_inception_4c/output_0_split_1
I0403 16:03:51.869308 16913 net.cpp:399] inception_4d/3x3_reduce -> inception_4d/3x3_reduce
I0403 16:03:51.870831 16913 net.cpp:141] Setting up inception_4d/3x3_reduce
I0403 16:03:51.870859 16913 net.cpp:148] Top shape: 24 144 14 14 (677376)
I0403 16:03:51.870879 16913 net.cpp:156] Memory required for data: 1118106912
I0403 16:03:51.870899 16913 layer_factory.hpp:77] Creating layer inception_4d/relu_3x3_reduce
I0403 16:03:51.870918 16913 net.cpp:91] Creating Layer inception_4d/relu_3x3_reduce
I0403 16:03:51.870934 16913 net.cpp:425] inception_4d/relu_3x3_reduce <- inception_4d/3x3_reduce
I0403 16:03:51.870951 16913 net.cpp:386] inception_4d/relu_3x3_reduce -> inception_4d/3x3_reduce (in-place)
I0403 16:03:51.871247 16913 net.cpp:141] Setting up inception_4d/relu_3x3_reduce
I0403 16:03:51.871273 16913 net.cpp:148] Top shape: 24 144 14 14 (677376)
I0403 16:03:51.871294 16913 net.cpp:156] Memory required for data: 1120816416
I0403 16:03:51.871310 16913 layer_factory.hpp:77] Creating layer inception_4d/3x3
I0403 16:03:51.871330 16913 net.cpp:91] Creating Layer inception_4d/3x3
I0403 16:03:51.871347 16913 net.cpp:425] inception_4d/3x3 <- inception_4d/3x3_reduce
I0403 16:03:51.871368 16913 net.cpp:399] inception_4d/3x3 -> inception_4d/3x3
I0403 16:03:51.875550 16913 net.cpp:141] Setting up inception_4d/3x3
I0403 16:03:51.875581 16913 net.cpp:148] Top shape: 24 288 14 14 (1354752)
I0403 16:03:51.875597 16913 net.cpp:156] Memory required for data: 1126235424
I0403 16:03:51.875627 16913 layer_factory.hpp:77] Creating layer inception_4d/relu_3x3
I0403 16:03:51.875648 16913 net.cpp:91] Creating Layer inception_4d/relu_3x3
I0403 16:03:51.875664 16913 net.cpp:425] inception_4d/relu_3x3 <- inception_4d/3x3
I0403 16:03:51.875684 16913 net.cpp:386] inception_4d/relu_3x3 -> inception_4d/3x3 (in-place)
I0403 16:03:51.875866 16913 net.cpp:141] Setting up inception_4d/relu_3x3
I0403 16:03:51.875892 16913 net.cpp:148] Top shape: 24 288 14 14 (1354752)
I0403 16:03:51.875908 16913 net.cpp:156] Memory required for data: 1131654432
I0403 16:03:51.875923 16913 layer_factory.hpp:77] Creating layer inception_4d/5x5_reduce
I0403 16:03:51.875944 16913 net.cpp:91] Creating Layer inception_4d/5x5_reduce
I0403 16:03:51.875963 16913 net.cpp:425] inception_4d/5x5_reduce <- inception_4c/output_inception_4c/output_0_split_2
I0403 16:03:51.875985 16913 net.cpp:399] inception_4d/5x5_reduce -> inception_4d/5x5_reduce
I0403 16:03:51.877099 16913 net.cpp:141] Setting up inception_4d/5x5_reduce
I0403 16:03:51.877130 16913 net.cpp:148] Top shape: 24 32 14 14 (150528)
I0403 16:03:51.877146 16913 net.cpp:156] Memory required for data: 1132256544
I0403 16:03:51.877164 16913 layer_factory.hpp:77] Creating layer inception_4d/relu_5x5_reduce
I0403 16:03:51.877182 16913 net.cpp:91] Creating Layer inception_4d/relu_5x5_reduce
I0403 16:03:51.877199 16913 net.cpp:425] inception_4d/relu_5x5_reduce <- inception_4d/5x5_reduce
I0403 16:03:51.877219 16913 net.cpp:386] inception_4d/relu_5x5_reduce -> inception_4d/5x5_reduce (in-place)
I0403 16:03:51.877406 16913 net.cpp:141] Setting up inception_4d/relu_5x5_reduce
I0403 16:03:51.877431 16913 net.cpp:148] Top shape: 24 32 14 14 (150528)
I0403 16:03:51.877446 16913 net.cpp:156] Memory required for data: 1132858656
I0403 16:03:51.877461 16913 layer_factory.hpp:77] Creating layer inception_4d/5x5
I0403 16:03:51.877483 16913 net.cpp:91] Creating Layer inception_4d/5x5
I0403 16:03:51.877502 16913 net.cpp:425] inception_4d/5x5 <- inception_4d/5x5_reduce
I0403 16:03:51.877523 16913 net.cpp:399] inception_4d/5x5 -> inception_4d/5x5
I0403 16:03:51.878953 16913 net.cpp:141] Setting up inception_4d/5x5
I0403 16:03:51.878981 16913 net.cpp:148] Top shape: 24 64 14 14 (301056)
I0403 16:03:51.878998 16913 net.cpp:156] Memory required for data: 1134062880
I0403 16:03:51.879017 16913 layer_factory.hpp:77] Creating layer inception_4d/relu_5x5
I0403 16:03:51.879053 16913 net.cpp:91] Creating Layer inception_4d/relu_5x5
I0403 16:03:51.879072 16913 net.cpp:425] inception_4d/relu_5x5 <- inception_4d/5x5
I0403 16:03:51.879091 16913 net.cpp:386] inception_4d/relu_5x5 -> inception_4d/5x5 (in-place)
I0403 16:03:51.879384 16913 net.cpp:141] Setting up inception_4d/relu_5x5
I0403 16:03:51.879410 16913 net.cpp:148] Top shape: 24 64 14 14 (301056)
I0403 16:03:51.879426 16913 net.cpp:156] Memory required for data: 1135267104
I0403 16:03:51.879441 16913 layer_factory.hpp:77] Creating layer inception_4d/pool
I0403 16:03:51.879461 16913 net.cpp:91] Creating Layer inception_4d/pool
I0403 16:03:51.879478 16913 net.cpp:425] inception_4d/pool <- inception_4c/output_inception_4c/output_0_split_3
I0403 16:03:51.879497 16913 net.cpp:399] inception_4d/pool -> inception_4d/pool
I0403 16:03:51.879564 16913 net.cpp:141] Setting up inception_4d/pool
I0403 16:03:51.879587 16913 net.cpp:148] Top shape: 24 512 14 14 (2408448)
I0403 16:03:51.879606 16913 net.cpp:156] Memory required for data: 1144900896
I0403 16:03:51.879623 16913 layer_factory.hpp:77] Creating layer inception_4d/pool_proj
I0403 16:03:51.879645 16913 net.cpp:91] Creating Layer inception_4d/pool_proj
I0403 16:03:51.879663 16913 net.cpp:425] inception_4d/pool_proj <- inception_4d/pool
I0403 16:03:51.879684 16913 net.cpp:399] inception_4d/pool_proj -> inception_4d/pool_proj
I0403 16:03:51.881413 16913 net.cpp:141] Setting up inception_4d/pool_proj
I0403 16:03:51.881444 16913 net.cpp:148] Top shape: 24 64 14 14 (301056)
I0403 16:03:51.881460 16913 net.cpp:156] Memory required for data: 1146105120
I0403 16:03:51.881479 16913 layer_factory.hpp:77] Creating layer inception_4d/relu_pool_proj
I0403 16:03:51.881497 16913 net.cpp:91] Creating Layer inception_4d/relu_pool_proj
I0403 16:03:51.881526 16913 net.cpp:425] inception_4d/relu_pool_proj <- inception_4d/pool_proj
I0403 16:03:51.881546 16913 net.cpp:386] inception_4d/relu_pool_proj -> inception_4d/pool_proj (in-place)
I0403 16:03:51.881733 16913 net.cpp:141] Setting up inception_4d/relu_pool_proj
I0403 16:03:51.881759 16913 net.cpp:148] Top shape: 24 64 14 14 (301056)
I0403 16:03:51.881775 16913 net.cpp:156] Memory required for data: 1147309344
I0403 16:03:51.881790 16913 layer_factory.hpp:77] Creating layer inception_4d/output
I0403 16:03:51.881808 16913 net.cpp:91] Creating Layer inception_4d/output
I0403 16:03:51.881822 16913 net.cpp:425] inception_4d/output <- inception_4d/1x1
I0403 16:03:51.881839 16913 net.cpp:425] inception_4d/output <- inception_4d/3x3
I0403 16:03:51.881858 16913 net.cpp:425] inception_4d/output <- inception_4d/5x5
I0403 16:03:51.881875 16913 net.cpp:425] inception_4d/output <- inception_4d/pool_proj
I0403 16:03:51.881893 16913 net.cpp:399] inception_4d/output -> inception_4d/output
I0403 16:03:51.881939 16913 net.cpp:141] Setting up inception_4d/output
I0403 16:03:51.881965 16913 net.cpp:148] Top shape: 24 528 14 14 (2483712)
I0403 16:03:51.881981 16913 net.cpp:156] Memory required for data: 1157244192
I0403 16:03:51.881995 16913 layer_factory.hpp:77] Creating layer inception_4d/output_inception_4d/output_0_split
I0403 16:03:51.882014 16913 net.cpp:91] Creating Layer inception_4d/output_inception_4d/output_0_split
I0403 16:03:51.882030 16913 net.cpp:425] inception_4d/output_inception_4d/output_0_split <- inception_4d/output
I0403 16:03:51.882050 16913 net.cpp:399] inception_4d/output_inception_4d/output_0_split -> inception_4d/output_inception_4d/output_0_split_0
I0403 16:03:51.882071 16913 net.cpp:399] inception_4d/output_inception_4d/output_0_split -> inception_4d/output_inception_4d/output_0_split_1
I0403 16:03:51.882091 16913 net.cpp:399] inception_4d/output_inception_4d/output_0_split -> inception_4d/output_inception_4d/output_0_split_2
I0403 16:03:51.882112 16913 net.cpp:399] inception_4d/output_inception_4d/output_0_split -> inception_4d/output_inception_4d/output_0_split_3
I0403 16:03:51.882131 16913 net.cpp:399] inception_4d/output_inception_4d/output_0_split -> inception_4d/output_inception_4d/output_0_split_4
I0403 16:03:51.882233 16913 net.cpp:141] Setting up inception_4d/output_inception_4d/output_0_split
I0403 16:03:51.882269 16913 net.cpp:148] Top shape: 24 528 14 14 (2483712)
I0403 16:03:51.882289 16913 net.cpp:148] Top shape: 24 528 14 14 (2483712)
I0403 16:03:51.882308 16913 net.cpp:148] Top shape: 24 528 14 14 (2483712)
I0403 16:03:51.882323 16913 net.cpp:148] Top shape: 24 528 14 14 (2483712)
I0403 16:03:51.882338 16913 net.cpp:148] Top shape: 24 528 14 14 (2483712)
I0403 16:03:51.882351 16913 net.cpp:156] Memory required for data: 1206918432
I0403 16:03:51.882366 16913 layer_factory.hpp:77] Creating layer loss2/ave_pool
I0403 16:03:51.882383 16913 net.cpp:91] Creating Layer loss2/ave_pool
I0403 16:03:51.882400 16913 net.cpp:425] loss2/ave_pool <- inception_4d/output_inception_4d/output_0_split_0
I0403 16:03:51.882419 16913 net.cpp:399] loss2/ave_pool -> loss2/ave_pool
I0403 16:03:51.882726 16913 net.cpp:141] Setting up loss2/ave_pool
I0403 16:03:51.882752 16913 net.cpp:148] Top shape: 24 528 4 4 (202752)
I0403 16:03:51.882769 16913 net.cpp:156] Memory required for data: 1207729440
I0403 16:03:51.882784 16913 layer_factory.hpp:77] Creating layer loss2/conv
I0403 16:03:51.882807 16913 net.cpp:91] Creating Layer loss2/conv
I0403 16:03:51.882824 16913 net.cpp:425] loss2/conv <- loss2/ave_pool
I0403 16:03:51.882845 16913 net.cpp:399] loss2/conv -> loss2/conv
I0403 16:03:51.884687 16913 net.cpp:141] Setting up loss2/conv
I0403 16:03:51.884716 16913 net.cpp:148] Top shape: 24 128 4 4 (49152)
I0403 16:03:51.884733 16913 net.cpp:156] Memory required for data: 1207926048
I0403 16:03:51.884752 16913 layer_factory.hpp:77] Creating layer loss2/relu_conv
I0403 16:03:51.884774 16913 net.cpp:91] Creating Layer loss2/relu_conv
I0403 16:03:51.884793 16913 net.cpp:425] loss2/relu_conv <- loss2/conv
I0403 16:03:51.884810 16913 net.cpp:386] loss2/relu_conv -> loss2/conv (in-place)
I0403 16:03:51.885098 16913 net.cpp:141] Setting up loss2/relu_conv
I0403 16:03:51.885125 16913 net.cpp:148] Top shape: 24 128 4 4 (49152)
I0403 16:03:51.885141 16913 net.cpp:156] Memory required for data: 1208122656
I0403 16:03:51.885156 16913 layer_factory.hpp:77] Creating layer loss2/fc
I0403 16:03:51.885177 16913 net.cpp:91] Creating Layer loss2/fc
I0403 16:03:51.885195 16913 net.cpp:425] loss2/fc <- loss2/conv
I0403 16:03:51.885213 16913 net.cpp:399] loss2/fc -> loss2/fc
I0403 16:03:51.902364 16913 net.cpp:141] Setting up loss2/fc
I0403 16:03:51.902397 16913 net.cpp:148] Top shape: 24 1024 (24576)
I0403 16:03:51.902413 16913 net.cpp:156] Memory required for data: 1208220960
I0403 16:03:51.902431 16913 layer_factory.hpp:77] Creating layer loss2/relu_fc
I0403 16:03:51.902451 16913 net.cpp:91] Creating Layer loss2/relu_fc
I0403 16:03:51.902467 16913 net.cpp:425] loss2/relu_fc <- loss2/fc
I0403 16:03:51.902488 16913 net.cpp:386] loss2/relu_fc -> loss2/fc (in-place)
I0403 16:03:51.902786 16913 net.cpp:141] Setting up loss2/relu_fc
I0403 16:03:51.902813 16913 net.cpp:148] Top shape: 24 1024 (24576)
I0403 16:03:51.902829 16913 net.cpp:156] Memory required for data: 1208319264
I0403 16:03:51.902844 16913 layer_factory.hpp:77] Creating layer loss2/drop_fc
I0403 16:03:51.902863 16913 net.cpp:91] Creating Layer loss2/drop_fc
I0403 16:03:51.902878 16913 net.cpp:425] loss2/drop_fc <- loss2/fc
I0403 16:03:51.902899 16913 net.cpp:386] loss2/drop_fc -> loss2/fc (in-place)
I0403 16:03:51.902947 16913 net.cpp:141] Setting up loss2/drop_fc
I0403 16:03:51.902971 16913 net.cpp:148] Top shape: 24 1024 (24576)
I0403 16:03:51.902987 16913 net.cpp:156] Memory required for data: 1208417568
I0403 16:03:51.903002 16913 layer_factory.hpp:77] Creating layer loss2/classifier_plantvillage
I0403 16:03:51.903023 16913 net.cpp:91] Creating Layer loss2/classifier_plantvillage
I0403 16:03:51.903041 16913 net.cpp:425] loss2/classifier_plantvillage <- loss2/fc
I0403 16:03:51.903061 16913 net.cpp:399] loss2/classifier_plantvillage -> loss2/classifier_plantvillage
I0403 16:03:51.903446 16913 net.cpp:141] Setting up loss2/classifier_plantvillage
I0403 16:03:51.903475 16913 net.cpp:148] Top shape: 24 38 (912)
I0403 16:03:51.903491 16913 net.cpp:156] Memory required for data: 1208421216
I0403 16:03:51.903525 16913 layer_factory.hpp:77] Creating layer loss2/classifier_plantvillage_loss2/classifier_plantvillage_0_split
I0403 16:03:51.903547 16913 net.cpp:91] Creating Layer loss2/classifier_plantvillage_loss2/classifier_plantvillage_0_split
I0403 16:03:51.903561 16913 net.cpp:425] loss2/classifier_plantvillage_loss2/classifier_plantvillage_0_split <- loss2/classifier_plantvillage
I0403 16:03:51.903578 16913 net.cpp:399] loss2/classifier_plantvillage_loss2/classifier_plantvillage_0_split -> loss2/classifier_plantvillage_loss2/classifier_plantvillage_0_split_0
I0403 16:03:51.903597 16913 net.cpp:399] loss2/classifier_plantvillage_loss2/classifier_plantvillage_0_split -> loss2/classifier_plantvillage_loss2/classifier_plantvillage_0_split_1
I0403 16:03:51.903623 16913 net.cpp:399] loss2/classifier_plantvillage_loss2/classifier_plantvillage_0_split -> loss2/classifier_plantvillage_loss2/classifier_plantvillage_0_split_2
I0403 16:03:51.903699 16913 net.cpp:141] Setting up loss2/classifier_plantvillage_loss2/classifier_plantvillage_0_split
I0403 16:03:51.903724 16913 net.cpp:148] Top shape: 24 38 (912)
I0403 16:03:51.903740 16913 net.cpp:148] Top shape: 24 38 (912)
I0403 16:03:51.903756 16913 net.cpp:148] Top shape: 24 38 (912)
I0403 16:03:51.903770 16913 net.cpp:156] Memory required for data: 1208432160
I0403 16:03:51.903784 16913 layer_factory.hpp:77] Creating layer inception_4e/1x1
I0403 16:03:51.903803 16913 net.cpp:91] Creating Layer inception_4e/1x1
I0403 16:03:51.903821 16913 net.cpp:425] inception_4e/1x1 <- inception_4d/output_inception_4d/output_0_split_1
I0403 16:03:51.903842 16913 net.cpp:399] inception_4e/1x1 -> inception_4e/1x1
I0403 16:03:51.905692 16913 net.cpp:141] Setting up inception_4e/1x1
I0403 16:03:51.905721 16913 net.cpp:148] Top shape: 24 256 14 14 (1204224)
I0403 16:03:51.905738 16913 net.cpp:156] Memory required for data: 1213249056
I0403 16:03:51.905757 16913 layer_factory.hpp:77] Creating layer inception_4e/relu_1x1
I0403 16:03:51.905781 16913 net.cpp:91] Creating Layer inception_4e/relu_1x1
I0403 16:03:51.905799 16913 net.cpp:425] inception_4e/relu_1x1 <- inception_4e/1x1
I0403 16:03:51.905817 16913 net.cpp:386] inception_4e/relu_1x1 -> inception_4e/1x1 (in-place)
I0403 16:03:51.906114 16913 net.cpp:141] Setting up inception_4e/relu_1x1
I0403 16:03:51.906141 16913 net.cpp:148] Top shape: 24 256 14 14 (1204224)
I0403 16:03:51.906157 16913 net.cpp:156] Memory required for data: 1218065952
I0403 16:03:51.906173 16913 layer_factory.hpp:77] Creating layer inception_4e/3x3_reduce
I0403 16:03:51.906195 16913 net.cpp:91] Creating Layer inception_4e/3x3_reduce
I0403 16:03:51.906213 16913 net.cpp:425] inception_4e/3x3_reduce <- inception_4d/output_inception_4d/output_0_split_2
I0403 16:03:51.906235 16913 net.cpp:399] inception_4e/3x3_reduce -> inception_4e/3x3_reduce
I0403 16:03:51.908350 16913 net.cpp:141] Setting up inception_4e/3x3_reduce
I0403 16:03:51.908380 16913 net.cpp:148] Top shape: 24 160 14 14 (752640)
I0403 16:03:51.908396 16913 net.cpp:156] Memory required for data: 1221076512
I0403 16:03:51.908416 16913 layer_factory.hpp:77] Creating layer inception_4e/relu_3x3_reduce
I0403 16:03:51.908437 16913 net.cpp:91] Creating Layer inception_4e/relu_3x3_reduce
I0403 16:03:51.908455 16913 net.cpp:425] inception_4e/relu_3x3_reduce <- inception_4e/3x3_reduce
I0403 16:03:51.908473 16913 net.cpp:386] inception_4e/relu_3x3_reduce -> inception_4e/3x3_reduce (in-place)
I0403 16:03:51.908666 16913 net.cpp:141] Setting up inception_4e/relu_3x3_reduce
I0403 16:03:51.908692 16913 net.cpp:148] Top shape: 24 160 14 14 (752640)
I0403 16:03:51.908709 16913 net.cpp:156] Memory required for data: 1224087072
I0403 16:03:51.908725 16913 layer_factory.hpp:77] Creating layer inception_4e/3x3
I0403 16:03:51.908748 16913 net.cpp:91] Creating Layer inception_4e/3x3
I0403 16:03:51.908767 16913 net.cpp:425] inception_4e/3x3 <- inception_4e/3x3_reduce
I0403 16:03:51.908787 16913 net.cpp:399] inception_4e/3x3 -> inception_4e/3x3
I0403 16:03:51.913815 16913 net.cpp:141] Setting up inception_4e/3x3
I0403 16:03:51.913859 16913 net.cpp:148] Top shape: 24 320 14 14 (1505280)
I0403 16:03:51.913877 16913 net.cpp:156] Memory required for data: 1230108192
I0403 16:03:51.913897 16913 layer_factory.hpp:77] Creating layer inception_4e/relu_3x3
I0403 16:03:51.913918 16913 net.cpp:91] Creating Layer inception_4e/relu_3x3
I0403 16:03:51.913938 16913 net.cpp:425] inception_4e/relu_3x3 <- inception_4e/3x3
I0403 16:03:51.913955 16913 net.cpp:386] inception_4e/relu_3x3 -> inception_4e/3x3 (in-place)
I0403 16:03:51.914291 16913 net.cpp:141] Setting up inception_4e/relu_3x3
I0403 16:03:51.914322 16913 net.cpp:148] Top shape: 24 320 14 14 (1505280)
I0403 16:03:51.914340 16913 net.cpp:156] Memory required for data: 1236129312
I0403 16:03:51.914355 16913 layer_factory.hpp:77] Creating layer inception_4e/5x5_reduce
I0403 16:03:51.914379 16913 net.cpp:91] Creating Layer inception_4e/5x5_reduce
I0403 16:03:51.914398 16913 net.cpp:425] inception_4e/5x5_reduce <- inception_4d/output_inception_4d/output_0_split_3
I0403 16:03:51.914418 16913 net.cpp:399] inception_4e/5x5_reduce -> inception_4e/5x5_reduce
I0403 16:03:51.915520 16913 net.cpp:141] Setting up inception_4e/5x5_reduce
I0403 16:03:51.915549 16913 net.cpp:148] Top shape: 24 32 14 14 (150528)
I0403 16:03:51.915565 16913 net.cpp:156] Memory required for data: 1236731424
I0403 16:03:51.915583 16913 layer_factory.hpp:77] Creating layer inception_4e/relu_5x5_reduce
I0403 16:03:51.915614 16913 net.cpp:91] Creating Layer inception_4e/relu_5x5_reduce
I0403 16:03:51.915635 16913 net.cpp:425] inception_4e/relu_5x5_reduce <- inception_4e/5x5_reduce
I0403 16:03:51.915654 16913 net.cpp:386] inception_4e/relu_5x5_reduce -> inception_4e/5x5_reduce (in-place)
I0403 16:03:51.915958 16913 net.cpp:141] Setting up inception_4e/relu_5x5_reduce
I0403 16:03:51.915984 16913 net.cpp:148] Top shape: 24 32 14 14 (150528)
I0403 16:03:51.916000 16913 net.cpp:156] Memory required for data: 1237333536
I0403 16:03:51.916015 16913 layer_factory.hpp:77] Creating layer inception_4e/5x5
I0403 16:03:51.916055 16913 net.cpp:91] Creating Layer inception_4e/5x5
I0403 16:03:51.916075 16913 net.cpp:425] inception_4e/5x5 <- inception_4e/5x5_reduce
I0403 16:03:51.916096 16913 net.cpp:399] inception_4e/5x5 -> inception_4e/5x5
I0403 16:03:51.917937 16913 net.cpp:141] Setting up inception_4e/5x5
I0403 16:03:51.917966 16913 net.cpp:148] Top shape: 24 128 14 14 (602112)
I0403 16:03:51.917982 16913 net.cpp:156] Memory required for data: 1239741984
I0403 16:03:51.918002 16913 layer_factory.hpp:77] Creating layer inception_4e/relu_5x5
I0403 16:03:51.918020 16913 net.cpp:91] Creating Layer inception_4e/relu_5x5
I0403 16:03:51.918038 16913 net.cpp:425] inception_4e/relu_5x5 <- inception_4e/5x5
I0403 16:03:51.918057 16913 net.cpp:386] inception_4e/relu_5x5 -> inception_4e/5x5 (in-place)
I0403 16:03:51.918256 16913 net.cpp:141] Setting up inception_4e/relu_5x5
I0403 16:03:51.918282 16913 net.cpp:148] Top shape: 24 128 14 14 (602112)
I0403 16:03:51.918298 16913 net.cpp:156] Memory required for data: 1242150432
I0403 16:03:51.918313 16913 layer_factory.hpp:77] Creating layer inception_4e/pool
I0403 16:03:51.918334 16913 net.cpp:91] Creating Layer inception_4e/pool
I0403 16:03:51.918354 16913 net.cpp:425] inception_4e/pool <- inception_4d/output_inception_4d/output_0_split_4
I0403 16:03:51.918371 16913 net.cpp:399] inception_4e/pool -> inception_4e/pool
I0403 16:03:51.918442 16913 net.cpp:141] Setting up inception_4e/pool
I0403 16:03:51.918467 16913 net.cpp:148] Top shape: 24 528 14 14 (2483712)
I0403 16:03:51.918483 16913 net.cpp:156] Memory required for data: 1252085280
I0403 16:03:51.918498 16913 layer_factory.hpp:77] Creating layer inception_4e/pool_proj
I0403 16:03:51.918521 16913 net.cpp:91] Creating Layer inception_4e/pool_proj
I0403 16:03:51.918540 16913 net.cpp:425] inception_4e/pool_proj <- inception_4e/pool
I0403 16:03:51.918560 16913 net.cpp:399] inception_4e/pool_proj -> inception_4e/pool_proj
I0403 16:03:51.920073 16913 net.cpp:141] Setting up inception_4e/pool_proj
I0403 16:03:51.920101 16913 net.cpp:148] Top shape: 24 128 14 14 (602112)
I0403 16:03:51.920131 16913 net.cpp:156] Memory required for data: 1254493728
I0403 16:03:51.920153 16913 layer_factory.hpp:77] Creating layer inception_4e/relu_pool_proj
I0403 16:03:51.920172 16913 net.cpp:91] Creating Layer inception_4e/relu_pool_proj
I0403 16:03:51.920189 16913 net.cpp:425] inception_4e/relu_pool_proj <- inception_4e/pool_proj
I0403 16:03:51.920208 16913 net.cpp:386] inception_4e/relu_pool_proj -> inception_4e/pool_proj (in-place)
I0403 16:03:51.920506 16913 net.cpp:141] Setting up inception_4e/relu_pool_proj
I0403 16:03:51.920533 16913 net.cpp:148] Top shape: 24 128 14 14 (602112)
I0403 16:03:51.920549 16913 net.cpp:156] Memory required for data: 1256902176
I0403 16:03:51.920565 16913 layer_factory.hpp:77] Creating layer inception_4e/output
I0403 16:03:51.920583 16913 net.cpp:91] Creating Layer inception_4e/output
I0403 16:03:51.920599 16913 net.cpp:425] inception_4e/output <- inception_4e/1x1
I0403 16:03:51.920624 16913 net.cpp:425] inception_4e/output <- inception_4e/3x3
I0403 16:03:51.920640 16913 net.cpp:425] inception_4e/output <- inception_4e/5x5
I0403 16:03:51.920658 16913 net.cpp:425] inception_4e/output <- inception_4e/pool_proj
I0403 16:03:51.920677 16913 net.cpp:399] inception_4e/output -> inception_4e/output
I0403 16:03:51.920729 16913 net.cpp:141] Setting up inception_4e/output
I0403 16:03:51.920758 16913 net.cpp:148] Top shape: 24 832 14 14 (3913728)
I0403 16:03:51.920774 16913 net.cpp:156] Memory required for data: 1272557088
I0403 16:03:51.920789 16913 layer_factory.hpp:77] Creating layer pool4/3x3_s2
I0403 16:03:51.920809 16913 net.cpp:91] Creating Layer pool4/3x3_s2
I0403 16:03:51.920825 16913 net.cpp:425] pool4/3x3_s2 <- inception_4e/output
I0403 16:03:51.920845 16913 net.cpp:399] pool4/3x3_s2 -> pool4/3x3_s2
I0403 16:03:51.920914 16913 net.cpp:141] Setting up pool4/3x3_s2
I0403 16:03:51.920939 16913 net.cpp:148] Top shape: 24 832 7 7 (978432)
I0403 16:03:51.920954 16913 net.cpp:156] Memory required for data: 1276470816
I0403 16:03:51.920969 16913 layer_factory.hpp:77] Creating layer pool4/3x3_s2_pool4/3x3_s2_0_split
I0403 16:03:51.920987 16913 net.cpp:91] Creating Layer pool4/3x3_s2_pool4/3x3_s2_0_split
I0403 16:03:51.921003 16913 net.cpp:425] pool4/3x3_s2_pool4/3x3_s2_0_split <- pool4/3x3_s2
I0403 16:03:51.921030 16913 net.cpp:399] pool4/3x3_s2_pool4/3x3_s2_0_split -> pool4/3x3_s2_pool4/3x3_s2_0_split_0
I0403 16:03:51.921051 16913 net.cpp:399] pool4/3x3_s2_pool4/3x3_s2_0_split -> pool4/3x3_s2_pool4/3x3_s2_0_split_1
I0403 16:03:51.921072 16913 net.cpp:399] pool4/3x3_s2_pool4/3x3_s2_0_split -> pool4/3x3_s2_pool4/3x3_s2_0_split_2
I0403 16:03:51.921092 16913 net.cpp:399] pool4/3x3_s2_pool4/3x3_s2_0_split -> pool4/3x3_s2_pool4/3x3_s2_0_split_3
I0403 16:03:51.921185 16913 net.cpp:141] Setting up pool4/3x3_s2_pool4/3x3_s2_0_split
I0403 16:03:51.921211 16913 net.cpp:148] Top shape: 24 832 7 7 (978432)
I0403 16:03:51.921227 16913 net.cpp:148] Top shape: 24 832 7 7 (978432)
I0403 16:03:51.921243 16913 net.cpp:148] Top shape: 24 832 7 7 (978432)
I0403 16:03:51.921259 16913 net.cpp:148] Top shape: 24 832 7 7 (978432)
I0403 16:03:51.921273 16913 net.cpp:156] Memory required for data: 1292125728
I0403 16:03:51.921288 16913 layer_factory.hpp:77] Creating layer inception_5a/1x1
I0403 16:03:51.921310 16913 net.cpp:91] Creating Layer inception_5a/1x1
I0403 16:03:51.921329 16913 net.cpp:425] inception_5a/1x1 <- pool4/3x3_s2_pool4/3x3_s2_0_split_0
I0403 16:03:51.921350 16913 net.cpp:399] inception_5a/1x1 -> inception_5a/1x1
I0403 16:03:51.924196 16913 net.cpp:141] Setting up inception_5a/1x1
I0403 16:03:51.924226 16913 net.cpp:148] Top shape: 24 256 7 7 (301056)
I0403 16:03:51.924242 16913 net.cpp:156] Memory required for data: 1293329952
I0403 16:03:51.924262 16913 layer_factory.hpp:77] Creating layer inception_5a/relu_1x1
I0403 16:03:51.924281 16913 net.cpp:91] Creating Layer inception_5a/relu_1x1
I0403 16:03:51.924299 16913 net.cpp:425] inception_5a/relu_1x1 <- inception_5a/1x1
I0403 16:03:51.924315 16913 net.cpp:386] inception_5a/relu_1x1 -> inception_5a/1x1 (in-place)
I0403 16:03:51.924624 16913 net.cpp:141] Setting up inception_5a/relu_1x1
I0403 16:03:51.924650 16913 net.cpp:148] Top shape: 24 256 7 7 (301056)
I0403 16:03:51.924665 16913 net.cpp:156] Memory required for data: 1294534176
I0403 16:03:51.924681 16913 layer_factory.hpp:77] Creating layer inception_5a/3x3_reduce
I0403 16:03:51.924703 16913 net.cpp:91] Creating Layer inception_5a/3x3_reduce
I0403 16:03:51.924721 16913 net.cpp:425] inception_5a/3x3_reduce <- pool4/3x3_s2_pool4/3x3_s2_0_split_1
I0403 16:03:51.924744 16913 net.cpp:399] inception_5a/3x3_reduce -> inception_5a/3x3_reduce
I0403 16:03:51.927170 16913 net.cpp:141] Setting up inception_5a/3x3_reduce
I0403 16:03:51.927203 16913 net.cpp:148] Top shape: 24 160 7 7 (188160)
I0403 16:03:51.927222 16913 net.cpp:156] Memory required for data: 1295286816
I0403 16:03:51.927239 16913 layer_factory.hpp:77] Creating layer inception_5a/relu_3x3_reduce
I0403 16:03:51.927258 16913 net.cpp:91] Creating Layer inception_5a/relu_3x3_reduce
I0403 16:03:51.927273 16913 net.cpp:425] inception_5a/relu_3x3_reduce <- inception_5a/3x3_reduce
I0403 16:03:51.927291 16913 net.cpp:386] inception_5a/relu_3x3_reduce -> inception_5a/3x3_reduce (in-place)
I0403 16:03:51.927476 16913 net.cpp:141] Setting up inception_5a/relu_3x3_reduce
I0403 16:03:51.927502 16913 net.cpp:148] Top shape: 24 160 7 7 (188160)
I0403 16:03:51.927517 16913 net.cpp:156] Memory required for data: 1296039456
I0403 16:03:51.927531 16913 layer_factory.hpp:77] Creating layer inception_5a/3x3
I0403 16:03:51.927553 16913 net.cpp:91] Creating Layer inception_5a/3x3
I0403 16:03:51.927572 16913 net.cpp:425] inception_5a/3x3 <- inception_5a/3x3_reduce
I0403 16:03:51.927594 16913 net.cpp:399] inception_5a/3x3 -> inception_5a/3x3
I0403 16:03:51.932530 16913 net.cpp:141] Setting up inception_5a/3x3
I0403 16:03:51.932561 16913 net.cpp:148] Top shape: 24 320 7 7 (376320)
I0403 16:03:51.932579 16913 net.cpp:156] Memory required for data: 1297544736
I0403 16:03:51.932596 16913 layer_factory.hpp:77] Creating layer inception_5a/relu_3x3
I0403 16:03:51.932621 16913 net.cpp:91] Creating Layer inception_5a/relu_3x3
I0403 16:03:51.932637 16913 net.cpp:425] inception_5a/relu_3x3 <- inception_5a/3x3
I0403 16:03:51.932658 16913 net.cpp:386] inception_5a/relu_3x3 -> inception_5a/3x3 (in-place)
I0403 16:03:51.932948 16913 net.cpp:141] Setting up inception_5a/relu_3x3
I0403 16:03:51.932976 16913 net.cpp:148] Top shape: 24 320 7 7 (376320)
I0403 16:03:51.932991 16913 net.cpp:156] Memory required for data: 1299050016
I0403 16:03:51.933007 16913 layer_factory.hpp:77] Creating layer inception_5a/5x5_reduce
I0403 16:03:51.933030 16913 net.cpp:91] Creating Layer inception_5a/5x5_reduce
I0403 16:03:51.933049 16913 net.cpp:425] inception_5a/5x5_reduce <- pool4/3x3_s2_pool4/3x3_s2_0_split_2
I0403 16:03:51.933071 16913 net.cpp:399] inception_5a/5x5_reduce -> inception_5a/5x5_reduce
I0403 16:03:51.934212 16913 net.cpp:141] Setting up inception_5a/5x5_reduce
I0403 16:03:51.934243 16913 net.cpp:148] Top shape: 24 32 7 7 (37632)
I0403 16:03:51.934260 16913 net.cpp:156] Memory required for data: 1299200544
I0403 16:03:51.934279 16913 layer_factory.hpp:77] Creating layer inception_5a/relu_5x5_reduce
I0403 16:03:51.934298 16913 net.cpp:91] Creating Layer inception_5a/relu_5x5_reduce
I0403 16:03:51.934316 16913 net.cpp:425] inception_5a/relu_5x5_reduce <- inception_5a/5x5_reduce
I0403 16:03:51.934334 16913 net.cpp:386] inception_5a/relu_5x5_reduce -> inception_5a/5x5_reduce (in-place)
I0403 16:03:51.934631 16913 net.cpp:141] Setting up inception_5a/relu_5x5_reduce
I0403 16:03:51.934659 16913 net.cpp:148] Top shape: 24 32 7 7 (37632)
I0403 16:03:51.934675 16913 net.cpp:156] Memory required for data: 1299351072
I0403 16:03:51.934690 16913 layer_factory.hpp:77] Creating layer inception_5a/5x5
I0403 16:03:51.934712 16913 net.cpp:91] Creating Layer inception_5a/5x5
I0403 16:03:51.934732 16913 net.cpp:425] inception_5a/5x5 <- inception_5a/5x5_reduce
I0403 16:03:51.934753 16913 net.cpp:399] inception_5a/5x5 -> inception_5a/5x5
I0403 16:03:51.936435 16913 net.cpp:141] Setting up inception_5a/5x5
I0403 16:03:51.936475 16913 net.cpp:148] Top shape: 24 128 7 7 (150528)
I0403 16:03:51.936491 16913 net.cpp:156] Memory required for data: 1299953184
I0403 16:03:51.936509 16913 layer_factory.hpp:77] Creating layer inception_5a/relu_5x5
I0403 16:03:51.936527 16913 net.cpp:91] Creating Layer inception_5a/relu_5x5
I0403 16:03:51.936543 16913 net.cpp:425] inception_5a/relu_5x5 <- inception_5a/5x5
I0403 16:03:51.936563 16913 net.cpp:386] inception_5a/relu_5x5 -> inception_5a/5x5 (in-place)
I0403 16:03:51.936755 16913 net.cpp:141] Setting up inception_5a/relu_5x5
I0403 16:03:51.936781 16913 net.cpp:148] Top shape: 24 128 7 7 (150528)
I0403 16:03:51.936796 16913 net.cpp:156] Memory required for data: 1300555296
I0403 16:03:51.936811 16913 layer_factory.hpp:77] Creating layer inception_5a/pool
I0403 16:03:51.936830 16913 net.cpp:91] Creating Layer inception_5a/pool
I0403 16:03:51.936847 16913 net.cpp:425] inception_5a/pool <- pool4/3x3_s2_pool4/3x3_s2_0_split_3
I0403 16:03:51.936866 16913 net.cpp:399] inception_5a/pool -> inception_5a/pool
I0403 16:03:51.936938 16913 net.cpp:141] Setting up inception_5a/pool
I0403 16:03:51.936961 16913 net.cpp:148] Top shape: 24 832 7 7 (978432)
I0403 16:03:51.936977 16913 net.cpp:156] Memory required for data: 1304469024
I0403 16:03:51.936992 16913 layer_factory.hpp:77] Creating layer inception_5a/pool_proj
I0403 16:03:51.937013 16913 net.cpp:91] Creating Layer inception_5a/pool_proj
I0403 16:03:51.937031 16913 net.cpp:425] inception_5a/pool_proj <- inception_5a/pool
I0403 16:03:51.937052 16913 net.cpp:399] inception_5a/pool_proj -> inception_5a/pool_proj
I0403 16:03:51.939277 16913 net.cpp:141] Setting up inception_5a/pool_proj
I0403 16:03:51.939311 16913 net.cpp:148] Top shape: 24 128 7 7 (150528)
I0403 16:03:51.939327 16913 net.cpp:156] Memory required for data: 1305071136
I0403 16:03:51.939345 16913 layer_factory.hpp:77] Creating layer inception_5a/relu_pool_proj
I0403 16:03:51.939363 16913 net.cpp:91] Creating Layer inception_5a/relu_pool_proj
I0403 16:03:51.939380 16913 net.cpp:425] inception_5a/relu_pool_proj <- inception_5a/pool_proj
I0403 16:03:51.939399 16913 net.cpp:386] inception_5a/relu_pool_proj -> inception_5a/pool_proj (in-place)
I0403 16:03:51.939693 16913 net.cpp:141] Setting up inception_5a/relu_pool_proj
I0403 16:03:51.939723 16913 net.cpp:148] Top shape: 24 128 7 7 (150528)
I0403 16:03:51.939739 16913 net.cpp:156] Memory required for data: 1305673248
I0403 16:03:51.939754 16913 layer_factory.hpp:77] Creating layer inception_5a/output
I0403 16:03:51.939771 16913 net.cpp:91] Creating Layer inception_5a/output
I0403 16:03:51.939787 16913 net.cpp:425] inception_5a/output <- inception_5a/1x1
I0403 16:03:51.939805 16913 net.cpp:425] inception_5a/output <- inception_5a/3x3
I0403 16:03:51.939821 16913 net.cpp:425] inception_5a/output <- inception_5a/5x5
I0403 16:03:51.939837 16913 net.cpp:425] inception_5a/output <- inception_5a/pool_proj
I0403 16:03:51.939857 16913 net.cpp:399] inception_5a/output -> inception_5a/output
I0403 16:03:51.939905 16913 net.cpp:141] Setting up inception_5a/output
I0403 16:03:51.939930 16913 net.cpp:148] Top shape: 24 832 7 7 (978432)
I0403 16:03:51.939945 16913 net.cpp:156] Memory required for data: 1309586976
I0403 16:03:51.939960 16913 layer_factory.hpp:77] Creating layer inception_5a/output_inception_5a/output_0_split
I0403 16:03:51.939980 16913 net.cpp:91] Creating Layer inception_5a/output_inception_5a/output_0_split
I0403 16:03:51.939996 16913 net.cpp:425] inception_5a/output_inception_5a/output_0_split <- inception_5a/output
I0403 16:03:51.940014 16913 net.cpp:399] inception_5a/output_inception_5a/output_0_split -> inception_5a/output_inception_5a/output_0_split_0
I0403 16:03:51.940035 16913 net.cpp:399] inception_5a/output_inception_5a/output_0_split -> inception_5a/output_inception_5a/output_0_split_1
I0403 16:03:51.940059 16913 net.cpp:399] inception_5a/output_inception_5a/output_0_split -> inception_5a/output_inception_5a/output_0_split_2
I0403 16:03:51.940080 16913 net.cpp:399] inception_5a/output_inception_5a/output_0_split -> inception_5a/output_inception_5a/output_0_split_3
I0403 16:03:51.940188 16913 net.cpp:141] Setting up inception_5a/output_inception_5a/output_0_split
I0403 16:03:51.940213 16913 net.cpp:148] Top shape: 24 832 7 7 (978432)
I0403 16:03:51.940230 16913 net.cpp:148] Top shape: 24 832 7 7 (978432)
I0403 16:03:51.940246 16913 net.cpp:148] Top shape: 24 832 7 7 (978432)
I0403 16:03:51.940261 16913 net.cpp:148] Top shape: 24 832 7 7 (978432)
I0403 16:03:51.940275 16913 net.cpp:156] Memory required for data: 1325241888
I0403 16:03:51.940290 16913 layer_factory.hpp:77] Creating layer inception_5b/1x1
I0403 16:03:51.940311 16913 net.cpp:91] Creating Layer inception_5b/1x1
I0403 16:03:51.940328 16913 net.cpp:425] inception_5b/1x1 <- inception_5a/output_inception_5a/output_0_split_0
I0403 16:03:51.940351 16913 net.cpp:399] inception_5b/1x1 -> inception_5b/1x1
I0403 16:03:51.944025 16913 net.cpp:141] Setting up inception_5b/1x1
I0403 16:03:51.944056 16913 net.cpp:148] Top shape: 24 384 7 7 (451584)
I0403 16:03:51.944074 16913 net.cpp:156] Memory required for data: 1327048224
I0403 16:03:51.944093 16913 layer_factory.hpp:77] Creating layer inception_5b/relu_1x1
I0403 16:03:51.944110 16913 net.cpp:91] Creating Layer inception_5b/relu_1x1
I0403 16:03:51.944128 16913 net.cpp:425] inception_5b/relu_1x1 <- inception_5b/1x1
I0403 16:03:51.944144 16913 net.cpp:386] inception_5b/relu_1x1 -> inception_5b/1x1 (in-place)
I0403 16:03:51.944452 16913 net.cpp:141] Setting up inception_5b/relu_1x1
I0403 16:03:51.944479 16913 net.cpp:148] Top shape: 24 384 7 7 (451584)
I0403 16:03:51.944496 16913 net.cpp:156] Memory required for data: 1328854560
I0403 16:03:51.944511 16913 layer_factory.hpp:77] Creating layer inception_5b/3x3_reduce
I0403 16:03:51.944533 16913 net.cpp:91] Creating Layer inception_5b/3x3_reduce
I0403 16:03:51.944551 16913 net.cpp:425] inception_5b/3x3_reduce <- inception_5a/output_inception_5a/output_0_split_1
I0403 16:03:51.944571 16913 net.cpp:399] inception_5b/3x3_reduce -> inception_5b/3x3_reduce
I0403 16:03:51.947190 16913 net.cpp:141] Setting up inception_5b/3x3_reduce
I0403 16:03:51.947221 16913 net.cpp:148] Top shape: 24 192 7 7 (225792)
I0403 16:03:51.947239 16913 net.cpp:156] Memory required for data: 1329757728
I0403 16:03:51.947258 16913 layer_factory.hpp:77] Creating layer inception_5b/relu_3x3_reduce
I0403 16:03:51.947276 16913 net.cpp:91] Creating Layer inception_5b/relu_3x3_reduce
I0403 16:03:51.947293 16913 net.cpp:425] inception_5b/relu_3x3_reduce <- inception_5b/3x3_reduce
I0403 16:03:51.947314 16913 net.cpp:386] inception_5b/relu_3x3_reduce -> inception_5b/3x3_reduce (in-place)
I0403 16:03:51.947502 16913 net.cpp:141] Setting up inception_5b/relu_3x3_reduce
I0403 16:03:51.947528 16913 net.cpp:148] Top shape: 24 192 7 7 (225792)
I0403 16:03:51.947542 16913 net.cpp:156] Memory required for data: 1330660896
I0403 16:03:51.947557 16913 layer_factory.hpp:77] Creating layer inception_5b/3x3
I0403 16:03:51.947581 16913 net.cpp:91] Creating Layer inception_5b/3x3
I0403 16:03:51.947598 16913 net.cpp:425] inception_5b/3x3 <- inception_5b/3x3_reduce
I0403 16:03:51.947628 16913 net.cpp:399] inception_5b/3x3 -> inception_5b/3x3
I0403 16:03:51.954166 16913 net.cpp:141] Setting up inception_5b/3x3
I0403 16:03:51.954197 16913 net.cpp:148] Top shape: 24 384 7 7 (451584)
I0403 16:03:51.954216 16913 net.cpp:156] Memory required for data: 1332467232
I0403 16:03:51.954234 16913 layer_factory.hpp:77] Creating layer inception_5b/relu_3x3
I0403 16:03:51.954253 16913 net.cpp:91] Creating Layer inception_5b/relu_3x3
I0403 16:03:51.954270 16913 net.cpp:425] inception_5b/relu_3x3 <- inception_5b/3x3
I0403 16:03:51.954290 16913 net.cpp:386] inception_5b/relu_3x3 -> inception_5b/3x3 (in-place)
I0403 16:03:51.954583 16913 net.cpp:141] Setting up inception_5b/relu_3x3
I0403 16:03:51.954617 16913 net.cpp:148] Top shape: 24 384 7 7 (451584)
I0403 16:03:51.954634 16913 net.cpp:156] Memory required for data: 1334273568
I0403 16:03:51.954650 16913 layer_factory.hpp:77] Creating layer inception_5b/5x5_reduce
I0403 16:03:51.954689 16913 net.cpp:91] Creating Layer inception_5b/5x5_reduce
I0403 16:03:51.954709 16913 net.cpp:425] inception_5b/5x5_reduce <- inception_5a/output_inception_5a/output_0_split_2
I0403 16:03:51.954731 16913 net.cpp:399] inception_5b/5x5_reduce -> inception_5b/5x5_reduce
I0403 16:03:51.955986 16913 net.cpp:141] Setting up inception_5b/5x5_reduce
I0403 16:03:51.956014 16913 net.cpp:148] Top shape: 24 48 7 7 (56448)
I0403 16:03:51.956030 16913 net.cpp:156] Memory required for data: 1334499360
I0403 16:03:51.956049 16913 layer_factory.hpp:77] Creating layer inception_5b/relu_5x5_reduce
I0403 16:03:51.956068 16913 net.cpp:91] Creating Layer inception_5b/relu_5x5_reduce
I0403 16:03:51.956085 16913 net.cpp:425] inception_5b/relu_5x5_reduce <- inception_5b/5x5_reduce
I0403 16:03:51.956104 16913 net.cpp:386] inception_5b/relu_5x5_reduce -> inception_5b/5x5_reduce (in-place)
I0403 16:03:51.956471 16913 net.cpp:141] Setting up inception_5b/relu_5x5_reduce
I0403 16:03:51.956498 16913 net.cpp:148] Top shape: 24 48 7 7 (56448)
I0403 16:03:51.956514 16913 net.cpp:156] Memory required for data: 1334725152
I0403 16:03:51.956531 16913 layer_factory.hpp:77] Creating layer inception_5b/5x5
I0403 16:03:51.956552 16913 net.cpp:91] Creating Layer inception_5b/5x5
I0403 16:03:51.956568 16913 net.cpp:425] inception_5b/5x5 <- inception_5b/5x5_reduce
I0403 16:03:51.956588 16913 net.cpp:399] inception_5b/5x5 -> inception_5b/5x5
I0403 16:03:51.958725 16913 net.cpp:141] Setting up inception_5b/5x5
I0403 16:03:51.958755 16913 net.cpp:148] Top shape: 24 128 7 7 (150528)
I0403 16:03:51.958773 16913 net.cpp:156] Memory required for data: 1335327264
I0403 16:03:51.958793 16913 layer_factory.hpp:77] Creating layer inception_5b/relu_5x5
I0403 16:03:51.958814 16913 net.cpp:91] Creating Layer inception_5b/relu_5x5
I0403 16:03:51.958832 16913 net.cpp:425] inception_5b/relu_5x5 <- inception_5b/5x5
I0403 16:03:51.958852 16913 net.cpp:386] inception_5b/relu_5x5 -> inception_5b/5x5 (in-place)
I0403 16:03:51.959053 16913 net.cpp:141] Setting up inception_5b/relu_5x5
I0403 16:03:51.959081 16913 net.cpp:148] Top shape: 24 128 7 7 (150528)
I0403 16:03:51.959097 16913 net.cpp:156] Memory required for data: 1335929376
I0403 16:03:51.959112 16913 layer_factory.hpp:77] Creating layer inception_5b/pool
I0403 16:03:51.959133 16913 net.cpp:91] Creating Layer inception_5b/pool
I0403 16:03:51.959151 16913 net.cpp:425] inception_5b/pool <- inception_5a/output_inception_5a/output_0_split_3
I0403 16:03:51.959172 16913 net.cpp:399] inception_5b/pool -> inception_5b/pool
I0403 16:03:51.959250 16913 net.cpp:141] Setting up inception_5b/pool
I0403 16:03:51.959276 16913 net.cpp:148] Top shape: 24 832 7 7 (978432)
I0403 16:03:51.959291 16913 net.cpp:156] Memory required for data: 1339843104
I0403 16:03:51.959306 16913 layer_factory.hpp:77] Creating layer inception_5b/pool_proj
I0403 16:03:51.959331 16913 net.cpp:91] Creating Layer inception_5b/pool_proj
I0403 16:03:51.959349 16913 net.cpp:425] inception_5b/pool_proj <- inception_5b/pool
I0403 16:03:51.959372 16913 net.cpp:399] inception_5b/pool_proj -> inception_5b/pool_proj
I0403 16:03:51.961807 16913 net.cpp:141] Setting up inception_5b/pool_proj
I0403 16:03:51.961838 16913 net.cpp:148] Top shape: 24 128 7 7 (150528)
I0403 16:03:51.961856 16913 net.cpp:156] Memory required for data: 1340445216
I0403 16:03:51.961875 16913 layer_factory.hpp:77] Creating layer inception_5b/relu_pool_proj
I0403 16:03:51.961894 16913 net.cpp:91] Creating Layer inception_5b/relu_pool_proj
I0403 16:03:51.961913 16913 net.cpp:425] inception_5b/relu_pool_proj <- inception_5b/pool_proj
I0403 16:03:51.961935 16913 net.cpp:386] inception_5b/relu_pool_proj -> inception_5b/pool_proj (in-place)
I0403 16:03:51.962255 16913 net.cpp:141] Setting up inception_5b/relu_pool_proj
I0403 16:03:51.962285 16913 net.cpp:148] Top shape: 24 128 7 7 (150528)
I0403 16:03:51.962301 16913 net.cpp:156] Memory required for data: 1341047328
I0403 16:03:51.962317 16913 layer_factory.hpp:77] Creating layer inception_5b/output
I0403 16:03:51.962335 16913 net.cpp:91] Creating Layer inception_5b/output
I0403 16:03:51.962368 16913 net.cpp:425] inception_5b/output <- inception_5b/1x1
I0403 16:03:51.962388 16913 net.cpp:425] inception_5b/output <- inception_5b/3x3
I0403 16:03:51.962405 16913 net.cpp:425] inception_5b/output <- inception_5b/5x5
I0403 16:03:51.962421 16913 net.cpp:425] inception_5b/output <- inception_5b/pool_proj
I0403 16:03:51.962442 16913 net.cpp:399] inception_5b/output -> inception_5b/output
I0403 16:03:51.962496 16913 net.cpp:141] Setting up inception_5b/output
I0403 16:03:51.962524 16913 net.cpp:148] Top shape: 24 1024 7 7 (1204224)
I0403 16:03:51.962541 16913 net.cpp:156] Memory required for data: 1345864224
I0403 16:03:51.962558 16913 layer_factory.hpp:77] Creating layer pool5/7x7_s1
I0403 16:03:51.962575 16913 net.cpp:91] Creating Layer pool5/7x7_s1
I0403 16:03:51.962591 16913 net.cpp:425] pool5/7x7_s1 <- inception_5b/output
I0403 16:03:51.962615 16913 net.cpp:399] pool5/7x7_s1 -> pool5/7x7_s1
I0403 16:03:51.962846 16913 net.cpp:141] Setting up pool5/7x7_s1
I0403 16:03:51.962873 16913 net.cpp:148] Top shape: 24 1024 1 1 (24576)
I0403 16:03:51.962889 16913 net.cpp:156] Memory required for data: 1345962528
I0403 16:03:51.962905 16913 layer_factory.hpp:77] Creating layer pool5/drop_7x7_s1
I0403 16:03:51.962924 16913 net.cpp:91] Creating Layer pool5/drop_7x7_s1
I0403 16:03:51.962944 16913 net.cpp:425] pool5/drop_7x7_s1 <- pool5/7x7_s1
I0403 16:03:51.962963 16913 net.cpp:386] pool5/drop_7x7_s1 -> pool5/7x7_s1 (in-place)
I0403 16:03:51.963017 16913 net.cpp:141] Setting up pool5/drop_7x7_s1
I0403 16:03:51.963045 16913 net.cpp:148] Top shape: 24 1024 1 1 (24576)
I0403 16:03:51.963062 16913 net.cpp:156] Memory required for data: 1346060832
I0403 16:03:51.963076 16913 layer_factory.hpp:77] Creating layer loss3/classifier_plantvillage
I0403 16:03:51.963096 16913 net.cpp:91] Creating Layer loss3/classifier_plantvillage
I0403 16:03:51.963114 16913 net.cpp:425] loss3/classifier_plantvillage <- pool5/7x7_s1
I0403 16:03:51.963136 16913 net.cpp:399] loss3/classifier_plantvillage -> loss3/classifier_plantvillage
I0403 16:03:51.963579 16913 net.cpp:141] Setting up loss3/classifier_plantvillage
I0403 16:03:51.963610 16913 net.cpp:148] Top shape: 24 38 (912)
I0403 16:03:51.963629 16913 net.cpp:156] Memory required for data: 1346064480
I0403 16:03:51.963647 16913 layer_factory.hpp:77] Creating layer loss3/classifier_plantvillage_loss3/classifier_plantvillage_0_split
I0403 16:03:51.963670 16913 net.cpp:91] Creating Layer loss3/classifier_plantvillage_loss3/classifier_plantvillage_0_split
I0403 16:03:51.963690 16913 net.cpp:425] loss3/classifier_plantvillage_loss3/classifier_plantvillage_0_split <- loss3/classifier_plantvillage
I0403 16:03:51.963711 16913 net.cpp:399] loss3/classifier_plantvillage_loss3/classifier_plantvillage_0_split -> loss3/classifier_plantvillage_loss3/classifier_plantvillage_0_split_0
I0403 16:03:51.963734 16913 net.cpp:399] loss3/classifier_plantvillage_loss3/classifier_plantvillage_0_split -> loss3/classifier_plantvillage_loss3/classifier_plantvillage_0_split_1
I0403 16:03:51.963758 16913 net.cpp:399] loss3/classifier_plantvillage_loss3/classifier_plantvillage_0_split -> loss3/classifier_plantvillage_loss3/classifier_plantvillage_0_split_2
I0403 16:03:51.963779 16913 net.cpp:399] loss3/classifier_plantvillage_loss3/classifier_plantvillage_0_split -> loss3/classifier_plantvillage_loss3/classifier_plantvillage_0_split_3
I0403 16:03:51.963887 16913 net.cpp:141] Setting up loss3/classifier_plantvillage_loss3/classifier_plantvillage_0_split
I0403 16:03:51.963912 16913 net.cpp:148] Top shape: 24 38 (912)
I0403 16:03:51.963929 16913 net.cpp:148] Top shape: 24 38 (912)
I0403 16:03:51.963946 16913 net.cpp:148] Top shape: 24 38 (912)
I0403 16:03:51.963963 16913 net.cpp:148] Top shape: 24 38 (912)
I0403 16:03:51.963976 16913 net.cpp:156] Memory required for data: 1346079072
I0403 16:03:51.963991 16913 layer_factory.hpp:77] Creating layer loss1/loss
I0403 16:03:51.964015 16913 net.cpp:91] Creating Layer loss1/loss
I0403 16:03:51.964035 16913 net.cpp:425] loss1/loss <- loss1/classifier_plantvillage_loss1/classifier_plantvillage_0_split_0
I0403 16:03:51.964067 16913 net.cpp:425] loss1/loss <- label_data_1_split_0
…
