…
I0403 16:36:27.597527 18873 net.cpp:313] The NetState phase (1) differed from the phase (0) specified by a rule in layer data
I0403 16:36:27.598984 18873 net.cpp:49] Initializing net from parameters: 
state {
  phase: TEST
}
layer {
  name: "data"
  type: "Data"
  top: "data"
  top: "label"
  include {
    phase: TEST
  }
  transform_param {
    mirror: false
    crop_size: 224
    mean_file: "/home/mohanty/data/final_dataset/lmdb/color-20-80/mean.binaryproto"
  }
  data_param {
    source: "/home/mohanty/data/final_dataset/lmdb/color-20-80/test_db"
    batch_size: 24
    backend: LMDB
  }
}
layer {
  name: "conv1/7x7_s2"
  type: "Convolution"
  bottom: "data"
  top: "conv1/7x7_s2"
  param {
    lr_mult: 1
    decay_mult: 1
  }
  param {
    lr_mult: 2
    decay_mult: 0
  }
  convolution_param {
    num_output: 64
    pad: 3
    kernel_size: 7
    stride: 2
    weight_filler {
      type: "xavier"
      std: 0.1
    }
    bias_filler {
      type: "constant"
      value: 0.2
    }
  }
}
layer {
  name: "conv1/relu_7x7"
  type: "ReLU"
  bottom: "conv1/7x7_s2"
  top: "conv1/7x7_s2"
}
layer {
  name: "pool1/3x3_s2"
  type: "Pooling"
  bottom: "conv1/7x7_s2"
  top: "pool1/3x3_s2"
  pooling_param {
    pool: MAX
    kernel_size: 3
    stride: 2
  }
}
layer {
  name: "pool1/norm1"
  type: "LRN"
  bottom: "pool1/3x3_s2"
  top: "pool1/norm1"
  lrn_param {
    local_size: 5
    alpha: 0.0001
    beta: 0.75
  }
}
layer {
  name: "conv2/3x3_reduce"
  type: "Convolution"
  bottom: "pool1/norm1"
  top: "conv2/3x3_reduce"
  param {
    lr_mult: 1
    decay_mult: 1
  }
  param {
    lr_mult: 2
    decay_mult: 0
  }
  convolution_param {
    num_output: 64
    kernel_size: 1
    weight_filler {
      type: "xavier"
      std: 0.1
    }
    bias_filler {
      type: "constant"
      value: 0.2
    }
  }
}
layer {
  name: "conv2/relu_3x3_reduce"
  type: "ReLU"
  bottom: "conv2/3x3_reduce"
  top: "conv2/3x3_reduce"
}
layer {
  name: "conv2/3x3"
  type: "Convolution"
  bottom: "conv2/3x3_reduce"
  top: "conv2/3x3"
  param {
    lr_mult: 1
    decay_mult: 1
  }
  param {
    lr_mult: 2
    decay_mult: 0
  }
  convolution_param {
    num_output: 192
    pad: 1
    kernel_size: 3
    weight_filler {
      type: "xavier"
      std: 0.03
    }
    bias_filler {
      type: "constant"
      value: 0.2
    }
  }
}
layer {
  name: "conv2/relu_3x3"
  type: "ReLU"
  bottom: "conv2/3x3"
  top: "conv2/3x3"
}
layer {
  name: "conv2/norm2"
  type: "LRN"
  bottom: "conv2/3x3"
  top: "conv2/norm2"
  lrn_param {
    local_size: 5
    alpha: 0.0001
    beta: 0.75
  }
}
layer {
  name: "pool2/3x3_s2"
  type: "Pooling"
  bottom: "conv2/norm2"
  top: "pool2/3x3_s2"
  pooling_param {
    pool: MAX
    kernel_size: 3
    stride: 2
  }
}
layer {
  name: "inception_3a/1x1"
  type: "Convolution"
  bottom: "pool2/3x3_s2"
  top: "inception_3a/1x1"
  param {
    lr_mult: 1
    decay_mult: 1
  }
  param {
    lr_mult: 2
    decay_mult: 0
  }
  convolution_param {
    num_output: 64
    kernel_size: 1
    weight_filler {
      type: "xavier"
      std: 0.03
    }
    bias_filler {
      type: "constant"
      value: 0.2
    }
  }
}
layer {
  name: "inception_3a/relu_1x1"
  type: "ReLU"
  bottom: "inception_3a/1x1"
  top: "inception_3a/1x1"
}
layer {
  name: "inception_3a/3x3_reduce"
  type: "Convolution"
  bottom: "pool2/3x3_s2"
  top: "inception_3a/3x3_reduce"
  param {
    lr_mult: 1
    decay_mult: 1
  }
  param {
    lr_mult: 2
    decay_mult: 0
  }
  convolution_param {
    num_output: 96
    kernel_size: 1
    weight_filler {
      type: "xavier"
      std: 0.09
    }
    bias_filler {
      type: "constant"
      value: 0.2
    }
  }
}
layer {
  name: "inception_3a/relu_3x3_reduce"
  type: "ReLU"
  bottom: "inception_3a/3x3_reduce"
  top: "inception_3a/3x3_reduce"
}
layer {
  name: "inception_3a/3x3"
  type: "Convolution"
  bottom: "inception_3a/3x3_reduce"
  top: "inception_3a/3x3"
  param {
    lr_mult: 1
    decay_mult: 1
  }
  param {
    lr_mult: 2
    decay_mult: 0
  }
  convolution_param {
    num_output: 128
    pad: 1
    kernel_size: 3
    weight_filler {
      type: "xavier"
      std: 0.03
    }
    bias_filler {
      type: "constant"
      value: 0.2
    }
  }
}
layer {
  name: "inception_3a/relu_3x3"
  type: "ReLU"
  bottom: "inception_3a/3x3"
  top: "inception_3a/3x3"
}
layer {
  name: "inception_3a/5x5_reduce"
  type: "Convolution"
  bottom: "pool2/3x3_s2"
  top: "inception_3a/5x5_reduce"
  param {
    lr_mult: 1
    decay_mult: 1
  }
  param {
    lr_mult: 2
    decay_mult: 0
  }
  convolution_param {
    num_output: 16
    kernel_size: 1
    weight_filler {
      type: "xavier"
      std: 0.2
    }
    bias_filler {
      type: "constant"
      value: 0.2
    }
  }
}
layer {
  name: "inception_3a/relu_5x5_reduce"
  type: "ReLU"
  bottom: "inception_3a/5x5_reduce"
  top: "inception_3a/5x5_reduce"
}
layer {
  name: "inception_3a/5x5"
  type: "Convolution"
  bottom: "inception_3a/5x5_reduce"
  top: "inception_3a/5x5"
  param {
    lr_mult: 1
    decay_mult: 1
  }
  param {
    lr_mult: 2
    decay_mult: 0
  }
  convolution_param {
    num_output: 32
    pad: 2
    kernel_size: 5
    weight_filler {
      type: "xavier"
      std: 0.03
    }
    bias_filler {
      type: "constant"
      value: 0.2
    }
  }
}
layer {
  name: "inception_3a/relu_5x5"
  type: "ReLU"
  bottom: "inception_3a/5x5"
  top: "inception_3a/5x5"
}
layer {
  name: "inception_3a/pool"
  type: "Pooling"
  bottom: "pool2/3x3_s2"
  top: "inception_3a/pool"
  pooling_param {
    pool: MAX
    kernel_size: 3
    stride: 1
    pad: 1
  }
}
layer {
  name: "inception_3a/pool_proj"
  type: "Convolution"
  bottom: "inception_3a/pool"
  top: "inception_3a/pool_proj"
  param {
    lr_mult: 1
    decay_mult: 1
  }
  param {
    lr_mult: 2
    decay_mult: 0
  }
  convolution_param {
    num_output: 32
    kernel_size: 1
    weight_filler {
      type: "xavier"
      std: 0.1
    }
    bias_filler {
      type: "constant"
      value: 0.2
    }
  }
}
layer {
  name: "inception_3a/relu_pool_proj"
  type: "ReLU"
  bottom: "inception_3a/pool_proj"
  top: "inception_3a/pool_proj"
}
layer {
  name: "inception_3a/output"
  type: "Concat"
  bottom: "inception_3a/1x1"
  bottom: "inception_3a/3x3"
  bottom: "inception_3a/5x5"
  bottom: "inception_3a/pool_proj"
  top: "inception_3a/output"
}
layer {
  name: "inception_3b/1x1"
  type: "Convolution"
  bottom: "inception_3a/output"
  top: "inception_3b/1x1"
  param {
    lr_mult: 1
    decay_mult: 1
  }
  param {
    lr_mult: 2
    decay_mult: 0
  }
  convolution_param {
    num_output: 128
    kernel_size: 1
    weight_filler {
      type: "xavier"
      std: 0.03
    }
    bias_filler {
      type: "constant"
      value: 0.2
    }
  }
}
layer {
  name: "inception_3b/relu_1x1"
  type: "ReLU"
  bottom: "inception_3b/1x1"
  top: "inception_3b/1x1"
}
layer {
  name: "inception_3b/3x3_reduce"
  type: "Convolution"
  bottom: "inception_3a/output"
  top: "inception_3b/3x3_reduce"
  param {
    lr_mult: 1
    decay_mult: 1
  }
  param {
    lr_mult: 2
    decay_mult: 0
  }
  convolution_param {
    num_output: 128
    kernel_size: 1
    weight_filler {
      type: "xavier"
      std: 0.09
    }
    bias_filler {
      type: "constant"
      value: 0.2
    }
  }
}
layer {
  name: "inception_3b/relu_3x3_reduce"
  type: "ReLU"
  bottom: "inception_3b/3x3_reduce"
  top: "inception_3b/3x3_reduce"
}
layer {
  name: "inception_3b/3x3"
  type: "Convolution"
  bottom: "inception_3b/3x3_reduce"
  top: "inception_3b/3x3"
  param {
    lr_mult: 1
    decay_mult: 1
  }
  param {
    lr_mult: 2
    decay_mult: 0
  }
  convolution_param {
    num_output: 192
    pad: 1
    kernel_size: 3
    weight_filler {
      type: "xavier"
      std: 0.03
    }
    bias_filler {
      type: "constant"
      value: 0.2
    }
  }
}
layer {
  name: "inception_3b/relu_3x3"
  type: "ReLU"
  bottom: "inception_3b/3x3"
  top: "inception_3b/3x3"
}
layer {
  name: "inception_3b/5x5_reduce"
  type: "Convolution"
  bottom: "inception_3a/output"
  top: "inception_3b/5x5_reduce"
  param {
    lr_mult: 1
    decay_mult: 1
  }
  param {
    lr_mult: 2
    decay_mult: 0
  }
  convolution_param {
    num_output: 32
    kernel_size: 1
    weight_filler {
      type: "xavier"
      std: 0.2
    }
    bias_filler {
      type: "constant"
      value: 0.2
    }
  }
}
layer {
  name: "inception_3b/relu_5x5_reduce"
  type: "ReLU"
  bottom: "inception_3b/5x5_reduce"
  top: "inception_3b/5x5_reduce"
}
layer {
  name: "inception_3b/5x5"
  type: "Convolution"
  bottom: "inception_3b/5x5_reduce"
  top: "inception_3b/5x5"
  param {
    lr_mult: 1
    decay_mult: 1
  }
  param {
    lr_mult: 2
    decay_mult: 0
  }
  convolution_param {
    num_output: 96
    pad: 2
    kernel_size: 5
    weight_filler {
      type: "xavier"
      std: 0.03
    }
    bias_filler {
      type: "constant"
      value: 0.2
    }
  }
}
layer {
  name: "inception_3b/relu_5x5"
  type: "ReLU"
  bottom: "inception_3b/5x5"
  top: "inception_3b/5x5"
}
layer {
  name: "inception_3b/pool"
  type: "Pooling"
  bottom: "inception_3a/output"
  top: "inception_3b/pool"
  pooling_param {
    pool: MAX
    kernel_size: 3
    stride: 1
    pad: 1
  }
}
layer {
  name: "inception_3b/pool_proj"
  type: "Convolution"
  bottom: "inception_3b/pool"
  top: "inception_3b/pool_proj"
  param {
    lr_mult: 1
    decay_mult: 1
  }
  param {
    lr_mult: 2
    decay_mult: 0
  }
  convolution_param {
    num_output: 64
    kernel_size: 1
    weight_filler {
      type: "xavier"
      std: 0.1
    }
    bias_filler {
      type: "constant"
      value: 0.2
    }
  }
}
layer {
  name: "inception_3b/relu_pool_proj"
  type: "ReLU"
  bottom: "inception_3b/pool_proj"
  top: "inception_3b/pool_proj"
}
layer {
  name: "inception_3b/output"
  type: "Concat"
  bottom: "inception_3b/1x1"
  bottom: "inception_3b/3x3"
  bottom: "inception_3b/5x5"
  bottom: "inception_3b/pool_proj"
  top: "inception_3b/output"
}
layer {
  name: "pool3/3x3_s2"
  type: "Pooling"
  bottom: "inception_3b/output"
  top: "pool3/3x3_s2"
  pooling_param {
    pool: MAX
    kernel_size: 3
    stride: 2
  }
}
layer {
  name: "inception_4a/1x1"
  type: "Convolution"
  bottom: "pool3/3x3_s2"
  top: "inception_4a/1x1"
  param {
    lr_mult: 1
    decay_mult: 1
  }
  param {
    lr_mult: 2
    decay_mult: 0
  }
  convolution_param {
    num_output: 192
    kernel_size: 1
    weight_filler {
      type: "xavier"
      std: 0.03
    }
    bias_filler {
      type: "constant"
      value: 0.2
    }
  }
}
layer {
  name: "inception_4a/relu_1x1"
  type: "ReLU"
  bottom: "inception_4a/1x1"
  top: "inception_4a/1x1"
}
layer {
  name: "inception_4a/3x3_reduce"
  type: "Convolution"
  bottom: "pool3/3x3_s2"
  top: "inception_4a/3x3_reduce"
  param {
    lr_mult: 1
    decay_mult: 1
  }
  param {
    lr_mult: 2
    decay_mult: 0
  }
  convolution_param {
    num_output: 96
    kernel_size: 1
    weight_filler {
      type: "xavier"
      std: 0.09
    }
    bias_filler {
      type: "constant"
      value: 0.2
    }
  }
}
layer {
  name: "inception_4a/relu_3x3_reduce"
  type: "ReLU"
  bottom: "inception_4a/3x3_reduce"
  top: "inception_4a/3x3_reduce"
}
layer {
  name: "inception_4a/3x3"
  type: "Convolution"
  bottom: "inception_4a/3x3_reduce"
  top: "inception_4a/3x3"
  param {
    lr_mult: 1
    decay_mult: 1
  }
  param {
    lr_mult: 2
    decay_mult: 0
  }
  convolution_param {
    num_output: 208
    pad: 1
    kernel_size: 3
    weight_filler {
      type: "xavier"
      std: 0.03
    }
    bias_filler {
      type: "constant"
      value: 0.2
    }
  }
}
layer {
  name: "inception_4a/relu_3x3"
  type: "ReLU"
  bottom: "inception_4a/3x3"
  top: "inception_4a/3x3"
}
layer {
  name: "inception_4a/5x5_reduce"
  type: "Convolution"
  bottom: "pool3/3x3_s2"
  top: "inception_4a/5x5_reduce"
  param {
    lr_mult: 1
    decay_mult: 1
  }
  param {
    lr_mult: 2
    decay_mult: 0
  }
  convolution_param {
    num_output: 16
    kernel_size: 1
    weight_filler {
      type: "xavier"
      std: 0.2
    }
    bias_filler {
      type: "constant"
      value: 0.2
    }
  }
}
layer {
  name: "inception_4a/relu_5x5_reduce"
  type: "ReLU"
  bottom: "inception_4a/5x5_reduce"
  top: "inception_4a/5x5_reduce"
}
layer {
  name: "inception_4a/5x5"
  type: "Convolution"
  bottom: "inception_4a/5x5_reduce"
  top: "inception_4a/5x5"
  param {
    lr_mult: 1
    decay_mult: 1
  }
  param {
    lr_mult: 2
    decay_mult: 0
  }
  convolution_param {
    num_output: 48
    pad: 2
    kernel_size: 5
    weight_filler {
      type: "xavier"
      std: 0.03
    }
    bias_filler {
      type: "constant"
      value: 0.2
    }
  }
}
layer {
  name: "inception_4a/relu_5x5"
  type: "ReLU"
  bottom: "inception_4a/5x5"
  top: "inception_4a/5x5"
}
layer {
  name: "inception_4a/pool"
  type: "Pooling"
  bottom: "pool3/3x3_s2"
  top: "inception_4a/pool"
  pooling_param {
    pool: MAX
    kernel_size: 3
    stride: 1
    pad: 1
  }
}
layer {
  name: "inception_4a/pool_proj"
  type: "Convolution"
  bottom: "inception_4a/pool"
  top: "inception_4a/pool_proj"
  param {
    lr_mult: 1
    decay_mult: 1
  }
  param {
    lr_mult: 2
    decay_mult: 0
  }
  convolution_param {
    num_output: 64
    kernel_size: 1
    weight_filler {
      type: "xavier"
      std: 0.1
    }
    bias_filler {
      type: "constant"
      value: 0.2
    }
  }
}
layer {
  name: "inception_4a/relu_pool_proj"
  type: "ReLU"
  bottom: "inception_4a/pool_proj"
  top: "inception_4a/pool_proj"
}
layer {
  name: "inception_4a/output"
  type: "Concat"
  bottom: "inception_4a/1x1"
  bottom: "inception_4a/3x3"
  bottom: "inception_4a/5x5"
  bottom: "inception_4a/pool_proj"
  top: "inception_4a/output"
}
layer {
  name: "loss1/ave_pool"
  type: "Pooling"
  bottom: "inception_4a/output"
  top: "loss1/ave_pool"
  pooling_param {
    pool: AVE
    kernel_size: 5
    stride: 3
  }
}
layer {
  name: "loss1/conv"
  type: "Convolution"
  bottom: "loss1/ave_pool"
  top: "loss1/conv"
  param {
    lr_mult: 1
    decay_mult: 1
  }
  param {
    lr_mult: 2
    decay_mult: 0
  }
  convolution_param {
    num_output: 128
    kernel_size: 1
    weight_filler {
      type: "xavier"
      std: 0.08
    }
    bias_filler {
      type: "constant"
      value: 0.2
    }
  }
}
layer {
  name: "loss1/relu_conv"
  type: "ReLU"
  bottom: "loss1/conv"
  top: "loss1/conv"
}
layer {
  name: "loss1/fc"
  type: "InnerProduct"
  bottom: "loss1/conv"
  top: "loss1/fc"
  param {
    lr_mult: 1
    decay_mult: 1
  }
  param {
    lr_mult: 2
    decay_mult: 0
  }
  inner_product_param {
    num_output: 1024
    weight_filler {
      type: "xavier"
      std: 0.02
    }
    bias_filler {
      type: "constant"
      value: 0.2
    }
  }
}
layer {
  name: "loss1/relu_fc"
  type: "ReLU"
  bottom: "loss1/fc"
  top: "loss1/fc"
}
layer {
  name: "loss1/drop_fc"
  type: "Dropout"
  bottom: "loss1/fc"
  top: "loss1/fc"
  dropout_param {
    dropout_ratio: 0.7
  }
}
layer {
  name: "loss1/classifier_plantvillage"
  type: "InnerProduct"
  bottom: "loss1/fc"
  top: "loss1/classifier_plantvillage"
  param {
    lr_mult: 1
    decay_mult: 1
  }
  param {
    lr_mult: 2
    decay_mult: 0
  }
  inner_product_param {
    num_output: 38
    weight_filler {
      type: "xavier"
      std: 0.0009765625
    }
    bias_filler {
      type: "constant"
      value: 0
    }
  }
}
layer {
  name: "inception_4b/1x1"
  type: "Convolution"
  bottom: "inception_4a/output"
  top: "inception_4b/1x1"
  param {
    lr_mult: 1
    decay_mult: 1
  }
  param {
    lr_mult: 2
    decay_mult: 0
  }
  convolution_param {
    num_output: 160
    kernel_size: 1
    weight_filler {
      type: "xavier"
      std: 0.03
    }
    bias_filler {
      type: "constant"
      value: 0.2
    }
  }
}
layer {
  name: "inception_4b/relu_1x1"
  type: "ReLU"
  bottom: "inception_4b/1x1"
  top: "inception_4b/1x1"
}
layer {
  name: "inception_4b/3x3_reduce"
  type: "Convolution"
  bottom: "inception_4a/output"
  top: "inception_4b/3x3_reduce"
  param {
    lr_mult: 1
    decay_mult: 1
  }
  param {
    lr_mult: 2
    decay_mult: 0
  }
  convolution_param {
    num_output: 112
    kernel_size: 1
    weight_filler {
      type: "xavier"
      std: 0.09
    }
    bias_filler {
      type: "constant"
      value: 0.2
    }
  }
}
layer {
  name: "inception_4b/relu_3x3_reduce"
  type: "ReLU"
  bottom: "inception_4b/3x3_reduce"
  top: "inception_4b/3x3_reduce"
}
layer {
  name: "inception_4b/3x3"
  type: "Convolution"
  bottom: "inception_4b/3x3_reduce"
  top: "inception_4b/3x3"
  param {
    lr_mult: 1
    decay_mult: 1
  }
  param {
    lr_mult: 2
    decay_mult: 0
  }
  convolution_param {
    num_output: 224
    pad: 1
    kernel_size: 3
    weight_filler {
      type: "xavier"
      std: 0.03
    }
    bias_filler {
      type: "constant"
      value: 0.2
    }
  }
}
layer {
  name: "inception_4b/relu_3x3"
  type: "ReLU"
  bottom: "inception_4b/3x3"
  top: "inception_4b/3x3"
}
layer {
  name: "inception_4b/5x5_reduce"
  type: "Convolution"
  bottom: "inception_4a/output"
  top: "inception_4b/5x5_reduce"
  param {
    lr_mult: 1
    decay_mult: 1
  }
  param {
    lr_mult: 2
    decay_mult: 0
  }
  convolution_param {
    num_output: 24
    kernel_size: 1
    weight_filler {
      type: "xavier"
      std: 0.2
    }
    bias_filler {
      type: "constant"
      value: 0.2
    }
  }
}
layer {
  name: "inception_4b/relu_5x5_reduce"
  type: "ReLU"
  bottom: "inception_4b/5x5_reduce"
  top: "inception_4b/5x5_reduce"
}
layer {
  name: "inception_4b/5x5"
  type: "Convolution"
  bottom: "inception_4b/5x5_reduce"
  top: "inception_4b/5x5"
  param {
    lr_mult: 1
    decay_mult: 1
  }
  param {
    lr_mult: 2
    decay_mult: 0
  }
  convolution_param {
    num_output: 64
    pad: 2
    kernel_size: 5
    weight_filler {
      type: "xavier"
      std: 0.03
    }
    bias_filler {
      type: "constant"
      value: 0.2
    }
  }
}
layer {
  name: "inception_4b/relu_5x5"
  type: "ReLU"
  bottom: "inception_4b/5x5"
  top: "inception_4b/5x5"
}
layer {
  name: "inception_4b/pool"
  type: "Pooling"
  bottom: "inception_4a/output"
  top: "inception_4b/pool"
  pooling_param {
    pool: MAX
    kernel_size: 3
    stride: 1
    pad: 1
  }
}
layer {
  name: "inception_4b/pool_proj"
  type: "Convolution"
  bottom: "inception_4b/pool"
  top: "inception_4b/pool_proj"
  param {
    lr_mult: 1
    decay_mult: 1
  }
  param {
    lr_mult: 2
    decay_mult: 0
  }
  convolution_param {
    num_output: 64
    kernel_size: 1
    weight_filler {
      type: "xavier"
      std: 0.1
    }
    bias_filler {
      type: "constant"
      value: 0.2
    }
  }
}
layer {
  name: "inception_4b/relu_pool_proj"
  type: "ReLU"
  bottom: "inception_4b/pool_proj"
  top: "inception_4b/pool_proj"
}
layer {
  name: "inception_4b/output"
  type: "Concat"
  bottom: "inception_4b/1x1"
  bottom: "inception_4b/3x3"
  bottom: "inception_4b/5x5"
  bottom: "inception_4b/pool_proj"
  top: "inception_4b/output"
}
layer {
  name: "inception_4c/1x1"
  type: "Convolution"
  bottom: "inception_4b/output"
  top: "inception_4c/1x1"
  param {
    lr_mult: 1
    decay_mult: 1
  }
  param {
    lr_mult: 2
    decay_mult: 0
  }
  convolution_param {
    num_output: 128
    kernel_size: 1
    weight_filler {
      type: "xavier"
      std: 0.03
    }
    bias_filler {
      type: "constant"
      value: 0.2
    }
  }
}
layer {
  name: "inception_4c/relu_1x1"
  type: "ReLU"
  bottom: "inception_4c/1x1"
  top: "inception_4c/1x1"
}
layer {
  name: "inception_4c/3x3_reduce"
  type: "Convolution"
  bottom: "inception_4b/output"
  top: "inception_4c/3x3_reduce"
  param {
    lr_mult: 1
    decay_mult: 1
  }
  param {
    lr_mult: 2
    decay_mult: 0
  }
  convolution_param {
    num_output: 128
    kernel_size: 1
    weight_filler {
      type: "xavier"
      std: 0.09
    }
    bias_filler {
      type: "constant"
      value: 0.2
    }
  }
}
layer {
  name: "inception_4c/relu_3x3_reduce"
  type: "ReLU"
  bottom: "inception_4c/3x3_reduce"
  top: "inception_4c/3x3_reduce"
}
layer {
  name: "inception_4c/3x3"
  type: "Convolution"
  bottom: "inception_4c/3x3_reduce"
  top: "inception_4c/3x3"
  param {
    lr_mult: 1
    decay_mult: 1
  }
  param {
    lr_mult: 2
    decay_mult: 0
  }
  convolution_param {
    num_output: 256
    pad: 1
    kernel_size: 3
    weight_filler {
      type: "xavier"
      std: 0.03
    }
    bias_filler {
      type: "constant"
      value: 0.2
    }
  }
}
layer {
  name: "inception_4c/relu_3x3"
  type: "ReLU"
  bottom: "inception_4c/3x3"
  top: "inception_4c/3x3"
}
layer {
  name: "inception_4c/5x5_reduce"
  type: "Convolution"
  bottom: "inception_4b/output"
  top: "inception_4c/5x5_reduce"
  param {
    lr_mult: 1
    decay_mult: 1
  }
  param {
    lr_mult: 2
    decay_mult: 0
  }
  convolution_param {
    num_output: 24
    kernel_size: 1
    weight_filler {
      type: "xavier"
      std: 0.2
    }
    bias_filler {
      type: "constant"
      value: 0.2
    }
  }
}
layer {
  name: "inception_4c/relu_5x5_reduce"
  type: "ReLU"
  bottom: "inception_4c/5x5_reduce"
  top: "inception_4c/5x5_reduce"
}
layer {
  name: "inception_4c/5x5"
  type: "Convolution"
  bottom: "inception_4c/5x5_reduce"
  top: "inception_4c/5x5"
  param {
    lr_mult: 1
    decay_mult: 1
  }
  param {
    lr_mult: 2
    decay_mult: 0
  }
  convolution_param {
    num_output: 64
    pad: 2
    kernel_size: 5
    weight_filler {
      type: "xavier"
      std: 0.03
    }
    bias_filler {
      type: "constant"
      value: 0.2
    }
  }
}
layer {
  name: "inception_4c/relu_5x5"
  type: "ReLU"
  bottom: "inception_4c/5x5"
  top: "inception_4c/5x5"
}
layer {
  name: "inception_4c/pool"
  type: "Pooling"
  bottom: "inception_4b/output"
  top: "inception_4c/pool"
  pooling_param {
    pool: MAX
    kernel_size: 3
    stride: 1
    pad: 1
  }
}
layer {
  name: "inception_4c/pool_proj"
  type: "Convolution"
  bottom: "inception_4c/pool"
  top: "inception_4c/pool_proj"
  param {
    lr_mult: 1
    decay_mult: 1
  }
  param {
    lr_mult: 2
    decay_mult: 0
  }
  convolution_param {
    num_output: 64
    kernel_size: 1
    weight_filler {
      type: "xavier"
      std: 0.1
    }
    bias_filler {
      type: "constant"
      value: 0.2
    }
  }
}
layer {
  name: "inception_4c/relu_pool_proj"
  type: "ReLU"
  bottom: "inception_4c/pool_proj"
  top: "inception_4c/pool_proj"
}
layer {
  name: "inception_4c/output"
  type: "Concat"
  bottom: "inception_4c/1x1"
  bottom: "inception_4c/3x3"
  bottom: "inception_4c/5x5"
  bottom: "inception_4c/pool_proj"
  top: "inception_4c/output"
}
layer {
  name: "inception_4d/1x1"
  type: "Convolution"
  bottom: "inception_4c/output"
  top: "inception_4d/1x1"
  param {
    lr_mult: 1
    decay_mult: 1
  }
  param {
    lr_mult: 2
    decay_mult: 0
  }
  convolution_param {
    num_output: 112
    kernel_size: 1
    weight_filler {
      type: "xavier"
      std: 0.03
    }
    bias_filler {
      type: "constant"
      value: 0.2
    }
  }
}
layer {
  name: "inception_4d/relu_1x1"
  type: "ReLU"
  bottom: "inception_4d/1x1"
  top: "inception_4d/1x1"
}
layer {
  name: "inception_4d/3x3_reduce"
  type: "Convolution"
  bottom: "inception_4c/output"
  top: "inception_4d/3x3_reduce"
  param {
    lr_mult: 1
    decay_mult: 1
  }
  param {
    lr_mult: 2
    decay_mult: 0
  }
  convolution_param {
    num_output: 144
    kernel_size: 1
    weight_filler {
      type: "xavier"
      std: 0.09
    }
    bias_filler {
      type: "constant"
      value: 0.2
    }
  }
}
layer {
  name: "inception_4d/relu_3x3_reduce"
  type: "ReLU"
  bottom: "inception_4d/3x3_reduce"
  top: "inception_4d/3x3_reduce"
}
layer {
  name: "inception_4d/3x3"
  type: "Convolution"
  bottom: "inception_4d/3x3_reduce"
  top: "inception_4d/3x3"
  param {
    lr_mult: 1
    decay_mult: 1
  }
  param {
    lr_mult: 2
    decay_mult: 0
  }
  convolution_param {
    num_output: 288
    pad: 1
    kernel_size: 3
    weight_filler {
      type: "xavier"
      std: 0.03
    }
    bias_filler {
      type: "constant"
      value: 0.2
    }
  }
}
layer {
  name: "inception_4d/relu_3x3"
  type: "ReLU"
  bottom: "inception_4d/3x3"
  top: "inception_4d/3x3"
}
layer {
  name: "inception_4d/5x5_reduce"
  type: "Convolution"
  bottom: "inception_4c/output"
  top: "inception_4d/5x5_reduce"
  param {
    lr_mult: 1
    decay_mult: 1
  }
  param {
    lr_mult: 2
    decay_mult: 0
  }
  convolution_param {
    num_output: 32
    kernel_size: 1
    weight_filler {
      type: "xavier"
      std: 0.2
    }
    bias_filler {
      type: "constant"
      value: 0.2
    }
  }
}
layer {
  name: "inception_4d/relu_5x5_reduce"
  type: "ReLU"
  bottom: "inception_4d/5x5_reduce"
  top: "inception_4d/5x5_reduce"
}
layer {
  name: "inception_4d/5x5"
  type: "Convolution"
  bottom: "inception_4d/5x5_reduce"
  top: "inception_4d/5x5"
  param {
    lr_mult: 1
    decay_mult: 1
  }
  param {
    lr_mult: 2
    decay_mult: 0
  }
  convolution_param {
    num_output: 64
    pad: 2
    kernel_size: 5
    weight_filler {
      type: "xavier"
      std: 0.03
    }
    bias_filler {
      type: "constant"
      value: 0.2
    }
  }
}
layer {
  name: "inception_4d/relu_5x5"
  type: "ReLU"
  bottom: "inception_4d/5x5"
  top: "inception_4d/5x5"
}
layer {
  name: "inception_4d/pool"
  type: "Pooling"
  bottom: "inception_4c/output"
  top: "inception_4d/pool"
  pooling_param {
    pool: MAX
    kernel_size: 3
    stride: 1
    pad: 1
  }
}
layer {
  name: "inception_4d/pool_proj"
  type: "Convolution"
  bottom: "inception_4d/pool"
  top: "inception_4d/pool_proj"
  param {
    lr_mult: 1
    decay_mult: 1
  }
  param {
    lr_mult: 2
    decay_mult: 0
  }
  convolution_param {
    num_output: 64
    kernel_size: 1
    weight_filler {
      type: "xavier"
      std: 0.1
    }
    bias_filler {
      type: "constant"
      value: 0.2
    }
  }
}
layer {
  name: "inception_4d/relu_pool_proj"
  type: "ReLU"
  bottom: "inception_4d/pool_proj"
  top: "inception_4d/pool_proj"
}
layer {
  name: "inception_4d/output"
  type: "Concat"
  bottom: "inception_4d/1x1"
  bottom: "inception_4d/3x3"
  bottom: "inception_4d/5x5"
  bottom: "inception_4d/pool_proj"
  top: "inception_4d/output"
}
layer {
  name: "loss2/ave_pool"
  type: "Pooling"
  bottom: "inception_4d/output"
  top: "loss2/ave_pool"
  pooling_param {
    pool: AVE
    kernel_size: 5
    stride: 3
  }
}
layer {
  name: "loss2/conv"
  type: "Convolution"
  bottom: "loss2/ave_pool"
  top: "loss2/conv"
  param {
    lr_mult: 1
    decay_mult: 1
  }
  param {
    lr_mult: 2
    decay_mult: 0
  }
  convolution_param {
    num_output: 128
    kernel_size: 1
    weight_filler {
      type: "xavier"
      std: 0.08
    }
    bias_filler {
      type: "constant"
      value: 0.2
    }
  }
}
layer {
  name: "loss2/relu_conv"
  type: "ReLU"
  bottom: "loss2/conv"
  top: "loss2/conv"
}
layer {
  name: "loss2/fc"
  type: "InnerProduct"
  bottom: "loss2/conv"
  top: "loss2/fc"
  param {
    lr_mult: 1
    decay_mult: 1
  }
  param {
    lr_mult: 2
    decay_mult: 0
  }
  inner_product_param {
    num_output: 1024
    weight_filler {
      type: "xavier"
      std: 0.02
    }
    bias_filler {
      type: "constant"
      value: 0.2
    }
  }
}
layer {
  name: "loss2/relu_fc"
  type: "ReLU"
  bottom: "loss2/fc"
  top: "loss2/fc"
}
layer {
  name: "loss2/drop_fc"
  type: "Dropout"
  bottom: "loss2/fc"
  top: "loss2/fc"
  dropout_param {
    dropout_ratio: 0.7
  }
}
layer {
  name: "loss2/classifier_plantvillage"
  type: "InnerProduct"
  bottom: "loss2/fc"
  top: "loss2/classifier_plantvillage"
  param {
    lr_mult: 1
    decay_mult: 1
  }
  param {
    lr_mult: 2
    decay_mult: 0
  }
  inner_product_param {
    num_output: 38
    weight_filler {
      type: "xavier"
      std: 0.0009765625
    }
    bias_filler {
      type: "constant"
      value: 0
    }
  }
}
layer {
  name: "inception_4e/1x1"
  type: "Convolution"
  bottom: "inception_4d/output"
  top: "inception_4e/1x1"
  param {
    lr_mult: 1
    decay_mult: 1
  }
  param {
    lr_mult: 2
    decay_mult: 0
  }
  convolution_param {
    num_output: 256
    kernel_size: 1
    weight_filler {
      type: "xavier"
      std: 0.03
    }
    bias_filler {
      type: "constant"
      value: 0.2
    }
  }
}
layer {
  name: "inception_4e/relu_1x1"
  type: "ReLU"
  bottom: "inception_4e/1x1"
  top: "inception_4e/1x1"
}
layer {
  name: "inception_4e/3x3_reduce"
  type: "Convolution"
  bottom: "inception_4d/output"
  top: "inception_4e/3x3_reduce"
  param {
    lr_mult: 1
    decay_mult: 1
  }
  param {
    lr_mult: 2
    decay_mult: 0
  }
  convolution_param {
    num_output: 160
    kernel_size: 1
    weight_filler {
      type: "xavier"
      std: 0.09
    }
    bias_filler {
      type: "constant"
      value: 0.2
    }
  }
}
layer {
  name: "inception_4e/relu_3x3_reduce"
  type: "ReLU"
  bottom: "inception_4e/3x3_reduce"
  top: "inception_4e/3x3_reduce"
}
layer {
  name: "inception_4e/3x3"
  type: "Convolution"
  bottom: "inception_4e/3x3_reduce"
  top: "inception_4e/3x3"
  param {
    lr_mult: 1
    decay_mult: 1
  }
  param {
    lr_mult: 2
    decay_mult: 0
  }
  convolution_param {
    num_output: 320
    pad: 1
    kernel_size: 3
    weight_filler {
      type: "xavier"
      std: 0.03
    }
    bias_filler {
      type: "constant"
      value: 0.2
    }
  }
}
layer {
  name: "inception_4e/relu_3x3"
  type: "ReLU"
  bottom: "inception_4e/3x3"
  top: "inception_4e/3x3"
}
layer {
  name: "inception_4e/5x5_reduce"
  type: "Convolution"
  bottom: "inception_4d/output"
  top: "inception_4e/5x5_reduce"
  param {
    lr_mult: 1
    decay_mult: 1
  }
  param {
    lr_mult: 2
    decay_mult: 0
  }
  convolution_param {
    num_output: 32
    kernel_size: 1
    weight_filler {
      type: "xavier"
      std: 0.2
    }
    bias_filler {
      type: "constant"
      value: 0.2
    }
  }
}
layer {
  name: "inception_4e/relu_5x5_reduce"
  type: "ReLU"
  bottom: "inception_4e/5x5_reduce"
  top: "inception_4e/5x5_reduce"
}
layer {
  name: "inception_4e/5x5"
  type: "Convolution"
  bottom: "inception_4e/5x5_reduce"
  top: "inception_4e/5x5"
  p
I0403 16:36:27.600626 18873 layer_factory.hpp:77] Creating layer data
I0403 16:36:27.601341 18873 net.cpp:91] Creating Layer data
I0403 16:36:27.601382 18873 net.cpp:399] data -> data
I0403 16:36:27.601441 18873 net.cpp:399] data -> label
I0403 16:36:27.601486 18873 data_transformer.cpp:25] Loading mean file from: /home/mohanty/data/final_dataset/lmdb/color-20-80/mean.binaryproto
I0403 16:36:27.602815 18877 db_lmdb.cpp:38] Opened lmdb /home/mohanty/data/final_dataset/lmdb/color-20-80/test_db
I0403 16:36:27.617069 18873 data_layer.cpp:41] output data size: 24,3,224,224
I0403 16:36:27.648741 18873 net.cpp:141] Setting up data
I0403 16:36:27.648831 18873 net.cpp:148] Top shape: 24 3 224 224 (3612672)
I0403 16:36:27.648859 18873 net.cpp:148] Top shape: 24 (24)
I0403 16:36:27.648877 18873 net.cpp:156] Memory required for data: 14450784
I0403 16:36:27.648910 18873 layer_factory.hpp:77] Creating layer label_data_1_split
I0403 16:36:27.648943 18873 net.cpp:91] Creating Layer label_data_1_split
I0403 16:36:27.648965 18873 net.cpp:425] label_data_1_split <- label
I0403 16:36:27.649004 18873 net.cpp:399] label_data_1_split -> label_data_1_split_0
I0403 16:36:27.649039 18873 net.cpp:399] label_data_1_split -> label_data_1_split_1
I0403 16:36:27.649065 18873 net.cpp:399] label_data_1_split -> label_data_1_split_2
I0403 16:36:27.649091 18873 net.cpp:399] label_data_1_split -> label_data_1_split_3
I0403 16:36:27.649116 18873 net.cpp:399] label_data_1_split -> label_data_1_split_4
I0403 16:36:27.649138 18873 net.cpp:399] label_data_1_split -> label_data_1_split_5
I0403 16:36:27.649163 18873 net.cpp:399] label_data_1_split -> label_data_1_split_6
I0403 16:36:27.649186 18873 net.cpp:399] label_data_1_split -> label_data_1_split_7
I0403 16:36:27.649210 18873 net.cpp:399] label_data_1_split -> label_data_1_split_8
I0403 16:36:27.649235 18873 net.cpp:399] label_data_1_split -> label_data_1_split_9
I0403 16:36:27.649372 18873 net.cpp:141] Setting up label_data_1_split
I0403 16:36:27.649401 18873 net.cpp:148] Top shape: 24 (24)
I0403 16:36:27.649422 18873 net.cpp:148] Top shape: 24 (24)
I0403 16:36:27.649441 18873 net.cpp:148] Top shape: 24 (24)
I0403 16:36:27.649461 18873 net.cpp:148] Top shape: 24 (24)
I0403 16:36:27.649478 18873 net.cpp:148] Top shape: 24 (24)
I0403 16:36:27.649497 18873 net.cpp:148] Top shape: 24 (24)
I0403 16:36:27.649516 18873 net.cpp:148] Top shape: 24 (24)
I0403 16:36:27.649534 18873 net.cpp:148] Top shape: 24 (24)
I0403 16:36:27.649552 18873 net.cpp:148] Top shape: 24 (24)
I0403 16:36:27.649576 18873 net.cpp:148] Top shape: 24 (24)
I0403 16:36:27.649631 18873 net.cpp:156] Memory required for data: 14451744
I0403 16:36:27.649651 18873 layer_factory.hpp:77] Creating layer conv1/7x7_s2
I0403 16:36:27.649688 18873 net.cpp:91] Creating Layer conv1/7x7_s2
I0403 16:36:27.649710 18873 net.cpp:425] conv1/7x7_s2 <- data
I0403 16:36:27.649734 18873 net.cpp:399] conv1/7x7_s2 -> conv1/7x7_s2
I0403 16:36:27.817643 18873 net.cpp:141] Setting up conv1/7x7_s2
I0403 16:36:27.817731 18873 net.cpp:148] Top shape: 24 64 112 112 (19267584)
I0403 16:36:27.817752 18873 net.cpp:156] Memory required for data: 91522080
I0403 16:36:27.817791 18873 layer_factory.hpp:77] Creating layer conv1/relu_7x7
I0403 16:36:27.817824 18873 net.cpp:91] Creating Layer conv1/relu_7x7
I0403 16:36:27.817847 18873 net.cpp:425] conv1/relu_7x7 <- conv1/7x7_s2
I0403 16:36:27.817872 18873 net.cpp:386] conv1/relu_7x7 -> conv1/7x7_s2 (in-place)
I0403 16:36:27.818177 18873 net.cpp:141] Setting up conv1/relu_7x7
I0403 16:36:27.818210 18873 net.cpp:148] Top shape: 24 64 112 112 (19267584)
I0403 16:36:27.818230 18873 net.cpp:156] Memory required for data: 168592416
I0403 16:36:27.818249 18873 layer_factory.hpp:77] Creating layer pool1/3x3_s2
I0403 16:36:27.818279 18873 net.cpp:91] Creating Layer pool1/3x3_s2
I0403 16:36:27.818301 18873 net.cpp:425] pool1/3x3_s2 <- conv1/7x7_s2
I0403 16:36:27.818325 18873 net.cpp:399] pool1/3x3_s2 -> pool1/3x3_s2
I0403 16:36:27.818410 18873 net.cpp:141] Setting up pool1/3x3_s2
I0403 16:36:27.818440 18873 net.cpp:148] Top shape: 24 64 56 56 (4816896)
I0403 16:36:27.818459 18873 net.cpp:156] Memory required for data: 187860000
I0403 16:36:27.818476 18873 layer_factory.hpp:77] Creating layer pool1/norm1
I0403 16:36:27.818506 18873 net.cpp:91] Creating Layer pool1/norm1
I0403 16:36:27.818527 18873 net.cpp:425] pool1/norm1 <- pool1/3x3_s2
I0403 16:36:27.818549 18873 net.cpp:399] pool1/norm1 -> pool1/norm1
I0403 16:36:27.818893 18873 net.cpp:141] Setting up pool1/norm1
I0403 16:36:27.818977 18873 net.cpp:148] Top shape: 24 64 56 56 (4816896)
I0403 16:36:27.819002 18873 net.cpp:156] Memory required for data: 207127584
I0403 16:36:27.819021 18873 layer_factory.hpp:77] Creating layer conv2/3x3_reduce
I0403 16:36:27.819051 18873 net.cpp:91] Creating Layer conv2/3x3_reduce
I0403 16:36:27.819072 18873 net.cpp:425] conv2/3x3_reduce <- pool1/norm1
I0403 16:36:27.819094 18873 net.cpp:399] conv2/3x3_reduce -> conv2/3x3_reduce
I0403 16:36:27.820659 18873 net.cpp:141] Setting up conv2/3x3_reduce
I0403 16:36:27.820696 18873 net.cpp:148] Top shape: 24 64 56 56 (4816896)
I0403 16:36:27.820718 18873 net.cpp:156] Memory required for data: 226395168
I0403 16:36:27.820744 18873 layer_factory.hpp:77] Creating layer conv2/relu_3x3_reduce
I0403 16:36:27.820770 18873 net.cpp:91] Creating Layer conv2/relu_3x3_reduce
I0403 16:36:27.820790 18873 net.cpp:425] conv2/relu_3x3_reduce <- conv2/3x3_reduce
I0403 16:36:27.820809 18873 net.cpp:386] conv2/relu_3x3_reduce -> conv2/3x3_reduce (in-place)
I0403 16:36:27.821169 18873 net.cpp:141] Setting up conv2/relu_3x3_reduce
I0403 16:36:27.821202 18873 net.cpp:148] Top shape: 24 64 56 56 (4816896)
I0403 16:36:27.821221 18873 net.cpp:156] Memory required for data: 245662752
I0403 16:36:27.821240 18873 layer_factory.hpp:77] Creating layer conv2/3x3
I0403 16:36:27.821267 18873 net.cpp:91] Creating Layer conv2/3x3
I0403 16:36:27.821287 18873 net.cpp:425] conv2/3x3 <- conv2/3x3_reduce
I0403 16:36:27.821310 18873 net.cpp:399] conv2/3x3 -> conv2/3x3
I0403 16:36:27.824007 18873 net.cpp:141] Setting up conv2/3x3
I0403 16:36:27.824045 18873 net.cpp:148] Top shape: 24 192 56 56 (14450688)
I0403 16:36:27.824065 18873 net.cpp:156] Memory required for data: 303465504
I0403 16:36:27.824091 18873 layer_factory.hpp:77] Creating layer conv2/relu_3x3
I0403 16:36:27.824115 18873 net.cpp:91] Creating Layer conv2/relu_3x3
I0403 16:36:27.824134 18873 net.cpp:425] conv2/relu_3x3 <- conv2/3x3
I0403 16:36:27.824156 18873 net.cpp:386] conv2/relu_3x3 -> conv2/3x3 (in-place)
I0403 16:36:27.824350 18873 net.cpp:141] Setting up conv2/relu_3x3
I0403 16:36:27.824381 18873 net.cpp:148] Top shape: 24 192 56 56 (14450688)
I0403 16:36:27.824440 18873 net.cpp:156] Memory required for data: 361268256
I0403 16:36:27.824460 18873 layer_factory.hpp:77] Creating layer conv2/norm2
I0403 16:36:27.824483 18873 net.cpp:91] Creating Layer conv2/norm2
I0403 16:36:27.824504 18873 net.cpp:425] conv2/norm2 <- conv2/3x3
I0403 16:36:27.824527 18873 net.cpp:399] conv2/norm2 -> conv2/norm2
I0403 16:36:27.824874 18873 net.cpp:141] Setting up conv2/norm2
I0403 16:36:27.824908 18873 net.cpp:148] Top shape: 24 192 56 56 (14450688)
I0403 16:36:27.824928 18873 net.cpp:156] Memory required for data: 419071008
I0403 16:36:27.824946 18873 layer_factory.hpp:77] Creating layer pool2/3x3_s2
I0403 16:36:27.824970 18873 net.cpp:91] Creating Layer pool2/3x3_s2
I0403 16:36:27.824988 18873 net.cpp:425] pool2/3x3_s2 <- conv2/norm2
I0403 16:36:27.825011 18873 net.cpp:399] pool2/3x3_s2 -> pool2/3x3_s2
I0403 16:36:27.825072 18873 net.cpp:141] Setting up pool2/3x3_s2
I0403 16:36:27.825098 18873 net.cpp:148] Top shape: 24 192 28 28 (3612672)
I0403 16:36:27.825147 18873 net.cpp:156] Memory required for data: 433521696
I0403 16:36:27.825172 18873 layer_factory.hpp:77] Creating layer pool2/3x3_s2_pool2/3x3_s2_0_split
I0403 16:36:27.825194 18873 net.cpp:91] Creating Layer pool2/3x3_s2_pool2/3x3_s2_0_split
I0403 16:36:27.825214 18873 net.cpp:425] pool2/3x3_s2_pool2/3x3_s2_0_split <- pool2/3x3_s2
I0403 16:36:27.825235 18873 net.cpp:399] pool2/3x3_s2_pool2/3x3_s2_0_split -> pool2/3x3_s2_pool2/3x3_s2_0_split_0
I0403 16:36:27.825260 18873 net.cpp:399] pool2/3x3_s2_pool2/3x3_s2_0_split -> pool2/3x3_s2_pool2/3x3_s2_0_split_1
I0403 16:36:27.825285 18873 net.cpp:399] pool2/3x3_s2_pool2/3x3_s2_0_split -> pool2/3x3_s2_pool2/3x3_s2_0_split_2
I0403 16:36:27.825309 18873 net.cpp:399] pool2/3x3_s2_pool2/3x3_s2_0_split -> pool2/3x3_s2_pool2/3x3_s2_0_split_3
I0403 16:36:27.825388 18873 net.cpp:141] Setting up pool2/3x3_s2_pool2/3x3_s2_0_split
I0403 16:36:27.825417 18873 net.cpp:148] Top shape: 24 192 28 28 (3612672)
I0403 16:36:27.825438 18873 net.cpp:148] Top shape: 24 192 28 28 (3612672)
I0403 16:36:27.825458 18873 net.cpp:148] Top shape: 24 192 28 28 (3612672)
I0403 16:36:27.825475 18873 net.cpp:148] Top shape: 24 192 28 28 (3612672)
I0403 16:36:27.825491 18873 net.cpp:156] Memory required for data: 491324448
I0403 16:36:27.825510 18873 layer_factory.hpp:77] Creating layer inception_3a/1x1
I0403 16:36:27.825534 18873 net.cpp:91] Creating Layer inception_3a/1x1
I0403 16:36:27.825554 18873 net.cpp:425] inception_3a/1x1 <- pool2/3x3_s2_pool2/3x3_s2_0_split_0
I0403 16:36:27.825590 18873 net.cpp:399] inception_3a/1x1 -> inception_3a/1x1
I0403 16:36:27.827383 18873 net.cpp:141] Setting up inception_3a/1x1
I0403 16:36:27.827419 18873 net.cpp:148] Top shape: 24 64 28 28 (1204224)
I0403 16:36:27.827440 18873 net.cpp:156] Memory required for data: 496141344
I0403 16:36:27.827462 18873 layer_factory.hpp:77] Creating layer inception_3a/relu_1x1
I0403 16:36:27.827486 18873 net.cpp:91] Creating Layer inception_3a/relu_1x1
I0403 16:36:27.827503 18873 net.cpp:425] inception_3a/relu_1x1 <- inception_3a/1x1
I0403 16:36:27.827525 18873 net.cpp:386] inception_3a/relu_1x1 -> inception_3a/1x1 (in-place)
I0403 16:36:27.827739 18873 net.cpp:141] Setting up inception_3a/relu_1x1
I0403 16:36:27.827775 18873 net.cpp:148] Top shape: 24 64 28 28 (1204224)
I0403 16:36:27.827793 18873 net.cpp:156] Memory required for data: 500958240
I0403 16:36:27.827811 18873 layer_factory.hpp:77] Creating layer inception_3a/3x3_reduce
I0403 16:36:27.827839 18873 net.cpp:91] Creating Layer inception_3a/3x3_reduce
I0403 16:36:27.827862 18873 net.cpp:425] inception_3a/3x3_reduce <- pool2/3x3_s2_pool2/3x3_s2_0_split_1
I0403 16:36:27.827888 18873 net.cpp:399] inception_3a/3x3_reduce -> inception_3a/3x3_reduce
I0403 16:36:27.829968 18873 net.cpp:141] Setting up inception_3a/3x3_reduce
I0403 16:36:27.830008 18873 net.cpp:148] Top shape: 24 96 28 28 (1806336)
I0403 16:36:27.830029 18873 net.cpp:156] Memory required for data: 508183584
I0403 16:36:27.830055 18873 layer_factory.hpp:77] Creating layer inception_3a/relu_3x3_reduce
I0403 16:36:27.830101 18873 net.cpp:91] Creating Layer inception_3a/relu_3x3_reduce
I0403 16:36:27.830122 18873 net.cpp:425] inception_3a/relu_3x3_reduce <- inception_3a/3x3_reduce
I0403 16:36:27.830147 18873 net.cpp:386] inception_3a/relu_3x3_reduce -> inception_3a/3x3_reduce (in-place)
I0403 16:36:27.830373 18873 net.cpp:141] Setting up inception_3a/relu_3x3_reduce
I0403 16:36:27.830404 18873 net.cpp:148] Top shape: 24 96 28 28 (1806336)
I0403 16:36:27.830421 18873 net.cpp:156] Memory required for data: 515408928
I0403 16:36:27.830440 18873 layer_factory.hpp:77] Creating layer inception_3a/3x3
I0403 16:36:27.830468 18873 net.cpp:91] Creating Layer inception_3a/3x3
I0403 16:36:27.830492 18873 net.cpp:425] inception_3a/3x3 <- inception_3a/3x3_reduce
I0403 16:36:27.830514 18873 net.cpp:399] inception_3a/3x3 -> inception_3a/3x3
I0403 16:36:27.832515 18873 net.cpp:141] Setting up inception_3a/3x3
I0403 16:36:27.832551 18873 net.cpp:148] Top shape: 24 128 28 28 (2408448)
I0403 16:36:27.832576 18873 net.cpp:156] Memory required for data: 525042720
I0403 16:36:27.832599 18873 layer_factory.hpp:77] Creating layer inception_3a/relu_3x3
I0403 16:36:27.832623 18873 net.cpp:91] Creating Layer inception_3a/relu_3x3
I0403 16:36:27.832643 18873 net.cpp:425] inception_3a/relu_3x3 <- inception_3a/3x3
I0403 16:36:27.832666 18873 net.cpp:386] inception_3a/relu_3x3 -> inception_3a/3x3 (in-place)
I0403 16:36:27.832995 18873 net.cpp:141] Setting up inception_3a/relu_3x3
I0403 16:36:27.833031 18873 net.cpp:148] Top shape: 24 128 28 28 (2408448)
I0403 16:36:27.833050 18873 net.cpp:156] Memory required for data: 534676512
I0403 16:36:27.833068 18873 layer_factory.hpp:77] Creating layer inception_3a/5x5_reduce
I0403 16:36:27.833096 18873 net.cpp:91] Creating Layer inception_3a/5x5_reduce
I0403 16:36:27.833117 18873 net.cpp:425] inception_3a/5x5_reduce <- pool2/3x3_s2_pool2/3x3_s2_0_split_2
I0403 16:36:27.833144 18873 net.cpp:399] inception_3a/5x5_reduce -> inception_3a/5x5_reduce
I0403 16:36:27.834316 18873 net.cpp:141] Setting up inception_3a/5x5_reduce
I0403 16:36:27.834350 18873 net.cpp:148] Top shape: 24 16 28 28 (301056)
I0403 16:36:27.834369 18873 net.cpp:156] Memory required for data: 535880736
I0403 16:36:27.834391 18873 layer_factory.hpp:77] Creating layer inception_3a/relu_5x5_reduce
I0403 16:36:27.834414 18873 net.cpp:91] Creating Layer inception_3a/relu_5x5_reduce
I0403 16:36:27.834434 18873 net.cpp:425] inception_3a/relu_5x5_reduce <- inception_3a/5x5_reduce
I0403 16:36:27.834457 18873 net.cpp:386] inception_3a/relu_5x5_reduce -> inception_3a/5x5_reduce (in-place)
I0403 16:36:27.834820 18873 net.cpp:141] Setting up inception_3a/relu_5x5_reduce
I0403 16:36:27.834854 18873 net.cpp:148] Top shape: 24 16 28 28 (301056)
I0403 16:36:27.834872 18873 net.cpp:156] Memory required for data: 537084960
I0403 16:36:27.834890 18873 layer_factory.hpp:77] Creating layer inception_3a/5x5
I0403 16:36:27.834918 18873 net.cpp:91] Creating Layer inception_3a/5x5
I0403 16:36:27.834939 18873 net.cpp:425] inception_3a/5x5 <- inception_3a/5x5_reduce
I0403 16:36:27.834964 18873 net.cpp:399] inception_3a/5x5 -> inception_3a/5x5
I0403 16:36:27.836199 18873 net.cpp:141] Setting up inception_3a/5x5
I0403 16:36:27.836237 18873 net.cpp:148] Top shape: 24 32 28 28 (602112)
I0403 16:36:27.836258 18873 net.cpp:156] Memory required for data: 539493408
I0403 16:36:27.836282 18873 layer_factory.hpp:77] Creating layer inception_3a/relu_5x5
I0403 16:36:27.836303 18873 net.cpp:91] Creating Layer inception_3a/relu_5x5
I0403 16:36:27.836323 18873 net.cpp:425] inception_3a/relu_5x5 <- inception_3a/5x5
I0403 16:36:27.836344 18873 net.cpp:386] inception_3a/relu_5x5 -> inception_3a/5x5 (in-place)
I0403 16:36:27.836555 18873 net.cpp:141] Setting up inception_3a/relu_5x5
I0403 16:36:27.836591 18873 net.cpp:148] Top shape: 24 32 28 28 (602112)
I0403 16:36:27.836609 18873 net.cpp:156] Memory required for data: 541901856
I0403 16:36:27.836627 18873 layer_factory.hpp:77] Creating layer inception_3a/pool
I0403 16:36:27.836648 18873 net.cpp:91] Creating Layer inception_3a/pool
I0403 16:36:27.836668 18873 net.cpp:425] inception_3a/pool <- pool2/3x3_s2_pool2/3x3_s2_0_split_3
I0403 16:36:27.836710 18873 net.cpp:399] inception_3a/pool -> inception_3a/pool
I0403 16:36:27.836782 18873 net.cpp:141] Setting up inception_3a/pool
I0403 16:36:27.836814 18873 net.cpp:148] Top shape: 24 192 28 28 (3612672)
I0403 16:36:27.836833 18873 net.cpp:156] Memory required for data: 556352544
I0403 16:36:27.836853 18873 layer_factory.hpp:77] Creating layer inception_3a/pool_proj
I0403 16:36:27.836879 18873 net.cpp:91] Creating Layer inception_3a/pool_proj
I0403 16:36:27.836899 18873 net.cpp:425] inception_3a/pool_proj <- inception_3a/pool
I0403 16:36:27.836921 18873 net.cpp:399] inception_3a/pool_proj -> inception_3a/pool_proj
I0403 16:36:27.838076 18873 net.cpp:141] Setting up inception_3a/pool_proj
I0403 16:36:27.838112 18873 net.cpp:148] Top shape: 24 32 28 28 (602112)
I0403 16:36:27.838131 18873 net.cpp:156] Memory required for data: 558760992
I0403 16:36:27.838160 18873 layer_factory.hpp:77] Creating layer inception_3a/relu_pool_proj
I0403 16:36:27.838186 18873 net.cpp:91] Creating Layer inception_3a/relu_pool_proj
I0403 16:36:27.838206 18873 net.cpp:425] inception_3a/relu_pool_proj <- inception_3a/pool_proj
I0403 16:36:27.838228 18873 net.cpp:386] inception_3a/relu_pool_proj -> inception_3a/pool_proj (in-place)
I0403 16:36:27.838558 18873 net.cpp:141] Setting up inception_3a/relu_pool_proj
I0403 16:36:27.838599 18873 net.cpp:148] Top shape: 24 32 28 28 (602112)
I0403 16:36:27.838619 18873 net.cpp:156] Memory required for data: 561169440
I0403 16:36:27.838639 18873 layer_factory.hpp:77] Creating layer inception_3a/output
I0403 16:36:27.838660 18873 net.cpp:91] Creating Layer inception_3a/output
I0403 16:36:27.838680 18873 net.cpp:425] inception_3a/output <- inception_3a/1x1
I0403 16:36:27.838698 18873 net.cpp:425] inception_3a/output <- inception_3a/3x3
I0403 16:36:27.838718 18873 net.cpp:425] inception_3a/output <- inception_3a/5x5
I0403 16:36:27.838738 18873 net.cpp:425] inception_3a/output <- inception_3a/pool_proj
I0403 16:36:27.838759 18873 net.cpp:399] inception_3a/output -> inception_3a/output
I0403 16:36:27.838817 18873 net.cpp:141] Setting up inception_3a/output
I0403 16:36:27.838846 18873 net.cpp:148] Top shape: 24 256 28 28 (4816896)
I0403 16:36:27.838865 18873 net.cpp:156] Memory required for data: 580437024
I0403 16:36:27.838882 18873 layer_factory.hpp:77] Creating layer inception_3a/output_inception_3a/output_0_split
I0403 16:36:27.838907 18873 net.cpp:91] Creating Layer inception_3a/output_inception_3a/output_0_split
I0403 16:36:27.838927 18873 net.cpp:425] inception_3a/output_inception_3a/output_0_split <- inception_3a/output
I0403 16:36:27.838948 18873 net.cpp:399] inception_3a/output_inception_3a/output_0_split -> inception_3a/output_inception_3a/output_0_split_0
I0403 16:36:27.838973 18873 net.cpp:399] inception_3a/output_inception_3a/output_0_split -> inception_3a/output_inception_3a/output_0_split_1
I0403 16:36:27.839004 18873 net.cpp:399] inception_3a/output_inception_3a/output_0_split -> inception_3a/output_inception_3a/output_0_split_2
I0403 16:36:27.839031 18873 net.cpp:399] inception_3a/output_inception_3a/output_0_split -> inception_3a/output_inception_3a/output_0_split_3
I0403 16:36:27.839123 18873 net.cpp:141] Setting up inception_3a/output_inception_3a/output_0_split
I0403 16:36:27.839153 18873 net.cpp:148] Top shape: 24 256 28 28 (4816896)
I0403 16:36:27.839172 18873 net.cpp:148] Top shape: 24 256 28 28 (4816896)
I0403 16:36:27.839192 18873 net.cpp:148] Top shape: 24 256 28 28 (4816896)
I0403 16:36:27.839210 18873 net.cpp:148] Top shape: 24 256 28 28 (4816896)
I0403 16:36:27.839227 18873 net.cpp:156] Memory required for data: 657507360
I0403 16:36:27.839246 18873 layer_factory.hpp:77] Creating layer inception_3b/1x1
I0403 16:36:27.839274 18873 net.cpp:91] Creating Layer inception_3b/1x1
I0403 16:36:27.839295 18873 net.cpp:425] inception_3b/1x1 <- inception_3a/output_inception_3a/output_0_split_0
I0403 16:36:27.839318 18873 net.cpp:399] inception_3b/1x1 -> inception_3b/1x1
I0403 16:36:27.840698 18873 net.cpp:141] Setting up inception_3b/1x1
I0403 16:36:27.840746 18873 net.cpp:148] Top shape: 24 128 28 28 (2408448)
I0403 16:36:27.840767 18873 net.cpp:156] Memory required for data: 667141152
I0403 16:36:27.840790 18873 layer_factory.hpp:77] Creating layer inception_3b/relu_1x1
I0403 16:36:27.840824 18873 net.cpp:91] Creating Layer inception_3b/relu_1x1
I0403 16:36:27.840845 18873 net.cpp:425] inception_3b/relu_1x1 <- inception_3b/1x1
I0403 16:36:27.840867 18873 net.cpp:386] inception_3b/relu_1x1 -> inception_3b/1x1 (in-place)
I0403 16:36:27.841078 18873 net.cpp:141] Setting up inception_3b/relu_1x1
I0403 16:36:27.841109 18873 net.cpp:148] Top shape: 24 128 28 28 (2408448)
I0403 16:36:27.841127 18873 net.cpp:156] Memory required for data: 676774944
I0403 16:36:27.841146 18873 layer_factory.hpp:77] Creating layer inception_3b/3x3_reduce
I0403 16:36:27.841173 18873 net.cpp:91] Creating Layer inception_3b/3x3_reduce
I0403 16:36:27.841195 18873 net.cpp:425] inception_3b/3x3_reduce <- inception_3a/output_inception_3a/output_0_split_1
I0403 16:36:27.841222 18873 net.cpp:399] inception_3b/3x3_reduce -> inception_3b/3x3_reduce
I0403 16:36:27.842592 18873 net.cpp:141] Setting up inception_3b/3x3_reduce
I0403 16:36:27.842627 18873 net.cpp:148] Top shape: 24 128 28 28 (2408448)
I0403 16:36:27.842651 18873 net.cpp:156] Memory required for data: 686408736
I0403 16:36:27.842674 18873 layer_factory.hpp:77] Creating layer inception_3b/relu_3x3_reduce
I0403 16:36:27.842696 18873 net.cpp:91] Creating Layer inception_3b/relu_3x3_reduce
I0403 16:36:27.842715 18873 net.cpp:425] inception_3b/relu_3x3_reduce <- inception_3b/3x3_reduce
I0403 16:36:27.842737 18873 net.cpp:386] inception_3b/relu_3x3_reduce -> inception_3b/3x3_reduce (in-place)
I0403 16:36:27.842950 18873 net.cpp:141] Setting up inception_3b/relu_3x3_reduce
I0403 16:36:27.842983 18873 net.cpp:148] Top shape: 24 128 28 28 (2408448)
I0403 16:36:27.843003 18873 net.cpp:156] Memory required for data: 696042528
I0403 16:36:27.843022 18873 layer_factory.hpp:77] Creating layer inception_3b/3x3
I0403 16:36:27.843052 18873 net.cpp:91] Creating Layer inception_3b/3x3
I0403 16:36:27.843075 18873 net.cpp:425] inception_3b/3x3 <- inception_3b/3x3_reduce
I0403 16:36:27.843099 18873 net.cpp:399] inception_3b/3x3 -> inception_3b/3x3
I0403 16:36:27.846602 18873 net.cpp:141] Setting up inception_3b/3x3
I0403 16:36:27.846642 18873 net.cpp:148] Top shape: 24 192 28 28 (3612672)
I0403 16:36:27.846660 18873 net.cpp:156] Memory required for data: 710493216
I0403 16:36:27.846683 18873 layer_factory.hpp:77] Creating layer inception_3b/relu_3x3
I0403 16:36:27.846704 18873 net.cpp:91] Creating Layer inception_3b/relu_3x3
I0403 16:36:27.846724 18873 net.cpp:425] inception_3b/relu_3x3 <- inception_3b/3x3
I0403 16:36:27.846750 18873 net.cpp:386] inception_3b/relu_3x3 -> inception_3b/3x3 (in-place)
I0403 16:36:27.847090 18873 net.cpp:141] Setting up inception_3b/relu_3x3
I0403 16:36:27.847126 18873 net.cpp:148] Top shape: 24 192 28 28 (3612672)
I0403 16:36:27.847143 18873 net.cpp:156] Memory required for data: 724943904
I0403 16:36:27.847162 18873 layer_factory.hpp:77] Creating layer inception_3b/5x5_reduce
I0403 16:36:27.847189 18873 net.cpp:91] Creating Layer inception_3b/5x5_reduce
I0403 16:36:27.847211 18873 net.cpp:425] inception_3b/5x5_reduce <- inception_3a/output_inception_3a/output_0_split_2
I0403 16:36:27.847242 18873 net.cpp:399] inception_3b/5x5_reduce -> inception_3b/5x5_reduce
I0403 16:36:27.848448 18873 net.cpp:141] Setting up inception_3b/5x5_reduce
I0403 16:36:27.848485 18873 net.cpp:148] Top shape: 24 32 28 28 (602112)
I0403 16:36:27.848505 18873 net.cpp:156] Memory required for data: 727352352
I0403 16:36:27.848527 18873 layer_factory.hpp:77] Creating layer inception_3b/relu_5x5_reduce
I0403 16:36:27.848551 18873 net.cpp:91] Creating Layer inception_3b/relu_5x5_reduce
I0403 16:36:27.848574 18873 net.cpp:425] inception_3b/relu_5x5_reduce <- inception_3b/5x5_reduce
I0403 16:36:27.848598 18873 net.cpp:386] inception_3b/relu_5x5_reduce -> inception_3b/5x5_reduce (in-place)
I0403 16:36:27.848812 18873 net.cpp:141] Setting up inception_3b/relu_5x5_reduce
I0403 16:36:27.848860 18873 net.cpp:148] Top shape: 24 32 28 28 (602112)
I0403 16:36:27.848881 18873 net.cpp:156] Memory required for data: 729760800
I0403 16:36:27.848899 18873 layer_factory.hpp:77] Creating layer inception_3b/5x5
I0403 16:36:27.848927 18873 net.cpp:91] Creating Layer inception_3b/5x5
I0403 16:36:27.848948 18873 net.cpp:425] inception_3b/5x5 <- inception_3b/5x5_reduce
I0403 16:36:27.848973 18873 net.cpp:399] inception_3b/5x5 -> inception_3b/5x5
I0403 16:36:27.851361 18873 net.cpp:141] Setting up inception_3b/5x5
I0403 16:36:27.851397 18873 net.cpp:148] Top shape: 24 96 28 28 (1806336)
I0403 16:36:27.851418 18873 net.cpp:156] Memory required for data: 736986144
I0403 16:36:27.851439 18873 layer_factory.hpp:77] Creating layer inception_3b/relu_5x5
I0403 16:36:27.851464 18873 net.cpp:91] Creating Layer inception_3b/relu_5x5
I0403 16:36:27.851486 18873 net.cpp:425] inception_3b/relu_5x5 <- inception_3b/5x5
I0403 16:36:27.851507 18873 net.cpp:386] inception_3b/relu_5x5 -> inception_3b/5x5 (in-place)
I0403 16:36:27.851748 18873 net.cpp:141] Setting up inception_3b/relu_5x5
I0403 16:36:27.851781 18873 net.cpp:148] Top shape: 24 96 28 28 (1806336)
I0403 16:36:27.851799 18873 net.cpp:156] Memory required for data: 744211488
I0403 16:36:27.851817 18873 layer_factory.hpp:77] Creating layer inception_3b/pool
I0403 16:36:27.851840 18873 net.cpp:91] Creating Layer inception_3b/pool
I0403 16:36:27.851858 18873 net.cpp:425] inception_3b/pool <- inception_3a/output_inception_3a/output_0_split_3
I0403 16:36:27.851881 18873 net.cpp:399] inception_3b/pool -> inception_3b/pool
I0403 16:36:27.851950 18873 net.cpp:141] Setting up inception_3b/pool
I0403 16:36:27.851979 18873 net.cpp:148] Top shape: 24 256 28 28 (4816896)
I0403 16:36:27.851997 18873 net.cpp:156] Memory required for data: 763479072
I0403 16:36:27.852015 18873 layer_factory.hpp:77] Creating layer inception_3b/pool_proj
I0403 16:36:27.852041 18873 net.cpp:91] Creating Layer inception_3b/pool_proj
I0403 16:36:27.852063 18873 net.cpp:425] inception_3b/pool_proj <- inception_3b/pool
I0403 16:36:27.852088 18873 net.cpp:399] inception_3b/pool_proj -> inception_3b/pool_proj
I0403 16:36:27.853361 18873 net.cpp:141] Setting up inception_3b/pool_proj
I0403 16:36:27.853396 18873 net.cpp:148] Top shape: 24 64 28 28 (1204224)
I0403 16:36:27.853415 18873 net.cpp:156] Memory required for data: 768295968
I0403 16:36:27.853436 18873 layer_factory.hpp:77] Creating layer inception_3b/relu_pool_proj
I0403 16:36:27.853461 18873 net.cpp:91] Creating Layer inception_3b/relu_pool_proj
I0403 16:36:27.853482 18873 net.cpp:425] inception_3b/relu_pool_proj <- inception_3b/pool_proj
I0403 16:36:27.853504 18873 net.cpp:386] inception_3b/relu_pool_proj -> inception_3b/pool_proj (in-place)
I0403 16:36:27.853973 18873 net.cpp:141] Setting up inception_3b/relu_pool_proj
I0403 16:36:27.854006 18873 net.cpp:148] Top shape: 24 64 28 28 (1204224)
I0403 16:36:27.854024 18873 net.cpp:156] Memory required for data: 773112864
I0403 16:36:27.854041 18873 layer_factory.hpp:77] Creating layer inception_3b/output
I0403 16:36:27.854063 18873 net.cpp:91] Creating Layer inception_3b/output
I0403 16:36:27.854082 18873 net.cpp:425] inception_3b/output <- inception_3b/1x1
I0403 16:36:27.854102 18873 net.cpp:425] inception_3b/output <- inception_3b/3x3
I0403 16:36:27.854121 18873 net.cpp:425] inception_3b/output <- inception_3b/5x5
I0403 16:36:27.854141 18873 net.cpp:425] inception_3b/output <- inception_3b/pool_proj
I0403 16:36:27.854164 18873 net.cpp:399] inception_3b/output -> inception_3b/output
I0403 16:36:27.854218 18873 net.cpp:141] Setting up inception_3b/output
I0403 16:36:27.854249 18873 net.cpp:148] Top shape: 24 480 28 28 (9031680)
I0403 16:36:27.854269 18873 net.cpp:156] Memory required for data: 809239584
I0403 16:36:27.854286 18873 layer_factory.hpp:77] Creating layer pool3/3x3_s2
I0403 16:36:27.854307 18873 net.cpp:91] Creating Layer pool3/3x3_s2
I0403 16:36:27.854326 18873 net.cpp:425] pool3/3x3_s2 <- inception_3b/output
I0403 16:36:27.854346 18873 net.cpp:399] pool3/3x3_s2 -> pool3/3x3_s2
I0403 16:36:27.854436 18873 net.cpp:141] Setting up pool3/3x3_s2
I0403 16:36:27.854465 18873 net.cpp:148] Top shape: 24 480 14 14 (2257920)
I0403 16:36:27.854485 18873 net.cpp:156] Memory required for data: 818271264
I0403 16:36:27.854502 18873 layer_factory.hpp:77] Creating layer pool3/3x3_s2_pool3/3x3_s2_0_split
I0403 16:36:27.854526 18873 net.cpp:91] Creating Layer pool3/3x3_s2_pool3/3x3_s2_0_split
I0403 16:36:27.854545 18873 net.cpp:425] pool3/3x3_s2_pool3/3x3_s2_0_split <- pool3/3x3_s2
I0403 16:36:27.854568 18873 net.cpp:399] pool3/3x3_s2_pool3/3x3_s2_0_split -> pool3/3x3_s2_pool3/3x3_s2_0_split_0
I0403 16:36:27.854606 18873 net.cpp:399] pool3/3x3_s2_pool3/3x3_s2_0_split -> pool3/3x3_s2_pool3/3x3_s2_0_split_1
I0403 16:36:27.854634 18873 net.cpp:399] pool3/3x3_s2_pool3/3x3_s2_0_split -> pool3/3x3_s2_pool3/3x3_s2_0_split_2
I0403 16:36:27.854663 18873 net.cpp:399] pool3/3x3_s2_pool3/3x3_s2_0_split -> pool3/3x3_s2_pool3/3x3_s2_0_split_3
I0403 16:36:27.854759 18873 net.cpp:141] Setting up pool3/3x3_s2_pool3/3x3_s2_0_split
I0403 16:36:27.854789 18873 net.cpp:148] Top shape: 24 480 14 14 (2257920)
I0403 16:36:27.854809 18873 net.cpp:148] Top shape: 24 480 14 14 (2257920)
I0403 16:36:27.854827 18873 net.cpp:148] Top shape: 24 480 14 14 (2257920)
I0403 16:36:27.854846 18873 net.cpp:148] Top shape: 24 480 14 14 (2257920)
I0403 16:36:27.854863 18873 net.cpp:156] Memory required for data: 854397984
I0403 16:36:27.854884 18873 layer_factory.hpp:77] Creating layer inception_4a/1x1
I0403 16:36:27.854912 18873 net.cpp:91] Creating Layer inception_4a/1x1
I0403 16:36:27.854933 18873 net.cpp:425] inception_4a/1x1 <- pool3/3x3_s2_pool3/3x3_s2_0_split_0
I0403 16:36:27.854959 18873 net.cpp:399] inception_4a/1x1 -> inception_4a/1x1
I0403 16:36:27.856885 18873 net.cpp:141] Setting up inception_4a/1x1
I0403 16:36:27.856921 18873 net.cpp:148] Top shape: 24 192 14 14 (903168)
I0403 16:36:27.856941 18873 net.cpp:156] Memory required for data: 858010656
I0403 16:36:27.856964 18873 layer_factory.hpp:77] Creating layer inception_4a/relu_1x1
I0403 16:36:27.856989 18873 net.cpp:91] Creating Layer inception_4a/relu_1x1
I0403 16:36:27.857010 18873 net.cpp:425] inception_4a/relu_1x1 <- inception_4a/1x1
I0403 16:36:27.857031 18873 net.cpp:386] inception_4a/relu_1x1 -> inception_4a/1x1 (in-place)
I0403 16:36:27.857245 18873 net.cpp:141] Setting up inception_4a/relu_1x1
I0403 16:36:27.857278 18873 net.cpp:148] Top shape: 24 192 14 14 (903168)
I0403 16:36:27.857297 18873 net.cpp:156] Memory required for data: 861623328
I0403 16:36:27.857316 18873 layer_factory.hpp:77] Creating layer inception_4a/3x3_reduce
I0403 16:36:27.857345 18873 net.cpp:91] Creating Layer inception_4a/3x3_reduce
I0403 16:36:27.857367 18873 net.cpp:425] inception_4a/3x3_reduce <- pool3/3x3_s2_pool3/3x3_s2_0_split_1
I0403 16:36:27.857390 18873 net.cpp:399] inception_4a/3x3_reduce -> inception_4a/3x3_reduce
I0403 16:36:27.858928 18873 net.cpp:141] Setting up inception_4a/3x3_reduce
I0403 16:36:27.858963 18873 net.cpp:148] Top shape: 24 96 14 14 (451584)
I0403 16:36:27.858981 18873 net.cpp:156] Memory required for data: 863429664
I0403 16:36:27.859010 18873 layer_factory.hpp:77] Creating layer inception_4a/relu_3x3_reduce
I0403 16:36:27.859036 18873 net.cpp:91] Creating Layer inception_4a/relu_3x3_reduce
I0403 16:36:27.859055 18873 net.cpp:425] inception_4a/relu_3x3_reduce <- inception_4a/3x3_reduce
I0403 16:36:27.859081 18873 net.cpp:386] inception_4a/relu_3x3_reduce -> inception_4a/3x3_reduce (in-place)
I0403 16:36:27.859293 18873 net.cpp:141] Setting up inception_4a/relu_3x3_reduce
I0403 16:36:27.859325 18873 net.cpp:148] Top shape: 24 96 14 14 (451584)
I0403 16:36:27.859344 18873 net.cpp:156] Memory required for data: 865236000
I0403 16:36:27.859360 18873 layer_factory.hpp:77] Creating layer inception_4a/3x3
I0403 16:36:27.859387 18873 net.cpp:91] Creating Layer inception_4a/3x3
I0403 16:36:27.859411 18873 net.cpp:425] inception_4a/3x3 <- inception_4a/3x3_reduce
I0403 16:36:27.859436 18873 net.cpp:399] inception_4a/3x3 -> inception_4a/3x3
I0403 16:36:27.862690 18873 net.cpp:141] Setting up inception_4a/3x3
I0403 16:36:27.862730 18873 net.cpp:148] Top shape: 24 208 14 14 (978432)
I0403 16:36:27.862749 18873 net.cpp:156] Memory required for data: 869149728
I0403 16:36:27.862773 18873 layer_factory.hpp:77] Creating layer inception_4a/relu_3x3
I0403 16:36:27.862795 18873 net.cpp:91] Creating Layer inception_4a/relu_3x3
I0403 16:36:27.862817 18873 net.cpp:425] inception_4a/relu_3x3 <- inception_4a/3x3
I0403 16:36:27.862838 18873 net.cpp:386] inception_4a/relu_3x3 -> inception_4a/3x3 (in-place)
I0403 16:36:27.863175 18873 net.cpp:141] Setting up inception_4a/relu_3x3
I0403 16:36:27.863210 18873 net.cpp:148] Top shape: 24 208 14 14 (978432)
I0403 16:36:27.863230 18873 net.cpp:156] Memory required for data: 873063456
I0403 16:36:27.863250 18873 layer_factory.hpp:77] Creating layer inception_4a/5x5_reduce
I0403 16:36:27.863275 18873 net.cpp:91] Creating Layer inception_4a/5x5_reduce
I0403 16:36:27.863294 18873 net.cpp:425] inception_4a/5x5_reduce <- pool3/3x3_s2_pool3/3x3_s2_0_split_2
I0403 16:36:27.863319 18873 net.cpp:399] inception_4a/5x5_reduce -> inception_4a/5x5_reduce
I0403 16:36:27.864563 18873 net.cpp:141] Setting up inception_4a/5x5_reduce
I0403 16:36:27.864617 18873 net.cpp:148] Top shape: 24 16 14 14 (75264)
I0403 16:36:27.864639 18873 net.cpp:156] Memory required for data: 873364512
I0403 16:36:27.864661 18873 layer_factory.hpp:77] Creating layer inception_4a/relu_5x5_reduce
I0403 16:36:27.864684 18873 net.cpp:91] Creating Layer inception_4a/relu_5x5_reduce
I0403 16:36:27.864704 18873 net.cpp:425] inception_4a/relu_5x5_reduce <- inception_4a/5x5_reduce
I0403 16:36:27.864725 18873 net.cpp:386] inception_4a/relu_5x5_reduce -> inception_4a/5x5_reduce (in-place)
I0403 16:36:27.864948 18873 net.cpp:141] Setting up inception_4a/relu_5x5_reduce
I0403 16:36:27.864980 18873 net.cpp:148] Top shape: 24 16 14 14 (75264)
I0403 16:36:27.865000 18873 net.cpp:156] Memory required for data: 873665568
I0403 16:36:27.865017 18873 layer_factory.hpp:77] Creating layer inception_4a/5x5
I0403 16:36:27.865044 18873 net.cpp:91] Creating Layer inception_4a/5x5
I0403 16:36:27.865066 18873 net.cpp:425] inception_4a/5x5 <- inception_4a/5x5_reduce
I0403 16:36:27.865090 18873 net.cpp:399] inception_4a/5x5 -> inception_4a/5x5
I0403 16:36:27.866400 18873 net.cpp:141] Setting up inception_4a/5x5
I0403 16:36:27.866435 18873 net.cpp:148] Top shape: 24 48 14 14 (225792)
I0403 16:36:27.866454 18873 net.cpp:156] Memory required for data: 874568736
I0403 16:36:27.866477 18873 layer_factory.hpp:77] Creating layer inception_4a/relu_5x5
I0403 16:36:27.866498 18873 net.cpp:91] Creating Layer inception_4a/relu_5x5
I0403 16:36:27.866518 18873 net.cpp:425] inception_4a/relu_5x5 <- inception_4a/5x5
I0403 16:36:27.866541 18873 net.cpp:386] inception_4a/relu_5x5 -> inception_4a/5x5 (in-place)
I0403 16:36:27.866767 18873 net.cpp:141] Setting up inception_4a/relu_5x5
I0403 16:36:27.866798 18873 net.cpp:148] Top shape: 24 48 14 14 (225792)
I0403 16:36:27.866817 18873 net.cpp:156] Memory required for data: 875471904
I0403 16:36:27.866835 18873 layer_factory.hpp:77] Creating layer inception_4a/pool
I0403 16:36:27.866860 18873 net.cpp:91] Creating Layer inception_4a/pool
I0403 16:36:27.866890 18873 net.cpp:425] inception_4a/pool <- pool3/3x3_s2_pool3/3x3_s2_0_split_3
I0403 16:36:27.866911 18873 net.cpp:399] inception_4a/pool -> inception_4a/pool
I0403 16:36:27.866987 18873 net.cpp:141] Setting up inception_4a/pool
I0403 16:36:27.867017 18873 net.cpp:148] Top shape: 24 480 14 14 (2257920)
I0403 16:36:27.867035 18873 net.cpp:156] Memory required for data: 884503584
I0403 16:36:27.867053 18873 layer_factory.hpp:77] Creating layer inception_4a/pool_proj
I0403 16:36:27.867079 18873 net.cpp:91] Creating Layer inception_4a/pool_proj
I0403 16:36:27.867100 18873 net.cpp:425] inception_4a/pool_proj <- inception_4a/pool
I0403 16:36:27.867126 18873 net.cpp:399] inception_4a/pool_proj -> inception_4a/pool_proj
I0403 16:36:27.868535 18873 net.cpp:141] Setting up inception_4a/pool_proj
I0403 16:36:27.868569 18873 net.cpp:148] Top shape: 24 64 14 14 (301056)
I0403 16:36:27.868618 18873 net.cpp:156] Memory required for data: 885707808
I0403 16:36:27.868641 18873 layer_factory.hpp:77] Creating layer inception_4a/relu_pool_proj
I0403 16:36:27.868669 18873 net.cpp:91] Creating Layer inception_4a/relu_pool_proj
I0403 16:36:27.868691 18873 net.cpp:425] inception_4a/relu_pool_proj <- inception_4a/pool_proj
I0403 16:36:27.868715 18873 net.cpp:386] inception_4a/relu_pool_proj -> inception_4a/pool_proj (in-place)
I0403 16:36:27.869056 18873 net.cpp:141] Setting up inception_4a/relu_pool_proj
I0403 16:36:27.869089 18873 net.cpp:148] Top shape: 24 64 14 14 (301056)
I0403 16:36:27.869108 18873 net.cpp:156] Memory required for data: 886912032
I0403 16:36:27.869127 18873 layer_factory.hpp:77] Creating layer inception_4a/output
I0403 16:36:27.869148 18873 net.cpp:91] Creating Layer inception_4a/output
I0403 16:36:27.869168 18873 net.cpp:425] inception_4a/output <- inception_4a/1x1
I0403 16:36:27.869187 18873 net.cpp:425] inception_4a/output <- inception_4a/3x3
I0403 16:36:27.869207 18873 net.cpp:425] inception_4a/output <- inception_4a/5x5
I0403 16:36:27.869226 18873 net.cpp:425] inception_4a/output <- inception_4a/pool_proj
I0403 16:36:27.869248 18873 net.cpp:399] inception_4a/output -> inception_4a/output
I0403 16:36:27.869308 18873 net.cpp:141] Setting up inception_4a/output
I0403 16:36:27.869338 18873 net.cpp:148] Top shape: 24 512 14 14 (2408448)
I0403 16:36:27.869355 18873 net.cpp:156] Memory required for data: 896545824
I0403 16:36:27.869372 18873 layer_factory.hpp:77] Creating layer inception_4a/output_inception_4a/output_0_split
I0403 16:36:27.869395 18873 net.cpp:91] Creating Layer inception_4a/output_inception_4a/output_0_split
I0403 16:36:27.869412 18873 net.cpp:425] inception_4a/output_inception_4a/output_0_split <- inception_4a/output
I0403 16:36:27.869437 18873 net.cpp:399] inception_4a/output_inception_4a/output_0_split -> inception_4a/output_inception_4a/output_0_split_0
I0403 16:36:27.869463 18873 net.cpp:399] inception_4a/output_inception_4a/output_0_split -> inception_4a/output_inception_4a/output_0_split_1
I0403 16:36:27.869488 18873 net.cpp:399] inception_4a/output_inception_4a/output_0_split -> inception_4a/output_inception_4a/output_0_split_2
I0403 16:36:27.869513 18873 net.cpp:399] inception_4a/output_inception_4a/output_0_split -> inception_4a/output_inception_4a/output_0_split_3
I0403 16:36:27.869537 18873 net.cpp:399] inception_4a/output_inception_4a/output_0_split -> inception_4a/output_inception_4a/output_0_split_4
I0403 16:36:27.869653 18873 net.cpp:141] Setting up inception_4a/output_inception_4a/output_0_split
I0403 16:36:27.869686 18873 net.cpp:148] Top shape: 24 512 14 14 (2408448)
I0403 16:36:27.869709 18873 net.cpp:148] Top shape: 24 512 14 14 (2408448)
I0403 16:36:27.869727 18873 net.cpp:148] Top shape: 24 512 14 14 (2408448)
I0403 16:36:27.869747 18873 net.cpp:148] Top shape: 24 512 14 14 (2408448)
I0403 16:36:27.869767 18873 net.cpp:148] Top shape: 24 512 14 14 (2408448)
I0403 16:36:27.869783 18873 net.cpp:156] Memory required for data: 944714784
I0403 16:36:27.869801 18873 layer_factory.hpp:77] Creating layer loss1/ave_pool
I0403 16:36:27.869822 18873 net.cpp:91] Creating Layer loss1/ave_pool
I0403 16:36:27.869843 18873 net.cpp:425] loss1/ave_pool <- inception_4a/output_inception_4a/output_0_split_0
I0403 16:36:27.869868 18873 net.cpp:399] loss1/ave_pool -> loss1/ave_pool
I0403 16:36:27.870115 18873 net.cpp:141] Setting up loss1/ave_pool
I0403 16:36:27.870147 18873 net.cpp:148] Top shape: 24 512 4 4 (196608)
I0403 16:36:27.870167 18873 net.cpp:156] Memory required for data: 945501216
I0403 16:36:27.870184 18873 layer_factory.hpp:77] Creating layer loss1/conv
I0403 16:36:27.870211 18873 net.cpp:91] Creating Layer loss1/conv
I0403 16:36:27.870232 18873 net.cpp:425] loss1/conv <- loss1/ave_pool
I0403 16:36:27.870260 18873 net.cpp:399] loss1/conv -> loss1/conv
I0403 16:36:27.871963 18873 net.cpp:141] Setting up loss1/conv
I0403 16:36:27.872000 18873 net.cpp:148] Top shape: 24 128 4 4 (49152)
I0403 16:36:27.872021 18873 net.cpp:156] Memory required for data: 945697824
I0403 16:36:27.872061 18873 layer_factory.hpp:77] Creating layer loss1/relu_conv
I0403 16:36:27.872086 18873 net.cpp:91] Creating Layer loss1/relu_conv
I0403 16:36:27.872107 18873 net.cpp:425] loss1/relu_conv <- loss1/conv
I0403 16:36:27.872128 18873 net.cpp:386] loss1/relu_conv -> loss1/conv (in-place)
I0403 16:36:27.872470 18873 net.cpp:141] Setting up loss1/relu_conv
I0403 16:36:27.872509 18873 net.cpp:148] Top shape: 24 128 4 4 (49152)
I0403 16:36:27.872529 18873 net.cpp:156] Memory required for data: 945894432
I0403 16:36:27.872548 18873 layer_factory.hpp:77] Creating layer loss1/fc
I0403 16:36:27.872581 18873 net.cpp:91] Creating Layer loss1/fc
I0403 16:36:27.872606 18873 net.cpp:425] loss1/fc <- loss1/conv
I0403 16:36:27.872630 18873 net.cpp:399] loss1/fc -> loss1/fc
I0403 16:36:27.894464 18873 net.cpp:141] Setting up loss1/fc
I0403 16:36:27.894507 18873 net.cpp:148] Top shape: 24 1024 (24576)
I0403 16:36:27.894526 18873 net.cpp:156] Memory required for data: 945992736
I0403 16:36:27.894549 18873 layer_factory.hpp:77] Creating layer loss1/relu_fc
I0403 16:36:27.894580 18873 net.cpp:91] Creating Layer loss1/relu_fc
I0403 16:36:27.894603 18873 net.cpp:425] loss1/relu_fc <- loss1/fc
I0403 16:36:27.894624 18873 net.cpp:386] loss1/relu_fc -> loss1/fc (in-place)
I0403 16:36:27.894851 18873 net.cpp:141] Setting up loss1/relu_fc
I0403 16:36:27.894882 18873 net.cpp:148] Top shape: 24 1024 (24576)
I0403 16:36:27.894901 18873 net.cpp:156] Memory required for data: 946091040
I0403 16:36:27.894919 18873 layer_factory.hpp:77] Creating layer loss1/drop_fc
I0403 16:36:27.894953 18873 net.cpp:91] Creating Layer loss1/drop_fc
I0403 16:36:27.894974 18873 net.cpp:425] loss1/drop_fc <- loss1/fc
I0403 16:36:27.894996 18873 net.cpp:386] loss1/drop_fc -> loss1/fc (in-place)
I0403 16:36:27.895061 18873 net.cpp:141] Setting up loss1/drop_fc
I0403 16:36:27.895090 18873 net.cpp:148] Top shape: 24 1024 (24576)
I0403 16:36:27.895108 18873 net.cpp:156] Memory required for data: 946189344
I0403 16:36:27.895128 18873 layer_factory.hpp:77] Creating layer loss1/classifier_plantvillage
I0403 16:36:27.895149 18873 net.cpp:91] Creating Layer loss1/classifier_plantvillage
I0403 16:36:27.895169 18873 net.cpp:425] loss1/classifier_plantvillage <- loss1/fc
I0403 16:36:27.895195 18873 net.cpp:399] loss1/classifier_plantvillage -> loss1/classifier_plantvillage
I0403 16:36:27.896289 18873 net.cpp:141] Setting up loss1/classifier_plantvillage
I0403 16:36:27.896329 18873 net.cpp:148] Top shape: 24 38 (912)
I0403 16:36:27.896352 18873 net.cpp:156] Memory required for data: 946192992
I0403 16:36:27.896374 18873 layer_factory.hpp:77] Creating layer loss1/classifier_plantvillage_loss1/classifier_plantvillage_0_split
I0403 16:36:27.896397 18873 net.cpp:91] Creating Layer loss1/classifier_plantvillage_loss1/classifier_plantvillage_0_split
I0403 16:36:27.896416 18873 net.cpp:425] loss1/classifier_plantvillage_loss1/classifier_plantvillage_0_split <- loss1/classifier_plantvillage
I0403 16:36:27.896437 18873 net.cpp:399] loss1/classifier_plantvillage_loss1/classifier_plantvillage_0_split -> loss1/classifier_plantvillage_loss1/classifier_plantvillage_0_split_0
I0403 16:36:27.896462 18873 net.cpp:399] loss1/classifier_plantvillage_loss1/classifier_plantvillage_0_split -> loss1/classifier_plantvillage_loss1/classifier_plantvillage_0_split_1
I0403 16:36:27.896489 18873 net.cpp:399] loss1/classifier_plantvillage_loss1/classifier_plantvillage_0_split -> loss1/classifier_plantvillage_loss1/classifier_plantvillage_0_split_2
I0403 16:36:27.896575 18873 net.cpp:141] Setting up loss1/classifier_plantvillage_loss1/classifier_plantvillage_0_split
I0403 16:36:27.896605 18873 net.cpp:148] Top shape: 24 38 (912)
I0403 16:36:27.896625 18873 net.cpp:148] Top shape: 24 38 (912)
I0403 16:36:27.896646 18873 net.cpp:148] Top shape: 24 38 (912)
I0403 16:36:27.896662 18873 net.cpp:156] Memory required for data: 946203936
I0403 16:36:27.896680 18873 layer_factory.hpp:77] Creating layer inception_4b/1x1
I0403 16:36:27.896705 18873 net.cpp:91] Creating Layer inception_4b/1x1
I0403 16:36:27.896747 18873 net.cpp:425] inception_4b/1x1 <- inception_4a/output_inception_4a/output_0_split_1
I0403 16:36:27.896776 18873 net.cpp:399] inception_4b/1x1 -> inception_4b/1x1
I0403 16:36:27.898761 18873 net.cpp:141] Setting up inception_4b/1x1
I0403 16:36:27.898800 18873 net.cpp:148] Top shape: 24 160 14 14 (752640)
I0403 16:36:27.898821 18873 net.cpp:156] Memory required for data: 949214496
I0403 16:36:27.898844 18873 layer_factory.hpp:77] Creating layer inception_4b/relu_1x1
I0403 16:36:27.898866 18873 net.cpp:91] Creating Layer inception_4b/relu_1x1
I0403 16:36:27.898886 18873 net.cpp:425] inception_4b/relu_1x1 <- inception_4b/1x1
I0403 16:36:27.898908 18873 net.cpp:386] inception_4b/relu_1x1 -> inception_4b/1x1 (in-place)
I0403 16:36:27.899127 18873 net.cpp:141] Setting up inception_4b/relu_1x1
I0403 16:36:27.899158 18873 net.cpp:148] Top shape: 24 160 14 14 (752640)
I0403 16:36:27.899178 18873 net.cpp:156] Memory required for data: 952225056
I0403 16:36:27.899197 18873 layer_factory.hpp:77] Creating layer inception_4b/3x3_reduce
I0403 16:36:27.899224 18873 net.cpp:91] Creating Layer inception_4b/3x3_reduce
I0403 16:36:27.899246 18873 net.cpp:425] inception_4b/3x3_reduce <- inception_4a/output_inception_4a/output_0_split_2
I0403 16:36:27.899274 18873 net.cpp:399] inception_4b/3x3_reduce -> inception_4b/3x3_reduce
I0403 16:36:27.900913 18873 net.cpp:141] Setting up inception_4b/3x3_reduce
I0403 16:36:27.900952 18873 net.cpp:148] Top shape: 24 112 14 14 (526848)
I0403 16:36:27.900974 18873 net.cpp:156] Memory required for data: 954332448
I0403 16:36:27.900996 18873 layer_factory.hpp:77] Creating layer inception_4b/relu_3x3_reduce
I0403 16:36:27.901018 18873 net.cpp:91] Creating Layer inception_4b/relu_3x3_reduce
I0403 16:36:27.901039 18873 net.cpp:425] inception_4b/relu_3x3_reduce <- inception_4b/3x3_reduce
I0403 16:36:27.901063 18873 net.cpp:386] inception_4b/relu_3x3_reduce -> inception_4b/3x3_reduce (in-place)
I0403 16:36:27.901401 18873 net.cpp:141] Setting up inception_4b/relu_3x3_reduce
I0403 16:36:27.901437 18873 net.cpp:148] Top shape: 24 112 14 14 (526848)
I0403 16:36:27.901456 18873 net.cpp:156] Memory required for data: 956439840
I0403 16:36:27.901474 18873 layer_factory.hpp:77] Creating layer inception_4b/3x3
I0403 16:36:27.901502 18873 net.cpp:91] Creating Layer inception_4b/3x3
I0403 16:36:27.901525 18873 net.cpp:425] inception_4b/3x3 <- inception_4b/3x3_reduce
I0403 16:36:27.901551 18873 net.cpp:399] inception_4b/3x3 -> inception_4b/3x3
I0403 16:36:27.905155 18873 net.cpp:141] Setting up inception_4b/3x3
I0403 16:36:27.905191 18873 net.cpp:148] Top shape: 24 224 14 14 (1053696)
I0403 16:36:27.905211 18873 net.cpp:156] Memory required for data: 960654624
I0403 16:36:27.905233 18873 layer_factory.hpp:77] Creating layer inception_4b/relu_3x3
I0403 16:36:27.905259 18873 net.cpp:91] Creating Layer inception_4b/relu_3x3
I0403 16:36:27.905280 18873 net.cpp:425] inception_4b/relu_3x3 <- inception_4b/3x3
I0403 16:36:27.905302 18873 net.cpp:386] inception_4b/relu_3x3 -> inception_4b/3x3 (in-place)
I0403 16:36:27.905524 18873 net.cpp:141] Setting up inception_4b/relu_3x3
I0403 16:36:27.905558 18873 net.cpp:148] Top shape: 24 224 14 14 (1053696)
I0403 16:36:27.905591 18873 net.cpp:156] Memory required for data: 964869408
I0403 16:36:27.905612 18873 layer_factory.hpp:77] Creating layer inception_4b/5x5_reduce
I0403 16:36:27.905642 18873 net.cpp:91] Creating Layer inception_4b/5x5_reduce
I0403 16:36:27.905663 18873 net.cpp:425] inception_4b/5x5_reduce <- inception_4a/output_inception_4a/output_0_split_3
I0403 16:36:27.905688 18873 net.cpp:399] inception_4b/5x5_reduce -> inception_4b/5x5_reduce
I0403 16:36:27.906999 18873 net.cpp:141] Setting up inception_4b/5x5_reduce
I0403 16:36:27.907037 18873 net.cpp:148] Top shape: 24 24 14 14 (112896)
I0403 16:36:27.907058 18873 net.cpp:156] Memory required for data: 965320992
I0403 16:36:27.907080 18873 layer_factory.hpp:77] Creating layer inception_4b/relu_5x5_reduce
I0403 16:36:27.907104 18873 net.cpp:91] Creating Layer inception_4b/relu_5x5_reduce
I0403 16:36:27.907141 18873 net.cpp:425] inception_4b/relu_5x5_reduce <- inception_4b/5x5_reduce
I0403 16:36:27.907166 18873 net.cpp:386] inception_4b/relu_5x5_reduce -> inception_4b/5x5_reduce (in-place)
I0403 16:36:27.907390 18873 net.cpp:141] Setting up inception_4b/relu_5x5_reduce
I0403 16:36:27.907423 18873 net.cpp:148] Top shape: 24 24 14 14 (112896)
I0403 16:36:27.907440 18873 net.cpp:156] Memory required for data: 965772576
I0403 16:36:27.907459 18873 layer_factory.hpp:77] Creating layer inception_4b/5x5
I0403 16:36:27.907486 18873 net.cpp:91] Creating Layer inception_4b/5x5
I0403 16:36:27.907508 18873 net.cpp:425] inception_4b/5x5 <- inception_4b/5x5_reduce
I0403 16:36:27.907534 18873 net.cpp:399] inception_4b/5x5 -> inception_4b/5x5
I0403 16:36:27.909027 18873 net.cpp:141] Setting up inception_4b/5x5
I0403 16:36:27.909065 18873 net.cpp:148] Top shape: 24 64 14 14 (301056)
I0403 16:36:27.909086 18873 net.cpp:156] Memory required for data: 966976800
I0403 16:36:27.909109 18873 layer_factory.hpp:77] Creating layer inception_4b/relu_5x5
I0403 16:36:27.909132 18873 net.cpp:91] Creating Layer inception_4b/relu_5x5
I0403 16:36:27.909152 18873 net.cpp:425] inception_4b/relu_5x5 <- inception_4b/5x5
I0403 16:36:27.909173 18873 net.cpp:386] inception_4b/relu_5x5 -> inception_4b/5x5 (in-place)
I0403 16:36:27.909512 18873 net.cpp:141] Setting up inception_4b/relu_5x5
I0403 16:36:27.909548 18873 net.cpp:148] Top shape: 24 64 14 14 (301056)
I0403 16:36:27.909566 18873 net.cpp:156] Memory required for data: 968181024
I0403 16:36:27.909592 18873 layer_factory.hpp:77] Creating layer inception_4b/pool
I0403 16:36:27.909615 18873 net.cpp:91] Creating Layer inception_4b/pool
I0403 16:36:27.909634 18873 net.cpp:425] inception_4b/pool <- inception_4a/output_inception_4a/output_0_split_4
I0403 16:36:27.909657 18873 net.cpp:399] inception_4b/pool -> inception_4b/pool
I0403 16:36:27.909737 18873 net.cpp:141] Setting up inception_4b/pool
I0403 16:36:27.909768 18873 net.cpp:148] Top shape: 24 512 14 14 (2408448)
I0403 16:36:27.909785 18873 net.cpp:156] Memory required for data: 977814816
I0403 16:36:27.909803 18873 layer_factory.hpp:77] Creating layer inception_4b/pool_proj
I0403 16:36:27.909831 18873 net.cpp:91] Creating Layer inception_4b/pool_proj
I0403 16:36:27.909852 18873 net.cpp:425] inception_4b/pool_proj <- inception_4b/pool
I0403 16:36:27.909876 18873 net.cpp:399] inception_4b/pool_proj -> inception_4b/pool_proj
I0403 16:36:27.911342 18873 net.cpp:141] Setting up inception_4b/pool_proj
I0403 16:36:27.911381 18873 net.cpp:148] Top shape: 24 64 14 14 (301056)
I0403 16:36:27.911401 18873 net.cpp:156] Memory required for data: 979019040
I0403 16:36:27.911424 18873 layer_factory.hpp:77] Creating layer inception_4b/relu_pool_proj
I0403 16:36:27.911448 18873 net.cpp:91] Creating Layer inception_4b/relu_pool_proj
I0403 16:36:27.911468 18873 net.cpp:425] inception_4b/relu_pool_proj <- inception_4b/pool_proj
I0403 16:36:27.911491 18873 net.cpp:386] inception_4b/relu_pool_proj -> inception_4b/pool_proj (in-place)
I0403 16:36:27.911720 18873 net.cpp:141] Setting up inception_4b/relu_pool_proj
I0403 16:36:27.911752 18873 net.cpp:148] Top shape: 24 64 14 14 (301056)
I0403 16:36:27.911772 18873 net.cpp:156] Memory required for data: 980223264
I0403 16:36:27.911790 18873 layer_factory.hpp:77] Creating layer inception_4b/output
I0403 16:36:27.911811 18873 net.cpp:91] Creating Layer inception_4b/output
I0403 16:36:27.911831 18873 net.cpp:425] inception_4b/output <- inception_4b/1x1
I0403 16:36:27.911851 18873 net.cpp:425] inception_4b/output <- inception_4b/3x3
I0403 16:36:27.911871 18873 net.cpp:425] inception_4b/output <- inception_4b/5x5
I0403 16:36:27.911890 18873 net.cpp:425] inception_4b/output <- inception_4b/pool_proj
I0403 16:36:27.911913 18873 net.cpp:399] inception_4b/output -> inception_4b/output
I0403 16:36:27.911969 18873 net.cpp:141] Setting up inception_4b/output
I0403 16:36:27.912001 18873 net.cpp:148] Top shape: 24 512 14 14 (2408448)
I0403 16:36:27.912020 18873 net.cpp:156] Memory required for data: 989857056
I0403 16:36:27.912057 18873 layer_factory.hpp:77] Creating layer inception_4b/output_inception_4b/output_0_split
I0403 16:36:27.912081 18873 net.cpp:91] Creating Layer inception_4b/output_inception_4b/output_0_split
I0403 16:36:27.912099 18873 net.cpp:425] inception_4b/output_inception_4b/output_0_split <- inception_4b/output
I0403 16:36:27.912123 18873 net.cpp:399] inception_4b/output_inception_4b/output_0_split -> inception_4b/output_inception_4b/output_0_split_0
I0403 16:36:27.912149 18873 net.cpp:399] inception_4b/output_inception_4b/output_0_split -> inception_4b/output_inception_4b/output_0_split_1
I0403 16:36:27.912175 18873 net.cpp:399] inception_4b/output_inception_4b/output_0_split -> inception_4b/output_inception_4b/output_0_split_2
I0403 16:36:27.912201 18873 net.cpp:399] inception_4b/output_inception_4b/output_0_split -> inception_4b/output_inception_4b/output_0_split_3
I0403 16:36:27.912302 18873 net.cpp:141] Setting up inception_4b/output_inception_4b/output_0_split
I0403 16:36:27.912330 18873 net.cpp:148] Top shape: 24 512 14 14 (2408448)
I0403 16:36:27.912356 18873 net.cpp:148] Top shape: 24 512 14 14 (2408448)
I0403 16:36:27.912376 18873 net.cpp:148] Top shape: 24 512 14 14 (2408448)
I0403 16:36:27.912395 18873 net.cpp:148] Top shape: 24 512 14 14 (2408448)
I0403 16:36:27.912413 18873 net.cpp:156] Memory required for data: 1028392224
I0403 16:36:27.912431 18873 layer_factory.hpp:77] Creating layer inception_4c/1x1
I0403 16:36:27.912456 18873 net.cpp:91] Creating Layer inception_4c/1x1
I0403 16:36:27.912477 18873 net.cpp:425] inception_4c/1x1 <- inception_4b/output_inception_4b/output_0_split_0
I0403 16:36:27.912503 18873 net.cpp:399] inception_4c/1x1 -> inception_4c/1x1
I0403 16:36:27.914261 18873 net.cpp:141] Setting up inception_4c/1x1
I0403 16:36:27.914297 18873 net.cpp:148] Top shape: 24 128 14 14 (602112)
I0403 16:36:27.914316 18873 net.cpp:156] Memory required for data: 1030800672
I0403 16:36:27.914338 18873 layer_factory.hpp:77] Creating layer inception_4c/relu_1x1
I0403 16:36:27.914366 18873 net.cpp:91] Creating Layer inception_4c/relu_1x1
I0403 16:36:27.914387 18873 net.cpp:425] inception_4c/relu_1x1 <- inception_4c/1x1
I0403 16:36:27.914408 18873 net.cpp:386] inception_4c/relu_1x1 -> inception_4c/1x1 (in-place)
I0403 16:36:27.914649 18873 net.cpp:141] Setting up inception_4c/relu_1x1
I0403 16:36:27.914682 18873 net.cpp:148] Top shape: 24 128 14 14 (602112)
I0403 16:36:27.914700 18873 net.cpp:156] Memory required for data: 1033209120
I0403 16:36:27.914718 18873 layer_factory.hpp:77] Creating layer inception_4c/3x3_reduce
I0403 16:36:27.914748 18873 net.cpp:91] Creating Layer inception_4c/3x3_reduce
I0403 16:36:27.914770 18873 net.cpp:425] inception_4c/3x3_reduce <- inception_4b/output_inception_4b/output_0_split_1
I0403 16:36:27.914798 18873 net.cpp:399] inception_4c/3x3_reduce -> inception_4c/3x3_reduce
I0403 16:36:27.917148 18873 net.cpp:141] Setting up inception_4c/3x3_reduce
I0403 16:36:27.917186 18873 net.cpp:148] Top shape: 24 128 14 14 (602112)
I0403 16:36:27.917204 18873 net.cpp:156] Memory required for data: 1035617568
I0403 16:36:27.917227 18873 layer_factory.hpp:77] Creating layer inception_4c/relu_3x3_reduce
I0403 16:36:27.917251 18873 net.cpp:91] Creating Layer inception_4c/relu_3x3_reduce
I0403 16:36:27.917273 18873 net.cpp:425] inception_4c/relu_3x3_reduce <- inception_4c/3x3_reduce
I0403 16:36:27.917294 18873 net.cpp:386] inception_4c/relu_3x3_reduce -> inception_4c/3x3_reduce (in-place)
I0403 16:36:27.917646 18873 net.cpp:141] Setting up inception_4c/relu_3x3_reduce
I0403 16:36:27.917680 18873 net.cpp:148] Top shape: 24 128 14 14 (602112)
I0403 16:36:27.917700 18873 net.cpp:156] Memory required for data: 1038026016
I0403 16:36:27.917717 18873 layer_factory.hpp:77] Creating layer inception_4c/3x3
I0403 16:36:27.917748 18873 net.cpp:91] Creating Layer inception_4c/3x3
I0403 16:36:27.917770 18873 net.cpp:425] inception_4c/3x3 <- inception_4c/3x3_reduce
I0403 16:36:27.917794 18873 net.cpp:399] inception_4c/3x3 -> inception_4c/3x3
I0403 16:36:27.922169 18873 net.cpp:141] Setting up inception_4c/3x3
I0403 16:36:27.922224 18873 net.cpp:148] Top shape: 24 256 14 14 (1204224)
I0403 16:36:27.922245 18873 net.cpp:156] Memory required for data: 1042842912
I0403 16:36:27.922284 18873 layer_factory.hpp:77] Creating layer inception_4c/relu_3x3
I0403 16:36:27.922310 18873 net.cpp:91] Creating Layer inception_4c/relu_3x3
I0403 16:36:27.922332 18873 net.cpp:425] inception_4c/relu_3x3 <- inception_4c/3x3
I0403 16:36:27.922353 18873 net.cpp:386] inception_4c/relu_3x3 -> inception_4c/3x3 (in-place)
I0403 16:36:27.922582 18873 net.cpp:141] Setting up inception_4c/relu_3x3
I0403 16:36:27.922616 18873 net.cpp:148] Top shape: 24 256 14 14 (1204224)
I0403 16:36:27.922636 18873 net.cpp:156] Memory required for data: 1047659808
I0403 16:36:27.922655 18873 layer_factory.hpp:77] Creating layer inception_4c/5x5_reduce
I0403 16:36:27.922683 18873 net.cpp:91] Creating Layer inception_4c/5x5_reduce
I0403 16:36:27.922705 18873 net.cpp:425] inception_4c/5x5_reduce <- inception_4b/output_inception_4b/output_0_split_2
I0403 16:36:27.922729 18873 net.cpp:399] inception_4c/5x5_reduce -> inception_4c/5x5_reduce
I0403 16:36:27.924062 18873 net.cpp:141] Setting up inception_4c/5x5_reduce
I0403 16:36:27.924100 18873 net.cpp:148] Top shape: 24 24 14 14 (112896)
I0403 16:36:27.924121 18873 net.cpp:156] Memory required for data: 1048111392
I0403 16:36:27.924144 18873 layer_factory.hpp:77] Creating layer inception_4c/relu_5x5_reduce
I0403 16:36:27.924166 18873 net.cpp:91] Creating Layer inception_4c/relu_5x5_reduce
I0403 16:36:27.924186 18873 net.cpp:425] inception_4c/relu_5x5_reduce <- inception_4c/5x5_reduce
I0403 16:36:27.924211 18873 net.cpp:386] inception_4c/relu_5x5_reduce -> inception_4c/5x5_reduce (in-place)
I0403 16:36:27.924435 18873 net.cpp:141] Setting up inception_4c/relu_5x5_reduce
I0403 16:36:27.924466 18873 net.cpp:148] Top shape: 24 24 14 14 (112896)
I0403 16:36:27.924485 18873 net.cpp:156] Memory required for data: 1048562976
I0403 16:36:27.924504 18873 layer_factory.hpp:77] Creating layer inception_4c/5x5
I0403 16:36:27.924530 18873 net.cpp:91] Creating Layer inception_4c/5x5
I0403 16:36:27.924551 18873 net.cpp:425] inception_4c/5x5 <- inception_4c/5x5_reduce
I0403 16:36:27.924592 18873 net.cpp:399] inception_4c/5x5 -> inception_4c/5x5
I0403 16:36:27.926137 18873 net.cpp:141] Setting up inception_4c/5x5
I0403 16:36:27.926172 18873 net.cpp:148] Top shape: 24 64 14 14 (301056)
I0403 16:36:27.926192 18873 net.cpp:156] Memory required for data: 1049767200
I0403 16:36:27.926215 18873 layer_factory.hpp:77] Creating layer inception_4c/relu_5x5
I0403 16:36:27.926240 18873 net.cpp:91] Creating Layer inception_4c/relu_5x5
I0403 16:36:27.926261 18873 net.cpp:425] inception_4c/relu_5x5 <- inception_4c/5x5
I0403 16:36:27.926282 18873 net.cpp:386] inception_4c/relu_5x5 -> inception_4c/5x5 (in-place)
I0403 16:36:27.926633 18873 net.cpp:141] Setting up inception_4c/relu_5x5
I0403 16:36:27.926666 18873 net.cpp:148] Top shape: 24 64 14 14 (301056)
I0403 16:36:27.926687 18873 net.cpp:156] Memory required for data: 1050971424
I0403 16:36:27.926707 18873 layer_factory.hpp:77] Creating layer inception_4c/pool
I0403 16:36:27.926728 18873 net.cpp:91] Creating Layer inception_4c/pool
I0403 16:36:27.926748 18873 net.cpp:425] inception_4c/pool <- inception_4b/output_inception_4b/output_0_split_3
I0403 16:36:27.926774 18873 net.cpp:399] inception_4c/pool -> inception_4c/pool
I0403 16:36:27.926856 18873 net.cpp:141] Setting up inception_4c/pool
I0403 16:36:27.926887 18873 net.cpp:148] Top shape: 24 512 14 14 (2408448)
I0403 16:36:27.926904 18873 net.cpp:156] Memory required for data: 1060605216
I0403 16:36:27.926923 18873 layer_factory.hpp:77] Creating layer inception_4c/pool_proj
I0403 16:36:27.926949 18873 net.cpp:91] Creating Layer inception_4c/pool_proj
I0403 16:36:27.926970 18873 net.cpp:425] inception_4c/pool_proj <- inception_4c/pool
I0403 16:36:27.926996 18873 net.cpp:399] inception_4c/pool_proj -> inception_4c/pool_proj
I0403 16:36:27.928481 18873 net.cpp:141] Setting up inception_4c/pool_proj
I0403 16:36:27.928520 18873 net.cpp:148] Top shape: 24 64 14 14 (301056)
I0403 16:36:27.928557 18873 net.cpp:156] Memory required for data: 1061809440
I0403 16:36:27.928591 18873 layer_factory.hpp:77] Creating layer inception_4c/relu_pool_proj
I0403 16:36:27.928616 18873 net.cpp:91] Creating Layer inception_4c/relu_pool_proj
I0403 16:36:27.928635 18873 net.cpp:425] inception_4c/relu_pool_proj <- inception_4c/pool_proj
I0403 16:36:27.928658 18873 net.cpp:386] inception_4c/relu_pool_proj -> inception_4c/pool_proj (in-place)
I0403 16:36:27.928882 18873 net.cpp:141] Setting up inception_4c/relu_pool_proj
I0403 16:36:27.928915 18873 net.cpp:148] Top shape: 24 64 14 14 (301056)
I0403 16:36:27.928933 18873 net.cpp:156] Memory required for data: 1063013664
I0403 16:36:27.928951 18873 layer_factory.hpp:77] Creating layer inception_4c/output
I0403 16:36:27.928972 18873 net.cpp:91] Creating Layer inception_4c/output
I0403 16:36:27.928992 18873 net.cpp:425] inception_4c/output <- inception_4c/1x1
I0403 16:36:27.929011 18873 net.cpp:425] inception_4c/output <- inception_4c/3x3
I0403 16:36:27.929031 18873 net.cpp:425] inception_4c/output <- inception_4c/5x5
I0403 16:36:27.929050 18873 net.cpp:425] inception_4c/output <- inception_4c/pool_proj
I0403 16:36:27.929074 18873 net.cpp:399] inception_4c/output -> inception_4c/output
I0403 16:36:27.929132 18873 net.cpp:141] Setting up inception_4c/output
I0403 16:36:27.929164 18873 net.cpp:148] Top shape: 24 512 14 14 (2408448)
I0403 16:36:27.929185 18873 net.cpp:156] Memory required for data: 1072647456
I0403 16:36:27.929203 18873 layer_factory.hpp:77] Creating layer inception_4c/output_inception_4c/output_0_split
I0403 16:36:27.929224 18873 net.cpp:91] Creating Layer inception_4c/output_inception_4c/output_0_split
I0403 16:36:27.929244 18873 net.cpp:425] inception_4c/output_inception_4c/output_0_split <- inception_4c/output
I0403 16:36:27.929266 18873 net.cpp:399] inception_4c/output_inception_4c/output_0_split -> inception_4c/output_inception_4c/output_0_split_0
I0403 16:36:27.929293 18873 net.cpp:399] inception_4c/output_inception_4c/output_0_split -> inception_4c/output_inception_4c/output_0_split_1
I0403 16:36:27.929318 18873 net.cpp:399] inception_4c/output_inception_4c/output_0_split -> inception_4c/output_inception_4c/output_0_split_2
I0403 16:36:27.929343 18873 net.cpp:399] inception_4c/output_inception_4c/output_0_split -> inception_4c/output_inception_4c/output_0_split_3
I0403 16:36:27.929450 18873 net.cpp:141] Setting up inception_4c/output_inception_4c/output_0_split
I0403 16:36:27.929479 18873 net.cpp:148] Top shape: 24 512 14 14 (2408448)
I0403 16:36:27.929499 18873 net.cpp:148] Top shape: 24 512 14 14 (2408448)
I0403 16:36:27.929518 18873 net.cpp:148] Top shape: 24 512 14 14 (2408448)
I0403 16:36:27.929538 18873 net.cpp:148] Top shape: 24 512 14 14 (2408448)
I0403 16:36:27.929553 18873 net.cpp:156] Memory required for data: 1111182624
I0403 16:36:27.929577 18873 layer_factory.hpp:77] Creating layer inception_4d/1x1
I0403 16:36:27.929607 18873 net.cpp:91] Creating Layer inception_4d/1x1
I0403 16:36:27.929628 18873 net.cpp:425] inception_4d/1x1 <- inception_4c/output_inception_4c/output_0_split_0
I0403 16:36:27.929654 18873 net.cpp:399] inception_4d/1x1 -> inception_4d/1x1
I0403 16:36:27.931349 18873 net.cpp:141] Setting up inception_4d/1x1
I0403 16:36:27.931385 18873 net.cpp:148] Top shape: 24 112 14 14 (526848)
I0403 16:36:27.931404 18873 net.cpp:156] Memory required for data: 1113290016
I0403 16:36:27.931427 18873 layer_factory.hpp:77] Creating layer inception_4d/relu_1x1
I0403 16:36:27.931452 18873 net.cpp:91] Creating Layer inception_4d/relu_1x1
I0403 16:36:27.931473 18873 net.cpp:425] inception_4d/relu_1x1 <- inception_4d/1x1
I0403 16:36:27.931494 18873 net.cpp:386] inception_4d/relu_1x1 -> inception_4d/1x1 (in-place)
I0403 16:36:27.931727 18873 net.cpp:141] Setting up inception_4d/relu_1x1
I0403 16:36:27.931761 18873 net.cpp:148] Top shape: 24 112 14 14 (526848)
I0403 16:36:27.931782 18873 net.cpp:156] Memory required for data: 1115397408
I0403 16:36:27.931799 18873 layer_factory.hpp:77] Creating layer inception_4d/3x3_reduce
I0403 16:36:27.931843 18873 net.cpp:91] Creating Layer inception_4d/3x3_reduce
I0403 16:36:27.931866 18873 net.cpp:425] inception_4d/3x3_reduce <- inception_4c/output_inception_4c/output_0_split_1
I0403 16:36:27.931891 18873 net.cpp:399] inception_4d/3x3_reduce -> inception_4d/3x3_reduce
I0403 16:36:27.933737 18873 net.cpp:141] Setting up inception_4d/3x3_reduce
I0403 16:36:27.933770 18873 net.cpp:148] Top shape: 24 144 14 14 (677376)
I0403 16:36:27.933790 18873 net.cpp:156] Memory required for data: 1118106912
I0403 16:36:27.933812 18873 layer_factory.hpp:77] Creating layer inception_4d/relu_3x3_reduce
I0403 16:36:27.933835 18873 net.cpp:91] Creating Layer inception_4d/relu_3x3_reduce
I0403 16:36:27.933854 18873 net.cpp:425] inception_4d/relu_3x3_reduce <- inception_4d/3x3_reduce
I0403 16:36:27.933879 18873 net.cpp:386] inception_4d/relu_3x3_reduce -> inception_4d/3x3_reduce (in-place)
I0403 16:36:27.934232 18873 net.cpp:141] Setting up inception_4d/relu_3x3_reduce
I0403 16:36:27.934265 18873 net.cpp:148] Top shape: 24 144 14 14 (677376)
I0403 16:36:27.934284 18873 net.cpp:156] Memory required for data: 1120816416
I0403 16:36:27.934303 18873 layer_factory.hpp:77] Creating layer inception_4d/3x3
I0403 16:36:27.934329 18873 net.cpp:91] Creating Layer inception_4d/3x3
I0403 16:36:27.934351 18873 net.cpp:425] inception_4d/3x3 <- inception_4d/3x3_reduce
I0403 16:36:27.934376 18873 net.cpp:399] inception_4d/3x3 -> inception_4d/3x3
I0403 16:36:27.939625 18873 net.cpp:141] Setting up inception_4d/3x3
I0403 16:36:27.939661 18873 net.cpp:148] Top shape: 24 288 14 14 (1354752)
I0403 16:36:27.939682 18873 net.cpp:156] Memory required for data: 1126235424
I0403 16:36:27.939704 18873 layer_factory.hpp:77] Creating layer inception_4d/relu_3x3
I0403 16:36:27.939729 18873 net.cpp:91] Creating Layer inception_4d/relu_3x3
I0403 16:36:27.939751 18873 net.cpp:425] inception_4d/relu_3x3 <- inception_4d/3x3
I0403 16:36:27.939772 18873 net.cpp:386] inception_4d/relu_3x3 -> inception_4d/3x3 (in-place)
I0403 16:36:27.940001 18873 net.cpp:141] Setting up inception_4d/relu_3x3
I0403 16:36:27.940034 18873 net.cpp:148] Top shape: 24 288 14 14 (1354752)
I0403 16:36:27.940053 18873 net.cpp:156] Memory required for data: 1131654432
I0403 16:36:27.940071 18873 layer_factory.hpp:77] Creating layer inception_4d/5x5_reduce
I0403 16:36:27.940098 18873 net.cpp:91] Creating Layer inception_4d/5x5_reduce
I0403 16:36:27.940119 18873 net.cpp:425] inception_4d/5x5_reduce <- inception_4c/output_inception_4c/output_0_split_2
I0403 16:36:27.940146 18873 net.cpp:399] inception_4d/5x5_reduce -> inception_4d/5x5_reduce
I0403 16:36:27.941560 18873 net.cpp:141] Setting up inception_4d/5x5_reduce
I0403 16:36:27.941602 18873 net.cpp:148] Top shape: 24 32 14 14 (150528)
I0403 16:36:27.941623 18873 net.cpp:156] Memory required for data: 1132256544
I0403 16:36:27.941647 18873 layer_factory.hpp:77] Creating layer inception_4d/relu_5x5_reduce
I0403 16:36:27.941671 18873 net.cpp:91] Creating Layer inception_4d/relu_5x5_reduce
I0403 16:36:27.941692 18873 net.cpp:425] inception_4d/relu_5x5_reduce <- inception_4d/5x5_reduce
I0403 16:36:27.941715 18873 net.cpp:386] inception_4d/relu_5x5_reduce -> inception_4d/5x5_reduce (in-place)
I0403 16:36:27.941946 18873 net.cpp:141] Setting up inception_4d/relu_5x5_reduce
I0403 16:36:27.941979 18873 net.cpp:148] Top shape: 24 32 14 14 (150528)
I0403 16:36:27.941998 18873 net.cpp:156] Memory required for data: 1132858656
I0403 16:36:27.942018 18873 layer_factory.hpp:77] Creating layer inception_4d/5x5
I0403 16:36:27.942044 18873 net.cpp:91] Creating Layer inception_4d/5x5
I0403 16:36:27.942065 18873 net.cpp:425] inception_4d/5x5 <- inception_4d/5x5_reduce
I0403 16:36:27.942088 18873 net.cpp:399] inception_4d/5x5 -> inception_4d/5x5
I0403 16:36:27.943881 18873 net.cpp:141] Setting up inception_4d/5x5
I0403 16:36:27.943917 18873 net.cpp:148] Top shape: 24 64 14 14 (301056)
I0403 16:36:27.943939 18873 net.cpp:156] Memory required for data: 1134062880
I0403 16:36:27.943963 18873 layer_factory.hpp:77] Creating layer inception_4d/relu_5x5
I0403 16:36:27.944002 18873 net.cpp:91] Creating Layer inception_4d/relu_5x5
I0403 16:36:27.944025 18873 net.cpp:425] inception_4d/relu_5x5 <- inception_4d/5x5
I0403 16:36:27.944049 18873 net.cpp:386] inception_4d/relu_5x5 -> inception_4d/5x5 (in-place)
I0403 16:36:27.944417 18873 net.cpp:141] Setting up inception_4d/relu_5x5
I0403 16:36:27.944453 18873 net.cpp:148] Top shape: 24 64 14 14 (301056)
I0403 16:36:27.944473 18873 net.cpp:156] Memory required for data: 1135267104
I0403 16:36:27.944491 18873 layer_factory.hpp:77] Creating layer inception_4d/pool
I0403 16:36:27.944514 18873 net.cpp:91] Creating Layer inception_4d/pool
I0403 16:36:27.944533 18873 net.cpp:425] inception_4d/pool <- inception_4c/output_inception_4c/output_0_split_3
I0403 16:36:27.944561 18873 net.cpp:399] inception_4d/pool -> inception_4d/pool
I0403 16:36:27.944658 18873 net.cpp:141] Setting up inception_4d/pool
I0403 16:36:27.944691 18873 net.cpp:148] Top shape: 24 512 14 14 (2408448)
I0403 16:36:27.944710 18873 net.cpp:156] Memory required for data: 1144900896
I0403 16:36:27.944728 18873 layer_factory.hpp:77] Creating layer inception_4d/pool_proj
I0403 16:36:27.944756 18873 net.cpp:91] Creating Layer inception_4d/pool_proj
I0403 16:36:27.944778 18873 net.cpp:425] inception_4d/pool_proj <- inception_4d/pool
I0403 16:36:27.944802 18873 net.cpp:399] inception_4d/pool_proj -> inception_4d/pool_proj
I0403 16:36:27.946928 18873 net.cpp:141] Setting up inception_4d/pool_proj
I0403 16:36:27.946964 18873 net.cpp:148] Top shape: 24 64 14 14 (301056)
I0403 16:36:27.946984 18873 net.cpp:156] Memory required for data: 1146105120
I0403 16:36:27.947006 18873 layer_factory.hpp:77] Creating layer inception_4d/relu_pool_proj
I0403 16:36:27.947031 18873 net.cpp:91] Creating Layer inception_4d/relu_pool_proj
I0403 16:36:27.947052 18873 net.cpp:425] inception_4d/relu_pool_proj <- inception_4d/pool_proj
I0403 16:36:27.947074 18873 net.cpp:386] inception_4d/relu_pool_proj -> inception_4d/pool_proj (in-place)
I0403 16:36:27.947300 18873 net.cpp:141] Setting up inception_4d/relu_pool_proj
I0403 16:36:27.947335 18873 net.cpp:148] Top shape: 24 64 14 14 (301056)
I0403 16:36:27.947352 18873 net.cpp:156] Memory required for data: 1147309344
I0403 16:36:27.947371 18873 layer_factory.hpp:77] Creating layer inception_4d/output
I0403 16:36:27.947391 18873 net.cpp:91] Creating Layer inception_4d/output
I0403 16:36:27.947410 18873 net.cpp:425] inception_4d/output <- inception_4d/1x1
I0403 16:36:27.947430 18873 net.cpp:425] inception_4d/output <- inception_4d/3x3
I0403 16:36:27.947449 18873 net.cpp:425] inception_4d/output <- inception_4d/5x5
I0403 16:36:27.947470 18873 net.cpp:425] inception_4d/output <- inception_4d/pool_proj
I0403 16:36:27.947491 18873 net.cpp:399] inception_4d/output -> inception_4d/output
I0403 16:36:27.947552 18873 net.cpp:141] Setting up inception_4d/output
I0403 16:36:27.947587 18873 net.cpp:148] Top shape: 24 528 14 14 (2483712)
I0403 16:36:27.947608 18873 net.cpp:156] Memory required for data: 1157244192
I0403 16:36:27.947625 18873 layer_factory.hpp:77] Creating layer inception_4d/output_inception_4d/output_0_split
I0403 16:36:27.947649 18873 net.cpp:91] Creating Layer inception_4d/output_inception_4d/output_0_split
I0403 16:36:27.947669 18873 net.cpp:425] inception_4d/output_inception_4d/output_0_split <- inception_4d/output
I0403 16:36:27.947691 18873 net.cpp:399] inception_4d/output_inception_4d/output_0_split -> inception_4d/output_inception_4d/output_0_split_0
I0403 16:36:27.947715 18873 net.cpp:399] inception_4d/output_inception_4d/output_0_split -> inception_4d/output_inception_4d/output_0_split_1
I0403 16:36:27.947744 18873 net.cpp:399] inception_4d/output_inception_4d/output_0_split -> inception_4d/output_inception_4d/output_0_split_2
I0403 16:36:27.947772 18873 net.cpp:399] inception_4d/output_inception_4d/output_0_split -> inception_4d/output_inception_4d/output_0_split_3
I0403 16:36:27.947795 18873 net.cpp:399] inception_4d/output_inception_4d/output_0_split -> inception_4d/output_inception_4d/output_0_split_4
I0403 16:36:27.947923 18873 net.cpp:141] Setting up inception_4d/output_inception_4d/output_0_split
I0403 16:36:27.947968 18873 net.cpp:148] Top shape: 24 528 14 14 (2483712)
I0403 16:36:27.947989 18873 net.cpp:148] Top shape: 24 528 14 14 (2483712)
I0403 16:36:27.948009 18873 net.cpp:148] Top shape: 24 528 14 14 (2483712)
I0403 16:36:27.948029 18873 net.cpp:148] Top shape: 24 528 14 14 (2483712)
I0403 16:36:27.948047 18873 net.cpp:148] Top shape: 24 528 14 14 (2483712)
I0403 16:36:27.948063 18873 net.cpp:156] Memory required for data: 1206918432
I0403 16:36:27.948081 18873 layer_factory.hpp:77] Creating layer loss2/ave_pool
I0403 16:36:27.948107 18873 net.cpp:91] Creating Layer loss2/ave_pool
I0403 16:36:27.948127 18873 net.cpp:425] loss2/ave_pool <- inception_4d/output_inception_4d/output_0_split_0
I0403 16:36:27.948149 18873 net.cpp:399] loss2/ave_pool -> loss2/ave_pool
I0403 16:36:27.948529 18873 net.cpp:141] Setting up loss2/ave_pool
I0403 16:36:27.948562 18873 net.cpp:148] Top shape: 24 528 4 4 (202752)
I0403 16:36:27.948590 18873 net.cpp:156] Memory required for data: 1207729440
I0403 16:36:27.948609 18873 layer_factory.hpp:77] Creating layer loss2/conv
I0403 16:36:27.948638 18873 net.cpp:91] Creating Layer loss2/conv
I0403 16:36:27.948660 18873 net.cpp:425] loss2/conv <- loss2/ave_pool
I0403 16:36:27.948683 18873 net.cpp:399] loss2/conv -> loss2/conv
I0403 16:36:27.950989 18873 net.cpp:141] Setting up loss2/conv
I0403 16:36:27.951025 18873 net.cpp:148] Top shape: 24 128 4 4 (49152)
I0403 16:36:27.951045 18873 net.cpp:156] Memory required for data: 1207926048
I0403 16:36:27.951068 18873 layer_factory.hpp:77] Creating layer loss2/relu_conv
I0403 16:36:27.951089 18873 net.cpp:91] Creating Layer loss2/relu_conv
I0403 16:36:27.951109 18873 net.cpp:425] loss2/relu_conv <- loss2/conv
I0403 16:36:27.951133 18873 net.cpp:386] loss2/relu_conv -> loss2/conv (in-place)
I0403 16:36:27.951481 18873 net.cpp:141] Setting up loss2/relu_conv
I0403 16:36:27.951514 18873 net.cpp:148] Top shape: 24 128 4 4 (49152)
I0403 16:36:27.951534 18873 net.cpp:156] Memory required for data: 1208122656
I0403 16:36:27.951552 18873 layer_factory.hpp:77] Creating layer loss2/fc
I0403 16:36:27.951581 18873 net.cpp:91] Creating Layer loss2/fc
I0403 16:36:27.951603 18873 net.cpp:425] loss2/fc <- loss2/conv
I0403 16:36:27.951629 18873 net.cpp:399] loss2/fc -> loss2/fc
I0403 16:36:27.973551 18873 net.cpp:141] Setting up loss2/fc
I0403 16:36:27.973601 18873 net.cpp:148] Top shape: 24 1024 (24576)
I0403 16:36:27.973623 18873 net.cpp:156] Memory required for data: 1208220960
I0403 16:36:27.973647 18873 layer_factory.hpp:77] Creating layer loss2/relu_fc
I0403 16:36:27.973670 18873 net.cpp:91] Creating Layer loss2/relu_fc
I0403 16:36:27.973691 18873 net.cpp:425] loss2/relu_fc <- loss2/fc
I0403 16:36:27.973713 18873 net.cpp:386] loss2/relu_fc -> loss2/fc (in-place)
I0403 16:36:27.974073 18873 net.cpp:141] Setting up loss2/relu_fc
I0403 16:36:27.974109 18873 net.cpp:148] Top shape: 24 1024 (24576)
I0403 16:36:27.974128 18873 net.cpp:156] Memory required for data: 1208319264
I0403 16:36:27.974148 18873 layer_factory.hpp:77] Creating layer loss2/drop_fc
I0403 16:36:27.974170 18873 net.cpp:91] Creating Layer loss2/drop_fc
I0403 16:36:27.974189 18873 net.cpp:425] loss2/drop_fc <- loss2/fc
I0403 16:36:27.974211 18873 net.cpp:386] loss2/drop_fc -> loss2/fc (in-place)
I0403 16:36:27.974272 18873 net.cpp:141] Setting up loss2/drop_fc
I0403 16:36:27.974301 18873 net.cpp:148] Top shape: 24 1024 (24576)
I0403 16:36:27.974318 18873 net.cpp:156] Memory required for data: 1208417568
I0403 16:36:27.974336 18873 layer_factory.hpp:77] Creating layer loss2/classifier_plantvillage
I0403 16:36:27.974361 18873 net.cpp:91] Creating Layer loss2/classifier_plantvillage
I0403 16:36:27.974383 18873 net.cpp:425] loss2/classifier_plantvillage <- loss2/fc
I0403 16:36:27.974406 18873 net.cpp:399] loss2/classifier_plantvillage -> loss2/classifier_plantvillage
I0403 16:36:27.974921 18873 net.cpp:141] Setting up loss2/classifier_plantvillage
I0403 16:36:27.974953 18873 net.cpp:148] Top shape: 24 38 (912)
I0403 16:36:27.974972 18873 net.cpp:156] Memory required for data: 1208421216
I0403 16:36:27.975015 18873 layer_factory.hpp:77] Creating layer loss2/classifier_plantvillage_loss2/classifier_plantvillage_0_split
I0403 16:36:27.975039 18873 net.cpp:91] Creating Layer loss2/classifier_plantvillage_loss2/classifier_plantvillage_0_split
I0403 16:36:27.975069 18873 net.cpp:425] loss2/classifier_plantvillage_loss2/classifier_plantvillage_0_split <- loss2/classifier_plantvillage
I0403 16:36:27.975095 18873 net.cpp:399] loss2/classifier_plantvillage_loss2/classifier_plantvillage_0_split -> loss2/classifier_plantvillage_loss2/classifier_plantvillage_0_split_0
I0403 16:36:27.975121 18873 net.cpp:399] loss2/classifier_plantvillage_loss2/classifier_plantvillage_0_split -> loss2/classifier_plantvillage_loss2/classifier_plantvillage_0_split_1
I0403 16:36:27.975148 18873 net.cpp:399] loss2/classifier_plantvillage_loss2/classifier_plantvillage_0_split -> loss2/classifier_plantvillage_loss2/classifier_plantvillage_0_split_2
I0403 16:36:27.975244 18873 net.cpp:141] Setting up loss2/classifier_plantvillage_loss2/classifier_plantvillage_0_split
I0403 16:36:27.975275 18873 net.cpp:148] Top shape: 24 38 (912)
I0403 16:36:27.975296 18873 net.cpp:148] Top shape: 24 38 (912)
I0403 16:36:27.975314 18873 net.cpp:148] Top shape: 24 38 (912)
I0403 16:36:27.975332 18873 net.cpp:156] Memory required for data: 1208432160
I0403 16:36:27.975349 18873 layer_factory.hpp:77] Creating layer inception_4e/1x1
I0403 16:36:27.975378 18873 net.cpp:91] Creating Layer inception_4e/1x1
I0403 16:36:27.975399 18873 net.cpp:425] inception_4e/1x1 <- inception_4d/output_inception_4d/output_0_split_1
I0403 16:36:27.975422 18873 net.cpp:399] inception_4e/1x1 -> inception_4e/1x1
I0403 16:36:27.977674 18873 net.cpp:141] Setting up inception_4e/1x1
I0403 16:36:27.977710 18873 net.cpp:148] Top shape: 24 256 14 14 (1204224)
I0403 16:36:27.977728 18873 net.cpp:156] Memory required for data: 1213249056
I0403 16:36:27.977751 18873 layer_factory.hpp:77] Creating layer inception_4e/relu_1x1
I0403 16:36:27.977773 18873 net.cpp:91] Creating Layer inception_4e/relu_1x1
I0403 16:36:27.977797 18873 net.cpp:425] inception_4e/relu_1x1 <- inception_4e/1x1
I0403 16:36:27.977818 18873 net.cpp:386] inception_4e/relu_1x1 -> inception_4e/1x1 (in-place)
I0403 16:36:27.978178 18873 net.cpp:141] Setting up inception_4e/relu_1x1
I0403 16:36:27.978211 18873 net.cpp:148] Top shape: 24 256 14 14 (1204224)
I0403 16:36:27.978230 18873 net.cpp:156] Memory required for data: 1218065952
I0403 16:36:27.978248 18873 layer_factory.hpp:77] Creating layer inception_4e/3x3_reduce
I0403 16:36:27.978276 18873 net.cpp:91] Creating Layer inception_4e/3x3_reduce
I0403 16:36:27.978298 18873 net.cpp:425] inception_4e/3x3_reduce <- inception_4d/output_inception_4d/output_0_split_2
I0403 16:36:27.978324 18873 net.cpp:399] inception_4e/3x3_reduce -> inception_4e/3x3_reduce
I0403 16:36:27.980895 18873 net.cpp:141] Setting up inception_4e/3x3_reduce
I0403 16:36:27.980932 18873 net.cpp:148] Top shape: 24 160 14 14 (752640)
I0403 16:36:27.980952 18873 net.cpp:156] Memory required for data: 1221076512
I0403 16:36:27.980975 18873 layer_factory.hpp:77] Creating layer inception_4e/relu_3x3_reduce
I0403 16:36:27.980998 18873 net.cpp:91] Creating Layer inception_4e/relu_3x3_reduce
I0403 16:36:27.981017 18873 net.cpp:425] inception_4e/relu_3x3_reduce <- inception_4e/3x3_reduce
I0403 16:36:27.981041 18873 net.cpp:386] inception_4e/relu_3x3_reduce -> inception_4e/3x3_reduce (in-place)
I0403 16:36:27.981274 18873 net.cpp:141] Setting up inception_4e/relu_3x3_reduce
I0403 16:36:27.981307 18873 net.cpp:148] Top shape: 24 160 14 14 (752640)
I0403 16:36:27.981324 18873 net.cpp:156] Memory required for data: 1224087072
I0403 16:36:27.981343 18873 layer_factory.hpp:77] Creating layer inception_4e/3x3
I0403 16:36:27.981369 18873 net.cpp:91] Creating Layer inception_4e/3x3
I0403 16:36:27.981390 18873 net.cpp:425] inception_4e/3x3 <- inception_4e/3x3_reduce
I0403 16:36:27.981416 18873 net.cpp:399] inception_4e/3x3 -> inception_4e/3x3
I0403 16:36:27.987610 18873 net.cpp:141] Setting up inception_4e/3x3
I0403 16:36:27.987663 18873 net.cpp:148] Top shape: 24 320 14 14 (1505280)
I0403 16:36:27.987682 18873 net.cpp:156] Memory required for data: 1230108192
I0403 16:36:27.987705 18873 layer_factory.hpp:77] Creating layer inception_4e/relu_3x3
I0403 16:36:27.987730 18873 net.cpp:91] Creating Layer inception_4e/relu_3x3
I0403 16:36:27.987753 18873 net.cpp:425] inception_4e/relu_3x3 <- inception_4e/3x3
I0403 16:36:27.987774 18873 net.cpp:386] inception_4e/relu_3x3 -> inception_4e/3x3 (in-place)
I0403 16:36:27.988140 18873 net.cpp:141] Setting up inception_4e/relu_3x3
I0403 16:36:27.988173 18873 net.cpp:148] Top shape: 24 320 14 14 (1505280)
I0403 16:36:27.988193 18873 net.cpp:156] Memory required for data: 1236129312
I0403 16:36:27.988211 18873 layer_factory.hpp:77] Creating layer inception_4e/5x5_reduce
I0403 16:36:27.988239 18873 net.cpp:91] Creating Layer inception_4e/5x5_reduce
I0403 16:36:27.988260 18873 net.cpp:425] inception_4e/5x5_reduce <- inception_4d/output_inception_4d/output_0_split_3
I0403 16:36:27.988286 18873 net.cpp:399] inception_4e/5x5_reduce -> inception_4e/5x5_reduce
I0403 16:36:27.989630 18873 net.cpp:141] Setting up inception_4e/5x5_reduce
I0403 16:36:27.989667 18873 net.cpp:148] Top shape: 24 32 14 14 (150528)
I0403 16:36:27.989689 18873 net.cpp:156] Memory required for data: 1236731424
I0403 16:36:27.989712 18873 layer_factory.hpp:77] Creating layer inception_4e/relu_5x5_reduce
I0403 16:36:27.989734 18873 net.cpp:91] Creating Layer inception_4e/relu_5x5_reduce
I0403 16:36:27.989754 18873 net.cpp:425] inception_4e/relu_5x5_reduce <- inception_4e/5x5_reduce
I0403 16:36:27.989787 18873 net.cpp:386] inception_4e/relu_5x5_reduce -> inception_4e/5x5_reduce (in-place)
I0403 16:36:27.990145 18873 net.cpp:141] Setting up inception_4e/relu_5x5_reduce
I0403 16:36:27.990180 18873 net.cpp:148] Top shape: 24 32 14 14 (150528)
I0403 16:36:27.990201 18873 net.cpp:156] Memory required for data: 1237333536
I0403 16:36:27.990219 18873 layer_factory.hpp:77] Creating layer inception_4e/5x5
I0403 16:36:27.990267 18873 net.cpp:91] Creating Layer inception_4e/5x5
I0403 16:36:27.990291 18873 net.cpp:425] inception_4e/5x5 <- inception_4e/5x5_reduce
I0403 16:36:27.990315 18873 net.cpp:399] inception_4e/5x5 -> inception_4e/5x5
I0403 16:36:27.992575 18873 net.cpp:141] Setting up inception_4e/5x5
I0403 16:36:27.992610 18873 net.cpp:148] Top shape: 24 128 14 14 (602112)
I0403 16:36:27.992630 18873 net.cpp:156] Memory required for data: 1239741984
I0403 16:36:27.992653 18873 layer_factory.hpp:77] Creating layer inception_4e/relu_5x5
I0403 16:36:27.992679 18873 net.cpp:91] Creating Layer inception_4e/relu_5x5
I0403 16:36:27.992700 18873 net.cpp:425] inception_4e/relu_5x5 <- inception_4e/5x5
I0403 16:36:27.992722 18873 net.cpp:386] inception_4e/relu_5x5 -> inception_4e/5x5 (in-place)
I0403 16:36:27.992971 18873 net.cpp:141] Setting up inception_4e/relu_5x5
I0403 16:36:27.993005 18873 net.cpp:148] Top shape: 24 128 14 14 (602112)
I0403 16:36:27.993022 18873 net.cpp:156] Memory required for data: 1242150432
I0403 16:36:27.993041 18873 layer_factory.hpp:77] Creating layer inception_4e/pool
I0403 16:36:27.993073 18873 net.cpp:91] Creating Layer inception_4e/pool
I0403 16:36:27.993093 18873 net.cpp:425] inception_4e/pool <- inception_4d/output_inception_4d/output_0_split_4
I0403 16:36:27.993119 18873 net.cpp:399] inception_4e/pool -> inception_4e/pool
I0403 16:36:27.993204 18873 net.cpp:141] Setting up inception_4e/pool
I0403 16:36:27.993234 18873 net.cpp:148] Top shape: 24 528 14 14 (2483712)
I0403 16:36:27.993252 18873 net.cpp:156] Memory required for data: 1252085280
I0403 16:36:27.993270 18873 layer_factory.hpp:77] Creating layer inception_4e/pool_proj
I0403 16:36:27.993304 18873 net.cpp:91] Creating Layer inception_4e/pool_proj
I0403 16:36:27.993325 18873 net.cpp:425] inception_4e/pool_proj <- inception_4e/pool
I0403 16:36:27.993347 18873 net.cpp:399] inception_4e/pool_proj -> inception_4e/pool_proj
I0403 16:36:27.995204 18873 net.cpp:141] Setting up inception_4e/pool_proj
I0403 16:36:27.995239 18873 net.cpp:148] Top shape: 24 128 14 14 (602112)
I0403 16:36:27.995276 18873 net.cpp:156] Memory required for data: 1254493728
I0403 16:36:27.995301 18873 layer_factory.hpp:77] Creating layer inception_4e/relu_pool_proj
I0403 16:36:27.995326 18873 net.cpp:91] Creating Layer inception_4e/relu_pool_proj
I0403 16:36:27.995348 18873 net.cpp:425] inception_4e/relu_pool_proj <- inception_4e/pool_proj
I0403 16:36:27.995371 18873 net.cpp:386] inception_4e/relu_pool_proj -> inception_4e/pool_proj (in-place)
I0403 16:36:27.995740 18873 net.cpp:141] Setting up inception_4e/relu_pool_proj
I0403 16:36:27.995774 18873 net.cpp:148] Top shape: 24 128 14 14 (602112)
I0403 16:36:27.995792 18873 net.cpp:156] Memory required for data: 1256902176
I0403 16:36:27.995811 18873 layer_factory.hpp:77] Creating layer inception_4e/output
I0403 16:36:27.995836 18873 net.cpp:91] Creating Layer inception_4e/output
I0403 16:36:27.995856 18873 net.cpp:425] inception_4e/output <- inception_4e/1x1
I0403 16:36:27.995875 18873 net.cpp:425] inception_4e/output <- inception_4e/3x3
I0403 16:36:27.995895 18873 net.cpp:425] inception_4e/output <- inception_4e/5x5
I0403 16:36:27.995919 18873 net.cpp:425] inception_4e/output <- inception_4e/pool_proj
I0403 16:36:27.995940 18873 net.cpp:399] inception_4e/output -> inception_4e/output
I0403 16:36:27.996003 18873 net.cpp:141] Setting up inception_4e/output
I0403 16:36:27.996032 18873 net.cpp:148] Top shape: 24 832 14 14 (3913728)
I0403 16:36:27.996049 18873 net.cpp:156] Memory required for data: 1272557088
I0403 16:36:27.996067 18873 layer_factory.hpp:77] Creating layer pool4/3x3_s2
I0403 16:36:27.996088 18873 net.cpp:91] Creating Layer pool4/3x3_s2
I0403 16:36:27.996107 18873 net.cpp:425] pool4/3x3_s2 <- inception_4e/output
I0403 16:36:27.996132 18873 net.cpp:399] pool4/3x3_s2 -> pool4/3x3_s2
I0403 16:36:27.996214 18873 net.cpp:141] Setting up pool4/3x3_s2
I0403 16:36:27.996244 18873 net.cpp:148] Top shape: 24 832 7 7 (978432)
I0403 16:36:27.996263 18873 net.cpp:156] Memory required for data: 1276470816
I0403 16:36:27.996280 18873 layer_factory.hpp:77] Creating layer pool4/3x3_s2_pool4/3x3_s2_0_split
I0403 16:36:27.996305 18873 net.cpp:91] Creating Layer pool4/3x3_s2_pool4/3x3_s2_0_split
I0403 16:36:27.996326 18873 net.cpp:425] pool4/3x3_s2_pool4/3x3_s2_0_split <- pool4/3x3_s2
I0403 16:36:27.996361 18873 net.cpp:399] pool4/3x3_s2_pool4/3x3_s2_0_split -> pool4/3x3_s2_pool4/3x3_s2_0_split_0
I0403 16:36:27.996387 18873 net.cpp:399] pool4/3x3_s2_pool4/3x3_s2_0_split -> pool4/3x3_s2_pool4/3x3_s2_0_split_1
I0403 16:36:27.996412 18873 net.cpp:399] pool4/3x3_s2_pool4/3x3_s2_0_split -> pool4/3x3_s2_pool4/3x3_s2_0_split_2
I0403 16:36:27.996436 18873 net.cpp:399] pool4/3x3_s2_pool4/3x3_s2_0_split -> pool4/3x3_s2_pool4/3x3_s2_0_split_3
I0403 16:36:27.996546 18873 net.cpp:141] Setting up pool4/3x3_s2_pool4/3x3_s2_0_split
I0403 16:36:27.996584 18873 net.cpp:148] Top shape: 24 832 7 7 (978432)
I0403 16:36:27.996608 18873 net.cpp:148] Top shape: 24 832 7 7 (978432)
I0403 16:36:27.996626 18873 net.cpp:148] Top shape: 24 832 7 7 (978432)
I0403 16:36:27.996644 18873 net.cpp:148] Top shape: 24 832 7 7 (978432)
I0403 16:36:27.996661 18873 net.cpp:156] Memory required for data: 1292125728
I0403 16:36:27.996680 18873 layer_factory.hpp:77] Creating layer inception_5a/1x1
I0403 16:36:27.996707 18873 net.cpp:91] Creating Layer inception_5a/1x1
I0403 16:36:27.996729 18873 net.cpp:425] inception_5a/1x1 <- pool4/3x3_s2_pool4/3x3_s2_0_split_0
I0403 16:36:27.996752 18873 net.cpp:399] inception_5a/1x1 -> inception_5a/1x1
I0403 16:36:28.000255 18873 net.cpp:141] Setting up inception_5a/1x1
I0403 16:36:28.000295 18873 net.cpp:148] Top shape: 24 256 7 7 (301056)
I0403 16:36:28.000318 18873 net.cpp:156] Memory required for data: 1293329952
I0403 16:36:28.000339 18873 layer_factory.hpp:77] Creating layer inception_5a/relu_1x1
I0403 16:36:28.000363 18873 net.cpp:91] Creating Layer inception_5a/relu_1x1
I0403 16:36:28.000385 18873 net.cpp:425] inception_5a/relu_1x1 <- inception_5a/1x1
I0403 16:36:28.000411 18873 net.cpp:386] inception_5a/relu_1x1 -> inception_5a/1x1 (in-place)
I0403 16:36:28.000799 18873 net.cpp:141] Setting up inception_5a/relu_1x1
I0403 16:36:28.000836 18873 net.cpp:148] Top shape: 24 256 7 7 (301056)
I0403 16:36:28.000856 18873 net.cpp:156] Memory required for data: 1294534176
I0403 16:36:28.000875 18873 layer_factory.hpp:77] Creating layer inception_5a/3x3_reduce
I0403 16:36:28.000903 18873 net.cpp:91] Creating Layer inception_5a/3x3_reduce
I0403 16:36:28.000924 18873 net.cpp:425] inception_5a/3x3_reduce <- pool4/3x3_s2_pool4/3x3_s2_0_split_1
I0403 16:36:28.000948 18873 net.cpp:399] inception_5a/3x3_reduce -> inception_5a/3x3_reduce
I0403 16:36:28.003954 18873 net.cpp:141] Setting up inception_5a/3x3_reduce
I0403 16:36:28.003991 18873 net.cpp:148] Top shape: 24 160 7 7 (188160)
I0403 16:36:28.004010 18873 net.cpp:156] Memory required for data: 1295286816
I0403 16:36:28.004032 18873 layer_factory.hpp:77] Creating layer inception_5a/relu_3x3_reduce
I0403 16:36:28.004058 18873 net.cpp:91] Creating Layer inception_5a/relu_3x3_reduce
I0403 16:36:28.004079 18873 net.cpp:425] inception_5a/relu_3x3_reduce <- inception_5a/3x3_reduce
I0403 16:36:28.004101 18873 net.cpp:386] inception_5a/relu_3x3_reduce -> inception_5a/3x3_reduce (in-place)
I0403 16:36:28.004333 18873 net.cpp:141] Setting up inception_5a/relu_3x3_reduce
I0403 16:36:28.004369 18873 net.cpp:148] Top shape: 24 160 7 7 (188160)
I0403 16:36:28.004389 18873 net.cpp:156] Memory required for data: 1296039456
I0403 16:36:28.004407 18873 layer_factory.hpp:77] Creating layer inception_5a/3x3
I0403 16:36:28.004436 18873 net.cpp:91] Creating Layer inception_5a/3x3
I0403 16:36:28.004457 18873 net.cpp:425] inception_5a/3x3 <- inception_5a/3x3_reduce
I0403 16:36:28.004480 18873 net.cpp:399] inception_5a/3x3 -> inception_5a/3x3
I0403 16:36:28.010731 18873 net.cpp:141] Setting up inception_5a/3x3
I0403 16:36:28.010771 18873 net.cpp:148] Top shape: 24 320 7 7 (376320)
I0403 16:36:28.010793 18873 net.cpp:156] Memory required for data: 1297544736
I0403 16:36:28.010817 18873 layer_factory.hpp:77] Creating layer inception_5a/relu_3x3
I0403 16:36:28.010839 18873 net.cpp:91] Creating Layer inception_5a/relu_3x3
I0403 16:36:28.010859 18873 net.cpp:425] inception_5a/relu_3x3 <- inception_5a/3x3
I0403 16:36:28.010882 18873 net.cpp:386] inception_5a/relu_3x3 -> inception_5a/3x3 (in-place)
I0403 16:36:28.011245 18873 net.cpp:141] Setting up inception_5a/relu_3x3
I0403 16:36:28.011281 18873 net.cpp:148] Top shape: 24 320 7 7 (376320)
I0403 16:36:28.011301 18873 net.cpp:156] Memory required for data: 1299050016
I0403 16:36:28.011318 18873 layer_factory.hpp:77] Creating layer inception_5a/5x5_reduce
I0403 16:36:28.011348 18873 net.cpp:91] Creating Layer inception_5a/5x5_reduce
I0403 16:36:28.011370 18873 net.cpp:425] inception_5a/5x5_reduce <- pool4/3x3_s2_pool4/3x3_s2_0_split_2
I0403 16:36:28.011394 18873 net.cpp:399] inception_5a/5x5_reduce -> inception_5a/5x5_reduce
I0403 16:36:28.012836 18873 net.cpp:141] Setting up inception_5a/5x5_reduce
I0403 16:36:28.012874 18873 net.cpp:148] Top shape: 24 32 7 7 (37632)
I0403 16:36:28.012897 18873 net.cpp:156] Memory required for data: 1299200544
I0403 16:36:28.012919 18873 layer_factory.hpp:77] Creating layer inception_5a/relu_5x5_reduce
I0403 16:36:28.012943 18873 net.cpp:91] Creating Layer inception_5a/relu_5x5_reduce
I0403 16:36:28.012962 18873 net.cpp:425] inception_5a/relu_5x5_reduce <- inception_5a/5x5_reduce
I0403 16:36:28.012986 18873 net.cpp:386] inception_5a/relu_5x5_reduce -> inception_5a/5x5_reduce (in-place)
I0403 16:36:28.013358 18873 net.cpp:141] Setting up inception_5a/relu_5x5_reduce
I0403 16:36:28.013391 18873 net.cpp:148] Top shape: 24 32 7 7 (37632)
I0403 16:36:28.013411 18873 net.cpp:156] Memory required for data: 1299351072
I0403 16:36:28.013429 18873 layer_factory.hpp:77] Creating layer inception_5a/5x5
I0403 16:36:28.013458 18873 net.cpp:91] Creating Layer inception_5a/5x5
I0403 16:36:28.013480 18873 net.cpp:425] inception_5a/5x5 <- inception_5a/5x5_reduce
I0403 16:36:28.013507 18873 net.cpp:399] inception_5a/5x5 -> inception_5a/5x5
I0403 16:36:28.015663 18873 net.cpp:141] Setting up inception_5a/5x5
I0403 16:36:28.015715 18873 net.cpp:148] Top shape: 24 128 7 7 (150528)
I0403 16:36:28.015738 18873 net.cpp:156] Memory required for data: 1299953184
I0403 16:36:28.015759 18873 layer_factory.hpp:77] Creating layer inception_5a/relu_5x5
I0403 16:36:28.015784 18873 net.cpp:91] Creating Layer inception_5a/relu_5x5
I0403 16:36:28.015805 18873 net.cpp:425] inception_5a/relu_5x5 <- inception_5a/5x5
I0403 16:36:28.015830 18873 net.cpp:386] inception_5a/relu_5x5 -> inception_5a/5x5 (in-place)
I0403 16:36:28.016067 18873 net.cpp:141] Setting up inception_5a/relu_5x5
I0403 16:36:28.016099 18873 net.cpp:148] Top shape: 24 128 7 7 (150528)
I0403 16:36:28.016116 18873 net.cpp:156] Memory required for data: 1300555296
I0403 16:36:28.016134 18873 layer_factory.hpp:77] Creating layer inception_5a/pool
I0403 16:36:28.016157 18873 net.cpp:91] Creating Layer inception_5a/pool
I0403 16:36:28.016176 18873 net.cpp:425] inception_5a/pool <- pool4/3x3_s2_pool4/3x3_s2_0_split_3
I0403 16:36:28.016204 18873 net.cpp:399] inception_5a/pool -> inception_5a/pool
I0403 16:36:28.016294 18873 net.cpp:141] Setting up inception_5a/pool
I0403 16:36:28.016324 18873 net.cpp:148] Top shape: 24 832 7 7 (978432)
I0403 16:36:28.016341 18873 net.cpp:156] Memory required for data: 1304469024
I0403 16:36:28.016360 18873 layer_factory.hpp:77] Creating layer inception_5a/pool_proj
I0403 16:36:28.016387 18873 net.cpp:91] Creating Layer inception_5a/pool_proj
I0403 16:36:28.016410 18873 net.cpp:425] inception_5a/pool_proj <- inception_5a/pool
I0403 16:36:28.016433 18873 net.cpp:399] inception_5a/pool_proj -> inception_5a/pool_proj
I0403 16:36:28.019227 18873 net.cpp:141] Setting up inception_5a/pool_proj
I0403 16:36:28.019264 18873 net.cpp:148] Top shape: 24 128 7 7 (150528)
I0403 16:36:28.019289 18873 net.cpp:156] Memory required for data: 1305071136
I0403 16:36:28.019312 18873 layer_factory.hpp:77] Creating layer inception_5a/relu_pool_proj
I0403 16:36:28.019335 18873 net.cpp:91] Creating Layer inception_5a/relu_pool_proj
I0403 16:36:28.019354 18873 net.cpp:425] inception_5a/relu_pool_proj <- inception_5a/pool_proj
I0403 16:36:28.019376 18873 net.cpp:386] inception_5a/relu_pool_proj -> inception_5a/pool_proj (in-place)
I0403 16:36:28.019739 18873 net.cpp:141] Setting up inception_5a/relu_pool_proj
I0403 16:36:28.019773 18873 net.cpp:148] Top shape: 24 128 7 7 (150528)
I0403 16:36:28.019796 18873 net.cpp:156] Memory required for data: 1305673248
I0403 16:36:28.019815 18873 layer_factory.hpp:77] Creating layer inception_5a/output
I0403 16:36:28.019836 18873 net.cpp:91] Creating Layer inception_5a/output
I0403 16:36:28.019856 18873 net.cpp:425] inception_5a/output <- inception_5a/1x1
I0403 16:36:28.019876 18873 net.cpp:425] inception_5a/output <- inception_5a/3x3
I0403 16:36:28.019897 18873 net.cpp:425] inception_5a/output <- inception_5a/5x5
I0403 16:36:28.019917 18873 net.cpp:425] inception_5a/output <- inception_5a/pool_proj
I0403 16:36:28.019938 18873 net.cpp:399] inception_5a/output -> inception_5a/output
I0403 16:36:28.020002 18873 net.cpp:141] Setting up inception_5a/output
I0403 16:36:28.020032 18873 net.cpp:148] Top shape: 24 832 7 7 (978432)
I0403 16:36:28.020051 18873 net.cpp:156] Memory required for data: 1309586976
I0403 16:36:28.020069 18873 layer_factory.hpp:77] Creating layer inception_5a/output_inception_5a/output_0_split
I0403 16:36:28.020089 18873 net.cpp:91] Creating Layer inception_5a/output_inception_5a/output_0_split
I0403 16:36:28.020108 18873 net.cpp:425] inception_5a/output_inception_5a/output_0_split <- inception_5a/output
I0403 16:36:28.020133 18873 net.cpp:399] inception_5a/output_inception_5a/output_0_split -> inception_5a/output_inception_5a/output_0_split_0
I0403 16:36:28.020159 18873 net.cpp:399] inception_5a/output_inception_5a/output_0_split -> inception_5a/output_inception_5a/output_0_split_1
I0403 16:36:28.020184 18873 net.cpp:399] inception_5a/output_inception_5a/output_0_split -> inception_5a/output_inception_5a/output_0_split_2
I0403 16:36:28.020210 18873 net.cpp:399] inception_5a/output_inception_5a/output_0_split -> inception_5a/output_inception_5a/output_0_split_3
I0403 16:36:28.020347 18873 net.cpp:141] Setting up inception_5a/output_inception_5a/output_0_split
I0403 16:36:28.020378 18873 net.cpp:148] Top shape: 24 832 7 7 (978432)
I0403 16:36:28.020398 18873 net.cpp:148] Top shape: 24 832 7 7 (978432)
I0403 16:36:28.020417 18873 net.cpp:148] Top shape: 24 832 7 7 (978432)
I0403 16:36:28.020437 18873 net.cpp:148] Top shape: 24 832 7 7 (978432)
I0403 16:36:28.020453 18873 net.cpp:156] Memory required for data: 1325241888
I0403 16:36:28.020472 18873 layer_factory.hpp:77] Creating layer inception_5b/1x1
I0403 16:36:28.020498 18873 net.cpp:91] Creating Layer inception_5b/1x1
I0403 16:36:28.020520 18873 net.cpp:425] inception_5b/1x1 <- inception_5a/output_inception_5a/output_0_split_0
I0403 16:36:28.020550 18873 net.cpp:399] inception_5b/1x1 -> inception_5b/1x1
I0403 16:36:28.025169 18873 net.cpp:141] Setting up inception_5b/1x1
I0403 16:36:28.025207 18873 net.cpp:148] Top shape: 24 384 7 7 (451584)
I0403 16:36:28.025225 18873 net.cpp:156] Memory required for data: 1327048224
I0403 16:36:28.025249 18873 layer_factory.hpp:77] Creating layer inception_5b/relu_1x1
I0403 16:36:28.025275 18873 net.cpp:91] Creating Layer inception_5b/relu_1x1
I0403 16:36:28.025297 18873 net.cpp:425] inception_5b/relu_1x1 <- inception_5b/1x1
I0403 16:36:28.025318 18873 net.cpp:386] inception_5b/relu_1x1 -> inception_5b/1x1 (in-place)
I0403 16:36:28.025696 18873 net.cpp:141] Setting up inception_5b/relu_1x1
I0403 16:36:28.025728 18873 net.cpp:148] Top shape: 24 384 7 7 (451584)
I0403 16:36:28.025748 18873 net.cpp:156] Memory required for data: 1328854560
I0403 16:36:28.025775 18873 layer_factory.hpp:77] Creating layer inception_5b/3x3_reduce
I0403 16:36:28.025804 18873 net.cpp:91] Creating Layer inception_5b/3x3_reduce
I0403 16:36:28.025826 18873 net.cpp:425] inception_5b/3x3_reduce <- inception_5a/output_inception_5a/output_0_split_1
I0403 16:36:28.025856 18873 net.cpp:399] inception_5b/3x3_reduce -> inception_5b/3x3_reduce
I0403 16:36:28.029117 18873 net.cpp:141] Setting up inception_5b/3x3_reduce
I0403 16:36:28.029155 18873 net.cpp:148] Top shape: 24 192 7 7 (225792)
I0403 16:36:28.029173 18873 net.cpp:156] Memory required for data: 1329757728
I0403 16:36:28.029197 18873 layer_factory.hpp:77] Creating layer inception_5b/relu_3x3_reduce
I0403 16:36:28.029224 18873 net.cpp:91] Creating Layer inception_5b/relu_3x3_reduce
I0403 16:36:28.029245 18873 net.cpp:425] inception_5b/relu_3x3_reduce <- inception_5b/3x3_reduce
I0403 16:36:28.029268 18873 net.cpp:386] inception_5b/relu_3x3_reduce -> inception_5b/3x3_reduce (in-place)
I0403 16:36:28.029505 18873 net.cpp:141] Setting up inception_5b/relu_3x3_reduce
I0403 16:36:28.029539 18873 net.cpp:148] Top shape: 24 192 7 7 (225792)
I0403 16:36:28.029559 18873 net.cpp:156] Memory required for data: 1330660896
I0403 16:36:28.029585 18873 layer_factory.hpp:77] Creating layer inception_5b/3x3
I0403 16:36:28.029614 18873 net.cpp:91] Creating Layer inception_5b/3x3
I0403 16:36:28.029636 18873 net.cpp:425] inception_5b/3x3 <- inception_5b/3x3_reduce
I0403 16:36:28.029661 18873 net.cpp:399] inception_5b/3x3 -> inception_5b/3x3
I0403 16:36:28.038004 18873 net.cpp:141] Setting up inception_5b/3x3
I0403 16:36:28.038041 18873 net.cpp:148] Top shape: 24 384 7 7 (451584)
I0403 16:36:28.038074 18873 net.cpp:156] Memory required for data: 1332467232
I0403 16:36:28.038097 18873 layer_factory.hpp:77] Creating layer inception_5b/relu_3x3
I0403 16:36:28.038121 18873 net.cpp:91] Creating Layer inception_5b/relu_3x3
I0403 16:36:28.038141 18873 net.cpp:425] inception_5b/relu_3x3 <- inception_5b/3x3
I0403 16:36:28.038163 18873 net.cpp:386] inception_5b/relu_3x3 -> inception_5b/3x3 (in-place)
I0403 16:36:28.038523 18873 net.cpp:141] Setting up inception_5b/relu_3x3
I0403 16:36:28.038560 18873 net.cpp:148] Top shape: 24 384 7 7 (451584)
I0403 16:36:28.038589 18873 net.cpp:156] Memory required for data: 1334273568
I0403 16:36:28.038609 18873 layer_factory.hpp:77] Creating layer inception_5b/5x5_reduce
I0403 16:36:28.038652 18873 net.cpp:91] Creating Layer inception_5b/5x5_reduce
I0403 16:36:28.038676 18873 net.cpp:425] inception_5b/5x5_reduce <- inception_5a/output_inception_5a/output_0_split_2
I0403 16:36:28.038703 18873 net.cpp:399] inception_5b/5x5_reduce -> inception_5b/5x5_reduce
I0403 16:36:28.040280 18873 net.cpp:141] Setting up inception_5b/5x5_reduce
I0403 16:36:28.040315 18873 net.cpp:148] Top shape: 24 48 7 7 (56448)
I0403 16:36:28.040335 18873 net.cpp:156] Memory required for data: 1334499360
I0403 16:36:28.040359 18873 layer_factory.hpp:77] Creating layer inception_5b/relu_5x5_reduce
I0403 16:36:28.040385 18873 net.cpp:91] Creating Layer inception_5b/relu_5x5_reduce
I0403 16:36:28.040406 18873 net.cpp:425] inception_5b/relu_5x5_reduce <- inception_5b/5x5_reduce
I0403 16:36:28.040428 18873 net.cpp:386] inception_5b/relu_5x5_reduce -> inception_5b/5x5_reduce (in-place)
I0403 16:36:28.040889 18873 net.cpp:141] Setting up inception_5b/relu_5x5_reduce
I0403 16:36:28.040922 18873 net.cpp:148] Top shape: 24 48 7 7 (56448)
I0403 16:36:28.040941 18873 net.cpp:156] Memory required for data: 1334725152
I0403 16:36:28.040959 18873 layer_factory.hpp:77] Creating layer inception_5b/5x5
I0403 16:36:28.040984 18873 net.cpp:91] Creating Layer inception_5b/5x5
I0403 16:36:28.041005 18873 net.cpp:425] inception_5b/5x5 <- inception_5b/5x5_reduce
I0403 16:36:28.041028 18873 net.cpp:399] inception_5b/5x5 -> inception_5b/5x5
I0403 16:36:28.043558 18873 net.cpp:141] Setting up inception_5b/5x5
I0403 16:36:28.043602 18873 net.cpp:148] Top shape: 24 128 7 7 (150528)
I0403 16:36:28.043623 18873 net.cpp:156] Memory required for data: 1335327264
I0403 16:36:28.043647 18873 layer_factory.hpp:77] Creating layer inception_5b/relu_5x5
I0403 16:36:28.043669 18873 net.cpp:91] Creating Layer inception_5b/relu_5x5
I0403 16:36:28.043689 18873 net.cpp:425] inception_5b/relu_5x5 <- inception_5b/5x5
I0403 16:36:28.043711 18873 net.cpp:386] inception_5b/relu_5x5 -> inception_5b/5x5 (in-place)
I0403 16:36:28.043954 18873 net.cpp:141] Setting up inception_5b/relu_5x5
I0403 16:36:28.043987 18873 net.cpp:148] Top shape: 24 128 7 7 (150528)
I0403 16:36:28.044004 18873 net.cpp:156] Memory required for data: 1335929376
I0403 16:36:28.044023 18873 layer_factory.hpp:77] Creating layer inception_5b/pool
I0403 16:36:28.044044 18873 net.cpp:91] Creating Layer inception_5b/pool
I0403 16:36:28.044064 18873 net.cpp:425] inception_5b/pool <- inception_5a/output_inception_5a/output_0_split_3
I0403 16:36:28.044092 18873 net.cpp:399] inception_5b/pool -> inception_5b/pool
I0403 16:36:28.044183 18873 net.cpp:141] Setting up inception_5b/pool
I0403 16:36:28.044215 18873 net.cpp:148] Top shape: 24 832 7 7 (978432)
I0403 16:36:28.044234 18873 net.cpp:156] Memory required for data: 1339843104
I0403 16:36:28.044252 18873 layer_factory.hpp:77] Creating layer inception_5b/pool_proj
I0403 16:36:28.044280 18873 net.cpp:91] Creating Layer inception_5b/pool_proj
I0403 16:36:28.044302 18873 net.cpp:425] inception_5b/pool_proj <- inception_5b/pool
I0403 16:36:28.044327 18873 net.cpp:399] inception_5b/pool_proj -> inception_5b/pool_proj
I0403 16:36:28.047159 18873 net.cpp:141] Setting up inception_5b/pool_proj
I0403 16:36:28.047196 18873 net.cpp:148] Top shape: 24 128 7 7 (150528)
I0403 16:36:28.047217 18873 net.cpp:156] Memory required for data: 1340445216
I0403 16:36:28.047240 18873 layer_factory.hpp:77] Creating layer inception_5b/relu_pool_proj
I0403 16:36:28.047265 18873 net.cpp:91] Creating Layer inception_5b/relu_pool_proj
I0403 16:36:28.047286 18873 net.cpp:425] inception_5b/relu_pool_proj <- inception_5b/pool_proj
I0403 16:36:28.047308 18873 net.cpp:386] inception_5b/relu_pool_proj -> inception_5b/pool_proj (in-place)
I0403 16:36:28.047673 18873 net.cpp:141] Setting up inception_5b/relu_pool_proj
I0403 16:36:28.047706 18873 net.cpp:148] Top shape: 24 128 7 7 (150528)
I0403 16:36:28.047726 18873 net.cpp:156] Memory required for data: 1341047328
I0403 16:36:28.047744 18873 layer_factory.hpp:77] Creating layer inception_5b/output
I0403 16:36:28.047770 18873 net.cpp:91] Creating Layer inception_5b/output
I0403 16:36:28.047808 18873 net.cpp:425] inception_5b/output <- inception_5b/1x1
I0403 16:36:28.047830 18873 net.cpp:425] inception_5b/output <- inception_5b/3x3
I0403 16:36:28.047852 18873 net.cpp:425] inception_5b/output <- inception_5b/5x5
I0403 16:36:28.047871 18873 net.cpp:425] inception_5b/output <- inception_5b/pool_proj
I0403 16:36:28.047893 18873 net.cpp:399] inception_5b/output -> inception_5b/output
I0403 16:36:28.047960 18873 net.cpp:141] Setting up inception_5b/output
I0403 16:36:28.047991 18873 net.cpp:148] Top shape: 24 1024 7 7 (1204224)
I0403 16:36:28.048008 18873 net.cpp:156] Memory required for data: 1345864224
I0403 16:36:28.048027 18873 layer_factory.hpp:77] Creating layer pool5/7x7_s1
I0403 16:36:28.048048 18873 net.cpp:91] Creating Layer pool5/7x7_s1
I0403 16:36:28.048068 18873 net.cpp:425] pool5/7x7_s1 <- inception_5b/output
I0403 16:36:28.048091 18873 net.cpp:399] pool5/7x7_s1 -> pool5/7x7_s1
I0403 16:36:28.048360 18873 net.cpp:141] Setting up pool5/7x7_s1
I0403 16:36:28.048395 18873 net.cpp:148] Top shape: 24 1024 1 1 (24576)
I0403 16:36:28.048415 18873 net.cpp:156] Memory required for data: 1345962528
I0403 16:36:28.048434 18873 layer_factory.hpp:77] Creating layer pool5/drop_7x7_s1
I0403 16:36:28.048455 18873 net.cpp:91] Creating Layer pool5/drop_7x7_s1
I0403 16:36:28.048475 18873 net.cpp:425] pool5/drop_7x7_s1 <- pool5/7x7_s1
I0403 16:36:28.048499 18873 net.cpp:386] pool5/drop_7x7_s1 -> pool5/7x7_s1 (in-place)
I0403 16:36:28.048560 18873 net.cpp:141] Setting up pool5/drop_7x7_s1
I0403 16:36:28.048596 18873 net.cpp:148] Top shape: 24 1024 1 1 (24576)
I0403 16:36:28.048615 18873 net.cpp:156] Memory required for data: 1346060832
I0403 16:36:28.048635 18873 layer_factory.hpp:77] Creating layer loss3/classifier_plantvillage
I0403 16:36:28.048660 18873 net.cpp:91] Creating Layer loss3/classifier_plantvillage
I0403 16:36:28.048681 18873 net.cpp:425] loss3/classifier_plantvillage <- pool5/7x7_s1
I0403 16:36:28.048707 18873 net.cpp:399] loss3/classifier_plantvillage -> loss3/classifier_plantvillage
I0403 16:36:28.049232 18873 net.cpp:141] Setting up loss3/classifier_plantvillage
I0403 16:36:28.049263 18873 net.cpp:148] Top shape: 24 38 (912)
I0403 16:36:28.049281 18873 net.cpp:156] Memory required for data: 1346064480
I0403 16:36:28.049302 18873 layer_factory.hpp:77] Creating layer loss3/classifier_plantvillage_loss3/classifier_plantvillage_0_split
I0403 16:36:28.049325 18873 net.cpp:91] Creating Layer loss3/classifier_plantvillage_loss3/classifier_plantvillage_0_split
I0403 16:36:28.049350 18873 net.cpp:425] loss3/classifier_plantvillage_loss3/classifier_plantvillage_0_split <- loss3/classifier_plantvillage
I0403 16:36:28.049372 18873 net.cpp:399] loss3/classifier_plantvillage_loss3/classifier_plantvillage_0_split -> loss3/classifier_plantvillage_loss3/classifier_plantvillage_0_split_0
I0403 16:36:28.049398 18873 net.cpp:399] loss3/classifier_plantvillage_loss3/classifier_plantvillage_0_split -> loss3/classifier_plantvillage_loss3/classifier_plantvillage_0_split_1
I0403 16:36:28.049422 18873 net.cpp:399] loss3/classifier_plantvillage_loss3/classifier_plantvillage_0_split -> loss3/classifier_plantvillage_loss3/classifier_plantvillage_0_split_2
I0403 16:36:28.049446 18873 net.cpp:399] loss3/classifier_plantvillage_loss3/classifier_plantvillage_0_split -> loss3/classifier_plantvillage_loss3/classifier_plantvillage_0_split_3
I0403 16:36:28.049577 18873 net.cpp:141] Setting up loss3/classifier_plantvillage_loss3/classifier_plantvillage_0_split
I0403 16:36:28.049608 18873 net.cpp:148] Top shape: 24 38 (912)
I0403 16:36:28.049628 18873 net.cpp:148] Top shape: 24 38 (912)
I0403 16:36:28.049649 18873 net.cpp:148] Top shape: 24 38 (912)
I0403 16:36:28.049666 18873 net.cpp:148] Top shape: 24 38 (912)
I0403 16:36:28.049684 18873 net.cpp:156] Memory required for data: 1346079072
I0403 16:36:28.049700 18873 layer_factory.hpp:77] Creating layer loss1/loss
I0403 16:36:28.049726 18873 net.cpp:91] Creating Layer loss1/loss
I0403 16:36:28.049747 18873 net.cpp:425] loss1/loss <- loss1/classifier_plantvillage_loss1/classifier_plantvillage_0_split_0
I0403 16:36:28.049793 18873 net.cpp:425] loss1/loss <- label_data_1_split_0
…
