…
I0403 17:00:56.444093 20376 net.cpp:313] The NetState phase (1) differed from the phase (0) specified by a rule in layer data
I0403 17:00:56.445274 20376 net.cpp:49] Initializing net from parameters: 
state {
  phase: TEST
}
layer {
  name: "data"
  type: "Data"
  top: "data"
  top: "label"
  include {
    phase: TEST
  }
  transform_param {
    mirror: false
    crop_size: 224
    mean_file: "/home/mohanty/data/final_dataset/lmdb/color-20-80/mean.binaryproto"
  }
  data_param {
    source: "/home/mohanty/data/final_dataset/lmdb/color-20-80/test_db"
    batch_size: 24
    backend: LMDB
  }
}
layer {
  name: "conv1/7x7_s2"
  type: "Convolution"
  bottom: "data"
  top: "conv1/7x7_s2"
  param {
    lr_mult: 1
    decay_mult: 1
  }
  param {
    lr_mult: 2
    decay_mult: 0
  }
  convolution_param {
    num_output: 64
    pad: 3
    kernel_size: 7
    stride: 2
    weight_filler {
      type: "xavier"
      std: 0.1
    }
    bias_filler {
      type: "constant"
      value: 0.2
    }
  }
}
layer {
  name: "conv1/relu_7x7"
  type: "ReLU"
  bottom: "conv1/7x7_s2"
  top: "conv1/7x7_s2"
}
layer {
  name: "pool1/3x3_s2"
  type: "Pooling"
  bottom: "conv1/7x7_s2"
  top: "pool1/3x3_s2"
  pooling_param {
    pool: MAX
    kernel_size: 3
    stride: 2
  }
}
layer {
  name: "pool1/norm1"
  type: "LRN"
  bottom: "pool1/3x3_s2"
  top: "pool1/norm1"
  lrn_param {
    local_size: 5
    alpha: 0.0001
    beta: 0.75
  }
}
layer {
  name: "conv2/3x3_reduce"
  type: "Convolution"
  bottom: "pool1/norm1"
  top: "conv2/3x3_reduce"
  param {
    lr_mult: 1
    decay_mult: 1
  }
  param {
    lr_mult: 2
    decay_mult: 0
  }
  convolution_param {
    num_output: 64
    kernel_size: 1
    weight_filler {
      type: "xavier"
      std: 0.1
    }
    bias_filler {
      type: "constant"
      value: 0.2
    }
  }
}
layer {
  name: "conv2/relu_3x3_reduce"
  type: "ReLU"
  bottom: "conv2/3x3_reduce"
  top: "conv2/3x3_reduce"
}
layer {
  name: "conv2/3x3"
  type: "Convolution"
  bottom: "conv2/3x3_reduce"
  top: "conv2/3x3"
  param {
    lr_mult: 1
    decay_mult: 1
  }
  param {
    lr_mult: 2
    decay_mult: 0
  }
  convolution_param {
    num_output: 192
    pad: 1
    kernel_size: 3
    weight_filler {
      type: "xavier"
      std: 0.03
    }
    bias_filler {
      type: "constant"
      value: 0.2
    }
  }
}
layer {
  name: "conv2/relu_3x3"
  type: "ReLU"
  bottom: "conv2/3x3"
  top: "conv2/3x3"
}
layer {
  name: "conv2/norm2"
  type: "LRN"
  bottom: "conv2/3x3"
  top: "conv2/norm2"
  lrn_param {
    local_size: 5
    alpha: 0.0001
    beta: 0.75
  }
}
layer {
  name: "pool2/3x3_s2"
  type: "Pooling"
  bottom: "conv2/norm2"
  top: "pool2/3x3_s2"
  pooling_param {
    pool: MAX
    kernel_size: 3
    stride: 2
  }
}
layer {
  name: "inception_3a/1x1"
  type: "Convolution"
  bottom: "pool2/3x3_s2"
  top: "inception_3a/1x1"
  param {
    lr_mult: 1
    decay_mult: 1
  }
  param {
    lr_mult: 2
    decay_mult: 0
  }
  convolution_param {
    num_output: 64
    kernel_size: 1
    weight_filler {
      type: "xavier"
      std: 0.03
    }
    bias_filler {
      type: "constant"
      value: 0.2
    }
  }
}
layer {
  name: "inception_3a/relu_1x1"
  type: "ReLU"
  bottom: "inception_3a/1x1"
  top: "inception_3a/1x1"
}
layer {
  name: "inception_3a/3x3_reduce"
  type: "Convolution"
  bottom: "pool2/3x3_s2"
  top: "inception_3a/3x3_reduce"
  param {
    lr_mult: 1
    decay_mult: 1
  }
  param {
    lr_mult: 2
    decay_mult: 0
  }
  convolution_param {
    num_output: 96
    kernel_size: 1
    weight_filler {
      type: "xavier"
      std: 0.09
    }
    bias_filler {
      type: "constant"
      value: 0.2
    }
  }
}
layer {
  name: "inception_3a/relu_3x3_reduce"
  type: "ReLU"
  bottom: "inception_3a/3x3_reduce"
  top: "inception_3a/3x3_reduce"
}
layer {
  name: "inception_3a/3x3"
  type: "Convolution"
  bottom: "inception_3a/3x3_reduce"
  top: "inception_3a/3x3"
  param {
    lr_mult: 1
    decay_mult: 1
  }
  param {
    lr_mult: 2
    decay_mult: 0
  }
  convolution_param {
    num_output: 128
    pad: 1
    kernel_size: 3
    weight_filler {
      type: "xavier"
      std: 0.03
    }
    bias_filler {
      type: "constant"
      value: 0.2
    }
  }
}
layer {
  name: "inception_3a/relu_3x3"
  type: "ReLU"
  bottom: "inception_3a/3x3"
  top: "inception_3a/3x3"
}
layer {
  name: "inception_3a/5x5_reduce"
  type: "Convolution"
  bottom: "pool2/3x3_s2"
  top: "inception_3a/5x5_reduce"
  param {
    lr_mult: 1
    decay_mult: 1
  }
  param {
    lr_mult: 2
    decay_mult: 0
  }
  convolution_param {
    num_output: 16
    kernel_size: 1
    weight_filler {
      type: "xavier"
      std: 0.2
    }
    bias_filler {
      type: "constant"
      value: 0.2
    }
  }
}
layer {
  name: "inception_3a/relu_5x5_reduce"
  type: "ReLU"
  bottom: "inception_3a/5x5_reduce"
  top: "inception_3a/5x5_reduce"
}
layer {
  name: "inception_3a/5x5"
  type: "Convolution"
  bottom: "inception_3a/5x5_reduce"
  top: "inception_3a/5x5"
  param {
    lr_mult: 1
    decay_mult: 1
  }
  param {
    lr_mult: 2
    decay_mult: 0
  }
  convolution_param {
    num_output: 32
    pad: 2
    kernel_size: 5
    weight_filler {
      type: "xavier"
      std: 0.03
    }
    bias_filler {
      type: "constant"
      value: 0.2
    }
  }
}
layer {
  name: "inception_3a/relu_5x5"
  type: "ReLU"
  bottom: "inception_3a/5x5"
  top: "inception_3a/5x5"
}
layer {
  name: "inception_3a/pool"
  type: "Pooling"
  bottom: "pool2/3x3_s2"
  top: "inception_3a/pool"
  pooling_param {
    pool: MAX
    kernel_size: 3
    stride: 1
    pad: 1
  }
}
layer {
  name: "inception_3a/pool_proj"
  type: "Convolution"
  bottom: "inception_3a/pool"
  top: "inception_3a/pool_proj"
  param {
    lr_mult: 1
    decay_mult: 1
  }
  param {
    lr_mult: 2
    decay_mult: 0
  }
  convolution_param {
    num_output: 32
    kernel_size: 1
    weight_filler {
      type: "xavier"
      std: 0.1
    }
    bias_filler {
      type: "constant"
      value: 0.2
    }
  }
}
layer {
  name: "inception_3a/relu_pool_proj"
  type: "ReLU"
  bottom: "inception_3a/pool_proj"
  top: "inception_3a/pool_proj"
}
layer {
  name: "inception_3a/output"
  type: "Concat"
  bottom: "inception_3a/1x1"
  bottom: "inception_3a/3x3"
  bottom: "inception_3a/5x5"
  bottom: "inception_3a/pool_proj"
  top: "inception_3a/output"
}
layer {
  name: "inception_3b/1x1"
  type: "Convolution"
  bottom: "inception_3a/output"
  top: "inception_3b/1x1"
  param {
    lr_mult: 1
    decay_mult: 1
  }
  param {
    lr_mult: 2
    decay_mult: 0
  }
  convolution_param {
    num_output: 128
    kernel_size: 1
    weight_filler {
      type: "xavier"
      std: 0.03
    }
    bias_filler {
      type: "constant"
      value: 0.2
    }
  }
}
layer {
  name: "inception_3b/relu_1x1"
  type: "ReLU"
  bottom: "inception_3b/1x1"
  top: "inception_3b/1x1"
}
layer {
  name: "inception_3b/3x3_reduce"
  type: "Convolution"
  bottom: "inception_3a/output"
  top: "inception_3b/3x3_reduce"
  param {
    lr_mult: 1
    decay_mult: 1
  }
  param {
    lr_mult: 2
    decay_mult: 0
  }
  convolution_param {
    num_output: 128
    kernel_size: 1
    weight_filler {
      type: "xavier"
      std: 0.09
    }
    bias_filler {
      type: "constant"
      value: 0.2
    }
  }
}
layer {
  name: "inception_3b/relu_3x3_reduce"
  type: "ReLU"
  bottom: "inception_3b/3x3_reduce"
  top: "inception_3b/3x3_reduce"
}
layer {
  name: "inception_3b/3x3"
  type: "Convolution"
  bottom: "inception_3b/3x3_reduce"
  top: "inception_3b/3x3"
  param {
    lr_mult: 1
    decay_mult: 1
  }
  param {
    lr_mult: 2
    decay_mult: 0
  }
  convolution_param {
    num_output: 192
    pad: 1
    kernel_size: 3
    weight_filler {
      type: "xavier"
      std: 0.03
    }
    bias_filler {
      type: "constant"
      value: 0.2
    }
  }
}
layer {
  name: "inception_3b/relu_3x3"
  type: "ReLU"
  bottom: "inception_3b/3x3"
  top: "inception_3b/3x3"
}
layer {
  name: "inception_3b/5x5_reduce"
  type: "Convolution"
  bottom: "inception_3a/output"
  top: "inception_3b/5x5_reduce"
  param {
    lr_mult: 1
    decay_mult: 1
  }
  param {
    lr_mult: 2
    decay_mult: 0
  }
  convolution_param {
    num_output: 32
    kernel_size: 1
    weight_filler {
      type: "xavier"
      std: 0.2
    }
    bias_filler {
      type: "constant"
      value: 0.2
    }
  }
}
layer {
  name: "inception_3b/relu_5x5_reduce"
  type: "ReLU"
  bottom: "inception_3b/5x5_reduce"
  top: "inception_3b/5x5_reduce"
}
layer {
  name: "inception_3b/5x5"
  type: "Convolution"
  bottom: "inception_3b/5x5_reduce"
  top: "inception_3b/5x5"
  param {
    lr_mult: 1
    decay_mult: 1
  }
  param {
    lr_mult: 2
    decay_mult: 0
  }
  convolution_param {
    num_output: 96
    pad: 2
    kernel_size: 5
    weight_filler {
      type: "xavier"
      std: 0.03
    }
    bias_filler {
      type: "constant"
      value: 0.2
    }
  }
}
layer {
  name: "inception_3b/relu_5x5"
  type: "ReLU"
  bottom: "inception_3b/5x5"
  top: "inception_3b/5x5"
}
layer {
  name: "inception_3b/pool"
  type: "Pooling"
  bottom: "inception_3a/output"
  top: "inception_3b/pool"
  pooling_param {
    pool: MAX
    kernel_size: 3
    stride: 1
    pad: 1
  }
}
layer {
  name: "inception_3b/pool_proj"
  type: "Convolution"
  bottom: "inception_3b/pool"
  top: "inception_3b/pool_proj"
  param {
    lr_mult: 1
    decay_mult: 1
  }
  param {
    lr_mult: 2
    decay_mult: 0
  }
  convolution_param {
    num_output: 64
    kernel_size: 1
    weight_filler {
      type: "xavier"
      std: 0.1
    }
    bias_filler {
      type: "constant"
      value: 0.2
    }
  }
}
layer {
  name: "inception_3b/relu_pool_proj"
  type: "ReLU"
  bottom: "inception_3b/pool_proj"
  top: "inception_3b/pool_proj"
}
layer {
  name: "inception_3b/output"
  type: "Concat"
  bottom: "inception_3b/1x1"
  bottom: "inception_3b/3x3"
  bottom: "inception_3b/5x5"
  bottom: "inception_3b/pool_proj"
  top: "inception_3b/output"
}
layer {
  name: "pool3/3x3_s2"
  type: "Pooling"
  bottom: "inception_3b/output"
  top: "pool3/3x3_s2"
  pooling_param {
    pool: MAX
    kernel_size: 3
    stride: 2
  }
}
layer {
  name: "inception_4a/1x1"
  type: "Convolution"
  bottom: "pool3/3x3_s2"
  top: "inception_4a/1x1"
  param {
    lr_mult: 1
    decay_mult: 1
  }
  param {
    lr_mult: 2
    decay_mult: 0
  }
  convolution_param {
    num_output: 192
    kernel_size: 1
    weight_filler {
      type: "xavier"
      std: 0.03
    }
    bias_filler {
      type: "constant"
      value: 0.2
    }
  }
}
layer {
  name: "inception_4a/relu_1x1"
  type: "ReLU"
  bottom: "inception_4a/1x1"
  top: "inception_4a/1x1"
}
layer {
  name: "inception_4a/3x3_reduce"
  type: "Convolution"
  bottom: "pool3/3x3_s2"
  top: "inception_4a/3x3_reduce"
  param {
    lr_mult: 1
    decay_mult: 1
  }
  param {
    lr_mult: 2
    decay_mult: 0
  }
  convolution_param {
    num_output: 96
    kernel_size: 1
    weight_filler {
      type: "xavier"
      std: 0.09
    }
    bias_filler {
      type: "constant"
      value: 0.2
    }
  }
}
layer {
  name: "inception_4a/relu_3x3_reduce"
  type: "ReLU"
  bottom: "inception_4a/3x3_reduce"
  top: "inception_4a/3x3_reduce"
}
layer {
  name: "inception_4a/3x3"
  type: "Convolution"
  bottom: "inception_4a/3x3_reduce"
  top: "inception_4a/3x3"
  param {
    lr_mult: 1
    decay_mult: 1
  }
  param {
    lr_mult: 2
    decay_mult: 0
  }
  convolution_param {
    num_output: 208
    pad: 1
    kernel_size: 3
    weight_filler {
      type: "xavier"
      std: 0.03
    }
    bias_filler {
      type: "constant"
      value: 0.2
    }
  }
}
layer {
  name: "inception_4a/relu_3x3"
  type: "ReLU"
  bottom: "inception_4a/3x3"
  top: "inception_4a/3x3"
}
layer {
  name: "inception_4a/5x5_reduce"
  type: "Convolution"
  bottom: "pool3/3x3_s2"
  top: "inception_4a/5x5_reduce"
  param {
    lr_mult: 1
    decay_mult: 1
  }
  param {
    lr_mult: 2
    decay_mult: 0
  }
  convolution_param {
    num_output: 16
    kernel_size: 1
    weight_filler {
      type: "xavier"
      std: 0.2
    }
    bias_filler {
      type: "constant"
      value: 0.2
    }
  }
}
layer {
  name: "inception_4a/relu_5x5_reduce"
  type: "ReLU"
  bottom: "inception_4a/5x5_reduce"
  top: "inception_4a/5x5_reduce"
}
layer {
  name: "inception_4a/5x5"
  type: "Convolution"
  bottom: "inception_4a/5x5_reduce"
  top: "inception_4a/5x5"
  param {
    lr_mult: 1
    decay_mult: 1
  }
  param {
    lr_mult: 2
    decay_mult: 0
  }
  convolution_param {
    num_output: 48
    pad: 2
    kernel_size: 5
    weight_filler {
      type: "xavier"
      std: 0.03
    }
    bias_filler {
      type: "constant"
      value: 0.2
    }
  }
}
layer {
  name: "inception_4a/relu_5x5"
  type: "ReLU"
  bottom: "inception_4a/5x5"
  top: "inception_4a/5x5"
}
layer {
  name: "inception_4a/pool"
  type: "Pooling"
  bottom: "pool3/3x3_s2"
  top: "inception_4a/pool"
  pooling_param {
    pool: MAX
    kernel_size: 3
    stride: 1
    pad: 1
  }
}
layer {
  name: "inception_4a/pool_proj"
  type: "Convolution"
  bottom: "inception_4a/pool"
  top: "inception_4a/pool_proj"
  param {
    lr_mult: 1
    decay_mult: 1
  }
  param {
    lr_mult: 2
    decay_mult: 0
  }
  convolution_param {
    num_output: 64
    kernel_size: 1
    weight_filler {
      type: "xavier"
      std: 0.1
    }
    bias_filler {
      type: "constant"
      value: 0.2
    }
  }
}
layer {
  name: "inception_4a/relu_pool_proj"
  type: "ReLU"
  bottom: "inception_4a/pool_proj"
  top: "inception_4a/pool_proj"
}
layer {
  name: "inception_4a/output"
  type: "Concat"
  bottom: "inception_4a/1x1"
  bottom: "inception_4a/3x3"
  bottom: "inception_4a/5x5"
  bottom: "inception_4a/pool_proj"
  top: "inception_4a/output"
}
layer {
  name: "loss1/ave_pool"
  type: "Pooling"
  bottom: "inception_4a/output"
  top: "loss1/ave_pool"
  pooling_param {
    pool: AVE
    kernel_size: 5
    stride: 3
  }
}
layer {
  name: "loss1/conv"
  type: "Convolution"
  bottom: "loss1/ave_pool"
  top: "loss1/conv"
  param {
    lr_mult: 1
    decay_mult: 1
  }
  param {
    lr_mult: 2
    decay_mult: 0
  }
  convolution_param {
    num_output: 128
    kernel_size: 1
    weight_filler {
      type: "xavier"
      std: 0.08
    }
    bias_filler {
      type: "constant"
      value: 0.2
    }
  }
}
layer {
  name: "loss1/relu_conv"
  type: "ReLU"
  bottom: "loss1/conv"
  top: "loss1/conv"
}
layer {
  name: "loss1/fc"
  type: "InnerProduct"
  bottom: "loss1/conv"
  top: "loss1/fc"
  param {
    lr_mult: 1
    decay_mult: 1
  }
  param {
    lr_mult: 2
    decay_mult: 0
  }
  inner_product_param {
    num_output: 1024
    weight_filler {
      type: "xavier"
      std: 0.02
    }
    bias_filler {
      type: "constant"
      value: 0.2
    }
  }
}
layer {
  name: "loss1/relu_fc"
  type: "ReLU"
  bottom: "loss1/fc"
  top: "loss1/fc"
}
layer {
  name: "loss1/drop_fc"
  type: "Dropout"
  bottom: "loss1/fc"
  top: "loss1/fc"
  dropout_param {
    dropout_ratio: 0.7
  }
}
layer {
  name: "loss1/classifier_plantvillage"
  type: "InnerProduct"
  bottom: "loss1/fc"
  top: "loss1/classifier_plantvillage"
  param {
    lr_mult: 1
    decay_mult: 1
  }
  param {
    lr_mult: 2
    decay_mult: 0
  }
  inner_product_param {
    num_output: 38
    weight_filler {
      type: "xavier"
      std: 0.0009765625
    }
    bias_filler {
      type: "constant"
      value: 0
    }
  }
}
layer {
  name: "inception_4b/1x1"
  type: "Convolution"
  bottom: "inception_4a/output"
  top: "inception_4b/1x1"
  param {
    lr_mult: 1
    decay_mult: 1
  }
  param {
    lr_mult: 2
    decay_mult: 0
  }
  convolution_param {
    num_output: 160
    kernel_size: 1
    weight_filler {
      type: "xavier"
      std: 0.03
    }
    bias_filler {
      type: "constant"
      value: 0.2
    }
  }
}
layer {
  name: "inception_4b/relu_1x1"
  type: "ReLU"
  bottom: "inception_4b/1x1"
  top: "inception_4b/1x1"
}
layer {
  name: "inception_4b/3x3_reduce"
  type: "Convolution"
  bottom: "inception_4a/output"
  top: "inception_4b/3x3_reduce"
  param {
    lr_mult: 1
    decay_mult: 1
  }
  param {
    lr_mult: 2
    decay_mult: 0
  }
  convolution_param {
    num_output: 112
    kernel_size: 1
    weight_filler {
      type: "xavier"
      std: 0.09
    }
    bias_filler {
      type: "constant"
      value: 0.2
    }
  }
}
layer {
  name: "inception_4b/relu_3x3_reduce"
  type: "ReLU"
  bottom: "inception_4b/3x3_reduce"
  top: "inception_4b/3x3_reduce"
}
layer {
  name: "inception_4b/3x3"
  type: "Convolution"
  bottom: "inception_4b/3x3_reduce"
  top: "inception_4b/3x3"
  param {
    lr_mult: 1
    decay_mult: 1
  }
  param {
    lr_mult: 2
    decay_mult: 0
  }
  convolution_param {
    num_output: 224
    pad: 1
    kernel_size: 3
    weight_filler {
      type: "xavier"
      std: 0.03
    }
    bias_filler {
      type: "constant"
      value: 0.2
    }
  }
}
layer {
  name: "inception_4b/relu_3x3"
  type: "ReLU"
  bottom: "inception_4b/3x3"
  top: "inception_4b/3x3"
}
layer {
  name: "inception_4b/5x5_reduce"
  type: "Convolution"
  bottom: "inception_4a/output"
  top: "inception_4b/5x5_reduce"
  param {
    lr_mult: 1
    decay_mult: 1
  }
  param {
    lr_mult: 2
    decay_mult: 0
  }
  convolution_param {
    num_output: 24
    kernel_size: 1
    weight_filler {
      type: "xavier"
      std: 0.2
    }
    bias_filler {
      type: "constant"
      value: 0.2
    }
  }
}
layer {
  name: "inception_4b/relu_5x5_reduce"
  type: "ReLU"
  bottom: "inception_4b/5x5_reduce"
  top: "inception_4b/5x5_reduce"
}
layer {
  name: "inception_4b/5x5"
  type: "Convolution"
  bottom: "inception_4b/5x5_reduce"
  top: "inception_4b/5x5"
  param {
    lr_mult: 1
    decay_mult: 1
  }
  param {
    lr_mult: 2
    decay_mult: 0
  }
  convolution_param {
    num_output: 64
    pad: 2
    kernel_size: 5
    weight_filler {
      type: "xavier"
      std: 0.03
    }
    bias_filler {
      type: "constant"
      value: 0.2
    }
  }
}
layer {
  name: "inception_4b/relu_5x5"
  type: "ReLU"
  bottom: "inception_4b/5x5"
  top: "inception_4b/5x5"
}
layer {
  name: "inception_4b/pool"
  type: "Pooling"
  bottom: "inception_4a/output"
  top: "inception_4b/pool"
  pooling_param {
    pool: MAX
    kernel_size: 3
    stride: 1
    pad: 1
  }
}
layer {
  name: "inception_4b/pool_proj"
  type: "Convolution"
  bottom: "inception_4b/pool"
  top: "inception_4b/pool_proj"
  param {
    lr_mult: 1
    decay_mult: 1
  }
  param {
    lr_mult: 2
    decay_mult: 0
  }
  convolution_param {
    num_output: 64
    kernel_size: 1
    weight_filler {
      type: "xavier"
      std: 0.1
    }
    bias_filler {
      type: "constant"
      value: 0.2
    }
  }
}
layer {
  name: "inception_4b/relu_pool_proj"
  type: "ReLU"
  bottom: "inception_4b/pool_proj"
  top: "inception_4b/pool_proj"
}
layer {
  name: "inception_4b/output"
  type: "Concat"
  bottom: "inception_4b/1x1"
  bottom: "inception_4b/3x3"
  bottom: "inception_4b/5x5"
  bottom: "inception_4b/pool_proj"
  top: "inception_4b/output"
}
layer {
  name: "inception_4c/1x1"
  type: "Convolution"
  bottom: "inception_4b/output"
  top: "inception_4c/1x1"
  param {
    lr_mult: 1
    decay_mult: 1
  }
  param {
    lr_mult: 2
    decay_mult: 0
  }
  convolution_param {
    num_output: 128
    kernel_size: 1
    weight_filler {
      type: "xavier"
      std: 0.03
    }
    bias_filler {
      type: "constant"
      value: 0.2
    }
  }
}
layer {
  name: "inception_4c/relu_1x1"
  type: "ReLU"
  bottom: "inception_4c/1x1"
  top: "inception_4c/1x1"
}
layer {
  name: "inception_4c/3x3_reduce"
  type: "Convolution"
  bottom: "inception_4b/output"
  top: "inception_4c/3x3_reduce"
  param {
    lr_mult: 1
    decay_mult: 1
  }
  param {
    lr_mult: 2
    decay_mult: 0
  }
  convolution_param {
    num_output: 128
    kernel_size: 1
    weight_filler {
      type: "xavier"
      std: 0.09
    }
    bias_filler {
      type: "constant"
      value: 0.2
    }
  }
}
layer {
  name: "inception_4c/relu_3x3_reduce"
  type: "ReLU"
  bottom: "inception_4c/3x3_reduce"
  top: "inception_4c/3x3_reduce"
}
layer {
  name: "inception_4c/3x3"
  type: "Convolution"
  bottom: "inception_4c/3x3_reduce"
  top: "inception_4c/3x3"
  param {
    lr_mult: 1
    decay_mult: 1
  }
  param {
    lr_mult: 2
    decay_mult: 0
  }
  convolution_param {
    num_output: 256
    pad: 1
    kernel_size: 3
    weight_filler {
      type: "xavier"
      std: 0.03
    }
    bias_filler {
      type: "constant"
      value: 0.2
    }
  }
}
layer {
  name: "inception_4c/relu_3x3"
  type: "ReLU"
  bottom: "inception_4c/3x3"
  top: "inception_4c/3x3"
}
layer {
  name: "inception_4c/5x5_reduce"
  type: "Convolution"
  bottom: "inception_4b/output"
  top: "inception_4c/5x5_reduce"
  param {
    lr_mult: 1
    decay_mult: 1
  }
  param {
    lr_mult: 2
    decay_mult: 0
  }
  convolution_param {
    num_output: 24
    kernel_size: 1
    weight_filler {
      type: "xavier"
      std: 0.2
    }
    bias_filler {
      type: "constant"
      value: 0.2
    }
  }
}
layer {
  name: "inception_4c/relu_5x5_reduce"
  type: "ReLU"
  bottom: "inception_4c/5x5_reduce"
  top: "inception_4c/5x5_reduce"
}
layer {
  name: "inception_4c/5x5"
  type: "Convolution"
  bottom: "inception_4c/5x5_reduce"
  top: "inception_4c/5x5"
  param {
    lr_mult: 1
    decay_mult: 1
  }
  param {
    lr_mult: 2
    decay_mult: 0
  }
  convolution_param {
    num_output: 64
    pad: 2
    kernel_size: 5
    weight_filler {
      type: "xavier"
      std: 0.03
    }
    bias_filler {
      type: "constant"
      value: 0.2
    }
  }
}
layer {
  name: "inception_4c/relu_5x5"
  type: "ReLU"
  bottom: "inception_4c/5x5"
  top: "inception_4c/5x5"
}
layer {
  name: "inception_4c/pool"
  type: "Pooling"
  bottom: "inception_4b/output"
  top: "inception_4c/pool"
  pooling_param {
    pool: MAX
    kernel_size: 3
    stride: 1
    pad: 1
  }
}
layer {
  name: "inception_4c/pool_proj"
  type: "Convolution"
  bottom: "inception_4c/pool"
  top: "inception_4c/pool_proj"
  param {
    lr_mult: 1
    decay_mult: 1
  }
  param {
    lr_mult: 2
    decay_mult: 0
  }
  convolution_param {
    num_output: 64
    kernel_size: 1
    weight_filler {
      type: "xavier"
      std: 0.1
    }
    bias_filler {
      type: "constant"
      value: 0.2
    }
  }
}
layer {
  name: "inception_4c/relu_pool_proj"
  type: "ReLU"
  bottom: "inception_4c/pool_proj"
  top: "inception_4c/pool_proj"
}
layer {
  name: "inception_4c/output"
  type: "Concat"
  bottom: "inception_4c/1x1"
  bottom: "inception_4c/3x3"
  bottom: "inception_4c/5x5"
  bottom: "inception_4c/pool_proj"
  top: "inception_4c/output"
}
layer {
  name: "inception_4d/1x1"
  type: "Convolution"
  bottom: "inception_4c/output"
  top: "inception_4d/1x1"
  param {
    lr_mult: 1
    decay_mult: 1
  }
  param {
    lr_mult: 2
    decay_mult: 0
  }
  convolution_param {
    num_output: 112
    kernel_size: 1
    weight_filler {
      type: "xavier"
      std: 0.03
    }
    bias_filler {
      type: "constant"
      value: 0.2
    }
  }
}
layer {
  name: "inception_4d/relu_1x1"
  type: "ReLU"
  bottom: "inception_4d/1x1"
  top: "inception_4d/1x1"
}
layer {
  name: "inception_4d/3x3_reduce"
  type: "Convolution"
  bottom: "inception_4c/output"
  top: "inception_4d/3x3_reduce"
  param {
    lr_mult: 1
    decay_mult: 1
  }
  param {
    lr_mult: 2
    decay_mult: 0
  }
  convolution_param {
    num_output: 144
    kernel_size: 1
    weight_filler {
      type: "xavier"
      std: 0.09
    }
    bias_filler {
      type: "constant"
      value: 0.2
    }
  }
}
layer {
  name: "inception_4d/relu_3x3_reduce"
  type: "ReLU"
  bottom: "inception_4d/3x3_reduce"
  top: "inception_4d/3x3_reduce"
}
layer {
  name: "inception_4d/3x3"
  type: "Convolution"
  bottom: "inception_4d/3x3_reduce"
  top: "inception_4d/3x3"
  param {
    lr_mult: 1
    decay_mult: 1
  }
  param {
    lr_mult: 2
    decay_mult: 0
  }
  convolution_param {
    num_output: 288
    pad: 1
    kernel_size: 3
    weight_filler {
      type: "xavier"
      std: 0.03
    }
    bias_filler {
      type: "constant"
      value: 0.2
    }
  }
}
layer {
  name: "inception_4d/relu_3x3"
  type: "ReLU"
  bottom: "inception_4d/3x3"
  top: "inception_4d/3x3"
}
layer {
  name: "inception_4d/5x5_reduce"
  type: "Convolution"
  bottom: "inception_4c/output"
  top: "inception_4d/5x5_reduce"
  param {
    lr_mult: 1
    decay_mult: 1
  }
  param {
    lr_mult: 2
    decay_mult: 0
  }
  convolution_param {
    num_output: 32
    kernel_size: 1
    weight_filler {
      type: "xavier"
      std: 0.2
    }
    bias_filler {
      type: "constant"
      value: 0.2
    }
  }
}
layer {
  name: "inception_4d/relu_5x5_reduce"
  type: "ReLU"
  bottom: "inception_4d/5x5_reduce"
  top: "inception_4d/5x5_reduce"
}
layer {
  name: "inception_4d/5x5"
  type: "Convolution"
  bottom: "inception_4d/5x5_reduce"
  top: "inception_4d/5x5"
  param {
    lr_mult: 1
    decay_mult: 1
  }
  param {
    lr_mult: 2
    decay_mult: 0
  }
  convolution_param {
    num_output: 64
    pad: 2
    kernel_size: 5
    weight_filler {
      type: "xavier"
      std: 0.03
    }
    bias_filler {
      type: "constant"
      value: 0.2
    }
  }
}
layer {
  name: "inception_4d/relu_5x5"
  type: "ReLU"
  bottom: "inception_4d/5x5"
  top: "inception_4d/5x5"
}
layer {
  name: "inception_4d/pool"
  type: "Pooling"
  bottom: "inception_4c/output"
  top: "inception_4d/pool"
  pooling_param {
    pool: MAX
    kernel_size: 3
    stride: 1
    pad: 1
  }
}
layer {
  name: "inception_4d/pool_proj"
  type: "Convolution"
  bottom: "inception_4d/pool"
  top: "inception_4d/pool_proj"
  param {
    lr_mult: 1
    decay_mult: 1
  }
  param {
    lr_mult: 2
    decay_mult: 0
  }
  convolution_param {
    num_output: 64
    kernel_size: 1
    weight_filler {
      type: "xavier"
      std: 0.1
    }
    bias_filler {
      type: "constant"
      value: 0.2
    }
  }
}
layer {
  name: "inception_4d/relu_pool_proj"
  type: "ReLU"
  bottom: "inception_4d/pool_proj"
  top: "inception_4d/pool_proj"
}
layer {
  name: "inception_4d/output"
  type: "Concat"
  bottom: "inception_4d/1x1"
  bottom: "inception_4d/3x3"
  bottom: "inception_4d/5x5"
  bottom: "inception_4d/pool_proj"
  top: "inception_4d/output"
}
layer {
  name: "loss2/ave_pool"
  type: "Pooling"
  bottom: "inception_4d/output"
  top: "loss2/ave_pool"
  pooling_param {
    pool: AVE
    kernel_size: 5
    stride: 3
  }
}
layer {
  name: "loss2/conv"
  type: "Convolution"
  bottom: "loss2/ave_pool"
  top: "loss2/conv"
  param {
    lr_mult: 1
    decay_mult: 1
  }
  param {
    lr_mult: 2
    decay_mult: 0
  }
  convolution_param {
    num_output: 128
    kernel_size: 1
    weight_filler {
      type: "xavier"
      std: 0.08
    }
    bias_filler {
      type: "constant"
      value: 0.2
    }
  }
}
layer {
  name: "loss2/relu_conv"
  type: "ReLU"
  bottom: "loss2/conv"
  top: "loss2/conv"
}
layer {
  name: "loss2/fc"
  type: "InnerProduct"
  bottom: "loss2/conv"
  top: "loss2/fc"
  param {
    lr_mult: 1
    decay_mult: 1
  }
  param {
    lr_mult: 2
    decay_mult: 0
  }
  inner_product_param {
    num_output: 1024
    weight_filler {
      type: "xavier"
      std: 0.02
    }
    bias_filler {
      type: "constant"
      value: 0.2
    }
  }
}
layer {
  name: "loss2/relu_fc"
  type: "ReLU"
  bottom: "loss2/fc"
  top: "loss2/fc"
}
layer {
  name: "loss2/drop_fc"
  type: "Dropout"
  bottom: "loss2/fc"
  top: "loss2/fc"
  dropout_param {
    dropout_ratio: 0.7
  }
}
layer {
  name: "loss2/classifier_plantvillage"
  type: "InnerProduct"
  bottom: "loss2/fc"
  top: "loss2/classifier_plantvillage"
  param {
    lr_mult: 1
    decay_mult: 1
  }
  param {
    lr_mult: 2
    decay_mult: 0
  }
  inner_product_param {
    num_output: 38
    weight_filler {
      type: "xavier"
      std: 0.0009765625
    }
    bias_filler {
      type: "constant"
      value: 0
    }
  }
}
layer {
  name: "inception_4e/1x1"
  type: "Convolution"
  bottom: "inception_4d/output"
  top: "inception_4e/1x1"
  param {
    lr_mult: 1
    decay_mult: 1
  }
  param {
    lr_mult: 2
    decay_mult: 0
  }
  convolution_param {
    num_output: 256
    kernel_size: 1
    weight_filler {
      type: "xavier"
      std: 0.03
    }
    bias_filler {
      type: "constant"
      value: 0.2
    }
  }
}
layer {
  name: "inception_4e/relu_1x1"
  type: "ReLU"
  bottom: "inception_4e/1x1"
  top: "inception_4e/1x1"
}
layer {
  name: "inception_4e/3x3_reduce"
  type: "Convolution"
  bottom: "inception_4d/output"
  top: "inception_4e/3x3_reduce"
  param {
    lr_mult: 1
    decay_mult: 1
  }
  param {
    lr_mult: 2
    decay_mult: 0
  }
  convolution_param {
    num_output: 160
    kernel_size: 1
    weight_filler {
      type: "xavier"
      std: 0.09
    }
    bias_filler {
      type: "constant"
      value: 0.2
    }
  }
}
layer {
  name: "inception_4e/relu_3x3_reduce"
  type: "ReLU"
  bottom: "inception_4e/3x3_reduce"
  top: "inception_4e/3x3_reduce"
}
layer {
  name: "inception_4e/3x3"
  type: "Convolution"
  bottom: "inception_4e/3x3_reduce"
  top: "inception_4e/3x3"
  param {
    lr_mult: 1
    decay_mult: 1
  }
  param {
    lr_mult: 2
    decay_mult: 0
  }
  convolution_param {
    num_output: 320
    pad: 1
    kernel_size: 3
    weight_filler {
      type: "xavier"
      std: 0.03
    }
    bias_filler {
      type: "constant"
      value: 0.2
    }
  }
}
layer {
  name: "inception_4e/relu_3x3"
  type: "ReLU"
  bottom: "inception_4e/3x3"
  top: "inception_4e/3x3"
}
layer {
  name: "inception_4e/5x5_reduce"
  type: "Convolution"
  bottom: "inception_4d/output"
  top: "inception_4e/5x5_reduce"
  param {
    lr_mult: 1
    decay_mult: 1
  }
  param {
    lr_mult: 2
    decay_mult: 0
  }
  convolution_param {
    num_output: 32
    kernel_size: 1
    weight_filler {
      type: "xavier"
      std: 0.2
    }
    bias_filler {
      type: "constant"
      value: 0.2
    }
  }
}
layer {
  name: "inception_4e/relu_5x5_reduce"
  type: "ReLU"
  bottom: "inception_4e/5x5_reduce"
  top: "inception_4e/5x5_reduce"
}
layer {
  name: "inception_4e/5x5"
  type: "Convolution"
  bottom: "inception_4e/5x5_reduce"
  top: "inception_4e/5x5"
  p
I0403 17:00:56.446485 20376 layer_factory.hpp:77] Creating layer data
I0403 17:00:56.447103 20376 net.cpp:91] Creating Layer data
I0403 17:00:56.447135 20376 net.cpp:399] data -> data
I0403 17:00:56.447188 20376 net.cpp:399] data -> label
I0403 17:00:56.447226 20376 data_transformer.cpp:25] Loading mean file from: /home/mohanty/data/final_dataset/lmdb/color-20-80/mean.binaryproto
I0403 17:00:56.448354 20381 db_lmdb.cpp:38] Opened lmdb /home/mohanty/data/final_dataset/lmdb/color-20-80/test_db
I0403 17:00:56.461372 20376 data_layer.cpp:41] output data size: 24,3,224,224
I0403 17:00:56.488956 20376 net.cpp:141] Setting up data
I0403 17:00:56.489029 20376 net.cpp:148] Top shape: 24 3 224 224 (3612672)
I0403 17:00:56.489053 20376 net.cpp:148] Top shape: 24 (24)
I0403 17:00:56.489070 20376 net.cpp:156] Memory required for data: 14450784
I0403 17:00:56.489097 20376 layer_factory.hpp:77] Creating layer label_data_1_split
I0403 17:00:56.489125 20376 net.cpp:91] Creating Layer label_data_1_split
I0403 17:00:56.489145 20376 net.cpp:425] label_data_1_split <- label
I0403 17:00:56.489179 20376 net.cpp:399] label_data_1_split -> label_data_1_split_0
I0403 17:00:56.489208 20376 net.cpp:399] label_data_1_split -> label_data_1_split_1
I0403 17:00:56.489230 20376 net.cpp:399] label_data_1_split -> label_data_1_split_2
I0403 17:00:56.489253 20376 net.cpp:399] label_data_1_split -> label_data_1_split_3
I0403 17:00:56.489274 20376 net.cpp:399] label_data_1_split -> label_data_1_split_4
I0403 17:00:56.489295 20376 net.cpp:399] label_data_1_split -> label_data_1_split_5
I0403 17:00:56.489315 20376 net.cpp:399] label_data_1_split -> label_data_1_split_6
I0403 17:00:56.489337 20376 net.cpp:399] label_data_1_split -> label_data_1_split_7
I0403 17:00:56.489358 20376 net.cpp:399] label_data_1_split -> label_data_1_split_8
I0403 17:00:56.489379 20376 net.cpp:399] label_data_1_split -> label_data_1_split_9
I0403 17:00:56.489496 20376 net.cpp:141] Setting up label_data_1_split
I0403 17:00:56.489521 20376 net.cpp:148] Top shape: 24 (24)
I0403 17:00:56.489540 20376 net.cpp:148] Top shape: 24 (24)
I0403 17:00:56.489558 20376 net.cpp:148] Top shape: 24 (24)
I0403 17:00:56.489574 20376 net.cpp:148] Top shape: 24 (24)
I0403 17:00:56.489590 20376 net.cpp:148] Top shape: 24 (24)
I0403 17:00:56.489611 20376 net.cpp:148] Top shape: 24 (24)
I0403 17:00:56.489629 20376 net.cpp:148] Top shape: 24 (24)
I0403 17:00:56.489646 20376 net.cpp:148] Top shape: 24 (24)
I0403 17:00:56.489663 20376 net.cpp:148] Top shape: 24 (24)
I0403 17:00:56.489680 20376 net.cpp:148] Top shape: 24 (24)
I0403 17:00:56.489723 20376 net.cpp:156] Memory required for data: 14451744
I0403 17:00:56.489742 20376 layer_factory.hpp:77] Creating layer conv1/7x7_s2
I0403 17:00:56.489773 20376 net.cpp:91] Creating Layer conv1/7x7_s2
I0403 17:00:56.489794 20376 net.cpp:425] conv1/7x7_s2 <- data
I0403 17:00:56.489815 20376 net.cpp:399] conv1/7x7_s2 -> conv1/7x7_s2
I0403 17:00:56.632046 20376 net.cpp:141] Setting up conv1/7x7_s2
I0403 17:00:56.632112 20376 net.cpp:148] Top shape: 24 64 112 112 (19267584)
I0403 17:00:56.632130 20376 net.cpp:156] Memory required for data: 91522080
I0403 17:00:56.632163 20376 layer_factory.hpp:77] Creating layer conv1/relu_7x7
I0403 17:00:56.632191 20376 net.cpp:91] Creating Layer conv1/relu_7x7
I0403 17:00:56.632211 20376 net.cpp:425] conv1/relu_7x7 <- conv1/7x7_s2
I0403 17:00:56.632233 20376 net.cpp:386] conv1/relu_7x7 -> conv1/7x7_s2 (in-place)
I0403 17:00:56.632494 20376 net.cpp:141] Setting up conv1/relu_7x7
I0403 17:00:56.632524 20376 net.cpp:148] Top shape: 24 64 112 112 (19267584)
I0403 17:00:56.632540 20376 net.cpp:156] Memory required for data: 168592416
I0403 17:00:56.632557 20376 layer_factory.hpp:77] Creating layer pool1/3x3_s2
I0403 17:00:56.632583 20376 net.cpp:91] Creating Layer pool1/3x3_s2
I0403 17:00:56.632608 20376 net.cpp:425] pool1/3x3_s2 <- conv1/7x7_s2
I0403 17:00:56.632632 20376 net.cpp:399] pool1/3x3_s2 -> pool1/3x3_s2
I0403 17:00:56.632709 20376 net.cpp:141] Setting up pool1/3x3_s2
I0403 17:00:56.632735 20376 net.cpp:148] Top shape: 24 64 56 56 (4816896)
I0403 17:00:56.632751 20376 net.cpp:156] Memory required for data: 187860000
I0403 17:00:56.632768 20376 layer_factory.hpp:77] Creating layer pool1/norm1
I0403 17:00:56.632793 20376 net.cpp:91] Creating Layer pool1/norm1
I0403 17:00:56.632813 20376 net.cpp:425] pool1/norm1 <- pool1/3x3_s2
I0403 17:00:56.632833 20376 net.cpp:399] pool1/norm1 -> pool1/norm1
I0403 17:00:56.633118 20376 net.cpp:141] Setting up pool1/norm1
I0403 17:00:56.633148 20376 net.cpp:148] Top shape: 24 64 56 56 (4816896)
I0403 17:00:56.633165 20376 net.cpp:156] Memory required for data: 207127584
I0403 17:00:56.633183 20376 layer_factory.hpp:77] Creating layer conv2/3x3_reduce
I0403 17:00:56.633208 20376 net.cpp:91] Creating Layer conv2/3x3_reduce
I0403 17:00:56.633226 20376 net.cpp:425] conv2/3x3_reduce <- pool1/norm1
I0403 17:00:56.633246 20376 net.cpp:399] conv2/3x3_reduce -> conv2/3x3_reduce
I0403 17:00:56.634695 20376 net.cpp:141] Setting up conv2/3x3_reduce
I0403 17:00:56.634727 20376 net.cpp:148] Top shape: 24 64 56 56 (4816896)
I0403 17:00:56.634744 20376 net.cpp:156] Memory required for data: 226395168
I0403 17:00:56.634768 20376 layer_factory.hpp:77] Creating layer conv2/relu_3x3_reduce
I0403 17:00:56.634788 20376 net.cpp:91] Creating Layer conv2/relu_3x3_reduce
I0403 17:00:56.634806 20376 net.cpp:425] conv2/relu_3x3_reduce <- conv2/3x3_reduce
I0403 17:00:56.634825 20376 net.cpp:386] conv2/relu_3x3_reduce -> conv2/3x3_reduce (in-place)
I0403 17:00:56.635087 20376 net.cpp:141] Setting up conv2/relu_3x3_reduce
I0403 17:00:56.635118 20376 net.cpp:148] Top shape: 24 64 56 56 (4816896)
I0403 17:00:56.635133 20376 net.cpp:156] Memory required for data: 245662752
I0403 17:00:56.635150 20376 layer_factory.hpp:77] Creating layer conv2/3x3
I0403 17:00:56.635228 20376 net.cpp:91] Creating Layer conv2/3x3
I0403 17:00:56.635249 20376 net.cpp:425] conv2/3x3 <- conv2/3x3_reduce
I0403 17:00:56.635270 20376 net.cpp:399] conv2/3x3 -> conv2/3x3
I0403 17:00:56.637677 20376 net.cpp:141] Setting up conv2/3x3
I0403 17:00:56.637714 20376 net.cpp:148] Top shape: 24 192 56 56 (14450688)
I0403 17:00:56.637733 20376 net.cpp:156] Memory required for data: 303465504
I0403 17:00:56.637758 20376 layer_factory.hpp:77] Creating layer conv2/relu_3x3
I0403 17:00:56.637778 20376 net.cpp:91] Creating Layer conv2/relu_3x3
I0403 17:00:56.637796 20376 net.cpp:425] conv2/relu_3x3 <- conv2/3x3
I0403 17:00:56.637815 20376 net.cpp:386] conv2/relu_3x3 -> conv2/3x3 (in-place)
I0403 17:00:56.638010 20376 net.cpp:141] Setting up conv2/relu_3x3
I0403 17:00:56.638038 20376 net.cpp:148] Top shape: 24 192 56 56 (14450688)
I0403 17:00:56.638087 20376 net.cpp:156] Memory required for data: 361268256
I0403 17:00:56.638105 20376 layer_factory.hpp:77] Creating layer conv2/norm2
I0403 17:00:56.638128 20376 net.cpp:91] Creating Layer conv2/norm2
I0403 17:00:56.638149 20376 net.cpp:425] conv2/norm2 <- conv2/3x3
I0403 17:00:56.638169 20376 net.cpp:399] conv2/norm2 -> conv2/norm2
I0403 17:00:56.638489 20376 net.cpp:141] Setting up conv2/norm2
I0403 17:00:56.638520 20376 net.cpp:148] Top shape: 24 192 56 56 (14450688)
I0403 17:00:56.638536 20376 net.cpp:156] Memory required for data: 419071008
I0403 17:00:56.638556 20376 layer_factory.hpp:77] Creating layer pool2/3x3_s2
I0403 17:00:56.638577 20376 net.cpp:91] Creating Layer pool2/3x3_s2
I0403 17:00:56.638597 20376 net.cpp:425] pool2/3x3_s2 <- conv2/norm2
I0403 17:00:56.638623 20376 net.cpp:399] pool2/3x3_s2 -> pool2/3x3_s2
I0403 17:00:56.638707 20376 net.cpp:141] Setting up pool2/3x3_s2
I0403 17:00:56.638736 20376 net.cpp:148] Top shape: 24 192 28 28 (3612672)
I0403 17:00:56.638752 20376 net.cpp:156] Memory required for data: 433521696
I0403 17:00:56.638768 20376 layer_factory.hpp:77] Creating layer pool2/3x3_s2_pool2/3x3_s2_0_split
I0403 17:00:56.638787 20376 net.cpp:91] Creating Layer pool2/3x3_s2_pool2/3x3_s2_0_split
I0403 17:00:56.638805 20376 net.cpp:425] pool2/3x3_s2_pool2/3x3_s2_0_split <- pool2/3x3_s2
I0403 17:00:56.638828 20376 net.cpp:399] pool2/3x3_s2_pool2/3x3_s2_0_split -> pool2/3x3_s2_pool2/3x3_s2_0_split_0
I0403 17:00:56.638850 20376 net.cpp:399] pool2/3x3_s2_pool2/3x3_s2_0_split -> pool2/3x3_s2_pool2/3x3_s2_0_split_1
I0403 17:00:56.638872 20376 net.cpp:399] pool2/3x3_s2_pool2/3x3_s2_0_split -> pool2/3x3_s2_pool2/3x3_s2_0_split_2
I0403 17:00:56.638893 20376 net.cpp:399] pool2/3x3_s2_pool2/3x3_s2_0_split -> pool2/3x3_s2_pool2/3x3_s2_0_split_3
I0403 17:00:56.638968 20376 net.cpp:141] Setting up pool2/3x3_s2_pool2/3x3_s2_0_split
I0403 17:00:56.638998 20376 net.cpp:148] Top shape: 24 192 28 28 (3612672)
I0403 17:00:56.639019 20376 net.cpp:148] Top shape: 24 192 28 28 (3612672)
I0403 17:00:56.639036 20376 net.cpp:148] Top shape: 24 192 28 28 (3612672)
I0403 17:00:56.639053 20376 net.cpp:148] Top shape: 24 192 28 28 (3612672)
I0403 17:00:56.639068 20376 net.cpp:156] Memory required for data: 491324448
I0403 17:00:56.639084 20376 layer_factory.hpp:77] Creating layer inception_3a/1x1
I0403 17:00:56.639109 20376 net.cpp:91] Creating Layer inception_3a/1x1
I0403 17:00:56.639129 20376 net.cpp:425] inception_3a/1x1 <- pool2/3x3_s2_pool2/3x3_s2_0_split_0
I0403 17:00:56.639152 20376 net.cpp:399] inception_3a/1x1 -> inception_3a/1x1
I0403 17:00:56.640775 20376 net.cpp:141] Setting up inception_3a/1x1
I0403 17:00:56.640808 20376 net.cpp:148] Top shape: 24 64 28 28 (1204224)
I0403 17:00:56.640826 20376 net.cpp:156] Memory required for data: 496141344
I0403 17:00:56.640846 20376 layer_factory.hpp:77] Creating layer inception_3a/relu_1x1
I0403 17:00:56.640868 20376 net.cpp:91] Creating Layer inception_3a/relu_1x1
I0403 17:00:56.640887 20376 net.cpp:425] inception_3a/relu_1x1 <- inception_3a/1x1
I0403 17:00:56.640908 20376 net.cpp:386] inception_3a/relu_1x1 -> inception_3a/1x1 (in-place)
I0403 17:00:56.641090 20376 net.cpp:141] Setting up inception_3a/relu_1x1
I0403 17:00:56.641121 20376 net.cpp:148] Top shape: 24 64 28 28 (1204224)
I0403 17:00:56.641139 20376 net.cpp:156] Memory required for data: 500958240
I0403 17:00:56.641156 20376 layer_factory.hpp:77] Creating layer inception_3a/3x3_reduce
I0403 17:00:56.641180 20376 net.cpp:91] Creating Layer inception_3a/3x3_reduce
I0403 17:00:56.641198 20376 net.cpp:425] inception_3a/3x3_reduce <- pool2/3x3_s2_pool2/3x3_s2_0_split_1
I0403 17:00:56.641221 20376 net.cpp:399] inception_3a/3x3_reduce -> inception_3a/3x3_reduce
I0403 17:00:56.643046 20376 net.cpp:141] Setting up inception_3a/3x3_reduce
I0403 17:00:56.643079 20376 net.cpp:148] Top shape: 24 96 28 28 (1806336)
I0403 17:00:56.643097 20376 net.cpp:156] Memory required for data: 508183584
I0403 17:00:56.643124 20376 layer_factory.hpp:77] Creating layer inception_3a/relu_3x3_reduce
I0403 17:00:56.643162 20376 net.cpp:91] Creating Layer inception_3a/relu_3x3_reduce
I0403 17:00:56.643182 20376 net.cpp:425] inception_3a/relu_3x3_reduce <- inception_3a/3x3_reduce
I0403 17:00:56.643206 20376 net.cpp:386] inception_3a/relu_3x3_reduce -> inception_3a/3x3_reduce (in-place)
I0403 17:00:56.643400 20376 net.cpp:141] Setting up inception_3a/relu_3x3_reduce
I0403 17:00:56.643429 20376 net.cpp:148] Top shape: 24 96 28 28 (1806336)
I0403 17:00:56.643445 20376 net.cpp:156] Memory required for data: 515408928
I0403 17:00:56.643462 20376 layer_factory.hpp:77] Creating layer inception_3a/3x3
I0403 17:00:56.643486 20376 net.cpp:91] Creating Layer inception_3a/3x3
I0403 17:00:56.643507 20376 net.cpp:425] inception_3a/3x3 <- inception_3a/3x3_reduce
I0403 17:00:56.643530 20376 net.cpp:399] inception_3a/3x3 -> inception_3a/3x3
I0403 17:00:56.645293 20376 net.cpp:141] Setting up inception_3a/3x3
I0403 17:00:56.645328 20376 net.cpp:148] Top shape: 24 128 28 28 (2408448)
I0403 17:00:56.645346 20376 net.cpp:156] Memory required for data: 525042720
I0403 17:00:56.645366 20376 layer_factory.hpp:77] Creating layer inception_3a/relu_3x3
I0403 17:00:56.645388 20376 net.cpp:91] Creating Layer inception_3a/relu_3x3
I0403 17:00:56.645407 20376 net.cpp:425] inception_3a/relu_3x3 <- inception_3a/3x3
I0403 17:00:56.645428 20376 net.cpp:386] inception_3a/relu_3x3 -> inception_3a/3x3 (in-place)
I0403 17:00:56.645723 20376 net.cpp:141] Setting up inception_3a/relu_3x3
I0403 17:00:56.645755 20376 net.cpp:148] Top shape: 24 128 28 28 (2408448)
I0403 17:00:56.645773 20376 net.cpp:156] Memory required for data: 534676512
I0403 17:00:56.645790 20376 layer_factory.hpp:77] Creating layer inception_3a/5x5_reduce
I0403 17:00:56.645815 20376 net.cpp:91] Creating Layer inception_3a/5x5_reduce
I0403 17:00:56.645834 20376 net.cpp:425] inception_3a/5x5_reduce <- pool2/3x3_s2_pool2/3x3_s2_0_split_2
I0403 17:00:56.645855 20376 net.cpp:399] inception_3a/5x5_reduce -> inception_3a/5x5_reduce
I0403 17:00:56.646867 20376 net.cpp:141] Setting up inception_3a/5x5_reduce
I0403 17:00:56.646900 20376 net.cpp:148] Top shape: 24 16 28 28 (301056)
I0403 17:00:56.646919 20376 net.cpp:156] Memory required for data: 535880736
I0403 17:00:56.646939 20376 layer_factory.hpp:77] Creating layer inception_3a/relu_5x5_reduce
I0403 17:00:56.646958 20376 net.cpp:91] Creating Layer inception_3a/relu_5x5_reduce
I0403 17:00:56.646976 20376 net.cpp:425] inception_3a/relu_5x5_reduce <- inception_3a/5x5_reduce
I0403 17:00:56.646999 20376 net.cpp:386] inception_3a/relu_5x5_reduce -> inception_3a/5x5_reduce (in-place)
I0403 17:00:56.647310 20376 net.cpp:141] Setting up inception_3a/relu_5x5_reduce
I0403 17:00:56.647339 20376 net.cpp:148] Top shape: 24 16 28 28 (301056)
I0403 17:00:56.647356 20376 net.cpp:156] Memory required for data: 537084960
I0403 17:00:56.647372 20376 layer_factory.hpp:77] Creating layer inception_3a/5x5
I0403 17:00:56.647397 20376 net.cpp:91] Creating Layer inception_3a/5x5
I0403 17:00:56.647416 20376 net.cpp:425] inception_3a/5x5 <- inception_3a/5x5_reduce
I0403 17:00:56.647441 20376 net.cpp:399] inception_3a/5x5 -> inception_3a/5x5
I0403 17:00:56.648505 20376 net.cpp:141] Setting up inception_3a/5x5
I0403 17:00:56.648535 20376 net.cpp:148] Top shape: 24 32 28 28 (602112)
I0403 17:00:56.648555 20376 net.cpp:156] Memory required for data: 539493408
I0403 17:00:56.648574 20376 layer_factory.hpp:77] Creating layer inception_3a/relu_5x5
I0403 17:00:56.648597 20376 net.cpp:91] Creating Layer inception_3a/relu_5x5
I0403 17:00:56.648622 20376 net.cpp:425] inception_3a/relu_5x5 <- inception_3a/5x5
I0403 17:00:56.648643 20376 net.cpp:386] inception_3a/relu_5x5 -> inception_3a/5x5 (in-place)
I0403 17:00:56.648834 20376 net.cpp:141] Setting up inception_3a/relu_5x5
I0403 17:00:56.648861 20376 net.cpp:148] Top shape: 24 32 28 28 (602112)
I0403 17:00:56.648877 20376 net.cpp:156] Memory required for data: 541901856
I0403 17:00:56.648892 20376 layer_factory.hpp:77] Creating layer inception_3a/pool
I0403 17:00:56.648912 20376 net.cpp:91] Creating Layer inception_3a/pool
I0403 17:00:56.648931 20376 net.cpp:425] inception_3a/pool <- pool2/3x3_s2_pool2/3x3_s2_0_split_3
I0403 17:00:56.648967 20376 net.cpp:399] inception_3a/pool -> inception_3a/pool
I0403 17:00:56.649029 20376 net.cpp:141] Setting up inception_3a/pool
I0403 17:00:56.649054 20376 net.cpp:148] Top shape: 24 192 28 28 (3612672)
I0403 17:00:56.649070 20376 net.cpp:156] Memory required for data: 556352544
I0403 17:00:56.649085 20376 layer_factory.hpp:77] Creating layer inception_3a/pool_proj
I0403 17:00:56.649111 20376 net.cpp:91] Creating Layer inception_3a/pool_proj
I0403 17:00:56.649128 20376 net.cpp:425] inception_3a/pool_proj <- inception_3a/pool
I0403 17:00:56.649149 20376 net.cpp:399] inception_3a/pool_proj -> inception_3a/pool_proj
I0403 17:00:56.650161 20376 net.cpp:141] Setting up inception_3a/pool_proj
I0403 17:00:56.650192 20376 net.cpp:148] Top shape: 24 32 28 28 (602112)
I0403 17:00:56.650208 20376 net.cpp:156] Memory required for data: 558760992
I0403 17:00:56.650233 20376 layer_factory.hpp:77] Creating layer inception_3a/relu_pool_proj
I0403 17:00:56.650256 20376 net.cpp:91] Creating Layer inception_3a/relu_pool_proj
I0403 17:00:56.650275 20376 net.cpp:425] inception_3a/relu_pool_proj <- inception_3a/pool_proj
I0403 17:00:56.650296 20376 net.cpp:386] inception_3a/relu_pool_proj -> inception_3a/pool_proj (in-place)
I0403 17:00:56.650578 20376 net.cpp:141] Setting up inception_3a/relu_pool_proj
I0403 17:00:56.650612 20376 net.cpp:148] Top shape: 24 32 28 28 (602112)
I0403 17:00:56.650630 20376 net.cpp:156] Memory required for data: 561169440
I0403 17:00:56.650647 20376 layer_factory.hpp:77] Creating layer inception_3a/output
I0403 17:00:56.650666 20376 net.cpp:91] Creating Layer inception_3a/output
I0403 17:00:56.650684 20376 net.cpp:425] inception_3a/output <- inception_3a/1x1
I0403 17:00:56.650703 20376 net.cpp:425] inception_3a/output <- inception_3a/3x3
I0403 17:00:56.650720 20376 net.cpp:425] inception_3a/output <- inception_3a/5x5
I0403 17:00:56.650738 20376 net.cpp:425] inception_3a/output <- inception_3a/pool_proj
I0403 17:00:56.650754 20376 net.cpp:399] inception_3a/output -> inception_3a/output
I0403 17:00:56.650804 20376 net.cpp:141] Setting up inception_3a/output
I0403 17:00:56.650828 20376 net.cpp:148] Top shape: 24 256 28 28 (4816896)
I0403 17:00:56.650846 20376 net.cpp:156] Memory required for data: 580437024
I0403 17:00:56.650862 20376 layer_factory.hpp:77] Creating layer inception_3a/output_inception_3a/output_0_split
I0403 17:00:56.650879 20376 net.cpp:91] Creating Layer inception_3a/output_inception_3a/output_0_split
I0403 17:00:56.650895 20376 net.cpp:425] inception_3a/output_inception_3a/output_0_split <- inception_3a/output
I0403 17:00:56.650916 20376 net.cpp:399] inception_3a/output_inception_3a/output_0_split -> inception_3a/output_inception_3a/output_0_split_0
I0403 17:00:56.650938 20376 net.cpp:399] inception_3a/output_inception_3a/output_0_split -> inception_3a/output_inception_3a/output_0_split_1
I0403 17:00:56.650965 20376 net.cpp:399] inception_3a/output_inception_3a/output_0_split -> inception_3a/output_inception_3a/output_0_split_2
I0403 17:00:56.650990 20376 net.cpp:399] inception_3a/output_inception_3a/output_0_split -> inception_3a/output_inception_3a/output_0_split_3
I0403 17:00:56.651064 20376 net.cpp:141] Setting up inception_3a/output_inception_3a/output_0_split
I0403 17:00:56.651088 20376 net.cpp:148] Top shape: 24 256 28 28 (4816896)
I0403 17:00:56.651108 20376 net.cpp:148] Top shape: 24 256 28 28 (4816896)
I0403 17:00:56.651126 20376 net.cpp:148] Top shape: 24 256 28 28 (4816896)
I0403 17:00:56.651144 20376 net.cpp:148] Top shape: 24 256 28 28 (4816896)
I0403 17:00:56.651160 20376 net.cpp:156] Memory required for data: 657507360
I0403 17:00:56.651175 20376 layer_factory.hpp:77] Creating layer inception_3b/1x1
I0403 17:00:56.651197 20376 net.cpp:91] Creating Layer inception_3b/1x1
I0403 17:00:56.651214 20376 net.cpp:425] inception_3b/1x1 <- inception_3a/output_inception_3a/output_0_split_0
I0403 17:00:56.651237 20376 net.cpp:399] inception_3b/1x1 -> inception_3b/1x1
I0403 17:00:56.652431 20376 net.cpp:141] Setting up inception_3b/1x1
I0403 17:00:56.652472 20376 net.cpp:148] Top shape: 24 128 28 28 (2408448)
I0403 17:00:56.652492 20376 net.cpp:156] Memory required for data: 667141152
I0403 17:00:56.652519 20376 layer_factory.hpp:77] Creating layer inception_3b/relu_1x1
I0403 17:00:56.652541 20376 net.cpp:91] Creating Layer inception_3b/relu_1x1
I0403 17:00:56.652559 20376 net.cpp:425] inception_3b/relu_1x1 <- inception_3b/1x1
I0403 17:00:56.652577 20376 net.cpp:386] inception_3b/relu_1x1 -> inception_3b/1x1 (in-place)
I0403 17:00:56.652762 20376 net.cpp:141] Setting up inception_3b/relu_1x1
I0403 17:00:56.652801 20376 net.cpp:148] Top shape: 24 128 28 28 (2408448)
I0403 17:00:56.652818 20376 net.cpp:156] Memory required for data: 676774944
I0403 17:00:56.652834 20376 layer_factory.hpp:77] Creating layer inception_3b/3x3_reduce
I0403 17:00:56.652858 20376 net.cpp:91] Creating Layer inception_3b/3x3_reduce
I0403 17:00:56.652876 20376 net.cpp:425] inception_3b/3x3_reduce <- inception_3a/output_inception_3a/output_0_split_1
I0403 17:00:56.652896 20376 net.cpp:399] inception_3b/3x3_reduce -> inception_3b/3x3_reduce
I0403 17:00:56.654111 20376 net.cpp:141] Setting up inception_3b/3x3_reduce
I0403 17:00:56.654140 20376 net.cpp:148] Top shape: 24 128 28 28 (2408448)
I0403 17:00:56.654156 20376 net.cpp:156] Memory required for data: 686408736
I0403 17:00:56.654175 20376 layer_factory.hpp:77] Creating layer inception_3b/relu_3x3_reduce
I0403 17:00:56.654196 20376 net.cpp:91] Creating Layer inception_3b/relu_3x3_reduce
I0403 17:00:56.654214 20376 net.cpp:425] inception_3b/relu_3x3_reduce <- inception_3b/3x3_reduce
I0403 17:00:56.654232 20376 net.cpp:386] inception_3b/relu_3x3_reduce -> inception_3b/3x3_reduce (in-place)
I0403 17:00:56.654405 20376 net.cpp:141] Setting up inception_3b/relu_3x3_reduce
I0403 17:00:56.654434 20376 net.cpp:148] Top shape: 24 128 28 28 (2408448)
I0403 17:00:56.654451 20376 net.cpp:156] Memory required for data: 696042528
I0403 17:00:56.654466 20376 layer_factory.hpp:77] Creating layer inception_3b/3x3
I0403 17:00:56.654491 20376 net.cpp:91] Creating Layer inception_3b/3x3
I0403 17:00:56.654510 20376 net.cpp:425] inception_3b/3x3 <- inception_3b/3x3_reduce
I0403 17:00:56.654531 20376 net.cpp:399] inception_3b/3x3 -> inception_3b/3x3
I0403 17:00:56.657413 20376 net.cpp:141] Setting up inception_3b/3x3
I0403 17:00:56.657444 20376 net.cpp:148] Top shape: 24 192 28 28 (3612672)
I0403 17:00:56.657461 20376 net.cpp:156] Memory required for data: 710493216
I0403 17:00:56.657480 20376 layer_factory.hpp:77] Creating layer inception_3b/relu_3x3
I0403 17:00:56.657500 20376 net.cpp:91] Creating Layer inception_3b/relu_3x3
I0403 17:00:56.657516 20376 net.cpp:425] inception_3b/relu_3x3 <- inception_3b/3x3
I0403 17:00:56.657536 20376 net.cpp:386] inception_3b/relu_3x3 -> inception_3b/3x3 (in-place)
I0403 17:00:56.657815 20376 net.cpp:141] Setting up inception_3b/relu_3x3
I0403 17:00:56.657847 20376 net.cpp:148] Top shape: 24 192 28 28 (3612672)
I0403 17:00:56.657866 20376 net.cpp:156] Memory required for data: 724943904
I0403 17:00:56.657881 20376 layer_factory.hpp:77] Creating layer inception_3b/5x5_reduce
I0403 17:00:56.657905 20376 net.cpp:91] Creating Layer inception_3b/5x5_reduce
I0403 17:00:56.657924 20376 net.cpp:425] inception_3b/5x5_reduce <- inception_3a/output_inception_3a/output_0_split_2
I0403 17:00:56.657944 20376 net.cpp:399] inception_3b/5x5_reduce -> inception_3b/5x5_reduce
I0403 17:00:56.658920 20376 net.cpp:141] Setting up inception_3b/5x5_reduce
I0403 17:00:56.658948 20376 net.cpp:148] Top shape: 24 32 28 28 (602112)
I0403 17:00:56.658964 20376 net.cpp:156] Memory required for data: 727352352
I0403 17:00:56.658983 20376 layer_factory.hpp:77] Creating layer inception_3b/relu_5x5_reduce
I0403 17:00:56.659004 20376 net.cpp:91] Creating Layer inception_3b/relu_5x5_reduce
I0403 17:00:56.659024 20376 net.cpp:425] inception_3b/relu_5x5_reduce <- inception_3b/5x5_reduce
I0403 17:00:56.659041 20376 net.cpp:386] inception_3b/relu_5x5_reduce -> inception_3b/5x5_reduce (in-place)
I0403 17:00:56.659227 20376 net.cpp:141] Setting up inception_3b/relu_5x5_reduce
I0403 17:00:56.659265 20376 net.cpp:148] Top shape: 24 32 28 28 (602112)
I0403 17:00:56.659281 20376 net.cpp:156] Memory required for data: 729760800
I0403 17:00:56.659297 20376 layer_factory.hpp:77] Creating layer inception_3b/5x5
I0403 17:00:56.659320 20376 net.cpp:91] Creating Layer inception_3b/5x5
I0403 17:00:56.659338 20376 net.cpp:425] inception_3b/5x5 <- inception_3b/5x5_reduce
I0403 17:00:56.659361 20376 net.cpp:399] inception_3b/5x5 -> inception_3b/5x5
I0403 17:00:56.661341 20376 net.cpp:141] Setting up inception_3b/5x5
I0403 17:00:56.661371 20376 net.cpp:148] Top shape: 24 96 28 28 (1806336)
I0403 17:00:56.661388 20376 net.cpp:156] Memory required for data: 736986144
I0403 17:00:56.661408 20376 layer_factory.hpp:77] Creating layer inception_3b/relu_5x5
I0403 17:00:56.661428 20376 net.cpp:91] Creating Layer inception_3b/relu_5x5
I0403 17:00:56.661445 20376 net.cpp:425] inception_3b/relu_5x5 <- inception_3b/5x5
I0403 17:00:56.661464 20376 net.cpp:386] inception_3b/relu_5x5 -> inception_3b/5x5 (in-place)
I0403 17:00:56.661660 20376 net.cpp:141] Setting up inception_3b/relu_5x5
I0403 17:00:56.661687 20376 net.cpp:148] Top shape: 24 96 28 28 (1806336)
I0403 17:00:56.661702 20376 net.cpp:156] Memory required for data: 744211488
I0403 17:00:56.661718 20376 layer_factory.hpp:77] Creating layer inception_3b/pool
I0403 17:00:56.661736 20376 net.cpp:91] Creating Layer inception_3b/pool
I0403 17:00:56.661752 20376 net.cpp:425] inception_3b/pool <- inception_3a/output_inception_3a/output_0_split_3
I0403 17:00:56.661772 20376 net.cpp:399] inception_3b/pool -> inception_3b/pool
I0403 17:00:56.661829 20376 net.cpp:141] Setting up inception_3b/pool
I0403 17:00:56.661854 20376 net.cpp:148] Top shape: 24 256 28 28 (4816896)
I0403 17:00:56.661870 20376 net.cpp:156] Memory required for data: 763479072
I0403 17:00:56.661885 20376 layer_factory.hpp:77] Creating layer inception_3b/pool_proj
I0403 17:00:56.661908 20376 net.cpp:91] Creating Layer inception_3b/pool_proj
I0403 17:00:56.661926 20376 net.cpp:425] inception_3b/pool_proj <- inception_3b/pool
I0403 17:00:56.661948 20376 net.cpp:399] inception_3b/pool_proj -> inception_3b/pool_proj
I0403 17:00:56.662992 20376 net.cpp:141] Setting up inception_3b/pool_proj
I0403 17:00:56.663020 20376 net.cpp:148] Top shape: 24 64 28 28 (1204224)
I0403 17:00:56.663038 20376 net.cpp:156] Memory required for data: 768295968
I0403 17:00:56.663056 20376 layer_factory.hpp:77] Creating layer inception_3b/relu_pool_proj
I0403 17:00:56.663075 20376 net.cpp:91] Creating Layer inception_3b/relu_pool_proj
I0403 17:00:56.663094 20376 net.cpp:425] inception_3b/relu_pool_proj <- inception_3b/pool_proj
I0403 17:00:56.663113 20376 net.cpp:386] inception_3b/relu_pool_proj -> inception_3b/pool_proj (in-place)
I0403 17:00:56.663518 20376 net.cpp:141] Setting up inception_3b/relu_pool_proj
I0403 17:00:56.663548 20376 net.cpp:148] Top shape: 24 64 28 28 (1204224)
I0403 17:00:56.663565 20376 net.cpp:156] Memory required for data: 773112864
I0403 17:00:56.663583 20376 layer_factory.hpp:77] Creating layer inception_3b/output
I0403 17:00:56.663601 20376 net.cpp:91] Creating Layer inception_3b/output
I0403 17:00:56.663622 20376 net.cpp:425] inception_3b/output <- inception_3b/1x1
I0403 17:00:56.663640 20376 net.cpp:425] inception_3b/output <- inception_3b/3x3
I0403 17:00:56.663657 20376 net.cpp:425] inception_3b/output <- inception_3b/5x5
I0403 17:00:56.663676 20376 net.cpp:425] inception_3b/output <- inception_3b/pool_proj
I0403 17:00:56.663696 20376 net.cpp:399] inception_3b/output -> inception_3b/output
I0403 17:00:56.663743 20376 net.cpp:141] Setting up inception_3b/output
I0403 17:00:56.663768 20376 net.cpp:148] Top shape: 24 480 28 28 (9031680)
I0403 17:00:56.663784 20376 net.cpp:156] Memory required for data: 809239584
I0403 17:00:56.663800 20376 layer_factory.hpp:77] Creating layer pool3/3x3_s2
I0403 17:00:56.663820 20376 net.cpp:91] Creating Layer pool3/3x3_s2
I0403 17:00:56.663838 20376 net.cpp:425] pool3/3x3_s2 <- inception_3b/output
I0403 17:00:56.663858 20376 net.cpp:399] pool3/3x3_s2 -> pool3/3x3_s2
I0403 17:00:56.663947 20376 net.cpp:141] Setting up pool3/3x3_s2
I0403 17:00:56.663972 20376 net.cpp:148] Top shape: 24 480 14 14 (2257920)
I0403 17:00:56.663988 20376 net.cpp:156] Memory required for data: 818271264
I0403 17:00:56.664005 20376 layer_factory.hpp:77] Creating layer pool3/3x3_s2_pool3/3x3_s2_0_split
I0403 17:00:56.664022 20376 net.cpp:91] Creating Layer pool3/3x3_s2_pool3/3x3_s2_0_split
I0403 17:00:56.664038 20376 net.cpp:425] pool3/3x3_s2_pool3/3x3_s2_0_split <- pool3/3x3_s2
I0403 17:00:56.664059 20376 net.cpp:399] pool3/3x3_s2_pool3/3x3_s2_0_split -> pool3/3x3_s2_pool3/3x3_s2_0_split_0
I0403 17:00:56.664082 20376 net.cpp:399] pool3/3x3_s2_pool3/3x3_s2_0_split -> pool3/3x3_s2_pool3/3x3_s2_0_split_1
I0403 17:00:56.664101 20376 net.cpp:399] pool3/3x3_s2_pool3/3x3_s2_0_split -> pool3/3x3_s2_pool3/3x3_s2_0_split_2
I0403 17:00:56.664121 20376 net.cpp:399] pool3/3x3_s2_pool3/3x3_s2_0_split -> pool3/3x3_s2_pool3/3x3_s2_0_split_3
I0403 17:00:56.664199 20376 net.cpp:141] Setting up pool3/3x3_s2_pool3/3x3_s2_0_split
I0403 17:00:56.664224 20376 net.cpp:148] Top shape: 24 480 14 14 (2257920)
I0403 17:00:56.664242 20376 net.cpp:148] Top shape: 24 480 14 14 (2257920)
I0403 17:00:56.664257 20376 net.cpp:148] Top shape: 24 480 14 14 (2257920)
I0403 17:00:56.664273 20376 net.cpp:148] Top shape: 24 480 14 14 (2257920)
I0403 17:00:56.664286 20376 net.cpp:156] Memory required for data: 854397984
I0403 17:00:56.664301 20376 layer_factory.hpp:77] Creating layer inception_4a/1x1
I0403 17:00:56.664324 20376 net.cpp:91] Creating Layer inception_4a/1x1
I0403 17:00:56.664342 20376 net.cpp:425] inception_4a/1x1 <- pool3/3x3_s2_pool3/3x3_s2_0_split_0
I0403 17:00:56.664364 20376 net.cpp:399] inception_4a/1x1 -> inception_4a/1x1
I0403 17:00:56.665992 20376 net.cpp:141] Setting up inception_4a/1x1
I0403 17:00:56.666021 20376 net.cpp:148] Top shape: 24 192 14 14 (903168)
I0403 17:00:56.666038 20376 net.cpp:156] Memory required for data: 858010656
I0403 17:00:56.666059 20376 layer_factory.hpp:77] Creating layer inception_4a/relu_1x1
I0403 17:00:56.666079 20376 net.cpp:91] Creating Layer inception_4a/relu_1x1
I0403 17:00:56.666096 20376 net.cpp:425] inception_4a/relu_1x1 <- inception_4a/1x1
I0403 17:00:56.666116 20376 net.cpp:386] inception_4a/relu_1x1 -> inception_4a/1x1 (in-place)
I0403 17:00:56.666297 20376 net.cpp:141] Setting up inception_4a/relu_1x1
I0403 17:00:56.666324 20376 net.cpp:148] Top shape: 24 192 14 14 (903168)
I0403 17:00:56.666339 20376 net.cpp:156] Memory required for data: 861623328
I0403 17:00:56.666357 20376 layer_factory.hpp:77] Creating layer inception_4a/3x3_reduce
I0403 17:00:56.666380 20376 net.cpp:91] Creating Layer inception_4a/3x3_reduce
I0403 17:00:56.666399 20376 net.cpp:425] inception_4a/3x3_reduce <- pool3/3x3_s2_pool3/3x3_s2_0_split_1
I0403 17:00:56.666420 20376 net.cpp:399] inception_4a/3x3_reduce -> inception_4a/3x3_reduce
I0403 17:00:56.667729 20376 net.cpp:141] Setting up inception_4a/3x3_reduce
I0403 17:00:56.667759 20376 net.cpp:148] Top shape: 24 96 14 14 (451584)
I0403 17:00:56.667776 20376 net.cpp:156] Memory required for data: 863429664
I0403 17:00:56.667803 20376 layer_factory.hpp:77] Creating layer inception_4a/relu_3x3_reduce
I0403 17:00:56.667824 20376 net.cpp:91] Creating Layer inception_4a/relu_3x3_reduce
I0403 17:00:56.667840 20376 net.cpp:425] inception_4a/relu_3x3_reduce <- inception_4a/3x3_reduce
I0403 17:00:56.667861 20376 net.cpp:386] inception_4a/relu_3x3_reduce -> inception_4a/3x3_reduce (in-place)
I0403 17:00:56.668040 20376 net.cpp:141] Setting up inception_4a/relu_3x3_reduce
I0403 17:00:56.668067 20376 net.cpp:148] Top shape: 24 96 14 14 (451584)
I0403 17:00:56.668083 20376 net.cpp:156] Memory required for data: 865236000
I0403 17:00:56.668100 20376 layer_factory.hpp:77] Creating layer inception_4a/3x3
I0403 17:00:56.668123 20376 net.cpp:91] Creating Layer inception_4a/3x3
I0403 17:00:56.668143 20376 net.cpp:425] inception_4a/3x3 <- inception_4a/3x3_reduce
I0403 17:00:56.668166 20376 net.cpp:399] inception_4a/3x3 -> inception_4a/3x3
I0403 17:00:56.670903 20376 net.cpp:141] Setting up inception_4a/3x3
I0403 17:00:56.670934 20376 net.cpp:148] Top shape: 24 208 14 14 (978432)
I0403 17:00:56.670953 20376 net.cpp:156] Memory required for data: 869149728
I0403 17:00:56.670971 20376 layer_factory.hpp:77] Creating layer inception_4a/relu_3x3
I0403 17:00:56.670992 20376 net.cpp:91] Creating Layer inception_4a/relu_3x3
I0403 17:00:56.671011 20376 net.cpp:425] inception_4a/relu_3x3 <- inception_4a/3x3
I0403 17:00:56.671030 20376 net.cpp:386] inception_4a/relu_3x3 -> inception_4a/3x3 (in-place)
I0403 17:00:56.671313 20376 net.cpp:141] Setting up inception_4a/relu_3x3
I0403 17:00:56.671341 20376 net.cpp:148] Top shape: 24 208 14 14 (978432)
I0403 17:00:56.671357 20376 net.cpp:156] Memory required for data: 873063456
I0403 17:00:56.671373 20376 layer_factory.hpp:77] Creating layer inception_4a/5x5_reduce
I0403 17:00:56.671396 20376 net.cpp:91] Creating Layer inception_4a/5x5_reduce
I0403 17:00:56.671416 20376 net.cpp:425] inception_4a/5x5_reduce <- pool3/3x3_s2_pool3/3x3_s2_0_split_2
I0403 17:00:56.671439 20376 net.cpp:399] inception_4a/5x5_reduce -> inception_4a/5x5_reduce
I0403 17:00:56.672474 20376 net.cpp:141] Setting up inception_4a/5x5_reduce
I0403 17:00:56.672504 20376 net.cpp:148] Top shape: 24 16 14 14 (75264)
I0403 17:00:56.672521 20376 net.cpp:156] Memory required for data: 873364512
I0403 17:00:56.672540 20376 layer_factory.hpp:77] Creating layer inception_4a/relu_5x5_reduce
I0403 17:00:56.672561 20376 net.cpp:91] Creating Layer inception_4a/relu_5x5_reduce
I0403 17:00:56.672580 20376 net.cpp:425] inception_4a/relu_5x5_reduce <- inception_4a/5x5_reduce
I0403 17:00:56.672598 20376 net.cpp:386] inception_4a/relu_5x5_reduce -> inception_4a/5x5_reduce (in-place)
I0403 17:00:56.672790 20376 net.cpp:141] Setting up inception_4a/relu_5x5_reduce
I0403 17:00:56.672817 20376 net.cpp:148] Top shape: 24 16 14 14 (75264)
I0403 17:00:56.672833 20376 net.cpp:156] Memory required for data: 873665568
I0403 17:00:56.672849 20376 layer_factory.hpp:77] Creating layer inception_4a/5x5
I0403 17:00:56.672871 20376 net.cpp:91] Creating Layer inception_4a/5x5
I0403 17:00:56.672890 20376 net.cpp:425] inception_4a/5x5 <- inception_4a/5x5_reduce
I0403 17:00:56.672914 20376 net.cpp:399] inception_4a/5x5 -> inception_4a/5x5
I0403 17:00:56.674026 20376 net.cpp:141] Setting up inception_4a/5x5
I0403 17:00:56.674059 20376 net.cpp:148] Top shape: 24 48 14 14 (225792)
I0403 17:00:56.674077 20376 net.cpp:156] Memory required for data: 874568736
I0403 17:00:56.674095 20376 layer_factory.hpp:77] Creating layer inception_4a/relu_5x5
I0403 17:00:56.674115 20376 net.cpp:91] Creating Layer inception_4a/relu_5x5
I0403 17:00:56.674132 20376 net.cpp:425] inception_4a/relu_5x5 <- inception_4a/5x5
I0403 17:00:56.674154 20376 net.cpp:386] inception_4a/relu_5x5 -> inception_4a/5x5 (in-place)
I0403 17:00:56.674338 20376 net.cpp:141] Setting up inception_4a/relu_5x5
I0403 17:00:56.674365 20376 net.cpp:148] Top shape: 24 48 14 14 (225792)
I0403 17:00:56.674382 20376 net.cpp:156] Memory required for data: 875471904
I0403 17:00:56.674398 20376 layer_factory.hpp:77] Creating layer inception_4a/pool
I0403 17:00:56.674417 20376 net.cpp:91] Creating Layer inception_4a/pool
I0403 17:00:56.674434 20376 net.cpp:425] inception_4a/pool <- pool3/3x3_s2_pool3/3x3_s2_0_split_3
I0403 17:00:56.674456 20376 net.cpp:399] inception_4a/pool -> inception_4a/pool
I0403 17:00:56.674521 20376 net.cpp:141] Setting up inception_4a/pool
I0403 17:00:56.674547 20376 net.cpp:148] Top shape: 24 480 14 14 (2257920)
I0403 17:00:56.674563 20376 net.cpp:156] Memory required for data: 884503584
I0403 17:00:56.674579 20376 layer_factory.hpp:77] Creating layer inception_4a/pool_proj
I0403 17:00:56.674612 20376 net.cpp:91] Creating Layer inception_4a/pool_proj
I0403 17:00:56.674635 20376 net.cpp:425] inception_4a/pool_proj <- inception_4a/pool
I0403 17:00:56.674657 20376 net.cpp:399] inception_4a/pool_proj -> inception_4a/pool_proj
I0403 17:00:56.675851 20376 net.cpp:141] Setting up inception_4a/pool_proj
I0403 17:00:56.675881 20376 net.cpp:148] Top shape: 24 64 14 14 (301056)
I0403 17:00:56.675915 20376 net.cpp:156] Memory required for data: 885707808
I0403 17:00:56.675935 20376 layer_factory.hpp:77] Creating layer inception_4a/relu_pool_proj
I0403 17:00:56.675956 20376 net.cpp:91] Creating Layer inception_4a/relu_pool_proj
I0403 17:00:56.675974 20376 net.cpp:425] inception_4a/relu_pool_proj <- inception_4a/pool_proj
I0403 17:00:56.675993 20376 net.cpp:386] inception_4a/relu_pool_proj -> inception_4a/pool_proj (in-place)
I0403 17:00:56.676285 20376 net.cpp:141] Setting up inception_4a/relu_pool_proj
I0403 17:00:56.676312 20376 net.cpp:148] Top shape: 24 64 14 14 (301056)
I0403 17:00:56.676329 20376 net.cpp:156] Memory required for data: 886912032
I0403 17:00:56.676344 20376 layer_factory.hpp:77] Creating layer inception_4a/output
I0403 17:00:56.676362 20376 net.cpp:91] Creating Layer inception_4a/output
I0403 17:00:56.676379 20376 net.cpp:425] inception_4a/output <- inception_4a/1x1
I0403 17:00:56.676398 20376 net.cpp:425] inception_4a/output <- inception_4a/3x3
I0403 17:00:56.676415 20376 net.cpp:425] inception_4a/output <- inception_4a/5x5
I0403 17:00:56.676432 20376 net.cpp:425] inception_4a/output <- inception_4a/pool_proj
I0403 17:00:56.676452 20376 net.cpp:399] inception_4a/output -> inception_4a/output
I0403 17:00:56.676498 20376 net.cpp:141] Setting up inception_4a/output
I0403 17:00:56.676527 20376 net.cpp:148] Top shape: 24 512 14 14 (2408448)
I0403 17:00:56.676542 20376 net.cpp:156] Memory required for data: 896545824
I0403 17:00:56.676560 20376 layer_factory.hpp:77] Creating layer inception_4a/output_inception_4a/output_0_split
I0403 17:00:56.676578 20376 net.cpp:91] Creating Layer inception_4a/output_inception_4a/output_0_split
I0403 17:00:56.676594 20376 net.cpp:425] inception_4a/output_inception_4a/output_0_split <- inception_4a/output
I0403 17:00:56.676631 20376 net.cpp:399] inception_4a/output_inception_4a/output_0_split -> inception_4a/output_inception_4a/output_0_split_0
I0403 17:00:56.676656 20376 net.cpp:399] inception_4a/output_inception_4a/output_0_split -> inception_4a/output_inception_4a/output_0_split_1
I0403 17:00:56.676677 20376 net.cpp:399] inception_4a/output_inception_4a/output_0_split -> inception_4a/output_inception_4a/output_0_split_2
I0403 17:00:56.676700 20376 net.cpp:399] inception_4a/output_inception_4a/output_0_split -> inception_4a/output_inception_4a/output_0_split_3
I0403 17:00:56.676723 20376 net.cpp:399] inception_4a/output_inception_4a/output_0_split -> inception_4a/output_inception_4a/output_0_split_4
I0403 17:00:56.676817 20376 net.cpp:141] Setting up inception_4a/output_inception_4a/output_0_split
I0403 17:00:56.676842 20376 net.cpp:148] Top shape: 24 512 14 14 (2408448)
I0403 17:00:56.676861 20376 net.cpp:148] Top shape: 24 512 14 14 (2408448)
I0403 17:00:56.676877 20376 net.cpp:148] Top shape: 24 512 14 14 (2408448)
I0403 17:00:56.676894 20376 net.cpp:148] Top shape: 24 512 14 14 (2408448)
I0403 17:00:56.676915 20376 net.cpp:148] Top shape: 24 512 14 14 (2408448)
I0403 17:00:56.676930 20376 net.cpp:156] Memory required for data: 944714784
I0403 17:00:56.676946 20376 layer_factory.hpp:77] Creating layer loss1/ave_pool
I0403 17:00:56.676967 20376 net.cpp:91] Creating Layer loss1/ave_pool
I0403 17:00:56.676985 20376 net.cpp:425] loss1/ave_pool <- inception_4a/output_inception_4a/output_0_split_0
I0403 17:00:56.677005 20376 net.cpp:399] loss1/ave_pool -> loss1/ave_pool
I0403 17:00:56.677220 20376 net.cpp:141] Setting up loss1/ave_pool
I0403 17:00:56.677248 20376 net.cpp:148] Top shape: 24 512 4 4 (196608)
I0403 17:00:56.677265 20376 net.cpp:156] Memory required for data: 945501216
I0403 17:00:56.677280 20376 layer_factory.hpp:77] Creating layer loss1/conv
I0403 17:00:56.677304 20376 net.cpp:91] Creating Layer loss1/conv
I0403 17:00:56.677322 20376 net.cpp:425] loss1/conv <- loss1/ave_pool
I0403 17:00:56.677345 20376 net.cpp:399] loss1/conv -> loss1/conv
I0403 17:00:56.678823 20376 net.cpp:141] Setting up loss1/conv
I0403 17:00:56.678854 20376 net.cpp:148] Top shape: 24 128 4 4 (49152)
I0403 17:00:56.678871 20376 net.cpp:156] Memory required for data: 945697824
I0403 17:00:56.678907 20376 layer_factory.hpp:77] Creating layer loss1/relu_conv
I0403 17:00:56.678930 20376 net.cpp:91] Creating Layer loss1/relu_conv
I0403 17:00:56.678948 20376 net.cpp:425] loss1/relu_conv <- loss1/conv
I0403 17:00:56.678968 20376 net.cpp:386] loss1/relu_conv -> loss1/conv (in-place)
I0403 17:00:56.679257 20376 net.cpp:141] Setting up loss1/relu_conv
I0403 17:00:56.679286 20376 net.cpp:148] Top shape: 24 128 4 4 (49152)
I0403 17:00:56.679302 20376 net.cpp:156] Memory required for data: 945894432
I0403 17:00:56.679319 20376 layer_factory.hpp:77] Creating layer loss1/fc
I0403 17:00:56.679347 20376 net.cpp:91] Creating Layer loss1/fc
I0403 17:00:56.679366 20376 net.cpp:425] loss1/fc <- loss1/conv
I0403 17:00:56.679388 20376 net.cpp:399] loss1/fc -> loss1/fc
I0403 17:00:56.697944 20376 net.cpp:141] Setting up loss1/fc
I0403 17:00:56.697983 20376 net.cpp:148] Top shape: 24 1024 (24576)
I0403 17:00:56.698000 20376 net.cpp:156] Memory required for data: 945992736
I0403 17:00:56.698020 20376 layer_factory.hpp:77] Creating layer loss1/relu_fc
I0403 17:00:56.698040 20376 net.cpp:91] Creating Layer loss1/relu_fc
I0403 17:00:56.698060 20376 net.cpp:425] loss1/relu_fc <- loss1/fc
I0403 17:00:56.698081 20376 net.cpp:386] loss1/relu_fc -> loss1/fc (in-place)
I0403 17:00:56.698277 20376 net.cpp:141] Setting up loss1/relu_fc
I0403 17:00:56.698304 20376 net.cpp:148] Top shape: 24 1024 (24576)
I0403 17:00:56.698320 20376 net.cpp:156] Memory required for data: 946091040
I0403 17:00:56.698336 20376 layer_factory.hpp:77] Creating layer loss1/drop_fc
I0403 17:00:56.698366 20376 net.cpp:91] Creating Layer loss1/drop_fc
I0403 17:00:56.698385 20376 net.cpp:425] loss1/drop_fc <- loss1/fc
I0403 17:00:56.698402 20376 net.cpp:386] loss1/drop_fc -> loss1/fc (in-place)
I0403 17:00:56.698457 20376 net.cpp:141] Setting up loss1/drop_fc
I0403 17:00:56.698482 20376 net.cpp:148] Top shape: 24 1024 (24576)
I0403 17:00:56.698498 20376 net.cpp:156] Memory required for data: 946189344
I0403 17:00:56.698515 20376 layer_factory.hpp:77] Creating layer loss1/classifier_plantvillage
I0403 17:00:56.698534 20376 net.cpp:91] Creating Layer loss1/classifier_plantvillage
I0403 17:00:56.698554 20376 net.cpp:425] loss1/classifier_plantvillage <- loss1/fc
I0403 17:00:56.698575 20376 net.cpp:399] loss1/classifier_plantvillage -> loss1/classifier_plantvillage
I0403 17:00:56.699517 20376 net.cpp:141] Setting up loss1/classifier_plantvillage
I0403 17:00:56.699547 20376 net.cpp:148] Top shape: 24 38 (912)
I0403 17:00:56.699564 20376 net.cpp:156] Memory required for data: 946192992
I0403 17:00:56.699584 20376 layer_factory.hpp:77] Creating layer loss1/classifier_plantvillage_loss1/classifier_plantvillage_0_split
I0403 17:00:56.699610 20376 net.cpp:91] Creating Layer loss1/classifier_plantvillage_loss1/classifier_plantvillage_0_split
I0403 17:00:56.699630 20376 net.cpp:425] loss1/classifier_plantvillage_loss1/classifier_plantvillage_0_split <- loss1/classifier_plantvillage
I0403 17:00:56.699650 20376 net.cpp:399] loss1/classifier_plantvillage_loss1/classifier_plantvillage_0_split -> loss1/classifier_plantvillage_loss1/classifier_plantvillage_0_split_0
I0403 17:00:56.699672 20376 net.cpp:399] loss1/classifier_plantvillage_loss1/classifier_plantvillage_0_split -> loss1/classifier_plantvillage_loss1/classifier_plantvillage_0_split_1
I0403 17:00:56.699694 20376 net.cpp:399] loss1/classifier_plantvillage_loss1/classifier_plantvillage_0_split -> loss1/classifier_plantvillage_loss1/classifier_plantvillage_0_split_2
I0403 17:00:56.699766 20376 net.cpp:141] Setting up loss1/classifier_plantvillage_loss1/classifier_plantvillage_0_split
I0403 17:00:56.699791 20376 net.cpp:148] Top shape: 24 38 (912)
I0403 17:00:56.699808 20376 net.cpp:148] Top shape: 24 38 (912)
I0403 17:00:56.699826 20376 net.cpp:148] Top shape: 24 38 (912)
I0403 17:00:56.699839 20376 net.cpp:156] Memory required for data: 946203936
I0403 17:00:56.699856 20376 layer_factory.hpp:77] Creating layer inception_4b/1x1
I0403 17:00:56.699882 20376 net.cpp:91] Creating Layer inception_4b/1x1
I0403 17:00:56.699918 20376 net.cpp:425] inception_4b/1x1 <- inception_4a/output_inception_4a/output_0_split_1
I0403 17:00:56.699940 20376 net.cpp:399] inception_4b/1x1 -> inception_4b/1x1
I0403 17:00:56.701640 20376 net.cpp:141] Setting up inception_4b/1x1
I0403 17:00:56.701671 20376 net.cpp:148] Top shape: 24 160 14 14 (752640)
I0403 17:00:56.701689 20376 net.cpp:156] Memory required for data: 949214496
I0403 17:00:56.701709 20376 layer_factory.hpp:77] Creating layer inception_4b/relu_1x1
I0403 17:00:56.701730 20376 net.cpp:91] Creating Layer inception_4b/relu_1x1
I0403 17:00:56.701748 20376 net.cpp:425] inception_4b/relu_1x1 <- inception_4b/1x1
I0403 17:00:56.701767 20376 net.cpp:386] inception_4b/relu_1x1 -> inception_4b/1x1 (in-place)
I0403 17:00:56.701957 20376 net.cpp:141] Setting up inception_4b/relu_1x1
I0403 17:00:56.701983 20376 net.cpp:148] Top shape: 24 160 14 14 (752640)
I0403 17:00:56.701999 20376 net.cpp:156] Memory required for data: 952225056
I0403 17:00:56.702015 20376 layer_factory.hpp:77] Creating layer inception_4b/3x3_reduce
I0403 17:00:56.702040 20376 net.cpp:91] Creating Layer inception_4b/3x3_reduce
I0403 17:00:56.702060 20376 net.cpp:425] inception_4b/3x3_reduce <- inception_4a/output_inception_4a/output_0_split_2
I0403 17:00:56.702085 20376 net.cpp:399] inception_4b/3x3_reduce -> inception_4b/3x3_reduce
I0403 17:00:56.703470 20376 net.cpp:141] Setting up inception_4b/3x3_reduce
I0403 17:00:56.703503 20376 net.cpp:148] Top shape: 24 112 14 14 (526848)
I0403 17:00:56.703521 20376 net.cpp:156] Memory required for data: 954332448
I0403 17:00:56.703542 20376 layer_factory.hpp:77] Creating layer inception_4b/relu_3x3_reduce
I0403 17:00:56.703560 20376 net.cpp:91] Creating Layer inception_4b/relu_3x3_reduce
I0403 17:00:56.703579 20376 net.cpp:425] inception_4b/relu_3x3_reduce <- inception_4b/3x3_reduce
I0403 17:00:56.703601 20376 net.cpp:386] inception_4b/relu_3x3_reduce -> inception_4b/3x3_reduce (in-place)
I0403 17:00:56.703896 20376 net.cpp:141] Setting up inception_4b/relu_3x3_reduce
I0403 17:00:56.703927 20376 net.cpp:148] Top shape: 24 112 14 14 (526848)
I0403 17:00:56.703945 20376 net.cpp:156] Memory required for data: 956439840
I0403 17:00:56.703961 20376 layer_factory.hpp:77] Creating layer inception_4b/3x3
I0403 17:00:56.703985 20376 net.cpp:91] Creating Layer inception_4b/3x3
I0403 17:00:56.704005 20376 net.cpp:425] inception_4b/3x3 <- inception_4b/3x3_reduce
I0403 17:00:56.704026 20376 net.cpp:399] inception_4b/3x3 -> inception_4b/3x3
I0403 17:00:56.707094 20376 net.cpp:141] Setting up inception_4b/3x3
I0403 17:00:56.707125 20376 net.cpp:148] Top shape: 24 224 14 14 (1053696)
I0403 17:00:56.707144 20376 net.cpp:156] Memory required for data: 960654624
I0403 17:00:56.707164 20376 layer_factory.hpp:77] Creating layer inception_4b/relu_3x3
I0403 17:00:56.707185 20376 net.cpp:91] Creating Layer inception_4b/relu_3x3
I0403 17:00:56.707204 20376 net.cpp:425] inception_4b/relu_3x3 <- inception_4b/3x3
I0403 17:00:56.707223 20376 net.cpp:386] inception_4b/relu_3x3 -> inception_4b/3x3 (in-place)
I0403 17:00:56.707412 20376 net.cpp:141] Setting up inception_4b/relu_3x3
I0403 17:00:56.707439 20376 net.cpp:148] Top shape: 24 224 14 14 (1053696)
I0403 17:00:56.707455 20376 net.cpp:156] Memory required for data: 964869408
I0403 17:00:56.707471 20376 layer_factory.hpp:77] Creating layer inception_4b/5x5_reduce
I0403 17:00:56.707495 20376 net.cpp:91] Creating Layer inception_4b/5x5_reduce
I0403 17:00:56.707514 20376 net.cpp:425] inception_4b/5x5_reduce <- inception_4a/output_inception_4a/output_0_split_3
I0403 17:00:56.707538 20376 net.cpp:399] inception_4b/5x5_reduce -> inception_4b/5x5_reduce
I0403 17:00:56.708676 20376 net.cpp:141] Setting up inception_4b/5x5_reduce
I0403 17:00:56.708709 20376 net.cpp:148] Top shape: 24 24 14 14 (112896)
I0403 17:00:56.708725 20376 net.cpp:156] Memory required for data: 965320992
I0403 17:00:56.708746 20376 layer_factory.hpp:77] Creating layer inception_4b/relu_5x5_reduce
I0403 17:00:56.708765 20376 net.cpp:91] Creating Layer inception_4b/relu_5x5_reduce
I0403 17:00:56.708797 20376 net.cpp:425] inception_4b/relu_5x5_reduce <- inception_4b/5x5_reduce
I0403 17:00:56.708817 20376 net.cpp:386] inception_4b/relu_5x5_reduce -> inception_4b/5x5_reduce (in-place)
I0403 17:00:56.709015 20376 net.cpp:141] Setting up inception_4b/relu_5x5_reduce
I0403 17:00:56.709043 20376 net.cpp:148] Top shape: 24 24 14 14 (112896)
I0403 17:00:56.709059 20376 net.cpp:156] Memory required for data: 965772576
I0403 17:00:56.709076 20376 layer_factory.hpp:77] Creating layer inception_4b/5x5
I0403 17:00:56.709100 20376 net.cpp:91] Creating Layer inception_4b/5x5
I0403 17:00:56.709120 20376 net.cpp:425] inception_4b/5x5 <- inception_4b/5x5_reduce
I0403 17:00:56.709142 20376 net.cpp:399] inception_4b/5x5 -> inception_4b/5x5
I0403 17:00:56.710402 20376 net.cpp:141] Setting up inception_4b/5x5
I0403 17:00:56.710432 20376 net.cpp:148] Top shape: 24 64 14 14 (301056)
I0403 17:00:56.710448 20376 net.cpp:156] Memory required for data: 966976800
I0403 17:00:56.710469 20376 layer_factory.hpp:77] Creating layer inception_4b/relu_5x5
I0403 17:00:56.710491 20376 net.cpp:91] Creating Layer inception_4b/relu_5x5
I0403 17:00:56.710508 20376 net.cpp:425] inception_4b/relu_5x5 <- inception_4b/5x5
I0403 17:00:56.710527 20376 net.cpp:386] inception_4b/relu_5x5 -> inception_4b/5x5 (in-place)
I0403 17:00:56.710826 20376 net.cpp:141] Setting up inception_4b/relu_5x5
I0403 17:00:56.710855 20376 net.cpp:148] Top shape: 24 64 14 14 (301056)
I0403 17:00:56.710873 20376 net.cpp:156] Memory required for data: 968181024
I0403 17:00:56.710889 20376 layer_factory.hpp:77] Creating layer inception_4b/pool
I0403 17:00:56.710911 20376 net.cpp:91] Creating Layer inception_4b/pool
I0403 17:00:56.710930 20376 net.cpp:425] inception_4b/pool <- inception_4a/output_inception_4a/output_0_split_4
I0403 17:00:56.710950 20376 net.cpp:399] inception_4b/pool -> inception_4b/pool
I0403 17:00:56.711019 20376 net.cpp:141] Setting up inception_4b/pool
I0403 17:00:56.711045 20376 net.cpp:148] Top shape: 24 512 14 14 (2408448)
I0403 17:00:56.711062 20376 net.cpp:156] Memory required for data: 977814816
I0403 17:00:56.711077 20376 layer_factory.hpp:77] Creating layer inception_4b/pool_proj
I0403 17:00:56.711100 20376 net.cpp:91] Creating Layer inception_4b/pool_proj
I0403 17:00:56.711119 20376 net.cpp:425] inception_4b/pool_proj <- inception_4b/pool
I0403 17:00:56.711143 20376 net.cpp:399] inception_4b/pool_proj -> inception_4b/pool_proj
I0403 17:00:56.712394 20376 net.cpp:141] Setting up inception_4b/pool_proj
I0403 17:00:56.712424 20376 net.cpp:148] Top shape: 24 64 14 14 (301056)
I0403 17:00:56.712442 20376 net.cpp:156] Memory required for data: 979019040
I0403 17:00:56.712462 20376 layer_factory.hpp:77] Creating layer inception_4b/relu_pool_proj
I0403 17:00:56.712484 20376 net.cpp:91] Creating Layer inception_4b/relu_pool_proj
I0403 17:00:56.712503 20376 net.cpp:425] inception_4b/relu_pool_proj <- inception_4b/pool_proj
I0403 17:00:56.712522 20376 net.cpp:386] inception_4b/relu_pool_proj -> inception_4b/pool_proj (in-place)
I0403 17:00:56.712720 20376 net.cpp:141] Setting up inception_4b/relu_pool_proj
I0403 17:00:56.712749 20376 net.cpp:148] Top shape: 24 64 14 14 (301056)
I0403 17:00:56.712764 20376 net.cpp:156] Memory required for data: 980223264
I0403 17:00:56.712780 20376 layer_factory.hpp:77] Creating layer inception_4b/output
I0403 17:00:56.712798 20376 net.cpp:91] Creating Layer inception_4b/output
I0403 17:00:56.712815 20376 net.cpp:425] inception_4b/output <- inception_4b/1x1
I0403 17:00:56.712833 20376 net.cpp:425] inception_4b/output <- inception_4b/3x3
I0403 17:00:56.712852 20376 net.cpp:425] inception_4b/output <- inception_4b/5x5
I0403 17:00:56.712870 20376 net.cpp:425] inception_4b/output <- inception_4b/pool_proj
I0403 17:00:56.712890 20376 net.cpp:399] inception_4b/output -> inception_4b/output
I0403 17:00:56.712937 20376 net.cpp:141] Setting up inception_4b/output
I0403 17:00:56.712965 20376 net.cpp:148] Top shape: 24 512 14 14 (2408448)
I0403 17:00:56.712985 20376 net.cpp:156] Memory required for data: 989857056
I0403 17:00:56.713016 20376 layer_factory.hpp:77] Creating layer inception_4b/output_inception_4b/output_0_split
I0403 17:00:56.713035 20376 net.cpp:91] Creating Layer inception_4b/output_inception_4b/output_0_split
I0403 17:00:56.713053 20376 net.cpp:425] inception_4b/output_inception_4b/output_0_split <- inception_4b/output
I0403 17:00:56.713071 20376 net.cpp:399] inception_4b/output_inception_4b/output_0_split -> inception_4b/output_inception_4b/output_0_split_0
I0403 17:00:56.713093 20376 net.cpp:399] inception_4b/output_inception_4b/output_0_split -> inception_4b/output_inception_4b/output_0_split_1
I0403 17:00:56.713116 20376 net.cpp:399] inception_4b/output_inception_4b/output_0_split -> inception_4b/output_inception_4b/output_0_split_2
I0403 17:00:56.713140 20376 net.cpp:399] inception_4b/output_inception_4b/output_0_split -> inception_4b/output_inception_4b/output_0_split_3
I0403 17:00:56.713227 20376 net.cpp:141] Setting up inception_4b/output_inception_4b/output_0_split
I0403 17:00:56.713251 20376 net.cpp:148] Top shape: 24 512 14 14 (2408448)
I0403 17:00:56.713270 20376 net.cpp:148] Top shape: 24 512 14 14 (2408448)
I0403 17:00:56.713287 20376 net.cpp:148] Top shape: 24 512 14 14 (2408448)
I0403 17:00:56.713304 20376 net.cpp:148] Top shape: 24 512 14 14 (2408448)
I0403 17:00:56.713318 20376 net.cpp:156] Memory required for data: 1028392224
I0403 17:00:56.713335 20376 layer_factory.hpp:77] Creating layer inception_4c/1x1
I0403 17:00:56.713358 20376 net.cpp:91] Creating Layer inception_4c/1x1
I0403 17:00:56.713378 20376 net.cpp:425] inception_4c/1x1 <- inception_4b/output_inception_4b/output_0_split_0
I0403 17:00:56.713400 20376 net.cpp:399] inception_4c/1x1 -> inception_4c/1x1
I0403 17:00:56.714951 20376 net.cpp:141] Setting up inception_4c/1x1
I0403 17:00:56.714982 20376 net.cpp:148] Top shape: 24 128 14 14 (602112)
I0403 17:00:56.714998 20376 net.cpp:156] Memory required for data: 1030800672
I0403 17:00:56.715019 20376 layer_factory.hpp:77] Creating layer inception_4c/relu_1x1
I0403 17:00:56.715039 20376 net.cpp:91] Creating Layer inception_4c/relu_1x1
I0403 17:00:56.715057 20376 net.cpp:425] inception_4c/relu_1x1 <- inception_4c/1x1
I0403 17:00:56.715078 20376 net.cpp:386] inception_4c/relu_1x1 -> inception_4c/1x1 (in-place)
I0403 17:00:56.715276 20376 net.cpp:141] Setting up inception_4c/relu_1x1
I0403 17:00:56.715302 20376 net.cpp:148] Top shape: 24 128 14 14 (602112)
I0403 17:00:56.715318 20376 net.cpp:156] Memory required for data: 1033209120
I0403 17:00:56.715337 20376 layer_factory.hpp:77] Creating layer inception_4c/3x3_reduce
I0403 17:00:56.715364 20376 net.cpp:91] Creating Layer inception_4c/3x3_reduce
I0403 17:00:56.715386 20376 net.cpp:425] inception_4c/3x3_reduce <- inception_4b/output_inception_4b/output_0_split_1
I0403 17:00:56.715410 20376 net.cpp:399] inception_4c/3x3_reduce -> inception_4c/3x3_reduce
I0403 17:00:56.717517 20376 net.cpp:141] Setting up inception_4c/3x3_reduce
I0403 17:00:56.717552 20376 net.cpp:148] Top shape: 24 128 14 14 (602112)
I0403 17:00:56.717572 20376 net.cpp:156] Memory required for data: 1035617568
I0403 17:00:56.717592 20376 layer_factory.hpp:77] Creating layer inception_4c/relu_3x3_reduce
I0403 17:00:56.717625 20376 net.cpp:91] Creating Layer inception_4c/relu_3x3_reduce
I0403 17:00:56.717645 20376 net.cpp:425] inception_4c/relu_3x3_reduce <- inception_4c/3x3_reduce
I0403 17:00:56.717669 20376 net.cpp:386] inception_4c/relu_3x3_reduce -> inception_4c/3x3_reduce (in-place)
I0403 17:00:56.717973 20376 net.cpp:141] Setting up inception_4c/relu_3x3_reduce
I0403 17:00:56.718003 20376 net.cpp:148] Top shape: 24 128 14 14 (602112)
I0403 17:00:56.718020 20376 net.cpp:156] Memory required for data: 1038026016
I0403 17:00:56.718050 20376 layer_factory.hpp:77] Creating layer inception_4c/3x3
I0403 17:00:56.718073 20376 net.cpp:91] Creating Layer inception_4c/3x3
I0403 17:00:56.718096 20376 net.cpp:425] inception_4c/3x3 <- inception_4c/3x3_reduce
I0403 17:00:56.718119 20376 net.cpp:399] inception_4c/3x3 -> inception_4c/3x3
I0403 17:00:56.722551 20376 net.cpp:141] Setting up inception_4c/3x3
I0403 17:00:56.722599 20376 net.cpp:148] Top shape: 24 256 14 14 (1204224)
I0403 17:00:56.722621 20376 net.cpp:156] Memory required for data: 1042842912
I0403 17:00:56.722657 20376 layer_factory.hpp:77] Creating layer inception_4c/relu_3x3
I0403 17:00:56.722682 20376 net.cpp:91] Creating Layer inception_4c/relu_3x3
I0403 17:00:56.722702 20376 net.cpp:425] inception_4c/relu_3x3 <- inception_4c/3x3
I0403 17:00:56.722721 20376 net.cpp:386] inception_4c/relu_3x3 -> inception_4c/3x3 (in-place)
I0403 17:00:56.722916 20376 net.cpp:141] Setting up inception_4c/relu_3x3
I0403 17:00:56.722946 20376 net.cpp:148] Top shape: 24 256 14 14 (1204224)
I0403 17:00:56.722965 20376 net.cpp:156] Memory required for data: 1047659808
I0403 17:00:56.722982 20376 layer_factory.hpp:77] Creating layer inception_4c/5x5_reduce
I0403 17:00:56.723008 20376 net.cpp:91] Creating Layer inception_4c/5x5_reduce
I0403 17:00:56.723028 20376 net.cpp:425] inception_4c/5x5_reduce <- inception_4b/output_inception_4b/output_0_split_2
I0403 17:00:56.723050 20376 net.cpp:399] inception_4c/5x5_reduce -> inception_4c/5x5_reduce
I0403 17:00:56.724218 20376 net.cpp:141] Setting up inception_4c/5x5_reduce
I0403 17:00:56.724252 20376 net.cpp:148] Top shape: 24 24 14 14 (112896)
I0403 17:00:56.724270 20376 net.cpp:156] Memory required for data: 1048111392
I0403 17:00:56.724292 20376 layer_factory.hpp:77] Creating layer inception_4c/relu_5x5_reduce
I0403 17:00:56.724311 20376 net.cpp:91] Creating Layer inception_4c/relu_5x5_reduce
I0403 17:00:56.724330 20376 net.cpp:425] inception_4c/relu_5x5_reduce <- inception_4c/5x5_reduce
I0403 17:00:56.724349 20376 net.cpp:386] inception_4c/relu_5x5_reduce -> inception_4c/5x5_reduce (in-place)
I0403 17:00:56.724546 20376 net.cpp:141] Setting up inception_4c/relu_5x5_reduce
I0403 17:00:56.724576 20376 net.cpp:148] Top shape: 24 24 14 14 (112896)
I0403 17:00:56.724594 20376 net.cpp:156] Memory required for data: 1048562976
I0403 17:00:56.724624 20376 layer_factory.hpp:77] Creating layer inception_4c/5x5
I0403 17:00:56.724653 20376 net.cpp:91] Creating Layer inception_4c/5x5
I0403 17:00:56.724673 20376 net.cpp:425] inception_4c/5x5 <- inception_4c/5x5_reduce
I0403 17:00:56.724699 20376 net.cpp:399] inception_4c/5x5 -> inception_4c/5x5
I0403 17:00:56.726024 20376 net.cpp:141] Setting up inception_4c/5x5
I0403 17:00:56.726055 20376 net.cpp:148] Top shape: 24 64 14 14 (301056)
I0403 17:00:56.726073 20376 net.cpp:156] Memory required for data: 1049767200
I0403 17:00:56.726094 20376 layer_factory.hpp:77] Creating layer inception_4c/relu_5x5
I0403 17:00:56.726114 20376 net.cpp:91] Creating Layer inception_4c/relu_5x5
I0403 17:00:56.726131 20376 net.cpp:425] inception_4c/relu_5x5 <- inception_4c/5x5
I0403 17:00:56.726153 20376 net.cpp:386] inception_4c/relu_5x5 -> inception_4c/5x5 (in-place)
I0403 17:00:56.726460 20376 net.cpp:141] Setting up inception_4c/relu_5x5
I0403 17:00:56.726490 20376 net.cpp:148] Top shape: 24 64 14 14 (301056)
I0403 17:00:56.726507 20376 net.cpp:156] Memory required for data: 1050971424
I0403 17:00:56.726523 20376 layer_factory.hpp:77] Creating layer inception_4c/pool
I0403 17:00:56.726544 20376 net.cpp:91] Creating Layer inception_4c/pool
I0403 17:00:56.726563 20376 net.cpp:425] inception_4c/pool <- inception_4b/output_inception_4b/output_0_split_3
I0403 17:00:56.726588 20376 net.cpp:399] inception_4c/pool -> inception_4c/pool
I0403 17:00:56.726661 20376 net.cpp:141] Setting up inception_4c/pool
I0403 17:00:56.726688 20376 net.cpp:148] Top shape: 24 512 14 14 (2408448)
I0403 17:00:56.726706 20376 net.cpp:156] Memory required for data: 1060605216
I0403 17:00:56.726722 20376 layer_factory.hpp:77] Creating layer inception_4c/pool_proj
I0403 17:00:56.726747 20376 net.cpp:91] Creating Layer inception_4c/pool_proj
I0403 17:00:56.726768 20376 net.cpp:425] inception_4c/pool_proj <- inception_4c/pool
I0403 17:00:56.726788 20376 net.cpp:399] inception_4c/pool_proj -> inception_4c/pool_proj
I0403 17:00:56.728096 20376 net.cpp:141] Setting up inception_4c/pool_proj
I0403 17:00:56.728127 20376 net.cpp:148] Top shape: 24 64 14 14 (301056)
I0403 17:00:56.728158 20376 net.cpp:156] Memory required for data: 1061809440
I0403 17:00:56.728180 20376 layer_factory.hpp:77] Creating layer inception_4c/relu_pool_proj
I0403 17:00:56.728204 20376 net.cpp:91] Creating Layer inception_4c/relu_pool_proj
I0403 17:00:56.728222 20376 net.cpp:425] inception_4c/relu_pool_proj <- inception_4c/pool_proj
I0403 17:00:56.728240 20376 net.cpp:386] inception_4c/relu_pool_proj -> inception_4c/pool_proj (in-place)
I0403 17:00:56.728437 20376 net.cpp:141] Setting up inception_4c/relu_pool_proj
I0403 17:00:56.728466 20376 net.cpp:148] Top shape: 24 64 14 14 (301056)
I0403 17:00:56.728482 20376 net.cpp:156] Memory required for data: 1063013664
I0403 17:00:56.728499 20376 layer_factory.hpp:77] Creating layer inception_4c/output
I0403 17:00:56.728518 20376 net.cpp:91] Creating Layer inception_4c/output
I0403 17:00:56.728535 20376 net.cpp:425] inception_4c/output <- inception_4c/1x1
I0403 17:00:56.728555 20376 net.cpp:425] inception_4c/output <- inception_4c/3x3
I0403 17:00:56.728572 20376 net.cpp:425] inception_4c/output <- inception_4c/5x5
I0403 17:00:56.728590 20376 net.cpp:425] inception_4c/output <- inception_4c/pool_proj
I0403 17:00:56.728618 20376 net.cpp:399] inception_4c/output -> inception_4c/output
I0403 17:00:56.728670 20376 net.cpp:141] Setting up inception_4c/output
I0403 17:00:56.728699 20376 net.cpp:148] Top shape: 24 512 14 14 (2408448)
I0403 17:00:56.728716 20376 net.cpp:156] Memory required for data: 1072647456
I0403 17:00:56.728734 20376 layer_factory.hpp:77] Creating layer inception_4c/output_inception_4c/output_0_split
I0403 17:00:56.728751 20376 net.cpp:91] Creating Layer inception_4c/output_inception_4c/output_0_split
I0403 17:00:56.728770 20376 net.cpp:425] inception_4c/output_inception_4c/output_0_split <- inception_4c/output
I0403 17:00:56.728787 20376 net.cpp:399] inception_4c/output_inception_4c/output_0_split -> inception_4c/output_inception_4c/output_0_split_0
I0403 17:00:56.728811 20376 net.cpp:399] inception_4c/output_inception_4c/output_0_split -> inception_4c/output_inception_4c/output_0_split_1
I0403 17:00:56.728837 20376 net.cpp:399] inception_4c/output_inception_4c/output_0_split -> inception_4c/output_inception_4c/output_0_split_2
I0403 17:00:56.728862 20376 net.cpp:399] inception_4c/output_inception_4c/output_0_split -> inception_4c/output_inception_4c/output_0_split_3
I0403 17:00:56.728955 20376 net.cpp:141] Setting up inception_4c/output_inception_4c/output_0_split
I0403 17:00:56.728981 20376 net.cpp:148] Top shape: 24 512 14 14 (2408448)
I0403 17:00:56.729001 20376 net.cpp:148] Top shape: 24 512 14 14 (2408448)
I0403 17:00:56.729017 20376 net.cpp:148] Top shape: 24 512 14 14 (2408448)
I0403 17:00:56.729034 20376 net.cpp:148] Top shape: 24 512 14 14 (2408448)
I0403 17:00:56.729049 20376 net.cpp:156] Memory required for data: 1111182624
I0403 17:00:56.729066 20376 layer_factory.hpp:77] Creating layer inception_4d/1x1
I0403 17:00:56.729090 20376 net.cpp:91] Creating Layer inception_4d/1x1
I0403 17:00:56.729112 20376 net.cpp:425] inception_4d/1x1 <- inception_4c/output_inception_4c/output_0_split_0
I0403 17:00:56.729135 20376 net.cpp:399] inception_4d/1x1 -> inception_4d/1x1
I0403 17:00:56.730615 20376 net.cpp:141] Setting up inception_4d/1x1
I0403 17:00:56.730646 20376 net.cpp:148] Top shape: 24 112 14 14 (526848)
I0403 17:00:56.730664 20376 net.cpp:156] Memory required for data: 1113290016
I0403 17:00:56.730684 20376 layer_factory.hpp:77] Creating layer inception_4d/relu_1x1
I0403 17:00:56.730706 20376 net.cpp:91] Creating Layer inception_4d/relu_1x1
I0403 17:00:56.730726 20376 net.cpp:425] inception_4d/relu_1x1 <- inception_4d/1x1
I0403 17:00:56.730746 20376 net.cpp:386] inception_4d/relu_1x1 -> inception_4d/1x1 (in-place)
I0403 17:00:56.730944 20376 net.cpp:141] Setting up inception_4d/relu_1x1
I0403 17:00:56.730974 20376 net.cpp:148] Top shape: 24 112 14 14 (526848)
I0403 17:00:56.730991 20376 net.cpp:156] Memory required for data: 1115397408
I0403 17:00:56.731009 20376 layer_factory.hpp:77] Creating layer inception_4d/3x3_reduce
I0403 17:00:56.731045 20376 net.cpp:91] Creating Layer inception_4d/3x3_reduce
I0403 17:00:56.731065 20376 net.cpp:425] inception_4d/3x3_reduce <- inception_4c/output_inception_4c/output_0_split_1
I0403 17:00:56.731089 20376 net.cpp:399] inception_4d/3x3_reduce -> inception_4d/3x3_reduce
I0403 17:00:56.732698 20376 net.cpp:141] Setting up inception_4d/3x3_reduce
I0403 17:00:56.732729 20376 net.cpp:148] Top shape: 24 144 14 14 (677376)
I0403 17:00:56.732746 20376 net.cpp:156] Memory required for data: 1118106912
I0403 17:00:56.732767 20376 layer_factory.hpp:77] Creating layer inception_4d/relu_3x3_reduce
I0403 17:00:56.732787 20376 net.cpp:91] Creating Layer inception_4d/relu_3x3_reduce
I0403 17:00:56.732805 20376 net.cpp:425] inception_4d/relu_3x3_reduce <- inception_4d/3x3_reduce
I0403 17:00:56.732830 20376 net.cpp:386] inception_4d/relu_3x3_reduce -> inception_4d/3x3_reduce (in-place)
I0403 17:00:56.733137 20376 net.cpp:141] Setting up inception_4d/relu_3x3_reduce
I0403 17:00:56.733166 20376 net.cpp:148] Top shape: 24 144 14 14 (677376)
I0403 17:00:56.733183 20376 net.cpp:156] Memory required for data: 1120816416
I0403 17:00:56.733201 20376 layer_factory.hpp:77] Creating layer inception_4d/3x3
I0403 17:00:56.733228 20376 net.cpp:91] Creating Layer inception_4d/3x3
I0403 17:00:56.733249 20376 net.cpp:425] inception_4d/3x3 <- inception_4d/3x3_reduce
I0403 17:00:56.733273 20376 net.cpp:399] inception_4d/3x3 -> inception_4d/3x3
I0403 17:00:56.737798 20376 net.cpp:141] Setting up inception_4d/3x3
I0403 17:00:56.737830 20376 net.cpp:148] Top shape: 24 288 14 14 (1354752)
I0403 17:00:56.737848 20376 net.cpp:156] Memory required for data: 1126235424
I0403 17:00:56.737869 20376 layer_factory.hpp:77] Creating layer inception_4d/relu_3x3
I0403 17:00:56.737890 20376 net.cpp:91] Creating Layer inception_4d/relu_3x3
I0403 17:00:56.737910 20376 net.cpp:425] inception_4d/relu_3x3 <- inception_4d/3x3
I0403 17:00:56.737929 20376 net.cpp:386] inception_4d/relu_3x3 -> inception_4d/3x3 (in-place)
I0403 17:00:56.738131 20376 net.cpp:141] Setting up inception_4d/relu_3x3
I0403 17:00:56.738162 20376 net.cpp:148] Top shape: 24 288 14 14 (1354752)
I0403 17:00:56.738178 20376 net.cpp:156] Memory required for data: 1131654432
I0403 17:00:56.738195 20376 layer_factory.hpp:77] Creating layer inception_4d/5x5_reduce
I0403 17:00:56.738219 20376 net.cpp:91] Creating Layer inception_4d/5x5_reduce
I0403 17:00:56.738240 20376 net.cpp:425] inception_4d/5x5_reduce <- inception_4c/output_inception_4c/output_0_split_2
I0403 17:00:56.738260 20376 net.cpp:399] inception_4d/5x5_reduce -> inception_4d/5x5_reduce
I0403 17:00:56.739472 20376 net.cpp:141] Setting up inception_4d/5x5_reduce
I0403 17:00:56.739503 20376 net.cpp:148] Top shape: 24 32 14 14 (150528)
I0403 17:00:56.739521 20376 net.cpp:156] Memory required for data: 1132256544
I0403 17:00:56.739542 20376 layer_factory.hpp:77] Creating layer inception_4d/relu_5x5_reduce
I0403 17:00:56.739564 20376 net.cpp:91] Creating Layer inception_4d/relu_5x5_reduce
I0403 17:00:56.739583 20376 net.cpp:425] inception_4d/relu_5x5_reduce <- inception_4d/5x5_reduce
I0403 17:00:56.739606 20376 net.cpp:386] inception_4d/relu_5x5_reduce -> inception_4d/5x5_reduce (in-place)
I0403 17:00:56.739806 20376 net.cpp:141] Setting up inception_4d/relu_5x5_reduce
I0403 17:00:56.739837 20376 net.cpp:148] Top shape: 24 32 14 14 (150528)
I0403 17:00:56.739856 20376 net.cpp:156] Memory required for data: 1132858656
I0403 17:00:56.739873 20376 layer_factory.hpp:77] Creating layer inception_4d/5x5
I0403 17:00:56.739897 20376 net.cpp:91] Creating Layer inception_4d/5x5
I0403 17:00:56.739917 20376 net.cpp:425] inception_4d/5x5 <- inception_4d/5x5_reduce
I0403 17:00:56.739938 20376 net.cpp:399] inception_4d/5x5 -> inception_4d/5x5
I0403 17:00:56.741500 20376 net.cpp:141] Setting up inception_4d/5x5
I0403 17:00:56.741533 20376 net.cpp:148] Top shape: 24 64 14 14 (301056)
I0403 17:00:56.741552 20376 net.cpp:156] Memory required for data: 1134062880
I0403 17:00:56.741574 20376 layer_factory.hpp:77] Creating layer inception_4d/relu_5x5
I0403 17:00:56.741613 20376 net.cpp:91] Creating Layer inception_4d/relu_5x5
I0403 17:00:56.741634 20376 net.cpp:425] inception_4d/relu_5x5 <- inception_4d/5x5
I0403 17:00:56.741654 20376 net.cpp:386] inception_4d/relu_5x5 -> inception_4d/5x5 (in-place)
I0403 17:00:56.741976 20376 net.cpp:141] Setting up inception_4d/relu_5x5
I0403 17:00:56.742009 20376 net.cpp:148] Top shape: 24 64 14 14 (301056)
I0403 17:00:56.742028 20376 net.cpp:156] Memory required for data: 1135267104
I0403 17:00:56.742044 20376 layer_factory.hpp:77] Creating layer inception_4d/pool
I0403 17:00:56.742064 20376 net.cpp:91] Creating Layer inception_4d/pool
I0403 17:00:56.742084 20376 net.cpp:425] inception_4d/pool <- inception_4c/output_inception_4c/output_0_split_3
I0403 17:00:56.742105 20376 net.cpp:399] inception_4d/pool -> inception_4d/pool
I0403 17:00:56.742177 20376 net.cpp:141] Setting up inception_4d/pool
I0403 17:00:56.742205 20376 net.cpp:148] Top shape: 24 512 14 14 (2408448)
I0403 17:00:56.742221 20376 net.cpp:156] Memory required for data: 1144900896
I0403 17:00:56.742238 20376 layer_factory.hpp:77] Creating layer inception_4d/pool_proj
I0403 17:00:56.742261 20376 net.cpp:91] Creating Layer inception_4d/pool_proj
I0403 17:00:56.742283 20376 net.cpp:425] inception_4d/pool_proj <- inception_4d/pool
I0403 17:00:56.742305 20376 net.cpp:399] inception_4d/pool_proj -> inception_4d/pool_proj
I0403 17:00:56.744166 20376 net.cpp:141] Setting up inception_4d/pool_proj
I0403 17:00:56.744199 20376 net.cpp:148] Top shape: 24 64 14 14 (301056)
I0403 17:00:56.744215 20376 net.cpp:156] Memory required for data: 1146105120
I0403 17:00:56.744236 20376 layer_factory.hpp:77] Creating layer inception_4d/relu_pool_proj
I0403 17:00:56.744258 20376 net.cpp:91] Creating Layer inception_4d/relu_pool_proj
I0403 17:00:56.744278 20376 net.cpp:425] inception_4d/relu_pool_proj <- inception_4d/pool_proj
I0403 17:00:56.744297 20376 net.cpp:386] inception_4d/relu_pool_proj -> inception_4d/pool_proj (in-place)
I0403 17:00:56.744494 20376 net.cpp:141] Setting up inception_4d/relu_pool_proj
I0403 17:00:56.744524 20376 net.cpp:148] Top shape: 24 64 14 14 (301056)
I0403 17:00:56.744542 20376 net.cpp:156] Memory required for data: 1147309344
I0403 17:00:56.744560 20376 layer_factory.hpp:77] Creating layer inception_4d/output
I0403 17:00:56.744580 20376 net.cpp:91] Creating Layer inception_4d/output
I0403 17:00:56.744596 20376 net.cpp:425] inception_4d/output <- inception_4d/1x1
I0403 17:00:56.744628 20376 net.cpp:425] inception_4d/output <- inception_4d/3x3
I0403 17:00:56.744650 20376 net.cpp:425] inception_4d/output <- inception_4d/5x5
I0403 17:00:56.744668 20376 net.cpp:425] inception_4d/output <- inception_4d/pool_proj
I0403 17:00:56.744688 20376 net.cpp:399] inception_4d/output -> inception_4d/output
I0403 17:00:56.744740 20376 net.cpp:141] Setting up inception_4d/output
I0403 17:00:56.744766 20376 net.cpp:148] Top shape: 24 528 14 14 (2483712)
I0403 17:00:56.744782 20376 net.cpp:156] Memory required for data: 1157244192
I0403 17:00:56.744798 20376 layer_factory.hpp:77] Creating layer inception_4d/output_inception_4d/output_0_split
I0403 17:00:56.744822 20376 net.cpp:91] Creating Layer inception_4d/output_inception_4d/output_0_split
I0403 17:00:56.744840 20376 net.cpp:425] inception_4d/output_inception_4d/output_0_split <- inception_4d/output
I0403 17:00:56.744860 20376 net.cpp:399] inception_4d/output_inception_4d/output_0_split -> inception_4d/output_inception_4d/output_0_split_0
I0403 17:00:56.744884 20376 net.cpp:399] inception_4d/output_inception_4d/output_0_split -> inception_4d/output_inception_4d/output_0_split_1
I0403 17:00:56.744906 20376 net.cpp:399] inception_4d/output_inception_4d/output_0_split -> inception_4d/output_inception_4d/output_0_split_2
I0403 17:00:56.744936 20376 net.cpp:399] inception_4d/output_inception_4d/output_0_split -> inception_4d/output_inception_4d/output_0_split_3
I0403 17:00:56.744958 20376 net.cpp:399] inception_4d/output_inception_4d/output_0_split -> inception_4d/output_inception_4d/output_0_split_4
I0403 17:00:56.745067 20376 net.cpp:141] Setting up inception_4d/output_inception_4d/output_0_split
I0403 17:00:56.745107 20376 net.cpp:148] Top shape: 24 528 14 14 (2483712)
I0403 17:00:56.745126 20376 net.cpp:148] Top shape: 24 528 14 14 (2483712)
I0403 17:00:56.745143 20376 net.cpp:148] Top shape: 24 528 14 14 (2483712)
I0403 17:00:56.745162 20376 net.cpp:148] Top shape: 24 528 14 14 (2483712)
I0403 17:00:56.745178 20376 net.cpp:148] Top shape: 24 528 14 14 (2483712)
I0403 17:00:56.745194 20376 net.cpp:156] Memory required for data: 1206918432
I0403 17:00:56.745211 20376 layer_factory.hpp:77] Creating layer loss2/ave_pool
I0403 17:00:56.745231 20376 net.cpp:91] Creating Layer loss2/ave_pool
I0403 17:00:56.745249 20376 net.cpp:425] loss2/ave_pool <- inception_4d/output_inception_4d/output_0_split_0
I0403 17:00:56.745272 20376 net.cpp:399] loss2/ave_pool -> loss2/ave_pool
I0403 17:00:56.745609 20376 net.cpp:141] Setting up loss2/ave_pool
I0403 17:00:56.745637 20376 net.cpp:148] Top shape: 24 528 4 4 (202752)
I0403 17:00:56.745656 20376 net.cpp:156] Memory required for data: 1207729440
I0403 17:00:56.745673 20376 layer_factory.hpp:77] Creating layer loss2/conv
I0403 17:00:56.745697 20376 net.cpp:91] Creating Layer loss2/conv
I0403 17:00:56.745717 20376 net.cpp:425] loss2/conv <- loss2/ave_pool
I0403 17:00:56.745740 20376 net.cpp:399] loss2/conv -> loss2/conv
I0403 17:00:56.747735 20376 net.cpp:141] Setting up loss2/conv
I0403 17:00:56.747768 20376 net.cpp:148] Top shape: 24 128 4 4 (49152)
I0403 17:00:56.747787 20376 net.cpp:156] Memory required for data: 1207926048
I0403 17:00:56.747808 20376 layer_factory.hpp:77] Creating layer loss2/relu_conv
I0403 17:00:56.747840 20376 net.cpp:91] Creating Layer loss2/relu_conv
I0403 17:00:56.747859 20376 net.cpp:425] loss2/relu_conv <- loss2/conv
I0403 17:00:56.747879 20376 net.cpp:386] loss2/relu_conv -> loss2/conv (in-place)
I0403 17:00:56.748173 20376 net.cpp:141] Setting up loss2/relu_conv
I0403 17:00:56.748204 20376 net.cpp:148] Top shape: 24 128 4 4 (49152)
I0403 17:00:56.748221 20376 net.cpp:156] Memory required for data: 1208122656
I0403 17:00:56.748239 20376 layer_factory.hpp:77] Creating layer loss2/fc
I0403 17:00:56.748258 20376 net.cpp:91] Creating Layer loss2/fc
I0403 17:00:56.748277 20376 net.cpp:425] loss2/fc <- loss2/conv
I0403 17:00:56.748301 20376 net.cpp:399] loss2/fc -> loss2/fc
I0403 17:00:56.767313 20376 net.cpp:141] Setting up loss2/fc
I0403 17:00:56.767349 20376 net.cpp:148] Top shape: 24 1024 (24576)
I0403 17:00:56.767369 20376 net.cpp:156] Memory required for data: 1208220960
I0403 17:00:56.767390 20376 layer_factory.hpp:77] Creating layer loss2/relu_fc
I0403 17:00:56.767412 20376 net.cpp:91] Creating Layer loss2/relu_fc
I0403 17:00:56.767431 20376 net.cpp:425] loss2/relu_fc <- loss2/fc
I0403 17:00:56.767452 20376 net.cpp:386] loss2/relu_fc -> loss2/fc (in-place)
I0403 17:00:56.767784 20376 net.cpp:141] Setting up loss2/relu_fc
I0403 17:00:56.767813 20376 net.cpp:148] Top shape: 24 1024 (24576)
I0403 17:00:56.767830 20376 net.cpp:156] Memory required for data: 1208319264
I0403 17:00:56.767846 20376 layer_factory.hpp:77] Creating layer loss2/drop_fc
I0403 17:00:56.767870 20376 net.cpp:91] Creating Layer loss2/drop_fc
I0403 17:00:56.767889 20376 net.cpp:425] loss2/drop_fc <- loss2/fc
I0403 17:00:56.767909 20376 net.cpp:386] loss2/drop_fc -> loss2/fc (in-place)
I0403 17:00:56.767961 20376 net.cpp:141] Setting up loss2/drop_fc
I0403 17:00:56.767987 20376 net.cpp:148] Top shape: 24 1024 (24576)
I0403 17:00:56.768004 20376 net.cpp:156] Memory required for data: 1208417568
I0403 17:00:56.768020 20376 layer_factory.hpp:77] Creating layer loss2/classifier_plantvillage
I0403 17:00:56.768040 20376 net.cpp:91] Creating Layer loss2/classifier_plantvillage
I0403 17:00:56.768059 20376 net.cpp:425] loss2/classifier_plantvillage <- loss2/fc
I0403 17:00:56.768082 20376 net.cpp:399] loss2/classifier_plantvillage -> loss2/classifier_plantvillage
I0403 17:00:56.768503 20376 net.cpp:141] Setting up loss2/classifier_plantvillage
I0403 17:00:56.768530 20376 net.cpp:148] Top shape: 24 38 (912)
I0403 17:00:56.768548 20376 net.cpp:156] Memory required for data: 1208421216
I0403 17:00:56.768586 20376 layer_factory.hpp:77] Creating layer loss2/classifier_plantvillage_loss2/classifier_plantvillage_0_split
I0403 17:00:56.768610 20376 net.cpp:91] Creating Layer loss2/classifier_plantvillage_loss2/classifier_plantvillage_0_split
I0403 17:00:56.768630 20376 net.cpp:425] loss2/classifier_plantvillage_loss2/classifier_plantvillage_0_split <- loss2/classifier_plantvillage
I0403 17:00:56.768652 20376 net.cpp:399] loss2/classifier_plantvillage_loss2/classifier_plantvillage_0_split -> loss2/classifier_plantvillage_loss2/classifier_plantvillage_0_split_0
I0403 17:00:56.768674 20376 net.cpp:399] loss2/classifier_plantvillage_loss2/classifier_plantvillage_0_split -> loss2/classifier_plantvillage_loss2/classifier_plantvillage_0_split_1
I0403 17:00:56.768697 20376 net.cpp:399] loss2/classifier_plantvillage_loss2/classifier_plantvillage_0_split -> loss2/classifier_plantvillage_loss2/classifier_plantvillage_0_split_2
I0403 17:00:56.768777 20376 net.cpp:141] Setting up loss2/classifier_plantvillage_loss2/classifier_plantvillage_0_split
I0403 17:00:56.768806 20376 net.cpp:148] Top shape: 24 38 (912)
I0403 17:00:56.768824 20376 net.cpp:148] Top shape: 24 38 (912)
I0403 17:00:56.768841 20376 net.cpp:148] Top shape: 24 38 (912)
I0403 17:00:56.768857 20376 net.cpp:156] Memory required for data: 1208432160
I0403 17:00:56.768872 20376 layer_factory.hpp:77] Creating layer inception_4e/1x1
I0403 17:00:56.768894 20376 net.cpp:91] Creating Layer inception_4e/1x1
I0403 17:00:56.768913 20376 net.cpp:425] inception_4e/1x1 <- inception_4d/output_inception_4d/output_0_split_1
I0403 17:00:56.768934 20376 net.cpp:399] inception_4e/1x1 -> inception_4e/1x1
I0403 17:00:56.770836 20376 net.cpp:141] Setting up inception_4e/1x1
I0403 17:00:56.770867 20376 net.cpp:148] Top shape: 24 256 14 14 (1204224)
I0403 17:00:56.770884 20376 net.cpp:156] Memory required for data: 1213249056
I0403 17:00:56.770905 20376 layer_factory.hpp:77] Creating layer inception_4e/relu_1x1
I0403 17:00:56.770926 20376 net.cpp:91] Creating Layer inception_4e/relu_1x1
I0403 17:00:56.770943 20376 net.cpp:425] inception_4e/relu_1x1 <- inception_4e/1x1
I0403 17:00:56.770964 20376 net.cpp:386] inception_4e/relu_1x1 -> inception_4e/1x1 (in-place)
I0403 17:00:56.771288 20376 net.cpp:141] Setting up inception_4e/relu_1x1
I0403 17:00:56.771317 20376 net.cpp:148] Top shape: 24 256 14 14 (1204224)
I0403 17:00:56.771334 20376 net.cpp:156] Memory required for data: 1218065952
I0403 17:00:56.771350 20376 layer_factory.hpp:77] Creating layer inception_4e/3x3_reduce
I0403 17:00:56.771374 20376 net.cpp:91] Creating Layer inception_4e/3x3_reduce
I0403 17:00:56.771392 20376 net.cpp:425] inception_4e/3x3_reduce <- inception_4d/output_inception_4d/output_0_split_2
I0403 17:00:56.771415 20376 net.cpp:399] inception_4e/3x3_reduce -> inception_4e/3x3_reduce
I0403 17:00:56.773618 20376 net.cpp:141] Setting up inception_4e/3x3_reduce
I0403 17:00:56.773653 20376 net.cpp:148] Top shape: 24 160 14 14 (752640)
I0403 17:00:56.773672 20376 net.cpp:156] Memory required for data: 1221076512
I0403 17:00:56.773694 20376 layer_factory.hpp:77] Creating layer inception_4e/relu_3x3_reduce
I0403 17:00:56.773713 20376 net.cpp:91] Creating Layer inception_4e/relu_3x3_reduce
I0403 17:00:56.773732 20376 net.cpp:425] inception_4e/relu_3x3_reduce <- inception_4e/3x3_reduce
I0403 17:00:56.773753 20376 net.cpp:386] inception_4e/relu_3x3_reduce -> inception_4e/3x3_reduce (in-place)
I0403 17:00:56.773996 20376 net.cpp:141] Setting up inception_4e/relu_3x3_reduce
I0403 17:00:56.774025 20376 net.cpp:148] Top shape: 24 160 14 14 (752640)
I0403 17:00:56.774042 20376 net.cpp:156] Memory required for data: 1224087072
I0403 17:00:56.774060 20376 layer_factory.hpp:77] Creating layer inception_4e/3x3
I0403 17:00:56.774085 20376 net.cpp:91] Creating Layer inception_4e/3x3
I0403 17:00:56.774102 20376 net.cpp:425] inception_4e/3x3 <- inception_4e/3x3_reduce
I0403 17:00:56.774129 20376 net.cpp:399] inception_4e/3x3 -> inception_4e/3x3
I0403 17:00:56.779338 20376 net.cpp:141] Setting up inception_4e/3x3
I0403 17:00:56.779379 20376 net.cpp:148] Top shape: 24 320 14 14 (1505280)
I0403 17:00:56.779397 20376 net.cpp:156] Memory required for data: 1230108192
I0403 17:00:56.779417 20376 layer_factory.hpp:77] Creating layer inception_4e/relu_3x3
I0403 17:00:56.779435 20376 net.cpp:91] Creating Layer inception_4e/relu_3x3
I0403 17:00:56.779453 20376 net.cpp:425] inception_4e/relu_3x3 <- inception_4e/3x3
I0403 17:00:56.779474 20376 net.cpp:386] inception_4e/relu_3x3 -> inception_4e/3x3 (in-place)
I0403 17:00:56.779778 20376 net.cpp:141] Setting up inception_4e/relu_3x3
I0403 17:00:56.779806 20376 net.cpp:148] Top shape: 24 320 14 14 (1505280)
I0403 17:00:56.779824 20376 net.cpp:156] Memory required for data: 1236129312
I0403 17:00:56.779839 20376 layer_factory.hpp:77] Creating layer inception_4e/5x5_reduce
I0403 17:00:56.779867 20376 net.cpp:91] Creating Layer inception_4e/5x5_reduce
I0403 17:00:56.779887 20376 net.cpp:425] inception_4e/5x5_reduce <- inception_4d/output_inception_4d/output_0_split_3
I0403 17:00:56.779911 20376 net.cpp:399] inception_4e/5x5_reduce -> inception_4e/5x5_reduce
I0403 17:00:56.780980 20376 net.cpp:141] Setting up inception_4e/5x5_reduce
I0403 17:00:56.781010 20376 net.cpp:148] Top shape: 24 32 14 14 (150528)
I0403 17:00:56.781028 20376 net.cpp:156] Memory required for data: 1236731424
I0403 17:00:56.781049 20376 layer_factory.hpp:77] Creating layer inception_4e/relu_5x5_reduce
I0403 17:00:56.781069 20376 net.cpp:91] Creating Layer inception_4e/relu_5x5_reduce
I0403 17:00:56.781086 20376 net.cpp:425] inception_4e/relu_5x5_reduce <- inception_4e/5x5_reduce
I0403 17:00:56.781105 20376 net.cpp:386] inception_4e/relu_5x5_reduce -> inception_4e/5x5_reduce (in-place)
I0403 17:00:56.781404 20376 net.cpp:141] Setting up inception_4e/relu_5x5_reduce
I0403 17:00:56.781435 20376 net.cpp:148] Top shape: 24 32 14 14 (150528)
I0403 17:00:56.781451 20376 net.cpp:156] Memory required for data: 1237333536
I0403 17:00:56.781468 20376 layer_factory.hpp:77] Creating layer inception_4e/5x5
I0403 17:00:56.781508 20376 net.cpp:91] Creating Layer inception_4e/5x5
I0403 17:00:56.781529 20376 net.cpp:425] inception_4e/5x5 <- inception_4e/5x5_reduce
I0403 17:00:56.781550 20376 net.cpp:399] inception_4e/5x5 -> inception_4e/5x5
I0403 17:00:56.783470 20376 net.cpp:141] Setting up inception_4e/5x5
I0403 17:00:56.783499 20376 net.cpp:148] Top shape: 24 128 14 14 (602112)
I0403 17:00:56.783538 20376 net.cpp:156] Memory required for data: 1239741984
I0403 17:00:56.783558 20376 layer_factory.hpp:77] Creating layer inception_4e/relu_5x5
I0403 17:00:56.783591 20376 net.cpp:91] Creating Layer inception_4e/relu_5x5
I0403 17:00:56.783614 20376 net.cpp:425] inception_4e/relu_5x5 <- inception_4e/5x5
I0403 17:00:56.783633 20376 net.cpp:386] inception_4e/relu_5x5 -> inception_4e/5x5 (in-place)
I0403 17:00:56.783843 20376 net.cpp:141] Setting up inception_4e/relu_5x5
I0403 17:00:56.783876 20376 net.cpp:148] Top shape: 24 128 14 14 (602112)
I0403 17:00:56.783892 20376 net.cpp:156] Memory required for data: 1242150432
I0403 17:00:56.783907 20376 layer_factory.hpp:77] Creating layer inception_4e/pool
I0403 17:00:56.783926 20376 net.cpp:91] Creating Layer inception_4e/pool
I0403 17:00:56.783943 20376 net.cpp:425] inception_4e/pool <- inception_4d/output_inception_4d/output_0_split_4
I0403 17:00:56.783965 20376 net.cpp:399] inception_4e/pool -> inception_4e/pool
I0403 17:00:56.784034 20376 net.cpp:141] Setting up inception_4e/pool
I0403 17:00:56.784060 20376 net.cpp:148] Top shape: 24 528 14 14 (2483712)
I0403 17:00:56.784075 20376 net.cpp:156] Memory required for data: 1252085280
I0403 17:00:56.784090 20376 layer_factory.hpp:77] Creating layer inception_4e/pool_proj
I0403 17:00:56.784112 20376 net.cpp:91] Creating Layer inception_4e/pool_proj
I0403 17:00:56.784132 20376 net.cpp:425] inception_4e/pool_proj <- inception_4e/pool
I0403 17:00:56.784152 20376 net.cpp:399] inception_4e/pool_proj -> inception_4e/pool_proj
I0403 17:00:56.785699 20376 net.cpp:141] Setting up inception_4e/pool_proj
I0403 17:00:56.785728 20376 net.cpp:148] Top shape: 24 128 14 14 (602112)
I0403 17:00:56.785758 20376 net.cpp:156] Memory required for data: 1254493728
I0403 17:00:56.785778 20376 layer_factory.hpp:77] Creating layer inception_4e/relu_pool_proj
I0403 17:00:56.785799 20376 net.cpp:91] Creating Layer inception_4e/relu_pool_proj
I0403 17:00:56.785816 20376 net.cpp:425] inception_4e/relu_pool_proj <- inception_4e/pool_proj
I0403 17:00:56.785835 20376 net.cpp:386] inception_4e/relu_pool_proj -> inception_4e/pool_proj (in-place)
I0403 17:00:56.786120 20376 net.cpp:141] Setting up inception_4e/relu_pool_proj
I0403 17:00:56.786147 20376 net.cpp:148] Top shape: 24 128 14 14 (602112)
I0403 17:00:56.786164 20376 net.cpp:156] Memory required for data: 1256902176
I0403 17:00:56.786178 20376 layer_factory.hpp:77] Creating layer inception_4e/output
I0403 17:00:56.786198 20376 net.cpp:91] Creating Layer inception_4e/output
I0403 17:00:56.786216 20376 net.cpp:425] inception_4e/output <- inception_4e/1x1
I0403 17:00:56.786234 20376 net.cpp:425] inception_4e/output <- inception_4e/3x3
I0403 17:00:56.786249 20376 net.cpp:425] inception_4e/output <- inception_4e/5x5
I0403 17:00:56.786265 20376 net.cpp:425] inception_4e/output <- inception_4e/pool_proj
I0403 17:00:56.786294 20376 net.cpp:399] inception_4e/output -> inception_4e/output
I0403 17:00:56.786346 20376 net.cpp:141] Setting up inception_4e/output
I0403 17:00:56.786371 20376 net.cpp:148] Top shape: 24 832 14 14 (3913728)
I0403 17:00:56.786388 20376 net.cpp:156] Memory required for data: 1272557088
I0403 17:00:56.786404 20376 layer_factory.hpp:77] Creating layer pool4/3x3_s2
I0403 17:00:56.786422 20376 net.cpp:91] Creating Layer pool4/3x3_s2
I0403 17:00:56.786438 20376 net.cpp:425] pool4/3x3_s2 <- inception_4e/output
I0403 17:00:56.786459 20376 net.cpp:399] pool4/3x3_s2 -> pool4/3x3_s2
I0403 17:00:56.786528 20376 net.cpp:141] Setting up pool4/3x3_s2
I0403 17:00:56.786557 20376 net.cpp:148] Top shape: 24 832 7 7 (978432)
I0403 17:00:56.786576 20376 net.cpp:156] Memory required for data: 1276470816
I0403 17:00:56.786605 20376 layer_factory.hpp:77] Creating layer pool4/3x3_s2_pool4/3x3_s2_0_split
I0403 17:00:56.786624 20376 net.cpp:91] Creating Layer pool4/3x3_s2_pool4/3x3_s2_0_split
I0403 17:00:56.786641 20376 net.cpp:425] pool4/3x3_s2_pool4/3x3_s2_0_split <- pool4/3x3_s2
I0403 17:00:56.786659 20376 net.cpp:399] pool4/3x3_s2_pool4/3x3_s2_0_split -> pool4/3x3_s2_pool4/3x3_s2_0_split_0
I0403 17:00:56.786684 20376 net.cpp:399] pool4/3x3_s2_pool4/3x3_s2_0_split -> pool4/3x3_s2_pool4/3x3_s2_0_split_1
I0403 17:00:56.786707 20376 net.cpp:399] pool4/3x3_s2_pool4/3x3_s2_0_split -> pool4/3x3_s2_pool4/3x3_s2_0_split_2
I0403 17:00:56.786727 20376 net.cpp:399] pool4/3x3_s2_pool4/3x3_s2_0_split -> pool4/3x3_s2_pool4/3x3_s2_0_split_3
I0403 17:00:56.786816 20376 net.cpp:141] Setting up pool4/3x3_s2_pool4/3x3_s2_0_split
I0403 17:00:56.786840 20376 net.cpp:148] Top shape: 24 832 7 7 (978432)
I0403 17:00:56.786857 20376 net.cpp:148] Top shape: 24 832 7 7 (978432)
I0403 17:00:56.786873 20376 net.cpp:148] Top shape: 24 832 7 7 (978432)
I0403 17:00:56.786890 20376 net.cpp:148] Top shape: 24 832 7 7 (978432)
I0403 17:00:56.786905 20376 net.cpp:156] Memory required for data: 1292125728
I0403 17:00:56.786919 20376 layer_factory.hpp:77] Creating layer inception_5a/1x1
I0403 17:00:56.786942 20376 net.cpp:91] Creating Layer inception_5a/1x1
I0403 17:00:56.786962 20376 net.cpp:425] inception_5a/1x1 <- pool4/3x3_s2_pool4/3x3_s2_0_split_0
I0403 17:00:56.786980 20376 net.cpp:399] inception_5a/1x1 -> inception_5a/1x1
I0403 17:00:56.789830 20376 net.cpp:141] Setting up inception_5a/1x1
I0403 17:00:56.789860 20376 net.cpp:148] Top shape: 24 256 7 7 (301056)
I0403 17:00:56.789887 20376 net.cpp:156] Memory required for data: 1293329952
I0403 17:00:56.789927 20376 layer_factory.hpp:77] Creating layer inception_5a/relu_1x1
I0403 17:00:56.789949 20376 net.cpp:91] Creating Layer inception_5a/relu_1x1
I0403 17:00:56.789980 20376 net.cpp:425] inception_5a/relu_1x1 <- inception_5a/1x1
I0403 17:00:56.790004 20376 net.cpp:386] inception_5a/relu_1x1 -> inception_5a/1x1 (in-place)
I0403 17:00:56.790350 20376 net.cpp:141] Setting up inception_5a/relu_1x1
I0403 17:00:56.790377 20376 net.cpp:148] Top shape: 24 256 7 7 (301056)
I0403 17:00:56.790393 20376 net.cpp:156] Memory required for data: 1294534176
I0403 17:00:56.790410 20376 layer_factory.hpp:77] Creating layer inception_5a/3x3_reduce
I0403 17:00:56.790433 20376 net.cpp:91] Creating Layer inception_5a/3x3_reduce
I0403 17:00:56.790453 20376 net.cpp:425] inception_5a/3x3_reduce <- pool4/3x3_s2_pool4/3x3_s2_0_split_1
I0403 17:00:56.790473 20376 net.cpp:399] inception_5a/3x3_reduce -> inception_5a/3x3_reduce
I0403 17:00:56.792873 20376 net.cpp:141] Setting up inception_5a/3x3_reduce
I0403 17:00:56.792904 20376 net.cpp:148] Top shape: 24 160 7 7 (188160)
I0403 17:00:56.792920 20376 net.cpp:156] Memory required for data: 1295286816
I0403 17:00:56.792938 20376 layer_factory.hpp:77] Creating layer inception_5a/relu_3x3_reduce
I0403 17:00:56.792959 20376 net.cpp:91] Creating Layer inception_5a/relu_3x3_reduce
I0403 17:00:56.792976 20376 net.cpp:425] inception_5a/relu_3x3_reduce <- inception_5a/3x3_reduce
I0403 17:00:56.792995 20376 net.cpp:386] inception_5a/relu_3x3_reduce -> inception_5a/3x3_reduce (in-place)
I0403 17:00:56.793184 20376 net.cpp:141] Setting up inception_5a/relu_3x3_reduce
I0403 17:00:56.793210 20376 net.cpp:148] Top shape: 24 160 7 7 (188160)
I0403 17:00:56.793225 20376 net.cpp:156] Memory required for data: 1296039456
I0403 17:00:56.793241 20376 layer_factory.hpp:77] Creating layer inception_5a/3x3
I0403 17:00:56.793264 20376 net.cpp:91] Creating Layer inception_5a/3x3
I0403 17:00:56.793282 20376 net.cpp:425] inception_5a/3x3 <- inception_5a/3x3_reduce
I0403 17:00:56.793305 20376 net.cpp:399] inception_5a/3x3 -> inception_5a/3x3
I0403 17:00:56.798357 20376 net.cpp:141] Setting up inception_5a/3x3
I0403 17:00:56.798389 20376 net.cpp:148] Top shape: 24 320 7 7 (376320)
I0403 17:00:56.798406 20376 net.cpp:156] Memory required for data: 1297544736
I0403 17:00:56.798426 20376 layer_factory.hpp:77] Creating layer inception_5a/relu_3x3
I0403 17:00:56.798445 20376 net.cpp:91] Creating Layer inception_5a/relu_3x3
I0403 17:00:56.798462 20376 net.cpp:425] inception_5a/relu_3x3 <- inception_5a/3x3
I0403 17:00:56.798480 20376 net.cpp:386] inception_5a/relu_3x3 -> inception_5a/3x3 (in-place)
I0403 17:00:56.798777 20376 net.cpp:141] Setting up inception_5a/relu_3x3
I0403 17:00:56.798807 20376 net.cpp:148] Top shape: 24 320 7 7 (376320)
I0403 17:00:56.798825 20376 net.cpp:156] Memory required for data: 1299050016
I0403 17:00:56.798840 20376 layer_factory.hpp:77] Creating layer inception_5a/5x5_reduce
I0403 17:00:56.798861 20376 net.cpp:91] Creating Layer inception_5a/5x5_reduce
I0403 17:00:56.798877 20376 net.cpp:425] inception_5a/5x5_reduce <- pool4/3x3_s2_pool4/3x3_s2_0_split_2
I0403 17:00:56.798900 20376 net.cpp:399] inception_5a/5x5_reduce -> inception_5a/5x5_reduce
I0403 17:00:56.800041 20376 net.cpp:141] Setting up inception_5a/5x5_reduce
I0403 17:00:56.800072 20376 net.cpp:148] Top shape: 24 32 7 7 (37632)
I0403 17:00:56.800089 20376 net.cpp:156] Memory required for data: 1299200544
I0403 17:00:56.800110 20376 layer_factory.hpp:77] Creating layer inception_5a/relu_5x5_reduce
I0403 17:00:56.800127 20376 net.cpp:91] Creating Layer inception_5a/relu_5x5_reduce
I0403 17:00:56.800143 20376 net.cpp:425] inception_5a/relu_5x5_reduce <- inception_5a/5x5_reduce
I0403 17:00:56.800163 20376 net.cpp:386] inception_5a/relu_5x5_reduce -> inception_5a/5x5_reduce (in-place)
I0403 17:00:56.800485 20376 net.cpp:141] Setting up inception_5a/relu_5x5_reduce
I0403 17:00:56.800516 20376 net.cpp:148] Top shape: 24 32 7 7 (37632)
I0403 17:00:56.800534 20376 net.cpp:156] Memory required for data: 1299351072
I0403 17:00:56.800551 20376 layer_factory.hpp:77] Creating layer inception_5a/5x5
I0403 17:00:56.800575 20376 net.cpp:91] Creating Layer inception_5a/5x5
I0403 17:00:56.800593 20376 net.cpp:425] inception_5a/5x5 <- inception_5a/5x5_reduce
I0403 17:00:56.800619 20376 net.cpp:399] inception_5a/5x5 -> inception_5a/5x5
I0403 17:00:56.802323 20376 net.cpp:141] Setting up inception_5a/5x5
I0403 17:00:56.802366 20376 net.cpp:148] Top shape: 24 128 7 7 (150528)
I0403 17:00:56.802383 20376 net.cpp:156] Memory required for data: 1299953184
I0403 17:00:56.802402 20376 layer_factory.hpp:77] Creating layer inception_5a/relu_5x5
I0403 17:00:56.802422 20376 net.cpp:91] Creating Layer inception_5a/relu_5x5
I0403 17:00:56.802438 20376 net.cpp:425] inception_5a/relu_5x5 <- inception_5a/5x5
I0403 17:00:56.802455 20376 net.cpp:386] inception_5a/relu_5x5 -> inception_5a/5x5 (in-place)
I0403 17:00:56.802654 20376 net.cpp:141] Setting up inception_5a/relu_5x5
I0403 17:00:56.802681 20376 net.cpp:148] Top shape: 24 128 7 7 (150528)
I0403 17:00:56.802697 20376 net.cpp:156] Memory required for data: 1300555296
I0403 17:00:56.802713 20376 layer_factory.hpp:77] Creating layer inception_5a/pool
I0403 17:00:56.802731 20376 net.cpp:91] Creating Layer inception_5a/pool
I0403 17:00:56.802747 20376 net.cpp:425] inception_5a/pool <- pool4/3x3_s2_pool4/3x3_s2_0_split_3
I0403 17:00:56.802768 20376 net.cpp:399] inception_5a/pool -> inception_5a/pool
I0403 17:00:56.802837 20376 net.cpp:141] Setting up inception_5a/pool
I0403 17:00:56.802865 20376 net.cpp:148] Top shape: 24 832 7 7 (978432)
I0403 17:00:56.802881 20376 net.cpp:156] Memory required for data: 1304469024
I0403 17:00:56.802897 20376 layer_factory.hpp:77] Creating layer inception_5a/pool_proj
I0403 17:00:56.802917 20376 net.cpp:91] Creating Layer inception_5a/pool_proj
I0403 17:00:56.802933 20376 net.cpp:425] inception_5a/pool_proj <- inception_5a/pool
I0403 17:00:56.802955 20376 net.cpp:399] inception_5a/pool_proj -> inception_5a/pool_proj
I0403 17:00:56.805289 20376 net.cpp:141] Setting up inception_5a/pool_proj
I0403 17:00:56.805318 20376 net.cpp:148] Top shape: 24 128 7 7 (150528)
I0403 17:00:56.805335 20376 net.cpp:156] Memory required for data: 1305071136
I0403 17:00:56.805353 20376 layer_factory.hpp:77] Creating layer inception_5a/relu_pool_proj
I0403 17:00:56.805377 20376 net.cpp:91] Creating Layer inception_5a/relu_pool_proj
I0403 17:00:56.805394 20376 net.cpp:425] inception_5a/relu_pool_proj <- inception_5a/pool_proj
I0403 17:00:56.805413 20376 net.cpp:386] inception_5a/relu_pool_proj -> inception_5a/pool_proj (in-place)
I0403 17:00:56.805727 20376 net.cpp:141] Setting up inception_5a/relu_pool_proj
I0403 17:00:56.805754 20376 net.cpp:148] Top shape: 24 128 7 7 (150528)
I0403 17:00:56.805770 20376 net.cpp:156] Memory required for data: 1305673248
I0403 17:00:56.805785 20376 layer_factory.hpp:77] Creating layer inception_5a/output
I0403 17:00:56.805805 20376 net.cpp:91] Creating Layer inception_5a/output
I0403 17:00:56.805824 20376 net.cpp:425] inception_5a/output <- inception_5a/1x1
I0403 17:00:56.805841 20376 net.cpp:425] inception_5a/output <- inception_5a/3x3
I0403 17:00:56.805871 20376 net.cpp:425] inception_5a/output <- inception_5a/5x5
I0403 17:00:56.805886 20376 net.cpp:425] inception_5a/output <- inception_5a/pool_proj
I0403 17:00:56.805904 20376 net.cpp:399] inception_5a/output -> inception_5a/output
I0403 17:00:56.805955 20376 net.cpp:141] Setting up inception_5a/output
I0403 17:00:56.805979 20376 net.cpp:148] Top shape: 24 832 7 7 (978432)
I0403 17:00:56.805994 20376 net.cpp:156] Memory required for data: 1309586976
I0403 17:00:56.806010 20376 layer_factory.hpp:77] Creating layer inception_5a/output_inception_5a/output_0_split
I0403 17:00:56.806027 20376 net.cpp:91] Creating Layer inception_5a/output_inception_5a/output_0_split
I0403 17:00:56.806044 20376 net.cpp:425] inception_5a/output_inception_5a/output_0_split <- inception_5a/output
I0403 17:00:56.806064 20376 net.cpp:399] inception_5a/output_inception_5a/output_0_split -> inception_5a/output_inception_5a/output_0_split_0
I0403 17:00:56.806087 20376 net.cpp:399] inception_5a/output_inception_5a/output_0_split -> inception_5a/output_inception_5a/output_0_split_1
I0403 17:00:56.806107 20376 net.cpp:399] inception_5a/output_inception_5a/output_0_split -> inception_5a/output_inception_5a/output_0_split_2
I0403 17:00:56.806128 20376 net.cpp:399] inception_5a/output_inception_5a/output_0_split -> inception_5a/output_inception_5a/output_0_split_3
I0403 17:00:56.806241 20376 net.cpp:141] Setting up inception_5a/output_inception_5a/output_0_split
I0403 17:00:56.806267 20376 net.cpp:148] Top shape: 24 832 7 7 (978432)
I0403 17:00:56.806287 20376 net.cpp:148] Top shape: 24 832 7 7 (978432)
I0403 17:00:56.806304 20376 net.cpp:148] Top shape: 24 832 7 7 (978432)
I0403 17:00:56.806321 20376 net.cpp:148] Top shape: 24 832 7 7 (978432)
I0403 17:00:56.806335 20376 net.cpp:156] Memory required for data: 1325241888
I0403 17:00:56.806350 20376 layer_factory.hpp:77] Creating layer inception_5b/1x1
I0403 17:00:56.806372 20376 net.cpp:91] Creating Layer inception_5b/1x1
I0403 17:00:56.806391 20376 net.cpp:425] inception_5b/1x1 <- inception_5a/output_inception_5a/output_0_split_0
I0403 17:00:56.806411 20376 net.cpp:399] inception_5b/1x1 -> inception_5b/1x1
I0403 17:00:56.810338 20376 net.cpp:141] Setting up inception_5b/1x1
I0403 17:00:56.810369 20376 net.cpp:148] Top shape: 24 384 7 7 (451584)
I0403 17:00:56.810385 20376 net.cpp:156] Memory required for data: 1327048224
I0403 17:00:56.810405 20376 layer_factory.hpp:77] Creating layer inception_5b/relu_1x1
I0403 17:00:56.810425 20376 net.cpp:91] Creating Layer inception_5b/relu_1x1
I0403 17:00:56.810443 20376 net.cpp:425] inception_5b/relu_1x1 <- inception_5b/1x1
I0403 17:00:56.810462 20376 net.cpp:386] inception_5b/relu_1x1 -> inception_5b/1x1 (in-place)
I0403 17:00:56.810775 20376 net.cpp:141] Setting up inception_5b/relu_1x1
I0403 17:00:56.810802 20376 net.cpp:148] Top shape: 24 384 7 7 (451584)
I0403 17:00:56.810819 20376 net.cpp:156] Memory required for data: 1328854560
I0403 17:00:56.810835 20376 layer_factory.hpp:77] Creating layer inception_5b/3x3_reduce
I0403 17:00:56.810859 20376 net.cpp:91] Creating Layer inception_5b/3x3_reduce
I0403 17:00:56.810878 20376 net.cpp:425] inception_5b/3x3_reduce <- inception_5a/output_inception_5a/output_0_split_1
I0403 17:00:56.810900 20376 net.cpp:399] inception_5b/3x3_reduce -> inception_5b/3x3_reduce
I0403 17:00:56.813644 20376 net.cpp:141] Setting up inception_5b/3x3_reduce
I0403 17:00:56.813675 20376 net.cpp:148] Top shape: 24 192 7 7 (225792)
I0403 17:00:56.813694 20376 net.cpp:156] Memory required for data: 1329757728
I0403 17:00:56.813714 20376 layer_factory.hpp:77] Creating layer inception_5b/relu_3x3_reduce
I0403 17:00:56.813735 20376 net.cpp:91] Creating Layer inception_5b/relu_3x3_reduce
I0403 17:00:56.813755 20376 net.cpp:425] inception_5b/relu_3x3_reduce <- inception_5b/3x3_reduce
I0403 17:00:56.813774 20376 net.cpp:386] inception_5b/relu_3x3_reduce -> inception_5b/3x3_reduce (in-place)
I0403 17:00:56.813978 20376 net.cpp:141] Setting up inception_5b/relu_3x3_reduce
I0403 17:00:56.814008 20376 net.cpp:148] Top shape: 24 192 7 7 (225792)
I0403 17:00:56.814024 20376 net.cpp:156] Memory required for data: 1330660896
I0403 17:00:56.814041 20376 layer_factory.hpp:77] Creating layer inception_5b/3x3
I0403 17:00:56.814064 20376 net.cpp:91] Creating Layer inception_5b/3x3
I0403 17:00:56.814082 20376 net.cpp:425] inception_5b/3x3 <- inception_5b/3x3_reduce
I0403 17:00:56.814103 20376 net.cpp:399] inception_5b/3x3 -> inception_5b/3x3
I0403 17:00:56.821290 20376 net.cpp:141] Setting up inception_5b/3x3
I0403 17:00:56.821322 20376 net.cpp:148] Top shape: 24 384 7 7 (451584)
I0403 17:00:56.821344 20376 net.cpp:156] Memory required for data: 1332467232
I0403 17:00:56.821367 20376 layer_factory.hpp:77] Creating layer inception_5b/relu_3x3
I0403 17:00:56.821394 20376 net.cpp:91] Creating Layer inception_5b/relu_3x3
I0403 17:00:56.821413 20376 net.cpp:425] inception_5b/relu_3x3 <- inception_5b/3x3
I0403 17:00:56.821434 20376 net.cpp:386] inception_5b/relu_3x3 -> inception_5b/3x3 (in-place)
I0403 17:00:56.821771 20376 net.cpp:141] Setting up inception_5b/relu_3x3
I0403 17:00:56.821799 20376 net.cpp:148] Top shape: 24 384 7 7 (451584)
I0403 17:00:56.821817 20376 net.cpp:156] Memory required for data: 1334273568
I0403 17:00:56.821833 20376 layer_factory.hpp:77] Creating layer inception_5b/5x5_reduce
I0403 17:00:56.821887 20376 net.cpp:91] Creating Layer inception_5b/5x5_reduce
I0403 17:00:56.821907 20376 net.cpp:425] inception_5b/5x5_reduce <- inception_5a/output_inception_5a/output_0_split_2
I0403 17:00:56.821933 20376 net.cpp:399] inception_5b/5x5_reduce -> inception_5b/5x5_reduce
I0403 17:00:56.823305 20376 net.cpp:141] Setting up inception_5b/5x5_reduce
I0403 17:00:56.823338 20376 net.cpp:148] Top shape: 24 48 7 7 (56448)
I0403 17:00:56.823356 20376 net.cpp:156] Memory required for data: 1334499360
I0403 17:00:56.823379 20376 layer_factory.hpp:77] Creating layer inception_5b/relu_5x5_reduce
I0403 17:00:56.823405 20376 net.cpp:91] Creating Layer inception_5b/relu_5x5_reduce
I0403 17:00:56.823424 20376 net.cpp:425] inception_5b/relu_5x5_reduce <- inception_5b/5x5_reduce
I0403 17:00:56.823444 20376 net.cpp:386] inception_5b/relu_5x5_reduce -> inception_5b/5x5_reduce (in-place)
I0403 17:00:56.823853 20376 net.cpp:141] Setting up inception_5b/relu_5x5_reduce
I0403 17:00:56.823884 20376 net.cpp:148] Top shape: 24 48 7 7 (56448)
I0403 17:00:56.823900 20376 net.cpp:156] Memory required for data: 1334725152
I0403 17:00:56.823918 20376 layer_factory.hpp:77] Creating layer inception_5b/5x5
I0403 17:00:56.823940 20376 net.cpp:91] Creating Layer inception_5b/5x5
I0403 17:00:56.823961 20376 net.cpp:425] inception_5b/5x5 <- inception_5b/5x5_reduce
I0403 17:00:56.823982 20376 net.cpp:399] inception_5b/5x5 -> inception_5b/5x5
I0403 17:00:56.826210 20376 net.cpp:141] Setting up inception_5b/5x5
I0403 17:00:56.826241 20376 net.cpp:148] Top shape: 24 128 7 7 (150528)
I0403 17:00:56.826259 20376 net.cpp:156] Memory required for data: 1335327264
I0403 17:00:56.826280 20376 layer_factory.hpp:77] Creating layer inception_5b/relu_5x5
I0403 17:00:56.826303 20376 net.cpp:91] Creating Layer inception_5b/relu_5x5
I0403 17:00:56.826321 20376 net.cpp:425] inception_5b/relu_5x5 <- inception_5b/5x5
I0403 17:00:56.826344 20376 net.cpp:386] inception_5b/relu_5x5 -> inception_5b/5x5 (in-place)
I0403 17:00:56.826561 20376 net.cpp:141] Setting up inception_5b/relu_5x5
I0403 17:00:56.826589 20376 net.cpp:148] Top shape: 24 128 7 7 (150528)
I0403 17:00:56.826611 20376 net.cpp:156] Memory required for data: 1335929376
I0403 17:00:56.826629 20376 layer_factory.hpp:77] Creating layer inception_5b/pool
I0403 17:00:56.826649 20376 net.cpp:91] Creating Layer inception_5b/pool
I0403 17:00:56.826668 20376 net.cpp:425] inception_5b/pool <- inception_5a/output_inception_5a/output_0_split_3
I0403 17:00:56.826691 20376 net.cpp:399] inception_5b/pool -> inception_5b/pool
I0403 17:00:56.826772 20376 net.cpp:141] Setting up inception_5b/pool
I0403 17:00:56.826799 20376 net.cpp:148] Top shape: 24 832 7 7 (978432)
I0403 17:00:56.826815 20376 net.cpp:156] Memory required for data: 1339843104
I0403 17:00:56.826833 20376 layer_factory.hpp:77] Creating layer inception_5b/pool_proj
I0403 17:00:56.826858 20376 net.cpp:91] Creating Layer inception_5b/pool_proj
I0403 17:00:56.826884 20376 net.cpp:425] inception_5b/pool_proj <- inception_5b/pool
I0403 17:00:56.826908 20376 net.cpp:399] inception_5b/pool_proj -> inception_5b/pool_proj
I0403 17:00:56.829427 20376 net.cpp:141] Setting up inception_5b/pool_proj
I0403 17:00:56.829488 20376 net.cpp:148] Top shape: 24 128 7 7 (150528)
I0403 17:00:56.829529 20376 net.cpp:156] Memory required for data: 1340445216
I0403 17:00:56.829571 20376 layer_factory.hpp:77] Creating layer inception_5b/relu_pool_proj
I0403 17:00:56.829627 20376 net.cpp:91] Creating Layer inception_5b/relu_pool_proj
I0403 17:00:56.829658 20376 net.cpp:425] inception_5b/relu_pool_proj <- inception_5b/pool_proj
I0403 17:00:56.829682 20376 net.cpp:386] inception_5b/relu_pool_proj -> inception_5b/pool_proj (in-place)
I0403 17:00:56.830019 20376 net.cpp:141] Setting up inception_5b/relu_pool_proj
I0403 17:00:56.830060 20376 net.cpp:148] Top shape: 24 128 7 7 (150528)
I0403 17:00:56.830099 20376 net.cpp:156] Memory required for data: 1341047328
I0403 17:00:56.830126 20376 layer_factory.hpp:77] Creating layer inception_5b/output
I0403 17:00:56.830152 20376 net.cpp:91] Creating Layer inception_5b/output
I0403 17:00:56.830214 20376 net.cpp:425] inception_5b/output <- inception_5b/1x1
I0403 17:00:56.830266 20376 net.cpp:425] inception_5b/output <- inception_5b/3x3
I0403 17:00:56.830294 20376 net.cpp:425] inception_5b/output <- inception_5b/5x5
I0403 17:00:56.830314 20376 net.cpp:425] inception_5b/output <- inception_5b/pool_proj
I0403 17:00:56.830334 20376 net.cpp:399] inception_5b/output -> inception_5b/output
I0403 17:00:56.830392 20376 net.cpp:141] Setting up inception_5b/output
I0403 17:00:56.830426 20376 net.cpp:148] Top shape: 24 1024 7 7 (1204224)
I0403 17:00:56.830446 20376 net.cpp:156] Memory required for data: 1345864224
I0403 17:00:56.830466 20376 layer_factory.hpp:77] Creating layer pool5/7x7_s1
I0403 17:00:56.830492 20376 net.cpp:91] Creating Layer pool5/7x7_s1
I0403 17:00:56.830509 20376 net.cpp:425] pool5/7x7_s1 <- inception_5b/output
I0403 17:00:56.830544 20376 net.cpp:399] pool5/7x7_s1 -> pool5/7x7_s1
I0403 17:00:56.830832 20376 net.cpp:141] Setting up pool5/7x7_s1
I0403 17:00:56.830873 20376 net.cpp:148] Top shape: 24 1024 1 1 (24576)
I0403 17:00:56.830890 20376 net.cpp:156] Memory required for data: 1345962528
I0403 17:00:56.830907 20376 layer_factory.hpp:77] Creating layer pool5/drop_7x7_s1
I0403 17:00:56.830927 20376 net.cpp:91] Creating Layer pool5/drop_7x7_s1
I0403 17:00:56.830946 20376 net.cpp:425] pool5/drop_7x7_s1 <- pool5/7x7_s1
I0403 17:00:56.830966 20376 net.cpp:386] pool5/drop_7x7_s1 -> pool5/7x7_s1 (in-place)
I0403 17:00:56.831022 20376 net.cpp:141] Setting up pool5/drop_7x7_s1
I0403 17:00:56.831048 20376 net.cpp:148] Top shape: 24 1024 1 1 (24576)
I0403 17:00:56.831068 20376 net.cpp:156] Memory required for data: 1346060832
I0403 17:00:56.831090 20376 layer_factory.hpp:77] Creating layer loss3/classifier_plantvillage
I0403 17:00:56.831113 20376 net.cpp:91] Creating Layer loss3/classifier_plantvillage
I0403 17:00:56.831132 20376 net.cpp:425] loss3/classifier_plantvillage <- pool5/7x7_s1
I0403 17:00:56.831164 20376 net.cpp:399] loss3/classifier_plantvillage -> loss3/classifier_plantvillage
I0403 17:00:56.831629 20376 net.cpp:141] Setting up loss3/classifier_plantvillage
I0403 17:00:56.831656 20376 net.cpp:148] Top shape: 24 38 (912)
I0403 17:00:56.831673 20376 net.cpp:156] Memory required for data: 1346064480
I0403 17:00:56.831694 20376 layer_factory.hpp:77] Creating layer loss3/classifier_plantvillage_loss3/classifier_plantvillage_0_split
I0403 17:00:56.831717 20376 net.cpp:91] Creating Layer loss3/classifier_plantvillage_loss3/classifier_plantvillage_0_split
I0403 17:00:56.831735 20376 net.cpp:425] loss3/classifier_plantvillage_loss3/classifier_plantvillage_0_split <- loss3/classifier_plantvillage
I0403 17:00:56.831760 20376 net.cpp:399] loss3/classifier_plantvillage_loss3/classifier_plantvillage_0_split -> loss3/classifier_plantvillage_loss3/classifier_plantvillage_0_split_0
I0403 17:00:56.831787 20376 net.cpp:399] loss3/classifier_plantvillage_loss3/classifier_plantvillage_0_split -> loss3/classifier_plantvillage_loss3/classifier_plantvillage_0_split_1
I0403 17:00:56.831809 20376 net.cpp:399] loss3/classifier_plantvillage_loss3/classifier_plantvillage_0_split -> loss3/classifier_plantvillage_loss3/classifier_plantvillage_0_split_2
I0403 17:00:56.831832 20376 net.cpp:399] loss3/classifier_plantvillage_loss3/classifier_plantvillage_0_split -> loss3/classifier_plantvillage_loss3/classifier_plantvillage_0_split_3
I0403 17:00:56.831943 20376 net.cpp:141] Setting up loss3/classifier_plantvillage_loss3/classifier_plantvillage_0_split
I0403 17:00:56.831971 20376 net.cpp:148] Top shape: 24 38 (912)
I0403 17:00:56.831995 20376 net.cpp:148] Top shape: 24 38 (912)
I0403 17:00:56.832012 20376 net.cpp:148] Top shape: 24 38 (912)
I0403 17:00:56.832029 20376 net.cpp:148] Top shape: 24 38 (912)
I0403 17:00:56.832048 20376 net.cpp:156] Memory required for data: 1346079072
I0403 17:00:56.832065 20376 layer_factory.hpp:77] Creating layer loss1/loss
I0403 17:00:56.832089 20376 net.cpp:91] Creating Layer loss1/loss
I0403 17:00:56.832109 20376 net.cpp:425] loss1/loss <- loss1/classifier_plantvillage_loss1/classifier_plantvillage_0_split_0
I0403 17:00:56.832144 20376 net.cpp:425] loss1/loss <- label_data_1_split_0
…
