…
I0403 16:39:10.617053 19028 net.cpp:313] The NetState phase (1) differed from the phase (0) specified by a rule in layer data
I0403 16:39:10.618134 19028 net.cpp:49] Initializing net from parameters: 
state {
  phase: TEST
}
layer {
  name: "data"
  type: "Data"
  top: "data"
  top: "label"
  include {
    phase: TEST
  }
  transform_param {
    mirror: false
    crop_size: 224
    mean_file: "/home/mohanty/data/final_dataset/lmdb/color-20-80/mean.binaryproto"
  }
  data_param {
    source: "/home/mohanty/data/final_dataset/lmdb/color-20-80/test_db"
    batch_size: 24
    backend: LMDB
  }
}
layer {
  name: "conv1/7x7_s2"
  type: "Convolution"
  bottom: "data"
  top: "conv1/7x7_s2"
  param {
    lr_mult: 1
    decay_mult: 1
  }
  param {
    lr_mult: 2
    decay_mult: 0
  }
  convolution_param {
    num_output: 64
    pad: 3
    kernel_size: 7
    stride: 2
    weight_filler {
      type: "xavier"
      std: 0.1
    }
    bias_filler {
      type: "constant"
      value: 0.2
    }
  }
}
layer {
  name: "conv1/relu_7x7"
  type: "ReLU"
  bottom: "conv1/7x7_s2"
  top: "conv1/7x7_s2"
}
layer {
  name: "pool1/3x3_s2"
  type: "Pooling"
  bottom: "conv1/7x7_s2"
  top: "pool1/3x3_s2"
  pooling_param {
    pool: MAX
    kernel_size: 3
    stride: 2
  }
}
layer {
  name: "pool1/norm1"
  type: "LRN"
  bottom: "pool1/3x3_s2"
  top: "pool1/norm1"
  lrn_param {
    local_size: 5
    alpha: 0.0001
    beta: 0.75
  }
}
layer {
  name: "conv2/3x3_reduce"
  type: "Convolution"
  bottom: "pool1/norm1"
  top: "conv2/3x3_reduce"
  param {
    lr_mult: 1
    decay_mult: 1
  }
  param {
    lr_mult: 2
    decay_mult: 0
  }
  convolution_param {
    num_output: 64
    kernel_size: 1
    weight_filler {
      type: "xavier"
      std: 0.1
    }
    bias_filler {
      type: "constant"
      value: 0.2
    }
  }
}
layer {
  name: "conv2/relu_3x3_reduce"
  type: "ReLU"
  bottom: "conv2/3x3_reduce"
  top: "conv2/3x3_reduce"
}
layer {
  name: "conv2/3x3"
  type: "Convolution"
  bottom: "conv2/3x3_reduce"
  top: "conv2/3x3"
  param {
    lr_mult: 1
    decay_mult: 1
  }
  param {
    lr_mult: 2
    decay_mult: 0
  }
  convolution_param {
    num_output: 192
    pad: 1
    kernel_size: 3
    weight_filler {
      type: "xavier"
      std: 0.03
    }
    bias_filler {
      type: "constant"
      value: 0.2
    }
  }
}
layer {
  name: "conv2/relu_3x3"
  type: "ReLU"
  bottom: "conv2/3x3"
  top: "conv2/3x3"
}
layer {
  name: "conv2/norm2"
  type: "LRN"
  bottom: "conv2/3x3"
  top: "conv2/norm2"
  lrn_param {
    local_size: 5
    alpha: 0.0001
    beta: 0.75
  }
}
layer {
  name: "pool2/3x3_s2"
  type: "Pooling"
  bottom: "conv2/norm2"
  top: "pool2/3x3_s2"
  pooling_param {
    pool: MAX
    kernel_size: 3
    stride: 2
  }
}
layer {
  name: "inception_3a/1x1"
  type: "Convolution"
  bottom: "pool2/3x3_s2"
  top: "inception_3a/1x1"
  param {
    lr_mult: 1
    decay_mult: 1
  }
  param {
    lr_mult: 2
    decay_mult: 0
  }
  convolution_param {
    num_output: 64
    kernel_size: 1
    weight_filler {
      type: "xavier"
      std: 0.03
    }
    bias_filler {
      type: "constant"
      value: 0.2
    }
  }
}
layer {
  name: "inception_3a/relu_1x1"
  type: "ReLU"
  bottom: "inception_3a/1x1"
  top: "inception_3a/1x1"
}
layer {
  name: "inception_3a/3x3_reduce"
  type: "Convolution"
  bottom: "pool2/3x3_s2"
  top: "inception_3a/3x3_reduce"
  param {
    lr_mult: 1
    decay_mult: 1
  }
  param {
    lr_mult: 2
    decay_mult: 0
  }
  convolution_param {
    num_output: 96
    kernel_size: 1
    weight_filler {
      type: "xavier"
      std: 0.09
    }
    bias_filler {
      type: "constant"
      value: 0.2
    }
  }
}
layer {
  name: "inception_3a/relu_3x3_reduce"
  type: "ReLU"
  bottom: "inception_3a/3x3_reduce"
  top: "inception_3a/3x3_reduce"
}
layer {
  name: "inception_3a/3x3"
  type: "Convolution"
  bottom: "inception_3a/3x3_reduce"
  top: "inception_3a/3x3"
  param {
    lr_mult: 1
    decay_mult: 1
  }
  param {
    lr_mult: 2
    decay_mult: 0
  }
  convolution_param {
    num_output: 128
    pad: 1
    kernel_size: 3
    weight_filler {
      type: "xavier"
      std: 0.03
    }
    bias_filler {
      type: "constant"
      value: 0.2
    }
  }
}
layer {
  name: "inception_3a/relu_3x3"
  type: "ReLU"
  bottom: "inception_3a/3x3"
  top: "inception_3a/3x3"
}
layer {
  name: "inception_3a/5x5_reduce"
  type: "Convolution"
  bottom: "pool2/3x3_s2"
  top: "inception_3a/5x5_reduce"
  param {
    lr_mult: 1
    decay_mult: 1
  }
  param {
    lr_mult: 2
    decay_mult: 0
  }
  convolution_param {
    num_output: 16
    kernel_size: 1
    weight_filler {
      type: "xavier"
      std: 0.2
    }
    bias_filler {
      type: "constant"
      value: 0.2
    }
  }
}
layer {
  name: "inception_3a/relu_5x5_reduce"
  type: "ReLU"
  bottom: "inception_3a/5x5_reduce"
  top: "inception_3a/5x5_reduce"
}
layer {
  name: "inception_3a/5x5"
  type: "Convolution"
  bottom: "inception_3a/5x5_reduce"
  top: "inception_3a/5x5"
  param {
    lr_mult: 1
    decay_mult: 1
  }
  param {
    lr_mult: 2
    decay_mult: 0
  }
  convolution_param {
    num_output: 32
    pad: 2
    kernel_size: 5
    weight_filler {
      type: "xavier"
      std: 0.03
    }
    bias_filler {
      type: "constant"
      value: 0.2
    }
  }
}
layer {
  name: "inception_3a/relu_5x5"
  type: "ReLU"
  bottom: "inception_3a/5x5"
  top: "inception_3a/5x5"
}
layer {
  name: "inception_3a/pool"
  type: "Pooling"
  bottom: "pool2/3x3_s2"
  top: "inception_3a/pool"
  pooling_param {
    pool: MAX
    kernel_size: 3
    stride: 1
    pad: 1
  }
}
layer {
  name: "inception_3a/pool_proj"
  type: "Convolution"
  bottom: "inception_3a/pool"
  top: "inception_3a/pool_proj"
  param {
    lr_mult: 1
    decay_mult: 1
  }
  param {
    lr_mult: 2
    decay_mult: 0
  }
  convolution_param {
    num_output: 32
    kernel_size: 1
    weight_filler {
      type: "xavier"
      std: 0.1
    }
    bias_filler {
      type: "constant"
      value: 0.2
    }
  }
}
layer {
  name: "inception_3a/relu_pool_proj"
  type: "ReLU"
  bottom: "inception_3a/pool_proj"
  top: "inception_3a/pool_proj"
}
layer {
  name: "inception_3a/output"
  type: "Concat"
  bottom: "inception_3a/1x1"
  bottom: "inception_3a/3x3"
  bottom: "inception_3a/5x5"
  bottom: "inception_3a/pool_proj"
  top: "inception_3a/output"
}
layer {
  name: "inception_3b/1x1"
  type: "Convolution"
  bottom: "inception_3a/output"
  top: "inception_3b/1x1"
  param {
    lr_mult: 1
    decay_mult: 1
  }
  param {
    lr_mult: 2
    decay_mult: 0
  }
  convolution_param {
    num_output: 128
    kernel_size: 1
    weight_filler {
      type: "xavier"
      std: 0.03
    }
    bias_filler {
      type: "constant"
      value: 0.2
    }
  }
}
layer {
  name: "inception_3b/relu_1x1"
  type: "ReLU"
  bottom: "inception_3b/1x1"
  top: "inception_3b/1x1"
}
layer {
  name: "inception_3b/3x3_reduce"
  type: "Convolution"
  bottom: "inception_3a/output"
  top: "inception_3b/3x3_reduce"
  param {
    lr_mult: 1
    decay_mult: 1
  }
  param {
    lr_mult: 2
    decay_mult: 0
  }
  convolution_param {
    num_output: 128
    kernel_size: 1
    weight_filler {
      type: "xavier"
      std: 0.09
    }
    bias_filler {
      type: "constant"
      value: 0.2
    }
  }
}
layer {
  name: "inception_3b/relu_3x3_reduce"
  type: "ReLU"
  bottom: "inception_3b/3x3_reduce"
  top: "inception_3b/3x3_reduce"
}
layer {
  name: "inception_3b/3x3"
  type: "Convolution"
  bottom: "inception_3b/3x3_reduce"
  top: "inception_3b/3x3"
  param {
    lr_mult: 1
    decay_mult: 1
  }
  param {
    lr_mult: 2
    decay_mult: 0
  }
  convolution_param {
    num_output: 192
    pad: 1
    kernel_size: 3
    weight_filler {
      type: "xavier"
      std: 0.03
    }
    bias_filler {
      type: "constant"
      value: 0.2
    }
  }
}
layer {
  name: "inception_3b/relu_3x3"
  type: "ReLU"
  bottom: "inception_3b/3x3"
  top: "inception_3b/3x3"
}
layer {
  name: "inception_3b/5x5_reduce"
  type: "Convolution"
  bottom: "inception_3a/output"
  top: "inception_3b/5x5_reduce"
  param {
    lr_mult: 1
    decay_mult: 1
  }
  param {
    lr_mult: 2
    decay_mult: 0
  }
  convolution_param {
    num_output: 32
    kernel_size: 1
    weight_filler {
      type: "xavier"
      std: 0.2
    }
    bias_filler {
      type: "constant"
      value: 0.2
    }
  }
}
layer {
  name: "inception_3b/relu_5x5_reduce"
  type: "ReLU"
  bottom: "inception_3b/5x5_reduce"
  top: "inception_3b/5x5_reduce"
}
layer {
  name: "inception_3b/5x5"
  type: "Convolution"
  bottom: "inception_3b/5x5_reduce"
  top: "inception_3b/5x5"
  param {
    lr_mult: 1
    decay_mult: 1
  }
  param {
    lr_mult: 2
    decay_mult: 0
  }
  convolution_param {
    num_output: 96
    pad: 2
    kernel_size: 5
    weight_filler {
      type: "xavier"
      std: 0.03
    }
    bias_filler {
      type: "constant"
      value: 0.2
    }
  }
}
layer {
  name: "inception_3b/relu_5x5"
  type: "ReLU"
  bottom: "inception_3b/5x5"
  top: "inception_3b/5x5"
}
layer {
  name: "inception_3b/pool"
  type: "Pooling"
  bottom: "inception_3a/output"
  top: "inception_3b/pool"
  pooling_param {
    pool: MAX
    kernel_size: 3
    stride: 1
    pad: 1
  }
}
layer {
  name: "inception_3b/pool_proj"
  type: "Convolution"
  bottom: "inception_3b/pool"
  top: "inception_3b/pool_proj"
  param {
    lr_mult: 1
    decay_mult: 1
  }
  param {
    lr_mult: 2
    decay_mult: 0
  }
  convolution_param {
    num_output: 64
    kernel_size: 1
    weight_filler {
      type: "xavier"
      std: 0.1
    }
    bias_filler {
      type: "constant"
      value: 0.2
    }
  }
}
layer {
  name: "inception_3b/relu_pool_proj"
  type: "ReLU"
  bottom: "inception_3b/pool_proj"
  top: "inception_3b/pool_proj"
}
layer {
  name: "inception_3b/output"
  type: "Concat"
  bottom: "inception_3b/1x1"
  bottom: "inception_3b/3x3"
  bottom: "inception_3b/5x5"
  bottom: "inception_3b/pool_proj"
  top: "inception_3b/output"
}
layer {
  name: "pool3/3x3_s2"
  type: "Pooling"
  bottom: "inception_3b/output"
  top: "pool3/3x3_s2"
  pooling_param {
    pool: MAX
    kernel_size: 3
    stride: 2
  }
}
layer {
  name: "inception_4a/1x1"
  type: "Convolution"
  bottom: "pool3/3x3_s2"
  top: "inception_4a/1x1"
  param {
    lr_mult: 1
    decay_mult: 1
  }
  param {
    lr_mult: 2
    decay_mult: 0
  }
  convolution_param {
    num_output: 192
    kernel_size: 1
    weight_filler {
      type: "xavier"
      std: 0.03
    }
    bias_filler {
      type: "constant"
      value: 0.2
    }
  }
}
layer {
  name: "inception_4a/relu_1x1"
  type: "ReLU"
  bottom: "inception_4a/1x1"
  top: "inception_4a/1x1"
}
layer {
  name: "inception_4a/3x3_reduce"
  type: "Convolution"
  bottom: "pool3/3x3_s2"
  top: "inception_4a/3x3_reduce"
  param {
    lr_mult: 1
    decay_mult: 1
  }
  param {
    lr_mult: 2
    decay_mult: 0
  }
  convolution_param {
    num_output: 96
    kernel_size: 1
    weight_filler {
      type: "xavier"
      std: 0.09
    }
    bias_filler {
      type: "constant"
      value: 0.2
    }
  }
}
layer {
  name: "inception_4a/relu_3x3_reduce"
  type: "ReLU"
  bottom: "inception_4a/3x3_reduce"
  top: "inception_4a/3x3_reduce"
}
layer {
  name: "inception_4a/3x3"
  type: "Convolution"
  bottom: "inception_4a/3x3_reduce"
  top: "inception_4a/3x3"
  param {
    lr_mult: 1
    decay_mult: 1
  }
  param {
    lr_mult: 2
    decay_mult: 0
  }
  convolution_param {
    num_output: 208
    pad: 1
    kernel_size: 3
    weight_filler {
      type: "xavier"
      std: 0.03
    }
    bias_filler {
      type: "constant"
      value: 0.2
    }
  }
}
layer {
  name: "inception_4a/relu_3x3"
  type: "ReLU"
  bottom: "inception_4a/3x3"
  top: "inception_4a/3x3"
}
layer {
  name: "inception_4a/5x5_reduce"
  type: "Convolution"
  bottom: "pool3/3x3_s2"
  top: "inception_4a/5x5_reduce"
  param {
    lr_mult: 1
    decay_mult: 1
  }
  param {
    lr_mult: 2
    decay_mult: 0
  }
  convolution_param {
    num_output: 16
    kernel_size: 1
    weight_filler {
      type: "xavier"
      std: 0.2
    }
    bias_filler {
      type: "constant"
      value: 0.2
    }
  }
}
layer {
  name: "inception_4a/relu_5x5_reduce"
  type: "ReLU"
  bottom: "inception_4a/5x5_reduce"
  top: "inception_4a/5x5_reduce"
}
layer {
  name: "inception_4a/5x5"
  type: "Convolution"
  bottom: "inception_4a/5x5_reduce"
  top: "inception_4a/5x5"
  param {
    lr_mult: 1
    decay_mult: 1
  }
  param {
    lr_mult: 2
    decay_mult: 0
  }
  convolution_param {
    num_output: 48
    pad: 2
    kernel_size: 5
    weight_filler {
      type: "xavier"
      std: 0.03
    }
    bias_filler {
      type: "constant"
      value: 0.2
    }
  }
}
layer {
  name: "inception_4a/relu_5x5"
  type: "ReLU"
  bottom: "inception_4a/5x5"
  top: "inception_4a/5x5"
}
layer {
  name: "inception_4a/pool"
  type: "Pooling"
  bottom: "pool3/3x3_s2"
  top: "inception_4a/pool"
  pooling_param {
    pool: MAX
    kernel_size: 3
    stride: 1
    pad: 1
  }
}
layer {
  name: "inception_4a/pool_proj"
  type: "Convolution"
  bottom: "inception_4a/pool"
  top: "inception_4a/pool_proj"
  param {
    lr_mult: 1
    decay_mult: 1
  }
  param {
    lr_mult: 2
    decay_mult: 0
  }
  convolution_param {
    num_output: 64
    kernel_size: 1
    weight_filler {
      type: "xavier"
      std: 0.1
    }
    bias_filler {
      type: "constant"
      value: 0.2
    }
  }
}
layer {
  name: "inception_4a/relu_pool_proj"
  type: "ReLU"
  bottom: "inception_4a/pool_proj"
  top: "inception_4a/pool_proj"
}
layer {
  name: "inception_4a/output"
  type: "Concat"
  bottom: "inception_4a/1x1"
  bottom: "inception_4a/3x3"
  bottom: "inception_4a/5x5"
  bottom: "inception_4a/pool_proj"
  top: "inception_4a/output"
}
layer {
  name: "loss1/ave_pool"
  type: "Pooling"
  bottom: "inception_4a/output"
  top: "loss1/ave_pool"
  pooling_param {
    pool: AVE
    kernel_size: 5
    stride: 3
  }
}
layer {
  name: "loss1/conv"
  type: "Convolution"
  bottom: "loss1/ave_pool"
  top: "loss1/conv"
  param {
    lr_mult: 1
    decay_mult: 1
  }
  param {
    lr_mult: 2
    decay_mult: 0
  }
  convolution_param {
    num_output: 128
    kernel_size: 1
    weight_filler {
      type: "xavier"
      std: 0.08
    }
    bias_filler {
      type: "constant"
      value: 0.2
    }
  }
}
layer {
  name: "loss1/relu_conv"
  type: "ReLU"
  bottom: "loss1/conv"
  top: "loss1/conv"
}
layer {
  name: "loss1/fc"
  type: "InnerProduct"
  bottom: "loss1/conv"
  top: "loss1/fc"
  param {
    lr_mult: 1
    decay_mult: 1
  }
  param {
    lr_mult: 2
    decay_mult: 0
  }
  inner_product_param {
    num_output: 1024
    weight_filler {
      type: "xavier"
      std: 0.02
    }
    bias_filler {
      type: "constant"
      value: 0.2
    }
  }
}
layer {
  name: "loss1/relu_fc"
  type: "ReLU"
  bottom: "loss1/fc"
  top: "loss1/fc"
}
layer {
  name: "loss1/drop_fc"
  type: "Dropout"
  bottom: "loss1/fc"
  top: "loss1/fc"
  dropout_param {
    dropout_ratio: 0.7
  }
}
layer {
  name: "loss1/classifier_plantvillage"
  type: "InnerProduct"
  bottom: "loss1/fc"
  top: "loss1/classifier_plantvillage"
  param {
    lr_mult: 1
    decay_mult: 1
  }
  param {
    lr_mult: 2
    decay_mult: 0
  }
  inner_product_param {
    num_output: 38
    weight_filler {
      type: "xavier"
      std: 0.0009765625
    }
    bias_filler {
      type: "constant"
      value: 0
    }
  }
}
layer {
  name: "inception_4b/1x1"
  type: "Convolution"
  bottom: "inception_4a/output"
  top: "inception_4b/1x1"
  param {
    lr_mult: 1
    decay_mult: 1
  }
  param {
    lr_mult: 2
    decay_mult: 0
  }
  convolution_param {
    num_output: 160
    kernel_size: 1
    weight_filler {
      type: "xavier"
      std: 0.03
    }
    bias_filler {
      type: "constant"
      value: 0.2
    }
  }
}
layer {
  name: "inception_4b/relu_1x1"
  type: "ReLU"
  bottom: "inception_4b/1x1"
  top: "inception_4b/1x1"
}
layer {
  name: "inception_4b/3x3_reduce"
  type: "Convolution"
  bottom: "inception_4a/output"
  top: "inception_4b/3x3_reduce"
  param {
    lr_mult: 1
    decay_mult: 1
  }
  param {
    lr_mult: 2
    decay_mult: 0
  }
  convolution_param {
    num_output: 112
    kernel_size: 1
    weight_filler {
      type: "xavier"
      std: 0.09
    }
    bias_filler {
      type: "constant"
      value: 0.2
    }
  }
}
layer {
  name: "inception_4b/relu_3x3_reduce"
  type: "ReLU"
  bottom: "inception_4b/3x3_reduce"
  top: "inception_4b/3x3_reduce"
}
layer {
  name: "inception_4b/3x3"
  type: "Convolution"
  bottom: "inception_4b/3x3_reduce"
  top: "inception_4b/3x3"
  param {
    lr_mult: 1
    decay_mult: 1
  }
  param {
    lr_mult: 2
    decay_mult: 0
  }
  convolution_param {
    num_output: 224
    pad: 1
    kernel_size: 3
    weight_filler {
      type: "xavier"
      std: 0.03
    }
    bias_filler {
      type: "constant"
      value: 0.2
    }
  }
}
layer {
  name: "inception_4b/relu_3x3"
  type: "ReLU"
  bottom: "inception_4b/3x3"
  top: "inception_4b/3x3"
}
layer {
  name: "inception_4b/5x5_reduce"
  type: "Convolution"
  bottom: "inception_4a/output"
  top: "inception_4b/5x5_reduce"
  param {
    lr_mult: 1
    decay_mult: 1
  }
  param {
    lr_mult: 2
    decay_mult: 0
  }
  convolution_param {
    num_output: 24
    kernel_size: 1
    weight_filler {
      type: "xavier"
      std: 0.2
    }
    bias_filler {
      type: "constant"
      value: 0.2
    }
  }
}
layer {
  name: "inception_4b/relu_5x5_reduce"
  type: "ReLU"
  bottom: "inception_4b/5x5_reduce"
  top: "inception_4b/5x5_reduce"
}
layer {
  name: "inception_4b/5x5"
  type: "Convolution"
  bottom: "inception_4b/5x5_reduce"
  top: "inception_4b/5x5"
  param {
    lr_mult: 1
    decay_mult: 1
  }
  param {
    lr_mult: 2
    decay_mult: 0
  }
  convolution_param {
    num_output: 64
    pad: 2
    kernel_size: 5
    weight_filler {
      type: "xavier"
      std: 0.03
    }
    bias_filler {
      type: "constant"
      value: 0.2
    }
  }
}
layer {
  name: "inception_4b/relu_5x5"
  type: "ReLU"
  bottom: "inception_4b/5x5"
  top: "inception_4b/5x5"
}
layer {
  name: "inception_4b/pool"
  type: "Pooling"
  bottom: "inception_4a/output"
  top: "inception_4b/pool"
  pooling_param {
    pool: MAX
    kernel_size: 3
    stride: 1
    pad: 1
  }
}
layer {
  name: "inception_4b/pool_proj"
  type: "Convolution"
  bottom: "inception_4b/pool"
  top: "inception_4b/pool_proj"
  param {
    lr_mult: 1
    decay_mult: 1
  }
  param {
    lr_mult: 2
    decay_mult: 0
  }
  convolution_param {
    num_output: 64
    kernel_size: 1
    weight_filler {
      type: "xavier"
      std: 0.1
    }
    bias_filler {
      type: "constant"
      value: 0.2
    }
  }
}
layer {
  name: "inception_4b/relu_pool_proj"
  type: "ReLU"
  bottom: "inception_4b/pool_proj"
  top: "inception_4b/pool_proj"
}
layer {
  name: "inception_4b/output"
  type: "Concat"
  bottom: "inception_4b/1x1"
  bottom: "inception_4b/3x3"
  bottom: "inception_4b/5x5"
  bottom: "inception_4b/pool_proj"
  top: "inception_4b/output"
}
layer {
  name: "inception_4c/1x1"
  type: "Convolution"
  bottom: "inception_4b/output"
  top: "inception_4c/1x1"
  param {
    lr_mult: 1
    decay_mult: 1
  }
  param {
    lr_mult: 2
    decay_mult: 0
  }
  convolution_param {
    num_output: 128
    kernel_size: 1
    weight_filler {
      type: "xavier"
      std: 0.03
    }
    bias_filler {
      type: "constant"
      value: 0.2
    }
  }
}
layer {
  name: "inception_4c/relu_1x1"
  type: "ReLU"
  bottom: "inception_4c/1x1"
  top: "inception_4c/1x1"
}
layer {
  name: "inception_4c/3x3_reduce"
  type: "Convolution"
  bottom: "inception_4b/output"
  top: "inception_4c/3x3_reduce"
  param {
    lr_mult: 1
    decay_mult: 1
  }
  param {
    lr_mult: 2
    decay_mult: 0
  }
  convolution_param {
    num_output: 128
    kernel_size: 1
    weight_filler {
      type: "xavier"
      std: 0.09
    }
    bias_filler {
      type: "constant"
      value: 0.2
    }
  }
}
layer {
  name: "inception_4c/relu_3x3_reduce"
  type: "ReLU"
  bottom: "inception_4c/3x3_reduce"
  top: "inception_4c/3x3_reduce"
}
layer {
  name: "inception_4c/3x3"
  type: "Convolution"
  bottom: "inception_4c/3x3_reduce"
  top: "inception_4c/3x3"
  param {
    lr_mult: 1
    decay_mult: 1
  }
  param {
    lr_mult: 2
    decay_mult: 0
  }
  convolution_param {
    num_output: 256
    pad: 1
    kernel_size: 3
    weight_filler {
      type: "xavier"
      std: 0.03
    }
    bias_filler {
      type: "constant"
      value: 0.2
    }
  }
}
layer {
  name: "inception_4c/relu_3x3"
  type: "ReLU"
  bottom: "inception_4c/3x3"
  top: "inception_4c/3x3"
}
layer {
  name: "inception_4c/5x5_reduce"
  type: "Convolution"
  bottom: "inception_4b/output"
  top: "inception_4c/5x5_reduce"
  param {
    lr_mult: 1
    decay_mult: 1
  }
  param {
    lr_mult: 2
    decay_mult: 0
  }
  convolution_param {
    num_output: 24
    kernel_size: 1
    weight_filler {
      type: "xavier"
      std: 0.2
    }
    bias_filler {
      type: "constant"
      value: 0.2
    }
  }
}
layer {
  name: "inception_4c/relu_5x5_reduce"
  type: "ReLU"
  bottom: "inception_4c/5x5_reduce"
  top: "inception_4c/5x5_reduce"
}
layer {
  name: "inception_4c/5x5"
  type: "Convolution"
  bottom: "inception_4c/5x5_reduce"
  top: "inception_4c/5x5"
  param {
    lr_mult: 1
    decay_mult: 1
  }
  param {
    lr_mult: 2
    decay_mult: 0
  }
  convolution_param {
    num_output: 64
    pad: 2
    kernel_size: 5
    weight_filler {
      type: "xavier"
      std: 0.03
    }
    bias_filler {
      type: "constant"
      value: 0.2
    }
  }
}
layer {
  name: "inception_4c/relu_5x5"
  type: "ReLU"
  bottom: "inception_4c/5x5"
  top: "inception_4c/5x5"
}
layer {
  name: "inception_4c/pool"
  type: "Pooling"
  bottom: "inception_4b/output"
  top: "inception_4c/pool"
  pooling_param {
    pool: MAX
    kernel_size: 3
    stride: 1
    pad: 1
  }
}
layer {
  name: "inception_4c/pool_proj"
  type: "Convolution"
  bottom: "inception_4c/pool"
  top: "inception_4c/pool_proj"
  param {
    lr_mult: 1
    decay_mult: 1
  }
  param {
    lr_mult: 2
    decay_mult: 0
  }
  convolution_param {
    num_output: 64
    kernel_size: 1
    weight_filler {
      type: "xavier"
      std: 0.1
    }
    bias_filler {
      type: "constant"
      value: 0.2
    }
  }
}
layer {
  name: "inception_4c/relu_pool_proj"
  type: "ReLU"
  bottom: "inception_4c/pool_proj"
  top: "inception_4c/pool_proj"
}
layer {
  name: "inception_4c/output"
  type: "Concat"
  bottom: "inception_4c/1x1"
  bottom: "inception_4c/3x3"
  bottom: "inception_4c/5x5"
  bottom: "inception_4c/pool_proj"
  top: "inception_4c/output"
}
layer {
  name: "inception_4d/1x1"
  type: "Convolution"
  bottom: "inception_4c/output"
  top: "inception_4d/1x1"
  param {
    lr_mult: 1
    decay_mult: 1
  }
  param {
    lr_mult: 2
    decay_mult: 0
  }
  convolution_param {
    num_output: 112
    kernel_size: 1
    weight_filler {
      type: "xavier"
      std: 0.03
    }
    bias_filler {
      type: "constant"
      value: 0.2
    }
  }
}
layer {
  name: "inception_4d/relu_1x1"
  type: "ReLU"
  bottom: "inception_4d/1x1"
  top: "inception_4d/1x1"
}
layer {
  name: "inception_4d/3x3_reduce"
  type: "Convolution"
  bottom: "inception_4c/output"
  top: "inception_4d/3x3_reduce"
  param {
    lr_mult: 1
    decay_mult: 1
  }
  param {
    lr_mult: 2
    decay_mult: 0
  }
  convolution_param {
    num_output: 144
    kernel_size: 1
    weight_filler {
      type: "xavier"
      std: 0.09
    }
    bias_filler {
      type: "constant"
      value: 0.2
    }
  }
}
layer {
  name: "inception_4d/relu_3x3_reduce"
  type: "ReLU"
  bottom: "inception_4d/3x3_reduce"
  top: "inception_4d/3x3_reduce"
}
layer {
  name: "inception_4d/3x3"
  type: "Convolution"
  bottom: "inception_4d/3x3_reduce"
  top: "inception_4d/3x3"
  param {
    lr_mult: 1
    decay_mult: 1
  }
  param {
    lr_mult: 2
    decay_mult: 0
  }
  convolution_param {
    num_output: 288
    pad: 1
    kernel_size: 3
    weight_filler {
      type: "xavier"
      std: 0.03
    }
    bias_filler {
      type: "constant"
      value: 0.2
    }
  }
}
layer {
  name: "inception_4d/relu_3x3"
  type: "ReLU"
  bottom: "inception_4d/3x3"
  top: "inception_4d/3x3"
}
layer {
  name: "inception_4d/5x5_reduce"
  type: "Convolution"
  bottom: "inception_4c/output"
  top: "inception_4d/5x5_reduce"
  param {
    lr_mult: 1
    decay_mult: 1
  }
  param {
    lr_mult: 2
    decay_mult: 0
  }
  convolution_param {
    num_output: 32
    kernel_size: 1
    weight_filler {
      type: "xavier"
      std: 0.2
    }
    bias_filler {
      type: "constant"
      value: 0.2
    }
  }
}
layer {
  name: "inception_4d/relu_5x5_reduce"
  type: "ReLU"
  bottom: "inception_4d/5x5_reduce"
  top: "inception_4d/5x5_reduce"
}
layer {
  name: "inception_4d/5x5"
  type: "Convolution"
  bottom: "inception_4d/5x5_reduce"
  top: "inception_4d/5x5"
  param {
    lr_mult: 1
    decay_mult: 1
  }
  param {
    lr_mult: 2
    decay_mult: 0
  }
  convolution_param {
    num_output: 64
    pad: 2
    kernel_size: 5
    weight_filler {
      type: "xavier"
      std: 0.03
    }
    bias_filler {
      type: "constant"
      value: 0.2
    }
  }
}
layer {
  name: "inception_4d/relu_5x5"
  type: "ReLU"
  bottom: "inception_4d/5x5"
  top: "inception_4d/5x5"
}
layer {
  name: "inception_4d/pool"
  type: "Pooling"
  bottom: "inception_4c/output"
  top: "inception_4d/pool"
  pooling_param {
    pool: MAX
    kernel_size: 3
    stride: 1
    pad: 1
  }
}
layer {
  name: "inception_4d/pool_proj"
  type: "Convolution"
  bottom: "inception_4d/pool"
  top: "inception_4d/pool_proj"
  param {
    lr_mult: 1
    decay_mult: 1
  }
  param {
    lr_mult: 2
    decay_mult: 0
  }
  convolution_param {
    num_output: 64
    kernel_size: 1
    weight_filler {
      type: "xavier"
      std: 0.1
    }
    bias_filler {
      type: "constant"
      value: 0.2
    }
  }
}
layer {
  name: "inception_4d/relu_pool_proj"
  type: "ReLU"
  bottom: "inception_4d/pool_proj"
  top: "inception_4d/pool_proj"
}
layer {
  name: "inception_4d/output"
  type: "Concat"
  bottom: "inception_4d/1x1"
  bottom: "inception_4d/3x3"
  bottom: "inception_4d/5x5"
  bottom: "inception_4d/pool_proj"
  top: "inception_4d/output"
}
layer {
  name: "loss2/ave_pool"
  type: "Pooling"
  bottom: "inception_4d/output"
  top: "loss2/ave_pool"
  pooling_param {
    pool: AVE
    kernel_size: 5
    stride: 3
  }
}
layer {
  name: "loss2/conv"
  type: "Convolution"
  bottom: "loss2/ave_pool"
  top: "loss2/conv"
  param {
    lr_mult: 1
    decay_mult: 1
  }
  param {
    lr_mult: 2
    decay_mult: 0
  }
  convolution_param {
    num_output: 128
    kernel_size: 1
    weight_filler {
      type: "xavier"
      std: 0.08
    }
    bias_filler {
      type: "constant"
      value: 0.2
    }
  }
}
layer {
  name: "loss2/relu_conv"
  type: "ReLU"
  bottom: "loss2/conv"
  top: "loss2/conv"
}
layer {
  name: "loss2/fc"
  type: "InnerProduct"
  bottom: "loss2/conv"
  top: "loss2/fc"
  param {
    lr_mult: 1
    decay_mult: 1
  }
  param {
    lr_mult: 2
    decay_mult: 0
  }
  inner_product_param {
    num_output: 1024
    weight_filler {
      type: "xavier"
      std: 0.02
    }
    bias_filler {
      type: "constant"
      value: 0.2
    }
  }
}
layer {
  name: "loss2/relu_fc"
  type: "ReLU"
  bottom: "loss2/fc"
  top: "loss2/fc"
}
layer {
  name: "loss2/drop_fc"
  type: "Dropout"
  bottom: "loss2/fc"
  top: "loss2/fc"
  dropout_param {
    dropout_ratio: 0.7
  }
}
layer {
  name: "loss2/classifier_plantvillage"
  type: "InnerProduct"
  bottom: "loss2/fc"
  top: "loss2/classifier_plantvillage"
  param {
    lr_mult: 1
    decay_mult: 1
  }
  param {
    lr_mult: 2
    decay_mult: 0
  }
  inner_product_param {
    num_output: 38
    weight_filler {
      type: "xavier"
      std: 0.0009765625
    }
    bias_filler {
      type: "constant"
      value: 0
    }
  }
}
layer {
  name: "inception_4e/1x1"
  type: "Convolution"
  bottom: "inception_4d/output"
  top: "inception_4e/1x1"
  param {
    lr_mult: 1
    decay_mult: 1
  }
  param {
    lr_mult: 2
    decay_mult: 0
  }
  convolution_param {
    num_output: 256
    kernel_size: 1
    weight_filler {
      type: "xavier"
      std: 0.03
    }
    bias_filler {
      type: "constant"
      value: 0.2
    }
  }
}
layer {
  name: "inception_4e/relu_1x1"
  type: "ReLU"
  bottom: "inception_4e/1x1"
  top: "inception_4e/1x1"
}
layer {
  name: "inception_4e/3x3_reduce"
  type: "Convolution"
  bottom: "inception_4d/output"
  top: "inception_4e/3x3_reduce"
  param {
    lr_mult: 1
    decay_mult: 1
  }
  param {
    lr_mult: 2
    decay_mult: 0
  }
  convolution_param {
    num_output: 160
    kernel_size: 1
    weight_filler {
      type: "xavier"
      std: 0.09
    }
    bias_filler {
      type: "constant"
      value: 0.2
    }
  }
}
layer {
  name: "inception_4e/relu_3x3_reduce"
  type: "ReLU"
  bottom: "inception_4e/3x3_reduce"
  top: "inception_4e/3x3_reduce"
}
layer {
  name: "inception_4e/3x3"
  type: "Convolution"
  bottom: "inception_4e/3x3_reduce"
  top: "inception_4e/3x3"
  param {
    lr_mult: 1
    decay_mult: 1
  }
  param {
    lr_mult: 2
    decay_mult: 0
  }
  convolution_param {
    num_output: 320
    pad: 1
    kernel_size: 3
    weight_filler {
      type: "xavier"
      std: 0.03
    }
    bias_filler {
      type: "constant"
      value: 0.2
    }
  }
}
layer {
  name: "inception_4e/relu_3x3"
  type: "ReLU"
  bottom: "inception_4e/3x3"
  top: "inception_4e/3x3"
}
layer {
  name: "inception_4e/5x5_reduce"
  type: "Convolution"
  bottom: "inception_4d/output"
  top: "inception_4e/5x5_reduce"
  param {
    lr_mult: 1
    decay_mult: 1
  }
  param {
    lr_mult: 2
    decay_mult: 0
  }
  convolution_param {
    num_output: 32
    kernel_size: 1
    weight_filler {
      type: "xavier"
      std: 0.2
    }
    bias_filler {
      type: "constant"
      value: 0.2
    }
  }
}
layer {
  name: "inception_4e/relu_5x5_reduce"
  type: "ReLU"
  bottom: "inception_4e/5x5_reduce"
  top: "inception_4e/5x5_reduce"
}
layer {
  name: "inception_4e/5x5"
  type: "Convolution"
  bottom: "inception_4e/5x5_reduce"
  top: "inception_4e/5x5"
  p
I0403 16:39:10.619513 19028 layer_factory.hpp:77] Creating layer data
I0403 16:39:10.620097 19028 net.cpp:91] Creating Layer data
I0403 16:39:10.620128 19028 net.cpp:399] data -> data
I0403 16:39:10.620178 19028 net.cpp:399] data -> label
I0403 16:39:10.620215 19028 data_transformer.cpp:25] Loading mean file from: /home/mohanty/data/final_dataset/lmdb/color-20-80/mean.binaryproto
I0403 16:39:10.621381 19031 db_lmdb.cpp:38] Opened lmdb /home/mohanty/data/final_dataset/lmdb/color-20-80/test_db
I0403 16:39:10.633154 19028 data_layer.cpp:41] output data size: 24,3,224,224
I0403 16:39:10.659693 19028 net.cpp:141] Setting up data
I0403 16:39:10.659768 19028 net.cpp:148] Top shape: 24 3 224 224 (3612672)
I0403 16:39:10.659791 19028 net.cpp:148] Top shape: 24 (24)
I0403 16:39:10.659808 19028 net.cpp:156] Memory required for data: 14450784
I0403 16:39:10.659835 19028 layer_factory.hpp:77] Creating layer label_data_1_split
I0403 16:39:10.659862 19028 net.cpp:91] Creating Layer label_data_1_split
I0403 16:39:10.659880 19028 net.cpp:425] label_data_1_split <- label
I0403 16:39:10.659914 19028 net.cpp:399] label_data_1_split -> label_data_1_split_0
I0403 16:39:10.659940 19028 net.cpp:399] label_data_1_split -> label_data_1_split_1
I0403 16:39:10.659972 19028 net.cpp:399] label_data_1_split -> label_data_1_split_2
I0403 16:39:10.659993 19028 net.cpp:399] label_data_1_split -> label_data_1_split_3
I0403 16:39:10.660014 19028 net.cpp:399] label_data_1_split -> label_data_1_split_4
I0403 16:39:10.660035 19028 net.cpp:399] label_data_1_split -> label_data_1_split_5
I0403 16:39:10.660056 19028 net.cpp:399] label_data_1_split -> label_data_1_split_6
I0403 16:39:10.660079 19028 net.cpp:399] label_data_1_split -> label_data_1_split_7
I0403 16:39:10.660099 19028 net.cpp:399] label_data_1_split -> label_data_1_split_8
I0403 16:39:10.660120 19028 net.cpp:399] label_data_1_split -> label_data_1_split_9
I0403 16:39:10.660233 19028 net.cpp:141] Setting up label_data_1_split
I0403 16:39:10.660257 19028 net.cpp:148] Top shape: 24 (24)
I0403 16:39:10.660274 19028 net.cpp:148] Top shape: 24 (24)
I0403 16:39:10.660291 19028 net.cpp:148] Top shape: 24 (24)
I0403 16:39:10.660307 19028 net.cpp:148] Top shape: 24 (24)
I0403 16:39:10.660321 19028 net.cpp:148] Top shape: 24 (24)
I0403 16:39:10.660337 19028 net.cpp:148] Top shape: 24 (24)
I0403 16:39:10.660353 19028 net.cpp:148] Top shape: 24 (24)
I0403 16:39:10.660369 19028 net.cpp:148] Top shape: 24 (24)
I0403 16:39:10.660385 19028 net.cpp:148] Top shape: 24 (24)
I0403 16:39:10.660400 19028 net.cpp:148] Top shape: 24 (24)
I0403 16:39:10.660444 19028 net.cpp:156] Memory required for data: 14451744
I0403 16:39:10.660459 19028 layer_factory.hpp:77] Creating layer conv1/7x7_s2
I0403 16:39:10.660490 19028 net.cpp:91] Creating Layer conv1/7x7_s2
I0403 16:39:10.660509 19028 net.cpp:425] conv1/7x7_s2 <- data
I0403 16:39:10.660531 19028 net.cpp:399] conv1/7x7_s2 -> conv1/7x7_s2
I0403 16:39:10.795933 19028 net.cpp:141] Setting up conv1/7x7_s2
I0403 16:39:10.796008 19028 net.cpp:148] Top shape: 24 64 112 112 (19267584)
I0403 16:39:10.796026 19028 net.cpp:156] Memory required for data: 91522080
I0403 16:39:10.796057 19028 layer_factory.hpp:77] Creating layer conv1/relu_7x7
I0403 16:39:10.796098 19028 net.cpp:91] Creating Layer conv1/relu_7x7
I0403 16:39:10.796118 19028 net.cpp:425] conv1/relu_7x7 <- conv1/7x7_s2
I0403 16:39:10.796136 19028 net.cpp:386] conv1/relu_7x7 -> conv1/7x7_s2 (in-place)
I0403 16:39:10.796401 19028 net.cpp:141] Setting up conv1/relu_7x7
I0403 16:39:10.796427 19028 net.cpp:148] Top shape: 24 64 112 112 (19267584)
I0403 16:39:10.796442 19028 net.cpp:156] Memory required for data: 168592416
I0403 16:39:10.796458 19028 layer_factory.hpp:77] Creating layer pool1/3x3_s2
I0403 16:39:10.796488 19028 net.cpp:91] Creating Layer pool1/3x3_s2
I0403 16:39:10.796506 19028 net.cpp:425] pool1/3x3_s2 <- conv1/7x7_s2
I0403 16:39:10.796526 19028 net.cpp:399] pool1/3x3_s2 -> pool1/3x3_s2
I0403 16:39:10.796620 19028 net.cpp:141] Setting up pool1/3x3_s2
I0403 16:39:10.796645 19028 net.cpp:148] Top shape: 24 64 56 56 (4816896)
I0403 16:39:10.796660 19028 net.cpp:156] Memory required for data: 187860000
I0403 16:39:10.796675 19028 layer_factory.hpp:77] Creating layer pool1/norm1
I0403 16:39:10.796701 19028 net.cpp:91] Creating Layer pool1/norm1
I0403 16:39:10.796720 19028 net.cpp:425] pool1/norm1 <- pool1/3x3_s2
I0403 16:39:10.796738 19028 net.cpp:399] pool1/norm1 -> pool1/norm1
I0403 16:39:10.797039 19028 net.cpp:141] Setting up pool1/norm1
I0403 16:39:10.797067 19028 net.cpp:148] Top shape: 24 64 56 56 (4816896)
I0403 16:39:10.797083 19028 net.cpp:156] Memory required for data: 207127584
I0403 16:39:10.797098 19028 layer_factory.hpp:77] Creating layer conv2/3x3_reduce
I0403 16:39:10.797127 19028 net.cpp:91] Creating Layer conv2/3x3_reduce
I0403 16:39:10.797143 19028 net.cpp:425] conv2/3x3_reduce <- pool1/norm1
I0403 16:39:10.797163 19028 net.cpp:399] conv2/3x3_reduce -> conv2/3x3_reduce
I0403 16:39:10.798518 19028 net.cpp:141] Setting up conv2/3x3_reduce
I0403 16:39:10.798547 19028 net.cpp:148] Top shape: 24 64 56 56 (4816896)
I0403 16:39:10.798563 19028 net.cpp:156] Memory required for data: 226395168
I0403 16:39:10.798584 19028 layer_factory.hpp:77] Creating layer conv2/relu_3x3_reduce
I0403 16:39:10.798606 19028 net.cpp:91] Creating Layer conv2/relu_3x3_reduce
I0403 16:39:10.798624 19028 net.cpp:425] conv2/relu_3x3_reduce <- conv2/3x3_reduce
I0403 16:39:10.798643 19028 net.cpp:386] conv2/relu_3x3_reduce -> conv2/3x3_reduce (in-place)
I0403 16:39:10.798907 19028 net.cpp:141] Setting up conv2/relu_3x3_reduce
I0403 16:39:10.798933 19028 net.cpp:148] Top shape: 24 64 56 56 (4816896)
I0403 16:39:10.798949 19028 net.cpp:156] Memory required for data: 245662752
I0403 16:39:10.798964 19028 layer_factory.hpp:77] Creating layer conv2/3x3
I0403 16:39:10.798986 19028 net.cpp:91] Creating Layer conv2/3x3
I0403 16:39:10.799005 19028 net.cpp:425] conv2/3x3 <- conv2/3x3_reduce
I0403 16:39:10.799028 19028 net.cpp:399] conv2/3x3 -> conv2/3x3
I0403 16:39:10.801246 19028 net.cpp:141] Setting up conv2/3x3
I0403 16:39:10.801276 19028 net.cpp:148] Top shape: 24 192 56 56 (14450688)
I0403 16:39:10.801293 19028 net.cpp:156] Memory required for data: 303465504
I0403 16:39:10.801313 19028 layer_factory.hpp:77] Creating layer conv2/relu_3x3
I0403 16:39:10.801336 19028 net.cpp:91] Creating Layer conv2/relu_3x3
I0403 16:39:10.801352 19028 net.cpp:425] conv2/relu_3x3 <- conv2/3x3
I0403 16:39:10.801369 19028 net.cpp:386] conv2/relu_3x3 -> conv2/3x3 (in-place)
I0403 16:39:10.801537 19028 net.cpp:141] Setting up conv2/relu_3x3
I0403 16:39:10.801564 19028 net.cpp:148] Top shape: 24 192 56 56 (14450688)
I0403 16:39:10.801615 19028 net.cpp:156] Memory required for data: 361268256
I0403 16:39:10.801632 19028 layer_factory.hpp:77] Creating layer conv2/norm2
I0403 16:39:10.801651 19028 net.cpp:91] Creating Layer conv2/norm2
I0403 16:39:10.801666 19028 net.cpp:425] conv2/norm2 <- conv2/3x3
I0403 16:39:10.801686 19028 net.cpp:399] conv2/norm2 -> conv2/norm2
I0403 16:39:10.801982 19028 net.cpp:141] Setting up conv2/norm2
I0403 16:39:10.802009 19028 net.cpp:148] Top shape: 24 192 56 56 (14450688)
I0403 16:39:10.802024 19028 net.cpp:156] Memory required for data: 419071008
I0403 16:39:10.802040 19028 layer_factory.hpp:77] Creating layer pool2/3x3_s2
I0403 16:39:10.802058 19028 net.cpp:91] Creating Layer pool2/3x3_s2
I0403 16:39:10.802073 19028 net.cpp:425] pool2/3x3_s2 <- conv2/norm2
I0403 16:39:10.802093 19028 net.cpp:399] pool2/3x3_s2 -> pool2/3x3_s2
I0403 16:39:10.802145 19028 net.cpp:141] Setting up pool2/3x3_s2
I0403 16:39:10.802168 19028 net.cpp:148] Top shape: 24 192 28 28 (3612672)
I0403 16:39:10.802183 19028 net.cpp:156] Memory required for data: 433521696
I0403 16:39:10.802199 19028 layer_factory.hpp:77] Creating layer pool2/3x3_s2_pool2/3x3_s2_0_split
I0403 16:39:10.802218 19028 net.cpp:91] Creating Layer pool2/3x3_s2_pool2/3x3_s2_0_split
I0403 16:39:10.802235 19028 net.cpp:425] pool2/3x3_s2_pool2/3x3_s2_0_split <- pool2/3x3_s2
I0403 16:39:10.802251 19028 net.cpp:399] pool2/3x3_s2_pool2/3x3_s2_0_split -> pool2/3x3_s2_pool2/3x3_s2_0_split_0
I0403 16:39:10.802274 19028 net.cpp:399] pool2/3x3_s2_pool2/3x3_s2_0_split -> pool2/3x3_s2_pool2/3x3_s2_0_split_1
I0403 16:39:10.802295 19028 net.cpp:399] pool2/3x3_s2_pool2/3x3_s2_0_split -> pool2/3x3_s2_pool2/3x3_s2_0_split_2
I0403 16:39:10.802315 19028 net.cpp:399] pool2/3x3_s2_pool2/3x3_s2_0_split -> pool2/3x3_s2_pool2/3x3_s2_0_split_3
I0403 16:39:10.802382 19028 net.cpp:141] Setting up pool2/3x3_s2_pool2/3x3_s2_0_split
I0403 16:39:10.802405 19028 net.cpp:148] Top shape: 24 192 28 28 (3612672)
I0403 16:39:10.802422 19028 net.cpp:148] Top shape: 24 192 28 28 (3612672)
I0403 16:39:10.802438 19028 net.cpp:148] Top shape: 24 192 28 28 (3612672)
I0403 16:39:10.802454 19028 net.cpp:148] Top shape: 24 192 28 28 (3612672)
I0403 16:39:10.802467 19028 net.cpp:156] Memory required for data: 491324448
I0403 16:39:10.802481 19028 layer_factory.hpp:77] Creating layer inception_3a/1x1
I0403 16:39:10.802502 19028 net.cpp:91] Creating Layer inception_3a/1x1
I0403 16:39:10.802520 19028 net.cpp:425] inception_3a/1x1 <- pool2/3x3_s2_pool2/3x3_s2_0_split_0
I0403 16:39:10.802541 19028 net.cpp:399] inception_3a/1x1 -> inception_3a/1x1
I0403 16:39:10.803997 19028 net.cpp:141] Setting up inception_3a/1x1
I0403 16:39:10.804025 19028 net.cpp:148] Top shape: 24 64 28 28 (1204224)
I0403 16:39:10.804042 19028 net.cpp:156] Memory required for data: 496141344
I0403 16:39:10.804062 19028 layer_factory.hpp:77] Creating layer inception_3a/relu_1x1
I0403 16:39:10.804082 19028 net.cpp:91] Creating Layer inception_3a/relu_1x1
I0403 16:39:10.804107 19028 net.cpp:425] inception_3a/relu_1x1 <- inception_3a/1x1
I0403 16:39:10.804126 19028 net.cpp:386] inception_3a/relu_1x1 -> inception_3a/1x1 (in-place)
I0403 16:39:10.804293 19028 net.cpp:141] Setting up inception_3a/relu_1x1
I0403 16:39:10.804318 19028 net.cpp:148] Top shape: 24 64 28 28 (1204224)
I0403 16:39:10.804334 19028 net.cpp:156] Memory required for data: 500958240
I0403 16:39:10.804348 19028 layer_factory.hpp:77] Creating layer inception_3a/3x3_reduce
I0403 16:39:10.804369 19028 net.cpp:91] Creating Layer inception_3a/3x3_reduce
I0403 16:39:10.804399 19028 net.cpp:425] inception_3a/3x3_reduce <- pool2/3x3_s2_pool2/3x3_s2_0_split_1
I0403 16:39:10.804419 19028 net.cpp:399] inception_3a/3x3_reduce -> inception_3a/3x3_reduce
I0403 16:39:10.806064 19028 net.cpp:141] Setting up inception_3a/3x3_reduce
I0403 16:39:10.806093 19028 net.cpp:148] Top shape: 24 96 28 28 (1806336)
I0403 16:39:10.806109 19028 net.cpp:156] Memory required for data: 508183584
I0403 16:39:10.806131 19028 layer_factory.hpp:77] Creating layer inception_3a/relu_3x3_reduce
I0403 16:39:10.806169 19028 net.cpp:91] Creating Layer inception_3a/relu_3x3_reduce
I0403 16:39:10.806187 19028 net.cpp:425] inception_3a/relu_3x3_reduce <- inception_3a/3x3_reduce
I0403 16:39:10.806205 19028 net.cpp:386] inception_3a/relu_3x3_reduce -> inception_3a/3x3_reduce (in-place)
I0403 16:39:10.806383 19028 net.cpp:141] Setting up inception_3a/relu_3x3_reduce
I0403 16:39:10.806409 19028 net.cpp:148] Top shape: 24 96 28 28 (1806336)
I0403 16:39:10.806424 19028 net.cpp:156] Memory required for data: 515408928
I0403 16:39:10.806439 19028 layer_factory.hpp:77] Creating layer inception_3a/3x3
I0403 16:39:10.806462 19028 net.cpp:91] Creating Layer inception_3a/3x3
I0403 16:39:10.806478 19028 net.cpp:425] inception_3a/3x3 <- inception_3a/3x3_reduce
I0403 16:39:10.806500 19028 net.cpp:399] inception_3a/3x3 -> inception_3a/3x3
I0403 16:39:10.808092 19028 net.cpp:141] Setting up inception_3a/3x3
I0403 16:39:10.808120 19028 net.cpp:148] Top shape: 24 128 28 28 (2408448)
I0403 16:39:10.808136 19028 net.cpp:156] Memory required for data: 525042720
I0403 16:39:10.808156 19028 layer_factory.hpp:77] Creating layer inception_3a/relu_3x3
I0403 16:39:10.808177 19028 net.cpp:91] Creating Layer inception_3a/relu_3x3
I0403 16:39:10.808194 19028 net.cpp:425] inception_3a/relu_3x3 <- inception_3a/3x3
I0403 16:39:10.808210 19028 net.cpp:386] inception_3a/relu_3x3 -> inception_3a/3x3 (in-place)
I0403 16:39:10.808470 19028 net.cpp:141] Setting up inception_3a/relu_3x3
I0403 16:39:10.808495 19028 net.cpp:148] Top shape: 24 128 28 28 (2408448)
I0403 16:39:10.808511 19028 net.cpp:156] Memory required for data: 534676512
I0403 16:39:10.808526 19028 layer_factory.hpp:77] Creating layer inception_3a/5x5_reduce
I0403 16:39:10.808547 19028 net.cpp:91] Creating Layer inception_3a/5x5_reduce
I0403 16:39:10.808564 19028 net.cpp:425] inception_3a/5x5_reduce <- pool2/3x3_s2_pool2/3x3_s2_0_split_2
I0403 16:39:10.808585 19028 net.cpp:399] inception_3a/5x5_reduce -> inception_3a/5x5_reduce
I0403 16:39:10.809479 19028 net.cpp:141] Setting up inception_3a/5x5_reduce
I0403 16:39:10.809507 19028 net.cpp:148] Top shape: 24 16 28 28 (301056)
I0403 16:39:10.809523 19028 net.cpp:156] Memory required for data: 535880736
I0403 16:39:10.809542 19028 layer_factory.hpp:77] Creating layer inception_3a/relu_5x5_reduce
I0403 16:39:10.809562 19028 net.cpp:91] Creating Layer inception_3a/relu_5x5_reduce
I0403 16:39:10.809577 19028 net.cpp:425] inception_3a/relu_5x5_reduce <- inception_3a/5x5_reduce
I0403 16:39:10.809594 19028 net.cpp:386] inception_3a/relu_5x5_reduce -> inception_3a/5x5_reduce (in-place)
I0403 16:39:10.809875 19028 net.cpp:141] Setting up inception_3a/relu_5x5_reduce
I0403 16:39:10.809902 19028 net.cpp:148] Top shape: 24 16 28 28 (301056)
I0403 16:39:10.809918 19028 net.cpp:156] Memory required for data: 537084960
I0403 16:39:10.809933 19028 layer_factory.hpp:77] Creating layer inception_3a/5x5
I0403 16:39:10.809954 19028 net.cpp:91] Creating Layer inception_3a/5x5
I0403 16:39:10.809972 19028 net.cpp:425] inception_3a/5x5 <- inception_3a/5x5_reduce
I0403 16:39:10.809989 19028 net.cpp:399] inception_3a/5x5 -> inception_3a/5x5
I0403 16:39:10.810927 19028 net.cpp:141] Setting up inception_3a/5x5
I0403 16:39:10.810956 19028 net.cpp:148] Top shape: 24 32 28 28 (602112)
I0403 16:39:10.810971 19028 net.cpp:156] Memory required for data: 539493408
I0403 16:39:10.810991 19028 layer_factory.hpp:77] Creating layer inception_3a/relu_5x5
I0403 16:39:10.811009 19028 net.cpp:91] Creating Layer inception_3a/relu_5x5
I0403 16:39:10.811028 19028 net.cpp:425] inception_3a/relu_5x5 <- inception_3a/5x5
I0403 16:39:10.811044 19028 net.cpp:386] inception_3a/relu_5x5 -> inception_3a/5x5 (in-place)
I0403 16:39:10.811206 19028 net.cpp:141] Setting up inception_3a/relu_5x5
I0403 16:39:10.811231 19028 net.cpp:148] Top shape: 24 32 28 28 (602112)
I0403 16:39:10.811245 19028 net.cpp:156] Memory required for data: 541901856
I0403 16:39:10.811259 19028 layer_factory.hpp:77] Creating layer inception_3a/pool
I0403 16:39:10.811278 19028 net.cpp:91] Creating Layer inception_3a/pool
I0403 16:39:10.811295 19028 net.cpp:425] inception_3a/pool <- pool2/3x3_s2_pool2/3x3_s2_0_split_3
I0403 16:39:10.811326 19028 net.cpp:399] inception_3a/pool -> inception_3a/pool
I0403 16:39:10.811383 19028 net.cpp:141] Setting up inception_3a/pool
I0403 16:39:10.811406 19028 net.cpp:148] Top shape: 24 192 28 28 (3612672)
I0403 16:39:10.811421 19028 net.cpp:156] Memory required for data: 556352544
I0403 16:39:10.811436 19028 layer_factory.hpp:77] Creating layer inception_3a/pool_proj
I0403 16:39:10.811457 19028 net.cpp:91] Creating Layer inception_3a/pool_proj
I0403 16:39:10.811475 19028 net.cpp:425] inception_3a/pool_proj <- inception_3a/pool
I0403 16:39:10.811496 19028 net.cpp:399] inception_3a/pool_proj -> inception_3a/pool_proj
I0403 16:39:10.812386 19028 net.cpp:141] Setting up inception_3a/pool_proj
I0403 16:39:10.812414 19028 net.cpp:148] Top shape: 24 32 28 28 (602112)
I0403 16:39:10.812430 19028 net.cpp:156] Memory required for data: 558760992
I0403 16:39:10.812451 19028 layer_factory.hpp:77] Creating layer inception_3a/relu_pool_proj
I0403 16:39:10.812472 19028 net.cpp:91] Creating Layer inception_3a/relu_pool_proj
I0403 16:39:10.812489 19028 net.cpp:425] inception_3a/relu_pool_proj <- inception_3a/pool_proj
I0403 16:39:10.812505 19028 net.cpp:386] inception_3a/relu_pool_proj -> inception_3a/pool_proj (in-place)
I0403 16:39:10.812763 19028 net.cpp:141] Setting up inception_3a/relu_pool_proj
I0403 16:39:10.812789 19028 net.cpp:148] Top shape: 24 32 28 28 (602112)
I0403 16:39:10.812804 19028 net.cpp:156] Memory required for data: 561169440
I0403 16:39:10.812819 19028 layer_factory.hpp:77] Creating layer inception_3a/output
I0403 16:39:10.812839 19028 net.cpp:91] Creating Layer inception_3a/output
I0403 16:39:10.812855 19028 net.cpp:425] inception_3a/output <- inception_3a/1x1
I0403 16:39:10.812871 19028 net.cpp:425] inception_3a/output <- inception_3a/3x3
I0403 16:39:10.812887 19028 net.cpp:425] inception_3a/output <- inception_3a/5x5
I0403 16:39:10.812902 19028 net.cpp:425] inception_3a/output <- inception_3a/pool_proj
I0403 16:39:10.812919 19028 net.cpp:399] inception_3a/output -> inception_3a/output
I0403 16:39:10.812964 19028 net.cpp:141] Setting up inception_3a/output
I0403 16:39:10.812988 19028 net.cpp:148] Top shape: 24 256 28 28 (4816896)
I0403 16:39:10.813004 19028 net.cpp:156] Memory required for data: 580437024
I0403 16:39:10.813017 19028 layer_factory.hpp:77] Creating layer inception_3a/output_inception_3a/output_0_split
I0403 16:39:10.813035 19028 net.cpp:91] Creating Layer inception_3a/output_inception_3a/output_0_split
I0403 16:39:10.813050 19028 net.cpp:425] inception_3a/output_inception_3a/output_0_split <- inception_3a/output
I0403 16:39:10.813068 19028 net.cpp:399] inception_3a/output_inception_3a/output_0_split -> inception_3a/output_inception_3a/output_0_split_0
I0403 16:39:10.813089 19028 net.cpp:399] inception_3a/output_inception_3a/output_0_split -> inception_3a/output_inception_3a/output_0_split_1
I0403 16:39:10.813112 19028 net.cpp:399] inception_3a/output_inception_3a/output_0_split -> inception_3a/output_inception_3a/output_0_split_2
I0403 16:39:10.813133 19028 net.cpp:399] inception_3a/output_inception_3a/output_0_split -> inception_3a/output_inception_3a/output_0_split_3
I0403 16:39:10.813201 19028 net.cpp:141] Setting up inception_3a/output_inception_3a/output_0_split
I0403 16:39:10.813225 19028 net.cpp:148] Top shape: 24 256 28 28 (4816896)
I0403 16:39:10.813241 19028 net.cpp:148] Top shape: 24 256 28 28 (4816896)
I0403 16:39:10.813256 19028 net.cpp:148] Top shape: 24 256 28 28 (4816896)
I0403 16:39:10.813271 19028 net.cpp:148] Top shape: 24 256 28 28 (4816896)
I0403 16:39:10.813284 19028 net.cpp:156] Memory required for data: 657507360
I0403 16:39:10.813298 19028 layer_factory.hpp:77] Creating layer inception_3b/1x1
I0403 16:39:10.813321 19028 net.cpp:91] Creating Layer inception_3b/1x1
I0403 16:39:10.813339 19028 net.cpp:425] inception_3b/1x1 <- inception_3a/output_inception_3a/output_0_split_0
I0403 16:39:10.813359 19028 net.cpp:399] inception_3b/1x1 -> inception_3b/1x1
I0403 16:39:10.814425 19028 net.cpp:141] Setting up inception_3b/1x1
I0403 16:39:10.814463 19028 net.cpp:148] Top shape: 24 128 28 28 (2408448)
I0403 16:39:10.814481 19028 net.cpp:156] Memory required for data: 667141152
I0403 16:39:10.814498 19028 layer_factory.hpp:77] Creating layer inception_3b/relu_1x1
I0403 16:39:10.814517 19028 net.cpp:91] Creating Layer inception_3b/relu_1x1
I0403 16:39:10.814532 19028 net.cpp:425] inception_3b/relu_1x1 <- inception_3b/1x1
I0403 16:39:10.814553 19028 net.cpp:386] inception_3b/relu_1x1 -> inception_3b/1x1 (in-place)
I0403 16:39:10.814723 19028 net.cpp:141] Setting up inception_3b/relu_1x1
I0403 16:39:10.814748 19028 net.cpp:148] Top shape: 24 128 28 28 (2408448)
I0403 16:39:10.814764 19028 net.cpp:156] Memory required for data: 676774944
I0403 16:39:10.814779 19028 layer_factory.hpp:77] Creating layer inception_3b/3x3_reduce
I0403 16:39:10.814800 19028 net.cpp:91] Creating Layer inception_3b/3x3_reduce
I0403 16:39:10.814818 19028 net.cpp:425] inception_3b/3x3_reduce <- inception_3a/output_inception_3a/output_0_split_1
I0403 16:39:10.814839 19028 net.cpp:399] inception_3b/3x3_reduce -> inception_3b/3x3_reduce
I0403 16:39:10.815933 19028 net.cpp:141] Setting up inception_3b/3x3_reduce
I0403 16:39:10.815960 19028 net.cpp:148] Top shape: 24 128 28 28 (2408448)
I0403 16:39:10.815975 19028 net.cpp:156] Memory required for data: 686408736
I0403 16:39:10.815994 19028 layer_factory.hpp:77] Creating layer inception_3b/relu_3x3_reduce
I0403 16:39:10.816014 19028 net.cpp:91] Creating Layer inception_3b/relu_3x3_reduce
I0403 16:39:10.816032 19028 net.cpp:425] inception_3b/relu_3x3_reduce <- inception_3b/3x3_reduce
I0403 16:39:10.816051 19028 net.cpp:386] inception_3b/relu_3x3_reduce -> inception_3b/3x3_reduce (in-place)
I0403 16:39:10.816207 19028 net.cpp:141] Setting up inception_3b/relu_3x3_reduce
I0403 16:39:10.816231 19028 net.cpp:148] Top shape: 24 128 28 28 (2408448)
I0403 16:39:10.816246 19028 net.cpp:156] Memory required for data: 696042528
I0403 16:39:10.816261 19028 layer_factory.hpp:77] Creating layer inception_3b/3x3
I0403 16:39:10.816285 19028 net.cpp:91] Creating Layer inception_3b/3x3
I0403 16:39:10.816303 19028 net.cpp:425] inception_3b/3x3 <- inception_3b/3x3_reduce
I0403 16:39:10.816321 19028 net.cpp:399] inception_3b/3x3 -> inception_3b/3x3
I0403 16:39:10.819126 19028 net.cpp:141] Setting up inception_3b/3x3
I0403 16:39:10.819154 19028 net.cpp:148] Top shape: 24 192 28 28 (3612672)
I0403 16:39:10.819170 19028 net.cpp:156] Memory required for data: 710493216
I0403 16:39:10.819190 19028 layer_factory.hpp:77] Creating layer inception_3b/relu_3x3
I0403 16:39:10.819211 19028 net.cpp:91] Creating Layer inception_3b/relu_3x3
I0403 16:39:10.819228 19028 net.cpp:425] inception_3b/relu_3x3 <- inception_3b/3x3
I0403 16:39:10.819245 19028 net.cpp:386] inception_3b/relu_3x3 -> inception_3b/3x3 (in-place)
I0403 16:39:10.819509 19028 net.cpp:141] Setting up inception_3b/relu_3x3
I0403 16:39:10.819536 19028 net.cpp:148] Top shape: 24 192 28 28 (3612672)
I0403 16:39:10.819551 19028 net.cpp:156] Memory required for data: 724943904
I0403 16:39:10.819567 19028 layer_factory.hpp:77] Creating layer inception_3b/5x5_reduce
I0403 16:39:10.819589 19028 net.cpp:91] Creating Layer inception_3b/5x5_reduce
I0403 16:39:10.819612 19028 net.cpp:425] inception_3b/5x5_reduce <- inception_3a/output_inception_3a/output_0_split_2
I0403 16:39:10.819635 19028 net.cpp:399] inception_3b/5x5_reduce -> inception_3b/5x5_reduce
I0403 16:39:10.820590 19028 net.cpp:141] Setting up inception_3b/5x5_reduce
I0403 16:39:10.820634 19028 net.cpp:148] Top shape: 24 32 28 28 (602112)
I0403 16:39:10.820652 19028 net.cpp:156] Memory required for data: 727352352
I0403 16:39:10.820670 19028 layer_factory.hpp:77] Creating layer inception_3b/relu_5x5_reduce
I0403 16:39:10.820691 19028 net.cpp:91] Creating Layer inception_3b/relu_5x5_reduce
I0403 16:39:10.820709 19028 net.cpp:425] inception_3b/relu_5x5_reduce <- inception_3b/5x5_reduce
I0403 16:39:10.820729 19028 net.cpp:386] inception_3b/relu_5x5_reduce -> inception_3b/5x5_reduce (in-place)
I0403 16:39:10.820917 19028 net.cpp:141] Setting up inception_3b/relu_5x5_reduce
I0403 16:39:10.820955 19028 net.cpp:148] Top shape: 24 32 28 28 (602112)
I0403 16:39:10.820971 19028 net.cpp:156] Memory required for data: 729760800
I0403 16:39:10.820984 19028 layer_factory.hpp:77] Creating layer inception_3b/5x5
I0403 16:39:10.821007 19028 net.cpp:91] Creating Layer inception_3b/5x5
I0403 16:39:10.821027 19028 net.cpp:425] inception_3b/5x5 <- inception_3b/5x5_reduce
I0403 16:39:10.821044 19028 net.cpp:399] inception_3b/5x5 -> inception_3b/5x5
I0403 16:39:10.822937 19028 net.cpp:141] Setting up inception_3b/5x5
I0403 16:39:10.822967 19028 net.cpp:148] Top shape: 24 96 28 28 (1806336)
I0403 16:39:10.822981 19028 net.cpp:156] Memory required for data: 736986144
I0403 16:39:10.822999 19028 layer_factory.hpp:77] Creating layer inception_3b/relu_5x5
I0403 16:39:10.823016 19028 net.cpp:91] Creating Layer inception_3b/relu_5x5
I0403 16:39:10.823032 19028 net.cpp:425] inception_3b/relu_5x5 <- inception_3b/5x5
I0403 16:39:10.823052 19028 net.cpp:386] inception_3b/relu_5x5 -> inception_3b/5x5 (in-place)
I0403 16:39:10.823235 19028 net.cpp:141] Setting up inception_3b/relu_5x5
I0403 16:39:10.823261 19028 net.cpp:148] Top shape: 24 96 28 28 (1806336)
I0403 16:39:10.823276 19028 net.cpp:156] Memory required for data: 744211488
I0403 16:39:10.823289 19028 layer_factory.hpp:77] Creating layer inception_3b/pool
I0403 16:39:10.823307 19028 net.cpp:91] Creating Layer inception_3b/pool
I0403 16:39:10.823324 19028 net.cpp:425] inception_3b/pool <- inception_3a/output_inception_3a/output_0_split_3
I0403 16:39:10.823343 19028 net.cpp:399] inception_3b/pool -> inception_3b/pool
I0403 16:39:10.823400 19028 net.cpp:141] Setting up inception_3b/pool
I0403 16:39:10.823423 19028 net.cpp:148] Top shape: 24 256 28 28 (4816896)
I0403 16:39:10.823438 19028 net.cpp:156] Memory required for data: 763479072
I0403 16:39:10.823453 19028 layer_factory.hpp:77] Creating layer inception_3b/pool_proj
I0403 16:39:10.823477 19028 net.cpp:91] Creating Layer inception_3b/pool_proj
I0403 16:39:10.823496 19028 net.cpp:425] inception_3b/pool_proj <- inception_3b/pool
I0403 16:39:10.823516 19028 net.cpp:399] inception_3b/pool_proj -> inception_3b/pool_proj
I0403 16:39:10.824523 19028 net.cpp:141] Setting up inception_3b/pool_proj
I0403 16:39:10.824554 19028 net.cpp:148] Top shape: 24 64 28 28 (1204224)
I0403 16:39:10.824571 19028 net.cpp:156] Memory required for data: 768295968
I0403 16:39:10.824589 19028 layer_factory.hpp:77] Creating layer inception_3b/relu_pool_proj
I0403 16:39:10.824611 19028 net.cpp:91] Creating Layer inception_3b/relu_pool_proj
I0403 16:39:10.824630 19028 net.cpp:425] inception_3b/relu_pool_proj <- inception_3b/pool_proj
I0403 16:39:10.824650 19028 net.cpp:386] inception_3b/relu_pool_proj -> inception_3b/pool_proj (in-place)
I0403 16:39:10.825021 19028 net.cpp:141] Setting up inception_3b/relu_pool_proj
I0403 16:39:10.825050 19028 net.cpp:148] Top shape: 24 64 28 28 (1204224)
I0403 16:39:10.825067 19028 net.cpp:156] Memory required for data: 773112864
I0403 16:39:10.825083 19028 layer_factory.hpp:77] Creating layer inception_3b/output
I0403 16:39:10.825099 19028 net.cpp:91] Creating Layer inception_3b/output
I0403 16:39:10.825114 19028 net.cpp:425] inception_3b/output <- inception_3b/1x1
I0403 16:39:10.825130 19028 net.cpp:425] inception_3b/output <- inception_3b/3x3
I0403 16:39:10.825146 19028 net.cpp:425] inception_3b/output <- inception_3b/5x5
I0403 16:39:10.825162 19028 net.cpp:425] inception_3b/output <- inception_3b/pool_proj
I0403 16:39:10.825181 19028 net.cpp:399] inception_3b/output -> inception_3b/output
I0403 16:39:10.825224 19028 net.cpp:141] Setting up inception_3b/output
I0403 16:39:10.825248 19028 net.cpp:148] Top shape: 24 480 28 28 (9031680)
I0403 16:39:10.825263 19028 net.cpp:156] Memory required for data: 809239584
I0403 16:39:10.825278 19028 layer_factory.hpp:77] Creating layer pool3/3x3_s2
I0403 16:39:10.825296 19028 net.cpp:91] Creating Layer pool3/3x3_s2
I0403 16:39:10.825314 19028 net.cpp:425] pool3/3x3_s2 <- inception_3b/output
I0403 16:39:10.825330 19028 net.cpp:399] pool3/3x3_s2 -> pool3/3x3_s2
I0403 16:39:10.825402 19028 net.cpp:141] Setting up pool3/3x3_s2
I0403 16:39:10.825425 19028 net.cpp:148] Top shape: 24 480 14 14 (2257920)
I0403 16:39:10.825440 19028 net.cpp:156] Memory required for data: 818271264
I0403 16:39:10.825455 19028 layer_factory.hpp:77] Creating layer pool3/3x3_s2_pool3/3x3_s2_0_split
I0403 16:39:10.825472 19028 net.cpp:91] Creating Layer pool3/3x3_s2_pool3/3x3_s2_0_split
I0403 16:39:10.825487 19028 net.cpp:425] pool3/3x3_s2_pool3/3x3_s2_0_split <- pool3/3x3_s2
I0403 16:39:10.825515 19028 net.cpp:399] pool3/3x3_s2_pool3/3x3_s2_0_split -> pool3/3x3_s2_pool3/3x3_s2_0_split_0
I0403 16:39:10.825536 19028 net.cpp:399] pool3/3x3_s2_pool3/3x3_s2_0_split -> pool3/3x3_s2_pool3/3x3_s2_0_split_1
I0403 16:39:10.825556 19028 net.cpp:399] pool3/3x3_s2_pool3/3x3_s2_0_split -> pool3/3x3_s2_pool3/3x3_s2_0_split_2
I0403 16:39:10.825577 19028 net.cpp:399] pool3/3x3_s2_pool3/3x3_s2_0_split -> pool3/3x3_s2_pool3/3x3_s2_0_split_3
I0403 16:39:10.825676 19028 net.cpp:141] Setting up pool3/3x3_s2_pool3/3x3_s2_0_split
I0403 16:39:10.825702 19028 net.cpp:148] Top shape: 24 480 14 14 (2257920)
I0403 16:39:10.825719 19028 net.cpp:148] Top shape: 24 480 14 14 (2257920)
I0403 16:39:10.825736 19028 net.cpp:148] Top shape: 24 480 14 14 (2257920)
I0403 16:39:10.825752 19028 net.cpp:148] Top shape: 24 480 14 14 (2257920)
I0403 16:39:10.825765 19028 net.cpp:156] Memory required for data: 854397984
I0403 16:39:10.825779 19028 layer_factory.hpp:77] Creating layer inception_4a/1x1
I0403 16:39:10.825814 19028 net.cpp:91] Creating Layer inception_4a/1x1
I0403 16:39:10.825831 19028 net.cpp:425] inception_4a/1x1 <- pool3/3x3_s2_pool3/3x3_s2_0_split_0
I0403 16:39:10.825851 19028 net.cpp:399] inception_4a/1x1 -> inception_4a/1x1
I0403 16:39:10.827368 19028 net.cpp:141] Setting up inception_4a/1x1
I0403 16:39:10.827399 19028 net.cpp:148] Top shape: 24 192 14 14 (903168)
I0403 16:39:10.827415 19028 net.cpp:156] Memory required for data: 858010656
I0403 16:39:10.827435 19028 layer_factory.hpp:77] Creating layer inception_4a/relu_1x1
I0403 16:39:10.827452 19028 net.cpp:91] Creating Layer inception_4a/relu_1x1
I0403 16:39:10.827469 19028 net.cpp:425] inception_4a/relu_1x1 <- inception_4a/1x1
I0403 16:39:10.827489 19028 net.cpp:386] inception_4a/relu_1x1 -> inception_4a/1x1 (in-place)
I0403 16:39:10.827666 19028 net.cpp:141] Setting up inception_4a/relu_1x1
I0403 16:39:10.827692 19028 net.cpp:148] Top shape: 24 192 14 14 (903168)
I0403 16:39:10.827707 19028 net.cpp:156] Memory required for data: 861623328
I0403 16:39:10.827721 19028 layer_factory.hpp:77] Creating layer inception_4a/3x3_reduce
I0403 16:39:10.827744 19028 net.cpp:91] Creating Layer inception_4a/3x3_reduce
I0403 16:39:10.827764 19028 net.cpp:425] inception_4a/3x3_reduce <- pool3/3x3_s2_pool3/3x3_s2_0_split_1
I0403 16:39:10.827785 19028 net.cpp:399] inception_4a/3x3_reduce -> inception_4a/3x3_reduce
I0403 16:39:10.829030 19028 net.cpp:141] Setting up inception_4a/3x3_reduce
I0403 16:39:10.829059 19028 net.cpp:148] Top shape: 24 96 14 14 (451584)
I0403 16:39:10.829077 19028 net.cpp:156] Memory required for data: 863429664
I0403 16:39:10.829100 19028 layer_factory.hpp:77] Creating layer inception_4a/relu_3x3_reduce
I0403 16:39:10.829121 19028 net.cpp:91] Creating Layer inception_4a/relu_3x3_reduce
I0403 16:39:10.829139 19028 net.cpp:425] inception_4a/relu_3x3_reduce <- inception_4a/3x3_reduce
I0403 16:39:10.829157 19028 net.cpp:386] inception_4a/relu_3x3_reduce -> inception_4a/3x3_reduce (in-place)
I0403 16:39:10.829324 19028 net.cpp:141] Setting up inception_4a/relu_3x3_reduce
I0403 16:39:10.829349 19028 net.cpp:148] Top shape: 24 96 14 14 (451584)
I0403 16:39:10.829363 19028 net.cpp:156] Memory required for data: 865236000
I0403 16:39:10.829380 19028 layer_factory.hpp:77] Creating layer inception_4a/3x3
I0403 16:39:10.829401 19028 net.cpp:91] Creating Layer inception_4a/3x3
I0403 16:39:10.829419 19028 net.cpp:425] inception_4a/3x3 <- inception_4a/3x3_reduce
I0403 16:39:10.829440 19028 net.cpp:399] inception_4a/3x3 -> inception_4a/3x3
I0403 16:39:10.832039 19028 net.cpp:141] Setting up inception_4a/3x3
I0403 16:39:10.832068 19028 net.cpp:148] Top shape: 24 208 14 14 (978432)
I0403 16:39:10.832083 19028 net.cpp:156] Memory required for data: 869149728
I0403 16:39:10.832103 19028 layer_factory.hpp:77] Creating layer inception_4a/relu_3x3
I0403 16:39:10.832123 19028 net.cpp:91] Creating Layer inception_4a/relu_3x3
I0403 16:39:10.832140 19028 net.cpp:425] inception_4a/relu_3x3 <- inception_4a/3x3
I0403 16:39:10.832159 19028 net.cpp:386] inception_4a/relu_3x3 -> inception_4a/3x3 (in-place)
I0403 16:39:10.832427 19028 net.cpp:141] Setting up inception_4a/relu_3x3
I0403 16:39:10.832453 19028 net.cpp:148] Top shape: 24 208 14 14 (978432)
I0403 16:39:10.832468 19028 net.cpp:156] Memory required for data: 873063456
I0403 16:39:10.832484 19028 layer_factory.hpp:77] Creating layer inception_4a/5x5_reduce
I0403 16:39:10.832507 19028 net.cpp:91] Creating Layer inception_4a/5x5_reduce
I0403 16:39:10.832525 19028 net.cpp:425] inception_4a/5x5_reduce <- pool3/3x3_s2_pool3/3x3_s2_0_split_2
I0403 16:39:10.832546 19028 net.cpp:399] inception_4a/5x5_reduce -> inception_4a/5x5_reduce
I0403 16:39:10.833515 19028 net.cpp:141] Setting up inception_4a/5x5_reduce
I0403 16:39:10.833542 19028 net.cpp:148] Top shape: 24 16 14 14 (75264)
I0403 16:39:10.833557 19028 net.cpp:156] Memory required for data: 873364512
I0403 16:39:10.833575 19028 layer_factory.hpp:77] Creating layer inception_4a/relu_5x5_reduce
I0403 16:39:10.833596 19028 net.cpp:91] Creating Layer inception_4a/relu_5x5_reduce
I0403 16:39:10.833619 19028 net.cpp:425] inception_4a/relu_5x5_reduce <- inception_4a/5x5_reduce
I0403 16:39:10.833638 19028 net.cpp:386] inception_4a/relu_5x5_reduce -> inception_4a/5x5_reduce (in-place)
I0403 16:39:10.833812 19028 net.cpp:141] Setting up inception_4a/relu_5x5_reduce
I0403 16:39:10.833838 19028 net.cpp:148] Top shape: 24 16 14 14 (75264)
I0403 16:39:10.833853 19028 net.cpp:156] Memory required for data: 873665568
I0403 16:39:10.833869 19028 layer_factory.hpp:77] Creating layer inception_4a/5x5
I0403 16:39:10.833892 19028 net.cpp:91] Creating Layer inception_4a/5x5
I0403 16:39:10.833910 19028 net.cpp:425] inception_4a/5x5 <- inception_4a/5x5_reduce
I0403 16:39:10.833930 19028 net.cpp:399] inception_4a/5x5 -> inception_4a/5x5
I0403 16:39:10.834970 19028 net.cpp:141] Setting up inception_4a/5x5
I0403 16:39:10.835000 19028 net.cpp:148] Top shape: 24 48 14 14 (225792)
I0403 16:39:10.835017 19028 net.cpp:156] Memory required for data: 874568736
I0403 16:39:10.835036 19028 layer_factory.hpp:77] Creating layer inception_4a/relu_5x5
I0403 16:39:10.835052 19028 net.cpp:91] Creating Layer inception_4a/relu_5x5
I0403 16:39:10.835069 19028 net.cpp:425] inception_4a/relu_5x5 <- inception_4a/5x5
I0403 16:39:10.835086 19028 net.cpp:386] inception_4a/relu_5x5 -> inception_4a/5x5 (in-place)
I0403 16:39:10.835259 19028 net.cpp:141] Setting up inception_4a/relu_5x5
I0403 16:39:10.835288 19028 net.cpp:148] Top shape: 24 48 14 14 (225792)
I0403 16:39:10.835304 19028 net.cpp:156] Memory required for data: 875471904
I0403 16:39:10.835319 19028 layer_factory.hpp:77] Creating layer inception_4a/pool
I0403 16:39:10.835335 19028 net.cpp:91] Creating Layer inception_4a/pool
I0403 16:39:10.835351 19028 net.cpp:425] inception_4a/pool <- pool3/3x3_s2_pool3/3x3_s2_0_split_3
I0403 16:39:10.835372 19028 net.cpp:399] inception_4a/pool -> inception_4a/pool
I0403 16:39:10.835433 19028 net.cpp:141] Setting up inception_4a/pool
I0403 16:39:10.835458 19028 net.cpp:148] Top shape: 24 480 14 14 (2257920)
I0403 16:39:10.835474 19028 net.cpp:156] Memory required for data: 884503584
I0403 16:39:10.835490 19028 layer_factory.hpp:77] Creating layer inception_4a/pool_proj
I0403 16:39:10.835511 19028 net.cpp:91] Creating Layer inception_4a/pool_proj
I0403 16:39:10.835530 19028 net.cpp:425] inception_4a/pool_proj <- inception_4a/pool
I0403 16:39:10.835548 19028 net.cpp:399] inception_4a/pool_proj -> inception_4a/pool_proj
I0403 16:39:10.836742 19028 net.cpp:141] Setting up inception_4a/pool_proj
I0403 16:39:10.836774 19028 net.cpp:148] Top shape: 24 64 14 14 (301056)
I0403 16:39:10.836803 19028 net.cpp:156] Memory required for data: 885707808
I0403 16:39:10.836822 19028 layer_factory.hpp:77] Creating layer inception_4a/relu_pool_proj
I0403 16:39:10.836841 19028 net.cpp:91] Creating Layer inception_4a/relu_pool_proj
I0403 16:39:10.836858 19028 net.cpp:425] inception_4a/relu_pool_proj <- inception_4a/pool_proj
I0403 16:39:10.836874 19028 net.cpp:386] inception_4a/relu_pool_proj -> inception_4a/pool_proj (in-place)
I0403 16:39:10.837143 19028 net.cpp:141] Setting up inception_4a/relu_pool_proj
I0403 16:39:10.837172 19028 net.cpp:148] Top shape: 24 64 14 14 (301056)
I0403 16:39:10.837188 19028 net.cpp:156] Memory required for data: 886912032
I0403 16:39:10.837201 19028 layer_factory.hpp:77] Creating layer inception_4a/output
I0403 16:39:10.837218 19028 net.cpp:91] Creating Layer inception_4a/output
I0403 16:39:10.837234 19028 net.cpp:425] inception_4a/output <- inception_4a/1x1
I0403 16:39:10.837250 19028 net.cpp:425] inception_4a/output <- inception_4a/3x3
I0403 16:39:10.837265 19028 net.cpp:425] inception_4a/output <- inception_4a/5x5
I0403 16:39:10.837280 19028 net.cpp:425] inception_4a/output <- inception_4a/pool_proj
I0403 16:39:10.837297 19028 net.cpp:399] inception_4a/output -> inception_4a/output
I0403 16:39:10.837342 19028 net.cpp:141] Setting up inception_4a/output
I0403 16:39:10.837364 19028 net.cpp:148] Top shape: 24 512 14 14 (2408448)
I0403 16:39:10.837378 19028 net.cpp:156] Memory required for data: 896545824
I0403 16:39:10.837393 19028 layer_factory.hpp:77] Creating layer inception_4a/output_inception_4a/output_0_split
I0403 16:39:10.837412 19028 net.cpp:91] Creating Layer inception_4a/output_inception_4a/output_0_split
I0403 16:39:10.837429 19028 net.cpp:425] inception_4a/output_inception_4a/output_0_split <- inception_4a/output
I0403 16:39:10.837446 19028 net.cpp:399] inception_4a/output_inception_4a/output_0_split -> inception_4a/output_inception_4a/output_0_split_0
I0403 16:39:10.837466 19028 net.cpp:399] inception_4a/output_inception_4a/output_0_split -> inception_4a/output_inception_4a/output_0_split_1
I0403 16:39:10.837486 19028 net.cpp:399] inception_4a/output_inception_4a/output_0_split -> inception_4a/output_inception_4a/output_0_split_2
I0403 16:39:10.837508 19028 net.cpp:399] inception_4a/output_inception_4a/output_0_split -> inception_4a/output_inception_4a/output_0_split_3
I0403 16:39:10.837529 19028 net.cpp:399] inception_4a/output_inception_4a/output_0_split -> inception_4a/output_inception_4a/output_0_split_4
I0403 16:39:10.837621 19028 net.cpp:141] Setting up inception_4a/output_inception_4a/output_0_split
I0403 16:39:10.837646 19028 net.cpp:148] Top shape: 24 512 14 14 (2408448)
I0403 16:39:10.837661 19028 net.cpp:148] Top shape: 24 512 14 14 (2408448)
I0403 16:39:10.837677 19028 net.cpp:148] Top shape: 24 512 14 14 (2408448)
I0403 16:39:10.837690 19028 net.cpp:148] Top shape: 24 512 14 14 (2408448)
I0403 16:39:10.837705 19028 net.cpp:148] Top shape: 24 512 14 14 (2408448)
I0403 16:39:10.837719 19028 net.cpp:156] Memory required for data: 944714784
I0403 16:39:10.837733 19028 layer_factory.hpp:77] Creating layer loss1/ave_pool
I0403 16:39:10.837754 19028 net.cpp:91] Creating Layer loss1/ave_pool
I0403 16:39:10.837771 19028 net.cpp:425] loss1/ave_pool <- inception_4a/output_inception_4a/output_0_split_0
I0403 16:39:10.837788 19028 net.cpp:399] loss1/ave_pool -> loss1/ave_pool
I0403 16:39:10.837980 19028 net.cpp:141] Setting up loss1/ave_pool
I0403 16:39:10.838008 19028 net.cpp:148] Top shape: 24 512 4 4 (196608)
I0403 16:39:10.838023 19028 net.cpp:156] Memory required for data: 945501216
I0403 16:39:10.838039 19028 layer_factory.hpp:77] Creating layer loss1/conv
I0403 16:39:10.838060 19028 net.cpp:91] Creating Layer loss1/conv
I0403 16:39:10.838078 19028 net.cpp:425] loss1/conv <- loss1/ave_pool
I0403 16:39:10.838095 19028 net.cpp:399] loss1/conv -> loss1/conv
I0403 16:39:10.839419 19028 net.cpp:141] Setting up loss1/conv
I0403 16:39:10.839447 19028 net.cpp:148] Top shape: 24 128 4 4 (49152)
I0403 16:39:10.839463 19028 net.cpp:156] Memory required for data: 945697824
I0403 16:39:10.839495 19028 layer_factory.hpp:77] Creating layer loss1/relu_conv
I0403 16:39:10.839516 19028 net.cpp:91] Creating Layer loss1/relu_conv
I0403 16:39:10.839532 19028 net.cpp:425] loss1/relu_conv <- loss1/conv
I0403 16:39:10.839550 19028 net.cpp:386] loss1/relu_conv -> loss1/conv (in-place)
I0403 16:39:10.839818 19028 net.cpp:141] Setting up loss1/relu_conv
I0403 16:39:10.839843 19028 net.cpp:148] Top shape: 24 128 4 4 (49152)
I0403 16:39:10.839859 19028 net.cpp:156] Memory required for data: 945894432
I0403 16:39:10.839872 19028 layer_factory.hpp:77] Creating layer loss1/fc
I0403 16:39:10.839896 19028 net.cpp:91] Creating Layer loss1/fc
I0403 16:39:10.839915 19028 net.cpp:425] loss1/fc <- loss1/conv
I0403 16:39:10.839932 19028 net.cpp:399] loss1/fc -> loss1/fc
I0403 16:39:10.856765 19028 net.cpp:141] Setting up loss1/fc
I0403 16:39:10.856797 19028 net.cpp:148] Top shape: 24 1024 (24576)
I0403 16:39:10.856812 19028 net.cpp:156] Memory required for data: 945992736
I0403 16:39:10.856832 19028 layer_factory.hpp:77] Creating layer loss1/relu_fc
I0403 16:39:10.856849 19028 net.cpp:91] Creating Layer loss1/relu_fc
I0403 16:39:10.856864 19028 net.cpp:425] loss1/relu_fc <- loss1/fc
I0403 16:39:10.856884 19028 net.cpp:386] loss1/relu_fc -> loss1/fc (in-place)
I0403 16:39:10.857059 19028 net.cpp:141] Setting up loss1/relu_fc
I0403 16:39:10.857084 19028 net.cpp:148] Top shape: 24 1024 (24576)
I0403 16:39:10.857100 19028 net.cpp:156] Memory required for data: 946091040
I0403 16:39:10.857113 19028 layer_factory.hpp:77] Creating layer loss1/drop_fc
I0403 16:39:10.857138 19028 net.cpp:91] Creating Layer loss1/drop_fc
I0403 16:39:10.857156 19028 net.cpp:425] loss1/drop_fc <- loss1/fc
I0403 16:39:10.857174 19028 net.cpp:386] loss1/drop_fc -> loss1/fc (in-place)
I0403 16:39:10.857224 19028 net.cpp:141] Setting up loss1/drop_fc
I0403 16:39:10.857246 19028 net.cpp:148] Top shape: 24 1024 (24576)
I0403 16:39:10.857260 19028 net.cpp:156] Memory required for data: 946189344
I0403 16:39:10.857275 19028 layer_factory.hpp:77] Creating layer loss1/classifier_plantvillage
I0403 16:39:10.857296 19028 net.cpp:91] Creating Layer loss1/classifier_plantvillage
I0403 16:39:10.857313 19028 net.cpp:425] loss1/classifier_plantvillage <- loss1/fc
I0403 16:39:10.857333 19028 net.cpp:399] loss1/classifier_plantvillage -> loss1/classifier_plantvillage
I0403 16:39:10.858183 19028 net.cpp:141] Setting up loss1/classifier_plantvillage
I0403 16:39:10.858212 19028 net.cpp:148] Top shape: 24 38 (912)
I0403 16:39:10.858229 19028 net.cpp:156] Memory required for data: 946192992
I0403 16:39:10.858247 19028 layer_factory.hpp:77] Creating layer loss1/classifier_plantvillage_loss1/classifier_plantvillage_0_split
I0403 16:39:10.858264 19028 net.cpp:91] Creating Layer loss1/classifier_plantvillage_loss1/classifier_plantvillage_0_split
I0403 16:39:10.858280 19028 net.cpp:425] loss1/classifier_plantvillage_loss1/classifier_plantvillage_0_split <- loss1/classifier_plantvillage
I0403 16:39:10.858299 19028 net.cpp:399] loss1/classifier_plantvillage_loss1/classifier_plantvillage_0_split -> loss1/classifier_plantvillage_loss1/classifier_plantvillage_0_split_0
I0403 16:39:10.858320 19028 net.cpp:399] loss1/classifier_plantvillage_loss1/classifier_plantvillage_0_split -> loss1/classifier_plantvillage_loss1/classifier_plantvillage_0_split_1
I0403 16:39:10.858340 19028 net.cpp:399] loss1/classifier_plantvillage_loss1/classifier_plantvillage_0_split -> loss1/classifier_plantvillage_loss1/classifier_plantvillage_0_split_2
I0403 16:39:10.858402 19028 net.cpp:141] Setting up loss1/classifier_plantvillage_loss1/classifier_plantvillage_0_split
I0403 16:39:10.858428 19028 net.cpp:148] Top shape: 24 38 (912)
I0403 16:39:10.858444 19028 net.cpp:148] Top shape: 24 38 (912)
I0403 16:39:10.858460 19028 net.cpp:148] Top shape: 24 38 (912)
I0403 16:39:10.858475 19028 net.cpp:156] Memory required for data: 946203936
I0403 16:39:10.858489 19028 layer_factory.hpp:77] Creating layer inception_4b/1x1
I0403 16:39:10.858508 19028 net.cpp:91] Creating Layer inception_4b/1x1
I0403 16:39:10.858539 19028 net.cpp:425] inception_4b/1x1 <- inception_4a/output_inception_4a/output_0_split_1
I0403 16:39:10.858559 19028 net.cpp:399] inception_4b/1x1 -> inception_4b/1x1
I0403 16:39:10.860100 19028 net.cpp:141] Setting up inception_4b/1x1
I0403 16:39:10.860127 19028 net.cpp:148] Top shape: 24 160 14 14 (752640)
I0403 16:39:10.860143 19028 net.cpp:156] Memory required for data: 949214496
I0403 16:39:10.860162 19028 layer_factory.hpp:77] Creating layer inception_4b/relu_1x1
I0403 16:39:10.860183 19028 net.cpp:91] Creating Layer inception_4b/relu_1x1
I0403 16:39:10.860198 19028 net.cpp:425] inception_4b/relu_1x1 <- inception_4b/1x1
I0403 16:39:10.860215 19028 net.cpp:386] inception_4b/relu_1x1 -> inception_4b/1x1 (in-place)
I0403 16:39:10.860386 19028 net.cpp:141] Setting up inception_4b/relu_1x1
I0403 16:39:10.860410 19028 net.cpp:148] Top shape: 24 160 14 14 (752640)
I0403 16:39:10.860425 19028 net.cpp:156] Memory required for data: 952225056
I0403 16:39:10.860440 19028 layer_factory.hpp:77] Creating layer inception_4b/3x3_reduce
I0403 16:39:10.860462 19028 net.cpp:91] Creating Layer inception_4b/3x3_reduce
I0403 16:39:10.860481 19028 net.cpp:425] inception_4b/3x3_reduce <- inception_4a/output_inception_4a/output_0_split_2
I0403 16:39:10.860499 19028 net.cpp:399] inception_4b/3x3_reduce -> inception_4b/3x3_reduce
I0403 16:39:10.861821 19028 net.cpp:141] Setting up inception_4b/3x3_reduce
I0403 16:39:10.861858 19028 net.cpp:148] Top shape: 24 112 14 14 (526848)
I0403 16:39:10.861873 19028 net.cpp:156] Memory required for data: 954332448
I0403 16:39:10.861891 19028 layer_factory.hpp:77] Creating layer inception_4b/relu_3x3_reduce
I0403 16:39:10.861922 19028 net.cpp:91] Creating Layer inception_4b/relu_3x3_reduce
I0403 16:39:10.861940 19028 net.cpp:425] inception_4b/relu_3x3_reduce <- inception_4b/3x3_reduce
I0403 16:39:10.861958 19028 net.cpp:386] inception_4b/relu_3x3_reduce -> inception_4b/3x3_reduce (in-place)
I0403 16:39:10.862224 19028 net.cpp:141] Setting up inception_4b/relu_3x3_reduce
I0403 16:39:10.862251 19028 net.cpp:148] Top shape: 24 112 14 14 (526848)
I0403 16:39:10.862265 19028 net.cpp:156] Memory required for data: 956439840
I0403 16:39:10.862280 19028 layer_factory.hpp:77] Creating layer inception_4b/3x3
I0403 16:39:10.862303 19028 net.cpp:91] Creating Layer inception_4b/3x3
I0403 16:39:10.862323 19028 net.cpp:425] inception_4b/3x3 <- inception_4b/3x3_reduce
I0403 16:39:10.862342 19028 net.cpp:399] inception_4b/3x3 -> inception_4b/3x3
I0403 16:39:10.865255 19028 net.cpp:141] Setting up inception_4b/3x3
I0403 16:39:10.865288 19028 net.cpp:148] Top shape: 24 224 14 14 (1053696)
I0403 16:39:10.865306 19028 net.cpp:156] Memory required for data: 960654624
I0403 16:39:10.865325 19028 layer_factory.hpp:77] Creating layer inception_4b/relu_3x3
I0403 16:39:10.865345 19028 net.cpp:91] Creating Layer inception_4b/relu_3x3
I0403 16:39:10.865360 19028 net.cpp:425] inception_4b/relu_3x3 <- inception_4b/3x3
I0403 16:39:10.865378 19028 net.cpp:386] inception_4b/relu_3x3 -> inception_4b/3x3 (in-place)
I0403 16:39:10.865552 19028 net.cpp:141] Setting up inception_4b/relu_3x3
I0403 16:39:10.865577 19028 net.cpp:148] Top shape: 24 224 14 14 (1053696)
I0403 16:39:10.865593 19028 net.cpp:156] Memory required for data: 964869408
I0403 16:39:10.865634 19028 layer_factory.hpp:77] Creating layer inception_4b/5x5_reduce
I0403 16:39:10.865659 19028 net.cpp:91] Creating Layer inception_4b/5x5_reduce
I0403 16:39:10.865679 19028 net.cpp:425] inception_4b/5x5_reduce <- inception_4a/output_inception_4a/output_0_split_3
I0403 16:39:10.865702 19028 net.cpp:399] inception_4b/5x5_reduce -> inception_4b/5x5_reduce
I0403 16:39:10.866778 19028 net.cpp:141] Setting up inception_4b/5x5_reduce
I0403 16:39:10.866806 19028 net.cpp:148] Top shape: 24 24 14 14 (112896)
I0403 16:39:10.866823 19028 net.cpp:156] Memory required for data: 965320992
I0403 16:39:10.866842 19028 layer_factory.hpp:77] Creating layer inception_4b/relu_5x5_reduce
I0403 16:39:10.866861 19028 net.cpp:91] Creating Layer inception_4b/relu_5x5_reduce
I0403 16:39:10.866891 19028 net.cpp:425] inception_4b/relu_5x5_reduce <- inception_4b/5x5_reduce
I0403 16:39:10.866910 19028 net.cpp:386] inception_4b/relu_5x5_reduce -> inception_4b/5x5_reduce (in-place)
I0403 16:39:10.867087 19028 net.cpp:141] Setting up inception_4b/relu_5x5_reduce
I0403 16:39:10.867115 19028 net.cpp:148] Top shape: 24 24 14 14 (112896)
I0403 16:39:10.867130 19028 net.cpp:156] Memory required for data: 965772576
I0403 16:39:10.867146 19028 layer_factory.hpp:77] Creating layer inception_4b/5x5
I0403 16:39:10.867166 19028 net.cpp:91] Creating Layer inception_4b/5x5
I0403 16:39:10.867183 19028 net.cpp:425] inception_4b/5x5 <- inception_4b/5x5_reduce
I0403 16:39:10.867202 19028 net.cpp:399] inception_4b/5x5 -> inception_4b/5x5
I0403 16:39:10.868403 19028 net.cpp:141] Setting up inception_4b/5x5
I0403 16:39:10.868432 19028 net.cpp:148] Top shape: 24 64 14 14 (301056)
I0403 16:39:10.868448 19028 net.cpp:156] Memory required for data: 966976800
I0403 16:39:10.868465 19028 layer_factory.hpp:77] Creating layer inception_4b/relu_5x5
I0403 16:39:10.868485 19028 net.cpp:91] Creating Layer inception_4b/relu_5x5
I0403 16:39:10.868502 19028 net.cpp:425] inception_4b/relu_5x5 <- inception_4b/5x5
I0403 16:39:10.868520 19028 net.cpp:386] inception_4b/relu_5x5 -> inception_4b/5x5 (in-place)
I0403 16:39:10.868814 19028 net.cpp:141] Setting up inception_4b/relu_5x5
I0403 16:39:10.868840 19028 net.cpp:148] Top shape: 24 64 14 14 (301056)
I0403 16:39:10.868855 19028 net.cpp:156] Memory required for data: 968181024
I0403 16:39:10.868870 19028 layer_factory.hpp:77] Creating layer inception_4b/pool
I0403 16:39:10.868891 19028 net.cpp:91] Creating Layer inception_4b/pool
I0403 16:39:10.868906 19028 net.cpp:425] inception_4b/pool <- inception_4a/output_inception_4a/output_0_split_4
I0403 16:39:10.868926 19028 net.cpp:399] inception_4b/pool -> inception_4b/pool
I0403 16:39:10.868988 19028 net.cpp:141] Setting up inception_4b/pool
I0403 16:39:10.869012 19028 net.cpp:148] Top shape: 24 512 14 14 (2408448)
I0403 16:39:10.869027 19028 net.cpp:156] Memory required for data: 977814816
I0403 16:39:10.869041 19028 layer_factory.hpp:77] Creating layer inception_4b/pool_proj
I0403 16:39:10.869062 19028 net.cpp:91] Creating Layer inception_4b/pool_proj
I0403 16:39:10.869081 19028 net.cpp:425] inception_4b/pool_proj <- inception_4b/pool
I0403 16:39:10.869102 19028 net.cpp:399] inception_4b/pool_proj -> inception_4b/pool_proj
I0403 16:39:10.870271 19028 net.cpp:141] Setting up inception_4b/pool_proj
I0403 16:39:10.870299 19028 net.cpp:148] Top shape: 24 64 14 14 (301056)
I0403 16:39:10.870316 19028 net.cpp:156] Memory required for data: 979019040
I0403 16:39:10.870334 19028 layer_factory.hpp:77] Creating layer inception_4b/relu_pool_proj
I0403 16:39:10.870357 19028 net.cpp:91] Creating Layer inception_4b/relu_pool_proj
I0403 16:39:10.870374 19028 net.cpp:425] inception_4b/relu_pool_proj <- inception_4b/pool_proj
I0403 16:39:10.870391 19028 net.cpp:386] inception_4b/relu_pool_proj -> inception_4b/pool_proj (in-place)
I0403 16:39:10.870568 19028 net.cpp:141] Setting up inception_4b/relu_pool_proj
I0403 16:39:10.870594 19028 net.cpp:148] Top shape: 24 64 14 14 (301056)
I0403 16:39:10.870627 19028 net.cpp:156] Memory required for data: 980223264
I0403 16:39:10.870645 19028 layer_factory.hpp:77] Creating layer inception_4b/output
I0403 16:39:10.870662 19028 net.cpp:91] Creating Layer inception_4b/output
I0403 16:39:10.870677 19028 net.cpp:425] inception_4b/output <- inception_4b/1x1
I0403 16:39:10.870694 19028 net.cpp:425] inception_4b/output <- inception_4b/3x3
I0403 16:39:10.870712 19028 net.cpp:425] inception_4b/output <- inception_4b/5x5
I0403 16:39:10.870728 19028 net.cpp:425] inception_4b/output <- inception_4b/pool_proj
I0403 16:39:10.870745 19028 net.cpp:399] inception_4b/output -> inception_4b/output
I0403 16:39:10.870795 19028 net.cpp:141] Setting up inception_4b/output
I0403 16:39:10.870820 19028 net.cpp:148] Top shape: 24 512 14 14 (2408448)
I0403 16:39:10.870834 19028 net.cpp:156] Memory required for data: 989857056
I0403 16:39:10.870863 19028 layer_factory.hpp:77] Creating layer inception_4b/output_inception_4b/output_0_split
I0403 16:39:10.870882 19028 net.cpp:91] Creating Layer inception_4b/output_inception_4b/output_0_split
I0403 16:39:10.870910 19028 net.cpp:425] inception_4b/output_inception_4b/output_0_split <- inception_4b/output
I0403 16:39:10.870929 19028 net.cpp:399] inception_4b/output_inception_4b/output_0_split -> inception_4b/output_inception_4b/output_0_split_0
I0403 16:39:10.870951 19028 net.cpp:399] inception_4b/output_inception_4b/output_0_split -> inception_4b/output_inception_4b/output_0_split_1
I0403 16:39:10.870971 19028 net.cpp:399] inception_4b/output_inception_4b/output_0_split -> inception_4b/output_inception_4b/output_0_split_2
I0403 16:39:10.870995 19028 net.cpp:399] inception_4b/output_inception_4b/output_0_split -> inception_4b/output_inception_4b/output_0_split_3
I0403 16:39:10.871078 19028 net.cpp:141] Setting up inception_4b/output_inception_4b/output_0_split
I0403 16:39:10.871101 19028 net.cpp:148] Top shape: 24 512 14 14 (2408448)
I0403 16:39:10.871119 19028 net.cpp:148] Top shape: 24 512 14 14 (2408448)
I0403 16:39:10.871134 19028 net.cpp:148] Top shape: 24 512 14 14 (2408448)
I0403 16:39:10.871150 19028 net.cpp:148] Top shape: 24 512 14 14 (2408448)
I0403 16:39:10.871163 19028 net.cpp:156] Memory required for data: 1028392224
I0403 16:39:10.871177 19028 layer_factory.hpp:77] Creating layer inception_4c/1x1
I0403 16:39:10.871199 19028 net.cpp:91] Creating Layer inception_4c/1x1
I0403 16:39:10.871217 19028 net.cpp:425] inception_4c/1x1 <- inception_4b/output_inception_4b/output_0_split_0
I0403 16:39:10.871240 19028 net.cpp:399] inception_4c/1x1 -> inception_4c/1x1
I0403 16:39:10.872644 19028 net.cpp:141] Setting up inception_4c/1x1
I0403 16:39:10.872675 19028 net.cpp:148] Top shape: 24 128 14 14 (602112)
I0403 16:39:10.872692 19028 net.cpp:156] Memory required for data: 1030800672
I0403 16:39:10.872711 19028 layer_factory.hpp:77] Creating layer inception_4c/relu_1x1
I0403 16:39:10.872728 19028 net.cpp:91] Creating Layer inception_4c/relu_1x1
I0403 16:39:10.872745 19028 net.cpp:425] inception_4c/relu_1x1 <- inception_4c/1x1
I0403 16:39:10.872768 19028 net.cpp:386] inception_4c/relu_1x1 -> inception_4c/1x1 (in-place)
I0403 16:39:10.872941 19028 net.cpp:141] Setting up inception_4c/relu_1x1
I0403 16:39:10.872967 19028 net.cpp:148] Top shape: 24 128 14 14 (602112)
I0403 16:39:10.872982 19028 net.cpp:156] Memory required for data: 1033209120
I0403 16:39:10.872995 19028 layer_factory.hpp:77] Creating layer inception_4c/3x3_reduce
I0403 16:39:10.873018 19028 net.cpp:91] Creating Layer inception_4c/3x3_reduce
I0403 16:39:10.873036 19028 net.cpp:425] inception_4c/3x3_reduce <- inception_4b/output_inception_4b/output_0_split_1
I0403 16:39:10.873056 19028 net.cpp:399] inception_4c/3x3_reduce -> inception_4c/3x3_reduce
I0403 16:39:10.874965 19028 net.cpp:141] Setting up inception_4c/3x3_reduce
I0403 16:39:10.874994 19028 net.cpp:148] Top shape: 24 128 14 14 (602112)
I0403 16:39:10.875010 19028 net.cpp:156] Memory required for data: 1035617568
I0403 16:39:10.875030 19028 layer_factory.hpp:77] Creating layer inception_4c/relu_3x3_reduce
I0403 16:39:10.875053 19028 net.cpp:91] Creating Layer inception_4c/relu_3x3_reduce
I0403 16:39:10.875072 19028 net.cpp:425] inception_4c/relu_3x3_reduce <- inception_4c/3x3_reduce
I0403 16:39:10.875089 19028 net.cpp:386] inception_4c/relu_3x3_reduce -> inception_4c/3x3_reduce (in-place)
I0403 16:39:10.875368 19028 net.cpp:141] Setting up inception_4c/relu_3x3_reduce
I0403 16:39:10.875394 19028 net.cpp:148] Top shape: 24 128 14 14 (602112)
I0403 16:39:10.875411 19028 net.cpp:156] Memory required for data: 1038026016
I0403 16:39:10.875424 19028 layer_factory.hpp:77] Creating layer inception_4c/3x3
I0403 16:39:10.875448 19028 net.cpp:91] Creating Layer inception_4c/3x3
I0403 16:39:10.875466 19028 net.cpp:425] inception_4c/3x3 <- inception_4c/3x3_reduce
I0403 16:39:10.875488 19028 net.cpp:399] inception_4c/3x3 -> inception_4c/3x3
I0403 16:39:10.879019 19028 net.cpp:141] Setting up inception_4c/3x3
I0403 16:39:10.879058 19028 net.cpp:148] Top shape: 24 256 14 14 (1204224)
I0403 16:39:10.879076 19028 net.cpp:156] Memory required for data: 1042842912
I0403 16:39:10.879108 19028 layer_factory.hpp:77] Creating layer inception_4c/relu_3x3
I0403 16:39:10.879130 19028 net.cpp:91] Creating Layer inception_4c/relu_3x3
I0403 16:39:10.879148 19028 net.cpp:425] inception_4c/relu_3x3 <- inception_4c/3x3
I0403 16:39:10.879165 19028 net.cpp:386] inception_4c/relu_3x3 -> inception_4c/3x3 (in-place)
I0403 16:39:10.879348 19028 net.cpp:141] Setting up inception_4c/relu_3x3
I0403 16:39:10.879372 19028 net.cpp:148] Top shape: 24 256 14 14 (1204224)
I0403 16:39:10.879387 19028 net.cpp:156] Memory required for data: 1047659808
I0403 16:39:10.879402 19028 layer_factory.hpp:77] Creating layer inception_4c/5x5_reduce
I0403 16:39:10.879423 19028 net.cpp:91] Creating Layer inception_4c/5x5_reduce
I0403 16:39:10.879442 19028 net.cpp:425] inception_4c/5x5_reduce <- inception_4b/output_inception_4b/output_0_split_2
I0403 16:39:10.879464 19028 net.cpp:399] inception_4c/5x5_reduce -> inception_4c/5x5_reduce
I0403 16:39:10.880558 19028 net.cpp:141] Setting up inception_4c/5x5_reduce
I0403 16:39:10.880586 19028 net.cpp:148] Top shape: 24 24 14 14 (112896)
I0403 16:39:10.880606 19028 net.cpp:156] Memory required for data: 1048111392
I0403 16:39:10.880626 19028 layer_factory.hpp:77] Creating layer inception_4c/relu_5x5_reduce
I0403 16:39:10.880647 19028 net.cpp:91] Creating Layer inception_4c/relu_5x5_reduce
I0403 16:39:10.880666 19028 net.cpp:425] inception_4c/relu_5x5_reduce <- inception_4c/5x5_reduce
I0403 16:39:10.880683 19028 net.cpp:386] inception_4c/relu_5x5_reduce -> inception_4c/5x5_reduce (in-place)
I0403 16:39:10.880864 19028 net.cpp:141] Setting up inception_4c/relu_5x5_reduce
I0403 16:39:10.880892 19028 net.cpp:148] Top shape: 24 24 14 14 (112896)
I0403 16:39:10.880908 19028 net.cpp:156] Memory required for data: 1048562976
I0403 16:39:10.880923 19028 layer_factory.hpp:77] Creating layer inception_4c/5x5
I0403 16:39:10.880944 19028 net.cpp:91] Creating Layer inception_4c/5x5
I0403 16:39:10.880961 19028 net.cpp:425] inception_4c/5x5 <- inception_4c/5x5_reduce
I0403 16:39:10.880980 19028 net.cpp:399] inception_4c/5x5 -> inception_4c/5x5
I0403 16:39:10.882262 19028 net.cpp:141] Setting up inception_4c/5x5
I0403 16:39:10.882292 19028 net.cpp:148] Top shape: 24 64 14 14 (301056)
I0403 16:39:10.882308 19028 net.cpp:156] Memory required for data: 1049767200
I0403 16:39:10.882326 19028 layer_factory.hpp:77] Creating layer inception_4c/relu_5x5
I0403 16:39:10.882344 19028 net.cpp:91] Creating Layer inception_4c/relu_5x5
I0403 16:39:10.882359 19028 net.cpp:425] inception_4c/relu_5x5 <- inception_4c/5x5
I0403 16:39:10.882380 19028 net.cpp:386] inception_4c/relu_5x5 -> inception_4c/5x5 (in-place)
I0403 16:39:10.882659 19028 net.cpp:141] Setting up inception_4c/relu_5x5
I0403 16:39:10.882689 19028 net.cpp:148] Top shape: 24 64 14 14 (301056)
I0403 16:39:10.882705 19028 net.cpp:156] Memory required for data: 1050971424
I0403 16:39:10.882720 19028 layer_factory.hpp:77] Creating layer inception_4c/pool
I0403 16:39:10.882736 19028 net.cpp:91] Creating Layer inception_4c/pool
I0403 16:39:10.882752 19028 net.cpp:425] inception_4c/pool <- inception_4b/output_inception_4b/output_0_split_3
I0403 16:39:10.882774 19028 net.cpp:399] inception_4c/pool -> inception_4c/pool
I0403 16:39:10.882836 19028 net.cpp:141] Setting up inception_4c/pool
I0403 16:39:10.882859 19028 net.cpp:148] Top shape: 24 512 14 14 (2408448)
I0403 16:39:10.882874 19028 net.cpp:156] Memory required for data: 1060605216
I0403 16:39:10.882889 19028 layer_factory.hpp:77] Creating layer inception_4c/pool_proj
I0403 16:39:10.882910 19028 net.cpp:91] Creating Layer inception_4c/pool_proj
I0403 16:39:10.882926 19028 net.cpp:425] inception_4c/pool_proj <- inception_4c/pool
I0403 16:39:10.882946 19028 net.cpp:399] inception_4c/pool_proj -> inception_4c/pool_proj
I0403 16:39:10.884132 19028 net.cpp:141] Setting up inception_4c/pool_proj
I0403 16:39:10.884160 19028 net.cpp:148] Top shape: 24 64 14 14 (301056)
I0403 16:39:10.884188 19028 net.cpp:156] Memory required for data: 1061809440
I0403 16:39:10.884208 19028 layer_factory.hpp:77] Creating layer inception_4c/relu_pool_proj
I0403 16:39:10.884229 19028 net.cpp:91] Creating Layer inception_4c/relu_pool_proj
I0403 16:39:10.884248 19028 net.cpp:425] inception_4c/relu_pool_proj <- inception_4c/pool_proj
I0403 16:39:10.884263 19028 net.cpp:386] inception_4c/relu_pool_proj -> inception_4c/pool_proj (in-place)
I0403 16:39:10.884435 19028 net.cpp:141] Setting up inception_4c/relu_pool_proj
I0403 16:39:10.884459 19028 net.cpp:148] Top shape: 24 64 14 14 (301056)
I0403 16:39:10.884474 19028 net.cpp:156] Memory required for data: 1063013664
I0403 16:39:10.884490 19028 layer_factory.hpp:77] Creating layer inception_4c/output
I0403 16:39:10.884508 19028 net.cpp:91] Creating Layer inception_4c/output
I0403 16:39:10.884523 19028 net.cpp:425] inception_4c/output <- inception_4c/1x1
I0403 16:39:10.884539 19028 net.cpp:425] inception_4c/output <- inception_4c/3x3
I0403 16:39:10.884555 19028 net.cpp:425] inception_4c/output <- inception_4c/5x5
I0403 16:39:10.884572 19028 net.cpp:425] inception_4c/output <- inception_4c/pool_proj
I0403 16:39:10.884588 19028 net.cpp:399] inception_4c/output -> inception_4c/output
I0403 16:39:10.884639 19028 net.cpp:141] Setting up inception_4c/output
I0403 16:39:10.884662 19028 net.cpp:148] Top shape: 24 512 14 14 (2408448)
I0403 16:39:10.884676 19028 net.cpp:156] Memory required for data: 1072647456
I0403 16:39:10.884691 19028 layer_factory.hpp:77] Creating layer inception_4c/output_inception_4c/output_0_split
I0403 16:39:10.884707 19028 net.cpp:91] Creating Layer inception_4c/output_inception_4c/output_0_split
I0403 16:39:10.884723 19028 net.cpp:425] inception_4c/output_inception_4c/output_0_split <- inception_4c/output
I0403 16:39:10.884743 19028 net.cpp:399] inception_4c/output_inception_4c/output_0_split -> inception_4c/output_inception_4c/output_0_split_0
I0403 16:39:10.884763 19028 net.cpp:399] inception_4c/output_inception_4c/output_0_split -> inception_4c/output_inception_4c/output_0_split_1
I0403 16:39:10.884784 19028 net.cpp:399] inception_4c/output_inception_4c/output_0_split -> inception_4c/output_inception_4c/output_0_split_2
I0403 16:39:10.884804 19028 net.cpp:399] inception_4c/output_inception_4c/output_0_split -> inception_4c/output_inception_4c/output_0_split_3
I0403 16:39:10.884891 19028 net.cpp:141] Setting up inception_4c/output_inception_4c/output_0_split
I0403 16:39:10.884914 19028 net.cpp:148] Top shape: 24 512 14 14 (2408448)
I0403 16:39:10.884930 19028 net.cpp:148] Top shape: 24 512 14 14 (2408448)
I0403 16:39:10.884946 19028 net.cpp:148] Top shape: 24 512 14 14 (2408448)
I0403 16:39:10.884960 19028 net.cpp:148] Top shape: 24 512 14 14 (2408448)
I0403 16:39:10.884974 19028 net.cpp:156] Memory required for data: 1111182624
I0403 16:39:10.884987 19028 layer_factory.hpp:77] Creating layer inception_4d/1x1
I0403 16:39:10.885010 19028 net.cpp:91] Creating Layer inception_4d/1x1
I0403 16:39:10.885027 19028 net.cpp:425] inception_4d/1x1 <- inception_4c/output_inception_4c/output_0_split_0
I0403 16:39:10.885047 19028 net.cpp:399] inception_4d/1x1 -> inception_4d/1x1
I0403 16:39:10.886390 19028 net.cpp:141] Setting up inception_4d/1x1
I0403 16:39:10.886420 19028 net.cpp:148] Top shape: 24 112 14 14 (526848)
I0403 16:39:10.886436 19028 net.cpp:156] Memory required for data: 1113290016
I0403 16:39:10.886456 19028 layer_factory.hpp:77] Creating layer inception_4d/relu_1x1
I0403 16:39:10.886473 19028 net.cpp:91] Creating Layer inception_4d/relu_1x1
I0403 16:39:10.886489 19028 net.cpp:425] inception_4d/relu_1x1 <- inception_4d/1x1
I0403 16:39:10.886507 19028 net.cpp:386] inception_4d/relu_1x1 -> inception_4d/1x1 (in-place)
I0403 16:39:10.886692 19028 net.cpp:141] Setting up inception_4d/relu_1x1
I0403 16:39:10.886715 19028 net.cpp:148] Top shape: 24 112 14 14 (526848)
I0403 16:39:10.886730 19028 net.cpp:156] Memory required for data: 1115397408
I0403 16:39:10.886745 19028 layer_factory.hpp:77] Creating layer inception_4d/3x3_reduce
I0403 16:39:10.886780 19028 net.cpp:91] Creating Layer inception_4d/3x3_reduce
I0403 16:39:10.886798 19028 net.cpp:425] inception_4d/3x3_reduce <- inception_4c/output_inception_4c/output_0_split_1
I0403 16:39:10.886819 19028 net.cpp:399] inception_4d/3x3_reduce -> inception_4d/3x3_reduce
I0403 16:39:10.888312 19028 net.cpp:141] Setting up inception_4d/3x3_reduce
I0403 16:39:10.888341 19028 net.cpp:148] Top shape: 24 144 14 14 (677376)
I0403 16:39:10.888358 19028 net.cpp:156] Memory required for data: 1118106912
I0403 16:39:10.888376 19028 layer_factory.hpp:77] Creating layer inception_4d/relu_3x3_reduce
I0403 16:39:10.888393 19028 net.cpp:91] Creating Layer inception_4d/relu_3x3_reduce
I0403 16:39:10.888408 19028 net.cpp:425] inception_4d/relu_3x3_reduce <- inception_4d/3x3_reduce
I0403 16:39:10.888425 19028 net.cpp:386] inception_4d/relu_3x3_reduce -> inception_4d/3x3_reduce (in-place)
I0403 16:39:10.888705 19028 net.cpp:141] Setting up inception_4d/relu_3x3_reduce
I0403 16:39:10.888732 19028 net.cpp:148] Top shape: 24 144 14 14 (677376)
I0403 16:39:10.888748 19028 net.cpp:156] Memory required for data: 1120816416
I0403 16:39:10.888763 19028 layer_factory.hpp:77] Creating layer inception_4d/3x3
I0403 16:39:10.888785 19028 net.cpp:91] Creating Layer inception_4d/3x3
I0403 16:39:10.888802 19028 net.cpp:425] inception_4d/3x3 <- inception_4d/3x3_reduce
I0403 16:39:10.888821 19028 net.cpp:399] inception_4d/3x3 -> inception_4d/3x3
I0403 16:39:10.892858 19028 net.cpp:141] Setting up inception_4d/3x3
I0403 16:39:10.892887 19028 net.cpp:148] Top shape: 24 288 14 14 (1354752)
I0403 16:39:10.892915 19028 net.cpp:156] Memory required for data: 1126235424
I0403 16:39:10.892933 19028 layer_factory.hpp:77] Creating layer inception_4d/relu_3x3
I0403 16:39:10.892951 19028 net.cpp:91] Creating Layer inception_4d/relu_3x3
I0403 16:39:10.892966 19028 net.cpp:425] inception_4d/relu_3x3 <- inception_4d/3x3
I0403 16:39:10.892985 19028 net.cpp:386] inception_4d/relu_3x3 -> inception_4d/3x3 (in-place)
I0403 16:39:10.893160 19028 net.cpp:141] Setting up inception_4d/relu_3x3
I0403 16:39:10.893187 19028 net.cpp:148] Top shape: 24 288 14 14 (1354752)
I0403 16:39:10.893200 19028 net.cpp:156] Memory required for data: 1131654432
I0403 16:39:10.893215 19028 layer_factory.hpp:77] Creating layer inception_4d/5x5_reduce
I0403 16:39:10.893236 19028 net.cpp:91] Creating Layer inception_4d/5x5_reduce
I0403 16:39:10.893254 19028 net.cpp:425] inception_4d/5x5_reduce <- inception_4c/output_inception_4c/output_0_split_2
I0403 16:39:10.893275 19028 net.cpp:399] inception_4d/5x5_reduce -> inception_4d/5x5_reduce
I0403 16:39:10.894366 19028 net.cpp:141] Setting up inception_4d/5x5_reduce
I0403 16:39:10.894392 19028 net.cpp:148] Top shape: 24 32 14 14 (150528)
I0403 16:39:10.894408 19028 net.cpp:156] Memory required for data: 1132256544
I0403 16:39:10.894426 19028 layer_factory.hpp:77] Creating layer inception_4d/relu_5x5_reduce
I0403 16:39:10.894443 19028 net.cpp:91] Creating Layer inception_4d/relu_5x5_reduce
I0403 16:39:10.894464 19028 net.cpp:425] inception_4d/relu_5x5_reduce <- inception_4d/5x5_reduce
I0403 16:39:10.894482 19028 net.cpp:386] inception_4d/relu_5x5_reduce -> inception_4d/5x5_reduce (in-place)
I0403 16:39:10.894664 19028 net.cpp:141] Setting up inception_4d/relu_5x5_reduce
I0403 16:39:10.894688 19028 net.cpp:148] Top shape: 24 32 14 14 (150528)
I0403 16:39:10.894703 19028 net.cpp:156] Memory required for data: 1132858656
I0403 16:39:10.894717 19028 layer_factory.hpp:77] Creating layer inception_4d/5x5
I0403 16:39:10.894738 19028 net.cpp:91] Creating Layer inception_4d/5x5
I0403 16:39:10.894755 19028 net.cpp:425] inception_4d/5x5 <- inception_4d/5x5_reduce
I0403 16:39:10.894778 19028 net.cpp:399] inception_4d/5x5 -> inception_4d/5x5
I0403 16:39:10.896188 19028 net.cpp:141] Setting up inception_4d/5x5
I0403 16:39:10.896216 19028 net.cpp:148] Top shape: 24 64 14 14 (301056)
I0403 16:39:10.896231 19028 net.cpp:156] Memory required for data: 1134062880
I0403 16:39:10.896250 19028 layer_factory.hpp:77] Creating layer inception_4d/relu_5x5
I0403 16:39:10.896283 19028 net.cpp:91] Creating Layer inception_4d/relu_5x5
I0403 16:39:10.896302 19028 net.cpp:425] inception_4d/relu_5x5 <- inception_4d/5x5
I0403 16:39:10.896319 19028 net.cpp:386] inception_4d/relu_5x5 -> inception_4d/5x5 (in-place)
I0403 16:39:10.896606 19028 net.cpp:141] Setting up inception_4d/relu_5x5
I0403 16:39:10.896633 19028 net.cpp:148] Top shape: 24 64 14 14 (301056)
I0403 16:39:10.896648 19028 net.cpp:156] Memory required for data: 1135267104
I0403 16:39:10.896663 19028 layer_factory.hpp:77] Creating layer inception_4d/pool
I0403 16:39:10.896683 19028 net.cpp:91] Creating Layer inception_4d/pool
I0403 16:39:10.896700 19028 net.cpp:425] inception_4d/pool <- inception_4c/output_inception_4c/output_0_split_3
I0403 16:39:10.896718 19028 net.cpp:399] inception_4d/pool -> inception_4d/pool
I0403 16:39:10.896782 19028 net.cpp:141] Setting up inception_4d/pool
I0403 16:39:10.896806 19028 net.cpp:148] Top shape: 24 512 14 14 (2408448)
I0403 16:39:10.896821 19028 net.cpp:156] Memory required for data: 1144900896
I0403 16:39:10.896836 19028 layer_factory.hpp:77] Creating layer inception_4d/pool_proj
I0403 16:39:10.896857 19028 net.cpp:91] Creating Layer inception_4d/pool_proj
I0403 16:39:10.896873 19028 net.cpp:425] inception_4d/pool_proj <- inception_4d/pool
I0403 16:39:10.896894 19028 net.cpp:399] inception_4d/pool_proj -> inception_4d/pool_proj
I0403 16:39:10.898612 19028 net.cpp:141] Setting up inception_4d/pool_proj
I0403 16:39:10.898640 19028 net.cpp:148] Top shape: 24 64 14 14 (301056)
I0403 16:39:10.898658 19028 net.cpp:156] Memory required for data: 1146105120
I0403 16:39:10.898675 19028 layer_factory.hpp:77] Creating layer inception_4d/relu_pool_proj
I0403 16:39:10.898694 19028 net.cpp:91] Creating Layer inception_4d/relu_pool_proj
I0403 16:39:10.898708 19028 net.cpp:425] inception_4d/relu_pool_proj <- inception_4d/pool_proj
I0403 16:39:10.898727 19028 net.cpp:386] inception_4d/relu_pool_proj -> inception_4d/pool_proj (in-place)
I0403 16:39:10.898903 19028 net.cpp:141] Setting up inception_4d/relu_pool_proj
I0403 16:39:10.898928 19028 net.cpp:148] Top shape: 24 64 14 14 (301056)
I0403 16:39:10.898942 19028 net.cpp:156] Memory required for data: 1147309344
I0403 16:39:10.898957 19028 layer_factory.hpp:77] Creating layer inception_4d/output
I0403 16:39:10.898975 19028 net.cpp:91] Creating Layer inception_4d/output
I0403 16:39:10.898991 19028 net.cpp:425] inception_4d/output <- inception_4d/1x1
I0403 16:39:10.899008 19028 net.cpp:425] inception_4d/output <- inception_4d/3x3
I0403 16:39:10.899024 19028 net.cpp:425] inception_4d/output <- inception_4d/5x5
I0403 16:39:10.899040 19028 net.cpp:425] inception_4d/output <- inception_4d/pool_proj
I0403 16:39:10.899056 19028 net.cpp:399] inception_4d/output -> inception_4d/output
I0403 16:39:10.899102 19028 net.cpp:141] Setting up inception_4d/output
I0403 16:39:10.899126 19028 net.cpp:148] Top shape: 24 528 14 14 (2483712)
I0403 16:39:10.899139 19028 net.cpp:156] Memory required for data: 1157244192
I0403 16:39:10.899152 19028 layer_factory.hpp:77] Creating layer inception_4d/output_inception_4d/output_0_split
I0403 16:39:10.899170 19028 net.cpp:91] Creating Layer inception_4d/output_inception_4d/output_0_split
I0403 16:39:10.899184 19028 net.cpp:425] inception_4d/output_inception_4d/output_0_split <- inception_4d/output
I0403 16:39:10.899204 19028 net.cpp:399] inception_4d/output_inception_4d/output_0_split -> inception_4d/output_inception_4d/output_0_split_0
I0403 16:39:10.899222 19028 net.cpp:399] inception_4d/output_inception_4d/output_0_split -> inception_4d/output_inception_4d/output_0_split_1
I0403 16:39:10.899245 19028 net.cpp:399] inception_4d/output_inception_4d/output_0_split -> inception_4d/output_inception_4d/output_0_split_2
I0403 16:39:10.899266 19028 net.cpp:399] inception_4d/output_inception_4d/output_0_split -> inception_4d/output_inception_4d/output_0_split_3
I0403 16:39:10.899286 19028 net.cpp:399] inception_4d/output_inception_4d/output_0_split -> inception_4d/output_inception_4d/output_0_split_4
I0403 16:39:10.899384 19028 net.cpp:141] Setting up inception_4d/output_inception_4d/output_0_split
I0403 16:39:10.899418 19028 net.cpp:148] Top shape: 24 528 14 14 (2483712)
I0403 16:39:10.899437 19028 net.cpp:148] Top shape: 24 528 14 14 (2483712)
I0403 16:39:10.899454 19028 net.cpp:148] Top shape: 24 528 14 14 (2483712)
I0403 16:39:10.899469 19028 net.cpp:148] Top shape: 24 528 14 14 (2483712)
I0403 16:39:10.899484 19028 net.cpp:148] Top shape: 24 528 14 14 (2483712)
I0403 16:39:10.899498 19028 net.cpp:156] Memory required for data: 1206918432
I0403 16:39:10.899513 19028 layer_factory.hpp:77] Creating layer loss2/ave_pool
I0403 16:39:10.899529 19028 net.cpp:91] Creating Layer loss2/ave_pool
I0403 16:39:10.899545 19028 net.cpp:425] loss2/ave_pool <- inception_4d/output_inception_4d/output_0_split_0
I0403 16:39:10.899566 19028 net.cpp:399] loss2/ave_pool -> loss2/ave_pool
I0403 16:39:10.899870 19028 net.cpp:141] Setting up loss2/ave_pool
I0403 16:39:10.899898 19028 net.cpp:148] Top shape: 24 528 4 4 (202752)
I0403 16:39:10.899914 19028 net.cpp:156] Memory required for data: 1207729440
I0403 16:39:10.899927 19028 layer_factory.hpp:77] Creating layer loss2/conv
I0403 16:39:10.899948 19028 net.cpp:91] Creating Layer loss2/conv
I0403 16:39:10.899966 19028 net.cpp:425] loss2/conv <- loss2/ave_pool
I0403 16:39:10.899987 19028 net.cpp:399] loss2/conv -> loss2/conv
I0403 16:39:10.901855 19028 net.cpp:141] Setting up loss2/conv
I0403 16:39:10.901885 19028 net.cpp:148] Top shape: 24 128 4 4 (49152)
I0403 16:39:10.901901 19028 net.cpp:156] Memory required for data: 1207926048
I0403 16:39:10.901918 19028 layer_factory.hpp:77] Creating layer loss2/relu_conv
I0403 16:39:10.901942 19028 net.cpp:91] Creating Layer loss2/relu_conv
I0403 16:39:10.901957 19028 net.cpp:425] loss2/relu_conv <- loss2/conv
I0403 16:39:10.901975 19028 net.cpp:386] loss2/relu_conv -> loss2/conv (in-place)
I0403 16:39:10.902254 19028 net.cpp:141] Setting up loss2/relu_conv
I0403 16:39:10.902281 19028 net.cpp:148] Top shape: 24 128 4 4 (49152)
I0403 16:39:10.902297 19028 net.cpp:156] Memory required for data: 1208122656
I0403 16:39:10.902310 19028 layer_factory.hpp:77] Creating layer loss2/fc
I0403 16:39:10.902331 19028 net.cpp:91] Creating Layer loss2/fc
I0403 16:39:10.902348 19028 net.cpp:425] loss2/fc <- loss2/conv
I0403 16:39:10.902370 19028 net.cpp:399] loss2/fc -> loss2/fc
I0403 16:39:10.919703 19028 net.cpp:141] Setting up loss2/fc
I0403 16:39:10.919734 19028 net.cpp:148] Top shape: 24 1024 (24576)
I0403 16:39:10.919749 19028 net.cpp:156] Memory required for data: 1208220960
I0403 16:39:10.919769 19028 layer_factory.hpp:77] Creating layer loss2/relu_fc
I0403 16:39:10.919785 19028 net.cpp:91] Creating Layer loss2/relu_fc
I0403 16:39:10.919806 19028 net.cpp:425] loss2/relu_fc <- loss2/fc
I0403 16:39:10.919823 19028 net.cpp:386] loss2/relu_fc -> loss2/fc (in-place)
I0403 16:39:10.920109 19028 net.cpp:141] Setting up loss2/relu_fc
I0403 16:39:10.920136 19028 net.cpp:148] Top shape: 24 1024 (24576)
I0403 16:39:10.920151 19028 net.cpp:156] Memory required for data: 1208319264
I0403 16:39:10.920166 19028 layer_factory.hpp:77] Creating layer loss2/drop_fc
I0403 16:39:10.920183 19028 net.cpp:91] Creating Layer loss2/drop_fc
I0403 16:39:10.920202 19028 net.cpp:425] loss2/drop_fc <- loss2/fc
I0403 16:39:10.920219 19028 net.cpp:386] loss2/drop_fc -> loss2/fc (in-place)
I0403 16:39:10.920266 19028 net.cpp:141] Setting up loss2/drop_fc
I0403 16:39:10.920290 19028 net.cpp:148] Top shape: 24 1024 (24576)
I0403 16:39:10.920305 19028 net.cpp:156] Memory required for data: 1208417568
I0403 16:39:10.920320 19028 layer_factory.hpp:77] Creating layer loss2/classifier_plantvillage
I0403 16:39:10.920337 19028 net.cpp:91] Creating Layer loss2/classifier_plantvillage
I0403 16:39:10.920352 19028 net.cpp:425] loss2/classifier_plantvillage <- loss2/fc
I0403 16:39:10.920372 19028 net.cpp:399] loss2/classifier_plantvillage -> loss2/classifier_plantvillage
I0403 16:39:10.920758 19028 net.cpp:141] Setting up loss2/classifier_plantvillage
I0403 16:39:10.920784 19028 net.cpp:148] Top shape: 24 38 (912)
I0403 16:39:10.920799 19028 net.cpp:156] Memory required for data: 1208421216
I0403 16:39:10.920835 19028 layer_factory.hpp:77] Creating layer loss2/classifier_plantvillage_loss2/classifier_plantvillage_0_split
I0403 16:39:10.920852 19028 net.cpp:91] Creating Layer loss2/classifier_plantvillage_loss2/classifier_plantvillage_0_split
I0403 16:39:10.920867 19028 net.cpp:425] loss2/classifier_plantvillage_loss2/classifier_plantvillage_0_split <- loss2/classifier_plantvillage
I0403 16:39:10.920884 19028 net.cpp:399] loss2/classifier_plantvillage_loss2/classifier_plantvillage_0_split -> loss2/classifier_plantvillage_loss2/classifier_plantvillage_0_split_0
I0403 16:39:10.920904 19028 net.cpp:399] loss2/classifier_plantvillage_loss2/classifier_plantvillage_0_split -> loss2/classifier_plantvillage_loss2/classifier_plantvillage_0_split_1
I0403 16:39:10.920928 19028 net.cpp:399] loss2/classifier_plantvillage_loss2/classifier_plantvillage_0_split -> loss2/classifier_plantvillage_loss2/classifier_plantvillage_0_split_2
I0403 16:39:10.921002 19028 net.cpp:141] Setting up loss2/classifier_plantvillage_loss2/classifier_plantvillage_0_split
I0403 16:39:10.921026 19028 net.cpp:148] Top shape: 24 38 (912)
I0403 16:39:10.921042 19028 net.cpp:148] Top shape: 24 38 (912)
I0403 16:39:10.921058 19028 net.cpp:148] Top shape: 24 38 (912)
I0403 16:39:10.921072 19028 net.cpp:156] Memory required for data: 1208432160
I0403 16:39:10.921085 19028 layer_factory.hpp:77] Creating layer inception_4e/1x1
I0403 16:39:10.921106 19028 net.cpp:91] Creating Layer inception_4e/1x1
I0403 16:39:10.921124 19028 net.cpp:425] inception_4e/1x1 <- inception_4d/output_inception_4d/output_0_split_1
I0403 16:39:10.921144 19028 net.cpp:399] inception_4e/1x1 -> inception_4e/1x1
I0403 16:39:10.922899 19028 net.cpp:141] Setting up inception_4e/1x1
I0403 16:39:10.922926 19028 net.cpp:148] Top shape: 24 256 14 14 (1204224)
I0403 16:39:10.922941 19028 net.cpp:156] Memory required for data: 1213249056
I0403 16:39:10.922960 19028 layer_factory.hpp:77] Creating layer inception_4e/relu_1x1
I0403 16:39:10.922979 19028 net.cpp:91] Creating Layer inception_4e/relu_1x1
I0403 16:39:10.922996 19028 net.cpp:425] inception_4e/relu_1x1 <- inception_4e/1x1
I0403 16:39:10.923012 19028 net.cpp:386] inception_4e/relu_1x1 -> inception_4e/1x1 (in-place)
I0403 16:39:10.923295 19028 net.cpp:141] Setting up inception_4e/relu_1x1
I0403 16:39:10.923319 19028 net.cpp:148] Top shape: 24 256 14 14 (1204224)
I0403 16:39:10.923334 19028 net.cpp:156] Memory required for data: 1218065952
I0403 16:39:10.923349 19028 layer_factory.hpp:77] Creating layer inception_4e/3x3_reduce
I0403 16:39:10.923372 19028 net.cpp:91] Creating Layer inception_4e/3x3_reduce
I0403 16:39:10.923388 19028 net.cpp:425] inception_4e/3x3_reduce <- inception_4d/output_inception_4d/output_0_split_2
I0403 16:39:10.923408 19028 net.cpp:399] inception_4e/3x3_reduce -> inception_4e/3x3_reduce
I0403 16:39:10.925420 19028 net.cpp:141] Setting up inception_4e/3x3_reduce
I0403 16:39:10.925448 19028 net.cpp:148] Top shape: 24 160 14 14 (752640)
I0403 16:39:10.925464 19028 net.cpp:156] Memory required for data: 1221076512
I0403 16:39:10.925483 19028 layer_factory.hpp:77] Creating layer inception_4e/relu_3x3_reduce
I0403 16:39:10.925503 19028 net.cpp:91] Creating Layer inception_4e/relu_3x3_reduce
I0403 16:39:10.925519 19028 net.cpp:425] inception_4e/relu_3x3_reduce <- inception_4e/3x3_reduce
I0403 16:39:10.925537 19028 net.cpp:386] inception_4e/relu_3x3_reduce -> inception_4e/3x3_reduce (in-place)
I0403 16:39:10.925740 19028 net.cpp:141] Setting up inception_4e/relu_3x3_reduce
I0403 16:39:10.925768 19028 net.cpp:148] Top shape: 24 160 14 14 (752640)
I0403 16:39:10.925784 19028 net.cpp:156] Memory required for data: 1224087072
I0403 16:39:10.925801 19028 layer_factory.hpp:77] Creating layer inception_4e/3x3
I0403 16:39:10.925822 19028 net.cpp:91] Creating Layer inception_4e/3x3
I0403 16:39:10.925840 19028 net.cpp:425] inception_4e/3x3 <- inception_4e/3x3_reduce
I0403 16:39:10.925859 19028 net.cpp:399] inception_4e/3x3 -> inception_4e/3x3
I0403 16:39:10.930626 19028 net.cpp:141] Setting up inception_4e/3x3
I0403 16:39:10.930670 19028 net.cpp:148] Top shape: 24 320 14 14 (1505280)
I0403 16:39:10.930690 19028 net.cpp:156] Memory required for data: 1230108192
I0403 16:39:10.930707 19028 layer_factory.hpp:77] Creating layer inception_4e/relu_3x3
I0403 16:39:10.930727 19028 net.cpp:91] Creating Layer inception_4e/relu_3x3
I0403 16:39:10.930742 19028 net.cpp:425] inception_4e/relu_3x3 <- inception_4e/3x3
I0403 16:39:10.930763 19028 net.cpp:386] inception_4e/relu_3x3 -> inception_4e/3x3 (in-place)
I0403 16:39:10.931066 19028 net.cpp:141] Setting up inception_4e/relu_3x3
I0403 16:39:10.931093 19028 net.cpp:148] Top shape: 24 320 14 14 (1505280)
I0403 16:39:10.931108 19028 net.cpp:156] Memory required for data: 1236129312
I0403 16:39:10.931123 19028 layer_factory.hpp:77] Creating layer inception_4e/5x5_reduce
I0403 16:39:10.931144 19028 net.cpp:91] Creating Layer inception_4e/5x5_reduce
I0403 16:39:10.931164 19028 net.cpp:425] inception_4e/5x5_reduce <- inception_4d/output_inception_4d/output_0_split_3
I0403 16:39:10.931185 19028 net.cpp:399] inception_4e/5x5_reduce -> inception_4e/5x5_reduce
I0403 16:39:10.932209 19028 net.cpp:141] Setting up inception_4e/5x5_reduce
I0403 16:39:10.932235 19028 net.cpp:148] Top shape: 24 32 14 14 (150528)
I0403 16:39:10.932251 19028 net.cpp:156] Memory required for data: 1236731424
I0403 16:39:10.932270 19028 layer_factory.hpp:77] Creating layer inception_4e/relu_5x5_reduce
I0403 16:39:10.932291 19028 net.cpp:91] Creating Layer inception_4e/relu_5x5_reduce
I0403 16:39:10.932307 19028 net.cpp:425] inception_4e/relu_5x5_reduce <- inception_4e/5x5_reduce
I0403 16:39:10.932324 19028 net.cpp:386] inception_4e/relu_5x5_reduce -> inception_4e/5x5_reduce (in-place)
I0403 16:39:10.932615 19028 net.cpp:141] Setting up inception_4e/relu_5x5_reduce
I0403 16:39:10.932639 19028 net.cpp:148] Top shape: 24 32 14 14 (150528)
I0403 16:39:10.932654 19028 net.cpp:156] Memory required for data: 1237333536
I0403 16:39:10.932668 19028 layer_factory.hpp:77] Creating layer inception_4e/5x5
I0403 16:39:10.932704 19028 net.cpp:91] Creating Layer inception_4e/5x5
I0403 16:39:10.932724 19028 net.cpp:425] inception_4e/5x5 <- inception_4e/5x5_reduce
I0403 16:39:10.932744 19028 net.cpp:399] inception_4e/5x5 -> inception_4e/5x5
I0403 16:39:10.934490 19028 net.cpp:141] Setting up inception_4e/5x5
I0403 16:39:10.934517 19028 net.cpp:148] Top shape: 24 128 14 14 (602112)
I0403 16:39:10.934532 19028 net.cpp:156] Memory required for data: 1239741984
I0403 16:39:10.934551 19028 layer_factory.hpp:77] Creating layer inception_4e/relu_5x5
I0403 16:39:10.934572 19028 net.cpp:91] Creating Layer inception_4e/relu_5x5
I0403 16:39:10.934589 19028 net.cpp:425] inception_4e/relu_5x5 <- inception_4e/5x5
I0403 16:39:10.934612 19028 net.cpp:386] inception_4e/relu_5x5 -> inception_4e/5x5 (in-place)
I0403 16:39:10.934798 19028 net.cpp:141] Setting up inception_4e/relu_5x5
I0403 16:39:10.934823 19028 net.cpp:148] Top shape: 24 128 14 14 (602112)
I0403 16:39:10.934841 19028 net.cpp:156] Memory required for data: 1242150432
I0403 16:39:10.934856 19028 layer_factory.hpp:77] Creating layer inception_4e/pool
I0403 16:39:10.934873 19028 net.cpp:91] Creating Layer inception_4e/pool
I0403 16:39:10.934890 19028 net.cpp:425] inception_4e/pool <- inception_4d/output_inception_4d/output_0_split_4
I0403 16:39:10.934906 19028 net.cpp:399] inception_4e/pool -> inception_4e/pool
I0403 16:39:10.934973 19028 net.cpp:141] Setting up inception_4e/pool
I0403 16:39:10.934996 19028 net.cpp:148] Top shape: 24 528 14 14 (2483712)
I0403 16:39:10.935011 19028 net.cpp:156] Memory required for data: 1252085280
I0403 16:39:10.935025 19028 layer_factory.hpp:77] Creating layer inception_4e/pool_proj
I0403 16:39:10.935046 19028 net.cpp:91] Creating Layer inception_4e/pool_proj
I0403 16:39:10.935062 19028 net.cpp:425] inception_4e/pool_proj <- inception_4e/pool
I0403 16:39:10.935083 19028 net.cpp:399] inception_4e/pool_proj -> inception_4e/pool_proj
I0403 16:39:10.936579 19028 net.cpp:141] Setting up inception_4e/pool_proj
I0403 16:39:10.936611 19028 net.cpp:148] Top shape: 24 128 14 14 (602112)
I0403 16:39:10.936640 19028 net.cpp:156] Memory required for data: 1254493728
I0403 16:39:10.936661 19028 layer_factory.hpp:77] Creating layer inception_4e/relu_pool_proj
I0403 16:39:10.936678 19028 net.cpp:91] Creating Layer inception_4e/relu_pool_proj
I0403 16:39:10.936694 19028 net.cpp:425] inception_4e/relu_pool_proj <- inception_4e/pool_proj
I0403 16:39:10.936713 19028 net.cpp:386] inception_4e/relu_pool_proj -> inception_4e/pool_proj (in-place)
I0403 16:39:10.936996 19028 net.cpp:141] Setting up inception_4e/relu_pool_proj
I0403 16:39:10.937022 19028 net.cpp:148] Top shape: 24 128 14 14 (602112)
I0403 16:39:10.937036 19028 net.cpp:156] Memory required for data: 1256902176
I0403 16:39:10.937052 19028 layer_factory.hpp:77] Creating layer inception_4e/output
I0403 16:39:10.937068 19028 net.cpp:91] Creating Layer inception_4e/output
I0403 16:39:10.937084 19028 net.cpp:425] inception_4e/output <- inception_4e/1x1
I0403 16:39:10.937100 19028 net.cpp:425] inception_4e/output <- inception_4e/3x3
I0403 16:39:10.937117 19028 net.cpp:425] inception_4e/output <- inception_4e/5x5
I0403 16:39:10.937134 19028 net.cpp:425] inception_4e/output <- inception_4e/pool_proj
I0403 16:39:10.937152 19028 net.cpp:399] inception_4e/output -> inception_4e/output
I0403 16:39:10.937199 19028 net.cpp:141] Setting up inception_4e/output
I0403 16:39:10.937225 19028 net.cpp:148] Top shape: 24 832 14 14 (3913728)
I0403 16:39:10.937240 19028 net.cpp:156] Memory required for data: 1272557088
I0403 16:39:10.937253 19028 layer_factory.hpp:77] Creating layer pool4/3x3_s2
I0403 16:39:10.937271 19028 net.cpp:91] Creating Layer pool4/3x3_s2
I0403 16:39:10.937285 19028 net.cpp:425] pool4/3x3_s2 <- inception_4e/output
I0403 16:39:10.937304 19028 net.cpp:399] pool4/3x3_s2 -> pool4/3x3_s2
I0403 16:39:10.937369 19028 net.cpp:141] Setting up pool4/3x3_s2
I0403 16:39:10.937393 19028 net.cpp:148] Top shape: 24 832 7 7 (978432)
I0403 16:39:10.937407 19028 net.cpp:156] Memory required for data: 1276470816
I0403 16:39:10.937422 19028 layer_factory.hpp:77] Creating layer pool4/3x3_s2_pool4/3x3_s2_0_split
I0403 16:39:10.937441 19028 net.cpp:91] Creating Layer pool4/3x3_s2_pool4/3x3_s2_0_split
I0403 16:39:10.937458 19028 net.cpp:425] pool4/3x3_s2_pool4/3x3_s2_0_split <- pool4/3x3_s2
I0403 16:39:10.937475 19028 net.cpp:399] pool4/3x3_s2_pool4/3x3_s2_0_split -> pool4/3x3_s2_pool4/3x3_s2_0_split_0
I0403 16:39:10.937494 19028 net.cpp:399] pool4/3x3_s2_pool4/3x3_s2_0_split -> pool4/3x3_s2_pool4/3x3_s2_0_split_1
I0403 16:39:10.937515 19028 net.cpp:399] pool4/3x3_s2_pool4/3x3_s2_0_split -> pool4/3x3_s2_pool4/3x3_s2_0_split_2
I0403 16:39:10.937538 19028 net.cpp:399] pool4/3x3_s2_pool4/3x3_s2_0_split -> pool4/3x3_s2_pool4/3x3_s2_0_split_3
I0403 16:39:10.937631 19028 net.cpp:141] Setting up pool4/3x3_s2_pool4/3x3_s2_0_split
I0403 16:39:10.937655 19028 net.cpp:148] Top shape: 24 832 7 7 (978432)
I0403 16:39:10.937671 19028 net.cpp:148] Top shape: 24 832 7 7 (978432)
I0403 16:39:10.937686 19028 net.cpp:148] Top shape: 24 832 7 7 (978432)
I0403 16:39:10.937700 19028 net.cpp:148] Top shape: 24 832 7 7 (978432)
I0403 16:39:10.937714 19028 net.cpp:156] Memory required for data: 1292125728
I0403 16:39:10.937728 19028 layer_factory.hpp:77] Creating layer inception_5a/1x1
I0403 16:39:10.937749 19028 net.cpp:91] Creating Layer inception_5a/1x1
I0403 16:39:10.937767 19028 net.cpp:425] inception_5a/1x1 <- pool4/3x3_s2_pool4/3x3_s2_0_split_0
I0403 16:39:10.937788 19028 net.cpp:399] inception_5a/1x1 -> inception_5a/1x1
I0403 16:39:10.940488 19028 net.cpp:141] Setting up inception_5a/1x1
I0403 16:39:10.940518 19028 net.cpp:148] Top shape: 24 256 7 7 (301056)
I0403 16:39:10.940534 19028 net.cpp:156] Memory required for data: 1293329952
I0403 16:39:10.940553 19028 layer_factory.hpp:77] Creating layer inception_5a/relu_1x1
I0403 16:39:10.940572 19028 net.cpp:91] Creating Layer inception_5a/relu_1x1
I0403 16:39:10.940588 19028 net.cpp:425] inception_5a/relu_1x1 <- inception_5a/1x1
I0403 16:39:10.940621 19028 net.cpp:386] inception_5a/relu_1x1 -> inception_5a/1x1 (in-place)
I0403 16:39:10.940945 19028 net.cpp:141] Setting up inception_5a/relu_1x1
I0403 16:39:10.940971 19028 net.cpp:148] Top shape: 24 256 7 7 (301056)
I0403 16:39:10.940986 19028 net.cpp:156] Memory required for data: 1294534176
I0403 16:39:10.941002 19028 layer_factory.hpp:77] Creating layer inception_5a/3x3_reduce
I0403 16:39:10.941025 19028 net.cpp:91] Creating Layer inception_5a/3x3_reduce
I0403 16:39:10.941041 19028 net.cpp:425] inception_5a/3x3_reduce <- pool4/3x3_s2_pool4/3x3_s2_0_split_1
I0403 16:39:10.941062 19028 net.cpp:399] inception_5a/3x3_reduce -> inception_5a/3x3_reduce
I0403 16:39:10.943413 19028 net.cpp:141] Setting up inception_5a/3x3_reduce
I0403 16:39:10.943441 19028 net.cpp:148] Top shape: 24 160 7 7 (188160)
I0403 16:39:10.943457 19028 net.cpp:156] Memory required for data: 1295286816
I0403 16:39:10.943475 19028 layer_factory.hpp:77] Creating layer inception_5a/relu_3x3_reduce
I0403 16:39:10.943492 19028 net.cpp:91] Creating Layer inception_5a/relu_3x3_reduce
I0403 16:39:10.943508 19028 net.cpp:425] inception_5a/relu_3x3_reduce <- inception_5a/3x3_reduce
I0403 16:39:10.943527 19028 net.cpp:386] inception_5a/relu_3x3_reduce -> inception_5a/3x3_reduce (in-place)
I0403 16:39:10.943713 19028 net.cpp:141] Setting up inception_5a/relu_3x3_reduce
I0403 16:39:10.943738 19028 net.cpp:148] Top shape: 24 160 7 7 (188160)
I0403 16:39:10.943753 19028 net.cpp:156] Memory required for data: 1296039456
I0403 16:39:10.943768 19028 layer_factory.hpp:77] Creating layer inception_5a/3x3
I0403 16:39:10.943789 19028 net.cpp:91] Creating Layer inception_5a/3x3
I0403 16:39:10.943806 19028 net.cpp:425] inception_5a/3x3 <- inception_5a/3x3_reduce
I0403 16:39:10.943828 19028 net.cpp:399] inception_5a/3x3 -> inception_5a/3x3
I0403 16:39:10.948674 19028 net.cpp:141] Setting up inception_5a/3x3
I0403 16:39:10.948704 19028 net.cpp:148] Top shape: 24 320 7 7 (376320)
I0403 16:39:10.948720 19028 net.cpp:156] Memory required for data: 1297544736
I0403 16:39:10.948739 19028 layer_factory.hpp:77] Creating layer inception_5a/relu_3x3
I0403 16:39:10.948757 19028 net.cpp:91] Creating Layer inception_5a/relu_3x3
I0403 16:39:10.948776 19028 net.cpp:425] inception_5a/relu_3x3 <- inception_5a/3x3
I0403 16:39:10.948794 19028 net.cpp:386] inception_5a/relu_3x3 -> inception_5a/3x3 (in-place)
I0403 16:39:10.949077 19028 net.cpp:141] Setting up inception_5a/relu_3x3
I0403 16:39:10.949102 19028 net.cpp:148] Top shape: 24 320 7 7 (376320)
I0403 16:39:10.949117 19028 net.cpp:156] Memory required for data: 1299050016
I0403 16:39:10.949132 19028 layer_factory.hpp:77] Creating layer inception_5a/5x5_reduce
I0403 16:39:10.949154 19028 net.cpp:91] Creating Layer inception_5a/5x5_reduce
I0403 16:39:10.949172 19028 net.cpp:425] inception_5a/5x5_reduce <- pool4/3x3_s2_pool4/3x3_s2_0_split_2
I0403 16:39:10.949193 19028 net.cpp:399] inception_5a/5x5_reduce -> inception_5a/5x5_reduce
I0403 16:39:10.950338 19028 net.cpp:141] Setting up inception_5a/5x5_reduce
I0403 16:39:10.950368 19028 net.cpp:148] Top shape: 24 32 7 7 (37632)
I0403 16:39:10.950384 19028 net.cpp:156] Memory required for data: 1299200544
I0403 16:39:10.950402 19028 layer_factory.hpp:77] Creating layer inception_5a/relu_5x5_reduce
I0403 16:39:10.950422 19028 net.cpp:91] Creating Layer inception_5a/relu_5x5_reduce
I0403 16:39:10.950438 19028 net.cpp:425] inception_5a/relu_5x5_reduce <- inception_5a/5x5_reduce
I0403 16:39:10.950453 19028 net.cpp:386] inception_5a/relu_5x5_reduce -> inception_5a/5x5_reduce (in-place)
I0403 16:39:10.950748 19028 net.cpp:141] Setting up inception_5a/relu_5x5_reduce
I0403 16:39:10.950774 19028 net.cpp:148] Top shape: 24 32 7 7 (37632)
I0403 16:39:10.950793 19028 net.cpp:156] Memory required for data: 1299351072
I0403 16:39:10.950809 19028 layer_factory.hpp:77] Creating layer inception_5a/5x5
I0403 16:39:10.950827 19028 net.cpp:91] Creating Layer inception_5a/5x5
I0403 16:39:10.950845 19028 net.cpp:425] inception_5a/5x5 <- inception_5a/5x5_reduce
I0403 16:39:10.950865 19028 net.cpp:399] inception_5a/5x5 -> inception_5a/5x5
I0403 16:39:10.952502 19028 net.cpp:141] Setting up inception_5a/5x5
I0403 16:39:10.952539 19028 net.cpp:148] Top shape: 24 128 7 7 (150528)
I0403 16:39:10.952556 19028 net.cpp:156] Memory required for data: 1299953184
I0403 16:39:10.952575 19028 layer_factory.hpp:77] Creating layer inception_5a/relu_5x5
I0403 16:39:10.952595 19028 net.cpp:91] Creating Layer inception_5a/relu_5x5
I0403 16:39:10.952617 19028 net.cpp:425] inception_5a/relu_5x5 <- inception_5a/5x5
I0403 16:39:10.952636 19028 net.cpp:386] inception_5a/relu_5x5 -> inception_5a/5x5 (in-place)
I0403 16:39:10.952818 19028 net.cpp:141] Setting up inception_5a/relu_5x5
I0403 16:39:10.952844 19028 net.cpp:148] Top shape: 24 128 7 7 (150528)
I0403 16:39:10.952859 19028 net.cpp:156] Memory required for data: 1300555296
I0403 16:39:10.952874 19028 layer_factory.hpp:77] Creating layer inception_5a/pool
I0403 16:39:10.952891 19028 net.cpp:91] Creating Layer inception_5a/pool
I0403 16:39:10.952906 19028 net.cpp:425] inception_5a/pool <- pool4/3x3_s2_pool4/3x3_s2_0_split_3
I0403 16:39:10.952924 19028 net.cpp:399] inception_5a/pool -> inception_5a/pool
I0403 16:39:10.952992 19028 net.cpp:141] Setting up inception_5a/pool
I0403 16:39:10.953017 19028 net.cpp:148] Top shape: 24 832 7 7 (978432)
I0403 16:39:10.953032 19028 net.cpp:156] Memory required for data: 1304469024
I0403 16:39:10.953047 19028 layer_factory.hpp:77] Creating layer inception_5a/pool_proj
I0403 16:39:10.953068 19028 net.cpp:91] Creating Layer inception_5a/pool_proj
I0403 16:39:10.953085 19028 net.cpp:425] inception_5a/pool_proj <- inception_5a/pool
I0403 16:39:10.953106 19028 net.cpp:399] inception_5a/pool_proj -> inception_5a/pool_proj
I0403 16:39:10.955343 19028 net.cpp:141] Setting up inception_5a/pool_proj
I0403 16:39:10.955371 19028 net.cpp:148] Top shape: 24 128 7 7 (150528)
I0403 16:39:10.955389 19028 net.cpp:156] Memory required for data: 1305071136
I0403 16:39:10.955405 19028 layer_factory.hpp:77] Creating layer inception_5a/relu_pool_proj
I0403 16:39:10.955425 19028 net.cpp:91] Creating Layer inception_5a/relu_pool_proj
I0403 16:39:10.955442 19028 net.cpp:425] inception_5a/relu_pool_proj <- inception_5a/pool_proj
I0403 16:39:10.955461 19028 net.cpp:386] inception_5a/relu_pool_proj -> inception_5a/pool_proj (in-place)
I0403 16:39:10.955772 19028 net.cpp:141] Setting up inception_5a/relu_pool_proj
I0403 16:39:10.955811 19028 net.cpp:148] Top shape: 24 128 7 7 (150528)
I0403 16:39:10.955826 19028 net.cpp:156] Memory required for data: 1305673248
I0403 16:39:10.955838 19028 layer_factory.hpp:77] Creating layer inception_5a/output
I0403 16:39:10.955855 19028 net.cpp:91] Creating Layer inception_5a/output
I0403 16:39:10.955873 19028 net.cpp:425] inception_5a/output <- inception_5a/1x1
I0403 16:39:10.955889 19028 net.cpp:425] inception_5a/output <- inception_5a/3x3
I0403 16:39:10.955904 19028 net.cpp:425] inception_5a/output <- inception_5a/5x5
I0403 16:39:10.955919 19028 net.cpp:425] inception_5a/output <- inception_5a/pool_proj
I0403 16:39:10.955938 19028 net.cpp:399] inception_5a/output -> inception_5a/output
I0403 16:39:10.955987 19028 net.cpp:141] Setting up inception_5a/output
I0403 16:39:10.956013 19028 net.cpp:148] Top shape: 24 832 7 7 (978432)
I0403 16:39:10.956029 19028 net.cpp:156] Memory required for data: 1309586976
I0403 16:39:10.956043 19028 layer_factory.hpp:77] Creating layer inception_5a/output_inception_5a/output_0_split
I0403 16:39:10.956060 19028 net.cpp:91] Creating Layer inception_5a/output_inception_5a/output_0_split
I0403 16:39:10.956074 19028 net.cpp:425] inception_5a/output_inception_5a/output_0_split <- inception_5a/output
I0403 16:39:10.956095 19028 net.cpp:399] inception_5a/output_inception_5a/output_0_split -> inception_5a/output_inception_5a/output_0_split_0
I0403 16:39:10.956116 19028 net.cpp:399] inception_5a/output_inception_5a/output_0_split -> inception_5a/output_inception_5a/output_0_split_1
I0403 16:39:10.956138 19028 net.cpp:399] inception_5a/output_inception_5a/output_0_split -> inception_5a/output_inception_5a/output_0_split_2
I0403 16:39:10.956158 19028 net.cpp:399] inception_5a/output_inception_5a/output_0_split -> inception_5a/output_inception_5a/output_0_split_3
I0403 16:39:10.956265 19028 net.cpp:141] Setting up inception_5a/output_inception_5a/output_0_split
I0403 16:39:10.956290 19028 net.cpp:148] Top shape: 24 832 7 7 (978432)
I0403 16:39:10.956305 19028 net.cpp:148] Top shape: 24 832 7 7 (978432)
I0403 16:39:10.956321 19028 net.cpp:148] Top shape: 24 832 7 7 (978432)
I0403 16:39:10.956336 19028 net.cpp:148] Top shape: 24 832 7 7 (978432)
I0403 16:39:10.956349 19028 net.cpp:156] Memory required for data: 1325241888
I0403 16:39:10.956363 19028 layer_factory.hpp:77] Creating layer inception_5b/1x1
I0403 16:39:10.956385 19028 net.cpp:91] Creating Layer inception_5b/1x1
I0403 16:39:10.956403 19028 net.cpp:425] inception_5b/1x1 <- inception_5a/output_inception_5a/output_0_split_0
I0403 16:39:10.956423 19028 net.cpp:399] inception_5b/1x1 -> inception_5b/1x1
I0403 16:39:10.960193 19028 net.cpp:141] Setting up inception_5b/1x1
I0403 16:39:10.960223 19028 net.cpp:148] Top shape: 24 384 7 7 (451584)
I0403 16:39:10.960240 19028 net.cpp:156] Memory required for data: 1327048224
I0403 16:39:10.960259 19028 layer_factory.hpp:77] Creating layer inception_5b/relu_1x1
I0403 16:39:10.960278 19028 net.cpp:91] Creating Layer inception_5b/relu_1x1
I0403 16:39:10.960294 19028 net.cpp:425] inception_5b/relu_1x1 <- inception_5b/1x1
I0403 16:39:10.960314 19028 net.cpp:386] inception_5b/relu_1x1 -> inception_5b/1x1 (in-place)
I0403 16:39:10.960623 19028 net.cpp:141] Setting up inception_5b/relu_1x1
I0403 16:39:10.960649 19028 net.cpp:148] Top shape: 24 384 7 7 (451584)
I0403 16:39:10.960664 19028 net.cpp:156] Memory required for data: 1328854560
I0403 16:39:10.960678 19028 layer_factory.hpp:77] Creating layer inception_5b/3x3_reduce
I0403 16:39:10.960700 19028 net.cpp:91] Creating Layer inception_5b/3x3_reduce
I0403 16:39:10.960719 19028 net.cpp:425] inception_5b/3x3_reduce <- inception_5a/output_inception_5a/output_0_split_1
I0403 16:39:10.960742 19028 net.cpp:399] inception_5b/3x3_reduce -> inception_5b/3x3_reduce
I0403 16:39:10.963399 19028 net.cpp:141] Setting up inception_5b/3x3_reduce
I0403 16:39:10.963428 19028 net.cpp:148] Top shape: 24 192 7 7 (225792)
I0403 16:39:10.963445 19028 net.cpp:156] Memory required for data: 1329757728
I0403 16:39:10.963464 19028 layer_factory.hpp:77] Creating layer inception_5b/relu_3x3_reduce
I0403 16:39:10.963484 19028 net.cpp:91] Creating Layer inception_5b/relu_3x3_reduce
I0403 16:39:10.963503 19028 net.cpp:425] inception_5b/relu_3x3_reduce <- inception_5b/3x3_reduce
I0403 16:39:10.963522 19028 net.cpp:386] inception_5b/relu_3x3_reduce -> inception_5b/3x3_reduce (in-place)
I0403 16:39:10.963714 19028 net.cpp:141] Setting up inception_5b/relu_3x3_reduce
I0403 16:39:10.963740 19028 net.cpp:148] Top shape: 24 192 7 7 (225792)
I0403 16:39:10.963755 19028 net.cpp:156] Memory required for data: 1330660896
I0403 16:39:10.963770 19028 layer_factory.hpp:77] Creating layer inception_5b/3x3
I0403 16:39:10.963805 19028 net.cpp:91] Creating Layer inception_5b/3x3
I0403 16:39:10.963824 19028 net.cpp:425] inception_5b/3x3 <- inception_5b/3x3_reduce
I0403 16:39:10.963847 19028 net.cpp:399] inception_5b/3x3 -> inception_5b/3x3
I0403 16:39:10.970453 19028 net.cpp:141] Setting up inception_5b/3x3
I0403 16:39:10.970481 19028 net.cpp:148] Top shape: 24 384 7 7 (451584)
I0403 16:39:10.970499 19028 net.cpp:156] Memory required for data: 1332467232
I0403 16:39:10.970516 19028 layer_factory.hpp:77] Creating layer inception_5b/relu_3x3
I0403 16:39:10.970537 19028 net.cpp:91] Creating Layer inception_5b/relu_3x3
I0403 16:39:10.970556 19028 net.cpp:425] inception_5b/relu_3x3 <- inception_5b/3x3
I0403 16:39:10.970573 19028 net.cpp:386] inception_5b/relu_3x3 -> inception_5b/3x3 (in-place)
I0403 16:39:10.970873 19028 net.cpp:141] Setting up inception_5b/relu_3x3
I0403 16:39:10.970899 19028 net.cpp:148] Top shape: 24 384 7 7 (451584)
I0403 16:39:10.970914 19028 net.cpp:156] Memory required for data: 1334273568
I0403 16:39:10.970929 19028 layer_factory.hpp:77] Creating layer inception_5b/5x5_reduce
I0403 16:39:10.970966 19028 net.cpp:91] Creating Layer inception_5b/5x5_reduce
I0403 16:39:10.970985 19028 net.cpp:425] inception_5b/5x5_reduce <- inception_5a/output_inception_5a/output_0_split_2
I0403 16:39:10.971009 19028 net.cpp:399] inception_5b/5x5_reduce -> inception_5b/5x5_reduce
I0403 16:39:10.972268 19028 net.cpp:141] Setting up inception_5b/5x5_reduce
I0403 16:39:10.972296 19028 net.cpp:148] Top shape: 24 48 7 7 (56448)
I0403 16:39:10.972313 19028 net.cpp:156] Memory required for data: 1334499360
I0403 16:39:10.972332 19028 layer_factory.hpp:77] Creating layer inception_5b/relu_5x5_reduce
I0403 16:39:10.972349 19028 net.cpp:91] Creating Layer inception_5b/relu_5x5_reduce
I0403 16:39:10.972367 19028 net.cpp:425] inception_5b/relu_5x5_reduce <- inception_5b/5x5_reduce
I0403 16:39:10.972386 19028 net.cpp:386] inception_5b/relu_5x5_reduce -> inception_5b/5x5_reduce (in-place)
I0403 16:39:10.972782 19028 net.cpp:141] Setting up inception_5b/relu_5x5_reduce
I0403 16:39:10.972810 19028 net.cpp:148] Top shape: 24 48 7 7 (56448)
I0403 16:39:10.972827 19028 net.cpp:156] Memory required for data: 1334725152
I0403 16:39:10.972843 19028 layer_factory.hpp:77] Creating layer inception_5b/5x5
I0403 16:39:10.972863 19028 net.cpp:91] Creating Layer inception_5b/5x5
I0403 16:39:10.972880 19028 net.cpp:425] inception_5b/5x5 <- inception_5b/5x5_reduce
I0403 16:39:10.972913 19028 net.cpp:399] inception_5b/5x5 -> inception_5b/5x5
I0403 16:39:10.974967 19028 net.cpp:141] Setting up inception_5b/5x5
I0403 16:39:10.974995 19028 net.cpp:148] Top shape: 24 128 7 7 (150528)
I0403 16:39:10.975011 19028 net.cpp:156] Memory required for data: 1335327264
I0403 16:39:10.975030 19028 layer_factory.hpp:77] Creating layer inception_5b/relu_5x5
I0403 16:39:10.975049 19028 net.cpp:91] Creating Layer inception_5b/relu_5x5
I0403 16:39:10.975066 19028 net.cpp:425] inception_5b/relu_5x5 <- inception_5b/5x5
I0403 16:39:10.975095 19028 net.cpp:386] inception_5b/relu_5x5 -> inception_5b/5x5 (in-place)
I0403 16:39:10.975283 19028 net.cpp:141] Setting up inception_5b/relu_5x5
I0403 16:39:10.975311 19028 net.cpp:148] Top shape: 24 128 7 7 (150528)
I0403 16:39:10.975325 19028 net.cpp:156] Memory required for data: 1335929376
I0403 16:39:10.975340 19028 layer_factory.hpp:77] Creating layer inception_5b/pool
I0403 16:39:10.975358 19028 net.cpp:91] Creating Layer inception_5b/pool
I0403 16:39:10.975373 19028 net.cpp:425] inception_5b/pool <- inception_5a/output_inception_5a/output_0_split_3
I0403 16:39:10.975394 19028 net.cpp:399] inception_5b/pool -> inception_5b/pool
I0403 16:39:10.975464 19028 net.cpp:141] Setting up inception_5b/pool
I0403 16:39:10.975488 19028 net.cpp:148] Top shape: 24 832 7 7 (978432)
I0403 16:39:10.975502 19028 net.cpp:156] Memory required for data: 1339843104
I0403 16:39:10.975517 19028 layer_factory.hpp:77] Creating layer inception_5b/pool_proj
I0403 16:39:10.975538 19028 net.cpp:91] Creating Layer inception_5b/pool_proj
I0403 16:39:10.975556 19028 net.cpp:425] inception_5b/pool_proj <- inception_5b/pool
I0403 16:39:10.975577 19028 net.cpp:399] inception_5b/pool_proj -> inception_5b/pool_proj
I0403 16:39:10.977795 19028 net.cpp:141] Setting up inception_5b/pool_proj
I0403 16:39:10.977825 19028 net.cpp:148] Top shape: 24 128 7 7 (150528)
I0403 16:39:10.977843 19028 net.cpp:156] Memory required for data: 1340445216
I0403 16:39:10.977860 19028 layer_factory.hpp:77] Creating layer inception_5b/relu_pool_proj
I0403 16:39:10.977879 19028 net.cpp:91] Creating Layer inception_5b/relu_pool_proj
I0403 16:39:10.977907 19028 net.cpp:425] inception_5b/relu_pool_proj <- inception_5b/pool_proj
I0403 16:39:10.977927 19028 net.cpp:386] inception_5b/relu_pool_proj -> inception_5b/pool_proj (in-place)
I0403 16:39:10.978214 19028 net.cpp:141] Setting up inception_5b/relu_pool_proj
I0403 16:39:10.978240 19028 net.cpp:148] Top shape: 24 128 7 7 (150528)
I0403 16:39:10.978255 19028 net.cpp:156] Memory required for data: 1341047328
I0403 16:39:10.978269 19028 layer_factory.hpp:77] Creating layer inception_5b/output
I0403 16:39:10.978287 19028 net.cpp:91] Creating Layer inception_5b/output
I0403 16:39:10.978317 19028 net.cpp:425] inception_5b/output <- inception_5b/1x1
I0403 16:39:10.978334 19028 net.cpp:425] inception_5b/output <- inception_5b/3x3
I0403 16:39:10.978351 19028 net.cpp:425] inception_5b/output <- inception_5b/5x5
I0403 16:39:10.978368 19028 net.cpp:425] inception_5b/output <- inception_5b/pool_proj
I0403 16:39:10.978386 19028 net.cpp:399] inception_5b/output -> inception_5b/output
I0403 16:39:10.978437 19028 net.cpp:141] Setting up inception_5b/output
I0403 16:39:10.978463 19028 net.cpp:148] Top shape: 24 1024 7 7 (1204224)
I0403 16:39:10.978479 19028 net.cpp:156] Memory required for data: 1345864224
I0403 16:39:10.978493 19028 layer_factory.hpp:77] Creating layer pool5/7x7_s1
I0403 16:39:10.978510 19028 net.cpp:91] Creating Layer pool5/7x7_s1
I0403 16:39:10.978528 19028 net.cpp:425] pool5/7x7_s1 <- inception_5b/output
I0403 16:39:10.978548 19028 net.cpp:399] pool5/7x7_s1 -> pool5/7x7_s1
I0403 16:39:10.978762 19028 net.cpp:141] Setting up pool5/7x7_s1
I0403 16:39:10.978787 19028 net.cpp:148] Top shape: 24 1024 1 1 (24576)
I0403 16:39:10.978803 19028 net.cpp:156] Memory required for data: 1345962528
I0403 16:39:10.978817 19028 layer_factory.hpp:77] Creating layer pool5/drop_7x7_s1
I0403 16:39:10.978835 19028 net.cpp:91] Creating Layer pool5/drop_7x7_s1
I0403 16:39:10.978850 19028 net.cpp:425] pool5/drop_7x7_s1 <- pool5/7x7_s1
I0403 16:39:10.978870 19028 net.cpp:386] pool5/drop_7x7_s1 -> pool5/7x7_s1 (in-place)
I0403 16:39:10.978921 19028 net.cpp:141] Setting up pool5/drop_7x7_s1
I0403 16:39:10.978945 19028 net.cpp:148] Top shape: 24 1024 1 1 (24576)
I0403 16:39:10.978960 19028 net.cpp:156] Memory required for data: 1346060832
I0403 16:39:10.978973 19028 layer_factory.hpp:77] Creating layer loss3/classifier_plantvillage
I0403 16:39:10.978992 19028 net.cpp:91] Creating Layer loss3/classifier_plantvillage
I0403 16:39:10.979009 19028 net.cpp:425] loss3/classifier_plantvillage <- pool5/7x7_s1
I0403 16:39:10.979029 19028 net.cpp:399] loss3/classifier_plantvillage -> loss3/classifier_plantvillage
I0403 16:39:10.979435 19028 net.cpp:141] Setting up loss3/classifier_plantvillage
I0403 16:39:10.979460 19028 net.cpp:148] Top shape: 24 38 (912)
I0403 16:39:10.979475 19028 net.cpp:156] Memory required for data: 1346064480
I0403 16:39:10.979491 19028 layer_factory.hpp:77] Creating layer loss3/classifier_plantvillage_loss3/classifier_plantvillage_0_split
I0403 16:39:10.979513 19028 net.cpp:91] Creating Layer loss3/classifier_plantvillage_loss3/classifier_plantvillage_0_split
I0403 16:39:10.979531 19028 net.cpp:425] loss3/classifier_plantvillage_loss3/classifier_plantvillage_0_split <- loss3/classifier_plantvillage
I0403 16:39:10.979552 19028 net.cpp:399] loss3/classifier_plantvillage_loss3/classifier_plantvillage_0_split -> loss3/classifier_plantvillage_loss3/classifier_plantvillage_0_split_0
I0403 16:39:10.979573 19028 net.cpp:399] loss3/classifier_plantvillage_loss3/classifier_plantvillage_0_split -> loss3/classifier_plantvillage_loss3/classifier_plantvillage_0_split_1
I0403 16:39:10.979593 19028 net.cpp:399] loss3/classifier_plantvillage_loss3/classifier_plantvillage_0_split -> loss3/classifier_plantvillage_loss3/classifier_plantvillage_0_split_2
I0403 16:39:10.979619 19028 net.cpp:399] loss3/classifier_plantvillage_loss3/classifier_plantvillage_0_split -> loss3/classifier_plantvillage_loss3/classifier_plantvillage_0_split_3
I0403 16:39:10.979717 19028 net.cpp:141] Setting up loss3/classifier_plantvillage_loss3/classifier_plantvillage_0_split
I0403 16:39:10.979740 19028 net.cpp:148] Top shape: 24 38 (912)
I0403 16:39:10.979756 19028 net.cpp:148] Top shape: 24 38 (912)
I0403 16:39:10.979771 19028 net.cpp:148] Top shape: 24 38 (912)
I0403 16:39:10.979786 19028 net.cpp:148] Top shape: 24 38 (912)
I0403 16:39:10.979799 19028 net.cpp:156] Memory required for data: 1346079072
I0403 16:39:10.979815 19028 layer_factory.hpp:77] Creating layer loss1/loss
I0403 16:39:10.979835 19028 net.cpp:91] Creating Layer loss1/loss
I0403 16:39:10.979851 19028 net.cpp:425] loss1/loss <- loss1/classifier_plantvillage_loss1/classifier_plantvillage_0_split_0
I0403 16:39:10.979882 19028 net.cpp:425] loss1/loss <- label_data_1_split_0
…
