…
I0403 15:55:42.494186 16495 net.cpp:313] The NetState phase (1) differed from the phase (0) specified by a rule in layer data
I0403 15:55:42.495388 16495 net.cpp:49] Initializing net from parameters: 
state {
  phase: TEST
}
layer {
  name: "data"
  type: "Data"
  top: "data"
  top: "label"
  include {
    phase: TEST
  }
  transform_param {
    mirror: false
    crop_size: 224
    mean_file: "/home/mohanty/data/final_dataset/lmdb/color-20-80/mean.binaryproto"
  }
  data_param {
    source: "/home/mohanty/data/final_dataset/lmdb/color-20-80/test_db"
    batch_size: 24
    backend: LMDB
  }
}
layer {
  name: "conv1/7x7_s2"
  type: "Convolution"
  bottom: "data"
  top: "conv1/7x7_s2"
  param {
    lr_mult: 1
    decay_mult: 1
  }
  param {
    lr_mult: 2
    decay_mult: 0
  }
  convolution_param {
    num_output: 64
    pad: 3
    kernel_size: 7
    stride: 2
    weight_filler {
      type: "xavier"
      std: 0.1
    }
    bias_filler {
      type: "constant"
      value: 0.2
    }
  }
}
layer {
  name: "conv1/relu_7x7"
  type: "ReLU"
  bottom: "conv1/7x7_s2"
  top: "conv1/7x7_s2"
}
layer {
  name: "pool1/3x3_s2"
  type: "Pooling"
  bottom: "conv1/7x7_s2"
  top: "pool1/3x3_s2"
  pooling_param {
    pool: MAX
    kernel_size: 3
    stride: 2
  }
}
layer {
  name: "pool1/norm1"
  type: "LRN"
  bottom: "pool1/3x3_s2"
  top: "pool1/norm1"
  lrn_param {
    local_size: 5
    alpha: 0.0001
    beta: 0.75
  }
}
layer {
  name: "conv2/3x3_reduce"
  type: "Convolution"
  bottom: "pool1/norm1"
  top: "conv2/3x3_reduce"
  param {
    lr_mult: 1
    decay_mult: 1
  }
  param {
    lr_mult: 2
    decay_mult: 0
  }
  convolution_param {
    num_output: 64
    kernel_size: 1
    weight_filler {
      type: "xavier"
      std: 0.1
    }
    bias_filler {
      type: "constant"
      value: 0.2
    }
  }
}
layer {
  name: "conv2/relu_3x3_reduce"
  type: "ReLU"
  bottom: "conv2/3x3_reduce"
  top: "conv2/3x3_reduce"
}
layer {
  name: "conv2/3x3"
  type: "Convolution"
  bottom: "conv2/3x3_reduce"
  top: "conv2/3x3"
  param {
    lr_mult: 1
    decay_mult: 1
  }
  param {
    lr_mult: 2
    decay_mult: 0
  }
  convolution_param {
    num_output: 192
    pad: 1
    kernel_size: 3
    weight_filler {
      type: "xavier"
      std: 0.03
    }
    bias_filler {
      type: "constant"
      value: 0.2
    }
  }
}
layer {
  name: "conv2/relu_3x3"
  type: "ReLU"
  bottom: "conv2/3x3"
  top: "conv2/3x3"
}
layer {
  name: "conv2/norm2"
  type: "LRN"
  bottom: "conv2/3x3"
  top: "conv2/norm2"
  lrn_param {
    local_size: 5
    alpha: 0.0001
    beta: 0.75
  }
}
layer {
  name: "pool2/3x3_s2"
  type: "Pooling"
  bottom: "conv2/norm2"
  top: "pool2/3x3_s2"
  pooling_param {
    pool: MAX
    kernel_size: 3
    stride: 2
  }
}
layer {
  name: "inception_3a/1x1"
  type: "Convolution"
  bottom: "pool2/3x3_s2"
  top: "inception_3a/1x1"
  param {
    lr_mult: 1
    decay_mult: 1
  }
  param {
    lr_mult: 2
    decay_mult: 0
  }
  convolution_param {
    num_output: 64
    kernel_size: 1
    weight_filler {
      type: "xavier"
      std: 0.03
    }
    bias_filler {
      type: "constant"
      value: 0.2
    }
  }
}
layer {
  name: "inception_3a/relu_1x1"
  type: "ReLU"
  bottom: "inception_3a/1x1"
  top: "inception_3a/1x1"
}
layer {
  name: "inception_3a/3x3_reduce"
  type: "Convolution"
  bottom: "pool2/3x3_s2"
  top: "inception_3a/3x3_reduce"
  param {
    lr_mult: 1
    decay_mult: 1
  }
  param {
    lr_mult: 2
    decay_mult: 0
  }
  convolution_param {
    num_output: 96
    kernel_size: 1
    weight_filler {
      type: "xavier"
      std: 0.09
    }
    bias_filler {
      type: "constant"
      value: 0.2
    }
  }
}
layer {
  name: "inception_3a/relu_3x3_reduce"
  type: "ReLU"
  bottom: "inception_3a/3x3_reduce"
  top: "inception_3a/3x3_reduce"
}
layer {
  name: "inception_3a/3x3"
  type: "Convolution"
  bottom: "inception_3a/3x3_reduce"
  top: "inception_3a/3x3"
  param {
    lr_mult: 1
    decay_mult: 1
  }
  param {
    lr_mult: 2
    decay_mult: 0
  }
  convolution_param {
    num_output: 128
    pad: 1
    kernel_size: 3
    weight_filler {
      type: "xavier"
      std: 0.03
    }
    bias_filler {
      type: "constant"
      value: 0.2
    }
  }
}
layer {
  name: "inception_3a/relu_3x3"
  type: "ReLU"
  bottom: "inception_3a/3x3"
  top: "inception_3a/3x3"
}
layer {
  name: "inception_3a/5x5_reduce"
  type: "Convolution"
  bottom: "pool2/3x3_s2"
  top: "inception_3a/5x5_reduce"
  param {
    lr_mult: 1
    decay_mult: 1
  }
  param {
    lr_mult: 2
    decay_mult: 0
  }
  convolution_param {
    num_output: 16
    kernel_size: 1
    weight_filler {
      type: "xavier"
      std: 0.2
    }
    bias_filler {
      type: "constant"
      value: 0.2
    }
  }
}
layer {
  name: "inception_3a/relu_5x5_reduce"
  type: "ReLU"
  bottom: "inception_3a/5x5_reduce"
  top: "inception_3a/5x5_reduce"
}
layer {
  name: "inception_3a/5x5"
  type: "Convolution"
  bottom: "inception_3a/5x5_reduce"
  top: "inception_3a/5x5"
  param {
    lr_mult: 1
    decay_mult: 1
  }
  param {
    lr_mult: 2
    decay_mult: 0
  }
  convolution_param {
    num_output: 32
    pad: 2
    kernel_size: 5
    weight_filler {
      type: "xavier"
      std: 0.03
    }
    bias_filler {
      type: "constant"
      value: 0.2
    }
  }
}
layer {
  name: "inception_3a/relu_5x5"
  type: "ReLU"
  bottom: "inception_3a/5x5"
  top: "inception_3a/5x5"
}
layer {
  name: "inception_3a/pool"
  type: "Pooling"
  bottom: "pool2/3x3_s2"
  top: "inception_3a/pool"
  pooling_param {
    pool: MAX
    kernel_size: 3
    stride: 1
    pad: 1
  }
}
layer {
  name: "inception_3a/pool_proj"
  type: "Convolution"
  bottom: "inception_3a/pool"
  top: "inception_3a/pool_proj"
  param {
    lr_mult: 1
    decay_mult: 1
  }
  param {
    lr_mult: 2
    decay_mult: 0
  }
  convolution_param {
    num_output: 32
    kernel_size: 1
    weight_filler {
      type: "xavier"
      std: 0.1
    }
    bias_filler {
      type: "constant"
      value: 0.2
    }
  }
}
layer {
  name: "inception_3a/relu_pool_proj"
  type: "ReLU"
  bottom: "inception_3a/pool_proj"
  top: "inception_3a/pool_proj"
}
layer {
  name: "inception_3a/output"
  type: "Concat"
  bottom: "inception_3a/1x1"
  bottom: "inception_3a/3x3"
  bottom: "inception_3a/5x5"
  bottom: "inception_3a/pool_proj"
  top: "inception_3a/output"
}
layer {
  name: "inception_3b/1x1"
  type: "Convolution"
  bottom: "inception_3a/output"
  top: "inception_3b/1x1"
  param {
    lr_mult: 1
    decay_mult: 1
  }
  param {
    lr_mult: 2
    decay_mult: 0
  }
  convolution_param {
    num_output: 128
    kernel_size: 1
    weight_filler {
      type: "xavier"
      std: 0.03
    }
    bias_filler {
      type: "constant"
      value: 0.2
    }
  }
}
layer {
  name: "inception_3b/relu_1x1"
  type: "ReLU"
  bottom: "inception_3b/1x1"
  top: "inception_3b/1x1"
}
layer {
  name: "inception_3b/3x3_reduce"
  type: "Convolution"
  bottom: "inception_3a/output"
  top: "inception_3b/3x3_reduce"
  param {
    lr_mult: 1
    decay_mult: 1
  }
  param {
    lr_mult: 2
    decay_mult: 0
  }
  convolution_param {
    num_output: 128
    kernel_size: 1
    weight_filler {
      type: "xavier"
      std: 0.09
    }
    bias_filler {
      type: "constant"
      value: 0.2
    }
  }
}
layer {
  name: "inception_3b/relu_3x3_reduce"
  type: "ReLU"
  bottom: "inception_3b/3x3_reduce"
  top: "inception_3b/3x3_reduce"
}
layer {
  name: "inception_3b/3x3"
  type: "Convolution"
  bottom: "inception_3b/3x3_reduce"
  top: "inception_3b/3x3"
  param {
    lr_mult: 1
    decay_mult: 1
  }
  param {
    lr_mult: 2
    decay_mult: 0
  }
  convolution_param {
    num_output: 192
    pad: 1
    kernel_size: 3
    weight_filler {
      type: "xavier"
      std: 0.03
    }
    bias_filler {
      type: "constant"
      value: 0.2
    }
  }
}
layer {
  name: "inception_3b/relu_3x3"
  type: "ReLU"
  bottom: "inception_3b/3x3"
  top: "inception_3b/3x3"
}
layer {
  name: "inception_3b/5x5_reduce"
  type: "Convolution"
  bottom: "inception_3a/output"
  top: "inception_3b/5x5_reduce"
  param {
    lr_mult: 1
    decay_mult: 1
  }
  param {
    lr_mult: 2
    decay_mult: 0
  }
  convolution_param {
    num_output: 32
    kernel_size: 1
    weight_filler {
      type: "xavier"
      std: 0.2
    }
    bias_filler {
      type: "constant"
      value: 0.2
    }
  }
}
layer {
  name: "inception_3b/relu_5x5_reduce"
  type: "ReLU"
  bottom: "inception_3b/5x5_reduce"
  top: "inception_3b/5x5_reduce"
}
layer {
  name: "inception_3b/5x5"
  type: "Convolution"
  bottom: "inception_3b/5x5_reduce"
  top: "inception_3b/5x5"
  param {
    lr_mult: 1
    decay_mult: 1
  }
  param {
    lr_mult: 2
    decay_mult: 0
  }
  convolution_param {
    num_output: 96
    pad: 2
    kernel_size: 5
    weight_filler {
      type: "xavier"
      std: 0.03
    }
    bias_filler {
      type: "constant"
      value: 0.2
    }
  }
}
layer {
  name: "inception_3b/relu_5x5"
  type: "ReLU"
  bottom: "inception_3b/5x5"
  top: "inception_3b/5x5"
}
layer {
  name: "inception_3b/pool"
  type: "Pooling"
  bottom: "inception_3a/output"
  top: "inception_3b/pool"
  pooling_param {
    pool: MAX
    kernel_size: 3
    stride: 1
    pad: 1
  }
}
layer {
  name: "inception_3b/pool_proj"
  type: "Convolution"
  bottom: "inception_3b/pool"
  top: "inception_3b/pool_proj"
  param {
    lr_mult: 1
    decay_mult: 1
  }
  param {
    lr_mult: 2
    decay_mult: 0
  }
  convolution_param {
    num_output: 64
    kernel_size: 1
    weight_filler {
      type: "xavier"
      std: 0.1
    }
    bias_filler {
      type: "constant"
      value: 0.2
    }
  }
}
layer {
  name: "inception_3b/relu_pool_proj"
  type: "ReLU"
  bottom: "inception_3b/pool_proj"
  top: "inception_3b/pool_proj"
}
layer {
  name: "inception_3b/output"
  type: "Concat"
  bottom: "inception_3b/1x1"
  bottom: "inception_3b/3x3"
  bottom: "inception_3b/5x5"
  bottom: "inception_3b/pool_proj"
  top: "inception_3b/output"
}
layer {
  name: "pool3/3x3_s2"
  type: "Pooling"
  bottom: "inception_3b/output"
  top: "pool3/3x3_s2"
  pooling_param {
    pool: MAX
    kernel_size: 3
    stride: 2
  }
}
layer {
  name: "inception_4a/1x1"
  type: "Convolution"
  bottom: "pool3/3x3_s2"
  top: "inception_4a/1x1"
  param {
    lr_mult: 1
    decay_mult: 1
  }
  param {
    lr_mult: 2
    decay_mult: 0
  }
  convolution_param {
    num_output: 192
    kernel_size: 1
    weight_filler {
      type: "xavier"
      std: 0.03
    }
    bias_filler {
      type: "constant"
      value: 0.2
    }
  }
}
layer {
  name: "inception_4a/relu_1x1"
  type: "ReLU"
  bottom: "inception_4a/1x1"
  top: "inception_4a/1x1"
}
layer {
  name: "inception_4a/3x3_reduce"
  type: "Convolution"
  bottom: "pool3/3x3_s2"
  top: "inception_4a/3x3_reduce"
  param {
    lr_mult: 1
    decay_mult: 1
  }
  param {
    lr_mult: 2
    decay_mult: 0
  }
  convolution_param {
    num_output: 96
    kernel_size: 1
    weight_filler {
      type: "xavier"
      std: 0.09
    }
    bias_filler {
      type: "constant"
      value: 0.2
    }
  }
}
layer {
  name: "inception_4a/relu_3x3_reduce"
  type: "ReLU"
  bottom: "inception_4a/3x3_reduce"
  top: "inception_4a/3x3_reduce"
}
layer {
  name: "inception_4a/3x3"
  type: "Convolution"
  bottom: "inception_4a/3x3_reduce"
  top: "inception_4a/3x3"
  param {
    lr_mult: 1
    decay_mult: 1
  }
  param {
    lr_mult: 2
    decay_mult: 0
  }
  convolution_param {
    num_output: 208
    pad: 1
    kernel_size: 3
    weight_filler {
      type: "xavier"
      std: 0.03
    }
    bias_filler {
      type: "constant"
      value: 0.2
    }
  }
}
layer {
  name: "inception_4a/relu_3x3"
  type: "ReLU"
  bottom: "inception_4a/3x3"
  top: "inception_4a/3x3"
}
layer {
  name: "inception_4a/5x5_reduce"
  type: "Convolution"
  bottom: "pool3/3x3_s2"
  top: "inception_4a/5x5_reduce"
  param {
    lr_mult: 1
    decay_mult: 1
  }
  param {
    lr_mult: 2
    decay_mult: 0
  }
  convolution_param {
    num_output: 16
    kernel_size: 1
    weight_filler {
      type: "xavier"
      std: 0.2
    }
    bias_filler {
      type: "constant"
      value: 0.2
    }
  }
}
layer {
  name: "inception_4a/relu_5x5_reduce"
  type: "ReLU"
  bottom: "inception_4a/5x5_reduce"
  top: "inception_4a/5x5_reduce"
}
layer {
  name: "inception_4a/5x5"
  type: "Convolution"
  bottom: "inception_4a/5x5_reduce"
  top: "inception_4a/5x5"
  param {
    lr_mult: 1
    decay_mult: 1
  }
  param {
    lr_mult: 2
    decay_mult: 0
  }
  convolution_param {
    num_output: 48
    pad: 2
    kernel_size: 5
    weight_filler {
      type: "xavier"
      std: 0.03
    }
    bias_filler {
      type: "constant"
      value: 0.2
    }
  }
}
layer {
  name: "inception_4a/relu_5x5"
  type: "ReLU"
  bottom: "inception_4a/5x5"
  top: "inception_4a/5x5"
}
layer {
  name: "inception_4a/pool"
  type: "Pooling"
  bottom: "pool3/3x3_s2"
  top: "inception_4a/pool"
  pooling_param {
    pool: MAX
    kernel_size: 3
    stride: 1
    pad: 1
  }
}
layer {
  name: "inception_4a/pool_proj"
  type: "Convolution"
  bottom: "inception_4a/pool"
  top: "inception_4a/pool_proj"
  param {
    lr_mult: 1
    decay_mult: 1
  }
  param {
    lr_mult: 2
    decay_mult: 0
  }
  convolution_param {
    num_output: 64
    kernel_size: 1
    weight_filler {
      type: "xavier"
      std: 0.1
    }
    bias_filler {
      type: "constant"
      value: 0.2
    }
  }
}
layer {
  name: "inception_4a/relu_pool_proj"
  type: "ReLU"
  bottom: "inception_4a/pool_proj"
  top: "inception_4a/pool_proj"
}
layer {
  name: "inception_4a/output"
  type: "Concat"
  bottom: "inception_4a/1x1"
  bottom: "inception_4a/3x3"
  bottom: "inception_4a/5x5"
  bottom: "inception_4a/pool_proj"
  top: "inception_4a/output"
}
layer {
  name: "loss1/ave_pool"
  type: "Pooling"
  bottom: "inception_4a/output"
  top: "loss1/ave_pool"
  pooling_param {
    pool: AVE
    kernel_size: 5
    stride: 3
  }
}
layer {
  name: "loss1/conv"
  type: "Convolution"
  bottom: "loss1/ave_pool"
  top: "loss1/conv"
  param {
    lr_mult: 1
    decay_mult: 1
  }
  param {
    lr_mult: 2
    decay_mult: 0
  }
  convolution_param {
    num_output: 128
    kernel_size: 1
    weight_filler {
      type: "xavier"
      std: 0.08
    }
    bias_filler {
      type: "constant"
      value: 0.2
    }
  }
}
layer {
  name: "loss1/relu_conv"
  type: "ReLU"
  bottom: "loss1/conv"
  top: "loss1/conv"
}
layer {
  name: "loss1/fc"
  type: "InnerProduct"
  bottom: "loss1/conv"
  top: "loss1/fc"
  param {
    lr_mult: 1
    decay_mult: 1
  }
  param {
    lr_mult: 2
    decay_mult: 0
  }
  inner_product_param {
    num_output: 1024
    weight_filler {
      type: "xavier"
      std: 0.02
    }
    bias_filler {
      type: "constant"
      value: 0.2
    }
  }
}
layer {
  name: "loss1/relu_fc"
  type: "ReLU"
  bottom: "loss1/fc"
  top: "loss1/fc"
}
layer {
  name: "loss1/drop_fc"
  type: "Dropout"
  bottom: "loss1/fc"
  top: "loss1/fc"
  dropout_param {
    dropout_ratio: 0.7
  }
}
layer {
  name: "loss1/classifier_plantvillage"
  type: "InnerProduct"
  bottom: "loss1/fc"
  top: "loss1/classifier_plantvillage"
  param {
    lr_mult: 1
    decay_mult: 1
  }
  param {
    lr_mult: 2
    decay_mult: 0
  }
  inner_product_param {
    num_output: 38
    weight_filler {
      type: "xavier"
      std: 0.0009765625
    }
    bias_filler {
      type: "constant"
      value: 0
    }
  }
}
layer {
  name: "inception_4b/1x1"
  type: "Convolution"
  bottom: "inception_4a/output"
  top: "inception_4b/1x1"
  param {
    lr_mult: 1
    decay_mult: 1
  }
  param {
    lr_mult: 2
    decay_mult: 0
  }
  convolution_param {
    num_output: 160
    kernel_size: 1
    weight_filler {
      type: "xavier"
      std: 0.03
    }
    bias_filler {
      type: "constant"
      value: 0.2
    }
  }
}
layer {
  name: "inception_4b/relu_1x1"
  type: "ReLU"
  bottom: "inception_4b/1x1"
  top: "inception_4b/1x1"
}
layer {
  name: "inception_4b/3x3_reduce"
  type: "Convolution"
  bottom: "inception_4a/output"
  top: "inception_4b/3x3_reduce"
  param {
    lr_mult: 1
    decay_mult: 1
  }
  param {
    lr_mult: 2
    decay_mult: 0
  }
  convolution_param {
    num_output: 112
    kernel_size: 1
    weight_filler {
      type: "xavier"
      std: 0.09
    }
    bias_filler {
      type: "constant"
      value: 0.2
    }
  }
}
layer {
  name: "inception_4b/relu_3x3_reduce"
  type: "ReLU"
  bottom: "inception_4b/3x3_reduce"
  top: "inception_4b/3x3_reduce"
}
layer {
  name: "inception_4b/3x3"
  type: "Convolution"
  bottom: "inception_4b/3x3_reduce"
  top: "inception_4b/3x3"
  param {
    lr_mult: 1
    decay_mult: 1
  }
  param {
    lr_mult: 2
    decay_mult: 0
  }
  convolution_param {
    num_output: 224
    pad: 1
    kernel_size: 3
    weight_filler {
      type: "xavier"
      std: 0.03
    }
    bias_filler {
      type: "constant"
      value: 0.2
    }
  }
}
layer {
  name: "inception_4b/relu_3x3"
  type: "ReLU"
  bottom: "inception_4b/3x3"
  top: "inception_4b/3x3"
}
layer {
  name: "inception_4b/5x5_reduce"
  type: "Convolution"
  bottom: "inception_4a/output"
  top: "inception_4b/5x5_reduce"
  param {
    lr_mult: 1
    decay_mult: 1
  }
  param {
    lr_mult: 2
    decay_mult: 0
  }
  convolution_param {
    num_output: 24
    kernel_size: 1
    weight_filler {
      type: "xavier"
      std: 0.2
    }
    bias_filler {
      type: "constant"
      value: 0.2
    }
  }
}
layer {
  name: "inception_4b/relu_5x5_reduce"
  type: "ReLU"
  bottom: "inception_4b/5x5_reduce"
  top: "inception_4b/5x5_reduce"
}
layer {
  name: "inception_4b/5x5"
  type: "Convolution"
  bottom: "inception_4b/5x5_reduce"
  top: "inception_4b/5x5"
  param {
    lr_mult: 1
    decay_mult: 1
  }
  param {
    lr_mult: 2
    decay_mult: 0
  }
  convolution_param {
    num_output: 64
    pad: 2
    kernel_size: 5
    weight_filler {
      type: "xavier"
      std: 0.03
    }
    bias_filler {
      type: "constant"
      value: 0.2
    }
  }
}
layer {
  name: "inception_4b/relu_5x5"
  type: "ReLU"
  bottom: "inception_4b/5x5"
  top: "inception_4b/5x5"
}
layer {
  name: "inception_4b/pool"
  type: "Pooling"
  bottom: "inception_4a/output"
  top: "inception_4b/pool"
  pooling_param {
    pool: MAX
    kernel_size: 3
    stride: 1
    pad: 1
  }
}
layer {
  name: "inception_4b/pool_proj"
  type: "Convolution"
  bottom: "inception_4b/pool"
  top: "inception_4b/pool_proj"
  param {
    lr_mult: 1
    decay_mult: 1
  }
  param {
    lr_mult: 2
    decay_mult: 0
  }
  convolution_param {
    num_output: 64
    kernel_size: 1
    weight_filler {
      type: "xavier"
      std: 0.1
    }
    bias_filler {
      type: "constant"
      value: 0.2
    }
  }
}
layer {
  name: "inception_4b/relu_pool_proj"
  type: "ReLU"
  bottom: "inception_4b/pool_proj"
  top: "inception_4b/pool_proj"
}
layer {
  name: "inception_4b/output"
  type: "Concat"
  bottom: "inception_4b/1x1"
  bottom: "inception_4b/3x3"
  bottom: "inception_4b/5x5"
  bottom: "inception_4b/pool_proj"
  top: "inception_4b/output"
}
layer {
  name: "inception_4c/1x1"
  type: "Convolution"
  bottom: "inception_4b/output"
  top: "inception_4c/1x1"
  param {
    lr_mult: 1
    decay_mult: 1
  }
  param {
    lr_mult: 2
    decay_mult: 0
  }
  convolution_param {
    num_output: 128
    kernel_size: 1
    weight_filler {
      type: "xavier"
      std: 0.03
    }
    bias_filler {
      type: "constant"
      value: 0.2
    }
  }
}
layer {
  name: "inception_4c/relu_1x1"
  type: "ReLU"
  bottom: "inception_4c/1x1"
  top: "inception_4c/1x1"
}
layer {
  name: "inception_4c/3x3_reduce"
  type: "Convolution"
  bottom: "inception_4b/output"
  top: "inception_4c/3x3_reduce"
  param {
    lr_mult: 1
    decay_mult: 1
  }
  param {
    lr_mult: 2
    decay_mult: 0
  }
  convolution_param {
    num_output: 128
    kernel_size: 1
    weight_filler {
      type: "xavier"
      std: 0.09
    }
    bias_filler {
      type: "constant"
      value: 0.2
    }
  }
}
layer {
  name: "inception_4c/relu_3x3_reduce"
  type: "ReLU"
  bottom: "inception_4c/3x3_reduce"
  top: "inception_4c/3x3_reduce"
}
layer {
  name: "inception_4c/3x3"
  type: "Convolution"
  bottom: "inception_4c/3x3_reduce"
  top: "inception_4c/3x3"
  param {
    lr_mult: 1
    decay_mult: 1
  }
  param {
    lr_mult: 2
    decay_mult: 0
  }
  convolution_param {
    num_output: 256
    pad: 1
    kernel_size: 3
    weight_filler {
      type: "xavier"
      std: 0.03
    }
    bias_filler {
      type: "constant"
      value: 0.2
    }
  }
}
layer {
  name: "inception_4c/relu_3x3"
  type: "ReLU"
  bottom: "inception_4c/3x3"
  top: "inception_4c/3x3"
}
layer {
  name: "inception_4c/5x5_reduce"
  type: "Convolution"
  bottom: "inception_4b/output"
  top: "inception_4c/5x5_reduce"
  param {
    lr_mult: 1
    decay_mult: 1
  }
  param {
    lr_mult: 2
    decay_mult: 0
  }
  convolution_param {
    num_output: 24
    kernel_size: 1
    weight_filler {
      type: "xavier"
      std: 0.2
    }
    bias_filler {
      type: "constant"
      value: 0.2
    }
  }
}
layer {
  name: "inception_4c/relu_5x5_reduce"
  type: "ReLU"
  bottom: "inception_4c/5x5_reduce"
  top: "inception_4c/5x5_reduce"
}
layer {
  name: "inception_4c/5x5"
  type: "Convolution"
  bottom: "inception_4c/5x5_reduce"
  top: "inception_4c/5x5"
  param {
    lr_mult: 1
    decay_mult: 1
  }
  param {
    lr_mult: 2
    decay_mult: 0
  }
  convolution_param {
    num_output: 64
    pad: 2
    kernel_size: 5
    weight_filler {
      type: "xavier"
      std: 0.03
    }
    bias_filler {
      type: "constant"
      value: 0.2
    }
  }
}
layer {
  name: "inception_4c/relu_5x5"
  type: "ReLU"
  bottom: "inception_4c/5x5"
  top: "inception_4c/5x5"
}
layer {
  name: "inception_4c/pool"
  type: "Pooling"
  bottom: "inception_4b/output"
  top: "inception_4c/pool"
  pooling_param {
    pool: MAX
    kernel_size: 3
    stride: 1
    pad: 1
  }
}
layer {
  name: "inception_4c/pool_proj"
  type: "Convolution"
  bottom: "inception_4c/pool"
  top: "inception_4c/pool_proj"
  param {
    lr_mult: 1
    decay_mult: 1
  }
  param {
    lr_mult: 2
    decay_mult: 0
  }
  convolution_param {
    num_output: 64
    kernel_size: 1
    weight_filler {
      type: "xavier"
      std: 0.1
    }
    bias_filler {
      type: "constant"
      value: 0.2
    }
  }
}
layer {
  name: "inception_4c/relu_pool_proj"
  type: "ReLU"
  bottom: "inception_4c/pool_proj"
  top: "inception_4c/pool_proj"
}
layer {
  name: "inception_4c/output"
  type: "Concat"
  bottom: "inception_4c/1x1"
  bottom: "inception_4c/3x3"
  bottom: "inception_4c/5x5"
  bottom: "inception_4c/pool_proj"
  top: "inception_4c/output"
}
layer {
  name: "inception_4d/1x1"
  type: "Convolution"
  bottom: "inception_4c/output"
  top: "inception_4d/1x1"
  param {
    lr_mult: 1
    decay_mult: 1
  }
  param {
    lr_mult: 2
    decay_mult: 0
  }
  convolution_param {
    num_output: 112
    kernel_size: 1
    weight_filler {
      type: "xavier"
      std: 0.03
    }
    bias_filler {
      type: "constant"
      value: 0.2
    }
  }
}
layer {
  name: "inception_4d/relu_1x1"
  type: "ReLU"
  bottom: "inception_4d/1x1"
  top: "inception_4d/1x1"
}
layer {
  name: "inception_4d/3x3_reduce"
  type: "Convolution"
  bottom: "inception_4c/output"
  top: "inception_4d/3x3_reduce"
  param {
    lr_mult: 1
    decay_mult: 1
  }
  param {
    lr_mult: 2
    decay_mult: 0
  }
  convolution_param {
    num_output: 144
    kernel_size: 1
    weight_filler {
      type: "xavier"
      std: 0.09
    }
    bias_filler {
      type: "constant"
      value: 0.2
    }
  }
}
layer {
  name: "inception_4d/relu_3x3_reduce"
  type: "ReLU"
  bottom: "inception_4d/3x3_reduce"
  top: "inception_4d/3x3_reduce"
}
layer {
  name: "inception_4d/3x3"
  type: "Convolution"
  bottom: "inception_4d/3x3_reduce"
  top: "inception_4d/3x3"
  param {
    lr_mult: 1
    decay_mult: 1
  }
  param {
    lr_mult: 2
    decay_mult: 0
  }
  convolution_param {
    num_output: 288
    pad: 1
    kernel_size: 3
    weight_filler {
      type: "xavier"
      std: 0.03
    }
    bias_filler {
      type: "constant"
      value: 0.2
    }
  }
}
layer {
  name: "inception_4d/relu_3x3"
  type: "ReLU"
  bottom: "inception_4d/3x3"
  top: "inception_4d/3x3"
}
layer {
  name: "inception_4d/5x5_reduce"
  type: "Convolution"
  bottom: "inception_4c/output"
  top: "inception_4d/5x5_reduce"
  param {
    lr_mult: 1
    decay_mult: 1
  }
  param {
    lr_mult: 2
    decay_mult: 0
  }
  convolution_param {
    num_output: 32
    kernel_size: 1
    weight_filler {
      type: "xavier"
      std: 0.2
    }
    bias_filler {
      type: "constant"
      value: 0.2
    }
  }
}
layer {
  name: "inception_4d/relu_5x5_reduce"
  type: "ReLU"
  bottom: "inception_4d/5x5_reduce"
  top: "inception_4d/5x5_reduce"
}
layer {
  name: "inception_4d/5x5"
  type: "Convolution"
  bottom: "inception_4d/5x5_reduce"
  top: "inception_4d/5x5"
  param {
    lr_mult: 1
    decay_mult: 1
  }
  param {
    lr_mult: 2
    decay_mult: 0
  }
  convolution_param {
    num_output: 64
    pad: 2
    kernel_size: 5
    weight_filler {
      type: "xavier"
      std: 0.03
    }
    bias_filler {
      type: "constant"
      value: 0.2
    }
  }
}
layer {
  name: "inception_4d/relu_5x5"
  type: "ReLU"
  bottom: "inception_4d/5x5"
  top: "inception_4d/5x5"
}
layer {
  name: "inception_4d/pool"
  type: "Pooling"
  bottom: "inception_4c/output"
  top: "inception_4d/pool"
  pooling_param {
    pool: MAX
    kernel_size: 3
    stride: 1
    pad: 1
  }
}
layer {
  name: "inception_4d/pool_proj"
  type: "Convolution"
  bottom: "inception_4d/pool"
  top: "inception_4d/pool_proj"
  param {
    lr_mult: 1
    decay_mult: 1
  }
  param {
    lr_mult: 2
    decay_mult: 0
  }
  convolution_param {
    num_output: 64
    kernel_size: 1
    weight_filler {
      type: "xavier"
      std: 0.1
    }
    bias_filler {
      type: "constant"
      value: 0.2
    }
  }
}
layer {
  name: "inception_4d/relu_pool_proj"
  type: "ReLU"
  bottom: "inception_4d/pool_proj"
  top: "inception_4d/pool_proj"
}
layer {
  name: "inception_4d/output"
  type: "Concat"
  bottom: "inception_4d/1x1"
  bottom: "inception_4d/3x3"
  bottom: "inception_4d/5x5"
  bottom: "inception_4d/pool_proj"
  top: "inception_4d/output"
}
layer {
  name: "loss2/ave_pool"
  type: "Pooling"
  bottom: "inception_4d/output"
  top: "loss2/ave_pool"
  pooling_param {
    pool: AVE
    kernel_size: 5
    stride: 3
  }
}
layer {
  name: "loss2/conv"
  type: "Convolution"
  bottom: "loss2/ave_pool"
  top: "loss2/conv"
  param {
    lr_mult: 1
    decay_mult: 1
  }
  param {
    lr_mult: 2
    decay_mult: 0
  }
  convolution_param {
    num_output: 128
    kernel_size: 1
    weight_filler {
      type: "xavier"
      std: 0.08
    }
    bias_filler {
      type: "constant"
      value: 0.2
    }
  }
}
layer {
  name: "loss2/relu_conv"
  type: "ReLU"
  bottom: "loss2/conv"
  top: "loss2/conv"
}
layer {
  name: "loss2/fc"
  type: "InnerProduct"
  bottom: "loss2/conv"
  top: "loss2/fc"
  param {
    lr_mult: 1
    decay_mult: 1
  }
  param {
    lr_mult: 2
    decay_mult: 0
  }
  inner_product_param {
    num_output: 1024
    weight_filler {
      type: "xavier"
      std: 0.02
    }
    bias_filler {
      type: "constant"
      value: 0.2
    }
  }
}
layer {
  name: "loss2/relu_fc"
  type: "ReLU"
  bottom: "loss2/fc"
  top: "loss2/fc"
}
layer {
  name: "loss2/drop_fc"
  type: "Dropout"
  bottom: "loss2/fc"
  top: "loss2/fc"
  dropout_param {
    dropout_ratio: 0.7
  }
}
layer {
  name: "loss2/classifier_plantvillage"
  type: "InnerProduct"
  bottom: "loss2/fc"
  top: "loss2/classifier_plantvillage"
  param {
    lr_mult: 1
    decay_mult: 1
  }
  param {
    lr_mult: 2
    decay_mult: 0
  }
  inner_product_param {
    num_output: 38
    weight_filler {
      type: "xavier"
      std: 0.0009765625
    }
    bias_filler {
      type: "constant"
      value: 0
    }
  }
}
layer {
  name: "inception_4e/1x1"
  type: "Convolution"
  bottom: "inception_4d/output"
  top: "inception_4e/1x1"
  param {
    lr_mult: 1
    decay_mult: 1
  }
  param {
    lr_mult: 2
    decay_mult: 0
  }
  convolution_param {
    num_output: 256
    kernel_size: 1
    weight_filler {
      type: "xavier"
      std: 0.03
    }
    bias_filler {
      type: "constant"
      value: 0.2
    }
  }
}
layer {
  name: "inception_4e/relu_1x1"
  type: "ReLU"
  bottom: "inception_4e/1x1"
  top: "inception_4e/1x1"
}
layer {
  name: "inception_4e/3x3_reduce"
  type: "Convolution"
  bottom: "inception_4d/output"
  top: "inception_4e/3x3_reduce"
  param {
    lr_mult: 1
    decay_mult: 1
  }
  param {
    lr_mult: 2
    decay_mult: 0
  }
  convolution_param {
    num_output: 160
    kernel_size: 1
    weight_filler {
      type: "xavier"
      std: 0.09
    }
    bias_filler {
      type: "constant"
      value: 0.2
    }
  }
}
layer {
  name: "inception_4e/relu_3x3_reduce"
  type: "ReLU"
  bottom: "inception_4e/3x3_reduce"
  top: "inception_4e/3x3_reduce"
}
layer {
  name: "inception_4e/3x3"
  type: "Convolution"
  bottom: "inception_4e/3x3_reduce"
  top: "inception_4e/3x3"
  param {
    lr_mult: 1
    decay_mult: 1
  }
  param {
    lr_mult: 2
    decay_mult: 0
  }
  convolution_param {
    num_output: 320
    pad: 1
    kernel_size: 3
    weight_filler {
      type: "xavier"
      std: 0.03
    }
    bias_filler {
      type: "constant"
      value: 0.2
    }
  }
}
layer {
  name: "inception_4e/relu_3x3"
  type: "ReLU"
  bottom: "inception_4e/3x3"
  top: "inception_4e/3x3"
}
layer {
  name: "inception_4e/5x5_reduce"
  type: "Convolution"
  bottom: "inception_4d/output"
  top: "inception_4e/5x5_reduce"
  param {
    lr_mult: 1
    decay_mult: 1
  }
  param {
    lr_mult: 2
    decay_mult: 0
  }
  convolution_param {
    num_output: 32
    kernel_size: 1
    weight_filler {
      type: "xavier"
      std: 0.2
    }
    bias_filler {
      type: "constant"
      value: 0.2
    }
  }
}
layer {
  name: "inception_4e/relu_5x5_reduce"
  type: "ReLU"
  bottom: "inception_4e/5x5_reduce"
  top: "inception_4e/5x5_reduce"
}
layer {
  name: "inception_4e/5x5"
  type: "Convolution"
  bottom: "inception_4e/5x5_reduce"
  top: "inception_4e/5x5"
  p
I0403 15:55:42.496754 16495 layer_factory.hpp:77] Creating layer data
I0403 15:55:42.497391 16495 net.cpp:91] Creating Layer data
I0403 15:55:42.497426 16495 net.cpp:399] data -> data
I0403 15:55:42.497476 16495 net.cpp:399] data -> label
I0403 15:55:42.497514 16495 data_transformer.cpp:25] Loading mean file from: /home/mohanty/data/final_dataset/lmdb/color-20-80/mean.binaryproto
I0403 15:55:42.504894 16498 db_lmdb.cpp:38] Opened lmdb /home/mohanty/data/final_dataset/lmdb/color-20-80/test_db
I0403 15:55:42.511696 16495 data_layer.cpp:41] output data size: 24,3,224,224
I0403 15:55:42.539748 16495 net.cpp:141] Setting up data
I0403 15:55:42.539824 16495 net.cpp:148] Top shape: 24 3 224 224 (3612672)
I0403 15:55:42.539849 16495 net.cpp:148] Top shape: 24 (24)
I0403 15:55:42.539865 16495 net.cpp:156] Memory required for data: 14450784
I0403 15:55:42.539894 16495 layer_factory.hpp:77] Creating layer label_data_1_split
I0403 15:55:42.539923 16495 net.cpp:91] Creating Layer label_data_1_split
I0403 15:55:42.539942 16495 net.cpp:425] label_data_1_split <- label
I0403 15:55:42.539973 16495 net.cpp:399] label_data_1_split -> label_data_1_split_0
I0403 15:55:42.540002 16495 net.cpp:399] label_data_1_split -> label_data_1_split_1
I0403 15:55:42.540024 16495 net.cpp:399] label_data_1_split -> label_data_1_split_2
I0403 15:55:42.540047 16495 net.cpp:399] label_data_1_split -> label_data_1_split_3
I0403 15:55:42.540068 16495 net.cpp:399] label_data_1_split -> label_data_1_split_4
I0403 15:55:42.540089 16495 net.cpp:399] label_data_1_split -> label_data_1_split_5
I0403 15:55:42.540109 16495 net.cpp:399] label_data_1_split -> label_data_1_split_6
I0403 15:55:42.540132 16495 net.cpp:399] label_data_1_split -> label_data_1_split_7
I0403 15:55:42.540151 16495 net.cpp:399] label_data_1_split -> label_data_1_split_8
I0403 15:55:42.540172 16495 net.cpp:399] label_data_1_split -> label_data_1_split_9
I0403 15:55:42.540295 16495 net.cpp:141] Setting up label_data_1_split
I0403 15:55:42.540320 16495 net.cpp:148] Top shape: 24 (24)
I0403 15:55:42.540340 16495 net.cpp:148] Top shape: 24 (24)
I0403 15:55:42.540357 16495 net.cpp:148] Top shape: 24 (24)
I0403 15:55:42.540372 16495 net.cpp:148] Top shape: 24 (24)
I0403 15:55:42.540390 16495 net.cpp:148] Top shape: 24 (24)
I0403 15:55:42.540406 16495 net.cpp:148] Top shape: 24 (24)
I0403 15:55:42.540423 16495 net.cpp:148] Top shape: 24 (24)
I0403 15:55:42.540439 16495 net.cpp:148] Top shape: 24 (24)
I0403 15:55:42.540455 16495 net.cpp:148] Top shape: 24 (24)
I0403 15:55:42.540472 16495 net.cpp:148] Top shape: 24 (24)
I0403 15:55:42.540515 16495 net.cpp:156] Memory required for data: 14451744
I0403 15:55:42.540534 16495 layer_factory.hpp:77] Creating layer conv1/7x7_s2
I0403 15:55:42.540567 16495 net.cpp:91] Creating Layer conv1/7x7_s2
I0403 15:55:42.540586 16495 net.cpp:425] conv1/7x7_s2 <- data
I0403 15:55:42.540611 16495 net.cpp:399] conv1/7x7_s2 -> conv1/7x7_s2
I0403 15:55:42.688817 16495 net.cpp:141] Setting up conv1/7x7_s2
I0403 15:55:42.688882 16495 net.cpp:148] Top shape: 24 64 112 112 (19267584)
I0403 15:55:42.688928 16495 net.cpp:156] Memory required for data: 91522080
I0403 15:55:42.688966 16495 layer_factory.hpp:77] Creating layer conv1/relu_7x7
I0403 15:55:42.688994 16495 net.cpp:91] Creating Layer conv1/relu_7x7
I0403 15:55:42.689014 16495 net.cpp:425] conv1/relu_7x7 <- conv1/7x7_s2
I0403 15:55:42.689035 16495 net.cpp:386] conv1/relu_7x7 -> conv1/7x7_s2 (in-place)
I0403 15:55:42.689304 16495 net.cpp:141] Setting up conv1/relu_7x7
I0403 15:55:42.689334 16495 net.cpp:148] Top shape: 24 64 112 112 (19267584)
I0403 15:55:42.689350 16495 net.cpp:156] Memory required for data: 168592416
I0403 15:55:42.689366 16495 layer_factory.hpp:77] Creating layer pool1/3x3_s2
I0403 15:55:42.689393 16495 net.cpp:91] Creating Layer pool1/3x3_s2
I0403 15:55:42.689412 16495 net.cpp:425] pool1/3x3_s2 <- conv1/7x7_s2
I0403 15:55:42.689431 16495 net.cpp:399] pool1/3x3_s2 -> pool1/3x3_s2
I0403 15:55:42.689509 16495 net.cpp:141] Setting up pool1/3x3_s2
I0403 15:55:42.689537 16495 net.cpp:148] Top shape: 24 64 56 56 (4816896)
I0403 15:55:42.689553 16495 net.cpp:156] Memory required for data: 187860000
I0403 15:55:42.689570 16495 layer_factory.hpp:77] Creating layer pool1/norm1
I0403 15:55:42.689595 16495 net.cpp:91] Creating Layer pool1/norm1
I0403 15:55:42.689623 16495 net.cpp:425] pool1/norm1 <- pool1/3x3_s2
I0403 15:55:42.689643 16495 net.cpp:399] pool1/norm1 -> pool1/norm1
I0403 15:55:42.689944 16495 net.cpp:141] Setting up pool1/norm1
I0403 15:55:42.689973 16495 net.cpp:148] Top shape: 24 64 56 56 (4816896)
I0403 15:55:42.689990 16495 net.cpp:156] Memory required for data: 207127584
I0403 15:55:42.690006 16495 layer_factory.hpp:77] Creating layer conv2/3x3_reduce
I0403 15:55:42.690032 16495 net.cpp:91] Creating Layer conv2/3x3_reduce
I0403 15:55:42.690049 16495 net.cpp:425] conv2/3x3_reduce <- pool1/norm1
I0403 15:55:42.690069 16495 net.cpp:399] conv2/3x3_reduce -> conv2/3x3_reduce
I0403 15:55:42.691535 16495 net.cpp:141] Setting up conv2/3x3_reduce
I0403 15:55:42.691568 16495 net.cpp:148] Top shape: 24 64 56 56 (4816896)
I0403 15:55:42.691586 16495 net.cpp:156] Memory required for data: 226395168
I0403 15:55:42.691613 16495 layer_factory.hpp:77] Creating layer conv2/relu_3x3_reduce
I0403 15:55:42.691635 16495 net.cpp:91] Creating Layer conv2/relu_3x3_reduce
I0403 15:55:42.691653 16495 net.cpp:425] conv2/relu_3x3_reduce <- conv2/3x3_reduce
I0403 15:55:42.691673 16495 net.cpp:386] conv2/relu_3x3_reduce -> conv2/3x3_reduce (in-place)
I0403 15:55:42.691963 16495 net.cpp:141] Setting up conv2/relu_3x3_reduce
I0403 15:55:42.691992 16495 net.cpp:148] Top shape: 24 64 56 56 (4816896)
I0403 15:55:42.692009 16495 net.cpp:156] Memory required for data: 245662752
I0403 15:55:42.692025 16495 layer_factory.hpp:77] Creating layer conv2/3x3
I0403 15:55:42.692051 16495 net.cpp:91] Creating Layer conv2/3x3
I0403 15:55:42.692070 16495 net.cpp:425] conv2/3x3 <- conv2/3x3_reduce
I0403 15:55:42.692092 16495 net.cpp:399] conv2/3x3 -> conv2/3x3
I0403 15:55:42.694555 16495 net.cpp:141] Setting up conv2/3x3
I0403 15:55:42.694588 16495 net.cpp:148] Top shape: 24 192 56 56 (14450688)
I0403 15:55:42.694619 16495 net.cpp:156] Memory required for data: 303465504
I0403 15:55:42.694645 16495 layer_factory.hpp:77] Creating layer conv2/relu_3x3
I0403 15:55:42.694670 16495 net.cpp:91] Creating Layer conv2/relu_3x3
I0403 15:55:42.694689 16495 net.cpp:425] conv2/relu_3x3 <- conv2/3x3
I0403 15:55:42.694707 16495 net.cpp:386] conv2/relu_3x3 -> conv2/3x3 (in-place)
I0403 15:55:42.694892 16495 net.cpp:141] Setting up conv2/relu_3x3
I0403 15:55:42.694921 16495 net.cpp:148] Top shape: 24 192 56 56 (14450688)
I0403 15:55:42.694969 16495 net.cpp:156] Memory required for data: 361268256
I0403 15:55:42.694988 16495 layer_factory.hpp:77] Creating layer conv2/norm2
I0403 15:55:42.695009 16495 net.cpp:91] Creating Layer conv2/norm2
I0403 15:55:42.695027 16495 net.cpp:425] conv2/norm2 <- conv2/3x3
I0403 15:55:42.695050 16495 net.cpp:399] conv2/norm2 -> conv2/norm2
I0403 15:55:42.695372 16495 net.cpp:141] Setting up conv2/norm2
I0403 15:55:42.695405 16495 net.cpp:148] Top shape: 24 192 56 56 (14450688)
I0403 15:55:42.695425 16495 net.cpp:156] Memory required for data: 419071008
I0403 15:55:42.695441 16495 layer_factory.hpp:77] Creating layer pool2/3x3_s2
I0403 15:55:42.695459 16495 net.cpp:91] Creating Layer pool2/3x3_s2
I0403 15:55:42.695477 16495 net.cpp:425] pool2/3x3_s2 <- conv2/norm2
I0403 15:55:42.695499 16495 net.cpp:399] pool2/3x3_s2 -> pool2/3x3_s2
I0403 15:55:42.695554 16495 net.cpp:141] Setting up pool2/3x3_s2
I0403 15:55:42.695580 16495 net.cpp:148] Top shape: 24 192 28 28 (3612672)
I0403 15:55:42.695596 16495 net.cpp:156] Memory required for data: 433521696
I0403 15:55:42.695627 16495 layer_factory.hpp:77] Creating layer pool2/3x3_s2_pool2/3x3_s2_0_split
I0403 15:55:42.695650 16495 net.cpp:91] Creating Layer pool2/3x3_s2_pool2/3x3_s2_0_split
I0403 15:55:42.695669 16495 net.cpp:425] pool2/3x3_s2_pool2/3x3_s2_0_split <- pool2/3x3_s2
I0403 15:55:42.695688 16495 net.cpp:399] pool2/3x3_s2_pool2/3x3_s2_0_split -> pool2/3x3_s2_pool2/3x3_s2_0_split_0
I0403 15:55:42.695709 16495 net.cpp:399] pool2/3x3_s2_pool2/3x3_s2_0_split -> pool2/3x3_s2_pool2/3x3_s2_0_split_1
I0403 15:55:42.695732 16495 net.cpp:399] pool2/3x3_s2_pool2/3x3_s2_0_split -> pool2/3x3_s2_pool2/3x3_s2_0_split_2
I0403 15:55:42.695755 16495 net.cpp:399] pool2/3x3_s2_pool2/3x3_s2_0_split -> pool2/3x3_s2_pool2/3x3_s2_0_split_3
I0403 15:55:42.695834 16495 net.cpp:141] Setting up pool2/3x3_s2_pool2/3x3_s2_0_split
I0403 15:55:42.695859 16495 net.cpp:148] Top shape: 24 192 28 28 (3612672)
I0403 15:55:42.695878 16495 net.cpp:148] Top shape: 24 192 28 28 (3612672)
I0403 15:55:42.695894 16495 net.cpp:148] Top shape: 24 192 28 28 (3612672)
I0403 15:55:42.695912 16495 net.cpp:148] Top shape: 24 192 28 28 (3612672)
I0403 15:55:42.695927 16495 net.cpp:156] Memory required for data: 491324448
I0403 15:55:42.695945 16495 layer_factory.hpp:77] Creating layer inception_3a/1x1
I0403 15:55:42.695968 16495 net.cpp:91] Creating Layer inception_3a/1x1
I0403 15:55:42.695987 16495 net.cpp:425] inception_3a/1x1 <- pool2/3x3_s2_pool2/3x3_s2_0_split_0
I0403 15:55:42.696012 16495 net.cpp:399] inception_3a/1x1 -> inception_3a/1x1
I0403 15:55:42.697608 16495 net.cpp:141] Setting up inception_3a/1x1
I0403 15:55:42.697640 16495 net.cpp:148] Top shape: 24 64 28 28 (1204224)
I0403 15:55:42.697659 16495 net.cpp:156] Memory required for data: 496141344
I0403 15:55:42.697679 16495 layer_factory.hpp:77] Creating layer inception_3a/relu_1x1
I0403 15:55:42.697700 16495 net.cpp:91] Creating Layer inception_3a/relu_1x1
I0403 15:55:42.697716 16495 net.cpp:425] inception_3a/relu_1x1 <- inception_3a/1x1
I0403 15:55:42.697739 16495 net.cpp:386] inception_3a/relu_1x1 -> inception_3a/1x1 (in-place)
I0403 15:55:42.697926 16495 net.cpp:141] Setting up inception_3a/relu_1x1
I0403 15:55:42.697952 16495 net.cpp:148] Top shape: 24 64 28 28 (1204224)
I0403 15:55:42.697968 16495 net.cpp:156] Memory required for data: 500958240
I0403 15:55:42.697984 16495 layer_factory.hpp:77] Creating layer inception_3a/3x3_reduce
I0403 15:55:42.698009 16495 net.cpp:91] Creating Layer inception_3a/3x3_reduce
I0403 15:55:42.698027 16495 net.cpp:425] inception_3a/3x3_reduce <- pool2/3x3_s2_pool2/3x3_s2_0_split_1
I0403 15:55:42.698050 16495 net.cpp:399] inception_3a/3x3_reduce -> inception_3a/3x3_reduce
I0403 15:55:42.699816 16495 net.cpp:141] Setting up inception_3a/3x3_reduce
I0403 15:55:42.699847 16495 net.cpp:148] Top shape: 24 96 28 28 (1806336)
I0403 15:55:42.699863 16495 net.cpp:156] Memory required for data: 508183584
I0403 15:55:42.699887 16495 layer_factory.hpp:77] Creating layer inception_3a/relu_3x3_reduce
I0403 15:55:42.699926 16495 net.cpp:91] Creating Layer inception_3a/relu_3x3_reduce
I0403 15:55:42.699949 16495 net.cpp:425] inception_3a/relu_3x3_reduce <- inception_3a/3x3_reduce
I0403 15:55:42.699967 16495 net.cpp:386] inception_3a/relu_3x3_reduce -> inception_3a/3x3_reduce (in-place)
I0403 15:55:42.700162 16495 net.cpp:141] Setting up inception_3a/relu_3x3_reduce
I0403 15:55:42.700191 16495 net.cpp:148] Top shape: 24 96 28 28 (1806336)
I0403 15:55:42.700208 16495 net.cpp:156] Memory required for data: 515408928
I0403 15:55:42.700225 16495 layer_factory.hpp:77] Creating layer inception_3a/3x3
I0403 15:55:42.700250 16495 net.cpp:91] Creating Layer inception_3a/3x3
I0403 15:55:42.700269 16495 net.cpp:425] inception_3a/3x3 <- inception_3a/3x3_reduce
I0403 15:55:42.700290 16495 net.cpp:399] inception_3a/3x3 -> inception_3a/3x3
I0403 15:55:42.702028 16495 net.cpp:141] Setting up inception_3a/3x3
I0403 15:55:42.702057 16495 net.cpp:148] Top shape: 24 128 28 28 (2408448)
I0403 15:55:42.702074 16495 net.cpp:156] Memory required for data: 525042720
I0403 15:55:42.702093 16495 layer_factory.hpp:77] Creating layer inception_3a/relu_3x3
I0403 15:55:42.702114 16495 net.cpp:91] Creating Layer inception_3a/relu_3x3
I0403 15:55:42.702133 16495 net.cpp:425] inception_3a/relu_3x3 <- inception_3a/3x3
I0403 15:55:42.702152 16495 net.cpp:386] inception_3a/relu_3x3 -> inception_3a/3x3 (in-place)
I0403 15:55:42.702440 16495 net.cpp:141] Setting up inception_3a/relu_3x3
I0403 15:55:42.702467 16495 net.cpp:148] Top shape: 24 128 28 28 (2408448)
I0403 15:55:42.702483 16495 net.cpp:156] Memory required for data: 534676512
I0403 15:55:42.702499 16495 layer_factory.hpp:77] Creating layer inception_3a/5x5_reduce
I0403 15:55:42.702523 16495 net.cpp:91] Creating Layer inception_3a/5x5_reduce
I0403 15:55:42.702543 16495 net.cpp:425] inception_3a/5x5_reduce <- pool2/3x3_s2_pool2/3x3_s2_0_split_2
I0403 15:55:42.702566 16495 net.cpp:399] inception_3a/5x5_reduce -> inception_3a/5x5_reduce
I0403 15:55:42.703577 16495 net.cpp:141] Setting up inception_3a/5x5_reduce
I0403 15:55:42.703611 16495 net.cpp:148] Top shape: 24 16 28 28 (301056)
I0403 15:55:42.703630 16495 net.cpp:156] Memory required for data: 535880736
I0403 15:55:42.703650 16495 layer_factory.hpp:77] Creating layer inception_3a/relu_5x5_reduce
I0403 15:55:42.703673 16495 net.cpp:91] Creating Layer inception_3a/relu_5x5_reduce
I0403 15:55:42.703692 16495 net.cpp:425] inception_3a/relu_5x5_reduce <- inception_3a/5x5_reduce
I0403 15:55:42.703712 16495 net.cpp:386] inception_3a/relu_5x5_reduce -> inception_3a/5x5_reduce (in-place)
I0403 15:55:42.704017 16495 net.cpp:141] Setting up inception_3a/relu_5x5_reduce
I0403 15:55:42.704046 16495 net.cpp:148] Top shape: 24 16 28 28 (301056)
I0403 15:55:42.704062 16495 net.cpp:156] Memory required for data: 537084960
I0403 15:55:42.704079 16495 layer_factory.hpp:77] Creating layer inception_3a/5x5
I0403 15:55:42.704105 16495 net.cpp:91] Creating Layer inception_3a/5x5
I0403 15:55:42.704125 16495 net.cpp:425] inception_3a/5x5 <- inception_3a/5x5_reduce
I0403 15:55:42.704147 16495 net.cpp:399] inception_3a/5x5 -> inception_3a/5x5
I0403 15:55:42.705217 16495 net.cpp:141] Setting up inception_3a/5x5
I0403 15:55:42.705247 16495 net.cpp:148] Top shape: 24 32 28 28 (602112)
I0403 15:55:42.705265 16495 net.cpp:156] Memory required for data: 539493408
I0403 15:55:42.705286 16495 layer_factory.hpp:77] Creating layer inception_3a/relu_5x5
I0403 15:55:42.705304 16495 net.cpp:91] Creating Layer inception_3a/relu_5x5
I0403 15:55:42.705322 16495 net.cpp:425] inception_3a/relu_5x5 <- inception_3a/5x5
I0403 15:55:42.705343 16495 net.cpp:386] inception_3a/relu_5x5 -> inception_3a/5x5 (in-place)
I0403 15:55:42.705529 16495 net.cpp:141] Setting up inception_3a/relu_5x5
I0403 15:55:42.705557 16495 net.cpp:148] Top shape: 24 32 28 28 (602112)
I0403 15:55:42.705574 16495 net.cpp:156] Memory required for data: 541901856
I0403 15:55:42.705590 16495 layer_factory.hpp:77] Creating layer inception_3a/pool
I0403 15:55:42.705616 16495 net.cpp:91] Creating Layer inception_3a/pool
I0403 15:55:42.705637 16495 net.cpp:425] inception_3a/pool <- pool2/3x3_s2_pool2/3x3_s2_0_split_3
I0403 15:55:42.705672 16495 net.cpp:399] inception_3a/pool -> inception_3a/pool
I0403 15:55:42.705735 16495 net.cpp:141] Setting up inception_3a/pool
I0403 15:55:42.705761 16495 net.cpp:148] Top shape: 24 192 28 28 (3612672)
I0403 15:55:42.705778 16495 net.cpp:156] Memory required for data: 556352544
I0403 15:55:42.705796 16495 layer_factory.hpp:77] Creating layer inception_3a/pool_proj
I0403 15:55:42.705817 16495 net.cpp:91] Creating Layer inception_3a/pool_proj
I0403 15:55:42.705837 16495 net.cpp:425] inception_3a/pool_proj <- inception_3a/pool
I0403 15:55:42.705862 16495 net.cpp:399] inception_3a/pool_proj -> inception_3a/pool_proj
I0403 15:55:42.706892 16495 net.cpp:141] Setting up inception_3a/pool_proj
I0403 15:55:42.706924 16495 net.cpp:148] Top shape: 24 32 28 28 (602112)
I0403 15:55:42.706943 16495 net.cpp:156] Memory required for data: 558760992
I0403 15:55:42.706966 16495 layer_factory.hpp:77] Creating layer inception_3a/relu_pool_proj
I0403 15:55:42.706989 16495 net.cpp:91] Creating Layer inception_3a/relu_pool_proj
I0403 15:55:42.707007 16495 net.cpp:425] inception_3a/relu_pool_proj <- inception_3a/pool_proj
I0403 15:55:42.707027 16495 net.cpp:386] inception_3a/relu_pool_proj -> inception_3a/pool_proj (in-place)
I0403 15:55:42.707320 16495 net.cpp:141] Setting up inception_3a/relu_pool_proj
I0403 15:55:42.707348 16495 net.cpp:148] Top shape: 24 32 28 28 (602112)
I0403 15:55:42.707365 16495 net.cpp:156] Memory required for data: 561169440
I0403 15:55:42.707381 16495 layer_factory.hpp:77] Creating layer inception_3a/output
I0403 15:55:42.707401 16495 net.cpp:91] Creating Layer inception_3a/output
I0403 15:55:42.707417 16495 net.cpp:425] inception_3a/output <- inception_3a/1x1
I0403 15:55:42.707433 16495 net.cpp:425] inception_3a/output <- inception_3a/3x3
I0403 15:55:42.707450 16495 net.cpp:425] inception_3a/output <- inception_3a/5x5
I0403 15:55:42.707468 16495 net.cpp:425] inception_3a/output <- inception_3a/pool_proj
I0403 15:55:42.707489 16495 net.cpp:399] inception_3a/output -> inception_3a/output
I0403 15:55:42.707540 16495 net.cpp:141] Setting up inception_3a/output
I0403 15:55:42.707569 16495 net.cpp:148] Top shape: 24 256 28 28 (4816896)
I0403 15:55:42.707586 16495 net.cpp:156] Memory required for data: 580437024
I0403 15:55:42.707605 16495 layer_factory.hpp:77] Creating layer inception_3a/output_inception_3a/output_0_split
I0403 15:55:42.707626 16495 net.cpp:91] Creating Layer inception_3a/output_inception_3a/output_0_split
I0403 15:55:42.707644 16495 net.cpp:425] inception_3a/output_inception_3a/output_0_split <- inception_3a/output
I0403 15:55:42.707665 16495 net.cpp:399] inception_3a/output_inception_3a/output_0_split -> inception_3a/output_inception_3a/output_0_split_0
I0403 15:55:42.707690 16495 net.cpp:399] inception_3a/output_inception_3a/output_0_split -> inception_3a/output_inception_3a/output_0_split_1
I0403 15:55:42.707715 16495 net.cpp:399] inception_3a/output_inception_3a/output_0_split -> inception_3a/output_inception_3a/output_0_split_2
I0403 15:55:42.707737 16495 net.cpp:399] inception_3a/output_inception_3a/output_0_split -> inception_3a/output_inception_3a/output_0_split_3
I0403 15:55:42.707815 16495 net.cpp:141] Setting up inception_3a/output_inception_3a/output_0_split
I0403 15:55:42.707844 16495 net.cpp:148] Top shape: 24 256 28 28 (4816896)
I0403 15:55:42.707864 16495 net.cpp:148] Top shape: 24 256 28 28 (4816896)
I0403 15:55:42.707881 16495 net.cpp:148] Top shape: 24 256 28 28 (4816896)
I0403 15:55:42.707898 16495 net.cpp:148] Top shape: 24 256 28 28 (4816896)
I0403 15:55:42.707913 16495 net.cpp:156] Memory required for data: 657507360
I0403 15:55:42.707929 16495 layer_factory.hpp:77] Creating layer inception_3b/1x1
I0403 15:55:42.707953 16495 net.cpp:91] Creating Layer inception_3b/1x1
I0403 15:55:42.707973 16495 net.cpp:425] inception_3b/1x1 <- inception_3a/output_inception_3a/output_0_split_0
I0403 15:55:42.707995 16495 net.cpp:399] inception_3b/1x1 -> inception_3b/1x1
I0403 15:55:42.709202 16495 net.cpp:141] Setting up inception_3b/1x1
I0403 15:55:42.709246 16495 net.cpp:148] Top shape: 24 128 28 28 (2408448)
I0403 15:55:42.709265 16495 net.cpp:156] Memory required for data: 667141152
I0403 15:55:42.709285 16495 layer_factory.hpp:77] Creating layer inception_3b/relu_1x1
I0403 15:55:42.709306 16495 net.cpp:91] Creating Layer inception_3b/relu_1x1
I0403 15:55:42.709324 16495 net.cpp:425] inception_3b/relu_1x1 <- inception_3b/1x1
I0403 15:55:42.709347 16495 net.cpp:386] inception_3b/relu_1x1 -> inception_3b/1x1 (in-place)
I0403 15:55:42.709533 16495 net.cpp:141] Setting up inception_3b/relu_1x1
I0403 15:55:42.709561 16495 net.cpp:148] Top shape: 24 128 28 28 (2408448)
I0403 15:55:42.709578 16495 net.cpp:156] Memory required for data: 676774944
I0403 15:55:42.709594 16495 layer_factory.hpp:77] Creating layer inception_3b/3x3_reduce
I0403 15:55:42.709625 16495 net.cpp:91] Creating Layer inception_3b/3x3_reduce
I0403 15:55:42.709646 16495 net.cpp:425] inception_3b/3x3_reduce <- inception_3a/output_inception_3a/output_0_split_1
I0403 15:55:42.709669 16495 net.cpp:399] inception_3b/3x3_reduce -> inception_3b/3x3_reduce
I0403 15:55:42.710862 16495 net.cpp:141] Setting up inception_3b/3x3_reduce
I0403 15:55:42.710891 16495 net.cpp:148] Top shape: 24 128 28 28 (2408448)
I0403 15:55:42.710908 16495 net.cpp:156] Memory required for data: 686408736
I0403 15:55:42.710927 16495 layer_factory.hpp:77] Creating layer inception_3b/relu_3x3_reduce
I0403 15:55:42.710947 16495 net.cpp:91] Creating Layer inception_3b/relu_3x3_reduce
I0403 15:55:42.710963 16495 net.cpp:425] inception_3b/relu_3x3_reduce <- inception_3b/3x3_reduce
I0403 15:55:42.710983 16495 net.cpp:386] inception_3b/relu_3x3_reduce -> inception_3b/3x3_reduce (in-place)
I0403 15:55:42.711163 16495 net.cpp:141] Setting up inception_3b/relu_3x3_reduce
I0403 15:55:42.711191 16495 net.cpp:148] Top shape: 24 128 28 28 (2408448)
I0403 15:55:42.711206 16495 net.cpp:156] Memory required for data: 696042528
I0403 15:55:42.711221 16495 layer_factory.hpp:77] Creating layer inception_3b/3x3
I0403 15:55:42.711249 16495 net.cpp:91] Creating Layer inception_3b/3x3
I0403 15:55:42.711268 16495 net.cpp:425] inception_3b/3x3 <- inception_3b/3x3_reduce
I0403 15:55:42.711288 16495 net.cpp:399] inception_3b/3x3 -> inception_3b/3x3
I0403 15:55:42.714260 16495 net.cpp:141] Setting up inception_3b/3x3
I0403 15:55:42.714292 16495 net.cpp:148] Top shape: 24 192 28 28 (3612672)
I0403 15:55:42.714308 16495 net.cpp:156] Memory required for data: 710493216
I0403 15:55:42.714329 16495 layer_factory.hpp:77] Creating layer inception_3b/relu_3x3
I0403 15:55:42.714349 16495 net.cpp:91] Creating Layer inception_3b/relu_3x3
I0403 15:55:42.714367 16495 net.cpp:425] inception_3b/relu_3x3 <- inception_3b/3x3
I0403 15:55:42.714386 16495 net.cpp:386] inception_3b/relu_3x3 -> inception_3b/3x3 (in-place)
I0403 15:55:42.714682 16495 net.cpp:141] Setting up inception_3b/relu_3x3
I0403 15:55:42.714710 16495 net.cpp:148] Top shape: 24 192 28 28 (3612672)
I0403 15:55:42.714726 16495 net.cpp:156] Memory required for data: 724943904
I0403 15:55:42.714742 16495 layer_factory.hpp:77] Creating layer inception_3b/5x5_reduce
I0403 15:55:42.714766 16495 net.cpp:91] Creating Layer inception_3b/5x5_reduce
I0403 15:55:42.714784 16495 net.cpp:425] inception_3b/5x5_reduce <- inception_3a/output_inception_3a/output_0_split_2
I0403 15:55:42.714807 16495 net.cpp:399] inception_3b/5x5_reduce -> inception_3b/5x5_reduce
I0403 15:55:42.715827 16495 net.cpp:141] Setting up inception_3b/5x5_reduce
I0403 15:55:42.715857 16495 net.cpp:148] Top shape: 24 32 28 28 (602112)
I0403 15:55:42.715874 16495 net.cpp:156] Memory required for data: 727352352
I0403 15:55:42.715893 16495 layer_factory.hpp:77] Creating layer inception_3b/relu_5x5_reduce
I0403 15:55:42.715911 16495 net.cpp:91] Creating Layer inception_3b/relu_5x5_reduce
I0403 15:55:42.715927 16495 net.cpp:425] inception_3b/relu_5x5_reduce <- inception_3b/5x5_reduce
I0403 15:55:42.715948 16495 net.cpp:386] inception_3b/relu_5x5_reduce -> inception_3b/5x5_reduce (in-place)
I0403 15:55:42.716130 16495 net.cpp:141] Setting up inception_3b/relu_5x5_reduce
I0403 15:55:42.716168 16495 net.cpp:148] Top shape: 24 32 28 28 (602112)
I0403 15:55:42.716184 16495 net.cpp:156] Memory required for data: 729760800
I0403 15:55:42.716202 16495 layer_factory.hpp:77] Creating layer inception_3b/5x5
I0403 15:55:42.716225 16495 net.cpp:91] Creating Layer inception_3b/5x5
I0403 15:55:42.716243 16495 net.cpp:425] inception_3b/5x5 <- inception_3b/5x5_reduce
I0403 15:55:42.716265 16495 net.cpp:399] inception_3b/5x5 -> inception_3b/5x5
I0403 15:55:42.718276 16495 net.cpp:141] Setting up inception_3b/5x5
I0403 15:55:42.718307 16495 net.cpp:148] Top shape: 24 96 28 28 (1806336)
I0403 15:55:42.718325 16495 net.cpp:156] Memory required for data: 736986144
I0403 15:55:42.718344 16495 layer_factory.hpp:77] Creating layer inception_3b/relu_5x5
I0403 15:55:42.718364 16495 net.cpp:91] Creating Layer inception_3b/relu_5x5
I0403 15:55:42.718380 16495 net.cpp:425] inception_3b/relu_5x5 <- inception_3b/5x5
I0403 15:55:42.718400 16495 net.cpp:386] inception_3b/relu_5x5 -> inception_3b/5x5 (in-place)
I0403 15:55:42.718601 16495 net.cpp:141] Setting up inception_3b/relu_5x5
I0403 15:55:42.718632 16495 net.cpp:148] Top shape: 24 96 28 28 (1806336)
I0403 15:55:42.718647 16495 net.cpp:156] Memory required for data: 744211488
I0403 15:55:42.718663 16495 layer_factory.hpp:77] Creating layer inception_3b/pool
I0403 15:55:42.718683 16495 net.cpp:91] Creating Layer inception_3b/pool
I0403 15:55:42.718700 16495 net.cpp:425] inception_3b/pool <- inception_3a/output_inception_3a/output_0_split_3
I0403 15:55:42.718719 16495 net.cpp:399] inception_3b/pool -> inception_3b/pool
I0403 15:55:42.718780 16495 net.cpp:141] Setting up inception_3b/pool
I0403 15:55:42.718804 16495 net.cpp:148] Top shape: 24 256 28 28 (4816896)
I0403 15:55:42.718821 16495 net.cpp:156] Memory required for data: 763479072
I0403 15:55:42.718837 16495 layer_factory.hpp:77] Creating layer inception_3b/pool_proj
I0403 15:55:42.718859 16495 net.cpp:91] Creating Layer inception_3b/pool_proj
I0403 15:55:42.718878 16495 net.cpp:425] inception_3b/pool_proj <- inception_3b/pool
I0403 15:55:42.718900 16495 net.cpp:399] inception_3b/pool_proj -> inception_3b/pool_proj
I0403 15:55:42.719980 16495 net.cpp:141] Setting up inception_3b/pool_proj
I0403 15:55:42.720008 16495 net.cpp:148] Top shape: 24 64 28 28 (1204224)
I0403 15:55:42.720026 16495 net.cpp:156] Memory required for data: 768295968
I0403 15:55:42.720046 16495 layer_factory.hpp:77] Creating layer inception_3b/relu_pool_proj
I0403 15:55:42.720067 16495 net.cpp:91] Creating Layer inception_3b/relu_pool_proj
I0403 15:55:42.720084 16495 net.cpp:425] inception_3b/relu_pool_proj <- inception_3b/pool_proj
I0403 15:55:42.720103 16495 net.cpp:386] inception_3b/relu_pool_proj -> inception_3b/pool_proj (in-place)
I0403 15:55:42.720507 16495 net.cpp:141] Setting up inception_3b/relu_pool_proj
I0403 15:55:42.720535 16495 net.cpp:148] Top shape: 24 64 28 28 (1204224)
I0403 15:55:42.720551 16495 net.cpp:156] Memory required for data: 773112864
I0403 15:55:42.720568 16495 layer_factory.hpp:77] Creating layer inception_3b/output
I0403 15:55:42.720589 16495 net.cpp:91] Creating Layer inception_3b/output
I0403 15:55:42.720610 16495 net.cpp:425] inception_3b/output <- inception_3b/1x1
I0403 15:55:42.720630 16495 net.cpp:425] inception_3b/output <- inception_3b/3x3
I0403 15:55:42.720649 16495 net.cpp:425] inception_3b/output <- inception_3b/5x5
I0403 15:55:42.720666 16495 net.cpp:425] inception_3b/output <- inception_3b/pool_proj
I0403 15:55:42.720685 16495 net.cpp:399] inception_3b/output -> inception_3b/output
I0403 15:55:42.720731 16495 net.cpp:141] Setting up inception_3b/output
I0403 15:55:42.720757 16495 net.cpp:148] Top shape: 24 480 28 28 (9031680)
I0403 15:55:42.720772 16495 net.cpp:156] Memory required for data: 809239584
I0403 15:55:42.720788 16495 layer_factory.hpp:77] Creating layer pool3/3x3_s2
I0403 15:55:42.720806 16495 net.cpp:91] Creating Layer pool3/3x3_s2
I0403 15:55:42.720824 16495 net.cpp:425] pool3/3x3_s2 <- inception_3b/output
I0403 15:55:42.720844 16495 net.cpp:399] pool3/3x3_s2 -> pool3/3x3_s2
I0403 15:55:42.720918 16495 net.cpp:141] Setting up pool3/3x3_s2
I0403 15:55:42.720943 16495 net.cpp:148] Top shape: 24 480 14 14 (2257920)
I0403 15:55:42.720959 16495 net.cpp:156] Memory required for data: 818271264
I0403 15:55:42.720974 16495 layer_factory.hpp:77] Creating layer pool3/3x3_s2_pool3/3x3_s2_0_split
I0403 15:55:42.720995 16495 net.cpp:91] Creating Layer pool3/3x3_s2_pool3/3x3_s2_0_split
I0403 15:55:42.721012 16495 net.cpp:425] pool3/3x3_s2_pool3/3x3_s2_0_split <- pool3/3x3_s2
I0403 15:55:42.721032 16495 net.cpp:399] pool3/3x3_s2_pool3/3x3_s2_0_split -> pool3/3x3_s2_pool3/3x3_s2_0_split_0
I0403 15:55:42.721055 16495 net.cpp:399] pool3/3x3_s2_pool3/3x3_s2_0_split -> pool3/3x3_s2_pool3/3x3_s2_0_split_1
I0403 15:55:42.721074 16495 net.cpp:399] pool3/3x3_s2_pool3/3x3_s2_0_split -> pool3/3x3_s2_pool3/3x3_s2_0_split_2
I0403 15:55:42.721096 16495 net.cpp:399] pool3/3x3_s2_pool3/3x3_s2_0_split -> pool3/3x3_s2_pool3/3x3_s2_0_split_3
I0403 15:55:42.721174 16495 net.cpp:141] Setting up pool3/3x3_s2_pool3/3x3_s2_0_split
I0403 15:55:42.721199 16495 net.cpp:148] Top shape: 24 480 14 14 (2257920)
I0403 15:55:42.721216 16495 net.cpp:148] Top shape: 24 480 14 14 (2257920)
I0403 15:55:42.721232 16495 net.cpp:148] Top shape: 24 480 14 14 (2257920)
I0403 15:55:42.721249 16495 net.cpp:148] Top shape: 24 480 14 14 (2257920)
I0403 15:55:42.721263 16495 net.cpp:156] Memory required for data: 854397984
I0403 15:55:42.721279 16495 layer_factory.hpp:77] Creating layer inception_4a/1x1
I0403 15:55:42.721302 16495 net.cpp:91] Creating Layer inception_4a/1x1
I0403 15:55:42.721319 16495 net.cpp:425] inception_4a/1x1 <- pool3/3x3_s2_pool3/3x3_s2_0_split_0
I0403 15:55:42.721343 16495 net.cpp:399] inception_4a/1x1 -> inception_4a/1x1
I0403 15:55:42.723024 16495 net.cpp:141] Setting up inception_4a/1x1
I0403 15:55:42.723057 16495 net.cpp:148] Top shape: 24 192 14 14 (903168)
I0403 15:55:42.723076 16495 net.cpp:156] Memory required for data: 858010656
I0403 15:55:42.723095 16495 layer_factory.hpp:77] Creating layer inception_4a/relu_1x1
I0403 15:55:42.723115 16495 net.cpp:91] Creating Layer inception_4a/relu_1x1
I0403 15:55:42.723132 16495 net.cpp:425] inception_4a/relu_1x1 <- inception_4a/1x1
I0403 15:55:42.723152 16495 net.cpp:386] inception_4a/relu_1x1 -> inception_4a/1x1 (in-place)
I0403 15:55:42.723342 16495 net.cpp:141] Setting up inception_4a/relu_1x1
I0403 15:55:42.723371 16495 net.cpp:148] Top shape: 24 192 14 14 (903168)
I0403 15:55:42.723387 16495 net.cpp:156] Memory required for data: 861623328
I0403 15:55:42.723403 16495 layer_factory.hpp:77] Creating layer inception_4a/3x3_reduce
I0403 15:55:42.723428 16495 net.cpp:91] Creating Layer inception_4a/3x3_reduce
I0403 15:55:42.723448 16495 net.cpp:425] inception_4a/3x3_reduce <- pool3/3x3_s2_pool3/3x3_s2_0_split_1
I0403 15:55:42.723471 16495 net.cpp:399] inception_4a/3x3_reduce -> inception_4a/3x3_reduce
I0403 15:55:42.724836 16495 net.cpp:141] Setting up inception_4a/3x3_reduce
I0403 15:55:42.724867 16495 net.cpp:148] Top shape: 24 96 14 14 (451584)
I0403 15:55:42.724885 16495 net.cpp:156] Memory required for data: 863429664
I0403 15:55:42.724913 16495 layer_factory.hpp:77] Creating layer inception_4a/relu_3x3_reduce
I0403 15:55:42.724936 16495 net.cpp:91] Creating Layer inception_4a/relu_3x3_reduce
I0403 15:55:42.724953 16495 net.cpp:425] inception_4a/relu_3x3_reduce <- inception_4a/3x3_reduce
I0403 15:55:42.724972 16495 net.cpp:386] inception_4a/relu_3x3_reduce -> inception_4a/3x3_reduce (in-place)
I0403 15:55:42.725163 16495 net.cpp:141] Setting up inception_4a/relu_3x3_reduce
I0403 15:55:42.725193 16495 net.cpp:148] Top shape: 24 96 14 14 (451584)
I0403 15:55:42.725210 16495 net.cpp:156] Memory required for data: 865236000
I0403 15:55:42.725227 16495 layer_factory.hpp:77] Creating layer inception_4a/3x3
I0403 15:55:42.725251 16495 net.cpp:91] Creating Layer inception_4a/3x3
I0403 15:55:42.725270 16495 net.cpp:425] inception_4a/3x3 <- inception_4a/3x3_reduce
I0403 15:55:42.725291 16495 net.cpp:399] inception_4a/3x3 -> inception_4a/3x3
I0403 15:55:42.728118 16495 net.cpp:141] Setting up inception_4a/3x3
I0403 15:55:42.728150 16495 net.cpp:148] Top shape: 24 208 14 14 (978432)
I0403 15:55:42.728166 16495 net.cpp:156] Memory required for data: 869149728
I0403 15:55:42.728186 16495 layer_factory.hpp:77] Creating layer inception_4a/relu_3x3
I0403 15:55:42.728205 16495 net.cpp:91] Creating Layer inception_4a/relu_3x3
I0403 15:55:42.728224 16495 net.cpp:425] inception_4a/relu_3x3 <- inception_4a/3x3
I0403 15:55:42.728245 16495 net.cpp:386] inception_4a/relu_3x3 -> inception_4a/3x3 (in-place)
I0403 15:55:42.728538 16495 net.cpp:141] Setting up inception_4a/relu_3x3
I0403 15:55:42.728567 16495 net.cpp:148] Top shape: 24 208 14 14 (978432)
I0403 15:55:42.728584 16495 net.cpp:156] Memory required for data: 873063456
I0403 15:55:42.728600 16495 layer_factory.hpp:77] Creating layer inception_4a/5x5_reduce
I0403 15:55:42.728629 16495 net.cpp:91] Creating Layer inception_4a/5x5_reduce
I0403 15:55:42.728649 16495 net.cpp:425] inception_4a/5x5_reduce <- pool3/3x3_s2_pool3/3x3_s2_0_split_2
I0403 15:55:42.728674 16495 net.cpp:399] inception_4a/5x5_reduce -> inception_4a/5x5_reduce
I0403 15:55:42.729754 16495 net.cpp:141] Setting up inception_4a/5x5_reduce
I0403 15:55:42.729784 16495 net.cpp:148] Top shape: 24 16 14 14 (75264)
I0403 15:55:42.729801 16495 net.cpp:156] Memory required for data: 873364512
I0403 15:55:42.729821 16495 layer_factory.hpp:77] Creating layer inception_4a/relu_5x5_reduce
I0403 15:55:42.729841 16495 net.cpp:91] Creating Layer inception_4a/relu_5x5_reduce
I0403 15:55:42.729859 16495 net.cpp:425] inception_4a/relu_5x5_reduce <- inception_4a/5x5_reduce
I0403 15:55:42.729882 16495 net.cpp:386] inception_4a/relu_5x5_reduce -> inception_4a/5x5_reduce (in-place)
I0403 15:55:42.730068 16495 net.cpp:141] Setting up inception_4a/relu_5x5_reduce
I0403 15:55:42.730098 16495 net.cpp:148] Top shape: 24 16 14 14 (75264)
I0403 15:55:42.730113 16495 net.cpp:156] Memory required for data: 873665568
I0403 15:55:42.730129 16495 layer_factory.hpp:77] Creating layer inception_4a/5x5
I0403 15:55:42.730152 16495 net.cpp:91] Creating Layer inception_4a/5x5
I0403 15:55:42.730172 16495 net.cpp:425] inception_4a/5x5 <- inception_4a/5x5_reduce
I0403 15:55:42.730195 16495 net.cpp:399] inception_4a/5x5 -> inception_4a/5x5
I0403 15:55:42.731338 16495 net.cpp:141] Setting up inception_4a/5x5
I0403 15:55:42.731366 16495 net.cpp:148] Top shape: 24 48 14 14 (225792)
I0403 15:55:42.731382 16495 net.cpp:156] Memory required for data: 874568736
I0403 15:55:42.731401 16495 layer_factory.hpp:77] Creating layer inception_4a/relu_5x5
I0403 15:55:42.731425 16495 net.cpp:91] Creating Layer inception_4a/relu_5x5
I0403 15:55:42.731446 16495 net.cpp:425] inception_4a/relu_5x5 <- inception_4a/5x5
I0403 15:55:42.731464 16495 net.cpp:386] inception_4a/relu_5x5 -> inception_4a/5x5 (in-place)
I0403 15:55:42.731659 16495 net.cpp:141] Setting up inception_4a/relu_5x5
I0403 15:55:42.731689 16495 net.cpp:148] Top shape: 24 48 14 14 (225792)
I0403 15:55:42.731706 16495 net.cpp:156] Memory required for data: 875471904
I0403 15:55:42.731724 16495 layer_factory.hpp:77] Creating layer inception_4a/pool
I0403 15:55:42.731741 16495 net.cpp:91] Creating Layer inception_4a/pool
I0403 15:55:42.731758 16495 net.cpp:425] inception_4a/pool <- pool3/3x3_s2_pool3/3x3_s2_0_split_3
I0403 15:55:42.731782 16495 net.cpp:399] inception_4a/pool -> inception_4a/pool
I0403 15:55:42.731849 16495 net.cpp:141] Setting up inception_4a/pool
I0403 15:55:42.731875 16495 net.cpp:148] Top shape: 24 480 14 14 (2257920)
I0403 15:55:42.731891 16495 net.cpp:156] Memory required for data: 884503584
I0403 15:55:42.731906 16495 layer_factory.hpp:77] Creating layer inception_4a/pool_proj
I0403 15:55:42.731930 16495 net.cpp:91] Creating Layer inception_4a/pool_proj
I0403 15:55:42.731950 16495 net.cpp:425] inception_4a/pool_proj <- inception_4a/pool
I0403 15:55:42.731971 16495 net.cpp:399] inception_4a/pool_proj -> inception_4a/pool_proj
I0403 15:55:42.733202 16495 net.cpp:141] Setting up inception_4a/pool_proj
I0403 15:55:42.733233 16495 net.cpp:148] Top shape: 24 64 14 14 (301056)
I0403 15:55:42.733268 16495 net.cpp:156] Memory required for data: 885707808
I0403 15:55:42.733289 16495 layer_factory.hpp:77] Creating layer inception_4a/relu_pool_proj
I0403 15:55:42.733314 16495 net.cpp:91] Creating Layer inception_4a/relu_pool_proj
I0403 15:55:42.733332 16495 net.cpp:425] inception_4a/relu_pool_proj <- inception_4a/pool_proj
I0403 15:55:42.733353 16495 net.cpp:386] inception_4a/relu_pool_proj -> inception_4a/pool_proj (in-place)
I0403 15:55:42.733654 16495 net.cpp:141] Setting up inception_4a/relu_pool_proj
I0403 15:55:42.733682 16495 net.cpp:148] Top shape: 24 64 14 14 (301056)
I0403 15:55:42.733700 16495 net.cpp:156] Memory required for data: 886912032
I0403 15:55:42.733716 16495 layer_factory.hpp:77] Creating layer inception_4a/output
I0403 15:55:42.733737 16495 net.cpp:91] Creating Layer inception_4a/output
I0403 15:55:42.733755 16495 net.cpp:425] inception_4a/output <- inception_4a/1x1
I0403 15:55:42.733775 16495 net.cpp:425] inception_4a/output <- inception_4a/3x3
I0403 15:55:42.733793 16495 net.cpp:425] inception_4a/output <- inception_4a/5x5
I0403 15:55:42.733809 16495 net.cpp:425] inception_4a/output <- inception_4a/pool_proj
I0403 15:55:42.733829 16495 net.cpp:399] inception_4a/output -> inception_4a/output
I0403 15:55:42.733877 16495 net.cpp:141] Setting up inception_4a/output
I0403 15:55:42.733902 16495 net.cpp:148] Top shape: 24 512 14 14 (2408448)
I0403 15:55:42.733918 16495 net.cpp:156] Memory required for data: 896545824
I0403 15:55:42.733934 16495 layer_factory.hpp:77] Creating layer inception_4a/output_inception_4a/output_0_split
I0403 15:55:42.733952 16495 net.cpp:91] Creating Layer inception_4a/output_inception_4a/output_0_split
I0403 15:55:42.733969 16495 net.cpp:425] inception_4a/output_inception_4a/output_0_split <- inception_4a/output
I0403 15:55:42.733991 16495 net.cpp:399] inception_4a/output_inception_4a/output_0_split -> inception_4a/output_inception_4a/output_0_split_0
I0403 15:55:42.734015 16495 net.cpp:399] inception_4a/output_inception_4a/output_0_split -> inception_4a/output_inception_4a/output_0_split_1
I0403 15:55:42.734037 16495 net.cpp:399] inception_4a/output_inception_4a/output_0_split -> inception_4a/output_inception_4a/output_0_split_2
I0403 15:55:42.734062 16495 net.cpp:399] inception_4a/output_inception_4a/output_0_split -> inception_4a/output_inception_4a/output_0_split_3
I0403 15:55:42.734086 16495 net.cpp:399] inception_4a/output_inception_4a/output_0_split -> inception_4a/output_inception_4a/output_0_split_4
I0403 15:55:42.734184 16495 net.cpp:141] Setting up inception_4a/output_inception_4a/output_0_split
I0403 15:55:42.734210 16495 net.cpp:148] Top shape: 24 512 14 14 (2408448)
I0403 15:55:42.734230 16495 net.cpp:148] Top shape: 24 512 14 14 (2408448)
I0403 15:55:42.734246 16495 net.cpp:148] Top shape: 24 512 14 14 (2408448)
I0403 15:55:42.734263 16495 net.cpp:148] Top shape: 24 512 14 14 (2408448)
I0403 15:55:42.734279 16495 net.cpp:148] Top shape: 24 512 14 14 (2408448)
I0403 15:55:42.734294 16495 net.cpp:156] Memory required for data: 944714784
I0403 15:55:42.734310 16495 layer_factory.hpp:77] Creating layer loss1/ave_pool
I0403 15:55:42.734329 16495 net.cpp:91] Creating Layer loss1/ave_pool
I0403 15:55:42.734347 16495 net.cpp:425] loss1/ave_pool <- inception_4a/output_inception_4a/output_0_split_0
I0403 15:55:42.734369 16495 net.cpp:399] loss1/ave_pool -> loss1/ave_pool
I0403 15:55:42.734589 16495 net.cpp:141] Setting up loss1/ave_pool
I0403 15:55:42.734629 16495 net.cpp:148] Top shape: 24 512 4 4 (196608)
I0403 15:55:42.734648 16495 net.cpp:156] Memory required for data: 945501216
I0403 15:55:42.734665 16495 layer_factory.hpp:77] Creating layer loss1/conv
I0403 15:55:42.734693 16495 net.cpp:91] Creating Layer loss1/conv
I0403 15:55:42.734714 16495 net.cpp:425] loss1/conv <- loss1/ave_pool
I0403 15:55:42.734733 16495 net.cpp:399] loss1/conv -> loss1/conv
I0403 15:55:42.736229 16495 net.cpp:141] Setting up loss1/conv
I0403 15:55:42.736260 16495 net.cpp:148] Top shape: 24 128 4 4 (49152)
I0403 15:55:42.736279 16495 net.cpp:156] Memory required for data: 945697824
I0403 15:55:42.736315 16495 layer_factory.hpp:77] Creating layer loss1/relu_conv
I0403 15:55:42.736336 16495 net.cpp:91] Creating Layer loss1/relu_conv
I0403 15:55:42.736354 16495 net.cpp:425] loss1/relu_conv <- loss1/conv
I0403 15:55:42.736377 16495 net.cpp:386] loss1/relu_conv -> loss1/conv (in-place)
I0403 15:55:42.736690 16495 net.cpp:141] Setting up loss1/relu_conv
I0403 15:55:42.736717 16495 net.cpp:148] Top shape: 24 128 4 4 (49152)
I0403 15:55:42.736733 16495 net.cpp:156] Memory required for data: 945894432
I0403 15:55:42.736749 16495 layer_factory.hpp:77] Creating layer loss1/fc
I0403 15:55:42.736775 16495 net.cpp:91] Creating Layer loss1/fc
I0403 15:55:42.736795 16495 net.cpp:425] loss1/fc <- loss1/conv
I0403 15:55:42.736819 16495 net.cpp:399] loss1/fc -> loss1/fc
I0403 15:55:42.754735 16495 net.cpp:141] Setting up loss1/fc
I0403 15:55:42.754773 16495 net.cpp:148] Top shape: 24 1024 (24576)
I0403 15:55:42.754792 16495 net.cpp:156] Memory required for data: 945992736
I0403 15:55:42.754812 16495 layer_factory.hpp:77] Creating layer loss1/relu_fc
I0403 15:55:42.754830 16495 net.cpp:91] Creating Layer loss1/relu_fc
I0403 15:55:42.754848 16495 net.cpp:425] loss1/relu_fc <- loss1/fc
I0403 15:55:42.754865 16495 net.cpp:386] loss1/relu_fc -> loss1/fc (in-place)
I0403 15:55:42.755056 16495 net.cpp:141] Setting up loss1/relu_fc
I0403 15:55:42.755082 16495 net.cpp:148] Top shape: 24 1024 (24576)
I0403 15:55:42.755097 16495 net.cpp:156] Memory required for data: 946091040
I0403 15:55:42.755111 16495 layer_factory.hpp:77] Creating layer loss1/drop_fc
I0403 15:55:42.755137 16495 net.cpp:91] Creating Layer loss1/drop_fc
I0403 15:55:42.755156 16495 net.cpp:425] loss1/drop_fc <- loss1/fc
I0403 15:55:42.755177 16495 net.cpp:386] loss1/drop_fc -> loss1/fc (in-place)
I0403 15:55:42.755228 16495 net.cpp:141] Setting up loss1/drop_fc
I0403 15:55:42.755252 16495 net.cpp:148] Top shape: 24 1024 (24576)
I0403 15:55:42.755267 16495 net.cpp:156] Memory required for data: 946189344
I0403 15:55:42.755282 16495 layer_factory.hpp:77] Creating layer loss1/classifier_plantvillage
I0403 15:55:42.755305 16495 net.cpp:91] Creating Layer loss1/classifier_plantvillage
I0403 15:55:42.755322 16495 net.cpp:425] loss1/classifier_plantvillage <- loss1/fc
I0403 15:55:42.755342 16495 net.cpp:399] loss1/classifier_plantvillage -> loss1/classifier_plantvillage
I0403 15:55:42.756243 16495 net.cpp:141] Setting up loss1/classifier_plantvillage
I0403 15:55:42.756274 16495 net.cpp:148] Top shape: 24 38 (912)
I0403 15:55:42.756291 16495 net.cpp:156] Memory required for data: 946192992
I0403 15:55:42.756311 16495 layer_factory.hpp:77] Creating layer loss1/classifier_plantvillage_loss1/classifier_plantvillage_0_split
I0403 15:55:42.756330 16495 net.cpp:91] Creating Layer loss1/classifier_plantvillage_loss1/classifier_plantvillage_0_split
I0403 15:55:42.756345 16495 net.cpp:425] loss1/classifier_plantvillage_loss1/classifier_plantvillage_0_split <- loss1/classifier_plantvillage
I0403 15:55:42.756363 16495 net.cpp:399] loss1/classifier_plantvillage_loss1/classifier_plantvillage_0_split -> loss1/classifier_plantvillage_loss1/classifier_plantvillage_0_split_0
I0403 15:55:42.756386 16495 net.cpp:399] loss1/classifier_plantvillage_loss1/classifier_plantvillage_0_split -> loss1/classifier_plantvillage_loss1/classifier_plantvillage_0_split_1
I0403 15:55:42.756408 16495 net.cpp:399] loss1/classifier_plantvillage_loss1/classifier_plantvillage_0_split -> loss1/classifier_plantvillage_loss1/classifier_plantvillage_0_split_2
I0403 15:55:42.756475 16495 net.cpp:141] Setting up loss1/classifier_plantvillage_loss1/classifier_plantvillage_0_split
I0403 15:55:42.756500 16495 net.cpp:148] Top shape: 24 38 (912)
I0403 15:55:42.756516 16495 net.cpp:148] Top shape: 24 38 (912)
I0403 15:55:42.756533 16495 net.cpp:148] Top shape: 24 38 (912)
I0403 15:55:42.756549 16495 net.cpp:156] Memory required for data: 946203936
I0403 15:55:42.756566 16495 layer_factory.hpp:77] Creating layer inception_4b/1x1
I0403 15:55:42.756585 16495 net.cpp:91] Creating Layer inception_4b/1x1
I0403 15:55:42.756620 16495 net.cpp:425] inception_4b/1x1 <- inception_4a/output_inception_4a/output_0_split_1
I0403 15:55:42.756644 16495 net.cpp:399] inception_4b/1x1 -> inception_4b/1x1
I0403 15:55:42.758285 16495 net.cpp:141] Setting up inception_4b/1x1
I0403 15:55:42.758314 16495 net.cpp:148] Top shape: 24 160 14 14 (752640)
I0403 15:55:42.758330 16495 net.cpp:156] Memory required for data: 949214496
I0403 15:55:42.758350 16495 layer_factory.hpp:77] Creating layer inception_4b/relu_1x1
I0403 15:55:42.758368 16495 net.cpp:91] Creating Layer inception_4b/relu_1x1
I0403 15:55:42.758385 16495 net.cpp:425] inception_4b/relu_1x1 <- inception_4b/1x1
I0403 15:55:42.758404 16495 net.cpp:386] inception_4b/relu_1x1 -> inception_4b/1x1 (in-place)
I0403 15:55:42.758587 16495 net.cpp:141] Setting up inception_4b/relu_1x1
I0403 15:55:42.758618 16495 net.cpp:148] Top shape: 24 160 14 14 (752640)
I0403 15:55:42.758633 16495 net.cpp:156] Memory required for data: 952225056
I0403 15:55:42.758649 16495 layer_factory.hpp:77] Creating layer inception_4b/3x3_reduce
I0403 15:55:42.758672 16495 net.cpp:91] Creating Layer inception_4b/3x3_reduce
I0403 15:55:42.758690 16495 net.cpp:425] inception_4b/3x3_reduce <- inception_4a/output_inception_4a/output_0_split_2
I0403 15:55:42.758715 16495 net.cpp:399] inception_4b/3x3_reduce -> inception_4b/3x3_reduce
I0403 15:55:42.760072 16495 net.cpp:141] Setting up inception_4b/3x3_reduce
I0403 15:55:42.760100 16495 net.cpp:148] Top shape: 24 112 14 14 (526848)
I0403 15:55:42.760116 16495 net.cpp:156] Memory required for data: 954332448
I0403 15:55:42.760135 16495 layer_factory.hpp:77] Creating layer inception_4b/relu_3x3_reduce
I0403 15:55:42.760157 16495 net.cpp:91] Creating Layer inception_4b/relu_3x3_reduce
I0403 15:55:42.760176 16495 net.cpp:425] inception_4b/relu_3x3_reduce <- inception_4b/3x3_reduce
I0403 15:55:42.760195 16495 net.cpp:386] inception_4b/relu_3x3_reduce -> inception_4b/3x3_reduce (in-place)
I0403 15:55:42.760480 16495 net.cpp:141] Setting up inception_4b/relu_3x3_reduce
I0403 15:55:42.760507 16495 net.cpp:148] Top shape: 24 112 14 14 (526848)
I0403 15:55:42.760522 16495 net.cpp:156] Memory required for data: 956439840
I0403 15:55:42.760537 16495 layer_factory.hpp:77] Creating layer inception_4b/3x3
I0403 15:55:42.760561 16495 net.cpp:91] Creating Layer inception_4b/3x3
I0403 15:55:42.760581 16495 net.cpp:425] inception_4b/3x3 <- inception_4b/3x3_reduce
I0403 15:55:42.760607 16495 net.cpp:399] inception_4b/3x3 -> inception_4b/3x3
I0403 15:55:42.763569 16495 net.cpp:141] Setting up inception_4b/3x3
I0403 15:55:42.763604 16495 net.cpp:148] Top shape: 24 224 14 14 (1053696)
I0403 15:55:42.763624 16495 net.cpp:156] Memory required for data: 960654624
I0403 15:55:42.763644 16495 layer_factory.hpp:77] Creating layer inception_4b/relu_3x3
I0403 15:55:42.763662 16495 net.cpp:91] Creating Layer inception_4b/relu_3x3
I0403 15:55:42.763679 16495 net.cpp:425] inception_4b/relu_3x3 <- inception_4b/3x3
I0403 15:55:42.763697 16495 net.cpp:386] inception_4b/relu_3x3 -> inception_4b/3x3 (in-place)
I0403 15:55:42.763881 16495 net.cpp:141] Setting up inception_4b/relu_3x3
I0403 15:55:42.763907 16495 net.cpp:148] Top shape: 24 224 14 14 (1053696)
I0403 15:55:42.763923 16495 net.cpp:156] Memory required for data: 964869408
I0403 15:55:42.763937 16495 layer_factory.hpp:77] Creating layer inception_4b/5x5_reduce
I0403 15:55:42.763962 16495 net.cpp:91] Creating Layer inception_4b/5x5_reduce
I0403 15:55:42.763980 16495 net.cpp:425] inception_4b/5x5_reduce <- inception_4a/output_inception_4a/output_0_split_3
I0403 15:55:42.764003 16495 net.cpp:399] inception_4b/5x5_reduce -> inception_4b/5x5_reduce
I0403 15:55:42.765100 16495 net.cpp:141] Setting up inception_4b/5x5_reduce
I0403 15:55:42.765130 16495 net.cpp:148] Top shape: 24 24 14 14 (112896)
I0403 15:55:42.765146 16495 net.cpp:156] Memory required for data: 965320992
I0403 15:55:42.765164 16495 layer_factory.hpp:77] Creating layer inception_4b/relu_5x5_reduce
I0403 15:55:42.765187 16495 net.cpp:91] Creating Layer inception_4b/relu_5x5_reduce
I0403 15:55:42.765219 16495 net.cpp:425] inception_4b/relu_5x5_reduce <- inception_4b/5x5_reduce
I0403 15:55:42.765239 16495 net.cpp:386] inception_4b/relu_5x5_reduce -> inception_4b/5x5_reduce (in-place)
I0403 15:55:42.765424 16495 net.cpp:141] Setting up inception_4b/relu_5x5_reduce
I0403 15:55:42.765450 16495 net.cpp:148] Top shape: 24 24 14 14 (112896)
I0403 15:55:42.765466 16495 net.cpp:156] Memory required for data: 965772576
I0403 15:55:42.765481 16495 layer_factory.hpp:77] Creating layer inception_4b/5x5
I0403 15:55:42.765506 16495 net.cpp:91] Creating Layer inception_4b/5x5
I0403 15:55:42.765524 16495 net.cpp:425] inception_4b/5x5 <- inception_4b/5x5_reduce
I0403 15:55:42.765544 16495 net.cpp:399] inception_4b/5x5 -> inception_4b/5x5
I0403 15:55:42.766785 16495 net.cpp:141] Setting up inception_4b/5x5
I0403 15:55:42.766813 16495 net.cpp:148] Top shape: 24 64 14 14 (301056)
I0403 15:55:42.766829 16495 net.cpp:156] Memory required for data: 966976800
I0403 15:55:42.766849 16495 layer_factory.hpp:77] Creating layer inception_4b/relu_5x5
I0403 15:55:42.766867 16495 net.cpp:91] Creating Layer inception_4b/relu_5x5
I0403 15:55:42.766885 16495 net.cpp:425] inception_4b/relu_5x5 <- inception_4b/5x5
I0403 15:55:42.766906 16495 net.cpp:386] inception_4b/relu_5x5 -> inception_4b/5x5 (in-place)
I0403 15:55:42.767199 16495 net.cpp:141] Setting up inception_4b/relu_5x5
I0403 15:55:42.767225 16495 net.cpp:148] Top shape: 24 64 14 14 (301056)
I0403 15:55:42.767241 16495 net.cpp:156] Memory required for data: 968181024
I0403 15:55:42.767256 16495 layer_factory.hpp:77] Creating layer inception_4b/pool
I0403 15:55:42.767273 16495 net.cpp:91] Creating Layer inception_4b/pool
I0403 15:55:42.767290 16495 net.cpp:425] inception_4b/pool <- inception_4a/output_inception_4a/output_0_split_4
I0403 15:55:42.767310 16495 net.cpp:399] inception_4b/pool -> inception_4b/pool
I0403 15:55:42.767376 16495 net.cpp:141] Setting up inception_4b/pool
I0403 15:55:42.767401 16495 net.cpp:148] Top shape: 24 512 14 14 (2408448)
I0403 15:55:42.767416 16495 net.cpp:156] Memory required for data: 977814816
I0403 15:55:42.767431 16495 layer_factory.hpp:77] Creating layer inception_4b/pool_proj
I0403 15:55:42.767455 16495 net.cpp:91] Creating Layer inception_4b/pool_proj
I0403 15:55:42.767473 16495 net.cpp:425] inception_4b/pool_proj <- inception_4b/pool
I0403 15:55:42.767491 16495 net.cpp:399] inception_4b/pool_proj -> inception_4b/pool_proj
I0403 15:55:42.768712 16495 net.cpp:141] Setting up inception_4b/pool_proj
I0403 15:55:42.768741 16495 net.cpp:148] Top shape: 24 64 14 14 (301056)
I0403 15:55:42.768759 16495 net.cpp:156] Memory required for data: 979019040
I0403 15:55:42.768776 16495 layer_factory.hpp:77] Creating layer inception_4b/relu_pool_proj
I0403 15:55:42.768796 16495 net.cpp:91] Creating Layer inception_4b/relu_pool_proj
I0403 15:55:42.768813 16495 net.cpp:425] inception_4b/relu_pool_proj <- inception_4b/pool_proj
I0403 15:55:42.768833 16495 net.cpp:386] inception_4b/relu_pool_proj -> inception_4b/pool_proj (in-place)
I0403 15:55:42.769017 16495 net.cpp:141] Setting up inception_4b/relu_pool_proj
I0403 15:55:42.769043 16495 net.cpp:148] Top shape: 24 64 14 14 (301056)
I0403 15:55:42.769058 16495 net.cpp:156] Memory required for data: 980223264
I0403 15:55:42.769074 16495 layer_factory.hpp:77] Creating layer inception_4b/output
I0403 15:55:42.769093 16495 net.cpp:91] Creating Layer inception_4b/output
I0403 15:55:42.769111 16495 net.cpp:425] inception_4b/output <- inception_4b/1x1
I0403 15:55:42.769129 16495 net.cpp:425] inception_4b/output <- inception_4b/3x3
I0403 15:55:42.769145 16495 net.cpp:425] inception_4b/output <- inception_4b/5x5
I0403 15:55:42.769160 16495 net.cpp:425] inception_4b/output <- inception_4b/pool_proj
I0403 15:55:42.769177 16495 net.cpp:399] inception_4b/output -> inception_4b/output
I0403 15:55:42.769225 16495 net.cpp:141] Setting up inception_4b/output
I0403 15:55:42.769249 16495 net.cpp:148] Top shape: 24 512 14 14 (2408448)
I0403 15:55:42.769265 16495 net.cpp:156] Memory required for data: 989857056
I0403 15:55:42.769294 16495 layer_factory.hpp:77] Creating layer inception_4b/output_inception_4b/output_0_split
I0403 15:55:42.769314 16495 net.cpp:91] Creating Layer inception_4b/output_inception_4b/output_0_split
I0403 15:55:42.769330 16495 net.cpp:425] inception_4b/output_inception_4b/output_0_split <- inception_4b/output
I0403 15:55:42.769350 16495 net.cpp:399] inception_4b/output_inception_4b/output_0_split -> inception_4b/output_inception_4b/output_0_split_0
I0403 15:55:42.769371 16495 net.cpp:399] inception_4b/output_inception_4b/output_0_split -> inception_4b/output_inception_4b/output_0_split_1
I0403 15:55:42.769393 16495 net.cpp:399] inception_4b/output_inception_4b/output_0_split -> inception_4b/output_inception_4b/output_0_split_2
I0403 15:55:42.769415 16495 net.cpp:399] inception_4b/output_inception_4b/output_0_split -> inception_4b/output_inception_4b/output_0_split_3
I0403 15:55:42.769500 16495 net.cpp:141] Setting up inception_4b/output_inception_4b/output_0_split
I0403 15:55:42.769525 16495 net.cpp:148] Top shape: 24 512 14 14 (2408448)
I0403 15:55:42.769542 16495 net.cpp:148] Top shape: 24 512 14 14 (2408448)
I0403 15:55:42.769558 16495 net.cpp:148] Top shape: 24 512 14 14 (2408448)
I0403 15:55:42.769574 16495 net.cpp:148] Top shape: 24 512 14 14 (2408448)
I0403 15:55:42.769587 16495 net.cpp:156] Memory required for data: 1028392224
I0403 15:55:42.769606 16495 layer_factory.hpp:77] Creating layer inception_4c/1x1
I0403 15:55:42.769631 16495 net.cpp:91] Creating Layer inception_4c/1x1
I0403 15:55:42.769651 16495 net.cpp:425] inception_4c/1x1 <- inception_4b/output_inception_4b/output_0_split_0
I0403 15:55:42.769672 16495 net.cpp:399] inception_4c/1x1 -> inception_4c/1x1
I0403 15:55:42.771142 16495 net.cpp:141] Setting up inception_4c/1x1
I0403 15:55:42.771172 16495 net.cpp:148] Top shape: 24 128 14 14 (602112)
I0403 15:55:42.771193 16495 net.cpp:156] Memory required for data: 1030800672
I0403 15:55:42.771212 16495 layer_factory.hpp:77] Creating layer inception_4c/relu_1x1
I0403 15:55:42.771230 16495 net.cpp:91] Creating Layer inception_4c/relu_1x1
I0403 15:55:42.771247 16495 net.cpp:425] inception_4c/relu_1x1 <- inception_4c/1x1
I0403 15:55:42.771266 16495 net.cpp:386] inception_4c/relu_1x1 -> inception_4c/1x1 (in-place)
I0403 15:55:42.771461 16495 net.cpp:141] Setting up inception_4c/relu_1x1
I0403 15:55:42.771488 16495 net.cpp:148] Top shape: 24 128 14 14 (602112)
I0403 15:55:42.771505 16495 net.cpp:156] Memory required for data: 1033209120
I0403 15:55:42.771522 16495 layer_factory.hpp:77] Creating layer inception_4c/3x3_reduce
I0403 15:55:42.771543 16495 net.cpp:91] Creating Layer inception_4c/3x3_reduce
I0403 15:55:42.771564 16495 net.cpp:425] inception_4c/3x3_reduce <- inception_4b/output_inception_4b/output_0_split_1
I0403 15:55:42.771584 16495 net.cpp:399] inception_4c/3x3_reduce -> inception_4c/3x3_reduce
I0403 15:55:42.773581 16495 net.cpp:141] Setting up inception_4c/3x3_reduce
I0403 15:55:42.773617 16495 net.cpp:148] Top shape: 24 128 14 14 (602112)
I0403 15:55:42.773638 16495 net.cpp:156] Memory required for data: 1035617568
I0403 15:55:42.773658 16495 layer_factory.hpp:77] Creating layer inception_4c/relu_3x3_reduce
I0403 15:55:42.773677 16495 net.cpp:91] Creating Layer inception_4c/relu_3x3_reduce
I0403 15:55:42.773694 16495 net.cpp:425] inception_4c/relu_3x3_reduce <- inception_4c/3x3_reduce
I0403 15:55:42.773715 16495 net.cpp:386] inception_4c/relu_3x3_reduce -> inception_4c/3x3_reduce (in-place)
I0403 15:55:42.774010 16495 net.cpp:141] Setting up inception_4c/relu_3x3_reduce
I0403 15:55:42.774039 16495 net.cpp:148] Top shape: 24 128 14 14 (602112)
I0403 15:55:42.774055 16495 net.cpp:156] Memory required for data: 1038026016
I0403 15:55:42.774070 16495 layer_factory.hpp:77] Creating layer inception_4c/3x3
I0403 15:55:42.774094 16495 net.cpp:91] Creating Layer inception_4c/3x3
I0403 15:55:42.774114 16495 net.cpp:425] inception_4c/3x3 <- inception_4c/3x3_reduce
I0403 15:55:42.774137 16495 net.cpp:399] inception_4c/3x3 -> inception_4c/3x3
I0403 15:55:42.777887 16495 net.cpp:141] Setting up inception_4c/3x3
I0403 15:55:42.777930 16495 net.cpp:148] Top shape: 24 256 14 14 (1204224)
I0403 15:55:42.777948 16495 net.cpp:156] Memory required for data: 1042842912
I0403 15:55:42.777982 16495 layer_factory.hpp:77] Creating layer inception_4c/relu_3x3
I0403 15:55:42.778004 16495 net.cpp:91] Creating Layer inception_4c/relu_3x3
I0403 15:55:42.778022 16495 net.cpp:425] inception_4c/relu_3x3 <- inception_4c/3x3
I0403 15:55:42.778043 16495 net.cpp:386] inception_4c/relu_3x3 -> inception_4c/3x3 (in-place)
I0403 15:55:42.778234 16495 net.cpp:141] Setting up inception_4c/relu_3x3
I0403 15:55:42.778260 16495 net.cpp:148] Top shape: 24 256 14 14 (1204224)
I0403 15:55:42.778276 16495 net.cpp:156] Memory required for data: 1047659808
I0403 15:55:42.778292 16495 layer_factory.hpp:77] Creating layer inception_4c/5x5_reduce
I0403 15:55:42.778316 16495 net.cpp:91] Creating Layer inception_4c/5x5_reduce
I0403 15:55:42.778334 16495 net.cpp:425] inception_4c/5x5_reduce <- inception_4b/output_inception_4b/output_0_split_2
I0403 15:55:42.778357 16495 net.cpp:399] inception_4c/5x5_reduce -> inception_4c/5x5_reduce
I0403 15:55:42.779481 16495 net.cpp:141] Setting up inception_4c/5x5_reduce
I0403 15:55:42.779511 16495 net.cpp:148] Top shape: 24 24 14 14 (112896)
I0403 15:55:42.779528 16495 net.cpp:156] Memory required for data: 1048111392
I0403 15:55:42.779549 16495 layer_factory.hpp:77] Creating layer inception_4c/relu_5x5_reduce
I0403 15:55:42.779572 16495 net.cpp:91] Creating Layer inception_4c/relu_5x5_reduce
I0403 15:55:42.779589 16495 net.cpp:425] inception_4c/relu_5x5_reduce <- inception_4c/5x5_reduce
I0403 15:55:42.779611 16495 net.cpp:386] inception_4c/relu_5x5_reduce -> inception_4c/5x5_reduce (in-place)
I0403 15:55:42.779816 16495 net.cpp:141] Setting up inception_4c/relu_5x5_reduce
I0403 15:55:42.779844 16495 net.cpp:148] Top shape: 24 24 14 14 (112896)
I0403 15:55:42.779858 16495 net.cpp:156] Memory required for data: 1048562976
I0403 15:55:42.779875 16495 layer_factory.hpp:77] Creating layer inception_4c/5x5
I0403 15:55:42.779897 16495 net.cpp:91] Creating Layer inception_4c/5x5
I0403 15:55:42.779917 16495 net.cpp:425] inception_4c/5x5 <- inception_4c/5x5_reduce
I0403 15:55:42.779938 16495 net.cpp:399] inception_4c/5x5 -> inception_4c/5x5
I0403 15:55:42.781229 16495 net.cpp:141] Setting up inception_4c/5x5
I0403 15:55:42.781258 16495 net.cpp:148] Top shape: 24 64 14 14 (301056)
I0403 15:55:42.781275 16495 net.cpp:156] Memory required for data: 1049767200
I0403 15:55:42.781294 16495 layer_factory.hpp:77] Creating layer inception_4c/relu_5x5
I0403 15:55:42.781317 16495 net.cpp:91] Creating Layer inception_4c/relu_5x5
I0403 15:55:42.781337 16495 net.cpp:425] inception_4c/relu_5x5 <- inception_4c/5x5
I0403 15:55:42.781355 16495 net.cpp:386] inception_4c/relu_5x5 -> inception_4c/5x5 (in-place)
I0403 15:55:42.781679 16495 net.cpp:141] Setting up inception_4c/relu_5x5
I0403 15:55:42.781708 16495 net.cpp:148] Top shape: 24 64 14 14 (301056)
I0403 15:55:42.781725 16495 net.cpp:156] Memory required for data: 1050971424
I0403 15:55:42.781743 16495 layer_factory.hpp:77] Creating layer inception_4c/pool
I0403 15:55:42.781764 16495 net.cpp:91] Creating Layer inception_4c/pool
I0403 15:55:42.781782 16495 net.cpp:425] inception_4c/pool <- inception_4b/output_inception_4b/output_0_split_3
I0403 15:55:42.781813 16495 net.cpp:399] inception_4c/pool -> inception_4c/pool
I0403 15:55:42.781883 16495 net.cpp:141] Setting up inception_4c/pool
I0403 15:55:42.781908 16495 net.cpp:148] Top shape: 24 512 14 14 (2408448)
I0403 15:55:42.781924 16495 net.cpp:156] Memory required for data: 1060605216
I0403 15:55:42.781939 16495 layer_factory.hpp:77] Creating layer inception_4c/pool_proj
I0403 15:55:42.781962 16495 net.cpp:91] Creating Layer inception_4c/pool_proj
I0403 15:55:42.781981 16495 net.cpp:425] inception_4c/pool_proj <- inception_4c/pool
I0403 15:55:42.782004 16495 net.cpp:399] inception_4c/pool_proj -> inception_4c/pool_proj
I0403 15:55:42.783277 16495 net.cpp:141] Setting up inception_4c/pool_proj
I0403 15:55:42.783308 16495 net.cpp:148] Top shape: 24 64 14 14 (301056)
I0403 15:55:42.783339 16495 net.cpp:156] Memory required for data: 1061809440
I0403 15:55:42.783360 16495 layer_factory.hpp:77] Creating layer inception_4c/relu_pool_proj
I0403 15:55:42.783378 16495 net.cpp:91] Creating Layer inception_4c/relu_pool_proj
I0403 15:55:42.783395 16495 net.cpp:425] inception_4c/relu_pool_proj <- inception_4c/pool_proj
I0403 15:55:42.783416 16495 net.cpp:386] inception_4c/relu_pool_proj -> inception_4c/pool_proj (in-place)
I0403 15:55:42.783615 16495 net.cpp:141] Setting up inception_4c/relu_pool_proj
I0403 15:55:42.783643 16495 net.cpp:148] Top shape: 24 64 14 14 (301056)
I0403 15:55:42.783659 16495 net.cpp:156] Memory required for data: 1063013664
I0403 15:55:42.783675 16495 layer_factory.hpp:77] Creating layer inception_4c/output
I0403 15:55:42.783695 16495 net.cpp:91] Creating Layer inception_4c/output
I0403 15:55:42.783713 16495 net.cpp:425] inception_4c/output <- inception_4c/1x1
I0403 15:55:42.783731 16495 net.cpp:425] inception_4c/output <- inception_4c/3x3
I0403 15:55:42.783749 16495 net.cpp:425] inception_4c/output <- inception_4c/5x5
I0403 15:55:42.783767 16495 net.cpp:425] inception_4c/output <- inception_4c/pool_proj
I0403 15:55:42.783784 16495 net.cpp:399] inception_4c/output -> inception_4c/output
I0403 15:55:42.783834 16495 net.cpp:141] Setting up inception_4c/output
I0403 15:55:42.783860 16495 net.cpp:148] Top shape: 24 512 14 14 (2408448)
I0403 15:55:42.783875 16495 net.cpp:156] Memory required for data: 1072647456
I0403 15:55:42.783891 16495 layer_factory.hpp:77] Creating layer inception_4c/output_inception_4c/output_0_split
I0403 15:55:42.783910 16495 net.cpp:91] Creating Layer inception_4c/output_inception_4c/output_0_split
I0403 15:55:42.783926 16495 net.cpp:425] inception_4c/output_inception_4c/output_0_split <- inception_4c/output
I0403 15:55:42.783947 16495 net.cpp:399] inception_4c/output_inception_4c/output_0_split -> inception_4c/output_inception_4c/output_0_split_0
I0403 15:55:42.783969 16495 net.cpp:399] inception_4c/output_inception_4c/output_0_split -> inception_4c/output_inception_4c/output_0_split_1
I0403 15:55:42.783990 16495 net.cpp:399] inception_4c/output_inception_4c/output_0_split -> inception_4c/output_inception_4c/output_0_split_2
I0403 15:55:42.784011 16495 net.cpp:399] inception_4c/output_inception_4c/output_0_split -> inception_4c/output_inception_4c/output_0_split_3
I0403 15:55:42.784099 16495 net.cpp:141] Setting up inception_4c/output_inception_4c/output_0_split
I0403 15:55:42.784126 16495 net.cpp:148] Top shape: 24 512 14 14 (2408448)
I0403 15:55:42.784143 16495 net.cpp:148] Top shape: 24 512 14 14 (2408448)
I0403 15:55:42.784158 16495 net.cpp:148] Top shape: 24 512 14 14 (2408448)
I0403 15:55:42.784175 16495 net.cpp:148] Top shape: 24 512 14 14 (2408448)
I0403 15:55:42.784189 16495 net.cpp:156] Memory required for data: 1111182624
I0403 15:55:42.784204 16495 layer_factory.hpp:77] Creating layer inception_4d/1x1
I0403 15:55:42.784229 16495 net.cpp:91] Creating Layer inception_4d/1x1
I0403 15:55:42.784247 16495 net.cpp:425] inception_4d/1x1 <- inception_4c/output_inception_4c/output_0_split_0
I0403 15:55:42.784270 16495 net.cpp:399] inception_4d/1x1 -> inception_4d/1x1
I0403 15:55:42.785715 16495 net.cpp:141] Setting up inception_4d/1x1
I0403 15:55:42.785748 16495 net.cpp:148] Top shape: 24 112 14 14 (526848)
I0403 15:55:42.785764 16495 net.cpp:156] Memory required for data: 1113290016
I0403 15:55:42.785784 16495 layer_factory.hpp:77] Creating layer inception_4d/relu_1x1
I0403 15:55:42.785804 16495 net.cpp:91] Creating Layer inception_4d/relu_1x1
I0403 15:55:42.785821 16495 net.cpp:425] inception_4d/relu_1x1 <- inception_4d/1x1
I0403 15:55:42.785840 16495 net.cpp:386] inception_4d/relu_1x1 -> inception_4d/1x1 (in-place)
I0403 15:55:42.786033 16495 net.cpp:141] Setting up inception_4d/relu_1x1
I0403 15:55:42.786061 16495 net.cpp:148] Top shape: 24 112 14 14 (526848)
I0403 15:55:42.786075 16495 net.cpp:156] Memory required for data: 1115397408
I0403 15:55:42.786092 16495 layer_factory.hpp:77] Creating layer inception_4d/3x3_reduce
I0403 15:55:42.786129 16495 net.cpp:91] Creating Layer inception_4d/3x3_reduce
I0403 15:55:42.786149 16495 net.cpp:425] inception_4d/3x3_reduce <- inception_4c/output_inception_4c/output_0_split_1
I0403 15:55:42.786173 16495 net.cpp:399] inception_4d/3x3_reduce -> inception_4d/3x3_reduce
I0403 15:55:42.787727 16495 net.cpp:141] Setting up inception_4d/3x3_reduce
I0403 15:55:42.787756 16495 net.cpp:148] Top shape: 24 144 14 14 (677376)
I0403 15:55:42.787783 16495 net.cpp:156] Memory required for data: 1118106912
I0403 15:55:42.787803 16495 layer_factory.hpp:77] Creating layer inception_4d/relu_3x3_reduce
I0403 15:55:42.787825 16495 net.cpp:91] Creating Layer inception_4d/relu_3x3_reduce
I0403 15:55:42.787844 16495 net.cpp:425] inception_4d/relu_3x3_reduce <- inception_4d/3x3_reduce
I0403 15:55:42.787863 16495 net.cpp:386] inception_4d/relu_3x3_reduce -> inception_4d/3x3_reduce (in-place)
I0403 15:55:42.788166 16495 net.cpp:141] Setting up inception_4d/relu_3x3_reduce
I0403 15:55:42.788194 16495 net.cpp:148] Top shape: 24 144 14 14 (677376)
I0403 15:55:42.788209 16495 net.cpp:156] Memory required for data: 1120816416
I0403 15:55:42.788225 16495 layer_factory.hpp:77] Creating layer inception_4d/3x3
I0403 15:55:42.788249 16495 net.cpp:91] Creating Layer inception_4d/3x3
I0403 15:55:42.788269 16495 net.cpp:425] inception_4d/3x3 <- inception_4d/3x3_reduce
I0403 15:55:42.788287 16495 net.cpp:399] inception_4d/3x3 -> inception_4d/3x3
I0403 15:55:42.792546 16495 net.cpp:141] Setting up inception_4d/3x3
I0403 15:55:42.792577 16495 net.cpp:148] Top shape: 24 288 14 14 (1354752)
I0403 15:55:42.792595 16495 net.cpp:156] Memory required for data: 1126235424
I0403 15:55:42.792620 16495 layer_factory.hpp:77] Creating layer inception_4d/relu_3x3
I0403 15:55:42.792640 16495 net.cpp:91] Creating Layer inception_4d/relu_3x3
I0403 15:55:42.792656 16495 net.cpp:425] inception_4d/relu_3x3 <- inception_4d/3x3
I0403 15:55:42.792678 16495 net.cpp:386] inception_4d/relu_3x3 -> inception_4d/3x3 (in-place)
I0403 15:55:42.792860 16495 net.cpp:141] Setting up inception_4d/relu_3x3
I0403 15:55:42.792886 16495 net.cpp:148] Top shape: 24 288 14 14 (1354752)
I0403 15:55:42.792899 16495 net.cpp:156] Memory required for data: 1131654432
I0403 15:55:42.792914 16495 layer_factory.hpp:77] Creating layer inception_4d/5x5_reduce
I0403 15:55:42.792937 16495 net.cpp:91] Creating Layer inception_4d/5x5_reduce
I0403 15:55:42.792954 16495 net.cpp:425] inception_4d/5x5_reduce <- inception_4c/output_inception_4c/output_0_split_2
I0403 15:55:42.792975 16495 net.cpp:399] inception_4d/5x5_reduce -> inception_4d/5x5_reduce
I0403 15:55:42.794091 16495 net.cpp:141] Setting up inception_4d/5x5_reduce
I0403 15:55:42.794122 16495 net.cpp:148] Top shape: 24 32 14 14 (150528)
I0403 15:55:42.794138 16495 net.cpp:156] Memory required for data: 1132256544
I0403 15:55:42.794157 16495 layer_factory.hpp:77] Creating layer inception_4d/relu_5x5_reduce
I0403 15:55:42.794174 16495 net.cpp:91] Creating Layer inception_4d/relu_5x5_reduce
I0403 15:55:42.794190 16495 net.cpp:425] inception_4d/relu_5x5_reduce <- inception_4d/5x5_reduce
I0403 15:55:42.794209 16495 net.cpp:386] inception_4d/relu_5x5_reduce -> inception_4d/5x5_reduce (in-place)
I0403 15:55:42.794394 16495 net.cpp:141] Setting up inception_4d/relu_5x5_reduce
I0403 15:55:42.794420 16495 net.cpp:148] Top shape: 24 32 14 14 (150528)
I0403 15:55:42.794433 16495 net.cpp:156] Memory required for data: 1132858656
I0403 15:55:42.794448 16495 layer_factory.hpp:77] Creating layer inception_4d/5x5
I0403 15:55:42.794471 16495 net.cpp:91] Creating Layer inception_4d/5x5
I0403 15:55:42.794488 16495 net.cpp:425] inception_4d/5x5 <- inception_4d/5x5_reduce
I0403 15:55:42.794509 16495 net.cpp:399] inception_4d/5x5 -> inception_4d/5x5
I0403 15:55:42.795965 16495 net.cpp:141] Setting up inception_4d/5x5
I0403 15:55:42.795995 16495 net.cpp:148] Top shape: 24 64 14 14 (301056)
I0403 15:55:42.796012 16495 net.cpp:156] Memory required for data: 1134062880
I0403 15:55:42.796032 16495 layer_factory.hpp:77] Creating layer inception_4d/relu_5x5
I0403 15:55:42.796071 16495 net.cpp:91] Creating Layer inception_4d/relu_5x5
I0403 15:55:42.796102 16495 net.cpp:425] inception_4d/relu_5x5 <- inception_4d/5x5
I0403 15:55:42.796119 16495 net.cpp:386] inception_4d/relu_5x5 -> inception_4d/5x5 (in-place)
I0403 15:55:42.796416 16495 net.cpp:141] Setting up inception_4d/relu_5x5
I0403 15:55:42.796442 16495 net.cpp:148] Top shape: 24 64 14 14 (301056)
I0403 15:55:42.796458 16495 net.cpp:156] Memory required for data: 1135267104
I0403 15:55:42.796473 16495 layer_factory.hpp:77] Creating layer inception_4d/pool
I0403 15:55:42.796492 16495 net.cpp:91] Creating Layer inception_4d/pool
I0403 15:55:42.796509 16495 net.cpp:425] inception_4d/pool <- inception_4c/output_inception_4c/output_0_split_3
I0403 15:55:42.796528 16495 net.cpp:399] inception_4d/pool -> inception_4d/pool
I0403 15:55:42.796596 16495 net.cpp:141] Setting up inception_4d/pool
I0403 15:55:42.796623 16495 net.cpp:148] Top shape: 24 512 14 14 (2408448)
I0403 15:55:42.796638 16495 net.cpp:156] Memory required for data: 1144900896
I0403 15:55:42.796653 16495 layer_factory.hpp:77] Creating layer inception_4d/pool_proj
I0403 15:55:42.796674 16495 net.cpp:91] Creating Layer inception_4d/pool_proj
I0403 15:55:42.796692 16495 net.cpp:425] inception_4d/pool_proj <- inception_4d/pool
I0403 15:55:42.796713 16495 net.cpp:399] inception_4d/pool_proj -> inception_4d/pool_proj
I0403 15:55:42.798430 16495 net.cpp:141] Setting up inception_4d/pool_proj
I0403 15:55:42.798462 16495 net.cpp:148] Top shape: 24 64 14 14 (301056)
I0403 15:55:42.798480 16495 net.cpp:156] Memory required for data: 1146105120
I0403 15:55:42.798498 16495 layer_factory.hpp:77] Creating layer inception_4d/relu_pool_proj
I0403 15:55:42.798516 16495 net.cpp:91] Creating Layer inception_4d/relu_pool_proj
I0403 15:55:42.798533 16495 net.cpp:425] inception_4d/relu_pool_proj <- inception_4d/pool_proj
I0403 15:55:42.798554 16495 net.cpp:386] inception_4d/relu_pool_proj -> inception_4d/pool_proj (in-place)
I0403 15:55:42.798743 16495 net.cpp:141] Setting up inception_4d/relu_pool_proj
I0403 15:55:42.798768 16495 net.cpp:148] Top shape: 24 64 14 14 (301056)
I0403 15:55:42.798782 16495 net.cpp:156] Memory required for data: 1147309344
I0403 15:55:42.798799 16495 layer_factory.hpp:77] Creating layer inception_4d/output
I0403 15:55:42.798815 16495 net.cpp:91] Creating Layer inception_4d/output
I0403 15:55:42.798830 16495 net.cpp:425] inception_4d/output <- inception_4d/1x1
I0403 15:55:42.798846 16495 net.cpp:425] inception_4d/output <- inception_4d/3x3
I0403 15:55:42.798863 16495 net.cpp:425] inception_4d/output <- inception_4d/5x5
I0403 15:55:42.798880 16495 net.cpp:425] inception_4d/output <- inception_4d/pool_proj
I0403 15:55:42.798898 16495 net.cpp:399] inception_4d/output -> inception_4d/output
I0403 15:55:42.798945 16495 net.cpp:141] Setting up inception_4d/output
I0403 15:55:42.798971 16495 net.cpp:148] Top shape: 24 528 14 14 (2483712)
I0403 15:55:42.798987 16495 net.cpp:156] Memory required for data: 1157244192
I0403 15:55:42.799001 16495 layer_factory.hpp:77] Creating layer inception_4d/output_inception_4d/output_0_split
I0403 15:55:42.799018 16495 net.cpp:91] Creating Layer inception_4d/output_inception_4d/output_0_split
I0403 15:55:42.799033 16495 net.cpp:425] inception_4d/output_inception_4d/output_0_split <- inception_4d/output
I0403 15:55:42.799053 16495 net.cpp:399] inception_4d/output_inception_4d/output_0_split -> inception_4d/output_inception_4d/output_0_split_0
I0403 15:55:42.799075 16495 net.cpp:399] inception_4d/output_inception_4d/output_0_split -> inception_4d/output_inception_4d/output_0_split_1
I0403 15:55:42.799095 16495 net.cpp:399] inception_4d/output_inception_4d/output_0_split -> inception_4d/output_inception_4d/output_0_split_2
I0403 15:55:42.799116 16495 net.cpp:399] inception_4d/output_inception_4d/output_0_split -> inception_4d/output_inception_4d/output_0_split_3
I0403 15:55:42.799137 16495 net.cpp:399] inception_4d/output_inception_4d/output_0_split -> inception_4d/output_inception_4d/output_0_split_4
I0403 15:55:42.799237 16495 net.cpp:141] Setting up inception_4d/output_inception_4d/output_0_split
I0403 15:55:42.799275 16495 net.cpp:148] Top shape: 24 528 14 14 (2483712)
I0403 15:55:42.799294 16495 net.cpp:148] Top shape: 24 528 14 14 (2483712)
I0403 15:55:42.799310 16495 net.cpp:148] Top shape: 24 528 14 14 (2483712)
I0403 15:55:42.799325 16495 net.cpp:148] Top shape: 24 528 14 14 (2483712)
I0403 15:55:42.799341 16495 net.cpp:148] Top shape: 24 528 14 14 (2483712)
I0403 15:55:42.799356 16495 net.cpp:156] Memory required for data: 1206918432
I0403 15:55:42.799371 16495 layer_factory.hpp:77] Creating layer loss2/ave_pool
I0403 15:55:42.799388 16495 net.cpp:91] Creating Layer loss2/ave_pool
I0403 15:55:42.799404 16495 net.cpp:425] loss2/ave_pool <- inception_4d/output_inception_4d/output_0_split_0
I0403 15:55:42.799422 16495 net.cpp:399] loss2/ave_pool -> loss2/ave_pool
I0403 15:55:42.799731 16495 net.cpp:141] Setting up loss2/ave_pool
I0403 15:55:42.799760 16495 net.cpp:148] Top shape: 24 528 4 4 (202752)
I0403 15:55:42.799778 16495 net.cpp:156] Memory required for data: 1207729440
I0403 15:55:42.799793 16495 layer_factory.hpp:77] Creating layer loss2/conv
I0403 15:55:42.799815 16495 net.cpp:91] Creating Layer loss2/conv
I0403 15:55:42.799834 16495 net.cpp:425] loss2/conv <- loss2/ave_pool
I0403 15:55:42.799852 16495 net.cpp:399] loss2/conv -> loss2/conv
I0403 15:55:42.801689 16495 net.cpp:141] Setting up loss2/conv
I0403 15:55:42.801718 16495 net.cpp:148] Top shape: 24 128 4 4 (49152)
I0403 15:55:42.801733 16495 net.cpp:156] Memory required for data: 1207926048
I0403 15:55:42.801753 16495 layer_factory.hpp:77] Creating layer loss2/relu_conv
I0403 15:55:42.801775 16495 net.cpp:91] Creating Layer loss2/relu_conv
I0403 15:55:42.801794 16495 net.cpp:425] loss2/relu_conv <- loss2/conv
I0403 15:55:42.801811 16495 net.cpp:386] loss2/relu_conv -> loss2/conv (in-place)
I0403 15:55:42.802089 16495 net.cpp:141] Setting up loss2/relu_conv
I0403 15:55:42.802116 16495 net.cpp:148] Top shape: 24 128 4 4 (49152)
I0403 15:55:42.802131 16495 net.cpp:156] Memory required for data: 1208122656
I0403 15:55:42.802146 16495 layer_factory.hpp:77] Creating layer loss2/fc
I0403 15:55:42.802166 16495 net.cpp:91] Creating Layer loss2/fc
I0403 15:55:42.802183 16495 net.cpp:425] loss2/fc <- loss2/conv
I0403 15:55:42.802202 16495 net.cpp:399] loss2/fc -> loss2/fc
I0403 15:55:42.819391 16495 net.cpp:141] Setting up loss2/fc
I0403 15:55:42.819422 16495 net.cpp:148] Top shape: 24 1024 (24576)
I0403 15:55:42.819438 16495 net.cpp:156] Memory required for data: 1208220960
I0403 15:55:42.819456 16495 layer_factory.hpp:77] Creating layer loss2/relu_fc
I0403 15:55:42.819473 16495 net.cpp:91] Creating Layer loss2/relu_fc
I0403 15:55:42.819489 16495 net.cpp:425] loss2/relu_fc <- loss2/fc
I0403 15:55:42.819509 16495 net.cpp:386] loss2/relu_fc -> loss2/fc (in-place)
I0403 15:55:42.819808 16495 net.cpp:141] Setting up loss2/relu_fc
I0403 15:55:42.819834 16495 net.cpp:148] Top shape: 24 1024 (24576)
I0403 15:55:42.819849 16495 net.cpp:156] Memory required for data: 1208319264
I0403 15:55:42.819866 16495 layer_factory.hpp:77] Creating layer loss2/drop_fc
I0403 15:55:42.819883 16495 net.cpp:91] Creating Layer loss2/drop_fc
I0403 15:55:42.819900 16495 net.cpp:425] loss2/drop_fc <- loss2/fc
I0403 15:55:42.819921 16495 net.cpp:386] loss2/drop_fc -> loss2/fc (in-place)
I0403 15:55:42.819968 16495 net.cpp:141] Setting up loss2/drop_fc
I0403 15:55:42.819994 16495 net.cpp:148] Top shape: 24 1024 (24576)
I0403 15:55:42.820010 16495 net.cpp:156] Memory required for data: 1208417568
I0403 15:55:42.820025 16495 layer_factory.hpp:77] Creating layer loss2/classifier_plantvillage
I0403 15:55:42.820044 16495 net.cpp:91] Creating Layer loss2/classifier_plantvillage
I0403 15:55:42.820060 16495 net.cpp:425] loss2/classifier_plantvillage <- loss2/fc
I0403 15:55:42.820081 16495 net.cpp:399] loss2/classifier_plantvillage -> loss2/classifier_plantvillage
I0403 15:55:42.820472 16495 net.cpp:141] Setting up loss2/classifier_plantvillage
I0403 15:55:42.820497 16495 net.cpp:148] Top shape: 24 38 (912)
I0403 15:55:42.820513 16495 net.cpp:156] Memory required for data: 1208421216
I0403 15:55:42.820552 16495 layer_factory.hpp:77] Creating layer loss2/classifier_plantvillage_loss2/classifier_plantvillage_0_split
I0403 15:55:42.820574 16495 net.cpp:91] Creating Layer loss2/classifier_plantvillage_loss2/classifier_plantvillage_0_split
I0403 15:55:42.820592 16495 net.cpp:425] loss2/classifier_plantvillage_loss2/classifier_plantvillage_0_split <- loss2/classifier_plantvillage
I0403 15:55:42.820616 16495 net.cpp:399] loss2/classifier_plantvillage_loss2/classifier_plantvillage_0_split -> loss2/classifier_plantvillage_loss2/classifier_plantvillage_0_split_0
I0403 15:55:42.820637 16495 net.cpp:399] loss2/classifier_plantvillage_loss2/classifier_plantvillage_0_split -> loss2/classifier_plantvillage_loss2/classifier_plantvillage_0_split_1
I0403 15:55:42.820659 16495 net.cpp:399] loss2/classifier_plantvillage_loss2/classifier_plantvillage_0_split -> loss2/classifier_plantvillage_loss2/classifier_plantvillage_0_split_2
I0403 15:55:42.820739 16495 net.cpp:141] Setting up loss2/classifier_plantvillage_loss2/classifier_plantvillage_0_split
I0403 15:55:42.820762 16495 net.cpp:148] Top shape: 24 38 (912)
I0403 15:55:42.820778 16495 net.cpp:148] Top shape: 24 38 (912)
I0403 15:55:42.820793 16495 net.cpp:148] Top shape: 24 38 (912)
I0403 15:55:42.820806 16495 net.cpp:156] Memory required for data: 1208432160
I0403 15:55:42.820821 16495 layer_factory.hpp:77] Creating layer inception_4e/1x1
I0403 15:55:42.820842 16495 net.cpp:91] Creating Layer inception_4e/1x1
I0403 15:55:42.820860 16495 net.cpp:425] inception_4e/1x1 <- inception_4d/output_inception_4d/output_0_split_1
I0403 15:55:42.820880 16495 net.cpp:399] inception_4e/1x1 -> inception_4e/1x1
I0403 15:55:42.822643 16495 net.cpp:141] Setting up inception_4e/1x1
I0403 15:55:42.822672 16495 net.cpp:148] Top shape: 24 256 14 14 (1204224)
I0403 15:55:42.822687 16495 net.cpp:156] Memory required for data: 1213249056
I0403 15:55:42.822706 16495 layer_factory.hpp:77] Creating layer inception_4e/relu_1x1
I0403 15:55:42.822726 16495 net.cpp:91] Creating Layer inception_4e/relu_1x1
I0403 15:55:42.822744 16495 net.cpp:425] inception_4e/relu_1x1 <- inception_4e/1x1
I0403 15:55:42.822763 16495 net.cpp:386] inception_4e/relu_1x1 -> inception_4e/1x1 (in-place)
I0403 15:55:42.823055 16495 net.cpp:141] Setting up inception_4e/relu_1x1
I0403 15:55:42.823079 16495 net.cpp:148] Top shape: 24 256 14 14 (1204224)
I0403 15:55:42.823096 16495 net.cpp:156] Memory required for data: 1218065952
I0403 15:55:42.823110 16495 layer_factory.hpp:77] Creating layer inception_4e/3x3_reduce
I0403 15:55:42.823132 16495 net.cpp:91] Creating Layer inception_4e/3x3_reduce
I0403 15:55:42.823150 16495 net.cpp:425] inception_4e/3x3_reduce <- inception_4d/output_inception_4d/output_0_split_2
I0403 15:55:42.823171 16495 net.cpp:399] inception_4e/3x3_reduce -> inception_4e/3x3_reduce
I0403 15:55:42.825331 16495 net.cpp:141] Setting up inception_4e/3x3_reduce
I0403 15:55:42.825363 16495 net.cpp:148] Top shape: 24 160 14 14 (752640)
I0403 15:55:42.825381 16495 net.cpp:156] Memory required for data: 1221076512
I0403 15:55:42.825402 16495 layer_factory.hpp:77] Creating layer inception_4e/relu_3x3_reduce
I0403 15:55:42.825423 16495 net.cpp:91] Creating Layer inception_4e/relu_3x3_reduce
I0403 15:55:42.825439 16495 net.cpp:425] inception_4e/relu_3x3_reduce <- inception_4e/3x3_reduce
I0403 15:55:42.825459 16495 net.cpp:386] inception_4e/relu_3x3_reduce -> inception_4e/3x3_reduce (in-place)
I0403 15:55:42.825654 16495 net.cpp:141] Setting up inception_4e/relu_3x3_reduce
I0403 15:55:42.825680 16495 net.cpp:148] Top shape: 24 160 14 14 (752640)
I0403 15:55:42.825700 16495 net.cpp:156] Memory required for data: 1224087072
I0403 15:55:42.825714 16495 layer_factory.hpp:77] Creating layer inception_4e/3x3
I0403 15:55:42.825734 16495 net.cpp:91] Creating Layer inception_4e/3x3
I0403 15:55:42.825752 16495 net.cpp:425] inception_4e/3x3 <- inception_4e/3x3_reduce
I0403 15:55:42.825774 16495 net.cpp:399] inception_4e/3x3 -> inception_4e/3x3
I0403 15:55:42.830792 16495 net.cpp:141] Setting up inception_4e/3x3
I0403 15:55:42.830837 16495 net.cpp:148] Top shape: 24 320 14 14 (1505280)
I0403 15:55:42.830854 16495 net.cpp:156] Memory required for data: 1230108192
I0403 15:55:42.830873 16495 layer_factory.hpp:77] Creating layer inception_4e/relu_3x3
I0403 15:55:42.830891 16495 net.cpp:91] Creating Layer inception_4e/relu_3x3
I0403 15:55:42.830909 16495 net.cpp:425] inception_4e/relu_3x3 <- inception_4e/3x3
I0403 15:55:42.830925 16495 net.cpp:386] inception_4e/relu_3x3 -> inception_4e/3x3 (in-place)
I0403 15:55:42.831228 16495 net.cpp:141] Setting up inception_4e/relu_3x3
I0403 15:55:42.831257 16495 net.cpp:148] Top shape: 24 320 14 14 (1505280)
I0403 15:55:42.831275 16495 net.cpp:156] Memory required for data: 1236129312
I0403 15:55:42.831290 16495 layer_factory.hpp:77] Creating layer inception_4e/5x5_reduce
I0403 15:55:42.831315 16495 net.cpp:91] Creating Layer inception_4e/5x5_reduce
I0403 15:55:42.831333 16495 net.cpp:425] inception_4e/5x5_reduce <- inception_4d/output_inception_4d/output_0_split_3
I0403 15:55:42.831353 16495 net.cpp:399] inception_4e/5x5_reduce -> inception_4e/5x5_reduce
I0403 15:55:42.832428 16495 net.cpp:141] Setting up inception_4e/5x5_reduce
I0403 15:55:42.832458 16495 net.cpp:148] Top shape: 24 32 14 14 (150528)
I0403 15:55:42.832474 16495 net.cpp:156] Memory required for data: 1236731424
I0403 15:55:42.832494 16495 layer_factory.hpp:77] Creating layer inception_4e/relu_5x5_reduce
I0403 15:55:42.832515 16495 net.cpp:91] Creating Layer inception_4e/relu_5x5_reduce
I0403 15:55:42.832533 16495 net.cpp:425] inception_4e/relu_5x5_reduce <- inception_4e/5x5_reduce
I0403 15:55:42.832551 16495 net.cpp:386] inception_4e/relu_5x5_reduce -> inception_4e/5x5_reduce (in-place)
I0403 15:55:42.832855 16495 net.cpp:141] Setting up inception_4e/relu_5x5_reduce
I0403 15:55:42.832882 16495 net.cpp:148] Top shape: 24 32 14 14 (150528)
I0403 15:55:42.832898 16495 net.cpp:156] Memory required for data: 1237333536
I0403 15:55:42.832914 16495 layer_factory.hpp:77] Creating layer inception_4e/5x5
I0403 15:55:42.832954 16495 net.cpp:91] Creating Layer inception_4e/5x5
I0403 15:55:42.832974 16495 net.cpp:425] inception_4e/5x5 <- inception_4e/5x5_reduce
I0403 15:55:42.832994 16495 net.cpp:399] inception_4e/5x5 -> inception_4e/5x5
I0403 15:55:42.834841 16495 net.cpp:141] Setting up inception_4e/5x5
I0403 15:55:42.834869 16495 net.cpp:148] Top shape: 24 128 14 14 (602112)
I0403 15:55:42.834885 16495 net.cpp:156] Memory required for data: 1239741984
I0403 15:55:42.834905 16495 layer_factory.hpp:77] Creating layer inception_4e/relu_5x5
I0403 15:55:42.834923 16495 net.cpp:91] Creating Layer inception_4e/relu_5x5
I0403 15:55:42.834939 16495 net.cpp:425] inception_4e/relu_5x5 <- inception_4e/5x5
I0403 15:55:42.834959 16495 net.cpp:386] inception_4e/relu_5x5 -> inception_4e/5x5 (in-place)
I0403 15:55:42.835162 16495 net.cpp:141] Setting up inception_4e/relu_5x5
I0403 15:55:42.835188 16495 net.cpp:148] Top shape: 24 128 14 14 (602112)
I0403 15:55:42.835203 16495 net.cpp:156] Memory required for data: 1242150432
I0403 15:55:42.835218 16495 layer_factory.hpp:77] Creating layer inception_4e/pool
I0403 15:55:42.835239 16495 net.cpp:91] Creating Layer inception_4e/pool
I0403 15:55:42.835256 16495 net.cpp:425] inception_4e/pool <- inception_4d/output_inception_4d/output_0_split_4
I0403 15:55:42.835275 16495 net.cpp:399] inception_4e/pool -> inception_4e/pool
I0403 15:55:42.835347 16495 net.cpp:141] Setting up inception_4e/pool
I0403 15:55:42.835372 16495 net.cpp:148] Top shape: 24 528 14 14 (2483712)
I0403 15:55:42.835387 16495 net.cpp:156] Memory required for data: 1252085280
I0403 15:55:42.835403 16495 layer_factory.hpp:77] Creating layer inception_4e/pool_proj
I0403 15:55:42.835425 16495 net.cpp:91] Creating Layer inception_4e/pool_proj
I0403 15:55:42.835443 16495 net.cpp:425] inception_4e/pool_proj <- inception_4e/pool
I0403 15:55:42.835464 16495 net.cpp:399] inception_4e/pool_proj -> inception_4e/pool_proj
I0403 15:55:42.836971 16495 net.cpp:141] Setting up inception_4e/pool_proj
I0403 15:55:42.837000 16495 net.cpp:148] Top shape: 24 128 14 14 (602112)
I0403 15:55:42.837031 16495 net.cpp:156] Memory required for data: 1254493728
I0403 15:55:42.837051 16495 layer_factory.hpp:77] Creating layer inception_4e/relu_pool_proj
I0403 15:55:42.837071 16495 net.cpp:91] Creating Layer inception_4e/relu_pool_proj
I0403 15:55:42.837090 16495 net.cpp:425] inception_4e/relu_pool_proj <- inception_4e/pool_proj
I0403 15:55:42.837110 16495 net.cpp:386] inception_4e/relu_pool_proj -> inception_4e/pool_proj (in-place)
I0403 15:55:42.837399 16495 net.cpp:141] Setting up inception_4e/relu_pool_proj
I0403 15:55:42.837430 16495 net.cpp:148] Top shape: 24 128 14 14 (602112)
I0403 15:55:42.837446 16495 net.cpp:156] Memory required for data: 1256902176
I0403 15:55:42.837462 16495 layer_factory.hpp:77] Creating layer inception_4e/output
I0403 15:55:42.837479 16495 net.cpp:91] Creating Layer inception_4e/output
I0403 15:55:42.837496 16495 net.cpp:425] inception_4e/output <- inception_4e/1x1
I0403 15:55:42.837512 16495 net.cpp:425] inception_4e/output <- inception_4e/3x3
I0403 15:55:42.837528 16495 net.cpp:425] inception_4e/output <- inception_4e/5x5
I0403 15:55:42.837546 16495 net.cpp:425] inception_4e/output <- inception_4e/pool_proj
I0403 15:55:42.837568 16495 net.cpp:399] inception_4e/output -> inception_4e/output
I0403 15:55:42.837621 16495 net.cpp:141] Setting up inception_4e/output
I0403 15:55:42.837646 16495 net.cpp:148] Top shape: 24 832 14 14 (3913728)
I0403 15:55:42.837662 16495 net.cpp:156] Memory required for data: 1272557088
I0403 15:55:42.837677 16495 layer_factory.hpp:77] Creating layer pool4/3x3_s2
I0403 15:55:42.837697 16495 net.cpp:91] Creating Layer pool4/3x3_s2
I0403 15:55:42.837714 16495 net.cpp:425] pool4/3x3_s2 <- inception_4e/output
I0403 15:55:42.837733 16495 net.cpp:399] pool4/3x3_s2 -> pool4/3x3_s2
I0403 15:55:42.837805 16495 net.cpp:141] Setting up pool4/3x3_s2
I0403 15:55:42.837829 16495 net.cpp:148] Top shape: 24 832 7 7 (978432)
I0403 15:55:42.837846 16495 net.cpp:156] Memory required for data: 1276470816
I0403 15:55:42.837859 16495 layer_factory.hpp:77] Creating layer pool4/3x3_s2_pool4/3x3_s2_0_split
I0403 15:55:42.837877 16495 net.cpp:91] Creating Layer pool4/3x3_s2_pool4/3x3_s2_0_split
I0403 15:55:42.837898 16495 net.cpp:425] pool4/3x3_s2_pool4/3x3_s2_0_split <- pool4/3x3_s2
I0403 15:55:42.837916 16495 net.cpp:399] pool4/3x3_s2_pool4/3x3_s2_0_split -> pool4/3x3_s2_pool4/3x3_s2_0_split_0
I0403 15:55:42.837936 16495 net.cpp:399] pool4/3x3_s2_pool4/3x3_s2_0_split -> pool4/3x3_s2_pool4/3x3_s2_0_split_1
I0403 15:55:42.837956 16495 net.cpp:399] pool4/3x3_s2_pool4/3x3_s2_0_split -> pool4/3x3_s2_pool4/3x3_s2_0_split_2
I0403 15:55:42.837976 16495 net.cpp:399] pool4/3x3_s2_pool4/3x3_s2_0_split -> pool4/3x3_s2_pool4/3x3_s2_0_split_3
I0403 15:55:42.838068 16495 net.cpp:141] Setting up pool4/3x3_s2_pool4/3x3_s2_0_split
I0403 15:55:42.838093 16495 net.cpp:148] Top shape: 24 832 7 7 (978432)
I0403 15:55:42.838109 16495 net.cpp:148] Top shape: 24 832 7 7 (978432)
I0403 15:55:42.838125 16495 net.cpp:148] Top shape: 24 832 7 7 (978432)
I0403 15:55:42.838142 16495 net.cpp:148] Top shape: 24 832 7 7 (978432)
I0403 15:55:42.838156 16495 net.cpp:156] Memory required for data: 1292125728
I0403 15:55:42.838171 16495 layer_factory.hpp:77] Creating layer inception_5a/1x1
I0403 15:55:42.838194 16495 net.cpp:91] Creating Layer inception_5a/1x1
I0403 15:55:42.838213 16495 net.cpp:425] inception_5a/1x1 <- pool4/3x3_s2_pool4/3x3_s2_0_split_0
I0403 15:55:42.838235 16495 net.cpp:399] inception_5a/1x1 -> inception_5a/1x1
I0403 15:55:42.841114 16495 net.cpp:141] Setting up inception_5a/1x1
I0403 15:55:42.841145 16495 net.cpp:148] Top shape: 24 256 7 7 (301056)
I0403 15:55:42.841162 16495 net.cpp:156] Memory required for data: 1293329952
I0403 15:55:42.841183 16495 layer_factory.hpp:77] Creating layer inception_5a/relu_1x1
I0403 15:55:42.841202 16495 net.cpp:91] Creating Layer inception_5a/relu_1x1
I0403 15:55:42.841219 16495 net.cpp:425] inception_5a/relu_1x1 <- inception_5a/1x1
I0403 15:55:42.841240 16495 net.cpp:386] inception_5a/relu_1x1 -> inception_5a/1x1 (in-place)
I0403 15:55:42.841589 16495 net.cpp:141] Setting up inception_5a/relu_1x1
I0403 15:55:42.841622 16495 net.cpp:148] Top shape: 24 256 7 7 (301056)
I0403 15:55:42.841639 16495 net.cpp:156] Memory required for data: 1294534176
I0403 15:55:42.841655 16495 layer_factory.hpp:77] Creating layer inception_5a/3x3_reduce
I0403 15:55:42.841689 16495 net.cpp:91] Creating Layer inception_5a/3x3_reduce
I0403 15:55:42.841708 16495 net.cpp:425] inception_5a/3x3_reduce <- pool4/3x3_s2_pool4/3x3_s2_0_split_1
I0403 15:55:42.841730 16495 net.cpp:399] inception_5a/3x3_reduce -> inception_5a/3x3_reduce
I0403 15:55:42.844158 16495 net.cpp:141] Setting up inception_5a/3x3_reduce
I0403 15:55:42.844192 16495 net.cpp:148] Top shape: 24 160 7 7 (188160)
I0403 15:55:42.844208 16495 net.cpp:156] Memory required for data: 1295286816
I0403 15:55:42.844228 16495 layer_factory.hpp:77] Creating layer inception_5a/relu_3x3_reduce
I0403 15:55:42.844246 16495 net.cpp:91] Creating Layer inception_5a/relu_3x3_reduce
I0403 15:55:42.844262 16495 net.cpp:425] inception_5a/relu_3x3_reduce <- inception_5a/3x3_reduce
I0403 15:55:42.844281 16495 net.cpp:386] inception_5a/relu_3x3_reduce -> inception_5a/3x3_reduce (in-place)
I0403 15:55:42.844467 16495 net.cpp:141] Setting up inception_5a/relu_3x3_reduce
I0403 15:55:42.844492 16495 net.cpp:148] Top shape: 24 160 7 7 (188160)
I0403 15:55:42.844506 16495 net.cpp:156] Memory required for data: 1296039456
I0403 15:55:42.844521 16495 layer_factory.hpp:77] Creating layer inception_5a/3x3
I0403 15:55:42.844543 16495 net.cpp:91] Creating Layer inception_5a/3x3
I0403 15:55:42.844560 16495 net.cpp:425] inception_5a/3x3 <- inception_5a/3x3_reduce
I0403 15:55:42.844583 16495 net.cpp:399] inception_5a/3x3 -> inception_5a/3x3
I0403 15:55:42.849473 16495 net.cpp:141] Setting up inception_5a/3x3
I0403 15:55:42.849503 16495 net.cpp:148] Top shape: 24 320 7 7 (376320)
I0403 15:55:42.849520 16495 net.cpp:156] Memory required for data: 1297544736
I0403 15:55:42.849539 16495 layer_factory.hpp:77] Creating layer inception_5a/relu_3x3
I0403 15:55:42.849562 16495 net.cpp:91] Creating Layer inception_5a/relu_3x3
I0403 15:55:42.849581 16495 net.cpp:425] inception_5a/relu_3x3 <- inception_5a/3x3
I0403 15:55:42.849598 16495 net.cpp:386] inception_5a/relu_3x3 -> inception_5a/3x3 (in-place)
I0403 15:55:42.849894 16495 net.cpp:141] Setting up inception_5a/relu_3x3
I0403 15:55:42.849920 16495 net.cpp:148] Top shape: 24 320 7 7 (376320)
I0403 15:55:42.849936 16495 net.cpp:156] Memory required for data: 1299050016
I0403 15:55:42.849951 16495 layer_factory.hpp:77] Creating layer inception_5a/5x5_reduce
I0403 15:55:42.849974 16495 net.cpp:91] Creating Layer inception_5a/5x5_reduce
I0403 15:55:42.849993 16495 net.cpp:425] inception_5a/5x5_reduce <- pool4/3x3_s2_pool4/3x3_s2_0_split_2
I0403 15:55:42.850015 16495 net.cpp:399] inception_5a/5x5_reduce -> inception_5a/5x5_reduce
I0403 15:55:42.851155 16495 net.cpp:141] Setting up inception_5a/5x5_reduce
I0403 15:55:42.851183 16495 net.cpp:148] Top shape: 24 32 7 7 (37632)
I0403 15:55:42.851199 16495 net.cpp:156] Memory required for data: 1299200544
I0403 15:55:42.851218 16495 layer_factory.hpp:77] Creating layer inception_5a/relu_5x5_reduce
I0403 15:55:42.851240 16495 net.cpp:91] Creating Layer inception_5a/relu_5x5_reduce
I0403 15:55:42.851258 16495 net.cpp:425] inception_5a/relu_5x5_reduce <- inception_5a/5x5_reduce
I0403 15:55:42.851275 16495 net.cpp:386] inception_5a/relu_5x5_reduce -> inception_5a/5x5_reduce (in-place)
I0403 15:55:42.851570 16495 net.cpp:141] Setting up inception_5a/relu_5x5_reduce
I0403 15:55:42.851596 16495 net.cpp:148] Top shape: 24 32 7 7 (37632)
I0403 15:55:42.851618 16495 net.cpp:156] Memory required for data: 1299351072
I0403 15:55:42.851632 16495 layer_factory.hpp:77] Creating layer inception_5a/5x5
I0403 15:55:42.851655 16495 net.cpp:91] Creating Layer inception_5a/5x5
I0403 15:55:42.851672 16495 net.cpp:425] inception_5a/5x5 <- inception_5a/5x5_reduce
I0403 15:55:42.851694 16495 net.cpp:399] inception_5a/5x5 -> inception_5a/5x5
I0403 15:55:42.853379 16495 net.cpp:141] Setting up inception_5a/5x5
I0403 15:55:42.853417 16495 net.cpp:148] Top shape: 24 128 7 7 (150528)
I0403 15:55:42.853435 16495 net.cpp:156] Memory required for data: 1299953184
I0403 15:55:42.853451 16495 layer_factory.hpp:77] Creating layer inception_5a/relu_5x5
I0403 15:55:42.853471 16495 net.cpp:91] Creating Layer inception_5a/relu_5x5
I0403 15:55:42.853490 16495 net.cpp:425] inception_5a/relu_5x5 <- inception_5a/5x5
I0403 15:55:42.853508 16495 net.cpp:386] inception_5a/relu_5x5 -> inception_5a/5x5 (in-place)
I0403 15:55:42.853705 16495 net.cpp:141] Setting up inception_5a/relu_5x5
I0403 15:55:42.853731 16495 net.cpp:148] Top shape: 24 128 7 7 (150528)
I0403 15:55:42.853746 16495 net.cpp:156] Memory required for data: 1300555296
I0403 15:55:42.853761 16495 layer_factory.hpp:77] Creating layer inception_5a/pool
I0403 15:55:42.853781 16495 net.cpp:91] Creating Layer inception_5a/pool
I0403 15:55:42.853798 16495 net.cpp:425] inception_5a/pool <- pool4/3x3_s2_pool4/3x3_s2_0_split_3
I0403 15:55:42.853818 16495 net.cpp:399] inception_5a/pool -> inception_5a/pool
I0403 15:55:42.853888 16495 net.cpp:141] Setting up inception_5a/pool
I0403 15:55:42.853912 16495 net.cpp:148] Top shape: 24 832 7 7 (978432)
I0403 15:55:42.853927 16495 net.cpp:156] Memory required for data: 1304469024
I0403 15:55:42.853942 16495 layer_factory.hpp:77] Creating layer inception_5a/pool_proj
I0403 15:55:42.853965 16495 net.cpp:91] Creating Layer inception_5a/pool_proj
I0403 15:55:42.853983 16495 net.cpp:425] inception_5a/pool_proj <- inception_5a/pool
I0403 15:55:42.854003 16495 net.cpp:399] inception_5a/pool_proj -> inception_5a/pool_proj
I0403 15:55:42.856238 16495 net.cpp:141] Setting up inception_5a/pool_proj
I0403 15:55:42.856268 16495 net.cpp:148] Top shape: 24 128 7 7 (150528)
I0403 15:55:42.856286 16495 net.cpp:156] Memory required for data: 1305071136
I0403 15:55:42.856304 16495 layer_factory.hpp:77] Creating layer inception_5a/relu_pool_proj
I0403 15:55:42.856323 16495 net.cpp:91] Creating Layer inception_5a/relu_pool_proj
I0403 15:55:42.856339 16495 net.cpp:425] inception_5a/relu_pool_proj <- inception_5a/pool_proj
I0403 15:55:42.856359 16495 net.cpp:386] inception_5a/relu_pool_proj -> inception_5a/pool_proj (in-place)
I0403 15:55:42.856655 16495 net.cpp:141] Setting up inception_5a/relu_pool_proj
I0403 15:55:42.856683 16495 net.cpp:148] Top shape: 24 128 7 7 (150528)
I0403 15:55:42.856698 16495 net.cpp:156] Memory required for data: 1305673248
I0403 15:55:42.856712 16495 layer_factory.hpp:77] Creating layer inception_5a/output
I0403 15:55:42.856729 16495 net.cpp:91] Creating Layer inception_5a/output
I0403 15:55:42.856745 16495 net.cpp:425] inception_5a/output <- inception_5a/1x1
I0403 15:55:42.856763 16495 net.cpp:425] inception_5a/output <- inception_5a/3x3
I0403 15:55:42.856780 16495 net.cpp:425] inception_5a/output <- inception_5a/5x5
I0403 15:55:42.856796 16495 net.cpp:425] inception_5a/output <- inception_5a/pool_proj
I0403 15:55:42.856817 16495 net.cpp:399] inception_5a/output -> inception_5a/output
I0403 15:55:42.856868 16495 net.cpp:141] Setting up inception_5a/output
I0403 15:55:42.856894 16495 net.cpp:148] Top shape: 24 832 7 7 (978432)
I0403 15:55:42.856909 16495 net.cpp:156] Memory required for data: 1309586976
I0403 15:55:42.856925 16495 layer_factory.hpp:77] Creating layer inception_5a/output_inception_5a/output_0_split
I0403 15:55:42.856941 16495 net.cpp:91] Creating Layer inception_5a/output_inception_5a/output_0_split
I0403 15:55:42.856956 16495 net.cpp:425] inception_5a/output_inception_5a/output_0_split <- inception_5a/output
I0403 15:55:42.856974 16495 net.cpp:399] inception_5a/output_inception_5a/output_0_split -> inception_5a/output_inception_5a/output_0_split_0
I0403 15:55:42.856995 16495 net.cpp:399] inception_5a/output_inception_5a/output_0_split -> inception_5a/output_inception_5a/output_0_split_1
I0403 15:55:42.857017 16495 net.cpp:399] inception_5a/output_inception_5a/output_0_split -> inception_5a/output_inception_5a/output_0_split_2
I0403 15:55:42.857040 16495 net.cpp:399] inception_5a/output_inception_5a/output_0_split -> inception_5a/output_inception_5a/output_0_split_3
I0403 15:55:42.857151 16495 net.cpp:141] Setting up inception_5a/output_inception_5a/output_0_split
I0403 15:55:42.857177 16495 net.cpp:148] Top shape: 24 832 7 7 (978432)
I0403 15:55:42.857193 16495 net.cpp:148] Top shape: 24 832 7 7 (978432)
I0403 15:55:42.857208 16495 net.cpp:148] Top shape: 24 832 7 7 (978432)
I0403 15:55:42.857223 16495 net.cpp:148] Top shape: 24 832 7 7 (978432)
I0403 15:55:42.857237 16495 net.cpp:156] Memory required for data: 1325241888
I0403 15:55:42.857251 16495 layer_factory.hpp:77] Creating layer inception_5b/1x1
I0403 15:55:42.857272 16495 net.cpp:91] Creating Layer inception_5b/1x1
I0403 15:55:42.857290 16495 net.cpp:425] inception_5b/1x1 <- inception_5a/output_inception_5a/output_0_split_0
I0403 15:55:42.857311 16495 net.cpp:399] inception_5b/1x1 -> inception_5b/1x1
I0403 15:55:42.860986 16495 net.cpp:141] Setting up inception_5b/1x1
I0403 15:55:42.861018 16495 net.cpp:148] Top shape: 24 384 7 7 (451584)
I0403 15:55:42.861037 16495 net.cpp:156] Memory required for data: 1327048224
I0403 15:55:42.861055 16495 layer_factory.hpp:77] Creating layer inception_5b/relu_1x1
I0403 15:55:42.861073 16495 net.cpp:91] Creating Layer inception_5b/relu_1x1
I0403 15:55:42.861090 16495 net.cpp:425] inception_5b/relu_1x1 <- inception_5b/1x1
I0403 15:55:42.861109 16495 net.cpp:386] inception_5b/relu_1x1 -> inception_5b/1x1 (in-place)
I0403 15:55:42.861408 16495 net.cpp:141] Setting up inception_5b/relu_1x1
I0403 15:55:42.861436 16495 net.cpp:148] Top shape: 24 384 7 7 (451584)
I0403 15:55:42.861454 16495 net.cpp:156] Memory required for data: 1328854560
I0403 15:55:42.861469 16495 layer_factory.hpp:77] Creating layer inception_5b/3x3_reduce
I0403 15:55:42.861491 16495 net.cpp:91] Creating Layer inception_5b/3x3_reduce
I0403 15:55:42.861520 16495 net.cpp:425] inception_5b/3x3_reduce <- inception_5a/output_inception_5a/output_0_split_1
I0403 15:55:42.861539 16495 net.cpp:399] inception_5b/3x3_reduce -> inception_5b/3x3_reduce
I0403 15:55:42.864161 16495 net.cpp:141] Setting up inception_5b/3x3_reduce
I0403 15:55:42.864192 16495 net.cpp:148] Top shape: 24 192 7 7 (225792)
I0403 15:55:42.864210 16495 net.cpp:156] Memory required for data: 1329757728
I0403 15:55:42.864229 16495 layer_factory.hpp:77] Creating layer inception_5b/relu_3x3_reduce
I0403 15:55:42.864248 16495 net.cpp:91] Creating Layer inception_5b/relu_3x3_reduce
I0403 15:55:42.864264 16495 net.cpp:425] inception_5b/relu_3x3_reduce <- inception_5b/3x3_reduce
I0403 15:55:42.864284 16495 net.cpp:386] inception_5b/relu_3x3_reduce -> inception_5b/3x3_reduce (in-place)
I0403 15:55:42.864472 16495 net.cpp:141] Setting up inception_5b/relu_3x3_reduce
I0403 15:55:42.864497 16495 net.cpp:148] Top shape: 24 192 7 7 (225792)
I0403 15:55:42.864512 16495 net.cpp:156] Memory required for data: 1330660896
I0403 15:55:42.864526 16495 layer_factory.hpp:77] Creating layer inception_5b/3x3
I0403 15:55:42.864549 16495 net.cpp:91] Creating Layer inception_5b/3x3
I0403 15:55:42.864568 16495 net.cpp:425] inception_5b/3x3 <- inception_5b/3x3_reduce
I0403 15:55:42.864590 16495 net.cpp:399] inception_5b/3x3 -> inception_5b/3x3
I0403 15:55:42.871158 16495 net.cpp:141] Setting up inception_5b/3x3
I0403 15:55:42.871187 16495 net.cpp:148] Top shape: 24 384 7 7 (451584)
I0403 15:55:42.871203 16495 net.cpp:156] Memory required for data: 1332467232
I0403 15:55:42.871222 16495 layer_factory.hpp:77] Creating layer inception_5b/relu_3x3
I0403 15:55:42.871240 16495 net.cpp:91] Creating Layer inception_5b/relu_3x3
I0403 15:55:42.871258 16495 net.cpp:425] inception_5b/relu_3x3 <- inception_5b/3x3
I0403 15:55:42.871278 16495 net.cpp:386] inception_5b/relu_3x3 -> inception_5b/3x3 (in-place)
I0403 15:55:42.871577 16495 net.cpp:141] Setting up inception_5b/relu_3x3
I0403 15:55:42.871608 16495 net.cpp:148] Top shape: 24 384 7 7 (451584)
I0403 15:55:42.871624 16495 net.cpp:156] Memory required for data: 1334273568
I0403 15:55:42.871639 16495 layer_factory.hpp:77] Creating layer inception_5b/5x5_reduce
I0403 15:55:42.871676 16495 net.cpp:91] Creating Layer inception_5b/5x5_reduce
I0403 15:55:42.871695 16495 net.cpp:425] inception_5b/5x5_reduce <- inception_5a/output_inception_5a/output_0_split_2
I0403 15:55:42.871717 16495 net.cpp:399] inception_5b/5x5_reduce -> inception_5b/5x5_reduce
I0403 15:55:42.872962 16495 net.cpp:141] Setting up inception_5b/5x5_reduce
I0403 15:55:42.872993 16495 net.cpp:148] Top shape: 24 48 7 7 (56448)
I0403 15:55:42.873009 16495 net.cpp:156] Memory required for data: 1334499360
I0403 15:55:42.873028 16495 layer_factory.hpp:77] Creating layer inception_5b/relu_5x5_reduce
I0403 15:55:42.873046 16495 net.cpp:91] Creating Layer inception_5b/relu_5x5_reduce
I0403 15:55:42.873062 16495 net.cpp:425] inception_5b/relu_5x5_reduce <- inception_5b/5x5_reduce
I0403 15:55:42.873085 16495 net.cpp:386] inception_5b/relu_5x5_reduce -> inception_5b/5x5_reduce (in-place)
I0403 15:55:42.873457 16495 net.cpp:141] Setting up inception_5b/relu_5x5_reduce
I0403 15:55:42.873483 16495 net.cpp:148] Top shape: 24 48 7 7 (56448)
I0403 15:55:42.873499 16495 net.cpp:156] Memory required for data: 1334725152
I0403 15:55:42.873514 16495 layer_factory.hpp:77] Creating layer inception_5b/5x5
I0403 15:55:42.873535 16495 net.cpp:91] Creating Layer inception_5b/5x5
I0403 15:55:42.873554 16495 net.cpp:425] inception_5b/5x5 <- inception_5b/5x5_reduce
I0403 15:55:42.873574 16495 net.cpp:399] inception_5b/5x5 -> inception_5b/5x5
I0403 15:55:42.875584 16495 net.cpp:141] Setting up inception_5b/5x5
I0403 15:55:42.875617 16495 net.cpp:148] Top shape: 24 128 7 7 (150528)
I0403 15:55:42.875633 16495 net.cpp:156] Memory required for data: 1335327264
I0403 15:55:42.875651 16495 layer_factory.hpp:77] Creating layer inception_5b/relu_5x5
I0403 15:55:42.875669 16495 net.cpp:91] Creating Layer inception_5b/relu_5x5
I0403 15:55:42.875686 16495 net.cpp:425] inception_5b/relu_5x5 <- inception_5b/5x5
I0403 15:55:42.875706 16495 net.cpp:386] inception_5b/relu_5x5 -> inception_5b/5x5 (in-place)
I0403 15:55:42.875903 16495 net.cpp:141] Setting up inception_5b/relu_5x5
I0403 15:55:42.875928 16495 net.cpp:148] Top shape: 24 128 7 7 (150528)
I0403 15:55:42.875943 16495 net.cpp:156] Memory required for data: 1335929376
I0403 15:55:42.875957 16495 layer_factory.hpp:77] Creating layer inception_5b/pool
I0403 15:55:42.875978 16495 net.cpp:91] Creating Layer inception_5b/pool
I0403 15:55:42.875996 16495 net.cpp:425] inception_5b/pool <- inception_5a/output_inception_5a/output_0_split_3
I0403 15:55:42.876015 16495 net.cpp:399] inception_5b/pool -> inception_5b/pool
I0403 15:55:42.876087 16495 net.cpp:141] Setting up inception_5b/pool
I0403 15:55:42.876111 16495 net.cpp:148] Top shape: 24 832 7 7 (978432)
I0403 15:55:42.876126 16495 net.cpp:156] Memory required for data: 1339843104
I0403 15:55:42.876140 16495 layer_factory.hpp:77] Creating layer inception_5b/pool_proj
I0403 15:55:42.876163 16495 net.cpp:91] Creating Layer inception_5b/pool_proj
I0403 15:55:42.876179 16495 net.cpp:425] inception_5b/pool_proj <- inception_5b/pool
I0403 15:55:42.876200 16495 net.cpp:399] inception_5b/pool_proj -> inception_5b/pool_proj
I0403 15:55:42.878551 16495 net.cpp:141] Setting up inception_5b/pool_proj
I0403 15:55:42.878584 16495 net.cpp:148] Top shape: 24 128 7 7 (150528)
I0403 15:55:42.878605 16495 net.cpp:156] Memory required for data: 1340445216
I0403 15:55:42.878628 16495 layer_factory.hpp:77] Creating layer inception_5b/relu_pool_proj
I0403 15:55:42.878648 16495 net.cpp:91] Creating Layer inception_5b/relu_pool_proj
I0403 15:55:42.878664 16495 net.cpp:425] inception_5b/relu_pool_proj <- inception_5b/pool_proj
I0403 15:55:42.878685 16495 net.cpp:386] inception_5b/relu_pool_proj -> inception_5b/pool_proj (in-place)
I0403 15:55:42.878984 16495 net.cpp:141] Setting up inception_5b/relu_pool_proj
I0403 15:55:42.879014 16495 net.cpp:148] Top shape: 24 128 7 7 (150528)
I0403 15:55:42.879031 16495 net.cpp:156] Memory required for data: 1341047328
I0403 15:55:42.879046 16495 layer_factory.hpp:77] Creating layer inception_5b/output
I0403 15:55:42.879063 16495 net.cpp:91] Creating Layer inception_5b/output
I0403 15:55:42.879098 16495 net.cpp:425] inception_5b/output <- inception_5b/1x1
I0403 15:55:42.879117 16495 net.cpp:425] inception_5b/output <- inception_5b/3x3
I0403 15:55:42.879135 16495 net.cpp:425] inception_5b/output <- inception_5b/5x5
I0403 15:55:42.879151 16495 net.cpp:425] inception_5b/output <- inception_5b/pool_proj
I0403 15:55:42.879171 16495 net.cpp:399] inception_5b/output -> inception_5b/output
I0403 15:55:42.879223 16495 net.cpp:141] Setting up inception_5b/output
I0403 15:55:42.879248 16495 net.cpp:148] Top shape: 24 1024 7 7 (1204224)
I0403 15:55:42.879263 16495 net.cpp:156] Memory required for data: 1345864224
I0403 15:55:42.879278 16495 layer_factory.hpp:77] Creating layer pool5/7x7_s1
I0403 15:55:42.879298 16495 net.cpp:91] Creating Layer pool5/7x7_s1
I0403 15:55:42.879317 16495 net.cpp:425] pool5/7x7_s1 <- inception_5b/output
I0403 15:55:42.879334 16495 net.cpp:399] pool5/7x7_s1 -> pool5/7x7_s1
I0403 15:55:42.879556 16495 net.cpp:141] Setting up pool5/7x7_s1
I0403 15:55:42.879582 16495 net.cpp:148] Top shape: 24 1024 1 1 (24576)
I0403 15:55:42.879598 16495 net.cpp:156] Memory required for data: 1345962528
I0403 15:55:42.879621 16495 layer_factory.hpp:77] Creating layer pool5/drop_7x7_s1
I0403 15:55:42.879640 16495 net.cpp:91] Creating Layer pool5/drop_7x7_s1
I0403 15:55:42.879657 16495 net.cpp:425] pool5/drop_7x7_s1 <- pool5/7x7_s1
I0403 15:55:42.879678 16495 net.cpp:386] pool5/drop_7x7_s1 -> pool5/7x7_s1 (in-place)
I0403 15:55:42.879729 16495 net.cpp:141] Setting up pool5/drop_7x7_s1
I0403 15:55:42.879755 16495 net.cpp:148] Top shape: 24 1024 1 1 (24576)
I0403 15:55:42.879773 16495 net.cpp:156] Memory required for data: 1346060832
I0403 15:55:42.879788 16495 layer_factory.hpp:77] Creating layer loss3/classifier_plantvillage
I0403 15:55:42.879807 16495 net.cpp:91] Creating Layer loss3/classifier_plantvillage
I0403 15:55:42.879823 16495 net.cpp:425] loss3/classifier_plantvillage <- pool5/7x7_s1
I0403 15:55:42.879845 16495 net.cpp:399] loss3/classifier_plantvillage -> loss3/classifier_plantvillage
I0403 15:55:42.880272 16495 net.cpp:141] Setting up loss3/classifier_plantvillage
I0403 15:55:42.880301 16495 net.cpp:148] Top shape: 24 38 (912)
I0403 15:55:42.880318 16495 net.cpp:156] Memory required for data: 1346064480
I0403 15:55:42.880336 16495 layer_factory.hpp:77] Creating layer loss3/classifier_plantvillage_loss3/classifier_plantvillage_0_split
I0403 15:55:42.880355 16495 net.cpp:91] Creating Layer loss3/classifier_plantvillage_loss3/classifier_plantvillage_0_split
I0403 15:55:42.880373 16495 net.cpp:425] loss3/classifier_plantvillage_loss3/classifier_plantvillage_0_split <- loss3/classifier_plantvillage
I0403 15:55:42.880391 16495 net.cpp:399] loss3/classifier_plantvillage_loss3/classifier_plantvillage_0_split -> loss3/classifier_plantvillage_loss3/classifier_plantvillage_0_split_0
I0403 15:55:42.880414 16495 net.cpp:399] loss3/classifier_plantvillage_loss3/classifier_plantvillage_0_split -> loss3/classifier_plantvillage_loss3/classifier_plantvillage_0_split_1
I0403 15:55:42.880437 16495 net.cpp:399] loss3/classifier_plantvillage_loss3/classifier_plantvillage_0_split -> loss3/classifier_plantvillage_loss3/classifier_plantvillage_0_split_2
I0403 15:55:42.880460 16495 net.cpp:399] loss3/classifier_plantvillage_loss3/classifier_plantvillage_0_split -> loss3/classifier_plantvillage_loss3/classifier_plantvillage_0_split_3
I0403 15:55:42.880561 16495 net.cpp:141] Setting up loss3/classifier_plantvillage_loss3/classifier_plantvillage_0_split
I0403 15:55:42.880586 16495 net.cpp:148] Top shape: 24 38 (912)
I0403 15:55:42.880606 16495 net.cpp:148] Top shape: 24 38 (912)
I0403 15:55:42.880625 16495 net.cpp:148] Top shape: 24 38 (912)
I0403 15:55:42.880641 16495 net.cpp:148] Top shape: 24 38 (912)
I0403 15:55:42.880656 16495 net.cpp:156] Memory required for data: 1346079072
I0403 15:55:42.880669 16495 layer_factory.hpp:77] Creating layer loss1/loss
I0403 15:55:42.880693 16495 net.cpp:91] Creating Layer loss1/loss
I0403 15:55:42.880713 16495 net.cpp:425] loss1/loss <- loss1/classifier_plantvillage_loss1/classifier_plantvillage_0_split_0
I0403 15:55:42.880744 16495 net.cpp:425] loss1/loss <- label_data_1_split_0
…
