…
I0403 17:09:05.679450 20498 net.cpp:313] The NetState phase (1) differed from the phase (0) specified by a rule in layer data
I0403 17:09:05.680589 20498 net.cpp:49] Initializing net from parameters: 
state {
  phase: TEST
}
layer {
  name: "data"
  type: "Data"
  top: "data"
  top: "label"
  include {
    phase: TEST
  }
  transform_param {
    mirror: false
    crop_size: 224
    mean_file: "/home/mohanty/data/final_dataset/lmdb/color-20-80/mean.binaryproto"
  }
  data_param {
    source: "/home/mohanty/data/final_dataset/lmdb/color-20-80/test_db"
    batch_size: 24
    backend: LMDB
  }
}
layer {
  name: "conv1/7x7_s2"
  type: "Convolution"
  bottom: "data"
  top: "conv1/7x7_s2"
  param {
    lr_mult: 1
    decay_mult: 1
  }
  param {
    lr_mult: 2
    decay_mult: 0
  }
  convolution_param {
    num_output: 64
    pad: 3
    kernel_size: 7
    stride: 2
    weight_filler {
      type: "xavier"
      std: 0.1
    }
    bias_filler {
      type: "constant"
      value: 0.2
    }
  }
}
layer {
  name: "conv1/relu_7x7"
  type: "ReLU"
  bottom: "conv1/7x7_s2"
  top: "conv1/7x7_s2"
}
layer {
  name: "pool1/3x3_s2"
  type: "Pooling"
  bottom: "conv1/7x7_s2"
  top: "pool1/3x3_s2"
  pooling_param {
    pool: MAX
    kernel_size: 3
    stride: 2
  }
}
layer {
  name: "pool1/norm1"
  type: "LRN"
  bottom: "pool1/3x3_s2"
  top: "pool1/norm1"
  lrn_param {
    local_size: 5
    alpha: 0.0001
    beta: 0.75
  }
}
layer {
  name: "conv2/3x3_reduce"
  type: "Convolution"
  bottom: "pool1/norm1"
  top: "conv2/3x3_reduce"
  param {
    lr_mult: 1
    decay_mult: 1
  }
  param {
    lr_mult: 2
    decay_mult: 0
  }
  convolution_param {
    num_output: 64
    kernel_size: 1
    weight_filler {
      type: "xavier"
      std: 0.1
    }
    bias_filler {
      type: "constant"
      value: 0.2
    }
  }
}
layer {
  name: "conv2/relu_3x3_reduce"
  type: "ReLU"
  bottom: "conv2/3x3_reduce"
  top: "conv2/3x3_reduce"
}
layer {
  name: "conv2/3x3"
  type: "Convolution"
  bottom: "conv2/3x3_reduce"
  top: "conv2/3x3"
  param {
    lr_mult: 1
    decay_mult: 1
  }
  param {
    lr_mult: 2
    decay_mult: 0
  }
  convolution_param {
    num_output: 192
    pad: 1
    kernel_size: 3
    weight_filler {
      type: "xavier"
      std: 0.03
    }
    bias_filler {
      type: "constant"
      value: 0.2
    }
  }
}
layer {
  name: "conv2/relu_3x3"
  type: "ReLU"
  bottom: "conv2/3x3"
  top: "conv2/3x3"
}
layer {
  name: "conv2/norm2"
  type: "LRN"
  bottom: "conv2/3x3"
  top: "conv2/norm2"
  lrn_param {
    local_size: 5
    alpha: 0.0001
    beta: 0.75
  }
}
layer {
  name: "pool2/3x3_s2"
  type: "Pooling"
  bottom: "conv2/norm2"
  top: "pool2/3x3_s2"
  pooling_param {
    pool: MAX
    kernel_size: 3
    stride: 2
  }
}
layer {
  name: "inception_3a/1x1"
  type: "Convolution"
  bottom: "pool2/3x3_s2"
  top: "inception_3a/1x1"
  param {
    lr_mult: 1
    decay_mult: 1
  }
  param {
    lr_mult: 2
    decay_mult: 0
  }
  convolution_param {
    num_output: 64
    kernel_size: 1
    weight_filler {
      type: "xavier"
      std: 0.03
    }
    bias_filler {
      type: "constant"
      value: 0.2
    }
  }
}
layer {
  name: "inception_3a/relu_1x1"
  type: "ReLU"
  bottom: "inception_3a/1x1"
  top: "inception_3a/1x1"
}
layer {
  name: "inception_3a/3x3_reduce"
  type: "Convolution"
  bottom: "pool2/3x3_s2"
  top: "inception_3a/3x3_reduce"
  param {
    lr_mult: 1
    decay_mult: 1
  }
  param {
    lr_mult: 2
    decay_mult: 0
  }
  convolution_param {
    num_output: 96
    kernel_size: 1
    weight_filler {
      type: "xavier"
      std: 0.09
    }
    bias_filler {
      type: "constant"
      value: 0.2
    }
  }
}
layer {
  name: "inception_3a/relu_3x3_reduce"
  type: "ReLU"
  bottom: "inception_3a/3x3_reduce"
  top: "inception_3a/3x3_reduce"
}
layer {
  name: "inception_3a/3x3"
  type: "Convolution"
  bottom: "inception_3a/3x3_reduce"
  top: "inception_3a/3x3"
  param {
    lr_mult: 1
    decay_mult: 1
  }
  param {
    lr_mult: 2
    decay_mult: 0
  }
  convolution_param {
    num_output: 128
    pad: 1
    kernel_size: 3
    weight_filler {
      type: "xavier"
      std: 0.03
    }
    bias_filler {
      type: "constant"
      value: 0.2
    }
  }
}
layer {
  name: "inception_3a/relu_3x3"
  type: "ReLU"
  bottom: "inception_3a/3x3"
  top: "inception_3a/3x3"
}
layer {
  name: "inception_3a/5x5_reduce"
  type: "Convolution"
  bottom: "pool2/3x3_s2"
  top: "inception_3a/5x5_reduce"
  param {
    lr_mult: 1
    decay_mult: 1
  }
  param {
    lr_mult: 2
    decay_mult: 0
  }
  convolution_param {
    num_output: 16
    kernel_size: 1
    weight_filler {
      type: "xavier"
      std: 0.2
    }
    bias_filler {
      type: "constant"
      value: 0.2
    }
  }
}
layer {
  name: "inception_3a/relu_5x5_reduce"
  type: "ReLU"
  bottom: "inception_3a/5x5_reduce"
  top: "inception_3a/5x5_reduce"
}
layer {
  name: "inception_3a/5x5"
  type: "Convolution"
  bottom: "inception_3a/5x5_reduce"
  top: "inception_3a/5x5"
  param {
    lr_mult: 1
    decay_mult: 1
  }
  param {
    lr_mult: 2
    decay_mult: 0
  }
  convolution_param {
    num_output: 32
    pad: 2
    kernel_size: 5
    weight_filler {
      type: "xavier"
      std: 0.03
    }
    bias_filler {
      type: "constant"
      value: 0.2
    }
  }
}
layer {
  name: "inception_3a/relu_5x5"
  type: "ReLU"
  bottom: "inception_3a/5x5"
  top: "inception_3a/5x5"
}
layer {
  name: "inception_3a/pool"
  type: "Pooling"
  bottom: "pool2/3x3_s2"
  top: "inception_3a/pool"
  pooling_param {
    pool: MAX
    kernel_size: 3
    stride: 1
    pad: 1
  }
}
layer {
  name: "inception_3a/pool_proj"
  type: "Convolution"
  bottom: "inception_3a/pool"
  top: "inception_3a/pool_proj"
  param {
    lr_mult: 1
    decay_mult: 1
  }
  param {
    lr_mult: 2
    decay_mult: 0
  }
  convolution_param {
    num_output: 32
    kernel_size: 1
    weight_filler {
      type: "xavier"
      std: 0.1
    }
    bias_filler {
      type: "constant"
      value: 0.2
    }
  }
}
layer {
  name: "inception_3a/relu_pool_proj"
  type: "ReLU"
  bottom: "inception_3a/pool_proj"
  top: "inception_3a/pool_proj"
}
layer {
  name: "inception_3a/output"
  type: "Concat"
  bottom: "inception_3a/1x1"
  bottom: "inception_3a/3x3"
  bottom: "inception_3a/5x5"
  bottom: "inception_3a/pool_proj"
  top: "inception_3a/output"
}
layer {
  name: "inception_3b/1x1"
  type: "Convolution"
  bottom: "inception_3a/output"
  top: "inception_3b/1x1"
  param {
    lr_mult: 1
    decay_mult: 1
  }
  param {
    lr_mult: 2
    decay_mult: 0
  }
  convolution_param {
    num_output: 128
    kernel_size: 1
    weight_filler {
      type: "xavier"
      std: 0.03
    }
    bias_filler {
      type: "constant"
      value: 0.2
    }
  }
}
layer {
  name: "inception_3b/relu_1x1"
  type: "ReLU"
  bottom: "inception_3b/1x1"
  top: "inception_3b/1x1"
}
layer {
  name: "inception_3b/3x3_reduce"
  type: "Convolution"
  bottom: "inception_3a/output"
  top: "inception_3b/3x3_reduce"
  param {
    lr_mult: 1
    decay_mult: 1
  }
  param {
    lr_mult: 2
    decay_mult: 0
  }
  convolution_param {
    num_output: 128
    kernel_size: 1
    weight_filler {
      type: "xavier"
      std: 0.09
    }
    bias_filler {
      type: "constant"
      value: 0.2
    }
  }
}
layer {
  name: "inception_3b/relu_3x3_reduce"
  type: "ReLU"
  bottom: "inception_3b/3x3_reduce"
  top: "inception_3b/3x3_reduce"
}
layer {
  name: "inception_3b/3x3"
  type: "Convolution"
  bottom: "inception_3b/3x3_reduce"
  top: "inception_3b/3x3"
  param {
    lr_mult: 1
    decay_mult: 1
  }
  param {
    lr_mult: 2
    decay_mult: 0
  }
  convolution_param {
    num_output: 192
    pad: 1
    kernel_size: 3
    weight_filler {
      type: "xavier"
      std: 0.03
    }
    bias_filler {
      type: "constant"
      value: 0.2
    }
  }
}
layer {
  name: "inception_3b/relu_3x3"
  type: "ReLU"
  bottom: "inception_3b/3x3"
  top: "inception_3b/3x3"
}
layer {
  name: "inception_3b/5x5_reduce"
  type: "Convolution"
  bottom: "inception_3a/output"
  top: "inception_3b/5x5_reduce"
  param {
    lr_mult: 1
    decay_mult: 1
  }
  param {
    lr_mult: 2
    decay_mult: 0
  }
  convolution_param {
    num_output: 32
    kernel_size: 1
    weight_filler {
      type: "xavier"
      std: 0.2
    }
    bias_filler {
      type: "constant"
      value: 0.2
    }
  }
}
layer {
  name: "inception_3b/relu_5x5_reduce"
  type: "ReLU"
  bottom: "inception_3b/5x5_reduce"
  top: "inception_3b/5x5_reduce"
}
layer {
  name: "inception_3b/5x5"
  type: "Convolution"
  bottom: "inception_3b/5x5_reduce"
  top: "inception_3b/5x5"
  param {
    lr_mult: 1
    decay_mult: 1
  }
  param {
    lr_mult: 2
    decay_mult: 0
  }
  convolution_param {
    num_output: 96
    pad: 2
    kernel_size: 5
    weight_filler {
      type: "xavier"
      std: 0.03
    }
    bias_filler {
      type: "constant"
      value: 0.2
    }
  }
}
layer {
  name: "inception_3b/relu_5x5"
  type: "ReLU"
  bottom: "inception_3b/5x5"
  top: "inception_3b/5x5"
}
layer {
  name: "inception_3b/pool"
  type: "Pooling"
  bottom: "inception_3a/output"
  top: "inception_3b/pool"
  pooling_param {
    pool: MAX
    kernel_size: 3
    stride: 1
    pad: 1
  }
}
layer {
  name: "inception_3b/pool_proj"
  type: "Convolution"
  bottom: "inception_3b/pool"
  top: "inception_3b/pool_proj"
  param {
    lr_mult: 1
    decay_mult: 1
  }
  param {
    lr_mult: 2
    decay_mult: 0
  }
  convolution_param {
    num_output: 64
    kernel_size: 1
    weight_filler {
      type: "xavier"
      std: 0.1
    }
    bias_filler {
      type: "constant"
      value: 0.2
    }
  }
}
layer {
  name: "inception_3b/relu_pool_proj"
  type: "ReLU"
  bottom: "inception_3b/pool_proj"
  top: "inception_3b/pool_proj"
}
layer {
  name: "inception_3b/output"
  type: "Concat"
  bottom: "inception_3b/1x1"
  bottom: "inception_3b/3x3"
  bottom: "inception_3b/5x5"
  bottom: "inception_3b/pool_proj"
  top: "inception_3b/output"
}
layer {
  name: "pool3/3x3_s2"
  type: "Pooling"
  bottom: "inception_3b/output"
  top: "pool3/3x3_s2"
  pooling_param {
    pool: MAX
    kernel_size: 3
    stride: 2
  }
}
layer {
  name: "inception_4a/1x1"
  type: "Convolution"
  bottom: "pool3/3x3_s2"
  top: "inception_4a/1x1"
  param {
    lr_mult: 1
    decay_mult: 1
  }
  param {
    lr_mult: 2
    decay_mult: 0
  }
  convolution_param {
    num_output: 192
    kernel_size: 1
    weight_filler {
      type: "xavier"
      std: 0.03
    }
    bias_filler {
      type: "constant"
      value: 0.2
    }
  }
}
layer {
  name: "inception_4a/relu_1x1"
  type: "ReLU"
  bottom: "inception_4a/1x1"
  top: "inception_4a/1x1"
}
layer {
  name: "inception_4a/3x3_reduce"
  type: "Convolution"
  bottom: "pool3/3x3_s2"
  top: "inception_4a/3x3_reduce"
  param {
    lr_mult: 1
    decay_mult: 1
  }
  param {
    lr_mult: 2
    decay_mult: 0
  }
  convolution_param {
    num_output: 96
    kernel_size: 1
    weight_filler {
      type: "xavier"
      std: 0.09
    }
    bias_filler {
      type: "constant"
      value: 0.2
    }
  }
}
layer {
  name: "inception_4a/relu_3x3_reduce"
  type: "ReLU"
  bottom: "inception_4a/3x3_reduce"
  top: "inception_4a/3x3_reduce"
}
layer {
  name: "inception_4a/3x3"
  type: "Convolution"
  bottom: "inception_4a/3x3_reduce"
  top: "inception_4a/3x3"
  param {
    lr_mult: 1
    decay_mult: 1
  }
  param {
    lr_mult: 2
    decay_mult: 0
  }
  convolution_param {
    num_output: 208
    pad: 1
    kernel_size: 3
    weight_filler {
      type: "xavier"
      std: 0.03
    }
    bias_filler {
      type: "constant"
      value: 0.2
    }
  }
}
layer {
  name: "inception_4a/relu_3x3"
  type: "ReLU"
  bottom: "inception_4a/3x3"
  top: "inception_4a/3x3"
}
layer {
  name: "inception_4a/5x5_reduce"
  type: "Convolution"
  bottom: "pool3/3x3_s2"
  top: "inception_4a/5x5_reduce"
  param {
    lr_mult: 1
    decay_mult: 1
  }
  param {
    lr_mult: 2
    decay_mult: 0
  }
  convolution_param {
    num_output: 16
    kernel_size: 1
    weight_filler {
      type: "xavier"
      std: 0.2
    }
    bias_filler {
      type: "constant"
      value: 0.2
    }
  }
}
layer {
  name: "inception_4a/relu_5x5_reduce"
  type: "ReLU"
  bottom: "inception_4a/5x5_reduce"
  top: "inception_4a/5x5_reduce"
}
layer {
  name: "inception_4a/5x5"
  type: "Convolution"
  bottom: "inception_4a/5x5_reduce"
  top: "inception_4a/5x5"
  param {
    lr_mult: 1
    decay_mult: 1
  }
  param {
    lr_mult: 2
    decay_mult: 0
  }
  convolution_param {
    num_output: 48
    pad: 2
    kernel_size: 5
    weight_filler {
      type: "xavier"
      std: 0.03
    }
    bias_filler {
      type: "constant"
      value: 0.2
    }
  }
}
layer {
  name: "inception_4a/relu_5x5"
  type: "ReLU"
  bottom: "inception_4a/5x5"
  top: "inception_4a/5x5"
}
layer {
  name: "inception_4a/pool"
  type: "Pooling"
  bottom: "pool3/3x3_s2"
  top: "inception_4a/pool"
  pooling_param {
    pool: MAX
    kernel_size: 3
    stride: 1
    pad: 1
  }
}
layer {
  name: "inception_4a/pool_proj"
  type: "Convolution"
  bottom: "inception_4a/pool"
  top: "inception_4a/pool_proj"
  param {
    lr_mult: 1
    decay_mult: 1
  }
  param {
    lr_mult: 2
    decay_mult: 0
  }
  convolution_param {
    num_output: 64
    kernel_size: 1
    weight_filler {
      type: "xavier"
      std: 0.1
    }
    bias_filler {
      type: "constant"
      value: 0.2
    }
  }
}
layer {
  name: "inception_4a/relu_pool_proj"
  type: "ReLU"
  bottom: "inception_4a/pool_proj"
  top: "inception_4a/pool_proj"
}
layer {
  name: "inception_4a/output"
  type: "Concat"
  bottom: "inception_4a/1x1"
  bottom: "inception_4a/3x3"
  bottom: "inception_4a/5x5"
  bottom: "inception_4a/pool_proj"
  top: "inception_4a/output"
}
layer {
  name: "loss1/ave_pool"
  type: "Pooling"
  bottom: "inception_4a/output"
  top: "loss1/ave_pool"
  pooling_param {
    pool: AVE
    kernel_size: 5
    stride: 3
  }
}
layer {
  name: "loss1/conv"
  type: "Convolution"
  bottom: "loss1/ave_pool"
  top: "loss1/conv"
  param {
    lr_mult: 1
    decay_mult: 1
  }
  param {
    lr_mult: 2
    decay_mult: 0
  }
  convolution_param {
    num_output: 128
    kernel_size: 1
    weight_filler {
      type: "xavier"
      std: 0.08
    }
    bias_filler {
      type: "constant"
      value: 0.2
    }
  }
}
layer {
  name: "loss1/relu_conv"
  type: "ReLU"
  bottom: "loss1/conv"
  top: "loss1/conv"
}
layer {
  name: "loss1/fc"
  type: "InnerProduct"
  bottom: "loss1/conv"
  top: "loss1/fc"
  param {
    lr_mult: 1
    decay_mult: 1
  }
  param {
    lr_mult: 2
    decay_mult: 0
  }
  inner_product_param {
    num_output: 1024
    weight_filler {
      type: "xavier"
      std: 0.02
    }
    bias_filler {
      type: "constant"
      value: 0.2
    }
  }
}
layer {
  name: "loss1/relu_fc"
  type: "ReLU"
  bottom: "loss1/fc"
  top: "loss1/fc"
}
layer {
  name: "loss1/drop_fc"
  type: "Dropout"
  bottom: "loss1/fc"
  top: "loss1/fc"
  dropout_param {
    dropout_ratio: 0.7
  }
}
layer {
  name: "loss1/classifier_plantvillage"
  type: "InnerProduct"
  bottom: "loss1/fc"
  top: "loss1/classifier_plantvillage"
  param {
    lr_mult: 1
    decay_mult: 1
  }
  param {
    lr_mult: 2
    decay_mult: 0
  }
  inner_product_param {
    num_output: 38
    weight_filler {
      type: "xavier"
      std: 0.0009765625
    }
    bias_filler {
      type: "constant"
      value: 0
    }
  }
}
layer {
  name: "inception_4b/1x1"
  type: "Convolution"
  bottom: "inception_4a/output"
  top: "inception_4b/1x1"
  param {
    lr_mult: 1
    decay_mult: 1
  }
  param {
    lr_mult: 2
    decay_mult: 0
  }
  convolution_param {
    num_output: 160
    kernel_size: 1
    weight_filler {
      type: "xavier"
      std: 0.03
    }
    bias_filler {
      type: "constant"
      value: 0.2
    }
  }
}
layer {
  name: "inception_4b/relu_1x1"
  type: "ReLU"
  bottom: "inception_4b/1x1"
  top: "inception_4b/1x1"
}
layer {
  name: "inception_4b/3x3_reduce"
  type: "Convolution"
  bottom: "inception_4a/output"
  top: "inception_4b/3x3_reduce"
  param {
    lr_mult: 1
    decay_mult: 1
  }
  param {
    lr_mult: 2
    decay_mult: 0
  }
  convolution_param {
    num_output: 112
    kernel_size: 1
    weight_filler {
      type: "xavier"
      std: 0.09
    }
    bias_filler {
      type: "constant"
      value: 0.2
    }
  }
}
layer {
  name: "inception_4b/relu_3x3_reduce"
  type: "ReLU"
  bottom: "inception_4b/3x3_reduce"
  top: "inception_4b/3x3_reduce"
}
layer {
  name: "inception_4b/3x3"
  type: "Convolution"
  bottom: "inception_4b/3x3_reduce"
  top: "inception_4b/3x3"
  param {
    lr_mult: 1
    decay_mult: 1
  }
  param {
    lr_mult: 2
    decay_mult: 0
  }
  convolution_param {
    num_output: 224
    pad: 1
    kernel_size: 3
    weight_filler {
      type: "xavier"
      std: 0.03
    }
    bias_filler {
      type: "constant"
      value: 0.2
    }
  }
}
layer {
  name: "inception_4b/relu_3x3"
  type: "ReLU"
  bottom: "inception_4b/3x3"
  top: "inception_4b/3x3"
}
layer {
  name: "inception_4b/5x5_reduce"
  type: "Convolution"
  bottom: "inception_4a/output"
  top: "inception_4b/5x5_reduce"
  param {
    lr_mult: 1
    decay_mult: 1
  }
  param {
    lr_mult: 2
    decay_mult: 0
  }
  convolution_param {
    num_output: 24
    kernel_size: 1
    weight_filler {
      type: "xavier"
      std: 0.2
    }
    bias_filler {
      type: "constant"
      value: 0.2
    }
  }
}
layer {
  name: "inception_4b/relu_5x5_reduce"
  type: "ReLU"
  bottom: "inception_4b/5x5_reduce"
  top: "inception_4b/5x5_reduce"
}
layer {
  name: "inception_4b/5x5"
  type: "Convolution"
  bottom: "inception_4b/5x5_reduce"
  top: "inception_4b/5x5"
  param {
    lr_mult: 1
    decay_mult: 1
  }
  param {
    lr_mult: 2
    decay_mult: 0
  }
  convolution_param {
    num_output: 64
    pad: 2
    kernel_size: 5
    weight_filler {
      type: "xavier"
      std: 0.03
    }
    bias_filler {
      type: "constant"
      value: 0.2
    }
  }
}
layer {
  name: "inception_4b/relu_5x5"
  type: "ReLU"
  bottom: "inception_4b/5x5"
  top: "inception_4b/5x5"
}
layer {
  name: "inception_4b/pool"
  type: "Pooling"
  bottom: "inception_4a/output"
  top: "inception_4b/pool"
  pooling_param {
    pool: MAX
    kernel_size: 3
    stride: 1
    pad: 1
  }
}
layer {
  name: "inception_4b/pool_proj"
  type: "Convolution"
  bottom: "inception_4b/pool"
  top: "inception_4b/pool_proj"
  param {
    lr_mult: 1
    decay_mult: 1
  }
  param {
    lr_mult: 2
    decay_mult: 0
  }
  convolution_param {
    num_output: 64
    kernel_size: 1
    weight_filler {
      type: "xavier"
      std: 0.1
    }
    bias_filler {
      type: "constant"
      value: 0.2
    }
  }
}
layer {
  name: "inception_4b/relu_pool_proj"
  type: "ReLU"
  bottom: "inception_4b/pool_proj"
  top: "inception_4b/pool_proj"
}
layer {
  name: "inception_4b/output"
  type: "Concat"
  bottom: "inception_4b/1x1"
  bottom: "inception_4b/3x3"
  bottom: "inception_4b/5x5"
  bottom: "inception_4b/pool_proj"
  top: "inception_4b/output"
}
layer {
  name: "inception_4c/1x1"
  type: "Convolution"
  bottom: "inception_4b/output"
  top: "inception_4c/1x1"
  param {
    lr_mult: 1
    decay_mult: 1
  }
  param {
    lr_mult: 2
    decay_mult: 0
  }
  convolution_param {
    num_output: 128
    kernel_size: 1
    weight_filler {
      type: "xavier"
      std: 0.03
    }
    bias_filler {
      type: "constant"
      value: 0.2
    }
  }
}
layer {
  name: "inception_4c/relu_1x1"
  type: "ReLU"
  bottom: "inception_4c/1x1"
  top: "inception_4c/1x1"
}
layer {
  name: "inception_4c/3x3_reduce"
  type: "Convolution"
  bottom: "inception_4b/output"
  top: "inception_4c/3x3_reduce"
  param {
    lr_mult: 1
    decay_mult: 1
  }
  param {
    lr_mult: 2
    decay_mult: 0
  }
  convolution_param {
    num_output: 128
    kernel_size: 1
    weight_filler {
      type: "xavier"
      std: 0.09
    }
    bias_filler {
      type: "constant"
      value: 0.2
    }
  }
}
layer {
  name: "inception_4c/relu_3x3_reduce"
  type: "ReLU"
  bottom: "inception_4c/3x3_reduce"
  top: "inception_4c/3x3_reduce"
}
layer {
  name: "inception_4c/3x3"
  type: "Convolution"
  bottom: "inception_4c/3x3_reduce"
  top: "inception_4c/3x3"
  param {
    lr_mult: 1
    decay_mult: 1
  }
  param {
    lr_mult: 2
    decay_mult: 0
  }
  convolution_param {
    num_output: 256
    pad: 1
    kernel_size: 3
    weight_filler {
      type: "xavier"
      std: 0.03
    }
    bias_filler {
      type: "constant"
      value: 0.2
    }
  }
}
layer {
  name: "inception_4c/relu_3x3"
  type: "ReLU"
  bottom: "inception_4c/3x3"
  top: "inception_4c/3x3"
}
layer {
  name: "inception_4c/5x5_reduce"
  type: "Convolution"
  bottom: "inception_4b/output"
  top: "inception_4c/5x5_reduce"
  param {
    lr_mult: 1
    decay_mult: 1
  }
  param {
    lr_mult: 2
    decay_mult: 0
  }
  convolution_param {
    num_output: 24
    kernel_size: 1
    weight_filler {
      type: "xavier"
      std: 0.2
    }
    bias_filler {
      type: "constant"
      value: 0.2
    }
  }
}
layer {
  name: "inception_4c/relu_5x5_reduce"
  type: "ReLU"
  bottom: "inception_4c/5x5_reduce"
  top: "inception_4c/5x5_reduce"
}
layer {
  name: "inception_4c/5x5"
  type: "Convolution"
  bottom: "inception_4c/5x5_reduce"
  top: "inception_4c/5x5"
  param {
    lr_mult: 1
    decay_mult: 1
  }
  param {
    lr_mult: 2
    decay_mult: 0
  }
  convolution_param {
    num_output: 64
    pad: 2
    kernel_size: 5
    weight_filler {
      type: "xavier"
      std: 0.03
    }
    bias_filler {
      type: "constant"
      value: 0.2
    }
  }
}
layer {
  name: "inception_4c/relu_5x5"
  type: "ReLU"
  bottom: "inception_4c/5x5"
  top: "inception_4c/5x5"
}
layer {
  name: "inception_4c/pool"
  type: "Pooling"
  bottom: "inception_4b/output"
  top: "inception_4c/pool"
  pooling_param {
    pool: MAX
    kernel_size: 3
    stride: 1
    pad: 1
  }
}
layer {
  name: "inception_4c/pool_proj"
  type: "Convolution"
  bottom: "inception_4c/pool"
  top: "inception_4c/pool_proj"
  param {
    lr_mult: 1
    decay_mult: 1
  }
  param {
    lr_mult: 2
    decay_mult: 0
  }
  convolution_param {
    num_output: 64
    kernel_size: 1
    weight_filler {
      type: "xavier"
      std: 0.1
    }
    bias_filler {
      type: "constant"
      value: 0.2
    }
  }
}
layer {
  name: "inception_4c/relu_pool_proj"
  type: "ReLU"
  bottom: "inception_4c/pool_proj"
  top: "inception_4c/pool_proj"
}
layer {
  name: "inception_4c/output"
  type: "Concat"
  bottom: "inception_4c/1x1"
  bottom: "inception_4c/3x3"
  bottom: "inception_4c/5x5"
  bottom: "inception_4c/pool_proj"
  top: "inception_4c/output"
}
layer {
  name: "inception_4d/1x1"
  type: "Convolution"
  bottom: "inception_4c/output"
  top: "inception_4d/1x1"
  param {
    lr_mult: 1
    decay_mult: 1
  }
  param {
    lr_mult: 2
    decay_mult: 0
  }
  convolution_param {
    num_output: 112
    kernel_size: 1
    weight_filler {
      type: "xavier"
      std: 0.03
    }
    bias_filler {
      type: "constant"
      value: 0.2
    }
  }
}
layer {
  name: "inception_4d/relu_1x1"
  type: "ReLU"
  bottom: "inception_4d/1x1"
  top: "inception_4d/1x1"
}
layer {
  name: "inception_4d/3x3_reduce"
  type: "Convolution"
  bottom: "inception_4c/output"
  top: "inception_4d/3x3_reduce"
  param {
    lr_mult: 1
    decay_mult: 1
  }
  param {
    lr_mult: 2
    decay_mult: 0
  }
  convolution_param {
    num_output: 144
    kernel_size: 1
    weight_filler {
      type: "xavier"
      std: 0.09
    }
    bias_filler {
      type: "constant"
      value: 0.2
    }
  }
}
layer {
  name: "inception_4d/relu_3x3_reduce"
  type: "ReLU"
  bottom: "inception_4d/3x3_reduce"
  top: "inception_4d/3x3_reduce"
}
layer {
  name: "inception_4d/3x3"
  type: "Convolution"
  bottom: "inception_4d/3x3_reduce"
  top: "inception_4d/3x3"
  param {
    lr_mult: 1
    decay_mult: 1
  }
  param {
    lr_mult: 2
    decay_mult: 0
  }
  convolution_param {
    num_output: 288
    pad: 1
    kernel_size: 3
    weight_filler {
      type: "xavier"
      std: 0.03
    }
    bias_filler {
      type: "constant"
      value: 0.2
    }
  }
}
layer {
  name: "inception_4d/relu_3x3"
  type: "ReLU"
  bottom: "inception_4d/3x3"
  top: "inception_4d/3x3"
}
layer {
  name: "inception_4d/5x5_reduce"
  type: "Convolution"
  bottom: "inception_4c/output"
  top: "inception_4d/5x5_reduce"
  param {
    lr_mult: 1
    decay_mult: 1
  }
  param {
    lr_mult: 2
    decay_mult: 0
  }
  convolution_param {
    num_output: 32
    kernel_size: 1
    weight_filler {
      type: "xavier"
      std: 0.2
    }
    bias_filler {
      type: "constant"
      value: 0.2
    }
  }
}
layer {
  name: "inception_4d/relu_5x5_reduce"
  type: "ReLU"
  bottom: "inception_4d/5x5_reduce"
  top: "inception_4d/5x5_reduce"
}
layer {
  name: "inception_4d/5x5"
  type: "Convolution"
  bottom: "inception_4d/5x5_reduce"
  top: "inception_4d/5x5"
  param {
    lr_mult: 1
    decay_mult: 1
  }
  param {
    lr_mult: 2
    decay_mult: 0
  }
  convolution_param {
    num_output: 64
    pad: 2
    kernel_size: 5
    weight_filler {
      type: "xavier"
      std: 0.03
    }
    bias_filler {
      type: "constant"
      value: 0.2
    }
  }
}
layer {
  name: "inception_4d/relu_5x5"
  type: "ReLU"
  bottom: "inception_4d/5x5"
  top: "inception_4d/5x5"
}
layer {
  name: "inception_4d/pool"
  type: "Pooling"
  bottom: "inception_4c/output"
  top: "inception_4d/pool"
  pooling_param {
    pool: MAX
    kernel_size: 3
    stride: 1
    pad: 1
  }
}
layer {
  name: "inception_4d/pool_proj"
  type: "Convolution"
  bottom: "inception_4d/pool"
  top: "inception_4d/pool_proj"
  param {
    lr_mult: 1
    decay_mult: 1
  }
  param {
    lr_mult: 2
    decay_mult: 0
  }
  convolution_param {
    num_output: 64
    kernel_size: 1
    weight_filler {
      type: "xavier"
      std: 0.1
    }
    bias_filler {
      type: "constant"
      value: 0.2
    }
  }
}
layer {
  name: "inception_4d/relu_pool_proj"
  type: "ReLU"
  bottom: "inception_4d/pool_proj"
  top: "inception_4d/pool_proj"
}
layer {
  name: "inception_4d/output"
  type: "Concat"
  bottom: "inception_4d/1x1"
  bottom: "inception_4d/3x3"
  bottom: "inception_4d/5x5"
  bottom: "inception_4d/pool_proj"
  top: "inception_4d/output"
}
layer {
  name: "loss2/ave_pool"
  type: "Pooling"
  bottom: "inception_4d/output"
  top: "loss2/ave_pool"
  pooling_param {
    pool: AVE
    kernel_size: 5
    stride: 3
  }
}
layer {
  name: "loss2/conv"
  type: "Convolution"
  bottom: "loss2/ave_pool"
  top: "loss2/conv"
  param {
    lr_mult: 1
    decay_mult: 1
  }
  param {
    lr_mult: 2
    decay_mult: 0
  }
  convolution_param {
    num_output: 128
    kernel_size: 1
    weight_filler {
      type: "xavier"
      std: 0.08
    }
    bias_filler {
      type: "constant"
      value: 0.2
    }
  }
}
layer {
  name: "loss2/relu_conv"
  type: "ReLU"
  bottom: "loss2/conv"
  top: "loss2/conv"
}
layer {
  name: "loss2/fc"
  type: "InnerProduct"
  bottom: "loss2/conv"
  top: "loss2/fc"
  param {
    lr_mult: 1
    decay_mult: 1
  }
  param {
    lr_mult: 2
    decay_mult: 0
  }
  inner_product_param {
    num_output: 1024
    weight_filler {
      type: "xavier"
      std: 0.02
    }
    bias_filler {
      type: "constant"
      value: 0.2
    }
  }
}
layer {
  name: "loss2/relu_fc"
  type: "ReLU"
  bottom: "loss2/fc"
  top: "loss2/fc"
}
layer {
  name: "loss2/drop_fc"
  type: "Dropout"
  bottom: "loss2/fc"
  top: "loss2/fc"
  dropout_param {
    dropout_ratio: 0.7
  }
}
layer {
  name: "loss2/classifier_plantvillage"
  type: "InnerProduct"
  bottom: "loss2/fc"
  top: "loss2/classifier_plantvillage"
  param {
    lr_mult: 1
    decay_mult: 1
  }
  param {
    lr_mult: 2
    decay_mult: 0
  }
  inner_product_param {
    num_output: 38
    weight_filler {
      type: "xavier"
      std: 0.0009765625
    }
    bias_filler {
      type: "constant"
      value: 0
    }
  }
}
layer {
  name: "inception_4e/1x1"
  type: "Convolution"
  bottom: "inception_4d/output"
  top: "inception_4e/1x1"
  param {
    lr_mult: 1
    decay_mult: 1
  }
  param {
    lr_mult: 2
    decay_mult: 0
  }
  convolution_param {
    num_output: 256
    kernel_size: 1
    weight_filler {
      type: "xavier"
      std: 0.03
    }
    bias_filler {
      type: "constant"
      value: 0.2
    }
  }
}
layer {
  name: "inception_4e/relu_1x1"
  type: "ReLU"
  bottom: "inception_4e/1x1"
  top: "inception_4e/1x1"
}
layer {
  name: "inception_4e/3x3_reduce"
  type: "Convolution"
  bottom: "inception_4d/output"
  top: "inception_4e/3x3_reduce"
  param {
    lr_mult: 1
    decay_mult: 1
  }
  param {
    lr_mult: 2
    decay_mult: 0
  }
  convolution_param {
    num_output: 160
    kernel_size: 1
    weight_filler {
      type: "xavier"
      std: 0.09
    }
    bias_filler {
      type: "constant"
      value: 0.2
    }
  }
}
layer {
  name: "inception_4e/relu_3x3_reduce"
  type: "ReLU"
  bottom: "inception_4e/3x3_reduce"
  top: "inception_4e/3x3_reduce"
}
layer {
  name: "inception_4e/3x3"
  type: "Convolution"
  bottom: "inception_4e/3x3_reduce"
  top: "inception_4e/3x3"
  param {
    lr_mult: 1
    decay_mult: 1
  }
  param {
    lr_mult: 2
    decay_mult: 0
  }
  convolution_param {
    num_output: 320
    pad: 1
    kernel_size: 3
    weight_filler {
      type: "xavier"
      std: 0.03
    }
    bias_filler {
      type: "constant"
      value: 0.2
    }
  }
}
layer {
  name: "inception_4e/relu_3x3"
  type: "ReLU"
  bottom: "inception_4e/3x3"
  top: "inception_4e/3x3"
}
layer {
  name: "inception_4e/5x5_reduce"
  type: "Convolution"
  bottom: "inception_4d/output"
  top: "inception_4e/5x5_reduce"
  param {
    lr_mult: 1
    decay_mult: 1
  }
  param {
    lr_mult: 2
    decay_mult: 0
  }
  convolution_param {
    num_output: 32
    kernel_size: 1
    weight_filler {
      type: "xavier"
      std: 0.2
    }
    bias_filler {
      type: "constant"
      value: 0.2
    }
  }
}
layer {
  name: "inception_4e/relu_5x5_reduce"
  type: "ReLU"
  bottom: "inception_4e/5x5_reduce"
  top: "inception_4e/5x5_reduce"
}
layer {
  name: "inception_4e/5x5"
  type: "Convolution"
  bottom: "inception_4e/5x5_reduce"
  top: "inception_4e/5x5"
  p
I0403 17:09:05.681788 20498 layer_factory.hpp:77] Creating layer data
I0403 17:09:05.682409 20498 net.cpp:91] Creating Layer data
I0403 17:09:05.682440 20498 net.cpp:399] data -> data
I0403 17:09:05.682492 20498 net.cpp:399] data -> label
I0403 17:09:05.682528 20498 data_transformer.cpp:25] Loading mean file from: /home/mohanty/data/final_dataset/lmdb/color-20-80/mean.binaryproto
I0403 17:09:05.683586 20501 db_lmdb.cpp:38] Opened lmdb /home/mohanty/data/final_dataset/lmdb/color-20-80/test_db
I0403 17:09:05.695334 20498 data_layer.cpp:41] output data size: 24,3,224,224
I0403 17:09:05.722170 20498 net.cpp:141] Setting up data
I0403 17:09:05.722240 20498 net.cpp:148] Top shape: 24 3 224 224 (3612672)
I0403 17:09:05.722264 20498 net.cpp:148] Top shape: 24 (24)
I0403 17:09:05.722280 20498 net.cpp:156] Memory required for data: 14450784
I0403 17:09:05.722307 20498 layer_factory.hpp:77] Creating layer label_data_1_split
I0403 17:09:05.722334 20498 net.cpp:91] Creating Layer label_data_1_split
I0403 17:09:05.722352 20498 net.cpp:425] label_data_1_split <- label
I0403 17:09:05.722384 20498 net.cpp:399] label_data_1_split -> label_data_1_split_0
I0403 17:09:05.722414 20498 net.cpp:399] label_data_1_split -> label_data_1_split_1
I0403 17:09:05.722436 20498 net.cpp:399] label_data_1_split -> label_data_1_split_2
I0403 17:09:05.722457 20498 net.cpp:399] label_data_1_split -> label_data_1_split_3
I0403 17:09:05.722479 20498 net.cpp:399] label_data_1_split -> label_data_1_split_4
I0403 17:09:05.722501 20498 net.cpp:399] label_data_1_split -> label_data_1_split_5
I0403 17:09:05.722520 20498 net.cpp:399] label_data_1_split -> label_data_1_split_6
I0403 17:09:05.722542 20498 net.cpp:399] label_data_1_split -> label_data_1_split_7
I0403 17:09:05.722563 20498 net.cpp:399] label_data_1_split -> label_data_1_split_8
I0403 17:09:05.722584 20498 net.cpp:399] label_data_1_split -> label_data_1_split_9
I0403 17:09:05.722702 20498 net.cpp:141] Setting up label_data_1_split
I0403 17:09:05.722725 20498 net.cpp:148] Top shape: 24 (24)
I0403 17:09:05.722744 20498 net.cpp:148] Top shape: 24 (24)
I0403 17:09:05.722759 20498 net.cpp:148] Top shape: 24 (24)
I0403 17:09:05.722775 20498 net.cpp:148] Top shape: 24 (24)
I0403 17:09:05.722791 20498 net.cpp:148] Top shape: 24 (24)
I0403 17:09:05.722807 20498 net.cpp:148] Top shape: 24 (24)
I0403 17:09:05.722825 20498 net.cpp:148] Top shape: 24 (24)
I0403 17:09:05.722839 20498 net.cpp:148] Top shape: 24 (24)
I0403 17:09:05.722856 20498 net.cpp:148] Top shape: 24 (24)
I0403 17:09:05.722872 20498 net.cpp:148] Top shape: 24 (24)
I0403 17:09:05.722915 20498 net.cpp:156] Memory required for data: 14451744
I0403 17:09:05.722932 20498 layer_factory.hpp:77] Creating layer conv1/7x7_s2
I0403 17:09:05.722964 20498 net.cpp:91] Creating Layer conv1/7x7_s2
I0403 17:09:05.722981 20498 net.cpp:425] conv1/7x7_s2 <- data
I0403 17:09:05.723001 20498 net.cpp:399] conv1/7x7_s2 -> conv1/7x7_s2
I0403 17:09:05.859035 20498 net.cpp:141] Setting up conv1/7x7_s2
I0403 17:09:05.859098 20498 net.cpp:148] Top shape: 24 64 112 112 (19267584)
I0403 17:09:05.859117 20498 net.cpp:156] Memory required for data: 91522080
I0403 17:09:05.859148 20498 layer_factory.hpp:77] Creating layer conv1/relu_7x7
I0403 17:09:05.859176 20498 net.cpp:91] Creating Layer conv1/relu_7x7
I0403 17:09:05.859196 20498 net.cpp:425] conv1/relu_7x7 <- conv1/7x7_s2
I0403 17:09:05.859216 20498 net.cpp:386] conv1/relu_7x7 -> conv1/7x7_s2 (in-place)
I0403 17:09:05.859472 20498 net.cpp:141] Setting up conv1/relu_7x7
I0403 17:09:05.859500 20498 net.cpp:148] Top shape: 24 64 112 112 (19267584)
I0403 17:09:05.859516 20498 net.cpp:156] Memory required for data: 168592416
I0403 17:09:05.859532 20498 layer_factory.hpp:77] Creating layer pool1/3x3_s2
I0403 17:09:05.859557 20498 net.cpp:91] Creating Layer pool1/3x3_s2
I0403 17:09:05.859576 20498 net.cpp:425] pool1/3x3_s2 <- conv1/7x7_s2
I0403 17:09:05.859596 20498 net.cpp:399] pool1/3x3_s2 -> pool1/3x3_s2
I0403 17:09:05.859702 20498 net.cpp:141] Setting up pool1/3x3_s2
I0403 17:09:05.859730 20498 net.cpp:148] Top shape: 24 64 56 56 (4816896)
I0403 17:09:05.859745 20498 net.cpp:156] Memory required for data: 187860000
I0403 17:09:05.859761 20498 layer_factory.hpp:77] Creating layer pool1/norm1
I0403 17:09:05.859786 20498 net.cpp:91] Creating Layer pool1/norm1
I0403 17:09:05.859803 20498 net.cpp:425] pool1/norm1 <- pool1/3x3_s2
I0403 17:09:05.859822 20498 net.cpp:399] pool1/norm1 -> pool1/norm1
I0403 17:09:05.860105 20498 net.cpp:141] Setting up pool1/norm1
I0403 17:09:05.860132 20498 net.cpp:148] Top shape: 24 64 56 56 (4816896)
I0403 17:09:05.860148 20498 net.cpp:156] Memory required for data: 207127584
I0403 17:09:05.860164 20498 layer_factory.hpp:77] Creating layer conv2/3x3_reduce
I0403 17:09:05.860189 20498 net.cpp:91] Creating Layer conv2/3x3_reduce
I0403 17:09:05.860208 20498 net.cpp:425] conv2/3x3_reduce <- pool1/norm1
I0403 17:09:05.860226 20498 net.cpp:399] conv2/3x3_reduce -> conv2/3x3_reduce
I0403 17:09:05.861577 20498 net.cpp:141] Setting up conv2/3x3_reduce
I0403 17:09:05.861609 20498 net.cpp:148] Top shape: 24 64 56 56 (4816896)
I0403 17:09:05.861627 20498 net.cpp:156] Memory required for data: 226395168
I0403 17:09:05.861649 20498 layer_factory.hpp:77] Creating layer conv2/relu_3x3_reduce
I0403 17:09:05.861668 20498 net.cpp:91] Creating Layer conv2/relu_3x3_reduce
I0403 17:09:05.861685 20498 net.cpp:425] conv2/relu_3x3_reduce <- conv2/3x3_reduce
I0403 17:09:05.861702 20498 net.cpp:386] conv2/relu_3x3_reduce -> conv2/3x3_reduce (in-place)
I0403 17:09:05.861964 20498 net.cpp:141] Setting up conv2/relu_3x3_reduce
I0403 17:09:05.861992 20498 net.cpp:148] Top shape: 24 64 56 56 (4816896)
I0403 17:09:05.862009 20498 net.cpp:156] Memory required for data: 245662752
I0403 17:09:05.862025 20498 layer_factory.hpp:77] Creating layer conv2/3x3
I0403 17:09:05.862047 20498 net.cpp:91] Creating Layer conv2/3x3
I0403 17:09:05.862076 20498 net.cpp:425] conv2/3x3 <- conv2/3x3_reduce
I0403 17:09:05.862095 20498 net.cpp:399] conv2/3x3 -> conv2/3x3
I0403 17:09:05.864351 20498 net.cpp:141] Setting up conv2/3x3
I0403 17:09:05.864382 20498 net.cpp:148] Top shape: 24 192 56 56 (14450688)
I0403 17:09:05.864398 20498 net.cpp:156] Memory required for data: 303465504
I0403 17:09:05.864420 20498 layer_factory.hpp:77] Creating layer conv2/relu_3x3
I0403 17:09:05.864440 20498 net.cpp:91] Creating Layer conv2/relu_3x3
I0403 17:09:05.864457 20498 net.cpp:425] conv2/relu_3x3 <- conv2/3x3
I0403 17:09:05.864475 20498 net.cpp:386] conv2/relu_3x3 -> conv2/3x3 (in-place)
I0403 17:09:05.864720 20498 net.cpp:141] Setting up conv2/relu_3x3
I0403 17:09:05.864748 20498 net.cpp:148] Top shape: 24 192 56 56 (14450688)
I0403 17:09:05.864796 20498 net.cpp:156] Memory required for data: 361268256
I0403 17:09:05.864814 20498 layer_factory.hpp:77] Creating layer conv2/norm2
I0403 17:09:05.864836 20498 net.cpp:91] Creating Layer conv2/norm2
I0403 17:09:05.864867 20498 net.cpp:425] conv2/norm2 <- conv2/3x3
I0403 17:09:05.864886 20498 net.cpp:399] conv2/norm2 -> conv2/norm2
I0403 17:09:05.865185 20498 net.cpp:141] Setting up conv2/norm2
I0403 17:09:05.865212 20498 net.cpp:148] Top shape: 24 192 56 56 (14450688)
I0403 17:09:05.865228 20498 net.cpp:156] Memory required for data: 419071008
I0403 17:09:05.865243 20498 layer_factory.hpp:77] Creating layer pool2/3x3_s2
I0403 17:09:05.865264 20498 net.cpp:91] Creating Layer pool2/3x3_s2
I0403 17:09:05.865281 20498 net.cpp:425] pool2/3x3_s2 <- conv2/norm2
I0403 17:09:05.865299 20498 net.cpp:399] pool2/3x3_s2 -> pool2/3x3_s2
I0403 17:09:05.865352 20498 net.cpp:141] Setting up pool2/3x3_s2
I0403 17:09:05.865375 20498 net.cpp:148] Top shape: 24 192 28 28 (3612672)
I0403 17:09:05.865391 20498 net.cpp:156] Memory required for data: 433521696
I0403 17:09:05.865406 20498 layer_factory.hpp:77] Creating layer pool2/3x3_s2_pool2/3x3_s2_0_split
I0403 17:09:05.865423 20498 net.cpp:91] Creating Layer pool2/3x3_s2_pool2/3x3_s2_0_split
I0403 17:09:05.865439 20498 net.cpp:425] pool2/3x3_s2_pool2/3x3_s2_0_split <- pool2/3x3_s2
I0403 17:09:05.865459 20498 net.cpp:399] pool2/3x3_s2_pool2/3x3_s2_0_split -> pool2/3x3_s2_pool2/3x3_s2_0_split_0
I0403 17:09:05.865481 20498 net.cpp:399] pool2/3x3_s2_pool2/3x3_s2_0_split -> pool2/3x3_s2_pool2/3x3_s2_0_split_1
I0403 17:09:05.865502 20498 net.cpp:399] pool2/3x3_s2_pool2/3x3_s2_0_split -> pool2/3x3_s2_pool2/3x3_s2_0_split_2
I0403 17:09:05.865522 20498 net.cpp:399] pool2/3x3_s2_pool2/3x3_s2_0_split -> pool2/3x3_s2_pool2/3x3_s2_0_split_3
I0403 17:09:05.865593 20498 net.cpp:141] Setting up pool2/3x3_s2_pool2/3x3_s2_0_split
I0403 17:09:05.865623 20498 net.cpp:148] Top shape: 24 192 28 28 (3612672)
I0403 17:09:05.865643 20498 net.cpp:148] Top shape: 24 192 28 28 (3612672)
I0403 17:09:05.865659 20498 net.cpp:148] Top shape: 24 192 28 28 (3612672)
I0403 17:09:05.865675 20498 net.cpp:148] Top shape: 24 192 28 28 (3612672)
I0403 17:09:05.865689 20498 net.cpp:156] Memory required for data: 491324448
I0403 17:09:05.865705 20498 layer_factory.hpp:77] Creating layer inception_3a/1x1
I0403 17:09:05.865726 20498 net.cpp:91] Creating Layer inception_3a/1x1
I0403 17:09:05.865743 20498 net.cpp:425] inception_3a/1x1 <- pool2/3x3_s2_pool2/3x3_s2_0_split_0
I0403 17:09:05.865764 20498 net.cpp:399] inception_3a/1x1 -> inception_3a/1x1
I0403 17:09:05.867319 20498 net.cpp:141] Setting up inception_3a/1x1
I0403 17:09:05.867349 20498 net.cpp:148] Top shape: 24 64 28 28 (1204224)
I0403 17:09:05.867367 20498 net.cpp:156] Memory required for data: 496141344
I0403 17:09:05.867386 20498 layer_factory.hpp:77] Creating layer inception_3a/relu_1x1
I0403 17:09:05.867408 20498 net.cpp:91] Creating Layer inception_3a/relu_1x1
I0403 17:09:05.867424 20498 net.cpp:425] inception_3a/relu_1x1 <- inception_3a/1x1
I0403 17:09:05.867442 20498 net.cpp:386] inception_3a/relu_1x1 -> inception_3a/1x1 (in-place)
I0403 17:09:05.867621 20498 net.cpp:141] Setting up inception_3a/relu_1x1
I0403 17:09:05.867647 20498 net.cpp:148] Top shape: 24 64 28 28 (1204224)
I0403 17:09:05.867662 20498 net.cpp:156] Memory required for data: 500958240
I0403 17:09:05.867678 20498 layer_factory.hpp:77] Creating layer inception_3a/3x3_reduce
I0403 17:09:05.867700 20498 net.cpp:91] Creating Layer inception_3a/3x3_reduce
I0403 17:09:05.867719 20498 net.cpp:425] inception_3a/3x3_reduce <- pool2/3x3_s2_pool2/3x3_s2_0_split_1
I0403 17:09:05.867741 20498 net.cpp:399] inception_3a/3x3_reduce -> inception_3a/3x3_reduce
I0403 17:09:05.869451 20498 net.cpp:141] Setting up inception_3a/3x3_reduce
I0403 17:09:05.869483 20498 net.cpp:148] Top shape: 24 96 28 28 (1806336)
I0403 17:09:05.869500 20498 net.cpp:156] Memory required for data: 508183584
I0403 17:09:05.869523 20498 layer_factory.hpp:77] Creating layer inception_3a/relu_3x3_reduce
I0403 17:09:05.869559 20498 net.cpp:91] Creating Layer inception_3a/relu_3x3_reduce
I0403 17:09:05.869578 20498 net.cpp:425] inception_3a/relu_3x3_reduce <- inception_3a/3x3_reduce
I0403 17:09:05.869598 20498 net.cpp:386] inception_3a/relu_3x3_reduce -> inception_3a/3x3_reduce (in-place)
I0403 17:09:05.869815 20498 net.cpp:141] Setting up inception_3a/relu_3x3_reduce
I0403 17:09:05.869842 20498 net.cpp:148] Top shape: 24 96 28 28 (1806336)
I0403 17:09:05.869858 20498 net.cpp:156] Memory required for data: 515408928
I0403 17:09:05.869874 20498 layer_factory.hpp:77] Creating layer inception_3a/3x3
I0403 17:09:05.869896 20498 net.cpp:91] Creating Layer inception_3a/3x3
I0403 17:09:05.869913 20498 net.cpp:425] inception_3a/3x3 <- inception_3a/3x3_reduce
I0403 17:09:05.869935 20498 net.cpp:399] inception_3a/3x3 -> inception_3a/3x3
I0403 17:09:05.871608 20498 net.cpp:141] Setting up inception_3a/3x3
I0403 17:09:05.871639 20498 net.cpp:148] Top shape: 24 128 28 28 (2408448)
I0403 17:09:05.871656 20498 net.cpp:156] Memory required for data: 525042720
I0403 17:09:05.871675 20498 layer_factory.hpp:77] Creating layer inception_3a/relu_3x3
I0403 17:09:05.871692 20498 net.cpp:91] Creating Layer inception_3a/relu_3x3
I0403 17:09:05.871709 20498 net.cpp:425] inception_3a/relu_3x3 <- inception_3a/3x3
I0403 17:09:05.871729 20498 net.cpp:386] inception_3a/relu_3x3 -> inception_3a/3x3 (in-place)
I0403 17:09:05.871999 20498 net.cpp:141] Setting up inception_3a/relu_3x3
I0403 17:09:05.872031 20498 net.cpp:148] Top shape: 24 128 28 28 (2408448)
I0403 17:09:05.872050 20498 net.cpp:156] Memory required for data: 534676512
I0403 17:09:05.872066 20498 layer_factory.hpp:77] Creating layer inception_3a/5x5_reduce
I0403 17:09:05.872087 20498 net.cpp:91] Creating Layer inception_3a/5x5_reduce
I0403 17:09:05.872105 20498 net.cpp:425] inception_3a/5x5_reduce <- pool2/3x3_s2_pool2/3x3_s2_0_split_2
I0403 17:09:05.872125 20498 net.cpp:399] inception_3a/5x5_reduce -> inception_3a/5x5_reduce
I0403 17:09:05.873131 20498 net.cpp:141] Setting up inception_3a/5x5_reduce
I0403 17:09:05.873159 20498 net.cpp:148] Top shape: 24 16 28 28 (301056)
I0403 17:09:05.873177 20498 net.cpp:156] Memory required for data: 535880736
I0403 17:09:05.873194 20498 layer_factory.hpp:77] Creating layer inception_3a/relu_5x5_reduce
I0403 17:09:05.873214 20498 net.cpp:91] Creating Layer inception_3a/relu_5x5_reduce
I0403 17:09:05.873229 20498 net.cpp:425] inception_3a/relu_5x5_reduce <- inception_3a/5x5_reduce
I0403 17:09:05.873251 20498 net.cpp:386] inception_3a/relu_5x5_reduce -> inception_3a/5x5_reduce (in-place)
I0403 17:09:05.873543 20498 net.cpp:141] Setting up inception_3a/relu_5x5_reduce
I0403 17:09:05.873569 20498 net.cpp:148] Top shape: 24 16 28 28 (301056)
I0403 17:09:05.873585 20498 net.cpp:156] Memory required for data: 537084960
I0403 17:09:05.873605 20498 layer_factory.hpp:77] Creating layer inception_3a/5x5
I0403 17:09:05.873630 20498 net.cpp:91] Creating Layer inception_3a/5x5
I0403 17:09:05.873647 20498 net.cpp:425] inception_3a/5x5 <- inception_3a/5x5_reduce
I0403 17:09:05.873668 20498 net.cpp:399] inception_3a/5x5 -> inception_3a/5x5
I0403 17:09:05.874682 20498 net.cpp:141] Setting up inception_3a/5x5
I0403 17:09:05.874713 20498 net.cpp:148] Top shape: 24 32 28 28 (602112)
I0403 17:09:05.874730 20498 net.cpp:156] Memory required for data: 539493408
I0403 17:09:05.874749 20498 layer_factory.hpp:77] Creating layer inception_3a/relu_5x5
I0403 17:09:05.874768 20498 net.cpp:91] Creating Layer inception_3a/relu_5x5
I0403 17:09:05.874785 20498 net.cpp:425] inception_3a/relu_5x5 <- inception_3a/5x5
I0403 17:09:05.874807 20498 net.cpp:386] inception_3a/relu_5x5 -> inception_3a/5x5 (in-place)
I0403 17:09:05.874977 20498 net.cpp:141] Setting up inception_3a/relu_5x5
I0403 17:09:05.875004 20498 net.cpp:148] Top shape: 24 32 28 28 (602112)
I0403 17:09:05.875020 20498 net.cpp:156] Memory required for data: 541901856
I0403 17:09:05.875035 20498 layer_factory.hpp:77] Creating layer inception_3a/pool
I0403 17:09:05.875052 20498 net.cpp:91] Creating Layer inception_3a/pool
I0403 17:09:05.875069 20498 net.cpp:425] inception_3a/pool <- pool2/3x3_s2_pool2/3x3_s2_0_split_3
I0403 17:09:05.875105 20498 net.cpp:399] inception_3a/pool -> inception_3a/pool
I0403 17:09:05.875165 20498 net.cpp:141] Setting up inception_3a/pool
I0403 17:09:05.875190 20498 net.cpp:148] Top shape: 24 192 28 28 (3612672)
I0403 17:09:05.875205 20498 net.cpp:156] Memory required for data: 556352544
I0403 17:09:05.875218 20498 layer_factory.hpp:77] Creating layer inception_3a/pool_proj
I0403 17:09:05.875243 20498 net.cpp:91] Creating Layer inception_3a/pool_proj
I0403 17:09:05.875262 20498 net.cpp:425] inception_3a/pool_proj <- inception_3a/pool
I0403 17:09:05.875282 20498 net.cpp:399] inception_3a/pool_proj -> inception_3a/pool_proj
I0403 17:09:05.876238 20498 net.cpp:141] Setting up inception_3a/pool_proj
I0403 17:09:05.876267 20498 net.cpp:148] Top shape: 24 32 28 28 (602112)
I0403 17:09:05.876283 20498 net.cpp:156] Memory required for data: 558760992
I0403 17:09:05.876307 20498 layer_factory.hpp:77] Creating layer inception_3a/relu_pool_proj
I0403 17:09:05.876327 20498 net.cpp:91] Creating Layer inception_3a/relu_pool_proj
I0403 17:09:05.876344 20498 net.cpp:425] inception_3a/relu_pool_proj <- inception_3a/pool_proj
I0403 17:09:05.876364 20498 net.cpp:386] inception_3a/relu_pool_proj -> inception_3a/pool_proj (in-place)
I0403 17:09:05.876641 20498 net.cpp:141] Setting up inception_3a/relu_pool_proj
I0403 17:09:05.876669 20498 net.cpp:148] Top shape: 24 32 28 28 (602112)
I0403 17:09:05.876687 20498 net.cpp:156] Memory required for data: 561169440
I0403 17:09:05.876703 20498 layer_factory.hpp:77] Creating layer inception_3a/output
I0403 17:09:05.876719 20498 net.cpp:91] Creating Layer inception_3a/output
I0403 17:09:05.876735 20498 net.cpp:425] inception_3a/output <- inception_3a/1x1
I0403 17:09:05.876754 20498 net.cpp:425] inception_3a/output <- inception_3a/3x3
I0403 17:09:05.876770 20498 net.cpp:425] inception_3a/output <- inception_3a/5x5
I0403 17:09:05.876787 20498 net.cpp:425] inception_3a/output <- inception_3a/pool_proj
I0403 17:09:05.876806 20498 net.cpp:399] inception_3a/output -> inception_3a/output
I0403 17:09:05.876854 20498 net.cpp:141] Setting up inception_3a/output
I0403 17:09:05.876878 20498 net.cpp:148] Top shape: 24 256 28 28 (4816896)
I0403 17:09:05.876893 20498 net.cpp:156] Memory required for data: 580437024
I0403 17:09:05.876909 20498 layer_factory.hpp:77] Creating layer inception_3a/output_inception_3a/output_0_split
I0403 17:09:05.876927 20498 net.cpp:91] Creating Layer inception_3a/output_inception_3a/output_0_split
I0403 17:09:05.876943 20498 net.cpp:425] inception_3a/output_inception_3a/output_0_split <- inception_3a/output
I0403 17:09:05.876961 20498 net.cpp:399] inception_3a/output_inception_3a/output_0_split -> inception_3a/output_inception_3a/output_0_split_0
I0403 17:09:05.876982 20498 net.cpp:399] inception_3a/output_inception_3a/output_0_split -> inception_3a/output_inception_3a/output_0_split_1
I0403 17:09:05.877007 20498 net.cpp:399] inception_3a/output_inception_3a/output_0_split -> inception_3a/output_inception_3a/output_0_split_2
I0403 17:09:05.877030 20498 net.cpp:399] inception_3a/output_inception_3a/output_0_split -> inception_3a/output_inception_3a/output_0_split_3
I0403 17:09:05.877102 20498 net.cpp:141] Setting up inception_3a/output_inception_3a/output_0_split
I0403 17:09:05.877127 20498 net.cpp:148] Top shape: 24 256 28 28 (4816896)
I0403 17:09:05.877146 20498 net.cpp:148] Top shape: 24 256 28 28 (4816896)
I0403 17:09:05.877162 20498 net.cpp:148] Top shape: 24 256 28 28 (4816896)
I0403 17:09:05.877179 20498 net.cpp:148] Top shape: 24 256 28 28 (4816896)
I0403 17:09:05.877194 20498 net.cpp:156] Memory required for data: 657507360
I0403 17:09:05.877210 20498 layer_factory.hpp:77] Creating layer inception_3b/1x1
I0403 17:09:05.877233 20498 net.cpp:91] Creating Layer inception_3b/1x1
I0403 17:09:05.877250 20498 net.cpp:425] inception_3b/1x1 <- inception_3a/output_inception_3a/output_0_split_0
I0403 17:09:05.877269 20498 net.cpp:399] inception_3b/1x1 -> inception_3b/1x1
I0403 17:09:05.878389 20498 net.cpp:141] Setting up inception_3b/1x1
I0403 17:09:05.878429 20498 net.cpp:148] Top shape: 24 128 28 28 (2408448)
I0403 17:09:05.878450 20498 net.cpp:156] Memory required for data: 667141152
I0403 17:09:05.878469 20498 layer_factory.hpp:77] Creating layer inception_3b/relu_1x1
I0403 17:09:05.878487 20498 net.cpp:91] Creating Layer inception_3b/relu_1x1
I0403 17:09:05.878504 20498 net.cpp:425] inception_3b/relu_1x1 <- inception_3b/1x1
I0403 17:09:05.878521 20498 net.cpp:386] inception_3b/relu_1x1 -> inception_3b/1x1 (in-place)
I0403 17:09:05.878697 20498 net.cpp:141] Setting up inception_3b/relu_1x1
I0403 17:09:05.878726 20498 net.cpp:148] Top shape: 24 128 28 28 (2408448)
I0403 17:09:05.878742 20498 net.cpp:156] Memory required for data: 676774944
I0403 17:09:05.878758 20498 layer_factory.hpp:77] Creating layer inception_3b/3x3_reduce
I0403 17:09:05.878780 20498 net.cpp:91] Creating Layer inception_3b/3x3_reduce
I0403 17:09:05.878799 20498 net.cpp:425] inception_3b/3x3_reduce <- inception_3a/output_inception_3a/output_0_split_1
I0403 17:09:05.878819 20498 net.cpp:399] inception_3b/3x3_reduce -> inception_3b/3x3_reduce
I0403 17:09:05.879938 20498 net.cpp:141] Setting up inception_3b/3x3_reduce
I0403 17:09:05.879966 20498 net.cpp:148] Top shape: 24 128 28 28 (2408448)
I0403 17:09:05.879982 20498 net.cpp:156] Memory required for data: 686408736
I0403 17:09:05.880002 20498 layer_factory.hpp:77] Creating layer inception_3b/relu_3x3_reduce
I0403 17:09:05.880023 20498 net.cpp:91] Creating Layer inception_3b/relu_3x3_reduce
I0403 17:09:05.880041 20498 net.cpp:425] inception_3b/relu_3x3_reduce <- inception_3b/3x3_reduce
I0403 17:09:05.880059 20498 net.cpp:386] inception_3b/relu_3x3_reduce -> inception_3b/3x3_reduce (in-place)
I0403 17:09:05.880231 20498 net.cpp:141] Setting up inception_3b/relu_3x3_reduce
I0403 17:09:05.880257 20498 net.cpp:148] Top shape: 24 128 28 28 (2408448)
I0403 17:09:05.880273 20498 net.cpp:156] Memory required for data: 696042528
I0403 17:09:05.880288 20498 layer_factory.hpp:77] Creating layer inception_3b/3x3
I0403 17:09:05.880314 20498 net.cpp:91] Creating Layer inception_3b/3x3
I0403 17:09:05.880333 20498 net.cpp:425] inception_3b/3x3 <- inception_3b/3x3_reduce
I0403 17:09:05.880355 20498 net.cpp:399] inception_3b/3x3 -> inception_3b/3x3
I0403 17:09:05.883219 20498 net.cpp:141] Setting up inception_3b/3x3
I0403 17:09:05.883250 20498 net.cpp:148] Top shape: 24 192 28 28 (3612672)
I0403 17:09:05.883267 20498 net.cpp:156] Memory required for data: 710493216
I0403 17:09:05.883286 20498 layer_factory.hpp:77] Creating layer inception_3b/relu_3x3
I0403 17:09:05.883306 20498 net.cpp:91] Creating Layer inception_3b/relu_3x3
I0403 17:09:05.883322 20498 net.cpp:425] inception_3b/relu_3x3 <- inception_3b/3x3
I0403 17:09:05.883342 20498 net.cpp:386] inception_3b/relu_3x3 -> inception_3b/3x3 (in-place)
I0403 17:09:05.883613 20498 net.cpp:141] Setting up inception_3b/relu_3x3
I0403 17:09:05.883644 20498 net.cpp:148] Top shape: 24 192 28 28 (3612672)
I0403 17:09:05.883661 20498 net.cpp:156] Memory required for data: 724943904
I0403 17:09:05.883676 20498 layer_factory.hpp:77] Creating layer inception_3b/5x5_reduce
I0403 17:09:05.883700 20498 net.cpp:91] Creating Layer inception_3b/5x5_reduce
I0403 17:09:05.883719 20498 net.cpp:425] inception_3b/5x5_reduce <- inception_3a/output_inception_3a/output_0_split_2
I0403 17:09:05.883738 20498 net.cpp:399] inception_3b/5x5_reduce -> inception_3b/5x5_reduce
I0403 17:09:05.884722 20498 net.cpp:141] Setting up inception_3b/5x5_reduce
I0403 17:09:05.884752 20498 net.cpp:148] Top shape: 24 32 28 28 (602112)
I0403 17:09:05.884770 20498 net.cpp:156] Memory required for data: 727352352
I0403 17:09:05.884789 20498 layer_factory.hpp:77] Creating layer inception_3b/relu_5x5_reduce
I0403 17:09:05.884809 20498 net.cpp:91] Creating Layer inception_3b/relu_5x5_reduce
I0403 17:09:05.884824 20498 net.cpp:425] inception_3b/relu_5x5_reduce <- inception_3b/5x5_reduce
I0403 17:09:05.884845 20498 net.cpp:386] inception_3b/relu_5x5_reduce -> inception_3b/5x5_reduce (in-place)
I0403 17:09:05.885018 20498 net.cpp:141] Setting up inception_3b/relu_5x5_reduce
I0403 17:09:05.885056 20498 net.cpp:148] Top shape: 24 32 28 28 (602112)
I0403 17:09:05.885071 20498 net.cpp:156] Memory required for data: 729760800
I0403 17:09:05.885088 20498 layer_factory.hpp:77] Creating layer inception_3b/5x5
I0403 17:09:05.885110 20498 net.cpp:91] Creating Layer inception_3b/5x5
I0403 17:09:05.885128 20498 net.cpp:425] inception_3b/5x5 <- inception_3b/5x5_reduce
I0403 17:09:05.885149 20498 net.cpp:399] inception_3b/5x5 -> inception_3b/5x5
I0403 17:09:05.887099 20498 net.cpp:141] Setting up inception_3b/5x5
I0403 17:09:05.887130 20498 net.cpp:148] Top shape: 24 96 28 28 (1806336)
I0403 17:09:05.887146 20498 net.cpp:156] Memory required for data: 736986144
I0403 17:09:05.887166 20498 layer_factory.hpp:77] Creating layer inception_3b/relu_5x5
I0403 17:09:05.887186 20498 net.cpp:91] Creating Layer inception_3b/relu_5x5
I0403 17:09:05.887202 20498 net.cpp:425] inception_3b/relu_5x5 <- inception_3b/5x5
I0403 17:09:05.887219 20498 net.cpp:386] inception_3b/relu_5x5 -> inception_3b/5x5 (in-place)
I0403 17:09:05.887410 20498 net.cpp:141] Setting up inception_3b/relu_5x5
I0403 17:09:05.887437 20498 net.cpp:148] Top shape: 24 96 28 28 (1806336)
I0403 17:09:05.887452 20498 net.cpp:156] Memory required for data: 744211488
I0403 17:09:05.887468 20498 layer_factory.hpp:77] Creating layer inception_3b/pool
I0403 17:09:05.887487 20498 net.cpp:91] Creating Layer inception_3b/pool
I0403 17:09:05.887504 20498 net.cpp:425] inception_3b/pool <- inception_3a/output_inception_3a/output_0_split_3
I0403 17:09:05.887523 20498 net.cpp:399] inception_3b/pool -> inception_3b/pool
I0403 17:09:05.887578 20498 net.cpp:141] Setting up inception_3b/pool
I0403 17:09:05.887605 20498 net.cpp:148] Top shape: 24 256 28 28 (4816896)
I0403 17:09:05.887624 20498 net.cpp:156] Memory required for data: 763479072
I0403 17:09:05.887639 20498 layer_factory.hpp:77] Creating layer inception_3b/pool_proj
I0403 17:09:05.887663 20498 net.cpp:91] Creating Layer inception_3b/pool_proj
I0403 17:09:05.887682 20498 net.cpp:425] inception_3b/pool_proj <- inception_3b/pool
I0403 17:09:05.887702 20498 net.cpp:399] inception_3b/pool_proj -> inception_3b/pool_proj
I0403 17:09:05.888756 20498 net.cpp:141] Setting up inception_3b/pool_proj
I0403 17:09:05.888784 20498 net.cpp:148] Top shape: 24 64 28 28 (1204224)
I0403 17:09:05.888800 20498 net.cpp:156] Memory required for data: 768295968
I0403 17:09:05.888819 20498 layer_factory.hpp:77] Creating layer inception_3b/relu_pool_proj
I0403 17:09:05.888840 20498 net.cpp:91] Creating Layer inception_3b/relu_pool_proj
I0403 17:09:05.888859 20498 net.cpp:425] inception_3b/relu_pool_proj <- inception_3b/pool_proj
I0403 17:09:05.888876 20498 net.cpp:386] inception_3b/relu_pool_proj -> inception_3b/pool_proj (in-place)
I0403 17:09:05.889266 20498 net.cpp:141] Setting up inception_3b/relu_pool_proj
I0403 17:09:05.889292 20498 net.cpp:148] Top shape: 24 64 28 28 (1204224)
I0403 17:09:05.889308 20498 net.cpp:156] Memory required for data: 773112864
I0403 17:09:05.889324 20498 layer_factory.hpp:77] Creating layer inception_3b/output
I0403 17:09:05.889341 20498 net.cpp:91] Creating Layer inception_3b/output
I0403 17:09:05.889358 20498 net.cpp:425] inception_3b/output <- inception_3b/1x1
I0403 17:09:05.889374 20498 net.cpp:425] inception_3b/output <- inception_3b/3x3
I0403 17:09:05.889391 20498 net.cpp:425] inception_3b/output <- inception_3b/5x5
I0403 17:09:05.889407 20498 net.cpp:425] inception_3b/output <- inception_3b/pool_proj
I0403 17:09:05.889427 20498 net.cpp:399] inception_3b/output -> inception_3b/output
I0403 17:09:05.889473 20498 net.cpp:141] Setting up inception_3b/output
I0403 17:09:05.889500 20498 net.cpp:148] Top shape: 24 480 28 28 (9031680)
I0403 17:09:05.889523 20498 net.cpp:156] Memory required for data: 809239584
I0403 17:09:05.889539 20498 layer_factory.hpp:77] Creating layer pool3/3x3_s2
I0403 17:09:05.889557 20498 net.cpp:91] Creating Layer pool3/3x3_s2
I0403 17:09:05.889574 20498 net.cpp:425] pool3/3x3_s2 <- inception_3b/output
I0403 17:09:05.889595 20498 net.cpp:399] pool3/3x3_s2 -> pool3/3x3_s2
I0403 17:09:05.889669 20498 net.cpp:141] Setting up pool3/3x3_s2
I0403 17:09:05.889694 20498 net.cpp:148] Top shape: 24 480 14 14 (2257920)
I0403 17:09:05.889710 20498 net.cpp:156] Memory required for data: 818271264
I0403 17:09:05.889725 20498 layer_factory.hpp:77] Creating layer pool3/3x3_s2_pool3/3x3_s2_0_split
I0403 17:09:05.889745 20498 net.cpp:91] Creating Layer pool3/3x3_s2_pool3/3x3_s2_0_split
I0403 17:09:05.889762 20498 net.cpp:425] pool3/3x3_s2_pool3/3x3_s2_0_split <- pool3/3x3_s2
I0403 17:09:05.889780 20498 net.cpp:399] pool3/3x3_s2_pool3/3x3_s2_0_split -> pool3/3x3_s2_pool3/3x3_s2_0_split_0
I0403 17:09:05.889801 20498 net.cpp:399] pool3/3x3_s2_pool3/3x3_s2_0_split -> pool3/3x3_s2_pool3/3x3_s2_0_split_1
I0403 17:09:05.889829 20498 net.cpp:399] pool3/3x3_s2_pool3/3x3_s2_0_split -> pool3/3x3_s2_pool3/3x3_s2_0_split_2
I0403 17:09:05.889849 20498 net.cpp:399] pool3/3x3_s2_pool3/3x3_s2_0_split -> pool3/3x3_s2_pool3/3x3_s2_0_split_3
I0403 17:09:05.889928 20498 net.cpp:141] Setting up pool3/3x3_s2_pool3/3x3_s2_0_split
I0403 17:09:05.889953 20498 net.cpp:148] Top shape: 24 480 14 14 (2257920)
I0403 17:09:05.889971 20498 net.cpp:148] Top shape: 24 480 14 14 (2257920)
I0403 17:09:05.889986 20498 net.cpp:148] Top shape: 24 480 14 14 (2257920)
I0403 17:09:05.890002 20498 net.cpp:148] Top shape: 24 480 14 14 (2257920)
I0403 17:09:05.890017 20498 net.cpp:156] Memory required for data: 854397984
I0403 17:09:05.890032 20498 layer_factory.hpp:77] Creating layer inception_4a/1x1
I0403 17:09:05.890053 20498 net.cpp:91] Creating Layer inception_4a/1x1
I0403 17:09:05.890072 20498 net.cpp:425] inception_4a/1x1 <- pool3/3x3_s2_pool3/3x3_s2_0_split_0
I0403 17:09:05.890094 20498 net.cpp:399] inception_4a/1x1 -> inception_4a/1x1
I0403 17:09:05.891650 20498 net.cpp:141] Setting up inception_4a/1x1
I0403 17:09:05.891679 20498 net.cpp:148] Top shape: 24 192 14 14 (903168)
I0403 17:09:05.891695 20498 net.cpp:156] Memory required for data: 858010656
I0403 17:09:05.891715 20498 layer_factory.hpp:77] Creating layer inception_4a/relu_1x1
I0403 17:09:05.891734 20498 net.cpp:91] Creating Layer inception_4a/relu_1x1
I0403 17:09:05.891752 20498 net.cpp:425] inception_4a/relu_1x1 <- inception_4a/1x1
I0403 17:09:05.891770 20498 net.cpp:386] inception_4a/relu_1x1 -> inception_4a/1x1 (in-place)
I0403 17:09:05.891942 20498 net.cpp:141] Setting up inception_4a/relu_1x1
I0403 17:09:05.891973 20498 net.cpp:148] Top shape: 24 192 14 14 (903168)
I0403 17:09:05.891988 20498 net.cpp:156] Memory required for data: 861623328
I0403 17:09:05.892004 20498 layer_factory.hpp:77] Creating layer inception_4a/3x3_reduce
I0403 17:09:05.892026 20498 net.cpp:91] Creating Layer inception_4a/3x3_reduce
I0403 17:09:05.892045 20498 net.cpp:425] inception_4a/3x3_reduce <- pool3/3x3_s2_pool3/3x3_s2_0_split_1
I0403 17:09:05.892066 20498 net.cpp:399] inception_4a/3x3_reduce -> inception_4a/3x3_reduce
I0403 17:09:05.893316 20498 net.cpp:141] Setting up inception_4a/3x3_reduce
I0403 17:09:05.893345 20498 net.cpp:148] Top shape: 24 96 14 14 (451584)
I0403 17:09:05.893362 20498 net.cpp:156] Memory required for data: 863429664
I0403 17:09:05.893386 20498 layer_factory.hpp:77] Creating layer inception_4a/relu_3x3_reduce
I0403 17:09:05.893407 20498 net.cpp:91] Creating Layer inception_4a/relu_3x3_reduce
I0403 17:09:05.893424 20498 net.cpp:425] inception_4a/relu_3x3_reduce <- inception_4a/3x3_reduce
I0403 17:09:05.893445 20498 net.cpp:386] inception_4a/relu_3x3_reduce -> inception_4a/3x3_reduce (in-place)
I0403 17:09:05.893618 20498 net.cpp:141] Setting up inception_4a/relu_3x3_reduce
I0403 17:09:05.893645 20498 net.cpp:148] Top shape: 24 96 14 14 (451584)
I0403 17:09:05.893661 20498 net.cpp:156] Memory required for data: 865236000
I0403 17:09:05.893676 20498 layer_factory.hpp:77] Creating layer inception_4a/3x3
I0403 17:09:05.893699 20498 net.cpp:91] Creating Layer inception_4a/3x3
I0403 17:09:05.893718 20498 net.cpp:425] inception_4a/3x3 <- inception_4a/3x3_reduce
I0403 17:09:05.893739 20498 net.cpp:399] inception_4a/3x3 -> inception_4a/3x3
I0403 17:09:05.896386 20498 net.cpp:141] Setting up inception_4a/3x3
I0403 17:09:05.896415 20498 net.cpp:148] Top shape: 24 208 14 14 (978432)
I0403 17:09:05.896432 20498 net.cpp:156] Memory required for data: 869149728
I0403 17:09:05.896452 20498 layer_factory.hpp:77] Creating layer inception_4a/relu_3x3
I0403 17:09:05.896476 20498 net.cpp:91] Creating Layer inception_4a/relu_3x3
I0403 17:09:05.896492 20498 net.cpp:425] inception_4a/relu_3x3 <- inception_4a/3x3
I0403 17:09:05.896512 20498 net.cpp:386] inception_4a/relu_3x3 -> inception_4a/3x3 (in-place)
I0403 17:09:05.896806 20498 net.cpp:141] Setting up inception_4a/relu_3x3
I0403 17:09:05.896834 20498 net.cpp:148] Top shape: 24 208 14 14 (978432)
I0403 17:09:05.896852 20498 net.cpp:156] Memory required for data: 873063456
I0403 17:09:05.896867 20498 layer_factory.hpp:77] Creating layer inception_4a/5x5_reduce
I0403 17:09:05.896893 20498 net.cpp:91] Creating Layer inception_4a/5x5_reduce
I0403 17:09:05.896922 20498 net.cpp:425] inception_4a/5x5_reduce <- pool3/3x3_s2_pool3/3x3_s2_0_split_2
I0403 17:09:05.896944 20498 net.cpp:399] inception_4a/5x5_reduce -> inception_4a/5x5_reduce
I0403 17:09:05.897970 20498 net.cpp:141] Setting up inception_4a/5x5_reduce
I0403 17:09:05.898001 20498 net.cpp:148] Top shape: 24 16 14 14 (75264)
I0403 17:09:05.898020 20498 net.cpp:156] Memory required for data: 873364512
I0403 17:09:05.898039 20498 layer_factory.hpp:77] Creating layer inception_4a/relu_5x5_reduce
I0403 17:09:05.898057 20498 net.cpp:91] Creating Layer inception_4a/relu_5x5_reduce
I0403 17:09:05.898074 20498 net.cpp:425] inception_4a/relu_5x5_reduce <- inception_4a/5x5_reduce
I0403 17:09:05.898093 20498 net.cpp:386] inception_4a/relu_5x5_reduce -> inception_4a/5x5_reduce (in-place)
I0403 17:09:05.898272 20498 net.cpp:141] Setting up inception_4a/relu_5x5_reduce
I0403 17:09:05.898298 20498 net.cpp:148] Top shape: 24 16 14 14 (75264)
I0403 17:09:05.898314 20498 net.cpp:156] Memory required for data: 873665568
I0403 17:09:05.898329 20498 layer_factory.hpp:77] Creating layer inception_4a/5x5
I0403 17:09:05.898352 20498 net.cpp:91] Creating Layer inception_4a/5x5
I0403 17:09:05.898371 20498 net.cpp:425] inception_4a/5x5 <- inception_4a/5x5_reduce
I0403 17:09:05.898393 20498 net.cpp:399] inception_4a/5x5 -> inception_4a/5x5
I0403 17:09:05.899464 20498 net.cpp:141] Setting up inception_4a/5x5
I0403 17:09:05.899493 20498 net.cpp:148] Top shape: 24 48 14 14 (225792)
I0403 17:09:05.899510 20498 net.cpp:156] Memory required for data: 874568736
I0403 17:09:05.899529 20498 layer_factory.hpp:77] Creating layer inception_4a/relu_5x5
I0403 17:09:05.899550 20498 net.cpp:91] Creating Layer inception_4a/relu_5x5
I0403 17:09:05.899567 20498 net.cpp:425] inception_4a/relu_5x5 <- inception_4a/5x5
I0403 17:09:05.899586 20498 net.cpp:386] inception_4a/relu_5x5 -> inception_4a/5x5 (in-place)
I0403 17:09:05.899762 20498 net.cpp:141] Setting up inception_4a/relu_5x5
I0403 17:09:05.899801 20498 net.cpp:148] Top shape: 24 48 14 14 (225792)
I0403 17:09:05.899817 20498 net.cpp:156] Memory required for data: 875471904
I0403 17:09:05.899833 20498 layer_factory.hpp:77] Creating layer inception_4a/pool
I0403 17:09:05.899855 20498 net.cpp:91] Creating Layer inception_4a/pool
I0403 17:09:05.899874 20498 net.cpp:425] inception_4a/pool <- pool3/3x3_s2_pool3/3x3_s2_0_split_3
I0403 17:09:05.899893 20498 net.cpp:399] inception_4a/pool -> inception_4a/pool
I0403 17:09:05.899958 20498 net.cpp:141] Setting up inception_4a/pool
I0403 17:09:05.899983 20498 net.cpp:148] Top shape: 24 480 14 14 (2257920)
I0403 17:09:05.899999 20498 net.cpp:156] Memory required for data: 884503584
I0403 17:09:05.900015 20498 layer_factory.hpp:77] Creating layer inception_4a/pool_proj
I0403 17:09:05.900038 20498 net.cpp:91] Creating Layer inception_4a/pool_proj
I0403 17:09:05.900069 20498 net.cpp:425] inception_4a/pool_proj <- inception_4a/pool
I0403 17:09:05.900090 20498 net.cpp:399] inception_4a/pool_proj -> inception_4a/pool_proj
I0403 17:09:05.901237 20498 net.cpp:141] Setting up inception_4a/pool_proj
I0403 17:09:05.901267 20498 net.cpp:148] Top shape: 24 64 14 14 (301056)
I0403 17:09:05.901299 20498 net.cpp:156] Memory required for data: 885707808
I0403 17:09:05.901319 20498 layer_factory.hpp:77] Creating layer inception_4a/relu_pool_proj
I0403 17:09:05.901340 20498 net.cpp:91] Creating Layer inception_4a/relu_pool_proj
I0403 17:09:05.901356 20498 net.cpp:425] inception_4a/relu_pool_proj <- inception_4a/pool_proj
I0403 17:09:05.901374 20498 net.cpp:386] inception_4a/relu_pool_proj -> inception_4a/pool_proj (in-place)
I0403 17:09:05.901656 20498 net.cpp:141] Setting up inception_4a/relu_pool_proj
I0403 17:09:05.901684 20498 net.cpp:148] Top shape: 24 64 14 14 (301056)
I0403 17:09:05.901700 20498 net.cpp:156] Memory required for data: 886912032
I0403 17:09:05.901715 20498 layer_factory.hpp:77] Creating layer inception_4a/output
I0403 17:09:05.901736 20498 net.cpp:91] Creating Layer inception_4a/output
I0403 17:09:05.901754 20498 net.cpp:425] inception_4a/output <- inception_4a/1x1
I0403 17:09:05.901772 20498 net.cpp:425] inception_4a/output <- inception_4a/3x3
I0403 17:09:05.901789 20498 net.cpp:425] inception_4a/output <- inception_4a/5x5
I0403 17:09:05.901806 20498 net.cpp:425] inception_4a/output <- inception_4a/pool_proj
I0403 17:09:05.901823 20498 net.cpp:399] inception_4a/output -> inception_4a/output
I0403 17:09:05.901867 20498 net.cpp:141] Setting up inception_4a/output
I0403 17:09:05.901895 20498 net.cpp:148] Top shape: 24 512 14 14 (2408448)
I0403 17:09:05.901911 20498 net.cpp:156] Memory required for data: 896545824
I0403 17:09:05.901926 20498 layer_factory.hpp:77] Creating layer inception_4a/output_inception_4a/output_0_split
I0403 17:09:05.901942 20498 net.cpp:91] Creating Layer inception_4a/output_inception_4a/output_0_split
I0403 17:09:05.901957 20498 net.cpp:425] inception_4a/output_inception_4a/output_0_split <- inception_4a/output
I0403 17:09:05.901978 20498 net.cpp:399] inception_4a/output_inception_4a/output_0_split -> inception_4a/output_inception_4a/output_0_split_0
I0403 17:09:05.902001 20498 net.cpp:399] inception_4a/output_inception_4a/output_0_split -> inception_4a/output_inception_4a/output_0_split_1
I0403 17:09:05.902022 20498 net.cpp:399] inception_4a/output_inception_4a/output_0_split -> inception_4a/output_inception_4a/output_0_split_2
I0403 17:09:05.902045 20498 net.cpp:399] inception_4a/output_inception_4a/output_0_split -> inception_4a/output_inception_4a/output_0_split_3
I0403 17:09:05.902065 20498 net.cpp:399] inception_4a/output_inception_4a/output_0_split -> inception_4a/output_inception_4a/output_0_split_4
I0403 17:09:05.902158 20498 net.cpp:141] Setting up inception_4a/output_inception_4a/output_0_split
I0403 17:09:05.902181 20498 net.cpp:148] Top shape: 24 512 14 14 (2408448)
I0403 17:09:05.902201 20498 net.cpp:148] Top shape: 24 512 14 14 (2408448)
I0403 17:09:05.902218 20498 net.cpp:148] Top shape: 24 512 14 14 (2408448)
I0403 17:09:05.902235 20498 net.cpp:148] Top shape: 24 512 14 14 (2408448)
I0403 17:09:05.902252 20498 net.cpp:148] Top shape: 24 512 14 14 (2408448)
I0403 17:09:05.902266 20498 net.cpp:156] Memory required for data: 944714784
I0403 17:09:05.902281 20498 layer_factory.hpp:77] Creating layer loss1/ave_pool
I0403 17:09:05.902299 20498 net.cpp:91] Creating Layer loss1/ave_pool
I0403 17:09:05.902315 20498 net.cpp:425] loss1/ave_pool <- inception_4a/output_inception_4a/output_0_split_0
I0403 17:09:05.902334 20498 net.cpp:399] loss1/ave_pool -> loss1/ave_pool
I0403 17:09:05.902539 20498 net.cpp:141] Setting up loss1/ave_pool
I0403 17:09:05.902566 20498 net.cpp:148] Top shape: 24 512 4 4 (196608)
I0403 17:09:05.902582 20498 net.cpp:156] Memory required for data: 945501216
I0403 17:09:05.902597 20498 layer_factory.hpp:77] Creating layer loss1/conv
I0403 17:09:05.902626 20498 net.cpp:91] Creating Layer loss1/conv
I0403 17:09:05.902644 20498 net.cpp:425] loss1/conv <- loss1/ave_pool
I0403 17:09:05.902667 20498 net.cpp:399] loss1/conv -> loss1/conv
I0403 17:09:05.904068 20498 net.cpp:141] Setting up loss1/conv
I0403 17:09:05.904098 20498 net.cpp:148] Top shape: 24 128 4 4 (49152)
I0403 17:09:05.904114 20498 net.cpp:156] Memory required for data: 945697824
I0403 17:09:05.904148 20498 layer_factory.hpp:77] Creating layer loss1/relu_conv
I0403 17:09:05.904170 20498 net.cpp:91] Creating Layer loss1/relu_conv
I0403 17:09:05.904188 20498 net.cpp:425] loss1/relu_conv <- loss1/conv
I0403 17:09:05.904206 20498 net.cpp:386] loss1/relu_conv -> loss1/conv (in-place)
I0403 17:09:05.904489 20498 net.cpp:141] Setting up loss1/relu_conv
I0403 17:09:05.904516 20498 net.cpp:148] Top shape: 24 128 4 4 (49152)
I0403 17:09:05.904532 20498 net.cpp:156] Memory required for data: 945894432
I0403 17:09:05.904548 20498 layer_factory.hpp:77] Creating layer loss1/fc
I0403 17:09:05.904574 20498 net.cpp:91] Creating Layer loss1/fc
I0403 17:09:05.904592 20498 net.cpp:425] loss1/fc <- loss1/conv
I0403 17:09:05.904626 20498 net.cpp:399] loss1/fc -> loss1/fc
I0403 17:09:05.922257 20498 net.cpp:141] Setting up loss1/fc
I0403 17:09:05.922291 20498 net.cpp:148] Top shape: 24 1024 (24576)
I0403 17:09:05.922307 20498 net.cpp:156] Memory required for data: 945992736
I0403 17:09:05.922327 20498 layer_factory.hpp:77] Creating layer loss1/relu_fc
I0403 17:09:05.922348 20498 net.cpp:91] Creating Layer loss1/relu_fc
I0403 17:09:05.922366 20498 net.cpp:425] loss1/relu_fc <- loss1/fc
I0403 17:09:05.922384 20498 net.cpp:386] loss1/relu_fc -> loss1/fc (in-place)
I0403 17:09:05.922566 20498 net.cpp:141] Setting up loss1/relu_fc
I0403 17:09:05.922595 20498 net.cpp:148] Top shape: 24 1024 (24576)
I0403 17:09:05.922616 20498 net.cpp:156] Memory required for data: 946091040
I0403 17:09:05.922632 20498 layer_factory.hpp:77] Creating layer loss1/drop_fc
I0403 17:09:05.922658 20498 net.cpp:91] Creating Layer loss1/drop_fc
I0403 17:09:05.922677 20498 net.cpp:425] loss1/drop_fc <- loss1/fc
I0403 17:09:05.922695 20498 net.cpp:386] loss1/drop_fc -> loss1/fc (in-place)
I0403 17:09:05.922749 20498 net.cpp:141] Setting up loss1/drop_fc
I0403 17:09:05.922773 20498 net.cpp:148] Top shape: 24 1024 (24576)
I0403 17:09:05.922788 20498 net.cpp:156] Memory required for data: 946189344
I0403 17:09:05.922804 20498 layer_factory.hpp:77] Creating layer loss1/classifier_plantvillage
I0403 17:09:05.922823 20498 net.cpp:91] Creating Layer loss1/classifier_plantvillage
I0403 17:09:05.922839 20498 net.cpp:425] loss1/classifier_plantvillage <- loss1/fc
I0403 17:09:05.922862 20498 net.cpp:399] loss1/classifier_plantvillage -> loss1/classifier_plantvillage
I0403 17:09:05.923758 20498 net.cpp:141] Setting up loss1/classifier_plantvillage
I0403 17:09:05.923785 20498 net.cpp:148] Top shape: 24 38 (912)
I0403 17:09:05.923802 20498 net.cpp:156] Memory required for data: 946192992
I0403 17:09:05.923821 20498 layer_factory.hpp:77] Creating layer loss1/classifier_plantvillage_loss1/classifier_plantvillage_0_split
I0403 17:09:05.923841 20498 net.cpp:91] Creating Layer loss1/classifier_plantvillage_loss1/classifier_plantvillage_0_split
I0403 17:09:05.923858 20498 net.cpp:425] loss1/classifier_plantvillage_loss1/classifier_plantvillage_0_split <- loss1/classifier_plantvillage
I0403 17:09:05.923877 20498 net.cpp:399] loss1/classifier_plantvillage_loss1/classifier_plantvillage_0_split -> loss1/classifier_plantvillage_loss1/classifier_plantvillage_0_split_0
I0403 17:09:05.923898 20498 net.cpp:399] loss1/classifier_plantvillage_loss1/classifier_plantvillage_0_split -> loss1/classifier_plantvillage_loss1/classifier_plantvillage_0_split_1
I0403 17:09:05.923919 20498 net.cpp:399] loss1/classifier_plantvillage_loss1/classifier_plantvillage_0_split -> loss1/classifier_plantvillage_loss1/classifier_plantvillage_0_split_2
I0403 17:09:05.923991 20498 net.cpp:141] Setting up loss1/classifier_plantvillage_loss1/classifier_plantvillage_0_split
I0403 17:09:05.924016 20498 net.cpp:148] Top shape: 24 38 (912)
I0403 17:09:05.924033 20498 net.cpp:148] Top shape: 24 38 (912)
I0403 17:09:05.924049 20498 net.cpp:148] Top shape: 24 38 (912)
I0403 17:09:05.924063 20498 net.cpp:156] Memory required for data: 946203936
I0403 17:09:05.924078 20498 layer_factory.hpp:77] Creating layer inception_4b/1x1
I0403 17:09:05.924101 20498 net.cpp:91] Creating Layer inception_4b/1x1
I0403 17:09:05.924134 20498 net.cpp:425] inception_4b/1x1 <- inception_4a/output_inception_4a/output_0_split_1
I0403 17:09:05.924154 20498 net.cpp:399] inception_4b/1x1 -> inception_4b/1x1
I0403 17:09:05.925834 20498 net.cpp:141] Setting up inception_4b/1x1
I0403 17:09:05.925868 20498 net.cpp:148] Top shape: 24 160 14 14 (752640)
I0403 17:09:05.925885 20498 net.cpp:156] Memory required for data: 949214496
I0403 17:09:05.925905 20498 layer_factory.hpp:77] Creating layer inception_4b/relu_1x1
I0403 17:09:05.925925 20498 net.cpp:91] Creating Layer inception_4b/relu_1x1
I0403 17:09:05.925942 20498 net.cpp:425] inception_4b/relu_1x1 <- inception_4b/1x1
I0403 17:09:05.925964 20498 net.cpp:386] inception_4b/relu_1x1 -> inception_4b/1x1 (in-place)
I0403 17:09:05.926157 20498 net.cpp:141] Setting up inception_4b/relu_1x1
I0403 17:09:05.926183 20498 net.cpp:148] Top shape: 24 160 14 14 (752640)
I0403 17:09:05.926198 20498 net.cpp:156] Memory required for data: 952225056
I0403 17:09:05.926213 20498 layer_factory.hpp:77] Creating layer inception_4b/3x3_reduce
I0403 17:09:05.926239 20498 net.cpp:91] Creating Layer inception_4b/3x3_reduce
I0403 17:09:05.926257 20498 net.cpp:425] inception_4b/3x3_reduce <- inception_4a/output_inception_4a/output_0_split_2
I0403 17:09:05.926278 20498 net.cpp:399] inception_4b/3x3_reduce -> inception_4b/3x3_reduce
I0403 17:09:05.927657 20498 net.cpp:141] Setting up inception_4b/3x3_reduce
I0403 17:09:05.927685 20498 net.cpp:148] Top shape: 24 112 14 14 (526848)
I0403 17:09:05.927701 20498 net.cpp:156] Memory required for data: 954332448
I0403 17:09:05.927721 20498 layer_factory.hpp:77] Creating layer inception_4b/relu_3x3_reduce
I0403 17:09:05.927739 20498 net.cpp:91] Creating Layer inception_4b/relu_3x3_reduce
I0403 17:09:05.927757 20498 net.cpp:425] inception_4b/relu_3x3_reduce <- inception_4b/3x3_reduce
I0403 17:09:05.927777 20498 net.cpp:386] inception_4b/relu_3x3_reduce -> inception_4b/3x3_reduce (in-place)
I0403 17:09:05.928059 20498 net.cpp:141] Setting up inception_4b/relu_3x3_reduce
I0403 17:09:05.928087 20498 net.cpp:148] Top shape: 24 112 14 14 (526848)
I0403 17:09:05.928103 20498 net.cpp:156] Memory required for data: 956439840
I0403 17:09:05.928118 20498 layer_factory.hpp:77] Creating layer inception_4b/3x3
I0403 17:09:05.928143 20498 net.cpp:91] Creating Layer inception_4b/3x3
I0403 17:09:05.928161 20498 net.cpp:425] inception_4b/3x3 <- inception_4b/3x3_reduce
I0403 17:09:05.928184 20498 net.cpp:399] inception_4b/3x3 -> inception_4b/3x3
I0403 17:09:05.931140 20498 net.cpp:141] Setting up inception_4b/3x3
I0403 17:09:05.931169 20498 net.cpp:148] Top shape: 24 224 14 14 (1053696)
I0403 17:09:05.931186 20498 net.cpp:156] Memory required for data: 960654624
I0403 17:09:05.931205 20498 layer_factory.hpp:77] Creating layer inception_4b/relu_3x3
I0403 17:09:05.931224 20498 net.cpp:91] Creating Layer inception_4b/relu_3x3
I0403 17:09:05.931243 20498 net.cpp:425] inception_4b/relu_3x3 <- inception_4b/3x3
I0403 17:09:05.931262 20498 net.cpp:386] inception_4b/relu_3x3 -> inception_4b/3x3 (in-place)
I0403 17:09:05.931443 20498 net.cpp:141] Setting up inception_4b/relu_3x3
I0403 17:09:05.931471 20498 net.cpp:148] Top shape: 24 224 14 14 (1053696)
I0403 17:09:05.931488 20498 net.cpp:156] Memory required for data: 964869408
I0403 17:09:05.931504 20498 layer_factory.hpp:77] Creating layer inception_4b/5x5_reduce
I0403 17:09:05.931526 20498 net.cpp:91] Creating Layer inception_4b/5x5_reduce
I0403 17:09:05.931547 20498 net.cpp:425] inception_4b/5x5_reduce <- inception_4a/output_inception_4a/output_0_split_3
I0403 17:09:05.931567 20498 net.cpp:399] inception_4b/5x5_reduce -> inception_4b/5x5_reduce
I0403 17:09:05.932679 20498 net.cpp:141] Setting up inception_4b/5x5_reduce
I0403 17:09:05.932709 20498 net.cpp:148] Top shape: 24 24 14 14 (112896)
I0403 17:09:05.932726 20498 net.cpp:156] Memory required for data: 965320992
I0403 17:09:05.932744 20498 layer_factory.hpp:77] Creating layer inception_4b/relu_5x5_reduce
I0403 17:09:05.932763 20498 net.cpp:91] Creating Layer inception_4b/relu_5x5_reduce
I0403 17:09:05.932795 20498 net.cpp:425] inception_4b/relu_5x5_reduce <- inception_4b/5x5_reduce
I0403 17:09:05.932816 20498 net.cpp:386] inception_4b/relu_5x5_reduce -> inception_4b/5x5_reduce (in-place)
I0403 17:09:05.933003 20498 net.cpp:141] Setting up inception_4b/relu_5x5_reduce
I0403 17:09:05.933029 20498 net.cpp:148] Top shape: 24 24 14 14 (112896)
I0403 17:09:05.933045 20498 net.cpp:156] Memory required for data: 965772576
I0403 17:09:05.933060 20498 layer_factory.hpp:77] Creating layer inception_4b/5x5
I0403 17:09:05.933082 20498 net.cpp:91] Creating Layer inception_4b/5x5
I0403 17:09:05.933100 20498 net.cpp:425] inception_4b/5x5 <- inception_4b/5x5_reduce
I0403 17:09:05.933121 20498 net.cpp:399] inception_4b/5x5 -> inception_4b/5x5
I0403 17:09:05.934345 20498 net.cpp:141] Setting up inception_4b/5x5
I0403 17:09:05.934376 20498 net.cpp:148] Top shape: 24 64 14 14 (301056)
I0403 17:09:05.934393 20498 net.cpp:156] Memory required for data: 966976800
I0403 17:09:05.934412 20498 layer_factory.hpp:77] Creating layer inception_4b/relu_5x5
I0403 17:09:05.934430 20498 net.cpp:91] Creating Layer inception_4b/relu_5x5
I0403 17:09:05.934447 20498 net.cpp:425] inception_4b/relu_5x5 <- inception_4b/5x5
I0403 17:09:05.934466 20498 net.cpp:386] inception_4b/relu_5x5 -> inception_4b/5x5 (in-place)
I0403 17:09:05.934764 20498 net.cpp:141] Setting up inception_4b/relu_5x5
I0403 17:09:05.934793 20498 net.cpp:148] Top shape: 24 64 14 14 (301056)
I0403 17:09:05.934810 20498 net.cpp:156] Memory required for data: 968181024
I0403 17:09:05.934826 20498 layer_factory.hpp:77] Creating layer inception_4b/pool
I0403 17:09:05.934844 20498 net.cpp:91] Creating Layer inception_4b/pool
I0403 17:09:05.934861 20498 net.cpp:425] inception_4b/pool <- inception_4a/output_inception_4a/output_0_split_4
I0403 17:09:05.934882 20498 net.cpp:399] inception_4b/pool -> inception_4b/pool
I0403 17:09:05.934948 20498 net.cpp:141] Setting up inception_4b/pool
I0403 17:09:05.934973 20498 net.cpp:148] Top shape: 24 512 14 14 (2408448)
I0403 17:09:05.934989 20498 net.cpp:156] Memory required for data: 977814816
I0403 17:09:05.935004 20498 layer_factory.hpp:77] Creating layer inception_4b/pool_proj
I0403 17:09:05.935027 20498 net.cpp:91] Creating Layer inception_4b/pool_proj
I0403 17:09:05.935045 20498 net.cpp:425] inception_4b/pool_proj <- inception_4b/pool
I0403 17:09:05.935067 20498 net.cpp:399] inception_4b/pool_proj -> inception_4b/pool_proj
I0403 17:09:05.936264 20498 net.cpp:141] Setting up inception_4b/pool_proj
I0403 17:09:05.936295 20498 net.cpp:148] Top shape: 24 64 14 14 (301056)
I0403 17:09:05.936313 20498 net.cpp:156] Memory required for data: 979019040
I0403 17:09:05.936331 20498 layer_factory.hpp:77] Creating layer inception_4b/relu_pool_proj
I0403 17:09:05.936349 20498 net.cpp:91] Creating Layer inception_4b/relu_pool_proj
I0403 17:09:05.936367 20498 net.cpp:425] inception_4b/relu_pool_proj <- inception_4b/pool_proj
I0403 17:09:05.936385 20498 net.cpp:386] inception_4b/relu_pool_proj -> inception_4b/pool_proj (in-place)
I0403 17:09:05.936565 20498 net.cpp:141] Setting up inception_4b/relu_pool_proj
I0403 17:09:05.936590 20498 net.cpp:148] Top shape: 24 64 14 14 (301056)
I0403 17:09:05.936610 20498 net.cpp:156] Memory required for data: 980223264
I0403 17:09:05.936626 20498 layer_factory.hpp:77] Creating layer inception_4b/output
I0403 17:09:05.936645 20498 net.cpp:91] Creating Layer inception_4b/output
I0403 17:09:05.936661 20498 net.cpp:425] inception_4b/output <- inception_4b/1x1
I0403 17:09:05.936678 20498 net.cpp:425] inception_4b/output <- inception_4b/3x3
I0403 17:09:05.936696 20498 net.cpp:425] inception_4b/output <- inception_4b/5x5
I0403 17:09:05.936713 20498 net.cpp:425] inception_4b/output <- inception_4b/pool_proj
I0403 17:09:05.936735 20498 net.cpp:399] inception_4b/output -> inception_4b/output
I0403 17:09:05.936781 20498 net.cpp:141] Setting up inception_4b/output
I0403 17:09:05.936808 20498 net.cpp:148] Top shape: 24 512 14 14 (2408448)
I0403 17:09:05.936823 20498 net.cpp:156] Memory required for data: 989857056
I0403 17:09:05.936852 20498 layer_factory.hpp:77] Creating layer inception_4b/output_inception_4b/output_0_split
I0403 17:09:05.936872 20498 net.cpp:91] Creating Layer inception_4b/output_inception_4b/output_0_split
I0403 17:09:05.936887 20498 net.cpp:425] inception_4b/output_inception_4b/output_0_split <- inception_4b/output
I0403 17:09:05.936905 20498 net.cpp:399] inception_4b/output_inception_4b/output_0_split -> inception_4b/output_inception_4b/output_0_split_0
I0403 17:09:05.936928 20498 net.cpp:399] inception_4b/output_inception_4b/output_0_split -> inception_4b/output_inception_4b/output_0_split_1
I0403 17:09:05.936950 20498 net.cpp:399] inception_4b/output_inception_4b/output_0_split -> inception_4b/output_inception_4b/output_0_split_2
I0403 17:09:05.936971 20498 net.cpp:399] inception_4b/output_inception_4b/output_0_split -> inception_4b/output_inception_4b/output_0_split_3
I0403 17:09:05.937058 20498 net.cpp:141] Setting up inception_4b/output_inception_4b/output_0_split
I0403 17:09:05.937083 20498 net.cpp:148] Top shape: 24 512 14 14 (2408448)
I0403 17:09:05.937099 20498 net.cpp:148] Top shape: 24 512 14 14 (2408448)
I0403 17:09:05.937115 20498 net.cpp:148] Top shape: 24 512 14 14 (2408448)
I0403 17:09:05.937131 20498 net.cpp:148] Top shape: 24 512 14 14 (2408448)
I0403 17:09:05.937145 20498 net.cpp:156] Memory required for data: 1028392224
I0403 17:09:05.937160 20498 layer_factory.hpp:77] Creating layer inception_4c/1x1
I0403 17:09:05.937185 20498 net.cpp:91] Creating Layer inception_4c/1x1
I0403 17:09:05.937202 20498 net.cpp:425] inception_4c/1x1 <- inception_4b/output_inception_4b/output_0_split_0
I0403 17:09:05.937222 20498 net.cpp:399] inception_4c/1x1 -> inception_4c/1x1
I0403 17:09:05.938647 20498 net.cpp:141] Setting up inception_4c/1x1
I0403 17:09:05.938675 20498 net.cpp:148] Top shape: 24 128 14 14 (602112)
I0403 17:09:05.938691 20498 net.cpp:156] Memory required for data: 1030800672
I0403 17:09:05.938710 20498 layer_factory.hpp:77] Creating layer inception_4c/relu_1x1
I0403 17:09:05.938730 20498 net.cpp:91] Creating Layer inception_4c/relu_1x1
I0403 17:09:05.938748 20498 net.cpp:425] inception_4c/relu_1x1 <- inception_4c/1x1
I0403 17:09:05.938766 20498 net.cpp:386] inception_4c/relu_1x1 -> inception_4c/1x1 (in-place)
I0403 17:09:05.938946 20498 net.cpp:141] Setting up inception_4c/relu_1x1
I0403 17:09:05.938971 20498 net.cpp:148] Top shape: 24 128 14 14 (602112)
I0403 17:09:05.938992 20498 net.cpp:156] Memory required for data: 1033209120
I0403 17:09:05.939007 20498 layer_factory.hpp:77] Creating layer inception_4c/3x3_reduce
I0403 17:09:05.939028 20498 net.cpp:91] Creating Layer inception_4c/3x3_reduce
I0403 17:09:05.939045 20498 net.cpp:425] inception_4c/3x3_reduce <- inception_4b/output_inception_4b/output_0_split_1
I0403 17:09:05.939066 20498 net.cpp:399] inception_4c/3x3_reduce -> inception_4c/3x3_reduce
I0403 17:09:05.941016 20498 net.cpp:141] Setting up inception_4c/3x3_reduce
I0403 17:09:05.941061 20498 net.cpp:148] Top shape: 24 128 14 14 (602112)
I0403 17:09:05.941079 20498 net.cpp:156] Memory required for data: 1035617568
I0403 17:09:05.941098 20498 layer_factory.hpp:77] Creating layer inception_4c/relu_3x3_reduce
I0403 17:09:05.941117 20498 net.cpp:91] Creating Layer inception_4c/relu_3x3_reduce
I0403 17:09:05.941133 20498 net.cpp:425] inception_4c/relu_3x3_reduce <- inception_4c/3x3_reduce
I0403 17:09:05.941151 20498 net.cpp:386] inception_4c/relu_3x3_reduce -> inception_4c/3x3_reduce (in-place)
I0403 17:09:05.941444 20498 net.cpp:141] Setting up inception_4c/relu_3x3_reduce
I0403 17:09:05.941474 20498 net.cpp:148] Top shape: 24 128 14 14 (602112)
I0403 17:09:05.941491 20498 net.cpp:156] Memory required for data: 1038026016
I0403 17:09:05.941507 20498 layer_factory.hpp:77] Creating layer inception_4c/3x3
I0403 17:09:05.941531 20498 net.cpp:91] Creating Layer inception_4c/3x3
I0403 17:09:05.941550 20498 net.cpp:425] inception_4c/3x3 <- inception_4c/3x3_reduce
I0403 17:09:05.941570 20498 net.cpp:399] inception_4c/3x3 -> inception_4c/3x3
I0403 17:09:05.945134 20498 net.cpp:141] Setting up inception_4c/3x3
I0403 17:09:05.945178 20498 net.cpp:148] Top shape: 24 256 14 14 (1204224)
I0403 17:09:05.945195 20498 net.cpp:156] Memory required for data: 1042842912
I0403 17:09:05.945226 20498 layer_factory.hpp:77] Creating layer inception_4c/relu_3x3
I0403 17:09:05.945248 20498 net.cpp:91] Creating Layer inception_4c/relu_3x3
I0403 17:09:05.945264 20498 net.cpp:425] inception_4c/relu_3x3 <- inception_4c/3x3
I0403 17:09:05.945286 20498 net.cpp:386] inception_4c/relu_3x3 -> inception_4c/3x3 (in-place)
I0403 17:09:05.945461 20498 net.cpp:141] Setting up inception_4c/relu_3x3
I0403 17:09:05.945487 20498 net.cpp:148] Top shape: 24 256 14 14 (1204224)
I0403 17:09:05.945502 20498 net.cpp:156] Memory required for data: 1047659808
I0403 17:09:05.945518 20498 layer_factory.hpp:77] Creating layer inception_4c/5x5_reduce
I0403 17:09:05.945539 20498 net.cpp:91] Creating Layer inception_4c/5x5_reduce
I0403 17:09:05.945559 20498 net.cpp:425] inception_4c/5x5_reduce <- inception_4b/output_inception_4b/output_0_split_2
I0403 17:09:05.945580 20498 net.cpp:399] inception_4c/5x5_reduce -> inception_4c/5x5_reduce
I0403 17:09:05.946638 20498 net.cpp:141] Setting up inception_4c/5x5_reduce
I0403 17:09:05.946668 20498 net.cpp:148] Top shape: 24 24 14 14 (112896)
I0403 17:09:05.946686 20498 net.cpp:156] Memory required for data: 1048111392
I0403 17:09:05.946703 20498 layer_factory.hpp:77] Creating layer inception_4c/relu_5x5_reduce
I0403 17:09:05.946722 20498 net.cpp:91] Creating Layer inception_4c/relu_5x5_reduce
I0403 17:09:05.946738 20498 net.cpp:425] inception_4c/relu_5x5_reduce <- inception_4c/5x5_reduce
I0403 17:09:05.946756 20498 net.cpp:386] inception_4c/relu_5x5_reduce -> inception_4c/5x5_reduce (in-place)
I0403 17:09:05.946938 20498 net.cpp:141] Setting up inception_4c/relu_5x5_reduce
I0403 17:09:05.946962 20498 net.cpp:148] Top shape: 24 24 14 14 (112896)
I0403 17:09:05.946977 20498 net.cpp:156] Memory required for data: 1048562976
I0403 17:09:05.946991 20498 layer_factory.hpp:77] Creating layer inception_4c/5x5
I0403 17:09:05.947013 20498 net.cpp:91] Creating Layer inception_4c/5x5
I0403 17:09:05.947031 20498 net.cpp:425] inception_4c/5x5 <- inception_4c/5x5_reduce
I0403 17:09:05.947052 20498 net.cpp:399] inception_4c/5x5 -> inception_4c/5x5
I0403 17:09:05.948257 20498 net.cpp:141] Setting up inception_4c/5x5
I0403 17:09:05.948285 20498 net.cpp:148] Top shape: 24 64 14 14 (301056)
I0403 17:09:05.948302 20498 net.cpp:156] Memory required for data: 1049767200
I0403 17:09:05.948320 20498 layer_factory.hpp:77] Creating layer inception_4c/relu_5x5
I0403 17:09:05.948338 20498 net.cpp:91] Creating Layer inception_4c/relu_5x5
I0403 17:09:05.948355 20498 net.cpp:425] inception_4c/relu_5x5 <- inception_4c/5x5
I0403 17:09:05.948379 20498 net.cpp:386] inception_4c/relu_5x5 -> inception_4c/5x5 (in-place)
I0403 17:09:05.948670 20498 net.cpp:141] Setting up inception_4c/relu_5x5
I0403 17:09:05.948698 20498 net.cpp:148] Top shape: 24 64 14 14 (301056)
I0403 17:09:05.948712 20498 net.cpp:156] Memory required for data: 1050971424
I0403 17:09:05.948729 20498 layer_factory.hpp:77] Creating layer inception_4c/pool
I0403 17:09:05.948745 20498 net.cpp:91] Creating Layer inception_4c/pool
I0403 17:09:05.948762 20498 net.cpp:425] inception_4c/pool <- inception_4b/output_inception_4b/output_0_split_3
I0403 17:09:05.948783 20498 net.cpp:399] inception_4c/pool -> inception_4c/pool
I0403 17:09:05.948848 20498 net.cpp:141] Setting up inception_4c/pool
I0403 17:09:05.948871 20498 net.cpp:148] Top shape: 24 512 14 14 (2408448)
I0403 17:09:05.948886 20498 net.cpp:156] Memory required for data: 1060605216
I0403 17:09:05.948901 20498 layer_factory.hpp:77] Creating layer inception_4c/pool_proj
I0403 17:09:05.948925 20498 net.cpp:91] Creating Layer inception_4c/pool_proj
I0403 17:09:05.948942 20498 net.cpp:425] inception_4c/pool_proj <- inception_4c/pool
I0403 17:09:05.948961 20498 net.cpp:399] inception_4c/pool_proj -> inception_4c/pool_proj
I0403 17:09:05.950150 20498 net.cpp:141] Setting up inception_4c/pool_proj
I0403 17:09:05.950179 20498 net.cpp:148] Top shape: 24 64 14 14 (301056)
I0403 17:09:05.950208 20498 net.cpp:156] Memory required for data: 1061809440
I0403 17:09:05.950227 20498 layer_factory.hpp:77] Creating layer inception_4c/relu_pool_proj
I0403 17:09:05.950247 20498 net.cpp:91] Creating Layer inception_4c/relu_pool_proj
I0403 17:09:05.950263 20498 net.cpp:425] inception_4c/relu_pool_proj <- inception_4c/pool_proj
I0403 17:09:05.950283 20498 net.cpp:386] inception_4c/relu_pool_proj -> inception_4c/pool_proj (in-place)
I0403 17:09:05.950460 20498 net.cpp:141] Setting up inception_4c/relu_pool_proj
I0403 17:09:05.950485 20498 net.cpp:148] Top shape: 24 64 14 14 (301056)
I0403 17:09:05.950500 20498 net.cpp:156] Memory required for data: 1063013664
I0403 17:09:05.950515 20498 layer_factory.hpp:77] Creating layer inception_4c/output
I0403 17:09:05.950531 20498 net.cpp:91] Creating Layer inception_4c/output
I0403 17:09:05.950546 20498 net.cpp:425] inception_4c/output <- inception_4c/1x1
I0403 17:09:05.950562 20498 net.cpp:425] inception_4c/output <- inception_4c/3x3
I0403 17:09:05.950577 20498 net.cpp:425] inception_4c/output <- inception_4c/5x5
I0403 17:09:05.950593 20498 net.cpp:425] inception_4c/output <- inception_4c/pool_proj
I0403 17:09:05.950618 20498 net.cpp:399] inception_4c/output -> inception_4c/output
I0403 17:09:05.950665 20498 net.cpp:141] Setting up inception_4c/output
I0403 17:09:05.950690 20498 net.cpp:148] Top shape: 24 512 14 14 (2408448)
I0403 17:09:05.950706 20498 net.cpp:156] Memory required for data: 1072647456
I0403 17:09:05.950721 20498 layer_factory.hpp:77] Creating layer inception_4c/output_inception_4c/output_0_split
I0403 17:09:05.950736 20498 net.cpp:91] Creating Layer inception_4c/output_inception_4c/output_0_split
I0403 17:09:05.950752 20498 net.cpp:425] inception_4c/output_inception_4c/output_0_split <- inception_4c/output
I0403 17:09:05.950768 20498 net.cpp:399] inception_4c/output_inception_4c/output_0_split -> inception_4c/output_inception_4c/output_0_split_0
I0403 17:09:05.950790 20498 net.cpp:399] inception_4c/output_inception_4c/output_0_split -> inception_4c/output_inception_4c/output_0_split_1
I0403 17:09:05.950812 20498 net.cpp:399] inception_4c/output_inception_4c/output_0_split -> inception_4c/output_inception_4c/output_0_split_2
I0403 17:09:05.950834 20498 net.cpp:399] inception_4c/output_inception_4c/output_0_split -> inception_4c/output_inception_4c/output_0_split_3
I0403 17:09:05.950917 20498 net.cpp:141] Setting up inception_4c/output_inception_4c/output_0_split
I0403 17:09:05.950942 20498 net.cpp:148] Top shape: 24 512 14 14 (2408448)
I0403 17:09:05.950958 20498 net.cpp:148] Top shape: 24 512 14 14 (2408448)
I0403 17:09:05.950973 20498 net.cpp:148] Top shape: 24 512 14 14 (2408448)
I0403 17:09:05.950989 20498 net.cpp:148] Top shape: 24 512 14 14 (2408448)
I0403 17:09:05.951001 20498 net.cpp:156] Memory required for data: 1111182624
I0403 17:09:05.951015 20498 layer_factory.hpp:77] Creating layer inception_4d/1x1
I0403 17:09:05.951040 20498 net.cpp:91] Creating Layer inception_4d/1x1
I0403 17:09:05.951058 20498 net.cpp:425] inception_4d/1x1 <- inception_4c/output_inception_4c/output_0_split_0
I0403 17:09:05.951077 20498 net.cpp:399] inception_4d/1x1 -> inception_4d/1x1
I0403 17:09:05.952415 20498 net.cpp:141] Setting up inception_4d/1x1
I0403 17:09:05.952443 20498 net.cpp:148] Top shape: 24 112 14 14 (526848)
I0403 17:09:05.952461 20498 net.cpp:156] Memory required for data: 1113290016
I0403 17:09:05.952479 20498 layer_factory.hpp:77] Creating layer inception_4d/relu_1x1
I0403 17:09:05.952499 20498 net.cpp:91] Creating Layer inception_4d/relu_1x1
I0403 17:09:05.952517 20498 net.cpp:425] inception_4d/relu_1x1 <- inception_4d/1x1
I0403 17:09:05.952533 20498 net.cpp:386] inception_4d/relu_1x1 -> inception_4d/1x1 (in-place)
I0403 17:09:05.952716 20498 net.cpp:141] Setting up inception_4d/relu_1x1
I0403 17:09:05.952744 20498 net.cpp:148] Top shape: 24 112 14 14 (526848)
I0403 17:09:05.952761 20498 net.cpp:156] Memory required for data: 1115397408
I0403 17:09:05.952775 20498 layer_factory.hpp:77] Creating layer inception_4d/3x3_reduce
I0403 17:09:05.952811 20498 net.cpp:91] Creating Layer inception_4d/3x3_reduce
I0403 17:09:05.952828 20498 net.cpp:425] inception_4d/3x3_reduce <- inception_4c/output_inception_4c/output_0_split_1
I0403 17:09:05.952847 20498 net.cpp:399] inception_4d/3x3_reduce -> inception_4d/3x3_reduce
I0403 17:09:05.954315 20498 net.cpp:141] Setting up inception_4d/3x3_reduce
I0403 17:09:05.954342 20498 net.cpp:148] Top shape: 24 144 14 14 (677376)
I0403 17:09:05.954357 20498 net.cpp:156] Memory required for data: 1118106912
I0403 17:09:05.954375 20498 layer_factory.hpp:77] Creating layer inception_4d/relu_3x3_reduce
I0403 17:09:05.954396 20498 net.cpp:91] Creating Layer inception_4d/relu_3x3_reduce
I0403 17:09:05.954412 20498 net.cpp:425] inception_4d/relu_3x3_reduce <- inception_4d/3x3_reduce
I0403 17:09:05.954430 20498 net.cpp:386] inception_4d/relu_3x3_reduce -> inception_4d/3x3_reduce (in-place)
I0403 17:09:05.954720 20498 net.cpp:141] Setting up inception_4d/relu_3x3_reduce
I0403 17:09:05.954746 20498 net.cpp:148] Top shape: 24 144 14 14 (677376)
I0403 17:09:05.954762 20498 net.cpp:156] Memory required for data: 1120816416
I0403 17:09:05.954777 20498 layer_factory.hpp:77] Creating layer inception_4d/3x3
I0403 17:09:05.954798 20498 net.cpp:91] Creating Layer inception_4d/3x3
I0403 17:09:05.954816 20498 net.cpp:425] inception_4d/3x3 <- inception_4d/3x3_reduce
I0403 17:09:05.954836 20498 net.cpp:399] inception_4d/3x3 -> inception_4d/3x3
I0403 17:09:05.958961 20498 net.cpp:141] Setting up inception_4d/3x3
I0403 17:09:05.958991 20498 net.cpp:148] Top shape: 24 288 14 14 (1354752)
I0403 17:09:05.959005 20498 net.cpp:156] Memory required for data: 1126235424
I0403 17:09:05.959024 20498 layer_factory.hpp:77] Creating layer inception_4d/relu_3x3
I0403 17:09:05.959044 20498 net.cpp:91] Creating Layer inception_4d/relu_3x3
I0403 17:09:05.959060 20498 net.cpp:425] inception_4d/relu_3x3 <- inception_4d/3x3
I0403 17:09:05.959077 20498 net.cpp:386] inception_4d/relu_3x3 -> inception_4d/3x3 (in-place)
I0403 17:09:05.959260 20498 net.cpp:141] Setting up inception_4d/relu_3x3
I0403 17:09:05.959287 20498 net.cpp:148] Top shape: 24 288 14 14 (1354752)
I0403 17:09:05.959303 20498 net.cpp:156] Memory required for data: 1131654432
I0403 17:09:05.959317 20498 layer_factory.hpp:77] Creating layer inception_4d/5x5_reduce
I0403 17:09:05.959339 20498 net.cpp:91] Creating Layer inception_4d/5x5_reduce
I0403 17:09:05.959357 20498 net.cpp:425] inception_4d/5x5_reduce <- inception_4c/output_inception_4c/output_0_split_2
I0403 17:09:05.959375 20498 net.cpp:399] inception_4d/5x5_reduce -> inception_4d/5x5_reduce
I0403 17:09:05.960490 20498 net.cpp:141] Setting up inception_4d/5x5_reduce
I0403 17:09:05.960518 20498 net.cpp:148] Top shape: 24 32 14 14 (150528)
I0403 17:09:05.960533 20498 net.cpp:156] Memory required for data: 1132256544
I0403 17:09:05.960551 20498 layer_factory.hpp:77] Creating layer inception_4d/relu_5x5_reduce
I0403 17:09:05.960572 20498 net.cpp:91] Creating Layer inception_4d/relu_5x5_reduce
I0403 17:09:05.960588 20498 net.cpp:425] inception_4d/relu_5x5_reduce <- inception_4d/5x5_reduce
I0403 17:09:05.960609 20498 net.cpp:386] inception_4d/relu_5x5_reduce -> inception_4d/5x5_reduce (in-place)
I0403 17:09:05.960790 20498 net.cpp:141] Setting up inception_4d/relu_5x5_reduce
I0403 17:09:05.960818 20498 net.cpp:148] Top shape: 24 32 14 14 (150528)
I0403 17:09:05.960831 20498 net.cpp:156] Memory required for data: 1132858656
I0403 17:09:05.960846 20498 layer_factory.hpp:77] Creating layer inception_4d/5x5
I0403 17:09:05.960867 20498 net.cpp:91] Creating Layer inception_4d/5x5
I0403 17:09:05.960885 20498 net.cpp:425] inception_4d/5x5 <- inception_4d/5x5_reduce
I0403 17:09:05.960904 20498 net.cpp:399] inception_4d/5x5 -> inception_4d/5x5
I0403 17:09:05.962332 20498 net.cpp:141] Setting up inception_4d/5x5
I0403 17:09:05.962360 20498 net.cpp:148] Top shape: 24 64 14 14 (301056)
I0403 17:09:05.962375 20498 net.cpp:156] Memory required for data: 1134062880
I0403 17:09:05.962393 20498 layer_factory.hpp:77] Creating layer inception_4d/relu_5x5
I0403 17:09:05.962425 20498 net.cpp:91] Creating Layer inception_4d/relu_5x5
I0403 17:09:05.962443 20498 net.cpp:425] inception_4d/relu_5x5 <- inception_4d/5x5
I0403 17:09:05.962461 20498 net.cpp:386] inception_4d/relu_5x5 -> inception_4d/5x5 (in-place)
I0403 17:09:05.962769 20498 net.cpp:141] Setting up inception_4d/relu_5x5
I0403 17:09:05.962797 20498 net.cpp:148] Top shape: 24 64 14 14 (301056)
I0403 17:09:05.962812 20498 net.cpp:156] Memory required for data: 1135267104
I0403 17:09:05.962827 20498 layer_factory.hpp:77] Creating layer inception_4d/pool
I0403 17:09:05.962844 20498 net.cpp:91] Creating Layer inception_4d/pool
I0403 17:09:05.962860 20498 net.cpp:425] inception_4d/pool <- inception_4c/output_inception_4c/output_0_split_3
I0403 17:09:05.962880 20498 net.cpp:399] inception_4d/pool -> inception_4d/pool
I0403 17:09:05.962946 20498 net.cpp:141] Setting up inception_4d/pool
I0403 17:09:05.962970 20498 net.cpp:148] Top shape: 24 512 14 14 (2408448)
I0403 17:09:05.962985 20498 net.cpp:156] Memory required for data: 1144900896
I0403 17:09:05.962998 20498 layer_factory.hpp:77] Creating layer inception_4d/pool_proj
I0403 17:09:05.963021 20498 net.cpp:91] Creating Layer inception_4d/pool_proj
I0403 17:09:05.963038 20498 net.cpp:425] inception_4d/pool_proj <- inception_4d/pool
I0403 17:09:05.963057 20498 net.cpp:399] inception_4d/pool_proj -> inception_4d/pool_proj
I0403 17:09:05.964855 20498 net.cpp:141] Setting up inception_4d/pool_proj
I0403 17:09:05.964884 20498 net.cpp:148] Top shape: 24 64 14 14 (301056)
I0403 17:09:05.964902 20498 net.cpp:156] Memory required for data: 1146105120
I0403 17:09:05.964921 20498 layer_factory.hpp:77] Creating layer inception_4d/relu_pool_proj
I0403 17:09:05.964939 20498 net.cpp:91] Creating Layer inception_4d/relu_pool_proj
I0403 17:09:05.964956 20498 net.cpp:425] inception_4d/relu_pool_proj <- inception_4d/pool_proj
I0403 17:09:05.964972 20498 net.cpp:386] inception_4d/relu_pool_proj -> inception_4d/pool_proj (in-place)
I0403 17:09:05.965152 20498 net.cpp:141] Setting up inception_4d/relu_pool_proj
I0403 17:09:05.965178 20498 net.cpp:148] Top shape: 24 64 14 14 (301056)
I0403 17:09:05.965193 20498 net.cpp:156] Memory required for data: 1147309344
I0403 17:09:05.965209 20498 layer_factory.hpp:77] Creating layer inception_4d/output
I0403 17:09:05.965224 20498 net.cpp:91] Creating Layer inception_4d/output
I0403 17:09:05.965240 20498 net.cpp:425] inception_4d/output <- inception_4d/1x1
I0403 17:09:05.965255 20498 net.cpp:425] inception_4d/output <- inception_4d/3x3
I0403 17:09:05.965271 20498 net.cpp:425] inception_4d/output <- inception_4d/5x5
I0403 17:09:05.965286 20498 net.cpp:425] inception_4d/output <- inception_4d/pool_proj
I0403 17:09:05.965306 20498 net.cpp:399] inception_4d/output -> inception_4d/output
I0403 17:09:05.965353 20498 net.cpp:141] Setting up inception_4d/output
I0403 17:09:05.965376 20498 net.cpp:148] Top shape: 24 528 14 14 (2483712)
I0403 17:09:05.965391 20498 net.cpp:156] Memory required for data: 1157244192
I0403 17:09:05.965405 20498 layer_factory.hpp:77] Creating layer inception_4d/output_inception_4d/output_0_split
I0403 17:09:05.965425 20498 net.cpp:91] Creating Layer inception_4d/output_inception_4d/output_0_split
I0403 17:09:05.965441 20498 net.cpp:425] inception_4d/output_inception_4d/output_0_split <- inception_4d/output
I0403 17:09:05.965459 20498 net.cpp:399] inception_4d/output_inception_4d/output_0_split -> inception_4d/output_inception_4d/output_0_split_0
I0403 17:09:05.965482 20498 net.cpp:399] inception_4d/output_inception_4d/output_0_split -> inception_4d/output_inception_4d/output_0_split_1
I0403 17:09:05.965503 20498 net.cpp:399] inception_4d/output_inception_4d/output_0_split -> inception_4d/output_inception_4d/output_0_split_2
I0403 17:09:05.965524 20498 net.cpp:399] inception_4d/output_inception_4d/output_0_split -> inception_4d/output_inception_4d/output_0_split_3
I0403 17:09:05.965544 20498 net.cpp:399] inception_4d/output_inception_4d/output_0_split -> inception_4d/output_inception_4d/output_0_split_4
I0403 17:09:05.965648 20498 net.cpp:141] Setting up inception_4d/output_inception_4d/output_0_split
I0403 17:09:05.965687 20498 net.cpp:148] Top shape: 24 528 14 14 (2483712)
I0403 17:09:05.965704 20498 net.cpp:148] Top shape: 24 528 14 14 (2483712)
I0403 17:09:05.965719 20498 net.cpp:148] Top shape: 24 528 14 14 (2483712)
I0403 17:09:05.965734 20498 net.cpp:148] Top shape: 24 528 14 14 (2483712)
I0403 17:09:05.965749 20498 net.cpp:148] Top shape: 24 528 14 14 (2483712)
I0403 17:09:05.965762 20498 net.cpp:156] Memory required for data: 1206918432
I0403 17:09:05.965776 20498 layer_factory.hpp:77] Creating layer loss2/ave_pool
I0403 17:09:05.965796 20498 net.cpp:91] Creating Layer loss2/ave_pool
I0403 17:09:05.965813 20498 net.cpp:425] loss2/ave_pool <- inception_4d/output_inception_4d/output_0_split_0
I0403 17:09:05.965831 20498 net.cpp:399] loss2/ave_pool -> loss2/ave_pool
I0403 17:09:05.966136 20498 net.cpp:141] Setting up loss2/ave_pool
I0403 17:09:05.966163 20498 net.cpp:148] Top shape: 24 528 4 4 (202752)
I0403 17:09:05.966179 20498 net.cpp:156] Memory required for data: 1207729440
I0403 17:09:05.966194 20498 layer_factory.hpp:77] Creating layer loss2/conv
I0403 17:09:05.966213 20498 net.cpp:91] Creating Layer loss2/conv
I0403 17:09:05.966230 20498 net.cpp:425] loss2/conv <- loss2/ave_pool
I0403 17:09:05.966250 20498 net.cpp:399] loss2/conv -> loss2/conv
I0403 17:09:05.968085 20498 net.cpp:141] Setting up loss2/conv
I0403 17:09:05.968113 20498 net.cpp:148] Top shape: 24 128 4 4 (49152)
I0403 17:09:05.968128 20498 net.cpp:156] Memory required for data: 1207926048
I0403 17:09:05.968147 20498 layer_factory.hpp:77] Creating layer loss2/relu_conv
I0403 17:09:05.968164 20498 net.cpp:91] Creating Layer loss2/relu_conv
I0403 17:09:05.968181 20498 net.cpp:425] loss2/relu_conv <- loss2/conv
I0403 17:09:05.968200 20498 net.cpp:386] loss2/relu_conv -> loss2/conv (in-place)
I0403 17:09:05.968477 20498 net.cpp:141] Setting up loss2/relu_conv
I0403 17:09:05.968503 20498 net.cpp:148] Top shape: 24 128 4 4 (49152)
I0403 17:09:05.968518 20498 net.cpp:156] Memory required for data: 1208122656
I0403 17:09:05.968533 20498 layer_factory.hpp:77] Creating layer loss2/fc
I0403 17:09:05.968552 20498 net.cpp:91] Creating Layer loss2/fc
I0403 17:09:05.968569 20498 net.cpp:425] loss2/fc <- loss2/conv
I0403 17:09:05.968593 20498 net.cpp:399] loss2/fc -> loss2/fc
I0403 17:09:05.985824 20498 net.cpp:141] Setting up loss2/fc
I0403 17:09:05.985855 20498 net.cpp:148] Top shape: 24 1024 (24576)
I0403 17:09:05.985872 20498 net.cpp:156] Memory required for data: 1208220960
I0403 17:09:05.985888 20498 layer_factory.hpp:77] Creating layer loss2/relu_fc
I0403 17:09:05.985908 20498 net.cpp:91] Creating Layer loss2/relu_fc
I0403 17:09:05.985925 20498 net.cpp:425] loss2/relu_fc <- loss2/fc
I0403 17:09:05.985942 20498 net.cpp:386] loss2/relu_fc -> loss2/fc (in-place)
I0403 17:09:05.986229 20498 net.cpp:141] Setting up loss2/relu_fc
I0403 17:09:05.986256 20498 net.cpp:148] Top shape: 24 1024 (24576)
I0403 17:09:05.986273 20498 net.cpp:156] Memory required for data: 1208319264
I0403 17:09:05.986286 20498 layer_factory.hpp:77] Creating layer loss2/drop_fc
I0403 17:09:05.986304 20498 net.cpp:91] Creating Layer loss2/drop_fc
I0403 17:09:05.986320 20498 net.cpp:425] loss2/drop_fc <- loss2/fc
I0403 17:09:05.986336 20498 net.cpp:386] loss2/drop_fc -> loss2/fc (in-place)
I0403 17:09:05.986385 20498 net.cpp:141] Setting up loss2/drop_fc
I0403 17:09:05.986408 20498 net.cpp:148] Top shape: 24 1024 (24576)
I0403 17:09:05.986423 20498 net.cpp:156] Memory required for data: 1208417568
I0403 17:09:05.986438 20498 layer_factory.hpp:77] Creating layer loss2/classifier_plantvillage
I0403 17:09:05.986457 20498 net.cpp:91] Creating Layer loss2/classifier_plantvillage
I0403 17:09:05.986474 20498 net.cpp:425] loss2/classifier_plantvillage <- loss2/fc
I0403 17:09:05.986492 20498 net.cpp:399] loss2/classifier_plantvillage -> loss2/classifier_plantvillage
I0403 17:09:05.986888 20498 net.cpp:141] Setting up loss2/classifier_plantvillage
I0403 17:09:05.986912 20498 net.cpp:148] Top shape: 24 38 (912)
I0403 17:09:05.986927 20498 net.cpp:156] Memory required for data: 1208421216
I0403 17:09:05.986959 20498 layer_factory.hpp:77] Creating layer loss2/classifier_plantvillage_loss2/classifier_plantvillage_0_split
I0403 17:09:05.986979 20498 net.cpp:91] Creating Layer loss2/classifier_plantvillage_loss2/classifier_plantvillage_0_split
I0403 17:09:05.986994 20498 net.cpp:425] loss2/classifier_plantvillage_loss2/classifier_plantvillage_0_split <- loss2/classifier_plantvillage
I0403 17:09:05.987012 20498 net.cpp:399] loss2/classifier_plantvillage_loss2/classifier_plantvillage_0_split -> loss2/classifier_plantvillage_loss2/classifier_plantvillage_0_split_0
I0403 17:09:05.987033 20498 net.cpp:399] loss2/classifier_plantvillage_loss2/classifier_plantvillage_0_split -> loss2/classifier_plantvillage_loss2/classifier_plantvillage_0_split_1
I0403 17:09:05.987053 20498 net.cpp:399] loss2/classifier_plantvillage_loss2/classifier_plantvillage_0_split -> loss2/classifier_plantvillage_loss2/classifier_plantvillage_0_split_2
I0403 17:09:05.987128 20498 net.cpp:141] Setting up loss2/classifier_plantvillage_loss2/classifier_plantvillage_0_split
I0403 17:09:05.987152 20498 net.cpp:148] Top shape: 24 38 (912)
I0403 17:09:05.987169 20498 net.cpp:148] Top shape: 24 38 (912)
I0403 17:09:05.987185 20498 net.cpp:148] Top shape: 24 38 (912)
I0403 17:09:05.987196 20498 net.cpp:156] Memory required for data: 1208432160
I0403 17:09:05.987210 20498 layer_factory.hpp:77] Creating layer inception_4e/1x1
I0403 17:09:05.987231 20498 net.cpp:91] Creating Layer inception_4e/1x1
I0403 17:09:05.987246 20498 net.cpp:425] inception_4e/1x1 <- inception_4d/output_inception_4d/output_0_split_1
I0403 17:09:05.987264 20498 net.cpp:399] inception_4e/1x1 -> inception_4e/1x1
I0403 17:09:05.989030 20498 net.cpp:141] Setting up inception_4e/1x1
I0403 17:09:05.989058 20498 net.cpp:148] Top shape: 24 256 14 14 (1204224)
I0403 17:09:05.989073 20498 net.cpp:156] Memory required for data: 1213249056
I0403 17:09:05.989090 20498 layer_factory.hpp:77] Creating layer inception_4e/relu_1x1
I0403 17:09:05.989107 20498 net.cpp:91] Creating Layer inception_4e/relu_1x1
I0403 17:09:05.989123 20498 net.cpp:425] inception_4e/relu_1x1 <- inception_4e/1x1
I0403 17:09:05.989142 20498 net.cpp:386] inception_4e/relu_1x1 -> inception_4e/1x1 (in-place)
I0403 17:09:05.989434 20498 net.cpp:141] Setting up inception_4e/relu_1x1
I0403 17:09:05.989459 20498 net.cpp:148] Top shape: 24 256 14 14 (1204224)
I0403 17:09:05.989473 20498 net.cpp:156] Memory required for data: 1218065952
I0403 17:09:05.989488 20498 layer_factory.hpp:77] Creating layer inception_4e/3x3_reduce
I0403 17:09:05.989519 20498 net.cpp:91] Creating Layer inception_4e/3x3_reduce
I0403 17:09:05.989537 20498 net.cpp:425] inception_4e/3x3_reduce <- inception_4d/output_inception_4d/output_0_split_2
I0403 17:09:05.989558 20498 net.cpp:399] inception_4e/3x3_reduce -> inception_4e/3x3_reduce
I0403 17:09:05.991657 20498 net.cpp:141] Setting up inception_4e/3x3_reduce
I0403 17:09:05.991688 20498 net.cpp:148] Top shape: 24 160 14 14 (752640)
I0403 17:09:05.991703 20498 net.cpp:156] Memory required for data: 1221076512
I0403 17:09:05.991721 20498 layer_factory.hpp:77] Creating layer inception_4e/relu_3x3_reduce
I0403 17:09:05.991739 20498 net.cpp:91] Creating Layer inception_4e/relu_3x3_reduce
I0403 17:09:05.991755 20498 net.cpp:425] inception_4e/relu_3x3_reduce <- inception_4e/3x3_reduce
I0403 17:09:05.991775 20498 net.cpp:386] inception_4e/relu_3x3_reduce -> inception_4e/3x3_reduce (in-place)
I0403 17:09:05.991955 20498 net.cpp:141] Setting up inception_4e/relu_3x3_reduce
I0403 17:09:05.991981 20498 net.cpp:148] Top shape: 24 160 14 14 (752640)
I0403 17:09:05.991994 20498 net.cpp:156] Memory required for data: 1224087072
I0403 17:09:05.992009 20498 layer_factory.hpp:77] Creating layer inception_4e/3x3
I0403 17:09:05.992030 20498 net.cpp:91] Creating Layer inception_4e/3x3
I0403 17:09:05.992048 20498 net.cpp:425] inception_4e/3x3 <- inception_4e/3x3_reduce
I0403 17:09:05.992069 20498 net.cpp:399] inception_4e/3x3 -> inception_4e/3x3
I0403 17:09:05.997082 20498 net.cpp:141] Setting up inception_4e/3x3
I0403 17:09:05.997123 20498 net.cpp:148] Top shape: 24 320 14 14 (1505280)
I0403 17:09:05.997139 20498 net.cpp:156] Memory required for data: 1230108192
I0403 17:09:05.997156 20498 layer_factory.hpp:77] Creating layer inception_4e/relu_3x3
I0403 17:09:05.997176 20498 net.cpp:91] Creating Layer inception_4e/relu_3x3
I0403 17:09:05.997192 20498 net.cpp:425] inception_4e/relu_3x3 <- inception_4e/3x3
I0403 17:09:05.997210 20498 net.cpp:386] inception_4e/relu_3x3 -> inception_4e/3x3 (in-place)
I0403 17:09:05.997501 20498 net.cpp:141] Setting up inception_4e/relu_3x3
I0403 17:09:05.997539 20498 net.cpp:148] Top shape: 24 320 14 14 (1505280)
I0403 17:09:05.997555 20498 net.cpp:156] Memory required for data: 1236129312
I0403 17:09:05.997570 20498 layer_factory.hpp:77] Creating layer inception_4e/5x5_reduce
I0403 17:09:05.997591 20498 net.cpp:91] Creating Layer inception_4e/5x5_reduce
I0403 17:09:05.997617 20498 net.cpp:425] inception_4e/5x5_reduce <- inception_4d/output_inception_4d/output_0_split_3
I0403 17:09:05.997637 20498 net.cpp:399] inception_4e/5x5_reduce -> inception_4e/5x5_reduce
I0403 17:09:05.998697 20498 net.cpp:141] Setting up inception_4e/5x5_reduce
I0403 17:09:05.998723 20498 net.cpp:148] Top shape: 24 32 14 14 (150528)
I0403 17:09:05.998739 20498 net.cpp:156] Memory required for data: 1236731424
I0403 17:09:05.998756 20498 layer_factory.hpp:77] Creating layer inception_4e/relu_5x5_reduce
I0403 17:09:05.998775 20498 net.cpp:91] Creating Layer inception_4e/relu_5x5_reduce
I0403 17:09:05.998790 20498 net.cpp:425] inception_4e/relu_5x5_reduce <- inception_4e/5x5_reduce
I0403 17:09:05.998810 20498 net.cpp:386] inception_4e/relu_5x5_reduce -> inception_4e/5x5_reduce (in-place)
I0403 17:09:05.999099 20498 net.cpp:141] Setting up inception_4e/relu_5x5_reduce
I0403 17:09:05.999125 20498 net.cpp:148] Top shape: 24 32 14 14 (150528)
I0403 17:09:05.999140 20498 net.cpp:156] Memory required for data: 1237333536
I0403 17:09:05.999155 20498 layer_factory.hpp:77] Creating layer inception_4e/5x5
I0403 17:09:05.999191 20498 net.cpp:91] Creating Layer inception_4e/5x5
I0403 17:09:05.999209 20498 net.cpp:425] inception_4e/5x5 <- inception_4e/5x5_reduce
I0403 17:09:05.999228 20498 net.cpp:399] inception_4e/5x5 -> inception_4e/5x5
I0403 17:09:06.001046 20498 net.cpp:141] Setting up inception_4e/5x5
I0403 17:09:06.001076 20498 net.cpp:148] Top shape: 24 128 14 14 (602112)
I0403 17:09:06.001092 20498 net.cpp:156] Memory required for data: 1239741984
I0403 17:09:06.001111 20498 layer_factory.hpp:77] Creating layer inception_4e/relu_5x5
I0403 17:09:06.001128 20498 net.cpp:91] Creating Layer inception_4e/relu_5x5
I0403 17:09:06.001144 20498 net.cpp:425] inception_4e/relu_5x5 <- inception_4e/5x5
I0403 17:09:06.001162 20498 net.cpp:386] inception_4e/relu_5x5 -> inception_4e/5x5 (in-place)
I0403 17:09:06.001353 20498 net.cpp:141] Setting up inception_4e/relu_5x5
I0403 17:09:06.001377 20498 net.cpp:148] Top shape: 24 128 14 14 (602112)
I0403 17:09:06.001391 20498 net.cpp:156] Memory required for data: 1242150432
I0403 17:09:06.001406 20498 layer_factory.hpp:77] Creating layer inception_4e/pool
I0403 17:09:06.001423 20498 net.cpp:91] Creating Layer inception_4e/pool
I0403 17:09:06.001440 20498 net.cpp:425] inception_4e/pool <- inception_4d/output_inception_4d/output_0_split_4
I0403 17:09:06.001459 20498 net.cpp:399] inception_4e/pool -> inception_4e/pool
I0403 17:09:06.001528 20498 net.cpp:141] Setting up inception_4e/pool
I0403 17:09:06.001554 20498 net.cpp:148] Top shape: 24 528 14 14 (2483712)
I0403 17:09:06.001569 20498 net.cpp:156] Memory required for data: 1252085280
I0403 17:09:06.001584 20498 layer_factory.hpp:77] Creating layer inception_4e/pool_proj
I0403 17:09:06.001607 20498 net.cpp:91] Creating Layer inception_4e/pool_proj
I0403 17:09:06.001626 20498 net.cpp:425] inception_4e/pool_proj <- inception_4e/pool
I0403 17:09:06.001643 20498 net.cpp:399] inception_4e/pool_proj -> inception_4e/pool_proj
I0403 17:09:06.003106 20498 net.cpp:141] Setting up inception_4e/pool_proj
I0403 17:09:06.003137 20498 net.cpp:148] Top shape: 24 128 14 14 (602112)
I0403 17:09:06.003166 20498 net.cpp:156] Memory required for data: 1254493728
I0403 17:09:06.003185 20498 layer_factory.hpp:77] Creating layer inception_4e/relu_pool_proj
I0403 17:09:06.003202 20498 net.cpp:91] Creating Layer inception_4e/relu_pool_proj
I0403 17:09:06.003218 20498 net.cpp:425] inception_4e/relu_pool_proj <- inception_4e/pool_proj
I0403 17:09:06.003235 20498 net.cpp:386] inception_4e/relu_pool_proj -> inception_4e/pool_proj (in-place)
I0403 17:09:06.003520 20498 net.cpp:141] Setting up inception_4e/relu_pool_proj
I0403 17:09:06.003550 20498 net.cpp:148] Top shape: 24 128 14 14 (602112)
I0403 17:09:06.003566 20498 net.cpp:156] Memory required for data: 1256902176
I0403 17:09:06.003581 20498 layer_factory.hpp:77] Creating layer inception_4e/output
I0403 17:09:06.003597 20498 net.cpp:91] Creating Layer inception_4e/output
I0403 17:09:06.003618 20498 net.cpp:425] inception_4e/output <- inception_4e/1x1
I0403 17:09:06.003635 20498 net.cpp:425] inception_4e/output <- inception_4e/3x3
I0403 17:09:06.003651 20498 net.cpp:425] inception_4e/output <- inception_4e/5x5
I0403 17:09:06.003667 20498 net.cpp:425] inception_4e/output <- inception_4e/pool_proj
I0403 17:09:06.003684 20498 net.cpp:399] inception_4e/output -> inception_4e/output
I0403 17:09:06.003733 20498 net.cpp:141] Setting up inception_4e/output
I0403 17:09:06.003757 20498 net.cpp:148] Top shape: 24 832 14 14 (3913728)
I0403 17:09:06.003772 20498 net.cpp:156] Memory required for data: 1272557088
I0403 17:09:06.003785 20498 layer_factory.hpp:77] Creating layer pool4/3x3_s2
I0403 17:09:06.003803 20498 net.cpp:91] Creating Layer pool4/3x3_s2
I0403 17:09:06.003819 20498 net.cpp:425] pool4/3x3_s2 <- inception_4e/output
I0403 17:09:06.003836 20498 net.cpp:399] pool4/3x3_s2 -> pool4/3x3_s2
I0403 17:09:06.003902 20498 net.cpp:141] Setting up pool4/3x3_s2
I0403 17:09:06.003926 20498 net.cpp:148] Top shape: 24 832 7 7 (978432)
I0403 17:09:06.003940 20498 net.cpp:156] Memory required for data: 1276470816
I0403 17:09:06.003954 20498 layer_factory.hpp:77] Creating layer pool4/3x3_s2_pool4/3x3_s2_0_split
I0403 17:09:06.003970 20498 net.cpp:91] Creating Layer pool4/3x3_s2_pool4/3x3_s2_0_split
I0403 17:09:06.003985 20498 net.cpp:425] pool4/3x3_s2_pool4/3x3_s2_0_split <- pool4/3x3_s2
I0403 17:09:06.004004 20498 net.cpp:399] pool4/3x3_s2_pool4/3x3_s2_0_split -> pool4/3x3_s2_pool4/3x3_s2_0_split_0
I0403 17:09:06.004024 20498 net.cpp:399] pool4/3x3_s2_pool4/3x3_s2_0_split -> pool4/3x3_s2_pool4/3x3_s2_0_split_1
I0403 17:09:06.004043 20498 net.cpp:399] pool4/3x3_s2_pool4/3x3_s2_0_split -> pool4/3x3_s2_pool4/3x3_s2_0_split_2
I0403 17:09:06.004063 20498 net.cpp:399] pool4/3x3_s2_pool4/3x3_s2_0_split -> pool4/3x3_s2_pool4/3x3_s2_0_split_3
I0403 17:09:06.004151 20498 net.cpp:141] Setting up pool4/3x3_s2_pool4/3x3_s2_0_split
I0403 17:09:06.004176 20498 net.cpp:148] Top shape: 24 832 7 7 (978432)
I0403 17:09:06.004194 20498 net.cpp:148] Top shape: 24 832 7 7 (978432)
I0403 17:09:06.004209 20498 net.cpp:148] Top shape: 24 832 7 7 (978432)
I0403 17:09:06.004225 20498 net.cpp:148] Top shape: 24 832 7 7 (978432)
I0403 17:09:06.004237 20498 net.cpp:156] Memory required for data: 1292125728
I0403 17:09:06.004251 20498 layer_factory.hpp:77] Creating layer inception_5a/1x1
I0403 17:09:06.004273 20498 net.cpp:91] Creating Layer inception_5a/1x1
I0403 17:09:06.004290 20498 net.cpp:425] inception_5a/1x1 <- pool4/3x3_s2_pool4/3x3_s2_0_split_0
I0403 17:09:06.004308 20498 net.cpp:399] inception_5a/1x1 -> inception_5a/1x1
I0403 17:09:06.007088 20498 net.cpp:141] Setting up inception_5a/1x1
I0403 17:09:06.007119 20498 net.cpp:148] Top shape: 24 256 7 7 (301056)
I0403 17:09:06.007135 20498 net.cpp:156] Memory required for data: 1293329952
I0403 17:09:06.007153 20498 layer_factory.hpp:77] Creating layer inception_5a/relu_1x1
I0403 17:09:06.007169 20498 net.cpp:91] Creating Layer inception_5a/relu_1x1
I0403 17:09:06.007185 20498 net.cpp:425] inception_5a/relu_1x1 <- inception_5a/1x1
I0403 17:09:06.007205 20498 net.cpp:386] inception_5a/relu_1x1 -> inception_5a/1x1 (in-place)
I0403 17:09:06.007509 20498 net.cpp:141] Setting up inception_5a/relu_1x1
I0403 17:09:06.007537 20498 net.cpp:148] Top shape: 24 256 7 7 (301056)
I0403 17:09:06.007553 20498 net.cpp:156] Memory required for data: 1294534176
I0403 17:09:06.007567 20498 layer_factory.hpp:77] Creating layer inception_5a/3x3_reduce
I0403 17:09:06.007588 20498 net.cpp:91] Creating Layer inception_5a/3x3_reduce
I0403 17:09:06.007611 20498 net.cpp:425] inception_5a/3x3_reduce <- pool4/3x3_s2_pool4/3x3_s2_0_split_1
I0403 17:09:06.007630 20498 net.cpp:399] inception_5a/3x3_reduce -> inception_5a/3x3_reduce
I0403 17:09:06.010031 20498 net.cpp:141] Setting up inception_5a/3x3_reduce
I0403 17:09:06.010059 20498 net.cpp:148] Top shape: 24 160 7 7 (188160)
I0403 17:09:06.010074 20498 net.cpp:156] Memory required for data: 1295286816
I0403 17:09:06.010092 20498 layer_factory.hpp:77] Creating layer inception_5a/relu_3x3_reduce
I0403 17:09:06.010113 20498 net.cpp:91] Creating Layer inception_5a/relu_3x3_reduce
I0403 17:09:06.010128 20498 net.cpp:425] inception_5a/relu_3x3_reduce <- inception_5a/3x3_reduce
I0403 17:09:06.010145 20498 net.cpp:386] inception_5a/relu_3x3_reduce -> inception_5a/3x3_reduce (in-place)
I0403 17:09:06.010329 20498 net.cpp:141] Setting up inception_5a/relu_3x3_reduce
I0403 17:09:06.010354 20498 net.cpp:148] Top shape: 24 160 7 7 (188160)
I0403 17:09:06.010370 20498 net.cpp:156] Memory required for data: 1296039456
I0403 17:09:06.010383 20498 layer_factory.hpp:77] Creating layer inception_5a/3x3
I0403 17:09:06.010408 20498 net.cpp:91] Creating Layer inception_5a/3x3
I0403 17:09:06.010426 20498 net.cpp:425] inception_5a/3x3 <- inception_5a/3x3_reduce
I0403 17:09:06.010443 20498 net.cpp:399] inception_5a/3x3 -> inception_5a/3x3
I0403 17:09:06.015359 20498 net.cpp:141] Setting up inception_5a/3x3
I0403 17:09:06.015390 20498 net.cpp:148] Top shape: 24 320 7 7 (376320)
I0403 17:09:06.015408 20498 net.cpp:156] Memory required for data: 1297544736
I0403 17:09:06.015425 20498 layer_factory.hpp:77] Creating layer inception_5a/relu_3x3
I0403 17:09:06.015442 20498 net.cpp:91] Creating Layer inception_5a/relu_3x3
I0403 17:09:06.015458 20498 net.cpp:425] inception_5a/relu_3x3 <- inception_5a/3x3
I0403 17:09:06.015475 20498 net.cpp:386] inception_5a/relu_3x3 -> inception_5a/3x3 (in-place)
I0403 17:09:06.015764 20498 net.cpp:141] Setting up inception_5a/relu_3x3
I0403 17:09:06.015792 20498 net.cpp:148] Top shape: 24 320 7 7 (376320)
I0403 17:09:06.015808 20498 net.cpp:156] Memory required for data: 1299050016
I0403 17:09:06.015823 20498 layer_factory.hpp:77] Creating layer inception_5a/5x5_reduce
I0403 17:09:06.015844 20498 net.cpp:91] Creating Layer inception_5a/5x5_reduce
I0403 17:09:06.015862 20498 net.cpp:425] inception_5a/5x5_reduce <- pool4/3x3_s2_pool4/3x3_s2_0_split_2
I0403 17:09:06.015880 20498 net.cpp:399] inception_5a/5x5_reduce -> inception_5a/5x5_reduce
I0403 17:09:06.017027 20498 net.cpp:141] Setting up inception_5a/5x5_reduce
I0403 17:09:06.017057 20498 net.cpp:148] Top shape: 24 32 7 7 (37632)
I0403 17:09:06.017073 20498 net.cpp:156] Memory required for data: 1299200544
I0403 17:09:06.017091 20498 layer_factory.hpp:77] Creating layer inception_5a/relu_5x5_reduce
I0403 17:09:06.017108 20498 net.cpp:91] Creating Layer inception_5a/relu_5x5_reduce
I0403 17:09:06.017124 20498 net.cpp:425] inception_5a/relu_5x5_reduce <- inception_5a/5x5_reduce
I0403 17:09:06.017143 20498 net.cpp:386] inception_5a/relu_5x5_reduce -> inception_5a/5x5_reduce (in-place)
I0403 17:09:06.017436 20498 net.cpp:141] Setting up inception_5a/relu_5x5_reduce
I0403 17:09:06.017462 20498 net.cpp:148] Top shape: 24 32 7 7 (37632)
I0403 17:09:06.017475 20498 net.cpp:156] Memory required for data: 1299351072
I0403 17:09:06.017490 20498 layer_factory.hpp:77] Creating layer inception_5a/5x5
I0403 17:09:06.017511 20498 net.cpp:91] Creating Layer inception_5a/5x5
I0403 17:09:06.017529 20498 net.cpp:425] inception_5a/5x5 <- inception_5a/5x5_reduce
I0403 17:09:06.017550 20498 net.cpp:399] inception_5a/5x5 -> inception_5a/5x5
I0403 17:09:06.019230 20498 net.cpp:141] Setting up inception_5a/5x5
I0403 17:09:06.019271 20498 net.cpp:148] Top shape: 24 128 7 7 (150528)
I0403 17:09:06.019289 20498 net.cpp:156] Memory required for data: 1299953184
I0403 17:09:06.019305 20498 layer_factory.hpp:77] Creating layer inception_5a/relu_5x5
I0403 17:09:06.019322 20498 net.cpp:91] Creating Layer inception_5a/relu_5x5
I0403 17:09:06.019338 20498 net.cpp:425] inception_5a/relu_5x5 <- inception_5a/5x5
I0403 17:09:06.019356 20498 net.cpp:386] inception_5a/relu_5x5 -> inception_5a/5x5 (in-place)
I0403 17:09:06.019546 20498 net.cpp:141] Setting up inception_5a/relu_5x5
I0403 17:09:06.019570 20498 net.cpp:148] Top shape: 24 128 7 7 (150528)
I0403 17:09:06.019584 20498 net.cpp:156] Memory required for data: 1300555296
I0403 17:09:06.019598 20498 layer_factory.hpp:77] Creating layer inception_5a/pool
I0403 17:09:06.019632 20498 net.cpp:91] Creating Layer inception_5a/pool
I0403 17:09:06.019661 20498 net.cpp:425] inception_5a/pool <- pool4/3x3_s2_pool4/3x3_s2_0_split_3
I0403 17:09:06.019681 20498 net.cpp:399] inception_5a/pool -> inception_5a/pool
I0403 17:09:06.019752 20498 net.cpp:141] Setting up inception_5a/pool
I0403 17:09:06.019781 20498 net.cpp:148] Top shape: 24 832 7 7 (978432)
I0403 17:09:06.019796 20498 net.cpp:156] Memory required for data: 1304469024
I0403 17:09:06.019810 20498 layer_factory.hpp:77] Creating layer inception_5a/pool_proj
I0403 17:09:06.019831 20498 net.cpp:91] Creating Layer inception_5a/pool_proj
I0403 17:09:06.019850 20498 net.cpp:425] inception_5a/pool_proj <- inception_5a/pool
I0403 17:09:06.019867 20498 net.cpp:399] inception_5a/pool_proj -> inception_5a/pool_proj
I0403 17:09:06.022140 20498 net.cpp:141] Setting up inception_5a/pool_proj
I0403 17:09:06.022169 20498 net.cpp:148] Top shape: 24 128 7 7 (150528)
I0403 17:09:06.022184 20498 net.cpp:156] Memory required for data: 1305071136
I0403 17:09:06.022202 20498 layer_factory.hpp:77] Creating layer inception_5a/relu_pool_proj
I0403 17:09:06.022222 20498 net.cpp:91] Creating Layer inception_5a/relu_pool_proj
I0403 17:09:06.022238 20498 net.cpp:425] inception_5a/relu_pool_proj <- inception_5a/pool_proj
I0403 17:09:06.022255 20498 net.cpp:386] inception_5a/relu_pool_proj -> inception_5a/pool_proj (in-place)
I0403 17:09:06.022550 20498 net.cpp:141] Setting up inception_5a/relu_pool_proj
I0403 17:09:06.022577 20498 net.cpp:148] Top shape: 24 128 7 7 (150528)
I0403 17:09:06.022591 20498 net.cpp:156] Memory required for data: 1305673248
I0403 17:09:06.022610 20498 layer_factory.hpp:77] Creating layer inception_5a/output
I0403 17:09:06.022630 20498 net.cpp:91] Creating Layer inception_5a/output
I0403 17:09:06.022647 20498 net.cpp:425] inception_5a/output <- inception_5a/1x1
I0403 17:09:06.022665 20498 net.cpp:425] inception_5a/output <- inception_5a/3x3
I0403 17:09:06.022680 20498 net.cpp:425] inception_5a/output <- inception_5a/5x5
I0403 17:09:06.022696 20498 net.cpp:425] inception_5a/output <- inception_5a/pool_proj
I0403 17:09:06.022712 20498 net.cpp:399] inception_5a/output -> inception_5a/output
I0403 17:09:06.022763 20498 net.cpp:141] Setting up inception_5a/output
I0403 17:09:06.022786 20498 net.cpp:148] Top shape: 24 832 7 7 (978432)
I0403 17:09:06.022800 20498 net.cpp:156] Memory required for data: 1309586976
I0403 17:09:06.022815 20498 layer_factory.hpp:77] Creating layer inception_5a/output_inception_5a/output_0_split
I0403 17:09:06.022831 20498 net.cpp:91] Creating Layer inception_5a/output_inception_5a/output_0_split
I0403 17:09:06.022846 20498 net.cpp:425] inception_5a/output_inception_5a/output_0_split <- inception_5a/output
I0403 17:09:06.022866 20498 net.cpp:399] inception_5a/output_inception_5a/output_0_split -> inception_5a/output_inception_5a/output_0_split_0
I0403 17:09:06.022886 20498 net.cpp:399] inception_5a/output_inception_5a/output_0_split -> inception_5a/output_inception_5a/output_0_split_1
I0403 17:09:06.022907 20498 net.cpp:399] inception_5a/output_inception_5a/output_0_split -> inception_5a/output_inception_5a/output_0_split_2
I0403 17:09:06.022927 20498 net.cpp:399] inception_5a/output_inception_5a/output_0_split -> inception_5a/output_inception_5a/output_0_split_3
I0403 17:09:06.023037 20498 net.cpp:141] Setting up inception_5a/output_inception_5a/output_0_split
I0403 17:09:06.023061 20498 net.cpp:148] Top shape: 24 832 7 7 (978432)
I0403 17:09:06.023077 20498 net.cpp:148] Top shape: 24 832 7 7 (978432)
I0403 17:09:06.023092 20498 net.cpp:148] Top shape: 24 832 7 7 (978432)
I0403 17:09:06.023108 20498 net.cpp:148] Top shape: 24 832 7 7 (978432)
I0403 17:09:06.023120 20498 net.cpp:156] Memory required for data: 1325241888
I0403 17:09:06.023134 20498 layer_factory.hpp:77] Creating layer inception_5b/1x1
I0403 17:09:06.023155 20498 net.cpp:91] Creating Layer inception_5b/1x1
I0403 17:09:06.023174 20498 net.cpp:425] inception_5b/1x1 <- inception_5a/output_inception_5a/output_0_split_0
I0403 17:09:06.023193 20498 net.cpp:399] inception_5b/1x1 -> inception_5b/1x1
I0403 17:09:06.026912 20498 net.cpp:141] Setting up inception_5b/1x1
I0403 17:09:06.026942 20498 net.cpp:148] Top shape: 24 384 7 7 (451584)
I0403 17:09:06.026958 20498 net.cpp:156] Memory required for data: 1327048224
I0403 17:09:06.026976 20498 layer_factory.hpp:77] Creating layer inception_5b/relu_1x1
I0403 17:09:06.026996 20498 net.cpp:91] Creating Layer inception_5b/relu_1x1
I0403 17:09:06.027014 20498 net.cpp:425] inception_5b/relu_1x1 <- inception_5b/1x1
I0403 17:09:06.027031 20498 net.cpp:386] inception_5b/relu_1x1 -> inception_5b/1x1 (in-place)
I0403 17:09:06.027336 20498 net.cpp:141] Setting up inception_5b/relu_1x1
I0403 17:09:06.027362 20498 net.cpp:148] Top shape: 24 384 7 7 (451584)
I0403 17:09:06.027377 20498 net.cpp:156] Memory required for data: 1328854560
I0403 17:09:06.027391 20498 layer_factory.hpp:77] Creating layer inception_5b/3x3_reduce
I0403 17:09:06.027413 20498 net.cpp:91] Creating Layer inception_5b/3x3_reduce
I0403 17:09:06.027431 20498 net.cpp:425] inception_5b/3x3_reduce <- inception_5a/output_inception_5a/output_0_split_1
I0403 17:09:06.027451 20498 net.cpp:399] inception_5b/3x3_reduce -> inception_5b/3x3_reduce
I0403 17:09:06.030109 20498 net.cpp:141] Setting up inception_5b/3x3_reduce
I0403 17:09:06.030138 20498 net.cpp:148] Top shape: 24 192 7 7 (225792)
I0403 17:09:06.030154 20498 net.cpp:156] Memory required for data: 1329757728
I0403 17:09:06.030172 20498 layer_factory.hpp:77] Creating layer inception_5b/relu_3x3_reduce
I0403 17:09:06.030191 20498 net.cpp:91] Creating Layer inception_5b/relu_3x3_reduce
I0403 17:09:06.030210 20498 net.cpp:425] inception_5b/relu_3x3_reduce <- inception_5b/3x3_reduce
I0403 17:09:06.030226 20498 net.cpp:386] inception_5b/relu_3x3_reduce -> inception_5b/3x3_reduce (in-place)
I0403 17:09:06.030413 20498 net.cpp:141] Setting up inception_5b/relu_3x3_reduce
I0403 17:09:06.030439 20498 net.cpp:148] Top shape: 24 192 7 7 (225792)
I0403 17:09:06.030454 20498 net.cpp:156] Memory required for data: 1330660896
I0403 17:09:06.030468 20498 layer_factory.hpp:77] Creating layer inception_5b/3x3
I0403 17:09:06.030503 20498 net.cpp:91] Creating Layer inception_5b/3x3
I0403 17:09:06.030524 20498 net.cpp:425] inception_5b/3x3 <- inception_5b/3x3_reduce
I0403 17:09:06.030546 20498 net.cpp:399] inception_5b/3x3 -> inception_5b/3x3
I0403 17:09:06.037240 20498 net.cpp:141] Setting up inception_5b/3x3
I0403 17:09:06.037268 20498 net.cpp:148] Top shape: 24 384 7 7 (451584)
I0403 17:09:06.037284 20498 net.cpp:156] Memory required for data: 1332467232
I0403 17:09:06.037303 20498 layer_factory.hpp:77] Creating layer inception_5b/relu_3x3
I0403 17:09:06.037323 20498 net.cpp:91] Creating Layer inception_5b/relu_3x3
I0403 17:09:06.037341 20498 net.cpp:425] inception_5b/relu_3x3 <- inception_5b/3x3
I0403 17:09:06.037369 20498 net.cpp:386] inception_5b/relu_3x3 -> inception_5b/3x3 (in-place)
I0403 17:09:06.037683 20498 net.cpp:141] Setting up inception_5b/relu_3x3
I0403 17:09:06.037708 20498 net.cpp:148] Top shape: 24 384 7 7 (451584)
I0403 17:09:06.037722 20498 net.cpp:156] Memory required for data: 1334273568
I0403 17:09:06.037736 20498 layer_factory.hpp:77] Creating layer inception_5b/5x5_reduce
I0403 17:09:06.037776 20498 net.cpp:91] Creating Layer inception_5b/5x5_reduce
I0403 17:09:06.037796 20498 net.cpp:425] inception_5b/5x5_reduce <- inception_5a/output_inception_5a/output_0_split_2
I0403 17:09:06.037814 20498 net.cpp:399] inception_5b/5x5_reduce -> inception_5b/5x5_reduce
I0403 17:09:06.039059 20498 net.cpp:141] Setting up inception_5b/5x5_reduce
I0403 17:09:06.039088 20498 net.cpp:148] Top shape: 24 48 7 7 (56448)
I0403 17:09:06.039104 20498 net.cpp:156] Memory required for data: 1334499360
I0403 17:09:06.039121 20498 layer_factory.hpp:77] Creating layer inception_5b/relu_5x5_reduce
I0403 17:09:06.039139 20498 net.cpp:91] Creating Layer inception_5b/relu_5x5_reduce
I0403 17:09:06.039155 20498 net.cpp:425] inception_5b/relu_5x5_reduce <- inception_5b/5x5_reduce
I0403 17:09:06.039172 20498 net.cpp:386] inception_5b/relu_5x5_reduce -> inception_5b/5x5_reduce (in-place)
I0403 17:09:06.039540 20498 net.cpp:141] Setting up inception_5b/relu_5x5_reduce
I0403 17:09:06.039566 20498 net.cpp:148] Top shape: 24 48 7 7 (56448)
I0403 17:09:06.039582 20498 net.cpp:156] Memory required for data: 1334725152
I0403 17:09:06.039595 20498 layer_factory.hpp:77] Creating layer inception_5b/5x5
I0403 17:09:06.039620 20498 net.cpp:91] Creating Layer inception_5b/5x5
I0403 17:09:06.039638 20498 net.cpp:425] inception_5b/5x5 <- inception_5b/5x5_reduce
I0403 17:09:06.039656 20498 net.cpp:399] inception_5b/5x5 -> inception_5b/5x5
I0403 17:09:06.041702 20498 net.cpp:141] Setting up inception_5b/5x5
I0403 17:09:06.041730 20498 net.cpp:148] Top shape: 24 128 7 7 (150528)
I0403 17:09:06.041746 20498 net.cpp:156] Memory required for data: 1335327264
I0403 17:09:06.041764 20498 layer_factory.hpp:77] Creating layer inception_5b/relu_5x5
I0403 17:09:06.041781 20498 net.cpp:91] Creating Layer inception_5b/relu_5x5
I0403 17:09:06.041810 20498 net.cpp:425] inception_5b/relu_5x5 <- inception_5b/5x5
I0403 17:09:06.041829 20498 net.cpp:386] inception_5b/relu_5x5 -> inception_5b/5x5 (in-place)
I0403 17:09:06.042026 20498 net.cpp:141] Setting up inception_5b/relu_5x5
I0403 17:09:06.042052 20498 net.cpp:148] Top shape: 24 128 7 7 (150528)
I0403 17:09:06.042067 20498 net.cpp:156] Memory required for data: 1335929376
I0403 17:09:06.042081 20498 layer_factory.hpp:77] Creating layer inception_5b/pool
I0403 17:09:06.042111 20498 net.cpp:91] Creating Layer inception_5b/pool
I0403 17:09:06.042127 20498 net.cpp:425] inception_5b/pool <- inception_5a/output_inception_5a/output_0_split_3
I0403 17:09:06.042147 20498 net.cpp:399] inception_5b/pool -> inception_5b/pool
I0403 17:09:06.042217 20498 net.cpp:141] Setting up inception_5b/pool
I0403 17:09:06.042242 20498 net.cpp:148] Top shape: 24 832 7 7 (978432)
I0403 17:09:06.042255 20498 net.cpp:156] Memory required for data: 1339843104
I0403 17:09:06.042269 20498 layer_factory.hpp:77] Creating layer inception_5b/pool_proj
I0403 17:09:06.042295 20498 net.cpp:91] Creating Layer inception_5b/pool_proj
I0403 17:09:06.042312 20498 net.cpp:425] inception_5b/pool_proj <- inception_5b/pool
I0403 17:09:06.042330 20498 net.cpp:399] inception_5b/pool_proj -> inception_5b/pool_proj
I0403 17:09:06.044620 20498 net.cpp:141] Setting up inception_5b/pool_proj
I0403 17:09:06.044652 20498 net.cpp:148] Top shape: 24 128 7 7 (150528)
I0403 17:09:06.044668 20498 net.cpp:156] Memory required for data: 1340445216
I0403 17:09:06.044685 20498 layer_factory.hpp:77] Creating layer inception_5b/relu_pool_proj
I0403 17:09:06.044703 20498 net.cpp:91] Creating Layer inception_5b/relu_pool_proj
I0403 17:09:06.044719 20498 net.cpp:425] inception_5b/relu_pool_proj <- inception_5b/pool_proj
I0403 17:09:06.044736 20498 net.cpp:386] inception_5b/relu_pool_proj -> inception_5b/pool_proj (in-place)
I0403 17:09:06.045028 20498 net.cpp:141] Setting up inception_5b/relu_pool_proj
I0403 17:09:06.045056 20498 net.cpp:148] Top shape: 24 128 7 7 (150528)
I0403 17:09:06.045071 20498 net.cpp:156] Memory required for data: 1341047328
I0403 17:09:06.045086 20498 layer_factory.hpp:77] Creating layer inception_5b/output
I0403 17:09:06.045104 20498 net.cpp:91] Creating Layer inception_5b/output
I0403 17:09:06.045132 20498 net.cpp:425] inception_5b/output <- inception_5b/1x1
I0403 17:09:06.045150 20498 net.cpp:425] inception_5b/output <- inception_5b/3x3
I0403 17:09:06.045166 20498 net.cpp:425] inception_5b/output <- inception_5b/5x5
I0403 17:09:06.045182 20498 net.cpp:425] inception_5b/output <- inception_5b/pool_proj
I0403 17:09:06.045198 20498 net.cpp:399] inception_5b/output -> inception_5b/output
I0403 17:09:06.045250 20498 net.cpp:141] Setting up inception_5b/output
I0403 17:09:06.045274 20498 net.cpp:148] Top shape: 24 1024 7 7 (1204224)
I0403 17:09:06.045289 20498 net.cpp:156] Memory required for data: 1345864224
I0403 17:09:06.045302 20498 layer_factory.hpp:77] Creating layer pool5/7x7_s1
I0403 17:09:06.045320 20498 net.cpp:91] Creating Layer pool5/7x7_s1
I0403 17:09:06.045336 20498 net.cpp:425] pool5/7x7_s1 <- inception_5b/output
I0403 17:09:06.045354 20498 net.cpp:399] pool5/7x7_s1 -> pool5/7x7_s1
I0403 17:09:06.045565 20498 net.cpp:141] Setting up pool5/7x7_s1
I0403 17:09:06.045595 20498 net.cpp:148] Top shape: 24 1024 1 1 (24576)
I0403 17:09:06.045615 20498 net.cpp:156] Memory required for data: 1345962528
I0403 17:09:06.045629 20498 layer_factory.hpp:77] Creating layer pool5/drop_7x7_s1
I0403 17:09:06.045646 20498 net.cpp:91] Creating Layer pool5/drop_7x7_s1
I0403 17:09:06.045661 20498 net.cpp:425] pool5/drop_7x7_s1 <- pool5/7x7_s1
I0403 17:09:06.045678 20498 net.cpp:386] pool5/drop_7x7_s1 -> pool5/7x7_s1 (in-place)
I0403 17:09:06.045729 20498 net.cpp:141] Setting up pool5/drop_7x7_s1
I0403 17:09:06.045753 20498 net.cpp:148] Top shape: 24 1024 1 1 (24576)
I0403 17:09:06.045766 20498 net.cpp:156] Memory required for data: 1346060832
I0403 17:09:06.045780 20498 layer_factory.hpp:77] Creating layer loss3/classifier_plantvillage
I0403 17:09:06.045800 20498 net.cpp:91] Creating Layer loss3/classifier_plantvillage
I0403 17:09:06.045817 20498 net.cpp:425] loss3/classifier_plantvillage <- pool5/7x7_s1
I0403 17:09:06.045835 20498 net.cpp:399] loss3/classifier_plantvillage -> loss3/classifier_plantvillage
I0403 17:09:06.046252 20498 net.cpp:141] Setting up loss3/classifier_plantvillage
I0403 17:09:06.046275 20498 net.cpp:148] Top shape: 24 38 (912)
I0403 17:09:06.046289 20498 net.cpp:156] Memory required for data: 1346064480
I0403 17:09:06.046308 20498 layer_factory.hpp:77] Creating layer loss3/classifier_plantvillage_loss3/classifier_plantvillage_0_split
I0403 17:09:06.046324 20498 net.cpp:91] Creating Layer loss3/classifier_plantvillage_loss3/classifier_plantvillage_0_split
I0403 17:09:06.046340 20498 net.cpp:425] loss3/classifier_plantvillage_loss3/classifier_plantvillage_0_split <- loss3/classifier_plantvillage
I0403 17:09:06.046360 20498 net.cpp:399] loss3/classifier_plantvillage_loss3/classifier_plantvillage_0_split -> loss3/classifier_plantvillage_loss3/classifier_plantvillage_0_split_0
I0403 17:09:06.046380 20498 net.cpp:399] loss3/classifier_plantvillage_loss3/classifier_plantvillage_0_split -> loss3/classifier_plantvillage_loss3/classifier_plantvillage_0_split_1
I0403 17:09:06.046401 20498 net.cpp:399] loss3/classifier_plantvillage_loss3/classifier_plantvillage_0_split -> loss3/classifier_plantvillage_loss3/classifier_plantvillage_0_split_2
I0403 17:09:06.046419 20498 net.cpp:399] loss3/classifier_plantvillage_loss3/classifier_plantvillage_0_split -> loss3/classifier_plantvillage_loss3/classifier_plantvillage_0_split_3
I0403 17:09:06.046520 20498 net.cpp:141] Setting up loss3/classifier_plantvillage_loss3/classifier_plantvillage_0_split
I0403 17:09:06.046545 20498 net.cpp:148] Top shape: 24 38 (912)
I0403 17:09:06.046560 20498 net.cpp:148] Top shape: 24 38 (912)
I0403 17:09:06.046576 20498 net.cpp:148] Top shape: 24 38 (912)
I0403 17:09:06.046591 20498 net.cpp:148] Top shape: 24 38 (912)
I0403 17:09:06.046607 20498 net.cpp:156] Memory required for data: 1346079072
I0403 17:09:06.046622 20498 layer_factory.hpp:77] Creating layer loss1/loss
I0403 17:09:06.046643 20498 net.cpp:91] Creating Layer loss1/loss
I0403 17:09:06.046659 20498 net.cpp:425] loss1/loss <- loss1/classifier_plantvillage_loss1/classifier_plantvillage_0_split_0
I0403 17:09:06.046689 20498 net.cpp:425] loss1/loss <- label_data_1_split_0
…
