…
I0403 16:14:45.463209 17555 net.cpp:313] The NetState phase (1) differed from the phase (0) specified by a rule in layer data
I0403 16:14:45.465240 17555 net.cpp:49] Initializing net from parameters: 
state {
  phase: TEST
}
layer {
  name: "data"
  type: "Data"
  top: "data"
  top: "label"
  include {
    phase: TEST
  }
  transform_param {
    mirror: false
    crop_size: 224
    mean_file: "/home/mohanty/data/final_dataset/lmdb/color-20-80/mean.binaryproto"
  }
  data_param {
    source: "/home/mohanty/data/final_dataset/lmdb/color-20-80/test_db"
    batch_size: 24
    backend: LMDB
  }
}
layer {
  name: "conv1/7x7_s2"
  type: "Convolution"
  bottom: "data"
  top: "conv1/7x7_s2"
  param {
    lr_mult: 1
    decay_mult: 1
  }
  param {
    lr_mult: 2
    decay_mult: 0
  }
  convolution_param {
    num_output: 64
    pad: 3
    kernel_size: 7
    stride: 2
    weight_filler {
      type: "xavier"
      std: 0.1
    }
    bias_filler {
      type: "constant"
      value: 0.2
    }
  }
}
layer {
  name: "conv1/relu_7x7"
  type: "ReLU"
  bottom: "conv1/7x7_s2"
  top: "conv1/7x7_s2"
}
layer {
  name: "pool1/3x3_s2"
  type: "Pooling"
  bottom: "conv1/7x7_s2"
  top: "pool1/3x3_s2"
  pooling_param {
    pool: MAX
    kernel_size: 3
    stride: 2
  }
}
layer {
  name: "pool1/norm1"
  type: "LRN"
  bottom: "pool1/3x3_s2"
  top: "pool1/norm1"
  lrn_param {
    local_size: 5
    alpha: 0.0001
    beta: 0.75
  }
}
layer {
  name: "conv2/3x3_reduce"
  type: "Convolution"
  bottom: "pool1/norm1"
  top: "conv2/3x3_reduce"
  param {
    lr_mult: 1
    decay_mult: 1
  }
  param {
    lr_mult: 2
    decay_mult: 0
  }
  convolution_param {
    num_output: 64
    kernel_size: 1
    weight_filler {
      type: "xavier"
      std: 0.1
    }
    bias_filler {
      type: "constant"
      value: 0.2
    }
  }
}
layer {
  name: "conv2/relu_3x3_reduce"
  type: "ReLU"
  bottom: "conv2/3x3_reduce"
  top: "conv2/3x3_reduce"
}
layer {
  name: "conv2/3x3"
  type: "Convolution"
  bottom: "conv2/3x3_reduce"
  top: "conv2/3x3"
  param {
    lr_mult: 1
    decay_mult: 1
  }
  param {
    lr_mult: 2
    decay_mult: 0
  }
  convolution_param {
    num_output: 192
    pad: 1
    kernel_size: 3
    weight_filler {
      type: "xavier"
      std: 0.03
    }
    bias_filler {
      type: "constant"
      value: 0.2
    }
  }
}
layer {
  name: "conv2/relu_3x3"
  type: "ReLU"
  bottom: "conv2/3x3"
  top: "conv2/3x3"
}
layer {
  name: "conv2/norm2"
  type: "LRN"
  bottom: "conv2/3x3"
  top: "conv2/norm2"
  lrn_param {
    local_size: 5
    alpha: 0.0001
    beta: 0.75
  }
}
layer {
  name: "pool2/3x3_s2"
  type: "Pooling"
  bottom: "conv2/norm2"
  top: "pool2/3x3_s2"
  pooling_param {
    pool: MAX
    kernel_size: 3
    stride: 2
  }
}
layer {
  name: "inception_3a/1x1"
  type: "Convolution"
  bottom: "pool2/3x3_s2"
  top: "inception_3a/1x1"
  param {
    lr_mult: 1
    decay_mult: 1
  }
  param {
    lr_mult: 2
    decay_mult: 0
  }
  convolution_param {
    num_output: 64
    kernel_size: 1
    weight_filler {
      type: "xavier"
      std: 0.03
    }
    bias_filler {
      type: "constant"
      value: 0.2
    }
  }
}
layer {
  name: "inception_3a/relu_1x1"
  type: "ReLU"
  bottom: "inception_3a/1x1"
  top: "inception_3a/1x1"
}
layer {
  name: "inception_3a/3x3_reduce"
  type: "Convolution"
  bottom: "pool2/3x3_s2"
  top: "inception_3a/3x3_reduce"
  param {
    lr_mult: 1
    decay_mult: 1
  }
  param {
    lr_mult: 2
    decay_mult: 0
  }
  convolution_param {
    num_output: 96
    kernel_size: 1
    weight_filler {
      type: "xavier"
      std: 0.09
    }
    bias_filler {
      type: "constant"
      value: 0.2
    }
  }
}
layer {
  name: "inception_3a/relu_3x3_reduce"
  type: "ReLU"
  bottom: "inception_3a/3x3_reduce"
  top: "inception_3a/3x3_reduce"
}
layer {
  name: "inception_3a/3x3"
  type: "Convolution"
  bottom: "inception_3a/3x3_reduce"
  top: "inception_3a/3x3"
  param {
    lr_mult: 1
    decay_mult: 1
  }
  param {
    lr_mult: 2
    decay_mult: 0
  }
  convolution_param {
    num_output: 128
    pad: 1
    kernel_size: 3
    weight_filler {
      type: "xavier"
      std: 0.03
    }
    bias_filler {
      type: "constant"
      value: 0.2
    }
  }
}
layer {
  name: "inception_3a/relu_3x3"
  type: "ReLU"
  bottom: "inception_3a/3x3"
  top: "inception_3a/3x3"
}
layer {
  name: "inception_3a/5x5_reduce"
  type: "Convolution"
  bottom: "pool2/3x3_s2"
  top: "inception_3a/5x5_reduce"
  param {
    lr_mult: 1
    decay_mult: 1
  }
  param {
    lr_mult: 2
    decay_mult: 0
  }
  convolution_param {
    num_output: 16
    kernel_size: 1
    weight_filler {
      type: "xavier"
      std: 0.2
    }
    bias_filler {
      type: "constant"
      value: 0.2
    }
  }
}
layer {
  name: "inception_3a/relu_5x5_reduce"
  type: "ReLU"
  bottom: "inception_3a/5x5_reduce"
  top: "inception_3a/5x5_reduce"
}
layer {
  name: "inception_3a/5x5"
  type: "Convolution"
  bottom: "inception_3a/5x5_reduce"
  top: "inception_3a/5x5"
  param {
    lr_mult: 1
    decay_mult: 1
  }
  param {
    lr_mult: 2
    decay_mult: 0
  }
  convolution_param {
    num_output: 32
    pad: 2
    kernel_size: 5
    weight_filler {
      type: "xavier"
      std: 0.03
    }
    bias_filler {
      type: "constant"
      value: 0.2
    }
  }
}
layer {
  name: "inception_3a/relu_5x5"
  type: "ReLU"
  bottom: "inception_3a/5x5"
  top: "inception_3a/5x5"
}
layer {
  name: "inception_3a/pool"
  type: "Pooling"
  bottom: "pool2/3x3_s2"
  top: "inception_3a/pool"
  pooling_param {
    pool: MAX
    kernel_size: 3
    stride: 1
    pad: 1
  }
}
layer {
  name: "inception_3a/pool_proj"
  type: "Convolution"
  bottom: "inception_3a/pool"
  top: "inception_3a/pool_proj"
  param {
    lr_mult: 1
    decay_mult: 1
  }
  param {
    lr_mult: 2
    decay_mult: 0
  }
  convolution_param {
    num_output: 32
    kernel_size: 1
    weight_filler {
      type: "xavier"
      std: 0.1
    }
    bias_filler {
      type: "constant"
      value: 0.2
    }
  }
}
layer {
  name: "inception_3a/relu_pool_proj"
  type: "ReLU"
  bottom: "inception_3a/pool_proj"
  top: "inception_3a/pool_proj"
}
layer {
  name: "inception_3a/output"
  type: "Concat"
  bottom: "inception_3a/1x1"
  bottom: "inception_3a/3x3"
  bottom: "inception_3a/5x5"
  bottom: "inception_3a/pool_proj"
  top: "inception_3a/output"
}
layer {
  name: "inception_3b/1x1"
  type: "Convolution"
  bottom: "inception_3a/output"
  top: "inception_3b/1x1"
  param {
    lr_mult: 1
    decay_mult: 1
  }
  param {
    lr_mult: 2
    decay_mult: 0
  }
  convolution_param {
    num_output: 128
    kernel_size: 1
    weight_filler {
      type: "xavier"
      std: 0.03
    }
    bias_filler {
      type: "constant"
      value: 0.2
    }
  }
}
layer {
  name: "inception_3b/relu_1x1"
  type: "ReLU"
  bottom: "inception_3b/1x1"
  top: "inception_3b/1x1"
}
layer {
  name: "inception_3b/3x3_reduce"
  type: "Convolution"
  bottom: "inception_3a/output"
  top: "inception_3b/3x3_reduce"
  param {
    lr_mult: 1
    decay_mult: 1
  }
  param {
    lr_mult: 2
    decay_mult: 0
  }
  convolution_param {
    num_output: 128
    kernel_size: 1
    weight_filler {
      type: "xavier"
      std: 0.09
    }
    bias_filler {
      type: "constant"
      value: 0.2
    }
  }
}
layer {
  name: "inception_3b/relu_3x3_reduce"
  type: "ReLU"
  bottom: "inception_3b/3x3_reduce"
  top: "inception_3b/3x3_reduce"
}
layer {
  name: "inception_3b/3x3"
  type: "Convolution"
  bottom: "inception_3b/3x3_reduce"
  top: "inception_3b/3x3"
  param {
    lr_mult: 1
    decay_mult: 1
  }
  param {
    lr_mult: 2
    decay_mult: 0
  }
  convolution_param {
    num_output: 192
    pad: 1
    kernel_size: 3
    weight_filler {
      type: "xavier"
      std: 0.03
    }
    bias_filler {
      type: "constant"
      value: 0.2
    }
  }
}
layer {
  name: "inception_3b/relu_3x3"
  type: "ReLU"
  bottom: "inception_3b/3x3"
  top: "inception_3b/3x3"
}
layer {
  name: "inception_3b/5x5_reduce"
  type: "Convolution"
  bottom: "inception_3a/output"
  top: "inception_3b/5x5_reduce"
  param {
    lr_mult: 1
    decay_mult: 1
  }
  param {
    lr_mult: 2
    decay_mult: 0
  }
  convolution_param {
    num_output: 32
    kernel_size: 1
    weight_filler {
      type: "xavier"
      std: 0.2
    }
    bias_filler {
      type: "constant"
      value: 0.2
    }
  }
}
layer {
  name: "inception_3b/relu_5x5_reduce"
  type: "ReLU"
  bottom: "inception_3b/5x5_reduce"
  top: "inception_3b/5x5_reduce"
}
layer {
  name: "inception_3b/5x5"
  type: "Convolution"
  bottom: "inception_3b/5x5_reduce"
  top: "inception_3b/5x5"
  param {
    lr_mult: 1
    decay_mult: 1
  }
  param {
    lr_mult: 2
    decay_mult: 0
  }
  convolution_param {
    num_output: 96
    pad: 2
    kernel_size: 5
    weight_filler {
      type: "xavier"
      std: 0.03
    }
    bias_filler {
      type: "constant"
      value: 0.2
    }
  }
}
layer {
  name: "inception_3b/relu_5x5"
  type: "ReLU"
  bottom: "inception_3b/5x5"
  top: "inception_3b/5x5"
}
layer {
  name: "inception_3b/pool"
  type: "Pooling"
  bottom: "inception_3a/output"
  top: "inception_3b/pool"
  pooling_param {
    pool: MAX
    kernel_size: 3
    stride: 1
    pad: 1
  }
}
layer {
  name: "inception_3b/pool_proj"
  type: "Convolution"
  bottom: "inception_3b/pool"
  top: "inception_3b/pool_proj"
  param {
    lr_mult: 1
    decay_mult: 1
  }
  param {
    lr_mult: 2
    decay_mult: 0
  }
  convolution_param {
    num_output: 64
    kernel_size: 1
    weight_filler {
      type: "xavier"
      std: 0.1
    }
    bias_filler {
      type: "constant"
      value: 0.2
    }
  }
}
layer {
  name: "inception_3b/relu_pool_proj"
  type: "ReLU"
  bottom: "inception_3b/pool_proj"
  top: "inception_3b/pool_proj"
}
layer {
  name: "inception_3b/output"
  type: "Concat"
  bottom: "inception_3b/1x1"
  bottom: "inception_3b/3x3"
  bottom: "inception_3b/5x5"
  bottom: "inception_3b/pool_proj"
  top: "inception_3b/output"
}
layer {
  name: "pool3/3x3_s2"
  type: "Pooling"
  bottom: "inception_3b/output"
  top: "pool3/3x3_s2"
  pooling_param {
    pool: MAX
    kernel_size: 3
    stride: 2
  }
}
layer {
  name: "inception_4a/1x1"
  type: "Convolution"
  bottom: "pool3/3x3_s2"
  top: "inception_4a/1x1"
  param {
    lr_mult: 1
    decay_mult: 1
  }
  param {
    lr_mult: 2
    decay_mult: 0
  }
  convolution_param {
    num_output: 192
    kernel_size: 1
    weight_filler {
      type: "xavier"
      std: 0.03
    }
    bias_filler {
      type: "constant"
      value: 0.2
    }
  }
}
layer {
  name: "inception_4a/relu_1x1"
  type: "ReLU"
  bottom: "inception_4a/1x1"
  top: "inception_4a/1x1"
}
layer {
  name: "inception_4a/3x3_reduce"
  type: "Convolution"
  bottom: "pool3/3x3_s2"
  top: "inception_4a/3x3_reduce"
  param {
    lr_mult: 1
    decay_mult: 1
  }
  param {
    lr_mult: 2
    decay_mult: 0
  }
  convolution_param {
    num_output: 96
    kernel_size: 1
    weight_filler {
      type: "xavier"
      std: 0.09
    }
    bias_filler {
      type: "constant"
      value: 0.2
    }
  }
}
layer {
  name: "inception_4a/relu_3x3_reduce"
  type: "ReLU"
  bottom: "inception_4a/3x3_reduce"
  top: "inception_4a/3x3_reduce"
}
layer {
  name: "inception_4a/3x3"
  type: "Convolution"
  bottom: "inception_4a/3x3_reduce"
  top: "inception_4a/3x3"
  param {
    lr_mult: 1
    decay_mult: 1
  }
  param {
    lr_mult: 2
    decay_mult: 0
  }
  convolution_param {
    num_output: 208
    pad: 1
    kernel_size: 3
    weight_filler {
      type: "xavier"
      std: 0.03
    }
    bias_filler {
      type: "constant"
      value: 0.2
    }
  }
}
layer {
  name: "inception_4a/relu_3x3"
  type: "ReLU"
  bottom: "inception_4a/3x3"
  top: "inception_4a/3x3"
}
layer {
  name: "inception_4a/5x5_reduce"
  type: "Convolution"
  bottom: "pool3/3x3_s2"
  top: "inception_4a/5x5_reduce"
  param {
    lr_mult: 1
    decay_mult: 1
  }
  param {
    lr_mult: 2
    decay_mult: 0
  }
  convolution_param {
    num_output: 16
    kernel_size: 1
    weight_filler {
      type: "xavier"
      std: 0.2
    }
    bias_filler {
      type: "constant"
      value: 0.2
    }
  }
}
layer {
  name: "inception_4a/relu_5x5_reduce"
  type: "ReLU"
  bottom: "inception_4a/5x5_reduce"
  top: "inception_4a/5x5_reduce"
}
layer {
  name: "inception_4a/5x5"
  type: "Convolution"
  bottom: "inception_4a/5x5_reduce"
  top: "inception_4a/5x5"
  param {
    lr_mult: 1
    decay_mult: 1
  }
  param {
    lr_mult: 2
    decay_mult: 0
  }
  convolution_param {
    num_output: 48
    pad: 2
    kernel_size: 5
    weight_filler {
      type: "xavier"
      std: 0.03
    }
    bias_filler {
      type: "constant"
      value: 0.2
    }
  }
}
layer {
  name: "inception_4a/relu_5x5"
  type: "ReLU"
  bottom: "inception_4a/5x5"
  top: "inception_4a/5x5"
}
layer {
  name: "inception_4a/pool"
  type: "Pooling"
  bottom: "pool3/3x3_s2"
  top: "inception_4a/pool"
  pooling_param {
    pool: MAX
    kernel_size: 3
    stride: 1
    pad: 1
  }
}
layer {
  name: "inception_4a/pool_proj"
  type: "Convolution"
  bottom: "inception_4a/pool"
  top: "inception_4a/pool_proj"
  param {
    lr_mult: 1
    decay_mult: 1
  }
  param {
    lr_mult: 2
    decay_mult: 0
  }
  convolution_param {
    num_output: 64
    kernel_size: 1
    weight_filler {
      type: "xavier"
      std: 0.1
    }
    bias_filler {
      type: "constant"
      value: 0.2
    }
  }
}
layer {
  name: "inception_4a/relu_pool_proj"
  type: "ReLU"
  bottom: "inception_4a/pool_proj"
  top: "inception_4a/pool_proj"
}
layer {
  name: "inception_4a/output"
  type: "Concat"
  bottom: "inception_4a/1x1"
  bottom: "inception_4a/3x3"
  bottom: "inception_4a/5x5"
  bottom: "inception_4a/pool_proj"
  top: "inception_4a/output"
}
layer {
  name: "loss1/ave_pool"
  type: "Pooling"
  bottom: "inception_4a/output"
  top: "loss1/ave_pool"
  pooling_param {
    pool: AVE
    kernel_size: 5
    stride: 3
  }
}
layer {
  name: "loss1/conv"
  type: "Convolution"
  bottom: "loss1/ave_pool"
  top: "loss1/conv"
  param {
    lr_mult: 1
    decay_mult: 1
  }
  param {
    lr_mult: 2
    decay_mult: 0
  }
  convolution_param {
    num_output: 128
    kernel_size: 1
    weight_filler {
      type: "xavier"
      std: 0.08
    }
    bias_filler {
      type: "constant"
      value: 0.2
    }
  }
}
layer {
  name: "loss1/relu_conv"
  type: "ReLU"
  bottom: "loss1/conv"
  top: "loss1/conv"
}
layer {
  name: "loss1/fc"
  type: "InnerProduct"
  bottom: "loss1/conv"
  top: "loss1/fc"
  param {
    lr_mult: 1
    decay_mult: 1
  }
  param {
    lr_mult: 2
    decay_mult: 0
  }
  inner_product_param {
    num_output: 1024
    weight_filler {
      type: "xavier"
      std: 0.02
    }
    bias_filler {
      type: "constant"
      value: 0.2
    }
  }
}
layer {
  name: "loss1/relu_fc"
  type: "ReLU"
  bottom: "loss1/fc"
  top: "loss1/fc"
}
layer {
  name: "loss1/drop_fc"
  type: "Dropout"
  bottom: "loss1/fc"
  top: "loss1/fc"
  dropout_param {
    dropout_ratio: 0.7
  }
}
layer {
  name: "loss1/classifier_plantvillage"
  type: "InnerProduct"
  bottom: "loss1/fc"
  top: "loss1/classifier_plantvillage"
  param {
    lr_mult: 1
    decay_mult: 1
  }
  param {
    lr_mult: 2
    decay_mult: 0
  }
  inner_product_param {
    num_output: 38
    weight_filler {
      type: "xavier"
      std: 0.0009765625
    }
    bias_filler {
      type: "constant"
      value: 0
    }
  }
}
layer {
  name: "inception_4b/1x1"
  type: "Convolution"
  bottom: "inception_4a/output"
  top: "inception_4b/1x1"
  param {
    lr_mult: 1
    decay_mult: 1
  }
  param {
    lr_mult: 2
    decay_mult: 0
  }
  convolution_param {
    num_output: 160
    kernel_size: 1
    weight_filler {
      type: "xavier"
      std: 0.03
    }
    bias_filler {
      type: "constant"
      value: 0.2
    }
  }
}
layer {
  name: "inception_4b/relu_1x1"
  type: "ReLU"
  bottom: "inception_4b/1x1"
  top: "inception_4b/1x1"
}
layer {
  name: "inception_4b/3x3_reduce"
  type: "Convolution"
  bottom: "inception_4a/output"
  top: "inception_4b/3x3_reduce"
  param {
    lr_mult: 1
    decay_mult: 1
  }
  param {
    lr_mult: 2
    decay_mult: 0
  }
  convolution_param {
    num_output: 112
    kernel_size: 1
    weight_filler {
      type: "xavier"
      std: 0.09
    }
    bias_filler {
      type: "constant"
      value: 0.2
    }
  }
}
layer {
  name: "inception_4b/relu_3x3_reduce"
  type: "ReLU"
  bottom: "inception_4b/3x3_reduce"
  top: "inception_4b/3x3_reduce"
}
layer {
  name: "inception_4b/3x3"
  type: "Convolution"
  bottom: "inception_4b/3x3_reduce"
  top: "inception_4b/3x3"
  param {
    lr_mult: 1
    decay_mult: 1
  }
  param {
    lr_mult: 2
    decay_mult: 0
  }
  convolution_param {
    num_output: 224
    pad: 1
    kernel_size: 3
    weight_filler {
      type: "xavier"
      std: 0.03
    }
    bias_filler {
      type: "constant"
      value: 0.2
    }
  }
}
layer {
  name: "inception_4b/relu_3x3"
  type: "ReLU"
  bottom: "inception_4b/3x3"
  top: "inception_4b/3x3"
}
layer {
  name: "inception_4b/5x5_reduce"
  type: "Convolution"
  bottom: "inception_4a/output"
  top: "inception_4b/5x5_reduce"
  param {
    lr_mult: 1
    decay_mult: 1
  }
  param {
    lr_mult: 2
    decay_mult: 0
  }
  convolution_param {
    num_output: 24
    kernel_size: 1
    weight_filler {
      type: "xavier"
      std: 0.2
    }
    bias_filler {
      type: "constant"
      value: 0.2
    }
  }
}
layer {
  name: "inception_4b/relu_5x5_reduce"
  type: "ReLU"
  bottom: "inception_4b/5x5_reduce"
  top: "inception_4b/5x5_reduce"
}
layer {
  name: "inception_4b/5x5"
  type: "Convolution"
  bottom: "inception_4b/5x5_reduce"
  top: "inception_4b/5x5"
  param {
    lr_mult: 1
    decay_mult: 1
  }
  param {
    lr_mult: 2
    decay_mult: 0
  }
  convolution_param {
    num_output: 64
    pad: 2
    kernel_size: 5
    weight_filler {
      type: "xavier"
      std: 0.03
    }
    bias_filler {
      type: "constant"
      value: 0.2
    }
  }
}
layer {
  name: "inception_4b/relu_5x5"
  type: "ReLU"
  bottom: "inception_4b/5x5"
  top: "inception_4b/5x5"
}
layer {
  name: "inception_4b/pool"
  type: "Pooling"
  bottom: "inception_4a/output"
  top: "inception_4b/pool"
  pooling_param {
    pool: MAX
    kernel_size: 3
    stride: 1
    pad: 1
  }
}
layer {
  name: "inception_4b/pool_proj"
  type: "Convolution"
  bottom: "inception_4b/pool"
  top: "inception_4b/pool_proj"
  param {
    lr_mult: 1
    decay_mult: 1
  }
  param {
    lr_mult: 2
    decay_mult: 0
  }
  convolution_param {
    num_output: 64
    kernel_size: 1
    weight_filler {
      type: "xavier"
      std: 0.1
    }
    bias_filler {
      type: "constant"
      value: 0.2
    }
  }
}
layer {
  name: "inception_4b/relu_pool_proj"
  type: "ReLU"
  bottom: "inception_4b/pool_proj"
  top: "inception_4b/pool_proj"
}
layer {
  name: "inception_4b/output"
  type: "Concat"
  bottom: "inception_4b/1x1"
  bottom: "inception_4b/3x3"
  bottom: "inception_4b/5x5"
  bottom: "inception_4b/pool_proj"
  top: "inception_4b/output"
}
layer {
  name: "inception_4c/1x1"
  type: "Convolution"
  bottom: "inception_4b/output"
  top: "inception_4c/1x1"
  param {
    lr_mult: 1
    decay_mult: 1
  }
  param {
    lr_mult: 2
    decay_mult: 0
  }
  convolution_param {
    num_output: 128
    kernel_size: 1
    weight_filler {
      type: "xavier"
      std: 0.03
    }
    bias_filler {
      type: "constant"
      value: 0.2
    }
  }
}
layer {
  name: "inception_4c/relu_1x1"
  type: "ReLU"
  bottom: "inception_4c/1x1"
  top: "inception_4c/1x1"
}
layer {
  name: "inception_4c/3x3_reduce"
  type: "Convolution"
  bottom: "inception_4b/output"
  top: "inception_4c/3x3_reduce"
  param {
    lr_mult: 1
    decay_mult: 1
  }
  param {
    lr_mult: 2
    decay_mult: 0
  }
  convolution_param {
    num_output: 128
    kernel_size: 1
    weight_filler {
      type: "xavier"
      std: 0.09
    }
    bias_filler {
      type: "constant"
      value: 0.2
    }
  }
}
layer {
  name: "inception_4c/relu_3x3_reduce"
  type: "ReLU"
  bottom: "inception_4c/3x3_reduce"
  top: "inception_4c/3x3_reduce"
}
layer {
  name: "inception_4c/3x3"
  type: "Convolution"
  bottom: "inception_4c/3x3_reduce"
  top: "inception_4c/3x3"
  param {
    lr_mult: 1
    decay_mult: 1
  }
  param {
    lr_mult: 2
    decay_mult: 0
  }
  convolution_param {
    num_output: 256
    pad: 1
    kernel_size: 3
    weight_filler {
      type: "xavier"
      std: 0.03
    }
    bias_filler {
      type: "constant"
      value: 0.2
    }
  }
}
layer {
  name: "inception_4c/relu_3x3"
  type: "ReLU"
  bottom: "inception_4c/3x3"
  top: "inception_4c/3x3"
}
layer {
  name: "inception_4c/5x5_reduce"
  type: "Convolution"
  bottom: "inception_4b/output"
  top: "inception_4c/5x5_reduce"
  param {
    lr_mult: 1
    decay_mult: 1
  }
  param {
    lr_mult: 2
    decay_mult: 0
  }
  convolution_param {
    num_output: 24
    kernel_size: 1
    weight_filler {
      type: "xavier"
      std: 0.2
    }
    bias_filler {
      type: "constant"
      value: 0.2
    }
  }
}
layer {
  name: "inception_4c/relu_5x5_reduce"
  type: "ReLU"
  bottom: "inception_4c/5x5_reduce"
  top: "inception_4c/5x5_reduce"
}
layer {
  name: "inception_4c/5x5"
  type: "Convolution"
  bottom: "inception_4c/5x5_reduce"
  top: "inception_4c/5x5"
  param {
    lr_mult: 1
    decay_mult: 1
  }
  param {
    lr_mult: 2
    decay_mult: 0
  }
  convolution_param {
    num_output: 64
    pad: 2
    kernel_size: 5
    weight_filler {
      type: "xavier"
      std: 0.03
    }
    bias_filler {
      type: "constant"
      value: 0.2
    }
  }
}
layer {
  name: "inception_4c/relu_5x5"
  type: "ReLU"
  bottom: "inception_4c/5x5"
  top: "inception_4c/5x5"
}
layer {
  name: "inception_4c/pool"
  type: "Pooling"
  bottom: "inception_4b/output"
  top: "inception_4c/pool"
  pooling_param {
    pool: MAX
    kernel_size: 3
    stride: 1
    pad: 1
  }
}
layer {
  name: "inception_4c/pool_proj"
  type: "Convolution"
  bottom: "inception_4c/pool"
  top: "inception_4c/pool_proj"
  param {
    lr_mult: 1
    decay_mult: 1
  }
  param {
    lr_mult: 2
    decay_mult: 0
  }
  convolution_param {
    num_output: 64
    kernel_size: 1
    weight_filler {
      type: "xavier"
      std: 0.1
    }
    bias_filler {
      type: "constant"
      value: 0.2
    }
  }
}
layer {
  name: "inception_4c/relu_pool_proj"
  type: "ReLU"
  bottom: "inception_4c/pool_proj"
  top: "inception_4c/pool_proj"
}
layer {
  name: "inception_4c/output"
  type: "Concat"
  bottom: "inception_4c/1x1"
  bottom: "inception_4c/3x3"
  bottom: "inception_4c/5x5"
  bottom: "inception_4c/pool_proj"
  top: "inception_4c/output"
}
layer {
  name: "inception_4d/1x1"
  type: "Convolution"
  bottom: "inception_4c/output"
  top: "inception_4d/1x1"
  param {
    lr_mult: 1
    decay_mult: 1
  }
  param {
    lr_mult: 2
    decay_mult: 0
  }
  convolution_param {
    num_output: 112
    kernel_size: 1
    weight_filler {
      type: "xavier"
      std: 0.03
    }
    bias_filler {
      type: "constant"
      value: 0.2
    }
  }
}
layer {
  name: "inception_4d/relu_1x1"
  type: "ReLU"
  bottom: "inception_4d/1x1"
  top: "inception_4d/1x1"
}
layer {
  name: "inception_4d/3x3_reduce"
  type: "Convolution"
  bottom: "inception_4c/output"
  top: "inception_4d/3x3_reduce"
  param {
    lr_mult: 1
    decay_mult: 1
  }
  param {
    lr_mult: 2
    decay_mult: 0
  }
  convolution_param {
    num_output: 144
    kernel_size: 1
    weight_filler {
      type: "xavier"
      std: 0.09
    }
    bias_filler {
      type: "constant"
      value: 0.2
    }
  }
}
layer {
  name: "inception_4d/relu_3x3_reduce"
  type: "ReLU"
  bottom: "inception_4d/3x3_reduce"
  top: "inception_4d/3x3_reduce"
}
layer {
  name: "inception_4d/3x3"
  type: "Convolution"
  bottom: "inception_4d/3x3_reduce"
  top: "inception_4d/3x3"
  param {
    lr_mult: 1
    decay_mult: 1
  }
  param {
    lr_mult: 2
    decay_mult: 0
  }
  convolution_param {
    num_output: 288
    pad: 1
    kernel_size: 3
    weight_filler {
      type: "xavier"
      std: 0.03
    }
    bias_filler {
      type: "constant"
      value: 0.2
    }
  }
}
layer {
  name: "inception_4d/relu_3x3"
  type: "ReLU"
  bottom: "inception_4d/3x3"
  top: "inception_4d/3x3"
}
layer {
  name: "inception_4d/5x5_reduce"
  type: "Convolution"
  bottom: "inception_4c/output"
  top: "inception_4d/5x5_reduce"
  param {
    lr_mult: 1
    decay_mult: 1
  }
  param {
    lr_mult: 2
    decay_mult: 0
  }
  convolution_param {
    num_output: 32
    kernel_size: 1
    weight_filler {
      type: "xavier"
      std: 0.2
    }
    bias_filler {
      type: "constant"
      value: 0.2
    }
  }
}
layer {
  name: "inception_4d/relu_5x5_reduce"
  type: "ReLU"
  bottom: "inception_4d/5x5_reduce"
  top: "inception_4d/5x5_reduce"
}
layer {
  name: "inception_4d/5x5"
  type: "Convolution"
  bottom: "inception_4d/5x5_reduce"
  top: "inception_4d/5x5"
  param {
    lr_mult: 1
    decay_mult: 1
  }
  param {
    lr_mult: 2
    decay_mult: 0
  }
  convolution_param {
    num_output: 64
    pad: 2
    kernel_size: 5
    weight_filler {
      type: "xavier"
      std: 0.03
    }
    bias_filler {
      type: "constant"
      value: 0.2
    }
  }
}
layer {
  name: "inception_4d/relu_5x5"
  type: "ReLU"
  bottom: "inception_4d/5x5"
  top: "inception_4d/5x5"
}
layer {
  name: "inception_4d/pool"
  type: "Pooling"
  bottom: "inception_4c/output"
  top: "inception_4d/pool"
  pooling_param {
    pool: MAX
    kernel_size: 3
    stride: 1
    pad: 1
  }
}
layer {
  name: "inception_4d/pool_proj"
  type: "Convolution"
  bottom: "inception_4d/pool"
  top: "inception_4d/pool_proj"
  param {
    lr_mult: 1
    decay_mult: 1
  }
  param {
    lr_mult: 2
    decay_mult: 0
  }
  convolution_param {
    num_output: 64
    kernel_size: 1
    weight_filler {
      type: "xavier"
      std: 0.1
    }
    bias_filler {
      type: "constant"
      value: 0.2
    }
  }
}
layer {
  name: "inception_4d/relu_pool_proj"
  type: "ReLU"
  bottom: "inception_4d/pool_proj"
  top: "inception_4d/pool_proj"
}
layer {
  name: "inception_4d/output"
  type: "Concat"
  bottom: "inception_4d/1x1"
  bottom: "inception_4d/3x3"
  bottom: "inception_4d/5x5"
  bottom: "inception_4d/pool_proj"
  top: "inception_4d/output"
}
layer {
  name: "loss2/ave_pool"
  type: "Pooling"
  bottom: "inception_4d/output"
  top: "loss2/ave_pool"
  pooling_param {
    pool: AVE
    kernel_size: 5
    stride: 3
  }
}
layer {
  name: "loss2/conv"
  type: "Convolution"
  bottom: "loss2/ave_pool"
  top: "loss2/conv"
  param {
    lr_mult: 1
    decay_mult: 1
  }
  param {
    lr_mult: 2
    decay_mult: 0
  }
  convolution_param {
    num_output: 128
    kernel_size: 1
    weight_filler {
      type: "xavier"
      std: 0.08
    }
    bias_filler {
      type: "constant"
      value: 0.2
    }
  }
}
layer {
  name: "loss2/relu_conv"
  type: "ReLU"
  bottom: "loss2/conv"
  top: "loss2/conv"
}
layer {
  name: "loss2/fc"
  type: "InnerProduct"
  bottom: "loss2/conv"
  top: "loss2/fc"
  param {
    lr_mult: 1
    decay_mult: 1
  }
  param {
    lr_mult: 2
    decay_mult: 0
  }
  inner_product_param {
    num_output: 1024
    weight_filler {
      type: "xavier"
      std: 0.02
    }
    bias_filler {
      type: "constant"
      value: 0.2
    }
  }
}
layer {
  name: "loss2/relu_fc"
  type: "ReLU"
  bottom: "loss2/fc"
  top: "loss2/fc"
}
layer {
  name: "loss2/drop_fc"
  type: "Dropout"
  bottom: "loss2/fc"
  top: "loss2/fc"
  dropout_param {
    dropout_ratio: 0.7
  }
}
layer {
  name: "loss2/classifier_plantvillage"
  type: "InnerProduct"
  bottom: "loss2/fc"
  top: "loss2/classifier_plantvillage"
  param {
    lr_mult: 1
    decay_mult: 1
  }
  param {
    lr_mult: 2
    decay_mult: 0
  }
  inner_product_param {
    num_output: 38
    weight_filler {
      type: "xavier"
      std: 0.0009765625
    }
    bias_filler {
      type: "constant"
      value: 0
    }
  }
}
layer {
  name: "inception_4e/1x1"
  type: "Convolution"
  bottom: "inception_4d/output"
  top: "inception_4e/1x1"
  param {
    lr_mult: 1
    decay_mult: 1
  }
  param {
    lr_mult: 2
    decay_mult: 0
  }
  convolution_param {
    num_output: 256
    kernel_size: 1
    weight_filler {
      type: "xavier"
      std: 0.03
    }
    bias_filler {
      type: "constant"
      value: 0.2
    }
  }
}
layer {
  name: "inception_4e/relu_1x1"
  type: "ReLU"
  bottom: "inception_4e/1x1"
  top: "inception_4e/1x1"
}
layer {
  name: "inception_4e/3x3_reduce"
  type: "Convolution"
  bottom: "inception_4d/output"
  top: "inception_4e/3x3_reduce"
  param {
    lr_mult: 1
    decay_mult: 1
  }
  param {
    lr_mult: 2
    decay_mult: 0
  }
  convolution_param {
    num_output: 160
    kernel_size: 1
    weight_filler {
      type: "xavier"
      std: 0.09
    }
    bias_filler {
      type: "constant"
      value: 0.2
    }
  }
}
layer {
  name: "inception_4e/relu_3x3_reduce"
  type: "ReLU"
  bottom: "inception_4e/3x3_reduce"
  top: "inception_4e/3x3_reduce"
}
layer {
  name: "inception_4e/3x3"
  type: "Convolution"
  bottom: "inception_4e/3x3_reduce"
  top: "inception_4e/3x3"
  param {
    lr_mult: 1
    decay_mult: 1
  }
  param {
    lr_mult: 2
    decay_mult: 0
  }
  convolution_param {
    num_output: 320
    pad: 1
    kernel_size: 3
    weight_filler {
      type: "xavier"
      std: 0.03
    }
    bias_filler {
      type: "constant"
      value: 0.2
    }
  }
}
layer {
  name: "inception_4e/relu_3x3"
  type: "ReLU"
  bottom: "inception_4e/3x3"
  top: "inception_4e/3x3"
}
layer {
  name: "inception_4e/5x5_reduce"
  type: "Convolution"
  bottom: "inception_4d/output"
  top: "inception_4e/5x5_reduce"
  param {
    lr_mult: 1
    decay_mult: 1
  }
  param {
    lr_mult: 2
    decay_mult: 0
  }
  convolution_param {
    num_output: 32
    kernel_size: 1
    weight_filler {
      type: "xavier"
      std: 0.2
    }
    bias_filler {
      type: "constant"
      value: 0.2
    }
  }
}
layer {
  name: "inception_4e/relu_5x5_reduce"
  type: "ReLU"
  bottom: "inception_4e/5x5_reduce"
  top: "inception_4e/5x5_reduce"
}
layer {
  name: "inception_4e/5x5"
  type: "Convolution"
  bottom: "inception_4e/5x5_reduce"
  top: "inception_4e/5x5"
  p
I0403 16:14:45.466557 17555 layer_factory.hpp:77] Creating layer data
I0403 16:14:45.467154 17555 net.cpp:91] Creating Layer data
I0403 16:14:45.467187 17555 net.cpp:399] data -> data
I0403 16:14:45.467241 17555 net.cpp:399] data -> label
I0403 16:14:45.467278 17555 data_transformer.cpp:25] Loading mean file from: /home/mohanty/data/final_dataset/lmdb/color-20-80/mean.binaryproto
I0403 16:14:45.469008 17558 db_lmdb.cpp:38] Opened lmdb /home/mohanty/data/final_dataset/lmdb/color-20-80/test_db
I0403 16:14:45.480936 17555 data_layer.cpp:41] output data size: 24,3,224,224
I0403 16:14:45.508162 17555 net.cpp:141] Setting up data
I0403 16:14:45.508237 17555 net.cpp:148] Top shape: 24 3 224 224 (3612672)
I0403 16:14:45.508262 17555 net.cpp:148] Top shape: 24 (24)
I0403 16:14:45.508278 17555 net.cpp:156] Memory required for data: 14450784
I0403 16:14:45.508306 17555 layer_factory.hpp:77] Creating layer label_data_1_split
I0403 16:14:45.508334 17555 net.cpp:91] Creating Layer label_data_1_split
I0403 16:14:45.508354 17555 net.cpp:425] label_data_1_split <- label
I0403 16:14:45.508388 17555 net.cpp:399] label_data_1_split -> label_data_1_split_0
I0403 16:14:45.508419 17555 net.cpp:399] label_data_1_split -> label_data_1_split_1
I0403 16:14:45.508441 17555 net.cpp:399] label_data_1_split -> label_data_1_split_2
I0403 16:14:45.508465 17555 net.cpp:399] label_data_1_split -> label_data_1_split_3
I0403 16:14:45.508486 17555 net.cpp:399] label_data_1_split -> label_data_1_split_4
I0403 16:14:45.508508 17555 net.cpp:399] label_data_1_split -> label_data_1_split_5
I0403 16:14:45.508528 17555 net.cpp:399] label_data_1_split -> label_data_1_split_6
I0403 16:14:45.508549 17555 net.cpp:399] label_data_1_split -> label_data_1_split_7
I0403 16:14:45.508569 17555 net.cpp:399] label_data_1_split -> label_data_1_split_8
I0403 16:14:45.508591 17555 net.cpp:399] label_data_1_split -> label_data_1_split_9
I0403 16:14:45.508747 17555 net.cpp:141] Setting up label_data_1_split
I0403 16:14:45.508774 17555 net.cpp:148] Top shape: 24 (24)
I0403 16:14:45.508792 17555 net.cpp:148] Top shape: 24 (24)
I0403 16:14:45.508811 17555 net.cpp:148] Top shape: 24 (24)
I0403 16:14:45.508829 17555 net.cpp:148] Top shape: 24 (24)
I0403 16:14:45.508847 17555 net.cpp:148] Top shape: 24 (24)
I0403 16:14:45.508865 17555 net.cpp:148] Top shape: 24 (24)
I0403 16:14:45.508883 17555 net.cpp:148] Top shape: 24 (24)
I0403 16:14:45.508901 17555 net.cpp:148] Top shape: 24 (24)
I0403 16:14:45.508919 17555 net.cpp:148] Top shape: 24 (24)
I0403 16:14:45.508947 17555 net.cpp:148] Top shape: 24 (24)
I0403 16:14:45.508992 17555 net.cpp:156] Memory required for data: 14451744
I0403 16:14:45.509011 17555 layer_factory.hpp:77] Creating layer conv1/7x7_s2
I0403 16:14:45.509044 17555 net.cpp:91] Creating Layer conv1/7x7_s2
I0403 16:14:45.509063 17555 net.cpp:425] conv1/7x7_s2 <- data
I0403 16:14:45.509083 17555 net.cpp:399] conv1/7x7_s2 -> conv1/7x7_s2
I0403 16:14:45.649271 17555 net.cpp:141] Setting up conv1/7x7_s2
I0403 16:14:45.649346 17555 net.cpp:148] Top shape: 24 64 112 112 (19267584)
I0403 16:14:45.649366 17555 net.cpp:156] Memory required for data: 91522080
I0403 16:14:45.649397 17555 layer_factory.hpp:77] Creating layer conv1/relu_7x7
I0403 16:14:45.649425 17555 net.cpp:91] Creating Layer conv1/relu_7x7
I0403 16:14:45.649446 17555 net.cpp:425] conv1/relu_7x7 <- conv1/7x7_s2
I0403 16:14:45.649466 17555 net.cpp:386] conv1/relu_7x7 -> conv1/7x7_s2 (in-place)
I0403 16:14:45.649725 17555 net.cpp:141] Setting up conv1/relu_7x7
I0403 16:14:45.649754 17555 net.cpp:148] Top shape: 24 64 112 112 (19267584)
I0403 16:14:45.649771 17555 net.cpp:156] Memory required for data: 168592416
I0403 16:14:45.649786 17555 layer_factory.hpp:77] Creating layer pool1/3x3_s2
I0403 16:14:45.649812 17555 net.cpp:91] Creating Layer pool1/3x3_s2
I0403 16:14:45.649832 17555 net.cpp:425] pool1/3x3_s2 <- conv1/7x7_s2
I0403 16:14:45.649850 17555 net.cpp:399] pool1/3x3_s2 -> pool1/3x3_s2
I0403 16:14:45.649926 17555 net.cpp:141] Setting up pool1/3x3_s2
I0403 16:14:45.649951 17555 net.cpp:148] Top shape: 24 64 56 56 (4816896)
I0403 16:14:45.649968 17555 net.cpp:156] Memory required for data: 187860000
I0403 16:14:45.649983 17555 layer_factory.hpp:77] Creating layer pool1/norm1
I0403 16:14:45.650008 17555 net.cpp:91] Creating Layer pool1/norm1
I0403 16:14:45.650027 17555 net.cpp:425] pool1/norm1 <- pool1/3x3_s2
I0403 16:14:45.650046 17555 net.cpp:399] pool1/norm1 -> pool1/norm1
I0403 16:14:45.650328 17555 net.cpp:141] Setting up pool1/norm1
I0403 16:14:45.650357 17555 net.cpp:148] Top shape: 24 64 56 56 (4816896)
I0403 16:14:45.650403 17555 net.cpp:156] Memory required for data: 207127584
I0403 16:14:45.650424 17555 layer_factory.hpp:77] Creating layer conv2/3x3_reduce
I0403 16:14:45.650449 17555 net.cpp:91] Creating Layer conv2/3x3_reduce
I0403 16:14:45.650465 17555 net.cpp:425] conv2/3x3_reduce <- pool1/norm1
I0403 16:14:45.650485 17555 net.cpp:399] conv2/3x3_reduce -> conv2/3x3_reduce
I0403 16:14:45.651792 17555 net.cpp:141] Setting up conv2/3x3_reduce
I0403 16:14:45.651821 17555 net.cpp:148] Top shape: 24 64 56 56 (4816896)
I0403 16:14:45.651839 17555 net.cpp:156] Memory required for data: 226395168
I0403 16:14:45.651860 17555 layer_factory.hpp:77] Creating layer conv2/relu_3x3_reduce
I0403 16:14:45.651880 17555 net.cpp:91] Creating Layer conv2/relu_3x3_reduce
I0403 16:14:45.651896 17555 net.cpp:425] conv2/relu_3x3_reduce <- conv2/3x3_reduce
I0403 16:14:45.651916 17555 net.cpp:386] conv2/relu_3x3_reduce -> conv2/3x3_reduce (in-place)
I0403 16:14:45.652235 17555 net.cpp:141] Setting up conv2/relu_3x3_reduce
I0403 16:14:45.652262 17555 net.cpp:148] Top shape: 24 64 56 56 (4816896)
I0403 16:14:45.652279 17555 net.cpp:156] Memory required for data: 245662752
I0403 16:14:45.652295 17555 layer_factory.hpp:77] Creating layer conv2/3x3
I0403 16:14:45.652319 17555 net.cpp:91] Creating Layer conv2/3x3
I0403 16:14:45.652338 17555 net.cpp:425] conv2/3x3 <- conv2/3x3_reduce
I0403 16:14:45.652357 17555 net.cpp:399] conv2/3x3 -> conv2/3x3
I0403 16:14:45.654536 17555 net.cpp:141] Setting up conv2/3x3
I0403 16:14:45.654568 17555 net.cpp:148] Top shape: 24 192 56 56 (14450688)
I0403 16:14:45.654585 17555 net.cpp:156] Memory required for data: 303465504
I0403 16:14:45.654611 17555 layer_factory.hpp:77] Creating layer conv2/relu_3x3
I0403 16:14:45.654633 17555 net.cpp:91] Creating Layer conv2/relu_3x3
I0403 16:14:45.654651 17555 net.cpp:425] conv2/relu_3x3 <- conv2/3x3
I0403 16:14:45.654670 17555 net.cpp:386] conv2/relu_3x3 -> conv2/3x3 (in-place)
I0403 16:14:45.654829 17555 net.cpp:141] Setting up conv2/relu_3x3
I0403 16:14:45.654855 17555 net.cpp:148] Top shape: 24 192 56 56 (14450688)
I0403 16:14:45.654902 17555 net.cpp:156] Memory required for data: 361268256
I0403 16:14:45.654919 17555 layer_factory.hpp:77] Creating layer conv2/norm2
I0403 16:14:45.654938 17555 net.cpp:91] Creating Layer conv2/norm2
I0403 16:14:45.654958 17555 net.cpp:425] conv2/norm2 <- conv2/3x3
I0403 16:14:45.654976 17555 net.cpp:399] conv2/norm2 -> conv2/norm2
I0403 16:14:45.655261 17555 net.cpp:141] Setting up conv2/norm2
I0403 16:14:45.655287 17555 net.cpp:148] Top shape: 24 192 56 56 (14450688)
I0403 16:14:45.655303 17555 net.cpp:156] Memory required for data: 419071008
I0403 16:14:45.655319 17555 layer_factory.hpp:77] Creating layer pool2/3x3_s2
I0403 16:14:45.655339 17555 net.cpp:91] Creating Layer pool2/3x3_s2
I0403 16:14:45.655356 17555 net.cpp:425] pool2/3x3_s2 <- conv2/norm2
I0403 16:14:45.655375 17555 net.cpp:399] pool2/3x3_s2 -> pool2/3x3_s2
I0403 16:14:45.655424 17555 net.cpp:141] Setting up pool2/3x3_s2
I0403 16:14:45.655448 17555 net.cpp:148] Top shape: 24 192 28 28 (3612672)
I0403 16:14:45.655464 17555 net.cpp:156] Memory required for data: 433521696
I0403 16:14:45.655480 17555 layer_factory.hpp:77] Creating layer pool2/3x3_s2_pool2/3x3_s2_0_split
I0403 16:14:45.655505 17555 net.cpp:91] Creating Layer pool2/3x3_s2_pool2/3x3_s2_0_split
I0403 16:14:45.655522 17555 net.cpp:425] pool2/3x3_s2_pool2/3x3_s2_0_split <- pool2/3x3_s2
I0403 16:14:45.655541 17555 net.cpp:399] pool2/3x3_s2_pool2/3x3_s2_0_split -> pool2/3x3_s2_pool2/3x3_s2_0_split_0
I0403 16:14:45.655561 17555 net.cpp:399] pool2/3x3_s2_pool2/3x3_s2_0_split -> pool2/3x3_s2_pool2/3x3_s2_0_split_1
I0403 16:14:45.655582 17555 net.cpp:399] pool2/3x3_s2_pool2/3x3_s2_0_split -> pool2/3x3_s2_pool2/3x3_s2_0_split_2
I0403 16:14:45.655614 17555 net.cpp:399] pool2/3x3_s2_pool2/3x3_s2_0_split -> pool2/3x3_s2_pool2/3x3_s2_0_split_3
I0403 16:14:45.655685 17555 net.cpp:141] Setting up pool2/3x3_s2_pool2/3x3_s2_0_split
I0403 16:14:45.655709 17555 net.cpp:148] Top shape: 24 192 28 28 (3612672)
I0403 16:14:45.655726 17555 net.cpp:148] Top shape: 24 192 28 28 (3612672)
I0403 16:14:45.655743 17555 net.cpp:148] Top shape: 24 192 28 28 (3612672)
I0403 16:14:45.655761 17555 net.cpp:148] Top shape: 24 192 28 28 (3612672)
I0403 16:14:45.655776 17555 net.cpp:156] Memory required for data: 491324448
I0403 16:14:45.655800 17555 layer_factory.hpp:77] Creating layer inception_3a/1x1
I0403 16:14:45.655820 17555 net.cpp:91] Creating Layer inception_3a/1x1
I0403 16:14:45.655836 17555 net.cpp:425] inception_3a/1x1 <- pool2/3x3_s2_pool2/3x3_s2_0_split_0
I0403 16:14:45.655856 17555 net.cpp:399] inception_3a/1x1 -> inception_3a/1x1
I0403 16:14:45.657348 17555 net.cpp:141] Setting up inception_3a/1x1
I0403 16:14:45.657382 17555 net.cpp:148] Top shape: 24 64 28 28 (1204224)
I0403 16:14:45.657399 17555 net.cpp:156] Memory required for data: 496141344
I0403 16:14:45.657419 17555 layer_factory.hpp:77] Creating layer inception_3a/relu_1x1
I0403 16:14:45.657439 17555 net.cpp:91] Creating Layer inception_3a/relu_1x1
I0403 16:14:45.657456 17555 net.cpp:425] inception_3a/relu_1x1 <- inception_3a/1x1
I0403 16:14:45.657477 17555 net.cpp:386] inception_3a/relu_1x1 -> inception_3a/1x1 (in-place)
I0403 16:14:45.657654 17555 net.cpp:141] Setting up inception_3a/relu_1x1
I0403 16:14:45.657680 17555 net.cpp:148] Top shape: 24 64 28 28 (1204224)
I0403 16:14:45.657696 17555 net.cpp:156] Memory required for data: 500958240
I0403 16:14:45.657711 17555 layer_factory.hpp:77] Creating layer inception_3a/3x3_reduce
I0403 16:14:45.657734 17555 net.cpp:91] Creating Layer inception_3a/3x3_reduce
I0403 16:14:45.657753 17555 net.cpp:425] inception_3a/3x3_reduce <- pool2/3x3_s2_pool2/3x3_s2_0_split_1
I0403 16:14:45.657776 17555 net.cpp:399] inception_3a/3x3_reduce -> inception_3a/3x3_reduce
I0403 16:14:45.659456 17555 net.cpp:141] Setting up inception_3a/3x3_reduce
I0403 16:14:45.659488 17555 net.cpp:148] Top shape: 24 96 28 28 (1806336)
I0403 16:14:45.659505 17555 net.cpp:156] Memory required for data: 508183584
I0403 16:14:45.659528 17555 layer_factory.hpp:77] Creating layer inception_3a/relu_3x3_reduce
I0403 16:14:45.659564 17555 net.cpp:91] Creating Layer inception_3a/relu_3x3_reduce
I0403 16:14:45.659584 17555 net.cpp:425] inception_3a/relu_3x3_reduce <- inception_3a/3x3_reduce
I0403 16:14:45.659608 17555 net.cpp:386] inception_3a/relu_3x3_reduce -> inception_3a/3x3_reduce (in-place)
I0403 16:14:45.659793 17555 net.cpp:141] Setting up inception_3a/relu_3x3_reduce
I0403 16:14:45.659822 17555 net.cpp:148] Top shape: 24 96 28 28 (1806336)
I0403 16:14:45.659839 17555 net.cpp:156] Memory required for data: 515408928
I0403 16:14:45.659854 17555 layer_factory.hpp:77] Creating layer inception_3a/3x3
I0403 16:14:45.659878 17555 net.cpp:91] Creating Layer inception_3a/3x3
I0403 16:14:45.659898 17555 net.cpp:425] inception_3a/3x3 <- inception_3a/3x3_reduce
I0403 16:14:45.659916 17555 net.cpp:399] inception_3a/3x3 -> inception_3a/3x3
I0403 16:14:45.661551 17555 net.cpp:141] Setting up inception_3a/3x3
I0403 16:14:45.661581 17555 net.cpp:148] Top shape: 24 128 28 28 (2408448)
I0403 16:14:45.661597 17555 net.cpp:156] Memory required for data: 525042720
I0403 16:14:45.661623 17555 layer_factory.hpp:77] Creating layer inception_3a/relu_3x3
I0403 16:14:45.661643 17555 net.cpp:91] Creating Layer inception_3a/relu_3x3
I0403 16:14:45.661660 17555 net.cpp:425] inception_3a/relu_3x3 <- inception_3a/3x3
I0403 16:14:45.661681 17555 net.cpp:386] inception_3a/relu_3x3 -> inception_3a/3x3 (in-place)
I0403 16:14:45.661954 17555 net.cpp:141] Setting up inception_3a/relu_3x3
I0403 16:14:45.661983 17555 net.cpp:148] Top shape: 24 128 28 28 (2408448)
I0403 16:14:45.661998 17555 net.cpp:156] Memory required for data: 534676512
I0403 16:14:45.662012 17555 layer_factory.hpp:77] Creating layer inception_3a/5x5_reduce
I0403 16:14:45.662035 17555 net.cpp:91] Creating Layer inception_3a/5x5_reduce
I0403 16:14:45.662055 17555 net.cpp:425] inception_3a/5x5_reduce <- pool2/3x3_s2_pool2/3x3_s2_0_split_2
I0403 16:14:45.662076 17555 net.cpp:399] inception_3a/5x5_reduce -> inception_3a/5x5_reduce
I0403 16:14:45.663053 17555 net.cpp:141] Setting up inception_3a/5x5_reduce
I0403 16:14:45.663094 17555 net.cpp:148] Top shape: 24 16 28 28 (301056)
I0403 16:14:45.663112 17555 net.cpp:156] Memory required for data: 535880736
I0403 16:14:45.663131 17555 layer_factory.hpp:77] Creating layer inception_3a/relu_5x5_reduce
I0403 16:14:45.663153 17555 net.cpp:91] Creating Layer inception_3a/relu_5x5_reduce
I0403 16:14:45.663172 17555 net.cpp:425] inception_3a/relu_5x5_reduce <- inception_3a/5x5_reduce
I0403 16:14:45.663190 17555 net.cpp:386] inception_3a/relu_5x5_reduce -> inception_3a/5x5_reduce (in-place)
I0403 16:14:45.663480 17555 net.cpp:141] Setting up inception_3a/relu_5x5_reduce
I0403 16:14:45.663507 17555 net.cpp:148] Top shape: 24 16 28 28 (301056)
I0403 16:14:45.663523 17555 net.cpp:156] Memory required for data: 537084960
I0403 16:14:45.663538 17555 layer_factory.hpp:77] Creating layer inception_3a/5x5
I0403 16:14:45.663563 17555 net.cpp:91] Creating Layer inception_3a/5x5
I0403 16:14:45.663581 17555 net.cpp:425] inception_3a/5x5 <- inception_3a/5x5_reduce
I0403 16:14:45.663609 17555 net.cpp:399] inception_3a/5x5 -> inception_3a/5x5
I0403 16:14:45.664613 17555 net.cpp:141] Setting up inception_3a/5x5
I0403 16:14:45.664644 17555 net.cpp:148] Top shape: 24 32 28 28 (602112)
I0403 16:14:45.664661 17555 net.cpp:156] Memory required for data: 539493408
I0403 16:14:45.664680 17555 layer_factory.hpp:77] Creating layer inception_3a/relu_5x5
I0403 16:14:45.664698 17555 net.cpp:91] Creating Layer inception_3a/relu_5x5
I0403 16:14:45.664716 17555 net.cpp:425] inception_3a/relu_5x5 <- inception_3a/5x5
I0403 16:14:45.664737 17555 net.cpp:386] inception_3a/relu_5x5 -> inception_3a/5x5 (in-place)
I0403 16:14:45.664909 17555 net.cpp:141] Setting up inception_3a/relu_5x5
I0403 16:14:45.664935 17555 net.cpp:148] Top shape: 24 32 28 28 (602112)
I0403 16:14:45.664952 17555 net.cpp:156] Memory required for data: 541901856
I0403 16:14:45.664966 17555 layer_factory.hpp:77] Creating layer inception_3a/pool
I0403 16:14:45.664985 17555 net.cpp:91] Creating Layer inception_3a/pool
I0403 16:14:45.665002 17555 net.cpp:425] inception_3a/pool <- pool2/3x3_s2_pool2/3x3_s2_0_split_3
I0403 16:14:45.665038 17555 net.cpp:399] inception_3a/pool -> inception_3a/pool
I0403 16:14:45.665097 17555 net.cpp:141] Setting up inception_3a/pool
I0403 16:14:45.665122 17555 net.cpp:148] Top shape: 24 192 28 28 (3612672)
I0403 16:14:45.665138 17555 net.cpp:156] Memory required for data: 556352544
I0403 16:14:45.665154 17555 layer_factory.hpp:77] Creating layer inception_3a/pool_proj
I0403 16:14:45.665179 17555 net.cpp:91] Creating Layer inception_3a/pool_proj
I0403 16:14:45.665197 17555 net.cpp:425] inception_3a/pool_proj <- inception_3a/pool
I0403 16:14:45.665220 17555 net.cpp:399] inception_3a/pool_proj -> inception_3a/pool_proj
I0403 16:14:45.666184 17555 net.cpp:141] Setting up inception_3a/pool_proj
I0403 16:14:45.666213 17555 net.cpp:148] Top shape: 24 32 28 28 (602112)
I0403 16:14:45.666229 17555 net.cpp:156] Memory required for data: 558760992
I0403 16:14:45.666254 17555 layer_factory.hpp:77] Creating layer inception_3a/relu_pool_proj
I0403 16:14:45.666275 17555 net.cpp:91] Creating Layer inception_3a/relu_pool_proj
I0403 16:14:45.666293 17555 net.cpp:425] inception_3a/relu_pool_proj <- inception_3a/pool_proj
I0403 16:14:45.666311 17555 net.cpp:386] inception_3a/relu_pool_proj -> inception_3a/pool_proj (in-place)
I0403 16:14:45.666587 17555 net.cpp:141] Setting up inception_3a/relu_pool_proj
I0403 16:14:45.666620 17555 net.cpp:148] Top shape: 24 32 28 28 (602112)
I0403 16:14:45.666637 17555 net.cpp:156] Memory required for data: 561169440
I0403 16:14:45.666652 17555 layer_factory.hpp:77] Creating layer inception_3a/output
I0403 16:14:45.666671 17555 net.cpp:91] Creating Layer inception_3a/output
I0403 16:14:45.666687 17555 net.cpp:425] inception_3a/output <- inception_3a/1x1
I0403 16:14:45.666704 17555 net.cpp:425] inception_3a/output <- inception_3a/3x3
I0403 16:14:45.666721 17555 net.cpp:425] inception_3a/output <- inception_3a/5x5
I0403 16:14:45.666738 17555 net.cpp:425] inception_3a/output <- inception_3a/pool_proj
I0403 16:14:45.666759 17555 net.cpp:399] inception_3a/output -> inception_3a/output
I0403 16:14:45.666806 17555 net.cpp:141] Setting up inception_3a/output
I0403 16:14:45.666831 17555 net.cpp:148] Top shape: 24 256 28 28 (4816896)
I0403 16:14:45.666846 17555 net.cpp:156] Memory required for data: 580437024
I0403 16:14:45.666862 17555 layer_factory.hpp:77] Creating layer inception_3a/output_inception_3a/output_0_split
I0403 16:14:45.666882 17555 net.cpp:91] Creating Layer inception_3a/output_inception_3a/output_0_split
I0403 16:14:45.666899 17555 net.cpp:425] inception_3a/output_inception_3a/output_0_split <- inception_3a/output
I0403 16:14:45.666918 17555 net.cpp:399] inception_3a/output_inception_3a/output_0_split -> inception_3a/output_inception_3a/output_0_split_0
I0403 16:14:45.666941 17555 net.cpp:399] inception_3a/output_inception_3a/output_0_split -> inception_3a/output_inception_3a/output_0_split_1
I0403 16:14:45.666965 17555 net.cpp:399] inception_3a/output_inception_3a/output_0_split -> inception_3a/output_inception_3a/output_0_split_2
I0403 16:14:45.666986 17555 net.cpp:399] inception_3a/output_inception_3a/output_0_split -> inception_3a/output_inception_3a/output_0_split_3
I0403 16:14:45.667060 17555 net.cpp:141] Setting up inception_3a/output_inception_3a/output_0_split
I0403 16:14:45.667088 17555 net.cpp:148] Top shape: 24 256 28 28 (4816896)
I0403 16:14:45.667107 17555 net.cpp:148] Top shape: 24 256 28 28 (4816896)
I0403 16:14:45.667124 17555 net.cpp:148] Top shape: 24 256 28 28 (4816896)
I0403 16:14:45.667141 17555 net.cpp:148] Top shape: 24 256 28 28 (4816896)
I0403 16:14:45.667155 17555 net.cpp:156] Memory required for data: 657507360
I0403 16:14:45.667171 17555 layer_factory.hpp:77] Creating layer inception_3b/1x1
I0403 16:14:45.667196 17555 net.cpp:91] Creating Layer inception_3b/1x1
I0403 16:14:45.667214 17555 net.cpp:425] inception_3b/1x1 <- inception_3a/output_inception_3a/output_0_split_0
I0403 16:14:45.667235 17555 net.cpp:399] inception_3b/1x1 -> inception_3b/1x1
I0403 16:14:45.668361 17555 net.cpp:141] Setting up inception_3b/1x1
I0403 16:14:45.668403 17555 net.cpp:148] Top shape: 24 128 28 28 (2408448)
I0403 16:14:45.668422 17555 net.cpp:156] Memory required for data: 667141152
I0403 16:14:45.668442 17555 layer_factory.hpp:77] Creating layer inception_3b/relu_1x1
I0403 16:14:45.668460 17555 net.cpp:91] Creating Layer inception_3b/relu_1x1
I0403 16:14:45.668478 17555 net.cpp:425] inception_3b/relu_1x1 <- inception_3b/1x1
I0403 16:14:45.668495 17555 net.cpp:386] inception_3b/relu_1x1 -> inception_3b/1x1 (in-place)
I0403 16:14:45.668675 17555 net.cpp:141] Setting up inception_3b/relu_1x1
I0403 16:14:45.668701 17555 net.cpp:148] Top shape: 24 128 28 28 (2408448)
I0403 16:14:45.668718 17555 net.cpp:156] Memory required for data: 676774944
I0403 16:14:45.668733 17555 layer_factory.hpp:77] Creating layer inception_3b/3x3_reduce
I0403 16:14:45.668756 17555 net.cpp:91] Creating Layer inception_3b/3x3_reduce
I0403 16:14:45.668774 17555 net.cpp:425] inception_3b/3x3_reduce <- inception_3a/output_inception_3a/output_0_split_1
I0403 16:14:45.668797 17555 net.cpp:399] inception_3b/3x3_reduce -> inception_3b/3x3_reduce
I0403 16:14:45.669919 17555 net.cpp:141] Setting up inception_3b/3x3_reduce
I0403 16:14:45.669950 17555 net.cpp:148] Top shape: 24 128 28 28 (2408448)
I0403 16:14:45.669968 17555 net.cpp:156] Memory required for data: 686408736
I0403 16:14:45.669987 17555 layer_factory.hpp:77] Creating layer inception_3b/relu_3x3_reduce
I0403 16:14:45.670006 17555 net.cpp:91] Creating Layer inception_3b/relu_3x3_reduce
I0403 16:14:45.670023 17555 net.cpp:425] inception_3b/relu_3x3_reduce <- inception_3b/3x3_reduce
I0403 16:14:45.670044 17555 net.cpp:386] inception_3b/relu_3x3_reduce -> inception_3b/3x3_reduce (in-place)
I0403 16:14:45.670218 17555 net.cpp:141] Setting up inception_3b/relu_3x3_reduce
I0403 16:14:45.670245 17555 net.cpp:148] Top shape: 24 128 28 28 (2408448)
I0403 16:14:45.670260 17555 net.cpp:156] Memory required for data: 696042528
I0403 16:14:45.670274 17555 layer_factory.hpp:77] Creating layer inception_3b/3x3
I0403 16:14:45.670300 17555 net.cpp:91] Creating Layer inception_3b/3x3
I0403 16:14:45.670320 17555 net.cpp:425] inception_3b/3x3 <- inception_3b/3x3_reduce
I0403 16:14:45.670339 17555 net.cpp:399] inception_3b/3x3 -> inception_3b/3x3
I0403 16:14:45.673243 17555 net.cpp:141] Setting up inception_3b/3x3
I0403 16:14:45.673271 17555 net.cpp:148] Top shape: 24 192 28 28 (3612672)
I0403 16:14:45.673287 17555 net.cpp:156] Memory required for data: 710493216
I0403 16:14:45.673306 17555 layer_factory.hpp:77] Creating layer inception_3b/relu_3x3
I0403 16:14:45.673326 17555 net.cpp:91] Creating Layer inception_3b/relu_3x3
I0403 16:14:45.673343 17555 net.cpp:425] inception_3b/relu_3x3 <- inception_3b/3x3
I0403 16:14:45.673364 17555 net.cpp:386] inception_3b/relu_3x3 -> inception_3b/3x3 (in-place)
I0403 16:14:45.673646 17555 net.cpp:141] Setting up inception_3b/relu_3x3
I0403 16:14:45.673673 17555 net.cpp:148] Top shape: 24 192 28 28 (3612672)
I0403 16:14:45.673691 17555 net.cpp:156] Memory required for data: 724943904
I0403 16:14:45.673705 17555 layer_factory.hpp:77] Creating layer inception_3b/5x5_reduce
I0403 16:14:45.673730 17555 net.cpp:91] Creating Layer inception_3b/5x5_reduce
I0403 16:14:45.673749 17555 net.cpp:425] inception_3b/5x5_reduce <- inception_3a/output_inception_3a/output_0_split_2
I0403 16:14:45.673775 17555 net.cpp:399] inception_3b/5x5_reduce -> inception_3b/5x5_reduce
I0403 16:14:45.674777 17555 net.cpp:141] Setting up inception_3b/5x5_reduce
I0403 16:14:45.674818 17555 net.cpp:148] Top shape: 24 32 28 28 (602112)
I0403 16:14:45.674835 17555 net.cpp:156] Memory required for data: 727352352
I0403 16:14:45.674854 17555 layer_factory.hpp:77] Creating layer inception_3b/relu_5x5_reduce
I0403 16:14:45.674875 17555 net.cpp:91] Creating Layer inception_3b/relu_5x5_reduce
I0403 16:14:45.674891 17555 net.cpp:425] inception_3b/relu_5x5_reduce <- inception_3b/5x5_reduce
I0403 16:14:45.674913 17555 net.cpp:386] inception_3b/relu_5x5_reduce -> inception_3b/5x5_reduce (in-place)
I0403 16:14:45.675086 17555 net.cpp:141] Setting up inception_3b/relu_5x5_reduce
I0403 16:14:45.675124 17555 net.cpp:148] Top shape: 24 32 28 28 (602112)
I0403 16:14:45.675142 17555 net.cpp:156] Memory required for data: 729760800
I0403 16:14:45.675156 17555 layer_factory.hpp:77] Creating layer inception_3b/5x5
I0403 16:14:45.675180 17555 net.cpp:91] Creating Layer inception_3b/5x5
I0403 16:14:45.675199 17555 net.cpp:425] inception_3b/5x5 <- inception_3b/5x5_reduce
I0403 16:14:45.675222 17555 net.cpp:399] inception_3b/5x5 -> inception_3b/5x5
I0403 16:14:45.677160 17555 net.cpp:141] Setting up inception_3b/5x5
I0403 16:14:45.677191 17555 net.cpp:148] Top shape: 24 96 28 28 (1806336)
I0403 16:14:45.677209 17555 net.cpp:156] Memory required for data: 736986144
I0403 16:14:45.677230 17555 layer_factory.hpp:77] Creating layer inception_3b/relu_5x5
I0403 16:14:45.677251 17555 net.cpp:91] Creating Layer inception_3b/relu_5x5
I0403 16:14:45.677269 17555 net.cpp:425] inception_3b/relu_5x5 <- inception_3b/5x5
I0403 16:14:45.677287 17555 net.cpp:386] inception_3b/relu_5x5 -> inception_3b/5x5 (in-place)
I0403 16:14:45.677479 17555 net.cpp:141] Setting up inception_3b/relu_5x5
I0403 16:14:45.677505 17555 net.cpp:148] Top shape: 24 96 28 28 (1806336)
I0403 16:14:45.677521 17555 net.cpp:156] Memory required for data: 744211488
I0403 16:14:45.677537 17555 layer_factory.hpp:77] Creating layer inception_3b/pool
I0403 16:14:45.677556 17555 net.cpp:91] Creating Layer inception_3b/pool
I0403 16:14:45.677572 17555 net.cpp:425] inception_3b/pool <- inception_3a/output_inception_3a/output_0_split_3
I0403 16:14:45.677592 17555 net.cpp:399] inception_3b/pool -> inception_3b/pool
I0403 16:14:45.677652 17555 net.cpp:141] Setting up inception_3b/pool
I0403 16:14:45.677677 17555 net.cpp:148] Top shape: 24 256 28 28 (4816896)
I0403 16:14:45.677693 17555 net.cpp:156] Memory required for data: 763479072
I0403 16:14:45.677708 17555 layer_factory.hpp:77] Creating layer inception_3b/pool_proj
I0403 16:14:45.677732 17555 net.cpp:91] Creating Layer inception_3b/pool_proj
I0403 16:14:45.677750 17555 net.cpp:425] inception_3b/pool_proj <- inception_3b/pool
I0403 16:14:45.677772 17555 net.cpp:399] inception_3b/pool_proj -> inception_3b/pool_proj
I0403 16:14:45.678858 17555 net.cpp:141] Setting up inception_3b/pool_proj
I0403 16:14:45.678887 17555 net.cpp:148] Top shape: 24 64 28 28 (1204224)
I0403 16:14:45.678905 17555 net.cpp:156] Memory required for data: 768295968
I0403 16:14:45.678925 17555 layer_factory.hpp:77] Creating layer inception_3b/relu_pool_proj
I0403 16:14:45.678957 17555 net.cpp:91] Creating Layer inception_3b/relu_pool_proj
I0403 16:14:45.678977 17555 net.cpp:425] inception_3b/relu_pool_proj <- inception_3b/pool_proj
I0403 16:14:45.678997 17555 net.cpp:386] inception_3b/relu_pool_proj -> inception_3b/pool_proj (in-place)
I0403 16:14:45.679405 17555 net.cpp:141] Setting up inception_3b/relu_pool_proj
I0403 16:14:45.679433 17555 net.cpp:148] Top shape: 24 64 28 28 (1204224)
I0403 16:14:45.679451 17555 net.cpp:156] Memory required for data: 773112864
I0403 16:14:45.679467 17555 layer_factory.hpp:77] Creating layer inception_3b/output
I0403 16:14:45.679484 17555 net.cpp:91] Creating Layer inception_3b/output
I0403 16:14:45.679500 17555 net.cpp:425] inception_3b/output <- inception_3b/1x1
I0403 16:14:45.679518 17555 net.cpp:425] inception_3b/output <- inception_3b/3x3
I0403 16:14:45.679539 17555 net.cpp:425] inception_3b/output <- inception_3b/5x5
I0403 16:14:45.679558 17555 net.cpp:425] inception_3b/output <- inception_3b/pool_proj
I0403 16:14:45.679577 17555 net.cpp:399] inception_3b/output -> inception_3b/output
I0403 16:14:45.679626 17555 net.cpp:141] Setting up inception_3b/output
I0403 16:14:45.679654 17555 net.cpp:148] Top shape: 24 480 28 28 (9031680)
I0403 16:14:45.679671 17555 net.cpp:156] Memory required for data: 809239584
I0403 16:14:45.679687 17555 layer_factory.hpp:77] Creating layer pool3/3x3_s2
I0403 16:14:45.679705 17555 net.cpp:91] Creating Layer pool3/3x3_s2
I0403 16:14:45.679723 17555 net.cpp:425] pool3/3x3_s2 <- inception_3b/output
I0403 16:14:45.679745 17555 net.cpp:399] pool3/3x3_s2 -> pool3/3x3_s2
I0403 16:14:45.679821 17555 net.cpp:141] Setting up pool3/3x3_s2
I0403 16:14:45.679848 17555 net.cpp:148] Top shape: 24 480 14 14 (2257920)
I0403 16:14:45.679865 17555 net.cpp:156] Memory required for data: 818271264
I0403 16:14:45.679882 17555 layer_factory.hpp:77] Creating layer pool3/3x3_s2_pool3/3x3_s2_0_split
I0403 16:14:45.679899 17555 net.cpp:91] Creating Layer pool3/3x3_s2_pool3/3x3_s2_0_split
I0403 16:14:45.679916 17555 net.cpp:425] pool3/3x3_s2_pool3/3x3_s2_0_split <- pool3/3x3_s2
I0403 16:14:45.679935 17555 net.cpp:399] pool3/3x3_s2_pool3/3x3_s2_0_split -> pool3/3x3_s2_pool3/3x3_s2_0_split_0
I0403 16:14:45.679956 17555 net.cpp:399] pool3/3x3_s2_pool3/3x3_s2_0_split -> pool3/3x3_s2_pool3/3x3_s2_0_split_1
I0403 16:14:45.679977 17555 net.cpp:399] pool3/3x3_s2_pool3/3x3_s2_0_split -> pool3/3x3_s2_pool3/3x3_s2_0_split_2
I0403 16:14:45.680002 17555 net.cpp:399] pool3/3x3_s2_pool3/3x3_s2_0_split -> pool3/3x3_s2_pool3/3x3_s2_0_split_3
I0403 16:14:45.680090 17555 net.cpp:141] Setting up pool3/3x3_s2_pool3/3x3_s2_0_split
I0403 16:14:45.680115 17555 net.cpp:148] Top shape: 24 480 14 14 (2257920)
I0403 16:14:45.680133 17555 net.cpp:148] Top shape: 24 480 14 14 (2257920)
I0403 16:14:45.680150 17555 net.cpp:148] Top shape: 24 480 14 14 (2257920)
I0403 16:14:45.680167 17555 net.cpp:148] Top shape: 24 480 14 14 (2257920)
I0403 16:14:45.680182 17555 net.cpp:156] Memory required for data: 854397984
I0403 16:14:45.680198 17555 layer_factory.hpp:77] Creating layer inception_4a/1x1
I0403 16:14:45.680222 17555 net.cpp:91] Creating Layer inception_4a/1x1
I0403 16:14:45.680240 17555 net.cpp:425] inception_4a/1x1 <- pool3/3x3_s2_pool3/3x3_s2_0_split_0
I0403 16:14:45.680263 17555 net.cpp:399] inception_4a/1x1 -> inception_4a/1x1
I0403 16:14:45.681866 17555 net.cpp:141] Setting up inception_4a/1x1
I0403 16:14:45.681896 17555 net.cpp:148] Top shape: 24 192 14 14 (903168)
I0403 16:14:45.681913 17555 net.cpp:156] Memory required for data: 858010656
I0403 16:14:45.681933 17555 layer_factory.hpp:77] Creating layer inception_4a/relu_1x1
I0403 16:14:45.681956 17555 net.cpp:91] Creating Layer inception_4a/relu_1x1
I0403 16:14:45.681974 17555 net.cpp:425] inception_4a/relu_1x1 <- inception_4a/1x1
I0403 16:14:45.681993 17555 net.cpp:386] inception_4a/relu_1x1 -> inception_4a/1x1 (in-place)
I0403 16:14:45.682171 17555 net.cpp:141] Setting up inception_4a/relu_1x1
I0403 16:14:45.682202 17555 net.cpp:148] Top shape: 24 192 14 14 (903168)
I0403 16:14:45.682219 17555 net.cpp:156] Memory required for data: 861623328
I0403 16:14:45.682235 17555 layer_factory.hpp:77] Creating layer inception_4a/3x3_reduce
I0403 16:14:45.682258 17555 net.cpp:91] Creating Layer inception_4a/3x3_reduce
I0403 16:14:45.682276 17555 net.cpp:425] inception_4a/3x3_reduce <- pool3/3x3_s2_pool3/3x3_s2_0_split_1
I0403 16:14:45.682297 17555 net.cpp:399] inception_4a/3x3_reduce -> inception_4a/3x3_reduce
I0403 16:14:45.683598 17555 net.cpp:141] Setting up inception_4a/3x3_reduce
I0403 16:14:45.683632 17555 net.cpp:148] Top shape: 24 96 14 14 (451584)
I0403 16:14:45.683651 17555 net.cpp:156] Memory required for data: 863429664
I0403 16:14:45.683678 17555 layer_factory.hpp:77] Creating layer inception_4a/relu_3x3_reduce
I0403 16:14:45.683701 17555 net.cpp:91] Creating Layer inception_4a/relu_3x3_reduce
I0403 16:14:45.683717 17555 net.cpp:425] inception_4a/relu_3x3_reduce <- inception_4a/3x3_reduce
I0403 16:14:45.683738 17555 net.cpp:386] inception_4a/relu_3x3_reduce -> inception_4a/3x3_reduce (in-place)
I0403 16:14:45.683918 17555 net.cpp:141] Setting up inception_4a/relu_3x3_reduce
I0403 16:14:45.683948 17555 net.cpp:148] Top shape: 24 96 14 14 (451584)
I0403 16:14:45.683965 17555 net.cpp:156] Memory required for data: 865236000
I0403 16:14:45.683980 17555 layer_factory.hpp:77] Creating layer inception_4a/3x3
I0403 16:14:45.684003 17555 net.cpp:91] Creating Layer inception_4a/3x3
I0403 16:14:45.684023 17555 net.cpp:425] inception_4a/3x3 <- inception_4a/3x3_reduce
I0403 16:14:45.684043 17555 net.cpp:399] inception_4a/3x3 -> inception_4a/3x3
I0403 16:14:45.686823 17555 net.cpp:141] Setting up inception_4a/3x3
I0403 16:14:45.686858 17555 net.cpp:148] Top shape: 24 208 14 14 (978432)
I0403 16:14:45.686878 17555 net.cpp:156] Memory required for data: 869149728
I0403 16:14:45.686898 17555 layer_factory.hpp:77] Creating layer inception_4a/relu_3x3
I0403 16:14:45.686918 17555 net.cpp:91] Creating Layer inception_4a/relu_3x3
I0403 16:14:45.686935 17555 net.cpp:425] inception_4a/relu_3x3 <- inception_4a/3x3
I0403 16:14:45.686957 17555 net.cpp:386] inception_4a/relu_3x3 -> inception_4a/3x3 (in-place)
I0403 16:14:45.687247 17555 net.cpp:141] Setting up inception_4a/relu_3x3
I0403 16:14:45.687276 17555 net.cpp:148] Top shape: 24 208 14 14 (978432)
I0403 16:14:45.687294 17555 net.cpp:156] Memory required for data: 873063456
I0403 16:14:45.687311 17555 layer_factory.hpp:77] Creating layer inception_4a/5x5_reduce
I0403 16:14:45.687336 17555 net.cpp:91] Creating Layer inception_4a/5x5_reduce
I0403 16:14:45.687355 17555 net.cpp:425] inception_4a/5x5_reduce <- pool3/3x3_s2_pool3/3x3_s2_0_split_2
I0403 16:14:45.687376 17555 net.cpp:399] inception_4a/5x5_reduce -> inception_4a/5x5_reduce
I0403 16:14:45.688434 17555 net.cpp:141] Setting up inception_4a/5x5_reduce
I0403 16:14:45.688467 17555 net.cpp:148] Top shape: 24 16 14 14 (75264)
I0403 16:14:45.688485 17555 net.cpp:156] Memory required for data: 873364512
I0403 16:14:45.688505 17555 layer_factory.hpp:77] Creating layer inception_4a/relu_5x5_reduce
I0403 16:14:45.688525 17555 net.cpp:91] Creating Layer inception_4a/relu_5x5_reduce
I0403 16:14:45.688544 17555 net.cpp:425] inception_4a/relu_5x5_reduce <- inception_4a/5x5_reduce
I0403 16:14:45.688565 17555 net.cpp:386] inception_4a/relu_5x5_reduce -> inception_4a/5x5_reduce (in-place)
I0403 16:14:45.688755 17555 net.cpp:141] Setting up inception_4a/relu_5x5_reduce
I0403 16:14:45.688782 17555 net.cpp:148] Top shape: 24 16 14 14 (75264)
I0403 16:14:45.688798 17555 net.cpp:156] Memory required for data: 873665568
I0403 16:14:45.688814 17555 layer_factory.hpp:77] Creating layer inception_4a/5x5
I0403 16:14:45.688838 17555 net.cpp:91] Creating Layer inception_4a/5x5
I0403 16:14:45.688858 17555 net.cpp:425] inception_4a/5x5 <- inception_4a/5x5_reduce
I0403 16:14:45.688879 17555 net.cpp:399] inception_4a/5x5 -> inception_4a/5x5
I0403 16:14:45.690011 17555 net.cpp:141] Setting up inception_4a/5x5
I0403 16:14:45.690040 17555 net.cpp:148] Top shape: 24 48 14 14 (225792)
I0403 16:14:45.690057 17555 net.cpp:156] Memory required for data: 874568736
I0403 16:14:45.690076 17555 layer_factory.hpp:77] Creating layer inception_4a/relu_5x5
I0403 16:14:45.690099 17555 net.cpp:91] Creating Layer inception_4a/relu_5x5
I0403 16:14:45.690119 17555 net.cpp:425] inception_4a/relu_5x5 <- inception_4a/5x5
I0403 16:14:45.690137 17555 net.cpp:386] inception_4a/relu_5x5 -> inception_4a/5x5 (in-place)
I0403 16:14:45.690321 17555 net.cpp:141] Setting up inception_4a/relu_5x5
I0403 16:14:45.690348 17555 net.cpp:148] Top shape: 24 48 14 14 (225792)
I0403 16:14:45.690364 17555 net.cpp:156] Memory required for data: 875471904
I0403 16:14:45.690381 17555 layer_factory.hpp:77] Creating layer inception_4a/pool
I0403 16:14:45.690403 17555 net.cpp:91] Creating Layer inception_4a/pool
I0403 16:14:45.690421 17555 net.cpp:425] inception_4a/pool <- pool3/3x3_s2_pool3/3x3_s2_0_split_3
I0403 16:14:45.690440 17555 net.cpp:399] inception_4a/pool -> inception_4a/pool
I0403 16:14:45.690505 17555 net.cpp:141] Setting up inception_4a/pool
I0403 16:14:45.690529 17555 net.cpp:148] Top shape: 24 480 14 14 (2257920)
I0403 16:14:45.690546 17555 net.cpp:156] Memory required for data: 884503584
I0403 16:14:45.690562 17555 layer_factory.hpp:77] Creating layer inception_4a/pool_proj
I0403 16:14:45.690585 17555 net.cpp:91] Creating Layer inception_4a/pool_proj
I0403 16:14:45.690608 17555 net.cpp:425] inception_4a/pool_proj <- inception_4a/pool
I0403 16:14:45.690632 17555 net.cpp:399] inception_4a/pool_proj -> inception_4a/pool_proj
I0403 16:14:45.691860 17555 net.cpp:141] Setting up inception_4a/pool_proj
I0403 16:14:45.691890 17555 net.cpp:148] Top shape: 24 64 14 14 (301056)
I0403 16:14:45.691925 17555 net.cpp:156] Memory required for data: 885707808
I0403 16:14:45.691946 17555 layer_factory.hpp:77] Creating layer inception_4a/relu_pool_proj
I0403 16:14:45.691968 17555 net.cpp:91] Creating Layer inception_4a/relu_pool_proj
I0403 16:14:45.691987 17555 net.cpp:425] inception_4a/relu_pool_proj <- inception_4a/pool_proj
I0403 16:14:45.692006 17555 net.cpp:386] inception_4a/relu_pool_proj -> inception_4a/pool_proj (in-place)
I0403 16:14:45.692296 17555 net.cpp:141] Setting up inception_4a/relu_pool_proj
I0403 16:14:45.692325 17555 net.cpp:148] Top shape: 24 64 14 14 (301056)
I0403 16:14:45.692342 17555 net.cpp:156] Memory required for data: 886912032
I0403 16:14:45.692358 17555 layer_factory.hpp:77] Creating layer inception_4a/output
I0403 16:14:45.692378 17555 net.cpp:91] Creating Layer inception_4a/output
I0403 16:14:45.692396 17555 net.cpp:425] inception_4a/output <- inception_4a/1x1
I0403 16:14:45.692414 17555 net.cpp:425] inception_4a/output <- inception_4a/3x3
I0403 16:14:45.692433 17555 net.cpp:425] inception_4a/output <- inception_4a/5x5
I0403 16:14:45.692451 17555 net.cpp:425] inception_4a/output <- inception_4a/pool_proj
I0403 16:14:45.692469 17555 net.cpp:399] inception_4a/output -> inception_4a/output
I0403 16:14:45.692518 17555 net.cpp:141] Setting up inception_4a/output
I0403 16:14:45.692544 17555 net.cpp:148] Top shape: 24 512 14 14 (2408448)
I0403 16:14:45.692560 17555 net.cpp:156] Memory required for data: 896545824
I0403 16:14:45.692575 17555 layer_factory.hpp:77] Creating layer inception_4a/output_inception_4a/output_0_split
I0403 16:14:45.692595 17555 net.cpp:91] Creating Layer inception_4a/output_inception_4a/output_0_split
I0403 16:14:45.692617 17555 net.cpp:425] inception_4a/output_inception_4a/output_0_split <- inception_4a/output
I0403 16:14:45.692639 17555 net.cpp:399] inception_4a/output_inception_4a/output_0_split -> inception_4a/output_inception_4a/output_0_split_0
I0403 16:14:45.692662 17555 net.cpp:399] inception_4a/output_inception_4a/output_0_split -> inception_4a/output_inception_4a/output_0_split_1
I0403 16:14:45.692685 17555 net.cpp:399] inception_4a/output_inception_4a/output_0_split -> inception_4a/output_inception_4a/output_0_split_2
I0403 16:14:45.692708 17555 net.cpp:399] inception_4a/output_inception_4a/output_0_split -> inception_4a/output_inception_4a/output_0_split_3
I0403 16:14:45.692731 17555 net.cpp:399] inception_4a/output_inception_4a/output_0_split -> inception_4a/output_inception_4a/output_0_split_4
I0403 16:14:45.692841 17555 net.cpp:141] Setting up inception_4a/output_inception_4a/output_0_split
I0403 16:14:45.692865 17555 net.cpp:148] Top shape: 24 512 14 14 (2408448)
I0403 16:14:45.692888 17555 net.cpp:148] Top shape: 24 512 14 14 (2408448)
I0403 16:14:45.692906 17555 net.cpp:148] Top shape: 24 512 14 14 (2408448)
I0403 16:14:45.692924 17555 net.cpp:148] Top shape: 24 512 14 14 (2408448)
I0403 16:14:45.692942 17555 net.cpp:148] Top shape: 24 512 14 14 (2408448)
I0403 16:14:45.692957 17555 net.cpp:156] Memory required for data: 944714784
I0403 16:14:45.692973 17555 layer_factory.hpp:77] Creating layer loss1/ave_pool
I0403 16:14:45.692991 17555 net.cpp:91] Creating Layer loss1/ave_pool
I0403 16:14:45.693009 17555 net.cpp:425] loss1/ave_pool <- inception_4a/output_inception_4a/output_0_split_0
I0403 16:14:45.693032 17555 net.cpp:399] loss1/ave_pool -> loss1/ave_pool
I0403 16:14:45.693254 17555 net.cpp:141] Setting up loss1/ave_pool
I0403 16:14:45.693282 17555 net.cpp:148] Top shape: 24 512 4 4 (196608)
I0403 16:14:45.693300 17555 net.cpp:156] Memory required for data: 945501216
I0403 16:14:45.693315 17555 layer_factory.hpp:77] Creating layer loss1/conv
I0403 16:14:45.693339 17555 net.cpp:91] Creating Layer loss1/conv
I0403 16:14:45.693359 17555 net.cpp:425] loss1/conv <- loss1/ave_pool
I0403 16:14:45.693382 17555 net.cpp:399] loss1/conv -> loss1/conv
I0403 16:14:45.694846 17555 net.cpp:141] Setting up loss1/conv
I0403 16:14:45.694880 17555 net.cpp:148] Top shape: 24 128 4 4 (49152)
I0403 16:14:45.694897 17555 net.cpp:156] Memory required for data: 945697824
I0403 16:14:45.694933 17555 layer_factory.hpp:77] Creating layer loss1/relu_conv
I0403 16:14:45.694955 17555 net.cpp:91] Creating Layer loss1/relu_conv
I0403 16:14:45.694973 17555 net.cpp:425] loss1/relu_conv <- loss1/conv
I0403 16:14:45.694996 17555 net.cpp:386] loss1/relu_conv -> loss1/conv (in-place)
I0403 16:14:45.695298 17555 net.cpp:141] Setting up loss1/relu_conv
I0403 16:14:45.695332 17555 net.cpp:148] Top shape: 24 128 4 4 (49152)
I0403 16:14:45.695349 17555 net.cpp:156] Memory required for data: 945894432
I0403 16:14:45.695366 17555 layer_factory.hpp:77] Creating layer loss1/fc
I0403 16:14:45.695391 17555 net.cpp:91] Creating Layer loss1/fc
I0403 16:14:45.695410 17555 net.cpp:425] loss1/fc <- loss1/conv
I0403 16:14:45.695435 17555 net.cpp:399] loss1/fc -> loss1/fc
I0403 16:14:45.712980 17555 net.cpp:141] Setting up loss1/fc
I0403 16:14:45.713017 17555 net.cpp:148] Top shape: 24 1024 (24576)
I0403 16:14:45.713034 17555 net.cpp:156] Memory required for data: 945992736
I0403 16:14:45.713052 17555 layer_factory.hpp:77] Creating layer loss1/relu_fc
I0403 16:14:45.713074 17555 net.cpp:91] Creating Layer loss1/relu_fc
I0403 16:14:45.713093 17555 net.cpp:425] loss1/relu_fc <- loss1/fc
I0403 16:14:45.713110 17555 net.cpp:386] loss1/relu_fc -> loss1/fc (in-place)
I0403 16:14:45.713287 17555 net.cpp:141] Setting up loss1/relu_fc
I0403 16:14:45.713315 17555 net.cpp:148] Top shape: 24 1024 (24576)
I0403 16:14:45.713330 17555 net.cpp:156] Memory required for data: 946091040
I0403 16:14:45.713346 17555 layer_factory.hpp:77] Creating layer loss1/drop_fc
I0403 16:14:45.713371 17555 net.cpp:91] Creating Layer loss1/drop_fc
I0403 16:14:45.713389 17555 net.cpp:425] loss1/drop_fc <- loss1/fc
I0403 16:14:45.713407 17555 net.cpp:386] loss1/drop_fc -> loss1/fc (in-place)
I0403 16:14:45.713459 17555 net.cpp:141] Setting up loss1/drop_fc
I0403 16:14:45.713484 17555 net.cpp:148] Top shape: 24 1024 (24576)
I0403 16:14:45.713498 17555 net.cpp:156] Memory required for data: 946189344
I0403 16:14:45.713515 17555 layer_factory.hpp:77] Creating layer loss1/classifier_plantvillage
I0403 16:14:45.713537 17555 net.cpp:91] Creating Layer loss1/classifier_plantvillage
I0403 16:14:45.713556 17555 net.cpp:425] loss1/classifier_plantvillage <- loss1/fc
I0403 16:14:45.713573 17555 net.cpp:399] loss1/classifier_plantvillage -> loss1/classifier_plantvillage
I0403 16:14:45.714450 17555 net.cpp:141] Setting up loss1/classifier_plantvillage
I0403 16:14:45.714478 17555 net.cpp:148] Top shape: 24 38 (912)
I0403 16:14:45.714494 17555 net.cpp:156] Memory required for data: 946192992
I0403 16:14:45.714512 17555 layer_factory.hpp:77] Creating layer loss1/classifier_plantvillage_loss1/classifier_plantvillage_0_split
I0403 16:14:45.714537 17555 net.cpp:91] Creating Layer loss1/classifier_plantvillage_loss1/classifier_plantvillage_0_split
I0403 16:14:45.714555 17555 net.cpp:425] loss1/classifier_plantvillage_loss1/classifier_plantvillage_0_split <- loss1/classifier_plantvillage
I0403 16:14:45.714572 17555 net.cpp:399] loss1/classifier_plantvillage_loss1/classifier_plantvillage_0_split -> loss1/classifier_plantvillage_loss1/classifier_plantvillage_0_split_0
I0403 16:14:45.714596 17555 net.cpp:399] loss1/classifier_plantvillage_loss1/classifier_plantvillage_0_split -> loss1/classifier_plantvillage_loss1/classifier_plantvillage_0_split_1
I0403 16:14:45.714622 17555 net.cpp:399] loss1/classifier_plantvillage_loss1/classifier_plantvillage_0_split -> loss1/classifier_plantvillage_loss1/classifier_plantvillage_0_split_2
I0403 16:14:45.714690 17555 net.cpp:141] Setting up loss1/classifier_plantvillage_loss1/classifier_plantvillage_0_split
I0403 16:14:45.714715 17555 net.cpp:148] Top shape: 24 38 (912)
I0403 16:14:45.714731 17555 net.cpp:148] Top shape: 24 38 (912)
I0403 16:14:45.714747 17555 net.cpp:148] Top shape: 24 38 (912)
I0403 16:14:45.714762 17555 net.cpp:156] Memory required for data: 946203936
I0403 16:14:45.714777 17555 layer_factory.hpp:77] Creating layer inception_4b/1x1
I0403 16:14:45.714813 17555 net.cpp:91] Creating Layer inception_4b/1x1
I0403 16:14:45.714848 17555 net.cpp:425] inception_4b/1x1 <- inception_4a/output_inception_4a/output_0_split_1
I0403 16:14:45.714869 17555 net.cpp:399] inception_4b/1x1 -> inception_4b/1x1
I0403 16:14:45.716488 17555 net.cpp:141] Setting up inception_4b/1x1
I0403 16:14:45.716521 17555 net.cpp:148] Top shape: 24 160 14 14 (752640)
I0403 16:14:45.716537 17555 net.cpp:156] Memory required for data: 949214496
I0403 16:14:45.716557 17555 layer_factory.hpp:77] Creating layer inception_4b/relu_1x1
I0403 16:14:45.716577 17555 net.cpp:91] Creating Layer inception_4b/relu_1x1
I0403 16:14:45.716591 17555 net.cpp:425] inception_4b/relu_1x1 <- inception_4b/1x1
I0403 16:14:45.716615 17555 net.cpp:386] inception_4b/relu_1x1 -> inception_4b/1x1 (in-place)
I0403 16:14:45.716791 17555 net.cpp:141] Setting up inception_4b/relu_1x1
I0403 16:14:45.716817 17555 net.cpp:148] Top shape: 24 160 14 14 (752640)
I0403 16:14:45.716832 17555 net.cpp:156] Memory required for data: 952225056
I0403 16:14:45.716848 17555 layer_factory.hpp:77] Creating layer inception_4b/3x3_reduce
I0403 16:14:45.716872 17555 net.cpp:91] Creating Layer inception_4b/3x3_reduce
I0403 16:14:45.716892 17555 net.cpp:425] inception_4b/3x3_reduce <- inception_4a/output_inception_4a/output_0_split_2
I0403 16:14:45.716913 17555 net.cpp:399] inception_4b/3x3_reduce -> inception_4b/3x3_reduce
I0403 16:14:45.718266 17555 net.cpp:141] Setting up inception_4b/3x3_reduce
I0403 16:14:45.718298 17555 net.cpp:148] Top shape: 24 112 14 14 (526848)
I0403 16:14:45.718315 17555 net.cpp:156] Memory required for data: 954332448
I0403 16:14:45.718334 17555 layer_factory.hpp:77] Creating layer inception_4b/relu_3x3_reduce
I0403 16:14:45.718353 17555 net.cpp:91] Creating Layer inception_4b/relu_3x3_reduce
I0403 16:14:45.718370 17555 net.cpp:425] inception_4b/relu_3x3_reduce <- inception_4b/3x3_reduce
I0403 16:14:45.718391 17555 net.cpp:386] inception_4b/relu_3x3_reduce -> inception_4b/3x3_reduce (in-place)
I0403 16:14:45.718677 17555 net.cpp:141] Setting up inception_4b/relu_3x3_reduce
I0403 16:14:45.718704 17555 net.cpp:148] Top shape: 24 112 14 14 (526848)
I0403 16:14:45.718719 17555 net.cpp:156] Memory required for data: 956439840
I0403 16:14:45.718735 17555 layer_factory.hpp:77] Creating layer inception_4b/3x3
I0403 16:14:45.718757 17555 net.cpp:91] Creating Layer inception_4b/3x3
I0403 16:14:45.718776 17555 net.cpp:425] inception_4b/3x3 <- inception_4b/3x3_reduce
I0403 16:14:45.718797 17555 net.cpp:399] inception_4b/3x3 -> inception_4b/3x3
I0403 16:14:45.721688 17555 net.cpp:141] Setting up inception_4b/3x3
I0403 16:14:45.721719 17555 net.cpp:148] Top shape: 24 224 14 14 (1053696)
I0403 16:14:45.721736 17555 net.cpp:156] Memory required for data: 960654624
I0403 16:14:45.721755 17555 layer_factory.hpp:77] Creating layer inception_4b/relu_3x3
I0403 16:14:45.721777 17555 net.cpp:91] Creating Layer inception_4b/relu_3x3
I0403 16:14:45.721796 17555 net.cpp:425] inception_4b/relu_3x3 <- inception_4b/3x3
I0403 16:14:45.721813 17555 net.cpp:386] inception_4b/relu_3x3 -> inception_4b/3x3 (in-place)
I0403 16:14:45.721992 17555 net.cpp:141] Setting up inception_4b/relu_3x3
I0403 16:14:45.722018 17555 net.cpp:148] Top shape: 24 224 14 14 (1053696)
I0403 16:14:45.722033 17555 net.cpp:156] Memory required for data: 964869408
I0403 16:14:45.722048 17555 layer_factory.hpp:77] Creating layer inception_4b/5x5_reduce
I0403 16:14:45.722071 17555 net.cpp:91] Creating Layer inception_4b/5x5_reduce
I0403 16:14:45.722090 17555 net.cpp:425] inception_4b/5x5_reduce <- inception_4a/output_inception_4a/output_0_split_3
I0403 16:14:45.722113 17555 net.cpp:399] inception_4b/5x5_reduce -> inception_4b/5x5_reduce
I0403 16:14:45.723177 17555 net.cpp:141] Setting up inception_4b/5x5_reduce
I0403 16:14:45.723206 17555 net.cpp:148] Top shape: 24 24 14 14 (112896)
I0403 16:14:45.723222 17555 net.cpp:156] Memory required for data: 965320992
I0403 16:14:45.723240 17555 layer_factory.hpp:77] Creating layer inception_4b/relu_5x5_reduce
I0403 16:14:45.723259 17555 net.cpp:91] Creating Layer inception_4b/relu_5x5_reduce
I0403 16:14:45.723291 17555 net.cpp:425] inception_4b/relu_5x5_reduce <- inception_4b/5x5_reduce
I0403 16:14:45.723314 17555 net.cpp:386] inception_4b/relu_5x5_reduce -> inception_4b/5x5_reduce (in-place)
I0403 16:14:45.723497 17555 net.cpp:141] Setting up inception_4b/relu_5x5_reduce
I0403 16:14:45.723522 17555 net.cpp:148] Top shape: 24 24 14 14 (112896)
I0403 16:14:45.723538 17555 net.cpp:156] Memory required for data: 965772576
I0403 16:14:45.723553 17555 layer_factory.hpp:77] Creating layer inception_4b/5x5
I0403 16:14:45.723577 17555 net.cpp:91] Creating Layer inception_4b/5x5
I0403 16:14:45.723595 17555 net.cpp:425] inception_4b/5x5 <- inception_4b/5x5_reduce
I0403 16:14:45.723623 17555 net.cpp:399] inception_4b/5x5 -> inception_4b/5x5
I0403 16:14:45.724817 17555 net.cpp:141] Setting up inception_4b/5x5
I0403 16:14:45.724848 17555 net.cpp:148] Top shape: 24 64 14 14 (301056)
I0403 16:14:45.724865 17555 net.cpp:156] Memory required for data: 966976800
I0403 16:14:45.724884 17555 layer_factory.hpp:77] Creating layer inception_4b/relu_5x5
I0403 16:14:45.724903 17555 net.cpp:91] Creating Layer inception_4b/relu_5x5
I0403 16:14:45.724921 17555 net.cpp:425] inception_4b/relu_5x5 <- inception_4b/5x5
I0403 16:14:45.724941 17555 net.cpp:386] inception_4b/relu_5x5 -> inception_4b/5x5 (in-place)
I0403 16:14:45.725219 17555 net.cpp:141] Setting up inception_4b/relu_5x5
I0403 16:14:45.725249 17555 net.cpp:148] Top shape: 24 64 14 14 (301056)
I0403 16:14:45.725265 17555 net.cpp:156] Memory required for data: 968181024
I0403 16:14:45.725281 17555 layer_factory.hpp:77] Creating layer inception_4b/pool
I0403 16:14:45.725301 17555 net.cpp:91] Creating Layer inception_4b/pool
I0403 16:14:45.725317 17555 net.cpp:425] inception_4b/pool <- inception_4a/output_inception_4a/output_0_split_4
I0403 16:14:45.725338 17555 net.cpp:399] inception_4b/pool -> inception_4b/pool
I0403 16:14:45.725400 17555 net.cpp:141] Setting up inception_4b/pool
I0403 16:14:45.725425 17555 net.cpp:148] Top shape: 24 512 14 14 (2408448)
I0403 16:14:45.725440 17555 net.cpp:156] Memory required for data: 977814816
I0403 16:14:45.725455 17555 layer_factory.hpp:77] Creating layer inception_4b/pool_proj
I0403 16:14:45.725477 17555 net.cpp:91] Creating Layer inception_4b/pool_proj
I0403 16:14:45.725495 17555 net.cpp:425] inception_4b/pool_proj <- inception_4b/pool
I0403 16:14:45.725517 17555 net.cpp:399] inception_4b/pool_proj -> inception_4b/pool_proj
I0403 16:14:45.726727 17555 net.cpp:141] Setting up inception_4b/pool_proj
I0403 16:14:45.726757 17555 net.cpp:148] Top shape: 24 64 14 14 (301056)
I0403 16:14:45.726773 17555 net.cpp:156] Memory required for data: 979019040
I0403 16:14:45.726794 17555 layer_factory.hpp:77] Creating layer inception_4b/relu_pool_proj
I0403 16:14:45.726826 17555 net.cpp:91] Creating Layer inception_4b/relu_pool_proj
I0403 16:14:45.726845 17555 net.cpp:425] inception_4b/relu_pool_proj <- inception_4b/pool_proj
I0403 16:14:45.726866 17555 net.cpp:386] inception_4b/relu_pool_proj -> inception_4b/pool_proj (in-place)
I0403 16:14:45.727066 17555 net.cpp:141] Setting up inception_4b/relu_pool_proj
I0403 16:14:45.727103 17555 net.cpp:148] Top shape: 24 64 14 14 (301056)
I0403 16:14:45.727119 17555 net.cpp:156] Memory required for data: 980223264
I0403 16:14:45.727135 17555 layer_factory.hpp:77] Creating layer inception_4b/output
I0403 16:14:45.727154 17555 net.cpp:91] Creating Layer inception_4b/output
I0403 16:14:45.727169 17555 net.cpp:425] inception_4b/output <- inception_4b/1x1
I0403 16:14:45.727186 17555 net.cpp:425] inception_4b/output <- inception_4b/3x3
I0403 16:14:45.727202 17555 net.cpp:425] inception_4b/output <- inception_4b/5x5
I0403 16:14:45.727219 17555 net.cpp:425] inception_4b/output <- inception_4b/pool_proj
I0403 16:14:45.727241 17555 net.cpp:399] inception_4b/output -> inception_4b/output
I0403 16:14:45.727288 17555 net.cpp:141] Setting up inception_4b/output
I0403 16:14:45.727313 17555 net.cpp:148] Top shape: 24 512 14 14 (2408448)
I0403 16:14:45.727330 17555 net.cpp:156] Memory required for data: 989857056
I0403 16:14:45.727360 17555 layer_factory.hpp:77] Creating layer inception_4b/output_inception_4b/output_0_split
I0403 16:14:45.727380 17555 net.cpp:91] Creating Layer inception_4b/output_inception_4b/output_0_split
I0403 16:14:45.727396 17555 net.cpp:425] inception_4b/output_inception_4b/output_0_split <- inception_4b/output
I0403 16:14:45.727417 17555 net.cpp:399] inception_4b/output_inception_4b/output_0_split -> inception_4b/output_inception_4b/output_0_split_0
I0403 16:14:45.727439 17555 net.cpp:399] inception_4b/output_inception_4b/output_0_split -> inception_4b/output_inception_4b/output_0_split_1
I0403 16:14:45.727461 17555 net.cpp:399] inception_4b/output_inception_4b/output_0_split -> inception_4b/output_inception_4b/output_0_split_2
I0403 16:14:45.727483 17555 net.cpp:399] inception_4b/output_inception_4b/output_0_split -> inception_4b/output_inception_4b/output_0_split_3
I0403 16:14:45.727569 17555 net.cpp:141] Setting up inception_4b/output_inception_4b/output_0_split
I0403 16:14:45.727596 17555 net.cpp:148] Top shape: 24 512 14 14 (2408448)
I0403 16:14:45.727619 17555 net.cpp:148] Top shape: 24 512 14 14 (2408448)
I0403 16:14:45.727637 17555 net.cpp:148] Top shape: 24 512 14 14 (2408448)
I0403 16:14:45.727653 17555 net.cpp:148] Top shape: 24 512 14 14 (2408448)
I0403 16:14:45.727668 17555 net.cpp:156] Memory required for data: 1028392224
I0403 16:14:45.727682 17555 layer_factory.hpp:77] Creating layer inception_4c/1x1
I0403 16:14:45.727705 17555 net.cpp:91] Creating Layer inception_4c/1x1
I0403 16:14:45.727725 17555 net.cpp:425] inception_4c/1x1 <- inception_4b/output_inception_4b/output_0_split_0
I0403 16:14:45.727742 17555 net.cpp:399] inception_4c/1x1 -> inception_4c/1x1
I0403 16:14:45.729176 17555 net.cpp:141] Setting up inception_4c/1x1
I0403 16:14:45.729204 17555 net.cpp:148] Top shape: 24 128 14 14 (602112)
I0403 16:14:45.729220 17555 net.cpp:156] Memory required for data: 1030800672
I0403 16:14:45.729240 17555 layer_factory.hpp:77] Creating layer inception_4c/relu_1x1
I0403 16:14:45.729262 17555 net.cpp:91] Creating Layer inception_4c/relu_1x1
I0403 16:14:45.729282 17555 net.cpp:425] inception_4c/relu_1x1 <- inception_4c/1x1
I0403 16:14:45.729300 17555 net.cpp:386] inception_4c/relu_1x1 -> inception_4c/1x1 (in-place)
I0403 16:14:45.729482 17555 net.cpp:141] Setting up inception_4c/relu_1x1
I0403 16:14:45.729511 17555 net.cpp:148] Top shape: 24 128 14 14 (602112)
I0403 16:14:45.729526 17555 net.cpp:156] Memory required for data: 1033209120
I0403 16:14:45.729542 17555 layer_factory.hpp:77] Creating layer inception_4c/3x3_reduce
I0403 16:14:45.729564 17555 net.cpp:91] Creating Layer inception_4c/3x3_reduce
I0403 16:14:45.729583 17555 net.cpp:425] inception_4c/3x3_reduce <- inception_4b/output_inception_4b/output_0_split_1
I0403 16:14:45.729606 17555 net.cpp:399] inception_4c/3x3_reduce -> inception_4c/3x3_reduce
I0403 16:14:45.731559 17555 net.cpp:141] Setting up inception_4c/3x3_reduce
I0403 16:14:45.731591 17555 net.cpp:148] Top shape: 24 128 14 14 (602112)
I0403 16:14:45.731614 17555 net.cpp:156] Memory required for data: 1035617568
I0403 16:14:45.731636 17555 layer_factory.hpp:77] Creating layer inception_4c/relu_3x3_reduce
I0403 16:14:45.731655 17555 net.cpp:91] Creating Layer inception_4c/relu_3x3_reduce
I0403 16:14:45.731673 17555 net.cpp:425] inception_4c/relu_3x3_reduce <- inception_4c/3x3_reduce
I0403 16:14:45.731694 17555 net.cpp:386] inception_4c/relu_3x3_reduce -> inception_4c/3x3_reduce (in-place)
I0403 16:14:45.732000 17555 net.cpp:141] Setting up inception_4c/relu_3x3_reduce
I0403 16:14:45.732030 17555 net.cpp:148] Top shape: 24 128 14 14 (602112)
I0403 16:14:45.732048 17555 net.cpp:156] Memory required for data: 1038026016
I0403 16:14:45.732062 17555 layer_factory.hpp:77] Creating layer inception_4c/3x3
I0403 16:14:45.732085 17555 net.cpp:91] Creating Layer inception_4c/3x3
I0403 16:14:45.732105 17555 net.cpp:425] inception_4c/3x3 <- inception_4c/3x3_reduce
I0403 16:14:45.732125 17555 net.cpp:399] inception_4c/3x3 -> inception_4c/3x3
I0403 16:14:45.735821 17555 net.cpp:141] Setting up inception_4c/3x3
I0403 16:14:45.735877 17555 net.cpp:148] Top shape: 24 256 14 14 (1204224)
I0403 16:14:45.735896 17555 net.cpp:156] Memory required for data: 1042842912
I0403 16:14:45.735927 17555 layer_factory.hpp:77] Creating layer inception_4c/relu_3x3
I0403 16:14:45.735949 17555 net.cpp:91] Creating Layer inception_4c/relu_3x3
I0403 16:14:45.735966 17555 net.cpp:425] inception_4c/relu_3x3 <- inception_4c/3x3
I0403 16:14:45.735987 17555 net.cpp:386] inception_4c/relu_3x3 -> inception_4c/3x3 (in-place)
I0403 16:14:45.736166 17555 net.cpp:141] Setting up inception_4c/relu_3x3
I0403 16:14:45.736191 17555 net.cpp:148] Top shape: 24 256 14 14 (1204224)
I0403 16:14:45.736207 17555 net.cpp:156] Memory required for data: 1047659808
I0403 16:14:45.736222 17555 layer_factory.hpp:77] Creating layer inception_4c/5x5_reduce
I0403 16:14:45.736246 17555 net.cpp:91] Creating Layer inception_4c/5x5_reduce
I0403 16:14:45.736265 17555 net.cpp:425] inception_4c/5x5_reduce <- inception_4b/output_inception_4b/output_0_split_2
I0403 16:14:45.736287 17555 net.cpp:399] inception_4c/5x5_reduce -> inception_4c/5x5_reduce
I0403 16:14:45.737350 17555 net.cpp:141] Setting up inception_4c/5x5_reduce
I0403 16:14:45.737378 17555 net.cpp:148] Top shape: 24 24 14 14 (112896)
I0403 16:14:45.737396 17555 net.cpp:156] Memory required for data: 1048111392
I0403 16:14:45.737413 17555 layer_factory.hpp:77] Creating layer inception_4c/relu_5x5_reduce
I0403 16:14:45.737432 17555 net.cpp:91] Creating Layer inception_4c/relu_5x5_reduce
I0403 16:14:45.737449 17555 net.cpp:425] inception_4c/relu_5x5_reduce <- inception_4c/5x5_reduce
I0403 16:14:45.737469 17555 net.cpp:386] inception_4c/relu_5x5_reduce -> inception_4c/5x5_reduce (in-place)
I0403 16:14:45.737654 17555 net.cpp:141] Setting up inception_4c/relu_5x5_reduce
I0403 16:14:45.737679 17555 net.cpp:148] Top shape: 24 24 14 14 (112896)
I0403 16:14:45.737695 17555 net.cpp:156] Memory required for data: 1048562976
I0403 16:14:45.737711 17555 layer_factory.hpp:77] Creating layer inception_4c/5x5
I0403 16:14:45.737733 17555 net.cpp:91] Creating Layer inception_4c/5x5
I0403 16:14:45.737751 17555 net.cpp:425] inception_4c/5x5 <- inception_4c/5x5_reduce
I0403 16:14:45.737774 17555 net.cpp:399] inception_4c/5x5 -> inception_4c/5x5
I0403 16:14:45.738994 17555 net.cpp:141] Setting up inception_4c/5x5
I0403 16:14:45.739022 17555 net.cpp:148] Top shape: 24 64 14 14 (301056)
I0403 16:14:45.739037 17555 net.cpp:156] Memory required for data: 1049767200
I0403 16:14:45.739055 17555 layer_factory.hpp:77] Creating layer inception_4c/relu_5x5
I0403 16:14:45.739075 17555 net.cpp:91] Creating Layer inception_4c/relu_5x5
I0403 16:14:45.739094 17555 net.cpp:425] inception_4c/relu_5x5 <- inception_4c/5x5
I0403 16:14:45.739111 17555 net.cpp:386] inception_4c/relu_5x5 -> inception_4c/5x5 (in-place)
I0403 16:14:45.739394 17555 net.cpp:141] Setting up inception_4c/relu_5x5
I0403 16:14:45.739421 17555 net.cpp:148] Top shape: 24 64 14 14 (301056)
I0403 16:14:45.739437 17555 net.cpp:156] Memory required for data: 1050971424
I0403 16:14:45.739454 17555 layer_factory.hpp:77] Creating layer inception_4c/pool
I0403 16:14:45.739473 17555 net.cpp:91] Creating Layer inception_4c/pool
I0403 16:14:45.739491 17555 net.cpp:425] inception_4c/pool <- inception_4b/output_inception_4b/output_0_split_3
I0403 16:14:45.739509 17555 net.cpp:399] inception_4c/pool -> inception_4c/pool
I0403 16:14:45.739575 17555 net.cpp:141] Setting up inception_4c/pool
I0403 16:14:45.739599 17555 net.cpp:148] Top shape: 24 512 14 14 (2408448)
I0403 16:14:45.739621 17555 net.cpp:156] Memory required for data: 1060605216
I0403 16:14:45.739635 17555 layer_factory.hpp:77] Creating layer inception_4c/pool_proj
I0403 16:14:45.739658 17555 net.cpp:91] Creating Layer inception_4c/pool_proj
I0403 16:14:45.739676 17555 net.cpp:425] inception_4c/pool_proj <- inception_4c/pool
I0403 16:14:45.739698 17555 net.cpp:399] inception_4c/pool_proj -> inception_4c/pool_proj
I0403 16:14:45.740931 17555 net.cpp:141] Setting up inception_4c/pool_proj
I0403 16:14:45.740960 17555 net.cpp:148] Top shape: 24 64 14 14 (301056)
I0403 16:14:45.740990 17555 net.cpp:156] Memory required for data: 1061809440
I0403 16:14:45.741010 17555 layer_factory.hpp:77] Creating layer inception_4c/relu_pool_proj
I0403 16:14:45.741029 17555 net.cpp:91] Creating Layer inception_4c/relu_pool_proj
I0403 16:14:45.741045 17555 net.cpp:425] inception_4c/relu_pool_proj <- inception_4c/pool_proj
I0403 16:14:45.741065 17555 net.cpp:386] inception_4c/relu_pool_proj -> inception_4c/pool_proj (in-place)
I0403 16:14:45.741247 17555 net.cpp:141] Setting up inception_4c/relu_pool_proj
I0403 16:14:45.741272 17555 net.cpp:148] Top shape: 24 64 14 14 (301056)
I0403 16:14:45.741288 17555 net.cpp:156] Memory required for data: 1063013664
I0403 16:14:45.741303 17555 layer_factory.hpp:77] Creating layer inception_4c/output
I0403 16:14:45.741320 17555 net.cpp:91] Creating Layer inception_4c/output
I0403 16:14:45.741336 17555 net.cpp:425] inception_4c/output <- inception_4c/1x1
I0403 16:14:45.741354 17555 net.cpp:425] inception_4c/output <- inception_4c/3x3
I0403 16:14:45.741371 17555 net.cpp:425] inception_4c/output <- inception_4c/5x5
I0403 16:14:45.741387 17555 net.cpp:425] inception_4c/output <- inception_4c/pool_proj
I0403 16:14:45.741406 17555 net.cpp:399] inception_4c/output -> inception_4c/output
I0403 16:14:45.741456 17555 net.cpp:141] Setting up inception_4c/output
I0403 16:14:45.741479 17555 net.cpp:148] Top shape: 24 512 14 14 (2408448)
I0403 16:14:45.741495 17555 net.cpp:156] Memory required for data: 1072647456
I0403 16:14:45.741510 17555 layer_factory.hpp:77] Creating layer inception_4c/output_inception_4c/output_0_split
I0403 16:14:45.741526 17555 net.cpp:91] Creating Layer inception_4c/output_inception_4c/output_0_split
I0403 16:14:45.741542 17555 net.cpp:425] inception_4c/output_inception_4c/output_0_split <- inception_4c/output
I0403 16:14:45.741562 17555 net.cpp:399] inception_4c/output_inception_4c/output_0_split -> inception_4c/output_inception_4c/output_0_split_0
I0403 16:14:45.741585 17555 net.cpp:399] inception_4c/output_inception_4c/output_0_split -> inception_4c/output_inception_4c/output_0_split_1
I0403 16:14:45.741608 17555 net.cpp:399] inception_4c/output_inception_4c/output_0_split -> inception_4c/output_inception_4c/output_0_split_2
I0403 16:14:45.741631 17555 net.cpp:399] inception_4c/output_inception_4c/output_0_split -> inception_4c/output_inception_4c/output_0_split_3
I0403 16:14:45.741720 17555 net.cpp:141] Setting up inception_4c/output_inception_4c/output_0_split
I0403 16:14:45.741745 17555 net.cpp:148] Top shape: 24 512 14 14 (2408448)
I0403 16:14:45.741762 17555 net.cpp:148] Top shape: 24 512 14 14 (2408448)
I0403 16:14:45.741780 17555 net.cpp:148] Top shape: 24 512 14 14 (2408448)
I0403 16:14:45.741796 17555 net.cpp:148] Top shape: 24 512 14 14 (2408448)
I0403 16:14:45.741812 17555 net.cpp:156] Memory required for data: 1111182624
I0403 16:14:45.741827 17555 layer_factory.hpp:77] Creating layer inception_4d/1x1
I0403 16:14:45.741850 17555 net.cpp:91] Creating Layer inception_4d/1x1
I0403 16:14:45.741868 17555 net.cpp:425] inception_4d/1x1 <- inception_4c/output_inception_4c/output_0_split_0
I0403 16:14:45.741888 17555 net.cpp:399] inception_4d/1x1 -> inception_4d/1x1
I0403 16:14:45.743242 17555 net.cpp:141] Setting up inception_4d/1x1
I0403 16:14:45.743270 17555 net.cpp:148] Top shape: 24 112 14 14 (526848)
I0403 16:14:45.743288 17555 net.cpp:156] Memory required for data: 1113290016
I0403 16:14:45.743305 17555 layer_factory.hpp:77] Creating layer inception_4d/relu_1x1
I0403 16:14:45.743325 17555 net.cpp:91] Creating Layer inception_4d/relu_1x1
I0403 16:14:45.743345 17555 net.cpp:425] inception_4d/relu_1x1 <- inception_4d/1x1
I0403 16:14:45.743361 17555 net.cpp:386] inception_4d/relu_1x1 -> inception_4d/1x1 (in-place)
I0403 16:14:45.743544 17555 net.cpp:141] Setting up inception_4d/relu_1x1
I0403 16:14:45.743569 17555 net.cpp:148] Top shape: 24 112 14 14 (526848)
I0403 16:14:45.743585 17555 net.cpp:156] Memory required for data: 1115397408
I0403 16:14:45.743600 17555 layer_factory.hpp:77] Creating layer inception_4d/3x3_reduce
I0403 16:14:45.743640 17555 net.cpp:91] Creating Layer inception_4d/3x3_reduce
I0403 16:14:45.743659 17555 net.cpp:425] inception_4d/3x3_reduce <- inception_4c/output_inception_4c/output_0_split_1
I0403 16:14:45.743681 17555 net.cpp:399] inception_4d/3x3_reduce -> inception_4d/3x3_reduce
I0403 16:14:45.745198 17555 net.cpp:141] Setting up inception_4d/3x3_reduce
I0403 16:14:45.745225 17555 net.cpp:148] Top shape: 24 144 14 14 (677376)
I0403 16:14:45.745241 17555 net.cpp:156] Memory required for data: 1118106912
I0403 16:14:45.745260 17555 layer_factory.hpp:77] Creating layer inception_4d/relu_3x3_reduce
I0403 16:14:45.745280 17555 net.cpp:91] Creating Layer inception_4d/relu_3x3_reduce
I0403 16:14:45.745298 17555 net.cpp:425] inception_4d/relu_3x3_reduce <- inception_4d/3x3_reduce
I0403 16:14:45.745316 17555 net.cpp:386] inception_4d/relu_3x3_reduce -> inception_4d/3x3_reduce (in-place)
I0403 16:14:45.745595 17555 net.cpp:141] Setting up inception_4d/relu_3x3_reduce
I0403 16:14:45.745631 17555 net.cpp:148] Top shape: 24 144 14 14 (677376)
I0403 16:14:45.745648 17555 net.cpp:156] Memory required for data: 1120816416
I0403 16:14:45.745663 17555 layer_factory.hpp:77] Creating layer inception_4d/3x3
I0403 16:14:45.745685 17555 net.cpp:91] Creating Layer inception_4d/3x3
I0403 16:14:45.745703 17555 net.cpp:425] inception_4d/3x3 <- inception_4d/3x3_reduce
I0403 16:14:45.745724 17555 net.cpp:399] inception_4d/3x3 -> inception_4d/3x3
I0403 16:14:45.749770 17555 net.cpp:141] Setting up inception_4d/3x3
I0403 16:14:45.749802 17555 net.cpp:148] Top shape: 24 288 14 14 (1354752)
I0403 16:14:45.749819 17555 net.cpp:156] Memory required for data: 1126235424
I0403 16:14:45.749837 17555 layer_factory.hpp:77] Creating layer inception_4d/relu_3x3
I0403 16:14:45.749856 17555 net.cpp:91] Creating Layer inception_4d/relu_3x3
I0403 16:14:45.749873 17555 net.cpp:425] inception_4d/relu_3x3 <- inception_4d/3x3
I0403 16:14:45.749891 17555 net.cpp:386] inception_4d/relu_3x3 -> inception_4d/3x3 (in-place)
I0403 16:14:45.750072 17555 net.cpp:141] Setting up inception_4d/relu_3x3
I0403 16:14:45.750097 17555 net.cpp:148] Top shape: 24 288 14 14 (1354752)
I0403 16:14:45.750111 17555 net.cpp:156] Memory required for data: 1131654432
I0403 16:14:45.750126 17555 layer_factory.hpp:77] Creating layer inception_4d/5x5_reduce
I0403 16:14:45.750149 17555 net.cpp:91] Creating Layer inception_4d/5x5_reduce
I0403 16:14:45.750167 17555 net.cpp:425] inception_4d/5x5_reduce <- inception_4c/output_inception_4c/output_0_split_2
I0403 16:14:45.750190 17555 net.cpp:399] inception_4d/5x5_reduce -> inception_4d/5x5_reduce
I0403 16:14:45.751286 17555 net.cpp:141] Setting up inception_4d/5x5_reduce
I0403 16:14:45.751312 17555 net.cpp:148] Top shape: 24 32 14 14 (150528)
I0403 16:14:45.751328 17555 net.cpp:156] Memory required for data: 1132256544
I0403 16:14:45.751349 17555 layer_factory.hpp:77] Creating layer inception_4d/relu_5x5_reduce
I0403 16:14:45.751368 17555 net.cpp:91] Creating Layer inception_4d/relu_5x5_reduce
I0403 16:14:45.751384 17555 net.cpp:425] inception_4d/relu_5x5_reduce <- inception_4d/5x5_reduce
I0403 16:14:45.751400 17555 net.cpp:386] inception_4d/relu_5x5_reduce -> inception_4d/5x5_reduce (in-place)
I0403 16:14:45.751582 17555 net.cpp:141] Setting up inception_4d/relu_5x5_reduce
I0403 16:14:45.751610 17555 net.cpp:148] Top shape: 24 32 14 14 (150528)
I0403 16:14:45.751627 17555 net.cpp:156] Memory required for data: 1132858656
I0403 16:14:45.751642 17555 layer_factory.hpp:77] Creating layer inception_4d/5x5
I0403 16:14:45.751663 17555 net.cpp:91] Creating Layer inception_4d/5x5
I0403 16:14:45.751682 17555 net.cpp:425] inception_4d/5x5 <- inception_4d/5x5_reduce
I0403 16:14:45.751703 17555 net.cpp:399] inception_4d/5x5 -> inception_4d/5x5
I0403 16:14:45.753109 17555 net.cpp:141] Setting up inception_4d/5x5
I0403 16:14:45.753136 17555 net.cpp:148] Top shape: 24 64 14 14 (301056)
I0403 16:14:45.753152 17555 net.cpp:156] Memory required for data: 1134062880
I0403 16:14:45.753171 17555 layer_factory.hpp:77] Creating layer inception_4d/relu_5x5
I0403 16:14:45.753204 17555 net.cpp:91] Creating Layer inception_4d/relu_5x5
I0403 16:14:45.753221 17555 net.cpp:425] inception_4d/relu_5x5 <- inception_4d/5x5
I0403 16:14:45.753242 17555 net.cpp:386] inception_4d/relu_5x5 -> inception_4d/5x5 (in-place)
I0403 16:14:45.753531 17555 net.cpp:141] Setting up inception_4d/relu_5x5
I0403 16:14:45.753558 17555 net.cpp:148] Top shape: 24 64 14 14 (301056)
I0403 16:14:45.753574 17555 net.cpp:156] Memory required for data: 1135267104
I0403 16:14:45.753588 17555 layer_factory.hpp:77] Creating layer inception_4d/pool
I0403 16:14:45.753609 17555 net.cpp:91] Creating Layer inception_4d/pool
I0403 16:14:45.753628 17555 net.cpp:425] inception_4d/pool <- inception_4c/output_inception_4c/output_0_split_3
I0403 16:14:45.753648 17555 net.cpp:399] inception_4d/pool -> inception_4d/pool
I0403 16:14:45.753715 17555 net.cpp:141] Setting up inception_4d/pool
I0403 16:14:45.753738 17555 net.cpp:148] Top shape: 24 512 14 14 (2408448)
I0403 16:14:45.753753 17555 net.cpp:156] Memory required for data: 1144900896
I0403 16:14:45.753768 17555 layer_factory.hpp:77] Creating layer inception_4d/pool_proj
I0403 16:14:45.753792 17555 net.cpp:91] Creating Layer inception_4d/pool_proj
I0403 16:14:45.753821 17555 net.cpp:425] inception_4d/pool_proj <- inception_4d/pool
I0403 16:14:45.753841 17555 net.cpp:399] inception_4d/pool_proj -> inception_4d/pool_proj
I0403 16:14:45.755534 17555 net.cpp:141] Setting up inception_4d/pool_proj
I0403 16:14:45.755565 17555 net.cpp:148] Top shape: 24 64 14 14 (301056)
I0403 16:14:45.755583 17555 net.cpp:156] Memory required for data: 1146105120
I0403 16:14:45.755600 17555 layer_factory.hpp:77] Creating layer inception_4d/relu_pool_proj
I0403 16:14:45.755632 17555 net.cpp:91] Creating Layer inception_4d/relu_pool_proj
I0403 16:14:45.755650 17555 net.cpp:425] inception_4d/relu_pool_proj <- inception_4d/pool_proj
I0403 16:14:45.755667 17555 net.cpp:386] inception_4d/relu_pool_proj -> inception_4d/pool_proj (in-place)
I0403 16:14:45.755847 17555 net.cpp:141] Setting up inception_4d/relu_pool_proj
I0403 16:14:45.755873 17555 net.cpp:148] Top shape: 24 64 14 14 (301056)
I0403 16:14:45.755888 17555 net.cpp:156] Memory required for data: 1147309344
I0403 16:14:45.755903 17555 layer_factory.hpp:77] Creating layer inception_4d/output
I0403 16:14:45.755920 17555 net.cpp:91] Creating Layer inception_4d/output
I0403 16:14:45.755938 17555 net.cpp:425] inception_4d/output <- inception_4d/1x1
I0403 16:14:45.755954 17555 net.cpp:425] inception_4d/output <- inception_4d/3x3
I0403 16:14:45.755970 17555 net.cpp:425] inception_4d/output <- inception_4d/5x5
I0403 16:14:45.755986 17555 net.cpp:425] inception_4d/output <- inception_4d/pool_proj
I0403 16:14:45.756006 17555 net.cpp:399] inception_4d/output -> inception_4d/output
I0403 16:14:45.756052 17555 net.cpp:141] Setting up inception_4d/output
I0403 16:14:45.756078 17555 net.cpp:148] Top shape: 24 528 14 14 (2483712)
I0403 16:14:45.756094 17555 net.cpp:156] Memory required for data: 1157244192
I0403 16:14:45.756108 17555 layer_factory.hpp:77] Creating layer inception_4d/output_inception_4d/output_0_split
I0403 16:14:45.756125 17555 net.cpp:91] Creating Layer inception_4d/output_inception_4d/output_0_split
I0403 16:14:45.756140 17555 net.cpp:425] inception_4d/output_inception_4d/output_0_split <- inception_4d/output
I0403 16:14:45.756161 17555 net.cpp:399] inception_4d/output_inception_4d/output_0_split -> inception_4d/output_inception_4d/output_0_split_0
I0403 16:14:45.756183 17555 net.cpp:399] inception_4d/output_inception_4d/output_0_split -> inception_4d/output_inception_4d/output_0_split_1
I0403 16:14:45.756204 17555 net.cpp:399] inception_4d/output_inception_4d/output_0_split -> inception_4d/output_inception_4d/output_0_split_2
I0403 16:14:45.756224 17555 net.cpp:399] inception_4d/output_inception_4d/output_0_split -> inception_4d/output_inception_4d/output_0_split_3
I0403 16:14:45.756244 17555 net.cpp:399] inception_4d/output_inception_4d/output_0_split -> inception_4d/output_inception_4d/output_0_split_4
I0403 16:14:45.756345 17555 net.cpp:141] Setting up inception_4d/output_inception_4d/output_0_split
I0403 16:14:45.756381 17555 net.cpp:148] Top shape: 24 528 14 14 (2483712)
I0403 16:14:45.756399 17555 net.cpp:148] Top shape: 24 528 14 14 (2483712)
I0403 16:14:45.756415 17555 net.cpp:148] Top shape: 24 528 14 14 (2483712)
I0403 16:14:45.756431 17555 net.cpp:148] Top shape: 24 528 14 14 (2483712)
I0403 16:14:45.756445 17555 net.cpp:148] Top shape: 24 528 14 14 (2483712)
I0403 16:14:45.756459 17555 net.cpp:156] Memory required for data: 1206918432
I0403 16:14:45.756474 17555 layer_factory.hpp:77] Creating layer loss2/ave_pool
I0403 16:14:45.756492 17555 net.cpp:91] Creating Layer loss2/ave_pool
I0403 16:14:45.756510 17555 net.cpp:425] loss2/ave_pool <- inception_4d/output_inception_4d/output_0_split_0
I0403 16:14:45.756530 17555 net.cpp:399] loss2/ave_pool -> loss2/ave_pool
I0403 16:14:45.756831 17555 net.cpp:141] Setting up loss2/ave_pool
I0403 16:14:45.756860 17555 net.cpp:148] Top shape: 24 528 4 4 (202752)
I0403 16:14:45.756877 17555 net.cpp:156] Memory required for data: 1207729440
I0403 16:14:45.756891 17555 layer_factory.hpp:77] Creating layer loss2/conv
I0403 16:14:45.756914 17555 net.cpp:91] Creating Layer loss2/conv
I0403 16:14:45.756933 17555 net.cpp:425] loss2/conv <- loss2/ave_pool
I0403 16:14:45.756953 17555 net.cpp:399] loss2/conv -> loss2/conv
I0403 16:14:45.758760 17555 net.cpp:141] Setting up loss2/conv
I0403 16:14:45.758788 17555 net.cpp:148] Top shape: 24 128 4 4 (49152)
I0403 16:14:45.758817 17555 net.cpp:156] Memory required for data: 1207926048
I0403 16:14:45.758836 17555 layer_factory.hpp:77] Creating layer loss2/relu_conv
I0403 16:14:45.758859 17555 net.cpp:91] Creating Layer loss2/relu_conv
I0403 16:14:45.758877 17555 net.cpp:425] loss2/relu_conv <- loss2/conv
I0403 16:14:45.758896 17555 net.cpp:386] loss2/relu_conv -> loss2/conv (in-place)
I0403 16:14:45.759186 17555 net.cpp:141] Setting up loss2/relu_conv
I0403 16:14:45.759212 17555 net.cpp:148] Top shape: 24 128 4 4 (49152)
I0403 16:14:45.759227 17555 net.cpp:156] Memory required for data: 1208122656
I0403 16:14:45.759243 17555 layer_factory.hpp:77] Creating layer loss2/fc
I0403 16:14:45.759265 17555 net.cpp:91] Creating Layer loss2/fc
I0403 16:14:45.759282 17555 net.cpp:425] loss2/fc <- loss2/conv
I0403 16:14:45.759301 17555 net.cpp:399] loss2/fc -> loss2/fc
I0403 16:14:45.776119 17555 net.cpp:141] Setting up loss2/fc
I0403 16:14:45.776152 17555 net.cpp:148] Top shape: 24 1024 (24576)
I0403 16:14:45.776170 17555 net.cpp:156] Memory required for data: 1208220960
I0403 16:14:45.776187 17555 layer_factory.hpp:77] Creating layer loss2/relu_fc
I0403 16:14:45.776208 17555 net.cpp:91] Creating Layer loss2/relu_fc
I0403 16:14:45.776226 17555 net.cpp:425] loss2/relu_fc <- loss2/fc
I0403 16:14:45.776257 17555 net.cpp:386] loss2/relu_fc -> loss2/fc (in-place)
I0403 16:14:45.776545 17555 net.cpp:141] Setting up loss2/relu_fc
I0403 16:14:45.776571 17555 net.cpp:148] Top shape: 24 1024 (24576)
I0403 16:14:45.776589 17555 net.cpp:156] Memory required for data: 1208319264
I0403 16:14:45.776608 17555 layer_factory.hpp:77] Creating layer loss2/drop_fc
I0403 16:14:45.776628 17555 net.cpp:91] Creating Layer loss2/drop_fc
I0403 16:14:45.776645 17555 net.cpp:425] loss2/drop_fc <- loss2/fc
I0403 16:14:45.776665 17555 net.cpp:386] loss2/drop_fc -> loss2/fc (in-place)
I0403 16:14:45.776713 17555 net.cpp:141] Setting up loss2/drop_fc
I0403 16:14:45.776736 17555 net.cpp:148] Top shape: 24 1024 (24576)
I0403 16:14:45.776752 17555 net.cpp:156] Memory required for data: 1208417568
I0403 16:14:45.776768 17555 layer_factory.hpp:77] Creating layer loss2/classifier_plantvillage
I0403 16:14:45.776789 17555 net.cpp:91] Creating Layer loss2/classifier_plantvillage
I0403 16:14:45.776808 17555 net.cpp:425] loss2/classifier_plantvillage <- loss2/fc
I0403 16:14:45.776828 17555 net.cpp:399] loss2/classifier_plantvillage -> loss2/classifier_plantvillage
I0403 16:14:45.777209 17555 net.cpp:141] Setting up loss2/classifier_plantvillage
I0403 16:14:45.777235 17555 net.cpp:148] Top shape: 24 38 (912)
I0403 16:14:45.777250 17555 net.cpp:156] Memory required for data: 1208421216
I0403 16:14:45.777282 17555 layer_factory.hpp:77] Creating layer loss2/classifier_plantvillage_loss2/classifier_plantvillage_0_split
I0403 16:14:45.777304 17555 net.cpp:91] Creating Layer loss2/classifier_plantvillage_loss2/classifier_plantvillage_0_split
I0403 16:14:45.777321 17555 net.cpp:425] loss2/classifier_plantvillage_loss2/classifier_plantvillage_0_split <- loss2/classifier_plantvillage
I0403 16:14:45.777340 17555 net.cpp:399] loss2/classifier_plantvillage_loss2/classifier_plantvillage_0_split -> loss2/classifier_plantvillage_loss2/classifier_plantvillage_0_split_0
I0403 16:14:45.777361 17555 net.cpp:399] loss2/classifier_plantvillage_loss2/classifier_plantvillage_0_split -> loss2/classifier_plantvillage_loss2/classifier_plantvillage_0_split_1
I0403 16:14:45.777382 17555 net.cpp:399] loss2/classifier_plantvillage_loss2/classifier_plantvillage_0_split -> loss2/classifier_plantvillage_loss2/classifier_plantvillage_0_split_2
I0403 16:14:45.777458 17555 net.cpp:141] Setting up loss2/classifier_plantvillage_loss2/classifier_plantvillage_0_split
I0403 16:14:45.777482 17555 net.cpp:148] Top shape: 24 38 (912)
I0403 16:14:45.777500 17555 net.cpp:148] Top shape: 24 38 (912)
I0403 16:14:45.777516 17555 net.cpp:148] Top shape: 24 38 (912)
I0403 16:14:45.777530 17555 net.cpp:156] Memory required for data: 1208432160
I0403 16:14:45.777544 17555 layer_factory.hpp:77] Creating layer inception_4e/1x1
I0403 16:14:45.777564 17555 net.cpp:91] Creating Layer inception_4e/1x1
I0403 16:14:45.777580 17555 net.cpp:425] inception_4e/1x1 <- inception_4d/output_inception_4d/output_0_split_1
I0403 16:14:45.777601 17555 net.cpp:399] inception_4e/1x1 -> inception_4e/1x1
I0403 16:14:45.779407 17555 net.cpp:141] Setting up inception_4e/1x1
I0403 16:14:45.779434 17555 net.cpp:148] Top shape: 24 256 14 14 (1204224)
I0403 16:14:45.779451 17555 net.cpp:156] Memory required for data: 1213249056
I0403 16:14:45.779469 17555 layer_factory.hpp:77] Creating layer inception_4e/relu_1x1
I0403 16:14:45.779489 17555 net.cpp:91] Creating Layer inception_4e/relu_1x1
I0403 16:14:45.779506 17555 net.cpp:425] inception_4e/relu_1x1 <- inception_4e/1x1
I0403 16:14:45.779525 17555 net.cpp:386] inception_4e/relu_1x1 -> inception_4e/1x1 (in-place)
I0403 16:14:45.779829 17555 net.cpp:141] Setting up inception_4e/relu_1x1
I0403 16:14:45.779856 17555 net.cpp:148] Top shape: 24 256 14 14 (1204224)
I0403 16:14:45.779872 17555 net.cpp:156] Memory required for data: 1218065952
I0403 16:14:45.779886 17555 layer_factory.hpp:77] Creating layer inception_4e/3x3_reduce
I0403 16:14:45.779908 17555 net.cpp:91] Creating Layer inception_4e/3x3_reduce
I0403 16:14:45.779927 17555 net.cpp:425] inception_4e/3x3_reduce <- inception_4d/output_inception_4d/output_0_split_2
I0403 16:14:45.779949 17555 net.cpp:399] inception_4e/3x3_reduce -> inception_4e/3x3_reduce
I0403 16:14:45.782028 17555 net.cpp:141] Setting up inception_4e/3x3_reduce
I0403 16:14:45.782058 17555 net.cpp:148] Top shape: 24 160 14 14 (752640)
I0403 16:14:45.782074 17555 net.cpp:156] Memory required for data: 1221076512
I0403 16:14:45.782094 17555 layer_factory.hpp:77] Creating layer inception_4e/relu_3x3_reduce
I0403 16:14:45.782112 17555 net.cpp:91] Creating Layer inception_4e/relu_3x3_reduce
I0403 16:14:45.782132 17555 net.cpp:425] inception_4e/relu_3x3_reduce <- inception_4e/3x3_reduce
I0403 16:14:45.782151 17555 net.cpp:386] inception_4e/relu_3x3_reduce -> inception_4e/3x3_reduce (in-place)
I0403 16:14:45.782335 17555 net.cpp:141] Setting up inception_4e/relu_3x3_reduce
I0403 16:14:45.782361 17555 net.cpp:148] Top shape: 24 160 14 14 (752640)
I0403 16:14:45.782377 17555 net.cpp:156] Memory required for data: 1224087072
I0403 16:14:45.782392 17555 layer_factory.hpp:77] Creating layer inception_4e/3x3
I0403 16:14:45.782415 17555 net.cpp:91] Creating Layer inception_4e/3x3
I0403 16:14:45.782434 17555 net.cpp:425] inception_4e/3x3 <- inception_4e/3x3_reduce
I0403 16:14:45.782456 17555 net.cpp:399] inception_4e/3x3 -> inception_4e/3x3
I0403 16:14:45.787343 17555 net.cpp:141] Setting up inception_4e/3x3
I0403 16:14:45.787384 17555 net.cpp:148] Top shape: 24 320 14 14 (1505280)
I0403 16:14:45.787403 17555 net.cpp:156] Memory required for data: 1230108192
I0403 16:14:45.787421 17555 layer_factory.hpp:77] Creating layer inception_4e/relu_3x3
I0403 16:14:45.787443 17555 net.cpp:91] Creating Layer inception_4e/relu_3x3
I0403 16:14:45.787462 17555 net.cpp:425] inception_4e/relu_3x3 <- inception_4e/3x3
I0403 16:14:45.787480 17555 net.cpp:386] inception_4e/relu_3x3 -> inception_4e/3x3 (in-place)
I0403 16:14:45.787783 17555 net.cpp:141] Setting up inception_4e/relu_3x3
I0403 16:14:45.787811 17555 net.cpp:148] Top shape: 24 320 14 14 (1505280)
I0403 16:14:45.787827 17555 net.cpp:156] Memory required for data: 1236129312
I0403 16:14:45.787842 17555 layer_factory.hpp:77] Creating layer inception_4e/5x5_reduce
I0403 16:14:45.787868 17555 net.cpp:91] Creating Layer inception_4e/5x5_reduce
I0403 16:14:45.787888 17555 net.cpp:425] inception_4e/5x5_reduce <- inception_4d/output_inception_4d/output_0_split_3
I0403 16:14:45.787906 17555 net.cpp:399] inception_4e/5x5_reduce -> inception_4e/5x5_reduce
I0403 16:14:45.788971 17555 net.cpp:141] Setting up inception_4e/5x5_reduce
I0403 16:14:45.789000 17555 net.cpp:148] Top shape: 24 32 14 14 (150528)
I0403 16:14:45.789016 17555 net.cpp:156] Memory required for data: 1236731424
I0403 16:14:45.789036 17555 layer_factory.hpp:77] Creating layer inception_4e/relu_5x5_reduce
I0403 16:14:45.789055 17555 net.cpp:91] Creating Layer inception_4e/relu_5x5_reduce
I0403 16:14:45.789072 17555 net.cpp:425] inception_4e/relu_5x5_reduce <- inception_4e/5x5_reduce
I0403 16:14:45.789091 17555 net.cpp:386] inception_4e/relu_5x5_reduce -> inception_4e/5x5_reduce (in-place)
I0403 16:14:45.789386 17555 net.cpp:141] Setting up inception_4e/relu_5x5_reduce
I0403 16:14:45.789413 17555 net.cpp:148] Top shape: 24 32 14 14 (150528)
I0403 16:14:45.789429 17555 net.cpp:156] Memory required for data: 1237333536
I0403 16:14:45.789445 17555 layer_factory.hpp:77] Creating layer inception_4e/5x5
I0403 16:14:45.789482 17555 net.cpp:91] Creating Layer inception_4e/5x5
I0403 16:14:45.789502 17555 net.cpp:425] inception_4e/5x5 <- inception_4e/5x5_reduce
I0403 16:14:45.789523 17555 net.cpp:399] inception_4e/5x5 -> inception_4e/5x5
I0403 16:14:45.791380 17555 net.cpp:141] Setting up inception_4e/5x5
I0403 16:14:45.791411 17555 net.cpp:148] Top shape: 24 128 14 14 (602112)
I0403 16:14:45.791429 17555 net.cpp:156] Memory required for data: 1239741984
I0403 16:14:45.791448 17555 layer_factory.hpp:77] Creating layer inception_4e/relu_5x5
I0403 16:14:45.791468 17555 net.cpp:91] Creating Layer inception_4e/relu_5x5
I0403 16:14:45.791484 17555 net.cpp:425] inception_4e/relu_5x5 <- inception_4e/5x5
I0403 16:14:45.791504 17555 net.cpp:386] inception_4e/relu_5x5 -> inception_4e/5x5 (in-place)
I0403 16:14:45.791707 17555 net.cpp:141] Setting up inception_4e/relu_5x5
I0403 16:14:45.791733 17555 net.cpp:148] Top shape: 24 128 14 14 (602112)
I0403 16:14:45.791749 17555 net.cpp:156] Memory required for data: 1242150432
I0403 16:14:45.791765 17555 layer_factory.hpp:77] Creating layer inception_4e/pool
I0403 16:14:45.791784 17555 net.cpp:91] Creating Layer inception_4e/pool
I0403 16:14:45.791803 17555 net.cpp:425] inception_4e/pool <- inception_4d/output_inception_4d/output_0_split_4
I0403 16:14:45.791822 17555 net.cpp:399] inception_4e/pool -> inception_4e/pool
I0403 16:14:45.791893 17555 net.cpp:141] Setting up inception_4e/pool
I0403 16:14:45.791918 17555 net.cpp:148] Top shape: 24 528 14 14 (2483712)
I0403 16:14:45.791934 17555 net.cpp:156] Memory required for data: 1252085280
I0403 16:14:45.791949 17555 layer_factory.hpp:77] Creating layer inception_4e/pool_proj
I0403 16:14:45.791973 17555 net.cpp:91] Creating Layer inception_4e/pool_proj
I0403 16:14:45.791991 17555 net.cpp:425] inception_4e/pool_proj <- inception_4e/pool
I0403 16:14:45.792013 17555 net.cpp:399] inception_4e/pool_proj -> inception_4e/pool_proj
I0403 16:14:45.793498 17555 net.cpp:141] Setting up inception_4e/pool_proj
I0403 16:14:45.793529 17555 net.cpp:148] Top shape: 24 128 14 14 (602112)
I0403 16:14:45.793560 17555 net.cpp:156] Memory required for data: 1254493728
I0403 16:14:45.793579 17555 layer_factory.hpp:77] Creating layer inception_4e/relu_pool_proj
I0403 16:14:45.793598 17555 net.cpp:91] Creating Layer inception_4e/relu_pool_proj
I0403 16:14:45.793620 17555 net.cpp:425] inception_4e/relu_pool_proj <- inception_4e/pool_proj
I0403 16:14:45.793639 17555 net.cpp:386] inception_4e/relu_pool_proj -> inception_4e/pool_proj (in-place)
I0403 16:14:45.793931 17555 net.cpp:141] Setting up inception_4e/relu_pool_proj
I0403 16:14:45.793959 17555 net.cpp:148] Top shape: 24 128 14 14 (602112)
I0403 16:14:45.793977 17555 net.cpp:156] Memory required for data: 1256902176
I0403 16:14:45.793990 17555 layer_factory.hpp:77] Creating layer inception_4e/output
I0403 16:14:45.794008 17555 net.cpp:91] Creating Layer inception_4e/output
I0403 16:14:45.794025 17555 net.cpp:425] inception_4e/output <- inception_4e/1x1
I0403 16:14:45.794044 17555 net.cpp:425] inception_4e/output <- inception_4e/3x3
I0403 16:14:45.794059 17555 net.cpp:425] inception_4e/output <- inception_4e/5x5
I0403 16:14:45.794075 17555 net.cpp:425] inception_4e/output <- inception_4e/pool_proj
I0403 16:14:45.794093 17555 net.cpp:399] inception_4e/output -> inception_4e/output
I0403 16:14:45.794145 17555 net.cpp:141] Setting up inception_4e/output
I0403 16:14:45.794170 17555 net.cpp:148] Top shape: 24 832 14 14 (3913728)
I0403 16:14:45.794188 17555 net.cpp:156] Memory required for data: 1272557088
I0403 16:14:45.794203 17555 layer_factory.hpp:77] Creating layer pool4/3x3_s2
I0403 16:14:45.794230 17555 net.cpp:91] Creating Layer pool4/3x3_s2
I0403 16:14:45.794247 17555 net.cpp:425] pool4/3x3_s2 <- inception_4e/output
I0403 16:14:45.794266 17555 net.cpp:399] pool4/3x3_s2 -> pool4/3x3_s2
I0403 16:14:45.794335 17555 net.cpp:141] Setting up pool4/3x3_s2
I0403 16:14:45.794361 17555 net.cpp:148] Top shape: 24 832 7 7 (978432)
I0403 16:14:45.794376 17555 net.cpp:156] Memory required for data: 1276470816
I0403 16:14:45.794391 17555 layer_factory.hpp:77] Creating layer pool4/3x3_s2_pool4/3x3_s2_0_split
I0403 16:14:45.794409 17555 net.cpp:91] Creating Layer pool4/3x3_s2_pool4/3x3_s2_0_split
I0403 16:14:45.794423 17555 net.cpp:425] pool4/3x3_s2_pool4/3x3_s2_0_split <- pool4/3x3_s2
I0403 16:14:45.794445 17555 net.cpp:399] pool4/3x3_s2_pool4/3x3_s2_0_split -> pool4/3x3_s2_pool4/3x3_s2_0_split_0
I0403 16:14:45.794466 17555 net.cpp:399] pool4/3x3_s2_pool4/3x3_s2_0_split -> pool4/3x3_s2_pool4/3x3_s2_0_split_1
I0403 16:14:45.794499 17555 net.cpp:399] pool4/3x3_s2_pool4/3x3_s2_0_split -> pool4/3x3_s2_pool4/3x3_s2_0_split_2
I0403 16:14:45.794520 17555 net.cpp:399] pool4/3x3_s2_pool4/3x3_s2_0_split -> pool4/3x3_s2_pool4/3x3_s2_0_split_3
I0403 16:14:45.794648 17555 net.cpp:141] Setting up pool4/3x3_s2_pool4/3x3_s2_0_split
I0403 16:14:45.794675 17555 net.cpp:148] Top shape: 24 832 7 7 (978432)
I0403 16:14:45.794693 17555 net.cpp:148] Top shape: 24 832 7 7 (978432)
I0403 16:14:45.794711 17555 net.cpp:148] Top shape: 24 832 7 7 (978432)
I0403 16:14:45.794728 17555 net.cpp:148] Top shape: 24 832 7 7 (978432)
I0403 16:14:45.794741 17555 net.cpp:156] Memory required for data: 1292125728
I0403 16:14:45.794755 17555 layer_factory.hpp:77] Creating layer inception_5a/1x1
I0403 16:14:45.794778 17555 net.cpp:91] Creating Layer inception_5a/1x1
I0403 16:14:45.794797 17555 net.cpp:425] inception_5a/1x1 <- pool4/3x3_s2_pool4/3x3_s2_0_split_0
I0403 16:14:45.794817 17555 net.cpp:399] inception_5a/1x1 -> inception_5a/1x1
I0403 16:14:45.797538 17555 net.cpp:141] Setting up inception_5a/1x1
I0403 16:14:45.797569 17555 net.cpp:148] Top shape: 24 256 7 7 (301056)
I0403 16:14:45.797586 17555 net.cpp:156] Memory required for data: 1293329952
I0403 16:14:45.797608 17555 layer_factory.hpp:77] Creating layer inception_5a/relu_1x1
I0403 16:14:45.797629 17555 net.cpp:91] Creating Layer inception_5a/relu_1x1
I0403 16:14:45.797646 17555 net.cpp:425] inception_5a/relu_1x1 <- inception_5a/1x1
I0403 16:14:45.797668 17555 net.cpp:386] inception_5a/relu_1x1 -> inception_5a/1x1 (in-place)
I0403 16:14:45.797983 17555 net.cpp:141] Setting up inception_5a/relu_1x1
I0403 16:14:45.798012 17555 net.cpp:148] Top shape: 24 256 7 7 (301056)
I0403 16:14:45.798028 17555 net.cpp:156] Memory required for data: 1294534176
I0403 16:14:45.798044 17555 layer_factory.hpp:77] Creating layer inception_5a/3x3_reduce
I0403 16:14:45.798066 17555 net.cpp:91] Creating Layer inception_5a/3x3_reduce
I0403 16:14:45.798085 17555 net.cpp:425] inception_5a/3x3_reduce <- pool4/3x3_s2_pool4/3x3_s2_0_split_1
I0403 16:14:45.798118 17555 net.cpp:399] inception_5a/3x3_reduce -> inception_5a/3x3_reduce
I0403 16:14:45.800452 17555 net.cpp:141] Setting up inception_5a/3x3_reduce
I0403 16:14:45.800480 17555 net.cpp:148] Top shape: 24 160 7 7 (188160)
I0403 16:14:45.800499 17555 net.cpp:156] Memory required for data: 1295286816
I0403 16:14:45.800518 17555 layer_factory.hpp:77] Creating layer inception_5a/relu_3x3_reduce
I0403 16:14:45.800537 17555 net.cpp:91] Creating Layer inception_5a/relu_3x3_reduce
I0403 16:14:45.800554 17555 net.cpp:425] inception_5a/relu_3x3_reduce <- inception_5a/3x3_reduce
I0403 16:14:45.800572 17555 net.cpp:386] inception_5a/relu_3x3_reduce -> inception_5a/3x3_reduce (in-place)
I0403 16:14:45.800760 17555 net.cpp:141] Setting up inception_5a/relu_3x3_reduce
I0403 16:14:45.800787 17555 net.cpp:148] Top shape: 24 160 7 7 (188160)
I0403 16:14:45.800803 17555 net.cpp:156] Memory required for data: 1296039456
I0403 16:14:45.800818 17555 layer_factory.hpp:77] Creating layer inception_5a/3x3
I0403 16:14:45.800840 17555 net.cpp:91] Creating Layer inception_5a/3x3
I0403 16:14:45.800858 17555 net.cpp:425] inception_5a/3x3 <- inception_5a/3x3_reduce
I0403 16:14:45.800876 17555 net.cpp:399] inception_5a/3x3 -> inception_5a/3x3
I0403 16:14:45.805661 17555 net.cpp:141] Setting up inception_5a/3x3
I0403 16:14:45.805691 17555 net.cpp:148] Top shape: 24 320 7 7 (376320)
I0403 16:14:45.805706 17555 net.cpp:156] Memory required for data: 1297544736
I0403 16:14:45.805727 17555 layer_factory.hpp:77] Creating layer inception_5a/relu_3x3
I0403 16:14:45.805745 17555 net.cpp:91] Creating Layer inception_5a/relu_3x3
I0403 16:14:45.805764 17555 net.cpp:425] inception_5a/relu_3x3 <- inception_5a/3x3
I0403 16:14:45.805784 17555 net.cpp:386] inception_5a/relu_3x3 -> inception_5a/3x3 (in-place)
I0403 16:14:45.806071 17555 net.cpp:141] Setting up inception_5a/relu_3x3
I0403 16:14:45.806097 17555 net.cpp:148] Top shape: 24 320 7 7 (376320)
I0403 16:14:45.806113 17555 net.cpp:156] Memory required for data: 1299050016
I0403 16:14:45.806128 17555 layer_factory.hpp:77] Creating layer inception_5a/5x5_reduce
I0403 16:14:45.806149 17555 net.cpp:91] Creating Layer inception_5a/5x5_reduce
I0403 16:14:45.806166 17555 net.cpp:425] inception_5a/5x5_reduce <- pool4/3x3_s2_pool4/3x3_s2_0_split_2
I0403 16:14:45.806190 17555 net.cpp:399] inception_5a/5x5_reduce -> inception_5a/5x5_reduce
I0403 16:14:45.807317 17555 net.cpp:141] Setting up inception_5a/5x5_reduce
I0403 16:14:45.807348 17555 net.cpp:148] Top shape: 24 32 7 7 (37632)
I0403 16:14:45.807364 17555 net.cpp:156] Memory required for data: 1299200544
I0403 16:14:45.807382 17555 layer_factory.hpp:77] Creating layer inception_5a/relu_5x5_reduce
I0403 16:14:45.807402 17555 net.cpp:91] Creating Layer inception_5a/relu_5x5_reduce
I0403 16:14:45.807420 17555 net.cpp:425] inception_5a/relu_5x5_reduce <- inception_5a/5x5_reduce
I0403 16:14:45.807437 17555 net.cpp:386] inception_5a/relu_5x5_reduce -> inception_5a/5x5_reduce (in-place)
I0403 16:14:45.807735 17555 net.cpp:141] Setting up inception_5a/relu_5x5_reduce
I0403 16:14:45.807761 17555 net.cpp:148] Top shape: 24 32 7 7 (37632)
I0403 16:14:45.807777 17555 net.cpp:156] Memory required for data: 1299351072
I0403 16:14:45.807791 17555 layer_factory.hpp:77] Creating layer inception_5a/5x5
I0403 16:14:45.807826 17555 net.cpp:91] Creating Layer inception_5a/5x5
I0403 16:14:45.807844 17555 net.cpp:425] inception_5a/5x5 <- inception_5a/5x5_reduce
I0403 16:14:45.807867 17555 net.cpp:399] inception_5a/5x5 -> inception_5a/5x5
I0403 16:14:45.809540 17555 net.cpp:141] Setting up inception_5a/5x5
I0403 16:14:45.809578 17555 net.cpp:148] Top shape: 24 128 7 7 (150528)
I0403 16:14:45.809595 17555 net.cpp:156] Memory required for data: 1299953184
I0403 16:14:45.809619 17555 layer_factory.hpp:77] Creating layer inception_5a/relu_5x5
I0403 16:14:45.809638 17555 net.cpp:91] Creating Layer inception_5a/relu_5x5
I0403 16:14:45.809655 17555 net.cpp:425] inception_5a/relu_5x5 <- inception_5a/5x5
I0403 16:14:45.809675 17555 net.cpp:386] inception_5a/relu_5x5 -> inception_5a/5x5 (in-place)
I0403 16:14:45.809860 17555 net.cpp:141] Setting up inception_5a/relu_5x5
I0403 16:14:45.809885 17555 net.cpp:148] Top shape: 24 128 7 7 (150528)
I0403 16:14:45.809901 17555 net.cpp:156] Memory required for data: 1300555296
I0403 16:14:45.809916 17555 layer_factory.hpp:77] Creating layer inception_5a/pool
I0403 16:14:45.809937 17555 net.cpp:91] Creating Layer inception_5a/pool
I0403 16:14:45.809954 17555 net.cpp:425] inception_5a/pool <- pool4/3x3_s2_pool4/3x3_s2_0_split_3
I0403 16:14:45.809973 17555 net.cpp:399] inception_5a/pool -> inception_5a/pool
I0403 16:14:45.810045 17555 net.cpp:141] Setting up inception_5a/pool
I0403 16:14:45.810070 17555 net.cpp:148] Top shape: 24 832 7 7 (978432)
I0403 16:14:45.810084 17555 net.cpp:156] Memory required for data: 1304469024
I0403 16:14:45.810098 17555 layer_factory.hpp:77] Creating layer inception_5a/pool_proj
I0403 16:14:45.810122 17555 net.cpp:91] Creating Layer inception_5a/pool_proj
I0403 16:14:45.810139 17555 net.cpp:425] inception_5a/pool_proj <- inception_5a/pool
I0403 16:14:45.810160 17555 net.cpp:399] inception_5a/pool_proj -> inception_5a/pool_proj
I0403 16:14:45.812342 17555 net.cpp:141] Setting up inception_5a/pool_proj
I0403 16:14:45.812373 17555 net.cpp:148] Top shape: 24 128 7 7 (150528)
I0403 16:14:45.812391 17555 net.cpp:156] Memory required for data: 1305071136
I0403 16:14:45.812409 17555 layer_factory.hpp:77] Creating layer inception_5a/relu_pool_proj
I0403 16:14:45.812428 17555 net.cpp:91] Creating Layer inception_5a/relu_pool_proj
I0403 16:14:45.812445 17555 net.cpp:425] inception_5a/relu_pool_proj <- inception_5a/pool_proj
I0403 16:14:45.812465 17555 net.cpp:386] inception_5a/relu_pool_proj -> inception_5a/pool_proj (in-place)
I0403 16:14:45.812752 17555 net.cpp:141] Setting up inception_5a/relu_pool_proj
I0403 16:14:45.812782 17555 net.cpp:148] Top shape: 24 128 7 7 (150528)
I0403 16:14:45.812798 17555 net.cpp:156] Memory required for data: 1305673248
I0403 16:14:45.812813 17555 layer_factory.hpp:77] Creating layer inception_5a/output
I0403 16:14:45.812830 17555 net.cpp:91] Creating Layer inception_5a/output
I0403 16:14:45.812845 17555 net.cpp:425] inception_5a/output <- inception_5a/1x1
I0403 16:14:45.812862 17555 net.cpp:425] inception_5a/output <- inception_5a/3x3
I0403 16:14:45.812877 17555 net.cpp:425] inception_5a/output <- inception_5a/5x5
I0403 16:14:45.812894 17555 net.cpp:425] inception_5a/output <- inception_5a/pool_proj
I0403 16:14:45.812912 17555 net.cpp:399] inception_5a/output -> inception_5a/output
I0403 16:14:45.812964 17555 net.cpp:141] Setting up inception_5a/output
I0403 16:14:45.812988 17555 net.cpp:148] Top shape: 24 832 7 7 (978432)
I0403 16:14:45.813004 17555 net.cpp:156] Memory required for data: 1309586976
I0403 16:14:45.813017 17555 layer_factory.hpp:77] Creating layer inception_5a/output_inception_5a/output_0_split
I0403 16:14:45.813033 17555 net.cpp:91] Creating Layer inception_5a/output_inception_5a/output_0_split
I0403 16:14:45.813050 17555 net.cpp:425] inception_5a/output_inception_5a/output_0_split <- inception_5a/output
I0403 16:14:45.813071 17555 net.cpp:399] inception_5a/output_inception_5a/output_0_split -> inception_5a/output_inception_5a/output_0_split_0
I0403 16:14:45.813093 17555 net.cpp:399] inception_5a/output_inception_5a/output_0_split -> inception_5a/output_inception_5a/output_0_split_1
I0403 16:14:45.813114 17555 net.cpp:399] inception_5a/output_inception_5a/output_0_split -> inception_5a/output_inception_5a/output_0_split_2
I0403 16:14:45.813136 17555 net.cpp:399] inception_5a/output_inception_5a/output_0_split -> inception_5a/output_inception_5a/output_0_split_3
I0403 16:14:45.813243 17555 net.cpp:141] Setting up inception_5a/output_inception_5a/output_0_split
I0403 16:14:45.813268 17555 net.cpp:148] Top shape: 24 832 7 7 (978432)
I0403 16:14:45.813283 17555 net.cpp:148] Top shape: 24 832 7 7 (978432)
I0403 16:14:45.813299 17555 net.cpp:148] Top shape: 24 832 7 7 (978432)
I0403 16:14:45.813314 17555 net.cpp:148] Top shape: 24 832 7 7 (978432)
I0403 16:14:45.813328 17555 net.cpp:156] Memory required for data: 1325241888
I0403 16:14:45.813341 17555 layer_factory.hpp:77] Creating layer inception_5b/1x1
I0403 16:14:45.813365 17555 net.cpp:91] Creating Layer inception_5b/1x1
I0403 16:14:45.813383 17555 net.cpp:425] inception_5b/1x1 <- inception_5a/output_inception_5a/output_0_split_0
I0403 16:14:45.813405 17555 net.cpp:399] inception_5b/1x1 -> inception_5b/1x1
I0403 16:14:45.816984 17555 net.cpp:141] Setting up inception_5b/1x1
I0403 16:14:45.817016 17555 net.cpp:148] Top shape: 24 384 7 7 (451584)
I0403 16:14:45.817034 17555 net.cpp:156] Memory required for data: 1327048224
I0403 16:14:45.817051 17555 layer_factory.hpp:77] Creating layer inception_5b/relu_1x1
I0403 16:14:45.817071 17555 net.cpp:91] Creating Layer inception_5b/relu_1x1
I0403 16:14:45.817088 17555 net.cpp:425] inception_5b/relu_1x1 <- inception_5b/1x1
I0403 16:14:45.817106 17555 net.cpp:386] inception_5b/relu_1x1 -> inception_5b/1x1 (in-place)
I0403 16:14:45.817397 17555 net.cpp:141] Setting up inception_5b/relu_1x1
I0403 16:14:45.817425 17555 net.cpp:148] Top shape: 24 384 7 7 (451584)
I0403 16:14:45.817442 17555 net.cpp:156] Memory required for data: 1328854560
I0403 16:14:45.817457 17555 layer_factory.hpp:77] Creating layer inception_5b/3x3_reduce
I0403 16:14:45.817477 17555 net.cpp:91] Creating Layer inception_5b/3x3_reduce
I0403 16:14:45.817494 17555 net.cpp:425] inception_5b/3x3_reduce <- inception_5a/output_inception_5a/output_0_split_1
I0403 16:14:45.817515 17555 net.cpp:399] inception_5b/3x3_reduce -> inception_5b/3x3_reduce
I0403 16:14:45.820052 17555 net.cpp:141] Setting up inception_5b/3x3_reduce
I0403 16:14:45.820083 17555 net.cpp:148] Top shape: 24 192 7 7 (225792)
I0403 16:14:45.820099 17555 net.cpp:156] Memory required for data: 1329757728
I0403 16:14:45.820121 17555 layer_factory.hpp:77] Creating layer inception_5b/relu_3x3_reduce
I0403 16:14:45.820140 17555 net.cpp:91] Creating Layer inception_5b/relu_3x3_reduce
I0403 16:14:45.820158 17555 net.cpp:425] inception_5b/relu_3x3_reduce <- inception_5b/3x3_reduce
I0403 16:14:45.820175 17555 net.cpp:386] inception_5b/relu_3x3_reduce -> inception_5b/3x3_reduce (in-place)
I0403 16:14:45.820364 17555 net.cpp:141] Setting up inception_5b/relu_3x3_reduce
I0403 16:14:45.820389 17555 net.cpp:148] Top shape: 24 192 7 7 (225792)
I0403 16:14:45.820405 17555 net.cpp:156] Memory required for data: 1330660896
I0403 16:14:45.820420 17555 layer_factory.hpp:77] Creating layer inception_5b/3x3
I0403 16:14:45.820441 17555 net.cpp:91] Creating Layer inception_5b/3x3
I0403 16:14:45.820457 17555 net.cpp:425] inception_5b/3x3 <- inception_5b/3x3_reduce
I0403 16:14:45.820478 17555 net.cpp:399] inception_5b/3x3 -> inception_5b/3x3
I0403 16:14:45.826892 17555 net.cpp:141] Setting up inception_5b/3x3
I0403 16:14:45.826923 17555 net.cpp:148] Top shape: 24 384 7 7 (451584)
I0403 16:14:45.826941 17555 net.cpp:156] Memory required for data: 1332467232
I0403 16:14:45.826958 17555 layer_factory.hpp:77] Creating layer inception_5b/relu_3x3
I0403 16:14:45.826977 17555 net.cpp:91] Creating Layer inception_5b/relu_3x3
I0403 16:14:45.826993 17555 net.cpp:425] inception_5b/relu_3x3 <- inception_5b/3x3
I0403 16:14:45.827013 17555 net.cpp:386] inception_5b/relu_3x3 -> inception_5b/3x3 (in-place)
I0403 16:14:45.827301 17555 net.cpp:141] Setting up inception_5b/relu_3x3
I0403 16:14:45.827329 17555 net.cpp:148] Top shape: 24 384 7 7 (451584)
I0403 16:14:45.827345 17555 net.cpp:156] Memory required for data: 1334273568
I0403 16:14:45.827360 17555 layer_factory.hpp:77] Creating layer inception_5b/5x5_reduce
I0403 16:14:45.827396 17555 net.cpp:91] Creating Layer inception_5b/5x5_reduce
I0403 16:14:45.827416 17555 net.cpp:425] inception_5b/5x5_reduce <- inception_5a/output_inception_5a/output_0_split_2
I0403 16:14:45.827435 17555 net.cpp:399] inception_5b/5x5_reduce -> inception_5b/5x5_reduce
I0403 16:14:45.828680 17555 net.cpp:141] Setting up inception_5b/5x5_reduce
I0403 16:14:45.828709 17555 net.cpp:148] Top shape: 24 48 7 7 (56448)
I0403 16:14:45.828727 17555 net.cpp:156] Memory required for data: 1334499360
I0403 16:14:45.828747 17555 layer_factory.hpp:77] Creating layer inception_5b/relu_5x5_reduce
I0403 16:14:45.828765 17555 net.cpp:91] Creating Layer inception_5b/relu_5x5_reduce
I0403 16:14:45.828783 17555 net.cpp:425] inception_5b/relu_5x5_reduce <- inception_5b/5x5_reduce
I0403 16:14:45.828801 17555 net.cpp:386] inception_5b/relu_5x5_reduce -> inception_5b/5x5_reduce (in-place)
I0403 16:14:45.829180 17555 net.cpp:141] Setting up inception_5b/relu_5x5_reduce
I0403 16:14:45.829206 17555 net.cpp:148] Top shape: 24 48 7 7 (56448)
I0403 16:14:45.829222 17555 net.cpp:156] Memory required for data: 1334725152
I0403 16:14:45.829238 17555 layer_factory.hpp:77] Creating layer inception_5b/5x5
I0403 16:14:45.829258 17555 net.cpp:91] Creating Layer inception_5b/5x5
I0403 16:14:45.829277 17555 net.cpp:425] inception_5b/5x5 <- inception_5b/5x5_reduce
I0403 16:14:45.829296 17555 net.cpp:399] inception_5b/5x5 -> inception_5b/5x5
I0403 16:14:45.831312 17555 net.cpp:141] Setting up inception_5b/5x5
I0403 16:14:45.831343 17555 net.cpp:148] Top shape: 24 128 7 7 (150528)
I0403 16:14:45.831360 17555 net.cpp:156] Memory required for data: 1335327264
I0403 16:14:45.831379 17555 layer_factory.hpp:77] Creating layer inception_5b/relu_5x5
I0403 16:14:45.831398 17555 net.cpp:91] Creating Layer inception_5b/relu_5x5
I0403 16:14:45.831415 17555 net.cpp:425] inception_5b/relu_5x5 <- inception_5b/5x5
I0403 16:14:45.831436 17555 net.cpp:386] inception_5b/relu_5x5 -> inception_5b/5x5 (in-place)
I0403 16:14:45.831634 17555 net.cpp:141] Setting up inception_5b/relu_5x5
I0403 16:14:45.831660 17555 net.cpp:148] Top shape: 24 128 7 7 (150528)
I0403 16:14:45.831676 17555 net.cpp:156] Memory required for data: 1335929376
I0403 16:14:45.831691 17555 layer_factory.hpp:77] Creating layer inception_5b/pool
I0403 16:14:45.831710 17555 net.cpp:91] Creating Layer inception_5b/pool
I0403 16:14:45.831727 17555 net.cpp:425] inception_5b/pool <- inception_5a/output_inception_5a/output_0_split_3
I0403 16:14:45.831748 17555 net.cpp:399] inception_5b/pool -> inception_5b/pool
I0403 16:14:45.831826 17555 net.cpp:141] Setting up inception_5b/pool
I0403 16:14:45.831851 17555 net.cpp:148] Top shape: 24 832 7 7 (978432)
I0403 16:14:45.831866 17555 net.cpp:156] Memory required for data: 1339843104
I0403 16:14:45.831881 17555 layer_factory.hpp:77] Creating layer inception_5b/pool_proj
I0403 16:14:45.831902 17555 net.cpp:91] Creating Layer inception_5b/pool_proj
I0403 16:14:45.831920 17555 net.cpp:425] inception_5b/pool_proj <- inception_5b/pool
I0403 16:14:45.831941 17555 net.cpp:399] inception_5b/pool_proj -> inception_5b/pool_proj
I0403 16:14:45.834234 17555 net.cpp:141] Setting up inception_5b/pool_proj
I0403 16:14:45.834265 17555 net.cpp:148] Top shape: 24 128 7 7 (150528)
I0403 16:14:45.834282 17555 net.cpp:156] Memory required for data: 1340445216
I0403 16:14:45.834302 17555 layer_factory.hpp:77] Creating layer inception_5b/relu_pool_proj
I0403 16:14:45.834322 17555 net.cpp:91] Creating Layer inception_5b/relu_pool_proj
I0403 16:14:45.834339 17555 net.cpp:425] inception_5b/relu_pool_proj <- inception_5b/pool_proj
I0403 16:14:45.834359 17555 net.cpp:386] inception_5b/relu_pool_proj -> inception_5b/pool_proj (in-place)
I0403 16:14:45.834658 17555 net.cpp:141] Setting up inception_5b/relu_pool_proj
I0403 16:14:45.834687 17555 net.cpp:148] Top shape: 24 128 7 7 (150528)
I0403 16:14:45.834703 17555 net.cpp:156] Memory required for data: 1341047328
I0403 16:14:45.834718 17555 layer_factory.hpp:77] Creating layer inception_5b/output
I0403 16:14:45.834736 17555 net.cpp:91] Creating Layer inception_5b/output
I0403 16:14:45.834767 17555 net.cpp:425] inception_5b/output <- inception_5b/1x1
I0403 16:14:45.834785 17555 net.cpp:425] inception_5b/output <- inception_5b/3x3
I0403 16:14:45.834803 17555 net.cpp:425] inception_5b/output <- inception_5b/5x5
I0403 16:14:45.834821 17555 net.cpp:425] inception_5b/output <- inception_5b/pool_proj
I0403 16:14:45.834839 17555 net.cpp:399] inception_5b/output -> inception_5b/output
I0403 16:14:45.834893 17555 net.cpp:141] Setting up inception_5b/output
I0403 16:14:45.834918 17555 net.cpp:148] Top shape: 24 1024 7 7 (1204224)
I0403 16:14:45.834934 17555 net.cpp:156] Memory required for data: 1345864224
I0403 16:14:45.834949 17555 layer_factory.hpp:77] Creating layer pool5/7x7_s1
I0403 16:14:45.834969 17555 net.cpp:91] Creating Layer pool5/7x7_s1
I0403 16:14:45.834987 17555 net.cpp:425] pool5/7x7_s1 <- inception_5b/output
I0403 16:14:45.835005 17555 net.cpp:399] pool5/7x7_s1 -> pool5/7x7_s1
I0403 16:14:45.835225 17555 net.cpp:141] Setting up pool5/7x7_s1
I0403 16:14:45.835252 17555 net.cpp:148] Top shape: 24 1024 1 1 (24576)
I0403 16:14:45.835266 17555 net.cpp:156] Memory required for data: 1345962528
I0403 16:14:45.835281 17555 layer_factory.hpp:77] Creating layer pool5/drop_7x7_s1
I0403 16:14:45.835299 17555 net.cpp:91] Creating Layer pool5/drop_7x7_s1
I0403 16:14:45.835317 17555 net.cpp:425] pool5/drop_7x7_s1 <- pool5/7x7_s1
I0403 16:14:45.835336 17555 net.cpp:386] pool5/drop_7x7_s1 -> pool5/7x7_s1 (in-place)
I0403 16:14:45.835387 17555 net.cpp:141] Setting up pool5/drop_7x7_s1
I0403 16:14:45.835413 17555 net.cpp:148] Top shape: 24 1024 1 1 (24576)
I0403 16:14:45.835429 17555 net.cpp:156] Memory required for data: 1346060832
I0403 16:14:45.835445 17555 layer_factory.hpp:77] Creating layer loss3/classifier_plantvillage
I0403 16:14:45.835464 17555 net.cpp:91] Creating Layer loss3/classifier_plantvillage
I0403 16:14:45.835479 17555 net.cpp:425] loss3/classifier_plantvillage <- pool5/7x7_s1
I0403 16:14:45.835500 17555 net.cpp:399] loss3/classifier_plantvillage -> loss3/classifier_plantvillage
I0403 16:14:45.835930 17555 net.cpp:141] Setting up loss3/classifier_plantvillage
I0403 16:14:45.835957 17555 net.cpp:148] Top shape: 24 38 (912)
I0403 16:14:45.835973 17555 net.cpp:156] Memory required for data: 1346064480
I0403 16:14:45.835990 17555 layer_factory.hpp:77] Creating layer loss3/classifier_plantvillage_loss3/classifier_plantvillage_0_split
I0403 16:14:45.836012 17555 net.cpp:91] Creating Layer loss3/classifier_plantvillage_loss3/classifier_plantvillage_0_split
I0403 16:14:45.836030 17555 net.cpp:425] loss3/classifier_plantvillage_loss3/classifier_plantvillage_0_split <- loss3/classifier_plantvillage
I0403 16:14:45.836048 17555 net.cpp:399] loss3/classifier_plantvillage_loss3/classifier_plantvillage_0_split -> loss3/classifier_plantvillage_loss3/classifier_plantvillage_0_split_0
I0403 16:14:45.836069 17555 net.cpp:399] loss3/classifier_plantvillage_loss3/classifier_plantvillage_0_split -> loss3/classifier_plantvillage_loss3/classifier_plantvillage_0_split_1
I0403 16:14:45.836091 17555 net.cpp:399] loss3/classifier_plantvillage_loss3/classifier_plantvillage_0_split -> loss3/classifier_plantvillage_loss3/classifier_plantvillage_0_split_2
I0403 16:14:45.836114 17555 net.cpp:399] loss3/classifier_plantvillage_loss3/classifier_plantvillage_0_split -> loss3/classifier_plantvillage_loss3/classifier_plantvillage_0_split_3
I0403 16:14:45.836216 17555 net.cpp:141] Setting up loss3/classifier_plantvillage_loss3/classifier_plantvillage_0_split
I0403 16:14:45.836241 17555 net.cpp:148] Top shape: 24 38 (912)
I0403 16:14:45.836257 17555 net.cpp:148] Top shape: 24 38 (912)
I0403 16:14:45.836274 17555 net.cpp:148] Top shape: 24 38 (912)
I0403 16:14:45.836290 17555 net.cpp:148] Top shape: 24 38 (912)
I0403 16:14:45.836305 17555 net.cpp:156] Memory required for data: 1346079072
I0403 16:14:45.836319 17555 layer_factory.hpp:77] Creating layer loss1/loss
I0403 16:14:45.836340 17555 net.cpp:91] Creating Layer loss1/loss
I0403 16:14:45.836359 17555 net.cpp:425] loss1/loss <- loss1/classifier_plantvillage_loss1/classifier_plantvillage_0_split_0
I0403 16:14:45.836390 17555 net.cpp:425] loss1/loss <- label_data_1_split_0
…
