…
I0403 16:01:08.666436 16758 net.cpp:313] The NetState phase (1) differed from the phase (0) specified by a rule in layer data
I0403 16:01:08.667903 16758 net.cpp:49] Initializing net from parameters: 
state {
  phase: TEST
}
layer {
  name: "data"
  type: "Data"
  top: "data"
  top: "label"
  include {
    phase: TEST
  }
  transform_param {
    mirror: false
    crop_size: 224
    mean_file: "/home/mohanty/data/final_dataset/lmdb/color-20-80/mean.binaryproto"
  }
  data_param {
    source: "/home/mohanty/data/final_dataset/lmdb/color-20-80/test_db"
    batch_size: 24
    backend: LMDB
  }
}
layer {
  name: "conv1/7x7_s2"
  type: "Convolution"
  bottom: "data"
  top: "conv1/7x7_s2"
  param {
    lr_mult: 1
    decay_mult: 1
  }
  param {
    lr_mult: 2
    decay_mult: 0
  }
  convolution_param {
    num_output: 64
    pad: 3
    kernel_size: 7
    stride: 2
    weight_filler {
      type: "xavier"
      std: 0.1
    }
    bias_filler {
      type: "constant"
      value: 0.2
    }
  }
}
layer {
  name: "conv1/relu_7x7"
  type: "ReLU"
  bottom: "conv1/7x7_s2"
  top: "conv1/7x7_s2"
}
layer {
  name: "pool1/3x3_s2"
  type: "Pooling"
  bottom: "conv1/7x7_s2"
  top: "pool1/3x3_s2"
  pooling_param {
    pool: MAX
    kernel_size: 3
    stride: 2
  }
}
layer {
  name: "pool1/norm1"
  type: "LRN"
  bottom: "pool1/3x3_s2"
  top: "pool1/norm1"
  lrn_param {
    local_size: 5
    alpha: 0.0001
    beta: 0.75
  }
}
layer {
  name: "conv2/3x3_reduce"
  type: "Convolution"
  bottom: "pool1/norm1"
  top: "conv2/3x3_reduce"
  param {
    lr_mult: 1
    decay_mult: 1
  }
  param {
    lr_mult: 2
    decay_mult: 0
  }
  convolution_param {
    num_output: 64
    kernel_size: 1
    weight_filler {
      type: "xavier"
      std: 0.1
    }
    bias_filler {
      type: "constant"
      value: 0.2
    }
  }
}
layer {
  name: "conv2/relu_3x3_reduce"
  type: "ReLU"
  bottom: "conv2/3x3_reduce"
  top: "conv2/3x3_reduce"
}
layer {
  name: "conv2/3x3"
  type: "Convolution"
  bottom: "conv2/3x3_reduce"
  top: "conv2/3x3"
  param {
    lr_mult: 1
    decay_mult: 1
  }
  param {
    lr_mult: 2
    decay_mult: 0
  }
  convolution_param {
    num_output: 192
    pad: 1
    kernel_size: 3
    weight_filler {
      type: "xavier"
      std: 0.03
    }
    bias_filler {
      type: "constant"
      value: 0.2
    }
  }
}
layer {
  name: "conv2/relu_3x3"
  type: "ReLU"
  bottom: "conv2/3x3"
  top: "conv2/3x3"
}
layer {
  name: "conv2/norm2"
  type: "LRN"
  bottom: "conv2/3x3"
  top: "conv2/norm2"
  lrn_param {
    local_size: 5
    alpha: 0.0001
    beta: 0.75
  }
}
layer {
  name: "pool2/3x3_s2"
  type: "Pooling"
  bottom: "conv2/norm2"
  top: "pool2/3x3_s2"
  pooling_param {
    pool: MAX
    kernel_size: 3
    stride: 2
  }
}
layer {
  name: "inception_3a/1x1"
  type: "Convolution"
  bottom: "pool2/3x3_s2"
  top: "inception_3a/1x1"
  param {
    lr_mult: 1
    decay_mult: 1
  }
  param {
    lr_mult: 2
    decay_mult: 0
  }
  convolution_param {
    num_output: 64
    kernel_size: 1
    weight_filler {
      type: "xavier"
      std: 0.03
    }
    bias_filler {
      type: "constant"
      value: 0.2
    }
  }
}
layer {
  name: "inception_3a/relu_1x1"
  type: "ReLU"
  bottom: "inception_3a/1x1"
  top: "inception_3a/1x1"
}
layer {
  name: "inception_3a/3x3_reduce"
  type: "Convolution"
  bottom: "pool2/3x3_s2"
  top: "inception_3a/3x3_reduce"
  param {
    lr_mult: 1
    decay_mult: 1
  }
  param {
    lr_mult: 2
    decay_mult: 0
  }
  convolution_param {
    num_output: 96
    kernel_size: 1
    weight_filler {
      type: "xavier"
      std: 0.09
    }
    bias_filler {
      type: "constant"
      value: 0.2
    }
  }
}
layer {
  name: "inception_3a/relu_3x3_reduce"
  type: "ReLU"
  bottom: "inception_3a/3x3_reduce"
  top: "inception_3a/3x3_reduce"
}
layer {
  name: "inception_3a/3x3"
  type: "Convolution"
  bottom: "inception_3a/3x3_reduce"
  top: "inception_3a/3x3"
  param {
    lr_mult: 1
    decay_mult: 1
  }
  param {
    lr_mult: 2
    decay_mult: 0
  }
  convolution_param {
    num_output: 128
    pad: 1
    kernel_size: 3
    weight_filler {
      type: "xavier"
      std: 0.03
    }
    bias_filler {
      type: "constant"
      value: 0.2
    }
  }
}
layer {
  name: "inception_3a/relu_3x3"
  type: "ReLU"
  bottom: "inception_3a/3x3"
  top: "inception_3a/3x3"
}
layer {
  name: "inception_3a/5x5_reduce"
  type: "Convolution"
  bottom: "pool2/3x3_s2"
  top: "inception_3a/5x5_reduce"
  param {
    lr_mult: 1
    decay_mult: 1
  }
  param {
    lr_mult: 2
    decay_mult: 0
  }
  convolution_param {
    num_output: 16
    kernel_size: 1
    weight_filler {
      type: "xavier"
      std: 0.2
    }
    bias_filler {
      type: "constant"
      value: 0.2
    }
  }
}
layer {
  name: "inception_3a/relu_5x5_reduce"
  type: "ReLU"
  bottom: "inception_3a/5x5_reduce"
  top: "inception_3a/5x5_reduce"
}
layer {
  name: "inception_3a/5x5"
  type: "Convolution"
  bottom: "inception_3a/5x5_reduce"
  top: "inception_3a/5x5"
  param {
    lr_mult: 1
    decay_mult: 1
  }
  param {
    lr_mult: 2
    decay_mult: 0
  }
  convolution_param {
    num_output: 32
    pad: 2
    kernel_size: 5
    weight_filler {
      type: "xavier"
      std: 0.03
    }
    bias_filler {
      type: "constant"
      value: 0.2
    }
  }
}
layer {
  name: "inception_3a/relu_5x5"
  type: "ReLU"
  bottom: "inception_3a/5x5"
  top: "inception_3a/5x5"
}
layer {
  name: "inception_3a/pool"
  type: "Pooling"
  bottom: "pool2/3x3_s2"
  top: "inception_3a/pool"
  pooling_param {
    pool: MAX
    kernel_size: 3
    stride: 1
    pad: 1
  }
}
layer {
  name: "inception_3a/pool_proj"
  type: "Convolution"
  bottom: "inception_3a/pool"
  top: "inception_3a/pool_proj"
  param {
    lr_mult: 1
    decay_mult: 1
  }
  param {
    lr_mult: 2
    decay_mult: 0
  }
  convolution_param {
    num_output: 32
    kernel_size: 1
    weight_filler {
      type: "xavier"
      std: 0.1
    }
    bias_filler {
      type: "constant"
      value: 0.2
    }
  }
}
layer {
  name: "inception_3a/relu_pool_proj"
  type: "ReLU"
  bottom: "inception_3a/pool_proj"
  top: "inception_3a/pool_proj"
}
layer {
  name: "inception_3a/output"
  type: "Concat"
  bottom: "inception_3a/1x1"
  bottom: "inception_3a/3x3"
  bottom: "inception_3a/5x5"
  bottom: "inception_3a/pool_proj"
  top: "inception_3a/output"
}
layer {
  name: "inception_3b/1x1"
  type: "Convolution"
  bottom: "inception_3a/output"
  top: "inception_3b/1x1"
  param {
    lr_mult: 1
    decay_mult: 1
  }
  param {
    lr_mult: 2
    decay_mult: 0
  }
  convolution_param {
    num_output: 128
    kernel_size: 1
    weight_filler {
      type: "xavier"
      std: 0.03
    }
    bias_filler {
      type: "constant"
      value: 0.2
    }
  }
}
layer {
  name: "inception_3b/relu_1x1"
  type: "ReLU"
  bottom: "inception_3b/1x1"
  top: "inception_3b/1x1"
}
layer {
  name: "inception_3b/3x3_reduce"
  type: "Convolution"
  bottom: "inception_3a/output"
  top: "inception_3b/3x3_reduce"
  param {
    lr_mult: 1
    decay_mult: 1
  }
  param {
    lr_mult: 2
    decay_mult: 0
  }
  convolution_param {
    num_output: 128
    kernel_size: 1
    weight_filler {
      type: "xavier"
      std: 0.09
    }
    bias_filler {
      type: "constant"
      value: 0.2
    }
  }
}
layer {
  name: "inception_3b/relu_3x3_reduce"
  type: "ReLU"
  bottom: "inception_3b/3x3_reduce"
  top: "inception_3b/3x3_reduce"
}
layer {
  name: "inception_3b/3x3"
  type: "Convolution"
  bottom: "inception_3b/3x3_reduce"
  top: "inception_3b/3x3"
  param {
    lr_mult: 1
    decay_mult: 1
  }
  param {
    lr_mult: 2
    decay_mult: 0
  }
  convolution_param {
    num_output: 192
    pad: 1
    kernel_size: 3
    weight_filler {
      type: "xavier"
      std: 0.03
    }
    bias_filler {
      type: "constant"
      value: 0.2
    }
  }
}
layer {
  name: "inception_3b/relu_3x3"
  type: "ReLU"
  bottom: "inception_3b/3x3"
  top: "inception_3b/3x3"
}
layer {
  name: "inception_3b/5x5_reduce"
  type: "Convolution"
  bottom: "inception_3a/output"
  top: "inception_3b/5x5_reduce"
  param {
    lr_mult: 1
    decay_mult: 1
  }
  param {
    lr_mult: 2
    decay_mult: 0
  }
  convolution_param {
    num_output: 32
    kernel_size: 1
    weight_filler {
      type: "xavier"
      std: 0.2
    }
    bias_filler {
      type: "constant"
      value: 0.2
    }
  }
}
layer {
  name: "inception_3b/relu_5x5_reduce"
  type: "ReLU"
  bottom: "inception_3b/5x5_reduce"
  top: "inception_3b/5x5_reduce"
}
layer {
  name: "inception_3b/5x5"
  type: "Convolution"
  bottom: "inception_3b/5x5_reduce"
  top: "inception_3b/5x5"
  param {
    lr_mult: 1
    decay_mult: 1
  }
  param {
    lr_mult: 2
    decay_mult: 0
  }
  convolution_param {
    num_output: 96
    pad: 2
    kernel_size: 5
    weight_filler {
      type: "xavier"
      std: 0.03
    }
    bias_filler {
      type: "constant"
      value: 0.2
    }
  }
}
layer {
  name: "inception_3b/relu_5x5"
  type: "ReLU"
  bottom: "inception_3b/5x5"
  top: "inception_3b/5x5"
}
layer {
  name: "inception_3b/pool"
  type: "Pooling"
  bottom: "inception_3a/output"
  top: "inception_3b/pool"
  pooling_param {
    pool: MAX
    kernel_size: 3
    stride: 1
    pad: 1
  }
}
layer {
  name: "inception_3b/pool_proj"
  type: "Convolution"
  bottom: "inception_3b/pool"
  top: "inception_3b/pool_proj"
  param {
    lr_mult: 1
    decay_mult: 1
  }
  param {
    lr_mult: 2
    decay_mult: 0
  }
  convolution_param {
    num_output: 64
    kernel_size: 1
    weight_filler {
      type: "xavier"
      std: 0.1
    }
    bias_filler {
      type: "constant"
      value: 0.2
    }
  }
}
layer {
  name: "inception_3b/relu_pool_proj"
  type: "ReLU"
  bottom: "inception_3b/pool_proj"
  top: "inception_3b/pool_proj"
}
layer {
  name: "inception_3b/output"
  type: "Concat"
  bottom: "inception_3b/1x1"
  bottom: "inception_3b/3x3"
  bottom: "inception_3b/5x5"
  bottom: "inception_3b/pool_proj"
  top: "inception_3b/output"
}
layer {
  name: "pool3/3x3_s2"
  type: "Pooling"
  bottom: "inception_3b/output"
  top: "pool3/3x3_s2"
  pooling_param {
    pool: MAX
    kernel_size: 3
    stride: 2
  }
}
layer {
  name: "inception_4a/1x1"
  type: "Convolution"
  bottom: "pool3/3x3_s2"
  top: "inception_4a/1x1"
  param {
    lr_mult: 1
    decay_mult: 1
  }
  param {
    lr_mult: 2
    decay_mult: 0
  }
  convolution_param {
    num_output: 192
    kernel_size: 1
    weight_filler {
      type: "xavier"
      std: 0.03
    }
    bias_filler {
      type: "constant"
      value: 0.2
    }
  }
}
layer {
  name: "inception_4a/relu_1x1"
  type: "ReLU"
  bottom: "inception_4a/1x1"
  top: "inception_4a/1x1"
}
layer {
  name: "inception_4a/3x3_reduce"
  type: "Convolution"
  bottom: "pool3/3x3_s2"
  top: "inception_4a/3x3_reduce"
  param {
    lr_mult: 1
    decay_mult: 1
  }
  param {
    lr_mult: 2
    decay_mult: 0
  }
  convolution_param {
    num_output: 96
    kernel_size: 1
    weight_filler {
      type: "xavier"
      std: 0.09
    }
    bias_filler {
      type: "constant"
      value: 0.2
    }
  }
}
layer {
  name: "inception_4a/relu_3x3_reduce"
  type: "ReLU"
  bottom: "inception_4a/3x3_reduce"
  top: "inception_4a/3x3_reduce"
}
layer {
  name: "inception_4a/3x3"
  type: "Convolution"
  bottom: "inception_4a/3x3_reduce"
  top: "inception_4a/3x3"
  param {
    lr_mult: 1
    decay_mult: 1
  }
  param {
    lr_mult: 2
    decay_mult: 0
  }
  convolution_param {
    num_output: 208
    pad: 1
    kernel_size: 3
    weight_filler {
      type: "xavier"
      std: 0.03
    }
    bias_filler {
      type: "constant"
      value: 0.2
    }
  }
}
layer {
  name: "inception_4a/relu_3x3"
  type: "ReLU"
  bottom: "inception_4a/3x3"
  top: "inception_4a/3x3"
}
layer {
  name: "inception_4a/5x5_reduce"
  type: "Convolution"
  bottom: "pool3/3x3_s2"
  top: "inception_4a/5x5_reduce"
  param {
    lr_mult: 1
    decay_mult: 1
  }
  param {
    lr_mult: 2
    decay_mult: 0
  }
  convolution_param {
    num_output: 16
    kernel_size: 1
    weight_filler {
      type: "xavier"
      std: 0.2
    }
    bias_filler {
      type: "constant"
      value: 0.2
    }
  }
}
layer {
  name: "inception_4a/relu_5x5_reduce"
  type: "ReLU"
  bottom: "inception_4a/5x5_reduce"
  top: "inception_4a/5x5_reduce"
}
layer {
  name: "inception_4a/5x5"
  type: "Convolution"
  bottom: "inception_4a/5x5_reduce"
  top: "inception_4a/5x5"
  param {
    lr_mult: 1
    decay_mult: 1
  }
  param {
    lr_mult: 2
    decay_mult: 0
  }
  convolution_param {
    num_output: 48
    pad: 2
    kernel_size: 5
    weight_filler {
      type: "xavier"
      std: 0.03
    }
    bias_filler {
      type: "constant"
      value: 0.2
    }
  }
}
layer {
  name: "inception_4a/relu_5x5"
  type: "ReLU"
  bottom: "inception_4a/5x5"
  top: "inception_4a/5x5"
}
layer {
  name: "inception_4a/pool"
  type: "Pooling"
  bottom: "pool3/3x3_s2"
  top: "inception_4a/pool"
  pooling_param {
    pool: MAX
    kernel_size: 3
    stride: 1
    pad: 1
  }
}
layer {
  name: "inception_4a/pool_proj"
  type: "Convolution"
  bottom: "inception_4a/pool"
  top: "inception_4a/pool_proj"
  param {
    lr_mult: 1
    decay_mult: 1
  }
  param {
    lr_mult: 2
    decay_mult: 0
  }
  convolution_param {
    num_output: 64
    kernel_size: 1
    weight_filler {
      type: "xavier"
      std: 0.1
    }
    bias_filler {
      type: "constant"
      value: 0.2
    }
  }
}
layer {
  name: "inception_4a/relu_pool_proj"
  type: "ReLU"
  bottom: "inception_4a/pool_proj"
  top: "inception_4a/pool_proj"
}
layer {
  name: "inception_4a/output"
  type: "Concat"
  bottom: "inception_4a/1x1"
  bottom: "inception_4a/3x3"
  bottom: "inception_4a/5x5"
  bottom: "inception_4a/pool_proj"
  top: "inception_4a/output"
}
layer {
  name: "loss1/ave_pool"
  type: "Pooling"
  bottom: "inception_4a/output"
  top: "loss1/ave_pool"
  pooling_param {
    pool: AVE
    kernel_size: 5
    stride: 3
  }
}
layer {
  name: "loss1/conv"
  type: "Convolution"
  bottom: "loss1/ave_pool"
  top: "loss1/conv"
  param {
    lr_mult: 1
    decay_mult: 1
  }
  param {
    lr_mult: 2
    decay_mult: 0
  }
  convolution_param {
    num_output: 128
    kernel_size: 1
    weight_filler {
      type: "xavier"
      std: 0.08
    }
    bias_filler {
      type: "constant"
      value: 0.2
    }
  }
}
layer {
  name: "loss1/relu_conv"
  type: "ReLU"
  bottom: "loss1/conv"
  top: "loss1/conv"
}
layer {
  name: "loss1/fc"
  type: "InnerProduct"
  bottom: "loss1/conv"
  top: "loss1/fc"
  param {
    lr_mult: 1
    decay_mult: 1
  }
  param {
    lr_mult: 2
    decay_mult: 0
  }
  inner_product_param {
    num_output: 1024
    weight_filler {
      type: "xavier"
      std: 0.02
    }
    bias_filler {
      type: "constant"
      value: 0.2
    }
  }
}
layer {
  name: "loss1/relu_fc"
  type: "ReLU"
  bottom: "loss1/fc"
  top: "loss1/fc"
}
layer {
  name: "loss1/drop_fc"
  type: "Dropout"
  bottom: "loss1/fc"
  top: "loss1/fc"
  dropout_param {
    dropout_ratio: 0.7
  }
}
layer {
  name: "loss1/classifier_plantvillage"
  type: "InnerProduct"
  bottom: "loss1/fc"
  top: "loss1/classifier_plantvillage"
  param {
    lr_mult: 1
    decay_mult: 1
  }
  param {
    lr_mult: 2
    decay_mult: 0
  }
  inner_product_param {
    num_output: 38
    weight_filler {
      type: "xavier"
      std: 0.0009765625
    }
    bias_filler {
      type: "constant"
      value: 0
    }
  }
}
layer {
  name: "inception_4b/1x1"
  type: "Convolution"
  bottom: "inception_4a/output"
  top: "inception_4b/1x1"
  param {
    lr_mult: 1
    decay_mult: 1
  }
  param {
    lr_mult: 2
    decay_mult: 0
  }
  convolution_param {
    num_output: 160
    kernel_size: 1
    weight_filler {
      type: "xavier"
      std: 0.03
    }
    bias_filler {
      type: "constant"
      value: 0.2
    }
  }
}
layer {
  name: "inception_4b/relu_1x1"
  type: "ReLU"
  bottom: "inception_4b/1x1"
  top: "inception_4b/1x1"
}
layer {
  name: "inception_4b/3x3_reduce"
  type: "Convolution"
  bottom: "inception_4a/output"
  top: "inception_4b/3x3_reduce"
  param {
    lr_mult: 1
    decay_mult: 1
  }
  param {
    lr_mult: 2
    decay_mult: 0
  }
  convolution_param {
    num_output: 112
    kernel_size: 1
    weight_filler {
      type: "xavier"
      std: 0.09
    }
    bias_filler {
      type: "constant"
      value: 0.2
    }
  }
}
layer {
  name: "inception_4b/relu_3x3_reduce"
  type: "ReLU"
  bottom: "inception_4b/3x3_reduce"
  top: "inception_4b/3x3_reduce"
}
layer {
  name: "inception_4b/3x3"
  type: "Convolution"
  bottom: "inception_4b/3x3_reduce"
  top: "inception_4b/3x3"
  param {
    lr_mult: 1
    decay_mult: 1
  }
  param {
    lr_mult: 2
    decay_mult: 0
  }
  convolution_param {
    num_output: 224
    pad: 1
    kernel_size: 3
    weight_filler {
      type: "xavier"
      std: 0.03
    }
    bias_filler {
      type: "constant"
      value: 0.2
    }
  }
}
layer {
  name: "inception_4b/relu_3x3"
  type: "ReLU"
  bottom: "inception_4b/3x3"
  top: "inception_4b/3x3"
}
layer {
  name: "inception_4b/5x5_reduce"
  type: "Convolution"
  bottom: "inception_4a/output"
  top: "inception_4b/5x5_reduce"
  param {
    lr_mult: 1
    decay_mult: 1
  }
  param {
    lr_mult: 2
    decay_mult: 0
  }
  convolution_param {
    num_output: 24
    kernel_size: 1
    weight_filler {
      type: "xavier"
      std: 0.2
    }
    bias_filler {
      type: "constant"
      value: 0.2
    }
  }
}
layer {
  name: "inception_4b/relu_5x5_reduce"
  type: "ReLU"
  bottom: "inception_4b/5x5_reduce"
  top: "inception_4b/5x5_reduce"
}
layer {
  name: "inception_4b/5x5"
  type: "Convolution"
  bottom: "inception_4b/5x5_reduce"
  top: "inception_4b/5x5"
  param {
    lr_mult: 1
    decay_mult: 1
  }
  param {
    lr_mult: 2
    decay_mult: 0
  }
  convolution_param {
    num_output: 64
    pad: 2
    kernel_size: 5
    weight_filler {
      type: "xavier"
      std: 0.03
    }
    bias_filler {
      type: "constant"
      value: 0.2
    }
  }
}
layer {
  name: "inception_4b/relu_5x5"
  type: "ReLU"
  bottom: "inception_4b/5x5"
  top: "inception_4b/5x5"
}
layer {
  name: "inception_4b/pool"
  type: "Pooling"
  bottom: "inception_4a/output"
  top: "inception_4b/pool"
  pooling_param {
    pool: MAX
    kernel_size: 3
    stride: 1
    pad: 1
  }
}
layer {
  name: "inception_4b/pool_proj"
  type: "Convolution"
  bottom: "inception_4b/pool"
  top: "inception_4b/pool_proj"
  param {
    lr_mult: 1
    decay_mult: 1
  }
  param {
    lr_mult: 2
    decay_mult: 0
  }
  convolution_param {
    num_output: 64
    kernel_size: 1
    weight_filler {
      type: "xavier"
      std: 0.1
    }
    bias_filler {
      type: "constant"
      value: 0.2
    }
  }
}
layer {
  name: "inception_4b/relu_pool_proj"
  type: "ReLU"
  bottom: "inception_4b/pool_proj"
  top: "inception_4b/pool_proj"
}
layer {
  name: "inception_4b/output"
  type: "Concat"
  bottom: "inception_4b/1x1"
  bottom: "inception_4b/3x3"
  bottom: "inception_4b/5x5"
  bottom: "inception_4b/pool_proj"
  top: "inception_4b/output"
}
layer {
  name: "inception_4c/1x1"
  type: "Convolution"
  bottom: "inception_4b/output"
  top: "inception_4c/1x1"
  param {
    lr_mult: 1
    decay_mult: 1
  }
  param {
    lr_mult: 2
    decay_mult: 0
  }
  convolution_param {
    num_output: 128
    kernel_size: 1
    weight_filler {
      type: "xavier"
      std: 0.03
    }
    bias_filler {
      type: "constant"
      value: 0.2
    }
  }
}
layer {
  name: "inception_4c/relu_1x1"
  type: "ReLU"
  bottom: "inception_4c/1x1"
  top: "inception_4c/1x1"
}
layer {
  name: "inception_4c/3x3_reduce"
  type: "Convolution"
  bottom: "inception_4b/output"
  top: "inception_4c/3x3_reduce"
  param {
    lr_mult: 1
    decay_mult: 1
  }
  param {
    lr_mult: 2
    decay_mult: 0
  }
  convolution_param {
    num_output: 128
    kernel_size: 1
    weight_filler {
      type: "xavier"
      std: 0.09
    }
    bias_filler {
      type: "constant"
      value: 0.2
    }
  }
}
layer {
  name: "inception_4c/relu_3x3_reduce"
  type: "ReLU"
  bottom: "inception_4c/3x3_reduce"
  top: "inception_4c/3x3_reduce"
}
layer {
  name: "inception_4c/3x3"
  type: "Convolution"
  bottom: "inception_4c/3x3_reduce"
  top: "inception_4c/3x3"
  param {
    lr_mult: 1
    decay_mult: 1
  }
  param {
    lr_mult: 2
    decay_mult: 0
  }
  convolution_param {
    num_output: 256
    pad: 1
    kernel_size: 3
    weight_filler {
      type: "xavier"
      std: 0.03
    }
    bias_filler {
      type: "constant"
      value: 0.2
    }
  }
}
layer {
  name: "inception_4c/relu_3x3"
  type: "ReLU"
  bottom: "inception_4c/3x3"
  top: "inception_4c/3x3"
}
layer {
  name: "inception_4c/5x5_reduce"
  type: "Convolution"
  bottom: "inception_4b/output"
  top: "inception_4c/5x5_reduce"
  param {
    lr_mult: 1
    decay_mult: 1
  }
  param {
    lr_mult: 2
    decay_mult: 0
  }
  convolution_param {
    num_output: 24
    kernel_size: 1
    weight_filler {
      type: "xavier"
      std: 0.2
    }
    bias_filler {
      type: "constant"
      value: 0.2
    }
  }
}
layer {
  name: "inception_4c/relu_5x5_reduce"
  type: "ReLU"
  bottom: "inception_4c/5x5_reduce"
  top: "inception_4c/5x5_reduce"
}
layer {
  name: "inception_4c/5x5"
  type: "Convolution"
  bottom: "inception_4c/5x5_reduce"
  top: "inception_4c/5x5"
  param {
    lr_mult: 1
    decay_mult: 1
  }
  param {
    lr_mult: 2
    decay_mult: 0
  }
  convolution_param {
    num_output: 64
    pad: 2
    kernel_size: 5
    weight_filler {
      type: "xavier"
      std: 0.03
    }
    bias_filler {
      type: "constant"
      value: 0.2
    }
  }
}
layer {
  name: "inception_4c/relu_5x5"
  type: "ReLU"
  bottom: "inception_4c/5x5"
  top: "inception_4c/5x5"
}
layer {
  name: "inception_4c/pool"
  type: "Pooling"
  bottom: "inception_4b/output"
  top: "inception_4c/pool"
  pooling_param {
    pool: MAX
    kernel_size: 3
    stride: 1
    pad: 1
  }
}
layer {
  name: "inception_4c/pool_proj"
  type: "Convolution"
  bottom: "inception_4c/pool"
  top: "inception_4c/pool_proj"
  param {
    lr_mult: 1
    decay_mult: 1
  }
  param {
    lr_mult: 2
    decay_mult: 0
  }
  convolution_param {
    num_output: 64
    kernel_size: 1
    weight_filler {
      type: "xavier"
      std: 0.1
    }
    bias_filler {
      type: "constant"
      value: 0.2
    }
  }
}
layer {
  name: "inception_4c/relu_pool_proj"
  type: "ReLU"
  bottom: "inception_4c/pool_proj"
  top: "inception_4c/pool_proj"
}
layer {
  name: "inception_4c/output"
  type: "Concat"
  bottom: "inception_4c/1x1"
  bottom: "inception_4c/3x3"
  bottom: "inception_4c/5x5"
  bottom: "inception_4c/pool_proj"
  top: "inception_4c/output"
}
layer {
  name: "inception_4d/1x1"
  type: "Convolution"
  bottom: "inception_4c/output"
  top: "inception_4d/1x1"
  param {
    lr_mult: 1
    decay_mult: 1
  }
  param {
    lr_mult: 2
    decay_mult: 0
  }
  convolution_param {
    num_output: 112
    kernel_size: 1
    weight_filler {
      type: "xavier"
      std: 0.03
    }
    bias_filler {
      type: "constant"
      value: 0.2
    }
  }
}
layer {
  name: "inception_4d/relu_1x1"
  type: "ReLU"
  bottom: "inception_4d/1x1"
  top: "inception_4d/1x1"
}
layer {
  name: "inception_4d/3x3_reduce"
  type: "Convolution"
  bottom: "inception_4c/output"
  top: "inception_4d/3x3_reduce"
  param {
    lr_mult: 1
    decay_mult: 1
  }
  param {
    lr_mult: 2
    decay_mult: 0
  }
  convolution_param {
    num_output: 144
    kernel_size: 1
    weight_filler {
      type: "xavier"
      std: 0.09
    }
    bias_filler {
      type: "constant"
      value: 0.2
    }
  }
}
layer {
  name: "inception_4d/relu_3x3_reduce"
  type: "ReLU"
  bottom: "inception_4d/3x3_reduce"
  top: "inception_4d/3x3_reduce"
}
layer {
  name: "inception_4d/3x3"
  type: "Convolution"
  bottom: "inception_4d/3x3_reduce"
  top: "inception_4d/3x3"
  param {
    lr_mult: 1
    decay_mult: 1
  }
  param {
    lr_mult: 2
    decay_mult: 0
  }
  convolution_param {
    num_output: 288
    pad: 1
    kernel_size: 3
    weight_filler {
      type: "xavier"
      std: 0.03
    }
    bias_filler {
      type: "constant"
      value: 0.2
    }
  }
}
layer {
  name: "inception_4d/relu_3x3"
  type: "ReLU"
  bottom: "inception_4d/3x3"
  top: "inception_4d/3x3"
}
layer {
  name: "inception_4d/5x5_reduce"
  type: "Convolution"
  bottom: "inception_4c/output"
  top: "inception_4d/5x5_reduce"
  param {
    lr_mult: 1
    decay_mult: 1
  }
  param {
    lr_mult: 2
    decay_mult: 0
  }
  convolution_param {
    num_output: 32
    kernel_size: 1
    weight_filler {
      type: "xavier"
      std: 0.2
    }
    bias_filler {
      type: "constant"
      value: 0.2
    }
  }
}
layer {
  name: "inception_4d/relu_5x5_reduce"
  type: "ReLU"
  bottom: "inception_4d/5x5_reduce"
  top: "inception_4d/5x5_reduce"
}
layer {
  name: "inception_4d/5x5"
  type: "Convolution"
  bottom: "inception_4d/5x5_reduce"
  top: "inception_4d/5x5"
  param {
    lr_mult: 1
    decay_mult: 1
  }
  param {
    lr_mult: 2
    decay_mult: 0
  }
  convolution_param {
    num_output: 64
    pad: 2
    kernel_size: 5
    weight_filler {
      type: "xavier"
      std: 0.03
    }
    bias_filler {
      type: "constant"
      value: 0.2
    }
  }
}
layer {
  name: "inception_4d/relu_5x5"
  type: "ReLU"
  bottom: "inception_4d/5x5"
  top: "inception_4d/5x5"
}
layer {
  name: "inception_4d/pool"
  type: "Pooling"
  bottom: "inception_4c/output"
  top: "inception_4d/pool"
  pooling_param {
    pool: MAX
    kernel_size: 3
    stride: 1
    pad: 1
  }
}
layer {
  name: "inception_4d/pool_proj"
  type: "Convolution"
  bottom: "inception_4d/pool"
  top: "inception_4d/pool_proj"
  param {
    lr_mult: 1
    decay_mult: 1
  }
  param {
    lr_mult: 2
    decay_mult: 0
  }
  convolution_param {
    num_output: 64
    kernel_size: 1
    weight_filler {
      type: "xavier"
      std: 0.1
    }
    bias_filler {
      type: "constant"
      value: 0.2
    }
  }
}
layer {
  name: "inception_4d/relu_pool_proj"
  type: "ReLU"
  bottom: "inception_4d/pool_proj"
  top: "inception_4d/pool_proj"
}
layer {
  name: "inception_4d/output"
  type: "Concat"
  bottom: "inception_4d/1x1"
  bottom: "inception_4d/3x3"
  bottom: "inception_4d/5x5"
  bottom: "inception_4d/pool_proj"
  top: "inception_4d/output"
}
layer {
  name: "loss2/ave_pool"
  type: "Pooling"
  bottom: "inception_4d/output"
  top: "loss2/ave_pool"
  pooling_param {
    pool: AVE
    kernel_size: 5
    stride: 3
  }
}
layer {
  name: "loss2/conv"
  type: "Convolution"
  bottom: "loss2/ave_pool"
  top: "loss2/conv"
  param {
    lr_mult: 1
    decay_mult: 1
  }
  param {
    lr_mult: 2
    decay_mult: 0
  }
  convolution_param {
    num_output: 128
    kernel_size: 1
    weight_filler {
      type: "xavier"
      std: 0.08
    }
    bias_filler {
      type: "constant"
      value: 0.2
    }
  }
}
layer {
  name: "loss2/relu_conv"
  type: "ReLU"
  bottom: "loss2/conv"
  top: "loss2/conv"
}
layer {
  name: "loss2/fc"
  type: "InnerProduct"
  bottom: "loss2/conv"
  top: "loss2/fc"
  param {
    lr_mult: 1
    decay_mult: 1
  }
  param {
    lr_mult: 2
    decay_mult: 0
  }
  inner_product_param {
    num_output: 1024
    weight_filler {
      type: "xavier"
      std: 0.02
    }
    bias_filler {
      type: "constant"
      value: 0.2
    }
  }
}
layer {
  name: "loss2/relu_fc"
  type: "ReLU"
  bottom: "loss2/fc"
  top: "loss2/fc"
}
layer {
  name: "loss2/drop_fc"
  type: "Dropout"
  bottom: "loss2/fc"
  top: "loss2/fc"
  dropout_param {
    dropout_ratio: 0.7
  }
}
layer {
  name: "loss2/classifier_plantvillage"
  type: "InnerProduct"
  bottom: "loss2/fc"
  top: "loss2/classifier_plantvillage"
  param {
    lr_mult: 1
    decay_mult: 1
  }
  param {
    lr_mult: 2
    decay_mult: 0
  }
  inner_product_param {
    num_output: 38
    weight_filler {
      type: "xavier"
      std: 0.0009765625
    }
    bias_filler {
      type: "constant"
      value: 0
    }
  }
}
layer {
  name: "inception_4e/1x1"
  type: "Convolution"
  bottom: "inception_4d/output"
  top: "inception_4e/1x1"
  param {
    lr_mult: 1
    decay_mult: 1
  }
  param {
    lr_mult: 2
    decay_mult: 0
  }
  convolution_param {
    num_output: 256
    kernel_size: 1
    weight_filler {
      type: "xavier"
      std: 0.03
    }
    bias_filler {
      type: "constant"
      value: 0.2
    }
  }
}
layer {
  name: "inception_4e/relu_1x1"
  type: "ReLU"
  bottom: "inception_4e/1x1"
  top: "inception_4e/1x1"
}
layer {
  name: "inception_4e/3x3_reduce"
  type: "Convolution"
  bottom: "inception_4d/output"
  top: "inception_4e/3x3_reduce"
  param {
    lr_mult: 1
    decay_mult: 1
  }
  param {
    lr_mult: 2
    decay_mult: 0
  }
  convolution_param {
    num_output: 160
    kernel_size: 1
    weight_filler {
      type: "xavier"
      std: 0.09
    }
    bias_filler {
      type: "constant"
      value: 0.2
    }
  }
}
layer {
  name: "inception_4e/relu_3x3_reduce"
  type: "ReLU"
  bottom: "inception_4e/3x3_reduce"
  top: "inception_4e/3x3_reduce"
}
layer {
  name: "inception_4e/3x3"
  type: "Convolution"
  bottom: "inception_4e/3x3_reduce"
  top: "inception_4e/3x3"
  param {
    lr_mult: 1
    decay_mult: 1
  }
  param {
    lr_mult: 2
    decay_mult: 0
  }
  convolution_param {
    num_output: 320
    pad: 1
    kernel_size: 3
    weight_filler {
      type: "xavier"
      std: 0.03
    }
    bias_filler {
      type: "constant"
      value: 0.2
    }
  }
}
layer {
  name: "inception_4e/relu_3x3"
  type: "ReLU"
  bottom: "inception_4e/3x3"
  top: "inception_4e/3x3"
}
layer {
  name: "inception_4e/5x5_reduce"
  type: "Convolution"
  bottom: "inception_4d/output"
  top: "inception_4e/5x5_reduce"
  param {
    lr_mult: 1
    decay_mult: 1
  }
  param {
    lr_mult: 2
    decay_mult: 0
  }
  convolution_param {
    num_output: 32
    kernel_size: 1
    weight_filler {
      type: "xavier"
      std: 0.2
    }
    bias_filler {
      type: "constant"
      value: 0.2
    }
  }
}
layer {
  name: "inception_4e/relu_5x5_reduce"
  type: "ReLU"
  bottom: "inception_4e/5x5_reduce"
  top: "inception_4e/5x5_reduce"
}
layer {
  name: "inception_4e/5x5"
  type: "Convolution"
  bottom: "inception_4e/5x5_reduce"
  top: "inception_4e/5x5"
  p
I0403 16:01:08.669502 16758 layer_factory.hpp:77] Creating layer data
I0403 16:01:08.670229 16758 net.cpp:91] Creating Layer data
I0403 16:01:08.670266 16758 net.cpp:399] data -> data
I0403 16:01:08.670330 16758 net.cpp:399] data -> label
I0403 16:01:08.670373 16758 data_transformer.cpp:25] Loading mean file from: /home/mohanty/data/final_dataset/lmdb/color-20-80/mean.binaryproto
I0403 16:01:08.671618 16761 db_lmdb.cpp:38] Opened lmdb /home/mohanty/data/final_dataset/lmdb/color-20-80/test_db
I0403 16:01:08.685814 16758 data_layer.cpp:41] output data size: 24,3,224,224
I0403 16:01:08.717620 16758 net.cpp:141] Setting up data
I0403 16:01:08.717716 16758 net.cpp:148] Top shape: 24 3 224 224 (3612672)
I0403 16:01:08.717744 16758 net.cpp:148] Top shape: 24 (24)
I0403 16:01:08.717762 16758 net.cpp:156] Memory required for data: 14450784
I0403 16:01:08.717793 16758 layer_factory.hpp:77] Creating layer label_data_1_split
I0403 16:01:08.717825 16758 net.cpp:91] Creating Layer label_data_1_split
I0403 16:01:08.717847 16758 net.cpp:425] label_data_1_split <- label
I0403 16:01:08.717886 16758 net.cpp:399] label_data_1_split -> label_data_1_split_0
I0403 16:01:08.717921 16758 net.cpp:399] label_data_1_split -> label_data_1_split_1
I0403 16:01:08.717947 16758 net.cpp:399] label_data_1_split -> label_data_1_split_2
I0403 16:01:08.717974 16758 net.cpp:399] label_data_1_split -> label_data_1_split_3
I0403 16:01:08.717998 16758 net.cpp:399] label_data_1_split -> label_data_1_split_4
I0403 16:01:08.718022 16758 net.cpp:399] label_data_1_split -> label_data_1_split_5
I0403 16:01:08.718045 16758 net.cpp:399] label_data_1_split -> label_data_1_split_6
I0403 16:01:08.718070 16758 net.cpp:399] label_data_1_split -> label_data_1_split_7
I0403 16:01:08.718093 16758 net.cpp:399] label_data_1_split -> label_data_1_split_8
I0403 16:01:08.718117 16758 net.cpp:399] label_data_1_split -> label_data_1_split_9
I0403 16:01:08.718255 16758 net.cpp:141] Setting up label_data_1_split
I0403 16:01:08.718283 16758 net.cpp:148] Top shape: 24 (24)
I0403 16:01:08.718305 16758 net.cpp:148] Top shape: 24 (24)
I0403 16:01:08.718325 16758 net.cpp:148] Top shape: 24 (24)
I0403 16:01:08.718344 16758 net.cpp:148] Top shape: 24 (24)
I0403 16:01:08.718363 16758 net.cpp:148] Top shape: 24 (24)
I0403 16:01:08.718380 16758 net.cpp:148] Top shape: 24 (24)
I0403 16:01:08.718400 16758 net.cpp:148] Top shape: 24 (24)
I0403 16:01:08.718416 16758 net.cpp:148] Top shape: 24 (24)
I0403 16:01:08.718436 16758 net.cpp:148] Top shape: 24 (24)
I0403 16:01:08.718456 16758 net.cpp:148] Top shape: 24 (24)
I0403 16:01:08.718507 16758 net.cpp:156] Memory required for data: 14451744
I0403 16:01:08.718525 16758 layer_factory.hpp:77] Creating layer conv1/7x7_s2
I0403 16:01:08.718564 16758 net.cpp:91] Creating Layer conv1/7x7_s2
I0403 16:01:08.718585 16758 net.cpp:425] conv1/7x7_s2 <- data
I0403 16:01:08.718616 16758 net.cpp:399] conv1/7x7_s2 -> conv1/7x7_s2
I0403 16:01:08.887806 16758 net.cpp:141] Setting up conv1/7x7_s2
I0403 16:01:08.887895 16758 net.cpp:148] Top shape: 24 64 112 112 (19267584)
I0403 16:01:08.887917 16758 net.cpp:156] Memory required for data: 91522080
I0403 16:01:08.887953 16758 layer_factory.hpp:77] Creating layer conv1/relu_7x7
I0403 16:01:08.887984 16758 net.cpp:91] Creating Layer conv1/relu_7x7
I0403 16:01:08.888007 16758 net.cpp:425] conv1/relu_7x7 <- conv1/7x7_s2
I0403 16:01:08.888032 16758 net.cpp:386] conv1/relu_7x7 -> conv1/7x7_s2 (in-place)
I0403 16:01:08.888366 16758 net.cpp:141] Setting up conv1/relu_7x7
I0403 16:01:08.888399 16758 net.cpp:148] Top shape: 24 64 112 112 (19267584)
I0403 16:01:08.888417 16758 net.cpp:156] Memory required for data: 168592416
I0403 16:01:08.888437 16758 layer_factory.hpp:77] Creating layer pool1/3x3_s2
I0403 16:01:08.888468 16758 net.cpp:91] Creating Layer pool1/3x3_s2
I0403 16:01:08.888491 16758 net.cpp:425] pool1/3x3_s2 <- conv1/7x7_s2
I0403 16:01:08.888514 16758 net.cpp:399] pool1/3x3_s2 -> pool1/3x3_s2
I0403 16:01:08.888618 16758 net.cpp:141] Setting up pool1/3x3_s2
I0403 16:01:08.888648 16758 net.cpp:148] Top shape: 24 64 56 56 (4816896)
I0403 16:01:08.888667 16758 net.cpp:156] Memory required for data: 187860000
I0403 16:01:08.888685 16758 layer_factory.hpp:77] Creating layer pool1/norm1
I0403 16:01:08.888716 16758 net.cpp:91] Creating Layer pool1/norm1
I0403 16:01:08.888739 16758 net.cpp:425] pool1/norm1 <- pool1/3x3_s2
I0403 16:01:08.888761 16758 net.cpp:399] pool1/norm1 -> pool1/norm1
I0403 16:01:08.889124 16758 net.cpp:141] Setting up pool1/norm1
I0403 16:01:08.889158 16758 net.cpp:148] Top shape: 24 64 56 56 (4816896)
I0403 16:01:08.889176 16758 net.cpp:156] Memory required for data: 207127584
I0403 16:01:08.889195 16758 layer_factory.hpp:77] Creating layer conv2/3x3_reduce
I0403 16:01:08.889227 16758 net.cpp:91] Creating Layer conv2/3x3_reduce
I0403 16:01:08.889250 16758 net.cpp:425] conv2/3x3_reduce <- pool1/norm1
I0403 16:01:08.889276 16758 net.cpp:399] conv2/3x3_reduce -> conv2/3x3_reduce
I0403 16:01:08.890935 16758 net.cpp:141] Setting up conv2/3x3_reduce
I0403 16:01:08.890971 16758 net.cpp:148] Top shape: 24 64 56 56 (4816896)
I0403 16:01:08.890992 16758 net.cpp:156] Memory required for data: 226395168
I0403 16:01:08.891018 16758 layer_factory.hpp:77] Creating layer conv2/relu_3x3_reduce
I0403 16:01:08.891041 16758 net.cpp:91] Creating Layer conv2/relu_3x3_reduce
I0403 16:01:08.891062 16758 net.cpp:425] conv2/relu_3x3_reduce <- conv2/3x3_reduce
I0403 16:01:08.891084 16758 net.cpp:386] conv2/relu_3x3_reduce -> conv2/3x3_reduce (in-place)
I0403 16:01:08.891410 16758 net.cpp:141] Setting up conv2/relu_3x3_reduce
I0403 16:01:08.891443 16758 net.cpp:148] Top shape: 24 64 56 56 (4816896)
I0403 16:01:08.891463 16758 net.cpp:156] Memory required for data: 245662752
I0403 16:01:08.891479 16758 layer_factory.hpp:77] Creating layer conv2/3x3
I0403 16:01:08.891508 16758 net.cpp:91] Creating Layer conv2/3x3
I0403 16:01:08.891530 16758 net.cpp:425] conv2/3x3 <- conv2/3x3_reduce
I0403 16:01:08.891558 16758 net.cpp:399] conv2/3x3 -> conv2/3x3
I0403 16:01:08.894306 16758 net.cpp:141] Setting up conv2/3x3
I0403 16:01:08.894343 16758 net.cpp:148] Top shape: 24 192 56 56 (14450688)
I0403 16:01:08.894364 16758 net.cpp:156] Memory required for data: 303465504
I0403 16:01:08.894390 16758 layer_factory.hpp:77] Creating layer conv2/relu_3x3
I0403 16:01:08.894414 16758 net.cpp:91] Creating Layer conv2/relu_3x3
I0403 16:01:08.894434 16758 net.cpp:425] conv2/relu_3x3 <- conv2/3x3
I0403 16:01:08.894457 16758 net.cpp:386] conv2/relu_3x3 -> conv2/3x3 (in-place)
I0403 16:01:08.894675 16758 net.cpp:141] Setting up conv2/relu_3x3
I0403 16:01:08.894707 16758 net.cpp:148] Top shape: 24 192 56 56 (14450688)
I0403 16:01:08.894762 16758 net.cpp:156] Memory required for data: 361268256
I0403 16:01:08.894781 16758 layer_factory.hpp:77] Creating layer conv2/norm2
I0403 16:01:08.894809 16758 net.cpp:91] Creating Layer conv2/norm2
I0403 16:01:08.894829 16758 net.cpp:425] conv2/norm2 <- conv2/3x3
I0403 16:01:08.894850 16758 net.cpp:399] conv2/norm2 -> conv2/norm2
I0403 16:01:08.895216 16758 net.cpp:141] Setting up conv2/norm2
I0403 16:01:08.895252 16758 net.cpp:148] Top shape: 24 192 56 56 (14450688)
I0403 16:01:08.895272 16758 net.cpp:156] Memory required for data: 419071008
I0403 16:01:08.895292 16758 layer_factory.hpp:77] Creating layer pool2/3x3_s2
I0403 16:01:08.895313 16758 net.cpp:91] Creating Layer pool2/3x3_s2
I0403 16:01:08.895331 16758 net.cpp:425] pool2/3x3_s2 <- conv2/norm2
I0403 16:01:08.895354 16758 net.cpp:399] pool2/3x3_s2 -> pool2/3x3_s2
I0403 16:01:08.895421 16758 net.cpp:141] Setting up pool2/3x3_s2
I0403 16:01:08.895448 16758 net.cpp:148] Top shape: 24 192 28 28 (3612672)
I0403 16:01:08.895467 16758 net.cpp:156] Memory required for data: 433521696
I0403 16:01:08.895486 16758 layer_factory.hpp:77] Creating layer pool2/3x3_s2_pool2/3x3_s2_0_split
I0403 16:01:08.895511 16758 net.cpp:91] Creating Layer pool2/3x3_s2_pool2/3x3_s2_0_split
I0403 16:01:08.895531 16758 net.cpp:425] pool2/3x3_s2_pool2/3x3_s2_0_split <- pool2/3x3_s2
I0403 16:01:08.895552 16758 net.cpp:399] pool2/3x3_s2_pool2/3x3_s2_0_split -> pool2/3x3_s2_pool2/3x3_s2_0_split_0
I0403 16:01:08.895576 16758 net.cpp:399] pool2/3x3_s2_pool2/3x3_s2_0_split -> pool2/3x3_s2_pool2/3x3_s2_0_split_1
I0403 16:01:08.895623 16758 net.cpp:399] pool2/3x3_s2_pool2/3x3_s2_0_split -> pool2/3x3_s2_pool2/3x3_s2_0_split_2
I0403 16:01:08.895658 16758 net.cpp:399] pool2/3x3_s2_pool2/3x3_s2_0_split -> pool2/3x3_s2_pool2/3x3_s2_0_split_3
I0403 16:01:08.895745 16758 net.cpp:141] Setting up pool2/3x3_s2_pool2/3x3_s2_0_split
I0403 16:01:08.895773 16758 net.cpp:148] Top shape: 24 192 28 28 (3612672)
I0403 16:01:08.895794 16758 net.cpp:148] Top shape: 24 192 28 28 (3612672)
I0403 16:01:08.895813 16758 net.cpp:148] Top shape: 24 192 28 28 (3612672)
I0403 16:01:08.895833 16758 net.cpp:148] Top shape: 24 192 28 28 (3612672)
I0403 16:01:08.895849 16758 net.cpp:156] Memory required for data: 491324448
I0403 16:01:08.895866 16758 layer_factory.hpp:77] Creating layer inception_3a/1x1
I0403 16:01:08.895894 16758 net.cpp:91] Creating Layer inception_3a/1x1
I0403 16:01:08.895920 16758 net.cpp:425] inception_3a/1x1 <- pool2/3x3_s2_pool2/3x3_s2_0_split_0
I0403 16:01:08.895946 16758 net.cpp:399] inception_3a/1x1 -> inception_3a/1x1
I0403 16:01:08.897750 16758 net.cpp:141] Setting up inception_3a/1x1
I0403 16:01:08.897790 16758 net.cpp:148] Top shape: 24 64 28 28 (1204224)
I0403 16:01:08.897811 16758 net.cpp:156] Memory required for data: 496141344
I0403 16:01:08.897835 16758 layer_factory.hpp:77] Creating layer inception_3a/relu_1x1
I0403 16:01:08.897858 16758 net.cpp:91] Creating Layer inception_3a/relu_1x1
I0403 16:01:08.897877 16758 net.cpp:425] inception_3a/relu_1x1 <- inception_3a/1x1
I0403 16:01:08.897902 16758 net.cpp:386] inception_3a/relu_1x1 -> inception_3a/1x1 (in-place)
I0403 16:01:08.898115 16758 net.cpp:141] Setting up inception_3a/relu_1x1
I0403 16:01:08.898146 16758 net.cpp:148] Top shape: 24 64 28 28 (1204224)
I0403 16:01:08.898164 16758 net.cpp:156] Memory required for data: 500958240
I0403 16:01:08.898182 16758 layer_factory.hpp:77] Creating layer inception_3a/3x3_reduce
I0403 16:01:08.898211 16758 net.cpp:91] Creating Layer inception_3a/3x3_reduce
I0403 16:01:08.898231 16758 net.cpp:425] inception_3a/3x3_reduce <- pool2/3x3_s2_pool2/3x3_s2_0_split_1
I0403 16:01:08.898257 16758 net.cpp:399] inception_3a/3x3_reduce -> inception_3a/3x3_reduce
I0403 16:01:08.900269 16758 net.cpp:141] Setting up inception_3a/3x3_reduce
I0403 16:01:08.900305 16758 net.cpp:148] Top shape: 24 96 28 28 (1806336)
I0403 16:01:08.900324 16758 net.cpp:156] Memory required for data: 508183584
I0403 16:01:08.900352 16758 layer_factory.hpp:77] Creating layer inception_3a/relu_3x3_reduce
I0403 16:01:08.900398 16758 net.cpp:91] Creating Layer inception_3a/relu_3x3_reduce
I0403 16:01:08.900420 16758 net.cpp:425] inception_3a/relu_3x3_reduce <- inception_3a/3x3_reduce
I0403 16:01:08.900442 16758 net.cpp:386] inception_3a/relu_3x3_reduce -> inception_3a/3x3_reduce (in-place)
I0403 16:01:08.900667 16758 net.cpp:141] Setting up inception_3a/relu_3x3_reduce
I0403 16:01:08.900702 16758 net.cpp:148] Top shape: 24 96 28 28 (1806336)
I0403 16:01:08.900722 16758 net.cpp:156] Memory required for data: 515408928
I0403 16:01:08.900738 16758 layer_factory.hpp:77] Creating layer inception_3a/3x3
I0403 16:01:08.900765 16758 net.cpp:91] Creating Layer inception_3a/3x3
I0403 16:01:08.900787 16758 net.cpp:425] inception_3a/3x3 <- inception_3a/3x3_reduce
I0403 16:01:08.900811 16758 net.cpp:399] inception_3a/3x3 -> inception_3a/3x3
I0403 16:01:08.902823 16758 net.cpp:141] Setting up inception_3a/3x3
I0403 16:01:08.902859 16758 net.cpp:148] Top shape: 24 128 28 28 (2408448)
I0403 16:01:08.902878 16758 net.cpp:156] Memory required for data: 525042720
I0403 16:01:08.902900 16758 layer_factory.hpp:77] Creating layer inception_3a/relu_3x3
I0403 16:01:08.902925 16758 net.cpp:91] Creating Layer inception_3a/relu_3x3
I0403 16:01:08.902946 16758 net.cpp:425] inception_3a/relu_3x3 <- inception_3a/3x3
I0403 16:01:08.902969 16758 net.cpp:386] inception_3a/relu_3x3 -> inception_3a/3x3 (in-place)
I0403 16:01:08.903295 16758 net.cpp:141] Setting up inception_3a/relu_3x3
I0403 16:01:08.903328 16758 net.cpp:148] Top shape: 24 128 28 28 (2408448)
I0403 16:01:08.903348 16758 net.cpp:156] Memory required for data: 534676512
I0403 16:01:08.903367 16758 layer_factory.hpp:77] Creating layer inception_3a/5x5_reduce
I0403 16:01:08.903393 16758 net.cpp:91] Creating Layer inception_3a/5x5_reduce
I0403 16:01:08.903415 16758 net.cpp:425] inception_3a/5x5_reduce <- pool2/3x3_s2_pool2/3x3_s2_0_split_2
I0403 16:01:08.903441 16758 net.cpp:399] inception_3a/5x5_reduce -> inception_3a/5x5_reduce
I0403 16:01:08.904587 16758 net.cpp:141] Setting up inception_3a/5x5_reduce
I0403 16:01:08.904635 16758 net.cpp:148] Top shape: 24 16 28 28 (301056)
I0403 16:01:08.904656 16758 net.cpp:156] Memory required for data: 535880736
I0403 16:01:08.904680 16758 layer_factory.hpp:77] Creating layer inception_3a/relu_5x5_reduce
I0403 16:01:08.904706 16758 net.cpp:91] Creating Layer inception_3a/relu_5x5_reduce
I0403 16:01:08.904728 16758 net.cpp:425] inception_3a/relu_5x5_reduce <- inception_3a/5x5_reduce
I0403 16:01:08.904750 16758 net.cpp:386] inception_3a/relu_5x5_reduce -> inception_3a/5x5_reduce (in-place)
I0403 16:01:08.905097 16758 net.cpp:141] Setting up inception_3a/relu_5x5_reduce
I0403 16:01:08.905130 16758 net.cpp:148] Top shape: 24 16 28 28 (301056)
I0403 16:01:08.905148 16758 net.cpp:156] Memory required for data: 537084960
I0403 16:01:08.905167 16758 layer_factory.hpp:77] Creating layer inception_3a/5x5
I0403 16:01:08.905194 16758 net.cpp:91] Creating Layer inception_3a/5x5
I0403 16:01:08.905216 16758 net.cpp:425] inception_3a/5x5 <- inception_3a/5x5_reduce
I0403 16:01:08.905242 16758 net.cpp:399] inception_3a/5x5 -> inception_3a/5x5
I0403 16:01:08.906474 16758 net.cpp:141] Setting up inception_3a/5x5
I0403 16:01:08.906512 16758 net.cpp:148] Top shape: 24 32 28 28 (602112)
I0403 16:01:08.906532 16758 net.cpp:156] Memory required for data: 539493408
I0403 16:01:08.906553 16758 layer_factory.hpp:77] Creating layer inception_3a/relu_5x5
I0403 16:01:08.906577 16758 net.cpp:91] Creating Layer inception_3a/relu_5x5
I0403 16:01:08.906599 16758 net.cpp:425] inception_3a/relu_5x5 <- inception_3a/5x5
I0403 16:01:08.906630 16758 net.cpp:386] inception_3a/relu_5x5 -> inception_3a/5x5 (in-place)
I0403 16:01:08.906844 16758 net.cpp:141] Setting up inception_3a/relu_5x5
I0403 16:01:08.906875 16758 net.cpp:148] Top shape: 24 32 28 28 (602112)
I0403 16:01:08.906893 16758 net.cpp:156] Memory required for data: 541901856
I0403 16:01:08.906910 16758 layer_factory.hpp:77] Creating layer inception_3a/pool
I0403 16:01:08.906934 16758 net.cpp:91] Creating Layer inception_3a/pool
I0403 16:01:08.906954 16758 net.cpp:425] inception_3a/pool <- pool2/3x3_s2_pool2/3x3_s2_0_split_3
I0403 16:01:08.906996 16758 net.cpp:399] inception_3a/pool -> inception_3a/pool
I0403 16:01:08.907068 16758 net.cpp:141] Setting up inception_3a/pool
I0403 16:01:08.907097 16758 net.cpp:148] Top shape: 24 192 28 28 (3612672)
I0403 16:01:08.907116 16758 net.cpp:156] Memory required for data: 556352544
I0403 16:01:08.907135 16758 layer_factory.hpp:77] Creating layer inception_3a/pool_proj
I0403 16:01:08.907162 16758 net.cpp:91] Creating Layer inception_3a/pool_proj
I0403 16:01:08.907183 16758 net.cpp:425] inception_3a/pool_proj <- inception_3a/pool
I0403 16:01:08.907210 16758 net.cpp:399] inception_3a/pool_proj -> inception_3a/pool_proj
I0403 16:01:08.908360 16758 net.cpp:141] Setting up inception_3a/pool_proj
I0403 16:01:08.908395 16758 net.cpp:148] Top shape: 24 32 28 28 (602112)
I0403 16:01:08.908414 16758 net.cpp:156] Memory required for data: 558760992
I0403 16:01:08.908445 16758 layer_factory.hpp:77] Creating layer inception_3a/relu_pool_proj
I0403 16:01:08.908473 16758 net.cpp:91] Creating Layer inception_3a/relu_pool_proj
I0403 16:01:08.908493 16758 net.cpp:425] inception_3a/relu_pool_proj <- inception_3a/pool_proj
I0403 16:01:08.908515 16758 net.cpp:386] inception_3a/relu_pool_proj -> inception_3a/pool_proj (in-place)
I0403 16:01:08.908846 16758 net.cpp:141] Setting up inception_3a/relu_pool_proj
I0403 16:01:08.908879 16758 net.cpp:148] Top shape: 24 32 28 28 (602112)
I0403 16:01:08.908898 16758 net.cpp:156] Memory required for data: 561169440
I0403 16:01:08.908917 16758 layer_factory.hpp:77] Creating layer inception_3a/output
I0403 16:01:08.908939 16758 net.cpp:91] Creating Layer inception_3a/output
I0403 16:01:08.908958 16758 net.cpp:425] inception_3a/output <- inception_3a/1x1
I0403 16:01:08.908978 16758 net.cpp:425] inception_3a/output <- inception_3a/3x3
I0403 16:01:08.908998 16758 net.cpp:425] inception_3a/output <- inception_3a/5x5
I0403 16:01:08.909018 16758 net.cpp:425] inception_3a/output <- inception_3a/pool_proj
I0403 16:01:08.909040 16758 net.cpp:399] inception_3a/output -> inception_3a/output
I0403 16:01:08.909096 16758 net.cpp:141] Setting up inception_3a/output
I0403 16:01:08.909126 16758 net.cpp:148] Top shape: 24 256 28 28 (4816896)
I0403 16:01:08.909147 16758 net.cpp:156] Memory required for data: 580437024
I0403 16:01:08.909164 16758 layer_factory.hpp:77] Creating layer inception_3a/output_inception_3a/output_0_split
I0403 16:01:08.909186 16758 net.cpp:91] Creating Layer inception_3a/output_inception_3a/output_0_split
I0403 16:01:08.909204 16758 net.cpp:425] inception_3a/output_inception_3a/output_0_split <- inception_3a/output
I0403 16:01:08.909225 16758 net.cpp:399] inception_3a/output_inception_3a/output_0_split -> inception_3a/output_inception_3a/output_0_split_0
I0403 16:01:08.909257 16758 net.cpp:399] inception_3a/output_inception_3a/output_0_split -> inception_3a/output_inception_3a/output_0_split_1
I0403 16:01:08.909284 16758 net.cpp:399] inception_3a/output_inception_3a/output_0_split -> inception_3a/output_inception_3a/output_0_split_2
I0403 16:01:08.909312 16758 net.cpp:399] inception_3a/output_inception_3a/output_0_split -> inception_3a/output_inception_3a/output_0_split_3
I0403 16:01:08.909399 16758 net.cpp:141] Setting up inception_3a/output_inception_3a/output_0_split
I0403 16:01:08.909430 16758 net.cpp:148] Top shape: 24 256 28 28 (4816896)
I0403 16:01:08.909451 16758 net.cpp:148] Top shape: 24 256 28 28 (4816896)
I0403 16:01:08.909471 16758 net.cpp:148] Top shape: 24 256 28 28 (4816896)
I0403 16:01:08.909488 16758 net.cpp:148] Top shape: 24 256 28 28 (4816896)
I0403 16:01:08.909505 16758 net.cpp:156] Memory required for data: 657507360
I0403 16:01:08.909523 16758 layer_factory.hpp:77] Creating layer inception_3b/1x1
I0403 16:01:08.909550 16758 net.cpp:91] Creating Layer inception_3b/1x1
I0403 16:01:08.909572 16758 net.cpp:425] inception_3b/1x1 <- inception_3a/output_inception_3a/output_0_split_0
I0403 16:01:08.909597 16758 net.cpp:399] inception_3b/1x1 -> inception_3b/1x1
I0403 16:01:08.910986 16758 net.cpp:141] Setting up inception_3b/1x1
I0403 16:01:08.911038 16758 net.cpp:148] Top shape: 24 128 28 28 (2408448)
I0403 16:01:08.911059 16758 net.cpp:156] Memory required for data: 667141152
I0403 16:01:08.911082 16758 layer_factory.hpp:77] Creating layer inception_3b/relu_1x1
I0403 16:01:08.911105 16758 net.cpp:91] Creating Layer inception_3b/relu_1x1
I0403 16:01:08.911124 16758 net.cpp:425] inception_3b/relu_1x1 <- inception_3b/1x1
I0403 16:01:08.911145 16758 net.cpp:386] inception_3b/relu_1x1 -> inception_3b/1x1 (in-place)
I0403 16:01:08.911358 16758 net.cpp:141] Setting up inception_3b/relu_1x1
I0403 16:01:08.911389 16758 net.cpp:148] Top shape: 24 128 28 28 (2408448)
I0403 16:01:08.911408 16758 net.cpp:156] Memory required for data: 676774944
I0403 16:01:08.911427 16758 layer_factory.hpp:77] Creating layer inception_3b/3x3_reduce
I0403 16:01:08.911453 16758 net.cpp:91] Creating Layer inception_3b/3x3_reduce
I0403 16:01:08.911473 16758 net.cpp:425] inception_3b/3x3_reduce <- inception_3a/output_inception_3a/output_0_split_1
I0403 16:01:08.911499 16758 net.cpp:399] inception_3b/3x3_reduce -> inception_3b/3x3_reduce
I0403 16:01:08.912868 16758 net.cpp:141] Setting up inception_3b/3x3_reduce
I0403 16:01:08.912905 16758 net.cpp:148] Top shape: 24 128 28 28 (2408448)
I0403 16:01:08.912925 16758 net.cpp:156] Memory required for data: 686408736
I0403 16:01:08.912948 16758 layer_factory.hpp:77] Creating layer inception_3b/relu_3x3_reduce
I0403 16:01:08.912971 16758 net.cpp:91] Creating Layer inception_3b/relu_3x3_reduce
I0403 16:01:08.912992 16758 net.cpp:425] inception_3b/relu_3x3_reduce <- inception_3b/3x3_reduce
I0403 16:01:08.913017 16758 net.cpp:386] inception_3b/relu_3x3_reduce -> inception_3b/3x3_reduce (in-place)
I0403 16:01:08.913228 16758 net.cpp:141] Setting up inception_3b/relu_3x3_reduce
I0403 16:01:08.913259 16758 net.cpp:148] Top shape: 24 128 28 28 (2408448)
I0403 16:01:08.913277 16758 net.cpp:156] Memory required for data: 696042528
I0403 16:01:08.913295 16758 layer_factory.hpp:77] Creating layer inception_3b/3x3
I0403 16:01:08.913327 16758 net.cpp:91] Creating Layer inception_3b/3x3
I0403 16:01:08.913349 16758 net.cpp:425] inception_3b/3x3 <- inception_3b/3x3_reduce
I0403 16:01:08.913373 16758 net.cpp:399] inception_3b/3x3 -> inception_3b/3x3
I0403 16:01:08.916916 16758 net.cpp:141] Setting up inception_3b/3x3
I0403 16:01:08.916954 16758 net.cpp:148] Top shape: 24 192 28 28 (3612672)
I0403 16:01:08.916972 16758 net.cpp:156] Memory required for data: 710493216
I0403 16:01:08.916995 16758 layer_factory.hpp:77] Creating layer inception_3b/relu_3x3
I0403 16:01:08.917017 16758 net.cpp:91] Creating Layer inception_3b/relu_3x3
I0403 16:01:08.917042 16758 net.cpp:425] inception_3b/relu_3x3 <- inception_3b/3x3
I0403 16:01:08.917063 16758 net.cpp:386] inception_3b/relu_3x3 -> inception_3b/3x3 (in-place)
I0403 16:01:08.917399 16758 net.cpp:141] Setting up inception_3b/relu_3x3
I0403 16:01:08.917433 16758 net.cpp:148] Top shape: 24 192 28 28 (3612672)
I0403 16:01:08.917451 16758 net.cpp:156] Memory required for data: 724943904
I0403 16:01:08.917469 16758 layer_factory.hpp:77] Creating layer inception_3b/5x5_reduce
I0403 16:01:08.917498 16758 net.cpp:91] Creating Layer inception_3b/5x5_reduce
I0403 16:01:08.917521 16758 net.cpp:425] inception_3b/5x5_reduce <- inception_3a/output_inception_3a/output_0_split_2
I0403 16:01:08.917547 16758 net.cpp:399] inception_3b/5x5_reduce -> inception_3b/5x5_reduce
I0403 16:01:08.918748 16758 net.cpp:141] Setting up inception_3b/5x5_reduce
I0403 16:01:08.918783 16758 net.cpp:148] Top shape: 24 32 28 28 (602112)
I0403 16:01:08.918802 16758 net.cpp:156] Memory required for data: 727352352
I0403 16:01:08.918825 16758 layer_factory.hpp:77] Creating layer inception_3b/relu_5x5_reduce
I0403 16:01:08.918848 16758 net.cpp:91] Creating Layer inception_3b/relu_5x5_reduce
I0403 16:01:08.918869 16758 net.cpp:425] inception_3b/relu_5x5_reduce <- inception_3b/5x5_reduce
I0403 16:01:08.918892 16758 net.cpp:386] inception_3b/relu_5x5_reduce -> inception_3b/5x5_reduce (in-place)
I0403 16:01:08.919117 16758 net.cpp:141] Setting up inception_3b/relu_5x5_reduce
I0403 16:01:08.919163 16758 net.cpp:148] Top shape: 24 32 28 28 (602112)
I0403 16:01:08.919183 16758 net.cpp:156] Memory required for data: 729760800
I0403 16:01:08.919201 16758 layer_factory.hpp:77] Creating layer inception_3b/5x5
I0403 16:01:08.919229 16758 net.cpp:91] Creating Layer inception_3b/5x5
I0403 16:01:08.919250 16758 net.cpp:425] inception_3b/5x5 <- inception_3b/5x5_reduce
I0403 16:01:08.919276 16758 net.cpp:399] inception_3b/5x5 -> inception_3b/5x5
I0403 16:01:08.921634 16758 net.cpp:141] Setting up inception_3b/5x5
I0403 16:01:08.921674 16758 net.cpp:148] Top shape: 24 96 28 28 (1806336)
I0403 16:01:08.921694 16758 net.cpp:156] Memory required for data: 736986144
I0403 16:01:08.921716 16758 layer_factory.hpp:77] Creating layer inception_3b/relu_5x5
I0403 16:01:08.921739 16758 net.cpp:91] Creating Layer inception_3b/relu_5x5
I0403 16:01:08.921758 16758 net.cpp:425] inception_3b/relu_5x5 <- inception_3b/5x5
I0403 16:01:08.921782 16758 net.cpp:386] inception_3b/relu_5x5 -> inception_3b/5x5 (in-place)
I0403 16:01:08.922019 16758 net.cpp:141] Setting up inception_3b/relu_5x5
I0403 16:01:08.922049 16758 net.cpp:148] Top shape: 24 96 28 28 (1806336)
I0403 16:01:08.922067 16758 net.cpp:156] Memory required for data: 744211488
I0403 16:01:08.922086 16758 layer_factory.hpp:77] Creating layer inception_3b/pool
I0403 16:01:08.922107 16758 net.cpp:91] Creating Layer inception_3b/pool
I0403 16:01:08.922127 16758 net.cpp:425] inception_3b/pool <- inception_3a/output_inception_3a/output_0_split_3
I0403 16:01:08.922148 16758 net.cpp:399] inception_3b/pool -> inception_3b/pool
I0403 16:01:08.922216 16758 net.cpp:141] Setting up inception_3b/pool
I0403 16:01:08.922246 16758 net.cpp:148] Top shape: 24 256 28 28 (4816896)
I0403 16:01:08.922265 16758 net.cpp:156] Memory required for data: 763479072
I0403 16:01:08.922283 16758 layer_factory.hpp:77] Creating layer inception_3b/pool_proj
I0403 16:01:08.922312 16758 net.cpp:91] Creating Layer inception_3b/pool_proj
I0403 16:01:08.922334 16758 net.cpp:425] inception_3b/pool_proj <- inception_3b/pool
I0403 16:01:08.922358 16758 net.cpp:399] inception_3b/pool_proj -> inception_3b/pool_proj
I0403 16:01:08.923650 16758 net.cpp:141] Setting up inception_3b/pool_proj
I0403 16:01:08.923684 16758 net.cpp:148] Top shape: 24 64 28 28 (1204224)
I0403 16:01:08.923703 16758 net.cpp:156] Memory required for data: 768295968
I0403 16:01:08.923725 16758 layer_factory.hpp:77] Creating layer inception_3b/relu_pool_proj
I0403 16:01:08.923750 16758 net.cpp:91] Creating Layer inception_3b/relu_pool_proj
I0403 16:01:08.923773 16758 net.cpp:425] inception_3b/relu_pool_proj <- inception_3b/pool_proj
I0403 16:01:08.923794 16758 net.cpp:386] inception_3b/relu_pool_proj -> inception_3b/pool_proj (in-place)
I0403 16:01:08.924258 16758 net.cpp:141] Setting up inception_3b/relu_pool_proj
I0403 16:01:08.924290 16758 net.cpp:148] Top shape: 24 64 28 28 (1204224)
I0403 16:01:08.924309 16758 net.cpp:156] Memory required for data: 773112864
I0403 16:01:08.924327 16758 layer_factory.hpp:77] Creating layer inception_3b/output
I0403 16:01:08.924350 16758 net.cpp:91] Creating Layer inception_3b/output
I0403 16:01:08.924371 16758 net.cpp:425] inception_3b/output <- inception_3b/1x1
I0403 16:01:08.924392 16758 net.cpp:425] inception_3b/output <- inception_3b/3x3
I0403 16:01:08.924412 16758 net.cpp:425] inception_3b/output <- inception_3b/5x5
I0403 16:01:08.924430 16758 net.cpp:425] inception_3b/output <- inception_3b/pool_proj
I0403 16:01:08.924451 16758 net.cpp:399] inception_3b/output -> inception_3b/output
I0403 16:01:08.924504 16758 net.cpp:141] Setting up inception_3b/output
I0403 16:01:08.924535 16758 net.cpp:148] Top shape: 24 480 28 28 (9031680)
I0403 16:01:08.924554 16758 net.cpp:156] Memory required for data: 809239584
I0403 16:01:08.924573 16758 layer_factory.hpp:77] Creating layer pool3/3x3_s2
I0403 16:01:08.924594 16758 net.cpp:91] Creating Layer pool3/3x3_s2
I0403 16:01:08.924619 16758 net.cpp:425] pool3/3x3_s2 <- inception_3b/output
I0403 16:01:08.924645 16758 net.cpp:399] pool3/3x3_s2 -> pool3/3x3_s2
I0403 16:01:08.924732 16758 net.cpp:141] Setting up pool3/3x3_s2
I0403 16:01:08.924763 16758 net.cpp:148] Top shape: 24 480 14 14 (2257920)
I0403 16:01:08.924783 16758 net.cpp:156] Memory required for data: 818271264
I0403 16:01:08.924803 16758 layer_factory.hpp:77] Creating layer pool3/3x3_s2_pool3/3x3_s2_0_split
I0403 16:01:08.924825 16758 net.cpp:91] Creating Layer pool3/3x3_s2_pool3/3x3_s2_0_split
I0403 16:01:08.924844 16758 net.cpp:425] pool3/3x3_s2_pool3/3x3_s2_0_split <- pool3/3x3_s2
I0403 16:01:08.924863 16758 net.cpp:399] pool3/3x3_s2_pool3/3x3_s2_0_split -> pool3/3x3_s2_pool3/3x3_s2_0_split_0
I0403 16:01:08.924887 16758 net.cpp:399] pool3/3x3_s2_pool3/3x3_s2_0_split -> pool3/3x3_s2_pool3/3x3_s2_0_split_1
I0403 16:01:08.924914 16758 net.cpp:399] pool3/3x3_s2_pool3/3x3_s2_0_split -> pool3/3x3_s2_pool3/3x3_s2_0_split_2
I0403 16:01:08.924942 16758 net.cpp:399] pool3/3x3_s2_pool3/3x3_s2_0_split -> pool3/3x3_s2_pool3/3x3_s2_0_split_3
I0403 16:01:08.925034 16758 net.cpp:141] Setting up pool3/3x3_s2_pool3/3x3_s2_0_split
I0403 16:01:08.925062 16758 net.cpp:148] Top shape: 24 480 14 14 (2257920)
I0403 16:01:08.925083 16758 net.cpp:148] Top shape: 24 480 14 14 (2257920)
I0403 16:01:08.925102 16758 net.cpp:148] Top shape: 24 480 14 14 (2257920)
I0403 16:01:08.925122 16758 net.cpp:148] Top shape: 24 480 14 14 (2257920)
I0403 16:01:08.925137 16758 net.cpp:156] Memory required for data: 854397984
I0403 16:01:08.925155 16758 layer_factory.hpp:77] Creating layer inception_4a/1x1
I0403 16:01:08.925182 16758 net.cpp:91] Creating Layer inception_4a/1x1
I0403 16:01:08.925204 16758 net.cpp:425] inception_4a/1x1 <- pool3/3x3_s2_pool3/3x3_s2_0_split_0
I0403 16:01:08.925230 16758 net.cpp:399] inception_4a/1x1 -> inception_4a/1x1
I0403 16:01:08.927152 16758 net.cpp:141] Setting up inception_4a/1x1
I0403 16:01:08.927188 16758 net.cpp:148] Top shape: 24 192 14 14 (903168)
I0403 16:01:08.927207 16758 net.cpp:156] Memory required for data: 858010656
I0403 16:01:08.927230 16758 layer_factory.hpp:77] Creating layer inception_4a/relu_1x1
I0403 16:01:08.927255 16758 net.cpp:91] Creating Layer inception_4a/relu_1x1
I0403 16:01:08.927276 16758 net.cpp:425] inception_4a/relu_1x1 <- inception_4a/1x1
I0403 16:01:08.927297 16758 net.cpp:386] inception_4a/relu_1x1 -> inception_4a/1x1 (in-place)
I0403 16:01:08.927513 16758 net.cpp:141] Setting up inception_4a/relu_1x1
I0403 16:01:08.927548 16758 net.cpp:148] Top shape: 24 192 14 14 (903168)
I0403 16:01:08.927567 16758 net.cpp:156] Memory required for data: 861623328
I0403 16:01:08.927585 16758 layer_factory.hpp:77] Creating layer inception_4a/3x3_reduce
I0403 16:01:08.927618 16758 net.cpp:91] Creating Layer inception_4a/3x3_reduce
I0403 16:01:08.927641 16758 net.cpp:425] inception_4a/3x3_reduce <- pool3/3x3_s2_pool3/3x3_s2_0_split_1
I0403 16:01:08.927669 16758 net.cpp:399] inception_4a/3x3_reduce -> inception_4a/3x3_reduce
I0403 16:01:08.929215 16758 net.cpp:141] Setting up inception_4a/3x3_reduce
I0403 16:01:08.929250 16758 net.cpp:148] Top shape: 24 96 14 14 (451584)
I0403 16:01:08.929270 16758 net.cpp:156] Memory required for data: 863429664
I0403 16:01:08.929299 16758 layer_factory.hpp:77] Creating layer inception_4a/relu_3x3_reduce
I0403 16:01:08.929328 16758 net.cpp:91] Creating Layer inception_4a/relu_3x3_reduce
I0403 16:01:08.929348 16758 net.cpp:425] inception_4a/relu_3x3_reduce <- inception_4a/3x3_reduce
I0403 16:01:08.929370 16758 net.cpp:386] inception_4a/relu_3x3_reduce -> inception_4a/3x3_reduce (in-place)
I0403 16:01:08.929582 16758 net.cpp:141] Setting up inception_4a/relu_3x3_reduce
I0403 16:01:08.929621 16758 net.cpp:148] Top shape: 24 96 14 14 (451584)
I0403 16:01:08.929641 16758 net.cpp:156] Memory required for data: 865236000
I0403 16:01:08.929659 16758 layer_factory.hpp:77] Creating layer inception_4a/3x3
I0403 16:01:08.929685 16758 net.cpp:91] Creating Layer inception_4a/3x3
I0403 16:01:08.929708 16758 net.cpp:425] inception_4a/3x3 <- inception_4a/3x3_reduce
I0403 16:01:08.929731 16758 net.cpp:399] inception_4a/3x3 -> inception_4a/3x3
I0403 16:01:08.932956 16758 net.cpp:141] Setting up inception_4a/3x3
I0403 16:01:08.932996 16758 net.cpp:148] Top shape: 24 208 14 14 (978432)
I0403 16:01:08.933017 16758 net.cpp:156] Memory required for data: 869149728
I0403 16:01:08.933039 16758 layer_factory.hpp:77] Creating layer inception_4a/relu_3x3
I0403 16:01:08.933061 16758 net.cpp:91] Creating Layer inception_4a/relu_3x3
I0403 16:01:08.933082 16758 net.cpp:425] inception_4a/relu_3x3 <- inception_4a/3x3
I0403 16:01:08.933106 16758 net.cpp:386] inception_4a/relu_3x3 -> inception_4a/3x3 (in-place)
I0403 16:01:08.933439 16758 net.cpp:141] Setting up inception_4a/relu_3x3
I0403 16:01:08.933475 16758 net.cpp:148] Top shape: 24 208 14 14 (978432)
I0403 16:01:08.933496 16758 net.cpp:156] Memory required for data: 873063456
I0403 16:01:08.933514 16758 layer_factory.hpp:77] Creating layer inception_4a/5x5_reduce
I0403 16:01:08.933544 16758 net.cpp:91] Creating Layer inception_4a/5x5_reduce
I0403 16:01:08.933568 16758 net.cpp:425] inception_4a/5x5_reduce <- pool3/3x3_s2_pool3/3x3_s2_0_split_2
I0403 16:01:08.933590 16758 net.cpp:399] inception_4a/5x5_reduce -> inception_4a/5x5_reduce
I0403 16:01:08.934828 16758 net.cpp:141] Setting up inception_4a/5x5_reduce
I0403 16:01:08.934864 16758 net.cpp:148] Top shape: 24 16 14 14 (75264)
I0403 16:01:08.934885 16758 net.cpp:156] Memory required for data: 873364512
I0403 16:01:08.934907 16758 layer_factory.hpp:77] Creating layer inception_4a/relu_5x5_reduce
I0403 16:01:08.934931 16758 net.cpp:91] Creating Layer inception_4a/relu_5x5_reduce
I0403 16:01:08.934952 16758 net.cpp:425] inception_4a/relu_5x5_reduce <- inception_4a/5x5_reduce
I0403 16:01:08.934975 16758 net.cpp:386] inception_4a/relu_5x5_reduce -> inception_4a/5x5_reduce (in-place)
I0403 16:01:08.935191 16758 net.cpp:141] Setting up inception_4a/relu_5x5_reduce
I0403 16:01:08.935222 16758 net.cpp:148] Top shape: 24 16 14 14 (75264)
I0403 16:01:08.935240 16758 net.cpp:156] Memory required for data: 873665568
I0403 16:01:08.935258 16758 layer_factory.hpp:77] Creating layer inception_4a/5x5
I0403 16:01:08.935286 16758 net.cpp:91] Creating Layer inception_4a/5x5
I0403 16:01:08.935307 16758 net.cpp:425] inception_4a/5x5 <- inception_4a/5x5_reduce
I0403 16:01:08.935333 16758 net.cpp:399] inception_4a/5x5 -> inception_4a/5x5
I0403 16:01:08.936656 16758 net.cpp:141] Setting up inception_4a/5x5
I0403 16:01:08.936691 16758 net.cpp:148] Top shape: 24 48 14 14 (225792)
I0403 16:01:08.936710 16758 net.cpp:156] Memory required for data: 874568736
I0403 16:01:08.936733 16758 layer_factory.hpp:77] Creating layer inception_4a/relu_5x5
I0403 16:01:08.936760 16758 net.cpp:91] Creating Layer inception_4a/relu_5x5
I0403 16:01:08.936781 16758 net.cpp:425] inception_4a/relu_5x5 <- inception_4a/5x5
I0403 16:01:08.936805 16758 net.cpp:386] inception_4a/relu_5x5 -> inception_4a/5x5 (in-place)
I0403 16:01:08.937021 16758 net.cpp:141] Setting up inception_4a/relu_5x5
I0403 16:01:08.937052 16758 net.cpp:148] Top shape: 24 48 14 14 (225792)
I0403 16:01:08.937072 16758 net.cpp:156] Memory required for data: 875471904
I0403 16:01:08.937090 16758 layer_factory.hpp:77] Creating layer inception_4a/pool
I0403 16:01:08.937115 16758 net.cpp:91] Creating Layer inception_4a/pool
I0403 16:01:08.937134 16758 net.cpp:425] inception_4a/pool <- pool3/3x3_s2_pool3/3x3_s2_0_split_3
I0403 16:01:08.937160 16758 net.cpp:399] inception_4a/pool -> inception_4a/pool
I0403 16:01:08.937234 16758 net.cpp:141] Setting up inception_4a/pool
I0403 16:01:08.937263 16758 net.cpp:148] Top shape: 24 480 14 14 (2257920)
I0403 16:01:08.937283 16758 net.cpp:156] Memory required for data: 884503584
I0403 16:01:08.937299 16758 layer_factory.hpp:77] Creating layer inception_4a/pool_proj
I0403 16:01:08.937325 16758 net.cpp:91] Creating Layer inception_4a/pool_proj
I0403 16:01:08.937347 16758 net.cpp:425] inception_4a/pool_proj <- inception_4a/pool
I0403 16:01:08.937373 16758 net.cpp:399] inception_4a/pool_proj -> inception_4a/pool_proj
I0403 16:01:08.938783 16758 net.cpp:141] Setting up inception_4a/pool_proj
I0403 16:01:08.938818 16758 net.cpp:148] Top shape: 24 64 14 14 (301056)
I0403 16:01:08.938855 16758 net.cpp:156] Memory required for data: 885707808
I0403 16:01:08.938879 16758 layer_factory.hpp:77] Creating layer inception_4a/relu_pool_proj
I0403 16:01:08.938915 16758 net.cpp:91] Creating Layer inception_4a/relu_pool_proj
I0403 16:01:08.938935 16758 net.cpp:425] inception_4a/relu_pool_proj <- inception_4a/pool_proj
I0403 16:01:08.938957 16758 net.cpp:386] inception_4a/relu_pool_proj -> inception_4a/pool_proj (in-place)
I0403 16:01:08.939291 16758 net.cpp:141] Setting up inception_4a/relu_pool_proj
I0403 16:01:08.939323 16758 net.cpp:148] Top shape: 24 64 14 14 (301056)
I0403 16:01:08.939342 16758 net.cpp:156] Memory required for data: 886912032
I0403 16:01:08.939359 16758 layer_factory.hpp:77] Creating layer inception_4a/output
I0403 16:01:08.939383 16758 net.cpp:91] Creating Layer inception_4a/output
I0403 16:01:08.939405 16758 net.cpp:425] inception_4a/output <- inception_4a/1x1
I0403 16:01:08.939426 16758 net.cpp:425] inception_4a/output <- inception_4a/3x3
I0403 16:01:08.939445 16758 net.cpp:425] inception_4a/output <- inception_4a/5x5
I0403 16:01:08.939465 16758 net.cpp:425] inception_4a/output <- inception_4a/pool_proj
I0403 16:01:08.939484 16758 net.cpp:399] inception_4a/output -> inception_4a/output
I0403 16:01:08.939540 16758 net.cpp:141] Setting up inception_4a/output
I0403 16:01:08.939569 16758 net.cpp:148] Top shape: 24 512 14 14 (2408448)
I0403 16:01:08.939589 16758 net.cpp:156] Memory required for data: 896545824
I0403 16:01:08.939611 16758 layer_factory.hpp:77] Creating layer inception_4a/output_inception_4a/output_0_split
I0403 16:01:08.939635 16758 net.cpp:91] Creating Layer inception_4a/output_inception_4a/output_0_split
I0403 16:01:08.939656 16758 net.cpp:425] inception_4a/output_inception_4a/output_0_split <- inception_4a/output
I0403 16:01:08.939679 16758 net.cpp:399] inception_4a/output_inception_4a/output_0_split -> inception_4a/output_inception_4a/output_0_split_0
I0403 16:01:08.939705 16758 net.cpp:399] inception_4a/output_inception_4a/output_0_split -> inception_4a/output_inception_4a/output_0_split_1
I0403 16:01:08.939730 16758 net.cpp:399] inception_4a/output_inception_4a/output_0_split -> inception_4a/output_inception_4a/output_0_split_2
I0403 16:01:08.939756 16758 net.cpp:399] inception_4a/output_inception_4a/output_0_split -> inception_4a/output_inception_4a/output_0_split_3
I0403 16:01:08.939780 16758 net.cpp:399] inception_4a/output_inception_4a/output_0_split -> inception_4a/output_inception_4a/output_0_split_4
I0403 16:01:08.939898 16758 net.cpp:141] Setting up inception_4a/output_inception_4a/output_0_split
I0403 16:01:08.939926 16758 net.cpp:148] Top shape: 24 512 14 14 (2408448)
I0403 16:01:08.939946 16758 net.cpp:148] Top shape: 24 512 14 14 (2408448)
I0403 16:01:08.939965 16758 net.cpp:148] Top shape: 24 512 14 14 (2408448)
I0403 16:01:08.939985 16758 net.cpp:148] Top shape: 24 512 14 14 (2408448)
I0403 16:01:08.940003 16758 net.cpp:148] Top shape: 24 512 14 14 (2408448)
I0403 16:01:08.940019 16758 net.cpp:156] Memory required for data: 944714784
I0403 16:01:08.940037 16758 layer_factory.hpp:77] Creating layer loss1/ave_pool
I0403 16:01:08.940059 16758 net.cpp:91] Creating Layer loss1/ave_pool
I0403 16:01:08.940079 16758 net.cpp:425] loss1/ave_pool <- inception_4a/output_inception_4a/output_0_split_0
I0403 16:01:08.940104 16758 net.cpp:399] loss1/ave_pool -> loss1/ave_pool
I0403 16:01:08.940351 16758 net.cpp:141] Setting up loss1/ave_pool
I0403 16:01:08.940383 16758 net.cpp:148] Top shape: 24 512 4 4 (196608)
I0403 16:01:08.940402 16758 net.cpp:156] Memory required for data: 945501216
I0403 16:01:08.940419 16758 layer_factory.hpp:77] Creating layer loss1/conv
I0403 16:01:08.940446 16758 net.cpp:91] Creating Layer loss1/conv
I0403 16:01:08.940467 16758 net.cpp:425] loss1/conv <- loss1/ave_pool
I0403 16:01:08.940493 16758 net.cpp:399] loss1/conv -> loss1/conv
I0403 16:01:08.942194 16758 net.cpp:141] Setting up loss1/conv
I0403 16:01:08.942231 16758 net.cpp:148] Top shape: 24 128 4 4 (49152)
I0403 16:01:08.942251 16758 net.cpp:156] Memory required for data: 945697824
I0403 16:01:08.942291 16758 layer_factory.hpp:77] Creating layer loss1/relu_conv
I0403 16:01:08.942315 16758 net.cpp:91] Creating Layer loss1/relu_conv
I0403 16:01:08.942335 16758 net.cpp:425] loss1/relu_conv <- loss1/conv
I0403 16:01:08.942359 16758 net.cpp:386] loss1/relu_conv -> loss1/conv (in-place)
I0403 16:01:08.942700 16758 net.cpp:141] Setting up loss1/relu_conv
I0403 16:01:08.942735 16758 net.cpp:148] Top shape: 24 128 4 4 (49152)
I0403 16:01:08.942756 16758 net.cpp:156] Memory required for data: 945894432
I0403 16:01:08.942775 16758 layer_factory.hpp:77] Creating layer loss1/fc
I0403 16:01:08.942803 16758 net.cpp:91] Creating Layer loss1/fc
I0403 16:01:08.942826 16758 net.cpp:425] loss1/fc <- loss1/conv
I0403 16:01:08.942850 16758 net.cpp:399] loss1/fc -> loss1/fc
I0403 16:01:08.964727 16758 net.cpp:141] Setting up loss1/fc
I0403 16:01:08.964773 16758 net.cpp:148] Top shape: 24 1024 (24576)
I0403 16:01:08.964792 16758 net.cpp:156] Memory required for data: 945992736
I0403 16:01:08.964823 16758 layer_factory.hpp:77] Creating layer loss1/relu_fc
I0403 16:01:08.964853 16758 net.cpp:91] Creating Layer loss1/relu_fc
I0403 16:01:08.964874 16758 net.cpp:425] loss1/relu_fc <- loss1/fc
I0403 16:01:08.964895 16758 net.cpp:386] loss1/relu_fc -> loss1/fc (in-place)
I0403 16:01:08.965122 16758 net.cpp:141] Setting up loss1/relu_fc
I0403 16:01:08.965153 16758 net.cpp:148] Top shape: 24 1024 (24576)
I0403 16:01:08.965172 16758 net.cpp:156] Memory required for data: 946091040
I0403 16:01:08.965190 16758 layer_factory.hpp:77] Creating layer loss1/drop_fc
I0403 16:01:08.965220 16758 net.cpp:91] Creating Layer loss1/drop_fc
I0403 16:01:08.965242 16758 net.cpp:425] loss1/drop_fc <- loss1/fc
I0403 16:01:08.965266 16758 net.cpp:386] loss1/drop_fc -> loss1/fc (in-place)
I0403 16:01:08.965328 16758 net.cpp:141] Setting up loss1/drop_fc
I0403 16:01:08.965358 16758 net.cpp:148] Top shape: 24 1024 (24576)
I0403 16:01:08.965375 16758 net.cpp:156] Memory required for data: 946189344
I0403 16:01:08.965394 16758 layer_factory.hpp:77] Creating layer loss1/classifier_plantvillage
I0403 16:01:08.965422 16758 net.cpp:91] Creating Layer loss1/classifier_plantvillage
I0403 16:01:08.965442 16758 net.cpp:425] loss1/classifier_plantvillage <- loss1/fc
I0403 16:01:08.965466 16758 net.cpp:399] loss1/classifier_plantvillage -> loss1/classifier_plantvillage
I0403 16:01:08.966577 16758 net.cpp:141] Setting up loss1/classifier_plantvillage
I0403 16:01:08.966617 16758 net.cpp:148] Top shape: 24 38 (912)
I0403 16:01:08.966639 16758 net.cpp:156] Memory required for data: 946192992
I0403 16:01:08.966661 16758 layer_factory.hpp:77] Creating layer loss1/classifier_plantvillage_loss1/classifier_plantvillage_0_split
I0403 16:01:08.966687 16758 net.cpp:91] Creating Layer loss1/classifier_plantvillage_loss1/classifier_plantvillage_0_split
I0403 16:01:08.966708 16758 net.cpp:425] loss1/classifier_plantvillage_loss1/classifier_plantvillage_0_split <- loss1/classifier_plantvillage
I0403 16:01:08.966729 16758 net.cpp:399] loss1/classifier_plantvillage_loss1/classifier_plantvillage_0_split -> loss1/classifier_plantvillage_loss1/classifier_plantvillage_0_split_0
I0403 16:01:08.966758 16758 net.cpp:399] loss1/classifier_plantvillage_loss1/classifier_plantvillage_0_split -> loss1/classifier_plantvillage_loss1/classifier_plantvillage_0_split_1
I0403 16:01:08.966785 16758 net.cpp:399] loss1/classifier_plantvillage_loss1/classifier_plantvillage_0_split -> loss1/classifier_plantvillage_loss1/classifier_plantvillage_0_split_2
I0403 16:01:08.966866 16758 net.cpp:141] Setting up loss1/classifier_plantvillage_loss1/classifier_plantvillage_0_split
I0403 16:01:08.966895 16758 net.cpp:148] Top shape: 24 38 (912)
I0403 16:01:08.966915 16758 net.cpp:148] Top shape: 24 38 (912)
I0403 16:01:08.966934 16758 net.cpp:148] Top shape: 24 38 (912)
I0403 16:01:08.966951 16758 net.cpp:156] Memory required for data: 946203936
I0403 16:01:08.966969 16758 layer_factory.hpp:77] Creating layer inception_4b/1x1
I0403 16:01:08.966996 16758 net.cpp:91] Creating Layer inception_4b/1x1
I0403 16:01:08.967036 16758 net.cpp:425] inception_4b/1x1 <- inception_4a/output_inception_4a/output_0_split_1
I0403 16:01:08.967061 16758 net.cpp:399] inception_4b/1x1 -> inception_4b/1x1
I0403 16:01:08.969048 16758 net.cpp:141] Setting up inception_4b/1x1
I0403 16:01:08.969089 16758 net.cpp:148] Top shape: 24 160 14 14 (752640)
I0403 16:01:08.969110 16758 net.cpp:156] Memory required for data: 949214496
I0403 16:01:08.969135 16758 layer_factory.hpp:77] Creating layer inception_4b/relu_1x1
I0403 16:01:08.969156 16758 net.cpp:91] Creating Layer inception_4b/relu_1x1
I0403 16:01:08.969175 16758 net.cpp:425] inception_4b/relu_1x1 <- inception_4b/1x1
I0403 16:01:08.969199 16758 net.cpp:386] inception_4b/relu_1x1 -> inception_4b/1x1 (in-place)
I0403 16:01:08.969420 16758 net.cpp:141] Setting up inception_4b/relu_1x1
I0403 16:01:08.969452 16758 net.cpp:148] Top shape: 24 160 14 14 (752640)
I0403 16:01:08.969471 16758 net.cpp:156] Memory required for data: 952225056
I0403 16:01:08.969490 16758 layer_factory.hpp:77] Creating layer inception_4b/3x3_reduce
I0403 16:01:08.969519 16758 net.cpp:91] Creating Layer inception_4b/3x3_reduce
I0403 16:01:08.969542 16758 net.cpp:425] inception_4b/3x3_reduce <- inception_4a/output_inception_4a/output_0_split_2
I0403 16:01:08.969569 16758 net.cpp:399] inception_4b/3x3_reduce -> inception_4b/3x3_reduce
I0403 16:01:08.971205 16758 net.cpp:141] Setting up inception_4b/3x3_reduce
I0403 16:01:08.971240 16758 net.cpp:148] Top shape: 24 112 14 14 (526848)
I0403 16:01:08.971261 16758 net.cpp:156] Memory required for data: 954332448
I0403 16:01:08.971284 16758 layer_factory.hpp:77] Creating layer inception_4b/relu_3x3_reduce
I0403 16:01:08.971307 16758 net.cpp:91] Creating Layer inception_4b/relu_3x3_reduce
I0403 16:01:08.971326 16758 net.cpp:425] inception_4b/relu_3x3_reduce <- inception_4b/3x3_reduce
I0403 16:01:08.971350 16758 net.cpp:386] inception_4b/relu_3x3_reduce -> inception_4b/3x3_reduce (in-place)
I0403 16:01:08.971698 16758 net.cpp:141] Setting up inception_4b/relu_3x3_reduce
I0403 16:01:08.971730 16758 net.cpp:148] Top shape: 24 112 14 14 (526848)
I0403 16:01:08.971750 16758 net.cpp:156] Memory required for data: 956439840
I0403 16:01:08.971768 16758 layer_factory.hpp:77] Creating layer inception_4b/3x3
I0403 16:01:08.971796 16758 net.cpp:91] Creating Layer inception_4b/3x3
I0403 16:01:08.971817 16758 net.cpp:425] inception_4b/3x3 <- inception_4b/3x3_reduce
I0403 16:01:08.971843 16758 net.cpp:399] inception_4b/3x3 -> inception_4b/3x3
I0403 16:01:08.975472 16758 net.cpp:141] Setting up inception_4b/3x3
I0403 16:01:08.975508 16758 net.cpp:148] Top shape: 24 224 14 14 (1053696)
I0403 16:01:08.975528 16758 net.cpp:156] Memory required for data: 960654624
I0403 16:01:08.975551 16758 layer_factory.hpp:77] Creating layer inception_4b/relu_3x3
I0403 16:01:08.975576 16758 net.cpp:91] Creating Layer inception_4b/relu_3x3
I0403 16:01:08.975596 16758 net.cpp:425] inception_4b/relu_3x3 <- inception_4b/3x3
I0403 16:01:08.975628 16758 net.cpp:386] inception_4b/relu_3x3 -> inception_4b/3x3 (in-place)
I0403 16:01:08.975854 16758 net.cpp:141] Setting up inception_4b/relu_3x3
I0403 16:01:08.975885 16758 net.cpp:148] Top shape: 24 224 14 14 (1053696)
I0403 16:01:08.975903 16758 net.cpp:156] Memory required for data: 964869408
I0403 16:01:08.975922 16758 layer_factory.hpp:77] Creating layer inception_4b/5x5_reduce
I0403 16:01:08.975950 16758 net.cpp:91] Creating Layer inception_4b/5x5_reduce
I0403 16:01:08.975972 16758 net.cpp:425] inception_4b/5x5_reduce <- inception_4a/output_inception_4a/output_0_split_3
I0403 16:01:08.976001 16758 net.cpp:399] inception_4b/5x5_reduce -> inception_4b/5x5_reduce
I0403 16:01:08.977332 16758 net.cpp:141] Setting up inception_4b/5x5_reduce
I0403 16:01:08.977367 16758 net.cpp:148] Top shape: 24 24 14 14 (112896)
I0403 16:01:08.977388 16758 net.cpp:156] Memory required for data: 965320992
I0403 16:01:08.977411 16758 layer_factory.hpp:77] Creating layer inception_4b/relu_5x5_reduce
I0403 16:01:08.977433 16758 net.cpp:91] Creating Layer inception_4b/relu_5x5_reduce
I0403 16:01:08.977473 16758 net.cpp:425] inception_4b/relu_5x5_reduce <- inception_4b/5x5_reduce
I0403 16:01:08.977497 16758 net.cpp:386] inception_4b/relu_5x5_reduce -> inception_4b/5x5_reduce (in-place)
I0403 16:01:08.977727 16758 net.cpp:141] Setting up inception_4b/relu_5x5_reduce
I0403 16:01:08.977758 16758 net.cpp:148] Top shape: 24 24 14 14 (112896)
I0403 16:01:08.977777 16758 net.cpp:156] Memory required for data: 965772576
I0403 16:01:08.977794 16758 layer_factory.hpp:77] Creating layer inception_4b/5x5
I0403 16:01:08.977821 16758 net.cpp:91] Creating Layer inception_4b/5x5
I0403 16:01:08.977843 16758 net.cpp:425] inception_4b/5x5 <- inception_4b/5x5_reduce
I0403 16:01:08.977869 16758 net.cpp:399] inception_4b/5x5 -> inception_4b/5x5
I0403 16:01:08.979370 16758 net.cpp:141] Setting up inception_4b/5x5
I0403 16:01:08.979410 16758 net.cpp:148] Top shape: 24 64 14 14 (301056)
I0403 16:01:08.979431 16758 net.cpp:156] Memory required for data: 966976800
I0403 16:01:08.979454 16758 layer_factory.hpp:77] Creating layer inception_4b/relu_5x5
I0403 16:01:08.979476 16758 net.cpp:91] Creating Layer inception_4b/relu_5x5
I0403 16:01:08.979496 16758 net.cpp:425] inception_4b/relu_5x5 <- inception_4b/5x5
I0403 16:01:08.979521 16758 net.cpp:386] inception_4b/relu_5x5 -> inception_4b/5x5 (in-place)
I0403 16:01:08.979868 16758 net.cpp:141] Setting up inception_4b/relu_5x5
I0403 16:01:08.979905 16758 net.cpp:148] Top shape: 24 64 14 14 (301056)
I0403 16:01:08.979926 16758 net.cpp:156] Memory required for data: 968181024
I0403 16:01:08.979944 16758 layer_factory.hpp:77] Creating layer inception_4b/pool
I0403 16:01:08.979967 16758 net.cpp:91] Creating Layer inception_4b/pool
I0403 16:01:08.979987 16758 net.cpp:425] inception_4b/pool <- inception_4a/output_inception_4a/output_0_split_4
I0403 16:01:08.980012 16758 net.cpp:399] inception_4b/pool -> inception_4b/pool
I0403 16:01:08.980092 16758 net.cpp:141] Setting up inception_4b/pool
I0403 16:01:08.980123 16758 net.cpp:148] Top shape: 24 512 14 14 (2408448)
I0403 16:01:08.980142 16758 net.cpp:156] Memory required for data: 977814816
I0403 16:01:08.980161 16758 layer_factory.hpp:77] Creating layer inception_4b/pool_proj
I0403 16:01:08.980185 16758 net.cpp:91] Creating Layer inception_4b/pool_proj
I0403 16:01:08.980206 16758 net.cpp:425] inception_4b/pool_proj <- inception_4b/pool
I0403 16:01:08.980231 16758 net.cpp:399] inception_4b/pool_proj -> inception_4b/pool_proj
I0403 16:01:08.981698 16758 net.cpp:141] Setting up inception_4b/pool_proj
I0403 16:01:08.981734 16758 net.cpp:148] Top shape: 24 64 14 14 (301056)
I0403 16:01:08.981755 16758 net.cpp:156] Memory required for data: 979019040
I0403 16:01:08.981777 16758 layer_factory.hpp:77] Creating layer inception_4b/relu_pool_proj
I0403 16:01:08.981801 16758 net.cpp:91] Creating Layer inception_4b/relu_pool_proj
I0403 16:01:08.981820 16758 net.cpp:425] inception_4b/relu_pool_proj <- inception_4b/pool_proj
I0403 16:01:08.981845 16758 net.cpp:386] inception_4b/relu_pool_proj -> inception_4b/pool_proj (in-place)
I0403 16:01:08.982064 16758 net.cpp:141] Setting up inception_4b/relu_pool_proj
I0403 16:01:08.982095 16758 net.cpp:148] Top shape: 24 64 14 14 (301056)
I0403 16:01:08.982113 16758 net.cpp:156] Memory required for data: 980223264
I0403 16:01:08.982131 16758 layer_factory.hpp:77] Creating layer inception_4b/output
I0403 16:01:08.982153 16758 net.cpp:91] Creating Layer inception_4b/output
I0403 16:01:08.982172 16758 net.cpp:425] inception_4b/output <- inception_4b/1x1
I0403 16:01:08.982195 16758 net.cpp:425] inception_4b/output <- inception_4b/3x3
I0403 16:01:08.982216 16758 net.cpp:425] inception_4b/output <- inception_4b/5x5
I0403 16:01:08.982236 16758 net.cpp:425] inception_4b/output <- inception_4b/pool_proj
I0403 16:01:08.982256 16758 net.cpp:399] inception_4b/output -> inception_4b/output
I0403 16:01:08.982313 16758 net.cpp:141] Setting up inception_4b/output
I0403 16:01:08.982343 16758 net.cpp:148] Top shape: 24 512 14 14 (2408448)
I0403 16:01:08.982362 16758 net.cpp:156] Memory required for data: 989857056
I0403 16:01:08.982398 16758 layer_factory.hpp:77] Creating layer inception_4b/output_inception_4b/output_0_split
I0403 16:01:08.982421 16758 net.cpp:91] Creating Layer inception_4b/output_inception_4b/output_0_split
I0403 16:01:08.982441 16758 net.cpp:425] inception_4b/output_inception_4b/output_0_split <- inception_4b/output
I0403 16:01:08.982465 16758 net.cpp:399] inception_4b/output_inception_4b/output_0_split -> inception_4b/output_inception_4b/output_0_split_0
I0403 16:01:08.982492 16758 net.cpp:399] inception_4b/output_inception_4b/output_0_split -> inception_4b/output_inception_4b/output_0_split_1
I0403 16:01:08.982518 16758 net.cpp:399] inception_4b/output_inception_4b/output_0_split -> inception_4b/output_inception_4b/output_0_split_2
I0403 16:01:08.982544 16758 net.cpp:399] inception_4b/output_inception_4b/output_0_split -> inception_4b/output_inception_4b/output_0_split_3
I0403 16:01:08.982659 16758 net.cpp:141] Setting up inception_4b/output_inception_4b/output_0_split
I0403 16:01:08.982692 16758 net.cpp:148] Top shape: 24 512 14 14 (2408448)
I0403 16:01:08.982713 16758 net.cpp:148] Top shape: 24 512 14 14 (2408448)
I0403 16:01:08.982733 16758 net.cpp:148] Top shape: 24 512 14 14 (2408448)
I0403 16:01:08.982751 16758 net.cpp:148] Top shape: 24 512 14 14 (2408448)
I0403 16:01:08.982770 16758 net.cpp:156] Memory required for data: 1028392224
I0403 16:01:08.982789 16758 layer_factory.hpp:77] Creating layer inception_4c/1x1
I0403 16:01:08.982815 16758 net.cpp:91] Creating Layer inception_4c/1x1
I0403 16:01:08.982837 16758 net.cpp:425] inception_4c/1x1 <- inception_4b/output_inception_4b/output_0_split_0
I0403 16:01:08.982861 16758 net.cpp:399] inception_4c/1x1 -> inception_4c/1x1
I0403 16:01:08.984598 16758 net.cpp:141] Setting up inception_4c/1x1
I0403 16:01:08.984647 16758 net.cpp:148] Top shape: 24 128 14 14 (602112)
I0403 16:01:08.984666 16758 net.cpp:156] Memory required for data: 1030800672
I0403 16:01:08.984690 16758 layer_factory.hpp:77] Creating layer inception_4c/relu_1x1
I0403 16:01:08.984716 16758 net.cpp:91] Creating Layer inception_4c/relu_1x1
I0403 16:01:08.984740 16758 net.cpp:425] inception_4c/relu_1x1 <- inception_4c/1x1
I0403 16:01:08.984760 16758 net.cpp:386] inception_4c/relu_1x1 -> inception_4c/1x1 (in-place)
I0403 16:01:08.984985 16758 net.cpp:141] Setting up inception_4c/relu_1x1
I0403 16:01:08.985019 16758 net.cpp:148] Top shape: 24 128 14 14 (602112)
I0403 16:01:08.985038 16758 net.cpp:156] Memory required for data: 1033209120
I0403 16:01:08.985055 16758 layer_factory.hpp:77] Creating layer inception_4c/3x3_reduce
I0403 16:01:08.985083 16758 net.cpp:91] Creating Layer inception_4c/3x3_reduce
I0403 16:01:08.985105 16758 net.cpp:425] inception_4c/3x3_reduce <- inception_4b/output_inception_4b/output_0_split_1
I0403 16:01:08.985128 16758 net.cpp:399] inception_4c/3x3_reduce -> inception_4c/3x3_reduce
I0403 16:01:08.987457 16758 net.cpp:141] Setting up inception_4c/3x3_reduce
I0403 16:01:08.987496 16758 net.cpp:148] Top shape: 24 128 14 14 (602112)
I0403 16:01:08.987516 16758 net.cpp:156] Memory required for data: 1035617568
I0403 16:01:08.987539 16758 layer_factory.hpp:77] Creating layer inception_4c/relu_3x3_reduce
I0403 16:01:08.987561 16758 net.cpp:91] Creating Layer inception_4c/relu_3x3_reduce
I0403 16:01:08.987581 16758 net.cpp:425] inception_4c/relu_3x3_reduce <- inception_4c/3x3_reduce
I0403 16:01:08.987610 16758 net.cpp:386] inception_4c/relu_3x3_reduce -> inception_4c/3x3_reduce (in-place)
I0403 16:01:08.987957 16758 net.cpp:141] Setting up inception_4c/relu_3x3_reduce
I0403 16:01:08.987992 16758 net.cpp:148] Top shape: 24 128 14 14 (602112)
I0403 16:01:08.988011 16758 net.cpp:156] Memory required for data: 1038026016
I0403 16:01:08.988029 16758 layer_factory.hpp:77] Creating layer inception_4c/3x3
I0403 16:01:08.988059 16758 net.cpp:91] Creating Layer inception_4c/3x3
I0403 16:01:08.988082 16758 net.cpp:425] inception_4c/3x3 <- inception_4c/3x3_reduce
I0403 16:01:08.988109 16758 net.cpp:399] inception_4c/3x3 -> inception_4c/3x3
I0403 16:01:08.992501 16758 net.cpp:141] Setting up inception_4c/3x3
I0403 16:01:08.992557 16758 net.cpp:148] Top shape: 24 256 14 14 (1204224)
I0403 16:01:08.992578 16758 net.cpp:156] Memory required for data: 1042842912
I0403 16:01:08.992621 16758 layer_factory.hpp:77] Creating layer inception_4c/relu_3x3
I0403 16:01:08.992650 16758 net.cpp:91] Creating Layer inception_4c/relu_3x3
I0403 16:01:08.992671 16758 net.cpp:425] inception_4c/relu_3x3 <- inception_4c/3x3
I0403 16:01:08.992694 16758 net.cpp:386] inception_4c/relu_3x3 -> inception_4c/3x3 (in-place)
I0403 16:01:08.992924 16758 net.cpp:141] Setting up inception_4c/relu_3x3
I0403 16:01:08.992955 16758 net.cpp:148] Top shape: 24 256 14 14 (1204224)
I0403 16:01:08.992974 16758 net.cpp:156] Memory required for data: 1047659808
I0403 16:01:08.992991 16758 layer_factory.hpp:77] Creating layer inception_4c/5x5_reduce
I0403 16:01:08.993019 16758 net.cpp:91] Creating Layer inception_4c/5x5_reduce
I0403 16:01:08.993041 16758 net.cpp:425] inception_4c/5x5_reduce <- inception_4b/output_inception_4b/output_0_split_2
I0403 16:01:08.993067 16758 net.cpp:399] inception_4c/5x5_reduce -> inception_4c/5x5_reduce
I0403 16:01:08.994395 16758 net.cpp:141] Setting up inception_4c/5x5_reduce
I0403 16:01:08.994429 16758 net.cpp:148] Top shape: 24 24 14 14 (112896)
I0403 16:01:08.994448 16758 net.cpp:156] Memory required for data: 1048111392
I0403 16:01:08.994472 16758 layer_factory.hpp:77] Creating layer inception_4c/relu_5x5_reduce
I0403 16:01:08.994494 16758 net.cpp:91] Creating Layer inception_4c/relu_5x5_reduce
I0403 16:01:08.994514 16758 net.cpp:425] inception_4c/relu_5x5_reduce <- inception_4c/5x5_reduce
I0403 16:01:08.994539 16758 net.cpp:386] inception_4c/relu_5x5_reduce -> inception_4c/5x5_reduce (in-place)
I0403 16:01:08.994779 16758 net.cpp:141] Setting up inception_4c/relu_5x5_reduce
I0403 16:01:08.994812 16758 net.cpp:148] Top shape: 24 24 14 14 (112896)
I0403 16:01:08.994830 16758 net.cpp:156] Memory required for data: 1048562976
I0403 16:01:08.994849 16758 layer_factory.hpp:77] Creating layer inception_4c/5x5
I0403 16:01:08.994877 16758 net.cpp:91] Creating Layer inception_4c/5x5
I0403 16:01:08.994899 16758 net.cpp:425] inception_4c/5x5 <- inception_4c/5x5_reduce
I0403 16:01:08.994925 16758 net.cpp:399] inception_4c/5x5 -> inception_4c/5x5
I0403 16:01:08.996438 16758 net.cpp:141] Setting up inception_4c/5x5
I0403 16:01:08.996472 16758 net.cpp:148] Top shape: 24 64 14 14 (301056)
I0403 16:01:08.996491 16758 net.cpp:156] Memory required for data: 1049767200
I0403 16:01:08.996515 16758 layer_factory.hpp:77] Creating layer inception_4c/relu_5x5
I0403 16:01:08.996539 16758 net.cpp:91] Creating Layer inception_4c/relu_5x5
I0403 16:01:08.996559 16758 net.cpp:425] inception_4c/relu_5x5 <- inception_4c/5x5
I0403 16:01:08.996580 16758 net.cpp:386] inception_4c/relu_5x5 -> inception_4c/5x5 (in-place)
I0403 16:01:08.996937 16758 net.cpp:141] Setting up inception_4c/relu_5x5
I0403 16:01:08.996968 16758 net.cpp:148] Top shape: 24 64 14 14 (301056)
I0403 16:01:08.996987 16758 net.cpp:156] Memory required for data: 1050971424
I0403 16:01:08.997005 16758 layer_factory.hpp:77] Creating layer inception_4c/pool
I0403 16:01:08.997030 16758 net.cpp:91] Creating Layer inception_4c/pool
I0403 16:01:08.997052 16758 net.cpp:425] inception_4c/pool <- inception_4b/output_inception_4b/output_0_split_3
I0403 16:01:08.997074 16758 net.cpp:399] inception_4c/pool -> inception_4c/pool
I0403 16:01:08.997158 16758 net.cpp:141] Setting up inception_4c/pool
I0403 16:01:08.997187 16758 net.cpp:148] Top shape: 24 512 14 14 (2408448)
I0403 16:01:08.997205 16758 net.cpp:156] Memory required for data: 1060605216
I0403 16:01:08.997222 16758 layer_factory.hpp:77] Creating layer inception_4c/pool_proj
I0403 16:01:08.997249 16758 net.cpp:91] Creating Layer inception_4c/pool_proj
I0403 16:01:08.997270 16758 net.cpp:425] inception_4c/pool_proj <- inception_4c/pool
I0403 16:01:08.997297 16758 net.cpp:399] inception_4c/pool_proj -> inception_4c/pool_proj
I0403 16:01:08.998781 16758 net.cpp:141] Setting up inception_4c/pool_proj
I0403 16:01:08.998821 16758 net.cpp:148] Top shape: 24 64 14 14 (301056)
I0403 16:01:08.998857 16758 net.cpp:156] Memory required for data: 1061809440
I0403 16:01:08.998881 16758 layer_factory.hpp:77] Creating layer inception_4c/relu_pool_proj
I0403 16:01:08.998903 16758 net.cpp:91] Creating Layer inception_4c/relu_pool_proj
I0403 16:01:08.998924 16758 net.cpp:425] inception_4c/relu_pool_proj <- inception_4c/pool_proj
I0403 16:01:08.998950 16758 net.cpp:386] inception_4c/relu_pool_proj -> inception_4c/pool_proj (in-place)
I0403 16:01:08.999172 16758 net.cpp:141] Setting up inception_4c/relu_pool_proj
I0403 16:01:08.999203 16758 net.cpp:148] Top shape: 24 64 14 14 (301056)
I0403 16:01:08.999222 16758 net.cpp:156] Memory required for data: 1063013664
I0403 16:01:08.999239 16758 layer_factory.hpp:77] Creating layer inception_4c/output
I0403 16:01:08.999260 16758 net.cpp:91] Creating Layer inception_4c/output
I0403 16:01:08.999279 16758 net.cpp:425] inception_4c/output <- inception_4c/1x1
I0403 16:01:08.999300 16758 net.cpp:425] inception_4c/output <- inception_4c/3x3
I0403 16:01:08.999320 16758 net.cpp:425] inception_4c/output <- inception_4c/5x5
I0403 16:01:08.999341 16758 net.cpp:425] inception_4c/output <- inception_4c/pool_proj
I0403 16:01:08.999363 16758 net.cpp:399] inception_4c/output -> inception_4c/output
I0403 16:01:08.999423 16758 net.cpp:141] Setting up inception_4c/output
I0403 16:01:08.999452 16758 net.cpp:148] Top shape: 24 512 14 14 (2408448)
I0403 16:01:08.999471 16758 net.cpp:156] Memory required for data: 1072647456
I0403 16:01:08.999490 16758 layer_factory.hpp:77] Creating layer inception_4c/output_inception_4c/output_0_split
I0403 16:01:08.999510 16758 net.cpp:91] Creating Layer inception_4c/output_inception_4c/output_0_split
I0403 16:01:08.999529 16758 net.cpp:425] inception_4c/output_inception_4c/output_0_split <- inception_4c/output
I0403 16:01:08.999555 16758 net.cpp:399] inception_4c/output_inception_4c/output_0_split -> inception_4c/output_inception_4c/output_0_split_0
I0403 16:01:08.999583 16758 net.cpp:399] inception_4c/output_inception_4c/output_0_split -> inception_4c/output_inception_4c/output_0_split_1
I0403 16:01:08.999614 16758 net.cpp:399] inception_4c/output_inception_4c/output_0_split -> inception_4c/output_inception_4c/output_0_split_2
I0403 16:01:08.999642 16758 net.cpp:399] inception_4c/output_inception_4c/output_0_split -> inception_4c/output_inception_4c/output_0_split_3
I0403 16:01:08.999748 16758 net.cpp:141] Setting up inception_4c/output_inception_4c/output_0_split
I0403 16:01:08.999779 16758 net.cpp:148] Top shape: 24 512 14 14 (2408448)
I0403 16:01:08.999800 16758 net.cpp:148] Top shape: 24 512 14 14 (2408448)
I0403 16:01:08.999820 16758 net.cpp:148] Top shape: 24 512 14 14 (2408448)
I0403 16:01:08.999840 16758 net.cpp:148] Top shape: 24 512 14 14 (2408448)
I0403 16:01:08.999857 16758 net.cpp:156] Memory required for data: 1111182624
I0403 16:01:08.999874 16758 layer_factory.hpp:77] Creating layer inception_4d/1x1
I0403 16:01:08.999902 16758 net.cpp:91] Creating Layer inception_4d/1x1
I0403 16:01:08.999922 16758 net.cpp:425] inception_4d/1x1 <- inception_4c/output_inception_4c/output_0_split_0
I0403 16:01:08.999946 16758 net.cpp:399] inception_4d/1x1 -> inception_4d/1x1
I0403 16:01:09.001626 16758 net.cpp:141] Setting up inception_4d/1x1
I0403 16:01:09.001662 16758 net.cpp:148] Top shape: 24 112 14 14 (526848)
I0403 16:01:09.001680 16758 net.cpp:156] Memory required for data: 1113290016
I0403 16:01:09.001701 16758 layer_factory.hpp:77] Creating layer inception_4d/relu_1x1
I0403 16:01:09.001727 16758 net.cpp:91] Creating Layer inception_4d/relu_1x1
I0403 16:01:09.001747 16758 net.cpp:425] inception_4d/relu_1x1 <- inception_4d/1x1
I0403 16:01:09.001770 16758 net.cpp:386] inception_4d/relu_1x1 -> inception_4d/1x1 (in-place)
I0403 16:01:09.002002 16758 net.cpp:141] Setting up inception_4d/relu_1x1
I0403 16:01:09.002032 16758 net.cpp:148] Top shape: 24 112 14 14 (526848)
I0403 16:01:09.002050 16758 net.cpp:156] Memory required for data: 1115397408
I0403 16:01:09.002068 16758 layer_factory.hpp:77] Creating layer inception_4d/3x3_reduce
I0403 16:01:09.002113 16758 net.cpp:91] Creating Layer inception_4d/3x3_reduce
I0403 16:01:09.002136 16758 net.cpp:425] inception_4d/3x3_reduce <- inception_4c/output_inception_4c/output_0_split_1
I0403 16:01:09.002164 16758 net.cpp:399] inception_4d/3x3_reduce -> inception_4d/3x3_reduce
I0403 16:01:09.004005 16758 net.cpp:141] Setting up inception_4d/3x3_reduce
I0403 16:01:09.004040 16758 net.cpp:148] Top shape: 24 144 14 14 (677376)
I0403 16:01:09.004060 16758 net.cpp:156] Memory required for data: 1118106912
I0403 16:01:09.004081 16758 layer_factory.hpp:77] Creating layer inception_4d/relu_3x3_reduce
I0403 16:01:09.004108 16758 net.cpp:91] Creating Layer inception_4d/relu_3x3_reduce
I0403 16:01:09.004129 16758 net.cpp:425] inception_4d/relu_3x3_reduce <- inception_4d/3x3_reduce
I0403 16:01:09.004150 16758 net.cpp:386] inception_4d/relu_3x3_reduce -> inception_4d/3x3_reduce (in-place)
I0403 16:01:09.004501 16758 net.cpp:141] Setting up inception_4d/relu_3x3_reduce
I0403 16:01:09.004534 16758 net.cpp:148] Top shape: 24 144 14 14 (677376)
I0403 16:01:09.004552 16758 net.cpp:156] Memory required for data: 1120816416
I0403 16:01:09.004571 16758 layer_factory.hpp:77] Creating layer inception_4d/3x3
I0403 16:01:09.004600 16758 net.cpp:91] Creating Layer inception_4d/3x3
I0403 16:01:09.004637 16758 net.cpp:425] inception_4d/3x3 <- inception_4d/3x3_reduce
I0403 16:01:09.004664 16758 net.cpp:399] inception_4d/3x3 -> inception_4d/3x3
I0403 16:01:09.009915 16758 net.cpp:141] Setting up inception_4d/3x3
I0403 16:01:09.009956 16758 net.cpp:148] Top shape: 24 288 14 14 (1354752)
I0403 16:01:09.009976 16758 net.cpp:156] Memory required for data: 1126235424
I0403 16:01:09.009999 16758 layer_factory.hpp:77] Creating layer inception_4d/relu_3x3
I0403 16:01:09.010023 16758 net.cpp:91] Creating Layer inception_4d/relu_3x3
I0403 16:01:09.010043 16758 net.cpp:425] inception_4d/relu_3x3 <- inception_4d/3x3
I0403 16:01:09.010064 16758 net.cpp:386] inception_4d/relu_3x3 -> inception_4d/3x3 (in-place)
I0403 16:01:09.010291 16758 net.cpp:141] Setting up inception_4d/relu_3x3
I0403 16:01:09.010323 16758 net.cpp:148] Top shape: 24 288 14 14 (1354752)
I0403 16:01:09.010340 16758 net.cpp:156] Memory required for data: 1131654432
I0403 16:01:09.010360 16758 layer_factory.hpp:77] Creating layer inception_4d/5x5_reduce
I0403 16:01:09.010386 16758 net.cpp:91] Creating Layer inception_4d/5x5_reduce
I0403 16:01:09.010408 16758 net.cpp:425] inception_4d/5x5_reduce <- inception_4c/output_inception_4c/output_0_split_2
I0403 16:01:09.010437 16758 net.cpp:399] inception_4d/5x5_reduce -> inception_4d/5x5_reduce
I0403 16:01:09.011845 16758 net.cpp:141] Setting up inception_4d/5x5_reduce
I0403 16:01:09.011883 16758 net.cpp:148] Top shape: 24 32 14 14 (150528)
I0403 16:01:09.011904 16758 net.cpp:156] Memory required for data: 1132256544
I0403 16:01:09.011927 16758 layer_factory.hpp:77] Creating layer inception_4d/relu_5x5_reduce
I0403 16:01:09.011950 16758 net.cpp:91] Creating Layer inception_4d/relu_5x5_reduce
I0403 16:01:09.011970 16758 net.cpp:425] inception_4d/relu_5x5_reduce <- inception_4d/5x5_reduce
I0403 16:01:09.011993 16758 net.cpp:386] inception_4d/relu_5x5_reduce -> inception_4d/5x5_reduce (in-place)
I0403 16:01:09.012230 16758 net.cpp:141] Setting up inception_4d/relu_5x5_reduce
I0403 16:01:09.012260 16758 net.cpp:148] Top shape: 24 32 14 14 (150528)
I0403 16:01:09.012279 16758 net.cpp:156] Memory required for data: 1132858656
I0403 16:01:09.012296 16758 layer_factory.hpp:77] Creating layer inception_4d/5x5
I0403 16:01:09.012323 16758 net.cpp:91] Creating Layer inception_4d/5x5
I0403 16:01:09.012346 16758 net.cpp:425] inception_4d/5x5 <- inception_4d/5x5_reduce
I0403 16:01:09.012372 16758 net.cpp:399] inception_4d/5x5 -> inception_4d/5x5
I0403 16:01:09.014158 16758 net.cpp:141] Setting up inception_4d/5x5
I0403 16:01:09.014192 16758 net.cpp:148] Top shape: 24 64 14 14 (301056)
I0403 16:01:09.014211 16758 net.cpp:156] Memory required for data: 1134062880
I0403 16:01:09.014233 16758 layer_factory.hpp:77] Creating layer inception_4d/relu_5x5
I0403 16:01:09.014273 16758 net.cpp:91] Creating Layer inception_4d/relu_5x5
I0403 16:01:09.014294 16758 net.cpp:425] inception_4d/relu_5x5 <- inception_4d/5x5
I0403 16:01:09.014318 16758 net.cpp:386] inception_4d/relu_5x5 -> inception_4d/5x5 (in-place)
I0403 16:01:09.014698 16758 net.cpp:141] Setting up inception_4d/relu_5x5
I0403 16:01:09.014731 16758 net.cpp:148] Top shape: 24 64 14 14 (301056)
I0403 16:01:09.014750 16758 net.cpp:156] Memory required for data: 1135267104
I0403 16:01:09.014768 16758 layer_factory.hpp:77] Creating layer inception_4d/pool
I0403 16:01:09.014791 16758 net.cpp:91] Creating Layer inception_4d/pool
I0403 16:01:09.014811 16758 net.cpp:425] inception_4d/pool <- inception_4c/output_inception_4c/output_0_split_3
I0403 16:01:09.014837 16758 net.cpp:399] inception_4d/pool -> inception_4d/pool
I0403 16:01:09.014919 16758 net.cpp:141] Setting up inception_4d/pool
I0403 16:01:09.014948 16758 net.cpp:148] Top shape: 24 512 14 14 (2408448)
I0403 16:01:09.014966 16758 net.cpp:156] Memory required for data: 1144900896
I0403 16:01:09.014984 16758 layer_factory.hpp:77] Creating layer inception_4d/pool_proj
I0403 16:01:09.015014 16758 net.cpp:91] Creating Layer inception_4d/pool_proj
I0403 16:01:09.015036 16758 net.cpp:425] inception_4d/pool_proj <- inception_4d/pool
I0403 16:01:09.015060 16758 net.cpp:399] inception_4d/pool_proj -> inception_4d/pool_proj
I0403 16:01:09.017192 16758 net.cpp:141] Setting up inception_4d/pool_proj
I0403 16:01:09.017232 16758 net.cpp:148] Top shape: 24 64 14 14 (301056)
I0403 16:01:09.017253 16758 net.cpp:156] Memory required for data: 1146105120
I0403 16:01:09.017277 16758 layer_factory.hpp:77] Creating layer inception_4d/relu_pool_proj
I0403 16:01:09.017299 16758 net.cpp:91] Creating Layer inception_4d/relu_pool_proj
I0403 16:01:09.017320 16758 net.cpp:425] inception_4d/relu_pool_proj <- inception_4d/pool_proj
I0403 16:01:09.017341 16758 net.cpp:386] inception_4d/relu_pool_proj -> inception_4d/pool_proj (in-place)
I0403 16:01:09.017570 16758 net.cpp:141] Setting up inception_4d/relu_pool_proj
I0403 16:01:09.017606 16758 net.cpp:148] Top shape: 24 64 14 14 (301056)
I0403 16:01:09.017627 16758 net.cpp:156] Memory required for data: 1147309344
I0403 16:01:09.017645 16758 layer_factory.hpp:77] Creating layer inception_4d/output
I0403 16:01:09.017668 16758 net.cpp:91] Creating Layer inception_4d/output
I0403 16:01:09.017686 16758 net.cpp:425] inception_4d/output <- inception_4d/1x1
I0403 16:01:09.017707 16758 net.cpp:425] inception_4d/output <- inception_4d/3x3
I0403 16:01:09.017727 16758 net.cpp:425] inception_4d/output <- inception_4d/5x5
I0403 16:01:09.017746 16758 net.cpp:425] inception_4d/output <- inception_4d/pool_proj
I0403 16:01:09.017771 16758 net.cpp:399] inception_4d/output -> inception_4d/output
I0403 16:01:09.017829 16758 net.cpp:141] Setting up inception_4d/output
I0403 16:01:09.017861 16758 net.cpp:148] Top shape: 24 528 14 14 (2483712)
I0403 16:01:09.017881 16758 net.cpp:156] Memory required for data: 1157244192
I0403 16:01:09.017899 16758 layer_factory.hpp:77] Creating layer inception_4d/output_inception_4d/output_0_split
I0403 16:01:09.017920 16758 net.cpp:91] Creating Layer inception_4d/output_inception_4d/output_0_split
I0403 16:01:09.017940 16758 net.cpp:425] inception_4d/output_inception_4d/output_0_split <- inception_4d/output
I0403 16:01:09.017966 16758 net.cpp:399] inception_4d/output_inception_4d/output_0_split -> inception_4d/output_inception_4d/output_0_split_0
I0403 16:01:09.017992 16758 net.cpp:399] inception_4d/output_inception_4d/output_0_split -> inception_4d/output_inception_4d/output_0_split_1
I0403 16:01:09.018018 16758 net.cpp:399] inception_4d/output_inception_4d/output_0_split -> inception_4d/output_inception_4d/output_0_split_2
I0403 16:01:09.018043 16758 net.cpp:399] inception_4d/output_inception_4d/output_0_split -> inception_4d/output_inception_4d/output_0_split_3
I0403 16:01:09.018067 16758 net.cpp:399] inception_4d/output_inception_4d/output_0_split -> inception_4d/output_inception_4d/output_0_split_4
I0403 16:01:09.018190 16758 net.cpp:141] Setting up inception_4d/output_inception_4d/output_0_split
I0403 16:01:09.018234 16758 net.cpp:148] Top shape: 24 528 14 14 (2483712)
I0403 16:01:09.018256 16758 net.cpp:148] Top shape: 24 528 14 14 (2483712)
I0403 16:01:09.018275 16758 net.cpp:148] Top shape: 24 528 14 14 (2483712)
I0403 16:01:09.018295 16758 net.cpp:148] Top shape: 24 528 14 14 (2483712)
I0403 16:01:09.018312 16758 net.cpp:148] Top shape: 24 528 14 14 (2483712)
I0403 16:01:09.018329 16758 net.cpp:156] Memory required for data: 1206918432
I0403 16:01:09.018347 16758 layer_factory.hpp:77] Creating layer loss2/ave_pool
I0403 16:01:09.018373 16758 net.cpp:91] Creating Layer loss2/ave_pool
I0403 16:01:09.018394 16758 net.cpp:425] loss2/ave_pool <- inception_4d/output_inception_4d/output_0_split_0
I0403 16:01:09.018416 16758 net.cpp:399] loss2/ave_pool -> loss2/ave_pool
I0403 16:01:09.018802 16758 net.cpp:141] Setting up loss2/ave_pool
I0403 16:01:09.018839 16758 net.cpp:148] Top shape: 24 528 4 4 (202752)
I0403 16:01:09.018858 16758 net.cpp:156] Memory required for data: 1207729440
I0403 16:01:09.018877 16758 layer_factory.hpp:77] Creating layer loss2/conv
I0403 16:01:09.018905 16758 net.cpp:91] Creating Layer loss2/conv
I0403 16:01:09.018928 16758 net.cpp:425] loss2/conv <- loss2/ave_pool
I0403 16:01:09.018950 16758 net.cpp:399] loss2/conv -> loss2/conv
I0403 16:01:09.021257 16758 net.cpp:141] Setting up loss2/conv
I0403 16:01:09.021293 16758 net.cpp:148] Top shape: 24 128 4 4 (49152)
I0403 16:01:09.021314 16758 net.cpp:156] Memory required for data: 1207926048
I0403 16:01:09.021337 16758 layer_factory.hpp:77] Creating layer loss2/relu_conv
I0403 16:01:09.021363 16758 net.cpp:91] Creating Layer loss2/relu_conv
I0403 16:01:09.021384 16758 net.cpp:425] loss2/relu_conv <- loss2/conv
I0403 16:01:09.021405 16758 net.cpp:386] loss2/relu_conv -> loss2/conv (in-place)
I0403 16:01:09.021761 16758 net.cpp:141] Setting up loss2/relu_conv
I0403 16:01:09.021795 16758 net.cpp:148] Top shape: 24 128 4 4 (49152)
I0403 16:01:09.021813 16758 net.cpp:156] Memory required for data: 1208122656
I0403 16:01:09.021832 16758 layer_factory.hpp:77] Creating layer loss2/fc
I0403 16:01:09.021859 16758 net.cpp:91] Creating Layer loss2/fc
I0403 16:01:09.021880 16758 net.cpp:425] loss2/fc <- loss2/conv
I0403 16:01:09.021903 16758 net.cpp:399] loss2/fc -> loss2/fc
I0403 16:01:09.043789 16758 net.cpp:141] Setting up loss2/fc
I0403 16:01:09.043831 16758 net.cpp:148] Top shape: 24 1024 (24576)
I0403 16:01:09.043851 16758 net.cpp:156] Memory required for data: 1208220960
I0403 16:01:09.043875 16758 layer_factory.hpp:77] Creating layer loss2/relu_fc
I0403 16:01:09.043900 16758 net.cpp:91] Creating Layer loss2/relu_fc
I0403 16:01:09.043920 16758 net.cpp:425] loss2/relu_fc <- loss2/fc
I0403 16:01:09.043944 16758 net.cpp:386] loss2/relu_fc -> loss2/fc (in-place)
I0403 16:01:09.044306 16758 net.cpp:141] Setting up loss2/relu_fc
I0403 16:01:09.044342 16758 net.cpp:148] Top shape: 24 1024 (24576)
I0403 16:01:09.044360 16758 net.cpp:156] Memory required for data: 1208319264
I0403 16:01:09.044378 16758 layer_factory.hpp:77] Creating layer loss2/drop_fc
I0403 16:01:09.044400 16758 net.cpp:91] Creating Layer loss2/drop_fc
I0403 16:01:09.044420 16758 net.cpp:425] loss2/drop_fc <- loss2/fc
I0403 16:01:09.044445 16758 net.cpp:386] loss2/drop_fc -> loss2/fc (in-place)
I0403 16:01:09.044504 16758 net.cpp:141] Setting up loss2/drop_fc
I0403 16:01:09.044533 16758 net.cpp:148] Top shape: 24 1024 (24576)
I0403 16:01:09.044550 16758 net.cpp:156] Memory required for data: 1208417568
I0403 16:01:09.044569 16758 layer_factory.hpp:77] Creating layer loss2/classifier_plantvillage
I0403 16:01:09.044596 16758 net.cpp:91] Creating Layer loss2/classifier_plantvillage
I0403 16:01:09.044633 16758 net.cpp:425] loss2/classifier_plantvillage <- loss2/fc
I0403 16:01:09.044661 16758 net.cpp:399] loss2/classifier_plantvillage -> loss2/classifier_plantvillage
I0403 16:01:09.045155 16758 net.cpp:141] Setting up loss2/classifier_plantvillage
I0403 16:01:09.045186 16758 net.cpp:148] Top shape: 24 38 (912)
I0403 16:01:09.045205 16758 net.cpp:156] Memory required for data: 1208421216
I0403 16:01:09.045248 16758 layer_factory.hpp:77] Creating layer loss2/classifier_plantvillage_loss2/classifier_plantvillage_0_split
I0403 16:01:09.045274 16758 net.cpp:91] Creating Layer loss2/classifier_plantvillage_loss2/classifier_plantvillage_0_split
I0403 16:01:09.045295 16758 net.cpp:425] loss2/classifier_plantvillage_loss2/classifier_plantvillage_0_split <- loss2/classifier_plantvillage
I0403 16:01:09.045320 16758 net.cpp:399] loss2/classifier_plantvillage_loss2/classifier_plantvillage_0_split -> loss2/classifier_plantvillage_loss2/classifier_plantvillage_0_split_0
I0403 16:01:09.045344 16758 net.cpp:399] loss2/classifier_plantvillage_loss2/classifier_plantvillage_0_split -> loss2/classifier_plantvillage_loss2/classifier_plantvillage_0_split_1
I0403 16:01:09.045369 16758 net.cpp:399] loss2/classifier_plantvillage_loss2/classifier_plantvillage_0_split -> loss2/classifier_plantvillage_loss2/classifier_plantvillage_0_split_2
I0403 16:01:09.045465 16758 net.cpp:141] Setting up loss2/classifier_plantvillage_loss2/classifier_plantvillage_0_split
I0403 16:01:09.045495 16758 net.cpp:148] Top shape: 24 38 (912)
I0403 16:01:09.045514 16758 net.cpp:148] Top shape: 24 38 (912)
I0403 16:01:09.045533 16758 net.cpp:148] Top shape: 24 38 (912)
I0403 16:01:09.045550 16758 net.cpp:156] Memory required for data: 1208432160
I0403 16:01:09.045568 16758 layer_factory.hpp:77] Creating layer inception_4e/1x1
I0403 16:01:09.045593 16758 net.cpp:91] Creating Layer inception_4e/1x1
I0403 16:01:09.045619 16758 net.cpp:425] inception_4e/1x1 <- inception_4d/output_inception_4d/output_0_split_1
I0403 16:01:09.045647 16758 net.cpp:399] inception_4e/1x1 -> inception_4e/1x1
I0403 16:01:09.047886 16758 net.cpp:141] Setting up inception_4e/1x1
I0403 16:01:09.047921 16758 net.cpp:148] Top shape: 24 256 14 14 (1204224)
I0403 16:01:09.047941 16758 net.cpp:156] Memory required for data: 1213249056
I0403 16:01:09.047965 16758 layer_factory.hpp:77] Creating layer inception_4e/relu_1x1
I0403 16:01:09.047988 16758 net.cpp:91] Creating Layer inception_4e/relu_1x1
I0403 16:01:09.048009 16758 net.cpp:425] inception_4e/relu_1x1 <- inception_4e/1x1
I0403 16:01:09.048032 16758 net.cpp:386] inception_4e/relu_1x1 -> inception_4e/1x1 (in-place)
I0403 16:01:09.048389 16758 net.cpp:141] Setting up inception_4e/relu_1x1
I0403 16:01:09.048421 16758 net.cpp:148] Top shape: 24 256 14 14 (1204224)
I0403 16:01:09.048440 16758 net.cpp:156] Memory required for data: 1218065952
I0403 16:01:09.048457 16758 layer_factory.hpp:77] Creating layer inception_4e/3x3_reduce
I0403 16:01:09.048485 16758 net.cpp:91] Creating Layer inception_4e/3x3_reduce
I0403 16:01:09.048508 16758 net.cpp:425] inception_4e/3x3_reduce <- inception_4d/output_inception_4d/output_0_split_2
I0403 16:01:09.048535 16758 net.cpp:399] inception_4e/3x3_reduce -> inception_4e/3x3_reduce
I0403 16:01:09.051128 16758 net.cpp:141] Setting up inception_4e/3x3_reduce
I0403 16:01:09.051165 16758 net.cpp:148] Top shape: 24 160 14 14 (752640)
I0403 16:01:09.051185 16758 net.cpp:156] Memory required for data: 1221076512
I0403 16:01:09.051208 16758 layer_factory.hpp:77] Creating layer inception_4e/relu_3x3_reduce
I0403 16:01:09.051234 16758 net.cpp:91] Creating Layer inception_4e/relu_3x3_reduce
I0403 16:01:09.051257 16758 net.cpp:425] inception_4e/relu_3x3_reduce <- inception_4e/3x3_reduce
I0403 16:01:09.051278 16758 net.cpp:386] inception_4e/relu_3x3_reduce -> inception_4e/3x3_reduce (in-place)
I0403 16:01:09.051507 16758 net.cpp:141] Setting up inception_4e/relu_3x3_reduce
I0403 16:01:09.051538 16758 net.cpp:148] Top shape: 24 160 14 14 (752640)
I0403 16:01:09.051558 16758 net.cpp:156] Memory required for data: 1224087072
I0403 16:01:09.051575 16758 layer_factory.hpp:77] Creating layer inception_4e/3x3
I0403 16:01:09.051609 16758 net.cpp:91] Creating Layer inception_4e/3x3
I0403 16:01:09.051632 16758 net.cpp:425] inception_4e/3x3 <- inception_4e/3x3_reduce
I0403 16:01:09.051658 16758 net.cpp:399] inception_4e/3x3 -> inception_4e/3x3
I0403 16:01:09.057862 16758 net.cpp:141] Setting up inception_4e/3x3
I0403 16:01:09.057914 16758 net.cpp:148] Top shape: 24 320 14 14 (1505280)
I0403 16:01:09.057935 16758 net.cpp:156] Memory required for data: 1230108192
I0403 16:01:09.057958 16758 layer_factory.hpp:77] Creating layer inception_4e/relu_3x3
I0403 16:01:09.057984 16758 net.cpp:91] Creating Layer inception_4e/relu_3x3
I0403 16:01:09.058007 16758 net.cpp:425] inception_4e/relu_3x3 <- inception_4e/3x3
I0403 16:01:09.058027 16758 net.cpp:386] inception_4e/relu_3x3 -> inception_4e/3x3 (in-place)
I0403 16:01:09.058393 16758 net.cpp:141] Setting up inception_4e/relu_3x3
I0403 16:01:09.058426 16758 net.cpp:148] Top shape: 24 320 14 14 (1505280)
I0403 16:01:09.058445 16758 net.cpp:156] Memory required for data: 1236129312
I0403 16:01:09.058465 16758 layer_factory.hpp:77] Creating layer inception_4e/5x5_reduce
I0403 16:01:09.058495 16758 net.cpp:91] Creating Layer inception_4e/5x5_reduce
I0403 16:01:09.058518 16758 net.cpp:425] inception_4e/5x5_reduce <- inception_4d/output_inception_4d/output_0_split_3
I0403 16:01:09.058543 16758 net.cpp:399] inception_4e/5x5_reduce -> inception_4e/5x5_reduce
I0403 16:01:09.059865 16758 net.cpp:141] Setting up inception_4e/5x5_reduce
I0403 16:01:09.059901 16758 net.cpp:148] Top shape: 24 32 14 14 (150528)
I0403 16:01:09.059921 16758 net.cpp:156] Memory required for data: 1236731424
I0403 16:01:09.059943 16758 layer_factory.hpp:77] Creating layer inception_4e/relu_5x5_reduce
I0403 16:01:09.059965 16758 net.cpp:91] Creating Layer inception_4e/relu_5x5_reduce
I0403 16:01:09.059985 16758 net.cpp:425] inception_4e/relu_5x5_reduce <- inception_4e/5x5_reduce
I0403 16:01:09.060010 16758 net.cpp:386] inception_4e/relu_5x5_reduce -> inception_4e/5x5_reduce (in-place)
I0403 16:01:09.060377 16758 net.cpp:141] Setting up inception_4e/relu_5x5_reduce
I0403 16:01:09.060410 16758 net.cpp:148] Top shape: 24 32 14 14 (150528)
I0403 16:01:09.060431 16758 net.cpp:156] Memory required for data: 1237333536
I0403 16:01:09.060449 16758 layer_factory.hpp:77] Creating layer inception_4e/5x5
I0403 16:01:09.060495 16758 net.cpp:91] Creating Layer inception_4e/5x5
I0403 16:01:09.060520 16758 net.cpp:425] inception_4e/5x5 <- inception_4e/5x5_reduce
I0403 16:01:09.060544 16758 net.cpp:399] inception_4e/5x5 -> inception_4e/5x5
I0403 16:01:09.062822 16758 net.cpp:141] Setting up inception_4e/5x5
I0403 16:01:09.062857 16758 net.cpp:148] Top shape: 24 128 14 14 (602112)
I0403 16:01:09.062878 16758 net.cpp:156] Memory required for data: 1239741984
I0403 16:01:09.062901 16758 layer_factory.hpp:77] Creating layer inception_4e/relu_5x5
I0403 16:01:09.062923 16758 net.cpp:91] Creating Layer inception_4e/relu_5x5
I0403 16:01:09.062944 16758 net.cpp:425] inception_4e/relu_5x5 <- inception_4e/5x5
I0403 16:01:09.062968 16758 net.cpp:386] inception_4e/relu_5x5 -> inception_4e/5x5 (in-place)
I0403 16:01:09.063213 16758 net.cpp:141] Setting up inception_4e/relu_5x5
I0403 16:01:09.063244 16758 net.cpp:148] Top shape: 24 128 14 14 (602112)
I0403 16:01:09.063263 16758 net.cpp:156] Memory required for data: 1242150432
I0403 16:01:09.063280 16758 layer_factory.hpp:77] Creating layer inception_4e/pool
I0403 16:01:09.063307 16758 net.cpp:91] Creating Layer inception_4e/pool
I0403 16:01:09.063328 16758 net.cpp:425] inception_4e/pool <- inception_4d/output_inception_4d/output_0_split_4
I0403 16:01:09.063351 16758 net.cpp:399] inception_4e/pool -> inception_4e/pool
I0403 16:01:09.063436 16758 net.cpp:141] Setting up inception_4e/pool
I0403 16:01:09.063465 16758 net.cpp:148] Top shape: 24 528 14 14 (2483712)
I0403 16:01:09.063484 16758 net.cpp:156] Memory required for data: 1252085280
I0403 16:01:09.063501 16758 layer_factory.hpp:77] Creating layer inception_4e/pool_proj
I0403 16:01:09.063529 16758 net.cpp:91] Creating Layer inception_4e/pool_proj
I0403 16:01:09.063551 16758 net.cpp:425] inception_4e/pool_proj <- inception_4e/pool
I0403 16:01:09.063576 16758 net.cpp:399] inception_4e/pool_proj -> inception_4e/pool_proj
I0403 16:01:09.065443 16758 net.cpp:141] Setting up inception_4e/pool_proj
I0403 16:01:09.065480 16758 net.cpp:148] Top shape: 24 128 14 14 (602112)
I0403 16:01:09.065516 16758 net.cpp:156] Memory required for data: 1254493728
I0403 16:01:09.065541 16758 layer_factory.hpp:77] Creating layer inception_4e/relu_pool_proj
I0403 16:01:09.065564 16758 net.cpp:91] Creating Layer inception_4e/relu_pool_proj
I0403 16:01:09.065584 16758 net.cpp:425] inception_4e/relu_pool_proj <- inception_4e/pool_proj
I0403 16:01:09.065613 16758 net.cpp:386] inception_4e/relu_pool_proj -> inception_4e/pool_proj (in-place)
I0403 16:01:09.065973 16758 net.cpp:141] Setting up inception_4e/relu_pool_proj
I0403 16:01:09.066009 16758 net.cpp:148] Top shape: 24 128 14 14 (602112)
I0403 16:01:09.066028 16758 net.cpp:156] Memory required for data: 1256902176
I0403 16:01:09.066046 16758 layer_factory.hpp:77] Creating layer inception_4e/output
I0403 16:01:09.066067 16758 net.cpp:91] Creating Layer inception_4e/output
I0403 16:01:09.066087 16758 net.cpp:425] inception_4e/output <- inception_4e/1x1
I0403 16:01:09.066107 16758 net.cpp:425] inception_4e/output <- inception_4e/3x3
I0403 16:01:09.066125 16758 net.cpp:425] inception_4e/output <- inception_4e/5x5
I0403 16:01:09.066144 16758 net.cpp:425] inception_4e/output <- inception_4e/pool_proj
I0403 16:01:09.066165 16758 net.cpp:399] inception_4e/output -> inception_4e/output
I0403 16:01:09.066227 16758 net.cpp:141] Setting up inception_4e/output
I0403 16:01:09.066256 16758 net.cpp:148] Top shape: 24 832 14 14 (3913728)
I0403 16:01:09.066273 16758 net.cpp:156] Memory required for data: 1272557088
I0403 16:01:09.066292 16758 layer_factory.hpp:77] Creating layer pool4/3x3_s2
I0403 16:01:09.066315 16758 net.cpp:91] Creating Layer pool4/3x3_s2
I0403 16:01:09.066335 16758 net.cpp:425] pool4/3x3_s2 <- inception_4e/output
I0403 16:01:09.066359 16758 net.cpp:399] pool4/3x3_s2 -> pool4/3x3_s2
I0403 16:01:09.066442 16758 net.cpp:141] Setting up pool4/3x3_s2
I0403 16:01:09.066471 16758 net.cpp:148] Top shape: 24 832 7 7 (978432)
I0403 16:01:09.066489 16758 net.cpp:156] Memory required for data: 1276470816
I0403 16:01:09.066507 16758 layer_factory.hpp:77] Creating layer pool4/3x3_s2_pool4/3x3_s2_0_split
I0403 16:01:09.066529 16758 net.cpp:91] Creating Layer pool4/3x3_s2_pool4/3x3_s2_0_split
I0403 16:01:09.066548 16758 net.cpp:425] pool4/3x3_s2_pool4/3x3_s2_0_split <- pool4/3x3_s2
I0403 16:01:09.066573 16758 net.cpp:399] pool4/3x3_s2_pool4/3x3_s2_0_split -> pool4/3x3_s2_pool4/3x3_s2_0_split_0
I0403 16:01:09.066599 16758 net.cpp:399] pool4/3x3_s2_pool4/3x3_s2_0_split -> pool4/3x3_s2_pool4/3x3_s2_0_split_1
I0403 16:01:09.066633 16758 net.cpp:399] pool4/3x3_s2_pool4/3x3_s2_0_split -> pool4/3x3_s2_pool4/3x3_s2_0_split_2
I0403 16:01:09.066658 16758 net.cpp:399] pool4/3x3_s2_pool4/3x3_s2_0_split -> pool4/3x3_s2_pool4/3x3_s2_0_split_3
I0403 16:01:09.066772 16758 net.cpp:141] Setting up pool4/3x3_s2_pool4/3x3_s2_0_split
I0403 16:01:09.066803 16758 net.cpp:148] Top shape: 24 832 7 7 (978432)
I0403 16:01:09.066825 16758 net.cpp:148] Top shape: 24 832 7 7 (978432)
I0403 16:01:09.066844 16758 net.cpp:148] Top shape: 24 832 7 7 (978432)
I0403 16:01:09.066862 16758 net.cpp:148] Top shape: 24 832 7 7 (978432)
I0403 16:01:09.066879 16758 net.cpp:156] Memory required for data: 1292125728
I0403 16:01:09.066896 16758 layer_factory.hpp:77] Creating layer inception_5a/1x1
I0403 16:01:09.066925 16758 net.cpp:91] Creating Layer inception_5a/1x1
I0403 16:01:09.066946 16758 net.cpp:425] inception_5a/1x1 <- pool4/3x3_s2_pool4/3x3_s2_0_split_0
I0403 16:01:09.066969 16758 net.cpp:399] inception_5a/1x1 -> inception_5a/1x1
I0403 16:01:09.070461 16758 net.cpp:141] Setting up inception_5a/1x1
I0403 16:01:09.070498 16758 net.cpp:148] Top shape: 24 256 7 7 (301056)
I0403 16:01:09.070518 16758 net.cpp:156] Memory required for data: 1293329952
I0403 16:01:09.070540 16758 layer_factory.hpp:77] Creating layer inception_5a/relu_1x1
I0403 16:01:09.070562 16758 net.cpp:91] Creating Layer inception_5a/relu_1x1
I0403 16:01:09.070583 16758 net.cpp:425] inception_5a/relu_1x1 <- inception_5a/1x1
I0403 16:01:09.070613 16758 net.cpp:386] inception_5a/relu_1x1 -> inception_5a/1x1 (in-place)
I0403 16:01:09.071003 16758 net.cpp:141] Setting up inception_5a/relu_1x1
I0403 16:01:09.071036 16758 net.cpp:148] Top shape: 24 256 7 7 (301056)
I0403 16:01:09.071055 16758 net.cpp:156] Memory required for data: 1294534176
I0403 16:01:09.071079 16758 layer_factory.hpp:77] Creating layer inception_5a/3x3_reduce
I0403 16:01:09.071106 16758 net.cpp:91] Creating Layer inception_5a/3x3_reduce
I0403 16:01:09.071127 16758 net.cpp:425] inception_5a/3x3_reduce <- pool4/3x3_s2_pool4/3x3_s2_0_split_1
I0403 16:01:09.071153 16758 net.cpp:399] inception_5a/3x3_reduce -> inception_5a/3x3_reduce
I0403 16:01:09.074147 16758 net.cpp:141] Setting up inception_5a/3x3_reduce
I0403 16:01:09.074187 16758 net.cpp:148] Top shape: 24 160 7 7 (188160)
I0403 16:01:09.074208 16758 net.cpp:156] Memory required for data: 1295286816
I0403 16:01:09.074230 16758 layer_factory.hpp:77] Creating layer inception_5a/relu_3x3_reduce
I0403 16:01:09.074254 16758 net.cpp:91] Creating Layer inception_5a/relu_3x3_reduce
I0403 16:01:09.074273 16758 net.cpp:425] inception_5a/relu_3x3_reduce <- inception_5a/3x3_reduce
I0403 16:01:09.074295 16758 net.cpp:386] inception_5a/relu_3x3_reduce -> inception_5a/3x3_reduce (in-place)
I0403 16:01:09.074524 16758 net.cpp:141] Setting up inception_5a/relu_3x3_reduce
I0403 16:01:09.074558 16758 net.cpp:148] Top shape: 24 160 7 7 (188160)
I0403 16:01:09.074578 16758 net.cpp:156] Memory required for data: 1296039456
I0403 16:01:09.074597 16758 layer_factory.hpp:77] Creating layer inception_5a/3x3
I0403 16:01:09.074642 16758 net.cpp:91] Creating Layer inception_5a/3x3
I0403 16:01:09.074666 16758 net.cpp:425] inception_5a/3x3 <- inception_5a/3x3_reduce
I0403 16:01:09.074693 16758 net.cpp:399] inception_5a/3x3 -> inception_5a/3x3
I0403 16:01:09.080971 16758 net.cpp:141] Setting up inception_5a/3x3
I0403 16:01:09.081008 16758 net.cpp:148] Top shape: 24 320 7 7 (376320)
I0403 16:01:09.081029 16758 net.cpp:156] Memory required for data: 1297544736
I0403 16:01:09.081053 16758 layer_factory.hpp:77] Creating layer inception_5a/relu_3x3
I0403 16:01:09.081075 16758 net.cpp:91] Creating Layer inception_5a/relu_3x3
I0403 16:01:09.081096 16758 net.cpp:425] inception_5a/relu_3x3 <- inception_5a/3x3
I0403 16:01:09.081120 16758 net.cpp:386] inception_5a/relu_3x3 -> inception_5a/3x3 (in-place)
I0403 16:01:09.081483 16758 net.cpp:141] Setting up inception_5a/relu_3x3
I0403 16:01:09.081517 16758 net.cpp:148] Top shape: 24 320 7 7 (376320)
I0403 16:01:09.081535 16758 net.cpp:156] Memory required for data: 1299050016
I0403 16:01:09.081554 16758 layer_factory.hpp:77] Creating layer inception_5a/5x5_reduce
I0403 16:01:09.081583 16758 net.cpp:91] Creating Layer inception_5a/5x5_reduce
I0403 16:01:09.081609 16758 net.cpp:425] inception_5a/5x5_reduce <- pool4/3x3_s2_pool4/3x3_s2_0_split_2
I0403 16:01:09.081639 16758 net.cpp:399] inception_5a/5x5_reduce -> inception_5a/5x5_reduce
I0403 16:01:09.083092 16758 net.cpp:141] Setting up inception_5a/5x5_reduce
I0403 16:01:09.083130 16758 net.cpp:148] Top shape: 24 32 7 7 (37632)
I0403 16:01:09.083151 16758 net.cpp:156] Memory required for data: 1299200544
I0403 16:01:09.083173 16758 layer_factory.hpp:77] Creating layer inception_5a/relu_5x5_reduce
I0403 16:01:09.083199 16758 net.cpp:91] Creating Layer inception_5a/relu_5x5_reduce
I0403 16:01:09.083220 16758 net.cpp:425] inception_5a/relu_5x5_reduce <- inception_5a/5x5_reduce
I0403 16:01:09.083242 16758 net.cpp:386] inception_5a/relu_5x5_reduce -> inception_5a/5x5_reduce (in-place)
I0403 16:01:09.083628 16758 net.cpp:141] Setting up inception_5a/relu_5x5_reduce
I0403 16:01:09.083662 16758 net.cpp:148] Top shape: 24 32 7 7 (37632)
I0403 16:01:09.083681 16758 net.cpp:156] Memory required for data: 1299351072
I0403 16:01:09.083699 16758 layer_factory.hpp:77] Creating layer inception_5a/5x5
I0403 16:01:09.083727 16758 net.cpp:91] Creating Layer inception_5a/5x5
I0403 16:01:09.083750 16758 net.cpp:425] inception_5a/5x5 <- inception_5a/5x5_reduce
I0403 16:01:09.083776 16758 net.cpp:399] inception_5a/5x5 -> inception_5a/5x5
I0403 16:01:09.085907 16758 net.cpp:141] Setting up inception_5a/5x5
I0403 16:01:09.085958 16758 net.cpp:148] Top shape: 24 128 7 7 (150528)
I0403 16:01:09.085978 16758 net.cpp:156] Memory required for data: 1299953184
I0403 16:01:09.085999 16758 layer_factory.hpp:77] Creating layer inception_5a/relu_5x5
I0403 16:01:09.086022 16758 net.cpp:91] Creating Layer inception_5a/relu_5x5
I0403 16:01:09.086042 16758 net.cpp:425] inception_5a/relu_5x5 <- inception_5a/5x5
I0403 16:01:09.086068 16758 net.cpp:386] inception_5a/relu_5x5 -> inception_5a/5x5 (in-place)
I0403 16:01:09.086304 16758 net.cpp:141] Setting up inception_5a/relu_5x5
I0403 16:01:09.086335 16758 net.cpp:148] Top shape: 24 128 7 7 (150528)
I0403 16:01:09.086354 16758 net.cpp:156] Memory required for data: 1300555296
I0403 16:01:09.086374 16758 layer_factory.hpp:77] Creating layer inception_5a/pool
I0403 16:01:09.086397 16758 net.cpp:91] Creating Layer inception_5a/pool
I0403 16:01:09.086418 16758 net.cpp:425] inception_5a/pool <- pool4/3x3_s2_pool4/3x3_s2_0_split_3
I0403 16:01:09.086441 16758 net.cpp:399] inception_5a/pool -> inception_5a/pool
I0403 16:01:09.086529 16758 net.cpp:141] Setting up inception_5a/pool
I0403 16:01:09.086560 16758 net.cpp:148] Top shape: 24 832 7 7 (978432)
I0403 16:01:09.086576 16758 net.cpp:156] Memory required for data: 1304469024
I0403 16:01:09.086594 16758 layer_factory.hpp:77] Creating layer inception_5a/pool_proj
I0403 16:01:09.086627 16758 net.cpp:91] Creating Layer inception_5a/pool_proj
I0403 16:01:09.086652 16758 net.cpp:425] inception_5a/pool_proj <- inception_5a/pool
I0403 16:01:09.086678 16758 net.cpp:399] inception_5a/pool_proj -> inception_5a/pool_proj
I0403 16:01:09.089469 16758 net.cpp:141] Setting up inception_5a/pool_proj
I0403 16:01:09.089509 16758 net.cpp:148] Top shape: 24 128 7 7 (150528)
I0403 16:01:09.089530 16758 net.cpp:156] Memory required for data: 1305071136
I0403 16:01:09.089553 16758 layer_factory.hpp:77] Creating layer inception_5a/relu_pool_proj
I0403 16:01:09.089576 16758 net.cpp:91] Creating Layer inception_5a/relu_pool_proj
I0403 16:01:09.089596 16758 net.cpp:425] inception_5a/relu_pool_proj <- inception_5a/pool_proj
I0403 16:01:09.089627 16758 net.cpp:386] inception_5a/relu_pool_proj -> inception_5a/pool_proj (in-place)
I0403 16:01:09.089987 16758 net.cpp:141] Setting up inception_5a/relu_pool_proj
I0403 16:01:09.090023 16758 net.cpp:148] Top shape: 24 128 7 7 (150528)
I0403 16:01:09.090042 16758 net.cpp:156] Memory required for data: 1305673248
I0403 16:01:09.090061 16758 layer_factory.hpp:77] Creating layer inception_5a/output
I0403 16:01:09.090082 16758 net.cpp:91] Creating Layer inception_5a/output
I0403 16:01:09.090101 16758 net.cpp:425] inception_5a/output <- inception_5a/1x1
I0403 16:01:09.090121 16758 net.cpp:425] inception_5a/output <- inception_5a/3x3
I0403 16:01:09.090142 16758 net.cpp:425] inception_5a/output <- inception_5a/5x5
I0403 16:01:09.090162 16758 net.cpp:425] inception_5a/output <- inception_5a/pool_proj
I0403 16:01:09.090185 16758 net.cpp:399] inception_5a/output -> inception_5a/output
I0403 16:01:09.090247 16758 net.cpp:141] Setting up inception_5a/output
I0403 16:01:09.090276 16758 net.cpp:148] Top shape: 24 832 7 7 (978432)
I0403 16:01:09.090294 16758 net.cpp:156] Memory required for data: 1309586976
I0403 16:01:09.090312 16758 layer_factory.hpp:77] Creating layer inception_5a/output_inception_5a/output_0_split
I0403 16:01:09.090337 16758 net.cpp:91] Creating Layer inception_5a/output_inception_5a/output_0_split
I0403 16:01:09.090359 16758 net.cpp:425] inception_5a/output_inception_5a/output_0_split <- inception_5a/output
I0403 16:01:09.090383 16758 net.cpp:399] inception_5a/output_inception_5a/output_0_split -> inception_5a/output_inception_5a/output_0_split_0
I0403 16:01:09.090407 16758 net.cpp:399] inception_5a/output_inception_5a/output_0_split -> inception_5a/output_inception_5a/output_0_split_1
I0403 16:01:09.090432 16758 net.cpp:399] inception_5a/output_inception_5a/output_0_split -> inception_5a/output_inception_5a/output_0_split_2
I0403 16:01:09.090462 16758 net.cpp:399] inception_5a/output_inception_5a/output_0_split -> inception_5a/output_inception_5a/output_0_split_3
I0403 16:01:09.090600 16758 net.cpp:141] Setting up inception_5a/output_inception_5a/output_0_split
I0403 16:01:09.090636 16758 net.cpp:148] Top shape: 24 832 7 7 (978432)
I0403 16:01:09.090657 16758 net.cpp:148] Top shape: 24 832 7 7 (978432)
I0403 16:01:09.090677 16758 net.cpp:148] Top shape: 24 832 7 7 (978432)
I0403 16:01:09.090695 16758 net.cpp:148] Top shape: 24 832 7 7 (978432)
I0403 16:01:09.090713 16758 net.cpp:156] Memory required for data: 1325241888
I0403 16:01:09.090730 16758 layer_factory.hpp:77] Creating layer inception_5b/1x1
I0403 16:01:09.090759 16758 net.cpp:91] Creating Layer inception_5b/1x1
I0403 16:01:09.090780 16758 net.cpp:425] inception_5b/1x1 <- inception_5a/output_inception_5a/output_0_split_0
I0403 16:01:09.090806 16758 net.cpp:399] inception_5b/1x1 -> inception_5b/1x1
I0403 16:01:09.095425 16758 net.cpp:141] Setting up inception_5b/1x1
I0403 16:01:09.095465 16758 net.cpp:148] Top shape: 24 384 7 7 (451584)
I0403 16:01:09.095485 16758 net.cpp:156] Memory required for data: 1327048224
I0403 16:01:09.095509 16758 layer_factory.hpp:77] Creating layer inception_5b/relu_1x1
I0403 16:01:09.095531 16758 net.cpp:91] Creating Layer inception_5b/relu_1x1
I0403 16:01:09.095552 16758 net.cpp:425] inception_5b/relu_1x1 <- inception_5b/1x1
I0403 16:01:09.095574 16758 net.cpp:386] inception_5b/relu_1x1 -> inception_5b/1x1 (in-place)
I0403 16:01:09.095962 16758 net.cpp:141] Setting up inception_5b/relu_1x1
I0403 16:01:09.095998 16758 net.cpp:148] Top shape: 24 384 7 7 (451584)
I0403 16:01:09.096019 16758 net.cpp:156] Memory required for data: 1328854560
I0403 16:01:09.096037 16758 layer_factory.hpp:77] Creating layer inception_5b/3x3_reduce
I0403 16:01:09.096065 16758 net.cpp:91] Creating Layer inception_5b/3x3_reduce
I0403 16:01:09.096088 16758 net.cpp:425] inception_5b/3x3_reduce <- inception_5a/output_inception_5a/output_0_split_1
I0403 16:01:09.096112 16758 net.cpp:399] inception_5b/3x3_reduce -> inception_5b/3x3_reduce
I0403 16:01:09.099398 16758 net.cpp:141] Setting up inception_5b/3x3_reduce
I0403 16:01:09.099437 16758 net.cpp:148] Top shape: 24 192 7 7 (225792)
I0403 16:01:09.099459 16758 net.cpp:156] Memory required for data: 1329757728
I0403 16:01:09.099483 16758 layer_factory.hpp:77] Creating layer inception_5b/relu_3x3_reduce
I0403 16:01:09.099504 16758 net.cpp:91] Creating Layer inception_5b/relu_3x3_reduce
I0403 16:01:09.099525 16758 net.cpp:425] inception_5b/relu_3x3_reduce <- inception_5b/3x3_reduce
I0403 16:01:09.099550 16758 net.cpp:386] inception_5b/relu_3x3_reduce -> inception_5b/3x3_reduce (in-place)
I0403 16:01:09.099793 16758 net.cpp:141] Setting up inception_5b/relu_3x3_reduce
I0403 16:01:09.099825 16758 net.cpp:148] Top shape: 24 192 7 7 (225792)
I0403 16:01:09.099843 16758 net.cpp:156] Memory required for data: 1330660896
I0403 16:01:09.099861 16758 layer_factory.hpp:77] Creating layer inception_5b/3x3
I0403 16:01:09.099887 16758 net.cpp:91] Creating Layer inception_5b/3x3
I0403 16:01:09.099910 16758 net.cpp:425] inception_5b/3x3 <- inception_5b/3x3_reduce
I0403 16:01:09.099936 16758 net.cpp:399] inception_5b/3x3 -> inception_5b/3x3
I0403 16:01:09.108276 16758 net.cpp:141] Setting up inception_5b/3x3
I0403 16:01:09.108314 16758 net.cpp:148] Top shape: 24 384 7 7 (451584)
I0403 16:01:09.108335 16758 net.cpp:156] Memory required for data: 1332467232
I0403 16:01:09.108358 16758 layer_factory.hpp:77] Creating layer inception_5b/relu_3x3
I0403 16:01:09.108381 16758 net.cpp:91] Creating Layer inception_5b/relu_3x3
I0403 16:01:09.108402 16758 net.cpp:425] inception_5b/relu_3x3 <- inception_5b/3x3
I0403 16:01:09.108430 16758 net.cpp:386] inception_5b/relu_3x3 -> inception_5b/3x3 (in-place)
I0403 16:01:09.108798 16758 net.cpp:141] Setting up inception_5b/relu_3x3
I0403 16:01:09.108835 16758 net.cpp:148] Top shape: 24 384 7 7 (451584)
I0403 16:01:09.108855 16758 net.cpp:156] Memory required for data: 1334273568
I0403 16:01:09.108873 16758 layer_factory.hpp:77] Creating layer inception_5b/5x5_reduce
I0403 16:01:09.108921 16758 net.cpp:91] Creating Layer inception_5b/5x5_reduce
I0403 16:01:09.108944 16758 net.cpp:425] inception_5b/5x5_reduce <- inception_5a/output_inception_5a/output_0_split_2
I0403 16:01:09.108970 16758 net.cpp:399] inception_5b/5x5_reduce -> inception_5b/5x5_reduce
I0403 16:01:09.110545 16758 net.cpp:141] Setting up inception_5b/5x5_reduce
I0403 16:01:09.110582 16758 net.cpp:148] Top shape: 24 48 7 7 (56448)
I0403 16:01:09.110610 16758 net.cpp:156] Memory required for data: 1334499360
I0403 16:01:09.110636 16758 layer_factory.hpp:77] Creating layer inception_5b/relu_5x5_reduce
I0403 16:01:09.110659 16758 net.cpp:91] Creating Layer inception_5b/relu_5x5_reduce
I0403 16:01:09.110682 16758 net.cpp:425] inception_5b/relu_5x5_reduce <- inception_5b/5x5_reduce
I0403 16:01:09.110703 16758 net.cpp:386] inception_5b/relu_5x5_reduce -> inception_5b/5x5_reduce (in-place)
I0403 16:01:09.111163 16758 net.cpp:141] Setting up inception_5b/relu_5x5_reduce
I0403 16:01:09.111196 16758 net.cpp:148] Top shape: 24 48 7 7 (56448)
I0403 16:01:09.111217 16758 net.cpp:156] Memory required for data: 1334725152
I0403 16:01:09.111234 16758 layer_factory.hpp:77] Creating layer inception_5b/5x5
I0403 16:01:09.111260 16758 net.cpp:91] Creating Layer inception_5b/5x5
I0403 16:01:09.111281 16758 net.cpp:425] inception_5b/5x5 <- inception_5b/5x5_reduce
I0403 16:01:09.111304 16758 net.cpp:399] inception_5b/5x5 -> inception_5b/5x5
I0403 16:01:09.113857 16758 net.cpp:141] Setting up inception_5b/5x5
I0403 16:01:09.113893 16758 net.cpp:148] Top shape: 24 128 7 7 (150528)
I0403 16:01:09.113912 16758 net.cpp:156] Memory required for data: 1335327264
I0403 16:01:09.113934 16758 layer_factory.hpp:77] Creating layer inception_5b/relu_5x5
I0403 16:01:09.113957 16758 net.cpp:91] Creating Layer inception_5b/relu_5x5
I0403 16:01:09.113977 16758 net.cpp:425] inception_5b/relu_5x5 <- inception_5b/5x5
I0403 16:01:09.114001 16758 net.cpp:386] inception_5b/relu_5x5 -> inception_5b/5x5 (in-place)
I0403 16:01:09.114240 16758 net.cpp:141] Setting up inception_5b/relu_5x5
I0403 16:01:09.114271 16758 net.cpp:148] Top shape: 24 128 7 7 (150528)
I0403 16:01:09.114291 16758 net.cpp:156] Memory required for data: 1335929376
I0403 16:01:09.114310 16758 layer_factory.hpp:77] Creating layer inception_5b/pool
I0403 16:01:09.114334 16758 net.cpp:91] Creating Layer inception_5b/pool
I0403 16:01:09.114356 16758 net.cpp:425] inception_5b/pool <- inception_5a/output_inception_5a/output_0_split_3
I0403 16:01:09.114379 16758 net.cpp:399] inception_5b/pool -> inception_5b/pool
I0403 16:01:09.114470 16758 net.cpp:141] Setting up inception_5b/pool
I0403 16:01:09.114500 16758 net.cpp:148] Top shape: 24 832 7 7 (978432)
I0403 16:01:09.114519 16758 net.cpp:156] Memory required for data: 1339843104
I0403 16:01:09.114537 16758 layer_factory.hpp:77] Creating layer inception_5b/pool_proj
I0403 16:01:09.114563 16758 net.cpp:91] Creating Layer inception_5b/pool_proj
I0403 16:01:09.114584 16758 net.cpp:425] inception_5b/pool_proj <- inception_5b/pool
I0403 16:01:09.114624 16758 net.cpp:399] inception_5b/pool_proj -> inception_5b/pool_proj
I0403 16:01:09.117447 16758 net.cpp:141] Setting up inception_5b/pool_proj
I0403 16:01:09.117486 16758 net.cpp:148] Top shape: 24 128 7 7 (150528)
I0403 16:01:09.117507 16758 net.cpp:156] Memory required for data: 1340445216
I0403 16:01:09.117530 16758 layer_factory.hpp:77] Creating layer inception_5b/relu_pool_proj
I0403 16:01:09.117552 16758 net.cpp:91] Creating Layer inception_5b/relu_pool_proj
I0403 16:01:09.117573 16758 net.cpp:425] inception_5b/relu_pool_proj <- inception_5b/pool_proj
I0403 16:01:09.117599 16758 net.cpp:386] inception_5b/relu_pool_proj -> inception_5b/pool_proj (in-place)
I0403 16:01:09.117969 16758 net.cpp:141] Setting up inception_5b/relu_pool_proj
I0403 16:01:09.118005 16758 net.cpp:148] Top shape: 24 128 7 7 (150528)
I0403 16:01:09.118023 16758 net.cpp:156] Memory required for data: 1341047328
I0403 16:01:09.118041 16758 layer_factory.hpp:77] Creating layer inception_5b/output
I0403 16:01:09.118063 16758 net.cpp:91] Creating Layer inception_5b/output
I0403 16:01:09.118101 16758 net.cpp:425] inception_5b/output <- inception_5b/1x1
I0403 16:01:09.118124 16758 net.cpp:425] inception_5b/output <- inception_5b/3x3
I0403 16:01:09.118144 16758 net.cpp:425] inception_5b/output <- inception_5b/5x5
I0403 16:01:09.118165 16758 net.cpp:425] inception_5b/output <- inception_5b/pool_proj
I0403 16:01:09.118185 16758 net.cpp:399] inception_5b/output -> inception_5b/output
I0403 16:01:09.118250 16758 net.cpp:141] Setting up inception_5b/output
I0403 16:01:09.118280 16758 net.cpp:148] Top shape: 24 1024 7 7 (1204224)
I0403 16:01:09.118299 16758 net.cpp:156] Memory required for data: 1345864224
I0403 16:01:09.118319 16758 layer_factory.hpp:77] Creating layer pool5/7x7_s1
I0403 16:01:09.118342 16758 net.cpp:91] Creating Layer pool5/7x7_s1
I0403 16:01:09.118363 16758 net.cpp:425] pool5/7x7_s1 <- inception_5b/output
I0403 16:01:09.118386 16758 net.cpp:399] pool5/7x7_s1 -> pool5/7x7_s1
I0403 16:01:09.118664 16758 net.cpp:141] Setting up pool5/7x7_s1
I0403 16:01:09.118696 16758 net.cpp:148] Top shape: 24 1024 1 1 (24576)
I0403 16:01:09.118716 16758 net.cpp:156] Memory required for data: 1345962528
I0403 16:01:09.118736 16758 layer_factory.hpp:77] Creating layer pool5/drop_7x7_s1
I0403 16:01:09.118757 16758 net.cpp:91] Creating Layer pool5/drop_7x7_s1
I0403 16:01:09.118777 16758 net.cpp:425] pool5/drop_7x7_s1 <- pool5/7x7_s1
I0403 16:01:09.118800 16758 net.cpp:386] pool5/drop_7x7_s1 -> pool5/7x7_s1 (in-place)
I0403 16:01:09.118862 16758 net.cpp:141] Setting up pool5/drop_7x7_s1
I0403 16:01:09.118894 16758 net.cpp:148] Top shape: 24 1024 1 1 (24576)
I0403 16:01:09.118914 16758 net.cpp:156] Memory required for data: 1346060832
I0403 16:01:09.118932 16758 layer_factory.hpp:77] Creating layer loss3/classifier_plantvillage
I0403 16:01:09.118955 16758 net.cpp:91] Creating Layer loss3/classifier_plantvillage
I0403 16:01:09.118976 16758 net.cpp:425] loss3/classifier_plantvillage <- pool5/7x7_s1
I0403 16:01:09.119001 16758 net.cpp:399] loss3/classifier_plantvillage -> loss3/classifier_plantvillage
I0403 16:01:09.119529 16758 net.cpp:141] Setting up loss3/classifier_plantvillage
I0403 16:01:09.119560 16758 net.cpp:148] Top shape: 24 38 (912)
I0403 16:01:09.119578 16758 net.cpp:156] Memory required for data: 1346064480
I0403 16:01:09.119601 16758 layer_factory.hpp:77] Creating layer loss3/classifier_plantvillage_loss3/classifier_plantvillage_0_split
I0403 16:01:09.119635 16758 net.cpp:91] Creating Layer loss3/classifier_plantvillage_loss3/classifier_plantvillage_0_split
I0403 16:01:09.119657 16758 net.cpp:425] loss3/classifier_plantvillage_loss3/classifier_plantvillage_0_split <- loss3/classifier_plantvillage
I0403 16:01:09.119680 16758 net.cpp:399] loss3/classifier_plantvillage_loss3/classifier_plantvillage_0_split -> loss3/classifier_plantvillage_loss3/classifier_plantvillage_0_split_0
I0403 16:01:09.119705 16758 net.cpp:399] loss3/classifier_plantvillage_loss3/classifier_plantvillage_0_split -> loss3/classifier_plantvillage_loss3/classifier_plantvillage_0_split_1
I0403 16:01:09.119734 16758 net.cpp:399] loss3/classifier_plantvillage_loss3/classifier_plantvillage_0_split -> loss3/classifier_plantvillage_loss3/classifier_plantvillage_0_split_2
I0403 16:01:09.119760 16758 net.cpp:399] loss3/classifier_plantvillage_loss3/classifier_plantvillage_0_split -> loss3/classifier_plantvillage_loss3/classifier_plantvillage_0_split_3
I0403 16:01:09.119884 16758 net.cpp:141] Setting up loss3/classifier_plantvillage_loss3/classifier_plantvillage_0_split
I0403 16:01:09.119913 16758 net.cpp:148] Top shape: 24 38 (912)
I0403 16:01:09.119935 16758 net.cpp:148] Top shape: 24 38 (912)
I0403 16:01:09.119954 16758 net.cpp:148] Top shape: 24 38 (912)
I0403 16:01:09.119972 16758 net.cpp:148] Top shape: 24 38 (912)
I0403 16:01:09.119989 16758 net.cpp:156] Memory required for data: 1346079072
I0403 16:01:09.120007 16758 layer_factory.hpp:77] Creating layer loss1/loss
I0403 16:01:09.120033 16758 net.cpp:91] Creating Layer loss1/loss
I0403 16:01:09.120054 16758 net.cpp:425] loss1/loss <- loss1/classifier_plantvillage_loss1/classifier_plantvillage_0_split_0
I0403 16:01:09.120092 16758 net.cpp:425] loss1/loss <- label_data_1_split_0
…
