…
I0403 16:25:36.241834 18203 net.cpp:313] The NetState phase (1) differed from the phase (0) specified by a rule in layer data
I0403 16:25:36.244885 18203 net.cpp:49] Initializing net from parameters: 
state {
  phase: TEST
}
layer {
  name: "data"
  type: "Data"
  top: "data"
  top: "label"
  include {
    phase: TEST
  }
  transform_param {
    mirror: false
    crop_size: 224
    mean_file: "/home/mohanty/data/final_dataset/lmdb/color-20-80/mean.binaryproto"
  }
  data_param {
    source: "/home/mohanty/data/final_dataset/lmdb/color-20-80/test_db"
    batch_size: 24
    backend: LMDB
  }
}
layer {
  name: "conv1/7x7_s2"
  type: "Convolution"
  bottom: "data"
  top: "conv1/7x7_s2"
  param {
    lr_mult: 1
    decay_mult: 1
  }
  param {
    lr_mult: 2
    decay_mult: 0
  }
  convolution_param {
    num_output: 64
    pad: 3
    kernel_size: 7
    stride: 2
    weight_filler {
      type: "xavier"
      std: 0.1
    }
    bias_filler {
      type: "constant"
      value: 0.2
    }
  }
}
layer {
  name: "conv1/relu_7x7"
  type: "ReLU"
  bottom: "conv1/7x7_s2"
  top: "conv1/7x7_s2"
}
layer {
  name: "pool1/3x3_s2"
  type: "Pooling"
  bottom: "conv1/7x7_s2"
  top: "pool1/3x3_s2"
  pooling_param {
    pool: MAX
    kernel_size: 3
    stride: 2
  }
}
layer {
  name: "pool1/norm1"
  type: "LRN"
  bottom: "pool1/3x3_s2"
  top: "pool1/norm1"
  lrn_param {
    local_size: 5
    alpha: 0.0001
    beta: 0.75
  }
}
layer {
  name: "conv2/3x3_reduce"
  type: "Convolution"
  bottom: "pool1/norm1"
  top: "conv2/3x3_reduce"
  param {
    lr_mult: 1
    decay_mult: 1
  }
  param {
    lr_mult: 2
    decay_mult: 0
  }
  convolution_param {
    num_output: 64
    kernel_size: 1
    weight_filler {
      type: "xavier"
      std: 0.1
    }
    bias_filler {
      type: "constant"
      value: 0.2
    }
  }
}
layer {
  name: "conv2/relu_3x3_reduce"
  type: "ReLU"
  bottom: "conv2/3x3_reduce"
  top: "conv2/3x3_reduce"
}
layer {
  name: "conv2/3x3"
  type: "Convolution"
  bottom: "conv2/3x3_reduce"
  top: "conv2/3x3"
  param {
    lr_mult: 1
    decay_mult: 1
  }
  param {
    lr_mult: 2
    decay_mult: 0
  }
  convolution_param {
    num_output: 192
    pad: 1
    kernel_size: 3
    weight_filler {
      type: "xavier"
      std: 0.03
    }
    bias_filler {
      type: "constant"
      value: 0.2
    }
  }
}
layer {
  name: "conv2/relu_3x3"
  type: "ReLU"
  bottom: "conv2/3x3"
  top: "conv2/3x3"
}
layer {
  name: "conv2/norm2"
  type: "LRN"
  bottom: "conv2/3x3"
  top: "conv2/norm2"
  lrn_param {
    local_size: 5
    alpha: 0.0001
    beta: 0.75
  }
}
layer {
  name: "pool2/3x3_s2"
  type: "Pooling"
  bottom: "conv2/norm2"
  top: "pool2/3x3_s2"
  pooling_param {
    pool: MAX
    kernel_size: 3
    stride: 2
  }
}
layer {
  name: "inception_3a/1x1"
  type: "Convolution"
  bottom: "pool2/3x3_s2"
  top: "inception_3a/1x1"
  param {
    lr_mult: 1
    decay_mult: 1
  }
  param {
    lr_mult: 2
    decay_mult: 0
  }
  convolution_param {
    num_output: 64
    kernel_size: 1
    weight_filler {
      type: "xavier"
      std: 0.03
    }
    bias_filler {
      type: "constant"
      value: 0.2
    }
  }
}
layer {
  name: "inception_3a/relu_1x1"
  type: "ReLU"
  bottom: "inception_3a/1x1"
  top: "inception_3a/1x1"
}
layer {
  name: "inception_3a/3x3_reduce"
  type: "Convolution"
  bottom: "pool2/3x3_s2"
  top: "inception_3a/3x3_reduce"
  param {
    lr_mult: 1
    decay_mult: 1
  }
  param {
    lr_mult: 2
    decay_mult: 0
  }
  convolution_param {
    num_output: 96
    kernel_size: 1
    weight_filler {
      type: "xavier"
      std: 0.09
    }
    bias_filler {
      type: "constant"
      value: 0.2
    }
  }
}
layer {
  name: "inception_3a/relu_3x3_reduce"
  type: "ReLU"
  bottom: "inception_3a/3x3_reduce"
  top: "inception_3a/3x3_reduce"
}
layer {
  name: "inception_3a/3x3"
  type: "Convolution"
  bottom: "inception_3a/3x3_reduce"
  top: "inception_3a/3x3"
  param {
    lr_mult: 1
    decay_mult: 1
  }
  param {
    lr_mult: 2
    decay_mult: 0
  }
  convolution_param {
    num_output: 128
    pad: 1
    kernel_size: 3
    weight_filler {
      type: "xavier"
      std: 0.03
    }
    bias_filler {
      type: "constant"
      value: 0.2
    }
  }
}
layer {
  name: "inception_3a/relu_3x3"
  type: "ReLU"
  bottom: "inception_3a/3x3"
  top: "inception_3a/3x3"
}
layer {
  name: "inception_3a/5x5_reduce"
  type: "Convolution"
  bottom: "pool2/3x3_s2"
  top: "inception_3a/5x5_reduce"
  param {
    lr_mult: 1
    decay_mult: 1
  }
  param {
    lr_mult: 2
    decay_mult: 0
  }
  convolution_param {
    num_output: 16
    kernel_size: 1
    weight_filler {
      type: "xavier"
      std: 0.2
    }
    bias_filler {
      type: "constant"
      value: 0.2
    }
  }
}
layer {
  name: "inception_3a/relu_5x5_reduce"
  type: "ReLU"
  bottom: "inception_3a/5x5_reduce"
  top: "inception_3a/5x5_reduce"
}
layer {
  name: "inception_3a/5x5"
  type: "Convolution"
  bottom: "inception_3a/5x5_reduce"
  top: "inception_3a/5x5"
  param {
    lr_mult: 1
    decay_mult: 1
  }
  param {
    lr_mult: 2
    decay_mult: 0
  }
  convolution_param {
    num_output: 32
    pad: 2
    kernel_size: 5
    weight_filler {
      type: "xavier"
      std: 0.03
    }
    bias_filler {
      type: "constant"
      value: 0.2
    }
  }
}
layer {
  name: "inception_3a/relu_5x5"
  type: "ReLU"
  bottom: "inception_3a/5x5"
  top: "inception_3a/5x5"
}
layer {
  name: "inception_3a/pool"
  type: "Pooling"
  bottom: "pool2/3x3_s2"
  top: "inception_3a/pool"
  pooling_param {
    pool: MAX
    kernel_size: 3
    stride: 1
    pad: 1
  }
}
layer {
  name: "inception_3a/pool_proj"
  type: "Convolution"
  bottom: "inception_3a/pool"
  top: "inception_3a/pool_proj"
  param {
    lr_mult: 1
    decay_mult: 1
  }
  param {
    lr_mult: 2
    decay_mult: 0
  }
  convolution_param {
    num_output: 32
    kernel_size: 1
    weight_filler {
      type: "xavier"
      std: 0.1
    }
    bias_filler {
      type: "constant"
      value: 0.2
    }
  }
}
layer {
  name: "inception_3a/relu_pool_proj"
  type: "ReLU"
  bottom: "inception_3a/pool_proj"
  top: "inception_3a/pool_proj"
}
layer {
  name: "inception_3a/output"
  type: "Concat"
  bottom: "inception_3a/1x1"
  bottom: "inception_3a/3x3"
  bottom: "inception_3a/5x5"
  bottom: "inception_3a/pool_proj"
  top: "inception_3a/output"
}
layer {
  name: "inception_3b/1x1"
  type: "Convolution"
  bottom: "inception_3a/output"
  top: "inception_3b/1x1"
  param {
    lr_mult: 1
    decay_mult: 1
  }
  param {
    lr_mult: 2
    decay_mult: 0
  }
  convolution_param {
    num_output: 128
    kernel_size: 1
    weight_filler {
      type: "xavier"
      std: 0.03
    }
    bias_filler {
      type: "constant"
      value: 0.2
    }
  }
}
layer {
  name: "inception_3b/relu_1x1"
  type: "ReLU"
  bottom: "inception_3b/1x1"
  top: "inception_3b/1x1"
}
layer {
  name: "inception_3b/3x3_reduce"
  type: "Convolution"
  bottom: "inception_3a/output"
  top: "inception_3b/3x3_reduce"
  param {
    lr_mult: 1
    decay_mult: 1
  }
  param {
    lr_mult: 2
    decay_mult: 0
  }
  convolution_param {
    num_output: 128
    kernel_size: 1
    weight_filler {
      type: "xavier"
      std: 0.09
    }
    bias_filler {
      type: "constant"
      value: 0.2
    }
  }
}
layer {
  name: "inception_3b/relu_3x3_reduce"
  type: "ReLU"
  bottom: "inception_3b/3x3_reduce"
  top: "inception_3b/3x3_reduce"
}
layer {
  name: "inception_3b/3x3"
  type: "Convolution"
  bottom: "inception_3b/3x3_reduce"
  top: "inception_3b/3x3"
  param {
    lr_mult: 1
    decay_mult: 1
  }
  param {
    lr_mult: 2
    decay_mult: 0
  }
  convolution_param {
    num_output: 192
    pad: 1
    kernel_size: 3
    weight_filler {
      type: "xavier"
      std: 0.03
    }
    bias_filler {
      type: "constant"
      value: 0.2
    }
  }
}
layer {
  name: "inception_3b/relu_3x3"
  type: "ReLU"
  bottom: "inception_3b/3x3"
  top: "inception_3b/3x3"
}
layer {
  name: "inception_3b/5x5_reduce"
  type: "Convolution"
  bottom: "inception_3a/output"
  top: "inception_3b/5x5_reduce"
  param {
    lr_mult: 1
    decay_mult: 1
  }
  param {
    lr_mult: 2
    decay_mult: 0
  }
  convolution_param {
    num_output: 32
    kernel_size: 1
    weight_filler {
      type: "xavier"
      std: 0.2
    }
    bias_filler {
      type: "constant"
      value: 0.2
    }
  }
}
layer {
  name: "inception_3b/relu_5x5_reduce"
  type: "ReLU"
  bottom: "inception_3b/5x5_reduce"
  top: "inception_3b/5x5_reduce"
}
layer {
  name: "inception_3b/5x5"
  type: "Convolution"
  bottom: "inception_3b/5x5_reduce"
  top: "inception_3b/5x5"
  param {
    lr_mult: 1
    decay_mult: 1
  }
  param {
    lr_mult: 2
    decay_mult: 0
  }
  convolution_param {
    num_output: 96
    pad: 2
    kernel_size: 5
    weight_filler {
      type: "xavier"
      std: 0.03
    }
    bias_filler {
      type: "constant"
      value: 0.2
    }
  }
}
layer {
  name: "inception_3b/relu_5x5"
  type: "ReLU"
  bottom: "inception_3b/5x5"
  top: "inception_3b/5x5"
}
layer {
  name: "inception_3b/pool"
  type: "Pooling"
  bottom: "inception_3a/output"
  top: "inception_3b/pool"
  pooling_param {
    pool: MAX
    kernel_size: 3
    stride: 1
    pad: 1
  }
}
layer {
  name: "inception_3b/pool_proj"
  type: "Convolution"
  bottom: "inception_3b/pool"
  top: "inception_3b/pool_proj"
  param {
    lr_mult: 1
    decay_mult: 1
  }
  param {
    lr_mult: 2
    decay_mult: 0
  }
  convolution_param {
    num_output: 64
    kernel_size: 1
    weight_filler {
      type: "xavier"
      std: 0.1
    }
    bias_filler {
      type: "constant"
      value: 0.2
    }
  }
}
layer {
  name: "inception_3b/relu_pool_proj"
  type: "ReLU"
  bottom: "inception_3b/pool_proj"
  top: "inception_3b/pool_proj"
}
layer {
  name: "inception_3b/output"
  type: "Concat"
  bottom: "inception_3b/1x1"
  bottom: "inception_3b/3x3"
  bottom: "inception_3b/5x5"
  bottom: "inception_3b/pool_proj"
  top: "inception_3b/output"
}
layer {
  name: "pool3/3x3_s2"
  type: "Pooling"
  bottom: "inception_3b/output"
  top: "pool3/3x3_s2"
  pooling_param {
    pool: MAX
    kernel_size: 3
    stride: 2
  }
}
layer {
  name: "inception_4a/1x1"
  type: "Convolution"
  bottom: "pool3/3x3_s2"
  top: "inception_4a/1x1"
  param {
    lr_mult: 1
    decay_mult: 1
  }
  param {
    lr_mult: 2
    decay_mult: 0
  }
  convolution_param {
    num_output: 192
    kernel_size: 1
    weight_filler {
      type: "xavier"
      std: 0.03
    }
    bias_filler {
      type: "constant"
      value: 0.2
    }
  }
}
layer {
  name: "inception_4a/relu_1x1"
  type: "ReLU"
  bottom: "inception_4a/1x1"
  top: "inception_4a/1x1"
}
layer {
  name: "inception_4a/3x3_reduce"
  type: "Convolution"
  bottom: "pool3/3x3_s2"
  top: "inception_4a/3x3_reduce"
  param {
    lr_mult: 1
    decay_mult: 1
  }
  param {
    lr_mult: 2
    decay_mult: 0
  }
  convolution_param {
    num_output: 96
    kernel_size: 1
    weight_filler {
      type: "xavier"
      std: 0.09
    }
    bias_filler {
      type: "constant"
      value: 0.2
    }
  }
}
layer {
  name: "inception_4a/relu_3x3_reduce"
  type: "ReLU"
  bottom: "inception_4a/3x3_reduce"
  top: "inception_4a/3x3_reduce"
}
layer {
  name: "inception_4a/3x3"
  type: "Convolution"
  bottom: "inception_4a/3x3_reduce"
  top: "inception_4a/3x3"
  param {
    lr_mult: 1
    decay_mult: 1
  }
  param {
    lr_mult: 2
    decay_mult: 0
  }
  convolution_param {
    num_output: 208
    pad: 1
    kernel_size: 3
    weight_filler {
      type: "xavier"
      std: 0.03
    }
    bias_filler {
      type: "constant"
      value: 0.2
    }
  }
}
layer {
  name: "inception_4a/relu_3x3"
  type: "ReLU"
  bottom: "inception_4a/3x3"
  top: "inception_4a/3x3"
}
layer {
  name: "inception_4a/5x5_reduce"
  type: "Convolution"
  bottom: "pool3/3x3_s2"
  top: "inception_4a/5x5_reduce"
  param {
    lr_mult: 1
    decay_mult: 1
  }
  param {
    lr_mult: 2
    decay_mult: 0
  }
  convolution_param {
    num_output: 16
    kernel_size: 1
    weight_filler {
      type: "xavier"
      std: 0.2
    }
    bias_filler {
      type: "constant"
      value: 0.2
    }
  }
}
layer {
  name: "inception_4a/relu_5x5_reduce"
  type: "ReLU"
  bottom: "inception_4a/5x5_reduce"
  top: "inception_4a/5x5_reduce"
}
layer {
  name: "inception_4a/5x5"
  type: "Convolution"
  bottom: "inception_4a/5x5_reduce"
  top: "inception_4a/5x5"
  param {
    lr_mult: 1
    decay_mult: 1
  }
  param {
    lr_mult: 2
    decay_mult: 0
  }
  convolution_param {
    num_output: 48
    pad: 2
    kernel_size: 5
    weight_filler {
      type: "xavier"
      std: 0.03
    }
    bias_filler {
      type: "constant"
      value: 0.2
    }
  }
}
layer {
  name: "inception_4a/relu_5x5"
  type: "ReLU"
  bottom: "inception_4a/5x5"
  top: "inception_4a/5x5"
}
layer {
  name: "inception_4a/pool"
  type: "Pooling"
  bottom: "pool3/3x3_s2"
  top: "inception_4a/pool"
  pooling_param {
    pool: MAX
    kernel_size: 3
    stride: 1
    pad: 1
  }
}
layer {
  name: "inception_4a/pool_proj"
  type: "Convolution"
  bottom: "inception_4a/pool"
  top: "inception_4a/pool_proj"
  param {
    lr_mult: 1
    decay_mult: 1
  }
  param {
    lr_mult: 2
    decay_mult: 0
  }
  convolution_param {
    num_output: 64
    kernel_size: 1
    weight_filler {
      type: "xavier"
      std: 0.1
    }
    bias_filler {
      type: "constant"
      value: 0.2
    }
  }
}
layer {
  name: "inception_4a/relu_pool_proj"
  type: "ReLU"
  bottom: "inception_4a/pool_proj"
  top: "inception_4a/pool_proj"
}
layer {
  name: "inception_4a/output"
  type: "Concat"
  bottom: "inception_4a/1x1"
  bottom: "inception_4a/3x3"
  bottom: "inception_4a/5x5"
  bottom: "inception_4a/pool_proj"
  top: "inception_4a/output"
}
layer {
  name: "loss1/ave_pool"
  type: "Pooling"
  bottom: "inception_4a/output"
  top: "loss1/ave_pool"
  pooling_param {
    pool: AVE
    kernel_size: 5
    stride: 3
  }
}
layer {
  name: "loss1/conv"
  type: "Convolution"
  bottom: "loss1/ave_pool"
  top: "loss1/conv"
  param {
    lr_mult: 1
    decay_mult: 1
  }
  param {
    lr_mult: 2
    decay_mult: 0
  }
  convolution_param {
    num_output: 128
    kernel_size: 1
    weight_filler {
      type: "xavier"
      std: 0.08
    }
    bias_filler {
      type: "constant"
      value: 0.2
    }
  }
}
layer {
  name: "loss1/relu_conv"
  type: "ReLU"
  bottom: "loss1/conv"
  top: "loss1/conv"
}
layer {
  name: "loss1/fc"
  type: "InnerProduct"
  bottom: "loss1/conv"
  top: "loss1/fc"
  param {
    lr_mult: 1
    decay_mult: 1
  }
  param {
    lr_mult: 2
    decay_mult: 0
  }
  inner_product_param {
    num_output: 1024
    weight_filler {
      type: "xavier"
      std: 0.02
    }
    bias_filler {
      type: "constant"
      value: 0.2
    }
  }
}
layer {
  name: "loss1/relu_fc"
  type: "ReLU"
  bottom: "loss1/fc"
  top: "loss1/fc"
}
layer {
  name: "loss1/drop_fc"
  type: "Dropout"
  bottom: "loss1/fc"
  top: "loss1/fc"
  dropout_param {
    dropout_ratio: 0.7
  }
}
layer {
  name: "loss1/classifier_plantvillage"
  type: "InnerProduct"
  bottom: "loss1/fc"
  top: "loss1/classifier_plantvillage"
  param {
    lr_mult: 1
    decay_mult: 1
  }
  param {
    lr_mult: 2
    decay_mult: 0
  }
  inner_product_param {
    num_output: 38
    weight_filler {
      type: "xavier"
      std: 0.0009765625
    }
    bias_filler {
      type: "constant"
      value: 0
    }
  }
}
layer {
  name: "inception_4b/1x1"
  type: "Convolution"
  bottom: "inception_4a/output"
  top: "inception_4b/1x1"
  param {
    lr_mult: 1
    decay_mult: 1
  }
  param {
    lr_mult: 2
    decay_mult: 0
  }
  convolution_param {
    num_output: 160
    kernel_size: 1
    weight_filler {
      type: "xavier"
      std: 0.03
    }
    bias_filler {
      type: "constant"
      value: 0.2
    }
  }
}
layer {
  name: "inception_4b/relu_1x1"
  type: "ReLU"
  bottom: "inception_4b/1x1"
  top: "inception_4b/1x1"
}
layer {
  name: "inception_4b/3x3_reduce"
  type: "Convolution"
  bottom: "inception_4a/output"
  top: "inception_4b/3x3_reduce"
  param {
    lr_mult: 1
    decay_mult: 1
  }
  param {
    lr_mult: 2
    decay_mult: 0
  }
  convolution_param {
    num_output: 112
    kernel_size: 1
    weight_filler {
      type: "xavier"
      std: 0.09
    }
    bias_filler {
      type: "constant"
      value: 0.2
    }
  }
}
layer {
  name: "inception_4b/relu_3x3_reduce"
  type: "ReLU"
  bottom: "inception_4b/3x3_reduce"
  top: "inception_4b/3x3_reduce"
}
layer {
  name: "inception_4b/3x3"
  type: "Convolution"
  bottom: "inception_4b/3x3_reduce"
  top: "inception_4b/3x3"
  param {
    lr_mult: 1
    decay_mult: 1
  }
  param {
    lr_mult: 2
    decay_mult: 0
  }
  convolution_param {
    num_output: 224
    pad: 1
    kernel_size: 3
    weight_filler {
      type: "xavier"
      std: 0.03
    }
    bias_filler {
      type: "constant"
      value: 0.2
    }
  }
}
layer {
  name: "inception_4b/relu_3x3"
  type: "ReLU"
  bottom: "inception_4b/3x3"
  top: "inception_4b/3x3"
}
layer {
  name: "inception_4b/5x5_reduce"
  type: "Convolution"
  bottom: "inception_4a/output"
  top: "inception_4b/5x5_reduce"
  param {
    lr_mult: 1
    decay_mult: 1
  }
  param {
    lr_mult: 2
    decay_mult: 0
  }
  convolution_param {
    num_output: 24
    kernel_size: 1
    weight_filler {
      type: "xavier"
      std: 0.2
    }
    bias_filler {
      type: "constant"
      value: 0.2
    }
  }
}
layer {
  name: "inception_4b/relu_5x5_reduce"
  type: "ReLU"
  bottom: "inception_4b/5x5_reduce"
  top: "inception_4b/5x5_reduce"
}
layer {
  name: "inception_4b/5x5"
  type: "Convolution"
  bottom: "inception_4b/5x5_reduce"
  top: "inception_4b/5x5"
  param {
    lr_mult: 1
    decay_mult: 1
  }
  param {
    lr_mult: 2
    decay_mult: 0
  }
  convolution_param {
    num_output: 64
    pad: 2
    kernel_size: 5
    weight_filler {
      type: "xavier"
      std: 0.03
    }
    bias_filler {
      type: "constant"
      value: 0.2
    }
  }
}
layer {
  name: "inception_4b/relu_5x5"
  type: "ReLU"
  bottom: "inception_4b/5x5"
  top: "inception_4b/5x5"
}
layer {
  name: "inception_4b/pool"
  type: "Pooling"
  bottom: "inception_4a/output"
  top: "inception_4b/pool"
  pooling_param {
    pool: MAX
    kernel_size: 3
    stride: 1
    pad: 1
  }
}
layer {
  name: "inception_4b/pool_proj"
  type: "Convolution"
  bottom: "inception_4b/pool"
  top: "inception_4b/pool_proj"
  param {
    lr_mult: 1
    decay_mult: 1
  }
  param {
    lr_mult: 2
    decay_mult: 0
  }
  convolution_param {
    num_output: 64
    kernel_size: 1
    weight_filler {
      type: "xavier"
      std: 0.1
    }
    bias_filler {
      type: "constant"
      value: 0.2
    }
  }
}
layer {
  name: "inception_4b/relu_pool_proj"
  type: "ReLU"
  bottom: "inception_4b/pool_proj"
  top: "inception_4b/pool_proj"
}
layer {
  name: "inception_4b/output"
  type: "Concat"
  bottom: "inception_4b/1x1"
  bottom: "inception_4b/3x3"
  bottom: "inception_4b/5x5"
  bottom: "inception_4b/pool_proj"
  top: "inception_4b/output"
}
layer {
  name: "inception_4c/1x1"
  type: "Convolution"
  bottom: "inception_4b/output"
  top: "inception_4c/1x1"
  param {
    lr_mult: 1
    decay_mult: 1
  }
  param {
    lr_mult: 2
    decay_mult: 0
  }
  convolution_param {
    num_output: 128
    kernel_size: 1
    weight_filler {
      type: "xavier"
      std: 0.03
    }
    bias_filler {
      type: "constant"
      value: 0.2
    }
  }
}
layer {
  name: "inception_4c/relu_1x1"
  type: "ReLU"
  bottom: "inception_4c/1x1"
  top: "inception_4c/1x1"
}
layer {
  name: "inception_4c/3x3_reduce"
  type: "Convolution"
  bottom: "inception_4b/output"
  top: "inception_4c/3x3_reduce"
  param {
    lr_mult: 1
    decay_mult: 1
  }
  param {
    lr_mult: 2
    decay_mult: 0
  }
  convolution_param {
    num_output: 128
    kernel_size: 1
    weight_filler {
      type: "xavier"
      std: 0.09
    }
    bias_filler {
      type: "constant"
      value: 0.2
    }
  }
}
layer {
  name: "inception_4c/relu_3x3_reduce"
  type: "ReLU"
  bottom: "inception_4c/3x3_reduce"
  top: "inception_4c/3x3_reduce"
}
layer {
  name: "inception_4c/3x3"
  type: "Convolution"
  bottom: "inception_4c/3x3_reduce"
  top: "inception_4c/3x3"
  param {
    lr_mult: 1
    decay_mult: 1
  }
  param {
    lr_mult: 2
    decay_mult: 0
  }
  convolution_param {
    num_output: 256
    pad: 1
    kernel_size: 3
    weight_filler {
      type: "xavier"
      std: 0.03
    }
    bias_filler {
      type: "constant"
      value: 0.2
    }
  }
}
layer {
  name: "inception_4c/relu_3x3"
  type: "ReLU"
  bottom: "inception_4c/3x3"
  top: "inception_4c/3x3"
}
layer {
  name: "inception_4c/5x5_reduce"
  type: "Convolution"
  bottom: "inception_4b/output"
  top: "inception_4c/5x5_reduce"
  param {
    lr_mult: 1
    decay_mult: 1
  }
  param {
    lr_mult: 2
    decay_mult: 0
  }
  convolution_param {
    num_output: 24
    kernel_size: 1
    weight_filler {
      type: "xavier"
      std: 0.2
    }
    bias_filler {
      type: "constant"
      value: 0.2
    }
  }
}
layer {
  name: "inception_4c/relu_5x5_reduce"
  type: "ReLU"
  bottom: "inception_4c/5x5_reduce"
  top: "inception_4c/5x5_reduce"
}
layer {
  name: "inception_4c/5x5"
  type: "Convolution"
  bottom: "inception_4c/5x5_reduce"
  top: "inception_4c/5x5"
  param {
    lr_mult: 1
    decay_mult: 1
  }
  param {
    lr_mult: 2
    decay_mult: 0
  }
  convolution_param {
    num_output: 64
    pad: 2
    kernel_size: 5
    weight_filler {
      type: "xavier"
      std: 0.03
    }
    bias_filler {
      type: "constant"
      value: 0.2
    }
  }
}
layer {
  name: "inception_4c/relu_5x5"
  type: "ReLU"
  bottom: "inception_4c/5x5"
  top: "inception_4c/5x5"
}
layer {
  name: "inception_4c/pool"
  type: "Pooling"
  bottom: "inception_4b/output"
  top: "inception_4c/pool"
  pooling_param {
    pool: MAX
    kernel_size: 3
    stride: 1
    pad: 1
  }
}
layer {
  name: "inception_4c/pool_proj"
  type: "Convolution"
  bottom: "inception_4c/pool"
  top: "inception_4c/pool_proj"
  param {
    lr_mult: 1
    decay_mult: 1
  }
  param {
    lr_mult: 2
    decay_mult: 0
  }
  convolution_param {
    num_output: 64
    kernel_size: 1
    weight_filler {
      type: "xavier"
      std: 0.1
    }
    bias_filler {
      type: "constant"
      value: 0.2
    }
  }
}
layer {
  name: "inception_4c/relu_pool_proj"
  type: "ReLU"
  bottom: "inception_4c/pool_proj"
  top: "inception_4c/pool_proj"
}
layer {
  name: "inception_4c/output"
  type: "Concat"
  bottom: "inception_4c/1x1"
  bottom: "inception_4c/3x3"
  bottom: "inception_4c/5x5"
  bottom: "inception_4c/pool_proj"
  top: "inception_4c/output"
}
layer {
  name: "inception_4d/1x1"
  type: "Convolution"
  bottom: "inception_4c/output"
  top: "inception_4d/1x1"
  param {
    lr_mult: 1
    decay_mult: 1
  }
  param {
    lr_mult: 2
    decay_mult: 0
  }
  convolution_param {
    num_output: 112
    kernel_size: 1
    weight_filler {
      type: "xavier"
      std: 0.03
    }
    bias_filler {
      type: "constant"
      value: 0.2
    }
  }
}
layer {
  name: "inception_4d/relu_1x1"
  type: "ReLU"
  bottom: "inception_4d/1x1"
  top: "inception_4d/1x1"
}
layer {
  name: "inception_4d/3x3_reduce"
  type: "Convolution"
  bottom: "inception_4c/output"
  top: "inception_4d/3x3_reduce"
  param {
    lr_mult: 1
    decay_mult: 1
  }
  param {
    lr_mult: 2
    decay_mult: 0
  }
  convolution_param {
    num_output: 144
    kernel_size: 1
    weight_filler {
      type: "xavier"
      std: 0.09
    }
    bias_filler {
      type: "constant"
      value: 0.2
    }
  }
}
layer {
  name: "inception_4d/relu_3x3_reduce"
  type: "ReLU"
  bottom: "inception_4d/3x3_reduce"
  top: "inception_4d/3x3_reduce"
}
layer {
  name: "inception_4d/3x3"
  type: "Convolution"
  bottom: "inception_4d/3x3_reduce"
  top: "inception_4d/3x3"
  param {
    lr_mult: 1
    decay_mult: 1
  }
  param {
    lr_mult: 2
    decay_mult: 0
  }
  convolution_param {
    num_output: 288
    pad: 1
    kernel_size: 3
    weight_filler {
      type: "xavier"
      std: 0.03
    }
    bias_filler {
      type: "constant"
      value: 0.2
    }
  }
}
layer {
  name: "inception_4d/relu_3x3"
  type: "ReLU"
  bottom: "inception_4d/3x3"
  top: "inception_4d/3x3"
}
layer {
  name: "inception_4d/5x5_reduce"
  type: "Convolution"
  bottom: "inception_4c/output"
  top: "inception_4d/5x5_reduce"
  param {
    lr_mult: 1
    decay_mult: 1
  }
  param {
    lr_mult: 2
    decay_mult: 0
  }
  convolution_param {
    num_output: 32
    kernel_size: 1
    weight_filler {
      type: "xavier"
      std: 0.2
    }
    bias_filler {
      type: "constant"
      value: 0.2
    }
  }
}
layer {
  name: "inception_4d/relu_5x5_reduce"
  type: "ReLU"
  bottom: "inception_4d/5x5_reduce"
  top: "inception_4d/5x5_reduce"
}
layer {
  name: "inception_4d/5x5"
  type: "Convolution"
  bottom: "inception_4d/5x5_reduce"
  top: "inception_4d/5x5"
  param {
    lr_mult: 1
    decay_mult: 1
  }
  param {
    lr_mult: 2
    decay_mult: 0
  }
  convolution_param {
    num_output: 64
    pad: 2
    kernel_size: 5
    weight_filler {
      type: "xavier"
      std: 0.03
    }
    bias_filler {
      type: "constant"
      value: 0.2
    }
  }
}
layer {
  name: "inception_4d/relu_5x5"
  type: "ReLU"
  bottom: "inception_4d/5x5"
  top: "inception_4d/5x5"
}
layer {
  name: "inception_4d/pool"
  type: "Pooling"
  bottom: "inception_4c/output"
  top: "inception_4d/pool"
  pooling_param {
    pool: MAX
    kernel_size: 3
    stride: 1
    pad: 1
  }
}
layer {
  name: "inception_4d/pool_proj"
  type: "Convolution"
  bottom: "inception_4d/pool"
  top: "inception_4d/pool_proj"
  param {
    lr_mult: 1
    decay_mult: 1
  }
  param {
    lr_mult: 2
    decay_mult: 0
  }
  convolution_param {
    num_output: 64
    kernel_size: 1
    weight_filler {
      type: "xavier"
      std: 0.1
    }
    bias_filler {
      type: "constant"
      value: 0.2
    }
  }
}
layer {
  name: "inception_4d/relu_pool_proj"
  type: "ReLU"
  bottom: "inception_4d/pool_proj"
  top: "inception_4d/pool_proj"
}
layer {
  name: "inception_4d/output"
  type: "Concat"
  bottom: "inception_4d/1x1"
  bottom: "inception_4d/3x3"
  bottom: "inception_4d/5x5"
  bottom: "inception_4d/pool_proj"
  top: "inception_4d/output"
}
layer {
  name: "loss2/ave_pool"
  type: "Pooling"
  bottom: "inception_4d/output"
  top: "loss2/ave_pool"
  pooling_param {
    pool: AVE
    kernel_size: 5
    stride: 3
  }
}
layer {
  name: "loss2/conv"
  type: "Convolution"
  bottom: "loss2/ave_pool"
  top: "loss2/conv"
  param {
    lr_mult: 1
    decay_mult: 1
  }
  param {
    lr_mult: 2
    decay_mult: 0
  }
  convolution_param {
    num_output: 128
    kernel_size: 1
    weight_filler {
      type: "xavier"
      std: 0.08
    }
    bias_filler {
      type: "constant"
      value: 0.2
    }
  }
}
layer {
  name: "loss2/relu_conv"
  type: "ReLU"
  bottom: "loss2/conv"
  top: "loss2/conv"
}
layer {
  name: "loss2/fc"
  type: "InnerProduct"
  bottom: "loss2/conv"
  top: "loss2/fc"
  param {
    lr_mult: 1
    decay_mult: 1
  }
  param {
    lr_mult: 2
    decay_mult: 0
  }
  inner_product_param {
    num_output: 1024
    weight_filler {
      type: "xavier"
      std: 0.02
    }
    bias_filler {
      type: "constant"
      value: 0.2
    }
  }
}
layer {
  name: "loss2/relu_fc"
  type: "ReLU"
  bottom: "loss2/fc"
  top: "loss2/fc"
}
layer {
  name: "loss2/drop_fc"
  type: "Dropout"
  bottom: "loss2/fc"
  top: "loss2/fc"
  dropout_param {
    dropout_ratio: 0.7
  }
}
layer {
  name: "loss2/classifier_plantvillage"
  type: "InnerProduct"
  bottom: "loss2/fc"
  top: "loss2/classifier_plantvillage"
  param {
    lr_mult: 1
    decay_mult: 1
  }
  param {
    lr_mult: 2
    decay_mult: 0
  }
  inner_product_param {
    num_output: 38
    weight_filler {
      type: "xavier"
      std: 0.0009765625
    }
    bias_filler {
      type: "constant"
      value: 0
    }
  }
}
layer {
  name: "inception_4e/1x1"
  type: "Convolution"
  bottom: "inception_4d/output"
  top: "inception_4e/1x1"
  param {
    lr_mult: 1
    decay_mult: 1
  }
  param {
    lr_mult: 2
    decay_mult: 0
  }
  convolution_param {
    num_output: 256
    kernel_size: 1
    weight_filler {
      type: "xavier"
      std: 0.03
    }
    bias_filler {
      type: "constant"
      value: 0.2
    }
  }
}
layer {
  name: "inception_4e/relu_1x1"
  type: "ReLU"
  bottom: "inception_4e/1x1"
  top: "inception_4e/1x1"
}
layer {
  name: "inception_4e/3x3_reduce"
  type: "Convolution"
  bottom: "inception_4d/output"
  top: "inception_4e/3x3_reduce"
  param {
    lr_mult: 1
    decay_mult: 1
  }
  param {
    lr_mult: 2
    decay_mult: 0
  }
  convolution_param {
    num_output: 160
    kernel_size: 1
    weight_filler {
      type: "xavier"
      std: 0.09
    }
    bias_filler {
      type: "constant"
      value: 0.2
    }
  }
}
layer {
  name: "inception_4e/relu_3x3_reduce"
  type: "ReLU"
  bottom: "inception_4e/3x3_reduce"
  top: "inception_4e/3x3_reduce"
}
layer {
  name: "inception_4e/3x3"
  type: "Convolution"
  bottom: "inception_4e/3x3_reduce"
  top: "inception_4e/3x3"
  param {
    lr_mult: 1
    decay_mult: 1
  }
  param {
    lr_mult: 2
    decay_mult: 0
  }
  convolution_param {
    num_output: 320
    pad: 1
    kernel_size: 3
    weight_filler {
      type: "xavier"
      std: 0.03
    }
    bias_filler {
      type: "constant"
      value: 0.2
    }
  }
}
layer {
  name: "inception_4e/relu_3x3"
  type: "ReLU"
  bottom: "inception_4e/3x3"
  top: "inception_4e/3x3"
}
layer {
  name: "inception_4e/5x5_reduce"
  type: "Convolution"
  bottom: "inception_4d/output"
  top: "inception_4e/5x5_reduce"
  param {
    lr_mult: 1
    decay_mult: 1
  }
  param {
    lr_mult: 2
    decay_mult: 0
  }
  convolution_param {
    num_output: 32
    kernel_size: 1
    weight_filler {
      type: "xavier"
      std: 0.2
    }
    bias_filler {
      type: "constant"
      value: 0.2
    }
  }
}
layer {
  name: "inception_4e/relu_5x5_reduce"
  type: "ReLU"
  bottom: "inception_4e/5x5_reduce"
  top: "inception_4e/5x5_reduce"
}
layer {
  name: "inception_4e/5x5"
  type: "Convolution"
  bottom: "inception_4e/5x5_reduce"
  top: "inception_4e/5x5"
  p
I0403 16:25:36.246399 18203 layer_factory.hpp:77] Creating layer data
I0403 16:25:36.246989 18203 net.cpp:91] Creating Layer data
I0403 16:25:36.247021 18203 net.cpp:399] data -> data
I0403 16:25:36.247072 18203 net.cpp:399] data -> label
I0403 16:25:36.247108 18203 data_transformer.cpp:25] Loading mean file from: /home/mohanty/data/final_dataset/lmdb/color-20-80/mean.binaryproto
I0403 16:25:36.248317 18205 db_lmdb.cpp:38] Opened lmdb /home/mohanty/data/final_dataset/lmdb/color-20-80/test_db
I0403 16:25:36.260165 18203 data_layer.cpp:41] output data size: 24,3,224,224
I0403 16:25:36.286609 18203 net.cpp:141] Setting up data
I0403 16:25:36.286684 18203 net.cpp:148] Top shape: 24 3 224 224 (3612672)
I0403 16:25:36.286708 18203 net.cpp:148] Top shape: 24 (24)
I0403 16:25:36.286723 18203 net.cpp:156] Memory required for data: 14450784
I0403 16:25:36.286751 18203 layer_factory.hpp:77] Creating layer label_data_1_split
I0403 16:25:36.286778 18203 net.cpp:91] Creating Layer label_data_1_split
I0403 16:25:36.286798 18203 net.cpp:425] label_data_1_split <- label
I0403 16:25:36.286842 18203 net.cpp:399] label_data_1_split -> label_data_1_split_0
I0403 16:25:36.286870 18203 net.cpp:399] label_data_1_split -> label_data_1_split_1
I0403 16:25:36.286890 18203 net.cpp:399] label_data_1_split -> label_data_1_split_2
I0403 16:25:36.286912 18203 net.cpp:399] label_data_1_split -> label_data_1_split_3
I0403 16:25:36.286932 18203 net.cpp:399] label_data_1_split -> label_data_1_split_4
I0403 16:25:36.286953 18203 net.cpp:399] label_data_1_split -> label_data_1_split_5
I0403 16:25:36.286972 18203 net.cpp:399] label_data_1_split -> label_data_1_split_6
I0403 16:25:36.286993 18203 net.cpp:399] label_data_1_split -> label_data_1_split_7
I0403 16:25:36.287012 18203 net.cpp:399] label_data_1_split -> label_data_1_split_8
I0403 16:25:36.287034 18203 net.cpp:399] label_data_1_split -> label_data_1_split_9
I0403 16:25:36.287148 18203 net.cpp:141] Setting up label_data_1_split
I0403 16:25:36.287171 18203 net.cpp:148] Top shape: 24 (24)
I0403 16:25:36.287189 18203 net.cpp:148] Top shape: 24 (24)
I0403 16:25:36.287204 18203 net.cpp:148] Top shape: 24 (24)
I0403 16:25:36.287219 18203 net.cpp:148] Top shape: 24 (24)
I0403 16:25:36.287233 18203 net.cpp:148] Top shape: 24 (24)
I0403 16:25:36.287250 18203 net.cpp:148] Top shape: 24 (24)
I0403 16:25:36.287264 18203 net.cpp:148] Top shape: 24 (24)
I0403 16:25:36.287281 18203 net.cpp:148] Top shape: 24 (24)
I0403 16:25:36.287295 18203 net.cpp:148] Top shape: 24 (24)
I0403 16:25:36.287312 18203 net.cpp:148] Top shape: 24 (24)
I0403 16:25:36.287355 18203 net.cpp:156] Memory required for data: 14451744
I0403 16:25:36.287371 18203 layer_factory.hpp:77] Creating layer conv1/7x7_s2
I0403 16:25:36.287405 18203 net.cpp:91] Creating Layer conv1/7x7_s2
I0403 16:25:36.287425 18203 net.cpp:425] conv1/7x7_s2 <- data
I0403 16:25:36.287446 18203 net.cpp:399] conv1/7x7_s2 -> conv1/7x7_s2
I0403 16:25:36.423677 18203 net.cpp:141] Setting up conv1/7x7_s2
I0403 16:25:36.423753 18203 net.cpp:148] Top shape: 24 64 112 112 (19267584)
I0403 16:25:36.423773 18203 net.cpp:156] Memory required for data: 91522080
I0403 16:25:36.423804 18203 layer_factory.hpp:77] Creating layer conv1/relu_7x7
I0403 16:25:36.423830 18203 net.cpp:91] Creating Layer conv1/relu_7x7
I0403 16:25:36.423849 18203 net.cpp:425] conv1/relu_7x7 <- conv1/7x7_s2
I0403 16:25:36.423868 18203 net.cpp:386] conv1/relu_7x7 -> conv1/7x7_s2 (in-place)
I0403 16:25:36.424118 18203 net.cpp:141] Setting up conv1/relu_7x7
I0403 16:25:36.424146 18203 net.cpp:148] Top shape: 24 64 112 112 (19267584)
I0403 16:25:36.424162 18203 net.cpp:156] Memory required for data: 168592416
I0403 16:25:36.424177 18203 layer_factory.hpp:77] Creating layer pool1/3x3_s2
I0403 16:25:36.424202 18203 net.cpp:91] Creating Layer pool1/3x3_s2
I0403 16:25:36.424221 18203 net.cpp:425] pool1/3x3_s2 <- conv1/7x7_s2
I0403 16:25:36.424238 18203 net.cpp:399] pool1/3x3_s2 -> pool1/3x3_s2
I0403 16:25:36.424311 18203 net.cpp:141] Setting up pool1/3x3_s2
I0403 16:25:36.424335 18203 net.cpp:148] Top shape: 24 64 56 56 (4816896)
I0403 16:25:36.424350 18203 net.cpp:156] Memory required for data: 187860000
I0403 16:25:36.424366 18203 layer_factory.hpp:77] Creating layer pool1/norm1
I0403 16:25:36.424391 18203 net.cpp:91] Creating Layer pool1/norm1
I0403 16:25:36.424407 18203 net.cpp:425] pool1/norm1 <- pool1/3x3_s2
I0403 16:25:36.424425 18203 net.cpp:399] pool1/norm1 -> pool1/norm1
I0403 16:25:36.424707 18203 net.cpp:141] Setting up pool1/norm1
I0403 16:25:36.424736 18203 net.cpp:148] Top shape: 24 64 56 56 (4816896)
I0403 16:25:36.424751 18203 net.cpp:156] Memory required for data: 207127584
I0403 16:25:36.424767 18203 layer_factory.hpp:77] Creating layer conv2/3x3_reduce
I0403 16:25:36.424793 18203 net.cpp:91] Creating Layer conv2/3x3_reduce
I0403 16:25:36.424808 18203 net.cpp:425] conv2/3x3_reduce <- pool1/norm1
I0403 16:25:36.424826 18203 net.cpp:399] conv2/3x3_reduce -> conv2/3x3_reduce
I0403 16:25:36.426210 18203 net.cpp:141] Setting up conv2/3x3_reduce
I0403 16:25:36.426240 18203 net.cpp:148] Top shape: 24 64 56 56 (4816896)
I0403 16:25:36.426257 18203 net.cpp:156] Memory required for data: 226395168
I0403 16:25:36.426278 18203 layer_factory.hpp:77] Creating layer conv2/relu_3x3_reduce
I0403 16:25:36.426298 18203 net.cpp:91] Creating Layer conv2/relu_3x3_reduce
I0403 16:25:36.426316 18203 net.cpp:425] conv2/relu_3x3_reduce <- conv2/3x3_reduce
I0403 16:25:36.426333 18203 net.cpp:386] conv2/relu_3x3_reduce -> conv2/3x3_reduce (in-place)
I0403 16:25:36.426643 18203 net.cpp:141] Setting up conv2/relu_3x3_reduce
I0403 16:25:36.426671 18203 net.cpp:148] Top shape: 24 64 56 56 (4816896)
I0403 16:25:36.426687 18203 net.cpp:156] Memory required for data: 245662752
I0403 16:25:36.426702 18203 layer_factory.hpp:77] Creating layer conv2/3x3
I0403 16:25:36.426726 18203 net.cpp:91] Creating Layer conv2/3x3
I0403 16:25:36.426744 18203 net.cpp:425] conv2/3x3 <- conv2/3x3_reduce
I0403 16:25:36.426765 18203 net.cpp:399] conv2/3x3 -> conv2/3x3
I0403 16:25:36.429054 18203 net.cpp:141] Setting up conv2/3x3
I0403 16:25:36.429085 18203 net.cpp:148] Top shape: 24 192 56 56 (14450688)
I0403 16:25:36.429101 18203 net.cpp:156] Memory required for data: 303465504
I0403 16:25:36.429126 18203 layer_factory.hpp:77] Creating layer conv2/relu_3x3
I0403 16:25:36.429146 18203 net.cpp:91] Creating Layer conv2/relu_3x3
I0403 16:25:36.429162 18203 net.cpp:425] conv2/relu_3x3 <- conv2/3x3
I0403 16:25:36.429179 18203 net.cpp:386] conv2/relu_3x3 -> conv2/3x3 (in-place)
I0403 16:25:36.429353 18203 net.cpp:141] Setting up conv2/relu_3x3
I0403 16:25:36.429381 18203 net.cpp:148] Top shape: 24 192 56 56 (14450688)
I0403 16:25:36.429425 18203 net.cpp:156] Memory required for data: 361268256
I0403 16:25:36.429442 18203 layer_factory.hpp:77] Creating layer conv2/norm2
I0403 16:25:36.429461 18203 net.cpp:91] Creating Layer conv2/norm2
I0403 16:25:36.429476 18203 net.cpp:425] conv2/norm2 <- conv2/3x3
I0403 16:25:36.429496 18203 net.cpp:399] conv2/norm2 -> conv2/norm2
I0403 16:25:36.429802 18203 net.cpp:141] Setting up conv2/norm2
I0403 16:25:36.429831 18203 net.cpp:148] Top shape: 24 192 56 56 (14450688)
I0403 16:25:36.429846 18203 net.cpp:156] Memory required for data: 419071008
I0403 16:25:36.429862 18203 layer_factory.hpp:77] Creating layer pool2/3x3_s2
I0403 16:25:36.429878 18203 net.cpp:91] Creating Layer pool2/3x3_s2
I0403 16:25:36.429893 18203 net.cpp:425] pool2/3x3_s2 <- conv2/norm2
I0403 16:25:36.429913 18203 net.cpp:399] pool2/3x3_s2 -> pool2/3x3_s2
I0403 16:25:36.429970 18203 net.cpp:141] Setting up pool2/3x3_s2
I0403 16:25:36.429996 18203 net.cpp:148] Top shape: 24 192 28 28 (3612672)
I0403 16:25:36.430011 18203 net.cpp:156] Memory required for data: 433521696
I0403 16:25:36.430027 18203 layer_factory.hpp:77] Creating layer pool2/3x3_s2_pool2/3x3_s2_0_split
I0403 16:25:36.430043 18203 net.cpp:91] Creating Layer pool2/3x3_s2_pool2/3x3_s2_0_split
I0403 16:25:36.430058 18203 net.cpp:425] pool2/3x3_s2_pool2/3x3_s2_0_split <- pool2/3x3_s2
I0403 16:25:36.430075 18203 net.cpp:399] pool2/3x3_s2_pool2/3x3_s2_0_split -> pool2/3x3_s2_pool2/3x3_s2_0_split_0
I0403 16:25:36.430122 18203 net.cpp:399] pool2/3x3_s2_pool2/3x3_s2_0_split -> pool2/3x3_s2_pool2/3x3_s2_0_split_1
I0403 16:25:36.430150 18203 net.cpp:399] pool2/3x3_s2_pool2/3x3_s2_0_split -> pool2/3x3_s2_pool2/3x3_s2_0_split_2
I0403 16:25:36.430169 18203 net.cpp:399] pool2/3x3_s2_pool2/3x3_s2_0_split -> pool2/3x3_s2_pool2/3x3_s2_0_split_3
I0403 16:25:36.430243 18203 net.cpp:141] Setting up pool2/3x3_s2_pool2/3x3_s2_0_split
I0403 16:25:36.430268 18203 net.cpp:148] Top shape: 24 192 28 28 (3612672)
I0403 16:25:36.430284 18203 net.cpp:148] Top shape: 24 192 28 28 (3612672)
I0403 16:25:36.430299 18203 net.cpp:148] Top shape: 24 192 28 28 (3612672)
I0403 16:25:36.430313 18203 net.cpp:148] Top shape: 24 192 28 28 (3612672)
I0403 16:25:36.430326 18203 net.cpp:156] Memory required for data: 491324448
I0403 16:25:36.430341 18203 layer_factory.hpp:77] Creating layer inception_3a/1x1
I0403 16:25:36.430366 18203 net.cpp:91] Creating Layer inception_3a/1x1
I0403 16:25:36.430382 18203 net.cpp:425] inception_3a/1x1 <- pool2/3x3_s2_pool2/3x3_s2_0_split_0
I0403 16:25:36.430402 18203 net.cpp:399] inception_3a/1x1 -> inception_3a/1x1
I0403 16:25:36.431941 18203 net.cpp:141] Setting up inception_3a/1x1
I0403 16:25:36.431970 18203 net.cpp:148] Top shape: 24 64 28 28 (1204224)
I0403 16:25:36.431988 18203 net.cpp:156] Memory required for data: 496141344
I0403 16:25:36.432006 18203 layer_factory.hpp:77] Creating layer inception_3a/relu_1x1
I0403 16:25:36.432027 18203 net.cpp:91] Creating Layer inception_3a/relu_1x1
I0403 16:25:36.432046 18203 net.cpp:425] inception_3a/relu_1x1 <- inception_3a/1x1
I0403 16:25:36.432065 18203 net.cpp:386] inception_3a/relu_1x1 -> inception_3a/1x1 (in-place)
I0403 16:25:36.432235 18203 net.cpp:141] Setting up inception_3a/relu_1x1
I0403 16:25:36.432262 18203 net.cpp:148] Top shape: 24 64 28 28 (1204224)
I0403 16:25:36.432278 18203 net.cpp:156] Memory required for data: 500958240
I0403 16:25:36.432293 18203 layer_factory.hpp:77] Creating layer inception_3a/3x3_reduce
I0403 16:25:36.432313 18203 net.cpp:91] Creating Layer inception_3a/3x3_reduce
I0403 16:25:36.432330 18203 net.cpp:425] inception_3a/3x3_reduce <- pool2/3x3_s2_pool2/3x3_s2_0_split_1
I0403 16:25:36.432351 18203 net.cpp:399] inception_3a/3x3_reduce -> inception_3a/3x3_reduce
I0403 16:25:36.434022 18203 net.cpp:141] Setting up inception_3a/3x3_reduce
I0403 16:25:36.434051 18203 net.cpp:148] Top shape: 24 96 28 28 (1806336)
I0403 16:25:36.434067 18203 net.cpp:156] Memory required for data: 508183584
I0403 16:25:36.434092 18203 layer_factory.hpp:77] Creating layer inception_3a/relu_3x3_reduce
I0403 16:25:36.434125 18203 net.cpp:91] Creating Layer inception_3a/relu_3x3_reduce
I0403 16:25:36.434144 18203 net.cpp:425] inception_3a/relu_3x3_reduce <- inception_3a/3x3_reduce
I0403 16:25:36.434162 18203 net.cpp:386] inception_3a/relu_3x3_reduce -> inception_3a/3x3_reduce (in-place)
I0403 16:25:36.434337 18203 net.cpp:141] Setting up inception_3a/relu_3x3_reduce
I0403 16:25:36.434362 18203 net.cpp:148] Top shape: 24 96 28 28 (1806336)
I0403 16:25:36.434377 18203 net.cpp:156] Memory required for data: 515408928
I0403 16:25:36.434392 18203 layer_factory.hpp:77] Creating layer inception_3a/3x3
I0403 16:25:36.434414 18203 net.cpp:91] Creating Layer inception_3a/3x3
I0403 16:25:36.434432 18203 net.cpp:425] inception_3a/3x3 <- inception_3a/3x3_reduce
I0403 16:25:36.434453 18203 net.cpp:399] inception_3a/3x3 -> inception_3a/3x3
I0403 16:25:36.436038 18203 net.cpp:141] Setting up inception_3a/3x3
I0403 16:25:36.436067 18203 net.cpp:148] Top shape: 24 128 28 28 (2408448)
I0403 16:25:36.436084 18203 net.cpp:156] Memory required for data: 525042720
I0403 16:25:36.436102 18203 layer_factory.hpp:77] Creating layer inception_3a/relu_3x3
I0403 16:25:36.436125 18203 net.cpp:91] Creating Layer inception_3a/relu_3x3
I0403 16:25:36.436142 18203 net.cpp:425] inception_3a/relu_3x3 <- inception_3a/3x3
I0403 16:25:36.436159 18203 net.cpp:386] inception_3a/relu_3x3 -> inception_3a/3x3 (in-place)
I0403 16:25:36.436429 18203 net.cpp:141] Setting up inception_3a/relu_3x3
I0403 16:25:36.436455 18203 net.cpp:148] Top shape: 24 128 28 28 (2408448)
I0403 16:25:36.436471 18203 net.cpp:156] Memory required for data: 534676512
I0403 16:25:36.436486 18203 layer_factory.hpp:77] Creating layer inception_3a/5x5_reduce
I0403 16:25:36.436508 18203 net.cpp:91] Creating Layer inception_3a/5x5_reduce
I0403 16:25:36.436525 18203 net.cpp:425] inception_3a/5x5_reduce <- pool2/3x3_s2_pool2/3x3_s2_0_split_2
I0403 16:25:36.436544 18203 net.cpp:399] inception_3a/5x5_reduce -> inception_3a/5x5_reduce
I0403 16:25:36.437469 18203 net.cpp:141] Setting up inception_3a/5x5_reduce
I0403 16:25:36.437508 18203 net.cpp:148] Top shape: 24 16 28 28 (301056)
I0403 16:25:36.437525 18203 net.cpp:156] Memory required for data: 535880736
I0403 16:25:36.437543 18203 layer_factory.hpp:77] Creating layer inception_3a/relu_5x5_reduce
I0403 16:25:36.437564 18203 net.cpp:91] Creating Layer inception_3a/relu_5x5_reduce
I0403 16:25:36.437587 18203 net.cpp:425] inception_3a/relu_5x5_reduce <- inception_3a/5x5_reduce
I0403 16:25:36.437605 18203 net.cpp:386] inception_3a/relu_5x5_reduce -> inception_3a/5x5_reduce (in-place)
I0403 16:25:36.437903 18203 net.cpp:141] Setting up inception_3a/relu_5x5_reduce
I0403 16:25:36.437932 18203 net.cpp:148] Top shape: 24 16 28 28 (301056)
I0403 16:25:36.437949 18203 net.cpp:156] Memory required for data: 537084960
I0403 16:25:36.437963 18203 layer_factory.hpp:77] Creating layer inception_3a/5x5
I0403 16:25:36.437985 18203 net.cpp:91] Creating Layer inception_3a/5x5
I0403 16:25:36.438002 18203 net.cpp:425] inception_3a/5x5 <- inception_3a/5x5_reduce
I0403 16:25:36.438021 18203 net.cpp:399] inception_3a/5x5 -> inception_3a/5x5
I0403 16:25:36.439000 18203 net.cpp:141] Setting up inception_3a/5x5
I0403 16:25:36.439029 18203 net.cpp:148] Top shape: 24 32 28 28 (602112)
I0403 16:25:36.439045 18203 net.cpp:156] Memory required for data: 539493408
I0403 16:25:36.439062 18203 layer_factory.hpp:77] Creating layer inception_3a/relu_5x5
I0403 16:25:36.439084 18203 net.cpp:91] Creating Layer inception_3a/relu_5x5
I0403 16:25:36.439100 18203 net.cpp:425] inception_3a/relu_5x5 <- inception_3a/5x5
I0403 16:25:36.439117 18203 net.cpp:386] inception_3a/relu_5x5 -> inception_3a/5x5 (in-place)
I0403 16:25:36.439285 18203 net.cpp:141] Setting up inception_3a/relu_5x5
I0403 16:25:36.439314 18203 net.cpp:148] Top shape: 24 32 28 28 (602112)
I0403 16:25:36.439330 18203 net.cpp:156] Memory required for data: 541901856
I0403 16:25:36.439344 18203 layer_factory.hpp:77] Creating layer inception_3a/pool
I0403 16:25:36.439363 18203 net.cpp:91] Creating Layer inception_3a/pool
I0403 16:25:36.439376 18203 net.cpp:425] inception_3a/pool <- pool2/3x3_s2_pool2/3x3_s2_0_split_3
I0403 16:25:36.439409 18203 net.cpp:399] inception_3a/pool -> inception_3a/pool
I0403 16:25:36.439467 18203 net.cpp:141] Setting up inception_3a/pool
I0403 16:25:36.439491 18203 net.cpp:148] Top shape: 24 192 28 28 (3612672)
I0403 16:25:36.439505 18203 net.cpp:156] Memory required for data: 556352544
I0403 16:25:36.439519 18203 layer_factory.hpp:77] Creating layer inception_3a/pool_proj
I0403 16:25:36.439540 18203 net.cpp:91] Creating Layer inception_3a/pool_proj
I0403 16:25:36.439559 18203 net.cpp:425] inception_3a/pool_proj <- inception_3a/pool
I0403 16:25:36.439587 18203 net.cpp:399] inception_3a/pool_proj -> inception_3a/pool_proj
I0403 16:25:36.440507 18203 net.cpp:141] Setting up inception_3a/pool_proj
I0403 16:25:36.440536 18203 net.cpp:148] Top shape: 24 32 28 28 (602112)
I0403 16:25:36.440551 18203 net.cpp:156] Memory required for data: 558760992
I0403 16:25:36.440580 18203 layer_factory.hpp:77] Creating layer inception_3a/relu_pool_proj
I0403 16:25:36.440618 18203 net.cpp:91] Creating Layer inception_3a/relu_pool_proj
I0403 16:25:36.440636 18203 net.cpp:425] inception_3a/relu_pool_proj <- inception_3a/pool_proj
I0403 16:25:36.440654 18203 net.cpp:386] inception_3a/relu_pool_proj -> inception_3a/pool_proj (in-place)
I0403 16:25:36.440927 18203 net.cpp:141] Setting up inception_3a/relu_pool_proj
I0403 16:25:36.440954 18203 net.cpp:148] Top shape: 24 32 28 28 (602112)
I0403 16:25:36.440970 18203 net.cpp:156] Memory required for data: 561169440
I0403 16:25:36.440985 18203 layer_factory.hpp:77] Creating layer inception_3a/output
I0403 16:25:36.441005 18203 net.cpp:91] Creating Layer inception_3a/output
I0403 16:25:36.441021 18203 net.cpp:425] inception_3a/output <- inception_3a/1x1
I0403 16:25:36.441038 18203 net.cpp:425] inception_3a/output <- inception_3a/3x3
I0403 16:25:36.441054 18203 net.cpp:425] inception_3a/output <- inception_3a/5x5
I0403 16:25:36.441071 18203 net.cpp:425] inception_3a/output <- inception_3a/pool_proj
I0403 16:25:36.441087 18203 net.cpp:399] inception_3a/output -> inception_3a/output
I0403 16:25:36.441135 18203 net.cpp:141] Setting up inception_3a/output
I0403 16:25:36.441159 18203 net.cpp:148] Top shape: 24 256 28 28 (4816896)
I0403 16:25:36.441174 18203 net.cpp:156] Memory required for data: 580437024
I0403 16:25:36.441189 18203 layer_factory.hpp:77] Creating layer inception_3a/output_inception_3a/output_0_split
I0403 16:25:36.441205 18203 net.cpp:91] Creating Layer inception_3a/output_inception_3a/output_0_split
I0403 16:25:36.441220 18203 net.cpp:425] inception_3a/output_inception_3a/output_0_split <- inception_3a/output
I0403 16:25:36.441241 18203 net.cpp:399] inception_3a/output_inception_3a/output_0_split -> inception_3a/output_inception_3a/output_0_split_0
I0403 16:25:36.441262 18203 net.cpp:399] inception_3a/output_inception_3a/output_0_split -> inception_3a/output_inception_3a/output_0_split_1
I0403 16:25:36.441287 18203 net.cpp:399] inception_3a/output_inception_3a/output_0_split -> inception_3a/output_inception_3a/output_0_split_2
I0403 16:25:36.441308 18203 net.cpp:399] inception_3a/output_inception_3a/output_0_split -> inception_3a/output_inception_3a/output_0_split_3
I0403 16:25:36.441380 18203 net.cpp:141] Setting up inception_3a/output_inception_3a/output_0_split
I0403 16:25:36.441402 18203 net.cpp:148] Top shape: 24 256 28 28 (4816896)
I0403 16:25:36.441419 18203 net.cpp:148] Top shape: 24 256 28 28 (4816896)
I0403 16:25:36.441436 18203 net.cpp:148] Top shape: 24 256 28 28 (4816896)
I0403 16:25:36.441449 18203 net.cpp:148] Top shape: 24 256 28 28 (4816896)
I0403 16:25:36.441463 18203 net.cpp:156] Memory required for data: 657507360
I0403 16:25:36.441478 18203 layer_factory.hpp:77] Creating layer inception_3b/1x1
I0403 16:25:36.441500 18203 net.cpp:91] Creating Layer inception_3b/1x1
I0403 16:25:36.441519 18203 net.cpp:425] inception_3b/1x1 <- inception_3a/output_inception_3a/output_0_split_0
I0403 16:25:36.441540 18203 net.cpp:399] inception_3b/1x1 -> inception_3b/1x1
I0403 16:25:36.442662 18203 net.cpp:141] Setting up inception_3b/1x1
I0403 16:25:36.442703 18203 net.cpp:148] Top shape: 24 128 28 28 (2408448)
I0403 16:25:36.442720 18203 net.cpp:156] Memory required for data: 667141152
I0403 16:25:36.442739 18203 layer_factory.hpp:77] Creating layer inception_3b/relu_1x1
I0403 16:25:36.442760 18203 net.cpp:91] Creating Layer inception_3b/relu_1x1
I0403 16:25:36.442780 18203 net.cpp:425] inception_3b/relu_1x1 <- inception_3b/1x1
I0403 16:25:36.442797 18203 net.cpp:386] inception_3b/relu_1x1 -> inception_3b/1x1 (in-place)
I0403 16:25:36.442968 18203 net.cpp:141] Setting up inception_3b/relu_1x1
I0403 16:25:36.442993 18203 net.cpp:148] Top shape: 24 128 28 28 (2408448)
I0403 16:25:36.443008 18203 net.cpp:156] Memory required for data: 676774944
I0403 16:25:36.443023 18203 layer_factory.hpp:77] Creating layer inception_3b/3x3_reduce
I0403 16:25:36.443047 18203 net.cpp:91] Creating Layer inception_3b/3x3_reduce
I0403 16:25:36.443066 18203 net.cpp:425] inception_3b/3x3_reduce <- inception_3a/output_inception_3a/output_0_split_1
I0403 16:25:36.443086 18203 net.cpp:399] inception_3b/3x3_reduce -> inception_3b/3x3_reduce
I0403 16:25:36.444200 18203 net.cpp:141] Setting up inception_3b/3x3_reduce
I0403 16:25:36.444228 18203 net.cpp:148] Top shape: 24 128 28 28 (2408448)
I0403 16:25:36.444244 18203 net.cpp:156] Memory required for data: 686408736
I0403 16:25:36.444262 18203 layer_factory.hpp:77] Creating layer inception_3b/relu_3x3_reduce
I0403 16:25:36.444280 18203 net.cpp:91] Creating Layer inception_3b/relu_3x3_reduce
I0403 16:25:36.444298 18203 net.cpp:425] inception_3b/relu_3x3_reduce <- inception_3b/3x3_reduce
I0403 16:25:36.444316 18203 net.cpp:386] inception_3b/relu_3x3_reduce -> inception_3b/3x3_reduce (in-place)
I0403 16:25:36.444490 18203 net.cpp:141] Setting up inception_3b/relu_3x3_reduce
I0403 16:25:36.444515 18203 net.cpp:148] Top shape: 24 128 28 28 (2408448)
I0403 16:25:36.444530 18203 net.cpp:156] Memory required for data: 696042528
I0403 16:25:36.444545 18203 layer_factory.hpp:77] Creating layer inception_3b/3x3
I0403 16:25:36.444576 18203 net.cpp:91] Creating Layer inception_3b/3x3
I0403 16:25:36.444596 18203 net.cpp:425] inception_3b/3x3 <- inception_3b/3x3_reduce
I0403 16:25:36.444617 18203 net.cpp:399] inception_3b/3x3 -> inception_3b/3x3
I0403 16:25:36.447479 18203 net.cpp:141] Setting up inception_3b/3x3
I0403 16:25:36.447509 18203 net.cpp:148] Top shape: 24 192 28 28 (3612672)
I0403 16:25:36.447525 18203 net.cpp:156] Memory required for data: 710493216
I0403 16:25:36.447545 18203 layer_factory.hpp:77] Creating layer inception_3b/relu_3x3
I0403 16:25:36.447563 18203 net.cpp:91] Creating Layer inception_3b/relu_3x3
I0403 16:25:36.447584 18203 net.cpp:425] inception_3b/relu_3x3 <- inception_3b/3x3
I0403 16:25:36.447603 18203 net.cpp:386] inception_3b/relu_3x3 -> inception_3b/3x3 (in-place)
I0403 16:25:36.447882 18203 net.cpp:141] Setting up inception_3b/relu_3x3
I0403 16:25:36.447908 18203 net.cpp:148] Top shape: 24 192 28 28 (3612672)
I0403 16:25:36.447923 18203 net.cpp:156] Memory required for data: 724943904
I0403 16:25:36.447939 18203 layer_factory.hpp:77] Creating layer inception_3b/5x5_reduce
I0403 16:25:36.447962 18203 net.cpp:91] Creating Layer inception_3b/5x5_reduce
I0403 16:25:36.447979 18203 net.cpp:425] inception_3b/5x5_reduce <- inception_3a/output_inception_3a/output_0_split_2
I0403 16:25:36.448002 18203 net.cpp:399] inception_3b/5x5_reduce -> inception_3b/5x5_reduce
I0403 16:25:36.448988 18203 net.cpp:141] Setting up inception_3b/5x5_reduce
I0403 16:25:36.449018 18203 net.cpp:148] Top shape: 24 32 28 28 (602112)
I0403 16:25:36.449033 18203 net.cpp:156] Memory required for data: 727352352
I0403 16:25:36.449051 18203 layer_factory.hpp:77] Creating layer inception_3b/relu_5x5_reduce
I0403 16:25:36.449071 18203 net.cpp:91] Creating Layer inception_3b/relu_5x5_reduce
I0403 16:25:36.449089 18203 net.cpp:425] inception_3b/relu_5x5_reduce <- inception_3b/5x5_reduce
I0403 16:25:36.449105 18203 net.cpp:386] inception_3b/relu_5x5_reduce -> inception_3b/5x5_reduce (in-place)
I0403 16:25:36.449278 18203 net.cpp:141] Setting up inception_3b/relu_5x5_reduce
I0403 16:25:36.449319 18203 net.cpp:148] Top shape: 24 32 28 28 (602112)
I0403 16:25:36.449336 18203 net.cpp:156] Memory required for data: 729760800
I0403 16:25:36.449350 18203 layer_factory.hpp:77] Creating layer inception_3b/5x5
I0403 16:25:36.449373 18203 net.cpp:91] Creating Layer inception_3b/5x5
I0403 16:25:36.449390 18203 net.cpp:425] inception_3b/5x5 <- inception_3b/5x5_reduce
I0403 16:25:36.449410 18203 net.cpp:399] inception_3b/5x5 -> inception_3b/5x5
I0403 16:25:36.451370 18203 net.cpp:141] Setting up inception_3b/5x5
I0403 16:25:36.451401 18203 net.cpp:148] Top shape: 24 96 28 28 (1806336)
I0403 16:25:36.451418 18203 net.cpp:156] Memory required for data: 736986144
I0403 16:25:36.451437 18203 layer_factory.hpp:77] Creating layer inception_3b/relu_5x5
I0403 16:25:36.451455 18203 net.cpp:91] Creating Layer inception_3b/relu_5x5
I0403 16:25:36.451472 18203 net.cpp:425] inception_3b/relu_5x5 <- inception_3b/5x5
I0403 16:25:36.451493 18203 net.cpp:386] inception_3b/relu_5x5 -> inception_3b/5x5 (in-place)
I0403 16:25:36.451690 18203 net.cpp:141] Setting up inception_3b/relu_5x5
I0403 16:25:36.451716 18203 net.cpp:148] Top shape: 24 96 28 28 (1806336)
I0403 16:25:36.451731 18203 net.cpp:156] Memory required for data: 744211488
I0403 16:25:36.451747 18203 layer_factory.hpp:77] Creating layer inception_3b/pool
I0403 16:25:36.451766 18203 net.cpp:91] Creating Layer inception_3b/pool
I0403 16:25:36.451782 18203 net.cpp:425] inception_3b/pool <- inception_3a/output_inception_3a/output_0_split_3
I0403 16:25:36.451802 18203 net.cpp:399] inception_3b/pool -> inception_3b/pool
I0403 16:25:36.451855 18203 net.cpp:141] Setting up inception_3b/pool
I0403 16:25:36.451879 18203 net.cpp:148] Top shape: 24 256 28 28 (4816896)
I0403 16:25:36.451895 18203 net.cpp:156] Memory required for data: 763479072
I0403 16:25:36.451910 18203 layer_factory.hpp:77] Creating layer inception_3b/pool_proj
I0403 16:25:36.451932 18203 net.cpp:91] Creating Layer inception_3b/pool_proj
I0403 16:25:36.451951 18203 net.cpp:425] inception_3b/pool_proj <- inception_3b/pool
I0403 16:25:36.451972 18203 net.cpp:399] inception_3b/pool_proj -> inception_3b/pool_proj
I0403 16:25:36.453052 18203 net.cpp:141] Setting up inception_3b/pool_proj
I0403 16:25:36.453083 18203 net.cpp:148] Top shape: 24 64 28 28 (1204224)
I0403 16:25:36.453099 18203 net.cpp:156] Memory required for data: 768295968
I0403 16:25:36.453119 18203 layer_factory.hpp:77] Creating layer inception_3b/relu_pool_proj
I0403 16:25:36.453136 18203 net.cpp:91] Creating Layer inception_3b/relu_pool_proj
I0403 16:25:36.453153 18203 net.cpp:425] inception_3b/relu_pool_proj <- inception_3b/pool_proj
I0403 16:25:36.453173 18203 net.cpp:386] inception_3b/relu_pool_proj -> inception_3b/pool_proj (in-place)
I0403 16:25:36.453563 18203 net.cpp:141] Setting up inception_3b/relu_pool_proj
I0403 16:25:36.453595 18203 net.cpp:148] Top shape: 24 64 28 28 (1204224)
I0403 16:25:36.453610 18203 net.cpp:156] Memory required for data: 773112864
I0403 16:25:36.453626 18203 layer_factory.hpp:77] Creating layer inception_3b/output
I0403 16:25:36.453645 18203 net.cpp:91] Creating Layer inception_3b/output
I0403 16:25:36.453663 18203 net.cpp:425] inception_3b/output <- inception_3b/1x1
I0403 16:25:36.453680 18203 net.cpp:425] inception_3b/output <- inception_3b/3x3
I0403 16:25:36.453696 18203 net.cpp:425] inception_3b/output <- inception_3b/5x5
I0403 16:25:36.453712 18203 net.cpp:425] inception_3b/output <- inception_3b/pool_proj
I0403 16:25:36.453729 18203 net.cpp:399] inception_3b/output -> inception_3b/output
I0403 16:25:36.453775 18203 net.cpp:141] Setting up inception_3b/output
I0403 16:25:36.453799 18203 net.cpp:148] Top shape: 24 480 28 28 (9031680)
I0403 16:25:36.453814 18203 net.cpp:156] Memory required for data: 809239584
I0403 16:25:36.453827 18203 layer_factory.hpp:77] Creating layer pool3/3x3_s2
I0403 16:25:36.453848 18203 net.cpp:91] Creating Layer pool3/3x3_s2
I0403 16:25:36.453866 18203 net.cpp:425] pool3/3x3_s2 <- inception_3b/output
I0403 16:25:36.453883 18203 net.cpp:399] pool3/3x3_s2 -> pool3/3x3_s2
I0403 16:25:36.453956 18203 net.cpp:141] Setting up pool3/3x3_s2
I0403 16:25:36.453982 18203 net.cpp:148] Top shape: 24 480 14 14 (2257920)
I0403 16:25:36.453997 18203 net.cpp:156] Memory required for data: 818271264
I0403 16:25:36.454012 18203 layer_factory.hpp:77] Creating layer pool3/3x3_s2_pool3/3x3_s2_0_split
I0403 16:25:36.454028 18203 net.cpp:91] Creating Layer pool3/3x3_s2_pool3/3x3_s2_0_split
I0403 16:25:36.454043 18203 net.cpp:425] pool3/3x3_s2_pool3/3x3_s2_0_split <- pool3/3x3_s2
I0403 16:25:36.454063 18203 net.cpp:399] pool3/3x3_s2_pool3/3x3_s2_0_split -> pool3/3x3_s2_pool3/3x3_s2_0_split_0
I0403 16:25:36.454084 18203 net.cpp:399] pool3/3x3_s2_pool3/3x3_s2_0_split -> pool3/3x3_s2_pool3/3x3_s2_0_split_1
I0403 16:25:36.454104 18203 net.cpp:399] pool3/3x3_s2_pool3/3x3_s2_0_split -> pool3/3x3_s2_pool3/3x3_s2_0_split_2
I0403 16:25:36.454123 18203 net.cpp:399] pool3/3x3_s2_pool3/3x3_s2_0_split -> pool3/3x3_s2_pool3/3x3_s2_0_split_3
I0403 16:25:36.454198 18203 net.cpp:141] Setting up pool3/3x3_s2_pool3/3x3_s2_0_split
I0403 16:25:36.454224 18203 net.cpp:148] Top shape: 24 480 14 14 (2257920)
I0403 16:25:36.454242 18203 net.cpp:148] Top shape: 24 480 14 14 (2257920)
I0403 16:25:36.454258 18203 net.cpp:148] Top shape: 24 480 14 14 (2257920)
I0403 16:25:36.454272 18203 net.cpp:148] Top shape: 24 480 14 14 (2257920)
I0403 16:25:36.454285 18203 net.cpp:156] Memory required for data: 854397984
I0403 16:25:36.454299 18203 layer_factory.hpp:77] Creating layer inception_4a/1x1
I0403 16:25:36.454322 18203 net.cpp:91] Creating Layer inception_4a/1x1
I0403 16:25:36.454339 18203 net.cpp:425] inception_4a/1x1 <- pool3/3x3_s2_pool3/3x3_s2_0_split_0
I0403 16:25:36.454357 18203 net.cpp:399] inception_4a/1x1 -> inception_4a/1x1
I0403 16:25:36.455927 18203 net.cpp:141] Setting up inception_4a/1x1
I0403 16:25:36.455956 18203 net.cpp:148] Top shape: 24 192 14 14 (903168)
I0403 16:25:36.455973 18203 net.cpp:156] Memory required for data: 858010656
I0403 16:25:36.455991 18203 layer_factory.hpp:77] Creating layer inception_4a/relu_1x1
I0403 16:25:36.456009 18203 net.cpp:91] Creating Layer inception_4a/relu_1x1
I0403 16:25:36.456027 18203 net.cpp:425] inception_4a/relu_1x1 <- inception_4a/1x1
I0403 16:25:36.456046 18203 net.cpp:386] inception_4a/relu_1x1 -> inception_4a/1x1 (in-place)
I0403 16:25:36.456221 18203 net.cpp:141] Setting up inception_4a/relu_1x1
I0403 16:25:36.456248 18203 net.cpp:148] Top shape: 24 192 14 14 (903168)
I0403 16:25:36.456262 18203 net.cpp:156] Memory required for data: 861623328
I0403 16:25:36.456277 18203 layer_factory.hpp:77] Creating layer inception_4a/3x3_reduce
I0403 16:25:36.456300 18203 net.cpp:91] Creating Layer inception_4a/3x3_reduce
I0403 16:25:36.456317 18203 net.cpp:425] inception_4a/3x3_reduce <- pool3/3x3_s2_pool3/3x3_s2_0_split_1
I0403 16:25:36.456337 18203 net.cpp:399] inception_4a/3x3_reduce -> inception_4a/3x3_reduce
I0403 16:25:36.457604 18203 net.cpp:141] Setting up inception_4a/3x3_reduce
I0403 16:25:36.457638 18203 net.cpp:148] Top shape: 24 96 14 14 (451584)
I0403 16:25:36.457655 18203 net.cpp:156] Memory required for data: 863429664
I0403 16:25:36.457681 18203 layer_factory.hpp:77] Creating layer inception_4a/relu_3x3_reduce
I0403 16:25:36.457702 18203 net.cpp:91] Creating Layer inception_4a/relu_3x3_reduce
I0403 16:25:36.457718 18203 net.cpp:425] inception_4a/relu_3x3_reduce <- inception_4a/3x3_reduce
I0403 16:25:36.457736 18203 net.cpp:386] inception_4a/relu_3x3_reduce -> inception_4a/3x3_reduce (in-place)
I0403 16:25:36.457911 18203 net.cpp:141] Setting up inception_4a/relu_3x3_reduce
I0403 16:25:36.457937 18203 net.cpp:148] Top shape: 24 96 14 14 (451584)
I0403 16:25:36.457953 18203 net.cpp:156] Memory required for data: 865236000
I0403 16:25:36.457969 18203 layer_factory.hpp:77] Creating layer inception_4a/3x3
I0403 16:25:36.457993 18203 net.cpp:91] Creating Layer inception_4a/3x3
I0403 16:25:36.458010 18203 net.cpp:425] inception_4a/3x3 <- inception_4a/3x3_reduce
I0403 16:25:36.458031 18203 net.cpp:399] inception_4a/3x3 -> inception_4a/3x3
I0403 16:25:36.460674 18203 net.cpp:141] Setting up inception_4a/3x3
I0403 16:25:36.460703 18203 net.cpp:148] Top shape: 24 208 14 14 (978432)
I0403 16:25:36.460719 18203 net.cpp:156] Memory required for data: 869149728
I0403 16:25:36.460737 18203 layer_factory.hpp:77] Creating layer inception_4a/relu_3x3
I0403 16:25:36.460757 18203 net.cpp:91] Creating Layer inception_4a/relu_3x3
I0403 16:25:36.460773 18203 net.cpp:425] inception_4a/relu_3x3 <- inception_4a/3x3
I0403 16:25:36.460789 18203 net.cpp:386] inception_4a/relu_3x3 -> inception_4a/3x3 (in-place)
I0403 16:25:36.461061 18203 net.cpp:141] Setting up inception_4a/relu_3x3
I0403 16:25:36.461087 18203 net.cpp:148] Top shape: 24 208 14 14 (978432)
I0403 16:25:36.461103 18203 net.cpp:156] Memory required for data: 873063456
I0403 16:25:36.461118 18203 layer_factory.hpp:77] Creating layer inception_4a/5x5_reduce
I0403 16:25:36.461139 18203 net.cpp:91] Creating Layer inception_4a/5x5_reduce
I0403 16:25:36.461158 18203 net.cpp:425] inception_4a/5x5_reduce <- pool3/3x3_s2_pool3/3x3_s2_0_split_2
I0403 16:25:36.461179 18203 net.cpp:399] inception_4a/5x5_reduce -> inception_4a/5x5_reduce
I0403 16:25:36.462158 18203 net.cpp:141] Setting up inception_4a/5x5_reduce
I0403 16:25:36.462188 18203 net.cpp:148] Top shape: 24 16 14 14 (75264)
I0403 16:25:36.462203 18203 net.cpp:156] Memory required for data: 873364512
I0403 16:25:36.462220 18203 layer_factory.hpp:77] Creating layer inception_4a/relu_5x5_reduce
I0403 16:25:36.462240 18203 net.cpp:91] Creating Layer inception_4a/relu_5x5_reduce
I0403 16:25:36.462258 18203 net.cpp:425] inception_4a/relu_5x5_reduce <- inception_4a/5x5_reduce
I0403 16:25:36.462275 18203 net.cpp:386] inception_4a/relu_5x5_reduce -> inception_4a/5x5_reduce (in-place)
I0403 16:25:36.462446 18203 net.cpp:141] Setting up inception_4a/relu_5x5_reduce
I0403 16:25:36.462474 18203 net.cpp:148] Top shape: 24 16 14 14 (75264)
I0403 16:25:36.462491 18203 net.cpp:156] Memory required for data: 873665568
I0403 16:25:36.462505 18203 layer_factory.hpp:77] Creating layer inception_4a/5x5
I0403 16:25:36.462527 18203 net.cpp:91] Creating Layer inception_4a/5x5
I0403 16:25:36.462543 18203 net.cpp:425] inception_4a/5x5 <- inception_4a/5x5_reduce
I0403 16:25:36.462563 18203 net.cpp:399] inception_4a/5x5 -> inception_4a/5x5
I0403 16:25:36.463626 18203 net.cpp:141] Setting up inception_4a/5x5
I0403 16:25:36.463656 18203 net.cpp:148] Top shape: 24 48 14 14 (225792)
I0403 16:25:36.463672 18203 net.cpp:156] Memory required for data: 874568736
I0403 16:25:36.463691 18203 layer_factory.hpp:77] Creating layer inception_4a/relu_5x5
I0403 16:25:36.463709 18203 net.cpp:91] Creating Layer inception_4a/relu_5x5
I0403 16:25:36.463726 18203 net.cpp:425] inception_4a/relu_5x5 <- inception_4a/5x5
I0403 16:25:36.463747 18203 net.cpp:386] inception_4a/relu_5x5 -> inception_4a/5x5 (in-place)
I0403 16:25:36.463920 18203 net.cpp:141] Setting up inception_4a/relu_5x5
I0403 16:25:36.463945 18203 net.cpp:148] Top shape: 24 48 14 14 (225792)
I0403 16:25:36.463961 18203 net.cpp:156] Memory required for data: 875471904
I0403 16:25:36.463975 18203 layer_factory.hpp:77] Creating layer inception_4a/pool
I0403 16:25:36.463994 18203 net.cpp:91] Creating Layer inception_4a/pool
I0403 16:25:36.464010 18203 net.cpp:425] inception_4a/pool <- pool3/3x3_s2_pool3/3x3_s2_0_split_3
I0403 16:25:36.464030 18203 net.cpp:399] inception_4a/pool -> inception_4a/pool
I0403 16:25:36.464093 18203 net.cpp:141] Setting up inception_4a/pool
I0403 16:25:36.464118 18203 net.cpp:148] Top shape: 24 480 14 14 (2257920)
I0403 16:25:36.464133 18203 net.cpp:156] Memory required for data: 884503584
I0403 16:25:36.464146 18203 layer_factory.hpp:77] Creating layer inception_4a/pool_proj
I0403 16:25:36.464170 18203 net.cpp:91] Creating Layer inception_4a/pool_proj
I0403 16:25:36.464187 18203 net.cpp:425] inception_4a/pool_proj <- inception_4a/pool
I0403 16:25:36.464206 18203 net.cpp:399] inception_4a/pool_proj -> inception_4a/pool_proj
I0403 16:25:36.465332 18203 net.cpp:141] Setting up inception_4a/pool_proj
I0403 16:25:36.465363 18203 net.cpp:148] Top shape: 24 64 14 14 (301056)
I0403 16:25:36.465394 18203 net.cpp:156] Memory required for data: 885707808
I0403 16:25:36.465415 18203 layer_factory.hpp:77] Creating layer inception_4a/relu_pool_proj
I0403 16:25:36.465432 18203 net.cpp:91] Creating Layer inception_4a/relu_pool_proj
I0403 16:25:36.465448 18203 net.cpp:425] inception_4a/relu_pool_proj <- inception_4a/pool_proj
I0403 16:25:36.465469 18203 net.cpp:386] inception_4a/relu_pool_proj -> inception_4a/pool_proj (in-place)
I0403 16:25:36.465755 18203 net.cpp:141] Setting up inception_4a/relu_pool_proj
I0403 16:25:36.465785 18203 net.cpp:148] Top shape: 24 64 14 14 (301056)
I0403 16:25:36.465801 18203 net.cpp:156] Memory required for data: 886912032
I0403 16:25:36.465816 18203 layer_factory.hpp:77] Creating layer inception_4a/output
I0403 16:25:36.465832 18203 net.cpp:91] Creating Layer inception_4a/output
I0403 16:25:36.465847 18203 net.cpp:425] inception_4a/output <- inception_4a/1x1
I0403 16:25:36.465864 18203 net.cpp:425] inception_4a/output <- inception_4a/3x3
I0403 16:25:36.465879 18203 net.cpp:425] inception_4a/output <- inception_4a/5x5
I0403 16:25:36.465895 18203 net.cpp:425] inception_4a/output <- inception_4a/pool_proj
I0403 16:25:36.465914 18203 net.cpp:399] inception_4a/output -> inception_4a/output
I0403 16:25:36.465958 18203 net.cpp:141] Setting up inception_4a/output
I0403 16:25:36.465982 18203 net.cpp:148] Top shape: 24 512 14 14 (2408448)
I0403 16:25:36.465996 18203 net.cpp:156] Memory required for data: 896545824
I0403 16:25:36.466011 18203 layer_factory.hpp:77] Creating layer inception_4a/output_inception_4a/output_0_split
I0403 16:25:36.466030 18203 net.cpp:91] Creating Layer inception_4a/output_inception_4a/output_0_split
I0403 16:25:36.466045 18203 net.cpp:425] inception_4a/output_inception_4a/output_0_split <- inception_4a/output
I0403 16:25:36.466064 18203 net.cpp:399] inception_4a/output_inception_4a/output_0_split -> inception_4a/output_inception_4a/output_0_split_0
I0403 16:25:36.466087 18203 net.cpp:399] inception_4a/output_inception_4a/output_0_split -> inception_4a/output_inception_4a/output_0_split_1
I0403 16:25:36.466109 18203 net.cpp:399] inception_4a/output_inception_4a/output_0_split -> inception_4a/output_inception_4a/output_0_split_2
I0403 16:25:36.466128 18203 net.cpp:399] inception_4a/output_inception_4a/output_0_split -> inception_4a/output_inception_4a/output_0_split_3
I0403 16:25:36.466147 18203 net.cpp:399] inception_4a/output_inception_4a/output_0_split -> inception_4a/output_inception_4a/output_0_split_4
I0403 16:25:36.466238 18203 net.cpp:141] Setting up inception_4a/output_inception_4a/output_0_split
I0403 16:25:36.466261 18203 net.cpp:148] Top shape: 24 512 14 14 (2408448)
I0403 16:25:36.466276 18203 net.cpp:148] Top shape: 24 512 14 14 (2408448)
I0403 16:25:36.466291 18203 net.cpp:148] Top shape: 24 512 14 14 (2408448)
I0403 16:25:36.466306 18203 net.cpp:148] Top shape: 24 512 14 14 (2408448)
I0403 16:25:36.466322 18203 net.cpp:148] Top shape: 24 512 14 14 (2408448)
I0403 16:25:36.466336 18203 net.cpp:156] Memory required for data: 944714784
I0403 16:25:36.466351 18203 layer_factory.hpp:77] Creating layer loss1/ave_pool
I0403 16:25:36.466369 18203 net.cpp:91] Creating Layer loss1/ave_pool
I0403 16:25:36.466387 18203 net.cpp:425] loss1/ave_pool <- inception_4a/output_inception_4a/output_0_split_0
I0403 16:25:36.466405 18203 net.cpp:399] loss1/ave_pool -> loss1/ave_pool
I0403 16:25:36.466604 18203 net.cpp:141] Setting up loss1/ave_pool
I0403 16:25:36.466632 18203 net.cpp:148] Top shape: 24 512 4 4 (196608)
I0403 16:25:36.466650 18203 net.cpp:156] Memory required for data: 945501216
I0403 16:25:36.466665 18203 layer_factory.hpp:77] Creating layer loss1/conv
I0403 16:25:36.466686 18203 net.cpp:91] Creating Layer loss1/conv
I0403 16:25:36.466704 18203 net.cpp:425] loss1/conv <- loss1/ave_pool
I0403 16:25:36.466723 18203 net.cpp:399] loss1/conv -> loss1/conv
I0403 16:25:36.468080 18203 net.cpp:141] Setting up loss1/conv
I0403 16:25:36.468108 18203 net.cpp:148] Top shape: 24 128 4 4 (49152)
I0403 16:25:36.468124 18203 net.cpp:156] Memory required for data: 945697824
I0403 16:25:36.468158 18203 layer_factory.hpp:77] Creating layer loss1/relu_conv
I0403 16:25:36.468178 18203 net.cpp:91] Creating Layer loss1/relu_conv
I0403 16:25:36.468195 18203 net.cpp:425] loss1/relu_conv <- loss1/conv
I0403 16:25:36.468212 18203 net.cpp:386] loss1/relu_conv -> loss1/conv (in-place)
I0403 16:25:36.468487 18203 net.cpp:141] Setting up loss1/relu_conv
I0403 16:25:36.468513 18203 net.cpp:148] Top shape: 24 128 4 4 (49152)
I0403 16:25:36.468528 18203 net.cpp:156] Memory required for data: 945894432
I0403 16:25:36.468541 18203 layer_factory.hpp:77] Creating layer loss1/fc
I0403 16:25:36.468566 18203 net.cpp:91] Creating Layer loss1/fc
I0403 16:25:36.468590 18203 net.cpp:425] loss1/fc <- loss1/conv
I0403 16:25:36.468608 18203 net.cpp:399] loss1/fc -> loss1/fc
I0403 16:25:36.486249 18203 net.cpp:141] Setting up loss1/fc
I0403 16:25:36.486284 18203 net.cpp:148] Top shape: 24 1024 (24576)
I0403 16:25:36.486300 18203 net.cpp:156] Memory required for data: 945992736
I0403 16:25:36.486318 18203 layer_factory.hpp:77] Creating layer loss1/relu_fc
I0403 16:25:36.486337 18203 net.cpp:91] Creating Layer loss1/relu_fc
I0403 16:25:36.486353 18203 net.cpp:425] loss1/relu_fc <- loss1/fc
I0403 16:25:36.486373 18203 net.cpp:386] loss1/relu_fc -> loss1/fc (in-place)
I0403 16:25:36.486577 18203 net.cpp:141] Setting up loss1/relu_fc
I0403 16:25:36.486604 18203 net.cpp:148] Top shape: 24 1024 (24576)
I0403 16:25:36.486620 18203 net.cpp:156] Memory required for data: 946091040
I0403 16:25:36.486636 18203 layer_factory.hpp:77] Creating layer loss1/drop_fc
I0403 16:25:36.486662 18203 net.cpp:91] Creating Layer loss1/drop_fc
I0403 16:25:36.486681 18203 net.cpp:425] loss1/drop_fc <- loss1/fc
I0403 16:25:36.486701 18203 net.cpp:386] loss1/drop_fc -> loss1/fc (in-place)
I0403 16:25:36.486755 18203 net.cpp:141] Setting up loss1/drop_fc
I0403 16:25:36.486783 18203 net.cpp:148] Top shape: 24 1024 (24576)
I0403 16:25:36.486799 18203 net.cpp:156] Memory required for data: 946189344
I0403 16:25:36.486827 18203 layer_factory.hpp:77] Creating layer loss1/classifier_plantvillage
I0403 16:25:36.486845 18203 net.cpp:91] Creating Layer loss1/classifier_plantvillage
I0403 16:25:36.486862 18203 net.cpp:425] loss1/classifier_plantvillage <- loss1/fc
I0403 16:25:36.486884 18203 net.cpp:399] loss1/classifier_plantvillage -> loss1/classifier_plantvillage
I0403 16:25:36.487821 18203 net.cpp:141] Setting up loss1/classifier_plantvillage
I0403 16:25:36.487850 18203 net.cpp:148] Top shape: 24 38 (912)
I0403 16:25:36.487865 18203 net.cpp:156] Memory required for data: 946192992
I0403 16:25:36.487884 18203 layer_factory.hpp:77] Creating layer loss1/classifier_plantvillage_loss1/classifier_plantvillage_0_split
I0403 16:25:36.487902 18203 net.cpp:91] Creating Layer loss1/classifier_plantvillage_loss1/classifier_plantvillage_0_split
I0403 16:25:36.487918 18203 net.cpp:425] loss1/classifier_plantvillage_loss1/classifier_plantvillage_0_split <- loss1/classifier_plantvillage
I0403 16:25:36.487958 18203 net.cpp:399] loss1/classifier_plantvillage_loss1/classifier_plantvillage_0_split -> loss1/classifier_plantvillage_loss1/classifier_plantvillage_0_split_0
I0403 16:25:36.487978 18203 net.cpp:399] loss1/classifier_plantvillage_loss1/classifier_plantvillage_0_split -> loss1/classifier_plantvillage_loss1/classifier_plantvillage_0_split_1
I0403 16:25:36.487999 18203 net.cpp:399] loss1/classifier_plantvillage_loss1/classifier_plantvillage_0_split -> loss1/classifier_plantvillage_loss1/classifier_plantvillage_0_split_2
I0403 16:25:36.488066 18203 net.cpp:141] Setting up loss1/classifier_plantvillage_loss1/classifier_plantvillage_0_split
I0403 16:25:36.488090 18203 net.cpp:148] Top shape: 24 38 (912)
I0403 16:25:36.488106 18203 net.cpp:148] Top shape: 24 38 (912)
I0403 16:25:36.488122 18203 net.cpp:148] Top shape: 24 38 (912)
I0403 16:25:36.488136 18203 net.cpp:156] Memory required for data: 946203936
I0403 16:25:36.488149 18203 layer_factory.hpp:77] Creating layer inception_4b/1x1
I0403 16:25:36.488171 18203 net.cpp:91] Creating Layer inception_4b/1x1
I0403 16:25:36.488205 18203 net.cpp:425] inception_4b/1x1 <- inception_4a/output_inception_4a/output_0_split_1
I0403 16:25:36.488225 18203 net.cpp:399] inception_4b/1x1 -> inception_4b/1x1
I0403 16:25:36.489816 18203 net.cpp:141] Setting up inception_4b/1x1
I0403 16:25:36.489845 18203 net.cpp:148] Top shape: 24 160 14 14 (752640)
I0403 16:25:36.489862 18203 net.cpp:156] Memory required for data: 949214496
I0403 16:25:36.489881 18203 layer_factory.hpp:77] Creating layer inception_4b/relu_1x1
I0403 16:25:36.489900 18203 net.cpp:91] Creating Layer inception_4b/relu_1x1
I0403 16:25:36.489917 18203 net.cpp:425] inception_4b/relu_1x1 <- inception_4b/1x1
I0403 16:25:36.489935 18203 net.cpp:386] inception_4b/relu_1x1 -> inception_4b/1x1 (in-place)
I0403 16:25:36.490110 18203 net.cpp:141] Setting up inception_4b/relu_1x1
I0403 16:25:36.490137 18203 net.cpp:148] Top shape: 24 160 14 14 (752640)
I0403 16:25:36.490154 18203 net.cpp:156] Memory required for data: 952225056
I0403 16:25:36.490167 18203 layer_factory.hpp:77] Creating layer inception_4b/3x3_reduce
I0403 16:25:36.490192 18203 net.cpp:91] Creating Layer inception_4b/3x3_reduce
I0403 16:25:36.490211 18203 net.cpp:425] inception_4b/3x3_reduce <- inception_4a/output_inception_4a/output_0_split_2
I0403 16:25:36.490229 18203 net.cpp:399] inception_4b/3x3_reduce -> inception_4b/3x3_reduce
I0403 16:25:36.491535 18203 net.cpp:141] Setting up inception_4b/3x3_reduce
I0403 16:25:36.491569 18203 net.cpp:148] Top shape: 24 112 14 14 (526848)
I0403 16:25:36.491590 18203 net.cpp:156] Memory required for data: 954332448
I0403 16:25:36.491608 18203 layer_factory.hpp:77] Creating layer inception_4b/relu_3x3_reduce
I0403 16:25:36.491626 18203 net.cpp:91] Creating Layer inception_4b/relu_3x3_reduce
I0403 16:25:36.491643 18203 net.cpp:425] inception_4b/relu_3x3_reduce <- inception_4b/3x3_reduce
I0403 16:25:36.491659 18203 net.cpp:386] inception_4b/relu_3x3_reduce -> inception_4b/3x3_reduce (in-place)
I0403 16:25:36.491936 18203 net.cpp:141] Setting up inception_4b/relu_3x3_reduce
I0403 16:25:36.491966 18203 net.cpp:148] Top shape: 24 112 14 14 (526848)
I0403 16:25:36.491981 18203 net.cpp:156] Memory required for data: 956439840
I0403 16:25:36.492002 18203 layer_factory.hpp:77] Creating layer inception_4b/3x3
I0403 16:25:36.492022 18203 net.cpp:91] Creating Layer inception_4b/3x3
I0403 16:25:36.492038 18203 net.cpp:425] inception_4b/3x3 <- inception_4b/3x3_reduce
I0403 16:25:36.492058 18203 net.cpp:399] inception_4b/3x3 -> inception_4b/3x3
I0403 16:25:36.494954 18203 net.cpp:141] Setting up inception_4b/3x3
I0403 16:25:36.494984 18203 net.cpp:148] Top shape: 24 224 14 14 (1053696)
I0403 16:25:36.495000 18203 net.cpp:156] Memory required for data: 960654624
I0403 16:25:36.495019 18203 layer_factory.hpp:77] Creating layer inception_4b/relu_3x3
I0403 16:25:36.495036 18203 net.cpp:91] Creating Layer inception_4b/relu_3x3
I0403 16:25:36.495051 18203 net.cpp:425] inception_4b/relu_3x3 <- inception_4b/3x3
I0403 16:25:36.495070 18203 net.cpp:386] inception_4b/relu_3x3 -> inception_4b/3x3 (in-place)
I0403 16:25:36.495250 18203 net.cpp:141] Setting up inception_4b/relu_3x3
I0403 16:25:36.495276 18203 net.cpp:148] Top shape: 24 224 14 14 (1053696)
I0403 16:25:36.495291 18203 net.cpp:156] Memory required for data: 964869408
I0403 16:25:36.495306 18203 layer_factory.hpp:77] Creating layer inception_4b/5x5_reduce
I0403 16:25:36.495328 18203 net.cpp:91] Creating Layer inception_4b/5x5_reduce
I0403 16:25:36.495345 18203 net.cpp:425] inception_4b/5x5_reduce <- inception_4a/output_inception_4a/output_0_split_3
I0403 16:25:36.495368 18203 net.cpp:399] inception_4b/5x5_reduce -> inception_4b/5x5_reduce
I0403 16:25:36.496435 18203 net.cpp:141] Setting up inception_4b/5x5_reduce
I0403 16:25:36.496464 18203 net.cpp:148] Top shape: 24 24 14 14 (112896)
I0403 16:25:36.496479 18203 net.cpp:156] Memory required for data: 965320992
I0403 16:25:36.496497 18203 layer_factory.hpp:77] Creating layer inception_4b/relu_5x5_reduce
I0403 16:25:36.496517 18203 net.cpp:91] Creating Layer inception_4b/relu_5x5_reduce
I0403 16:25:36.496548 18203 net.cpp:425] inception_4b/relu_5x5_reduce <- inception_4b/5x5_reduce
I0403 16:25:36.496567 18203 net.cpp:386] inception_4b/relu_5x5_reduce -> inception_4b/5x5_reduce (in-place)
I0403 16:25:36.496752 18203 net.cpp:141] Setting up inception_4b/relu_5x5_reduce
I0403 16:25:36.496779 18203 net.cpp:148] Top shape: 24 24 14 14 (112896)
I0403 16:25:36.496796 18203 net.cpp:156] Memory required for data: 965772576
I0403 16:25:36.496811 18203 layer_factory.hpp:77] Creating layer inception_4b/5x5
I0403 16:25:36.496832 18203 net.cpp:91] Creating Layer inception_4b/5x5
I0403 16:25:36.496850 18203 net.cpp:425] inception_4b/5x5 <- inception_4b/5x5_reduce
I0403 16:25:36.496870 18203 net.cpp:399] inception_4b/5x5 -> inception_4b/5x5
I0403 16:25:36.498061 18203 net.cpp:141] Setting up inception_4b/5x5
I0403 16:25:36.498090 18203 net.cpp:148] Top shape: 24 64 14 14 (301056)
I0403 16:25:36.498106 18203 net.cpp:156] Memory required for data: 966976800
I0403 16:25:36.498121 18203 layer_factory.hpp:77] Creating layer inception_4b/relu_5x5
I0403 16:25:36.498142 18203 net.cpp:91] Creating Layer inception_4b/relu_5x5
I0403 16:25:36.498158 18203 net.cpp:425] inception_4b/relu_5x5 <- inception_4b/5x5
I0403 16:25:36.498177 18203 net.cpp:386] inception_4b/relu_5x5 -> inception_4b/5x5 (in-place)
I0403 16:25:36.498453 18203 net.cpp:141] Setting up inception_4b/relu_5x5
I0403 16:25:36.498479 18203 net.cpp:148] Top shape: 24 64 14 14 (301056)
I0403 16:25:36.498495 18203 net.cpp:156] Memory required for data: 968181024
I0403 16:25:36.498510 18203 layer_factory.hpp:77] Creating layer inception_4b/pool
I0403 16:25:36.498530 18203 net.cpp:91] Creating Layer inception_4b/pool
I0403 16:25:36.498548 18203 net.cpp:425] inception_4b/pool <- inception_4a/output_inception_4a/output_0_split_4
I0403 16:25:36.498566 18203 net.cpp:399] inception_4b/pool -> inception_4b/pool
I0403 16:25:36.498637 18203 net.cpp:141] Setting up inception_4b/pool
I0403 16:25:36.498661 18203 net.cpp:148] Top shape: 24 512 14 14 (2408448)
I0403 16:25:36.498677 18203 net.cpp:156] Memory required for data: 977814816
I0403 16:25:36.498690 18203 layer_factory.hpp:77] Creating layer inception_4b/pool_proj
I0403 16:25:36.498713 18203 net.cpp:91] Creating Layer inception_4b/pool_proj
I0403 16:25:36.498729 18203 net.cpp:425] inception_4b/pool_proj <- inception_4b/pool
I0403 16:25:36.498751 18203 net.cpp:399] inception_4b/pool_proj -> inception_4b/pool_proj
I0403 16:25:36.499922 18203 net.cpp:141] Setting up inception_4b/pool_proj
I0403 16:25:36.499950 18203 net.cpp:148] Top shape: 24 64 14 14 (301056)
I0403 16:25:36.499968 18203 net.cpp:156] Memory required for data: 979019040
I0403 16:25:36.499984 18203 layer_factory.hpp:77] Creating layer inception_4b/relu_pool_proj
I0403 16:25:36.500005 18203 net.cpp:91] Creating Layer inception_4b/relu_pool_proj
I0403 16:25:36.500023 18203 net.cpp:425] inception_4b/relu_pool_proj <- inception_4b/pool_proj
I0403 16:25:36.500041 18203 net.cpp:386] inception_4b/relu_pool_proj -> inception_4b/pool_proj (in-place)
I0403 16:25:36.500216 18203 net.cpp:141] Setting up inception_4b/relu_pool_proj
I0403 16:25:36.500242 18203 net.cpp:148] Top shape: 24 64 14 14 (301056)
I0403 16:25:36.500259 18203 net.cpp:156] Memory required for data: 980223264
I0403 16:25:36.500274 18203 layer_factory.hpp:77] Creating layer inception_4b/output
I0403 16:25:36.500293 18203 net.cpp:91] Creating Layer inception_4b/output
I0403 16:25:36.500308 18203 net.cpp:425] inception_4b/output <- inception_4b/1x1
I0403 16:25:36.500322 18203 net.cpp:425] inception_4b/output <- inception_4b/3x3
I0403 16:25:36.500337 18203 net.cpp:425] inception_4b/output <- inception_4b/5x5
I0403 16:25:36.500354 18203 net.cpp:425] inception_4b/output <- inception_4b/pool_proj
I0403 16:25:36.500370 18203 net.cpp:399] inception_4b/output -> inception_4b/output
I0403 16:25:36.500417 18203 net.cpp:141] Setting up inception_4b/output
I0403 16:25:36.500440 18203 net.cpp:148] Top shape: 24 512 14 14 (2408448)
I0403 16:25:36.500454 18203 net.cpp:156] Memory required for data: 989857056
I0403 16:25:36.500483 18203 layer_factory.hpp:77] Creating layer inception_4b/output_inception_4b/output_0_split
I0403 16:25:36.500502 18203 net.cpp:91] Creating Layer inception_4b/output_inception_4b/output_0_split
I0403 16:25:36.500519 18203 net.cpp:425] inception_4b/output_inception_4b/output_0_split <- inception_4b/output
I0403 16:25:36.500536 18203 net.cpp:399] inception_4b/output_inception_4b/output_0_split -> inception_4b/output_inception_4b/output_0_split_0
I0403 16:25:36.500557 18203 net.cpp:399] inception_4b/output_inception_4b/output_0_split -> inception_4b/output_inception_4b/output_0_split_1
I0403 16:25:36.500581 18203 net.cpp:399] inception_4b/output_inception_4b/output_0_split -> inception_4b/output_inception_4b/output_0_split_2
I0403 16:25:36.500602 18203 net.cpp:399] inception_4b/output_inception_4b/output_0_split -> inception_4b/output_inception_4b/output_0_split_3
I0403 16:25:36.500686 18203 net.cpp:141] Setting up inception_4b/output_inception_4b/output_0_split
I0403 16:25:36.500710 18203 net.cpp:148] Top shape: 24 512 14 14 (2408448)
I0403 16:25:36.500726 18203 net.cpp:148] Top shape: 24 512 14 14 (2408448)
I0403 16:25:36.500742 18203 net.cpp:148] Top shape: 24 512 14 14 (2408448)
I0403 16:25:36.500757 18203 net.cpp:148] Top shape: 24 512 14 14 (2408448)
I0403 16:25:36.500771 18203 net.cpp:156] Memory required for data: 1028392224
I0403 16:25:36.500785 18203 layer_factory.hpp:77] Creating layer inception_4c/1x1
I0403 16:25:36.500807 18203 net.cpp:91] Creating Layer inception_4c/1x1
I0403 16:25:36.500823 18203 net.cpp:425] inception_4c/1x1 <- inception_4b/output_inception_4b/output_0_split_0
I0403 16:25:36.500845 18203 net.cpp:399] inception_4c/1x1 -> inception_4c/1x1
I0403 16:25:36.502235 18203 net.cpp:141] Setting up inception_4c/1x1
I0403 16:25:36.502269 18203 net.cpp:148] Top shape: 24 128 14 14 (602112)
I0403 16:25:36.502286 18203 net.cpp:156] Memory required for data: 1030800672
I0403 16:25:36.502305 18203 layer_factory.hpp:77] Creating layer inception_4c/relu_1x1
I0403 16:25:36.502322 18203 net.cpp:91] Creating Layer inception_4c/relu_1x1
I0403 16:25:36.502338 18203 net.cpp:425] inception_4c/relu_1x1 <- inception_4c/1x1
I0403 16:25:36.502357 18203 net.cpp:386] inception_4c/relu_1x1 -> inception_4c/1x1 (in-place)
I0403 16:25:36.502534 18203 net.cpp:141] Setting up inception_4c/relu_1x1
I0403 16:25:36.502559 18203 net.cpp:148] Top shape: 24 128 14 14 (602112)
I0403 16:25:36.502579 18203 net.cpp:156] Memory required for data: 1033209120
I0403 16:25:36.502595 18203 layer_factory.hpp:77] Creating layer inception_4c/3x3_reduce
I0403 16:25:36.502619 18203 net.cpp:91] Creating Layer inception_4c/3x3_reduce
I0403 16:25:36.502636 18203 net.cpp:425] inception_4c/3x3_reduce <- inception_4b/output_inception_4b/output_0_split_1
I0403 16:25:36.502657 18203 net.cpp:399] inception_4c/3x3_reduce -> inception_4c/3x3_reduce
I0403 16:25:36.504534 18203 net.cpp:141] Setting up inception_4c/3x3_reduce
I0403 16:25:36.504564 18203 net.cpp:148] Top shape: 24 128 14 14 (602112)
I0403 16:25:36.504583 18203 net.cpp:156] Memory required for data: 1035617568
I0403 16:25:36.504602 18203 layer_factory.hpp:77] Creating layer inception_4c/relu_3x3_reduce
I0403 16:25:36.504623 18203 net.cpp:91] Creating Layer inception_4c/relu_3x3_reduce
I0403 16:25:36.504640 18203 net.cpp:425] inception_4c/relu_3x3_reduce <- inception_4c/3x3_reduce
I0403 16:25:36.504657 18203 net.cpp:386] inception_4c/relu_3x3_reduce -> inception_4c/3x3_reduce (in-place)
I0403 16:25:36.504938 18203 net.cpp:141] Setting up inception_4c/relu_3x3_reduce
I0403 16:25:36.504966 18203 net.cpp:148] Top shape: 24 128 14 14 (602112)
I0403 16:25:36.504981 18203 net.cpp:156] Memory required for data: 1038026016
I0403 16:25:36.504995 18203 layer_factory.hpp:77] Creating layer inception_4c/3x3
I0403 16:25:36.505018 18203 net.cpp:91] Creating Layer inception_4c/3x3
I0403 16:25:36.505035 18203 net.cpp:425] inception_4c/3x3 <- inception_4c/3x3_reduce
I0403 16:25:36.505058 18203 net.cpp:399] inception_4c/3x3 -> inception_4c/3x3
I0403 16:25:36.508565 18203 net.cpp:141] Setting up inception_4c/3x3
I0403 16:25:36.508610 18203 net.cpp:148] Top shape: 24 256 14 14 (1204224)
I0403 16:25:36.508626 18203 net.cpp:156] Memory required for data: 1042842912
I0403 16:25:36.508658 18203 layer_factory.hpp:77] Creating layer inception_4c/relu_3x3
I0403 16:25:36.508682 18203 net.cpp:91] Creating Layer inception_4c/relu_3x3
I0403 16:25:36.508699 18203 net.cpp:425] inception_4c/relu_3x3 <- inception_4c/3x3
I0403 16:25:36.508716 18203 net.cpp:386] inception_4c/relu_3x3 -> inception_4c/3x3 (in-place)
I0403 16:25:36.508893 18203 net.cpp:141] Setting up inception_4c/relu_3x3
I0403 16:25:36.508919 18203 net.cpp:148] Top shape: 24 256 14 14 (1204224)
I0403 16:25:36.508934 18203 net.cpp:156] Memory required for data: 1047659808
I0403 16:25:36.508949 18203 layer_factory.hpp:77] Creating layer inception_4c/5x5_reduce
I0403 16:25:36.508970 18203 net.cpp:91] Creating Layer inception_4c/5x5_reduce
I0403 16:25:36.508990 18203 net.cpp:425] inception_4c/5x5_reduce <- inception_4b/output_inception_4b/output_0_split_2
I0403 16:25:36.509011 18203 net.cpp:399] inception_4c/5x5_reduce -> inception_4c/5x5_reduce
I0403 16:25:36.510087 18203 net.cpp:141] Setting up inception_4c/5x5_reduce
I0403 16:25:36.510114 18203 net.cpp:148] Top shape: 24 24 14 14 (112896)
I0403 16:25:36.510131 18203 net.cpp:156] Memory required for data: 1048111392
I0403 16:25:36.510149 18203 layer_factory.hpp:77] Creating layer inception_4c/relu_5x5_reduce
I0403 16:25:36.510171 18203 net.cpp:91] Creating Layer inception_4c/relu_5x5_reduce
I0403 16:25:36.510190 18203 net.cpp:425] inception_4c/relu_5x5_reduce <- inception_4c/5x5_reduce
I0403 16:25:36.510206 18203 net.cpp:386] inception_4c/relu_5x5_reduce -> inception_4c/5x5_reduce (in-place)
I0403 16:25:36.510387 18203 net.cpp:141] Setting up inception_4c/relu_5x5_reduce
I0403 16:25:36.510416 18203 net.cpp:148] Top shape: 24 24 14 14 (112896)
I0403 16:25:36.510432 18203 net.cpp:156] Memory required for data: 1048562976
I0403 16:25:36.510447 18203 layer_factory.hpp:77] Creating layer inception_4c/5x5
I0403 16:25:36.510468 18203 net.cpp:91] Creating Layer inception_4c/5x5
I0403 16:25:36.510486 18203 net.cpp:425] inception_4c/5x5 <- inception_4c/5x5_reduce
I0403 16:25:36.510505 18203 net.cpp:399] inception_4c/5x5 -> inception_4c/5x5
I0403 16:25:36.511723 18203 net.cpp:141] Setting up inception_4c/5x5
I0403 16:25:36.511754 18203 net.cpp:148] Top shape: 24 64 14 14 (301056)
I0403 16:25:36.511771 18203 net.cpp:156] Memory required for data: 1049767200
I0403 16:25:36.511790 18203 layer_factory.hpp:77] Creating layer inception_4c/relu_5x5
I0403 16:25:36.511808 18203 net.cpp:91] Creating Layer inception_4c/relu_5x5
I0403 16:25:36.511824 18203 net.cpp:425] inception_4c/relu_5x5 <- inception_4c/5x5
I0403 16:25:36.511842 18203 net.cpp:386] inception_4c/relu_5x5 -> inception_4c/5x5 (in-place)
I0403 16:25:36.512127 18203 net.cpp:141] Setting up inception_4c/relu_5x5
I0403 16:25:36.512156 18203 net.cpp:148] Top shape: 24 64 14 14 (301056)
I0403 16:25:36.512172 18203 net.cpp:156] Memory required for data: 1050971424
I0403 16:25:36.512187 18203 layer_factory.hpp:77] Creating layer inception_4c/pool
I0403 16:25:36.512204 18203 net.cpp:91] Creating Layer inception_4c/pool
I0403 16:25:36.512220 18203 net.cpp:425] inception_4c/pool <- inception_4b/output_inception_4b/output_0_split_3
I0403 16:25:36.512238 18203 net.cpp:399] inception_4c/pool -> inception_4c/pool
I0403 16:25:36.512302 18203 net.cpp:141] Setting up inception_4c/pool
I0403 16:25:36.512326 18203 net.cpp:148] Top shape: 24 512 14 14 (2408448)
I0403 16:25:36.512341 18203 net.cpp:156] Memory required for data: 1060605216
I0403 16:25:36.512354 18203 layer_factory.hpp:77] Creating layer inception_4c/pool_proj
I0403 16:25:36.512377 18203 net.cpp:91] Creating Layer inception_4c/pool_proj
I0403 16:25:36.512393 18203 net.cpp:425] inception_4c/pool_proj <- inception_4c/pool
I0403 16:25:36.512413 18203 net.cpp:399] inception_4c/pool_proj -> inception_4c/pool_proj
I0403 16:25:36.513640 18203 net.cpp:141] Setting up inception_4c/pool_proj
I0403 16:25:36.513669 18203 net.cpp:148] Top shape: 24 64 14 14 (301056)
I0403 16:25:36.513697 18203 net.cpp:156] Memory required for data: 1061809440
I0403 16:25:36.513717 18203 layer_factory.hpp:77] Creating layer inception_4c/relu_pool_proj
I0403 16:25:36.513741 18203 net.cpp:91] Creating Layer inception_4c/relu_pool_proj
I0403 16:25:36.513757 18203 net.cpp:425] inception_4c/relu_pool_proj <- inception_4c/pool_proj
I0403 16:25:36.513775 18203 net.cpp:386] inception_4c/relu_pool_proj -> inception_4c/pool_proj (in-place)
I0403 16:25:36.513952 18203 net.cpp:141] Setting up inception_4c/relu_pool_proj
I0403 16:25:36.513979 18203 net.cpp:148] Top shape: 24 64 14 14 (301056)
I0403 16:25:36.513996 18203 net.cpp:156] Memory required for data: 1063013664
I0403 16:25:36.514013 18203 layer_factory.hpp:77] Creating layer inception_4c/output
I0403 16:25:36.514029 18203 net.cpp:91] Creating Layer inception_4c/output
I0403 16:25:36.514044 18203 net.cpp:425] inception_4c/output <- inception_4c/1x1
I0403 16:25:36.514060 18203 net.cpp:425] inception_4c/output <- inception_4c/3x3
I0403 16:25:36.514076 18203 net.cpp:425] inception_4c/output <- inception_4c/5x5
I0403 16:25:36.514092 18203 net.cpp:425] inception_4c/output <- inception_4c/pool_proj
I0403 16:25:36.514109 18203 net.cpp:399] inception_4c/output -> inception_4c/output
I0403 16:25:36.514155 18203 net.cpp:141] Setting up inception_4c/output
I0403 16:25:36.514179 18203 net.cpp:148] Top shape: 24 512 14 14 (2408448)
I0403 16:25:36.514194 18203 net.cpp:156] Memory required for data: 1072647456
I0403 16:25:36.514209 18203 layer_factory.hpp:77] Creating layer inception_4c/output_inception_4c/output_0_split
I0403 16:25:36.514227 18203 net.cpp:91] Creating Layer inception_4c/output_inception_4c/output_0_split
I0403 16:25:36.514243 18203 net.cpp:425] inception_4c/output_inception_4c/output_0_split <- inception_4c/output
I0403 16:25:36.514261 18203 net.cpp:399] inception_4c/output_inception_4c/output_0_split -> inception_4c/output_inception_4c/output_0_split_0
I0403 16:25:36.514281 18203 net.cpp:399] inception_4c/output_inception_4c/output_0_split -> inception_4c/output_inception_4c/output_0_split_1
I0403 16:25:36.514300 18203 net.cpp:399] inception_4c/output_inception_4c/output_0_split -> inception_4c/output_inception_4c/output_0_split_2
I0403 16:25:36.514320 18203 net.cpp:399] inception_4c/output_inception_4c/output_0_split -> inception_4c/output_inception_4c/output_0_split_3
I0403 16:25:36.514405 18203 net.cpp:141] Setting up inception_4c/output_inception_4c/output_0_split
I0403 16:25:36.514428 18203 net.cpp:148] Top shape: 24 512 14 14 (2408448)
I0403 16:25:36.514444 18203 net.cpp:148] Top shape: 24 512 14 14 (2408448)
I0403 16:25:36.514458 18203 net.cpp:148] Top shape: 24 512 14 14 (2408448)
I0403 16:25:36.514473 18203 net.cpp:148] Top shape: 24 512 14 14 (2408448)
I0403 16:25:36.514487 18203 net.cpp:156] Memory required for data: 1111182624
I0403 16:25:36.514500 18203 layer_factory.hpp:77] Creating layer inception_4d/1x1
I0403 16:25:36.514523 18203 net.cpp:91] Creating Layer inception_4d/1x1
I0403 16:25:36.514539 18203 net.cpp:425] inception_4d/1x1 <- inception_4c/output_inception_4c/output_0_split_0
I0403 16:25:36.514559 18203 net.cpp:399] inception_4d/1x1 -> inception_4d/1x1
I0403 16:25:36.515913 18203 net.cpp:141] Setting up inception_4d/1x1
I0403 16:25:36.515943 18203 net.cpp:148] Top shape: 24 112 14 14 (526848)
I0403 16:25:36.515959 18203 net.cpp:156] Memory required for data: 1113290016
I0403 16:25:36.515976 18203 layer_factory.hpp:77] Creating layer inception_4d/relu_1x1
I0403 16:25:36.515993 18203 net.cpp:91] Creating Layer inception_4d/relu_1x1
I0403 16:25:36.516008 18203 net.cpp:425] inception_4d/relu_1x1 <- inception_4d/1x1
I0403 16:25:36.516027 18203 net.cpp:386] inception_4d/relu_1x1 -> inception_4d/1x1 (in-place)
I0403 16:25:36.516207 18203 net.cpp:141] Setting up inception_4d/relu_1x1
I0403 16:25:36.516232 18203 net.cpp:148] Top shape: 24 112 14 14 (526848)
I0403 16:25:36.516247 18203 net.cpp:156] Memory required for data: 1115397408
I0403 16:25:36.516263 18203 layer_factory.hpp:77] Creating layer inception_4d/3x3_reduce
I0403 16:25:36.516297 18203 net.cpp:91] Creating Layer inception_4d/3x3_reduce
I0403 16:25:36.516315 18203 net.cpp:425] inception_4d/3x3_reduce <- inception_4c/output_inception_4c/output_0_split_1
I0403 16:25:36.516337 18203 net.cpp:399] inception_4d/3x3_reduce -> inception_4d/3x3_reduce
I0403 16:25:36.517807 18203 net.cpp:141] Setting up inception_4d/3x3_reduce
I0403 16:25:36.517838 18203 net.cpp:148] Top shape: 24 144 14 14 (677376)
I0403 16:25:36.517853 18203 net.cpp:156] Memory required for data: 1118106912
I0403 16:25:36.517871 18203 layer_factory.hpp:77] Creating layer inception_4d/relu_3x3_reduce
I0403 16:25:36.517889 18203 net.cpp:91] Creating Layer inception_4d/relu_3x3_reduce
I0403 16:25:36.517904 18203 net.cpp:425] inception_4d/relu_3x3_reduce <- inception_4d/3x3_reduce
I0403 16:25:36.517923 18203 net.cpp:386] inception_4d/relu_3x3_reduce -> inception_4d/3x3_reduce (in-place)
I0403 16:25:36.518206 18203 net.cpp:141] Setting up inception_4d/relu_3x3_reduce
I0403 16:25:36.518235 18203 net.cpp:148] Top shape: 24 144 14 14 (677376)
I0403 16:25:36.518251 18203 net.cpp:156] Memory required for data: 1120816416
I0403 16:25:36.518266 18203 layer_factory.hpp:77] Creating layer inception_4d/3x3
I0403 16:25:36.518287 18203 net.cpp:91] Creating Layer inception_4d/3x3
I0403 16:25:36.518306 18203 net.cpp:425] inception_4d/3x3 <- inception_4d/3x3_reduce
I0403 16:25:36.518326 18203 net.cpp:399] inception_4d/3x3 -> inception_4d/3x3
I0403 16:25:36.522573 18203 net.cpp:141] Setting up inception_4d/3x3
I0403 16:25:36.522605 18203 net.cpp:148] Top shape: 24 288 14 14 (1354752)
I0403 16:25:36.522621 18203 net.cpp:156] Memory required for data: 1126235424
I0403 16:25:36.522641 18203 layer_factory.hpp:77] Creating layer inception_4d/relu_3x3
I0403 16:25:36.522662 18203 net.cpp:91] Creating Layer inception_4d/relu_3x3
I0403 16:25:36.522680 18203 net.cpp:425] inception_4d/relu_3x3 <- inception_4d/3x3
I0403 16:25:36.522698 18203 net.cpp:386] inception_4d/relu_3x3 -> inception_4d/3x3 (in-place)
I0403 16:25:36.522882 18203 net.cpp:141] Setting up inception_4d/relu_3x3
I0403 16:25:36.522908 18203 net.cpp:148] Top shape: 24 288 14 14 (1354752)
I0403 16:25:36.522923 18203 net.cpp:156] Memory required for data: 1131654432
I0403 16:25:36.522938 18203 layer_factory.hpp:77] Creating layer inception_4d/5x5_reduce
I0403 16:25:36.522961 18203 net.cpp:91] Creating Layer inception_4d/5x5_reduce
I0403 16:25:36.522980 18203 net.cpp:425] inception_4d/5x5_reduce <- inception_4c/output_inception_4c/output_0_split_2
I0403 16:25:36.523001 18203 net.cpp:399] inception_4d/5x5_reduce -> inception_4d/5x5_reduce
I0403 16:25:36.524158 18203 net.cpp:141] Setting up inception_4d/5x5_reduce
I0403 16:25:36.524188 18203 net.cpp:148] Top shape: 24 32 14 14 (150528)
I0403 16:25:36.524204 18203 net.cpp:156] Memory required for data: 1132256544
I0403 16:25:36.524221 18203 layer_factory.hpp:77] Creating layer inception_4d/relu_5x5_reduce
I0403 16:25:36.524240 18203 net.cpp:91] Creating Layer inception_4d/relu_5x5_reduce
I0403 16:25:36.524256 18203 net.cpp:425] inception_4d/relu_5x5_reduce <- inception_4d/5x5_reduce
I0403 16:25:36.524277 18203 net.cpp:386] inception_4d/relu_5x5_reduce -> inception_4d/5x5_reduce (in-place)
I0403 16:25:36.524467 18203 net.cpp:141] Setting up inception_4d/relu_5x5_reduce
I0403 16:25:36.524493 18203 net.cpp:148] Top shape: 24 32 14 14 (150528)
I0403 16:25:36.524508 18203 net.cpp:156] Memory required for data: 1132858656
I0403 16:25:36.524523 18203 layer_factory.hpp:77] Creating layer inception_4d/5x5
I0403 16:25:36.524549 18203 net.cpp:91] Creating Layer inception_4d/5x5
I0403 16:25:36.524567 18203 net.cpp:425] inception_4d/5x5 <- inception_4d/5x5_reduce
I0403 16:25:36.524595 18203 net.cpp:399] inception_4d/5x5 -> inception_4d/5x5
I0403 16:25:36.526095 18203 net.cpp:141] Setting up inception_4d/5x5
I0403 16:25:36.526125 18203 net.cpp:148] Top shape: 24 64 14 14 (301056)
I0403 16:25:36.526144 18203 net.cpp:156] Memory required for data: 1134062880
I0403 16:25:36.526165 18203 layer_factory.hpp:77] Creating layer inception_4d/relu_5x5
I0403 16:25:36.526198 18203 net.cpp:91] Creating Layer inception_4d/relu_5x5
I0403 16:25:36.526216 18203 net.cpp:425] inception_4d/relu_5x5 <- inception_4d/5x5
I0403 16:25:36.526234 18203 net.cpp:386] inception_4d/relu_5x5 -> inception_4d/5x5 (in-place)
I0403 16:25:36.526540 18203 net.cpp:141] Setting up inception_4d/relu_5x5
I0403 16:25:36.526568 18203 net.cpp:148] Top shape: 24 64 14 14 (301056)
I0403 16:25:36.526592 18203 net.cpp:156] Memory required for data: 1135267104
I0403 16:25:36.526609 18203 layer_factory.hpp:77] Creating layer inception_4d/pool
I0403 16:25:36.526626 18203 net.cpp:91] Creating Layer inception_4d/pool
I0403 16:25:36.526644 18203 net.cpp:425] inception_4d/pool <- inception_4c/output_inception_4c/output_0_split_3
I0403 16:25:36.526662 18203 net.cpp:399] inception_4d/pool -> inception_4d/pool
I0403 16:25:36.526731 18203 net.cpp:141] Setting up inception_4d/pool
I0403 16:25:36.526757 18203 net.cpp:148] Top shape: 24 512 14 14 (2408448)
I0403 16:25:36.526772 18203 net.cpp:156] Memory required for data: 1144900896
I0403 16:25:36.526787 18203 layer_factory.hpp:77] Creating layer inception_4d/pool_proj
I0403 16:25:36.526808 18203 net.cpp:91] Creating Layer inception_4d/pool_proj
I0403 16:25:36.526828 18203 net.cpp:425] inception_4d/pool_proj <- inception_4d/pool
I0403 16:25:36.526849 18203 net.cpp:399] inception_4d/pool_proj -> inception_4d/pool_proj
I0403 16:25:36.528610 18203 net.cpp:141] Setting up inception_4d/pool_proj
I0403 16:25:36.528641 18203 net.cpp:148] Top shape: 24 64 14 14 (301056)
I0403 16:25:36.528659 18203 net.cpp:156] Memory required for data: 1146105120
I0403 16:25:36.528678 18203 layer_factory.hpp:77] Creating layer inception_4d/relu_pool_proj
I0403 16:25:36.528702 18203 net.cpp:91] Creating Layer inception_4d/relu_pool_proj
I0403 16:25:36.528720 18203 net.cpp:425] inception_4d/relu_pool_proj <- inception_4d/pool_proj
I0403 16:25:36.528738 18203 net.cpp:386] inception_4d/relu_pool_proj -> inception_4d/pool_proj (in-place)
I0403 16:25:36.528925 18203 net.cpp:141] Setting up inception_4d/relu_pool_proj
I0403 16:25:36.528951 18203 net.cpp:148] Top shape: 24 64 14 14 (301056)
I0403 16:25:36.528967 18203 net.cpp:156] Memory required for data: 1147309344
I0403 16:25:36.528983 18203 layer_factory.hpp:77] Creating layer inception_4d/output
I0403 16:25:36.529002 18203 net.cpp:91] Creating Layer inception_4d/output
I0403 16:25:36.529021 18203 net.cpp:425] inception_4d/output <- inception_4d/1x1
I0403 16:25:36.529037 18203 net.cpp:425] inception_4d/output <- inception_4d/3x3
I0403 16:25:36.529055 18203 net.cpp:425] inception_4d/output <- inception_4d/5x5
I0403 16:25:36.529072 18203 net.cpp:425] inception_4d/output <- inception_4d/pool_proj
I0403 16:25:36.529088 18203 net.cpp:399] inception_4d/output -> inception_4d/output
I0403 16:25:36.529139 18203 net.cpp:141] Setting up inception_4d/output
I0403 16:25:36.529162 18203 net.cpp:148] Top shape: 24 528 14 14 (2483712)
I0403 16:25:36.529177 18203 net.cpp:156] Memory required for data: 1157244192
I0403 16:25:36.529192 18203 layer_factory.hpp:77] Creating layer inception_4d/output_inception_4d/output_0_split
I0403 16:25:36.529211 18203 net.cpp:91] Creating Layer inception_4d/output_inception_4d/output_0_split
I0403 16:25:36.529227 18203 net.cpp:425] inception_4d/output_inception_4d/output_0_split <- inception_4d/output
I0403 16:25:36.529245 18203 net.cpp:399] inception_4d/output_inception_4d/output_0_split -> inception_4d/output_inception_4d/output_0_split_0
I0403 16:25:36.529268 18203 net.cpp:399] inception_4d/output_inception_4d/output_0_split -> inception_4d/output_inception_4d/output_0_split_1
I0403 16:25:36.529289 18203 net.cpp:399] inception_4d/output_inception_4d/output_0_split -> inception_4d/output_inception_4d/output_0_split_2
I0403 16:25:36.529311 18203 net.cpp:399] inception_4d/output_inception_4d/output_0_split -> inception_4d/output_inception_4d/output_0_split_3
I0403 16:25:36.529335 18203 net.cpp:399] inception_4d/output_inception_4d/output_0_split -> inception_4d/output_inception_4d/output_0_split_4
I0403 16:25:36.529439 18203 net.cpp:141] Setting up inception_4d/output_inception_4d/output_0_split
I0403 16:25:36.529476 18203 net.cpp:148] Top shape: 24 528 14 14 (2483712)
I0403 16:25:36.529495 18203 net.cpp:148] Top shape: 24 528 14 14 (2483712)
I0403 16:25:36.529510 18203 net.cpp:148] Top shape: 24 528 14 14 (2483712)
I0403 16:25:36.529525 18203 net.cpp:148] Top shape: 24 528 14 14 (2483712)
I0403 16:25:36.529541 18203 net.cpp:148] Top shape: 24 528 14 14 (2483712)
I0403 16:25:36.529554 18203 net.cpp:156] Memory required for data: 1206918432
I0403 16:25:36.529569 18203 layer_factory.hpp:77] Creating layer loss2/ave_pool
I0403 16:25:36.529592 18203 net.cpp:91] Creating Layer loss2/ave_pool
I0403 16:25:36.529609 18203 net.cpp:425] loss2/ave_pool <- inception_4d/output_inception_4d/output_0_split_0
I0403 16:25:36.529631 18203 net.cpp:399] loss2/ave_pool -> loss2/ave_pool
I0403 16:25:36.529945 18203 net.cpp:141] Setting up loss2/ave_pool
I0403 16:25:36.529973 18203 net.cpp:148] Top shape: 24 528 4 4 (202752)
I0403 16:25:36.529989 18203 net.cpp:156] Memory required for data: 1207729440
I0403 16:25:36.530004 18203 layer_factory.hpp:77] Creating layer loss2/conv
I0403 16:25:36.530025 18203 net.cpp:91] Creating Layer loss2/conv
I0403 16:25:36.530045 18203 net.cpp:425] loss2/conv <- loss2/ave_pool
I0403 16:25:36.530066 18203 net.cpp:399] loss2/conv -> loss2/conv
I0403 16:25:36.531961 18203 net.cpp:141] Setting up loss2/conv
I0403 16:25:36.531991 18203 net.cpp:148] Top shape: 24 128 4 4 (49152)
I0403 16:25:36.532008 18203 net.cpp:156] Memory required for data: 1207926048
I0403 16:25:36.532027 18203 layer_factory.hpp:77] Creating layer loss2/relu_conv
I0403 16:25:36.532048 18203 net.cpp:91] Creating Layer loss2/relu_conv
I0403 16:25:36.532066 18203 net.cpp:425] loss2/relu_conv <- loss2/conv
I0403 16:25:36.532085 18203 net.cpp:386] loss2/relu_conv -> loss2/conv (in-place)
I0403 16:25:36.532371 18203 net.cpp:141] Setting up loss2/relu_conv
I0403 16:25:36.532399 18203 net.cpp:148] Top shape: 24 128 4 4 (49152)
I0403 16:25:36.532415 18203 net.cpp:156] Memory required for data: 1208122656
I0403 16:25:36.532430 18203 layer_factory.hpp:77] Creating layer loss2/fc
I0403 16:25:36.532452 18203 net.cpp:91] Creating Layer loss2/fc
I0403 16:25:36.532471 18203 net.cpp:425] loss2/fc <- loss2/conv
I0403 16:25:36.532493 18203 net.cpp:399] loss2/fc -> loss2/fc
I0403 16:25:36.552142 18203 net.cpp:141] Setting up loss2/fc
I0403 16:25:36.552175 18203 net.cpp:148] Top shape: 24 1024 (24576)
I0403 16:25:36.552189 18203 net.cpp:156] Memory required for data: 1208220960
I0403 16:25:36.552207 18203 layer_factory.hpp:77] Creating layer loss2/relu_fc
I0403 16:25:36.552224 18203 net.cpp:91] Creating Layer loss2/relu_fc
I0403 16:25:36.552242 18203 net.cpp:425] loss2/relu_fc <- loss2/fc
I0403 16:25:36.552261 18203 net.cpp:386] loss2/relu_fc -> loss2/fc (in-place)
I0403 16:25:36.552556 18203 net.cpp:141] Setting up loss2/relu_fc
I0403 16:25:36.552587 18203 net.cpp:148] Top shape: 24 1024 (24576)
I0403 16:25:36.552604 18203 net.cpp:156] Memory required for data: 1208319264
I0403 16:25:36.552619 18203 layer_factory.hpp:77] Creating layer loss2/drop_fc
I0403 16:25:36.552637 18203 net.cpp:91] Creating Layer loss2/drop_fc
I0403 16:25:36.552654 18203 net.cpp:425] loss2/drop_fc <- loss2/fc
I0403 16:25:36.552672 18203 net.cpp:386] loss2/drop_fc -> loss2/fc (in-place)
I0403 16:25:36.552724 18203 net.cpp:141] Setting up loss2/drop_fc
I0403 16:25:36.552747 18203 net.cpp:148] Top shape: 24 1024 (24576)
I0403 16:25:36.552762 18203 net.cpp:156] Memory required for data: 1208417568
I0403 16:25:36.552778 18203 layer_factory.hpp:77] Creating layer loss2/classifier_plantvillage
I0403 16:25:36.552794 18203 net.cpp:91] Creating Layer loss2/classifier_plantvillage
I0403 16:25:36.552811 18203 net.cpp:425] loss2/classifier_plantvillage <- loss2/fc
I0403 16:25:36.552834 18203 net.cpp:399] loss2/classifier_plantvillage -> loss2/classifier_plantvillage
I0403 16:25:36.553228 18203 net.cpp:141] Setting up loss2/classifier_plantvillage
I0403 16:25:36.553253 18203 net.cpp:148] Top shape: 24 38 (912)
I0403 16:25:36.553269 18203 net.cpp:156] Memory required for data: 1208421216
I0403 16:25:36.553304 18203 layer_factory.hpp:77] Creating layer loss2/classifier_plantvillage_loss2/classifier_plantvillage_0_split
I0403 16:25:36.553325 18203 net.cpp:91] Creating Layer loss2/classifier_plantvillage_loss2/classifier_plantvillage_0_split
I0403 16:25:36.553341 18203 net.cpp:425] loss2/classifier_plantvillage_loss2/classifier_plantvillage_0_split <- loss2/classifier_plantvillage
I0403 16:25:36.553361 18203 net.cpp:399] loss2/classifier_plantvillage_loss2/classifier_plantvillage_0_split -> loss2/classifier_plantvillage_loss2/classifier_plantvillage_0_split_0
I0403 16:25:36.553382 18203 net.cpp:399] loss2/classifier_plantvillage_loss2/classifier_plantvillage_0_split -> loss2/classifier_plantvillage_loss2/classifier_plantvillage_0_split_1
I0403 16:25:36.553405 18203 net.cpp:399] loss2/classifier_plantvillage_loss2/classifier_plantvillage_0_split -> loss2/classifier_plantvillage_loss2/classifier_plantvillage_0_split_2
I0403 16:25:36.553483 18203 net.cpp:141] Setting up loss2/classifier_plantvillage_loss2/classifier_plantvillage_0_split
I0403 16:25:36.553506 18203 net.cpp:148] Top shape: 24 38 (912)
I0403 16:25:36.553522 18203 net.cpp:148] Top shape: 24 38 (912)
I0403 16:25:36.553539 18203 net.cpp:148] Top shape: 24 38 (912)
I0403 16:25:36.553551 18203 net.cpp:156] Memory required for data: 1208432160
I0403 16:25:36.553565 18203 layer_factory.hpp:77] Creating layer inception_4e/1x1
I0403 16:25:36.553592 18203 net.cpp:91] Creating Layer inception_4e/1x1
I0403 16:25:36.553612 18203 net.cpp:425] inception_4e/1x1 <- inception_4d/output_inception_4d/output_0_split_1
I0403 16:25:36.553630 18203 net.cpp:399] inception_4e/1x1 -> inception_4e/1x1
I0403 16:25:36.555411 18203 net.cpp:141] Setting up inception_4e/1x1
I0403 16:25:36.555443 18203 net.cpp:148] Top shape: 24 256 14 14 (1204224)
I0403 16:25:36.555459 18203 net.cpp:156] Memory required for data: 1213249056
I0403 16:25:36.555479 18203 layer_factory.hpp:77] Creating layer inception_4e/relu_1x1
I0403 16:25:36.555495 18203 net.cpp:91] Creating Layer inception_4e/relu_1x1
I0403 16:25:36.555512 18203 net.cpp:425] inception_4e/relu_1x1 <- inception_4e/1x1
I0403 16:25:36.555529 18203 net.cpp:386] inception_4e/relu_1x1 -> inception_4e/1x1 (in-place)
I0403 16:25:36.555830 18203 net.cpp:141] Setting up inception_4e/relu_1x1
I0403 16:25:36.555860 18203 net.cpp:148] Top shape: 24 256 14 14 (1204224)
I0403 16:25:36.555876 18203 net.cpp:156] Memory required for data: 1218065952
I0403 16:25:36.555891 18203 layer_factory.hpp:77] Creating layer inception_4e/3x3_reduce
I0403 16:25:36.555912 18203 net.cpp:91] Creating Layer inception_4e/3x3_reduce
I0403 16:25:36.555929 18203 net.cpp:425] inception_4e/3x3_reduce <- inception_4d/output_inception_4d/output_0_split_2
I0403 16:25:36.555949 18203 net.cpp:399] inception_4e/3x3_reduce -> inception_4e/3x3_reduce
I0403 16:25:36.558024 18203 net.cpp:141] Setting up inception_4e/3x3_reduce
I0403 16:25:36.558053 18203 net.cpp:148] Top shape: 24 160 14 14 (752640)
I0403 16:25:36.558070 18203 net.cpp:156] Memory required for data: 1221076512
I0403 16:25:36.558089 18203 layer_factory.hpp:77] Creating layer inception_4e/relu_3x3_reduce
I0403 16:25:36.558109 18203 net.cpp:91] Creating Layer inception_4e/relu_3x3_reduce
I0403 16:25:36.558126 18203 net.cpp:425] inception_4e/relu_3x3_reduce <- inception_4e/3x3_reduce
I0403 16:25:36.558145 18203 net.cpp:386] inception_4e/relu_3x3_reduce -> inception_4e/3x3_reduce (in-place)
I0403 16:25:36.558326 18203 net.cpp:141] Setting up inception_4e/relu_3x3_reduce
I0403 16:25:36.558353 18203 net.cpp:148] Top shape: 24 160 14 14 (752640)
I0403 16:25:36.558368 18203 net.cpp:156] Memory required for data: 1224087072
I0403 16:25:36.558384 18203 layer_factory.hpp:77] Creating layer inception_4e/3x3
I0403 16:25:36.558405 18203 net.cpp:91] Creating Layer inception_4e/3x3
I0403 16:25:36.558423 18203 net.cpp:425] inception_4e/3x3 <- inception_4e/3x3_reduce
I0403 16:25:36.558444 18203 net.cpp:399] inception_4e/3x3 -> inception_4e/3x3
I0403 16:25:36.563323 18203 net.cpp:141] Setting up inception_4e/3x3
I0403 16:25:36.563367 18203 net.cpp:148] Top shape: 24 320 14 14 (1505280)
I0403 16:25:36.563383 18203 net.cpp:156] Memory required for data: 1230108192
I0403 16:25:36.563400 18203 layer_factory.hpp:77] Creating layer inception_4e/relu_3x3
I0403 16:25:36.563418 18203 net.cpp:91] Creating Layer inception_4e/relu_3x3
I0403 16:25:36.563434 18203 net.cpp:425] inception_4e/relu_3x3 <- inception_4e/3x3
I0403 16:25:36.563454 18203 net.cpp:386] inception_4e/relu_3x3 -> inception_4e/3x3 (in-place)
I0403 16:25:36.563755 18203 net.cpp:141] Setting up inception_4e/relu_3x3
I0403 16:25:36.563781 18203 net.cpp:148] Top shape: 24 320 14 14 (1505280)
I0403 16:25:36.563796 18203 net.cpp:156] Memory required for data: 1236129312
I0403 16:25:36.563812 18203 layer_factory.hpp:77] Creating layer inception_4e/5x5_reduce
I0403 16:25:36.563834 18203 net.cpp:91] Creating Layer inception_4e/5x5_reduce
I0403 16:25:36.563853 18203 net.cpp:425] inception_4e/5x5_reduce <- inception_4d/output_inception_4d/output_0_split_3
I0403 16:25:36.563874 18203 net.cpp:399] inception_4e/5x5_reduce -> inception_4e/5x5_reduce
I0403 16:25:36.564934 18203 net.cpp:141] Setting up inception_4e/5x5_reduce
I0403 16:25:36.564962 18203 net.cpp:148] Top shape: 24 32 14 14 (150528)
I0403 16:25:36.564981 18203 net.cpp:156] Memory required for data: 1236731424
I0403 16:25:36.564999 18203 layer_factory.hpp:77] Creating layer inception_4e/relu_5x5_reduce
I0403 16:25:36.565017 18203 net.cpp:91] Creating Layer inception_4e/relu_5x5_reduce
I0403 16:25:36.565035 18203 net.cpp:425] inception_4e/relu_5x5_reduce <- inception_4e/5x5_reduce
I0403 16:25:36.565052 18203 net.cpp:386] inception_4e/relu_5x5_reduce -> inception_4e/5x5_reduce (in-place)
I0403 16:25:36.565343 18203 net.cpp:141] Setting up inception_4e/relu_5x5_reduce
I0403 16:25:36.565369 18203 net.cpp:148] Top shape: 24 32 14 14 (150528)
I0403 16:25:36.565389 18203 net.cpp:156] Memory required for data: 1237333536
I0403 16:25:36.565404 18203 layer_factory.hpp:77] Creating layer inception_4e/5x5
I0403 16:25:36.565440 18203 net.cpp:91] Creating Layer inception_4e/5x5
I0403 16:25:36.565460 18203 net.cpp:425] inception_4e/5x5 <- inception_4e/5x5_reduce
I0403 16:25:36.565481 18203 net.cpp:399] inception_4e/5x5 -> inception_4e/5x5
I0403 16:25:36.567500 18203 net.cpp:141] Setting up inception_4e/5x5
I0403 16:25:36.567528 18203 net.cpp:148] Top shape: 24 128 14 14 (602112)
I0403 16:25:36.567545 18203 net.cpp:156] Memory required for data: 1239741984
I0403 16:25:36.567564 18203 layer_factory.hpp:77] Creating layer inception_4e/relu_5x5
I0403 16:25:36.567594 18203 net.cpp:91] Creating Layer inception_4e/relu_5x5
I0403 16:25:36.567612 18203 net.cpp:425] inception_4e/relu_5x5 <- inception_4e/5x5
I0403 16:25:36.567630 18203 net.cpp:386] inception_4e/relu_5x5 -> inception_4e/5x5 (in-place)
I0403 16:25:36.567822 18203 net.cpp:141] Setting up inception_4e/relu_5x5
I0403 16:25:36.567848 18203 net.cpp:148] Top shape: 24 128 14 14 (602112)
I0403 16:25:36.567863 18203 net.cpp:156] Memory required for data: 1242150432
I0403 16:25:36.567878 18203 layer_factory.hpp:77] Creating layer inception_4e/pool
I0403 16:25:36.567898 18203 net.cpp:91] Creating Layer inception_4e/pool
I0403 16:25:36.567914 18203 net.cpp:425] inception_4e/pool <- inception_4d/output_inception_4d/output_0_split_4
I0403 16:25:36.567932 18203 net.cpp:399] inception_4e/pool -> inception_4e/pool
I0403 16:25:36.568003 18203 net.cpp:141] Setting up inception_4e/pool
I0403 16:25:36.568028 18203 net.cpp:148] Top shape: 24 528 14 14 (2483712)
I0403 16:25:36.568043 18203 net.cpp:156] Memory required for data: 1252085280
I0403 16:25:36.568058 18203 layer_factory.hpp:77] Creating layer inception_4e/pool_proj
I0403 16:25:36.568079 18203 net.cpp:91] Creating Layer inception_4e/pool_proj
I0403 16:25:36.568096 18203 net.cpp:425] inception_4e/pool_proj <- inception_4e/pool
I0403 16:25:36.568117 18203 net.cpp:399] inception_4e/pool_proj -> inception_4e/pool_proj
I0403 16:25:36.569634 18203 net.cpp:141] Setting up inception_4e/pool_proj
I0403 16:25:36.569663 18203 net.cpp:148] Top shape: 24 128 14 14 (602112)
I0403 16:25:36.569692 18203 net.cpp:156] Memory required for data: 1254493728
I0403 16:25:36.569711 18203 layer_factory.hpp:77] Creating layer inception_4e/relu_pool_proj
I0403 16:25:36.569731 18203 net.cpp:91] Creating Layer inception_4e/relu_pool_proj
I0403 16:25:36.569748 18203 net.cpp:425] inception_4e/relu_pool_proj <- inception_4e/pool_proj
I0403 16:25:36.569766 18203 net.cpp:386] inception_4e/relu_pool_proj -> inception_4e/pool_proj (in-place)
I0403 16:25:36.570055 18203 net.cpp:141] Setting up inception_4e/relu_pool_proj
I0403 16:25:36.570082 18203 net.cpp:148] Top shape: 24 128 14 14 (602112)
I0403 16:25:36.570098 18203 net.cpp:156] Memory required for data: 1256902176
I0403 16:25:36.570111 18203 layer_factory.hpp:77] Creating layer inception_4e/output
I0403 16:25:36.570128 18203 net.cpp:91] Creating Layer inception_4e/output
I0403 16:25:36.570144 18203 net.cpp:425] inception_4e/output <- inception_4e/1x1
I0403 16:25:36.570161 18203 net.cpp:425] inception_4e/output <- inception_4e/3x3
I0403 16:25:36.570178 18203 net.cpp:425] inception_4e/output <- inception_4e/5x5
I0403 16:25:36.570193 18203 net.cpp:425] inception_4e/output <- inception_4e/pool_proj
I0403 16:25:36.570211 18203 net.cpp:399] inception_4e/output -> inception_4e/output
I0403 16:25:36.570260 18203 net.cpp:141] Setting up inception_4e/output
I0403 16:25:36.570286 18203 net.cpp:148] Top shape: 24 832 14 14 (3913728)
I0403 16:25:36.570300 18203 net.cpp:156] Memory required for data: 1272557088
I0403 16:25:36.570317 18203 layer_factory.hpp:77] Creating layer pool4/3x3_s2
I0403 16:25:36.570333 18203 net.cpp:91] Creating Layer pool4/3x3_s2
I0403 16:25:36.570348 18203 net.cpp:425] pool4/3x3_s2 <- inception_4e/output
I0403 16:25:36.570369 18203 net.cpp:399] pool4/3x3_s2 -> pool4/3x3_s2
I0403 16:25:36.570436 18203 net.cpp:141] Setting up pool4/3x3_s2
I0403 16:25:36.570459 18203 net.cpp:148] Top shape: 24 832 7 7 (978432)
I0403 16:25:36.570474 18203 net.cpp:156] Memory required for data: 1276470816
I0403 16:25:36.570488 18203 layer_factory.hpp:77] Creating layer pool4/3x3_s2_pool4/3x3_s2_0_split
I0403 16:25:36.570515 18203 net.cpp:91] Creating Layer pool4/3x3_s2_pool4/3x3_s2_0_split
I0403 16:25:36.570533 18203 net.cpp:425] pool4/3x3_s2_pool4/3x3_s2_0_split <- pool4/3x3_s2
I0403 16:25:36.570550 18203 net.cpp:399] pool4/3x3_s2_pool4/3x3_s2_0_split -> pool4/3x3_s2_pool4/3x3_s2_0_split_0
I0403 16:25:36.570569 18203 net.cpp:399] pool4/3x3_s2_pool4/3x3_s2_0_split -> pool4/3x3_s2_pool4/3x3_s2_0_split_1
I0403 16:25:36.570596 18203 net.cpp:399] pool4/3x3_s2_pool4/3x3_s2_0_split -> pool4/3x3_s2_pool4/3x3_s2_0_split_2
I0403 16:25:36.570621 18203 net.cpp:399] pool4/3x3_s2_pool4/3x3_s2_0_split -> pool4/3x3_s2_pool4/3x3_s2_0_split_3
I0403 16:25:36.570713 18203 net.cpp:141] Setting up pool4/3x3_s2_pool4/3x3_s2_0_split
I0403 16:25:36.570736 18203 net.cpp:148] Top shape: 24 832 7 7 (978432)
I0403 16:25:36.570752 18203 net.cpp:148] Top shape: 24 832 7 7 (978432)
I0403 16:25:36.570768 18203 net.cpp:148] Top shape: 24 832 7 7 (978432)
I0403 16:25:36.570783 18203 net.cpp:148] Top shape: 24 832 7 7 (978432)
I0403 16:25:36.570797 18203 net.cpp:156] Memory required for data: 1292125728
I0403 16:25:36.570822 18203 layer_factory.hpp:77] Creating layer inception_5a/1x1
I0403 16:25:36.570843 18203 net.cpp:91] Creating Layer inception_5a/1x1
I0403 16:25:36.570861 18203 net.cpp:425] inception_5a/1x1 <- pool4/3x3_s2_pool4/3x3_s2_0_split_0
I0403 16:25:36.570883 18203 net.cpp:399] inception_5a/1x1 -> inception_5a/1x1
I0403 16:25:36.573668 18203 net.cpp:141] Setting up inception_5a/1x1
I0403 16:25:36.573698 18203 net.cpp:148] Top shape: 24 256 7 7 (301056)
I0403 16:25:36.573714 18203 net.cpp:156] Memory required for data: 1293329952
I0403 16:25:36.573732 18203 layer_factory.hpp:77] Creating layer inception_5a/relu_1x1
I0403 16:25:36.573752 18203 net.cpp:91] Creating Layer inception_5a/relu_1x1
I0403 16:25:36.573770 18203 net.cpp:425] inception_5a/relu_1x1 <- inception_5a/1x1
I0403 16:25:36.573786 18203 net.cpp:386] inception_5a/relu_1x1 -> inception_5a/1x1 (in-place)
I0403 16:25:36.574090 18203 net.cpp:141] Setting up inception_5a/relu_1x1
I0403 16:25:36.574116 18203 net.cpp:148] Top shape: 24 256 7 7 (301056)
I0403 16:25:36.574132 18203 net.cpp:156] Memory required for data: 1294534176
I0403 16:25:36.574147 18203 layer_factory.hpp:77] Creating layer inception_5a/3x3_reduce
I0403 16:25:36.574168 18203 net.cpp:91] Creating Layer inception_5a/3x3_reduce
I0403 16:25:36.574187 18203 net.cpp:425] inception_5a/3x3_reduce <- pool4/3x3_s2_pool4/3x3_s2_0_split_1
I0403 16:25:36.574208 18203 net.cpp:399] inception_5a/3x3_reduce -> inception_5a/3x3_reduce
I0403 16:25:36.576622 18203 net.cpp:141] Setting up inception_5a/3x3_reduce
I0403 16:25:36.576652 18203 net.cpp:148] Top shape: 24 160 7 7 (188160)
I0403 16:25:36.576668 18203 net.cpp:156] Memory required for data: 1295286816
I0403 16:25:36.576686 18203 layer_factory.hpp:77] Creating layer inception_5a/relu_3x3_reduce
I0403 16:25:36.576704 18203 net.cpp:91] Creating Layer inception_5a/relu_3x3_reduce
I0403 16:25:36.576720 18203 net.cpp:425] inception_5a/relu_3x3_reduce <- inception_5a/3x3_reduce
I0403 16:25:36.576740 18203 net.cpp:386] inception_5a/relu_3x3_reduce -> inception_5a/3x3_reduce (in-place)
I0403 16:25:36.576925 18203 net.cpp:141] Setting up inception_5a/relu_3x3_reduce
I0403 16:25:36.576951 18203 net.cpp:148] Top shape: 24 160 7 7 (188160)
I0403 16:25:36.576966 18203 net.cpp:156] Memory required for data: 1296039456
I0403 16:25:36.576980 18203 layer_factory.hpp:77] Creating layer inception_5a/3x3
I0403 16:25:36.577003 18203 net.cpp:91] Creating Layer inception_5a/3x3
I0403 16:25:36.577020 18203 net.cpp:425] inception_5a/3x3 <- inception_5a/3x3_reduce
I0403 16:25:36.577042 18203 net.cpp:399] inception_5a/3x3 -> inception_5a/3x3
I0403 16:25:36.581965 18203 net.cpp:141] Setting up inception_5a/3x3
I0403 16:25:36.581996 18203 net.cpp:148] Top shape: 24 320 7 7 (376320)
I0403 16:25:36.582013 18203 net.cpp:156] Memory required for data: 1297544736
I0403 16:25:36.582031 18203 layer_factory.hpp:77] Creating layer inception_5a/relu_3x3
I0403 16:25:36.582052 18203 net.cpp:91] Creating Layer inception_5a/relu_3x3
I0403 16:25:36.582070 18203 net.cpp:425] inception_5a/relu_3x3 <- inception_5a/3x3
I0403 16:25:36.582090 18203 net.cpp:386] inception_5a/relu_3x3 -> inception_5a/3x3 (in-place)
I0403 16:25:36.582377 18203 net.cpp:141] Setting up inception_5a/relu_3x3
I0403 16:25:36.582404 18203 net.cpp:148] Top shape: 24 320 7 7 (376320)
I0403 16:25:36.582419 18203 net.cpp:156] Memory required for data: 1299050016
I0403 16:25:36.582435 18203 layer_factory.hpp:77] Creating layer inception_5a/5x5_reduce
I0403 16:25:36.582458 18203 net.cpp:91] Creating Layer inception_5a/5x5_reduce
I0403 16:25:36.582476 18203 net.cpp:425] inception_5a/5x5_reduce <- pool4/3x3_s2_pool4/3x3_s2_0_split_2
I0403 16:25:36.582499 18203 net.cpp:399] inception_5a/5x5_reduce -> inception_5a/5x5_reduce
I0403 16:25:36.583704 18203 net.cpp:141] Setting up inception_5a/5x5_reduce
I0403 16:25:36.583734 18203 net.cpp:148] Top shape: 24 32 7 7 (37632)
I0403 16:25:36.583750 18203 net.cpp:156] Memory required for data: 1299200544
I0403 16:25:36.583770 18203 layer_factory.hpp:77] Creating layer inception_5a/relu_5x5_reduce
I0403 16:25:36.583791 18203 net.cpp:91] Creating Layer inception_5a/relu_5x5_reduce
I0403 16:25:36.583809 18203 net.cpp:425] inception_5a/relu_5x5_reduce <- inception_5a/5x5_reduce
I0403 16:25:36.583827 18203 net.cpp:386] inception_5a/relu_5x5_reduce -> inception_5a/5x5_reduce (in-place)
I0403 16:25:36.584132 18203 net.cpp:141] Setting up inception_5a/relu_5x5_reduce
I0403 16:25:36.584159 18203 net.cpp:148] Top shape: 24 32 7 7 (37632)
I0403 16:25:36.584175 18203 net.cpp:156] Memory required for data: 1299351072
I0403 16:25:36.584190 18203 layer_factory.hpp:77] Creating layer inception_5a/5x5
I0403 16:25:36.584214 18203 net.cpp:91] Creating Layer inception_5a/5x5
I0403 16:25:36.584233 18203 net.cpp:425] inception_5a/5x5 <- inception_5a/5x5_reduce
I0403 16:25:36.584252 18203 net.cpp:399] inception_5a/5x5 -> inception_5a/5x5
I0403 16:25:36.586011 18203 net.cpp:141] Setting up inception_5a/5x5
I0403 16:25:36.586052 18203 net.cpp:148] Top shape: 24 128 7 7 (150528)
I0403 16:25:36.586069 18203 net.cpp:156] Memory required for data: 1299953184
I0403 16:25:36.586089 18203 layer_factory.hpp:77] Creating layer inception_5a/relu_5x5
I0403 16:25:36.586110 18203 net.cpp:91] Creating Layer inception_5a/relu_5x5
I0403 16:25:36.586128 18203 net.cpp:425] inception_5a/relu_5x5 <- inception_5a/5x5
I0403 16:25:36.586146 18203 net.cpp:386] inception_5a/relu_5x5 -> inception_5a/5x5 (in-place)
I0403 16:25:36.586340 18203 net.cpp:141] Setting up inception_5a/relu_5x5
I0403 16:25:36.586369 18203 net.cpp:148] Top shape: 24 128 7 7 (150528)
I0403 16:25:36.586387 18203 net.cpp:156] Memory required for data: 1300555296
I0403 16:25:36.586402 18203 layer_factory.hpp:77] Creating layer inception_5a/pool
I0403 16:25:36.586419 18203 net.cpp:91] Creating Layer inception_5a/pool
I0403 16:25:36.586436 18203 net.cpp:425] inception_5a/pool <- pool4/3x3_s2_pool4/3x3_s2_0_split_3
I0403 16:25:36.586457 18203 net.cpp:399] inception_5a/pool -> inception_5a/pool
I0403 16:25:36.586542 18203 net.cpp:141] Setting up inception_5a/pool
I0403 16:25:36.586568 18203 net.cpp:148] Top shape: 24 832 7 7 (978432)
I0403 16:25:36.586590 18203 net.cpp:156] Memory required for data: 1304469024
I0403 16:25:36.586606 18203 layer_factory.hpp:77] Creating layer inception_5a/pool_proj
I0403 16:25:36.586627 18203 net.cpp:91] Creating Layer inception_5a/pool_proj
I0403 16:25:36.586647 18203 net.cpp:425] inception_5a/pool_proj <- inception_5a/pool
I0403 16:25:36.586669 18203 net.cpp:399] inception_5a/pool_proj -> inception_5a/pool_proj
I0403 16:25:36.588989 18203 net.cpp:141] Setting up inception_5a/pool_proj
I0403 16:25:36.589020 18203 net.cpp:148] Top shape: 24 128 7 7 (150528)
I0403 16:25:36.589037 18203 net.cpp:156] Memory required for data: 1305071136
I0403 16:25:36.589056 18203 layer_factory.hpp:77] Creating layer inception_5a/relu_pool_proj
I0403 16:25:36.589073 18203 net.cpp:91] Creating Layer inception_5a/relu_pool_proj
I0403 16:25:36.589089 18203 net.cpp:425] inception_5a/relu_pool_proj <- inception_5a/pool_proj
I0403 16:25:36.589110 18203 net.cpp:386] inception_5a/relu_pool_proj -> inception_5a/pool_proj (in-place)
I0403 16:25:36.589412 18203 net.cpp:141] Setting up inception_5a/relu_pool_proj
I0403 16:25:36.589439 18203 net.cpp:148] Top shape: 24 128 7 7 (150528)
I0403 16:25:36.589455 18203 net.cpp:156] Memory required for data: 1305673248
I0403 16:25:36.589470 18203 layer_factory.hpp:77] Creating layer inception_5a/output
I0403 16:25:36.589488 18203 net.cpp:91] Creating Layer inception_5a/output
I0403 16:25:36.589505 18203 net.cpp:425] inception_5a/output <- inception_5a/1x1
I0403 16:25:36.589524 18203 net.cpp:425] inception_5a/output <- inception_5a/3x3
I0403 16:25:36.589540 18203 net.cpp:425] inception_5a/output <- inception_5a/5x5
I0403 16:25:36.589556 18203 net.cpp:425] inception_5a/output <- inception_5a/pool_proj
I0403 16:25:36.589581 18203 net.cpp:399] inception_5a/output -> inception_5a/output
I0403 16:25:36.589634 18203 net.cpp:141] Setting up inception_5a/output
I0403 16:25:36.589663 18203 net.cpp:148] Top shape: 24 832 7 7 (978432)
I0403 16:25:36.589679 18203 net.cpp:156] Memory required for data: 1309586976
I0403 16:25:36.589694 18203 layer_factory.hpp:77] Creating layer inception_5a/output_inception_5a/output_0_split
I0403 16:25:36.589710 18203 net.cpp:91] Creating Layer inception_5a/output_inception_5a/output_0_split
I0403 16:25:36.589725 18203 net.cpp:425] inception_5a/output_inception_5a/output_0_split <- inception_5a/output
I0403 16:25:36.589743 18203 net.cpp:399] inception_5a/output_inception_5a/output_0_split -> inception_5a/output_inception_5a/output_0_split_0
I0403 16:25:36.589767 18203 net.cpp:399] inception_5a/output_inception_5a/output_0_split -> inception_5a/output_inception_5a/output_0_split_1
I0403 16:25:36.589792 18203 net.cpp:399] inception_5a/output_inception_5a/output_0_split -> inception_5a/output_inception_5a/output_0_split_2
I0403 16:25:36.589812 18203 net.cpp:399] inception_5a/output_inception_5a/output_0_split -> inception_5a/output_inception_5a/output_0_split_3
I0403 16:25:36.589926 18203 net.cpp:141] Setting up inception_5a/output_inception_5a/output_0_split
I0403 16:25:36.589951 18203 net.cpp:148] Top shape: 24 832 7 7 (978432)
I0403 16:25:36.589967 18203 net.cpp:148] Top shape: 24 832 7 7 (978432)
I0403 16:25:36.589983 18203 net.cpp:148] Top shape: 24 832 7 7 (978432)
I0403 16:25:36.589999 18203 net.cpp:148] Top shape: 24 832 7 7 (978432)
I0403 16:25:36.590013 18203 net.cpp:156] Memory required for data: 1325241888
I0403 16:25:36.590028 18203 layer_factory.hpp:77] Creating layer inception_5b/1x1
I0403 16:25:36.590051 18203 net.cpp:91] Creating Layer inception_5b/1x1
I0403 16:25:36.590070 18203 net.cpp:425] inception_5b/1x1 <- inception_5a/output_inception_5a/output_0_split_0
I0403 16:25:36.590090 18203 net.cpp:399] inception_5b/1x1 -> inception_5b/1x1
I0403 16:25:36.593878 18203 net.cpp:141] Setting up inception_5b/1x1
I0403 16:25:36.593909 18203 net.cpp:148] Top shape: 24 384 7 7 (451584)
I0403 16:25:36.593926 18203 net.cpp:156] Memory required for data: 1327048224
I0403 16:25:36.593945 18203 layer_factory.hpp:77] Creating layer inception_5b/relu_1x1
I0403 16:25:36.593963 18203 net.cpp:91] Creating Layer inception_5b/relu_1x1
I0403 16:25:36.593981 18203 net.cpp:425] inception_5b/relu_1x1 <- inception_5b/1x1
I0403 16:25:36.594000 18203 net.cpp:386] inception_5b/relu_1x1 -> inception_5b/1x1 (in-place)
I0403 16:25:36.594307 18203 net.cpp:141] Setting up inception_5b/relu_1x1
I0403 16:25:36.594336 18203 net.cpp:148] Top shape: 24 384 7 7 (451584)
I0403 16:25:36.594352 18203 net.cpp:156] Memory required for data: 1328854560
I0403 16:25:36.594367 18203 layer_factory.hpp:77] Creating layer inception_5b/3x3_reduce
I0403 16:25:36.594389 18203 net.cpp:91] Creating Layer inception_5b/3x3_reduce
I0403 16:25:36.594408 18203 net.cpp:425] inception_5b/3x3_reduce <- inception_5a/output_inception_5a/output_0_split_1
I0403 16:25:36.594431 18203 net.cpp:399] inception_5b/3x3_reduce -> inception_5b/3x3_reduce
I0403 16:25:36.597131 18203 net.cpp:141] Setting up inception_5b/3x3_reduce
I0403 16:25:36.597163 18203 net.cpp:148] Top shape: 24 192 7 7 (225792)
I0403 16:25:36.597180 18203 net.cpp:156] Memory required for data: 1329757728
I0403 16:25:36.597199 18203 layer_factory.hpp:77] Creating layer inception_5b/relu_3x3_reduce
I0403 16:25:36.597219 18203 net.cpp:91] Creating Layer inception_5b/relu_3x3_reduce
I0403 16:25:36.597237 18203 net.cpp:425] inception_5b/relu_3x3_reduce <- inception_5b/3x3_reduce
I0403 16:25:36.597257 18203 net.cpp:386] inception_5b/relu_3x3_reduce -> inception_5b/3x3_reduce (in-place)
I0403 16:25:36.597450 18203 net.cpp:141] Setting up inception_5b/relu_3x3_reduce
I0403 16:25:36.597476 18203 net.cpp:148] Top shape: 24 192 7 7 (225792)
I0403 16:25:36.597493 18203 net.cpp:156] Memory required for data: 1330660896
I0403 16:25:36.597508 18203 layer_factory.hpp:77] Creating layer inception_5b/3x3
I0403 16:25:36.597530 18203 net.cpp:91] Creating Layer inception_5b/3x3
I0403 16:25:36.597548 18203 net.cpp:425] inception_5b/3x3 <- inception_5b/3x3_reduce
I0403 16:25:36.597575 18203 net.cpp:399] inception_5b/3x3 -> inception_5b/3x3
I0403 16:25:36.604287 18203 net.cpp:141] Setting up inception_5b/3x3
I0403 16:25:36.604316 18203 net.cpp:148] Top shape: 24 384 7 7 (451584)
I0403 16:25:36.604331 18203 net.cpp:156] Memory required for data: 1332467232
I0403 16:25:36.604349 18203 layer_factory.hpp:77] Creating layer inception_5b/relu_3x3
I0403 16:25:36.604369 18203 net.cpp:91] Creating Layer inception_5b/relu_3x3
I0403 16:25:36.604387 18203 net.cpp:425] inception_5b/relu_3x3 <- inception_5b/3x3
I0403 16:25:36.604404 18203 net.cpp:386] inception_5b/relu_3x3 -> inception_5b/3x3 (in-place)
I0403 16:25:36.604708 18203 net.cpp:141] Setting up inception_5b/relu_3x3
I0403 16:25:36.604735 18203 net.cpp:148] Top shape: 24 384 7 7 (451584)
I0403 16:25:36.604753 18203 net.cpp:156] Memory required for data: 1334273568
I0403 16:25:36.604768 18203 layer_factory.hpp:77] Creating layer inception_5b/5x5_reduce
I0403 16:25:36.604805 18203 net.cpp:91] Creating Layer inception_5b/5x5_reduce
I0403 16:25:36.604825 18203 net.cpp:425] inception_5b/5x5_reduce <- inception_5a/output_inception_5a/output_0_split_2
I0403 16:25:36.604851 18203 net.cpp:399] inception_5b/5x5_reduce -> inception_5b/5x5_reduce
I0403 16:25:36.606107 18203 net.cpp:141] Setting up inception_5b/5x5_reduce
I0403 16:25:36.606135 18203 net.cpp:148] Top shape: 24 48 7 7 (56448)
I0403 16:25:36.606151 18203 net.cpp:156] Memory required for data: 1334499360
I0403 16:25:36.606169 18203 layer_factory.hpp:77] Creating layer inception_5b/relu_5x5_reduce
I0403 16:25:36.606189 18203 net.cpp:91] Creating Layer inception_5b/relu_5x5_reduce
I0403 16:25:36.606205 18203 net.cpp:425] inception_5b/relu_5x5_reduce <- inception_5b/5x5_reduce
I0403 16:25:36.606222 18203 net.cpp:386] inception_5b/relu_5x5_reduce -> inception_5b/5x5_reduce (in-place)
I0403 16:25:36.606593 18203 net.cpp:141] Setting up inception_5b/relu_5x5_reduce
I0403 16:25:36.606621 18203 net.cpp:148] Top shape: 24 48 7 7 (56448)
I0403 16:25:36.606637 18203 net.cpp:156] Memory required for data: 1334725152
I0403 16:25:36.606652 18203 layer_factory.hpp:77] Creating layer inception_5b/5x5
I0403 16:25:36.606672 18203 net.cpp:91] Creating Layer inception_5b/5x5
I0403 16:25:36.606688 18203 net.cpp:425] inception_5b/5x5 <- inception_5b/5x5_reduce
I0403 16:25:36.606708 18203 net.cpp:399] inception_5b/5x5 -> inception_5b/5x5
I0403 16:25:36.608717 18203 net.cpp:141] Setting up inception_5b/5x5
I0403 16:25:36.608746 18203 net.cpp:148] Top shape: 24 128 7 7 (150528)
I0403 16:25:36.608762 18203 net.cpp:156] Memory required for data: 1335327264
I0403 16:25:36.608780 18203 layer_factory.hpp:77] Creating layer inception_5b/relu_5x5
I0403 16:25:36.608800 18203 net.cpp:91] Creating Layer inception_5b/relu_5x5
I0403 16:25:36.608817 18203 net.cpp:425] inception_5b/relu_5x5 <- inception_5b/5x5
I0403 16:25:36.608835 18203 net.cpp:386] inception_5b/relu_5x5 -> inception_5b/5x5 (in-place)
I0403 16:25:36.609026 18203 net.cpp:141] Setting up inception_5b/relu_5x5
I0403 16:25:36.609055 18203 net.cpp:148] Top shape: 24 128 7 7 (150528)
I0403 16:25:36.609071 18203 net.cpp:156] Memory required for data: 1335929376
I0403 16:25:36.609086 18203 layer_factory.hpp:77] Creating layer inception_5b/pool
I0403 16:25:36.609102 18203 net.cpp:91] Creating Layer inception_5b/pool
I0403 16:25:36.609119 18203 net.cpp:425] inception_5b/pool <- inception_5a/output_inception_5a/output_0_split_3
I0403 16:25:36.609138 18203 net.cpp:399] inception_5b/pool -> inception_5b/pool
I0403 16:25:36.609210 18203 net.cpp:141] Setting up inception_5b/pool
I0403 16:25:36.609233 18203 net.cpp:148] Top shape: 24 832 7 7 (978432)
I0403 16:25:36.609248 18203 net.cpp:156] Memory required for data: 1339843104
I0403 16:25:36.609262 18203 layer_factory.hpp:77] Creating layer inception_5b/pool_proj
I0403 16:25:36.609283 18203 net.cpp:91] Creating Layer inception_5b/pool_proj
I0403 16:25:36.609302 18203 net.cpp:425] inception_5b/pool_proj <- inception_5b/pool
I0403 16:25:36.609323 18203 net.cpp:399] inception_5b/pool_proj -> inception_5b/pool_proj
I0403 16:25:36.611580 18203 net.cpp:141] Setting up inception_5b/pool_proj
I0403 16:25:36.611611 18203 net.cpp:148] Top shape: 24 128 7 7 (150528)
I0403 16:25:36.611627 18203 net.cpp:156] Memory required for data: 1340445216
I0403 16:25:36.611645 18203 layer_factory.hpp:77] Creating layer inception_5b/relu_pool_proj
I0403 16:25:36.611666 18203 net.cpp:91] Creating Layer inception_5b/relu_pool_proj
I0403 16:25:36.611683 18203 net.cpp:425] inception_5b/relu_pool_proj <- inception_5b/pool_proj
I0403 16:25:36.611702 18203 net.cpp:386] inception_5b/relu_pool_proj -> inception_5b/pool_proj (in-place)
I0403 16:25:36.611995 18203 net.cpp:141] Setting up inception_5b/relu_pool_proj
I0403 16:25:36.612022 18203 net.cpp:148] Top shape: 24 128 7 7 (150528)
I0403 16:25:36.612037 18203 net.cpp:156] Memory required for data: 1341047328
I0403 16:25:36.612052 18203 layer_factory.hpp:77] Creating layer inception_5b/output
I0403 16:25:36.612069 18203 net.cpp:91] Creating Layer inception_5b/output
I0403 16:25:36.612102 18203 net.cpp:425] inception_5b/output <- inception_5b/1x1
I0403 16:25:36.612118 18203 net.cpp:425] inception_5b/output <- inception_5b/3x3
I0403 16:25:36.612133 18203 net.cpp:425] inception_5b/output <- inception_5b/5x5
I0403 16:25:36.612149 18203 net.cpp:425] inception_5b/output <- inception_5b/pool_proj
I0403 16:25:36.612166 18203 net.cpp:399] inception_5b/output -> inception_5b/output
I0403 16:25:36.612217 18203 net.cpp:141] Setting up inception_5b/output
I0403 16:25:36.612243 18203 net.cpp:148] Top shape: 24 1024 7 7 (1204224)
I0403 16:25:36.612259 18203 net.cpp:156] Memory required for data: 1345864224
I0403 16:25:36.612274 18203 layer_factory.hpp:77] Creating layer pool5/7x7_s1
I0403 16:25:36.612292 18203 net.cpp:91] Creating Layer pool5/7x7_s1
I0403 16:25:36.612308 18203 net.cpp:425] pool5/7x7_s1 <- inception_5b/output
I0403 16:25:36.612328 18203 net.cpp:399] pool5/7x7_s1 -> pool5/7x7_s1
I0403 16:25:36.612542 18203 net.cpp:141] Setting up pool5/7x7_s1
I0403 16:25:36.612568 18203 net.cpp:148] Top shape: 24 1024 1 1 (24576)
I0403 16:25:36.612591 18203 net.cpp:156] Memory required for data: 1345962528
I0403 16:25:36.612607 18203 layer_factory.hpp:77] Creating layer pool5/drop_7x7_s1
I0403 16:25:36.612627 18203 net.cpp:91] Creating Layer pool5/drop_7x7_s1
I0403 16:25:36.612644 18203 net.cpp:425] pool5/drop_7x7_s1 <- pool5/7x7_s1
I0403 16:25:36.612663 18203 net.cpp:386] pool5/drop_7x7_s1 -> pool5/7x7_s1 (in-place)
I0403 16:25:36.612712 18203 net.cpp:141] Setting up pool5/drop_7x7_s1
I0403 16:25:36.612735 18203 net.cpp:148] Top shape: 24 1024 1 1 (24576)
I0403 16:25:36.612749 18203 net.cpp:156] Memory required for data: 1346060832
I0403 16:25:36.612764 18203 layer_factory.hpp:77] Creating layer loss3/classifier_plantvillage
I0403 16:25:36.612783 18203 net.cpp:91] Creating Layer loss3/classifier_plantvillage
I0403 16:25:36.612799 18203 net.cpp:425] loss3/classifier_plantvillage <- pool5/7x7_s1
I0403 16:25:36.612820 18203 net.cpp:399] loss3/classifier_plantvillage -> loss3/classifier_plantvillage
I0403 16:25:36.613255 18203 net.cpp:141] Setting up loss3/classifier_plantvillage
I0403 16:25:36.613281 18203 net.cpp:148] Top shape: 24 38 (912)
I0403 16:25:36.613296 18203 net.cpp:156] Memory required for data: 1346064480
I0403 16:25:36.613314 18203 layer_factory.hpp:77] Creating layer loss3/classifier_plantvillage_loss3/classifier_plantvillage_0_split
I0403 16:25:36.613332 18203 net.cpp:91] Creating Layer loss3/classifier_plantvillage_loss3/classifier_plantvillage_0_split
I0403 16:25:36.613348 18203 net.cpp:425] loss3/classifier_plantvillage_loss3/classifier_plantvillage_0_split <- loss3/classifier_plantvillage
I0403 16:25:36.613369 18203 net.cpp:399] loss3/classifier_plantvillage_loss3/classifier_plantvillage_0_split -> loss3/classifier_plantvillage_loss3/classifier_plantvillage_0_split_0
I0403 16:25:36.613390 18203 net.cpp:399] loss3/classifier_plantvillage_loss3/classifier_plantvillage_0_split -> loss3/classifier_plantvillage_loss3/classifier_plantvillage_0_split_1
I0403 16:25:36.613412 18203 net.cpp:399] loss3/classifier_plantvillage_loss3/classifier_plantvillage_0_split -> loss3/classifier_plantvillage_loss3/classifier_plantvillage_0_split_2
I0403 16:25:36.613435 18203 net.cpp:399] loss3/classifier_plantvillage_loss3/classifier_plantvillage_0_split -> loss3/classifier_plantvillage_loss3/classifier_plantvillage_0_split_3
I0403 16:25:36.613551 18203 net.cpp:141] Setting up loss3/classifier_plantvillage_loss3/classifier_plantvillage_0_split
I0403 16:25:36.613580 18203 net.cpp:148] Top shape: 24 38 (912)
I0403 16:25:36.613598 18203 net.cpp:148] Top shape: 24 38 (912)
I0403 16:25:36.613615 18203 net.cpp:148] Top shape: 24 38 (912)
I0403 16:25:36.613629 18203 net.cpp:148] Top shape: 24 38 (912)
I0403 16:25:36.613643 18203 net.cpp:156] Memory required for data: 1346079072
I0403 16:25:36.613658 18203 layer_factory.hpp:77] Creating layer loss1/loss
I0403 16:25:36.613682 18203 net.cpp:91] Creating Layer loss1/loss
I0403 16:25:36.613700 18203 net.cpp:425] loss1/loss <- loss1/classifier_plantvillage_loss1/classifier_plantvillage_0_split_0
I0403 16:25:36.613729 18203 net.cpp:425] loss1/loss <- label_data_1_split_0
…
