…
I0403 17:14:31.231812 20871 net.cpp:313] The NetState phase (1) differed from the phase (0) specified by a rule in layer data
I0403 17:14:31.234694 20871 net.cpp:49] Initializing net from parameters: 
state {
  phase: TEST
}
layer {
  name: "data"
  type: "Data"
  top: "data"
  top: "label"
  include {
    phase: TEST
  }
  transform_param {
    mirror: false
    crop_size: 224
    mean_file: "/home/mohanty/data/final_dataset/lmdb/color-20-80/mean.binaryproto"
  }
  data_param {
    source: "/home/mohanty/data/final_dataset/lmdb/color-20-80/test_db"
    batch_size: 24
    backend: LMDB
  }
}
layer {
  name: "conv1/7x7_s2"
  type: "Convolution"
  bottom: "data"
  top: "conv1/7x7_s2"
  param {
    lr_mult: 1
    decay_mult: 1
  }
  param {
    lr_mult: 2
    decay_mult: 0
  }
  convolution_param {
    num_output: 64
    pad: 3
    kernel_size: 7
    stride: 2
    weight_filler {
      type: "xavier"
      std: 0.1
    }
    bias_filler {
      type: "constant"
      value: 0.2
    }
  }
}
layer {
  name: "conv1/relu_7x7"
  type: "ReLU"
  bottom: "conv1/7x7_s2"
  top: "conv1/7x7_s2"
}
layer {
  name: "pool1/3x3_s2"
  type: "Pooling"
  bottom: "conv1/7x7_s2"
  top: "pool1/3x3_s2"
  pooling_param {
    pool: MAX
    kernel_size: 3
    stride: 2
  }
}
layer {
  name: "pool1/norm1"
  type: "LRN"
  bottom: "pool1/3x3_s2"
  top: "pool1/norm1"
  lrn_param {
    local_size: 5
    alpha: 0.0001
    beta: 0.75
  }
}
layer {
  name: "conv2/3x3_reduce"
  type: "Convolution"
  bottom: "pool1/norm1"
  top: "conv2/3x3_reduce"
  param {
    lr_mult: 1
    decay_mult: 1
  }
  param {
    lr_mult: 2
    decay_mult: 0
  }
  convolution_param {
    num_output: 64
    kernel_size: 1
    weight_filler {
      type: "xavier"
      std: 0.1
    }
    bias_filler {
      type: "constant"
      value: 0.2
    }
  }
}
layer {
  name: "conv2/relu_3x3_reduce"
  type: "ReLU"
  bottom: "conv2/3x3_reduce"
  top: "conv2/3x3_reduce"
}
layer {
  name: "conv2/3x3"
  type: "Convolution"
  bottom: "conv2/3x3_reduce"
  top: "conv2/3x3"
  param {
    lr_mult: 1
    decay_mult: 1
  }
  param {
    lr_mult: 2
    decay_mult: 0
  }
  convolution_param {
    num_output: 192
    pad: 1
    kernel_size: 3
    weight_filler {
      type: "xavier"
      std: 0.03
    }
    bias_filler {
      type: "constant"
      value: 0.2
    }
  }
}
layer {
  name: "conv2/relu_3x3"
  type: "ReLU"
  bottom: "conv2/3x3"
  top: "conv2/3x3"
}
layer {
  name: "conv2/norm2"
  type: "LRN"
  bottom: "conv2/3x3"
  top: "conv2/norm2"
  lrn_param {
    local_size: 5
    alpha: 0.0001
    beta: 0.75
  }
}
layer {
  name: "pool2/3x3_s2"
  type: "Pooling"
  bottom: "conv2/norm2"
  top: "pool2/3x3_s2"
  pooling_param {
    pool: MAX
    kernel_size: 3
    stride: 2
  }
}
layer {
  name: "inception_3a/1x1"
  type: "Convolution"
  bottom: "pool2/3x3_s2"
  top: "inception_3a/1x1"
  param {
    lr_mult: 1
    decay_mult: 1
  }
  param {
    lr_mult: 2
    decay_mult: 0
  }
  convolution_param {
    num_output: 64
    kernel_size: 1
    weight_filler {
      type: "xavier"
      std: 0.03
    }
    bias_filler {
      type: "constant"
      value: 0.2
    }
  }
}
layer {
  name: "inception_3a/relu_1x1"
  type: "ReLU"
  bottom: "inception_3a/1x1"
  top: "inception_3a/1x1"
}
layer {
  name: "inception_3a/3x3_reduce"
  type: "Convolution"
  bottom: "pool2/3x3_s2"
  top: "inception_3a/3x3_reduce"
  param {
    lr_mult: 1
    decay_mult: 1
  }
  param {
    lr_mult: 2
    decay_mult: 0
  }
  convolution_param {
    num_output: 96
    kernel_size: 1
    weight_filler {
      type: "xavier"
      std: 0.09
    }
    bias_filler {
      type: "constant"
      value: 0.2
    }
  }
}
layer {
  name: "inception_3a/relu_3x3_reduce"
  type: "ReLU"
  bottom: "inception_3a/3x3_reduce"
  top: "inception_3a/3x3_reduce"
}
layer {
  name: "inception_3a/3x3"
  type: "Convolution"
  bottom: "inception_3a/3x3_reduce"
  top: "inception_3a/3x3"
  param {
    lr_mult: 1
    decay_mult: 1
  }
  param {
    lr_mult: 2
    decay_mult: 0
  }
  convolution_param {
    num_output: 128
    pad: 1
    kernel_size: 3
    weight_filler {
      type: "xavier"
      std: 0.03
    }
    bias_filler {
      type: "constant"
      value: 0.2
    }
  }
}
layer {
  name: "inception_3a/relu_3x3"
  type: "ReLU"
  bottom: "inception_3a/3x3"
  top: "inception_3a/3x3"
}
layer {
  name: "inception_3a/5x5_reduce"
  type: "Convolution"
  bottom: "pool2/3x3_s2"
  top: "inception_3a/5x5_reduce"
  param {
    lr_mult: 1
    decay_mult: 1
  }
  param {
    lr_mult: 2
    decay_mult: 0
  }
  convolution_param {
    num_output: 16
    kernel_size: 1
    weight_filler {
      type: "xavier"
      std: 0.2
    }
    bias_filler {
      type: "constant"
      value: 0.2
    }
  }
}
layer {
  name: "inception_3a/relu_5x5_reduce"
  type: "ReLU"
  bottom: "inception_3a/5x5_reduce"
  top: "inception_3a/5x5_reduce"
}
layer {
  name: "inception_3a/5x5"
  type: "Convolution"
  bottom: "inception_3a/5x5_reduce"
  top: "inception_3a/5x5"
  param {
    lr_mult: 1
    decay_mult: 1
  }
  param {
    lr_mult: 2
    decay_mult: 0
  }
  convolution_param {
    num_output: 32
    pad: 2
    kernel_size: 5
    weight_filler {
      type: "xavier"
      std: 0.03
    }
    bias_filler {
      type: "constant"
      value: 0.2
    }
  }
}
layer {
  name: "inception_3a/relu_5x5"
  type: "ReLU"
  bottom: "inception_3a/5x5"
  top: "inception_3a/5x5"
}
layer {
  name: "inception_3a/pool"
  type: "Pooling"
  bottom: "pool2/3x3_s2"
  top: "inception_3a/pool"
  pooling_param {
    pool: MAX
    kernel_size: 3
    stride: 1
    pad: 1
  }
}
layer {
  name: "inception_3a/pool_proj"
  type: "Convolution"
  bottom: "inception_3a/pool"
  top: "inception_3a/pool_proj"
  param {
    lr_mult: 1
    decay_mult: 1
  }
  param {
    lr_mult: 2
    decay_mult: 0
  }
  convolution_param {
    num_output: 32
    kernel_size: 1
    weight_filler {
      type: "xavier"
      std: 0.1
    }
    bias_filler {
      type: "constant"
      value: 0.2
    }
  }
}
layer {
  name: "inception_3a/relu_pool_proj"
  type: "ReLU"
  bottom: "inception_3a/pool_proj"
  top: "inception_3a/pool_proj"
}
layer {
  name: "inception_3a/output"
  type: "Concat"
  bottom: "inception_3a/1x1"
  bottom: "inception_3a/3x3"
  bottom: "inception_3a/5x5"
  bottom: "inception_3a/pool_proj"
  top: "inception_3a/output"
}
layer {
  name: "inception_3b/1x1"
  type: "Convolution"
  bottom: "inception_3a/output"
  top: "inception_3b/1x1"
  param {
    lr_mult: 1
    decay_mult: 1
  }
  param {
    lr_mult: 2
    decay_mult: 0
  }
  convolution_param {
    num_output: 128
    kernel_size: 1
    weight_filler {
      type: "xavier"
      std: 0.03
    }
    bias_filler {
      type: "constant"
      value: 0.2
    }
  }
}
layer {
  name: "inception_3b/relu_1x1"
  type: "ReLU"
  bottom: "inception_3b/1x1"
  top: "inception_3b/1x1"
}
layer {
  name: "inception_3b/3x3_reduce"
  type: "Convolution"
  bottom: "inception_3a/output"
  top: "inception_3b/3x3_reduce"
  param {
    lr_mult: 1
    decay_mult: 1
  }
  param {
    lr_mult: 2
    decay_mult: 0
  }
  convolution_param {
    num_output: 128
    kernel_size: 1
    weight_filler {
      type: "xavier"
      std: 0.09
    }
    bias_filler {
      type: "constant"
      value: 0.2
    }
  }
}
layer {
  name: "inception_3b/relu_3x3_reduce"
  type: "ReLU"
  bottom: "inception_3b/3x3_reduce"
  top: "inception_3b/3x3_reduce"
}
layer {
  name: "inception_3b/3x3"
  type: "Convolution"
  bottom: "inception_3b/3x3_reduce"
  top: "inception_3b/3x3"
  param {
    lr_mult: 1
    decay_mult: 1
  }
  param {
    lr_mult: 2
    decay_mult: 0
  }
  convolution_param {
    num_output: 192
    pad: 1
    kernel_size: 3
    weight_filler {
      type: "xavier"
      std: 0.03
    }
    bias_filler {
      type: "constant"
      value: 0.2
    }
  }
}
layer {
  name: "inception_3b/relu_3x3"
  type: "ReLU"
  bottom: "inception_3b/3x3"
  top: "inception_3b/3x3"
}
layer {
  name: "inception_3b/5x5_reduce"
  type: "Convolution"
  bottom: "inception_3a/output"
  top: "inception_3b/5x5_reduce"
  param {
    lr_mult: 1
    decay_mult: 1
  }
  param {
    lr_mult: 2
    decay_mult: 0
  }
  convolution_param {
    num_output: 32
    kernel_size: 1
    weight_filler {
      type: "xavier"
      std: 0.2
    }
    bias_filler {
      type: "constant"
      value: 0.2
    }
  }
}
layer {
  name: "inception_3b/relu_5x5_reduce"
  type: "ReLU"
  bottom: "inception_3b/5x5_reduce"
  top: "inception_3b/5x5_reduce"
}
layer {
  name: "inception_3b/5x5"
  type: "Convolution"
  bottom: "inception_3b/5x5_reduce"
  top: "inception_3b/5x5"
  param {
    lr_mult: 1
    decay_mult: 1
  }
  param {
    lr_mult: 2
    decay_mult: 0
  }
  convolution_param {
    num_output: 96
    pad: 2
    kernel_size: 5
    weight_filler {
      type: "xavier"
      std: 0.03
    }
    bias_filler {
      type: "constant"
      value: 0.2
    }
  }
}
layer {
  name: "inception_3b/relu_5x5"
  type: "ReLU"
  bottom: "inception_3b/5x5"
  top: "inception_3b/5x5"
}
layer {
  name: "inception_3b/pool"
  type: "Pooling"
  bottom: "inception_3a/output"
  top: "inception_3b/pool"
  pooling_param {
    pool: MAX
    kernel_size: 3
    stride: 1
    pad: 1
  }
}
layer {
  name: "inception_3b/pool_proj"
  type: "Convolution"
  bottom: "inception_3b/pool"
  top: "inception_3b/pool_proj"
  param {
    lr_mult: 1
    decay_mult: 1
  }
  param {
    lr_mult: 2
    decay_mult: 0
  }
  convolution_param {
    num_output: 64
    kernel_size: 1
    weight_filler {
      type: "xavier"
      std: 0.1
    }
    bias_filler {
      type: "constant"
      value: 0.2
    }
  }
}
layer {
  name: "inception_3b/relu_pool_proj"
  type: "ReLU"
  bottom: "inception_3b/pool_proj"
  top: "inception_3b/pool_proj"
}
layer {
  name: "inception_3b/output"
  type: "Concat"
  bottom: "inception_3b/1x1"
  bottom: "inception_3b/3x3"
  bottom: "inception_3b/5x5"
  bottom: "inception_3b/pool_proj"
  top: "inception_3b/output"
}
layer {
  name: "pool3/3x3_s2"
  type: "Pooling"
  bottom: "inception_3b/output"
  top: "pool3/3x3_s2"
  pooling_param {
    pool: MAX
    kernel_size: 3
    stride: 2
  }
}
layer {
  name: "inception_4a/1x1"
  type: "Convolution"
  bottom: "pool3/3x3_s2"
  top: "inception_4a/1x1"
  param {
    lr_mult: 1
    decay_mult: 1
  }
  param {
    lr_mult: 2
    decay_mult: 0
  }
  convolution_param {
    num_output: 192
    kernel_size: 1
    weight_filler {
      type: "xavier"
      std: 0.03
    }
    bias_filler {
      type: "constant"
      value: 0.2
    }
  }
}
layer {
  name: "inception_4a/relu_1x1"
  type: "ReLU"
  bottom: "inception_4a/1x1"
  top: "inception_4a/1x1"
}
layer {
  name: "inception_4a/3x3_reduce"
  type: "Convolution"
  bottom: "pool3/3x3_s2"
  top: "inception_4a/3x3_reduce"
  param {
    lr_mult: 1
    decay_mult: 1
  }
  param {
    lr_mult: 2
    decay_mult: 0
  }
  convolution_param {
    num_output: 96
    kernel_size: 1
    weight_filler {
      type: "xavier"
      std: 0.09
    }
    bias_filler {
      type: "constant"
      value: 0.2
    }
  }
}
layer {
  name: "inception_4a/relu_3x3_reduce"
  type: "ReLU"
  bottom: "inception_4a/3x3_reduce"
  top: "inception_4a/3x3_reduce"
}
layer {
  name: "inception_4a/3x3"
  type: "Convolution"
  bottom: "inception_4a/3x3_reduce"
  top: "inception_4a/3x3"
  param {
    lr_mult: 1
    decay_mult: 1
  }
  param {
    lr_mult: 2
    decay_mult: 0
  }
  convolution_param {
    num_output: 208
    pad: 1
    kernel_size: 3
    weight_filler {
      type: "xavier"
      std: 0.03
    }
    bias_filler {
      type: "constant"
      value: 0.2
    }
  }
}
layer {
  name: "inception_4a/relu_3x3"
  type: "ReLU"
  bottom: "inception_4a/3x3"
  top: "inception_4a/3x3"
}
layer {
  name: "inception_4a/5x5_reduce"
  type: "Convolution"
  bottom: "pool3/3x3_s2"
  top: "inception_4a/5x5_reduce"
  param {
    lr_mult: 1
    decay_mult: 1
  }
  param {
    lr_mult: 2
    decay_mult: 0
  }
  convolution_param {
    num_output: 16
    kernel_size: 1
    weight_filler {
      type: "xavier"
      std: 0.2
    }
    bias_filler {
      type: "constant"
      value: 0.2
    }
  }
}
layer {
  name: "inception_4a/relu_5x5_reduce"
  type: "ReLU"
  bottom: "inception_4a/5x5_reduce"
  top: "inception_4a/5x5_reduce"
}
layer {
  name: "inception_4a/5x5"
  type: "Convolution"
  bottom: "inception_4a/5x5_reduce"
  top: "inception_4a/5x5"
  param {
    lr_mult: 1
    decay_mult: 1
  }
  param {
    lr_mult: 2
    decay_mult: 0
  }
  convolution_param {
    num_output: 48
    pad: 2
    kernel_size: 5
    weight_filler {
      type: "xavier"
      std: 0.03
    }
    bias_filler {
      type: "constant"
      value: 0.2
    }
  }
}
layer {
  name: "inception_4a/relu_5x5"
  type: "ReLU"
  bottom: "inception_4a/5x5"
  top: "inception_4a/5x5"
}
layer {
  name: "inception_4a/pool"
  type: "Pooling"
  bottom: "pool3/3x3_s2"
  top: "inception_4a/pool"
  pooling_param {
    pool: MAX
    kernel_size: 3
    stride: 1
    pad: 1
  }
}
layer {
  name: "inception_4a/pool_proj"
  type: "Convolution"
  bottom: "inception_4a/pool"
  top: "inception_4a/pool_proj"
  param {
    lr_mult: 1
    decay_mult: 1
  }
  param {
    lr_mult: 2
    decay_mult: 0
  }
  convolution_param {
    num_output: 64
    kernel_size: 1
    weight_filler {
      type: "xavier"
      std: 0.1
    }
    bias_filler {
      type: "constant"
      value: 0.2
    }
  }
}
layer {
  name: "inception_4a/relu_pool_proj"
  type: "ReLU"
  bottom: "inception_4a/pool_proj"
  top: "inception_4a/pool_proj"
}
layer {
  name: "inception_4a/output"
  type: "Concat"
  bottom: "inception_4a/1x1"
  bottom: "inception_4a/3x3"
  bottom: "inception_4a/5x5"
  bottom: "inception_4a/pool_proj"
  top: "inception_4a/output"
}
layer {
  name: "loss1/ave_pool"
  type: "Pooling"
  bottom: "inception_4a/output"
  top: "loss1/ave_pool"
  pooling_param {
    pool: AVE
    kernel_size: 5
    stride: 3
  }
}
layer {
  name: "loss1/conv"
  type: "Convolution"
  bottom: "loss1/ave_pool"
  top: "loss1/conv"
  param {
    lr_mult: 1
    decay_mult: 1
  }
  param {
    lr_mult: 2
    decay_mult: 0
  }
  convolution_param {
    num_output: 128
    kernel_size: 1
    weight_filler {
      type: "xavier"
      std: 0.08
    }
    bias_filler {
      type: "constant"
      value: 0.2
    }
  }
}
layer {
  name: "loss1/relu_conv"
  type: "ReLU"
  bottom: "loss1/conv"
  top: "loss1/conv"
}
layer {
  name: "loss1/fc"
  type: "InnerProduct"
  bottom: "loss1/conv"
  top: "loss1/fc"
  param {
    lr_mult: 1
    decay_mult: 1
  }
  param {
    lr_mult: 2
    decay_mult: 0
  }
  inner_product_param {
    num_output: 1024
    weight_filler {
      type: "xavier"
      std: 0.02
    }
    bias_filler {
      type: "constant"
      value: 0.2
    }
  }
}
layer {
  name: "loss1/relu_fc"
  type: "ReLU"
  bottom: "loss1/fc"
  top: "loss1/fc"
}
layer {
  name: "loss1/drop_fc"
  type: "Dropout"
  bottom: "loss1/fc"
  top: "loss1/fc"
  dropout_param {
    dropout_ratio: 0.7
  }
}
layer {
  name: "loss1/classifier_plantvillage"
  type: "InnerProduct"
  bottom: "loss1/fc"
  top: "loss1/classifier_plantvillage"
  param {
    lr_mult: 1
    decay_mult: 1
  }
  param {
    lr_mult: 2
    decay_mult: 0
  }
  inner_product_param {
    num_output: 38
    weight_filler {
      type: "xavier"
      std: 0.0009765625
    }
    bias_filler {
      type: "constant"
      value: 0
    }
  }
}
layer {
  name: "inception_4b/1x1"
  type: "Convolution"
  bottom: "inception_4a/output"
  top: "inception_4b/1x1"
  param {
    lr_mult: 1
    decay_mult: 1
  }
  param {
    lr_mult: 2
    decay_mult: 0
  }
  convolution_param {
    num_output: 160
    kernel_size: 1
    weight_filler {
      type: "xavier"
      std: 0.03
    }
    bias_filler {
      type: "constant"
      value: 0.2
    }
  }
}
layer {
  name: "inception_4b/relu_1x1"
  type: "ReLU"
  bottom: "inception_4b/1x1"
  top: "inception_4b/1x1"
}
layer {
  name: "inception_4b/3x3_reduce"
  type: "Convolution"
  bottom: "inception_4a/output"
  top: "inception_4b/3x3_reduce"
  param {
    lr_mult: 1
    decay_mult: 1
  }
  param {
    lr_mult: 2
    decay_mult: 0
  }
  convolution_param {
    num_output: 112
    kernel_size: 1
    weight_filler {
      type: "xavier"
      std: 0.09
    }
    bias_filler {
      type: "constant"
      value: 0.2
    }
  }
}
layer {
  name: "inception_4b/relu_3x3_reduce"
  type: "ReLU"
  bottom: "inception_4b/3x3_reduce"
  top: "inception_4b/3x3_reduce"
}
layer {
  name: "inception_4b/3x3"
  type: "Convolution"
  bottom: "inception_4b/3x3_reduce"
  top: "inception_4b/3x3"
  param {
    lr_mult: 1
    decay_mult: 1
  }
  param {
    lr_mult: 2
    decay_mult: 0
  }
  convolution_param {
    num_output: 224
    pad: 1
    kernel_size: 3
    weight_filler {
      type: "xavier"
      std: 0.03
    }
    bias_filler {
      type: "constant"
      value: 0.2
    }
  }
}
layer {
  name: "inception_4b/relu_3x3"
  type: "ReLU"
  bottom: "inception_4b/3x3"
  top: "inception_4b/3x3"
}
layer {
  name: "inception_4b/5x5_reduce"
  type: "Convolution"
  bottom: "inception_4a/output"
  top: "inception_4b/5x5_reduce"
  param {
    lr_mult: 1
    decay_mult: 1
  }
  param {
    lr_mult: 2
    decay_mult: 0
  }
  convolution_param {
    num_output: 24
    kernel_size: 1
    weight_filler {
      type: "xavier"
      std: 0.2
    }
    bias_filler {
      type: "constant"
      value: 0.2
    }
  }
}
layer {
  name: "inception_4b/relu_5x5_reduce"
  type: "ReLU"
  bottom: "inception_4b/5x5_reduce"
  top: "inception_4b/5x5_reduce"
}
layer {
  name: "inception_4b/5x5"
  type: "Convolution"
  bottom: "inception_4b/5x5_reduce"
  top: "inception_4b/5x5"
  param {
    lr_mult: 1
    decay_mult: 1
  }
  param {
    lr_mult: 2
    decay_mult: 0
  }
  convolution_param {
    num_output: 64
    pad: 2
    kernel_size: 5
    weight_filler {
      type: "xavier"
      std: 0.03
    }
    bias_filler {
      type: "constant"
      value: 0.2
    }
  }
}
layer {
  name: "inception_4b/relu_5x5"
  type: "ReLU"
  bottom: "inception_4b/5x5"
  top: "inception_4b/5x5"
}
layer {
  name: "inception_4b/pool"
  type: "Pooling"
  bottom: "inception_4a/output"
  top: "inception_4b/pool"
  pooling_param {
    pool: MAX
    kernel_size: 3
    stride: 1
    pad: 1
  }
}
layer {
  name: "inception_4b/pool_proj"
  type: "Convolution"
  bottom: "inception_4b/pool"
  top: "inception_4b/pool_proj"
  param {
    lr_mult: 1
    decay_mult: 1
  }
  param {
    lr_mult: 2
    decay_mult: 0
  }
  convolution_param {
    num_output: 64
    kernel_size: 1
    weight_filler {
      type: "xavier"
      std: 0.1
    }
    bias_filler {
      type: "constant"
      value: 0.2
    }
  }
}
layer {
  name: "inception_4b/relu_pool_proj"
  type: "ReLU"
  bottom: "inception_4b/pool_proj"
  top: "inception_4b/pool_proj"
}
layer {
  name: "inception_4b/output"
  type: "Concat"
  bottom: "inception_4b/1x1"
  bottom: "inception_4b/3x3"
  bottom: "inception_4b/5x5"
  bottom: "inception_4b/pool_proj"
  top: "inception_4b/output"
}
layer {
  name: "inception_4c/1x1"
  type: "Convolution"
  bottom: "inception_4b/output"
  top: "inception_4c/1x1"
  param {
    lr_mult: 1
    decay_mult: 1
  }
  param {
    lr_mult: 2
    decay_mult: 0
  }
  convolution_param {
    num_output: 128
    kernel_size: 1
    weight_filler {
      type: "xavier"
      std: 0.03
    }
    bias_filler {
      type: "constant"
      value: 0.2
    }
  }
}
layer {
  name: "inception_4c/relu_1x1"
  type: "ReLU"
  bottom: "inception_4c/1x1"
  top: "inception_4c/1x1"
}
layer {
  name: "inception_4c/3x3_reduce"
  type: "Convolution"
  bottom: "inception_4b/output"
  top: "inception_4c/3x3_reduce"
  param {
    lr_mult: 1
    decay_mult: 1
  }
  param {
    lr_mult: 2
    decay_mult: 0
  }
  convolution_param {
    num_output: 128
    kernel_size: 1
    weight_filler {
      type: "xavier"
      std: 0.09
    }
    bias_filler {
      type: "constant"
      value: 0.2
    }
  }
}
layer {
  name: "inception_4c/relu_3x3_reduce"
  type: "ReLU"
  bottom: "inception_4c/3x3_reduce"
  top: "inception_4c/3x3_reduce"
}
layer {
  name: "inception_4c/3x3"
  type: "Convolution"
  bottom: "inception_4c/3x3_reduce"
  top: "inception_4c/3x3"
  param {
    lr_mult: 1
    decay_mult: 1
  }
  param {
    lr_mult: 2
    decay_mult: 0
  }
  convolution_param {
    num_output: 256
    pad: 1
    kernel_size: 3
    weight_filler {
      type: "xavier"
      std: 0.03
    }
    bias_filler {
      type: "constant"
      value: 0.2
    }
  }
}
layer {
  name: "inception_4c/relu_3x3"
  type: "ReLU"
  bottom: "inception_4c/3x3"
  top: "inception_4c/3x3"
}
layer {
  name: "inception_4c/5x5_reduce"
  type: "Convolution"
  bottom: "inception_4b/output"
  top: "inception_4c/5x5_reduce"
  param {
    lr_mult: 1
    decay_mult: 1
  }
  param {
    lr_mult: 2
    decay_mult: 0
  }
  convolution_param {
    num_output: 24
    kernel_size: 1
    weight_filler {
      type: "xavier"
      std: 0.2
    }
    bias_filler {
      type: "constant"
      value: 0.2
    }
  }
}
layer {
  name: "inception_4c/relu_5x5_reduce"
  type: "ReLU"
  bottom: "inception_4c/5x5_reduce"
  top: "inception_4c/5x5_reduce"
}
layer {
  name: "inception_4c/5x5"
  type: "Convolution"
  bottom: "inception_4c/5x5_reduce"
  top: "inception_4c/5x5"
  param {
    lr_mult: 1
    decay_mult: 1
  }
  param {
    lr_mult: 2
    decay_mult: 0
  }
  convolution_param {
    num_output: 64
    pad: 2
    kernel_size: 5
    weight_filler {
      type: "xavier"
      std: 0.03
    }
    bias_filler {
      type: "constant"
      value: 0.2
    }
  }
}
layer {
  name: "inception_4c/relu_5x5"
  type: "ReLU"
  bottom: "inception_4c/5x5"
  top: "inception_4c/5x5"
}
layer {
  name: "inception_4c/pool"
  type: "Pooling"
  bottom: "inception_4b/output"
  top: "inception_4c/pool"
  pooling_param {
    pool: MAX
    kernel_size: 3
    stride: 1
    pad: 1
  }
}
layer {
  name: "inception_4c/pool_proj"
  type: "Convolution"
  bottom: "inception_4c/pool"
  top: "inception_4c/pool_proj"
  param {
    lr_mult: 1
    decay_mult: 1
  }
  param {
    lr_mult: 2
    decay_mult: 0
  }
  convolution_param {
    num_output: 64
    kernel_size: 1
    weight_filler {
      type: "xavier"
      std: 0.1
    }
    bias_filler {
      type: "constant"
      value: 0.2
    }
  }
}
layer {
  name: "inception_4c/relu_pool_proj"
  type: "ReLU"
  bottom: "inception_4c/pool_proj"
  top: "inception_4c/pool_proj"
}
layer {
  name: "inception_4c/output"
  type: "Concat"
  bottom: "inception_4c/1x1"
  bottom: "inception_4c/3x3"
  bottom: "inception_4c/5x5"
  bottom: "inception_4c/pool_proj"
  top: "inception_4c/output"
}
layer {
  name: "inception_4d/1x1"
  type: "Convolution"
  bottom: "inception_4c/output"
  top: "inception_4d/1x1"
  param {
    lr_mult: 1
    decay_mult: 1
  }
  param {
    lr_mult: 2
    decay_mult: 0
  }
  convolution_param {
    num_output: 112
    kernel_size: 1
    weight_filler {
      type: "xavier"
      std: 0.03
    }
    bias_filler {
      type: "constant"
      value: 0.2
    }
  }
}
layer {
  name: "inception_4d/relu_1x1"
  type: "ReLU"
  bottom: "inception_4d/1x1"
  top: "inception_4d/1x1"
}
layer {
  name: "inception_4d/3x3_reduce"
  type: "Convolution"
  bottom: "inception_4c/output"
  top: "inception_4d/3x3_reduce"
  param {
    lr_mult: 1
    decay_mult: 1
  }
  param {
    lr_mult: 2
    decay_mult: 0
  }
  convolution_param {
    num_output: 144
    kernel_size: 1
    weight_filler {
      type: "xavier"
      std: 0.09
    }
    bias_filler {
      type: "constant"
      value: 0.2
    }
  }
}
layer {
  name: "inception_4d/relu_3x3_reduce"
  type: "ReLU"
  bottom: "inception_4d/3x3_reduce"
  top: "inception_4d/3x3_reduce"
}
layer {
  name: "inception_4d/3x3"
  type: "Convolution"
  bottom: "inception_4d/3x3_reduce"
  top: "inception_4d/3x3"
  param {
    lr_mult: 1
    decay_mult: 1
  }
  param {
    lr_mult: 2
    decay_mult: 0
  }
  convolution_param {
    num_output: 288
    pad: 1
    kernel_size: 3
    weight_filler {
      type: "xavier"
      std: 0.03
    }
    bias_filler {
      type: "constant"
      value: 0.2
    }
  }
}
layer {
  name: "inception_4d/relu_3x3"
  type: "ReLU"
  bottom: "inception_4d/3x3"
  top: "inception_4d/3x3"
}
layer {
  name: "inception_4d/5x5_reduce"
  type: "Convolution"
  bottom: "inception_4c/output"
  top: "inception_4d/5x5_reduce"
  param {
    lr_mult: 1
    decay_mult: 1
  }
  param {
    lr_mult: 2
    decay_mult: 0
  }
  convolution_param {
    num_output: 32
    kernel_size: 1
    weight_filler {
      type: "xavier"
      std: 0.2
    }
    bias_filler {
      type: "constant"
      value: 0.2
    }
  }
}
layer {
  name: "inception_4d/relu_5x5_reduce"
  type: "ReLU"
  bottom: "inception_4d/5x5_reduce"
  top: "inception_4d/5x5_reduce"
}
layer {
  name: "inception_4d/5x5"
  type: "Convolution"
  bottom: "inception_4d/5x5_reduce"
  top: "inception_4d/5x5"
  param {
    lr_mult: 1
    decay_mult: 1
  }
  param {
    lr_mult: 2
    decay_mult: 0
  }
  convolution_param {
    num_output: 64
    pad: 2
    kernel_size: 5
    weight_filler {
      type: "xavier"
      std: 0.03
    }
    bias_filler {
      type: "constant"
      value: 0.2
    }
  }
}
layer {
  name: "inception_4d/relu_5x5"
  type: "ReLU"
  bottom: "inception_4d/5x5"
  top: "inception_4d/5x5"
}
layer {
  name: "inception_4d/pool"
  type: "Pooling"
  bottom: "inception_4c/output"
  top: "inception_4d/pool"
  pooling_param {
    pool: MAX
    kernel_size: 3
    stride: 1
    pad: 1
  }
}
layer {
  name: "inception_4d/pool_proj"
  type: "Convolution"
  bottom: "inception_4d/pool"
  top: "inception_4d/pool_proj"
  param {
    lr_mult: 1
    decay_mult: 1
  }
  param {
    lr_mult: 2
    decay_mult: 0
  }
  convolution_param {
    num_output: 64
    kernel_size: 1
    weight_filler {
      type: "xavier"
      std: 0.1
    }
    bias_filler {
      type: "constant"
      value: 0.2
    }
  }
}
layer {
  name: "inception_4d/relu_pool_proj"
  type: "ReLU"
  bottom: "inception_4d/pool_proj"
  top: "inception_4d/pool_proj"
}
layer {
  name: "inception_4d/output"
  type: "Concat"
  bottom: "inception_4d/1x1"
  bottom: "inception_4d/3x3"
  bottom: "inception_4d/5x5"
  bottom: "inception_4d/pool_proj"
  top: "inception_4d/output"
}
layer {
  name: "loss2/ave_pool"
  type: "Pooling"
  bottom: "inception_4d/output"
  top: "loss2/ave_pool"
  pooling_param {
    pool: AVE
    kernel_size: 5
    stride: 3
  }
}
layer {
  name: "loss2/conv"
  type: "Convolution"
  bottom: "loss2/ave_pool"
  top: "loss2/conv"
  param {
    lr_mult: 1
    decay_mult: 1
  }
  param {
    lr_mult: 2
    decay_mult: 0
  }
  convolution_param {
    num_output: 128
    kernel_size: 1
    weight_filler {
      type: "xavier"
      std: 0.08
    }
    bias_filler {
      type: "constant"
      value: 0.2
    }
  }
}
layer {
  name: "loss2/relu_conv"
  type: "ReLU"
  bottom: "loss2/conv"
  top: "loss2/conv"
}
layer {
  name: "loss2/fc"
  type: "InnerProduct"
  bottom: "loss2/conv"
  top: "loss2/fc"
  param {
    lr_mult: 1
    decay_mult: 1
  }
  param {
    lr_mult: 2
    decay_mult: 0
  }
  inner_product_param {
    num_output: 1024
    weight_filler {
      type: "xavier"
      std: 0.02
    }
    bias_filler {
      type: "constant"
      value: 0.2
    }
  }
}
layer {
  name: "loss2/relu_fc"
  type: "ReLU"
  bottom: "loss2/fc"
  top: "loss2/fc"
}
layer {
  name: "loss2/drop_fc"
  type: "Dropout"
  bottom: "loss2/fc"
  top: "loss2/fc"
  dropout_param {
    dropout_ratio: 0.7
  }
}
layer {
  name: "loss2/classifier_plantvillage"
  type: "InnerProduct"
  bottom: "loss2/fc"
  top: "loss2/classifier_plantvillage"
  param {
    lr_mult: 1
    decay_mult: 1
  }
  param {
    lr_mult: 2
    decay_mult: 0
  }
  inner_product_param {
    num_output: 38
    weight_filler {
      type: "xavier"
      std: 0.0009765625
    }
    bias_filler {
      type: "constant"
      value: 0
    }
  }
}
layer {
  name: "inception_4e/1x1"
  type: "Convolution"
  bottom: "inception_4d/output"
  top: "inception_4e/1x1"
  param {
    lr_mult: 1
    decay_mult: 1
  }
  param {
    lr_mult: 2
    decay_mult: 0
  }
  convolution_param {
    num_output: 256
    kernel_size: 1
    weight_filler {
      type: "xavier"
      std: 0.03
    }
    bias_filler {
      type: "constant"
      value: 0.2
    }
  }
}
layer {
  name: "inception_4e/relu_1x1"
  type: "ReLU"
  bottom: "inception_4e/1x1"
  top: "inception_4e/1x1"
}
layer {
  name: "inception_4e/3x3_reduce"
  type: "Convolution"
  bottom: "inception_4d/output"
  top: "inception_4e/3x3_reduce"
  param {
    lr_mult: 1
    decay_mult: 1
  }
  param {
    lr_mult: 2
    decay_mult: 0
  }
  convolution_param {
    num_output: 160
    kernel_size: 1
    weight_filler {
      type: "xavier"
      std: 0.09
    }
    bias_filler {
      type: "constant"
      value: 0.2
    }
  }
}
layer {
  name: "inception_4e/relu_3x3_reduce"
  type: "ReLU"
  bottom: "inception_4e/3x3_reduce"
  top: "inception_4e/3x3_reduce"
}
layer {
  name: "inception_4e/3x3"
  type: "Convolution"
  bottom: "inception_4e/3x3_reduce"
  top: "inception_4e/3x3"
  param {
    lr_mult: 1
    decay_mult: 1
  }
  param {
    lr_mult: 2
    decay_mult: 0
  }
  convolution_param {
    num_output: 320
    pad: 1
    kernel_size: 3
    weight_filler {
      type: "xavier"
      std: 0.03
    }
    bias_filler {
      type: "constant"
      value: 0.2
    }
  }
}
layer {
  name: "inception_4e/relu_3x3"
  type: "ReLU"
  bottom: "inception_4e/3x3"
  top: "inception_4e/3x3"
}
layer {
  name: "inception_4e/5x5_reduce"
  type: "Convolution"
  bottom: "inception_4d/output"
  top: "inception_4e/5x5_reduce"
  param {
    lr_mult: 1
    decay_mult: 1
  }
  param {
    lr_mult: 2
    decay_mult: 0
  }
  convolution_param {
    num_output: 32
    kernel_size: 1
    weight_filler {
      type: "xavier"
      std: 0.2
    }
    bias_filler {
      type: "constant"
      value: 0.2
    }
  }
}
layer {
  name: "inception_4e/relu_5x5_reduce"
  type: "ReLU"
  bottom: "inception_4e/5x5_reduce"
  top: "inception_4e/5x5_reduce"
}
layer {
  name: "inception_4e/5x5"
  type: "Convolution"
  bottom: "inception_4e/5x5_reduce"
  top: "inception_4e/5x5"
  p
I0403 17:14:31.236023 20871 layer_factory.hpp:77] Creating layer data
I0403 17:14:31.236582 20871 net.cpp:91] Creating Layer data
I0403 17:14:31.236611 20871 net.cpp:399] data -> data
I0403 17:14:31.236660 20871 net.cpp:399] data -> label
I0403 17:14:31.236696 20871 data_transformer.cpp:25] Loading mean file from: /home/mohanty/data/final_dataset/lmdb/color-20-80/mean.binaryproto
I0403 17:14:31.237781 20875 db_lmdb.cpp:38] Opened lmdb /home/mohanty/data/final_dataset/lmdb/color-20-80/test_db
I0403 17:14:31.249347 20871 data_layer.cpp:41] output data size: 24,3,224,224
I0403 17:14:31.275558 20871 net.cpp:141] Setting up data
I0403 17:14:31.275641 20871 net.cpp:148] Top shape: 24 3 224 224 (3612672)
I0403 17:14:31.275665 20871 net.cpp:148] Top shape: 24 (24)
I0403 17:14:31.275679 20871 net.cpp:156] Memory required for data: 14450784
I0403 17:14:31.275707 20871 layer_factory.hpp:77] Creating layer label_data_1_split
I0403 17:14:31.275733 20871 net.cpp:91] Creating Layer label_data_1_split
I0403 17:14:31.275751 20871 net.cpp:425] label_data_1_split <- label
I0403 17:14:31.275795 20871 net.cpp:399] label_data_1_split -> label_data_1_split_0
I0403 17:14:31.275823 20871 net.cpp:399] label_data_1_split -> label_data_1_split_1
I0403 17:14:31.275845 20871 net.cpp:399] label_data_1_split -> label_data_1_split_2
I0403 17:14:31.275866 20871 net.cpp:399] label_data_1_split -> label_data_1_split_3
I0403 17:14:31.275885 20871 net.cpp:399] label_data_1_split -> label_data_1_split_4
I0403 17:14:31.275907 20871 net.cpp:399] label_data_1_split -> label_data_1_split_5
I0403 17:14:31.275924 20871 net.cpp:399] label_data_1_split -> label_data_1_split_6
I0403 17:14:31.275944 20871 net.cpp:399] label_data_1_split -> label_data_1_split_7
I0403 17:14:31.275964 20871 net.cpp:399] label_data_1_split -> label_data_1_split_8
I0403 17:14:31.275984 20871 net.cpp:399] label_data_1_split -> label_data_1_split_9
I0403 17:14:31.276109 20871 net.cpp:141] Setting up label_data_1_split
I0403 17:14:31.276132 20871 net.cpp:148] Top shape: 24 (24)
I0403 17:14:31.276149 20871 net.cpp:148] Top shape: 24 (24)
I0403 17:14:31.276165 20871 net.cpp:148] Top shape: 24 (24)
I0403 17:14:31.276180 20871 net.cpp:148] Top shape: 24 (24)
I0403 17:14:31.276195 20871 net.cpp:148] Top shape: 24 (24)
I0403 17:14:31.276211 20871 net.cpp:148] Top shape: 24 (24)
I0403 17:14:31.276224 20871 net.cpp:148] Top shape: 24 (24)
I0403 17:14:31.276239 20871 net.cpp:148] Top shape: 24 (24)
I0403 17:14:31.276253 20871 net.cpp:148] Top shape: 24 (24)
I0403 17:14:31.276269 20871 net.cpp:148] Top shape: 24 (24)
I0403 17:14:31.276314 20871 net.cpp:156] Memory required for data: 14451744
I0403 17:14:31.276329 20871 layer_factory.hpp:77] Creating layer conv1/7x7_s2
I0403 17:14:31.276361 20871 net.cpp:91] Creating Layer conv1/7x7_s2
I0403 17:14:31.276379 20871 net.cpp:425] conv1/7x7_s2 <- data
I0403 17:14:31.276397 20871 net.cpp:399] conv1/7x7_s2 -> conv1/7x7_s2
I0403 17:14:31.410755 20871 net.cpp:141] Setting up conv1/7x7_s2
I0403 17:14:31.410830 20871 net.cpp:148] Top shape: 24 64 112 112 (19267584)
I0403 17:14:31.410848 20871 net.cpp:156] Memory required for data: 91522080
I0403 17:14:31.410878 20871 layer_factory.hpp:77] Creating layer conv1/relu_7x7
I0403 17:14:31.410915 20871 net.cpp:91] Creating Layer conv1/relu_7x7
I0403 17:14:31.410935 20871 net.cpp:425] conv1/relu_7x7 <- conv1/7x7_s2
I0403 17:14:31.410953 20871 net.cpp:386] conv1/relu_7x7 -> conv1/7x7_s2 (in-place)
I0403 17:14:31.411202 20871 net.cpp:141] Setting up conv1/relu_7x7
I0403 17:14:31.411228 20871 net.cpp:148] Top shape: 24 64 112 112 (19267584)
I0403 17:14:31.411243 20871 net.cpp:156] Memory required for data: 168592416
I0403 17:14:31.411257 20871 layer_factory.hpp:77] Creating layer pool1/3x3_s2
I0403 17:14:31.411281 20871 net.cpp:91] Creating Layer pool1/3x3_s2
I0403 17:14:31.411299 20871 net.cpp:425] pool1/3x3_s2 <- conv1/7x7_s2
I0403 17:14:31.411319 20871 net.cpp:399] pool1/3x3_s2 -> pool1/3x3_s2
I0403 17:14:31.411388 20871 net.cpp:141] Setting up pool1/3x3_s2
I0403 17:14:31.411412 20871 net.cpp:148] Top shape: 24 64 56 56 (4816896)
I0403 17:14:31.411427 20871 net.cpp:156] Memory required for data: 187860000
I0403 17:14:31.411442 20871 layer_factory.hpp:77] Creating layer pool1/norm1
I0403 17:14:31.411463 20871 net.cpp:91] Creating Layer pool1/norm1
I0403 17:14:31.411480 20871 net.cpp:425] pool1/norm1 <- pool1/3x3_s2
I0403 17:14:31.411499 20871 net.cpp:399] pool1/norm1 -> pool1/norm1
I0403 17:14:31.411777 20871 net.cpp:141] Setting up pool1/norm1
I0403 17:14:31.411803 20871 net.cpp:148] Top shape: 24 64 56 56 (4816896)
I0403 17:14:31.411819 20871 net.cpp:156] Memory required for data: 207127584
I0403 17:14:31.411834 20871 layer_factory.hpp:77] Creating layer conv2/3x3_reduce
I0403 17:14:31.411859 20871 net.cpp:91] Creating Layer conv2/3x3_reduce
I0403 17:14:31.411876 20871 net.cpp:425] conv2/3x3_reduce <- pool1/norm1
I0403 17:14:31.411895 20871 net.cpp:399] conv2/3x3_reduce -> conv2/3x3_reduce
I0403 17:14:31.413246 20871 net.cpp:141] Setting up conv2/3x3_reduce
I0403 17:14:31.413276 20871 net.cpp:148] Top shape: 24 64 56 56 (4816896)
I0403 17:14:31.413291 20871 net.cpp:156] Memory required for data: 226395168
I0403 17:14:31.413311 20871 layer_factory.hpp:77] Creating layer conv2/relu_3x3_reduce
I0403 17:14:31.413333 20871 net.cpp:91] Creating Layer conv2/relu_3x3_reduce
I0403 17:14:31.413350 20871 net.cpp:425] conv2/relu_3x3_reduce <- conv2/3x3_reduce
I0403 17:14:31.413369 20871 net.cpp:386] conv2/relu_3x3_reduce -> conv2/3x3_reduce (in-place)
I0403 17:14:31.413688 20871 net.cpp:141] Setting up conv2/relu_3x3_reduce
I0403 17:14:31.413714 20871 net.cpp:148] Top shape: 24 64 56 56 (4816896)
I0403 17:14:31.413728 20871 net.cpp:156] Memory required for data: 245662752
I0403 17:14:31.413743 20871 layer_factory.hpp:77] Creating layer conv2/3x3
I0403 17:14:31.413768 20871 net.cpp:91] Creating Layer conv2/3x3
I0403 17:14:31.413794 20871 net.cpp:425] conv2/3x3 <- conv2/3x3_reduce
I0403 17:14:31.413813 20871 net.cpp:399] conv2/3x3 -> conv2/3x3
I0403 17:14:31.416056 20871 net.cpp:141] Setting up conv2/3x3
I0403 17:14:31.416086 20871 net.cpp:148] Top shape: 24 192 56 56 (14450688)
I0403 17:14:31.416103 20871 net.cpp:156] Memory required for data: 303465504
I0403 17:14:31.416124 20871 layer_factory.hpp:77] Creating layer conv2/relu_3x3
I0403 17:14:31.416146 20871 net.cpp:91] Creating Layer conv2/relu_3x3
I0403 17:14:31.416162 20871 net.cpp:425] conv2/relu_3x3 <- conv2/3x3
I0403 17:14:31.416180 20871 net.cpp:386] conv2/relu_3x3 -> conv2/3x3 (in-place)
I0403 17:14:31.416353 20871 net.cpp:141] Setting up conv2/relu_3x3
I0403 17:14:31.416378 20871 net.cpp:148] Top shape: 24 192 56 56 (14450688)
I0403 17:14:31.416424 20871 net.cpp:156] Memory required for data: 361268256
I0403 17:14:31.416440 20871 layer_factory.hpp:77] Creating layer conv2/norm2
I0403 17:14:31.416456 20871 net.cpp:91] Creating Layer conv2/norm2
I0403 17:14:31.416471 20871 net.cpp:425] conv2/norm2 <- conv2/3x3
I0403 17:14:31.416491 20871 net.cpp:399] conv2/norm2 -> conv2/norm2
I0403 17:14:31.416788 20871 net.cpp:141] Setting up conv2/norm2
I0403 17:14:31.416838 20871 net.cpp:148] Top shape: 24 192 56 56 (14450688)
I0403 17:14:31.416857 20871 net.cpp:156] Memory required for data: 419071008
I0403 17:14:31.416872 20871 layer_factory.hpp:77] Creating layer pool2/3x3_s2
I0403 17:14:31.416888 20871 net.cpp:91] Creating Layer pool2/3x3_s2
I0403 17:14:31.416903 20871 net.cpp:425] pool2/3x3_s2 <- conv2/norm2
I0403 17:14:31.416924 20871 net.cpp:399] pool2/3x3_s2 -> pool2/3x3_s2
I0403 17:14:31.416977 20871 net.cpp:141] Setting up pool2/3x3_s2
I0403 17:14:31.417001 20871 net.cpp:148] Top shape: 24 192 28 28 (3612672)
I0403 17:14:31.417016 20871 net.cpp:156] Memory required for data: 433521696
I0403 17:14:31.417029 20871 layer_factory.hpp:77] Creating layer pool2/3x3_s2_pool2/3x3_s2_0_split
I0403 17:14:31.417048 20871 net.cpp:91] Creating Layer pool2/3x3_s2_pool2/3x3_s2_0_split
I0403 17:14:31.417064 20871 net.cpp:425] pool2/3x3_s2_pool2/3x3_s2_0_split <- pool2/3x3_s2
I0403 17:14:31.417083 20871 net.cpp:399] pool2/3x3_s2_pool2/3x3_s2_0_split -> pool2/3x3_s2_pool2/3x3_s2_0_split_0
I0403 17:14:31.417104 20871 net.cpp:399] pool2/3x3_s2_pool2/3x3_s2_0_split -> pool2/3x3_s2_pool2/3x3_s2_0_split_1
I0403 17:14:31.417124 20871 net.cpp:399] pool2/3x3_s2_pool2/3x3_s2_0_split -> pool2/3x3_s2_pool2/3x3_s2_0_split_2
I0403 17:14:31.417145 20871 net.cpp:399] pool2/3x3_s2_pool2/3x3_s2_0_split -> pool2/3x3_s2_pool2/3x3_s2_0_split_3
I0403 17:14:31.417209 20871 net.cpp:141] Setting up pool2/3x3_s2_pool2/3x3_s2_0_split
I0403 17:14:31.417233 20871 net.cpp:148] Top shape: 24 192 28 28 (3612672)
I0403 17:14:31.417251 20871 net.cpp:148] Top shape: 24 192 28 28 (3612672)
I0403 17:14:31.417268 20871 net.cpp:148] Top shape: 24 192 28 28 (3612672)
I0403 17:14:31.417282 20871 net.cpp:148] Top shape: 24 192 28 28 (3612672)
I0403 17:14:31.417296 20871 net.cpp:156] Memory required for data: 491324448
I0403 17:14:31.417309 20871 layer_factory.hpp:77] Creating layer inception_3a/1x1
I0403 17:14:31.417331 20871 net.cpp:91] Creating Layer inception_3a/1x1
I0403 17:14:31.417349 20871 net.cpp:425] inception_3a/1x1 <- pool2/3x3_s2_pool2/3x3_s2_0_split_0
I0403 17:14:31.417367 20871 net.cpp:399] inception_3a/1x1 -> inception_3a/1x1
I0403 17:14:31.418865 20871 net.cpp:141] Setting up inception_3a/1x1
I0403 17:14:31.418895 20871 net.cpp:148] Top shape: 24 64 28 28 (1204224)
I0403 17:14:31.418911 20871 net.cpp:156] Memory required for data: 496141344
I0403 17:14:31.418931 20871 layer_factory.hpp:77] Creating layer inception_3a/relu_1x1
I0403 17:14:31.418952 20871 net.cpp:91] Creating Layer inception_3a/relu_1x1
I0403 17:14:31.418969 20871 net.cpp:425] inception_3a/relu_1x1 <- inception_3a/1x1
I0403 17:14:31.418985 20871 net.cpp:386] inception_3a/relu_1x1 -> inception_3a/1x1 (in-place)
I0403 17:14:31.419152 20871 net.cpp:141] Setting up inception_3a/relu_1x1
I0403 17:14:31.419180 20871 net.cpp:148] Top shape: 24 64 28 28 (1204224)
I0403 17:14:31.419196 20871 net.cpp:156] Memory required for data: 500958240
I0403 17:14:31.419211 20871 layer_factory.hpp:77] Creating layer inception_3a/3x3_reduce
I0403 17:14:31.419232 20871 net.cpp:91] Creating Layer inception_3a/3x3_reduce
I0403 17:14:31.419250 20871 net.cpp:425] inception_3a/3x3_reduce <- pool2/3x3_s2_pool2/3x3_s2_0_split_1
I0403 17:14:31.419270 20871 net.cpp:399] inception_3a/3x3_reduce -> inception_3a/3x3_reduce
I0403 17:14:31.420950 20871 net.cpp:141] Setting up inception_3a/3x3_reduce
I0403 17:14:31.420979 20871 net.cpp:148] Top shape: 24 96 28 28 (1806336)
I0403 17:14:31.420995 20871 net.cpp:156] Memory required for data: 508183584
I0403 17:14:31.421016 20871 layer_factory.hpp:77] Creating layer inception_3a/relu_3x3_reduce
I0403 17:14:31.421052 20871 net.cpp:91] Creating Layer inception_3a/relu_3x3_reduce
I0403 17:14:31.421072 20871 net.cpp:425] inception_3a/relu_3x3_reduce <- inception_3a/3x3_reduce
I0403 17:14:31.421092 20871 net.cpp:386] inception_3a/relu_3x3_reduce -> inception_3a/3x3_reduce (in-place)
I0403 17:14:31.421268 20871 net.cpp:141] Setting up inception_3a/relu_3x3_reduce
I0403 17:14:31.421293 20871 net.cpp:148] Top shape: 24 96 28 28 (1806336)
I0403 17:14:31.421308 20871 net.cpp:156] Memory required for data: 515408928
I0403 17:14:31.421322 20871 layer_factory.hpp:77] Creating layer inception_3a/3x3
I0403 17:14:31.421344 20871 net.cpp:91] Creating Layer inception_3a/3x3
I0403 17:14:31.421360 20871 net.cpp:425] inception_3a/3x3 <- inception_3a/3x3_reduce
I0403 17:14:31.421381 20871 net.cpp:399] inception_3a/3x3 -> inception_3a/3x3
I0403 17:14:31.422983 20871 net.cpp:141] Setting up inception_3a/3x3
I0403 17:14:31.423010 20871 net.cpp:148] Top shape: 24 128 28 28 (2408448)
I0403 17:14:31.423029 20871 net.cpp:156] Memory required for data: 525042720
I0403 17:14:31.423048 20871 layer_factory.hpp:77] Creating layer inception_3a/relu_3x3
I0403 17:14:31.423063 20871 net.cpp:91] Creating Layer inception_3a/relu_3x3
I0403 17:14:31.423079 20871 net.cpp:425] inception_3a/relu_3x3 <- inception_3a/3x3
I0403 17:14:31.423094 20871 net.cpp:386] inception_3a/relu_3x3 -> inception_3a/3x3 (in-place)
I0403 17:14:31.423352 20871 net.cpp:141] Setting up inception_3a/relu_3x3
I0403 17:14:31.423378 20871 net.cpp:148] Top shape: 24 128 28 28 (2408448)
I0403 17:14:31.423398 20871 net.cpp:156] Memory required for data: 534676512
I0403 17:14:31.423413 20871 layer_factory.hpp:77] Creating layer inception_3a/5x5_reduce
I0403 17:14:31.423431 20871 net.cpp:91] Creating Layer inception_3a/5x5_reduce
I0403 17:14:31.423447 20871 net.cpp:425] inception_3a/5x5_reduce <- pool2/3x3_s2_pool2/3x3_s2_0_split_2
I0403 17:14:31.423467 20871 net.cpp:399] inception_3a/5x5_reduce -> inception_3a/5x5_reduce
I0403 17:14:31.424402 20871 net.cpp:141] Setting up inception_3a/5x5_reduce
I0403 17:14:31.424432 20871 net.cpp:148] Top shape: 24 16 28 28 (301056)
I0403 17:14:31.424448 20871 net.cpp:156] Memory required for data: 535880736
I0403 17:14:31.424466 20871 layer_factory.hpp:77] Creating layer inception_3a/relu_5x5_reduce
I0403 17:14:31.424484 20871 net.cpp:91] Creating Layer inception_3a/relu_5x5_reduce
I0403 17:14:31.424499 20871 net.cpp:425] inception_3a/relu_5x5_reduce <- inception_3a/5x5_reduce
I0403 17:14:31.424515 20871 net.cpp:386] inception_3a/relu_5x5_reduce -> inception_3a/5x5_reduce (in-place)
I0403 17:14:31.424811 20871 net.cpp:141] Setting up inception_3a/relu_5x5_reduce
I0403 17:14:31.424837 20871 net.cpp:148] Top shape: 24 16 28 28 (301056)
I0403 17:14:31.424852 20871 net.cpp:156] Memory required for data: 537084960
I0403 17:14:31.424866 20871 layer_factory.hpp:77] Creating layer inception_3a/5x5
I0403 17:14:31.424887 20871 net.cpp:91] Creating Layer inception_3a/5x5
I0403 17:14:31.424906 20871 net.cpp:425] inception_3a/5x5 <- inception_3a/5x5_reduce
I0403 17:14:31.424926 20871 net.cpp:399] inception_3a/5x5 -> inception_3a/5x5
I0403 17:14:31.425899 20871 net.cpp:141] Setting up inception_3a/5x5
I0403 17:14:31.425926 20871 net.cpp:148] Top shape: 24 32 28 28 (602112)
I0403 17:14:31.425941 20871 net.cpp:156] Memory required for data: 539493408
I0403 17:14:31.425959 20871 layer_factory.hpp:77] Creating layer inception_3a/relu_5x5
I0403 17:14:31.425979 20871 net.cpp:91] Creating Layer inception_3a/relu_5x5
I0403 17:14:31.425997 20871 net.cpp:425] inception_3a/relu_5x5 <- inception_3a/5x5
I0403 17:14:31.426014 20871 net.cpp:386] inception_3a/relu_5x5 -> inception_3a/5x5 (in-place)
I0403 17:14:31.426182 20871 net.cpp:141] Setting up inception_3a/relu_5x5
I0403 17:14:31.426209 20871 net.cpp:148] Top shape: 24 32 28 28 (602112)
I0403 17:14:31.426225 20871 net.cpp:156] Memory required for data: 541901856
I0403 17:14:31.426240 20871 layer_factory.hpp:77] Creating layer inception_3a/pool
I0403 17:14:31.426257 20871 net.cpp:91] Creating Layer inception_3a/pool
I0403 17:14:31.426272 20871 net.cpp:425] inception_3a/pool <- pool2/3x3_s2_pool2/3x3_s2_0_split_3
I0403 17:14:31.426306 20871 net.cpp:399] inception_3a/pool -> inception_3a/pool
I0403 17:14:31.426362 20871 net.cpp:141] Setting up inception_3a/pool
I0403 17:14:31.426386 20871 net.cpp:148] Top shape: 24 192 28 28 (3612672)
I0403 17:14:31.426400 20871 net.cpp:156] Memory required for data: 556352544
I0403 17:14:31.426415 20871 layer_factory.hpp:77] Creating layer inception_3a/pool_proj
I0403 17:14:31.426437 20871 net.cpp:91] Creating Layer inception_3a/pool_proj
I0403 17:14:31.426455 20871 net.cpp:425] inception_3a/pool_proj <- inception_3a/pool
I0403 17:14:31.426477 20871 net.cpp:399] inception_3a/pool_proj -> inception_3a/pool_proj
I0403 17:14:31.427435 20871 net.cpp:141] Setting up inception_3a/pool_proj
I0403 17:14:31.427464 20871 net.cpp:148] Top shape: 24 32 28 28 (602112)
I0403 17:14:31.427479 20871 net.cpp:156] Memory required for data: 558760992
I0403 17:14:31.427501 20871 layer_factory.hpp:77] Creating layer inception_3a/relu_pool_proj
I0403 17:14:31.427522 20871 net.cpp:91] Creating Layer inception_3a/relu_pool_proj
I0403 17:14:31.427539 20871 net.cpp:425] inception_3a/relu_pool_proj <- inception_3a/pool_proj
I0403 17:14:31.427556 20871 net.cpp:386] inception_3a/relu_pool_proj -> inception_3a/pool_proj (in-place)
I0403 17:14:31.427826 20871 net.cpp:141] Setting up inception_3a/relu_pool_proj
I0403 17:14:31.427851 20871 net.cpp:148] Top shape: 24 32 28 28 (602112)
I0403 17:14:31.427870 20871 net.cpp:156] Memory required for data: 561169440
I0403 17:14:31.427884 20871 layer_factory.hpp:77] Creating layer inception_3a/output
I0403 17:14:31.427901 20871 net.cpp:91] Creating Layer inception_3a/output
I0403 17:14:31.427917 20871 net.cpp:425] inception_3a/output <- inception_3a/1x1
I0403 17:14:31.427932 20871 net.cpp:425] inception_3a/output <- inception_3a/3x3
I0403 17:14:31.427947 20871 net.cpp:425] inception_3a/output <- inception_3a/5x5
I0403 17:14:31.427963 20871 net.cpp:425] inception_3a/output <- inception_3a/pool_proj
I0403 17:14:31.427980 20871 net.cpp:399] inception_3a/output -> inception_3a/output
I0403 17:14:31.428026 20871 net.cpp:141] Setting up inception_3a/output
I0403 17:14:31.428050 20871 net.cpp:148] Top shape: 24 256 28 28 (4816896)
I0403 17:14:31.428063 20871 net.cpp:156] Memory required for data: 580437024
I0403 17:14:31.428077 20871 layer_factory.hpp:77] Creating layer inception_3a/output_inception_3a/output_0_split
I0403 17:14:31.428094 20871 net.cpp:91] Creating Layer inception_3a/output_inception_3a/output_0_split
I0403 17:14:31.428108 20871 net.cpp:425] inception_3a/output_inception_3a/output_0_split <- inception_3a/output
I0403 17:14:31.428128 20871 net.cpp:399] inception_3a/output_inception_3a/output_0_split -> inception_3a/output_inception_3a/output_0_split_0
I0403 17:14:31.428148 20871 net.cpp:399] inception_3a/output_inception_3a/output_0_split -> inception_3a/output_inception_3a/output_0_split_1
I0403 17:14:31.428172 20871 net.cpp:399] inception_3a/output_inception_3a/output_0_split -> inception_3a/output_inception_3a/output_0_split_2
I0403 17:14:31.428194 20871 net.cpp:399] inception_3a/output_inception_3a/output_0_split -> inception_3a/output_inception_3a/output_0_split_3
I0403 17:14:31.428264 20871 net.cpp:141] Setting up inception_3a/output_inception_3a/output_0_split
I0403 17:14:31.428287 20871 net.cpp:148] Top shape: 24 256 28 28 (4816896)
I0403 17:14:31.428303 20871 net.cpp:148] Top shape: 24 256 28 28 (4816896)
I0403 17:14:31.428318 20871 net.cpp:148] Top shape: 24 256 28 28 (4816896)
I0403 17:14:31.428333 20871 net.cpp:148] Top shape: 24 256 28 28 (4816896)
I0403 17:14:31.428346 20871 net.cpp:156] Memory required for data: 657507360
I0403 17:14:31.428361 20871 layer_factory.hpp:77] Creating layer inception_3b/1x1
I0403 17:14:31.428382 20871 net.cpp:91] Creating Layer inception_3b/1x1
I0403 17:14:31.428400 20871 net.cpp:425] inception_3b/1x1 <- inception_3a/output_inception_3a/output_0_split_0
I0403 17:14:31.428421 20871 net.cpp:399] inception_3b/1x1 -> inception_3b/1x1
I0403 17:14:31.429514 20871 net.cpp:141] Setting up inception_3b/1x1
I0403 17:14:31.429553 20871 net.cpp:148] Top shape: 24 128 28 28 (2408448)
I0403 17:14:31.429569 20871 net.cpp:156] Memory required for data: 667141152
I0403 17:14:31.429594 20871 layer_factory.hpp:77] Creating layer inception_3b/relu_1x1
I0403 17:14:31.429615 20871 net.cpp:91] Creating Layer inception_3b/relu_1x1
I0403 17:14:31.429633 20871 net.cpp:425] inception_3b/relu_1x1 <- inception_3b/1x1
I0403 17:14:31.429651 20871 net.cpp:386] inception_3b/relu_1x1 -> inception_3b/1x1 (in-place)
I0403 17:14:31.429817 20871 net.cpp:141] Setting up inception_3b/relu_1x1
I0403 17:14:31.429844 20871 net.cpp:148] Top shape: 24 128 28 28 (2408448)
I0403 17:14:31.429859 20871 net.cpp:156] Memory required for data: 676774944
I0403 17:14:31.429873 20871 layer_factory.hpp:77] Creating layer inception_3b/3x3_reduce
I0403 17:14:31.429893 20871 net.cpp:91] Creating Layer inception_3b/3x3_reduce
I0403 17:14:31.429911 20871 net.cpp:425] inception_3b/3x3_reduce <- inception_3a/output_inception_3a/output_0_split_1
I0403 17:14:31.429932 20871 net.cpp:399] inception_3b/3x3_reduce -> inception_3b/3x3_reduce
I0403 17:14:31.431025 20871 net.cpp:141] Setting up inception_3b/3x3_reduce
I0403 17:14:31.431053 20871 net.cpp:148] Top shape: 24 128 28 28 (2408448)
I0403 17:14:31.431068 20871 net.cpp:156] Memory required for data: 686408736
I0403 17:14:31.431087 20871 layer_factory.hpp:77] Creating layer inception_3b/relu_3x3_reduce
I0403 17:14:31.431107 20871 net.cpp:91] Creating Layer inception_3b/relu_3x3_reduce
I0403 17:14:31.431123 20871 net.cpp:425] inception_3b/relu_3x3_reduce <- inception_3b/3x3_reduce
I0403 17:14:31.431138 20871 net.cpp:386] inception_3b/relu_3x3_reduce -> inception_3b/3x3_reduce (in-place)
I0403 17:14:31.431308 20871 net.cpp:141] Setting up inception_3b/relu_3x3_reduce
I0403 17:14:31.431334 20871 net.cpp:148] Top shape: 24 128 28 28 (2408448)
I0403 17:14:31.431347 20871 net.cpp:156] Memory required for data: 696042528
I0403 17:14:31.431361 20871 layer_factory.hpp:77] Creating layer inception_3b/3x3
I0403 17:14:31.431386 20871 net.cpp:91] Creating Layer inception_3b/3x3
I0403 17:14:31.431404 20871 net.cpp:425] inception_3b/3x3 <- inception_3b/3x3_reduce
I0403 17:14:31.431424 20871 net.cpp:399] inception_3b/3x3 -> inception_3b/3x3
I0403 17:14:31.434226 20871 net.cpp:141] Setting up inception_3b/3x3
I0403 17:14:31.434254 20871 net.cpp:148] Top shape: 24 192 28 28 (3612672)
I0403 17:14:31.434273 20871 net.cpp:156] Memory required for data: 710493216
I0403 17:14:31.434291 20871 layer_factory.hpp:77] Creating layer inception_3b/relu_3x3
I0403 17:14:31.434309 20871 net.cpp:91] Creating Layer inception_3b/relu_3x3
I0403 17:14:31.434325 20871 net.cpp:425] inception_3b/relu_3x3 <- inception_3b/3x3
I0403 17:14:31.434342 20871 net.cpp:386] inception_3b/relu_3x3 -> inception_3b/3x3 (in-place)
I0403 17:14:31.434625 20871 net.cpp:141] Setting up inception_3b/relu_3x3
I0403 17:14:31.434653 20871 net.cpp:148] Top shape: 24 192 28 28 (3612672)
I0403 17:14:31.434671 20871 net.cpp:156] Memory required for data: 724943904
I0403 17:14:31.434687 20871 layer_factory.hpp:77] Creating layer inception_3b/5x5_reduce
I0403 17:14:31.434706 20871 net.cpp:91] Creating Layer inception_3b/5x5_reduce
I0403 17:14:31.434722 20871 net.cpp:425] inception_3b/5x5_reduce <- inception_3a/output_inception_3a/output_0_split_2
I0403 17:14:31.434743 20871 net.cpp:399] inception_3b/5x5_reduce -> inception_3b/5x5_reduce
I0403 17:14:31.435705 20871 net.cpp:141] Setting up inception_3b/5x5_reduce
I0403 17:14:31.435734 20871 net.cpp:148] Top shape: 24 32 28 28 (602112)
I0403 17:14:31.435748 20871 net.cpp:156] Memory required for data: 727352352
I0403 17:14:31.435765 20871 layer_factory.hpp:77] Creating layer inception_3b/relu_5x5_reduce
I0403 17:14:31.435784 20871 net.cpp:91] Creating Layer inception_3b/relu_5x5_reduce
I0403 17:14:31.435801 20871 net.cpp:425] inception_3b/relu_5x5_reduce <- inception_3b/5x5_reduce
I0403 17:14:31.435819 20871 net.cpp:386] inception_3b/relu_5x5_reduce -> inception_3b/5x5_reduce (in-place)
I0403 17:14:31.435994 20871 net.cpp:141] Setting up inception_3b/relu_5x5_reduce
I0403 17:14:31.436033 20871 net.cpp:148] Top shape: 24 32 28 28 (602112)
I0403 17:14:31.436048 20871 net.cpp:156] Memory required for data: 729760800
I0403 17:14:31.436063 20871 layer_factory.hpp:77] Creating layer inception_3b/5x5
I0403 17:14:31.436084 20871 net.cpp:91] Creating Layer inception_3b/5x5
I0403 17:14:31.436101 20871 net.cpp:425] inception_3b/5x5 <- inception_3b/5x5_reduce
I0403 17:14:31.436120 20871 net.cpp:399] inception_3b/5x5 -> inception_3b/5x5
I0403 17:14:31.438024 20871 net.cpp:141] Setting up inception_3b/5x5
I0403 17:14:31.438053 20871 net.cpp:148] Top shape: 24 96 28 28 (1806336)
I0403 17:14:31.438069 20871 net.cpp:156] Memory required for data: 736986144
I0403 17:14:31.438087 20871 layer_factory.hpp:77] Creating layer inception_3b/relu_5x5
I0403 17:14:31.438107 20871 net.cpp:91] Creating Layer inception_3b/relu_5x5
I0403 17:14:31.438123 20871 net.cpp:425] inception_3b/relu_5x5 <- inception_3b/5x5
I0403 17:14:31.438141 20871 net.cpp:386] inception_3b/relu_5x5 -> inception_3b/5x5 (in-place)
I0403 17:14:31.438328 20871 net.cpp:141] Setting up inception_3b/relu_5x5
I0403 17:14:31.438354 20871 net.cpp:148] Top shape: 24 96 28 28 (1806336)
I0403 17:14:31.438367 20871 net.cpp:156] Memory required for data: 744211488
I0403 17:14:31.438381 20871 layer_factory.hpp:77] Creating layer inception_3b/pool
I0403 17:14:31.438400 20871 net.cpp:91] Creating Layer inception_3b/pool
I0403 17:14:31.438415 20871 net.cpp:425] inception_3b/pool <- inception_3a/output_inception_3a/output_0_split_3
I0403 17:14:31.438432 20871 net.cpp:399] inception_3b/pool -> inception_3b/pool
I0403 17:14:31.438485 20871 net.cpp:141] Setting up inception_3b/pool
I0403 17:14:31.438508 20871 net.cpp:148] Top shape: 24 256 28 28 (4816896)
I0403 17:14:31.438521 20871 net.cpp:156] Memory required for data: 763479072
I0403 17:14:31.438535 20871 layer_factory.hpp:77] Creating layer inception_3b/pool_proj
I0403 17:14:31.438556 20871 net.cpp:91] Creating Layer inception_3b/pool_proj
I0403 17:14:31.438580 20871 net.cpp:425] inception_3b/pool_proj <- inception_3b/pool
I0403 17:14:31.438602 20871 net.cpp:399] inception_3b/pool_proj -> inception_3b/pool_proj
I0403 17:14:31.439610 20871 net.cpp:141] Setting up inception_3b/pool_proj
I0403 17:14:31.439640 20871 net.cpp:148] Top shape: 24 64 28 28 (1204224)
I0403 17:14:31.439656 20871 net.cpp:156] Memory required for data: 768295968
I0403 17:14:31.439673 20871 layer_factory.hpp:77] Creating layer inception_3b/relu_pool_proj
I0403 17:14:31.439692 20871 net.cpp:91] Creating Layer inception_3b/relu_pool_proj
I0403 17:14:31.439707 20871 net.cpp:425] inception_3b/relu_pool_proj <- inception_3b/pool_proj
I0403 17:14:31.439728 20871 net.cpp:386] inception_3b/relu_pool_proj -> inception_3b/pool_proj (in-place)
I0403 17:14:31.440100 20871 net.cpp:141] Setting up inception_3b/relu_pool_proj
I0403 17:14:31.440129 20871 net.cpp:148] Top shape: 24 64 28 28 (1204224)
I0403 17:14:31.440145 20871 net.cpp:156] Memory required for data: 773112864
I0403 17:14:31.440160 20871 layer_factory.hpp:77] Creating layer inception_3b/output
I0403 17:14:31.440176 20871 net.cpp:91] Creating Layer inception_3b/output
I0403 17:14:31.440192 20871 net.cpp:425] inception_3b/output <- inception_3b/1x1
I0403 17:14:31.440208 20871 net.cpp:425] inception_3b/output <- inception_3b/3x3
I0403 17:14:31.440225 20871 net.cpp:425] inception_3b/output <- inception_3b/5x5
I0403 17:14:31.440240 20871 net.cpp:425] inception_3b/output <- inception_3b/pool_proj
I0403 17:14:31.440256 20871 net.cpp:399] inception_3b/output -> inception_3b/output
I0403 17:14:31.440301 20871 net.cpp:141] Setting up inception_3b/output
I0403 17:14:31.440325 20871 net.cpp:148] Top shape: 24 480 28 28 (9031680)
I0403 17:14:31.440338 20871 net.cpp:156] Memory required for data: 809239584
I0403 17:14:31.440351 20871 layer_factory.hpp:77] Creating layer pool3/3x3_s2
I0403 17:14:31.440371 20871 net.cpp:91] Creating Layer pool3/3x3_s2
I0403 17:14:31.440387 20871 net.cpp:425] pool3/3x3_s2 <- inception_3b/output
I0403 17:14:31.440405 20871 net.cpp:399] pool3/3x3_s2 -> pool3/3x3_s2
I0403 17:14:31.440474 20871 net.cpp:141] Setting up pool3/3x3_s2
I0403 17:14:31.440497 20871 net.cpp:148] Top shape: 24 480 14 14 (2257920)
I0403 17:14:31.440512 20871 net.cpp:156] Memory required for data: 818271264
I0403 17:14:31.440526 20871 layer_factory.hpp:77] Creating layer pool3/3x3_s2_pool3/3x3_s2_0_split
I0403 17:14:31.440542 20871 net.cpp:91] Creating Layer pool3/3x3_s2_pool3/3x3_s2_0_split
I0403 17:14:31.440558 20871 net.cpp:425] pool3/3x3_s2_pool3/3x3_s2_0_split <- pool3/3x3_s2
I0403 17:14:31.440582 20871 net.cpp:399] pool3/3x3_s2_pool3/3x3_s2_0_split -> pool3/3x3_s2_pool3/3x3_s2_0_split_0
I0403 17:14:31.440605 20871 net.cpp:399] pool3/3x3_s2_pool3/3x3_s2_0_split -> pool3/3x3_s2_pool3/3x3_s2_0_split_1
I0403 17:14:31.440625 20871 net.cpp:399] pool3/3x3_s2_pool3/3x3_s2_0_split -> pool3/3x3_s2_pool3/3x3_s2_0_split_2
I0403 17:14:31.440644 20871 net.cpp:399] pool3/3x3_s2_pool3/3x3_s2_0_split -> pool3/3x3_s2_pool3/3x3_s2_0_split_3
I0403 17:14:31.440717 20871 net.cpp:141] Setting up pool3/3x3_s2_pool3/3x3_s2_0_split
I0403 17:14:31.440743 20871 net.cpp:148] Top shape: 24 480 14 14 (2257920)
I0403 17:14:31.440760 20871 net.cpp:148] Top shape: 24 480 14 14 (2257920)
I0403 17:14:31.440776 20871 net.cpp:148] Top shape: 24 480 14 14 (2257920)
I0403 17:14:31.440791 20871 net.cpp:148] Top shape: 24 480 14 14 (2257920)
I0403 17:14:31.440804 20871 net.cpp:156] Memory required for data: 854397984
I0403 17:14:31.440817 20871 layer_factory.hpp:77] Creating layer inception_4a/1x1
I0403 17:14:31.440842 20871 net.cpp:91] Creating Layer inception_4a/1x1
I0403 17:14:31.440871 20871 net.cpp:425] inception_4a/1x1 <- pool3/3x3_s2_pool3/3x3_s2_0_split_0
I0403 17:14:31.440889 20871 net.cpp:399] inception_4a/1x1 -> inception_4a/1x1
I0403 17:14:31.442404 20871 net.cpp:141] Setting up inception_4a/1x1
I0403 17:14:31.442430 20871 net.cpp:148] Top shape: 24 192 14 14 (903168)
I0403 17:14:31.442446 20871 net.cpp:156] Memory required for data: 858010656
I0403 17:14:31.442463 20871 layer_factory.hpp:77] Creating layer inception_4a/relu_1x1
I0403 17:14:31.442481 20871 net.cpp:91] Creating Layer inception_4a/relu_1x1
I0403 17:14:31.442509 20871 net.cpp:425] inception_4a/relu_1x1 <- inception_4a/1x1
I0403 17:14:31.442528 20871 net.cpp:386] inception_4a/relu_1x1 -> inception_4a/1x1 (in-place)
I0403 17:14:31.442703 20871 net.cpp:141] Setting up inception_4a/relu_1x1
I0403 17:14:31.442728 20871 net.cpp:148] Top shape: 24 192 14 14 (903168)
I0403 17:14:31.442740 20871 net.cpp:156] Memory required for data: 861623328
I0403 17:14:31.442755 20871 layer_factory.hpp:77] Creating layer inception_4a/3x3_reduce
I0403 17:14:31.442788 20871 net.cpp:91] Creating Layer inception_4a/3x3_reduce
I0403 17:14:31.442805 20871 net.cpp:425] inception_4a/3x3_reduce <- pool3/3x3_s2_pool3/3x3_s2_0_split_1
I0403 17:14:31.442824 20871 net.cpp:399] inception_4a/3x3_reduce -> inception_4a/3x3_reduce
I0403 17:14:31.444012 20871 net.cpp:141] Setting up inception_4a/3x3_reduce
I0403 17:14:31.444039 20871 net.cpp:148] Top shape: 24 96 14 14 (451584)
I0403 17:14:31.444054 20871 net.cpp:156] Memory required for data: 863429664
I0403 17:14:31.444077 20871 layer_factory.hpp:77] Creating layer inception_4a/relu_3x3_reduce
I0403 17:14:31.444097 20871 net.cpp:91] Creating Layer inception_4a/relu_3x3_reduce
I0403 17:14:31.444113 20871 net.cpp:425] inception_4a/relu_3x3_reduce <- inception_4a/3x3_reduce
I0403 17:14:31.444130 20871 net.cpp:386] inception_4a/relu_3x3_reduce -> inception_4a/3x3_reduce (in-place)
I0403 17:14:31.444295 20871 net.cpp:141] Setting up inception_4a/relu_3x3_reduce
I0403 17:14:31.444319 20871 net.cpp:148] Top shape: 24 96 14 14 (451584)
I0403 17:14:31.444332 20871 net.cpp:156] Memory required for data: 865236000
I0403 17:14:31.444347 20871 layer_factory.hpp:77] Creating layer inception_4a/3x3
I0403 17:14:31.444368 20871 net.cpp:91] Creating Layer inception_4a/3x3
I0403 17:14:31.444386 20871 net.cpp:425] inception_4a/3x3 <- inception_4a/3x3_reduce
I0403 17:14:31.444406 20871 net.cpp:399] inception_4a/3x3 -> inception_4a/3x3
I0403 17:14:31.446921 20871 net.cpp:141] Setting up inception_4a/3x3
I0403 17:14:31.446949 20871 net.cpp:148] Top shape: 24 208 14 14 (978432)
I0403 17:14:31.446965 20871 net.cpp:156] Memory required for data: 869149728
I0403 17:14:31.446982 20871 layer_factory.hpp:77] Creating layer inception_4a/relu_3x3
I0403 17:14:31.447001 20871 net.cpp:91] Creating Layer inception_4a/relu_3x3
I0403 17:14:31.447016 20871 net.cpp:425] inception_4a/relu_3x3 <- inception_4a/3x3
I0403 17:14:31.447033 20871 net.cpp:386] inception_4a/relu_3x3 -> inception_4a/3x3 (in-place)
I0403 17:14:31.447295 20871 net.cpp:141] Setting up inception_4a/relu_3x3
I0403 17:14:31.447321 20871 net.cpp:148] Top shape: 24 208 14 14 (978432)
I0403 17:14:31.447336 20871 net.cpp:156] Memory required for data: 873063456
I0403 17:14:31.447351 20871 layer_factory.hpp:77] Creating layer inception_4a/5x5_reduce
I0403 17:14:31.447373 20871 net.cpp:91] Creating Layer inception_4a/5x5_reduce
I0403 17:14:31.447391 20871 net.cpp:425] inception_4a/5x5_reduce <- pool3/3x3_s2_pool3/3x3_s2_0_split_2
I0403 17:14:31.447412 20871 net.cpp:399] inception_4a/5x5_reduce -> inception_4a/5x5_reduce
I0403 17:14:31.448367 20871 net.cpp:141] Setting up inception_4a/5x5_reduce
I0403 17:14:31.448395 20871 net.cpp:148] Top shape: 24 16 14 14 (75264)
I0403 17:14:31.448410 20871 net.cpp:156] Memory required for data: 873364512
I0403 17:14:31.448426 20871 layer_factory.hpp:77] Creating layer inception_4a/relu_5x5_reduce
I0403 17:14:31.448446 20871 net.cpp:91] Creating Layer inception_4a/relu_5x5_reduce
I0403 17:14:31.448462 20871 net.cpp:425] inception_4a/relu_5x5_reduce <- inception_4a/5x5_reduce
I0403 17:14:31.448479 20871 net.cpp:386] inception_4a/relu_5x5_reduce -> inception_4a/5x5_reduce (in-place)
I0403 17:14:31.448667 20871 net.cpp:141] Setting up inception_4a/relu_5x5_reduce
I0403 17:14:31.448693 20871 net.cpp:148] Top shape: 24 16 14 14 (75264)
I0403 17:14:31.448710 20871 net.cpp:156] Memory required for data: 873665568
I0403 17:14:31.448725 20871 layer_factory.hpp:77] Creating layer inception_4a/5x5
I0403 17:14:31.448748 20871 net.cpp:91] Creating Layer inception_4a/5x5
I0403 17:14:31.448766 20871 net.cpp:425] inception_4a/5x5 <- inception_4a/5x5_reduce
I0403 17:14:31.448784 20871 net.cpp:399] inception_4a/5x5 -> inception_4a/5x5
I0403 17:14:31.449811 20871 net.cpp:141] Setting up inception_4a/5x5
I0403 17:14:31.449841 20871 net.cpp:148] Top shape: 24 48 14 14 (225792)
I0403 17:14:31.449857 20871 net.cpp:156] Memory required for data: 874568736
I0403 17:14:31.449875 20871 layer_factory.hpp:77] Creating layer inception_4a/relu_5x5
I0403 17:14:31.449892 20871 net.cpp:91] Creating Layer inception_4a/relu_5x5
I0403 17:14:31.449908 20871 net.cpp:425] inception_4a/relu_5x5 <- inception_4a/5x5
I0403 17:14:31.449926 20871 net.cpp:386] inception_4a/relu_5x5 -> inception_4a/5x5 (in-place)
I0403 17:14:31.450093 20871 net.cpp:141] Setting up inception_4a/relu_5x5
I0403 17:14:31.450116 20871 net.cpp:148] Top shape: 24 48 14 14 (225792)
I0403 17:14:31.450130 20871 net.cpp:156] Memory required for data: 875471904
I0403 17:14:31.450145 20871 layer_factory.hpp:77] Creating layer inception_4a/pool
I0403 17:14:31.450161 20871 net.cpp:91] Creating Layer inception_4a/pool
I0403 17:14:31.450176 20871 net.cpp:425] inception_4a/pool <- pool3/3x3_s2_pool3/3x3_s2_0_split_3
I0403 17:14:31.450196 20871 net.cpp:399] inception_4a/pool -> inception_4a/pool
I0403 17:14:31.450251 20871 net.cpp:141] Setting up inception_4a/pool
I0403 17:14:31.450275 20871 net.cpp:148] Top shape: 24 480 14 14 (2257920)
I0403 17:14:31.450289 20871 net.cpp:156] Memory required for data: 884503584
I0403 17:14:31.450304 20871 layer_factory.hpp:77] Creating layer inception_4a/pool_proj
I0403 17:14:31.450322 20871 net.cpp:91] Creating Layer inception_4a/pool_proj
I0403 17:14:31.450340 20871 net.cpp:425] inception_4a/pool_proj <- inception_4a/pool
I0403 17:14:31.450359 20871 net.cpp:399] inception_4a/pool_proj -> inception_4a/pool_proj
I0403 17:14:31.451450 20871 net.cpp:141] Setting up inception_4a/pool_proj
I0403 17:14:31.451478 20871 net.cpp:148] Top shape: 24 64 14 14 (301056)
I0403 17:14:31.451506 20871 net.cpp:156] Memory required for data: 885707808
I0403 17:14:31.451525 20871 layer_factory.hpp:77] Creating layer inception_4a/relu_pool_proj
I0403 17:14:31.451544 20871 net.cpp:91] Creating Layer inception_4a/relu_pool_proj
I0403 17:14:31.451558 20871 net.cpp:425] inception_4a/relu_pool_proj <- inception_4a/pool_proj
I0403 17:14:31.451583 20871 net.cpp:386] inception_4a/relu_pool_proj -> inception_4a/pool_proj (in-place)
I0403 17:14:31.451853 20871 net.cpp:141] Setting up inception_4a/relu_pool_proj
I0403 17:14:31.451879 20871 net.cpp:148] Top shape: 24 64 14 14 (301056)
I0403 17:14:31.451894 20871 net.cpp:156] Memory required for data: 886912032
I0403 17:14:31.451908 20871 layer_factory.hpp:77] Creating layer inception_4a/output
I0403 17:14:31.451925 20871 net.cpp:91] Creating Layer inception_4a/output
I0403 17:14:31.451939 20871 net.cpp:425] inception_4a/output <- inception_4a/1x1
I0403 17:14:31.451956 20871 net.cpp:425] inception_4a/output <- inception_4a/3x3
I0403 17:14:31.451970 20871 net.cpp:425] inception_4a/output <- inception_4a/5x5
I0403 17:14:31.451987 20871 net.cpp:425] inception_4a/output <- inception_4a/pool_proj
I0403 17:14:31.452005 20871 net.cpp:399] inception_4a/output -> inception_4a/output
I0403 17:14:31.452047 20871 net.cpp:141] Setting up inception_4a/output
I0403 17:14:31.452075 20871 net.cpp:148] Top shape: 24 512 14 14 (2408448)
I0403 17:14:31.452090 20871 net.cpp:156] Memory required for data: 896545824
I0403 17:14:31.452105 20871 layer_factory.hpp:77] Creating layer inception_4a/output_inception_4a/output_0_split
I0403 17:14:31.452121 20871 net.cpp:91] Creating Layer inception_4a/output_inception_4a/output_0_split
I0403 17:14:31.452136 20871 net.cpp:425] inception_4a/output_inception_4a/output_0_split <- inception_4a/output
I0403 17:14:31.452153 20871 net.cpp:399] inception_4a/output_inception_4a/output_0_split -> inception_4a/output_inception_4a/output_0_split_0
I0403 17:14:31.452174 20871 net.cpp:399] inception_4a/output_inception_4a/output_0_split -> inception_4a/output_inception_4a/output_0_split_1
I0403 17:14:31.452194 20871 net.cpp:399] inception_4a/output_inception_4a/output_0_split -> inception_4a/output_inception_4a/output_0_split_2
I0403 17:14:31.452214 20871 net.cpp:399] inception_4a/output_inception_4a/output_0_split -> inception_4a/output_inception_4a/output_0_split_3
I0403 17:14:31.452232 20871 net.cpp:399] inception_4a/output_inception_4a/output_0_split -> inception_4a/output_inception_4a/output_0_split_4
I0403 17:14:31.452318 20871 net.cpp:141] Setting up inception_4a/output_inception_4a/output_0_split
I0403 17:14:31.452342 20871 net.cpp:148] Top shape: 24 512 14 14 (2408448)
I0403 17:14:31.452358 20871 net.cpp:148] Top shape: 24 512 14 14 (2408448)
I0403 17:14:31.452371 20871 net.cpp:148] Top shape: 24 512 14 14 (2408448)
I0403 17:14:31.452385 20871 net.cpp:148] Top shape: 24 512 14 14 (2408448)
I0403 17:14:31.452399 20871 net.cpp:148] Top shape: 24 512 14 14 (2408448)
I0403 17:14:31.452412 20871 net.cpp:156] Memory required for data: 944714784
I0403 17:14:31.452426 20871 layer_factory.hpp:77] Creating layer loss1/ave_pool
I0403 17:14:31.452445 20871 net.cpp:91] Creating Layer loss1/ave_pool
I0403 17:14:31.452461 20871 net.cpp:425] loss1/ave_pool <- inception_4a/output_inception_4a/output_0_split_0
I0403 17:14:31.452477 20871 net.cpp:399] loss1/ave_pool -> loss1/ave_pool
I0403 17:14:31.452689 20871 net.cpp:141] Setting up loss1/ave_pool
I0403 17:14:31.452716 20871 net.cpp:148] Top shape: 24 512 4 4 (196608)
I0403 17:14:31.452731 20871 net.cpp:156] Memory required for data: 945501216
I0403 17:14:31.452746 20871 layer_factory.hpp:77] Creating layer loss1/conv
I0403 17:14:31.452767 20871 net.cpp:91] Creating Layer loss1/conv
I0403 17:14:31.452785 20871 net.cpp:425] loss1/conv <- loss1/ave_pool
I0403 17:14:31.452805 20871 net.cpp:399] loss1/conv -> loss1/conv
I0403 17:14:31.454149 20871 net.cpp:141] Setting up loss1/conv
I0403 17:14:31.454177 20871 net.cpp:148] Top shape: 24 128 4 4 (49152)
I0403 17:14:31.454192 20871 net.cpp:156] Memory required for data: 945697824
I0403 17:14:31.454224 20871 layer_factory.hpp:77] Creating layer loss1/relu_conv
I0403 17:14:31.454246 20871 net.cpp:91] Creating Layer loss1/relu_conv
I0403 17:14:31.454262 20871 net.cpp:425] loss1/relu_conv <- loss1/conv
I0403 17:14:31.454279 20871 net.cpp:386] loss1/relu_conv -> loss1/conv (in-place)
I0403 17:14:31.454551 20871 net.cpp:141] Setting up loss1/relu_conv
I0403 17:14:31.454589 20871 net.cpp:148] Top shape: 24 128 4 4 (49152)
I0403 17:14:31.454607 20871 net.cpp:156] Memory required for data: 945894432
I0403 17:14:31.454622 20871 layer_factory.hpp:77] Creating layer loss1/fc
I0403 17:14:31.454648 20871 net.cpp:91] Creating Layer loss1/fc
I0403 17:14:31.454665 20871 net.cpp:425] loss1/fc <- loss1/conv
I0403 17:14:31.454684 20871 net.cpp:399] loss1/fc -> loss1/fc
I0403 17:14:31.471863 20871 net.cpp:141] Setting up loss1/fc
I0403 17:14:31.471896 20871 net.cpp:148] Top shape: 24 1024 (24576)
I0403 17:14:31.471912 20871 net.cpp:156] Memory required for data: 945992736
I0403 17:14:31.471930 20871 layer_factory.hpp:77] Creating layer loss1/relu_fc
I0403 17:14:31.471946 20871 net.cpp:91] Creating Layer loss1/relu_fc
I0403 17:14:31.471961 20871 net.cpp:425] loss1/relu_fc <- loss1/fc
I0403 17:14:31.471981 20871 net.cpp:386] loss1/relu_fc -> loss1/fc (in-place)
I0403 17:14:31.472153 20871 net.cpp:141] Setting up loss1/relu_fc
I0403 17:14:31.472177 20871 net.cpp:148] Top shape: 24 1024 (24576)
I0403 17:14:31.472190 20871 net.cpp:156] Memory required for data: 946091040
I0403 17:14:31.472203 20871 layer_factory.hpp:77] Creating layer loss1/drop_fc
I0403 17:14:31.472229 20871 net.cpp:91] Creating Layer loss1/drop_fc
I0403 17:14:31.472246 20871 net.cpp:425] loss1/drop_fc <- loss1/fc
I0403 17:14:31.472264 20871 net.cpp:386] loss1/drop_fc -> loss1/fc (in-place)
I0403 17:14:31.472309 20871 net.cpp:141] Setting up loss1/drop_fc
I0403 17:14:31.472335 20871 net.cpp:148] Top shape: 24 1024 (24576)
I0403 17:14:31.472352 20871 net.cpp:156] Memory required for data: 946189344
I0403 17:14:31.472367 20871 layer_factory.hpp:77] Creating layer loss1/classifier_plantvillage
I0403 17:14:31.472383 20871 net.cpp:91] Creating Layer loss1/classifier_plantvillage
I0403 17:14:31.472399 20871 net.cpp:425] loss1/classifier_plantvillage <- loss1/fc
I0403 17:14:31.472419 20871 net.cpp:399] loss1/classifier_plantvillage -> loss1/classifier_plantvillage
I0403 17:14:31.473273 20871 net.cpp:141] Setting up loss1/classifier_plantvillage
I0403 17:14:31.473300 20871 net.cpp:148] Top shape: 24 38 (912)
I0403 17:14:31.473315 20871 net.cpp:156] Memory required for data: 946192992
I0403 17:14:31.473332 20871 layer_factory.hpp:77] Creating layer loss1/classifier_plantvillage_loss1/classifier_plantvillage_0_split
I0403 17:14:31.473351 20871 net.cpp:91] Creating Layer loss1/classifier_plantvillage_loss1/classifier_plantvillage_0_split
I0403 17:14:31.473369 20871 net.cpp:425] loss1/classifier_plantvillage_loss1/classifier_plantvillage_0_split <- loss1/classifier_plantvillage
I0403 17:14:31.473387 20871 net.cpp:399] loss1/classifier_plantvillage_loss1/classifier_plantvillage_0_split -> loss1/classifier_plantvillage_loss1/classifier_plantvillage_0_split_0
I0403 17:14:31.473404 20871 net.cpp:399] loss1/classifier_plantvillage_loss1/classifier_plantvillage_0_split -> loss1/classifier_plantvillage_loss1/classifier_plantvillage_0_split_1
I0403 17:14:31.473423 20871 net.cpp:399] loss1/classifier_plantvillage_loss1/classifier_plantvillage_0_split -> loss1/classifier_plantvillage_loss1/classifier_plantvillage_0_split_2
I0403 17:14:31.473484 20871 net.cpp:141] Setting up loss1/classifier_plantvillage_loss1/classifier_plantvillage_0_split
I0403 17:14:31.473508 20871 net.cpp:148] Top shape: 24 38 (912)
I0403 17:14:31.473525 20871 net.cpp:148] Top shape: 24 38 (912)
I0403 17:14:31.473539 20871 net.cpp:148] Top shape: 24 38 (912)
I0403 17:14:31.473552 20871 net.cpp:156] Memory required for data: 946203936
I0403 17:14:31.473567 20871 layer_factory.hpp:77] Creating layer inception_4b/1x1
I0403 17:14:31.473592 20871 net.cpp:91] Creating Layer inception_4b/1x1
I0403 17:14:31.473628 20871 net.cpp:425] inception_4b/1x1 <- inception_4a/output_inception_4a/output_0_split_1
I0403 17:14:31.473647 20871 net.cpp:399] inception_4b/1x1 -> inception_4b/1x1
I0403 17:14:31.475178 20871 net.cpp:141] Setting up inception_4b/1x1
I0403 17:14:31.475205 20871 net.cpp:148] Top shape: 24 160 14 14 (752640)
I0403 17:14:31.475220 20871 net.cpp:156] Memory required for data: 949214496
I0403 17:14:31.475237 20871 layer_factory.hpp:77] Creating layer inception_4b/relu_1x1
I0403 17:14:31.475256 20871 net.cpp:91] Creating Layer inception_4b/relu_1x1
I0403 17:14:31.475275 20871 net.cpp:425] inception_4b/relu_1x1 <- inception_4b/1x1
I0403 17:14:31.475291 20871 net.cpp:386] inception_4b/relu_1x1 -> inception_4b/1x1 (in-place)
I0403 17:14:31.475457 20871 net.cpp:141] Setting up inception_4b/relu_1x1
I0403 17:14:31.475484 20871 net.cpp:148] Top shape: 24 160 14 14 (752640)
I0403 17:14:31.475498 20871 net.cpp:156] Memory required for data: 952225056
I0403 17:14:31.475512 20871 layer_factory.hpp:77] Creating layer inception_4b/3x3_reduce
I0403 17:14:31.475533 20871 net.cpp:91] Creating Layer inception_4b/3x3_reduce
I0403 17:14:31.475550 20871 net.cpp:425] inception_4b/3x3_reduce <- inception_4a/output_inception_4a/output_0_split_2
I0403 17:14:31.475569 20871 net.cpp:399] inception_4b/3x3_reduce -> inception_4b/3x3_reduce
I0403 17:14:31.476836 20871 net.cpp:141] Setting up inception_4b/3x3_reduce
I0403 17:14:31.476863 20871 net.cpp:148] Top shape: 24 112 14 14 (526848)
I0403 17:14:31.476878 20871 net.cpp:156] Memory required for data: 954332448
I0403 17:14:31.476899 20871 layer_factory.hpp:77] Creating layer inception_4b/relu_3x3_reduce
I0403 17:14:31.476918 20871 net.cpp:91] Creating Layer inception_4b/relu_3x3_reduce
I0403 17:14:31.476933 20871 net.cpp:425] inception_4b/relu_3x3_reduce <- inception_4b/3x3_reduce
I0403 17:14:31.476951 20871 net.cpp:386] inception_4b/relu_3x3_reduce -> inception_4b/3x3_reduce (in-place)
I0403 17:14:31.477216 20871 net.cpp:141] Setting up inception_4b/relu_3x3_reduce
I0403 17:14:31.477242 20871 net.cpp:148] Top shape: 24 112 14 14 (526848)
I0403 17:14:31.477257 20871 net.cpp:156] Memory required for data: 956439840
I0403 17:14:31.477272 20871 layer_factory.hpp:77] Creating layer inception_4b/3x3
I0403 17:14:31.477293 20871 net.cpp:91] Creating Layer inception_4b/3x3
I0403 17:14:31.477310 20871 net.cpp:425] inception_4b/3x3 <- inception_4b/3x3_reduce
I0403 17:14:31.477329 20871 net.cpp:399] inception_4b/3x3 -> inception_4b/3x3
I0403 17:14:31.480120 20871 net.cpp:141] Setting up inception_4b/3x3
I0403 17:14:31.480149 20871 net.cpp:148] Top shape: 24 224 14 14 (1053696)
I0403 17:14:31.480165 20871 net.cpp:156] Memory required for data: 960654624
I0403 17:14:31.480181 20871 layer_factory.hpp:77] Creating layer inception_4b/relu_3x3
I0403 17:14:31.480198 20871 net.cpp:91] Creating Layer inception_4b/relu_3x3
I0403 17:14:31.480216 20871 net.cpp:425] inception_4b/relu_3x3 <- inception_4b/3x3
I0403 17:14:31.480232 20871 net.cpp:386] inception_4b/relu_3x3 -> inception_4b/3x3 (in-place)
I0403 17:14:31.480398 20871 net.cpp:141] Setting up inception_4b/relu_3x3
I0403 17:14:31.480422 20871 net.cpp:148] Top shape: 24 224 14 14 (1053696)
I0403 17:14:31.480437 20871 net.cpp:156] Memory required for data: 964869408
I0403 17:14:31.480450 20871 layer_factory.hpp:77] Creating layer inception_4b/5x5_reduce
I0403 17:14:31.480471 20871 net.cpp:91] Creating Layer inception_4b/5x5_reduce
I0403 17:14:31.480489 20871 net.cpp:425] inception_4b/5x5_reduce <- inception_4a/output_inception_4a/output_0_split_3
I0403 17:14:31.480509 20871 net.cpp:399] inception_4b/5x5_reduce -> inception_4b/5x5_reduce
I0403 17:14:31.481528 20871 net.cpp:141] Setting up inception_4b/5x5_reduce
I0403 17:14:31.481554 20871 net.cpp:148] Top shape: 24 24 14 14 (112896)
I0403 17:14:31.481575 20871 net.cpp:156] Memory required for data: 965320992
I0403 17:14:31.481595 20871 layer_factory.hpp:77] Creating layer inception_4b/relu_5x5_reduce
I0403 17:14:31.481616 20871 net.cpp:91] Creating Layer inception_4b/relu_5x5_reduce
I0403 17:14:31.481644 20871 net.cpp:425] inception_4b/relu_5x5_reduce <- inception_4b/5x5_reduce
I0403 17:14:31.481662 20871 net.cpp:386] inception_4b/relu_5x5_reduce -> inception_4b/5x5_reduce (in-place)
I0403 17:14:31.481834 20871 net.cpp:141] Setting up inception_4b/relu_5x5_reduce
I0403 17:14:31.481858 20871 net.cpp:148] Top shape: 24 24 14 14 (112896)
I0403 17:14:31.481873 20871 net.cpp:156] Memory required for data: 965772576
I0403 17:14:31.481886 20871 layer_factory.hpp:77] Creating layer inception_4b/5x5
I0403 17:14:31.481910 20871 net.cpp:91] Creating Layer inception_4b/5x5
I0403 17:14:31.481927 20871 net.cpp:425] inception_4b/5x5 <- inception_4b/5x5_reduce
I0403 17:14:31.481947 20871 net.cpp:399] inception_4b/5x5 -> inception_4b/5x5
I0403 17:14:31.483103 20871 net.cpp:141] Setting up inception_4b/5x5
I0403 17:14:31.483129 20871 net.cpp:148] Top shape: 24 64 14 14 (301056)
I0403 17:14:31.483145 20871 net.cpp:156] Memory required for data: 966976800
I0403 17:14:31.483162 20871 layer_factory.hpp:77] Creating layer inception_4b/relu_5x5
I0403 17:14:31.483182 20871 net.cpp:91] Creating Layer inception_4b/relu_5x5
I0403 17:14:31.483198 20871 net.cpp:425] inception_4b/relu_5x5 <- inception_4b/5x5
I0403 17:14:31.483214 20871 net.cpp:386] inception_4b/relu_5x5 -> inception_4b/5x5 (in-place)
I0403 17:14:31.483484 20871 net.cpp:141] Setting up inception_4b/relu_5x5
I0403 17:14:31.483510 20871 net.cpp:148] Top shape: 24 64 14 14 (301056)
I0403 17:14:31.483525 20871 net.cpp:156] Memory required for data: 968181024
I0403 17:14:31.483538 20871 layer_factory.hpp:77] Creating layer inception_4b/pool
I0403 17:14:31.483557 20871 net.cpp:91] Creating Layer inception_4b/pool
I0403 17:14:31.483579 20871 net.cpp:425] inception_4b/pool <- inception_4a/output_inception_4a/output_0_split_4
I0403 17:14:31.483598 20871 net.cpp:399] inception_4b/pool -> inception_4b/pool
I0403 17:14:31.483659 20871 net.cpp:141] Setting up inception_4b/pool
I0403 17:14:31.483682 20871 net.cpp:148] Top shape: 24 512 14 14 (2408448)
I0403 17:14:31.483695 20871 net.cpp:156] Memory required for data: 977814816
I0403 17:14:31.483710 20871 layer_factory.hpp:77] Creating layer inception_4b/pool_proj
I0403 17:14:31.483729 20871 net.cpp:91] Creating Layer inception_4b/pool_proj
I0403 17:14:31.483747 20871 net.cpp:425] inception_4b/pool_proj <- inception_4b/pool
I0403 17:14:31.483767 20871 net.cpp:399] inception_4b/pool_proj -> inception_4b/pool_proj
I0403 17:14:31.484897 20871 net.cpp:141] Setting up inception_4b/pool_proj
I0403 17:14:31.484925 20871 net.cpp:148] Top shape: 24 64 14 14 (301056)
I0403 17:14:31.484940 20871 net.cpp:156] Memory required for data: 979019040
I0403 17:14:31.484957 20871 layer_factory.hpp:77] Creating layer inception_4b/relu_pool_proj
I0403 17:14:31.484979 20871 net.cpp:91] Creating Layer inception_4b/relu_pool_proj
I0403 17:14:31.484995 20871 net.cpp:425] inception_4b/relu_pool_proj <- inception_4b/pool_proj
I0403 17:14:31.485013 20871 net.cpp:386] inception_4b/relu_pool_proj -> inception_4b/pool_proj (in-place)
I0403 17:14:31.485179 20871 net.cpp:141] Setting up inception_4b/relu_pool_proj
I0403 17:14:31.485205 20871 net.cpp:148] Top shape: 24 64 14 14 (301056)
I0403 17:14:31.485219 20871 net.cpp:156] Memory required for data: 980223264
I0403 17:14:31.485234 20871 layer_factory.hpp:77] Creating layer inception_4b/output
I0403 17:14:31.485250 20871 net.cpp:91] Creating Layer inception_4b/output
I0403 17:14:31.485265 20871 net.cpp:425] inception_4b/output <- inception_4b/1x1
I0403 17:14:31.485280 20871 net.cpp:425] inception_4b/output <- inception_4b/3x3
I0403 17:14:31.485296 20871 net.cpp:425] inception_4b/output <- inception_4b/5x5
I0403 17:14:31.485311 20871 net.cpp:425] inception_4b/output <- inception_4b/pool_proj
I0403 17:14:31.485330 20871 net.cpp:399] inception_4b/output -> inception_4b/output
I0403 17:14:31.485373 20871 net.cpp:141] Setting up inception_4b/output
I0403 17:14:31.485395 20871 net.cpp:148] Top shape: 24 512 14 14 (2408448)
I0403 17:14:31.485409 20871 net.cpp:156] Memory required for data: 989857056
I0403 17:14:31.485440 20871 layer_factory.hpp:77] Creating layer inception_4b/output_inception_4b/output_0_split
I0403 17:14:31.485458 20871 net.cpp:91] Creating Layer inception_4b/output_inception_4b/output_0_split
I0403 17:14:31.485476 20871 net.cpp:425] inception_4b/output_inception_4b/output_0_split <- inception_4b/output
I0403 17:14:31.485492 20871 net.cpp:399] inception_4b/output_inception_4b/output_0_split -> inception_4b/output_inception_4b/output_0_split_0
I0403 17:14:31.485523 20871 net.cpp:399] inception_4b/output_inception_4b/output_0_split -> inception_4b/output_inception_4b/output_0_split_1
I0403 17:14:31.485548 20871 net.cpp:399] inception_4b/output_inception_4b/output_0_split -> inception_4b/output_inception_4b/output_0_split_2
I0403 17:14:31.485569 20871 net.cpp:399] inception_4b/output_inception_4b/output_0_split -> inception_4b/output_inception_4b/output_0_split_3
I0403 17:14:31.485654 20871 net.cpp:141] Setting up inception_4b/output_inception_4b/output_0_split
I0403 17:14:31.485678 20871 net.cpp:148] Top shape: 24 512 14 14 (2408448)
I0403 17:14:31.485694 20871 net.cpp:148] Top shape: 24 512 14 14 (2408448)
I0403 17:14:31.485709 20871 net.cpp:148] Top shape: 24 512 14 14 (2408448)
I0403 17:14:31.485723 20871 net.cpp:148] Top shape: 24 512 14 14 (2408448)
I0403 17:14:31.485736 20871 net.cpp:156] Memory required for data: 1028392224
I0403 17:14:31.485751 20871 layer_factory.hpp:77] Creating layer inception_4c/1x1
I0403 17:14:31.485772 20871 net.cpp:91] Creating Layer inception_4c/1x1
I0403 17:14:31.485790 20871 net.cpp:425] inception_4c/1x1 <- inception_4b/output_inception_4b/output_0_split_0
I0403 17:14:31.485812 20871 net.cpp:399] inception_4c/1x1 -> inception_4c/1x1
I0403 17:14:31.487205 20871 net.cpp:141] Setting up inception_4c/1x1
I0403 17:14:31.487236 20871 net.cpp:148] Top shape: 24 128 14 14 (602112)
I0403 17:14:31.487251 20871 net.cpp:156] Memory required for data: 1030800672
I0403 17:14:31.487268 20871 layer_factory.hpp:77] Creating layer inception_4c/relu_1x1
I0403 17:14:31.487287 20871 net.cpp:91] Creating Layer inception_4c/relu_1x1
I0403 17:14:31.487303 20871 net.cpp:425] inception_4c/relu_1x1 <- inception_4c/1x1
I0403 17:14:31.487323 20871 net.cpp:386] inception_4c/relu_1x1 -> inception_4c/1x1 (in-place)
I0403 17:14:31.487490 20871 net.cpp:141] Setting up inception_4c/relu_1x1
I0403 17:14:31.487514 20871 net.cpp:148] Top shape: 24 128 14 14 (602112)
I0403 17:14:31.487527 20871 net.cpp:156] Memory required for data: 1033209120
I0403 17:14:31.487542 20871 layer_factory.hpp:77] Creating layer inception_4c/3x3_reduce
I0403 17:14:31.487562 20871 net.cpp:91] Creating Layer inception_4c/3x3_reduce
I0403 17:14:31.487586 20871 net.cpp:425] inception_4c/3x3_reduce <- inception_4b/output_inception_4b/output_0_split_1
I0403 17:14:31.487608 20871 net.cpp:399] inception_4c/3x3_reduce -> inception_4c/3x3_reduce
I0403 17:14:31.489424 20871 net.cpp:141] Setting up inception_4c/3x3_reduce
I0403 17:14:31.489452 20871 net.cpp:148] Top shape: 24 128 14 14 (602112)
I0403 17:14:31.489467 20871 net.cpp:156] Memory required for data: 1035617568
I0403 17:14:31.489485 20871 layer_factory.hpp:77] Creating layer inception_4c/relu_3x3_reduce
I0403 17:14:31.489505 20871 net.cpp:91] Creating Layer inception_4c/relu_3x3_reduce
I0403 17:14:31.489521 20871 net.cpp:425] inception_4c/relu_3x3_reduce <- inception_4c/3x3_reduce
I0403 17:14:31.489537 20871 net.cpp:386] inception_4c/relu_3x3_reduce -> inception_4c/3x3_reduce (in-place)
I0403 17:14:31.489809 20871 net.cpp:141] Setting up inception_4c/relu_3x3_reduce
I0403 17:14:31.489835 20871 net.cpp:148] Top shape: 24 128 14 14 (602112)
I0403 17:14:31.489850 20871 net.cpp:156] Memory required for data: 1038026016
I0403 17:14:31.489864 20871 layer_factory.hpp:77] Creating layer inception_4c/3x3
I0403 17:14:31.489884 20871 net.cpp:91] Creating Layer inception_4c/3x3
I0403 17:14:31.489902 20871 net.cpp:425] inception_4c/3x3 <- inception_4c/3x3_reduce
I0403 17:14:31.489923 20871 net.cpp:399] inception_4c/3x3 -> inception_4c/3x3
I0403 17:14:31.493309 20871 net.cpp:141] Setting up inception_4c/3x3
I0403 17:14:31.493348 20871 net.cpp:148] Top shape: 24 256 14 14 (1204224)
I0403 17:14:31.493366 20871 net.cpp:156] Memory required for data: 1042842912
I0403 17:14:31.493397 20871 layer_factory.hpp:77] Creating layer inception_4c/relu_3x3
I0403 17:14:31.493420 20871 net.cpp:91] Creating Layer inception_4c/relu_3x3
I0403 17:14:31.493437 20871 net.cpp:425] inception_4c/relu_3x3 <- inception_4c/3x3
I0403 17:14:31.493453 20871 net.cpp:386] inception_4c/relu_3x3 -> inception_4c/3x3 (in-place)
I0403 17:14:31.493631 20871 net.cpp:141] Setting up inception_4c/relu_3x3
I0403 17:14:31.493656 20871 net.cpp:148] Top shape: 24 256 14 14 (1204224)
I0403 17:14:31.493670 20871 net.cpp:156] Memory required for data: 1047659808
I0403 17:14:31.493683 20871 layer_factory.hpp:77] Creating layer inception_4c/5x5_reduce
I0403 17:14:31.493706 20871 net.cpp:91] Creating Layer inception_4c/5x5_reduce
I0403 17:14:31.493724 20871 net.cpp:425] inception_4c/5x5_reduce <- inception_4b/output_inception_4b/output_0_split_2
I0403 17:14:31.493742 20871 net.cpp:399] inception_4c/5x5_reduce -> inception_4c/5x5_reduce
I0403 17:14:31.494777 20871 net.cpp:141] Setting up inception_4c/5x5_reduce
I0403 17:14:31.494803 20871 net.cpp:148] Top shape: 24 24 14 14 (112896)
I0403 17:14:31.494819 20871 net.cpp:156] Memory required for data: 1048111392
I0403 17:14:31.494835 20871 layer_factory.hpp:77] Creating layer inception_4c/relu_5x5_reduce
I0403 17:14:31.494855 20871 net.cpp:91] Creating Layer inception_4c/relu_5x5_reduce
I0403 17:14:31.494871 20871 net.cpp:425] inception_4c/relu_5x5_reduce <- inception_4c/5x5_reduce
I0403 17:14:31.494887 20871 net.cpp:386] inception_4c/relu_5x5_reduce -> inception_4c/5x5_reduce (in-place)
I0403 17:14:31.495059 20871 net.cpp:141] Setting up inception_4c/relu_5x5_reduce
I0403 17:14:31.495085 20871 net.cpp:148] Top shape: 24 24 14 14 (112896)
I0403 17:14:31.495100 20871 net.cpp:156] Memory required for data: 1048562976
I0403 17:14:31.495113 20871 layer_factory.hpp:77] Creating layer inception_4c/5x5
I0403 17:14:31.495134 20871 net.cpp:91] Creating Layer inception_4c/5x5
I0403 17:14:31.495151 20871 net.cpp:425] inception_4c/5x5 <- inception_4c/5x5_reduce
I0403 17:14:31.495170 20871 net.cpp:399] inception_4c/5x5 -> inception_4c/5x5
I0403 17:14:31.496348 20871 net.cpp:141] Setting up inception_4c/5x5
I0403 17:14:31.496377 20871 net.cpp:148] Top shape: 24 64 14 14 (301056)
I0403 17:14:31.496392 20871 net.cpp:156] Memory required for data: 1049767200
I0403 17:14:31.496409 20871 layer_factory.hpp:77] Creating layer inception_4c/relu_5x5
I0403 17:14:31.496428 20871 net.cpp:91] Creating Layer inception_4c/relu_5x5
I0403 17:14:31.496444 20871 net.cpp:425] inception_4c/relu_5x5 <- inception_4c/5x5
I0403 17:14:31.496462 20871 net.cpp:386] inception_4c/relu_5x5 -> inception_4c/5x5 (in-place)
I0403 17:14:31.496747 20871 net.cpp:141] Setting up inception_4c/relu_5x5
I0403 17:14:31.496774 20871 net.cpp:148] Top shape: 24 64 14 14 (301056)
I0403 17:14:31.496790 20871 net.cpp:156] Memory required for data: 1050971424
I0403 17:14:31.496804 20871 layer_factory.hpp:77] Creating layer inception_4c/pool
I0403 17:14:31.496821 20871 net.cpp:91] Creating Layer inception_4c/pool
I0403 17:14:31.496836 20871 net.cpp:425] inception_4c/pool <- inception_4b/output_inception_4b/output_0_split_3
I0403 17:14:31.496856 20871 net.cpp:399] inception_4c/pool -> inception_4c/pool
I0403 17:14:31.496917 20871 net.cpp:141] Setting up inception_4c/pool
I0403 17:14:31.496939 20871 net.cpp:148] Top shape: 24 512 14 14 (2408448)
I0403 17:14:31.496953 20871 net.cpp:156] Memory required for data: 1060605216
I0403 17:14:31.496966 20871 layer_factory.hpp:77] Creating layer inception_4c/pool_proj
I0403 17:14:31.496987 20871 net.cpp:91] Creating Layer inception_4c/pool_proj
I0403 17:14:31.497004 20871 net.cpp:425] inception_4c/pool_proj <- inception_4c/pool
I0403 17:14:31.497023 20871 net.cpp:399] inception_4c/pool_proj -> inception_4c/pool_proj
I0403 17:14:31.498178 20871 net.cpp:141] Setting up inception_4c/pool_proj
I0403 17:14:31.498205 20871 net.cpp:148] Top shape: 24 64 14 14 (301056)
I0403 17:14:31.498234 20871 net.cpp:156] Memory required for data: 1061809440
I0403 17:14:31.498253 20871 layer_factory.hpp:77] Creating layer inception_4c/relu_pool_proj
I0403 17:14:31.498272 20871 net.cpp:91] Creating Layer inception_4c/relu_pool_proj
I0403 17:14:31.498288 20871 net.cpp:425] inception_4c/relu_pool_proj <- inception_4c/pool_proj
I0403 17:14:31.498304 20871 net.cpp:386] inception_4c/relu_pool_proj -> inception_4c/pool_proj (in-place)
I0403 17:14:31.498476 20871 net.cpp:141] Setting up inception_4c/relu_pool_proj
I0403 17:14:31.498502 20871 net.cpp:148] Top shape: 24 64 14 14 (301056)
I0403 17:14:31.498518 20871 net.cpp:156] Memory required for data: 1063013664
I0403 17:14:31.498531 20871 layer_factory.hpp:77] Creating layer inception_4c/output
I0403 17:14:31.498548 20871 net.cpp:91] Creating Layer inception_4c/output
I0403 17:14:31.498564 20871 net.cpp:425] inception_4c/output <- inception_4c/1x1
I0403 17:14:31.498586 20871 net.cpp:425] inception_4c/output <- inception_4c/3x3
I0403 17:14:31.498603 20871 net.cpp:425] inception_4c/output <- inception_4c/5x5
I0403 17:14:31.498620 20871 net.cpp:425] inception_4c/output <- inception_4c/pool_proj
I0403 17:14:31.498637 20871 net.cpp:399] inception_4c/output -> inception_4c/output
I0403 17:14:31.498680 20871 net.cpp:141] Setting up inception_4c/output
I0403 17:14:31.498703 20871 net.cpp:148] Top shape: 24 512 14 14 (2408448)
I0403 17:14:31.498716 20871 net.cpp:156] Memory required for data: 1072647456
I0403 17:14:31.498730 20871 layer_factory.hpp:77] Creating layer inception_4c/output_inception_4c/output_0_split
I0403 17:14:31.498749 20871 net.cpp:91] Creating Layer inception_4c/output_inception_4c/output_0_split
I0403 17:14:31.498764 20871 net.cpp:425] inception_4c/output_inception_4c/output_0_split <- inception_4c/output
I0403 17:14:31.498781 20871 net.cpp:399] inception_4c/output_inception_4c/output_0_split -> inception_4c/output_inception_4c/output_0_split_0
I0403 17:14:31.498800 20871 net.cpp:399] inception_4c/output_inception_4c/output_0_split -> inception_4c/output_inception_4c/output_0_split_1
I0403 17:14:31.498819 20871 net.cpp:399] inception_4c/output_inception_4c/output_0_split -> inception_4c/output_inception_4c/output_0_split_2
I0403 17:14:31.498842 20871 net.cpp:399] inception_4c/output_inception_4c/output_0_split -> inception_4c/output_inception_4c/output_0_split_3
I0403 17:14:31.498925 20871 net.cpp:141] Setting up inception_4c/output_inception_4c/output_0_split
I0403 17:14:31.498949 20871 net.cpp:148] Top shape: 24 512 14 14 (2408448)
I0403 17:14:31.498963 20871 net.cpp:148] Top shape: 24 512 14 14 (2408448)
I0403 17:14:31.498977 20871 net.cpp:148] Top shape: 24 512 14 14 (2408448)
I0403 17:14:31.498991 20871 net.cpp:148] Top shape: 24 512 14 14 (2408448)
I0403 17:14:31.499004 20871 net.cpp:156] Memory required for data: 1111182624
I0403 17:14:31.499018 20871 layer_factory.hpp:77] Creating layer inception_4d/1x1
I0403 17:14:31.499039 20871 net.cpp:91] Creating Layer inception_4d/1x1
I0403 17:14:31.499054 20871 net.cpp:425] inception_4d/1x1 <- inception_4c/output_inception_4c/output_0_split_0
I0403 17:14:31.499076 20871 net.cpp:399] inception_4d/1x1 -> inception_4d/1x1
I0403 17:14:31.500368 20871 net.cpp:141] Setting up inception_4d/1x1
I0403 17:14:31.500396 20871 net.cpp:148] Top shape: 24 112 14 14 (526848)
I0403 17:14:31.500411 20871 net.cpp:156] Memory required for data: 1113290016
I0403 17:14:31.500427 20871 layer_factory.hpp:77] Creating layer inception_4d/relu_1x1
I0403 17:14:31.500447 20871 net.cpp:91] Creating Layer inception_4d/relu_1x1
I0403 17:14:31.500464 20871 net.cpp:425] inception_4d/relu_1x1 <- inception_4d/1x1
I0403 17:14:31.500480 20871 net.cpp:386] inception_4d/relu_1x1 -> inception_4d/1x1 (in-place)
I0403 17:14:31.500674 20871 net.cpp:141] Setting up inception_4d/relu_1x1
I0403 17:14:31.500699 20871 net.cpp:148] Top shape: 24 112 14 14 (526848)
I0403 17:14:31.500713 20871 net.cpp:156] Memory required for data: 1115397408
I0403 17:14:31.500728 20871 layer_factory.hpp:77] Creating layer inception_4d/3x3_reduce
I0403 17:14:31.500763 20871 net.cpp:91] Creating Layer inception_4d/3x3_reduce
I0403 17:14:31.500783 20871 net.cpp:425] inception_4d/3x3_reduce <- inception_4c/output_inception_4c/output_0_split_1
I0403 17:14:31.500803 20871 net.cpp:399] inception_4d/3x3_reduce -> inception_4d/3x3_reduce
I0403 17:14:31.502266 20871 net.cpp:141] Setting up inception_4d/3x3_reduce
I0403 17:14:31.502293 20871 net.cpp:148] Top shape: 24 144 14 14 (677376)
I0403 17:14:31.502310 20871 net.cpp:156] Memory required for data: 1118106912
I0403 17:14:31.502327 20871 layer_factory.hpp:77] Creating layer inception_4d/relu_3x3_reduce
I0403 17:14:31.502344 20871 net.cpp:91] Creating Layer inception_4d/relu_3x3_reduce
I0403 17:14:31.502362 20871 net.cpp:425] inception_4d/relu_3x3_reduce <- inception_4d/3x3_reduce
I0403 17:14:31.502380 20871 net.cpp:386] inception_4d/relu_3x3_reduce -> inception_4d/3x3_reduce (in-place)
I0403 17:14:31.502665 20871 net.cpp:141] Setting up inception_4d/relu_3x3_reduce
I0403 17:14:31.502692 20871 net.cpp:148] Top shape: 24 144 14 14 (677376)
I0403 17:14:31.502707 20871 net.cpp:156] Memory required for data: 1120816416
I0403 17:14:31.502722 20871 layer_factory.hpp:77] Creating layer inception_4d/3x3
I0403 17:14:31.502744 20871 net.cpp:91] Creating Layer inception_4d/3x3
I0403 17:14:31.502761 20871 net.cpp:425] inception_4d/3x3 <- inception_4d/3x3_reduce
I0403 17:14:31.502784 20871 net.cpp:399] inception_4d/3x3 -> inception_4d/3x3
I0403 17:14:31.506949 20871 net.cpp:141] Setting up inception_4d/3x3
I0403 17:14:31.506979 20871 net.cpp:148] Top shape: 24 288 14 14 (1354752)
I0403 17:14:31.506994 20871 net.cpp:156] Memory required for data: 1126235424
I0403 17:14:31.507011 20871 layer_factory.hpp:77] Creating layer inception_4d/relu_3x3
I0403 17:14:31.507031 20871 net.cpp:91] Creating Layer inception_4d/relu_3x3
I0403 17:14:31.507047 20871 net.cpp:425] inception_4d/relu_3x3 <- inception_4d/3x3
I0403 17:14:31.507066 20871 net.cpp:386] inception_4d/relu_3x3 -> inception_4d/3x3 (in-place)
I0403 17:14:31.507243 20871 net.cpp:141] Setting up inception_4d/relu_3x3
I0403 17:14:31.507268 20871 net.cpp:148] Top shape: 24 288 14 14 (1354752)
I0403 17:14:31.507288 20871 net.cpp:156] Memory required for data: 1131654432
I0403 17:14:31.507302 20871 layer_factory.hpp:77] Creating layer inception_4d/5x5_reduce
I0403 17:14:31.507321 20871 net.cpp:91] Creating Layer inception_4d/5x5_reduce
I0403 17:14:31.507339 20871 net.cpp:425] inception_4d/5x5_reduce <- inception_4c/output_inception_4c/output_0_split_2
I0403 17:14:31.507360 20871 net.cpp:399] inception_4d/5x5_reduce -> inception_4d/5x5_reduce
I0403 17:14:31.508479 20871 net.cpp:141] Setting up inception_4d/5x5_reduce
I0403 17:14:31.508507 20871 net.cpp:148] Top shape: 24 32 14 14 (150528)
I0403 17:14:31.508523 20871 net.cpp:156] Memory required for data: 1132256544
I0403 17:14:31.508540 20871 layer_factory.hpp:77] Creating layer inception_4d/relu_5x5_reduce
I0403 17:14:31.508560 20871 net.cpp:91] Creating Layer inception_4d/relu_5x5_reduce
I0403 17:14:31.508584 20871 net.cpp:425] inception_4d/relu_5x5_reduce <- inception_4d/5x5_reduce
I0403 17:14:31.508604 20871 net.cpp:386] inception_4d/relu_5x5_reduce -> inception_4d/5x5_reduce (in-place)
I0403 17:14:31.508783 20871 net.cpp:141] Setting up inception_4d/relu_5x5_reduce
I0403 17:14:31.508806 20871 net.cpp:148] Top shape: 24 32 14 14 (150528)
I0403 17:14:31.508821 20871 net.cpp:156] Memory required for data: 1132858656
I0403 17:14:31.508836 20871 layer_factory.hpp:77] Creating layer inception_4d/5x5
I0403 17:14:31.508860 20871 net.cpp:91] Creating Layer inception_4d/5x5
I0403 17:14:31.508877 20871 net.cpp:425] inception_4d/5x5 <- inception_4d/5x5_reduce
I0403 17:14:31.508895 20871 net.cpp:399] inception_4d/5x5 -> inception_4d/5x5
I0403 17:14:31.510320 20871 net.cpp:141] Setting up inception_4d/5x5
I0403 17:14:31.510349 20871 net.cpp:148] Top shape: 24 64 14 14 (301056)
I0403 17:14:31.510363 20871 net.cpp:156] Memory required for data: 1134062880
I0403 17:14:31.510381 20871 layer_factory.hpp:77] Creating layer inception_4d/relu_5x5
I0403 17:14:31.510416 20871 net.cpp:91] Creating Layer inception_4d/relu_5x5
I0403 17:14:31.510435 20871 net.cpp:425] inception_4d/relu_5x5 <- inception_4d/5x5
I0403 17:14:31.510452 20871 net.cpp:386] inception_4d/relu_5x5 -> inception_4d/5x5 (in-place)
I0403 17:14:31.510756 20871 net.cpp:141] Setting up inception_4d/relu_5x5
I0403 17:14:31.510782 20871 net.cpp:148] Top shape: 24 64 14 14 (301056)
I0403 17:14:31.510797 20871 net.cpp:156] Memory required for data: 1135267104
I0403 17:14:31.510812 20871 layer_factory.hpp:77] Creating layer inception_4d/pool
I0403 17:14:31.510830 20871 net.cpp:91] Creating Layer inception_4d/pool
I0403 17:14:31.510846 20871 net.cpp:425] inception_4d/pool <- inception_4c/output_inception_4c/output_0_split_3
I0403 17:14:31.510869 20871 net.cpp:399] inception_4d/pool -> inception_4d/pool
I0403 17:14:31.510936 20871 net.cpp:141] Setting up inception_4d/pool
I0403 17:14:31.510959 20871 net.cpp:148] Top shape: 24 512 14 14 (2408448)
I0403 17:14:31.510973 20871 net.cpp:156] Memory required for data: 1144900896
I0403 17:14:31.510988 20871 layer_factory.hpp:77] Creating layer inception_4d/pool_proj
I0403 17:14:31.511009 20871 net.cpp:91] Creating Layer inception_4d/pool_proj
I0403 17:14:31.511025 20871 net.cpp:425] inception_4d/pool_proj <- inception_4d/pool
I0403 17:14:31.511046 20871 net.cpp:399] inception_4d/pool_proj -> inception_4d/pool_proj
I0403 17:14:31.512771 20871 net.cpp:141] Setting up inception_4d/pool_proj
I0403 17:14:31.512800 20871 net.cpp:148] Top shape: 24 64 14 14 (301056)
I0403 17:14:31.512816 20871 net.cpp:156] Memory required for data: 1146105120
I0403 17:14:31.512833 20871 layer_factory.hpp:77] Creating layer inception_4d/relu_pool_proj
I0403 17:14:31.512853 20871 net.cpp:91] Creating Layer inception_4d/relu_pool_proj
I0403 17:14:31.512871 20871 net.cpp:425] inception_4d/relu_pool_proj <- inception_4d/pool_proj
I0403 17:14:31.512887 20871 net.cpp:386] inception_4d/relu_pool_proj -> inception_4d/pool_proj (in-place)
I0403 17:14:31.513067 20871 net.cpp:141] Setting up inception_4d/relu_pool_proj
I0403 17:14:31.513093 20871 net.cpp:148] Top shape: 24 64 14 14 (301056)
I0403 17:14:31.513109 20871 net.cpp:156] Memory required for data: 1147309344
I0403 17:14:31.513124 20871 layer_factory.hpp:77] Creating layer inception_4d/output
I0403 17:14:31.513141 20871 net.cpp:91] Creating Layer inception_4d/output
I0403 17:14:31.513156 20871 net.cpp:425] inception_4d/output <- inception_4d/1x1
I0403 17:14:31.513172 20871 net.cpp:425] inception_4d/output <- inception_4d/3x3
I0403 17:14:31.513187 20871 net.cpp:425] inception_4d/output <- inception_4d/5x5
I0403 17:14:31.513203 20871 net.cpp:425] inception_4d/output <- inception_4d/pool_proj
I0403 17:14:31.513221 20871 net.cpp:399] inception_4d/output -> inception_4d/output
I0403 17:14:31.513268 20871 net.cpp:141] Setting up inception_4d/output
I0403 17:14:31.513291 20871 net.cpp:148] Top shape: 24 528 14 14 (2483712)
I0403 17:14:31.513305 20871 net.cpp:156] Memory required for data: 1157244192
I0403 17:14:31.513319 20871 layer_factory.hpp:77] Creating layer inception_4d/output_inception_4d/output_0_split
I0403 17:14:31.513336 20871 net.cpp:91] Creating Layer inception_4d/output_inception_4d/output_0_split
I0403 17:14:31.513355 20871 net.cpp:425] inception_4d/output_inception_4d/output_0_split <- inception_4d/output
I0403 17:14:31.513372 20871 net.cpp:399] inception_4d/output_inception_4d/output_0_split -> inception_4d/output_inception_4d/output_0_split_0
I0403 17:14:31.513392 20871 net.cpp:399] inception_4d/output_inception_4d/output_0_split -> inception_4d/output_inception_4d/output_0_split_1
I0403 17:14:31.513412 20871 net.cpp:399] inception_4d/output_inception_4d/output_0_split -> inception_4d/output_inception_4d/output_0_split_2
I0403 17:14:31.513433 20871 net.cpp:399] inception_4d/output_inception_4d/output_0_split -> inception_4d/output_inception_4d/output_0_split_3
I0403 17:14:31.513453 20871 net.cpp:399] inception_4d/output_inception_4d/output_0_split -> inception_4d/output_inception_4d/output_0_split_4
I0403 17:14:31.513555 20871 net.cpp:141] Setting up inception_4d/output_inception_4d/output_0_split
I0403 17:14:31.513594 20871 net.cpp:148] Top shape: 24 528 14 14 (2483712)
I0403 17:14:31.513612 20871 net.cpp:148] Top shape: 24 528 14 14 (2483712)
I0403 17:14:31.513628 20871 net.cpp:148] Top shape: 24 528 14 14 (2483712)
I0403 17:14:31.513643 20871 net.cpp:148] Top shape: 24 528 14 14 (2483712)
I0403 17:14:31.513658 20871 net.cpp:148] Top shape: 24 528 14 14 (2483712)
I0403 17:14:31.513671 20871 net.cpp:156] Memory required for data: 1206918432
I0403 17:14:31.513685 20871 layer_factory.hpp:77] Creating layer loss2/ave_pool
I0403 17:14:31.513702 20871 net.cpp:91] Creating Layer loss2/ave_pool
I0403 17:14:31.513718 20871 net.cpp:425] loss2/ave_pool <- inception_4d/output_inception_4d/output_0_split_0
I0403 17:14:31.513738 20871 net.cpp:399] loss2/ave_pool -> loss2/ave_pool
I0403 17:14:31.514045 20871 net.cpp:141] Setting up loss2/ave_pool
I0403 17:14:31.514071 20871 net.cpp:148] Top shape: 24 528 4 4 (202752)
I0403 17:14:31.514088 20871 net.cpp:156] Memory required for data: 1207729440
I0403 17:14:31.514101 20871 layer_factory.hpp:77] Creating layer loss2/conv
I0403 17:14:31.514124 20871 net.cpp:91] Creating Layer loss2/conv
I0403 17:14:31.514142 20871 net.cpp:425] loss2/conv <- loss2/ave_pool
I0403 17:14:31.514163 20871 net.cpp:399] loss2/conv -> loss2/conv
I0403 17:14:31.516011 20871 net.cpp:141] Setting up loss2/conv
I0403 17:14:31.516042 20871 net.cpp:148] Top shape: 24 128 4 4 (49152)
I0403 17:14:31.516059 20871 net.cpp:156] Memory required for data: 1207926048
I0403 17:14:31.516077 20871 layer_factory.hpp:77] Creating layer loss2/relu_conv
I0403 17:14:31.516094 20871 net.cpp:91] Creating Layer loss2/relu_conv
I0403 17:14:31.516110 20871 net.cpp:425] loss2/relu_conv <- loss2/conv
I0403 17:14:31.516129 20871 net.cpp:386] loss2/relu_conv -> loss2/conv (in-place)
I0403 17:14:31.516407 20871 net.cpp:141] Setting up loss2/relu_conv
I0403 17:14:31.516435 20871 net.cpp:148] Top shape: 24 128 4 4 (49152)
I0403 17:14:31.516451 20871 net.cpp:156] Memory required for data: 1208122656
I0403 17:14:31.516465 20871 layer_factory.hpp:77] Creating layer loss2/fc
I0403 17:14:31.516484 20871 net.cpp:91] Creating Layer loss2/fc
I0403 17:14:31.516500 20871 net.cpp:425] loss2/fc <- loss2/conv
I0403 17:14:31.516521 20871 net.cpp:399] loss2/fc -> loss2/fc
I0403 17:14:31.533269 20871 net.cpp:141] Setting up loss2/fc
I0403 17:14:31.533303 20871 net.cpp:148] Top shape: 24 1024 (24576)
I0403 17:14:31.533318 20871 net.cpp:156] Memory required for data: 1208220960
I0403 17:14:31.533334 20871 layer_factory.hpp:77] Creating layer loss2/relu_fc
I0403 17:14:31.533354 20871 net.cpp:91] Creating Layer loss2/relu_fc
I0403 17:14:31.533372 20871 net.cpp:425] loss2/relu_fc <- loss2/fc
I0403 17:14:31.533390 20871 net.cpp:386] loss2/relu_fc -> loss2/fc (in-place)
I0403 17:14:31.533679 20871 net.cpp:141] Setting up loss2/relu_fc
I0403 17:14:31.533704 20871 net.cpp:148] Top shape: 24 1024 (24576)
I0403 17:14:31.533717 20871 net.cpp:156] Memory required for data: 1208319264
I0403 17:14:31.533732 20871 layer_factory.hpp:77] Creating layer loss2/drop_fc
I0403 17:14:31.533752 20871 net.cpp:91] Creating Layer loss2/drop_fc
I0403 17:14:31.533767 20871 net.cpp:425] loss2/drop_fc <- loss2/fc
I0403 17:14:31.533783 20871 net.cpp:386] loss2/drop_fc -> loss2/fc (in-place)
I0403 17:14:31.533830 20871 net.cpp:141] Setting up loss2/drop_fc
I0403 17:14:31.533852 20871 net.cpp:148] Top shape: 24 1024 (24576)
I0403 17:14:31.533866 20871 net.cpp:156] Memory required for data: 1208417568
I0403 17:14:31.533880 20871 layer_factory.hpp:77] Creating layer loss2/classifier_plantvillage
I0403 17:14:31.533897 20871 net.cpp:91] Creating Layer loss2/classifier_plantvillage
I0403 17:14:31.533912 20871 net.cpp:425] loss2/classifier_plantvillage <- loss2/fc
I0403 17:14:31.533931 20871 net.cpp:399] loss2/classifier_plantvillage -> loss2/classifier_plantvillage
I0403 17:14:31.534312 20871 net.cpp:141] Setting up loss2/classifier_plantvillage
I0403 17:14:31.534335 20871 net.cpp:148] Top shape: 24 38 (912)
I0403 17:14:31.534350 20871 net.cpp:156] Memory required for data: 1208421216
I0403 17:14:31.534384 20871 layer_factory.hpp:77] Creating layer loss2/classifier_plantvillage_loss2/classifier_plantvillage_0_split
I0403 17:14:31.534402 20871 net.cpp:91] Creating Layer loss2/classifier_plantvillage_loss2/classifier_plantvillage_0_split
I0403 17:14:31.534418 20871 net.cpp:425] loss2/classifier_plantvillage_loss2/classifier_plantvillage_0_split <- loss2/classifier_plantvillage
I0403 17:14:31.534435 20871 net.cpp:399] loss2/classifier_plantvillage_loss2/classifier_plantvillage_0_split -> loss2/classifier_plantvillage_loss2/classifier_plantvillage_0_split_0
I0403 17:14:31.534456 20871 net.cpp:399] loss2/classifier_plantvillage_loss2/classifier_plantvillage_0_split -> loss2/classifier_plantvillage_loss2/classifier_plantvillage_0_split_1
I0403 17:14:31.534477 20871 net.cpp:399] loss2/classifier_plantvillage_loss2/classifier_plantvillage_0_split -> loss2/classifier_plantvillage_loss2/classifier_plantvillage_0_split_2
I0403 17:14:31.534548 20871 net.cpp:141] Setting up loss2/classifier_plantvillage_loss2/classifier_plantvillage_0_split
I0403 17:14:31.534584 20871 net.cpp:148] Top shape: 24 38 (912)
I0403 17:14:31.534605 20871 net.cpp:148] Top shape: 24 38 (912)
I0403 17:14:31.534620 20871 net.cpp:148] Top shape: 24 38 (912)
I0403 17:14:31.534632 20871 net.cpp:156] Memory required for data: 1208432160
I0403 17:14:31.534646 20871 layer_factory.hpp:77] Creating layer inception_4e/1x1
I0403 17:14:31.534665 20871 net.cpp:91] Creating Layer inception_4e/1x1
I0403 17:14:31.534682 20871 net.cpp:425] inception_4e/1x1 <- inception_4d/output_inception_4d/output_0_split_1
I0403 17:14:31.534703 20871 net.cpp:399] inception_4e/1x1 -> inception_4e/1x1
I0403 17:14:31.536415 20871 net.cpp:141] Setting up inception_4e/1x1
I0403 17:14:31.536444 20871 net.cpp:148] Top shape: 24 256 14 14 (1204224)
I0403 17:14:31.536460 20871 net.cpp:156] Memory required for data: 1213249056
I0403 17:14:31.536478 20871 layer_factory.hpp:77] Creating layer inception_4e/relu_1x1
I0403 17:14:31.536495 20871 net.cpp:91] Creating Layer inception_4e/relu_1x1
I0403 17:14:31.536510 20871 net.cpp:425] inception_4e/relu_1x1 <- inception_4e/1x1
I0403 17:14:31.536528 20871 net.cpp:386] inception_4e/relu_1x1 -> inception_4e/1x1 (in-place)
I0403 17:14:31.536818 20871 net.cpp:141] Setting up inception_4e/relu_1x1
I0403 17:14:31.536846 20871 net.cpp:148] Top shape: 24 256 14 14 (1204224)
I0403 17:14:31.536862 20871 net.cpp:156] Memory required for data: 1218065952
I0403 17:14:31.536876 20871 layer_factory.hpp:77] Creating layer inception_4e/3x3_reduce
I0403 17:14:31.536897 20871 net.cpp:91] Creating Layer inception_4e/3x3_reduce
I0403 17:14:31.536916 20871 net.cpp:425] inception_4e/3x3_reduce <- inception_4d/output_inception_4d/output_0_split_2
I0403 17:14:31.536933 20871 net.cpp:399] inception_4e/3x3_reduce -> inception_4e/3x3_reduce
I0403 17:14:31.538934 20871 net.cpp:141] Setting up inception_4e/3x3_reduce
I0403 17:14:31.538965 20871 net.cpp:148] Top shape: 24 160 14 14 (752640)
I0403 17:14:31.538981 20871 net.cpp:156] Memory required for data: 1221076512
I0403 17:14:31.539000 20871 layer_factory.hpp:77] Creating layer inception_4e/relu_3x3_reduce
I0403 17:14:31.539016 20871 net.cpp:91] Creating Layer inception_4e/relu_3x3_reduce
I0403 17:14:31.539031 20871 net.cpp:425] inception_4e/relu_3x3_reduce <- inception_4e/3x3_reduce
I0403 17:14:31.539048 20871 net.cpp:386] inception_4e/relu_3x3_reduce -> inception_4e/3x3_reduce (in-place)
I0403 17:14:31.539225 20871 net.cpp:141] Setting up inception_4e/relu_3x3_reduce
I0403 17:14:31.539250 20871 net.cpp:148] Top shape: 24 160 14 14 (752640)
I0403 17:14:31.539266 20871 net.cpp:156] Memory required for data: 1224087072
I0403 17:14:31.539280 20871 layer_factory.hpp:77] Creating layer inception_4e/3x3
I0403 17:14:31.539301 20871 net.cpp:91] Creating Layer inception_4e/3x3
I0403 17:14:31.539319 20871 net.cpp:425] inception_4e/3x3 <- inception_4e/3x3_reduce
I0403 17:14:31.539336 20871 net.cpp:399] inception_4e/3x3 -> inception_4e/3x3
I0403 17:14:31.544073 20871 net.cpp:141] Setting up inception_4e/3x3
I0403 17:14:31.544116 20871 net.cpp:148] Top shape: 24 320 14 14 (1505280)
I0403 17:14:31.544133 20871 net.cpp:156] Memory required for data: 1230108192
I0403 17:14:31.544150 20871 layer_factory.hpp:77] Creating layer inception_4e/relu_3x3
I0403 17:14:31.544167 20871 net.cpp:91] Creating Layer inception_4e/relu_3x3
I0403 17:14:31.544183 20871 net.cpp:425] inception_4e/relu_3x3 <- inception_4e/3x3
I0403 17:14:31.544203 20871 net.cpp:386] inception_4e/relu_3x3 -> inception_4e/3x3 (in-place)
I0403 17:14:31.544486 20871 net.cpp:141] Setting up inception_4e/relu_3x3
I0403 17:14:31.544512 20871 net.cpp:148] Top shape: 24 320 14 14 (1505280)
I0403 17:14:31.544526 20871 net.cpp:156] Memory required for data: 1236129312
I0403 17:14:31.544539 20871 layer_factory.hpp:77] Creating layer inception_4e/5x5_reduce
I0403 17:14:31.544562 20871 net.cpp:91] Creating Layer inception_4e/5x5_reduce
I0403 17:14:31.544594 20871 net.cpp:425] inception_4e/5x5_reduce <- inception_4d/output_inception_4d/output_0_split_3
I0403 17:14:31.544617 20871 net.cpp:399] inception_4e/5x5_reduce -> inception_4e/5x5_reduce
I0403 17:14:31.545629 20871 net.cpp:141] Setting up inception_4e/5x5_reduce
I0403 17:14:31.545655 20871 net.cpp:148] Top shape: 24 32 14 14 (150528)
I0403 17:14:31.545670 20871 net.cpp:156] Memory required for data: 1236731424
I0403 17:14:31.545686 20871 layer_factory.hpp:77] Creating layer inception_4e/relu_5x5_reduce
I0403 17:14:31.545706 20871 net.cpp:91] Creating Layer inception_4e/relu_5x5_reduce
I0403 17:14:31.545723 20871 net.cpp:425] inception_4e/relu_5x5_reduce <- inception_4e/5x5_reduce
I0403 17:14:31.545742 20871 net.cpp:386] inception_4e/relu_5x5_reduce -> inception_4e/5x5_reduce (in-place)
I0403 17:14:31.546028 20871 net.cpp:141] Setting up inception_4e/relu_5x5_reduce
I0403 17:14:31.546054 20871 net.cpp:148] Top shape: 24 32 14 14 (150528)
I0403 17:14:31.546068 20871 net.cpp:156] Memory required for data: 1237333536
I0403 17:14:31.546082 20871 layer_factory.hpp:77] Creating layer inception_4e/5x5
I0403 17:14:31.546118 20871 net.cpp:91] Creating Layer inception_4e/5x5
I0403 17:14:31.546138 20871 net.cpp:425] inception_4e/5x5 <- inception_4e/5x5_reduce
I0403 17:14:31.546155 20871 net.cpp:399] inception_4e/5x5 -> inception_4e/5x5
I0403 17:14:31.547895 20871 net.cpp:141] Setting up inception_4e/5x5
I0403 17:14:31.547922 20871 net.cpp:148] Top shape: 24 128 14 14 (602112)
I0403 17:14:31.547936 20871 net.cpp:156] Memory required for data: 1239741984
I0403 17:14:31.547955 20871 layer_factory.hpp:77] Creating layer inception_4e/relu_5x5
I0403 17:14:31.547974 20871 net.cpp:91] Creating Layer inception_4e/relu_5x5
I0403 17:14:31.547991 20871 net.cpp:425] inception_4e/relu_5x5 <- inception_4e/5x5
I0403 17:14:31.548007 20871 net.cpp:386] inception_4e/relu_5x5 -> inception_4e/5x5 (in-place)
I0403 17:14:31.548190 20871 net.cpp:141] Setting up inception_4e/relu_5x5
I0403 17:14:31.548218 20871 net.cpp:148] Top shape: 24 128 14 14 (602112)
I0403 17:14:31.548233 20871 net.cpp:156] Memory required for data: 1242150432
I0403 17:14:31.548246 20871 layer_factory.hpp:77] Creating layer inception_4e/pool
I0403 17:14:31.548264 20871 net.cpp:91] Creating Layer inception_4e/pool
I0403 17:14:31.548279 20871 net.cpp:425] inception_4e/pool <- inception_4d/output_inception_4d/output_0_split_4
I0403 17:14:31.548295 20871 net.cpp:399] inception_4e/pool -> inception_4e/pool
I0403 17:14:31.548362 20871 net.cpp:141] Setting up inception_4e/pool
I0403 17:14:31.548385 20871 net.cpp:148] Top shape: 24 528 14 14 (2483712)
I0403 17:14:31.548400 20871 net.cpp:156] Memory required for data: 1252085280
I0403 17:14:31.548414 20871 layer_factory.hpp:77] Creating layer inception_4e/pool_proj
I0403 17:14:31.548436 20871 net.cpp:91] Creating Layer inception_4e/pool_proj
I0403 17:14:31.548454 20871 net.cpp:425] inception_4e/pool_proj <- inception_4e/pool
I0403 17:14:31.548473 20871 net.cpp:399] inception_4e/pool_proj -> inception_4e/pool_proj
I0403 17:14:31.549896 20871 net.cpp:141] Setting up inception_4e/pool_proj
I0403 17:14:31.549923 20871 net.cpp:148] Top shape: 24 128 14 14 (602112)
I0403 17:14:31.549952 20871 net.cpp:156] Memory required for data: 1254493728
I0403 17:14:31.549969 20871 layer_factory.hpp:77] Creating layer inception_4e/relu_pool_proj
I0403 17:14:31.549991 20871 net.cpp:91] Creating Layer inception_4e/relu_pool_proj
I0403 17:14:31.550009 20871 net.cpp:425] inception_4e/relu_pool_proj <- inception_4e/pool_proj
I0403 17:14:31.550025 20871 net.cpp:386] inception_4e/relu_pool_proj -> inception_4e/pool_proj (in-place)
I0403 17:14:31.550302 20871 net.cpp:141] Setting up inception_4e/relu_pool_proj
I0403 17:14:31.550328 20871 net.cpp:148] Top shape: 24 128 14 14 (602112)
I0403 17:14:31.550341 20871 net.cpp:156] Memory required for data: 1256902176
I0403 17:14:31.550355 20871 layer_factory.hpp:77] Creating layer inception_4e/output
I0403 17:14:31.550371 20871 net.cpp:91] Creating Layer inception_4e/output
I0403 17:14:31.550386 20871 net.cpp:425] inception_4e/output <- inception_4e/1x1
I0403 17:14:31.550401 20871 net.cpp:425] inception_4e/output <- inception_4e/3x3
I0403 17:14:31.550417 20871 net.cpp:425] inception_4e/output <- inception_4e/5x5
I0403 17:14:31.550432 20871 net.cpp:425] inception_4e/output <- inception_4e/pool_proj
I0403 17:14:31.550449 20871 net.cpp:399] inception_4e/output -> inception_4e/output
I0403 17:14:31.550498 20871 net.cpp:141] Setting up inception_4e/output
I0403 17:14:31.550521 20871 net.cpp:148] Top shape: 24 832 14 14 (3913728)
I0403 17:14:31.550535 20871 net.cpp:156] Memory required for data: 1272557088
I0403 17:14:31.550549 20871 layer_factory.hpp:77] Creating layer pool4/3x3_s2
I0403 17:14:31.550565 20871 net.cpp:91] Creating Layer pool4/3x3_s2
I0403 17:14:31.550586 20871 net.cpp:425] pool4/3x3_s2 <- inception_4e/output
I0403 17:14:31.550607 20871 net.cpp:399] pool4/3x3_s2 -> pool4/3x3_s2
I0403 17:14:31.550671 20871 net.cpp:141] Setting up pool4/3x3_s2
I0403 17:14:31.550694 20871 net.cpp:148] Top shape: 24 832 7 7 (978432)
I0403 17:14:31.550707 20871 net.cpp:156] Memory required for data: 1276470816
I0403 17:14:31.550722 20871 layer_factory.hpp:77] Creating layer pool4/3x3_s2_pool4/3x3_s2_0_split
I0403 17:14:31.550740 20871 net.cpp:91] Creating Layer pool4/3x3_s2_pool4/3x3_s2_0_split
I0403 17:14:31.550755 20871 net.cpp:425] pool4/3x3_s2_pool4/3x3_s2_0_split <- pool4/3x3_s2
I0403 17:14:31.550772 20871 net.cpp:399] pool4/3x3_s2_pool4/3x3_s2_0_split -> pool4/3x3_s2_pool4/3x3_s2_0_split_0
I0403 17:14:31.550794 20871 net.cpp:399] pool4/3x3_s2_pool4/3x3_s2_0_split -> pool4/3x3_s2_pool4/3x3_s2_0_split_1
I0403 17:14:31.550815 20871 net.cpp:399] pool4/3x3_s2_pool4/3x3_s2_0_split -> pool4/3x3_s2_pool4/3x3_s2_0_split_2
I0403 17:14:31.550835 20871 net.cpp:399] pool4/3x3_s2_pool4/3x3_s2_0_split -> pool4/3x3_s2_pool4/3x3_s2_0_split_3
I0403 17:14:31.550921 20871 net.cpp:141] Setting up pool4/3x3_s2_pool4/3x3_s2_0_split
I0403 17:14:31.550943 20871 net.cpp:148] Top shape: 24 832 7 7 (978432)
I0403 17:14:31.550958 20871 net.cpp:148] Top shape: 24 832 7 7 (978432)
I0403 17:14:31.550972 20871 net.cpp:148] Top shape: 24 832 7 7 (978432)
I0403 17:14:31.550987 20871 net.cpp:148] Top shape: 24 832 7 7 (978432)
I0403 17:14:31.550999 20871 net.cpp:156] Memory required for data: 1292125728
I0403 17:14:31.551013 20871 layer_factory.hpp:77] Creating layer inception_5a/1x1
I0403 17:14:31.551034 20871 net.cpp:91] Creating Layer inception_5a/1x1
I0403 17:14:31.551051 20871 net.cpp:425] inception_5a/1x1 <- pool4/3x3_s2_pool4/3x3_s2_0_split_0
I0403 17:14:31.551071 20871 net.cpp:399] inception_5a/1x1 -> inception_5a/1x1
I0403 17:14:31.553771 20871 net.cpp:141] Setting up inception_5a/1x1
I0403 17:14:31.553800 20871 net.cpp:148] Top shape: 24 256 7 7 (301056)
I0403 17:14:31.553815 20871 net.cpp:156] Memory required for data: 1293329952
I0403 17:14:31.553833 20871 layer_factory.hpp:77] Creating layer inception_5a/relu_1x1
I0403 17:14:31.553851 20871 net.cpp:91] Creating Layer inception_5a/relu_1x1
I0403 17:14:31.553867 20871 net.cpp:425] inception_5a/relu_1x1 <- inception_5a/1x1
I0403 17:14:31.553884 20871 net.cpp:386] inception_5a/relu_1x1 -> inception_5a/1x1 (in-place)
I0403 17:14:31.554183 20871 net.cpp:141] Setting up inception_5a/relu_1x1
I0403 17:14:31.554209 20871 net.cpp:148] Top shape: 24 256 7 7 (301056)
I0403 17:14:31.554224 20871 net.cpp:156] Memory required for data: 1294534176
I0403 17:14:31.554236 20871 layer_factory.hpp:77] Creating layer inception_5a/3x3_reduce
I0403 17:14:31.554258 20871 net.cpp:91] Creating Layer inception_5a/3x3_reduce
I0403 17:14:31.554275 20871 net.cpp:425] inception_5a/3x3_reduce <- pool4/3x3_s2_pool4/3x3_s2_0_split_1
I0403 17:14:31.554297 20871 net.cpp:399] inception_5a/3x3_reduce -> inception_5a/3x3_reduce
I0403 17:14:31.556746 20871 net.cpp:141] Setting up inception_5a/3x3_reduce
I0403 17:14:31.556776 20871 net.cpp:148] Top shape: 24 160 7 7 (188160)
I0403 17:14:31.556792 20871 net.cpp:156] Memory required for data: 1295286816
I0403 17:14:31.556810 20871 layer_factory.hpp:77] Creating layer inception_5a/relu_3x3_reduce
I0403 17:14:31.556828 20871 net.cpp:91] Creating Layer inception_5a/relu_3x3_reduce
I0403 17:14:31.556844 20871 net.cpp:425] inception_5a/relu_3x3_reduce <- inception_5a/3x3_reduce
I0403 17:14:31.556864 20871 net.cpp:386] inception_5a/relu_3x3_reduce -> inception_5a/3x3_reduce (in-place)
I0403 17:14:31.557049 20871 net.cpp:141] Setting up inception_5a/relu_3x3_reduce
I0403 17:14:31.557073 20871 net.cpp:148] Top shape: 24 160 7 7 (188160)
I0403 17:14:31.557090 20871 net.cpp:156] Memory required for data: 1296039456
I0403 17:14:31.557103 20871 layer_factory.hpp:77] Creating layer inception_5a/3x3
I0403 17:14:31.557126 20871 net.cpp:91] Creating Layer inception_5a/3x3
I0403 17:14:31.557143 20871 net.cpp:425] inception_5a/3x3 <- inception_5a/3x3_reduce
I0403 17:14:31.557165 20871 net.cpp:399] inception_5a/3x3 -> inception_5a/3x3
I0403 17:14:31.562077 20871 net.cpp:141] Setting up inception_5a/3x3
I0403 17:14:31.562108 20871 net.cpp:148] Top shape: 24 320 7 7 (376320)
I0403 17:14:31.562124 20871 net.cpp:156] Memory required for data: 1297544736
I0403 17:14:31.562141 20871 layer_factory.hpp:77] Creating layer inception_5a/relu_3x3
I0403 17:14:31.562161 20871 net.cpp:91] Creating Layer inception_5a/relu_3x3
I0403 17:14:31.562178 20871 net.cpp:425] inception_5a/relu_3x3 <- inception_5a/3x3
I0403 17:14:31.562196 20871 net.cpp:386] inception_5a/relu_3x3 -> inception_5a/3x3 (in-place)
I0403 17:14:31.562484 20871 net.cpp:141] Setting up inception_5a/relu_3x3
I0403 17:14:31.562510 20871 net.cpp:148] Top shape: 24 320 7 7 (376320)
I0403 17:14:31.562525 20871 net.cpp:156] Memory required for data: 1299050016
I0403 17:14:31.562538 20871 layer_factory.hpp:77] Creating layer inception_5a/5x5_reduce
I0403 17:14:31.562561 20871 net.cpp:91] Creating Layer inception_5a/5x5_reduce
I0403 17:14:31.562583 20871 net.cpp:425] inception_5a/5x5_reduce <- pool4/3x3_s2_pool4/3x3_s2_0_split_2
I0403 17:14:31.562609 20871 net.cpp:399] inception_5a/5x5_reduce -> inception_5a/5x5_reduce
I0403 17:14:31.563756 20871 net.cpp:141] Setting up inception_5a/5x5_reduce
I0403 17:14:31.563786 20871 net.cpp:148] Top shape: 24 32 7 7 (37632)
I0403 17:14:31.563802 20871 net.cpp:156] Memory required for data: 1299200544
I0403 17:14:31.563822 20871 layer_factory.hpp:77] Creating layer inception_5a/relu_5x5_reduce
I0403 17:14:31.563839 20871 net.cpp:91] Creating Layer inception_5a/relu_5x5_reduce
I0403 17:14:31.563855 20871 net.cpp:425] inception_5a/relu_5x5_reduce <- inception_5a/5x5_reduce
I0403 17:14:31.563873 20871 net.cpp:386] inception_5a/relu_5x5_reduce -> inception_5a/5x5_reduce (in-place)
I0403 17:14:31.564167 20871 net.cpp:141] Setting up inception_5a/relu_5x5_reduce
I0403 17:14:31.564195 20871 net.cpp:148] Top shape: 24 32 7 7 (37632)
I0403 17:14:31.564211 20871 net.cpp:156] Memory required for data: 1299351072
I0403 17:14:31.564227 20871 layer_factory.hpp:77] Creating layer inception_5a/5x5
I0403 17:14:31.564249 20871 net.cpp:91] Creating Layer inception_5a/5x5
I0403 17:14:31.564267 20871 net.cpp:425] inception_5a/5x5 <- inception_5a/5x5_reduce
I0403 17:14:31.564286 20871 net.cpp:399] inception_5a/5x5 -> inception_5a/5x5
I0403 17:14:31.565979 20871 net.cpp:141] Setting up inception_5a/5x5
I0403 17:14:31.566018 20871 net.cpp:148] Top shape: 24 128 7 7 (150528)
I0403 17:14:31.566035 20871 net.cpp:156] Memory required for data: 1299953184
I0403 17:14:31.566053 20871 layer_factory.hpp:77] Creating layer inception_5a/relu_5x5
I0403 17:14:31.566073 20871 net.cpp:91] Creating Layer inception_5a/relu_5x5
I0403 17:14:31.566090 20871 net.cpp:425] inception_5a/relu_5x5 <- inception_5a/5x5
I0403 17:14:31.566107 20871 net.cpp:386] inception_5a/relu_5x5 -> inception_5a/5x5 (in-place)
I0403 17:14:31.566293 20871 net.cpp:141] Setting up inception_5a/relu_5x5
I0403 17:14:31.566319 20871 net.cpp:148] Top shape: 24 128 7 7 (150528)
I0403 17:14:31.566335 20871 net.cpp:156] Memory required for data: 1300555296
I0403 17:14:31.566350 20871 layer_factory.hpp:77] Creating layer inception_5a/pool
I0403 17:14:31.566367 20871 net.cpp:91] Creating Layer inception_5a/pool
I0403 17:14:31.566383 20871 net.cpp:425] inception_5a/pool <- pool4/3x3_s2_pool4/3x3_s2_0_split_3
I0403 17:14:31.566402 20871 net.cpp:399] inception_5a/pool -> inception_5a/pool
I0403 17:14:31.566473 20871 net.cpp:141] Setting up inception_5a/pool
I0403 17:14:31.566498 20871 net.cpp:148] Top shape: 24 832 7 7 (978432)
I0403 17:14:31.566511 20871 net.cpp:156] Memory required for data: 1304469024
I0403 17:14:31.566525 20871 layer_factory.hpp:77] Creating layer inception_5a/pool_proj
I0403 17:14:31.566547 20871 net.cpp:91] Creating Layer inception_5a/pool_proj
I0403 17:14:31.566565 20871 net.cpp:425] inception_5a/pool_proj <- inception_5a/pool
I0403 17:14:31.566593 20871 net.cpp:399] inception_5a/pool_proj -> inception_5a/pool_proj
I0403 17:14:31.568822 20871 net.cpp:141] Setting up inception_5a/pool_proj
I0403 17:14:31.568852 20871 net.cpp:148] Top shape: 24 128 7 7 (150528)
I0403 17:14:31.568868 20871 net.cpp:156] Memory required for data: 1305071136
I0403 17:14:31.568886 20871 layer_factory.hpp:77] Creating layer inception_5a/relu_pool_proj
I0403 17:14:31.568905 20871 net.cpp:91] Creating Layer inception_5a/relu_pool_proj
I0403 17:14:31.568922 20871 net.cpp:425] inception_5a/relu_pool_proj <- inception_5a/pool_proj
I0403 17:14:31.568940 20871 net.cpp:386] inception_5a/relu_pool_proj -> inception_5a/pool_proj (in-place)
I0403 17:14:31.569231 20871 net.cpp:141] Setting up inception_5a/relu_pool_proj
I0403 17:14:31.569255 20871 net.cpp:148] Top shape: 24 128 7 7 (150528)
I0403 17:14:31.569272 20871 net.cpp:156] Memory required for data: 1305673248
I0403 17:14:31.569285 20871 layer_factory.hpp:77] Creating layer inception_5a/output
I0403 17:14:31.569304 20871 net.cpp:91] Creating Layer inception_5a/output
I0403 17:14:31.569321 20871 net.cpp:425] inception_5a/output <- inception_5a/1x1
I0403 17:14:31.569339 20871 net.cpp:425] inception_5a/output <- inception_5a/3x3
I0403 17:14:31.569355 20871 net.cpp:425] inception_5a/output <- inception_5a/5x5
I0403 17:14:31.569370 20871 net.cpp:425] inception_5a/output <- inception_5a/pool_proj
I0403 17:14:31.569387 20871 net.cpp:399] inception_5a/output -> inception_5a/output
I0403 17:14:31.569437 20871 net.cpp:141] Setting up inception_5a/output
I0403 17:14:31.569463 20871 net.cpp:148] Top shape: 24 832 7 7 (978432)
I0403 17:14:31.569478 20871 net.cpp:156] Memory required for data: 1309586976
I0403 17:14:31.569492 20871 layer_factory.hpp:77] Creating layer inception_5a/output_inception_5a/output_0_split
I0403 17:14:31.569509 20871 net.cpp:91] Creating Layer inception_5a/output_inception_5a/output_0_split
I0403 17:14:31.569524 20871 net.cpp:425] inception_5a/output_inception_5a/output_0_split <- inception_5a/output
I0403 17:14:31.569543 20871 net.cpp:399] inception_5a/output_inception_5a/output_0_split -> inception_5a/output_inception_5a/output_0_split_0
I0403 17:14:31.569566 20871 net.cpp:399] inception_5a/output_inception_5a/output_0_split -> inception_5a/output_inception_5a/output_0_split_1
I0403 17:14:31.569594 20871 net.cpp:399] inception_5a/output_inception_5a/output_0_split -> inception_5a/output_inception_5a/output_0_split_2
I0403 17:14:31.569614 20871 net.cpp:399] inception_5a/output_inception_5a/output_0_split -> inception_5a/output_inception_5a/output_0_split_3
I0403 17:14:31.569725 20871 net.cpp:141] Setting up inception_5a/output_inception_5a/output_0_split
I0403 17:14:31.569751 20871 net.cpp:148] Top shape: 24 832 7 7 (978432)
I0403 17:14:31.569767 20871 net.cpp:148] Top shape: 24 832 7 7 (978432)
I0403 17:14:31.569782 20871 net.cpp:148] Top shape: 24 832 7 7 (978432)
I0403 17:14:31.569798 20871 net.cpp:148] Top shape: 24 832 7 7 (978432)
I0403 17:14:31.569811 20871 net.cpp:156] Memory required for data: 1325241888
I0403 17:14:31.569825 20871 layer_factory.hpp:77] Creating layer inception_5b/1x1
I0403 17:14:31.569847 20871 net.cpp:91] Creating Layer inception_5b/1x1
I0403 17:14:31.569865 20871 net.cpp:425] inception_5b/1x1 <- inception_5a/output_inception_5a/output_0_split_0
I0403 17:14:31.569885 20871 net.cpp:399] inception_5b/1x1 -> inception_5b/1x1
I0403 17:14:31.573583 20871 net.cpp:141] Setting up inception_5b/1x1
I0403 17:14:31.573612 20871 net.cpp:148] Top shape: 24 384 7 7 (451584)
I0403 17:14:31.573628 20871 net.cpp:156] Memory required for data: 1327048224
I0403 17:14:31.573645 20871 layer_factory.hpp:77] Creating layer inception_5b/relu_1x1
I0403 17:14:31.573662 20871 net.cpp:91] Creating Layer inception_5b/relu_1x1
I0403 17:14:31.573678 20871 net.cpp:425] inception_5b/relu_1x1 <- inception_5b/1x1
I0403 17:14:31.573698 20871 net.cpp:386] inception_5b/relu_1x1 -> inception_5b/1x1 (in-place)
I0403 17:14:31.573988 20871 net.cpp:141] Setting up inception_5b/relu_1x1
I0403 17:14:31.574013 20871 net.cpp:148] Top shape: 24 384 7 7 (451584)
I0403 17:14:31.574028 20871 net.cpp:156] Memory required for data: 1328854560
I0403 17:14:31.574041 20871 layer_factory.hpp:77] Creating layer inception_5b/3x3_reduce
I0403 17:14:31.574064 20871 net.cpp:91] Creating Layer inception_5b/3x3_reduce
I0403 17:14:31.574081 20871 net.cpp:425] inception_5b/3x3_reduce <- inception_5a/output_inception_5a/output_0_split_1
I0403 17:14:31.574103 20871 net.cpp:399] inception_5b/3x3_reduce -> inception_5b/3x3_reduce
I0403 17:14:31.576643 20871 net.cpp:141] Setting up inception_5b/3x3_reduce
I0403 17:14:31.576673 20871 net.cpp:148] Top shape: 24 192 7 7 (225792)
I0403 17:14:31.576688 20871 net.cpp:156] Memory required for data: 1329757728
I0403 17:14:31.576704 20871 layer_factory.hpp:77] Creating layer inception_5b/relu_3x3_reduce
I0403 17:14:31.576725 20871 net.cpp:91] Creating Layer inception_5b/relu_3x3_reduce
I0403 17:14:31.576741 20871 net.cpp:425] inception_5b/relu_3x3_reduce <- inception_5b/3x3_reduce
I0403 17:14:31.576758 20871 net.cpp:386] inception_5b/relu_3x3_reduce -> inception_5b/3x3_reduce (in-place)
I0403 17:14:31.576941 20871 net.cpp:141] Setting up inception_5b/relu_3x3_reduce
I0403 17:14:31.576964 20871 net.cpp:148] Top shape: 24 192 7 7 (225792)
I0403 17:14:31.576977 20871 net.cpp:156] Memory required for data: 1330660896
I0403 17:14:31.576992 20871 layer_factory.hpp:77] Creating layer inception_5b/3x3
I0403 17:14:31.577015 20871 net.cpp:91] Creating Layer inception_5b/3x3
I0403 17:14:31.577033 20871 net.cpp:425] inception_5b/3x3 <- inception_5b/3x3_reduce
I0403 17:14:31.577050 20871 net.cpp:399] inception_5b/3x3 -> inception_5b/3x3
I0403 17:14:31.583417 20871 net.cpp:141] Setting up inception_5b/3x3
I0403 17:14:31.583446 20871 net.cpp:148] Top shape: 24 384 7 7 (451584)
I0403 17:14:31.583461 20871 net.cpp:156] Memory required for data: 1332467232
I0403 17:14:31.583478 20871 layer_factory.hpp:77] Creating layer inception_5b/relu_3x3
I0403 17:14:31.583498 20871 net.cpp:91] Creating Layer inception_5b/relu_3x3
I0403 17:14:31.583514 20871 net.cpp:425] inception_5b/relu_3x3 <- inception_5b/3x3
I0403 17:14:31.583531 20871 net.cpp:386] inception_5b/relu_3x3 -> inception_5b/3x3 (in-place)
I0403 17:14:31.583822 20871 net.cpp:141] Setting up inception_5b/relu_3x3
I0403 17:14:31.583847 20871 net.cpp:148] Top shape: 24 384 7 7 (451584)
I0403 17:14:31.583863 20871 net.cpp:156] Memory required for data: 1334273568
I0403 17:14:31.583876 20871 layer_factory.hpp:77] Creating layer inception_5b/5x5_reduce
I0403 17:14:31.583912 20871 net.cpp:91] Creating Layer inception_5b/5x5_reduce
I0403 17:14:31.583930 20871 net.cpp:425] inception_5b/5x5_reduce <- inception_5a/output_inception_5a/output_0_split_2
I0403 17:14:31.583951 20871 net.cpp:399] inception_5b/5x5_reduce -> inception_5b/5x5_reduce
I0403 17:14:31.585178 20871 net.cpp:141] Setting up inception_5b/5x5_reduce
I0403 17:14:31.585206 20871 net.cpp:148] Top shape: 24 48 7 7 (56448)
I0403 17:14:31.585221 20871 net.cpp:156] Memory required for data: 1334499360
I0403 17:14:31.585238 20871 layer_factory.hpp:77] Creating layer inception_5b/relu_5x5_reduce
I0403 17:14:31.585258 20871 net.cpp:91] Creating Layer inception_5b/relu_5x5_reduce
I0403 17:14:31.585274 20871 net.cpp:425] inception_5b/relu_5x5_reduce <- inception_5b/5x5_reduce
I0403 17:14:31.585291 20871 net.cpp:386] inception_5b/relu_5x5_reduce -> inception_5b/5x5_reduce (in-place)
I0403 17:14:31.585659 20871 net.cpp:141] Setting up inception_5b/relu_5x5_reduce
I0403 17:14:31.585685 20871 net.cpp:148] Top shape: 24 48 7 7 (56448)
I0403 17:14:31.585701 20871 net.cpp:156] Memory required for data: 1334725152
I0403 17:14:31.585716 20871 layer_factory.hpp:77] Creating layer inception_5b/5x5
I0403 17:14:31.585734 20871 net.cpp:91] Creating Layer inception_5b/5x5
I0403 17:14:31.585752 20871 net.cpp:425] inception_5b/5x5 <- inception_5b/5x5_reduce
I0403 17:14:31.585770 20871 net.cpp:399] inception_5b/5x5 -> inception_5b/5x5
I0403 17:14:31.587728 20871 net.cpp:141] Setting up inception_5b/5x5
I0403 17:14:31.587755 20871 net.cpp:148] Top shape: 24 128 7 7 (150528)
I0403 17:14:31.587770 20871 net.cpp:156] Memory required for data: 1335327264
I0403 17:14:31.587787 20871 layer_factory.hpp:77] Creating layer inception_5b/relu_5x5
I0403 17:14:31.587806 20871 net.cpp:91] Creating Layer inception_5b/relu_5x5
I0403 17:14:31.587823 20871 net.cpp:425] inception_5b/relu_5x5 <- inception_5b/5x5
I0403 17:14:31.587841 20871 net.cpp:386] inception_5b/relu_5x5 -> inception_5b/5x5 (in-place)
I0403 17:14:31.588026 20871 net.cpp:141] Setting up inception_5b/relu_5x5
I0403 17:14:31.588052 20871 net.cpp:148] Top shape: 24 128 7 7 (150528)
I0403 17:14:31.588068 20871 net.cpp:156] Memory required for data: 1335929376
I0403 17:14:31.588081 20871 layer_factory.hpp:77] Creating layer inception_5b/pool
I0403 17:14:31.588099 20871 net.cpp:91] Creating Layer inception_5b/pool
I0403 17:14:31.588114 20871 net.cpp:425] inception_5b/pool <- inception_5a/output_inception_5a/output_0_split_3
I0403 17:14:31.588135 20871 net.cpp:399] inception_5b/pool -> inception_5b/pool
I0403 17:14:31.588202 20871 net.cpp:141] Setting up inception_5b/pool
I0403 17:14:31.588227 20871 net.cpp:148] Top shape: 24 832 7 7 (978432)
I0403 17:14:31.588240 20871 net.cpp:156] Memory required for data: 1339843104
I0403 17:14:31.588253 20871 layer_factory.hpp:77] Creating layer inception_5b/pool_proj
I0403 17:14:31.588275 20871 net.cpp:91] Creating Layer inception_5b/pool_proj
I0403 17:14:31.588292 20871 net.cpp:425] inception_5b/pool_proj <- inception_5b/pool
I0403 17:14:31.588312 20871 net.cpp:399] inception_5b/pool_proj -> inception_5b/pool_proj
I0403 17:14:31.590510 20871 net.cpp:141] Setting up inception_5b/pool_proj
I0403 17:14:31.590539 20871 net.cpp:148] Top shape: 24 128 7 7 (150528)
I0403 17:14:31.590554 20871 net.cpp:156] Memory required for data: 1340445216
I0403 17:14:31.590577 20871 layer_factory.hpp:77] Creating layer inception_5b/relu_pool_proj
I0403 17:14:31.590600 20871 net.cpp:91] Creating Layer inception_5b/relu_pool_proj
I0403 17:14:31.590616 20871 net.cpp:425] inception_5b/relu_pool_proj <- inception_5b/pool_proj
I0403 17:14:31.590634 20871 net.cpp:386] inception_5b/relu_pool_proj -> inception_5b/pool_proj (in-place)
I0403 17:14:31.590919 20871 net.cpp:141] Setting up inception_5b/relu_pool_proj
I0403 17:14:31.590944 20871 net.cpp:148] Top shape: 24 128 7 7 (150528)
I0403 17:14:31.590957 20871 net.cpp:156] Memory required for data: 1341047328
I0403 17:14:31.590972 20871 layer_factory.hpp:77] Creating layer inception_5b/output
I0403 17:14:31.590988 20871 net.cpp:91] Creating Layer inception_5b/output
I0403 17:14:31.591017 20871 net.cpp:425] inception_5b/output <- inception_5b/1x1
I0403 17:14:31.591035 20871 net.cpp:425] inception_5b/output <- inception_5b/3x3
I0403 17:14:31.591053 20871 net.cpp:425] inception_5b/output <- inception_5b/5x5
I0403 17:14:31.591068 20871 net.cpp:425] inception_5b/output <- inception_5b/pool_proj
I0403 17:14:31.591086 20871 net.cpp:399] inception_5b/output -> inception_5b/output
I0403 17:14:31.591137 20871 net.cpp:141] Setting up inception_5b/output
I0403 17:14:31.591161 20871 net.cpp:148] Top shape: 24 1024 7 7 (1204224)
I0403 17:14:31.591176 20871 net.cpp:156] Memory required for data: 1345864224
I0403 17:14:31.591189 20871 layer_factory.hpp:77] Creating layer pool5/7x7_s1
I0403 17:14:31.591205 20871 net.cpp:91] Creating Layer pool5/7x7_s1
I0403 17:14:31.591220 20871 net.cpp:425] pool5/7x7_s1 <- inception_5b/output
I0403 17:14:31.591240 20871 net.cpp:399] pool5/7x7_s1 -> pool5/7x7_s1
I0403 17:14:31.591442 20871 net.cpp:141] Setting up pool5/7x7_s1
I0403 17:14:31.591466 20871 net.cpp:148] Top shape: 24 1024 1 1 (24576)
I0403 17:14:31.591480 20871 net.cpp:156] Memory required for data: 1345962528
I0403 17:14:31.591495 20871 layer_factory.hpp:77] Creating layer pool5/drop_7x7_s1
I0403 17:14:31.591513 20871 net.cpp:91] Creating Layer pool5/drop_7x7_s1
I0403 17:14:31.591531 20871 net.cpp:425] pool5/drop_7x7_s1 <- pool5/7x7_s1
I0403 17:14:31.591548 20871 net.cpp:386] pool5/drop_7x7_s1 -> pool5/7x7_s1 (in-place)
I0403 17:14:31.591605 20871 net.cpp:141] Setting up pool5/drop_7x7_s1
I0403 17:14:31.591629 20871 net.cpp:148] Top shape: 24 1024 1 1 (24576)
I0403 17:14:31.591642 20871 net.cpp:156] Memory required for data: 1346060832
I0403 17:14:31.591656 20871 layer_factory.hpp:77] Creating layer loss3/classifier_plantvillage
I0403 17:14:31.591675 20871 net.cpp:91] Creating Layer loss3/classifier_plantvillage
I0403 17:14:31.591689 20871 net.cpp:425] loss3/classifier_plantvillage <- pool5/7x7_s1
I0403 17:14:31.591709 20871 net.cpp:399] loss3/classifier_plantvillage -> loss3/classifier_plantvillage
I0403 17:14:31.592119 20871 net.cpp:141] Setting up loss3/classifier_plantvillage
I0403 17:14:31.592142 20871 net.cpp:148] Top shape: 24 38 (912)
I0403 17:14:31.592156 20871 net.cpp:156] Memory required for data: 1346064480
I0403 17:14:31.592173 20871 layer_factory.hpp:77] Creating layer loss3/classifier_plantvillage_loss3/classifier_plantvillage_0_split
I0403 17:14:31.592190 20871 net.cpp:91] Creating Layer loss3/classifier_plantvillage_loss3/classifier_plantvillage_0_split
I0403 17:14:31.592205 20871 net.cpp:425] loss3/classifier_plantvillage_loss3/classifier_plantvillage_0_split <- loss3/classifier_plantvillage
I0403 17:14:31.592222 20871 net.cpp:399] loss3/classifier_plantvillage_loss3/classifier_plantvillage_0_split -> loss3/classifier_plantvillage_loss3/classifier_plantvillage_0_split_0
I0403 17:14:31.592243 20871 net.cpp:399] loss3/classifier_plantvillage_loss3/classifier_plantvillage_0_split -> loss3/classifier_plantvillage_loss3/classifier_plantvillage_0_split_1
I0403 17:14:31.592262 20871 net.cpp:399] loss3/classifier_plantvillage_loss3/classifier_plantvillage_0_split -> loss3/classifier_plantvillage_loss3/classifier_plantvillage_0_split_2
I0403 17:14:31.592283 20871 net.cpp:399] loss3/classifier_plantvillage_loss3/classifier_plantvillage_0_split -> loss3/classifier_plantvillage_loss3/classifier_plantvillage_0_split_3
I0403 17:14:31.592381 20871 net.cpp:141] Setting up loss3/classifier_plantvillage_loss3/classifier_plantvillage_0_split
I0403 17:14:31.592403 20871 net.cpp:148] Top shape: 24 38 (912)
I0403 17:14:31.592418 20871 net.cpp:148] Top shape: 24 38 (912)
I0403 17:14:31.592432 20871 net.cpp:148] Top shape: 24 38 (912)
I0403 17:14:31.592445 20871 net.cpp:148] Top shape: 24 38 (912)
I0403 17:14:31.592458 20871 net.cpp:156] Memory required for data: 1346079072
I0403 17:14:31.592473 20871 layer_factory.hpp:77] Creating layer loss1/loss
I0403 17:14:31.592494 20871 net.cpp:91] Creating Layer loss1/loss
I0403 17:14:31.592510 20871 net.cpp:425] loss1/loss <- loss1/classifier_plantvillage_loss1/classifier_plantvillage_0_split_0
I0403 17:14:31.592540 20871 net.cpp:425] loss1/loss <- label_data_1_split_0
…
