…
I0403 16:31:02.336979 18533 net.cpp:313] The NetState phase (1) differed from the phase (0) specified by a rule in layer data
I0403 16:31:02.338400 18533 net.cpp:49] Initializing net from parameters: 
state {
  phase: TEST
}
layer {
  name: "data"
  type: "Data"
  top: "data"
  top: "label"
  include {
    phase: TEST
  }
  transform_param {
    mirror: false
    crop_size: 224
    mean_file: "/home/mohanty/data/final_dataset/lmdb/color-20-80/mean.binaryproto"
  }
  data_param {
    source: "/home/mohanty/data/final_dataset/lmdb/color-20-80/test_db"
    batch_size: 24
    backend: LMDB
  }
}
layer {
  name: "conv1/7x7_s2"
  type: "Convolution"
  bottom: "data"
  top: "conv1/7x7_s2"
  param {
    lr_mult: 1
    decay_mult: 1
  }
  param {
    lr_mult: 2
    decay_mult: 0
  }
  convolution_param {
    num_output: 64
    pad: 3
    kernel_size: 7
    stride: 2
    weight_filler {
      type: "xavier"
      std: 0.1
    }
    bias_filler {
      type: "constant"
      value: 0.2
    }
  }
}
layer {
  name: "conv1/relu_7x7"
  type: "ReLU"
  bottom: "conv1/7x7_s2"
  top: "conv1/7x7_s2"
}
layer {
  name: "pool1/3x3_s2"
  type: "Pooling"
  bottom: "conv1/7x7_s2"
  top: "pool1/3x3_s2"
  pooling_param {
    pool: MAX
    kernel_size: 3
    stride: 2
  }
}
layer {
  name: "pool1/norm1"
  type: "LRN"
  bottom: "pool1/3x3_s2"
  top: "pool1/norm1"
  lrn_param {
    local_size: 5
    alpha: 0.0001
    beta: 0.75
  }
}
layer {
  name: "conv2/3x3_reduce"
  type: "Convolution"
  bottom: "pool1/norm1"
  top: "conv2/3x3_reduce"
  param {
    lr_mult: 1
    decay_mult: 1
  }
  param {
    lr_mult: 2
    decay_mult: 0
  }
  convolution_param {
    num_output: 64
    kernel_size: 1
    weight_filler {
      type: "xavier"
      std: 0.1
    }
    bias_filler {
      type: "constant"
      value: 0.2
    }
  }
}
layer {
  name: "conv2/relu_3x3_reduce"
  type: "ReLU"
  bottom: "conv2/3x3_reduce"
  top: "conv2/3x3_reduce"
}
layer {
  name: "conv2/3x3"
  type: "Convolution"
  bottom: "conv2/3x3_reduce"
  top: "conv2/3x3"
  param {
    lr_mult: 1
    decay_mult: 1
  }
  param {
    lr_mult: 2
    decay_mult: 0
  }
  convolution_param {
    num_output: 192
    pad: 1
    kernel_size: 3
    weight_filler {
      type: "xavier"
      std: 0.03
    }
    bias_filler {
      type: "constant"
      value: 0.2
    }
  }
}
layer {
  name: "conv2/relu_3x3"
  type: "ReLU"
  bottom: "conv2/3x3"
  top: "conv2/3x3"
}
layer {
  name: "conv2/norm2"
  type: "LRN"
  bottom: "conv2/3x3"
  top: "conv2/norm2"
  lrn_param {
    local_size: 5
    alpha: 0.0001
    beta: 0.75
  }
}
layer {
  name: "pool2/3x3_s2"
  type: "Pooling"
  bottom: "conv2/norm2"
  top: "pool2/3x3_s2"
  pooling_param {
    pool: MAX
    kernel_size: 3
    stride: 2
  }
}
layer {
  name: "inception_3a/1x1"
  type: "Convolution"
  bottom: "pool2/3x3_s2"
  top: "inception_3a/1x1"
  param {
    lr_mult: 1
    decay_mult: 1
  }
  param {
    lr_mult: 2
    decay_mult: 0
  }
  convolution_param {
    num_output: 64
    kernel_size: 1
    weight_filler {
      type: "xavier"
      std: 0.03
    }
    bias_filler {
      type: "constant"
      value: 0.2
    }
  }
}
layer {
  name: "inception_3a/relu_1x1"
  type: "ReLU"
  bottom: "inception_3a/1x1"
  top: "inception_3a/1x1"
}
layer {
  name: "inception_3a/3x3_reduce"
  type: "Convolution"
  bottom: "pool2/3x3_s2"
  top: "inception_3a/3x3_reduce"
  param {
    lr_mult: 1
    decay_mult: 1
  }
  param {
    lr_mult: 2
    decay_mult: 0
  }
  convolution_param {
    num_output: 96
    kernel_size: 1
    weight_filler {
      type: "xavier"
      std: 0.09
    }
    bias_filler {
      type: "constant"
      value: 0.2
    }
  }
}
layer {
  name: "inception_3a/relu_3x3_reduce"
  type: "ReLU"
  bottom: "inception_3a/3x3_reduce"
  top: "inception_3a/3x3_reduce"
}
layer {
  name: "inception_3a/3x3"
  type: "Convolution"
  bottom: "inception_3a/3x3_reduce"
  top: "inception_3a/3x3"
  param {
    lr_mult: 1
    decay_mult: 1
  }
  param {
    lr_mult: 2
    decay_mult: 0
  }
  convolution_param {
    num_output: 128
    pad: 1
    kernel_size: 3
    weight_filler {
      type: "xavier"
      std: 0.03
    }
    bias_filler {
      type: "constant"
      value: 0.2
    }
  }
}
layer {
  name: "inception_3a/relu_3x3"
  type: "ReLU"
  bottom: "inception_3a/3x3"
  top: "inception_3a/3x3"
}
layer {
  name: "inception_3a/5x5_reduce"
  type: "Convolution"
  bottom: "pool2/3x3_s2"
  top: "inception_3a/5x5_reduce"
  param {
    lr_mult: 1
    decay_mult: 1
  }
  param {
    lr_mult: 2
    decay_mult: 0
  }
  convolution_param {
    num_output: 16
    kernel_size: 1
    weight_filler {
      type: "xavier"
      std: 0.2
    }
    bias_filler {
      type: "constant"
      value: 0.2
    }
  }
}
layer {
  name: "inception_3a/relu_5x5_reduce"
  type: "ReLU"
  bottom: "inception_3a/5x5_reduce"
  top: "inception_3a/5x5_reduce"
}
layer {
  name: "inception_3a/5x5"
  type: "Convolution"
  bottom: "inception_3a/5x5_reduce"
  top: "inception_3a/5x5"
  param {
    lr_mult: 1
    decay_mult: 1
  }
  param {
    lr_mult: 2
    decay_mult: 0
  }
  convolution_param {
    num_output: 32
    pad: 2
    kernel_size: 5
    weight_filler {
      type: "xavier"
      std: 0.03
    }
    bias_filler {
      type: "constant"
      value: 0.2
    }
  }
}
layer {
  name: "inception_3a/relu_5x5"
  type: "ReLU"
  bottom: "inception_3a/5x5"
  top: "inception_3a/5x5"
}
layer {
  name: "inception_3a/pool"
  type: "Pooling"
  bottom: "pool2/3x3_s2"
  top: "inception_3a/pool"
  pooling_param {
    pool: MAX
    kernel_size: 3
    stride: 1
    pad: 1
  }
}
layer {
  name: "inception_3a/pool_proj"
  type: "Convolution"
  bottom: "inception_3a/pool"
  top: "inception_3a/pool_proj"
  param {
    lr_mult: 1
    decay_mult: 1
  }
  param {
    lr_mult: 2
    decay_mult: 0
  }
  convolution_param {
    num_output: 32
    kernel_size: 1
    weight_filler {
      type: "xavier"
      std: 0.1
    }
    bias_filler {
      type: "constant"
      value: 0.2
    }
  }
}
layer {
  name: "inception_3a/relu_pool_proj"
  type: "ReLU"
  bottom: "inception_3a/pool_proj"
  top: "inception_3a/pool_proj"
}
layer {
  name: "inception_3a/output"
  type: "Concat"
  bottom: "inception_3a/1x1"
  bottom: "inception_3a/3x3"
  bottom: "inception_3a/5x5"
  bottom: "inception_3a/pool_proj"
  top: "inception_3a/output"
}
layer {
  name: "inception_3b/1x1"
  type: "Convolution"
  bottom: "inception_3a/output"
  top: "inception_3b/1x1"
  param {
    lr_mult: 1
    decay_mult: 1
  }
  param {
    lr_mult: 2
    decay_mult: 0
  }
  convolution_param {
    num_output: 128
    kernel_size: 1
    weight_filler {
      type: "xavier"
      std: 0.03
    }
    bias_filler {
      type: "constant"
      value: 0.2
    }
  }
}
layer {
  name: "inception_3b/relu_1x1"
  type: "ReLU"
  bottom: "inception_3b/1x1"
  top: "inception_3b/1x1"
}
layer {
  name: "inception_3b/3x3_reduce"
  type: "Convolution"
  bottom: "inception_3a/output"
  top: "inception_3b/3x3_reduce"
  param {
    lr_mult: 1
    decay_mult: 1
  }
  param {
    lr_mult: 2
    decay_mult: 0
  }
  convolution_param {
    num_output: 128
    kernel_size: 1
    weight_filler {
      type: "xavier"
      std: 0.09
    }
    bias_filler {
      type: "constant"
      value: 0.2
    }
  }
}
layer {
  name: "inception_3b/relu_3x3_reduce"
  type: "ReLU"
  bottom: "inception_3b/3x3_reduce"
  top: "inception_3b/3x3_reduce"
}
layer {
  name: "inception_3b/3x3"
  type: "Convolution"
  bottom: "inception_3b/3x3_reduce"
  top: "inception_3b/3x3"
  param {
    lr_mult: 1
    decay_mult: 1
  }
  param {
    lr_mult: 2
    decay_mult: 0
  }
  convolution_param {
    num_output: 192
    pad: 1
    kernel_size: 3
    weight_filler {
      type: "xavier"
      std: 0.03
    }
    bias_filler {
      type: "constant"
      value: 0.2
    }
  }
}
layer {
  name: "inception_3b/relu_3x3"
  type: "ReLU"
  bottom: "inception_3b/3x3"
  top: "inception_3b/3x3"
}
layer {
  name: "inception_3b/5x5_reduce"
  type: "Convolution"
  bottom: "inception_3a/output"
  top: "inception_3b/5x5_reduce"
  param {
    lr_mult: 1
    decay_mult: 1
  }
  param {
    lr_mult: 2
    decay_mult: 0
  }
  convolution_param {
    num_output: 32
    kernel_size: 1
    weight_filler {
      type: "xavier"
      std: 0.2
    }
    bias_filler {
      type: "constant"
      value: 0.2
    }
  }
}
layer {
  name: "inception_3b/relu_5x5_reduce"
  type: "ReLU"
  bottom: "inception_3b/5x5_reduce"
  top: "inception_3b/5x5_reduce"
}
layer {
  name: "inception_3b/5x5"
  type: "Convolution"
  bottom: "inception_3b/5x5_reduce"
  top: "inception_3b/5x5"
  param {
    lr_mult: 1
    decay_mult: 1
  }
  param {
    lr_mult: 2
    decay_mult: 0
  }
  convolution_param {
    num_output: 96
    pad: 2
    kernel_size: 5
    weight_filler {
      type: "xavier"
      std: 0.03
    }
    bias_filler {
      type: "constant"
      value: 0.2
    }
  }
}
layer {
  name: "inception_3b/relu_5x5"
  type: "ReLU"
  bottom: "inception_3b/5x5"
  top: "inception_3b/5x5"
}
layer {
  name: "inception_3b/pool"
  type: "Pooling"
  bottom: "inception_3a/output"
  top: "inception_3b/pool"
  pooling_param {
    pool: MAX
    kernel_size: 3
    stride: 1
    pad: 1
  }
}
layer {
  name: "inception_3b/pool_proj"
  type: "Convolution"
  bottom: "inception_3b/pool"
  top: "inception_3b/pool_proj"
  param {
    lr_mult: 1
    decay_mult: 1
  }
  param {
    lr_mult: 2
    decay_mult: 0
  }
  convolution_param {
    num_output: 64
    kernel_size: 1
    weight_filler {
      type: "xavier"
      std: 0.1
    }
    bias_filler {
      type: "constant"
      value: 0.2
    }
  }
}
layer {
  name: "inception_3b/relu_pool_proj"
  type: "ReLU"
  bottom: "inception_3b/pool_proj"
  top: "inception_3b/pool_proj"
}
layer {
  name: "inception_3b/output"
  type: "Concat"
  bottom: "inception_3b/1x1"
  bottom: "inception_3b/3x3"
  bottom: "inception_3b/5x5"
  bottom: "inception_3b/pool_proj"
  top: "inception_3b/output"
}
layer {
  name: "pool3/3x3_s2"
  type: "Pooling"
  bottom: "inception_3b/output"
  top: "pool3/3x3_s2"
  pooling_param {
    pool: MAX
    kernel_size: 3
    stride: 2
  }
}
layer {
  name: "inception_4a/1x1"
  type: "Convolution"
  bottom: "pool3/3x3_s2"
  top: "inception_4a/1x1"
  param {
    lr_mult: 1
    decay_mult: 1
  }
  param {
    lr_mult: 2
    decay_mult: 0
  }
  convolution_param {
    num_output: 192
    kernel_size: 1
    weight_filler {
      type: "xavier"
      std: 0.03
    }
    bias_filler {
      type: "constant"
      value: 0.2
    }
  }
}
layer {
  name: "inception_4a/relu_1x1"
  type: "ReLU"
  bottom: "inception_4a/1x1"
  top: "inception_4a/1x1"
}
layer {
  name: "inception_4a/3x3_reduce"
  type: "Convolution"
  bottom: "pool3/3x3_s2"
  top: "inception_4a/3x3_reduce"
  param {
    lr_mult: 1
    decay_mult: 1
  }
  param {
    lr_mult: 2
    decay_mult: 0
  }
  convolution_param {
    num_output: 96
    kernel_size: 1
    weight_filler {
      type: "xavier"
      std: 0.09
    }
    bias_filler {
      type: "constant"
      value: 0.2
    }
  }
}
layer {
  name: "inception_4a/relu_3x3_reduce"
  type: "ReLU"
  bottom: "inception_4a/3x3_reduce"
  top: "inception_4a/3x3_reduce"
}
layer {
  name: "inception_4a/3x3"
  type: "Convolution"
  bottom: "inception_4a/3x3_reduce"
  top: "inception_4a/3x3"
  param {
    lr_mult: 1
    decay_mult: 1
  }
  param {
    lr_mult: 2
    decay_mult: 0
  }
  convolution_param {
    num_output: 208
    pad: 1
    kernel_size: 3
    weight_filler {
      type: "xavier"
      std: 0.03
    }
    bias_filler {
      type: "constant"
      value: 0.2
    }
  }
}
layer {
  name: "inception_4a/relu_3x3"
  type: "ReLU"
  bottom: "inception_4a/3x3"
  top: "inception_4a/3x3"
}
layer {
  name: "inception_4a/5x5_reduce"
  type: "Convolution"
  bottom: "pool3/3x3_s2"
  top: "inception_4a/5x5_reduce"
  param {
    lr_mult: 1
    decay_mult: 1
  }
  param {
    lr_mult: 2
    decay_mult: 0
  }
  convolution_param {
    num_output: 16
    kernel_size: 1
    weight_filler {
      type: "xavier"
      std: 0.2
    }
    bias_filler {
      type: "constant"
      value: 0.2
    }
  }
}
layer {
  name: "inception_4a/relu_5x5_reduce"
  type: "ReLU"
  bottom: "inception_4a/5x5_reduce"
  top: "inception_4a/5x5_reduce"
}
layer {
  name: "inception_4a/5x5"
  type: "Convolution"
  bottom: "inception_4a/5x5_reduce"
  top: "inception_4a/5x5"
  param {
    lr_mult: 1
    decay_mult: 1
  }
  param {
    lr_mult: 2
    decay_mult: 0
  }
  convolution_param {
    num_output: 48
    pad: 2
    kernel_size: 5
    weight_filler {
      type: "xavier"
      std: 0.03
    }
    bias_filler {
      type: "constant"
      value: 0.2
    }
  }
}
layer {
  name: "inception_4a/relu_5x5"
  type: "ReLU"
  bottom: "inception_4a/5x5"
  top: "inception_4a/5x5"
}
layer {
  name: "inception_4a/pool"
  type: "Pooling"
  bottom: "pool3/3x3_s2"
  top: "inception_4a/pool"
  pooling_param {
    pool: MAX
    kernel_size: 3
    stride: 1
    pad: 1
  }
}
layer {
  name: "inception_4a/pool_proj"
  type: "Convolution"
  bottom: "inception_4a/pool"
  top: "inception_4a/pool_proj"
  param {
    lr_mult: 1
    decay_mult: 1
  }
  param {
    lr_mult: 2
    decay_mult: 0
  }
  convolution_param {
    num_output: 64
    kernel_size: 1
    weight_filler {
      type: "xavier"
      std: 0.1
    }
    bias_filler {
      type: "constant"
      value: 0.2
    }
  }
}
layer {
  name: "inception_4a/relu_pool_proj"
  type: "ReLU"
  bottom: "inception_4a/pool_proj"
  top: "inception_4a/pool_proj"
}
layer {
  name: "inception_4a/output"
  type: "Concat"
  bottom: "inception_4a/1x1"
  bottom: "inception_4a/3x3"
  bottom: "inception_4a/5x5"
  bottom: "inception_4a/pool_proj"
  top: "inception_4a/output"
}
layer {
  name: "loss1/ave_pool"
  type: "Pooling"
  bottom: "inception_4a/output"
  top: "loss1/ave_pool"
  pooling_param {
    pool: AVE
    kernel_size: 5
    stride: 3
  }
}
layer {
  name: "loss1/conv"
  type: "Convolution"
  bottom: "loss1/ave_pool"
  top: "loss1/conv"
  param {
    lr_mult: 1
    decay_mult: 1
  }
  param {
    lr_mult: 2
    decay_mult: 0
  }
  convolution_param {
    num_output: 128
    kernel_size: 1
    weight_filler {
      type: "xavier"
      std: 0.08
    }
    bias_filler {
      type: "constant"
      value: 0.2
    }
  }
}
layer {
  name: "loss1/relu_conv"
  type: "ReLU"
  bottom: "loss1/conv"
  top: "loss1/conv"
}
layer {
  name: "loss1/fc"
  type: "InnerProduct"
  bottom: "loss1/conv"
  top: "loss1/fc"
  param {
    lr_mult: 1
    decay_mult: 1
  }
  param {
    lr_mult: 2
    decay_mult: 0
  }
  inner_product_param {
    num_output: 1024
    weight_filler {
      type: "xavier"
      std: 0.02
    }
    bias_filler {
      type: "constant"
      value: 0.2
    }
  }
}
layer {
  name: "loss1/relu_fc"
  type: "ReLU"
  bottom: "loss1/fc"
  top: "loss1/fc"
}
layer {
  name: "loss1/drop_fc"
  type: "Dropout"
  bottom: "loss1/fc"
  top: "loss1/fc"
  dropout_param {
    dropout_ratio: 0.7
  }
}
layer {
  name: "loss1/classifier_plantvillage"
  type: "InnerProduct"
  bottom: "loss1/fc"
  top: "loss1/classifier_plantvillage"
  param {
    lr_mult: 1
    decay_mult: 1
  }
  param {
    lr_mult: 2
    decay_mult: 0
  }
  inner_product_param {
    num_output: 38
    weight_filler {
      type: "xavier"
      std: 0.0009765625
    }
    bias_filler {
      type: "constant"
      value: 0
    }
  }
}
layer {
  name: "inception_4b/1x1"
  type: "Convolution"
  bottom: "inception_4a/output"
  top: "inception_4b/1x1"
  param {
    lr_mult: 1
    decay_mult: 1
  }
  param {
    lr_mult: 2
    decay_mult: 0
  }
  convolution_param {
    num_output: 160
    kernel_size: 1
    weight_filler {
      type: "xavier"
      std: 0.03
    }
    bias_filler {
      type: "constant"
      value: 0.2
    }
  }
}
layer {
  name: "inception_4b/relu_1x1"
  type: "ReLU"
  bottom: "inception_4b/1x1"
  top: "inception_4b/1x1"
}
layer {
  name: "inception_4b/3x3_reduce"
  type: "Convolution"
  bottom: "inception_4a/output"
  top: "inception_4b/3x3_reduce"
  param {
    lr_mult: 1
    decay_mult: 1
  }
  param {
    lr_mult: 2
    decay_mult: 0
  }
  convolution_param {
    num_output: 112
    kernel_size: 1
    weight_filler {
      type: "xavier"
      std: 0.09
    }
    bias_filler {
      type: "constant"
      value: 0.2
    }
  }
}
layer {
  name: "inception_4b/relu_3x3_reduce"
  type: "ReLU"
  bottom: "inception_4b/3x3_reduce"
  top: "inception_4b/3x3_reduce"
}
layer {
  name: "inception_4b/3x3"
  type: "Convolution"
  bottom: "inception_4b/3x3_reduce"
  top: "inception_4b/3x3"
  param {
    lr_mult: 1
    decay_mult: 1
  }
  param {
    lr_mult: 2
    decay_mult: 0
  }
  convolution_param {
    num_output: 224
    pad: 1
    kernel_size: 3
    weight_filler {
      type: "xavier"
      std: 0.03
    }
    bias_filler {
      type: "constant"
      value: 0.2
    }
  }
}
layer {
  name: "inception_4b/relu_3x3"
  type: "ReLU"
  bottom: "inception_4b/3x3"
  top: "inception_4b/3x3"
}
layer {
  name: "inception_4b/5x5_reduce"
  type: "Convolution"
  bottom: "inception_4a/output"
  top: "inception_4b/5x5_reduce"
  param {
    lr_mult: 1
    decay_mult: 1
  }
  param {
    lr_mult: 2
    decay_mult: 0
  }
  convolution_param {
    num_output: 24
    kernel_size: 1
    weight_filler {
      type: "xavier"
      std: 0.2
    }
    bias_filler {
      type: "constant"
      value: 0.2
    }
  }
}
layer {
  name: "inception_4b/relu_5x5_reduce"
  type: "ReLU"
  bottom: "inception_4b/5x5_reduce"
  top: "inception_4b/5x5_reduce"
}
layer {
  name: "inception_4b/5x5"
  type: "Convolution"
  bottom: "inception_4b/5x5_reduce"
  top: "inception_4b/5x5"
  param {
    lr_mult: 1
    decay_mult: 1
  }
  param {
    lr_mult: 2
    decay_mult: 0
  }
  convolution_param {
    num_output: 64
    pad: 2
    kernel_size: 5
    weight_filler {
      type: "xavier"
      std: 0.03
    }
    bias_filler {
      type: "constant"
      value: 0.2
    }
  }
}
layer {
  name: "inception_4b/relu_5x5"
  type: "ReLU"
  bottom: "inception_4b/5x5"
  top: "inception_4b/5x5"
}
layer {
  name: "inception_4b/pool"
  type: "Pooling"
  bottom: "inception_4a/output"
  top: "inception_4b/pool"
  pooling_param {
    pool: MAX
    kernel_size: 3
    stride: 1
    pad: 1
  }
}
layer {
  name: "inception_4b/pool_proj"
  type: "Convolution"
  bottom: "inception_4b/pool"
  top: "inception_4b/pool_proj"
  param {
    lr_mult: 1
    decay_mult: 1
  }
  param {
    lr_mult: 2
    decay_mult: 0
  }
  convolution_param {
    num_output: 64
    kernel_size: 1
    weight_filler {
      type: "xavier"
      std: 0.1
    }
    bias_filler {
      type: "constant"
      value: 0.2
    }
  }
}
layer {
  name: "inception_4b/relu_pool_proj"
  type: "ReLU"
  bottom: "inception_4b/pool_proj"
  top: "inception_4b/pool_proj"
}
layer {
  name: "inception_4b/output"
  type: "Concat"
  bottom: "inception_4b/1x1"
  bottom: "inception_4b/3x3"
  bottom: "inception_4b/5x5"
  bottom: "inception_4b/pool_proj"
  top: "inception_4b/output"
}
layer {
  name: "inception_4c/1x1"
  type: "Convolution"
  bottom: "inception_4b/output"
  top: "inception_4c/1x1"
  param {
    lr_mult: 1
    decay_mult: 1
  }
  param {
    lr_mult: 2
    decay_mult: 0
  }
  convolution_param {
    num_output: 128
    kernel_size: 1
    weight_filler {
      type: "xavier"
      std: 0.03
    }
    bias_filler {
      type: "constant"
      value: 0.2
    }
  }
}
layer {
  name: "inception_4c/relu_1x1"
  type: "ReLU"
  bottom: "inception_4c/1x1"
  top: "inception_4c/1x1"
}
layer {
  name: "inception_4c/3x3_reduce"
  type: "Convolution"
  bottom: "inception_4b/output"
  top: "inception_4c/3x3_reduce"
  param {
    lr_mult: 1
    decay_mult: 1
  }
  param {
    lr_mult: 2
    decay_mult: 0
  }
  convolution_param {
    num_output: 128
    kernel_size: 1
    weight_filler {
      type: "xavier"
      std: 0.09
    }
    bias_filler {
      type: "constant"
      value: 0.2
    }
  }
}
layer {
  name: "inception_4c/relu_3x3_reduce"
  type: "ReLU"
  bottom: "inception_4c/3x3_reduce"
  top: "inception_4c/3x3_reduce"
}
layer {
  name: "inception_4c/3x3"
  type: "Convolution"
  bottom: "inception_4c/3x3_reduce"
  top: "inception_4c/3x3"
  param {
    lr_mult: 1
    decay_mult: 1
  }
  param {
    lr_mult: 2
    decay_mult: 0
  }
  convolution_param {
    num_output: 256
    pad: 1
    kernel_size: 3
    weight_filler {
      type: "xavier"
      std: 0.03
    }
    bias_filler {
      type: "constant"
      value: 0.2
    }
  }
}
layer {
  name: "inception_4c/relu_3x3"
  type: "ReLU"
  bottom: "inception_4c/3x3"
  top: "inception_4c/3x3"
}
layer {
  name: "inception_4c/5x5_reduce"
  type: "Convolution"
  bottom: "inception_4b/output"
  top: "inception_4c/5x5_reduce"
  param {
    lr_mult: 1
    decay_mult: 1
  }
  param {
    lr_mult: 2
    decay_mult: 0
  }
  convolution_param {
    num_output: 24
    kernel_size: 1
    weight_filler {
      type: "xavier"
      std: 0.2
    }
    bias_filler {
      type: "constant"
      value: 0.2
    }
  }
}
layer {
  name: "inception_4c/relu_5x5_reduce"
  type: "ReLU"
  bottom: "inception_4c/5x5_reduce"
  top: "inception_4c/5x5_reduce"
}
layer {
  name: "inception_4c/5x5"
  type: "Convolution"
  bottom: "inception_4c/5x5_reduce"
  top: "inception_4c/5x5"
  param {
    lr_mult: 1
    decay_mult: 1
  }
  param {
    lr_mult: 2
    decay_mult: 0
  }
  convolution_param {
    num_output: 64
    pad: 2
    kernel_size: 5
    weight_filler {
      type: "xavier"
      std: 0.03
    }
    bias_filler {
      type: "constant"
      value: 0.2
    }
  }
}
layer {
  name: "inception_4c/relu_5x5"
  type: "ReLU"
  bottom: "inception_4c/5x5"
  top: "inception_4c/5x5"
}
layer {
  name: "inception_4c/pool"
  type: "Pooling"
  bottom: "inception_4b/output"
  top: "inception_4c/pool"
  pooling_param {
    pool: MAX
    kernel_size: 3
    stride: 1
    pad: 1
  }
}
layer {
  name: "inception_4c/pool_proj"
  type: "Convolution"
  bottom: "inception_4c/pool"
  top: "inception_4c/pool_proj"
  param {
    lr_mult: 1
    decay_mult: 1
  }
  param {
    lr_mult: 2
    decay_mult: 0
  }
  convolution_param {
    num_output: 64
    kernel_size: 1
    weight_filler {
      type: "xavier"
      std: 0.1
    }
    bias_filler {
      type: "constant"
      value: 0.2
    }
  }
}
layer {
  name: "inception_4c/relu_pool_proj"
  type: "ReLU"
  bottom: "inception_4c/pool_proj"
  top: "inception_4c/pool_proj"
}
layer {
  name: "inception_4c/output"
  type: "Concat"
  bottom: "inception_4c/1x1"
  bottom: "inception_4c/3x3"
  bottom: "inception_4c/5x5"
  bottom: "inception_4c/pool_proj"
  top: "inception_4c/output"
}
layer {
  name: "inception_4d/1x1"
  type: "Convolution"
  bottom: "inception_4c/output"
  top: "inception_4d/1x1"
  param {
    lr_mult: 1
    decay_mult: 1
  }
  param {
    lr_mult: 2
    decay_mult: 0
  }
  convolution_param {
    num_output: 112
    kernel_size: 1
    weight_filler {
      type: "xavier"
      std: 0.03
    }
    bias_filler {
      type: "constant"
      value: 0.2
    }
  }
}
layer {
  name: "inception_4d/relu_1x1"
  type: "ReLU"
  bottom: "inception_4d/1x1"
  top: "inception_4d/1x1"
}
layer {
  name: "inception_4d/3x3_reduce"
  type: "Convolution"
  bottom: "inception_4c/output"
  top: "inception_4d/3x3_reduce"
  param {
    lr_mult: 1
    decay_mult: 1
  }
  param {
    lr_mult: 2
    decay_mult: 0
  }
  convolution_param {
    num_output: 144
    kernel_size: 1
    weight_filler {
      type: "xavier"
      std: 0.09
    }
    bias_filler {
      type: "constant"
      value: 0.2
    }
  }
}
layer {
  name: "inception_4d/relu_3x3_reduce"
  type: "ReLU"
  bottom: "inception_4d/3x3_reduce"
  top: "inception_4d/3x3_reduce"
}
layer {
  name: "inception_4d/3x3"
  type: "Convolution"
  bottom: "inception_4d/3x3_reduce"
  top: "inception_4d/3x3"
  param {
    lr_mult: 1
    decay_mult: 1
  }
  param {
    lr_mult: 2
    decay_mult: 0
  }
  convolution_param {
    num_output: 288
    pad: 1
    kernel_size: 3
    weight_filler {
      type: "xavier"
      std: 0.03
    }
    bias_filler {
      type: "constant"
      value: 0.2
    }
  }
}
layer {
  name: "inception_4d/relu_3x3"
  type: "ReLU"
  bottom: "inception_4d/3x3"
  top: "inception_4d/3x3"
}
layer {
  name: "inception_4d/5x5_reduce"
  type: "Convolution"
  bottom: "inception_4c/output"
  top: "inception_4d/5x5_reduce"
  param {
    lr_mult: 1
    decay_mult: 1
  }
  param {
    lr_mult: 2
    decay_mult: 0
  }
  convolution_param {
    num_output: 32
    kernel_size: 1
    weight_filler {
      type: "xavier"
      std: 0.2
    }
    bias_filler {
      type: "constant"
      value: 0.2
    }
  }
}
layer {
  name: "inception_4d/relu_5x5_reduce"
  type: "ReLU"
  bottom: "inception_4d/5x5_reduce"
  top: "inception_4d/5x5_reduce"
}
layer {
  name: "inception_4d/5x5"
  type: "Convolution"
  bottom: "inception_4d/5x5_reduce"
  top: "inception_4d/5x5"
  param {
    lr_mult: 1
    decay_mult: 1
  }
  param {
    lr_mult: 2
    decay_mult: 0
  }
  convolution_param {
    num_output: 64
    pad: 2
    kernel_size: 5
    weight_filler {
      type: "xavier"
      std: 0.03
    }
    bias_filler {
      type: "constant"
      value: 0.2
    }
  }
}
layer {
  name: "inception_4d/relu_5x5"
  type: "ReLU"
  bottom: "inception_4d/5x5"
  top: "inception_4d/5x5"
}
layer {
  name: "inception_4d/pool"
  type: "Pooling"
  bottom: "inception_4c/output"
  top: "inception_4d/pool"
  pooling_param {
    pool: MAX
    kernel_size: 3
    stride: 1
    pad: 1
  }
}
layer {
  name: "inception_4d/pool_proj"
  type: "Convolution"
  bottom: "inception_4d/pool"
  top: "inception_4d/pool_proj"
  param {
    lr_mult: 1
    decay_mult: 1
  }
  param {
    lr_mult: 2
    decay_mult: 0
  }
  convolution_param {
    num_output: 64
    kernel_size: 1
    weight_filler {
      type: "xavier"
      std: 0.1
    }
    bias_filler {
      type: "constant"
      value: 0.2
    }
  }
}
layer {
  name: "inception_4d/relu_pool_proj"
  type: "ReLU"
  bottom: "inception_4d/pool_proj"
  top: "inception_4d/pool_proj"
}
layer {
  name: "inception_4d/output"
  type: "Concat"
  bottom: "inception_4d/1x1"
  bottom: "inception_4d/3x3"
  bottom: "inception_4d/5x5"
  bottom: "inception_4d/pool_proj"
  top: "inception_4d/output"
}
layer {
  name: "loss2/ave_pool"
  type: "Pooling"
  bottom: "inception_4d/output"
  top: "loss2/ave_pool"
  pooling_param {
    pool: AVE
    kernel_size: 5
    stride: 3
  }
}
layer {
  name: "loss2/conv"
  type: "Convolution"
  bottom: "loss2/ave_pool"
  top: "loss2/conv"
  param {
    lr_mult: 1
    decay_mult: 1
  }
  param {
    lr_mult: 2
    decay_mult: 0
  }
  convolution_param {
    num_output: 128
    kernel_size: 1
    weight_filler {
      type: "xavier"
      std: 0.08
    }
    bias_filler {
      type: "constant"
      value: 0.2
    }
  }
}
layer {
  name: "loss2/relu_conv"
  type: "ReLU"
  bottom: "loss2/conv"
  top: "loss2/conv"
}
layer {
  name: "loss2/fc"
  type: "InnerProduct"
  bottom: "loss2/conv"
  top: "loss2/fc"
  param {
    lr_mult: 1
    decay_mult: 1
  }
  param {
    lr_mult: 2
    decay_mult: 0
  }
  inner_product_param {
    num_output: 1024
    weight_filler {
      type: "xavier"
      std: 0.02
    }
    bias_filler {
      type: "constant"
      value: 0.2
    }
  }
}
layer {
  name: "loss2/relu_fc"
  type: "ReLU"
  bottom: "loss2/fc"
  top: "loss2/fc"
}
layer {
  name: "loss2/drop_fc"
  type: "Dropout"
  bottom: "loss2/fc"
  top: "loss2/fc"
  dropout_param {
    dropout_ratio: 0.7
  }
}
layer {
  name: "loss2/classifier_plantvillage"
  type: "InnerProduct"
  bottom: "loss2/fc"
  top: "loss2/classifier_plantvillage"
  param {
    lr_mult: 1
    decay_mult: 1
  }
  param {
    lr_mult: 2
    decay_mult: 0
  }
  inner_product_param {
    num_output: 38
    weight_filler {
      type: "xavier"
      std: 0.0009765625
    }
    bias_filler {
      type: "constant"
      value: 0
    }
  }
}
layer {
  name: "inception_4e/1x1"
  type: "Convolution"
  bottom: "inception_4d/output"
  top: "inception_4e/1x1"
  param {
    lr_mult: 1
    decay_mult: 1
  }
  param {
    lr_mult: 2
    decay_mult: 0
  }
  convolution_param {
    num_output: 256
    kernel_size: 1
    weight_filler {
      type: "xavier"
      std: 0.03
    }
    bias_filler {
      type: "constant"
      value: 0.2
    }
  }
}
layer {
  name: "inception_4e/relu_1x1"
  type: "ReLU"
  bottom: "inception_4e/1x1"
  top: "inception_4e/1x1"
}
layer {
  name: "inception_4e/3x3_reduce"
  type: "Convolution"
  bottom: "inception_4d/output"
  top: "inception_4e/3x3_reduce"
  param {
    lr_mult: 1
    decay_mult: 1
  }
  param {
    lr_mult: 2
    decay_mult: 0
  }
  convolution_param {
    num_output: 160
    kernel_size: 1
    weight_filler {
      type: "xavier"
      std: 0.09
    }
    bias_filler {
      type: "constant"
      value: 0.2
    }
  }
}
layer {
  name: "inception_4e/relu_3x3_reduce"
  type: "ReLU"
  bottom: "inception_4e/3x3_reduce"
  top: "inception_4e/3x3_reduce"
}
layer {
  name: "inception_4e/3x3"
  type: "Convolution"
  bottom: "inception_4e/3x3_reduce"
  top: "inception_4e/3x3"
  param {
    lr_mult: 1
    decay_mult: 1
  }
  param {
    lr_mult: 2
    decay_mult: 0
  }
  convolution_param {
    num_output: 320
    pad: 1
    kernel_size: 3
    weight_filler {
      type: "xavier"
      std: 0.03
    }
    bias_filler {
      type: "constant"
      value: 0.2
    }
  }
}
layer {
  name: "inception_4e/relu_3x3"
  type: "ReLU"
  bottom: "inception_4e/3x3"
  top: "inception_4e/3x3"
}
layer {
  name: "inception_4e/5x5_reduce"
  type: "Convolution"
  bottom: "inception_4d/output"
  top: "inception_4e/5x5_reduce"
  param {
    lr_mult: 1
    decay_mult: 1
  }
  param {
    lr_mult: 2
    decay_mult: 0
  }
  convolution_param {
    num_output: 32
    kernel_size: 1
    weight_filler {
      type: "xavier"
      std: 0.2
    }
    bias_filler {
      type: "constant"
      value: 0.2
    }
  }
}
layer {
  name: "inception_4e/relu_5x5_reduce"
  type: "ReLU"
  bottom: "inception_4e/5x5_reduce"
  top: "inception_4e/5x5_reduce"
}
layer {
  name: "inception_4e/5x5"
  type: "Convolution"
  bottom: "inception_4e/5x5_reduce"
  top: "inception_4e/5x5"
  p
I0403 16:31:02.340100 18533 layer_factory.hpp:77] Creating layer data
I0403 16:31:02.340826 18533 net.cpp:91] Creating Layer data
I0403 16:31:02.340865 18533 net.cpp:399] data -> data
I0403 16:31:02.340926 18533 net.cpp:399] data -> label
I0403 16:31:02.340970 18533 data_transformer.cpp:25] Loading mean file from: /home/mohanty/data/final_dataset/lmdb/color-20-80/mean.binaryproto
I0403 16:31:02.342366 18535 db_lmdb.cpp:38] Opened lmdb /home/mohanty/data/final_dataset/lmdb/color-20-80/test_db
I0403 16:31:02.356657 18533 data_layer.cpp:41] output data size: 24,3,224,224
I0403 16:31:02.393542 18533 net.cpp:141] Setting up data
I0403 16:31:02.393635 18533 net.cpp:148] Top shape: 24 3 224 224 (3612672)
I0403 16:31:02.393664 18533 net.cpp:148] Top shape: 24 (24)
I0403 16:31:02.393682 18533 net.cpp:156] Memory required for data: 14450784
I0403 16:31:02.393717 18533 layer_factory.hpp:77] Creating layer label_data_1_split
I0403 16:31:02.393748 18533 net.cpp:91] Creating Layer label_data_1_split
I0403 16:31:02.393770 18533 net.cpp:425] label_data_1_split <- label
I0403 16:31:02.393810 18533 net.cpp:399] label_data_1_split -> label_data_1_split_0
I0403 16:31:02.393846 18533 net.cpp:399] label_data_1_split -> label_data_1_split_1
I0403 16:31:02.393872 18533 net.cpp:399] label_data_1_split -> label_data_1_split_2
I0403 16:31:02.393898 18533 net.cpp:399] label_data_1_split -> label_data_1_split_3
I0403 16:31:02.393923 18533 net.cpp:399] label_data_1_split -> label_data_1_split_4
I0403 16:31:02.393949 18533 net.cpp:399] label_data_1_split -> label_data_1_split_5
I0403 16:31:02.393975 18533 net.cpp:399] label_data_1_split -> label_data_1_split_6
I0403 16:31:02.394002 18533 net.cpp:399] label_data_1_split -> label_data_1_split_7
I0403 16:31:02.394027 18533 net.cpp:399] label_data_1_split -> label_data_1_split_8
I0403 16:31:02.394052 18533 net.cpp:399] label_data_1_split -> label_data_1_split_9
I0403 16:31:02.394191 18533 net.cpp:141] Setting up label_data_1_split
I0403 16:31:02.394222 18533 net.cpp:148] Top shape: 24 (24)
I0403 16:31:02.394243 18533 net.cpp:148] Top shape: 24 (24)
I0403 16:31:02.394264 18533 net.cpp:148] Top shape: 24 (24)
I0403 16:31:02.394284 18533 net.cpp:148] Top shape: 24 (24)
I0403 16:31:02.394304 18533 net.cpp:148] Top shape: 24 (24)
I0403 16:31:02.394322 18533 net.cpp:148] Top shape: 24 (24)
I0403 16:31:02.394341 18533 net.cpp:148] Top shape: 24 (24)
I0403 16:31:02.394361 18533 net.cpp:148] Top shape: 24 (24)
I0403 16:31:02.394381 18533 net.cpp:148] Top shape: 24 (24)
I0403 16:31:02.394399 18533 net.cpp:148] Top shape: 24 (24)
I0403 16:31:02.394455 18533 net.cpp:156] Memory required for data: 14451744
I0403 16:31:02.394475 18533 layer_factory.hpp:77] Creating layer conv1/7x7_s2
I0403 16:31:02.394513 18533 net.cpp:91] Creating Layer conv1/7x7_s2
I0403 16:31:02.394536 18533 net.cpp:425] conv1/7x7_s2 <- data
I0403 16:31:02.394562 18533 net.cpp:399] conv1/7x7_s2 -> conv1/7x7_s2
I0403 16:31:02.559412 18533 net.cpp:141] Setting up conv1/7x7_s2
I0403 16:31:02.559495 18533 net.cpp:148] Top shape: 24 64 112 112 (19267584)
I0403 16:31:02.559517 18533 net.cpp:156] Memory required for data: 91522080
I0403 16:31:02.559554 18533 layer_factory.hpp:77] Creating layer conv1/relu_7x7
I0403 16:31:02.559587 18533 net.cpp:91] Creating Layer conv1/relu_7x7
I0403 16:31:02.559615 18533 net.cpp:425] conv1/relu_7x7 <- conv1/7x7_s2
I0403 16:31:02.559641 18533 net.cpp:386] conv1/relu_7x7 -> conv1/7x7_s2 (in-place)
I0403 16:31:02.559949 18533 net.cpp:141] Setting up conv1/relu_7x7
I0403 16:31:02.559983 18533 net.cpp:148] Top shape: 24 64 112 112 (19267584)
I0403 16:31:02.560003 18533 net.cpp:156] Memory required for data: 168592416
I0403 16:31:02.560021 18533 layer_factory.hpp:77] Creating layer pool1/3x3_s2
I0403 16:31:02.560050 18533 net.cpp:91] Creating Layer pool1/3x3_s2
I0403 16:31:02.560071 18533 net.cpp:425] pool1/3x3_s2 <- conv1/7x7_s2
I0403 16:31:02.560094 18533 net.cpp:399] pool1/3x3_s2 -> pool1/3x3_s2
I0403 16:31:02.560181 18533 net.cpp:141] Setting up pool1/3x3_s2
I0403 16:31:02.560211 18533 net.cpp:148] Top shape: 24 64 56 56 (4816896)
I0403 16:31:02.560230 18533 net.cpp:156] Memory required for data: 187860000
I0403 16:31:02.560247 18533 layer_factory.hpp:77] Creating layer pool1/norm1
I0403 16:31:02.560276 18533 net.cpp:91] Creating Layer pool1/norm1
I0403 16:31:02.560299 18533 net.cpp:425] pool1/norm1 <- pool1/3x3_s2
I0403 16:31:02.560320 18533 net.cpp:399] pool1/norm1 -> pool1/norm1
I0403 16:31:02.560667 18533 net.cpp:141] Setting up pool1/norm1
I0403 16:31:02.560700 18533 net.cpp:148] Top shape: 24 64 56 56 (4816896)
I0403 16:31:02.560770 18533 net.cpp:156] Memory required for data: 207127584
I0403 16:31:02.560797 18533 layer_factory.hpp:77] Creating layer conv2/3x3_reduce
I0403 16:31:02.560827 18533 net.cpp:91] Creating Layer conv2/3x3_reduce
I0403 16:31:02.560849 18533 net.cpp:425] conv2/3x3_reduce <- pool1/norm1
I0403 16:31:02.560873 18533 net.cpp:399] conv2/3x3_reduce -> conv2/3x3_reduce
I0403 16:31:02.562423 18533 net.cpp:141] Setting up conv2/3x3_reduce
I0403 16:31:02.562460 18533 net.cpp:148] Top shape: 24 64 56 56 (4816896)
I0403 16:31:02.562480 18533 net.cpp:156] Memory required for data: 226395168
I0403 16:31:02.562506 18533 layer_factory.hpp:77] Creating layer conv2/relu_3x3_reduce
I0403 16:31:02.562530 18533 net.cpp:91] Creating Layer conv2/relu_3x3_reduce
I0403 16:31:02.562551 18533 net.cpp:425] conv2/relu_3x3_reduce <- conv2/3x3_reduce
I0403 16:31:02.562572 18533 net.cpp:386] conv2/relu_3x3_reduce -> conv2/3x3_reduce (in-place)
I0403 16:31:02.562945 18533 net.cpp:141] Setting up conv2/relu_3x3_reduce
I0403 16:31:02.562978 18533 net.cpp:148] Top shape: 24 64 56 56 (4816896)
I0403 16:31:02.562997 18533 net.cpp:156] Memory required for data: 245662752
I0403 16:31:02.563015 18533 layer_factory.hpp:77] Creating layer conv2/3x3
I0403 16:31:02.563042 18533 net.cpp:91] Creating Layer conv2/3x3
I0403 16:31:02.563065 18533 net.cpp:425] conv2/3x3 <- conv2/3x3_reduce
I0403 16:31:02.563086 18533 net.cpp:399] conv2/3x3 -> conv2/3x3
I0403 16:31:02.565779 18533 net.cpp:141] Setting up conv2/3x3
I0403 16:31:02.565817 18533 net.cpp:148] Top shape: 24 192 56 56 (14450688)
I0403 16:31:02.565839 18533 net.cpp:156] Memory required for data: 303465504
I0403 16:31:02.565863 18533 layer_factory.hpp:77] Creating layer conv2/relu_3x3
I0403 16:31:02.565886 18533 net.cpp:91] Creating Layer conv2/relu_3x3
I0403 16:31:02.565906 18533 net.cpp:425] conv2/relu_3x3 <- conv2/3x3
I0403 16:31:02.565927 18533 net.cpp:386] conv2/relu_3x3 -> conv2/3x3 (in-place)
I0403 16:31:02.566123 18533 net.cpp:141] Setting up conv2/relu_3x3
I0403 16:31:02.566154 18533 net.cpp:148] Top shape: 24 192 56 56 (14450688)
I0403 16:31:02.566210 18533 net.cpp:156] Memory required for data: 361268256
I0403 16:31:02.566228 18533 layer_factory.hpp:77] Creating layer conv2/norm2
I0403 16:31:02.566251 18533 net.cpp:91] Creating Layer conv2/norm2
I0403 16:31:02.566270 18533 net.cpp:425] conv2/norm2 <- conv2/3x3
I0403 16:31:02.566293 18533 net.cpp:399] conv2/norm2 -> conv2/norm2
I0403 16:31:02.566637 18533 net.cpp:141] Setting up conv2/norm2
I0403 16:31:02.566670 18533 net.cpp:148] Top shape: 24 192 56 56 (14450688)
I0403 16:31:02.566689 18533 net.cpp:156] Memory required for data: 419071008
I0403 16:31:02.566709 18533 layer_factory.hpp:77] Creating layer pool2/3x3_s2
I0403 16:31:02.566730 18533 net.cpp:91] Creating Layer pool2/3x3_s2
I0403 16:31:02.566748 18533 net.cpp:425] pool2/3x3_s2 <- conv2/norm2
I0403 16:31:02.566771 18533 net.cpp:399] pool2/3x3_s2 -> pool2/3x3_s2
I0403 16:31:02.566830 18533 net.cpp:141] Setting up pool2/3x3_s2
I0403 16:31:02.566859 18533 net.cpp:148] Top shape: 24 192 28 28 (3612672)
I0403 16:31:02.566877 18533 net.cpp:156] Memory required for data: 433521696
I0403 16:31:02.566895 18533 layer_factory.hpp:77] Creating layer pool2/3x3_s2_pool2/3x3_s2_0_split
I0403 16:31:02.566942 18533 net.cpp:91] Creating Layer pool2/3x3_s2_pool2/3x3_s2_0_split
I0403 16:31:02.566967 18533 net.cpp:425] pool2/3x3_s2_pool2/3x3_s2_0_split <- pool2/3x3_s2
I0403 16:31:02.566989 18533 net.cpp:399] pool2/3x3_s2_pool2/3x3_s2_0_split -> pool2/3x3_s2_pool2/3x3_s2_0_split_0
I0403 16:31:02.567014 18533 net.cpp:399] pool2/3x3_s2_pool2/3x3_s2_0_split -> pool2/3x3_s2_pool2/3x3_s2_0_split_1
I0403 16:31:02.567039 18533 net.cpp:399] pool2/3x3_s2_pool2/3x3_s2_0_split -> pool2/3x3_s2_pool2/3x3_s2_0_split_2
I0403 16:31:02.567065 18533 net.cpp:399] pool2/3x3_s2_pool2/3x3_s2_0_split -> pool2/3x3_s2_pool2/3x3_s2_0_split_3
I0403 16:31:02.567144 18533 net.cpp:141] Setting up pool2/3x3_s2_pool2/3x3_s2_0_split
I0403 16:31:02.567173 18533 net.cpp:148] Top shape: 24 192 28 28 (3612672)
I0403 16:31:02.567193 18533 net.cpp:148] Top shape: 24 192 28 28 (3612672)
I0403 16:31:02.567210 18533 net.cpp:148] Top shape: 24 192 28 28 (3612672)
I0403 16:31:02.567230 18533 net.cpp:148] Top shape: 24 192 28 28 (3612672)
I0403 16:31:02.567246 18533 net.cpp:156] Memory required for data: 491324448
I0403 16:31:02.567265 18533 layer_factory.hpp:77] Creating layer inception_3a/1x1
I0403 16:31:02.567289 18533 net.cpp:91] Creating Layer inception_3a/1x1
I0403 16:31:02.567309 18533 net.cpp:425] inception_3a/1x1 <- pool2/3x3_s2_pool2/3x3_s2_0_split_0
I0403 16:31:02.567332 18533 net.cpp:399] inception_3a/1x1 -> inception_3a/1x1
I0403 16:31:02.569160 18533 net.cpp:141] Setting up inception_3a/1x1
I0403 16:31:02.569197 18533 net.cpp:148] Top shape: 24 64 28 28 (1204224)
I0403 16:31:02.569217 18533 net.cpp:156] Memory required for data: 496141344
I0403 16:31:02.569241 18533 layer_factory.hpp:77] Creating layer inception_3a/relu_1x1
I0403 16:31:02.569265 18533 net.cpp:91] Creating Layer inception_3a/relu_1x1
I0403 16:31:02.569286 18533 net.cpp:425] inception_3a/relu_1x1 <- inception_3a/1x1
I0403 16:31:02.569308 18533 net.cpp:386] inception_3a/relu_1x1 -> inception_3a/1x1 (in-place)
I0403 16:31:02.569522 18533 net.cpp:141] Setting up inception_3a/relu_1x1
I0403 16:31:02.569555 18533 net.cpp:148] Top shape: 24 64 28 28 (1204224)
I0403 16:31:02.569574 18533 net.cpp:156] Memory required for data: 500958240
I0403 16:31:02.569592 18533 layer_factory.hpp:77] Creating layer inception_3a/3x3_reduce
I0403 16:31:02.569627 18533 net.cpp:91] Creating Layer inception_3a/3x3_reduce
I0403 16:31:02.569649 18533 net.cpp:425] inception_3a/3x3_reduce <- pool2/3x3_s2_pool2/3x3_s2_0_split_1
I0403 16:31:02.569672 18533 net.cpp:399] inception_3a/3x3_reduce -> inception_3a/3x3_reduce
I0403 16:31:02.571766 18533 net.cpp:141] Setting up inception_3a/3x3_reduce
I0403 16:31:02.571804 18533 net.cpp:148] Top shape: 24 96 28 28 (1806336)
I0403 16:31:02.571823 18533 net.cpp:156] Memory required for data: 508183584
I0403 16:31:02.571848 18533 layer_factory.hpp:77] Creating layer inception_3a/relu_3x3_reduce
I0403 16:31:02.571894 18533 net.cpp:91] Creating Layer inception_3a/relu_3x3_reduce
I0403 16:31:02.571918 18533 net.cpp:425] inception_3a/relu_3x3_reduce <- inception_3a/3x3_reduce
I0403 16:31:02.571941 18533 net.cpp:386] inception_3a/relu_3x3_reduce -> inception_3a/3x3_reduce (in-place)
I0403 16:31:02.572165 18533 net.cpp:141] Setting up inception_3a/relu_3x3_reduce
I0403 16:31:02.572197 18533 net.cpp:148] Top shape: 24 96 28 28 (1806336)
I0403 16:31:02.572216 18533 net.cpp:156] Memory required for data: 515408928
I0403 16:31:02.572233 18533 layer_factory.hpp:77] Creating layer inception_3a/3x3
I0403 16:31:02.572262 18533 net.cpp:91] Creating Layer inception_3a/3x3
I0403 16:31:02.572283 18533 net.cpp:425] inception_3a/3x3 <- inception_3a/3x3_reduce
I0403 16:31:02.572311 18533 net.cpp:399] inception_3a/3x3 -> inception_3a/3x3
I0403 16:31:02.574309 18533 net.cpp:141] Setting up inception_3a/3x3
I0403 16:31:02.574347 18533 net.cpp:148] Top shape: 24 128 28 28 (2408448)
I0403 16:31:02.574368 18533 net.cpp:156] Memory required for data: 525042720
I0403 16:31:02.574391 18533 layer_factory.hpp:77] Creating layer inception_3a/relu_3x3
I0403 16:31:02.574414 18533 net.cpp:91] Creating Layer inception_3a/relu_3x3
I0403 16:31:02.574434 18533 net.cpp:425] inception_3a/relu_3x3 <- inception_3a/3x3
I0403 16:31:02.574455 18533 net.cpp:386] inception_3a/relu_3x3 -> inception_3a/3x3 (in-place)
I0403 16:31:02.574791 18533 net.cpp:141] Setting up inception_3a/relu_3x3
I0403 16:31:02.574831 18533 net.cpp:148] Top shape: 24 128 28 28 (2408448)
I0403 16:31:02.574851 18533 net.cpp:156] Memory required for data: 534676512
I0403 16:31:02.574869 18533 layer_factory.hpp:77] Creating layer inception_3a/5x5_reduce
I0403 16:31:02.574898 18533 net.cpp:91] Creating Layer inception_3a/5x5_reduce
I0403 16:31:02.574918 18533 net.cpp:425] inception_3a/5x5_reduce <- pool2/3x3_s2_pool2/3x3_s2_0_split_2
I0403 16:31:02.574941 18533 net.cpp:399] inception_3a/5x5_reduce -> inception_3a/5x5_reduce
I0403 16:31:02.576122 18533 net.cpp:141] Setting up inception_3a/5x5_reduce
I0403 16:31:02.576160 18533 net.cpp:148] Top shape: 24 16 28 28 (301056)
I0403 16:31:02.576180 18533 net.cpp:156] Memory required for data: 535880736
I0403 16:31:02.576203 18533 layer_factory.hpp:77] Creating layer inception_3a/relu_5x5_reduce
I0403 16:31:02.576226 18533 net.cpp:91] Creating Layer inception_3a/relu_5x5_reduce
I0403 16:31:02.576246 18533 net.cpp:425] inception_3a/relu_5x5_reduce <- inception_3a/5x5_reduce
I0403 16:31:02.576268 18533 net.cpp:386] inception_3a/relu_5x5_reduce -> inception_3a/5x5_reduce (in-place)
I0403 16:31:02.576630 18533 net.cpp:141] Setting up inception_3a/relu_5x5_reduce
I0403 16:31:02.576663 18533 net.cpp:148] Top shape: 24 16 28 28 (301056)
I0403 16:31:02.576681 18533 net.cpp:156] Memory required for data: 537084960
I0403 16:31:02.576700 18533 layer_factory.hpp:77] Creating layer inception_3a/5x5
I0403 16:31:02.576727 18533 net.cpp:91] Creating Layer inception_3a/5x5
I0403 16:31:02.576750 18533 net.cpp:425] inception_3a/5x5 <- inception_3a/5x5_reduce
I0403 16:31:02.576777 18533 net.cpp:399] inception_3a/5x5 -> inception_3a/5x5
I0403 16:31:02.578006 18533 net.cpp:141] Setting up inception_3a/5x5
I0403 16:31:02.578040 18533 net.cpp:148] Top shape: 24 32 28 28 (602112)
I0403 16:31:02.578064 18533 net.cpp:156] Memory required for data: 539493408
I0403 16:31:02.578088 18533 layer_factory.hpp:77] Creating layer inception_3a/relu_5x5
I0403 16:31:02.578110 18533 net.cpp:91] Creating Layer inception_3a/relu_5x5
I0403 16:31:02.578130 18533 net.cpp:425] inception_3a/relu_5x5 <- inception_3a/5x5
I0403 16:31:02.578151 18533 net.cpp:386] inception_3a/relu_5x5 -> inception_3a/5x5 (in-place)
I0403 16:31:02.578361 18533 net.cpp:141] Setting up inception_3a/relu_5x5
I0403 16:31:02.578394 18533 net.cpp:148] Top shape: 24 32 28 28 (602112)
I0403 16:31:02.578414 18533 net.cpp:156] Memory required for data: 541901856
I0403 16:31:02.578433 18533 layer_factory.hpp:77] Creating layer inception_3a/pool
I0403 16:31:02.578454 18533 net.cpp:91] Creating Layer inception_3a/pool
I0403 16:31:02.578474 18533 net.cpp:425] inception_3a/pool <- pool2/3x3_s2_pool2/3x3_s2_0_split_3
I0403 16:31:02.578519 18533 net.cpp:399] inception_3a/pool -> inception_3a/pool
I0403 16:31:02.578590 18533 net.cpp:141] Setting up inception_3a/pool
I0403 16:31:02.578629 18533 net.cpp:148] Top shape: 24 192 28 28 (3612672)
I0403 16:31:02.578650 18533 net.cpp:156] Memory required for data: 556352544
I0403 16:31:02.578670 18533 layer_factory.hpp:77] Creating layer inception_3a/pool_proj
I0403 16:31:02.578693 18533 net.cpp:91] Creating Layer inception_3a/pool_proj
I0403 16:31:02.578713 18533 net.cpp:425] inception_3a/pool_proj <- inception_3a/pool
I0403 16:31:02.578740 18533 net.cpp:399] inception_3a/pool_proj -> inception_3a/pool_proj
I0403 16:31:02.579900 18533 net.cpp:141] Setting up inception_3a/pool_proj
I0403 16:31:02.579936 18533 net.cpp:148] Top shape: 24 32 28 28 (602112)
I0403 16:31:02.579954 18533 net.cpp:156] Memory required for data: 558760992
I0403 16:31:02.579984 18533 layer_factory.hpp:77] Creating layer inception_3a/relu_pool_proj
I0403 16:31:02.580009 18533 net.cpp:91] Creating Layer inception_3a/relu_pool_proj
I0403 16:31:02.580029 18533 net.cpp:425] inception_3a/relu_pool_proj <- inception_3a/pool_proj
I0403 16:31:02.580052 18533 net.cpp:386] inception_3a/relu_pool_proj -> inception_3a/pool_proj (in-place)
I0403 16:31:02.580382 18533 net.cpp:141] Setting up inception_3a/relu_pool_proj
I0403 16:31:02.580417 18533 net.cpp:148] Top shape: 24 32 28 28 (602112)
I0403 16:31:02.580437 18533 net.cpp:156] Memory required for data: 561169440
I0403 16:31:02.580456 18533 layer_factory.hpp:77] Creating layer inception_3a/output
I0403 16:31:02.580478 18533 net.cpp:91] Creating Layer inception_3a/output
I0403 16:31:02.580498 18533 net.cpp:425] inception_3a/output <- inception_3a/1x1
I0403 16:31:02.580520 18533 net.cpp:425] inception_3a/output <- inception_3a/3x3
I0403 16:31:02.580539 18533 net.cpp:425] inception_3a/output <- inception_3a/5x5
I0403 16:31:02.580559 18533 net.cpp:425] inception_3a/output <- inception_3a/pool_proj
I0403 16:31:02.580579 18533 net.cpp:399] inception_3a/output -> inception_3a/output
I0403 16:31:02.580642 18533 net.cpp:141] Setting up inception_3a/output
I0403 16:31:02.580672 18533 net.cpp:148] Top shape: 24 256 28 28 (4816896)
I0403 16:31:02.580690 18533 net.cpp:156] Memory required for data: 580437024
I0403 16:31:02.580708 18533 layer_factory.hpp:77] Creating layer inception_3a/output_inception_3a/output_0_split
I0403 16:31:02.580734 18533 net.cpp:91] Creating Layer inception_3a/output_inception_3a/output_0_split
I0403 16:31:02.580754 18533 net.cpp:425] inception_3a/output_inception_3a/output_0_split <- inception_3a/output
I0403 16:31:02.580777 18533 net.cpp:399] inception_3a/output_inception_3a/output_0_split -> inception_3a/output_inception_3a/output_0_split_0
I0403 16:31:02.580801 18533 net.cpp:399] inception_3a/output_inception_3a/output_0_split -> inception_3a/output_inception_3a/output_0_split_1
I0403 16:31:02.580832 18533 net.cpp:399] inception_3a/output_inception_3a/output_0_split -> inception_3a/output_inception_3a/output_0_split_2
I0403 16:31:02.580860 18533 net.cpp:399] inception_3a/output_inception_3a/output_0_split -> inception_3a/output_inception_3a/output_0_split_3
I0403 16:31:02.580950 18533 net.cpp:141] Setting up inception_3a/output_inception_3a/output_0_split
I0403 16:31:02.580981 18533 net.cpp:148] Top shape: 24 256 28 28 (4816896)
I0403 16:31:02.581001 18533 net.cpp:148] Top shape: 24 256 28 28 (4816896)
I0403 16:31:02.581019 18533 net.cpp:148] Top shape: 24 256 28 28 (4816896)
I0403 16:31:02.581039 18533 net.cpp:148] Top shape: 24 256 28 28 (4816896)
I0403 16:31:02.581056 18533 net.cpp:156] Memory required for data: 657507360
I0403 16:31:02.581073 18533 layer_factory.hpp:77] Creating layer inception_3b/1x1
I0403 16:31:02.581100 18533 net.cpp:91] Creating Layer inception_3b/1x1
I0403 16:31:02.581123 18533 net.cpp:425] inception_3b/1x1 <- inception_3a/output_inception_3a/output_0_split_0
I0403 16:31:02.581146 18533 net.cpp:399] inception_3b/1x1 -> inception_3b/1x1
I0403 16:31:02.582516 18533 net.cpp:141] Setting up inception_3b/1x1
I0403 16:31:02.582566 18533 net.cpp:148] Top shape: 24 128 28 28 (2408448)
I0403 16:31:02.582587 18533 net.cpp:156] Memory required for data: 667141152
I0403 16:31:02.582614 18533 layer_factory.hpp:77] Creating layer inception_3b/relu_1x1
I0403 16:31:02.582643 18533 net.cpp:91] Creating Layer inception_3b/relu_1x1
I0403 16:31:02.582664 18533 net.cpp:425] inception_3b/relu_1x1 <- inception_3b/1x1
I0403 16:31:02.582686 18533 net.cpp:386] inception_3b/relu_1x1 -> inception_3b/1x1 (in-place)
I0403 16:31:02.582901 18533 net.cpp:141] Setting up inception_3b/relu_1x1
I0403 16:31:02.582936 18533 net.cpp:148] Top shape: 24 128 28 28 (2408448)
I0403 16:31:02.582954 18533 net.cpp:156] Memory required for data: 676774944
I0403 16:31:02.582972 18533 layer_factory.hpp:77] Creating layer inception_3b/3x3_reduce
I0403 16:31:02.582998 18533 net.cpp:91] Creating Layer inception_3b/3x3_reduce
I0403 16:31:02.583020 18533 net.cpp:425] inception_3b/3x3_reduce <- inception_3a/output_inception_3a/output_0_split_1
I0403 16:31:02.583045 18533 net.cpp:399] inception_3b/3x3_reduce -> inception_3b/3x3_reduce
I0403 16:31:02.584408 18533 net.cpp:141] Setting up inception_3b/3x3_reduce
I0403 16:31:02.584444 18533 net.cpp:148] Top shape: 24 128 28 28 (2408448)
I0403 16:31:02.584463 18533 net.cpp:156] Memory required for data: 686408736
I0403 16:31:02.584486 18533 layer_factory.hpp:77] Creating layer inception_3b/relu_3x3_reduce
I0403 16:31:02.584511 18533 net.cpp:91] Creating Layer inception_3b/relu_3x3_reduce
I0403 16:31:02.584532 18533 net.cpp:425] inception_3b/relu_3x3_reduce <- inception_3b/3x3_reduce
I0403 16:31:02.584554 18533 net.cpp:386] inception_3b/relu_3x3_reduce -> inception_3b/3x3_reduce (in-place)
I0403 16:31:02.584769 18533 net.cpp:141] Setting up inception_3b/relu_3x3_reduce
I0403 16:31:02.584803 18533 net.cpp:148] Top shape: 24 128 28 28 (2408448)
I0403 16:31:02.584825 18533 net.cpp:156] Memory required for data: 696042528
I0403 16:31:02.584842 18533 layer_factory.hpp:77] Creating layer inception_3b/3x3
I0403 16:31:02.584872 18533 net.cpp:91] Creating Layer inception_3b/3x3
I0403 16:31:02.584894 18533 net.cpp:425] inception_3b/3x3 <- inception_3b/3x3_reduce
I0403 16:31:02.584920 18533 net.cpp:399] inception_3b/3x3 -> inception_3b/3x3
I0403 16:31:02.588424 18533 net.cpp:141] Setting up inception_3b/3x3
I0403 16:31:02.588466 18533 net.cpp:148] Top shape: 24 192 28 28 (3612672)
I0403 16:31:02.588487 18533 net.cpp:156] Memory required for data: 710493216
I0403 16:31:02.588510 18533 layer_factory.hpp:77] Creating layer inception_3b/relu_3x3
I0403 16:31:02.588534 18533 net.cpp:91] Creating Layer inception_3b/relu_3x3
I0403 16:31:02.588553 18533 net.cpp:425] inception_3b/relu_3x3 <- inception_3b/3x3
I0403 16:31:02.588574 18533 net.cpp:386] inception_3b/relu_3x3 -> inception_3b/3x3 (in-place)
I0403 16:31:02.588913 18533 net.cpp:141] Setting up inception_3b/relu_3x3
I0403 16:31:02.588949 18533 net.cpp:148] Top shape: 24 192 28 28 (3612672)
I0403 16:31:02.588969 18533 net.cpp:156] Memory required for data: 724943904
I0403 16:31:02.588987 18533 layer_factory.hpp:77] Creating layer inception_3b/5x5_reduce
I0403 16:31:02.589015 18533 net.cpp:91] Creating Layer inception_3b/5x5_reduce
I0403 16:31:02.589035 18533 net.cpp:425] inception_3b/5x5_reduce <- inception_3a/output_inception_3a/output_0_split_2
I0403 16:31:02.589059 18533 net.cpp:399] inception_3b/5x5_reduce -> inception_3b/5x5_reduce
I0403 16:31:02.590253 18533 net.cpp:141] Setting up inception_3b/5x5_reduce
I0403 16:31:02.590291 18533 net.cpp:148] Top shape: 24 32 28 28 (602112)
I0403 16:31:02.590312 18533 net.cpp:156] Memory required for data: 727352352
I0403 16:31:02.590334 18533 layer_factory.hpp:77] Creating layer inception_3b/relu_5x5_reduce
I0403 16:31:02.590356 18533 net.cpp:91] Creating Layer inception_3b/relu_5x5_reduce
I0403 16:31:02.590376 18533 net.cpp:425] inception_3b/relu_5x5_reduce <- inception_3b/5x5_reduce
I0403 16:31:02.590399 18533 net.cpp:386] inception_3b/relu_5x5_reduce -> inception_3b/5x5_reduce (in-place)
I0403 16:31:02.590616 18533 net.cpp:141] Setting up inception_3b/relu_5x5_reduce
I0403 16:31:02.590665 18533 net.cpp:148] Top shape: 24 32 28 28 (602112)
I0403 16:31:02.590685 18533 net.cpp:156] Memory required for data: 729760800
I0403 16:31:02.590704 18533 layer_factory.hpp:77] Creating layer inception_3b/5x5
I0403 16:31:02.590730 18533 net.cpp:91] Creating Layer inception_3b/5x5
I0403 16:31:02.590751 18533 net.cpp:425] inception_3b/5x5 <- inception_3b/5x5_reduce
I0403 16:31:02.590780 18533 net.cpp:399] inception_3b/5x5 -> inception_3b/5x5
I0403 16:31:02.593149 18533 net.cpp:141] Setting up inception_3b/5x5
I0403 16:31:02.593185 18533 net.cpp:148] Top shape: 24 96 28 28 (1806336)
I0403 16:31:02.593205 18533 net.cpp:156] Memory required for data: 736986144
I0403 16:31:02.593228 18533 layer_factory.hpp:77] Creating layer inception_3b/relu_5x5
I0403 16:31:02.593252 18533 net.cpp:91] Creating Layer inception_3b/relu_5x5
I0403 16:31:02.593274 18533 net.cpp:425] inception_3b/relu_5x5 <- inception_3b/5x5
I0403 16:31:02.593297 18533 net.cpp:386] inception_3b/relu_5x5 -> inception_3b/5x5 (in-place)
I0403 16:31:02.593533 18533 net.cpp:141] Setting up inception_3b/relu_5x5
I0403 16:31:02.593565 18533 net.cpp:148] Top shape: 24 96 28 28 (1806336)
I0403 16:31:02.593583 18533 net.cpp:156] Memory required for data: 744211488
I0403 16:31:02.593600 18533 layer_factory.hpp:77] Creating layer inception_3b/pool
I0403 16:31:02.593629 18533 net.cpp:91] Creating Layer inception_3b/pool
I0403 16:31:02.593650 18533 net.cpp:425] inception_3b/pool <- inception_3a/output_inception_3a/output_0_split_3
I0403 16:31:02.593672 18533 net.cpp:399] inception_3b/pool -> inception_3b/pool
I0403 16:31:02.593742 18533 net.cpp:141] Setting up inception_3b/pool
I0403 16:31:02.593773 18533 net.cpp:148] Top shape: 24 256 28 28 (4816896)
I0403 16:31:02.593791 18533 net.cpp:156] Memory required for data: 763479072
I0403 16:31:02.593811 18533 layer_factory.hpp:77] Creating layer inception_3b/pool_proj
I0403 16:31:02.593838 18533 net.cpp:91] Creating Layer inception_3b/pool_proj
I0403 16:31:02.593860 18533 net.cpp:425] inception_3b/pool_proj <- inception_3b/pool
I0403 16:31:02.593886 18533 net.cpp:399] inception_3b/pool_proj -> inception_3b/pool_proj
I0403 16:31:02.595165 18533 net.cpp:141] Setting up inception_3b/pool_proj
I0403 16:31:02.595199 18533 net.cpp:148] Top shape: 24 64 28 28 (1204224)
I0403 16:31:02.595219 18533 net.cpp:156] Memory required for data: 768295968
I0403 16:31:02.595242 18533 layer_factory.hpp:77] Creating layer inception_3b/relu_pool_proj
I0403 16:31:02.595264 18533 net.cpp:91] Creating Layer inception_3b/relu_pool_proj
I0403 16:31:02.595284 18533 net.cpp:425] inception_3b/relu_pool_proj <- inception_3b/pool_proj
I0403 16:31:02.595309 18533 net.cpp:386] inception_3b/relu_pool_proj -> inception_3b/pool_proj (in-place)
I0403 16:31:02.595790 18533 net.cpp:141] Setting up inception_3b/relu_pool_proj
I0403 16:31:02.595824 18533 net.cpp:148] Top shape: 24 64 28 28 (1204224)
I0403 16:31:02.595844 18533 net.cpp:156] Memory required for data: 773112864
I0403 16:31:02.595860 18533 layer_factory.hpp:77] Creating layer inception_3b/output
I0403 16:31:02.595881 18533 net.cpp:91] Creating Layer inception_3b/output
I0403 16:31:02.595901 18533 net.cpp:425] inception_3b/output <- inception_3b/1x1
I0403 16:31:02.595921 18533 net.cpp:425] inception_3b/output <- inception_3b/3x3
I0403 16:31:02.595942 18533 net.cpp:425] inception_3b/output <- inception_3b/5x5
I0403 16:31:02.595962 18533 net.cpp:425] inception_3b/output <- inception_3b/pool_proj
I0403 16:31:02.595984 18533 net.cpp:399] inception_3b/output -> inception_3b/output
I0403 16:31:02.596040 18533 net.cpp:141] Setting up inception_3b/output
I0403 16:31:02.596068 18533 net.cpp:148] Top shape: 24 480 28 28 (9031680)
I0403 16:31:02.596091 18533 net.cpp:156] Memory required for data: 809239584
I0403 16:31:02.596109 18533 layer_factory.hpp:77] Creating layer pool3/3x3_s2
I0403 16:31:02.596130 18533 net.cpp:91] Creating Layer pool3/3x3_s2
I0403 16:31:02.596150 18533 net.cpp:425] pool3/3x3_s2 <- inception_3b/output
I0403 16:31:02.596173 18533 net.cpp:399] pool3/3x3_s2 -> pool3/3x3_s2
I0403 16:31:02.596262 18533 net.cpp:141] Setting up pool3/3x3_s2
I0403 16:31:02.596292 18533 net.cpp:148] Top shape: 24 480 14 14 (2257920)
I0403 16:31:02.596309 18533 net.cpp:156] Memory required for data: 818271264
I0403 16:31:02.596326 18533 layer_factory.hpp:77] Creating layer pool3/3x3_s2_pool3/3x3_s2_0_split
I0403 16:31:02.596346 18533 net.cpp:91] Creating Layer pool3/3x3_s2_pool3/3x3_s2_0_split
I0403 16:31:02.596365 18533 net.cpp:425] pool3/3x3_s2_pool3/3x3_s2_0_split <- pool3/3x3_s2
I0403 16:31:02.596390 18533 net.cpp:399] pool3/3x3_s2_pool3/3x3_s2_0_split -> pool3/3x3_s2_pool3/3x3_s2_0_split_0
I0403 16:31:02.596415 18533 net.cpp:399] pool3/3x3_s2_pool3/3x3_s2_0_split -> pool3/3x3_s2_pool3/3x3_s2_0_split_1
I0403 16:31:02.596441 18533 net.cpp:399] pool3/3x3_s2_pool3/3x3_s2_0_split -> pool3/3x3_s2_pool3/3x3_s2_0_split_2
I0403 16:31:02.596465 18533 net.cpp:399] pool3/3x3_s2_pool3/3x3_s2_0_split -> pool3/3x3_s2_pool3/3x3_s2_0_split_3
I0403 16:31:02.596560 18533 net.cpp:141] Setting up pool3/3x3_s2_pool3/3x3_s2_0_split
I0403 16:31:02.596590 18533 net.cpp:148] Top shape: 24 480 14 14 (2257920)
I0403 16:31:02.596618 18533 net.cpp:148] Top shape: 24 480 14 14 (2257920)
I0403 16:31:02.596639 18533 net.cpp:148] Top shape: 24 480 14 14 (2257920)
I0403 16:31:02.596658 18533 net.cpp:148] Top shape: 24 480 14 14 (2257920)
I0403 16:31:02.596675 18533 net.cpp:156] Memory required for data: 854397984
I0403 16:31:02.596691 18533 layer_factory.hpp:77] Creating layer inception_4a/1x1
I0403 16:31:02.596719 18533 net.cpp:91] Creating Layer inception_4a/1x1
I0403 16:31:02.596740 18533 net.cpp:425] inception_4a/1x1 <- pool3/3x3_s2_pool3/3x3_s2_0_split_0
I0403 16:31:02.596767 18533 net.cpp:399] inception_4a/1x1 -> inception_4a/1x1
I0403 16:31:02.598675 18533 net.cpp:141] Setting up inception_4a/1x1
I0403 16:31:02.598709 18533 net.cpp:148] Top shape: 24 192 14 14 (903168)
I0403 16:31:02.598728 18533 net.cpp:156] Memory required for data: 858010656
I0403 16:31:02.598750 18533 layer_factory.hpp:77] Creating layer inception_4a/relu_1x1
I0403 16:31:02.598776 18533 net.cpp:91] Creating Layer inception_4a/relu_1x1
I0403 16:31:02.598796 18533 net.cpp:425] inception_4a/relu_1x1 <- inception_4a/1x1
I0403 16:31:02.598819 18533 net.cpp:386] inception_4a/relu_1x1 -> inception_4a/1x1 (in-place)
I0403 16:31:02.599033 18533 net.cpp:141] Setting up inception_4a/relu_1x1
I0403 16:31:02.599064 18533 net.cpp:148] Top shape: 24 192 14 14 (903168)
I0403 16:31:02.599083 18533 net.cpp:156] Memory required for data: 861623328
I0403 16:31:02.599100 18533 layer_factory.hpp:77] Creating layer inception_4a/3x3_reduce
I0403 16:31:02.599128 18533 net.cpp:91] Creating Layer inception_4a/3x3_reduce
I0403 16:31:02.599150 18533 net.cpp:425] inception_4a/3x3_reduce <- pool3/3x3_s2_pool3/3x3_s2_0_split_1
I0403 16:31:02.599177 18533 net.cpp:399] inception_4a/3x3_reduce -> inception_4a/3x3_reduce
I0403 16:31:02.600725 18533 net.cpp:141] Setting up inception_4a/3x3_reduce
I0403 16:31:02.600760 18533 net.cpp:148] Top shape: 24 96 14 14 (451584)
I0403 16:31:02.600780 18533 net.cpp:156] Memory required for data: 863429664
I0403 16:31:02.600810 18533 layer_factory.hpp:77] Creating layer inception_4a/relu_3x3_reduce
I0403 16:31:02.600834 18533 net.cpp:91] Creating Layer inception_4a/relu_3x3_reduce
I0403 16:31:02.600854 18533 net.cpp:425] inception_4a/relu_3x3_reduce <- inception_4a/3x3_reduce
I0403 16:31:02.600883 18533 net.cpp:386] inception_4a/relu_3x3_reduce -> inception_4a/3x3_reduce (in-place)
I0403 16:31:02.601099 18533 net.cpp:141] Setting up inception_4a/relu_3x3_reduce
I0403 16:31:02.601130 18533 net.cpp:148] Top shape: 24 96 14 14 (451584)
I0403 16:31:02.601147 18533 net.cpp:156] Memory required for data: 865236000
I0403 16:31:02.601166 18533 layer_factory.hpp:77] Creating layer inception_4a/3x3
I0403 16:31:02.601193 18533 net.cpp:91] Creating Layer inception_4a/3x3
I0403 16:31:02.601214 18533 net.cpp:425] inception_4a/3x3 <- inception_4a/3x3_reduce
I0403 16:31:02.601239 18533 net.cpp:399] inception_4a/3x3 -> inception_4a/3x3
I0403 16:31:02.604462 18533 net.cpp:141] Setting up inception_4a/3x3
I0403 16:31:02.604499 18533 net.cpp:148] Top shape: 24 208 14 14 (978432)
I0403 16:31:02.604518 18533 net.cpp:156] Memory required for data: 869149728
I0403 16:31:02.604542 18533 layer_factory.hpp:77] Creating layer inception_4a/relu_3x3
I0403 16:31:02.604568 18533 net.cpp:91] Creating Layer inception_4a/relu_3x3
I0403 16:31:02.604589 18533 net.cpp:425] inception_4a/relu_3x3 <- inception_4a/3x3
I0403 16:31:02.604616 18533 net.cpp:386] inception_4a/relu_3x3 -> inception_4a/3x3 (in-place)
I0403 16:31:02.604951 18533 net.cpp:141] Setting up inception_4a/relu_3x3
I0403 16:31:02.604984 18533 net.cpp:148] Top shape: 24 208 14 14 (978432)
I0403 16:31:02.605003 18533 net.cpp:156] Memory required for data: 873063456
I0403 16:31:02.605021 18533 layer_factory.hpp:77] Creating layer inception_4a/5x5_reduce
I0403 16:31:02.605052 18533 net.cpp:91] Creating Layer inception_4a/5x5_reduce
I0403 16:31:02.605074 18533 net.cpp:425] inception_4a/5x5_reduce <- pool3/3x3_s2_pool3/3x3_s2_0_split_2
I0403 16:31:02.605099 18533 net.cpp:399] inception_4a/5x5_reduce -> inception_4a/5x5_reduce
I0403 16:31:02.606353 18533 net.cpp:141] Setting up inception_4a/5x5_reduce
I0403 16:31:02.606389 18533 net.cpp:148] Top shape: 24 16 14 14 (75264)
I0403 16:31:02.606411 18533 net.cpp:156] Memory required for data: 873364512
I0403 16:31:02.606436 18533 layer_factory.hpp:77] Creating layer inception_4a/relu_5x5_reduce
I0403 16:31:02.606458 18533 net.cpp:91] Creating Layer inception_4a/relu_5x5_reduce
I0403 16:31:02.606477 18533 net.cpp:425] inception_4a/relu_5x5_reduce <- inception_4a/5x5_reduce
I0403 16:31:02.606498 18533 net.cpp:386] inception_4a/relu_5x5_reduce -> inception_4a/5x5_reduce (in-place)
I0403 16:31:02.606724 18533 net.cpp:141] Setting up inception_4a/relu_5x5_reduce
I0403 16:31:02.606757 18533 net.cpp:148] Top shape: 24 16 14 14 (75264)
I0403 16:31:02.606778 18533 net.cpp:156] Memory required for data: 873665568
I0403 16:31:02.606796 18533 layer_factory.hpp:77] Creating layer inception_4a/5x5
I0403 16:31:02.606822 18533 net.cpp:91] Creating Layer inception_4a/5x5
I0403 16:31:02.606843 18533 net.cpp:425] inception_4a/5x5 <- inception_4a/5x5_reduce
I0403 16:31:02.606866 18533 net.cpp:399] inception_4a/5x5 -> inception_4a/5x5
I0403 16:31:02.608194 18533 net.cpp:141] Setting up inception_4a/5x5
I0403 16:31:02.608229 18533 net.cpp:148] Top shape: 24 48 14 14 (225792)
I0403 16:31:02.608249 18533 net.cpp:156] Memory required for data: 874568736
I0403 16:31:02.608273 18533 layer_factory.hpp:77] Creating layer inception_4a/relu_5x5
I0403 16:31:02.608294 18533 net.cpp:91] Creating Layer inception_4a/relu_5x5
I0403 16:31:02.608314 18533 net.cpp:425] inception_4a/relu_5x5 <- inception_4a/5x5
I0403 16:31:02.608338 18533 net.cpp:386] inception_4a/relu_5x5 -> inception_4a/5x5 (in-place)
I0403 16:31:02.608561 18533 net.cpp:141] Setting up inception_4a/relu_5x5
I0403 16:31:02.608592 18533 net.cpp:148] Top shape: 24 48 14 14 (225792)
I0403 16:31:02.608616 18533 net.cpp:156] Memory required for data: 875471904
I0403 16:31:02.608635 18533 layer_factory.hpp:77] Creating layer inception_4a/pool
I0403 16:31:02.608660 18533 net.cpp:91] Creating Layer inception_4a/pool
I0403 16:31:02.608681 18533 net.cpp:425] inception_4a/pool <- pool3/3x3_s2_pool3/3x3_s2_0_split_3
I0403 16:31:02.608703 18533 net.cpp:399] inception_4a/pool -> inception_4a/pool
I0403 16:31:02.608779 18533 net.cpp:141] Setting up inception_4a/pool
I0403 16:31:02.608809 18533 net.cpp:148] Top shape: 24 480 14 14 (2257920)
I0403 16:31:02.608826 18533 net.cpp:156] Memory required for data: 884503584
I0403 16:31:02.608844 18533 layer_factory.hpp:77] Creating layer inception_4a/pool_proj
I0403 16:31:02.608872 18533 net.cpp:91] Creating Layer inception_4a/pool_proj
I0403 16:31:02.608894 18533 net.cpp:425] inception_4a/pool_proj <- inception_4a/pool
I0403 16:31:02.608919 18533 net.cpp:399] inception_4a/pool_proj -> inception_4a/pool_proj
I0403 16:31:02.610326 18533 net.cpp:141] Setting up inception_4a/pool_proj
I0403 16:31:02.610360 18533 net.cpp:148] Top shape: 24 64 14 14 (301056)
I0403 16:31:02.610400 18533 net.cpp:156] Memory required for data: 885707808
I0403 16:31:02.610425 18533 layer_factory.hpp:77] Creating layer inception_4a/relu_pool_proj
I0403 16:31:02.610447 18533 net.cpp:91] Creating Layer inception_4a/relu_pool_proj
I0403 16:31:02.610467 18533 net.cpp:425] inception_4a/relu_pool_proj <- inception_4a/pool_proj
I0403 16:31:02.610492 18533 net.cpp:386] inception_4a/relu_pool_proj -> inception_4a/pool_proj (in-place)
I0403 16:31:02.610839 18533 net.cpp:141] Setting up inception_4a/relu_pool_proj
I0403 16:31:02.610872 18533 net.cpp:148] Top shape: 24 64 14 14 (301056)
I0403 16:31:02.610890 18533 net.cpp:156] Memory required for data: 886912032
I0403 16:31:02.610908 18533 layer_factory.hpp:77] Creating layer inception_4a/output
I0403 16:31:02.610929 18533 net.cpp:91] Creating Layer inception_4a/output
I0403 16:31:02.610949 18533 net.cpp:425] inception_4a/output <- inception_4a/1x1
I0403 16:31:02.610970 18533 net.cpp:425] inception_4a/output <- inception_4a/3x3
I0403 16:31:02.610988 18533 net.cpp:425] inception_4a/output <- inception_4a/5x5
I0403 16:31:02.611007 18533 net.cpp:425] inception_4a/output <- inception_4a/pool_proj
I0403 16:31:02.611030 18533 net.cpp:399] inception_4a/output -> inception_4a/output
I0403 16:31:02.611086 18533 net.cpp:141] Setting up inception_4a/output
I0403 16:31:02.611119 18533 net.cpp:148] Top shape: 24 512 14 14 (2408448)
I0403 16:31:02.611138 18533 net.cpp:156] Memory required for data: 896545824
I0403 16:31:02.611156 18533 layer_factory.hpp:77] Creating layer inception_4a/output_inception_4a/output_0_split
I0403 16:31:02.611177 18533 net.cpp:91] Creating Layer inception_4a/output_inception_4a/output_0_split
I0403 16:31:02.611196 18533 net.cpp:425] inception_4a/output_inception_4a/output_0_split <- inception_4a/output
I0403 16:31:02.611217 18533 net.cpp:399] inception_4a/output_inception_4a/output_0_split -> inception_4a/output_inception_4a/output_0_split_0
I0403 16:31:02.611244 18533 net.cpp:399] inception_4a/output_inception_4a/output_0_split -> inception_4a/output_inception_4a/output_0_split_1
I0403 16:31:02.611274 18533 net.cpp:399] inception_4a/output_inception_4a/output_0_split -> inception_4a/output_inception_4a/output_0_split_2
I0403 16:31:02.611299 18533 net.cpp:399] inception_4a/output_inception_4a/output_0_split -> inception_4a/output_inception_4a/output_0_split_3
I0403 16:31:02.611322 18533 net.cpp:399] inception_4a/output_inception_4a/output_0_split -> inception_4a/output_inception_4a/output_0_split_4
I0403 16:31:02.611435 18533 net.cpp:141] Setting up inception_4a/output_inception_4a/output_0_split
I0403 16:31:02.611467 18533 net.cpp:148] Top shape: 24 512 14 14 (2408448)
I0403 16:31:02.611490 18533 net.cpp:148] Top shape: 24 512 14 14 (2408448)
I0403 16:31:02.611510 18533 net.cpp:148] Top shape: 24 512 14 14 (2408448)
I0403 16:31:02.611528 18533 net.cpp:148] Top shape: 24 512 14 14 (2408448)
I0403 16:31:02.611546 18533 net.cpp:148] Top shape: 24 512 14 14 (2408448)
I0403 16:31:02.611563 18533 net.cpp:156] Memory required for data: 944714784
I0403 16:31:02.611580 18533 layer_factory.hpp:77] Creating layer loss1/ave_pool
I0403 16:31:02.611608 18533 net.cpp:91] Creating Layer loss1/ave_pool
I0403 16:31:02.611629 18533 net.cpp:425] loss1/ave_pool <- inception_4a/output_inception_4a/output_0_split_0
I0403 16:31:02.611650 18533 net.cpp:399] loss1/ave_pool -> loss1/ave_pool
I0403 16:31:02.611901 18533 net.cpp:141] Setting up loss1/ave_pool
I0403 16:31:02.611932 18533 net.cpp:148] Top shape: 24 512 4 4 (196608)
I0403 16:31:02.611950 18533 net.cpp:156] Memory required for data: 945501216
I0403 16:31:02.611968 18533 layer_factory.hpp:77] Creating layer loss1/conv
I0403 16:31:02.611995 18533 net.cpp:91] Creating Layer loss1/conv
I0403 16:31:02.612017 18533 net.cpp:425] loss1/conv <- loss1/ave_pool
I0403 16:31:02.612042 18533 net.cpp:399] loss1/conv -> loss1/conv
I0403 16:31:02.613755 18533 net.cpp:141] Setting up loss1/conv
I0403 16:31:02.613790 18533 net.cpp:148] Top shape: 24 128 4 4 (49152)
I0403 16:31:02.613809 18533 net.cpp:156] Memory required for data: 945697824
I0403 16:31:02.613850 18533 layer_factory.hpp:77] Creating layer loss1/relu_conv
I0403 16:31:02.613878 18533 net.cpp:91] Creating Layer loss1/relu_conv
I0403 16:31:02.613899 18533 net.cpp:425] loss1/relu_conv <- loss1/conv
I0403 16:31:02.613920 18533 net.cpp:386] loss1/relu_conv -> loss1/conv (in-place)
I0403 16:31:02.614260 18533 net.cpp:141] Setting up loss1/relu_conv
I0403 16:31:02.614292 18533 net.cpp:148] Top shape: 24 128 4 4 (49152)
I0403 16:31:02.614311 18533 net.cpp:156] Memory required for data: 945894432
I0403 16:31:02.614331 18533 layer_factory.hpp:77] Creating layer loss1/fc
I0403 16:31:02.614362 18533 net.cpp:91] Creating Layer loss1/fc
I0403 16:31:02.614383 18533 net.cpp:425] loss1/fc <- loss1/conv
I0403 16:31:02.614408 18533 net.cpp:399] loss1/fc -> loss1/fc
I0403 16:31:02.636239 18533 net.cpp:141] Setting up loss1/fc
I0403 16:31:02.636281 18533 net.cpp:148] Top shape: 24 1024 (24576)
I0403 16:31:02.636301 18533 net.cpp:156] Memory required for data: 945992736
I0403 16:31:02.636324 18533 layer_factory.hpp:77] Creating layer loss1/relu_fc
I0403 16:31:02.636348 18533 net.cpp:91] Creating Layer loss1/relu_fc
I0403 16:31:02.636368 18533 net.cpp:425] loss1/relu_fc <- loss1/fc
I0403 16:31:02.636391 18533 net.cpp:386] loss1/relu_fc -> loss1/fc (in-place)
I0403 16:31:02.636627 18533 net.cpp:141] Setting up loss1/relu_fc
I0403 16:31:02.636659 18533 net.cpp:148] Top shape: 24 1024 (24576)
I0403 16:31:02.636677 18533 net.cpp:156] Memory required for data: 946091040
I0403 16:31:02.636695 18533 layer_factory.hpp:77] Creating layer loss1/drop_fc
I0403 16:31:02.636728 18533 net.cpp:91] Creating Layer loss1/drop_fc
I0403 16:31:02.636749 18533 net.cpp:425] loss1/drop_fc <- loss1/fc
I0403 16:31:02.636771 18533 net.cpp:386] loss1/drop_fc -> loss1/fc (in-place)
I0403 16:31:02.636833 18533 net.cpp:141] Setting up loss1/drop_fc
I0403 16:31:02.636868 18533 net.cpp:148] Top shape: 24 1024 (24576)
I0403 16:31:02.636888 18533 net.cpp:156] Memory required for data: 946189344
I0403 16:31:02.636906 18533 layer_factory.hpp:77] Creating layer loss1/classifier_plantvillage
I0403 16:31:02.636929 18533 net.cpp:91] Creating Layer loss1/classifier_plantvillage
I0403 16:31:02.636948 18533 net.cpp:425] loss1/classifier_plantvillage <- loss1/fc
I0403 16:31:02.636975 18533 net.cpp:399] loss1/classifier_plantvillage -> loss1/classifier_plantvillage
I0403 16:31:02.638064 18533 net.cpp:141] Setting up loss1/classifier_plantvillage
I0403 16:31:02.638099 18533 net.cpp:148] Top shape: 24 38 (912)
I0403 16:31:02.638118 18533 net.cpp:156] Memory required for data: 946192992
I0403 16:31:02.638140 18533 layer_factory.hpp:77] Creating layer loss1/classifier_plantvillage_loss1/classifier_plantvillage_0_split
I0403 16:31:02.638164 18533 net.cpp:91] Creating Layer loss1/classifier_plantvillage_loss1/classifier_plantvillage_0_split
I0403 16:31:02.638185 18533 net.cpp:425] loss1/classifier_plantvillage_loss1/classifier_plantvillage_0_split <- loss1/classifier_plantvillage
I0403 16:31:02.638207 18533 net.cpp:399] loss1/classifier_plantvillage_loss1/classifier_plantvillage_0_split -> loss1/classifier_plantvillage_loss1/classifier_plantvillage_0_split_0
I0403 16:31:02.638232 18533 net.cpp:399] loss1/classifier_plantvillage_loss1/classifier_plantvillage_0_split -> loss1/classifier_plantvillage_loss1/classifier_plantvillage_0_split_1
I0403 16:31:02.638257 18533 net.cpp:399] loss1/classifier_plantvillage_loss1/classifier_plantvillage_0_split -> loss1/classifier_plantvillage_loss1/classifier_plantvillage_0_split_2
I0403 16:31:02.638340 18533 net.cpp:141] Setting up loss1/classifier_plantvillage_loss1/classifier_plantvillage_0_split
I0403 16:31:02.638370 18533 net.cpp:148] Top shape: 24 38 (912)
I0403 16:31:02.638388 18533 net.cpp:148] Top shape: 24 38 (912)
I0403 16:31:02.638408 18533 net.cpp:148] Top shape: 24 38 (912)
I0403 16:31:02.638427 18533 net.cpp:156] Memory required for data: 946203936
I0403 16:31:02.638443 18533 layer_factory.hpp:77] Creating layer inception_4b/1x1
I0403 16:31:02.638468 18533 net.cpp:91] Creating Layer inception_4b/1x1
I0403 16:31:02.638509 18533 net.cpp:425] inception_4b/1x1 <- inception_4a/output_inception_4a/output_0_split_1
I0403 16:31:02.638536 18533 net.cpp:399] inception_4b/1x1 -> inception_4b/1x1
I0403 16:31:02.640537 18533 net.cpp:141] Setting up inception_4b/1x1
I0403 16:31:02.640573 18533 net.cpp:148] Top shape: 24 160 14 14 (752640)
I0403 16:31:02.640593 18533 net.cpp:156] Memory required for data: 949214496
I0403 16:31:02.640621 18533 layer_factory.hpp:77] Creating layer inception_4b/relu_1x1
I0403 16:31:02.640648 18533 net.cpp:91] Creating Layer inception_4b/relu_1x1
I0403 16:31:02.640668 18533 net.cpp:425] inception_4b/relu_1x1 <- inception_4b/1x1
I0403 16:31:02.640691 18533 net.cpp:386] inception_4b/relu_1x1 -> inception_4b/1x1 (in-place)
I0403 16:31:02.640913 18533 net.cpp:141] Setting up inception_4b/relu_1x1
I0403 16:31:02.640947 18533 net.cpp:148] Top shape: 24 160 14 14 (752640)
I0403 16:31:02.640966 18533 net.cpp:156] Memory required for data: 952225056
I0403 16:31:02.640985 18533 layer_factory.hpp:77] Creating layer inception_4b/3x3_reduce
I0403 16:31:02.641011 18533 net.cpp:91] Creating Layer inception_4b/3x3_reduce
I0403 16:31:02.641034 18533 net.cpp:425] inception_4b/3x3_reduce <- inception_4a/output_inception_4a/output_0_split_2
I0403 16:31:02.641057 18533 net.cpp:399] inception_4b/3x3_reduce -> inception_4b/3x3_reduce
I0403 16:31:02.642706 18533 net.cpp:141] Setting up inception_4b/3x3_reduce
I0403 16:31:02.642745 18533 net.cpp:148] Top shape: 24 112 14 14 (526848)
I0403 16:31:02.642767 18533 net.cpp:156] Memory required for data: 954332448
I0403 16:31:02.642789 18533 layer_factory.hpp:77] Creating layer inception_4b/relu_3x3_reduce
I0403 16:31:02.642812 18533 net.cpp:91] Creating Layer inception_4b/relu_3x3_reduce
I0403 16:31:02.642832 18533 net.cpp:425] inception_4b/relu_3x3_reduce <- inception_4b/3x3_reduce
I0403 16:31:02.642859 18533 net.cpp:386] inception_4b/relu_3x3_reduce -> inception_4b/3x3_reduce (in-place)
I0403 16:31:02.643203 18533 net.cpp:141] Setting up inception_4b/relu_3x3_reduce
I0403 16:31:02.643239 18533 net.cpp:148] Top shape: 24 112 14 14 (526848)
I0403 16:31:02.643259 18533 net.cpp:156] Memory required for data: 956439840
I0403 16:31:02.643276 18533 layer_factory.hpp:77] Creating layer inception_4b/3x3
I0403 16:31:02.643304 18533 net.cpp:91] Creating Layer inception_4b/3x3
I0403 16:31:02.643327 18533 net.cpp:425] inception_4b/3x3 <- inception_4b/3x3_reduce
I0403 16:31:02.643352 18533 net.cpp:399] inception_4b/3x3 -> inception_4b/3x3
I0403 16:31:02.646970 18533 net.cpp:141] Setting up inception_4b/3x3
I0403 16:31:02.647007 18533 net.cpp:148] Top shape: 24 224 14 14 (1053696)
I0403 16:31:02.647027 18533 net.cpp:156] Memory required for data: 960654624
I0403 16:31:02.647050 18533 layer_factory.hpp:77] Creating layer inception_4b/relu_3x3
I0403 16:31:02.647076 18533 net.cpp:91] Creating Layer inception_4b/relu_3x3
I0403 16:31:02.647099 18533 net.cpp:425] inception_4b/relu_3x3 <- inception_4b/3x3
I0403 16:31:02.647120 18533 net.cpp:386] inception_4b/relu_3x3 -> inception_4b/3x3 (in-place)
I0403 16:31:02.647344 18533 net.cpp:141] Setting up inception_4b/relu_3x3
I0403 16:31:02.647375 18533 net.cpp:148] Top shape: 24 224 14 14 (1053696)
I0403 16:31:02.647393 18533 net.cpp:156] Memory required for data: 964869408
I0403 16:31:02.647413 18533 layer_factory.hpp:77] Creating layer inception_4b/5x5_reduce
I0403 16:31:02.647444 18533 net.cpp:91] Creating Layer inception_4b/5x5_reduce
I0403 16:31:02.647466 18533 net.cpp:425] inception_4b/5x5_reduce <- inception_4a/output_inception_4a/output_0_split_3
I0403 16:31:02.647490 18533 net.cpp:399] inception_4b/5x5_reduce -> inception_4b/5x5_reduce
I0403 16:31:02.648820 18533 net.cpp:141] Setting up inception_4b/5x5_reduce
I0403 16:31:02.648854 18533 net.cpp:148] Top shape: 24 24 14 14 (112896)
I0403 16:31:02.648874 18533 net.cpp:156] Memory required for data: 965320992
I0403 16:31:02.648895 18533 layer_factory.hpp:77] Creating layer inception_4b/relu_5x5_reduce
I0403 16:31:02.648921 18533 net.cpp:91] Creating Layer inception_4b/relu_5x5_reduce
I0403 16:31:02.648959 18533 net.cpp:425] inception_4b/relu_5x5_reduce <- inception_4b/5x5_reduce
I0403 16:31:02.648983 18533 net.cpp:386] inception_4b/relu_5x5_reduce -> inception_4b/5x5_reduce (in-place)
I0403 16:31:02.649212 18533 net.cpp:141] Setting up inception_4b/relu_5x5_reduce
I0403 16:31:02.649243 18533 net.cpp:148] Top shape: 24 24 14 14 (112896)
I0403 16:31:02.649262 18533 net.cpp:156] Memory required for data: 965772576
I0403 16:31:02.649281 18533 layer_factory.hpp:77] Creating layer inception_4b/5x5
I0403 16:31:02.649308 18533 net.cpp:91] Creating Layer inception_4b/5x5
I0403 16:31:02.649330 18533 net.cpp:425] inception_4b/5x5 <- inception_4b/5x5_reduce
I0403 16:31:02.649356 18533 net.cpp:399] inception_4b/5x5 -> inception_4b/5x5
I0403 16:31:02.650857 18533 net.cpp:141] Setting up inception_4b/5x5
I0403 16:31:02.650892 18533 net.cpp:148] Top shape: 24 64 14 14 (301056)
I0403 16:31:02.650910 18533 net.cpp:156] Memory required for data: 966976800
I0403 16:31:02.650933 18533 layer_factory.hpp:77] Creating layer inception_4b/relu_5x5
I0403 16:31:02.650959 18533 net.cpp:91] Creating Layer inception_4b/relu_5x5
I0403 16:31:02.650979 18533 net.cpp:425] inception_4b/relu_5x5 <- inception_4b/5x5
I0403 16:31:02.651000 18533 net.cpp:386] inception_4b/relu_5x5 -> inception_4b/5x5 (in-place)
I0403 16:31:02.651353 18533 net.cpp:141] Setting up inception_4b/relu_5x5
I0403 16:31:02.651386 18533 net.cpp:148] Top shape: 24 64 14 14 (301056)
I0403 16:31:02.651406 18533 net.cpp:156] Memory required for data: 968181024
I0403 16:31:02.651423 18533 layer_factory.hpp:77] Creating layer inception_4b/pool
I0403 16:31:02.651448 18533 net.cpp:91] Creating Layer inception_4b/pool
I0403 16:31:02.651469 18533 net.cpp:425] inception_4b/pool <- inception_4a/output_inception_4a/output_0_split_4
I0403 16:31:02.651492 18533 net.cpp:399] inception_4b/pool -> inception_4b/pool
I0403 16:31:02.651572 18533 net.cpp:141] Setting up inception_4b/pool
I0403 16:31:02.651607 18533 net.cpp:148] Top shape: 24 512 14 14 (2408448)
I0403 16:31:02.651628 18533 net.cpp:156] Memory required for data: 977814816
I0403 16:31:02.651645 18533 layer_factory.hpp:77] Creating layer inception_4b/pool_proj
I0403 16:31:02.651675 18533 net.cpp:91] Creating Layer inception_4b/pool_proj
I0403 16:31:02.651698 18533 net.cpp:425] inception_4b/pool_proj <- inception_4b/pool
I0403 16:31:02.651724 18533 net.cpp:399] inception_4b/pool_proj -> inception_4b/pool_proj
I0403 16:31:02.653206 18533 net.cpp:141] Setting up inception_4b/pool_proj
I0403 16:31:02.653245 18533 net.cpp:148] Top shape: 24 64 14 14 (301056)
I0403 16:31:02.653265 18533 net.cpp:156] Memory required for data: 979019040
I0403 16:31:02.653288 18533 layer_factory.hpp:77] Creating layer inception_4b/relu_pool_proj
I0403 16:31:02.653311 18533 net.cpp:91] Creating Layer inception_4b/relu_pool_proj
I0403 16:31:02.653332 18533 net.cpp:425] inception_4b/relu_pool_proj <- inception_4b/pool_proj
I0403 16:31:02.653354 18533 net.cpp:386] inception_4b/relu_pool_proj -> inception_4b/pool_proj (in-place)
I0403 16:31:02.653580 18533 net.cpp:141] Setting up inception_4b/relu_pool_proj
I0403 16:31:02.653616 18533 net.cpp:148] Top shape: 24 64 14 14 (301056)
I0403 16:31:02.653637 18533 net.cpp:156] Memory required for data: 980223264
I0403 16:31:02.653656 18533 layer_factory.hpp:77] Creating layer inception_4b/output
I0403 16:31:02.653676 18533 net.cpp:91] Creating Layer inception_4b/output
I0403 16:31:02.653697 18533 net.cpp:425] inception_4b/output <- inception_4b/1x1
I0403 16:31:02.653717 18533 net.cpp:425] inception_4b/output <- inception_4b/3x3
I0403 16:31:02.653738 18533 net.cpp:425] inception_4b/output <- inception_4b/5x5
I0403 16:31:02.653756 18533 net.cpp:425] inception_4b/output <- inception_4b/pool_proj
I0403 16:31:02.653779 18533 net.cpp:399] inception_4b/output -> inception_4b/output
I0403 16:31:02.653837 18533 net.cpp:141] Setting up inception_4b/output
I0403 16:31:02.653867 18533 net.cpp:148] Top shape: 24 512 14 14 (2408448)
I0403 16:31:02.653887 18533 net.cpp:156] Memory required for data: 989857056
I0403 16:31:02.653921 18533 layer_factory.hpp:77] Creating layer inception_4b/output_inception_4b/output_0_split
I0403 16:31:02.653949 18533 net.cpp:91] Creating Layer inception_4b/output_inception_4b/output_0_split
I0403 16:31:02.653969 18533 net.cpp:425] inception_4b/output_inception_4b/output_0_split <- inception_4b/output
I0403 16:31:02.653990 18533 net.cpp:399] inception_4b/output_inception_4b/output_0_split -> inception_4b/output_inception_4b/output_0_split_0
I0403 16:31:02.654019 18533 net.cpp:399] inception_4b/output_inception_4b/output_0_split -> inception_4b/output_inception_4b/output_0_split_1
I0403 16:31:02.654047 18533 net.cpp:399] inception_4b/output_inception_4b/output_0_split -> inception_4b/output_inception_4b/output_0_split_2
I0403 16:31:02.654072 18533 net.cpp:399] inception_4b/output_inception_4b/output_0_split -> inception_4b/output_inception_4b/output_0_split_3
I0403 16:31:02.654175 18533 net.cpp:141] Setting up inception_4b/output_inception_4b/output_0_split
I0403 16:31:02.654204 18533 net.cpp:148] Top shape: 24 512 14 14 (2408448)
I0403 16:31:02.654225 18533 net.cpp:148] Top shape: 24 512 14 14 (2408448)
I0403 16:31:02.654244 18533 net.cpp:148] Top shape: 24 512 14 14 (2408448)
I0403 16:31:02.654263 18533 net.cpp:148] Top shape: 24 512 14 14 (2408448)
I0403 16:31:02.654279 18533 net.cpp:156] Memory required for data: 1028392224
I0403 16:31:02.654299 18533 layer_factory.hpp:77] Creating layer inception_4c/1x1
I0403 16:31:02.654325 18533 net.cpp:91] Creating Layer inception_4c/1x1
I0403 16:31:02.654348 18533 net.cpp:425] inception_4c/1x1 <- inception_4b/output_inception_4b/output_0_split_0
I0403 16:31:02.654373 18533 net.cpp:399] inception_4c/1x1 -> inception_4c/1x1
I0403 16:31:02.656141 18533 net.cpp:141] Setting up inception_4c/1x1
I0403 16:31:02.656177 18533 net.cpp:148] Top shape: 24 128 14 14 (602112)
I0403 16:31:02.656196 18533 net.cpp:156] Memory required for data: 1030800672
I0403 16:31:02.656219 18533 layer_factory.hpp:77] Creating layer inception_4c/relu_1x1
I0403 16:31:02.656241 18533 net.cpp:91] Creating Layer inception_4c/relu_1x1
I0403 16:31:02.656261 18533 net.cpp:425] inception_4c/relu_1x1 <- inception_4c/1x1
I0403 16:31:02.656288 18533 net.cpp:386] inception_4c/relu_1x1 -> inception_4c/1x1 (in-place)
I0403 16:31:02.656512 18533 net.cpp:141] Setting up inception_4c/relu_1x1
I0403 16:31:02.656543 18533 net.cpp:148] Top shape: 24 128 14 14 (602112)
I0403 16:31:02.656560 18533 net.cpp:156] Memory required for data: 1033209120
I0403 16:31:02.656579 18533 layer_factory.hpp:77] Creating layer inception_4c/3x3_reduce
I0403 16:31:02.656610 18533 net.cpp:91] Creating Layer inception_4c/3x3_reduce
I0403 16:31:02.656633 18533 net.cpp:425] inception_4c/3x3_reduce <- inception_4b/output_inception_4b/output_0_split_1
I0403 16:31:02.656661 18533 net.cpp:399] inception_4c/3x3_reduce -> inception_4c/3x3_reduce
I0403 16:31:02.659013 18533 net.cpp:141] Setting up inception_4c/3x3_reduce
I0403 16:31:02.659049 18533 net.cpp:148] Top shape: 24 128 14 14 (602112)
I0403 16:31:02.659068 18533 net.cpp:156] Memory required for data: 1035617568
I0403 16:31:02.659090 18533 layer_factory.hpp:77] Creating layer inception_4c/relu_3x3_reduce
I0403 16:31:02.659116 18533 net.cpp:91] Creating Layer inception_4c/relu_3x3_reduce
I0403 16:31:02.659137 18533 net.cpp:425] inception_4c/relu_3x3_reduce <- inception_4c/3x3_reduce
I0403 16:31:02.659159 18533 net.cpp:386] inception_4c/relu_3x3_reduce -> inception_4c/3x3_reduce (in-place)
I0403 16:31:02.659509 18533 net.cpp:141] Setting up inception_4c/relu_3x3_reduce
I0403 16:31:02.659543 18533 net.cpp:148] Top shape: 24 128 14 14 (602112)
I0403 16:31:02.659561 18533 net.cpp:156] Memory required for data: 1038026016
I0403 16:31:02.659580 18533 layer_factory.hpp:77] Creating layer inception_4c/3x3
I0403 16:31:02.659616 18533 net.cpp:91] Creating Layer inception_4c/3x3
I0403 16:31:02.659639 18533 net.cpp:425] inception_4c/3x3 <- inception_4c/3x3_reduce
I0403 16:31:02.659668 18533 net.cpp:399] inception_4c/3x3 -> inception_4c/3x3
I0403 16:31:02.664042 18533 net.cpp:141] Setting up inception_4c/3x3
I0403 16:31:02.664096 18533 net.cpp:148] Top shape: 24 256 14 14 (1204224)
I0403 16:31:02.664119 18533 net.cpp:156] Memory required for data: 1042842912
I0403 16:31:02.664157 18533 layer_factory.hpp:77] Creating layer inception_4c/relu_3x3
I0403 16:31:02.664182 18533 net.cpp:91] Creating Layer inception_4c/relu_3x3
I0403 16:31:02.664202 18533 net.cpp:425] inception_4c/relu_3x3 <- inception_4c/3x3
I0403 16:31:02.664223 18533 net.cpp:386] inception_4c/relu_3x3 -> inception_4c/3x3 (in-place)
I0403 16:31:02.664448 18533 net.cpp:141] Setting up inception_4c/relu_3x3
I0403 16:31:02.664479 18533 net.cpp:148] Top shape: 24 256 14 14 (1204224)
I0403 16:31:02.664497 18533 net.cpp:156] Memory required for data: 1047659808
I0403 16:31:02.664515 18533 layer_factory.hpp:77] Creating layer inception_4c/5x5_reduce
I0403 16:31:02.664544 18533 net.cpp:91] Creating Layer inception_4c/5x5_reduce
I0403 16:31:02.664566 18533 net.cpp:425] inception_4c/5x5_reduce <- inception_4b/output_inception_4b/output_0_split_2
I0403 16:31:02.664590 18533 net.cpp:399] inception_4c/5x5_reduce -> inception_4c/5x5_reduce
I0403 16:31:02.665930 18533 net.cpp:141] Setting up inception_4c/5x5_reduce
I0403 16:31:02.665964 18533 net.cpp:148] Top shape: 24 24 14 14 (112896)
I0403 16:31:02.665983 18533 net.cpp:156] Memory required for data: 1048111392
I0403 16:31:02.666009 18533 layer_factory.hpp:77] Creating layer inception_4c/relu_5x5_reduce
I0403 16:31:02.666034 18533 net.cpp:91] Creating Layer inception_4c/relu_5x5_reduce
I0403 16:31:02.666055 18533 net.cpp:425] inception_4c/relu_5x5_reduce <- inception_4c/5x5_reduce
I0403 16:31:02.666077 18533 net.cpp:386] inception_4c/relu_5x5_reduce -> inception_4c/5x5_reduce (in-place)
I0403 16:31:02.666309 18533 net.cpp:141] Setting up inception_4c/relu_5x5_reduce
I0403 16:31:02.666340 18533 net.cpp:148] Top shape: 24 24 14 14 (112896)
I0403 16:31:02.666359 18533 net.cpp:156] Memory required for data: 1048562976
I0403 16:31:02.666378 18533 layer_factory.hpp:77] Creating layer inception_4c/5x5
I0403 16:31:02.666405 18533 net.cpp:91] Creating Layer inception_4c/5x5
I0403 16:31:02.666427 18533 net.cpp:425] inception_4c/5x5 <- inception_4c/5x5_reduce
I0403 16:31:02.666453 18533 net.cpp:399] inception_4c/5x5 -> inception_4c/5x5
I0403 16:31:02.667987 18533 net.cpp:141] Setting up inception_4c/5x5
I0403 16:31:02.668023 18533 net.cpp:148] Top shape: 24 64 14 14 (301056)
I0403 16:31:02.668045 18533 net.cpp:156] Memory required for data: 1049767200
I0403 16:31:02.668067 18533 layer_factory.hpp:77] Creating layer inception_4c/relu_5x5
I0403 16:31:02.668089 18533 net.cpp:91] Creating Layer inception_4c/relu_5x5
I0403 16:31:02.668108 18533 net.cpp:425] inception_4c/relu_5x5 <- inception_4c/5x5
I0403 16:31:02.668133 18533 net.cpp:386] inception_4c/relu_5x5 -> inception_4c/5x5 (in-place)
I0403 16:31:02.668488 18533 net.cpp:141] Setting up inception_4c/relu_5x5
I0403 16:31:02.668524 18533 net.cpp:148] Top shape: 24 64 14 14 (301056)
I0403 16:31:02.668543 18533 net.cpp:156] Memory required for data: 1050971424
I0403 16:31:02.668562 18533 layer_factory.hpp:77] Creating layer inception_4c/pool
I0403 16:31:02.668584 18533 net.cpp:91] Creating Layer inception_4c/pool
I0403 16:31:02.668609 18533 net.cpp:425] inception_4c/pool <- inception_4b/output_inception_4b/output_0_split_3
I0403 16:31:02.668637 18533 net.cpp:399] inception_4c/pool -> inception_4c/pool
I0403 16:31:02.668728 18533 net.cpp:141] Setting up inception_4c/pool
I0403 16:31:02.668761 18533 net.cpp:148] Top shape: 24 512 14 14 (2408448)
I0403 16:31:02.668782 18533 net.cpp:156] Memory required for data: 1060605216
I0403 16:31:02.668800 18533 layer_factory.hpp:77] Creating layer inception_4c/pool_proj
I0403 16:31:02.668826 18533 net.cpp:91] Creating Layer inception_4c/pool_proj
I0403 16:31:02.668848 18533 net.cpp:425] inception_4c/pool_proj <- inception_4c/pool
I0403 16:31:02.668871 18533 net.cpp:399] inception_4c/pool_proj -> inception_4c/pool_proj
I0403 16:31:02.670378 18533 net.cpp:141] Setting up inception_4c/pool_proj
I0403 16:31:02.670418 18533 net.cpp:148] Top shape: 24 64 14 14 (301056)
I0403 16:31:02.670455 18533 net.cpp:156] Memory required for data: 1061809440
I0403 16:31:02.670480 18533 layer_factory.hpp:77] Creating layer inception_4c/relu_pool_proj
I0403 16:31:02.670502 18533 net.cpp:91] Creating Layer inception_4c/relu_pool_proj
I0403 16:31:02.670522 18533 net.cpp:425] inception_4c/relu_pool_proj <- inception_4c/pool_proj
I0403 16:31:02.670542 18533 net.cpp:386] inception_4c/relu_pool_proj -> inception_4c/pool_proj (in-place)
I0403 16:31:02.670781 18533 net.cpp:141] Setting up inception_4c/relu_pool_proj
I0403 16:31:02.670815 18533 net.cpp:148] Top shape: 24 64 14 14 (301056)
I0403 16:31:02.670835 18533 net.cpp:156] Memory required for data: 1063013664
I0403 16:31:02.670852 18533 layer_factory.hpp:77] Creating layer inception_4c/output
I0403 16:31:02.670873 18533 net.cpp:91] Creating Layer inception_4c/output
I0403 16:31:02.670893 18533 net.cpp:425] inception_4c/output <- inception_4c/1x1
I0403 16:31:02.670913 18533 net.cpp:425] inception_4c/output <- inception_4c/3x3
I0403 16:31:02.670933 18533 net.cpp:425] inception_4c/output <- inception_4c/5x5
I0403 16:31:02.670953 18533 net.cpp:425] inception_4c/output <- inception_4c/pool_proj
I0403 16:31:02.670979 18533 net.cpp:399] inception_4c/output -> inception_4c/output
I0403 16:31:02.671036 18533 net.cpp:141] Setting up inception_4c/output
I0403 16:31:02.671066 18533 net.cpp:148] Top shape: 24 512 14 14 (2408448)
I0403 16:31:02.671083 18533 net.cpp:156] Memory required for data: 1072647456
I0403 16:31:02.671102 18533 layer_factory.hpp:77] Creating layer inception_4c/output_inception_4c/output_0_split
I0403 16:31:02.671125 18533 net.cpp:91] Creating Layer inception_4c/output_inception_4c/output_0_split
I0403 16:31:02.671145 18533 net.cpp:425] inception_4c/output_inception_4c/output_0_split <- inception_4c/output
I0403 16:31:02.671167 18533 net.cpp:399] inception_4c/output_inception_4c/output_0_split -> inception_4c/output_inception_4c/output_0_split_0
I0403 16:31:02.671192 18533 net.cpp:399] inception_4c/output_inception_4c/output_0_split -> inception_4c/output_inception_4c/output_0_split_1
I0403 16:31:02.671221 18533 net.cpp:399] inception_4c/output_inception_4c/output_0_split -> inception_4c/output_inception_4c/output_0_split_2
I0403 16:31:02.671247 18533 net.cpp:399] inception_4c/output_inception_4c/output_0_split -> inception_4c/output_inception_4c/output_0_split_3
I0403 16:31:02.671352 18533 net.cpp:141] Setting up inception_4c/output_inception_4c/output_0_split
I0403 16:31:02.671382 18533 net.cpp:148] Top shape: 24 512 14 14 (2408448)
I0403 16:31:02.671402 18533 net.cpp:148] Top shape: 24 512 14 14 (2408448)
I0403 16:31:02.671422 18533 net.cpp:148] Top shape: 24 512 14 14 (2408448)
I0403 16:31:02.671440 18533 net.cpp:148] Top shape: 24 512 14 14 (2408448)
I0403 16:31:02.671458 18533 net.cpp:156] Memory required for data: 1111182624
I0403 16:31:02.671474 18533 layer_factory.hpp:77] Creating layer inception_4d/1x1
I0403 16:31:02.671501 18533 net.cpp:91] Creating Layer inception_4d/1x1
I0403 16:31:02.671524 18533 net.cpp:425] inception_4d/1x1 <- inception_4c/output_inception_4c/output_0_split_0
I0403 16:31:02.671550 18533 net.cpp:399] inception_4d/1x1 -> inception_4d/1x1
I0403 16:31:02.673249 18533 net.cpp:141] Setting up inception_4d/1x1
I0403 16:31:02.673285 18533 net.cpp:148] Top shape: 24 112 14 14 (526848)
I0403 16:31:02.673305 18533 net.cpp:156] Memory required for data: 1113290016
I0403 16:31:02.673327 18533 layer_factory.hpp:77] Creating layer inception_4d/relu_1x1
I0403 16:31:02.673353 18533 net.cpp:91] Creating Layer inception_4d/relu_1x1
I0403 16:31:02.673375 18533 net.cpp:425] inception_4d/relu_1x1 <- inception_4d/1x1
I0403 16:31:02.673396 18533 net.cpp:386] inception_4d/relu_1x1 -> inception_4d/1x1 (in-place)
I0403 16:31:02.673635 18533 net.cpp:141] Setting up inception_4d/relu_1x1
I0403 16:31:02.673666 18533 net.cpp:148] Top shape: 24 112 14 14 (526848)
I0403 16:31:02.673682 18533 net.cpp:156] Memory required for data: 1115397408
I0403 16:31:02.673701 18533 layer_factory.hpp:77] Creating layer inception_4d/3x3_reduce
I0403 16:31:02.673746 18533 net.cpp:91] Creating Layer inception_4d/3x3_reduce
I0403 16:31:02.673773 18533 net.cpp:425] inception_4d/3x3_reduce <- inception_4c/output_inception_4c/output_0_split_1
I0403 16:31:02.673796 18533 net.cpp:399] inception_4d/3x3_reduce -> inception_4d/3x3_reduce
I0403 16:31:02.675664 18533 net.cpp:141] Setting up inception_4d/3x3_reduce
I0403 16:31:02.675698 18533 net.cpp:148] Top shape: 24 144 14 14 (677376)
I0403 16:31:02.675717 18533 net.cpp:156] Memory required for data: 1118106912
I0403 16:31:02.675740 18533 layer_factory.hpp:77] Creating layer inception_4d/relu_3x3_reduce
I0403 16:31:02.675761 18533 net.cpp:91] Creating Layer inception_4d/relu_3x3_reduce
I0403 16:31:02.675781 18533 net.cpp:425] inception_4d/relu_3x3_reduce <- inception_4d/3x3_reduce
I0403 16:31:02.675807 18533 net.cpp:386] inception_4d/relu_3x3_reduce -> inception_4d/3x3_reduce (in-place)
I0403 16:31:02.676162 18533 net.cpp:141] Setting up inception_4d/relu_3x3_reduce
I0403 16:31:02.676194 18533 net.cpp:148] Top shape: 24 144 14 14 (677376)
I0403 16:31:02.676213 18533 net.cpp:156] Memory required for data: 1120816416
I0403 16:31:02.676232 18533 layer_factory.hpp:77] Creating layer inception_4d/3x3
I0403 16:31:02.676259 18533 net.cpp:91] Creating Layer inception_4d/3x3
I0403 16:31:02.676280 18533 net.cpp:425] inception_4d/3x3 <- inception_4d/3x3_reduce
I0403 16:31:02.676307 18533 net.cpp:399] inception_4d/3x3 -> inception_4d/3x3
I0403 16:31:02.681565 18533 net.cpp:141] Setting up inception_4d/3x3
I0403 16:31:02.681607 18533 net.cpp:148] Top shape: 24 288 14 14 (1354752)
I0403 16:31:02.681628 18533 net.cpp:156] Memory required for data: 1126235424
I0403 16:31:02.681653 18533 layer_factory.hpp:77] Creating layer inception_4d/relu_3x3
I0403 16:31:02.681676 18533 net.cpp:91] Creating Layer inception_4d/relu_3x3
I0403 16:31:02.681697 18533 net.cpp:425] inception_4d/relu_3x3 <- inception_4d/3x3
I0403 16:31:02.681718 18533 net.cpp:386] inception_4d/relu_3x3 -> inception_4d/3x3 (in-place)
I0403 16:31:02.681946 18533 net.cpp:141] Setting up inception_4d/relu_3x3
I0403 16:31:02.681980 18533 net.cpp:148] Top shape: 24 288 14 14 (1354752)
I0403 16:31:02.681998 18533 net.cpp:156] Memory required for data: 1131654432
I0403 16:31:02.682018 18533 layer_factory.hpp:77] Creating layer inception_4d/5x5_reduce
I0403 16:31:02.682044 18533 net.cpp:91] Creating Layer inception_4d/5x5_reduce
I0403 16:31:02.682066 18533 net.cpp:425] inception_4d/5x5_reduce <- inception_4c/output_inception_4c/output_0_split_2
I0403 16:31:02.682090 18533 net.cpp:399] inception_4d/5x5_reduce -> inception_4d/5x5_reduce
I0403 16:31:02.683506 18533 net.cpp:141] Setting up inception_4d/5x5_reduce
I0403 16:31:02.683543 18533 net.cpp:148] Top shape: 24 32 14 14 (150528)
I0403 16:31:02.683562 18533 net.cpp:156] Memory required for data: 1132256544
I0403 16:31:02.683584 18533 layer_factory.hpp:77] Creating layer inception_4d/relu_5x5_reduce
I0403 16:31:02.683614 18533 net.cpp:91] Creating Layer inception_4d/relu_5x5_reduce
I0403 16:31:02.683636 18533 net.cpp:425] inception_4d/relu_5x5_reduce <- inception_4d/5x5_reduce
I0403 16:31:02.683657 18533 net.cpp:386] inception_4d/relu_5x5_reduce -> inception_4d/5x5_reduce (in-place)
I0403 16:31:02.683892 18533 net.cpp:141] Setting up inception_4d/relu_5x5_reduce
I0403 16:31:02.683923 18533 net.cpp:148] Top shape: 24 32 14 14 (150528)
I0403 16:31:02.683941 18533 net.cpp:156] Memory required for data: 1132858656
I0403 16:31:02.683959 18533 layer_factory.hpp:77] Creating layer inception_4d/5x5
I0403 16:31:02.683990 18533 net.cpp:91] Creating Layer inception_4d/5x5
I0403 16:31:02.684012 18533 net.cpp:425] inception_4d/5x5 <- inception_4d/5x5_reduce
I0403 16:31:02.684036 18533 net.cpp:399] inception_4d/5x5 -> inception_4d/5x5
I0403 16:31:02.685859 18533 net.cpp:141] Setting up inception_4d/5x5
I0403 16:31:02.685899 18533 net.cpp:148] Top shape: 24 64 14 14 (301056)
I0403 16:31:02.685920 18533 net.cpp:156] Memory required for data: 1134062880
I0403 16:31:02.685943 18533 layer_factory.hpp:77] Creating layer inception_4d/relu_5x5
I0403 16:31:02.685984 18533 net.cpp:91] Creating Layer inception_4d/relu_5x5
I0403 16:31:02.686007 18533 net.cpp:425] inception_4d/relu_5x5 <- inception_4d/5x5
I0403 16:31:02.686031 18533 net.cpp:386] inception_4d/relu_5x5 -> inception_4d/5x5 (in-place)
I0403 16:31:02.686400 18533 net.cpp:141] Setting up inception_4d/relu_5x5
I0403 16:31:02.686435 18533 net.cpp:148] Top shape: 24 64 14 14 (301056)
I0403 16:31:02.686455 18533 net.cpp:156] Memory required for data: 1135267104
I0403 16:31:02.686473 18533 layer_factory.hpp:77] Creating layer inception_4d/pool
I0403 16:31:02.686496 18533 net.cpp:91] Creating Layer inception_4d/pool
I0403 16:31:02.686516 18533 net.cpp:425] inception_4d/pool <- inception_4c/output_inception_4c/output_0_split_3
I0403 16:31:02.686543 18533 net.cpp:399] inception_4d/pool -> inception_4d/pool
I0403 16:31:02.686635 18533 net.cpp:141] Setting up inception_4d/pool
I0403 16:31:02.686666 18533 net.cpp:148] Top shape: 24 512 14 14 (2408448)
I0403 16:31:02.686683 18533 net.cpp:156] Memory required for data: 1144900896
I0403 16:31:02.686702 18533 layer_factory.hpp:77] Creating layer inception_4d/pool_proj
I0403 16:31:02.686730 18533 net.cpp:91] Creating Layer inception_4d/pool_proj
I0403 16:31:02.686753 18533 net.cpp:425] inception_4d/pool_proj <- inception_4d/pool
I0403 16:31:02.686779 18533 net.cpp:399] inception_4d/pool_proj -> inception_4d/pool_proj
I0403 16:31:02.688921 18533 net.cpp:141] Setting up inception_4d/pool_proj
I0403 16:31:02.688958 18533 net.cpp:148] Top shape: 24 64 14 14 (301056)
I0403 16:31:02.688977 18533 net.cpp:156] Memory required for data: 1146105120
I0403 16:31:02.688999 18533 layer_factory.hpp:77] Creating layer inception_4d/relu_pool_proj
I0403 16:31:02.689025 18533 net.cpp:91] Creating Layer inception_4d/relu_pool_proj
I0403 16:31:02.689048 18533 net.cpp:425] inception_4d/relu_pool_proj <- inception_4d/pool_proj
I0403 16:31:02.689069 18533 net.cpp:386] inception_4d/relu_pool_proj -> inception_4d/pool_proj (in-place)
I0403 16:31:02.689303 18533 net.cpp:141] Setting up inception_4d/relu_pool_proj
I0403 16:31:02.689337 18533 net.cpp:148] Top shape: 24 64 14 14 (301056)
I0403 16:31:02.689357 18533 net.cpp:156] Memory required for data: 1147309344
I0403 16:31:02.689375 18533 layer_factory.hpp:77] Creating layer inception_4d/output
I0403 16:31:02.689395 18533 net.cpp:91] Creating Layer inception_4d/output
I0403 16:31:02.689415 18533 net.cpp:425] inception_4d/output <- inception_4d/1x1
I0403 16:31:02.689435 18533 net.cpp:425] inception_4d/output <- inception_4d/3x3
I0403 16:31:02.689456 18533 net.cpp:425] inception_4d/output <- inception_4d/5x5
I0403 16:31:02.689476 18533 net.cpp:425] inception_4d/output <- inception_4d/pool_proj
I0403 16:31:02.689498 18533 net.cpp:399] inception_4d/output -> inception_4d/output
I0403 16:31:02.689559 18533 net.cpp:141] Setting up inception_4d/output
I0403 16:31:02.689589 18533 net.cpp:148] Top shape: 24 528 14 14 (2483712)
I0403 16:31:02.689613 18533 net.cpp:156] Memory required for data: 1157244192
I0403 16:31:02.689633 18533 layer_factory.hpp:77] Creating layer inception_4d/output_inception_4d/output_0_split
I0403 16:31:02.689659 18533 net.cpp:91] Creating Layer inception_4d/output_inception_4d/output_0_split
I0403 16:31:02.689682 18533 net.cpp:425] inception_4d/output_inception_4d/output_0_split <- inception_4d/output
I0403 16:31:02.689703 18533 net.cpp:399] inception_4d/output_inception_4d/output_0_split -> inception_4d/output_inception_4d/output_0_split_0
I0403 16:31:02.689730 18533 net.cpp:399] inception_4d/output_inception_4d/output_0_split -> inception_4d/output_inception_4d/output_0_split_1
I0403 16:31:02.689760 18533 net.cpp:399] inception_4d/output_inception_4d/output_0_split -> inception_4d/output_inception_4d/output_0_split_2
I0403 16:31:02.689793 18533 net.cpp:399] inception_4d/output_inception_4d/output_0_split -> inception_4d/output_inception_4d/output_0_split_3
I0403 16:31:02.689821 18533 net.cpp:399] inception_4d/output_inception_4d/output_0_split -> inception_4d/output_inception_4d/output_0_split_4
I0403 16:31:02.689970 18533 net.cpp:141] Setting up inception_4d/output_inception_4d/output_0_split
I0403 16:31:02.690021 18533 net.cpp:148] Top shape: 24 528 14 14 (2483712)
I0403 16:31:02.690042 18533 net.cpp:148] Top shape: 24 528 14 14 (2483712)
I0403 16:31:02.690060 18533 net.cpp:148] Top shape: 24 528 14 14 (2483712)
I0403 16:31:02.690088 18533 net.cpp:148] Top shape: 24 528 14 14 (2483712)
I0403 16:31:02.690109 18533 net.cpp:148] Top shape: 24 528 14 14 (2483712)
I0403 16:31:02.690126 18533 net.cpp:156] Memory required for data: 1206918432
I0403 16:31:02.690145 18533 layer_factory.hpp:77] Creating layer loss2/ave_pool
I0403 16:31:02.690177 18533 net.cpp:91] Creating Layer loss2/ave_pool
I0403 16:31:02.690198 18533 net.cpp:425] loss2/ave_pool <- inception_4d/output_inception_4d/output_0_split_0
I0403 16:31:02.690220 18533 net.cpp:399] loss2/ave_pool -> loss2/ave_pool
I0403 16:31:02.690600 18533 net.cpp:141] Setting up loss2/ave_pool
I0403 16:31:02.690639 18533 net.cpp:148] Top shape: 24 528 4 4 (202752)
I0403 16:31:02.690657 18533 net.cpp:156] Memory required for data: 1207729440
I0403 16:31:02.690675 18533 layer_factory.hpp:77] Creating layer loss2/conv
I0403 16:31:02.690703 18533 net.cpp:91] Creating Layer loss2/conv
I0403 16:31:02.690726 18533 net.cpp:425] loss2/conv <- loss2/ave_pool
I0403 16:31:02.690752 18533 net.cpp:399] loss2/conv -> loss2/conv
I0403 16:31:02.693120 18533 net.cpp:141] Setting up loss2/conv
I0403 16:31:02.693158 18533 net.cpp:148] Top shape: 24 128 4 4 (49152)
I0403 16:31:02.693179 18533 net.cpp:156] Memory required for data: 1207926048
I0403 16:31:02.693203 18533 layer_factory.hpp:77] Creating layer loss2/relu_conv
I0403 16:31:02.693224 18533 net.cpp:91] Creating Layer loss2/relu_conv
I0403 16:31:02.693245 18533 net.cpp:425] loss2/relu_conv <- loss2/conv
I0403 16:31:02.693269 18533 net.cpp:386] loss2/relu_conv -> loss2/conv (in-place)
I0403 16:31:02.693625 18533 net.cpp:141] Setting up loss2/relu_conv
I0403 16:31:02.693670 18533 net.cpp:148] Top shape: 24 128 4 4 (49152)
I0403 16:31:02.693691 18533 net.cpp:156] Memory required for data: 1208122656
I0403 16:31:02.693714 18533 layer_factory.hpp:77] Creating layer loss2/fc
I0403 16:31:02.693740 18533 net.cpp:91] Creating Layer loss2/fc
I0403 16:31:02.693761 18533 net.cpp:425] loss2/fc <- loss2/conv
I0403 16:31:02.693786 18533 net.cpp:399] loss2/fc -> loss2/fc
I0403 16:31:02.716325 18533 net.cpp:141] Setting up loss2/fc
I0403 16:31:02.716372 18533 net.cpp:148] Top shape: 24 1024 (24576)
I0403 16:31:02.716393 18533 net.cpp:156] Memory required for data: 1208220960
I0403 16:31:02.716416 18533 layer_factory.hpp:77] Creating layer loss2/relu_fc
I0403 16:31:02.716439 18533 net.cpp:91] Creating Layer loss2/relu_fc
I0403 16:31:02.716459 18533 net.cpp:425] loss2/relu_fc <- loss2/fc
I0403 16:31:02.716480 18533 net.cpp:386] loss2/relu_fc -> loss2/fc (in-place)
I0403 16:31:02.716861 18533 net.cpp:141] Setting up loss2/relu_fc
I0403 16:31:02.716893 18533 net.cpp:148] Top shape: 24 1024 (24576)
I0403 16:31:02.716912 18533 net.cpp:156] Memory required for data: 1208319264
I0403 16:31:02.716931 18533 layer_factory.hpp:77] Creating layer loss2/drop_fc
I0403 16:31:02.716956 18533 net.cpp:91] Creating Layer loss2/drop_fc
I0403 16:31:02.716976 18533 net.cpp:425] loss2/drop_fc <- loss2/fc
I0403 16:31:02.716998 18533 net.cpp:386] loss2/drop_fc -> loss2/fc (in-place)
I0403 16:31:02.717063 18533 net.cpp:141] Setting up loss2/drop_fc
I0403 16:31:02.717092 18533 net.cpp:148] Top shape: 24 1024 (24576)
I0403 16:31:02.717110 18533 net.cpp:156] Memory required for data: 1208417568
I0403 16:31:02.717128 18533 layer_factory.hpp:77] Creating layer loss2/classifier_plantvillage
I0403 16:31:02.717154 18533 net.cpp:91] Creating Layer loss2/classifier_plantvillage
I0403 16:31:02.717175 18533 net.cpp:425] loss2/classifier_plantvillage <- loss2/fc
I0403 16:31:02.717196 18533 net.cpp:399] loss2/classifier_plantvillage -> loss2/classifier_plantvillage
I0403 16:31:02.717708 18533 net.cpp:141] Setting up loss2/classifier_plantvillage
I0403 16:31:02.717741 18533 net.cpp:148] Top shape: 24 38 (912)
I0403 16:31:02.717759 18533 net.cpp:156] Memory required for data: 1208421216
I0403 16:31:02.717803 18533 layer_factory.hpp:77] Creating layer loss2/classifier_plantvillage_loss2/classifier_plantvillage_0_split
I0403 16:31:02.717825 18533 net.cpp:91] Creating Layer loss2/classifier_plantvillage_loss2/classifier_plantvillage_0_split
I0403 16:31:02.717846 18533 net.cpp:425] loss2/classifier_plantvillage_loss2/classifier_plantvillage_0_split <- loss2/classifier_plantvillage
I0403 16:31:02.717871 18533 net.cpp:399] loss2/classifier_plantvillage_loss2/classifier_plantvillage_0_split -> loss2/classifier_plantvillage_loss2/classifier_plantvillage_0_split_0
I0403 16:31:02.717900 18533 net.cpp:399] loss2/classifier_plantvillage_loss2/classifier_plantvillage_0_split -> loss2/classifier_plantvillage_loss2/classifier_plantvillage_0_split_1
I0403 16:31:02.717926 18533 net.cpp:399] loss2/classifier_plantvillage_loss2/classifier_plantvillage_0_split -> loss2/classifier_plantvillage_loss2/classifier_plantvillage_0_split_2
I0403 16:31:02.718024 18533 net.cpp:141] Setting up loss2/classifier_plantvillage_loss2/classifier_plantvillage_0_split
I0403 16:31:02.718055 18533 net.cpp:148] Top shape: 24 38 (912)
I0403 16:31:02.718076 18533 net.cpp:148] Top shape: 24 38 (912)
I0403 16:31:02.718096 18533 net.cpp:148] Top shape: 24 38 (912)
I0403 16:31:02.718112 18533 net.cpp:156] Memory required for data: 1208432160
I0403 16:31:02.718130 18533 layer_factory.hpp:77] Creating layer inception_4e/1x1
I0403 16:31:02.718158 18533 net.cpp:91] Creating Layer inception_4e/1x1
I0403 16:31:02.718180 18533 net.cpp:425] inception_4e/1x1 <- inception_4d/output_inception_4d/output_0_split_1
I0403 16:31:02.718204 18533 net.cpp:399] inception_4e/1x1 -> inception_4e/1x1
I0403 16:31:02.720465 18533 net.cpp:141] Setting up inception_4e/1x1
I0403 16:31:02.720502 18533 net.cpp:148] Top shape: 24 256 14 14 (1204224)
I0403 16:31:02.720525 18533 net.cpp:156] Memory required for data: 1213249056
I0403 16:31:02.720546 18533 layer_factory.hpp:77] Creating layer inception_4e/relu_1x1
I0403 16:31:02.720569 18533 net.cpp:91] Creating Layer inception_4e/relu_1x1
I0403 16:31:02.720589 18533 net.cpp:425] inception_4e/relu_1x1 <- inception_4e/1x1
I0403 16:31:02.720619 18533 net.cpp:386] inception_4e/relu_1x1 -> inception_4e/1x1 (in-place)
I0403 16:31:02.720986 18533 net.cpp:141] Setting up inception_4e/relu_1x1
I0403 16:31:02.721021 18533 net.cpp:148] Top shape: 24 256 14 14 (1204224)
I0403 16:31:02.721041 18533 net.cpp:156] Memory required for data: 1218065952
I0403 16:31:02.721060 18533 layer_factory.hpp:77] Creating layer inception_4e/3x3_reduce
I0403 16:31:02.721087 18533 net.cpp:91] Creating Layer inception_4e/3x3_reduce
I0403 16:31:02.721108 18533 net.cpp:425] inception_4e/3x3_reduce <- inception_4d/output_inception_4d/output_0_split_2
I0403 16:31:02.721132 18533 net.cpp:399] inception_4e/3x3_reduce -> inception_4e/3x3_reduce
I0403 16:31:02.723760 18533 net.cpp:141] Setting up inception_4e/3x3_reduce
I0403 16:31:02.723800 18533 net.cpp:148] Top shape: 24 160 14 14 (752640)
I0403 16:31:02.723821 18533 net.cpp:156] Memory required for data: 1221076512
I0403 16:31:02.723844 18533 layer_factory.hpp:77] Creating layer inception_4e/relu_3x3_reduce
I0403 16:31:02.723866 18533 net.cpp:91] Creating Layer inception_4e/relu_3x3_reduce
I0403 16:31:02.723886 18533 net.cpp:425] inception_4e/relu_3x3_reduce <- inception_4e/3x3_reduce
I0403 16:31:02.723906 18533 net.cpp:386] inception_4e/relu_3x3_reduce -> inception_4e/3x3_reduce (in-place)
I0403 16:31:02.724144 18533 net.cpp:141] Setting up inception_4e/relu_3x3_reduce
I0403 16:31:02.724175 18533 net.cpp:148] Top shape: 24 160 14 14 (752640)
I0403 16:31:02.724194 18533 net.cpp:156] Memory required for data: 1224087072
I0403 16:31:02.724211 18533 layer_factory.hpp:77] Creating layer inception_4e/3x3
I0403 16:31:02.724238 18533 net.cpp:91] Creating Layer inception_4e/3x3
I0403 16:31:02.724261 18533 net.cpp:425] inception_4e/3x3 <- inception_4e/3x3_reduce
I0403 16:31:02.724287 18533 net.cpp:399] inception_4e/3x3 -> inception_4e/3x3
I0403 16:31:02.730509 18533 net.cpp:141] Setting up inception_4e/3x3
I0403 16:31:02.730564 18533 net.cpp:148] Top shape: 24 320 14 14 (1505280)
I0403 16:31:02.730584 18533 net.cpp:156] Memory required for data: 1230108192
I0403 16:31:02.730612 18533 layer_factory.hpp:77] Creating layer inception_4e/relu_3x3
I0403 16:31:02.730638 18533 net.cpp:91] Creating Layer inception_4e/relu_3x3
I0403 16:31:02.730662 18533 net.cpp:425] inception_4e/relu_3x3 <- inception_4e/3x3
I0403 16:31:02.730686 18533 net.cpp:386] inception_4e/relu_3x3 -> inception_4e/3x3 (in-place)
I0403 16:31:02.731051 18533 net.cpp:141] Setting up inception_4e/relu_3x3
I0403 16:31:02.731083 18533 net.cpp:148] Top shape: 24 320 14 14 (1505280)
I0403 16:31:02.731102 18533 net.cpp:156] Memory required for data: 1236129312
I0403 16:31:02.731120 18533 layer_factory.hpp:77] Creating layer inception_4e/5x5_reduce
I0403 16:31:02.731148 18533 net.cpp:91] Creating Layer inception_4e/5x5_reduce
I0403 16:31:02.731170 18533 net.cpp:425] inception_4e/5x5_reduce <- inception_4d/output_inception_4d/output_0_split_3
I0403 16:31:02.731196 18533 net.cpp:399] inception_4e/5x5_reduce -> inception_4e/5x5_reduce
I0403 16:31:02.732530 18533 net.cpp:141] Setting up inception_4e/5x5_reduce
I0403 16:31:02.732568 18533 net.cpp:148] Top shape: 24 32 14 14 (150528)
I0403 16:31:02.732589 18533 net.cpp:156] Memory required for data: 1236731424
I0403 16:31:02.732617 18533 layer_factory.hpp:77] Creating layer inception_4e/relu_5x5_reduce
I0403 16:31:02.732642 18533 net.cpp:91] Creating Layer inception_4e/relu_5x5_reduce
I0403 16:31:02.732662 18533 net.cpp:425] inception_4e/relu_5x5_reduce <- inception_4e/5x5_reduce
I0403 16:31:02.732687 18533 net.cpp:386] inception_4e/relu_5x5_reduce -> inception_4e/5x5_reduce (in-place)
I0403 16:31:02.733053 18533 net.cpp:141] Setting up inception_4e/relu_5x5_reduce
I0403 16:31:02.733088 18533 net.cpp:148] Top shape: 24 32 14 14 (150528)
I0403 16:31:02.733108 18533 net.cpp:156] Memory required for data: 1237333536
I0403 16:31:02.733126 18533 layer_factory.hpp:77] Creating layer inception_4e/5x5
I0403 16:31:02.733172 18533 net.cpp:91] Creating Layer inception_4e/5x5
I0403 16:31:02.733196 18533 net.cpp:425] inception_4e/5x5 <- inception_4e/5x5_reduce
I0403 16:31:02.733219 18533 net.cpp:399] inception_4e/5x5 -> inception_4e/5x5
I0403 16:31:02.735481 18533 net.cpp:141] Setting up inception_4e/5x5
I0403 16:31:02.735514 18533 net.cpp:148] Top shape: 24 128 14 14 (602112)
I0403 16:31:02.735534 18533 net.cpp:156] Memory required for data: 1239741984
I0403 16:31:02.735558 18533 layer_factory.hpp:77] Creating layer inception_4e/relu_5x5
I0403 16:31:02.735584 18533 net.cpp:91] Creating Layer inception_4e/relu_5x5
I0403 16:31:02.735615 18533 net.cpp:425] inception_4e/relu_5x5 <- inception_4e/5x5
I0403 16:31:02.735642 18533 net.cpp:386] inception_4e/relu_5x5 -> inception_4e/5x5 (in-place)
I0403 16:31:02.735889 18533 net.cpp:141] Setting up inception_4e/relu_5x5
I0403 16:31:02.735924 18533 net.cpp:148] Top shape: 24 128 14 14 (602112)
I0403 16:31:02.735944 18533 net.cpp:156] Memory required for data: 1242150432
I0403 16:31:02.735962 18533 layer_factory.hpp:77] Creating layer inception_4e/pool
I0403 16:31:02.735985 18533 net.cpp:91] Creating Layer inception_4e/pool
I0403 16:31:02.736004 18533 net.cpp:425] inception_4e/pool <- inception_4d/output_inception_4d/output_0_split_4
I0403 16:31:02.736028 18533 net.cpp:399] inception_4e/pool -> inception_4e/pool
I0403 16:31:02.736117 18533 net.cpp:141] Setting up inception_4e/pool
I0403 16:31:02.736147 18533 net.cpp:148] Top shape: 24 528 14 14 (2483712)
I0403 16:31:02.736166 18533 net.cpp:156] Memory required for data: 1252085280
I0403 16:31:02.736182 18533 layer_factory.hpp:77] Creating layer inception_4e/pool_proj
I0403 16:31:02.736212 18533 net.cpp:91] Creating Layer inception_4e/pool_proj
I0403 16:31:02.736233 18533 net.cpp:425] inception_4e/pool_proj <- inception_4e/pool
I0403 16:31:02.736258 18533 net.cpp:399] inception_4e/pool_proj -> inception_4e/pool_proj
I0403 16:31:02.738119 18533 net.cpp:141] Setting up inception_4e/pool_proj
I0403 16:31:02.738154 18533 net.cpp:148] Top shape: 24 128 14 14 (602112)
I0403 16:31:02.738191 18533 net.cpp:156] Memory required for data: 1254493728
I0403 16:31:02.738215 18533 layer_factory.hpp:77] Creating layer inception_4e/relu_pool_proj
I0403 16:31:02.738241 18533 net.cpp:91] Creating Layer inception_4e/relu_pool_proj
I0403 16:31:02.738262 18533 net.cpp:425] inception_4e/relu_pool_proj <- inception_4e/pool_proj
I0403 16:31:02.738284 18533 net.cpp:386] inception_4e/relu_pool_proj -> inception_4e/pool_proj (in-place)
I0403 16:31:02.738649 18533 net.cpp:141] Setting up inception_4e/relu_pool_proj
I0403 16:31:02.738682 18533 net.cpp:148] Top shape: 24 128 14 14 (602112)
I0403 16:31:02.738701 18533 net.cpp:156] Memory required for data: 1256902176
I0403 16:31:02.738720 18533 layer_factory.hpp:77] Creating layer inception_4e/output
I0403 16:31:02.738744 18533 net.cpp:91] Creating Layer inception_4e/output
I0403 16:31:02.738767 18533 net.cpp:425] inception_4e/output <- inception_4e/1x1
I0403 16:31:02.738790 18533 net.cpp:425] inception_4e/output <- inception_4e/3x3
I0403 16:31:02.738808 18533 net.cpp:425] inception_4e/output <- inception_4e/5x5
I0403 16:31:02.738827 18533 net.cpp:425] inception_4e/output <- inception_4e/pool_proj
I0403 16:31:02.738848 18533 net.cpp:399] inception_4e/output -> inception_4e/output
I0403 16:31:02.738914 18533 net.cpp:141] Setting up inception_4e/output
I0403 16:31:02.738942 18533 net.cpp:148] Top shape: 24 832 14 14 (3913728)
I0403 16:31:02.738960 18533 net.cpp:156] Memory required for data: 1272557088
I0403 16:31:02.738978 18533 layer_factory.hpp:77] Creating layer pool4/3x3_s2
I0403 16:31:02.738999 18533 net.cpp:91] Creating Layer pool4/3x3_s2
I0403 16:31:02.739019 18533 net.cpp:425] pool4/3x3_s2 <- inception_4e/output
I0403 16:31:02.739043 18533 net.cpp:399] pool4/3x3_s2 -> pool4/3x3_s2
I0403 16:31:02.739126 18533 net.cpp:141] Setting up pool4/3x3_s2
I0403 16:31:02.739156 18533 net.cpp:148] Top shape: 24 832 7 7 (978432)
I0403 16:31:02.739174 18533 net.cpp:156] Memory required for data: 1276470816
I0403 16:31:02.739192 18533 layer_factory.hpp:77] Creating layer pool4/3x3_s2_pool4/3x3_s2_0_split
I0403 16:31:02.739217 18533 net.cpp:91] Creating Layer pool4/3x3_s2_pool4/3x3_s2_0_split
I0403 16:31:02.739238 18533 net.cpp:425] pool4/3x3_s2_pool4/3x3_s2_0_split <- pool4/3x3_s2
I0403 16:31:02.739262 18533 net.cpp:399] pool4/3x3_s2_pool4/3x3_s2_0_split -> pool4/3x3_s2_pool4/3x3_s2_0_split_0
I0403 16:31:02.739289 18533 net.cpp:399] pool4/3x3_s2_pool4/3x3_s2_0_split -> pool4/3x3_s2_pool4/3x3_s2_0_split_1
I0403 16:31:02.739315 18533 net.cpp:399] pool4/3x3_s2_pool4/3x3_s2_0_split -> pool4/3x3_s2_pool4/3x3_s2_0_split_2
I0403 16:31:02.739341 18533 net.cpp:399] pool4/3x3_s2_pool4/3x3_s2_0_split -> pool4/3x3_s2_pool4/3x3_s2_0_split_3
I0403 16:31:02.739455 18533 net.cpp:141] Setting up pool4/3x3_s2_pool4/3x3_s2_0_split
I0403 16:31:02.739485 18533 net.cpp:148] Top shape: 24 832 7 7 (978432)
I0403 16:31:02.739505 18533 net.cpp:148] Top shape: 24 832 7 7 (978432)
I0403 16:31:02.739523 18533 net.cpp:148] Top shape: 24 832 7 7 (978432)
I0403 16:31:02.739542 18533 net.cpp:148] Top shape: 24 832 7 7 (978432)
I0403 16:31:02.739558 18533 net.cpp:156] Memory required for data: 1292125728
I0403 16:31:02.739575 18533 layer_factory.hpp:77] Creating layer inception_5a/1x1
I0403 16:31:02.739606 18533 net.cpp:91] Creating Layer inception_5a/1x1
I0403 16:31:02.739630 18533 net.cpp:425] inception_5a/1x1 <- pool4/3x3_s2_pool4/3x3_s2_0_split_0
I0403 16:31:02.739657 18533 net.cpp:399] inception_5a/1x1 -> inception_5a/1x1
I0403 16:31:02.743180 18533 net.cpp:141] Setting up inception_5a/1x1
I0403 16:31:02.743221 18533 net.cpp:148] Top shape: 24 256 7 7 (301056)
I0403 16:31:02.743242 18533 net.cpp:156] Memory required for data: 1293329952
I0403 16:31:02.743264 18533 layer_factory.hpp:77] Creating layer inception_5a/relu_1x1
I0403 16:31:02.743286 18533 net.cpp:91] Creating Layer inception_5a/relu_1x1
I0403 16:31:02.743306 18533 net.cpp:425] inception_5a/relu_1x1 <- inception_5a/1x1
I0403 16:31:02.743329 18533 net.cpp:386] inception_5a/relu_1x1 -> inception_5a/1x1 (in-place)
I0403 16:31:02.743737 18533 net.cpp:141] Setting up inception_5a/relu_1x1
I0403 16:31:02.743772 18533 net.cpp:148] Top shape: 24 256 7 7 (301056)
I0403 16:31:02.743791 18533 net.cpp:156] Memory required for data: 1294534176
I0403 16:31:02.743810 18533 layer_factory.hpp:77] Creating layer inception_5a/3x3_reduce
I0403 16:31:02.743836 18533 net.cpp:91] Creating Layer inception_5a/3x3_reduce
I0403 16:31:02.743859 18533 net.cpp:425] inception_5a/3x3_reduce <- pool4/3x3_s2_pool4/3x3_s2_0_split_1
I0403 16:31:02.743882 18533 net.cpp:399] inception_5a/3x3_reduce -> inception_5a/3x3_reduce
I0403 16:31:02.746923 18533 net.cpp:141] Setting up inception_5a/3x3_reduce
I0403 16:31:02.746960 18533 net.cpp:148] Top shape: 24 160 7 7 (188160)
I0403 16:31:02.746980 18533 net.cpp:156] Memory required for data: 1295286816
I0403 16:31:02.747002 18533 layer_factory.hpp:77] Creating layer inception_5a/relu_3x3_reduce
I0403 16:31:02.747027 18533 net.cpp:91] Creating Layer inception_5a/relu_3x3_reduce
I0403 16:31:02.747048 18533 net.cpp:425] inception_5a/relu_3x3_reduce <- inception_5a/3x3_reduce
I0403 16:31:02.747071 18533 net.cpp:386] inception_5a/relu_3x3_reduce -> inception_5a/3x3_reduce (in-place)
I0403 16:31:02.747303 18533 net.cpp:141] Setting up inception_5a/relu_3x3_reduce
I0403 16:31:02.747333 18533 net.cpp:148] Top shape: 24 160 7 7 (188160)
I0403 16:31:02.747354 18533 net.cpp:156] Memory required for data: 1296039456
I0403 16:31:02.747372 18533 layer_factory.hpp:77] Creating layer inception_5a/3x3
I0403 16:31:02.747396 18533 net.cpp:91] Creating Layer inception_5a/3x3
I0403 16:31:02.747417 18533 net.cpp:425] inception_5a/3x3 <- inception_5a/3x3_reduce
I0403 16:31:02.747444 18533 net.cpp:399] inception_5a/3x3 -> inception_5a/3x3
I0403 16:31:02.753700 18533 net.cpp:141] Setting up inception_5a/3x3
I0403 16:31:02.753738 18533 net.cpp:148] Top shape: 24 320 7 7 (376320)
I0403 16:31:02.753757 18533 net.cpp:156] Memory required for data: 1297544736
I0403 16:31:02.753780 18533 layer_factory.hpp:77] Creating layer inception_5a/relu_3x3
I0403 16:31:02.753805 18533 net.cpp:91] Creating Layer inception_5a/relu_3x3
I0403 16:31:02.753826 18533 net.cpp:425] inception_5a/relu_3x3 <- inception_5a/3x3
I0403 16:31:02.753847 18533 net.cpp:386] inception_5a/relu_3x3 -> inception_5a/3x3 (in-place)
I0403 16:31:02.754206 18533 net.cpp:141] Setting up inception_5a/relu_3x3
I0403 16:31:02.754238 18533 net.cpp:148] Top shape: 24 320 7 7 (376320)
I0403 16:31:02.754257 18533 net.cpp:156] Memory required for data: 1299050016
I0403 16:31:02.754276 18533 layer_factory.hpp:77] Creating layer inception_5a/5x5_reduce
I0403 16:31:02.754304 18533 net.cpp:91] Creating Layer inception_5a/5x5_reduce
I0403 16:31:02.754326 18533 net.cpp:425] inception_5a/5x5_reduce <- pool4/3x3_s2_pool4/3x3_s2_0_split_2
I0403 16:31:02.754350 18533 net.cpp:399] inception_5a/5x5_reduce -> inception_5a/5x5_reduce
I0403 16:31:02.755815 18533 net.cpp:141] Setting up inception_5a/5x5_reduce
I0403 16:31:02.755853 18533 net.cpp:148] Top shape: 24 32 7 7 (37632)
I0403 16:31:02.755873 18533 net.cpp:156] Memory required for data: 1299200544
I0403 16:31:02.755895 18533 layer_factory.hpp:77] Creating layer inception_5a/relu_5x5_reduce
I0403 16:31:02.755918 18533 net.cpp:91] Creating Layer inception_5a/relu_5x5_reduce
I0403 16:31:02.755938 18533 net.cpp:425] inception_5a/relu_5x5_reduce <- inception_5a/5x5_reduce
I0403 16:31:02.755957 18533 net.cpp:386] inception_5a/relu_5x5_reduce -> inception_5a/5x5_reduce (in-place)
I0403 16:31:02.756327 18533 net.cpp:141] Setting up inception_5a/relu_5x5_reduce
I0403 16:31:02.756362 18533 net.cpp:148] Top shape: 24 32 7 7 (37632)
I0403 16:31:02.756382 18533 net.cpp:156] Memory required for data: 1299351072
I0403 16:31:02.756400 18533 layer_factory.hpp:77] Creating layer inception_5a/5x5
I0403 16:31:02.756428 18533 net.cpp:91] Creating Layer inception_5a/5x5
I0403 16:31:02.756449 18533 net.cpp:425] inception_5a/5x5 <- inception_5a/5x5_reduce
I0403 16:31:02.756472 18533 net.cpp:399] inception_5a/5x5 -> inception_5a/5x5
I0403 16:31:02.758627 18533 net.cpp:141] Setting up inception_5a/5x5
I0403 16:31:02.758676 18533 net.cpp:148] Top shape: 24 128 7 7 (150528)
I0403 16:31:02.758695 18533 net.cpp:156] Memory required for data: 1299953184
I0403 16:31:02.758718 18533 layer_factory.hpp:77] Creating layer inception_5a/relu_5x5
I0403 16:31:02.758744 18533 net.cpp:91] Creating Layer inception_5a/relu_5x5
I0403 16:31:02.758766 18533 net.cpp:425] inception_5a/relu_5x5 <- inception_5a/5x5
I0403 16:31:02.758787 18533 net.cpp:386] inception_5a/relu_5x5 -> inception_5a/5x5 (in-place)
I0403 16:31:02.759029 18533 net.cpp:141] Setting up inception_5a/relu_5x5
I0403 16:31:02.759060 18533 net.cpp:148] Top shape: 24 128 7 7 (150528)
I0403 16:31:02.759078 18533 net.cpp:156] Memory required for data: 1300555296
I0403 16:31:02.759094 18533 layer_factory.hpp:77] Creating layer inception_5a/pool
I0403 16:31:02.759115 18533 net.cpp:91] Creating Layer inception_5a/pool
I0403 16:31:02.759135 18533 net.cpp:425] inception_5a/pool <- pool4/3x3_s2_pool4/3x3_s2_0_split_3
I0403 16:31:02.759160 18533 net.cpp:399] inception_5a/pool -> inception_5a/pool
I0403 16:31:02.759248 18533 net.cpp:141] Setting up inception_5a/pool
I0403 16:31:02.759277 18533 net.cpp:148] Top shape: 24 832 7 7 (978432)
I0403 16:31:02.759294 18533 net.cpp:156] Memory required for data: 1304469024
I0403 16:31:02.759311 18533 layer_factory.hpp:77] Creating layer inception_5a/pool_proj
I0403 16:31:02.759340 18533 net.cpp:91] Creating Layer inception_5a/pool_proj
I0403 16:31:02.759361 18533 net.cpp:425] inception_5a/pool_proj <- inception_5a/pool
I0403 16:31:02.759384 18533 net.cpp:399] inception_5a/pool_proj -> inception_5a/pool_proj
I0403 16:31:02.762193 18533 net.cpp:141] Setting up inception_5a/pool_proj
I0403 16:31:02.762230 18533 net.cpp:148] Top shape: 24 128 7 7 (150528)
I0403 16:31:02.762249 18533 net.cpp:156] Memory required for data: 1305071136
I0403 16:31:02.762272 18533 layer_factory.hpp:77] Creating layer inception_5a/relu_pool_proj
I0403 16:31:02.762296 18533 net.cpp:91] Creating Layer inception_5a/relu_pool_proj
I0403 16:31:02.762318 18533 net.cpp:425] inception_5a/relu_pool_proj <- inception_5a/pool_proj
I0403 16:31:02.762341 18533 net.cpp:386] inception_5a/relu_pool_proj -> inception_5a/pool_proj (in-place)
I0403 16:31:02.762712 18533 net.cpp:141] Setting up inception_5a/relu_pool_proj
I0403 16:31:02.762745 18533 net.cpp:148] Top shape: 24 128 7 7 (150528)
I0403 16:31:02.762765 18533 net.cpp:156] Memory required for data: 1305673248
I0403 16:31:02.762784 18533 layer_factory.hpp:77] Creating layer inception_5a/output
I0403 16:31:02.762807 18533 net.cpp:91] Creating Layer inception_5a/output
I0403 16:31:02.762828 18533 net.cpp:425] inception_5a/output <- inception_5a/1x1
I0403 16:31:02.762848 18533 net.cpp:425] inception_5a/output <- inception_5a/3x3
I0403 16:31:02.762868 18533 net.cpp:425] inception_5a/output <- inception_5a/5x5
I0403 16:31:02.762888 18533 net.cpp:425] inception_5a/output <- inception_5a/pool_proj
I0403 16:31:02.762908 18533 net.cpp:399] inception_5a/output -> inception_5a/output
I0403 16:31:02.762972 18533 net.cpp:141] Setting up inception_5a/output
I0403 16:31:02.763002 18533 net.cpp:148] Top shape: 24 832 7 7 (978432)
I0403 16:31:02.763020 18533 net.cpp:156] Memory required for data: 1309586976
I0403 16:31:02.763036 18533 layer_factory.hpp:77] Creating layer inception_5a/output_inception_5a/output_0_split
I0403 16:31:02.763057 18533 net.cpp:91] Creating Layer inception_5a/output_inception_5a/output_0_split
I0403 16:31:02.763077 18533 net.cpp:425] inception_5a/output_inception_5a/output_0_split <- inception_5a/output
I0403 16:31:02.763100 18533 net.cpp:399] inception_5a/output_inception_5a/output_0_split -> inception_5a/output_inception_5a/output_0_split_0
I0403 16:31:02.763128 18533 net.cpp:399] inception_5a/output_inception_5a/output_0_split -> inception_5a/output_inception_5a/output_0_split_1
I0403 16:31:02.763152 18533 net.cpp:399] inception_5a/output_inception_5a/output_0_split -> inception_5a/output_inception_5a/output_0_split_2
I0403 16:31:02.763177 18533 net.cpp:399] inception_5a/output_inception_5a/output_0_split -> inception_5a/output_inception_5a/output_0_split_3
I0403 16:31:02.763315 18533 net.cpp:141] Setting up inception_5a/output_inception_5a/output_0_split
I0403 16:31:02.763346 18533 net.cpp:148] Top shape: 24 832 7 7 (978432)
I0403 16:31:02.763367 18533 net.cpp:148] Top shape: 24 832 7 7 (978432)
I0403 16:31:02.763387 18533 net.cpp:148] Top shape: 24 832 7 7 (978432)
I0403 16:31:02.763406 18533 net.cpp:148] Top shape: 24 832 7 7 (978432)
I0403 16:31:02.763422 18533 net.cpp:156] Memory required for data: 1325241888
I0403 16:31:02.763439 18533 layer_factory.hpp:77] Creating layer inception_5b/1x1
I0403 16:31:02.763465 18533 net.cpp:91] Creating Layer inception_5b/1x1
I0403 16:31:02.763487 18533 net.cpp:425] inception_5b/1x1 <- inception_5a/output_inception_5a/output_0_split_0
I0403 16:31:02.763510 18533 net.cpp:399] inception_5b/1x1 -> inception_5b/1x1
I0403 16:31:02.768146 18533 net.cpp:141] Setting up inception_5b/1x1
I0403 16:31:02.768183 18533 net.cpp:148] Top shape: 24 384 7 7 (451584)
I0403 16:31:02.768203 18533 net.cpp:156] Memory required for data: 1327048224
I0403 16:31:02.768224 18533 layer_factory.hpp:77] Creating layer inception_5b/relu_1x1
I0403 16:31:02.768249 18533 net.cpp:91] Creating Layer inception_5b/relu_1x1
I0403 16:31:02.768271 18533 net.cpp:425] inception_5b/relu_1x1 <- inception_5b/1x1
I0403 16:31:02.768292 18533 net.cpp:386] inception_5b/relu_1x1 -> inception_5b/1x1 (in-place)
I0403 16:31:02.768674 18533 net.cpp:141] Setting up inception_5b/relu_1x1
I0403 16:31:02.768707 18533 net.cpp:148] Top shape: 24 384 7 7 (451584)
I0403 16:31:02.768725 18533 net.cpp:156] Memory required for data: 1328854560
I0403 16:31:02.768743 18533 layer_factory.hpp:77] Creating layer inception_5b/3x3_reduce
I0403 16:31:02.768770 18533 net.cpp:91] Creating Layer inception_5b/3x3_reduce
I0403 16:31:02.768792 18533 net.cpp:425] inception_5b/3x3_reduce <- inception_5a/output_inception_5a/output_0_split_1
I0403 16:31:02.768820 18533 net.cpp:399] inception_5b/3x3_reduce -> inception_5b/3x3_reduce
I0403 16:31:02.772094 18533 net.cpp:141] Setting up inception_5b/3x3_reduce
I0403 16:31:02.772130 18533 net.cpp:148] Top shape: 24 192 7 7 (225792)
I0403 16:31:02.772150 18533 net.cpp:156] Memory required for data: 1329757728
I0403 16:31:02.772171 18533 layer_factory.hpp:77] Creating layer inception_5b/relu_3x3_reduce
I0403 16:31:02.772197 18533 net.cpp:91] Creating Layer inception_5b/relu_3x3_reduce
I0403 16:31:02.772218 18533 net.cpp:425] inception_5b/relu_3x3_reduce <- inception_5b/3x3_reduce
I0403 16:31:02.772239 18533 net.cpp:386] inception_5b/relu_3x3_reduce -> inception_5b/3x3_reduce (in-place)
I0403 16:31:02.772480 18533 net.cpp:141] Setting up inception_5b/relu_3x3_reduce
I0403 16:31:02.772510 18533 net.cpp:148] Top shape: 24 192 7 7 (225792)
I0403 16:31:02.772526 18533 net.cpp:156] Memory required for data: 1330660896
I0403 16:31:02.772544 18533 layer_factory.hpp:77] Creating layer inception_5b/3x3
I0403 16:31:02.772572 18533 net.cpp:91] Creating Layer inception_5b/3x3
I0403 16:31:02.772593 18533 net.cpp:425] inception_5b/3x3 <- inception_5b/3x3_reduce
I0403 16:31:02.772622 18533 net.cpp:399] inception_5b/3x3 -> inception_5b/3x3
I0403 16:31:02.780963 18533 net.cpp:141] Setting up inception_5b/3x3
I0403 16:31:02.780999 18533 net.cpp:148] Top shape: 24 384 7 7 (451584)
I0403 16:31:02.781018 18533 net.cpp:156] Memory required for data: 1332467232
I0403 16:31:02.781041 18533 layer_factory.hpp:77] Creating layer inception_5b/relu_3x3
I0403 16:31:02.781066 18533 net.cpp:91] Creating Layer inception_5b/relu_3x3
I0403 16:31:02.781086 18533 net.cpp:425] inception_5b/relu_3x3 <- inception_5b/3x3
I0403 16:31:02.781108 18533 net.cpp:386] inception_5b/relu_3x3 -> inception_5b/3x3 (in-place)
I0403 16:31:02.781476 18533 net.cpp:141] Setting up inception_5b/relu_3x3
I0403 16:31:02.781507 18533 net.cpp:148] Top shape: 24 384 7 7 (451584)
I0403 16:31:02.781527 18533 net.cpp:156] Memory required for data: 1334273568
I0403 16:31:02.781544 18533 layer_factory.hpp:77] Creating layer inception_5b/5x5_reduce
I0403 16:31:02.781590 18533 net.cpp:91] Creating Layer inception_5b/5x5_reduce
I0403 16:31:02.781620 18533 net.cpp:425] inception_5b/5x5_reduce <- inception_5a/output_inception_5a/output_0_split_2
I0403 16:31:02.781647 18533 net.cpp:399] inception_5b/5x5_reduce -> inception_5b/5x5_reduce
I0403 16:31:02.783237 18533 net.cpp:141] Setting up inception_5b/5x5_reduce
I0403 16:31:02.783272 18533 net.cpp:148] Top shape: 24 48 7 7 (56448)
I0403 16:31:02.783290 18533 net.cpp:156] Memory required for data: 1334499360
I0403 16:31:02.783311 18533 layer_factory.hpp:77] Creating layer inception_5b/relu_5x5_reduce
I0403 16:31:02.783335 18533 net.cpp:91] Creating Layer inception_5b/relu_5x5_reduce
I0403 16:31:02.783357 18533 net.cpp:425] inception_5b/relu_5x5_reduce <- inception_5b/5x5_reduce
I0403 16:31:02.783378 18533 net.cpp:386] inception_5b/relu_5x5_reduce -> inception_5b/5x5_reduce (in-place)
I0403 16:31:02.783843 18533 net.cpp:141] Setting up inception_5b/relu_5x5_reduce
I0403 16:31:02.783876 18533 net.cpp:148] Top shape: 24 48 7 7 (56448)
I0403 16:31:02.783895 18533 net.cpp:156] Memory required for data: 1334725152
I0403 16:31:02.783912 18533 layer_factory.hpp:77] Creating layer inception_5b/5x5
I0403 16:31:02.783936 18533 net.cpp:91] Creating Layer inception_5b/5x5
I0403 16:31:02.783957 18533 net.cpp:425] inception_5b/5x5 <- inception_5b/5x5_reduce
I0403 16:31:02.783980 18533 net.cpp:399] inception_5b/5x5 -> inception_5b/5x5
I0403 16:31:02.786537 18533 net.cpp:141] Setting up inception_5b/5x5
I0403 16:31:02.786574 18533 net.cpp:148] Top shape: 24 128 7 7 (150528)
I0403 16:31:02.786595 18533 net.cpp:156] Memory required for data: 1335327264
I0403 16:31:02.786623 18533 layer_factory.hpp:77] Creating layer inception_5b/relu_5x5
I0403 16:31:02.786646 18533 net.cpp:91] Creating Layer inception_5b/relu_5x5
I0403 16:31:02.786666 18533 net.cpp:425] inception_5b/relu_5x5 <- inception_5b/5x5
I0403 16:31:02.786687 18533 net.cpp:386] inception_5b/relu_5x5 -> inception_5b/5x5 (in-place)
I0403 16:31:02.786931 18533 net.cpp:141] Setting up inception_5b/relu_5x5
I0403 16:31:02.786964 18533 net.cpp:148] Top shape: 24 128 7 7 (150528)
I0403 16:31:02.786983 18533 net.cpp:156] Memory required for data: 1335929376
I0403 16:31:02.787001 18533 layer_factory.hpp:77] Creating layer inception_5b/pool
I0403 16:31:02.787022 18533 net.cpp:91] Creating Layer inception_5b/pool
I0403 16:31:02.787044 18533 net.cpp:425] inception_5b/pool <- inception_5a/output_inception_5a/output_0_split_3
I0403 16:31:02.787068 18533 net.cpp:399] inception_5b/pool -> inception_5b/pool
I0403 16:31:02.787158 18533 net.cpp:141] Setting up inception_5b/pool
I0403 16:31:02.787189 18533 net.cpp:148] Top shape: 24 832 7 7 (978432)
I0403 16:31:02.787206 18533 net.cpp:156] Memory required for data: 1339843104
I0403 16:31:02.787223 18533 layer_factory.hpp:77] Creating layer inception_5b/pool_proj
I0403 16:31:02.787250 18533 net.cpp:91] Creating Layer inception_5b/pool_proj
I0403 16:31:02.787271 18533 net.cpp:425] inception_5b/pool_proj <- inception_5b/pool
I0403 16:31:02.787294 18533 net.cpp:399] inception_5b/pool_proj -> inception_5b/pool_proj
I0403 16:31:02.790144 18533 net.cpp:141] Setting up inception_5b/pool_proj
I0403 16:31:02.790181 18533 net.cpp:148] Top shape: 24 128 7 7 (150528)
I0403 16:31:02.790199 18533 net.cpp:156] Memory required for data: 1340445216
I0403 16:31:02.790221 18533 layer_factory.hpp:77] Creating layer inception_5b/relu_pool_proj
I0403 16:31:02.790246 18533 net.cpp:91] Creating Layer inception_5b/relu_pool_proj
I0403 16:31:02.790267 18533 net.cpp:425] inception_5b/relu_pool_proj <- inception_5b/pool_proj
I0403 16:31:02.790288 18533 net.cpp:386] inception_5b/relu_pool_proj -> inception_5b/pool_proj (in-place)
I0403 16:31:02.790673 18533 net.cpp:141] Setting up inception_5b/relu_pool_proj
I0403 16:31:02.790704 18533 net.cpp:148] Top shape: 24 128 7 7 (150528)
I0403 16:31:02.790722 18533 net.cpp:156] Memory required for data: 1341047328
I0403 16:31:02.790740 18533 layer_factory.hpp:77] Creating layer inception_5b/output
I0403 16:31:02.790765 18533 net.cpp:91] Creating Layer inception_5b/output
I0403 16:31:02.790802 18533 net.cpp:425] inception_5b/output <- inception_5b/1x1
I0403 16:31:02.790823 18533 net.cpp:425] inception_5b/output <- inception_5b/3x3
I0403 16:31:02.790843 18533 net.cpp:425] inception_5b/output <- inception_5b/5x5
I0403 16:31:02.790863 18533 net.cpp:425] inception_5b/output <- inception_5b/pool_proj
I0403 16:31:02.790884 18533 net.cpp:399] inception_5b/output -> inception_5b/output
I0403 16:31:02.790951 18533 net.cpp:141] Setting up inception_5b/output
I0403 16:31:02.790979 18533 net.cpp:148] Top shape: 24 1024 7 7 (1204224)
I0403 16:31:02.790997 18533 net.cpp:156] Memory required for data: 1345864224
I0403 16:31:02.791014 18533 layer_factory.hpp:77] Creating layer pool5/7x7_s1
I0403 16:31:02.791036 18533 net.cpp:91] Creating Layer pool5/7x7_s1
I0403 16:31:02.791055 18533 net.cpp:425] pool5/7x7_s1 <- inception_5b/output
I0403 16:31:02.791080 18533 net.cpp:399] pool5/7x7_s1 -> pool5/7x7_s1
I0403 16:31:02.791354 18533 net.cpp:141] Setting up pool5/7x7_s1
I0403 16:31:02.791385 18533 net.cpp:148] Top shape: 24 1024 1 1 (24576)
I0403 16:31:02.791404 18533 net.cpp:156] Memory required for data: 1345962528
I0403 16:31:02.791421 18533 layer_factory.hpp:77] Creating layer pool5/drop_7x7_s1
I0403 16:31:02.791445 18533 net.cpp:91] Creating Layer pool5/drop_7x7_s1
I0403 16:31:02.791466 18533 net.cpp:425] pool5/drop_7x7_s1 <- pool5/7x7_s1
I0403 16:31:02.791487 18533 net.cpp:386] pool5/drop_7x7_s1 -> pool5/7x7_s1 (in-place)
I0403 16:31:02.791551 18533 net.cpp:141] Setting up pool5/drop_7x7_s1
I0403 16:31:02.791580 18533 net.cpp:148] Top shape: 24 1024 1 1 (24576)
I0403 16:31:02.791597 18533 net.cpp:156] Memory required for data: 1346060832
I0403 16:31:02.791621 18533 layer_factory.hpp:77] Creating layer loss3/classifier_plantvillage
I0403 16:31:02.791648 18533 net.cpp:91] Creating Layer loss3/classifier_plantvillage
I0403 16:31:02.791669 18533 net.cpp:425] loss3/classifier_plantvillage <- pool5/7x7_s1
I0403 16:31:02.791692 18533 net.cpp:399] loss3/classifier_plantvillage -> loss3/classifier_plantvillage
I0403 16:31:02.792222 18533 net.cpp:141] Setting up loss3/classifier_plantvillage
I0403 16:31:02.792251 18533 net.cpp:148] Top shape: 24 38 (912)
I0403 16:31:02.792269 18533 net.cpp:156] Memory required for data: 1346064480
I0403 16:31:02.792290 18533 layer_factory.hpp:77] Creating layer loss3/classifier_plantvillage_loss3/classifier_plantvillage_0_split
I0403 16:31:02.792312 18533 net.cpp:91] Creating Layer loss3/classifier_plantvillage_loss3/classifier_plantvillage_0_split
I0403 16:31:02.792331 18533 net.cpp:425] loss3/classifier_plantvillage_loss3/classifier_plantvillage_0_split <- loss3/classifier_plantvillage
I0403 16:31:02.792354 18533 net.cpp:399] loss3/classifier_plantvillage_loss3/classifier_plantvillage_0_split -> loss3/classifier_plantvillage_loss3/classifier_plantvillage_0_split_0
I0403 16:31:02.792382 18533 net.cpp:399] loss3/classifier_plantvillage_loss3/classifier_plantvillage_0_split -> loss3/classifier_plantvillage_loss3/classifier_plantvillage_0_split_1
I0403 16:31:02.792407 18533 net.cpp:399] loss3/classifier_plantvillage_loss3/classifier_plantvillage_0_split -> loss3/classifier_plantvillage_loss3/classifier_plantvillage_0_split_2
I0403 16:31:02.792431 18533 net.cpp:399] loss3/classifier_plantvillage_loss3/classifier_plantvillage_0_split -> loss3/classifier_plantvillage_loss3/classifier_plantvillage_0_split_3
I0403 16:31:02.792556 18533 net.cpp:141] Setting up loss3/classifier_plantvillage_loss3/classifier_plantvillage_0_split
I0403 16:31:02.792583 18533 net.cpp:148] Top shape: 24 38 (912)
I0403 16:31:02.792608 18533 net.cpp:148] Top shape: 24 38 (912)
I0403 16:31:02.792629 18533 net.cpp:148] Top shape: 24 38 (912)
I0403 16:31:02.792647 18533 net.cpp:148] Top shape: 24 38 (912)
I0403 16:31:02.792664 18533 net.cpp:156] Memory required for data: 1346079072
I0403 16:31:02.792681 18533 layer_factory.hpp:77] Creating layer loss1/loss
I0403 16:31:02.792706 18533 net.cpp:91] Creating Layer loss1/loss
I0403 16:31:02.792727 18533 net.cpp:425] loss1/loss <- loss1/classifier_plantvillage_loss1/classifier_plantvillage_0_split_0
I0403 16:31:02.792765 18533 net.cpp:425] loss1/loss <- label_data_1_split_0
…
