…
I0403 16:09:19.715829 17232 net.cpp:313] The NetState phase (1) differed from the phase (0) specified by a rule in layer data
I0403 16:09:19.717223 17232 net.cpp:49] Initializing net from parameters: 
state {
  phase: TEST
}
layer {
  name: "data"
  type: "Data"
  top: "data"
  top: "label"
  include {
    phase: TEST
  }
  transform_param {
    mirror: false
    crop_size: 224
    mean_file: "/home/mohanty/data/final_dataset/lmdb/color-20-80/mean.binaryproto"
  }
  data_param {
    source: "/home/mohanty/data/final_dataset/lmdb/color-20-80/test_db"
    batch_size: 24
    backend: LMDB
  }
}
layer {
  name: "conv1/7x7_s2"
  type: "Convolution"
  bottom: "data"
  top: "conv1/7x7_s2"
  param {
    lr_mult: 1
    decay_mult: 1
  }
  param {
    lr_mult: 2
    decay_mult: 0
  }
  convolution_param {
    num_output: 64
    pad: 3
    kernel_size: 7
    stride: 2
    weight_filler {
      type: "xavier"
      std: 0.1
    }
    bias_filler {
      type: "constant"
      value: 0.2
    }
  }
}
layer {
  name: "conv1/relu_7x7"
  type: "ReLU"
  bottom: "conv1/7x7_s2"
  top: "conv1/7x7_s2"
}
layer {
  name: "pool1/3x3_s2"
  type: "Pooling"
  bottom: "conv1/7x7_s2"
  top: "pool1/3x3_s2"
  pooling_param {
    pool: MAX
    kernel_size: 3
    stride: 2
  }
}
layer {
  name: "pool1/norm1"
  type: "LRN"
  bottom: "pool1/3x3_s2"
  top: "pool1/norm1"
  lrn_param {
    local_size: 5
    alpha: 0.0001
    beta: 0.75
  }
}
layer {
  name: "conv2/3x3_reduce"
  type: "Convolution"
  bottom: "pool1/norm1"
  top: "conv2/3x3_reduce"
  param {
    lr_mult: 1
    decay_mult: 1
  }
  param {
    lr_mult: 2
    decay_mult: 0
  }
  convolution_param {
    num_output: 64
    kernel_size: 1
    weight_filler {
      type: "xavier"
      std: 0.1
    }
    bias_filler {
      type: "constant"
      value: 0.2
    }
  }
}
layer {
  name: "conv2/relu_3x3_reduce"
  type: "ReLU"
  bottom: "conv2/3x3_reduce"
  top: "conv2/3x3_reduce"
}
layer {
  name: "conv2/3x3"
  type: "Convolution"
  bottom: "conv2/3x3_reduce"
  top: "conv2/3x3"
  param {
    lr_mult: 1
    decay_mult: 1
  }
  param {
    lr_mult: 2
    decay_mult: 0
  }
  convolution_param {
    num_output: 192
    pad: 1
    kernel_size: 3
    weight_filler {
      type: "xavier"
      std: 0.03
    }
    bias_filler {
      type: "constant"
      value: 0.2
    }
  }
}
layer {
  name: "conv2/relu_3x3"
  type: "ReLU"
  bottom: "conv2/3x3"
  top: "conv2/3x3"
}
layer {
  name: "conv2/norm2"
  type: "LRN"
  bottom: "conv2/3x3"
  top: "conv2/norm2"
  lrn_param {
    local_size: 5
    alpha: 0.0001
    beta: 0.75
  }
}
layer {
  name: "pool2/3x3_s2"
  type: "Pooling"
  bottom: "conv2/norm2"
  top: "pool2/3x3_s2"
  pooling_param {
    pool: MAX
    kernel_size: 3
    stride: 2
  }
}
layer {
  name: "inception_3a/1x1"
  type: "Convolution"
  bottom: "pool2/3x3_s2"
  top: "inception_3a/1x1"
  param {
    lr_mult: 1
    decay_mult: 1
  }
  param {
    lr_mult: 2
    decay_mult: 0
  }
  convolution_param {
    num_output: 64
    kernel_size: 1
    weight_filler {
      type: "xavier"
      std: 0.03
    }
    bias_filler {
      type: "constant"
      value: 0.2
    }
  }
}
layer {
  name: "inception_3a/relu_1x1"
  type: "ReLU"
  bottom: "inception_3a/1x1"
  top: "inception_3a/1x1"
}
layer {
  name: "inception_3a/3x3_reduce"
  type: "Convolution"
  bottom: "pool2/3x3_s2"
  top: "inception_3a/3x3_reduce"
  param {
    lr_mult: 1
    decay_mult: 1
  }
  param {
    lr_mult: 2
    decay_mult: 0
  }
  convolution_param {
    num_output: 96
    kernel_size: 1
    weight_filler {
      type: "xavier"
      std: 0.09
    }
    bias_filler {
      type: "constant"
      value: 0.2
    }
  }
}
layer {
  name: "inception_3a/relu_3x3_reduce"
  type: "ReLU"
  bottom: "inception_3a/3x3_reduce"
  top: "inception_3a/3x3_reduce"
}
layer {
  name: "inception_3a/3x3"
  type: "Convolution"
  bottom: "inception_3a/3x3_reduce"
  top: "inception_3a/3x3"
  param {
    lr_mult: 1
    decay_mult: 1
  }
  param {
    lr_mult: 2
    decay_mult: 0
  }
  convolution_param {
    num_output: 128
    pad: 1
    kernel_size: 3
    weight_filler {
      type: "xavier"
      std: 0.03
    }
    bias_filler {
      type: "constant"
      value: 0.2
    }
  }
}
layer {
  name: "inception_3a/relu_3x3"
  type: "ReLU"
  bottom: "inception_3a/3x3"
  top: "inception_3a/3x3"
}
layer {
  name: "inception_3a/5x5_reduce"
  type: "Convolution"
  bottom: "pool2/3x3_s2"
  top: "inception_3a/5x5_reduce"
  param {
    lr_mult: 1
    decay_mult: 1
  }
  param {
    lr_mult: 2
    decay_mult: 0
  }
  convolution_param {
    num_output: 16
    kernel_size: 1
    weight_filler {
      type: "xavier"
      std: 0.2
    }
    bias_filler {
      type: "constant"
      value: 0.2
    }
  }
}
layer {
  name: "inception_3a/relu_5x5_reduce"
  type: "ReLU"
  bottom: "inception_3a/5x5_reduce"
  top: "inception_3a/5x5_reduce"
}
layer {
  name: "inception_3a/5x5"
  type: "Convolution"
  bottom: "inception_3a/5x5_reduce"
  top: "inception_3a/5x5"
  param {
    lr_mult: 1
    decay_mult: 1
  }
  param {
    lr_mult: 2
    decay_mult: 0
  }
  convolution_param {
    num_output: 32
    pad: 2
    kernel_size: 5
    weight_filler {
      type: "xavier"
      std: 0.03
    }
    bias_filler {
      type: "constant"
      value: 0.2
    }
  }
}
layer {
  name: "inception_3a/relu_5x5"
  type: "ReLU"
  bottom: "inception_3a/5x5"
  top: "inception_3a/5x5"
}
layer {
  name: "inception_3a/pool"
  type: "Pooling"
  bottom: "pool2/3x3_s2"
  top: "inception_3a/pool"
  pooling_param {
    pool: MAX
    kernel_size: 3
    stride: 1
    pad: 1
  }
}
layer {
  name: "inception_3a/pool_proj"
  type: "Convolution"
  bottom: "inception_3a/pool"
  top: "inception_3a/pool_proj"
  param {
    lr_mult: 1
    decay_mult: 1
  }
  param {
    lr_mult: 2
    decay_mult: 0
  }
  convolution_param {
    num_output: 32
    kernel_size: 1
    weight_filler {
      type: "xavier"
      std: 0.1
    }
    bias_filler {
      type: "constant"
      value: 0.2
    }
  }
}
layer {
  name: "inception_3a/relu_pool_proj"
  type: "ReLU"
  bottom: "inception_3a/pool_proj"
  top: "inception_3a/pool_proj"
}
layer {
  name: "inception_3a/output"
  type: "Concat"
  bottom: "inception_3a/1x1"
  bottom: "inception_3a/3x3"
  bottom: "inception_3a/5x5"
  bottom: "inception_3a/pool_proj"
  top: "inception_3a/output"
}
layer {
  name: "inception_3b/1x1"
  type: "Convolution"
  bottom: "inception_3a/output"
  top: "inception_3b/1x1"
  param {
    lr_mult: 1
    decay_mult: 1
  }
  param {
    lr_mult: 2
    decay_mult: 0
  }
  convolution_param {
    num_output: 128
    kernel_size: 1
    weight_filler {
      type: "xavier"
      std: 0.03
    }
    bias_filler {
      type: "constant"
      value: 0.2
    }
  }
}
layer {
  name: "inception_3b/relu_1x1"
  type: "ReLU"
  bottom: "inception_3b/1x1"
  top: "inception_3b/1x1"
}
layer {
  name: "inception_3b/3x3_reduce"
  type: "Convolution"
  bottom: "inception_3a/output"
  top: "inception_3b/3x3_reduce"
  param {
    lr_mult: 1
    decay_mult: 1
  }
  param {
    lr_mult: 2
    decay_mult: 0
  }
  convolution_param {
    num_output: 128
    kernel_size: 1
    weight_filler {
      type: "xavier"
      std: 0.09
    }
    bias_filler {
      type: "constant"
      value: 0.2
    }
  }
}
layer {
  name: "inception_3b/relu_3x3_reduce"
  type: "ReLU"
  bottom: "inception_3b/3x3_reduce"
  top: "inception_3b/3x3_reduce"
}
layer {
  name: "inception_3b/3x3"
  type: "Convolution"
  bottom: "inception_3b/3x3_reduce"
  top: "inception_3b/3x3"
  param {
    lr_mult: 1
    decay_mult: 1
  }
  param {
    lr_mult: 2
    decay_mult: 0
  }
  convolution_param {
    num_output: 192
    pad: 1
    kernel_size: 3
    weight_filler {
      type: "xavier"
      std: 0.03
    }
    bias_filler {
      type: "constant"
      value: 0.2
    }
  }
}
layer {
  name: "inception_3b/relu_3x3"
  type: "ReLU"
  bottom: "inception_3b/3x3"
  top: "inception_3b/3x3"
}
layer {
  name: "inception_3b/5x5_reduce"
  type: "Convolution"
  bottom: "inception_3a/output"
  top: "inception_3b/5x5_reduce"
  param {
    lr_mult: 1
    decay_mult: 1
  }
  param {
    lr_mult: 2
    decay_mult: 0
  }
  convolution_param {
    num_output: 32
    kernel_size: 1
    weight_filler {
      type: "xavier"
      std: 0.2
    }
    bias_filler {
      type: "constant"
      value: 0.2
    }
  }
}
layer {
  name: "inception_3b/relu_5x5_reduce"
  type: "ReLU"
  bottom: "inception_3b/5x5_reduce"
  top: "inception_3b/5x5_reduce"
}
layer {
  name: "inception_3b/5x5"
  type: "Convolution"
  bottom: "inception_3b/5x5_reduce"
  top: "inception_3b/5x5"
  param {
    lr_mult: 1
    decay_mult: 1
  }
  param {
    lr_mult: 2
    decay_mult: 0
  }
  convolution_param {
    num_output: 96
    pad: 2
    kernel_size: 5
    weight_filler {
      type: "xavier"
      std: 0.03
    }
    bias_filler {
      type: "constant"
      value: 0.2
    }
  }
}
layer {
  name: "inception_3b/relu_5x5"
  type: "ReLU"
  bottom: "inception_3b/5x5"
  top: "inception_3b/5x5"
}
layer {
  name: "inception_3b/pool"
  type: "Pooling"
  bottom: "inception_3a/output"
  top: "inception_3b/pool"
  pooling_param {
    pool: MAX
    kernel_size: 3
    stride: 1
    pad: 1
  }
}
layer {
  name: "inception_3b/pool_proj"
  type: "Convolution"
  bottom: "inception_3b/pool"
  top: "inception_3b/pool_proj"
  param {
    lr_mult: 1
    decay_mult: 1
  }
  param {
    lr_mult: 2
    decay_mult: 0
  }
  convolution_param {
    num_output: 64
    kernel_size: 1
    weight_filler {
      type: "xavier"
      std: 0.1
    }
    bias_filler {
      type: "constant"
      value: 0.2
    }
  }
}
layer {
  name: "inception_3b/relu_pool_proj"
  type: "ReLU"
  bottom: "inception_3b/pool_proj"
  top: "inception_3b/pool_proj"
}
layer {
  name: "inception_3b/output"
  type: "Concat"
  bottom: "inception_3b/1x1"
  bottom: "inception_3b/3x3"
  bottom: "inception_3b/5x5"
  bottom: "inception_3b/pool_proj"
  top: "inception_3b/output"
}
layer {
  name: "pool3/3x3_s2"
  type: "Pooling"
  bottom: "inception_3b/output"
  top: "pool3/3x3_s2"
  pooling_param {
    pool: MAX
    kernel_size: 3
    stride: 2
  }
}
layer {
  name: "inception_4a/1x1"
  type: "Convolution"
  bottom: "pool3/3x3_s2"
  top: "inception_4a/1x1"
  param {
    lr_mult: 1
    decay_mult: 1
  }
  param {
    lr_mult: 2
    decay_mult: 0
  }
  convolution_param {
    num_output: 192
    kernel_size: 1
    weight_filler {
      type: "xavier"
      std: 0.03
    }
    bias_filler {
      type: "constant"
      value: 0.2
    }
  }
}
layer {
  name: "inception_4a/relu_1x1"
  type: "ReLU"
  bottom: "inception_4a/1x1"
  top: "inception_4a/1x1"
}
layer {
  name: "inception_4a/3x3_reduce"
  type: "Convolution"
  bottom: "pool3/3x3_s2"
  top: "inception_4a/3x3_reduce"
  param {
    lr_mult: 1
    decay_mult: 1
  }
  param {
    lr_mult: 2
    decay_mult: 0
  }
  convolution_param {
    num_output: 96
    kernel_size: 1
    weight_filler {
      type: "xavier"
      std: 0.09
    }
    bias_filler {
      type: "constant"
      value: 0.2
    }
  }
}
layer {
  name: "inception_4a/relu_3x3_reduce"
  type: "ReLU"
  bottom: "inception_4a/3x3_reduce"
  top: "inception_4a/3x3_reduce"
}
layer {
  name: "inception_4a/3x3"
  type: "Convolution"
  bottom: "inception_4a/3x3_reduce"
  top: "inception_4a/3x3"
  param {
    lr_mult: 1
    decay_mult: 1
  }
  param {
    lr_mult: 2
    decay_mult: 0
  }
  convolution_param {
    num_output: 208
    pad: 1
    kernel_size: 3
    weight_filler {
      type: "xavier"
      std: 0.03
    }
    bias_filler {
      type: "constant"
      value: 0.2
    }
  }
}
layer {
  name: "inception_4a/relu_3x3"
  type: "ReLU"
  bottom: "inception_4a/3x3"
  top: "inception_4a/3x3"
}
layer {
  name: "inception_4a/5x5_reduce"
  type: "Convolution"
  bottom: "pool3/3x3_s2"
  top: "inception_4a/5x5_reduce"
  param {
    lr_mult: 1
    decay_mult: 1
  }
  param {
    lr_mult: 2
    decay_mult: 0
  }
  convolution_param {
    num_output: 16
    kernel_size: 1
    weight_filler {
      type: "xavier"
      std: 0.2
    }
    bias_filler {
      type: "constant"
      value: 0.2
    }
  }
}
layer {
  name: "inception_4a/relu_5x5_reduce"
  type: "ReLU"
  bottom: "inception_4a/5x5_reduce"
  top: "inception_4a/5x5_reduce"
}
layer {
  name: "inception_4a/5x5"
  type: "Convolution"
  bottom: "inception_4a/5x5_reduce"
  top: "inception_4a/5x5"
  param {
    lr_mult: 1
    decay_mult: 1
  }
  param {
    lr_mult: 2
    decay_mult: 0
  }
  convolution_param {
    num_output: 48
    pad: 2
    kernel_size: 5
    weight_filler {
      type: "xavier"
      std: 0.03
    }
    bias_filler {
      type: "constant"
      value: 0.2
    }
  }
}
layer {
  name: "inception_4a/relu_5x5"
  type: "ReLU"
  bottom: "inception_4a/5x5"
  top: "inception_4a/5x5"
}
layer {
  name: "inception_4a/pool"
  type: "Pooling"
  bottom: "pool3/3x3_s2"
  top: "inception_4a/pool"
  pooling_param {
    pool: MAX
    kernel_size: 3
    stride: 1
    pad: 1
  }
}
layer {
  name: "inception_4a/pool_proj"
  type: "Convolution"
  bottom: "inception_4a/pool"
  top: "inception_4a/pool_proj"
  param {
    lr_mult: 1
    decay_mult: 1
  }
  param {
    lr_mult: 2
    decay_mult: 0
  }
  convolution_param {
    num_output: 64
    kernel_size: 1
    weight_filler {
      type: "xavier"
      std: 0.1
    }
    bias_filler {
      type: "constant"
      value: 0.2
    }
  }
}
layer {
  name: "inception_4a/relu_pool_proj"
  type: "ReLU"
  bottom: "inception_4a/pool_proj"
  top: "inception_4a/pool_proj"
}
layer {
  name: "inception_4a/output"
  type: "Concat"
  bottom: "inception_4a/1x1"
  bottom: "inception_4a/3x3"
  bottom: "inception_4a/5x5"
  bottom: "inception_4a/pool_proj"
  top: "inception_4a/output"
}
layer {
  name: "loss1/ave_pool"
  type: "Pooling"
  bottom: "inception_4a/output"
  top: "loss1/ave_pool"
  pooling_param {
    pool: AVE
    kernel_size: 5
    stride: 3
  }
}
layer {
  name: "loss1/conv"
  type: "Convolution"
  bottom: "loss1/ave_pool"
  top: "loss1/conv"
  param {
    lr_mult: 1
    decay_mult: 1
  }
  param {
    lr_mult: 2
    decay_mult: 0
  }
  convolution_param {
    num_output: 128
    kernel_size: 1
    weight_filler {
      type: "xavier"
      std: 0.08
    }
    bias_filler {
      type: "constant"
      value: 0.2
    }
  }
}
layer {
  name: "loss1/relu_conv"
  type: "ReLU"
  bottom: "loss1/conv"
  top: "loss1/conv"
}
layer {
  name: "loss1/fc"
  type: "InnerProduct"
  bottom: "loss1/conv"
  top: "loss1/fc"
  param {
    lr_mult: 1
    decay_mult: 1
  }
  param {
    lr_mult: 2
    decay_mult: 0
  }
  inner_product_param {
    num_output: 1024
    weight_filler {
      type: "xavier"
      std: 0.02
    }
    bias_filler {
      type: "constant"
      value: 0.2
    }
  }
}
layer {
  name: "loss1/relu_fc"
  type: "ReLU"
  bottom: "loss1/fc"
  top: "loss1/fc"
}
layer {
  name: "loss1/drop_fc"
  type: "Dropout"
  bottom: "loss1/fc"
  top: "loss1/fc"
  dropout_param {
    dropout_ratio: 0.7
  }
}
layer {
  name: "loss1/classifier_plantvillage"
  type: "InnerProduct"
  bottom: "loss1/fc"
  top: "loss1/classifier_plantvillage"
  param {
    lr_mult: 1
    decay_mult: 1
  }
  param {
    lr_mult: 2
    decay_mult: 0
  }
  inner_product_param {
    num_output: 38
    weight_filler {
      type: "xavier"
      std: 0.0009765625
    }
    bias_filler {
      type: "constant"
      value: 0
    }
  }
}
layer {
  name: "inception_4b/1x1"
  type: "Convolution"
  bottom: "inception_4a/output"
  top: "inception_4b/1x1"
  param {
    lr_mult: 1
    decay_mult: 1
  }
  param {
    lr_mult: 2
    decay_mult: 0
  }
  convolution_param {
    num_output: 160
    kernel_size: 1
    weight_filler {
      type: "xavier"
      std: 0.03
    }
    bias_filler {
      type: "constant"
      value: 0.2
    }
  }
}
layer {
  name: "inception_4b/relu_1x1"
  type: "ReLU"
  bottom: "inception_4b/1x1"
  top: "inception_4b/1x1"
}
layer {
  name: "inception_4b/3x3_reduce"
  type: "Convolution"
  bottom: "inception_4a/output"
  top: "inception_4b/3x3_reduce"
  param {
    lr_mult: 1
    decay_mult: 1
  }
  param {
    lr_mult: 2
    decay_mult: 0
  }
  convolution_param {
    num_output: 112
    kernel_size: 1
    weight_filler {
      type: "xavier"
      std: 0.09
    }
    bias_filler {
      type: "constant"
      value: 0.2
    }
  }
}
layer {
  name: "inception_4b/relu_3x3_reduce"
  type: "ReLU"
  bottom: "inception_4b/3x3_reduce"
  top: "inception_4b/3x3_reduce"
}
layer {
  name: "inception_4b/3x3"
  type: "Convolution"
  bottom: "inception_4b/3x3_reduce"
  top: "inception_4b/3x3"
  param {
    lr_mult: 1
    decay_mult: 1
  }
  param {
    lr_mult: 2
    decay_mult: 0
  }
  convolution_param {
    num_output: 224
    pad: 1
    kernel_size: 3
    weight_filler {
      type: "xavier"
      std: 0.03
    }
    bias_filler {
      type: "constant"
      value: 0.2
    }
  }
}
layer {
  name: "inception_4b/relu_3x3"
  type: "ReLU"
  bottom: "inception_4b/3x3"
  top: "inception_4b/3x3"
}
layer {
  name: "inception_4b/5x5_reduce"
  type: "Convolution"
  bottom: "inception_4a/output"
  top: "inception_4b/5x5_reduce"
  param {
    lr_mult: 1
    decay_mult: 1
  }
  param {
    lr_mult: 2
    decay_mult: 0
  }
  convolution_param {
    num_output: 24
    kernel_size: 1
    weight_filler {
      type: "xavier"
      std: 0.2
    }
    bias_filler {
      type: "constant"
      value: 0.2
    }
  }
}
layer {
  name: "inception_4b/relu_5x5_reduce"
  type: "ReLU"
  bottom: "inception_4b/5x5_reduce"
  top: "inception_4b/5x5_reduce"
}
layer {
  name: "inception_4b/5x5"
  type: "Convolution"
  bottom: "inception_4b/5x5_reduce"
  top: "inception_4b/5x5"
  param {
    lr_mult: 1
    decay_mult: 1
  }
  param {
    lr_mult: 2
    decay_mult: 0
  }
  convolution_param {
    num_output: 64
    pad: 2
    kernel_size: 5
    weight_filler {
      type: "xavier"
      std: 0.03
    }
    bias_filler {
      type: "constant"
      value: 0.2
    }
  }
}
layer {
  name: "inception_4b/relu_5x5"
  type: "ReLU"
  bottom: "inception_4b/5x5"
  top: "inception_4b/5x5"
}
layer {
  name: "inception_4b/pool"
  type: "Pooling"
  bottom: "inception_4a/output"
  top: "inception_4b/pool"
  pooling_param {
    pool: MAX
    kernel_size: 3
    stride: 1
    pad: 1
  }
}
layer {
  name: "inception_4b/pool_proj"
  type: "Convolution"
  bottom: "inception_4b/pool"
  top: "inception_4b/pool_proj"
  param {
    lr_mult: 1
    decay_mult: 1
  }
  param {
    lr_mult: 2
    decay_mult: 0
  }
  convolution_param {
    num_output: 64
    kernel_size: 1
    weight_filler {
      type: "xavier"
      std: 0.1
    }
    bias_filler {
      type: "constant"
      value: 0.2
    }
  }
}
layer {
  name: "inception_4b/relu_pool_proj"
  type: "ReLU"
  bottom: "inception_4b/pool_proj"
  top: "inception_4b/pool_proj"
}
layer {
  name: "inception_4b/output"
  type: "Concat"
  bottom: "inception_4b/1x1"
  bottom: "inception_4b/3x3"
  bottom: "inception_4b/5x5"
  bottom: "inception_4b/pool_proj"
  top: "inception_4b/output"
}
layer {
  name: "inception_4c/1x1"
  type: "Convolution"
  bottom: "inception_4b/output"
  top: "inception_4c/1x1"
  param {
    lr_mult: 1
    decay_mult: 1
  }
  param {
    lr_mult: 2
    decay_mult: 0
  }
  convolution_param {
    num_output: 128
    kernel_size: 1
    weight_filler {
      type: "xavier"
      std: 0.03
    }
    bias_filler {
      type: "constant"
      value: 0.2
    }
  }
}
layer {
  name: "inception_4c/relu_1x1"
  type: "ReLU"
  bottom: "inception_4c/1x1"
  top: "inception_4c/1x1"
}
layer {
  name: "inception_4c/3x3_reduce"
  type: "Convolution"
  bottom: "inception_4b/output"
  top: "inception_4c/3x3_reduce"
  param {
    lr_mult: 1
    decay_mult: 1
  }
  param {
    lr_mult: 2
    decay_mult: 0
  }
  convolution_param {
    num_output: 128
    kernel_size: 1
    weight_filler {
      type: "xavier"
      std: 0.09
    }
    bias_filler {
      type: "constant"
      value: 0.2
    }
  }
}
layer {
  name: "inception_4c/relu_3x3_reduce"
  type: "ReLU"
  bottom: "inception_4c/3x3_reduce"
  top: "inception_4c/3x3_reduce"
}
layer {
  name: "inception_4c/3x3"
  type: "Convolution"
  bottom: "inception_4c/3x3_reduce"
  top: "inception_4c/3x3"
  param {
    lr_mult: 1
    decay_mult: 1
  }
  param {
    lr_mult: 2
    decay_mult: 0
  }
  convolution_param {
    num_output: 256
    pad: 1
    kernel_size: 3
    weight_filler {
      type: "xavier"
      std: 0.03
    }
    bias_filler {
      type: "constant"
      value: 0.2
    }
  }
}
layer {
  name: "inception_4c/relu_3x3"
  type: "ReLU"
  bottom: "inception_4c/3x3"
  top: "inception_4c/3x3"
}
layer {
  name: "inception_4c/5x5_reduce"
  type: "Convolution"
  bottom: "inception_4b/output"
  top: "inception_4c/5x5_reduce"
  param {
    lr_mult: 1
    decay_mult: 1
  }
  param {
    lr_mult: 2
    decay_mult: 0
  }
  convolution_param {
    num_output: 24
    kernel_size: 1
    weight_filler {
      type: "xavier"
      std: 0.2
    }
    bias_filler {
      type: "constant"
      value: 0.2
    }
  }
}
layer {
  name: "inception_4c/relu_5x5_reduce"
  type: "ReLU"
  bottom: "inception_4c/5x5_reduce"
  top: "inception_4c/5x5_reduce"
}
layer {
  name: "inception_4c/5x5"
  type: "Convolution"
  bottom: "inception_4c/5x5_reduce"
  top: "inception_4c/5x5"
  param {
    lr_mult: 1
    decay_mult: 1
  }
  param {
    lr_mult: 2
    decay_mult: 0
  }
  convolution_param {
    num_output: 64
    pad: 2
    kernel_size: 5
    weight_filler {
      type: "xavier"
      std: 0.03
    }
    bias_filler {
      type: "constant"
      value: 0.2
    }
  }
}
layer {
  name: "inception_4c/relu_5x5"
  type: "ReLU"
  bottom: "inception_4c/5x5"
  top: "inception_4c/5x5"
}
layer {
  name: "inception_4c/pool"
  type: "Pooling"
  bottom: "inception_4b/output"
  top: "inception_4c/pool"
  pooling_param {
    pool: MAX
    kernel_size: 3
    stride: 1
    pad: 1
  }
}
layer {
  name: "inception_4c/pool_proj"
  type: "Convolution"
  bottom: "inception_4c/pool"
  top: "inception_4c/pool_proj"
  param {
    lr_mult: 1
    decay_mult: 1
  }
  param {
    lr_mult: 2
    decay_mult: 0
  }
  convolution_param {
    num_output: 64
    kernel_size: 1
    weight_filler {
      type: "xavier"
      std: 0.1
    }
    bias_filler {
      type: "constant"
      value: 0.2
    }
  }
}
layer {
  name: "inception_4c/relu_pool_proj"
  type: "ReLU"
  bottom: "inception_4c/pool_proj"
  top: "inception_4c/pool_proj"
}
layer {
  name: "inception_4c/output"
  type: "Concat"
  bottom: "inception_4c/1x1"
  bottom: "inception_4c/3x3"
  bottom: "inception_4c/5x5"
  bottom: "inception_4c/pool_proj"
  top: "inception_4c/output"
}
layer {
  name: "inception_4d/1x1"
  type: "Convolution"
  bottom: "inception_4c/output"
  top: "inception_4d/1x1"
  param {
    lr_mult: 1
    decay_mult: 1
  }
  param {
    lr_mult: 2
    decay_mult: 0
  }
  convolution_param {
    num_output: 112
    kernel_size: 1
    weight_filler {
      type: "xavier"
      std: 0.03
    }
    bias_filler {
      type: "constant"
      value: 0.2
    }
  }
}
layer {
  name: "inception_4d/relu_1x1"
  type: "ReLU"
  bottom: "inception_4d/1x1"
  top: "inception_4d/1x1"
}
layer {
  name: "inception_4d/3x3_reduce"
  type: "Convolution"
  bottom: "inception_4c/output"
  top: "inception_4d/3x3_reduce"
  param {
    lr_mult: 1
    decay_mult: 1
  }
  param {
    lr_mult: 2
    decay_mult: 0
  }
  convolution_param {
    num_output: 144
    kernel_size: 1
    weight_filler {
      type: "xavier"
      std: 0.09
    }
    bias_filler {
      type: "constant"
      value: 0.2
    }
  }
}
layer {
  name: "inception_4d/relu_3x3_reduce"
  type: "ReLU"
  bottom: "inception_4d/3x3_reduce"
  top: "inception_4d/3x3_reduce"
}
layer {
  name: "inception_4d/3x3"
  type: "Convolution"
  bottom: "inception_4d/3x3_reduce"
  top: "inception_4d/3x3"
  param {
    lr_mult: 1
    decay_mult: 1
  }
  param {
    lr_mult: 2
    decay_mult: 0
  }
  convolution_param {
    num_output: 288
    pad: 1
    kernel_size: 3
    weight_filler {
      type: "xavier"
      std: 0.03
    }
    bias_filler {
      type: "constant"
      value: 0.2
    }
  }
}
layer {
  name: "inception_4d/relu_3x3"
  type: "ReLU"
  bottom: "inception_4d/3x3"
  top: "inception_4d/3x3"
}
layer {
  name: "inception_4d/5x5_reduce"
  type: "Convolution"
  bottom: "inception_4c/output"
  top: "inception_4d/5x5_reduce"
  param {
    lr_mult: 1
    decay_mult: 1
  }
  param {
    lr_mult: 2
    decay_mult: 0
  }
  convolution_param {
    num_output: 32
    kernel_size: 1
    weight_filler {
      type: "xavier"
      std: 0.2
    }
    bias_filler {
      type: "constant"
      value: 0.2
    }
  }
}
layer {
  name: "inception_4d/relu_5x5_reduce"
  type: "ReLU"
  bottom: "inception_4d/5x5_reduce"
  top: "inception_4d/5x5_reduce"
}
layer {
  name: "inception_4d/5x5"
  type: "Convolution"
  bottom: "inception_4d/5x5_reduce"
  top: "inception_4d/5x5"
  param {
    lr_mult: 1
    decay_mult: 1
  }
  param {
    lr_mult: 2
    decay_mult: 0
  }
  convolution_param {
    num_output: 64
    pad: 2
    kernel_size: 5
    weight_filler {
      type: "xavier"
      std: 0.03
    }
    bias_filler {
      type: "constant"
      value: 0.2
    }
  }
}
layer {
  name: "inception_4d/relu_5x5"
  type: "ReLU"
  bottom: "inception_4d/5x5"
  top: "inception_4d/5x5"
}
layer {
  name: "inception_4d/pool"
  type: "Pooling"
  bottom: "inception_4c/output"
  top: "inception_4d/pool"
  pooling_param {
    pool: MAX
    kernel_size: 3
    stride: 1
    pad: 1
  }
}
layer {
  name: "inception_4d/pool_proj"
  type: "Convolution"
  bottom: "inception_4d/pool"
  top: "inception_4d/pool_proj"
  param {
    lr_mult: 1
    decay_mult: 1
  }
  param {
    lr_mult: 2
    decay_mult: 0
  }
  convolution_param {
    num_output: 64
    kernel_size: 1
    weight_filler {
      type: "xavier"
      std: 0.1
    }
    bias_filler {
      type: "constant"
      value: 0.2
    }
  }
}
layer {
  name: "inception_4d/relu_pool_proj"
  type: "ReLU"
  bottom: "inception_4d/pool_proj"
  top: "inception_4d/pool_proj"
}
layer {
  name: "inception_4d/output"
  type: "Concat"
  bottom: "inception_4d/1x1"
  bottom: "inception_4d/3x3"
  bottom: "inception_4d/5x5"
  bottom: "inception_4d/pool_proj"
  top: "inception_4d/output"
}
layer {
  name: "loss2/ave_pool"
  type: "Pooling"
  bottom: "inception_4d/output"
  top: "loss2/ave_pool"
  pooling_param {
    pool: AVE
    kernel_size: 5
    stride: 3
  }
}
layer {
  name: "loss2/conv"
  type: "Convolution"
  bottom: "loss2/ave_pool"
  top: "loss2/conv"
  param {
    lr_mult: 1
    decay_mult: 1
  }
  param {
    lr_mult: 2
    decay_mult: 0
  }
  convolution_param {
    num_output: 128
    kernel_size: 1
    weight_filler {
      type: "xavier"
      std: 0.08
    }
    bias_filler {
      type: "constant"
      value: 0.2
    }
  }
}
layer {
  name: "loss2/relu_conv"
  type: "ReLU"
  bottom: "loss2/conv"
  top: "loss2/conv"
}
layer {
  name: "loss2/fc"
  type: "InnerProduct"
  bottom: "loss2/conv"
  top: "loss2/fc"
  param {
    lr_mult: 1
    decay_mult: 1
  }
  param {
    lr_mult: 2
    decay_mult: 0
  }
  inner_product_param {
    num_output: 1024
    weight_filler {
      type: "xavier"
      std: 0.02
    }
    bias_filler {
      type: "constant"
      value: 0.2
    }
  }
}
layer {
  name: "loss2/relu_fc"
  type: "ReLU"
  bottom: "loss2/fc"
  top: "loss2/fc"
}
layer {
  name: "loss2/drop_fc"
  type: "Dropout"
  bottom: "loss2/fc"
  top: "loss2/fc"
  dropout_param {
    dropout_ratio: 0.7
  }
}
layer {
  name: "loss2/classifier_plantvillage"
  type: "InnerProduct"
  bottom: "loss2/fc"
  top: "loss2/classifier_plantvillage"
  param {
    lr_mult: 1
    decay_mult: 1
  }
  param {
    lr_mult: 2
    decay_mult: 0
  }
  inner_product_param {
    num_output: 38
    weight_filler {
      type: "xavier"
      std: 0.0009765625
    }
    bias_filler {
      type: "constant"
      value: 0
    }
  }
}
layer {
  name: "inception_4e/1x1"
  type: "Convolution"
  bottom: "inception_4d/output"
  top: "inception_4e/1x1"
  param {
    lr_mult: 1
    decay_mult: 1
  }
  param {
    lr_mult: 2
    decay_mult: 0
  }
  convolution_param {
    num_output: 256
    kernel_size: 1
    weight_filler {
      type: "xavier"
      std: 0.03
    }
    bias_filler {
      type: "constant"
      value: 0.2
    }
  }
}
layer {
  name: "inception_4e/relu_1x1"
  type: "ReLU"
  bottom: "inception_4e/1x1"
  top: "inception_4e/1x1"
}
layer {
  name: "inception_4e/3x3_reduce"
  type: "Convolution"
  bottom: "inception_4d/output"
  top: "inception_4e/3x3_reduce"
  param {
    lr_mult: 1
    decay_mult: 1
  }
  param {
    lr_mult: 2
    decay_mult: 0
  }
  convolution_param {
    num_output: 160
    kernel_size: 1
    weight_filler {
      type: "xavier"
      std: 0.09
    }
    bias_filler {
      type: "constant"
      value: 0.2
    }
  }
}
layer {
  name: "inception_4e/relu_3x3_reduce"
  type: "ReLU"
  bottom: "inception_4e/3x3_reduce"
  top: "inception_4e/3x3_reduce"
}
layer {
  name: "inception_4e/3x3"
  type: "Convolution"
  bottom: "inception_4e/3x3_reduce"
  top: "inception_4e/3x3"
  param {
    lr_mult: 1
    decay_mult: 1
  }
  param {
    lr_mult: 2
    decay_mult: 0
  }
  convolution_param {
    num_output: 320
    pad: 1
    kernel_size: 3
    weight_filler {
      type: "xavier"
      std: 0.03
    }
    bias_filler {
      type: "constant"
      value: 0.2
    }
  }
}
layer {
  name: "inception_4e/relu_3x3"
  type: "ReLU"
  bottom: "inception_4e/3x3"
  top: "inception_4e/3x3"
}
layer {
  name: "inception_4e/5x5_reduce"
  type: "Convolution"
  bottom: "inception_4d/output"
  top: "inception_4e/5x5_reduce"
  param {
    lr_mult: 1
    decay_mult: 1
  }
  param {
    lr_mult: 2
    decay_mult: 0
  }
  convolution_param {
    num_output: 32
    kernel_size: 1
    weight_filler {
      type: "xavier"
      std: 0.2
    }
    bias_filler {
      type: "constant"
      value: 0.2
    }
  }
}
layer {
  name: "inception_4e/relu_5x5_reduce"
  type: "ReLU"
  bottom: "inception_4e/5x5_reduce"
  top: "inception_4e/5x5_reduce"
}
layer {
  name: "inception_4e/5x5"
  type: "Convolution"
  bottom: "inception_4e/5x5_reduce"
  top: "inception_4e/5x5"
  p
I0403 16:09:19.718818 17232 layer_factory.hpp:77] Creating layer data
I0403 16:09:19.719548 17232 net.cpp:91] Creating Layer data
I0403 16:09:19.719591 17232 net.cpp:399] data -> data
I0403 16:09:19.719652 17232 net.cpp:399] data -> label
I0403 16:09:19.719699 17232 data_transformer.cpp:25] Loading mean file from: /home/mohanty/data/final_dataset/lmdb/color-20-80/mean.binaryproto
I0403 16:09:19.721097 17234 db_lmdb.cpp:38] Opened lmdb /home/mohanty/data/final_dataset/lmdb/color-20-80/test_db
I0403 16:09:19.735491 17232 data_layer.cpp:41] output data size: 24,3,224,224
I0403 16:09:19.767060 17232 net.cpp:141] Setting up data
I0403 16:09:19.767151 17232 net.cpp:148] Top shape: 24 3 224 224 (3612672)
I0403 16:09:19.767179 17232 net.cpp:148] Top shape: 24 (24)
I0403 16:09:19.767196 17232 net.cpp:156] Memory required for data: 14450784
I0403 16:09:19.767230 17232 layer_factory.hpp:77] Creating layer label_data_1_split
I0403 16:09:19.767264 17232 net.cpp:91] Creating Layer label_data_1_split
I0403 16:09:19.767285 17232 net.cpp:425] label_data_1_split <- label
I0403 16:09:19.767324 17232 net.cpp:399] label_data_1_split -> label_data_1_split_0
I0403 16:09:19.767357 17232 net.cpp:399] label_data_1_split -> label_data_1_split_1
I0403 16:09:19.767384 17232 net.cpp:399] label_data_1_split -> label_data_1_split_2
I0403 16:09:19.767410 17232 net.cpp:399] label_data_1_split -> label_data_1_split_3
I0403 16:09:19.767436 17232 net.cpp:399] label_data_1_split -> label_data_1_split_4
I0403 16:09:19.767459 17232 net.cpp:399] label_data_1_split -> label_data_1_split_5
I0403 16:09:19.767483 17232 net.cpp:399] label_data_1_split -> label_data_1_split_6
I0403 16:09:19.767508 17232 net.cpp:399] label_data_1_split -> label_data_1_split_7
I0403 16:09:19.767531 17232 net.cpp:399] label_data_1_split -> label_data_1_split_8
I0403 16:09:19.767556 17232 net.cpp:399] label_data_1_split -> label_data_1_split_9
I0403 16:09:19.767704 17232 net.cpp:141] Setting up label_data_1_split
I0403 16:09:19.767732 17232 net.cpp:148] Top shape: 24 (24)
I0403 16:09:19.767753 17232 net.cpp:148] Top shape: 24 (24)
I0403 16:09:19.767772 17232 net.cpp:148] Top shape: 24 (24)
I0403 16:09:19.767791 17232 net.cpp:148] Top shape: 24 (24)
I0403 16:09:19.767810 17232 net.cpp:148] Top shape: 24 (24)
I0403 16:09:19.767829 17232 net.cpp:148] Top shape: 24 (24)
I0403 16:09:19.767849 17232 net.cpp:148] Top shape: 24 (24)
I0403 16:09:19.767868 17232 net.cpp:148] Top shape: 24 (24)
I0403 16:09:19.767885 17232 net.cpp:148] Top shape: 24 (24)
I0403 16:09:19.767904 17232 net.cpp:148] Top shape: 24 (24)
I0403 16:09:19.767957 17232 net.cpp:156] Memory required for data: 14451744
I0403 16:09:19.767978 17232 layer_factory.hpp:77] Creating layer conv1/7x7_s2
I0403 16:09:19.768016 17232 net.cpp:91] Creating Layer conv1/7x7_s2
I0403 16:09:19.768040 17232 net.cpp:425] conv1/7x7_s2 <- data
I0403 16:09:19.768064 17232 net.cpp:399] conv1/7x7_s2 -> conv1/7x7_s2
I0403 16:09:19.934296 17232 net.cpp:141] Setting up conv1/7x7_s2
I0403 16:09:19.934384 17232 net.cpp:148] Top shape: 24 64 112 112 (19267584)
I0403 16:09:19.934407 17232 net.cpp:156] Memory required for data: 91522080
I0403 16:09:19.934443 17232 layer_factory.hpp:77] Creating layer conv1/relu_7x7
I0403 16:09:19.934475 17232 net.cpp:91] Creating Layer conv1/relu_7x7
I0403 16:09:19.934499 17232 net.cpp:425] conv1/relu_7x7 <- conv1/7x7_s2
I0403 16:09:19.934522 17232 net.cpp:386] conv1/relu_7x7 -> conv1/7x7_s2 (in-place)
I0403 16:09:19.934834 17232 net.cpp:141] Setting up conv1/relu_7x7
I0403 16:09:19.934869 17232 net.cpp:148] Top shape: 24 64 112 112 (19267584)
I0403 16:09:19.934887 17232 net.cpp:156] Memory required for data: 168592416
I0403 16:09:19.934906 17232 layer_factory.hpp:77] Creating layer pool1/3x3_s2
I0403 16:09:19.934937 17232 net.cpp:91] Creating Layer pool1/3x3_s2
I0403 16:09:19.934958 17232 net.cpp:425] pool1/3x3_s2 <- conv1/7x7_s2
I0403 16:09:19.934981 17232 net.cpp:399] pool1/3x3_s2 -> pool1/3x3_s2
I0403 16:09:19.935071 17232 net.cpp:141] Setting up pool1/3x3_s2
I0403 16:09:19.935101 17232 net.cpp:148] Top shape: 24 64 56 56 (4816896)
I0403 16:09:19.935120 17232 net.cpp:156] Memory required for data: 187860000
I0403 16:09:19.935137 17232 layer_factory.hpp:77] Creating layer pool1/norm1
I0403 16:09:19.935168 17232 net.cpp:91] Creating Layer pool1/norm1
I0403 16:09:19.935189 17232 net.cpp:425] pool1/norm1 <- pool1/3x3_s2
I0403 16:09:19.935211 17232 net.cpp:399] pool1/norm1 -> pool1/norm1
I0403 16:09:19.935550 17232 net.cpp:141] Setting up pool1/norm1
I0403 16:09:19.935597 17232 net.cpp:148] Top shape: 24 64 56 56 (4816896)
I0403 16:09:19.935619 17232 net.cpp:156] Memory required for data: 207127584
I0403 16:09:19.935637 17232 layer_factory.hpp:77] Creating layer conv2/3x3_reduce
I0403 16:09:19.935667 17232 net.cpp:91] Creating Layer conv2/3x3_reduce
I0403 16:09:19.935688 17232 net.cpp:425] conv2/3x3_reduce <- pool1/norm1
I0403 16:09:19.935713 17232 net.cpp:399] conv2/3x3_reduce -> conv2/3x3_reduce
I0403 16:09:19.937286 17232 net.cpp:141] Setting up conv2/3x3_reduce
I0403 16:09:19.937322 17232 net.cpp:148] Top shape: 24 64 56 56 (4816896)
I0403 16:09:19.937341 17232 net.cpp:156] Memory required for data: 226395168
I0403 16:09:19.937367 17232 layer_factory.hpp:77] Creating layer conv2/relu_3x3_reduce
I0403 16:09:19.937391 17232 net.cpp:91] Creating Layer conv2/relu_3x3_reduce
I0403 16:09:19.937412 17232 net.cpp:425] conv2/relu_3x3_reduce <- conv2/3x3_reduce
I0403 16:09:19.937433 17232 net.cpp:386] conv2/relu_3x3_reduce -> conv2/3x3_reduce (in-place)
I0403 16:09:19.937737 17232 net.cpp:141] Setting up conv2/relu_3x3_reduce
I0403 16:09:19.937770 17232 net.cpp:148] Top shape: 24 64 56 56 (4816896)
I0403 16:09:19.937789 17232 net.cpp:156] Memory required for data: 245662752
I0403 16:09:19.937808 17232 layer_factory.hpp:77] Creating layer conv2/3x3
I0403 16:09:19.937836 17232 net.cpp:91] Creating Layer conv2/3x3
I0403 16:09:19.937857 17232 net.cpp:425] conv2/3x3 <- conv2/3x3_reduce
I0403 16:09:19.937880 17232 net.cpp:399] conv2/3x3 -> conv2/3x3
I0403 16:09:19.940526 17232 net.cpp:141] Setting up conv2/3x3
I0403 16:09:19.940562 17232 net.cpp:148] Top shape: 24 192 56 56 (14450688)
I0403 16:09:19.940589 17232 net.cpp:156] Memory required for data: 303465504
I0403 16:09:19.940616 17232 layer_factory.hpp:77] Creating layer conv2/relu_3x3
I0403 16:09:19.940640 17232 net.cpp:91] Creating Layer conv2/relu_3x3
I0403 16:09:19.940659 17232 net.cpp:425] conv2/relu_3x3 <- conv2/3x3
I0403 16:09:19.940680 17232 net.cpp:386] conv2/relu_3x3 -> conv2/3x3 (in-place)
I0403 16:09:19.940876 17232 net.cpp:141] Setting up conv2/relu_3x3
I0403 16:09:19.940909 17232 net.cpp:148] Top shape: 24 192 56 56 (14450688)
I0403 16:09:19.940969 17232 net.cpp:156] Memory required for data: 361268256
I0403 16:09:19.940991 17232 layer_factory.hpp:77] Creating layer conv2/norm2
I0403 16:09:19.941015 17232 net.cpp:91] Creating Layer conv2/norm2
I0403 16:09:19.941035 17232 net.cpp:425] conv2/norm2 <- conv2/3x3
I0403 16:09:19.941057 17232 net.cpp:399] conv2/norm2 -> conv2/norm2
I0403 16:09:19.941401 17232 net.cpp:141] Setting up conv2/norm2
I0403 16:09:19.941434 17232 net.cpp:148] Top shape: 24 192 56 56 (14450688)
I0403 16:09:19.941453 17232 net.cpp:156] Memory required for data: 419071008
I0403 16:09:19.941470 17232 layer_factory.hpp:77] Creating layer pool2/3x3_s2
I0403 16:09:19.941493 17232 net.cpp:91] Creating Layer pool2/3x3_s2
I0403 16:09:19.941514 17232 net.cpp:425] pool2/3x3_s2 <- conv2/norm2
I0403 16:09:19.941535 17232 net.cpp:399] pool2/3x3_s2 -> pool2/3x3_s2
I0403 16:09:19.941601 17232 net.cpp:141] Setting up pool2/3x3_s2
I0403 16:09:19.941630 17232 net.cpp:148] Top shape: 24 192 28 28 (3612672)
I0403 16:09:19.941648 17232 net.cpp:156] Memory required for data: 433521696
I0403 16:09:19.941666 17232 layer_factory.hpp:77] Creating layer pool2/3x3_s2_pool2/3x3_s2_0_split
I0403 16:09:19.941690 17232 net.cpp:91] Creating Layer pool2/3x3_s2_pool2/3x3_s2_0_split
I0403 16:09:19.941710 17232 net.cpp:425] pool2/3x3_s2_pool2/3x3_s2_0_split <- pool2/3x3_s2
I0403 16:09:19.941731 17232 net.cpp:399] pool2/3x3_s2_pool2/3x3_s2_0_split -> pool2/3x3_s2_pool2/3x3_s2_0_split_0
I0403 16:09:19.941756 17232 net.cpp:399] pool2/3x3_s2_pool2/3x3_s2_0_split -> pool2/3x3_s2_pool2/3x3_s2_0_split_1
I0403 16:09:19.941779 17232 net.cpp:399] pool2/3x3_s2_pool2/3x3_s2_0_split -> pool2/3x3_s2_pool2/3x3_s2_0_split_2
I0403 16:09:19.941803 17232 net.cpp:399] pool2/3x3_s2_pool2/3x3_s2_0_split -> pool2/3x3_s2_pool2/3x3_s2_0_split_3
I0403 16:09:19.941882 17232 net.cpp:141] Setting up pool2/3x3_s2_pool2/3x3_s2_0_split
I0403 16:09:19.941910 17232 net.cpp:148] Top shape: 24 192 28 28 (3612672)
I0403 16:09:19.941931 17232 net.cpp:148] Top shape: 24 192 28 28 (3612672)
I0403 16:09:19.941949 17232 net.cpp:148] Top shape: 24 192 28 28 (3612672)
I0403 16:09:19.941967 17232 net.cpp:148] Top shape: 24 192 28 28 (3612672)
I0403 16:09:19.941984 17232 net.cpp:156] Memory required for data: 491324448
I0403 16:09:19.942003 17232 layer_factory.hpp:77] Creating layer inception_3a/1x1
I0403 16:09:19.942028 17232 net.cpp:91] Creating Layer inception_3a/1x1
I0403 16:09:19.942050 17232 net.cpp:425] inception_3a/1x1 <- pool2/3x3_s2_pool2/3x3_s2_0_split_0
I0403 16:09:19.942075 17232 net.cpp:399] inception_3a/1x1 -> inception_3a/1x1
I0403 16:09:19.943847 17232 net.cpp:141] Setting up inception_3a/1x1
I0403 16:09:19.943883 17232 net.cpp:148] Top shape: 24 64 28 28 (1204224)
I0403 16:09:19.943903 17232 net.cpp:156] Memory required for data: 496141344
I0403 16:09:19.943925 17232 layer_factory.hpp:77] Creating layer inception_3a/relu_1x1
I0403 16:09:19.943950 17232 net.cpp:91] Creating Layer inception_3a/relu_1x1
I0403 16:09:19.943971 17232 net.cpp:425] inception_3a/relu_1x1 <- inception_3a/1x1
I0403 16:09:19.943994 17232 net.cpp:386] inception_3a/relu_1x1 -> inception_3a/1x1 (in-place)
I0403 16:09:19.944205 17232 net.cpp:141] Setting up inception_3a/relu_1x1
I0403 16:09:19.944238 17232 net.cpp:148] Top shape: 24 64 28 28 (1204224)
I0403 16:09:19.944258 17232 net.cpp:156] Memory required for data: 500958240
I0403 16:09:19.944277 17232 layer_factory.hpp:77] Creating layer inception_3a/3x3_reduce
I0403 16:09:19.944304 17232 net.cpp:91] Creating Layer inception_3a/3x3_reduce
I0403 16:09:19.944326 17232 net.cpp:425] inception_3a/3x3_reduce <- pool2/3x3_s2_pool2/3x3_s2_0_split_1
I0403 16:09:19.944350 17232 net.cpp:399] inception_3a/3x3_reduce -> inception_3a/3x3_reduce
I0403 16:09:19.946391 17232 net.cpp:141] Setting up inception_3a/3x3_reduce
I0403 16:09:19.946429 17232 net.cpp:148] Top shape: 24 96 28 28 (1806336)
I0403 16:09:19.946449 17232 net.cpp:156] Memory required for data: 508183584
I0403 16:09:19.946475 17232 layer_factory.hpp:77] Creating layer inception_3a/relu_3x3_reduce
I0403 16:09:19.946521 17232 net.cpp:91] Creating Layer inception_3a/relu_3x3_reduce
I0403 16:09:19.946545 17232 net.cpp:425] inception_3a/relu_3x3_reduce <- inception_3a/3x3_reduce
I0403 16:09:19.946569 17232 net.cpp:386] inception_3a/relu_3x3_reduce -> inception_3a/3x3_reduce (in-place)
I0403 16:09:19.946799 17232 net.cpp:141] Setting up inception_3a/relu_3x3_reduce
I0403 16:09:19.946830 17232 net.cpp:148] Top shape: 24 96 28 28 (1806336)
I0403 16:09:19.946848 17232 net.cpp:156] Memory required for data: 515408928
I0403 16:09:19.946866 17232 layer_factory.hpp:77] Creating layer inception_3a/3x3
I0403 16:09:19.946897 17232 net.cpp:91] Creating Layer inception_3a/3x3
I0403 16:09:19.946920 17232 net.cpp:425] inception_3a/3x3 <- inception_3a/3x3_reduce
I0403 16:09:19.946949 17232 net.cpp:399] inception_3a/3x3 -> inception_3a/3x3
I0403 16:09:19.948964 17232 net.cpp:141] Setting up inception_3a/3x3
I0403 16:09:19.949002 17232 net.cpp:148] Top shape: 24 128 28 28 (2408448)
I0403 16:09:19.949023 17232 net.cpp:156] Memory required for data: 525042720
I0403 16:09:19.949045 17232 layer_factory.hpp:77] Creating layer inception_3a/relu_3x3
I0403 16:09:19.949069 17232 net.cpp:91] Creating Layer inception_3a/relu_3x3
I0403 16:09:19.949087 17232 net.cpp:425] inception_3a/relu_3x3 <- inception_3a/3x3
I0403 16:09:19.949108 17232 net.cpp:386] inception_3a/relu_3x3 -> inception_3a/3x3 (in-place)
I0403 16:09:19.949440 17232 net.cpp:141] Setting up inception_3a/relu_3x3
I0403 16:09:19.949475 17232 net.cpp:148] Top shape: 24 128 28 28 (2408448)
I0403 16:09:19.949493 17232 net.cpp:156] Memory required for data: 534676512
I0403 16:09:19.949512 17232 layer_factory.hpp:77] Creating layer inception_3a/5x5_reduce
I0403 16:09:19.949539 17232 net.cpp:91] Creating Layer inception_3a/5x5_reduce
I0403 16:09:19.949561 17232 net.cpp:425] inception_3a/5x5_reduce <- pool2/3x3_s2_pool2/3x3_s2_0_split_2
I0403 16:09:19.949591 17232 net.cpp:399] inception_3a/5x5_reduce -> inception_3a/5x5_reduce
I0403 16:09:19.950755 17232 net.cpp:141] Setting up inception_3a/5x5_reduce
I0403 16:09:19.950793 17232 net.cpp:148] Top shape: 24 16 28 28 (301056)
I0403 16:09:19.950814 17232 net.cpp:156] Memory required for data: 535880736
I0403 16:09:19.950835 17232 layer_factory.hpp:77] Creating layer inception_3a/relu_5x5_reduce
I0403 16:09:19.950858 17232 net.cpp:91] Creating Layer inception_3a/relu_5x5_reduce
I0403 16:09:19.950878 17232 net.cpp:425] inception_3a/relu_5x5_reduce <- inception_3a/5x5_reduce
I0403 16:09:19.950902 17232 net.cpp:386] inception_3a/relu_5x5_reduce -> inception_3a/5x5_reduce (in-place)
I0403 16:09:19.951251 17232 net.cpp:141] Setting up inception_3a/relu_5x5_reduce
I0403 16:09:19.951283 17232 net.cpp:148] Top shape: 24 16 28 28 (301056)
I0403 16:09:19.951303 17232 net.cpp:156] Memory required for data: 537084960
I0403 16:09:19.951321 17232 layer_factory.hpp:77] Creating layer inception_3a/5x5
I0403 16:09:19.951349 17232 net.cpp:91] Creating Layer inception_3a/5x5
I0403 16:09:19.951372 17232 net.cpp:425] inception_3a/5x5 <- inception_3a/5x5_reduce
I0403 16:09:19.951400 17232 net.cpp:399] inception_3a/5x5 -> inception_3a/5x5
I0403 16:09:19.952637 17232 net.cpp:141] Setting up inception_3a/5x5
I0403 16:09:19.952672 17232 net.cpp:148] Top shape: 24 32 28 28 (602112)
I0403 16:09:19.952695 17232 net.cpp:156] Memory required for data: 539493408
I0403 16:09:19.952718 17232 layer_factory.hpp:77] Creating layer inception_3a/relu_5x5
I0403 16:09:19.952740 17232 net.cpp:91] Creating Layer inception_3a/relu_5x5
I0403 16:09:19.952760 17232 net.cpp:425] inception_3a/relu_5x5 <- inception_3a/5x5
I0403 16:09:19.952782 17232 net.cpp:386] inception_3a/relu_5x5 -> inception_3a/5x5 (in-place)
I0403 16:09:19.952996 17232 net.cpp:141] Setting up inception_3a/relu_5x5
I0403 16:09:19.953028 17232 net.cpp:148] Top shape: 24 32 28 28 (602112)
I0403 16:09:19.953048 17232 net.cpp:156] Memory required for data: 541901856
I0403 16:09:19.953066 17232 layer_factory.hpp:77] Creating layer inception_3a/pool
I0403 16:09:19.953088 17232 net.cpp:91] Creating Layer inception_3a/pool
I0403 16:09:19.953109 17232 net.cpp:425] inception_3a/pool <- pool2/3x3_s2_pool2/3x3_s2_0_split_3
I0403 16:09:19.953151 17232 net.cpp:399] inception_3a/pool -> inception_3a/pool
I0403 16:09:19.953223 17232 net.cpp:141] Setting up inception_3a/pool
I0403 16:09:19.953255 17232 net.cpp:148] Top shape: 24 192 28 28 (3612672)
I0403 16:09:19.953275 17232 net.cpp:156] Memory required for data: 556352544
I0403 16:09:19.953294 17232 layer_factory.hpp:77] Creating layer inception_3a/pool_proj
I0403 16:09:19.953317 17232 net.cpp:91] Creating Layer inception_3a/pool_proj
I0403 16:09:19.953338 17232 net.cpp:425] inception_3a/pool_proj <- inception_3a/pool
I0403 16:09:19.953366 17232 net.cpp:399] inception_3a/pool_proj -> inception_3a/pool_proj
I0403 16:09:19.954529 17232 net.cpp:141] Setting up inception_3a/pool_proj
I0403 16:09:19.954563 17232 net.cpp:148] Top shape: 24 32 28 28 (602112)
I0403 16:09:19.954588 17232 net.cpp:156] Memory required for data: 558760992
I0403 16:09:19.954620 17232 layer_factory.hpp:77] Creating layer inception_3a/relu_pool_proj
I0403 16:09:19.954645 17232 net.cpp:91] Creating Layer inception_3a/relu_pool_proj
I0403 16:09:19.954665 17232 net.cpp:425] inception_3a/relu_pool_proj <- inception_3a/pool_proj
I0403 16:09:19.954689 17232 net.cpp:386] inception_3a/relu_pool_proj -> inception_3a/pool_proj (in-place)
I0403 16:09:19.955021 17232 net.cpp:141] Setting up inception_3a/relu_pool_proj
I0403 16:09:19.955056 17232 net.cpp:148] Top shape: 24 32 28 28 (602112)
I0403 16:09:19.955075 17232 net.cpp:156] Memory required for data: 561169440
I0403 16:09:19.955095 17232 layer_factory.hpp:77] Creating layer inception_3a/output
I0403 16:09:19.955116 17232 net.cpp:91] Creating Layer inception_3a/output
I0403 16:09:19.955135 17232 net.cpp:425] inception_3a/output <- inception_3a/1x1
I0403 16:09:19.955157 17232 net.cpp:425] inception_3a/output <- inception_3a/3x3
I0403 16:09:19.955176 17232 net.cpp:425] inception_3a/output <- inception_3a/5x5
I0403 16:09:19.955196 17232 net.cpp:425] inception_3a/output <- inception_3a/pool_proj
I0403 16:09:19.955217 17232 net.cpp:399] inception_3a/output -> inception_3a/output
I0403 16:09:19.955277 17232 net.cpp:141] Setting up inception_3a/output
I0403 16:09:19.955307 17232 net.cpp:148] Top shape: 24 256 28 28 (4816896)
I0403 16:09:19.955324 17232 net.cpp:156] Memory required for data: 580437024
I0403 16:09:19.955341 17232 layer_factory.hpp:77] Creating layer inception_3a/output_inception_3a/output_0_split
I0403 16:09:19.955366 17232 net.cpp:91] Creating Layer inception_3a/output_inception_3a/output_0_split
I0403 16:09:19.955386 17232 net.cpp:425] inception_3a/output_inception_3a/output_0_split <- inception_3a/output
I0403 16:09:19.955409 17232 net.cpp:399] inception_3a/output_inception_3a/output_0_split -> inception_3a/output_inception_3a/output_0_split_0
I0403 16:09:19.955432 17232 net.cpp:399] inception_3a/output_inception_3a/output_0_split -> inception_3a/output_inception_3a/output_0_split_1
I0403 16:09:19.955462 17232 net.cpp:399] inception_3a/output_inception_3a/output_0_split -> inception_3a/output_inception_3a/output_0_split_2
I0403 16:09:19.955490 17232 net.cpp:399] inception_3a/output_inception_3a/output_0_split -> inception_3a/output_inception_3a/output_0_split_3
I0403 16:09:19.955596 17232 net.cpp:141] Setting up inception_3a/output_inception_3a/output_0_split
I0403 16:09:19.955626 17232 net.cpp:148] Top shape: 24 256 28 28 (4816896)
I0403 16:09:19.955648 17232 net.cpp:148] Top shape: 24 256 28 28 (4816896)
I0403 16:09:19.955667 17232 net.cpp:148] Top shape: 24 256 28 28 (4816896)
I0403 16:09:19.955687 17232 net.cpp:148] Top shape: 24 256 28 28 (4816896)
I0403 16:09:19.955703 17232 net.cpp:156] Memory required for data: 657507360
I0403 16:09:19.955721 17232 layer_factory.hpp:77] Creating layer inception_3b/1x1
I0403 16:09:19.955750 17232 net.cpp:91] Creating Layer inception_3b/1x1
I0403 16:09:19.955773 17232 net.cpp:425] inception_3b/1x1 <- inception_3a/output_inception_3a/output_0_split_0
I0403 16:09:19.955797 17232 net.cpp:399] inception_3b/1x1 -> inception_3b/1x1
I0403 16:09:19.957171 17232 net.cpp:141] Setting up inception_3b/1x1
I0403 16:09:19.957219 17232 net.cpp:148] Top shape: 24 128 28 28 (2408448)
I0403 16:09:19.957240 17232 net.cpp:156] Memory required for data: 667141152
I0403 16:09:19.957263 17232 layer_factory.hpp:77] Creating layer inception_3b/relu_1x1
I0403 16:09:19.957288 17232 net.cpp:91] Creating Layer inception_3b/relu_1x1
I0403 16:09:19.957310 17232 net.cpp:425] inception_3b/relu_1x1 <- inception_3b/1x1
I0403 16:09:19.957331 17232 net.cpp:386] inception_3b/relu_1x1 -> inception_3b/1x1 (in-place)
I0403 16:09:19.957545 17232 net.cpp:141] Setting up inception_3b/relu_1x1
I0403 16:09:19.957583 17232 net.cpp:148] Top shape: 24 128 28 28 (2408448)
I0403 16:09:19.957604 17232 net.cpp:156] Memory required for data: 676774944
I0403 16:09:19.957623 17232 layer_factory.hpp:77] Creating layer inception_3b/3x3_reduce
I0403 16:09:19.957650 17232 net.cpp:91] Creating Layer inception_3b/3x3_reduce
I0403 16:09:19.957672 17232 net.cpp:425] inception_3b/3x3_reduce <- inception_3a/output_inception_3a/output_0_split_1
I0403 16:09:19.957696 17232 net.cpp:399] inception_3b/3x3_reduce -> inception_3b/3x3_reduce
I0403 16:09:19.959084 17232 net.cpp:141] Setting up inception_3b/3x3_reduce
I0403 16:09:19.959120 17232 net.cpp:148] Top shape: 24 128 28 28 (2408448)
I0403 16:09:19.959141 17232 net.cpp:156] Memory required for data: 686408736
I0403 16:09:19.959162 17232 layer_factory.hpp:77] Creating layer inception_3b/relu_3x3_reduce
I0403 16:09:19.959188 17232 net.cpp:91] Creating Layer inception_3b/relu_3x3_reduce
I0403 16:09:19.959208 17232 net.cpp:425] inception_3b/relu_3x3_reduce <- inception_3b/3x3_reduce
I0403 16:09:19.959229 17232 net.cpp:386] inception_3b/relu_3x3_reduce -> inception_3b/3x3_reduce (in-place)
I0403 16:09:19.959444 17232 net.cpp:141] Setting up inception_3b/relu_3x3_reduce
I0403 16:09:19.959477 17232 net.cpp:148] Top shape: 24 128 28 28 (2408448)
I0403 16:09:19.959497 17232 net.cpp:156] Memory required for data: 696042528
I0403 16:09:19.959517 17232 layer_factory.hpp:77] Creating layer inception_3b/3x3
I0403 16:09:19.959547 17232 net.cpp:91] Creating Layer inception_3b/3x3
I0403 16:09:19.959568 17232 net.cpp:425] inception_3b/3x3 <- inception_3b/3x3_reduce
I0403 16:09:19.959601 17232 net.cpp:399] inception_3b/3x3 -> inception_3b/3x3
I0403 16:09:19.963101 17232 net.cpp:141] Setting up inception_3b/3x3
I0403 16:09:19.963140 17232 net.cpp:148] Top shape: 24 192 28 28 (3612672)
I0403 16:09:19.963161 17232 net.cpp:156] Memory required for data: 710493216
I0403 16:09:19.963184 17232 layer_factory.hpp:77] Creating layer inception_3b/relu_3x3
I0403 16:09:19.963207 17232 net.cpp:91] Creating Layer inception_3b/relu_3x3
I0403 16:09:19.963227 17232 net.cpp:425] inception_3b/relu_3x3 <- inception_3b/3x3
I0403 16:09:19.963248 17232 net.cpp:386] inception_3b/relu_3x3 -> inception_3b/3x3 (in-place)
I0403 16:09:19.963583 17232 net.cpp:141] Setting up inception_3b/relu_3x3
I0403 16:09:19.963619 17232 net.cpp:148] Top shape: 24 192 28 28 (3612672)
I0403 16:09:19.963639 17232 net.cpp:156] Memory required for data: 724943904
I0403 16:09:19.963656 17232 layer_factory.hpp:77] Creating layer inception_3b/5x5_reduce
I0403 16:09:19.963685 17232 net.cpp:91] Creating Layer inception_3b/5x5_reduce
I0403 16:09:19.963707 17232 net.cpp:425] inception_3b/5x5_reduce <- inception_3a/output_inception_3a/output_0_split_2
I0403 16:09:19.963731 17232 net.cpp:399] inception_3b/5x5_reduce -> inception_3b/5x5_reduce
I0403 16:09:19.964951 17232 net.cpp:141] Setting up inception_3b/5x5_reduce
I0403 16:09:19.964988 17232 net.cpp:148] Top shape: 24 32 28 28 (602112)
I0403 16:09:19.965009 17232 net.cpp:156] Memory required for data: 727352352
I0403 16:09:19.965032 17232 layer_factory.hpp:77] Creating layer inception_3b/relu_5x5_reduce
I0403 16:09:19.965055 17232 net.cpp:91] Creating Layer inception_3b/relu_5x5_reduce
I0403 16:09:19.965075 17232 net.cpp:425] inception_3b/relu_5x5_reduce <- inception_3b/5x5_reduce
I0403 16:09:19.965097 17232 net.cpp:386] inception_3b/relu_5x5_reduce -> inception_3b/5x5_reduce (in-place)
I0403 16:09:19.965313 17232 net.cpp:141] Setting up inception_3b/relu_5x5_reduce
I0403 16:09:19.965361 17232 net.cpp:148] Top shape: 24 32 28 28 (602112)
I0403 16:09:19.965384 17232 net.cpp:156] Memory required for data: 729760800
I0403 16:09:19.965402 17232 layer_factory.hpp:77] Creating layer inception_3b/5x5
I0403 16:09:19.965430 17232 net.cpp:91] Creating Layer inception_3b/5x5
I0403 16:09:19.965451 17232 net.cpp:425] inception_3b/5x5 <- inception_3b/5x5_reduce
I0403 16:09:19.965477 17232 net.cpp:399] inception_3b/5x5 -> inception_3b/5x5
I0403 16:09:19.967845 17232 net.cpp:141] Setting up inception_3b/5x5
I0403 16:09:19.967881 17232 net.cpp:148] Top shape: 24 96 28 28 (1806336)
I0403 16:09:19.967901 17232 net.cpp:156] Memory required for data: 736986144
I0403 16:09:19.967923 17232 layer_factory.hpp:77] Creating layer inception_3b/relu_5x5
I0403 16:09:19.967949 17232 net.cpp:91] Creating Layer inception_3b/relu_5x5
I0403 16:09:19.967972 17232 net.cpp:425] inception_3b/relu_5x5 <- inception_3b/5x5
I0403 16:09:19.967994 17232 net.cpp:386] inception_3b/relu_5x5 -> inception_3b/5x5 (in-place)
I0403 16:09:19.968235 17232 net.cpp:141] Setting up inception_3b/relu_5x5
I0403 16:09:19.968264 17232 net.cpp:148] Top shape: 24 96 28 28 (1806336)
I0403 16:09:19.968283 17232 net.cpp:156] Memory required for data: 744211488
I0403 16:09:19.968302 17232 layer_factory.hpp:77] Creating layer inception_3b/pool
I0403 16:09:19.968323 17232 net.cpp:91] Creating Layer inception_3b/pool
I0403 16:09:19.968343 17232 net.cpp:425] inception_3b/pool <- inception_3a/output_inception_3a/output_0_split_3
I0403 16:09:19.968364 17232 net.cpp:399] inception_3b/pool -> inception_3b/pool
I0403 16:09:19.968435 17232 net.cpp:141] Setting up inception_3b/pool
I0403 16:09:19.968463 17232 net.cpp:148] Top shape: 24 256 28 28 (4816896)
I0403 16:09:19.968482 17232 net.cpp:156] Memory required for data: 763479072
I0403 16:09:19.968500 17232 layer_factory.hpp:77] Creating layer inception_3b/pool_proj
I0403 16:09:19.968528 17232 net.cpp:91] Creating Layer inception_3b/pool_proj
I0403 16:09:19.968549 17232 net.cpp:425] inception_3b/pool_proj <- inception_3b/pool
I0403 16:09:19.968580 17232 net.cpp:399] inception_3b/pool_proj -> inception_3b/pool_proj
I0403 16:09:19.969863 17232 net.cpp:141] Setting up inception_3b/pool_proj
I0403 16:09:19.969898 17232 net.cpp:148] Top shape: 24 64 28 28 (1204224)
I0403 16:09:19.969918 17232 net.cpp:156] Memory required for data: 768295968
I0403 16:09:19.969941 17232 layer_factory.hpp:77] Creating layer inception_3b/relu_pool_proj
I0403 16:09:19.969964 17232 net.cpp:91] Creating Layer inception_3b/relu_pool_proj
I0403 16:09:19.969982 17232 net.cpp:425] inception_3b/relu_pool_proj <- inception_3b/pool_proj
I0403 16:09:19.970006 17232 net.cpp:386] inception_3b/relu_pool_proj -> inception_3b/pool_proj (in-place)
I0403 16:09:19.970464 17232 net.cpp:141] Setting up inception_3b/relu_pool_proj
I0403 16:09:19.970497 17232 net.cpp:148] Top shape: 24 64 28 28 (1204224)
I0403 16:09:19.970516 17232 net.cpp:156] Memory required for data: 773112864
I0403 16:09:19.970535 17232 layer_factory.hpp:77] Creating layer inception_3b/output
I0403 16:09:19.970556 17232 net.cpp:91] Creating Layer inception_3b/output
I0403 16:09:19.970579 17232 net.cpp:425] inception_3b/output <- inception_3b/1x1
I0403 16:09:19.970602 17232 net.cpp:425] inception_3b/output <- inception_3b/3x3
I0403 16:09:19.970623 17232 net.cpp:425] inception_3b/output <- inception_3b/5x5
I0403 16:09:19.970641 17232 net.cpp:425] inception_3b/output <- inception_3b/pool_proj
I0403 16:09:19.970665 17232 net.cpp:399] inception_3b/output -> inception_3b/output
I0403 16:09:19.970721 17232 net.cpp:141] Setting up inception_3b/output
I0403 16:09:19.970748 17232 net.cpp:148] Top shape: 24 480 28 28 (9031680)
I0403 16:09:19.970772 17232 net.cpp:156] Memory required for data: 809239584
I0403 16:09:19.970789 17232 layer_factory.hpp:77] Creating layer pool3/3x3_s2
I0403 16:09:19.970811 17232 net.cpp:91] Creating Layer pool3/3x3_s2
I0403 16:09:19.970831 17232 net.cpp:425] pool3/3x3_s2 <- inception_3b/output
I0403 16:09:19.970854 17232 net.cpp:399] pool3/3x3_s2 -> pool3/3x3_s2
I0403 16:09:19.970945 17232 net.cpp:141] Setting up pool3/3x3_s2
I0403 16:09:19.970976 17232 net.cpp:148] Top shape: 24 480 14 14 (2257920)
I0403 16:09:19.970994 17232 net.cpp:156] Memory required for data: 818271264
I0403 16:09:19.971012 17232 layer_factory.hpp:77] Creating layer pool3/3x3_s2_pool3/3x3_s2_0_split
I0403 16:09:19.971035 17232 net.cpp:91] Creating Layer pool3/3x3_s2_pool3/3x3_s2_0_split
I0403 16:09:19.971053 17232 net.cpp:425] pool3/3x3_s2_pool3/3x3_s2_0_split <- pool3/3x3_s2
I0403 16:09:19.971076 17232 net.cpp:399] pool3/3x3_s2_pool3/3x3_s2_0_split -> pool3/3x3_s2_pool3/3x3_s2_0_split_0
I0403 16:09:19.971102 17232 net.cpp:399] pool3/3x3_s2_pool3/3x3_s2_0_split -> pool3/3x3_s2_pool3/3x3_s2_0_split_1
I0403 16:09:19.971127 17232 net.cpp:399] pool3/3x3_s2_pool3/3x3_s2_0_split -> pool3/3x3_s2_pool3/3x3_s2_0_split_2
I0403 16:09:19.971153 17232 net.cpp:399] pool3/3x3_s2_pool3/3x3_s2_0_split -> pool3/3x3_s2_pool3/3x3_s2_0_split_3
I0403 16:09:19.971251 17232 net.cpp:141] Setting up pool3/3x3_s2_pool3/3x3_s2_0_split
I0403 16:09:19.971282 17232 net.cpp:148] Top shape: 24 480 14 14 (2257920)
I0403 16:09:19.971303 17232 net.cpp:148] Top shape: 24 480 14 14 (2257920)
I0403 16:09:19.971323 17232 net.cpp:148] Top shape: 24 480 14 14 (2257920)
I0403 16:09:19.971341 17232 net.cpp:148] Top shape: 24 480 14 14 (2257920)
I0403 16:09:19.971359 17232 net.cpp:156] Memory required for data: 854397984
I0403 16:09:19.971376 17232 layer_factory.hpp:77] Creating layer inception_4a/1x1
I0403 16:09:19.971405 17232 net.cpp:91] Creating Layer inception_4a/1x1
I0403 16:09:19.971426 17232 net.cpp:425] inception_4a/1x1 <- pool3/3x3_s2_pool3/3x3_s2_0_split_0
I0403 16:09:19.971451 17232 net.cpp:399] inception_4a/1x1 -> inception_4a/1x1
I0403 16:09:19.973363 17232 net.cpp:141] Setting up inception_4a/1x1
I0403 16:09:19.973397 17232 net.cpp:148] Top shape: 24 192 14 14 (903168)
I0403 16:09:19.973417 17232 net.cpp:156] Memory required for data: 858010656
I0403 16:09:19.973439 17232 layer_factory.hpp:77] Creating layer inception_4a/relu_1x1
I0403 16:09:19.973464 17232 net.cpp:91] Creating Layer inception_4a/relu_1x1
I0403 16:09:19.973485 17232 net.cpp:425] inception_4a/relu_1x1 <- inception_4a/1x1
I0403 16:09:19.973506 17232 net.cpp:386] inception_4a/relu_1x1 -> inception_4a/1x1 (in-place)
I0403 16:09:19.973723 17232 net.cpp:141] Setting up inception_4a/relu_1x1
I0403 16:09:19.973755 17232 net.cpp:148] Top shape: 24 192 14 14 (903168)
I0403 16:09:19.973774 17232 net.cpp:156] Memory required for data: 861623328
I0403 16:09:19.973793 17232 layer_factory.hpp:77] Creating layer inception_4a/3x3_reduce
I0403 16:09:19.973820 17232 net.cpp:91] Creating Layer inception_4a/3x3_reduce
I0403 16:09:19.973841 17232 net.cpp:425] inception_4a/3x3_reduce <- pool3/3x3_s2_pool3/3x3_s2_0_split_1
I0403 16:09:19.973868 17232 net.cpp:399] inception_4a/3x3_reduce -> inception_4a/3x3_reduce
I0403 16:09:19.975420 17232 net.cpp:141] Setting up inception_4a/3x3_reduce
I0403 16:09:19.975455 17232 net.cpp:148] Top shape: 24 96 14 14 (451584)
I0403 16:09:19.975476 17232 net.cpp:156] Memory required for data: 863429664
I0403 16:09:19.975507 17232 layer_factory.hpp:77] Creating layer inception_4a/relu_3x3_reduce
I0403 16:09:19.975530 17232 net.cpp:91] Creating Layer inception_4a/relu_3x3_reduce
I0403 16:09:19.975550 17232 net.cpp:425] inception_4a/relu_3x3_reduce <- inception_4a/3x3_reduce
I0403 16:09:19.975587 17232 net.cpp:386] inception_4a/relu_3x3_reduce -> inception_4a/3x3_reduce (in-place)
I0403 16:09:19.975811 17232 net.cpp:141] Setting up inception_4a/relu_3x3_reduce
I0403 16:09:19.975841 17232 net.cpp:148] Top shape: 24 96 14 14 (451584)
I0403 16:09:19.975860 17232 net.cpp:156] Memory required for data: 865236000
I0403 16:09:19.975878 17232 layer_factory.hpp:77] Creating layer inception_4a/3x3
I0403 16:09:19.975904 17232 net.cpp:91] Creating Layer inception_4a/3x3
I0403 16:09:19.975925 17232 net.cpp:425] inception_4a/3x3 <- inception_4a/3x3_reduce
I0403 16:09:19.975951 17232 net.cpp:399] inception_4a/3x3 -> inception_4a/3x3
I0403 16:09:19.979190 17232 net.cpp:141] Setting up inception_4a/3x3
I0403 16:09:19.979228 17232 net.cpp:148] Top shape: 24 208 14 14 (978432)
I0403 16:09:19.979248 17232 net.cpp:156] Memory required for data: 869149728
I0403 16:09:19.979269 17232 layer_factory.hpp:77] Creating layer inception_4a/relu_3x3
I0403 16:09:19.979295 17232 net.cpp:91] Creating Layer inception_4a/relu_3x3
I0403 16:09:19.979316 17232 net.cpp:425] inception_4a/relu_3x3 <- inception_4a/3x3
I0403 16:09:19.979338 17232 net.cpp:386] inception_4a/relu_3x3 -> inception_4a/3x3 (in-place)
I0403 16:09:19.979677 17232 net.cpp:141] Setting up inception_4a/relu_3x3
I0403 16:09:19.979712 17232 net.cpp:148] Top shape: 24 208 14 14 (978432)
I0403 16:09:19.979729 17232 net.cpp:156] Memory required for data: 873063456
I0403 16:09:19.979748 17232 layer_factory.hpp:77] Creating layer inception_4a/5x5_reduce
I0403 16:09:19.979778 17232 net.cpp:91] Creating Layer inception_4a/5x5_reduce
I0403 16:09:19.979799 17232 net.cpp:425] inception_4a/5x5_reduce <- pool3/3x3_s2_pool3/3x3_s2_0_split_2
I0403 16:09:19.979825 17232 net.cpp:399] inception_4a/5x5_reduce -> inception_4a/5x5_reduce
I0403 16:09:19.981066 17232 net.cpp:141] Setting up inception_4a/5x5_reduce
I0403 16:09:19.981101 17232 net.cpp:148] Top shape: 24 16 14 14 (75264)
I0403 16:09:19.981124 17232 net.cpp:156] Memory required for data: 873364512
I0403 16:09:19.981148 17232 layer_factory.hpp:77] Creating layer inception_4a/relu_5x5_reduce
I0403 16:09:19.981169 17232 net.cpp:91] Creating Layer inception_4a/relu_5x5_reduce
I0403 16:09:19.981190 17232 net.cpp:425] inception_4a/relu_5x5_reduce <- inception_4a/5x5_reduce
I0403 16:09:19.981212 17232 net.cpp:386] inception_4a/relu_5x5_reduce -> inception_4a/5x5_reduce (in-place)
I0403 16:09:19.981433 17232 net.cpp:141] Setting up inception_4a/relu_5x5_reduce
I0403 16:09:19.981467 17232 net.cpp:148] Top shape: 24 16 14 14 (75264)
I0403 16:09:19.981485 17232 net.cpp:156] Memory required for data: 873665568
I0403 16:09:19.981504 17232 layer_factory.hpp:77] Creating layer inception_4a/5x5
I0403 16:09:19.981531 17232 net.cpp:91] Creating Layer inception_4a/5x5
I0403 16:09:19.981551 17232 net.cpp:425] inception_4a/5x5 <- inception_4a/5x5_reduce
I0403 16:09:19.981580 17232 net.cpp:399] inception_4a/5x5 -> inception_4a/5x5
I0403 16:09:19.982923 17232 net.cpp:141] Setting up inception_4a/5x5
I0403 16:09:19.982955 17232 net.cpp:148] Top shape: 24 48 14 14 (225792)
I0403 16:09:19.982975 17232 net.cpp:156] Memory required for data: 874568736
I0403 16:09:19.982997 17232 layer_factory.hpp:77] Creating layer inception_4a/relu_5x5
I0403 16:09:19.983021 17232 net.cpp:91] Creating Layer inception_4a/relu_5x5
I0403 16:09:19.983042 17232 net.cpp:425] inception_4a/relu_5x5 <- inception_4a/5x5
I0403 16:09:19.983065 17232 net.cpp:386] inception_4a/relu_5x5 -> inception_4a/5x5 (in-place)
I0403 16:09:19.983288 17232 net.cpp:141] Setting up inception_4a/relu_5x5
I0403 16:09:19.983319 17232 net.cpp:148] Top shape: 24 48 14 14 (225792)
I0403 16:09:19.983336 17232 net.cpp:156] Memory required for data: 875471904
I0403 16:09:19.983355 17232 layer_factory.hpp:77] Creating layer inception_4a/pool
I0403 16:09:19.983379 17232 net.cpp:91] Creating Layer inception_4a/pool
I0403 16:09:19.983399 17232 net.cpp:425] inception_4a/pool <- pool3/3x3_s2_pool3/3x3_s2_0_split_3
I0403 16:09:19.983422 17232 net.cpp:399] inception_4a/pool -> inception_4a/pool
I0403 16:09:19.983499 17232 net.cpp:141] Setting up inception_4a/pool
I0403 16:09:19.983527 17232 net.cpp:148] Top shape: 24 480 14 14 (2257920)
I0403 16:09:19.983546 17232 net.cpp:156] Memory required for data: 884503584
I0403 16:09:19.983564 17232 layer_factory.hpp:77] Creating layer inception_4a/pool_proj
I0403 16:09:19.983597 17232 net.cpp:91] Creating Layer inception_4a/pool_proj
I0403 16:09:19.983618 17232 net.cpp:425] inception_4a/pool_proj <- inception_4a/pool
I0403 16:09:19.983644 17232 net.cpp:399] inception_4a/pool_proj -> inception_4a/pool_proj
I0403 16:09:19.985062 17232 net.cpp:141] Setting up inception_4a/pool_proj
I0403 16:09:19.985095 17232 net.cpp:148] Top shape: 24 64 14 14 (301056)
I0403 16:09:19.985134 17232 net.cpp:156] Memory required for data: 885707808
I0403 16:09:19.985159 17232 layer_factory.hpp:77] Creating layer inception_4a/relu_pool_proj
I0403 16:09:19.985183 17232 net.cpp:91] Creating Layer inception_4a/relu_pool_proj
I0403 16:09:19.985201 17232 net.cpp:425] inception_4a/relu_pool_proj <- inception_4a/pool_proj
I0403 16:09:19.985226 17232 net.cpp:386] inception_4a/relu_pool_proj -> inception_4a/pool_proj (in-place)
I0403 16:09:19.985584 17232 net.cpp:141] Setting up inception_4a/relu_pool_proj
I0403 16:09:19.985616 17232 net.cpp:148] Top shape: 24 64 14 14 (301056)
I0403 16:09:19.985635 17232 net.cpp:156] Memory required for data: 886912032
I0403 16:09:19.985654 17232 layer_factory.hpp:77] Creating layer inception_4a/output
I0403 16:09:19.985676 17232 net.cpp:91] Creating Layer inception_4a/output
I0403 16:09:19.985694 17232 net.cpp:425] inception_4a/output <- inception_4a/1x1
I0403 16:09:19.985714 17232 net.cpp:425] inception_4a/output <- inception_4a/3x3
I0403 16:09:19.985734 17232 net.cpp:425] inception_4a/output <- inception_4a/5x5
I0403 16:09:19.985754 17232 net.cpp:425] inception_4a/output <- inception_4a/pool_proj
I0403 16:09:19.985780 17232 net.cpp:399] inception_4a/output -> inception_4a/output
I0403 16:09:19.985836 17232 net.cpp:141] Setting up inception_4a/output
I0403 16:09:19.985868 17232 net.cpp:148] Top shape: 24 512 14 14 (2408448)
I0403 16:09:19.985888 17232 net.cpp:156] Memory required for data: 896545824
I0403 16:09:19.985906 17232 layer_factory.hpp:77] Creating layer inception_4a/output_inception_4a/output_0_split
I0403 16:09:19.985927 17232 net.cpp:91] Creating Layer inception_4a/output_inception_4a/output_0_split
I0403 16:09:19.985946 17232 net.cpp:425] inception_4a/output_inception_4a/output_0_split <- inception_4a/output
I0403 16:09:19.985970 17232 net.cpp:399] inception_4a/output_inception_4a/output_0_split -> inception_4a/output_inception_4a/output_0_split_0
I0403 16:09:19.985997 17232 net.cpp:399] inception_4a/output_inception_4a/output_0_split -> inception_4a/output_inception_4a/output_0_split_1
I0403 16:09:19.986022 17232 net.cpp:399] inception_4a/output_inception_4a/output_0_split -> inception_4a/output_inception_4a/output_0_split_2
I0403 16:09:19.986048 17232 net.cpp:399] inception_4a/output_inception_4a/output_0_split -> inception_4a/output_inception_4a/output_0_split_3
I0403 16:09:19.986074 17232 net.cpp:399] inception_4a/output_inception_4a/output_0_split -> inception_4a/output_inception_4a/output_0_split_4
I0403 16:09:19.986189 17232 net.cpp:141] Setting up inception_4a/output_inception_4a/output_0_split
I0403 16:09:19.986222 17232 net.cpp:148] Top shape: 24 512 14 14 (2408448)
I0403 16:09:19.986243 17232 net.cpp:148] Top shape: 24 512 14 14 (2408448)
I0403 16:09:19.986263 17232 net.cpp:148] Top shape: 24 512 14 14 (2408448)
I0403 16:09:19.986281 17232 net.cpp:148] Top shape: 24 512 14 14 (2408448)
I0403 16:09:19.986300 17232 net.cpp:148] Top shape: 24 512 14 14 (2408448)
I0403 16:09:19.986317 17232 net.cpp:156] Memory required for data: 944714784
I0403 16:09:19.986335 17232 layer_factory.hpp:77] Creating layer loss1/ave_pool
I0403 16:09:19.986356 17232 net.cpp:91] Creating Layer loss1/ave_pool
I0403 16:09:19.986377 17232 net.cpp:425] loss1/ave_pool <- inception_4a/output_inception_4a/output_0_split_0
I0403 16:09:19.986397 17232 net.cpp:399] loss1/ave_pool -> loss1/ave_pool
I0403 16:09:19.986656 17232 net.cpp:141] Setting up loss1/ave_pool
I0403 16:09:19.986688 17232 net.cpp:148] Top shape: 24 512 4 4 (196608)
I0403 16:09:19.986707 17232 net.cpp:156] Memory required for data: 945501216
I0403 16:09:19.986726 17232 layer_factory.hpp:77] Creating layer loss1/conv
I0403 16:09:19.986753 17232 net.cpp:91] Creating Layer loss1/conv
I0403 16:09:19.986775 17232 net.cpp:425] loss1/conv <- loss1/ave_pool
I0403 16:09:19.986802 17232 net.cpp:399] loss1/conv -> loss1/conv
I0403 16:09:19.988523 17232 net.cpp:141] Setting up loss1/conv
I0403 16:09:19.988556 17232 net.cpp:148] Top shape: 24 128 4 4 (49152)
I0403 16:09:19.988581 17232 net.cpp:156] Memory required for data: 945697824
I0403 16:09:19.988623 17232 layer_factory.hpp:77] Creating layer loss1/relu_conv
I0403 16:09:19.988651 17232 net.cpp:91] Creating Layer loss1/relu_conv
I0403 16:09:19.988670 17232 net.cpp:425] loss1/relu_conv <- loss1/conv
I0403 16:09:19.988692 17232 net.cpp:386] loss1/relu_conv -> loss1/conv (in-place)
I0403 16:09:19.989039 17232 net.cpp:141] Setting up loss1/relu_conv
I0403 16:09:19.989071 17232 net.cpp:148] Top shape: 24 128 4 4 (49152)
I0403 16:09:19.989090 17232 net.cpp:156] Memory required for data: 945894432
I0403 16:09:19.989109 17232 layer_factory.hpp:77] Creating layer loss1/fc
I0403 16:09:19.989138 17232 net.cpp:91] Creating Layer loss1/fc
I0403 16:09:19.989161 17232 net.cpp:425] loss1/fc <- loss1/conv
I0403 16:09:19.989186 17232 net.cpp:399] loss1/fc -> loss1/fc
I0403 16:09:20.010979 17232 net.cpp:141] Setting up loss1/fc
I0403 16:09:20.011019 17232 net.cpp:148] Top shape: 24 1024 (24576)
I0403 16:09:20.011040 17232 net.cpp:156] Memory required for data: 945992736
I0403 16:09:20.011064 17232 layer_factory.hpp:77] Creating layer loss1/relu_fc
I0403 16:09:20.011086 17232 net.cpp:91] Creating Layer loss1/relu_fc
I0403 16:09:20.011107 17232 net.cpp:425] loss1/relu_fc <- loss1/fc
I0403 16:09:20.011132 17232 net.cpp:386] loss1/relu_fc -> loss1/fc (in-place)
I0403 16:09:20.011365 17232 net.cpp:141] Setting up loss1/relu_fc
I0403 16:09:20.011395 17232 net.cpp:148] Top shape: 24 1024 (24576)
I0403 16:09:20.011415 17232 net.cpp:156] Memory required for data: 946091040
I0403 16:09:20.011432 17232 layer_factory.hpp:77] Creating layer loss1/drop_fc
I0403 16:09:20.011467 17232 net.cpp:91] Creating Layer loss1/drop_fc
I0403 16:09:20.011490 17232 net.cpp:425] loss1/drop_fc <- loss1/fc
I0403 16:09:20.011512 17232 net.cpp:386] loss1/drop_fc -> loss1/fc (in-place)
I0403 16:09:20.011579 17232 net.cpp:141] Setting up loss1/drop_fc
I0403 16:09:20.011612 17232 net.cpp:148] Top shape: 24 1024 (24576)
I0403 16:09:20.011632 17232 net.cpp:156] Memory required for data: 946189344
I0403 16:09:20.011652 17232 layer_factory.hpp:77] Creating layer loss1/classifier_plantvillage
I0403 16:09:20.011675 17232 net.cpp:91] Creating Layer loss1/classifier_plantvillage
I0403 16:09:20.011695 17232 net.cpp:425] loss1/classifier_plantvillage <- loss1/fc
I0403 16:09:20.011720 17232 net.cpp:399] loss1/classifier_plantvillage -> loss1/classifier_plantvillage
I0403 16:09:20.012799 17232 net.cpp:141] Setting up loss1/classifier_plantvillage
I0403 16:09:20.012835 17232 net.cpp:148] Top shape: 24 38 (912)
I0403 16:09:20.012853 17232 net.cpp:156] Memory required for data: 946192992
I0403 16:09:20.012876 17232 layer_factory.hpp:77] Creating layer loss1/classifier_plantvillage_loss1/classifier_plantvillage_0_split
I0403 16:09:20.012902 17232 net.cpp:91] Creating Layer loss1/classifier_plantvillage_loss1/classifier_plantvillage_0_split
I0403 16:09:20.012922 17232 net.cpp:425] loss1/classifier_plantvillage_loss1/classifier_plantvillage_0_split <- loss1/classifier_plantvillage
I0403 16:09:20.012943 17232 net.cpp:399] loss1/classifier_plantvillage_loss1/classifier_plantvillage_0_split -> loss1/classifier_plantvillage_loss1/classifier_plantvillage_0_split_0
I0403 16:09:20.012967 17232 net.cpp:399] loss1/classifier_plantvillage_loss1/classifier_plantvillage_0_split -> loss1/classifier_plantvillage_loss1/classifier_plantvillage_0_split_1
I0403 16:09:20.012992 17232 net.cpp:399] loss1/classifier_plantvillage_loss1/classifier_plantvillage_0_split -> loss1/classifier_plantvillage_loss1/classifier_plantvillage_0_split_2
I0403 16:09:20.013079 17232 net.cpp:141] Setting up loss1/classifier_plantvillage_loss1/classifier_plantvillage_0_split
I0403 16:09:20.013108 17232 net.cpp:148] Top shape: 24 38 (912)
I0403 16:09:20.013128 17232 net.cpp:148] Top shape: 24 38 (912)
I0403 16:09:20.013145 17232 net.cpp:148] Top shape: 24 38 (912)
I0403 16:09:20.013162 17232 net.cpp:156] Memory required for data: 946203936
I0403 16:09:20.013180 17232 layer_factory.hpp:77] Creating layer inception_4b/1x1
I0403 16:09:20.013206 17232 net.cpp:91] Creating Layer inception_4b/1x1
I0403 16:09:20.013245 17232 net.cpp:425] inception_4b/1x1 <- inception_4a/output_inception_4a/output_0_split_1
I0403 16:09:20.013273 17232 net.cpp:399] inception_4b/1x1 -> inception_4b/1x1
I0403 16:09:20.015276 17232 net.cpp:141] Setting up inception_4b/1x1
I0403 16:09:20.015312 17232 net.cpp:148] Top shape: 24 160 14 14 (752640)
I0403 16:09:20.015332 17232 net.cpp:156] Memory required for data: 949214496
I0403 16:09:20.015355 17232 layer_factory.hpp:77] Creating layer inception_4b/relu_1x1
I0403 16:09:20.015383 17232 net.cpp:91] Creating Layer inception_4b/relu_1x1
I0403 16:09:20.015403 17232 net.cpp:425] inception_4b/relu_1x1 <- inception_4b/1x1
I0403 16:09:20.015424 17232 net.cpp:386] inception_4b/relu_1x1 -> inception_4b/1x1 (in-place)
I0403 16:09:20.015661 17232 net.cpp:141] Setting up inception_4b/relu_1x1
I0403 16:09:20.015697 17232 net.cpp:148] Top shape: 24 160 14 14 (752640)
I0403 16:09:20.015715 17232 net.cpp:156] Memory required for data: 952225056
I0403 16:09:20.015734 17232 layer_factory.hpp:77] Creating layer inception_4b/3x3_reduce
I0403 16:09:20.015763 17232 net.cpp:91] Creating Layer inception_4b/3x3_reduce
I0403 16:09:20.015784 17232 net.cpp:425] inception_4b/3x3_reduce <- inception_4a/output_inception_4a/output_0_split_2
I0403 16:09:20.015808 17232 net.cpp:399] inception_4b/3x3_reduce -> inception_4b/3x3_reduce
I0403 16:09:20.017458 17232 net.cpp:141] Setting up inception_4b/3x3_reduce
I0403 16:09:20.017496 17232 net.cpp:148] Top shape: 24 112 14 14 (526848)
I0403 16:09:20.017518 17232 net.cpp:156] Memory required for data: 954332448
I0403 16:09:20.017540 17232 layer_factory.hpp:77] Creating layer inception_4b/relu_3x3_reduce
I0403 16:09:20.017563 17232 net.cpp:91] Creating Layer inception_4b/relu_3x3_reduce
I0403 16:09:20.017590 17232 net.cpp:425] inception_4b/relu_3x3_reduce <- inception_4b/3x3_reduce
I0403 16:09:20.017616 17232 net.cpp:386] inception_4b/relu_3x3_reduce -> inception_4b/3x3_reduce (in-place)
I0403 16:09:20.017953 17232 net.cpp:141] Setting up inception_4b/relu_3x3_reduce
I0403 16:09:20.017988 17232 net.cpp:148] Top shape: 24 112 14 14 (526848)
I0403 16:09:20.018008 17232 net.cpp:156] Memory required for data: 956439840
I0403 16:09:20.018028 17232 layer_factory.hpp:77] Creating layer inception_4b/3x3
I0403 16:09:20.018055 17232 net.cpp:91] Creating Layer inception_4b/3x3
I0403 16:09:20.018077 17232 net.cpp:425] inception_4b/3x3 <- inception_4b/3x3_reduce
I0403 16:09:20.018100 17232 net.cpp:399] inception_4b/3x3 -> inception_4b/3x3
I0403 16:09:20.021742 17232 net.cpp:141] Setting up inception_4b/3x3
I0403 16:09:20.021780 17232 net.cpp:148] Top shape: 24 224 14 14 (1053696)
I0403 16:09:20.021800 17232 net.cpp:156] Memory required for data: 960654624
I0403 16:09:20.021823 17232 layer_factory.hpp:77] Creating layer inception_4b/relu_3x3
I0403 16:09:20.021848 17232 net.cpp:91] Creating Layer inception_4b/relu_3x3
I0403 16:09:20.021869 17232 net.cpp:425] inception_4b/relu_3x3 <- inception_4b/3x3
I0403 16:09:20.021890 17232 net.cpp:386] inception_4b/relu_3x3 -> inception_4b/3x3 (in-place)
I0403 16:09:20.022112 17232 net.cpp:141] Setting up inception_4b/relu_3x3
I0403 16:09:20.022142 17232 net.cpp:148] Top shape: 24 224 14 14 (1053696)
I0403 16:09:20.022161 17232 net.cpp:156] Memory required for data: 964869408
I0403 16:09:20.022179 17232 layer_factory.hpp:77] Creating layer inception_4b/5x5_reduce
I0403 16:09:20.022210 17232 net.cpp:91] Creating Layer inception_4b/5x5_reduce
I0403 16:09:20.022233 17232 net.cpp:425] inception_4b/5x5_reduce <- inception_4a/output_inception_4a/output_0_split_3
I0403 16:09:20.022258 17232 net.cpp:399] inception_4b/5x5_reduce -> inception_4b/5x5_reduce
I0403 16:09:20.023586 17232 net.cpp:141] Setting up inception_4b/5x5_reduce
I0403 16:09:20.023622 17232 net.cpp:148] Top shape: 24 24 14 14 (112896)
I0403 16:09:20.023641 17232 net.cpp:156] Memory required for data: 965320992
I0403 16:09:20.023668 17232 layer_factory.hpp:77] Creating layer inception_4b/relu_5x5_reduce
I0403 16:09:20.023692 17232 net.cpp:91] Creating Layer inception_4b/relu_5x5_reduce
I0403 16:09:20.023730 17232 net.cpp:425] inception_4b/relu_5x5_reduce <- inception_4b/5x5_reduce
I0403 16:09:20.023753 17232 net.cpp:386] inception_4b/relu_5x5_reduce -> inception_4b/5x5_reduce (in-place)
I0403 16:09:20.023988 17232 net.cpp:141] Setting up inception_4b/relu_5x5_reduce
I0403 16:09:20.024019 17232 net.cpp:148] Top shape: 24 24 14 14 (112896)
I0403 16:09:20.024036 17232 net.cpp:156] Memory required for data: 965772576
I0403 16:09:20.024055 17232 layer_factory.hpp:77] Creating layer inception_4b/5x5
I0403 16:09:20.024082 17232 net.cpp:91] Creating Layer inception_4b/5x5
I0403 16:09:20.024104 17232 net.cpp:425] inception_4b/5x5 <- inception_4b/5x5_reduce
I0403 16:09:20.024132 17232 net.cpp:399] inception_4b/5x5 -> inception_4b/5x5
I0403 16:09:20.025648 17232 net.cpp:141] Setting up inception_4b/5x5
I0403 16:09:20.025683 17232 net.cpp:148] Top shape: 24 64 14 14 (301056)
I0403 16:09:20.025703 17232 net.cpp:156] Memory required for data: 966976800
I0403 16:09:20.025727 17232 layer_factory.hpp:77] Creating layer inception_4b/relu_5x5
I0403 16:09:20.025753 17232 net.cpp:91] Creating Layer inception_4b/relu_5x5
I0403 16:09:20.025775 17232 net.cpp:425] inception_4b/relu_5x5 <- inception_4b/5x5
I0403 16:09:20.025797 17232 net.cpp:386] inception_4b/relu_5x5 -> inception_4b/5x5 (in-place)
I0403 16:09:20.026141 17232 net.cpp:141] Setting up inception_4b/relu_5x5
I0403 16:09:20.026173 17232 net.cpp:148] Top shape: 24 64 14 14 (301056)
I0403 16:09:20.026192 17232 net.cpp:156] Memory required for data: 968181024
I0403 16:09:20.026211 17232 layer_factory.hpp:77] Creating layer inception_4b/pool
I0403 16:09:20.026237 17232 net.cpp:91] Creating Layer inception_4b/pool
I0403 16:09:20.026257 17232 net.cpp:425] inception_4b/pool <- inception_4a/output_inception_4a/output_0_split_4
I0403 16:09:20.026280 17232 net.cpp:399] inception_4b/pool -> inception_4b/pool
I0403 16:09:20.026360 17232 net.cpp:141] Setting up inception_4b/pool
I0403 16:09:20.026388 17232 net.cpp:148] Top shape: 24 512 14 14 (2408448)
I0403 16:09:20.026407 17232 net.cpp:156] Memory required for data: 977814816
I0403 16:09:20.026424 17232 layer_factory.hpp:77] Creating layer inception_4b/pool_proj
I0403 16:09:20.026451 17232 net.cpp:91] Creating Layer inception_4b/pool_proj
I0403 16:09:20.026473 17232 net.cpp:425] inception_4b/pool_proj <- inception_4b/pool
I0403 16:09:20.026499 17232 net.cpp:399] inception_4b/pool_proj -> inception_4b/pool_proj
I0403 16:09:20.027979 17232 net.cpp:141] Setting up inception_4b/pool_proj
I0403 16:09:20.028018 17232 net.cpp:148] Top shape: 24 64 14 14 (301056)
I0403 16:09:20.028039 17232 net.cpp:156] Memory required for data: 979019040
I0403 16:09:20.028062 17232 layer_factory.hpp:77] Creating layer inception_4b/relu_pool_proj
I0403 16:09:20.028084 17232 net.cpp:91] Creating Layer inception_4b/relu_pool_proj
I0403 16:09:20.028105 17232 net.cpp:425] inception_4b/relu_pool_proj <- inception_4b/pool_proj
I0403 16:09:20.028126 17232 net.cpp:386] inception_4b/relu_pool_proj -> inception_4b/pool_proj (in-place)
I0403 16:09:20.028354 17232 net.cpp:141] Setting up inception_4b/relu_pool_proj
I0403 16:09:20.028385 17232 net.cpp:148] Top shape: 24 64 14 14 (301056)
I0403 16:09:20.028404 17232 net.cpp:156] Memory required for data: 980223264
I0403 16:09:20.028424 17232 layer_factory.hpp:77] Creating layer inception_4b/output
I0403 16:09:20.028445 17232 net.cpp:91] Creating Layer inception_4b/output
I0403 16:09:20.028465 17232 net.cpp:425] inception_4b/output <- inception_4b/1x1
I0403 16:09:20.028486 17232 net.cpp:425] inception_4b/output <- inception_4b/3x3
I0403 16:09:20.028504 17232 net.cpp:425] inception_4b/output <- inception_4b/5x5
I0403 16:09:20.028524 17232 net.cpp:425] inception_4b/output <- inception_4b/pool_proj
I0403 16:09:20.028548 17232 net.cpp:399] inception_4b/output -> inception_4b/output
I0403 16:09:20.028609 17232 net.cpp:141] Setting up inception_4b/output
I0403 16:09:20.028638 17232 net.cpp:148] Top shape: 24 512 14 14 (2408448)
I0403 16:09:20.028656 17232 net.cpp:156] Memory required for data: 989857056
I0403 16:09:20.028692 17232 layer_factory.hpp:77] Creating layer inception_4b/output_inception_4b/output_0_split
I0403 16:09:20.028718 17232 net.cpp:91] Creating Layer inception_4b/output_inception_4b/output_0_split
I0403 16:09:20.028738 17232 net.cpp:425] inception_4b/output_inception_4b/output_0_split <- inception_4b/output
I0403 16:09:20.028761 17232 net.cpp:399] inception_4b/output_inception_4b/output_0_split -> inception_4b/output_inception_4b/output_0_split_0
I0403 16:09:20.028790 17232 net.cpp:399] inception_4b/output_inception_4b/output_0_split -> inception_4b/output_inception_4b/output_0_split_1
I0403 16:09:20.028816 17232 net.cpp:399] inception_4b/output_inception_4b/output_0_split -> inception_4b/output_inception_4b/output_0_split_2
I0403 16:09:20.028842 17232 net.cpp:399] inception_4b/output_inception_4b/output_0_split -> inception_4b/output_inception_4b/output_0_split_3
I0403 16:09:20.028946 17232 net.cpp:141] Setting up inception_4b/output_inception_4b/output_0_split
I0403 16:09:20.028975 17232 net.cpp:148] Top shape: 24 512 14 14 (2408448)
I0403 16:09:20.028996 17232 net.cpp:148] Top shape: 24 512 14 14 (2408448)
I0403 16:09:20.029016 17232 net.cpp:148] Top shape: 24 512 14 14 (2408448)
I0403 16:09:20.029033 17232 net.cpp:148] Top shape: 24 512 14 14 (2408448)
I0403 16:09:20.029050 17232 net.cpp:156] Memory required for data: 1028392224
I0403 16:09:20.029069 17232 layer_factory.hpp:77] Creating layer inception_4c/1x1
I0403 16:09:20.029096 17232 net.cpp:91] Creating Layer inception_4c/1x1
I0403 16:09:20.029117 17232 net.cpp:425] inception_4c/1x1 <- inception_4b/output_inception_4b/output_0_split_0
I0403 16:09:20.029145 17232 net.cpp:399] inception_4c/1x1 -> inception_4c/1x1
I0403 16:09:20.030907 17232 net.cpp:141] Setting up inception_4c/1x1
I0403 16:09:20.030942 17232 net.cpp:148] Top shape: 24 128 14 14 (602112)
I0403 16:09:20.030961 17232 net.cpp:156] Memory required for data: 1030800672
I0403 16:09:20.030984 17232 layer_factory.hpp:77] Creating layer inception_4c/relu_1x1
I0403 16:09:20.031007 17232 net.cpp:91] Creating Layer inception_4c/relu_1x1
I0403 16:09:20.031055 17232 net.cpp:425] inception_4c/relu_1x1 <- inception_4c/1x1
I0403 16:09:20.031076 17232 net.cpp:386] inception_4c/relu_1x1 -> inception_4c/1x1 (in-place)
I0403 16:09:20.031301 17232 net.cpp:141] Setting up inception_4c/relu_1x1
I0403 16:09:20.031332 17232 net.cpp:148] Top shape: 24 128 14 14 (602112)
I0403 16:09:20.031350 17232 net.cpp:156] Memory required for data: 1033209120
I0403 16:09:20.031368 17232 layer_factory.hpp:77] Creating layer inception_4c/3x3_reduce
I0403 16:09:20.031396 17232 net.cpp:91] Creating Layer inception_4c/3x3_reduce
I0403 16:09:20.031417 17232 net.cpp:425] inception_4c/3x3_reduce <- inception_4b/output_inception_4b/output_0_split_1
I0403 16:09:20.031443 17232 net.cpp:399] inception_4c/3x3_reduce -> inception_4c/3x3_reduce
I0403 16:09:20.033802 17232 net.cpp:141] Setting up inception_4c/3x3_reduce
I0403 16:09:20.033839 17232 net.cpp:148] Top shape: 24 128 14 14 (602112)
I0403 16:09:20.033859 17232 net.cpp:156] Memory required for data: 1035617568
I0403 16:09:20.033881 17232 layer_factory.hpp:77] Creating layer inception_4c/relu_3x3_reduce
I0403 16:09:20.033905 17232 net.cpp:91] Creating Layer inception_4c/relu_3x3_reduce
I0403 16:09:20.033927 17232 net.cpp:425] inception_4c/relu_3x3_reduce <- inception_4c/3x3_reduce
I0403 16:09:20.033948 17232 net.cpp:386] inception_4c/relu_3x3_reduce -> inception_4c/3x3_reduce (in-place)
I0403 16:09:20.034301 17232 net.cpp:141] Setting up inception_4c/relu_3x3_reduce
I0403 16:09:20.034335 17232 net.cpp:148] Top shape: 24 128 14 14 (602112)
I0403 16:09:20.034354 17232 net.cpp:156] Memory required for data: 1038026016
I0403 16:09:20.034373 17232 layer_factory.hpp:77] Creating layer inception_4c/3x3
I0403 16:09:20.034400 17232 net.cpp:91] Creating Layer inception_4c/3x3
I0403 16:09:20.034426 17232 net.cpp:425] inception_4c/3x3 <- inception_4c/3x3_reduce
I0403 16:09:20.034451 17232 net.cpp:399] inception_4c/3x3 -> inception_4c/3x3
I0403 16:09:20.038844 17232 net.cpp:141] Setting up inception_4c/3x3
I0403 16:09:20.038897 17232 net.cpp:148] Top shape: 24 256 14 14 (1204224)
I0403 16:09:20.038919 17232 net.cpp:156] Memory required for data: 1042842912
I0403 16:09:20.038959 17232 layer_factory.hpp:77] Creating layer inception_4c/relu_3x3
I0403 16:09:20.038983 17232 net.cpp:91] Creating Layer inception_4c/relu_3x3
I0403 16:09:20.039003 17232 net.cpp:425] inception_4c/relu_3x3 <- inception_4c/3x3
I0403 16:09:20.039026 17232 net.cpp:386] inception_4c/relu_3x3 -> inception_4c/3x3 (in-place)
I0403 16:09:20.039255 17232 net.cpp:141] Setting up inception_4c/relu_3x3
I0403 16:09:20.039288 17232 net.cpp:148] Top shape: 24 256 14 14 (1204224)
I0403 16:09:20.039309 17232 net.cpp:156] Memory required for data: 1047659808
I0403 16:09:20.039327 17232 layer_factory.hpp:77] Creating layer inception_4c/5x5_reduce
I0403 16:09:20.039356 17232 net.cpp:91] Creating Layer inception_4c/5x5_reduce
I0403 16:09:20.039379 17232 net.cpp:425] inception_4c/5x5_reduce <- inception_4b/output_inception_4b/output_0_split_2
I0403 16:09:20.039403 17232 net.cpp:399] inception_4c/5x5_reduce -> inception_4c/5x5_reduce
I0403 16:09:20.040753 17232 net.cpp:141] Setting up inception_4c/5x5_reduce
I0403 16:09:20.040788 17232 net.cpp:148] Top shape: 24 24 14 14 (112896)
I0403 16:09:20.040808 17232 net.cpp:156] Memory required for data: 1048111392
I0403 16:09:20.040830 17232 layer_factory.hpp:77] Creating layer inception_4c/relu_5x5_reduce
I0403 16:09:20.040855 17232 net.cpp:91] Creating Layer inception_4c/relu_5x5_reduce
I0403 16:09:20.040876 17232 net.cpp:425] inception_4c/relu_5x5_reduce <- inception_4c/5x5_reduce
I0403 16:09:20.040899 17232 net.cpp:386] inception_4c/relu_5x5_reduce -> inception_4c/5x5_reduce (in-place)
I0403 16:09:20.041129 17232 net.cpp:141] Setting up inception_4c/relu_5x5_reduce
I0403 16:09:20.041159 17232 net.cpp:148] Top shape: 24 24 14 14 (112896)
I0403 16:09:20.041178 17232 net.cpp:156] Memory required for data: 1048562976
I0403 16:09:20.041196 17232 layer_factory.hpp:77] Creating layer inception_4c/5x5
I0403 16:09:20.041224 17232 net.cpp:91] Creating Layer inception_4c/5x5
I0403 16:09:20.041245 17232 net.cpp:425] inception_4c/5x5 <- inception_4c/5x5_reduce
I0403 16:09:20.041271 17232 net.cpp:399] inception_4c/5x5 -> inception_4c/5x5
I0403 16:09:20.042811 17232 net.cpp:141] Setting up inception_4c/5x5
I0403 16:09:20.042852 17232 net.cpp:148] Top shape: 24 64 14 14 (301056)
I0403 16:09:20.042873 17232 net.cpp:156] Memory required for data: 1049767200
I0403 16:09:20.042896 17232 layer_factory.hpp:77] Creating layer inception_4c/relu_5x5
I0403 16:09:20.042919 17232 net.cpp:91] Creating Layer inception_4c/relu_5x5
I0403 16:09:20.042938 17232 net.cpp:425] inception_4c/relu_5x5 <- inception_4c/5x5
I0403 16:09:20.042963 17232 net.cpp:386] inception_4c/relu_5x5 -> inception_4c/5x5 (in-place)
I0403 16:09:20.043310 17232 net.cpp:141] Setting up inception_4c/relu_5x5
I0403 16:09:20.043345 17232 net.cpp:148] Top shape: 24 64 14 14 (301056)
I0403 16:09:20.043365 17232 net.cpp:156] Memory required for data: 1050971424
I0403 16:09:20.043385 17232 layer_factory.hpp:77] Creating layer inception_4c/pool
I0403 16:09:20.043407 17232 net.cpp:91] Creating Layer inception_4c/pool
I0403 16:09:20.043426 17232 net.cpp:425] inception_4c/pool <- inception_4b/output_inception_4b/output_0_split_3
I0403 16:09:20.043452 17232 net.cpp:399] inception_4c/pool -> inception_4c/pool
I0403 16:09:20.043534 17232 net.cpp:141] Setting up inception_4c/pool
I0403 16:09:20.043567 17232 net.cpp:148] Top shape: 24 512 14 14 (2408448)
I0403 16:09:20.043593 17232 net.cpp:156] Memory required for data: 1060605216
I0403 16:09:20.043612 17232 layer_factory.hpp:77] Creating layer inception_4c/pool_proj
I0403 16:09:20.043639 17232 net.cpp:91] Creating Layer inception_4c/pool_proj
I0403 16:09:20.043661 17232 net.cpp:425] inception_4c/pool_proj <- inception_4c/pool
I0403 16:09:20.043684 17232 net.cpp:399] inception_4c/pool_proj -> inception_4c/pool_proj
I0403 16:09:20.045207 17232 net.cpp:141] Setting up inception_4c/pool_proj
I0403 16:09:20.045245 17232 net.cpp:148] Top shape: 24 64 14 14 (301056)
I0403 16:09:20.045282 17232 net.cpp:156] Memory required for data: 1061809440
I0403 16:09:20.045307 17232 layer_factory.hpp:77] Creating layer inception_4c/relu_pool_proj
I0403 16:09:20.045331 17232 net.cpp:91] Creating Layer inception_4c/relu_pool_proj
I0403 16:09:20.045351 17232 net.cpp:425] inception_4c/relu_pool_proj <- inception_4c/pool_proj
I0403 16:09:20.045372 17232 net.cpp:386] inception_4c/relu_pool_proj -> inception_4c/pool_proj (in-place)
I0403 16:09:20.045614 17232 net.cpp:141] Setting up inception_4c/relu_pool_proj
I0403 16:09:20.045649 17232 net.cpp:148] Top shape: 24 64 14 14 (301056)
I0403 16:09:20.045668 17232 net.cpp:156] Memory required for data: 1063013664
I0403 16:09:20.045686 17232 layer_factory.hpp:77] Creating layer inception_4c/output
I0403 16:09:20.045707 17232 net.cpp:91] Creating Layer inception_4c/output
I0403 16:09:20.045727 17232 net.cpp:425] inception_4c/output <- inception_4c/1x1
I0403 16:09:20.045747 17232 net.cpp:425] inception_4c/output <- inception_4c/3x3
I0403 16:09:20.045770 17232 net.cpp:425] inception_4c/output <- inception_4c/5x5
I0403 16:09:20.045790 17232 net.cpp:425] inception_4c/output <- inception_4c/pool_proj
I0403 16:09:20.045814 17232 net.cpp:399] inception_4c/output -> inception_4c/output
I0403 16:09:20.045871 17232 net.cpp:141] Setting up inception_4c/output
I0403 16:09:20.045902 17232 net.cpp:148] Top shape: 24 512 14 14 (2408448)
I0403 16:09:20.045919 17232 net.cpp:156] Memory required for data: 1072647456
I0403 16:09:20.045938 17232 layer_factory.hpp:77] Creating layer inception_4c/output_inception_4c/output_0_split
I0403 16:09:20.045963 17232 net.cpp:91] Creating Layer inception_4c/output_inception_4c/output_0_split
I0403 16:09:20.045984 17232 net.cpp:425] inception_4c/output_inception_4c/output_0_split <- inception_4c/output
I0403 16:09:20.046005 17232 net.cpp:399] inception_4c/output_inception_4c/output_0_split -> inception_4c/output_inception_4c/output_0_split_0
I0403 16:09:20.046030 17232 net.cpp:399] inception_4c/output_inception_4c/output_0_split -> inception_4c/output_inception_4c/output_0_split_1
I0403 16:09:20.046058 17232 net.cpp:399] inception_4c/output_inception_4c/output_0_split -> inception_4c/output_inception_4c/output_0_split_2
I0403 16:09:20.046084 17232 net.cpp:399] inception_4c/output_inception_4c/output_0_split -> inception_4c/output_inception_4c/output_0_split_3
I0403 16:09:20.046190 17232 net.cpp:141] Setting up inception_4c/output_inception_4c/output_0_split
I0403 16:09:20.046221 17232 net.cpp:148] Top shape: 24 512 14 14 (2408448)
I0403 16:09:20.046241 17232 net.cpp:148] Top shape: 24 512 14 14 (2408448)
I0403 16:09:20.046259 17232 net.cpp:148] Top shape: 24 512 14 14 (2408448)
I0403 16:09:20.046277 17232 net.cpp:148] Top shape: 24 512 14 14 (2408448)
I0403 16:09:20.046294 17232 net.cpp:156] Memory required for data: 1111182624
I0403 16:09:20.046313 17232 layer_factory.hpp:77] Creating layer inception_4d/1x1
I0403 16:09:20.046342 17232 net.cpp:91] Creating Layer inception_4d/1x1
I0403 16:09:20.046363 17232 net.cpp:425] inception_4d/1x1 <- inception_4c/output_inception_4c/output_0_split_0
I0403 16:09:20.046389 17232 net.cpp:399] inception_4d/1x1 -> inception_4d/1x1
I0403 16:09:20.048094 17232 net.cpp:141] Setting up inception_4d/1x1
I0403 16:09:20.048128 17232 net.cpp:148] Top shape: 24 112 14 14 (526848)
I0403 16:09:20.048148 17232 net.cpp:156] Memory required for data: 1113290016
I0403 16:09:20.048171 17232 layer_factory.hpp:77] Creating layer inception_4d/relu_1x1
I0403 16:09:20.048197 17232 net.cpp:91] Creating Layer inception_4d/relu_1x1
I0403 16:09:20.048218 17232 net.cpp:425] inception_4d/relu_1x1 <- inception_4d/1x1
I0403 16:09:20.048238 17232 net.cpp:386] inception_4d/relu_1x1 -> inception_4d/1x1 (in-place)
I0403 16:09:20.048467 17232 net.cpp:141] Setting up inception_4d/relu_1x1
I0403 16:09:20.048498 17232 net.cpp:148] Top shape: 24 112 14 14 (526848)
I0403 16:09:20.048517 17232 net.cpp:156] Memory required for data: 1115397408
I0403 16:09:20.048535 17232 layer_factory.hpp:77] Creating layer inception_4d/3x3_reduce
I0403 16:09:20.048586 17232 net.cpp:91] Creating Layer inception_4d/3x3_reduce
I0403 16:09:20.048610 17232 net.cpp:425] inception_4d/3x3_reduce <- inception_4c/output_inception_4c/output_0_split_1
I0403 16:09:20.048635 17232 net.cpp:399] inception_4d/3x3_reduce -> inception_4d/3x3_reduce
I0403 16:09:20.050487 17232 net.cpp:141] Setting up inception_4d/3x3_reduce
I0403 16:09:20.050521 17232 net.cpp:148] Top shape: 24 144 14 14 (677376)
I0403 16:09:20.050540 17232 net.cpp:156] Memory required for data: 1118106912
I0403 16:09:20.050562 17232 layer_factory.hpp:77] Creating layer inception_4d/relu_3x3_reduce
I0403 16:09:20.050591 17232 net.cpp:91] Creating Layer inception_4d/relu_3x3_reduce
I0403 16:09:20.050612 17232 net.cpp:425] inception_4d/relu_3x3_reduce <- inception_4d/3x3_reduce
I0403 16:09:20.050637 17232 net.cpp:386] inception_4d/relu_3x3_reduce -> inception_4d/3x3_reduce (in-place)
I0403 16:09:20.050992 17232 net.cpp:141] Setting up inception_4d/relu_3x3_reduce
I0403 16:09:20.051024 17232 net.cpp:148] Top shape: 24 144 14 14 (677376)
I0403 16:09:20.051043 17232 net.cpp:156] Memory required for data: 1120816416
I0403 16:09:20.051061 17232 layer_factory.hpp:77] Creating layer inception_4d/3x3
I0403 16:09:20.051090 17232 net.cpp:91] Creating Layer inception_4d/3x3
I0403 16:09:20.051112 17232 net.cpp:425] inception_4d/3x3 <- inception_4d/3x3_reduce
I0403 16:09:20.051141 17232 net.cpp:399] inception_4d/3x3 -> inception_4d/3x3
I0403 16:09:20.056404 17232 net.cpp:141] Setting up inception_4d/3x3
I0403 16:09:20.056442 17232 net.cpp:148] Top shape: 24 288 14 14 (1354752)
I0403 16:09:20.056460 17232 net.cpp:156] Memory required for data: 1126235424
I0403 16:09:20.056484 17232 layer_factory.hpp:77] Creating layer inception_4d/relu_3x3
I0403 16:09:20.056510 17232 net.cpp:91] Creating Layer inception_4d/relu_3x3
I0403 16:09:20.056531 17232 net.cpp:425] inception_4d/relu_3x3 <- inception_4d/3x3
I0403 16:09:20.056553 17232 net.cpp:386] inception_4d/relu_3x3 -> inception_4d/3x3 (in-place)
I0403 16:09:20.056787 17232 net.cpp:141] Setting up inception_4d/relu_3x3
I0403 16:09:20.056820 17232 net.cpp:148] Top shape: 24 288 14 14 (1354752)
I0403 16:09:20.056840 17232 net.cpp:156] Memory required for data: 1131654432
I0403 16:09:20.056859 17232 layer_factory.hpp:77] Creating layer inception_4d/5x5_reduce
I0403 16:09:20.056887 17232 net.cpp:91] Creating Layer inception_4d/5x5_reduce
I0403 16:09:20.056910 17232 net.cpp:425] inception_4d/5x5_reduce <- inception_4c/output_inception_4c/output_0_split_2
I0403 16:09:20.056934 17232 net.cpp:399] inception_4d/5x5_reduce -> inception_4d/5x5_reduce
I0403 16:09:20.058342 17232 net.cpp:141] Setting up inception_4d/5x5_reduce
I0403 16:09:20.058377 17232 net.cpp:148] Top shape: 24 32 14 14 (150528)
I0403 16:09:20.058398 17232 net.cpp:156] Memory required for data: 1132256544
I0403 16:09:20.058420 17232 layer_factory.hpp:77] Creating layer inception_4d/relu_5x5_reduce
I0403 16:09:20.058446 17232 net.cpp:91] Creating Layer inception_4d/relu_5x5_reduce
I0403 16:09:20.058468 17232 net.cpp:425] inception_4d/relu_5x5_reduce <- inception_4d/5x5_reduce
I0403 16:09:20.058490 17232 net.cpp:386] inception_4d/relu_5x5_reduce -> inception_4d/5x5_reduce (in-place)
I0403 16:09:20.058732 17232 net.cpp:141] Setting up inception_4d/relu_5x5_reduce
I0403 16:09:20.058763 17232 net.cpp:148] Top shape: 24 32 14 14 (150528)
I0403 16:09:20.058781 17232 net.cpp:156] Memory required for data: 1132858656
I0403 16:09:20.058800 17232 layer_factory.hpp:77] Creating layer inception_4d/5x5
I0403 16:09:20.058828 17232 net.cpp:91] Creating Layer inception_4d/5x5
I0403 16:09:20.058851 17232 net.cpp:425] inception_4d/5x5 <- inception_4d/5x5_reduce
I0403 16:09:20.058873 17232 net.cpp:399] inception_4d/5x5 -> inception_4d/5x5
I0403 16:09:20.060669 17232 net.cpp:141] Setting up inception_4d/5x5
I0403 16:09:20.060708 17232 net.cpp:148] Top shape: 24 64 14 14 (301056)
I0403 16:09:20.060729 17232 net.cpp:156] Memory required for data: 1134062880
I0403 16:09:20.060752 17232 layer_factory.hpp:77] Creating layer inception_4d/relu_5x5
I0403 16:09:20.060792 17232 net.cpp:91] Creating Layer inception_4d/relu_5x5
I0403 16:09:20.060814 17232 net.cpp:425] inception_4d/relu_5x5 <- inception_4d/5x5
I0403 16:09:20.060839 17232 net.cpp:386] inception_4d/relu_5x5 -> inception_4d/5x5 (in-place)
I0403 16:09:20.061208 17232 net.cpp:141] Setting up inception_4d/relu_5x5
I0403 16:09:20.061244 17232 net.cpp:148] Top shape: 24 64 14 14 (301056)
I0403 16:09:20.061264 17232 net.cpp:156] Memory required for data: 1135267104
I0403 16:09:20.061283 17232 layer_factory.hpp:77] Creating layer inception_4d/pool
I0403 16:09:20.061305 17232 net.cpp:91] Creating Layer inception_4d/pool
I0403 16:09:20.061324 17232 net.cpp:425] inception_4d/pool <- inception_4c/output_inception_4c/output_0_split_3
I0403 16:09:20.061348 17232 net.cpp:399] inception_4d/pool -> inception_4d/pool
I0403 16:09:20.061431 17232 net.cpp:141] Setting up inception_4d/pool
I0403 16:09:20.061461 17232 net.cpp:148] Top shape: 24 512 14 14 (2408448)
I0403 16:09:20.061480 17232 net.cpp:156] Memory required for data: 1144900896
I0403 16:09:20.061498 17232 layer_factory.hpp:77] Creating layer inception_4d/pool_proj
I0403 16:09:20.061525 17232 net.cpp:91] Creating Layer inception_4d/pool_proj
I0403 16:09:20.061547 17232 net.cpp:425] inception_4d/pool_proj <- inception_4d/pool
I0403 16:09:20.061578 17232 net.cpp:399] inception_4d/pool_proj -> inception_4d/pool_proj
I0403 16:09:20.063712 17232 net.cpp:141] Setting up inception_4d/pool_proj
I0403 16:09:20.063748 17232 net.cpp:148] Top shape: 24 64 14 14 (301056)
I0403 16:09:20.063771 17232 net.cpp:156] Memory required for data: 1146105120
I0403 16:09:20.063793 17232 layer_factory.hpp:77] Creating layer inception_4d/relu_pool_proj
I0403 16:09:20.063818 17232 net.cpp:91] Creating Layer inception_4d/relu_pool_proj
I0403 16:09:20.063840 17232 net.cpp:425] inception_4d/relu_pool_proj <- inception_4d/pool_proj
I0403 16:09:20.063861 17232 net.cpp:386] inception_4d/relu_pool_proj -> inception_4d/pool_proj (in-place)
I0403 16:09:20.064090 17232 net.cpp:141] Setting up inception_4d/relu_pool_proj
I0403 16:09:20.064124 17232 net.cpp:148] Top shape: 24 64 14 14 (301056)
I0403 16:09:20.064144 17232 net.cpp:156] Memory required for data: 1147309344
I0403 16:09:20.064162 17232 layer_factory.hpp:77] Creating layer inception_4d/output
I0403 16:09:20.064182 17232 net.cpp:91] Creating Layer inception_4d/output
I0403 16:09:20.064203 17232 net.cpp:425] inception_4d/output <- inception_4d/1x1
I0403 16:09:20.064224 17232 net.cpp:425] inception_4d/output <- inception_4d/3x3
I0403 16:09:20.064244 17232 net.cpp:425] inception_4d/output <- inception_4d/5x5
I0403 16:09:20.064263 17232 net.cpp:425] inception_4d/output <- inception_4d/pool_proj
I0403 16:09:20.064283 17232 net.cpp:399] inception_4d/output -> inception_4d/output
I0403 16:09:20.064345 17232 net.cpp:141] Setting up inception_4d/output
I0403 16:09:20.064374 17232 net.cpp:148] Top shape: 24 528 14 14 (2483712)
I0403 16:09:20.064393 17232 net.cpp:156] Memory required for data: 1157244192
I0403 16:09:20.064411 17232 layer_factory.hpp:77] Creating layer inception_4d/output_inception_4d/output_0_split
I0403 16:09:20.064436 17232 net.cpp:91] Creating Layer inception_4d/output_inception_4d/output_0_split
I0403 16:09:20.064457 17232 net.cpp:425] inception_4d/output_inception_4d/output_0_split <- inception_4d/output
I0403 16:09:20.064479 17232 net.cpp:399] inception_4d/output_inception_4d/output_0_split -> inception_4d/output_inception_4d/output_0_split_0
I0403 16:09:20.064504 17232 net.cpp:399] inception_4d/output_inception_4d/output_0_split -> inception_4d/output_inception_4d/output_0_split_1
I0403 16:09:20.064532 17232 net.cpp:399] inception_4d/output_inception_4d/output_0_split -> inception_4d/output_inception_4d/output_0_split_2
I0403 16:09:20.064560 17232 net.cpp:399] inception_4d/output_inception_4d/output_0_split -> inception_4d/output_inception_4d/output_0_split_3
I0403 16:09:20.064592 17232 net.cpp:399] inception_4d/output_inception_4d/output_0_split -> inception_4d/output_inception_4d/output_0_split_4
I0403 16:09:20.064728 17232 net.cpp:141] Setting up inception_4d/output_inception_4d/output_0_split
I0403 16:09:20.064775 17232 net.cpp:148] Top shape: 24 528 14 14 (2483712)
I0403 16:09:20.064796 17232 net.cpp:148] Top shape: 24 528 14 14 (2483712)
I0403 16:09:20.064816 17232 net.cpp:148] Top shape: 24 528 14 14 (2483712)
I0403 16:09:20.064836 17232 net.cpp:148] Top shape: 24 528 14 14 (2483712)
I0403 16:09:20.064854 17232 net.cpp:148] Top shape: 24 528 14 14 (2483712)
I0403 16:09:20.064872 17232 net.cpp:156] Memory required for data: 1206918432
I0403 16:09:20.064889 17232 layer_factory.hpp:77] Creating layer loss2/ave_pool
I0403 16:09:20.064914 17232 net.cpp:91] Creating Layer loss2/ave_pool
I0403 16:09:20.064936 17232 net.cpp:425] loss2/ave_pool <- inception_4d/output_inception_4d/output_0_split_0
I0403 16:09:20.064960 17232 net.cpp:399] loss2/ave_pool -> loss2/ave_pool
I0403 16:09:20.065341 17232 net.cpp:141] Setting up loss2/ave_pool
I0403 16:09:20.065374 17232 net.cpp:148] Top shape: 24 528 4 4 (202752)
I0403 16:09:20.065393 17232 net.cpp:156] Memory required for data: 1207729440
I0403 16:09:20.065412 17232 layer_factory.hpp:77] Creating layer loss2/conv
I0403 16:09:20.065440 17232 net.cpp:91] Creating Layer loss2/conv
I0403 16:09:20.065462 17232 net.cpp:425] loss2/conv <- loss2/ave_pool
I0403 16:09:20.065490 17232 net.cpp:399] loss2/conv -> loss2/conv
I0403 16:09:20.067812 17232 net.cpp:141] Setting up loss2/conv
I0403 16:09:20.067850 17232 net.cpp:148] Top shape: 24 128 4 4 (49152)
I0403 16:09:20.067872 17232 net.cpp:156] Memory required for data: 1207926048
I0403 16:09:20.067894 17232 layer_factory.hpp:77] Creating layer loss2/relu_conv
I0403 16:09:20.067917 17232 net.cpp:91] Creating Layer loss2/relu_conv
I0403 16:09:20.067939 17232 net.cpp:425] loss2/relu_conv <- loss2/conv
I0403 16:09:20.067962 17232 net.cpp:386] loss2/relu_conv -> loss2/conv (in-place)
I0403 16:09:20.068310 17232 net.cpp:141] Setting up loss2/relu_conv
I0403 16:09:20.068346 17232 net.cpp:148] Top shape: 24 128 4 4 (49152)
I0403 16:09:20.068364 17232 net.cpp:156] Memory required for data: 1208122656
I0403 16:09:20.068383 17232 layer_factory.hpp:77] Creating layer loss2/fc
I0403 16:09:20.068408 17232 net.cpp:91] Creating Layer loss2/fc
I0403 16:09:20.068428 17232 net.cpp:425] loss2/fc <- loss2/conv
I0403 16:09:20.068455 17232 net.cpp:399] loss2/fc -> loss2/fc
I0403 16:09:20.090267 17232 net.cpp:141] Setting up loss2/fc
I0403 16:09:20.090313 17232 net.cpp:148] Top shape: 24 1024 (24576)
I0403 16:09:20.090334 17232 net.cpp:156] Memory required for data: 1208220960
I0403 16:09:20.090358 17232 layer_factory.hpp:77] Creating layer loss2/relu_fc
I0403 16:09:20.090381 17232 net.cpp:91] Creating Layer loss2/relu_fc
I0403 16:09:20.090402 17232 net.cpp:425] loss2/relu_fc <- loss2/fc
I0403 16:09:20.090425 17232 net.cpp:386] loss2/relu_fc -> loss2/fc (in-place)
I0403 16:09:20.090795 17232 net.cpp:141] Setting up loss2/relu_fc
I0403 16:09:20.090828 17232 net.cpp:148] Top shape: 24 1024 (24576)
I0403 16:09:20.090847 17232 net.cpp:156] Memory required for data: 1208319264
I0403 16:09:20.090865 17232 layer_factory.hpp:77] Creating layer loss2/drop_fc
I0403 16:09:20.090891 17232 net.cpp:91] Creating Layer loss2/drop_fc
I0403 16:09:20.090914 17232 net.cpp:425] loss2/drop_fc <- loss2/fc
I0403 16:09:20.090936 17232 net.cpp:386] loss2/drop_fc -> loss2/fc (in-place)
I0403 16:09:20.090999 17232 net.cpp:141] Setting up loss2/drop_fc
I0403 16:09:20.091028 17232 net.cpp:148] Top shape: 24 1024 (24576)
I0403 16:09:20.091047 17232 net.cpp:156] Memory required for data: 1208417568
I0403 16:09:20.091065 17232 layer_factory.hpp:77] Creating layer loss2/classifier_plantvillage
I0403 16:09:20.091090 17232 net.cpp:91] Creating Layer loss2/classifier_plantvillage
I0403 16:09:20.091111 17232 net.cpp:425] loss2/classifier_plantvillage <- loss2/fc
I0403 16:09:20.091135 17232 net.cpp:399] loss2/classifier_plantvillage -> loss2/classifier_plantvillage
I0403 16:09:20.091637 17232 net.cpp:141] Setting up loss2/classifier_plantvillage
I0403 16:09:20.091668 17232 net.cpp:148] Top shape: 24 38 (912)
I0403 16:09:20.091687 17232 net.cpp:156] Memory required for data: 1208421216
I0403 16:09:20.091732 17232 layer_factory.hpp:77] Creating layer loss2/classifier_plantvillage_loss2/classifier_plantvillage_0_split
I0403 16:09:20.091755 17232 net.cpp:91] Creating Layer loss2/classifier_plantvillage_loss2/classifier_plantvillage_0_split
I0403 16:09:20.091776 17232 net.cpp:425] loss2/classifier_plantvillage_loss2/classifier_plantvillage_0_split <- loss2/classifier_plantvillage
I0403 16:09:20.091800 17232 net.cpp:399] loss2/classifier_plantvillage_loss2/classifier_plantvillage_0_split -> loss2/classifier_plantvillage_loss2/classifier_plantvillage_0_split_0
I0403 16:09:20.091826 17232 net.cpp:399] loss2/classifier_plantvillage_loss2/classifier_plantvillage_0_split -> loss2/classifier_plantvillage_loss2/classifier_plantvillage_0_split_1
I0403 16:09:20.091852 17232 net.cpp:399] loss2/classifier_plantvillage_loss2/classifier_plantvillage_0_split -> loss2/classifier_plantvillage_loss2/classifier_plantvillage_0_split_2
I0403 16:09:20.091948 17232 net.cpp:141] Setting up loss2/classifier_plantvillage_loss2/classifier_plantvillage_0_split
I0403 16:09:20.091980 17232 net.cpp:148] Top shape: 24 38 (912)
I0403 16:09:20.092002 17232 net.cpp:148] Top shape: 24 38 (912)
I0403 16:09:20.092021 17232 net.cpp:148] Top shape: 24 38 (912)
I0403 16:09:20.092038 17232 net.cpp:156] Memory required for data: 1208432160
I0403 16:09:20.092056 17232 layer_factory.hpp:77] Creating layer inception_4e/1x1
I0403 16:09:20.092083 17232 net.cpp:91] Creating Layer inception_4e/1x1
I0403 16:09:20.092104 17232 net.cpp:425] inception_4e/1x1 <- inception_4d/output_inception_4d/output_0_split_1
I0403 16:09:20.092129 17232 net.cpp:399] inception_4e/1x1 -> inception_4e/1x1
I0403 16:09:20.094375 17232 net.cpp:141] Setting up inception_4e/1x1
I0403 16:09:20.094413 17232 net.cpp:148] Top shape: 24 256 14 14 (1204224)
I0403 16:09:20.094432 17232 net.cpp:156] Memory required for data: 1213249056
I0403 16:09:20.094455 17232 layer_factory.hpp:77] Creating layer inception_4e/relu_1x1
I0403 16:09:20.094478 17232 net.cpp:91] Creating Layer inception_4e/relu_1x1
I0403 16:09:20.094498 17232 net.cpp:425] inception_4e/relu_1x1 <- inception_4e/1x1
I0403 16:09:20.094522 17232 net.cpp:386] inception_4e/relu_1x1 -> inception_4e/1x1 (in-place)
I0403 16:09:20.094897 17232 net.cpp:141] Setting up inception_4e/relu_1x1
I0403 16:09:20.094933 17232 net.cpp:148] Top shape: 24 256 14 14 (1204224)
I0403 16:09:20.094952 17232 net.cpp:156] Memory required for data: 1218065952
I0403 16:09:20.094971 17232 layer_factory.hpp:77] Creating layer inception_4e/3x3_reduce
I0403 16:09:20.095000 17232 net.cpp:91] Creating Layer inception_4e/3x3_reduce
I0403 16:09:20.095021 17232 net.cpp:425] inception_4e/3x3_reduce <- inception_4d/output_inception_4d/output_0_split_2
I0403 16:09:20.095046 17232 net.cpp:399] inception_4e/3x3_reduce -> inception_4e/3x3_reduce
I0403 16:09:20.097640 17232 net.cpp:141] Setting up inception_4e/3x3_reduce
I0403 16:09:20.097678 17232 net.cpp:148] Top shape: 24 160 14 14 (752640)
I0403 16:09:20.097699 17232 net.cpp:156] Memory required for data: 1221076512
I0403 16:09:20.097723 17232 layer_factory.hpp:77] Creating layer inception_4e/relu_3x3_reduce
I0403 16:09:20.097744 17232 net.cpp:91] Creating Layer inception_4e/relu_3x3_reduce
I0403 16:09:20.097766 17232 net.cpp:425] inception_4e/relu_3x3_reduce <- inception_4e/3x3_reduce
I0403 16:09:20.097787 17232 net.cpp:386] inception_4e/relu_3x3_reduce -> inception_4e/3x3_reduce (in-place)
I0403 16:09:20.098021 17232 net.cpp:141] Setting up inception_4e/relu_3x3_reduce
I0403 16:09:20.098052 17232 net.cpp:148] Top shape: 24 160 14 14 (752640)
I0403 16:09:20.098069 17232 net.cpp:156] Memory required for data: 1224087072
I0403 16:09:20.098088 17232 layer_factory.hpp:77] Creating layer inception_4e/3x3
I0403 16:09:20.098114 17232 net.cpp:91] Creating Layer inception_4e/3x3
I0403 16:09:20.098136 17232 net.cpp:425] inception_4e/3x3 <- inception_4e/3x3_reduce
I0403 16:09:20.098163 17232 net.cpp:399] inception_4e/3x3 -> inception_4e/3x3
I0403 16:09:20.104327 17232 net.cpp:141] Setting up inception_4e/3x3
I0403 16:09:20.104378 17232 net.cpp:148] Top shape: 24 320 14 14 (1505280)
I0403 16:09:20.104399 17232 net.cpp:156] Memory required for data: 1230108192
I0403 16:09:20.104423 17232 layer_factory.hpp:77] Creating layer inception_4e/relu_3x3
I0403 16:09:20.104445 17232 net.cpp:91] Creating Layer inception_4e/relu_3x3
I0403 16:09:20.104470 17232 net.cpp:425] inception_4e/relu_3x3 <- inception_4e/3x3
I0403 16:09:20.104490 17232 net.cpp:386] inception_4e/relu_3x3 -> inception_4e/3x3 (in-place)
I0403 16:09:20.104859 17232 net.cpp:141] Setting up inception_4e/relu_3x3
I0403 16:09:20.104894 17232 net.cpp:148] Top shape: 24 320 14 14 (1505280)
I0403 16:09:20.104913 17232 net.cpp:156] Memory required for data: 1236129312
I0403 16:09:20.104931 17232 layer_factory.hpp:77] Creating layer inception_4e/5x5_reduce
I0403 16:09:20.104959 17232 net.cpp:91] Creating Layer inception_4e/5x5_reduce
I0403 16:09:20.104980 17232 net.cpp:425] inception_4e/5x5_reduce <- inception_4d/output_inception_4d/output_0_split_3
I0403 16:09:20.105007 17232 net.cpp:399] inception_4e/5x5_reduce -> inception_4e/5x5_reduce
I0403 16:09:20.106346 17232 net.cpp:141] Setting up inception_4e/5x5_reduce
I0403 16:09:20.106384 17232 net.cpp:148] Top shape: 24 32 14 14 (150528)
I0403 16:09:20.106405 17232 net.cpp:156] Memory required for data: 1236731424
I0403 16:09:20.106427 17232 layer_factory.hpp:77] Creating layer inception_4e/relu_5x5_reduce
I0403 16:09:20.106451 17232 net.cpp:91] Creating Layer inception_4e/relu_5x5_reduce
I0403 16:09:20.106470 17232 net.cpp:425] inception_4e/relu_5x5_reduce <- inception_4e/5x5_reduce
I0403 16:09:20.106494 17232 net.cpp:386] inception_4e/relu_5x5_reduce -> inception_4e/5x5_reduce (in-place)
I0403 16:09:20.106859 17232 net.cpp:141] Setting up inception_4e/relu_5x5_reduce
I0403 16:09:20.106895 17232 net.cpp:148] Top shape: 24 32 14 14 (150528)
I0403 16:09:20.106914 17232 net.cpp:156] Memory required for data: 1237333536
I0403 16:09:20.106933 17232 layer_factory.hpp:77] Creating layer inception_4e/5x5
I0403 16:09:20.106981 17232 net.cpp:91] Creating Layer inception_4e/5x5
I0403 16:09:20.107004 17232 net.cpp:425] inception_4e/5x5 <- inception_4e/5x5_reduce
I0403 16:09:20.107028 17232 net.cpp:399] inception_4e/5x5 -> inception_4e/5x5
I0403 16:09:20.109294 17232 net.cpp:141] Setting up inception_4e/5x5
I0403 16:09:20.109328 17232 net.cpp:148] Top shape: 24 128 14 14 (602112)
I0403 16:09:20.109347 17232 net.cpp:156] Memory required for data: 1239741984
I0403 16:09:20.109371 17232 layer_factory.hpp:77] Creating layer inception_4e/relu_5x5
I0403 16:09:20.109396 17232 net.cpp:91] Creating Layer inception_4e/relu_5x5
I0403 16:09:20.109418 17232 net.cpp:425] inception_4e/relu_5x5 <- inception_4e/5x5
I0403 16:09:20.109441 17232 net.cpp:386] inception_4e/relu_5x5 -> inception_4e/5x5 (in-place)
I0403 16:09:20.109688 17232 net.cpp:141] Setting up inception_4e/relu_5x5
I0403 16:09:20.109721 17232 net.cpp:148] Top shape: 24 128 14 14 (602112)
I0403 16:09:20.109740 17232 net.cpp:156] Memory required for data: 1242150432
I0403 16:09:20.109758 17232 layer_factory.hpp:77] Creating layer inception_4e/pool
I0403 16:09:20.109781 17232 net.cpp:91] Creating Layer inception_4e/pool
I0403 16:09:20.109799 17232 net.cpp:425] inception_4e/pool <- inception_4d/output_inception_4d/output_0_split_4
I0403 16:09:20.109824 17232 net.cpp:399] inception_4e/pool -> inception_4e/pool
I0403 16:09:20.109913 17232 net.cpp:141] Setting up inception_4e/pool
I0403 16:09:20.109943 17232 net.cpp:148] Top shape: 24 528 14 14 (2483712)
I0403 16:09:20.109961 17232 net.cpp:156] Memory required for data: 1252085280
I0403 16:09:20.109980 17232 layer_factory.hpp:77] Creating layer inception_4e/pool_proj
I0403 16:09:20.110009 17232 net.cpp:91] Creating Layer inception_4e/pool_proj
I0403 16:09:20.110030 17232 net.cpp:425] inception_4e/pool_proj <- inception_4e/pool
I0403 16:09:20.110054 17232 net.cpp:399] inception_4e/pool_proj -> inception_4e/pool_proj
I0403 16:09:20.111922 17232 net.cpp:141] Setting up inception_4e/pool_proj
I0403 16:09:20.111958 17232 net.cpp:148] Top shape: 24 128 14 14 (602112)
I0403 16:09:20.111994 17232 net.cpp:156] Memory required for data: 1254493728
I0403 16:09:20.112020 17232 layer_factory.hpp:77] Creating layer inception_4e/relu_pool_proj
I0403 16:09:20.112046 17232 net.cpp:91] Creating Layer inception_4e/relu_pool_proj
I0403 16:09:20.112067 17232 net.cpp:425] inception_4e/relu_pool_proj <- inception_4e/pool_proj
I0403 16:09:20.112089 17232 net.cpp:386] inception_4e/relu_pool_proj -> inception_4e/pool_proj (in-place)
I0403 16:09:20.112447 17232 net.cpp:141] Setting up inception_4e/relu_pool_proj
I0403 16:09:20.112478 17232 net.cpp:148] Top shape: 24 128 14 14 (602112)
I0403 16:09:20.112498 17232 net.cpp:156] Memory required for data: 1256902176
I0403 16:09:20.112516 17232 layer_factory.hpp:77] Creating layer inception_4e/output
I0403 16:09:20.112541 17232 net.cpp:91] Creating Layer inception_4e/output
I0403 16:09:20.112562 17232 net.cpp:425] inception_4e/output <- inception_4e/1x1
I0403 16:09:20.112589 17232 net.cpp:425] inception_4e/output <- inception_4e/3x3
I0403 16:09:20.112610 17232 net.cpp:425] inception_4e/output <- inception_4e/5x5
I0403 16:09:20.112630 17232 net.cpp:425] inception_4e/output <- inception_4e/pool_proj
I0403 16:09:20.112650 17232 net.cpp:399] inception_4e/output -> inception_4e/output
I0403 16:09:20.112715 17232 net.cpp:141] Setting up inception_4e/output
I0403 16:09:20.112745 17232 net.cpp:148] Top shape: 24 832 14 14 (3913728)
I0403 16:09:20.112764 17232 net.cpp:156] Memory required for data: 1272557088
I0403 16:09:20.112782 17232 layer_factory.hpp:77] Creating layer pool4/3x3_s2
I0403 16:09:20.112804 17232 net.cpp:91] Creating Layer pool4/3x3_s2
I0403 16:09:20.112823 17232 net.cpp:425] pool4/3x3_s2 <- inception_4e/output
I0403 16:09:20.112848 17232 net.cpp:399] pool4/3x3_s2 -> pool4/3x3_s2
I0403 16:09:20.112932 17232 net.cpp:141] Setting up pool4/3x3_s2
I0403 16:09:20.112962 17232 net.cpp:148] Top shape: 24 832 7 7 (978432)
I0403 16:09:20.112979 17232 net.cpp:156] Memory required for data: 1276470816
I0403 16:09:20.112998 17232 layer_factory.hpp:77] Creating layer pool4/3x3_s2_pool4/3x3_s2_0_split
I0403 16:09:20.113023 17232 net.cpp:91] Creating Layer pool4/3x3_s2_pool4/3x3_s2_0_split
I0403 16:09:20.113044 17232 net.cpp:425] pool4/3x3_s2_pool4/3x3_s2_0_split <- pool4/3x3_s2
I0403 16:09:20.113066 17232 net.cpp:399] pool4/3x3_s2_pool4/3x3_s2_0_split -> pool4/3x3_s2_pool4/3x3_s2_0_split_0
I0403 16:09:20.113092 17232 net.cpp:399] pool4/3x3_s2_pool4/3x3_s2_0_split -> pool4/3x3_s2_pool4/3x3_s2_0_split_1
I0403 16:09:20.113117 17232 net.cpp:399] pool4/3x3_s2_pool4/3x3_s2_0_split -> pool4/3x3_s2_pool4/3x3_s2_0_split_2
I0403 16:09:20.113143 17232 net.cpp:399] pool4/3x3_s2_pool4/3x3_s2_0_split -> pool4/3x3_s2_pool4/3x3_s2_0_split_3
I0403 16:09:20.113255 17232 net.cpp:141] Setting up pool4/3x3_s2_pool4/3x3_s2_0_split
I0403 16:09:20.113284 17232 net.cpp:148] Top shape: 24 832 7 7 (978432)
I0403 16:09:20.113303 17232 net.cpp:148] Top shape: 24 832 7 7 (978432)
I0403 16:09:20.113322 17232 net.cpp:148] Top shape: 24 832 7 7 (978432)
I0403 16:09:20.113342 17232 net.cpp:148] Top shape: 24 832 7 7 (978432)
I0403 16:09:20.113358 17232 net.cpp:156] Memory required for data: 1292125728
I0403 16:09:20.113375 17232 layer_factory.hpp:77] Creating layer inception_5a/1x1
I0403 16:09:20.113402 17232 net.cpp:91] Creating Layer inception_5a/1x1
I0403 16:09:20.113425 17232 net.cpp:425] inception_5a/1x1 <- pool4/3x3_s2_pool4/3x3_s2_0_split_0
I0403 16:09:20.113451 17232 net.cpp:399] inception_5a/1x1 -> inception_5a/1x1
I0403 16:09:20.116978 17232 net.cpp:141] Setting up inception_5a/1x1
I0403 16:09:20.117018 17232 net.cpp:148] Top shape: 24 256 7 7 (301056)
I0403 16:09:20.117039 17232 net.cpp:156] Memory required for data: 1293329952
I0403 16:09:20.117063 17232 layer_factory.hpp:77] Creating layer inception_5a/relu_1x1
I0403 16:09:20.117084 17232 net.cpp:91] Creating Layer inception_5a/relu_1x1
I0403 16:09:20.117105 17232 net.cpp:425] inception_5a/relu_1x1 <- inception_5a/1x1
I0403 16:09:20.117126 17232 net.cpp:386] inception_5a/relu_1x1 -> inception_5a/1x1 (in-place)
I0403 16:09:20.117511 17232 net.cpp:141] Setting up inception_5a/relu_1x1
I0403 16:09:20.117545 17232 net.cpp:148] Top shape: 24 256 7 7 (301056)
I0403 16:09:20.117565 17232 net.cpp:156] Memory required for data: 1294534176
I0403 16:09:20.117591 17232 layer_factory.hpp:77] Creating layer inception_5a/3x3_reduce
I0403 16:09:20.117620 17232 net.cpp:91] Creating Layer inception_5a/3x3_reduce
I0403 16:09:20.117641 17232 net.cpp:425] inception_5a/3x3_reduce <- pool4/3x3_s2_pool4/3x3_s2_0_split_1
I0403 16:09:20.117666 17232 net.cpp:399] inception_5a/3x3_reduce -> inception_5a/3x3_reduce
I0403 16:09:20.120672 17232 net.cpp:141] Setting up inception_5a/3x3_reduce
I0403 16:09:20.120709 17232 net.cpp:148] Top shape: 24 160 7 7 (188160)
I0403 16:09:20.120729 17232 net.cpp:156] Memory required for data: 1295286816
I0403 16:09:20.120754 17232 layer_factory.hpp:77] Creating layer inception_5a/relu_3x3_reduce
I0403 16:09:20.120780 17232 net.cpp:91] Creating Layer inception_5a/relu_3x3_reduce
I0403 16:09:20.120800 17232 net.cpp:425] inception_5a/relu_3x3_reduce <- inception_5a/3x3_reduce
I0403 16:09:20.120822 17232 net.cpp:386] inception_5a/relu_3x3_reduce -> inception_5a/3x3_reduce (in-place)
I0403 16:09:20.121054 17232 net.cpp:141] Setting up inception_5a/relu_3x3_reduce
I0403 16:09:20.121085 17232 net.cpp:148] Top shape: 24 160 7 7 (188160)
I0403 16:09:20.121106 17232 net.cpp:156] Memory required for data: 1296039456
I0403 16:09:20.121124 17232 layer_factory.hpp:77] Creating layer inception_5a/3x3
I0403 16:09:20.121150 17232 net.cpp:91] Creating Layer inception_5a/3x3
I0403 16:09:20.121170 17232 net.cpp:425] inception_5a/3x3 <- inception_5a/3x3_reduce
I0403 16:09:20.121199 17232 net.cpp:399] inception_5a/3x3 -> inception_5a/3x3
I0403 16:09:20.127444 17232 net.cpp:141] Setting up inception_5a/3x3
I0403 16:09:20.127482 17232 net.cpp:148] Top shape: 24 320 7 7 (376320)
I0403 16:09:20.127503 17232 net.cpp:156] Memory required for data: 1297544736
I0403 16:09:20.127526 17232 layer_factory.hpp:77] Creating layer inception_5a/relu_3x3
I0403 16:09:20.127552 17232 net.cpp:91] Creating Layer inception_5a/relu_3x3
I0403 16:09:20.127578 17232 net.cpp:425] inception_5a/relu_3x3 <- inception_5a/3x3
I0403 16:09:20.127604 17232 net.cpp:386] inception_5a/relu_3x3 -> inception_5a/3x3 (in-place)
I0403 16:09:20.127965 17232 net.cpp:141] Setting up inception_5a/relu_3x3
I0403 16:09:20.127998 17232 net.cpp:148] Top shape: 24 320 7 7 (376320)
I0403 16:09:20.128016 17232 net.cpp:156] Memory required for data: 1299050016
I0403 16:09:20.128036 17232 layer_factory.hpp:77] Creating layer inception_5a/5x5_reduce
I0403 16:09:20.128069 17232 net.cpp:91] Creating Layer inception_5a/5x5_reduce
I0403 16:09:20.128093 17232 net.cpp:425] inception_5a/5x5_reduce <- pool4/3x3_s2_pool4/3x3_s2_0_split_2
I0403 16:09:20.128118 17232 net.cpp:399] inception_5a/5x5_reduce -> inception_5a/5x5_reduce
I0403 16:09:20.129568 17232 net.cpp:141] Setting up inception_5a/5x5_reduce
I0403 16:09:20.129611 17232 net.cpp:148] Top shape: 24 32 7 7 (37632)
I0403 16:09:20.129633 17232 net.cpp:156] Memory required for data: 1299200544
I0403 16:09:20.129657 17232 layer_factory.hpp:77] Creating layer inception_5a/relu_5x5_reduce
I0403 16:09:20.129678 17232 net.cpp:91] Creating Layer inception_5a/relu_5x5_reduce
I0403 16:09:20.129699 17232 net.cpp:425] inception_5a/relu_5x5_reduce <- inception_5a/5x5_reduce
I0403 16:09:20.129721 17232 net.cpp:386] inception_5a/relu_5x5_reduce -> inception_5a/5x5_reduce (in-place)
I0403 16:09:20.130089 17232 net.cpp:141] Setting up inception_5a/relu_5x5_reduce
I0403 16:09:20.130125 17232 net.cpp:148] Top shape: 24 32 7 7 (37632)
I0403 16:09:20.130144 17232 net.cpp:156] Memory required for data: 1299351072
I0403 16:09:20.130163 17232 layer_factory.hpp:77] Creating layer inception_5a/5x5
I0403 16:09:20.130190 17232 net.cpp:91] Creating Layer inception_5a/5x5
I0403 16:09:20.130213 17232 net.cpp:425] inception_5a/5x5 <- inception_5a/5x5_reduce
I0403 16:09:20.130236 17232 net.cpp:399] inception_5a/5x5 -> inception_5a/5x5
I0403 16:09:20.132367 17232 net.cpp:141] Setting up inception_5a/5x5
I0403 16:09:20.132416 17232 net.cpp:148] Top shape: 24 128 7 7 (150528)
I0403 16:09:20.132436 17232 net.cpp:156] Memory required for data: 1299953184
I0403 16:09:20.132459 17232 layer_factory.hpp:77] Creating layer inception_5a/relu_5x5
I0403 16:09:20.132484 17232 net.cpp:91] Creating Layer inception_5a/relu_5x5
I0403 16:09:20.132506 17232 net.cpp:425] inception_5a/relu_5x5 <- inception_5a/5x5
I0403 16:09:20.132527 17232 net.cpp:386] inception_5a/relu_5x5 -> inception_5a/5x5 (in-place)
I0403 16:09:20.132773 17232 net.cpp:141] Setting up inception_5a/relu_5x5
I0403 16:09:20.132804 17232 net.cpp:148] Top shape: 24 128 7 7 (150528)
I0403 16:09:20.132822 17232 net.cpp:156] Memory required for data: 1300555296
I0403 16:09:20.132841 17232 layer_factory.hpp:77] Creating layer inception_5a/pool
I0403 16:09:20.132863 17232 net.cpp:91] Creating Layer inception_5a/pool
I0403 16:09:20.132882 17232 net.cpp:425] inception_5a/pool <- pool4/3x3_s2_pool4/3x3_s2_0_split_3
I0403 16:09:20.132907 17232 net.cpp:399] inception_5a/pool -> inception_5a/pool
I0403 16:09:20.132997 17232 net.cpp:141] Setting up inception_5a/pool
I0403 16:09:20.133025 17232 net.cpp:148] Top shape: 24 832 7 7 (978432)
I0403 16:09:20.133044 17232 net.cpp:156] Memory required for data: 1304469024
I0403 16:09:20.133062 17232 layer_factory.hpp:77] Creating layer inception_5a/pool_proj
I0403 16:09:20.133095 17232 net.cpp:91] Creating Layer inception_5a/pool_proj
I0403 16:09:20.133118 17232 net.cpp:425] inception_5a/pool_proj <- inception_5a/pool
I0403 16:09:20.133141 17232 net.cpp:399] inception_5a/pool_proj -> inception_5a/pool_proj
I0403 16:09:20.135952 17232 net.cpp:141] Setting up inception_5a/pool_proj
I0403 16:09:20.135989 17232 net.cpp:148] Top shape: 24 128 7 7 (150528)
I0403 16:09:20.136009 17232 net.cpp:156] Memory required for data: 1305071136
I0403 16:09:20.136032 17232 layer_factory.hpp:77] Creating layer inception_5a/relu_pool_proj
I0403 16:09:20.136059 17232 net.cpp:91] Creating Layer inception_5a/relu_pool_proj
I0403 16:09:20.136080 17232 net.cpp:425] inception_5a/relu_pool_proj <- inception_5a/pool_proj
I0403 16:09:20.136102 17232 net.cpp:386] inception_5a/relu_pool_proj -> inception_5a/pool_proj (in-place)
I0403 16:09:20.136464 17232 net.cpp:141] Setting up inception_5a/relu_pool_proj
I0403 16:09:20.136497 17232 net.cpp:148] Top shape: 24 128 7 7 (150528)
I0403 16:09:20.136515 17232 net.cpp:156] Memory required for data: 1305673248
I0403 16:09:20.136533 17232 layer_factory.hpp:77] Creating layer inception_5a/output
I0403 16:09:20.136557 17232 net.cpp:91] Creating Layer inception_5a/output
I0403 16:09:20.136582 17232 net.cpp:425] inception_5a/output <- inception_5a/1x1
I0403 16:09:20.136606 17232 net.cpp:425] inception_5a/output <- inception_5a/3x3
I0403 16:09:20.136627 17232 net.cpp:425] inception_5a/output <- inception_5a/5x5
I0403 16:09:20.136647 17232 net.cpp:425] inception_5a/output <- inception_5a/pool_proj
I0403 16:09:20.136668 17232 net.cpp:399] inception_5a/output -> inception_5a/output
I0403 16:09:20.136732 17232 net.cpp:141] Setting up inception_5a/output
I0403 16:09:20.136762 17232 net.cpp:148] Top shape: 24 832 7 7 (978432)
I0403 16:09:20.136780 17232 net.cpp:156] Memory required for data: 1309586976
I0403 16:09:20.136798 17232 layer_factory.hpp:77] Creating layer inception_5a/output_inception_5a/output_0_split
I0403 16:09:20.136819 17232 net.cpp:91] Creating Layer inception_5a/output_inception_5a/output_0_split
I0403 16:09:20.136838 17232 net.cpp:425] inception_5a/output_inception_5a/output_0_split <- inception_5a/output
I0403 16:09:20.136862 17232 net.cpp:399] inception_5a/output_inception_5a/output_0_split -> inception_5a/output_inception_5a/output_0_split_0
I0403 16:09:20.136888 17232 net.cpp:399] inception_5a/output_inception_5a/output_0_split -> inception_5a/output_inception_5a/output_0_split_1
I0403 16:09:20.136914 17232 net.cpp:399] inception_5a/output_inception_5a/output_0_split -> inception_5a/output_inception_5a/output_0_split_2
I0403 16:09:20.136940 17232 net.cpp:399] inception_5a/output_inception_5a/output_0_split -> inception_5a/output_inception_5a/output_0_split_3
I0403 16:09:20.137080 17232 net.cpp:141] Setting up inception_5a/output_inception_5a/output_0_split
I0403 16:09:20.137115 17232 net.cpp:148] Top shape: 24 832 7 7 (978432)
I0403 16:09:20.137135 17232 net.cpp:148] Top shape: 24 832 7 7 (978432)
I0403 16:09:20.137154 17232 net.cpp:148] Top shape: 24 832 7 7 (978432)
I0403 16:09:20.137174 17232 net.cpp:148] Top shape: 24 832 7 7 (978432)
I0403 16:09:20.137192 17232 net.cpp:156] Memory required for data: 1325241888
I0403 16:09:20.137210 17232 layer_factory.hpp:77] Creating layer inception_5b/1x1
I0403 16:09:20.137238 17232 net.cpp:91] Creating Layer inception_5b/1x1
I0403 16:09:20.137260 17232 net.cpp:425] inception_5b/1x1 <- inception_5a/output_inception_5a/output_0_split_0
I0403 16:09:20.137284 17232 net.cpp:399] inception_5b/1x1 -> inception_5b/1x1
I0403 16:09:20.141916 17232 net.cpp:141] Setting up inception_5b/1x1
I0403 16:09:20.141953 17232 net.cpp:148] Top shape: 24 384 7 7 (451584)
I0403 16:09:20.141973 17232 net.cpp:156] Memory required for data: 1327048224
I0403 16:09:20.141998 17232 layer_factory.hpp:77] Creating layer inception_5b/relu_1x1
I0403 16:09:20.142022 17232 net.cpp:91] Creating Layer inception_5b/relu_1x1
I0403 16:09:20.142045 17232 net.cpp:425] inception_5b/relu_1x1 <- inception_5b/1x1
I0403 16:09:20.142066 17232 net.cpp:386] inception_5b/relu_1x1 -> inception_5b/1x1 (in-place)
I0403 16:09:20.142443 17232 net.cpp:141] Setting up inception_5b/relu_1x1
I0403 16:09:20.142477 17232 net.cpp:148] Top shape: 24 384 7 7 (451584)
I0403 16:09:20.142498 17232 net.cpp:156] Memory required for data: 1328854560
I0403 16:09:20.142515 17232 layer_factory.hpp:77] Creating layer inception_5b/3x3_reduce
I0403 16:09:20.142542 17232 net.cpp:91] Creating Layer inception_5b/3x3_reduce
I0403 16:09:20.142565 17232 net.cpp:425] inception_5b/3x3_reduce <- inception_5a/output_inception_5a/output_0_split_1
I0403 16:09:20.142601 17232 net.cpp:399] inception_5b/3x3_reduce -> inception_5b/3x3_reduce
I0403 16:09:20.145874 17232 net.cpp:141] Setting up inception_5b/3x3_reduce
I0403 16:09:20.145910 17232 net.cpp:148] Top shape: 24 192 7 7 (225792)
I0403 16:09:20.145931 17232 net.cpp:156] Memory required for data: 1329757728
I0403 16:09:20.145952 17232 layer_factory.hpp:77] Creating layer inception_5b/relu_3x3_reduce
I0403 16:09:20.145978 17232 net.cpp:91] Creating Layer inception_5b/relu_3x3_reduce
I0403 16:09:20.145999 17232 net.cpp:425] inception_5b/relu_3x3_reduce <- inception_5b/3x3_reduce
I0403 16:09:20.146023 17232 net.cpp:386] inception_5b/relu_3x3_reduce -> inception_5b/3x3_reduce (in-place)
I0403 16:09:20.146263 17232 net.cpp:141] Setting up inception_5b/relu_3x3_reduce
I0403 16:09:20.146294 17232 net.cpp:148] Top shape: 24 192 7 7 (225792)
I0403 16:09:20.146312 17232 net.cpp:156] Memory required for data: 1330660896
I0403 16:09:20.146332 17232 layer_factory.hpp:77] Creating layer inception_5b/3x3
I0403 16:09:20.146360 17232 net.cpp:91] Creating Layer inception_5b/3x3
I0403 16:09:20.146381 17232 net.cpp:425] inception_5b/3x3 <- inception_5b/3x3_reduce
I0403 16:09:20.146405 17232 net.cpp:399] inception_5b/3x3 -> inception_5b/3x3
I0403 16:09:20.154714 17232 net.cpp:141] Setting up inception_5b/3x3
I0403 16:09:20.154750 17232 net.cpp:148] Top shape: 24 384 7 7 (451584)
I0403 16:09:20.154772 17232 net.cpp:156] Memory required for data: 1332467232
I0403 16:09:20.154794 17232 layer_factory.hpp:77] Creating layer inception_5b/relu_3x3
I0403 16:09:20.154821 17232 net.cpp:91] Creating Layer inception_5b/relu_3x3
I0403 16:09:20.154844 17232 net.cpp:425] inception_5b/relu_3x3 <- inception_5b/3x3
I0403 16:09:20.154865 17232 net.cpp:386] inception_5b/relu_3x3 -> inception_5b/3x3 (in-place)
I0403 16:09:20.155233 17232 net.cpp:141] Setting up inception_5b/relu_3x3
I0403 16:09:20.155267 17232 net.cpp:148] Top shape: 24 384 7 7 (451584)
I0403 16:09:20.155284 17232 net.cpp:156] Memory required for data: 1334273568
I0403 16:09:20.155303 17232 layer_factory.hpp:77] Creating layer inception_5b/5x5_reduce
I0403 16:09:20.155349 17232 net.cpp:91] Creating Layer inception_5b/5x5_reduce
I0403 16:09:20.155374 17232 net.cpp:425] inception_5b/5x5_reduce <- inception_5a/output_inception_5a/output_0_split_2
I0403 16:09:20.155400 17232 net.cpp:399] inception_5b/5x5_reduce -> inception_5b/5x5_reduce
I0403 16:09:20.157014 17232 net.cpp:141] Setting up inception_5b/5x5_reduce
I0403 16:09:20.157049 17232 net.cpp:148] Top shape: 24 48 7 7 (56448)
I0403 16:09:20.157068 17232 net.cpp:156] Memory required for data: 1334499360
I0403 16:09:20.157091 17232 layer_factory.hpp:77] Creating layer inception_5b/relu_5x5_reduce
I0403 16:09:20.157116 17232 net.cpp:91] Creating Layer inception_5b/relu_5x5_reduce
I0403 16:09:20.157138 17232 net.cpp:425] inception_5b/relu_5x5_reduce <- inception_5b/5x5_reduce
I0403 16:09:20.157161 17232 net.cpp:386] inception_5b/relu_5x5_reduce -> inception_5b/5x5_reduce (in-place)
I0403 16:09:20.157634 17232 net.cpp:141] Setting up inception_5b/relu_5x5_reduce
I0403 16:09:20.157667 17232 net.cpp:148] Top shape: 24 48 7 7 (56448)
I0403 16:09:20.157686 17232 net.cpp:156] Memory required for data: 1334725152
I0403 16:09:20.157706 17232 layer_factory.hpp:77] Creating layer inception_5b/5x5
I0403 16:09:20.157730 17232 net.cpp:91] Creating Layer inception_5b/5x5
I0403 16:09:20.157752 17232 net.cpp:425] inception_5b/5x5 <- inception_5b/5x5_reduce
I0403 16:09:20.157778 17232 net.cpp:399] inception_5b/5x5 -> inception_5b/5x5
I0403 16:09:20.160320 17232 net.cpp:141] Setting up inception_5b/5x5
I0403 16:09:20.160357 17232 net.cpp:148] Top shape: 24 128 7 7 (150528)
I0403 16:09:20.160378 17232 net.cpp:156] Memory required for data: 1335327264
I0403 16:09:20.160401 17232 layer_factory.hpp:77] Creating layer inception_5b/relu_5x5
I0403 16:09:20.160423 17232 net.cpp:91] Creating Layer inception_5b/relu_5x5
I0403 16:09:20.160444 17232 net.cpp:425] inception_5b/relu_5x5 <- inception_5b/5x5
I0403 16:09:20.160465 17232 net.cpp:386] inception_5b/relu_5x5 -> inception_5b/5x5 (in-place)
I0403 16:09:20.160713 17232 net.cpp:141] Setting up inception_5b/relu_5x5
I0403 16:09:20.160748 17232 net.cpp:148] Top shape: 24 128 7 7 (150528)
I0403 16:09:20.160769 17232 net.cpp:156] Memory required for data: 1335929376
I0403 16:09:20.160787 17232 layer_factory.hpp:77] Creating layer inception_5b/pool
I0403 16:09:20.160809 17232 net.cpp:91] Creating Layer inception_5b/pool
I0403 16:09:20.160830 17232 net.cpp:425] inception_5b/pool <- inception_5a/output_inception_5a/output_0_split_3
I0403 16:09:20.160856 17232 net.cpp:399] inception_5b/pool -> inception_5b/pool
I0403 16:09:20.160948 17232 net.cpp:141] Setting up inception_5b/pool
I0403 16:09:20.160984 17232 net.cpp:148] Top shape: 24 832 7 7 (978432)
I0403 16:09:20.161002 17232 net.cpp:156] Memory required for data: 1339843104
I0403 16:09:20.161020 17232 layer_factory.hpp:77] Creating layer inception_5b/pool_proj
I0403 16:09:20.161048 17232 net.cpp:91] Creating Layer inception_5b/pool_proj
I0403 16:09:20.161070 17232 net.cpp:425] inception_5b/pool_proj <- inception_5b/pool
I0403 16:09:20.161095 17232 net.cpp:399] inception_5b/pool_proj -> inception_5b/pool_proj
I0403 16:09:20.163924 17232 net.cpp:141] Setting up inception_5b/pool_proj
I0403 16:09:20.163961 17232 net.cpp:148] Top shape: 24 128 7 7 (150528)
I0403 16:09:20.163980 17232 net.cpp:156] Memory required for data: 1340445216
I0403 16:09:20.164003 17232 layer_factory.hpp:77] Creating layer inception_5b/relu_pool_proj
I0403 16:09:20.164028 17232 net.cpp:91] Creating Layer inception_5b/relu_pool_proj
I0403 16:09:20.164050 17232 net.cpp:425] inception_5b/relu_pool_proj <- inception_5b/pool_proj
I0403 16:09:20.164072 17232 net.cpp:386] inception_5b/relu_pool_proj -> inception_5b/pool_proj (in-place)
I0403 16:09:20.164438 17232 net.cpp:141] Setting up inception_5b/relu_pool_proj
I0403 16:09:20.164470 17232 net.cpp:148] Top shape: 24 128 7 7 (150528)
I0403 16:09:20.164489 17232 net.cpp:156] Memory required for data: 1341047328
I0403 16:09:20.164507 17232 layer_factory.hpp:77] Creating layer inception_5b/output
I0403 16:09:20.164531 17232 net.cpp:91] Creating Layer inception_5b/output
I0403 16:09:20.164569 17232 net.cpp:425] inception_5b/output <- inception_5b/1x1
I0403 16:09:20.164597 17232 net.cpp:425] inception_5b/output <- inception_5b/3x3
I0403 16:09:20.164618 17232 net.cpp:425] inception_5b/output <- inception_5b/5x5
I0403 16:09:20.164638 17232 net.cpp:425] inception_5b/output <- inception_5b/pool_proj
I0403 16:09:20.164659 17232 net.cpp:399] inception_5b/output -> inception_5b/output
I0403 16:09:20.164726 17232 net.cpp:141] Setting up inception_5b/output
I0403 16:09:20.164757 17232 net.cpp:148] Top shape: 24 1024 7 7 (1204224)
I0403 16:09:20.164775 17232 net.cpp:156] Memory required for data: 1345864224
I0403 16:09:20.164793 17232 layer_factory.hpp:77] Creating layer pool5/7x7_s1
I0403 16:09:20.164815 17232 net.cpp:91] Creating Layer pool5/7x7_s1
I0403 16:09:20.164835 17232 net.cpp:425] pool5/7x7_s1 <- inception_5b/output
I0403 16:09:20.164861 17232 net.cpp:399] pool5/7x7_s1 -> pool5/7x7_s1
I0403 16:09:20.165137 17232 net.cpp:141] Setting up pool5/7x7_s1
I0403 16:09:20.165169 17232 net.cpp:148] Top shape: 24 1024 1 1 (24576)
I0403 16:09:20.165189 17232 net.cpp:156] Memory required for data: 1345962528
I0403 16:09:20.165207 17232 layer_factory.hpp:77] Creating layer pool5/drop_7x7_s1
I0403 16:09:20.165231 17232 net.cpp:91] Creating Layer pool5/drop_7x7_s1
I0403 16:09:20.165252 17232 net.cpp:425] pool5/drop_7x7_s1 <- pool5/7x7_s1
I0403 16:09:20.165274 17232 net.cpp:386] pool5/drop_7x7_s1 -> pool5/7x7_s1 (in-place)
I0403 16:09:20.165340 17232 net.cpp:141] Setting up pool5/drop_7x7_s1
I0403 16:09:20.165369 17232 net.cpp:148] Top shape: 24 1024 1 1 (24576)
I0403 16:09:20.165386 17232 net.cpp:156] Memory required for data: 1346060832
I0403 16:09:20.165405 17232 layer_factory.hpp:77] Creating layer loss3/classifier_plantvillage
I0403 16:09:20.165429 17232 net.cpp:91] Creating Layer loss3/classifier_plantvillage
I0403 16:09:20.165452 17232 net.cpp:425] loss3/classifier_plantvillage <- pool5/7x7_s1
I0403 16:09:20.165474 17232 net.cpp:399] loss3/classifier_plantvillage -> loss3/classifier_plantvillage
I0403 16:09:20.166024 17232 net.cpp:141] Setting up loss3/classifier_plantvillage
I0403 16:09:20.166054 17232 net.cpp:148] Top shape: 24 38 (912)
I0403 16:09:20.166074 17232 net.cpp:156] Memory required for data: 1346064480
I0403 16:09:20.166095 17232 layer_factory.hpp:77] Creating layer loss3/classifier_plantvillage_loss3/classifier_plantvillage_0_split
I0403 16:09:20.166120 17232 net.cpp:91] Creating Layer loss3/classifier_plantvillage_loss3/classifier_plantvillage_0_split
I0403 16:09:20.166141 17232 net.cpp:425] loss3/classifier_plantvillage_loss3/classifier_plantvillage_0_split <- loss3/classifier_plantvillage
I0403 16:09:20.166165 17232 net.cpp:399] loss3/classifier_plantvillage_loss3/classifier_plantvillage_0_split -> loss3/classifier_plantvillage_loss3/classifier_plantvillage_0_split_0
I0403 16:09:20.166193 17232 net.cpp:399] loss3/classifier_plantvillage_loss3/classifier_plantvillage_0_split -> loss3/classifier_plantvillage_loss3/classifier_plantvillage_0_split_1
I0403 16:09:20.166218 17232 net.cpp:399] loss3/classifier_plantvillage_loss3/classifier_plantvillage_0_split -> loss3/classifier_plantvillage_loss3/classifier_plantvillage_0_split_2
I0403 16:09:20.166242 17232 net.cpp:399] loss3/classifier_plantvillage_loss3/classifier_plantvillage_0_split -> loss3/classifier_plantvillage_loss3/classifier_plantvillage_0_split_3
I0403 16:09:20.166370 17232 net.cpp:141] Setting up loss3/classifier_plantvillage_loss3/classifier_plantvillage_0_split
I0403 16:09:20.166400 17232 net.cpp:148] Top shape: 24 38 (912)
I0403 16:09:20.166420 17232 net.cpp:148] Top shape: 24 38 (912)
I0403 16:09:20.166440 17232 net.cpp:148] Top shape: 24 38 (912)
I0403 16:09:20.166458 17232 net.cpp:148] Top shape: 24 38 (912)
I0403 16:09:20.166474 17232 net.cpp:156] Memory required for data: 1346079072
I0403 16:09:20.166493 17232 layer_factory.hpp:77] Creating layer loss1/loss
I0403 16:09:20.166518 17232 net.cpp:91] Creating Layer loss1/loss
I0403 16:09:20.166541 17232 net.cpp:425] loss1/loss <- loss1/classifier_plantvillage_loss1/classifier_plantvillage_0_split_0
I0403 16:09:20.166584 17232 net.cpp:425] loss1/loss <- label_data_1_split_0
…
