…
I0403 16:47:19.325678 19519 net.cpp:313] The NetState phase (1) differed from the phase (0) specified by a rule in layer data
I0403 16:47:19.327082 19519 net.cpp:49] Initializing net from parameters: 
state {
  phase: TEST
}
layer {
  name: "data"
  type: "Data"
  top: "data"
  top: "label"
  include {
    phase: TEST
  }
  transform_param {
    mirror: false
    crop_size: 224
    mean_file: "/home/mohanty/data/final_dataset/lmdb/color-20-80/mean.binaryproto"
  }
  data_param {
    source: "/home/mohanty/data/final_dataset/lmdb/color-20-80/test_db"
    batch_size: 24
    backend: LMDB
  }
}
layer {
  name: "conv1/7x7_s2"
  type: "Convolution"
  bottom: "data"
  top: "conv1/7x7_s2"
  param {
    lr_mult: 1
    decay_mult: 1
  }
  param {
    lr_mult: 2
    decay_mult: 0
  }
  convolution_param {
    num_output: 64
    pad: 3
    kernel_size: 7
    stride: 2
    weight_filler {
      type: "xavier"
      std: 0.1
    }
    bias_filler {
      type: "constant"
      value: 0.2
    }
  }
}
layer {
  name: "conv1/relu_7x7"
  type: "ReLU"
  bottom: "conv1/7x7_s2"
  top: "conv1/7x7_s2"
}
layer {
  name: "pool1/3x3_s2"
  type: "Pooling"
  bottom: "conv1/7x7_s2"
  top: "pool1/3x3_s2"
  pooling_param {
    pool: MAX
    kernel_size: 3
    stride: 2
  }
}
layer {
  name: "pool1/norm1"
  type: "LRN"
  bottom: "pool1/3x3_s2"
  top: "pool1/norm1"
  lrn_param {
    local_size: 5
    alpha: 0.0001
    beta: 0.75
  }
}
layer {
  name: "conv2/3x3_reduce"
  type: "Convolution"
  bottom: "pool1/norm1"
  top: "conv2/3x3_reduce"
  param {
    lr_mult: 1
    decay_mult: 1
  }
  param {
    lr_mult: 2
    decay_mult: 0
  }
  convolution_param {
    num_output: 64
    kernel_size: 1
    weight_filler {
      type: "xavier"
      std: 0.1
    }
    bias_filler {
      type: "constant"
      value: 0.2
    }
  }
}
layer {
  name: "conv2/relu_3x3_reduce"
  type: "ReLU"
  bottom: "conv2/3x3_reduce"
  top: "conv2/3x3_reduce"
}
layer {
  name: "conv2/3x3"
  type: "Convolution"
  bottom: "conv2/3x3_reduce"
  top: "conv2/3x3"
  param {
    lr_mult: 1
    decay_mult: 1
  }
  param {
    lr_mult: 2
    decay_mult: 0
  }
  convolution_param {
    num_output: 192
    pad: 1
    kernel_size: 3
    weight_filler {
      type: "xavier"
      std: 0.03
    }
    bias_filler {
      type: "constant"
      value: 0.2
    }
  }
}
layer {
  name: "conv2/relu_3x3"
  type: "ReLU"
  bottom: "conv2/3x3"
  top: "conv2/3x3"
}
layer {
  name: "conv2/norm2"
  type: "LRN"
  bottom: "conv2/3x3"
  top: "conv2/norm2"
  lrn_param {
    local_size: 5
    alpha: 0.0001
    beta: 0.75
  }
}
layer {
  name: "pool2/3x3_s2"
  type: "Pooling"
  bottom: "conv2/norm2"
  top: "pool2/3x3_s2"
  pooling_param {
    pool: MAX
    kernel_size: 3
    stride: 2
  }
}
layer {
  name: "inception_3a/1x1"
  type: "Convolution"
  bottom: "pool2/3x3_s2"
  top: "inception_3a/1x1"
  param {
    lr_mult: 1
    decay_mult: 1
  }
  param {
    lr_mult: 2
    decay_mult: 0
  }
  convolution_param {
    num_output: 64
    kernel_size: 1
    weight_filler {
      type: "xavier"
      std: 0.03
    }
    bias_filler {
      type: "constant"
      value: 0.2
    }
  }
}
layer {
  name: "inception_3a/relu_1x1"
  type: "ReLU"
  bottom: "inception_3a/1x1"
  top: "inception_3a/1x1"
}
layer {
  name: "inception_3a/3x3_reduce"
  type: "Convolution"
  bottom: "pool2/3x3_s2"
  top: "inception_3a/3x3_reduce"
  param {
    lr_mult: 1
    decay_mult: 1
  }
  param {
    lr_mult: 2
    decay_mult: 0
  }
  convolution_param {
    num_output: 96
    kernel_size: 1
    weight_filler {
      type: "xavier"
      std: 0.09
    }
    bias_filler {
      type: "constant"
      value: 0.2
    }
  }
}
layer {
  name: "inception_3a/relu_3x3_reduce"
  type: "ReLU"
  bottom: "inception_3a/3x3_reduce"
  top: "inception_3a/3x3_reduce"
}
layer {
  name: "inception_3a/3x3"
  type: "Convolution"
  bottom: "inception_3a/3x3_reduce"
  top: "inception_3a/3x3"
  param {
    lr_mult: 1
    decay_mult: 1
  }
  param {
    lr_mult: 2
    decay_mult: 0
  }
  convolution_param {
    num_output: 128
    pad: 1
    kernel_size: 3
    weight_filler {
      type: "xavier"
      std: 0.03
    }
    bias_filler {
      type: "constant"
      value: 0.2
    }
  }
}
layer {
  name: "inception_3a/relu_3x3"
  type: "ReLU"
  bottom: "inception_3a/3x3"
  top: "inception_3a/3x3"
}
layer {
  name: "inception_3a/5x5_reduce"
  type: "Convolution"
  bottom: "pool2/3x3_s2"
  top: "inception_3a/5x5_reduce"
  param {
    lr_mult: 1
    decay_mult: 1
  }
  param {
    lr_mult: 2
    decay_mult: 0
  }
  convolution_param {
    num_output: 16
    kernel_size: 1
    weight_filler {
      type: "xavier"
      std: 0.2
    }
    bias_filler {
      type: "constant"
      value: 0.2
    }
  }
}
layer {
  name: "inception_3a/relu_5x5_reduce"
  type: "ReLU"
  bottom: "inception_3a/5x5_reduce"
  top: "inception_3a/5x5_reduce"
}
layer {
  name: "inception_3a/5x5"
  type: "Convolution"
  bottom: "inception_3a/5x5_reduce"
  top: "inception_3a/5x5"
  param {
    lr_mult: 1
    decay_mult: 1
  }
  param {
    lr_mult: 2
    decay_mult: 0
  }
  convolution_param {
    num_output: 32
    pad: 2
    kernel_size: 5
    weight_filler {
      type: "xavier"
      std: 0.03
    }
    bias_filler {
      type: "constant"
      value: 0.2
    }
  }
}
layer {
  name: "inception_3a/relu_5x5"
  type: "ReLU"
  bottom: "inception_3a/5x5"
  top: "inception_3a/5x5"
}
layer {
  name: "inception_3a/pool"
  type: "Pooling"
  bottom: "pool2/3x3_s2"
  top: "inception_3a/pool"
  pooling_param {
    pool: MAX
    kernel_size: 3
    stride: 1
    pad: 1
  }
}
layer {
  name: "inception_3a/pool_proj"
  type: "Convolution"
  bottom: "inception_3a/pool"
  top: "inception_3a/pool_proj"
  param {
    lr_mult: 1
    decay_mult: 1
  }
  param {
    lr_mult: 2
    decay_mult: 0
  }
  convolution_param {
    num_output: 32
    kernel_size: 1
    weight_filler {
      type: "xavier"
      std: 0.1
    }
    bias_filler {
      type: "constant"
      value: 0.2
    }
  }
}
layer {
  name: "inception_3a/relu_pool_proj"
  type: "ReLU"
  bottom: "inception_3a/pool_proj"
  top: "inception_3a/pool_proj"
}
layer {
  name: "inception_3a/output"
  type: "Concat"
  bottom: "inception_3a/1x1"
  bottom: "inception_3a/3x3"
  bottom: "inception_3a/5x5"
  bottom: "inception_3a/pool_proj"
  top: "inception_3a/output"
}
layer {
  name: "inception_3b/1x1"
  type: "Convolution"
  bottom: "inception_3a/output"
  top: "inception_3b/1x1"
  param {
    lr_mult: 1
    decay_mult: 1
  }
  param {
    lr_mult: 2
    decay_mult: 0
  }
  convolution_param {
    num_output: 128
    kernel_size: 1
    weight_filler {
      type: "xavier"
      std: 0.03
    }
    bias_filler {
      type: "constant"
      value: 0.2
    }
  }
}
layer {
  name: "inception_3b/relu_1x1"
  type: "ReLU"
  bottom: "inception_3b/1x1"
  top: "inception_3b/1x1"
}
layer {
  name: "inception_3b/3x3_reduce"
  type: "Convolution"
  bottom: "inception_3a/output"
  top: "inception_3b/3x3_reduce"
  param {
    lr_mult: 1
    decay_mult: 1
  }
  param {
    lr_mult: 2
    decay_mult: 0
  }
  convolution_param {
    num_output: 128
    kernel_size: 1
    weight_filler {
      type: "xavier"
      std: 0.09
    }
    bias_filler {
      type: "constant"
      value: 0.2
    }
  }
}
layer {
  name: "inception_3b/relu_3x3_reduce"
  type: "ReLU"
  bottom: "inception_3b/3x3_reduce"
  top: "inception_3b/3x3_reduce"
}
layer {
  name: "inception_3b/3x3"
  type: "Convolution"
  bottom: "inception_3b/3x3_reduce"
  top: "inception_3b/3x3"
  param {
    lr_mult: 1
    decay_mult: 1
  }
  param {
    lr_mult: 2
    decay_mult: 0
  }
  convolution_param {
    num_output: 192
    pad: 1
    kernel_size: 3
    weight_filler {
      type: "xavier"
      std: 0.03
    }
    bias_filler {
      type: "constant"
      value: 0.2
    }
  }
}
layer {
  name: "inception_3b/relu_3x3"
  type: "ReLU"
  bottom: "inception_3b/3x3"
  top: "inception_3b/3x3"
}
layer {
  name: "inception_3b/5x5_reduce"
  type: "Convolution"
  bottom: "inception_3a/output"
  top: "inception_3b/5x5_reduce"
  param {
    lr_mult: 1
    decay_mult: 1
  }
  param {
    lr_mult: 2
    decay_mult: 0
  }
  convolution_param {
    num_output: 32
    kernel_size: 1
    weight_filler {
      type: "xavier"
      std: 0.2
    }
    bias_filler {
      type: "constant"
      value: 0.2
    }
  }
}
layer {
  name: "inception_3b/relu_5x5_reduce"
  type: "ReLU"
  bottom: "inception_3b/5x5_reduce"
  top: "inception_3b/5x5_reduce"
}
layer {
  name: "inception_3b/5x5"
  type: "Convolution"
  bottom: "inception_3b/5x5_reduce"
  top: "inception_3b/5x5"
  param {
    lr_mult: 1
    decay_mult: 1
  }
  param {
    lr_mult: 2
    decay_mult: 0
  }
  convolution_param {
    num_output: 96
    pad: 2
    kernel_size: 5
    weight_filler {
      type: "xavier"
      std: 0.03
    }
    bias_filler {
      type: "constant"
      value: 0.2
    }
  }
}
layer {
  name: "inception_3b/relu_5x5"
  type: "ReLU"
  bottom: "inception_3b/5x5"
  top: "inception_3b/5x5"
}
layer {
  name: "inception_3b/pool"
  type: "Pooling"
  bottom: "inception_3a/output"
  top: "inception_3b/pool"
  pooling_param {
    pool: MAX
    kernel_size: 3
    stride: 1
    pad: 1
  }
}
layer {
  name: "inception_3b/pool_proj"
  type: "Convolution"
  bottom: "inception_3b/pool"
  top: "inception_3b/pool_proj"
  param {
    lr_mult: 1
    decay_mult: 1
  }
  param {
    lr_mult: 2
    decay_mult: 0
  }
  convolution_param {
    num_output: 64
    kernel_size: 1
    weight_filler {
      type: "xavier"
      std: 0.1
    }
    bias_filler {
      type: "constant"
      value: 0.2
    }
  }
}
layer {
  name: "inception_3b/relu_pool_proj"
  type: "ReLU"
  bottom: "inception_3b/pool_proj"
  top: "inception_3b/pool_proj"
}
layer {
  name: "inception_3b/output"
  type: "Concat"
  bottom: "inception_3b/1x1"
  bottom: "inception_3b/3x3"
  bottom: "inception_3b/5x5"
  bottom: "inception_3b/pool_proj"
  top: "inception_3b/output"
}
layer {
  name: "pool3/3x3_s2"
  type: "Pooling"
  bottom: "inception_3b/output"
  top: "pool3/3x3_s2"
  pooling_param {
    pool: MAX
    kernel_size: 3
    stride: 2
  }
}
layer {
  name: "inception_4a/1x1"
  type: "Convolution"
  bottom: "pool3/3x3_s2"
  top: "inception_4a/1x1"
  param {
    lr_mult: 1
    decay_mult: 1
  }
  param {
    lr_mult: 2
    decay_mult: 0
  }
  convolution_param {
    num_output: 192
    kernel_size: 1
    weight_filler {
      type: "xavier"
      std: 0.03
    }
    bias_filler {
      type: "constant"
      value: 0.2
    }
  }
}
layer {
  name: "inception_4a/relu_1x1"
  type: "ReLU"
  bottom: "inception_4a/1x1"
  top: "inception_4a/1x1"
}
layer {
  name: "inception_4a/3x3_reduce"
  type: "Convolution"
  bottom: "pool3/3x3_s2"
  top: "inception_4a/3x3_reduce"
  param {
    lr_mult: 1
    decay_mult: 1
  }
  param {
    lr_mult: 2
    decay_mult: 0
  }
  convolution_param {
    num_output: 96
    kernel_size: 1
    weight_filler {
      type: "xavier"
      std: 0.09
    }
    bias_filler {
      type: "constant"
      value: 0.2
    }
  }
}
layer {
  name: "inception_4a/relu_3x3_reduce"
  type: "ReLU"
  bottom: "inception_4a/3x3_reduce"
  top: "inception_4a/3x3_reduce"
}
layer {
  name: "inception_4a/3x3"
  type: "Convolution"
  bottom: "inception_4a/3x3_reduce"
  top: "inception_4a/3x3"
  param {
    lr_mult: 1
    decay_mult: 1
  }
  param {
    lr_mult: 2
    decay_mult: 0
  }
  convolution_param {
    num_output: 208
    pad: 1
    kernel_size: 3
    weight_filler {
      type: "xavier"
      std: 0.03
    }
    bias_filler {
      type: "constant"
      value: 0.2
    }
  }
}
layer {
  name: "inception_4a/relu_3x3"
  type: "ReLU"
  bottom: "inception_4a/3x3"
  top: "inception_4a/3x3"
}
layer {
  name: "inception_4a/5x5_reduce"
  type: "Convolution"
  bottom: "pool3/3x3_s2"
  top: "inception_4a/5x5_reduce"
  param {
    lr_mult: 1
    decay_mult: 1
  }
  param {
    lr_mult: 2
    decay_mult: 0
  }
  convolution_param {
    num_output: 16
    kernel_size: 1
    weight_filler {
      type: "xavier"
      std: 0.2
    }
    bias_filler {
      type: "constant"
      value: 0.2
    }
  }
}
layer {
  name: "inception_4a/relu_5x5_reduce"
  type: "ReLU"
  bottom: "inception_4a/5x5_reduce"
  top: "inception_4a/5x5_reduce"
}
layer {
  name: "inception_4a/5x5"
  type: "Convolution"
  bottom: "inception_4a/5x5_reduce"
  top: "inception_4a/5x5"
  param {
    lr_mult: 1
    decay_mult: 1
  }
  param {
    lr_mult: 2
    decay_mult: 0
  }
  convolution_param {
    num_output: 48
    pad: 2
    kernel_size: 5
    weight_filler {
      type: "xavier"
      std: 0.03
    }
    bias_filler {
      type: "constant"
      value: 0.2
    }
  }
}
layer {
  name: "inception_4a/relu_5x5"
  type: "ReLU"
  bottom: "inception_4a/5x5"
  top: "inception_4a/5x5"
}
layer {
  name: "inception_4a/pool"
  type: "Pooling"
  bottom: "pool3/3x3_s2"
  top: "inception_4a/pool"
  pooling_param {
    pool: MAX
    kernel_size: 3
    stride: 1
    pad: 1
  }
}
layer {
  name: "inception_4a/pool_proj"
  type: "Convolution"
  bottom: "inception_4a/pool"
  top: "inception_4a/pool_proj"
  param {
    lr_mult: 1
    decay_mult: 1
  }
  param {
    lr_mult: 2
    decay_mult: 0
  }
  convolution_param {
    num_output: 64
    kernel_size: 1
    weight_filler {
      type: "xavier"
      std: 0.1
    }
    bias_filler {
      type: "constant"
      value: 0.2
    }
  }
}
layer {
  name: "inception_4a/relu_pool_proj"
  type: "ReLU"
  bottom: "inception_4a/pool_proj"
  top: "inception_4a/pool_proj"
}
layer {
  name: "inception_4a/output"
  type: "Concat"
  bottom: "inception_4a/1x1"
  bottom: "inception_4a/3x3"
  bottom: "inception_4a/5x5"
  bottom: "inception_4a/pool_proj"
  top: "inception_4a/output"
}
layer {
  name: "loss1/ave_pool"
  type: "Pooling"
  bottom: "inception_4a/output"
  top: "loss1/ave_pool"
  pooling_param {
    pool: AVE
    kernel_size: 5
    stride: 3
  }
}
layer {
  name: "loss1/conv"
  type: "Convolution"
  bottom: "loss1/ave_pool"
  top: "loss1/conv"
  param {
    lr_mult: 1
    decay_mult: 1
  }
  param {
    lr_mult: 2
    decay_mult: 0
  }
  convolution_param {
    num_output: 128
    kernel_size: 1
    weight_filler {
      type: "xavier"
      std: 0.08
    }
    bias_filler {
      type: "constant"
      value: 0.2
    }
  }
}
layer {
  name: "loss1/relu_conv"
  type: "ReLU"
  bottom: "loss1/conv"
  top: "loss1/conv"
}
layer {
  name: "loss1/fc"
  type: "InnerProduct"
  bottom: "loss1/conv"
  top: "loss1/fc"
  param {
    lr_mult: 1
    decay_mult: 1
  }
  param {
    lr_mult: 2
    decay_mult: 0
  }
  inner_product_param {
    num_output: 1024
    weight_filler {
      type: "xavier"
      std: 0.02
    }
    bias_filler {
      type: "constant"
      value: 0.2
    }
  }
}
layer {
  name: "loss1/relu_fc"
  type: "ReLU"
  bottom: "loss1/fc"
  top: "loss1/fc"
}
layer {
  name: "loss1/drop_fc"
  type: "Dropout"
  bottom: "loss1/fc"
  top: "loss1/fc"
  dropout_param {
    dropout_ratio: 0.7
  }
}
layer {
  name: "loss1/classifier_plantvillage"
  type: "InnerProduct"
  bottom: "loss1/fc"
  top: "loss1/classifier_plantvillage"
  param {
    lr_mult: 1
    decay_mult: 1
  }
  param {
    lr_mult: 2
    decay_mult: 0
  }
  inner_product_param {
    num_output: 38
    weight_filler {
      type: "xavier"
      std: 0.0009765625
    }
    bias_filler {
      type: "constant"
      value: 0
    }
  }
}
layer {
  name: "inception_4b/1x1"
  type: "Convolution"
  bottom: "inception_4a/output"
  top: "inception_4b/1x1"
  param {
    lr_mult: 1
    decay_mult: 1
  }
  param {
    lr_mult: 2
    decay_mult: 0
  }
  convolution_param {
    num_output: 160
    kernel_size: 1
    weight_filler {
      type: "xavier"
      std: 0.03
    }
    bias_filler {
      type: "constant"
      value: 0.2
    }
  }
}
layer {
  name: "inception_4b/relu_1x1"
  type: "ReLU"
  bottom: "inception_4b/1x1"
  top: "inception_4b/1x1"
}
layer {
  name: "inception_4b/3x3_reduce"
  type: "Convolution"
  bottom: "inception_4a/output"
  top: "inception_4b/3x3_reduce"
  param {
    lr_mult: 1
    decay_mult: 1
  }
  param {
    lr_mult: 2
    decay_mult: 0
  }
  convolution_param {
    num_output: 112
    kernel_size: 1
    weight_filler {
      type: "xavier"
      std: 0.09
    }
    bias_filler {
      type: "constant"
      value: 0.2
    }
  }
}
layer {
  name: "inception_4b/relu_3x3_reduce"
  type: "ReLU"
  bottom: "inception_4b/3x3_reduce"
  top: "inception_4b/3x3_reduce"
}
layer {
  name: "inception_4b/3x3"
  type: "Convolution"
  bottom: "inception_4b/3x3_reduce"
  top: "inception_4b/3x3"
  param {
    lr_mult: 1
    decay_mult: 1
  }
  param {
    lr_mult: 2
    decay_mult: 0
  }
  convolution_param {
    num_output: 224
    pad: 1
    kernel_size: 3
    weight_filler {
      type: "xavier"
      std: 0.03
    }
    bias_filler {
      type: "constant"
      value: 0.2
    }
  }
}
layer {
  name: "inception_4b/relu_3x3"
  type: "ReLU"
  bottom: "inception_4b/3x3"
  top: "inception_4b/3x3"
}
layer {
  name: "inception_4b/5x5_reduce"
  type: "Convolution"
  bottom: "inception_4a/output"
  top: "inception_4b/5x5_reduce"
  param {
    lr_mult: 1
    decay_mult: 1
  }
  param {
    lr_mult: 2
    decay_mult: 0
  }
  convolution_param {
    num_output: 24
    kernel_size: 1
    weight_filler {
      type: "xavier"
      std: 0.2
    }
    bias_filler {
      type: "constant"
      value: 0.2
    }
  }
}
layer {
  name: "inception_4b/relu_5x5_reduce"
  type: "ReLU"
  bottom: "inception_4b/5x5_reduce"
  top: "inception_4b/5x5_reduce"
}
layer {
  name: "inception_4b/5x5"
  type: "Convolution"
  bottom: "inception_4b/5x5_reduce"
  top: "inception_4b/5x5"
  param {
    lr_mult: 1
    decay_mult: 1
  }
  param {
    lr_mult: 2
    decay_mult: 0
  }
  convolution_param {
    num_output: 64
    pad: 2
    kernel_size: 5
    weight_filler {
      type: "xavier"
      std: 0.03
    }
    bias_filler {
      type: "constant"
      value: 0.2
    }
  }
}
layer {
  name: "inception_4b/relu_5x5"
  type: "ReLU"
  bottom: "inception_4b/5x5"
  top: "inception_4b/5x5"
}
layer {
  name: "inception_4b/pool"
  type: "Pooling"
  bottom: "inception_4a/output"
  top: "inception_4b/pool"
  pooling_param {
    pool: MAX
    kernel_size: 3
    stride: 1
    pad: 1
  }
}
layer {
  name: "inception_4b/pool_proj"
  type: "Convolution"
  bottom: "inception_4b/pool"
  top: "inception_4b/pool_proj"
  param {
    lr_mult: 1
    decay_mult: 1
  }
  param {
    lr_mult: 2
    decay_mult: 0
  }
  convolution_param {
    num_output: 64
    kernel_size: 1
    weight_filler {
      type: "xavier"
      std: 0.1
    }
    bias_filler {
      type: "constant"
      value: 0.2
    }
  }
}
layer {
  name: "inception_4b/relu_pool_proj"
  type: "ReLU"
  bottom: "inception_4b/pool_proj"
  top: "inception_4b/pool_proj"
}
layer {
  name: "inception_4b/output"
  type: "Concat"
  bottom: "inception_4b/1x1"
  bottom: "inception_4b/3x3"
  bottom: "inception_4b/5x5"
  bottom: "inception_4b/pool_proj"
  top: "inception_4b/output"
}
layer {
  name: "inception_4c/1x1"
  type: "Convolution"
  bottom: "inception_4b/output"
  top: "inception_4c/1x1"
  param {
    lr_mult: 1
    decay_mult: 1
  }
  param {
    lr_mult: 2
    decay_mult: 0
  }
  convolution_param {
    num_output: 128
    kernel_size: 1
    weight_filler {
      type: "xavier"
      std: 0.03
    }
    bias_filler {
      type: "constant"
      value: 0.2
    }
  }
}
layer {
  name: "inception_4c/relu_1x1"
  type: "ReLU"
  bottom: "inception_4c/1x1"
  top: "inception_4c/1x1"
}
layer {
  name: "inception_4c/3x3_reduce"
  type: "Convolution"
  bottom: "inception_4b/output"
  top: "inception_4c/3x3_reduce"
  param {
    lr_mult: 1
    decay_mult: 1
  }
  param {
    lr_mult: 2
    decay_mult: 0
  }
  convolution_param {
    num_output: 128
    kernel_size: 1
    weight_filler {
      type: "xavier"
      std: 0.09
    }
    bias_filler {
      type: "constant"
      value: 0.2
    }
  }
}
layer {
  name: "inception_4c/relu_3x3_reduce"
  type: "ReLU"
  bottom: "inception_4c/3x3_reduce"
  top: "inception_4c/3x3_reduce"
}
layer {
  name: "inception_4c/3x3"
  type: "Convolution"
  bottom: "inception_4c/3x3_reduce"
  top: "inception_4c/3x3"
  param {
    lr_mult: 1
    decay_mult: 1
  }
  param {
    lr_mult: 2
    decay_mult: 0
  }
  convolution_param {
    num_output: 256
    pad: 1
    kernel_size: 3
    weight_filler {
      type: "xavier"
      std: 0.03
    }
    bias_filler {
      type: "constant"
      value: 0.2
    }
  }
}
layer {
  name: "inception_4c/relu_3x3"
  type: "ReLU"
  bottom: "inception_4c/3x3"
  top: "inception_4c/3x3"
}
layer {
  name: "inception_4c/5x5_reduce"
  type: "Convolution"
  bottom: "inception_4b/output"
  top: "inception_4c/5x5_reduce"
  param {
    lr_mult: 1
    decay_mult: 1
  }
  param {
    lr_mult: 2
    decay_mult: 0
  }
  convolution_param {
    num_output: 24
    kernel_size: 1
    weight_filler {
      type: "xavier"
      std: 0.2
    }
    bias_filler {
      type: "constant"
      value: 0.2
    }
  }
}
layer {
  name: "inception_4c/relu_5x5_reduce"
  type: "ReLU"
  bottom: "inception_4c/5x5_reduce"
  top: "inception_4c/5x5_reduce"
}
layer {
  name: "inception_4c/5x5"
  type: "Convolution"
  bottom: "inception_4c/5x5_reduce"
  top: "inception_4c/5x5"
  param {
    lr_mult: 1
    decay_mult: 1
  }
  param {
    lr_mult: 2
    decay_mult: 0
  }
  convolution_param {
    num_output: 64
    pad: 2
    kernel_size: 5
    weight_filler {
      type: "xavier"
      std: 0.03
    }
    bias_filler {
      type: "constant"
      value: 0.2
    }
  }
}
layer {
  name: "inception_4c/relu_5x5"
  type: "ReLU"
  bottom: "inception_4c/5x5"
  top: "inception_4c/5x5"
}
layer {
  name: "inception_4c/pool"
  type: "Pooling"
  bottom: "inception_4b/output"
  top: "inception_4c/pool"
  pooling_param {
    pool: MAX
    kernel_size: 3
    stride: 1
    pad: 1
  }
}
layer {
  name: "inception_4c/pool_proj"
  type: "Convolution"
  bottom: "inception_4c/pool"
  top: "inception_4c/pool_proj"
  param {
    lr_mult: 1
    decay_mult: 1
  }
  param {
    lr_mult: 2
    decay_mult: 0
  }
  convolution_param {
    num_output: 64
    kernel_size: 1
    weight_filler {
      type: "xavier"
      std: 0.1
    }
    bias_filler {
      type: "constant"
      value: 0.2
    }
  }
}
layer {
  name: "inception_4c/relu_pool_proj"
  type: "ReLU"
  bottom: "inception_4c/pool_proj"
  top: "inception_4c/pool_proj"
}
layer {
  name: "inception_4c/output"
  type: "Concat"
  bottom: "inception_4c/1x1"
  bottom: "inception_4c/3x3"
  bottom: "inception_4c/5x5"
  bottom: "inception_4c/pool_proj"
  top: "inception_4c/output"
}
layer {
  name: "inception_4d/1x1"
  type: "Convolution"
  bottom: "inception_4c/output"
  top: "inception_4d/1x1"
  param {
    lr_mult: 1
    decay_mult: 1
  }
  param {
    lr_mult: 2
    decay_mult: 0
  }
  convolution_param {
    num_output: 112
    kernel_size: 1
    weight_filler {
      type: "xavier"
      std: 0.03
    }
    bias_filler {
      type: "constant"
      value: 0.2
    }
  }
}
layer {
  name: "inception_4d/relu_1x1"
  type: "ReLU"
  bottom: "inception_4d/1x1"
  top: "inception_4d/1x1"
}
layer {
  name: "inception_4d/3x3_reduce"
  type: "Convolution"
  bottom: "inception_4c/output"
  top: "inception_4d/3x3_reduce"
  param {
    lr_mult: 1
    decay_mult: 1
  }
  param {
    lr_mult: 2
    decay_mult: 0
  }
  convolution_param {
    num_output: 144
    kernel_size: 1
    weight_filler {
      type: "xavier"
      std: 0.09
    }
    bias_filler {
      type: "constant"
      value: 0.2
    }
  }
}
layer {
  name: "inception_4d/relu_3x3_reduce"
  type: "ReLU"
  bottom: "inception_4d/3x3_reduce"
  top: "inception_4d/3x3_reduce"
}
layer {
  name: "inception_4d/3x3"
  type: "Convolution"
  bottom: "inception_4d/3x3_reduce"
  top: "inception_4d/3x3"
  param {
    lr_mult: 1
    decay_mult: 1
  }
  param {
    lr_mult: 2
    decay_mult: 0
  }
  convolution_param {
    num_output: 288
    pad: 1
    kernel_size: 3
    weight_filler {
      type: "xavier"
      std: 0.03
    }
    bias_filler {
      type: "constant"
      value: 0.2
    }
  }
}
layer {
  name: "inception_4d/relu_3x3"
  type: "ReLU"
  bottom: "inception_4d/3x3"
  top: "inception_4d/3x3"
}
layer {
  name: "inception_4d/5x5_reduce"
  type: "Convolution"
  bottom: "inception_4c/output"
  top: "inception_4d/5x5_reduce"
  param {
    lr_mult: 1
    decay_mult: 1
  }
  param {
    lr_mult: 2
    decay_mult: 0
  }
  convolution_param {
    num_output: 32
    kernel_size: 1
    weight_filler {
      type: "xavier"
      std: 0.2
    }
    bias_filler {
      type: "constant"
      value: 0.2
    }
  }
}
layer {
  name: "inception_4d/relu_5x5_reduce"
  type: "ReLU"
  bottom: "inception_4d/5x5_reduce"
  top: "inception_4d/5x5_reduce"
}
layer {
  name: "inception_4d/5x5"
  type: "Convolution"
  bottom: "inception_4d/5x5_reduce"
  top: "inception_4d/5x5"
  param {
    lr_mult: 1
    decay_mult: 1
  }
  param {
    lr_mult: 2
    decay_mult: 0
  }
  convolution_param {
    num_output: 64
    pad: 2
    kernel_size: 5
    weight_filler {
      type: "xavier"
      std: 0.03
    }
    bias_filler {
      type: "constant"
      value: 0.2
    }
  }
}
layer {
  name: "inception_4d/relu_5x5"
  type: "ReLU"
  bottom: "inception_4d/5x5"
  top: "inception_4d/5x5"
}
layer {
  name: "inception_4d/pool"
  type: "Pooling"
  bottom: "inception_4c/output"
  top: "inception_4d/pool"
  pooling_param {
    pool: MAX
    kernel_size: 3
    stride: 1
    pad: 1
  }
}
layer {
  name: "inception_4d/pool_proj"
  type: "Convolution"
  bottom: "inception_4d/pool"
  top: "inception_4d/pool_proj"
  param {
    lr_mult: 1
    decay_mult: 1
  }
  param {
    lr_mult: 2
    decay_mult: 0
  }
  convolution_param {
    num_output: 64
    kernel_size: 1
    weight_filler {
      type: "xavier"
      std: 0.1
    }
    bias_filler {
      type: "constant"
      value: 0.2
    }
  }
}
layer {
  name: "inception_4d/relu_pool_proj"
  type: "ReLU"
  bottom: "inception_4d/pool_proj"
  top: "inception_4d/pool_proj"
}
layer {
  name: "inception_4d/output"
  type: "Concat"
  bottom: "inception_4d/1x1"
  bottom: "inception_4d/3x3"
  bottom: "inception_4d/5x5"
  bottom: "inception_4d/pool_proj"
  top: "inception_4d/output"
}
layer {
  name: "loss2/ave_pool"
  type: "Pooling"
  bottom: "inception_4d/output"
  top: "loss2/ave_pool"
  pooling_param {
    pool: AVE
    kernel_size: 5
    stride: 3
  }
}
layer {
  name: "loss2/conv"
  type: "Convolution"
  bottom: "loss2/ave_pool"
  top: "loss2/conv"
  param {
    lr_mult: 1
    decay_mult: 1
  }
  param {
    lr_mult: 2
    decay_mult: 0
  }
  convolution_param {
    num_output: 128
    kernel_size: 1
    weight_filler {
      type: "xavier"
      std: 0.08
    }
    bias_filler {
      type: "constant"
      value: 0.2
    }
  }
}
layer {
  name: "loss2/relu_conv"
  type: "ReLU"
  bottom: "loss2/conv"
  top: "loss2/conv"
}
layer {
  name: "loss2/fc"
  type: "InnerProduct"
  bottom: "loss2/conv"
  top: "loss2/fc"
  param {
    lr_mult: 1
    decay_mult: 1
  }
  param {
    lr_mult: 2
    decay_mult: 0
  }
  inner_product_param {
    num_output: 1024
    weight_filler {
      type: "xavier"
      std: 0.02
    }
    bias_filler {
      type: "constant"
      value: 0.2
    }
  }
}
layer {
  name: "loss2/relu_fc"
  type: "ReLU"
  bottom: "loss2/fc"
  top: "loss2/fc"
}
layer {
  name: "loss2/drop_fc"
  type: "Dropout"
  bottom: "loss2/fc"
  top: "loss2/fc"
  dropout_param {
    dropout_ratio: 0.7
  }
}
layer {
  name: "loss2/classifier_plantvillage"
  type: "InnerProduct"
  bottom: "loss2/fc"
  top: "loss2/classifier_plantvillage"
  param {
    lr_mult: 1
    decay_mult: 1
  }
  param {
    lr_mult: 2
    decay_mult: 0
  }
  inner_product_param {
    num_output: 38
    weight_filler {
      type: "xavier"
      std: 0.0009765625
    }
    bias_filler {
      type: "constant"
      value: 0
    }
  }
}
layer {
  name: "inception_4e/1x1"
  type: "Convolution"
  bottom: "inception_4d/output"
  top: "inception_4e/1x1"
  param {
    lr_mult: 1
    decay_mult: 1
  }
  param {
    lr_mult: 2
    decay_mult: 0
  }
  convolution_param {
    num_output: 256
    kernel_size: 1
    weight_filler {
      type: "xavier"
      std: 0.03
    }
    bias_filler {
      type: "constant"
      value: 0.2
    }
  }
}
layer {
  name: "inception_4e/relu_1x1"
  type: "ReLU"
  bottom: "inception_4e/1x1"
  top: "inception_4e/1x1"
}
layer {
  name: "inception_4e/3x3_reduce"
  type: "Convolution"
  bottom: "inception_4d/output"
  top: "inception_4e/3x3_reduce"
  param {
    lr_mult: 1
    decay_mult: 1
  }
  param {
    lr_mult: 2
    decay_mult: 0
  }
  convolution_param {
    num_output: 160
    kernel_size: 1
    weight_filler {
      type: "xavier"
      std: 0.09
    }
    bias_filler {
      type: "constant"
      value: 0.2
    }
  }
}
layer {
  name: "inception_4e/relu_3x3_reduce"
  type: "ReLU"
  bottom: "inception_4e/3x3_reduce"
  top: "inception_4e/3x3_reduce"
}
layer {
  name: "inception_4e/3x3"
  type: "Convolution"
  bottom: "inception_4e/3x3_reduce"
  top: "inception_4e/3x3"
  param {
    lr_mult: 1
    decay_mult: 1
  }
  param {
    lr_mult: 2
    decay_mult: 0
  }
  convolution_param {
    num_output: 320
    pad: 1
    kernel_size: 3
    weight_filler {
      type: "xavier"
      std: 0.03
    }
    bias_filler {
      type: "constant"
      value: 0.2
    }
  }
}
layer {
  name: "inception_4e/relu_3x3"
  type: "ReLU"
  bottom: "inception_4e/3x3"
  top: "inception_4e/3x3"
}
layer {
  name: "inception_4e/5x5_reduce"
  type: "Convolution"
  bottom: "inception_4d/output"
  top: "inception_4e/5x5_reduce"
  param {
    lr_mult: 1
    decay_mult: 1
  }
  param {
    lr_mult: 2
    decay_mult: 0
  }
  convolution_param {
    num_output: 32
    kernel_size: 1
    weight_filler {
      type: "xavier"
      std: 0.2
    }
    bias_filler {
      type: "constant"
      value: 0.2
    }
  }
}
layer {
  name: "inception_4e/relu_5x5_reduce"
  type: "ReLU"
  bottom: "inception_4e/5x5_reduce"
  top: "inception_4e/5x5_reduce"
}
layer {
  name: "inception_4e/5x5"
  type: "Convolution"
  bottom: "inception_4e/5x5_reduce"
  top: "inception_4e/5x5"
  p
I0403 16:47:19.328732 19519 layer_factory.hpp:77] Creating layer data
I0403 16:47:19.329444 19519 net.cpp:91] Creating Layer data
I0403 16:47:19.329481 19519 net.cpp:399] data -> data
I0403 16:47:19.329542 19519 net.cpp:399] data -> label
I0403 16:47:19.329586 19519 data_transformer.cpp:25] Loading mean file from: /home/mohanty/data/final_dataset/lmdb/color-20-80/mean.binaryproto
I0403 16:47:19.331008 19521 db_lmdb.cpp:38] Opened lmdb /home/mohanty/data/final_dataset/lmdb/color-20-80/test_db
I0403 16:47:19.345450 19519 data_layer.cpp:41] output data size: 24,3,224,224
I0403 16:47:19.377112 19519 net.cpp:141] Setting up data
I0403 16:47:19.377204 19519 net.cpp:148] Top shape: 24 3 224 224 (3612672)
I0403 16:47:19.377231 19519 net.cpp:148] Top shape: 24 (24)
I0403 16:47:19.377250 19519 net.cpp:156] Memory required for data: 14450784
I0403 16:47:19.377281 19519 layer_factory.hpp:77] Creating layer label_data_1_split
I0403 16:47:19.377315 19519 net.cpp:91] Creating Layer label_data_1_split
I0403 16:47:19.377336 19519 net.cpp:425] label_data_1_split <- label
I0403 16:47:19.377374 19519 net.cpp:399] label_data_1_split -> label_data_1_split_0
I0403 16:47:19.377408 19519 net.cpp:399] label_data_1_split -> label_data_1_split_1
I0403 16:47:19.377435 19519 net.cpp:399] label_data_1_split -> label_data_1_split_2
I0403 16:47:19.377461 19519 net.cpp:399] label_data_1_split -> label_data_1_split_3
I0403 16:47:19.377485 19519 net.cpp:399] label_data_1_split -> label_data_1_split_4
I0403 16:47:19.377509 19519 net.cpp:399] label_data_1_split -> label_data_1_split_5
I0403 16:47:19.377533 19519 net.cpp:399] label_data_1_split -> label_data_1_split_6
I0403 16:47:19.377557 19519 net.cpp:399] label_data_1_split -> label_data_1_split_7
I0403 16:47:19.377581 19519 net.cpp:399] label_data_1_split -> label_data_1_split_8
I0403 16:47:19.377609 19519 net.cpp:399] label_data_1_split -> label_data_1_split_9
I0403 16:47:19.377749 19519 net.cpp:141] Setting up label_data_1_split
I0403 16:47:19.377779 19519 net.cpp:148] Top shape: 24 (24)
I0403 16:47:19.377799 19519 net.cpp:148] Top shape: 24 (24)
I0403 16:47:19.377820 19519 net.cpp:148] Top shape: 24 (24)
I0403 16:47:19.377838 19519 net.cpp:148] Top shape: 24 (24)
I0403 16:47:19.377857 19519 net.cpp:148] Top shape: 24 (24)
I0403 16:47:19.377876 19519 net.cpp:148] Top shape: 24 (24)
I0403 16:47:19.377894 19519 net.cpp:148] Top shape: 24 (24)
I0403 16:47:19.377913 19519 net.cpp:148] Top shape: 24 (24)
I0403 16:47:19.377933 19519 net.cpp:148] Top shape: 24 (24)
I0403 16:47:19.377951 19519 net.cpp:148] Top shape: 24 (24)
I0403 16:47:19.377995 19519 net.cpp:156] Memory required for data: 14451744
I0403 16:47:19.378015 19519 layer_factory.hpp:77] Creating layer conv1/7x7_s2
I0403 16:47:19.378054 19519 net.cpp:91] Creating Layer conv1/7x7_s2
I0403 16:47:19.378075 19519 net.cpp:425] conv1/7x7_s2 <- data
I0403 16:47:19.378101 19519 net.cpp:399] conv1/7x7_s2 -> conv1/7x7_s2
I0403 16:47:19.541044 19519 net.cpp:141] Setting up conv1/7x7_s2
I0403 16:47:19.541113 19519 net.cpp:148] Top shape: 24 64 112 112 (19267584)
I0403 16:47:19.541134 19519 net.cpp:156] Memory required for data: 91522080
I0403 16:47:19.541172 19519 layer_factory.hpp:77] Creating layer conv1/relu_7x7
I0403 16:47:19.541204 19519 net.cpp:91] Creating Layer conv1/relu_7x7
I0403 16:47:19.541226 19519 net.cpp:425] conv1/relu_7x7 <- conv1/7x7_s2
I0403 16:47:19.541254 19519 net.cpp:386] conv1/relu_7x7 -> conv1/7x7_s2 (in-place)
I0403 16:47:19.541580 19519 net.cpp:141] Setting up conv1/relu_7x7
I0403 16:47:19.541618 19519 net.cpp:148] Top shape: 24 64 112 112 (19267584)
I0403 16:47:19.541640 19519 net.cpp:156] Memory required for data: 168592416
I0403 16:47:19.541658 19519 layer_factory.hpp:77] Creating layer pool1/3x3_s2
I0403 16:47:19.541692 19519 net.cpp:91] Creating Layer pool1/3x3_s2
I0403 16:47:19.541714 19519 net.cpp:425] pool1/3x3_s2 <- conv1/7x7_s2
I0403 16:47:19.541738 19519 net.cpp:399] pool1/3x3_s2 -> pool1/3x3_s2
I0403 16:47:19.541896 19519 net.cpp:141] Setting up pool1/3x3_s2
I0403 16:47:19.541930 19519 net.cpp:148] Top shape: 24 64 56 56 (4816896)
I0403 16:47:19.541951 19519 net.cpp:156] Memory required for data: 187860000
I0403 16:47:19.541970 19519 layer_factory.hpp:77] Creating layer pool1/norm1
I0403 16:47:19.541999 19519 net.cpp:91] Creating Layer pool1/norm1
I0403 16:47:19.542021 19519 net.cpp:425] pool1/norm1 <- pool1/3x3_s2
I0403 16:47:19.542044 19519 net.cpp:399] pool1/norm1 -> pool1/norm1
I0403 16:47:19.542413 19519 net.cpp:141] Setting up pool1/norm1
I0403 16:47:19.542446 19519 net.cpp:148] Top shape: 24 64 56 56 (4816896)
I0403 16:47:19.542465 19519 net.cpp:156] Memory required for data: 207127584
I0403 16:47:19.542484 19519 layer_factory.hpp:77] Creating layer conv2/3x3_reduce
I0403 16:47:19.542516 19519 net.cpp:91] Creating Layer conv2/3x3_reduce
I0403 16:47:19.542539 19519 net.cpp:425] conv2/3x3_reduce <- pool1/norm1
I0403 16:47:19.542567 19519 net.cpp:399] conv2/3x3_reduce -> conv2/3x3_reduce
I0403 16:47:19.544286 19519 net.cpp:141] Setting up conv2/3x3_reduce
I0403 16:47:19.544323 19519 net.cpp:148] Top shape: 24 64 56 56 (4816896)
I0403 16:47:19.544343 19519 net.cpp:156] Memory required for data: 226395168
I0403 16:47:19.544370 19519 layer_factory.hpp:77] Creating layer conv2/relu_3x3_reduce
I0403 16:47:19.544397 19519 net.cpp:91] Creating Layer conv2/relu_3x3_reduce
I0403 16:47:19.544419 19519 net.cpp:425] conv2/relu_3x3_reduce <- conv2/3x3_reduce
I0403 16:47:19.544440 19519 net.cpp:386] conv2/relu_3x3_reduce -> conv2/3x3_reduce (in-place)
I0403 16:47:19.544769 19519 net.cpp:141] Setting up conv2/relu_3x3_reduce
I0403 16:47:19.544800 19519 net.cpp:148] Top shape: 24 64 56 56 (4816896)
I0403 16:47:19.544819 19519 net.cpp:156] Memory required for data: 245662752
I0403 16:47:19.544838 19519 layer_factory.hpp:77] Creating layer conv2/3x3
I0403 16:47:19.544870 19519 net.cpp:91] Creating Layer conv2/3x3
I0403 16:47:19.544893 19519 net.cpp:425] conv2/3x3 <- conv2/3x3_reduce
I0403 16:47:19.544917 19519 net.cpp:399] conv2/3x3 -> conv2/3x3
I0403 16:47:19.547706 19519 net.cpp:141] Setting up conv2/3x3
I0403 16:47:19.547744 19519 net.cpp:148] Top shape: 24 192 56 56 (14450688)
I0403 16:47:19.547766 19519 net.cpp:156] Memory required for data: 303465504
I0403 16:47:19.547792 19519 layer_factory.hpp:77] Creating layer conv2/relu_3x3
I0403 16:47:19.547817 19519 net.cpp:91] Creating Layer conv2/relu_3x3
I0403 16:47:19.547838 19519 net.cpp:425] conv2/relu_3x3 <- conv2/3x3
I0403 16:47:19.547859 19519 net.cpp:386] conv2/relu_3x3 -> conv2/3x3 (in-place)
I0403 16:47:19.548149 19519 net.cpp:141] Setting up conv2/relu_3x3
I0403 16:47:19.548182 19519 net.cpp:148] Top shape: 24 192 56 56 (14450688)
I0403 16:47:19.548235 19519 net.cpp:156] Memory required for data: 361268256
I0403 16:47:19.548254 19519 layer_factory.hpp:77] Creating layer conv2/norm2
I0403 16:47:19.548282 19519 net.cpp:91] Creating Layer conv2/norm2
I0403 16:47:19.548303 19519 net.cpp:425] conv2/norm2 <- conv2/3x3
I0403 16:47:19.548324 19519 net.cpp:399] conv2/norm2 -> conv2/norm2
I0403 16:47:19.548702 19519 net.cpp:141] Setting up conv2/norm2
I0403 16:47:19.548735 19519 net.cpp:148] Top shape: 24 192 56 56 (14450688)
I0403 16:47:19.548754 19519 net.cpp:156] Memory required for data: 419071008
I0403 16:47:19.548774 19519 layer_factory.hpp:77] Creating layer pool2/3x3_s2
I0403 16:47:19.548800 19519 net.cpp:91] Creating Layer pool2/3x3_s2
I0403 16:47:19.548822 19519 net.cpp:425] pool2/3x3_s2 <- conv2/norm2
I0403 16:47:19.548843 19519 net.cpp:399] pool2/3x3_s2 -> pool2/3x3_s2
I0403 16:47:19.548908 19519 net.cpp:141] Setting up pool2/3x3_s2
I0403 16:47:19.548938 19519 net.cpp:148] Top shape: 24 192 28 28 (3612672)
I0403 16:47:19.548955 19519 net.cpp:156] Memory required for data: 433521696
I0403 16:47:19.548974 19519 layer_factory.hpp:77] Creating layer pool2/3x3_s2_pool2/3x3_s2_0_split
I0403 16:47:19.548995 19519 net.cpp:91] Creating Layer pool2/3x3_s2_pool2/3x3_s2_0_split
I0403 16:47:19.549012 19519 net.cpp:425] pool2/3x3_s2_pool2/3x3_s2_0_split <- pool2/3x3_s2
I0403 16:47:19.549036 19519 net.cpp:399] pool2/3x3_s2_pool2/3x3_s2_0_split -> pool2/3x3_s2_pool2/3x3_s2_0_split_0
I0403 16:47:19.549063 19519 net.cpp:399] pool2/3x3_s2_pool2/3x3_s2_0_split -> pool2/3x3_s2_pool2/3x3_s2_0_split_1
I0403 16:47:19.549088 19519 net.cpp:399] pool2/3x3_s2_pool2/3x3_s2_0_split -> pool2/3x3_s2_pool2/3x3_s2_0_split_2
I0403 16:47:19.549113 19519 net.cpp:399] pool2/3x3_s2_pool2/3x3_s2_0_split -> pool2/3x3_s2_pool2/3x3_s2_0_split_3
I0403 16:47:19.549196 19519 net.cpp:141] Setting up pool2/3x3_s2_pool2/3x3_s2_0_split
I0403 16:47:19.549226 19519 net.cpp:148] Top shape: 24 192 28 28 (3612672)
I0403 16:47:19.549247 19519 net.cpp:148] Top shape: 24 192 28 28 (3612672)
I0403 16:47:19.549268 19519 net.cpp:148] Top shape: 24 192 28 28 (3612672)
I0403 16:47:19.549286 19519 net.cpp:148] Top shape: 24 192 28 28 (3612672)
I0403 16:47:19.549304 19519 net.cpp:156] Memory required for data: 491324448
I0403 16:47:19.549321 19519 layer_factory.hpp:77] Creating layer inception_3a/1x1
I0403 16:47:19.549348 19519 net.cpp:91] Creating Layer inception_3a/1x1
I0403 16:47:19.549370 19519 net.cpp:425] inception_3a/1x1 <- pool2/3x3_s2_pool2/3x3_s2_0_split_0
I0403 16:47:19.549396 19519 net.cpp:399] inception_3a/1x1 -> inception_3a/1x1
I0403 16:47:19.551298 19519 net.cpp:141] Setting up inception_3a/1x1
I0403 16:47:19.551336 19519 net.cpp:148] Top shape: 24 64 28 28 (1204224)
I0403 16:47:19.551355 19519 net.cpp:156] Memory required for data: 496141344
I0403 16:47:19.551379 19519 layer_factory.hpp:77] Creating layer inception_3a/relu_1x1
I0403 16:47:19.551405 19519 net.cpp:91] Creating Layer inception_3a/relu_1x1
I0403 16:47:19.551424 19519 net.cpp:425] inception_3a/relu_1x1 <- inception_3a/1x1
I0403 16:47:19.551445 19519 net.cpp:386] inception_3a/relu_1x1 -> inception_3a/1x1 (in-place)
I0403 16:47:19.551666 19519 net.cpp:141] Setting up inception_3a/relu_1x1
I0403 16:47:19.551699 19519 net.cpp:148] Top shape: 24 64 28 28 (1204224)
I0403 16:47:19.551718 19519 net.cpp:156] Memory required for data: 500958240
I0403 16:47:19.551738 19519 layer_factory.hpp:77] Creating layer inception_3a/3x3_reduce
I0403 16:47:19.551764 19519 net.cpp:91] Creating Layer inception_3a/3x3_reduce
I0403 16:47:19.551784 19519 net.cpp:425] inception_3a/3x3_reduce <- pool2/3x3_s2_pool2/3x3_s2_0_split_1
I0403 16:47:19.551808 19519 net.cpp:399] inception_3a/3x3_reduce -> inception_3a/3x3_reduce
I0403 16:47:19.553867 19519 net.cpp:141] Setting up inception_3a/3x3_reduce
I0403 16:47:19.553905 19519 net.cpp:148] Top shape: 24 96 28 28 (1806336)
I0403 16:47:19.553925 19519 net.cpp:156] Memory required for data: 508183584
I0403 16:47:19.553951 19519 layer_factory.hpp:77] Creating layer inception_3a/relu_3x3_reduce
I0403 16:47:19.553997 19519 net.cpp:91] Creating Layer inception_3a/relu_3x3_reduce
I0403 16:47:19.554021 19519 net.cpp:425] inception_3a/relu_3x3_reduce <- inception_3a/3x3_reduce
I0403 16:47:19.554095 19519 net.cpp:386] inception_3a/relu_3x3_reduce -> inception_3a/3x3_reduce (in-place)
I0403 16:47:19.554328 19519 net.cpp:141] Setting up inception_3a/relu_3x3_reduce
I0403 16:47:19.554359 19519 net.cpp:148] Top shape: 24 96 28 28 (1806336)
I0403 16:47:19.554378 19519 net.cpp:156] Memory required for data: 515408928
I0403 16:47:19.554396 19519 layer_factory.hpp:77] Creating layer inception_3a/3x3
I0403 16:47:19.554425 19519 net.cpp:91] Creating Layer inception_3a/3x3
I0403 16:47:19.554446 19519 net.cpp:425] inception_3a/3x3 <- inception_3a/3x3_reduce
I0403 16:47:19.554472 19519 net.cpp:399] inception_3a/3x3 -> inception_3a/3x3
I0403 16:47:19.556516 19519 net.cpp:141] Setting up inception_3a/3x3
I0403 16:47:19.556555 19519 net.cpp:148] Top shape: 24 128 28 28 (2408448)
I0403 16:47:19.556576 19519 net.cpp:156] Memory required for data: 525042720
I0403 16:47:19.556598 19519 layer_factory.hpp:77] Creating layer inception_3a/relu_3x3
I0403 16:47:19.556627 19519 net.cpp:91] Creating Layer inception_3a/relu_3x3
I0403 16:47:19.556648 19519 net.cpp:425] inception_3a/relu_3x3 <- inception_3a/3x3
I0403 16:47:19.556669 19519 net.cpp:386] inception_3a/relu_3x3 -> inception_3a/3x3 (in-place)
I0403 16:47:19.556995 19519 net.cpp:141] Setting up inception_3a/relu_3x3
I0403 16:47:19.557030 19519 net.cpp:148] Top shape: 24 128 28 28 (2408448)
I0403 16:47:19.557050 19519 net.cpp:156] Memory required for data: 534676512
I0403 16:47:19.557067 19519 layer_factory.hpp:77] Creating layer inception_3a/5x5_reduce
I0403 16:47:19.557096 19519 net.cpp:91] Creating Layer inception_3a/5x5_reduce
I0403 16:47:19.557116 19519 net.cpp:425] inception_3a/5x5_reduce <- pool2/3x3_s2_pool2/3x3_s2_0_split_2
I0403 16:47:19.557140 19519 net.cpp:399] inception_3a/5x5_reduce -> inception_3a/5x5_reduce
I0403 16:47:19.558290 19519 net.cpp:141] Setting up inception_3a/5x5_reduce
I0403 16:47:19.558326 19519 net.cpp:148] Top shape: 24 16 28 28 (301056)
I0403 16:47:19.558346 19519 net.cpp:156] Memory required for data: 535880736
I0403 16:47:19.558367 19519 layer_factory.hpp:77] Creating layer inception_3a/relu_5x5_reduce
I0403 16:47:19.558389 19519 net.cpp:91] Creating Layer inception_3a/relu_5x5_reduce
I0403 16:47:19.558447 19519 net.cpp:425] inception_3a/relu_5x5_reduce <- inception_3a/5x5_reduce
I0403 16:47:19.558473 19519 net.cpp:386] inception_3a/relu_5x5_reduce -> inception_3a/5x5_reduce (in-place)
I0403 16:47:19.558831 19519 net.cpp:141] Setting up inception_3a/relu_5x5_reduce
I0403 16:47:19.558864 19519 net.cpp:148] Top shape: 24 16 28 28 (301056)
I0403 16:47:19.558883 19519 net.cpp:156] Memory required for data: 537084960
I0403 16:47:19.558900 19519 layer_factory.hpp:77] Creating layer inception_3a/5x5
I0403 16:47:19.558929 19519 net.cpp:91] Creating Layer inception_3a/5x5
I0403 16:47:19.558951 19519 net.cpp:425] inception_3a/5x5 <- inception_3a/5x5_reduce
I0403 16:47:19.558977 19519 net.cpp:399] inception_3a/5x5 -> inception_3a/5x5
I0403 16:47:19.560201 19519 net.cpp:141] Setting up inception_3a/5x5
I0403 16:47:19.560240 19519 net.cpp:148] Top shape: 24 32 28 28 (602112)
I0403 16:47:19.560261 19519 net.cpp:156] Memory required for data: 539493408
I0403 16:47:19.560282 19519 layer_factory.hpp:77] Creating layer inception_3a/relu_5x5
I0403 16:47:19.560304 19519 net.cpp:91] Creating Layer inception_3a/relu_5x5
I0403 16:47:19.560324 19519 net.cpp:425] inception_3a/relu_5x5 <- inception_3a/5x5
I0403 16:47:19.560345 19519 net.cpp:386] inception_3a/relu_5x5 -> inception_3a/5x5 (in-place)
I0403 16:47:19.560609 19519 net.cpp:141] Setting up inception_3a/relu_5x5
I0403 16:47:19.560644 19519 net.cpp:148] Top shape: 24 32 28 28 (602112)
I0403 16:47:19.560663 19519 net.cpp:156] Memory required for data: 541901856
I0403 16:47:19.560683 19519 layer_factory.hpp:77] Creating layer inception_3a/pool
I0403 16:47:19.560704 19519 net.cpp:91] Creating Layer inception_3a/pool
I0403 16:47:19.560724 19519 net.cpp:425] inception_3a/pool <- pool2/3x3_s2_pool2/3x3_s2_0_split_3
I0403 16:47:19.560766 19519 net.cpp:399] inception_3a/pool -> inception_3a/pool
I0403 16:47:19.560838 19519 net.cpp:141] Setting up inception_3a/pool
I0403 16:47:19.560870 19519 net.cpp:148] Top shape: 24 192 28 28 (3612672)
I0403 16:47:19.560889 19519 net.cpp:156] Memory required for data: 556352544
I0403 16:47:19.560907 19519 layer_factory.hpp:77] Creating layer inception_3a/pool_proj
I0403 16:47:19.560935 19519 net.cpp:91] Creating Layer inception_3a/pool_proj
I0403 16:47:19.560957 19519 net.cpp:425] inception_3a/pool_proj <- inception_3a/pool
I0403 16:47:19.560981 19519 net.cpp:399] inception_3a/pool_proj -> inception_3a/pool_proj
I0403 16:47:19.562145 19519 net.cpp:141] Setting up inception_3a/pool_proj
I0403 16:47:19.562180 19519 net.cpp:148] Top shape: 24 32 28 28 (602112)
I0403 16:47:19.562198 19519 net.cpp:156] Memory required for data: 558760992
I0403 16:47:19.562229 19519 layer_factory.hpp:77] Creating layer inception_3a/relu_pool_proj
I0403 16:47:19.562254 19519 net.cpp:91] Creating Layer inception_3a/relu_pool_proj
I0403 16:47:19.562273 19519 net.cpp:425] inception_3a/relu_pool_proj <- inception_3a/pool_proj
I0403 16:47:19.562299 19519 net.cpp:386] inception_3a/relu_pool_proj -> inception_3a/pool_proj (in-place)
I0403 16:47:19.562635 19519 net.cpp:141] Setting up inception_3a/relu_pool_proj
I0403 16:47:19.562670 19519 net.cpp:148] Top shape: 24 32 28 28 (602112)
I0403 16:47:19.562690 19519 net.cpp:156] Memory required for data: 561169440
I0403 16:47:19.562708 19519 layer_factory.hpp:77] Creating layer inception_3a/output
I0403 16:47:19.562731 19519 net.cpp:91] Creating Layer inception_3a/output
I0403 16:47:19.562749 19519 net.cpp:425] inception_3a/output <- inception_3a/1x1
I0403 16:47:19.562770 19519 net.cpp:425] inception_3a/output <- inception_3a/3x3
I0403 16:47:19.562790 19519 net.cpp:425] inception_3a/output <- inception_3a/5x5
I0403 16:47:19.562810 19519 net.cpp:425] inception_3a/output <- inception_3a/pool_proj
I0403 16:47:19.562831 19519 net.cpp:399] inception_3a/output -> inception_3a/output
I0403 16:47:19.562891 19519 net.cpp:141] Setting up inception_3a/output
I0403 16:47:19.562918 19519 net.cpp:148] Top shape: 24 256 28 28 (4816896)
I0403 16:47:19.562937 19519 net.cpp:156] Memory required for data: 580437024
I0403 16:47:19.562953 19519 layer_factory.hpp:77] Creating layer inception_3a/output_inception_3a/output_0_split
I0403 16:47:19.562976 19519 net.cpp:91] Creating Layer inception_3a/output_inception_3a/output_0_split
I0403 16:47:19.562996 19519 net.cpp:425] inception_3a/output_inception_3a/output_0_split <- inception_3a/output
I0403 16:47:19.563017 19519 net.cpp:399] inception_3a/output_inception_3a/output_0_split -> inception_3a/output_inception_3a/output_0_split_0
I0403 16:47:19.563041 19519 net.cpp:399] inception_3a/output_inception_3a/output_0_split -> inception_3a/output_inception_3a/output_0_split_1
I0403 16:47:19.563072 19519 net.cpp:399] inception_3a/output_inception_3a/output_0_split -> inception_3a/output_inception_3a/output_0_split_2
I0403 16:47:19.563099 19519 net.cpp:399] inception_3a/output_inception_3a/output_0_split -> inception_3a/output_inception_3a/output_0_split_3
I0403 16:47:19.563192 19519 net.cpp:141] Setting up inception_3a/output_inception_3a/output_0_split
I0403 16:47:19.563221 19519 net.cpp:148] Top shape: 24 256 28 28 (4816896)
I0403 16:47:19.563242 19519 net.cpp:148] Top shape: 24 256 28 28 (4816896)
I0403 16:47:19.563262 19519 net.cpp:148] Top shape: 24 256 28 28 (4816896)
I0403 16:47:19.563282 19519 net.cpp:148] Top shape: 24 256 28 28 (4816896)
I0403 16:47:19.563298 19519 net.cpp:156] Memory required for data: 657507360
I0403 16:47:19.563314 19519 layer_factory.hpp:77] Creating layer inception_3b/1x1
I0403 16:47:19.563344 19519 net.cpp:91] Creating Layer inception_3b/1x1
I0403 16:47:19.563365 19519 net.cpp:425] inception_3b/1x1 <- inception_3a/output_inception_3a/output_0_split_0
I0403 16:47:19.563390 19519 net.cpp:399] inception_3b/1x1 -> inception_3b/1x1
I0403 16:47:19.564775 19519 net.cpp:141] Setting up inception_3b/1x1
I0403 16:47:19.564824 19519 net.cpp:148] Top shape: 24 128 28 28 (2408448)
I0403 16:47:19.564844 19519 net.cpp:156] Memory required for data: 667141152
I0403 16:47:19.564867 19519 layer_factory.hpp:77] Creating layer inception_3b/relu_1x1
I0403 16:47:19.564893 19519 net.cpp:91] Creating Layer inception_3b/relu_1x1
I0403 16:47:19.564914 19519 net.cpp:425] inception_3b/relu_1x1 <- inception_3b/1x1
I0403 16:47:19.564936 19519 net.cpp:386] inception_3b/relu_1x1 -> inception_3b/1x1 (in-place)
I0403 16:47:19.565148 19519 net.cpp:141] Setting up inception_3b/relu_1x1
I0403 16:47:19.565182 19519 net.cpp:148] Top shape: 24 128 28 28 (2408448)
I0403 16:47:19.565201 19519 net.cpp:156] Memory required for data: 676774944
I0403 16:47:19.565219 19519 layer_factory.hpp:77] Creating layer inception_3b/3x3_reduce
I0403 16:47:19.565246 19519 net.cpp:91] Creating Layer inception_3b/3x3_reduce
I0403 16:47:19.565268 19519 net.cpp:425] inception_3b/3x3_reduce <- inception_3a/output_inception_3a/output_0_split_1
I0403 16:47:19.565291 19519 net.cpp:399] inception_3b/3x3_reduce -> inception_3b/3x3_reduce
I0403 16:47:19.566689 19519 net.cpp:141] Setting up inception_3b/3x3_reduce
I0403 16:47:19.566725 19519 net.cpp:148] Top shape: 24 128 28 28 (2408448)
I0403 16:47:19.566743 19519 net.cpp:156] Memory required for data: 686408736
I0403 16:47:19.566766 19519 layer_factory.hpp:77] Creating layer inception_3b/relu_3x3_reduce
I0403 16:47:19.566792 19519 net.cpp:91] Creating Layer inception_3b/relu_3x3_reduce
I0403 16:47:19.566812 19519 net.cpp:425] inception_3b/relu_3x3_reduce <- inception_3b/3x3_reduce
I0403 16:47:19.566833 19519 net.cpp:386] inception_3b/relu_3x3_reduce -> inception_3b/3x3_reduce (in-place)
I0403 16:47:19.567050 19519 net.cpp:141] Setting up inception_3b/relu_3x3_reduce
I0403 16:47:19.567085 19519 net.cpp:148] Top shape: 24 128 28 28 (2408448)
I0403 16:47:19.567104 19519 net.cpp:156] Memory required for data: 696042528
I0403 16:47:19.567122 19519 layer_factory.hpp:77] Creating layer inception_3b/3x3
I0403 16:47:19.567153 19519 net.cpp:91] Creating Layer inception_3b/3x3
I0403 16:47:19.567175 19519 net.cpp:425] inception_3b/3x3 <- inception_3b/3x3_reduce
I0403 16:47:19.567201 19519 net.cpp:399] inception_3b/3x3 -> inception_3b/3x3
I0403 16:47:19.570715 19519 net.cpp:141] Setting up inception_3b/3x3
I0403 16:47:19.570755 19519 net.cpp:148] Top shape: 24 192 28 28 (3612672)
I0403 16:47:19.570776 19519 net.cpp:156] Memory required for data: 710493216
I0403 16:47:19.570801 19519 layer_factory.hpp:77] Creating layer inception_3b/relu_3x3
I0403 16:47:19.570822 19519 net.cpp:91] Creating Layer inception_3b/relu_3x3
I0403 16:47:19.570842 19519 net.cpp:425] inception_3b/relu_3x3 <- inception_3b/3x3
I0403 16:47:19.570863 19519 net.cpp:386] inception_3b/relu_3x3 -> inception_3b/3x3 (in-place)
I0403 16:47:19.571190 19519 net.cpp:141] Setting up inception_3b/relu_3x3
I0403 16:47:19.571225 19519 net.cpp:148] Top shape: 24 192 28 28 (3612672)
I0403 16:47:19.571246 19519 net.cpp:156] Memory required for data: 724943904
I0403 16:47:19.571264 19519 layer_factory.hpp:77] Creating layer inception_3b/5x5_reduce
I0403 16:47:19.571295 19519 net.cpp:91] Creating Layer inception_3b/5x5_reduce
I0403 16:47:19.571316 19519 net.cpp:425] inception_3b/5x5_reduce <- inception_3a/output_inception_3a/output_0_split_2
I0403 16:47:19.571341 19519 net.cpp:399] inception_3b/5x5_reduce -> inception_3b/5x5_reduce
I0403 16:47:19.572530 19519 net.cpp:141] Setting up inception_3b/5x5_reduce
I0403 16:47:19.572567 19519 net.cpp:148] Top shape: 24 32 28 28 (602112)
I0403 16:47:19.572587 19519 net.cpp:156] Memory required for data: 727352352
I0403 16:47:19.572615 19519 layer_factory.hpp:77] Creating layer inception_3b/relu_5x5_reduce
I0403 16:47:19.572639 19519 net.cpp:91] Creating Layer inception_3b/relu_5x5_reduce
I0403 16:47:19.572659 19519 net.cpp:425] inception_3b/relu_5x5_reduce <- inception_3b/5x5_reduce
I0403 16:47:19.572679 19519 net.cpp:386] inception_3b/relu_5x5_reduce -> inception_3b/5x5_reduce (in-place)
I0403 16:47:19.572896 19519 net.cpp:141] Setting up inception_3b/relu_5x5_reduce
I0403 16:47:19.572940 19519 net.cpp:148] Top shape: 24 32 28 28 (602112)
I0403 16:47:19.572960 19519 net.cpp:156] Memory required for data: 729760800
I0403 16:47:19.572979 19519 layer_factory.hpp:77] Creating layer inception_3b/5x5
I0403 16:47:19.573007 19519 net.cpp:91] Creating Layer inception_3b/5x5
I0403 16:47:19.573029 19519 net.cpp:425] inception_3b/5x5 <- inception_3b/5x5_reduce
I0403 16:47:19.573056 19519 net.cpp:399] inception_3b/5x5 -> inception_3b/5x5
I0403 16:47:19.575407 19519 net.cpp:141] Setting up inception_3b/5x5
I0403 16:47:19.575444 19519 net.cpp:148] Top shape: 24 96 28 28 (1806336)
I0403 16:47:19.575464 19519 net.cpp:156] Memory required for data: 736986144
I0403 16:47:19.575487 19519 layer_factory.hpp:77] Creating layer inception_3b/relu_5x5
I0403 16:47:19.575513 19519 net.cpp:91] Creating Layer inception_3b/relu_5x5
I0403 16:47:19.575534 19519 net.cpp:425] inception_3b/relu_5x5 <- inception_3b/5x5
I0403 16:47:19.575556 19519 net.cpp:386] inception_3b/relu_5x5 -> inception_3b/5x5 (in-place)
I0403 16:47:19.575809 19519 net.cpp:141] Setting up inception_3b/relu_5x5
I0403 16:47:19.575840 19519 net.cpp:148] Top shape: 24 96 28 28 (1806336)
I0403 16:47:19.575860 19519 net.cpp:156] Memory required for data: 744211488
I0403 16:47:19.575877 19519 layer_factory.hpp:77] Creating layer inception_3b/pool
I0403 16:47:19.575901 19519 net.cpp:91] Creating Layer inception_3b/pool
I0403 16:47:19.575920 19519 net.cpp:425] inception_3b/pool <- inception_3a/output_inception_3a/output_0_split_3
I0403 16:47:19.575942 19519 net.cpp:399] inception_3b/pool -> inception_3b/pool
I0403 16:47:19.576010 19519 net.cpp:141] Setting up inception_3b/pool
I0403 16:47:19.576040 19519 net.cpp:148] Top shape: 24 256 28 28 (4816896)
I0403 16:47:19.576058 19519 net.cpp:156] Memory required for data: 763479072
I0403 16:47:19.576076 19519 layer_factory.hpp:77] Creating layer inception_3b/pool_proj
I0403 16:47:19.576104 19519 net.cpp:91] Creating Layer inception_3b/pool_proj
I0403 16:47:19.576124 19519 net.cpp:425] inception_3b/pool_proj <- inception_3b/pool
I0403 16:47:19.576151 19519 net.cpp:399] inception_3b/pool_proj -> inception_3b/pool_proj
I0403 16:47:19.577424 19519 net.cpp:141] Setting up inception_3b/pool_proj
I0403 16:47:19.577457 19519 net.cpp:148] Top shape: 24 64 28 28 (1204224)
I0403 16:47:19.577476 19519 net.cpp:156] Memory required for data: 768295968
I0403 16:47:19.577499 19519 layer_factory.hpp:77] Creating layer inception_3b/relu_pool_proj
I0403 16:47:19.577523 19519 net.cpp:91] Creating Layer inception_3b/relu_pool_proj
I0403 16:47:19.577548 19519 net.cpp:425] inception_3b/relu_pool_proj <- inception_3b/pool_proj
I0403 16:47:19.577569 19519 net.cpp:386] inception_3b/relu_pool_proj -> inception_3b/pool_proj (in-place)
I0403 16:47:19.578035 19519 net.cpp:141] Setting up inception_3b/relu_pool_proj
I0403 16:47:19.578068 19519 net.cpp:148] Top shape: 24 64 28 28 (1204224)
I0403 16:47:19.578086 19519 net.cpp:156] Memory required for data: 773112864
I0403 16:47:19.578105 19519 layer_factory.hpp:77] Creating layer inception_3b/output
I0403 16:47:19.578126 19519 net.cpp:91] Creating Layer inception_3b/output
I0403 16:47:19.578145 19519 net.cpp:425] inception_3b/output <- inception_3b/1x1
I0403 16:47:19.578166 19519 net.cpp:425] inception_3b/output <- inception_3b/3x3
I0403 16:47:19.578186 19519 net.cpp:425] inception_3b/output <- inception_3b/5x5
I0403 16:47:19.578205 19519 net.cpp:425] inception_3b/output <- inception_3b/pool_proj
I0403 16:47:19.578228 19519 net.cpp:399] inception_3b/output -> inception_3b/output
I0403 16:47:19.578281 19519 net.cpp:141] Setting up inception_3b/output
I0403 16:47:19.578313 19519 net.cpp:148] Top shape: 24 480 28 28 (9031680)
I0403 16:47:19.578332 19519 net.cpp:156] Memory required for data: 809239584
I0403 16:47:19.578351 19519 layer_factory.hpp:77] Creating layer pool3/3x3_s2
I0403 16:47:19.578372 19519 net.cpp:91] Creating Layer pool3/3x3_s2
I0403 16:47:19.578392 19519 net.cpp:425] pool3/3x3_s2 <- inception_3b/output
I0403 16:47:19.578413 19519 net.cpp:399] pool3/3x3_s2 -> pool3/3x3_s2
I0403 16:47:19.578503 19519 net.cpp:141] Setting up pool3/3x3_s2
I0403 16:47:19.578531 19519 net.cpp:148] Top shape: 24 480 14 14 (2257920)
I0403 16:47:19.578550 19519 net.cpp:156] Memory required for data: 818271264
I0403 16:47:19.578567 19519 layer_factory.hpp:77] Creating layer pool3/3x3_s2_pool3/3x3_s2_0_split
I0403 16:47:19.578589 19519 net.cpp:91] Creating Layer pool3/3x3_s2_pool3/3x3_s2_0_split
I0403 16:47:19.578613 19519 net.cpp:425] pool3/3x3_s2_pool3/3x3_s2_0_split <- pool3/3x3_s2
I0403 16:47:19.578641 19519 net.cpp:399] pool3/3x3_s2_pool3/3x3_s2_0_split -> pool3/3x3_s2_pool3/3x3_s2_0_split_0
I0403 16:47:19.578667 19519 net.cpp:399] pool3/3x3_s2_pool3/3x3_s2_0_split -> pool3/3x3_s2_pool3/3x3_s2_0_split_1
I0403 16:47:19.578691 19519 net.cpp:399] pool3/3x3_s2_pool3/3x3_s2_0_split -> pool3/3x3_s2_pool3/3x3_s2_0_split_2
I0403 16:47:19.578716 19519 net.cpp:399] pool3/3x3_s2_pool3/3x3_s2_0_split -> pool3/3x3_s2_pool3/3x3_s2_0_split_3
I0403 16:47:19.578814 19519 net.cpp:141] Setting up pool3/3x3_s2_pool3/3x3_s2_0_split
I0403 16:47:19.578845 19519 net.cpp:148] Top shape: 24 480 14 14 (2257920)
I0403 16:47:19.578865 19519 net.cpp:148] Top shape: 24 480 14 14 (2257920)
I0403 16:47:19.578882 19519 net.cpp:148] Top shape: 24 480 14 14 (2257920)
I0403 16:47:19.578902 19519 net.cpp:148] Top shape: 24 480 14 14 (2257920)
I0403 16:47:19.578918 19519 net.cpp:156] Memory required for data: 854397984
I0403 16:47:19.578936 19519 layer_factory.hpp:77] Creating layer inception_4a/1x1
I0403 16:47:19.578963 19519 net.cpp:91] Creating Layer inception_4a/1x1
I0403 16:47:19.578984 19519 net.cpp:425] inception_4a/1x1 <- pool3/3x3_s2_pool3/3x3_s2_0_split_0
I0403 16:47:19.579010 19519 net.cpp:399] inception_4a/1x1 -> inception_4a/1x1
I0403 16:47:19.580924 19519 net.cpp:141] Setting up inception_4a/1x1
I0403 16:47:19.580958 19519 net.cpp:148] Top shape: 24 192 14 14 (903168)
I0403 16:47:19.580978 19519 net.cpp:156] Memory required for data: 858010656
I0403 16:47:19.581001 19519 layer_factory.hpp:77] Creating layer inception_4a/relu_1x1
I0403 16:47:19.581027 19519 net.cpp:91] Creating Layer inception_4a/relu_1x1
I0403 16:47:19.581046 19519 net.cpp:425] inception_4a/relu_1x1 <- inception_4a/1x1
I0403 16:47:19.581068 19519 net.cpp:386] inception_4a/relu_1x1 -> inception_4a/1x1 (in-place)
I0403 16:47:19.581280 19519 net.cpp:141] Setting up inception_4a/relu_1x1
I0403 16:47:19.581311 19519 net.cpp:148] Top shape: 24 192 14 14 (903168)
I0403 16:47:19.581329 19519 net.cpp:156] Memory required for data: 861623328
I0403 16:47:19.581347 19519 layer_factory.hpp:77] Creating layer inception_4a/3x3_reduce
I0403 16:47:19.581377 19519 net.cpp:91] Creating Layer inception_4a/3x3_reduce
I0403 16:47:19.581398 19519 net.cpp:425] inception_4a/3x3_reduce <- pool3/3x3_s2_pool3/3x3_s2_0_split_1
I0403 16:47:19.581423 19519 net.cpp:399] inception_4a/3x3_reduce -> inception_4a/3x3_reduce
I0403 16:47:19.582981 19519 net.cpp:141] Setting up inception_4a/3x3_reduce
I0403 16:47:19.583015 19519 net.cpp:148] Top shape: 24 96 14 14 (451584)
I0403 16:47:19.583035 19519 net.cpp:156] Memory required for data: 863429664
I0403 16:47:19.583065 19519 layer_factory.hpp:77] Creating layer inception_4a/relu_3x3_reduce
I0403 16:47:19.583091 19519 net.cpp:91] Creating Layer inception_4a/relu_3x3_reduce
I0403 16:47:19.583111 19519 net.cpp:425] inception_4a/relu_3x3_reduce <- inception_4a/3x3_reduce
I0403 16:47:19.583134 19519 net.cpp:386] inception_4a/relu_3x3_reduce -> inception_4a/3x3_reduce (in-place)
I0403 16:47:19.583351 19519 net.cpp:141] Setting up inception_4a/relu_3x3_reduce
I0403 16:47:19.583384 19519 net.cpp:148] Top shape: 24 96 14 14 (451584)
I0403 16:47:19.583401 19519 net.cpp:156] Memory required for data: 865236000
I0403 16:47:19.583420 19519 layer_factory.hpp:77] Creating layer inception_4a/3x3
I0403 16:47:19.583447 19519 net.cpp:91] Creating Layer inception_4a/3x3
I0403 16:47:19.583468 19519 net.cpp:425] inception_4a/3x3 <- inception_4a/3x3_reduce
I0403 16:47:19.583494 19519 net.cpp:399] inception_4a/3x3 -> inception_4a/3x3
I0403 16:47:19.586735 19519 net.cpp:141] Setting up inception_4a/3x3
I0403 16:47:19.586771 19519 net.cpp:148] Top shape: 24 208 14 14 (978432)
I0403 16:47:19.586791 19519 net.cpp:156] Memory required for data: 869149728
I0403 16:47:19.586813 19519 layer_factory.hpp:77] Creating layer inception_4a/relu_3x3
I0403 16:47:19.586838 19519 net.cpp:91] Creating Layer inception_4a/relu_3x3
I0403 16:47:19.586859 19519 net.cpp:425] inception_4a/relu_3x3 <- inception_4a/3x3
I0403 16:47:19.586880 19519 net.cpp:386] inception_4a/relu_3x3 -> inception_4a/3x3 (in-place)
I0403 16:47:19.587215 19519 net.cpp:141] Setting up inception_4a/relu_3x3
I0403 16:47:19.587249 19519 net.cpp:148] Top shape: 24 208 14 14 (978432)
I0403 16:47:19.587267 19519 net.cpp:156] Memory required for data: 873063456
I0403 16:47:19.587286 19519 layer_factory.hpp:77] Creating layer inception_4a/5x5_reduce
I0403 16:47:19.587314 19519 net.cpp:91] Creating Layer inception_4a/5x5_reduce
I0403 16:47:19.587335 19519 net.cpp:425] inception_4a/5x5_reduce <- pool3/3x3_s2_pool3/3x3_s2_0_split_2
I0403 16:47:19.587363 19519 net.cpp:399] inception_4a/5x5_reduce -> inception_4a/5x5_reduce
I0403 16:47:19.588611 19519 net.cpp:141] Setting up inception_4a/5x5_reduce
I0403 16:47:19.588654 19519 net.cpp:148] Top shape: 24 16 14 14 (75264)
I0403 16:47:19.588675 19519 net.cpp:156] Memory required for data: 873364512
I0403 16:47:19.588696 19519 layer_factory.hpp:77] Creating layer inception_4a/relu_5x5_reduce
I0403 16:47:19.588719 19519 net.cpp:91] Creating Layer inception_4a/relu_5x5_reduce
I0403 16:47:19.588739 19519 net.cpp:425] inception_4a/relu_5x5_reduce <- inception_4a/5x5_reduce
I0403 16:47:19.588760 19519 net.cpp:386] inception_4a/relu_5x5_reduce -> inception_4a/5x5_reduce (in-place)
I0403 16:47:19.588985 19519 net.cpp:141] Setting up inception_4a/relu_5x5_reduce
I0403 16:47:19.589020 19519 net.cpp:148] Top shape: 24 16 14 14 (75264)
I0403 16:47:19.589038 19519 net.cpp:156] Memory required for data: 873665568
I0403 16:47:19.589057 19519 layer_factory.hpp:77] Creating layer inception_4a/5x5
I0403 16:47:19.589084 19519 net.cpp:91] Creating Layer inception_4a/5x5
I0403 16:47:19.589107 19519 net.cpp:425] inception_4a/5x5 <- inception_4a/5x5_reduce
I0403 16:47:19.589133 19519 net.cpp:399] inception_4a/5x5 -> inception_4a/5x5
I0403 16:47:19.590445 19519 net.cpp:141] Setting up inception_4a/5x5
I0403 16:47:19.590479 19519 net.cpp:148] Top shape: 24 48 14 14 (225792)
I0403 16:47:19.590498 19519 net.cpp:156] Memory required for data: 874568736
I0403 16:47:19.590522 19519 layer_factory.hpp:77] Creating layer inception_4a/relu_5x5
I0403 16:47:19.590544 19519 net.cpp:91] Creating Layer inception_4a/relu_5x5
I0403 16:47:19.590564 19519 net.cpp:425] inception_4a/relu_5x5 <- inception_4a/5x5
I0403 16:47:19.590587 19519 net.cpp:386] inception_4a/relu_5x5 -> inception_4a/5x5 (in-place)
I0403 16:47:19.590811 19519 net.cpp:141] Setting up inception_4a/relu_5x5
I0403 16:47:19.590842 19519 net.cpp:148] Top shape: 24 48 14 14 (225792)
I0403 16:47:19.590862 19519 net.cpp:156] Memory required for data: 875471904
I0403 16:47:19.590879 19519 layer_factory.hpp:77] Creating layer inception_4a/pool
I0403 16:47:19.590904 19519 net.cpp:91] Creating Layer inception_4a/pool
I0403 16:47:19.590924 19519 net.cpp:425] inception_4a/pool <- pool3/3x3_s2_pool3/3x3_s2_0_split_3
I0403 16:47:19.590946 19519 net.cpp:399] inception_4a/pool -> inception_4a/pool
I0403 16:47:19.591022 19519 net.cpp:141] Setting up inception_4a/pool
I0403 16:47:19.591049 19519 net.cpp:148] Top shape: 24 480 14 14 (2257920)
I0403 16:47:19.591068 19519 net.cpp:156] Memory required for data: 884503584
I0403 16:47:19.591085 19519 layer_factory.hpp:77] Creating layer inception_4a/pool_proj
I0403 16:47:19.591112 19519 net.cpp:91] Creating Layer inception_4a/pool_proj
I0403 16:47:19.591132 19519 net.cpp:425] inception_4a/pool_proj <- inception_4a/pool
I0403 16:47:19.591158 19519 net.cpp:399] inception_4a/pool_proj -> inception_4a/pool_proj
I0403 16:47:19.592573 19519 net.cpp:141] Setting up inception_4a/pool_proj
I0403 16:47:19.592612 19519 net.cpp:148] Top shape: 24 64 14 14 (301056)
I0403 16:47:19.592653 19519 net.cpp:156] Memory required for data: 885707808
I0403 16:47:19.592677 19519 layer_factory.hpp:77] Creating layer inception_4a/relu_pool_proj
I0403 16:47:19.592700 19519 net.cpp:91] Creating Layer inception_4a/relu_pool_proj
I0403 16:47:19.592720 19519 net.cpp:425] inception_4a/relu_pool_proj <- inception_4a/pool_proj
I0403 16:47:19.592744 19519 net.cpp:386] inception_4a/relu_pool_proj -> inception_4a/pool_proj (in-place)
I0403 16:47:19.593091 19519 net.cpp:141] Setting up inception_4a/relu_pool_proj
I0403 16:47:19.593123 19519 net.cpp:148] Top shape: 24 64 14 14 (301056)
I0403 16:47:19.593143 19519 net.cpp:156] Memory required for data: 886912032
I0403 16:47:19.593161 19519 layer_factory.hpp:77] Creating layer inception_4a/output
I0403 16:47:19.593183 19519 net.cpp:91] Creating Layer inception_4a/output
I0403 16:47:19.593201 19519 net.cpp:425] inception_4a/output <- inception_4a/1x1
I0403 16:47:19.593221 19519 net.cpp:425] inception_4a/output <- inception_4a/3x3
I0403 16:47:19.593241 19519 net.cpp:425] inception_4a/output <- inception_4a/5x5
I0403 16:47:19.593261 19519 net.cpp:425] inception_4a/output <- inception_4a/pool_proj
I0403 16:47:19.593286 19519 net.cpp:399] inception_4a/output -> inception_4a/output
I0403 16:47:19.593339 19519 net.cpp:141] Setting up inception_4a/output
I0403 16:47:19.593370 19519 net.cpp:148] Top shape: 24 512 14 14 (2408448)
I0403 16:47:19.593390 19519 net.cpp:156] Memory required for data: 896545824
I0403 16:47:19.593408 19519 layer_factory.hpp:77] Creating layer inception_4a/output_inception_4a/output_0_split
I0403 16:47:19.593430 19519 net.cpp:91] Creating Layer inception_4a/output_inception_4a/output_0_split
I0403 16:47:19.593448 19519 net.cpp:425] inception_4a/output_inception_4a/output_0_split <- inception_4a/output
I0403 16:47:19.593472 19519 net.cpp:399] inception_4a/output_inception_4a/output_0_split -> inception_4a/output_inception_4a/output_0_split_0
I0403 16:47:19.593498 19519 net.cpp:399] inception_4a/output_inception_4a/output_0_split -> inception_4a/output_inception_4a/output_0_split_1
I0403 16:47:19.593523 19519 net.cpp:399] inception_4a/output_inception_4a/output_0_split -> inception_4a/output_inception_4a/output_0_split_2
I0403 16:47:19.593550 19519 net.cpp:399] inception_4a/output_inception_4a/output_0_split -> inception_4a/output_inception_4a/output_0_split_3
I0403 16:47:19.593575 19519 net.cpp:399] inception_4a/output_inception_4a/output_0_split -> inception_4a/output_inception_4a/output_0_split_4
I0403 16:47:19.593694 19519 net.cpp:141] Setting up inception_4a/output_inception_4a/output_0_split
I0403 16:47:19.593726 19519 net.cpp:148] Top shape: 24 512 14 14 (2408448)
I0403 16:47:19.593747 19519 net.cpp:148] Top shape: 24 512 14 14 (2408448)
I0403 16:47:19.593770 19519 net.cpp:148] Top shape: 24 512 14 14 (2408448)
I0403 16:47:19.593788 19519 net.cpp:148] Top shape: 24 512 14 14 (2408448)
I0403 16:47:19.593807 19519 net.cpp:148] Top shape: 24 512 14 14 (2408448)
I0403 16:47:19.593825 19519 net.cpp:156] Memory required for data: 944714784
I0403 16:47:19.593843 19519 layer_factory.hpp:77] Creating layer loss1/ave_pool
I0403 16:47:19.593864 19519 net.cpp:91] Creating Layer loss1/ave_pool
I0403 16:47:19.593883 19519 net.cpp:425] loss1/ave_pool <- inception_4a/output_inception_4a/output_0_split_0
I0403 16:47:19.593904 19519 net.cpp:399] loss1/ave_pool -> loss1/ave_pool
I0403 16:47:19.594161 19519 net.cpp:141] Setting up loss1/ave_pool
I0403 16:47:19.594192 19519 net.cpp:148] Top shape: 24 512 4 4 (196608)
I0403 16:47:19.594210 19519 net.cpp:156] Memory required for data: 945501216
I0403 16:47:19.594228 19519 layer_factory.hpp:77] Creating layer loss1/conv
I0403 16:47:19.594255 19519 net.cpp:91] Creating Layer loss1/conv
I0403 16:47:19.594277 19519 net.cpp:425] loss1/conv <- loss1/ave_pool
I0403 16:47:19.594303 19519 net.cpp:399] loss1/conv -> loss1/conv
I0403 16:47:19.596042 19519 net.cpp:141] Setting up loss1/conv
I0403 16:47:19.596077 19519 net.cpp:148] Top shape: 24 128 4 4 (49152)
I0403 16:47:19.596098 19519 net.cpp:156] Memory required for data: 945697824
I0403 16:47:19.596139 19519 layer_factory.hpp:77] Creating layer loss1/relu_conv
I0403 16:47:19.596168 19519 net.cpp:91] Creating Layer loss1/relu_conv
I0403 16:47:19.596189 19519 net.cpp:425] loss1/relu_conv <- loss1/conv
I0403 16:47:19.596210 19519 net.cpp:386] loss1/relu_conv -> loss1/conv (in-place)
I0403 16:47:19.596562 19519 net.cpp:141] Setting up loss1/relu_conv
I0403 16:47:19.596596 19519 net.cpp:148] Top shape: 24 128 4 4 (49152)
I0403 16:47:19.596621 19519 net.cpp:156] Memory required for data: 945894432
I0403 16:47:19.596639 19519 layer_factory.hpp:77] Creating layer loss1/fc
I0403 16:47:19.596670 19519 net.cpp:91] Creating Layer loss1/fc
I0403 16:47:19.596693 19519 net.cpp:425] loss1/fc <- loss1/conv
I0403 16:47:19.596719 19519 net.cpp:399] loss1/fc -> loss1/fc
I0403 16:47:19.618542 19519 net.cpp:141] Setting up loss1/fc
I0403 16:47:19.618582 19519 net.cpp:148] Top shape: 24 1024 (24576)
I0403 16:47:19.618607 19519 net.cpp:156] Memory required for data: 945992736
I0403 16:47:19.618629 19519 layer_factory.hpp:77] Creating layer loss1/relu_fc
I0403 16:47:19.618654 19519 net.cpp:91] Creating Layer loss1/relu_fc
I0403 16:47:19.618679 19519 net.cpp:425] loss1/relu_fc <- loss1/fc
I0403 16:47:19.618700 19519 net.cpp:386] loss1/relu_fc -> loss1/fc (in-place)
I0403 16:47:19.618932 19519 net.cpp:141] Setting up loss1/relu_fc
I0403 16:47:19.618963 19519 net.cpp:148] Top shape: 24 1024 (24576)
I0403 16:47:19.618981 19519 net.cpp:156] Memory required for data: 946091040
I0403 16:47:19.618999 19519 layer_factory.hpp:77] Creating layer loss1/drop_fc
I0403 16:47:19.619032 19519 net.cpp:91] Creating Layer loss1/drop_fc
I0403 16:47:19.619055 19519 net.cpp:425] loss1/drop_fc <- loss1/fc
I0403 16:47:19.619076 19519 net.cpp:386] loss1/drop_fc -> loss1/fc (in-place)
I0403 16:47:19.619138 19519 net.cpp:141] Setting up loss1/drop_fc
I0403 16:47:19.619169 19519 net.cpp:148] Top shape: 24 1024 (24576)
I0403 16:47:19.619189 19519 net.cpp:156] Memory required for data: 946189344
I0403 16:47:19.619207 19519 layer_factory.hpp:77] Creating layer loss1/classifier_plantvillage
I0403 16:47:19.619230 19519 net.cpp:91] Creating Layer loss1/classifier_plantvillage
I0403 16:47:19.619251 19519 net.cpp:425] loss1/classifier_plantvillage <- loss1/fc
I0403 16:47:19.619278 19519 net.cpp:399] loss1/classifier_plantvillage -> loss1/classifier_plantvillage
I0403 16:47:19.620367 19519 net.cpp:141] Setting up loss1/classifier_plantvillage
I0403 16:47:19.620400 19519 net.cpp:148] Top shape: 24 38 (912)
I0403 16:47:19.620420 19519 net.cpp:156] Memory required for data: 946192992
I0403 16:47:19.620442 19519 layer_factory.hpp:77] Creating layer loss1/classifier_plantvillage_loss1/classifier_plantvillage_0_split
I0403 16:47:19.620470 19519 net.cpp:91] Creating Layer loss1/classifier_plantvillage_loss1/classifier_plantvillage_0_split
I0403 16:47:19.620491 19519 net.cpp:425] loss1/classifier_plantvillage_loss1/classifier_plantvillage_0_split <- loss1/classifier_plantvillage
I0403 16:47:19.620512 19519 net.cpp:399] loss1/classifier_plantvillage_loss1/classifier_plantvillage_0_split -> loss1/classifier_plantvillage_loss1/classifier_plantvillage_0_split_0
I0403 16:47:19.620537 19519 net.cpp:399] loss1/classifier_plantvillage_loss1/classifier_plantvillage_0_split -> loss1/classifier_plantvillage_loss1/classifier_plantvillage_0_split_1
I0403 16:47:19.620561 19519 net.cpp:399] loss1/classifier_plantvillage_loss1/classifier_plantvillage_0_split -> loss1/classifier_plantvillage_loss1/classifier_plantvillage_0_split_2
I0403 16:47:19.620651 19519 net.cpp:141] Setting up loss1/classifier_plantvillage_loss1/classifier_plantvillage_0_split
I0403 16:47:19.620679 19519 net.cpp:148] Top shape: 24 38 (912)
I0403 16:47:19.620699 19519 net.cpp:148] Top shape: 24 38 (912)
I0403 16:47:19.620719 19519 net.cpp:148] Top shape: 24 38 (912)
I0403 16:47:19.620735 19519 net.cpp:156] Memory required for data: 946203936
I0403 16:47:19.620754 19519 layer_factory.hpp:77] Creating layer inception_4b/1x1
I0403 16:47:19.620779 19519 net.cpp:91] Creating Layer inception_4b/1x1
I0403 16:47:19.620817 19519 net.cpp:425] inception_4b/1x1 <- inception_4a/output_inception_4a/output_0_split_1
I0403 16:47:19.620846 19519 net.cpp:399] inception_4b/1x1 -> inception_4b/1x1
I0403 16:47:19.622849 19519 net.cpp:141] Setting up inception_4b/1x1
I0403 16:47:19.622887 19519 net.cpp:148] Top shape: 24 160 14 14 (752640)
I0403 16:47:19.622910 19519 net.cpp:156] Memory required for data: 949214496
I0403 16:47:19.622932 19519 layer_factory.hpp:77] Creating layer inception_4b/relu_1x1
I0403 16:47:19.622956 19519 net.cpp:91] Creating Layer inception_4b/relu_1x1
I0403 16:47:19.622975 19519 net.cpp:425] inception_4b/relu_1x1 <- inception_4b/1x1
I0403 16:47:19.622997 19519 net.cpp:386] inception_4b/relu_1x1 -> inception_4b/1x1 (in-place)
I0403 16:47:19.623219 19519 net.cpp:141] Setting up inception_4b/relu_1x1
I0403 16:47:19.623252 19519 net.cpp:148] Top shape: 24 160 14 14 (752640)
I0403 16:47:19.623271 19519 net.cpp:156] Memory required for data: 952225056
I0403 16:47:19.623291 19519 layer_factory.hpp:77] Creating layer inception_4b/3x3_reduce
I0403 16:47:19.623317 19519 net.cpp:91] Creating Layer inception_4b/3x3_reduce
I0403 16:47:19.623339 19519 net.cpp:425] inception_4b/3x3_reduce <- inception_4a/output_inception_4a/output_0_split_2
I0403 16:47:19.623364 19519 net.cpp:399] inception_4b/3x3_reduce -> inception_4b/3x3_reduce
I0403 16:47:19.625028 19519 net.cpp:141] Setting up inception_4b/3x3_reduce
I0403 16:47:19.625066 19519 net.cpp:148] Top shape: 24 112 14 14 (526848)
I0403 16:47:19.625087 19519 net.cpp:156] Memory required for data: 954332448
I0403 16:47:19.625109 19519 layer_factory.hpp:77] Creating layer inception_4b/relu_3x3_reduce
I0403 16:47:19.625133 19519 net.cpp:91] Creating Layer inception_4b/relu_3x3_reduce
I0403 16:47:19.625152 19519 net.cpp:425] inception_4b/relu_3x3_reduce <- inception_4b/3x3_reduce
I0403 16:47:19.625175 19519 net.cpp:386] inception_4b/relu_3x3_reduce -> inception_4b/3x3_reduce (in-place)
I0403 16:47:19.625527 19519 net.cpp:141] Setting up inception_4b/relu_3x3_reduce
I0403 16:47:19.625562 19519 net.cpp:148] Top shape: 24 112 14 14 (526848)
I0403 16:47:19.625581 19519 net.cpp:156] Memory required for data: 956439840
I0403 16:47:19.625600 19519 layer_factory.hpp:77] Creating layer inception_4b/3x3
I0403 16:47:19.625644 19519 net.cpp:91] Creating Layer inception_4b/3x3
I0403 16:47:19.625668 19519 net.cpp:425] inception_4b/3x3 <- inception_4b/3x3_reduce
I0403 16:47:19.625691 19519 net.cpp:399] inception_4b/3x3 -> inception_4b/3x3
I0403 16:47:19.629310 19519 net.cpp:141] Setting up inception_4b/3x3
I0403 16:47:19.629348 19519 net.cpp:148] Top shape: 24 224 14 14 (1053696)
I0403 16:47:19.629369 19519 net.cpp:156] Memory required for data: 960654624
I0403 16:47:19.629391 19519 layer_factory.hpp:77] Creating layer inception_4b/relu_3x3
I0403 16:47:19.629417 19519 net.cpp:91] Creating Layer inception_4b/relu_3x3
I0403 16:47:19.629438 19519 net.cpp:425] inception_4b/relu_3x3 <- inception_4b/3x3
I0403 16:47:19.629461 19519 net.cpp:386] inception_4b/relu_3x3 -> inception_4b/3x3 (in-place)
I0403 16:47:19.629690 19519 net.cpp:141] Setting up inception_4b/relu_3x3
I0403 16:47:19.629721 19519 net.cpp:148] Top shape: 24 224 14 14 (1053696)
I0403 16:47:19.629740 19519 net.cpp:156] Memory required for data: 964869408
I0403 16:47:19.629760 19519 layer_factory.hpp:77] Creating layer inception_4b/5x5_reduce
I0403 16:47:19.629789 19519 net.cpp:91] Creating Layer inception_4b/5x5_reduce
I0403 16:47:19.629812 19519 net.cpp:425] inception_4b/5x5_reduce <- inception_4a/output_inception_4a/output_0_split_3
I0403 16:47:19.629835 19519 net.cpp:399] inception_4b/5x5_reduce -> inception_4b/5x5_reduce
I0403 16:47:19.631165 19519 net.cpp:141] Setting up inception_4b/5x5_reduce
I0403 16:47:19.631201 19519 net.cpp:148] Top shape: 24 24 14 14 (112896)
I0403 16:47:19.631222 19519 net.cpp:156] Memory required for data: 965320992
I0403 16:47:19.631244 19519 layer_factory.hpp:77] Creating layer inception_4b/relu_5x5_reduce
I0403 16:47:19.631266 19519 net.cpp:91] Creating Layer inception_4b/relu_5x5_reduce
I0403 16:47:19.631304 19519 net.cpp:425] inception_4b/relu_5x5_reduce <- inception_4b/5x5_reduce
I0403 16:47:19.631330 19519 net.cpp:386] inception_4b/relu_5x5_reduce -> inception_4b/5x5_reduce (in-place)
I0403 16:47:19.631564 19519 net.cpp:141] Setting up inception_4b/relu_5x5_reduce
I0403 16:47:19.631595 19519 net.cpp:148] Top shape: 24 24 14 14 (112896)
I0403 16:47:19.631621 19519 net.cpp:156] Memory required for data: 965772576
I0403 16:47:19.631639 19519 layer_factory.hpp:77] Creating layer inception_4b/5x5
I0403 16:47:19.631667 19519 net.cpp:91] Creating Layer inception_4b/5x5
I0403 16:47:19.631690 19519 net.cpp:425] inception_4b/5x5 <- inception_4b/5x5_reduce
I0403 16:47:19.631716 19519 net.cpp:399] inception_4b/5x5 -> inception_4b/5x5
I0403 16:47:19.633213 19519 net.cpp:141] Setting up inception_4b/5x5
I0403 16:47:19.633250 19519 net.cpp:148] Top shape: 24 64 14 14 (301056)
I0403 16:47:19.633271 19519 net.cpp:156] Memory required for data: 966976800
I0403 16:47:19.633294 19519 layer_factory.hpp:77] Creating layer inception_4b/relu_5x5
I0403 16:47:19.633317 19519 net.cpp:91] Creating Layer inception_4b/relu_5x5
I0403 16:47:19.633337 19519 net.cpp:425] inception_4b/relu_5x5 <- inception_4b/5x5
I0403 16:47:19.633359 19519 net.cpp:386] inception_4b/relu_5x5 -> inception_4b/5x5 (in-place)
I0403 16:47:19.633711 19519 net.cpp:141] Setting up inception_4b/relu_5x5
I0403 16:47:19.633747 19519 net.cpp:148] Top shape: 24 64 14 14 (301056)
I0403 16:47:19.633769 19519 net.cpp:156] Memory required for data: 968181024
I0403 16:47:19.633787 19519 layer_factory.hpp:77] Creating layer inception_4b/pool
I0403 16:47:19.633810 19519 net.cpp:91] Creating Layer inception_4b/pool
I0403 16:47:19.633829 19519 net.cpp:425] inception_4b/pool <- inception_4a/output_inception_4a/output_0_split_4
I0403 16:47:19.633852 19519 net.cpp:399] inception_4b/pool -> inception_4b/pool
I0403 16:47:19.633931 19519 net.cpp:141] Setting up inception_4b/pool
I0403 16:47:19.633960 19519 net.cpp:148] Top shape: 24 512 14 14 (2408448)
I0403 16:47:19.633978 19519 net.cpp:156] Memory required for data: 977814816
I0403 16:47:19.633996 19519 layer_factory.hpp:77] Creating layer inception_4b/pool_proj
I0403 16:47:19.634022 19519 net.cpp:91] Creating Layer inception_4b/pool_proj
I0403 16:47:19.634043 19519 net.cpp:425] inception_4b/pool_proj <- inception_4b/pool
I0403 16:47:19.634070 19519 net.cpp:399] inception_4b/pool_proj -> inception_4b/pool_proj
I0403 16:47:19.635545 19519 net.cpp:141] Setting up inception_4b/pool_proj
I0403 16:47:19.635584 19519 net.cpp:148] Top shape: 24 64 14 14 (301056)
I0403 16:47:19.635617 19519 net.cpp:156] Memory required for data: 979019040
I0403 16:47:19.635643 19519 layer_factory.hpp:77] Creating layer inception_4b/relu_pool_proj
I0403 16:47:19.635668 19519 net.cpp:91] Creating Layer inception_4b/relu_pool_proj
I0403 16:47:19.635687 19519 net.cpp:425] inception_4b/relu_pool_proj <- inception_4b/pool_proj
I0403 16:47:19.635709 19519 net.cpp:386] inception_4b/relu_pool_proj -> inception_4b/pool_proj (in-place)
I0403 16:47:19.635941 19519 net.cpp:141] Setting up inception_4b/relu_pool_proj
I0403 16:47:19.635972 19519 net.cpp:148] Top shape: 24 64 14 14 (301056)
I0403 16:47:19.635990 19519 net.cpp:156] Memory required for data: 980223264
I0403 16:47:19.636009 19519 layer_factory.hpp:77] Creating layer inception_4b/output
I0403 16:47:19.636030 19519 net.cpp:91] Creating Layer inception_4b/output
I0403 16:47:19.636050 19519 net.cpp:425] inception_4b/output <- inception_4b/1x1
I0403 16:47:19.636070 19519 net.cpp:425] inception_4b/output <- inception_4b/3x3
I0403 16:47:19.636090 19519 net.cpp:425] inception_4b/output <- inception_4b/5x5
I0403 16:47:19.636111 19519 net.cpp:425] inception_4b/output <- inception_4b/pool_proj
I0403 16:47:19.636133 19519 net.cpp:399] inception_4b/output -> inception_4b/output
I0403 16:47:19.636190 19519 net.cpp:141] Setting up inception_4b/output
I0403 16:47:19.636222 19519 net.cpp:148] Top shape: 24 512 14 14 (2408448)
I0403 16:47:19.636241 19519 net.cpp:156] Memory required for data: 989857056
I0403 16:47:19.636276 19519 layer_factory.hpp:77] Creating layer inception_4b/output_inception_4b/output_0_split
I0403 16:47:19.636299 19519 net.cpp:91] Creating Layer inception_4b/output_inception_4b/output_0_split
I0403 16:47:19.636319 19519 net.cpp:425] inception_4b/output_inception_4b/output_0_split <- inception_4b/output
I0403 16:47:19.636342 19519 net.cpp:399] inception_4b/output_inception_4b/output_0_split -> inception_4b/output_inception_4b/output_0_split_0
I0403 16:47:19.636370 19519 net.cpp:399] inception_4b/output_inception_4b/output_0_split -> inception_4b/output_inception_4b/output_0_split_1
I0403 16:47:19.636395 19519 net.cpp:399] inception_4b/output_inception_4b/output_0_split -> inception_4b/output_inception_4b/output_0_split_2
I0403 16:47:19.636420 19519 net.cpp:399] inception_4b/output_inception_4b/output_0_split -> inception_4b/output_inception_4b/output_0_split_3
I0403 16:47:19.636523 19519 net.cpp:141] Setting up inception_4b/output_inception_4b/output_0_split
I0403 16:47:19.636551 19519 net.cpp:148] Top shape: 24 512 14 14 (2408448)
I0403 16:47:19.636571 19519 net.cpp:148] Top shape: 24 512 14 14 (2408448)
I0403 16:47:19.636590 19519 net.cpp:148] Top shape: 24 512 14 14 (2408448)
I0403 16:47:19.636615 19519 net.cpp:148] Top shape: 24 512 14 14 (2408448)
I0403 16:47:19.636634 19519 net.cpp:156] Memory required for data: 1028392224
I0403 16:47:19.636652 19519 layer_factory.hpp:77] Creating layer inception_4c/1x1
I0403 16:47:19.636679 19519 net.cpp:91] Creating Layer inception_4c/1x1
I0403 16:47:19.636701 19519 net.cpp:425] inception_4c/1x1 <- inception_4b/output_inception_4b/output_0_split_0
I0403 16:47:19.636726 19519 net.cpp:399] inception_4c/1x1 -> inception_4c/1x1
I0403 16:47:19.638479 19519 net.cpp:141] Setting up inception_4c/1x1
I0403 16:47:19.638514 19519 net.cpp:148] Top shape: 24 128 14 14 (602112)
I0403 16:47:19.638535 19519 net.cpp:156] Memory required for data: 1030800672
I0403 16:47:19.638556 19519 layer_factory.hpp:77] Creating layer inception_4c/relu_1x1
I0403 16:47:19.638582 19519 net.cpp:91] Creating Layer inception_4c/relu_1x1
I0403 16:47:19.638608 19519 net.cpp:425] inception_4c/relu_1x1 <- inception_4c/1x1
I0403 16:47:19.638631 19519 net.cpp:386] inception_4c/relu_1x1 -> inception_4c/1x1 (in-place)
I0403 16:47:19.638855 19519 net.cpp:141] Setting up inception_4c/relu_1x1
I0403 16:47:19.638886 19519 net.cpp:148] Top shape: 24 128 14 14 (602112)
I0403 16:47:19.638905 19519 net.cpp:156] Memory required for data: 1033209120
I0403 16:47:19.638923 19519 layer_factory.hpp:77] Creating layer inception_4c/3x3_reduce
I0403 16:47:19.638950 19519 net.cpp:91] Creating Layer inception_4c/3x3_reduce
I0403 16:47:19.638970 19519 net.cpp:425] inception_4c/3x3_reduce <- inception_4b/output_inception_4b/output_0_split_1
I0403 16:47:19.638996 19519 net.cpp:399] inception_4c/3x3_reduce -> inception_4c/3x3_reduce
I0403 16:47:19.641361 19519 net.cpp:141] Setting up inception_4c/3x3_reduce
I0403 16:47:19.641396 19519 net.cpp:148] Top shape: 24 128 14 14 (602112)
I0403 16:47:19.641417 19519 net.cpp:156] Memory required for data: 1035617568
I0403 16:47:19.641440 19519 layer_factory.hpp:77] Creating layer inception_4c/relu_3x3_reduce
I0403 16:47:19.641464 19519 net.cpp:91] Creating Layer inception_4c/relu_3x3_reduce
I0403 16:47:19.641485 19519 net.cpp:425] inception_4c/relu_3x3_reduce <- inception_4c/3x3_reduce
I0403 16:47:19.641507 19519 net.cpp:386] inception_4c/relu_3x3_reduce -> inception_4c/3x3_reduce (in-place)
I0403 16:47:19.641863 19519 net.cpp:141] Setting up inception_4c/relu_3x3_reduce
I0403 16:47:19.641896 19519 net.cpp:148] Top shape: 24 128 14 14 (602112)
I0403 16:47:19.641916 19519 net.cpp:156] Memory required for data: 1038026016
I0403 16:47:19.641934 19519 layer_factory.hpp:77] Creating layer inception_4c/3x3
I0403 16:47:19.641964 19519 net.cpp:91] Creating Layer inception_4c/3x3
I0403 16:47:19.641986 19519 net.cpp:425] inception_4c/3x3 <- inception_4c/3x3_reduce
I0403 16:47:19.642009 19519 net.cpp:399] inception_4c/3x3 -> inception_4c/3x3
I0403 16:47:19.646397 19519 net.cpp:141] Setting up inception_4c/3x3
I0403 16:47:19.646451 19519 net.cpp:148] Top shape: 24 256 14 14 (1204224)
I0403 16:47:19.646473 19519 net.cpp:156] Memory required for data: 1042842912
I0403 16:47:19.646512 19519 layer_factory.hpp:77] Creating layer inception_4c/relu_3x3
I0403 16:47:19.646538 19519 net.cpp:91] Creating Layer inception_4c/relu_3x3
I0403 16:47:19.646559 19519 net.cpp:425] inception_4c/relu_3x3 <- inception_4c/3x3
I0403 16:47:19.646579 19519 net.cpp:386] inception_4c/relu_3x3 -> inception_4c/3x3 (in-place)
I0403 16:47:19.646812 19519 net.cpp:141] Setting up inception_4c/relu_3x3
I0403 16:47:19.646847 19519 net.cpp:148] Top shape: 24 256 14 14 (1204224)
I0403 16:47:19.646867 19519 net.cpp:156] Memory required for data: 1047659808
I0403 16:47:19.646886 19519 layer_factory.hpp:77] Creating layer inception_4c/5x5_reduce
I0403 16:47:19.646914 19519 net.cpp:91] Creating Layer inception_4c/5x5_reduce
I0403 16:47:19.646936 19519 net.cpp:425] inception_4c/5x5_reduce <- inception_4b/output_inception_4b/output_0_split_2
I0403 16:47:19.646960 19519 net.cpp:399] inception_4c/5x5_reduce -> inception_4c/5x5_reduce
I0403 16:47:19.648291 19519 net.cpp:141] Setting up inception_4c/5x5_reduce
I0403 16:47:19.648326 19519 net.cpp:148] Top shape: 24 24 14 14 (112896)
I0403 16:47:19.648345 19519 net.cpp:156] Memory required for data: 1048111392
I0403 16:47:19.648370 19519 layer_factory.hpp:77] Creating layer inception_4c/relu_5x5_reduce
I0403 16:47:19.648396 19519 net.cpp:91] Creating Layer inception_4c/relu_5x5_reduce
I0403 16:47:19.648416 19519 net.cpp:425] inception_4c/relu_5x5_reduce <- inception_4c/5x5_reduce
I0403 16:47:19.648437 19519 net.cpp:386] inception_4c/relu_5x5_reduce -> inception_4c/5x5_reduce (in-place)
I0403 16:47:19.648675 19519 net.cpp:141] Setting up inception_4c/relu_5x5_reduce
I0403 16:47:19.648706 19519 net.cpp:148] Top shape: 24 24 14 14 (112896)
I0403 16:47:19.648725 19519 net.cpp:156] Memory required for data: 1048562976
I0403 16:47:19.648743 19519 layer_factory.hpp:77] Creating layer inception_4c/5x5
I0403 16:47:19.648771 19519 net.cpp:91] Creating Layer inception_4c/5x5
I0403 16:47:19.648792 19519 net.cpp:425] inception_4c/5x5 <- inception_4c/5x5_reduce
I0403 16:47:19.648819 19519 net.cpp:399] inception_4c/5x5 -> inception_4c/5x5
I0403 16:47:19.650353 19519 net.cpp:141] Setting up inception_4c/5x5
I0403 16:47:19.650388 19519 net.cpp:148] Top shape: 24 64 14 14 (301056)
I0403 16:47:19.650406 19519 net.cpp:156] Memory required for data: 1049767200
I0403 16:47:19.650429 19519 layer_factory.hpp:77] Creating layer inception_4c/relu_5x5
I0403 16:47:19.650452 19519 net.cpp:91] Creating Layer inception_4c/relu_5x5
I0403 16:47:19.650473 19519 net.cpp:425] inception_4c/relu_5x5 <- inception_4c/5x5
I0403 16:47:19.650496 19519 net.cpp:386] inception_4c/relu_5x5 -> inception_4c/5x5 (in-place)
I0403 16:47:19.650858 19519 net.cpp:141] Setting up inception_4c/relu_5x5
I0403 16:47:19.650892 19519 net.cpp:148] Top shape: 24 64 14 14 (301056)
I0403 16:47:19.650909 19519 net.cpp:156] Memory required for data: 1050971424
I0403 16:47:19.650928 19519 layer_factory.hpp:77] Creating layer inception_4c/pool
I0403 16:47:19.650950 19519 net.cpp:91] Creating Layer inception_4c/pool
I0403 16:47:19.650969 19519 net.cpp:425] inception_4c/pool <- inception_4b/output_inception_4b/output_0_split_3
I0403 16:47:19.650993 19519 net.cpp:399] inception_4c/pool -> inception_4c/pool
I0403 16:47:19.651075 19519 net.cpp:141] Setting up inception_4c/pool
I0403 16:47:19.651106 19519 net.cpp:148] Top shape: 24 512 14 14 (2408448)
I0403 16:47:19.651125 19519 net.cpp:156] Memory required for data: 1060605216
I0403 16:47:19.651144 19519 layer_factory.hpp:77] Creating layer inception_4c/pool_proj
I0403 16:47:19.651170 19519 net.cpp:91] Creating Layer inception_4c/pool_proj
I0403 16:47:19.651191 19519 net.cpp:425] inception_4c/pool_proj <- inception_4c/pool
I0403 16:47:19.651214 19519 net.cpp:399] inception_4c/pool_proj -> inception_4c/pool_proj
I0403 16:47:19.652719 19519 net.cpp:141] Setting up inception_4c/pool_proj
I0403 16:47:19.652758 19519 net.cpp:148] Top shape: 24 64 14 14 (301056)
I0403 16:47:19.652796 19519 net.cpp:156] Memory required for data: 1061809440
I0403 16:47:19.652820 19519 layer_factory.hpp:77] Creating layer inception_4c/relu_pool_proj
I0403 16:47:19.652843 19519 net.cpp:91] Creating Layer inception_4c/relu_pool_proj
I0403 16:47:19.652863 19519 net.cpp:425] inception_4c/relu_pool_proj <- inception_4c/pool_proj
I0403 16:47:19.652884 19519 net.cpp:386] inception_4c/relu_pool_proj -> inception_4c/pool_proj (in-place)
I0403 16:47:19.653113 19519 net.cpp:141] Setting up inception_4c/relu_pool_proj
I0403 16:47:19.653144 19519 net.cpp:148] Top shape: 24 64 14 14 (301056)
I0403 16:47:19.653163 19519 net.cpp:156] Memory required for data: 1063013664
I0403 16:47:19.653182 19519 layer_factory.hpp:77] Creating layer inception_4c/output
I0403 16:47:19.653203 19519 net.cpp:91] Creating Layer inception_4c/output
I0403 16:47:19.653221 19519 net.cpp:425] inception_4c/output <- inception_4c/1x1
I0403 16:47:19.653241 19519 net.cpp:425] inception_4c/output <- inception_4c/3x3
I0403 16:47:19.653261 19519 net.cpp:425] inception_4c/output <- inception_4c/5x5
I0403 16:47:19.653280 19519 net.cpp:425] inception_4c/output <- inception_4c/pool_proj
I0403 16:47:19.653303 19519 net.cpp:399] inception_4c/output -> inception_4c/output
I0403 16:47:19.653362 19519 net.cpp:141] Setting up inception_4c/output
I0403 16:47:19.653390 19519 net.cpp:148] Top shape: 24 512 14 14 (2408448)
I0403 16:47:19.653408 19519 net.cpp:156] Memory required for data: 1072647456
I0403 16:47:19.653425 19519 layer_factory.hpp:77] Creating layer inception_4c/output_inception_4c/output_0_split
I0403 16:47:19.653450 19519 net.cpp:91] Creating Layer inception_4c/output_inception_4c/output_0_split
I0403 16:47:19.653468 19519 net.cpp:425] inception_4c/output_inception_4c/output_0_split <- inception_4c/output
I0403 16:47:19.653491 19519 net.cpp:399] inception_4c/output_inception_4c/output_0_split -> inception_4c/output_inception_4c/output_0_split_0
I0403 16:47:19.653522 19519 net.cpp:399] inception_4c/output_inception_4c/output_0_split -> inception_4c/output_inception_4c/output_0_split_1
I0403 16:47:19.653549 19519 net.cpp:399] inception_4c/output_inception_4c/output_0_split -> inception_4c/output_inception_4c/output_0_split_2
I0403 16:47:19.653574 19519 net.cpp:399] inception_4c/output_inception_4c/output_0_split -> inception_4c/output_inception_4c/output_0_split_3
I0403 16:47:19.653686 19519 net.cpp:141] Setting up inception_4c/output_inception_4c/output_0_split
I0403 16:47:19.653714 19519 net.cpp:148] Top shape: 24 512 14 14 (2408448)
I0403 16:47:19.653734 19519 net.cpp:148] Top shape: 24 512 14 14 (2408448)
I0403 16:47:19.653753 19519 net.cpp:148] Top shape: 24 512 14 14 (2408448)
I0403 16:47:19.653772 19519 net.cpp:148] Top shape: 24 512 14 14 (2408448)
I0403 16:47:19.653789 19519 net.cpp:156] Memory required for data: 1111182624
I0403 16:47:19.653807 19519 layer_factory.hpp:77] Creating layer inception_4d/1x1
I0403 16:47:19.653834 19519 net.cpp:91] Creating Layer inception_4d/1x1
I0403 16:47:19.653856 19519 net.cpp:425] inception_4d/1x1 <- inception_4c/output_inception_4c/output_0_split_0
I0403 16:47:19.653880 19519 net.cpp:399] inception_4d/1x1 -> inception_4d/1x1
I0403 16:47:19.655614 19519 net.cpp:141] Setting up inception_4d/1x1
I0403 16:47:19.655650 19519 net.cpp:148] Top shape: 24 112 14 14 (526848)
I0403 16:47:19.655669 19519 net.cpp:156] Memory required for data: 1113290016
I0403 16:47:19.655692 19519 layer_factory.hpp:77] Creating layer inception_4d/relu_1x1
I0403 16:47:19.655719 19519 net.cpp:91] Creating Layer inception_4d/relu_1x1
I0403 16:47:19.655738 19519 net.cpp:425] inception_4d/relu_1x1 <- inception_4d/1x1
I0403 16:47:19.655761 19519 net.cpp:386] inception_4d/relu_1x1 -> inception_4d/1x1 (in-place)
I0403 16:47:19.655994 19519 net.cpp:141] Setting up inception_4d/relu_1x1
I0403 16:47:19.656025 19519 net.cpp:148] Top shape: 24 112 14 14 (526848)
I0403 16:47:19.656044 19519 net.cpp:156] Memory required for data: 1115397408
I0403 16:47:19.656064 19519 layer_factory.hpp:77] Creating layer inception_4d/3x3_reduce
I0403 16:47:19.656111 19519 net.cpp:91] Creating Layer inception_4d/3x3_reduce
I0403 16:47:19.656133 19519 net.cpp:425] inception_4d/3x3_reduce <- inception_4c/output_inception_4c/output_0_split_1
I0403 16:47:19.656157 19519 net.cpp:399] inception_4d/3x3_reduce -> inception_4d/3x3_reduce
I0403 16:47:19.658027 19519 net.cpp:141] Setting up inception_4d/3x3_reduce
I0403 16:47:19.658061 19519 net.cpp:148] Top shape: 24 144 14 14 (677376)
I0403 16:47:19.658082 19519 net.cpp:156] Memory required for data: 1118106912
I0403 16:47:19.658103 19519 layer_factory.hpp:77] Creating layer inception_4d/relu_3x3_reduce
I0403 16:47:19.658128 19519 net.cpp:91] Creating Layer inception_4d/relu_3x3_reduce
I0403 16:47:19.658146 19519 net.cpp:425] inception_4d/relu_3x3_reduce <- inception_4d/3x3_reduce
I0403 16:47:19.658170 19519 net.cpp:386] inception_4d/relu_3x3_reduce -> inception_4d/3x3_reduce (in-place)
I0403 16:47:19.658530 19519 net.cpp:141] Setting up inception_4d/relu_3x3_reduce
I0403 16:47:19.658563 19519 net.cpp:148] Top shape: 24 144 14 14 (677376)
I0403 16:47:19.658583 19519 net.cpp:156] Memory required for data: 1120816416
I0403 16:47:19.658606 19519 layer_factory.hpp:77] Creating layer inception_4d/3x3
I0403 16:47:19.658635 19519 net.cpp:91] Creating Layer inception_4d/3x3
I0403 16:47:19.658658 19519 net.cpp:425] inception_4d/3x3 <- inception_4d/3x3_reduce
I0403 16:47:19.658687 19519 net.cpp:399] inception_4d/3x3 -> inception_4d/3x3
I0403 16:47:19.663949 19519 net.cpp:141] Setting up inception_4d/3x3
I0403 16:47:19.663985 19519 net.cpp:148] Top shape: 24 288 14 14 (1354752)
I0403 16:47:19.664005 19519 net.cpp:156] Memory required for data: 1126235424
I0403 16:47:19.664026 19519 layer_factory.hpp:77] Creating layer inception_4d/relu_3x3
I0403 16:47:19.664052 19519 net.cpp:91] Creating Layer inception_4d/relu_3x3
I0403 16:47:19.664073 19519 net.cpp:425] inception_4d/relu_3x3 <- inception_4d/3x3
I0403 16:47:19.664095 19519 net.cpp:386] inception_4d/relu_3x3 -> inception_4d/3x3 (in-place)
I0403 16:47:19.664325 19519 net.cpp:141] Setting up inception_4d/relu_3x3
I0403 16:47:19.664358 19519 net.cpp:148] Top shape: 24 288 14 14 (1354752)
I0403 16:47:19.664378 19519 net.cpp:156] Memory required for data: 1131654432
I0403 16:47:19.664397 19519 layer_factory.hpp:77] Creating layer inception_4d/5x5_reduce
I0403 16:47:19.664423 19519 net.cpp:91] Creating Layer inception_4d/5x5_reduce
I0403 16:47:19.664445 19519 net.cpp:425] inception_4d/5x5_reduce <- inception_4c/output_inception_4c/output_0_split_2
I0403 16:47:19.664469 19519 net.cpp:399] inception_4d/5x5_reduce -> inception_4d/5x5_reduce
I0403 16:47:19.665895 19519 net.cpp:141] Setting up inception_4d/5x5_reduce
I0403 16:47:19.665930 19519 net.cpp:148] Top shape: 24 32 14 14 (150528)
I0403 16:47:19.665951 19519 net.cpp:156] Memory required for data: 1132256544
I0403 16:47:19.665972 19519 layer_factory.hpp:77] Creating layer inception_4d/relu_5x5_reduce
I0403 16:47:19.665997 19519 net.cpp:91] Creating Layer inception_4d/relu_5x5_reduce
I0403 16:47:19.666018 19519 net.cpp:425] inception_4d/relu_5x5_reduce <- inception_4d/5x5_reduce
I0403 16:47:19.666040 19519 net.cpp:386] inception_4d/relu_5x5_reduce -> inception_4d/5x5_reduce (in-place)
I0403 16:47:19.666275 19519 net.cpp:141] Setting up inception_4d/relu_5x5_reduce
I0403 16:47:19.666307 19519 net.cpp:148] Top shape: 24 32 14 14 (150528)
I0403 16:47:19.666327 19519 net.cpp:156] Memory required for data: 1132858656
I0403 16:47:19.666347 19519 layer_factory.hpp:77] Creating layer inception_4d/5x5
I0403 16:47:19.666374 19519 net.cpp:91] Creating Layer inception_4d/5x5
I0403 16:47:19.666395 19519 net.cpp:425] inception_4d/5x5 <- inception_4d/5x5_reduce
I0403 16:47:19.666419 19519 net.cpp:399] inception_4d/5x5 -> inception_4d/5x5
I0403 16:47:19.668226 19519 net.cpp:141] Setting up inception_4d/5x5
I0403 16:47:19.668263 19519 net.cpp:148] Top shape: 24 64 14 14 (301056)
I0403 16:47:19.668283 19519 net.cpp:156] Memory required for data: 1134062880
I0403 16:47:19.668318 19519 layer_factory.hpp:77] Creating layer inception_4d/relu_5x5
I0403 16:47:19.668357 19519 net.cpp:91] Creating Layer inception_4d/relu_5x5
I0403 16:47:19.668378 19519 net.cpp:425] inception_4d/relu_5x5 <- inception_4d/5x5
I0403 16:47:19.668402 19519 net.cpp:386] inception_4d/relu_5x5 -> inception_4d/5x5 (in-place)
I0403 16:47:19.668777 19519 net.cpp:141] Setting up inception_4d/relu_5x5
I0403 16:47:19.668813 19519 net.cpp:148] Top shape: 24 64 14 14 (301056)
I0403 16:47:19.668833 19519 net.cpp:156] Memory required for data: 1135267104
I0403 16:47:19.668853 19519 layer_factory.hpp:77] Creating layer inception_4d/pool
I0403 16:47:19.668874 19519 net.cpp:91] Creating Layer inception_4d/pool
I0403 16:47:19.668895 19519 net.cpp:425] inception_4d/pool <- inception_4c/output_inception_4c/output_0_split_3
I0403 16:47:19.668920 19519 net.cpp:399] inception_4d/pool -> inception_4d/pool
I0403 16:47:19.669000 19519 net.cpp:141] Setting up inception_4d/pool
I0403 16:47:19.669029 19519 net.cpp:148] Top shape: 24 512 14 14 (2408448)
I0403 16:47:19.669049 19519 net.cpp:156] Memory required for data: 1144900896
I0403 16:47:19.669066 19519 layer_factory.hpp:77] Creating layer inception_4d/pool_proj
I0403 16:47:19.669093 19519 net.cpp:91] Creating Layer inception_4d/pool_proj
I0403 16:47:19.669113 19519 net.cpp:425] inception_4d/pool_proj <- inception_4d/pool
I0403 16:47:19.669138 19519 net.cpp:399] inception_4d/pool_proj -> inception_4d/pool_proj
I0403 16:47:19.671288 19519 net.cpp:141] Setting up inception_4d/pool_proj
I0403 16:47:19.671325 19519 net.cpp:148] Top shape: 24 64 14 14 (301056)
I0403 16:47:19.671345 19519 net.cpp:156] Memory required for data: 1146105120
I0403 16:47:19.671368 19519 layer_factory.hpp:77] Creating layer inception_4d/relu_pool_proj
I0403 16:47:19.671393 19519 net.cpp:91] Creating Layer inception_4d/relu_pool_proj
I0403 16:47:19.671416 19519 net.cpp:425] inception_4d/relu_pool_proj <- inception_4d/pool_proj
I0403 16:47:19.671437 19519 net.cpp:386] inception_4d/relu_pool_proj -> inception_4d/pool_proj (in-place)
I0403 16:47:19.671677 19519 net.cpp:141] Setting up inception_4d/relu_pool_proj
I0403 16:47:19.671711 19519 net.cpp:148] Top shape: 24 64 14 14 (301056)
I0403 16:47:19.671731 19519 net.cpp:156] Memory required for data: 1147309344
I0403 16:47:19.671749 19519 layer_factory.hpp:77] Creating layer inception_4d/output
I0403 16:47:19.671771 19519 net.cpp:91] Creating Layer inception_4d/output
I0403 16:47:19.671789 19519 net.cpp:425] inception_4d/output <- inception_4d/1x1
I0403 16:47:19.671810 19519 net.cpp:425] inception_4d/output <- inception_4d/3x3
I0403 16:47:19.671830 19519 net.cpp:425] inception_4d/output <- inception_4d/5x5
I0403 16:47:19.671859 19519 net.cpp:425] inception_4d/output <- inception_4d/pool_proj
I0403 16:47:19.671879 19519 net.cpp:399] inception_4d/output -> inception_4d/output
I0403 16:47:19.671938 19519 net.cpp:141] Setting up inception_4d/output
I0403 16:47:19.671967 19519 net.cpp:148] Top shape: 24 528 14 14 (2483712)
I0403 16:47:19.671986 19519 net.cpp:156] Memory required for data: 1157244192
I0403 16:47:19.672004 19519 layer_factory.hpp:77] Creating layer inception_4d/output_inception_4d/output_0_split
I0403 16:47:19.672029 19519 net.cpp:91] Creating Layer inception_4d/output_inception_4d/output_0_split
I0403 16:47:19.672049 19519 net.cpp:425] inception_4d/output_inception_4d/output_0_split <- inception_4d/output
I0403 16:47:19.672070 19519 net.cpp:399] inception_4d/output_inception_4d/output_0_split -> inception_4d/output_inception_4d/output_0_split_0
I0403 16:47:19.672096 19519 net.cpp:399] inception_4d/output_inception_4d/output_0_split -> inception_4d/output_inception_4d/output_0_split_1
I0403 16:47:19.672122 19519 net.cpp:399] inception_4d/output_inception_4d/output_0_split -> inception_4d/output_inception_4d/output_0_split_2
I0403 16:47:19.672150 19519 net.cpp:399] inception_4d/output_inception_4d/output_0_split -> inception_4d/output_inception_4d/output_0_split_3
I0403 16:47:19.672176 19519 net.cpp:399] inception_4d/output_inception_4d/output_0_split -> inception_4d/output_inception_4d/output_0_split_4
I0403 16:47:19.672309 19519 net.cpp:141] Setting up inception_4d/output_inception_4d/output_0_split
I0403 16:47:19.672354 19519 net.cpp:148] Top shape: 24 528 14 14 (2483712)
I0403 16:47:19.672375 19519 net.cpp:148] Top shape: 24 528 14 14 (2483712)
I0403 16:47:19.672394 19519 net.cpp:148] Top shape: 24 528 14 14 (2483712)
I0403 16:47:19.672415 19519 net.cpp:148] Top shape: 24 528 14 14 (2483712)
I0403 16:47:19.672433 19519 net.cpp:148] Top shape: 24 528 14 14 (2483712)
I0403 16:47:19.672451 19519 net.cpp:156] Memory required for data: 1206918432
I0403 16:47:19.672467 19519 layer_factory.hpp:77] Creating layer loss2/ave_pool
I0403 16:47:19.672492 19519 net.cpp:91] Creating Layer loss2/ave_pool
I0403 16:47:19.672513 19519 net.cpp:425] loss2/ave_pool <- inception_4d/output_inception_4d/output_0_split_0
I0403 16:47:19.672534 19519 net.cpp:399] loss2/ave_pool -> loss2/ave_pool
I0403 16:47:19.672930 19519 net.cpp:141] Setting up loss2/ave_pool
I0403 16:47:19.672963 19519 net.cpp:148] Top shape: 24 528 4 4 (202752)
I0403 16:47:19.672983 19519 net.cpp:156] Memory required for data: 1207729440
I0403 16:47:19.673001 19519 layer_factory.hpp:77] Creating layer loss2/conv
I0403 16:47:19.673028 19519 net.cpp:91] Creating Layer loss2/conv
I0403 16:47:19.673050 19519 net.cpp:425] loss2/conv <- loss2/ave_pool
I0403 16:47:19.673076 19519 net.cpp:399] loss2/conv -> loss2/conv
I0403 16:47:19.675412 19519 net.cpp:141] Setting up loss2/conv
I0403 16:47:19.675451 19519 net.cpp:148] Top shape: 24 128 4 4 (49152)
I0403 16:47:19.675472 19519 net.cpp:156] Memory required for data: 1207926048
I0403 16:47:19.675495 19519 layer_factory.hpp:77] Creating layer loss2/relu_conv
I0403 16:47:19.675518 19519 net.cpp:91] Creating Layer loss2/relu_conv
I0403 16:47:19.675539 19519 net.cpp:425] loss2/relu_conv <- loss2/conv
I0403 16:47:19.675564 19519 net.cpp:386] loss2/relu_conv -> loss2/conv (in-place)
I0403 16:47:19.675921 19519 net.cpp:141] Setting up loss2/relu_conv
I0403 16:47:19.675954 19519 net.cpp:148] Top shape: 24 128 4 4 (49152)
I0403 16:47:19.675973 19519 net.cpp:156] Memory required for data: 1208122656
I0403 16:47:19.675992 19519 layer_factory.hpp:77] Creating layer loss2/fc
I0403 16:47:19.676015 19519 net.cpp:91] Creating Layer loss2/fc
I0403 16:47:19.676036 19519 net.cpp:425] loss2/fc <- loss2/conv
I0403 16:47:19.676061 19519 net.cpp:399] loss2/fc -> loss2/fc
I0403 16:47:19.697942 19519 net.cpp:141] Setting up loss2/fc
I0403 16:47:19.697986 19519 net.cpp:148] Top shape: 24 1024 (24576)
I0403 16:47:19.698006 19519 net.cpp:156] Memory required for data: 1208220960
I0403 16:47:19.698029 19519 layer_factory.hpp:77] Creating layer loss2/relu_fc
I0403 16:47:19.698052 19519 net.cpp:91] Creating Layer loss2/relu_fc
I0403 16:47:19.698071 19519 net.cpp:425] loss2/relu_fc <- loss2/fc
I0403 16:47:19.698092 19519 net.cpp:386] loss2/relu_fc -> loss2/fc (in-place)
I0403 16:47:19.698457 19519 net.cpp:141] Setting up loss2/relu_fc
I0403 16:47:19.698493 19519 net.cpp:148] Top shape: 24 1024 (24576)
I0403 16:47:19.698513 19519 net.cpp:156] Memory required for data: 1208319264
I0403 16:47:19.698531 19519 layer_factory.hpp:77] Creating layer loss2/drop_fc
I0403 16:47:19.698555 19519 net.cpp:91] Creating Layer loss2/drop_fc
I0403 16:47:19.698575 19519 net.cpp:425] loss2/drop_fc <- loss2/fc
I0403 16:47:19.698596 19519 net.cpp:386] loss2/drop_fc -> loss2/fc (in-place)
I0403 16:47:19.698665 19519 net.cpp:141] Setting up loss2/drop_fc
I0403 16:47:19.698694 19519 net.cpp:148] Top shape: 24 1024 (24576)
I0403 16:47:19.698714 19519 net.cpp:156] Memory required for data: 1208417568
I0403 16:47:19.698731 19519 layer_factory.hpp:77] Creating layer loss2/classifier_plantvillage
I0403 16:47:19.698757 19519 net.cpp:91] Creating Layer loss2/classifier_plantvillage
I0403 16:47:19.698777 19519 net.cpp:425] loss2/classifier_plantvillage <- loss2/fc
I0403 16:47:19.698801 19519 net.cpp:399] loss2/classifier_plantvillage -> loss2/classifier_plantvillage
I0403 16:47:19.699300 19519 net.cpp:141] Setting up loss2/classifier_plantvillage
I0403 16:47:19.699331 19519 net.cpp:148] Top shape: 24 38 (912)
I0403 16:47:19.699349 19519 net.cpp:156] Memory required for data: 1208421216
I0403 16:47:19.699393 19519 layer_factory.hpp:77] Creating layer loss2/classifier_plantvillage_loss2/classifier_plantvillage_0_split
I0403 16:47:19.699416 19519 net.cpp:91] Creating Layer loss2/classifier_plantvillage_loss2/classifier_plantvillage_0_split
I0403 16:47:19.699436 19519 net.cpp:425] loss2/classifier_plantvillage_loss2/classifier_plantvillage_0_split <- loss2/classifier_plantvillage
I0403 16:47:19.699461 19519 net.cpp:399] loss2/classifier_plantvillage_loss2/classifier_plantvillage_0_split -> loss2/classifier_plantvillage_loss2/classifier_plantvillage_0_split_0
I0403 16:47:19.699488 19519 net.cpp:399] loss2/classifier_plantvillage_loss2/classifier_plantvillage_0_split -> loss2/classifier_plantvillage_loss2/classifier_plantvillage_0_split_1
I0403 16:47:19.699515 19519 net.cpp:399] loss2/classifier_plantvillage_loss2/classifier_plantvillage_0_split -> loss2/classifier_plantvillage_loss2/classifier_plantvillage_0_split_2
I0403 16:47:19.699618 19519 net.cpp:141] Setting up loss2/classifier_plantvillage_loss2/classifier_plantvillage_0_split
I0403 16:47:19.699650 19519 net.cpp:148] Top shape: 24 38 (912)
I0403 16:47:19.699671 19519 net.cpp:148] Top shape: 24 38 (912)
I0403 16:47:19.699690 19519 net.cpp:148] Top shape: 24 38 (912)
I0403 16:47:19.699707 19519 net.cpp:156] Memory required for data: 1208432160
I0403 16:47:19.699725 19519 layer_factory.hpp:77] Creating layer inception_4e/1x1
I0403 16:47:19.699753 19519 net.cpp:91] Creating Layer inception_4e/1x1
I0403 16:47:19.699775 19519 net.cpp:425] inception_4e/1x1 <- inception_4d/output_inception_4d/output_0_split_1
I0403 16:47:19.699800 19519 net.cpp:399] inception_4e/1x1 -> inception_4e/1x1
I0403 16:47:19.702067 19519 net.cpp:141] Setting up inception_4e/1x1
I0403 16:47:19.702105 19519 net.cpp:148] Top shape: 24 256 14 14 (1204224)
I0403 16:47:19.702126 19519 net.cpp:156] Memory required for data: 1213249056
I0403 16:47:19.702149 19519 layer_factory.hpp:77] Creating layer inception_4e/relu_1x1
I0403 16:47:19.702172 19519 net.cpp:91] Creating Layer inception_4e/relu_1x1
I0403 16:47:19.702190 19519 net.cpp:425] inception_4e/relu_1x1 <- inception_4e/1x1
I0403 16:47:19.702214 19519 net.cpp:386] inception_4e/relu_1x1 -> inception_4e/1x1 (in-place)
I0403 16:47:19.702589 19519 net.cpp:141] Setting up inception_4e/relu_1x1
I0403 16:47:19.702630 19519 net.cpp:148] Top shape: 24 256 14 14 (1204224)
I0403 16:47:19.702651 19519 net.cpp:156] Memory required for data: 1218065952
I0403 16:47:19.702669 19519 layer_factory.hpp:77] Creating layer inception_4e/3x3_reduce
I0403 16:47:19.702697 19519 net.cpp:91] Creating Layer inception_4e/3x3_reduce
I0403 16:47:19.702718 19519 net.cpp:425] inception_4e/3x3_reduce <- inception_4d/output_inception_4d/output_0_split_2
I0403 16:47:19.702744 19519 net.cpp:399] inception_4e/3x3_reduce -> inception_4e/3x3_reduce
I0403 16:47:19.705322 19519 net.cpp:141] Setting up inception_4e/3x3_reduce
I0403 16:47:19.705361 19519 net.cpp:148] Top shape: 24 160 14 14 (752640)
I0403 16:47:19.705381 19519 net.cpp:156] Memory required for data: 1221076512
I0403 16:47:19.705405 19519 layer_factory.hpp:77] Creating layer inception_4e/relu_3x3_reduce
I0403 16:47:19.705427 19519 net.cpp:91] Creating Layer inception_4e/relu_3x3_reduce
I0403 16:47:19.705447 19519 net.cpp:425] inception_4e/relu_3x3_reduce <- inception_4e/3x3_reduce
I0403 16:47:19.705468 19519 net.cpp:386] inception_4e/relu_3x3_reduce -> inception_4e/3x3_reduce (in-place)
I0403 16:47:19.705721 19519 net.cpp:141] Setting up inception_4e/relu_3x3_reduce
I0403 16:47:19.705754 19519 net.cpp:148] Top shape: 24 160 14 14 (752640)
I0403 16:47:19.705773 19519 net.cpp:156] Memory required for data: 1224087072
I0403 16:47:19.705791 19519 layer_factory.hpp:77] Creating layer inception_4e/3x3
I0403 16:47:19.705823 19519 net.cpp:91] Creating Layer inception_4e/3x3
I0403 16:47:19.705844 19519 net.cpp:425] inception_4e/3x3 <- inception_4e/3x3_reduce
I0403 16:47:19.705874 19519 net.cpp:399] inception_4e/3x3 -> inception_4e/3x3
I0403 16:47:19.712067 19519 net.cpp:141] Setting up inception_4e/3x3
I0403 16:47:19.712117 19519 net.cpp:148] Top shape: 24 320 14 14 (1505280)
I0403 16:47:19.712138 19519 net.cpp:156] Memory required for data: 1230108192
I0403 16:47:19.712160 19519 layer_factory.hpp:77] Creating layer inception_4e/relu_3x3
I0403 16:47:19.712187 19519 net.cpp:91] Creating Layer inception_4e/relu_3x3
I0403 16:47:19.712208 19519 net.cpp:425] inception_4e/relu_3x3 <- inception_4e/3x3
I0403 16:47:19.712229 19519 net.cpp:386] inception_4e/relu_3x3 -> inception_4e/3x3 (in-place)
I0403 16:47:19.712596 19519 net.cpp:141] Setting up inception_4e/relu_3x3
I0403 16:47:19.712635 19519 net.cpp:148] Top shape: 24 320 14 14 (1505280)
I0403 16:47:19.712653 19519 net.cpp:156] Memory required for data: 1236129312
I0403 16:47:19.712672 19519 layer_factory.hpp:77] Creating layer inception_4e/5x5_reduce
I0403 16:47:19.712700 19519 net.cpp:91] Creating Layer inception_4e/5x5_reduce
I0403 16:47:19.712723 19519 net.cpp:425] inception_4e/5x5_reduce <- inception_4d/output_inception_4d/output_0_split_3
I0403 16:47:19.712752 19519 net.cpp:399] inception_4e/5x5_reduce -> inception_4e/5x5_reduce
I0403 16:47:19.714098 19519 net.cpp:141] Setting up inception_4e/5x5_reduce
I0403 16:47:19.714135 19519 net.cpp:148] Top shape: 24 32 14 14 (150528)
I0403 16:47:19.714155 19519 net.cpp:156] Memory required for data: 1236731424
I0403 16:47:19.714179 19519 layer_factory.hpp:77] Creating layer inception_4e/relu_5x5_reduce
I0403 16:47:19.714201 19519 net.cpp:91] Creating Layer inception_4e/relu_5x5_reduce
I0403 16:47:19.714221 19519 net.cpp:425] inception_4e/relu_5x5_reduce <- inception_4e/5x5_reduce
I0403 16:47:19.714246 19519 net.cpp:386] inception_4e/relu_5x5_reduce -> inception_4e/5x5_reduce (in-place)
I0403 16:47:19.714613 19519 net.cpp:141] Setting up inception_4e/relu_5x5_reduce
I0403 16:47:19.714649 19519 net.cpp:148] Top shape: 24 32 14 14 (150528)
I0403 16:47:19.714668 19519 net.cpp:156] Memory required for data: 1237333536
I0403 16:47:19.714687 19519 layer_factory.hpp:77] Creating layer inception_4e/5x5
I0403 16:47:19.714735 19519 net.cpp:91] Creating Layer inception_4e/5x5
I0403 16:47:19.714757 19519 net.cpp:425] inception_4e/5x5 <- inception_4e/5x5_reduce
I0403 16:47:19.714782 19519 net.cpp:399] inception_4e/5x5 -> inception_4e/5x5
I0403 16:47:19.717073 19519 net.cpp:141] Setting up inception_4e/5x5
I0403 16:47:19.717108 19519 net.cpp:148] Top shape: 24 128 14 14 (602112)
I0403 16:47:19.717128 19519 net.cpp:156] Memory required for data: 1239741984
I0403 16:47:19.717151 19519 layer_factory.hpp:77] Creating layer inception_4e/relu_5x5
I0403 16:47:19.717176 19519 net.cpp:91] Creating Layer inception_4e/relu_5x5
I0403 16:47:19.717197 19519 net.cpp:425] inception_4e/relu_5x5 <- inception_4e/5x5
I0403 16:47:19.717218 19519 net.cpp:386] inception_4e/relu_5x5 -> inception_4e/5x5 (in-place)
I0403 16:47:19.717466 19519 net.cpp:141] Setting up inception_4e/relu_5x5
I0403 16:47:19.717497 19519 net.cpp:148] Top shape: 24 128 14 14 (602112)
I0403 16:47:19.717516 19519 net.cpp:156] Memory required for data: 1242150432
I0403 16:47:19.717535 19519 layer_factory.hpp:77] Creating layer inception_4e/pool
I0403 16:47:19.717555 19519 net.cpp:91] Creating Layer inception_4e/pool
I0403 16:47:19.717574 19519 net.cpp:425] inception_4e/pool <- inception_4d/output_inception_4d/output_0_split_4
I0403 16:47:19.717599 19519 net.cpp:399] inception_4e/pool -> inception_4e/pool
I0403 16:47:19.717694 19519 net.cpp:141] Setting up inception_4e/pool
I0403 16:47:19.717723 19519 net.cpp:148] Top shape: 24 528 14 14 (2483712)
I0403 16:47:19.717741 19519 net.cpp:156] Memory required for data: 1252085280
I0403 16:47:19.717759 19519 layer_factory.hpp:77] Creating layer inception_4e/pool_proj
I0403 16:47:19.717790 19519 net.cpp:91] Creating Layer inception_4e/pool_proj
I0403 16:47:19.717813 19519 net.cpp:425] inception_4e/pool_proj <- inception_4e/pool
I0403 16:47:19.717835 19519 net.cpp:399] inception_4e/pool_proj -> inception_4e/pool_proj
I0403 16:47:19.719712 19519 net.cpp:141] Setting up inception_4e/pool_proj
I0403 16:47:19.719748 19519 net.cpp:148] Top shape: 24 128 14 14 (602112)
I0403 16:47:19.719784 19519 net.cpp:156] Memory required for data: 1254493728
I0403 16:47:19.719807 19519 layer_factory.hpp:77] Creating layer inception_4e/relu_pool_proj
I0403 16:47:19.719832 19519 net.cpp:91] Creating Layer inception_4e/relu_pool_proj
I0403 16:47:19.719854 19519 net.cpp:425] inception_4e/relu_pool_proj <- inception_4e/pool_proj
I0403 16:47:19.719876 19519 net.cpp:386] inception_4e/relu_pool_proj -> inception_4e/pool_proj (in-place)
I0403 16:47:19.720234 19519 net.cpp:141] Setting up inception_4e/relu_pool_proj
I0403 16:47:19.720268 19519 net.cpp:148] Top shape: 24 128 14 14 (602112)
I0403 16:47:19.720286 19519 net.cpp:156] Memory required for data: 1256902176
I0403 16:47:19.720304 19519 layer_factory.hpp:77] Creating layer inception_4e/output
I0403 16:47:19.720329 19519 net.cpp:91] Creating Layer inception_4e/output
I0403 16:47:19.720350 19519 net.cpp:425] inception_4e/output <- inception_4e/1x1
I0403 16:47:19.720369 19519 net.cpp:425] inception_4e/output <- inception_4e/3x3
I0403 16:47:19.720389 19519 net.cpp:425] inception_4e/output <- inception_4e/5x5
I0403 16:47:19.720408 19519 net.cpp:425] inception_4e/output <- inception_4e/pool_proj
I0403 16:47:19.720428 19519 net.cpp:399] inception_4e/output -> inception_4e/output
I0403 16:47:19.720491 19519 net.cpp:141] Setting up inception_4e/output
I0403 16:47:19.720520 19519 net.cpp:148] Top shape: 24 832 14 14 (3913728)
I0403 16:47:19.720538 19519 net.cpp:156] Memory required for data: 1272557088
I0403 16:47:19.720556 19519 layer_factory.hpp:77] Creating layer pool4/3x3_s2
I0403 16:47:19.720577 19519 net.cpp:91] Creating Layer pool4/3x3_s2
I0403 16:47:19.720597 19519 net.cpp:425] pool4/3x3_s2 <- inception_4e/output
I0403 16:47:19.720626 19519 net.cpp:399] pool4/3x3_s2 -> pool4/3x3_s2
I0403 16:47:19.720712 19519 net.cpp:141] Setting up pool4/3x3_s2
I0403 16:47:19.720741 19519 net.cpp:148] Top shape: 24 832 7 7 (978432)
I0403 16:47:19.720759 19519 net.cpp:156] Memory required for data: 1276470816
I0403 16:47:19.720777 19519 layer_factory.hpp:77] Creating layer pool4/3x3_s2_pool4/3x3_s2_0_split
I0403 16:47:19.720803 19519 net.cpp:91] Creating Layer pool4/3x3_s2_pool4/3x3_s2_0_split
I0403 16:47:19.720823 19519 net.cpp:425] pool4/3x3_s2_pool4/3x3_s2_0_split <- pool4/3x3_s2
I0403 16:47:19.720846 19519 net.cpp:399] pool4/3x3_s2_pool4/3x3_s2_0_split -> pool4/3x3_s2_pool4/3x3_s2_0_split_0
I0403 16:47:19.720871 19519 net.cpp:399] pool4/3x3_s2_pool4/3x3_s2_0_split -> pool4/3x3_s2_pool4/3x3_s2_0_split_1
I0403 16:47:19.720897 19519 net.cpp:399] pool4/3x3_s2_pool4/3x3_s2_0_split -> pool4/3x3_s2_pool4/3x3_s2_0_split_2
I0403 16:47:19.720921 19519 net.cpp:399] pool4/3x3_s2_pool4/3x3_s2_0_split -> pool4/3x3_s2_pool4/3x3_s2_0_split_3
I0403 16:47:19.721034 19519 net.cpp:141] Setting up pool4/3x3_s2_pool4/3x3_s2_0_split
I0403 16:47:19.721061 19519 net.cpp:148] Top shape: 24 832 7 7 (978432)
I0403 16:47:19.721084 19519 net.cpp:148] Top shape: 24 832 7 7 (978432)
I0403 16:47:19.721104 19519 net.cpp:148] Top shape: 24 832 7 7 (978432)
I0403 16:47:19.721123 19519 net.cpp:148] Top shape: 24 832 7 7 (978432)
I0403 16:47:19.721140 19519 net.cpp:156] Memory required for data: 1292125728
I0403 16:47:19.721158 19519 layer_factory.hpp:77] Creating layer inception_5a/1x1
I0403 16:47:19.721181 19519 net.cpp:91] Creating Layer inception_5a/1x1
I0403 16:47:19.721201 19519 net.cpp:425] inception_5a/1x1 <- pool4/3x3_s2_pool4/3x3_s2_0_split_0
I0403 16:47:19.721226 19519 net.cpp:399] inception_5a/1x1 -> inception_5a/1x1
I0403 16:47:19.724736 19519 net.cpp:141] Setting up inception_5a/1x1
I0403 16:47:19.724777 19519 net.cpp:148] Top shape: 24 256 7 7 (301056)
I0403 16:47:19.724798 19519 net.cpp:156] Memory required for data: 1293329952
I0403 16:47:19.724820 19519 layer_factory.hpp:77] Creating layer inception_5a/relu_1x1
I0403 16:47:19.724843 19519 net.cpp:91] Creating Layer inception_5a/relu_1x1
I0403 16:47:19.724863 19519 net.cpp:425] inception_5a/relu_1x1 <- inception_5a/1x1
I0403 16:47:19.724884 19519 net.cpp:386] inception_5a/relu_1x1 -> inception_5a/1x1 (in-place)
I0403 16:47:19.725268 19519 net.cpp:141] Setting up inception_5a/relu_1x1
I0403 16:47:19.725303 19519 net.cpp:148] Top shape: 24 256 7 7 (301056)
I0403 16:47:19.725322 19519 net.cpp:156] Memory required for data: 1294534176
I0403 16:47:19.725340 19519 layer_factory.hpp:77] Creating layer inception_5a/3x3_reduce
I0403 16:47:19.725368 19519 net.cpp:91] Creating Layer inception_5a/3x3_reduce
I0403 16:47:19.725389 19519 net.cpp:425] inception_5a/3x3_reduce <- pool4/3x3_s2_pool4/3x3_s2_0_split_1
I0403 16:47:19.725412 19519 net.cpp:399] inception_5a/3x3_reduce -> inception_5a/3x3_reduce
I0403 16:47:19.728440 19519 net.cpp:141] Setting up inception_5a/3x3_reduce
I0403 16:47:19.728476 19519 net.cpp:148] Top shape: 24 160 7 7 (188160)
I0403 16:47:19.728495 19519 net.cpp:156] Memory required for data: 1295286816
I0403 16:47:19.728518 19519 layer_factory.hpp:77] Creating layer inception_5a/relu_3x3_reduce
I0403 16:47:19.728543 19519 net.cpp:91] Creating Layer inception_5a/relu_3x3_reduce
I0403 16:47:19.728564 19519 net.cpp:425] inception_5a/relu_3x3_reduce <- inception_5a/3x3_reduce
I0403 16:47:19.728585 19519 net.cpp:386] inception_5a/relu_3x3_reduce -> inception_5a/3x3_reduce (in-place)
I0403 16:47:19.728826 19519 net.cpp:141] Setting up inception_5a/relu_3x3_reduce
I0403 16:47:19.728858 19519 net.cpp:148] Top shape: 24 160 7 7 (188160)
I0403 16:47:19.728878 19519 net.cpp:156] Memory required for data: 1296039456
I0403 16:47:19.728896 19519 layer_factory.hpp:77] Creating layer inception_5a/3x3
I0403 16:47:19.728924 19519 net.cpp:91] Creating Layer inception_5a/3x3
I0403 16:47:19.728945 19519 net.cpp:425] inception_5a/3x3 <- inception_5a/3x3_reduce
I0403 16:47:19.728968 19519 net.cpp:399] inception_5a/3x3 -> inception_5a/3x3
I0403 16:47:19.735208 19519 net.cpp:141] Setting up inception_5a/3x3
I0403 16:47:19.735244 19519 net.cpp:148] Top shape: 24 320 7 7 (376320)
I0403 16:47:19.735263 19519 net.cpp:156] Memory required for data: 1297544736
I0403 16:47:19.735286 19519 layer_factory.hpp:77] Creating layer inception_5a/relu_3x3
I0403 16:47:19.735312 19519 net.cpp:91] Creating Layer inception_5a/relu_3x3
I0403 16:47:19.735334 19519 net.cpp:425] inception_5a/relu_3x3 <- inception_5a/3x3
I0403 16:47:19.735355 19519 net.cpp:386] inception_5a/relu_3x3 -> inception_5a/3x3 (in-place)
I0403 16:47:19.735739 19519 net.cpp:141] Setting up inception_5a/relu_3x3
I0403 16:47:19.735775 19519 net.cpp:148] Top shape: 24 320 7 7 (376320)
I0403 16:47:19.735793 19519 net.cpp:156] Memory required for data: 1299050016
I0403 16:47:19.735811 19519 layer_factory.hpp:77] Creating layer inception_5a/5x5_reduce
I0403 16:47:19.735842 19519 net.cpp:91] Creating Layer inception_5a/5x5_reduce
I0403 16:47:19.735864 19519 net.cpp:425] inception_5a/5x5_reduce <- pool4/3x3_s2_pool4/3x3_s2_0_split_2
I0403 16:47:19.735888 19519 net.cpp:399] inception_5a/5x5_reduce -> inception_5a/5x5_reduce
I0403 16:47:19.737357 19519 net.cpp:141] Setting up inception_5a/5x5_reduce
I0403 16:47:19.737395 19519 net.cpp:148] Top shape: 24 32 7 7 (37632)
I0403 16:47:19.737414 19519 net.cpp:156] Memory required for data: 1299200544
I0403 16:47:19.737437 19519 layer_factory.hpp:77] Creating layer inception_5a/relu_5x5_reduce
I0403 16:47:19.737459 19519 net.cpp:91] Creating Layer inception_5a/relu_5x5_reduce
I0403 16:47:19.737479 19519 net.cpp:425] inception_5a/relu_5x5_reduce <- inception_5a/5x5_reduce
I0403 16:47:19.737504 19519 net.cpp:386] inception_5a/relu_5x5_reduce -> inception_5a/5x5_reduce (in-place)
I0403 16:47:19.737876 19519 net.cpp:141] Setting up inception_5a/relu_5x5_reduce
I0403 16:47:19.737908 19519 net.cpp:148] Top shape: 24 32 7 7 (37632)
I0403 16:47:19.737927 19519 net.cpp:156] Memory required for data: 1299351072
I0403 16:47:19.737946 19519 layer_factory.hpp:77] Creating layer inception_5a/5x5
I0403 16:47:19.737972 19519 net.cpp:91] Creating Layer inception_5a/5x5
I0403 16:47:19.737993 19519 net.cpp:425] inception_5a/5x5 <- inception_5a/5x5_reduce
I0403 16:47:19.738019 19519 net.cpp:399] inception_5a/5x5 -> inception_5a/5x5
I0403 16:47:19.740152 19519 net.cpp:141] Setting up inception_5a/5x5
I0403 16:47:19.740200 19519 net.cpp:148] Top shape: 24 128 7 7 (150528)
I0403 16:47:19.740221 19519 net.cpp:156] Memory required for data: 1299953184
I0403 16:47:19.740242 19519 layer_factory.hpp:77] Creating layer inception_5a/relu_5x5
I0403 16:47:19.740267 19519 net.cpp:91] Creating Layer inception_5a/relu_5x5
I0403 16:47:19.740288 19519 net.cpp:425] inception_5a/relu_5x5 <- inception_5a/5x5
I0403 16:47:19.740309 19519 net.cpp:386] inception_5a/relu_5x5 -> inception_5a/5x5 (in-place)
I0403 16:47:19.740551 19519 net.cpp:141] Setting up inception_5a/relu_5x5
I0403 16:47:19.740583 19519 net.cpp:148] Top shape: 24 128 7 7 (150528)
I0403 16:47:19.740602 19519 net.cpp:156] Memory required for data: 1300555296
I0403 16:47:19.740625 19519 layer_factory.hpp:77] Creating layer inception_5a/pool
I0403 16:47:19.740646 19519 net.cpp:91] Creating Layer inception_5a/pool
I0403 16:47:19.740665 19519 net.cpp:425] inception_5a/pool <- pool4/3x3_s2_pool4/3x3_s2_0_split_3
I0403 16:47:19.740690 19519 net.cpp:399] inception_5a/pool -> inception_5a/pool
I0403 16:47:19.740778 19519 net.cpp:141] Setting up inception_5a/pool
I0403 16:47:19.740806 19519 net.cpp:148] Top shape: 24 832 7 7 (978432)
I0403 16:47:19.740824 19519 net.cpp:156] Memory required for data: 1304469024
I0403 16:47:19.740842 19519 layer_factory.hpp:77] Creating layer inception_5a/pool_proj
I0403 16:47:19.740870 19519 net.cpp:91] Creating Layer inception_5a/pool_proj
I0403 16:47:19.740892 19519 net.cpp:425] inception_5a/pool_proj <- inception_5a/pool
I0403 16:47:19.740916 19519 net.cpp:399] inception_5a/pool_proj -> inception_5a/pool_proj
I0403 16:47:19.743728 19519 net.cpp:141] Setting up inception_5a/pool_proj
I0403 16:47:19.743764 19519 net.cpp:148] Top shape: 24 128 7 7 (150528)
I0403 16:47:19.743784 19519 net.cpp:156] Memory required for data: 1305071136
I0403 16:47:19.743806 19519 layer_factory.hpp:77] Creating layer inception_5a/relu_pool_proj
I0403 16:47:19.743831 19519 net.cpp:91] Creating Layer inception_5a/relu_pool_proj
I0403 16:47:19.743852 19519 net.cpp:425] inception_5a/relu_pool_proj <- inception_5a/pool_proj
I0403 16:47:19.743873 19519 net.cpp:386] inception_5a/relu_pool_proj -> inception_5a/pool_proj (in-place)
I0403 16:47:19.744235 19519 net.cpp:141] Setting up inception_5a/relu_pool_proj
I0403 16:47:19.744267 19519 net.cpp:148] Top shape: 24 128 7 7 (150528)
I0403 16:47:19.744285 19519 net.cpp:156] Memory required for data: 1305673248
I0403 16:47:19.744303 19519 layer_factory.hpp:77] Creating layer inception_5a/output
I0403 16:47:19.744328 19519 net.cpp:91] Creating Layer inception_5a/output
I0403 16:47:19.744348 19519 net.cpp:425] inception_5a/output <- inception_5a/1x1
I0403 16:47:19.744369 19519 net.cpp:425] inception_5a/output <- inception_5a/3x3
I0403 16:47:19.744388 19519 net.cpp:425] inception_5a/output <- inception_5a/5x5
I0403 16:47:19.744407 19519 net.cpp:425] inception_5a/output <- inception_5a/pool_proj
I0403 16:47:19.744427 19519 net.cpp:399] inception_5a/output -> inception_5a/output
I0403 16:47:19.744490 19519 net.cpp:141] Setting up inception_5a/output
I0403 16:47:19.744520 19519 net.cpp:148] Top shape: 24 832 7 7 (978432)
I0403 16:47:19.744537 19519 net.cpp:156] Memory required for data: 1309586976
I0403 16:47:19.744555 19519 layer_factory.hpp:77] Creating layer inception_5a/output_inception_5a/output_0_split
I0403 16:47:19.744575 19519 net.cpp:91] Creating Layer inception_5a/output_inception_5a/output_0_split
I0403 16:47:19.744595 19519 net.cpp:425] inception_5a/output_inception_5a/output_0_split <- inception_5a/output
I0403 16:47:19.744624 19519 net.cpp:399] inception_5a/output_inception_5a/output_0_split -> inception_5a/output_inception_5a/output_0_split_0
I0403 16:47:19.744652 19519 net.cpp:399] inception_5a/output_inception_5a/output_0_split -> inception_5a/output_inception_5a/output_0_split_1
I0403 16:47:19.744676 19519 net.cpp:399] inception_5a/output_inception_5a/output_0_split -> inception_5a/output_inception_5a/output_0_split_2
I0403 16:47:19.744701 19519 net.cpp:399] inception_5a/output_inception_5a/output_0_split -> inception_5a/output_inception_5a/output_0_split_3
I0403 16:47:19.744838 19519 net.cpp:141] Setting up inception_5a/output_inception_5a/output_0_split
I0403 16:47:19.744869 19519 net.cpp:148] Top shape: 24 832 7 7 (978432)
I0403 16:47:19.744890 19519 net.cpp:148] Top shape: 24 832 7 7 (978432)
I0403 16:47:19.744910 19519 net.cpp:148] Top shape: 24 832 7 7 (978432)
I0403 16:47:19.744928 19519 net.cpp:148] Top shape: 24 832 7 7 (978432)
I0403 16:47:19.744945 19519 net.cpp:156] Memory required for data: 1325241888
I0403 16:47:19.744962 19519 layer_factory.hpp:77] Creating layer inception_5b/1x1
I0403 16:47:19.744992 19519 net.cpp:91] Creating Layer inception_5b/1x1
I0403 16:47:19.745013 19519 net.cpp:425] inception_5b/1x1 <- inception_5a/output_inception_5a/output_0_split_0
I0403 16:47:19.745039 19519 net.cpp:399] inception_5b/1x1 -> inception_5b/1x1
I0403 16:47:19.749689 19519 net.cpp:141] Setting up inception_5b/1x1
I0403 16:47:19.749727 19519 net.cpp:148] Top shape: 24 384 7 7 (451584)
I0403 16:47:19.749747 19519 net.cpp:156] Memory required for data: 1327048224
I0403 16:47:19.749770 19519 layer_factory.hpp:77] Creating layer inception_5b/relu_1x1
I0403 16:47:19.749796 19519 net.cpp:91] Creating Layer inception_5b/relu_1x1
I0403 16:47:19.749817 19519 net.cpp:425] inception_5b/relu_1x1 <- inception_5b/1x1
I0403 16:47:19.749838 19519 net.cpp:386] inception_5b/relu_1x1 -> inception_5b/1x1 (in-place)
I0403 16:47:19.750216 19519 net.cpp:141] Setting up inception_5b/relu_1x1
I0403 16:47:19.750248 19519 net.cpp:148] Top shape: 24 384 7 7 (451584)
I0403 16:47:19.750267 19519 net.cpp:156] Memory required for data: 1328854560
I0403 16:47:19.750285 19519 layer_factory.hpp:77] Creating layer inception_5b/3x3_reduce
I0403 16:47:19.750313 19519 net.cpp:91] Creating Layer inception_5b/3x3_reduce
I0403 16:47:19.750334 19519 net.cpp:425] inception_5b/3x3_reduce <- inception_5a/output_inception_5a/output_0_split_1
I0403 16:47:19.750362 19519 net.cpp:399] inception_5b/3x3_reduce -> inception_5b/3x3_reduce
I0403 16:47:19.753633 19519 net.cpp:141] Setting up inception_5b/3x3_reduce
I0403 16:47:19.753669 19519 net.cpp:148] Top shape: 24 192 7 7 (225792)
I0403 16:47:19.753690 19519 net.cpp:156] Memory required for data: 1329757728
I0403 16:47:19.753711 19519 layer_factory.hpp:77] Creating layer inception_5b/relu_3x3_reduce
I0403 16:47:19.753736 19519 net.cpp:91] Creating Layer inception_5b/relu_3x3_reduce
I0403 16:47:19.753757 19519 net.cpp:425] inception_5b/relu_3x3_reduce <- inception_5b/3x3_reduce
I0403 16:47:19.753778 19519 net.cpp:386] inception_5b/relu_3x3_reduce -> inception_5b/3x3_reduce (in-place)
I0403 16:47:19.754021 19519 net.cpp:141] Setting up inception_5b/relu_3x3_reduce
I0403 16:47:19.754055 19519 net.cpp:148] Top shape: 24 192 7 7 (225792)
I0403 16:47:19.754073 19519 net.cpp:156] Memory required for data: 1330660896
I0403 16:47:19.754091 19519 layer_factory.hpp:77] Creating layer inception_5b/3x3
I0403 16:47:19.754118 19519 net.cpp:91] Creating Layer inception_5b/3x3
I0403 16:47:19.754140 19519 net.cpp:425] inception_5b/3x3 <- inception_5b/3x3_reduce
I0403 16:47:19.754163 19519 net.cpp:399] inception_5b/3x3 -> inception_5b/3x3
I0403 16:47:19.762498 19519 net.cpp:141] Setting up inception_5b/3x3
I0403 16:47:19.762533 19519 net.cpp:148] Top shape: 24 384 7 7 (451584)
I0403 16:47:19.762553 19519 net.cpp:156] Memory required for data: 1332467232
I0403 16:47:19.762575 19519 layer_factory.hpp:77] Creating layer inception_5b/relu_3x3
I0403 16:47:19.762600 19519 net.cpp:91] Creating Layer inception_5b/relu_3x3
I0403 16:47:19.762626 19519 net.cpp:425] inception_5b/relu_3x3 <- inception_5b/3x3
I0403 16:47:19.762648 19519 net.cpp:386] inception_5b/relu_3x3 -> inception_5b/3x3 (in-place)
I0403 16:47:19.763020 19519 net.cpp:141] Setting up inception_5b/relu_3x3
I0403 16:47:19.763051 19519 net.cpp:148] Top shape: 24 384 7 7 (451584)
I0403 16:47:19.763069 19519 net.cpp:156] Memory required for data: 1334273568
I0403 16:47:19.763087 19519 layer_factory.hpp:77] Creating layer inception_5b/5x5_reduce
I0403 16:47:19.763134 19519 net.cpp:91] Creating Layer inception_5b/5x5_reduce
I0403 16:47:19.763156 19519 net.cpp:425] inception_5b/5x5_reduce <- inception_5a/output_inception_5a/output_0_split_2
I0403 16:47:19.763182 19519 net.cpp:399] inception_5b/5x5_reduce -> inception_5b/5x5_reduce
I0403 16:47:19.764783 19519 net.cpp:141] Setting up inception_5b/5x5_reduce
I0403 16:47:19.764817 19519 net.cpp:148] Top shape: 24 48 7 7 (56448)
I0403 16:47:19.764837 19519 net.cpp:156] Memory required for data: 1334499360
I0403 16:47:19.764858 19519 layer_factory.hpp:77] Creating layer inception_5b/relu_5x5_reduce
I0403 16:47:19.764883 19519 net.cpp:91] Creating Layer inception_5b/relu_5x5_reduce
I0403 16:47:19.764904 19519 net.cpp:425] inception_5b/relu_5x5_reduce <- inception_5b/5x5_reduce
I0403 16:47:19.764925 19519 net.cpp:386] inception_5b/relu_5x5_reduce -> inception_5b/5x5_reduce (in-place)
I0403 16:47:19.765383 19519 net.cpp:141] Setting up inception_5b/relu_5x5_reduce
I0403 16:47:19.765414 19519 net.cpp:148] Top shape: 24 48 7 7 (56448)
I0403 16:47:19.765434 19519 net.cpp:156] Memory required for data: 1334725152
I0403 16:47:19.765451 19519 layer_factory.hpp:77] Creating layer inception_5b/5x5
I0403 16:47:19.765476 19519 net.cpp:91] Creating Layer inception_5b/5x5
I0403 16:47:19.765496 19519 net.cpp:425] inception_5b/5x5 <- inception_5b/5x5_reduce
I0403 16:47:19.765519 19519 net.cpp:399] inception_5b/5x5 -> inception_5b/5x5
I0403 16:47:19.768082 19519 net.cpp:141] Setting up inception_5b/5x5
I0403 16:47:19.768121 19519 net.cpp:148] Top shape: 24 128 7 7 (150528)
I0403 16:47:19.768139 19519 net.cpp:156] Memory required for data: 1335327264
I0403 16:47:19.768162 19519 layer_factory.hpp:77] Creating layer inception_5b/relu_5x5
I0403 16:47:19.768183 19519 net.cpp:91] Creating Layer inception_5b/relu_5x5
I0403 16:47:19.768203 19519 net.cpp:425] inception_5b/relu_5x5 <- inception_5b/5x5
I0403 16:47:19.768224 19519 net.cpp:386] inception_5b/relu_5x5 -> inception_5b/5x5 (in-place)
I0403 16:47:19.768472 19519 net.cpp:141] Setting up inception_5b/relu_5x5
I0403 16:47:19.768502 19519 net.cpp:148] Top shape: 24 128 7 7 (150528)
I0403 16:47:19.768520 19519 net.cpp:156] Memory required for data: 1335929376
I0403 16:47:19.768537 19519 layer_factory.hpp:77] Creating layer inception_5b/pool
I0403 16:47:19.768558 19519 net.cpp:91] Creating Layer inception_5b/pool
I0403 16:47:19.768579 19519 net.cpp:425] inception_5b/pool <- inception_5a/output_inception_5a/output_0_split_3
I0403 16:47:19.768607 19519 net.cpp:399] inception_5b/pool -> inception_5b/pool
I0403 16:47:19.768699 19519 net.cpp:141] Setting up inception_5b/pool
I0403 16:47:19.768731 19519 net.cpp:148] Top shape: 24 832 7 7 (978432)
I0403 16:47:19.768750 19519 net.cpp:156] Memory required for data: 1339843104
I0403 16:47:19.768769 19519 layer_factory.hpp:77] Creating layer inception_5b/pool_proj
I0403 16:47:19.768795 19519 net.cpp:91] Creating Layer inception_5b/pool_proj
I0403 16:47:19.768816 19519 net.cpp:425] inception_5b/pool_proj <- inception_5b/pool
I0403 16:47:19.768838 19519 net.cpp:399] inception_5b/pool_proj -> inception_5b/pool_proj
I0403 16:47:19.771677 19519 net.cpp:141] Setting up inception_5b/pool_proj
I0403 16:47:19.771714 19519 net.cpp:148] Top shape: 24 128 7 7 (150528)
I0403 16:47:19.771733 19519 net.cpp:156] Memory required for data: 1340445216
I0403 16:47:19.771755 19519 layer_factory.hpp:77] Creating layer inception_5b/relu_pool_proj
I0403 16:47:19.771780 19519 net.cpp:91] Creating Layer inception_5b/relu_pool_proj
I0403 16:47:19.771801 19519 net.cpp:425] inception_5b/relu_pool_proj <- inception_5b/pool_proj
I0403 16:47:19.771822 19519 net.cpp:386] inception_5b/relu_pool_proj -> inception_5b/pool_proj (in-place)
I0403 16:47:19.772188 19519 net.cpp:141] Setting up inception_5b/relu_pool_proj
I0403 16:47:19.772220 19519 net.cpp:148] Top shape: 24 128 7 7 (150528)
I0403 16:47:19.772239 19519 net.cpp:156] Memory required for data: 1341047328
I0403 16:47:19.772258 19519 layer_factory.hpp:77] Creating layer inception_5b/output
I0403 16:47:19.772281 19519 net.cpp:91] Creating Layer inception_5b/output
I0403 16:47:19.772317 19519 net.cpp:425] inception_5b/output <- inception_5b/1x1
I0403 16:47:19.772338 19519 net.cpp:425] inception_5b/output <- inception_5b/3x3
I0403 16:47:19.772359 19519 net.cpp:425] inception_5b/output <- inception_5b/5x5
I0403 16:47:19.772378 19519 net.cpp:425] inception_5b/output <- inception_5b/pool_proj
I0403 16:47:19.772399 19519 net.cpp:399] inception_5b/output -> inception_5b/output
I0403 16:47:19.772465 19519 net.cpp:141] Setting up inception_5b/output
I0403 16:47:19.772495 19519 net.cpp:148] Top shape: 24 1024 7 7 (1204224)
I0403 16:47:19.772512 19519 net.cpp:156] Memory required for data: 1345864224
I0403 16:47:19.772531 19519 layer_factory.hpp:77] Creating layer pool5/7x7_s1
I0403 16:47:19.772552 19519 net.cpp:91] Creating Layer pool5/7x7_s1
I0403 16:47:19.772572 19519 net.cpp:425] pool5/7x7_s1 <- inception_5b/output
I0403 16:47:19.772596 19519 net.cpp:399] pool5/7x7_s1 -> pool5/7x7_s1
I0403 16:47:19.772878 19519 net.cpp:141] Setting up pool5/7x7_s1
I0403 16:47:19.772912 19519 net.cpp:148] Top shape: 24 1024 1 1 (24576)
I0403 16:47:19.772932 19519 net.cpp:156] Memory required for data: 1345962528
I0403 16:47:19.772949 19519 layer_factory.hpp:77] Creating layer pool5/drop_7x7_s1
I0403 16:47:19.772970 19519 net.cpp:91] Creating Layer pool5/drop_7x7_s1
I0403 16:47:19.772989 19519 net.cpp:425] pool5/drop_7x7_s1 <- pool5/7x7_s1
I0403 16:47:19.773010 19519 net.cpp:386] pool5/drop_7x7_s1 -> pool5/7x7_s1 (in-place)
I0403 16:47:19.773072 19519 net.cpp:141] Setting up pool5/drop_7x7_s1
I0403 16:47:19.773102 19519 net.cpp:148] Top shape: 24 1024 1 1 (24576)
I0403 16:47:19.773118 19519 net.cpp:156] Memory required for data: 1346060832
I0403 16:47:19.773135 19519 layer_factory.hpp:77] Creating layer loss3/classifier_plantvillage
I0403 16:47:19.773161 19519 net.cpp:91] Creating Layer loss3/classifier_plantvillage
I0403 16:47:19.773181 19519 net.cpp:425] loss3/classifier_plantvillage <- pool5/7x7_s1
I0403 16:47:19.773203 19519 net.cpp:399] loss3/classifier_plantvillage -> loss3/classifier_plantvillage
I0403 16:47:19.773738 19519 net.cpp:141] Setting up loss3/classifier_plantvillage
I0403 16:47:19.773771 19519 net.cpp:148] Top shape: 24 38 (912)
I0403 16:47:19.773787 19519 net.cpp:156] Memory required for data: 1346064480
I0403 16:47:19.773809 19519 layer_factory.hpp:77] Creating layer loss3/classifier_plantvillage_loss3/classifier_plantvillage_0_split
I0403 16:47:19.773831 19519 net.cpp:91] Creating Layer loss3/classifier_plantvillage_loss3/classifier_plantvillage_0_split
I0403 16:47:19.773850 19519 net.cpp:425] loss3/classifier_plantvillage_loss3/classifier_plantvillage_0_split <- loss3/classifier_plantvillage
I0403 16:47:19.773875 19519 net.cpp:399] loss3/classifier_plantvillage_loss3/classifier_plantvillage_0_split -> loss3/classifier_plantvillage_loss3/classifier_plantvillage_0_split_0
I0403 16:47:19.773901 19519 net.cpp:399] loss3/classifier_plantvillage_loss3/classifier_plantvillage_0_split -> loss3/classifier_plantvillage_loss3/classifier_plantvillage_0_split_1
I0403 16:47:19.773926 19519 net.cpp:399] loss3/classifier_plantvillage_loss3/classifier_plantvillage_0_split -> loss3/classifier_plantvillage_loss3/classifier_plantvillage_0_split_2
I0403 16:47:19.773952 19519 net.cpp:399] loss3/classifier_plantvillage_loss3/classifier_plantvillage_0_split -> loss3/classifier_plantvillage_loss3/classifier_plantvillage_0_split_3
I0403 16:47:19.774077 19519 net.cpp:141] Setting up loss3/classifier_plantvillage_loss3/classifier_plantvillage_0_split
I0403 16:47:19.774106 19519 net.cpp:148] Top shape: 24 38 (912)
I0403 16:47:19.774126 19519 net.cpp:148] Top shape: 24 38 (912)
I0403 16:47:19.774144 19519 net.cpp:148] Top shape: 24 38 (912)
I0403 16:47:19.774163 19519 net.cpp:148] Top shape: 24 38 (912)
I0403 16:47:19.774179 19519 net.cpp:156] Memory required for data: 1346079072
I0403 16:47:19.774197 19519 layer_factory.hpp:77] Creating layer loss1/loss
I0403 16:47:19.774222 19519 net.cpp:91] Creating Layer loss1/loss
I0403 16:47:19.774243 19519 net.cpp:425] loss1/loss <- loss1/classifier_plantvillage_loss1/classifier_plantvillage_0_split_0
I0403 16:47:19.774279 19519 net.cpp:425] loss1/loss <- label_data_1_split_0
…
