…
I0403 15:58:25.421257 16525 net.cpp:313] The NetState phase (1) differed from the phase (0) specified by a rule in layer data
I0403 15:58:25.422399 16525 net.cpp:49] Initializing net from parameters: 
state {
  phase: TEST
}
layer {
  name: "data"
  type: "Data"
  top: "data"
  top: "label"
  include {
    phase: TEST
  }
  transform_param {
    mirror: false
    crop_size: 224
    mean_file: "/home/mohanty/data/final_dataset/lmdb/color-20-80/mean.binaryproto"
  }
  data_param {
    source: "/home/mohanty/data/final_dataset/lmdb/color-20-80/test_db"
    batch_size: 24
    backend: LMDB
  }
}
layer {
  name: "conv1/7x7_s2"
  type: "Convolution"
  bottom: "data"
  top: "conv1/7x7_s2"
  param {
    lr_mult: 1
    decay_mult: 1
  }
  param {
    lr_mult: 2
    decay_mult: 0
  }
  convolution_param {
    num_output: 64
    pad: 3
    kernel_size: 7
    stride: 2
    weight_filler {
      type: "xavier"
      std: 0.1
    }
    bias_filler {
      type: "constant"
      value: 0.2
    }
  }
}
layer {
  name: "conv1/relu_7x7"
  type: "ReLU"
  bottom: "conv1/7x7_s2"
  top: "conv1/7x7_s2"
}
layer {
  name: "pool1/3x3_s2"
  type: "Pooling"
  bottom: "conv1/7x7_s2"
  top: "pool1/3x3_s2"
  pooling_param {
    pool: MAX
    kernel_size: 3
    stride: 2
  }
}
layer {
  name: "pool1/norm1"
  type: "LRN"
  bottom: "pool1/3x3_s2"
  top: "pool1/norm1"
  lrn_param {
    local_size: 5
    alpha: 0.0001
    beta: 0.75
  }
}
layer {
  name: "conv2/3x3_reduce"
  type: "Convolution"
  bottom: "pool1/norm1"
  top: "conv2/3x3_reduce"
  param {
    lr_mult: 1
    decay_mult: 1
  }
  param {
    lr_mult: 2
    decay_mult: 0
  }
  convolution_param {
    num_output: 64
    kernel_size: 1
    weight_filler {
      type: "xavier"
      std: 0.1
    }
    bias_filler {
      type: "constant"
      value: 0.2
    }
  }
}
layer {
  name: "conv2/relu_3x3_reduce"
  type: "ReLU"
  bottom: "conv2/3x3_reduce"
  top: "conv2/3x3_reduce"
}
layer {
  name: "conv2/3x3"
  type: "Convolution"
  bottom: "conv2/3x3_reduce"
  top: "conv2/3x3"
  param {
    lr_mult: 1
    decay_mult: 1
  }
  param {
    lr_mult: 2
    decay_mult: 0
  }
  convolution_param {
    num_output: 192
    pad: 1
    kernel_size: 3
    weight_filler {
      type: "xavier"
      std: 0.03
    }
    bias_filler {
      type: "constant"
      value: 0.2
    }
  }
}
layer {
  name: "conv2/relu_3x3"
  type: "ReLU"
  bottom: "conv2/3x3"
  top: "conv2/3x3"
}
layer {
  name: "conv2/norm2"
  type: "LRN"
  bottom: "conv2/3x3"
  top: "conv2/norm2"
  lrn_param {
    local_size: 5
    alpha: 0.0001
    beta: 0.75
  }
}
layer {
  name: "pool2/3x3_s2"
  type: "Pooling"
  bottom: "conv2/norm2"
  top: "pool2/3x3_s2"
  pooling_param {
    pool: MAX
    kernel_size: 3
    stride: 2
  }
}
layer {
  name: "inception_3a/1x1"
  type: "Convolution"
  bottom: "pool2/3x3_s2"
  top: "inception_3a/1x1"
  param {
    lr_mult: 1
    decay_mult: 1
  }
  param {
    lr_mult: 2
    decay_mult: 0
  }
  convolution_param {
    num_output: 64
    kernel_size: 1
    weight_filler {
      type: "xavier"
      std: 0.03
    }
    bias_filler {
      type: "constant"
      value: 0.2
    }
  }
}
layer {
  name: "inception_3a/relu_1x1"
  type: "ReLU"
  bottom: "inception_3a/1x1"
  top: "inception_3a/1x1"
}
layer {
  name: "inception_3a/3x3_reduce"
  type: "Convolution"
  bottom: "pool2/3x3_s2"
  top: "inception_3a/3x3_reduce"
  param {
    lr_mult: 1
    decay_mult: 1
  }
  param {
    lr_mult: 2
    decay_mult: 0
  }
  convolution_param {
    num_output: 96
    kernel_size: 1
    weight_filler {
      type: "xavier"
      std: 0.09
    }
    bias_filler {
      type: "constant"
      value: 0.2
    }
  }
}
layer {
  name: "inception_3a/relu_3x3_reduce"
  type: "ReLU"
  bottom: "inception_3a/3x3_reduce"
  top: "inception_3a/3x3_reduce"
}
layer {
  name: "inception_3a/3x3"
  type: "Convolution"
  bottom: "inception_3a/3x3_reduce"
  top: "inception_3a/3x3"
  param {
    lr_mult: 1
    decay_mult: 1
  }
  param {
    lr_mult: 2
    decay_mult: 0
  }
  convolution_param {
    num_output: 128
    pad: 1
    kernel_size: 3
    weight_filler {
      type: "xavier"
      std: 0.03
    }
    bias_filler {
      type: "constant"
      value: 0.2
    }
  }
}
layer {
  name: "inception_3a/relu_3x3"
  type: "ReLU"
  bottom: "inception_3a/3x3"
  top: "inception_3a/3x3"
}
layer {
  name: "inception_3a/5x5_reduce"
  type: "Convolution"
  bottom: "pool2/3x3_s2"
  top: "inception_3a/5x5_reduce"
  param {
    lr_mult: 1
    decay_mult: 1
  }
  param {
    lr_mult: 2
    decay_mult: 0
  }
  convolution_param {
    num_output: 16
    kernel_size: 1
    weight_filler {
      type: "xavier"
      std: 0.2
    }
    bias_filler {
      type: "constant"
      value: 0.2
    }
  }
}
layer {
  name: "inception_3a/relu_5x5_reduce"
  type: "ReLU"
  bottom: "inception_3a/5x5_reduce"
  top: "inception_3a/5x5_reduce"
}
layer {
  name: "inception_3a/5x5"
  type: "Convolution"
  bottom: "inception_3a/5x5_reduce"
  top: "inception_3a/5x5"
  param {
    lr_mult: 1
    decay_mult: 1
  }
  param {
    lr_mult: 2
    decay_mult: 0
  }
  convolution_param {
    num_output: 32
    pad: 2
    kernel_size: 5
    weight_filler {
      type: "xavier"
      std: 0.03
    }
    bias_filler {
      type: "constant"
      value: 0.2
    }
  }
}
layer {
  name: "inception_3a/relu_5x5"
  type: "ReLU"
  bottom: "inception_3a/5x5"
  top: "inception_3a/5x5"
}
layer {
  name: "inception_3a/pool"
  type: "Pooling"
  bottom: "pool2/3x3_s2"
  top: "inception_3a/pool"
  pooling_param {
    pool: MAX
    kernel_size: 3
    stride: 1
    pad: 1
  }
}
layer {
  name: "inception_3a/pool_proj"
  type: "Convolution"
  bottom: "inception_3a/pool"
  top: "inception_3a/pool_proj"
  param {
    lr_mult: 1
    decay_mult: 1
  }
  param {
    lr_mult: 2
    decay_mult: 0
  }
  convolution_param {
    num_output: 32
    kernel_size: 1
    weight_filler {
      type: "xavier"
      std: 0.1
    }
    bias_filler {
      type: "constant"
      value: 0.2
    }
  }
}
layer {
  name: "inception_3a/relu_pool_proj"
  type: "ReLU"
  bottom: "inception_3a/pool_proj"
  top: "inception_3a/pool_proj"
}
layer {
  name: "inception_3a/output"
  type: "Concat"
  bottom: "inception_3a/1x1"
  bottom: "inception_3a/3x3"
  bottom: "inception_3a/5x5"
  bottom: "inception_3a/pool_proj"
  top: "inception_3a/output"
}
layer {
  name: "inception_3b/1x1"
  type: "Convolution"
  bottom: "inception_3a/output"
  top: "inception_3b/1x1"
  param {
    lr_mult: 1
    decay_mult: 1
  }
  param {
    lr_mult: 2
    decay_mult: 0
  }
  convolution_param {
    num_output: 128
    kernel_size: 1
    weight_filler {
      type: "xavier"
      std: 0.03
    }
    bias_filler {
      type: "constant"
      value: 0.2
    }
  }
}
layer {
  name: "inception_3b/relu_1x1"
  type: "ReLU"
  bottom: "inception_3b/1x1"
  top: "inception_3b/1x1"
}
layer {
  name: "inception_3b/3x3_reduce"
  type: "Convolution"
  bottom: "inception_3a/output"
  top: "inception_3b/3x3_reduce"
  param {
    lr_mult: 1
    decay_mult: 1
  }
  param {
    lr_mult: 2
    decay_mult: 0
  }
  convolution_param {
    num_output: 128
    kernel_size: 1
    weight_filler {
      type: "xavier"
      std: 0.09
    }
    bias_filler {
      type: "constant"
      value: 0.2
    }
  }
}
layer {
  name: "inception_3b/relu_3x3_reduce"
  type: "ReLU"
  bottom: "inception_3b/3x3_reduce"
  top: "inception_3b/3x3_reduce"
}
layer {
  name: "inception_3b/3x3"
  type: "Convolution"
  bottom: "inception_3b/3x3_reduce"
  top: "inception_3b/3x3"
  param {
    lr_mult: 1
    decay_mult: 1
  }
  param {
    lr_mult: 2
    decay_mult: 0
  }
  convolution_param {
    num_output: 192
    pad: 1
    kernel_size: 3
    weight_filler {
      type: "xavier"
      std: 0.03
    }
    bias_filler {
      type: "constant"
      value: 0.2
    }
  }
}
layer {
  name: "inception_3b/relu_3x3"
  type: "ReLU"
  bottom: "inception_3b/3x3"
  top: "inception_3b/3x3"
}
layer {
  name: "inception_3b/5x5_reduce"
  type: "Convolution"
  bottom: "inception_3a/output"
  top: "inception_3b/5x5_reduce"
  param {
    lr_mult: 1
    decay_mult: 1
  }
  param {
    lr_mult: 2
    decay_mult: 0
  }
  convolution_param {
    num_output: 32
    kernel_size: 1
    weight_filler {
      type: "xavier"
      std: 0.2
    }
    bias_filler {
      type: "constant"
      value: 0.2
    }
  }
}
layer {
  name: "inception_3b/relu_5x5_reduce"
  type: "ReLU"
  bottom: "inception_3b/5x5_reduce"
  top: "inception_3b/5x5_reduce"
}
layer {
  name: "inception_3b/5x5"
  type: "Convolution"
  bottom: "inception_3b/5x5_reduce"
  top: "inception_3b/5x5"
  param {
    lr_mult: 1
    decay_mult: 1
  }
  param {
    lr_mult: 2
    decay_mult: 0
  }
  convolution_param {
    num_output: 96
    pad: 2
    kernel_size: 5
    weight_filler {
      type: "xavier"
      std: 0.03
    }
    bias_filler {
      type: "constant"
      value: 0.2
    }
  }
}
layer {
  name: "inception_3b/relu_5x5"
  type: "ReLU"
  bottom: "inception_3b/5x5"
  top: "inception_3b/5x5"
}
layer {
  name: "inception_3b/pool"
  type: "Pooling"
  bottom: "inception_3a/output"
  top: "inception_3b/pool"
  pooling_param {
    pool: MAX
    kernel_size: 3
    stride: 1
    pad: 1
  }
}
layer {
  name: "inception_3b/pool_proj"
  type: "Convolution"
  bottom: "inception_3b/pool"
  top: "inception_3b/pool_proj"
  param {
    lr_mult: 1
    decay_mult: 1
  }
  param {
    lr_mult: 2
    decay_mult: 0
  }
  convolution_param {
    num_output: 64
    kernel_size: 1
    weight_filler {
      type: "xavier"
      std: 0.1
    }
    bias_filler {
      type: "constant"
      value: 0.2
    }
  }
}
layer {
  name: "inception_3b/relu_pool_proj"
  type: "ReLU"
  bottom: "inception_3b/pool_proj"
  top: "inception_3b/pool_proj"
}
layer {
  name: "inception_3b/output"
  type: "Concat"
  bottom: "inception_3b/1x1"
  bottom: "inception_3b/3x3"
  bottom: "inception_3b/5x5"
  bottom: "inception_3b/pool_proj"
  top: "inception_3b/output"
}
layer {
  name: "pool3/3x3_s2"
  type: "Pooling"
  bottom: "inception_3b/output"
  top: "pool3/3x3_s2"
  pooling_param {
    pool: MAX
    kernel_size: 3
    stride: 2
  }
}
layer {
  name: "inception_4a/1x1"
  type: "Convolution"
  bottom: "pool3/3x3_s2"
  top: "inception_4a/1x1"
  param {
    lr_mult: 1
    decay_mult: 1
  }
  param {
    lr_mult: 2
    decay_mult: 0
  }
  convolution_param {
    num_output: 192
    kernel_size: 1
    weight_filler {
      type: "xavier"
      std: 0.03
    }
    bias_filler {
      type: "constant"
      value: 0.2
    }
  }
}
layer {
  name: "inception_4a/relu_1x1"
  type: "ReLU"
  bottom: "inception_4a/1x1"
  top: "inception_4a/1x1"
}
layer {
  name: "inception_4a/3x3_reduce"
  type: "Convolution"
  bottom: "pool3/3x3_s2"
  top: "inception_4a/3x3_reduce"
  param {
    lr_mult: 1
    decay_mult: 1
  }
  param {
    lr_mult: 2
    decay_mult: 0
  }
  convolution_param {
    num_output: 96
    kernel_size: 1
    weight_filler {
      type: "xavier"
      std: 0.09
    }
    bias_filler {
      type: "constant"
      value: 0.2
    }
  }
}
layer {
  name: "inception_4a/relu_3x3_reduce"
  type: "ReLU"
  bottom: "inception_4a/3x3_reduce"
  top: "inception_4a/3x3_reduce"
}
layer {
  name: "inception_4a/3x3"
  type: "Convolution"
  bottom: "inception_4a/3x3_reduce"
  top: "inception_4a/3x3"
  param {
    lr_mult: 1
    decay_mult: 1
  }
  param {
    lr_mult: 2
    decay_mult: 0
  }
  convolution_param {
    num_output: 208
    pad: 1
    kernel_size: 3
    weight_filler {
      type: "xavier"
      std: 0.03
    }
    bias_filler {
      type: "constant"
      value: 0.2
    }
  }
}
layer {
  name: "inception_4a/relu_3x3"
  type: "ReLU"
  bottom: "inception_4a/3x3"
  top: "inception_4a/3x3"
}
layer {
  name: "inception_4a/5x5_reduce"
  type: "Convolution"
  bottom: "pool3/3x3_s2"
  top: "inception_4a/5x5_reduce"
  param {
    lr_mult: 1
    decay_mult: 1
  }
  param {
    lr_mult: 2
    decay_mult: 0
  }
  convolution_param {
    num_output: 16
    kernel_size: 1
    weight_filler {
      type: "xavier"
      std: 0.2
    }
    bias_filler {
      type: "constant"
      value: 0.2
    }
  }
}
layer {
  name: "inception_4a/relu_5x5_reduce"
  type: "ReLU"
  bottom: "inception_4a/5x5_reduce"
  top: "inception_4a/5x5_reduce"
}
layer {
  name: "inception_4a/5x5"
  type: "Convolution"
  bottom: "inception_4a/5x5_reduce"
  top: "inception_4a/5x5"
  param {
    lr_mult: 1
    decay_mult: 1
  }
  param {
    lr_mult: 2
    decay_mult: 0
  }
  convolution_param {
    num_output: 48
    pad: 2
    kernel_size: 5
    weight_filler {
      type: "xavier"
      std: 0.03
    }
    bias_filler {
      type: "constant"
      value: 0.2
    }
  }
}
layer {
  name: "inception_4a/relu_5x5"
  type: "ReLU"
  bottom: "inception_4a/5x5"
  top: "inception_4a/5x5"
}
layer {
  name: "inception_4a/pool"
  type: "Pooling"
  bottom: "pool3/3x3_s2"
  top: "inception_4a/pool"
  pooling_param {
    pool: MAX
    kernel_size: 3
    stride: 1
    pad: 1
  }
}
layer {
  name: "inception_4a/pool_proj"
  type: "Convolution"
  bottom: "inception_4a/pool"
  top: "inception_4a/pool_proj"
  param {
    lr_mult: 1
    decay_mult: 1
  }
  param {
    lr_mult: 2
    decay_mult: 0
  }
  convolution_param {
    num_output: 64
    kernel_size: 1
    weight_filler {
      type: "xavier"
      std: 0.1
    }
    bias_filler {
      type: "constant"
      value: 0.2
    }
  }
}
layer {
  name: "inception_4a/relu_pool_proj"
  type: "ReLU"
  bottom: "inception_4a/pool_proj"
  top: "inception_4a/pool_proj"
}
layer {
  name: "inception_4a/output"
  type: "Concat"
  bottom: "inception_4a/1x1"
  bottom: "inception_4a/3x3"
  bottom: "inception_4a/5x5"
  bottom: "inception_4a/pool_proj"
  top: "inception_4a/output"
}
layer {
  name: "loss1/ave_pool"
  type: "Pooling"
  bottom: "inception_4a/output"
  top: "loss1/ave_pool"
  pooling_param {
    pool: AVE
    kernel_size: 5
    stride: 3
  }
}
layer {
  name: "loss1/conv"
  type: "Convolution"
  bottom: "loss1/ave_pool"
  top: "loss1/conv"
  param {
    lr_mult: 1
    decay_mult: 1
  }
  param {
    lr_mult: 2
    decay_mult: 0
  }
  convolution_param {
    num_output: 128
    kernel_size: 1
    weight_filler {
      type: "xavier"
      std: 0.08
    }
    bias_filler {
      type: "constant"
      value: 0.2
    }
  }
}
layer {
  name: "loss1/relu_conv"
  type: "ReLU"
  bottom: "loss1/conv"
  top: "loss1/conv"
}
layer {
  name: "loss1/fc"
  type: "InnerProduct"
  bottom: "loss1/conv"
  top: "loss1/fc"
  param {
    lr_mult: 1
    decay_mult: 1
  }
  param {
    lr_mult: 2
    decay_mult: 0
  }
  inner_product_param {
    num_output: 1024
    weight_filler {
      type: "xavier"
      std: 0.02
    }
    bias_filler {
      type: "constant"
      value: 0.2
    }
  }
}
layer {
  name: "loss1/relu_fc"
  type: "ReLU"
  bottom: "loss1/fc"
  top: "loss1/fc"
}
layer {
  name: "loss1/drop_fc"
  type: "Dropout"
  bottom: "loss1/fc"
  top: "loss1/fc"
  dropout_param {
    dropout_ratio: 0.7
  }
}
layer {
  name: "loss1/classifier_plantvillage"
  type: "InnerProduct"
  bottom: "loss1/fc"
  top: "loss1/classifier_plantvillage"
  param {
    lr_mult: 1
    decay_mult: 1
  }
  param {
    lr_mult: 2
    decay_mult: 0
  }
  inner_product_param {
    num_output: 38
    weight_filler {
      type: "xavier"
      std: 0.0009765625
    }
    bias_filler {
      type: "constant"
      value: 0
    }
  }
}
layer {
  name: "inception_4b/1x1"
  type: "Convolution"
  bottom: "inception_4a/output"
  top: "inception_4b/1x1"
  param {
    lr_mult: 1
    decay_mult: 1
  }
  param {
    lr_mult: 2
    decay_mult: 0
  }
  convolution_param {
    num_output: 160
    kernel_size: 1
    weight_filler {
      type: "xavier"
      std: 0.03
    }
    bias_filler {
      type: "constant"
      value: 0.2
    }
  }
}
layer {
  name: "inception_4b/relu_1x1"
  type: "ReLU"
  bottom: "inception_4b/1x1"
  top: "inception_4b/1x1"
}
layer {
  name: "inception_4b/3x3_reduce"
  type: "Convolution"
  bottom: "inception_4a/output"
  top: "inception_4b/3x3_reduce"
  param {
    lr_mult: 1
    decay_mult: 1
  }
  param {
    lr_mult: 2
    decay_mult: 0
  }
  convolution_param {
    num_output: 112
    kernel_size: 1
    weight_filler {
      type: "xavier"
      std: 0.09
    }
    bias_filler {
      type: "constant"
      value: 0.2
    }
  }
}
layer {
  name: "inception_4b/relu_3x3_reduce"
  type: "ReLU"
  bottom: "inception_4b/3x3_reduce"
  top: "inception_4b/3x3_reduce"
}
layer {
  name: "inception_4b/3x3"
  type: "Convolution"
  bottom: "inception_4b/3x3_reduce"
  top: "inception_4b/3x3"
  param {
    lr_mult: 1
    decay_mult: 1
  }
  param {
    lr_mult: 2
    decay_mult: 0
  }
  convolution_param {
    num_output: 224
    pad: 1
    kernel_size: 3
    weight_filler {
      type: "xavier"
      std: 0.03
    }
    bias_filler {
      type: "constant"
      value: 0.2
    }
  }
}
layer {
  name: "inception_4b/relu_3x3"
  type: "ReLU"
  bottom: "inception_4b/3x3"
  top: "inception_4b/3x3"
}
layer {
  name: "inception_4b/5x5_reduce"
  type: "Convolution"
  bottom: "inception_4a/output"
  top: "inception_4b/5x5_reduce"
  param {
    lr_mult: 1
    decay_mult: 1
  }
  param {
    lr_mult: 2
    decay_mult: 0
  }
  convolution_param {
    num_output: 24
    kernel_size: 1
    weight_filler {
      type: "xavier"
      std: 0.2
    }
    bias_filler {
      type: "constant"
      value: 0.2
    }
  }
}
layer {
  name: "inception_4b/relu_5x5_reduce"
  type: "ReLU"
  bottom: "inception_4b/5x5_reduce"
  top: "inception_4b/5x5_reduce"
}
layer {
  name: "inception_4b/5x5"
  type: "Convolution"
  bottom: "inception_4b/5x5_reduce"
  top: "inception_4b/5x5"
  param {
    lr_mult: 1
    decay_mult: 1
  }
  param {
    lr_mult: 2
    decay_mult: 0
  }
  convolution_param {
    num_output: 64
    pad: 2
    kernel_size: 5
    weight_filler {
      type: "xavier"
      std: 0.03
    }
    bias_filler {
      type: "constant"
      value: 0.2
    }
  }
}
layer {
  name: "inception_4b/relu_5x5"
  type: "ReLU"
  bottom: "inception_4b/5x5"
  top: "inception_4b/5x5"
}
layer {
  name: "inception_4b/pool"
  type: "Pooling"
  bottom: "inception_4a/output"
  top: "inception_4b/pool"
  pooling_param {
    pool: MAX
    kernel_size: 3
    stride: 1
    pad: 1
  }
}
layer {
  name: "inception_4b/pool_proj"
  type: "Convolution"
  bottom: "inception_4b/pool"
  top: "inception_4b/pool_proj"
  param {
    lr_mult: 1
    decay_mult: 1
  }
  param {
    lr_mult: 2
    decay_mult: 0
  }
  convolution_param {
    num_output: 64
    kernel_size: 1
    weight_filler {
      type: "xavier"
      std: 0.1
    }
    bias_filler {
      type: "constant"
      value: 0.2
    }
  }
}
layer {
  name: "inception_4b/relu_pool_proj"
  type: "ReLU"
  bottom: "inception_4b/pool_proj"
  top: "inception_4b/pool_proj"
}
layer {
  name: "inception_4b/output"
  type: "Concat"
  bottom: "inception_4b/1x1"
  bottom: "inception_4b/3x3"
  bottom: "inception_4b/5x5"
  bottom: "inception_4b/pool_proj"
  top: "inception_4b/output"
}
layer {
  name: "inception_4c/1x1"
  type: "Convolution"
  bottom: "inception_4b/output"
  top: "inception_4c/1x1"
  param {
    lr_mult: 1
    decay_mult: 1
  }
  param {
    lr_mult: 2
    decay_mult: 0
  }
  convolution_param {
    num_output: 128
    kernel_size: 1
    weight_filler {
      type: "xavier"
      std: 0.03
    }
    bias_filler {
      type: "constant"
      value: 0.2
    }
  }
}
layer {
  name: "inception_4c/relu_1x1"
  type: "ReLU"
  bottom: "inception_4c/1x1"
  top: "inception_4c/1x1"
}
layer {
  name: "inception_4c/3x3_reduce"
  type: "Convolution"
  bottom: "inception_4b/output"
  top: "inception_4c/3x3_reduce"
  param {
    lr_mult: 1
    decay_mult: 1
  }
  param {
    lr_mult: 2
    decay_mult: 0
  }
  convolution_param {
    num_output: 128
    kernel_size: 1
    weight_filler {
      type: "xavier"
      std: 0.09
    }
    bias_filler {
      type: "constant"
      value: 0.2
    }
  }
}
layer {
  name: "inception_4c/relu_3x3_reduce"
  type: "ReLU"
  bottom: "inception_4c/3x3_reduce"
  top: "inception_4c/3x3_reduce"
}
layer {
  name: "inception_4c/3x3"
  type: "Convolution"
  bottom: "inception_4c/3x3_reduce"
  top: "inception_4c/3x3"
  param {
    lr_mult: 1
    decay_mult: 1
  }
  param {
    lr_mult: 2
    decay_mult: 0
  }
  convolution_param {
    num_output: 256
    pad: 1
    kernel_size: 3
    weight_filler {
      type: "xavier"
      std: 0.03
    }
    bias_filler {
      type: "constant"
      value: 0.2
    }
  }
}
layer {
  name: "inception_4c/relu_3x3"
  type: "ReLU"
  bottom: "inception_4c/3x3"
  top: "inception_4c/3x3"
}
layer {
  name: "inception_4c/5x5_reduce"
  type: "Convolution"
  bottom: "inception_4b/output"
  top: "inception_4c/5x5_reduce"
  param {
    lr_mult: 1
    decay_mult: 1
  }
  param {
    lr_mult: 2
    decay_mult: 0
  }
  convolution_param {
    num_output: 24
    kernel_size: 1
    weight_filler {
      type: "xavier"
      std: 0.2
    }
    bias_filler {
      type: "constant"
      value: 0.2
    }
  }
}
layer {
  name: "inception_4c/relu_5x5_reduce"
  type: "ReLU"
  bottom: "inception_4c/5x5_reduce"
  top: "inception_4c/5x5_reduce"
}
layer {
  name: "inception_4c/5x5"
  type: "Convolution"
  bottom: "inception_4c/5x5_reduce"
  top: "inception_4c/5x5"
  param {
    lr_mult: 1
    decay_mult: 1
  }
  param {
    lr_mult: 2
    decay_mult: 0
  }
  convolution_param {
    num_output: 64
    pad: 2
    kernel_size: 5
    weight_filler {
      type: "xavier"
      std: 0.03
    }
    bias_filler {
      type: "constant"
      value: 0.2
    }
  }
}
layer {
  name: "inception_4c/relu_5x5"
  type: "ReLU"
  bottom: "inception_4c/5x5"
  top: "inception_4c/5x5"
}
layer {
  name: "inception_4c/pool"
  type: "Pooling"
  bottom: "inception_4b/output"
  top: "inception_4c/pool"
  pooling_param {
    pool: MAX
    kernel_size: 3
    stride: 1
    pad: 1
  }
}
layer {
  name: "inception_4c/pool_proj"
  type: "Convolution"
  bottom: "inception_4c/pool"
  top: "inception_4c/pool_proj"
  param {
    lr_mult: 1
    decay_mult: 1
  }
  param {
    lr_mult: 2
    decay_mult: 0
  }
  convolution_param {
    num_output: 64
    kernel_size: 1
    weight_filler {
      type: "xavier"
      std: 0.1
    }
    bias_filler {
      type: "constant"
      value: 0.2
    }
  }
}
layer {
  name: "inception_4c/relu_pool_proj"
  type: "ReLU"
  bottom: "inception_4c/pool_proj"
  top: "inception_4c/pool_proj"
}
layer {
  name: "inception_4c/output"
  type: "Concat"
  bottom: "inception_4c/1x1"
  bottom: "inception_4c/3x3"
  bottom: "inception_4c/5x5"
  bottom: "inception_4c/pool_proj"
  top: "inception_4c/output"
}
layer {
  name: "inception_4d/1x1"
  type: "Convolution"
  bottom: "inception_4c/output"
  top: "inception_4d/1x1"
  param {
    lr_mult: 1
    decay_mult: 1
  }
  param {
    lr_mult: 2
    decay_mult: 0
  }
  convolution_param {
    num_output: 112
    kernel_size: 1
    weight_filler {
      type: "xavier"
      std: 0.03
    }
    bias_filler {
      type: "constant"
      value: 0.2
    }
  }
}
layer {
  name: "inception_4d/relu_1x1"
  type: "ReLU"
  bottom: "inception_4d/1x1"
  top: "inception_4d/1x1"
}
layer {
  name: "inception_4d/3x3_reduce"
  type: "Convolution"
  bottom: "inception_4c/output"
  top: "inception_4d/3x3_reduce"
  param {
    lr_mult: 1
    decay_mult: 1
  }
  param {
    lr_mult: 2
    decay_mult: 0
  }
  convolution_param {
    num_output: 144
    kernel_size: 1
    weight_filler {
      type: "xavier"
      std: 0.09
    }
    bias_filler {
      type: "constant"
      value: 0.2
    }
  }
}
layer {
  name: "inception_4d/relu_3x3_reduce"
  type: "ReLU"
  bottom: "inception_4d/3x3_reduce"
  top: "inception_4d/3x3_reduce"
}
layer {
  name: "inception_4d/3x3"
  type: "Convolution"
  bottom: "inception_4d/3x3_reduce"
  top: "inception_4d/3x3"
  param {
    lr_mult: 1
    decay_mult: 1
  }
  param {
    lr_mult: 2
    decay_mult: 0
  }
  convolution_param {
    num_output: 288
    pad: 1
    kernel_size: 3
    weight_filler {
      type: "xavier"
      std: 0.03
    }
    bias_filler {
      type: "constant"
      value: 0.2
    }
  }
}
layer {
  name: "inception_4d/relu_3x3"
  type: "ReLU"
  bottom: "inception_4d/3x3"
  top: "inception_4d/3x3"
}
layer {
  name: "inception_4d/5x5_reduce"
  type: "Convolution"
  bottom: "inception_4c/output"
  top: "inception_4d/5x5_reduce"
  param {
    lr_mult: 1
    decay_mult: 1
  }
  param {
    lr_mult: 2
    decay_mult: 0
  }
  convolution_param {
    num_output: 32
    kernel_size: 1
    weight_filler {
      type: "xavier"
      std: 0.2
    }
    bias_filler {
      type: "constant"
      value: 0.2
    }
  }
}
layer {
  name: "inception_4d/relu_5x5_reduce"
  type: "ReLU"
  bottom: "inception_4d/5x5_reduce"
  top: "inception_4d/5x5_reduce"
}
layer {
  name: "inception_4d/5x5"
  type: "Convolution"
  bottom: "inception_4d/5x5_reduce"
  top: "inception_4d/5x5"
  param {
    lr_mult: 1
    decay_mult: 1
  }
  param {
    lr_mult: 2
    decay_mult: 0
  }
  convolution_param {
    num_output: 64
    pad: 2
    kernel_size: 5
    weight_filler {
      type: "xavier"
      std: 0.03
    }
    bias_filler {
      type: "constant"
      value: 0.2
    }
  }
}
layer {
  name: "inception_4d/relu_5x5"
  type: "ReLU"
  bottom: "inception_4d/5x5"
  top: "inception_4d/5x5"
}
layer {
  name: "inception_4d/pool"
  type: "Pooling"
  bottom: "inception_4c/output"
  top: "inception_4d/pool"
  pooling_param {
    pool: MAX
    kernel_size: 3
    stride: 1
    pad: 1
  }
}
layer {
  name: "inception_4d/pool_proj"
  type: "Convolution"
  bottom: "inception_4d/pool"
  top: "inception_4d/pool_proj"
  param {
    lr_mult: 1
    decay_mult: 1
  }
  param {
    lr_mult: 2
    decay_mult: 0
  }
  convolution_param {
    num_output: 64
    kernel_size: 1
    weight_filler {
      type: "xavier"
      std: 0.1
    }
    bias_filler {
      type: "constant"
      value: 0.2
    }
  }
}
layer {
  name: "inception_4d/relu_pool_proj"
  type: "ReLU"
  bottom: "inception_4d/pool_proj"
  top: "inception_4d/pool_proj"
}
layer {
  name: "inception_4d/output"
  type: "Concat"
  bottom: "inception_4d/1x1"
  bottom: "inception_4d/3x3"
  bottom: "inception_4d/5x5"
  bottom: "inception_4d/pool_proj"
  top: "inception_4d/output"
}
layer {
  name: "loss2/ave_pool"
  type: "Pooling"
  bottom: "inception_4d/output"
  top: "loss2/ave_pool"
  pooling_param {
    pool: AVE
    kernel_size: 5
    stride: 3
  }
}
layer {
  name: "loss2/conv"
  type: "Convolution"
  bottom: "loss2/ave_pool"
  top: "loss2/conv"
  param {
    lr_mult: 1
    decay_mult: 1
  }
  param {
    lr_mult: 2
    decay_mult: 0
  }
  convolution_param {
    num_output: 128
    kernel_size: 1
    weight_filler {
      type: "xavier"
      std: 0.08
    }
    bias_filler {
      type: "constant"
      value: 0.2
    }
  }
}
layer {
  name: "loss2/relu_conv"
  type: "ReLU"
  bottom: "loss2/conv"
  top: "loss2/conv"
}
layer {
  name: "loss2/fc"
  type: "InnerProduct"
  bottom: "loss2/conv"
  top: "loss2/fc"
  param {
    lr_mult: 1
    decay_mult: 1
  }
  param {
    lr_mult: 2
    decay_mult: 0
  }
  inner_product_param {
    num_output: 1024
    weight_filler {
      type: "xavier"
      std: 0.02
    }
    bias_filler {
      type: "constant"
      value: 0.2
    }
  }
}
layer {
  name: "loss2/relu_fc"
  type: "ReLU"
  bottom: "loss2/fc"
  top: "loss2/fc"
}
layer {
  name: "loss2/drop_fc"
  type: "Dropout"
  bottom: "loss2/fc"
  top: "loss2/fc"
  dropout_param {
    dropout_ratio: 0.7
  }
}
layer {
  name: "loss2/classifier_plantvillage"
  type: "InnerProduct"
  bottom: "loss2/fc"
  top: "loss2/classifier_plantvillage"
  param {
    lr_mult: 1
    decay_mult: 1
  }
  param {
    lr_mult: 2
    decay_mult: 0
  }
  inner_product_param {
    num_output: 38
    weight_filler {
      type: "xavier"
      std: 0.0009765625
    }
    bias_filler {
      type: "constant"
      value: 0
    }
  }
}
layer {
  name: "inception_4e/1x1"
  type: "Convolution"
  bottom: "inception_4d/output"
  top: "inception_4e/1x1"
  param {
    lr_mult: 1
    decay_mult: 1
  }
  param {
    lr_mult: 2
    decay_mult: 0
  }
  convolution_param {
    num_output: 256
    kernel_size: 1
    weight_filler {
      type: "xavier"
      std: 0.03
    }
    bias_filler {
      type: "constant"
      value: 0.2
    }
  }
}
layer {
  name: "inception_4e/relu_1x1"
  type: "ReLU"
  bottom: "inception_4e/1x1"
  top: "inception_4e/1x1"
}
layer {
  name: "inception_4e/3x3_reduce"
  type: "Convolution"
  bottom: "inception_4d/output"
  top: "inception_4e/3x3_reduce"
  param {
    lr_mult: 1
    decay_mult: 1
  }
  param {
    lr_mult: 2
    decay_mult: 0
  }
  convolution_param {
    num_output: 160
    kernel_size: 1
    weight_filler {
      type: "xavier"
      std: 0.09
    }
    bias_filler {
      type: "constant"
      value: 0.2
    }
  }
}
layer {
  name: "inception_4e/relu_3x3_reduce"
  type: "ReLU"
  bottom: "inception_4e/3x3_reduce"
  top: "inception_4e/3x3_reduce"
}
layer {
  name: "inception_4e/3x3"
  type: "Convolution"
  bottom: "inception_4e/3x3_reduce"
  top: "inception_4e/3x3"
  param {
    lr_mult: 1
    decay_mult: 1
  }
  param {
    lr_mult: 2
    decay_mult: 0
  }
  convolution_param {
    num_output: 320
    pad: 1
    kernel_size: 3
    weight_filler {
      type: "xavier"
      std: 0.03
    }
    bias_filler {
      type: "constant"
      value: 0.2
    }
  }
}
layer {
  name: "inception_4e/relu_3x3"
  type: "ReLU"
  bottom: "inception_4e/3x3"
  top: "inception_4e/3x3"
}
layer {
  name: "inception_4e/5x5_reduce"
  type: "Convolution"
  bottom: "inception_4d/output"
  top: "inception_4e/5x5_reduce"
  param {
    lr_mult: 1
    decay_mult: 1
  }
  param {
    lr_mult: 2
    decay_mult: 0
  }
  convolution_param {
    num_output: 32
    kernel_size: 1
    weight_filler {
      type: "xavier"
      std: 0.2
    }
    bias_filler {
      type: "constant"
      value: 0.2
    }
  }
}
layer {
  name: "inception_4e/relu_5x5_reduce"
  type: "ReLU"
  bottom: "inception_4e/5x5_reduce"
  top: "inception_4e/5x5_reduce"
}
layer {
  name: "inception_4e/5x5"
  type: "Convolution"
  bottom: "inception_4e/5x5_reduce"
  top: "inception_4e/5x5"
  p
I0403 15:58:25.423660 16525 layer_factory.hpp:77] Creating layer data
I0403 15:58:25.424298 16525 net.cpp:91] Creating Layer data
I0403 15:58:25.424329 16525 net.cpp:399] data -> data
I0403 15:58:25.424382 16525 net.cpp:399] data -> label
I0403 15:58:25.424420 16525 data_transformer.cpp:25] Loading mean file from: /home/mohanty/data/final_dataset/lmdb/color-20-80/mean.binaryproto
I0403 15:58:25.425475 16531 db_lmdb.cpp:38] Opened lmdb /home/mohanty/data/final_dataset/lmdb/color-20-80/test_db
I0403 15:58:25.437589 16525 data_layer.cpp:41] output data size: 24,3,224,224
I0403 15:58:25.464676 16525 net.cpp:141] Setting up data
I0403 15:58:25.464751 16525 net.cpp:148] Top shape: 24 3 224 224 (3612672)
I0403 15:58:25.464774 16525 net.cpp:148] Top shape: 24 (24)
I0403 15:58:25.464790 16525 net.cpp:156] Memory required for data: 14450784
I0403 15:58:25.464819 16525 layer_factory.hpp:77] Creating layer label_data_1_split
I0403 15:58:25.464849 16525 net.cpp:91] Creating Layer label_data_1_split
I0403 15:58:25.464869 16525 net.cpp:425] label_data_1_split <- label
I0403 15:58:25.464901 16525 net.cpp:399] label_data_1_split -> label_data_1_split_0
I0403 15:58:25.464931 16525 net.cpp:399] label_data_1_split -> label_data_1_split_1
I0403 15:58:25.464954 16525 net.cpp:399] label_data_1_split -> label_data_1_split_2
I0403 15:58:25.464978 16525 net.cpp:399] label_data_1_split -> label_data_1_split_3
I0403 15:58:25.464999 16525 net.cpp:399] label_data_1_split -> label_data_1_split_4
I0403 15:58:25.465021 16525 net.cpp:399] label_data_1_split -> label_data_1_split_5
I0403 15:58:25.465041 16525 net.cpp:399] label_data_1_split -> label_data_1_split_6
I0403 15:58:25.465062 16525 net.cpp:399] label_data_1_split -> label_data_1_split_7
I0403 15:58:25.465083 16525 net.cpp:399] label_data_1_split -> label_data_1_split_8
I0403 15:58:25.465106 16525 net.cpp:399] label_data_1_split -> label_data_1_split_9
I0403 15:58:25.465225 16525 net.cpp:141] Setting up label_data_1_split
I0403 15:58:25.465250 16525 net.cpp:148] Top shape: 24 (24)
I0403 15:58:25.465267 16525 net.cpp:148] Top shape: 24 (24)
I0403 15:58:25.465284 16525 net.cpp:148] Top shape: 24 (24)
I0403 15:58:25.465301 16525 net.cpp:148] Top shape: 24 (24)
I0403 15:58:25.465317 16525 net.cpp:148] Top shape: 24 (24)
I0403 15:58:25.465333 16525 net.cpp:148] Top shape: 24 (24)
I0403 15:58:25.465350 16525 net.cpp:148] Top shape: 24 (24)
I0403 15:58:25.465365 16525 net.cpp:148] Top shape: 24 (24)
I0403 15:58:25.465381 16525 net.cpp:148] Top shape: 24 (24)
I0403 15:58:25.465399 16525 net.cpp:148] Top shape: 24 (24)
I0403 15:58:25.465445 16525 net.cpp:156] Memory required for data: 14451744
I0403 15:58:25.465462 16525 layer_factory.hpp:77] Creating layer conv1/7x7_s2
I0403 15:58:25.465493 16525 net.cpp:91] Creating Layer conv1/7x7_s2
I0403 15:58:25.465513 16525 net.cpp:425] conv1/7x7_s2 <- data
I0403 15:58:25.465534 16525 net.cpp:399] conv1/7x7_s2 -> conv1/7x7_s2
I0403 15:58:25.606462 16525 net.cpp:141] Setting up conv1/7x7_s2
I0403 15:58:25.606530 16525 net.cpp:148] Top shape: 24 64 112 112 (19267584)
I0403 15:58:25.606552 16525 net.cpp:156] Memory required for data: 91522080
I0403 15:58:25.606587 16525 layer_factory.hpp:77] Creating layer conv1/relu_7x7
I0403 15:58:25.606616 16525 net.cpp:91] Creating Layer conv1/relu_7x7
I0403 15:58:25.606636 16525 net.cpp:425] conv1/relu_7x7 <- conv1/7x7_s2
I0403 15:58:25.606660 16525 net.cpp:386] conv1/relu_7x7 -> conv1/7x7_s2 (in-place)
I0403 15:58:25.606932 16525 net.cpp:141] Setting up conv1/relu_7x7
I0403 15:58:25.606959 16525 net.cpp:148] Top shape: 24 64 112 112 (19267584)
I0403 15:58:25.606976 16525 net.cpp:156] Memory required for data: 168592416
I0403 15:58:25.606992 16525 layer_factory.hpp:77] Creating layer pool1/3x3_s2
I0403 15:58:25.607018 16525 net.cpp:91] Creating Layer pool1/3x3_s2
I0403 15:58:25.607038 16525 net.cpp:425] pool1/3x3_s2 <- conv1/7x7_s2
I0403 15:58:25.607058 16525 net.cpp:399] pool1/3x3_s2 -> pool1/3x3_s2
I0403 15:58:25.607136 16525 net.cpp:141] Setting up pool1/3x3_s2
I0403 15:58:25.607161 16525 net.cpp:148] Top shape: 24 64 56 56 (4816896)
I0403 15:58:25.607177 16525 net.cpp:156] Memory required for data: 187860000
I0403 15:58:25.607192 16525 layer_factory.hpp:77] Creating layer pool1/norm1
I0403 15:58:25.607216 16525 net.cpp:91] Creating Layer pool1/norm1
I0403 15:58:25.607235 16525 net.cpp:425] pool1/norm1 <- pool1/3x3_s2
I0403 15:58:25.607255 16525 net.cpp:399] pool1/norm1 -> pool1/norm1
I0403 15:58:25.607555 16525 net.cpp:141] Setting up pool1/norm1
I0403 15:58:25.607589 16525 net.cpp:148] Top shape: 24 64 56 56 (4816896)
I0403 15:58:25.607606 16525 net.cpp:156] Memory required for data: 207127584
I0403 15:58:25.607672 16525 layer_factory.hpp:77] Creating layer conv2/3x3_reduce
I0403 15:58:25.607707 16525 net.cpp:91] Creating Layer conv2/3x3_reduce
I0403 15:58:25.607727 16525 net.cpp:425] conv2/3x3_reduce <- pool1/norm1
I0403 15:58:25.607748 16525 net.cpp:399] conv2/3x3_reduce -> conv2/3x3_reduce
I0403 15:58:25.609122 16525 net.cpp:141] Setting up conv2/3x3_reduce
I0403 15:58:25.609153 16525 net.cpp:148] Top shape: 24 64 56 56 (4816896)
I0403 15:58:25.609171 16525 net.cpp:156] Memory required for data: 226395168
I0403 15:58:25.609194 16525 layer_factory.hpp:77] Creating layer conv2/relu_3x3_reduce
I0403 15:58:25.609212 16525 net.cpp:91] Creating Layer conv2/relu_3x3_reduce
I0403 15:58:25.609228 16525 net.cpp:425] conv2/relu_3x3_reduce <- conv2/3x3_reduce
I0403 15:58:25.609248 16525 net.cpp:386] conv2/relu_3x3_reduce -> conv2/3x3_reduce (in-place)
I0403 15:58:25.609565 16525 net.cpp:141] Setting up conv2/relu_3x3_reduce
I0403 15:58:25.609599 16525 net.cpp:148] Top shape: 24 64 56 56 (4816896)
I0403 15:58:25.609618 16525 net.cpp:156] Memory required for data: 245662752
I0403 15:58:25.609634 16525 layer_factory.hpp:77] Creating layer conv2/3x3
I0403 15:58:25.609659 16525 net.cpp:91] Creating Layer conv2/3x3
I0403 15:58:25.609678 16525 net.cpp:425] conv2/3x3 <- conv2/3x3_reduce
I0403 15:58:25.609697 16525 net.cpp:399] conv2/3x3 -> conv2/3x3
I0403 15:58:25.612011 16525 net.cpp:141] Setting up conv2/3x3
I0403 15:58:25.612045 16525 net.cpp:148] Top shape: 24 192 56 56 (14450688)
I0403 15:58:25.612063 16525 net.cpp:156] Memory required for data: 303465504
I0403 15:58:25.612087 16525 layer_factory.hpp:77] Creating layer conv2/relu_3x3
I0403 15:58:25.612107 16525 net.cpp:91] Creating Layer conv2/relu_3x3
I0403 15:58:25.612123 16525 net.cpp:425] conv2/relu_3x3 <- conv2/3x3
I0403 15:58:25.612143 16525 net.cpp:386] conv2/relu_3x3 -> conv2/3x3 (in-place)
I0403 15:58:25.612321 16525 net.cpp:141] Setting up conv2/relu_3x3
I0403 15:58:25.612351 16525 net.cpp:148] Top shape: 24 192 56 56 (14450688)
I0403 15:58:25.612398 16525 net.cpp:156] Memory required for data: 361268256
I0403 15:58:25.612416 16525 layer_factory.hpp:77] Creating layer conv2/norm2
I0403 15:58:25.612435 16525 net.cpp:91] Creating Layer conv2/norm2
I0403 15:58:25.612452 16525 net.cpp:425] conv2/norm2 <- conv2/3x3
I0403 15:58:25.612471 16525 net.cpp:399] conv2/norm2 -> conv2/norm2
I0403 15:58:25.612812 16525 net.cpp:141] Setting up conv2/norm2
I0403 15:58:25.612840 16525 net.cpp:148] Top shape: 24 192 56 56 (14450688)
I0403 15:58:25.612856 16525 net.cpp:156] Memory required for data: 419071008
I0403 15:58:25.612872 16525 layer_factory.hpp:77] Creating layer pool2/3x3_s2
I0403 15:58:25.612892 16525 net.cpp:91] Creating Layer pool2/3x3_s2
I0403 15:58:25.612908 16525 net.cpp:425] pool2/3x3_s2 <- conv2/norm2
I0403 15:58:25.612927 16525 net.cpp:399] pool2/3x3_s2 -> pool2/3x3_s2
I0403 15:58:25.612980 16525 net.cpp:141] Setting up pool2/3x3_s2
I0403 15:58:25.613005 16525 net.cpp:148] Top shape: 24 192 28 28 (3612672)
I0403 15:58:25.613021 16525 net.cpp:156] Memory required for data: 433521696
I0403 15:58:25.613036 16525 layer_factory.hpp:77] Creating layer pool2/3x3_s2_pool2/3x3_s2_0_split
I0403 15:58:25.613054 16525 net.cpp:91] Creating Layer pool2/3x3_s2_pool2/3x3_s2_0_split
I0403 15:58:25.613070 16525 net.cpp:425] pool2/3x3_s2_pool2/3x3_s2_0_split <- pool2/3x3_s2
I0403 15:58:25.613090 16525 net.cpp:399] pool2/3x3_s2_pool2/3x3_s2_0_split -> pool2/3x3_s2_pool2/3x3_s2_0_split_0
I0403 15:58:25.613112 16525 net.cpp:399] pool2/3x3_s2_pool2/3x3_s2_0_split -> pool2/3x3_s2_pool2/3x3_s2_0_split_1
I0403 15:58:25.613133 16525 net.cpp:399] pool2/3x3_s2_pool2/3x3_s2_0_split -> pool2/3x3_s2_pool2/3x3_s2_0_split_2
I0403 15:58:25.613153 16525 net.cpp:399] pool2/3x3_s2_pool2/3x3_s2_0_split -> pool2/3x3_s2_pool2/3x3_s2_0_split_3
I0403 15:58:25.613224 16525 net.cpp:141] Setting up pool2/3x3_s2_pool2/3x3_s2_0_split
I0403 15:58:25.613247 16525 net.cpp:148] Top shape: 24 192 28 28 (3612672)
I0403 15:58:25.613265 16525 net.cpp:148] Top shape: 24 192 28 28 (3612672)
I0403 15:58:25.613281 16525 net.cpp:148] Top shape: 24 192 28 28 (3612672)
I0403 15:58:25.613297 16525 net.cpp:148] Top shape: 24 192 28 28 (3612672)
I0403 15:58:25.613311 16525 net.cpp:156] Memory required for data: 491324448
I0403 15:58:25.613324 16525 layer_factory.hpp:77] Creating layer inception_3a/1x1
I0403 15:58:25.613348 16525 net.cpp:91] Creating Layer inception_3a/1x1
I0403 15:58:25.613365 16525 net.cpp:425] inception_3a/1x1 <- pool2/3x3_s2_pool2/3x3_s2_0_split_0
I0403 15:58:25.613389 16525 net.cpp:399] inception_3a/1x1 -> inception_3a/1x1
I0403 15:58:25.614948 16525 net.cpp:141] Setting up inception_3a/1x1
I0403 15:58:25.614980 16525 net.cpp:148] Top shape: 24 64 28 28 (1204224)
I0403 15:58:25.615000 16525 net.cpp:156] Memory required for data: 496141344
I0403 15:58:25.615018 16525 layer_factory.hpp:77] Creating layer inception_3a/relu_1x1
I0403 15:58:25.615037 16525 net.cpp:91] Creating Layer inception_3a/relu_1x1
I0403 15:58:25.615054 16525 net.cpp:425] inception_3a/relu_1x1 <- inception_3a/1x1
I0403 15:58:25.615072 16525 net.cpp:386] inception_3a/relu_1x1 -> inception_3a/1x1 (in-place)
I0403 15:58:25.615252 16525 net.cpp:141] Setting up inception_3a/relu_1x1
I0403 15:58:25.615278 16525 net.cpp:148] Top shape: 24 64 28 28 (1204224)
I0403 15:58:25.615294 16525 net.cpp:156] Memory required for data: 500958240
I0403 15:58:25.615309 16525 layer_factory.hpp:77] Creating layer inception_3a/3x3_reduce
I0403 15:58:25.615331 16525 net.cpp:91] Creating Layer inception_3a/3x3_reduce
I0403 15:58:25.615348 16525 net.cpp:425] inception_3a/3x3_reduce <- pool2/3x3_s2_pool2/3x3_s2_0_split_1
I0403 15:58:25.615370 16525 net.cpp:399] inception_3a/3x3_reduce -> inception_3a/3x3_reduce
I0403 15:58:25.617081 16525 net.cpp:141] Setting up inception_3a/3x3_reduce
I0403 15:58:25.617113 16525 net.cpp:148] Top shape: 24 96 28 28 (1806336)
I0403 15:58:25.617130 16525 net.cpp:156] Memory required for data: 508183584
I0403 15:58:25.617153 16525 layer_factory.hpp:77] Creating layer inception_3a/relu_3x3_reduce
I0403 15:58:25.617189 16525 net.cpp:91] Creating Layer inception_3a/relu_3x3_reduce
I0403 15:58:25.617208 16525 net.cpp:425] inception_3a/relu_3x3_reduce <- inception_3a/3x3_reduce
I0403 15:58:25.617229 16525 net.cpp:386] inception_3a/relu_3x3_reduce -> inception_3a/3x3_reduce (in-place)
I0403 15:58:25.617413 16525 net.cpp:141] Setting up inception_3a/relu_3x3_reduce
I0403 15:58:25.617439 16525 net.cpp:148] Top shape: 24 96 28 28 (1806336)
I0403 15:58:25.617455 16525 net.cpp:156] Memory required for data: 515408928
I0403 15:58:25.617470 16525 layer_factory.hpp:77] Creating layer inception_3a/3x3
I0403 15:58:25.617493 16525 net.cpp:91] Creating Layer inception_3a/3x3
I0403 15:58:25.617511 16525 net.cpp:425] inception_3a/3x3 <- inception_3a/3x3_reduce
I0403 15:58:25.617532 16525 net.cpp:399] inception_3a/3x3 -> inception_3a/3x3
I0403 15:58:25.619143 16525 net.cpp:141] Setting up inception_3a/3x3
I0403 15:58:25.619171 16525 net.cpp:148] Top shape: 24 128 28 28 (2408448)
I0403 15:58:25.619186 16525 net.cpp:156] Memory required for data: 525042720
I0403 15:58:25.619204 16525 layer_factory.hpp:77] Creating layer inception_3a/relu_3x3
I0403 15:58:25.619223 16525 net.cpp:91] Creating Layer inception_3a/relu_3x3
I0403 15:58:25.619240 16525 net.cpp:425] inception_3a/relu_3x3 <- inception_3a/3x3
I0403 15:58:25.619261 16525 net.cpp:386] inception_3a/relu_3x3 -> inception_3a/3x3 (in-place)
I0403 15:58:25.619524 16525 net.cpp:141] Setting up inception_3a/relu_3x3
I0403 15:58:25.619552 16525 net.cpp:148] Top shape: 24 128 28 28 (2408448)
I0403 15:58:25.619568 16525 net.cpp:156] Memory required for data: 534676512
I0403 15:58:25.619590 16525 layer_factory.hpp:77] Creating layer inception_3a/5x5_reduce
I0403 15:58:25.619612 16525 net.cpp:91] Creating Layer inception_3a/5x5_reduce
I0403 15:58:25.619629 16525 net.cpp:425] inception_3a/5x5_reduce <- pool2/3x3_s2_pool2/3x3_s2_0_split_2
I0403 15:58:25.619652 16525 net.cpp:399] inception_3a/5x5_reduce -> inception_3a/5x5_reduce
I0403 15:58:25.620578 16525 net.cpp:141] Setting up inception_3a/5x5_reduce
I0403 15:58:25.620604 16525 net.cpp:148] Top shape: 24 16 28 28 (301056)
I0403 15:58:25.620621 16525 net.cpp:156] Memory required for data: 535880736
I0403 15:58:25.620640 16525 layer_factory.hpp:77] Creating layer inception_3a/relu_5x5_reduce
I0403 15:58:25.620657 16525 net.cpp:91] Creating Layer inception_3a/relu_5x5_reduce
I0403 15:58:25.620674 16525 net.cpp:425] inception_3a/relu_5x5_reduce <- inception_3a/5x5_reduce
I0403 15:58:25.620694 16525 net.cpp:386] inception_3a/relu_5x5_reduce -> inception_3a/5x5_reduce (in-place)
I0403 15:58:25.620976 16525 net.cpp:141] Setting up inception_3a/relu_5x5_reduce
I0403 15:58:25.621002 16525 net.cpp:148] Top shape: 24 16 28 28 (301056)
I0403 15:58:25.621018 16525 net.cpp:156] Memory required for data: 537084960
I0403 15:58:25.621032 16525 layer_factory.hpp:77] Creating layer inception_3a/5x5
I0403 15:58:25.621054 16525 net.cpp:91] Creating Layer inception_3a/5x5
I0403 15:58:25.621073 16525 net.cpp:425] inception_3a/5x5 <- inception_3a/5x5_reduce
I0403 15:58:25.621094 16525 net.cpp:399] inception_3a/5x5 -> inception_3a/5x5
I0403 15:58:25.622102 16525 net.cpp:141] Setting up inception_3a/5x5
I0403 15:58:25.622131 16525 net.cpp:148] Top shape: 24 32 28 28 (602112)
I0403 15:58:25.622148 16525 net.cpp:156] Memory required for data: 539493408
I0403 15:58:25.622167 16525 layer_factory.hpp:77] Creating layer inception_3a/relu_5x5
I0403 15:58:25.622185 16525 net.cpp:91] Creating Layer inception_3a/relu_5x5
I0403 15:58:25.622202 16525 net.cpp:425] inception_3a/relu_5x5 <- inception_3a/5x5
I0403 15:58:25.622220 16525 net.cpp:386] inception_3a/relu_5x5 -> inception_3a/5x5 (in-place)
I0403 15:58:25.622388 16525 net.cpp:141] Setting up inception_3a/relu_5x5
I0403 15:58:25.622413 16525 net.cpp:148] Top shape: 24 32 28 28 (602112)
I0403 15:58:25.622428 16525 net.cpp:156] Memory required for data: 541901856
I0403 15:58:25.622443 16525 layer_factory.hpp:77] Creating layer inception_3a/pool
I0403 15:58:25.622462 16525 net.cpp:91] Creating Layer inception_3a/pool
I0403 15:58:25.622478 16525 net.cpp:425] inception_3a/pool <- pool2/3x3_s2_pool2/3x3_s2_0_split_3
I0403 15:58:25.622514 16525 net.cpp:399] inception_3a/pool -> inception_3a/pool
I0403 15:58:25.622576 16525 net.cpp:141] Setting up inception_3a/pool
I0403 15:58:25.622603 16525 net.cpp:148] Top shape: 24 192 28 28 (3612672)
I0403 15:58:25.622619 16525 net.cpp:156] Memory required for data: 556352544
I0403 15:58:25.622634 16525 layer_factory.hpp:77] Creating layer inception_3a/pool_proj
I0403 15:58:25.622656 16525 net.cpp:91] Creating Layer inception_3a/pool_proj
I0403 15:58:25.622674 16525 net.cpp:425] inception_3a/pool_proj <- inception_3a/pool
I0403 15:58:25.622694 16525 net.cpp:399] inception_3a/pool_proj -> inception_3a/pool_proj
I0403 15:58:25.623627 16525 net.cpp:141] Setting up inception_3a/pool_proj
I0403 15:58:25.623656 16525 net.cpp:148] Top shape: 24 32 28 28 (602112)
I0403 15:58:25.623672 16525 net.cpp:156] Memory required for data: 558760992
I0403 15:58:25.623697 16525 layer_factory.hpp:77] Creating layer inception_3a/relu_pool_proj
I0403 15:58:25.623716 16525 net.cpp:91] Creating Layer inception_3a/relu_pool_proj
I0403 15:58:25.623733 16525 net.cpp:425] inception_3a/relu_pool_proj <- inception_3a/pool_proj
I0403 15:58:25.623752 16525 net.cpp:386] inception_3a/relu_pool_proj -> inception_3a/pool_proj (in-place)
I0403 15:58:25.624017 16525 net.cpp:141] Setting up inception_3a/relu_pool_proj
I0403 15:58:25.624042 16525 net.cpp:148] Top shape: 24 32 28 28 (602112)
I0403 15:58:25.624058 16525 net.cpp:156] Memory required for data: 561169440
I0403 15:58:25.624073 16525 layer_factory.hpp:77] Creating layer inception_3a/output
I0403 15:58:25.624090 16525 net.cpp:91] Creating Layer inception_3a/output
I0403 15:58:25.624107 16525 net.cpp:425] inception_3a/output <- inception_3a/1x1
I0403 15:58:25.624124 16525 net.cpp:425] inception_3a/output <- inception_3a/3x3
I0403 15:58:25.624138 16525 net.cpp:425] inception_3a/output <- inception_3a/5x5
I0403 15:58:25.624155 16525 net.cpp:425] inception_3a/output <- inception_3a/pool_proj
I0403 15:58:25.624176 16525 net.cpp:399] inception_3a/output -> inception_3a/output
I0403 15:58:25.624222 16525 net.cpp:141] Setting up inception_3a/output
I0403 15:58:25.624244 16525 net.cpp:148] Top shape: 24 256 28 28 (4816896)
I0403 15:58:25.624264 16525 net.cpp:156] Memory required for data: 580437024
I0403 15:58:25.624280 16525 layer_factory.hpp:77] Creating layer inception_3a/output_inception_3a/output_0_split
I0403 15:58:25.624296 16525 net.cpp:91] Creating Layer inception_3a/output_inception_3a/output_0_split
I0403 15:58:25.624312 16525 net.cpp:425] inception_3a/output_inception_3a/output_0_split <- inception_3a/output
I0403 15:58:25.624328 16525 net.cpp:399] inception_3a/output_inception_3a/output_0_split -> inception_3a/output_inception_3a/output_0_split_0
I0403 15:58:25.624348 16525 net.cpp:399] inception_3a/output_inception_3a/output_0_split -> inception_3a/output_inception_3a/output_0_split_1
I0403 15:58:25.624374 16525 net.cpp:399] inception_3a/output_inception_3a/output_0_split -> inception_3a/output_inception_3a/output_0_split_2
I0403 15:58:25.624397 16525 net.cpp:399] inception_3a/output_inception_3a/output_0_split -> inception_3a/output_inception_3a/output_0_split_3
I0403 15:58:25.624470 16525 net.cpp:141] Setting up inception_3a/output_inception_3a/output_0_split
I0403 15:58:25.624495 16525 net.cpp:148] Top shape: 24 256 28 28 (4816896)
I0403 15:58:25.624511 16525 net.cpp:148] Top shape: 24 256 28 28 (4816896)
I0403 15:58:25.624526 16525 net.cpp:148] Top shape: 24 256 28 28 (4816896)
I0403 15:58:25.624542 16525 net.cpp:148] Top shape: 24 256 28 28 (4816896)
I0403 15:58:25.624557 16525 net.cpp:156] Memory required for data: 657507360
I0403 15:58:25.624580 16525 layer_factory.hpp:77] Creating layer inception_3b/1x1
I0403 15:58:25.624608 16525 net.cpp:91] Creating Layer inception_3b/1x1
I0403 15:58:25.624626 16525 net.cpp:425] inception_3b/1x1 <- inception_3a/output_inception_3a/output_0_split_0
I0403 15:58:25.624645 16525 net.cpp:399] inception_3b/1x1 -> inception_3b/1x1
I0403 15:58:25.625743 16525 net.cpp:141] Setting up inception_3b/1x1
I0403 15:58:25.625782 16525 net.cpp:148] Top shape: 24 128 28 28 (2408448)
I0403 15:58:25.625797 16525 net.cpp:156] Memory required for data: 667141152
I0403 15:58:25.625816 16525 layer_factory.hpp:77] Creating layer inception_3b/relu_1x1
I0403 15:58:25.625838 16525 net.cpp:91] Creating Layer inception_3b/relu_1x1
I0403 15:58:25.625854 16525 net.cpp:425] inception_3b/relu_1x1 <- inception_3b/1x1
I0403 15:58:25.625872 16525 net.cpp:386] inception_3b/relu_1x1 -> inception_3b/1x1 (in-place)
I0403 15:58:25.626044 16525 net.cpp:141] Setting up inception_3b/relu_1x1
I0403 15:58:25.626070 16525 net.cpp:148] Top shape: 24 128 28 28 (2408448)
I0403 15:58:25.626085 16525 net.cpp:156] Memory required for data: 676774944
I0403 15:58:25.626101 16525 layer_factory.hpp:77] Creating layer inception_3b/3x3_reduce
I0403 15:58:25.626122 16525 net.cpp:91] Creating Layer inception_3b/3x3_reduce
I0403 15:58:25.626139 16525 net.cpp:425] inception_3b/3x3_reduce <- inception_3a/output_inception_3a/output_0_split_1
I0403 15:58:25.626162 16525 net.cpp:399] inception_3b/3x3_reduce -> inception_3b/3x3_reduce
I0403 15:58:25.627259 16525 net.cpp:141] Setting up inception_3b/3x3_reduce
I0403 15:58:25.627285 16525 net.cpp:148] Top shape: 24 128 28 28 (2408448)
I0403 15:58:25.627306 16525 net.cpp:156] Memory required for data: 686408736
I0403 15:58:25.627326 16525 layer_factory.hpp:77] Creating layer inception_3b/relu_3x3_reduce
I0403 15:58:25.627343 16525 net.cpp:91] Creating Layer inception_3b/relu_3x3_reduce
I0403 15:58:25.627359 16525 net.cpp:425] inception_3b/relu_3x3_reduce <- inception_3b/3x3_reduce
I0403 15:58:25.627377 16525 net.cpp:386] inception_3b/relu_3x3_reduce -> inception_3b/3x3_reduce (in-place)
I0403 15:58:25.627545 16525 net.cpp:141] Setting up inception_3b/relu_3x3_reduce
I0403 15:58:25.627578 16525 net.cpp:148] Top shape: 24 128 28 28 (2408448)
I0403 15:58:25.627594 16525 net.cpp:156] Memory required for data: 696042528
I0403 15:58:25.627609 16525 layer_factory.hpp:77] Creating layer inception_3b/3x3
I0403 15:58:25.627634 16525 net.cpp:91] Creating Layer inception_3b/3x3
I0403 15:58:25.627652 16525 net.cpp:425] inception_3b/3x3 <- inception_3b/3x3_reduce
I0403 15:58:25.627673 16525 net.cpp:399] inception_3b/3x3 -> inception_3b/3x3
I0403 15:58:25.630501 16525 net.cpp:141] Setting up inception_3b/3x3
I0403 15:58:25.630529 16525 net.cpp:148] Top shape: 24 192 28 28 (3612672)
I0403 15:58:25.630547 16525 net.cpp:156] Memory required for data: 710493216
I0403 15:58:25.630566 16525 layer_factory.hpp:77] Creating layer inception_3b/relu_3x3
I0403 15:58:25.630590 16525 net.cpp:91] Creating Layer inception_3b/relu_3x3
I0403 15:58:25.630607 16525 net.cpp:425] inception_3b/relu_3x3 <- inception_3b/3x3
I0403 15:58:25.630628 16525 net.cpp:386] inception_3b/relu_3x3 -> inception_3b/3x3 (in-place)
I0403 15:58:25.630899 16525 net.cpp:141] Setting up inception_3b/relu_3x3
I0403 15:58:25.630925 16525 net.cpp:148] Top shape: 24 192 28 28 (3612672)
I0403 15:58:25.630941 16525 net.cpp:156] Memory required for data: 724943904
I0403 15:58:25.630956 16525 layer_factory.hpp:77] Creating layer inception_3b/5x5_reduce
I0403 15:58:25.630980 16525 net.cpp:91] Creating Layer inception_3b/5x5_reduce
I0403 15:58:25.630997 16525 net.cpp:425] inception_3b/5x5_reduce <- inception_3a/output_inception_3a/output_0_split_2
I0403 15:58:25.631021 16525 net.cpp:399] inception_3b/5x5_reduce -> inception_3b/5x5_reduce
I0403 15:58:25.632011 16525 net.cpp:141] Setting up inception_3b/5x5_reduce
I0403 15:58:25.632042 16525 net.cpp:148] Top shape: 24 32 28 28 (602112)
I0403 15:58:25.632060 16525 net.cpp:156] Memory required for data: 727352352
I0403 15:58:25.632078 16525 layer_factory.hpp:77] Creating layer inception_3b/relu_5x5_reduce
I0403 15:58:25.632097 16525 net.cpp:91] Creating Layer inception_3b/relu_5x5_reduce
I0403 15:58:25.632113 16525 net.cpp:425] inception_3b/relu_5x5_reduce <- inception_3b/5x5_reduce
I0403 15:58:25.632133 16525 net.cpp:386] inception_3b/relu_5x5_reduce -> inception_3b/5x5_reduce (in-place)
I0403 15:58:25.632307 16525 net.cpp:141] Setting up inception_3b/relu_5x5_reduce
I0403 15:58:25.632342 16525 net.cpp:148] Top shape: 24 32 28 28 (602112)
I0403 15:58:25.632359 16525 net.cpp:156] Memory required for data: 729760800
I0403 15:58:25.632375 16525 layer_factory.hpp:77] Creating layer inception_3b/5x5
I0403 15:58:25.632397 16525 net.cpp:91] Creating Layer inception_3b/5x5
I0403 15:58:25.632414 16525 net.cpp:425] inception_3b/5x5 <- inception_3b/5x5_reduce
I0403 15:58:25.632436 16525 net.cpp:399] inception_3b/5x5 -> inception_3b/5x5
I0403 15:58:25.634328 16525 net.cpp:141] Setting up inception_3b/5x5
I0403 15:58:25.634356 16525 net.cpp:148] Top shape: 24 96 28 28 (1806336)
I0403 15:58:25.634372 16525 net.cpp:156] Memory required for data: 736986144
I0403 15:58:25.634392 16525 layer_factory.hpp:77] Creating layer inception_3b/relu_5x5
I0403 15:58:25.634413 16525 net.cpp:91] Creating Layer inception_3b/relu_5x5
I0403 15:58:25.634429 16525 net.cpp:425] inception_3b/relu_5x5 <- inception_3b/5x5
I0403 15:58:25.634448 16525 net.cpp:386] inception_3b/relu_5x5 -> inception_3b/5x5 (in-place)
I0403 15:58:25.634642 16525 net.cpp:141] Setting up inception_3b/relu_5x5
I0403 15:58:25.634670 16525 net.cpp:148] Top shape: 24 96 28 28 (1806336)
I0403 15:58:25.634685 16525 net.cpp:156] Memory required for data: 744211488
I0403 15:58:25.634701 16525 layer_factory.hpp:77] Creating layer inception_3b/pool
I0403 15:58:25.634718 16525 net.cpp:91] Creating Layer inception_3b/pool
I0403 15:58:25.634735 16525 net.cpp:425] inception_3b/pool <- inception_3a/output_inception_3a/output_0_split_3
I0403 15:58:25.634753 16525 net.cpp:399] inception_3b/pool -> inception_3b/pool
I0403 15:58:25.634807 16525 net.cpp:141] Setting up inception_3b/pool
I0403 15:58:25.634835 16525 net.cpp:148] Top shape: 24 256 28 28 (4816896)
I0403 15:58:25.634850 16525 net.cpp:156] Memory required for data: 763479072
I0403 15:58:25.634865 16525 layer_factory.hpp:77] Creating layer inception_3b/pool_proj
I0403 15:58:25.634883 16525 net.cpp:91] Creating Layer inception_3b/pool_proj
I0403 15:58:25.634901 16525 net.cpp:425] inception_3b/pool_proj <- inception_3b/pool
I0403 15:58:25.634922 16525 net.cpp:399] inception_3b/pool_proj -> inception_3b/pool_proj
I0403 15:58:25.635944 16525 net.cpp:141] Setting up inception_3b/pool_proj
I0403 15:58:25.635972 16525 net.cpp:148] Top shape: 24 64 28 28 (1204224)
I0403 15:58:25.635988 16525 net.cpp:156] Memory required for data: 768295968
I0403 15:58:25.636006 16525 layer_factory.hpp:77] Creating layer inception_3b/relu_pool_proj
I0403 15:58:25.636028 16525 net.cpp:91] Creating Layer inception_3b/relu_pool_proj
I0403 15:58:25.636045 16525 net.cpp:425] inception_3b/relu_pool_proj <- inception_3b/pool_proj
I0403 15:58:25.636064 16525 net.cpp:386] inception_3b/relu_pool_proj -> inception_3b/pool_proj (in-place)
I0403 15:58:25.636437 16525 net.cpp:141] Setting up inception_3b/relu_pool_proj
I0403 15:58:25.636463 16525 net.cpp:148] Top shape: 24 64 28 28 (1204224)
I0403 15:58:25.636479 16525 net.cpp:156] Memory required for data: 773112864
I0403 15:58:25.636494 16525 layer_factory.hpp:77] Creating layer inception_3b/output
I0403 15:58:25.636512 16525 net.cpp:91] Creating Layer inception_3b/output
I0403 15:58:25.636528 16525 net.cpp:425] inception_3b/output <- inception_3b/1x1
I0403 15:58:25.636544 16525 net.cpp:425] inception_3b/output <- inception_3b/3x3
I0403 15:58:25.636561 16525 net.cpp:425] inception_3b/output <- inception_3b/5x5
I0403 15:58:25.636582 16525 net.cpp:425] inception_3b/output <- inception_3b/pool_proj
I0403 15:58:25.636602 16525 net.cpp:399] inception_3b/output -> inception_3b/output
I0403 15:58:25.636646 16525 net.cpp:141] Setting up inception_3b/output
I0403 15:58:25.636674 16525 net.cpp:148] Top shape: 24 480 28 28 (9031680)
I0403 15:58:25.636692 16525 net.cpp:156] Memory required for data: 809239584
I0403 15:58:25.636706 16525 layer_factory.hpp:77] Creating layer pool3/3x3_s2
I0403 15:58:25.636723 16525 net.cpp:91] Creating Layer pool3/3x3_s2
I0403 15:58:25.636739 16525 net.cpp:425] pool3/3x3_s2 <- inception_3b/output
I0403 15:58:25.636756 16525 net.cpp:399] pool3/3x3_s2 -> pool3/3x3_s2
I0403 15:58:25.636828 16525 net.cpp:141] Setting up pool3/3x3_s2
I0403 15:58:25.636852 16525 net.cpp:148] Top shape: 24 480 14 14 (2257920)
I0403 15:58:25.636868 16525 net.cpp:156] Memory required for data: 818271264
I0403 15:58:25.636883 16525 layer_factory.hpp:77] Creating layer pool3/3x3_s2_pool3/3x3_s2_0_split
I0403 15:58:25.636900 16525 net.cpp:91] Creating Layer pool3/3x3_s2_pool3/3x3_s2_0_split
I0403 15:58:25.636917 16525 net.cpp:425] pool3/3x3_s2_pool3/3x3_s2_0_split <- pool3/3x3_s2
I0403 15:58:25.636935 16525 net.cpp:399] pool3/3x3_s2_pool3/3x3_s2_0_split -> pool3/3x3_s2_pool3/3x3_s2_0_split_0
I0403 15:58:25.636955 16525 net.cpp:399] pool3/3x3_s2_pool3/3x3_s2_0_split -> pool3/3x3_s2_pool3/3x3_s2_0_split_1
I0403 15:58:25.636975 16525 net.cpp:399] pool3/3x3_s2_pool3/3x3_s2_0_split -> pool3/3x3_s2_pool3/3x3_s2_0_split_2
I0403 15:58:25.636996 16525 net.cpp:399] pool3/3x3_s2_pool3/3x3_s2_0_split -> pool3/3x3_s2_pool3/3x3_s2_0_split_3
I0403 15:58:25.637069 16525 net.cpp:141] Setting up pool3/3x3_s2_pool3/3x3_s2_0_split
I0403 15:58:25.637092 16525 net.cpp:148] Top shape: 24 480 14 14 (2257920)
I0403 15:58:25.637109 16525 net.cpp:148] Top shape: 24 480 14 14 (2257920)
I0403 15:58:25.637126 16525 net.cpp:148] Top shape: 24 480 14 14 (2257920)
I0403 15:58:25.637140 16525 net.cpp:148] Top shape: 24 480 14 14 (2257920)
I0403 15:58:25.637154 16525 net.cpp:156] Memory required for data: 854397984
I0403 15:58:25.637168 16525 layer_factory.hpp:77] Creating layer inception_4a/1x1
I0403 15:58:25.637192 16525 net.cpp:91] Creating Layer inception_4a/1x1
I0403 15:58:25.637207 16525 net.cpp:425] inception_4a/1x1 <- pool3/3x3_s2_pool3/3x3_s2_0_split_0
I0403 15:58:25.637230 16525 net.cpp:399] inception_4a/1x1 -> inception_4a/1x1
I0403 15:58:25.638744 16525 net.cpp:141] Setting up inception_4a/1x1
I0403 15:58:25.638772 16525 net.cpp:148] Top shape: 24 192 14 14 (903168)
I0403 15:58:25.638787 16525 net.cpp:156] Memory required for data: 858010656
I0403 15:58:25.638806 16525 layer_factory.hpp:77] Creating layer inception_4a/relu_1x1
I0403 15:58:25.638826 16525 net.cpp:91] Creating Layer inception_4a/relu_1x1
I0403 15:58:25.638844 16525 net.cpp:425] inception_4a/relu_1x1 <- inception_4a/1x1
I0403 15:58:25.638862 16525 net.cpp:386] inception_4a/relu_1x1 -> inception_4a/1x1 (in-place)
I0403 15:58:25.639031 16525 net.cpp:141] Setting up inception_4a/relu_1x1
I0403 15:58:25.639056 16525 net.cpp:148] Top shape: 24 192 14 14 (903168)
I0403 15:58:25.639071 16525 net.cpp:156] Memory required for data: 861623328
I0403 15:58:25.639086 16525 layer_factory.hpp:77] Creating layer inception_4a/3x3_reduce
I0403 15:58:25.639111 16525 net.cpp:91] Creating Layer inception_4a/3x3_reduce
I0403 15:58:25.639129 16525 net.cpp:425] inception_4a/3x3_reduce <- pool3/3x3_s2_pool3/3x3_s2_0_split_1
I0403 15:58:25.639148 16525 net.cpp:399] inception_4a/3x3_reduce -> inception_4a/3x3_reduce
I0403 15:58:25.640363 16525 net.cpp:141] Setting up inception_4a/3x3_reduce
I0403 15:58:25.640391 16525 net.cpp:148] Top shape: 24 96 14 14 (451584)
I0403 15:58:25.640408 16525 net.cpp:156] Memory required for data: 863429664
I0403 15:58:25.640432 16525 layer_factory.hpp:77] Creating layer inception_4a/relu_3x3_reduce
I0403 15:58:25.640452 16525 net.cpp:91] Creating Layer inception_4a/relu_3x3_reduce
I0403 15:58:25.640471 16525 net.cpp:425] inception_4a/relu_3x3_reduce <- inception_4a/3x3_reduce
I0403 15:58:25.640489 16525 net.cpp:386] inception_4a/relu_3x3_reduce -> inception_4a/3x3_reduce (in-place)
I0403 15:58:25.640664 16525 net.cpp:141] Setting up inception_4a/relu_3x3_reduce
I0403 15:58:25.640691 16525 net.cpp:148] Top shape: 24 96 14 14 (451584)
I0403 15:58:25.640707 16525 net.cpp:156] Memory required for data: 865236000
I0403 15:58:25.640720 16525 layer_factory.hpp:77] Creating layer inception_4a/3x3
I0403 15:58:25.640743 16525 net.cpp:91] Creating Layer inception_4a/3x3
I0403 15:58:25.640761 16525 net.cpp:425] inception_4a/3x3 <- inception_4a/3x3_reduce
I0403 15:58:25.640781 16525 net.cpp:399] inception_4a/3x3 -> inception_4a/3x3
I0403 15:58:25.643353 16525 net.cpp:141] Setting up inception_4a/3x3
I0403 15:58:25.643384 16525 net.cpp:148] Top shape: 24 208 14 14 (978432)
I0403 15:58:25.643402 16525 net.cpp:156] Memory required for data: 869149728
I0403 15:58:25.643420 16525 layer_factory.hpp:77] Creating layer inception_4a/relu_3x3
I0403 15:58:25.643440 16525 net.cpp:91] Creating Layer inception_4a/relu_3x3
I0403 15:58:25.643455 16525 net.cpp:425] inception_4a/relu_3x3 <- inception_4a/3x3
I0403 15:58:25.643473 16525 net.cpp:386] inception_4a/relu_3x3 -> inception_4a/3x3 (in-place)
I0403 15:58:25.643751 16525 net.cpp:141] Setting up inception_4a/relu_3x3
I0403 15:58:25.643779 16525 net.cpp:148] Top shape: 24 208 14 14 (978432)
I0403 15:58:25.643796 16525 net.cpp:156] Memory required for data: 873063456
I0403 15:58:25.643812 16525 layer_factory.hpp:77] Creating layer inception_4a/5x5_reduce
I0403 15:58:25.643832 16525 net.cpp:91] Creating Layer inception_4a/5x5_reduce
I0403 15:58:25.643849 16525 net.cpp:425] inception_4a/5x5_reduce <- pool3/3x3_s2_pool3/3x3_s2_0_split_2
I0403 15:58:25.643872 16525 net.cpp:399] inception_4a/5x5_reduce -> inception_4a/5x5_reduce
I0403 15:58:25.644865 16525 net.cpp:141] Setting up inception_4a/5x5_reduce
I0403 15:58:25.644896 16525 net.cpp:148] Top shape: 24 16 14 14 (75264)
I0403 15:58:25.644912 16525 net.cpp:156] Memory required for data: 873364512
I0403 15:58:25.644932 16525 layer_factory.hpp:77] Creating layer inception_4a/relu_5x5_reduce
I0403 15:58:25.644951 16525 net.cpp:91] Creating Layer inception_4a/relu_5x5_reduce
I0403 15:58:25.644968 16525 net.cpp:425] inception_4a/relu_5x5_reduce <- inception_4a/5x5_reduce
I0403 15:58:25.644984 16525 net.cpp:386] inception_4a/relu_5x5_reduce -> inception_4a/5x5_reduce (in-place)
I0403 15:58:25.645158 16525 net.cpp:141] Setting up inception_4a/relu_5x5_reduce
I0403 15:58:25.645182 16525 net.cpp:148] Top shape: 24 16 14 14 (75264)
I0403 15:58:25.645197 16525 net.cpp:156] Memory required for data: 873665568
I0403 15:58:25.645212 16525 layer_factory.hpp:77] Creating layer inception_4a/5x5
I0403 15:58:25.645234 16525 net.cpp:91] Creating Layer inception_4a/5x5
I0403 15:58:25.645251 16525 net.cpp:425] inception_4a/5x5 <- inception_4a/5x5_reduce
I0403 15:58:25.645273 16525 net.cpp:399] inception_4a/5x5 -> inception_4a/5x5
I0403 15:58:25.646304 16525 net.cpp:141] Setting up inception_4a/5x5
I0403 15:58:25.646332 16525 net.cpp:148] Top shape: 24 48 14 14 (225792)
I0403 15:58:25.646348 16525 net.cpp:156] Memory required for data: 874568736
I0403 15:58:25.646368 16525 layer_factory.hpp:77] Creating layer inception_4a/relu_5x5
I0403 15:58:25.646385 16525 net.cpp:91] Creating Layer inception_4a/relu_5x5
I0403 15:58:25.646402 16525 net.cpp:425] inception_4a/relu_5x5 <- inception_4a/5x5
I0403 15:58:25.646421 16525 net.cpp:386] inception_4a/relu_5x5 -> inception_4a/5x5 (in-place)
I0403 15:58:25.646595 16525 net.cpp:141] Setting up inception_4a/relu_5x5
I0403 15:58:25.646621 16525 net.cpp:148] Top shape: 24 48 14 14 (225792)
I0403 15:58:25.646636 16525 net.cpp:156] Memory required for data: 875471904
I0403 15:58:25.646651 16525 layer_factory.hpp:77] Creating layer inception_4a/pool
I0403 15:58:25.646670 16525 net.cpp:91] Creating Layer inception_4a/pool
I0403 15:58:25.646687 16525 net.cpp:425] inception_4a/pool <- pool3/3x3_s2_pool3/3x3_s2_0_split_3
I0403 15:58:25.646705 16525 net.cpp:399] inception_4a/pool -> inception_4a/pool
I0403 15:58:25.646765 16525 net.cpp:141] Setting up inception_4a/pool
I0403 15:58:25.646790 16525 net.cpp:148] Top shape: 24 480 14 14 (2257920)
I0403 15:58:25.646805 16525 net.cpp:156] Memory required for data: 884503584
I0403 15:58:25.646818 16525 layer_factory.hpp:77] Creating layer inception_4a/pool_proj
I0403 15:58:25.646841 16525 net.cpp:91] Creating Layer inception_4a/pool_proj
I0403 15:58:25.646857 16525 net.cpp:425] inception_4a/pool_proj <- inception_4a/pool
I0403 15:58:25.646879 16525 net.cpp:399] inception_4a/pool_proj -> inception_4a/pool_proj
I0403 15:58:25.648000 16525 net.cpp:141] Setting up inception_4a/pool_proj
I0403 15:58:25.648028 16525 net.cpp:148] Top shape: 24 64 14 14 (301056)
I0403 15:58:25.648061 16525 net.cpp:156] Memory required for data: 885707808
I0403 15:58:25.648082 16525 layer_factory.hpp:77] Creating layer inception_4a/relu_pool_proj
I0403 15:58:25.648102 16525 net.cpp:91] Creating Layer inception_4a/relu_pool_proj
I0403 15:58:25.648119 16525 net.cpp:425] inception_4a/relu_pool_proj <- inception_4a/pool_proj
I0403 15:58:25.648138 16525 net.cpp:386] inception_4a/relu_pool_proj -> inception_4a/pool_proj (in-place)
I0403 15:58:25.648411 16525 net.cpp:141] Setting up inception_4a/relu_pool_proj
I0403 15:58:25.648437 16525 net.cpp:148] Top shape: 24 64 14 14 (301056)
I0403 15:58:25.648453 16525 net.cpp:156] Memory required for data: 886912032
I0403 15:58:25.648468 16525 layer_factory.hpp:77] Creating layer inception_4a/output
I0403 15:58:25.648485 16525 net.cpp:91] Creating Layer inception_4a/output
I0403 15:58:25.648501 16525 net.cpp:425] inception_4a/output <- inception_4a/1x1
I0403 15:58:25.648519 16525 net.cpp:425] inception_4a/output <- inception_4a/3x3
I0403 15:58:25.648533 16525 net.cpp:425] inception_4a/output <- inception_4a/5x5
I0403 15:58:25.648553 16525 net.cpp:425] inception_4a/output <- inception_4a/pool_proj
I0403 15:58:25.648576 16525 net.cpp:399] inception_4a/output -> inception_4a/output
I0403 15:58:25.648624 16525 net.cpp:141] Setting up inception_4a/output
I0403 15:58:25.648648 16525 net.cpp:148] Top shape: 24 512 14 14 (2408448)
I0403 15:58:25.648663 16525 net.cpp:156] Memory required for data: 896545824
I0403 15:58:25.648679 16525 layer_factory.hpp:77] Creating layer inception_4a/output_inception_4a/output_0_split
I0403 15:58:25.648696 16525 net.cpp:91] Creating Layer inception_4a/output_inception_4a/output_0_split
I0403 15:58:25.648712 16525 net.cpp:425] inception_4a/output_inception_4a/output_0_split <- inception_4a/output
I0403 15:58:25.648732 16525 net.cpp:399] inception_4a/output_inception_4a/output_0_split -> inception_4a/output_inception_4a/output_0_split_0
I0403 15:58:25.648752 16525 net.cpp:399] inception_4a/output_inception_4a/output_0_split -> inception_4a/output_inception_4a/output_0_split_1
I0403 15:58:25.648773 16525 net.cpp:399] inception_4a/output_inception_4a/output_0_split -> inception_4a/output_inception_4a/output_0_split_2
I0403 15:58:25.648794 16525 net.cpp:399] inception_4a/output_inception_4a/output_0_split -> inception_4a/output_inception_4a/output_0_split_3
I0403 15:58:25.648815 16525 net.cpp:399] inception_4a/output_inception_4a/output_0_split -> inception_4a/output_inception_4a/output_0_split_4
I0403 15:58:25.648905 16525 net.cpp:141] Setting up inception_4a/output_inception_4a/output_0_split
I0403 15:58:25.648931 16525 net.cpp:148] Top shape: 24 512 14 14 (2408448)
I0403 15:58:25.648948 16525 net.cpp:148] Top shape: 24 512 14 14 (2408448)
I0403 15:58:25.648965 16525 net.cpp:148] Top shape: 24 512 14 14 (2408448)
I0403 15:58:25.648980 16525 net.cpp:148] Top shape: 24 512 14 14 (2408448)
I0403 15:58:25.648996 16525 net.cpp:148] Top shape: 24 512 14 14 (2408448)
I0403 15:58:25.649010 16525 net.cpp:156] Memory required for data: 944714784
I0403 15:58:25.649025 16525 layer_factory.hpp:77] Creating layer loss1/ave_pool
I0403 15:58:25.649044 16525 net.cpp:91] Creating Layer loss1/ave_pool
I0403 15:58:25.649058 16525 net.cpp:425] loss1/ave_pool <- inception_4a/output_inception_4a/output_0_split_0
I0403 15:58:25.649080 16525 net.cpp:399] loss1/ave_pool -> loss1/ave_pool
I0403 15:58:25.649276 16525 net.cpp:141] Setting up loss1/ave_pool
I0403 15:58:25.649302 16525 net.cpp:148] Top shape: 24 512 4 4 (196608)
I0403 15:58:25.649317 16525 net.cpp:156] Memory required for data: 945501216
I0403 15:58:25.649333 16525 layer_factory.hpp:77] Creating layer loss1/conv
I0403 15:58:25.649353 16525 net.cpp:91] Creating Layer loss1/conv
I0403 15:58:25.649370 16525 net.cpp:425] loss1/conv <- loss1/ave_pool
I0403 15:58:25.649391 16525 net.cpp:399] loss1/conv -> loss1/conv
I0403 15:58:25.650789 16525 net.cpp:141] Setting up loss1/conv
I0403 15:58:25.650820 16525 net.cpp:148] Top shape: 24 128 4 4 (49152)
I0403 15:58:25.650836 16525 net.cpp:156] Memory required for data: 945697824
I0403 15:58:25.650869 16525 layer_factory.hpp:77] Creating layer loss1/relu_conv
I0403 15:58:25.650890 16525 net.cpp:91] Creating Layer loss1/relu_conv
I0403 15:58:25.650907 16525 net.cpp:425] loss1/relu_conv <- loss1/conv
I0403 15:58:25.650925 16525 net.cpp:386] loss1/relu_conv -> loss1/conv (in-place)
I0403 15:58:25.651199 16525 net.cpp:141] Setting up loss1/relu_conv
I0403 15:58:25.651228 16525 net.cpp:148] Top shape: 24 128 4 4 (49152)
I0403 15:58:25.651245 16525 net.cpp:156] Memory required for data: 945894432
I0403 15:58:25.651262 16525 layer_factory.hpp:77] Creating layer loss1/fc
I0403 15:58:25.651284 16525 net.cpp:91] Creating Layer loss1/fc
I0403 15:58:25.651301 16525 net.cpp:425] loss1/fc <- loss1/conv
I0403 15:58:25.651322 16525 net.cpp:399] loss1/fc -> loss1/fc
I0403 15:58:25.668457 16525 net.cpp:141] Setting up loss1/fc
I0403 15:58:25.668488 16525 net.cpp:148] Top shape: 24 1024 (24576)
I0403 15:58:25.668504 16525 net.cpp:156] Memory required for data: 945992736
I0403 15:58:25.668522 16525 layer_factory.hpp:77] Creating layer loss1/relu_fc
I0403 15:58:25.668543 16525 net.cpp:91] Creating Layer loss1/relu_fc
I0403 15:58:25.668561 16525 net.cpp:425] loss1/relu_fc <- loss1/fc
I0403 15:58:25.668584 16525 net.cpp:386] loss1/relu_fc -> loss1/fc (in-place)
I0403 15:58:25.668766 16525 net.cpp:141] Setting up loss1/relu_fc
I0403 15:58:25.668794 16525 net.cpp:148] Top shape: 24 1024 (24576)
I0403 15:58:25.668810 16525 net.cpp:156] Memory required for data: 946091040
I0403 15:58:25.668825 16525 layer_factory.hpp:77] Creating layer loss1/drop_fc
I0403 15:58:25.668851 16525 net.cpp:91] Creating Layer loss1/drop_fc
I0403 15:58:25.668869 16525 net.cpp:425] loss1/drop_fc <- loss1/fc
I0403 15:58:25.668886 16525 net.cpp:386] loss1/drop_fc -> loss1/fc (in-place)
I0403 15:58:25.668937 16525 net.cpp:141] Setting up loss1/drop_fc
I0403 15:58:25.668962 16525 net.cpp:148] Top shape: 24 1024 (24576)
I0403 15:58:25.668977 16525 net.cpp:156] Memory required for data: 946189344
I0403 15:58:25.668992 16525 layer_factory.hpp:77] Creating layer loss1/classifier_plantvillage
I0403 15:58:25.669009 16525 net.cpp:91] Creating Layer loss1/classifier_plantvillage
I0403 15:58:25.669030 16525 net.cpp:425] loss1/classifier_plantvillage <- loss1/fc
I0403 15:58:25.669049 16525 net.cpp:399] loss1/classifier_plantvillage -> loss1/classifier_plantvillage
I0403 15:58:25.669922 16525 net.cpp:141] Setting up loss1/classifier_plantvillage
I0403 15:58:25.669952 16525 net.cpp:148] Top shape: 24 38 (912)
I0403 15:58:25.669970 16525 net.cpp:156] Memory required for data: 946192992
I0403 15:58:25.669988 16525 layer_factory.hpp:77] Creating layer loss1/classifier_plantvillage_loss1/classifier_plantvillage_0_split
I0403 15:58:25.670006 16525 net.cpp:91] Creating Layer loss1/classifier_plantvillage_loss1/classifier_plantvillage_0_split
I0403 15:58:25.670023 16525 net.cpp:425] loss1/classifier_plantvillage_loss1/classifier_plantvillage_0_split <- loss1/classifier_plantvillage
I0403 15:58:25.670040 16525 net.cpp:399] loss1/classifier_plantvillage_loss1/classifier_plantvillage_0_split -> loss1/classifier_plantvillage_loss1/classifier_plantvillage_0_split_0
I0403 15:58:25.670060 16525 net.cpp:399] loss1/classifier_plantvillage_loss1/classifier_plantvillage_0_split -> loss1/classifier_plantvillage_loss1/classifier_plantvillage_0_split_1
I0403 15:58:25.670080 16525 net.cpp:399] loss1/classifier_plantvillage_loss1/classifier_plantvillage_0_split -> loss1/classifier_plantvillage_loss1/classifier_plantvillage_0_split_2
I0403 15:58:25.670146 16525 net.cpp:141] Setting up loss1/classifier_plantvillage_loss1/classifier_plantvillage_0_split
I0403 15:58:25.670171 16525 net.cpp:148] Top shape: 24 38 (912)
I0403 15:58:25.670187 16525 net.cpp:148] Top shape: 24 38 (912)
I0403 15:58:25.670203 16525 net.cpp:148] Top shape: 24 38 (912)
I0403 15:58:25.670217 16525 net.cpp:156] Memory required for data: 946203936
I0403 15:58:25.670233 16525 layer_factory.hpp:77] Creating layer inception_4b/1x1
I0403 15:58:25.670253 16525 net.cpp:91] Creating Layer inception_4b/1x1
I0403 15:58:25.670285 16525 net.cpp:425] inception_4b/1x1 <- inception_4a/output_inception_4a/output_0_split_1
I0403 15:58:25.670307 16525 net.cpp:399] inception_4b/1x1 -> inception_4b/1x1
I0403 15:58:25.671890 16525 net.cpp:141] Setting up inception_4b/1x1
I0403 15:58:25.671921 16525 net.cpp:148] Top shape: 24 160 14 14 (752640)
I0403 15:58:25.671946 16525 net.cpp:156] Memory required for data: 949214496
I0403 15:58:25.671964 16525 layer_factory.hpp:77] Creating layer inception_4b/relu_1x1
I0403 15:58:25.671983 16525 net.cpp:91] Creating Layer inception_4b/relu_1x1
I0403 15:58:25.671999 16525 net.cpp:425] inception_4b/relu_1x1 <- inception_4b/1x1
I0403 15:58:25.672016 16525 net.cpp:386] inception_4b/relu_1x1 -> inception_4b/1x1 (in-place)
I0403 15:58:25.672194 16525 net.cpp:141] Setting up inception_4b/relu_1x1
I0403 15:58:25.672219 16525 net.cpp:148] Top shape: 24 160 14 14 (752640)
I0403 15:58:25.672238 16525 net.cpp:156] Memory required for data: 952225056
I0403 15:58:25.672253 16525 layer_factory.hpp:77] Creating layer inception_4b/3x3_reduce
I0403 15:58:25.672276 16525 net.cpp:91] Creating Layer inception_4b/3x3_reduce
I0403 15:58:25.672294 16525 net.cpp:425] inception_4b/3x3_reduce <- inception_4a/output_inception_4a/output_0_split_2
I0403 15:58:25.672317 16525 net.cpp:399] inception_4b/3x3_reduce -> inception_4b/3x3_reduce
I0403 15:58:25.673632 16525 net.cpp:141] Setting up inception_4b/3x3_reduce
I0403 15:58:25.673660 16525 net.cpp:148] Top shape: 24 112 14 14 (526848)
I0403 15:58:25.673676 16525 net.cpp:156] Memory required for data: 954332448
I0403 15:58:25.673696 16525 layer_factory.hpp:77] Creating layer inception_4b/relu_3x3_reduce
I0403 15:58:25.673714 16525 net.cpp:91] Creating Layer inception_4b/relu_3x3_reduce
I0403 15:58:25.673730 16525 net.cpp:425] inception_4b/relu_3x3_reduce <- inception_4b/3x3_reduce
I0403 15:58:25.673751 16525 net.cpp:386] inception_4b/relu_3x3_reduce -> inception_4b/3x3_reduce (in-place)
I0403 15:58:25.674028 16525 net.cpp:141] Setting up inception_4b/relu_3x3_reduce
I0403 15:58:25.674054 16525 net.cpp:148] Top shape: 24 112 14 14 (526848)
I0403 15:58:25.674070 16525 net.cpp:156] Memory required for data: 956439840
I0403 15:58:25.674085 16525 layer_factory.hpp:77] Creating layer inception_4b/3x3
I0403 15:58:25.674108 16525 net.cpp:91] Creating Layer inception_4b/3x3
I0403 15:58:25.674126 16525 net.cpp:425] inception_4b/3x3 <- inception_4b/3x3_reduce
I0403 15:58:25.674149 16525 net.cpp:399] inception_4b/3x3 -> inception_4b/3x3
I0403 15:58:25.677053 16525 net.cpp:141] Setting up inception_4b/3x3
I0403 15:58:25.677083 16525 net.cpp:148] Top shape: 24 224 14 14 (1053696)
I0403 15:58:25.677099 16525 net.cpp:156] Memory required for data: 960654624
I0403 15:58:25.677119 16525 layer_factory.hpp:77] Creating layer inception_4b/relu_3x3
I0403 15:58:25.677151 16525 net.cpp:91] Creating Layer inception_4b/relu_3x3
I0403 15:58:25.677168 16525 net.cpp:425] inception_4b/relu_3x3 <- inception_4b/3x3
I0403 15:58:25.677186 16525 net.cpp:386] inception_4b/relu_3x3 -> inception_4b/3x3 (in-place)
I0403 15:58:25.677363 16525 net.cpp:141] Setting up inception_4b/relu_3x3
I0403 15:58:25.677391 16525 net.cpp:148] Top shape: 24 224 14 14 (1053696)
I0403 15:58:25.677407 16525 net.cpp:156] Memory required for data: 964869408
I0403 15:58:25.677423 16525 layer_factory.hpp:77] Creating layer inception_4b/5x5_reduce
I0403 15:58:25.677444 16525 net.cpp:91] Creating Layer inception_4b/5x5_reduce
I0403 15:58:25.677464 16525 net.cpp:425] inception_4b/5x5_reduce <- inception_4a/output_inception_4a/output_0_split_3
I0403 15:58:25.677482 16525 net.cpp:399] inception_4b/5x5_reduce -> inception_4b/5x5_reduce
I0403 15:58:25.678570 16525 net.cpp:141] Setting up inception_4b/5x5_reduce
I0403 15:58:25.678603 16525 net.cpp:148] Top shape: 24 24 14 14 (112896)
I0403 15:58:25.678620 16525 net.cpp:156] Memory required for data: 965320992
I0403 15:58:25.678639 16525 layer_factory.hpp:77] Creating layer inception_4b/relu_5x5_reduce
I0403 15:58:25.678658 16525 net.cpp:91] Creating Layer inception_4b/relu_5x5_reduce
I0403 15:58:25.678692 16525 net.cpp:425] inception_4b/relu_5x5_reduce <- inception_4b/5x5_reduce
I0403 15:58:25.678714 16525 net.cpp:386] inception_4b/relu_5x5_reduce -> inception_4b/5x5_reduce (in-place)
I0403 15:58:25.678894 16525 net.cpp:141] Setting up inception_4b/relu_5x5_reduce
I0403 15:58:25.678920 16525 net.cpp:148] Top shape: 24 24 14 14 (112896)
I0403 15:58:25.678935 16525 net.cpp:156] Memory required for data: 965772576
I0403 15:58:25.678949 16525 layer_factory.hpp:77] Creating layer inception_4b/5x5
I0403 15:58:25.678972 16525 net.cpp:91] Creating Layer inception_4b/5x5
I0403 15:58:25.678990 16525 net.cpp:425] inception_4b/5x5 <- inception_4b/5x5_reduce
I0403 15:58:25.679013 16525 net.cpp:399] inception_4b/5x5 -> inception_4b/5x5
I0403 15:58:25.680189 16525 net.cpp:141] Setting up inception_4b/5x5
I0403 15:58:25.680220 16525 net.cpp:148] Top shape: 24 64 14 14 (301056)
I0403 15:58:25.680238 16525 net.cpp:156] Memory required for data: 966976800
I0403 15:58:25.680256 16525 layer_factory.hpp:77] Creating layer inception_4b/relu_5x5
I0403 15:58:25.680274 16525 net.cpp:91] Creating Layer inception_4b/relu_5x5
I0403 15:58:25.680290 16525 net.cpp:425] inception_4b/relu_5x5 <- inception_4b/5x5
I0403 15:58:25.680308 16525 net.cpp:386] inception_4b/relu_5x5 -> inception_4b/5x5 (in-place)
I0403 15:58:25.680585 16525 net.cpp:141] Setting up inception_4b/relu_5x5
I0403 15:58:25.680614 16525 net.cpp:148] Top shape: 24 64 14 14 (301056)
I0403 15:58:25.680631 16525 net.cpp:156] Memory required for data: 968181024
I0403 15:58:25.680646 16525 layer_factory.hpp:77] Creating layer inception_4b/pool
I0403 15:58:25.680665 16525 net.cpp:91] Creating Layer inception_4b/pool
I0403 15:58:25.680680 16525 net.cpp:425] inception_4b/pool <- inception_4a/output_inception_4a/output_0_split_4
I0403 15:58:25.680699 16525 net.cpp:399] inception_4b/pool -> inception_4b/pool
I0403 15:58:25.680765 16525 net.cpp:141] Setting up inception_4b/pool
I0403 15:58:25.680789 16525 net.cpp:148] Top shape: 24 512 14 14 (2408448)
I0403 15:58:25.680804 16525 net.cpp:156] Memory required for data: 977814816
I0403 15:58:25.680819 16525 layer_factory.hpp:77] Creating layer inception_4b/pool_proj
I0403 15:58:25.680840 16525 net.cpp:91] Creating Layer inception_4b/pool_proj
I0403 15:58:25.680858 16525 net.cpp:425] inception_4b/pool_proj <- inception_4b/pool
I0403 15:58:25.680879 16525 net.cpp:399] inception_4b/pool_proj -> inception_4b/pool_proj
I0403 15:58:25.682034 16525 net.cpp:141] Setting up inception_4b/pool_proj
I0403 15:58:25.682063 16525 net.cpp:148] Top shape: 24 64 14 14 (301056)
I0403 15:58:25.682080 16525 net.cpp:156] Memory required for data: 979019040
I0403 15:58:25.682097 16525 layer_factory.hpp:77] Creating layer inception_4b/relu_pool_proj
I0403 15:58:25.682116 16525 net.cpp:91] Creating Layer inception_4b/relu_pool_proj
I0403 15:58:25.682132 16525 net.cpp:425] inception_4b/relu_pool_proj <- inception_4b/pool_proj
I0403 15:58:25.682154 16525 net.cpp:386] inception_4b/relu_pool_proj -> inception_4b/pool_proj (in-place)
I0403 15:58:25.682333 16525 net.cpp:141] Setting up inception_4b/relu_pool_proj
I0403 15:58:25.682358 16525 net.cpp:148] Top shape: 24 64 14 14 (301056)
I0403 15:58:25.682374 16525 net.cpp:156] Memory required for data: 980223264
I0403 15:58:25.682389 16525 layer_factory.hpp:77] Creating layer inception_4b/output
I0403 15:58:25.682406 16525 net.cpp:91] Creating Layer inception_4b/output
I0403 15:58:25.682422 16525 net.cpp:425] inception_4b/output <- inception_4b/1x1
I0403 15:58:25.682440 16525 net.cpp:425] inception_4b/output <- inception_4b/3x3
I0403 15:58:25.682458 16525 net.cpp:425] inception_4b/output <- inception_4b/5x5
I0403 15:58:25.682474 16525 net.cpp:425] inception_4b/output <- inception_4b/pool_proj
I0403 15:58:25.682492 16525 net.cpp:399] inception_4b/output -> inception_4b/output
I0403 15:58:25.682535 16525 net.cpp:141] Setting up inception_4b/output
I0403 15:58:25.682564 16525 net.cpp:148] Top shape: 24 512 14 14 (2408448)
I0403 15:58:25.682585 16525 net.cpp:156] Memory required for data: 989857056
I0403 15:58:25.682615 16525 layer_factory.hpp:77] Creating layer inception_4b/output_inception_4b/output_0_split
I0403 15:58:25.682634 16525 net.cpp:91] Creating Layer inception_4b/output_inception_4b/output_0_split
I0403 15:58:25.682651 16525 net.cpp:425] inception_4b/output_inception_4b/output_0_split <- inception_4b/output
I0403 15:58:25.682672 16525 net.cpp:399] inception_4b/output_inception_4b/output_0_split -> inception_4b/output_inception_4b/output_0_split_0
I0403 15:58:25.682693 16525 net.cpp:399] inception_4b/output_inception_4b/output_0_split -> inception_4b/output_inception_4b/output_0_split_1
I0403 15:58:25.682713 16525 net.cpp:399] inception_4b/output_inception_4b/output_0_split -> inception_4b/output_inception_4b/output_0_split_2
I0403 15:58:25.682734 16525 net.cpp:399] inception_4b/output_inception_4b/output_0_split -> inception_4b/output_inception_4b/output_0_split_3
I0403 15:58:25.682811 16525 net.cpp:141] Setting up inception_4b/output_inception_4b/output_0_split
I0403 15:58:25.682837 16525 net.cpp:148] Top shape: 24 512 14 14 (2408448)
I0403 15:58:25.682855 16525 net.cpp:148] Top shape: 24 512 14 14 (2408448)
I0403 15:58:25.682871 16525 net.cpp:148] Top shape: 24 512 14 14 (2408448)
I0403 15:58:25.682888 16525 net.cpp:148] Top shape: 24 512 14 14 (2408448)
I0403 15:58:25.682903 16525 net.cpp:156] Memory required for data: 1028392224
I0403 15:58:25.682917 16525 layer_factory.hpp:77] Creating layer inception_4c/1x1
I0403 15:58:25.682936 16525 net.cpp:91] Creating Layer inception_4c/1x1
I0403 15:58:25.682953 16525 net.cpp:425] inception_4c/1x1 <- inception_4b/output_inception_4b/output_0_split_0
I0403 15:58:25.682974 16525 net.cpp:399] inception_4c/1x1 -> inception_4c/1x1
I0403 15:58:25.684356 16525 net.cpp:141] Setting up inception_4c/1x1
I0403 15:58:25.684384 16525 net.cpp:148] Top shape: 24 128 14 14 (602112)
I0403 15:58:25.684401 16525 net.cpp:156] Memory required for data: 1030800672
I0403 15:58:25.684419 16525 layer_factory.hpp:77] Creating layer inception_4c/relu_1x1
I0403 15:58:25.684440 16525 net.cpp:91] Creating Layer inception_4c/relu_1x1
I0403 15:58:25.684459 16525 net.cpp:425] inception_4c/relu_1x1 <- inception_4c/1x1
I0403 15:58:25.684476 16525 net.cpp:386] inception_4c/relu_1x1 -> inception_4c/1x1 (in-place)
I0403 15:58:25.684665 16525 net.cpp:141] Setting up inception_4c/relu_1x1
I0403 15:58:25.684692 16525 net.cpp:148] Top shape: 24 128 14 14 (602112)
I0403 15:58:25.684708 16525 net.cpp:156] Memory required for data: 1033209120
I0403 15:58:25.684723 16525 layer_factory.hpp:77] Creating layer inception_4c/3x3_reduce
I0403 15:58:25.684746 16525 net.cpp:91] Creating Layer inception_4c/3x3_reduce
I0403 15:58:25.684764 16525 net.cpp:425] inception_4c/3x3_reduce <- inception_4b/output_inception_4b/output_0_split_1
I0403 15:58:25.684783 16525 net.cpp:399] inception_4c/3x3_reduce -> inception_4c/3x3_reduce
I0403 15:58:25.686655 16525 net.cpp:141] Setting up inception_4c/3x3_reduce
I0403 15:58:25.686686 16525 net.cpp:148] Top shape: 24 128 14 14 (602112)
I0403 15:58:25.686703 16525 net.cpp:156] Memory required for data: 1035617568
I0403 15:58:25.686722 16525 layer_factory.hpp:77] Creating layer inception_4c/relu_3x3_reduce
I0403 15:58:25.686740 16525 net.cpp:91] Creating Layer inception_4c/relu_3x3_reduce
I0403 15:58:25.686758 16525 net.cpp:425] inception_4c/relu_3x3_reduce <- inception_4c/3x3_reduce
I0403 15:58:25.686776 16525 net.cpp:386] inception_4c/relu_3x3_reduce -> inception_4c/3x3_reduce (in-place)
I0403 15:58:25.687062 16525 net.cpp:141] Setting up inception_4c/relu_3x3_reduce
I0403 15:58:25.687090 16525 net.cpp:148] Top shape: 24 128 14 14 (602112)
I0403 15:58:25.687106 16525 net.cpp:156] Memory required for data: 1038026016
I0403 15:58:25.687122 16525 layer_factory.hpp:77] Creating layer inception_4c/3x3
I0403 15:58:25.687145 16525 net.cpp:91] Creating Layer inception_4c/3x3
I0403 15:58:25.687163 16525 net.cpp:425] inception_4c/3x3 <- inception_4c/3x3_reduce
I0403 15:58:25.687183 16525 net.cpp:399] inception_4c/3x3 -> inception_4c/3x3
I0403 15:58:25.690690 16525 net.cpp:141] Setting up inception_4c/3x3
I0403 15:58:25.690732 16525 net.cpp:148] Top shape: 24 256 14 14 (1204224)
I0403 15:58:25.690750 16525 net.cpp:156] Memory required for data: 1042842912
I0403 15:58:25.690783 16525 layer_factory.hpp:77] Creating layer inception_4c/relu_3x3
I0403 15:58:25.690805 16525 net.cpp:91] Creating Layer inception_4c/relu_3x3
I0403 15:58:25.690821 16525 net.cpp:425] inception_4c/relu_3x3 <- inception_4c/3x3
I0403 15:58:25.690845 16525 net.cpp:386] inception_4c/relu_3x3 -> inception_4c/3x3 (in-place)
I0403 15:58:25.691021 16525 net.cpp:141] Setting up inception_4c/relu_3x3
I0403 15:58:25.691050 16525 net.cpp:148] Top shape: 24 256 14 14 (1204224)
I0403 15:58:25.691066 16525 net.cpp:156] Memory required for data: 1047659808
I0403 15:58:25.691082 16525 layer_factory.hpp:77] Creating layer inception_4c/5x5_reduce
I0403 15:58:25.691104 16525 net.cpp:91] Creating Layer inception_4c/5x5_reduce
I0403 15:58:25.691123 16525 net.cpp:425] inception_4c/5x5_reduce <- inception_4b/output_inception_4b/output_0_split_2
I0403 15:58:25.691141 16525 net.cpp:399] inception_4c/5x5_reduce -> inception_4c/5x5_reduce
I0403 15:58:25.692224 16525 net.cpp:141] Setting up inception_4c/5x5_reduce
I0403 15:58:25.692255 16525 net.cpp:148] Top shape: 24 24 14 14 (112896)
I0403 15:58:25.692272 16525 net.cpp:156] Memory required for data: 1048111392
I0403 15:58:25.692291 16525 layer_factory.hpp:77] Creating layer inception_4c/relu_5x5_reduce
I0403 15:58:25.692308 16525 net.cpp:91] Creating Layer inception_4c/relu_5x5_reduce
I0403 15:58:25.692325 16525 net.cpp:425] inception_4c/relu_5x5_reduce <- inception_4c/5x5_reduce
I0403 15:58:25.692347 16525 net.cpp:386] inception_4c/relu_5x5_reduce -> inception_4c/5x5_reduce (in-place)
I0403 15:58:25.692528 16525 net.cpp:141] Setting up inception_4c/relu_5x5_reduce
I0403 15:58:25.692555 16525 net.cpp:148] Top shape: 24 24 14 14 (112896)
I0403 15:58:25.692569 16525 net.cpp:156] Memory required for data: 1048562976
I0403 15:58:25.692590 16525 layer_factory.hpp:77] Creating layer inception_4c/5x5
I0403 15:58:25.692615 16525 net.cpp:91] Creating Layer inception_4c/5x5
I0403 15:58:25.692633 16525 net.cpp:425] inception_4c/5x5 <- inception_4c/5x5_reduce
I0403 15:58:25.692654 16525 net.cpp:399] inception_4c/5x5 -> inception_4c/5x5
I0403 15:58:25.693853 16525 net.cpp:141] Setting up inception_4c/5x5
I0403 15:58:25.693881 16525 net.cpp:148] Top shape: 24 64 14 14 (301056)
I0403 15:58:25.693897 16525 net.cpp:156] Memory required for data: 1049767200
I0403 15:58:25.693915 16525 layer_factory.hpp:77] Creating layer inception_4c/relu_5x5
I0403 15:58:25.693938 16525 net.cpp:91] Creating Layer inception_4c/relu_5x5
I0403 15:58:25.693955 16525 net.cpp:425] inception_4c/relu_5x5 <- inception_4c/5x5
I0403 15:58:25.693972 16525 net.cpp:386] inception_4c/relu_5x5 -> inception_4c/5x5 (in-place)
I0403 15:58:25.694250 16525 net.cpp:141] Setting up inception_4c/relu_5x5
I0403 15:58:25.694277 16525 net.cpp:148] Top shape: 24 64 14 14 (301056)
I0403 15:58:25.694291 16525 net.cpp:156] Memory required for data: 1050971424
I0403 15:58:25.694308 16525 layer_factory.hpp:77] Creating layer inception_4c/pool
I0403 15:58:25.694327 16525 net.cpp:91] Creating Layer inception_4c/pool
I0403 15:58:25.694344 16525 net.cpp:425] inception_4c/pool <- inception_4b/output_inception_4b/output_0_split_3
I0403 15:58:25.694363 16525 net.cpp:399] inception_4c/pool -> inception_4c/pool
I0403 15:58:25.694427 16525 net.cpp:141] Setting up inception_4c/pool
I0403 15:58:25.694452 16525 net.cpp:148] Top shape: 24 512 14 14 (2408448)
I0403 15:58:25.694466 16525 net.cpp:156] Memory required for data: 1060605216
I0403 15:58:25.694481 16525 layer_factory.hpp:77] Creating layer inception_4c/pool_proj
I0403 15:58:25.694502 16525 net.cpp:91] Creating Layer inception_4c/pool_proj
I0403 15:58:25.694519 16525 net.cpp:425] inception_4c/pool_proj <- inception_4c/pool
I0403 15:58:25.694540 16525 net.cpp:399] inception_4c/pool_proj -> inception_4c/pool_proj
I0403 15:58:25.695770 16525 net.cpp:141] Setting up inception_4c/pool_proj
I0403 15:58:25.695802 16525 net.cpp:148] Top shape: 24 64 14 14 (301056)
I0403 15:58:25.695834 16525 net.cpp:156] Memory required for data: 1061809440
I0403 15:58:25.695866 16525 layer_factory.hpp:77] Creating layer inception_4c/relu_pool_proj
I0403 15:58:25.695886 16525 net.cpp:91] Creating Layer inception_4c/relu_pool_proj
I0403 15:58:25.695904 16525 net.cpp:425] inception_4c/relu_pool_proj <- inception_4c/pool_proj
I0403 15:58:25.695922 16525 net.cpp:386] inception_4c/relu_pool_proj -> inception_4c/pool_proj (in-place)
I0403 15:58:25.696118 16525 net.cpp:141] Setting up inception_4c/relu_pool_proj
I0403 15:58:25.696144 16525 net.cpp:148] Top shape: 24 64 14 14 (301056)
I0403 15:58:25.696161 16525 net.cpp:156] Memory required for data: 1063013664
I0403 15:58:25.696176 16525 layer_factory.hpp:77] Creating layer inception_4c/output
I0403 15:58:25.696192 16525 net.cpp:91] Creating Layer inception_4c/output
I0403 15:58:25.696210 16525 net.cpp:425] inception_4c/output <- inception_4c/1x1
I0403 15:58:25.696228 16525 net.cpp:425] inception_4c/output <- inception_4c/3x3
I0403 15:58:25.696244 16525 net.cpp:425] inception_4c/output <- inception_4c/5x5
I0403 15:58:25.696260 16525 net.cpp:425] inception_4c/output <- inception_4c/pool_proj
I0403 15:58:25.696280 16525 net.cpp:399] inception_4c/output -> inception_4c/output
I0403 15:58:25.696338 16525 net.cpp:141] Setting up inception_4c/output
I0403 15:58:25.696364 16525 net.cpp:148] Top shape: 24 512 14 14 (2408448)
I0403 15:58:25.696380 16525 net.cpp:156] Memory required for data: 1072647456
I0403 15:58:25.696394 16525 layer_factory.hpp:77] Creating layer inception_4c/output_inception_4c/output_0_split
I0403 15:58:25.696411 16525 net.cpp:91] Creating Layer inception_4c/output_inception_4c/output_0_split
I0403 15:58:25.696427 16525 net.cpp:425] inception_4c/output_inception_4c/output_0_split <- inception_4c/output
I0403 15:58:25.696446 16525 net.cpp:399] inception_4c/output_inception_4c/output_0_split -> inception_4c/output_inception_4c/output_0_split_0
I0403 15:58:25.696468 16525 net.cpp:399] inception_4c/output_inception_4c/output_0_split -> inception_4c/output_inception_4c/output_0_split_1
I0403 15:58:25.696490 16525 net.cpp:399] inception_4c/output_inception_4c/output_0_split -> inception_4c/output_inception_4c/output_0_split_2
I0403 15:58:25.696509 16525 net.cpp:399] inception_4c/output_inception_4c/output_0_split -> inception_4c/output_inception_4c/output_0_split_3
I0403 15:58:25.696596 16525 net.cpp:141] Setting up inception_4c/output_inception_4c/output_0_split
I0403 15:58:25.696620 16525 net.cpp:148] Top shape: 24 512 14 14 (2408448)
I0403 15:58:25.696640 16525 net.cpp:148] Top shape: 24 512 14 14 (2408448)
I0403 15:58:25.696656 16525 net.cpp:148] Top shape: 24 512 14 14 (2408448)
I0403 15:58:25.696672 16525 net.cpp:148] Top shape: 24 512 14 14 (2408448)
I0403 15:58:25.696686 16525 net.cpp:156] Memory required for data: 1111182624
I0403 15:58:25.696699 16525 layer_factory.hpp:77] Creating layer inception_4d/1x1
I0403 15:58:25.696719 16525 net.cpp:91] Creating Layer inception_4d/1x1
I0403 15:58:25.696737 16525 net.cpp:425] inception_4d/1x1 <- inception_4c/output_inception_4c/output_0_split_0
I0403 15:58:25.696758 16525 net.cpp:399] inception_4d/1x1 -> inception_4d/1x1
I0403 15:58:25.698097 16525 net.cpp:141] Setting up inception_4d/1x1
I0403 15:58:25.698125 16525 net.cpp:148] Top shape: 24 112 14 14 (526848)
I0403 15:58:25.698142 16525 net.cpp:156] Memory required for data: 1113290016
I0403 15:58:25.698159 16525 layer_factory.hpp:77] Creating layer inception_4d/relu_1x1
I0403 15:58:25.698179 16525 net.cpp:91] Creating Layer inception_4d/relu_1x1
I0403 15:58:25.698197 16525 net.cpp:425] inception_4d/relu_1x1 <- inception_4d/1x1
I0403 15:58:25.698216 16525 net.cpp:386] inception_4d/relu_1x1 -> inception_4d/1x1 (in-place)
I0403 15:58:25.698395 16525 net.cpp:141] Setting up inception_4d/relu_1x1
I0403 15:58:25.698422 16525 net.cpp:148] Top shape: 24 112 14 14 (526848)
I0403 15:58:25.698438 16525 net.cpp:156] Memory required for data: 1115397408
I0403 15:58:25.698453 16525 layer_factory.hpp:77] Creating layer inception_4d/3x3_reduce
I0403 15:58:25.698490 16525 net.cpp:91] Creating Layer inception_4d/3x3_reduce
I0403 15:58:25.698508 16525 net.cpp:425] inception_4d/3x3_reduce <- inception_4c/output_inception_4c/output_0_split_1
I0403 15:58:25.698528 16525 net.cpp:399] inception_4d/3x3_reduce -> inception_4d/3x3_reduce
I0403 15:58:25.700029 16525 net.cpp:141] Setting up inception_4d/3x3_reduce
I0403 15:58:25.700057 16525 net.cpp:148] Top shape: 24 144 14 14 (677376)
I0403 15:58:25.700073 16525 net.cpp:156] Memory required for data: 1118106912
I0403 15:58:25.700090 16525 layer_factory.hpp:77] Creating layer inception_4d/relu_3x3_reduce
I0403 15:58:25.700110 16525 net.cpp:91] Creating Layer inception_4d/relu_3x3_reduce
I0403 15:58:25.700129 16525 net.cpp:425] inception_4d/relu_3x3_reduce <- inception_4d/3x3_reduce
I0403 15:58:25.700147 16525 net.cpp:386] inception_4d/relu_3x3_reduce -> inception_4d/3x3_reduce (in-place)
I0403 15:58:25.700431 16525 net.cpp:141] Setting up inception_4d/relu_3x3_reduce
I0403 15:58:25.700458 16525 net.cpp:148] Top shape: 24 144 14 14 (677376)
I0403 15:58:25.700474 16525 net.cpp:156] Memory required for data: 1120816416
I0403 15:58:25.700487 16525 layer_factory.hpp:77] Creating layer inception_4d/3x3
I0403 15:58:25.700510 16525 net.cpp:91] Creating Layer inception_4d/3x3
I0403 15:58:25.700528 16525 net.cpp:425] inception_4d/3x3 <- inception_4d/3x3_reduce
I0403 15:58:25.700552 16525 net.cpp:399] inception_4d/3x3 -> inception_4d/3x3
I0403 15:58:25.704715 16525 net.cpp:141] Setting up inception_4d/3x3
I0403 15:58:25.704746 16525 net.cpp:148] Top shape: 24 288 14 14 (1354752)
I0403 15:58:25.704761 16525 net.cpp:156] Memory required for data: 1126235424
I0403 15:58:25.704780 16525 layer_factory.hpp:77] Creating layer inception_4d/relu_3x3
I0403 15:58:25.704814 16525 net.cpp:91] Creating Layer inception_4d/relu_3x3
I0403 15:58:25.704833 16525 net.cpp:425] inception_4d/relu_3x3 <- inception_4d/3x3
I0403 15:58:25.704850 16525 net.cpp:386] inception_4d/relu_3x3 -> inception_4d/3x3 (in-place)
I0403 15:58:25.705029 16525 net.cpp:141] Setting up inception_4d/relu_3x3
I0403 15:58:25.705054 16525 net.cpp:148] Top shape: 24 288 14 14 (1354752)
I0403 15:58:25.705070 16525 net.cpp:156] Memory required for data: 1131654432
I0403 15:58:25.705085 16525 layer_factory.hpp:77] Creating layer inception_4d/5x5_reduce
I0403 15:58:25.705106 16525 net.cpp:91] Creating Layer inception_4d/5x5_reduce
I0403 15:58:25.705123 16525 net.cpp:425] inception_4d/5x5_reduce <- inception_4c/output_inception_4c/output_0_split_2
I0403 15:58:25.705144 16525 net.cpp:399] inception_4d/5x5_reduce -> inception_4d/5x5_reduce
I0403 15:58:25.706271 16525 net.cpp:141] Setting up inception_4d/5x5_reduce
I0403 15:58:25.706300 16525 net.cpp:148] Top shape: 24 32 14 14 (150528)
I0403 15:58:25.706320 16525 net.cpp:156] Memory required for data: 1132256544
I0403 15:58:25.706338 16525 layer_factory.hpp:77] Creating layer inception_4d/relu_5x5_reduce
I0403 15:58:25.706357 16525 net.cpp:91] Creating Layer inception_4d/relu_5x5_reduce
I0403 15:58:25.706373 16525 net.cpp:425] inception_4d/relu_5x5_reduce <- inception_4d/5x5_reduce
I0403 15:58:25.706392 16525 net.cpp:386] inception_4d/relu_5x5_reduce -> inception_4d/5x5_reduce (in-place)
I0403 15:58:25.706594 16525 net.cpp:141] Setting up inception_4d/relu_5x5_reduce
I0403 15:58:25.706622 16525 net.cpp:148] Top shape: 24 32 14 14 (150528)
I0403 15:58:25.706640 16525 net.cpp:156] Memory required for data: 1132858656
I0403 15:58:25.706655 16525 layer_factory.hpp:77] Creating layer inception_4d/5x5
I0403 15:58:25.706677 16525 net.cpp:91] Creating Layer inception_4d/5x5
I0403 15:58:25.706696 16525 net.cpp:425] inception_4d/5x5 <- inception_4d/5x5_reduce
I0403 15:58:25.706715 16525 net.cpp:399] inception_4d/5x5 -> inception_4d/5x5
I0403 15:58:25.708159 16525 net.cpp:141] Setting up inception_4d/5x5
I0403 15:58:25.708187 16525 net.cpp:148] Top shape: 24 64 14 14 (301056)
I0403 15:58:25.708202 16525 net.cpp:156] Memory required for data: 1134062880
I0403 15:58:25.708222 16525 layer_factory.hpp:77] Creating layer inception_4d/relu_5x5
I0403 15:58:25.708256 16525 net.cpp:91] Creating Layer inception_4d/relu_5x5
I0403 15:58:25.708274 16525 net.cpp:425] inception_4d/relu_5x5 <- inception_4d/5x5
I0403 15:58:25.708297 16525 net.cpp:386] inception_4d/relu_5x5 -> inception_4d/5x5 (in-place)
I0403 15:58:25.708611 16525 net.cpp:141] Setting up inception_4d/relu_5x5
I0403 15:58:25.708638 16525 net.cpp:148] Top shape: 24 64 14 14 (301056)
I0403 15:58:25.708654 16525 net.cpp:156] Memory required for data: 1135267104
I0403 15:58:25.708669 16525 layer_factory.hpp:77] Creating layer inception_4d/pool
I0403 15:58:25.708688 16525 net.cpp:91] Creating Layer inception_4d/pool
I0403 15:58:25.708705 16525 net.cpp:425] inception_4d/pool <- inception_4c/output_inception_4c/output_0_split_3
I0403 15:58:25.708726 16525 net.cpp:399] inception_4d/pool -> inception_4d/pool
I0403 15:58:25.708793 16525 net.cpp:141] Setting up inception_4d/pool
I0403 15:58:25.708832 16525 net.cpp:148] Top shape: 24 512 14 14 (2408448)
I0403 15:58:25.708847 16525 net.cpp:156] Memory required for data: 1144900896
I0403 15:58:25.708863 16525 layer_factory.hpp:77] Creating layer inception_4d/pool_proj
I0403 15:58:25.708884 16525 net.cpp:91] Creating Layer inception_4d/pool_proj
I0403 15:58:25.708902 16525 net.cpp:425] inception_4d/pool_proj <- inception_4d/pool
I0403 15:58:25.708921 16525 net.cpp:399] inception_4d/pool_proj -> inception_4d/pool_proj
I0403 15:58:25.710635 16525 net.cpp:141] Setting up inception_4d/pool_proj
I0403 15:58:25.710664 16525 net.cpp:148] Top shape: 24 64 14 14 (301056)
I0403 15:58:25.710680 16525 net.cpp:156] Memory required for data: 1146105120
I0403 15:58:25.710700 16525 layer_factory.hpp:77] Creating layer inception_4d/relu_pool_proj
I0403 15:58:25.710721 16525 net.cpp:91] Creating Layer inception_4d/relu_pool_proj
I0403 15:58:25.710738 16525 net.cpp:425] inception_4d/relu_pool_proj <- inception_4d/pool_proj
I0403 15:58:25.710757 16525 net.cpp:386] inception_4d/relu_pool_proj -> inception_4d/pool_proj (in-place)
I0403 15:58:25.710942 16525 net.cpp:141] Setting up inception_4d/relu_pool_proj
I0403 15:58:25.710968 16525 net.cpp:148] Top shape: 24 64 14 14 (301056)
I0403 15:58:25.710983 16525 net.cpp:156] Memory required for data: 1147309344
I0403 15:58:25.710999 16525 layer_factory.hpp:77] Creating layer inception_4d/output
I0403 15:58:25.711016 16525 net.cpp:91] Creating Layer inception_4d/output
I0403 15:58:25.711033 16525 net.cpp:425] inception_4d/output <- inception_4d/1x1
I0403 15:58:25.711050 16525 net.cpp:425] inception_4d/output <- inception_4d/3x3
I0403 15:58:25.711067 16525 net.cpp:425] inception_4d/output <- inception_4d/5x5
I0403 15:58:25.711084 16525 net.cpp:425] inception_4d/output <- inception_4d/pool_proj
I0403 15:58:25.711103 16525 net.cpp:399] inception_4d/output -> inception_4d/output
I0403 15:58:25.711150 16525 net.cpp:141] Setting up inception_4d/output
I0403 15:58:25.711177 16525 net.cpp:148] Top shape: 24 528 14 14 (2483712)
I0403 15:58:25.711194 16525 net.cpp:156] Memory required for data: 1157244192
I0403 15:58:25.711208 16525 layer_factory.hpp:77] Creating layer inception_4d/output_inception_4d/output_0_split
I0403 15:58:25.711226 16525 net.cpp:91] Creating Layer inception_4d/output_inception_4d/output_0_split
I0403 15:58:25.711242 16525 net.cpp:425] inception_4d/output_inception_4d/output_0_split <- inception_4d/output
I0403 15:58:25.711259 16525 net.cpp:399] inception_4d/output_inception_4d/output_0_split -> inception_4d/output_inception_4d/output_0_split_0
I0403 15:58:25.711280 16525 net.cpp:399] inception_4d/output_inception_4d/output_0_split -> inception_4d/output_inception_4d/output_0_split_1
I0403 15:58:25.711303 16525 net.cpp:399] inception_4d/output_inception_4d/output_0_split -> inception_4d/output_inception_4d/output_0_split_2
I0403 15:58:25.711326 16525 net.cpp:399] inception_4d/output_inception_4d/output_0_split -> inception_4d/output_inception_4d/output_0_split_3
I0403 15:58:25.711347 16525 net.cpp:399] inception_4d/output_inception_4d/output_0_split -> inception_4d/output_inception_4d/output_0_split_4
I0403 15:58:25.711449 16525 net.cpp:141] Setting up inception_4d/output_inception_4d/output_0_split
I0403 15:58:25.711485 16525 net.cpp:148] Top shape: 24 528 14 14 (2483712)
I0403 15:58:25.711503 16525 net.cpp:148] Top shape: 24 528 14 14 (2483712)
I0403 15:58:25.711520 16525 net.cpp:148] Top shape: 24 528 14 14 (2483712)
I0403 15:58:25.711536 16525 net.cpp:148] Top shape: 24 528 14 14 (2483712)
I0403 15:58:25.711555 16525 net.cpp:148] Top shape: 24 528 14 14 (2483712)
I0403 15:58:25.711568 16525 net.cpp:156] Memory required for data: 1206918432
I0403 15:58:25.711601 16525 layer_factory.hpp:77] Creating layer loss2/ave_pool
I0403 15:58:25.711635 16525 net.cpp:91] Creating Layer loss2/ave_pool
I0403 15:58:25.711653 16525 net.cpp:425] loss2/ave_pool <- inception_4d/output_inception_4d/output_0_split_0
I0403 15:58:25.711673 16525 net.cpp:399] loss2/ave_pool -> loss2/ave_pool
I0403 15:58:25.711997 16525 net.cpp:141] Setting up loss2/ave_pool
I0403 15:58:25.712024 16525 net.cpp:148] Top shape: 24 528 4 4 (202752)
I0403 15:58:25.712039 16525 net.cpp:156] Memory required for data: 1207729440
I0403 15:58:25.712055 16525 layer_factory.hpp:77] Creating layer loss2/conv
I0403 15:58:25.712080 16525 net.cpp:91] Creating Layer loss2/conv
I0403 15:58:25.712097 16525 net.cpp:425] loss2/conv <- loss2/ave_pool
I0403 15:58:25.712117 16525 net.cpp:399] loss2/conv -> loss2/conv
I0403 15:58:25.713964 16525 net.cpp:141] Setting up loss2/conv
I0403 15:58:25.713994 16525 net.cpp:148] Top shape: 24 128 4 4 (49152)
I0403 15:58:25.714010 16525 net.cpp:156] Memory required for data: 1207926048
I0403 15:58:25.714028 16525 layer_factory.hpp:77] Creating layer loss2/relu_conv
I0403 15:58:25.714047 16525 net.cpp:91] Creating Layer loss2/relu_conv
I0403 15:58:25.714064 16525 net.cpp:425] loss2/relu_conv <- loss2/conv
I0403 15:58:25.714083 16525 net.cpp:386] loss2/relu_conv -> loss2/conv (in-place)
I0403 15:58:25.714361 16525 net.cpp:141] Setting up loss2/relu_conv
I0403 15:58:25.714388 16525 net.cpp:148] Top shape: 24 128 4 4 (49152)
I0403 15:58:25.714404 16525 net.cpp:156] Memory required for data: 1208122656
I0403 15:58:25.714421 16525 layer_factory.hpp:77] Creating layer loss2/fc
I0403 15:58:25.714438 16525 net.cpp:91] Creating Layer loss2/fc
I0403 15:58:25.714455 16525 net.cpp:425] loss2/fc <- loss2/conv
I0403 15:58:25.714476 16525 net.cpp:399] loss2/fc -> loss2/fc
I0403 15:58:25.731695 16525 net.cpp:141] Setting up loss2/fc
I0403 15:58:25.731724 16525 net.cpp:148] Top shape: 24 1024 (24576)
I0403 15:58:25.731740 16525 net.cpp:156] Memory required for data: 1208220960
I0403 15:58:25.731762 16525 layer_factory.hpp:77] Creating layer loss2/relu_fc
I0403 15:58:25.731781 16525 net.cpp:91] Creating Layer loss2/relu_fc
I0403 15:58:25.731798 16525 net.cpp:425] loss2/relu_fc <- loss2/fc
I0403 15:58:25.731817 16525 net.cpp:386] loss2/relu_fc -> loss2/fc (in-place)
I0403 15:58:25.732110 16525 net.cpp:141] Setting up loss2/relu_fc
I0403 15:58:25.732138 16525 net.cpp:148] Top shape: 24 1024 (24576)
I0403 15:58:25.732154 16525 net.cpp:156] Memory required for data: 1208319264
I0403 15:58:25.732170 16525 layer_factory.hpp:77] Creating layer loss2/drop_fc
I0403 15:58:25.732187 16525 net.cpp:91] Creating Layer loss2/drop_fc
I0403 15:58:25.732204 16525 net.cpp:425] loss2/drop_fc <- loss2/fc
I0403 15:58:25.732223 16525 net.cpp:386] loss2/drop_fc -> loss2/fc (in-place)
I0403 15:58:25.732273 16525 net.cpp:141] Setting up loss2/drop_fc
I0403 15:58:25.732297 16525 net.cpp:148] Top shape: 24 1024 (24576)
I0403 15:58:25.732312 16525 net.cpp:156] Memory required for data: 1208417568
I0403 15:58:25.732326 16525 layer_factory.hpp:77] Creating layer loss2/classifier_plantvillage
I0403 15:58:25.732347 16525 net.cpp:91] Creating Layer loss2/classifier_plantvillage
I0403 15:58:25.732365 16525 net.cpp:425] loss2/classifier_plantvillage <- loss2/fc
I0403 15:58:25.732384 16525 net.cpp:399] loss2/classifier_plantvillage -> loss2/classifier_plantvillage
I0403 15:58:25.732784 16525 net.cpp:141] Setting up loss2/classifier_plantvillage
I0403 15:58:25.732808 16525 net.cpp:148] Top shape: 24 38 (912)
I0403 15:58:25.732823 16525 net.cpp:156] Memory required for data: 1208421216
I0403 15:58:25.732857 16525 layer_factory.hpp:77] Creating layer loss2/classifier_plantvillage_loss2/classifier_plantvillage_0_split
I0403 15:58:25.732877 16525 net.cpp:91] Creating Layer loss2/classifier_plantvillage_loss2/classifier_plantvillage_0_split
I0403 15:58:25.732893 16525 net.cpp:425] loss2/classifier_plantvillage_loss2/classifier_plantvillage_0_split <- loss2/classifier_plantvillage
I0403 15:58:25.732913 16525 net.cpp:399] loss2/classifier_plantvillage_loss2/classifier_plantvillage_0_split -> loss2/classifier_plantvillage_loss2/classifier_plantvillage_0_split_0
I0403 15:58:25.732934 16525 net.cpp:399] loss2/classifier_plantvillage_loss2/classifier_plantvillage_0_split -> loss2/classifier_plantvillage_loss2/classifier_plantvillage_0_split_1
I0403 15:58:25.732955 16525 net.cpp:399] loss2/classifier_plantvillage_loss2/classifier_plantvillage_0_split -> loss2/classifier_plantvillage_loss2/classifier_plantvillage_0_split_2
I0403 15:58:25.733034 16525 net.cpp:141] Setting up loss2/classifier_plantvillage_loss2/classifier_plantvillage_0_split
I0403 15:58:25.733058 16525 net.cpp:148] Top shape: 24 38 (912)
I0403 15:58:25.733077 16525 net.cpp:148] Top shape: 24 38 (912)
I0403 15:58:25.733093 16525 net.cpp:148] Top shape: 24 38 (912)
I0403 15:58:25.733106 16525 net.cpp:156] Memory required for data: 1208432160
I0403 15:58:25.733120 16525 layer_factory.hpp:77] Creating layer inception_4e/1x1
I0403 15:58:25.733144 16525 net.cpp:91] Creating Layer inception_4e/1x1
I0403 15:58:25.733162 16525 net.cpp:425] inception_4e/1x1 <- inception_4d/output_inception_4d/output_0_split_1
I0403 15:58:25.733182 16525 net.cpp:399] inception_4e/1x1 -> inception_4e/1x1
I0403 15:58:25.734967 16525 net.cpp:141] Setting up inception_4e/1x1
I0403 15:58:25.734995 16525 net.cpp:148] Top shape: 24 256 14 14 (1204224)
I0403 15:58:25.735011 16525 net.cpp:156] Memory required for data: 1213249056
I0403 15:58:25.735029 16525 layer_factory.hpp:77] Creating layer inception_4e/relu_1x1
I0403 15:58:25.735050 16525 net.cpp:91] Creating Layer inception_4e/relu_1x1
I0403 15:58:25.735067 16525 net.cpp:425] inception_4e/relu_1x1 <- inception_4e/1x1
I0403 15:58:25.735085 16525 net.cpp:386] inception_4e/relu_1x1 -> inception_4e/1x1 (in-place)
I0403 15:58:25.735381 16525 net.cpp:141] Setting up inception_4e/relu_1x1
I0403 15:58:25.735407 16525 net.cpp:148] Top shape: 24 256 14 14 (1204224)
I0403 15:58:25.735422 16525 net.cpp:156] Memory required for data: 1218065952
I0403 15:58:25.735438 16525 layer_factory.hpp:77] Creating layer inception_4e/3x3_reduce
I0403 15:58:25.735461 16525 net.cpp:91] Creating Layer inception_4e/3x3_reduce
I0403 15:58:25.735479 16525 net.cpp:425] inception_4e/3x3_reduce <- inception_4d/output_inception_4d/output_0_split_2
I0403 15:58:25.735501 16525 net.cpp:399] inception_4e/3x3_reduce -> inception_4e/3x3_reduce
I0403 15:58:25.737565 16525 net.cpp:141] Setting up inception_4e/3x3_reduce
I0403 15:58:25.737596 16525 net.cpp:148] Top shape: 24 160 14 14 (752640)
I0403 15:58:25.737613 16525 net.cpp:156] Memory required for data: 1221076512
I0403 15:58:25.737632 16525 layer_factory.hpp:77] Creating layer inception_4e/relu_3x3_reduce
I0403 15:58:25.737651 16525 net.cpp:91] Creating Layer inception_4e/relu_3x3_reduce
I0403 15:58:25.737669 16525 net.cpp:425] inception_4e/relu_3x3_reduce <- inception_4e/3x3_reduce
I0403 15:58:25.737690 16525 net.cpp:386] inception_4e/relu_3x3_reduce -> inception_4e/3x3_reduce (in-place)
I0403 15:58:25.737875 16525 net.cpp:141] Setting up inception_4e/relu_3x3_reduce
I0403 15:58:25.737900 16525 net.cpp:148] Top shape: 24 160 14 14 (752640)
I0403 15:58:25.737915 16525 net.cpp:156] Memory required for data: 1224087072
I0403 15:58:25.737931 16525 layer_factory.hpp:77] Creating layer inception_4e/3x3
I0403 15:58:25.737953 16525 net.cpp:91] Creating Layer inception_4e/3x3
I0403 15:58:25.737972 16525 net.cpp:425] inception_4e/3x3 <- inception_4e/3x3_reduce
I0403 15:58:25.737993 16525 net.cpp:399] inception_4e/3x3 -> inception_4e/3x3
I0403 15:58:25.742858 16525 net.cpp:141] Setting up inception_4e/3x3
I0403 15:58:25.742900 16525 net.cpp:148] Top shape: 24 320 14 14 (1505280)
I0403 15:58:25.742918 16525 net.cpp:156] Memory required for data: 1230108192
I0403 15:58:25.742936 16525 layer_factory.hpp:77] Creating layer inception_4e/relu_3x3
I0403 15:58:25.742957 16525 net.cpp:91] Creating Layer inception_4e/relu_3x3
I0403 15:58:25.742975 16525 net.cpp:425] inception_4e/relu_3x3 <- inception_4e/3x3
I0403 15:58:25.742992 16525 net.cpp:386] inception_4e/relu_3x3 -> inception_4e/3x3 (in-place)
I0403 15:58:25.743288 16525 net.cpp:141] Setting up inception_4e/relu_3x3
I0403 15:58:25.743315 16525 net.cpp:148] Top shape: 24 320 14 14 (1505280)
I0403 15:58:25.743332 16525 net.cpp:156] Memory required for data: 1236129312
I0403 15:58:25.743348 16525 layer_factory.hpp:77] Creating layer inception_4e/5x5_reduce
I0403 15:58:25.743371 16525 net.cpp:91] Creating Layer inception_4e/5x5_reduce
I0403 15:58:25.743388 16525 net.cpp:425] inception_4e/5x5_reduce <- inception_4d/output_inception_4d/output_0_split_3
I0403 15:58:25.743412 16525 net.cpp:399] inception_4e/5x5_reduce -> inception_4e/5x5_reduce
I0403 15:58:25.744459 16525 net.cpp:141] Setting up inception_4e/5x5_reduce
I0403 15:58:25.744488 16525 net.cpp:148] Top shape: 24 32 14 14 (150528)
I0403 15:58:25.744503 16525 net.cpp:156] Memory required for data: 1236731424
I0403 15:58:25.744521 16525 layer_factory.hpp:77] Creating layer inception_4e/relu_5x5_reduce
I0403 15:58:25.744540 16525 net.cpp:91] Creating Layer inception_4e/relu_5x5_reduce
I0403 15:58:25.744559 16525 net.cpp:425] inception_4e/relu_5x5_reduce <- inception_4e/5x5_reduce
I0403 15:58:25.744587 16525 net.cpp:386] inception_4e/relu_5x5_reduce -> inception_4e/5x5_reduce (in-place)
I0403 15:58:25.744881 16525 net.cpp:141] Setting up inception_4e/relu_5x5_reduce
I0403 15:58:25.744907 16525 net.cpp:148] Top shape: 24 32 14 14 (150528)
I0403 15:58:25.744923 16525 net.cpp:156] Memory required for data: 1237333536
I0403 15:58:25.744938 16525 layer_factory.hpp:77] Creating layer inception_4e/5x5
I0403 15:58:25.744978 16525 net.cpp:91] Creating Layer inception_4e/5x5
I0403 15:58:25.744998 16525 net.cpp:425] inception_4e/5x5 <- inception_4e/5x5_reduce
I0403 15:58:25.745018 16525 net.cpp:399] inception_4e/5x5 -> inception_4e/5x5
I0403 15:58:25.746881 16525 net.cpp:141] Setting up inception_4e/5x5
I0403 15:58:25.746911 16525 net.cpp:148] Top shape: 24 128 14 14 (602112)
I0403 15:58:25.746927 16525 net.cpp:156] Memory required for data: 1239741984
I0403 15:58:25.746948 16525 layer_factory.hpp:77] Creating layer inception_4e/relu_5x5
I0403 15:58:25.746968 16525 net.cpp:91] Creating Layer inception_4e/relu_5x5
I0403 15:58:25.746984 16525 net.cpp:425] inception_4e/relu_5x5 <- inception_4e/5x5
I0403 15:58:25.747004 16525 net.cpp:386] inception_4e/relu_5x5 -> inception_4e/5x5 (in-place)
I0403 15:58:25.747196 16525 net.cpp:141] Setting up inception_4e/relu_5x5
I0403 15:58:25.747222 16525 net.cpp:148] Top shape: 24 128 14 14 (602112)
I0403 15:58:25.747237 16525 net.cpp:156] Memory required for data: 1242150432
I0403 15:58:25.747252 16525 layer_factory.hpp:77] Creating layer inception_4e/pool
I0403 15:58:25.747269 16525 net.cpp:91] Creating Layer inception_4e/pool
I0403 15:58:25.747285 16525 net.cpp:425] inception_4e/pool <- inception_4d/output_inception_4d/output_0_split_4
I0403 15:58:25.747305 16525 net.cpp:399] inception_4e/pool -> inception_4e/pool
I0403 15:58:25.747376 16525 net.cpp:141] Setting up inception_4e/pool
I0403 15:58:25.747400 16525 net.cpp:148] Top shape: 24 528 14 14 (2483712)
I0403 15:58:25.747416 16525 net.cpp:156] Memory required for data: 1252085280
I0403 15:58:25.747431 16525 layer_factory.hpp:77] Creating layer inception_4e/pool_proj
I0403 15:58:25.747453 16525 net.cpp:91] Creating Layer inception_4e/pool_proj
I0403 15:58:25.747472 16525 net.cpp:425] inception_4e/pool_proj <- inception_4e/pool
I0403 15:58:25.747489 16525 net.cpp:399] inception_4e/pool_proj -> inception_4e/pool_proj
I0403 15:58:25.748999 16525 net.cpp:141] Setting up inception_4e/pool_proj
I0403 15:58:25.749027 16525 net.cpp:148] Top shape: 24 128 14 14 (602112)
I0403 15:58:25.749058 16525 net.cpp:156] Memory required for data: 1254493728
I0403 15:58:25.749078 16525 layer_factory.hpp:77] Creating layer inception_4e/relu_pool_proj
I0403 15:58:25.749099 16525 net.cpp:91] Creating Layer inception_4e/relu_pool_proj
I0403 15:58:25.749116 16525 net.cpp:425] inception_4e/relu_pool_proj <- inception_4e/pool_proj
I0403 15:58:25.749135 16525 net.cpp:386] inception_4e/relu_pool_proj -> inception_4e/pool_proj (in-place)
I0403 15:58:25.749428 16525 net.cpp:141] Setting up inception_4e/relu_pool_proj
I0403 15:58:25.749454 16525 net.cpp:148] Top shape: 24 128 14 14 (602112)
I0403 15:58:25.749469 16525 net.cpp:156] Memory required for data: 1256902176
I0403 15:58:25.749485 16525 layer_factory.hpp:77] Creating layer inception_4e/output
I0403 15:58:25.749505 16525 net.cpp:91] Creating Layer inception_4e/output
I0403 15:58:25.749522 16525 net.cpp:425] inception_4e/output <- inception_4e/1x1
I0403 15:58:25.749539 16525 net.cpp:425] inception_4e/output <- inception_4e/3x3
I0403 15:58:25.749555 16525 net.cpp:425] inception_4e/output <- inception_4e/5x5
I0403 15:58:25.749577 16525 net.cpp:425] inception_4e/output <- inception_4e/pool_proj
I0403 15:58:25.749595 16525 net.cpp:399] inception_4e/output -> inception_4e/output
I0403 15:58:25.749647 16525 net.cpp:141] Setting up inception_4e/output
I0403 15:58:25.749671 16525 net.cpp:148] Top shape: 24 832 14 14 (3913728)
I0403 15:58:25.749686 16525 net.cpp:156] Memory required for data: 1272557088
I0403 15:58:25.749702 16525 layer_factory.hpp:77] Creating layer pool4/3x3_s2
I0403 15:58:25.749719 16525 net.cpp:91] Creating Layer pool4/3x3_s2
I0403 15:58:25.749735 16525 net.cpp:425] pool4/3x3_s2 <- inception_4e/output
I0403 15:58:25.749758 16525 net.cpp:399] pool4/3x3_s2 -> pool4/3x3_s2
I0403 15:58:25.749827 16525 net.cpp:141] Setting up pool4/3x3_s2
I0403 15:58:25.749851 16525 net.cpp:148] Top shape: 24 832 7 7 (978432)
I0403 15:58:25.749866 16525 net.cpp:156] Memory required for data: 1276470816
I0403 15:58:25.749881 16525 layer_factory.hpp:77] Creating layer pool4/3x3_s2_pool4/3x3_s2_0_split
I0403 15:58:25.749897 16525 net.cpp:91] Creating Layer pool4/3x3_s2_pool4/3x3_s2_0_split
I0403 15:58:25.749914 16525 net.cpp:425] pool4/3x3_s2_pool4/3x3_s2_0_split <- pool4/3x3_s2
I0403 15:58:25.749934 16525 net.cpp:399] pool4/3x3_s2_pool4/3x3_s2_0_split -> pool4/3x3_s2_pool4/3x3_s2_0_split_0
I0403 15:58:25.749958 16525 net.cpp:399] pool4/3x3_s2_pool4/3x3_s2_0_split -> pool4/3x3_s2_pool4/3x3_s2_0_split_1
I0403 15:58:25.749977 16525 net.cpp:399] pool4/3x3_s2_pool4/3x3_s2_0_split -> pool4/3x3_s2_pool4/3x3_s2_0_split_2
I0403 15:58:25.749997 16525 net.cpp:399] pool4/3x3_s2_pool4/3x3_s2_0_split -> pool4/3x3_s2_pool4/3x3_s2_0_split_3
I0403 15:58:25.750085 16525 net.cpp:141] Setting up pool4/3x3_s2_pool4/3x3_s2_0_split
I0403 15:58:25.750111 16525 net.cpp:148] Top shape: 24 832 7 7 (978432)
I0403 15:58:25.750130 16525 net.cpp:148] Top shape: 24 832 7 7 (978432)
I0403 15:58:25.750146 16525 net.cpp:148] Top shape: 24 832 7 7 (978432)
I0403 15:58:25.750162 16525 net.cpp:148] Top shape: 24 832 7 7 (978432)
I0403 15:58:25.750176 16525 net.cpp:156] Memory required for data: 1292125728
I0403 15:58:25.750190 16525 layer_factory.hpp:77] Creating layer inception_5a/1x1
I0403 15:58:25.750213 16525 net.cpp:91] Creating Layer inception_5a/1x1
I0403 15:58:25.750231 16525 net.cpp:425] inception_5a/1x1 <- pool4/3x3_s2_pool4/3x3_s2_0_split_0
I0403 15:58:25.750250 16525 net.cpp:399] inception_5a/1x1 -> inception_5a/1x1
I0403 15:58:25.753065 16525 net.cpp:141] Setting up inception_5a/1x1
I0403 15:58:25.753095 16525 net.cpp:148] Top shape: 24 256 7 7 (301056)
I0403 15:58:25.753113 16525 net.cpp:156] Memory required for data: 1293329952
I0403 15:58:25.753131 16525 layer_factory.hpp:77] Creating layer inception_5a/relu_1x1
I0403 15:58:25.753149 16525 net.cpp:91] Creating Layer inception_5a/relu_1x1
I0403 15:58:25.753165 16525 net.cpp:425] inception_5a/relu_1x1 <- inception_5a/1x1
I0403 15:58:25.753185 16525 net.cpp:386] inception_5a/relu_1x1 -> inception_5a/1x1 (in-place)
I0403 15:58:25.753489 16525 net.cpp:141] Setting up inception_5a/relu_1x1
I0403 15:58:25.753516 16525 net.cpp:148] Top shape: 24 256 7 7 (301056)
I0403 15:58:25.753531 16525 net.cpp:156] Memory required for data: 1294534176
I0403 15:58:25.753546 16525 layer_factory.hpp:77] Creating layer inception_5a/3x3_reduce
I0403 15:58:25.753569 16525 net.cpp:91] Creating Layer inception_5a/3x3_reduce
I0403 15:58:25.753592 16525 net.cpp:425] inception_5a/3x3_reduce <- pool4/3x3_s2_pool4/3x3_s2_0_split_1
I0403 15:58:25.753613 16525 net.cpp:399] inception_5a/3x3_reduce -> inception_5a/3x3_reduce
I0403 15:58:25.756031 16525 net.cpp:141] Setting up inception_5a/3x3_reduce
I0403 15:58:25.756058 16525 net.cpp:148] Top shape: 24 160 7 7 (188160)
I0403 15:58:25.756075 16525 net.cpp:156] Memory required for data: 1295286816
I0403 15:58:25.756093 16525 layer_factory.hpp:77] Creating layer inception_5a/relu_3x3_reduce
I0403 15:58:25.756114 16525 net.cpp:91] Creating Layer inception_5a/relu_3x3_reduce
I0403 15:58:25.756132 16525 net.cpp:425] inception_5a/relu_3x3_reduce <- inception_5a/3x3_reduce
I0403 15:58:25.756150 16525 net.cpp:386] inception_5a/relu_3x3_reduce -> inception_5a/3x3_reduce (in-place)
I0403 15:58:25.756336 16525 net.cpp:141] Setting up inception_5a/relu_3x3_reduce
I0403 15:58:25.756364 16525 net.cpp:148] Top shape: 24 160 7 7 (188160)
I0403 15:58:25.756381 16525 net.cpp:156] Memory required for data: 1296039456
I0403 15:58:25.756395 16525 layer_factory.hpp:77] Creating layer inception_5a/3x3
I0403 15:58:25.756418 16525 net.cpp:91] Creating Layer inception_5a/3x3
I0403 15:58:25.756438 16525 net.cpp:425] inception_5a/3x3 <- inception_5a/3x3_reduce
I0403 15:58:25.756456 16525 net.cpp:399] inception_5a/3x3 -> inception_5a/3x3
I0403 15:58:25.761343 16525 net.cpp:141] Setting up inception_5a/3x3
I0403 15:58:25.761374 16525 net.cpp:148] Top shape: 24 320 7 7 (376320)
I0403 15:58:25.761391 16525 net.cpp:156] Memory required for data: 1297544736
I0403 15:58:25.761410 16525 layer_factory.hpp:77] Creating layer inception_5a/relu_3x3
I0403 15:58:25.761430 16525 net.cpp:91] Creating Layer inception_5a/relu_3x3
I0403 15:58:25.761447 16525 net.cpp:425] inception_5a/relu_3x3 <- inception_5a/3x3
I0403 15:58:25.761468 16525 net.cpp:386] inception_5a/relu_3x3 -> inception_5a/3x3 (in-place)
I0403 15:58:25.761759 16525 net.cpp:141] Setting up inception_5a/relu_3x3
I0403 15:58:25.761787 16525 net.cpp:148] Top shape: 24 320 7 7 (376320)
I0403 15:58:25.761804 16525 net.cpp:156] Memory required for data: 1299050016
I0403 15:58:25.761819 16525 layer_factory.hpp:77] Creating layer inception_5a/5x5_reduce
I0403 15:58:25.761842 16525 net.cpp:91] Creating Layer inception_5a/5x5_reduce
I0403 15:58:25.761862 16525 net.cpp:425] inception_5a/5x5_reduce <- pool4/3x3_s2_pool4/3x3_s2_0_split_2
I0403 15:58:25.761883 16525 net.cpp:399] inception_5a/5x5_reduce -> inception_5a/5x5_reduce
I0403 15:58:25.763025 16525 net.cpp:141] Setting up inception_5a/5x5_reduce
I0403 15:58:25.763054 16525 net.cpp:148] Top shape: 24 32 7 7 (37632)
I0403 15:58:25.763072 16525 net.cpp:156] Memory required for data: 1299200544
I0403 15:58:25.763092 16525 layer_factory.hpp:77] Creating layer inception_5a/relu_5x5_reduce
I0403 15:58:25.763110 16525 net.cpp:91] Creating Layer inception_5a/relu_5x5_reduce
I0403 15:58:25.763128 16525 net.cpp:425] inception_5a/relu_5x5_reduce <- inception_5a/5x5_reduce
I0403 15:58:25.763149 16525 net.cpp:386] inception_5a/relu_5x5_reduce -> inception_5a/5x5_reduce (in-place)
I0403 15:58:25.763447 16525 net.cpp:141] Setting up inception_5a/relu_5x5_reduce
I0403 15:58:25.763473 16525 net.cpp:148] Top shape: 24 32 7 7 (37632)
I0403 15:58:25.763489 16525 net.cpp:156] Memory required for data: 1299351072
I0403 15:58:25.763504 16525 layer_factory.hpp:77] Creating layer inception_5a/5x5
I0403 15:58:25.763526 16525 net.cpp:91] Creating Layer inception_5a/5x5
I0403 15:58:25.763545 16525 net.cpp:425] inception_5a/5x5 <- inception_5a/5x5_reduce
I0403 15:58:25.763566 16525 net.cpp:399] inception_5a/5x5 -> inception_5a/5x5
I0403 15:58:25.765259 16525 net.cpp:141] Setting up inception_5a/5x5
I0403 15:58:25.765300 16525 net.cpp:148] Top shape: 24 128 7 7 (150528)
I0403 15:58:25.765318 16525 net.cpp:156] Memory required for data: 1299953184
I0403 15:58:25.765337 16525 layer_factory.hpp:77] Creating layer inception_5a/relu_5x5
I0403 15:58:25.765357 16525 net.cpp:91] Creating Layer inception_5a/relu_5x5
I0403 15:58:25.765372 16525 net.cpp:425] inception_5a/relu_5x5 <- inception_5a/5x5
I0403 15:58:25.765393 16525 net.cpp:386] inception_5a/relu_5x5 -> inception_5a/5x5 (in-place)
I0403 15:58:25.765586 16525 net.cpp:141] Setting up inception_5a/relu_5x5
I0403 15:58:25.765612 16525 net.cpp:148] Top shape: 24 128 7 7 (150528)
I0403 15:58:25.765627 16525 net.cpp:156] Memory required for data: 1300555296
I0403 15:58:25.765642 16525 layer_factory.hpp:77] Creating layer inception_5a/pool
I0403 15:58:25.765661 16525 net.cpp:91] Creating Layer inception_5a/pool
I0403 15:58:25.765678 16525 net.cpp:425] inception_5a/pool <- pool4/3x3_s2_pool4/3x3_s2_0_split_3
I0403 15:58:25.765699 16525 net.cpp:399] inception_5a/pool -> inception_5a/pool
I0403 15:58:25.765769 16525 net.cpp:141] Setting up inception_5a/pool
I0403 15:58:25.765794 16525 net.cpp:148] Top shape: 24 832 7 7 (978432)
I0403 15:58:25.765808 16525 net.cpp:156] Memory required for data: 1304469024
I0403 15:58:25.765823 16525 layer_factory.hpp:77] Creating layer inception_5a/pool_proj
I0403 15:58:25.765847 16525 net.cpp:91] Creating Layer inception_5a/pool_proj
I0403 15:58:25.765866 16525 net.cpp:425] inception_5a/pool_proj <- inception_5a/pool
I0403 15:58:25.765885 16525 net.cpp:399] inception_5a/pool_proj -> inception_5a/pool_proj
I0403 15:58:25.768106 16525 net.cpp:141] Setting up inception_5a/pool_proj
I0403 15:58:25.768138 16525 net.cpp:148] Top shape: 24 128 7 7 (150528)
I0403 15:58:25.768156 16525 net.cpp:156] Memory required for data: 1305071136
I0403 15:58:25.768174 16525 layer_factory.hpp:77] Creating layer inception_5a/relu_pool_proj
I0403 15:58:25.768193 16525 net.cpp:91] Creating Layer inception_5a/relu_pool_proj
I0403 15:58:25.768210 16525 net.cpp:425] inception_5a/relu_pool_proj <- inception_5a/pool_proj
I0403 15:58:25.768229 16525 net.cpp:386] inception_5a/relu_pool_proj -> inception_5a/pool_proj (in-place)
I0403 15:58:25.768514 16525 net.cpp:141] Setting up inception_5a/relu_pool_proj
I0403 15:58:25.768543 16525 net.cpp:148] Top shape: 24 128 7 7 (150528)
I0403 15:58:25.768559 16525 net.cpp:156] Memory required for data: 1305673248
I0403 15:58:25.768579 16525 layer_factory.hpp:77] Creating layer inception_5a/output
I0403 15:58:25.768597 16525 net.cpp:91] Creating Layer inception_5a/output
I0403 15:58:25.768613 16525 net.cpp:425] inception_5a/output <- inception_5a/1x1
I0403 15:58:25.768631 16525 net.cpp:425] inception_5a/output <- inception_5a/3x3
I0403 15:58:25.768647 16525 net.cpp:425] inception_5a/output <- inception_5a/5x5
I0403 15:58:25.768663 16525 net.cpp:425] inception_5a/output <- inception_5a/pool_proj
I0403 15:58:25.768681 16525 net.cpp:399] inception_5a/output -> inception_5a/output
I0403 15:58:25.768730 16525 net.cpp:141] Setting up inception_5a/output
I0403 15:58:25.768754 16525 net.cpp:148] Top shape: 24 832 7 7 (978432)
I0403 15:58:25.768770 16525 net.cpp:156] Memory required for data: 1309586976
I0403 15:58:25.768786 16525 layer_factory.hpp:77] Creating layer inception_5a/output_inception_5a/output_0_split
I0403 15:58:25.768802 16525 net.cpp:91] Creating Layer inception_5a/output_inception_5a/output_0_split
I0403 15:58:25.768822 16525 net.cpp:425] inception_5a/output_inception_5a/output_0_split <- inception_5a/output
I0403 15:58:25.768841 16525 net.cpp:399] inception_5a/output_inception_5a/output_0_split -> inception_5a/output_inception_5a/output_0_split_0
I0403 15:58:25.768860 16525 net.cpp:399] inception_5a/output_inception_5a/output_0_split -> inception_5a/output_inception_5a/output_0_split_1
I0403 15:58:25.768879 16525 net.cpp:399] inception_5a/output_inception_5a/output_0_split -> inception_5a/output_inception_5a/output_0_split_2
I0403 15:58:25.768903 16525 net.cpp:399] inception_5a/output_inception_5a/output_0_split -> inception_5a/output_inception_5a/output_0_split_3
I0403 15:58:25.769012 16525 net.cpp:141] Setting up inception_5a/output_inception_5a/output_0_split
I0403 15:58:25.769037 16525 net.cpp:148] Top shape: 24 832 7 7 (978432)
I0403 15:58:25.769052 16525 net.cpp:148] Top shape: 24 832 7 7 (978432)
I0403 15:58:25.769068 16525 net.cpp:148] Top shape: 24 832 7 7 (978432)
I0403 15:58:25.769083 16525 net.cpp:148] Top shape: 24 832 7 7 (978432)
I0403 15:58:25.769098 16525 net.cpp:156] Memory required for data: 1325241888
I0403 15:58:25.769111 16525 layer_factory.hpp:77] Creating layer inception_5b/1x1
I0403 15:58:25.769132 16525 net.cpp:91] Creating Layer inception_5b/1x1
I0403 15:58:25.769150 16525 net.cpp:425] inception_5b/1x1 <- inception_5a/output_inception_5a/output_0_split_0
I0403 15:58:25.769170 16525 net.cpp:399] inception_5b/1x1 -> inception_5b/1x1
I0403 15:58:25.772864 16525 net.cpp:141] Setting up inception_5b/1x1
I0403 15:58:25.772893 16525 net.cpp:148] Top shape: 24 384 7 7 (451584)
I0403 15:58:25.772909 16525 net.cpp:156] Memory required for data: 1327048224
I0403 15:58:25.772927 16525 layer_factory.hpp:77] Creating layer inception_5b/relu_1x1
I0403 15:58:25.772948 16525 net.cpp:91] Creating Layer inception_5b/relu_1x1
I0403 15:58:25.772964 16525 net.cpp:425] inception_5b/relu_1x1 <- inception_5b/1x1
I0403 15:58:25.772982 16525 net.cpp:386] inception_5b/relu_1x1 -> inception_5b/1x1 (in-place)
I0403 15:58:25.773279 16525 net.cpp:141] Setting up inception_5b/relu_1x1
I0403 15:58:25.773305 16525 net.cpp:148] Top shape: 24 384 7 7 (451584)
I0403 15:58:25.773320 16525 net.cpp:156] Memory required for data: 1328854560
I0403 15:58:25.773335 16525 layer_factory.hpp:77] Creating layer inception_5b/3x3_reduce
I0403 15:58:25.773358 16525 net.cpp:91] Creating Layer inception_5b/3x3_reduce
I0403 15:58:25.773380 16525 net.cpp:425] inception_5b/3x3_reduce <- inception_5a/output_inception_5a/output_0_split_1
I0403 15:58:25.773399 16525 net.cpp:399] inception_5b/3x3_reduce -> inception_5b/3x3_reduce
I0403 15:58:25.775995 16525 net.cpp:141] Setting up inception_5b/3x3_reduce
I0403 15:58:25.776023 16525 net.cpp:148] Top shape: 24 192 7 7 (225792)
I0403 15:58:25.776041 16525 net.cpp:156] Memory required for data: 1329757728
I0403 15:58:25.776059 16525 layer_factory.hpp:77] Creating layer inception_5b/relu_3x3_reduce
I0403 15:58:25.776077 16525 net.cpp:91] Creating Layer inception_5b/relu_3x3_reduce
I0403 15:58:25.776093 16525 net.cpp:425] inception_5b/relu_3x3_reduce <- inception_5b/3x3_reduce
I0403 15:58:25.776111 16525 net.cpp:386] inception_5b/relu_3x3_reduce -> inception_5b/3x3_reduce (in-place)
I0403 15:58:25.776298 16525 net.cpp:141] Setting up inception_5b/relu_3x3_reduce
I0403 15:58:25.776324 16525 net.cpp:148] Top shape: 24 192 7 7 (225792)
I0403 15:58:25.776340 16525 net.cpp:156] Memory required for data: 1330660896
I0403 15:58:25.776355 16525 layer_factory.hpp:77] Creating layer inception_5b/3x3
I0403 15:58:25.776376 16525 net.cpp:91] Creating Layer inception_5b/3x3
I0403 15:58:25.776393 16525 net.cpp:425] inception_5b/3x3 <- inception_5b/3x3_reduce
I0403 15:58:25.776412 16525 net.cpp:399] inception_5b/3x3 -> inception_5b/3x3
I0403 15:58:25.782971 16525 net.cpp:141] Setting up inception_5b/3x3
I0403 15:58:25.783002 16525 net.cpp:148] Top shape: 24 384 7 7 (451584)
I0403 15:58:25.783018 16525 net.cpp:156] Memory required for data: 1332467232
I0403 15:58:25.783037 16525 layer_factory.hpp:77] Creating layer inception_5b/relu_3x3
I0403 15:58:25.783056 16525 net.cpp:91] Creating Layer inception_5b/relu_3x3
I0403 15:58:25.783071 16525 net.cpp:425] inception_5b/relu_3x3 <- inception_5b/3x3
I0403 15:58:25.783088 16525 net.cpp:386] inception_5b/relu_3x3 -> inception_5b/3x3 (in-place)
I0403 15:58:25.783380 16525 net.cpp:141] Setting up inception_5b/relu_3x3
I0403 15:58:25.783407 16525 net.cpp:148] Top shape: 24 384 7 7 (451584)
I0403 15:58:25.783426 16525 net.cpp:156] Memory required for data: 1334273568
I0403 15:58:25.783442 16525 layer_factory.hpp:77] Creating layer inception_5b/5x5_reduce
I0403 15:58:25.783478 16525 net.cpp:91] Creating Layer inception_5b/5x5_reduce
I0403 15:58:25.783498 16525 net.cpp:425] inception_5b/5x5_reduce <- inception_5a/output_inception_5a/output_0_split_2
I0403 15:58:25.783516 16525 net.cpp:399] inception_5b/5x5_reduce -> inception_5b/5x5_reduce
I0403 15:58:25.784775 16525 net.cpp:141] Setting up inception_5b/5x5_reduce
I0403 15:58:25.784803 16525 net.cpp:148] Top shape: 24 48 7 7 (56448)
I0403 15:58:25.784819 16525 net.cpp:156] Memory required for data: 1334499360
I0403 15:58:25.784837 16525 layer_factory.hpp:77] Creating layer inception_5b/relu_5x5_reduce
I0403 15:58:25.784859 16525 net.cpp:91] Creating Layer inception_5b/relu_5x5_reduce
I0403 15:58:25.784876 16525 net.cpp:425] inception_5b/relu_5x5_reduce <- inception_5b/5x5_reduce
I0403 15:58:25.784894 16525 net.cpp:386] inception_5b/relu_5x5_reduce -> inception_5b/5x5_reduce (in-place)
I0403 15:58:25.785261 16525 net.cpp:141] Setting up inception_5b/relu_5x5_reduce
I0403 15:58:25.785287 16525 net.cpp:148] Top shape: 24 48 7 7 (56448)
I0403 15:58:25.785302 16525 net.cpp:156] Memory required for data: 1334725152
I0403 15:58:25.785317 16525 layer_factory.hpp:77] Creating layer inception_5b/5x5
I0403 15:58:25.785337 16525 net.cpp:91] Creating Layer inception_5b/5x5
I0403 15:58:25.785356 16525 net.cpp:425] inception_5b/5x5 <- inception_5b/5x5_reduce
I0403 15:58:25.785373 16525 net.cpp:399] inception_5b/5x5 -> inception_5b/5x5
I0403 15:58:25.787379 16525 net.cpp:141] Setting up inception_5b/5x5
I0403 15:58:25.787408 16525 net.cpp:148] Top shape: 24 128 7 7 (150528)
I0403 15:58:25.787425 16525 net.cpp:156] Memory required for data: 1335327264
I0403 15:58:25.787443 16525 layer_factory.hpp:77] Creating layer inception_5b/relu_5x5
I0403 15:58:25.787462 16525 net.cpp:91] Creating Layer inception_5b/relu_5x5
I0403 15:58:25.787479 16525 net.cpp:425] inception_5b/relu_5x5 <- inception_5b/5x5
I0403 15:58:25.787499 16525 net.cpp:386] inception_5b/relu_5x5 -> inception_5b/5x5 (in-place)
I0403 15:58:25.787714 16525 net.cpp:141] Setting up inception_5b/relu_5x5
I0403 15:58:25.787740 16525 net.cpp:148] Top shape: 24 128 7 7 (150528)
I0403 15:58:25.787755 16525 net.cpp:156] Memory required for data: 1335929376
I0403 15:58:25.787770 16525 layer_factory.hpp:77] Creating layer inception_5b/pool
I0403 15:58:25.787787 16525 net.cpp:91] Creating Layer inception_5b/pool
I0403 15:58:25.787807 16525 net.cpp:425] inception_5b/pool <- inception_5a/output_inception_5a/output_0_split_3
I0403 15:58:25.787827 16525 net.cpp:399] inception_5b/pool -> inception_5b/pool
I0403 15:58:25.787911 16525 net.cpp:141] Setting up inception_5b/pool
I0403 15:58:25.787935 16525 net.cpp:148] Top shape: 24 832 7 7 (978432)
I0403 15:58:25.787950 16525 net.cpp:156] Memory required for data: 1339843104
I0403 15:58:25.787963 16525 layer_factory.hpp:77] Creating layer inception_5b/pool_proj
I0403 15:58:25.787984 16525 net.cpp:91] Creating Layer inception_5b/pool_proj
I0403 15:58:25.788002 16525 net.cpp:425] inception_5b/pool_proj <- inception_5b/pool
I0403 15:58:25.788022 16525 net.cpp:399] inception_5b/pool_proj -> inception_5b/pool_proj
I0403 15:58:25.790261 16525 net.cpp:141] Setting up inception_5b/pool_proj
I0403 15:58:25.790292 16525 net.cpp:148] Top shape: 24 128 7 7 (150528)
I0403 15:58:25.790307 16525 net.cpp:156] Memory required for data: 1340445216
I0403 15:58:25.790326 16525 layer_factory.hpp:77] Creating layer inception_5b/relu_pool_proj
I0403 15:58:25.790344 16525 net.cpp:91] Creating Layer inception_5b/relu_pool_proj
I0403 15:58:25.790361 16525 net.cpp:425] inception_5b/relu_pool_proj <- inception_5b/pool_proj
I0403 15:58:25.790380 16525 net.cpp:386] inception_5b/relu_pool_proj -> inception_5b/pool_proj (in-place)
I0403 15:58:25.790673 16525 net.cpp:141] Setting up inception_5b/relu_pool_proj
I0403 15:58:25.790700 16525 net.cpp:148] Top shape: 24 128 7 7 (150528)
I0403 15:58:25.790716 16525 net.cpp:156] Memory required for data: 1341047328
I0403 15:58:25.790731 16525 layer_factory.hpp:77] Creating layer inception_5b/output
I0403 15:58:25.790748 16525 net.cpp:91] Creating Layer inception_5b/output
I0403 15:58:25.790779 16525 net.cpp:425] inception_5b/output <- inception_5b/1x1
I0403 15:58:25.790797 16525 net.cpp:425] inception_5b/output <- inception_5b/3x3
I0403 15:58:25.790813 16525 net.cpp:425] inception_5b/output <- inception_5b/5x5
I0403 15:58:25.790829 16525 net.cpp:425] inception_5b/output <- inception_5b/pool_proj
I0403 15:58:25.790848 16525 net.cpp:399] inception_5b/output -> inception_5b/output
I0403 15:58:25.790899 16525 net.cpp:141] Setting up inception_5b/output
I0403 15:58:25.790922 16525 net.cpp:148] Top shape: 24 1024 7 7 (1204224)
I0403 15:58:25.790936 16525 net.cpp:156] Memory required for data: 1345864224
I0403 15:58:25.790951 16525 layer_factory.hpp:77] Creating layer pool5/7x7_s1
I0403 15:58:25.790973 16525 net.cpp:91] Creating Layer pool5/7x7_s1
I0403 15:58:25.790990 16525 net.cpp:425] pool5/7x7_s1 <- inception_5b/output
I0403 15:58:25.791008 16525 net.cpp:399] pool5/7x7_s1 -> pool5/7x7_s1
I0403 15:58:25.791218 16525 net.cpp:141] Setting up pool5/7x7_s1
I0403 15:58:25.791244 16525 net.cpp:148] Top shape: 24 1024 1 1 (24576)
I0403 15:58:25.791260 16525 net.cpp:156] Memory required for data: 1345962528
I0403 15:58:25.791275 16525 layer_factory.hpp:77] Creating layer pool5/drop_7x7_s1
I0403 15:58:25.791291 16525 net.cpp:91] Creating Layer pool5/drop_7x7_s1
I0403 15:58:25.791308 16525 net.cpp:425] pool5/drop_7x7_s1 <- pool5/7x7_s1
I0403 15:58:25.791327 16525 net.cpp:386] pool5/drop_7x7_s1 -> pool5/7x7_s1 (in-place)
I0403 15:58:25.791375 16525 net.cpp:141] Setting up pool5/drop_7x7_s1
I0403 15:58:25.791398 16525 net.cpp:148] Top shape: 24 1024 1 1 (24576)
I0403 15:58:25.791412 16525 net.cpp:156] Memory required for data: 1346060832
I0403 15:58:25.791426 16525 layer_factory.hpp:77] Creating layer loss3/classifier_plantvillage
I0403 15:58:25.791447 16525 net.cpp:91] Creating Layer loss3/classifier_plantvillage
I0403 15:58:25.791463 16525 net.cpp:425] loss3/classifier_plantvillage <- pool5/7x7_s1
I0403 15:58:25.791484 16525 net.cpp:399] loss3/classifier_plantvillage -> loss3/classifier_plantvillage
I0403 15:58:25.791905 16525 net.cpp:141] Setting up loss3/classifier_plantvillage
I0403 15:58:25.791929 16525 net.cpp:148] Top shape: 24 38 (912)
I0403 15:58:25.791944 16525 net.cpp:156] Memory required for data: 1346064480
I0403 15:58:25.791961 16525 layer_factory.hpp:77] Creating layer loss3/classifier_plantvillage_loss3/classifier_plantvillage_0_split
I0403 15:58:25.791982 16525 net.cpp:91] Creating Layer loss3/classifier_plantvillage_loss3/classifier_plantvillage_0_split
I0403 15:58:25.791998 16525 net.cpp:425] loss3/classifier_plantvillage_loss3/classifier_plantvillage_0_split <- loss3/classifier_plantvillage
I0403 15:58:25.792016 16525 net.cpp:399] loss3/classifier_plantvillage_loss3/classifier_plantvillage_0_split -> loss3/classifier_plantvillage_loss3/classifier_plantvillage_0_split_0
I0403 15:58:25.792037 16525 net.cpp:399] loss3/classifier_plantvillage_loss3/classifier_plantvillage_0_split -> loss3/classifier_plantvillage_loss3/classifier_plantvillage_0_split_1
I0403 15:58:25.792057 16525 net.cpp:399] loss3/classifier_plantvillage_loss3/classifier_plantvillage_0_split -> loss3/classifier_plantvillage_loss3/classifier_plantvillage_0_split_2
I0403 15:58:25.792078 16525 net.cpp:399] loss3/classifier_plantvillage_loss3/classifier_plantvillage_0_split -> loss3/classifier_plantvillage_loss3/classifier_plantvillage_0_split_3
I0403 15:58:25.792173 16525 net.cpp:141] Setting up loss3/classifier_plantvillage_loss3/classifier_plantvillage_0_split
I0403 15:58:25.792196 16525 net.cpp:148] Top shape: 24 38 (912)
I0403 15:58:25.792212 16525 net.cpp:148] Top shape: 24 38 (912)
I0403 15:58:25.792227 16525 net.cpp:148] Top shape: 24 38 (912)
I0403 15:58:25.792243 16525 net.cpp:148] Top shape: 24 38 (912)
I0403 15:58:25.792255 16525 net.cpp:156] Memory required for data: 1346079072
I0403 15:58:25.792269 16525 layer_factory.hpp:77] Creating layer loss1/loss
I0403 15:58:25.792290 16525 net.cpp:91] Creating Layer loss1/loss
I0403 15:58:25.792307 16525 net.cpp:425] loss1/loss <- loss1/classifier_plantvillage_loss1/classifier_plantvillage_0_split_0
I0403 15:58:25.792337 16525 net.cpp:425] loss1/loss <- label_data_1_split_0
…
