…
I0403 15:52:57.872362 16401 net.cpp:313] The NetState phase (1) differed from the phase (0) specified by a rule in layer data
I0403 15:52:57.873885 16401 net.cpp:49] Initializing net from parameters: 
state {
  phase: TEST
}
layer {
  name: "data"
  type: "Data"
  top: "data"
  top: "label"
  include {
    phase: TEST
  }
  transform_param {
    mirror: false
    crop_size: 224
    mean_file: "/home/mohanty/data/final_dataset/lmdb/color-20-80/mean.binaryproto"
  }
  data_param {
    source: "/home/mohanty/data/final_dataset/lmdb/color-20-80/test_db"
    batch_size: 24
    backend: LMDB
  }
}
layer {
  name: "conv1/7x7_s2"
  type: "Convolution"
  bottom: "data"
  top: "conv1/7x7_s2"
  param {
    lr_mult: 1
    decay_mult: 1
  }
  param {
    lr_mult: 2
    decay_mult: 0
  }
  convolution_param {
    num_output: 64
    pad: 3
    kernel_size: 7
    stride: 2
    weight_filler {
      type: "xavier"
      std: 0.1
    }
    bias_filler {
      type: "constant"
      value: 0.2
    }
  }
}
layer {
  name: "conv1/relu_7x7"
  type: "ReLU"
  bottom: "conv1/7x7_s2"
  top: "conv1/7x7_s2"
}
layer {
  name: "pool1/3x3_s2"
  type: "Pooling"
  bottom: "conv1/7x7_s2"
  top: "pool1/3x3_s2"
  pooling_param {
    pool: MAX
    kernel_size: 3
    stride: 2
  }
}
layer {
  name: "pool1/norm1"
  type: "LRN"
  bottom: "pool1/3x3_s2"
  top: "pool1/norm1"
  lrn_param {
    local_size: 5
    alpha: 0.0001
    beta: 0.75
  }
}
layer {
  name: "conv2/3x3_reduce"
  type: "Convolution"
  bottom: "pool1/norm1"
  top: "conv2/3x3_reduce"
  param {
    lr_mult: 1
    decay_mult: 1
  }
  param {
    lr_mult: 2
    decay_mult: 0
  }
  convolution_param {
    num_output: 64
    kernel_size: 1
    weight_filler {
      type: "xavier"
      std: 0.1
    }
    bias_filler {
      type: "constant"
      value: 0.2
    }
  }
}
layer {
  name: "conv2/relu_3x3_reduce"
  type: "ReLU"
  bottom: "conv2/3x3_reduce"
  top: "conv2/3x3_reduce"
}
layer {
  name: "conv2/3x3"
  type: "Convolution"
  bottom: "conv2/3x3_reduce"
  top: "conv2/3x3"
  param {
    lr_mult: 1
    decay_mult: 1
  }
  param {
    lr_mult: 2
    decay_mult: 0
  }
  convolution_param {
    num_output: 192
    pad: 1
    kernel_size: 3
    weight_filler {
      type: "xavier"
      std: 0.03
    }
    bias_filler {
      type: "constant"
      value: 0.2
    }
  }
}
layer {
  name: "conv2/relu_3x3"
  type: "ReLU"
  bottom: "conv2/3x3"
  top: "conv2/3x3"
}
layer {
  name: "conv2/norm2"
  type: "LRN"
  bottom: "conv2/3x3"
  top: "conv2/norm2"
  lrn_param {
    local_size: 5
    alpha: 0.0001
    beta: 0.75
  }
}
layer {
  name: "pool2/3x3_s2"
  type: "Pooling"
  bottom: "conv2/norm2"
  top: "pool2/3x3_s2"
  pooling_param {
    pool: MAX
    kernel_size: 3
    stride: 2
  }
}
layer {
  name: "inception_3a/1x1"
  type: "Convolution"
  bottom: "pool2/3x3_s2"
  top: "inception_3a/1x1"
  param {
    lr_mult: 1
    decay_mult: 1
  }
  param {
    lr_mult: 2
    decay_mult: 0
  }
  convolution_param {
    num_output: 64
    kernel_size: 1
    weight_filler {
      type: "xavier"
      std: 0.03
    }
    bias_filler {
      type: "constant"
      value: 0.2
    }
  }
}
layer {
  name: "inception_3a/relu_1x1"
  type: "ReLU"
  bottom: "inception_3a/1x1"
  top: "inception_3a/1x1"
}
layer {
  name: "inception_3a/3x3_reduce"
  type: "Convolution"
  bottom: "pool2/3x3_s2"
  top: "inception_3a/3x3_reduce"
  param {
    lr_mult: 1
    decay_mult: 1
  }
  param {
    lr_mult: 2
    decay_mult: 0
  }
  convolution_param {
    num_output: 96
    kernel_size: 1
    weight_filler {
      type: "xavier"
      std: 0.09
    }
    bias_filler {
      type: "constant"
      value: 0.2
    }
  }
}
layer {
  name: "inception_3a/relu_3x3_reduce"
  type: "ReLU"
  bottom: "inception_3a/3x3_reduce"
  top: "inception_3a/3x3_reduce"
}
layer {
  name: "inception_3a/3x3"
  type: "Convolution"
  bottom: "inception_3a/3x3_reduce"
  top: "inception_3a/3x3"
  param {
    lr_mult: 1
    decay_mult: 1
  }
  param {
    lr_mult: 2
    decay_mult: 0
  }
  convolution_param {
    num_output: 128
    pad: 1
    kernel_size: 3
    weight_filler {
      type: "xavier"
      std: 0.03
    }
    bias_filler {
      type: "constant"
      value: 0.2
    }
  }
}
layer {
  name: "inception_3a/relu_3x3"
  type: "ReLU"
  bottom: "inception_3a/3x3"
  top: "inception_3a/3x3"
}
layer {
  name: "inception_3a/5x5_reduce"
  type: "Convolution"
  bottom: "pool2/3x3_s2"
  top: "inception_3a/5x5_reduce"
  param {
    lr_mult: 1
    decay_mult: 1
  }
  param {
    lr_mult: 2
    decay_mult: 0
  }
  convolution_param {
    num_output: 16
    kernel_size: 1
    weight_filler {
      type: "xavier"
      std: 0.2
    }
    bias_filler {
      type: "constant"
      value: 0.2
    }
  }
}
layer {
  name: "inception_3a/relu_5x5_reduce"
  type: "ReLU"
  bottom: "inception_3a/5x5_reduce"
  top: "inception_3a/5x5_reduce"
}
layer {
  name: "inception_3a/5x5"
  type: "Convolution"
  bottom: "inception_3a/5x5_reduce"
  top: "inception_3a/5x5"
  param {
    lr_mult: 1
    decay_mult: 1
  }
  param {
    lr_mult: 2
    decay_mult: 0
  }
  convolution_param {
    num_output: 32
    pad: 2
    kernel_size: 5
    weight_filler {
      type: "xavier"
      std: 0.03
    }
    bias_filler {
      type: "constant"
      value: 0.2
    }
  }
}
layer {
  name: "inception_3a/relu_5x5"
  type: "ReLU"
  bottom: "inception_3a/5x5"
  top: "inception_3a/5x5"
}
layer {
  name: "inception_3a/pool"
  type: "Pooling"
  bottom: "pool2/3x3_s2"
  top: "inception_3a/pool"
  pooling_param {
    pool: MAX
    kernel_size: 3
    stride: 1
    pad: 1
  }
}
layer {
  name: "inception_3a/pool_proj"
  type: "Convolution"
  bottom: "inception_3a/pool"
  top: "inception_3a/pool_proj"
  param {
    lr_mult: 1
    decay_mult: 1
  }
  param {
    lr_mult: 2
    decay_mult: 0
  }
  convolution_param {
    num_output: 32
    kernel_size: 1
    weight_filler {
      type: "xavier"
      std: 0.1
    }
    bias_filler {
      type: "constant"
      value: 0.2
    }
  }
}
layer {
  name: "inception_3a/relu_pool_proj"
  type: "ReLU"
  bottom: "inception_3a/pool_proj"
  top: "inception_3a/pool_proj"
}
layer {
  name: "inception_3a/output"
  type: "Concat"
  bottom: "inception_3a/1x1"
  bottom: "inception_3a/3x3"
  bottom: "inception_3a/5x5"
  bottom: "inception_3a/pool_proj"
  top: "inception_3a/output"
}
layer {
  name: "inception_3b/1x1"
  type: "Convolution"
  bottom: "inception_3a/output"
  top: "inception_3b/1x1"
  param {
    lr_mult: 1
    decay_mult: 1
  }
  param {
    lr_mult: 2
    decay_mult: 0
  }
  convolution_param {
    num_output: 128
    kernel_size: 1
    weight_filler {
      type: "xavier"
      std: 0.03
    }
    bias_filler {
      type: "constant"
      value: 0.2
    }
  }
}
layer {
  name: "inception_3b/relu_1x1"
  type: "ReLU"
  bottom: "inception_3b/1x1"
  top: "inception_3b/1x1"
}
layer {
  name: "inception_3b/3x3_reduce"
  type: "Convolution"
  bottom: "inception_3a/output"
  top: "inception_3b/3x3_reduce"
  param {
    lr_mult: 1
    decay_mult: 1
  }
  param {
    lr_mult: 2
    decay_mult: 0
  }
  convolution_param {
    num_output: 128
    kernel_size: 1
    weight_filler {
      type: "xavier"
      std: 0.09
    }
    bias_filler {
      type: "constant"
      value: 0.2
    }
  }
}
layer {
  name: "inception_3b/relu_3x3_reduce"
  type: "ReLU"
  bottom: "inception_3b/3x3_reduce"
  top: "inception_3b/3x3_reduce"
}
layer {
  name: "inception_3b/3x3"
  type: "Convolution"
  bottom: "inception_3b/3x3_reduce"
  top: "inception_3b/3x3"
  param {
    lr_mult: 1
    decay_mult: 1
  }
  param {
    lr_mult: 2
    decay_mult: 0
  }
  convolution_param {
    num_output: 192
    pad: 1
    kernel_size: 3
    weight_filler {
      type: "xavier"
      std: 0.03
    }
    bias_filler {
      type: "constant"
      value: 0.2
    }
  }
}
layer {
  name: "inception_3b/relu_3x3"
  type: "ReLU"
  bottom: "inception_3b/3x3"
  top: "inception_3b/3x3"
}
layer {
  name: "inception_3b/5x5_reduce"
  type: "Convolution"
  bottom: "inception_3a/output"
  top: "inception_3b/5x5_reduce"
  param {
    lr_mult: 1
    decay_mult: 1
  }
  param {
    lr_mult: 2
    decay_mult: 0
  }
  convolution_param {
    num_output: 32
    kernel_size: 1
    weight_filler {
      type: "xavier"
      std: 0.2
    }
    bias_filler {
      type: "constant"
      value: 0.2
    }
  }
}
layer {
  name: "inception_3b/relu_5x5_reduce"
  type: "ReLU"
  bottom: "inception_3b/5x5_reduce"
  top: "inception_3b/5x5_reduce"
}
layer {
  name: "inception_3b/5x5"
  type: "Convolution"
  bottom: "inception_3b/5x5_reduce"
  top: "inception_3b/5x5"
  param {
    lr_mult: 1
    decay_mult: 1
  }
  param {
    lr_mult: 2
    decay_mult: 0
  }
  convolution_param {
    num_output: 96
    pad: 2
    kernel_size: 5
    weight_filler {
      type: "xavier"
      std: 0.03
    }
    bias_filler {
      type: "constant"
      value: 0.2
    }
  }
}
layer {
  name: "inception_3b/relu_5x5"
  type: "ReLU"
  bottom: "inception_3b/5x5"
  top: "inception_3b/5x5"
}
layer {
  name: "inception_3b/pool"
  type: "Pooling"
  bottom: "inception_3a/output"
  top: "inception_3b/pool"
  pooling_param {
    pool: MAX
    kernel_size: 3
    stride: 1
    pad: 1
  }
}
layer {
  name: "inception_3b/pool_proj"
  type: "Convolution"
  bottom: "inception_3b/pool"
  top: "inception_3b/pool_proj"
  param {
    lr_mult: 1
    decay_mult: 1
  }
  param {
    lr_mult: 2
    decay_mult: 0
  }
  convolution_param {
    num_output: 64
    kernel_size: 1
    weight_filler {
      type: "xavier"
      std: 0.1
    }
    bias_filler {
      type: "constant"
      value: 0.2
    }
  }
}
layer {
  name: "inception_3b/relu_pool_proj"
  type: "ReLU"
  bottom: "inception_3b/pool_proj"
  top: "inception_3b/pool_proj"
}
layer {
  name: "inception_3b/output"
  type: "Concat"
  bottom: "inception_3b/1x1"
  bottom: "inception_3b/3x3"
  bottom: "inception_3b/5x5"
  bottom: "inception_3b/pool_proj"
  top: "inception_3b/output"
}
layer {
  name: "pool3/3x3_s2"
  type: "Pooling"
  bottom: "inception_3b/output"
  top: "pool3/3x3_s2"
  pooling_param {
    pool: MAX
    kernel_size: 3
    stride: 2
  }
}
layer {
  name: "inception_4a/1x1"
  type: "Convolution"
  bottom: "pool3/3x3_s2"
  top: "inception_4a/1x1"
  param {
    lr_mult: 1
    decay_mult: 1
  }
  param {
    lr_mult: 2
    decay_mult: 0
  }
  convolution_param {
    num_output: 192
    kernel_size: 1
    weight_filler {
      type: "xavier"
      std: 0.03
    }
    bias_filler {
      type: "constant"
      value: 0.2
    }
  }
}
layer {
  name: "inception_4a/relu_1x1"
  type: "ReLU"
  bottom: "inception_4a/1x1"
  top: "inception_4a/1x1"
}
layer {
  name: "inception_4a/3x3_reduce"
  type: "Convolution"
  bottom: "pool3/3x3_s2"
  top: "inception_4a/3x3_reduce"
  param {
    lr_mult: 1
    decay_mult: 1
  }
  param {
    lr_mult: 2
    decay_mult: 0
  }
  convolution_param {
    num_output: 96
    kernel_size: 1
    weight_filler {
      type: "xavier"
      std: 0.09
    }
    bias_filler {
      type: "constant"
      value: 0.2
    }
  }
}
layer {
  name: "inception_4a/relu_3x3_reduce"
  type: "ReLU"
  bottom: "inception_4a/3x3_reduce"
  top: "inception_4a/3x3_reduce"
}
layer {
  name: "inception_4a/3x3"
  type: "Convolution"
  bottom: "inception_4a/3x3_reduce"
  top: "inception_4a/3x3"
  param {
    lr_mult: 1
    decay_mult: 1
  }
  param {
    lr_mult: 2
    decay_mult: 0
  }
  convolution_param {
    num_output: 208
    pad: 1
    kernel_size: 3
    weight_filler {
      type: "xavier"
      std: 0.03
    }
    bias_filler {
      type: "constant"
      value: 0.2
    }
  }
}
layer {
  name: "inception_4a/relu_3x3"
  type: "ReLU"
  bottom: "inception_4a/3x3"
  top: "inception_4a/3x3"
}
layer {
  name: "inception_4a/5x5_reduce"
  type: "Convolution"
  bottom: "pool3/3x3_s2"
  top: "inception_4a/5x5_reduce"
  param {
    lr_mult: 1
    decay_mult: 1
  }
  param {
    lr_mult: 2
    decay_mult: 0
  }
  convolution_param {
    num_output: 16
    kernel_size: 1
    weight_filler {
      type: "xavier"
      std: 0.2
    }
    bias_filler {
      type: "constant"
      value: 0.2
    }
  }
}
layer {
  name: "inception_4a/relu_5x5_reduce"
  type: "ReLU"
  bottom: "inception_4a/5x5_reduce"
  top: "inception_4a/5x5_reduce"
}
layer {
  name: "inception_4a/5x5"
  type: "Convolution"
  bottom: "inception_4a/5x5_reduce"
  top: "inception_4a/5x5"
  param {
    lr_mult: 1
    decay_mult: 1
  }
  param {
    lr_mult: 2
    decay_mult: 0
  }
  convolution_param {
    num_output: 48
    pad: 2
    kernel_size: 5
    weight_filler {
      type: "xavier"
      std: 0.03
    }
    bias_filler {
      type: "constant"
      value: 0.2
    }
  }
}
layer {
  name: "inception_4a/relu_5x5"
  type: "ReLU"
  bottom: "inception_4a/5x5"
  top: "inception_4a/5x5"
}
layer {
  name: "inception_4a/pool"
  type: "Pooling"
  bottom: "pool3/3x3_s2"
  top: "inception_4a/pool"
  pooling_param {
    pool: MAX
    kernel_size: 3
    stride: 1
    pad: 1
  }
}
layer {
  name: "inception_4a/pool_proj"
  type: "Convolution"
  bottom: "inception_4a/pool"
  top: "inception_4a/pool_proj"
  param {
    lr_mult: 1
    decay_mult: 1
  }
  param {
    lr_mult: 2
    decay_mult: 0
  }
  convolution_param {
    num_output: 64
    kernel_size: 1
    weight_filler {
      type: "xavier"
      std: 0.1
    }
    bias_filler {
      type: "constant"
      value: 0.2
    }
  }
}
layer {
  name: "inception_4a/relu_pool_proj"
  type: "ReLU"
  bottom: "inception_4a/pool_proj"
  top: "inception_4a/pool_proj"
}
layer {
  name: "inception_4a/output"
  type: "Concat"
  bottom: "inception_4a/1x1"
  bottom: "inception_4a/3x3"
  bottom: "inception_4a/5x5"
  bottom: "inception_4a/pool_proj"
  top: "inception_4a/output"
}
layer {
  name: "loss1/ave_pool"
  type: "Pooling"
  bottom: "inception_4a/output"
  top: "loss1/ave_pool"
  pooling_param {
    pool: AVE
    kernel_size: 5
    stride: 3
  }
}
layer {
  name: "loss1/conv"
  type: "Convolution"
  bottom: "loss1/ave_pool"
  top: "loss1/conv"
  param {
    lr_mult: 1
    decay_mult: 1
  }
  param {
    lr_mult: 2
    decay_mult: 0
  }
  convolution_param {
    num_output: 128
    kernel_size: 1
    weight_filler {
      type: "xavier"
      std: 0.08
    }
    bias_filler {
      type: "constant"
      value: 0.2
    }
  }
}
layer {
  name: "loss1/relu_conv"
  type: "ReLU"
  bottom: "loss1/conv"
  top: "loss1/conv"
}
layer {
  name: "loss1/fc"
  type: "InnerProduct"
  bottom: "loss1/conv"
  top: "loss1/fc"
  param {
    lr_mult: 1
    decay_mult: 1
  }
  param {
    lr_mult: 2
    decay_mult: 0
  }
  inner_product_param {
    num_output: 1024
    weight_filler {
      type: "xavier"
      std: 0.02
    }
    bias_filler {
      type: "constant"
      value: 0.2
    }
  }
}
layer {
  name: "loss1/relu_fc"
  type: "ReLU"
  bottom: "loss1/fc"
  top: "loss1/fc"
}
layer {
  name: "loss1/drop_fc"
  type: "Dropout"
  bottom: "loss1/fc"
  top: "loss1/fc"
  dropout_param {
    dropout_ratio: 0.7
  }
}
layer {
  name: "loss1/classifier_plantvillage"
  type: "InnerProduct"
  bottom: "loss1/fc"
  top: "loss1/classifier_plantvillage"
  param {
    lr_mult: 1
    decay_mult: 1
  }
  param {
    lr_mult: 2
    decay_mult: 0
  }
  inner_product_param {
    num_output: 38
    weight_filler {
      type: "xavier"
      std: 0.0009765625
    }
    bias_filler {
      type: "constant"
      value: 0
    }
  }
}
layer {
  name: "inception_4b/1x1"
  type: "Convolution"
  bottom: "inception_4a/output"
  top: "inception_4b/1x1"
  param {
    lr_mult: 1
    decay_mult: 1
  }
  param {
    lr_mult: 2
    decay_mult: 0
  }
  convolution_param {
    num_output: 160
    kernel_size: 1
    weight_filler {
      type: "xavier"
      std: 0.03
    }
    bias_filler {
      type: "constant"
      value: 0.2
    }
  }
}
layer {
  name: "inception_4b/relu_1x1"
  type: "ReLU"
  bottom: "inception_4b/1x1"
  top: "inception_4b/1x1"
}
layer {
  name: "inception_4b/3x3_reduce"
  type: "Convolution"
  bottom: "inception_4a/output"
  top: "inception_4b/3x3_reduce"
  param {
    lr_mult: 1
    decay_mult: 1
  }
  param {
    lr_mult: 2
    decay_mult: 0
  }
  convolution_param {
    num_output: 112
    kernel_size: 1
    weight_filler {
      type: "xavier"
      std: 0.09
    }
    bias_filler {
      type: "constant"
      value: 0.2
    }
  }
}
layer {
  name: "inception_4b/relu_3x3_reduce"
  type: "ReLU"
  bottom: "inception_4b/3x3_reduce"
  top: "inception_4b/3x3_reduce"
}
layer {
  name: "inception_4b/3x3"
  type: "Convolution"
  bottom: "inception_4b/3x3_reduce"
  top: "inception_4b/3x3"
  param {
    lr_mult: 1
    decay_mult: 1
  }
  param {
    lr_mult: 2
    decay_mult: 0
  }
  convolution_param {
    num_output: 224
    pad: 1
    kernel_size: 3
    weight_filler {
      type: "xavier"
      std: 0.03
    }
    bias_filler {
      type: "constant"
      value: 0.2
    }
  }
}
layer {
  name: "inception_4b/relu_3x3"
  type: "ReLU"
  bottom: "inception_4b/3x3"
  top: "inception_4b/3x3"
}
layer {
  name: "inception_4b/5x5_reduce"
  type: "Convolution"
  bottom: "inception_4a/output"
  top: "inception_4b/5x5_reduce"
  param {
    lr_mult: 1
    decay_mult: 1
  }
  param {
    lr_mult: 2
    decay_mult: 0
  }
  convolution_param {
    num_output: 24
    kernel_size: 1
    weight_filler {
      type: "xavier"
      std: 0.2
    }
    bias_filler {
      type: "constant"
      value: 0.2
    }
  }
}
layer {
  name: "inception_4b/relu_5x5_reduce"
  type: "ReLU"
  bottom: "inception_4b/5x5_reduce"
  top: "inception_4b/5x5_reduce"
}
layer {
  name: "inception_4b/5x5"
  type: "Convolution"
  bottom: "inception_4b/5x5_reduce"
  top: "inception_4b/5x5"
  param {
    lr_mult: 1
    decay_mult: 1
  }
  param {
    lr_mult: 2
    decay_mult: 0
  }
  convolution_param {
    num_output: 64
    pad: 2
    kernel_size: 5
    weight_filler {
      type: "xavier"
      std: 0.03
    }
    bias_filler {
      type: "constant"
      value: 0.2
    }
  }
}
layer {
  name: "inception_4b/relu_5x5"
  type: "ReLU"
  bottom: "inception_4b/5x5"
  top: "inception_4b/5x5"
}
layer {
  name: "inception_4b/pool"
  type: "Pooling"
  bottom: "inception_4a/output"
  top: "inception_4b/pool"
  pooling_param {
    pool: MAX
    kernel_size: 3
    stride: 1
    pad: 1
  }
}
layer {
  name: "inception_4b/pool_proj"
  type: "Convolution"
  bottom: "inception_4b/pool"
  top: "inception_4b/pool_proj"
  param {
    lr_mult: 1
    decay_mult: 1
  }
  param {
    lr_mult: 2
    decay_mult: 0
  }
  convolution_param {
    num_output: 64
    kernel_size: 1
    weight_filler {
      type: "xavier"
      std: 0.1
    }
    bias_filler {
      type: "constant"
      value: 0.2
    }
  }
}
layer {
  name: "inception_4b/relu_pool_proj"
  type: "ReLU"
  bottom: "inception_4b/pool_proj"
  top: "inception_4b/pool_proj"
}
layer {
  name: "inception_4b/output"
  type: "Concat"
  bottom: "inception_4b/1x1"
  bottom: "inception_4b/3x3"
  bottom: "inception_4b/5x5"
  bottom: "inception_4b/pool_proj"
  top: "inception_4b/output"
}
layer {
  name: "inception_4c/1x1"
  type: "Convolution"
  bottom: "inception_4b/output"
  top: "inception_4c/1x1"
  param {
    lr_mult: 1
    decay_mult: 1
  }
  param {
    lr_mult: 2
    decay_mult: 0
  }
  convolution_param {
    num_output: 128
    kernel_size: 1
    weight_filler {
      type: "xavier"
      std: 0.03
    }
    bias_filler {
      type: "constant"
      value: 0.2
    }
  }
}
layer {
  name: "inception_4c/relu_1x1"
  type: "ReLU"
  bottom: "inception_4c/1x1"
  top: "inception_4c/1x1"
}
layer {
  name: "inception_4c/3x3_reduce"
  type: "Convolution"
  bottom: "inception_4b/output"
  top: "inception_4c/3x3_reduce"
  param {
    lr_mult: 1
    decay_mult: 1
  }
  param {
    lr_mult: 2
    decay_mult: 0
  }
  convolution_param {
    num_output: 128
    kernel_size: 1
    weight_filler {
      type: "xavier"
      std: 0.09
    }
    bias_filler {
      type: "constant"
      value: 0.2
    }
  }
}
layer {
  name: "inception_4c/relu_3x3_reduce"
  type: "ReLU"
  bottom: "inception_4c/3x3_reduce"
  top: "inception_4c/3x3_reduce"
}
layer {
  name: "inception_4c/3x3"
  type: "Convolution"
  bottom: "inception_4c/3x3_reduce"
  top: "inception_4c/3x3"
  param {
    lr_mult: 1
    decay_mult: 1
  }
  param {
    lr_mult: 2
    decay_mult: 0
  }
  convolution_param {
    num_output: 256
    pad: 1
    kernel_size: 3
    weight_filler {
      type: "xavier"
      std: 0.03
    }
    bias_filler {
      type: "constant"
      value: 0.2
    }
  }
}
layer {
  name: "inception_4c/relu_3x3"
  type: "ReLU"
  bottom: "inception_4c/3x3"
  top: "inception_4c/3x3"
}
layer {
  name: "inception_4c/5x5_reduce"
  type: "Convolution"
  bottom: "inception_4b/output"
  top: "inception_4c/5x5_reduce"
  param {
    lr_mult: 1
    decay_mult: 1
  }
  param {
    lr_mult: 2
    decay_mult: 0
  }
  convolution_param {
    num_output: 24
    kernel_size: 1
    weight_filler {
      type: "xavier"
      std: 0.2
    }
    bias_filler {
      type: "constant"
      value: 0.2
    }
  }
}
layer {
  name: "inception_4c/relu_5x5_reduce"
  type: "ReLU"
  bottom: "inception_4c/5x5_reduce"
  top: "inception_4c/5x5_reduce"
}
layer {
  name: "inception_4c/5x5"
  type: "Convolution"
  bottom: "inception_4c/5x5_reduce"
  top: "inception_4c/5x5"
  param {
    lr_mult: 1
    decay_mult: 1
  }
  param {
    lr_mult: 2
    decay_mult: 0
  }
  convolution_param {
    num_output: 64
    pad: 2
    kernel_size: 5
    weight_filler {
      type: "xavier"
      std: 0.03
    }
    bias_filler {
      type: "constant"
      value: 0.2
    }
  }
}
layer {
  name: "inception_4c/relu_5x5"
  type: "ReLU"
  bottom: "inception_4c/5x5"
  top: "inception_4c/5x5"
}
layer {
  name: "inception_4c/pool"
  type: "Pooling"
  bottom: "inception_4b/output"
  top: "inception_4c/pool"
  pooling_param {
    pool: MAX
    kernel_size: 3
    stride: 1
    pad: 1
  }
}
layer {
  name: "inception_4c/pool_proj"
  type: "Convolution"
  bottom: "inception_4c/pool"
  top: "inception_4c/pool_proj"
  param {
    lr_mult: 1
    decay_mult: 1
  }
  param {
    lr_mult: 2
    decay_mult: 0
  }
  convolution_param {
    num_output: 64
    kernel_size: 1
    weight_filler {
      type: "xavier"
      std: 0.1
    }
    bias_filler {
      type: "constant"
      value: 0.2
    }
  }
}
layer {
  name: "inception_4c/relu_pool_proj"
  type: "ReLU"
  bottom: "inception_4c/pool_proj"
  top: "inception_4c/pool_proj"
}
layer {
  name: "inception_4c/output"
  type: "Concat"
  bottom: "inception_4c/1x1"
  bottom: "inception_4c/3x3"
  bottom: "inception_4c/5x5"
  bottom: "inception_4c/pool_proj"
  top: "inception_4c/output"
}
layer {
  name: "inception_4d/1x1"
  type: "Convolution"
  bottom: "inception_4c/output"
  top: "inception_4d/1x1"
  param {
    lr_mult: 1
    decay_mult: 1
  }
  param {
    lr_mult: 2
    decay_mult: 0
  }
  convolution_param {
    num_output: 112
    kernel_size: 1
    weight_filler {
      type: "xavier"
      std: 0.03
    }
    bias_filler {
      type: "constant"
      value: 0.2
    }
  }
}
layer {
  name: "inception_4d/relu_1x1"
  type: "ReLU"
  bottom: "inception_4d/1x1"
  top: "inception_4d/1x1"
}
layer {
  name: "inception_4d/3x3_reduce"
  type: "Convolution"
  bottom: "inception_4c/output"
  top: "inception_4d/3x3_reduce"
  param {
    lr_mult: 1
    decay_mult: 1
  }
  param {
    lr_mult: 2
    decay_mult: 0
  }
  convolution_param {
    num_output: 144
    kernel_size: 1
    weight_filler {
      type: "xavier"
      std: 0.09
    }
    bias_filler {
      type: "constant"
      value: 0.2
    }
  }
}
layer {
  name: "inception_4d/relu_3x3_reduce"
  type: "ReLU"
  bottom: "inception_4d/3x3_reduce"
  top: "inception_4d/3x3_reduce"
}
layer {
  name: "inception_4d/3x3"
  type: "Convolution"
  bottom: "inception_4d/3x3_reduce"
  top: "inception_4d/3x3"
  param {
    lr_mult: 1
    decay_mult: 1
  }
  param {
    lr_mult: 2
    decay_mult: 0
  }
  convolution_param {
    num_output: 288
    pad: 1
    kernel_size: 3
    weight_filler {
      type: "xavier"
      std: 0.03
    }
    bias_filler {
      type: "constant"
      value: 0.2
    }
  }
}
layer {
  name: "inception_4d/relu_3x3"
  type: "ReLU"
  bottom: "inception_4d/3x3"
  top: "inception_4d/3x3"
}
layer {
  name: "inception_4d/5x5_reduce"
  type: "Convolution"
  bottom: "inception_4c/output"
  top: "inception_4d/5x5_reduce"
  param {
    lr_mult: 1
    decay_mult: 1
  }
  param {
    lr_mult: 2
    decay_mult: 0
  }
  convolution_param {
    num_output: 32
    kernel_size: 1
    weight_filler {
      type: "xavier"
      std: 0.2
    }
    bias_filler {
      type: "constant"
      value: 0.2
    }
  }
}
layer {
  name: "inception_4d/relu_5x5_reduce"
  type: "ReLU"
  bottom: "inception_4d/5x5_reduce"
  top: "inception_4d/5x5_reduce"
}
layer {
  name: "inception_4d/5x5"
  type: "Convolution"
  bottom: "inception_4d/5x5_reduce"
  top: "inception_4d/5x5"
  param {
    lr_mult: 1
    decay_mult: 1
  }
  param {
    lr_mult: 2
    decay_mult: 0
  }
  convolution_param {
    num_output: 64
    pad: 2
    kernel_size: 5
    weight_filler {
      type: "xavier"
      std: 0.03
    }
    bias_filler {
      type: "constant"
      value: 0.2
    }
  }
}
layer {
  name: "inception_4d/relu_5x5"
  type: "ReLU"
  bottom: "inception_4d/5x5"
  top: "inception_4d/5x5"
}
layer {
  name: "inception_4d/pool"
  type: "Pooling"
  bottom: "inception_4c/output"
  top: "inception_4d/pool"
  pooling_param {
    pool: MAX
    kernel_size: 3
    stride: 1
    pad: 1
  }
}
layer {
  name: "inception_4d/pool_proj"
  type: "Convolution"
  bottom: "inception_4d/pool"
  top: "inception_4d/pool_proj"
  param {
    lr_mult: 1
    decay_mult: 1
  }
  param {
    lr_mult: 2
    decay_mult: 0
  }
  convolution_param {
    num_output: 64
    kernel_size: 1
    weight_filler {
      type: "xavier"
      std: 0.1
    }
    bias_filler {
      type: "constant"
      value: 0.2
    }
  }
}
layer {
  name: "inception_4d/relu_pool_proj"
  type: "ReLU"
  bottom: "inception_4d/pool_proj"
  top: "inception_4d/pool_proj"
}
layer {
  name: "inception_4d/output"
  type: "Concat"
  bottom: "inception_4d/1x1"
  bottom: "inception_4d/3x3"
  bottom: "inception_4d/5x5"
  bottom: "inception_4d/pool_proj"
  top: "inception_4d/output"
}
layer {
  name: "loss2/ave_pool"
  type: "Pooling"
  bottom: "inception_4d/output"
  top: "loss2/ave_pool"
  pooling_param {
    pool: AVE
    kernel_size: 5
    stride: 3
  }
}
layer {
  name: "loss2/conv"
  type: "Convolution"
  bottom: "loss2/ave_pool"
  top: "loss2/conv"
  param {
    lr_mult: 1
    decay_mult: 1
  }
  param {
    lr_mult: 2
    decay_mult: 0
  }
  convolution_param {
    num_output: 128
    kernel_size: 1
    weight_filler {
      type: "xavier"
      std: 0.08
    }
    bias_filler {
      type: "constant"
      value: 0.2
    }
  }
}
layer {
  name: "loss2/relu_conv"
  type: "ReLU"
  bottom: "loss2/conv"
  top: "loss2/conv"
}
layer {
  name: "loss2/fc"
  type: "InnerProduct"
  bottom: "loss2/conv"
  top: "loss2/fc"
  param {
    lr_mult: 1
    decay_mult: 1
  }
  param {
    lr_mult: 2
    decay_mult: 0
  }
  inner_product_param {
    num_output: 1024
    weight_filler {
      type: "xavier"
      std: 0.02
    }
    bias_filler {
      type: "constant"
      value: 0.2
    }
  }
}
layer {
  name: "loss2/relu_fc"
  type: "ReLU"
  bottom: "loss2/fc"
  top: "loss2/fc"
}
layer {
  name: "loss2/drop_fc"
  type: "Dropout"
  bottom: "loss2/fc"
  top: "loss2/fc"
  dropout_param {
    dropout_ratio: 0.7
  }
}
layer {
  name: "loss2/classifier_plantvillage"
  type: "InnerProduct"
  bottom: "loss2/fc"
  top: "loss2/classifier_plantvillage"
  param {
    lr_mult: 1
    decay_mult: 1
  }
  param {
    lr_mult: 2
    decay_mult: 0
  }
  inner_product_param {
    num_output: 38
    weight_filler {
      type: "xavier"
      std: 0.0009765625
    }
    bias_filler {
      type: "constant"
      value: 0
    }
  }
}
layer {
  name: "inception_4e/1x1"
  type: "Convolution"
  bottom: "inception_4d/output"
  top: "inception_4e/1x1"
  param {
    lr_mult: 1
    decay_mult: 1
  }
  param {
    lr_mult: 2
    decay_mult: 0
  }
  convolution_param {
    num_output: 256
    kernel_size: 1
    weight_filler {
      type: "xavier"
      std: 0.03
    }
    bias_filler {
      type: "constant"
      value: 0.2
    }
  }
}
layer {
  name: "inception_4e/relu_1x1"
  type: "ReLU"
  bottom: "inception_4e/1x1"
  top: "inception_4e/1x1"
}
layer {
  name: "inception_4e/3x3_reduce"
  type: "Convolution"
  bottom: "inception_4d/output"
  top: "inception_4e/3x3_reduce"
  param {
    lr_mult: 1
    decay_mult: 1
  }
  param {
    lr_mult: 2
    decay_mult: 0
  }
  convolution_param {
    num_output: 160
    kernel_size: 1
    weight_filler {
      type: "xavier"
      std: 0.09
    }
    bias_filler {
      type: "constant"
      value: 0.2
    }
  }
}
layer {
  name: "inception_4e/relu_3x3_reduce"
  type: "ReLU"
  bottom: "inception_4e/3x3_reduce"
  top: "inception_4e/3x3_reduce"
}
layer {
  name: "inception_4e/3x3"
  type: "Convolution"
  bottom: "inception_4e/3x3_reduce"
  top: "inception_4e/3x3"
  param {
    lr_mult: 1
    decay_mult: 1
  }
  param {
    lr_mult: 2
    decay_mult: 0
  }
  convolution_param {
    num_output: 320
    pad: 1
    kernel_size: 3
    weight_filler {
      type: "xavier"
      std: 0.03
    }
    bias_filler {
      type: "constant"
      value: 0.2
    }
  }
}
layer {
  name: "inception_4e/relu_3x3"
  type: "ReLU"
  bottom: "inception_4e/3x3"
  top: "inception_4e/3x3"
}
layer {
  name: "inception_4e/5x5_reduce"
  type: "Convolution"
  bottom: "inception_4d/output"
  top: "inception_4e/5x5_reduce"
  param {
    lr_mult: 1
    decay_mult: 1
  }
  param {
    lr_mult: 2
    decay_mult: 0
  }
  convolution_param {
    num_output: 32
    kernel_size: 1
    weight_filler {
      type: "xavier"
      std: 0.2
    }
    bias_filler {
      type: "constant"
      value: 0.2
    }
  }
}
layer {
  name: "inception_4e/relu_5x5_reduce"
  type: "ReLU"
  bottom: "inception_4e/5x5_reduce"
  top: "inception_4e/5x5_reduce"
}
layer {
  name: "inception_4e/5x5"
  type: "Convolution"
  bottom: "inception_4e/5x5_reduce"
  top: "inception_4e/5x5"
  p
I0403 15:52:57.875594 16401 layer_factory.hpp:77] Creating layer data
I0403 15:52:57.876623 16401 net.cpp:91] Creating Layer data
I0403 15:52:57.876658 16401 net.cpp:399] data -> data
I0403 15:52:57.876801 16401 net.cpp:399] data -> label
I0403 15:52:57.876938 16401 data_transformer.cpp:25] Loading mean file from: /home/mohanty/data/final_dataset/lmdb/color-20-80/mean.binaryproto
I0403 15:52:58.032445 16437 db_lmdb.cpp:38] Opened lmdb /home/mohanty/data/final_dataset/lmdb/color-20-80/test_db
I0403 15:52:58.080363 16401 data_layer.cpp:41] output data size: 24,3,224,224
I0403 15:52:58.152914 16401 net.cpp:141] Setting up data
I0403 15:52:58.153014 16401 net.cpp:148] Top shape: 24 3 224 224 (3612672)
I0403 15:52:58.153044 16401 net.cpp:148] Top shape: 24 (24)
I0403 15:52:58.153064 16401 net.cpp:156] Memory required for data: 14450784
I0403 15:52:58.153097 16401 layer_factory.hpp:77] Creating layer label_data_1_split
I0403 15:52:58.153131 16401 net.cpp:91] Creating Layer label_data_1_split
I0403 15:52:58.153153 16401 net.cpp:425] label_data_1_split <- label
I0403 15:52:58.153192 16401 net.cpp:399] label_data_1_split -> label_data_1_split_0
I0403 15:52:58.153228 16401 net.cpp:399] label_data_1_split -> label_data_1_split_1
I0403 15:52:58.153254 16401 net.cpp:399] label_data_1_split -> label_data_1_split_2
I0403 15:52:58.153280 16401 net.cpp:399] label_data_1_split -> label_data_1_split_3
I0403 15:52:58.153303 16401 net.cpp:399] label_data_1_split -> label_data_1_split_4
I0403 15:52:58.153327 16401 net.cpp:399] label_data_1_split -> label_data_1_split_5
I0403 15:52:58.153352 16401 net.cpp:399] label_data_1_split -> label_data_1_split_6
I0403 15:52:58.153376 16401 net.cpp:399] label_data_1_split -> label_data_1_split_7
I0403 15:52:58.153401 16401 net.cpp:399] label_data_1_split -> label_data_1_split_8
I0403 15:52:58.153424 16401 net.cpp:399] label_data_1_split -> label_data_1_split_9
I0403 15:52:58.153568 16401 net.cpp:141] Setting up label_data_1_split
I0403 15:52:58.153602 16401 net.cpp:148] Top shape: 24 (24)
I0403 15:52:58.153623 16401 net.cpp:148] Top shape: 24 (24)
I0403 15:52:58.153647 16401 net.cpp:148] Top shape: 24 (24)
I0403 15:52:58.153667 16401 net.cpp:148] Top shape: 24 (24)
I0403 15:52:58.153687 16401 net.cpp:148] Top shape: 24 (24)
I0403 15:52:58.153705 16401 net.cpp:148] Top shape: 24 (24)
I0403 15:52:58.153725 16401 net.cpp:148] Top shape: 24 (24)
I0403 15:52:58.153743 16401 net.cpp:148] Top shape: 24 (24)
I0403 15:52:58.153762 16401 net.cpp:148] Top shape: 24 (24)
I0403 15:52:58.153781 16401 net.cpp:148] Top shape: 24 (24)
I0403 15:52:58.153834 16401 net.cpp:156] Memory required for data: 14451744
I0403 15:52:58.153853 16401 layer_factory.hpp:77] Creating layer conv1/7x7_s2
I0403 15:52:58.153908 16401 net.cpp:91] Creating Layer conv1/7x7_s2
I0403 15:52:58.153934 16401 net.cpp:425] conv1/7x7_s2 <- data
I0403 15:52:58.153960 16401 net.cpp:399] conv1/7x7_s2 -> conv1/7x7_s2
I0403 15:52:58.842314 16401 net.cpp:141] Setting up conv1/7x7_s2
I0403 15:52:58.842380 16401 net.cpp:148] Top shape: 24 64 112 112 (19267584)
I0403 15:52:58.842401 16401 net.cpp:156] Memory required for data: 91522080
I0403 15:52:58.842439 16401 layer_factory.hpp:77] Creating layer conv1/relu_7x7
I0403 15:52:58.842496 16401 net.cpp:91] Creating Layer conv1/relu_7x7
I0403 15:52:58.842521 16401 net.cpp:425] conv1/relu_7x7 <- conv1/7x7_s2
I0403 15:52:58.842545 16401 net.cpp:386] conv1/relu_7x7 -> conv1/7x7_s2 (in-place)
I0403 15:52:58.842912 16401 net.cpp:141] Setting up conv1/relu_7x7
I0403 15:52:58.842952 16401 net.cpp:148] Top shape: 24 64 112 112 (19267584)
I0403 15:52:58.842972 16401 net.cpp:156] Memory required for data: 168592416
I0403 15:52:58.842990 16401 layer_factory.hpp:77] Creating layer pool1/3x3_s2
I0403 15:52:58.843035 16401 net.cpp:91] Creating Layer pool1/3x3_s2
I0403 15:52:58.843060 16401 net.cpp:425] pool1/3x3_s2 <- conv1/7x7_s2
I0403 15:52:58.843087 16401 net.cpp:399] pool1/3x3_s2 -> pool1/3x3_s2
I0403 15:52:58.843232 16401 net.cpp:141] Setting up pool1/3x3_s2
I0403 15:52:58.843284 16401 net.cpp:148] Top shape: 24 64 56 56 (4816896)
I0403 15:52:58.843307 16401 net.cpp:156] Memory required for data: 187860000
I0403 15:52:58.843324 16401 layer_factory.hpp:77] Creating layer pool1/norm1
I0403 15:52:58.843371 16401 net.cpp:91] Creating Layer pool1/norm1
I0403 15:52:58.843395 16401 net.cpp:425] pool1/norm1 <- pool1/3x3_s2
I0403 15:52:58.843421 16401 net.cpp:399] pool1/norm1 -> pool1/norm1
I0403 15:52:58.843817 16401 net.cpp:141] Setting up pool1/norm1
I0403 15:52:58.843855 16401 net.cpp:148] Top shape: 24 64 56 56 (4816896)
I0403 15:52:58.843878 16401 net.cpp:156] Memory required for data: 207127584
I0403 15:52:58.843899 16401 layer_factory.hpp:77] Creating layer conv2/3x3_reduce
I0403 15:52:58.843933 16401 net.cpp:91] Creating Layer conv2/3x3_reduce
I0403 15:52:58.843957 16401 net.cpp:425] conv2/3x3_reduce <- pool1/norm1
I0403 15:52:58.843981 16401 net.cpp:399] conv2/3x3_reduce -> conv2/3x3_reduce
I0403 15:52:58.845751 16401 net.cpp:141] Setting up conv2/3x3_reduce
I0403 15:52:58.845784 16401 net.cpp:148] Top shape: 24 64 56 56 (4816896)
I0403 15:52:58.845803 16401 net.cpp:156] Memory required for data: 226395168
I0403 15:52:58.845829 16401 layer_factory.hpp:77] Creating layer conv2/relu_3x3_reduce
I0403 15:52:58.845855 16401 net.cpp:91] Creating Layer conv2/relu_3x3_reduce
I0403 15:52:58.845876 16401 net.cpp:425] conv2/relu_3x3_reduce <- conv2/3x3_reduce
I0403 15:52:58.845898 16401 net.cpp:386] conv2/relu_3x3_reduce -> conv2/3x3_reduce (in-place)
I0403 15:52:58.846218 16401 net.cpp:141] Setting up conv2/relu_3x3_reduce
I0403 15:52:58.846251 16401 net.cpp:148] Top shape: 24 64 56 56 (4816896)
I0403 15:52:58.846271 16401 net.cpp:156] Memory required for data: 245662752
I0403 15:52:58.846289 16401 layer_factory.hpp:77] Creating layer conv2/3x3
I0403 15:52:58.846318 16401 net.cpp:91] Creating Layer conv2/3x3
I0403 15:52:58.846340 16401 net.cpp:425] conv2/3x3 <- conv2/3x3_reduce
I0403 15:52:58.846367 16401 net.cpp:399] conv2/3x3 -> conv2/3x3
I0403 15:52:58.849203 16401 net.cpp:141] Setting up conv2/3x3
I0403 15:52:58.849258 16401 net.cpp:148] Top shape: 24 192 56 56 (14450688)
I0403 15:52:58.849278 16401 net.cpp:156] Memory required for data: 303465504
I0403 15:52:58.849305 16401 layer_factory.hpp:77] Creating layer conv2/relu_3x3
I0403 15:52:58.849337 16401 net.cpp:91] Creating Layer conv2/relu_3x3
I0403 15:52:58.849360 16401 net.cpp:425] conv2/relu_3x3 <- conv2/3x3
I0403 15:52:58.849382 16401 net.cpp:386] conv2/relu_3x3 -> conv2/3x3 (in-place)
I0403 15:52:58.849596 16401 net.cpp:141] Setting up conv2/relu_3x3
I0403 15:52:58.849634 16401 net.cpp:148] Top shape: 24 192 56 56 (14450688)
I0403 15:52:58.849689 16401 net.cpp:156] Memory required for data: 361268256
I0403 15:52:58.849709 16401 layer_factory.hpp:77] Creating layer conv2/norm2
I0403 15:52:58.849732 16401 net.cpp:91] Creating Layer conv2/norm2
I0403 15:52:58.849755 16401 net.cpp:425] conv2/norm2 <- conv2/3x3
I0403 15:52:58.849779 16401 net.cpp:399] conv2/norm2 -> conv2/norm2
I0403 15:52:58.850147 16401 net.cpp:141] Setting up conv2/norm2
I0403 15:52:58.850180 16401 net.cpp:148] Top shape: 24 192 56 56 (14450688)
I0403 15:52:58.850200 16401 net.cpp:156] Memory required for data: 419071008
I0403 15:52:58.850219 16401 layer_factory.hpp:77] Creating layer pool2/3x3_s2
I0403 15:52:58.850242 16401 net.cpp:91] Creating Layer pool2/3x3_s2
I0403 15:52:58.850263 16401 net.cpp:425] pool2/3x3_s2 <- conv2/norm2
I0403 15:52:58.850288 16401 net.cpp:399] pool2/3x3_s2 -> pool2/3x3_s2
I0403 15:52:58.850358 16401 net.cpp:141] Setting up pool2/3x3_s2
I0403 15:52:58.850388 16401 net.cpp:148] Top shape: 24 192 28 28 (3612672)
I0403 15:52:58.850406 16401 net.cpp:156] Memory required for data: 433521696
I0403 15:52:58.850425 16401 layer_factory.hpp:77] Creating layer pool2/3x3_s2_pool2/3x3_s2_0_split
I0403 15:52:58.850450 16401 net.cpp:91] Creating Layer pool2/3x3_s2_pool2/3x3_s2_0_split
I0403 15:52:58.850471 16401 net.cpp:425] pool2/3x3_s2_pool2/3x3_s2_0_split <- pool2/3x3_s2
I0403 15:52:58.850494 16401 net.cpp:399] pool2/3x3_s2_pool2/3x3_s2_0_split -> pool2/3x3_s2_pool2/3x3_s2_0_split_0
I0403 15:52:58.850522 16401 net.cpp:399] pool2/3x3_s2_pool2/3x3_s2_0_split -> pool2/3x3_s2_pool2/3x3_s2_0_split_1
I0403 15:52:58.850548 16401 net.cpp:399] pool2/3x3_s2_pool2/3x3_s2_0_split -> pool2/3x3_s2_pool2/3x3_s2_0_split_2
I0403 15:52:58.850574 16401 net.cpp:399] pool2/3x3_s2_pool2/3x3_s2_0_split -> pool2/3x3_s2_pool2/3x3_s2_0_split_3
I0403 15:52:58.850663 16401 net.cpp:141] Setting up pool2/3x3_s2_pool2/3x3_s2_0_split
I0403 15:52:58.850694 16401 net.cpp:148] Top shape: 24 192 28 28 (3612672)
I0403 15:52:58.850718 16401 net.cpp:148] Top shape: 24 192 28 28 (3612672)
I0403 15:52:58.850736 16401 net.cpp:148] Top shape: 24 192 28 28 (3612672)
I0403 15:52:58.850756 16401 net.cpp:148] Top shape: 24 192 28 28 (3612672)
I0403 15:52:58.850774 16401 net.cpp:156] Memory required for data: 491324448
I0403 15:52:58.850795 16401 layer_factory.hpp:77] Creating layer inception_3a/1x1
I0403 15:52:58.850821 16401 net.cpp:91] Creating Layer inception_3a/1x1
I0403 15:52:58.850852 16401 net.cpp:425] inception_3a/1x1 <- pool2/3x3_s2_pool2/3x3_s2_0_split_0
I0403 15:52:58.850888 16401 net.cpp:399] inception_3a/1x1 -> inception_3a/1x1
I0403 15:52:58.852788 16401 net.cpp:141] Setting up inception_3a/1x1
I0403 15:52:58.852823 16401 net.cpp:148] Top shape: 24 64 28 28 (1204224)
I0403 15:52:58.852841 16401 net.cpp:156] Memory required for data: 496141344
I0403 15:52:58.852882 16401 layer_factory.hpp:77] Creating layer inception_3a/relu_1x1
I0403 15:52:58.852916 16401 net.cpp:91] Creating Layer inception_3a/relu_1x1
I0403 15:52:58.852939 16401 net.cpp:425] inception_3a/relu_1x1 <- inception_3a/1x1
I0403 15:52:58.852962 16401 net.cpp:386] inception_3a/relu_1x1 -> inception_3a/1x1 (in-place)
I0403 15:52:58.853181 16401 net.cpp:141] Setting up inception_3a/relu_1x1
I0403 15:52:58.853217 16401 net.cpp:148] Top shape: 24 64 28 28 (1204224)
I0403 15:52:58.853242 16401 net.cpp:156] Memory required for data: 500958240
I0403 15:52:58.853268 16401 layer_factory.hpp:77] Creating layer inception_3a/3x3_reduce
I0403 15:52:58.853303 16401 net.cpp:91] Creating Layer inception_3a/3x3_reduce
I0403 15:52:58.853327 16401 net.cpp:425] inception_3a/3x3_reduce <- pool2/3x3_s2_pool2/3x3_s2_0_split_1
I0403 15:52:58.853350 16401 net.cpp:399] inception_3a/3x3_reduce -> inception_3a/3x3_reduce
I0403 15:52:58.855525 16401 net.cpp:141] Setting up inception_3a/3x3_reduce
I0403 15:52:58.855561 16401 net.cpp:148] Top shape: 24 96 28 28 (1806336)
I0403 15:52:58.855581 16401 net.cpp:156] Memory required for data: 508183584
I0403 15:52:58.855620 16401 layer_factory.hpp:77] Creating layer inception_3a/relu_3x3_reduce
I0403 15:52:58.855669 16401 net.cpp:91] Creating Layer inception_3a/relu_3x3_reduce
I0403 15:52:58.855708 16401 net.cpp:425] inception_3a/relu_3x3_reduce <- inception_3a/3x3_reduce
I0403 15:52:58.855737 16401 net.cpp:386] inception_3a/relu_3x3_reduce -> inception_3a/3x3_reduce (in-place)
I0403 15:52:58.855967 16401 net.cpp:141] Setting up inception_3a/relu_3x3_reduce
I0403 15:52:58.856030 16401 net.cpp:148] Top shape: 24 96 28 28 (1806336)
I0403 15:52:58.856055 16401 net.cpp:156] Memory required for data: 515408928
I0403 15:52:58.856075 16401 layer_factory.hpp:77] Creating layer inception_3a/3x3
I0403 15:52:58.856106 16401 net.cpp:91] Creating Layer inception_3a/3x3
I0403 15:52:58.856129 16401 net.cpp:425] inception_3a/3x3 <- inception_3a/3x3_reduce
I0403 15:52:58.856158 16401 net.cpp:399] inception_3a/3x3 -> inception_3a/3x3
I0403 15:52:58.858172 16401 net.cpp:141] Setting up inception_3a/3x3
I0403 15:52:58.858211 16401 net.cpp:148] Top shape: 24 128 28 28 (2408448)
I0403 15:52:58.858232 16401 net.cpp:156] Memory required for data: 525042720
I0403 15:52:58.858254 16401 layer_factory.hpp:77] Creating layer inception_3a/relu_3x3
I0403 15:52:58.858279 16401 net.cpp:91] Creating Layer inception_3a/relu_3x3
I0403 15:52:58.858300 16401 net.cpp:425] inception_3a/relu_3x3 <- inception_3a/3x3
I0403 15:52:58.858324 16401 net.cpp:386] inception_3a/relu_3x3 -> inception_3a/3x3 (in-place)
I0403 15:52:58.858662 16401 net.cpp:141] Setting up inception_3a/relu_3x3
I0403 15:52:58.858696 16401 net.cpp:148] Top shape: 24 128 28 28 (2408448)
I0403 15:52:58.858716 16401 net.cpp:156] Memory required for data: 534676512
I0403 15:52:58.858741 16401 layer_factory.hpp:77] Creating layer inception_3a/5x5_reduce
I0403 15:52:58.858774 16401 net.cpp:91] Creating Layer inception_3a/5x5_reduce
I0403 15:52:58.858799 16401 net.cpp:425] inception_3a/5x5_reduce <- pool2/3x3_s2_pool2/3x3_s2_0_split_2
I0403 15:52:58.858826 16401 net.cpp:399] inception_3a/5x5_reduce -> inception_3a/5x5_reduce
I0403 15:52:58.860011 16401 net.cpp:141] Setting up inception_3a/5x5_reduce
I0403 15:52:58.860049 16401 net.cpp:148] Top shape: 24 16 28 28 (301056)
I0403 15:52:58.860069 16401 net.cpp:156] Memory required for data: 535880736
I0403 15:52:58.860092 16401 layer_factory.hpp:77] Creating layer inception_3a/relu_5x5_reduce
I0403 15:52:58.860116 16401 net.cpp:91] Creating Layer inception_3a/relu_5x5_reduce
I0403 15:52:58.860138 16401 net.cpp:425] inception_3a/relu_5x5_reduce <- inception_3a/5x5_reduce
I0403 15:52:58.860163 16401 net.cpp:386] inception_3a/relu_5x5_reduce -> inception_3a/5x5_reduce (in-place)
I0403 15:52:58.860509 16401 net.cpp:141] Setting up inception_3a/relu_5x5_reduce
I0403 15:52:58.860543 16401 net.cpp:148] Top shape: 24 16 28 28 (301056)
I0403 15:52:58.860563 16401 net.cpp:156] Memory required for data: 537084960
I0403 15:52:58.860584 16401 layer_factory.hpp:77] Creating layer inception_3a/5x5
I0403 15:52:58.860615 16401 net.cpp:91] Creating Layer inception_3a/5x5
I0403 15:52:58.860641 16401 net.cpp:425] inception_3a/5x5 <- inception_3a/5x5_reduce
I0403 15:52:58.860669 16401 net.cpp:399] inception_3a/5x5 -> inception_3a/5x5
I0403 15:52:58.861913 16401 net.cpp:141] Setting up inception_3a/5x5
I0403 15:52:58.861946 16401 net.cpp:148] Top shape: 24 32 28 28 (602112)
I0403 15:52:58.861966 16401 net.cpp:156] Memory required for data: 539493408
I0403 15:52:58.861989 16401 layer_factory.hpp:77] Creating layer inception_3a/relu_5x5
I0403 15:52:58.862015 16401 net.cpp:91] Creating Layer inception_3a/relu_5x5
I0403 15:52:58.862037 16401 net.cpp:425] inception_3a/relu_5x5 <- inception_3a/5x5
I0403 15:52:58.862061 16401 net.cpp:386] inception_3a/relu_5x5 -> inception_3a/5x5 (in-place)
I0403 15:52:58.862270 16401 net.cpp:141] Setting up inception_3a/relu_5x5
I0403 15:52:58.862306 16401 net.cpp:148] Top shape: 24 32 28 28 (602112)
I0403 15:52:58.862325 16401 net.cpp:156] Memory required for data: 541901856
I0403 15:52:58.862345 16401 layer_factory.hpp:77] Creating layer inception_3a/pool
I0403 15:52:58.862367 16401 net.cpp:91] Creating Layer inception_3a/pool
I0403 15:52:58.862387 16401 net.cpp:425] inception_3a/pool <- pool2/3x3_s2_pool2/3x3_s2_0_split_3
I0403 15:52:58.862432 16401 net.cpp:399] inception_3a/pool -> inception_3a/pool
I0403 15:52:58.862504 16401 net.cpp:141] Setting up inception_3a/pool
I0403 15:52:58.862550 16401 net.cpp:148] Top shape: 24 192 28 28 (3612672)
I0403 15:52:58.862576 16401 net.cpp:156] Memory required for data: 556352544
I0403 15:52:58.862620 16401 layer_factory.hpp:77] Creating layer inception_3a/pool_proj
I0403 15:52:58.862656 16401 net.cpp:91] Creating Layer inception_3a/pool_proj
I0403 15:52:58.862681 16401 net.cpp:425] inception_3a/pool_proj <- inception_3a/pool
I0403 15:52:58.862712 16401 net.cpp:399] inception_3a/pool_proj -> inception_3a/pool_proj
I0403 15:52:58.863884 16401 net.cpp:141] Setting up inception_3a/pool_proj
I0403 15:52:58.863919 16401 net.cpp:148] Top shape: 24 32 28 28 (602112)
I0403 15:52:58.863940 16401 net.cpp:156] Memory required for data: 558760992
I0403 15:52:58.863973 16401 layer_factory.hpp:77] Creating layer inception_3a/relu_pool_proj
I0403 15:52:58.863998 16401 net.cpp:91] Creating Layer inception_3a/relu_pool_proj
I0403 15:52:58.864018 16401 net.cpp:425] inception_3a/relu_pool_proj <- inception_3a/pool_proj
I0403 15:52:58.864039 16401 net.cpp:386] inception_3a/relu_pool_proj -> inception_3a/pool_proj (in-place)
I0403 15:52:58.864364 16401 net.cpp:141] Setting up inception_3a/relu_pool_proj
I0403 15:52:58.864398 16401 net.cpp:148] Top shape: 24 32 28 28 (602112)
I0403 15:52:58.864416 16401 net.cpp:156] Memory required for data: 561169440
I0403 15:52:58.864436 16401 layer_factory.hpp:77] Creating layer inception_3a/output
I0403 15:52:58.864465 16401 net.cpp:91] Creating Layer inception_3a/output
I0403 15:52:58.864491 16401 net.cpp:425] inception_3a/output <- inception_3a/1x1
I0403 15:52:58.864517 16401 net.cpp:425] inception_3a/output <- inception_3a/3x3
I0403 15:52:58.864548 16401 net.cpp:425] inception_3a/output <- inception_3a/5x5
I0403 15:52:58.864573 16401 net.cpp:425] inception_3a/output <- inception_3a/pool_proj
I0403 15:52:58.864620 16401 net.cpp:399] inception_3a/output -> inception_3a/output
I0403 15:52:58.864703 16401 net.cpp:141] Setting up inception_3a/output
I0403 15:52:58.864733 16401 net.cpp:148] Top shape: 24 256 28 28 (4816896)
I0403 15:52:58.864753 16401 net.cpp:156] Memory required for data: 580437024
I0403 15:52:58.864771 16401 layer_factory.hpp:77] Creating layer inception_3a/output_inception_3a/output_0_split
I0403 15:52:58.864794 16401 net.cpp:91] Creating Layer inception_3a/output_inception_3a/output_0_split
I0403 15:52:58.864816 16401 net.cpp:425] inception_3a/output_inception_3a/output_0_split <- inception_3a/output
I0403 15:52:58.864843 16401 net.cpp:399] inception_3a/output_inception_3a/output_0_split -> inception_3a/output_inception_3a/output_0_split_0
I0403 15:52:58.864871 16401 net.cpp:399] inception_3a/output_inception_3a/output_0_split -> inception_3a/output_inception_3a/output_0_split_1
I0403 15:52:58.864897 16401 net.cpp:399] inception_3a/output_inception_3a/output_0_split -> inception_3a/output_inception_3a/output_0_split_2
I0403 15:52:58.864925 16401 net.cpp:399] inception_3a/output_inception_3a/output_0_split -> inception_3a/output_inception_3a/output_0_split_3
I0403 15:52:58.865018 16401 net.cpp:141] Setting up inception_3a/output_inception_3a/output_0_split
I0403 15:52:58.865047 16401 net.cpp:148] Top shape: 24 256 28 28 (4816896)
I0403 15:52:58.865069 16401 net.cpp:148] Top shape: 24 256 28 28 (4816896)
I0403 15:52:58.865090 16401 net.cpp:148] Top shape: 24 256 28 28 (4816896)
I0403 15:52:58.865110 16401 net.cpp:148] Top shape: 24 256 28 28 (4816896)
I0403 15:52:58.865128 16401 net.cpp:156] Memory required for data: 657507360
I0403 15:52:58.865145 16401 layer_factory.hpp:77] Creating layer inception_3b/1x1
I0403 15:52:58.865173 16401 net.cpp:91] Creating Layer inception_3b/1x1
I0403 15:52:58.865195 16401 net.cpp:425] inception_3b/1x1 <- inception_3a/output_inception_3a/output_0_split_0
I0403 15:52:58.865223 16401 net.cpp:399] inception_3b/1x1 -> inception_3b/1x1
I0403 15:52:58.866626 16401 net.cpp:141] Setting up inception_3b/1x1
I0403 15:52:58.866675 16401 net.cpp:148] Top shape: 24 128 28 28 (2408448)
I0403 15:52:58.866698 16401 net.cpp:156] Memory required for data: 667141152
I0403 15:52:58.866721 16401 layer_factory.hpp:77] Creating layer inception_3b/relu_1x1
I0403 15:52:58.866745 16401 net.cpp:91] Creating Layer inception_3b/relu_1x1
I0403 15:52:58.899261 16401 net.cpp:425] inception_3b/relu_1x1 <- inception_3b/1x1
I0403 15:52:58.899307 16401 net.cpp:386] inception_3b/relu_1x1 -> inception_3b/1x1 (in-place)
I0403 15:52:58.899543 16401 net.cpp:141] Setting up inception_3b/relu_1x1
I0403 15:52:58.899585 16401 net.cpp:148] Top shape: 24 128 28 28 (2408448)
I0403 15:52:58.899610 16401 net.cpp:156] Memory required for data: 676774944
I0403 15:52:58.899631 16401 layer_factory.hpp:77] Creating layer inception_3b/3x3_reduce
I0403 15:52:58.899662 16401 net.cpp:91] Creating Layer inception_3b/3x3_reduce
I0403 15:52:58.899684 16401 net.cpp:425] inception_3b/3x3_reduce <- inception_3a/output_inception_3a/output_0_split_1
I0403 15:52:58.899711 16401 net.cpp:399] inception_3b/3x3_reduce -> inception_3b/3x3_reduce
I0403 15:52:58.901152 16401 net.cpp:141] Setting up inception_3b/3x3_reduce
I0403 15:52:58.901188 16401 net.cpp:148] Top shape: 24 128 28 28 (2408448)
I0403 15:52:58.901208 16401 net.cpp:156] Memory required for data: 686408736
I0403 15:52:58.901232 16401 layer_factory.hpp:77] Creating layer inception_3b/relu_3x3_reduce
I0403 15:52:58.901260 16401 net.cpp:91] Creating Layer inception_3b/relu_3x3_reduce
I0403 15:52:58.901281 16401 net.cpp:425] inception_3b/relu_3x3_reduce <- inception_3b/3x3_reduce
I0403 15:52:58.901304 16401 net.cpp:386] inception_3b/relu_3x3_reduce -> inception_3b/3x3_reduce (in-place)
I0403 15:52:58.901513 16401 net.cpp:141] Setting up inception_3b/relu_3x3_reduce
I0403 15:52:58.901546 16401 net.cpp:148] Top shape: 24 128 28 28 (2408448)
I0403 15:52:58.901566 16401 net.cpp:156] Memory required for data: 696042528
I0403 15:52:58.901583 16401 layer_factory.hpp:77] Creating layer inception_3b/3x3
I0403 15:52:58.901623 16401 net.cpp:91] Creating Layer inception_3b/3x3
I0403 15:52:58.901649 16401 net.cpp:425] inception_3b/3x3 <- inception_3b/3x3_reduce
I0403 15:52:58.901674 16401 net.cpp:399] inception_3b/3x3 -> inception_3b/3x3
I0403 15:52:58.905230 16401 net.cpp:141] Setting up inception_3b/3x3
I0403 15:52:58.905264 16401 net.cpp:148] Top shape: 24 192 28 28 (3612672)
I0403 15:52:58.905285 16401 net.cpp:156] Memory required for data: 710493216
I0403 15:52:58.905309 16401 layer_factory.hpp:77] Creating layer inception_3b/relu_3x3
I0403 15:52:58.905334 16401 net.cpp:91] Creating Layer inception_3b/relu_3x3
I0403 15:52:58.905355 16401 net.cpp:425] inception_3b/relu_3x3 <- inception_3b/3x3
I0403 15:52:58.905377 16401 net.cpp:386] inception_3b/relu_3x3 -> inception_3b/3x3 (in-place)
I0403 15:52:58.905731 16401 net.cpp:141] Setting up inception_3b/relu_3x3
I0403 15:52:58.905764 16401 net.cpp:148] Top shape: 24 192 28 28 (3612672)
I0403 15:52:58.905784 16401 net.cpp:156] Memory required for data: 724943904
I0403 15:52:58.905803 16401 layer_factory.hpp:77] Creating layer inception_3b/5x5_reduce
I0403 15:52:58.905833 16401 net.cpp:91] Creating Layer inception_3b/5x5_reduce
I0403 15:52:58.905855 16401 net.cpp:425] inception_3b/5x5_reduce <- inception_3a/output_inception_3a/output_0_split_2
I0403 15:52:58.905884 16401 net.cpp:399] inception_3b/5x5_reduce -> inception_3b/5x5_reduce
I0403 15:52:58.907100 16401 net.cpp:141] Setting up inception_3b/5x5_reduce
I0403 15:52:58.907140 16401 net.cpp:148] Top shape: 24 32 28 28 (602112)
I0403 15:52:58.907161 16401 net.cpp:156] Memory required for data: 727352352
I0403 15:52:58.907184 16401 layer_factory.hpp:77] Creating layer inception_3b/relu_5x5_reduce
I0403 15:52:58.907217 16401 net.cpp:91] Creating Layer inception_3b/relu_5x5_reduce
I0403 15:52:58.907253 16401 net.cpp:425] inception_3b/relu_5x5_reduce <- inception_3b/5x5_reduce
I0403 15:52:58.907274 16401 net.cpp:386] inception_3b/relu_5x5_reduce -> inception_3b/5x5_reduce (in-place)
I0403 15:52:58.907492 16401 net.cpp:141] Setting up inception_3b/relu_5x5_reduce
I0403 15:52:58.907552 16401 net.cpp:148] Top shape: 24 32 28 28 (602112)
I0403 15:52:58.907573 16401 net.cpp:156] Memory required for data: 729760800
I0403 15:52:58.907593 16401 layer_factory.hpp:77] Creating layer inception_3b/5x5
I0403 15:52:58.907626 16401 net.cpp:91] Creating Layer inception_3b/5x5
I0403 15:52:58.907654 16401 net.cpp:425] inception_3b/5x5 <- inception_3b/5x5_reduce
I0403 15:52:58.907677 16401 net.cpp:399] inception_3b/5x5 -> inception_3b/5x5
I0403 15:52:58.910070 16401 net.cpp:141] Setting up inception_3b/5x5
I0403 15:52:58.910107 16401 net.cpp:148] Top shape: 24 96 28 28 (1806336)
I0403 15:52:58.910127 16401 net.cpp:156] Memory required for data: 736986144
I0403 15:52:58.910151 16401 layer_factory.hpp:77] Creating layer inception_3b/relu_5x5
I0403 15:52:58.910176 16401 net.cpp:91] Creating Layer inception_3b/relu_5x5
I0403 15:52:58.910198 16401 net.cpp:425] inception_3b/relu_5x5 <- inception_3b/5x5
I0403 15:52:58.910221 16401 net.cpp:386] inception_3b/relu_5x5 -> inception_3b/5x5 (in-place)
I0403 15:52:58.910454 16401 net.cpp:141] Setting up inception_3b/relu_5x5
I0403 15:52:58.910486 16401 net.cpp:148] Top shape: 24 96 28 28 (1806336)
I0403 15:52:58.910504 16401 net.cpp:156] Memory required for data: 744211488
I0403 15:52:58.910523 16401 layer_factory.hpp:77] Creating layer inception_3b/pool
I0403 15:52:58.910545 16401 net.cpp:91] Creating Layer inception_3b/pool
I0403 15:52:58.910565 16401 net.cpp:425] inception_3b/pool <- inception_3a/output_inception_3a/output_0_split_3
I0403 15:52:58.910588 16401 net.cpp:399] inception_3b/pool -> inception_3b/pool
I0403 15:52:58.910662 16401 net.cpp:141] Setting up inception_3b/pool
I0403 15:52:58.910692 16401 net.cpp:148] Top shape: 24 256 28 28 (4816896)
I0403 15:52:58.910712 16401 net.cpp:156] Memory required for data: 763479072
I0403 15:52:58.910729 16401 layer_factory.hpp:77] Creating layer inception_3b/pool_proj
I0403 15:52:58.910758 16401 net.cpp:91] Creating Layer inception_3b/pool_proj
I0403 15:52:58.910778 16401 net.cpp:425] inception_3b/pool_proj <- inception_3b/pool
I0403 15:52:58.910805 16401 net.cpp:399] inception_3b/pool_proj -> inception_3b/pool_proj
I0403 15:52:58.912116 16401 net.cpp:141] Setting up inception_3b/pool_proj
I0403 15:52:58.912159 16401 net.cpp:148] Top shape: 24 64 28 28 (1204224)
I0403 15:52:58.912184 16401 net.cpp:156] Memory required for data: 768295968
I0403 15:52:58.912209 16401 layer_factory.hpp:77] Creating layer inception_3b/relu_pool_proj
I0403 15:52:58.912230 16401 net.cpp:91] Creating Layer inception_3b/relu_pool_proj
I0403 15:52:58.912250 16401 net.cpp:425] inception_3b/relu_pool_proj <- inception_3b/pool_proj
I0403 15:52:58.912274 16401 net.cpp:386] inception_3b/relu_pool_proj -> inception_3b/pool_proj (in-place)
I0403 15:52:58.912746 16401 net.cpp:141] Setting up inception_3b/relu_pool_proj
I0403 15:52:58.912786 16401 net.cpp:148] Top shape: 24 64 28 28 (1204224)
I0403 15:52:58.912806 16401 net.cpp:156] Memory required for data: 773112864
I0403 15:52:58.912827 16401 layer_factory.hpp:77] Creating layer inception_3b/output
I0403 15:52:58.912848 16401 net.cpp:91] Creating Layer inception_3b/output
I0403 15:52:58.912876 16401 net.cpp:425] inception_3b/output <- inception_3b/1x1
I0403 15:52:58.912896 16401 net.cpp:425] inception_3b/output <- inception_3b/3x3
I0403 15:52:58.912917 16401 net.cpp:425] inception_3b/output <- inception_3b/5x5
I0403 15:52:58.912936 16401 net.cpp:425] inception_3b/output <- inception_3b/pool_proj
I0403 15:52:58.912957 16401 net.cpp:399] inception_3b/output -> inception_3b/output
I0403 15:52:58.913015 16401 net.cpp:141] Setting up inception_3b/output
I0403 15:52:58.913049 16401 net.cpp:148] Top shape: 24 480 28 28 (9031680)
I0403 15:52:58.913079 16401 net.cpp:156] Memory required for data: 809239584
I0403 15:52:58.913107 16401 layer_factory.hpp:77] Creating layer pool3/3x3_s2
I0403 15:52:58.913136 16401 net.cpp:91] Creating Layer pool3/3x3_s2
I0403 15:52:58.913161 16401 net.cpp:425] pool3/3x3_s2 <- inception_3b/output
I0403 15:52:58.913185 16401 net.cpp:399] pool3/3x3_s2 -> pool3/3x3_s2
I0403 15:52:58.913276 16401 net.cpp:141] Setting up pool3/3x3_s2
I0403 15:52:58.913306 16401 net.cpp:148] Top shape: 24 480 14 14 (2257920)
I0403 15:52:58.913326 16401 net.cpp:156] Memory required for data: 818271264
I0403 15:52:58.913343 16401 layer_factory.hpp:77] Creating layer pool3/3x3_s2_pool3/3x3_s2_0_split
I0403 15:52:58.913364 16401 net.cpp:91] Creating Layer pool3/3x3_s2_pool3/3x3_s2_0_split
I0403 15:52:58.913390 16401 net.cpp:425] pool3/3x3_s2_pool3/3x3_s2_0_split <- pool3/3x3_s2
I0403 15:52:58.913414 16401 net.cpp:399] pool3/3x3_s2_pool3/3x3_s2_0_split -> pool3/3x3_s2_pool3/3x3_s2_0_split_0
I0403 15:52:58.913439 16401 net.cpp:399] pool3/3x3_s2_pool3/3x3_s2_0_split -> pool3/3x3_s2_pool3/3x3_s2_0_split_1
I0403 15:52:58.913463 16401 net.cpp:399] pool3/3x3_s2_pool3/3x3_s2_0_split -> pool3/3x3_s2_pool3/3x3_s2_0_split_2
I0403 15:52:58.913488 16401 net.cpp:399] pool3/3x3_s2_pool3/3x3_s2_0_split -> pool3/3x3_s2_pool3/3x3_s2_0_split_3
I0403 15:52:58.913583 16401 net.cpp:141] Setting up pool3/3x3_s2_pool3/3x3_s2_0_split
I0403 15:52:58.913619 16401 net.cpp:148] Top shape: 24 480 14 14 (2257920)
I0403 15:52:58.913663 16401 net.cpp:148] Top shape: 24 480 14 14 (2257920)
I0403 15:52:58.913686 16401 net.cpp:148] Top shape: 24 480 14 14 (2257920)
I0403 15:52:58.913705 16401 net.cpp:148] Top shape: 24 480 14 14 (2257920)
I0403 15:52:58.913723 16401 net.cpp:156] Memory required for data: 854397984
I0403 15:52:58.913741 16401 layer_factory.hpp:77] Creating layer inception_4a/1x1
I0403 15:52:58.913770 16401 net.cpp:91] Creating Layer inception_4a/1x1
I0403 15:52:58.913792 16401 net.cpp:425] inception_4a/1x1 <- pool3/3x3_s2_pool3/3x3_s2_0_split_0
I0403 15:52:58.913816 16401 net.cpp:399] inception_4a/1x1 -> inception_4a/1x1
I0403 15:52:58.915853 16401 net.cpp:141] Setting up inception_4a/1x1
I0403 15:52:58.915889 16401 net.cpp:148] Top shape: 24 192 14 14 (903168)
I0403 15:52:58.915910 16401 net.cpp:156] Memory required for data: 858010656
I0403 15:52:58.915933 16401 layer_factory.hpp:77] Creating layer inception_4a/relu_1x1
I0403 15:52:58.915958 16401 net.cpp:91] Creating Layer inception_4a/relu_1x1
I0403 15:52:58.915978 16401 net.cpp:425] inception_4a/relu_1x1 <- inception_4a/1x1
I0403 15:52:58.916002 16401 net.cpp:386] inception_4a/relu_1x1 -> inception_4a/1x1 (in-place)
I0403 15:52:58.916218 16401 net.cpp:141] Setting up inception_4a/relu_1x1
I0403 15:52:58.916250 16401 net.cpp:148] Top shape: 24 192 14 14 (903168)
I0403 15:52:58.916271 16401 net.cpp:156] Memory required for data: 861623328
I0403 15:52:58.916290 16401 layer_factory.hpp:77] Creating layer inception_4a/3x3_reduce
I0403 15:52:58.916317 16401 net.cpp:91] Creating Layer inception_4a/3x3_reduce
I0403 15:52:58.916344 16401 net.cpp:425] inception_4a/3x3_reduce <- pool3/3x3_s2_pool3/3x3_s2_0_split_1
I0403 15:52:58.916371 16401 net.cpp:399] inception_4a/3x3_reduce -> inception_4a/3x3_reduce
I0403 15:52:58.917937 16401 net.cpp:141] Setting up inception_4a/3x3_reduce
I0403 15:52:58.917970 16401 net.cpp:148] Top shape: 24 96 14 14 (451584)
I0403 15:52:58.917989 16401 net.cpp:156] Memory required for data: 863429664
I0403 15:52:58.918016 16401 layer_factory.hpp:77] Creating layer inception_4a/relu_3x3_reduce
I0403 15:52:58.918042 16401 net.cpp:91] Creating Layer inception_4a/relu_3x3_reduce
I0403 15:52:58.918063 16401 net.cpp:425] inception_4a/relu_3x3_reduce <- inception_4a/3x3_reduce
I0403 15:52:58.918090 16401 net.cpp:386] inception_4a/relu_3x3_reduce -> inception_4a/3x3_reduce (in-place)
I0403 15:52:58.918305 16401 net.cpp:141] Setting up inception_4a/relu_3x3_reduce
I0403 15:52:58.918337 16401 net.cpp:148] Top shape: 24 96 14 14 (451584)
I0403 15:52:58.918356 16401 net.cpp:156] Memory required for data: 865236000
I0403 15:52:58.918375 16401 layer_factory.hpp:77] Creating layer inception_4a/3x3
I0403 15:52:58.918401 16401 net.cpp:91] Creating Layer inception_4a/3x3
I0403 15:52:58.918422 16401 net.cpp:425] inception_4a/3x3 <- inception_4a/3x3_reduce
I0403 15:52:58.918449 16401 net.cpp:399] inception_4a/3x3 -> inception_4a/3x3
I0403 15:52:58.921735 16401 net.cpp:141] Setting up inception_4a/3x3
I0403 15:52:58.921768 16401 net.cpp:148] Top shape: 24 208 14 14 (978432)
I0403 15:52:58.921787 16401 net.cpp:156] Memory required for data: 869149728
I0403 15:52:58.921809 16401 layer_factory.hpp:77] Creating layer inception_4a/relu_3x3
I0403 15:52:58.921834 16401 net.cpp:91] Creating Layer inception_4a/relu_3x3
I0403 15:52:58.921854 16401 net.cpp:425] inception_4a/relu_3x3 <- inception_4a/3x3
I0403 15:52:58.921875 16401 net.cpp:386] inception_4a/relu_3x3 -> inception_4a/3x3 (in-place)
I0403 15:52:58.922211 16401 net.cpp:141] Setting up inception_4a/relu_3x3
I0403 15:52:58.922257 16401 net.cpp:148] Top shape: 24 208 14 14 (978432)
I0403 15:52:58.922277 16401 net.cpp:156] Memory required for data: 873063456
I0403 15:52:58.922297 16401 layer_factory.hpp:77] Creating layer inception_4a/5x5_reduce
I0403 15:52:58.922325 16401 net.cpp:91] Creating Layer inception_4a/5x5_reduce
I0403 15:52:58.922348 16401 net.cpp:425] inception_4a/5x5_reduce <- pool3/3x3_s2_pool3/3x3_s2_0_split_2
I0403 15:52:58.922375 16401 net.cpp:399] inception_4a/5x5_reduce -> inception_4a/5x5_reduce
I0403 15:52:58.923660 16401 net.cpp:141] Setting up inception_4a/5x5_reduce
I0403 15:52:58.923696 16401 net.cpp:148] Top shape: 24 16 14 14 (75264)
I0403 15:52:58.923714 16401 net.cpp:156] Memory required for data: 873364512
I0403 15:52:58.923737 16401 layer_factory.hpp:77] Creating layer inception_4a/relu_5x5_reduce
I0403 15:52:58.923774 16401 net.cpp:91] Creating Layer inception_4a/relu_5x5_reduce
I0403 15:52:58.923794 16401 net.cpp:425] inception_4a/relu_5x5_reduce <- inception_4a/5x5_reduce
I0403 15:52:58.923821 16401 net.cpp:386] inception_4a/relu_5x5_reduce -> inception_4a/5x5_reduce (in-place)
I0403 15:52:58.924048 16401 net.cpp:141] Setting up inception_4a/relu_5x5_reduce
I0403 15:52:58.924082 16401 net.cpp:148] Top shape: 24 16 14 14 (75264)
I0403 15:52:58.924108 16401 net.cpp:156] Memory required for data: 873665568
I0403 15:52:58.924130 16401 layer_factory.hpp:77] Creating layer inception_4a/5x5
I0403 15:52:58.924162 16401 net.cpp:91] Creating Layer inception_4a/5x5
I0403 15:52:58.924186 16401 net.cpp:425] inception_4a/5x5 <- inception_4a/5x5_reduce
I0403 15:52:58.924211 16401 net.cpp:399] inception_4a/5x5 -> inception_4a/5x5
I0403 15:52:58.925554 16401 net.cpp:141] Setting up inception_4a/5x5
I0403 15:52:58.925587 16401 net.cpp:148] Top shape: 24 48 14 14 (225792)
I0403 15:52:58.925612 16401 net.cpp:156] Memory required for data: 874568736
I0403 15:52:58.925637 16401 layer_factory.hpp:77] Creating layer inception_4a/relu_5x5
I0403 15:52:58.925658 16401 net.cpp:91] Creating Layer inception_4a/relu_5x5
I0403 15:52:58.925679 16401 net.cpp:425] inception_4a/relu_5x5 <- inception_4a/5x5
I0403 15:52:58.925703 16401 net.cpp:386] inception_4a/relu_5x5 -> inception_4a/5x5 (in-place)
I0403 15:52:58.925925 16401 net.cpp:141] Setting up inception_4a/relu_5x5
I0403 15:52:58.925956 16401 net.cpp:148] Top shape: 24 48 14 14 (225792)
I0403 15:52:58.925973 16401 net.cpp:156] Memory required for data: 875471904
I0403 15:52:58.925992 16401 layer_factory.hpp:77] Creating layer inception_4a/pool
I0403 15:52:58.926012 16401 net.cpp:91] Creating Layer inception_4a/pool
I0403 15:52:58.926031 16401 net.cpp:425] inception_4a/pool <- pool3/3x3_s2_pool3/3x3_s2_0_split_3
I0403 15:52:58.926056 16401 net.cpp:399] inception_4a/pool -> inception_4a/pool
I0403 15:52:58.926129 16401 net.cpp:141] Setting up inception_4a/pool
I0403 15:52:58.926162 16401 net.cpp:148] Top shape: 24 480 14 14 (2257920)
I0403 15:52:58.926179 16401 net.cpp:156] Memory required for data: 884503584
I0403 15:52:58.926197 16401 layer_factory.hpp:77] Creating layer inception_4a/pool_proj
I0403 15:52:58.926223 16401 net.cpp:91] Creating Layer inception_4a/pool_proj
I0403 15:52:58.926245 16401 net.cpp:425] inception_4a/pool_proj <- inception_4a/pool
I0403 15:52:58.926268 16401 net.cpp:399] inception_4a/pool_proj -> inception_4a/pool_proj
I0403 15:52:58.927681 16401 net.cpp:141] Setting up inception_4a/pool_proj
I0403 15:52:58.927716 16401 net.cpp:148] Top shape: 24 64 14 14 (301056)
I0403 15:52:58.927753 16401 net.cpp:156] Memory required for data: 885707808
I0403 15:52:58.927778 16401 layer_factory.hpp:77] Creating layer inception_4a/relu_pool_proj
I0403 15:52:58.927800 16401 net.cpp:91] Creating Layer inception_4a/relu_pool_proj
I0403 15:52:58.927820 16401 net.cpp:425] inception_4a/relu_pool_proj <- inception_4a/pool_proj
I0403 15:52:58.927846 16401 net.cpp:386] inception_4a/relu_pool_proj -> inception_4a/pool_proj (in-place)
I0403 15:52:58.928185 16401 net.cpp:141] Setting up inception_4a/relu_pool_proj
I0403 15:52:58.928217 16401 net.cpp:148] Top shape: 24 64 14 14 (301056)
I0403 15:52:58.928236 16401 net.cpp:156] Memory required for data: 886912032
I0403 15:52:58.928254 16401 layer_factory.hpp:77] Creating layer inception_4a/output
I0403 15:52:58.928277 16401 net.cpp:91] Creating Layer inception_4a/output
I0403 15:52:58.928295 16401 net.cpp:425] inception_4a/output <- inception_4a/1x1
I0403 15:52:58.928318 16401 net.cpp:425] inception_4a/output <- inception_4a/3x3
I0403 15:52:58.928341 16401 net.cpp:425] inception_4a/output <- inception_4a/5x5
I0403 15:52:58.928364 16401 net.cpp:425] inception_4a/output <- inception_4a/pool_proj
I0403 15:52:58.928386 16401 net.cpp:399] inception_4a/output -> inception_4a/output
I0403 15:52:58.928447 16401 net.cpp:141] Setting up inception_4a/output
I0403 15:52:58.928478 16401 net.cpp:148] Top shape: 24 512 14 14 (2408448)
I0403 15:52:58.928530 16401 net.cpp:156] Memory required for data: 896545824
I0403 15:52:58.928562 16401 layer_factory.hpp:77] Creating layer inception_4a/output_inception_4a/output_0_split
I0403 15:52:58.928586 16401 net.cpp:91] Creating Layer inception_4a/output_inception_4a/output_0_split
I0403 15:52:58.928608 16401 net.cpp:425] inception_4a/output_inception_4a/output_0_split <- inception_4a/output
I0403 15:52:58.928632 16401 net.cpp:399] inception_4a/output_inception_4a/output_0_split -> inception_4a/output_inception_4a/output_0_split_0
I0403 15:52:58.928658 16401 net.cpp:399] inception_4a/output_inception_4a/output_0_split -> inception_4a/output_inception_4a/output_0_split_1
I0403 15:52:58.928684 16401 net.cpp:399] inception_4a/output_inception_4a/output_0_split -> inception_4a/output_inception_4a/output_0_split_2
I0403 15:52:58.928712 16401 net.cpp:399] inception_4a/output_inception_4a/output_0_split -> inception_4a/output_inception_4a/output_0_split_3
I0403 15:52:58.928741 16401 net.cpp:399] inception_4a/output_inception_4a/output_0_split -> inception_4a/output_inception_4a/output_0_split_4
I0403 15:52:58.928856 16401 net.cpp:141] Setting up inception_4a/output_inception_4a/output_0_split
I0403 15:52:58.928885 16401 net.cpp:148] Top shape: 24 512 14 14 (2408448)
I0403 15:52:58.928912 16401 net.cpp:148] Top shape: 24 512 14 14 (2408448)
I0403 15:52:58.928935 16401 net.cpp:148] Top shape: 24 512 14 14 (2408448)
I0403 15:52:58.928954 16401 net.cpp:148] Top shape: 24 512 14 14 (2408448)
I0403 15:52:58.928973 16401 net.cpp:148] Top shape: 24 512 14 14 (2408448)
I0403 15:52:58.928989 16401 net.cpp:156] Memory required for data: 944714784
I0403 15:52:58.929008 16401 layer_factory.hpp:77] Creating layer loss1/ave_pool
I0403 15:52:58.929033 16401 net.cpp:91] Creating Layer loss1/ave_pool
I0403 15:52:58.929054 16401 net.cpp:425] loss1/ave_pool <- inception_4a/output_inception_4a/output_0_split_0
I0403 15:52:58.929080 16401 net.cpp:399] loss1/ave_pool -> loss1/ave_pool
I0403 15:52:58.929353 16401 net.cpp:141] Setting up loss1/ave_pool
I0403 15:52:58.929394 16401 net.cpp:148] Top shape: 24 512 4 4 (196608)
I0403 15:52:58.929415 16401 net.cpp:156] Memory required for data: 945501216
I0403 15:52:58.929436 16401 layer_factory.hpp:77] Creating layer loss1/conv
I0403 15:52:58.929469 16401 net.cpp:91] Creating Layer loss1/conv
I0403 15:52:58.929491 16401 net.cpp:425] loss1/conv <- loss1/ave_pool
I0403 15:52:58.929517 16401 net.cpp:399] loss1/conv -> loss1/conv
I0403 15:52:58.931236 16401 net.cpp:141] Setting up loss1/conv
I0403 15:52:58.931268 16401 net.cpp:148] Top shape: 24 128 4 4 (49152)
I0403 15:52:58.931288 16401 net.cpp:156] Memory required for data: 945697824
I0403 15:52:58.931327 16401 layer_factory.hpp:77] Creating layer loss1/relu_conv
I0403 15:52:58.931355 16401 net.cpp:91] Creating Layer loss1/relu_conv
I0403 15:52:58.931376 16401 net.cpp:425] loss1/relu_conv <- loss1/conv
I0403 15:52:58.931397 16401 net.cpp:386] loss1/relu_conv -> loss1/conv (in-place)
I0403 15:52:58.931747 16401 net.cpp:141] Setting up loss1/relu_conv
I0403 15:52:58.931779 16401 net.cpp:148] Top shape: 24 128 4 4 (49152)
I0403 15:52:58.931797 16401 net.cpp:156] Memory required for data: 945894432
I0403 15:52:58.931815 16401 layer_factory.hpp:77] Creating layer loss1/fc
I0403 15:52:58.931862 16401 net.cpp:91] Creating Layer loss1/fc
I0403 15:52:58.931886 16401 net.cpp:425] loss1/fc <- loss1/conv
I0403 15:52:58.931911 16401 net.cpp:399] loss1/fc -> loss1/fc
I0403 15:52:58.953915 16401 net.cpp:141] Setting up loss1/fc
I0403 15:52:58.967175 16401 net.cpp:148] Top shape: 24 1024 (24576)
I0403 15:52:58.967205 16401 net.cpp:156] Memory required for data: 945992736
I0403 15:52:58.967231 16401 layer_factory.hpp:77] Creating layer loss1/relu_fc
I0403 15:52:58.967255 16401 net.cpp:91] Creating Layer loss1/relu_fc
I0403 15:52:58.967277 16401 net.cpp:425] loss1/relu_fc <- loss1/fc
I0403 15:52:58.967304 16401 net.cpp:386] loss1/relu_fc -> loss1/fc (in-place)
I0403 15:52:58.967568 16401 net.cpp:141] Setting up loss1/relu_fc
I0403 15:52:58.967600 16401 net.cpp:148] Top shape: 24 1024 (24576)
I0403 15:52:58.967628 16401 net.cpp:156] Memory required for data: 946091040
I0403 15:52:58.967649 16401 layer_factory.hpp:77] Creating layer loss1/drop_fc
I0403 15:52:58.967684 16401 net.cpp:91] Creating Layer loss1/drop_fc
I0403 15:52:58.967707 16401 net.cpp:425] loss1/drop_fc <- loss1/fc
I0403 15:52:58.967739 16401 net.cpp:386] loss1/drop_fc -> loss1/fc (in-place)
I0403 15:52:58.967826 16401 net.cpp:141] Setting up loss1/drop_fc
I0403 15:52:58.967856 16401 net.cpp:148] Top shape: 24 1024 (24576)
I0403 15:52:58.967876 16401 net.cpp:156] Memory required for data: 946189344
I0403 15:52:58.967898 16401 layer_factory.hpp:77] Creating layer loss1/classifier_plantvillage
I0403 15:52:58.967927 16401 net.cpp:91] Creating Layer loss1/classifier_plantvillage
I0403 15:52:58.967948 16401 net.cpp:425] loss1/classifier_plantvillage <- loss1/fc
I0403 15:52:58.967974 16401 net.cpp:399] loss1/classifier_plantvillage -> loss1/classifier_plantvillage
I0403 15:52:58.969084 16401 net.cpp:141] Setting up loss1/classifier_plantvillage
I0403 15:52:58.969120 16401 net.cpp:148] Top shape: 24 38 (912)
I0403 15:52:58.969140 16401 net.cpp:156] Memory required for data: 946192992
I0403 15:52:58.969184 16401 layer_factory.hpp:77] Creating layer loss1/classifier_plantvillage_loss1/classifier_plantvillage_0_split
I0403 15:52:58.969213 16401 net.cpp:91] Creating Layer loss1/classifier_plantvillage_loss1/classifier_plantvillage_0_split
I0403 15:52:58.969234 16401 net.cpp:425] loss1/classifier_plantvillage_loss1/classifier_plantvillage_0_split <- loss1/classifier_plantvillage
I0403 15:52:58.969260 16401 net.cpp:399] loss1/classifier_plantvillage_loss1/classifier_plantvillage_0_split -> loss1/classifier_plantvillage_loss1/classifier_plantvillage_0_split_0
I0403 15:52:58.969290 16401 net.cpp:399] loss1/classifier_plantvillage_loss1/classifier_plantvillage_0_split -> loss1/classifier_plantvillage_loss1/classifier_plantvillage_0_split_1
I0403 15:52:58.969315 16401 net.cpp:399] loss1/classifier_plantvillage_loss1/classifier_plantvillage_0_split -> loss1/classifier_plantvillage_loss1/classifier_plantvillage_0_split_2
I0403 15:52:58.969413 16401 net.cpp:141] Setting up loss1/classifier_plantvillage_loss1/classifier_plantvillage_0_split
I0403 15:52:58.969449 16401 net.cpp:148] Top shape: 24 38 (912)
I0403 15:52:58.969470 16401 net.cpp:148] Top shape: 24 38 (912)
I0403 15:52:58.969491 16401 net.cpp:148] Top shape: 24 38 (912)
I0403 15:52:58.969508 16401 net.cpp:156] Memory required for data: 946203936
I0403 15:52:58.969527 16401 layer_factory.hpp:77] Creating layer inception_4b/1x1
I0403 15:52:58.969553 16401 net.cpp:91] Creating Layer inception_4b/1x1
I0403 15:52:58.969606 16401 net.cpp:425] inception_4b/1x1 <- inception_4a/output_inception_4a/output_0_split_1
I0403 15:52:58.969635 16401 net.cpp:399] inception_4b/1x1 -> inception_4b/1x1
I0403 15:52:58.971781 16401 net.cpp:141] Setting up inception_4b/1x1
I0403 15:52:58.971817 16401 net.cpp:148] Top shape: 24 160 14 14 (752640)
I0403 15:52:58.971838 16401 net.cpp:156] Memory required for data: 949214496
I0403 15:52:58.971863 16401 layer_factory.hpp:77] Creating layer inception_4b/relu_1x1
I0403 15:52:58.971887 16401 net.cpp:91] Creating Layer inception_4b/relu_1x1
I0403 15:52:58.971909 16401 net.cpp:425] inception_4b/relu_1x1 <- inception_4b/1x1
I0403 15:52:58.971931 16401 net.cpp:386] inception_4b/relu_1x1 -> inception_4b/1x1 (in-place)
I0403 15:52:58.972159 16401 net.cpp:141] Setting up inception_4b/relu_1x1
I0403 15:52:58.972196 16401 net.cpp:148] Top shape: 24 160 14 14 (752640)
I0403 15:52:58.972215 16401 net.cpp:156] Memory required for data: 952225056
I0403 15:52:58.972249 16401 layer_factory.hpp:77] Creating layer inception_4b/3x3_reduce
I0403 15:52:58.972280 16401 net.cpp:91] Creating Layer inception_4b/3x3_reduce
I0403 15:52:58.972302 16401 net.cpp:425] inception_4b/3x3_reduce <- inception_4a/output_inception_4a/output_0_split_2
I0403 15:52:58.972328 16401 net.cpp:399] inception_4b/3x3_reduce -> inception_4b/3x3_reduce
I0403 15:52:58.974010 16401 net.cpp:141] Setting up inception_4b/3x3_reduce
I0403 15:52:58.974045 16401 net.cpp:148] Top shape: 24 112 14 14 (526848)
I0403 15:52:58.974066 16401 net.cpp:156] Memory required for data: 954332448
I0403 15:52:58.974088 16401 layer_factory.hpp:77] Creating layer inception_4b/relu_3x3_reduce
I0403 15:52:58.974115 16401 net.cpp:91] Creating Layer inception_4b/relu_3x3_reduce
I0403 15:52:58.974138 16401 net.cpp:425] inception_4b/relu_3x3_reduce <- inception_4b/3x3_reduce
I0403 15:52:58.974160 16401 net.cpp:386] inception_4b/relu_3x3_reduce -> inception_4b/3x3_reduce (in-place)
I0403 15:52:58.974498 16401 net.cpp:141] Setting up inception_4b/relu_3x3_reduce
I0403 15:52:58.974531 16401 net.cpp:148] Top shape: 24 112 14 14 (526848)
I0403 15:52:58.974550 16401 net.cpp:156] Memory required for data: 956439840
I0403 15:52:58.974570 16401 layer_factory.hpp:77] Creating layer inception_4b/3x3
I0403 15:52:58.974606 16401 net.cpp:91] Creating Layer inception_4b/3x3
I0403 15:52:58.974629 16401 net.cpp:425] inception_4b/3x3 <- inception_4b/3x3_reduce
I0403 15:52:58.974654 16401 net.cpp:399] inception_4b/3x3 -> inception_4b/3x3
I0403 15:52:58.978322 16401 net.cpp:141] Setting up inception_4b/3x3
I0403 15:52:58.978364 16401 net.cpp:148] Top shape: 24 224 14 14 (1053696)
I0403 15:52:58.978389 16401 net.cpp:156] Memory required for data: 960654624
I0403 15:52:58.978411 16401 layer_factory.hpp:77] Creating layer inception_4b/relu_3x3
I0403 15:52:58.978435 16401 net.cpp:91] Creating Layer inception_4b/relu_3x3
I0403 15:52:58.978457 16401 net.cpp:425] inception_4b/relu_3x3 <- inception_4b/3x3
I0403 15:52:58.978485 16401 net.cpp:386] inception_4b/relu_3x3 -> inception_4b/3x3 (in-place)
I0403 15:52:58.978715 16401 net.cpp:141] Setting up inception_4b/relu_3x3
I0403 15:52:58.978747 16401 net.cpp:148] Top shape: 24 224 14 14 (1053696)
I0403 15:52:58.978766 16401 net.cpp:156] Memory required for data: 964869408
I0403 15:52:58.978787 16401 layer_factory.hpp:77] Creating layer inception_4b/5x5_reduce
I0403 15:52:58.978821 16401 net.cpp:91] Creating Layer inception_4b/5x5_reduce
I0403 15:52:58.978849 16401 net.cpp:425] inception_4b/5x5_reduce <- inception_4a/output_inception_4a/output_0_split_3
I0403 15:52:58.978881 16401 net.cpp:399] inception_4b/5x5_reduce -> inception_4b/5x5_reduce
I0403 15:52:58.980252 16401 net.cpp:141] Setting up inception_4b/5x5_reduce
I0403 15:52:58.980288 16401 net.cpp:148] Top shape: 24 24 14 14 (112896)
I0403 15:52:58.980306 16401 net.cpp:156] Memory required for data: 965320992
I0403 15:52:58.980329 16401 layer_factory.hpp:77] Creating layer inception_4b/relu_5x5_reduce
I0403 15:52:58.980355 16401 net.cpp:91] Creating Layer inception_4b/relu_5x5_reduce
I0403 15:52:58.980394 16401 net.cpp:425] inception_4b/relu_5x5_reduce <- inception_4b/5x5_reduce
I0403 15:52:58.980419 16401 net.cpp:386] inception_4b/relu_5x5_reduce -> inception_4b/5x5_reduce (in-place)
I0403 15:52:58.980650 16401 net.cpp:141] Setting up inception_4b/relu_5x5_reduce
I0403 15:52:58.980689 16401 net.cpp:148] Top shape: 24 24 14 14 (112896)
I0403 15:52:58.980712 16401 net.cpp:156] Memory required for data: 965772576
I0403 15:52:58.980742 16401 layer_factory.hpp:77] Creating layer inception_4b/5x5
I0403 15:52:58.980772 16401 net.cpp:91] Creating Layer inception_4b/5x5
I0403 15:52:58.980793 16401 net.cpp:425] inception_4b/5x5 <- inception_4b/5x5_reduce
I0403 15:52:58.980818 16401 net.cpp:399] inception_4b/5x5 -> inception_4b/5x5
I0403 15:52:58.982316 16401 net.cpp:141] Setting up inception_4b/5x5
I0403 15:52:58.982352 16401 net.cpp:148] Top shape: 24 64 14 14 (301056)
I0403 15:52:58.982373 16401 net.cpp:156] Memory required for data: 966976800
I0403 15:52:58.982396 16401 layer_factory.hpp:77] Creating layer inception_4b/relu_5x5
I0403 15:52:58.982422 16401 net.cpp:91] Creating Layer inception_4b/relu_5x5
I0403 15:52:58.982444 16401 net.cpp:425] inception_4b/relu_5x5 <- inception_4b/5x5
I0403 15:52:58.982466 16401 net.cpp:386] inception_4b/relu_5x5 -> inception_4b/5x5 (in-place)
I0403 15:52:58.982823 16401 net.cpp:141] Setting up inception_4b/relu_5x5
I0403 15:52:58.982857 16401 net.cpp:148] Top shape: 24 64 14 14 (301056)
I0403 15:52:58.982877 16401 net.cpp:156] Memory required for data: 968181024
I0403 15:52:58.982895 16401 layer_factory.hpp:77] Creating layer inception_4b/pool
I0403 15:52:58.982923 16401 net.cpp:91] Creating Layer inception_4b/pool
I0403 15:52:58.982944 16401 net.cpp:425] inception_4b/pool <- inception_4a/output_inception_4a/output_0_split_4
I0403 15:52:58.982967 16401 net.cpp:399] inception_4b/pool -> inception_4b/pool
I0403 15:52:58.983050 16401 net.cpp:141] Setting up inception_4b/pool
I0403 15:52:58.983080 16401 net.cpp:148] Top shape: 24 512 14 14 (2408448)
I0403 15:52:58.983098 16401 net.cpp:156] Memory required for data: 977814816
I0403 15:52:58.983116 16401 layer_factory.hpp:77] Creating layer inception_4b/pool_proj
I0403 15:52:58.983144 16401 net.cpp:91] Creating Layer inception_4b/pool_proj
I0403 15:52:58.983167 16401 net.cpp:425] inception_4b/pool_proj <- inception_4b/pool
I0403 15:52:58.983193 16401 net.cpp:399] inception_4b/pool_proj -> inception_4b/pool_proj
I0403 15:52:58.984661 16401 net.cpp:141] Setting up inception_4b/pool_proj
I0403 15:52:58.984699 16401 net.cpp:148] Top shape: 24 64 14 14 (301056)
I0403 15:52:58.984724 16401 net.cpp:156] Memory required for data: 979019040
I0403 15:52:58.984753 16401 layer_factory.hpp:77] Creating layer inception_4b/relu_pool_proj
I0403 15:52:58.984784 16401 net.cpp:91] Creating Layer inception_4b/relu_pool_proj
I0403 15:52:58.984810 16401 net.cpp:425] inception_4b/relu_pool_proj <- inception_4b/pool_proj
I0403 15:52:58.984833 16401 net.cpp:386] inception_4b/relu_pool_proj -> inception_4b/pool_proj (in-place)
I0403 15:52:58.985057 16401 net.cpp:141] Setting up inception_4b/relu_pool_proj
I0403 15:52:58.985091 16401 net.cpp:148] Top shape: 24 64 14 14 (301056)
I0403 15:52:58.985110 16401 net.cpp:156] Memory required for data: 980223264
I0403 15:52:58.985131 16401 layer_factory.hpp:77] Creating layer inception_4b/output
I0403 15:52:58.985152 16401 net.cpp:91] Creating Layer inception_4b/output
I0403 15:52:58.985172 16401 net.cpp:425] inception_4b/output <- inception_4b/1x1
I0403 15:52:58.985193 16401 net.cpp:425] inception_4b/output <- inception_4b/3x3
I0403 15:52:58.985214 16401 net.cpp:425] inception_4b/output <- inception_4b/5x5
I0403 15:52:58.985234 16401 net.cpp:425] inception_4b/output <- inception_4b/pool_proj
I0403 15:52:58.985257 16401 net.cpp:399] inception_4b/output -> inception_4b/output
I0403 15:52:58.985314 16401 net.cpp:141] Setting up inception_4b/output
I0403 15:52:58.985345 16401 net.cpp:148] Top shape: 24 512 14 14 (2408448)
I0403 15:52:58.985364 16401 net.cpp:156] Memory required for data: 989857056
I0403 15:52:58.985400 16401 layer_factory.hpp:77] Creating layer inception_4b/output_inception_4b/output_0_split
I0403 15:52:58.985426 16401 net.cpp:91] Creating Layer inception_4b/output_inception_4b/output_0_split
I0403 15:52:58.985448 16401 net.cpp:425] inception_4b/output_inception_4b/output_0_split <- inception_4b/output
I0403 15:52:58.985472 16401 net.cpp:399] inception_4b/output_inception_4b/output_0_split -> inception_4b/output_inception_4b/output_0_split_0
I0403 15:52:58.985497 16401 net.cpp:399] inception_4b/output_inception_4b/output_0_split -> inception_4b/output_inception_4b/output_0_split_1
I0403 15:52:58.985527 16401 net.cpp:399] inception_4b/output_inception_4b/output_0_split -> inception_4b/output_inception_4b/output_0_split_2
I0403 15:52:58.985558 16401 net.cpp:399] inception_4b/output_inception_4b/output_0_split -> inception_4b/output_inception_4b/output_0_split_3
I0403 15:52:58.985677 16401 net.cpp:141] Setting up inception_4b/output_inception_4b/output_0_split
I0403 15:52:58.985707 16401 net.cpp:148] Top shape: 24 512 14 14 (2408448)
I0403 15:52:58.985726 16401 net.cpp:148] Top shape: 24 512 14 14 (2408448)
I0403 15:52:58.985746 16401 net.cpp:148] Top shape: 24 512 14 14 (2408448)
I0403 15:52:58.985766 16401 net.cpp:148] Top shape: 24 512 14 14 (2408448)
I0403 15:52:58.985785 16401 net.cpp:156] Memory required for data: 1028392224
I0403 15:52:58.985803 16401 layer_factory.hpp:77] Creating layer inception_4c/1x1
I0403 15:52:58.985834 16401 net.cpp:91] Creating Layer inception_4c/1x1
I0403 15:52:58.985855 16401 net.cpp:425] inception_4c/1x1 <- inception_4b/output_inception_4b/output_0_split_0
I0403 15:52:58.985882 16401 net.cpp:399] inception_4c/1x1 -> inception_4c/1x1
I0403 15:52:58.987637 16401 net.cpp:141] Setting up inception_4c/1x1
I0403 15:52:58.987675 16401 net.cpp:148] Top shape: 24 128 14 14 (602112)
I0403 15:52:58.987697 16401 net.cpp:156] Memory required for data: 1030800672
I0403 15:52:58.987721 16401 layer_factory.hpp:77] Creating layer inception_4c/relu_1x1
I0403 15:52:58.987743 16401 net.cpp:91] Creating Layer inception_4c/relu_1x1
I0403 15:52:58.987764 16401 net.cpp:425] inception_4c/relu_1x1 <- inception_4c/1x1
I0403 15:52:58.987789 16401 net.cpp:386] inception_4c/relu_1x1 -> inception_4c/1x1 (in-place)
I0403 15:52:58.988011 16401 net.cpp:141] Setting up inception_4c/relu_1x1
I0403 15:52:58.988042 16401 net.cpp:148] Top shape: 24 128 14 14 (602112)
I0403 15:52:58.988078 16401 net.cpp:156] Memory required for data: 1033209120
I0403 15:52:58.988106 16401 layer_factory.hpp:77] Creating layer inception_4c/3x3_reduce
I0403 15:52:58.988133 16401 net.cpp:91] Creating Layer inception_4c/3x3_reduce
I0403 15:52:58.988157 16401 net.cpp:425] inception_4c/3x3_reduce <- inception_4b/output_inception_4b/output_0_split_1
I0403 15:52:58.988183 16401 net.cpp:399] inception_4c/3x3_reduce -> inception_4c/3x3_reduce
I0403 15:52:58.990592 16401 net.cpp:141] Setting up inception_4c/3x3_reduce
I0403 15:52:58.990634 16401 net.cpp:148] Top shape: 24 128 14 14 (602112)
I0403 15:52:58.990654 16401 net.cpp:156] Memory required for data: 1035617568
I0403 15:52:58.990679 16401 layer_factory.hpp:77] Creating layer inception_4c/relu_3x3_reduce
I0403 15:52:58.990705 16401 net.cpp:91] Creating Layer inception_4c/relu_3x3_reduce
I0403 15:52:58.990728 16401 net.cpp:425] inception_4c/relu_3x3_reduce <- inception_4c/3x3_reduce
I0403 15:52:58.990751 16401 net.cpp:386] inception_4c/relu_3x3_reduce -> inception_4c/3x3_reduce (in-place)
I0403 15:52:58.991102 16401 net.cpp:141] Setting up inception_4c/relu_3x3_reduce
I0403 15:52:58.991135 16401 net.cpp:148] Top shape: 24 128 14 14 (602112)
I0403 15:52:58.991154 16401 net.cpp:156] Memory required for data: 1038026016
I0403 15:52:58.991173 16401 layer_factory.hpp:77] Creating layer inception_4c/3x3
I0403 15:52:58.991201 16401 net.cpp:91] Creating Layer inception_4c/3x3
I0403 15:52:58.991224 16401 net.cpp:425] inception_4c/3x3 <- inception_4c/3x3_reduce
I0403 15:52:58.991251 16401 net.cpp:399] inception_4c/3x3 -> inception_4c/3x3
I0403 15:52:58.995669 16401 net.cpp:141] Setting up inception_4c/3x3
I0403 15:52:58.995723 16401 net.cpp:148] Top shape: 24 256 14 14 (1204224)
I0403 15:52:58.995743 16401 net.cpp:156] Memory required for data: 1042842912
I0403 15:52:58.995805 16401 layer_factory.hpp:77] Creating layer inception_4c/relu_3x3
I0403 15:52:58.995839 16401 net.cpp:91] Creating Layer inception_4c/relu_3x3
I0403 15:52:58.995862 16401 net.cpp:425] inception_4c/relu_3x3 <- inception_4c/3x3
I0403 15:52:58.995887 16401 net.cpp:386] inception_4c/relu_3x3 -> inception_4c/3x3 (in-place)
I0403 15:52:58.996115 16401 net.cpp:141] Setting up inception_4c/relu_3x3
I0403 15:52:58.996155 16401 net.cpp:148] Top shape: 24 256 14 14 (1204224)
I0403 15:52:58.996176 16401 net.cpp:156] Memory required for data: 1047659808
I0403 15:52:58.996196 16401 layer_factory.hpp:77] Creating layer inception_4c/5x5_reduce
I0403 15:52:58.996230 16401 net.cpp:91] Creating Layer inception_4c/5x5_reduce
I0403 15:52:58.996256 16401 net.cpp:425] inception_4c/5x5_reduce <- inception_4b/output_inception_4b/output_0_split_2
I0403 15:52:58.996289 16401 net.cpp:399] inception_4c/5x5_reduce -> inception_4c/5x5_reduce
I0403 15:52:58.997627 16401 net.cpp:141] Setting up inception_4c/5x5_reduce
I0403 15:52:58.997666 16401 net.cpp:148] Top shape: 24 24 14 14 (112896)
I0403 15:52:58.997694 16401 net.cpp:156] Memory required for data: 1048111392
I0403 15:52:58.997727 16401 layer_factory.hpp:77] Creating layer inception_4c/relu_5x5_reduce
I0403 15:52:58.997756 16401 net.cpp:91] Creating Layer inception_4c/relu_5x5_reduce
I0403 15:52:58.997786 16401 net.cpp:425] inception_4c/relu_5x5_reduce <- inception_4c/5x5_reduce
I0403 15:52:58.997817 16401 net.cpp:386] inception_4c/relu_5x5_reduce -> inception_4c/5x5_reduce (in-place)
I0403 15:52:58.998050 16401 net.cpp:141] Setting up inception_4c/relu_5x5_reduce
I0403 15:52:58.998088 16401 net.cpp:148] Top shape: 24 24 14 14 (112896)
I0403 15:52:58.998116 16401 net.cpp:156] Memory required for data: 1048562976
I0403 15:52:58.998137 16401 layer_factory.hpp:77] Creating layer inception_4c/5x5
I0403 15:52:58.998168 16401 net.cpp:91] Creating Layer inception_4c/5x5
I0403 15:52:58.998191 16401 net.cpp:425] inception_4c/5x5 <- inception_4c/5x5_reduce
I0403 15:52:58.998214 16401 net.cpp:399] inception_4c/5x5 -> inception_4c/5x5
I0403 15:52:58.999786 16401 net.cpp:141] Setting up inception_4c/5x5
I0403 15:52:58.999824 16401 net.cpp:148] Top shape: 24 64 14 14 (301056)
I0403 15:52:58.999843 16401 net.cpp:156] Memory required for data: 1049767200
I0403 15:52:58.999867 16401 layer_factory.hpp:77] Creating layer inception_4c/relu_5x5
I0403 15:52:58.999892 16401 net.cpp:91] Creating Layer inception_4c/relu_5x5
I0403 15:52:58.999912 16401 net.cpp:425] inception_4c/relu_5x5 <- inception_4c/5x5
I0403 15:52:58.999936 16401 net.cpp:386] inception_4c/relu_5x5 -> inception_4c/5x5 (in-place)
I0403 15:52:59.000303 16401 net.cpp:141] Setting up inception_4c/relu_5x5
I0403 15:52:59.000342 16401 net.cpp:148] Top shape: 24 64 14 14 (301056)
I0403 15:52:59.000363 16401 net.cpp:156] Memory required for data: 1050971424
I0403 15:52:59.000382 16401 layer_factory.hpp:77] Creating layer inception_4c/pool
I0403 15:52:59.000403 16401 net.cpp:91] Creating Layer inception_4c/pool
I0403 15:52:59.000423 16401 net.cpp:425] inception_4c/pool <- inception_4b/output_inception_4b/output_0_split_3
I0403 15:52:59.000448 16401 net.cpp:399] inception_4c/pool -> inception_4c/pool
I0403 15:52:59.000529 16401 net.cpp:141] Setting up inception_4c/pool
I0403 15:52:59.000565 16401 net.cpp:148] Top shape: 24 512 14 14 (2408448)
I0403 15:52:59.000584 16401 net.cpp:156] Memory required for data: 1060605216
I0403 15:52:59.000612 16401 layer_factory.hpp:77] Creating layer inception_4c/pool_proj
I0403 15:52:59.000646 16401 net.cpp:91] Creating Layer inception_4c/pool_proj
I0403 15:52:59.000669 16401 net.cpp:425] inception_4c/pool_proj <- inception_4c/pool
I0403 15:52:59.000695 16401 net.cpp:399] inception_4c/pool_proj -> inception_4c/pool_proj
I0403 15:52:59.002204 16401 net.cpp:141] Setting up inception_4c/pool_proj
I0403 15:52:59.002238 16401 net.cpp:148] Top shape: 24 64 14 14 (301056)
I0403 15:52:59.002275 16401 net.cpp:156] Memory required for data: 1061809440
I0403 15:52:59.002298 16401 layer_factory.hpp:77] Creating layer inception_4c/relu_pool_proj
I0403 15:52:59.002326 16401 net.cpp:91] Creating Layer inception_4c/relu_pool_proj
I0403 15:52:59.002346 16401 net.cpp:425] inception_4c/relu_pool_proj <- inception_4c/pool_proj
I0403 15:52:59.002368 16401 net.cpp:386] inception_4c/relu_pool_proj -> inception_4c/pool_proj (in-place)
I0403 15:52:59.002595 16401 net.cpp:141] Setting up inception_4c/relu_pool_proj
I0403 15:52:59.002641 16401 net.cpp:148] Top shape: 24 64 14 14 (301056)
I0403 15:52:59.002661 16401 net.cpp:156] Memory required for data: 1063013664
I0403 15:52:59.002681 16401 layer_factory.hpp:77] Creating layer inception_4c/output
I0403 15:52:59.002702 16401 net.cpp:91] Creating Layer inception_4c/output
I0403 15:52:59.002722 16401 net.cpp:425] inception_4c/output <- inception_4c/1x1
I0403 15:52:59.002743 16401 net.cpp:425] inception_4c/output <- inception_4c/3x3
I0403 15:52:59.002763 16401 net.cpp:425] inception_4c/output <- inception_4c/5x5
I0403 15:52:59.002782 16401 net.cpp:425] inception_4c/output <- inception_4c/pool_proj
I0403 15:52:59.002806 16401 net.cpp:399] inception_4c/output -> inception_4c/output
I0403 15:52:59.002864 16401 net.cpp:141] Setting up inception_4c/output
I0403 15:52:59.002893 16401 net.cpp:148] Top shape: 24 512 14 14 (2408448)
I0403 15:52:59.002914 16401 net.cpp:156] Memory required for data: 1072647456
I0403 15:52:59.002933 16401 layer_factory.hpp:77] Creating layer inception_4c/output_inception_4c/output_0_split
I0403 15:52:59.002957 16401 net.cpp:91] Creating Layer inception_4c/output_inception_4c/output_0_split
I0403 15:52:59.002977 16401 net.cpp:425] inception_4c/output_inception_4c/output_0_split <- inception_4c/output
I0403 15:52:59.003000 16401 net.cpp:399] inception_4c/output_inception_4c/output_0_split -> inception_4c/output_inception_4c/output_0_split_0
I0403 15:52:59.003023 16401 net.cpp:399] inception_4c/output_inception_4c/output_0_split -> inception_4c/output_inception_4c/output_0_split_1
I0403 15:52:59.003047 16401 net.cpp:399] inception_4c/output_inception_4c/output_0_split -> inception_4c/output_inception_4c/output_0_split_2
I0403 15:52:59.003077 16401 net.cpp:399] inception_4c/output_inception_4c/output_0_split -> inception_4c/output_inception_4c/output_0_split_3
I0403 15:52:59.003185 16401 net.cpp:141] Setting up inception_4c/output_inception_4c/output_0_split
I0403 15:52:59.003214 16401 net.cpp:148] Top shape: 24 512 14 14 (2408448)
I0403 15:52:59.003234 16401 net.cpp:148] Top shape: 24 512 14 14 (2408448)
I0403 15:52:59.003254 16401 net.cpp:148] Top shape: 24 512 14 14 (2408448)
I0403 15:52:59.003274 16401 net.cpp:148] Top shape: 24 512 14 14 (2408448)
I0403 15:52:59.003290 16401 net.cpp:156] Memory required for data: 1111182624
I0403 15:52:59.003307 16401 layer_factory.hpp:77] Creating layer inception_4d/1x1
I0403 15:52:59.003335 16401 net.cpp:91] Creating Layer inception_4d/1x1
I0403 15:52:59.003357 16401 net.cpp:425] inception_4d/1x1 <- inception_4c/output_inception_4c/output_0_split_0
I0403 15:52:59.003383 16401 net.cpp:399] inception_4d/1x1 -> inception_4d/1x1
I0403 15:52:59.005087 16401 net.cpp:141] Setting up inception_4d/1x1
I0403 15:52:59.005130 16401 net.cpp:148] Top shape: 24 112 14 14 (526848)
I0403 15:52:59.005153 16401 net.cpp:156] Memory required for data: 1113290016
I0403 15:52:59.005180 16401 layer_factory.hpp:77] Creating layer inception_4d/relu_1x1
I0403 15:52:59.005210 16401 net.cpp:91] Creating Layer inception_4d/relu_1x1
I0403 15:52:59.005233 16401 net.cpp:425] inception_4d/relu_1x1 <- inception_4d/1x1
I0403 15:52:59.005254 16401 net.cpp:386] inception_4d/relu_1x1 -> inception_4d/1x1 (in-place)
I0403 15:52:59.005482 16401 net.cpp:141] Setting up inception_4d/relu_1x1
I0403 15:52:59.005514 16401 net.cpp:148] Top shape: 24 112 14 14 (526848)
I0403 15:52:59.005532 16401 net.cpp:156] Memory required for data: 1115397408
I0403 15:52:59.005549 16401 layer_factory.hpp:77] Creating layer inception_4d/3x3_reduce
I0403 15:52:59.005599 16401 net.cpp:91] Creating Layer inception_4d/3x3_reduce
I0403 15:52:59.005630 16401 net.cpp:425] inception_4d/3x3_reduce <- inception_4c/output_inception_4c/output_0_split_1
I0403 15:52:59.005658 16401 net.cpp:399] inception_4d/3x3_reduce -> inception_4d/3x3_reduce
I0403 15:52:59.007508 16401 net.cpp:141] Setting up inception_4d/3x3_reduce
I0403 15:52:59.037824 16401 net.cpp:148] Top shape: 24 144 14 14 (677376)
I0403 15:52:59.037853 16401 net.cpp:156] Memory required for data: 1118106912
I0403 15:52:59.037878 16401 layer_factory.hpp:77] Creating layer inception_4d/relu_3x3_reduce
I0403 15:52:59.037900 16401 net.cpp:91] Creating Layer inception_4d/relu_3x3_reduce
I0403 15:52:59.037919 16401 net.cpp:425] inception_4d/relu_3x3_reduce <- inception_4d/3x3_reduce
I0403 15:52:59.037945 16401 net.cpp:386] inception_4d/relu_3x3_reduce -> inception_4d/3x3_reduce (in-place)
I0403 15:52:59.038328 16401 net.cpp:141] Setting up inception_4d/relu_3x3_reduce
I0403 15:52:59.038380 16401 net.cpp:148] Top shape: 24 144 14 14 (677376)
I0403 15:52:59.038403 16401 net.cpp:156] Memory required for data: 1120816416
I0403 15:52:59.038431 16401 layer_factory.hpp:77] Creating layer inception_4d/3x3
I0403 15:52:59.038461 16401 net.cpp:91] Creating Layer inception_4d/3x3
I0403 15:52:59.038485 16401 net.cpp:425] inception_4d/3x3 <- inception_4d/3x3_reduce
I0403 15:52:59.038511 16401 net.cpp:399] inception_4d/3x3 -> inception_4d/3x3
I0403 15:52:59.043929 16401 net.cpp:141] Setting up inception_4d/3x3
I0403 15:52:59.043964 16401 net.cpp:148] Top shape: 24 288 14 14 (1354752)
I0403 15:52:59.043984 16401 net.cpp:156] Memory required for data: 1126235424
I0403 15:52:59.044008 16401 layer_factory.hpp:77] Creating layer inception_4d/relu_3x3
I0403 15:52:59.044029 16401 net.cpp:91] Creating Layer inception_4d/relu_3x3
I0403 15:52:59.044049 16401 net.cpp:425] inception_4d/relu_3x3 <- inception_4d/3x3
I0403 15:52:59.044073 16401 net.cpp:386] inception_4d/relu_3x3 -> inception_4d/3x3 (in-place)
I0403 15:52:59.044318 16401 net.cpp:141] Setting up inception_4d/relu_3x3
I0403 15:52:59.044350 16401 net.cpp:148] Top shape: 24 288 14 14 (1354752)
I0403 15:52:59.044369 16401 net.cpp:156] Memory required for data: 1131654432
I0403 15:52:59.044389 16401 layer_factory.hpp:77] Creating layer inception_4d/5x5_reduce
I0403 15:52:59.044416 16401 net.cpp:91] Creating Layer inception_4d/5x5_reduce
I0403 15:52:59.044443 16401 net.cpp:425] inception_4d/5x5_reduce <- inception_4c/output_inception_4c/output_0_split_2
I0403 15:52:59.044471 16401 net.cpp:399] inception_4d/5x5_reduce -> inception_4d/5x5_reduce
I0403 15:52:59.045956 16401 net.cpp:141] Setting up inception_4d/5x5_reduce
I0403 15:52:59.045992 16401 net.cpp:148] Top shape: 24 32 14 14 (150528)
I0403 15:52:59.046012 16401 net.cpp:156] Memory required for data: 1132256544
I0403 15:52:59.046036 16401 layer_factory.hpp:77] Creating layer inception_4d/relu_5x5_reduce
I0403 15:52:59.046061 16401 net.cpp:91] Creating Layer inception_4d/relu_5x5_reduce
I0403 15:52:59.046083 16401 net.cpp:425] inception_4d/relu_5x5_reduce <- inception_4d/5x5_reduce
I0403 15:52:59.046106 16401 net.cpp:386] inception_4d/relu_5x5_reduce -> inception_4d/5x5_reduce (in-place)
I0403 15:52:59.046339 16401 net.cpp:141] Setting up inception_4d/relu_5x5_reduce
I0403 15:52:59.046368 16401 net.cpp:148] Top shape: 24 32 14 14 (150528)
I0403 15:52:59.046386 16401 net.cpp:156] Memory required for data: 1132858656
I0403 15:52:59.046404 16401 layer_factory.hpp:77] Creating layer inception_4d/5x5
I0403 15:52:59.046432 16401 net.cpp:91] Creating Layer inception_4d/5x5
I0403 15:52:59.046457 16401 net.cpp:425] inception_4d/5x5 <- inception_4d/5x5_reduce
I0403 15:52:59.046494 16401 net.cpp:399] inception_4d/5x5 -> inception_4d/5x5
I0403 15:52:59.048333 16401 net.cpp:141] Setting up inception_4d/5x5
I0403 15:52:59.048368 16401 net.cpp:148] Top shape: 24 64 14 14 (301056)
I0403 15:52:59.048388 16401 net.cpp:156] Memory required for data: 1134062880
I0403 15:52:59.048413 16401 layer_factory.hpp:77] Creating layer inception_4d/relu_5x5
I0403 15:52:59.048457 16401 net.cpp:91] Creating Layer inception_4d/relu_5x5
I0403 15:52:59.048480 16401 net.cpp:425] inception_4d/relu_5x5 <- inception_4d/5x5
I0403 15:52:59.048503 16401 net.cpp:386] inception_4d/relu_5x5 -> inception_4d/5x5 (in-place)
I0403 15:52:59.048877 16401 net.cpp:141] Setting up inception_4d/relu_5x5
I0403 15:52:59.048912 16401 net.cpp:148] Top shape: 24 64 14 14 (301056)
I0403 15:52:59.048930 16401 net.cpp:156] Memory required for data: 1135267104
I0403 15:52:59.048949 16401 layer_factory.hpp:77] Creating layer inception_4d/pool
I0403 15:52:59.048974 16401 net.cpp:91] Creating Layer inception_4d/pool
I0403 15:52:59.048995 16401 net.cpp:425] inception_4d/pool <- inception_4c/output_inception_4c/output_0_split_3
I0403 15:52:59.049018 16401 net.cpp:399] inception_4d/pool -> inception_4d/pool
I0403 15:52:59.049104 16401 net.cpp:141] Setting up inception_4d/pool
I0403 15:52:59.049134 16401 net.cpp:148] Top shape: 24 512 14 14 (2408448)
I0403 15:52:59.049151 16401 net.cpp:156] Memory required for data: 1144900896
I0403 15:52:59.049170 16401 layer_factory.hpp:77] Creating layer inception_4d/pool_proj
I0403 15:52:59.049201 16401 net.cpp:91] Creating Layer inception_4d/pool_proj
I0403 15:52:59.049226 16401 net.cpp:425] inception_4d/pool_proj <- inception_4d/pool
I0403 15:52:59.049252 16401 net.cpp:399] inception_4d/pool_proj -> inception_4d/pool_proj
I0403 15:52:59.051424 16401 net.cpp:141] Setting up inception_4d/pool_proj
I0403 15:52:59.051461 16401 net.cpp:148] Top shape: 24 64 14 14 (301056)
I0403 15:52:59.051481 16401 net.cpp:156] Memory required for data: 1146105120
I0403 15:52:59.051517 16401 layer_factory.hpp:77] Creating layer inception_4d/relu_pool_proj
I0403 15:52:59.051548 16401 net.cpp:91] Creating Layer inception_4d/relu_pool_proj
I0403 15:52:59.051571 16401 net.cpp:425] inception_4d/relu_pool_proj <- inception_4d/pool_proj
I0403 15:52:59.051592 16401 net.cpp:386] inception_4d/relu_pool_proj -> inception_4d/pool_proj (in-place)
I0403 15:52:59.051828 16401 net.cpp:141] Setting up inception_4d/relu_pool_proj
I0403 15:52:59.051859 16401 net.cpp:148] Top shape: 24 64 14 14 (301056)
I0403 15:52:59.051877 16401 net.cpp:156] Memory required for data: 1147309344
I0403 15:52:59.051895 16401 layer_factory.hpp:77] Creating layer inception_4d/output
I0403 15:52:59.051918 16401 net.cpp:91] Creating Layer inception_4d/output
I0403 15:52:59.051939 16401 net.cpp:425] inception_4d/output <- inception_4d/1x1
I0403 15:52:59.051960 16401 net.cpp:425] inception_4d/output <- inception_4d/3x3
I0403 15:52:59.051980 16401 net.cpp:425] inception_4d/output <- inception_4d/5x5
I0403 15:52:59.051998 16401 net.cpp:425] inception_4d/output <- inception_4d/pool_proj
I0403 15:52:59.052019 16401 net.cpp:399] inception_4d/output -> inception_4d/output
I0403 15:52:59.052079 16401 net.cpp:141] Setting up inception_4d/output
I0403 15:52:59.052124 16401 net.cpp:148] Top shape: 24 528 14 14 (2483712)
I0403 15:52:59.052145 16401 net.cpp:156] Memory required for data: 1157244192
I0403 15:52:59.052163 16401 layer_factory.hpp:77] Creating layer inception_4d/output_inception_4d/output_0_split
I0403 15:52:59.052184 16401 net.cpp:91] Creating Layer inception_4d/output_inception_4d/output_0_split
I0403 15:52:59.052203 16401 net.cpp:425] inception_4d/output_inception_4d/output_0_split <- inception_4d/output
I0403 15:52:59.052228 16401 net.cpp:399] inception_4d/output_inception_4d/output_0_split -> inception_4d/output_inception_4d/output_0_split_0
I0403 15:52:59.052254 16401 net.cpp:399] inception_4d/output_inception_4d/output_0_split -> inception_4d/output_inception_4d/output_0_split_1
I0403 15:52:59.052279 16401 net.cpp:399] inception_4d/output_inception_4d/output_0_split -> inception_4d/output_inception_4d/output_0_split_2
I0403 15:52:59.052304 16401 net.cpp:399] inception_4d/output_inception_4d/output_0_split -> inception_4d/output_inception_4d/output_0_split_3
I0403 15:52:59.052328 16401 net.cpp:399] inception_4d/output_inception_4d/output_0_split -> inception_4d/output_inception_4d/output_0_split_4
I0403 15:52:59.052475 16401 net.cpp:141] Setting up inception_4d/output_inception_4d/output_0_split
I0403 15:52:59.052521 16401 net.cpp:148] Top shape: 24 528 14 14 (2483712)
I0403 15:52:59.052542 16401 net.cpp:148] Top shape: 24 528 14 14 (2483712)
I0403 15:52:59.052561 16401 net.cpp:148] Top shape: 24 528 14 14 (2483712)
I0403 15:52:59.052579 16401 net.cpp:148] Top shape: 24 528 14 14 (2483712)
I0403 15:52:59.052598 16401 net.cpp:148] Top shape: 24 528 14 14 (2483712)
I0403 15:52:59.052621 16401 net.cpp:156] Memory required for data: 1206918432
I0403 15:52:59.052644 16401 layer_factory.hpp:77] Creating layer loss2/ave_pool
I0403 15:52:59.052670 16401 net.cpp:91] Creating Layer loss2/ave_pool
I0403 15:52:59.052695 16401 net.cpp:425] loss2/ave_pool <- inception_4d/output_inception_4d/output_0_split_0
I0403 15:52:59.052724 16401 net.cpp:399] loss2/ave_pool -> loss2/ave_pool
I0403 15:52:59.053174 16401 net.cpp:141] Setting up loss2/ave_pool
I0403 15:52:59.053206 16401 net.cpp:148] Top shape: 24 528 4 4 (202752)
I0403 15:52:59.053226 16401 net.cpp:156] Memory required for data: 1207729440
I0403 15:52:59.053244 16401 layer_factory.hpp:77] Creating layer loss2/conv
I0403 15:52:59.053273 16401 net.cpp:91] Creating Layer loss2/conv
I0403 15:52:59.053297 16401 net.cpp:425] loss2/conv <- loss2/ave_pool
I0403 15:52:59.053323 16401 net.cpp:399] loss2/conv -> loss2/conv
I0403 15:52:59.055670 16401 net.cpp:141] Setting up loss2/conv
I0403 15:52:59.055706 16401 net.cpp:148] Top shape: 24 128 4 4 (49152)
I0403 15:52:59.055727 16401 net.cpp:156] Memory required for data: 1207926048
I0403 15:52:59.055750 16401 layer_factory.hpp:77] Creating layer loss2/relu_conv
I0403 15:52:59.055775 16401 net.cpp:91] Creating Layer loss2/relu_conv
I0403 15:52:59.055795 16401 net.cpp:425] loss2/relu_conv <- loss2/conv
I0403 15:52:59.055817 16401 net.cpp:386] loss2/relu_conv -> loss2/conv (in-place)
I0403 15:52:59.056167 16401 net.cpp:141] Setting up loss2/relu_conv
I0403 15:52:59.056206 16401 net.cpp:148] Top shape: 24 128 4 4 (49152)
I0403 15:52:59.056227 16401 net.cpp:156] Memory required for data: 1208122656
I0403 15:52:59.056247 16401 layer_factory.hpp:77] Creating layer loss2/fc
I0403 15:52:59.056270 16401 net.cpp:91] Creating Layer loss2/fc
I0403 15:52:59.056290 16401 net.cpp:425] loss2/fc <- loss2/conv
I0403 15:52:59.056318 16401 net.cpp:399] loss2/fc -> loss2/fc
I0403 15:52:59.078516 16401 net.cpp:141] Setting up loss2/fc
I0403 15:52:59.078569 16401 net.cpp:148] Top shape: 24 1024 (24576)
I0403 15:52:59.078593 16401 net.cpp:156] Memory required for data: 1208220960
I0403 15:52:59.078629 16401 layer_factory.hpp:77] Creating layer loss2/relu_fc
I0403 15:52:59.078657 16401 net.cpp:91] Creating Layer loss2/relu_fc
I0403 15:52:59.078680 16401 net.cpp:425] loss2/relu_fc <- loss2/fc
I0403 15:52:59.078704 16401 net.cpp:386] loss2/relu_fc -> loss2/fc (in-place)
I0403 15:52:59.079110 16401 net.cpp:141] Setting up loss2/relu_fc
I0403 15:52:59.079144 16401 net.cpp:148] Top shape: 24 1024 (24576)
I0403 15:52:59.079164 16401 net.cpp:156] Memory required for data: 1208319264
I0403 15:52:59.079182 16401 layer_factory.hpp:77] Creating layer loss2/drop_fc
I0403 15:52:59.079208 16401 net.cpp:91] Creating Layer loss2/drop_fc
I0403 15:52:59.079231 16401 net.cpp:425] loss2/drop_fc <- loss2/fc
I0403 15:52:59.079253 16401 net.cpp:386] loss2/drop_fc -> loss2/fc (in-place)
I0403 15:52:59.079318 16401 net.cpp:141] Setting up loss2/drop_fc
I0403 15:52:59.079349 16401 net.cpp:148] Top shape: 24 1024 (24576)
I0403 15:52:59.079370 16401 net.cpp:156] Memory required for data: 1208417568
I0403 15:52:59.079388 16401 layer_factory.hpp:77] Creating layer loss2/classifier_plantvillage
I0403 15:52:59.079412 16401 net.cpp:91] Creating Layer loss2/classifier_plantvillage
I0403 15:52:59.079432 16401 net.cpp:425] loss2/classifier_plantvillage <- loss2/fc
I0403 15:52:59.079460 16401 net.cpp:399] loss2/classifier_plantvillage -> loss2/classifier_plantvillage
I0403 15:52:59.079975 16401 net.cpp:141] Setting up loss2/classifier_plantvillage
I0403 15:52:59.080009 16401 net.cpp:148] Top shape: 24 38 (912)
I0403 15:52:59.080029 16401 net.cpp:156] Memory required for data: 1208421216
I0403 15:52:59.080080 16401 layer_factory.hpp:77] Creating layer loss2/classifier_plantvillage_loss2/classifier_plantvillage_0_split
I0403 15:52:59.080113 16401 net.cpp:91] Creating Layer loss2/classifier_plantvillage_loss2/classifier_plantvillage_0_split
I0403 15:52:59.080133 16401 net.cpp:425] loss2/classifier_plantvillage_loss2/classifier_plantvillage_0_split <- loss2/classifier_plantvillage
I0403 15:52:59.080157 16401 net.cpp:399] loss2/classifier_plantvillage_loss2/classifier_plantvillage_0_split -> loss2/classifier_plantvillage_loss2/classifier_plantvillage_0_split_0
I0403 15:52:59.080186 16401 net.cpp:399] loss2/classifier_plantvillage_loss2/classifier_plantvillage_0_split -> loss2/classifier_plantvillage_loss2/classifier_plantvillage_0_split_1
I0403 15:52:59.080214 16401 net.cpp:399] loss2/classifier_plantvillage_loss2/classifier_plantvillage_0_split -> loss2/classifier_plantvillage_loss2/classifier_plantvillage_0_split_2
I0403 15:52:59.080310 16401 net.cpp:141] Setting up loss2/classifier_plantvillage_loss2/classifier_plantvillage_0_split
I0403 15:52:59.080341 16401 net.cpp:148] Top shape: 24 38 (912)
I0403 15:52:59.080361 16401 net.cpp:148] Top shape: 24 38 (912)
I0403 15:52:59.080381 16401 net.cpp:148] Top shape: 24 38 (912)
I0403 15:52:59.080399 16401 net.cpp:156] Memory required for data: 1208432160
I0403 15:52:59.080416 16401 layer_factory.hpp:77] Creating layer inception_4e/1x1
I0403 15:52:59.080446 16401 net.cpp:91] Creating Layer inception_4e/1x1
I0403 15:52:59.080468 16401 net.cpp:425] inception_4e/1x1 <- inception_4d/output_inception_4d/output_0_split_1
I0403 15:52:59.080497 16401 net.cpp:399] inception_4e/1x1 -> inception_4e/1x1
I0403 15:52:59.082869 16401 net.cpp:141] Setting up inception_4e/1x1
I0403 15:52:59.082906 16401 net.cpp:148] Top shape: 24 256 14 14 (1204224)
I0403 15:52:59.082928 16401 net.cpp:156] Memory required for data: 1213249056
I0403 15:52:59.082952 16401 layer_factory.hpp:77] Creating layer inception_4e/relu_1x1
I0403 15:52:59.082976 16401 net.cpp:91] Creating Layer inception_4e/relu_1x1
I0403 15:52:59.082996 16401 net.cpp:425] inception_4e/relu_1x1 <- inception_4e/1x1
I0403 15:52:59.083026 16401 net.cpp:386] inception_4e/relu_1x1 -> inception_4e/1x1 (in-place)
I0403 15:52:59.083400 16401 net.cpp:141] Setting up inception_4e/relu_1x1
I0403 15:52:59.083436 16401 net.cpp:148] Top shape: 24 256 14 14 (1204224)
I0403 15:52:59.083466 16401 net.cpp:156] Memory required for data: 1218065952
I0403 15:52:59.083484 16401 layer_factory.hpp:77] Creating layer inception_4e/3x3_reduce
I0403 15:52:59.083516 16401 net.cpp:91] Creating Layer inception_4e/3x3_reduce
I0403 15:52:59.083539 16401 net.cpp:425] inception_4e/3x3_reduce <- inception_4d/output_inception_4d/output_0_split_2
I0403 15:52:59.083564 16401 net.cpp:399] inception_4e/3x3_reduce -> inception_4e/3x3_reduce
I0403 15:52:59.086204 16401 net.cpp:141] Setting up inception_4e/3x3_reduce
I0403 15:52:59.086237 16401 net.cpp:148] Top shape: 24 160 14 14 (752640)
I0403 15:52:59.086261 16401 net.cpp:156] Memory required for data: 1221076512
I0403 15:52:59.086284 16401 layer_factory.hpp:77] Creating layer inception_4e/relu_3x3_reduce
I0403 15:52:59.086308 16401 net.cpp:91] Creating Layer inception_4e/relu_3x3_reduce
I0403 15:52:59.086328 16401 net.cpp:425] inception_4e/relu_3x3_reduce <- inception_4e/3x3_reduce
I0403 15:52:59.086350 16401 net.cpp:386] inception_4e/relu_3x3_reduce -> inception_4e/3x3_reduce (in-place)
I0403 15:52:59.086599 16401 net.cpp:141] Setting up inception_4e/relu_3x3_reduce
I0403 15:52:59.086642 16401 net.cpp:148] Top shape: 24 160 14 14 (752640)
I0403 15:52:59.086683 16401 net.cpp:156] Memory required for data: 1224087072
I0403 15:52:59.086706 16401 layer_factory.hpp:77] Creating layer inception_4e/3x3
I0403 15:52:59.086736 16401 net.cpp:91] Creating Layer inception_4e/3x3
I0403 15:52:59.086760 16401 net.cpp:425] inception_4e/3x3 <- inception_4e/3x3_reduce
I0403 15:52:59.086783 16401 net.cpp:399] inception_4e/3x3 -> inception_4e/3x3
I0403 15:52:59.103886 16401 net.cpp:141] Setting up inception_4e/3x3
I0403 15:52:59.103951 16401 net.cpp:148] Top shape: 24 320 14 14 (1505280)
I0403 15:52:59.103979 16401 net.cpp:156] Memory required for data: 1230108192
I0403 15:52:59.104018 16401 layer_factory.hpp:77] Creating layer inception_4e/relu_3x3
I0403 15:52:59.104053 16401 net.cpp:91] Creating Layer inception_4e/relu_3x3
I0403 15:52:59.104080 16401 net.cpp:425] inception_4e/relu_3x3 <- inception_4e/3x3
I0403 15:52:59.104107 16401 net.cpp:386] inception_4e/relu_3x3 -> inception_4e/3x3 (in-place)
I0403 15:52:59.104492 16401 net.cpp:141] Setting up inception_4e/relu_3x3
I0403 15:52:59.104534 16401 net.cpp:148] Top shape: 24 320 14 14 (1505280)
I0403 15:52:59.104554 16401 net.cpp:156] Memory required for data: 1236129312
I0403 15:52:59.104579 16401 layer_factory.hpp:77] Creating layer inception_4e/5x5_reduce
I0403 15:52:59.104637 16401 net.cpp:91] Creating Layer inception_4e/5x5_reduce
I0403 15:52:59.104667 16401 net.cpp:425] inception_4e/5x5_reduce <- inception_4d/output_inception_4d/output_0_split_3
I0403 15:52:59.104701 16401 net.cpp:399] inception_4e/5x5_reduce -> inception_4e/5x5_reduce
I0403 15:52:59.106068 16401 net.cpp:141] Setting up inception_4e/5x5_reduce
I0403 15:52:59.106109 16401 net.cpp:148] Top shape: 24 32 14 14 (150528)
I0403 15:52:59.106134 16401 net.cpp:156] Memory required for data: 1236731424
I0403 15:52:59.106164 16401 layer_factory.hpp:77] Creating layer inception_4e/relu_5x5_reduce
I0403 15:52:59.106199 16401 net.cpp:91] Creating Layer inception_4e/relu_5x5_reduce
I0403 15:52:59.106225 16401 net.cpp:425] inception_4e/relu_5x5_reduce <- inception_4e/5x5_reduce
I0403 15:52:59.106245 16401 net.cpp:386] inception_4e/relu_5x5_reduce -> inception_4e/5x5_reduce (in-place)
I0403 15:52:59.106622 16401 net.cpp:141] Setting up inception_4e/relu_5x5_reduce
I0403 15:52:59.106658 16401 net.cpp:148] Top shape: 24 32 14 14 (150528)
I0403 15:52:59.106680 16401 net.cpp:156] Memory required for data: 1237333536
I0403 15:52:59.106709 16401 layer_factory.hpp:77] Creating layer inception_4e/5x5
I0403 15:52:59.106758 16401 net.cpp:91] Creating Layer inception_4e/5x5
I0403 15:52:59.106784 16401 net.cpp:425] inception_4e/5x5 <- inception_4e/5x5_reduce
I0403 15:52:59.106811 16401 net.cpp:399] inception_4e/5x5 -> inception_4e/5x5
I0403 15:52:59.109068 16401 net.cpp:141] Setting up inception_4e/5x5
I0403 15:52:59.109104 16401 net.cpp:148] Top shape: 24 128 14 14 (602112)
I0403 15:52:59.109127 16401 net.cpp:156] Memory required for data: 1239741984
I0403 15:52:59.109150 16401 layer_factory.hpp:77] Creating layer inception_4e/relu_5x5
I0403 15:52:59.109177 16401 net.cpp:91] Creating Layer inception_4e/relu_5x5
I0403 15:52:59.109202 16401 net.cpp:425] inception_4e/relu_5x5 <- inception_4e/5x5
I0403 15:52:59.109226 16401 net.cpp:386] inception_4e/relu_5x5 -> inception_4e/5x5 (in-place)
I0403 15:52:59.109467 16401 net.cpp:141] Setting up inception_4e/relu_5x5
I0403 15:52:59.109503 16401 net.cpp:148] Top shape: 24 128 14 14 (602112)
I0403 15:52:59.109524 16401 net.cpp:156] Memory required for data: 1242150432
I0403 15:52:59.109542 16401 layer_factory.hpp:77] Creating layer inception_4e/pool
I0403 15:52:59.109566 16401 net.cpp:91] Creating Layer inception_4e/pool
I0403 15:52:59.109586 16401 net.cpp:425] inception_4e/pool <- inception_4d/output_inception_4d/output_0_split_4
I0403 15:52:59.109622 16401 net.cpp:399] inception_4e/pool -> inception_4e/pool
I0403 15:52:59.109719 16401 net.cpp:141] Setting up inception_4e/pool
I0403 15:52:59.109748 16401 net.cpp:148] Top shape: 24 528 14 14 (2483712)
I0403 15:52:59.109768 16401 net.cpp:156] Memory required for data: 1252085280
I0403 15:52:59.109787 16401 layer_factory.hpp:77] Creating layer inception_4e/pool_proj
I0403 15:52:59.109814 16401 net.cpp:91] Creating Layer inception_4e/pool_proj
I0403 15:52:59.109838 16401 net.cpp:425] inception_4e/pool_proj <- inception_4e/pool
I0403 15:52:59.109863 16401 net.cpp:399] inception_4e/pool_proj -> inception_4e/pool_proj
I0403 15:52:59.111726 16401 net.cpp:141] Setting up inception_4e/pool_proj
I0403 15:52:59.111770 16401 net.cpp:148] Top shape: 24 128 14 14 (602112)
I0403 15:52:59.111810 16401 net.cpp:156] Memory required for data: 1254493728
I0403 15:52:59.111841 16401 layer_factory.hpp:77] Creating layer inception_4e/relu_pool_proj
I0403 15:52:59.111873 16401 net.cpp:91] Creating Layer inception_4e/relu_pool_proj
I0403 15:52:59.111901 16401 net.cpp:425] inception_4e/relu_pool_proj <- inception_4e/pool_proj
I0403 15:52:59.111922 16401 net.cpp:386] inception_4e/relu_pool_proj -> inception_4e/pool_proj (in-place)
I0403 15:52:59.112282 16401 net.cpp:141] Setting up inception_4e/relu_pool_proj
I0403 15:52:59.112318 16401 net.cpp:148] Top shape: 24 128 14 14 (602112)
I0403 15:52:59.112339 16401 net.cpp:156] Memory required for data: 1256902176
I0403 15:52:59.112361 16401 layer_factory.hpp:77] Creating layer inception_4e/output
I0403 15:52:59.112385 16401 net.cpp:91] Creating Layer inception_4e/output
I0403 15:52:59.112406 16401 net.cpp:425] inception_4e/output <- inception_4e/1x1
I0403 15:52:59.112427 16401 net.cpp:425] inception_4e/output <- inception_4e/3x3
I0403 15:52:59.112449 16401 net.cpp:425] inception_4e/output <- inception_4e/5x5
I0403 15:52:59.112469 16401 net.cpp:425] inception_4e/output <- inception_4e/pool_proj
I0403 15:52:59.112494 16401 net.cpp:399] inception_4e/output -> inception_4e/output
I0403 15:52:59.112560 16401 net.cpp:141] Setting up inception_4e/output
I0403 15:52:59.112592 16401 net.cpp:148] Top shape: 24 832 14 14 (3913728)
I0403 15:52:59.112627 16401 net.cpp:156] Memory required for data: 1272557088
I0403 15:52:59.112648 16401 layer_factory.hpp:77] Creating layer pool4/3x3_s2
I0403 15:52:59.112670 16401 net.cpp:91] Creating Layer pool4/3x3_s2
I0403 15:52:59.112691 16401 net.cpp:425] pool4/3x3_s2 <- inception_4e/output
I0403 15:52:59.112718 16401 net.cpp:399] pool4/3x3_s2 -> pool4/3x3_s2
I0403 15:52:59.112803 16401 net.cpp:141] Setting up pool4/3x3_s2
I0403 15:52:59.112834 16401 net.cpp:148] Top shape: 24 832 7 7 (978432)
I0403 15:52:59.112853 16401 net.cpp:156] Memory required for data: 1276470816
I0403 15:52:59.112871 16401 layer_factory.hpp:77] Creating layer pool4/3x3_s2_pool4/3x3_s2_0_split
I0403 15:52:59.112898 16401 net.cpp:91] Creating Layer pool4/3x3_s2_pool4/3x3_s2_0_split
I0403 15:52:59.112920 16401 net.cpp:425] pool4/3x3_s2_pool4/3x3_s2_0_split <- pool4/3x3_s2
I0403 15:52:59.112943 16401 net.cpp:399] pool4/3x3_s2_pool4/3x3_s2_0_split -> pool4/3x3_s2_pool4/3x3_s2_0_split_0
I0403 15:52:59.112977 16401 net.cpp:399] pool4/3x3_s2_pool4/3x3_s2_0_split -> pool4/3x3_s2_pool4/3x3_s2_0_split_1
I0403 15:52:59.113006 16401 net.cpp:399] pool4/3x3_s2_pool4/3x3_s2_0_split -> pool4/3x3_s2_pool4/3x3_s2_0_split_2
I0403 15:52:59.113031 16401 net.cpp:399] pool4/3x3_s2_pool4/3x3_s2_0_split -> pool4/3x3_s2_pool4/3x3_s2_0_split_3
I0403 15:52:59.113142 16401 net.cpp:141] Setting up pool4/3x3_s2_pool4/3x3_s2_0_split
I0403 15:52:59.113178 16401 net.cpp:148] Top shape: 24 832 7 7 (978432)
I0403 15:52:59.113200 16401 net.cpp:148] Top shape: 24 832 7 7 (978432)
I0403 15:52:59.113219 16401 net.cpp:148] Top shape: 24 832 7 7 (978432)
I0403 15:52:59.113239 16401 net.cpp:148] Top shape: 24 832 7 7 (978432)
I0403 15:52:59.113255 16401 net.cpp:156] Memory required for data: 1292125728
I0403 15:52:59.113275 16401 layer_factory.hpp:77] Creating layer inception_5a/1x1
I0403 15:52:59.113302 16401 net.cpp:91] Creating Layer inception_5a/1x1
I0403 15:52:59.113325 16401 net.cpp:425] inception_5a/1x1 <- pool4/3x3_s2_pool4/3x3_s2_0_split_0
I0403 15:52:59.113350 16401 net.cpp:399] inception_5a/1x1 -> inception_5a/1x1
I0403 15:52:59.116942 16401 net.cpp:141] Setting up inception_5a/1x1
I0403 15:52:59.116977 16401 net.cpp:148] Top shape: 24 256 7 7 (301056)
I0403 15:52:59.116997 16401 net.cpp:156] Memory required for data: 1293329952
I0403 15:52:59.117020 16401 layer_factory.hpp:77] Creating layer inception_5a/relu_1x1
I0403 15:52:59.117045 16401 net.cpp:91] Creating Layer inception_5a/relu_1x1
I0403 15:52:59.117068 16401 net.cpp:425] inception_5a/relu_1x1 <- inception_5a/1x1
I0403 15:52:59.117089 16401 net.cpp:386] inception_5a/relu_1x1 -> inception_5a/1x1 (in-place)
I0403 15:52:59.117491 16401 net.cpp:141] Setting up inception_5a/relu_1x1
I0403 15:52:59.117538 16401 net.cpp:148] Top shape: 24 256 7 7 (301056)
I0403 15:52:59.117560 16401 net.cpp:156] Memory required for data: 1294534176
I0403 15:52:59.117581 16401 layer_factory.hpp:77] Creating layer inception_5a/3x3_reduce
I0403 15:52:59.117615 16401 net.cpp:91] Creating Layer inception_5a/3x3_reduce
I0403 15:52:59.117640 16401 net.cpp:425] inception_5a/3x3_reduce <- pool4/3x3_s2_pool4/3x3_s2_0_split_1
I0403 15:52:59.117667 16401 net.cpp:399] inception_5a/3x3_reduce -> inception_5a/3x3_reduce
I0403 15:52:59.120677 16401 net.cpp:141] Setting up inception_5a/3x3_reduce
I0403 15:52:59.120714 16401 net.cpp:148] Top shape: 24 160 7 7 (188160)
I0403 15:52:59.120734 16401 net.cpp:156] Memory required for data: 1295286816
I0403 15:52:59.120759 16401 layer_factory.hpp:77] Creating layer inception_5a/relu_3x3_reduce
I0403 15:52:59.120784 16401 net.cpp:91] Creating Layer inception_5a/relu_3x3_reduce
I0403 15:52:59.120803 16401 net.cpp:425] inception_5a/relu_3x3_reduce <- inception_5a/3x3_reduce
I0403 15:52:59.120828 16401 net.cpp:386] inception_5a/relu_3x3_reduce -> inception_5a/3x3_reduce (in-place)
I0403 15:52:59.121059 16401 net.cpp:141] Setting up inception_5a/relu_3x3_reduce
I0403 15:52:59.121091 16401 net.cpp:148] Top shape: 24 160 7 7 (188160)
I0403 15:52:59.121111 16401 net.cpp:156] Memory required for data: 1296039456
I0403 15:52:59.121130 16401 layer_factory.hpp:77] Creating layer inception_5a/3x3
I0403 15:52:59.121158 16401 net.cpp:91] Creating Layer inception_5a/3x3
I0403 15:52:59.121181 16401 net.cpp:425] inception_5a/3x3 <- inception_5a/3x3_reduce
I0403 15:52:59.121208 16401 net.cpp:399] inception_5a/3x3 -> inception_5a/3x3
I0403 15:52:59.127455 16401 net.cpp:141] Setting up inception_5a/3x3
I0403 15:52:59.127493 16401 net.cpp:148] Top shape: 24 320 7 7 (376320)
I0403 15:52:59.127513 16401 net.cpp:156] Memory required for data: 1297544736
I0403 15:52:59.127537 16401 layer_factory.hpp:77] Creating layer inception_5a/relu_3x3
I0403 15:52:59.127563 16401 net.cpp:91] Creating Layer inception_5a/relu_3x3
I0403 15:52:59.127585 16401 net.cpp:425] inception_5a/relu_3x3 <- inception_5a/3x3
I0403 15:52:59.127614 16401 net.cpp:386] inception_5a/relu_3x3 -> inception_5a/3x3 (in-place)
I0403 15:52:59.127979 16401 net.cpp:141] Setting up inception_5a/relu_3x3
I0403 15:52:59.128011 16401 net.cpp:148] Top shape: 24 320 7 7 (376320)
I0403 15:52:59.128031 16401 net.cpp:156] Memory required for data: 1299050016
I0403 15:52:59.128051 16401 layer_factory.hpp:77] Creating layer inception_5a/5x5_reduce
I0403 15:52:59.128077 16401 net.cpp:91] Creating Layer inception_5a/5x5_reduce
I0403 15:52:59.128101 16401 net.cpp:425] inception_5a/5x5_reduce <- pool4/3x3_s2_pool4/3x3_s2_0_split_2
I0403 15:52:59.128129 16401 net.cpp:399] inception_5a/5x5_reduce -> inception_5a/5x5_reduce
I0403 15:52:59.129587 16401 net.cpp:141] Setting up inception_5a/5x5_reduce
I0403 15:52:59.129631 16401 net.cpp:148] Top shape: 24 32 7 7 (37632)
I0403 15:52:59.129652 16401 net.cpp:156] Memory required for data: 1299200544
I0403 15:52:59.129676 16401 layer_factory.hpp:77] Creating layer inception_5a/relu_5x5_reduce
I0403 15:52:59.129699 16401 net.cpp:91] Creating Layer inception_5a/relu_5x5_reduce
I0403 15:52:59.129720 16401 net.cpp:425] inception_5a/relu_5x5_reduce <- inception_5a/5x5_reduce
I0403 15:52:59.129742 16401 net.cpp:386] inception_5a/relu_5x5_reduce -> inception_5a/5x5_reduce (in-place)
I0403 15:52:59.130126 16401 net.cpp:141] Setting up inception_5a/relu_5x5_reduce
I0403 15:52:59.130162 16401 net.cpp:148] Top shape: 24 32 7 7 (37632)
I0403 15:52:59.130182 16401 net.cpp:156] Memory required for data: 1299351072
I0403 15:52:59.130201 16401 layer_factory.hpp:77] Creating layer inception_5a/5x5
I0403 15:52:59.130229 16401 net.cpp:91] Creating Layer inception_5a/5x5
I0403 15:52:59.130252 16401 net.cpp:425] inception_5a/5x5 <- inception_5a/5x5_reduce
I0403 15:52:59.130276 16401 net.cpp:399] inception_5a/5x5 -> inception_5a/5x5
I0403 15:52:59.132408 16401 net.cpp:141] Setting up inception_5a/5x5
I0403 15:52:59.132458 16401 net.cpp:148] Top shape: 24 128 7 7 (150528)
I0403 15:52:59.132479 16401 net.cpp:156] Memory required for data: 1299953184
I0403 15:52:59.132503 16401 layer_factory.hpp:77] Creating layer inception_5a/relu_5x5
I0403 15:52:59.132529 16401 net.cpp:91] Creating Layer inception_5a/relu_5x5
I0403 15:52:59.132551 16401 net.cpp:425] inception_5a/relu_5x5 <- inception_5a/5x5
I0403 15:52:59.132575 16401 net.cpp:386] inception_5a/relu_5x5 -> inception_5a/5x5 (in-place)
I0403 15:52:59.132814 16401 net.cpp:141] Setting up inception_5a/relu_5x5
I0403 15:52:59.132849 16401 net.cpp:148] Top shape: 24 128 7 7 (150528)
I0403 15:52:59.132870 16401 net.cpp:156] Memory required for data: 1300555296
I0403 15:52:59.132889 16401 layer_factory.hpp:77] Creating layer inception_5a/pool
I0403 15:52:59.132911 16401 net.cpp:91] Creating Layer inception_5a/pool
I0403 15:52:59.132933 16401 net.cpp:425] inception_5a/pool <- pool4/3x3_s2_pool4/3x3_s2_0_split_3
I0403 15:52:59.132957 16401 net.cpp:399] inception_5a/pool -> inception_5a/pool
I0403 15:52:59.133046 16401 net.cpp:141] Setting up inception_5a/pool
I0403 15:52:59.133076 16401 net.cpp:148] Top shape: 24 832 7 7 (978432)
I0403 15:52:59.133095 16401 net.cpp:156] Memory required for data: 1304469024
I0403 15:52:59.133113 16401 layer_factory.hpp:77] Creating layer inception_5a/pool_proj
I0403 15:52:59.133141 16401 net.cpp:91] Creating Layer inception_5a/pool_proj
I0403 15:52:59.133163 16401 net.cpp:425] inception_5a/pool_proj <- inception_5a/pool
I0403 15:52:59.133193 16401 net.cpp:399] inception_5a/pool_proj -> inception_5a/pool_proj
I0403 15:52:59.135988 16401 net.cpp:141] Setting up inception_5a/pool_proj
I0403 15:52:59.136026 16401 net.cpp:148] Top shape: 24 128 7 7 (150528)
I0403 15:52:59.136046 16401 net.cpp:156] Memory required for data: 1305071136
I0403 15:52:59.136070 16401 layer_factory.hpp:77] Creating layer inception_5a/relu_pool_proj
I0403 15:52:59.136096 16401 net.cpp:91] Creating Layer inception_5a/relu_pool_proj
I0403 15:52:59.136116 16401 net.cpp:425] inception_5a/relu_pool_proj <- inception_5a/pool_proj
I0403 15:52:59.136139 16401 net.cpp:386] inception_5a/relu_pool_proj -> inception_5a/pool_proj (in-place)
I0403 15:52:59.136502 16401 net.cpp:141] Setting up inception_5a/relu_pool_proj
I0403 15:52:59.136535 16401 net.cpp:148] Top shape: 24 128 7 7 (150528)
I0403 15:52:59.136555 16401 net.cpp:156] Memory required for data: 1305673248
I0403 15:52:59.136574 16401 layer_factory.hpp:77] Creating layer inception_5a/output
I0403 15:52:59.136596 16401 net.cpp:91] Creating Layer inception_5a/output
I0403 15:52:59.136621 16401 net.cpp:425] inception_5a/output <- inception_5a/1x1
I0403 15:52:59.136651 16401 net.cpp:425] inception_5a/output <- inception_5a/3x3
I0403 15:52:59.136672 16401 net.cpp:425] inception_5a/output <- inception_5a/5x5
I0403 15:52:59.136693 16401 net.cpp:425] inception_5a/output <- inception_5a/pool_proj
I0403 15:52:59.136714 16401 net.cpp:399] inception_5a/output -> inception_5a/output
I0403 15:52:59.136775 16401 net.cpp:141] Setting up inception_5a/output
I0403 15:52:59.136807 16401 net.cpp:148] Top shape: 24 832 7 7 (978432)
I0403 15:52:59.136827 16401 net.cpp:156] Memory required for data: 1309586976
I0403 15:52:59.136845 16401 layer_factory.hpp:77] Creating layer inception_5a/output_inception_5a/output_0_split
I0403 15:52:59.136868 16401 net.cpp:91] Creating Layer inception_5a/output_inception_5a/output_0_split
I0403 15:52:59.136888 16401 net.cpp:425] inception_5a/output_inception_5a/output_0_split <- inception_5a/output
I0403 15:52:59.136911 16401 net.cpp:399] inception_5a/output_inception_5a/output_0_split -> inception_5a/output_inception_5a/output_0_split_0
I0403 15:52:59.136937 16401 net.cpp:399] inception_5a/output_inception_5a/output_0_split -> inception_5a/output_inception_5a/output_0_split_1
I0403 15:52:59.136963 16401 net.cpp:399] inception_5a/output_inception_5a/output_0_split -> inception_5a/output_inception_5a/output_0_split_2
I0403 15:52:59.136989 16401 net.cpp:399] inception_5a/output_inception_5a/output_0_split -> inception_5a/output_inception_5a/output_0_split_3
I0403 15:52:59.137127 16401 net.cpp:141] Setting up inception_5a/output_inception_5a/output_0_split
I0403 15:52:59.137161 16401 net.cpp:148] Top shape: 24 832 7 7 (978432)
I0403 15:52:59.137182 16401 net.cpp:148] Top shape: 24 832 7 7 (978432)
I0403 15:52:59.137202 16401 net.cpp:148] Top shape: 24 832 7 7 (978432)
I0403 15:52:59.137220 16401 net.cpp:148] Top shape: 24 832 7 7 (978432)
I0403 15:52:59.137238 16401 net.cpp:156] Memory required for data: 1325241888
I0403 15:52:59.137255 16401 layer_factory.hpp:77] Creating layer inception_5b/1x1
I0403 15:52:59.137284 16401 net.cpp:91] Creating Layer inception_5b/1x1
I0403 15:52:59.137306 16401 net.cpp:425] inception_5b/1x1 <- inception_5a/output_inception_5a/output_0_split_0
I0403 15:52:59.137331 16401 net.cpp:399] inception_5b/1x1 -> inception_5b/1x1
I0403 15:52:59.141966 16401 net.cpp:141] Setting up inception_5b/1x1
I0403 15:52:59.142005 16401 net.cpp:148] Top shape: 24 384 7 7 (451584)
I0403 15:52:59.142026 16401 net.cpp:156] Memory required for data: 1327048224
I0403 15:52:59.142050 16401 layer_factory.hpp:77] Creating layer inception_5b/relu_1x1
I0403 15:52:59.142074 16401 net.cpp:91] Creating Layer inception_5b/relu_1x1
I0403 15:52:59.142096 16401 net.cpp:425] inception_5b/relu_1x1 <- inception_5b/1x1
I0403 15:52:59.142120 16401 net.cpp:386] inception_5b/relu_1x1 -> inception_5b/1x1 (in-place)
I0403 15:52:59.142499 16401 net.cpp:141] Setting up inception_5b/relu_1x1
I0403 15:52:59.142532 16401 net.cpp:148] Top shape: 24 384 7 7 (451584)
I0403 15:52:59.142551 16401 net.cpp:156] Memory required for data: 1328854560
I0403 15:52:59.142570 16401 layer_factory.hpp:77] Creating layer inception_5b/3x3_reduce
I0403 15:52:59.142598 16401 net.cpp:91] Creating Layer inception_5b/3x3_reduce
I0403 15:52:59.142627 16401 net.cpp:425] inception_5b/3x3_reduce <- inception_5a/output_inception_5a/output_0_split_1
I0403 15:52:59.142657 16401 net.cpp:399] inception_5b/3x3_reduce -> inception_5b/3x3_reduce
I0403 15:52:59.145936 16401 net.cpp:141] Setting up inception_5b/3x3_reduce
I0403 15:52:59.145975 16401 net.cpp:148] Top shape: 24 192 7 7 (225792)
I0403 15:52:59.145997 16401 net.cpp:156] Memory required for data: 1329757728
I0403 15:52:59.146019 16401 layer_factory.hpp:77] Creating layer inception_5b/relu_3x3_reduce
I0403 15:52:59.146045 16401 net.cpp:91] Creating Layer inception_5b/relu_3x3_reduce
I0403 15:52:59.146069 16401 net.cpp:425] inception_5b/relu_3x3_reduce <- inception_5b/3x3_reduce
I0403 15:52:59.146090 16401 net.cpp:386] inception_5b/relu_3x3_reduce -> inception_5b/3x3_reduce (in-place)
I0403 15:52:59.146329 16401 net.cpp:141] Setting up inception_5b/relu_3x3_reduce
I0403 15:52:59.146361 16401 net.cpp:148] Top shape: 24 192 7 7 (225792)
I0403 15:52:59.146383 16401 net.cpp:156] Memory required for data: 1330660896
I0403 15:52:59.146401 16401 layer_factory.hpp:77] Creating layer inception_5b/3x3
I0403 15:52:59.146432 16401 net.cpp:91] Creating Layer inception_5b/3x3
I0403 15:52:59.146456 16401 net.cpp:425] inception_5b/3x3 <- inception_5b/3x3_reduce
I0403 15:52:59.146479 16401 net.cpp:399] inception_5b/3x3 -> inception_5b/3x3
I0403 15:52:59.154842 16401 net.cpp:141] Setting up inception_5b/3x3
I0403 15:52:59.154880 16401 net.cpp:148] Top shape: 24 384 7 7 (451584)
I0403 15:52:59.154899 16401 net.cpp:156] Memory required for data: 1332467232
I0403 15:52:59.154922 16401 layer_factory.hpp:77] Creating layer inception_5b/relu_3x3
I0403 15:52:59.154948 16401 net.cpp:91] Creating Layer inception_5b/relu_3x3
I0403 15:52:59.154971 16401 net.cpp:425] inception_5b/relu_3x3 <- inception_5b/3x3
I0403 15:52:59.154994 16401 net.cpp:386] inception_5b/relu_3x3 -> inception_5b/3x3 (in-place)
I0403 15:52:59.155357 16401 net.cpp:141] Setting up inception_5b/relu_3x3
I0403 15:52:59.155390 16401 net.cpp:148] Top shape: 24 384 7 7 (451584)
I0403 15:52:59.155410 16401 net.cpp:156] Memory required for data: 1334273568
I0403 15:52:59.155427 16401 layer_factory.hpp:77] Creating layer inception_5b/5x5_reduce
I0403 15:52:59.155474 16401 net.cpp:91] Creating Layer inception_5b/5x5_reduce
I0403 15:52:59.155498 16401 net.cpp:425] inception_5b/5x5_reduce <- inception_5a/output_inception_5a/output_0_split_2
I0403 15:52:59.155525 16401 net.cpp:399] inception_5b/5x5_reduce -> inception_5b/5x5_reduce
I0403 15:52:59.157135 16401 net.cpp:141] Setting up inception_5b/5x5_reduce
I0403 15:52:59.157171 16401 net.cpp:148] Top shape: 24 48 7 7 (56448)
I0403 15:52:59.157191 16401 net.cpp:156] Memory required for data: 1334499360
I0403 15:52:59.157213 16401 layer_factory.hpp:77] Creating layer inception_5b/relu_5x5_reduce
I0403 15:52:59.157239 16401 net.cpp:91] Creating Layer inception_5b/relu_5x5_reduce
I0403 15:52:59.157263 16401 net.cpp:425] inception_5b/relu_5x5_reduce <- inception_5b/5x5_reduce
I0403 15:52:59.157286 16401 net.cpp:386] inception_5b/relu_5x5_reduce -> inception_5b/5x5_reduce (in-place)
I0403 15:52:59.157752 16401 net.cpp:141] Setting up inception_5b/relu_5x5_reduce
I0403 15:52:59.157784 16401 net.cpp:148] Top shape: 24 48 7 7 (56448)
I0403 15:52:59.157805 16401 net.cpp:156] Memory required for data: 1334725152
I0403 15:52:59.157824 16401 layer_factory.hpp:77] Creating layer inception_5b/5x5
I0403 15:52:59.157850 16401 net.cpp:91] Creating Layer inception_5b/5x5
I0403 15:52:59.157872 16401 net.cpp:425] inception_5b/5x5 <- inception_5b/5x5_reduce
I0403 15:52:59.157897 16401 net.cpp:399] inception_5b/5x5 -> inception_5b/5x5
I0403 15:52:59.160444 16401 net.cpp:141] Setting up inception_5b/5x5
I0403 15:52:59.160480 16401 net.cpp:148] Top shape: 24 128 7 7 (150528)
I0403 15:52:59.160500 16401 net.cpp:156] Memory required for data: 1335327264
I0403 15:52:59.160523 16401 layer_factory.hpp:77] Creating layer inception_5b/relu_5x5
I0403 15:52:59.160550 16401 net.cpp:91] Creating Layer inception_5b/relu_5x5
I0403 15:52:59.160573 16401 net.cpp:425] inception_5b/relu_5x5 <- inception_5b/5x5
I0403 15:52:59.160595 16401 net.cpp:386] inception_5b/relu_5x5 -> inception_5b/5x5 (in-place)
I0403 15:52:59.160843 16401 net.cpp:141] Setting up inception_5b/relu_5x5
I0403 15:52:59.160877 16401 net.cpp:148] Top shape: 24 128 7 7 (150528)
I0403 15:52:59.160897 16401 net.cpp:156] Memory required for data: 1335929376
I0403 15:52:59.160917 16401 layer_factory.hpp:77] Creating layer inception_5b/pool
I0403 15:52:59.160940 16401 net.cpp:91] Creating Layer inception_5b/pool
I0403 15:52:59.160960 16401 net.cpp:425] inception_5b/pool <- inception_5a/output_inception_5a/output_0_split_3
I0403 15:52:59.160986 16401 net.cpp:399] inception_5b/pool -> inception_5b/pool
I0403 15:52:59.161078 16401 net.cpp:141] Setting up inception_5b/pool
I0403 15:52:59.161108 16401 net.cpp:148] Top shape: 24 832 7 7 (978432)
I0403 15:52:59.161128 16401 net.cpp:156] Memory required for data: 1339843104
I0403 15:52:59.161146 16401 layer_factory.hpp:77] Creating layer inception_5b/pool_proj
I0403 15:52:59.161175 16401 net.cpp:91] Creating Layer inception_5b/pool_proj
I0403 15:52:59.161198 16401 net.cpp:425] inception_5b/pool_proj <- inception_5b/pool
I0403 15:52:59.161228 16401 net.cpp:399] inception_5b/pool_proj -> inception_5b/pool_proj
I0403 15:52:59.164058 16401 net.cpp:141] Setting up inception_5b/pool_proj
I0403 15:52:59.164095 16401 net.cpp:148] Top shape: 24 128 7 7 (150528)
I0403 15:52:59.164115 16401 net.cpp:156] Memory required for data: 1340445216
I0403 15:52:59.164140 16401 layer_factory.hpp:77] Creating layer inception_5b/relu_pool_proj
I0403 15:52:59.164165 16401 net.cpp:91] Creating Layer inception_5b/relu_pool_proj
I0403 15:52:59.164187 16401 net.cpp:425] inception_5b/relu_pool_proj <- inception_5b/pool_proj
I0403 15:52:59.164209 16401 net.cpp:386] inception_5b/relu_pool_proj -> inception_5b/pool_proj (in-place)
I0403 15:52:59.164572 16401 net.cpp:141] Setting up inception_5b/relu_pool_proj
I0403 15:52:59.164609 16401 net.cpp:148] Top shape: 24 128 7 7 (150528)
I0403 15:52:59.164631 16401 net.cpp:156] Memory required for data: 1341047328
I0403 15:52:59.164650 16401 layer_factory.hpp:77] Creating layer inception_5b/output
I0403 15:52:59.164671 16401 net.cpp:91] Creating Layer inception_5b/output
I0403 15:52:59.164710 16401 net.cpp:425] inception_5b/output <- inception_5b/1x1
I0403 15:52:59.164733 16401 net.cpp:425] inception_5b/output <- inception_5b/3x3
I0403 15:52:59.164757 16401 net.cpp:425] inception_5b/output <- inception_5b/5x5
I0403 15:52:59.164777 16401 net.cpp:425] inception_5b/output <- inception_5b/pool_proj
I0403 15:52:59.164801 16401 net.cpp:399] inception_5b/output -> inception_5b/output
I0403 15:52:59.164870 16401 net.cpp:141] Setting up inception_5b/output
I0403 15:52:59.164901 16401 net.cpp:148] Top shape: 24 1024 7 7 (1204224)
I0403 15:52:59.164921 16401 net.cpp:156] Memory required for data: 1345864224
I0403 15:52:59.164938 16401 layer_factory.hpp:77] Creating layer pool5/7x7_s1
I0403 15:52:59.164960 16401 net.cpp:91] Creating Layer pool5/7x7_s1
I0403 15:52:59.164980 16401 net.cpp:425] pool5/7x7_s1 <- inception_5b/output
I0403 15:52:59.165005 16401 net.cpp:399] pool5/7x7_s1 -> pool5/7x7_s1
I0403 15:52:59.165274 16401 net.cpp:141] Setting up pool5/7x7_s1
I0403 15:52:59.165307 16401 net.cpp:148] Top shape: 24 1024 1 1 (24576)
I0403 15:52:59.165326 16401 net.cpp:156] Memory required for data: 1345962528
I0403 15:52:59.165344 16401 layer_factory.hpp:77] Creating layer pool5/drop_7x7_s1
I0403 15:52:59.165372 16401 net.cpp:91] Creating Layer pool5/drop_7x7_s1
I0403 15:52:59.165395 16401 net.cpp:425] pool5/drop_7x7_s1 <- pool5/7x7_s1
I0403 15:52:59.165416 16401 net.cpp:386] pool5/drop_7x7_s1 -> pool5/7x7_s1 (in-place)
I0403 15:52:59.165482 16401 net.cpp:141] Setting up pool5/drop_7x7_s1
I0403 15:52:59.165511 16401 net.cpp:148] Top shape: 24 1024 1 1 (24576)
I0403 15:52:59.165531 16401 net.cpp:156] Memory required for data: 1346060832
I0403 15:52:59.165549 16401 layer_factory.hpp:77] Creating layer loss3/classifier_plantvillage
I0403 15:52:59.165573 16401 net.cpp:91] Creating Layer loss3/classifier_plantvillage
I0403 15:52:59.165592 16401 net.cpp:425] loss3/classifier_plantvillage <- pool5/7x7_s1
I0403 15:52:59.165634 16401 net.cpp:399] loss3/classifier_plantvillage -> loss3/classifier_plantvillage
I0403 15:52:59.166174 16401 net.cpp:141] Setting up loss3/classifier_plantvillage
I0403 15:52:59.166205 16401 net.cpp:148] Top shape: 24 38 (912)
I0403 15:52:59.166225 16401 net.cpp:156] Memory required for data: 1346064480
I0403 15:52:59.166249 16401 layer_factory.hpp:77] Creating layer loss3/classifier_plantvillage_loss3/classifier_plantvillage_0_split
I0403 15:52:59.166271 16401 net.cpp:91] Creating Layer loss3/classifier_plantvillage_loss3/classifier_plantvillage_0_split
I0403 15:52:59.166292 16401 net.cpp:425] loss3/classifier_plantvillage_loss3/classifier_plantvillage_0_split <- loss3/classifier_plantvillage
I0403 15:52:59.166318 16401 net.cpp:399] loss3/classifier_plantvillage_loss3/classifier_plantvillage_0_split -> loss3/classifier_plantvillage_loss3/classifier_plantvillage_0_split_0
I0403 15:52:59.166345 16401 net.cpp:399] loss3/classifier_plantvillage_loss3/classifier_plantvillage_0_split -> loss3/classifier_plantvillage_loss3/classifier_plantvillage_0_split_1
I0403 15:52:59.166371 16401 net.cpp:399] loss3/classifier_plantvillage_loss3/classifier_plantvillage_0_split -> loss3/classifier_plantvillage_loss3/classifier_plantvillage_0_split_2
I0403 15:52:59.166396 16401 net.cpp:399] loss3/classifier_plantvillage_loss3/classifier_plantvillage_0_split -> loss3/classifier_plantvillage_loss3/classifier_plantvillage_0_split_3
I0403 15:52:59.166523 16401 net.cpp:141] Setting up loss3/classifier_plantvillage_loss3/classifier_plantvillage_0_split
I0403 15:52:59.166554 16401 net.cpp:148] Top shape: 24 38 (912)
I0403 15:52:59.166574 16401 net.cpp:148] Top shape: 24 38 (912)
I0403 15:52:59.166594 16401 net.cpp:148] Top shape: 24 38 (912)
I0403 15:52:59.166620 16401 net.cpp:148] Top shape: 24 38 (912)
I0403 15:52:59.166640 16401 net.cpp:156] Memory required for data: 1346079072
I0403 15:52:59.166657 16401 layer_factory.hpp:77] Creating layer loss1/loss
I0403 15:52:59.166710 16401 net.cpp:91] Creating Layer loss1/loss
I0403 15:52:59.166735 16401 net.cpp:425] loss1/loss <- loss1/classifier_plantvillage_loss1/classifier_plantvillage_0_split_0
I0403 15:52:59.166774 16401 net.cpp:425] loss1/loss <- label_data_1_split_0
…
