…
I0403 17:11:48.306221 20721 net.cpp:313] The NetState phase (1) differed from the phase (0) specified by a rule in layer data
I0403 17:11:48.307608 20721 net.cpp:49] Initializing net from parameters: 
state {
  phase: TEST
}
layer {
  name: "data"
  type: "Data"
  top: "data"
  top: "label"
  include {
    phase: TEST
  }
  transform_param {
    mirror: false
    crop_size: 224
    mean_file: "/home/mohanty/data/final_dataset/lmdb/color-20-80/mean.binaryproto"
  }
  data_param {
    source: "/home/mohanty/data/final_dataset/lmdb/color-20-80/test_db"
    batch_size: 24
    backend: LMDB
  }
}
layer {
  name: "conv1/7x7_s2"
  type: "Convolution"
  bottom: "data"
  top: "conv1/7x7_s2"
  param {
    lr_mult: 1
    decay_mult: 1
  }
  param {
    lr_mult: 2
    decay_mult: 0
  }
  convolution_param {
    num_output: 64
    pad: 3
    kernel_size: 7
    stride: 2
    weight_filler {
      type: "xavier"
      std: 0.1
    }
    bias_filler {
      type: "constant"
      value: 0.2
    }
  }
}
layer {
  name: "conv1/relu_7x7"
  type: "ReLU"
  bottom: "conv1/7x7_s2"
  top: "conv1/7x7_s2"
}
layer {
  name: "pool1/3x3_s2"
  type: "Pooling"
  bottom: "conv1/7x7_s2"
  top: "pool1/3x3_s2"
  pooling_param {
    pool: MAX
    kernel_size: 3
    stride: 2
  }
}
layer {
  name: "pool1/norm1"
  type: "LRN"
  bottom: "pool1/3x3_s2"
  top: "pool1/norm1"
  lrn_param {
    local_size: 5
    alpha: 0.0001
    beta: 0.75
  }
}
layer {
  name: "conv2/3x3_reduce"
  type: "Convolution"
  bottom: "pool1/norm1"
  top: "conv2/3x3_reduce"
  param {
    lr_mult: 1
    decay_mult: 1
  }
  param {
    lr_mult: 2
    decay_mult: 0
  }
  convolution_param {
    num_output: 64
    kernel_size: 1
    weight_filler {
      type: "xavier"
      std: 0.1
    }
    bias_filler {
      type: "constant"
      value: 0.2
    }
  }
}
layer {
  name: "conv2/relu_3x3_reduce"
  type: "ReLU"
  bottom: "conv2/3x3_reduce"
  top: "conv2/3x3_reduce"
}
layer {
  name: "conv2/3x3"
  type: "Convolution"
  bottom: "conv2/3x3_reduce"
  top: "conv2/3x3"
  param {
    lr_mult: 1
    decay_mult: 1
  }
  param {
    lr_mult: 2
    decay_mult: 0
  }
  convolution_param {
    num_output: 192
    pad: 1
    kernel_size: 3
    weight_filler {
      type: "xavier"
      std: 0.03
    }
    bias_filler {
      type: "constant"
      value: 0.2
    }
  }
}
layer {
  name: "conv2/relu_3x3"
  type: "ReLU"
  bottom: "conv2/3x3"
  top: "conv2/3x3"
}
layer {
  name: "conv2/norm2"
  type: "LRN"
  bottom: "conv2/3x3"
  top: "conv2/norm2"
  lrn_param {
    local_size: 5
    alpha: 0.0001
    beta: 0.75
  }
}
layer {
  name: "pool2/3x3_s2"
  type: "Pooling"
  bottom: "conv2/norm2"
  top: "pool2/3x3_s2"
  pooling_param {
    pool: MAX
    kernel_size: 3
    stride: 2
  }
}
layer {
  name: "inception_3a/1x1"
  type: "Convolution"
  bottom: "pool2/3x3_s2"
  top: "inception_3a/1x1"
  param {
    lr_mult: 1
    decay_mult: 1
  }
  param {
    lr_mult: 2
    decay_mult: 0
  }
  convolution_param {
    num_output: 64
    kernel_size: 1
    weight_filler {
      type: "xavier"
      std: 0.03
    }
    bias_filler {
      type: "constant"
      value: 0.2
    }
  }
}
layer {
  name: "inception_3a/relu_1x1"
  type: "ReLU"
  bottom: "inception_3a/1x1"
  top: "inception_3a/1x1"
}
layer {
  name: "inception_3a/3x3_reduce"
  type: "Convolution"
  bottom: "pool2/3x3_s2"
  top: "inception_3a/3x3_reduce"
  param {
    lr_mult: 1
    decay_mult: 1
  }
  param {
    lr_mult: 2
    decay_mult: 0
  }
  convolution_param {
    num_output: 96
    kernel_size: 1
    weight_filler {
      type: "xavier"
      std: 0.09
    }
    bias_filler {
      type: "constant"
      value: 0.2
    }
  }
}
layer {
  name: "inception_3a/relu_3x3_reduce"
  type: "ReLU"
  bottom: "inception_3a/3x3_reduce"
  top: "inception_3a/3x3_reduce"
}
layer {
  name: "inception_3a/3x3"
  type: "Convolution"
  bottom: "inception_3a/3x3_reduce"
  top: "inception_3a/3x3"
  param {
    lr_mult: 1
    decay_mult: 1
  }
  param {
    lr_mult: 2
    decay_mult: 0
  }
  convolution_param {
    num_output: 128
    pad: 1
    kernel_size: 3
    weight_filler {
      type: "xavier"
      std: 0.03
    }
    bias_filler {
      type: "constant"
      value: 0.2
    }
  }
}
layer {
  name: "inception_3a/relu_3x3"
  type: "ReLU"
  bottom: "inception_3a/3x3"
  top: "inception_3a/3x3"
}
layer {
  name: "inception_3a/5x5_reduce"
  type: "Convolution"
  bottom: "pool2/3x3_s2"
  top: "inception_3a/5x5_reduce"
  param {
    lr_mult: 1
    decay_mult: 1
  }
  param {
    lr_mult: 2
    decay_mult: 0
  }
  convolution_param {
    num_output: 16
    kernel_size: 1
    weight_filler {
      type: "xavier"
      std: 0.2
    }
    bias_filler {
      type: "constant"
      value: 0.2
    }
  }
}
layer {
  name: "inception_3a/relu_5x5_reduce"
  type: "ReLU"
  bottom: "inception_3a/5x5_reduce"
  top: "inception_3a/5x5_reduce"
}
layer {
  name: "inception_3a/5x5"
  type: "Convolution"
  bottom: "inception_3a/5x5_reduce"
  top: "inception_3a/5x5"
  param {
    lr_mult: 1
    decay_mult: 1
  }
  param {
    lr_mult: 2
    decay_mult: 0
  }
  convolution_param {
    num_output: 32
    pad: 2
    kernel_size: 5
    weight_filler {
      type: "xavier"
      std: 0.03
    }
    bias_filler {
      type: "constant"
      value: 0.2
    }
  }
}
layer {
  name: "inception_3a/relu_5x5"
  type: "ReLU"
  bottom: "inception_3a/5x5"
  top: "inception_3a/5x5"
}
layer {
  name: "inception_3a/pool"
  type: "Pooling"
  bottom: "pool2/3x3_s2"
  top: "inception_3a/pool"
  pooling_param {
    pool: MAX
    kernel_size: 3
    stride: 1
    pad: 1
  }
}
layer {
  name: "inception_3a/pool_proj"
  type: "Convolution"
  bottom: "inception_3a/pool"
  top: "inception_3a/pool_proj"
  param {
    lr_mult: 1
    decay_mult: 1
  }
  param {
    lr_mult: 2
    decay_mult: 0
  }
  convolution_param {
    num_output: 32
    kernel_size: 1
    weight_filler {
      type: "xavier"
      std: 0.1
    }
    bias_filler {
      type: "constant"
      value: 0.2
    }
  }
}
layer {
  name: "inception_3a/relu_pool_proj"
  type: "ReLU"
  bottom: "inception_3a/pool_proj"
  top: "inception_3a/pool_proj"
}
layer {
  name: "inception_3a/output"
  type: "Concat"
  bottom: "inception_3a/1x1"
  bottom: "inception_3a/3x3"
  bottom: "inception_3a/5x5"
  bottom: "inception_3a/pool_proj"
  top: "inception_3a/output"
}
layer {
  name: "inception_3b/1x1"
  type: "Convolution"
  bottom: "inception_3a/output"
  top: "inception_3b/1x1"
  param {
    lr_mult: 1
    decay_mult: 1
  }
  param {
    lr_mult: 2
    decay_mult: 0
  }
  convolution_param {
    num_output: 128
    kernel_size: 1
    weight_filler {
      type: "xavier"
      std: 0.03
    }
    bias_filler {
      type: "constant"
      value: 0.2
    }
  }
}
layer {
  name: "inception_3b/relu_1x1"
  type: "ReLU"
  bottom: "inception_3b/1x1"
  top: "inception_3b/1x1"
}
layer {
  name: "inception_3b/3x3_reduce"
  type: "Convolution"
  bottom: "inception_3a/output"
  top: "inception_3b/3x3_reduce"
  param {
    lr_mult: 1
    decay_mult: 1
  }
  param {
    lr_mult: 2
    decay_mult: 0
  }
  convolution_param {
    num_output: 128
    kernel_size: 1
    weight_filler {
      type: "xavier"
      std: 0.09
    }
    bias_filler {
      type: "constant"
      value: 0.2
    }
  }
}
layer {
  name: "inception_3b/relu_3x3_reduce"
  type: "ReLU"
  bottom: "inception_3b/3x3_reduce"
  top: "inception_3b/3x3_reduce"
}
layer {
  name: "inception_3b/3x3"
  type: "Convolution"
  bottom: "inception_3b/3x3_reduce"
  top: "inception_3b/3x3"
  param {
    lr_mult: 1
    decay_mult: 1
  }
  param {
    lr_mult: 2
    decay_mult: 0
  }
  convolution_param {
    num_output: 192
    pad: 1
    kernel_size: 3
    weight_filler {
      type: "xavier"
      std: 0.03
    }
    bias_filler {
      type: "constant"
      value: 0.2
    }
  }
}
layer {
  name: "inception_3b/relu_3x3"
  type: "ReLU"
  bottom: "inception_3b/3x3"
  top: "inception_3b/3x3"
}
layer {
  name: "inception_3b/5x5_reduce"
  type: "Convolution"
  bottom: "inception_3a/output"
  top: "inception_3b/5x5_reduce"
  param {
    lr_mult: 1
    decay_mult: 1
  }
  param {
    lr_mult: 2
    decay_mult: 0
  }
  convolution_param {
    num_output: 32
    kernel_size: 1
    weight_filler {
      type: "xavier"
      std: 0.2
    }
    bias_filler {
      type: "constant"
      value: 0.2
    }
  }
}
layer {
  name: "inception_3b/relu_5x5_reduce"
  type: "ReLU"
  bottom: "inception_3b/5x5_reduce"
  top: "inception_3b/5x5_reduce"
}
layer {
  name: "inception_3b/5x5"
  type: "Convolution"
  bottom: "inception_3b/5x5_reduce"
  top: "inception_3b/5x5"
  param {
    lr_mult: 1
    decay_mult: 1
  }
  param {
    lr_mult: 2
    decay_mult: 0
  }
  convolution_param {
    num_output: 96
    pad: 2
    kernel_size: 5
    weight_filler {
      type: "xavier"
      std: 0.03
    }
    bias_filler {
      type: "constant"
      value: 0.2
    }
  }
}
layer {
  name: "inception_3b/relu_5x5"
  type: "ReLU"
  bottom: "inception_3b/5x5"
  top: "inception_3b/5x5"
}
layer {
  name: "inception_3b/pool"
  type: "Pooling"
  bottom: "inception_3a/output"
  top: "inception_3b/pool"
  pooling_param {
    pool: MAX
    kernel_size: 3
    stride: 1
    pad: 1
  }
}
layer {
  name: "inception_3b/pool_proj"
  type: "Convolution"
  bottom: "inception_3b/pool"
  top: "inception_3b/pool_proj"
  param {
    lr_mult: 1
    decay_mult: 1
  }
  param {
    lr_mult: 2
    decay_mult: 0
  }
  convolution_param {
    num_output: 64
    kernel_size: 1
    weight_filler {
      type: "xavier"
      std: 0.1
    }
    bias_filler {
      type: "constant"
      value: 0.2
    }
  }
}
layer {
  name: "inception_3b/relu_pool_proj"
  type: "ReLU"
  bottom: "inception_3b/pool_proj"
  top: "inception_3b/pool_proj"
}
layer {
  name: "inception_3b/output"
  type: "Concat"
  bottom: "inception_3b/1x1"
  bottom: "inception_3b/3x3"
  bottom: "inception_3b/5x5"
  bottom: "inception_3b/pool_proj"
  top: "inception_3b/output"
}
layer {
  name: "pool3/3x3_s2"
  type: "Pooling"
  bottom: "inception_3b/output"
  top: "pool3/3x3_s2"
  pooling_param {
    pool: MAX
    kernel_size: 3
    stride: 2
  }
}
layer {
  name: "inception_4a/1x1"
  type: "Convolution"
  bottom: "pool3/3x3_s2"
  top: "inception_4a/1x1"
  param {
    lr_mult: 1
    decay_mult: 1
  }
  param {
    lr_mult: 2
    decay_mult: 0
  }
  convolution_param {
    num_output: 192
    kernel_size: 1
    weight_filler {
      type: "xavier"
      std: 0.03
    }
    bias_filler {
      type: "constant"
      value: 0.2
    }
  }
}
layer {
  name: "inception_4a/relu_1x1"
  type: "ReLU"
  bottom: "inception_4a/1x1"
  top: "inception_4a/1x1"
}
layer {
  name: "inception_4a/3x3_reduce"
  type: "Convolution"
  bottom: "pool3/3x3_s2"
  top: "inception_4a/3x3_reduce"
  param {
    lr_mult: 1
    decay_mult: 1
  }
  param {
    lr_mult: 2
    decay_mult: 0
  }
  convolution_param {
    num_output: 96
    kernel_size: 1
    weight_filler {
      type: "xavier"
      std: 0.09
    }
    bias_filler {
      type: "constant"
      value: 0.2
    }
  }
}
layer {
  name: "inception_4a/relu_3x3_reduce"
  type: "ReLU"
  bottom: "inception_4a/3x3_reduce"
  top: "inception_4a/3x3_reduce"
}
layer {
  name: "inception_4a/3x3"
  type: "Convolution"
  bottom: "inception_4a/3x3_reduce"
  top: "inception_4a/3x3"
  param {
    lr_mult: 1
    decay_mult: 1
  }
  param {
    lr_mult: 2
    decay_mult: 0
  }
  convolution_param {
    num_output: 208
    pad: 1
    kernel_size: 3
    weight_filler {
      type: "xavier"
      std: 0.03
    }
    bias_filler {
      type: "constant"
      value: 0.2
    }
  }
}
layer {
  name: "inception_4a/relu_3x3"
  type: "ReLU"
  bottom: "inception_4a/3x3"
  top: "inception_4a/3x3"
}
layer {
  name: "inception_4a/5x5_reduce"
  type: "Convolution"
  bottom: "pool3/3x3_s2"
  top: "inception_4a/5x5_reduce"
  param {
    lr_mult: 1
    decay_mult: 1
  }
  param {
    lr_mult: 2
    decay_mult: 0
  }
  convolution_param {
    num_output: 16
    kernel_size: 1
    weight_filler {
      type: "xavier"
      std: 0.2
    }
    bias_filler {
      type: "constant"
      value: 0.2
    }
  }
}
layer {
  name: "inception_4a/relu_5x5_reduce"
  type: "ReLU"
  bottom: "inception_4a/5x5_reduce"
  top: "inception_4a/5x5_reduce"
}
layer {
  name: "inception_4a/5x5"
  type: "Convolution"
  bottom: "inception_4a/5x5_reduce"
  top: "inception_4a/5x5"
  param {
    lr_mult: 1
    decay_mult: 1
  }
  param {
    lr_mult: 2
    decay_mult: 0
  }
  convolution_param {
    num_output: 48
    pad: 2
    kernel_size: 5
    weight_filler {
      type: "xavier"
      std: 0.03
    }
    bias_filler {
      type: "constant"
      value: 0.2
    }
  }
}
layer {
  name: "inception_4a/relu_5x5"
  type: "ReLU"
  bottom: "inception_4a/5x5"
  top: "inception_4a/5x5"
}
layer {
  name: "inception_4a/pool"
  type: "Pooling"
  bottom: "pool3/3x3_s2"
  top: "inception_4a/pool"
  pooling_param {
    pool: MAX
    kernel_size: 3
    stride: 1
    pad: 1
  }
}
layer {
  name: "inception_4a/pool_proj"
  type: "Convolution"
  bottom: "inception_4a/pool"
  top: "inception_4a/pool_proj"
  param {
    lr_mult: 1
    decay_mult: 1
  }
  param {
    lr_mult: 2
    decay_mult: 0
  }
  convolution_param {
    num_output: 64
    kernel_size: 1
    weight_filler {
      type: "xavier"
      std: 0.1
    }
    bias_filler {
      type: "constant"
      value: 0.2
    }
  }
}
layer {
  name: "inception_4a/relu_pool_proj"
  type: "ReLU"
  bottom: "inception_4a/pool_proj"
  top: "inception_4a/pool_proj"
}
layer {
  name: "inception_4a/output"
  type: "Concat"
  bottom: "inception_4a/1x1"
  bottom: "inception_4a/3x3"
  bottom: "inception_4a/5x5"
  bottom: "inception_4a/pool_proj"
  top: "inception_4a/output"
}
layer {
  name: "loss1/ave_pool"
  type: "Pooling"
  bottom: "inception_4a/output"
  top: "loss1/ave_pool"
  pooling_param {
    pool: AVE
    kernel_size: 5
    stride: 3
  }
}
layer {
  name: "loss1/conv"
  type: "Convolution"
  bottom: "loss1/ave_pool"
  top: "loss1/conv"
  param {
    lr_mult: 1
    decay_mult: 1
  }
  param {
    lr_mult: 2
    decay_mult: 0
  }
  convolution_param {
    num_output: 128
    kernel_size: 1
    weight_filler {
      type: "xavier"
      std: 0.08
    }
    bias_filler {
      type: "constant"
      value: 0.2
    }
  }
}
layer {
  name: "loss1/relu_conv"
  type: "ReLU"
  bottom: "loss1/conv"
  top: "loss1/conv"
}
layer {
  name: "loss1/fc"
  type: "InnerProduct"
  bottom: "loss1/conv"
  top: "loss1/fc"
  param {
    lr_mult: 1
    decay_mult: 1
  }
  param {
    lr_mult: 2
    decay_mult: 0
  }
  inner_product_param {
    num_output: 1024
    weight_filler {
      type: "xavier"
      std: 0.02
    }
    bias_filler {
      type: "constant"
      value: 0.2
    }
  }
}
layer {
  name: "loss1/relu_fc"
  type: "ReLU"
  bottom: "loss1/fc"
  top: "loss1/fc"
}
layer {
  name: "loss1/drop_fc"
  type: "Dropout"
  bottom: "loss1/fc"
  top: "loss1/fc"
  dropout_param {
    dropout_ratio: 0.7
  }
}
layer {
  name: "loss1/classifier_plantvillage"
  type: "InnerProduct"
  bottom: "loss1/fc"
  top: "loss1/classifier_plantvillage"
  param {
    lr_mult: 1
    decay_mult: 1
  }
  param {
    lr_mult: 2
    decay_mult: 0
  }
  inner_product_param {
    num_output: 38
    weight_filler {
      type: "xavier"
      std: 0.0009765625
    }
    bias_filler {
      type: "constant"
      value: 0
    }
  }
}
layer {
  name: "inception_4b/1x1"
  type: "Convolution"
  bottom: "inception_4a/output"
  top: "inception_4b/1x1"
  param {
    lr_mult: 1
    decay_mult: 1
  }
  param {
    lr_mult: 2
    decay_mult: 0
  }
  convolution_param {
    num_output: 160
    kernel_size: 1
    weight_filler {
      type: "xavier"
      std: 0.03
    }
    bias_filler {
      type: "constant"
      value: 0.2
    }
  }
}
layer {
  name: "inception_4b/relu_1x1"
  type: "ReLU"
  bottom: "inception_4b/1x1"
  top: "inception_4b/1x1"
}
layer {
  name: "inception_4b/3x3_reduce"
  type: "Convolution"
  bottom: "inception_4a/output"
  top: "inception_4b/3x3_reduce"
  param {
    lr_mult: 1
    decay_mult: 1
  }
  param {
    lr_mult: 2
    decay_mult: 0
  }
  convolution_param {
    num_output: 112
    kernel_size: 1
    weight_filler {
      type: "xavier"
      std: 0.09
    }
    bias_filler {
      type: "constant"
      value: 0.2
    }
  }
}
layer {
  name: "inception_4b/relu_3x3_reduce"
  type: "ReLU"
  bottom: "inception_4b/3x3_reduce"
  top: "inception_4b/3x3_reduce"
}
layer {
  name: "inception_4b/3x3"
  type: "Convolution"
  bottom: "inception_4b/3x3_reduce"
  top: "inception_4b/3x3"
  param {
    lr_mult: 1
    decay_mult: 1
  }
  param {
    lr_mult: 2
    decay_mult: 0
  }
  convolution_param {
    num_output: 224
    pad: 1
    kernel_size: 3
    weight_filler {
      type: "xavier"
      std: 0.03
    }
    bias_filler {
      type: "constant"
      value: 0.2
    }
  }
}
layer {
  name: "inception_4b/relu_3x3"
  type: "ReLU"
  bottom: "inception_4b/3x3"
  top: "inception_4b/3x3"
}
layer {
  name: "inception_4b/5x5_reduce"
  type: "Convolution"
  bottom: "inception_4a/output"
  top: "inception_4b/5x5_reduce"
  param {
    lr_mult: 1
    decay_mult: 1
  }
  param {
    lr_mult: 2
    decay_mult: 0
  }
  convolution_param {
    num_output: 24
    kernel_size: 1
    weight_filler {
      type: "xavier"
      std: 0.2
    }
    bias_filler {
      type: "constant"
      value: 0.2
    }
  }
}
layer {
  name: "inception_4b/relu_5x5_reduce"
  type: "ReLU"
  bottom: "inception_4b/5x5_reduce"
  top: "inception_4b/5x5_reduce"
}
layer {
  name: "inception_4b/5x5"
  type: "Convolution"
  bottom: "inception_4b/5x5_reduce"
  top: "inception_4b/5x5"
  param {
    lr_mult: 1
    decay_mult: 1
  }
  param {
    lr_mult: 2
    decay_mult: 0
  }
  convolution_param {
    num_output: 64
    pad: 2
    kernel_size: 5
    weight_filler {
      type: "xavier"
      std: 0.03
    }
    bias_filler {
      type: "constant"
      value: 0.2
    }
  }
}
layer {
  name: "inception_4b/relu_5x5"
  type: "ReLU"
  bottom: "inception_4b/5x5"
  top: "inception_4b/5x5"
}
layer {
  name: "inception_4b/pool"
  type: "Pooling"
  bottom: "inception_4a/output"
  top: "inception_4b/pool"
  pooling_param {
    pool: MAX
    kernel_size: 3
    stride: 1
    pad: 1
  }
}
layer {
  name: "inception_4b/pool_proj"
  type: "Convolution"
  bottom: "inception_4b/pool"
  top: "inception_4b/pool_proj"
  param {
    lr_mult: 1
    decay_mult: 1
  }
  param {
    lr_mult: 2
    decay_mult: 0
  }
  convolution_param {
    num_output: 64
    kernel_size: 1
    weight_filler {
      type: "xavier"
      std: 0.1
    }
    bias_filler {
      type: "constant"
      value: 0.2
    }
  }
}
layer {
  name: "inception_4b/relu_pool_proj"
  type: "ReLU"
  bottom: "inception_4b/pool_proj"
  top: "inception_4b/pool_proj"
}
layer {
  name: "inception_4b/output"
  type: "Concat"
  bottom: "inception_4b/1x1"
  bottom: "inception_4b/3x3"
  bottom: "inception_4b/5x5"
  bottom: "inception_4b/pool_proj"
  top: "inception_4b/output"
}
layer {
  name: "inception_4c/1x1"
  type: "Convolution"
  bottom: "inception_4b/output"
  top: "inception_4c/1x1"
  param {
    lr_mult: 1
    decay_mult: 1
  }
  param {
    lr_mult: 2
    decay_mult: 0
  }
  convolution_param {
    num_output: 128
    kernel_size: 1
    weight_filler {
      type: "xavier"
      std: 0.03
    }
    bias_filler {
      type: "constant"
      value: 0.2
    }
  }
}
layer {
  name: "inception_4c/relu_1x1"
  type: "ReLU"
  bottom: "inception_4c/1x1"
  top: "inception_4c/1x1"
}
layer {
  name: "inception_4c/3x3_reduce"
  type: "Convolution"
  bottom: "inception_4b/output"
  top: "inception_4c/3x3_reduce"
  param {
    lr_mult: 1
    decay_mult: 1
  }
  param {
    lr_mult: 2
    decay_mult: 0
  }
  convolution_param {
    num_output: 128
    kernel_size: 1
    weight_filler {
      type: "xavier"
      std: 0.09
    }
    bias_filler {
      type: "constant"
      value: 0.2
    }
  }
}
layer {
  name: "inception_4c/relu_3x3_reduce"
  type: "ReLU"
  bottom: "inception_4c/3x3_reduce"
  top: "inception_4c/3x3_reduce"
}
layer {
  name: "inception_4c/3x3"
  type: "Convolution"
  bottom: "inception_4c/3x3_reduce"
  top: "inception_4c/3x3"
  param {
    lr_mult: 1
    decay_mult: 1
  }
  param {
    lr_mult: 2
    decay_mult: 0
  }
  convolution_param {
    num_output: 256
    pad: 1
    kernel_size: 3
    weight_filler {
      type: "xavier"
      std: 0.03
    }
    bias_filler {
      type: "constant"
      value: 0.2
    }
  }
}
layer {
  name: "inception_4c/relu_3x3"
  type: "ReLU"
  bottom: "inception_4c/3x3"
  top: "inception_4c/3x3"
}
layer {
  name: "inception_4c/5x5_reduce"
  type: "Convolution"
  bottom: "inception_4b/output"
  top: "inception_4c/5x5_reduce"
  param {
    lr_mult: 1
    decay_mult: 1
  }
  param {
    lr_mult: 2
    decay_mult: 0
  }
  convolution_param {
    num_output: 24
    kernel_size: 1
    weight_filler {
      type: "xavier"
      std: 0.2
    }
    bias_filler {
      type: "constant"
      value: 0.2
    }
  }
}
layer {
  name: "inception_4c/relu_5x5_reduce"
  type: "ReLU"
  bottom: "inception_4c/5x5_reduce"
  top: "inception_4c/5x5_reduce"
}
layer {
  name: "inception_4c/5x5"
  type: "Convolution"
  bottom: "inception_4c/5x5_reduce"
  top: "inception_4c/5x5"
  param {
    lr_mult: 1
    decay_mult: 1
  }
  param {
    lr_mult: 2
    decay_mult: 0
  }
  convolution_param {
    num_output: 64
    pad: 2
    kernel_size: 5
    weight_filler {
      type: "xavier"
      std: 0.03
    }
    bias_filler {
      type: "constant"
      value: 0.2
    }
  }
}
layer {
  name: "inception_4c/relu_5x5"
  type: "ReLU"
  bottom: "inception_4c/5x5"
  top: "inception_4c/5x5"
}
layer {
  name: "inception_4c/pool"
  type: "Pooling"
  bottom: "inception_4b/output"
  top: "inception_4c/pool"
  pooling_param {
    pool: MAX
    kernel_size: 3
    stride: 1
    pad: 1
  }
}
layer {
  name: "inception_4c/pool_proj"
  type: "Convolution"
  bottom: "inception_4c/pool"
  top: "inception_4c/pool_proj"
  param {
    lr_mult: 1
    decay_mult: 1
  }
  param {
    lr_mult: 2
    decay_mult: 0
  }
  convolution_param {
    num_output: 64
    kernel_size: 1
    weight_filler {
      type: "xavier"
      std: 0.1
    }
    bias_filler {
      type: "constant"
      value: 0.2
    }
  }
}
layer {
  name: "inception_4c/relu_pool_proj"
  type: "ReLU"
  bottom: "inception_4c/pool_proj"
  top: "inception_4c/pool_proj"
}
layer {
  name: "inception_4c/output"
  type: "Concat"
  bottom: "inception_4c/1x1"
  bottom: "inception_4c/3x3"
  bottom: "inception_4c/5x5"
  bottom: "inception_4c/pool_proj"
  top: "inception_4c/output"
}
layer {
  name: "inception_4d/1x1"
  type: "Convolution"
  bottom: "inception_4c/output"
  top: "inception_4d/1x1"
  param {
    lr_mult: 1
    decay_mult: 1
  }
  param {
    lr_mult: 2
    decay_mult: 0
  }
  convolution_param {
    num_output: 112
    kernel_size: 1
    weight_filler {
      type: "xavier"
      std: 0.03
    }
    bias_filler {
      type: "constant"
      value: 0.2
    }
  }
}
layer {
  name: "inception_4d/relu_1x1"
  type: "ReLU"
  bottom: "inception_4d/1x1"
  top: "inception_4d/1x1"
}
layer {
  name: "inception_4d/3x3_reduce"
  type: "Convolution"
  bottom: "inception_4c/output"
  top: "inception_4d/3x3_reduce"
  param {
    lr_mult: 1
    decay_mult: 1
  }
  param {
    lr_mult: 2
    decay_mult: 0
  }
  convolution_param {
    num_output: 144
    kernel_size: 1
    weight_filler {
      type: "xavier"
      std: 0.09
    }
    bias_filler {
      type: "constant"
      value: 0.2
    }
  }
}
layer {
  name: "inception_4d/relu_3x3_reduce"
  type: "ReLU"
  bottom: "inception_4d/3x3_reduce"
  top: "inception_4d/3x3_reduce"
}
layer {
  name: "inception_4d/3x3"
  type: "Convolution"
  bottom: "inception_4d/3x3_reduce"
  top: "inception_4d/3x3"
  param {
    lr_mult: 1
    decay_mult: 1
  }
  param {
    lr_mult: 2
    decay_mult: 0
  }
  convolution_param {
    num_output: 288
    pad: 1
    kernel_size: 3
    weight_filler {
      type: "xavier"
      std: 0.03
    }
    bias_filler {
      type: "constant"
      value: 0.2
    }
  }
}
layer {
  name: "inception_4d/relu_3x3"
  type: "ReLU"
  bottom: "inception_4d/3x3"
  top: "inception_4d/3x3"
}
layer {
  name: "inception_4d/5x5_reduce"
  type: "Convolution"
  bottom: "inception_4c/output"
  top: "inception_4d/5x5_reduce"
  param {
    lr_mult: 1
    decay_mult: 1
  }
  param {
    lr_mult: 2
    decay_mult: 0
  }
  convolution_param {
    num_output: 32
    kernel_size: 1
    weight_filler {
      type: "xavier"
      std: 0.2
    }
    bias_filler {
      type: "constant"
      value: 0.2
    }
  }
}
layer {
  name: "inception_4d/relu_5x5_reduce"
  type: "ReLU"
  bottom: "inception_4d/5x5_reduce"
  top: "inception_4d/5x5_reduce"
}
layer {
  name: "inception_4d/5x5"
  type: "Convolution"
  bottom: "inception_4d/5x5_reduce"
  top: "inception_4d/5x5"
  param {
    lr_mult: 1
    decay_mult: 1
  }
  param {
    lr_mult: 2
    decay_mult: 0
  }
  convolution_param {
    num_output: 64
    pad: 2
    kernel_size: 5
    weight_filler {
      type: "xavier"
      std: 0.03
    }
    bias_filler {
      type: "constant"
      value: 0.2
    }
  }
}
layer {
  name: "inception_4d/relu_5x5"
  type: "ReLU"
  bottom: "inception_4d/5x5"
  top: "inception_4d/5x5"
}
layer {
  name: "inception_4d/pool"
  type: "Pooling"
  bottom: "inception_4c/output"
  top: "inception_4d/pool"
  pooling_param {
    pool: MAX
    kernel_size: 3
    stride: 1
    pad: 1
  }
}
layer {
  name: "inception_4d/pool_proj"
  type: "Convolution"
  bottom: "inception_4d/pool"
  top: "inception_4d/pool_proj"
  param {
    lr_mult: 1
    decay_mult: 1
  }
  param {
    lr_mult: 2
    decay_mult: 0
  }
  convolution_param {
    num_output: 64
    kernel_size: 1
    weight_filler {
      type: "xavier"
      std: 0.1
    }
    bias_filler {
      type: "constant"
      value: 0.2
    }
  }
}
layer {
  name: "inception_4d/relu_pool_proj"
  type: "ReLU"
  bottom: "inception_4d/pool_proj"
  top: "inception_4d/pool_proj"
}
layer {
  name: "inception_4d/output"
  type: "Concat"
  bottom: "inception_4d/1x1"
  bottom: "inception_4d/3x3"
  bottom: "inception_4d/5x5"
  bottom: "inception_4d/pool_proj"
  top: "inception_4d/output"
}
layer {
  name: "loss2/ave_pool"
  type: "Pooling"
  bottom: "inception_4d/output"
  top: "loss2/ave_pool"
  pooling_param {
    pool: AVE
    kernel_size: 5
    stride: 3
  }
}
layer {
  name: "loss2/conv"
  type: "Convolution"
  bottom: "loss2/ave_pool"
  top: "loss2/conv"
  param {
    lr_mult: 1
    decay_mult: 1
  }
  param {
    lr_mult: 2
    decay_mult: 0
  }
  convolution_param {
    num_output: 128
    kernel_size: 1
    weight_filler {
      type: "xavier"
      std: 0.08
    }
    bias_filler {
      type: "constant"
      value: 0.2
    }
  }
}
layer {
  name: "loss2/relu_conv"
  type: "ReLU"
  bottom: "loss2/conv"
  top: "loss2/conv"
}
layer {
  name: "loss2/fc"
  type: "InnerProduct"
  bottom: "loss2/conv"
  top: "loss2/fc"
  param {
    lr_mult: 1
    decay_mult: 1
  }
  param {
    lr_mult: 2
    decay_mult: 0
  }
  inner_product_param {
    num_output: 1024
    weight_filler {
      type: "xavier"
      std: 0.02
    }
    bias_filler {
      type: "constant"
      value: 0.2
    }
  }
}
layer {
  name: "loss2/relu_fc"
  type: "ReLU"
  bottom: "loss2/fc"
  top: "loss2/fc"
}
layer {
  name: "loss2/drop_fc"
  type: "Dropout"
  bottom: "loss2/fc"
  top: "loss2/fc"
  dropout_param {
    dropout_ratio: 0.7
  }
}
layer {
  name: "loss2/classifier_plantvillage"
  type: "InnerProduct"
  bottom: "loss2/fc"
  top: "loss2/classifier_plantvillage"
  param {
    lr_mult: 1
    decay_mult: 1
  }
  param {
    lr_mult: 2
    decay_mult: 0
  }
  inner_product_param {
    num_output: 38
    weight_filler {
      type: "xavier"
      std: 0.0009765625
    }
    bias_filler {
      type: "constant"
      value: 0
    }
  }
}
layer {
  name: "inception_4e/1x1"
  type: "Convolution"
  bottom: "inception_4d/output"
  top: "inception_4e/1x1"
  param {
    lr_mult: 1
    decay_mult: 1
  }
  param {
    lr_mult: 2
    decay_mult: 0
  }
  convolution_param {
    num_output: 256
    kernel_size: 1
    weight_filler {
      type: "xavier"
      std: 0.03
    }
    bias_filler {
      type: "constant"
      value: 0.2
    }
  }
}
layer {
  name: "inception_4e/relu_1x1"
  type: "ReLU"
  bottom: "inception_4e/1x1"
  top: "inception_4e/1x1"
}
layer {
  name: "inception_4e/3x3_reduce"
  type: "Convolution"
  bottom: "inception_4d/output"
  top: "inception_4e/3x3_reduce"
  param {
    lr_mult: 1
    decay_mult: 1
  }
  param {
    lr_mult: 2
    decay_mult: 0
  }
  convolution_param {
    num_output: 160
    kernel_size: 1
    weight_filler {
      type: "xavier"
      std: 0.09
    }
    bias_filler {
      type: "constant"
      value: 0.2
    }
  }
}
layer {
  name: "inception_4e/relu_3x3_reduce"
  type: "ReLU"
  bottom: "inception_4e/3x3_reduce"
  top: "inception_4e/3x3_reduce"
}
layer {
  name: "inception_4e/3x3"
  type: "Convolution"
  bottom: "inception_4e/3x3_reduce"
  top: "inception_4e/3x3"
  param {
    lr_mult: 1
    decay_mult: 1
  }
  param {
    lr_mult: 2
    decay_mult: 0
  }
  convolution_param {
    num_output: 320
    pad: 1
    kernel_size: 3
    weight_filler {
      type: "xavier"
      std: 0.03
    }
    bias_filler {
      type: "constant"
      value: 0.2
    }
  }
}
layer {
  name: "inception_4e/relu_3x3"
  type: "ReLU"
  bottom: "inception_4e/3x3"
  top: "inception_4e/3x3"
}
layer {
  name: "inception_4e/5x5_reduce"
  type: "Convolution"
  bottom: "inception_4d/output"
  top: "inception_4e/5x5_reduce"
  param {
    lr_mult: 1
    decay_mult: 1
  }
  param {
    lr_mult: 2
    decay_mult: 0
  }
  convolution_param {
    num_output: 32
    kernel_size: 1
    weight_filler {
      type: "xavier"
      std: 0.2
    }
    bias_filler {
      type: "constant"
      value: 0.2
    }
  }
}
layer {
  name: "inception_4e/relu_5x5_reduce"
  type: "ReLU"
  bottom: "inception_4e/5x5_reduce"
  top: "inception_4e/5x5_reduce"
}
layer {
  name: "inception_4e/5x5"
  type: "Convolution"
  bottom: "inception_4e/5x5_reduce"
  top: "inception_4e/5x5"
  p
I0403 17:11:48.309275 20721 layer_factory.hpp:77] Creating layer data
I0403 17:11:48.310009 20721 net.cpp:91] Creating Layer data
I0403 17:11:48.310048 20721 net.cpp:399] data -> data
I0403 17:11:48.310108 20721 net.cpp:399] data -> label
I0403 17:11:48.310155 20721 data_transformer.cpp:25] Loading mean file from: /home/mohanty/data/final_dataset/lmdb/color-20-80/mean.binaryproto
I0403 17:11:48.311506 20723 db_lmdb.cpp:38] Opened lmdb /home/mohanty/data/final_dataset/lmdb/color-20-80/test_db
I0403 17:11:48.325855 20721 data_layer.cpp:41] output data size: 24,3,224,224
I0403 17:11:48.357583 20721 net.cpp:141] Setting up data
I0403 17:11:48.357678 20721 net.cpp:148] Top shape: 24 3 224 224 (3612672)
I0403 17:11:48.357707 20721 net.cpp:148] Top shape: 24 (24)
I0403 17:11:48.357727 20721 net.cpp:156] Memory required for data: 14450784
I0403 17:11:48.357758 20721 layer_factory.hpp:77] Creating layer label_data_1_split
I0403 17:11:48.357789 20721 net.cpp:91] Creating Layer label_data_1_split
I0403 17:11:48.357811 20721 net.cpp:425] label_data_1_split <- label
I0403 17:11:48.357851 20721 net.cpp:399] label_data_1_split -> label_data_1_split_0
I0403 17:11:48.357885 20721 net.cpp:399] label_data_1_split -> label_data_1_split_1
I0403 17:11:48.357911 20721 net.cpp:399] label_data_1_split -> label_data_1_split_2
I0403 17:11:48.357938 20721 net.cpp:399] label_data_1_split -> label_data_1_split_3
I0403 17:11:48.357961 20721 net.cpp:399] label_data_1_split -> label_data_1_split_4
I0403 17:11:48.357985 20721 net.cpp:399] label_data_1_split -> label_data_1_split_5
I0403 17:11:48.358009 20721 net.cpp:399] label_data_1_split -> label_data_1_split_6
I0403 17:11:48.358033 20721 net.cpp:399] label_data_1_split -> label_data_1_split_7
I0403 17:11:48.358058 20721 net.cpp:399] label_data_1_split -> label_data_1_split_8
I0403 17:11:48.358083 20721 net.cpp:399] label_data_1_split -> label_data_1_split_9
I0403 17:11:48.358222 20721 net.cpp:141] Setting up label_data_1_split
I0403 17:11:48.358252 20721 net.cpp:148] Top shape: 24 (24)
I0403 17:11:48.358273 20721 net.cpp:148] Top shape: 24 (24)
I0403 17:11:48.358294 20721 net.cpp:148] Top shape: 24 (24)
I0403 17:11:48.358312 20721 net.cpp:148] Top shape: 24 (24)
I0403 17:11:48.358331 20721 net.cpp:148] Top shape: 24 (24)
I0403 17:11:48.358350 20721 net.cpp:148] Top shape: 24 (24)
I0403 17:11:48.358369 20721 net.cpp:148] Top shape: 24 (24)
I0403 17:11:48.358388 20721 net.cpp:148] Top shape: 24 (24)
I0403 17:11:48.358407 20721 net.cpp:148] Top shape: 24 (24)
I0403 17:11:48.358428 20721 net.cpp:148] Top shape: 24 (24)
I0403 17:11:48.358481 20721 net.cpp:156] Memory required for data: 14451744
I0403 17:11:48.358501 20721 layer_factory.hpp:77] Creating layer conv1/7x7_s2
I0403 17:11:48.358538 20721 net.cpp:91] Creating Layer conv1/7x7_s2
I0403 17:11:48.358561 20721 net.cpp:425] conv1/7x7_s2 <- data
I0403 17:11:48.358585 20721 net.cpp:399] conv1/7x7_s2 -> conv1/7x7_s2
I0403 17:11:48.522554 20721 net.cpp:141] Setting up conv1/7x7_s2
I0403 17:11:48.522649 20721 net.cpp:148] Top shape: 24 64 112 112 (19267584)
I0403 17:11:48.522672 20721 net.cpp:156] Memory required for data: 91522080
I0403 17:11:48.522711 20721 layer_factory.hpp:77] Creating layer conv1/relu_7x7
I0403 17:11:48.522744 20721 net.cpp:91] Creating Layer conv1/relu_7x7
I0403 17:11:48.522768 20721 net.cpp:425] conv1/relu_7x7 <- conv1/7x7_s2
I0403 17:11:48.522790 20721 net.cpp:386] conv1/relu_7x7 -> conv1/7x7_s2 (in-place)
I0403 17:11:48.523102 20721 net.cpp:141] Setting up conv1/relu_7x7
I0403 17:11:48.523138 20721 net.cpp:148] Top shape: 24 64 112 112 (19267584)
I0403 17:11:48.523156 20721 net.cpp:156] Memory required for data: 168592416
I0403 17:11:48.523175 20721 layer_factory.hpp:77] Creating layer pool1/3x3_s2
I0403 17:11:48.523205 20721 net.cpp:91] Creating Layer pool1/3x3_s2
I0403 17:11:48.523226 20721 net.cpp:425] pool1/3x3_s2 <- conv1/7x7_s2
I0403 17:11:48.523249 20721 net.cpp:399] pool1/3x3_s2 -> pool1/3x3_s2
I0403 17:11:48.523401 20721 net.cpp:141] Setting up pool1/3x3_s2
I0403 17:11:48.523434 20721 net.cpp:148] Top shape: 24 64 56 56 (4816896)
I0403 17:11:48.523453 20721 net.cpp:156] Memory required for data: 187860000
I0403 17:11:48.523473 20721 layer_factory.hpp:77] Creating layer pool1/norm1
I0403 17:11:48.523502 20721 net.cpp:91] Creating Layer pool1/norm1
I0403 17:11:48.523524 20721 net.cpp:425] pool1/norm1 <- pool1/3x3_s2
I0403 17:11:48.523546 20721 net.cpp:399] pool1/norm1 -> pool1/norm1
I0403 17:11:48.523895 20721 net.cpp:141] Setting up pool1/norm1
I0403 17:11:48.523931 20721 net.cpp:148] Top shape: 24 64 56 56 (4816896)
I0403 17:11:48.523950 20721 net.cpp:156] Memory required for data: 207127584
I0403 17:11:48.523970 20721 layer_factory.hpp:77] Creating layer conv2/3x3_reduce
I0403 17:11:48.523999 20721 net.cpp:91] Creating Layer conv2/3x3_reduce
I0403 17:11:48.524020 20721 net.cpp:425] conv2/3x3_reduce <- pool1/norm1
I0403 17:11:48.524042 20721 net.cpp:399] conv2/3x3_reduce -> conv2/3x3_reduce
I0403 17:11:48.525660 20721 net.cpp:141] Setting up conv2/3x3_reduce
I0403 17:11:48.525698 20721 net.cpp:148] Top shape: 24 64 56 56 (4816896)
I0403 17:11:48.525719 20721 net.cpp:156] Memory required for data: 226395168
I0403 17:11:48.525745 20721 layer_factory.hpp:77] Creating layer conv2/relu_3x3_reduce
I0403 17:11:48.525770 20721 net.cpp:91] Creating Layer conv2/relu_3x3_reduce
I0403 17:11:48.525790 20721 net.cpp:425] conv2/relu_3x3_reduce <- conv2/3x3_reduce
I0403 17:11:48.525812 20721 net.cpp:386] conv2/relu_3x3_reduce -> conv2/3x3_reduce (in-place)
I0403 17:11:48.526113 20721 net.cpp:141] Setting up conv2/relu_3x3_reduce
I0403 17:11:48.526147 20721 net.cpp:148] Top shape: 24 64 56 56 (4816896)
I0403 17:11:48.526166 20721 net.cpp:156] Memory required for data: 245662752
I0403 17:11:48.526185 20721 layer_factory.hpp:77] Creating layer conv2/3x3
I0403 17:11:48.526212 20721 net.cpp:91] Creating Layer conv2/3x3
I0403 17:11:48.526233 20721 net.cpp:425] conv2/3x3 <- conv2/3x3_reduce
I0403 17:11:48.526257 20721 net.cpp:399] conv2/3x3 -> conv2/3x3
I0403 17:11:48.528942 20721 net.cpp:141] Setting up conv2/3x3
I0403 17:11:48.528981 20721 net.cpp:148] Top shape: 24 192 56 56 (14450688)
I0403 17:11:48.529001 20721 net.cpp:156] Memory required for data: 303465504
I0403 17:11:48.529026 20721 layer_factory.hpp:77] Creating layer conv2/relu_3x3
I0403 17:11:48.529050 20721 net.cpp:91] Creating Layer conv2/relu_3x3
I0403 17:11:48.529069 20721 net.cpp:425] conv2/relu_3x3 <- conv2/3x3
I0403 17:11:48.529091 20721 net.cpp:386] conv2/relu_3x3 -> conv2/3x3 (in-place)
I0403 17:11:48.529287 20721 net.cpp:141] Setting up conv2/relu_3x3
I0403 17:11:48.529320 20721 net.cpp:148] Top shape: 24 192 56 56 (14450688)
I0403 17:11:48.529376 20721 net.cpp:156] Memory required for data: 361268256
I0403 17:11:48.529397 20721 layer_factory.hpp:77] Creating layer conv2/norm2
I0403 17:11:48.529419 20721 net.cpp:91] Creating Layer conv2/norm2
I0403 17:11:48.529440 20721 net.cpp:425] conv2/norm2 <- conv2/3x3
I0403 17:11:48.529464 20721 net.cpp:399] conv2/norm2 -> conv2/norm2
I0403 17:11:48.529849 20721 net.cpp:141] Setting up conv2/norm2
I0403 17:11:48.529883 20721 net.cpp:148] Top shape: 24 192 56 56 (14450688)
I0403 17:11:48.529902 20721 net.cpp:156] Memory required for data: 419071008
I0403 17:11:48.529922 20721 layer_factory.hpp:77] Creating layer pool2/3x3_s2
I0403 17:11:48.529943 20721 net.cpp:91] Creating Layer pool2/3x3_s2
I0403 17:11:48.529963 20721 net.cpp:425] pool2/3x3_s2 <- conv2/norm2
I0403 17:11:48.529985 20721 net.cpp:399] pool2/3x3_s2 -> pool2/3x3_s2
I0403 17:11:48.530046 20721 net.cpp:141] Setting up pool2/3x3_s2
I0403 17:11:48.530076 20721 net.cpp:148] Top shape: 24 192 28 28 (3612672)
I0403 17:11:48.530095 20721 net.cpp:156] Memory required for data: 433521696
I0403 17:11:48.530114 20721 layer_factory.hpp:77] Creating layer pool2/3x3_s2_pool2/3x3_s2_0_split
I0403 17:11:48.530135 20721 net.cpp:91] Creating Layer pool2/3x3_s2_pool2/3x3_s2_0_split
I0403 17:11:48.530154 20721 net.cpp:425] pool2/3x3_s2_pool2/3x3_s2_0_split <- pool2/3x3_s2
I0403 17:11:48.530176 20721 net.cpp:399] pool2/3x3_s2_pool2/3x3_s2_0_split -> pool2/3x3_s2_pool2/3x3_s2_0_split_0
I0403 17:11:48.530201 20721 net.cpp:399] pool2/3x3_s2_pool2/3x3_s2_0_split -> pool2/3x3_s2_pool2/3x3_s2_0_split_1
I0403 17:11:48.530225 20721 net.cpp:399] pool2/3x3_s2_pool2/3x3_s2_0_split -> pool2/3x3_s2_pool2/3x3_s2_0_split_2
I0403 17:11:48.530249 20721 net.cpp:399] pool2/3x3_s2_pool2/3x3_s2_0_split -> pool2/3x3_s2_pool2/3x3_s2_0_split_3
I0403 17:11:48.530328 20721 net.cpp:141] Setting up pool2/3x3_s2_pool2/3x3_s2_0_split
I0403 17:11:48.530357 20721 net.cpp:148] Top shape: 24 192 28 28 (3612672)
I0403 17:11:48.530378 20721 net.cpp:148] Top shape: 24 192 28 28 (3612672)
I0403 17:11:48.530398 20721 net.cpp:148] Top shape: 24 192 28 28 (3612672)
I0403 17:11:48.530417 20721 net.cpp:148] Top shape: 24 192 28 28 (3612672)
I0403 17:11:48.530434 20721 net.cpp:156] Memory required for data: 491324448
I0403 17:11:48.530452 20721 layer_factory.hpp:77] Creating layer inception_3a/1x1
I0403 17:11:48.530478 20721 net.cpp:91] Creating Layer inception_3a/1x1
I0403 17:11:48.530499 20721 net.cpp:425] inception_3a/1x1 <- pool2/3x3_s2_pool2/3x3_s2_0_split_0
I0403 17:11:48.530524 20721 net.cpp:399] inception_3a/1x1 -> inception_3a/1x1
I0403 17:11:48.532312 20721 net.cpp:141] Setting up inception_3a/1x1
I0403 17:11:48.532349 20721 net.cpp:148] Top shape: 24 64 28 28 (1204224)
I0403 17:11:48.532369 20721 net.cpp:156] Memory required for data: 496141344
I0403 17:11:48.532394 20721 layer_factory.hpp:77] Creating layer inception_3a/relu_1x1
I0403 17:11:48.532418 20721 net.cpp:91] Creating Layer inception_3a/relu_1x1
I0403 17:11:48.532438 20721 net.cpp:425] inception_3a/relu_1x1 <- inception_3a/1x1
I0403 17:11:48.532459 20721 net.cpp:386] inception_3a/relu_1x1 -> inception_3a/1x1 (in-place)
I0403 17:11:48.532658 20721 net.cpp:141] Setting up inception_3a/relu_1x1
I0403 17:11:48.532691 20721 net.cpp:148] Top shape: 24 64 28 28 (1204224)
I0403 17:11:48.532709 20721 net.cpp:156] Memory required for data: 500958240
I0403 17:11:48.532728 20721 layer_factory.hpp:77] Creating layer inception_3a/3x3_reduce
I0403 17:11:48.532752 20721 net.cpp:91] Creating Layer inception_3a/3x3_reduce
I0403 17:11:48.532773 20721 net.cpp:425] inception_3a/3x3_reduce <- pool2/3x3_s2_pool2/3x3_s2_0_split_1
I0403 17:11:48.532795 20721 net.cpp:399] inception_3a/3x3_reduce -> inception_3a/3x3_reduce
I0403 17:11:48.534710 20721 net.cpp:141] Setting up inception_3a/3x3_reduce
I0403 17:11:48.534747 20721 net.cpp:148] Top shape: 24 96 28 28 (1806336)
I0403 17:11:48.534768 20721 net.cpp:156] Memory required for data: 508183584
I0403 17:11:48.534796 20721 layer_factory.hpp:77] Creating layer inception_3a/relu_3x3_reduce
I0403 17:11:48.534843 20721 net.cpp:91] Creating Layer inception_3a/relu_3x3_reduce
I0403 17:11:48.534867 20721 net.cpp:425] inception_3a/relu_3x3_reduce <- inception_3a/3x3_reduce
I0403 17:11:48.534888 20721 net.cpp:386] inception_3a/relu_3x3_reduce -> inception_3a/3x3_reduce (in-place)
I0403 17:11:48.535114 20721 net.cpp:141] Setting up inception_3a/relu_3x3_reduce
I0403 17:11:48.535145 20721 net.cpp:148] Top shape: 24 96 28 28 (1806336)
I0403 17:11:48.535166 20721 net.cpp:156] Memory required for data: 515408928
I0403 17:11:48.535183 20721 layer_factory.hpp:77] Creating layer inception_3a/3x3
I0403 17:11:48.535212 20721 net.cpp:91] Creating Layer inception_3a/3x3
I0403 17:11:48.535234 20721 net.cpp:425] inception_3a/3x3 <- inception_3a/3x3_reduce
I0403 17:11:48.535259 20721 net.cpp:399] inception_3a/3x3 -> inception_3a/3x3
I0403 17:11:48.537276 20721 net.cpp:141] Setting up inception_3a/3x3
I0403 17:11:48.537314 20721 net.cpp:148] Top shape: 24 128 28 28 (2408448)
I0403 17:11:48.537333 20721 net.cpp:156] Memory required for data: 525042720
I0403 17:11:48.537356 20721 layer_factory.hpp:77] Creating layer inception_3a/relu_3x3
I0403 17:11:48.537385 20721 net.cpp:91] Creating Layer inception_3a/relu_3x3
I0403 17:11:48.537406 20721 net.cpp:425] inception_3a/relu_3x3 <- inception_3a/3x3
I0403 17:11:48.537430 20721 net.cpp:386] inception_3a/relu_3x3 -> inception_3a/3x3 (in-place)
I0403 17:11:48.537771 20721 net.cpp:141] Setting up inception_3a/relu_3x3
I0403 17:11:48.537807 20721 net.cpp:148] Top shape: 24 128 28 28 (2408448)
I0403 17:11:48.537825 20721 net.cpp:156] Memory required for data: 534676512
I0403 17:11:48.537844 20721 layer_factory.hpp:77] Creating layer inception_3a/5x5_reduce
I0403 17:11:48.537871 20721 net.cpp:91] Creating Layer inception_3a/5x5_reduce
I0403 17:11:48.537894 20721 net.cpp:425] inception_3a/5x5_reduce <- pool2/3x3_s2_pool2/3x3_s2_0_split_2
I0403 17:11:48.537919 20721 net.cpp:399] inception_3a/5x5_reduce -> inception_3a/5x5_reduce
I0403 17:11:48.539094 20721 net.cpp:141] Setting up inception_3a/5x5_reduce
I0403 17:11:48.539130 20721 net.cpp:148] Top shape: 24 16 28 28 (301056)
I0403 17:11:48.539151 20721 net.cpp:156] Memory required for data: 535880736
I0403 17:11:48.539173 20721 layer_factory.hpp:77] Creating layer inception_3a/relu_5x5_reduce
I0403 17:11:48.539199 20721 net.cpp:91] Creating Layer inception_3a/relu_5x5_reduce
I0403 17:11:48.539221 20721 net.cpp:425] inception_3a/relu_5x5_reduce <- inception_3a/5x5_reduce
I0403 17:11:48.539243 20721 net.cpp:386] inception_3a/relu_5x5_reduce -> inception_3a/5x5_reduce (in-place)
I0403 17:11:48.539589 20721 net.cpp:141] Setting up inception_3a/relu_5x5_reduce
I0403 17:11:48.539629 20721 net.cpp:148] Top shape: 24 16 28 28 (301056)
I0403 17:11:48.539650 20721 net.cpp:156] Memory required for data: 537084960
I0403 17:11:48.539670 20721 layer_factory.hpp:77] Creating layer inception_3a/5x5
I0403 17:11:48.539697 20721 net.cpp:91] Creating Layer inception_3a/5x5
I0403 17:11:48.539721 20721 net.cpp:425] inception_3a/5x5 <- inception_3a/5x5_reduce
I0403 17:11:48.539743 20721 net.cpp:399] inception_3a/5x5 -> inception_3a/5x5
I0403 17:11:48.540963 20721 net.cpp:141] Setting up inception_3a/5x5
I0403 17:11:48.540998 20721 net.cpp:148] Top shape: 24 32 28 28 (602112)
I0403 17:11:48.541018 20721 net.cpp:156] Memory required for data: 539493408
I0403 17:11:48.541041 20721 layer_factory.hpp:77] Creating layer inception_3a/relu_5x5
I0403 17:11:48.541066 20721 net.cpp:91] Creating Layer inception_3a/relu_5x5
I0403 17:11:48.541087 20721 net.cpp:425] inception_3a/relu_5x5 <- inception_3a/5x5
I0403 17:11:48.541110 20721 net.cpp:386] inception_3a/relu_5x5 -> inception_3a/5x5 (in-place)
I0403 17:11:48.541322 20721 net.cpp:141] Setting up inception_3a/relu_5x5
I0403 17:11:48.541357 20721 net.cpp:148] Top shape: 24 32 28 28 (602112)
I0403 17:11:48.541376 20721 net.cpp:156] Memory required for data: 541901856
I0403 17:11:48.541394 20721 layer_factory.hpp:77] Creating layer inception_3a/pool
I0403 17:11:48.541416 20721 net.cpp:91] Creating Layer inception_3a/pool
I0403 17:11:48.541435 20721 net.cpp:425] inception_3a/pool <- pool2/3x3_s2_pool2/3x3_s2_0_split_3
I0403 17:11:48.541474 20721 net.cpp:399] inception_3a/pool -> inception_3a/pool
I0403 17:11:48.541549 20721 net.cpp:141] Setting up inception_3a/pool
I0403 17:11:48.541579 20721 net.cpp:148] Top shape: 24 192 28 28 (3612672)
I0403 17:11:48.541599 20721 net.cpp:156] Memory required for data: 556352544
I0403 17:11:48.541625 20721 layer_factory.hpp:77] Creating layer inception_3a/pool_proj
I0403 17:11:48.541652 20721 net.cpp:91] Creating Layer inception_3a/pool_proj
I0403 17:11:48.541673 20721 net.cpp:425] inception_3a/pool_proj <- inception_3a/pool
I0403 17:11:48.541699 20721 net.cpp:399] inception_3a/pool_proj -> inception_3a/pool_proj
I0403 17:11:48.542860 20721 net.cpp:141] Setting up inception_3a/pool_proj
I0403 17:11:48.542896 20721 net.cpp:148] Top shape: 24 32 28 28 (602112)
I0403 17:11:48.542917 20721 net.cpp:156] Memory required for data: 558760992
I0403 17:11:48.542944 20721 layer_factory.hpp:77] Creating layer inception_3a/relu_pool_proj
I0403 17:11:48.542971 20721 net.cpp:91] Creating Layer inception_3a/relu_pool_proj
I0403 17:11:48.542994 20721 net.cpp:425] inception_3a/relu_pool_proj <- inception_3a/pool_proj
I0403 17:11:48.543015 20721 net.cpp:386] inception_3a/relu_pool_proj -> inception_3a/pool_proj (in-place)
I0403 17:11:48.543342 20721 net.cpp:141] Setting up inception_3a/relu_pool_proj
I0403 17:11:48.543375 20721 net.cpp:148] Top shape: 24 32 28 28 (602112)
I0403 17:11:48.543395 20721 net.cpp:156] Memory required for data: 561169440
I0403 17:11:48.543413 20721 layer_factory.hpp:77] Creating layer inception_3a/output
I0403 17:11:48.543438 20721 net.cpp:91] Creating Layer inception_3a/output
I0403 17:11:48.543460 20721 net.cpp:425] inception_3a/output <- inception_3a/1x1
I0403 17:11:48.543483 20721 net.cpp:425] inception_3a/output <- inception_3a/3x3
I0403 17:11:48.543503 20721 net.cpp:425] inception_3a/output <- inception_3a/5x5
I0403 17:11:48.543522 20721 net.cpp:425] inception_3a/output <- inception_3a/pool_proj
I0403 17:11:48.543542 20721 net.cpp:399] inception_3a/output -> inception_3a/output
I0403 17:11:48.543601 20721 net.cpp:141] Setting up inception_3a/output
I0403 17:11:48.543635 20721 net.cpp:148] Top shape: 24 256 28 28 (4816896)
I0403 17:11:48.543653 20721 net.cpp:156] Memory required for data: 580437024
I0403 17:11:48.543673 20721 layer_factory.hpp:77] Creating layer inception_3a/output_inception_3a/output_0_split
I0403 17:11:48.543694 20721 net.cpp:91] Creating Layer inception_3a/output_inception_3a/output_0_split
I0403 17:11:48.543711 20721 net.cpp:425] inception_3a/output_inception_3a/output_0_split <- inception_3a/output
I0403 17:11:48.543735 20721 net.cpp:399] inception_3a/output_inception_3a/output_0_split -> inception_3a/output_inception_3a/output_0_split_0
I0403 17:11:48.543761 20721 net.cpp:399] inception_3a/output_inception_3a/output_0_split -> inception_3a/output_inception_3a/output_0_split_1
I0403 17:11:48.543792 20721 net.cpp:399] inception_3a/output_inception_3a/output_0_split -> inception_3a/output_inception_3a/output_0_split_2
I0403 17:11:48.543818 20721 net.cpp:399] inception_3a/output_inception_3a/output_0_split -> inception_3a/output_inception_3a/output_0_split_3
I0403 17:11:48.543910 20721 net.cpp:141] Setting up inception_3a/output_inception_3a/output_0_split
I0403 17:11:48.543939 20721 net.cpp:148] Top shape: 24 256 28 28 (4816896)
I0403 17:11:48.543962 20721 net.cpp:148] Top shape: 24 256 28 28 (4816896)
I0403 17:11:48.543980 20721 net.cpp:148] Top shape: 24 256 28 28 (4816896)
I0403 17:11:48.543999 20721 net.cpp:148] Top shape: 24 256 28 28 (4816896)
I0403 17:11:48.544016 20721 net.cpp:156] Memory required for data: 657507360
I0403 17:11:48.544034 20721 layer_factory.hpp:77] Creating layer inception_3b/1x1
I0403 17:11:48.544062 20721 net.cpp:91] Creating Layer inception_3b/1x1
I0403 17:11:48.544085 20721 net.cpp:425] inception_3b/1x1 <- inception_3a/output_inception_3a/output_0_split_0
I0403 17:11:48.544109 20721 net.cpp:399] inception_3b/1x1 -> inception_3b/1x1
I0403 17:11:48.545474 20721 net.cpp:141] Setting up inception_3b/1x1
I0403 17:11:48.545522 20721 net.cpp:148] Top shape: 24 128 28 28 (2408448)
I0403 17:11:48.545544 20721 net.cpp:156] Memory required for data: 667141152
I0403 17:11:48.545567 20721 layer_factory.hpp:77] Creating layer inception_3b/relu_1x1
I0403 17:11:48.545593 20721 net.cpp:91] Creating Layer inception_3b/relu_1x1
I0403 17:11:48.545629 20721 net.cpp:425] inception_3b/relu_1x1 <- inception_3b/1x1
I0403 17:11:48.545655 20721 net.cpp:386] inception_3b/relu_1x1 -> inception_3b/1x1 (in-place)
I0403 17:11:48.545868 20721 net.cpp:141] Setting up inception_3b/relu_1x1
I0403 17:11:48.545902 20721 net.cpp:148] Top shape: 24 128 28 28 (2408448)
I0403 17:11:48.545919 20721 net.cpp:156] Memory required for data: 676774944
I0403 17:11:48.545938 20721 layer_factory.hpp:77] Creating layer inception_3b/3x3_reduce
I0403 17:11:48.545965 20721 net.cpp:91] Creating Layer inception_3b/3x3_reduce
I0403 17:11:48.545987 20721 net.cpp:425] inception_3b/3x3_reduce <- inception_3a/output_inception_3a/output_0_split_1
I0403 17:11:48.546013 20721 net.cpp:399] inception_3b/3x3_reduce -> inception_3b/3x3_reduce
I0403 17:11:48.547385 20721 net.cpp:141] Setting up inception_3b/3x3_reduce
I0403 17:11:48.547420 20721 net.cpp:148] Top shape: 24 128 28 28 (2408448)
I0403 17:11:48.547441 20721 net.cpp:156] Memory required for data: 686408736
I0403 17:11:48.547464 20721 layer_factory.hpp:77] Creating layer inception_3b/relu_3x3_reduce
I0403 17:11:48.547487 20721 net.cpp:91] Creating Layer inception_3b/relu_3x3_reduce
I0403 17:11:48.547505 20721 net.cpp:425] inception_3b/relu_3x3_reduce <- inception_3b/3x3_reduce
I0403 17:11:48.547530 20721 net.cpp:386] inception_3b/relu_3x3_reduce -> inception_3b/3x3_reduce (in-place)
I0403 17:11:48.547747 20721 net.cpp:141] Setting up inception_3b/relu_3x3_reduce
I0403 17:11:48.547780 20721 net.cpp:148] Top shape: 24 128 28 28 (2408448)
I0403 17:11:48.547799 20721 net.cpp:156] Memory required for data: 696042528
I0403 17:11:48.547818 20721 layer_factory.hpp:77] Creating layer inception_3b/3x3
I0403 17:11:48.547849 20721 net.cpp:91] Creating Layer inception_3b/3x3
I0403 17:11:48.547873 20721 net.cpp:425] inception_3b/3x3 <- inception_3b/3x3_reduce
I0403 17:11:48.547897 20721 net.cpp:399] inception_3b/3x3 -> inception_3b/3x3
I0403 17:11:48.551398 20721 net.cpp:141] Setting up inception_3b/3x3
I0403 17:11:48.551434 20721 net.cpp:148] Top shape: 24 192 28 28 (3612672)
I0403 17:11:48.551453 20721 net.cpp:156] Memory required for data: 710493216
I0403 17:11:48.551477 20721 layer_factory.hpp:77] Creating layer inception_3b/relu_3x3
I0403 17:11:48.551503 20721 net.cpp:91] Creating Layer inception_3b/relu_3x3
I0403 17:11:48.551525 20721 net.cpp:425] inception_3b/relu_3x3 <- inception_3b/3x3
I0403 17:11:48.551548 20721 net.cpp:386] inception_3b/relu_3x3 -> inception_3b/3x3 (in-place)
I0403 17:11:48.551887 20721 net.cpp:141] Setting up inception_3b/relu_3x3
I0403 17:11:48.551920 20721 net.cpp:148] Top shape: 24 192 28 28 (3612672)
I0403 17:11:48.551940 20721 net.cpp:156] Memory required for data: 724943904
I0403 17:11:48.551959 20721 layer_factory.hpp:77] Creating layer inception_3b/5x5_reduce
I0403 17:11:48.551990 20721 net.cpp:91] Creating Layer inception_3b/5x5_reduce
I0403 17:11:48.552012 20721 net.cpp:425] inception_3b/5x5_reduce <- inception_3a/output_inception_3a/output_0_split_2
I0403 17:11:48.552038 20721 net.cpp:399] inception_3b/5x5_reduce -> inception_3b/5x5_reduce
I0403 17:11:48.553246 20721 net.cpp:141] Setting up inception_3b/5x5_reduce
I0403 17:11:48.553282 20721 net.cpp:148] Top shape: 24 32 28 28 (602112)
I0403 17:11:48.553302 20721 net.cpp:156] Memory required for data: 727352352
I0403 17:11:48.553324 20721 layer_factory.hpp:77] Creating layer inception_3b/relu_5x5_reduce
I0403 17:11:48.553350 20721 net.cpp:91] Creating Layer inception_3b/relu_5x5_reduce
I0403 17:11:48.553371 20721 net.cpp:425] inception_3b/relu_5x5_reduce <- inception_3b/5x5_reduce
I0403 17:11:48.553393 20721 net.cpp:386] inception_3b/relu_5x5_reduce -> inception_3b/5x5_reduce (in-place)
I0403 17:11:48.553607 20721 net.cpp:141] Setting up inception_3b/relu_5x5_reduce
I0403 17:11:48.553658 20721 net.cpp:148] Top shape: 24 32 28 28 (602112)
I0403 17:11:48.553678 20721 net.cpp:156] Memory required for data: 729760800
I0403 17:11:48.553697 20721 layer_factory.hpp:77] Creating layer inception_3b/5x5
I0403 17:11:48.553725 20721 net.cpp:91] Creating Layer inception_3b/5x5
I0403 17:11:48.553747 20721 net.cpp:425] inception_3b/5x5 <- inception_3b/5x5_reduce
I0403 17:11:48.553771 20721 net.cpp:399] inception_3b/5x5 -> inception_3b/5x5
I0403 17:11:48.556146 20721 net.cpp:141] Setting up inception_3b/5x5
I0403 17:11:48.556183 20721 net.cpp:148] Top shape: 24 96 28 28 (1806336)
I0403 17:11:48.556203 20721 net.cpp:156] Memory required for data: 736986144
I0403 17:11:48.556226 20721 layer_factory.hpp:77] Creating layer inception_3b/relu_5x5
I0403 17:11:48.556248 20721 net.cpp:91] Creating Layer inception_3b/relu_5x5
I0403 17:11:48.556268 20721 net.cpp:425] inception_3b/relu_5x5 <- inception_3b/5x5
I0403 17:11:48.556293 20721 net.cpp:386] inception_3b/relu_5x5 -> inception_3b/5x5 (in-place)
I0403 17:11:48.556527 20721 net.cpp:141] Setting up inception_3b/relu_5x5
I0403 17:11:48.556560 20721 net.cpp:148] Top shape: 24 96 28 28 (1806336)
I0403 17:11:48.556577 20721 net.cpp:156] Memory required for data: 744211488
I0403 17:11:48.556596 20721 layer_factory.hpp:77] Creating layer inception_3b/pool
I0403 17:11:48.556624 20721 net.cpp:91] Creating Layer inception_3b/pool
I0403 17:11:48.556646 20721 net.cpp:425] inception_3b/pool <- inception_3a/output_inception_3a/output_0_split_3
I0403 17:11:48.556669 20721 net.cpp:399] inception_3b/pool -> inception_3b/pool
I0403 17:11:48.556738 20721 net.cpp:141] Setting up inception_3b/pool
I0403 17:11:48.556768 20721 net.cpp:148] Top shape: 24 256 28 28 (4816896)
I0403 17:11:48.556787 20721 net.cpp:156] Memory required for data: 763479072
I0403 17:11:48.556807 20721 layer_factory.hpp:77] Creating layer inception_3b/pool_proj
I0403 17:11:48.556833 20721 net.cpp:91] Creating Layer inception_3b/pool_proj
I0403 17:11:48.556856 20721 net.cpp:425] inception_3b/pool_proj <- inception_3b/pool
I0403 17:11:48.556881 20721 net.cpp:399] inception_3b/pool_proj -> inception_3b/pool_proj
I0403 17:11:48.558156 20721 net.cpp:141] Setting up inception_3b/pool_proj
I0403 17:11:48.558193 20721 net.cpp:148] Top shape: 24 64 28 28 (1204224)
I0403 17:11:48.558214 20721 net.cpp:156] Memory required for data: 768295968
I0403 17:11:48.558238 20721 layer_factory.hpp:77] Creating layer inception_3b/relu_pool_proj
I0403 17:11:48.558260 20721 net.cpp:91] Creating Layer inception_3b/relu_pool_proj
I0403 17:11:48.558280 20721 net.cpp:425] inception_3b/relu_pool_proj <- inception_3b/pool_proj
I0403 17:11:48.558301 20721 net.cpp:386] inception_3b/relu_pool_proj -> inception_3b/pool_proj (in-place)
I0403 17:11:48.558773 20721 net.cpp:141] Setting up inception_3b/relu_pool_proj
I0403 17:11:48.558807 20721 net.cpp:148] Top shape: 24 64 28 28 (1204224)
I0403 17:11:48.558828 20721 net.cpp:156] Memory required for data: 773112864
I0403 17:11:48.558846 20721 layer_factory.hpp:77] Creating layer inception_3b/output
I0403 17:11:48.558872 20721 net.cpp:91] Creating Layer inception_3b/output
I0403 17:11:48.558893 20721 net.cpp:425] inception_3b/output <- inception_3b/1x1
I0403 17:11:48.558914 20721 net.cpp:425] inception_3b/output <- inception_3b/3x3
I0403 17:11:48.558934 20721 net.cpp:425] inception_3b/output <- inception_3b/5x5
I0403 17:11:48.558955 20721 net.cpp:425] inception_3b/output <- inception_3b/pool_proj
I0403 17:11:48.558976 20721 net.cpp:399] inception_3b/output -> inception_3b/output
I0403 17:11:48.559032 20721 net.cpp:141] Setting up inception_3b/output
I0403 17:11:48.559062 20721 net.cpp:148] Top shape: 24 480 28 28 (9031680)
I0403 17:11:48.559079 20721 net.cpp:156] Memory required for data: 809239584
I0403 17:11:48.559098 20721 layer_factory.hpp:77] Creating layer pool3/3x3_s2
I0403 17:11:48.559119 20721 net.cpp:91] Creating Layer pool3/3x3_s2
I0403 17:11:48.559139 20721 net.cpp:425] pool3/3x3_s2 <- inception_3b/output
I0403 17:11:48.559165 20721 net.cpp:399] pool3/3x3_s2 -> pool3/3x3_s2
I0403 17:11:48.559254 20721 net.cpp:141] Setting up pool3/3x3_s2
I0403 17:11:48.559284 20721 net.cpp:148] Top shape: 24 480 14 14 (2257920)
I0403 17:11:48.559303 20721 net.cpp:156] Memory required for data: 818271264
I0403 17:11:48.559322 20721 layer_factory.hpp:77] Creating layer pool3/3x3_s2_pool3/3x3_s2_0_split
I0403 17:11:48.559342 20721 net.cpp:91] Creating Layer pool3/3x3_s2_pool3/3x3_s2_0_split
I0403 17:11:48.559360 20721 net.cpp:425] pool3/3x3_s2_pool3/3x3_s2_0_split <- pool3/3x3_s2
I0403 17:11:48.559384 20721 net.cpp:399] pool3/3x3_s2_pool3/3x3_s2_0_split -> pool3/3x3_s2_pool3/3x3_s2_0_split_0
I0403 17:11:48.559409 20721 net.cpp:399] pool3/3x3_s2_pool3/3x3_s2_0_split -> pool3/3x3_s2_pool3/3x3_s2_0_split_1
I0403 17:11:48.559435 20721 net.cpp:399] pool3/3x3_s2_pool3/3x3_s2_0_split -> pool3/3x3_s2_pool3/3x3_s2_0_split_2
I0403 17:11:48.559459 20721 net.cpp:399] pool3/3x3_s2_pool3/3x3_s2_0_split -> pool3/3x3_s2_pool3/3x3_s2_0_split_3
I0403 17:11:48.559551 20721 net.cpp:141] Setting up pool3/3x3_s2_pool3/3x3_s2_0_split
I0403 17:11:48.559583 20721 net.cpp:148] Top shape: 24 480 14 14 (2257920)
I0403 17:11:48.559608 20721 net.cpp:148] Top shape: 24 480 14 14 (2257920)
I0403 17:11:48.559630 20721 net.cpp:148] Top shape: 24 480 14 14 (2257920)
I0403 17:11:48.559650 20721 net.cpp:148] Top shape: 24 480 14 14 (2257920)
I0403 17:11:48.559667 20721 net.cpp:156] Memory required for data: 854397984
I0403 17:11:48.559684 20721 layer_factory.hpp:77] Creating layer inception_4a/1x1
I0403 17:11:48.559711 20721 net.cpp:91] Creating Layer inception_4a/1x1
I0403 17:11:48.559733 20721 net.cpp:425] inception_4a/1x1 <- pool3/3x3_s2_pool3/3x3_s2_0_split_0
I0403 17:11:48.559757 20721 net.cpp:399] inception_4a/1x1 -> inception_4a/1x1
I0403 17:11:48.561667 20721 net.cpp:141] Setting up inception_4a/1x1
I0403 17:11:48.561705 20721 net.cpp:148] Top shape: 24 192 14 14 (903168)
I0403 17:11:48.561728 20721 net.cpp:156] Memory required for data: 858010656
I0403 17:11:48.561751 20721 layer_factory.hpp:77] Creating layer inception_4a/relu_1x1
I0403 17:11:48.561774 20721 net.cpp:91] Creating Layer inception_4a/relu_1x1
I0403 17:11:48.561792 20721 net.cpp:425] inception_4a/relu_1x1 <- inception_4a/1x1
I0403 17:11:48.561817 20721 net.cpp:386] inception_4a/relu_1x1 -> inception_4a/1x1 (in-place)
I0403 17:11:48.562034 20721 net.cpp:141] Setting up inception_4a/relu_1x1
I0403 17:11:48.562067 20721 net.cpp:148] Top shape: 24 192 14 14 (903168)
I0403 17:11:48.562085 20721 net.cpp:156] Memory required for data: 861623328
I0403 17:11:48.562103 20721 layer_factory.hpp:77] Creating layer inception_4a/3x3_reduce
I0403 17:11:48.562130 20721 net.cpp:91] Creating Layer inception_4a/3x3_reduce
I0403 17:11:48.562152 20721 net.cpp:425] inception_4a/3x3_reduce <- pool3/3x3_s2_pool3/3x3_s2_0_split_1
I0403 17:11:48.562178 20721 net.cpp:399] inception_4a/3x3_reduce -> inception_4a/3x3_reduce
I0403 17:11:48.563726 20721 net.cpp:141] Setting up inception_4a/3x3_reduce
I0403 17:11:48.563763 20721 net.cpp:148] Top shape: 24 96 14 14 (451584)
I0403 17:11:48.563786 20721 net.cpp:156] Memory required for data: 863429664
I0403 17:11:48.563818 20721 layer_factory.hpp:77] Creating layer inception_4a/relu_3x3_reduce
I0403 17:11:48.563843 20721 net.cpp:91] Creating Layer inception_4a/relu_3x3_reduce
I0403 17:11:48.563864 20721 net.cpp:425] inception_4a/relu_3x3_reduce <- inception_4a/3x3_reduce
I0403 17:11:48.563885 20721 net.cpp:386] inception_4a/relu_3x3_reduce -> inception_4a/3x3_reduce (in-place)
I0403 17:11:48.564107 20721 net.cpp:141] Setting up inception_4a/relu_3x3_reduce
I0403 17:11:48.564138 20721 net.cpp:148] Top shape: 24 96 14 14 (451584)
I0403 17:11:48.564157 20721 net.cpp:156] Memory required for data: 865236000
I0403 17:11:48.564177 20721 layer_factory.hpp:77] Creating layer inception_4a/3x3
I0403 17:11:48.564203 20721 net.cpp:91] Creating Layer inception_4a/3x3
I0403 17:11:48.564226 20721 net.cpp:425] inception_4a/3x3 <- inception_4a/3x3_reduce
I0403 17:11:48.564254 20721 net.cpp:399] inception_4a/3x3 -> inception_4a/3x3
I0403 17:11:48.567498 20721 net.cpp:141] Setting up inception_4a/3x3
I0403 17:11:48.567534 20721 net.cpp:148] Top shape: 24 208 14 14 (978432)
I0403 17:11:48.567555 20721 net.cpp:156] Memory required for data: 869149728
I0403 17:11:48.567579 20721 layer_factory.hpp:77] Creating layer inception_4a/relu_3x3
I0403 17:11:48.567601 20721 net.cpp:91] Creating Layer inception_4a/relu_3x3
I0403 17:11:48.567628 20721 net.cpp:425] inception_4a/relu_3x3 <- inception_4a/3x3
I0403 17:11:48.567653 20721 net.cpp:386] inception_4a/relu_3x3 -> inception_4a/3x3 (in-place)
I0403 17:11:48.567996 20721 net.cpp:141] Setting up inception_4a/relu_3x3
I0403 17:11:48.568030 20721 net.cpp:148] Top shape: 24 208 14 14 (978432)
I0403 17:11:48.568048 20721 net.cpp:156] Memory required for data: 873063456
I0403 17:11:48.568068 20721 layer_factory.hpp:77] Creating layer inception_4a/5x5_reduce
I0403 17:11:48.568095 20721 net.cpp:91] Creating Layer inception_4a/5x5_reduce
I0403 17:11:48.568117 20721 net.cpp:425] inception_4a/5x5_reduce <- pool3/3x3_s2_pool3/3x3_s2_0_split_2
I0403 17:11:48.568143 20721 net.cpp:399] inception_4a/5x5_reduce -> inception_4a/5x5_reduce
I0403 17:11:48.569391 20721 net.cpp:141] Setting up inception_4a/5x5_reduce
I0403 17:11:48.569427 20721 net.cpp:148] Top shape: 24 16 14 14 (75264)
I0403 17:11:48.569447 20721 net.cpp:156] Memory required for data: 873364512
I0403 17:11:48.569470 20721 layer_factory.hpp:77] Creating layer inception_4a/relu_5x5_reduce
I0403 17:11:48.569495 20721 net.cpp:91] Creating Layer inception_4a/relu_5x5_reduce
I0403 17:11:48.569517 20721 net.cpp:425] inception_4a/relu_5x5_reduce <- inception_4a/5x5_reduce
I0403 17:11:48.569540 20721 net.cpp:386] inception_4a/relu_5x5_reduce -> inception_4a/5x5_reduce (in-place)
I0403 17:11:48.569758 20721 net.cpp:141] Setting up inception_4a/relu_5x5_reduce
I0403 17:11:48.569795 20721 net.cpp:148] Top shape: 24 16 14 14 (75264)
I0403 17:11:48.569815 20721 net.cpp:156] Memory required for data: 873665568
I0403 17:11:48.569834 20721 layer_factory.hpp:77] Creating layer inception_4a/5x5
I0403 17:11:48.569859 20721 net.cpp:91] Creating Layer inception_4a/5x5
I0403 17:11:48.569880 20721 net.cpp:425] inception_4a/5x5 <- inception_4a/5x5_reduce
I0403 17:11:48.569905 20721 net.cpp:399] inception_4a/5x5 -> inception_4a/5x5
I0403 17:11:48.571229 20721 net.cpp:141] Setting up inception_4a/5x5
I0403 17:11:48.571264 20721 net.cpp:148] Top shape: 24 48 14 14 (225792)
I0403 17:11:48.571285 20721 net.cpp:156] Memory required for data: 874568736
I0403 17:11:48.571307 20721 layer_factory.hpp:77] Creating layer inception_4a/relu_5x5
I0403 17:11:48.571331 20721 net.cpp:91] Creating Layer inception_4a/relu_5x5
I0403 17:11:48.571352 20721 net.cpp:425] inception_4a/relu_5x5 <- inception_4a/5x5
I0403 17:11:48.571374 20721 net.cpp:386] inception_4a/relu_5x5 -> inception_4a/5x5 (in-place)
I0403 17:11:48.571596 20721 net.cpp:141] Setting up inception_4a/relu_5x5
I0403 17:11:48.571635 20721 net.cpp:148] Top shape: 24 48 14 14 (225792)
I0403 17:11:48.571655 20721 net.cpp:156] Memory required for data: 875471904
I0403 17:11:48.571674 20721 layer_factory.hpp:77] Creating layer inception_4a/pool
I0403 17:11:48.571696 20721 net.cpp:91] Creating Layer inception_4a/pool
I0403 17:11:48.571714 20721 net.cpp:425] inception_4a/pool <- pool3/3x3_s2_pool3/3x3_s2_0_split_3
I0403 17:11:48.571739 20721 net.cpp:399] inception_4a/pool -> inception_4a/pool
I0403 17:11:48.571815 20721 net.cpp:141] Setting up inception_4a/pool
I0403 17:11:48.571846 20721 net.cpp:148] Top shape: 24 480 14 14 (2257920)
I0403 17:11:48.571864 20721 net.cpp:156] Memory required for data: 884503584
I0403 17:11:48.571882 20721 layer_factory.hpp:77] Creating layer inception_4a/pool_proj
I0403 17:11:48.571912 20721 net.cpp:91] Creating Layer inception_4a/pool_proj
I0403 17:11:48.571933 20721 net.cpp:425] inception_4a/pool_proj <- inception_4a/pool
I0403 17:11:48.571957 20721 net.cpp:399] inception_4a/pool_proj -> inception_4a/pool_proj
I0403 17:11:48.573382 20721 net.cpp:141] Setting up inception_4a/pool_proj
I0403 17:11:48.573421 20721 net.cpp:148] Top shape: 24 64 14 14 (301056)
I0403 17:11:48.573459 20721 net.cpp:156] Memory required for data: 885707808
I0403 17:11:48.573484 20721 layer_factory.hpp:77] Creating layer inception_4a/relu_pool_proj
I0403 17:11:48.573508 20721 net.cpp:91] Creating Layer inception_4a/relu_pool_proj
I0403 17:11:48.573526 20721 net.cpp:425] inception_4a/relu_pool_proj <- inception_4a/pool_proj
I0403 17:11:48.573554 20721 net.cpp:386] inception_4a/relu_pool_proj -> inception_4a/pool_proj (in-place)
I0403 17:11:48.573901 20721 net.cpp:141] Setting up inception_4a/relu_pool_proj
I0403 17:11:48.573938 20721 net.cpp:148] Top shape: 24 64 14 14 (301056)
I0403 17:11:48.573958 20721 net.cpp:156] Memory required for data: 886912032
I0403 17:11:48.573977 20721 layer_factory.hpp:77] Creating layer inception_4a/output
I0403 17:11:48.573999 20721 net.cpp:91] Creating Layer inception_4a/output
I0403 17:11:48.574019 20721 net.cpp:425] inception_4a/output <- inception_4a/1x1
I0403 17:11:48.574040 20721 net.cpp:425] inception_4a/output <- inception_4a/3x3
I0403 17:11:48.574060 20721 net.cpp:425] inception_4a/output <- inception_4a/5x5
I0403 17:11:48.574079 20721 net.cpp:425] inception_4a/output <- inception_4a/pool_proj
I0403 17:11:48.574102 20721 net.cpp:399] inception_4a/output -> inception_4a/output
I0403 17:11:48.574158 20721 net.cpp:141] Setting up inception_4a/output
I0403 17:11:48.574187 20721 net.cpp:148] Top shape: 24 512 14 14 (2408448)
I0403 17:11:48.574206 20721 net.cpp:156] Memory required for data: 896545824
I0403 17:11:48.574225 20721 layer_factory.hpp:77] Creating layer inception_4a/output_inception_4a/output_0_split
I0403 17:11:48.574250 20721 net.cpp:91] Creating Layer inception_4a/output_inception_4a/output_0_split
I0403 17:11:48.574271 20721 net.cpp:425] inception_4a/output_inception_4a/output_0_split <- inception_4a/output
I0403 17:11:48.574295 20721 net.cpp:399] inception_4a/output_inception_4a/output_0_split -> inception_4a/output_inception_4a/output_0_split_0
I0403 17:11:48.574319 20721 net.cpp:399] inception_4a/output_inception_4a/output_0_split -> inception_4a/output_inception_4a/output_0_split_1
I0403 17:11:48.574349 20721 net.cpp:399] inception_4a/output_inception_4a/output_0_split -> inception_4a/output_inception_4a/output_0_split_2
I0403 17:11:48.574375 20721 net.cpp:399] inception_4a/output_inception_4a/output_0_split -> inception_4a/output_inception_4a/output_0_split_3
I0403 17:11:48.574399 20721 net.cpp:399] inception_4a/output_inception_4a/output_0_split -> inception_4a/output_inception_4a/output_0_split_4
I0403 17:11:48.574513 20721 net.cpp:141] Setting up inception_4a/output_inception_4a/output_0_split
I0403 17:11:48.574543 20721 net.cpp:148] Top shape: 24 512 14 14 (2408448)
I0403 17:11:48.574563 20721 net.cpp:148] Top shape: 24 512 14 14 (2408448)
I0403 17:11:48.574582 20721 net.cpp:148] Top shape: 24 512 14 14 (2408448)
I0403 17:11:48.574607 20721 net.cpp:148] Top shape: 24 512 14 14 (2408448)
I0403 17:11:48.574630 20721 net.cpp:148] Top shape: 24 512 14 14 (2408448)
I0403 17:11:48.574646 20721 net.cpp:156] Memory required for data: 944714784
I0403 17:11:48.574666 20721 layer_factory.hpp:77] Creating layer loss1/ave_pool
I0403 17:11:48.574690 20721 net.cpp:91] Creating Layer loss1/ave_pool
I0403 17:11:48.574712 20721 net.cpp:425] loss1/ave_pool <- inception_4a/output_inception_4a/output_0_split_0
I0403 17:11:48.574733 20721 net.cpp:399] loss1/ave_pool -> loss1/ave_pool
I0403 17:11:48.574986 20721 net.cpp:141] Setting up loss1/ave_pool
I0403 17:11:48.575021 20721 net.cpp:148] Top shape: 24 512 4 4 (196608)
I0403 17:11:48.575042 20721 net.cpp:156] Memory required for data: 945501216
I0403 17:11:48.575062 20721 layer_factory.hpp:77] Creating layer loss1/conv
I0403 17:11:48.575091 20721 net.cpp:91] Creating Layer loss1/conv
I0403 17:11:48.575114 20721 net.cpp:425] loss1/conv <- loss1/ave_pool
I0403 17:11:48.575137 20721 net.cpp:399] loss1/conv -> loss1/conv
I0403 17:11:48.576864 20721 net.cpp:141] Setting up loss1/conv
I0403 17:11:48.576899 20721 net.cpp:148] Top shape: 24 128 4 4 (49152)
I0403 17:11:48.576920 20721 net.cpp:156] Memory required for data: 945697824
I0403 17:11:48.576961 20721 layer_factory.hpp:77] Creating layer loss1/relu_conv
I0403 17:11:48.576984 20721 net.cpp:91] Creating Layer loss1/relu_conv
I0403 17:11:48.577004 20721 net.cpp:425] loss1/relu_conv <- loss1/conv
I0403 17:11:48.577029 20721 net.cpp:386] loss1/relu_conv -> loss1/conv (in-place)
I0403 17:11:48.577371 20721 net.cpp:141] Setting up loss1/relu_conv
I0403 17:11:48.577404 20721 net.cpp:148] Top shape: 24 128 4 4 (49152)
I0403 17:11:48.577425 20721 net.cpp:156] Memory required for data: 945894432
I0403 17:11:48.577443 20721 layer_factory.hpp:77] Creating layer loss1/fc
I0403 17:11:48.577472 20721 net.cpp:91] Creating Layer loss1/fc
I0403 17:11:48.577494 20721 net.cpp:425] loss1/fc <- loss1/conv
I0403 17:11:48.577520 20721 net.cpp:399] loss1/fc -> loss1/fc
I0403 17:11:48.599328 20721 net.cpp:141] Setting up loss1/fc
I0403 17:11:48.599370 20721 net.cpp:148] Top shape: 24 1024 (24576)
I0403 17:11:48.599390 20721 net.cpp:156] Memory required for data: 945992736
I0403 17:11:48.599414 20721 layer_factory.hpp:77] Creating layer loss1/relu_fc
I0403 17:11:48.599438 20721 net.cpp:91] Creating Layer loss1/relu_fc
I0403 17:11:48.599459 20721 net.cpp:425] loss1/relu_fc <- loss1/fc
I0403 17:11:48.599480 20721 net.cpp:386] loss1/relu_fc -> loss1/fc (in-place)
I0403 17:11:48.599717 20721 net.cpp:141] Setting up loss1/relu_fc
I0403 17:11:48.599750 20721 net.cpp:148] Top shape: 24 1024 (24576)
I0403 17:11:48.599768 20721 net.cpp:156] Memory required for data: 946091040
I0403 17:11:48.599787 20721 layer_factory.hpp:77] Creating layer loss1/drop_fc
I0403 17:11:48.599820 20721 net.cpp:91] Creating Layer loss1/drop_fc
I0403 17:11:48.599843 20721 net.cpp:425] loss1/drop_fc <- loss1/fc
I0403 17:11:48.599870 20721 net.cpp:386] loss1/drop_fc -> loss1/fc (in-place)
I0403 17:11:48.599936 20721 net.cpp:141] Setting up loss1/drop_fc
I0403 17:11:48.599969 20721 net.cpp:148] Top shape: 24 1024 (24576)
I0403 17:11:48.599990 20721 net.cpp:156] Memory required for data: 946189344
I0403 17:11:48.600010 20721 layer_factory.hpp:77] Creating layer loss1/classifier_plantvillage
I0403 17:11:48.600033 20721 net.cpp:91] Creating Layer loss1/classifier_plantvillage
I0403 17:11:48.600051 20721 net.cpp:425] loss1/classifier_plantvillage <- loss1/fc
I0403 17:11:48.600076 20721 net.cpp:399] loss1/classifier_plantvillage -> loss1/classifier_plantvillage
I0403 17:11:48.601156 20721 net.cpp:141] Setting up loss1/classifier_plantvillage
I0403 17:11:48.601192 20721 net.cpp:148] Top shape: 24 38 (912)
I0403 17:11:48.601212 20721 net.cpp:156] Memory required for data: 946192992
I0403 17:11:48.601235 20721 layer_factory.hpp:77] Creating layer loss1/classifier_plantvillage_loss1/classifier_plantvillage_0_split
I0403 17:11:48.601258 20721 net.cpp:91] Creating Layer loss1/classifier_plantvillage_loss1/classifier_plantvillage_0_split
I0403 17:11:48.601279 20721 net.cpp:425] loss1/classifier_plantvillage_loss1/classifier_plantvillage_0_split <- loss1/classifier_plantvillage
I0403 17:11:48.601303 20721 net.cpp:399] loss1/classifier_plantvillage_loss1/classifier_plantvillage_0_split -> loss1/classifier_plantvillage_loss1/classifier_plantvillage_0_split_0
I0403 17:11:48.601330 20721 net.cpp:399] loss1/classifier_plantvillage_loss1/classifier_plantvillage_0_split -> loss1/classifier_plantvillage_loss1/classifier_plantvillage_0_split_1
I0403 17:11:48.601356 20721 net.cpp:399] loss1/classifier_plantvillage_loss1/classifier_plantvillage_0_split -> loss1/classifier_plantvillage_loss1/classifier_plantvillage_0_split_2
I0403 17:11:48.601436 20721 net.cpp:141] Setting up loss1/classifier_plantvillage_loss1/classifier_plantvillage_0_split
I0403 17:11:48.601466 20721 net.cpp:148] Top shape: 24 38 (912)
I0403 17:11:48.601487 20721 net.cpp:148] Top shape: 24 38 (912)
I0403 17:11:48.601506 20721 net.cpp:148] Top shape: 24 38 (912)
I0403 17:11:48.601523 20721 net.cpp:156] Memory required for data: 946203936
I0403 17:11:48.601542 20721 layer_factory.hpp:77] Creating layer inception_4b/1x1
I0403 17:11:48.601570 20721 net.cpp:91] Creating Layer inception_4b/1x1
I0403 17:11:48.601616 20721 net.cpp:425] inception_4b/1x1 <- inception_4a/output_inception_4a/output_0_split_1
I0403 17:11:48.601644 20721 net.cpp:399] inception_4b/1x1 -> inception_4b/1x1
I0403 17:11:48.603642 20721 net.cpp:141] Setting up inception_4b/1x1
I0403 17:11:48.603678 20721 net.cpp:148] Top shape: 24 160 14 14 (752640)
I0403 17:11:48.603699 20721 net.cpp:156] Memory required for data: 949214496
I0403 17:11:48.603724 20721 layer_factory.hpp:77] Creating layer inception_4b/relu_1x1
I0403 17:11:48.603749 20721 net.cpp:91] Creating Layer inception_4b/relu_1x1
I0403 17:11:48.603770 20721 net.cpp:425] inception_4b/relu_1x1 <- inception_4b/1x1
I0403 17:11:48.603792 20721 net.cpp:386] inception_4b/relu_1x1 -> inception_4b/1x1 (in-place)
I0403 17:11:48.604028 20721 net.cpp:141] Setting up inception_4b/relu_1x1
I0403 17:11:48.604063 20721 net.cpp:148] Top shape: 24 160 14 14 (752640)
I0403 17:11:48.604084 20721 net.cpp:156] Memory required for data: 952225056
I0403 17:11:48.604104 20721 layer_factory.hpp:77] Creating layer inception_4b/3x3_reduce
I0403 17:11:48.604128 20721 net.cpp:91] Creating Layer inception_4b/3x3_reduce
I0403 17:11:48.604148 20721 net.cpp:425] inception_4b/3x3_reduce <- inception_4a/output_inception_4a/output_0_split_2
I0403 17:11:48.604177 20721 net.cpp:399] inception_4b/3x3_reduce -> inception_4b/3x3_reduce
I0403 17:11:48.605854 20721 net.cpp:141] Setting up inception_4b/3x3_reduce
I0403 17:11:48.605888 20721 net.cpp:148] Top shape: 24 112 14 14 (526848)
I0403 17:11:48.605908 20721 net.cpp:156] Memory required for data: 954332448
I0403 17:11:48.605931 20721 layer_factory.hpp:77] Creating layer inception_4b/relu_3x3_reduce
I0403 17:11:48.605957 20721 net.cpp:91] Creating Layer inception_4b/relu_3x3_reduce
I0403 17:11:48.605978 20721 net.cpp:425] inception_4b/relu_3x3_reduce <- inception_4b/3x3_reduce
I0403 17:11:48.606000 20721 net.cpp:386] inception_4b/relu_3x3_reduce -> inception_4b/3x3_reduce (in-place)
I0403 17:11:48.606346 20721 net.cpp:141] Setting up inception_4b/relu_3x3_reduce
I0403 17:11:48.606379 20721 net.cpp:148] Top shape: 24 112 14 14 (526848)
I0403 17:11:48.606400 20721 net.cpp:156] Memory required for data: 956439840
I0403 17:11:48.606418 20721 layer_factory.hpp:77] Creating layer inception_4b/3x3
I0403 17:11:48.606446 20721 net.cpp:91] Creating Layer inception_4b/3x3
I0403 17:11:48.606469 20721 net.cpp:425] inception_4b/3x3 <- inception_4b/3x3_reduce
I0403 17:11:48.606495 20721 net.cpp:399] inception_4b/3x3 -> inception_4b/3x3
I0403 17:11:48.610110 20721 net.cpp:141] Setting up inception_4b/3x3
I0403 17:11:48.610147 20721 net.cpp:148] Top shape: 24 224 14 14 (1053696)
I0403 17:11:48.610167 20721 net.cpp:156] Memory required for data: 960654624
I0403 17:11:48.610191 20721 layer_factory.hpp:77] Creating layer inception_4b/relu_3x3
I0403 17:11:48.610213 20721 net.cpp:91] Creating Layer inception_4b/relu_3x3
I0403 17:11:48.610234 20721 net.cpp:425] inception_4b/relu_3x3 <- inception_4b/3x3
I0403 17:11:48.610260 20721 net.cpp:386] inception_4b/relu_3x3 -> inception_4b/3x3 (in-place)
I0403 17:11:48.610483 20721 net.cpp:141] Setting up inception_4b/relu_3x3
I0403 17:11:48.610515 20721 net.cpp:148] Top shape: 24 224 14 14 (1053696)
I0403 17:11:48.610534 20721 net.cpp:156] Memory required for data: 964869408
I0403 17:11:48.610553 20721 layer_factory.hpp:77] Creating layer inception_4b/5x5_reduce
I0403 17:11:48.610579 20721 net.cpp:91] Creating Layer inception_4b/5x5_reduce
I0403 17:11:48.610606 20721 net.cpp:425] inception_4b/5x5_reduce <- inception_4a/output_inception_4a/output_0_split_3
I0403 17:11:48.610637 20721 net.cpp:399] inception_4b/5x5_reduce -> inception_4b/5x5_reduce
I0403 17:11:48.611969 20721 net.cpp:141] Setting up inception_4b/5x5_reduce
I0403 17:11:48.612004 20721 net.cpp:148] Top shape: 24 24 14 14 (112896)
I0403 17:11:48.612025 20721 net.cpp:156] Memory required for data: 965320992
I0403 17:11:48.612046 20721 layer_factory.hpp:77] Creating layer inception_4b/relu_5x5_reduce
I0403 17:11:48.612072 20721 net.cpp:91] Creating Layer inception_4b/relu_5x5_reduce
I0403 17:11:48.612112 20721 net.cpp:425] inception_4b/relu_5x5_reduce <- inception_4b/5x5_reduce
I0403 17:11:48.612135 20721 net.cpp:386] inception_4b/relu_5x5_reduce -> inception_4b/5x5_reduce (in-place)
I0403 17:11:48.612360 20721 net.cpp:141] Setting up inception_4b/relu_5x5_reduce
I0403 17:11:48.612395 20721 net.cpp:148] Top shape: 24 24 14 14 (112896)
I0403 17:11:48.612414 20721 net.cpp:156] Memory required for data: 965772576
I0403 17:11:48.612433 20721 layer_factory.hpp:77] Creating layer inception_4b/5x5
I0403 17:11:48.612460 20721 net.cpp:91] Creating Layer inception_4b/5x5
I0403 17:11:48.612483 20721 net.cpp:425] inception_4b/5x5 <- inception_4b/5x5_reduce
I0403 17:11:48.612505 20721 net.cpp:399] inception_4b/5x5 -> inception_4b/5x5
I0403 17:11:48.614008 20721 net.cpp:141] Setting up inception_4b/5x5
I0403 17:11:48.614043 20721 net.cpp:148] Top shape: 24 64 14 14 (301056)
I0403 17:11:48.614063 20721 net.cpp:156] Memory required for data: 966976800
I0403 17:11:48.614086 20721 layer_factory.hpp:77] Creating layer inception_4b/relu_5x5
I0403 17:11:48.614112 20721 net.cpp:91] Creating Layer inception_4b/relu_5x5
I0403 17:11:48.614135 20721 net.cpp:425] inception_4b/relu_5x5 <- inception_4b/5x5
I0403 17:11:48.614156 20721 net.cpp:386] inception_4b/relu_5x5 -> inception_4b/5x5 (in-place)
I0403 17:11:48.614503 20721 net.cpp:141] Setting up inception_4b/relu_5x5
I0403 17:11:48.614537 20721 net.cpp:148] Top shape: 24 64 14 14 (301056)
I0403 17:11:48.614557 20721 net.cpp:156] Memory required for data: 968181024
I0403 17:11:48.614576 20721 layer_factory.hpp:77] Creating layer inception_4b/pool
I0403 17:11:48.614599 20721 net.cpp:91] Creating Layer inception_4b/pool
I0403 17:11:48.614625 20721 net.cpp:425] inception_4b/pool <- inception_4a/output_inception_4a/output_0_split_4
I0403 17:11:48.614651 20721 net.cpp:399] inception_4b/pool -> inception_4b/pool
I0403 17:11:48.614732 20721 net.cpp:141] Setting up inception_4b/pool
I0403 17:11:48.614761 20721 net.cpp:148] Top shape: 24 512 14 14 (2408448)
I0403 17:11:48.614780 20721 net.cpp:156] Memory required for data: 977814816
I0403 17:11:48.614801 20721 layer_factory.hpp:77] Creating layer inception_4b/pool_proj
I0403 17:11:48.614830 20721 net.cpp:91] Creating Layer inception_4b/pool_proj
I0403 17:11:48.614851 20721 net.cpp:425] inception_4b/pool_proj <- inception_4b/pool
I0403 17:11:48.614876 20721 net.cpp:399] inception_4b/pool_proj -> inception_4b/pool_proj
I0403 17:11:48.616350 20721 net.cpp:141] Setting up inception_4b/pool_proj
I0403 17:11:48.616386 20721 net.cpp:148] Top shape: 24 64 14 14 (301056)
I0403 17:11:48.616407 20721 net.cpp:156] Memory required for data: 979019040
I0403 17:11:48.616431 20721 layer_factory.hpp:77] Creating layer inception_4b/relu_pool_proj
I0403 17:11:48.616456 20721 net.cpp:91] Creating Layer inception_4b/relu_pool_proj
I0403 17:11:48.616477 20721 net.cpp:425] inception_4b/relu_pool_proj <- inception_4b/pool_proj
I0403 17:11:48.616498 20721 net.cpp:386] inception_4b/relu_pool_proj -> inception_4b/pool_proj (in-place)
I0403 17:11:48.616725 20721 net.cpp:141] Setting up inception_4b/relu_pool_proj
I0403 17:11:48.616760 20721 net.cpp:148] Top shape: 24 64 14 14 (301056)
I0403 17:11:48.616780 20721 net.cpp:156] Memory required for data: 980223264
I0403 17:11:48.616799 20721 layer_factory.hpp:77] Creating layer inception_4b/output
I0403 17:11:48.616822 20721 net.cpp:91] Creating Layer inception_4b/output
I0403 17:11:48.616842 20721 net.cpp:425] inception_4b/output <- inception_4b/1x1
I0403 17:11:48.616863 20721 net.cpp:425] inception_4b/output <- inception_4b/3x3
I0403 17:11:48.616884 20721 net.cpp:425] inception_4b/output <- inception_4b/5x5
I0403 17:11:48.616904 20721 net.cpp:425] inception_4b/output <- inception_4b/pool_proj
I0403 17:11:48.616925 20721 net.cpp:399] inception_4b/output -> inception_4b/output
I0403 17:11:48.616984 20721 net.cpp:141] Setting up inception_4b/output
I0403 17:11:48.617013 20721 net.cpp:148] Top shape: 24 512 14 14 (2408448)
I0403 17:11:48.617033 20721 net.cpp:156] Memory required for data: 989857056
I0403 17:11:48.617069 20721 layer_factory.hpp:77] Creating layer inception_4b/output_inception_4b/output_0_split
I0403 17:11:48.617094 20721 net.cpp:91] Creating Layer inception_4b/output_inception_4b/output_0_split
I0403 17:11:48.617115 20721 net.cpp:425] inception_4b/output_inception_4b/output_0_split <- inception_4b/output
I0403 17:11:48.617137 20721 net.cpp:399] inception_4b/output_inception_4b/output_0_split -> inception_4b/output_inception_4b/output_0_split_0
I0403 17:11:48.617163 20721 net.cpp:399] inception_4b/output_inception_4b/output_0_split -> inception_4b/output_inception_4b/output_0_split_1
I0403 17:11:48.617188 20721 net.cpp:399] inception_4b/output_inception_4b/output_0_split -> inception_4b/output_inception_4b/output_0_split_2
I0403 17:11:48.617214 20721 net.cpp:399] inception_4b/output_inception_4b/output_0_split -> inception_4b/output_inception_4b/output_0_split_3
I0403 17:11:48.617321 20721 net.cpp:141] Setting up inception_4b/output_inception_4b/output_0_split
I0403 17:11:48.617349 20721 net.cpp:148] Top shape: 24 512 14 14 (2408448)
I0403 17:11:48.617370 20721 net.cpp:148] Top shape: 24 512 14 14 (2408448)
I0403 17:11:48.617390 20721 net.cpp:148] Top shape: 24 512 14 14 (2408448)
I0403 17:11:48.617410 20721 net.cpp:148] Top shape: 24 512 14 14 (2408448)
I0403 17:11:48.617427 20721 net.cpp:156] Memory required for data: 1028392224
I0403 17:11:48.617446 20721 layer_factory.hpp:77] Creating layer inception_4c/1x1
I0403 17:11:48.617472 20721 net.cpp:91] Creating Layer inception_4c/1x1
I0403 17:11:48.617494 20721 net.cpp:425] inception_4c/1x1 <- inception_4b/output_inception_4b/output_0_split_0
I0403 17:11:48.617521 20721 net.cpp:399] inception_4c/1x1 -> inception_4c/1x1
I0403 17:11:48.619271 20721 net.cpp:141] Setting up inception_4c/1x1
I0403 17:11:48.619310 20721 net.cpp:148] Top shape: 24 128 14 14 (602112)
I0403 17:11:48.619333 20721 net.cpp:156] Memory required for data: 1030800672
I0403 17:11:48.619356 20721 layer_factory.hpp:77] Creating layer inception_4c/relu_1x1
I0403 17:11:48.619379 20721 net.cpp:91] Creating Layer inception_4c/relu_1x1
I0403 17:11:48.619398 20721 net.cpp:425] inception_4c/relu_1x1 <- inception_4c/1x1
I0403 17:11:48.619420 20721 net.cpp:386] inception_4c/relu_1x1 -> inception_4c/1x1 (in-place)
I0403 17:11:48.619652 20721 net.cpp:141] Setting up inception_4c/relu_1x1
I0403 17:11:48.619684 20721 net.cpp:148] Top shape: 24 128 14 14 (602112)
I0403 17:11:48.619704 20721 net.cpp:156] Memory required for data: 1033209120
I0403 17:11:48.619722 20721 layer_factory.hpp:77] Creating layer inception_4c/3x3_reduce
I0403 17:11:48.619750 20721 net.cpp:91] Creating Layer inception_4c/3x3_reduce
I0403 17:11:48.619771 20721 net.cpp:425] inception_4c/3x3_reduce <- inception_4b/output_inception_4b/output_0_split_1
I0403 17:11:48.619797 20721 net.cpp:399] inception_4c/3x3_reduce -> inception_4c/3x3_reduce
I0403 17:11:48.622133 20721 net.cpp:141] Setting up inception_4c/3x3_reduce
I0403 17:11:48.622169 20721 net.cpp:148] Top shape: 24 128 14 14 (602112)
I0403 17:11:48.622190 20721 net.cpp:156] Memory required for data: 1035617568
I0403 17:11:48.622213 20721 layer_factory.hpp:77] Creating layer inception_4c/relu_3x3_reduce
I0403 17:11:48.622239 20721 net.cpp:91] Creating Layer inception_4c/relu_3x3_reduce
I0403 17:11:48.622262 20721 net.cpp:425] inception_4c/relu_3x3_reduce <- inception_4c/3x3_reduce
I0403 17:11:48.622284 20721 net.cpp:386] inception_4c/relu_3x3_reduce -> inception_4c/3x3_reduce (in-place)
I0403 17:11:48.622637 20721 net.cpp:141] Setting up inception_4c/relu_3x3_reduce
I0403 17:11:48.622670 20721 net.cpp:148] Top shape: 24 128 14 14 (602112)
I0403 17:11:48.622690 20721 net.cpp:156] Memory required for data: 1038026016
I0403 17:11:48.622709 20721 layer_factory.hpp:77] Creating layer inception_4c/3x3
I0403 17:11:48.622736 20721 net.cpp:91] Creating Layer inception_4c/3x3
I0403 17:11:48.622758 20721 net.cpp:425] inception_4c/3x3 <- inception_4c/3x3_reduce
I0403 17:11:48.622786 20721 net.cpp:399] inception_4c/3x3 -> inception_4c/3x3
I0403 17:11:48.627166 20721 net.cpp:141] Setting up inception_4c/3x3
I0403 17:11:48.627218 20721 net.cpp:148] Top shape: 24 256 14 14 (1204224)
I0403 17:11:48.627239 20721 net.cpp:156] Memory required for data: 1042842912
I0403 17:11:48.627279 20721 layer_factory.hpp:77] Creating layer inception_4c/relu_3x3
I0403 17:11:48.627308 20721 net.cpp:91] Creating Layer inception_4c/relu_3x3
I0403 17:11:48.627331 20721 net.cpp:425] inception_4c/relu_3x3 <- inception_4c/3x3
I0403 17:11:48.627351 20721 net.cpp:386] inception_4c/relu_3x3 -> inception_4c/3x3 (in-place)
I0403 17:11:48.627574 20721 net.cpp:141] Setting up inception_4c/relu_3x3
I0403 17:11:48.627610 20721 net.cpp:148] Top shape: 24 256 14 14 (1204224)
I0403 17:11:48.627631 20721 net.cpp:156] Memory required for data: 1047659808
I0403 17:11:48.627650 20721 layer_factory.hpp:77] Creating layer inception_4c/5x5_reduce
I0403 17:11:48.627679 20721 net.cpp:91] Creating Layer inception_4c/5x5_reduce
I0403 17:11:48.627703 20721 net.cpp:425] inception_4c/5x5_reduce <- inception_4b/output_inception_4b/output_0_split_2
I0403 17:11:48.627729 20721 net.cpp:399] inception_4c/5x5_reduce -> inception_4c/5x5_reduce
I0403 17:11:48.629068 20721 net.cpp:141] Setting up inception_4c/5x5_reduce
I0403 17:11:48.629106 20721 net.cpp:148] Top shape: 24 24 14 14 (112896)
I0403 17:11:48.629124 20721 net.cpp:156] Memory required for data: 1048111392
I0403 17:11:48.629148 20721 layer_factory.hpp:77] Creating layer inception_4c/relu_5x5_reduce
I0403 17:11:48.629173 20721 net.cpp:91] Creating Layer inception_4c/relu_5x5_reduce
I0403 17:11:48.629194 20721 net.cpp:425] inception_4c/relu_5x5_reduce <- inception_4c/5x5_reduce
I0403 17:11:48.629215 20721 net.cpp:386] inception_4c/relu_5x5_reduce -> inception_4c/5x5_reduce (in-place)
I0403 17:11:48.629441 20721 net.cpp:141] Setting up inception_4c/relu_5x5_reduce
I0403 17:11:48.629473 20721 net.cpp:148] Top shape: 24 24 14 14 (112896)
I0403 17:11:48.629492 20721 net.cpp:156] Memory required for data: 1048562976
I0403 17:11:48.629513 20721 layer_factory.hpp:77] Creating layer inception_4c/5x5
I0403 17:11:48.629541 20721 net.cpp:91] Creating Layer inception_4c/5x5
I0403 17:11:48.629564 20721 net.cpp:425] inception_4c/5x5 <- inception_4c/5x5_reduce
I0403 17:11:48.629586 20721 net.cpp:399] inception_4c/5x5 -> inception_4c/5x5
I0403 17:11:48.631114 20721 net.cpp:141] Setting up inception_4c/5x5
I0403 17:11:48.631151 20721 net.cpp:148] Top shape: 24 64 14 14 (301056)
I0403 17:11:48.631172 20721 net.cpp:156] Memory required for data: 1049767200
I0403 17:11:48.631196 20721 layer_factory.hpp:77] Creating layer inception_4c/relu_5x5
I0403 17:11:48.631218 20721 net.cpp:91] Creating Layer inception_4c/relu_5x5
I0403 17:11:48.631239 20721 net.cpp:425] inception_4c/relu_5x5 <- inception_4c/5x5
I0403 17:11:48.631260 20721 net.cpp:386] inception_4c/relu_5x5 -> inception_4c/5x5 (in-place)
I0403 17:11:48.631616 20721 net.cpp:141] Setting up inception_4c/relu_5x5
I0403 17:11:48.631652 20721 net.cpp:148] Top shape: 24 64 14 14 (301056)
I0403 17:11:48.631675 20721 net.cpp:156] Memory required for data: 1050971424
I0403 17:11:48.631692 20721 layer_factory.hpp:77] Creating layer inception_4c/pool
I0403 17:11:48.631714 20721 net.cpp:91] Creating Layer inception_4c/pool
I0403 17:11:48.631736 20721 net.cpp:425] inception_4c/pool <- inception_4b/output_inception_4b/output_0_split_3
I0403 17:11:48.631758 20721 net.cpp:399] inception_4c/pool -> inception_4c/pool
I0403 17:11:48.631841 20721 net.cpp:141] Setting up inception_4c/pool
I0403 17:11:48.631871 20721 net.cpp:148] Top shape: 24 512 14 14 (2408448)
I0403 17:11:48.631891 20721 net.cpp:156] Memory required for data: 1060605216
I0403 17:11:48.631907 20721 layer_factory.hpp:77] Creating layer inception_4c/pool_proj
I0403 17:11:48.631934 20721 net.cpp:91] Creating Layer inception_4c/pool_proj
I0403 17:11:48.631956 20721 net.cpp:425] inception_4c/pool_proj <- inception_4c/pool
I0403 17:11:48.631983 20721 net.cpp:399] inception_4c/pool_proj -> inception_4c/pool_proj
I0403 17:11:48.633477 20721 net.cpp:141] Setting up inception_4c/pool_proj
I0403 17:11:48.633513 20721 net.cpp:148] Top shape: 24 64 14 14 (301056)
I0403 17:11:48.633550 20721 net.cpp:156] Memory required for data: 1061809440
I0403 17:11:48.633575 20721 layer_factory.hpp:77] Creating layer inception_4c/relu_pool_proj
I0403 17:11:48.633606 20721 net.cpp:91] Creating Layer inception_4c/relu_pool_proj
I0403 17:11:48.633630 20721 net.cpp:425] inception_4c/relu_pool_proj <- inception_4c/pool_proj
I0403 17:11:48.633653 20721 net.cpp:386] inception_4c/relu_pool_proj -> inception_4c/pool_proj (in-place)
I0403 17:11:48.633877 20721 net.cpp:141] Setting up inception_4c/relu_pool_proj
I0403 17:11:48.633910 20721 net.cpp:148] Top shape: 24 64 14 14 (301056)
I0403 17:11:48.633930 20721 net.cpp:156] Memory required for data: 1063013664
I0403 17:11:48.633949 20721 layer_factory.hpp:77] Creating layer inception_4c/output
I0403 17:11:48.633971 20721 net.cpp:91] Creating Layer inception_4c/output
I0403 17:11:48.633991 20721 net.cpp:425] inception_4c/output <- inception_4c/1x1
I0403 17:11:48.634011 20721 net.cpp:425] inception_4c/output <- inception_4c/3x3
I0403 17:11:48.634032 20721 net.cpp:425] inception_4c/output <- inception_4c/5x5
I0403 17:11:48.634050 20721 net.cpp:425] inception_4c/output <- inception_4c/pool_proj
I0403 17:11:48.634071 20721 net.cpp:399] inception_4c/output -> inception_4c/output
I0403 17:11:48.634132 20721 net.cpp:141] Setting up inception_4c/output
I0403 17:11:48.634162 20721 net.cpp:148] Top shape: 24 512 14 14 (2408448)
I0403 17:11:48.634181 20721 net.cpp:156] Memory required for data: 1072647456
I0403 17:11:48.634202 20721 layer_factory.hpp:77] Creating layer inception_4c/output_inception_4c/output_0_split
I0403 17:11:48.634225 20721 net.cpp:91] Creating Layer inception_4c/output_inception_4c/output_0_split
I0403 17:11:48.634246 20721 net.cpp:425] inception_4c/output_inception_4c/output_0_split <- inception_4c/output
I0403 17:11:48.634268 20721 net.cpp:399] inception_4c/output_inception_4c/output_0_split -> inception_4c/output_inception_4c/output_0_split_0
I0403 17:11:48.634294 20721 net.cpp:399] inception_4c/output_inception_4c/output_0_split -> inception_4c/output_inception_4c/output_0_split_1
I0403 17:11:48.634320 20721 net.cpp:399] inception_4c/output_inception_4c/output_0_split -> inception_4c/output_inception_4c/output_0_split_2
I0403 17:11:48.634346 20721 net.cpp:399] inception_4c/output_inception_4c/output_0_split -> inception_4c/output_inception_4c/output_0_split_3
I0403 17:11:48.634450 20721 net.cpp:141] Setting up inception_4c/output_inception_4c/output_0_split
I0403 17:11:48.634479 20721 net.cpp:148] Top shape: 24 512 14 14 (2408448)
I0403 17:11:48.634500 20721 net.cpp:148] Top shape: 24 512 14 14 (2408448)
I0403 17:11:48.634521 20721 net.cpp:148] Top shape: 24 512 14 14 (2408448)
I0403 17:11:48.634541 20721 net.cpp:148] Top shape: 24 512 14 14 (2408448)
I0403 17:11:48.634558 20721 net.cpp:156] Memory required for data: 1111182624
I0403 17:11:48.634575 20721 layer_factory.hpp:77] Creating layer inception_4d/1x1
I0403 17:11:48.634608 20721 net.cpp:91] Creating Layer inception_4d/1x1
I0403 17:11:48.634631 20721 net.cpp:425] inception_4d/1x1 <- inception_4c/output_inception_4c/output_0_split_0
I0403 17:11:48.634660 20721 net.cpp:399] inception_4d/1x1 -> inception_4d/1x1
I0403 17:11:48.636359 20721 net.cpp:141] Setting up inception_4d/1x1
I0403 17:11:48.636396 20721 net.cpp:148] Top shape: 24 112 14 14 (526848)
I0403 17:11:48.636416 20721 net.cpp:156] Memory required for data: 1113290016
I0403 17:11:48.636440 20721 layer_factory.hpp:77] Creating layer inception_4d/relu_1x1
I0403 17:11:48.636461 20721 net.cpp:91] Creating Layer inception_4d/relu_1x1
I0403 17:11:48.636482 20721 net.cpp:425] inception_4d/relu_1x1 <- inception_4d/1x1
I0403 17:11:48.636505 20721 net.cpp:386] inception_4d/relu_1x1 -> inception_4d/1x1 (in-place)
I0403 17:11:48.636736 20721 net.cpp:141] Setting up inception_4d/relu_1x1
I0403 17:11:48.636768 20721 net.cpp:148] Top shape: 24 112 14 14 (526848)
I0403 17:11:48.636787 20721 net.cpp:156] Memory required for data: 1115397408
I0403 17:11:48.636806 20721 layer_factory.hpp:77] Creating layer inception_4d/3x3_reduce
I0403 17:11:48.636853 20721 net.cpp:91] Creating Layer inception_4d/3x3_reduce
I0403 17:11:48.636876 20721 net.cpp:425] inception_4d/3x3_reduce <- inception_4c/output_inception_4c/output_0_split_1
I0403 17:11:48.636904 20721 net.cpp:399] inception_4d/3x3_reduce -> inception_4d/3x3_reduce
I0403 17:11:48.638757 20721 net.cpp:141] Setting up inception_4d/3x3_reduce
I0403 17:11:48.638795 20721 net.cpp:148] Top shape: 24 144 14 14 (677376)
I0403 17:11:48.638816 20721 net.cpp:156] Memory required for data: 1118106912
I0403 17:11:48.638839 20721 layer_factory.hpp:77] Creating layer inception_4d/relu_3x3_reduce
I0403 17:11:48.638862 20721 net.cpp:91] Creating Layer inception_4d/relu_3x3_reduce
I0403 17:11:48.638883 20721 net.cpp:425] inception_4d/relu_3x3_reduce <- inception_4d/3x3_reduce
I0403 17:11:48.638908 20721 net.cpp:386] inception_4d/relu_3x3_reduce -> inception_4d/3x3_reduce (in-place)
I0403 17:11:48.639261 20721 net.cpp:141] Setting up inception_4d/relu_3x3_reduce
I0403 17:11:48.639297 20721 net.cpp:148] Top shape: 24 144 14 14 (677376)
I0403 17:11:48.639317 20721 net.cpp:156] Memory required for data: 1120816416
I0403 17:11:48.639336 20721 layer_factory.hpp:77] Creating layer inception_4d/3x3
I0403 17:11:48.639364 20721 net.cpp:91] Creating Layer inception_4d/3x3
I0403 17:11:48.639386 20721 net.cpp:425] inception_4d/3x3 <- inception_4d/3x3_reduce
I0403 17:11:48.639410 20721 net.cpp:399] inception_4d/3x3 -> inception_4d/3x3
I0403 17:11:48.644644 20721 net.cpp:141] Setting up inception_4d/3x3
I0403 17:11:48.644681 20721 net.cpp:148] Top shape: 24 288 14 14 (1354752)
I0403 17:11:48.644701 20721 net.cpp:156] Memory required for data: 1126235424
I0403 17:11:48.644726 20721 layer_factory.hpp:77] Creating layer inception_4d/relu_3x3
I0403 17:11:48.644749 20721 net.cpp:91] Creating Layer inception_4d/relu_3x3
I0403 17:11:48.644774 20721 net.cpp:425] inception_4d/relu_3x3 <- inception_4d/3x3
I0403 17:11:48.644795 20721 net.cpp:386] inception_4d/relu_3x3 -> inception_4d/3x3 (in-place)
I0403 17:11:48.645020 20721 net.cpp:141] Setting up inception_4d/relu_3x3
I0403 17:11:48.645052 20721 net.cpp:148] Top shape: 24 288 14 14 (1354752)
I0403 17:11:48.645071 20721 net.cpp:156] Memory required for data: 1131654432
I0403 17:11:48.645090 20721 layer_factory.hpp:77] Creating layer inception_4d/5x5_reduce
I0403 17:11:48.645117 20721 net.cpp:91] Creating Layer inception_4d/5x5_reduce
I0403 17:11:48.645140 20721 net.cpp:425] inception_4d/5x5_reduce <- inception_4c/output_inception_4c/output_0_split_2
I0403 17:11:48.645167 20721 net.cpp:399] inception_4d/5x5_reduce -> inception_4d/5x5_reduce
I0403 17:11:48.646577 20721 net.cpp:141] Setting up inception_4d/5x5_reduce
I0403 17:11:48.646618 20721 net.cpp:148] Top shape: 24 32 14 14 (150528)
I0403 17:11:48.646641 20721 net.cpp:156] Memory required for data: 1132256544
I0403 17:11:48.646663 20721 layer_factory.hpp:77] Creating layer inception_4d/relu_5x5_reduce
I0403 17:11:48.646685 20721 net.cpp:91] Creating Layer inception_4d/relu_5x5_reduce
I0403 17:11:48.646706 20721 net.cpp:425] inception_4d/relu_5x5_reduce <- inception_4d/5x5_reduce
I0403 17:11:48.646731 20721 net.cpp:386] inception_4d/relu_5x5_reduce -> inception_4d/5x5_reduce (in-place)
I0403 17:11:48.646965 20721 net.cpp:141] Setting up inception_4d/relu_5x5_reduce
I0403 17:11:48.646997 20721 net.cpp:148] Top shape: 24 32 14 14 (150528)
I0403 17:11:48.647017 20721 net.cpp:156] Memory required for data: 1132858656
I0403 17:11:48.647037 20721 layer_factory.hpp:77] Creating layer inception_4d/5x5
I0403 17:11:48.647063 20721 net.cpp:91] Creating Layer inception_4d/5x5
I0403 17:11:48.647086 20721 net.cpp:425] inception_4d/5x5 <- inception_4d/5x5_reduce
I0403 17:11:48.647111 20721 net.cpp:399] inception_4d/5x5 -> inception_4d/5x5
I0403 17:11:48.648908 20721 net.cpp:141] Setting up inception_4d/5x5
I0403 17:11:48.648943 20721 net.cpp:148] Top shape: 24 64 14 14 (301056)
I0403 17:11:48.648964 20721 net.cpp:156] Memory required for data: 1134062880
I0403 17:11:48.648988 20721 layer_factory.hpp:77] Creating layer inception_4d/relu_5x5
I0403 17:11:48.649030 20721 net.cpp:91] Creating Layer inception_4d/relu_5x5
I0403 17:11:48.649054 20721 net.cpp:425] inception_4d/relu_5x5 <- inception_4d/5x5
I0403 17:11:48.649075 20721 net.cpp:386] inception_4d/relu_5x5 -> inception_4d/5x5 (in-place)
I0403 17:11:48.649441 20721 net.cpp:141] Setting up inception_4d/relu_5x5
I0403 17:11:48.649473 20721 net.cpp:148] Top shape: 24 64 14 14 (301056)
I0403 17:11:48.649493 20721 net.cpp:156] Memory required for data: 1135267104
I0403 17:11:48.649512 20721 layer_factory.hpp:77] Creating layer inception_4d/pool
I0403 17:11:48.649536 20721 net.cpp:91] Creating Layer inception_4d/pool
I0403 17:11:48.649559 20721 net.cpp:425] inception_4d/pool <- inception_4c/output_inception_4c/output_0_split_3
I0403 17:11:48.649583 20721 net.cpp:399] inception_4d/pool -> inception_4d/pool
I0403 17:11:48.649675 20721 net.cpp:141] Setting up inception_4d/pool
I0403 17:11:48.649706 20721 net.cpp:148] Top shape: 24 512 14 14 (2408448)
I0403 17:11:48.649725 20721 net.cpp:156] Memory required for data: 1144900896
I0403 17:11:48.649744 20721 layer_factory.hpp:77] Creating layer inception_4d/pool_proj
I0403 17:11:48.649770 20721 net.cpp:91] Creating Layer inception_4d/pool_proj
I0403 17:11:48.649794 20721 net.cpp:425] inception_4d/pool_proj <- inception_4d/pool
I0403 17:11:48.649821 20721 net.cpp:399] inception_4d/pool_proj -> inception_4d/pool_proj
I0403 17:11:48.651952 20721 net.cpp:141] Setting up inception_4d/pool_proj
I0403 17:11:48.651988 20721 net.cpp:148] Top shape: 24 64 14 14 (301056)
I0403 17:11:48.652009 20721 net.cpp:156] Memory required for data: 1146105120
I0403 17:11:48.652031 20721 layer_factory.hpp:77] Creating layer inception_4d/relu_pool_proj
I0403 17:11:48.652055 20721 net.cpp:91] Creating Layer inception_4d/relu_pool_proj
I0403 17:11:48.652081 20721 net.cpp:425] inception_4d/relu_pool_proj <- inception_4d/pool_proj
I0403 17:11:48.652102 20721 net.cpp:386] inception_4d/relu_pool_proj -> inception_4d/pool_proj (in-place)
I0403 17:11:48.652329 20721 net.cpp:141] Setting up inception_4d/relu_pool_proj
I0403 17:11:48.652362 20721 net.cpp:148] Top shape: 24 64 14 14 (301056)
I0403 17:11:48.652380 20721 net.cpp:156] Memory required for data: 1147309344
I0403 17:11:48.652400 20721 layer_factory.hpp:77] Creating layer inception_4d/output
I0403 17:11:48.652425 20721 net.cpp:91] Creating Layer inception_4d/output
I0403 17:11:48.652446 20721 net.cpp:425] inception_4d/output <- inception_4d/1x1
I0403 17:11:48.652468 20721 net.cpp:425] inception_4d/output <- inception_4d/3x3
I0403 17:11:48.652488 20721 net.cpp:425] inception_4d/output <- inception_4d/5x5
I0403 17:11:48.652508 20721 net.cpp:425] inception_4d/output <- inception_4d/pool_proj
I0403 17:11:48.652530 20721 net.cpp:399] inception_4d/output -> inception_4d/output
I0403 17:11:48.652593 20721 net.cpp:141] Setting up inception_4d/output
I0403 17:11:48.652627 20721 net.cpp:148] Top shape: 24 528 14 14 (2483712)
I0403 17:11:48.652647 20721 net.cpp:156] Memory required for data: 1157244192
I0403 17:11:48.652665 20721 layer_factory.hpp:77] Creating layer inception_4d/output_inception_4d/output_0_split
I0403 17:11:48.652688 20721 net.cpp:91] Creating Layer inception_4d/output_inception_4d/output_0_split
I0403 17:11:48.652707 20721 net.cpp:425] inception_4d/output_inception_4d/output_0_split <- inception_4d/output
I0403 17:11:48.652734 20721 net.cpp:399] inception_4d/output_inception_4d/output_0_split -> inception_4d/output_inception_4d/output_0_split_0
I0403 17:11:48.652762 20721 net.cpp:399] inception_4d/output_inception_4d/output_0_split -> inception_4d/output_inception_4d/output_0_split_1
I0403 17:11:48.652787 20721 net.cpp:399] inception_4d/output_inception_4d/output_0_split -> inception_4d/output_inception_4d/output_0_split_2
I0403 17:11:48.652812 20721 net.cpp:399] inception_4d/output_inception_4d/output_0_split -> inception_4d/output_inception_4d/output_0_split_3
I0403 17:11:48.652837 20721 net.cpp:399] inception_4d/output_inception_4d/output_0_split -> inception_4d/output_inception_4d/output_0_split_4
I0403 17:11:48.652968 20721 net.cpp:141] Setting up inception_4d/output_inception_4d/output_0_split
I0403 17:11:48.653014 20721 net.cpp:148] Top shape: 24 528 14 14 (2483712)
I0403 17:11:48.653036 20721 net.cpp:148] Top shape: 24 528 14 14 (2483712)
I0403 17:11:48.653056 20721 net.cpp:148] Top shape: 24 528 14 14 (2483712)
I0403 17:11:48.653075 20721 net.cpp:148] Top shape: 24 528 14 14 (2483712)
I0403 17:11:48.653095 20721 net.cpp:148] Top shape: 24 528 14 14 (2483712)
I0403 17:11:48.653112 20721 net.cpp:156] Memory required for data: 1206918432
I0403 17:11:48.653131 20721 layer_factory.hpp:77] Creating layer loss2/ave_pool
I0403 17:11:48.653152 20721 net.cpp:91] Creating Layer loss2/ave_pool
I0403 17:11:48.653173 20721 net.cpp:425] loss2/ave_pool <- inception_4d/output_inception_4d/output_0_split_0
I0403 17:11:48.653199 20721 net.cpp:399] loss2/ave_pool -> loss2/ave_pool
I0403 17:11:48.653583 20721 net.cpp:141] Setting up loss2/ave_pool
I0403 17:11:48.653620 20721 net.cpp:148] Top shape: 24 528 4 4 (202752)
I0403 17:11:48.653640 20721 net.cpp:156] Memory required for data: 1207729440
I0403 17:11:48.653661 20721 layer_factory.hpp:77] Creating layer loss2/conv
I0403 17:11:48.653688 20721 net.cpp:91] Creating Layer loss2/conv
I0403 17:11:48.653712 20721 net.cpp:425] loss2/conv <- loss2/ave_pool
I0403 17:11:48.653738 20721 net.cpp:399] loss2/conv -> loss2/conv
I0403 17:11:48.656045 20721 net.cpp:141] Setting up loss2/conv
I0403 17:11:48.656080 20721 net.cpp:148] Top shape: 24 128 4 4 (49152)
I0403 17:11:48.656101 20721 net.cpp:156] Memory required for data: 1207926048
I0403 17:11:48.656124 20721 layer_factory.hpp:77] Creating layer loss2/relu_conv
I0403 17:11:48.656150 20721 net.cpp:91] Creating Layer loss2/relu_conv
I0403 17:11:48.656173 20721 net.cpp:425] loss2/relu_conv <- loss2/conv
I0403 17:11:48.656195 20721 net.cpp:386] loss2/relu_conv -> loss2/conv (in-place)
I0403 17:11:48.656540 20721 net.cpp:141] Setting up loss2/relu_conv
I0403 17:11:48.656574 20721 net.cpp:148] Top shape: 24 128 4 4 (49152)
I0403 17:11:48.656594 20721 net.cpp:156] Memory required for data: 1208122656
I0403 17:11:48.656618 20721 layer_factory.hpp:77] Creating layer loss2/fc
I0403 17:11:48.656644 20721 net.cpp:91] Creating Layer loss2/fc
I0403 17:11:48.656666 20721 net.cpp:425] loss2/fc <- loss2/conv
I0403 17:11:48.656692 20721 net.cpp:399] loss2/fc -> loss2/fc
I0403 17:11:48.678539 20721 net.cpp:141] Setting up loss2/fc
I0403 17:11:48.678580 20721 net.cpp:148] Top shape: 24 1024 (24576)
I0403 17:11:48.678599 20721 net.cpp:156] Memory required for data: 1208220960
I0403 17:11:48.678628 20721 layer_factory.hpp:77] Creating layer loss2/relu_fc
I0403 17:11:48.678652 20721 net.cpp:91] Creating Layer loss2/relu_fc
I0403 17:11:48.678673 20721 net.cpp:425] loss2/relu_fc <- loss2/fc
I0403 17:11:48.678697 20721 net.cpp:386] loss2/relu_fc -> loss2/fc (in-place)
I0403 17:11:48.679062 20721 net.cpp:141] Setting up loss2/relu_fc
I0403 17:11:48.679096 20721 net.cpp:148] Top shape: 24 1024 (24576)
I0403 17:11:48.679116 20721 net.cpp:156] Memory required for data: 1208319264
I0403 17:11:48.679136 20721 layer_factory.hpp:77] Creating layer loss2/drop_fc
I0403 17:11:48.679157 20721 net.cpp:91] Creating Layer loss2/drop_fc
I0403 17:11:48.679177 20721 net.cpp:425] loss2/drop_fc <- loss2/fc
I0403 17:11:48.679205 20721 net.cpp:386] loss2/drop_fc -> loss2/fc (in-place)
I0403 17:11:48.679268 20721 net.cpp:141] Setting up loss2/drop_fc
I0403 17:11:48.679301 20721 net.cpp:148] Top shape: 24 1024 (24576)
I0403 17:11:48.679319 20721 net.cpp:156] Memory required for data: 1208417568
I0403 17:11:48.679337 20721 layer_factory.hpp:77] Creating layer loss2/classifier_plantvillage
I0403 17:11:48.679359 20721 net.cpp:91] Creating Layer loss2/classifier_plantvillage
I0403 17:11:48.679380 20721 net.cpp:425] loss2/classifier_plantvillage <- loss2/fc
I0403 17:11:48.679407 20721 net.cpp:399] loss2/classifier_plantvillage -> loss2/classifier_plantvillage
I0403 17:11:48.679915 20721 net.cpp:141] Setting up loss2/classifier_plantvillage
I0403 17:11:48.679947 20721 net.cpp:148] Top shape: 24 38 (912)
I0403 17:11:48.679966 20721 net.cpp:156] Memory required for data: 1208421216
I0403 17:11:48.680008 20721 layer_factory.hpp:77] Creating layer loss2/classifier_plantvillage_loss2/classifier_plantvillage_0_split
I0403 17:11:48.680035 20721 net.cpp:91] Creating Layer loss2/classifier_plantvillage_loss2/classifier_plantvillage_0_split
I0403 17:11:48.680058 20721 net.cpp:425] loss2/classifier_plantvillage_loss2/classifier_plantvillage_0_split <- loss2/classifier_plantvillage
I0403 17:11:48.680081 20721 net.cpp:399] loss2/classifier_plantvillage_loss2/classifier_plantvillage_0_split -> loss2/classifier_plantvillage_loss2/classifier_plantvillage_0_split_0
I0403 17:11:48.680111 20721 net.cpp:399] loss2/classifier_plantvillage_loss2/classifier_plantvillage_0_split -> loss2/classifier_plantvillage_loss2/classifier_plantvillage_0_split_1
I0403 17:11:48.680138 20721 net.cpp:399] loss2/classifier_plantvillage_loss2/classifier_plantvillage_0_split -> loss2/classifier_plantvillage_loss2/classifier_plantvillage_0_split_2
I0403 17:11:48.680233 20721 net.cpp:141] Setting up loss2/classifier_plantvillage_loss2/classifier_plantvillage_0_split
I0403 17:11:48.680263 20721 net.cpp:148] Top shape: 24 38 (912)
I0403 17:11:48.680282 20721 net.cpp:148] Top shape: 24 38 (912)
I0403 17:11:48.680301 20721 net.cpp:148] Top shape: 24 38 (912)
I0403 17:11:48.680320 20721 net.cpp:156] Memory required for data: 1208432160
I0403 17:11:48.680337 20721 layer_factory.hpp:77] Creating layer inception_4e/1x1
I0403 17:11:48.680366 20721 net.cpp:91] Creating Layer inception_4e/1x1
I0403 17:11:48.680388 20721 net.cpp:425] inception_4e/1x1 <- inception_4d/output_inception_4d/output_0_split_1
I0403 17:11:48.680413 20721 net.cpp:399] inception_4e/1x1 -> inception_4e/1x1
I0403 17:11:48.682657 20721 net.cpp:141] Setting up inception_4e/1x1
I0403 17:11:48.682695 20721 net.cpp:148] Top shape: 24 256 14 14 (1204224)
I0403 17:11:48.682716 20721 net.cpp:156] Memory required for data: 1213249056
I0403 17:11:48.682739 20721 layer_factory.hpp:77] Creating layer inception_4e/relu_1x1
I0403 17:11:48.682761 20721 net.cpp:91] Creating Layer inception_4e/relu_1x1
I0403 17:11:48.682780 20721 net.cpp:425] inception_4e/relu_1x1 <- inception_4e/1x1
I0403 17:11:48.682804 20721 net.cpp:386] inception_4e/relu_1x1 -> inception_4e/1x1 (in-place)
I0403 17:11:48.683166 20721 net.cpp:141] Setting up inception_4e/relu_1x1
I0403 17:11:48.683202 20721 net.cpp:148] Top shape: 24 256 14 14 (1204224)
I0403 17:11:48.683223 20721 net.cpp:156] Memory required for data: 1218065952
I0403 17:11:48.683241 20721 layer_factory.hpp:77] Creating layer inception_4e/3x3_reduce
I0403 17:11:48.683266 20721 net.cpp:91] Creating Layer inception_4e/3x3_reduce
I0403 17:11:48.683287 20721 net.cpp:425] inception_4e/3x3_reduce <- inception_4d/output_inception_4d/output_0_split_2
I0403 17:11:48.683315 20721 net.cpp:399] inception_4e/3x3_reduce -> inception_4e/3x3_reduce
I0403 17:11:48.685895 20721 net.cpp:141] Setting up inception_4e/3x3_reduce
I0403 17:11:48.685931 20721 net.cpp:148] Top shape: 24 160 14 14 (752640)
I0403 17:11:48.685952 20721 net.cpp:156] Memory required for data: 1221076512
I0403 17:11:48.685976 20721 layer_factory.hpp:77] Creating layer inception_4e/relu_3x3_reduce
I0403 17:11:48.686000 20721 net.cpp:91] Creating Layer inception_4e/relu_3x3_reduce
I0403 17:11:48.686022 20721 net.cpp:425] inception_4e/relu_3x3_reduce <- inception_4e/3x3_reduce
I0403 17:11:48.686045 20721 net.cpp:386] inception_4e/relu_3x3_reduce -> inception_4e/3x3_reduce (in-place)
I0403 17:11:48.686275 20721 net.cpp:141] Setting up inception_4e/relu_3x3_reduce
I0403 17:11:48.686311 20721 net.cpp:148] Top shape: 24 160 14 14 (752640)
I0403 17:11:48.686331 20721 net.cpp:156] Memory required for data: 1224087072
I0403 17:11:48.686348 20721 layer_factory.hpp:77] Creating layer inception_4e/3x3
I0403 17:11:48.686377 20721 net.cpp:91] Creating Layer inception_4e/3x3
I0403 17:11:48.686400 20721 net.cpp:425] inception_4e/3x3 <- inception_4e/3x3_reduce
I0403 17:11:48.686424 20721 net.cpp:399] inception_4e/3x3 -> inception_4e/3x3
I0403 17:11:48.692584 20721 net.cpp:141] Setting up inception_4e/3x3
I0403 17:11:48.692642 20721 net.cpp:148] Top shape: 24 320 14 14 (1505280)
I0403 17:11:48.692664 20721 net.cpp:156] Memory required for data: 1230108192
I0403 17:11:48.692688 20721 layer_factory.hpp:77] Creating layer inception_4e/relu_3x3
I0403 17:11:48.692713 20721 net.cpp:91] Creating Layer inception_4e/relu_3x3
I0403 17:11:48.692733 20721 net.cpp:425] inception_4e/relu_3x3 <- inception_4e/3x3
I0403 17:11:48.692755 20721 net.cpp:386] inception_4e/relu_3x3 -> inception_4e/3x3 (in-place)
I0403 17:11:48.693125 20721 net.cpp:141] Setting up inception_4e/relu_3x3
I0403 17:11:48.693159 20721 net.cpp:148] Top shape: 24 320 14 14 (1505280)
I0403 17:11:48.693178 20721 net.cpp:156] Memory required for data: 1236129312
I0403 17:11:48.693197 20721 layer_factory.hpp:77] Creating layer inception_4e/5x5_reduce
I0403 17:11:48.693228 20721 net.cpp:91] Creating Layer inception_4e/5x5_reduce
I0403 17:11:48.693249 20721 net.cpp:425] inception_4e/5x5_reduce <- inception_4d/output_inception_4d/output_0_split_3
I0403 17:11:48.693276 20721 net.cpp:399] inception_4e/5x5_reduce -> inception_4e/5x5_reduce
I0403 17:11:48.694594 20721 net.cpp:141] Setting up inception_4e/5x5_reduce
I0403 17:11:48.694634 20721 net.cpp:148] Top shape: 24 32 14 14 (150528)
I0403 17:11:48.694655 20721 net.cpp:156] Memory required for data: 1236731424
I0403 17:11:48.694679 20721 layer_factory.hpp:77] Creating layer inception_4e/relu_5x5_reduce
I0403 17:11:48.694705 20721 net.cpp:91] Creating Layer inception_4e/relu_5x5_reduce
I0403 17:11:48.694725 20721 net.cpp:425] inception_4e/relu_5x5_reduce <- inception_4e/5x5_reduce
I0403 17:11:48.694747 20721 net.cpp:386] inception_4e/relu_5x5_reduce -> inception_4e/5x5_reduce (in-place)
I0403 17:11:48.695113 20721 net.cpp:141] Setting up inception_4e/relu_5x5_reduce
I0403 17:11:48.695147 20721 net.cpp:148] Top shape: 24 32 14 14 (150528)
I0403 17:11:48.695165 20721 net.cpp:156] Memory required for data: 1237333536
I0403 17:11:48.695185 20721 layer_factory.hpp:77] Creating layer inception_4e/5x5
I0403 17:11:48.695233 20721 net.cpp:91] Creating Layer inception_4e/5x5
I0403 17:11:48.695256 20721 net.cpp:425] inception_4e/5x5 <- inception_4e/5x5_reduce
I0403 17:11:48.695284 20721 net.cpp:399] inception_4e/5x5 -> inception_4e/5x5
I0403 17:11:48.697561 20721 net.cpp:141] Setting up inception_4e/5x5
I0403 17:11:48.697597 20721 net.cpp:148] Top shape: 24 128 14 14 (602112)
I0403 17:11:48.697623 20721 net.cpp:156] Memory required for data: 1239741984
I0403 17:11:48.697648 20721 layer_factory.hpp:77] Creating layer inception_4e/relu_5x5
I0403 17:11:48.697672 20721 net.cpp:91] Creating Layer inception_4e/relu_5x5
I0403 17:11:48.697695 20721 net.cpp:425] inception_4e/relu_5x5 <- inception_4e/5x5
I0403 17:11:48.697716 20721 net.cpp:386] inception_4e/relu_5x5 -> inception_4e/5x5 (in-place)
I0403 17:11:48.697958 20721 net.cpp:141] Setting up inception_4e/relu_5x5
I0403 17:11:48.697991 20721 net.cpp:148] Top shape: 24 128 14 14 (602112)
I0403 17:11:48.698009 20721 net.cpp:156] Memory required for data: 1242150432
I0403 17:11:48.698029 20721 layer_factory.hpp:77] Creating layer inception_4e/pool
I0403 17:11:48.698053 20721 net.cpp:91] Creating Layer inception_4e/pool
I0403 17:11:48.698074 20721 net.cpp:425] inception_4e/pool <- inception_4d/output_inception_4d/output_0_split_4
I0403 17:11:48.698098 20721 net.cpp:399] inception_4e/pool -> inception_4e/pool
I0403 17:11:48.698185 20721 net.cpp:141] Setting up inception_4e/pool
I0403 17:11:48.698216 20721 net.cpp:148] Top shape: 24 528 14 14 (2483712)
I0403 17:11:48.698235 20721 net.cpp:156] Memory required for data: 1252085280
I0403 17:11:48.698254 20721 layer_factory.hpp:77] Creating layer inception_4e/pool_proj
I0403 17:11:48.698282 20721 net.cpp:91] Creating Layer inception_4e/pool_proj
I0403 17:11:48.698303 20721 net.cpp:425] inception_4e/pool_proj <- inception_4e/pool
I0403 17:11:48.698330 20721 net.cpp:399] inception_4e/pool_proj -> inception_4e/pool_proj
I0403 17:11:48.700176 20721 net.cpp:141] Setting up inception_4e/pool_proj
I0403 17:11:48.700212 20721 net.cpp:148] Top shape: 24 128 14 14 (602112)
I0403 17:11:48.700250 20721 net.cpp:156] Memory required for data: 1254493728
I0403 17:11:48.700275 20721 layer_factory.hpp:77] Creating layer inception_4e/relu_pool_proj
I0403 17:11:48.700301 20721 net.cpp:91] Creating Layer inception_4e/relu_pool_proj
I0403 17:11:48.700325 20721 net.cpp:425] inception_4e/relu_pool_proj <- inception_4e/pool_proj
I0403 17:11:48.700346 20721 net.cpp:386] inception_4e/relu_pool_proj -> inception_4e/pool_proj (in-place)
I0403 17:11:48.700706 20721 net.cpp:141] Setting up inception_4e/relu_pool_proj
I0403 17:11:48.700739 20721 net.cpp:148] Top shape: 24 128 14 14 (602112)
I0403 17:11:48.700760 20721 net.cpp:156] Memory required for data: 1256902176
I0403 17:11:48.700779 20721 layer_factory.hpp:77] Creating layer inception_4e/output
I0403 17:11:48.700803 20721 net.cpp:91] Creating Layer inception_4e/output
I0403 17:11:48.700824 20721 net.cpp:425] inception_4e/output <- inception_4e/1x1
I0403 17:11:48.700845 20721 net.cpp:425] inception_4e/output <- inception_4e/3x3
I0403 17:11:48.700866 20721 net.cpp:425] inception_4e/output <- inception_4e/5x5
I0403 17:11:48.700886 20721 net.cpp:425] inception_4e/output <- inception_4e/pool_proj
I0403 17:11:48.700911 20721 net.cpp:399] inception_4e/output -> inception_4e/output
I0403 17:11:48.700973 20721 net.cpp:141] Setting up inception_4e/output
I0403 17:11:48.701007 20721 net.cpp:148] Top shape: 24 832 14 14 (3913728)
I0403 17:11:48.701027 20721 net.cpp:156] Memory required for data: 1272557088
I0403 17:11:48.701045 20721 layer_factory.hpp:77] Creating layer pool4/3x3_s2
I0403 17:11:48.701067 20721 net.cpp:91] Creating Layer pool4/3x3_s2
I0403 17:11:48.701087 20721 net.cpp:425] pool4/3x3_s2 <- inception_4e/output
I0403 17:11:48.701114 20721 net.cpp:399] pool4/3x3_s2 -> pool4/3x3_s2
I0403 17:11:48.701202 20721 net.cpp:141] Setting up pool4/3x3_s2
I0403 17:11:48.701232 20721 net.cpp:148] Top shape: 24 832 7 7 (978432)
I0403 17:11:48.701251 20721 net.cpp:156] Memory required for data: 1276470816
I0403 17:11:48.701269 20721 layer_factory.hpp:77] Creating layer pool4/3x3_s2_pool4/3x3_s2_0_split
I0403 17:11:48.701292 20721 net.cpp:91] Creating Layer pool4/3x3_s2_pool4/3x3_s2_0_split
I0403 17:11:48.701313 20721 net.cpp:425] pool4/3x3_s2_pool4/3x3_s2_0_split <- pool4/3x3_s2
I0403 17:11:48.701338 20721 net.cpp:399] pool4/3x3_s2_pool4/3x3_s2_0_split -> pool4/3x3_s2_pool4/3x3_s2_0_split_0
I0403 17:11:48.701362 20721 net.cpp:399] pool4/3x3_s2_pool4/3x3_s2_0_split -> pool4/3x3_s2_pool4/3x3_s2_0_split_1
I0403 17:11:48.701387 20721 net.cpp:399] pool4/3x3_s2_pool4/3x3_s2_0_split -> pool4/3x3_s2_pool4/3x3_s2_0_split_2
I0403 17:11:48.701414 20721 net.cpp:399] pool4/3x3_s2_pool4/3x3_s2_0_split -> pool4/3x3_s2_pool4/3x3_s2_0_split_3
I0403 17:11:48.701531 20721 net.cpp:141] Setting up pool4/3x3_s2_pool4/3x3_s2_0_split
I0403 17:11:48.701561 20721 net.cpp:148] Top shape: 24 832 7 7 (978432)
I0403 17:11:48.701582 20721 net.cpp:148] Top shape: 24 832 7 7 (978432)
I0403 17:11:48.701607 20721 net.cpp:148] Top shape: 24 832 7 7 (978432)
I0403 17:11:48.701629 20721 net.cpp:148] Top shape: 24 832 7 7 (978432)
I0403 17:11:48.701647 20721 net.cpp:156] Memory required for data: 1292125728
I0403 17:11:48.701665 20721 layer_factory.hpp:77] Creating layer inception_5a/1x1
I0403 17:11:48.701692 20721 net.cpp:91] Creating Layer inception_5a/1x1
I0403 17:11:48.701715 20721 net.cpp:425] inception_5a/1x1 <- pool4/3x3_s2_pool4/3x3_s2_0_split_0
I0403 17:11:48.701742 20721 net.cpp:399] inception_5a/1x1 -> inception_5a/1x1
I0403 17:11:48.705224 20721 net.cpp:141] Setting up inception_5a/1x1
I0403 17:11:48.705260 20721 net.cpp:148] Top shape: 24 256 7 7 (301056)
I0403 17:11:48.705281 20721 net.cpp:156] Memory required for data: 1293329952
I0403 17:11:48.705303 20721 layer_factory.hpp:77] Creating layer inception_5a/relu_1x1
I0403 17:11:48.705328 20721 net.cpp:91] Creating Layer inception_5a/relu_1x1
I0403 17:11:48.705350 20721 net.cpp:425] inception_5a/relu_1x1 <- inception_5a/1x1
I0403 17:11:48.705375 20721 net.cpp:386] inception_5a/relu_1x1 -> inception_5a/1x1 (in-place)
I0403 17:11:48.705773 20721 net.cpp:141] Setting up inception_5a/relu_1x1
I0403 17:11:48.705808 20721 net.cpp:148] Top shape: 24 256 7 7 (301056)
I0403 17:11:48.705828 20721 net.cpp:156] Memory required for data: 1294534176
I0403 17:11:48.705847 20721 layer_factory.hpp:77] Creating layer inception_5a/3x3_reduce
I0403 17:11:48.705875 20721 net.cpp:91] Creating Layer inception_5a/3x3_reduce
I0403 17:11:48.705899 20721 net.cpp:425] inception_5a/3x3_reduce <- pool4/3x3_s2_pool4/3x3_s2_0_split_1
I0403 17:11:48.705926 20721 net.cpp:399] inception_5a/3x3_reduce -> inception_5a/3x3_reduce
I0403 17:11:48.708935 20721 net.cpp:141] Setting up inception_5a/3x3_reduce
I0403 17:11:48.708976 20721 net.cpp:148] Top shape: 24 160 7 7 (188160)
I0403 17:11:48.708997 20721 net.cpp:156] Memory required for data: 1295286816
I0403 17:11:48.709020 20721 layer_factory.hpp:77] Creating layer inception_5a/relu_3x3_reduce
I0403 17:11:48.709043 20721 net.cpp:91] Creating Layer inception_5a/relu_3x3_reduce
I0403 17:11:48.709065 20721 net.cpp:425] inception_5a/relu_3x3_reduce <- inception_5a/3x3_reduce
I0403 17:11:48.709090 20721 net.cpp:386] inception_5a/relu_3x3_reduce -> inception_5a/3x3_reduce (in-place)
I0403 17:11:48.709321 20721 net.cpp:141] Setting up inception_5a/relu_3x3_reduce
I0403 17:11:48.709354 20721 net.cpp:148] Top shape: 24 160 7 7 (188160)
I0403 17:11:48.709372 20721 net.cpp:156] Memory required for data: 1296039456
I0403 17:11:48.709391 20721 layer_factory.hpp:77] Creating layer inception_5a/3x3
I0403 17:11:48.709419 20721 net.cpp:91] Creating Layer inception_5a/3x3
I0403 17:11:48.709441 20721 net.cpp:425] inception_5a/3x3 <- inception_5a/3x3_reduce
I0403 17:11:48.709468 20721 net.cpp:399] inception_5a/3x3 -> inception_5a/3x3
I0403 17:11:48.715720 20721 net.cpp:141] Setting up inception_5a/3x3
I0403 17:11:48.715759 20721 net.cpp:148] Top shape: 24 320 7 7 (376320)
I0403 17:11:48.715780 20721 net.cpp:156] Memory required for data: 1297544736
I0403 17:11:48.715806 20721 layer_factory.hpp:77] Creating layer inception_5a/relu_3x3
I0403 17:11:48.715831 20721 net.cpp:91] Creating Layer inception_5a/relu_3x3
I0403 17:11:48.715852 20721 net.cpp:425] inception_5a/relu_3x3 <- inception_5a/3x3
I0403 17:11:48.715873 20721 net.cpp:386] inception_5a/relu_3x3 -> inception_5a/3x3 (in-place)
I0403 17:11:48.716233 20721 net.cpp:141] Setting up inception_5a/relu_3x3
I0403 17:11:48.716266 20721 net.cpp:148] Top shape: 24 320 7 7 (376320)
I0403 17:11:48.716286 20721 net.cpp:156] Memory required for data: 1299050016
I0403 17:11:48.716305 20721 layer_factory.hpp:77] Creating layer inception_5a/5x5_reduce
I0403 17:11:48.716332 20721 net.cpp:91] Creating Layer inception_5a/5x5_reduce
I0403 17:11:48.716354 20721 net.cpp:425] inception_5a/5x5_reduce <- pool4/3x3_s2_pool4/3x3_s2_0_split_2
I0403 17:11:48.716382 20721 net.cpp:399] inception_5a/5x5_reduce -> inception_5a/5x5_reduce
I0403 17:11:48.717828 20721 net.cpp:141] Setting up inception_5a/5x5_reduce
I0403 17:11:48.717864 20721 net.cpp:148] Top shape: 24 32 7 7 (37632)
I0403 17:11:48.717885 20721 net.cpp:156] Memory required for data: 1299200544
I0403 17:11:48.717908 20721 layer_factory.hpp:77] Creating layer inception_5a/relu_5x5_reduce
I0403 17:11:48.717933 20721 net.cpp:91] Creating Layer inception_5a/relu_5x5_reduce
I0403 17:11:48.717955 20721 net.cpp:425] inception_5a/relu_5x5_reduce <- inception_5a/5x5_reduce
I0403 17:11:48.717977 20721 net.cpp:386] inception_5a/relu_5x5_reduce -> inception_5a/5x5_reduce (in-place)
I0403 17:11:48.718351 20721 net.cpp:141] Setting up inception_5a/relu_5x5_reduce
I0403 17:11:48.718384 20721 net.cpp:148] Top shape: 24 32 7 7 (37632)
I0403 17:11:48.718405 20721 net.cpp:156] Memory required for data: 1299351072
I0403 17:11:48.718422 20721 layer_factory.hpp:77] Creating layer inception_5a/5x5
I0403 17:11:48.718456 20721 net.cpp:91] Creating Layer inception_5a/5x5
I0403 17:11:48.718478 20721 net.cpp:425] inception_5a/5x5 <- inception_5a/5x5_reduce
I0403 17:11:48.718503 20721 net.cpp:399] inception_5a/5x5 -> inception_5a/5x5
I0403 17:11:48.720640 20721 net.cpp:141] Setting up inception_5a/5x5
I0403 17:11:48.720690 20721 net.cpp:148] Top shape: 24 128 7 7 (150528)
I0403 17:11:48.720712 20721 net.cpp:156] Memory required for data: 1299953184
I0403 17:11:48.720736 20721 layer_factory.hpp:77] Creating layer inception_5a/relu_5x5
I0403 17:11:48.720762 20721 net.cpp:91] Creating Layer inception_5a/relu_5x5
I0403 17:11:48.720783 20721 net.cpp:425] inception_5a/relu_5x5 <- inception_5a/5x5
I0403 17:11:48.720808 20721 net.cpp:386] inception_5a/relu_5x5 -> inception_5a/5x5 (in-place)
I0403 17:11:48.721046 20721 net.cpp:141] Setting up inception_5a/relu_5x5
I0403 17:11:48.721078 20721 net.cpp:148] Top shape: 24 128 7 7 (150528)
I0403 17:11:48.721097 20721 net.cpp:156] Memory required for data: 1300555296
I0403 17:11:48.721115 20721 layer_factory.hpp:77] Creating layer inception_5a/pool
I0403 17:11:48.721140 20721 net.cpp:91] Creating Layer inception_5a/pool
I0403 17:11:48.721161 20721 net.cpp:425] inception_5a/pool <- pool4/3x3_s2_pool4/3x3_s2_0_split_3
I0403 17:11:48.721185 20721 net.cpp:399] inception_5a/pool -> inception_5a/pool
I0403 17:11:48.721274 20721 net.cpp:141] Setting up inception_5a/pool
I0403 17:11:48.721305 20721 net.cpp:148] Top shape: 24 832 7 7 (978432)
I0403 17:11:48.721323 20721 net.cpp:156] Memory required for data: 1304469024
I0403 17:11:48.721343 20721 layer_factory.hpp:77] Creating layer inception_5a/pool_proj
I0403 17:11:48.721369 20721 net.cpp:91] Creating Layer inception_5a/pool_proj
I0403 17:11:48.721391 20721 net.cpp:425] inception_5a/pool_proj <- inception_5a/pool
I0403 17:11:48.721416 20721 net.cpp:399] inception_5a/pool_proj -> inception_5a/pool_proj
I0403 17:11:48.724208 20721 net.cpp:141] Setting up inception_5a/pool_proj
I0403 17:11:48.724246 20721 net.cpp:148] Top shape: 24 128 7 7 (150528)
I0403 17:11:48.724266 20721 net.cpp:156] Memory required for data: 1305071136
I0403 17:11:48.724288 20721 layer_factory.hpp:77] Creating layer inception_5a/relu_pool_proj
I0403 17:11:48.724313 20721 net.cpp:91] Creating Layer inception_5a/relu_pool_proj
I0403 17:11:48.724334 20721 net.cpp:425] inception_5a/relu_pool_proj <- inception_5a/pool_proj
I0403 17:11:48.724357 20721 net.cpp:386] inception_5a/relu_pool_proj -> inception_5a/pool_proj (in-place)
I0403 17:11:48.724730 20721 net.cpp:141] Setting up inception_5a/relu_pool_proj
I0403 17:11:48.724763 20721 net.cpp:148] Top shape: 24 128 7 7 (150528)
I0403 17:11:48.724783 20721 net.cpp:156] Memory required for data: 1305673248
I0403 17:11:48.724803 20721 layer_factory.hpp:77] Creating layer inception_5a/output
I0403 17:11:48.724825 20721 net.cpp:91] Creating Layer inception_5a/output
I0403 17:11:48.724845 20721 net.cpp:425] inception_5a/output <- inception_5a/1x1
I0403 17:11:48.724866 20721 net.cpp:425] inception_5a/output <- inception_5a/3x3
I0403 17:11:48.724887 20721 net.cpp:425] inception_5a/output <- inception_5a/5x5
I0403 17:11:48.724907 20721 net.cpp:425] inception_5a/output <- inception_5a/pool_proj
I0403 17:11:48.724932 20721 net.cpp:399] inception_5a/output -> inception_5a/output
I0403 17:11:48.724995 20721 net.cpp:141] Setting up inception_5a/output
I0403 17:11:48.725028 20721 net.cpp:148] Top shape: 24 832 7 7 (978432)
I0403 17:11:48.725049 20721 net.cpp:156] Memory required for data: 1309586976
I0403 17:11:48.725067 20721 layer_factory.hpp:77] Creating layer inception_5a/output_inception_5a/output_0_split
I0403 17:11:48.725090 20721 net.cpp:91] Creating Layer inception_5a/output_inception_5a/output_0_split
I0403 17:11:48.725109 20721 net.cpp:425] inception_5a/output_inception_5a/output_0_split <- inception_5a/output
I0403 17:11:48.725131 20721 net.cpp:399] inception_5a/output_inception_5a/output_0_split -> inception_5a/output_inception_5a/output_0_split_0
I0403 17:11:48.725160 20721 net.cpp:399] inception_5a/output_inception_5a/output_0_split -> inception_5a/output_inception_5a/output_0_split_1
I0403 17:11:48.725188 20721 net.cpp:399] inception_5a/output_inception_5a/output_0_split -> inception_5a/output_inception_5a/output_0_split_2
I0403 17:11:48.725214 20721 net.cpp:399] inception_5a/output_inception_5a/output_0_split -> inception_5a/output_inception_5a/output_0_split_3
I0403 17:11:48.725356 20721 net.cpp:141] Setting up inception_5a/output_inception_5a/output_0_split
I0403 17:11:48.725386 20721 net.cpp:148] Top shape: 24 832 7 7 (978432)
I0403 17:11:48.725407 20721 net.cpp:148] Top shape: 24 832 7 7 (978432)
I0403 17:11:48.725427 20721 net.cpp:148] Top shape: 24 832 7 7 (978432)
I0403 17:11:48.725446 20721 net.cpp:148] Top shape: 24 832 7 7 (978432)
I0403 17:11:48.725463 20721 net.cpp:156] Memory required for data: 1325241888
I0403 17:11:48.725481 20721 layer_factory.hpp:77] Creating layer inception_5b/1x1
I0403 17:11:48.725510 20721 net.cpp:91] Creating Layer inception_5b/1x1
I0403 17:11:48.725534 20721 net.cpp:425] inception_5b/1x1 <- inception_5a/output_inception_5a/output_0_split_0
I0403 17:11:48.725558 20721 net.cpp:399] inception_5b/1x1 -> inception_5b/1x1
I0403 17:11:48.730161 20721 net.cpp:141] Setting up inception_5b/1x1
I0403 17:11:48.730201 20721 net.cpp:148] Top shape: 24 384 7 7 (451584)
I0403 17:11:48.730223 20721 net.cpp:156] Memory required for data: 1327048224
I0403 17:11:48.730247 20721 layer_factory.hpp:77] Creating layer inception_5b/relu_1x1
I0403 17:11:48.730270 20721 net.cpp:91] Creating Layer inception_5b/relu_1x1
I0403 17:11:48.730293 20721 net.cpp:425] inception_5b/relu_1x1 <- inception_5b/1x1
I0403 17:11:48.730317 20721 net.cpp:386] inception_5b/relu_1x1 -> inception_5b/1x1 (in-place)
I0403 17:11:48.730695 20721 net.cpp:141] Setting up inception_5b/relu_1x1
I0403 17:11:48.730731 20721 net.cpp:148] Top shape: 24 384 7 7 (451584)
I0403 17:11:48.730749 20721 net.cpp:156] Memory required for data: 1328854560
I0403 17:11:48.730768 20721 layer_factory.hpp:77] Creating layer inception_5b/3x3_reduce
I0403 17:11:48.730795 20721 net.cpp:91] Creating Layer inception_5b/3x3_reduce
I0403 17:11:48.730818 20721 net.cpp:425] inception_5b/3x3_reduce <- inception_5a/output_inception_5a/output_0_split_1
I0403 17:11:48.730845 20721 net.cpp:399] inception_5b/3x3_reduce -> inception_5b/3x3_reduce
I0403 17:11:48.734114 20721 net.cpp:141] Setting up inception_5b/3x3_reduce
I0403 17:11:48.734151 20721 net.cpp:148] Top shape: 24 192 7 7 (225792)
I0403 17:11:48.734172 20721 net.cpp:156] Memory required for data: 1329757728
I0403 17:11:48.734196 20721 layer_factory.hpp:77] Creating layer inception_5b/relu_3x3_reduce
I0403 17:11:48.734220 20721 net.cpp:91] Creating Layer inception_5b/relu_3x3_reduce
I0403 17:11:48.734241 20721 net.cpp:425] inception_5b/relu_3x3_reduce <- inception_5b/3x3_reduce
I0403 17:11:48.734266 20721 net.cpp:386] inception_5b/relu_3x3_reduce -> inception_5b/3x3_reduce (in-place)
I0403 17:11:48.734501 20721 net.cpp:141] Setting up inception_5b/relu_3x3_reduce
I0403 17:11:48.734534 20721 net.cpp:148] Top shape: 24 192 7 7 (225792)
I0403 17:11:48.734554 20721 net.cpp:156] Memory required for data: 1330660896
I0403 17:11:48.734572 20721 layer_factory.hpp:77] Creating layer inception_5b/3x3
I0403 17:11:48.734599 20721 net.cpp:91] Creating Layer inception_5b/3x3
I0403 17:11:48.734627 20721 net.cpp:425] inception_5b/3x3 <- inception_5b/3x3_reduce
I0403 17:11:48.734654 20721 net.cpp:399] inception_5b/3x3 -> inception_5b/3x3
I0403 17:11:48.742954 20721 net.cpp:141] Setting up inception_5b/3x3
I0403 17:11:48.742991 20721 net.cpp:148] Top shape: 24 384 7 7 (451584)
I0403 17:11:48.743012 20721 net.cpp:156] Memory required for data: 1332467232
I0403 17:11:48.743036 20721 layer_factory.hpp:77] Creating layer inception_5b/relu_3x3
I0403 17:11:48.743058 20721 net.cpp:91] Creating Layer inception_5b/relu_3x3
I0403 17:11:48.743079 20721 net.cpp:425] inception_5b/relu_3x3 <- inception_5b/3x3
I0403 17:11:48.743104 20721 net.cpp:386] inception_5b/relu_3x3 -> inception_5b/3x3 (in-place)
I0403 17:11:48.743470 20721 net.cpp:141] Setting up inception_5b/relu_3x3
I0403 17:11:48.743504 20721 net.cpp:148] Top shape: 24 384 7 7 (451584)
I0403 17:11:48.743523 20721 net.cpp:156] Memory required for data: 1334273568
I0403 17:11:48.743542 20721 layer_factory.hpp:77] Creating layer inception_5b/5x5_reduce
I0403 17:11:48.743593 20721 net.cpp:91] Creating Layer inception_5b/5x5_reduce
I0403 17:11:48.743623 20721 net.cpp:425] inception_5b/5x5_reduce <- inception_5a/output_inception_5a/output_0_split_2
I0403 17:11:48.743654 20721 net.cpp:399] inception_5b/5x5_reduce -> inception_5b/5x5_reduce
I0403 17:11:48.745308 20721 net.cpp:141] Setting up inception_5b/5x5_reduce
I0403 17:11:48.745344 20721 net.cpp:148] Top shape: 24 48 7 7 (56448)
I0403 17:11:48.745365 20721 net.cpp:156] Memory required for data: 1334499360
I0403 17:11:48.745389 20721 layer_factory.hpp:77] Creating layer inception_5b/relu_5x5_reduce
I0403 17:11:48.745414 20721 net.cpp:91] Creating Layer inception_5b/relu_5x5_reduce
I0403 17:11:48.745437 20721 net.cpp:425] inception_5b/relu_5x5_reduce <- inception_5b/5x5_reduce
I0403 17:11:48.745460 20721 net.cpp:386] inception_5b/relu_5x5_reduce -> inception_5b/5x5_reduce (in-place)
I0403 17:11:48.745929 20721 net.cpp:141] Setting up inception_5b/relu_5x5_reduce
I0403 17:11:48.745964 20721 net.cpp:148] Top shape: 24 48 7 7 (56448)
I0403 17:11:48.745983 20721 net.cpp:156] Memory required for data: 1334725152
I0403 17:11:48.746002 20721 layer_factory.hpp:77] Creating layer inception_5b/5x5
I0403 17:11:48.746027 20721 net.cpp:91] Creating Layer inception_5b/5x5
I0403 17:11:48.746049 20721 net.cpp:425] inception_5b/5x5 <- inception_5b/5x5_reduce
I0403 17:11:48.746074 20721 net.cpp:399] inception_5b/5x5 -> inception_5b/5x5
I0403 17:11:48.748611 20721 net.cpp:141] Setting up inception_5b/5x5
I0403 17:11:48.748646 20721 net.cpp:148] Top shape: 24 128 7 7 (150528)
I0403 17:11:48.748667 20721 net.cpp:156] Memory required for data: 1335327264
I0403 17:11:48.748690 20721 layer_factory.hpp:77] Creating layer inception_5b/relu_5x5
I0403 17:11:48.748718 20721 net.cpp:91] Creating Layer inception_5b/relu_5x5
I0403 17:11:48.748740 20721 net.cpp:425] inception_5b/relu_5x5 <- inception_5b/5x5
I0403 17:11:48.748764 20721 net.cpp:386] inception_5b/relu_5x5 -> inception_5b/5x5 (in-place)
I0403 17:11:48.749003 20721 net.cpp:141] Setting up inception_5b/relu_5x5
I0403 17:11:48.749037 20721 net.cpp:148] Top shape: 24 128 7 7 (150528)
I0403 17:11:48.749058 20721 net.cpp:156] Memory required for data: 1335929376
I0403 17:11:48.749078 20721 layer_factory.hpp:77] Creating layer inception_5b/pool
I0403 17:11:48.749099 20721 net.cpp:91] Creating Layer inception_5b/pool
I0403 17:11:48.749121 20721 net.cpp:425] inception_5b/pool <- inception_5a/output_inception_5a/output_0_split_3
I0403 17:11:48.749143 20721 net.cpp:399] inception_5b/pool -> inception_5b/pool
I0403 17:11:48.749235 20721 net.cpp:141] Setting up inception_5b/pool
I0403 17:11:48.749265 20721 net.cpp:148] Top shape: 24 832 7 7 (978432)
I0403 17:11:48.749285 20721 net.cpp:156] Memory required for data: 1339843104
I0403 17:11:48.749305 20721 layer_factory.hpp:77] Creating layer inception_5b/pool_proj
I0403 17:11:48.749331 20721 net.cpp:91] Creating Layer inception_5b/pool_proj
I0403 17:11:48.749354 20721 net.cpp:425] inception_5b/pool_proj <- inception_5b/pool
I0403 17:11:48.749382 20721 net.cpp:399] inception_5b/pool_proj -> inception_5b/pool_proj
I0403 17:11:48.752214 20721 net.cpp:141] Setting up inception_5b/pool_proj
I0403 17:11:48.752250 20721 net.cpp:148] Top shape: 24 128 7 7 (150528)
I0403 17:11:48.752271 20721 net.cpp:156] Memory required for data: 1340445216
I0403 17:11:48.752295 20721 layer_factory.hpp:77] Creating layer inception_5b/relu_pool_proj
I0403 17:11:48.752321 20721 net.cpp:91] Creating Layer inception_5b/relu_pool_proj
I0403 17:11:48.752342 20721 net.cpp:425] inception_5b/relu_pool_proj <- inception_5b/pool_proj
I0403 17:11:48.752364 20721 net.cpp:386] inception_5b/relu_pool_proj -> inception_5b/pool_proj (in-place)
I0403 17:11:48.752737 20721 net.cpp:141] Setting up inception_5b/relu_pool_proj
I0403 17:11:48.752771 20721 net.cpp:148] Top shape: 24 128 7 7 (150528)
I0403 17:11:48.752792 20721 net.cpp:156] Memory required for data: 1341047328
I0403 17:11:48.752811 20721 layer_factory.hpp:77] Creating layer inception_5b/output
I0403 17:11:48.752833 20721 net.cpp:91] Creating Layer inception_5b/output
I0403 17:11:48.752872 20721 net.cpp:425] inception_5b/output <- inception_5b/1x1
I0403 17:11:48.752894 20721 net.cpp:425] inception_5b/output <- inception_5b/3x3
I0403 17:11:48.752917 20721 net.cpp:425] inception_5b/output <- inception_5b/5x5
I0403 17:11:48.752938 20721 net.cpp:425] inception_5b/output <- inception_5b/pool_proj
I0403 17:11:48.752962 20721 net.cpp:399] inception_5b/output -> inception_5b/output
I0403 17:11:48.753026 20721 net.cpp:141] Setting up inception_5b/output
I0403 17:11:48.753059 20721 net.cpp:148] Top shape: 24 1024 7 7 (1204224)
I0403 17:11:48.753079 20721 net.cpp:156] Memory required for data: 1345864224
I0403 17:11:48.753098 20721 layer_factory.hpp:77] Creating layer pool5/7x7_s1
I0403 17:11:48.753120 20721 net.cpp:91] Creating Layer pool5/7x7_s1
I0403 17:11:48.753140 20721 net.cpp:425] pool5/7x7_s1 <- inception_5b/output
I0403 17:11:48.753166 20721 net.cpp:399] pool5/7x7_s1 -> pool5/7x7_s1
I0403 17:11:48.753432 20721 net.cpp:141] Setting up pool5/7x7_s1
I0403 17:11:48.753463 20721 net.cpp:148] Top shape: 24 1024 1 1 (24576)
I0403 17:11:48.753484 20721 net.cpp:156] Memory required for data: 1345962528
I0403 17:11:48.753502 20721 layer_factory.hpp:77] Creating layer pool5/drop_7x7_s1
I0403 17:11:48.753526 20721 net.cpp:91] Creating Layer pool5/drop_7x7_s1
I0403 17:11:48.753547 20721 net.cpp:425] pool5/drop_7x7_s1 <- pool5/7x7_s1
I0403 17:11:48.753569 20721 net.cpp:386] pool5/drop_7x7_s1 -> pool5/7x7_s1 (in-place)
I0403 17:11:48.753636 20721 net.cpp:141] Setting up pool5/drop_7x7_s1
I0403 17:11:48.753669 20721 net.cpp:148] Top shape: 24 1024 1 1 (24576)
I0403 17:11:48.753690 20721 net.cpp:156] Memory required for data: 1346060832
I0403 17:11:48.753708 20721 layer_factory.hpp:77] Creating layer loss3/classifier_plantvillage
I0403 17:11:48.753731 20721 net.cpp:91] Creating Layer loss3/classifier_plantvillage
I0403 17:11:48.753751 20721 net.cpp:425] loss3/classifier_plantvillage <- pool5/7x7_s1
I0403 17:11:48.753777 20721 net.cpp:399] loss3/classifier_plantvillage -> loss3/classifier_plantvillage
I0403 17:11:48.754304 20721 net.cpp:141] Setting up loss3/classifier_plantvillage
I0403 17:11:48.754335 20721 net.cpp:148] Top shape: 24 38 (912)
I0403 17:11:48.754355 20721 net.cpp:156] Memory required for data: 1346064480
I0403 17:11:48.754377 20721 layer_factory.hpp:77] Creating layer loss3/classifier_plantvillage_loss3/classifier_plantvillage_0_split
I0403 17:11:48.754400 20721 net.cpp:91] Creating Layer loss3/classifier_plantvillage_loss3/classifier_plantvillage_0_split
I0403 17:11:48.754420 20721 net.cpp:425] loss3/classifier_plantvillage_loss3/classifier_plantvillage_0_split <- loss3/classifier_plantvillage
I0403 17:11:48.754442 20721 net.cpp:399] loss3/classifier_plantvillage_loss3/classifier_plantvillage_0_split -> loss3/classifier_plantvillage_loss3/classifier_plantvillage_0_split_0
I0403 17:11:48.754472 20721 net.cpp:399] loss3/classifier_plantvillage_loss3/classifier_plantvillage_0_split -> loss3/classifier_plantvillage_loss3/classifier_plantvillage_0_split_1
I0403 17:11:48.754500 20721 net.cpp:399] loss3/classifier_plantvillage_loss3/classifier_plantvillage_0_split -> loss3/classifier_plantvillage_loss3/classifier_plantvillage_0_split_2
I0403 17:11:48.754526 20721 net.cpp:399] loss3/classifier_plantvillage_loss3/classifier_plantvillage_0_split -> loss3/classifier_plantvillage_loss3/classifier_plantvillage_0_split_3
I0403 17:11:48.754660 20721 net.cpp:141] Setting up loss3/classifier_plantvillage_loss3/classifier_plantvillage_0_split
I0403 17:11:48.754691 20721 net.cpp:148] Top shape: 24 38 (912)
I0403 17:11:48.754714 20721 net.cpp:148] Top shape: 24 38 (912)
I0403 17:11:48.754732 20721 net.cpp:148] Top shape: 24 38 (912)
I0403 17:11:48.754752 20721 net.cpp:148] Top shape: 24 38 (912)
I0403 17:11:48.754770 20721 net.cpp:156] Memory required for data: 1346079072
I0403 17:11:48.754787 20721 layer_factory.hpp:77] Creating layer loss1/loss
I0403 17:11:48.754817 20721 net.cpp:91] Creating Layer loss1/loss
I0403 17:11:48.754839 20721 net.cpp:425] loss1/loss <- loss1/classifier_plantvillage_loss1/classifier_plantvillage_0_split_0
I0403 17:11:48.754878 20721 net.cpp:425] loss1/loss <- label_data_1_split_0
…
