…
I0403 12:01:39.032217 32420 net.cpp:313] The NetState phase (0) differed from the phase (1) specified by a rule in layer loss3/top-5
I0403 12:01:39.036037 32420 net.cpp:49] Initializing net from parameters: 
state {
  phase: TRAIN
}
layer {
  name: "data"
  type: "Data"
  top: "data"
  top: "label"
  include {
    phase: TRAIN
  }
  transform_param {
    mirror: true
    crop_size: 224
    mean_file: "/home/mohanty/data/final_dataset/lmdb/segmented-80-20/mean.binaryproto"
  }
  data_param {
    source: "/home/mohanty/data/final_dataset/lmdb/segmented-80-20/train_db"
    batch_size: 24
    backend: LMDB
  }
}
layer {
  name: "conv1/7x7_s2"
  type: "Convolution"
  bottom: "data"
  top: "conv1/7x7_s2"
  param {
    lr_mult: 1
    decay_mult: 1
  }
  param {
    lr_mult: 2
    decay_mult: 0
  }
  convolution_param {
    num_output: 64
    pad: 3
    kernel_size: 7
    stride: 2
    weight_filler {
      type: "xavier"
      std: 0.1
    }
    bias_filler {
      type: "constant"
      value: 0.2
    }
  }
}
layer {
  name: "conv1/relu_7x7"
  type: "ReLU"
  bottom: "conv1/7x7_s2"
  top: "conv1/7x7_s2"
}
layer {
  name: "pool1/3x3_s2"
  type: "Pooling"
  bottom: "conv1/7x7_s2"
  top: "pool1/3x3_s2"
  pooling_param {
    pool: MAX
    kernel_size: 3
    stride: 2
  }
}
layer {
  name: "pool1/norm1"
  type: "LRN"
  bottom: "pool1/3x3_s2"
  top: "pool1/norm1"
  lrn_param {
    local_size: 5
    alpha: 0.0001
    beta: 0.75
  }
}
layer {
  name: "conv2/3x3_reduce"
  type: "Convolution"
  bottom: "pool1/norm1"
  top: "conv2/3x3_reduce"
  param {
    lr_mult: 1
    decay_mult: 1
  }
  param {
    lr_mult: 2
    decay_mult: 0
  }
  convolution_param {
    num_output: 64
    kernel_size: 1
    weight_filler {
      type: "xavier"
      std: 0.1
    }
    bias_filler {
      type: "constant"
      value: 0.2
    }
  }
}
layer {
  name: "conv2/relu_3x3_reduce"
  type: "ReLU"
  bottom: "conv2/3x3_reduce"
  top: "conv2/3x3_reduce"
}
layer {
  name: "conv2/3x3"
  type: "Convolution"
  bottom: "conv2/3x3_reduce"
  top: "conv2/3x3"
  param {
    lr_mult: 1
    decay_mult: 1
  }
  param {
    lr_mult: 2
    decay_mult: 0
  }
  convolution_param {
    num_output: 192
    pad: 1
    kernel_size: 3
    weight_filler {
      type: "xavier"
      std: 0.03
    }
    bias_filler {
      type: "constant"
      value: 0.2
    }
  }
}
layer {
  name: "conv2/relu_3x3"
  type: "ReLU"
  bottom: "conv2/3x3"
  top: "conv2/3x3"
}
layer {
  name: "conv2/norm2"
  type: "LRN"
  bottom: "conv2/3x3"
  top: "conv2/norm2"
  lrn_param {
    local_size: 5
    alpha: 0.0001
    beta: 0.75
  }
}
layer {
  name: "pool2/3x3_s2"
  type: "Pooling"
  bottom: "conv2/norm2"
  top: "pool2/3x3_s2"
  pooling_param {
    pool: MAX
    kernel_size: 3
    stride: 2
  }
}
layer {
  name: "inception_3a/1x1"
  type: "Convolution"
  bottom: "pool2/3x3_s2"
  top: "inception_3a/1x1"
  param {
    lr_mult: 1
    decay_mult: 1
  }
  param {
    lr_mult: 2
    decay_mult: 0
  }
  convolution_param {
    num_output: 64
    kernel_size: 1
    weight_filler {
      type: "xavier"
      std: 0.03
    }
    bias_filler {
      type: "constant"
      value: 0.2
    }
  }
}
layer {
  name: "inception_3a/relu_1x1"
  type: "ReLU"
  bottom: "inception_3a/1x1"
  top: "inception_3a/1x1"
}
layer {
  name: "inception_3a/3x3_reduce"
  type: "Convolution"
  bottom: "pool2/3x3_s2"
  top: "inception_3a/3x3_reduce"
  param {
    lr_mult: 1
    decay_mult: 1
  }
  param {
    lr_mult: 2
    decay_mult: 0
  }
  convolution_param {
    num_output: 96
    kernel_size: 1
    weight_filler {
      type: "xavier"
      std: 0.09
    }
    bias_filler {
      type: "constant"
      value: 0.2
    }
  }
}
layer {
  name: "inception_3a/relu_3x3_reduce"
  type: "ReLU"
  bottom: "inception_3a/3x3_reduce"
  top: "inception_3a/3x3_reduce"
}
layer {
  name: "inception_3a/3x3"
  type: "Convolution"
  bottom: "inception_3a/3x3_reduce"
  top: "inception_3a/3x3"
  param {
    lr_mult: 1
    decay_mult: 1
  }
  param {
    lr_mult: 2
    decay_mult: 0
  }
  convolution_param {
    num_output: 128
    pad: 1
    kernel_size: 3
    weight_filler {
      type: "xavier"
      std: 0.03
    }
    bias_filler {
      type: "constant"
      value: 0.2
    }
  }
}
layer {
  name: "inception_3a/relu_3x3"
  type: "ReLU"
  bottom: "inception_3a/3x3"
  top: "inception_3a/3x3"
}
layer {
  name: "inception_3a/5x5_reduce"
  type: "Convolution"
  bottom: "pool2/3x3_s2"
  top: "inception_3a/5x5_reduce"
  param {
    lr_mult: 1
    decay_mult: 1
  }
  param {
    lr_mult: 2
    decay_mult: 0
  }
  convolution_param {
    num_output: 16
    kernel_size: 1
    weight_filler {
      type: "xavier"
      std: 0.2
    }
    bias_filler {
      type: "constant"
      value: 0.2
    }
  }
}
layer {
  name: "inception_3a/relu_5x5_reduce"
  type: "ReLU"
  bottom: "inception_3a/5x5_reduce"
  top: "inception_3a/5x5_reduce"
}
layer {
  name: "inception_3a/5x5"
  type: "Convolution"
  bottom: "inception_3a/5x5_reduce"
  top: "inception_3a/5x5"
  param {
    lr_mult: 1
    decay_mult: 1
  }
  param {
    lr_mult: 2
    decay_mult: 0
  }
  convolution_param {
    num_output: 32
    pad: 2
    kernel_size: 5
    weight_filler {
      type: "xavier"
      std: 0.03
    }
    bias_filler {
      type: "constant"
      value: 0.2
    }
  }
}
layer {
  name: "inception_3a/relu_5x5"
  type: "ReLU"
  bottom: "inception_3a/5x5"
  top: "inception_3a/5x5"
}
layer {
  name: "inception_3a/pool"
  type: "Pooling"
  bottom: "pool2/3x3_s2"
  top: "inception_3a/pool"
  pooling_param {
    pool: MAX
    kernel_size: 3
    stride: 1
    pad: 1
  }
}
layer {
  name: "inception_3a/pool_proj"
  type: "Convolution"
  bottom: "inception_3a/pool"
  top: "inception_3a/pool_proj"
  param {
    lr_mult: 1
    decay_mult: 1
  }
  param {
    lr_mult: 2
    decay_mult: 0
  }
  convolution_param {
    num_output: 32
    kernel_size: 1
    weight_filler {
      type: "xavier"
      std: 0.1
    }
    bias_filler {
      type: "constant"
      value: 0.2
    }
  }
}
layer {
  name: "inception_3a/relu_pool_proj"
  type: "ReLU"
  bottom: "inception_3a/pool_proj"
  top: "inception_3a/pool_proj"
}
layer {
  name: "inception_3a/output"
  type: "Concat"
  bottom: "inception_3a/1x1"
  bottom: "inception_3a/3x3"
  bottom: "inception_3a/5x5"
  bottom: "inception_3a/pool_proj"
  top: "inception_3a/output"
}
layer {
  name: "inception_3b/1x1"
  type: "Convolution"
  bottom: "inception_3a/output"
  top: "inception_3b/1x1"
  param {
    lr_mult: 1
    decay_mult: 1
  }
  param {
    lr_mult: 2
    decay_mult: 0
  }
  convolution_param {
    num_output: 128
    kernel_size: 1
    weight_filler {
      type: "xavier"
      std: 0.03
    }
    bias_filler {
      type: "constant"
      value: 0.2
    }
  }
}
layer {
  name: "inception_3b/relu_1x1"
  type: "ReLU"
  bottom: "inception_3b/1x1"
  top: "inception_3b/1x1"
}
layer {
  name: "inception_3b/3x3_reduce"
  type: "Convolution"
  bottom: "inception_3a/output"
  top: "inception_3b/3x3_reduce"
  param {
    lr_mult: 1
    decay_mult: 1
  }
  param {
    lr_mult: 2
    decay_mult: 0
  }
  convolution_param {
    num_output: 128
    kernel_size: 1
    weight_filler {
      type: "xavier"
      std: 0.09
    }
    bias_filler {
      type: "constant"
      value: 0.2
    }
  }
}
layer {
  name: "inception_3b/relu_3x3_reduce"
  type: "ReLU"
  bottom: "inception_3b/3x3_reduce"
  top: "inception_3b/3x3_reduce"
}
layer {
  name: "inception_3b/3x3"
  type: "Convolution"
  bottom: "inception_3b/3x3_reduce"
  top: "inception_3b/3x3"
  param {
    lr_mult: 1
    decay_mult: 1
  }
  param {
    lr_mult: 2
    decay_mult: 0
  }
  convolution_param {
    num_output: 192
    pad: 1
    kernel_size: 3
    weight_filler {
      type: "xavier"
      std: 0.03
    }
    bias_filler {
      type: "constant"
      value: 0.2
    }
  }
}
layer {
  name: "inception_3b/relu_3x3"
  type: "ReLU"
  bottom: "inception_3b/3x3"
  top: "inception_3b/3x3"
}
layer {
  name: "inception_3b/5x5_reduce"
  type: "Convolution"
  bottom: "inception_3a/output"
  top: "inception_3b/5x5_reduce"
  param {
    lr_mult: 1
    decay_mult: 1
  }
  param {
    lr_mult: 2
    decay_mult: 0
  }
  convolution_param {
    num_output: 32
    kernel_size: 1
    weight_filler {
      type: "xavier"
      std: 0.2
    }
    bias_filler {
      type: "constant"
      value: 0.2
    }
  }
}
layer {
  name: "inception_3b/relu_5x5_reduce"
  type: "ReLU"
  bottom: "inception_3b/5x5_reduce"
  top: "inception_3b/5x5_reduce"
}
layer {
  name: "inception_3b/5x5"
  type: "Convolution"
  bottom: "inception_3b/5x5_reduce"
  top: "inception_3b/5x5"
  param {
    lr_mult: 1
    decay_mult: 1
  }
  param {
    lr_mult: 2
    decay_mult: 0
  }
  convolution_param {
    num_output: 96
    pad: 2
    kernel_size: 5
    weight_filler {
      type: "xavier"
      std: 0.03
    }
    bias_filler {
      type: "constant"
      value: 0.2
    }
  }
}
layer {
  name: "inception_3b/relu_5x5"
  type: "ReLU"
  bottom: "inception_3b/5x5"
  top: "inception_3b/5x5"
}
layer {
  name: "inception_3b/pool"
  type: "Pooling"
  bottom: "inception_3a/output"
  top: "inception_3b/pool"
  pooling_param {
    pool: MAX
    kernel_size: 3
    stride: 1
    pad: 1
  }
}
layer {
  name: "inception_3b/pool_proj"
  type: "Convolution"
  bottom: "inception_3b/pool"
  top: "inception_3b/pool_proj"
  param {
    lr_mult: 1
    decay_mult: 1
  }
  param {
    lr_mult: 2
    decay_mult: 0
  }
  convolution_param {
    num_output: 64
    kernel_size: 1
    weight_filler {
      type: "xavier"
      std: 0.1
    }
    bias_filler {
      type: "constant"
      value: 0.2
    }
  }
}
layer {
  name: "inception_3b/relu_pool_proj"
  type: "ReLU"
  bottom: "inception_3b/pool_proj"
  top: "inception_3b/pool_proj"
}
layer {
  name: "inception_3b/output"
  type: "Concat"
  bottom: "inception_3b/1x1"
  bottom: "inception_3b/3x3"
  bottom: "inception_3b/5x5"
  bottom: "inception_3b/pool_proj"
  top: "inception_3b/output"
}
layer {
  name: "pool3/3x3_s2"
  type: "Pooling"
  bottom: "inception_3b/output"
  top: "pool3/3x3_s2"
  pooling_param {
    pool: MAX
    kernel_size: 3
    stride: 2
  }
}
layer {
  name: "inception_4a/1x1"
  type: "Convolution"
  bottom: "pool3/3x3_s2"
  top: "inception_4a/1x1"
  param {
    lr_mult: 1
    decay_mult: 1
  }
  param {
    lr_mult: 2
    decay_mult: 0
  }
  convolution_param {
    num_output: 192
    kernel_size: 1
    weight_filler {
      type: "xavier"
      std: 0.03
    }
    bias_filler {
      type: "constant"
      value: 0.2
    }
  }
}
layer {
  name: "inception_4a/relu_1x1"
  type: "ReLU"
  bottom: "inception_4a/1x1"
  top: "inception_4a/1x1"
}
layer {
  name: "inception_4a/3x3_reduce"
  type: "Convolution"
  bottom: "pool3/3x3_s2"
  top: "inception_4a/3x3_reduce"
  param {
    lr_mult: 1
    decay_mult: 1
  }
  param {
    lr_mult: 2
    decay_mult: 0
  }
  convolution_param {
    num_output: 96
    kernel_size: 1
    weight_filler {
      type: "xavier"
      std: 0.09
    }
    bias_filler {
      type: "constant"
      value: 0.2
    }
  }
}
layer {
  name: "inception_4a/relu_3x3_reduce"
  type: "ReLU"
  bottom: "inception_4a/3x3_reduce"
  top: "inception_4a/3x3_reduce"
}
layer {
  name: "inception_4a/3x3"
  type: "Convolution"
  bottom: "inception_4a/3x3_reduce"
  top: "inception_4a/3x3"
  param {
    lr_mult: 1
    decay_mult: 1
  }
  param {
    lr_mult: 2
    decay_mult: 0
  }
  convolution_param {
    num_output: 208
    pad: 1
    kernel_size: 3
    weight_filler {
      type: "xavier"
      std: 0.03
    }
    bias_filler {
      type: "constant"
      value: 0.2
    }
  }
}
layer {
  name: "inception_4a/relu_3x3"
  type: "ReLU"
  bottom: "inception_4a/3x3"
  top: "inception_4a/3x3"
}
layer {
  name: "inception_4a/5x5_reduce"
  type: "Convolution"
  bottom: "pool3/3x3_s2"
  top: "inception_4a/5x5_reduce"
  param {
    lr_mult: 1
    decay_mult: 1
  }
  param {
    lr_mult: 2
    decay_mult: 0
  }
  convolution_param {
    num_output: 16
    kernel_size: 1
    weight_filler {
      type: "xavier"
      std: 0.2
    }
    bias_filler {
      type: "constant"
      value: 0.2
    }
  }
}
layer {
  name: "inception_4a/relu_5x5_reduce"
  type: "ReLU"
  bottom: "inception_4a/5x5_reduce"
  top: "inception_4a/5x5_reduce"
}
layer {
  name: "inception_4a/5x5"
  type: "Convolution"
  bottom: "inception_4a/5x5_reduce"
  top: "inception_4a/5x5"
  param {
    lr_mult: 1
    decay_mult: 1
  }
  param {
    lr_mult: 2
    decay_mult: 0
  }
  convolution_param {
    num_output: 48
    pad: 2
    kernel_size: 5
    weight_filler {
      type: "xavier"
      std: 0.03
    }
    bias_filler {
      type: "constant"
      value: 0.2
    }
  }
}
layer {
  name: "inception_4a/relu_5x5"
  type: "ReLU"
  bottom: "inception_4a/5x5"
  top: "inception_4a/5x5"
}
layer {
  name: "inception_4a/pool"
  type: "Pooling"
  bottom: "pool3/3x3_s2"
  top: "inception_4a/pool"
  pooling_param {
    pool: MAX
    kernel_size: 3
    stride: 1
    pad: 1
  }
}
layer {
  name: "inception_4a/pool_proj"
  type: "Convolution"
  bottom: "inception_4a/pool"
  top: "inception_4a/pool_proj"
  param {
    lr_mult: 1
    decay_mult: 1
  }
  param {
    lr_mult: 2
    decay_mult: 0
  }
  convolution_param {
    num_output: 64
    kernel_size: 1
    weight_filler {
      type: "xavier"
      std: 0.1
    }
    bias_filler {
      type: "constant"
      value: 0.2
    }
  }
}
layer {
  name: "inception_4a/relu_pool_proj"
  type: "ReLU"
  bottom: "inception_4a/pool_proj"
  top: "inception_4a/pool_proj"
}
layer {
  name: "inception_4a/output"
  type: "Concat"
  bottom: "inception_4a/1x1"
  bottom: "inception_4a/3x3"
  bottom: "inception_4a/5x5"
  bottom: "inception_4a/pool_proj"
  top: "inception_4a/output"
}
layer {
  name: "loss1/ave_pool"
  type: "Pooling"
  bottom: "inception_4a/output"
  top: "loss1/ave_pool"
  pooling_param {
    pool: AVE
    kernel_size: 5
    stride: 3
  }
}
layer {
  name: "loss1/conv"
  type: "Convolution"
  bottom: "loss1/ave_pool"
  top: "loss1/conv"
  param {
    lr_mult: 1
    decay_mult: 1
  }
  param {
    lr_mult: 2
    decay_mult: 0
  }
  convolution_param {
    num_output: 128
    kernel_size: 1
    weight_filler {
      type: "xavier"
      std: 0.08
    }
    bias_filler {
      type: "constant"
      value: 0.2
    }
  }
}
layer {
  name: "loss1/relu_conv"
  type: "ReLU"
  bottom: "loss1/conv"
  top: "loss1/conv"
}
layer {
  name: "loss1/fc"
  type: "InnerProduct"
  bottom: "loss1/conv"
  top: "loss1/fc"
  param {
    lr_mult: 1
    decay_mult: 1
  }
  param {
    lr_mult: 2
    decay_mult: 0
  }
  inner_product_param {
    num_output: 1024
    weight_filler {
      type: "xavier"
      std: 0.02
    }
    bias_filler {
      type: "constant"
      value: 0.2
    }
  }
}
layer {
  name: "loss1/relu_fc"
  type: "ReLU"
  bottom: "loss1/fc"
  top: "loss1/fc"
}
layer {
  name: "loss1/drop_fc"
  type: "Dropout"
  bottom: "loss1/fc"
  top: "loss1/fc"
  dropout_param {
    dropout_ratio: 0.7
  }
}
layer {
  name: "loss1/classifier_plantvillage"
  type: "InnerProduct"
  bottom: "loss1/fc"
  top: "loss1/classifier_plantvillage"
  param {
    lr_mult: 1
    decay_mult: 1
  }
  param {
    lr_mult: 2
    decay_mult: 0
  }
  inner_product_param {
    num_output: 38
    weight_filler {
      type: "xavier"
      std: 0.0009765625
    }
    bias_filler {
      type: "constant"
      value: 0
    }
  }
}
layer {
  name: "inception_4b/1x1"
  type: "Convolution"
  bottom: "inception_4a/output"
  top: "inception_4b/1x1"
  param {
    lr_mult: 1
    decay_mult: 1
  }
  param {
    lr_mult: 2
    decay_mult: 0
  }
  convolution_param {
    num_output: 160
    kernel_size: 1
    weight_filler {
      type: "xavier"
      std: 0.03
    }
    bias_filler {
      type: "constant"
      value: 0.2
    }
  }
}
layer {
  name: "inception_4b/relu_1x1"
  type: "ReLU"
  bottom: "inception_4b/1x1"
  top: "inception_4b/1x1"
}
layer {
  name: "inception_4b/3x3_reduce"
  type: "Convolution"
  bottom: "inception_4a/output"
  top: "inception_4b/3x3_reduce"
  param {
    lr_mult: 1
    decay_mult: 1
  }
  param {
    lr_mult: 2
    decay_mult: 0
  }
  convolution_param {
    num_output: 112
    kernel_size: 1
    weight_filler {
      type: "xavier"
      std: 0.09
    }
    bias_filler {
      type: "constant"
      value: 0.2
    }
  }
}
layer {
  name: "inception_4b/relu_3x3_reduce"
  type: "ReLU"
  bottom: "inception_4b/3x3_reduce"
  top: "inception_4b/3x3_reduce"
}
layer {
  name: "inception_4b/3x3"
  type: "Convolution"
  bottom: "inception_4b/3x3_reduce"
  top: "inception_4b/3x3"
  param {
    lr_mult: 1
    decay_mult: 1
  }
  param {
    lr_mult: 2
    decay_mult: 0
  }
  convolution_param {
    num_output: 224
    pad: 1
    kernel_size: 3
    weight_filler {
      type: "xavier"
      std: 0.03
    }
    bias_filler {
      type: "constant"
      value: 0.2
    }
  }
}
layer {
  name: "inception_4b/relu_3x3"
  type: "ReLU"
  bottom: "inception_4b/3x3"
  top: "inception_4b/3x3"
}
layer {
  name: "inception_4b/5x5_reduce"
  type: "Convolution"
  bottom: "inception_4a/output"
  top: "inception_4b/5x5_reduce"
  param {
    lr_mult: 1
    decay_mult: 1
  }
  param {
    lr_mult: 2
    decay_mult: 0
  }
  convolution_param {
    num_output: 24
    kernel_size: 1
    weight_filler {
      type: "xavier"
      std: 0.2
    }
    bias_filler {
      type: "constant"
      value: 0.2
    }
  }
}
layer {
  name: "inception_4b/relu_5x5_reduce"
  type: "ReLU"
  bottom: "inception_4b/5x5_reduce"
  top: "inception_4b/5x5_reduce"
}
layer {
  name: "inception_4b/5x5"
  type: "Convolution"
  bottom: "inception_4b/5x5_reduce"
  top: "inception_4b/5x5"
  param {
    lr_mult: 1
    decay_mult: 1
  }
  param {
    lr_mult: 2
    decay_mult: 0
  }
  convolution_param {
    num_output: 64
    pad: 2
    kernel_size: 5
    weight_filler {
      type: "xavier"
      std: 0.03
    }
    bias_filler {
      type: "constant"
      value: 0.2
    }
  }
}
layer {
  name: "inception_4b/relu_5x5"
  type: "ReLU"
  bottom: "inception_4b/5x5"
  top: "inception_4b/5x5"
}
layer {
  name: "inception_4b/pool"
  type: "Pooling"
  bottom: "inception_4a/output"
  top: "inception_4b/pool"
  pooling_param {
    pool: MAX
    kernel_size: 3
    stride: 1
    pad: 1
  }
}
layer {
  name: "inception_4b/pool_proj"
  type: "Convolution"
  bottom: "inception_4b/pool"
  top: "inception_4b/pool_proj"
  param {
    lr_mult: 1
    decay_mult: 1
  }
  param {
    lr_mult: 2
    decay_mult: 0
  }
  convolution_param {
    num_output: 64
    kernel_size: 1
    weight_filler {
      type: "xavier"
      std: 0.1
    }
    bias_filler {
      type: "constant"
      value: 0.2
    }
  }
}
layer {
  name: "inception_4b/relu_pool_proj"
  type: "ReLU"
  bottom: "inception_4b/pool_proj"
  top: "inception_4b/pool_proj"
}
layer {
  name: "inception_4b/output"
  type: "Concat"
  bottom: "inception_4b/1x1"
  bottom: "inception_4b/3x3"
  bottom: "inception_4b/5x5"
  bottom: "inception_4b/pool_proj"
  top: "inception_4b/output"
}
layer {
  name: "inception_4c/1x1"
  type: "Convolution"
  bottom: "inception_4b/output"
  top: "inception_4c/1x1"
  param {
    lr_mult: 1
    decay_mult: 1
  }
  param {
    lr_mult: 2
    decay_mult: 0
  }
  convolution_param {
    num_output: 128
    kernel_size: 1
    weight_filler {
      type: "xavier"
      std: 0.03
    }
    bias_filler {
      type: "constant"
      value: 0.2
    }
  }
}
layer {
  name: "inception_4c/relu_1x1"
  type: "ReLU"
  bottom: "inception_4c/1x1"
  top: "inception_4c/1x1"
}
layer {
  name: "inception_4c/3x3_reduce"
  type: "Convolution"
  bottom: "inception_4b/output"
  top: "inception_4c/3x3_reduce"
  param {
    lr_mult: 1
    decay_mult: 1
  }
  param {
    lr_mult: 2
    decay_mult: 0
  }
  convolution_param {
    num_output: 128
    kernel_size: 1
    weight_filler {
      type: "xavier"
      std: 0.09
    }
    bias_filler {
      type: "constant"
      value: 0.2
    }
  }
}
layer {
  name: "inception_4c/relu_3x3_reduce"
  type: "ReLU"
  bottom: "inception_4c/3x3_reduce"
  top: "inception_4c/3x3_reduce"
}
layer {
  name: "inception_4c/3x3"
  type: "Convolution"
  bottom: "inception_4c/3x3_reduce"
  top: "inception_4c/3x3"
  param {
    lr_mult: 1
    decay_mult: 1
  }
  param {
    lr_mult: 2
    decay_mult: 0
  }
  convolution_param {
    num_output: 256
    pad: 1
    kernel_size: 3
    weight_filler {
      type: "xavier"
      std: 0.03
    }
    bias_filler {
      type: "constant"
      value: 0.2
    }
  }
}
layer {
  name: "inception_4c/relu_3x3"
  type: "ReLU"
  bottom: "inception_4c/3x3"
  top: "inception_4c/3x3"
}
layer {
  name: "inception_4c/5x5_reduce"
  type: "Convolution"
  bottom: "inception_4b/output"
  top: "inception_4c/5x5_reduce"
  param {
    lr_mult: 1
    decay_mult: 1
  }
  param {
    lr_mult: 2
    decay_mult: 0
  }
  convolution_param {
    num_output: 24
    kernel_size: 1
    weight_filler {
      type: "xavier"
      std: 0.2
    }
    bias_filler {
      type: "constant"
      value: 0.2
    }
  }
}
layer {
  name: "inception_4c/relu_5x5_reduce"
  type: "ReLU"
  bottom: "inception_4c/5x5_reduce"
  top: "inception_4c/5x5_reduce"
}
layer {
  name: "inception_4c/5x5"
  type: "Convolution"
  bottom: "inception_4c/5x5_reduce"
  top: "inception_4c/5x5"
  param {
    lr_mult: 1
    decay_mult: 1
  }
  param {
    lr_mult: 2
    decay_mult: 0
  }
  convolution_param {
    num_output: 64
    pad: 2
    kernel_size: 5
    weight_filler {
      type: "xavier"
      std: 0.03
    }
    bias_filler {
      type: "constant"
      value: 0.2
    }
  }
}
layer {
  name: "inception_4c/relu_5x5"
  type: "ReLU"
  bottom: "inception_4c/5x5"
  top: "inception_4c/5x5"
}
layer {
  name: "inception_4c/pool"
  type: "Pooling"
  bottom: "inception_4b/output"
  top: "inception_4c/pool"
  pooling_param {
    pool: MAX
    kernel_size: 3
    stride: 1
    pad: 1
  }
}
layer {
  name: "inception_4c/pool_proj"
  type: "Convolution"
  bottom: "inception_4c/pool"
  top: "inception_4c/pool_proj"
  param {
    lr_mult: 1
    decay_mult: 1
  }
  param {
    lr_mult: 2
    decay_mult: 0
  }
  convolution_param {
    num_output: 64
    kernel_size: 1
    weight_filler {
      type: "xavier"
      std: 0.1
    }
    bias_filler {
      type: "constant"
      value: 0.2
    }
  }
}
layer {
  name: "inception_4c/relu_pool_proj"
  type: "ReLU"
  bottom: "inception_4c/pool_proj"
  top: "inception_4c/pool_proj"
}
layer {
  name: "inception_4c/output"
  type: "Concat"
  bottom: "inception_4c/1x1"
  bottom: "inception_4c/3x3"
  bottom: "inception_4c/5x5"
  bottom: "inception_4c/pool_proj"
  top: "inception_4c/output"
}
layer {
  name: "inception_4d/1x1"
  type: "Convolution"
  bottom: "inception_4c/output"
  top: "inception_4d/1x1"
  param {
    lr_mult: 1
    decay_mult: 1
  }
  param {
    lr_mult: 2
    decay_mult: 0
  }
  convolution_param {
    num_output: 112
    kernel_size: 1
    weight_filler {
      type: "xavier"
      std: 0.03
    }
    bias_filler {
      type: "constant"
      value: 0.2
    }
  }
}
layer {
  name: "inception_4d/relu_1x1"
  type: "ReLU"
  bottom: "inception_4d/1x1"
  top: "inception_4d/1x1"
}
layer {
  name: "inception_4d/3x3_reduce"
  type: "Convolution"
  bottom: "inception_4c/output"
  top: "inception_4d/3x3_reduce"
  param {
    lr_mult: 1
    decay_mult: 1
  }
  param {
    lr_mult: 2
    decay_mult: 0
  }
  convolution_param {
    num_output: 144
    kernel_size: 1
    weight_filler {
      type: "xavier"
      std: 0.09
    }
    bias_filler {
      type: "constant"
      value: 0.2
    }
  }
}
layer {
  name: "inception_4d/relu_3x3_reduce"
  type: "ReLU"
  bottom: "inception_4d/3x3_reduce"
  top: "inception_4d/3x3_reduce"
}
layer {
  name: "inception_4d/3x3"
  type: "Convolution"
  bottom: "inception_4d/3x3_reduce"
  top: "inception_4d/3x3"
  param {
    lr_mult: 1
    decay_mult: 1
  }
  param {
    lr_mult: 2
    decay_mult: 0
  }
  convolution_param {
    num_output: 288
    pad: 1
    kernel_size: 3
    weight_filler {
      type: "xavier"
      std: 0.03
    }
    bias_filler {
      type: "constant"
      value: 0.2
    }
  }
}
layer {
  name: "inception_4d/relu_3x3"
  type: "ReLU"
  bottom: "inception_4d/3x3"
  top: "inception_4d/3x3"
}
layer {
  name: "inception_4d/5x5_reduce"
  type: "Convolution"
  bottom: "inception_4c/output"
  top: "inception_4d/5x5_reduce"
  param {
    lr_mult: 1
    decay_mult: 1
  }
  param {
    lr_mult: 2
    decay_mult: 0
  }
  convolution_param {
    num_output: 32
    kernel_size: 1
    weight_filler {
      type: "xavier"
      std: 0.2
    }
    bias_filler {
      type: "constant"
      value: 0.2
    }
  }
}
layer {
  name: "inception_4d/relu_5x5_reduce"
  type: "ReLU"
  bottom: "inception_4d/5x5_reduce"
  top: "inception_4d/5x5_reduce"
}
layer {
  name: "inception_4d/5x5"
  type: "Convolution"
  bottom: "inception_4d/5x5_reduce"
  top: "inception_4d/5x5"
  param {
    lr_mult: 1
    decay_mult: 1
  }
  param {
    lr_mult: 2
    decay_mult: 0
  }
  convolution_param {
    num_output: 64
    pad: 2
    kernel_size: 5
    weight_filler {
      type: "xavier"
      std: 0.03
    }
    bias_filler {
      type: "constant"
      value: 0.2
    }
  }
}
layer {
  name: "inception_4d/relu_5x5"
  type: "ReLU"
  bottom: "inception_4d/5x5"
  top: "inception_4d/5x5"
}
layer {
  name: "inception_4d/pool"
  type: "Pooling"
  bottom: "inception_4c/output"
  top: "inception_4d/pool"
  pooling_param {
    pool: MAX
    kernel_size: 3
    stride: 1
    pad: 1
  }
}
layer {
  name: "inception_4d/pool_proj"
  type: "Convolution"
  bottom: "inception_4d/pool"
  top: "inception_4d/pool_proj"
  param {
    lr_mult: 1
    decay_mult: 1
  }
  param {
    lr_mult: 2
    decay_mult: 0
  }
  convolution_param {
    num_output: 64
    kernel_size: 1
    weight_filler {
      type: "xavier"
      std: 0.1
    }
    bias_filler {
      type: "constant"
      value: 0.2
    }
  }
}
layer {
  name: "inception_4d/relu_pool_proj"
  type: "ReLU"
  bottom: "inception_4d/pool_proj"
  top: "inception_4d/pool_proj"
}
layer {
  name: "inception_4d/output"
  type: "Concat"
  bottom: "inception_4d/1x1"
  bottom: "inception_4d/3x3"
  bottom: "inception_4d/5x5"
  bottom: "inception_4d/pool_proj"
  top: "inception_4d/output"
}
layer {
  name: "loss2/ave_pool"
  type: "Pooling"
  bottom: "inception_4d/output"
  top: "loss2/ave_pool"
  pooling_param {
    pool: AVE
    kernel_size: 5
    stride: 3
  }
}
layer {
  name: "loss2/conv"
  type: "Convolution"
  bottom: "loss2/ave_pool"
  top: "loss2/conv"
  param {
    lr_mult: 1
    decay_mult: 1
  }
  param {
    lr_mult: 2
    decay_mult: 0
  }
  convolution_param {
    num_output: 128
    kernel_size: 1
    weight_filler {
      type: "xavier"
      std: 0.08
    }
    bias_filler {
      type: "constant"
      value: 0.2
    }
  }
}
layer {
  name: "loss2/relu_conv"
  type: "ReLU"
  bottom: "loss2/conv"
  top: "loss2/conv"
}
layer {
  name: "loss2/fc"
  type: "InnerProduct"
  bottom: "loss2/conv"
  top: "loss2/fc"
  param {
    lr_mult: 1
    decay_mult: 1
  }
  param {
    lr_mult: 2
    decay_mult: 0
  }
  inner_product_param {
    num_output: 1024
    weight_filler {
      type: "xavier"
      std: 0.02
    }
    bias_filler {
      type: "constant"
      value: 0.2
    }
  }
}
layer {
  name: "loss2/relu_fc"
  type: "ReLU"
  bottom: "loss2/fc"
  top: "loss2/fc"
}
layer {
  name: "loss2/drop_fc"
  type: "Dropout"
  bottom: "loss2/fc"
  top: "loss2/fc"
  dropout_param {
    dropout_ratio: 0.7
  }
}
layer {
  name: "loss2/classifier_plantvillage"
  type: "InnerProduct"
  bottom: "loss2/fc"
  top: "loss2/classifier_plantvillage"
  param {
    lr_mult: 1
    decay_mult: 1
  }
  param {
    lr_mult: 2
    decay_mult: 0
  }
  inner_product_param {
    num_output: 38
    weight_filler {
      type: "xavier"
      std: 0.0009765625
    }
    bias_filler {
      type: "constant"
      value: 0
    }
  }
}
layer {
  name: "inception_4e/1x1"
  type: "Convolution"
  bottom: "inception_4d/output"
  top: "inception_4e/1x1"
  param {
    lr_mult: 1
    decay_mult: 1
  }
  param {
    lr_mult: 2
    decay_mult: 0
  }
  convolution_param {
    num_output: 256
    kernel_size: 1
    weight_filler {
      type: "xavier"
      std: 0.03
    }
    bias_filler {
      type: "constant"
      value: 0.2
    }
  }
}
layer {
  name: "inception_4e/relu_1x1"
  type: "ReLU"
  bottom: "inception_4e/1x1"
  top: "inception_4e/1x1"
}
layer {
  name: "inception_4e/3x3_reduce"
  type: "Convolution"
  bottom: "inception_4d/output"
  top: "inception_4e/3x3_reduce"
  param {
    lr_mult: 1
    decay_mult: 1
  }
  param {
    lr_mult: 2
    decay_mult: 0
  }
  convolution_param {
    num_output: 160
    kernel_size: 1
    weight_filler {
      type: "xavier"
      std: 0.09
    }
    bias_filler {
      type: "constant"
      value: 0.2
    }
  }
}
layer {
  name: "inception_4e/relu_3x3_reduce"
  type: "ReLU"
  bottom: "inception_4e/3x3_reduce"
  top: "inception_4e/3x3_reduce"
}
layer {
  name: "inception_4e/3x3"
  type: "Convolution"
  bottom: "inception_4e/3x3_reduce"
  top: "inception_4e/3x3"
  param {
    lr_mult: 1
    decay_mult: 1
  }
  param {
    lr_mult: 2
    decay_mult: 0
  }
  convolution_param {
    num_output: 320
    pad: 1
    kernel_size: 3
    weight_filler {
      type: "xavier"
      std: 0.03
    }
    bias_filler {
      type: "constant"
      value: 0.2
    }
  }
}
layer {
  name: "inception_4e/relu_3x3"
  type: "ReLU"
  bottom: "inception_4e/3x3"
  top: "inception_4e/3x3"
}
layer {
  name: "inception_4e/5x5_reduce"
  type: "Convolution"
  bottom: "inception_4d/output"
  top: "inception_4e/5x5_reduce"
  param {
    lr_mult: 1
    decay_mult: 1
  }
  param {
    lr_mult: 2
    decay_mult: 0
  }
  convolution_param {
    num_output: 32
    kernel_size: 1
    weight_filler {
      type: "xavier"
      std: 0.2
    }
    bias_filler {
      type: "constant"
      value: 0.2
    }
  }
}
layer {
  name: "inception_4e/relu_5x5_reduce"
  type: "ReLU"
  bottom: "inception_4e/5x5_reduce"
  top: "inception_4e/5x5_reduce"
}
layer {
  name: "inception_4e/5x5"
  type: "Convolution"
  bottom: "inception_4e/5x5_reduce"
  top: "inception_4
I0403 12:01:39.037231 32420 layer_factory.hpp:77] Creating layer data
I0403 12:01:39.037881 32420 net.cpp:91] Creating Layer data
I0403 12:01:39.037919 32420 net.cpp:399] data -> data
I0403 12:01:39.037976 32420 net.cpp:399] data -> label
I0403 12:01:39.038012 32420 data_transformer.cpp:25] Loading mean file from: /home/mohanty/data/final_dataset/lmdb/segmented-80-20/mean.binaryproto
I0403 12:01:39.095283 32425 db_lmdb.cpp:38] Opened lmdb /home/mohanty/data/final_dataset/lmdb/segmented-80-20/train_db
I0403 12:01:39.124487 32420 data_layer.cpp:41] output data size: 24,3,224,224
I0403 12:01:39.153311 32420 net.cpp:141] Setting up data
I0403 12:01:39.153390 32420 net.cpp:148] Top shape: 24 3 224 224 (3612672)
I0403 12:01:39.153414 32420 net.cpp:148] Top shape: 24 (24)
I0403 12:01:39.153430 32420 net.cpp:156] Memory required for data: 14450784
I0403 12:01:39.153493 32420 layer_factory.hpp:77] Creating layer label_data_1_split
I0403 12:01:39.153524 32420 net.cpp:91] Creating Layer label_data_1_split
I0403 12:01:39.153545 32420 net.cpp:425] label_data_1_split <- label
I0403 12:01:39.153578 32420 net.cpp:399] label_data_1_split -> label_data_1_split_0
I0403 12:01:39.153606 32420 net.cpp:399] label_data_1_split -> label_data_1_split_1
I0403 12:01:39.153628 32420 net.cpp:399] label_data_1_split -> label_data_1_split_2
I0403 12:01:39.153694 32420 net.cpp:141] Setting up label_data_1_split
I0403 12:01:39.153717 32420 net.cpp:148] Top shape: 24 (24)
I0403 12:01:39.153735 32420 net.cpp:148] Top shape: 24 (24)
I0403 12:01:39.153751 32420 net.cpp:148] Top shape: 24 (24)
I0403 12:01:39.153765 32420 net.cpp:156] Memory required for data: 14451072
I0403 12:01:39.153780 32420 layer_factory.hpp:77] Creating layer conv1/7x7_s2
I0403 12:01:39.153817 32420 net.cpp:91] Creating Layer conv1/7x7_s2
I0403 12:01:39.153836 32420 net.cpp:425] conv1/7x7_s2 <- data
I0403 12:01:39.153856 32420 net.cpp:399] conv1/7x7_s2 -> conv1/7x7_s2
I0403 12:01:39.154741 32420 net.cpp:141] Setting up conv1/7x7_s2
I0403 12:01:39.154770 32420 net.cpp:148] Top shape: 24 64 112 112 (19267584)
I0403 12:01:39.154788 32420 net.cpp:156] Memory required for data: 91521408
I0403 12:01:39.154822 32420 layer_factory.hpp:77] Creating layer conv1/relu_7x7
I0403 12:01:39.154850 32420 net.cpp:91] Creating Layer conv1/relu_7x7
I0403 12:01:39.154867 32420 net.cpp:425] conv1/relu_7x7 <- conv1/7x7_s2
I0403 12:01:39.154886 32420 net.cpp:386] conv1/relu_7x7 -> conv1/7x7_s2 (in-place)
I0403 12:01:39.154911 32420 net.cpp:141] Setting up conv1/relu_7x7
I0403 12:01:39.154932 32420 net.cpp:148] Top shape: 24 64 112 112 (19267584)
I0403 12:01:39.154948 32420 net.cpp:156] Memory required for data: 168591744
I0403 12:01:39.154963 32420 layer_factory.hpp:77] Creating layer pool1/3x3_s2
I0403 12:01:39.154983 32420 net.cpp:91] Creating Layer pool1/3x3_s2
I0403 12:01:39.154999 32420 net.cpp:425] pool1/3x3_s2 <- conv1/7x7_s2
I0403 12:01:39.155017 32420 net.cpp:399] pool1/3x3_s2 -> pool1/3x3_s2
I0403 12:01:39.155089 32420 net.cpp:141] Setting up pool1/3x3_s2
I0403 12:01:39.155114 32420 net.cpp:148] Top shape: 24 64 56 56 (4816896)
I0403 12:01:39.155129 32420 net.cpp:156] Memory required for data: 187859328
I0403 12:01:39.155148 32420 layer_factory.hpp:77] Creating layer pool1/norm1
I0403 12:01:39.155170 32420 net.cpp:91] Creating Layer pool1/norm1
I0403 12:01:39.155187 32420 net.cpp:425] pool1/norm1 <- pool1/3x3_s2
I0403 12:01:39.155210 32420 net.cpp:399] pool1/norm1 -> pool1/norm1
I0403 12:01:39.155267 32420 net.cpp:141] Setting up pool1/norm1
I0403 12:01:39.155292 32420 net.cpp:148] Top shape: 24 64 56 56 (4816896)
I0403 12:01:39.155306 32420 net.cpp:156] Memory required for data: 207126912
I0403 12:01:39.155320 32420 layer_factory.hpp:77] Creating layer conv2/3x3_reduce
I0403 12:01:39.155342 32420 net.cpp:91] Creating Layer conv2/3x3_reduce
I0403 12:01:39.155359 32420 net.cpp:425] conv2/3x3_reduce <- pool1/norm1
I0403 12:01:39.155380 32420 net.cpp:399] conv2/3x3_reduce -> conv2/3x3_reduce
I0403 12:01:39.156129 32420 net.cpp:141] Setting up conv2/3x3_reduce
I0403 12:01:39.156159 32420 net.cpp:148] Top shape: 24 64 56 56 (4816896)
I0403 12:01:39.156175 32420 net.cpp:156] Memory required for data: 226394496
I0403 12:01:39.156196 32420 layer_factory.hpp:77] Creating layer conv2/relu_3x3_reduce
I0403 12:01:39.156222 32420 net.cpp:91] Creating Layer conv2/relu_3x3_reduce
I0403 12:01:39.156240 32420 net.cpp:425] conv2/relu_3x3_reduce <- conv2/3x3_reduce
I0403 12:01:39.156258 32420 net.cpp:386] conv2/relu_3x3_reduce -> conv2/3x3_reduce (in-place)
I0403 12:01:39.156277 32420 net.cpp:141] Setting up conv2/relu_3x3_reduce
I0403 12:01:39.156294 32420 net.cpp:148] Top shape: 24 64 56 56 (4816896)
I0403 12:01:39.156309 32420 net.cpp:156] Memory required for data: 245662080
I0403 12:01:39.156324 32420 layer_factory.hpp:77] Creating layer conv2/3x3
I0403 12:01:39.156347 32420 net.cpp:91] Creating Layer conv2/3x3
I0403 12:01:39.156364 32420 net.cpp:425] conv2/3x3 <- conv2/3x3_reduce
I0403 12:01:39.156404 32420 net.cpp:399] conv2/3x3 -> conv2/3x3
I0403 12:01:39.159104 32420 net.cpp:141] Setting up conv2/3x3
I0403 12:01:39.159144 32420 net.cpp:148] Top shape: 24 192 56 56 (14450688)
I0403 12:01:39.159162 32420 net.cpp:156] Memory required for data: 303464832
I0403 12:01:39.159185 32420 layer_factory.hpp:77] Creating layer conv2/relu_3x3
I0403 12:01:39.159210 32420 net.cpp:91] Creating Layer conv2/relu_3x3
I0403 12:01:39.159229 32420 net.cpp:425] conv2/relu_3x3 <- conv2/3x3
I0403 12:01:39.159248 32420 net.cpp:386] conv2/relu_3x3 -> conv2/3x3 (in-place)
I0403 12:01:39.159268 32420 net.cpp:141] Setting up conv2/relu_3x3
I0403 12:01:39.159284 32420 net.cpp:148] Top shape: 24 192 56 56 (14450688)
I0403 12:01:39.159298 32420 net.cpp:156] Memory required for data: 361267584
I0403 12:01:39.159313 32420 layer_factory.hpp:77] Creating layer conv2/norm2
I0403 12:01:39.159332 32420 net.cpp:91] Creating Layer conv2/norm2
I0403 12:01:39.159349 32420 net.cpp:425] conv2/norm2 <- conv2/3x3
I0403 12:01:39.159349 32427 blocking_queue.cpp:50] Waiting for data
I0403 12:01:39.159371 32420 net.cpp:399] conv2/norm2 -> conv2/norm2
I0403 12:01:39.159449 32420 net.cpp:141] Setting up conv2/norm2
I0403 12:01:39.159473 32420 net.cpp:148] Top shape: 24 192 56 56 (14450688)
I0403 12:01:39.159488 32420 net.cpp:156] Memory required for data: 419070336
I0403 12:01:39.159504 32420 layer_factory.hpp:77] Creating layer pool2/3x3_s2
I0403 12:01:39.159523 32420 net.cpp:91] Creating Layer pool2/3x3_s2
I0403 12:01:39.159538 32420 net.cpp:425] pool2/3x3_s2 <- conv2/norm2
I0403 12:01:39.159555 32420 net.cpp:399] pool2/3x3_s2 -> pool2/3x3_s2
I0403 12:01:39.159601 32420 net.cpp:141] Setting up pool2/3x3_s2
I0403 12:01:39.159626 32420 net.cpp:148] Top shape: 24 192 28 28 (3612672)
I0403 12:01:39.159641 32420 net.cpp:156] Memory required for data: 433521024
I0403 12:01:39.159657 32420 layer_factory.hpp:77] Creating layer pool2/3x3_s2_pool2/3x3_s2_0_split
I0403 12:01:39.159674 32420 net.cpp:91] Creating Layer pool2/3x3_s2_pool2/3x3_s2_0_split
I0403 12:01:39.159692 32420 net.cpp:425] pool2/3x3_s2_pool2/3x3_s2_0_split <- pool2/3x3_s2
I0403 12:01:39.159709 32420 net.cpp:399] pool2/3x3_s2_pool2/3x3_s2_0_split -> pool2/3x3_s2_pool2/3x3_s2_0_split_0
I0403 12:01:39.159729 32420 net.cpp:399] pool2/3x3_s2_pool2/3x3_s2_0_split -> pool2/3x3_s2_pool2/3x3_s2_0_split_1
I0403 12:01:39.159749 32420 net.cpp:399] pool2/3x3_s2_pool2/3x3_s2_0_split -> pool2/3x3_s2_pool2/3x3_s2_0_split_2
I0403 12:01:39.159771 32420 net.cpp:399] pool2/3x3_s2_pool2/3x3_s2_0_split -> pool2/3x3_s2_pool2/3x3_s2_0_split_3
I0403 12:01:39.159829 32420 net.cpp:141] Setting up pool2/3x3_s2_pool2/3x3_s2_0_split
I0403 12:01:39.159852 32420 net.cpp:148] Top shape: 24 192 28 28 (3612672)
I0403 12:01:39.159869 32420 net.cpp:148] Top shape: 24 192 28 28 (3612672)
I0403 12:01:39.159885 32420 net.cpp:148] Top shape: 24 192 28 28 (3612672)
I0403 12:01:39.159901 32420 net.cpp:148] Top shape: 24 192 28 28 (3612672)
I0403 12:01:39.159916 32420 net.cpp:156] Memory required for data: 491323776
I0403 12:01:39.159932 32420 layer_factory.hpp:77] Creating layer inception_3a/1x1
I0403 12:01:39.159955 32420 net.cpp:91] Creating Layer inception_3a/1x1
I0403 12:01:39.159973 32420 net.cpp:425] inception_3a/1x1 <- pool2/3x3_s2_pool2/3x3_s2_0_split_0
I0403 12:01:39.159992 32420 net.cpp:399] inception_3a/1x1 -> inception_3a/1x1
I0403 12:01:39.160791 32420 net.cpp:141] Setting up inception_3a/1x1
I0403 12:01:39.160820 32420 net.cpp:148] Top shape: 24 64 28 28 (1204224)
I0403 12:01:39.160836 32420 net.cpp:156] Memory required for data: 496140672
I0403 12:01:39.160854 32420 layer_factory.hpp:77] Creating layer inception_3a/relu_1x1
I0403 12:01:39.160872 32420 net.cpp:91] Creating Layer inception_3a/relu_1x1
I0403 12:01:39.160888 32420 net.cpp:425] inception_3a/relu_1x1 <- inception_3a/1x1
I0403 12:01:39.160907 32420 net.cpp:386] inception_3a/relu_1x1 -> inception_3a/1x1 (in-place)
I0403 12:01:39.160925 32420 net.cpp:141] Setting up inception_3a/relu_1x1
I0403 12:01:39.160943 32420 net.cpp:148] Top shape: 24 64 28 28 (1204224)
I0403 12:01:39.160975 32420 net.cpp:156] Memory required for data: 500957568
I0403 12:01:39.160991 32420 layer_factory.hpp:77] Creating layer inception_3a/3x3_reduce
I0403 12:01:39.161013 32420 net.cpp:91] Creating Layer inception_3a/3x3_reduce
I0403 12:01:39.161031 32420 net.cpp:425] inception_3a/3x3_reduce <- pool2/3x3_s2_pool2/3x3_s2_0_split_1
I0403 12:01:39.161054 32420 net.cpp:399] inception_3a/3x3_reduce -> inception_3a/3x3_reduce
I0403 12:01:39.161900 32420 net.cpp:141] Setting up inception_3a/3x3_reduce
I0403 12:01:39.161928 32420 net.cpp:148] Top shape: 24 96 28 28 (1806336)
I0403 12:01:39.161945 32420 net.cpp:156] Memory required for data: 508182912
I0403 12:01:39.161967 32420 layer_factory.hpp:77] Creating layer inception_3a/relu_3x3_reduce
I0403 12:01:39.161991 32420 net.cpp:91] Creating Layer inception_3a/relu_3x3_reduce
I0403 12:01:39.162010 32420 net.cpp:425] inception_3a/relu_3x3_reduce <- inception_3a/3x3_reduce
I0403 12:01:39.162029 32420 net.cpp:386] inception_3a/relu_3x3_reduce -> inception_3a/3x3_reduce (in-place)
I0403 12:01:39.162048 32420 net.cpp:141] Setting up inception_3a/relu_3x3_reduce
I0403 12:01:39.162065 32420 net.cpp:148] Top shape: 24 96 28 28 (1806336)
I0403 12:01:39.162080 32420 net.cpp:156] Memory required for data: 515408256
I0403 12:01:39.162093 32420 layer_factory.hpp:77] Creating layer inception_3a/3x3
I0403 12:01:39.162117 32420 net.cpp:91] Creating Layer inception_3a/3x3
I0403 12:01:39.162134 32420 net.cpp:425] inception_3a/3x3 <- inception_3a/3x3_reduce
I0403 12:01:39.162168 32420 net.cpp:399] inception_3a/3x3 -> inception_3a/3x3
I0403 12:01:39.162986 32420 net.cpp:141] Setting up inception_3a/3x3
I0403 12:01:39.163012 32420 net.cpp:148] Top shape: 24 128 28 28 (2408448)
I0403 12:01:39.163028 32420 net.cpp:156] Memory required for data: 525042048
I0403 12:01:39.163045 32420 layer_factory.hpp:77] Creating layer inception_3a/relu_3x3
I0403 12:01:39.163064 32420 net.cpp:91] Creating Layer inception_3a/relu_3x3
I0403 12:01:39.163079 32420 net.cpp:425] inception_3a/relu_3x3 <- inception_3a/3x3
I0403 12:01:39.163100 32420 net.cpp:386] inception_3a/relu_3x3 -> inception_3a/3x3 (in-place)
I0403 12:01:39.163120 32420 net.cpp:141] Setting up inception_3a/relu_3x3
I0403 12:01:39.163137 32420 net.cpp:148] Top shape: 24 128 28 28 (2408448)
I0403 12:01:39.163152 32420 net.cpp:156] Memory required for data: 534675840
I0403 12:01:39.163178 32420 layer_factory.hpp:77] Creating layer inception_3a/5x5_reduce
I0403 12:01:39.163202 32420 net.cpp:91] Creating Layer inception_3a/5x5_reduce
I0403 12:01:39.163224 32420 net.cpp:425] inception_3a/5x5_reduce <- pool2/3x3_s2_pool2/3x3_s2_0_split_2
I0403 12:01:39.163245 32420 net.cpp:399] inception_3a/5x5_reduce -> inception_3a/5x5_reduce
I0403 12:01:39.163485 32420 net.cpp:141] Setting up inception_3a/5x5_reduce
I0403 12:01:39.163511 32420 net.cpp:148] Top shape: 24 16 28 28 (301056)
I0403 12:01:39.163527 32420 net.cpp:156] Memory required for data: 535880064
I0403 12:01:39.163545 32420 layer_factory.hpp:77] Creating layer inception_3a/relu_5x5_reduce
I0403 12:01:39.163563 32420 net.cpp:91] Creating Layer inception_3a/relu_5x5_reduce
I0403 12:01:39.163578 32420 net.cpp:425] inception_3a/relu_5x5_reduce <- inception_3a/5x5_reduce
I0403 12:01:39.163594 32420 net.cpp:386] inception_3a/relu_5x5_reduce -> inception_3a/5x5_reduce (in-place)
I0403 12:01:39.163612 32420 net.cpp:141] Setting up inception_3a/relu_5x5_reduce
I0403 12:01:39.163630 32420 net.cpp:148] Top shape: 24 16 28 28 (301056)
I0403 12:01:39.163643 32420 net.cpp:156] Memory required for data: 537084288
I0403 12:01:39.163658 32420 layer_factory.hpp:77] Creating layer inception_3a/5x5
I0403 12:01:39.163682 32420 net.cpp:91] Creating Layer inception_3a/5x5
I0403 12:01:39.163700 32420 net.cpp:425] inception_3a/5x5 <- inception_3a/5x5_reduce
I0403 12:01:39.163722 32420 net.cpp:399] inception_3a/5x5 -> inception_3a/5x5
I0403 12:01:39.163988 32420 net.cpp:141] Setting up inception_3a/5x5
I0403 12:01:39.164013 32420 net.cpp:148] Top shape: 24 32 28 28 (602112)
I0403 12:01:39.164043 32420 net.cpp:156] Memory required for data: 539492736
I0403 12:01:39.164062 32420 layer_factory.hpp:77] Creating layer inception_3a/relu_5x5
I0403 12:01:39.164083 32420 net.cpp:91] Creating Layer inception_3a/relu_5x5
I0403 12:01:39.164101 32420 net.cpp:425] inception_3a/relu_5x5 <- inception_3a/5x5
I0403 12:01:39.164119 32420 net.cpp:386] inception_3a/relu_5x5 -> inception_3a/5x5 (in-place)
I0403 12:01:39.164139 32420 net.cpp:141] Setting up inception_3a/relu_5x5
I0403 12:01:39.164170 32420 net.cpp:148] Top shape: 24 32 28 28 (602112)
I0403 12:01:39.164185 32420 net.cpp:156] Memory required for data: 541901184
I0403 12:01:39.164198 32420 layer_factory.hpp:77] Creating layer inception_3a/pool
I0403 12:01:39.164224 32420 net.cpp:91] Creating Layer inception_3a/pool
I0403 12:01:39.164243 32420 net.cpp:425] inception_3a/pool <- pool2/3x3_s2_pool2/3x3_s2_0_split_3
I0403 12:01:39.164263 32420 net.cpp:399] inception_3a/pool -> inception_3a/pool
I0403 12:01:39.164311 32420 net.cpp:141] Setting up inception_3a/pool
I0403 12:01:39.164340 32420 net.cpp:148] Top shape: 24 192 28 28 (3612672)
I0403 12:01:39.164355 32420 net.cpp:156] Memory required for data: 556351872
I0403 12:01:39.164371 32420 layer_factory.hpp:77] Creating layer inception_3a/pool_proj
I0403 12:01:39.164391 32420 net.cpp:91] Creating Layer inception_3a/pool_proj
I0403 12:01:39.164408 32420 net.cpp:425] inception_3a/pool_proj <- inception_3a/pool
I0403 12:01:39.164432 32420 net.cpp:399] inception_3a/pool_proj -> inception_3a/pool_proj
I0403 12:01:39.164669 32420 net.cpp:141] Setting up inception_3a/pool_proj
I0403 12:01:39.164695 32420 net.cpp:148] Top shape: 24 32 28 28 (602112)
I0403 12:01:39.164710 32420 net.cpp:156] Memory required for data: 558760320
I0403 12:01:39.164731 32420 layer_factory.hpp:77] Creating layer inception_3a/relu_pool_proj
I0403 12:01:39.164752 32420 net.cpp:91] Creating Layer inception_3a/relu_pool_proj
I0403 12:01:39.164768 32420 net.cpp:425] inception_3a/relu_pool_proj <- inception_3a/pool_proj
I0403 12:01:39.164786 32420 net.cpp:386] inception_3a/relu_pool_proj -> inception_3a/pool_proj (in-place)
I0403 12:01:39.164806 32420 net.cpp:141] Setting up inception_3a/relu_pool_proj
I0403 12:01:39.164824 32420 net.cpp:148] Top shape: 24 32 28 28 (602112)
I0403 12:01:39.164839 32420 net.cpp:156] Memory required for data: 561168768
I0403 12:01:39.164852 32420 layer_factory.hpp:77] Creating layer inception_3a/output
I0403 12:01:39.164870 32420 net.cpp:91] Creating Layer inception_3a/output
I0403 12:01:39.164885 32420 net.cpp:425] inception_3a/output <- inception_3a/1x1
I0403 12:01:39.164902 32420 net.cpp:425] inception_3a/output <- inception_3a/3x3
I0403 12:01:39.164917 32420 net.cpp:425] inception_3a/output <- inception_3a/5x5
I0403 12:01:39.164933 32420 net.cpp:425] inception_3a/output <- inception_3a/pool_proj
I0403 12:01:39.164953 32420 net.cpp:399] inception_3a/output -> inception_3a/output
I0403 12:01:39.164995 32420 net.cpp:141] Setting up inception_3a/output
I0403 12:01:39.165022 32420 net.cpp:148] Top shape: 24 256 28 28 (4816896)
I0403 12:01:39.165038 32420 net.cpp:156] Memory required for data: 580436352
I0403 12:01:39.165053 32420 layer_factory.hpp:77] Creating layer inception_3a/output_inception_3a/output_0_split
I0403 12:01:39.165071 32420 net.cpp:91] Creating Layer inception_3a/output_inception_3a/output_0_split
I0403 12:01:39.165086 32420 net.cpp:425] inception_3a/output_inception_3a/output_0_split <- inception_3a/output
I0403 12:01:39.165104 32420 net.cpp:399] inception_3a/output_inception_3a/output_0_split -> inception_3a/output_inception_3a/output_0_split_0
I0403 12:01:39.165124 32420 net.cpp:399] inception_3a/output_inception_3a/output_0_split -> inception_3a/output_inception_3a/output_0_split_1
I0403 12:01:39.165149 32420 net.cpp:399] inception_3a/output_inception_3a/output_0_split -> inception_3a/output_inception_3a/output_0_split_2
I0403 12:01:39.165182 32420 net.cpp:399] inception_3a/output_inception_3a/output_0_split -> inception_3a/output_inception_3a/output_0_split_3
I0403 12:01:39.165251 32420 net.cpp:141] Setting up inception_3a/output_inception_3a/output_0_split
I0403 12:01:39.165288 32420 net.cpp:148] Top shape: 24 256 28 28 (4816896)
I0403 12:01:39.165305 32420 net.cpp:148] Top shape: 24 256 28 28 (4816896)
I0403 12:01:39.165323 32420 net.cpp:148] Top shape: 24 256 28 28 (4816896)
I0403 12:01:39.165338 32420 net.cpp:148] Top shape: 24 256 28 28 (4816896)
I0403 12:01:39.165352 32420 net.cpp:156] Memory required for data: 657506688
I0403 12:01:39.165366 32420 layer_factory.hpp:77] Creating layer inception_3b/1x1
I0403 12:01:39.165390 32420 net.cpp:91] Creating Layer inception_3b/1x1
I0403 12:01:39.165408 32420 net.cpp:425] inception_3b/1x1 <- inception_3a/output_inception_3a/output_0_split_0
I0403 12:01:39.165431 32420 net.cpp:399] inception_3b/1x1 -> inception_3b/1x1
I0403 12:01:39.165817 32420 net.cpp:141] Setting up inception_3b/1x1
I0403 12:01:39.165841 32420 net.cpp:148] Top shape: 24 128 28 28 (2408448)
I0403 12:01:39.165856 32420 net.cpp:156] Memory required for data: 667140480
I0403 12:01:39.165873 32420 layer_factory.hpp:77] Creating layer inception_3b/relu_1x1
I0403 12:01:39.165891 32420 net.cpp:91] Creating Layer inception_3b/relu_1x1
I0403 12:01:39.165907 32420 net.cpp:425] inception_3b/relu_1x1 <- inception_3b/1x1
I0403 12:01:39.165925 32420 net.cpp:386] inception_3b/relu_1x1 -> inception_3b/1x1 (in-place)
I0403 12:01:39.165943 32420 net.cpp:141] Setting up inception_3b/relu_1x1
I0403 12:01:39.165961 32420 net.cpp:148] Top shape: 24 128 28 28 (2408448)
I0403 12:01:39.165974 32420 net.cpp:156] Memory required for data: 676774272
I0403 12:01:39.165988 32420 layer_factory.hpp:77] Creating layer inception_3b/3x3_reduce
I0403 12:01:39.166012 32420 net.cpp:91] Creating Layer inception_3b/3x3_reduce
I0403 12:01:39.166029 32420 net.cpp:425] inception_3b/3x3_reduce <- inception_3a/output_inception_3a/output_0_split_1
I0403 12:01:39.166051 32420 net.cpp:399] inception_3b/3x3_reduce -> inception_3b/3x3_reduce
I0403 12:01:39.166450 32420 net.cpp:141] Setting up inception_3b/3x3_reduce
I0403 12:01:39.166476 32420 net.cpp:148] Top shape: 24 128 28 28 (2408448)
I0403 12:01:39.166492 32420 net.cpp:156] Memory required for data: 686408064
I0403 12:01:39.166510 32420 layer_factory.hpp:77] Creating layer inception_3b/relu_3x3_reduce
I0403 12:01:39.166529 32420 net.cpp:91] Creating Layer inception_3b/relu_3x3_reduce
I0403 12:01:39.166546 32420 net.cpp:425] inception_3b/relu_3x3_reduce <- inception_3b/3x3_reduce
I0403 12:01:39.166566 32420 net.cpp:386] inception_3b/relu_3x3_reduce -> inception_3b/3x3_reduce (in-place)
I0403 12:01:39.166586 32420 net.cpp:141] Setting up inception_3b/relu_3x3_reduce
I0403 12:01:39.166604 32420 net.cpp:148] Top shape: 24 128 28 28 (2408448)
I0403 12:01:39.166618 32420 net.cpp:156] Memory required for data: 696041856
I0403 12:01:39.166633 32420 layer_factory.hpp:77] Creating layer inception_3b/3x3
I0403 12:01:39.166659 32420 net.cpp:91] Creating Layer inception_3b/3x3
I0403 12:01:39.166677 32420 net.cpp:425] inception_3b/3x3 <- inception_3b/3x3_reduce
I0403 12:01:39.166700 32420 net.cpp:399] inception_3b/3x3 -> inception_3b/3x3
I0403 12:01:39.168681 32420 net.cpp:141] Setting up inception_3b/3x3
I0403 12:01:39.168710 32420 net.cpp:148] Top shape: 24 192 28 28 (3612672)
I0403 12:01:39.168726 32420 net.cpp:156] Memory required for data: 710492544
I0403 12:01:39.168745 32420 layer_factory.hpp:77] Creating layer inception_3b/relu_3x3
I0403 12:01:39.168767 32420 net.cpp:91] Creating Layer inception_3b/relu_3x3
I0403 12:01:39.168786 32420 net.cpp:425] inception_3b/relu_3x3 <- inception_3b/3x3
I0403 12:01:39.168803 32420 net.cpp:386] inception_3b/relu_3x3 -> inception_3b/3x3 (in-place)
I0403 12:01:39.168823 32420 net.cpp:141] Setting up inception_3b/relu_3x3
I0403 12:01:39.168840 32420 net.cpp:148] Top shape: 24 192 28 28 (3612672)
I0403 12:01:39.168855 32420 net.cpp:156] Memory required for data: 724943232
I0403 12:01:39.168870 32420 layer_factory.hpp:77] Creating layer inception_3b/5x5_reduce
I0403 12:01:39.168894 32420 net.cpp:91] Creating Layer inception_3b/5x5_reduce
I0403 12:01:39.168929 32420 net.cpp:425] inception_3b/5x5_reduce <- inception_3a/output_inception_3a/output_0_split_2
I0403 12:01:39.168951 32420 net.cpp:399] inception_3b/5x5_reduce -> inception_3b/5x5_reduce
I0403 12:01:39.169204 32420 net.cpp:141] Setting up inception_3b/5x5_reduce
I0403 12:01:39.169237 32420 net.cpp:148] Top shape: 24 32 28 28 (602112)
I0403 12:01:39.169255 32420 net.cpp:156] Memory required for data: 727351680
I0403 12:01:39.169273 32420 layer_factory.hpp:77] Creating layer inception_3b/relu_5x5_reduce
I0403 12:01:39.169292 32420 net.cpp:91] Creating Layer inception_3b/relu_5x5_reduce
I0403 12:01:39.169308 32420 net.cpp:425] inception_3b/relu_5x5_reduce <- inception_3b/5x5_reduce
I0403 12:01:39.169327 32420 net.cpp:386] inception_3b/relu_5x5_reduce -> inception_3b/5x5_reduce (in-place)
I0403 12:01:39.169347 32420 net.cpp:141] Setting up inception_3b/relu_5x5_reduce
I0403 12:01:39.169364 32420 net.cpp:148] Top shape: 24 32 28 28 (602112)
I0403 12:01:39.169379 32420 net.cpp:156] Memory required for data: 729760128
I0403 12:01:39.169394 32420 layer_factory.hpp:77] Creating layer inception_3b/5x5
I0403 12:01:39.169416 32420 net.cpp:91] Creating Layer inception_3b/5x5
I0403 12:01:39.169436 32420 net.cpp:425] inception_3b/5x5 <- inception_3b/5x5_reduce
I0403 12:01:39.169458 32420 net.cpp:399] inception_3b/5x5 -> inception_3b/5x5
I0403 12:01:39.170631 32420 net.cpp:141] Setting up inception_3b/5x5
I0403 12:01:39.170661 32420 net.cpp:148] Top shape: 24 96 28 28 (1806336)
I0403 12:01:39.170678 32420 net.cpp:156] Memory required for data: 736985472
I0403 12:01:39.170696 32420 layer_factory.hpp:77] Creating layer inception_3b/relu_5x5
I0403 12:01:39.170716 32420 net.cpp:91] Creating Layer inception_3b/relu_5x5
I0403 12:01:39.170732 32420 net.cpp:425] inception_3b/relu_5x5 <- inception_3b/5x5
I0403 12:01:39.170750 32420 net.cpp:386] inception_3b/relu_5x5 -> inception_3b/5x5 (in-place)
I0403 12:01:39.170770 32420 net.cpp:141] Setting up inception_3b/relu_5x5
I0403 12:01:39.170788 32420 net.cpp:148] Top shape: 24 96 28 28 (1806336)
I0403 12:01:39.170802 32420 net.cpp:156] Memory required for data: 744210816
I0403 12:01:39.170816 32420 layer_factory.hpp:77] Creating layer inception_3b/pool
I0403 12:01:39.170836 32420 net.cpp:91] Creating Layer inception_3b/pool
I0403 12:01:39.170853 32420 net.cpp:425] inception_3b/pool <- inception_3a/output_inception_3a/output_0_split_3
I0403 12:01:39.170873 32420 net.cpp:399] inception_3b/pool -> inception_3b/pool
I0403 12:01:39.170925 32420 net.cpp:141] Setting up inception_3b/pool
I0403 12:01:39.170948 32420 net.cpp:148] Top shape: 24 256 28 28 (4816896)
I0403 12:01:39.170964 32420 net.cpp:156] Memory required for data: 763478400
I0403 12:01:39.170979 32420 layer_factory.hpp:77] Creating layer inception_3b/pool_proj
I0403 12:01:39.171002 32420 net.cpp:91] Creating Layer inception_3b/pool_proj
I0403 12:01:39.171020 32420 net.cpp:425] inception_3b/pool_proj <- inception_3b/pool
I0403 12:01:39.171041 32420 net.cpp:399] inception_3b/pool_proj -> inception_3b/pool_proj
I0403 12:01:39.171345 32420 net.cpp:141] Setting up inception_3b/pool_proj
I0403 12:01:39.171375 32420 net.cpp:148] Top shape: 24 64 28 28 (1204224)
I0403 12:01:39.171391 32420 net.cpp:156] Memory required for data: 768295296
I0403 12:01:39.171408 32420 layer_factory.hpp:77] Creating layer inception_3b/relu_pool_proj
I0403 12:01:39.171427 32420 net.cpp:91] Creating Layer inception_3b/relu_pool_proj
I0403 12:01:39.171444 32420 net.cpp:425] inception_3b/relu_pool_proj <- inception_3b/pool_proj
I0403 12:01:39.171463 32420 net.cpp:386] inception_3b/relu_pool_proj -> inception_3b/pool_proj (in-place)
I0403 12:01:39.171481 32420 net.cpp:141] Setting up inception_3b/relu_pool_proj
I0403 12:01:39.171499 32420 net.cpp:148] Top shape: 24 64 28 28 (1204224)
I0403 12:01:39.171514 32420 net.cpp:156] Memory required for data: 773112192
I0403 12:01:39.171530 32420 layer_factory.hpp:77] Creating layer inception_3b/output
I0403 12:01:39.171546 32420 net.cpp:91] Creating Layer inception_3b/output
I0403 12:01:39.171562 32420 net.cpp:425] inception_3b/output <- inception_3b/1x1
I0403 12:01:39.171594 32420 net.cpp:425] inception_3b/output <- inception_3b/3x3
I0403 12:01:39.171612 32420 net.cpp:425] inception_3b/output <- inception_3b/5x5
I0403 12:01:39.171628 32420 net.cpp:425] inception_3b/output <- inception_3b/pool_proj
I0403 12:01:39.171650 32420 net.cpp:399] inception_3b/output -> inception_3b/output
I0403 12:01:39.171689 32420 net.cpp:141] Setting up inception_3b/output
I0403 12:01:39.171715 32420 net.cpp:148] Top shape: 24 480 28 28 (9031680)
I0403 12:01:39.171732 32420 net.cpp:156] Memory required for data: 809238912
I0403 12:01:39.171747 32420 layer_factory.hpp:77] Creating layer pool3/3x3_s2
I0403 12:01:39.171766 32420 net.cpp:91] Creating Layer pool3/3x3_s2
I0403 12:01:39.171782 32420 net.cpp:425] pool3/3x3_s2 <- inception_3b/output
I0403 12:01:39.171800 32420 net.cpp:399] pool3/3x3_s2 -> pool3/3x3_s2
I0403 12:01:39.171850 32420 net.cpp:141] Setting up pool3/3x3_s2
I0403 12:01:39.171875 32420 net.cpp:148] Top shape: 24 480 14 14 (2257920)
I0403 12:01:39.171890 32420 net.cpp:156] Memory required for data: 818270592
I0403 12:01:39.171905 32420 layer_factory.hpp:77] Creating layer pool3/3x3_s2_pool3/3x3_s2_0_split
I0403 12:01:39.171923 32420 net.cpp:91] Creating Layer pool3/3x3_s2_pool3/3x3_s2_0_split
I0403 12:01:39.171941 32420 net.cpp:425] pool3/3x3_s2_pool3/3x3_s2_0_split <- pool3/3x3_s2
I0403 12:01:39.171962 32420 net.cpp:399] pool3/3x3_s2_pool3/3x3_s2_0_split -> pool3/3x3_s2_pool3/3x3_s2_0_split_0
I0403 12:01:39.171983 32420 net.cpp:399] pool3/3x3_s2_pool3/3x3_s2_0_split -> pool3/3x3_s2_pool3/3x3_s2_0_split_1
I0403 12:01:39.172003 32420 net.cpp:399] pool3/3x3_s2_pool3/3x3_s2_0_split -> pool3/3x3_s2_pool3/3x3_s2_0_split_2
I0403 12:01:39.172024 32420 net.cpp:399] pool3/3x3_s2_pool3/3x3_s2_0_split -> pool3/3x3_s2_pool3/3x3_s2_0_split_3
I0403 12:01:39.172089 32420 net.cpp:141] Setting up pool3/3x3_s2_pool3/3x3_s2_0_split
I0403 12:01:39.172113 32420 net.cpp:148] Top shape: 24 480 14 14 (2257920)
I0403 12:01:39.172132 32420 net.cpp:148] Top shape: 24 480 14 14 (2257920)
I0403 12:01:39.172147 32420 net.cpp:148] Top shape: 24 480 14 14 (2257920)
I0403 12:01:39.172163 32420 net.cpp:148] Top shape: 24 480 14 14 (2257920)
I0403 12:01:39.172178 32420 net.cpp:156] Memory required for data: 854397312
I0403 12:01:39.172193 32420 layer_factory.hpp:77] Creating layer inception_4a/1x1
I0403 12:01:39.172220 32420 net.cpp:91] Creating Layer inception_4a/1x1
I0403 12:01:39.172240 32420 net.cpp:425] inception_4a/1x1 <- pool3/3x3_s2_pool3/3x3_s2_0_split_0
I0403 12:01:39.172260 32420 net.cpp:399] inception_4a/1x1 -> inception_4a/1x1
I0403 12:01:39.172973 32420 net.cpp:141] Setting up inception_4a/1x1
I0403 12:01:39.172998 32420 net.cpp:148] Top shape: 24 192 14 14 (903168)
I0403 12:01:39.173014 32420 net.cpp:156] Memory required for data: 858009984
I0403 12:01:39.173032 32420 layer_factory.hpp:77] Creating layer inception_4a/relu_1x1
I0403 12:01:39.173053 32420 net.cpp:91] Creating Layer inception_4a/relu_1x1
I0403 12:01:39.173071 32420 net.cpp:425] inception_4a/relu_1x1 <- inception_4a/1x1
I0403 12:01:39.173089 32420 net.cpp:386] inception_4a/relu_1x1 -> inception_4a/1x1 (in-place)
I0403 12:01:39.173110 32420 net.cpp:141] Setting up inception_4a/relu_1x1
I0403 12:01:39.173127 32420 net.cpp:148] Top shape: 24 192 14 14 (903168)
I0403 12:01:39.173142 32420 net.cpp:156] Memory required for data: 861622656
I0403 12:01:39.173157 32420 layer_factory.hpp:77] Creating layer inception_4a/3x3_reduce
I0403 12:01:39.173180 32420 net.cpp:91] Creating Layer inception_4a/3x3_reduce
I0403 12:01:39.173198 32420 net.cpp:425] inception_4a/3x3_reduce <- pool3/3x3_s2_pool3/3x3_s2_0_split_1
I0403 12:01:39.173223 32420 net.cpp:399] inception_4a/3x3_reduce -> inception_4a/3x3_reduce
I0403 12:01:39.173696 32420 net.cpp:141] Setting up inception_4a/3x3_reduce
I0403 12:01:39.173722 32420 net.cpp:148] Top shape: 24 96 14 14 (451584)
I0403 12:01:39.173738 32420 net.cpp:156] Memory required for data: 863428992
I0403 12:01:39.173763 32420 layer_factory.hpp:77] Creating layer inception_4a/relu_3x3_reduce
I0403 12:01:39.173796 32420 net.cpp:91] Creating Layer inception_4a/relu_3x3_reduce
I0403 12:01:39.173815 32420 net.cpp:425] inception_4a/relu_3x3_reduce <- inception_4a/3x3_reduce
I0403 12:01:39.173833 32420 net.cpp:386] inception_4a/relu_3x3_reduce -> inception_4a/3x3_reduce (in-place)
I0403 12:01:39.173853 32420 net.cpp:141] Setting up inception_4a/relu_3x3_reduce
I0403 12:01:39.173871 32420 net.cpp:148] Top shape: 24 96 14 14 (451584)
I0403 12:01:39.173887 32420 net.cpp:156] Memory required for data: 865235328
I0403 12:01:39.173902 32420 layer_factory.hpp:77] Creating layer inception_4a/3x3
I0403 12:01:39.173925 32420 net.cpp:91] Creating Layer inception_4a/3x3
I0403 12:01:39.173943 32420 net.cpp:425] inception_4a/3x3 <- inception_4a/3x3_reduce
I0403 12:01:39.173964 32420 net.cpp:399] inception_4a/3x3 -> inception_4a/3x3
I0403 12:01:39.175712 32420 net.cpp:141] Setting up inception_4a/3x3
I0403 12:01:39.175742 32420 net.cpp:148] Top shape: 24 208 14 14 (978432)
I0403 12:01:39.175758 32420 net.cpp:156] Memory required for data: 869149056
I0403 12:01:39.175776 32420 layer_factory.hpp:77] Creating layer inception_4a/relu_3x3
I0403 12:01:39.175796 32420 net.cpp:91] Creating Layer inception_4a/relu_3x3
I0403 12:01:39.175812 32420 net.cpp:425] inception_4a/relu_3x3 <- inception_4a/3x3
I0403 12:01:39.175833 32420 net.cpp:386] inception_4a/relu_3x3 -> inception_4a/3x3 (in-place)
I0403 12:01:39.175854 32420 net.cpp:141] Setting up inception_4a/relu_3x3
I0403 12:01:39.175873 32420 net.cpp:148] Top shape: 24 208 14 14 (978432)
I0403 12:01:39.175887 32420 net.cpp:156] Memory required for data: 873062784
I0403 12:01:39.175901 32420 layer_factory.hpp:77] Creating layer inception_4a/5x5_reduce
I0403 12:01:39.175925 32420 net.cpp:91] Creating Layer inception_4a/5x5_reduce
I0403 12:01:39.175945 32420 net.cpp:425] inception_4a/5x5_reduce <- pool3/3x3_s2_pool3/3x3_s2_0_split_2
I0403 12:01:39.175964 32420 net.cpp:399] inception_4a/5x5_reduce -> inception_4a/5x5_reduce
I0403 12:01:39.176221 32420 net.cpp:141] Setting up inception_4a/5x5_reduce
I0403 12:01:39.176249 32420 net.cpp:148] Top shape: 24 16 14 14 (75264)
I0403 12:01:39.176264 32420 net.cpp:156] Memory required for data: 873363840
I0403 12:01:39.176281 32420 layer_factory.hpp:77] Creating layer inception_4a/relu_5x5_reduce
I0403 12:01:39.176301 32420 net.cpp:91] Creating Layer inception_4a/relu_5x5_reduce
I0403 12:01:39.176317 32420 net.cpp:425] inception_4a/relu_5x5_reduce <- inception_4a/5x5_reduce
I0403 12:01:39.176337 32420 net.cpp:386] inception_4a/relu_5x5_reduce -> inception_4a/5x5_reduce (in-place)
I0403 12:01:39.176358 32420 net.cpp:141] Setting up inception_4a/relu_5x5_reduce
I0403 12:01:39.176375 32420 net.cpp:148] Top shape: 24 16 14 14 (75264)
I0403 12:01:39.176390 32420 net.cpp:156] Memory required for data: 873664896
I0403 12:01:39.176405 32420 layer_factory.hpp:77] Creating layer inception_4a/5x5
I0403 12:01:39.176429 32420 net.cpp:91] Creating Layer inception_4a/5x5
I0403 12:01:39.176448 32420 net.cpp:425] inception_4a/5x5 <- inception_4a/5x5_reduce
I0403 12:01:39.176467 32420 net.cpp:399] inception_4a/5x5 -> inception_4a/5x5
I0403 12:01:39.176785 32420 net.cpp:141] Setting up inception_4a/5x5
I0403 12:01:39.176811 32420 net.cpp:148] Top shape: 24 48 14 14 (225792)
I0403 12:01:39.176826 32420 net.cpp:156] Memory required for data: 874568064
I0403 12:01:39.176844 32420 layer_factory.hpp:77] Creating layer inception_4a/relu_5x5
I0403 12:01:39.176862 32420 net.cpp:91] Creating Layer inception_4a/relu_5x5
I0403 12:01:39.176878 32420 net.cpp:425] inception_4a/relu_5x5 <- inception_4a/5x5
I0403 12:01:39.176899 32420 net.cpp:386] inception_4a/relu_5x5 -> inception_4a/5x5 (in-place)
I0403 12:01:39.176920 32420 net.cpp:141] Setting up inception_4a/relu_5x5
I0403 12:01:39.176939 32420 net.cpp:148] Top shape: 24 48 14 14 (225792)
I0403 12:01:39.176954 32420 net.cpp:156] Memory required for data: 875471232
I0403 12:01:39.176969 32420 layer_factory.hpp:77] Creating layer inception_4a/pool
I0403 12:01:39.176987 32420 net.cpp:91] Creating Layer inception_4a/pool
I0403 12:01:39.177005 32420 net.cpp:425] inception_4a/pool <- pool3/3x3_s2_pool3/3x3_s2_0_split_3
I0403 12:01:39.177040 32420 net.cpp:399] inception_4a/pool -> inception_4a/pool
I0403 12:01:39.177095 32420 net.cpp:141] Setting up inception_4a/pool
I0403 12:01:39.177119 32420 net.cpp:148] Top shape: 24 480 14 14 (2257920)
I0403 12:01:39.177135 32420 net.cpp:156] Memory required for data: 884502912
I0403 12:01:39.177151 32420 layer_factory.hpp:77] Creating layer inception_4a/pool_proj
I0403 12:01:39.177175 32420 net.cpp:91] Creating Layer inception_4a/pool_proj
I0403 12:01:39.177192 32420 net.cpp:425] inception_4a/pool_proj <- inception_4a/pool
I0403 12:01:39.177224 32420 net.cpp:399] inception_4a/pool_proj -> inception_4a/pool_proj
I0403 12:01:39.177608 32420 net.cpp:141] Setting up inception_4a/pool_proj
I0403 12:01:39.177634 32420 net.cpp:148] Top shape: 24 64 14 14 (301056)
I0403 12:01:39.177649 32420 net.cpp:156] Memory required for data: 885707136
I0403 12:01:39.177669 32420 layer_factory.hpp:77] Creating layer inception_4a/relu_pool_proj
I0403 12:01:39.177686 32420 net.cpp:91] Creating Layer inception_4a/relu_pool_proj
I0403 12:01:39.177703 32420 net.cpp:425] inception_4a/relu_pool_proj <- inception_4a/pool_proj
I0403 12:01:39.177721 32420 net.cpp:386] inception_4a/relu_pool_proj -> inception_4a/pool_proj (in-place)
I0403 12:01:39.177742 32420 net.cpp:141] Setting up inception_4a/relu_pool_proj
I0403 12:01:39.177759 32420 net.cpp:148] Top shape: 24 64 14 14 (301056)
I0403 12:01:39.177774 32420 net.cpp:156] Memory required for data: 886911360
I0403 12:01:39.177789 32420 layer_factory.hpp:77] Creating layer inception_4a/output
I0403 12:01:39.177809 32420 net.cpp:91] Creating Layer inception_4a/output
I0403 12:01:39.177825 32420 net.cpp:425] inception_4a/output <- inception_4a/1x1
I0403 12:01:39.177842 32420 net.cpp:425] inception_4a/output <- inception_4a/3x3
I0403 12:01:39.177860 32420 net.cpp:425] inception_4a/output <- inception_4a/5x5
I0403 12:01:39.177875 32420 net.cpp:425] inception_4a/output <- inception_4a/pool_proj
I0403 12:01:39.177893 32420 net.cpp:399] inception_4a/output -> inception_4a/output
I0403 12:01:39.177933 32420 net.cpp:141] Setting up inception_4a/output
I0403 12:01:39.177956 32420 net.cpp:148] Top shape: 24 512 14 14 (2408448)
I0403 12:01:39.177971 32420 net.cpp:156] Memory required for data: 896545152
I0403 12:01:39.177986 32420 layer_factory.hpp:77] Creating layer inception_4a/output_inception_4a/output_0_split
I0403 12:01:39.178005 32420 net.cpp:91] Creating Layer inception_4a/output_inception_4a/output_0_split
I0403 12:01:39.178021 32420 net.cpp:425] inception_4a/output_inception_4a/output_0_split <- inception_4a/output
I0403 12:01:39.178041 32420 net.cpp:399] inception_4a/output_inception_4a/output_0_split -> inception_4a/output_inception_4a/output_0_split_0
I0403 12:01:39.178062 32420 net.cpp:399] inception_4a/output_inception_4a/output_0_split -> inception_4a/output_inception_4a/output_0_split_1
I0403 12:01:39.178086 32420 net.cpp:399] inception_4a/output_inception_4a/output_0_split -> inception_4a/output_inception_4a/output_0_split_2
I0403 12:01:39.178107 32420 net.cpp:399] inception_4a/output_inception_4a/output_0_split -> inception_4a/output_inception_4a/output_0_split_3
I0403 12:01:39.178127 32420 net.cpp:399] inception_4a/output_inception_4a/output_0_split -> inception_4a/output_inception_4a/output_0_split_4
I0403 12:01:39.178202 32420 net.cpp:141] Setting up inception_4a/output_inception_4a/output_0_split
I0403 12:01:39.178230 32420 net.cpp:148] Top shape: 24 512 14 14 (2408448)
I0403 12:01:39.178246 32420 net.cpp:148] Top shape: 24 512 14 14 (2408448)
I0403 12:01:39.178262 32420 net.cpp:148] Top shape: 24 512 14 14 (2408448)
I0403 12:01:39.178277 32420 net.cpp:148] Top shape: 24 512 14 14 (2408448)
I0403 12:01:39.178293 32420 net.cpp:148] Top shape: 24 512 14 14 (2408448)
I0403 12:01:39.178308 32420 net.cpp:156] Memory required for data: 944714112
I0403 12:01:39.178323 32420 layer_factory.hpp:77] Creating layer loss1/ave_pool
I0403 12:01:39.178344 32420 net.cpp:91] Creating Layer loss1/ave_pool
I0403 12:01:39.178375 32420 net.cpp:425] loss1/ave_pool <- inception_4a/output_inception_4a/output_0_split_0
I0403 12:01:39.178395 32420 net.cpp:399] loss1/ave_pool -> loss1/ave_pool
I0403 12:01:39.178436 32420 net.cpp:141] Setting up loss1/ave_pool
I0403 12:01:39.178462 32420 net.cpp:148] Top shape: 24 512 4 4 (196608)
I0403 12:01:39.178477 32420 net.cpp:156] Memory required for data: 945500544
I0403 12:01:39.178490 32420 layer_factory.hpp:77] Creating layer loss1/conv
I0403 12:01:39.178514 32420 net.cpp:91] Creating Layer loss1/conv
I0403 12:01:39.178530 32420 net.cpp:425] loss1/conv <- loss1/ave_pool
I0403 12:01:39.178553 32420 net.cpp:399] loss1/conv -> loss1/conv
I0403 12:01:39.179116 32420 net.cpp:141] Setting up loss1/conv
I0403 12:01:39.179142 32420 net.cpp:148] Top shape: 24 128 4 4 (49152)
I0403 12:01:39.179158 32420 net.cpp:156] Memory required for data: 945697152
I0403 12:01:39.179177 32420 layer_factory.hpp:77] Creating layer loss1/relu_conv
I0403 12:01:39.179196 32420 net.cpp:91] Creating Layer loss1/relu_conv
I0403 12:01:39.179219 32420 net.cpp:425] loss1/relu_conv <- loss1/conv
I0403 12:01:39.179239 32420 net.cpp:386] loss1/relu_conv -> loss1/conv (in-place)
I0403 12:01:39.179260 32420 net.cpp:141] Setting up loss1/relu_conv
I0403 12:01:39.179276 32420 net.cpp:148] Top shape: 24 128 4 4 (49152)
I0403 12:01:39.179291 32420 net.cpp:156] Memory required for data: 945893760
I0403 12:01:39.179304 32420 layer_factory.hpp:77] Creating layer loss1/fc
I0403 12:01:39.179332 32420 net.cpp:91] Creating Layer loss1/fc
I0403 12:01:39.179349 32420 net.cpp:425] loss1/fc <- loss1/conv
I0403 12:01:39.179368 32420 net.cpp:399] loss1/fc -> loss1/fc
I0403 12:01:39.195251 32420 net.cpp:141] Setting up loss1/fc
I0403 12:01:39.195297 32420 net.cpp:148] Top shape: 24 1024 (24576)
I0403 12:01:39.195313 32420 net.cpp:156] Memory required for data: 945992064
I0403 12:01:39.195332 32420 layer_factory.hpp:77] Creating layer loss1/relu_fc
I0403 12:01:39.195354 32420 net.cpp:91] Creating Layer loss1/relu_fc
I0403 12:01:39.195372 32420 net.cpp:425] loss1/relu_fc <- loss1/fc
I0403 12:01:39.195391 32420 net.cpp:386] loss1/relu_fc -> loss1/fc (in-place)
I0403 12:01:39.195410 32420 net.cpp:141] Setting up loss1/relu_fc
I0403 12:01:39.195425 32420 net.cpp:148] Top shape: 24 1024 (24576)
I0403 12:01:39.195439 32420 net.cpp:156] Memory required for data: 946090368
I0403 12:01:39.195453 32420 layer_factory.hpp:77] Creating layer loss1/drop_fc
I0403 12:01:39.195482 32420 net.cpp:91] Creating Layer loss1/drop_fc
I0403 12:01:39.195502 32420 net.cpp:425] loss1/drop_fc <- loss1/fc
I0403 12:01:39.195518 32420 net.cpp:386] loss1/drop_fc -> loss1/fc (in-place)
I0403 12:01:39.195561 32420 net.cpp:141] Setting up loss1/drop_fc
I0403 12:01:39.195586 32420 net.cpp:148] Top shape: 24 1024 (24576)
I0403 12:01:39.195601 32420 net.cpp:156] Memory required for data: 946188672
I0403 12:01:39.195616 32420 layer_factory.hpp:77] Creating layer loss1/classifier_plantvillage
I0403 12:01:39.195636 32420 net.cpp:91] Creating Layer loss1/classifier_plantvillage
I0403 12:01:39.195652 32420 net.cpp:425] loss1/classifier_plantvillage <- loss1/fc
I0403 12:01:39.195672 32420 net.cpp:399] loss1/classifier_plantvillage -> loss1/classifier_plantvillage
I0403 12:01:39.196480 32420 net.cpp:141] Setting up loss1/classifier_plantvillage
I0403 12:01:39.196506 32420 net.cpp:148] Top shape: 24 38 (912)
I0403 12:01:39.196521 32420 net.cpp:156] Memory required for data: 946192320
I0403 12:01:39.196539 32420 layer_factory.hpp:77] Creating layer inception_4b/1x1
I0403 12:01:39.196564 32420 net.cpp:91] Creating Layer inception_4b/1x1
I0403 12:01:39.196583 32420 net.cpp:425] inception_4b/1x1 <- inception_4a/output_inception_4a/output_0_split_1
I0403 12:01:39.196601 32420 net.cpp:399] inception_4b/1x1 -> inception_4b/1x1
I0403 12:01:39.197245 32420 net.cpp:141] Setting up inception_4b/1x1
I0403 12:01:39.197273 32420 net.cpp:148] Top shape: 24 160 14 14 (752640)
I0403 12:01:39.197289 32420 net.cpp:156] Memory required for data: 949202880
I0403 12:01:39.197307 32420 layer_factory.hpp:77] Creating layer inception_4b/relu_1x1
I0403 12:01:39.197341 32420 net.cpp:91] Creating Layer inception_4b/relu_1x1
I0403 12:01:39.197360 32420 net.cpp:425] inception_4b/relu_1x1 <- inception_4b/1x1
I0403 12:01:39.197376 32420 net.cpp:386] inception_4b/relu_1x1 -> inception_4b/1x1 (in-place)
I0403 12:01:39.197394 32420 net.cpp:141] Setting up inception_4b/relu_1x1
I0403 12:01:39.197412 32420 net.cpp:148] Top shape: 24 160 14 14 (752640)
I0403 12:01:39.197427 32420 net.cpp:156] Memory required for data: 952213440
I0403 12:01:39.197440 32420 layer_factory.hpp:77] Creating layer inception_4b/3x3_reduce
I0403 12:01:39.197463 32420 net.cpp:91] Creating Layer inception_4b/3x3_reduce
I0403 12:01:39.197481 32420 net.cpp:425] inception_4b/3x3_reduce <- inception_4a/output_inception_4a/output_0_split_2
I0403 12:01:39.197502 32420 net.cpp:399] inception_4b/3x3_reduce -> inception_4b/3x3_reduce
I0403 12:01:39.198007 32420 net.cpp:141] Setting up inception_4b/3x3_reduce
I0403 12:01:39.198032 32420 net.cpp:148] Top shape: 24 112 14 14 (526848)
I0403 12:01:39.198047 32420 net.cpp:156] Memory required for data: 954320832
I0403 12:01:39.198065 32420 layer_factory.hpp:77] Creating layer inception_4b/relu_3x3_reduce
I0403 12:01:39.198083 32420 net.cpp:91] Creating Layer inception_4b/relu_3x3_reduce
I0403 12:01:39.198102 32420 net.cpp:425] inception_4b/relu_3x3_reduce <- inception_4b/3x3_reduce
I0403 12:01:39.198119 32420 net.cpp:386] inception_4b/relu_3x3_reduce -> inception_4b/3x3_reduce (in-place)
I0403 12:01:39.198138 32420 net.cpp:141] Setting up inception_4b/relu_3x3_reduce
I0403 12:01:39.198156 32420 net.cpp:148] Top shape: 24 112 14 14 (526848)
I0403 12:01:39.198170 32420 net.cpp:156] Memory required for data: 956428224
I0403 12:01:39.198184 32420 layer_factory.hpp:77] Creating layer inception_4b/3x3
I0403 12:01:39.198218 32420 net.cpp:91] Creating Layer inception_4b/3x3
I0403 12:01:39.198238 32420 net.cpp:425] inception_4b/3x3 <- inception_4b/3x3_reduce
I0403 12:01:39.198258 32420 net.cpp:399] inception_4b/3x3 -> inception_4b/3x3
I0403 12:01:39.200230 32420 net.cpp:141] Setting up inception_4b/3x3
I0403 12:01:39.200259 32420 net.cpp:148] Top shape: 24 224 14 14 (1053696)
I0403 12:01:39.200274 32420 net.cpp:156] Memory required for data: 960643008
I0403 12:01:39.200291 32420 layer_factory.hpp:77] Creating layer inception_4b/relu_3x3
I0403 12:01:39.200312 32420 net.cpp:91] Creating Layer inception_4b/relu_3x3
I0403 12:01:39.200330 32420 net.cpp:425] inception_4b/relu_3x3 <- inception_4b/3x3
I0403 12:01:39.200347 32420 net.cpp:386] inception_4b/relu_3x3 -> inception_4b/3x3 (in-place)
I0403 12:01:39.200366 32420 net.cpp:141] Setting up inception_4b/relu_3x3
I0403 12:01:39.200382 32420 net.cpp:148] Top shape: 24 224 14 14 (1053696)
I0403 12:01:39.200397 32420 net.cpp:156] Memory required for data: 964857792
I0403 12:01:39.200412 32420 layer_factory.hpp:77] Creating layer inception_4b/5x5_reduce
I0403 12:01:39.200435 32420 net.cpp:91] Creating Layer inception_4b/5x5_reduce
I0403 12:01:39.200453 32420 net.cpp:425] inception_4b/5x5_reduce <- inception_4a/output_inception_4a/output_0_split_3
I0403 12:01:39.200472 32420 net.cpp:399] inception_4b/5x5_reduce -> inception_4b/5x5_reduce
I0403 12:01:39.200753 32420 net.cpp:141] Setting up inception_4b/5x5_reduce
I0403 12:01:39.200781 32420 net.cpp:148] Top shape: 24 24 14 14 (112896)
I0403 12:01:39.200796 32420 net.cpp:156] Memory required for data: 965309376
I0403 12:01:39.200814 32420 layer_factory.hpp:77] Creating layer inception_4b/relu_5x5_reduce
I0403 12:01:39.200832 32420 net.cpp:91] Creating Layer inception_4b/relu_5x5_reduce
I0403 12:01:39.200850 32420 net.cpp:425] inception_4b/relu_5x5_reduce <- inception_4b/5x5_reduce
I0403 12:01:39.200866 32420 net.cpp:386] inception_4b/relu_5x5_reduce -> inception_4b/5x5_reduce (in-place)
I0403 12:01:39.200886 32420 net.cpp:141] Setting up inception_4b/relu_5x5_reduce
I0403 12:01:39.200903 32420 net.cpp:148] Top shape: 24 24 14 14 (112896)
I0403 12:01:39.200917 32420 net.cpp:156] Memory required for data: 965760960
I0403 12:01:39.200934 32420 layer_factory.hpp:77] Creating layer inception_4b/5x5
I0403 12:01:39.200973 32420 net.cpp:91] Creating Layer inception_4b/5x5
I0403 12:01:39.200992 32420 net.cpp:425] inception_4b/5x5 <- inception_4b/5x5_reduce
I0403 12:01:39.201015 32420 net.cpp:399] inception_4b/5x5 -> inception_4b/5x5
I0403 12:01:39.201444 32420 net.cpp:141] Setting up inception_4b/5x5
I0403 12:01:39.201469 32420 net.cpp:148] Top shape: 24 64 14 14 (301056)
I0403 12:01:39.201484 32420 net.cpp:156] Memory required for data: 966965184
I0403 12:01:39.201501 32420 layer_factory.hpp:77] Creating layer inception_4b/relu_5x5
I0403 12:01:39.201521 32420 net.cpp:91] Creating Layer inception_4b/relu_5x5
I0403 12:01:39.201537 32420 net.cpp:425] inception_4b/relu_5x5 <- inception_4b/5x5
I0403 12:01:39.201555 32420 net.cpp:386] inception_4b/relu_5x5 -> inception_4b/5x5 (in-place)
I0403 12:01:39.201572 32420 net.cpp:141] Setting up inception_4b/relu_5x5
I0403 12:01:39.201589 32420 net.cpp:148] Top shape: 24 64 14 14 (301056)
I0403 12:01:39.201603 32420 net.cpp:156] Memory required for data: 968169408
I0403 12:01:39.201617 32420 layer_factory.hpp:77] Creating layer inception_4b/pool
I0403 12:01:39.201637 32420 net.cpp:91] Creating Layer inception_4b/pool
I0403 12:01:39.201655 32420 net.cpp:425] inception_4b/pool <- inception_4a/output_inception_4a/output_0_split_4
I0403 12:01:39.201673 32420 net.cpp:399] inception_4b/pool -> inception_4b/pool
I0403 12:01:39.201722 32420 net.cpp:141] Setting up inception_4b/pool
I0403 12:01:39.201747 32420 net.cpp:148] Top shape: 24 512 14 14 (2408448)
I0403 12:01:39.201763 32420 net.cpp:156] Memory required for data: 977803200
I0403 12:01:39.201777 32420 layer_factory.hpp:77] Creating layer inception_4b/pool_proj
I0403 12:01:39.201797 32420 net.cpp:91] Creating Layer inception_4b/pool_proj
I0403 12:01:39.201814 32420 net.cpp:425] inception_4b/pool_proj <- inception_4b/pool
I0403 12:01:39.201835 32420 net.cpp:399] inception_4b/pool_proj -> inception_4b/pool_proj
I0403 12:01:39.202252 32420 net.cpp:141] Setting up inception_4b/pool_proj
I0403 12:01:39.202277 32420 net.cpp:148] Top shape: 24 64 14 14 (301056)
I0403 12:01:39.202292 32420 net.cpp:156] Memory required for data: 979007424
I0403 12:01:39.202308 32420 layer_factory.hpp:77] Creating layer inception_4b/relu_pool_proj
I0403 12:01:39.202327 32420 net.cpp:91] Creating Layer inception_4b/relu_pool_proj
I0403 12:01:39.202342 32420 net.cpp:425] inception_4b/relu_pool_proj <- inception_4b/pool_proj
I0403 12:01:39.202363 32420 net.cpp:386] inception_4b/relu_pool_proj -> inception_4b/pool_proj (in-place)
I0403 12:01:39.202381 32420 net.cpp:141] Setting up inception_4b/relu_pool_proj
I0403 12:01:39.202399 32420 net.cpp:148] Top shape: 24 64 14 14 (301056)
I0403 12:01:39.202414 32420 net.cpp:156] Memory required for data: 980211648
I0403 12:01:39.202426 32420 layer_factory.hpp:77] Creating layer inception_4b/output
I0403 12:01:39.202443 32420 net.cpp:91] Creating Layer inception_4b/output
I0403 12:01:39.202458 32420 net.cpp:425] inception_4b/output <- inception_4b/1x1
I0403 12:01:39.202474 32420 net.cpp:425] inception_4b/output <- inception_4b/3x3
I0403 12:01:39.202489 32420 net.cpp:425] inception_4b/output <- inception_4b/5x5
I0403 12:01:39.202504 32420 net.cpp:425] inception_4b/output <- inception_4b/pool_proj
I0403 12:01:39.202520 32420 net.cpp:399] inception_4b/output -> inception_4b/output
I0403 12:01:39.202558 32420 net.cpp:141] Setting up inception_4b/output
I0403 12:01:39.202581 32420 net.cpp:148] Top shape: 24 512 14 14 (2408448)
I0403 12:01:39.202597 32420 net.cpp:156] Memory required for data: 989845440
I0403 12:01:39.202611 32420 layer_factory.hpp:77] Creating layer inception_4b/output_inception_4b/output_0_split
I0403 12:01:39.202630 32420 net.cpp:91] Creating Layer inception_4b/output_inception_4b/output_0_split
I0403 12:01:39.202644 32420 net.cpp:425] inception_4b/output_inception_4b/output_0_split <- inception_4b/output
I0403 12:01:39.202663 32420 net.cpp:399] inception_4b/output_inception_4b/output_0_split -> inception_4b/output_inception_4b/output_0_split_0
I0403 12:01:39.202683 32420 net.cpp:399] inception_4b/output_inception_4b/output_0_split -> inception_4b/output_inception_4b/output_0_split_1
I0403 12:01:39.202718 32420 net.cpp:399] inception_4b/output_inception_4b/output_0_split -> inception_4b/output_inception_4b/output_0_split_2
I0403 12:01:39.202739 32420 net.cpp:399] inception_4b/output_inception_4b/output_0_split -> inception_4b/output_inception_4b/output_0_split_3
I0403 12:01:39.202802 32420 net.cpp:141] Setting up inception_4b/output_inception_4b/output_0_split
I0403 12:01:39.202826 32420 net.cpp:148] Top shape: 24 512 14 14 (2408448)
I0403 12:01:39.202841 32420 net.cpp:148] Top shape: 24 512 14 14 (2408448)
I0403 12:01:39.202855 32420 net.cpp:148] Top shape: 24 512 14 14 (2408448)
I0403 12:01:39.202872 32420 net.cpp:148] Top shape: 24 512 14 14 (2408448)
I0403 12:01:39.202884 32420 net.cpp:156] Memory required for data: 1028380608
I0403 12:01:39.202899 32420 layer_factory.hpp:77] Creating layer inception_4c/1x1
I0403 12:01:39.202921 32420 net.cpp:91] Creating Layer inception_4c/1x1
I0403 12:01:39.202940 32420 net.cpp:425] inception_4c/1x1 <- inception_4b/output_inception_4b/output_0_split_0
I0403 12:01:39.202960 32420 net.cpp:399] inception_4c/1x1 -> inception_4c/1x1
I0403 12:01:39.203503 32420 net.cpp:141] Setting up inception_4c/1x1
I0403 12:01:39.203528 32420 net.cpp:148] Top shape: 24 128 14 14 (602112)
I0403 12:01:39.203543 32420 net.cpp:156] Memory required for data: 1030789056
I0403 12:01:39.203560 32420 layer_factory.hpp:77] Creating layer inception_4c/relu_1x1
I0403 12:01:39.203579 32420 net.cpp:91] Creating Layer inception_4c/relu_1x1
I0403 12:01:39.203595 32420 net.cpp:425] inception_4c/relu_1x1 <- inception_4c/1x1
I0403 12:01:39.203611 32420 net.cpp:386] inception_4c/relu_1x1 -> inception_4c/1x1 (in-place)
I0403 12:01:39.203630 32420 net.cpp:141] Setting up inception_4c/relu_1x1
I0403 12:01:39.203646 32420 net.cpp:148] Top shape: 24 128 14 14 (602112)
I0403 12:01:39.203660 32420 net.cpp:156] Memory required for data: 1033197504
I0403 12:01:39.203675 32420 layer_factory.hpp:77] Creating layer inception_4c/3x3_reduce
I0403 12:01:39.203696 32420 net.cpp:91] Creating Layer inception_4c/3x3_reduce
I0403 12:01:39.203713 32420 net.cpp:425] inception_4c/3x3_reduce <- inception_4b/output_inception_4b/output_0_split_1
I0403 12:01:39.203734 32420 net.cpp:399] inception_4c/3x3_reduce -> inception_4c/3x3_reduce
I0403 12:01:39.204797 32420 net.cpp:141] Setting up inception_4c/3x3_reduce
I0403 12:01:39.204826 32420 net.cpp:148] Top shape: 24 128 14 14 (602112)
I0403 12:01:39.204843 32420 net.cpp:156] Memory required for data: 1035605952
I0403 12:01:39.204860 32420 layer_factory.hpp:77] Creating layer inception_4c/relu_3x3_reduce
I0403 12:01:39.204879 32420 net.cpp:91] Creating Layer inception_4c/relu_3x3_reduce
I0403 12:01:39.204895 32420 net.cpp:425] inception_4c/relu_3x3_reduce <- inception_4c/3x3_reduce
I0403 12:01:39.204913 32420 net.cpp:386] inception_4c/relu_3x3_reduce -> inception_4c/3x3_reduce (in-place)
I0403 12:01:39.204933 32420 net.cpp:141] Setting up inception_4c/relu_3x3_reduce
I0403 12:01:39.204949 32420 net.cpp:148] Top shape: 24 128 14 14 (602112)
I0403 12:01:39.204963 32420 net.cpp:156] Memory required for data: 1038014400
I0403 12:01:39.204977 32420 layer_factory.hpp:77] Creating layer inception_4c/3x3
I0403 12:01:39.204999 32420 net.cpp:91] Creating Layer inception_4c/3x3
I0403 12:01:39.205016 32420 net.cpp:425] inception_4c/3x3 <- inception_4c/3x3_reduce
I0403 12:01:39.205039 32420 net.cpp:399] inception_4c/3x3 -> inception_4c/3x3
I0403 12:01:39.207448 32420 net.cpp:141] Setting up inception_4c/3x3
I0403 12:01:39.207475 32420 net.cpp:148] Top shape: 24 256 14 14 (1204224)
I0403 12:01:39.207490 32420 net.cpp:156] Memory required for data: 1042831296
I0403 12:01:39.207520 32420 layer_factory.hpp:77] Creating layer inception_4c/relu_3x3
I0403 12:01:39.207545 32420 net.cpp:91] Creating Layer inception_4c/relu_3x3
I0403 12:01:39.207563 32420 net.cpp:425] inception_4c/relu_3x3 <- inception_4c/3x3
I0403 12:01:39.207581 32420 net.cpp:386] inception_4c/relu_3x3 -> inception_4c/3x3 (in-place)
I0403 12:01:39.207613 32420 net.cpp:141] Setting up inception_4c/relu_3x3
I0403 12:01:39.207633 32420 net.cpp:148] Top shape: 24 256 14 14 (1204224)
I0403 12:01:39.207646 32420 net.cpp:156] Memory required for data: 1047648192
I0403 12:01:39.207660 32420 layer_factory.hpp:77] Creating layer inception_4c/5x5_reduce
I0403 12:01:39.207680 32420 net.cpp:91] Creating Layer inception_4c/5x5_reduce
I0403 12:01:39.207696 32420 net.cpp:425] inception_4c/5x5_reduce <- inception_4b/output_inception_4b/output_0_split_2
I0403 12:01:39.207716 32420 net.cpp:399] inception_4c/5x5_reduce -> inception_4c/5x5_reduce
I0403 12:01:39.207991 32420 net.cpp:141] Setting up inception_4c/5x5_reduce
I0403 12:01:39.208015 32420 net.cpp:148] Top shape: 24 24 14 14 (112896)
I0403 12:01:39.208030 32420 net.cpp:156] Memory required for data: 1048099776
I0403 12:01:39.208048 32420 layer_factory.hpp:77] Creating layer inception_4c/relu_5x5_reduce
I0403 12:01:39.208065 32420 net.cpp:91] Creating Layer inception_4c/relu_5x5_reduce
I0403 12:01:39.208081 32420 net.cpp:425] inception_4c/relu_5x5_reduce <- inception_4c/5x5_reduce
I0403 12:01:39.208096 32420 net.cpp:386] inception_4c/relu_5x5_reduce -> inception_4c/5x5_reduce (in-place)
I0403 12:01:39.208117 32420 net.cpp:141] Setting up inception_4c/relu_5x5_reduce
I0403 12:01:39.208133 32420 net.cpp:148] Top shape: 24 24 14 14 (112896)
I0403 12:01:39.208148 32420 net.cpp:156] Memory required for data: 1048551360
I0403 12:01:39.208163 32420 layer_factory.hpp:77] Creating layer inception_4c/5x5
I0403 12:01:39.208185 32420 net.cpp:91] Creating Layer inception_4c/5x5
I0403 12:01:39.208204 32420 net.cpp:425] inception_4c/5x5 <- inception_4c/5x5_reduce
I0403 12:01:39.208230 32420 net.cpp:399] inception_4c/5x5 -> inception_4c/5x5
I0403 12:01:39.208639 32420 net.cpp:141] Setting up inception_4c/5x5
I0403 12:01:39.208664 32420 net.cpp:148] Top shape: 24 64 14 14 (301056)
I0403 12:01:39.208679 32420 net.cpp:156] Memory required for data: 1049755584
I0403 12:01:39.208698 32420 layer_factory.hpp:77] Creating layer inception_4c/relu_5x5
I0403 12:01:39.208714 32420 net.cpp:91] Creating Layer inception_4c/relu_5x5
I0403 12:01:39.208730 32420 net.cpp:425] inception_4c/relu_5x5 <- inception_4c/5x5
I0403 12:01:39.208750 32420 net.cpp:386] inception_4c/relu_5x5 -> inception_4c/5x5 (in-place)
I0403 12:01:39.208770 32420 net.cpp:141] Setting up inception_4c/relu_5x5
I0403 12:01:39.208787 32420 net.cpp:148] Top shape: 24 64 14 14 (301056)
I0403 12:01:39.208802 32420 net.cpp:156] Memory required for data: 1050959808
I0403 12:01:39.208816 32420 layer_factory.hpp:77] Creating layer inception_4c/pool
I0403 12:01:39.208832 32420 net.cpp:91] Creating Layer inception_4c/pool
I0403 12:01:39.208847 32420 net.cpp:425] inception_4c/pool <- inception_4b/output_inception_4b/output_0_split_3
I0403 12:01:39.208864 32420 net.cpp:399] inception_4c/pool -> inception_4c/pool
I0403 12:01:39.208915 32420 net.cpp:141] Setting up inception_4c/pool
I0403 12:01:39.208938 32420 net.cpp:148] Top shape: 24 512 14 14 (2408448)
I0403 12:01:39.208953 32420 net.cpp:156] Memory required for data: 1060593600
I0403 12:01:39.208967 32420 layer_factory.hpp:77] Creating layer inception_4c/pool_proj
I0403 12:01:39.208988 32420 net.cpp:91] Creating Layer inception_4c/pool_proj
I0403 12:01:39.209007 32420 net.cpp:425] inception_4c/pool_proj <- inception_4c/pool
I0403 12:01:39.209028 32420 net.cpp:399] inception_4c/pool_proj -> inception_4c/pool_proj
I0403 12:01:39.209411 32420 net.cpp:141] Setting up inception_4c/pool_proj
I0403 12:01:39.209436 32420 net.cpp:148] Top shape: 24 64 14 14 (301056)
I0403 12:01:39.209452 32420 net.cpp:156] Memory required for data: 1061797824
I0403 12:01:39.209470 32420 layer_factory.hpp:77] Creating layer inception_4c/relu_pool_proj
I0403 12:01:39.209489 32420 net.cpp:91] Creating Layer inception_4c/relu_pool_proj
I0403 12:01:39.209506 32420 net.cpp:425] inception_4c/relu_pool_proj <- inception_4c/pool_proj
I0403 12:01:39.209524 32420 net.cpp:386] inception_4c/relu_pool_proj -> inception_4c/pool_proj (in-place)
I0403 12:01:39.209543 32420 net.cpp:141] Setting up inception_4c/relu_pool_proj
I0403 12:01:39.209573 32420 net.cpp:148] Top shape: 24 64 14 14 (301056)
I0403 12:01:39.209589 32420 net.cpp:156] Memory required for data: 1063002048
I0403 12:01:39.209602 32420 layer_factory.hpp:77] Creating layer inception_4c/output
I0403 12:01:39.209622 32420 net.cpp:91] Creating Layer inception_4c/output
I0403 12:01:39.209638 32420 net.cpp:425] inception_4c/output <- inception_4c/1x1
I0403 12:01:39.209653 32420 net.cpp:425] inception_4c/output <- inception_4c/3x3
I0403 12:01:39.209668 32420 net.cpp:425] inception_4c/output <- inception_4c/5x5
I0403 12:01:39.209682 32420 net.cpp:425] inception_4c/output <- inception_4c/pool_proj
I0403 12:01:39.209699 32420 net.cpp:399] inception_4c/output -> inception_4c/output
I0403 12:01:39.209736 32420 net.cpp:141] Setting up inception_4c/output
I0403 12:01:39.209763 32420 net.cpp:148] Top shape: 24 512 14 14 (2408448)
I0403 12:01:39.209779 32420 net.cpp:156] Memory required for data: 1072635840
I0403 12:01:39.209792 32420 layer_factory.hpp:77] Creating layer inception_4c/output_inception_4c/output_0_split
I0403 12:01:39.209810 32420 net.cpp:91] Creating Layer inception_4c/output_inception_4c/output_0_split
I0403 12:01:39.209825 32420 net.cpp:425] inception_4c/output_inception_4c/output_0_split <- inception_4c/output
I0403 12:01:39.209842 32420 net.cpp:399] inception_4c/output_inception_4c/output_0_split -> inception_4c/output_inception_4c/output_0_split_0
I0403 12:01:39.209868 32420 net.cpp:399] inception_4c/output_inception_4c/output_0_split -> inception_4c/output_inception_4c/output_0_split_1
I0403 12:01:39.209890 32420 net.cpp:399] inception_4c/output_inception_4c/output_0_split -> inception_4c/output_inception_4c/output_0_split_2
I0403 12:01:39.209910 32420 net.cpp:399] inception_4c/output_inception_4c/output_0_split -> inception_4c/output_inception_4c/output_0_split_3
I0403 12:01:39.209975 32420 net.cpp:141] Setting up inception_4c/output_inception_4c/output_0_split
I0403 12:01:39.209997 32420 net.cpp:148] Top shape: 24 512 14 14 (2408448)
I0403 12:01:39.210013 32420 net.cpp:148] Top shape: 24 512 14 14 (2408448)
I0403 12:01:39.210028 32420 net.cpp:148] Top shape: 24 512 14 14 (2408448)
I0403 12:01:39.210042 32420 net.cpp:148] Top shape: 24 512 14 14 (2408448)
I0403 12:01:39.210057 32420 net.cpp:156] Memory required for data: 1111171008
I0403 12:01:39.210070 32420 layer_factory.hpp:77] Creating layer inception_4d/1x1
I0403 12:01:39.210093 32420 net.cpp:91] Creating Layer inception_4d/1x1
I0403 12:01:39.210110 32420 net.cpp:425] inception_4d/1x1 <- inception_4c/output_inception_4c/output_0_split_0
I0403 12:01:39.210131 32420 net.cpp:399] inception_4d/1x1 -> inception_4d/1x1
I0403 12:01:39.210639 32420 net.cpp:141] Setting up inception_4d/1x1
I0403 12:01:39.210664 32420 net.cpp:148] Top shape: 24 112 14 14 (526848)
I0403 12:01:39.210680 32420 net.cpp:156] Memory required for data: 1113278400
I0403 12:01:39.210695 32420 layer_factory.hpp:77] Creating layer inception_4d/relu_1x1
I0403 12:01:39.210713 32420 net.cpp:91] Creating Layer inception_4d/relu_1x1
I0403 12:01:39.210729 32420 net.cpp:425] inception_4d/relu_1x1 <- inception_4d/1x1
I0403 12:01:39.210747 32420 net.cpp:386] inception_4d/relu_1x1 -> inception_4d/1x1 (in-place)
I0403 12:01:39.210764 32420 net.cpp:141] Setting up inception_4d/relu_1x1
I0403 12:01:39.210780 32420 net.cpp:148] Top shape: 24 112 14 14 (526848)
I0403 12:01:39.210793 32420 net.cpp:156] Memory required for data: 1115385792
I0403 12:01:39.210808 32420 layer_factory.hpp:77] Creating layer inception_4d/3x3_reduce
I0403 12:01:39.210829 32420 net.cpp:91] Creating Layer inception_4d/3x3_reduce
I0403 12:01:39.210846 32420 net.cpp:425] inception_4d/3x3_reduce <- inception_4c/output_inception_4c/output_0_split_1
I0403 12:01:39.210868 32420 net.cpp:399] inception_4d/3x3_reduce -> inception_4d/3x3_reduce
I0403 12:01:39.211513 32420 net.cpp:141] Setting up inception_4d/3x3_reduce
I0403 12:01:39.211539 32420 net.cpp:148] Top shape: 24 144 14 14 (677376)
I0403 12:01:39.211554 32420 net.cpp:156] Memory required for data: 1118095296
I0403 12:01:39.211585 32420 layer_factory.hpp:77] Creating layer inception_4d/relu_3x3_reduce
I0403 12:01:39.211604 32420 net.cpp:91] Creating Layer inception_4d/relu_3x3_reduce
I0403 12:01:39.211621 32420 net.cpp:425] inception_4d/relu_3x3_reduce <- inception_4d/3x3_reduce
I0403 12:01:39.211637 32420 net.cpp:386] inception_4d/relu_3x3_reduce -> inception_4d/3x3_reduce (in-place)
I0403 12:01:39.211655 32420 net.cpp:141] Setting up inception_4d/relu_3x3_reduce
I0403 12:01:39.211673 32420 net.cpp:148] Top shape: 24 144 14 14 (677376)
I0403 12:01:39.211686 32420 net.cpp:156] Memory required for data: 1120804800
I0403 12:01:39.211700 32420 layer_factory.hpp:77] Creating layer inception_4d/3x3
I0403 12:01:39.211722 32420 net.cpp:91] Creating Layer inception_4d/3x3
I0403 12:01:39.211740 32420 net.cpp:425] inception_4d/3x3 <- inception_4d/3x3_reduce
I0403 12:01:39.211760 32420 net.cpp:399] inception_4d/3x3 -> inception_4d/3x3
I0403 12:01:39.214776 32420 net.cpp:141] Setting up inception_4d/3x3
I0403 12:01:39.214805 32420 net.cpp:148] Top shape: 24 288 14 14 (1354752)
I0403 12:01:39.214820 32420 net.cpp:156] Memory required for data: 1126223808
I0403 12:01:39.214838 32420 layer_factory.hpp:77] Creating layer inception_4d/relu_3x3
I0403 12:01:39.214855 32420 net.cpp:91] Creating Layer inception_4d/relu_3x3
I0403 12:01:39.214871 32420 net.cpp:425] inception_4d/relu_3x3 <- inception_4d/3x3
I0403 12:01:39.214891 32420 net.cpp:386] inception_4d/relu_3x3 -> inception_4d/3x3 (in-place)
I0403 12:01:39.214910 32420 net.cpp:141] Setting up inception_4d/relu_3x3
I0403 12:01:39.214928 32420 net.cpp:148] Top shape: 24 288 14 14 (1354752)
I0403 12:01:39.214943 32420 net.cpp:156] Memory required for data: 1131642816
I0403 12:01:39.214957 32420 layer_factory.hpp:77] Creating layer inception_4d/5x5_reduce
I0403 12:01:39.214979 32420 net.cpp:91] Creating Layer inception_4d/5x5_reduce
I0403 12:01:39.214998 32420 net.cpp:425] inception_4d/5x5_reduce <- inception_4c/output_inception_4c/output_0_split_2
I0403 12:01:39.215018 32420 net.cpp:399] inception_4d/5x5_reduce -> inception_4d/5x5_reduce
I0403 12:01:39.215320 32420 net.cpp:141] Setting up inception_4d/5x5_reduce
I0403 12:01:39.215345 32420 net.cpp:148] Top shape: 24 32 14 14 (150528)
I0403 12:01:39.215361 32420 net.cpp:156] Memory required for data: 1132244928
I0403 12:01:39.215378 32420 layer_factory.hpp:77] Creating layer inception_4d/relu_5x5_reduce
I0403 12:01:39.215396 32420 net.cpp:91] Creating Layer inception_4d/relu_5x5_reduce
I0403 12:01:39.215411 32420 net.cpp:425] inception_4d/relu_5x5_reduce <- inception_4d/5x5_reduce
I0403 12:01:39.215431 32420 net.cpp:386] inception_4d/relu_5x5_reduce -> inception_4d/5x5_reduce (in-place)
I0403 12:01:39.215451 32420 net.cpp:141] Setting up inception_4d/relu_5x5_reduce
I0403 12:01:39.215469 32420 net.cpp:148] Top shape: 24 32 14 14 (150528)
I0403 12:01:39.215483 32420 net.cpp:156] Memory required for data: 1132847040
I0403 12:01:39.215497 32420 layer_factory.hpp:77] Creating layer inception_4d/5x5
I0403 12:01:39.215518 32420 net.cpp:91] Creating Layer inception_4d/5x5
I0403 12:01:39.215536 32420 net.cpp:425] inception_4d/5x5 <- inception_4d/5x5_reduce
I0403 12:01:39.215555 32420 net.cpp:399] inception_4d/5x5 -> inception_4d/5x5
I0403 12:01:39.216034 32420 net.cpp:141] Setting up inception_4d/5x5
I0403 12:01:39.216059 32420 net.cpp:148] Top shape: 24 64 14 14 (301056)
I0403 12:01:39.216073 32420 net.cpp:156] Memory required for data: 1134051264
I0403 12:01:39.216090 32420 layer_factory.hpp:77] Creating layer inception_4d/relu_5x5
I0403 12:01:39.216109 32420 net.cpp:91] Creating Layer inception_4d/relu_5x5
I0403 12:01:39.216125 32420 net.cpp:425] inception_4d/relu_5x5 <- inception_4d/5x5
I0403 12:01:39.216143 32420 net.cpp:386] inception_4d/relu_5x5 -> inception_4d/5x5 (in-place)
I0403 12:01:39.216163 32420 net.cpp:141] Setting up inception_4d/relu_5x5
I0403 12:01:39.216181 32420 net.cpp:148] Top shape: 24 64 14 14 (301056)
I0403 12:01:39.216194 32420 net.cpp:156] Memory required for data: 1135255488
I0403 12:01:39.216210 32420 layer_factory.hpp:77] Creating layer inception_4d/pool
I0403 12:01:39.216244 32420 net.cpp:91] Creating Layer inception_4d/pool
I0403 12:01:39.216262 32420 net.cpp:425] inception_4d/pool <- inception_4c/output_inception_4c/output_0_split_3
I0403 12:01:39.216284 32420 net.cpp:399] inception_4d/pool -> inception_4d/pool
I0403 12:01:39.216334 32420 net.cpp:141] Setting up inception_4d/pool
I0403 12:01:39.216357 32420 net.cpp:148] Top shape: 24 512 14 14 (2408448)
I0403 12:01:39.216372 32420 net.cpp:156] Memory required for data: 1144889280
I0403 12:01:39.216387 32420 layer_factory.hpp:77] Creating layer inception_4d/pool_proj
I0403 12:01:39.216408 32420 net.cpp:91] Creating Layer inception_4d/pool_proj
I0403 12:01:39.216426 32420 net.cpp:425] inception_4d/pool_proj <- inception_4d/pool
I0403 12:01:39.216447 32420 net.cpp:399] inception_4d/pool_proj -> inception_4d/pool_proj
I0403 12:01:39.217418 32420 net.cpp:141] Setting up inception_4d/pool_proj
I0403 12:01:39.217445 32420 net.cpp:148] Top shape: 24 64 14 14 (301056)
I0403 12:01:39.217460 32420 net.cpp:156] Memory required for data: 1146093504
I0403 12:01:39.217478 32420 layer_factory.hpp:77] Creating layer inception_4d/relu_pool_proj
I0403 12:01:39.217496 32420 net.cpp:91] Creating Layer inception_4d/relu_pool_proj
I0403 12:01:39.217514 32420 net.cpp:425] inception_4d/relu_pool_proj <- inception_4d/pool_proj
I0403 12:01:39.217530 32420 net.cpp:386] inception_4d/relu_pool_proj -> inception_4d/pool_proj (in-place)
I0403 12:01:39.217548 32420 net.cpp:141] Setting up inception_4d/relu_pool_proj
I0403 12:01:39.217577 32420 net.cpp:148] Top shape: 24 64 14 14 (301056)
I0403 12:01:39.217592 32420 net.cpp:156] Memory required for data: 1147297728
I0403 12:01:39.217605 32420 layer_factory.hpp:77] Creating layer inception_4d/output
I0403 12:01:39.217623 32420 net.cpp:91] Creating Layer inception_4d/output
I0403 12:01:39.217639 32420 net.cpp:425] inception_4d/output <- inception_4d/1x1
I0403 12:01:39.217654 32420 net.cpp:425] inception_4d/output <- inception_4d/3x3
I0403 12:01:39.217669 32420 net.cpp:425] inception_4d/output <- inception_4d/5x5
I0403 12:01:39.217684 32420 net.cpp:425] inception_4d/output <- inception_4d/pool_proj
I0403 12:01:39.217701 32420 net.cpp:399] inception_4d/output -> inception_4d/output
I0403 12:01:39.217739 32420 net.cpp:141] Setting up inception_4d/output
I0403 12:01:39.217762 32420 net.cpp:148] Top shape: 24 528 14 14 (2483712)
I0403 12:01:39.217777 32420 net.cpp:156] Memory required for data: 1157232576
I0403 12:01:39.217790 32420 layer_factory.hpp:77] Creating layer inception_4d/output_inception_4d/output_0_split
I0403 12:01:39.217808 32420 net.cpp:91] Creating Layer inception_4d/output_inception_4d/output_0_split
I0403 12:01:39.217823 32420 net.cpp:425] inception_4d/output_inception_4d/output_0_split <- inception_4d/output
I0403 12:01:39.217842 32420 net.cpp:399] inception_4d/output_inception_4d/output_0_split -> inception_4d/output_inception_4d/output_0_split_0
I0403 12:01:39.217864 32420 net.cpp:399] inception_4d/output_inception_4d/output_0_split -> inception_4d/output_inception_4d/output_0_split_1
I0403 12:01:39.217883 32420 net.cpp:399] inception_4d/output_inception_4d/output_0_split -> inception_4d/output_inception_4d/output_0_split_2
I0403 12:01:39.217902 32420 net.cpp:399] inception_4d/output_inception_4d/output_0_split -> inception_4d/output_inception_4d/output_0_split_3
I0403 12:01:39.217921 32420 net.cpp:399] inception_4d/output_inception_4d/output_0_split -> inception_4d/output_inception_4d/output_0_split_4
I0403 12:01:39.217998 32420 net.cpp:141] Setting up inception_4d/output_inception_4d/output_0_split
I0403 12:01:39.218020 32420 net.cpp:148] Top shape: 24 528 14 14 (2483712)
I0403 12:01:39.218036 32420 net.cpp:148] Top shape: 24 528 14 14 (2483712)
I0403 12:01:39.218050 32420 net.cpp:148] Top shape: 24 528 14 14 (2483712)
I0403 12:01:39.218065 32420 net.cpp:148] Top shape: 24 528 14 14 (2483712)
I0403 12:01:39.218078 32420 net.cpp:148] Top shape: 24 528 14 14 (2483712)
I0403 12:01:39.218092 32420 net.cpp:156] Memory required for data: 1206906816
I0403 12:01:39.218119 32420 layer_factory.hpp:77] Creating layer loss2/ave_pool
I0403 12:01:39.218139 32420 net.cpp:91] Creating Layer loss2/ave_pool
I0403 12:01:39.218155 32420 net.cpp:425] loss2/ave_pool <- inception_4d/output_inception_4d/output_0_split_0
I0403 12:01:39.218173 32420 net.cpp:399] loss2/ave_pool -> loss2/ave_pool
I0403 12:01:39.218216 32420 net.cpp:141] Setting up loss2/ave_pool
I0403 12:01:39.218251 32420 net.cpp:148] Top shape: 24 528 4 4 (202752)
I0403 12:01:39.218266 32420 net.cpp:156] Memory required for data: 1207717824
I0403 12:01:39.218292 32420 layer_factory.hpp:77] Creating layer loss2/conv
I0403 12:01:39.218315 32420 net.cpp:91] Creating Layer loss2/conv
I0403 12:01:39.218333 32420 net.cpp:425] loss2/conv <- loss2/ave_pool
I0403 12:01:39.218355 32420 net.cpp:399] loss2/conv -> loss2/conv
I0403 12:01:39.219434 32420 net.cpp:141] Setting up loss2/conv
I0403 12:01:39.219463 32420 net.cpp:148] Top shape: 24 128 4 4 (49152)
I0403 12:01:39.219480 32420 net.cpp:156] Memory required for data: 1207914432
I0403 12:01:39.219498 32420 layer_factory.hpp:77] Creating layer loss2/relu_conv
I0403 12:01:39.219516 32420 net.cpp:91] Creating Layer loss2/relu_conv
I0403 12:01:39.219532 32420 net.cpp:425] loss2/relu_conv <- loss2/conv
I0403 12:01:39.219550 32420 net.cpp:386] loss2/relu_conv -> loss2/conv (in-place)
I0403 12:01:39.219569 32420 net.cpp:141] Setting up loss2/relu_conv
I0403 12:01:39.219588 32420 net.cpp:148] Top shape: 24 128 4 4 (49152)
I0403 12:01:39.219601 32420 net.cpp:156] Memory required for data: 1208111040
I0403 12:01:39.219614 32420 layer_factory.hpp:77] Creating layer loss2/fc
I0403 12:01:39.219633 32420 net.cpp:91] Creating Layer loss2/fc
I0403 12:01:39.219648 32420 net.cpp:425] loss2/fc <- loss2/conv
I0403 12:01:39.219671 32420 net.cpp:399] loss2/fc -> loss2/fc
I0403 12:01:39.234760 32420 net.cpp:141] Setting up loss2/fc
I0403 12:01:39.234796 32420 net.cpp:148] Top shape: 24 1024 (24576)
I0403 12:01:39.234810 32420 net.cpp:156] Memory required for data: 1208209344
I0403 12:01:39.234828 32420 layer_factory.hpp:77] Creating layer loss2/relu_fc
I0403 12:01:39.234848 32420 net.cpp:91] Creating Layer loss2/relu_fc
I0403 12:01:39.234863 32420 net.cpp:425] loss2/relu_fc <- loss2/fc
I0403 12:01:39.234880 32420 net.cpp:386] loss2/relu_fc -> loss2/fc (in-place)
I0403 12:01:39.234899 32420 net.cpp:141] Setting up loss2/relu_fc
I0403 12:01:39.234915 32420 net.cpp:148] Top shape: 24 1024 (24576)
I0403 12:01:39.234930 32420 net.cpp:156] Memory required for data: 1208307648
I0403 12:01:39.234944 32420 layer_factory.hpp:77] Creating layer loss2/drop_fc
I0403 12:01:39.234964 32420 net.cpp:91] Creating Layer loss2/drop_fc
I0403 12:01:39.234982 32420 net.cpp:425] loss2/drop_fc <- loss2/fc
I0403 12:01:39.234999 32420 net.cpp:386] loss2/drop_fc -> loss2/fc (in-place)
I0403 12:01:39.235050 32420 net.cpp:141] Setting up loss2/drop_fc
I0403 12:01:39.235074 32420 net.cpp:148] Top shape: 24 1024 (24576)
I0403 12:01:39.235088 32420 net.cpp:156] Memory required for data: 1208405952
I0403 12:01:39.235102 32420 layer_factory.hpp:77] Creating layer loss2/classifier_plantvillage
I0403 12:01:39.235121 32420 net.cpp:91] Creating Layer loss2/classifier_plantvillage
I0403 12:01:39.235137 32420 net.cpp:425] loss2/classifier_plantvillage <- loss2/fc
I0403 12:01:39.235159 32420 net.cpp:399] loss2/classifier_plantvillage -> loss2/classifier_plantvillage
I0403 12:01:39.235496 32420 net.cpp:141] Setting up loss2/classifier_plantvillage
I0403 12:01:39.235522 32420 net.cpp:148] Top shape: 24 38 (912)
I0403 12:01:39.235535 32420 net.cpp:156] Memory required for data: 1208409600
I0403 12:01:39.235553 32420 layer_factory.hpp:77] Creating layer inception_4e/1x1
I0403 12:01:39.235592 32420 net.cpp:91] Creating Layer inception_4e/1x1
I0403 12:01:39.235610 32420 net.cpp:425] inception_4e/1x1 <- inception_4d/output_inception_4d/output_0_split_1
I0403 12:01:39.235630 32420 net.cpp:399] inception_4e/1x1 -> inception_4e/1x1
I0403 12:01:39.236526 32420 net.cpp:141] Setting up inception_4e/1x1
I0403 12:01:39.236551 32420 net.cpp:148] Top shape: 24 256 14 14 (1204224)
I0403 12:01:39.236580 32420 net.cpp:156] Memory required for data: 1213226496
I0403 12:01:39.236598 32420 layer_factory.hpp:77] Creating layer inception_4e/relu_1x1
I0403 12:01:39.236616 32420 net.cpp:91] Creating Layer inception_4e/relu_1x1
I0403 12:01:39.236631 32420 net.cpp:425] inception_4e/relu_1x1 <- inception_4e/1x1
I0403 12:01:39.236647 32420 net.cpp:386] inception_4e/relu_1x1 -> inception_4e/1x1 (in-place)
I0403 12:01:39.236665 32420 net.cpp:141] Setting up inception_4e/relu_1x1
I0403 12:01:39.236682 32420 net.cpp:148] Top shape: 24 256 14 14 (1204224)
I0403 12:01:39.236696 32420 net.cpp:156] Memory required for data: 1218043392
I0403 12:01:39.236711 32420 layer_factory.hpp:77] Creating layer inception_4e/3x3_reduce
I0403 12:01:39.236733 32420 net.cpp:91] Creating Layer inception_4e/3x3_reduce
I0403 12:01:39.236749 32420 net.cpp:425] inception_4e/3x3_reduce <- inception_4d/output_inception_4d/output_0_split_2
I0403 12:01:39.236770 32420 net.cpp:399] inception_4e/3x3_reduce -> inception_4e/3x3_reduce
I0403 12:01:39.237905 32420 net.cpp:141] Setting up inception_4e/3x3_reduce
I0403 12:01:39.237932 32420 net.cpp:148] Top shape: 24 160 14 14 (752640)
I0403 12:01:39.237948 32420 net.cpp:156] Memory required for data: 1221053952
I0403 12:01:39.237964 32420 layer_factory.hpp:77] Creating layer inception_4e/relu_3x3_reduce
I0403 12:01:39.237984 32420 net.cpp:91] Creating Layer inception_4e/relu_3x3_reduce
I0403 12:01:39.238000 32420 net.cpp:425] inception_4e/relu_3x3_reduce <- inception_4e/3x3_reduce
I0403 12:01:39.238018 32420 net.cpp:386] inception_4e/relu_3x3_reduce -> inception_4e/3x3_reduce (in-place)
I0403 12:01:39.238037 32420 net.cpp:141] Setting up inception_4e/relu_3x3_reduce
I0403 12:01:39.238054 32420 net.cpp:148] Top shape: 24 160 14 14 (752640)
I0403 12:01:39.238068 32420 net.cpp:156] Memory required for data: 1224064512
I0403 12:01:39.238082 32420 layer_factory.hpp:77] Creating layer inception_4e/3x3
I0403 12:01:39.238106 32420 net.cpp:91] Creating Layer inception_4e/3x3
I0403 12:01:39.238122 32420 net.cpp:425] inception_4e/3x3 <- inception_4e/3x3_reduce
I0403 12:01:39.238142 32420 net.cpp:399] inception_4e/3x3 -> inception_4e/3x3
I0403 12:01:39.241662 32420 net.cpp:141] Setting up inception_4e/3x3
I0403 12:01:39.241688 32420 net.cpp:148] Top shape: 24 320 14 14 (1505280)
I0403 12:01:39.241703 32420 net.cpp:156] Memory required for data: 1230085632
I0403 12:01:39.241719 32420 layer_factory.hpp:77] Creating layer inception_4e/relu_3x3
I0403 12:01:39.241736 32420 net.cpp:91] Creating Layer inception_4e/relu_3x3
I0403 12:01:39.241752 32420 net.cpp:425] inception_4e/relu_3x3 <- inception_4e/3x3
I0403 12:01:39.241768 32420 net.cpp:386] inception_4e/relu_3x3 -> inception_4e/3x3 (in-place)
I0403 12:01:39.241789 32420 net.cpp:141] Setting up inception_4e/relu_3x3
I0403 12:01:39.241807 32420 net.cpp:148] Top shape: 24 320 14 14 (1505280)
I0403 12:01:39.241821 32420 net.cpp:156] Memory required for data: 1236106752
I0403 12:01:39.241833 32420 layer_factory.hpp:77] Creating layer inception_4e/5x5_reduce
I0403 12:01:39.241852 32420 net.cpp:91] Creating Layer inception_4e/5x5_reduce
I0403 12:01:39.241873 32420 net.cpp:425] inception_4e/5x5_reduce <- inception_4d/output_inception_4d/output_0_split_3
I0403 12:01:39.241891 32420 net.cpp:399] inception_4e/5x5_reduce -> inception_4e/5x5_reduce
I0403 12:01:39.242187 32420 net.cpp:141] Setting up inception_4e/5x5_reduce
I0403 12:01:39.242214 32420 net.cpp:148] Top shape: 24 32 14 14 (150528)
I0403 12:01:39.242230 32420 net.cpp:156] Memory required for data: 1236708864
I0403 12:01:39.242246 32420 layer_factory.hpp:77] Creating layer inception_4e/relu_5x5_reduce
I0403 12:01:39.242264 32420 net.cpp:91] Creating Layer inception_4e/relu_5x5_reduce
I0403 12:01:39.242281 32420 net.cpp:425] inception_4e/relu_5x5_reduce <- inception_4e/5x5_reduce
I0403 12:01:39.242300 32420 net.cpp:386] inception_4e/relu_5x5_reduce -> inception_4e/5x5_reduce (in-place)
I0403 12:01:39.242321 32420 net.cpp:141] Setting up inception_4e/relu_5x5_reduce
I0403 12:01:39.242352 32420 net.cpp:148] Top shape: 24 32 14 14 (150528)
I0403 12:01:39.242367 32420 net.cpp:156] Memory required for data: 1237310976
I0403 12:01:39.242379 32420 layer_factory.hpp:77] Creating layer inception_4e/5x5
I0403 12:01:39.242398 32420 net.cpp:91] Creating Layer inception_4e/5x5
I0403 12:01:39.242415 32420 net.cpp:425] inception_4e/5x5 <- inception_4e/5x5_reduce
I0403 12:01:39.242436 32420 net.cpp:399] inception_4e/5x5 -> inception_4e/5x5
I0403 12:01:39.243163 32420 net.cpp:141] Setting up inception_4e/5x5
I0403 12:01:39.243187 32420 net.cpp:148] Top shape: 24 128 14 14 (602112)
I0403 12:01:39.243201 32420 net.cpp:156] Memory required for data: 1239719424
I0403 12:01:39.243222 32420 layer_factory.hpp:77] Creating layer inception_4e/relu_5x5
I0403 12:01:39.243242 32420 net.cpp:91] Creating Layer inception_4e/relu_5x5
I0403 12:01:39.243257 32420 net.cpp:425] inception_4e/relu_5x5 <- inception_4e/5x5
I0403 12:01:39.243273 32420 net.cpp:386] inception_4e/relu_5x5 -> inception_4e/5x5 (in-place)
I0403 12:01:39.243291 32420 net.cpp:141] Setting up inception_4e/relu_5x5
I0403 12:01:39.243307 32420 net.cpp:148] Top shape: 24 128 14 14 (602112)
I0403 12:01:39.243320 32420 net.cpp:156] Memory required for data: 1242127872
I0403 12:01:39.243335 32420 layer_factory.hpp:77] Creating layer inception_4e/pool
I0403 12:01:39.243371 32420 net.cpp:91] Creating Layer inception_4e/pool
I0403 12:01:39.243388 32420 net.cpp:425] inception_4e/pool <- inception_4d/output_inception_4d/output_0_split_4
I0403 12:01:39.243407 32420 net.cpp:399] inception_4e/pool -> inception_4e/pool
I0403 12:01:39.243458 32420 net.cpp:141] Setting up inception_4e/pool
I0403 12:01:39.243480 32420 net.cpp:148] Top shape: 24 528 14 14 (2483712)
I0403 12:01:39.243494 32420 net.cpp:156] Memory required for data: 1252062720
I0403 12:01:39.243510 32420 layer_factory.hpp:77] Creating layer inception_4e/pool_proj
I0403 12:01:39.243530 32420 net.cpp:91] Creating Layer inception_4e/pool_proj
I0403 12:01:39.243546 32420 net.cpp:425] inception_4e/pool_proj <- inception_4e/pool
I0403 12:01:39.243566 32420 net.cpp:399] inception_4e/pool_proj -> inception_4e/pool_proj
I0403 12:01:39.244128 32420 net.cpp:141] Setting up inception_4e/pool_proj
I0403 12:01:39.244153 32420 net.cpp:148] Top shape: 24 128 14 14 (602112)
I0403 12:01:39.244169 32420 net.cpp:156] Memory required for data: 1254471168
I0403 12:01:39.244186 32420 layer_factory.hpp:77] Creating layer inception_4e/relu_pool_proj
I0403 12:01:39.244220 32420 net.cpp:91] Creating Layer inception_4e/relu_pool_proj
I0403 12:01:39.244238 32420 net.cpp:425] inception_4e/relu_pool_proj <- inception_4e/pool_proj
I0403 12:01:39.244256 32420 net.cpp:386] inception_4e/relu_pool_proj -> inception_4e/pool_proj (in-place)
I0403 12:01:39.244274 32420 net.cpp:141] Setting up inception_4e/relu_pool_proj
I0403 12:01:39.244292 32420 net.cpp:148] Top shape: 24 128 14 14 (602112)
I0403 12:01:39.244307 32420 net.cpp:156] Memory required for data: 1256879616
I0403 12:01:39.244319 32420 layer_factory.hpp:77] Creating layer inception_4e/output
I0403 12:01:39.244338 32420 net.cpp:91] Creating Layer inception_4e/output
I0403 12:01:39.244355 32420 net.cpp:425] inception_4e/output <- inception_4e/1x1
I0403 12:01:39.244371 32420 net.cpp:425] inception_4e/output <- inception_4e/3x3
I0403 12:01:39.244386 32420 net.cpp:425] inception_4e/output <- inception_4e/5x5
I0403 12:01:39.244401 32420 net.cpp:425] inception_4e/output <- inception_4e/pool_proj
I0403 12:01:39.244417 32420 net.cpp:399] inception_4e/output -> inception_4e/output
I0403 12:01:39.244452 32420 net.cpp:141] Setting up inception_4e/output
I0403 12:01:39.244477 32420 net.cpp:148] Top shape: 24 832 14 14 (3913728)
I0403 12:01:39.244493 32420 net.cpp:156] Memory required for data: 1272534528
I0403 12:01:39.244506 32420 layer_factory.hpp:77] Creating layer pool4/3x3_s2
I0403 12:01:39.244524 32420 net.cpp:91] Creating Layer pool4/3x3_s2
I0403 12:01:39.244537 32420 net.cpp:425] pool4/3x3_s2 <- inception_4e/output
I0403 12:01:39.244554 32420 net.cpp:399] pool4/3x3_s2 -> pool4/3x3_s2
I0403 12:01:39.244616 32420 net.cpp:141] Setting up pool4/3x3_s2
I0403 12:01:39.244638 32420 net.cpp:148] Top shape: 24 832 7 7 (978432)
I0403 12:01:39.244652 32420 net.cpp:156] Memory required for data: 1276448256
I0403 12:01:39.244668 32420 layer_factory.hpp:77] Creating layer pool4/3x3_s2_pool4/3x3_s2_0_split
I0403 12:01:39.244686 32420 net.cpp:91] Creating Layer pool4/3x3_s2_pool4/3x3_s2_0_split
I0403 12:01:39.244701 32420 net.cpp:425] pool4/3x3_s2_pool4/3x3_s2_0_split <- pool4/3x3_s2
I0403 12:01:39.244719 32420 net.cpp:399] pool4/3x3_s2_pool4/3x3_s2_0_split -> pool4/3x3_s2_pool4/3x3_s2_0_split_0
I0403 12:01:39.244737 32420 net.cpp:399] pool4/3x3_s2_pool4/3x3_s2_0_split -> pool4/3x3_s2_pool4/3x3_s2_0_split_1
I0403 12:01:39.244757 32420 net.cpp:399] pool4/3x3_s2_pool4/3x3_s2_0_split -> pool4/3x3_s2_pool4/3x3_s2_0_split_2
I0403 12:01:39.244778 32420 net.cpp:399] pool4/3x3_s2_pool4/3x3_s2_0_split -> pool4/3x3_s2_pool4/3x3_s2_0_split_3
I0403 12:01:39.244843 32420 net.cpp:141] Setting up pool4/3x3_s2_pool4/3x3_s2_0_split
I0403 12:01:39.244866 32420 net.cpp:148] Top shape: 24 832 7 7 (978432)
I0403 12:01:39.244882 32420 net.cpp:148] Top shape: 24 832 7 7 (978432)
I0403 12:01:39.244897 32420 net.cpp:148] Top shape: 24 832 7 7 (978432)
I0403 12:01:39.244912 32420 net.cpp:148] Top shape: 24 832 7 7 (978432)
I0403 12:01:39.244925 32420 net.cpp:156] Memory required for data: 1292103168
I0403 12:01:39.244938 32420 layer_factory.hpp:77] Creating layer inception_5a/1x1
I0403 12:01:39.244962 32420 net.cpp:91] Creating Layer inception_5a/1x1
I0403 12:01:39.244981 32420 net.cpp:425] inception_5a/1x1 <- pool4/3x3_s2_pool4/3x3_s2_0_split_0
I0403 12:01:39.244998 32420 net.cpp:399] inception_5a/1x1 -> inception_5a/1x1
I0403 12:01:39.246791 32420 net.cpp:141] Setting up inception_5a/1x1
I0403 12:01:39.246819 32420 net.cpp:148] Top shape: 24 256 7 7 (301056)
I0403 12:01:39.246834 32420 net.cpp:156] Memory required for data: 1293307392
I0403 12:01:39.246850 32420 layer_factory.hpp:77] Creating layer inception_5a/relu_1x1
I0403 12:01:39.246866 32420 net.cpp:91] Creating Layer inception_5a/relu_1x1
I0403 12:01:39.246882 32420 net.cpp:425] inception_5a/relu_1x1 <- inception_5a/1x1
I0403 12:01:39.246902 32420 net.cpp:386] inception_5a/relu_1x1 -> inception_5a/1x1 (in-place)
I0403 12:01:39.246922 32420 net.cpp:141] Setting up inception_5a/relu_1x1
I0403 12:01:39.246938 32420 net.cpp:148] Top shape: 24 256 7 7 (301056)
I0403 12:01:39.246953 32420 net.cpp:156] Memory required for data: 1294511616
I0403 12:01:39.246964 32420 layer_factory.hpp:77] Creating layer inception_5a/3x3_reduce
I0403 12:01:39.246984 32420 net.cpp:91] Creating Layer inception_5a/3x3_reduce
I0403 12:01:39.246999 32420 net.cpp:425] inception_5a/3x3_reduce <- pool4/3x3_s2_pool4/3x3_s2_0_split_1
I0403 12:01:39.247021 32420 net.cpp:399] inception_5a/3x3_reduce -> inception_5a/3x3_reduce
I0403 12:01:39.248414 32420 net.cpp:141] Setting up inception_5a/3x3_reduce
I0403 12:01:39.248441 32420 net.cpp:148] Top shape: 24 160 7 7 (188160)
I0403 12:01:39.248457 32420 net.cpp:156] Memory required for data: 1295264256
I0403 12:01:39.248473 32420 layer_factory.hpp:77] Creating layer inception_5a/relu_3x3_reduce
I0403 12:01:39.248492 32420 net.cpp:91] Creating Layer inception_5a/relu_3x3_reduce
I0403 12:01:39.248507 32420 net.cpp:425] inception_5a/relu_3x3_reduce <- inception_5a/3x3_reduce
I0403 12:01:39.248528 32420 net.cpp:386] inception_5a/relu_3x3_reduce -> inception_5a/3x3_reduce (in-place)
I0403 12:01:39.248548 32420 net.cpp:141] Setting up inception_5a/relu_3x3_reduce
I0403 12:01:39.248564 32420 net.cpp:148] Top shape: 24 160 7 7 (188160)
I0403 12:01:39.248579 32420 net.cpp:156] Memory required for data: 1296016896
I0403 12:01:39.248591 32420 layer_factory.hpp:77] Creating layer inception_5a/3x3
I0403 12:01:39.248611 32420 net.cpp:91] Creating Layer inception_5a/3x3
I0403 12:01:39.248627 32420 net.cpp:425] inception_5a/3x3 <- inception_5a/3x3_reduce
I0403 12:01:39.248647 32420 net.cpp:399] inception_5a/3x3 -> inception_5a/3x3
I0403 12:01:39.252166 32420 net.cpp:141] Setting up inception_5a/3x3
I0403 12:01:39.252204 32420 net.cpp:148] Top shape: 24 320 7 7 (376320)
I0403 12:01:39.252224 32420 net.cpp:156] Memory required for data: 1297522176
I0403 12:01:39.252243 32420 layer_factory.hpp:77] Creating layer inception_5a/relu_3x3
I0403 12:01:39.252261 32420 net.cpp:91] Creating Layer inception_5a/relu_3x3
I0403 12:01:39.252279 32420 net.cpp:425] inception_5a/relu_3x3 <- inception_5a/3x3
I0403 12:01:39.252295 32420 net.cpp:386] inception_5a/relu_3x3 -> inception_5a/3x3 (in-place)
I0403 12:01:39.252313 32420 net.cpp:141] Setting up inception_5a/relu_3x3
I0403 12:01:39.252333 32420 net.cpp:148] Top shape: 24 320 7 7 (376320)
I0403 12:01:39.252348 32420 net.cpp:156] Memory required for data: 1299027456
I0403 12:01:39.252362 32420 layer_factory.hpp:77] Creating layer inception_5a/5x5_reduce
I0403 12:01:39.252382 32420 net.cpp:91] Creating Layer inception_5a/5x5_reduce
I0403 12:01:39.252398 32420 net.cpp:425] inception_5a/5x5_reduce <- pool4/3x3_s2_pool4/3x3_s2_0_split_2
I0403 12:01:39.252418 32420 net.cpp:399] inception_5a/5x5_reduce -> inception_5a/5x5_reduce
I0403 12:01:39.252775 32420 net.cpp:141] Setting up inception_5a/5x5_reduce
I0403 12:01:39.252799 32420 net.cpp:148] Top shape: 24 32 7 7 (37632)
I0403 12:01:39.252813 32420 net.cpp:156] Memory required for data: 1299177984
I0403 12:01:39.252830 32420 layer_factory.hpp:77] Creating layer inception_5a/relu_5x5_reduce
I0403 12:01:39.252847 32420 net.cpp:91] Creating Layer inception_5a/relu_5x5_reduce
I0403 12:01:39.252861 32420 net.cpp:425] inception_5a/relu_5x5_reduce <- inception_5a/5x5_reduce
I0403 12:01:39.252877 32420 net.cpp:386] inception_5a/relu_5x5_reduce -> inception_5a/5x5_reduce (in-place)
I0403 12:01:39.252895 32420 net.cpp:141] Setting up inception_5a/relu_5x5_reduce
I0403 12:01:39.252912 32420 net.cpp:148] Top shape: 24 32 7 7 (37632)
I0403 12:01:39.252926 32420 net.cpp:156] Memory required for data: 1299328512
I0403 12:01:39.252940 32420 layer_factory.hpp:77] Creating layer inception_5a/5x5
I0403 12:01:39.252962 32420 net.cpp:91] Creating Layer inception_5a/5x5
I0403 12:01:39.252979 32420 net.cpp:425] inception_5a/5x5 <- inception_5a/5x5_reduce
I0403 12:01:39.252998 32420 net.cpp:399] inception_5a/5x5 -> inception_5a/5x5
I0403 12:01:39.253731 32420 net.cpp:141] Setting up inception_5a/5x5
I0403 12:01:39.253756 32420 net.cpp:148] Top shape: 24 128 7 7 (150528)
I0403 12:01:39.253770 32420 net.cpp:156] Memory required for data: 1299930624
I0403 12:01:39.253788 32420 layer_factory.hpp:77] Creating layer inception_5a/relu_5x5
I0403 12:01:39.253808 32420 net.cpp:91] Creating Layer inception_5a/relu_5x5
I0403 12:01:39.253826 32420 net.cpp:425] inception_5a/relu_5x5 <- inception_5a/5x5
I0403 12:01:39.253844 32420 net.cpp:386] inception_5a/relu_5x5 -> inception_5a/5x5 (in-place)
I0403 12:01:39.253861 32420 net.cpp:141] Setting up inception_5a/relu_5x5
I0403 12:01:39.253878 32420 net.cpp:148] Top shape: 24 128 7 7 (150528)
I0403 12:01:39.253891 32420 net.cpp:156] Memory required for data: 1300532736
I0403 12:01:39.253904 32420 layer_factory.hpp:77] Creating layer inception_5a/pool
I0403 12:01:39.253922 32420 net.cpp:91] Creating Layer inception_5a/pool
I0403 12:01:39.253938 32420 net.cpp:425] inception_5a/pool <- pool4/3x3_s2_pool4/3x3_s2_0_split_3
I0403 12:01:39.253957 32420 net.cpp:399] inception_5a/pool -> inception_5a/pool
I0403 12:01:39.254006 32420 net.cpp:141] Setting up inception_5a/pool
I0403 12:01:39.254030 32420 net.cpp:148] Top shape: 24 832 7 7 (978432)
I0403 12:01:39.254045 32420 net.cpp:156] Memory required for data: 1304446464
I0403 12:01:39.254057 32420 layer_factory.hpp:77] Creating layer inception_5a/pool_proj
I0403 12:01:39.254079 32420 net.cpp:91] Creating Layer inception_5a/pool_proj
I0403 12:01:39.254096 32420 net.cpp:425] inception_5a/pool_proj <- inception_5a/pool
I0403 12:01:39.254117 32420 net.cpp:399] inception_5a/pool_proj -> inception_5a/pool_proj
I0403 12:01:39.255362 32420 net.cpp:141] Setting up inception_5a/pool_proj
I0403 12:01:39.255388 32420 net.cpp:148] Top shape: 24 128 7 7 (150528)
I0403 12:01:39.255403 32420 net.cpp:156] Memory required for data: 1305048576
I0403 12:01:39.255434 32420 layer_factory.hpp:77] Creating layer inception_5a/relu_pool_proj
I0403 12:01:39.255452 32420 net.cpp:91] Creating Layer inception_5a/relu_pool_proj
I0403 12:01:39.255470 32420 net.cpp:425] inception_5a/relu_pool_proj <- inception_5a/pool_proj
I0403 12:01:39.255487 32420 net.cpp:386] inception_5a/relu_pool_proj -> inception_5a/pool_proj (in-place)
I0403 12:01:39.255507 32420 net.cpp:141] Setting up inception_5a/relu_pool_proj
I0403 12:01:39.255527 32420 net.cpp:148] Top shape: 24 128 7 7 (150528)
I0403 12:01:39.255540 32420 net.cpp:156] Memory required for data: 1305650688
I0403 12:01:39.255553 32420 layer_factory.hpp:77] Creating layer inception_5a/output
I0403 12:01:39.255570 32420 net.cpp:91] Creating Layer inception_5a/output
I0403 12:01:39.255585 32420 net.cpp:425] inception_5a/output <- inception_5a/1x1
I0403 12:01:39.255601 32420 net.cpp:425] inception_5a/output <- inception_5a/3x3
I0403 12:01:39.255615 32420 net.cpp:425] inception_5a/output <- inception_5a/5x5
I0403 12:01:39.255630 32420 net.cpp:425] inception_5a/output <- inception_5a/pool_proj
I0403 12:01:39.255647 32420 net.cpp:399] inception_5a/output -> inception_5a/output
I0403 12:01:39.255686 32420 net.cpp:141] Setting up inception_5a/output
I0403 12:01:39.255709 32420 net.cpp:148] Top shape: 24 832 7 7 (978432)
I0403 12:01:39.255723 32420 net.cpp:156] Memory required for data: 1309564416
I0403 12:01:39.255738 32420 layer_factory.hpp:77] Creating layer inception_5a/output_inception_5a/output_0_split
I0403 12:01:39.255754 32420 net.cpp:91] Creating Layer inception_5a/output_inception_5a/output_0_split
I0403 12:01:39.255769 32420 net.cpp:425] inception_5a/output_inception_5a/output_0_split <- inception_5a/output
I0403 12:01:39.255789 32420 net.cpp:399] inception_5a/output_inception_5a/output_0_split -> inception_5a/output_inception_5a/output_0_split_0
I0403 12:01:39.255810 32420 net.cpp:399] inception_5a/output_inception_5a/output_0_split -> inception_5a/output_inception_5a/output_0_split_1
I0403 12:01:39.255830 32420 net.cpp:399] inception_5a/output_inception_5a/output_0_split -> inception_5a/output_inception_5a/output_0_split_2
I0403 12:01:39.255848 32420 net.cpp:399] inception_5a/output_inception_5a/output_0_split -> inception_5a/output_inception_5a/output_0_split_3
I0403 12:01:39.255913 32420 net.cpp:141] Setting up inception_5a/output_inception_5a/output_0_split
I0403 12:01:39.255940 32420 net.cpp:148] Top shape: 24 832 7 7 (978432)
I0403 12:01:39.255956 32420 net.cpp:148] Top shape: 24 832 7 7 (978432)
I0403 12:01:39.255971 32420 net.cpp:148] Top shape: 24 832 7 7 (978432)
I0403 12:01:39.255986 32420 net.cpp:148] Top shape: 24 832 7 7 (978432)
I0403 12:01:39.256000 32420 net.cpp:156] Memory required for data: 1325219328
I0403 12:01:39.256012 32420 layer_factory.hpp:77] Creating layer inception_5b/1x1
I0403 12:01:39.256034 32420 net.cpp:91] Creating Layer inception_5b/1x1
I0403 12:01:39.256050 32420 net.cpp:425] inception_5b/1x1 <- inception_5a/output_inception_5a/output_0_split_0
I0403 12:01:39.256070 32420 net.cpp:399] inception_5b/1x1 -> inception_5b/1x1
I0403 12:01:39.258744 32420 net.cpp:141] Setting up inception_5b/1x1
I0403 12:01:39.258771 32420 net.cpp:148] Top shape: 24 384 7 7 (451584)
I0403 12:01:39.258787 32420 net.cpp:156] Memory required for data: 1327025664
I0403 12:01:39.258805 32420 layer_factory.hpp:77] Creating layer inception_5b/relu_1x1
I0403 12:01:39.258822 32420 net.cpp:91] Creating Layer inception_5b/relu_1x1
I0403 12:01:39.258838 32420 net.cpp:425] inception_5b/relu_1x1 <- inception_5b/1x1
I0403 12:01:39.258858 32420 net.cpp:386] inception_5b/relu_1x1 -> inception_5b/1x1 (in-place)
I0403 12:01:39.258878 32420 net.cpp:141] Setting up inception_5b/relu_1x1
I0403 12:01:39.258895 32420 net.cpp:148] Top shape: 24 384 7 7 (451584)
I0403 12:01:39.258909 32420 net.cpp:156] Memory required for data: 1328832000
I0403 12:01:39.258924 32420 layer_factory.hpp:77] Creating layer inception_5b/3x3_reduce
I0403 12:01:39.258946 32420 net.cpp:91] Creating Layer inception_5b/3x3_reduce
I0403 12:01:39.258977 32420 net.cpp:425] inception_5b/3x3_reduce <- inception_5a/output_inception_5a/output_0_split_1
I0403 12:01:39.258999 32420 net.cpp:399] inception_5b/3x3_reduce -> inception_5b/3x3_reduce
I0403 12:01:39.260571 32420 net.cpp:141] Setting up inception_5b/3x3_reduce
I0403 12:01:39.260598 32420 net.cpp:148] Top shape: 24 192 7 7 (225792)
I0403 12:01:39.260614 32420 net.cpp:156] Memory required for data: 1329735168
I0403 12:01:39.260632 32420 layer_factory.hpp:77] Creating layer inception_5b/relu_3x3_reduce
I0403 12:01:39.260650 32420 net.cpp:91] Creating Layer inception_5b/relu_3x3_reduce
I0403 12:01:39.260666 32420 net.cpp:425] inception_5b/relu_3x3_reduce <- inception_5b/3x3_reduce
I0403 12:01:39.260684 32420 net.cpp:386] inception_5b/relu_3x3_reduce -> inception_5b/3x3_reduce (in-place)
I0403 12:01:39.260706 32420 net.cpp:141] Setting up inception_5b/relu_3x3_reduce
I0403 12:01:39.260722 32420 net.cpp:148] Top shape: 24 192 7 7 (225792)
I0403 12:01:39.260736 32420 net.cpp:156] Memory required for data: 1330638336
I0403 12:01:39.260751 32420 layer_factory.hpp:77] Creating layer inception_5b/3x3
I0403 12:01:39.260771 32420 net.cpp:91] Creating Layer inception_5b/3x3
I0403 12:01:39.260787 32420 net.cpp:425] inception_5b/3x3 <- inception_5b/3x3_reduce
I0403 12:01:39.260807 32420 net.cpp:399] inception_5b/3x3 -> inception_5b/3x3
I0403 12:01:39.265890 32420 net.cpp:141] Setting up inception_5b/3x3
I0403 12:01:39.265918 32420 net.cpp:148] Top shape: 24 384 7 7 (451584)
I0403 12:01:39.265936 32420 net.cpp:156] Memory required for data: 1332444672
I0403 12:01:39.265954 32420 layer_factory.hpp:77] Creating layer inception_5b/relu_3x3
I0403 12:01:39.265975 32420 net.cpp:91] Creating Layer inception_5b/relu_3x3
I0403 12:01:39.265993 32420 net.cpp:425] inception_5b/relu_3x3 <- inception_5b/3x3
I0403 12:01:39.266011 32420 net.cpp:386] inception_5b/relu_3x3 -> inception_5b/3x3 (in-place)
I0403 12:01:39.266029 32420 net.cpp:141] Setting up inception_5b/relu_3x3
I0403 12:01:39.266047 32420 net.cpp:148] Top shape: 24 384 7 7 (451584)
I0403 12:01:39.266062 32420 net.cpp:156] Memory required for data: 1334251008
I0403 12:01:39.266075 32420 layer_factory.hpp:77] Creating layer inception_5b/5x5_reduce
I0403 12:01:39.266098 32420 net.cpp:91] Creating Layer inception_5b/5x5_reduce
I0403 12:01:39.266114 32420 net.cpp:425] inception_5b/5x5_reduce <- inception_5a/output_inception_5a/output_0_split_2
I0403 12:01:39.266134 32420 net.cpp:399] inception_5b/5x5_reduce -> inception_5b/5x5_reduce
I0403 12:01:39.266583 32420 net.cpp:141] Setting up inception_5b/5x5_reduce
I0403 12:01:39.266612 32420 net.cpp:148] Top shape: 24 48 7 7 (56448)
I0403 12:01:39.266628 32420 net.cpp:156] Memory required for data: 1334476800
I0403 12:01:39.266645 32420 layer_factory.hpp:77] Creating layer inception_5b/relu_5x5_reduce
I0403 12:01:39.266664 32420 net.cpp:91] Creating Layer inception_5b/relu_5x5_reduce
I0403 12:01:39.266680 32420 net.cpp:425] inception_5b/relu_5x5_reduce <- inception_5b/5x5_reduce
I0403 12:01:39.266697 32420 net.cpp:386] inception_5b/relu_5x5_reduce -> inception_5b/5x5_reduce (in-place)
I0403 12:01:39.266716 32420 net.cpp:141] Setting up inception_5b/relu_5x5_reduce
I0403 12:01:39.266732 32420 net.cpp:148] Top shape: 24 48 7 7 (56448)
I0403 12:01:39.266747 32420 net.cpp:156] Memory required for data: 1334702592
I0403 12:01:39.266762 32420 layer_factory.hpp:77] Creating layer inception_5b/5x5
I0403 12:01:39.266782 32420 net.cpp:91] Creating Layer inception_5b/5x5
I0403 12:01:39.266800 32420 net.cpp:425] inception_5b/5x5 <- inception_5b/5x5_reduce
I0403 12:01:39.266821 32420 net.cpp:399] inception_5b/5x5 -> inception_5b/5x5
I0403 12:01:39.267865 32420 net.cpp:141] Setting up inception_5b/5x5
I0403 12:01:39.267891 32420 net.cpp:148] Top shape: 24 128 7 7 (150528)
I0403 12:01:39.267907 32420 net.cpp:156] Memory required for data: 1335304704
I0403 12:01:39.267923 32420 layer_factory.hpp:77] Creating layer inception_5b/relu_5x5
I0403 12:01:39.267943 32420 net.cpp:91] Creating Layer inception_5b/relu_5x5
I0403 12:01:39.267959 32420 net.cpp:425] inception_5b/relu_5x5 <- inception_5b/5x5
I0403 12:01:39.267994 32420 net.cpp:386] inception_5b/relu_5x5 -> inception_5b/5x5 (in-place)
I0403 12:01:39.268015 32420 net.cpp:141] Setting up inception_5b/relu_5x5
I0403 12:01:39.268033 32420 net.cpp:148] Top shape: 24 128 7 7 (150528)
I0403 12:01:39.268046 32420 net.cpp:156] Memory required for data: 1335906816
I0403 12:01:39.268060 32420 layer_factory.hpp:77] Creating layer inception_5b/pool
I0403 12:01:39.268077 32420 net.cpp:91] Creating Layer inception_5b/pool
I0403 12:01:39.268093 32420 net.cpp:425] inception_5b/pool <- inception_5a/output_inception_5a/output_0_split_3
I0403 12:01:39.268110 32420 net.cpp:399] inception_5b/pool -> inception_5b/pool
I0403 12:01:39.268163 32420 net.cpp:141] Setting up inception_5b/pool
I0403 12:01:39.268187 32420 net.cpp:148] Top shape: 24 832 7 7 (978432)
I0403 12:01:39.268201 32420 net.cpp:156] Memory required for data: 1339820544
I0403 12:01:39.268220 32420 layer_factory.hpp:77] Creating layer inception_5b/pool_proj
I0403 12:01:39.268244 32420 net.cpp:91] Creating Layer inception_5b/pool_proj
I0403 12:01:39.268262 32420 net.cpp:425] inception_5b/pool_proj <- inception_5b/pool
I0403 12:01:39.268283 32420 net.cpp:399] inception_5b/pool_proj -> inception_5b/pool_proj
I0403 12:01:39.269580 32420 net.cpp:141] Setting up inception_5b/pool_proj
I0403 12:01:39.269608 32420 net.cpp:148] Top shape: 24 128 7 7 (150528)
I0403 12:01:39.269623 32420 net.cpp:156] Memory required for data: 1340422656
I0403 12:01:39.269641 32420 layer_factory.hpp:77] Creating layer inception_5b/relu_pool_proj
I0403 12:01:39.269660 32420 net.cpp:91] Creating Layer inception_5b/relu_pool_proj
I0403 12:01:39.269677 32420 net.cpp:425] inception_5b/relu_pool_proj <- inception_5b/pool_proj
I0403 12:01:39.269696 32420 net.cpp:386] inception_5b/relu_pool_proj -> inception_5b/pool_proj (in-place)
I0403 12:01:39.269716 32420 net.cpp:141] Setting up inception_5b/relu_pool_proj
I0403 12:01:39.269732 32420 net.cpp:148] Top shape: 24 128 7 7 (150528)
I0403 12:01:39.269747 32420 net.cpp:156] Memory required for data: 1341024768
I0403 12:01:39.269760 32420 layer_factory.hpp:77] Creating layer inception_5b/output
I0403 12:01:39.269778 32420 net.cpp:91] Creating Layer inception_5b/output
I0403 12:01:39.269793 32420 net.cpp:425] inception_5b/output <- inception_5b/1x1
I0403 12:01:39.269809 32420 net.cpp:425] inception_5b/output <- inception_5b/3x3
I0403 12:01:39.269824 32420 net.cpp:425] inception_5b/output <- inception_5b/5x5
I0403 12:01:39.269839 32420 net.cpp:425] inception_5b/output <- inception_5b/pool_proj
I0403 12:01:39.269857 32420 net.cpp:399] inception_5b/output -> inception_5b/output
I0403 12:01:39.269896 32420 net.cpp:141] Setting up inception_5b/output
I0403 12:01:39.269920 32420 net.cpp:148] Top shape: 24 1024 7 7 (1204224)
I0403 12:01:39.269937 32420 net.cpp:156] Memory required for data: 1345841664
I0403 12:01:39.269951 32420 layer_factory.hpp:77] Creating layer pool5/7x7_s1
I0403 12:01:39.269970 32420 net.cpp:91] Creating Layer pool5/7x7_s1
I0403 12:01:39.269987 32420 net.cpp:425] pool5/7x7_s1 <- inception_5b/output
I0403 12:01:39.270005 32420 net.cpp:399] pool5/7x7_s1 -> pool5/7x7_s1
I0403 12:01:39.270045 32420 net.cpp:141] Setting up pool5/7x7_s1
I0403 12:01:39.270068 32420 net.cpp:148] Top shape: 24 1024 1 1 (24576)
I0403 12:01:39.270083 32420 net.cpp:156] Memory required for data: 1345939968
I0403 12:01:39.270097 32420 layer_factory.hpp:77] Creating layer pool5/drop_7x7_s1
I0403 12:01:39.270115 32420 net.cpp:91] Creating Layer pool5/drop_7x7_s1
I0403 12:01:39.270131 32420 net.cpp:425] pool5/drop_7x7_s1 <- pool5/7x7_s1
I0403 12:01:39.270151 32420 net.cpp:386] pool5/drop_7x7_s1 -> pool5/7x7_s1 (in-place)
I0403 12:01:39.270189 32420 net.cpp:141] Setting up pool5/drop_7x7_s1
I0403 12:01:39.270216 32420 net.cpp:148] Top shape: 24 1024 1 1 (24576)
I0403 12:01:39.270233 32420 net.cpp:156] Memory required for data: 1346038272
I0403 12:01:39.270247 32420 layer_factory.hpp:77] Creating layer loss3/classifier_plantvillage
I0403 12:01:39.270267 32420 net.cpp:91] Creating Layer loss3/classifier_plantvillage
I0403 12:01:39.270298 32420 net.cpp:425] loss3/classifier_plantvillage <- pool5/7x7_s1
I0403 12:01:39.270319 32420 net.cpp:399] loss3/classifier_plantvillage -> loss3/classifier_plantvillage
I0403 12:01:39.270651 32420 net.cpp:141] Setting up loss3/classifier_plantvillage
I0403 12:01:39.270676 32420 net.cpp:148] Top shape: 24 38 (912)
I0403 12:01:39.270691 32420 net.cpp:156] Memory required for data: 1346041920
I0403 12:01:39.270709 32420 layer_factory.hpp:77] Creating layer loss1/loss
I0403 12:01:39.270735 32420 net.cpp:91] Creating Layer loss1/loss
I0403 12:01:39.270755 32420 net.cpp:425] loss1/loss <- loss1/classifier_plantvillage
I0403 12:01:39.270771 32420 net.cpp:425] loss1/loss <- label_data_1_split_0
I0403 12:01:39.270787 32420 net.cpp:399] loss1/loss -> loss1/loss
…
I0403 12:01:39.280310 32420 net.cpp:313] The NetState phase (1) differed from the phase (0) specified by a rule in layer data
I0403 12:01:39.284076 32420 net.cpp:49] Initializing net from parameters: 
state {
  phase: TEST
}
layer {
  name: "data"
  type: "Data"
  top: "data"
  top: "label"
  include {
    phase: TEST
  }
  transform_param {
    mirror: false
    crop_size: 224
    mean_file: "/home/mohanty/data/final_dataset/lmdb/segmented-80-20/mean.binaryproto"
  }
  data_param {
    source: "/home/mohanty/data/final_dataset/lmdb/segmented-80-20/test_db"
    batch_size: 24
    backend: LMDB
  }
}
layer {
  name: "conv1/7x7_s2"
  type: "Convolution"
  bottom: "data"
  top: "conv1/7x7_s2"
  param {
    lr_mult: 1
    decay_mult: 1
  }
  param {
    lr_mult: 2
    decay_mult: 0
  }
  convolution_param {
    num_output: 64
    pad: 3
    kernel_size: 7
    stride: 2
    weight_filler {
      type: "xavier"
      std: 0.1
    }
    bias_filler {
      type: "constant"
      value: 0.2
    }
  }
}
layer {
  name: "conv1/relu_7x7"
  type: "ReLU"
  bottom: "conv1/7x7_s2"
  top: "conv1/7x7_s2"
}
layer {
  name: "pool1/3x3_s2"
  type: "Pooling"
  bottom: "conv1/7x7_s2"
  top: "pool1/3x3_s2"
  pooling_param {
    pool: MAX
    kernel_size: 3
    stride: 2
  }
}
layer {
  name: "pool1/norm1"
  type: "LRN"
  bottom: "pool1/3x3_s2"
  top: "pool1/norm1"
  lrn_param {
    local_size: 5
    alpha: 0.0001
    beta: 0.75
  }
}
layer {
  name: "conv2/3x3_reduce"
  type: "Convolution"
  bottom: "pool1/norm1"
  top: "conv2/3x3_reduce"
  param {
    lr_mult: 1
    decay_mult: 1
  }
  param {
    lr_mult: 2
    decay_mult: 0
  }
  convolution_param {
    num_output: 64
    kernel_size: 1
    weight_filler {
      type: "xavier"
      std: 0.1
    }
    bias_filler {
      type: "constant"
      value: 0.2
    }
  }
}
layer {
  name: "conv2/relu_3x3_reduce"
  type: "ReLU"
  bottom: "conv2/3x3_reduce"
  top: "conv2/3x3_reduce"
}
layer {
  name: "conv2/3x3"
  type: "Convolution"
  bottom: "conv2/3x3_reduce"
  top: "conv2/3x3"
  param {
    lr_mult: 1
    decay_mult: 1
  }
  param {
    lr_mult: 2
    decay_mult: 0
  }
  convolution_param {
    num_output: 192
    pad: 1
    kernel_size: 3
    weight_filler {
      type: "xavier"
      std: 0.03
    }
    bias_filler {
      type: "constant"
      value: 0.2
    }
  }
}
layer {
  name: "conv2/relu_3x3"
  type: "ReLU"
  bottom: "conv2/3x3"
  top: "conv2/3x3"
}
layer {
  name: "conv2/norm2"
  type: "LRN"
  bottom: "conv2/3x3"
  top: "conv2/norm2"
  lrn_param {
    local_size: 5
    alpha: 0.0001
    beta: 0.75
  }
}
layer {
  name: "pool2/3x3_s2"
  type: "Pooling"
  bottom: "conv2/norm2"
  top: "pool2/3x3_s2"
  pooling_param {
    pool: MAX
    kernel_size: 3
    stride: 2
  }
}
layer {
  name: "inception_3a/1x1"
  type: "Convolution"
  bottom: "pool2/3x3_s2"
  top: "inception_3a/1x1"
  param {
    lr_mult: 1
    decay_mult: 1
  }
  param {
    lr_mult: 2
    decay_mult: 0
  }
  convolution_param {
    num_output: 64
    kernel_size: 1
    weight_filler {
      type: "xavier"
      std: 0.03
    }
    bias_filler {
      type: "constant"
      value: 0.2
    }
  }
}
layer {
  name: "inception_3a/relu_1x1"
  type: "ReLU"
  bottom: "inception_3a/1x1"
  top: "inception_3a/1x1"
}
layer {
  name: "inception_3a/3x3_reduce"
  type: "Convolution"
  bottom: "pool2/3x3_s2"
  top: "inception_3a/3x3_reduce"
  param {
    lr_mult: 1
    decay_mult: 1
  }
  param {
    lr_mult: 2
    decay_mult: 0
  }
  convolution_param {
    num_output: 96
    kernel_size: 1
    weight_filler {
      type: "xavier"
      std: 0.09
    }
    bias_filler {
      type: "constant"
      value: 0.2
    }
  }
}
layer {
  name: "inception_3a/relu_3x3_reduce"
  type: "ReLU"
  bottom: "inception_3a/3x3_reduce"
  top: "inception_3a/3x3_reduce"
}
layer {
  name: "inception_3a/3x3"
  type: "Convolution"
  bottom: "inception_3a/3x3_reduce"
  top: "inception_3a/3x3"
  param {
    lr_mult: 1
    decay_mult: 1
  }
  param {
    lr_mult: 2
    decay_mult: 0
  }
  convolution_param {
    num_output: 128
    pad: 1
    kernel_size: 3
    weight_filler {
      type: "xavier"
      std: 0.03
    }
    bias_filler {
      type: "constant"
      value: 0.2
    }
  }
}
layer {
  name: "inception_3a/relu_3x3"
  type: "ReLU"
  bottom: "inception_3a/3x3"
  top: "inception_3a/3x3"
}
layer {
  name: "inception_3a/5x5_reduce"
  type: "Convolution"
  bottom: "pool2/3x3_s2"
  top: "inception_3a/5x5_reduce"
  param {
    lr_mult: 1
    decay_mult: 1
  }
  param {
    lr_mult: 2
    decay_mult: 0
  }
  convolution_param {
    num_output: 16
    kernel_size: 1
    weight_filler {
      type: "xavier"
      std: 0.2
    }
    bias_filler {
      type: "constant"
      value: 0.2
    }
  }
}
layer {
  name: "inception_3a/relu_5x5_reduce"
  type: "ReLU"
  bottom: "inception_3a/5x5_reduce"
  top: "inception_3a/5x5_reduce"
}
layer {
  name: "inception_3a/5x5"
  type: "Convolution"
  bottom: "inception_3a/5x5_reduce"
  top: "inception_3a/5x5"
  param {
    lr_mult: 1
    decay_mult: 1
  }
  param {
    lr_mult: 2
    decay_mult: 0
  }
  convolution_param {
    num_output: 32
    pad: 2
    kernel_size: 5
    weight_filler {
      type: "xavier"
      std: 0.03
    }
    bias_filler {
      type: "constant"
      value: 0.2
    }
  }
}
layer {
  name: "inception_3a/relu_5x5"
  type: "ReLU"
  bottom: "inception_3a/5x5"
  top: "inception_3a/5x5"
}
layer {
  name: "inception_3a/pool"
  type: "Pooling"
  bottom: "pool2/3x3_s2"
  top: "inception_3a/pool"
  pooling_param {
    pool: MAX
    kernel_size: 3
    stride: 1
    pad: 1
  }
}
layer {
  name: "inception_3a/pool_proj"
  type: "Convolution"
  bottom: "inception_3a/pool"
  top: "inception_3a/pool_proj"
  param {
    lr_mult: 1
    decay_mult: 1
  }
  param {
    lr_mult: 2
    decay_mult: 0
  }
  convolution_param {
    num_output: 32
    kernel_size: 1
    weight_filler {
      type: "xavier"
      std: 0.1
    }
    bias_filler {
      type: "constant"
      value: 0.2
    }
  }
}
layer {
  name: "inception_3a/relu_pool_proj"
  type: "ReLU"
  bottom: "inception_3a/pool_proj"
  top: "inception_3a/pool_proj"
}
layer {
  name: "inception_3a/output"
  type: "Concat"
  bottom: "inception_3a/1x1"
  bottom: "inception_3a/3x3"
  bottom: "inception_3a/5x5"
  bottom: "inception_3a/pool_proj"
  top: "inception_3a/output"
}
layer {
  name: "inception_3b/1x1"
  type: "Convolution"
  bottom: "inception_3a/output"
  top: "inception_3b/1x1"
  param {
    lr_mult: 1
    decay_mult: 1
  }
  param {
    lr_mult: 2
    decay_mult: 0
  }
  convolution_param {
    num_output: 128
    kernel_size: 1
    weight_filler {
      type: "xavier"
      std: 0.03
    }
    bias_filler {
      type: "constant"
      value: 0.2
    }
  }
}
layer {
  name: "inception_3b/relu_1x1"
  type: "ReLU"
  bottom: "inception_3b/1x1"
  top: "inception_3b/1x1"
}
layer {
  name: "inception_3b/3x3_reduce"
  type: "Convolution"
  bottom: "inception_3a/output"
  top: "inception_3b/3x3_reduce"
  param {
    lr_mult: 1
    decay_mult: 1
  }
  param {
    lr_mult: 2
    decay_mult: 0
  }
  convolution_param {
    num_output: 128
    kernel_size: 1
    weight_filler {
      type: "xavier"
      std: 0.09
    }
    bias_filler {
      type: "constant"
      value: 0.2
    }
  }
}
layer {
  name: "inception_3b/relu_3x3_reduce"
  type: "ReLU"
  bottom: "inception_3b/3x3_reduce"
  top: "inception_3b/3x3_reduce"
}
layer {
  name: "inception_3b/3x3"
  type: "Convolution"
  bottom: "inception_3b/3x3_reduce"
  top: "inception_3b/3x3"
  param {
    lr_mult: 1
    decay_mult: 1
  }
  param {
    lr_mult: 2
    decay_mult: 0
  }
  convolution_param {
    num_output: 192
    pad: 1
    kernel_size: 3
    weight_filler {
      type: "xavier"
      std: 0.03
    }
    bias_filler {
      type: "constant"
      value: 0.2
    }
  }
}
layer {
  name: "inception_3b/relu_3x3"
  type: "ReLU"
  bottom: "inception_3b/3x3"
  top: "inception_3b/3x3"
}
layer {
  name: "inception_3b/5x5_reduce"
  type: "Convolution"
  bottom: "inception_3a/output"
  top: "inception_3b/5x5_reduce"
  param {
    lr_mult: 1
    decay_mult: 1
  }
  param {
    lr_mult: 2
    decay_mult: 0
  }
  convolution_param {
    num_output: 32
    kernel_size: 1
    weight_filler {
      type: "xavier"
      std: 0.2
    }
    bias_filler {
      type: "constant"
      value: 0.2
    }
  }
}
layer {
  name: "inception_3b/relu_5x5_reduce"
  type: "ReLU"
  bottom: "inception_3b/5x5_reduce"
  top: "inception_3b/5x5_reduce"
}
layer {
  name: "inception_3b/5x5"
  type: "Convolution"
  bottom: "inception_3b/5x5_reduce"
  top: "inception_3b/5x5"
  param {
    lr_mult: 1
    decay_mult: 1
  }
  param {
    lr_mult: 2
    decay_mult: 0
  }
  convolution_param {
    num_output: 96
    pad: 2
    kernel_size: 5
    weight_filler {
      type: "xavier"
      std: 0.03
    }
    bias_filler {
      type: "constant"
      value: 0.2
    }
  }
}
layer {
  name: "inception_3b/relu_5x5"
  type: "ReLU"
  bottom: "inception_3b/5x5"
  top: "inception_3b/5x5"
}
layer {
  name: "inception_3b/pool"
  type: "Pooling"
  bottom: "inception_3a/output"
  top: "inception_3b/pool"
  pooling_param {
    pool: MAX
    kernel_size: 3
    stride: 1
    pad: 1
  }
}
layer {
  name: "inception_3b/pool_proj"
  type: "Convolution"
  bottom: "inception_3b/pool"
  top: "inception_3b/pool_proj"
  param {
    lr_mult: 1
    decay_mult: 1
  }
  param {
    lr_mult: 2
    decay_mult: 0
  }
  convolution_param {
    num_output: 64
    kernel_size: 1
    weight_filler {
      type: "xavier"
      std: 0.1
    }
    bias_filler {
      type: "constant"
      value: 0.2
    }
  }
}
layer {
  name: "inception_3b/relu_pool_proj"
  type: "ReLU"
  bottom: "inception_3b/pool_proj"
  top: "inception_3b/pool_proj"
}
layer {
  name: "inception_3b/output"
  type: "Concat"
  bottom: "inception_3b/1x1"
  bottom: "inception_3b/3x3"
  bottom: "inception_3b/5x5"
  bottom: "inception_3b/pool_proj"
  top: "inception_3b/output"
}
layer {
  name: "pool3/3x3_s2"
  type: "Pooling"
  bottom: "inception_3b/output"
  top: "pool3/3x3_s2"
  pooling_param {
    pool: MAX
    kernel_size: 3
    stride: 2
  }
}
layer {
  name: "inception_4a/1x1"
  type: "Convolution"
  bottom: "pool3/3x3_s2"
  top: "inception_4a/1x1"
  param {
    lr_mult: 1
    decay_mult: 1
  }
  param {
    lr_mult: 2
    decay_mult: 0
  }
  convolution_param {
    num_output: 192
    kernel_size: 1
    weight_filler {
      type: "xavier"
      std: 0.03
    }
    bias_filler {
      type: "constant"
      value: 0.2
    }
  }
}
layer {
  name: "inception_4a/relu_1x1"
  type: "ReLU"
  bottom: "inception_4a/1x1"
  top: "inception_4a/1x1"
}
layer {
  name: "inception_4a/3x3_reduce"
  type: "Convolution"
  bottom: "pool3/3x3_s2"
  top: "inception_4a/3x3_reduce"
  param {
    lr_mult: 1
    decay_mult: 1
  }
  param {
    lr_mult: 2
    decay_mult: 0
  }
  convolution_param {
    num_output: 96
    kernel_size: 1
    weight_filler {
      type: "xavier"
      std: 0.09
    }
    bias_filler {
      type: "constant"
      value: 0.2
    }
  }
}
layer {
  name: "inception_4a/relu_3x3_reduce"
  type: "ReLU"
  bottom: "inception_4a/3x3_reduce"
  top: "inception_4a/3x3_reduce"
}
layer {
  name: "inception_4a/3x3"
  type: "Convolution"
  bottom: "inception_4a/3x3_reduce"
  top: "inception_4a/3x3"
  param {
    lr_mult: 1
    decay_mult: 1
  }
  param {
    lr_mult: 2
    decay_mult: 0
  }
  convolution_param {
    num_output: 208
    pad: 1
    kernel_size: 3
    weight_filler {
      type: "xavier"
      std: 0.03
    }
    bias_filler {
      type: "constant"
      value: 0.2
    }
  }
}
layer {
  name: "inception_4a/relu_3x3"
  type: "ReLU"
  bottom: "inception_4a/3x3"
  top: "inception_4a/3x3"
}
layer {
  name: "inception_4a/5x5_reduce"
  type: "Convolution"
  bottom: "pool3/3x3_s2"
  top: "inception_4a/5x5_reduce"
  param {
    lr_mult: 1
    decay_mult: 1
  }
  param {
    lr_mult: 2
    decay_mult: 0
  }
  convolution_param {
    num_output: 16
    kernel_size: 1
    weight_filler {
      type: "xavier"
      std: 0.2
    }
    bias_filler {
      type: "constant"
      value: 0.2
    }
  }
}
layer {
  name: "inception_4a/relu_5x5_reduce"
  type: "ReLU"
  bottom: "inception_4a/5x5_reduce"
  top: "inception_4a/5x5_reduce"
}
layer {
  name: "inception_4a/5x5"
  type: "Convolution"
  bottom: "inception_4a/5x5_reduce"
  top: "inception_4a/5x5"
  param {
    lr_mult: 1
    decay_mult: 1
  }
  param {
    lr_mult: 2
    decay_mult: 0
  }
  convolution_param {
    num_output: 48
    pad: 2
    kernel_size: 5
    weight_filler {
      type: "xavier"
      std: 0.03
    }
    bias_filler {
      type: "constant"
      value: 0.2
    }
  }
}
layer {
  name: "inception_4a/relu_5x5"
  type: "ReLU"
  bottom: "inception_4a/5x5"
  top: "inception_4a/5x5"
}
layer {
  name: "inception_4a/pool"
  type: "Pooling"
  bottom: "pool3/3x3_s2"
  top: "inception_4a/pool"
  pooling_param {
    pool: MAX
    kernel_size: 3
    stride: 1
    pad: 1
  }
}
layer {
  name: "inception_4a/pool_proj"
  type: "Convolution"
  bottom: "inception_4a/pool"
  top: "inception_4a/pool_proj"
  param {
    lr_mult: 1
    decay_mult: 1
  }
  param {
    lr_mult: 2
    decay_mult: 0
  }
  convolution_param {
    num_output: 64
    kernel_size: 1
    weight_filler {
      type: "xavier"
      std: 0.1
    }
    bias_filler {
      type: "constant"
      value: 0.2
    }
  }
}
layer {
  name: "inception_4a/relu_pool_proj"
  type: "ReLU"
  bottom: "inception_4a/pool_proj"
  top: "inception_4a/pool_proj"
}
layer {
  name: "inception_4a/output"
  type: "Concat"
  bottom: "inception_4a/1x1"
  bottom: "inception_4a/3x3"
  bottom: "inception_4a/5x5"
  bottom: "inception_4a/pool_proj"
  top: "inception_4a/output"
}
layer {
  name: "loss1/ave_pool"
  type: "Pooling"
  bottom: "inception_4a/output"
  top: "loss1/ave_pool"
  pooling_param {
    pool: AVE
    kernel_size: 5
    stride: 3
  }
}
layer {
  name: "loss1/conv"
  type: "Convolution"
  bottom: "loss1/ave_pool"
  top: "loss1/conv"
  param {
    lr_mult: 1
    decay_mult: 1
  }
  param {
    lr_mult: 2
    decay_mult: 0
  }
  convolution_param {
    num_output: 128
    kernel_size: 1
    weight_filler {
      type: "xavier"
      std: 0.08
    }
    bias_filler {
      type: "constant"
      value: 0.2
    }
  }
}
layer {
  name: "loss1/relu_conv"
  type: "ReLU"
  bottom: "loss1/conv"
  top: "loss1/conv"
}
layer {
  name: "loss1/fc"
  type: "InnerProduct"
  bottom: "loss1/conv"
  top: "loss1/fc"
  param {
    lr_mult: 1
    decay_mult: 1
  }
  param {
    lr_mult: 2
    decay_mult: 0
  }
  inner_product_param {
    num_output: 1024
    weight_filler {
      type: "xavier"
      std: 0.02
    }
    bias_filler {
      type: "constant"
      value: 0.2
    }
  }
}
layer {
  name: "loss1/relu_fc"
  type: "ReLU"
  bottom: "loss1/fc"
  top: "loss1/fc"
}
layer {
  name: "loss1/drop_fc"
  type: "Dropout"
  bottom: "loss1/fc"
  top: "loss1/fc"
  dropout_param {
    dropout_ratio: 0.7
  }
}
layer {
  name: "loss1/classifier_plantvillage"
  type: "InnerProduct"
  bottom: "loss1/fc"
  top: "loss1/classifier_plantvillage"
  param {
    lr_mult: 1
    decay_mult: 1
  }
  param {
    lr_mult: 2
    decay_mult: 0
  }
  inner_product_param {
    num_output: 38
    weight_filler {
      type: "xavier"
      std: 0.0009765625
    }
    bias_filler {
      type: "constant"
      value: 0
    }
  }
}
layer {
  name: "inception_4b/1x1"
  type: "Convolution"
  bottom: "inception_4a/output"
  top: "inception_4b/1x1"
  param {
    lr_mult: 1
    decay_mult: 1
  }
  param {
    lr_mult: 2
    decay_mult: 0
  }
  convolution_param {
    num_output: 160
    kernel_size: 1
    weight_filler {
      type: "xavier"
      std: 0.03
    }
    bias_filler {
      type: "constant"
      value: 0.2
    }
  }
}
layer {
…
I0403 12:01:39.463682 32420 layer_factory.hpp:77] Creating layer inception_4c/pool
I0403 12:01:39.463702 32420 net.cpp:91] Creating Layer inception_4c/pool
I0403 12:01:39.463721 32420 net.cpp:425] inception_4c/pool <- inception_4b/output_inception_4b/output_0_split_3
I0403 12:01:39.463738 32420 net.cpp:399] inception_4c/pool -> inception_4c/pool
I0403 12:01:39.463798 32420 net.cpp:141] Setting up inception_4c/pool
I0403 12:01:39.463821 32420 net.cpp:148] Top shape: 24 512 14 14 (2408448)
I0403 12:01:39.463837 32420 net.cpp:156] Memory required for data: 1060605120
I0403 12:01:39.463851 32420 layer_factory.hpp:77] Creating layer inception_4c/pool_proj
I0403 12:01:39.463874 32420 net.cpp:91] Creating Layer inception_4c/pool_proj
I0403 12:01:39.463893 32420 net.cpp:425] inception_4c/pool_proj <- inception_4c/pool
I0403 12:01:39.463913 32420 net.cpp:399] inception_4c/pool_proj -> inception_4c/pool_proj
I0403 12:01:39.464342 32420 net.cpp:141] Setting up inception_4c/pool_proj
I0403 12:01:39.464375 32420 net.cpp:148] Top shape: 24 64 14 14 (301056)
I0403 12:01:39.464401 32420 net.cpp:156] Memory required for data: 1061809344
I0403 12:01:39.464421 32420 layer_factory.hpp:77] Creating layer inception_4c/relu_pool_proj
I0403 12:01:39.464442 32420 net.cpp:91] Creating Layer inception_4c/relu_pool_proj
I0403 12:01:39.464460 32420 net.cpp:425] inception_4c/relu_pool_proj <- inception_4c/pool_proj
I0403 12:01:39.464478 32420 net.cpp:386] inception_4c/relu_pool_proj -> inception_4c/pool_proj (in-place)
I0403 12:01:39.464499 32420 net.cpp:141] Setting up inception_4c/relu_pool_proj
I0403 12:01:39.464516 32420 net.cpp:148] Top shape: 24 64 14 14 (301056)
I0403 12:01:39.464531 32420 net.cpp:156] Memory required for data: 1063013568
I0403 12:01:39.464546 32420 layer_factory.hpp:77] Creating layer inception_4c/output
I0403 12:01:39.464563 32420 net.cpp:91] Creating Layer inception_4c/output
I0403 12:01:39.464579 32420 net.cpp:425] inception_4c/output <- inception_4c/1x1
I0403 12:01:39.464596 32420 net.cpp:425] inception_4c/output <- inception_4c/3x3
I0403 12:01:39.464610 32420 net.cpp:425] inception_4c/output <- inception_4c/5x5
I0403 12:01:39.464627 32420 net.cpp:425] inception_4c/output <- inception_4c/pool_proj
I0403 12:01:39.464649 32420 net.cpp:399] inception_4c/output -> inception_4c/output
I0403 12:01:39.464694 32420 net.cpp:141] Setting up inception_4c/output
I0403 12:01:39.464720 32420 net.cpp:148] Top shape: 24 512 14 14 (2408448)
I0403 12:01:39.464735 32420 net.cpp:156] Memory required for data: 1072647360
I0403 12:01:39.464750 32420 layer_factory.hpp:77] Creating layer inception_4c/output_inception_4c/output_0_split
I0403 12:01:39.464766 32420 net.cpp:91] Creating Layer inception_4c/output_inception_4c/output_0_split
I0403 12:01:39.464782 32420 net.cpp:425] inception_4c/output_inception_4c/output_0_split <- inception_4c/output
I0403 12:01:39.464802 32420 net.cpp:399] inception_4c/output_inception_4c/output_0_split -> inception_4c/output_inception_4c/output_0_split_0
I0403 12:01:39.464821 32420 net.cpp:399] inception_4c/output_inception_4c/output_0_split -> inception_4c/output_inception_4c/output_0_split_1
I0403 12:01:39.464843 32420 net.cpp:399] inception_4c/output_inception_4c/output_0_split -> inception_4c/output_inception_4c/output_0_split_2
I0403 12:01:39.464864 32420 net.cpp:399] inception_4c/output_inception_4c/output_0_split -> inception_4c/output_inception_4c/output_0_split_3
I0403 12:01:39.464957 32420 net.cpp:141] Setting up inception_4c/output_inception_4c/output_0_split
I0403 12:01:39.464982 32420 net.cpp:148] Top shape: 24 512 14 14 (2408448)
I0403 12:01:39.465000 32420 net.cpp:148] Top shape: 24 512 14 14 (2408448)
I0403 12:01:39.465015 32420 net.cpp:148] Top shape: 24 512 14 14 (2408448)
I0403 12:01:39.465030 32420 net.cpp:148] Top shape: 24 512 14 14 (2408448)
I0403 12:01:39.465044 32420 net.cpp:156] Memory required for data: 1111182528
I0403 12:01:39.465059 32420 layer_factory.hpp:77] Creating layer inception_4d/1x1
I0403 12:01:39.465082 32420 net.cpp:91] Creating Layer inception_4d/1x1
I0403 12:01:39.465101 32420 net.cpp:425] inception_4d/1x1 <- inception_4c/output_inception_4c/output_0_split_0
I0403 12:01:39.465123 32420 net.cpp:399] inception_4d/1x1 -> inception_4d/1x1
I0403 12:01:39.465687 32420 net.cpp:141] Setting up inception_4d/1x1
I0403 12:01:39.465713 32420 net.cpp:148] Top shape: 24 112 14 14 (526848)
I0403 12:01:39.465728 32420 net.cpp:156] Memory required for data: 1113289920
I0403 12:01:39.465746 32420 layer_factory.hpp:77] Creating layer inception_4d/relu_1x1
I0403 12:01:39.465769 32420 net.cpp:91] Creating Layer inception_4d/relu_1x1
I0403 12:01:39.465786 32420 net.cpp:425] inception_4d/relu_1x1 <- inception_4d/1x1
I0403 12:01:39.465804 32420 net.cpp:386] inception_4d/relu_1x1 -> inception_4d/1x1 (in-place)
I0403 12:01:39.465823 32420 net.cpp:141] Setting up inception_4d/relu_1x1
I0403 12:01:39.465840 32420 net.cpp:148] Top shape: 24 112 14 14 (526848)
I0403 12:01:39.465855 32420 net.cpp:156] Memory required for data: 1115397312
I0403 12:01:39.465873 32420 layer_factory.hpp:77] Creating layer inception_4d/3x3_reduce
I0403 12:01:39.465908 32420 net.cpp:91] Creating Layer inception_4d/3x3_reduce
I0403 12:01:39.465925 32420 net.cpp:425] inception_4d/3x3_reduce <- inception_4c/output_inception_4c/output_0_split_1
I0403 12:01:39.465950 32420 net.cpp:399] inception_4d/3x3_reduce -> inception_4d/3x3_reduce
I0403 12:01:39.466619 32420 net.cpp:141] Setting up inception_4d/3x3_reduce
I0403 12:01:39.466645 32420 net.cpp:148] Top shape: 24 144 14 14 (677376)
I0403 12:01:39.466661 32420 net.cpp:156] Memory required for data: 1118106816
I0403 12:01:39.466678 32420 layer_factory.hpp:77] Creating layer inception_4d/relu_3x3_reduce
I0403 12:01:39.466697 32420 net.cpp:91] Creating Layer inception_4d/relu_3x3_reduce
I0403 12:01:39.466716 32420 net.cpp:425] inception_4d/relu_3x3_reduce <- inception_4d/3x3_reduce
I0403 12:01:39.466733 32420 net.cpp:386] inception_4d/relu_3x3_reduce -> inception_4d/3x3_reduce (in-place)
I0403 12:01:39.466752 32420 net.cpp:141] Setting up inception_4d/relu_3x3_reduce
I0403 12:01:39.466768 32420 net.cpp:148] Top shape: 24 144 14 14 (677376)
I0403 12:01:39.466784 32420 net.cpp:156] Memory required for data: 1120816320
I0403 12:01:39.466797 32420 layer_factory.hpp:77] Creating layer inception_4d/3x3
I0403 12:01:39.466820 32420 net.cpp:91] Creating Layer inception_4d/3x3
I0403 12:01:39.466837 32420 net.cpp:425] inception_4d/3x3 <- inception_4d/3x3_reduce
I0403 12:01:39.466858 32420 net.cpp:399] inception_4d/3x3 -> inception_4d/3x3
I0403 12:01:39.469995 32420 net.cpp:141] Setting up inception_4d/3x3
I0403 12:01:39.470024 32420 net.cpp:148] Top shape: 24 288 14 14 (1354752)
I0403 12:01:39.470041 32420 net.cpp:156] Memory required for data: 1126235328
I0403 12:01:39.470058 32420 layer_factory.hpp:77] Creating layer inception_4d/relu_3x3
I0403 12:01:39.470077 32420 net.cpp:91] Creating Layer inception_4d/relu_3x3
I0403 12:01:39.470093 32420 net.cpp:425] inception_4d/relu_3x3 <- inception_4d/3x3
I0403 12:01:39.470113 32420 net.cpp:386] inception_4d/relu_3x3 -> inception_4d/3x3 (in-place)
I0403 12:01:39.470134 32420 net.cpp:141] Setting up inception_4d/relu_3x3
I0403 12:01:39.470152 32420 net.cpp:148] Top shape: 24 288 14 14 (1354752)
I0403 12:01:39.470167 32420 net.cpp:156] Memory required for data: 1131654336
I0403 12:01:39.470186 32420 layer_factory.hpp:77] Creating layer inception_4d/5x5_reduce
I0403 12:01:39.470227 32420 net.cpp:91] Creating Layer inception_4d/5x5_reduce
I0403 12:01:39.470247 32420 net.cpp:425] inception_4d/5x5_reduce <- inception_4c/output_inception_4c/output_0_split_2
I0403 12:01:39.470268 32420 net.cpp:399] inception_4d/5x5_reduce -> inception_4d/5x5_reduce
I0403 12:01:39.470615 32420 net.cpp:141] Setting up inception_4d/5x5_reduce
I0403 12:01:39.470645 32420 net.cpp:148] Top shape: 24 32 14 14 (150528)
I0403 12:01:39.470667 32420 net.cpp:156] Memory required for data: 1132256448
I0403 12:01:39.470687 32420 layer_factory.hpp:77] Creating layer inception_4d/relu_5x5_reduce
I0403 12:01:39.470707 32420 net.cpp:91] Creating Layer inception_4d/relu_5x5_reduce
I0403 12:01:39.470726 32420 net.cpp:425] inception_4d/relu_5x5_reduce <- inception_4d/5x5_reduce
I0403 12:01:39.470747 32420 net.cpp:386] inception_4d/relu_5x5_reduce -> inception_4d/5x5_reduce (in-place)
I0403 12:01:39.470767 32420 net.cpp:141] Setting up inception_4d/relu_5x5_reduce
I0403 12:01:39.470784 32420 net.cpp:148] Top shape: 24 32 14 14 (150528)
I0403 12:01:39.470798 32420 net.cpp:156] Memory required for data: 1132858560
I0403 12:01:39.470813 32420 layer_factory.hpp:77] Creating layer inception_4d/5x5
I0403 12:01:39.470837 32420 net.cpp:91] Creating Layer inception_4d/5x5
I0403 12:01:39.470856 32420 net.cpp:425] inception_4d/5x5 <- inception_4d/5x5_reduce
I0403 12:01:39.470875 32420 net.cpp:399] inception_4d/5x5 -> inception_4d/5x5
I0403 12:01:39.471406 32420 net.cpp:141] Setting up inception_4d/5x5
I0403 12:01:39.471433 32420 net.cpp:148] Top shape: 24 64 14 14 (301056)
I0403 12:01:39.471448 32420 net.cpp:156] Memory required for data: 1134062784
I0403 12:01:39.471467 32420 layer_factory.hpp:77] Creating layer inception_4d/relu_5x5
I0403 12:01:39.471485 32420 net.cpp:91] Creating Layer inception_4d/relu_5x5
I0403 12:01:39.471503 32420 net.cpp:425] inception_4d/relu_5x5 <- inception_4d/5x5
I0403 12:01:39.471524 32420 net.cpp:386] inception_4d/relu_5x5 -> inception_4d/5x5 (in-place)
I0403 12:01:39.471544 32420 net.cpp:141] Setting up inception_4d/relu_5x5
I0403 12:01:39.471560 32420 net.cpp:148] Top shape: 24 64 14 14 (301056)
I0403 12:01:39.471575 32420 net.cpp:156] Memory required for data: 1135267008
I0403 12:01:39.471590 32420 layer_factory.hpp:77] Creating layer inception_4d/pool
I0403 12:01:39.471608 32420 net.cpp:91] Creating Layer inception_4d/pool
I0403 12:01:39.471623 32420 net.cpp:425] inception_4d/pool <- inception_4c/output_inception_4c/output_0_split_3
I0403 12:01:39.471643 32420 net.cpp:399] inception_4d/pool -> inception_4d/pool
I0403 12:01:39.471699 32420 net.cpp:141] Setting up inception_4d/pool
I0403 12:01:39.471724 32420 net.cpp:148] Top shape: 24 512 14 14 (2408448)
I0403 12:01:39.471738 32420 net.cpp:156] Memory required for data: 1144900800
I0403 12:01:39.471755 32420 layer_factory.hpp:77] Creating layer inception_4d/pool_proj
I0403 12:01:39.471777 32420 net.cpp:91] Creating Layer inception_4d/pool_proj
I0403 12:01:39.471796 32420 net.cpp:425] inception_4d/pool_proj <- inception_4d/pool
I0403 12:01:39.471820 32420 net.cpp:399] inception_4d/pool_proj -> inception_4d/pool_proj
I0403 12:01:39.472250 32420 net.cpp:141] Setting up inception_4d/pool_proj
I0403 12:01:39.472276 32420 net.cpp:148] Top shape: 24 64 14 14 (301056)
I0403 12:01:39.472292 32420 net.cpp:156] Memory required for data: 1146105024
I0403 12:01:39.472311 32420 layer_factory.hpp:77] Creating layer inception_4d/relu_pool_proj
I0403 12:01:39.472329 32420 net.cpp:91] Creating Layer inception_4d/relu_pool_proj
I0403 12:01:39.472345 32420 net.cpp:425] inception_4d/relu_pool_proj <- inception_4d/pool_proj
I0403 12:01:39.472363 32420 net.cpp:386] inception_4d/relu_pool_proj -> inception_4d/pool_proj (in-place)
I0403 12:01:39.472389 32420 net.cpp:141] Setting up inception_4d/relu_pool_proj
I0403 12:01:39.472417 32420 net.cpp:148] Top shape: 24 64 14 14 (301056)
I0403 12:01:39.472440 32420 net.cpp:156] Memory required for data: 1147309248
I0403 12:01:39.472497 32420 layer_factory.hpp:77] Creating layer inception_4d/output
I0403 12:01:39.472582 32420 net.cpp:91] Creating Layer inception_4d/output
I0403 12:01:39.472605 32420 net.cpp:425] inception_4d/output <- inception_4d/1x1
I0403 12:01:39.472623 32420 net.cpp:425] inception_4d/output <- inception_4d/3x3
I0403 12:01:39.472643 32420 net.cpp:425] inception_4d/output <- inception_4d/5x5
I0403 12:01:39.472661 32420 net.cpp:425] inception_4d/output <- inception_4d/pool_proj
I0403 12:01:39.472681 32420 net.cpp:399] inception_4d/output -> inception_4d/output
I0403 12:01:39.472736 32420 net.cpp:141] Setting up inception_4d/output
I0403 12:01:39.472761 32420 net.cpp:148] Top shape: 24 528 14 14 (2483712)
I0403 12:01:39.472779 32420 net.cpp:156] Memory required for data: 1157244096
I0403 12:01:39.472795 32420 layer_factory.hpp:77] Creating layer inception_4d/output_inception_4d/output_0_split
I0403 12:01:39.472812 32420 net.cpp:91] Creating Layer inception_4d/output_inception_4d/output_0_split
I0403 12:01:39.472841 32420 net.cpp:425] inception_4d/output_inception_4d/output_0_split <- inception_4d/output
I0403 12:01:39.472863 32420 net.cpp:399] inception_4d/output_inception_4d/output_0_split -> inception_4d/output_inception_4d/output_0_split_0
I0403 12:01:39.472885 32420 net.cpp:399] inception_4d/output_inception_4d/output_0_split -> inception_4d/output_inception_4d/output_0_split_1
I0403 12:01:39.472908 32420 net.cpp:399] inception_4d/output_inception_4d/output_0_split -> inception_4d/output_inception_4d/output_0_split_2
I0403 12:01:39.472930 32420 net.cpp:399] inception_4d/output_inception_4d/output_0_split -> inception_4d/output_inception_4d/output_0_split_3
I0403 12:01:39.472951 32420 net.cpp:399] inception_4d/output_inception_4d/output_0_split -> inception_4d/output_inception_4d/output_0_split_4
I0403 12:01:39.473050 32420 net.cpp:141] Setting up inception_4d/output_inception_4d/output_0_split
I0403 12:01:39.473074 32420 net.cpp:148] Top shape: 24 528 14 14 (2483712)
I0403 12:01:39.473091 32420 net.cpp:148] Top shape: 24 528 14 14 (2483712)
I0403 12:01:39.473109 32420 net.cpp:148] Top shape: 24 528 14 14 (2483712)
I0403 12:01:39.473124 32420 net.cpp:148] Top shape: 24 528 14 14 (2483712)
I0403 12:01:39.473139 32420 net.cpp:148] Top shape: 24 528 14 14 (2483712)
I0403 12:01:39.473152 32420 net.cpp:156] Memory required for data: 1206918336
I0403 12:01:39.473167 32420 layer_factory.hpp:77] Creating layer loss2/ave_pool
I0403 12:01:39.473192 32420 net.cpp:91] Creating Layer loss2/ave_pool
I0403 12:01:39.473212 32420 net.cpp:425] loss2/ave_pool <- inception_4d/output_inception_4d/output_0_split_0
I0403 12:01:39.473232 32420 net.cpp:399] loss2/ave_pool -> loss2/ave_pool
I0403 12:01:39.473273 32420 net.cpp:141] Setting up loss2/ave_pool
I0403 12:01:39.473297 32420 net.cpp:148] Top shape: 24 528 4 4 (202752)
I0403 12:01:39.473314 32420 net.cpp:156] Memory required for data: 1207729344
I0403 12:01:39.473328 32420 layer_factory.hpp:77] Creating layer loss2/conv
I0403 12:01:39.473351 32420 net.cpp:91] Creating Layer loss2/conv
I0403 12:01:39.473369 32420 net.cpp:425] loss2/conv <- loss2/ave_pool
I0403 12:01:39.473392 32420 net.cpp:399] loss2/conv -> loss2/conv
I0403 12:01:39.474519 32420 net.cpp:141] Setting up loss2/conv
I0403 12:01:39.474551 32420 net.cpp:148] Top shape: 24 128 4 4 (49152)
I0403 12:01:39.474568 32420 net.cpp:156] Memory required for data: 1207925952
I0403 12:01:39.474586 32420 layer_factory.hpp:77] Creating layer loss2/relu_conv
I0403 12:01:39.474606 32420 net.cpp:91] Creating Layer loss2/relu_conv
I0403 12:01:39.474623 32420 net.cpp:425] loss2/relu_conv <- loss2/conv
I0403 12:01:39.474642 32420 net.cpp:386] loss2/relu_conv -> loss2/conv (in-place)
I0403 12:01:39.474660 32420 net.cpp:141] Setting up loss2/relu_conv
I0403 12:01:39.474678 32420 net.cpp:148] Top shape: 24 128 4 4 (49152)
I0403 12:01:39.474692 32420 net.cpp:156] Memory required for data: 1208122560
I0403 12:01:39.474706 32420 layer_factory.hpp:77] Creating layer loss2/fc
I0403 12:01:39.474726 32420 net.cpp:91] Creating Layer loss2/fc
I0403 12:01:39.474743 32420 net.cpp:425] loss2/fc <- loss2/conv
I0403 12:01:39.474764 32420 net.cpp:399] loss2/fc -> loss2/fc
I0403 12:01:39.491891 32420 net.cpp:141] Setting up loss2/fc
I0403 12:01:39.491946 32420 net.cpp:148] Top shape: 24 1024 (24576)
I0403 12:01:39.491966 32420 net.cpp:156] Memory required for data: 1208220864
I0403 12:01:39.491987 32420 layer_factory.hpp:77] Creating layer loss2/relu_fc
I0403 12:01:39.492010 32420 net.cpp:91] Creating Layer loss2/relu_fc
I0403 12:01:39.492028 32420 net.cpp:425] loss2/relu_fc <- loss2/fc
I0403 12:01:39.492048 32420 net.cpp:386] loss2/relu_fc -> loss2/fc (in-place)
I0403 12:01:39.492069 32420 net.cpp:141] Setting up loss2/relu_fc
I0403 12:01:39.492087 32420 net.cpp:148] Top shape: 24 1024 (24576)
I0403 12:01:39.492103 32420 net.cpp:156] Memory required for data: 1208319168
I0403 12:01:39.492118 32420 layer_factory.hpp:77] Creating layer loss2/drop_fc
I0403 12:01:39.492139 32420 net.cpp:91] Creating Layer loss2/drop_fc
I0403 12:01:39.492156 32420 net.cpp:425] loss2/drop_fc <- loss2/fc
I0403 12:01:39.492179 32420 net.cpp:386] loss2/drop_fc -> loss2/fc (in-place)
I0403 12:01:39.492228 32420 net.cpp:141] Setting up loss2/drop_fc
I0403 12:01:39.492251 32420 net.cpp:148] Top shape: 24 1024 (24576)
I0403 12:01:39.492267 32420 net.cpp:156] Memory required for data: 1208417472
I0403 12:01:39.492281 32420 layer_factory.hpp:77] Creating layer loss2/classifier_plantvillage
I0403 12:01:39.492300 32420 net.cpp:91] Creating Layer loss2/classifier_plantvillage
I0403 12:01:39.492317 32420 net.cpp:425] loss2/classifier_plantvillage <- loss2/fc
I0403 12:01:39.492338 32420 net.cpp:399] loss2/classifier_plantvillage -> loss2/classifier_plantvillage
I0403 12:01:39.492699 32420 net.cpp:141] Setting up loss2/classifier_plantvillage
I0403 12:01:39.492727 32420 net.cpp:148] Top shape: 24 38 (912)
I0403 12:01:39.492743 32420 net.cpp:156] Memory required for data: 1208421120
I0403 12:01:39.492760 32420 layer_factory.hpp:77] Creating layer loss2/classifier_plantvillage_loss2/classifier_plantvillage_0_split
I0403 12:01:39.492782 32420 net.cpp:91] Creating Layer loss2/classifier_plantvillage_loss2/classifier_plantvillage_0_split
I0403 12:01:39.492800 32420 net.cpp:425] loss2/classifier_plantvillage_loss2/classifier_plantvillage_0_split <- loss2/classifier_plantvillage
I0403 12:01:39.492818 32420 net.cpp:399] loss2/classifier_plantvillage_loss2/classifier_plantvillage_0_split -> loss2/classifier_plantvillage_loss2/classifier_plantvillage_0_split_0
I0403 12:01:39.492843 32420 net.cpp:399] loss2/classifier_plantvillage_loss2/classifier_plantvillage_0_split -> loss2/classifier_plantvillage_loss2/classifier_plantvillage_0_split_1
I0403 12:01:39.492866 32420 net.cpp:399] loss2/classifier_plantvillage_loss2/classifier_plantvillage_0_split -> loss2/classifier_plantvillage_loss2/classifier_plantvillage_0_split_2
I0403 12:01:39.492936 32420 net.cpp:141] Setting up loss2/classifier_plantvillage_loss2/classifier_plantvillage_0_split
I0403 12:01:39.492960 32420 net.cpp:148] Top shape: 24 38 (912)
I0403 12:01:39.492976 32420 net.cpp:148] Top shape: 24 38 (912)
I0403 12:01:39.492992 32420 net.cpp:148] Top shape: 24 38 (912)
I0403 12:01:39.493007 32420 net.cpp:156] Memory required for data: 1208432064
I0403 12:01:39.493021 32420 layer_factory.hpp:77] Creating layer inception_4e/1x1
I0403 12:01:39.493046 32420 net.cpp:91] Creating Layer inception_4e/1x1
I0403 12:01:39.493067 32420 net.cpp:425] inception_4e/1x1 <- inception_4d/output_inception_4d/output_0_split_1
I0403 12:01:39.493088 32420 net.cpp:399] inception_4e/1x1 -> inception_4e/1x1
I0403 12:01:39.494097 32420 net.cpp:141] Setting up inception_4e/1x1
I0403 12:01:39.494123 32420 net.cpp:148] Top shape: 24 256 14 14 (1204224)
I0403 12:01:39.494140 32420 net.cpp:156] Memory required for data: 1213248960
I0403 12:01:39.494158 32420 layer_factory.hpp:77] Creating layer inception_4e/relu_1x1
I0403 12:01:39.494184 32420 net.cpp:91] Creating Layer inception_4e/relu_1x1
I0403 12:01:39.494202 32420 net.cpp:425] inception_4e/relu_1x1 <- inception_4e/1x1
I0403 12:01:39.494221 32420 net.cpp:386] inception_4e/relu_1x1 -> inception_4e/1x1 (in-place)
I0403 12:01:39.494266 32420 net.cpp:141] Setting up inception_4e/relu_1x1
I0403 12:01:39.494285 32420 net.cpp:148] Top shape: 24 256 14 14 (1204224)
I0403 12:01:39.494300 32420 net.cpp:156] Memory required for data: 1218065856
I0403 12:01:39.494315 32420 layer_factory.hpp:77] Creating layer inception_4e/3x3_reduce
I0403 12:01:39.494338 32420 net.cpp:91] Creating Layer inception_4e/3x3_reduce
I0403 12:01:39.494357 32420 net.cpp:425] inception_4e/3x3_reduce <- inception_4d/output_inception_4d/output_0_split_2
I0403 12:01:39.494377 32420 net.cpp:399] inception_4e/3x3_reduce -> inception_4e/3x3_reduce
I0403 12:01:39.495654 32420 net.cpp:141] Setting up inception_4e/3x3_reduce
I0403 12:01:39.495695 32420 net.cpp:148] Top shape: 24 160 14 14 (752640)
I0403 12:01:39.495712 32420 net.cpp:156] Memory required for data: 1221076416
I0403 12:01:39.495731 32420 layer_factory.hpp:77] Creating layer inception_4e/relu_3x3_reduce
I0403 12:01:39.495753 32420 net.cpp:91] Creating Layer inception_4e/relu_3x3_reduce
I0403 12:01:39.495769 32420 net.cpp:425] inception_4e/relu_3x3_reduce <- inception_4e/3x3_reduce
I0403 12:01:39.495790 32420 net.cpp:386] inception_4e/relu_3x3_reduce -> inception_4e/3x3_reduce (in-place)
I0403 12:01:39.495811 32420 net.cpp:141] Setting up inception_4e/relu_3x3_reduce
I0403 12:01:39.495831 32420 net.cpp:148] Top shape: 24 160 14 14 (752640)
I0403 12:01:39.495846 32420 net.cpp:156] Memory required for data: 1224086976
I0403 12:01:39.495859 32420 layer_factory.hpp:77] Creating layer inception_4e/3x3
I0403 12:01:39.495883 32420 net.cpp:91] Creating Layer inception_4e/3x3
I0403 12:01:39.495901 32420 net.cpp:425] inception_4e/3x3 <- inception_4e/3x3_reduce
I0403 12:01:39.495921 32420 net.cpp:399] inception_4e/3x3 -> inception_4e/3x3
I0403 12:01:39.499858 32420 net.cpp:141] Setting up inception_4e/3x3
I0403 12:01:39.499888 32420 net.cpp:148] Top shape: 24 320 14 14 (1505280)
I0403 12:01:39.499903 32420 net.cpp:156] Memory required for data: 1230108096
I0403 12:01:39.499922 32420 layer_factory.hpp:77] Creating layer inception_4e/relu_3x3
I0403 12:01:39.499939 32420 net.cpp:91] Creating Layer inception_4e/relu_3x3
I0403 12:01:39.499956 32420 net.cpp:425] inception_4e/relu_3x3 <- inception_4e/3x3
I0403 12:01:39.499974 32420 net.cpp:386] inception_4e/relu_3x3 -> inception_4e/3x3 (in-place)
I0403 12:01:39.499994 32420 net.cpp:141] Setting up inception_4e/relu_3x3
I0403 12:01:39.500010 32420 net.cpp:148] Top shape: 24 320 14 14 (1505280)
I0403 12:01:39.500025 32420 net.cpp:156] Memory required for data: 1236129216
I0403 12:01:39.500038 32420 layer_factory.hpp:77] Creating layer inception_4e/5x5_reduce
I0403 12:01:39.500063 32420 net.cpp:91] Creating Layer inception_4e/5x5_reduce
I0403 12:01:39.500082 32420 net.cpp:425] inception_4e/5x5_reduce <- inception_4d/output_inception_4d/output_0_split_3
I0403 12:01:39.500104 32420 net.cpp:399] inception_4e/5x5_reduce -> inception_4e/5x5_reduce
I0403 12:01:39.500931 32420 net.cpp:141] Setting up inception_4e/5x5_reduce
I0403 12:01:39.500958 32420 net.cpp:148] Top shape: 24 32 14 14 (150528)
I0403 12:01:39.500974 32420 net.cpp:156] Memory required for data: 1236731328
I0403 12:01:39.500993 32420 layer_factory.hpp:77] Creating layer inception_4e/relu_5x5_reduce
I0403 12:01:39.501013 32420 net.cpp:91] Creating Layer inception_4e/relu_5x5_reduce
I0403 12:01:39.501030 32420 net.cpp:425] inception_4e/relu_5x5_reduce <- inception_4e/5x5_reduce
I0403 12:01:39.501049 32420 net.cpp:386] inception_4e/relu_5x5_reduce -> inception_4e/5x5_reduce (in-place)
I0403 12:01:39.501077 32420 net.cpp:141] Setting up inception_4e/relu_5x5_reduce
I0403 12:01:39.501101 32420 net.cpp:148] Top shape: 24 32 14 14 (150528)
I0403 12:01:39.501114 32420 net.cpp:156] Memory required for data: 1237333440
I0403 12:01:39.501128 32420 layer_factory.hpp:77] Creating layer inception_4e/5x5
I0403 12:01:39.501170 32420 net.cpp:91] Creating Layer inception_4e/5x5
I0403 12:01:39.501194 32420 net.cpp:425] inception_4e/5x5 <- inception_4e/5x5_reduce
I0403 12:01:39.501215 32420 net.cpp:399] inception_4e/5x5 -> inception_4e/5x5
I0403 12:01:39.501976 32420 net.cpp:141] Setting up inception_4e/5x5
I0403 12:01:39.502002 32420 net.cpp:148] Top shape: 24 128 14 14 (602112)
I0403 12:01:39.502017 32420 net.cpp:156] Memory required for data: 1239741888
I0403 12:01:39.502035 32420 layer_factory.hpp:77] Creating layer inception_4e/relu_5x5
I0403 12:01:39.502053 32420 net.cpp:91] Creating Layer inception_4e/relu_5x5
I0403 12:01:39.502071 32420 net.cpp:425] inception_4e/relu_5x5 <- inception_4e/5x5
I0403 12:01:39.502089 32420 net.cpp:386] inception_4e/relu_5x5 -> inception_4e/5x5 (in-place)
I0403 12:01:39.502106 32420 net.cpp:141] Setting up inception_4e/relu_5x5
I0403 12:01:39.502122 32420 net.cpp:148] Top shape: 24 128 14 14 (602112)
I0403 12:01:39.502136 32420 net.cpp:156] Memory required for data: 1242150336
I0403 12:01:39.502151 32420 layer_factory.hpp:77] Creating layer inception_4e/pool
I0403 12:01:39.502169 32420 net.cpp:91] Creating Layer inception_4e/pool
I0403 12:01:39.502189 32420 net.cpp:425] inception_4e/pool <- inception_4d/output_inception_4d/output_0_split_4
I0403 12:01:39.502210 32420 net.cpp:399] inception_4e/pool -> inception_4e/pool
I0403 12:01:39.502264 32420 net.cpp:141] Setting up inception_4e/pool
I0403 12:01:39.502288 32420 net.cpp:148] Top shape: 24 528 14 14 (2483712)
I0403 12:01:39.502302 32420 net.cpp:156] Memory required for data: 1252085184
I0403 12:01:39.502317 32420 layer_factory.hpp:77] Creating layer inception_4e/pool_proj
I0403 12:01:39.502341 32420 net.cpp:91] Creating Layer inception_4e/pool_proj
I0403 12:01:39.502359 32420 net.cpp:425] inception_4e/pool_proj <- inception_4e/pool
I0403 12:01:39.502377 32420 net.cpp:399] inception_4e/pool_proj -> inception_4e/pool_proj
I0403 12:01:39.502940 32420 net.cpp:141] Setting up inception_4e/pool_proj
I0403 12:01:39.502966 32420 net.cpp:148] Top shape: 24 128 14 14 (602112)
I0403 12:01:39.502980 32420 net.cpp:156] Memory required for data: 1254493632
I0403 12:01:39.502997 32420 layer_factory.hpp:77] Creating layer inception_4e/relu_pool_proj
I0403 12:01:39.503015 32420 net.cpp:91] Creating Layer inception_4e/relu_pool_proj
I0403 12:01:39.503031 32420 net.cpp:425] inception_4e/relu_pool_proj <- inception_4e/pool_proj
I0403 12:01:39.503048 32420 net.cpp:386] inception_4e/relu_pool_proj -> inception_4e/pool_proj (in-place)
I0403 12:01:39.503067 32420 net.cpp:141] Setting up inception_4e/relu_pool_proj
I0403 12:01:39.503087 32420 net.cpp:148] Top shape: 24 128 14 14 (602112)
I0403 12:01:39.503103 32420 net.cpp:156] Memory required for data: 1256902080
I0403 12:01:39.503118 32420 layer_factory.hpp:77] Creating layer inception_4e/output
I0403 12:01:39.503135 32420 net.cpp:91] Creating Layer inception_4e/output
I0403 12:01:39.503149 32420 net.cpp:425] inception_4e/output <- inception_4e/1x1
I0403 12:01:39.503165 32420 net.cpp:425] inception_4e/output <- inception_4e/3x3
I0403 12:01:39.503185 32420 net.cpp:425] inception_4e/output <- inception_4e/5x5
I0403 12:01:39.503203 32420 net.cpp:425] inception_4e/output <- inception_4e/pool_proj
I0403 12:01:39.503232 32420 net.cpp:399] inception_4e/output -> inception_4e/output
I0403 12:01:39.503273 32420 net.cpp:141] Setting up inception_4e/output
I0403 12:01:39.503295 32420 net.cpp:148] Top shape: 24 832 14 14 (3913728)
I0403 12:01:39.503310 32420 net.cpp:156] Memory required for data: 1272556992
I0403 12:01:39.503324 32420 layer_factory.hpp:77] Creating layer pool4/3x3_s2
I0403 12:01:39.503342 32420 net.cpp:91] Creating Layer pool4/3x3_s2
I0403 12:01:39.503358 32420 net.cpp:425] pool4/3x3_s2 <- inception_4e/output
I0403 12:01:39.503377 32420 net.cpp:399] pool4/3x3_s2 -> pool4/3x3_s2
I0403 12:01:39.503425 32420 net.cpp:141] Setting up pool4/3x3_s2
I0403 12:01:39.503450 32420 net.cpp:148] Top shape: 24 832 7 7 (978432)
I0403 12:01:39.503466 32420 net.cpp:156] Memory required for data: 1276470720
I0403 12:01:39.503480 32420 layer_factory.hpp:77] Creating layer pool4/3x3_s2_pool4/3x3_s2_0_split
I0403 12:01:39.503499 32420 net.cpp:91] Creating Layer pool4/3x3_s2_pool4/3x3_s2_0_split
I0403 12:01:39.503514 32420 net.cpp:425] pool4/3x3_s2_pool4/3x3_s2_0_split <- pool4/3x3_s2
I0403 12:01:39.503546 32420 net.cpp:399] pool4/3x3_s2_pool4/3x3_s2_0_split -> pool4/3x3_s2_pool4/3x3_s2_0_split_0
I0403 12:01:39.503567 32420 net.cpp:399] pool4/3x3_s2_pool4/3x3_s2_0_split -> pool4/3x3_s2_pool4/3x3_s2_0_split_1
I0403 12:01:39.503587 32420 net.cpp:399] pool4/3x3_s2_pool4/3x3_s2_0_split -> pool4/3x3_s2_pool4/3x3_s2_0_split_2
I0403 12:01:39.503608 32420 net.cpp:399] pool4/3x3_s2_pool4/3x3_s2_0_split -> pool4/3x3_s2_pool4/3x3_s2_0_split_3
I0403 12:01:39.503675 32420 net.cpp:141] Setting up pool4/3x3_s2_pool4/3x3_s2_0_split
I0403 12:01:39.503700 32420 net.cpp:148] Top shape: 24 832 7 7 (978432)
I0403 12:01:39.503715 32420 net.cpp:148] Top shape: 24 832 7 7 (978432)
I0403 12:01:39.503729 32420 net.cpp:148] Top shape: 24 832 7 7 (978432)
I0403 12:01:39.503744 32420 net.cpp:148] Top shape: 24 832 7 7 (978432)
I0403 12:01:39.503757 32420 net.cpp:156] Memory required for data: 1292125632
I0403 12:01:39.503772 32420 layer_factory.hpp:77] Creating layer inception_5a/1x1
I0403 12:01:39.503798 32420 net.cpp:91] Creating Layer inception_5a/1x1
I0403 12:01:39.503815 32420 net.cpp:425] inception_5a/1x1 <- pool4/3x3_s2_pool4/3x3_s2_0_split_0
I0403 12:01:39.503836 32420 net.cpp:399] inception_5a/1x1 -> inception_5a/1x1
I0403 12:01:39.505671 32420 net.cpp:141] Setting up inception_5a/1x1
I0403 12:01:39.505700 32420 net.cpp:148] Top shape: 24 256 7 7 (301056)
I0403 12:01:39.505717 32420 net.cpp:156] Memory required for data: 1293329856
I0403 12:01:39.505735 32420 layer_factory.hpp:77] Creating layer inception_5a/relu_1x1
I0403 12:01:39.505755 32420 net.cpp:91] Creating Layer inception_5a/relu_1x1
I0403 12:01:39.505772 32420 net.cpp:425] inception_5a/relu_1x1 <- inception_5a/1x1
I0403 12:01:39.505790 32420 net.cpp:386] inception_5a/relu_1x1 -> inception_5a/1x1 (in-place)
I0403 12:01:39.505810 32420 net.cpp:141] Setting up inception_5a/relu_1x1
I0403 12:01:39.505826 32420 net.cpp:148] Top shape: 24 256 7 7 (301056)
I0403 12:01:39.505841 32420 net.cpp:156] Memory required for data: 1294534080
I0403 12:01:39.505854 32420 layer_factory.hpp:77] Creating layer inception_5a/3x3_reduce
I0403 12:01:39.505877 32420 net.cpp:91] Creating Layer inception_5a/3x3_reduce
I0403 12:01:39.505894 32420 net.cpp:425] inception_5a/3x3_reduce <- pool4/3x3_s2_pool4/3x3_s2_0_split_1
I0403 12:01:39.505913 32420 net.cpp:399] inception_5a/3x3_reduce -> inception_5a/3x3_reduce
I0403 12:01:39.507354 32420 net.cpp:141] Setting up inception_5a/3x3_reduce
I0403 12:01:39.507382 32420 net.cpp:148] Top shape: 24 160 7 7 (188160)
I0403 12:01:39.507400 32420 net.cpp:156] Memory required for data: 1295286720
I0403 12:01:39.507416 32420 layer_factory.hpp:77] Creating layer inception_5a/relu_3x3_reduce
I0403 12:01:39.507437 32420 net.cpp:91] Creating Layer inception_5a/relu_3x3_reduce
I0403 12:01:39.507455 32420 net.cpp:425] inception_5a/relu_3x3_reduce <- inception_5a/3x3_reduce
I0403 12:01:39.507472 32420 net.cpp:386] inception_5a/relu_3x3_reduce -> inception_5a/3x3_reduce (in-place)
I0403 12:01:39.507493 32420 net.cpp:141] Setting up inception_5a/relu_3x3_reduce
I0403 12:01:39.507510 32420 net.cpp:148] Top shape: 24 160 7 7 (188160)
I0403 12:01:39.507524 32420 net.cpp:156] Memory required for data: 1296039360
I0403 12:01:39.507539 32420 layer_factory.hpp:77] Creating layer inception_5a/3x3
I0403 12:01:39.507561 32420 net.cpp:91] Creating Layer inception_5a/3x3
I0403 12:01:39.507580 32420 net.cpp:425] inception_5a/3x3 <- inception_5a/3x3_reduce
I0403 12:01:39.507598 32420 net.cpp:399] inception_5a/3x3 -> inception_5a/3x3
I0403 12:01:39.511234 32420 net.cpp:141] Setting up inception_5a/3x3
I0403 12:01:39.511262 32420 net.cpp:148] Top shape: 24 320 7 7 (376320)
I0403 12:01:39.511278 32420 net.cpp:156] Memory required for data: 1297544640
I0403 12:01:39.511296 32420 layer_factory.hpp:77] Creating layer inception_5a/relu_3x3
I0403 12:01:39.511314 32420 net.cpp:91] Creating Layer inception_5a/relu_3x3
I0403 12:01:39.511332 32420 net.cpp:425] inception_5a/relu_3x3 <- inception_5a/3x3
I0403 12:01:39.511353 32420 net.cpp:386] inception_5a/relu_3x3 -> inception_5a/3x3 (in-place)
I0403 12:01:39.511389 32420 net.cpp:141] Setting up inception_5a/relu_3x3
I0403 12:01:39.511407 32420 net.cpp:148] Top shape: 24 320 7 7 (376320)
I0403 12:01:39.511421 32420 net.cpp:156] Memory required for data: 1299049920
I0403 12:01:39.511435 32420 layer_factory.hpp:77] Creating layer inception_5a/5x5_reduce
I0403 12:01:39.511457 32420 net.cpp:91] Creating Layer inception_5a/5x5_reduce
I0403 12:01:39.511476 32420 net.cpp:425] inception_5a/5x5_reduce <- pool4/3x3_s2_pool4/3x3_s2_0_split_2
I0403 12:01:39.511494 32420 net.cpp:399] inception_5a/5x5_reduce -> inception_5a/5x5_reduce
I0403 12:01:39.511862 32420 net.cpp:141] Setting up inception_5a/5x5_reduce
I0403 12:01:39.511888 32420 net.cpp:148] Top shape: 24 32 7 7 (37632)
I0403 12:01:39.511901 32420 net.cpp:156] Memory required for data: 1299200448
I0403 12:01:39.511919 32420 layer_factory.hpp:77] Creating layer inception_5a/relu_5x5_reduce
I0403 12:01:39.511940 32420 net.cpp:91] Creating Layer inception_5a/relu_5x5_reduce
I0403 12:01:39.511956 32420 net.cpp:425] inception_5a/relu_5x5_reduce <- inception_5a/5x5_reduce
I0403 12:01:39.511976 32420 net.cpp:386] inception_5a/relu_5x5_reduce -> inception_5a/5x5_reduce (in-place)
I0403 12:01:39.511994 32420 net.cpp:141] Setting up inception_5a/relu_5x5_reduce
I0403 12:01:39.512012 32420 net.cpp:148] Top shape: 24 32 7 7 (37632)
I0403 12:01:39.512025 32420 net.cpp:156] Memory required for data: 1299350976
I0403 12:01:39.512040 32420 layer_factory.hpp:77] Creating layer inception_5a/5x5
I0403 12:01:39.512064 32420 net.cpp:91] Creating Layer inception_5a/5x5
I0403 12:01:39.512084 32420 net.cpp:425] inception_5a/5x5 <- inception_5a/5x5_reduce
I0403 12:01:39.512101 32420 net.cpp:399] inception_5a/5x5 -> inception_5a/5x5
I0403 12:01:39.512862 32420 net.cpp:141] Setting up inception_5a/5x5
I0403 12:01:39.512890 32420 net.cpp:148] Top shape: 24 128 7 7 (150528)
I0403 12:01:39.512908 32420 net.cpp:156] Memory required for data: 1299953088
I0403 12:01:39.512930 32420 layer_factory.hpp:77] Creating layer inception_5a/relu_5x5
I0403 12:01:39.512950 32420 net.cpp:91] Creating Layer inception_5a/relu_5x5
I0403 12:01:39.512967 32420 net.cpp:425] inception_5a/relu_5x5 <- inception_5a/5x5
I0403 12:01:39.512985 32420 net.cpp:386] inception_5a/relu_5x5 -> inception_5a/5x5 (in-place)
I0403 12:01:39.513005 32420 net.cpp:141] Setting up inception_5a/relu_5x5
I0403 12:01:39.513020 32420 net.cpp:148] Top shape: 24 128 7 7 (150528)
I0403 12:01:39.513034 32420 net.cpp:156] Memory required for data: 1300555200
I0403 12:01:39.513049 32420 layer_factory.hpp:77] Creating layer inception_5a/pool
I0403 12:01:39.513068 32420 net.cpp:91] Creating Layer inception_5a/pool
I0403 12:01:39.513085 32420 net.cpp:425] inception_5a/pool <- pool4/3x3_s2_pool4/3x3_s2_0_split_3
I0403 12:01:39.513103 32420 net.cpp:399] inception_5a/pool -> inception_5a/pool
I0403 12:01:39.513155 32420 net.cpp:141] Setting up inception_5a/pool
I0403 12:01:39.513197 32420 net.cpp:148] Top shape: 24 832 7 7 (978432)
I0403 12:01:39.513214 32420 net.cpp:156] Memory required for data: 1304468928
I0403 12:01:39.513237 32420 layer_factory.hpp:77] Creating layer inception_5a/pool_proj
I0403 12:01:39.513260 32420 net.cpp:91] Creating Layer inception_5a/pool_proj
I0403 12:01:39.513279 32420 net.cpp:425] inception_5a/pool_proj <- inception_5a/pool
I0403 12:01:39.513299 32420 net.cpp:399] inception_5a/pool_proj -> inception_5a/pool_proj
I0403 12:01:39.514619 32420 net.cpp:141] Setting up inception_5a/pool_proj
I0403 12:01:39.514648 32420 net.cpp:148] Top shape: 24 128 7 7 (150528)
I0403 12:01:39.514664 32420 net.cpp:156] Memory required for data: 1305071040
I0403 12:01:39.514683 32420 layer_factory.hpp:77] Creating layer inception_5a/relu_pool_proj
I0403 12:01:39.514704 32420 net.cpp:91] Creating Layer inception_5a/relu_pool_proj
I0403 12:01:39.514724 32420 net.cpp:425] inception_5a/relu_pool_proj <- inception_5a/pool_proj
I0403 12:01:39.514742 32420 net.cpp:386] inception_5a/relu_pool_proj -> inception_5a/pool_proj (in-place)
I0403 12:01:39.514761 32420 net.cpp:141] Setting up inception_5a/relu_pool_proj
I0403 12:01:39.514793 32420 net.cpp:148] Top shape: 24 128 7 7 (150528)
I0403 12:01:39.514809 32420 net.cpp:156] Memory required for data: 1305673152
I0403 12:01:39.514824 32420 layer_factory.hpp:77] Creating layer inception_5a/output
I0403 12:01:39.514845 32420 net.cpp:91] Creating Layer inception_5a/output
I0403 12:01:39.514861 32420 net.cpp:425] inception_5a/output <- inception_5a/1x1
I0403 12:01:39.514878 32420 net.cpp:425] inception_5a/output <- inception_5a/3x3
I0403 12:01:39.514894 32420 net.cpp:425] inception_5a/output <- inception_5a/5x5
I0403 12:01:39.514910 32420 net.cpp:425] inception_5a/output <- inception_5a/pool_proj
I0403 12:01:39.514928 32420 net.cpp:399] inception_5a/output -> inception_5a/output
I0403 12:01:39.514967 32420 net.cpp:141] Setting up inception_5a/output
I0403 12:01:39.514993 32420 net.cpp:148] Top shape: 24 832 7 7 (978432)
I0403 12:01:39.515008 32420 net.cpp:156] Memory required for data: 1309586880
I0403 12:01:39.515023 32420 layer_factory.hpp:77] Creating layer inception_5a/output_inception_5a/output_0_split
I0403 12:01:39.515041 32420 net.cpp:91] Creating Layer inception_5a/output_inception_5a/output_0_split
I0403 12:01:39.515058 32420 net.cpp:425] inception_5a/output_inception_5a/output_0_split <- inception_5a/output
I0403 12:01:39.515079 32420 net.cpp:399] inception_5a/output_inception_5a/output_0_split -> inception_5a/output_inception_5a/output_0_split_0
I0403 12:01:39.515100 32420 net.cpp:399] inception_5a/output_inception_5a/output_0_split -> inception_5a/output_inception_5a/output_0_split_1
I0403 12:01:39.515120 32420 net.cpp:399] inception_5a/output_inception_5a/output_0_split -> inception_5a/output_inception_5a/output_0_split_2
I0403 12:01:39.515141 32420 net.cpp:399] inception_5a/output_inception_5a/output_0_split -> inception_5a/output_inception_5a/output_0_split_3
I0403 12:01:39.515213 32420 net.cpp:141] Setting up inception_5a/output_inception_5a/output_0_split
I0403 12:01:39.515240 32420 net.cpp:148] Top shape: 24 832 7 7 (978432)
I0403 12:01:39.515259 32420 net.cpp:148] Top shape: 24 832 7 7 (978432)
I0403 12:01:39.515275 32420 net.cpp:148] Top shape: 24 832 7 7 (978432)
I0403 12:01:39.515290 32420 net.cpp:148] Top shape: 24 832 7 7 (978432)
I0403 12:01:39.515302 32420 net.cpp:156] Memory required for data: 1325241792
I0403 12:01:39.515316 32420 layer_factory.hpp:77] Creating layer inception_5b/1x1
I0403 12:01:39.515338 32420 net.cpp:91] Creating Layer inception_5b/1x1
I0403 12:01:39.515357 32420 net.cpp:425] inception_5b/1x1 <- inception_5a/output_inception_5a/output_0_split_0
I0403 12:01:39.515379 32420 net.cpp:399] inception_5b/1x1 -> inception_5b/1x1
I0403 12:01:39.517945 32420 net.cpp:141] Setting up inception_5b/1x1
I0403 12:01:39.517974 32420 net.cpp:148] Top shape: 24 384 7 7 (451584)
I0403 12:01:39.517992 32420 net.cpp:156] Memory required for data: 1327048128
I0403 12:01:39.518009 32420 layer_factory.hpp:77] Creating layer inception_5b/relu_1x1
I0403 12:01:39.518028 32420 net.cpp:91] Creating Layer inception_5b/relu_1x1
I0403 12:01:39.518045 32420 net.cpp:425] inception_5b/relu_1x1 <- inception_5b/1x1
I0403 12:01:39.518064 32420 net.cpp:386] inception_5b/relu_1x1 -> inception_5b/1x1 (in-place)
I0403 12:01:39.518082 32420 net.cpp:141] Setting up inception_5b/relu_1x1
I0403 12:01:39.518101 32420 net.cpp:148] Top shape: 24 384 7 7 (451584)
I0403 12:01:39.518116 32420 net.cpp:156] Memory required for data: 1328854464
I0403 12:01:39.518131 32420 layer_factory.hpp:77] Creating layer inception_5b/3x3_reduce
I0403 12:01:39.518153 32420 net.cpp:91] Creating Layer inception_5b/3x3_reduce
I0403 12:01:39.518172 32420 net.cpp:425] inception_5b/3x3_reduce <- inception_5a/output_inception_5a/output_0_split_1
I0403 12:01:39.518203 32420 net.cpp:399] inception_5b/3x3_reduce -> inception_5b/3x3_reduce
I0403 12:01:39.519831 32420 net.cpp:141] Setting up inception_5b/3x3_reduce
I0403 12:01:39.519861 32420 net.cpp:148] Top shape: 24 192 7 7 (225792)
I0403 12:01:39.519876 32420 net.cpp:156] Memory required for data: 1329757632
I0403 12:01:39.519896 32420 layer_factory.hpp:77] Creating layer inception_5b/relu_3x3_reduce
I0403 12:01:39.519928 32420 net.cpp:91] Creating Layer inception_5b/relu_3x3_reduce
I0403 12:01:39.519947 32420 net.cpp:425] inception_5b/relu_3x3_reduce <- inception_5b/3x3_reduce
I0403 12:01:39.519964 32420 net.cpp:386] inception_5b/relu_3x3_reduce -> inception_5b/3x3_reduce (in-place)
I0403 12:01:39.519984 32420 net.cpp:141] Setting up inception_5b/relu_3x3_reduce
I0403 12:01:39.520001 32420 net.cpp:148] Top shape: 24 192 7 7 (225792)
I0403 12:01:39.520015 32420 net.cpp:156] Memory required for data: 1330660800
I0403 12:01:39.520030 32420 layer_factory.hpp:77] Creating layer inception_5b/3x3
I0403 12:01:39.520053 32420 net.cpp:91] Creating Layer inception_5b/3x3
I0403 12:01:39.520071 32420 net.cpp:425] inception_5b/3x3 <- inception_5b/3x3_reduce
I0403 12:01:39.520093 32420 net.cpp:399] inception_5b/3x3 -> inception_5b/3x3
I0403 12:01:39.525353 32420 net.cpp:141] Setting up inception_5b/3x3
I0403 12:01:39.525382 32420 net.cpp:148] Top shape: 24 384 7 7 (451584)
I0403 12:01:39.525399 32420 net.cpp:156] Memory required for data: 1332467136
I0403 12:01:39.525418 32420 layer_factory.hpp:77] Creating layer inception_5b/relu_3x3
I0403 12:01:39.525436 32420 net.cpp:91] Creating Layer inception_5b/relu_3x3
I0403 12:01:39.525454 32420 net.cpp:425] inception_5b/relu_3x3 <- inception_5b/3x3
I0403 12:01:39.525475 32420 net.cpp:386] inception_5b/relu_3x3 -> inception_5b/3x3 (in-place)
I0403 12:01:39.525496 32420 net.cpp:141] Setting up inception_5b/relu_3x3
I0403 12:01:39.525512 32420 net.cpp:148] Top shape: 24 384 7 7 (451584)
I0403 12:01:39.525528 32420 net.cpp:156] Memory required for data: 1334273472
I0403 12:01:39.525543 32420 layer_factory.hpp:77] Creating layer inception_5b/5x5_reduce
I0403 12:01:39.525566 32420 net.cpp:91] Creating Layer inception_5b/5x5_reduce
I0403 12:01:39.525584 32420 net.cpp:425] inception_5b/5x5_reduce <- inception_5a/output_inception_5a/output_0_split_2
I0403 12:01:39.525604 32420 net.cpp:399] inception_5b/5x5_reduce -> inception_5b/5x5_reduce
I0403 12:01:39.526602 32420 net.cpp:141] Setting up inception_5b/5x5_reduce
I0403 12:01:39.526630 32420 net.cpp:148] Top shape: 24 48 7 7 (56448)
I0403 12:01:39.526648 32420 net.cpp:156] Memory required for data: 1334499264
I0403 12:01:39.526665 32420 layer_factory.hpp:77] Creating layer inception_5b/relu_5x5_reduce
I0403 12:01:39.526685 32420 net.cpp:91] Creating Layer inception_5b/relu_5x5_reduce
I0403 12:01:39.526702 32420 net.cpp:425] inception_5b/relu_5x5_reduce <- inception_5b/5x5_reduce
I0403 12:01:39.526723 32420 net.cpp:386] inception_5b/relu_5x5_reduce -> inception_5b/5x5_reduce (in-place)
I0403 12:01:39.526744 32420 net.cpp:141] Setting up inception_5b/relu_5x5_reduce
I0403 12:01:39.526762 32420 net.cpp:148] Top shape: 24 48 7 7 (56448)
I0403 12:01:39.526777 32420 net.cpp:156] Memory required for data: 1334725056
I0403 12:01:39.526793 32420 layer_factory.hpp:77] Creating layer inception_5b/5x5
I0403 12:01:39.526815 32420 net.cpp:91] Creating Layer inception_5b/5x5
I0403 12:01:39.526834 32420 net.cpp:425] inception_5b/5x5 <- inception_5b/5x5_reduce
I0403 12:01:39.526854 32420 net.cpp:399] inception_5b/5x5 -> inception_5b/5x5
I0403 12:01:39.528033 32420 net.cpp:141] Setting up inception_5b/5x5
I0403 12:01:39.528059 32420 net.cpp:148] Top shape: 24 128 7 7 (150528)
I0403 12:01:39.528084 32420 net.cpp:156] Memory required for data: 1335327168
I0403 12:01:39.528111 32420 layer_factory.hpp:77] Creating layer inception_5b/relu_5x5
I0403 12:01:39.528129 32420 net.cpp:91] Creating Layer inception_5b/relu_5x5
I0403 12:01:39.528146 32420 net.cpp:425] inception_5b/relu_5x5 <- inception_5b/5x5
I0403 12:01:39.528167 32420 net.cpp:386] inception_5b/relu_5x5 -> inception_5b/5x5 (in-place)
I0403 12:01:39.528192 32420 net.cpp:141] Setting up inception_5b/relu_5x5
I0403 12:01:39.528213 32420 net.cpp:148] Top shape: 24 128 7 7 (150528)
I0403 12:01:39.528228 32420 net.cpp:156] Memory required for data: 1335929280
I0403 12:01:39.528242 32420 layer_factory.hpp:77] Creating layer inception_5b/pool
I0403 12:01:39.528278 32420 net.cpp:91] Creating Layer inception_5b/pool
I0403 12:01:39.528296 32420 net.cpp:425] inception_5b/pool <- inception_5a/output_inception_5a/output_0_split_3
I0403 12:01:39.528316 32420 net.cpp:399] inception_5b/pool -> inception_5b/pool
I0403 12:01:39.528373 32420 net.cpp:141] Setting up inception_5b/pool
I0403 12:01:39.528398 32420 net.cpp:148] Top shape: 24 832 7 7 (978432)
I0403 12:01:39.528414 32420 net.cpp:156] Memory required for data: 1339843008
I0403 12:01:39.528429 32420 layer_factory.hpp:77] Creating layer inception_5b/pool_proj
I0403 12:01:39.528451 32420 net.cpp:91] Creating Layer inception_5b/pool_proj
I0403 12:01:39.528470 32420 net.cpp:425] inception_5b/pool_proj <- inception_5b/pool
I0403 12:01:39.528491 32420 net.cpp:399] inception_5b/pool_proj -> inception_5b/pool_proj
I0403 12:01:39.529819 32420 net.cpp:141] Setting up inception_5b/pool_proj
I0403 12:01:39.529849 32420 net.cpp:148] Top shape: 24 128 7 7 (150528)
I0403 12:01:39.529865 32420 net.cpp:156] Memory required for data: 1340445120
I0403 12:01:39.529881 32420 layer_factory.hpp:77] Creating layer inception_5b/relu_pool_proj
I0403 12:01:39.529902 32420 net.cpp:91] Creating Layer inception_5b/relu_pool_proj
I0403 12:01:39.529919 32420 net.cpp:425] inception_5b/relu_pool_proj <- inception_5b/pool_proj
I0403 12:01:39.529937 32420 net.cpp:386] inception_5b/relu_pool_proj -> inception_5b/pool_proj (in-place)
I0403 12:01:39.529958 32420 net.cpp:141] Setting up inception_5b/relu_pool_proj
I0403 12:01:39.529978 32420 net.cpp:148] Top shape: 24 128 7 7 (150528)
I0403 12:01:39.529991 32420 net.cpp:156] Memory required for data: 1341047232
I0403 12:01:39.530004 32420 layer_factory.hpp:77] Creating layer inception_5b/output
I0403 12:01:39.530022 32420 net.cpp:91] Creating Layer inception_5b/output
I0403 12:01:39.530038 32420 net.cpp:425] inception_5b/output <- inception_5b/1x1
I0403 12:01:39.530055 32420 net.cpp:425] inception_5b/output <- inception_5b/3x3
I0403 12:01:39.530069 32420 net.cpp:425] inception_5b/output <- inception_5b/5x5
I0403 12:01:39.530086 32420 net.cpp:425] inception_5b/output <- inception_5b/pool_proj
I0403 12:01:39.530102 32420 net.cpp:399] inception_5b/output -> inception_5b/output
I0403 12:01:39.530141 32420 net.cpp:141] Setting up inception_5b/output
I0403 12:01:39.530164 32420 net.cpp:148] Top shape: 24 1024 7 7 (1204224)
I0403 12:01:39.530195 32420 net.cpp:156] Memory required for data: 1345864128
I0403 12:01:39.530212 32420 layer_factory.hpp:77] Creating layer pool5/7x7_s1
I0403 12:01:39.530230 32420 net.cpp:91] Creating Layer pool5/7x7_s1
I0403 12:01:39.530246 32420 net.cpp:425] pool5/7x7_s1 <- inception_5b/output
I0403 12:01:39.530263 32420 net.cpp:399] pool5/7x7_s1 -> pool5/7x7_s1
I0403 12:01:39.530303 32420 net.cpp:141] Setting up pool5/7x7_s1
I0403 12:01:39.530325 32420 net.cpp:148] Top shape: 24 1024 1 1 (24576)
I0403 12:01:39.530340 32420 net.cpp:156] Memory required for data: 1345962432
I0403 12:01:39.530355 32420 layer_factory.hpp:77] Creating layer pool5/drop_7x7_s1
I0403 12:01:39.530372 32420 net.cpp:91] Creating Layer pool5/drop_7x7_s1
I0403 12:01:39.530387 32420 net.cpp:425] pool5/drop_7x7_s1 <- pool5/7x7_s1
I0403 12:01:39.530407 32420 net.cpp:386] pool5/drop_7x7_s1 -> pool5/7x7_s1 (in-place)
I0403 12:01:39.530444 32420 net.cpp:141] Setting up pool5/drop_7x7_s1
I0403 12:01:39.530469 32420 net.cpp:148] Top shape: 24 1024 1 1 (24576)
I0403 12:01:39.530494 32420 net.cpp:156] Memory required for data: 1346060736
I0403 12:01:39.530508 32420 layer_factory.hpp:77] Creating layer loss3/classifier_plantvillage
I0403 12:01:39.530529 32420 net.cpp:91] Creating Layer loss3/classifier_plantvillage
I0403 12:01:39.530544 32420 net.cpp:425] loss3/classifier_plantvillage <- pool5/7x7_s1
I0403 12:01:39.530565 32420 net.cpp:399] loss3/classifier_plantvillage -> loss3/classifier_plantvillage
I0403 12:01:39.530885 32420 net.cpp:141] Setting up loss3/classifier_plantvillage
I0403 12:01:39.530912 32420 net.cpp:148] Top shape: 24 38 (912)
I0403 12:01:39.530928 32420 net.cpp:156] Memory required for data: 1346064384
I0403 12:01:39.530961 32420 layer_factory.hpp:77] Creating layer loss3/classifier_plantvillage_loss3/classifier_plantvillage_0_split
I0403 12:01:39.530982 32420 net.cpp:91] Creating Layer loss3/classifier_plantvillage_loss3/classifier_plantvillage_0_split
I0403 12:01:39.530998 32420 net.cpp:425] loss3/classifier_plantvillage_loss3/classifier_plantvillage_0_split <- loss3/classifier_plantvillage
I0403 12:01:39.531016 32420 net.cpp:399] loss3/classifier_plantvillage_loss3/classifier_plantvillage_0_split -> loss3/classifier_plantvillage_loss3/classifier_plantvillage_0_split_0
I0403 12:01:39.531038 32420 net.cpp:399] loss3/classifier_plantvillage_loss3/classifier_plantvillage_0_split -> loss3/classifier_plantvillage_loss3/classifier_plantvillage_0_split_1
I0403 12:01:39.531057 32420 net.cpp:399] loss3/classifier_plantvillage_loss3/classifier_plantvillage_0_split -> loss3/classifier_plantvillage_loss3/classifier_plantvillage_0_split_2
I0403 12:01:39.531131 32420 net.cpp:141] Setting up loss3/classifier_plantvillage_loss3/classifier_plantvillage_0_split
I0403 12:01:39.531155 32420 net.cpp:148] Top shape: 24 38 (912)
I0403 12:01:39.531170 32420 net.cpp:148] Top shape: 24 38 (912)
I0403 12:01:39.531190 32420 net.cpp:148] Top shape: 24 38 (912)
I0403 12:01:39.531205 32420 net.cpp:156] Memory required for data: 1346075328
I0403 12:01:39.531220 32420 layer_factory.hpp:77] Creating layer loss1/loss
I0403 12:01:39.531237 32420 net.cpp:91] Creating Layer loss1/loss
I0403 12:01:39.531252 32420 net.cpp:425] loss1/loss <- loss1/classifier_plantvillage_loss1/classifier_plantvillage_0_split_0
I0403 12:01:39.531270 32420 net.cpp:425] loss1/loss <- label_data_1_split_0
…
