…
I0403 04:32:26.445408  2011 net.cpp:313] The NetState phase (0) differed from the phase (1) specified by a rule in layer loss3/top-5
I0403 04:32:26.449062  2011 net.cpp:49] Initializing net from parameters: 
state {
  phase: TRAIN
}
layer {
  name: "data"
  type: "Data"
  top: "data"
  top: "label"
  include {
    phase: TRAIN
  }
  transform_param {
    mirror: true
    crop_size: 224
    mean_file: "/home/mohanty/data/final_dataset/lmdb/grayscale-40-60/mean.binaryproto"
  }
  data_param {
    source: "/home/mohanty/data/final_dataset/lmdb/grayscale-40-60/train_db"
    batch_size: 24
    backend: LMDB
  }
}
layer {
  name: "conv1/7x7_s2"
  type: "Convolution"
  bottom: "data"
  top: "conv1/7x7_s2"
  param {
    lr_mult: 1
    decay_mult: 1
  }
  param {
    lr_mult: 2
    decay_mult: 0
  }
  convolution_param {
    num_output: 64
    pad: 3
    kernel_size: 7
    stride: 2
    weight_filler {
      type: "xavier"
      std: 0.1
    }
    bias_filler {
      type: "constant"
      value: 0.2
    }
  }
}
layer {
  name: "conv1/relu_7x7"
  type: "ReLU"
  bottom: "conv1/7x7_s2"
  top: "conv1/7x7_s2"
}
layer {
  name: "pool1/3x3_s2"
  type: "Pooling"
  bottom: "conv1/7x7_s2"
  top: "pool1/3x3_s2"
  pooling_param {
    pool: MAX
    kernel_size: 3
    stride: 2
  }
}
layer {
  name: "pool1/norm1"
  type: "LRN"
  bottom: "pool1/3x3_s2"
  top: "pool1/norm1"
  lrn_param {
    local_size: 5
    alpha: 0.0001
    beta: 0.75
  }
}
layer {
  name: "conv2/3x3_reduce"
  type: "Convolution"
  bottom: "pool1/norm1"
  top: "conv2/3x3_reduce"
  param {
    lr_mult: 1
    decay_mult: 1
  }
  param {
    lr_mult: 2
    decay_mult: 0
  }
  convolution_param {
    num_output: 64
    kernel_size: 1
    weight_filler {
      type: "xavier"
      std: 0.1
    }
    bias_filler {
      type: "constant"
      value: 0.2
    }
  }
}
layer {
  name: "conv2/relu_3x3_reduce"
  type: "ReLU"
  bottom: "conv2/3x3_reduce"
  top: "conv2/3x3_reduce"
}
layer {
  name: "conv2/3x3"
  type: "Convolution"
  bottom: "conv2/3x3_reduce"
  top: "conv2/3x3"
  param {
    lr_mult: 1
    decay_mult: 1
  }
  param {
    lr_mult: 2
    decay_mult: 0
  }
  convolution_param {
    num_output: 192
    pad: 1
    kernel_size: 3
    weight_filler {
      type: "xavier"
      std: 0.03
    }
    bias_filler {
      type: "constant"
      value: 0.2
    }
  }
}
layer {
  name: "conv2/relu_3x3"
  type: "ReLU"
  bottom: "conv2/3x3"
  top: "conv2/3x3"
}
layer {
  name: "conv2/norm2"
  type: "LRN"
  bottom: "conv2/3x3"
  top: "conv2/norm2"
  lrn_param {
    local_size: 5
    alpha: 0.0001
    beta: 0.75
  }
}
layer {
  name: "pool2/3x3_s2"
  type: "Pooling"
  bottom: "conv2/norm2"
  top: "pool2/3x3_s2"
  pooling_param {
    pool: MAX
    kernel_size: 3
    stride: 2
  }
}
layer {
  name: "inception_3a/1x1"
  type: "Convolution"
  bottom: "pool2/3x3_s2"
  top: "inception_3a/1x1"
  param {
    lr_mult: 1
    decay_mult: 1
  }
  param {
    lr_mult: 2
    decay_mult: 0
  }
  convolution_param {
    num_output: 64
    kernel_size: 1
    weight_filler {
      type: "xavier"
      std: 0.03
    }
    bias_filler {
      type: "constant"
      value: 0.2
    }
  }
}
layer {
  name: "inception_3a/relu_1x1"
  type: "ReLU"
  bottom: "inception_3a/1x1"
  top: "inception_3a/1x1"
}
layer {
  name: "inception_3a/3x3_reduce"
  type: "Convolution"
  bottom: "pool2/3x3_s2"
  top: "inception_3a/3x3_reduce"
  param {
    lr_mult: 1
    decay_mult: 1
  }
  param {
    lr_mult: 2
    decay_mult: 0
  }
  convolution_param {
    num_output: 96
    kernel_size: 1
    weight_filler {
      type: "xavier"
      std: 0.09
    }
    bias_filler {
      type: "constant"
      value: 0.2
    }
  }
}
layer {
  name: "inception_3a/relu_3x3_reduce"
  type: "ReLU"
  bottom: "inception_3a/3x3_reduce"
  top: "inception_3a/3x3_reduce"
}
layer {
  name: "inception_3a/3x3"
  type: "Convolution"
  bottom: "inception_3a/3x3_reduce"
  top: "inception_3a/3x3"
  param {
    lr_mult: 1
    decay_mult: 1
  }
  param {
    lr_mult: 2
    decay_mult: 0
  }
  convolution_param {
    num_output: 128
    pad: 1
    kernel_size: 3
    weight_filler {
      type: "xavier"
      std: 0.03
    }
    bias_filler {
      type: "constant"
      value: 0.2
    }
  }
}
layer {
  name: "inception_3a/relu_3x3"
  type: "ReLU"
  bottom: "inception_3a/3x3"
  top: "inception_3a/3x3"
}
layer {
  name: "inception_3a/5x5_reduce"
  type: "Convolution"
  bottom: "pool2/3x3_s2"
  top: "inception_3a/5x5_reduce"
  param {
    lr_mult: 1
    decay_mult: 1
  }
  param {
    lr_mult: 2
    decay_mult: 0
  }
  convolution_param {
    num_output: 16
    kernel_size: 1
    weight_filler {
      type: "xavier"
      std: 0.2
    }
    bias_filler {
      type: "constant"
      value: 0.2
    }
  }
}
layer {
  name: "inception_3a/relu_5x5_reduce"
  type: "ReLU"
  bottom: "inception_3a/5x5_reduce"
  top: "inception_3a/5x5_reduce"
}
layer {
  name: "inception_3a/5x5"
  type: "Convolution"
  bottom: "inception_3a/5x5_reduce"
  top: "inception_3a/5x5"
  param {
    lr_mult: 1
    decay_mult: 1
  }
  param {
    lr_mult: 2
    decay_mult: 0
  }
  convolution_param {
    num_output: 32
    pad: 2
    kernel_size: 5
    weight_filler {
      type: "xavier"
      std: 0.03
    }
    bias_filler {
      type: "constant"
      value: 0.2
    }
  }
}
layer {
  name: "inception_3a/relu_5x5"
  type: "ReLU"
  bottom: "inception_3a/5x5"
  top: "inception_3a/5x5"
}
layer {
  name: "inception_3a/pool"
  type: "Pooling"
  bottom: "pool2/3x3_s2"
  top: "inception_3a/pool"
  pooling_param {
    pool: MAX
    kernel_size: 3
    stride: 1
    pad: 1
  }
}
layer {
  name: "inception_3a/pool_proj"
  type: "Convolution"
  bottom: "inception_3a/pool"
  top: "inception_3a/pool_proj"
  param {
    lr_mult: 1
    decay_mult: 1
  }
  param {
    lr_mult: 2
    decay_mult: 0
  }
  convolution_param {
    num_output: 32
    kernel_size: 1
    weight_filler {
      type: "xavier"
      std: 0.1
    }
    bias_filler {
      type: "constant"
      value: 0.2
    }
  }
}
layer {
  name: "inception_3a/relu_pool_proj"
  type: "ReLU"
  bottom: "inception_3a/pool_proj"
  top: "inception_3a/pool_proj"
}
layer {
  name: "inception_3a/output"
  type: "Concat"
  bottom: "inception_3a/1x1"
  bottom: "inception_3a/3x3"
  bottom: "inception_3a/5x5"
  bottom: "inception_3a/pool_proj"
  top: "inception_3a/output"
}
layer {
  name: "inception_3b/1x1"
  type: "Convolution"
  bottom: "inception_3a/output"
  top: "inception_3b/1x1"
  param {
    lr_mult: 1
    decay_mult: 1
  }
  param {
    lr_mult: 2
    decay_mult: 0
  }
  convolution_param {
    num_output: 128
    kernel_size: 1
    weight_filler {
      type: "xavier"
      std: 0.03
    }
    bias_filler {
      type: "constant"
      value: 0.2
    }
  }
}
layer {
  name: "inception_3b/relu_1x1"
  type: "ReLU"
  bottom: "inception_3b/1x1"
  top: "inception_3b/1x1"
}
layer {
  name: "inception_3b/3x3_reduce"
  type: "Convolution"
  bottom: "inception_3a/output"
  top: "inception_3b/3x3_reduce"
  param {
    lr_mult: 1
    decay_mult: 1
  }
  param {
    lr_mult: 2
    decay_mult: 0
  }
  convolution_param {
    num_output: 128
    kernel_size: 1
    weight_filler {
      type: "xavier"
      std: 0.09
    }
    bias_filler {
      type: "constant"
      value: 0.2
    }
  }
}
layer {
  name: "inception_3b/relu_3x3_reduce"
  type: "ReLU"
  bottom: "inception_3b/3x3_reduce"
  top: "inception_3b/3x3_reduce"
}
layer {
  name: "inception_3b/3x3"
  type: "Convolution"
  bottom: "inception_3b/3x3_reduce"
  top: "inception_3b/3x3"
  param {
    lr_mult: 1
    decay_mult: 1
  }
  param {
    lr_mult: 2
    decay_mult: 0
  }
  convolution_param {
    num_output: 192
    pad: 1
    kernel_size: 3
    weight_filler {
      type: "xavier"
      std: 0.03
    }
    bias_filler {
      type: "constant"
      value: 0.2
    }
  }
}
layer {
  name: "inception_3b/relu_3x3"
  type: "ReLU"
  bottom: "inception_3b/3x3"
  top: "inception_3b/3x3"
}
layer {
  name: "inception_3b/5x5_reduce"
  type: "Convolution"
  bottom: "inception_3a/output"
  top: "inception_3b/5x5_reduce"
  param {
    lr_mult: 1
    decay_mult: 1
  }
  param {
    lr_mult: 2
    decay_mult: 0
  }
  convolution_param {
    num_output: 32
    kernel_size: 1
    weight_filler {
      type: "xavier"
      std: 0.2
    }
    bias_filler {
      type: "constant"
      value: 0.2
    }
  }
}
layer {
  name: "inception_3b/relu_5x5_reduce"
  type: "ReLU"
  bottom: "inception_3b/5x5_reduce"
  top: "inception_3b/5x5_reduce"
}
layer {
  name: "inception_3b/5x5"
  type: "Convolution"
  bottom: "inception_3b/5x5_reduce"
  top: "inception_3b/5x5"
  param {
    lr_mult: 1
    decay_mult: 1
  }
  param {
    lr_mult: 2
    decay_mult: 0
  }
  convolution_param {
    num_output: 96
    pad: 2
    kernel_size: 5
    weight_filler {
      type: "xavier"
      std: 0.03
    }
    bias_filler {
      type: "constant"
      value: 0.2
    }
  }
}
layer {
  name: "inception_3b/relu_5x5"
  type: "ReLU"
  bottom: "inception_3b/5x5"
  top: "inception_3b/5x5"
}
layer {
  name: "inception_3b/pool"
  type: "Pooling"
  bottom: "inception_3a/output"
  top: "inception_3b/pool"
  pooling_param {
    pool: MAX
    kernel_size: 3
    stride: 1
    pad: 1
  }
}
layer {
  name: "inception_3b/pool_proj"
  type: "Convolution"
  bottom: "inception_3b/pool"
  top: "inception_3b/pool_proj"
  param {
    lr_mult: 1
    decay_mult: 1
  }
  param {
    lr_mult: 2
    decay_mult: 0
  }
  convolution_param {
    num_output: 64
    kernel_size: 1
    weight_filler {
      type: "xavier"
      std: 0.1
    }
    bias_filler {
      type: "constant"
      value: 0.2
    }
  }
}
layer {
  name: "inception_3b/relu_pool_proj"
  type: "ReLU"
  bottom: "inception_3b/pool_proj"
  top: "inception_3b/pool_proj"
}
layer {
  name: "inception_3b/output"
  type: "Concat"
  bottom: "inception_3b/1x1"
  bottom: "inception_3b/3x3"
  bottom: "inception_3b/5x5"
  bottom: "inception_3b/pool_proj"
  top: "inception_3b/output"
}
layer {
  name: "pool3/3x3_s2"
  type: "Pooling"
  bottom: "inception_3b/output"
  top: "pool3/3x3_s2"
  pooling_param {
    pool: MAX
    kernel_size: 3
    stride: 2
  }
}
layer {
  name: "inception_4a/1x1"
  type: "Convolution"
  bottom: "pool3/3x3_s2"
  top: "inception_4a/1x1"
  param {
    lr_mult: 1
    decay_mult: 1
  }
  param {
    lr_mult: 2
    decay_mult: 0
  }
  convolution_param {
    num_output: 192
    kernel_size: 1
    weight_filler {
      type: "xavier"
      std: 0.03
    }
    bias_filler {
      type: "constant"
      value: 0.2
    }
  }
}
layer {
  name: "inception_4a/relu_1x1"
  type: "ReLU"
  bottom: "inception_4a/1x1"
  top: "inception_4a/1x1"
}
layer {
  name: "inception_4a/3x3_reduce"
  type: "Convolution"
  bottom: "pool3/3x3_s2"
  top: "inception_4a/3x3_reduce"
  param {
    lr_mult: 1
    decay_mult: 1
  }
  param {
    lr_mult: 2
    decay_mult: 0
  }
  convolution_param {
    num_output: 96
    kernel_size: 1
    weight_filler {
      type: "xavier"
      std: 0.09
    }
    bias_filler {
      type: "constant"
      value: 0.2
    }
  }
}
layer {
  name: "inception_4a/relu_3x3_reduce"
  type: "ReLU"
  bottom: "inception_4a/3x3_reduce"
  top: "inception_4a/3x3_reduce"
}
layer {
  name: "inception_4a/3x3"
  type: "Convolution"
  bottom: "inception_4a/3x3_reduce"
  top: "inception_4a/3x3"
  param {
    lr_mult: 1
    decay_mult: 1
  }
  param {
    lr_mult: 2
    decay_mult: 0
  }
  convolution_param {
    num_output: 208
    pad: 1
    kernel_size: 3
    weight_filler {
      type: "xavier"
      std: 0.03
    }
    bias_filler {
      type: "constant"
      value: 0.2
    }
  }
}
layer {
  name: "inception_4a/relu_3x3"
  type: "ReLU"
  bottom: "inception_4a/3x3"
  top: "inception_4a/3x3"
}
layer {
  name: "inception_4a/5x5_reduce"
  type: "Convolution"
  bottom: "pool3/3x3_s2"
  top: "inception_4a/5x5_reduce"
  param {
    lr_mult: 1
    decay_mult: 1
  }
  param {
    lr_mult: 2
    decay_mult: 0
  }
  convolution_param {
    num_output: 16
    kernel_size: 1
    weight_filler {
      type: "xavier"
      std: 0.2
    }
    bias_filler {
      type: "constant"
      value: 0.2
    }
  }
}
layer {
  name: "inception_4a/relu_5x5_reduce"
  type: "ReLU"
  bottom: "inception_4a/5x5_reduce"
  top: "inception_4a/5x5_reduce"
}
layer {
  name: "inception_4a/5x5"
  type: "Convolution"
  bottom: "inception_4a/5x5_reduce"
  top: "inception_4a/5x5"
  param {
    lr_mult: 1
    decay_mult: 1
  }
  param {
    lr_mult: 2
    decay_mult: 0
  }
  convolution_param {
    num_output: 48
    pad: 2
    kernel_size: 5
    weight_filler {
      type: "xavier"
      std: 0.03
    }
    bias_filler {
      type: "constant"
      value: 0.2
    }
  }
}
layer {
  name: "inception_4a/relu_5x5"
  type: "ReLU"
  bottom: "inception_4a/5x5"
  top: "inception_4a/5x5"
}
layer {
  name: "inception_4a/pool"
  type: "Pooling"
  bottom: "pool3/3x3_s2"
  top: "inception_4a/pool"
  pooling_param {
    pool: MAX
    kernel_size: 3
    stride: 1
    pad: 1
  }
}
layer {
  name: "inception_4a/pool_proj"
  type: "Convolution"
  bottom: "inception_4a/pool"
  top: "inception_4a/pool_proj"
  param {
    lr_mult: 1
    decay_mult: 1
  }
  param {
    lr_mult: 2
    decay_mult: 0
  }
  convolution_param {
    num_output: 64
    kernel_size: 1
    weight_filler {
      type: "xavier"
      std: 0.1
    }
    bias_filler {
      type: "constant"
      value: 0.2
    }
  }
}
layer {
  name: "inception_4a/relu_pool_proj"
  type: "ReLU"
  bottom: "inception_4a/pool_proj"
  top: "inception_4a/pool_proj"
}
layer {
  name: "inception_4a/output"
  type: "Concat"
  bottom: "inception_4a/1x1"
  bottom: "inception_4a/3x3"
  bottom: "inception_4a/5x5"
  bottom: "inception_4a/pool_proj"
  top: "inception_4a/output"
}
layer {
  name: "loss1/ave_pool"
  type: "Pooling"
  bottom: "inception_4a/output"
  top: "loss1/ave_pool"
  pooling_param {
    pool: AVE
    kernel_size: 5
    stride: 3
  }
}
layer {
  name: "loss1/conv"
  type: "Convolution"
  bottom: "loss1/ave_pool"
  top: "loss1/conv"
  param {
    lr_mult: 1
    decay_mult: 1
  }
  param {
    lr_mult: 2
    decay_mult: 0
  }
  convolution_param {
    num_output: 128
    kernel_size: 1
    weight_filler {
      type: "xavier"
      std: 0.08
    }
    bias_filler {
      type: "constant"
      value: 0.2
    }
  }
}
layer {
  name: "loss1/relu_conv"
  type: "ReLU"
  bottom: "loss1/conv"
  top: "loss1/conv"
}
layer {
  name: "loss1/fc"
  type: "InnerProduct"
  bottom: "loss1/conv"
  top: "loss1/fc"
  param {
    lr_mult: 1
    decay_mult: 1
  }
  param {
    lr_mult: 2
    decay_mult: 0
  }
  inner_product_param {
    num_output: 1024
    weight_filler {
      type: "xavier"
      std: 0.02
    }
    bias_filler {
      type: "constant"
      value: 0.2
    }
  }
}
layer {
  name: "loss1/relu_fc"
  type: "ReLU"
  bottom: "loss1/fc"
  top: "loss1/fc"
}
layer {
  name: "loss1/drop_fc"
  type: "Dropout"
  bottom: "loss1/fc"
  top: "loss1/fc"
  dropout_param {
    dropout_ratio: 0.7
  }
}
layer {
  name: "loss1/classifier_plantvillage"
  type: "InnerProduct"
  bottom: "loss1/fc"
  top: "loss1/classifier_plantvillage"
  param {
    lr_mult: 1
    decay_mult: 1
  }
  param {
    lr_mult: 2
    decay_mult: 0
  }
  inner_product_param {
    num_output: 38
    weight_filler {
      type: "xavier"
      std: 0.0009765625
    }
    bias_filler {
      type: "constant"
      value: 0
    }
  }
}
layer {
  name: "inception_4b/1x1"
  type: "Convolution"
  bottom: "inception_4a/output"
  top: "inception_4b/1x1"
  param {
    lr_mult: 1
    decay_mult: 1
  }
  param {
    lr_mult: 2
    decay_mult: 0
  }
  convolution_param {
    num_output: 160
    kernel_size: 1
    weight_filler {
      type: "xavier"
      std: 0.03
    }
    bias_filler {
      type: "constant"
      value: 0.2
    }
  }
}
layer {
  name: "inception_4b/relu_1x1"
  type: "ReLU"
  bottom: "inception_4b/1x1"
  top: "inception_4b/1x1"
}
layer {
  name: "inception_4b/3x3_reduce"
  type: "Convolution"
  bottom: "inception_4a/output"
  top: "inception_4b/3x3_reduce"
  param {
    lr_mult: 1
    decay_mult: 1
  }
  param {
    lr_mult: 2
    decay_mult: 0
  }
  convolution_param {
    num_output: 112
    kernel_size: 1
    weight_filler {
      type: "xavier"
      std: 0.09
    }
    bias_filler {
      type: "constant"
      value: 0.2
    }
  }
}
layer {
  name: "inception_4b/relu_3x3_reduce"
  type: "ReLU"
  bottom: "inception_4b/3x3_reduce"
  top: "inception_4b/3x3_reduce"
}
layer {
  name: "inception_4b/3x3"
  type: "Convolution"
  bottom: "inception_4b/3x3_reduce"
  top: "inception_4b/3x3"
  param {
    lr_mult: 1
    decay_mult: 1
  }
  param {
    lr_mult: 2
    decay_mult: 0
  }
  convolution_param {
    num_output: 224
    pad: 1
    kernel_size: 3
    weight_filler {
      type: "xavier"
      std: 0.03
    }
    bias_filler {
      type: "constant"
      value: 0.2
    }
  }
}
layer {
  name: "inception_4b/relu_3x3"
  type: "ReLU"
  bottom: "inception_4b/3x3"
  top: "inception_4b/3x3"
}
layer {
  name: "inception_4b/5x5_reduce"
  type: "Convolution"
  bottom: "inception_4a/output"
  top: "inception_4b/5x5_reduce"
  param {
    lr_mult: 1
    decay_mult: 1
  }
  param {
    lr_mult: 2
    decay_mult: 0
  }
  convolution_param {
    num_output: 24
    kernel_size: 1
    weight_filler {
      type: "xavier"
      std: 0.2
    }
    bias_filler {
      type: "constant"
      value: 0.2
    }
  }
}
layer {
  name: "inception_4b/relu_5x5_reduce"
  type: "ReLU"
  bottom: "inception_4b/5x5_reduce"
  top: "inception_4b/5x5_reduce"
}
layer {
  name: "inception_4b/5x5"
  type: "Convolution"
  bottom: "inception_4b/5x5_reduce"
  top: "inception_4b/5x5"
  param {
    lr_mult: 1
    decay_mult: 1
  }
  param {
    lr_mult: 2
    decay_mult: 0
  }
  convolution_param {
    num_output: 64
    pad: 2
    kernel_size: 5
    weight_filler {
      type: "xavier"
      std: 0.03
    }
    bias_filler {
      type: "constant"
      value: 0.2
    }
  }
}
layer {
  name: "inception_4b/relu_5x5"
  type: "ReLU"
  bottom: "inception_4b/5x5"
  top: "inception_4b/5x5"
}
layer {
  name: "inception_4b/pool"
  type: "Pooling"
  bottom: "inception_4a/output"
  top: "inception_4b/pool"
  pooling_param {
    pool: MAX
    kernel_size: 3
    stride: 1
    pad: 1
  }
}
layer {
  name: "inception_4b/pool_proj"
  type: "Convolution"
  bottom: "inception_4b/pool"
  top: "inception_4b/pool_proj"
  param {
    lr_mult: 1
    decay_mult: 1
  }
  param {
    lr_mult: 2
    decay_mult: 0
  }
  convolution_param {
    num_output: 64
    kernel_size: 1
    weight_filler {
      type: "xavier"
      std: 0.1
    }
    bias_filler {
      type: "constant"
      value: 0.2
    }
  }
}
layer {
  name: "inception_4b/relu_pool_proj"
  type: "ReLU"
  bottom: "inception_4b/pool_proj"
  top: "inception_4b/pool_proj"
}
layer {
  name: "inception_4b/output"
  type: "Concat"
  bottom: "inception_4b/1x1"
  bottom: "inception_4b/3x3"
  bottom: "inception_4b/5x5"
  bottom: "inception_4b/pool_proj"
  top: "inception_4b/output"
}
layer {
  name: "inception_4c/1x1"
  type: "Convolution"
  bottom: "inception_4b/output"
  top: "inception_4c/1x1"
  param {
    lr_mult: 1
    decay_mult: 1
  }
  param {
    lr_mult: 2
    decay_mult: 0
  }
  convolution_param {
    num_output: 128
    kernel_size: 1
    weight_filler {
      type: "xavier"
      std: 0.03
    }
    bias_filler {
      type: "constant"
      value: 0.2
    }
  }
}
layer {
  name: "inception_4c/relu_1x1"
  type: "ReLU"
  bottom: "inception_4c/1x1"
  top: "inception_4c/1x1"
}
layer {
  name: "inception_4c/3x3_reduce"
  type: "Convolution"
  bottom: "inception_4b/output"
  top: "inception_4c/3x3_reduce"
  param {
    lr_mult: 1
    decay_mult: 1
  }
  param {
    lr_mult: 2
    decay_mult: 0
  }
  convolution_param {
    num_output: 128
    kernel_size: 1
    weight_filler {
      type: "xavier"
      std: 0.09
    }
    bias_filler {
      type: "constant"
      value: 0.2
    }
  }
}
layer {
  name: "inception_4c/relu_3x3_reduce"
  type: "ReLU"
  bottom: "inception_4c/3x3_reduce"
  top: "inception_4c/3x3_reduce"
}
layer {
  name: "inception_4c/3x3"
  type: "Convolution"
  bottom: "inception_4c/3x3_reduce"
  top: "inception_4c/3x3"
  param {
    lr_mult: 1
    decay_mult: 1
  }
  param {
    lr_mult: 2
    decay_mult: 0
  }
  convolution_param {
    num_output: 256
    pad: 1
    kernel_size: 3
    weight_filler {
      type: "xavier"
      std: 0.03
    }
    bias_filler {
      type: "constant"
      value: 0.2
    }
  }
}
layer {
  name: "inception_4c/relu_3x3"
  type: "ReLU"
  bottom: "inception_4c/3x3"
  top: "inception_4c/3x3"
}
layer {
  name: "inception_4c/5x5_reduce"
  type: "Convolution"
  bottom: "inception_4b/output"
  top: "inception_4c/5x5_reduce"
  param {
    lr_mult: 1
    decay_mult: 1
  }
  param {
    lr_mult: 2
    decay_mult: 0
  }
  convolution_param {
    num_output: 24
    kernel_size: 1
    weight_filler {
      type: "xavier"
      std: 0.2
    }
    bias_filler {
      type: "constant"
      value: 0.2
    }
  }
}
layer {
  name: "inception_4c/relu_5x5_reduce"
  type: "ReLU"
  bottom: "inception_4c/5x5_reduce"
  top: "inception_4c/5x5_reduce"
}
layer {
  name: "inception_4c/5x5"
  type: "Convolution"
  bottom: "inception_4c/5x5_reduce"
  top: "inception_4c/5x5"
  param {
    lr_mult: 1
    decay_mult: 1
  }
  param {
    lr_mult: 2
    decay_mult: 0
  }
  convolution_param {
    num_output: 64
    pad: 2
    kernel_size: 5
    weight_filler {
      type: "xavier"
      std: 0.03
    }
    bias_filler {
      type: "constant"
      value: 0.2
    }
  }
}
layer {
  name: "inception_4c/relu_5x5"
  type: "ReLU"
  bottom: "inception_4c/5x5"
  top: "inception_4c/5x5"
}
layer {
  name: "inception_4c/pool"
  type: "Pooling"
  bottom: "inception_4b/output"
  top: "inception_4c/pool"
  pooling_param {
    pool: MAX
    kernel_size: 3
    stride: 1
    pad: 1
  }
}
layer {
  name: "inception_4c/pool_proj"
  type: "Convolution"
  bottom: "inception_4c/pool"
  top: "inception_4c/pool_proj"
  param {
    lr_mult: 1
    decay_mult: 1
  }
  param {
    lr_mult: 2
    decay_mult: 0
  }
  convolution_param {
    num_output: 64
    kernel_size: 1
    weight_filler {
      type: "xavier"
      std: 0.1
    }
    bias_filler {
      type: "constant"
      value: 0.2
    }
  }
}
layer {
  name: "inception_4c/relu_pool_proj"
  type: "ReLU"
  bottom: "inception_4c/pool_proj"
  top: "inception_4c/pool_proj"
}
layer {
  name: "inception_4c/output"
  type: "Concat"
  bottom: "inception_4c/1x1"
  bottom: "inception_4c/3x3"
  bottom: "inception_4c/5x5"
  bottom: "inception_4c/pool_proj"
  top: "inception_4c/output"
}
layer {
  name: "inception_4d/1x1"
  type: "Convolution"
  bottom: "inception_4c/output"
  top: "inception_4d/1x1"
  param {
    lr_mult: 1
    decay_mult: 1
  }
  param {
    lr_mult: 2
    decay_mult: 0
  }
  convolution_param {
    num_output: 112
    kernel_size: 1
    weight_filler {
      type: "xavier"
      std: 0.03
    }
    bias_filler {
      type: "constant"
      value: 0.2
    }
  }
}
layer {
  name: "inception_4d/relu_1x1"
  type: "ReLU"
  bottom: "inception_4d/1x1"
  top: "inception_4d/1x1"
}
layer {
  name: "inception_4d/3x3_reduce"
  type: "Convolution"
  bottom: "inception_4c/output"
  top: "inception_4d/3x3_reduce"
  param {
    lr_mult: 1
    decay_mult: 1
  }
  param {
    lr_mult: 2
    decay_mult: 0
  }
  convolution_param {
    num_output: 144
    kernel_size: 1
    weight_filler {
      type: "xavier"
      std: 0.09
    }
    bias_filler {
      type: "constant"
      value: 0.2
    }
  }
}
layer {
  name: "inception_4d/relu_3x3_reduce"
  type: "ReLU"
  bottom: "inception_4d/3x3_reduce"
  top: "inception_4d/3x3_reduce"
}
layer {
  name: "inception_4d/3x3"
  type: "Convolution"
  bottom: "inception_4d/3x3_reduce"
  top: "inception_4d/3x3"
  param {
    lr_mult: 1
    decay_mult: 1
  }
  param {
    lr_mult: 2
    decay_mult: 0
  }
  convolution_param {
    num_output: 288
    pad: 1
    kernel_size: 3
    weight_filler {
      type: "xavier"
      std: 0.03
    }
    bias_filler {
      type: "constant"
      value: 0.2
    }
  }
}
layer {
  name: "inception_4d/relu_3x3"
  type: "ReLU"
  bottom: "inception_4d/3x3"
  top: "inception_4d/3x3"
}
layer {
  name: "inception_4d/5x5_reduce"
  type: "Convolution"
  bottom: "inception_4c/output"
  top: "inception_4d/5x5_reduce"
  param {
    lr_mult: 1
    decay_mult: 1
  }
  param {
    lr_mult: 2
    decay_mult: 0
  }
  convolution_param {
    num_output: 32
    kernel_size: 1
    weight_filler {
      type: "xavier"
      std: 0.2
    }
    bias_filler {
      type: "constant"
      value: 0.2
    }
  }
}
layer {
  name: "inception_4d/relu_5x5_reduce"
  type: "ReLU"
  bottom: "inception_4d/5x5_reduce"
  top: "inception_4d/5x5_reduce"
}
layer {
  name: "inception_4d/5x5"
  type: "Convolution"
  bottom: "inception_4d/5x5_reduce"
  top: "inception_4d/5x5"
  param {
    lr_mult: 1
    decay_mult: 1
  }
  param {
    lr_mult: 2
    decay_mult: 0
  }
  convolution_param {
    num_output: 64
    pad: 2
    kernel_size: 5
    weight_filler {
      type: "xavier"
      std: 0.03
    }
    bias_filler {
      type: "constant"
      value: 0.2
    }
  }
}
layer {
  name: "inception_4d/relu_5x5"
  type: "ReLU"
  bottom: "inception_4d/5x5"
  top: "inception_4d/5x5"
}
layer {
  name: "inception_4d/pool"
  type: "Pooling"
  bottom: "inception_4c/output"
  top: "inception_4d/pool"
  pooling_param {
    pool: MAX
    kernel_size: 3
    stride: 1
    pad: 1
  }
}
layer {
  name: "inception_4d/pool_proj"
  type: "Convolution"
  bottom: "inception_4d/pool"
  top: "inception_4d/pool_proj"
  param {
    lr_mult: 1
    decay_mult: 1
  }
  param {
    lr_mult: 2
    decay_mult: 0
  }
  convolution_param {
    num_output: 64
    kernel_size: 1
    weight_filler {
      type: "xavier"
      std: 0.1
    }
    bias_filler {
      type: "constant"
      value: 0.2
    }
  }
}
layer {
  name: "inception_4d/relu_pool_proj"
  type: "ReLU"
  bottom: "inception_4d/pool_proj"
  top: "inception_4d/pool_proj"
}
layer {
  name: "inception_4d/output"
  type: "Concat"
  bottom: "inception_4d/1x1"
  bottom: "inception_4d/3x3"
  bottom: "inception_4d/5x5"
  bottom: "inception_4d/pool_proj"
  top: "inception_4d/output"
}
layer {
  name: "loss2/ave_pool"
  type: "Pooling"
  bottom: "inception_4d/output"
  top: "loss2/ave_pool"
  pooling_param {
    pool: AVE
    kernel_size: 5
    stride: 3
  }
}
layer {
  name: "loss2/conv"
  type: "Convolution"
  bottom: "loss2/ave_pool"
  top: "loss2/conv"
  param {
    lr_mult: 1
    decay_mult: 1
  }
  param {
    lr_mult: 2
    decay_mult: 0
  }
  convolution_param {
    num_output: 128
    kernel_size: 1
    weight_filler {
      type: "xavier"
      std: 0.08
    }
    bias_filler {
      type: "constant"
      value: 0.2
    }
  }
}
layer {
  name: "loss2/relu_conv"
  type: "ReLU"
  bottom: "loss2/conv"
  top: "loss2/conv"
}
layer {
  name: "loss2/fc"
  type: "InnerProduct"
  bottom: "loss2/conv"
  top: "loss2/fc"
  param {
    lr_mult: 1
    decay_mult: 1
  }
  param {
    lr_mult: 2
    decay_mult: 0
  }
  inner_product_param {
    num_output: 1024
    weight_filler {
      type: "xavier"
      std: 0.02
    }
    bias_filler {
      type: "constant"
      value: 0.2
    }
  }
}
layer {
  name: "loss2/relu_fc"
  type: "ReLU"
  bottom: "loss2/fc"
  top: "loss2/fc"
}
layer {
  name: "loss2/drop_fc"
  type: "Dropout"
  bottom: "loss2/fc"
  top: "loss2/fc"
  dropout_param {
    dropout_ratio: 0.7
  }
}
layer {
  name: "loss2/classifier_plantvillage"
  type: "InnerProduct"
  bottom: "loss2/fc"
  top: "loss2/classifier_plantvillage"
  param {
    lr_mult: 1
    decay_mult: 1
  }
  param {
    lr_mult: 2
    decay_mult: 0
  }
  inner_product_param {
    num_output: 38
    weight_filler {
      type: "xavier"
      std: 0.0009765625
    }
    bias_filler {
      type: "constant"
      value: 0
    }
  }
}
layer {
  name: "inception_4e/1x1"
  type: "Convolution"
  bottom: "inception_4d/output"
  top: "inception_4e/1x1"
  param {
    lr_mult: 1
    decay_mult: 1
  }
  param {
    lr_mult: 2
    decay_mult: 0
  }
  convolution_param {
    num_output: 256
    kernel_size: 1
    weight_filler {
      type: "xavier"
      std: 0.03
    }
    bias_filler {
      type: "constant"
      value: 0.2
    }
  }
}
layer {
  name: "inception_4e/relu_1x1"
  type: "ReLU"
  bottom: "inception_4e/1x1"
  top: "inception_4e/1x1"
}
layer {
  name: "inception_4e/3x3_reduce"
  type: "Convolution"
  bottom: "inception_4d/output"
  top: "inception_4e/3x3_reduce"
  param {
    lr_mult: 1
    decay_mult: 1
  }
  param {
    lr_mult: 2
    decay_mult: 0
  }
  convolution_param {
    num_output: 160
    kernel_size: 1
    weight_filler {
      type: "xavier"
      std: 0.09
    }
    bias_filler {
      type: "constant"
      value: 0.2
    }
  }
}
layer {
  name: "inception_4e/relu_3x3_reduce"
  type: "ReLU"
  bottom: "inception_4e/3x3_reduce"
  top: "inception_4e/3x3_reduce"
}
layer {
  name: "inception_4e/3x3"
  type: "Convolution"
  bottom: "inception_4e/3x3_reduce"
  top: "inception_4e/3x3"
  param {
    lr_mult: 1
    decay_mult: 1
  }
  param {
    lr_mult: 2
    decay_mult: 0
  }
  convolution_param {
    num_output: 320
    pad: 1
    kernel_size: 3
    weight_filler {
      type: "xavier"
      std: 0.03
    }
    bias_filler {
      type: "constant"
      value: 0.2
    }
  }
}
layer {
  name: "inception_4e/relu_3x3"
  type: "ReLU"
  bottom: "inception_4e/3x3"
  top: "inception_4e/3x3"
}
layer {
  name: "inception_4e/5x5_reduce"
  type: "Convolution"
  bottom: "inception_4d/output"
  top: "inception_4e/5x5_reduce"
  param {
    lr_mult: 1
    decay_mult: 1
  }
  param {
    lr_mult: 2
    decay_mult: 0
  }
  convolution_param {
    num_output: 32
    kernel_size: 1
    weight_filler {
      type: "xavier"
      std: 0.2
    }
    bias_filler {
      type: "constant"
      value: 0.2
    }
  }
}
layer {
  name: "inception_4e/relu_5x5_reduce"
  type: "ReLU"
  bottom: "inception_4e/5x5_reduce"
  top: "inception_4e/5x5_reduce"
}
layer {
  name: "inception_4e/5x5"
  type: "Convolution"
  bottom: "inception_4e/5x5_reduce"
  top: "inception_4
I0403 04:32:26.462685  2011 layer_factory.hpp:77] Creating layer data
I0403 04:32:26.463327  2011 net.cpp:91] Creating Layer data
I0403 04:32:26.463373  2011 net.cpp:399] data -> data
I0403 04:32:26.463448  2011 net.cpp:399] data -> label
I0403 04:32:26.463485  2011 data_transformer.cpp:25] Loading mean file from: /home/mohanty/data/final_dataset/lmdb/grayscale-40-60/mean.binaryproto
I0403 04:32:26.490221  2013 db_lmdb.cpp:38] Opened lmdb /home/mohanty/data/final_dataset/lmdb/grayscale-40-60/train_db
I0403 04:32:26.497869  2011 data_layer.cpp:41] output data size: 24,3,224,224
I0403 04:32:26.524590  2011 net.cpp:141] Setting up data
I0403 04:32:26.524660  2011 net.cpp:148] Top shape: 24 3 224 224 (3612672)
I0403 04:32:26.524682  2011 net.cpp:148] Top shape: 24 (24)
I0403 04:32:26.524698  2011 net.cpp:156] Memory required for data: 14450784
I0403 04:32:26.524760  2011 layer_factory.hpp:77] Creating layer label_data_1_split
I0403 04:32:26.524790  2011 net.cpp:91] Creating Layer label_data_1_split
I0403 04:32:26.524808  2011 net.cpp:425] label_data_1_split <- label
I0403 04:32:26.524837  2011 net.cpp:399] label_data_1_split -> label_data_1_split_0
I0403 04:32:26.524863  2011 net.cpp:399] label_data_1_split -> label_data_1_split_1
I0403 04:32:26.524883  2011 net.cpp:399] label_data_1_split -> label_data_1_split_2
I0403 04:32:26.524943  2011 net.cpp:141] Setting up label_data_1_split
I0403 04:32:26.524966  2011 net.cpp:148] Top shape: 24 (24)
I0403 04:32:26.524981  2011 net.cpp:148] Top shape: 24 (24)
I0403 04:32:26.524997  2011 net.cpp:148] Top shape: 24 (24)
I0403 04:32:26.525010  2011 net.cpp:156] Memory required for data: 14451072
I0403 04:32:26.525024  2011 layer_factory.hpp:77] Creating layer conv1/7x7_s2
I0403 04:32:26.525058  2011 net.cpp:91] Creating Layer conv1/7x7_s2
I0403 04:32:26.525074  2011 net.cpp:425] conv1/7x7_s2 <- data
I0403 04:32:26.525092  2011 net.cpp:399] conv1/7x7_s2 -> conv1/7x7_s2
I0403 04:32:26.526022  2011 net.cpp:141] Setting up conv1/7x7_s2
I0403 04:32:26.526049  2011 net.cpp:148] Top shape: 24 64 112 112 (19267584)
I0403 04:32:26.526065  2011 net.cpp:156] Memory required for data: 91521408
I0403 04:32:26.526098  2011 layer_factory.hpp:77] Creating layer conv1/relu_7x7
I0403 04:32:26.526121  2011 net.cpp:91] Creating Layer conv1/relu_7x7
I0403 04:32:26.526150  2011 net.cpp:425] conv1/relu_7x7 <- conv1/7x7_s2
I0403 04:32:26.526167  2011 net.cpp:386] conv1/relu_7x7 -> conv1/7x7_s2 (in-place)
I0403 04:32:26.526188  2011 net.cpp:141] Setting up conv1/relu_7x7
I0403 04:32:26.526206  2011 net.cpp:148] Top shape: 24 64 112 112 (19267584)
I0403 04:32:26.526221  2011 net.cpp:156] Memory required for data: 168591744
I0403 04:32:26.526234  2011 layer_factory.hpp:77] Creating layer pool1/3x3_s2
I0403 04:32:26.526253  2011 net.cpp:91] Creating Layer pool1/3x3_s2
I0403 04:32:26.526269  2011 net.cpp:425] pool1/3x3_s2 <- conv1/7x7_s2
I0403 04:32:26.526288  2011 net.cpp:399] pool1/3x3_s2 -> pool1/3x3_s2
I0403 04:32:26.526350  2011 net.cpp:141] Setting up pool1/3x3_s2
I0403 04:32:26.526373  2011 net.cpp:148] Top shape: 24 64 56 56 (4816896)
I0403 04:32:26.526393  2011 net.cpp:156] Memory required for data: 187859328
I0403 04:32:26.526408  2011 layer_factory.hpp:77] Creating layer pool1/norm1
I0403 04:32:26.526439  2011 net.cpp:91] Creating Layer pool1/norm1
I0403 04:32:26.526454  2011 net.cpp:425] pool1/norm1 <- pool1/3x3_s2
I0403 04:32:26.526473  2011 net.cpp:399] pool1/norm1 -> pool1/norm1
I0403 04:32:26.526521  2011 net.cpp:141] Setting up pool1/norm1
I0403 04:32:26.526542  2011 net.cpp:148] Top shape: 24 64 56 56 (4816896)
I0403 04:32:26.526556  2011 net.cpp:156] Memory required for data: 207126912
I0403 04:32:26.526571  2011 layer_factory.hpp:77] Creating layer conv2/3x3_reduce
I0403 04:32:26.526590  2011 net.cpp:91] Creating Layer conv2/3x3_reduce
I0403 04:32:26.526607  2011 net.cpp:425] conv2/3x3_reduce <- pool1/norm1
I0403 04:32:26.526625  2011 net.cpp:399] conv2/3x3_reduce -> conv2/3x3_reduce
I0403 04:32:26.528846  2011 net.cpp:141] Setting up conv2/3x3_reduce
I0403 04:32:26.528884  2011 net.cpp:148] Top shape: 24 64 56 56 (4816896)
I0403 04:32:26.528900  2011 net.cpp:156] Memory required for data: 226394496
I0403 04:32:26.528921  2011 layer_factory.hpp:77] Creating layer conv2/relu_3x3_reduce
I0403 04:32:26.528940  2011 net.cpp:91] Creating Layer conv2/relu_3x3_reduce
I0403 04:32:26.528955  2011 net.cpp:425] conv2/relu_3x3_reduce <- conv2/3x3_reduce
I0403 04:32:26.528972  2011 net.cpp:386] conv2/relu_3x3_reduce -> conv2/3x3_reduce (in-place)
I0403 04:32:26.528991  2011 net.cpp:141] Setting up conv2/relu_3x3_reduce
I0403 04:32:26.529008  2011 net.cpp:148] Top shape: 24 64 56 56 (4816896)
I0403 04:32:26.529021  2011 net.cpp:156] Memory required for data: 245662080
I0403 04:32:26.529036  2011 layer_factory.hpp:77] Creating layer conv2/3x3
I0403 04:32:26.529058  2011 net.cpp:91] Creating Layer conv2/3x3
I0403 04:32:26.529073  2011 net.cpp:425] conv2/3x3 <- conv2/3x3_reduce
I0403 04:32:26.529112  2011 net.cpp:399] conv2/3x3 -> conv2/3x3
I0403 04:32:26.530463  2011 net.cpp:141] Setting up conv2/3x3
I0403 04:32:26.530491  2011 net.cpp:148] Top shape: 24 192 56 56 (14450688)
I0403 04:32:26.530506  2011 net.cpp:156] Memory required for data: 303464832
I0403 04:32:26.530526  2011 layer_factory.hpp:77] Creating layer conv2/relu_3x3
I0403 04:32:26.530545  2011 net.cpp:91] Creating Layer conv2/relu_3x3
I0403 04:32:26.530555  2014 blocking_queue.cpp:50] Waiting for data
I0403 04:32:26.530561  2011 net.cpp:425] conv2/relu_3x3 <- conv2/3x3
I0403 04:32:26.530607  2011 net.cpp:386] conv2/relu_3x3 -> conv2/3x3 (in-place)
I0403 04:32:26.530629  2011 net.cpp:141] Setting up conv2/relu_3x3
I0403 04:32:26.530647  2011 net.cpp:148] Top shape: 24 192 56 56 (14450688)
I0403 04:32:26.530661  2011 net.cpp:156] Memory required for data: 361267584
I0403 04:32:26.530675  2011 layer_factory.hpp:77] Creating layer conv2/norm2
I0403 04:32:26.530692  2011 net.cpp:91] Creating Layer conv2/norm2
I0403 04:32:26.530707  2011 net.cpp:425] conv2/norm2 <- conv2/3x3
I0403 04:32:26.530725  2011 net.cpp:399] conv2/norm2 -> conv2/norm2
I0403 04:32:26.530769  2011 net.cpp:141] Setting up conv2/norm2
I0403 04:32:26.530791  2011 net.cpp:148] Top shape: 24 192 56 56 (14450688)
I0403 04:32:26.530805  2011 net.cpp:156] Memory required for data: 419070336
I0403 04:32:26.530819  2011 layer_factory.hpp:77] Creating layer pool2/3x3_s2
I0403 04:32:26.530836  2011 net.cpp:91] Creating Layer pool2/3x3_s2
I0403 04:32:26.530851  2011 net.cpp:425] pool2/3x3_s2 <- conv2/norm2
I0403 04:32:26.530869  2011 net.cpp:399] pool2/3x3_s2 -> pool2/3x3_s2
I0403 04:32:26.530910  2011 net.cpp:141] Setting up pool2/3x3_s2
I0403 04:32:26.530931  2011 net.cpp:148] Top shape: 24 192 28 28 (3612672)
I0403 04:32:26.530946  2011 net.cpp:156] Memory required for data: 433521024
I0403 04:32:26.530958  2011 layer_factory.hpp:77] Creating layer pool2/3x3_s2_pool2/3x3_s2_0_split
I0403 04:32:26.530975  2011 net.cpp:91] Creating Layer pool2/3x3_s2_pool2/3x3_s2_0_split
I0403 04:32:26.530990  2011 net.cpp:425] pool2/3x3_s2_pool2/3x3_s2_0_split <- pool2/3x3_s2
I0403 04:32:26.531008  2011 net.cpp:399] pool2/3x3_s2_pool2/3x3_s2_0_split -> pool2/3x3_s2_pool2/3x3_s2_0_split_0
I0403 04:32:26.531025  2011 net.cpp:399] pool2/3x3_s2_pool2/3x3_s2_0_split -> pool2/3x3_s2_pool2/3x3_s2_0_split_1
I0403 04:32:26.531045  2011 net.cpp:399] pool2/3x3_s2_pool2/3x3_s2_0_split -> pool2/3x3_s2_pool2/3x3_s2_0_split_2
I0403 04:32:26.531064  2011 net.cpp:399] pool2/3x3_s2_pool2/3x3_s2_0_split -> pool2/3x3_s2_pool2/3x3_s2_0_split_3
I0403 04:32:26.531121  2011 net.cpp:141] Setting up pool2/3x3_s2_pool2/3x3_s2_0_split
I0403 04:32:26.531155  2011 net.cpp:148] Top shape: 24 192 28 28 (3612672)
I0403 04:32:26.531172  2011 net.cpp:148] Top shape: 24 192 28 28 (3612672)
I0403 04:32:26.531186  2011 net.cpp:148] Top shape: 24 192 28 28 (3612672)
I0403 04:32:26.531201  2011 net.cpp:148] Top shape: 24 192 28 28 (3612672)
I0403 04:32:26.531215  2011 net.cpp:156] Memory required for data: 491323776
I0403 04:32:26.531229  2011 layer_factory.hpp:77] Creating layer inception_3a/1x1
I0403 04:32:26.531250  2011 net.cpp:91] Creating Layer inception_3a/1x1
I0403 04:32:26.531267  2011 net.cpp:425] inception_3a/1x1 <- pool2/3x3_s2_pool2/3x3_s2_0_split_0
I0403 04:32:26.531287  2011 net.cpp:399] inception_3a/1x1 -> inception_3a/1x1
I0403 04:32:26.532078  2011 net.cpp:141] Setting up inception_3a/1x1
I0403 04:32:26.532105  2011 net.cpp:148] Top shape: 24 64 28 28 (1204224)
I0403 04:32:26.532119  2011 net.cpp:156] Memory required for data: 496140672
I0403 04:32:26.532136  2011 layer_factory.hpp:77] Creating layer inception_3a/relu_1x1
I0403 04:32:26.532153  2011 net.cpp:91] Creating Layer inception_3a/relu_1x1
I0403 04:32:26.532168  2011 net.cpp:425] inception_3a/relu_1x1 <- inception_3a/1x1
I0403 04:32:26.532186  2011 net.cpp:386] inception_3a/relu_1x1 -> inception_3a/1x1 (in-place)
I0403 04:32:26.532203  2011 net.cpp:141] Setting up inception_3a/relu_1x1
I0403 04:32:26.532218  2011 net.cpp:148] Top shape: 24 64 28 28 (1204224)
I0403 04:32:26.532246  2011 net.cpp:156] Memory required for data: 500957568
I0403 04:32:26.532261  2011 layer_factory.hpp:77] Creating layer inception_3a/3x3_reduce
I0403 04:32:26.532285  2011 net.cpp:91] Creating Layer inception_3a/3x3_reduce
I0403 04:32:26.532301  2011 net.cpp:425] inception_3a/3x3_reduce <- pool2/3x3_s2_pool2/3x3_s2_0_split_1
I0403 04:32:26.532331  2011 net.cpp:399] inception_3a/3x3_reduce -> inception_3a/3x3_reduce
I0403 04:32:26.533145  2011 net.cpp:141] Setting up inception_3a/3x3_reduce
I0403 04:32:26.533172  2011 net.cpp:148] Top shape: 24 96 28 28 (1806336)
I0403 04:32:26.533186  2011 net.cpp:156] Memory required for data: 508182912
I0403 04:32:26.533206  2011 layer_factory.hpp:77] Creating layer inception_3a/relu_3x3_reduce
I0403 04:32:26.533226  2011 net.cpp:91] Creating Layer inception_3a/relu_3x3_reduce
I0403 04:32:26.533241  2011 net.cpp:425] inception_3a/relu_3x3_reduce <- inception_3a/3x3_reduce
I0403 04:32:26.533258  2011 net.cpp:386] inception_3a/relu_3x3_reduce -> inception_3a/3x3_reduce (in-place)
I0403 04:32:26.533277  2011 net.cpp:141] Setting up inception_3a/relu_3x3_reduce
I0403 04:32:26.533293  2011 net.cpp:148] Top shape: 24 96 28 28 (1806336)
I0403 04:32:26.533305  2011 net.cpp:156] Memory required for data: 515408256
I0403 04:32:26.533318  2011 layer_factory.hpp:77] Creating layer inception_3a/3x3
I0403 04:32:26.533352  2011 net.cpp:91] Creating Layer inception_3a/3x3
I0403 04:32:26.533370  2011 net.cpp:425] inception_3a/3x3 <- inception_3a/3x3_reduce
I0403 04:32:26.533396  2011 net.cpp:399] inception_3a/3x3 -> inception_3a/3x3
I0403 04:32:26.534160  2011 net.cpp:141] Setting up inception_3a/3x3
I0403 04:32:26.534183  2011 net.cpp:148] Top shape: 24 128 28 28 (2408448)
I0403 04:32:26.534198  2011 net.cpp:156] Memory required for data: 525042048
I0403 04:32:26.534214  2011 layer_factory.hpp:77] Creating layer inception_3a/relu_3x3
I0403 04:32:26.534234  2011 net.cpp:91] Creating Layer inception_3a/relu_3x3
I0403 04:32:26.534248  2011 net.cpp:425] inception_3a/relu_3x3 <- inception_3a/3x3
I0403 04:32:26.534265  2011 net.cpp:386] inception_3a/relu_3x3 -> inception_3a/3x3 (in-place)
I0403 04:32:26.534281  2011 net.cpp:141] Setting up inception_3a/relu_3x3
I0403 04:32:26.534298  2011 net.cpp:148] Top shape: 24 128 28 28 (2408448)
I0403 04:32:26.534312  2011 net.cpp:156] Memory required for data: 534675840
I0403 04:32:26.534337  2011 layer_factory.hpp:77] Creating layer inception_3a/5x5_reduce
I0403 04:32:26.534363  2011 net.cpp:91] Creating Layer inception_3a/5x5_reduce
I0403 04:32:26.534384  2011 net.cpp:425] inception_3a/5x5_reduce <- pool2/3x3_s2_pool2/3x3_s2_0_split_2
I0403 04:32:26.534404  2011 net.cpp:399] inception_3a/5x5_reduce -> inception_3a/5x5_reduce
I0403 04:32:26.534631  2011 net.cpp:141] Setting up inception_3a/5x5_reduce
I0403 04:32:26.534653  2011 net.cpp:148] Top shape: 24 16 28 28 (301056)
I0403 04:32:26.534667  2011 net.cpp:156] Memory required for data: 535880064
I0403 04:32:26.534682  2011 layer_factory.hpp:77] Creating layer inception_3a/relu_5x5_reduce
I0403 04:32:26.534699  2011 net.cpp:91] Creating Layer inception_3a/relu_5x5_reduce
I0403 04:32:26.534714  2011 net.cpp:425] inception_3a/relu_5x5_reduce <- inception_3a/5x5_reduce
I0403 04:32:26.534730  2011 net.cpp:386] inception_3a/relu_5x5_reduce -> inception_3a/5x5_reduce (in-place)
I0403 04:32:26.534747  2011 net.cpp:141] Setting up inception_3a/relu_5x5_reduce
I0403 04:32:26.534764  2011 net.cpp:148] Top shape: 24 16 28 28 (301056)
I0403 04:32:26.534776  2011 net.cpp:156] Memory required for data: 537084288
I0403 04:32:26.534790  2011 layer_factory.hpp:77] Creating layer inception_3a/5x5
I0403 04:32:26.534811  2011 net.cpp:91] Creating Layer inception_3a/5x5
I0403 04:32:26.534827  2011 net.cpp:425] inception_3a/5x5 <- inception_3a/5x5_reduce
I0403 04:32:26.534847  2011 net.cpp:399] inception_3a/5x5 -> inception_3a/5x5
I0403 04:32:26.535101  2011 net.cpp:141] Setting up inception_3a/5x5
I0403 04:32:26.535125  2011 net.cpp:148] Top shape: 24 32 28 28 (602112)
I0403 04:32:26.535151  2011 net.cpp:156] Memory required for data: 539492736
I0403 04:32:26.535169  2011 layer_factory.hpp:77] Creating layer inception_3a/relu_5x5
I0403 04:32:26.535187  2011 net.cpp:91] Creating Layer inception_3a/relu_5x5
I0403 04:32:26.535202  2011 net.cpp:425] inception_3a/relu_5x5 <- inception_3a/5x5
I0403 04:32:26.535218  2011 net.cpp:386] inception_3a/relu_5x5 -> inception_3a/5x5 (in-place)
I0403 04:32:26.535234  2011 net.cpp:141] Setting up inception_3a/relu_5x5
I0403 04:32:26.535249  2011 net.cpp:148] Top shape: 24 32 28 28 (602112)
I0403 04:32:26.535262  2011 net.cpp:156] Memory required for data: 541901184
I0403 04:32:26.535276  2011 layer_factory.hpp:77] Creating layer inception_3a/pool
I0403 04:32:26.535295  2011 net.cpp:91] Creating Layer inception_3a/pool
I0403 04:32:26.535311  2011 net.cpp:425] inception_3a/pool <- pool2/3x3_s2_pool2/3x3_s2_0_split_3
I0403 04:32:26.535339  2011 net.cpp:399] inception_3a/pool -> inception_3a/pool
I0403 04:32:26.535390  2011 net.cpp:141] Setting up inception_3a/pool
I0403 04:32:26.535413  2011 net.cpp:148] Top shape: 24 192 28 28 (3612672)
I0403 04:32:26.535426  2011 net.cpp:156] Memory required for data: 556351872
I0403 04:32:26.535440  2011 layer_factory.hpp:77] Creating layer inception_3a/pool_proj
I0403 04:32:26.535462  2011 net.cpp:91] Creating Layer inception_3a/pool_proj
I0403 04:32:26.535478  2011 net.cpp:425] inception_3a/pool_proj <- inception_3a/pool
I0403 04:32:26.535500  2011 net.cpp:399] inception_3a/pool_proj -> inception_3a/pool_proj
I0403 04:32:26.535725  2011 net.cpp:141] Setting up inception_3a/pool_proj
I0403 04:32:26.535748  2011 net.cpp:148] Top shape: 24 32 28 28 (602112)
I0403 04:32:26.535763  2011 net.cpp:156] Memory required for data: 558760320
I0403 04:32:26.535784  2011 layer_factory.hpp:77] Creating layer inception_3a/relu_pool_proj
I0403 04:32:26.535802  2011 net.cpp:91] Creating Layer inception_3a/relu_pool_proj
I0403 04:32:26.535816  2011 net.cpp:425] inception_3a/relu_pool_proj <- inception_3a/pool_proj
I0403 04:32:26.535835  2011 net.cpp:386] inception_3a/relu_pool_proj -> inception_3a/pool_proj (in-place)
I0403 04:32:26.535853  2011 net.cpp:141] Setting up inception_3a/relu_pool_proj
I0403 04:32:26.535869  2011 net.cpp:148] Top shape: 24 32 28 28 (602112)
I0403 04:32:26.535883  2011 net.cpp:156] Memory required for data: 561168768
I0403 04:32:26.535897  2011 layer_factory.hpp:77] Creating layer inception_3a/output
I0403 04:32:26.535913  2011 net.cpp:91] Creating Layer inception_3a/output
I0403 04:32:26.535928  2011 net.cpp:425] inception_3a/output <- inception_3a/1x1
I0403 04:32:26.535943  2011 net.cpp:425] inception_3a/output <- inception_3a/3x3
I0403 04:32:26.535958  2011 net.cpp:425] inception_3a/output <- inception_3a/5x5
I0403 04:32:26.535971  2011 net.cpp:425] inception_3a/output <- inception_3a/pool_proj
I0403 04:32:26.535987  2011 net.cpp:399] inception_3a/output -> inception_3a/output
I0403 04:32:26.536057  2011 net.cpp:141] Setting up inception_3a/output
I0403 04:32:26.536079  2011 net.cpp:148] Top shape: 24 256 28 28 (4816896)
I0403 04:32:26.536094  2011 net.cpp:156] Memory required for data: 580436352
I0403 04:32:26.536108  2011 layer_factory.hpp:77] Creating layer inception_3a/output_inception_3a/output_0_split
I0403 04:32:26.536125  2011 net.cpp:91] Creating Layer inception_3a/output_inception_3a/output_0_split
I0403 04:32:26.536139  2011 net.cpp:425] inception_3a/output_inception_3a/output_0_split <- inception_3a/output
I0403 04:32:26.536159  2011 net.cpp:399] inception_3a/output_inception_3a/output_0_split -> inception_3a/output_inception_3a/output_0_split_0
I0403 04:32:26.536178  2011 net.cpp:399] inception_3a/output_inception_3a/output_0_split -> inception_3a/output_inception_3a/output_0_split_1
I0403 04:32:26.536197  2011 net.cpp:399] inception_3a/output_inception_3a/output_0_split -> inception_3a/output_inception_3a/output_0_split_2
I0403 04:32:26.536217  2011 net.cpp:399] inception_3a/output_inception_3a/output_0_split -> inception_3a/output_inception_3a/output_0_split_3
I0403 04:32:26.536278  2011 net.cpp:141] Setting up inception_3a/output_inception_3a/output_0_split
I0403 04:32:26.536311  2011 net.cpp:148] Top shape: 24 256 28 28 (4816896)
I0403 04:32:26.536341  2011 net.cpp:148] Top shape: 24 256 28 28 (4816896)
I0403 04:32:26.536355  2011 net.cpp:148] Top shape: 24 256 28 28 (4816896)
I0403 04:32:26.536370  2011 net.cpp:148] Top shape: 24 256 28 28 (4816896)
I0403 04:32:26.536387  2011 net.cpp:156] Memory required for data: 657506688
I0403 04:32:26.536401  2011 layer_factory.hpp:77] Creating layer inception_3b/1x1
I0403 04:32:26.536420  2011 net.cpp:91] Creating Layer inception_3b/1x1
I0403 04:32:26.536437  2011 net.cpp:425] inception_3b/1x1 <- inception_3a/output_inception_3a/output_0_split_0
I0403 04:32:26.536458  2011 net.cpp:399] inception_3b/1x1 -> inception_3b/1x1
I0403 04:32:26.536823  2011 net.cpp:141] Setting up inception_3b/1x1
I0403 04:32:26.536845  2011 net.cpp:148] Top shape: 24 128 28 28 (2408448)
I0403 04:32:26.536859  2011 net.cpp:156] Memory required for data: 667140480
I0403 04:32:26.536876  2011 layer_factory.hpp:77] Creating layer inception_3b/relu_1x1
I0403 04:32:26.536893  2011 net.cpp:91] Creating Layer inception_3b/relu_1x1
I0403 04:32:26.536907  2011 net.cpp:425] inception_3b/relu_1x1 <- inception_3b/1x1
I0403 04:32:26.536923  2011 net.cpp:386] inception_3b/relu_1x1 -> inception_3b/1x1 (in-place)
I0403 04:32:26.536942  2011 net.cpp:141] Setting up inception_3b/relu_1x1
I0403 04:32:26.536957  2011 net.cpp:148] Top shape: 24 128 28 28 (2408448)
I0403 04:32:26.536970  2011 net.cpp:156] Memory required for data: 676774272
I0403 04:32:26.536984  2011 layer_factory.hpp:77] Creating layer inception_3b/3x3_reduce
I0403 04:32:26.537005  2011 net.cpp:91] Creating Layer inception_3b/3x3_reduce
I0403 04:32:26.537024  2011 net.cpp:425] inception_3b/3x3_reduce <- inception_3a/output_inception_3a/output_0_split_1
I0403 04:32:26.537044  2011 net.cpp:399] inception_3b/3x3_reduce -> inception_3b/3x3_reduce
I0403 04:32:26.537430  2011 net.cpp:141] Setting up inception_3b/3x3_reduce
I0403 04:32:26.537454  2011 net.cpp:148] Top shape: 24 128 28 28 (2408448)
I0403 04:32:26.537468  2011 net.cpp:156] Memory required for data: 686408064
I0403 04:32:26.537485  2011 layer_factory.hpp:77] Creating layer inception_3b/relu_3x3_reduce
I0403 04:32:26.537505  2011 net.cpp:91] Creating Layer inception_3b/relu_3x3_reduce
I0403 04:32:26.537523  2011 net.cpp:425] inception_3b/relu_3x3_reduce <- inception_3b/3x3_reduce
I0403 04:32:26.537539  2011 net.cpp:386] inception_3b/relu_3x3_reduce -> inception_3b/3x3_reduce (in-place)
I0403 04:32:26.537557  2011 net.cpp:141] Setting up inception_3b/relu_3x3_reduce
I0403 04:32:26.537575  2011 net.cpp:148] Top shape: 24 128 28 28 (2408448)
I0403 04:32:26.537588  2011 net.cpp:156] Memory required for data: 696041856
I0403 04:32:26.537602  2011 layer_factory.hpp:77] Creating layer inception_3b/3x3
I0403 04:32:26.537627  2011 net.cpp:91] Creating Layer inception_3b/3x3
I0403 04:32:26.537644  2011 net.cpp:425] inception_3b/3x3 <- inception_3b/3x3_reduce
I0403 04:32:26.537667  2011 net.cpp:399] inception_3b/3x3 -> inception_3b/3x3
I0403 04:32:26.539592  2011 net.cpp:141] Setting up inception_3b/3x3
I0403 04:32:26.539619  2011 net.cpp:148] Top shape: 24 192 28 28 (3612672)
I0403 04:32:26.539633  2011 net.cpp:156] Memory required for data: 710492544
I0403 04:32:26.539651  2011 layer_factory.hpp:77] Creating layer inception_3b/relu_3x3
I0403 04:32:26.539669  2011 net.cpp:91] Creating Layer inception_3b/relu_3x3
I0403 04:32:26.539685  2011 net.cpp:425] inception_3b/relu_3x3 <- inception_3b/3x3
I0403 04:32:26.539701  2011 net.cpp:386] inception_3b/relu_3x3 -> inception_3b/3x3 (in-place)
I0403 04:32:26.539719  2011 net.cpp:141] Setting up inception_3b/relu_3x3
I0403 04:32:26.539739  2011 net.cpp:148] Top shape: 24 192 28 28 (3612672)
I0403 04:32:26.539752  2011 net.cpp:156] Memory required for data: 724943232
I0403 04:32:26.539767  2011 layer_factory.hpp:77] Creating layer inception_3b/5x5_reduce
I0403 04:32:26.539786  2011 net.cpp:91] Creating Layer inception_3b/5x5_reduce
I0403 04:32:26.539803  2011 net.cpp:425] inception_3b/5x5_reduce <- inception_3a/output_inception_3a/output_0_split_2
I0403 04:32:26.539837  2011 net.cpp:399] inception_3b/5x5_reduce -> inception_3b/5x5_reduce
I0403 04:32:26.540078  2011 net.cpp:141] Setting up inception_3b/5x5_reduce
I0403 04:32:26.540103  2011 net.cpp:148] Top shape: 24 32 28 28 (602112)
I0403 04:32:26.540117  2011 net.cpp:156] Memory required for data: 727351680
I0403 04:32:26.540134  2011 layer_factory.hpp:77] Creating layer inception_3b/relu_5x5_reduce
I0403 04:32:26.540151  2011 net.cpp:91] Creating Layer inception_3b/relu_5x5_reduce
I0403 04:32:26.540166  2011 net.cpp:425] inception_3b/relu_5x5_reduce <- inception_3b/5x5_reduce
I0403 04:32:26.540182  2011 net.cpp:386] inception_3b/relu_5x5_reduce -> inception_3b/5x5_reduce (in-place)
I0403 04:32:26.540200  2011 net.cpp:141] Setting up inception_3b/relu_5x5_reduce
I0403 04:32:26.540216  2011 net.cpp:148] Top shape: 24 32 28 28 (602112)
I0403 04:32:26.540230  2011 net.cpp:156] Memory required for data: 729760128
I0403 04:32:26.540243  2011 layer_factory.hpp:77] Creating layer inception_3b/5x5
I0403 04:32:26.540266  2011 net.cpp:91] Creating Layer inception_3b/5x5
I0403 04:32:26.540282  2011 net.cpp:425] inception_3b/5x5 <- inception_3b/5x5_reduce
I0403 04:32:26.540303  2011 net.cpp:399] inception_3b/5x5 -> inception_3b/5x5
I0403 04:32:26.541435  2011 net.cpp:141] Setting up inception_3b/5x5
I0403 04:32:26.541462  2011 net.cpp:148] Top shape: 24 96 28 28 (1806336)
I0403 04:32:26.541478  2011 net.cpp:156] Memory required for data: 736985472
I0403 04:32:26.541496  2011 layer_factory.hpp:77] Creating layer inception_3b/relu_5x5
I0403 04:32:26.541513  2011 net.cpp:91] Creating Layer inception_3b/relu_5x5
I0403 04:32:26.541528  2011 net.cpp:425] inception_3b/relu_5x5 <- inception_3b/5x5
I0403 04:32:26.541548  2011 net.cpp:386] inception_3b/relu_5x5 -> inception_3b/5x5 (in-place)
I0403 04:32:26.541566  2011 net.cpp:141] Setting up inception_3b/relu_5x5
I0403 04:32:26.541584  2011 net.cpp:148] Top shape: 24 96 28 28 (1806336)
I0403 04:32:26.541597  2011 net.cpp:156] Memory required for data: 744210816
I0403 04:32:26.541611  2011 layer_factory.hpp:77] Creating layer inception_3b/pool
I0403 04:32:26.541628  2011 net.cpp:91] Creating Layer inception_3b/pool
I0403 04:32:26.541643  2011 net.cpp:425] inception_3b/pool <- inception_3a/output_inception_3a/output_0_split_3
I0403 04:32:26.541663  2011 net.cpp:399] inception_3b/pool -> inception_3b/pool
I0403 04:32:26.541712  2011 net.cpp:141] Setting up inception_3b/pool
I0403 04:32:26.541734  2011 net.cpp:148] Top shape: 24 256 28 28 (4816896)
I0403 04:32:26.541749  2011 net.cpp:156] Memory required for data: 763478400
I0403 04:32:26.541761  2011 layer_factory.hpp:77] Creating layer inception_3b/pool_proj
I0403 04:32:26.541784  2011 net.cpp:91] Creating Layer inception_3b/pool_proj
I0403 04:32:26.541800  2011 net.cpp:425] inception_3b/pool_proj <- inception_3b/pool
I0403 04:32:26.541821  2011 net.cpp:399] inception_3b/pool_proj -> inception_3b/pool_proj
I0403 04:32:26.542103  2011 net.cpp:141] Setting up inception_3b/pool_proj
I0403 04:32:26.542126  2011 net.cpp:148] Top shape: 24 64 28 28 (1204224)
I0403 04:32:26.542140  2011 net.cpp:156] Memory required for data: 768295296
I0403 04:32:26.542157  2011 layer_factory.hpp:77] Creating layer inception_3b/relu_pool_proj
I0403 04:32:26.542174  2011 net.cpp:91] Creating Layer inception_3b/relu_pool_proj
I0403 04:32:26.542191  2011 net.cpp:425] inception_3b/relu_pool_proj <- inception_3b/pool_proj
I0403 04:32:26.542207  2011 net.cpp:386] inception_3b/relu_pool_proj -> inception_3b/pool_proj (in-place)
I0403 04:32:26.542224  2011 net.cpp:141] Setting up inception_3b/relu_pool_proj
I0403 04:32:26.542242  2011 net.cpp:148] Top shape: 24 64 28 28 (1204224)
I0403 04:32:26.542255  2011 net.cpp:156] Memory required for data: 773112192
I0403 04:32:26.542268  2011 layer_factory.hpp:77] Creating layer inception_3b/output
I0403 04:32:26.542289  2011 net.cpp:91] Creating Layer inception_3b/output
I0403 04:32:26.542306  2011 net.cpp:425] inception_3b/output <- inception_3b/1x1
I0403 04:32:26.542335  2011 net.cpp:425] inception_3b/output <- inception_3b/3x3
I0403 04:32:26.542352  2011 net.cpp:425] inception_3b/output <- inception_3b/5x5
I0403 04:32:26.542367  2011 net.cpp:425] inception_3b/output <- inception_3b/pool_proj
I0403 04:32:26.542397  2011 net.cpp:399] inception_3b/output -> inception_3b/output
I0403 04:32:26.542438  2011 net.cpp:141] Setting up inception_3b/output
I0403 04:32:26.542459  2011 net.cpp:148] Top shape: 24 480 28 28 (9031680)
I0403 04:32:26.542474  2011 net.cpp:156] Memory required for data: 809238912
I0403 04:32:26.542489  2011 layer_factory.hpp:77] Creating layer pool3/3x3_s2
I0403 04:32:26.542505  2011 net.cpp:91] Creating Layer pool3/3x3_s2
I0403 04:32:26.542520  2011 net.cpp:425] pool3/3x3_s2 <- inception_3b/output
I0403 04:32:26.542538  2011 net.cpp:399] pool3/3x3_s2 -> pool3/3x3_s2
I0403 04:32:26.542584  2011 net.cpp:141] Setting up pool3/3x3_s2
I0403 04:32:26.542605  2011 net.cpp:148] Top shape: 24 480 14 14 (2257920)
I0403 04:32:26.542620  2011 net.cpp:156] Memory required for data: 818270592
I0403 04:32:26.542634  2011 layer_factory.hpp:77] Creating layer pool3/3x3_s2_pool3/3x3_s2_0_split
I0403 04:32:26.542652  2011 net.cpp:91] Creating Layer pool3/3x3_s2_pool3/3x3_s2_0_split
I0403 04:32:26.542668  2011 net.cpp:425] pool3/3x3_s2_pool3/3x3_s2_0_split <- pool3/3x3_s2
I0403 04:32:26.542685  2011 net.cpp:399] pool3/3x3_s2_pool3/3x3_s2_0_split -> pool3/3x3_s2_pool3/3x3_s2_0_split_0
I0403 04:32:26.542704  2011 net.cpp:399] pool3/3x3_s2_pool3/3x3_s2_0_split -> pool3/3x3_s2_pool3/3x3_s2_0_split_1
I0403 04:32:26.542726  2011 net.cpp:399] pool3/3x3_s2_pool3/3x3_s2_0_split -> pool3/3x3_s2_pool3/3x3_s2_0_split_2
I0403 04:32:26.542745  2011 net.cpp:399] pool3/3x3_s2_pool3/3x3_s2_0_split -> pool3/3x3_s2_pool3/3x3_s2_0_split_3
I0403 04:32:26.542805  2011 net.cpp:141] Setting up pool3/3x3_s2_pool3/3x3_s2_0_split
I0403 04:32:26.542826  2011 net.cpp:148] Top shape: 24 480 14 14 (2257920)
I0403 04:32:26.542842  2011 net.cpp:148] Top shape: 24 480 14 14 (2257920)
I0403 04:32:26.542857  2011 net.cpp:148] Top shape: 24 480 14 14 (2257920)
I0403 04:32:26.542871  2011 net.cpp:148] Top shape: 24 480 14 14 (2257920)
I0403 04:32:26.542884  2011 net.cpp:156] Memory required for data: 854397312
I0403 04:32:26.542898  2011 layer_factory.hpp:77] Creating layer inception_4a/1x1
I0403 04:32:26.542920  2011 net.cpp:91] Creating Layer inception_4a/1x1
I0403 04:32:26.542937  2011 net.cpp:425] inception_4a/1x1 <- pool3/3x3_s2_pool3/3x3_s2_0_split_0
I0403 04:32:26.542959  2011 net.cpp:399] inception_4a/1x1 -> inception_4a/1x1
I0403 04:32:26.543669  2011 net.cpp:141] Setting up inception_4a/1x1
I0403 04:32:26.543694  2011 net.cpp:148] Top shape: 24 192 14 14 (903168)
I0403 04:32:26.543707  2011 net.cpp:156] Memory required for data: 858009984
I0403 04:32:26.543725  2011 layer_factory.hpp:77] Creating layer inception_4a/relu_1x1
I0403 04:32:26.543742  2011 net.cpp:91] Creating Layer inception_4a/relu_1x1
I0403 04:32:26.543757  2011 net.cpp:425] inception_4a/relu_1x1 <- inception_4a/1x1
I0403 04:32:26.543774  2011 net.cpp:386] inception_4a/relu_1x1 -> inception_4a/1x1 (in-place)
I0403 04:32:26.543792  2011 net.cpp:141] Setting up inception_4a/relu_1x1
I0403 04:32:26.543807  2011 net.cpp:148] Top shape: 24 192 14 14 (903168)
I0403 04:32:26.543820  2011 net.cpp:156] Memory required for data: 861622656
I0403 04:32:26.543833  2011 layer_factory.hpp:77] Creating layer inception_4a/3x3_reduce
I0403 04:32:26.543856  2011 net.cpp:91] Creating Layer inception_4a/3x3_reduce
I0403 04:32:26.543874  2011 net.cpp:425] inception_4a/3x3_reduce <- pool3/3x3_s2_pool3/3x3_s2_0_split_1
I0403 04:32:26.543895  2011 net.cpp:399] inception_4a/3x3_reduce -> inception_4a/3x3_reduce
I0403 04:32:26.544342  2011 net.cpp:141] Setting up inception_4a/3x3_reduce
I0403 04:32:26.544366  2011 net.cpp:148] Top shape: 24 96 14 14 (451584)
I0403 04:32:26.544385  2011 net.cpp:156] Memory required for data: 863428992
I0403 04:32:26.544410  2011 layer_factory.hpp:77] Creating layer inception_4a/relu_3x3_reduce
I0403 04:32:26.544430  2011 net.cpp:91] Creating Layer inception_4a/relu_3x3_reduce
I0403 04:32:26.544459  2011 net.cpp:425] inception_4a/relu_3x3_reduce <- inception_4a/3x3_reduce
I0403 04:32:26.544477  2011 net.cpp:386] inception_4a/relu_3x3_reduce -> inception_4a/3x3_reduce (in-place)
I0403 04:32:26.544497  2011 net.cpp:141] Setting up inception_4a/relu_3x3_reduce
I0403 04:32:26.544513  2011 net.cpp:148] Top shape: 24 96 14 14 (451584)
I0403 04:32:26.544528  2011 net.cpp:156] Memory required for data: 865235328
I0403 04:32:26.544540  2011 layer_factory.hpp:77] Creating layer inception_4a/3x3
I0403 04:32:26.544562  2011 net.cpp:91] Creating Layer inception_4a/3x3
I0403 04:32:26.544579  2011 net.cpp:425] inception_4a/3x3 <- inception_4a/3x3_reduce
I0403 04:32:26.544600  2011 net.cpp:399] inception_4a/3x3 -> inception_4a/3x3
I0403 04:32:26.546270  2011 net.cpp:141] Setting up inception_4a/3x3
I0403 04:32:26.546299  2011 net.cpp:148] Top shape: 24 208 14 14 (978432)
I0403 04:32:26.546315  2011 net.cpp:156] Memory required for data: 869149056
I0403 04:32:26.546334  2011 layer_factory.hpp:77] Creating layer inception_4a/relu_3x3
I0403 04:32:26.546350  2011 net.cpp:91] Creating Layer inception_4a/relu_3x3
I0403 04:32:26.546365  2011 net.cpp:425] inception_4a/relu_3x3 <- inception_4a/3x3
I0403 04:32:26.546386  2011 net.cpp:386] inception_4a/relu_3x3 -> inception_4a/3x3 (in-place)
I0403 04:32:26.546406  2011 net.cpp:141] Setting up inception_4a/relu_3x3
I0403 04:32:26.546423  2011 net.cpp:148] Top shape: 24 208 14 14 (978432)
I0403 04:32:26.546437  2011 net.cpp:156] Memory required for data: 873062784
I0403 04:32:26.546450  2011 layer_factory.hpp:77] Creating layer inception_4a/5x5_reduce
I0403 04:32:26.546473  2011 net.cpp:91] Creating Layer inception_4a/5x5_reduce
I0403 04:32:26.546490  2011 net.cpp:425] inception_4a/5x5_reduce <- pool3/3x3_s2_pool3/3x3_s2_0_split_2
I0403 04:32:26.546511  2011 net.cpp:399] inception_4a/5x5_reduce -> inception_4a/5x5_reduce
I0403 04:32:26.546749  2011 net.cpp:141] Setting up inception_4a/5x5_reduce
I0403 04:32:26.546773  2011 net.cpp:148] Top shape: 24 16 14 14 (75264)
I0403 04:32:26.546787  2011 net.cpp:156] Memory required for data: 873363840
I0403 04:32:26.546803  2011 layer_factory.hpp:77] Creating layer inception_4a/relu_5x5_reduce
I0403 04:32:26.546823  2011 net.cpp:91] Creating Layer inception_4a/relu_5x5_reduce
I0403 04:32:26.546839  2011 net.cpp:425] inception_4a/relu_5x5_reduce <- inception_4a/5x5_reduce
I0403 04:32:26.546855  2011 net.cpp:386] inception_4a/relu_5x5_reduce -> inception_4a/5x5_reduce (in-place)
I0403 04:32:26.546875  2011 net.cpp:141] Setting up inception_4a/relu_5x5_reduce
I0403 04:32:26.546891  2011 net.cpp:148] Top shape: 24 16 14 14 (75264)
I0403 04:32:26.546905  2011 net.cpp:156] Memory required for data: 873664896
I0403 04:32:26.546918  2011 layer_factory.hpp:77] Creating layer inception_4a/5x5
I0403 04:32:26.546941  2011 net.cpp:91] Creating Layer inception_4a/5x5
I0403 04:32:26.546958  2011 net.cpp:425] inception_4a/5x5 <- inception_4a/5x5_reduce
I0403 04:32:26.546977  2011 net.cpp:399] inception_4a/5x5 -> inception_4a/5x5
I0403 04:32:26.547292  2011 net.cpp:141] Setting up inception_4a/5x5
I0403 04:32:26.547319  2011 net.cpp:148] Top shape: 24 48 14 14 (225792)
I0403 04:32:26.547335  2011 net.cpp:156] Memory required for data: 874568064
I0403 04:32:26.547353  2011 layer_factory.hpp:77] Creating layer inception_4a/relu_5x5
I0403 04:32:26.547370  2011 net.cpp:91] Creating Layer inception_4a/relu_5x5
I0403 04:32:26.547391  2011 net.cpp:425] inception_4a/relu_5x5 <- inception_4a/5x5
I0403 04:32:26.547410  2011 net.cpp:386] inception_4a/relu_5x5 -> inception_4a/5x5 (in-place)
I0403 04:32:26.547440  2011 net.cpp:141] Setting up inception_4a/relu_5x5
I0403 04:32:26.547456  2011 net.cpp:148] Top shape: 24 48 14 14 (225792)
I0403 04:32:26.547468  2011 net.cpp:156] Memory required for data: 875471232
I0403 04:32:26.547482  2011 layer_factory.hpp:77] Creating layer inception_4a/pool
I0403 04:32:26.547499  2011 net.cpp:91] Creating Layer inception_4a/pool
I0403 04:32:26.547515  2011 net.cpp:425] inception_4a/pool <- pool3/3x3_s2_pool3/3x3_s2_0_split_3
I0403 04:32:26.547549  2011 net.cpp:399] inception_4a/pool -> inception_4a/pool
I0403 04:32:26.547600  2011 net.cpp:141] Setting up inception_4a/pool
I0403 04:32:26.547622  2011 net.cpp:148] Top shape: 24 480 14 14 (2257920)
I0403 04:32:26.547636  2011 net.cpp:156] Memory required for data: 884502912
I0403 04:32:26.547651  2011 layer_factory.hpp:77] Creating layer inception_4a/pool_proj
I0403 04:32:26.547673  2011 net.cpp:91] Creating Layer inception_4a/pool_proj
I0403 04:32:26.547689  2011 net.cpp:425] inception_4a/pool_proj <- inception_4a/pool
I0403 04:32:26.547708  2011 net.cpp:399] inception_4a/pool_proj -> inception_4a/pool_proj
I0403 04:32:26.548091  2011 net.cpp:141] Setting up inception_4a/pool_proj
I0403 04:32:26.548115  2011 net.cpp:148] Top shape: 24 64 14 14 (301056)
I0403 04:32:26.548130  2011 net.cpp:156] Memory required for data: 885707136
I0403 04:32:26.548146  2011 layer_factory.hpp:77] Creating layer inception_4a/relu_pool_proj
I0403 04:32:26.548163  2011 net.cpp:91] Creating Layer inception_4a/relu_pool_proj
I0403 04:32:26.548179  2011 net.cpp:425] inception_4a/relu_pool_proj <- inception_4a/pool_proj
I0403 04:32:26.548197  2011 net.cpp:386] inception_4a/relu_pool_proj -> inception_4a/pool_proj (in-place)
I0403 04:32:26.548218  2011 net.cpp:141] Setting up inception_4a/relu_pool_proj
I0403 04:32:26.548233  2011 net.cpp:148] Top shape: 24 64 14 14 (301056)
I0403 04:32:26.548248  2011 net.cpp:156] Memory required for data: 886911360
I0403 04:32:26.548261  2011 layer_factory.hpp:77] Creating layer inception_4a/output
I0403 04:32:26.548279  2011 net.cpp:91] Creating Layer inception_4a/output
I0403 04:32:26.548292  2011 net.cpp:425] inception_4a/output <- inception_4a/1x1
I0403 04:32:26.548307  2011 net.cpp:425] inception_4a/output <- inception_4a/3x3
I0403 04:32:26.548322  2011 net.cpp:425] inception_4a/output <- inception_4a/5x5
I0403 04:32:26.548337  2011 net.cpp:425] inception_4a/output <- inception_4a/pool_proj
I0403 04:32:26.548354  2011 net.cpp:399] inception_4a/output -> inception_4a/output
I0403 04:32:26.548394  2011 net.cpp:141] Setting up inception_4a/output
I0403 04:32:26.548418  2011 net.cpp:148] Top shape: 24 512 14 14 (2408448)
I0403 04:32:26.548431  2011 net.cpp:156] Memory required for data: 896545152
I0403 04:32:26.548445  2011 layer_factory.hpp:77] Creating layer inception_4a/output_inception_4a/output_0_split
I0403 04:32:26.548465  2011 net.cpp:91] Creating Layer inception_4a/output_inception_4a/output_0_split
I0403 04:32:26.548480  2011 net.cpp:425] inception_4a/output_inception_4a/output_0_split <- inception_4a/output
I0403 04:32:26.548497  2011 net.cpp:399] inception_4a/output_inception_4a/output_0_split -> inception_4a/output_inception_4a/output_0_split_0
I0403 04:32:26.548517  2011 net.cpp:399] inception_4a/output_inception_4a/output_0_split -> inception_4a/output_inception_4a/output_0_split_1
I0403 04:32:26.548537  2011 net.cpp:399] inception_4a/output_inception_4a/output_0_split -> inception_4a/output_inception_4a/output_0_split_2
I0403 04:32:26.548557  2011 net.cpp:399] inception_4a/output_inception_4a/output_0_split -> inception_4a/output_inception_4a/output_0_split_3
I0403 04:32:26.548575  2011 net.cpp:399] inception_4a/output_inception_4a/output_0_split -> inception_4a/output_inception_4a/output_0_split_4
I0403 04:32:26.548648  2011 net.cpp:141] Setting up inception_4a/output_inception_4a/output_0_split
I0403 04:32:26.548671  2011 net.cpp:148] Top shape: 24 512 14 14 (2408448)
I0403 04:32:26.548686  2011 net.cpp:148] Top shape: 24 512 14 14 (2408448)
I0403 04:32:26.548701  2011 net.cpp:148] Top shape: 24 512 14 14 (2408448)
I0403 04:32:26.548714  2011 net.cpp:148] Top shape: 24 512 14 14 (2408448)
I0403 04:32:26.548728  2011 net.cpp:148] Top shape: 24 512 14 14 (2408448)
I0403 04:32:26.548743  2011 net.cpp:156] Memory required for data: 944714112
I0403 04:32:26.548755  2011 layer_factory.hpp:77] Creating layer loss1/ave_pool
I0403 04:32:26.548773  2011 net.cpp:91] Creating Layer loss1/ave_pool
I0403 04:32:26.548800  2011 net.cpp:425] loss1/ave_pool <- inception_4a/output_inception_4a/output_0_split_0
I0403 04:32:26.548820  2011 net.cpp:399] loss1/ave_pool -> loss1/ave_pool
I0403 04:32:26.548857  2011 net.cpp:141] Setting up loss1/ave_pool
I0403 04:32:26.548878  2011 net.cpp:148] Top shape: 24 512 4 4 (196608)
I0403 04:32:26.548892  2011 net.cpp:156] Memory required for data: 945500544
I0403 04:32:26.548907  2011 layer_factory.hpp:77] Creating layer loss1/conv
I0403 04:32:26.548930  2011 net.cpp:91] Creating Layer loss1/conv
I0403 04:32:26.548946  2011 net.cpp:425] loss1/conv <- loss1/ave_pool
I0403 04:32:26.548964  2011 net.cpp:399] loss1/conv -> loss1/conv
I0403 04:32:26.549507  2011 net.cpp:141] Setting up loss1/conv
I0403 04:32:26.549531  2011 net.cpp:148] Top shape: 24 128 4 4 (49152)
I0403 04:32:26.549546  2011 net.cpp:156] Memory required for data: 945697152
I0403 04:32:26.549562  2011 layer_factory.hpp:77] Creating layer loss1/relu_conv
I0403 04:32:26.549579  2011 net.cpp:91] Creating Layer loss1/relu_conv
I0403 04:32:26.549594  2011 net.cpp:425] loss1/relu_conv <- loss1/conv
I0403 04:32:26.549610  2011 net.cpp:386] loss1/relu_conv -> loss1/conv (in-place)
I0403 04:32:26.549631  2011 net.cpp:141] Setting up loss1/relu_conv
I0403 04:32:26.549649  2011 net.cpp:148] Top shape: 24 128 4 4 (49152)
I0403 04:32:26.549662  2011 net.cpp:156] Memory required for data: 945893760
I0403 04:32:26.549676  2011 layer_factory.hpp:77] Creating layer loss1/fc
I0403 04:32:26.549698  2011 net.cpp:91] Creating Layer loss1/fc
I0403 04:32:26.549715  2011 net.cpp:425] loss1/fc <- loss1/conv
I0403 04:32:26.549732  2011 net.cpp:399] loss1/fc -> loss1/fc
I0403 04:32:26.564990  2011 net.cpp:141] Setting up loss1/fc
I0403 04:32:26.565034  2011 net.cpp:148] Top shape: 24 1024 (24576)
I0403 04:32:26.565049  2011 net.cpp:156] Memory required for data: 945992064
I0403 04:32:26.565067  2011 layer_factory.hpp:77] Creating layer loss1/relu_fc
I0403 04:32:26.565085  2011 net.cpp:91] Creating Layer loss1/relu_fc
I0403 04:32:26.565102  2011 net.cpp:425] loss1/relu_fc <- loss1/fc
I0403 04:32:26.565122  2011 net.cpp:386] loss1/relu_fc -> loss1/fc (in-place)
I0403 04:32:26.565143  2011 net.cpp:141] Setting up loss1/relu_fc
I0403 04:32:26.565160  2011 net.cpp:148] Top shape: 24 1024 (24576)
I0403 04:32:26.565173  2011 net.cpp:156] Memory required for data: 946090368
I0403 04:32:26.565186  2011 layer_factory.hpp:77] Creating layer loss1/drop_fc
I0403 04:32:26.565213  2011 net.cpp:91] Creating Layer loss1/drop_fc
I0403 04:32:26.565230  2011 net.cpp:425] loss1/drop_fc <- loss1/fc
I0403 04:32:26.565248  2011 net.cpp:386] loss1/drop_fc -> loss1/fc (in-place)
I0403 04:32:26.565291  2011 net.cpp:141] Setting up loss1/drop_fc
I0403 04:32:26.565312  2011 net.cpp:148] Top shape: 24 1024 (24576)
I0403 04:32:26.565326  2011 net.cpp:156] Memory required for data: 946188672
I0403 04:32:26.565340  2011 layer_factory.hpp:77] Creating layer loss1/classifier_plantvillage
I0403 04:32:26.565358  2011 net.cpp:91] Creating Layer loss1/classifier_plantvillage
I0403 04:32:26.565377  2011 net.cpp:425] loss1/classifier_plantvillage <- loss1/fc
I0403 04:32:26.565400  2011 net.cpp:399] loss1/classifier_plantvillage -> loss1/classifier_plantvillage
I0403 04:32:26.566220  2011 net.cpp:141] Setting up loss1/classifier_plantvillage
I0403 04:32:26.566251  2011 net.cpp:148] Top shape: 24 38 (912)
I0403 04:32:26.566267  2011 net.cpp:156] Memory required for data: 946192320
I0403 04:32:26.566283  2011 layer_factory.hpp:77] Creating layer inception_4b/1x1
I0403 04:32:26.566305  2011 net.cpp:91] Creating Layer inception_4b/1x1
I0403 04:32:26.566323  2011 net.cpp:425] inception_4b/1x1 <- inception_4a/output_inception_4a/output_0_split_1
I0403 04:32:26.566344  2011 net.cpp:399] inception_4b/1x1 -> inception_4b/1x1
I0403 04:32:26.566982  2011 net.cpp:141] Setting up inception_4b/1x1
I0403 04:32:26.567005  2011 net.cpp:148] Top shape: 24 160 14 14 (752640)
I0403 04:32:26.567018  2011 net.cpp:156] Memory required for data: 949202880
I0403 04:32:26.567035  2011 layer_factory.hpp:77] Creating layer inception_4b/relu_1x1
I0403 04:32:26.567070  2011 net.cpp:91] Creating Layer inception_4b/relu_1x1
I0403 04:32:26.567086  2011 net.cpp:425] inception_4b/relu_1x1 <- inception_4b/1x1
I0403 04:32:26.567103  2011 net.cpp:386] inception_4b/relu_1x1 -> inception_4b/1x1 (in-place)
I0403 04:32:26.567122  2011 net.cpp:141] Setting up inception_4b/relu_1x1
I0403 04:32:26.567139  2011 net.cpp:148] Top shape: 24 160 14 14 (752640)
I0403 04:32:26.567152  2011 net.cpp:156] Memory required for data: 952213440
I0403 04:32:26.567167  2011 layer_factory.hpp:77] Creating layer inception_4b/3x3_reduce
I0403 04:32:26.567188  2011 net.cpp:91] Creating Layer inception_4b/3x3_reduce
I0403 04:32:26.567204  2011 net.cpp:425] inception_4b/3x3_reduce <- inception_4a/output_inception_4a/output_0_split_2
I0403 04:32:26.567224  2011 net.cpp:399] inception_4b/3x3_reduce -> inception_4b/3x3_reduce
I0403 04:32:26.567720  2011 net.cpp:141] Setting up inception_4b/3x3_reduce
I0403 04:32:26.567744  2011 net.cpp:148] Top shape: 24 112 14 14 (526848)
I0403 04:32:26.567759  2011 net.cpp:156] Memory required for data: 954320832
I0403 04:32:26.567775  2011 layer_factory.hpp:77] Creating layer inception_4b/relu_3x3_reduce
I0403 04:32:26.567792  2011 net.cpp:91] Creating Layer inception_4b/relu_3x3_reduce
I0403 04:32:26.567807  2011 net.cpp:425] inception_4b/relu_3x3_reduce <- inception_4b/3x3_reduce
I0403 04:32:26.567824  2011 net.cpp:386] inception_4b/relu_3x3_reduce -> inception_4b/3x3_reduce (in-place)
I0403 04:32:26.567842  2011 net.cpp:141] Setting up inception_4b/relu_3x3_reduce
I0403 04:32:26.567860  2011 net.cpp:148] Top shape: 24 112 14 14 (526848)
I0403 04:32:26.567874  2011 net.cpp:156] Memory required for data: 956428224
I0403 04:32:26.567888  2011 layer_factory.hpp:77] Creating layer inception_4b/3x3
I0403 04:32:26.567908  2011 net.cpp:91] Creating Layer inception_4b/3x3
I0403 04:32:26.567924  2011 net.cpp:425] inception_4b/3x3 <- inception_4b/3x3_reduce
I0403 04:32:26.567944  2011 net.cpp:399] inception_4b/3x3 -> inception_4b/3x3
I0403 04:32:26.569800  2011 net.cpp:141] Setting up inception_4b/3x3
I0403 04:32:26.569826  2011 net.cpp:148] Top shape: 24 224 14 14 (1053696)
I0403 04:32:26.569842  2011 net.cpp:156] Memory required for data: 960643008
I0403 04:32:26.569859  2011 layer_factory.hpp:77] Creating layer inception_4b/relu_3x3
I0403 04:32:26.569876  2011 net.cpp:91] Creating Layer inception_4b/relu_3x3
I0403 04:32:26.569891  2011 net.cpp:425] inception_4b/relu_3x3 <- inception_4b/3x3
I0403 04:32:26.569907  2011 net.cpp:386] inception_4b/relu_3x3 -> inception_4b/3x3 (in-place)
I0403 04:32:26.569926  2011 net.cpp:141] Setting up inception_4b/relu_3x3
I0403 04:32:26.569942  2011 net.cpp:148] Top shape: 24 224 14 14 (1053696)
I0403 04:32:26.569955  2011 net.cpp:156] Memory required for data: 964857792
I0403 04:32:26.569968  2011 layer_factory.hpp:77] Creating layer inception_4b/5x5_reduce
I0403 04:32:26.569989  2011 net.cpp:91] Creating Layer inception_4b/5x5_reduce
I0403 04:32:26.570006  2011 net.cpp:425] inception_4b/5x5_reduce <- inception_4a/output_inception_4a/output_0_split_3
I0403 04:32:26.570026  2011 net.cpp:399] inception_4b/5x5_reduce -> inception_4b/5x5_reduce
I0403 04:32:26.570313  2011 net.cpp:141] Setting up inception_4b/5x5_reduce
I0403 04:32:26.570338  2011 net.cpp:148] Top shape: 24 24 14 14 (112896)
I0403 04:32:26.570351  2011 net.cpp:156] Memory required for data: 965309376
I0403 04:32:26.570369  2011 layer_factory.hpp:77] Creating layer inception_4b/relu_5x5_reduce
I0403 04:32:26.570405  2011 net.cpp:91] Creating Layer inception_4b/relu_5x5_reduce
I0403 04:32:26.570422  2011 net.cpp:425] inception_4b/relu_5x5_reduce <- inception_4b/5x5_reduce
I0403 04:32:26.570441  2011 net.cpp:386] inception_4b/relu_5x5_reduce -> inception_4b/5x5_reduce (in-place)
I0403 04:32:26.570459  2011 net.cpp:141] Setting up inception_4b/relu_5x5_reduce
I0403 04:32:26.570477  2011 net.cpp:148] Top shape: 24 24 14 14 (112896)
I0403 04:32:26.570490  2011 net.cpp:156] Memory required for data: 965760960
I0403 04:32:26.570504  2011 layer_factory.hpp:77] Creating layer inception_4b/5x5
I0403 04:32:26.570541  2011 net.cpp:91] Creating Layer inception_4b/5x5
I0403 04:32:26.570559  2011 net.cpp:425] inception_4b/5x5 <- inception_4b/5x5_reduce
I0403 04:32:26.570581  2011 net.cpp:399] inception_4b/5x5 -> inception_4b/5x5
I0403 04:32:26.571004  2011 net.cpp:141] Setting up inception_4b/5x5
I0403 04:32:26.571028  2011 net.cpp:148] Top shape: 24 64 14 14 (301056)
I0403 04:32:26.571043  2011 net.cpp:156] Memory required for data: 966965184
I0403 04:32:26.571059  2011 layer_factory.hpp:77] Creating layer inception_4b/relu_5x5
I0403 04:32:26.571077  2011 net.cpp:91] Creating Layer inception_4b/relu_5x5
I0403 04:32:26.571092  2011 net.cpp:425] inception_4b/relu_5x5 <- inception_4b/5x5
I0403 04:32:26.571110  2011 net.cpp:386] inception_4b/relu_5x5 -> inception_4b/5x5 (in-place)
I0403 04:32:26.571127  2011 net.cpp:141] Setting up inception_4b/relu_5x5
I0403 04:32:26.571156  2011 net.cpp:148] Top shape: 24 64 14 14 (301056)
I0403 04:32:26.571169  2011 net.cpp:156] Memory required for data: 968169408
I0403 04:32:26.571183  2011 layer_factory.hpp:77] Creating layer inception_4b/pool
I0403 04:32:26.571203  2011 net.cpp:91] Creating Layer inception_4b/pool
I0403 04:32:26.571220  2011 net.cpp:425] inception_4b/pool <- inception_4a/output_inception_4a/output_0_split_4
I0403 04:32:26.571238  2011 net.cpp:399] inception_4b/pool -> inception_4b/pool
I0403 04:32:26.571290  2011 net.cpp:141] Setting up inception_4b/pool
I0403 04:32:26.571312  2011 net.cpp:148] Top shape: 24 512 14 14 (2408448)
I0403 04:32:26.571327  2011 net.cpp:156] Memory required for data: 977803200
I0403 04:32:26.571341  2011 layer_factory.hpp:77] Creating layer inception_4b/pool_proj
I0403 04:32:26.571363  2011 net.cpp:91] Creating Layer inception_4b/pool_proj
I0403 04:32:26.571384  2011 net.cpp:425] inception_4b/pool_proj <- inception_4b/pool
I0403 04:32:26.571408  2011 net.cpp:399] inception_4b/pool_proj -> inception_4b/pool_proj
I0403 04:32:26.571799  2011 net.cpp:141] Setting up inception_4b/pool_proj
I0403 04:32:26.571825  2011 net.cpp:148] Top shape: 24 64 14 14 (301056)
I0403 04:32:26.571841  2011 net.cpp:156] Memory required for data: 979007424
I0403 04:32:26.571858  2011 layer_factory.hpp:77] Creating layer inception_4b/relu_pool_proj
I0403 04:32:26.571876  2011 net.cpp:91] Creating Layer inception_4b/relu_pool_proj
I0403 04:32:26.571892  2011 net.cpp:425] inception_4b/relu_pool_proj <- inception_4b/pool_proj
I0403 04:32:26.571908  2011 net.cpp:386] inception_4b/relu_pool_proj -> inception_4b/pool_proj (in-place)
I0403 04:32:26.571928  2011 net.cpp:141] Setting up inception_4b/relu_pool_proj
I0403 04:32:26.571944  2011 net.cpp:148] Top shape: 24 64 14 14 (301056)
I0403 04:32:26.571957  2011 net.cpp:156] Memory required for data: 980211648
I0403 04:32:26.571971  2011 layer_factory.hpp:77] Creating layer inception_4b/output
I0403 04:32:26.571987  2011 net.cpp:91] Creating Layer inception_4b/output
I0403 04:32:26.572002  2011 net.cpp:425] inception_4b/output <- inception_4b/1x1
I0403 04:32:26.572017  2011 net.cpp:425] inception_4b/output <- inception_4b/3x3
I0403 04:32:26.572032  2011 net.cpp:425] inception_4b/output <- inception_4b/5x5
I0403 04:32:26.572047  2011 net.cpp:425] inception_4b/output <- inception_4b/pool_proj
I0403 04:32:26.572063  2011 net.cpp:399] inception_4b/output -> inception_4b/output
I0403 04:32:26.572101  2011 net.cpp:141] Setting up inception_4b/output
I0403 04:32:26.572124  2011 net.cpp:148] Top shape: 24 512 14 14 (2408448)
I0403 04:32:26.572140  2011 net.cpp:156] Memory required for data: 989845440
I0403 04:32:26.572155  2011 layer_factory.hpp:77] Creating layer inception_4b/output_inception_4b/output_0_split
I0403 04:32:26.572172  2011 net.cpp:91] Creating Layer inception_4b/output_inception_4b/output_0_split
I0403 04:32:26.572186  2011 net.cpp:425] inception_4b/output_inception_4b/output_0_split <- inception_4b/output
I0403 04:32:26.572203  2011 net.cpp:399] inception_4b/output_inception_4b/output_0_split -> inception_4b/output_inception_4b/output_0_split_0
I0403 04:32:26.572224  2011 net.cpp:399] inception_4b/output_inception_4b/output_0_split -> inception_4b/output_inception_4b/output_0_split_1
I0403 04:32:26.572257  2011 net.cpp:399] inception_4b/output_inception_4b/output_0_split -> inception_4b/output_inception_4b/output_0_split_2
I0403 04:32:26.572278  2011 net.cpp:399] inception_4b/output_inception_4b/output_0_split -> inception_4b/output_inception_4b/output_0_split_3
I0403 04:32:26.572346  2011 net.cpp:141] Setting up inception_4b/output_inception_4b/output_0_split
I0403 04:32:26.572368  2011 net.cpp:148] Top shape: 24 512 14 14 (2408448)
I0403 04:32:26.572396  2011 net.cpp:148] Top shape: 24 512 14 14 (2408448)
I0403 04:32:26.572412  2011 net.cpp:148] Top shape: 24 512 14 14 (2408448)
I0403 04:32:26.572427  2011 net.cpp:148] Top shape: 24 512 14 14 (2408448)
I0403 04:32:26.572440  2011 net.cpp:156] Memory required for data: 1028380608
I0403 04:32:26.572454  2011 layer_factory.hpp:77] Creating layer inception_4c/1x1
I0403 04:32:26.572477  2011 net.cpp:91] Creating Layer inception_4c/1x1
I0403 04:32:26.572494  2011 net.cpp:425] inception_4c/1x1 <- inception_4b/output_inception_4b/output_0_split_0
I0403 04:32:26.572515  2011 net.cpp:399] inception_4c/1x1 -> inception_4c/1x1
I0403 04:32:26.573060  2011 net.cpp:141] Setting up inception_4c/1x1
I0403 04:32:26.573082  2011 net.cpp:148] Top shape: 24 128 14 14 (602112)
I0403 04:32:26.573099  2011 net.cpp:156] Memory required for data: 1030789056
I0403 04:32:26.573117  2011 layer_factory.hpp:77] Creating layer inception_4c/relu_1x1
I0403 04:32:26.573134  2011 net.cpp:91] Creating Layer inception_4c/relu_1x1
I0403 04:32:26.573149  2011 net.cpp:425] inception_4c/relu_1x1 <- inception_4c/1x1
I0403 04:32:26.573168  2011 net.cpp:386] inception_4c/relu_1x1 -> inception_4c/1x1 (in-place)
I0403 04:32:26.573189  2011 net.cpp:141] Setting up inception_4c/relu_1x1
I0403 04:32:26.573205  2011 net.cpp:148] Top shape: 24 128 14 14 (602112)
I0403 04:32:26.573218  2011 net.cpp:156] Memory required for data: 1033197504
I0403 04:32:26.573231  2011 layer_factory.hpp:77] Creating layer inception_4c/3x3_reduce
I0403 04:32:26.573253  2011 net.cpp:91] Creating Layer inception_4c/3x3_reduce
I0403 04:32:26.573271  2011 net.cpp:425] inception_4c/3x3_reduce <- inception_4b/output_inception_4b/output_0_split_1
I0403 04:32:26.573289  2011 net.cpp:399] inception_4c/3x3_reduce -> inception_4c/3x3_reduce
I0403 04:32:26.574368  2011 net.cpp:141] Setting up inception_4c/3x3_reduce
I0403 04:32:26.574398  2011 net.cpp:148] Top shape: 24 128 14 14 (602112)
I0403 04:32:26.574414  2011 net.cpp:156] Memory required for data: 1035605952
I0403 04:32:26.574430  2011 layer_factory.hpp:77] Creating layer inception_4c/relu_3x3_reduce
I0403 04:32:26.574447  2011 net.cpp:91] Creating Layer inception_4c/relu_3x3_reduce
I0403 04:32:26.574463  2011 net.cpp:425] inception_4c/relu_3x3_reduce <- inception_4c/3x3_reduce
I0403 04:32:26.574481  2011 net.cpp:386] inception_4c/relu_3x3_reduce -> inception_4c/3x3_reduce (in-place)
I0403 04:32:26.574501  2011 net.cpp:141] Setting up inception_4c/relu_3x3_reduce
I0403 04:32:26.574517  2011 net.cpp:148] Top shape: 24 128 14 14 (602112)
I0403 04:32:26.574530  2011 net.cpp:156] Memory required for data: 1038014400
I0403 04:32:26.574544  2011 layer_factory.hpp:77] Creating layer inception_4c/3x3
I0403 04:32:26.574566  2011 net.cpp:91] Creating Layer inception_4c/3x3
I0403 04:32:26.574582  2011 net.cpp:425] inception_4c/3x3 <- inception_4c/3x3_reduce
I0403 04:32:26.574602  2011 net.cpp:399] inception_4c/3x3 -> inception_4c/3x3
I0403 04:32:26.576963  2011 net.cpp:141] Setting up inception_4c/3x3
I0403 04:32:26.576992  2011 net.cpp:148] Top shape: 24 256 14 14 (1204224)
I0403 04:32:26.577008  2011 net.cpp:156] Memory required for data: 1042831296
I0403 04:32:26.577039  2011 layer_factory.hpp:77] Creating layer inception_4c/relu_3x3
I0403 04:32:26.577059  2011 net.cpp:91] Creating Layer inception_4c/relu_3x3
I0403 04:32:26.577075  2011 net.cpp:425] inception_4c/relu_3x3 <- inception_4c/3x3
I0403 04:32:26.577091  2011 net.cpp:386] inception_4c/relu_3x3 -> inception_4c/3x3 (in-place)
I0403 04:32:26.577126  2011 net.cpp:141] Setting up inception_4c/relu_3x3
I0403 04:32:26.577144  2011 net.cpp:148] Top shape: 24 256 14 14 (1204224)
I0403 04:32:26.577158  2011 net.cpp:156] Memory required for data: 1047648192
I0403 04:32:26.577172  2011 layer_factory.hpp:77] Creating layer inception_4c/5x5_reduce
I0403 04:32:26.577194  2011 net.cpp:91] Creating Layer inception_4c/5x5_reduce
I0403 04:32:26.577211  2011 net.cpp:425] inception_4c/5x5_reduce <- inception_4b/output_inception_4b/output_0_split_2
I0403 04:32:26.577229  2011 net.cpp:399] inception_4c/5x5_reduce -> inception_4c/5x5_reduce
I0403 04:32:26.577508  2011 net.cpp:141] Setting up inception_4c/5x5_reduce
I0403 04:32:26.577533  2011 net.cpp:148] Top shape: 24 24 14 14 (112896)
I0403 04:32:26.577548  2011 net.cpp:156] Memory required for data: 1048099776
I0403 04:32:26.577564  2011 layer_factory.hpp:77] Creating layer inception_4c/relu_5x5_reduce
I0403 04:32:26.577581  2011 net.cpp:91] Creating Layer inception_4c/relu_5x5_reduce
I0403 04:32:26.577597  2011 net.cpp:425] inception_4c/relu_5x5_reduce <- inception_4c/5x5_reduce
I0403 04:32:26.577616  2011 net.cpp:386] inception_4c/relu_5x5_reduce -> inception_4c/5x5_reduce (in-place)
I0403 04:32:26.577635  2011 net.cpp:141] Setting up inception_4c/relu_5x5_reduce
I0403 04:32:26.577652  2011 net.cpp:148] Top shape: 24 24 14 14 (112896)
I0403 04:32:26.577666  2011 net.cpp:156] Memory required for data: 1048551360
I0403 04:32:26.577679  2011 layer_factory.hpp:77] Creating layer inception_4c/5x5
I0403 04:32:26.577703  2011 net.cpp:91] Creating Layer inception_4c/5x5
I0403 04:32:26.577720  2011 net.cpp:425] inception_4c/5x5 <- inception_4c/5x5_reduce
I0403 04:32:26.577739  2011 net.cpp:399] inception_4c/5x5 -> inception_4c/5x5
I0403 04:32:26.578145  2011 net.cpp:141] Setting up inception_4c/5x5
I0403 04:32:26.578169  2011 net.cpp:148] Top shape: 24 64 14 14 (301056)
I0403 04:32:26.578183  2011 net.cpp:156] Memory required for data: 1049755584
I0403 04:32:26.578200  2011 layer_factory.hpp:77] Creating layer inception_4c/relu_5x5
I0403 04:32:26.578217  2011 net.cpp:91] Creating Layer inception_4c/relu_5x5
I0403 04:32:26.578235  2011 net.cpp:425] inception_4c/relu_5x5 <- inception_4c/5x5
I0403 04:32:26.578253  2011 net.cpp:386] inception_4c/relu_5x5 -> inception_4c/5x5 (in-place)
I0403 04:32:26.578269  2011 net.cpp:141] Setting up inception_4c/relu_5x5
I0403 04:32:26.578286  2011 net.cpp:148] Top shape: 24 64 14 14 (301056)
I0403 04:32:26.578299  2011 net.cpp:156] Memory required for data: 1050959808
I0403 04:32:26.578313  2011 layer_factory.hpp:77] Creating layer inception_4c/pool
I0403 04:32:26.578330  2011 net.cpp:91] Creating Layer inception_4c/pool
I0403 04:32:26.578344  2011 net.cpp:425] inception_4c/pool <- inception_4b/output_inception_4b/output_0_split_3
I0403 04:32:26.578364  2011 net.cpp:399] inception_4c/pool -> inception_4c/pool
I0403 04:32:26.578416  2011 net.cpp:141] Setting up inception_4c/pool
I0403 04:32:26.578439  2011 net.cpp:148] Top shape: 24 512 14 14 (2408448)
I0403 04:32:26.578454  2011 net.cpp:156] Memory required for data: 1060593600
I0403 04:32:26.578466  2011 layer_factory.hpp:77] Creating layer inception_4c/pool_proj
I0403 04:32:26.578488  2011 net.cpp:91] Creating Layer inception_4c/pool_proj
I0403 04:32:26.578506  2011 net.cpp:425] inception_4c/pool_proj <- inception_4c/pool
I0403 04:32:26.578527  2011 net.cpp:399] inception_4c/pool_proj -> inception_4c/pool_proj
I0403 04:32:26.578912  2011 net.cpp:141] Setting up inception_4c/pool_proj
I0403 04:32:26.578935  2011 net.cpp:148] Top shape: 24 64 14 14 (301056)
I0403 04:32:26.578949  2011 net.cpp:156] Memory required for data: 1061797824
I0403 04:32:26.578965  2011 layer_factory.hpp:77] Creating layer inception_4c/relu_pool_proj
I0403 04:32:26.578984  2011 net.cpp:91] Creating Layer inception_4c/relu_pool_proj
I0403 04:32:26.578999  2011 net.cpp:425] inception_4c/relu_pool_proj <- inception_4c/pool_proj
I0403 04:32:26.579015  2011 net.cpp:386] inception_4c/relu_pool_proj -> inception_4c/pool_proj (in-place)
I0403 04:32:26.579037  2011 net.cpp:141] Setting up inception_4c/relu_pool_proj
I0403 04:32:26.579066  2011 net.cpp:148] Top shape: 24 64 14 14 (301056)
I0403 04:32:26.579082  2011 net.cpp:156] Memory required for data: 1063002048
I0403 04:32:26.579095  2011 layer_factory.hpp:77] Creating layer inception_4c/output
I0403 04:32:26.579113  2011 net.cpp:91] Creating Layer inception_4c/output
I0403 04:32:26.579128  2011 net.cpp:425] inception_4c/output <- inception_4c/1x1
I0403 04:32:26.579156  2011 net.cpp:425] inception_4c/output <- inception_4c/3x3
I0403 04:32:26.579172  2011 net.cpp:425] inception_4c/output <- inception_4c/5x5
I0403 04:32:26.579188  2011 net.cpp:425] inception_4c/output <- inception_4c/pool_proj
I0403 04:32:26.579205  2011 net.cpp:399] inception_4c/output -> inception_4c/output
I0403 04:32:26.579244  2011 net.cpp:141] Setting up inception_4c/output
I0403 04:32:26.579267  2011 net.cpp:148] Top shape: 24 512 14 14 (2408448)
I0403 04:32:26.579282  2011 net.cpp:156] Memory required for data: 1072635840
I0403 04:32:26.579295  2011 layer_factory.hpp:77] Creating layer inception_4c/output_inception_4c/output_0_split
I0403 04:32:26.579313  2011 net.cpp:91] Creating Layer inception_4c/output_inception_4c/output_0_split
I0403 04:32:26.579329  2011 net.cpp:425] inception_4c/output_inception_4c/output_0_split <- inception_4c/output
I0403 04:32:26.579349  2011 net.cpp:399] inception_4c/output_inception_4c/output_0_split -> inception_4c/output_inception_4c/output_0_split_0
I0403 04:32:26.579370  2011 net.cpp:399] inception_4c/output_inception_4c/output_0_split -> inception_4c/output_inception_4c/output_0_split_1
I0403 04:32:26.579396  2011 net.cpp:399] inception_4c/output_inception_4c/output_0_split -> inception_4c/output_inception_4c/output_0_split_2
I0403 04:32:26.579428  2011 net.cpp:399] inception_4c/output_inception_4c/output_0_split -> inception_4c/output_inception_4c/output_0_split_3
I0403 04:32:26.579493  2011 net.cpp:141] Setting up inception_4c/output_inception_4c/output_0_split
I0403 04:32:26.579517  2011 net.cpp:148] Top shape: 24 512 14 14 (2408448)
I0403 04:32:26.579535  2011 net.cpp:148] Top shape: 24 512 14 14 (2408448)
I0403 04:32:26.579550  2011 net.cpp:148] Top shape: 24 512 14 14 (2408448)
I0403 04:32:26.579565  2011 net.cpp:148] Top shape: 24 512 14 14 (2408448)
I0403 04:32:26.579576  2011 net.cpp:156] Memory required for data: 1111171008
I0403 04:32:26.579591  2011 layer_factory.hpp:77] Creating layer inception_4d/1x1
I0403 04:32:26.579612  2011 net.cpp:91] Creating Layer inception_4d/1x1
I0403 04:32:26.579629  2011 net.cpp:425] inception_4d/1x1 <- inception_4c/output_inception_4c/output_0_split_0
I0403 04:32:26.579648  2011 net.cpp:399] inception_4d/1x1 -> inception_4d/1x1
I0403 04:32:26.580152  2011 net.cpp:141] Setting up inception_4d/1x1
I0403 04:32:26.580175  2011 net.cpp:148] Top shape: 24 112 14 14 (526848)
I0403 04:32:26.580189  2011 net.cpp:156] Memory required for data: 1113278400
I0403 04:32:26.580206  2011 layer_factory.hpp:77] Creating layer inception_4d/relu_1x1
I0403 04:32:26.580224  2011 net.cpp:91] Creating Layer inception_4d/relu_1x1
I0403 04:32:26.580240  2011 net.cpp:425] inception_4d/relu_1x1 <- inception_4d/1x1
I0403 04:32:26.580260  2011 net.cpp:386] inception_4d/relu_1x1 -> inception_4d/1x1 (in-place)
I0403 04:32:26.580278  2011 net.cpp:141] Setting up inception_4d/relu_1x1
I0403 04:32:26.580296  2011 net.cpp:148] Top shape: 24 112 14 14 (526848)
I0403 04:32:26.580308  2011 net.cpp:156] Memory required for data: 1115385792
I0403 04:32:26.580322  2011 layer_factory.hpp:77] Creating layer inception_4d/3x3_reduce
I0403 04:32:26.580344  2011 net.cpp:91] Creating Layer inception_4d/3x3_reduce
I0403 04:32:26.580361  2011 net.cpp:425] inception_4d/3x3_reduce <- inception_4c/output_inception_4c/output_0_split_1
I0403 04:32:26.580384  2011 net.cpp:399] inception_4d/3x3_reduce -> inception_4d/3x3_reduce
I0403 04:32:26.580996  2011 net.cpp:141] Setting up inception_4d/3x3_reduce
I0403 04:32:26.581020  2011 net.cpp:148] Top shape: 24 144 14 14 (677376)
I0403 04:32:26.581034  2011 net.cpp:156] Memory required for data: 1118095296
I0403 04:32:26.581064  2011 layer_factory.hpp:77] Creating layer inception_4d/relu_3x3_reduce
I0403 04:32:26.581082  2011 net.cpp:91] Creating Layer inception_4d/relu_3x3_reduce
I0403 04:32:26.581100  2011 net.cpp:425] inception_4d/relu_3x3_reduce <- inception_4d/3x3_reduce
I0403 04:32:26.581120  2011 net.cpp:386] inception_4d/relu_3x3_reduce -> inception_4d/3x3_reduce (in-place)
I0403 04:32:26.581138  2011 net.cpp:141] Setting up inception_4d/relu_3x3_reduce
I0403 04:32:26.581156  2011 net.cpp:148] Top shape: 24 144 14 14 (677376)
I0403 04:32:26.581169  2011 net.cpp:156] Memory required for data: 1120804800
I0403 04:32:26.581182  2011 layer_factory.hpp:77] Creating layer inception_4d/3x3
I0403 04:32:26.581205  2011 net.cpp:91] Creating Layer inception_4d/3x3
I0403 04:32:26.581223  2011 net.cpp:425] inception_4d/3x3 <- inception_4d/3x3_reduce
I0403 04:32:26.581240  2011 net.cpp:399] inception_4d/3x3 -> inception_4d/3x3
I0403 04:32:26.584262  2011 net.cpp:141] Setting up inception_4d/3x3
I0403 04:32:26.584291  2011 net.cpp:148] Top shape: 24 288 14 14 (1354752)
I0403 04:32:26.584307  2011 net.cpp:156] Memory required for data: 1126223808
I0403 04:32:26.584326  2011 layer_factory.hpp:77] Creating layer inception_4d/relu_3x3
I0403 04:32:26.584347  2011 net.cpp:91] Creating Layer inception_4d/relu_3x3
I0403 04:32:26.584363  2011 net.cpp:425] inception_4d/relu_3x3 <- inception_4d/3x3
I0403 04:32:26.584383  2011 net.cpp:386] inception_4d/relu_3x3 -> inception_4d/3x3 (in-place)
I0403 04:32:26.584403  2011 net.cpp:141] Setting up inception_4d/relu_3x3
I0403 04:32:26.584420  2011 net.cpp:148] Top shape: 24 288 14 14 (1354752)
I0403 04:32:26.584434  2011 net.cpp:156] Memory required for data: 1131642816
I0403 04:32:26.584447  2011 layer_factory.hpp:77] Creating layer inception_4d/5x5_reduce
I0403 04:32:26.584470  2011 net.cpp:91] Creating Layer inception_4d/5x5_reduce
I0403 04:32:26.584486  2011 net.cpp:425] inception_4d/5x5_reduce <- inception_4c/output_inception_4c/output_0_split_2
I0403 04:32:26.584507  2011 net.cpp:399] inception_4d/5x5_reduce -> inception_4d/5x5_reduce
I0403 04:32:26.584813  2011 net.cpp:141] Setting up inception_4d/5x5_reduce
I0403 04:32:26.584838  2011 net.cpp:148] Top shape: 24 32 14 14 (150528)
I0403 04:32:26.584853  2011 net.cpp:156] Memory required for data: 1132244928
I0403 04:32:26.584870  2011 layer_factory.hpp:77] Creating layer inception_4d/relu_5x5_reduce
I0403 04:32:26.584887  2011 net.cpp:91] Creating Layer inception_4d/relu_5x5_reduce
I0403 04:32:26.584903  2011 net.cpp:425] inception_4d/relu_5x5_reduce <- inception_4d/5x5_reduce
I0403 04:32:26.584920  2011 net.cpp:386] inception_4d/relu_5x5_reduce -> inception_4d/5x5_reduce (in-place)
I0403 04:32:26.584939  2011 net.cpp:141] Setting up inception_4d/relu_5x5_reduce
I0403 04:32:26.584956  2011 net.cpp:148] Top shape: 24 32 14 14 (150528)
I0403 04:32:26.584970  2011 net.cpp:156] Memory required for data: 1132847040
I0403 04:32:26.584985  2011 layer_factory.hpp:77] Creating layer inception_4d/5x5
I0403 04:32:26.585006  2011 net.cpp:91] Creating Layer inception_4d/5x5
I0403 04:32:26.585024  2011 net.cpp:425] inception_4d/5x5 <- inception_4d/5x5_reduce
I0403 04:32:26.585047  2011 net.cpp:399] inception_4d/5x5 -> inception_4d/5x5
I0403 04:32:26.585530  2011 net.cpp:141] Setting up inception_4d/5x5
I0403 04:32:26.585553  2011 net.cpp:148] Top shape: 24 64 14 14 (301056)
I0403 04:32:26.585567  2011 net.cpp:156] Memory required for data: 1134051264
I0403 04:32:26.585583  2011 layer_factory.hpp:77] Creating layer inception_4d/relu_5x5
I0403 04:32:26.585603  2011 net.cpp:91] Creating Layer inception_4d/relu_5x5
I0403 04:32:26.585620  2011 net.cpp:425] inception_4d/relu_5x5 <- inception_4d/5x5
I0403 04:32:26.585638  2011 net.cpp:386] inception_4d/relu_5x5 -> inception_4d/5x5 (in-place)
I0403 04:32:26.585655  2011 net.cpp:141] Setting up inception_4d/relu_5x5
I0403 04:32:26.585672  2011 net.cpp:148] Top shape: 24 64 14 14 (301056)
I0403 04:32:26.585686  2011 net.cpp:156] Memory required for data: 1135255488
I0403 04:32:26.585700  2011 layer_factory.hpp:77] Creating layer inception_4d/pool
I0403 04:32:26.585733  2011 net.cpp:91] Creating Layer inception_4d/pool
I0403 04:32:26.585750  2011 net.cpp:425] inception_4d/pool <- inception_4c/output_inception_4c/output_0_split_3
I0403 04:32:26.585768  2011 net.cpp:399] inception_4d/pool -> inception_4d/pool
I0403 04:32:26.585818  2011 net.cpp:141] Setting up inception_4d/pool
I0403 04:32:26.585842  2011 net.cpp:148] Top shape: 24 512 14 14 (2408448)
I0403 04:32:26.585857  2011 net.cpp:156] Memory required for data: 1144889280
I0403 04:32:26.585871  2011 layer_factory.hpp:77] Creating layer inception_4d/pool_proj
I0403 04:32:26.585893  2011 net.cpp:91] Creating Layer inception_4d/pool_proj
I0403 04:32:26.585911  2011 net.cpp:425] inception_4d/pool_proj <- inception_4d/pool
I0403 04:32:26.585930  2011 net.cpp:399] inception_4d/pool_proj -> inception_4d/pool_proj
I0403 04:32:26.586838  2011 net.cpp:141] Setting up inception_4d/pool_proj
I0403 04:32:26.586865  2011 net.cpp:148] Top shape: 24 64 14 14 (301056)
I0403 04:32:26.586880  2011 net.cpp:156] Memory required for data: 1146093504
I0403 04:32:26.586896  2011 layer_factory.hpp:77] Creating layer inception_4d/relu_pool_proj
I0403 04:32:26.586915  2011 net.cpp:91] Creating Layer inception_4d/relu_pool_proj
I0403 04:32:26.586930  2011 net.cpp:425] inception_4d/relu_pool_proj <- inception_4d/pool_proj
I0403 04:32:26.586951  2011 net.cpp:386] inception_4d/relu_pool_proj -> inception_4d/pool_proj (in-place)
I0403 04:32:26.586969  2011 net.cpp:141] Setting up inception_4d/relu_pool_proj
I0403 04:32:26.586987  2011 net.cpp:148] Top shape: 24 64 14 14 (301056)
I0403 04:32:26.587000  2011 net.cpp:156] Memory required for data: 1147297728
I0403 04:32:26.587014  2011 layer_factory.hpp:77] Creating layer inception_4d/output
I0403 04:32:26.587031  2011 net.cpp:91] Creating Layer inception_4d/output
I0403 04:32:26.587045  2011 net.cpp:425] inception_4d/output <- inception_4d/1x1
I0403 04:32:26.587060  2011 net.cpp:425] inception_4d/output <- inception_4d/3x3
I0403 04:32:26.587075  2011 net.cpp:425] inception_4d/output <- inception_4d/5x5
I0403 04:32:26.587090  2011 net.cpp:425] inception_4d/output <- inception_4d/pool_proj
I0403 04:32:26.587108  2011 net.cpp:399] inception_4d/output -> inception_4d/output
I0403 04:32:26.587159  2011 net.cpp:141] Setting up inception_4d/output
I0403 04:32:26.587182  2011 net.cpp:148] Top shape: 24 528 14 14 (2483712)
I0403 04:32:26.587196  2011 net.cpp:156] Memory required for data: 1157232576
I0403 04:32:26.587210  2011 layer_factory.hpp:77] Creating layer inception_4d/output_inception_4d/output_0_split
I0403 04:32:26.587229  2011 net.cpp:91] Creating Layer inception_4d/output_inception_4d/output_0_split
I0403 04:32:26.587247  2011 net.cpp:425] inception_4d/output_inception_4d/output_0_split <- inception_4d/output
I0403 04:32:26.587265  2011 net.cpp:399] inception_4d/output_inception_4d/output_0_split -> inception_4d/output_inception_4d/output_0_split_0
I0403 04:32:26.587285  2011 net.cpp:399] inception_4d/output_inception_4d/output_0_split -> inception_4d/output_inception_4d/output_0_split_1
I0403 04:32:26.587306  2011 net.cpp:399] inception_4d/output_inception_4d/output_0_split -> inception_4d/output_inception_4d/output_0_split_2
I0403 04:32:26.587327  2011 net.cpp:399] inception_4d/output_inception_4d/output_0_split -> inception_4d/output_inception_4d/output_0_split_3
I0403 04:32:26.587347  2011 net.cpp:399] inception_4d/output_inception_4d/output_0_split -> inception_4d/output_inception_4d/output_0_split_4
I0403 04:32:26.587441  2011 net.cpp:141] Setting up inception_4d/output_inception_4d/output_0_split
I0403 04:32:26.587463  2011 net.cpp:148] Top shape: 24 528 14 14 (2483712)
I0403 04:32:26.587479  2011 net.cpp:148] Top shape: 24 528 14 14 (2483712)
I0403 04:32:26.587496  2011 net.cpp:148] Top shape: 24 528 14 14 (2483712)
I0403 04:32:26.587510  2011 net.cpp:148] Top shape: 24 528 14 14 (2483712)
I0403 04:32:26.587524  2011 net.cpp:148] Top shape: 24 528 14 14 (2483712)
I0403 04:32:26.587538  2011 net.cpp:156] Memory required for data: 1206906816
I0403 04:32:26.587566  2011 layer_factory.hpp:77] Creating layer loss2/ave_pool
I0403 04:32:26.587585  2011 net.cpp:91] Creating Layer loss2/ave_pool
I0403 04:32:26.587601  2011 net.cpp:425] loss2/ave_pool <- inception_4d/output_inception_4d/output_0_split_0
I0403 04:32:26.587621  2011 net.cpp:399] loss2/ave_pool -> loss2/ave_pool
I0403 04:32:26.587659  2011 net.cpp:141] Setting up loss2/ave_pool
I0403 04:32:26.587682  2011 net.cpp:148] Top shape: 24 528 4 4 (202752)
I0403 04:32:26.587694  2011 net.cpp:156] Memory required for data: 1207717824
I0403 04:32:26.587708  2011 layer_factory.hpp:77] Creating layer loss2/conv
I0403 04:32:26.587733  2011 net.cpp:91] Creating Layer loss2/conv
I0403 04:32:26.587749  2011 net.cpp:425] loss2/conv <- loss2/ave_pool
I0403 04:32:26.587767  2011 net.cpp:399] loss2/conv -> loss2/conv
I0403 04:32:26.588893  2011 net.cpp:141] Setting up loss2/conv
I0403 04:32:26.588922  2011 net.cpp:148] Top shape: 24 128 4 4 (49152)
I0403 04:32:26.588937  2011 net.cpp:156] Memory required for data: 1207914432
I0403 04:32:26.588954  2011 layer_factory.hpp:77] Creating layer loss2/relu_conv
I0403 04:32:26.588973  2011 net.cpp:91] Creating Layer loss2/relu_conv
I0403 04:32:26.588987  2011 net.cpp:425] loss2/relu_conv <- loss2/conv
I0403 04:32:26.589004  2011 net.cpp:386] loss2/relu_conv -> loss2/conv (in-place)
I0403 04:32:26.589022  2011 net.cpp:141] Setting up loss2/relu_conv
I0403 04:32:26.589038  2011 net.cpp:148] Top shape: 24 128 4 4 (49152)
I0403 04:32:26.589052  2011 net.cpp:156] Memory required for data: 1208111040
I0403 04:32:26.589066  2011 layer_factory.hpp:77] Creating layer loss2/fc
I0403 04:32:26.589088  2011 net.cpp:91] Creating Layer loss2/fc
I0403 04:32:26.589107  2011 net.cpp:425] loss2/fc <- loss2/conv
I0403 04:32:26.589125  2011 net.cpp:399] loss2/fc -> loss2/fc
I0403 04:32:26.604421  2011 net.cpp:141] Setting up loss2/fc
I0403 04:32:26.604459  2011 net.cpp:148] Top shape: 24 1024 (24576)
I0403 04:32:26.604475  2011 net.cpp:156] Memory required for data: 1208209344
I0403 04:32:26.604492  2011 layer_factory.hpp:77] Creating layer loss2/relu_fc
I0403 04:32:26.604511  2011 net.cpp:91] Creating Layer loss2/relu_fc
I0403 04:32:26.604526  2011 net.cpp:425] loss2/relu_fc <- loss2/fc
I0403 04:32:26.604545  2011 net.cpp:386] loss2/relu_fc -> loss2/fc (in-place)
I0403 04:32:26.604565  2011 net.cpp:141] Setting up loss2/relu_fc
I0403 04:32:26.604583  2011 net.cpp:148] Top shape: 24 1024 (24576)
I0403 04:32:26.604595  2011 net.cpp:156] Memory required for data: 1208307648
I0403 04:32:26.604609  2011 layer_factory.hpp:77] Creating layer loss2/drop_fc
I0403 04:32:26.604627  2011 net.cpp:91] Creating Layer loss2/drop_fc
I0403 04:32:26.604641  2011 net.cpp:425] loss2/drop_fc <- loss2/fc
I0403 04:32:26.604657  2011 net.cpp:386] loss2/drop_fc -> loss2/fc (in-place)
I0403 04:32:26.604697  2011 net.cpp:141] Setting up loss2/drop_fc
I0403 04:32:26.604718  2011 net.cpp:148] Top shape: 24 1024 (24576)
I0403 04:32:26.604732  2011 net.cpp:156] Memory required for data: 1208405952
I0403 04:32:26.604758  2011 layer_factory.hpp:77] Creating layer loss2/classifier_plantvillage
I0403 04:32:26.604776  2011 net.cpp:91] Creating Layer loss2/classifier_plantvillage
I0403 04:32:26.604792  2011 net.cpp:425] loss2/classifier_plantvillage <- loss2/fc
I0403 04:32:26.604815  2011 net.cpp:399] loss2/classifier_plantvillage -> loss2/classifier_plantvillage
I0403 04:32:26.605154  2011 net.cpp:141] Setting up loss2/classifier_plantvillage
I0403 04:32:26.605178  2011 net.cpp:148] Top shape: 24 38 (912)
I0403 04:32:26.605192  2011 net.cpp:156] Memory required for data: 1208409600
I0403 04:32:26.605209  2011 layer_factory.hpp:77] Creating layer inception_4e/1x1
I0403 04:32:26.605233  2011 net.cpp:91] Creating Layer inception_4e/1x1
I0403 04:32:26.605252  2011 net.cpp:425] inception_4e/1x1 <- inception_4d/output_inception_4d/output_0_split_1
I0403 04:32:26.605270  2011 net.cpp:399] inception_4e/1x1 -> inception_4e/1x1
I0403 04:32:26.606178  2011 net.cpp:141] Setting up inception_4e/1x1
I0403 04:32:26.606202  2011 net.cpp:148] Top shape: 24 256 14 14 (1204224)
I0403 04:32:26.606230  2011 net.cpp:156] Memory required for data: 1213226496
I0403 04:32:26.606248  2011 layer_factory.hpp:77] Creating layer inception_4e/relu_1x1
I0403 04:32:26.606266  2011 net.cpp:91] Creating Layer inception_4e/relu_1x1
I0403 04:32:26.606281  2011 net.cpp:425] inception_4e/relu_1x1 <- inception_4e/1x1
I0403 04:32:26.606300  2011 net.cpp:386] inception_4e/relu_1x1 -> inception_4e/1x1 (in-place)
I0403 04:32:26.606318  2011 net.cpp:141] Setting up inception_4e/relu_1x1
I0403 04:32:26.606335  2011 net.cpp:148] Top shape: 24 256 14 14 (1204224)
I0403 04:32:26.606348  2011 net.cpp:156] Memory required for data: 1218043392
I0403 04:32:26.606361  2011 layer_factory.hpp:77] Creating layer inception_4e/3x3_reduce
I0403 04:32:26.606384  2011 net.cpp:91] Creating Layer inception_4e/3x3_reduce
I0403 04:32:26.606401  2011 net.cpp:425] inception_4e/3x3_reduce <- inception_4d/output_inception_4d/output_0_split_2
I0403 04:32:26.606421  2011 net.cpp:399] inception_4e/3x3_reduce -> inception_4e/3x3_reduce
I0403 04:32:26.607600  2011 net.cpp:141] Setting up inception_4e/3x3_reduce
I0403 04:32:26.607626  2011 net.cpp:148] Top shape: 24 160 14 14 (752640)
I0403 04:32:26.607640  2011 net.cpp:156] Memory required for data: 1221053952
I0403 04:32:26.607657  2011 layer_factory.hpp:77] Creating layer inception_4e/relu_3x3_reduce
I0403 04:32:26.607677  2011 net.cpp:91] Creating Layer inception_4e/relu_3x3_reduce
I0403 04:32:26.607693  2011 net.cpp:425] inception_4e/relu_3x3_reduce <- inception_4e/3x3_reduce
I0403 04:32:26.607710  2011 net.cpp:386] inception_4e/relu_3x3_reduce -> inception_4e/3x3_reduce (in-place)
I0403 04:32:26.607728  2011 net.cpp:141] Setting up inception_4e/relu_3x3_reduce
I0403 04:32:26.607744  2011 net.cpp:148] Top shape: 24 160 14 14 (752640)
I0403 04:32:26.607758  2011 net.cpp:156] Memory required for data: 1224064512
I0403 04:32:26.607771  2011 layer_factory.hpp:77] Creating layer inception_4e/3x3
I0403 04:32:26.607794  2011 net.cpp:91] Creating Layer inception_4e/3x3
I0403 04:32:26.607810  2011 net.cpp:425] inception_4e/3x3 <- inception_4e/3x3_reduce
I0403 04:32:26.607832  2011 net.cpp:399] inception_4e/3x3 -> inception_4e/3x3
I0403 04:32:26.611431  2011 net.cpp:141] Setting up inception_4e/3x3
I0403 04:32:26.611469  2011 net.cpp:148] Top shape: 24 320 14 14 (1505280)
I0403 04:32:26.611484  2011 net.cpp:156] Memory required for data: 1230085632
I0403 04:32:26.611500  2011 layer_factory.hpp:77] Creating layer inception_4e/relu_3x3
I0403 04:32:26.611516  2011 net.cpp:91] Creating Layer inception_4e/relu_3x3
I0403 04:32:26.611531  2011 net.cpp:425] inception_4e/relu_3x3 <- inception_4e/3x3
I0403 04:32:26.611551  2011 net.cpp:386] inception_4e/relu_3x3 -> inception_4e/3x3 (in-place)
I0403 04:32:26.611569  2011 net.cpp:141] Setting up inception_4e/relu_3x3
I0403 04:32:26.611585  2011 net.cpp:148] Top shape: 24 320 14 14 (1505280)
I0403 04:32:26.611598  2011 net.cpp:156] Memory required for data: 1236106752
I0403 04:32:26.611613  2011 layer_factory.hpp:77] Creating layer inception_4e/5x5_reduce
I0403 04:32:26.611634  2011 net.cpp:91] Creating Layer inception_4e/5x5_reduce
I0403 04:32:26.611649  2011 net.cpp:425] inception_4e/5x5_reduce <- inception_4d/output_inception_4d/output_0_split_3
I0403 04:32:26.611668  2011 net.cpp:399] inception_4e/5x5_reduce -> inception_4e/5x5_reduce
I0403 04:32:26.611961  2011 net.cpp:141] Setting up inception_4e/5x5_reduce
I0403 04:32:26.611984  2011 net.cpp:148] Top shape: 24 32 14 14 (150528)
I0403 04:32:26.611999  2011 net.cpp:156] Memory required for data: 1236708864
I0403 04:32:26.612015  2011 layer_factory.hpp:77] Creating layer inception_4e/relu_5x5_reduce
I0403 04:32:26.612036  2011 net.cpp:91] Creating Layer inception_4e/relu_5x5_reduce
I0403 04:32:26.612052  2011 net.cpp:425] inception_4e/relu_5x5_reduce <- inception_4e/5x5_reduce
I0403 04:32:26.612069  2011 net.cpp:386] inception_4e/relu_5x5_reduce -> inception_4e/5x5_reduce (in-place)
I0403 04:32:26.612088  2011 net.cpp:141] Setting up inception_4e/relu_5x5_reduce
I0403 04:32:26.612107  2011 net.cpp:148] Top shape: 24 32 14 14 (150528)
I0403 04:32:26.612145  2011 net.cpp:156] Memory required for data: 1237310976
I0403 04:32:26.612160  2011 layer_factory.hpp:77] Creating layer inception_4e/5x5
I0403 04:32:26.612184  2011 net.cpp:91] Creating Layer inception_4e/5x5
I0403 04:32:26.612200  2011 net.cpp:425] inception_4e/5x5 <- inception_4e/5x5_reduce
I0403 04:32:26.612220  2011 net.cpp:399] inception_4e/5x5 -> inception_4e/5x5
I0403 04:32:26.613039  2011 net.cpp:141] Setting up inception_4e/5x5
I0403 04:32:26.613064  2011 net.cpp:148] Top shape: 24 128 14 14 (602112)
I0403 04:32:26.613077  2011 net.cpp:156] Memory required for data: 1239719424
I0403 04:32:26.613095  2011 layer_factory.hpp:77] Creating layer inception_4e/relu_5x5
I0403 04:32:26.613112  2011 net.cpp:91] Creating Layer inception_4e/relu_5x5
I0403 04:32:26.613127  2011 net.cpp:425] inception_4e/relu_5x5 <- inception_4e/5x5
I0403 04:32:26.613147  2011 net.cpp:386] inception_4e/relu_5x5 -> inception_4e/5x5 (in-place)
I0403 04:32:26.613164  2011 net.cpp:141] Setting up inception_4e/relu_5x5
I0403 04:32:26.613181  2011 net.cpp:148] Top shape: 24 128 14 14 (602112)
I0403 04:32:26.613194  2011 net.cpp:156] Memory required for data: 1242127872
I0403 04:32:26.613209  2011 layer_factory.hpp:77] Creating layer inception_4e/pool
I0403 04:32:26.613241  2011 net.cpp:91] Creating Layer inception_4e/pool
I0403 04:32:26.613258  2011 net.cpp:425] inception_4e/pool <- inception_4d/output_inception_4d/output_0_split_4
I0403 04:32:26.613276  2011 net.cpp:399] inception_4e/pool -> inception_4e/pool
I0403 04:32:26.613325  2011 net.cpp:141] Setting up inception_4e/pool
I0403 04:32:26.613346  2011 net.cpp:148] Top shape: 24 528 14 14 (2483712)
I0403 04:32:26.613360  2011 net.cpp:156] Memory required for data: 1252062720
I0403 04:32:26.613378  2011 layer_factory.hpp:77] Creating layer inception_4e/pool_proj
I0403 04:32:26.613402  2011 net.cpp:91] Creating Layer inception_4e/pool_proj
I0403 04:32:26.613418  2011 net.cpp:425] inception_4e/pool_proj <- inception_4e/pool
I0403 04:32:26.613436  2011 net.cpp:399] inception_4e/pool_proj -> inception_4e/pool_proj
I0403 04:32:26.613979  2011 net.cpp:141] Setting up inception_4e/pool_proj
I0403 04:32:26.614003  2011 net.cpp:148] Top shape: 24 128 14 14 (602112)
I0403 04:32:26.614017  2011 net.cpp:156] Memory required for data: 1254471168
I0403 04:32:26.614033  2011 layer_factory.hpp:77] Creating layer inception_4e/relu_pool_proj
I0403 04:32:26.614049  2011 net.cpp:91] Creating Layer inception_4e/relu_pool_proj
I0403 04:32:26.614064  2011 net.cpp:425] inception_4e/relu_pool_proj <- inception_4e/pool_proj
I0403 04:32:26.614080  2011 net.cpp:386] inception_4e/relu_pool_proj -> inception_4e/pool_proj (in-place)
I0403 04:32:26.614102  2011 net.cpp:141] Setting up inception_4e/relu_pool_proj
I0403 04:32:26.614120  2011 net.cpp:148] Top shape: 24 128 14 14 (602112)
I0403 04:32:26.614133  2011 net.cpp:156] Memory required for data: 1256879616
I0403 04:32:26.614146  2011 layer_factory.hpp:77] Creating layer inception_4e/output
I0403 04:32:26.614163  2011 net.cpp:91] Creating Layer inception_4e/output
I0403 04:32:26.614177  2011 net.cpp:425] inception_4e/output <- inception_4e/1x1
I0403 04:32:26.614192  2011 net.cpp:425] inception_4e/output <- inception_4e/3x3
I0403 04:32:26.614207  2011 net.cpp:425] inception_4e/output <- inception_4e/5x5
I0403 04:32:26.614223  2011 net.cpp:425] inception_4e/output <- inception_4e/pool_proj
I0403 04:32:26.614238  2011 net.cpp:399] inception_4e/output -> inception_4e/output
I0403 04:32:26.614275  2011 net.cpp:141] Setting up inception_4e/output
I0403 04:32:26.614296  2011 net.cpp:148] Top shape: 24 832 14 14 (3913728)
I0403 04:32:26.614310  2011 net.cpp:156] Memory required for data: 1272534528
I0403 04:32:26.614323  2011 layer_factory.hpp:77] Creating layer pool4/3x3_s2
I0403 04:32:26.614339  2011 net.cpp:91] Creating Layer pool4/3x3_s2
I0403 04:32:26.614354  2011 net.cpp:425] pool4/3x3_s2 <- inception_4e/output
I0403 04:32:26.614377  2011 net.cpp:399] pool4/3x3_s2 -> pool4/3x3_s2
I0403 04:32:26.614426  2011 net.cpp:141] Setting up pool4/3x3_s2
I0403 04:32:26.614460  2011 net.cpp:148] Top shape: 24 832 7 7 (978432)
I0403 04:32:26.614475  2011 net.cpp:156] Memory required for data: 1276448256
I0403 04:32:26.614490  2011 layer_factory.hpp:77] Creating layer pool4/3x3_s2_pool4/3x3_s2_0_split
I0403 04:32:26.614506  2011 net.cpp:91] Creating Layer pool4/3x3_s2_pool4/3x3_s2_0_split
I0403 04:32:26.614521  2011 net.cpp:425] pool4/3x3_s2_pool4/3x3_s2_0_split <- pool4/3x3_s2
I0403 04:32:26.614537  2011 net.cpp:399] pool4/3x3_s2_pool4/3x3_s2_0_split -> pool4/3x3_s2_pool4/3x3_s2_0_split_0
I0403 04:32:26.614555  2011 net.cpp:399] pool4/3x3_s2_pool4/3x3_s2_0_split -> pool4/3x3_s2_pool4/3x3_s2_0_split_1
I0403 04:32:26.614575  2011 net.cpp:399] pool4/3x3_s2_pool4/3x3_s2_0_split -> pool4/3x3_s2_pool4/3x3_s2_0_split_2
I0403 04:32:26.614598  2011 net.cpp:399] pool4/3x3_s2_pool4/3x3_s2_0_split -> pool4/3x3_s2_pool4/3x3_s2_0_split_3
I0403 04:32:26.614665  2011 net.cpp:141] Setting up pool4/3x3_s2_pool4/3x3_s2_0_split
I0403 04:32:26.614686  2011 net.cpp:148] Top shape: 24 832 7 7 (978432)
I0403 04:32:26.614699  2011 net.cpp:148] Top shape: 24 832 7 7 (978432)
I0403 04:32:26.614713  2011 net.cpp:148] Top shape: 24 832 7 7 (978432)
I0403 04:32:26.614727  2011 net.cpp:148] Top shape: 24 832 7 7 (978432)
I0403 04:32:26.614740  2011 net.cpp:156] Memory required for data: 1292103168
I0403 04:32:26.614754  2011 layer_factory.hpp:77] Creating layer inception_5a/1x1
I0403 04:32:26.614780  2011 net.cpp:91] Creating Layer inception_5a/1x1
I0403 04:32:26.614799  2011 net.cpp:425] inception_5a/1x1 <- pool4/3x3_s2_pool4/3x3_s2_0_split_0
I0403 04:32:26.614819  2011 net.cpp:399] inception_5a/1x1 -> inception_5a/1x1
I0403 04:32:26.616641  2011 net.cpp:141] Setting up inception_5a/1x1
I0403 04:32:26.616669  2011 net.cpp:148] Top shape: 24 256 7 7 (301056)
I0403 04:32:26.616685  2011 net.cpp:156] Memory required for data: 1293307392
I0403 04:32:26.616703  2011 layer_factory.hpp:77] Creating layer inception_5a/relu_1x1
I0403 04:32:26.616719  2011 net.cpp:91] Creating Layer inception_5a/relu_1x1
I0403 04:32:26.616735  2011 net.cpp:425] inception_5a/relu_1x1 <- inception_5a/1x1
I0403 04:32:26.616751  2011 net.cpp:386] inception_5a/relu_1x1 -> inception_5a/1x1 (in-place)
I0403 04:32:26.616768  2011 net.cpp:141] Setting up inception_5a/relu_1x1
I0403 04:32:26.616786  2011 net.cpp:148] Top shape: 24 256 7 7 (301056)
I0403 04:32:26.616798  2011 net.cpp:156] Memory required for data: 1294511616
I0403 04:32:26.616811  2011 layer_factory.hpp:77] Creating layer inception_5a/3x3_reduce
I0403 04:32:26.616833  2011 net.cpp:91] Creating Layer inception_5a/3x3_reduce
I0403 04:32:26.616849  2011 net.cpp:425] inception_5a/3x3_reduce <- pool4/3x3_s2_pool4/3x3_s2_0_split_1
I0403 04:32:26.616868  2011 net.cpp:399] inception_5a/3x3_reduce -> inception_5a/3x3_reduce
I0403 04:32:26.618314  2011 net.cpp:141] Setting up inception_5a/3x3_reduce
I0403 04:32:26.618342  2011 net.cpp:148] Top shape: 24 160 7 7 (188160)
I0403 04:32:26.618357  2011 net.cpp:156] Memory required for data: 1295264256
I0403 04:32:26.618378  2011 layer_factory.hpp:77] Creating layer inception_5a/relu_3x3_reduce
I0403 04:32:26.618401  2011 net.cpp:91] Creating Layer inception_5a/relu_3x3_reduce
I0403 04:32:26.618430  2011 net.cpp:425] inception_5a/relu_3x3_reduce <- inception_5a/3x3_reduce
I0403 04:32:26.618446  2011 net.cpp:386] inception_5a/relu_3x3_reduce -> inception_5a/3x3_reduce (in-place)
I0403 04:32:26.618464  2011 net.cpp:141] Setting up inception_5a/relu_3x3_reduce
I0403 04:32:26.618480  2011 net.cpp:148] Top shape: 24 160 7 7 (188160)
I0403 04:32:26.618494  2011 net.cpp:156] Memory required for data: 1296016896
I0403 04:32:26.618507  2011 layer_factory.hpp:77] Creating layer inception_5a/3x3
I0403 04:32:26.618528  2011 net.cpp:91] Creating Layer inception_5a/3x3
I0403 04:32:26.618546  2011 net.cpp:425] inception_5a/3x3 <- inception_5a/3x3_reduce
I0403 04:32:26.618563  2011 net.cpp:399] inception_5a/3x3 -> inception_5a/3x3
I0403 04:32:26.622151  2011 net.cpp:141] Setting up inception_5a/3x3
I0403 04:32:26.622190  2011 net.cpp:148] Top shape: 24 320 7 7 (376320)
I0403 04:32:26.622205  2011 net.cpp:156] Memory required for data: 1297522176
I0403 04:32:26.622222  2011 layer_factory.hpp:77] Creating layer inception_5a/relu_3x3
I0403 04:32:26.622239  2011 net.cpp:91] Creating Layer inception_5a/relu_3x3
I0403 04:32:26.622256  2011 net.cpp:425] inception_5a/relu_3x3 <- inception_5a/3x3
I0403 04:32:26.622274  2011 net.cpp:386] inception_5a/relu_3x3 -> inception_5a/3x3 (in-place)
I0403 04:32:26.622293  2011 net.cpp:141] Setting up inception_5a/relu_3x3
I0403 04:32:26.622310  2011 net.cpp:148] Top shape: 24 320 7 7 (376320)
I0403 04:32:26.622323  2011 net.cpp:156] Memory required for data: 1299027456
I0403 04:32:26.622336  2011 layer_factory.hpp:77] Creating layer inception_5a/5x5_reduce
I0403 04:32:26.622357  2011 net.cpp:91] Creating Layer inception_5a/5x5_reduce
I0403 04:32:26.622373  2011 net.cpp:425] inception_5a/5x5_reduce <- pool4/3x3_s2_pool4/3x3_s2_0_split_2
I0403 04:32:26.622405  2011 net.cpp:399] inception_5a/5x5_reduce -> inception_5a/5x5_reduce
I0403 04:32:26.622769  2011 net.cpp:141] Setting up inception_5a/5x5_reduce
I0403 04:32:26.622792  2011 net.cpp:148] Top shape: 24 32 7 7 (37632)
I0403 04:32:26.622807  2011 net.cpp:156] Memory required for data: 1299177984
I0403 04:32:26.622822  2011 layer_factory.hpp:77] Creating layer inception_5a/relu_5x5_reduce
I0403 04:32:26.622839  2011 net.cpp:91] Creating Layer inception_5a/relu_5x5_reduce
I0403 04:32:26.622854  2011 net.cpp:425] inception_5a/relu_5x5_reduce <- inception_5a/5x5_reduce
I0403 04:32:26.622872  2011 net.cpp:386] inception_5a/relu_5x5_reduce -> inception_5a/5x5_reduce (in-place)
I0403 04:32:26.622891  2011 net.cpp:141] Setting up inception_5a/relu_5x5_reduce
I0403 04:32:26.622908  2011 net.cpp:148] Top shape: 24 32 7 7 (37632)
I0403 04:32:26.622921  2011 net.cpp:156] Memory required for data: 1299328512
I0403 04:32:26.622934  2011 layer_factory.hpp:77] Creating layer inception_5a/5x5
I0403 04:32:26.622957  2011 net.cpp:91] Creating Layer inception_5a/5x5
I0403 04:32:26.622973  2011 net.cpp:425] inception_5a/5x5 <- inception_5a/5x5_reduce
I0403 04:32:26.622992  2011 net.cpp:399] inception_5a/5x5 -> inception_5a/5x5
I0403 04:32:26.623755  2011 net.cpp:141] Setting up inception_5a/5x5
I0403 04:32:26.623778  2011 net.cpp:148] Top shape: 24 128 7 7 (150528)
I0403 04:32:26.623792  2011 net.cpp:156] Memory required for data: 1299930624
I0403 04:32:26.623810  2011 layer_factory.hpp:77] Creating layer inception_5a/relu_5x5
I0403 04:32:26.623826  2011 net.cpp:91] Creating Layer inception_5a/relu_5x5
I0403 04:32:26.623841  2011 net.cpp:425] inception_5a/relu_5x5 <- inception_5a/5x5
I0403 04:32:26.623857  2011 net.cpp:386] inception_5a/relu_5x5 -> inception_5a/5x5 (in-place)
I0403 04:32:26.623877  2011 net.cpp:141] Setting up inception_5a/relu_5x5
I0403 04:32:26.623893  2011 net.cpp:148] Top shape: 24 128 7 7 (150528)
I0403 04:32:26.623908  2011 net.cpp:156] Memory required for data: 1300532736
I0403 04:32:26.623920  2011 layer_factory.hpp:77] Creating layer inception_5a/pool
I0403 04:32:26.623936  2011 net.cpp:91] Creating Layer inception_5a/pool
I0403 04:32:26.623951  2011 net.cpp:425] inception_5a/pool <- pool4/3x3_s2_pool4/3x3_s2_0_split_3
I0403 04:32:26.623967  2011 net.cpp:399] inception_5a/pool -> inception_5a/pool
I0403 04:32:26.624019  2011 net.cpp:141] Setting up inception_5a/pool
I0403 04:32:26.624040  2011 net.cpp:148] Top shape: 24 832 7 7 (978432)
I0403 04:32:26.624054  2011 net.cpp:156] Memory required for data: 1304446464
I0403 04:32:26.624068  2011 layer_factory.hpp:77] Creating layer inception_5a/pool_proj
I0403 04:32:26.624089  2011 net.cpp:91] Creating Layer inception_5a/pool_proj
I0403 04:32:26.624106  2011 net.cpp:425] inception_5a/pool_proj <- inception_5a/pool
I0403 04:32:26.624126  2011 net.cpp:399] inception_5a/pool_proj -> inception_5a/pool_proj
I0403 04:32:26.625386  2011 net.cpp:141] Setting up inception_5a/pool_proj
I0403 04:32:26.625412  2011 net.cpp:148] Top shape: 24 128 7 7 (150528)
I0403 04:32:26.625427  2011 net.cpp:156] Memory required for data: 1305048576
I0403 04:32:26.625458  2011 layer_factory.hpp:77] Creating layer inception_5a/relu_pool_proj
I0403 04:32:26.625476  2011 net.cpp:91] Creating Layer inception_5a/relu_pool_proj
I0403 04:32:26.625493  2011 net.cpp:425] inception_5a/relu_pool_proj <- inception_5a/pool_proj
I0403 04:32:26.625512  2011 net.cpp:386] inception_5a/relu_pool_proj -> inception_5a/pool_proj (in-place)
I0403 04:32:26.625531  2011 net.cpp:141] Setting up inception_5a/relu_pool_proj
I0403 04:32:26.625547  2011 net.cpp:148] Top shape: 24 128 7 7 (150528)
I0403 04:32:26.625560  2011 net.cpp:156] Memory required for data: 1305650688
I0403 04:32:26.625572  2011 layer_factory.hpp:77] Creating layer inception_5a/output
I0403 04:32:26.625588  2011 net.cpp:91] Creating Layer inception_5a/output
I0403 04:32:26.625603  2011 net.cpp:425] inception_5a/output <- inception_5a/1x1
I0403 04:32:26.625618  2011 net.cpp:425] inception_5a/output <- inception_5a/3x3
I0403 04:32:26.625633  2011 net.cpp:425] inception_5a/output <- inception_5a/5x5
I0403 04:32:26.625648  2011 net.cpp:425] inception_5a/output <- inception_5a/pool_proj
I0403 04:32:26.625663  2011 net.cpp:399] inception_5a/output -> inception_5a/output
I0403 04:32:26.625701  2011 net.cpp:141] Setting up inception_5a/output
I0403 04:32:26.625722  2011 net.cpp:148] Top shape: 24 832 7 7 (978432)
I0403 04:32:26.625735  2011 net.cpp:156] Memory required for data: 1309564416
I0403 04:32:26.625749  2011 layer_factory.hpp:77] Creating layer inception_5a/output_inception_5a/output_0_split
I0403 04:32:26.625768  2011 net.cpp:91] Creating Layer inception_5a/output_inception_5a/output_0_split
I0403 04:32:26.625784  2011 net.cpp:425] inception_5a/output_inception_5a/output_0_split <- inception_5a/output
I0403 04:32:26.625800  2011 net.cpp:399] inception_5a/output_inception_5a/output_0_split -> inception_5a/output_inception_5a/output_0_split_0
I0403 04:32:26.625819  2011 net.cpp:399] inception_5a/output_inception_5a/output_0_split -> inception_5a/output_inception_5a/output_0_split_1
I0403 04:32:26.625838  2011 net.cpp:399] inception_5a/output_inception_5a/output_0_split -> inception_5a/output_inception_5a/output_0_split_2
I0403 04:32:26.625859  2011 net.cpp:399] inception_5a/output_inception_5a/output_0_split -> inception_5a/output_inception_5a/output_0_split_3
I0403 04:32:26.625929  2011 net.cpp:141] Setting up inception_5a/output_inception_5a/output_0_split
I0403 04:32:26.625952  2011 net.cpp:148] Top shape: 24 832 7 7 (978432)
I0403 04:32:26.625967  2011 net.cpp:148] Top shape: 24 832 7 7 (978432)
I0403 04:32:26.625980  2011 net.cpp:148] Top shape: 24 832 7 7 (978432)
I0403 04:32:26.625995  2011 net.cpp:148] Top shape: 24 832 7 7 (978432)
I0403 04:32:26.626008  2011 net.cpp:156] Memory required for data: 1325219328
I0403 04:32:26.626021  2011 layer_factory.hpp:77] Creating layer inception_5b/1x1
I0403 04:32:26.626042  2011 net.cpp:91] Creating Layer inception_5b/1x1
I0403 04:32:26.626060  2011 net.cpp:425] inception_5b/1x1 <- inception_5a/output_inception_5a/output_0_split_0
I0403 04:32:26.626091  2011 net.cpp:399] inception_5b/1x1 -> inception_5b/1x1
I0403 04:32:26.628602  2011 net.cpp:141] Setting up inception_5b/1x1
I0403 04:32:26.628628  2011 net.cpp:148] Top shape: 24 384 7 7 (451584)
I0403 04:32:26.628643  2011 net.cpp:156] Memory required for data: 1327025664
I0403 04:32:26.628660  2011 layer_factory.hpp:77] Creating layer inception_5b/relu_1x1
I0403 04:32:26.628679  2011 net.cpp:91] Creating Layer inception_5b/relu_1x1
I0403 04:32:26.628695  2011 net.cpp:425] inception_5b/relu_1x1 <- inception_5b/1x1
I0403 04:32:26.628712  2011 net.cpp:386] inception_5b/relu_1x1 -> inception_5b/1x1 (in-place)
I0403 04:32:26.628731  2011 net.cpp:141] Setting up inception_5b/relu_1x1
I0403 04:32:26.628747  2011 net.cpp:148] Top shape: 24 384 7 7 (451584)
I0403 04:32:26.628761  2011 net.cpp:156] Memory required for data: 1328832000
I0403 04:32:26.628773  2011 layer_factory.hpp:77] Creating layer inception_5b/3x3_reduce
I0403 04:32:26.628795  2011 net.cpp:91] Creating Layer inception_5b/3x3_reduce
I0403 04:32:26.628824  2011 net.cpp:425] inception_5b/3x3_reduce <- inception_5a/output_inception_5a/output_0_split_1
I0403 04:32:26.628844  2011 net.cpp:399] inception_5b/3x3_reduce -> inception_5b/3x3_reduce
I0403 04:32:26.630470  2011 net.cpp:141] Setting up inception_5b/3x3_reduce
I0403 04:32:26.630497  2011 net.cpp:148] Top shape: 24 192 7 7 (225792)
I0403 04:32:26.630512  2011 net.cpp:156] Memory required for data: 1329735168
I0403 04:32:26.630530  2011 layer_factory.hpp:77] Creating layer inception_5b/relu_3x3_reduce
I0403 04:32:26.630548  2011 net.cpp:91] Creating Layer inception_5b/relu_3x3_reduce
I0403 04:32:26.630568  2011 net.cpp:425] inception_5b/relu_3x3_reduce <- inception_5b/3x3_reduce
I0403 04:32:26.630585  2011 net.cpp:386] inception_5b/relu_3x3_reduce -> inception_5b/3x3_reduce (in-place)
I0403 04:32:26.630604  2011 net.cpp:141] Setting up inception_5b/relu_3x3_reduce
I0403 04:32:26.630620  2011 net.cpp:148] Top shape: 24 192 7 7 (225792)
I0403 04:32:26.630635  2011 net.cpp:156] Memory required for data: 1330638336
I0403 04:32:26.630647  2011 layer_factory.hpp:77] Creating layer inception_5b/3x3
I0403 04:32:26.630671  2011 net.cpp:91] Creating Layer inception_5b/3x3
I0403 04:32:26.630687  2011 net.cpp:425] inception_5b/3x3 <- inception_5b/3x3_reduce
I0403 04:32:26.630705  2011 net.cpp:399] inception_5b/3x3 -> inception_5b/3x3
I0403 04:32:26.636358  2011 net.cpp:141] Setting up inception_5b/3x3
I0403 04:32:26.636389  2011 net.cpp:148] Top shape: 24 384 7 7 (451584)
I0403 04:32:26.636404  2011 net.cpp:156] Memory required for data: 1332444672
I0403 04:32:26.636421  2011 layer_factory.hpp:77] Creating layer inception_5b/relu_3x3
I0403 04:32:26.636440  2011 net.cpp:91] Creating Layer inception_5b/relu_3x3
I0403 04:32:26.636454  2011 net.cpp:425] inception_5b/relu_3x3 <- inception_5b/3x3
I0403 04:32:26.636471  2011 net.cpp:386] inception_5b/relu_3x3 -> inception_5b/3x3 (in-place)
I0403 04:32:26.636489  2011 net.cpp:141] Setting up inception_5b/relu_3x3
I0403 04:32:26.636510  2011 net.cpp:148] Top shape: 24 384 7 7 (451584)
I0403 04:32:26.636524  2011 net.cpp:156] Memory required for data: 1334251008
I0403 04:32:26.636538  2011 layer_factory.hpp:77] Creating layer inception_5b/5x5_reduce
I0403 04:32:26.636559  2011 net.cpp:91] Creating Layer inception_5b/5x5_reduce
I0403 04:32:26.636574  2011 net.cpp:425] inception_5b/5x5_reduce <- inception_5a/output_inception_5a/output_0_split_2
I0403 04:32:26.636595  2011 net.cpp:399] inception_5b/5x5_reduce -> inception_5b/5x5_reduce
I0403 04:32:26.637037  2011 net.cpp:141] Setting up inception_5b/5x5_reduce
I0403 04:32:26.637060  2011 net.cpp:148] Top shape: 24 48 7 7 (56448)
I0403 04:32:26.637074  2011 net.cpp:156] Memory required for data: 1334476800
I0403 04:32:26.637092  2011 layer_factory.hpp:77] Creating layer inception_5b/relu_5x5_reduce
I0403 04:32:26.637109  2011 net.cpp:91] Creating Layer inception_5b/relu_5x5_reduce
I0403 04:32:26.637125  2011 net.cpp:425] inception_5b/relu_5x5_reduce <- inception_5b/5x5_reduce
I0403 04:32:26.637142  2011 net.cpp:386] inception_5b/relu_5x5_reduce -> inception_5b/5x5_reduce (in-place)
I0403 04:32:26.637161  2011 net.cpp:141] Setting up inception_5b/relu_5x5_reduce
I0403 04:32:26.637177  2011 net.cpp:148] Top shape: 24 48 7 7 (56448)
I0403 04:32:26.637192  2011 net.cpp:156] Memory required for data: 1334702592
I0403 04:32:26.637207  2011 layer_factory.hpp:77] Creating layer inception_5b/5x5
I0403 04:32:26.637228  2011 net.cpp:91] Creating Layer inception_5b/5x5
I0403 04:32:26.637244  2011 net.cpp:425] inception_5b/5x5 <- inception_5b/5x5_reduce
I0403 04:32:26.637265  2011 net.cpp:399] inception_5b/5x5 -> inception_5b/5x5
I0403 04:32:26.638304  2011 net.cpp:141] Setting up inception_5b/5x5
I0403 04:32:26.638329  2011 net.cpp:148] Top shape: 24 128 7 7 (150528)
I0403 04:32:26.638344  2011 net.cpp:156] Memory required for data: 1335304704
I0403 04:32:26.638360  2011 layer_factory.hpp:77] Creating layer inception_5b/relu_5x5
I0403 04:32:26.638384  2011 net.cpp:91] Creating Layer inception_5b/relu_5x5
I0403 04:32:26.638402  2011 net.cpp:425] inception_5b/relu_5x5 <- inception_5b/5x5
I0403 04:32:26.638435  2011 net.cpp:386] inception_5b/relu_5x5 -> inception_5b/5x5 (in-place)
I0403 04:32:26.638455  2011 net.cpp:141] Setting up inception_5b/relu_5x5
I0403 04:32:26.638473  2011 net.cpp:148] Top shape: 24 128 7 7 (150528)
I0403 04:32:26.638486  2011 net.cpp:156] Memory required for data: 1335906816
I0403 04:32:26.638499  2011 layer_factory.hpp:77] Creating layer inception_5b/pool
I0403 04:32:26.638516  2011 net.cpp:91] Creating Layer inception_5b/pool
I0403 04:32:26.638531  2011 net.cpp:425] inception_5b/pool <- inception_5a/output_inception_5a/output_0_split_3
I0403 04:32:26.638550  2011 net.cpp:399] inception_5b/pool -> inception_5b/pool
I0403 04:32:26.638602  2011 net.cpp:141] Setting up inception_5b/pool
I0403 04:32:26.638628  2011 net.cpp:148] Top shape: 24 832 7 7 (978432)
I0403 04:32:26.638643  2011 net.cpp:156] Memory required for data: 1339820544
I0403 04:32:26.638656  2011 layer_factory.hpp:77] Creating layer inception_5b/pool_proj
I0403 04:32:26.638675  2011 net.cpp:91] Creating Layer inception_5b/pool_proj
I0403 04:32:26.638691  2011 net.cpp:425] inception_5b/pool_proj <- inception_5b/pool
I0403 04:32:26.638713  2011 net.cpp:399] inception_5b/pool_proj -> inception_5b/pool_proj
I0403 04:32:26.640045  2011 net.cpp:141] Setting up inception_5b/pool_proj
I0403 04:32:26.640072  2011 net.cpp:148] Top shape: 24 128 7 7 (150528)
I0403 04:32:26.640087  2011 net.cpp:156] Memory required for data: 1340422656
I0403 04:32:26.640106  2011 layer_factory.hpp:77] Creating layer inception_5b/relu_pool_proj
I0403 04:32:26.640127  2011 net.cpp:91] Creating Layer inception_5b/relu_pool_proj
I0403 04:32:26.640144  2011 net.cpp:425] inception_5b/relu_pool_proj <- inception_5b/pool_proj
I0403 04:32:26.640161  2011 net.cpp:386] inception_5b/relu_pool_proj -> inception_5b/pool_proj (in-place)
I0403 04:32:26.640180  2011 net.cpp:141] Setting up inception_5b/relu_pool_proj
I0403 04:32:26.640197  2011 net.cpp:148] Top shape: 24 128 7 7 (150528)
I0403 04:32:26.640210  2011 net.cpp:156] Memory required for data: 1341024768
I0403 04:32:26.640224  2011 layer_factory.hpp:77] Creating layer inception_5b/output
I0403 04:32:26.640244  2011 net.cpp:91] Creating Layer inception_5b/output
I0403 04:32:26.640259  2011 net.cpp:425] inception_5b/output <- inception_5b/1x1
I0403 04:32:26.640275  2011 net.cpp:425] inception_5b/output <- inception_5b/3x3
I0403 04:32:26.640290  2011 net.cpp:425] inception_5b/output <- inception_5b/5x5
I0403 04:32:26.640305  2011 net.cpp:425] inception_5b/output <- inception_5b/pool_proj
I0403 04:32:26.640322  2011 net.cpp:399] inception_5b/output -> inception_5b/output
I0403 04:32:26.640360  2011 net.cpp:141] Setting up inception_5b/output
I0403 04:32:26.640388  2011 net.cpp:148] Top shape: 24 1024 7 7 (1204224)
I0403 04:32:26.640404  2011 net.cpp:156] Memory required for data: 1345841664
I0403 04:32:26.640418  2011 layer_factory.hpp:77] Creating layer pool5/7x7_s1
I0403 04:32:26.640434  2011 net.cpp:91] Creating Layer pool5/7x7_s1
I0403 04:32:26.640450  2011 net.cpp:425] pool5/7x7_s1 <- inception_5b/output
I0403 04:32:26.640470  2011 net.cpp:399] pool5/7x7_s1 -> pool5/7x7_s1
I0403 04:32:26.640507  2011 net.cpp:141] Setting up pool5/7x7_s1
I0403 04:32:26.640528  2011 net.cpp:148] Top shape: 24 1024 1 1 (24576)
I0403 04:32:26.640542  2011 net.cpp:156] Memory required for data: 1345939968
I0403 04:32:26.640557  2011 layer_factory.hpp:77] Creating layer pool5/drop_7x7_s1
I0403 04:32:26.640576  2011 net.cpp:91] Creating Layer pool5/drop_7x7_s1
I0403 04:32:26.640593  2011 net.cpp:425] pool5/drop_7x7_s1 <- pool5/7x7_s1
I0403 04:32:26.640609  2011 net.cpp:386] pool5/drop_7x7_s1 -> pool5/7x7_s1 (in-place)
I0403 04:32:26.640646  2011 net.cpp:141] Setting up pool5/drop_7x7_s1
I0403 04:32:26.640668  2011 net.cpp:148] Top shape: 24 1024 1 1 (24576)
I0403 04:32:26.640681  2011 net.cpp:156] Memory required for data: 1346038272
I0403 04:32:26.640696  2011 layer_factory.hpp:77] Creating layer loss3/classifier_plantvillage
I0403 04:32:26.640714  2011 net.cpp:91] Creating Layer loss3/classifier_plantvillage
I0403 04:32:26.640743  2011 net.cpp:425] loss3/classifier_plantvillage <- pool5/7x7_s1
I0403 04:32:26.640765  2011 net.cpp:399] loss3/classifier_plantvillage -> loss3/classifier_plantvillage
I0403 04:32:26.641098  2011 net.cpp:141] Setting up loss3/classifier_plantvillage
I0403 04:32:26.641121  2011 net.cpp:148] Top shape: 24 38 (912)
I0403 04:32:26.641135  2011 net.cpp:156] Memory required for data: 1346041920
I0403 04:32:26.641152  2011 layer_factory.hpp:77] Creating layer loss1/loss
I0403 04:32:26.641176  2011 net.cpp:91] Creating Layer loss1/loss
I0403 04:32:26.641193  2011 net.cpp:425] loss1/loss <- loss1/classifier_plantvillage
I0403 04:32:26.641209  2011 net.cpp:425] loss1/loss <- label_data_1_split_0
I0403 04:32:26.641227  2011 net.cpp:399] loss1/loss -> loss1/loss
…
I0403 04:32:26.650605  2011 net.cpp:313] The NetState phase (1) differed from the phase (0) specified by a rule in layer data
I0403 04:32:26.654332  2011 net.cpp:49] Initializing net from parameters: 
state {
  phase: TEST
}
layer {
  name: "data"
  type: "Data"
  top: "data"
  top: "label"
  include {
    phase: TEST
  }
  transform_param {
    mirror: false
    crop_size: 224
    mean_file: "/home/mohanty/data/final_dataset/lmdb/grayscale-40-60/mean.binaryproto"
  }
  data_param {
    source: "/home/mohanty/data/final_dataset/lmdb/grayscale-40-60/test_db"
    batch_size: 24
    backend: LMDB
  }
}
layer {
  name: "conv1/7x7_s2"
  type: "Convolution"
  bottom: "data"
  top: "conv1/7x7_s2"
  param {
    lr_mult: 1
    decay_mult: 1
  }
  param {
    lr_mult: 2
    decay_mult: 0
  }
  convolution_param {
    num_output: 64
    pad: 3
    kernel_size: 7
    stride: 2
    weight_filler {
      type: "xavier"
      std: 0.1
    }
    bias_filler {
      type: "constant"
      value: 0.2
    }
  }
}
layer {
  name: "conv1/relu_7x7"
  type: "ReLU"
  bottom: "conv1/7x7_s2"
  top: "conv1/7x7_s2"
}
layer {
  name: "pool1/3x3_s2"
  type: "Pooling"
  bottom: "conv1/7x7_s2"
  top: "pool1/3x3_s2"
  pooling_param {
    pool: MAX
    kernel_size: 3
    stride: 2
  }
}
layer {
  name: "pool1/norm1"
  type: "LRN"
  bottom: "pool1/3x3_s2"
  top: "pool1/norm1"
  lrn_param {
    local_size: 5
    alpha: 0.0001
    beta: 0.75
  }
}
layer {
  name: "conv2/3x3_reduce"
  type: "Convolution"
  bottom: "pool1/norm1"
  top: "conv2/3x3_reduce"
  param {
    lr_mult: 1
    decay_mult: 1
  }
  param {
    lr_mult: 2
    decay_mult: 0
  }
  convolution_param {
    num_output: 64
    kernel_size: 1
    weight_filler {
      type: "xavier"
      std: 0.1
    }
    bias_filler {
      type: "constant"
      value: 0.2
    }
  }
}
layer {
  name: "conv2/relu_3x3_reduce"
  type: "ReLU"
  bottom: "conv2/3x3_reduce"
  top: "conv2/3x3_reduce"
}
layer {
  name: "conv2/3x3"
  type: "Convolution"
  bottom: "conv2/3x3_reduce"
  top: "conv2/3x3"
  param {
    lr_mult: 1
    decay_mult: 1
  }
  param {
    lr_mult: 2
    decay_mult: 0
  }
  convolution_param {
    num_output: 192
    pad: 1
    kernel_size: 3
    weight_filler {
      type: "xavier"
      std: 0.03
    }
    bias_filler {
      type: "constant"
      value: 0.2
    }
  }
}
layer {
  name: "conv2/relu_3x3"
  type: "ReLU"
  bottom: "conv2/3x3"
  top: "conv2/3x3"
}
layer {
  name: "conv2/norm2"
  type: "LRN"
  bottom: "conv2/3x3"
  top: "conv2/norm2"
  lrn_param {
    local_size: 5
    alpha: 0.0001
    beta: 0.75
  }
}
layer {
  name: "pool2/3x3_s2"
  type: "Pooling"
  bottom: "conv2/norm2"
  top: "pool2/3x3_s2"
  pooling_param {
    pool: MAX
    kernel_size: 3
    stride: 2
  }
}
layer {
  name: "inception_3a/1x1"
  type: "Convolution"
  bottom: "pool2/3x3_s2"
  top: "inception_3a/1x1"
  param {
    lr_mult: 1
    decay_mult: 1
  }
  param {
    lr_mult: 2
    decay_mult: 0
  }
  convolution_param {
    num_output: 64
    kernel_size: 1
    weight_filler {
      type: "xavier"
      std: 0.03
    }
    bias_filler {
      type: "constant"
      value: 0.2
    }
  }
}
layer {
  name: "inception_3a/relu_1x1"
  type: "ReLU"
  bottom: "inception_3a/1x1"
  top: "inception_3a/1x1"
}
layer {
  name: "inception_3a/3x3_reduce"
  type: "Convolution"
  bottom: "pool2/3x3_s2"
  top: "inception_3a/3x3_reduce"
  param {
    lr_mult: 1
    decay_mult: 1
  }
  param {
    lr_mult: 2
    decay_mult: 0
  }
  convolution_param {
    num_output: 96
    kernel_size: 1
    weight_filler {
      type: "xavier"
      std: 0.09
    }
    bias_filler {
      type: "constant"
      value: 0.2
    }
  }
}
layer {
  name: "inception_3a/relu_3x3_reduce"
  type: "ReLU"
  bottom: "inception_3a/3x3_reduce"
  top: "inception_3a/3x3_reduce"
}
layer {
  name: "inception_3a/3x3"
  type: "Convolution"
  bottom: "inception_3a/3x3_reduce"
  top: "inception_3a/3x3"
  param {
    lr_mult: 1
    decay_mult: 1
  }
  param {
    lr_mult: 2
    decay_mult: 0
  }
  convolution_param {
    num_output: 128
    pad: 1
    kernel_size: 3
    weight_filler {
      type: "xavier"
      std: 0.03
    }
    bias_filler {
      type: "constant"
      value: 0.2
    }
  }
}
layer {
  name: "inception_3a/relu_3x3"
  type: "ReLU"
  bottom: "inception_3a/3x3"
  top: "inception_3a/3x3"
}
layer {
  name: "inception_3a/5x5_reduce"
  type: "Convolution"
  bottom: "pool2/3x3_s2"
  top: "inception_3a/5x5_reduce"
  param {
    lr_mult: 1
    decay_mult: 1
  }
  param {
    lr_mult: 2
    decay_mult: 0
  }
  convolution_param {
    num_output: 16
    kernel_size: 1
    weight_filler {
      type: "xavier"
      std: 0.2
    }
    bias_filler {
      type: "constant"
      value: 0.2
    }
  }
}
layer {
  name: "inception_3a/relu_5x5_reduce"
  type: "ReLU"
  bottom: "inception_3a/5x5_reduce"
  top: "inception_3a/5x5_reduce"
}
layer {
  name: "inception_3a/5x5"
  type: "Convolution"
  bottom: "inception_3a/5x5_reduce"
  top: "inception_3a/5x5"
  param {
    lr_mult: 1
    decay_mult: 1
  }
  param {
    lr_mult: 2
    decay_mult: 0
  }
  convolution_param {
    num_output: 32
    pad: 2
    kernel_size: 5
    weight_filler {
      type: "xavier"
      std: 0.03
    }
    bias_filler {
      type: "constant"
      value: 0.2
    }
  }
}
layer {
  name: "inception_3a/relu_5x5"
  type: "ReLU"
  bottom: "inception_3a/5x5"
  top: "inception_3a/5x5"
}
layer {
  name: "inception_3a/pool"
  type: "Pooling"
  bottom: "pool2/3x3_s2"
  top: "inception_3a/pool"
  pooling_param {
    pool: MAX
    kernel_size: 3
    stride: 1
    pad: 1
  }
}
layer {
  name: "inception_3a/pool_proj"
  type: "Convolution"
  bottom: "inception_3a/pool"
  top: "inception_3a/pool_proj"
  param {
    lr_mult: 1
    decay_mult: 1
  }
  param {
    lr_mult: 2
    decay_mult: 0
  }
  convolution_param {
    num_output: 32
    kernel_size: 1
    weight_filler {
      type: "xavier"
      std: 0.1
    }
    bias_filler {
      type: "constant"
      value: 0.2
    }
  }
}
layer {
  name: "inception_3a/relu_pool_proj"
  type: "ReLU"
  bottom: "inception_3a/pool_proj"
  top: "inception_3a/pool_proj"
}
layer {
  name: "inception_3a/output"
  type: "Concat"
  bottom: "inception_3a/1x1"
  bottom: "inception_3a/3x3"
  bottom: "inception_3a/5x5"
  bottom: "inception_3a/pool_proj"
  top: "inception_3a/output"
}
layer {
  name: "inception_3b/1x1"
  type: "Convolution"
  bottom: "inception_3a/output"
  top: "inception_3b/1x1"
  param {
    lr_mult: 1
    decay_mult: 1
  }
  param {
    lr_mult: 2
    decay_mult: 0
  }
  convolution_param {
    num_output: 128
    kernel_size: 1
    weight_filler {
      type: "xavier"
      std: 0.03
    }
    bias_filler {
      type: "constant"
      value: 0.2
    }
  }
}
layer {
  name: "inception_3b/relu_1x1"
  type: "ReLU"
  bottom: "inception_3b/1x1"
  top: "inception_3b/1x1"
}
layer {
  name: "inception_3b/3x3_reduce"
  type: "Convolution"
  bottom: "inception_3a/output"
  top: "inception_3b/3x3_reduce"
  param {
    lr_mult: 1
    decay_mult: 1
  }
  param {
    lr_mult: 2
    decay_mult: 0
  }
  convolution_param {
    num_output: 128
    kernel_size: 1
    weight_filler {
      type: "xavier"
      std: 0.09
    }
    bias_filler {
      type: "constant"
      value: 0.2
    }
  }
}
layer {
  name: "inception_3b/relu_3x3_reduce"
  type: "ReLU"
  bottom: "inception_3b/3x3_reduce"
  top: "inception_3b/3x3_reduce"
}
layer {
  name: "inception_3b/3x3"
  type: "Convolution"
  bottom: "inception_3b/3x3_reduce"
  top: "inception_3b/3x3"
  param {
    lr_mult: 1
    decay_mult: 1
  }
  param {
    lr_mult: 2
    decay_mult: 0
  }
  convolution_param {
    num_output: 192
    pad: 1
    kernel_size: 3
    weight_filler {
      type: "xavier"
      std: 0.03
    }
    bias_filler {
      type: "constant"
      value: 0.2
    }
  }
}
layer {
  name: "inception_3b/relu_3x3"
  type: "ReLU"
  bottom: "inception_3b/3x3"
  top: "inception_3b/3x3"
}
layer {
  name: "inception_3b/5x5_reduce"
  type: "Convolution"
  bottom: "inception_3a/output"
  top: "inception_3b/5x5_reduce"
  param {
    lr_mult: 1
    decay_mult: 1
  }
  param {
    lr_mult: 2
    decay_mult: 0
  }
  convolution_param {
    num_output: 32
    kernel_size: 1
    weight_filler {
      type: "xavier"
      std: 0.2
    }
    bias_filler {
      type: "constant"
      value: 0.2
    }
  }
}
layer {
  name: "inception_3b/relu_5x5_reduce"
  type: "ReLU"
  bottom: "inception_3b/5x5_reduce"
  top: "inception_3b/5x5_reduce"
}
layer {
  name: "inception_3b/5x5"
  type: "Convolution"
  bottom: "inception_3b/5x5_reduce"
  top: "inception_3b/5x5"
  param {
    lr_mult: 1
    decay_mult: 1
  }
  param {
    lr_mult: 2
    decay_mult: 0
  }
  convolution_param {
    num_output: 96
    pad: 2
    kernel_size: 5
    weight_filler {
      type: "xavier"
      std: 0.03
    }
    bias_filler {
      type: "constant"
      value: 0.2
    }
  }
}
layer {
  name: "inception_3b/relu_5x5"
  type: "ReLU"
  bottom: "inception_3b/5x5"
  top: "inception_3b/5x5"
}
layer {
  name: "inception_3b/pool"
  type: "Pooling"
  bottom: "inception_3a/output"
  top: "inception_3b/pool"
  pooling_param {
    pool: MAX
    kernel_size: 3
    stride: 1
    pad: 1
  }
}
layer {
  name: "inception_3b/pool_proj"
  type: "Convolution"
  bottom: "inception_3b/pool"
  top: "inception_3b/pool_proj"
  param {
    lr_mult: 1
    decay_mult: 1
  }
  param {
    lr_mult: 2
    decay_mult: 0
  }
  convolution_param {
    num_output: 64
    kernel_size: 1
    weight_filler {
      type: "xavier"
      std: 0.1
    }
    bias_filler {
      type: "constant"
      value: 0.2
    }
  }
}
layer {
  name: "inception_3b/relu_pool_proj"
  type: "ReLU"
  bottom: "inception_3b/pool_proj"
  top: "inception_3b/pool_proj"
}
layer {
  name: "inception_3b/output"
  type: "Concat"
  bottom: "inception_3b/1x1"
  bottom: "inception_3b/3x3"
  bottom: "inception_3b/5x5"
  bottom: "inception_3b/pool_proj"
  top: "inception_3b/output"
}
layer {
  name: "pool3/3x3_s2"
  type: "Pooling"
  bottom: "inception_3b/output"
  top: "pool3/3x3_s2"
  pooling_param {
    pool: MAX
    kernel_size: 3
    stride: 2
  }
}
layer {
  name: "inception_4a/1x1"
  type: "Convolution"
  bottom: "pool3/3x3_s2"
  top: "inception_4a/1x1"
  param {
    lr_mult: 1
    decay_mult: 1
  }
  param {
    lr_mult: 2
    decay_mult: 0
  }
  convolution_param {
    num_output: 192
    kernel_size: 1
    weight_filler {
      type: "xavier"
      std: 0.03
    }
    bias_filler {
      type: "constant"
      value: 0.2
    }
  }
}
layer {
  name: "inception_4a/relu_1x1"
  type: "ReLU"
  bottom: "inception_4a/1x1"
  top: "inception_4a/1x1"
}
layer {
  name: "inception_4a/3x3_reduce"
  type: "Convolution"
  bottom: "pool3/3x3_s2"
  top: "inception_4a/3x3_reduce"
  param {
    lr_mult: 1
    decay_mult: 1
  }
  param {
    lr_mult: 2
    decay_mult: 0
  }
  convolution_param {
    num_output: 96
    kernel_size: 1
    weight_filler {
      type: "xavier"
      std: 0.09
    }
    bias_filler {
      type: "constant"
      value: 0.2
    }
  }
}
layer {
  name: "inception_4a/relu_3x3_reduce"
  type: "ReLU"
  bottom: "inception_4a/3x3_reduce"
  top: "inception_4a/3x3_reduce"
}
layer {
  name: "inception_4a/3x3"
  type: "Convolution"
  bottom: "inception_4a/3x3_reduce"
  top: "inception_4a/3x3"
  param {
    lr_mult: 1
    decay_mult: 1
  }
  param {
    lr_mult: 2
    decay_mult: 0
  }
  convolution_param {
    num_output: 208
    pad: 1
    kernel_size: 3
    weight_filler {
      type: "xavier"
      std: 0.03
    }
    bias_filler {
      type: "constant"
      value: 0.2
    }
  }
}
layer {
  name: "inception_4a/relu_3x3"
  type: "ReLU"
  bottom: "inception_4a/3x3"
  top: "inception_4a/3x3"
}
layer {
  name: "inception_4a/5x5_reduce"
  type: "Convolution"
  bottom: "pool3/3x3_s2"
  top: "inception_4a/5x5_reduce"
  param {
    lr_mult: 1
    decay_mult: 1
  }
  param {
    lr_mult: 2
    decay_mult: 0
  }
  convolution_param {
    num_output: 16
    kernel_size: 1
    weight_filler {
      type: "xavier"
      std: 0.2
    }
    bias_filler {
      type: "constant"
      value: 0.2
    }
  }
}
layer {
  name: "inception_4a/relu_5x5_reduce"
  type: "ReLU"
  bottom: "inception_4a/5x5_reduce"
  top: "inception_4a/5x5_reduce"
}
layer {
  name: "inception_4a/5x5"
  type: "Convolution"
  bottom: "inception_4a/5x5_reduce"
  top: "inception_4a/5x5"
  param {
    lr_mult: 1
    decay_mult: 1
  }
  param {
    lr_mult: 2
    decay_mult: 0
  }
  convolution_param {
    num_output: 48
    pad: 2
    kernel_size: 5
    weight_filler {
      type: "xavier"
      std: 0.03
    }
    bias_filler {
      type: "constant"
      value: 0.2
    }
  }
}
layer {
  name: "inception_4a/relu_5x5"
  type: "ReLU"
  bottom: "inception_4a/5x5"
  top: "inception_4a/5x5"
}
layer {
  name: "inception_4a/pool"
  type: "Pooling"
  bottom: "pool3/3x3_s2"
  top: "inception_4a/pool"
  pooling_param {
    pool: MAX
    kernel_size: 3
    stride: 1
    pad: 1
  }
}
layer {
  name: "inception_4a/pool_proj"
  type: "Convolution"
  bottom: "inception_4a/pool"
  top: "inception_4a/pool_proj"
  param {
    lr_mult: 1
    decay_mult: 1
  }
  param {
    lr_mult: 2
    decay_mult: 0
  }
  convolution_param {
    num_output: 64
    kernel_size: 1
    weight_filler {
      type: "xavier"
      std: 0.1
    }
    bias_filler {
      type: "constant"
      value: 0.2
    }
  }
}
layer {
  name: "inception_4a/relu_pool_proj"
  type: "ReLU"
  bottom: "inception_4a/pool_proj"
  top: "inception_4a/pool_proj"
}
layer {
  name: "inception_4a/output"
  type: "Concat"
  bottom: "inception_4a/1x1"
  bottom: "inception_4a/3x3"
  bottom: "inception_4a/5x5"
  bottom: "inception_4a/pool_proj"
  top: "inception_4a/output"
}
layer {
  name: "loss1/ave_pool"
  type: "Pooling"
  bottom: "inception_4a/output"
  top: "loss1/ave_pool"
  pooling_param {
    pool: AVE
    kernel_size: 5
    stride: 3
  }
}
layer {
  name: "loss1/conv"
  type: "Convolution"
  bottom: "loss1/ave_pool"
  top: "loss1/conv"
  param {
    lr_mult: 1
    decay_mult: 1
  }
  param {
    lr_mult: 2
    decay_mult: 0
  }
  convolution_param {
    num_output: 128
    kernel_size: 1
    weight_filler {
      type: "xavier"
      std: 0.08
    }
    bias_filler {
      type: "constant"
      value: 0.2
    }
  }
}
layer {
  name: "loss1/relu_conv"
  type: "ReLU"
  bottom: "loss1/conv"
  top: "loss1/conv"
}
layer {
  name: "loss1/fc"
  type: "InnerProduct"
  bottom: "loss1/conv"
  top: "loss1/fc"
  param {
    lr_mult: 1
    decay_mult: 1
  }
  param {
    lr_mult: 2
    decay_mult: 0
  }
  inner_product_param {
    num_output: 1024
    weight_filler {
      type: "xavier"
      std: 0.02
    }
    bias_filler {
      type: "constant"
      value: 0.2
    }
  }
}
layer {
  name: "loss1/relu_fc"
  type: "ReLU"
  bottom: "loss1/fc"
  top: "loss1/fc"
}
layer {
  name: "loss1/drop_fc"
  type: "Dropout"
  bottom: "loss1/fc"
  top: "loss1/fc"
  dropout_param {
    dropout_ratio: 0.7
  }
}
layer {
  name: "loss1/classifier_plantvillage"
  type: "InnerProduct"
  bottom: "loss1/fc"
  top: "loss1/classifier_plantvillage"
  param {
    lr_mult: 1
    decay_mult: 1
  }
  param {
    lr_mult: 2
    decay_mult: 0
  }
  inner_product_param {
    num_output: 38
    weight_filler {
      type: "xavier"
      std: 0.0009765625
    }
    bias_filler {
      type: "constant"
      value: 0
    }
  }
}
layer {
  name: "inception_4b/1x1"
  type: "Convolution"
  bottom: "inception_4a/output"
  top: "inception_4b/1x1"
  param {
    lr_mult: 1
    decay_mult: 1
  }
  param {
    lr_mult: 2
    decay_mult: 0
  }
  convolution_param {
    num_output: 160
    kernel_size: 1
    weight_filler {
      type: "xavier"
      std: 0.03
    }
    bias_filler {
      type: "constant"
      value: 0.2
    }
  }
}
layer {
…
I0403 04:32:26.791903  2011 layer_factory.hpp:77] Creating layer inception_4c/pool
I0403 04:32:26.791919  2011 net.cpp:91] Creating Layer inception_4c/pool
I0403 04:32:26.791935  2011 net.cpp:425] inception_4c/pool <- inception_4b/output_inception_4b/output_0_split_3
I0403 04:32:26.791955  2011 net.cpp:399] inception_4c/pool -> inception_4c/pool
I0403 04:32:26.792012  2011 net.cpp:141] Setting up inception_4c/pool
I0403 04:32:26.792035  2011 net.cpp:148] Top shape: 24 512 14 14 (2408448)
I0403 04:32:26.792050  2011 net.cpp:156] Memory required for data: 1060605120
I0403 04:32:26.792064  2011 layer_factory.hpp:77] Creating layer inception_4c/pool_proj
I0403 04:32:26.792088  2011 net.cpp:91] Creating Layer inception_4c/pool_proj
I0403 04:32:26.792107  2011 net.cpp:425] inception_4c/pool_proj <- inception_4c/pool
I0403 04:32:26.792129  2011 net.cpp:399] inception_4c/pool_proj -> inception_4c/pool_proj
I0403 04:32:26.792562  2011 net.cpp:141] Setting up inception_4c/pool_proj
I0403 04:32:26.792588  2011 net.cpp:148] Top shape: 24 64 14 14 (301056)
I0403 04:32:26.792603  2011 net.cpp:156] Memory required for data: 1061809344
I0403 04:32:26.792621  2011 layer_factory.hpp:77] Creating layer inception_4c/relu_pool_proj
I0403 04:32:26.792640  2011 net.cpp:91] Creating Layer inception_4c/relu_pool_proj
I0403 04:32:26.792655  2011 net.cpp:425] inception_4c/relu_pool_proj <- inception_4c/pool_proj
I0403 04:32:26.792673  2011 net.cpp:386] inception_4c/relu_pool_proj -> inception_4c/pool_proj (in-place)
I0403 04:32:26.792691  2011 net.cpp:141] Setting up inception_4c/relu_pool_proj
I0403 04:32:26.792709  2011 net.cpp:148] Top shape: 24 64 14 14 (301056)
I0403 04:32:26.792722  2011 net.cpp:156] Memory required for data: 1063013568
I0403 04:32:26.792737  2011 layer_factory.hpp:77] Creating layer inception_4c/output
I0403 04:32:26.792757  2011 net.cpp:91] Creating Layer inception_4c/output
I0403 04:32:26.792773  2011 net.cpp:425] inception_4c/output <- inception_4c/1x1
I0403 04:32:26.792789  2011 net.cpp:425] inception_4c/output <- inception_4c/3x3
I0403 04:32:26.792805  2011 net.cpp:425] inception_4c/output <- inception_4c/5x5
I0403 04:32:26.792821  2011 net.cpp:425] inception_4c/output <- inception_4c/pool_proj
I0403 04:32:26.792839  2011 net.cpp:399] inception_4c/output -> inception_4c/output
I0403 04:32:26.792881  2011 net.cpp:141] Setting up inception_4c/output
I0403 04:32:26.792904  2011 net.cpp:148] Top shape: 24 512 14 14 (2408448)
I0403 04:32:26.792919  2011 net.cpp:156] Memory required for data: 1072647360
I0403 04:32:26.792935  2011 layer_factory.hpp:77] Creating layer inception_4c/output_inception_4c/output_0_split
I0403 04:32:26.792953  2011 net.cpp:91] Creating Layer inception_4c/output_inception_4c/output_0_split
I0403 04:32:26.792968  2011 net.cpp:425] inception_4c/output_inception_4c/output_0_split <- inception_4c/output
I0403 04:32:26.792994  2011 net.cpp:399] inception_4c/output_inception_4c/output_0_split -> inception_4c/output_inception_4c/output_0_split_0
I0403 04:32:26.793020  2011 net.cpp:399] inception_4c/output_inception_4c/output_0_split -> inception_4c/output_inception_4c/output_0_split_1
I0403 04:32:26.793040  2011 net.cpp:399] inception_4c/output_inception_4c/output_0_split -> inception_4c/output_inception_4c/output_0_split_2
I0403 04:32:26.793061  2011 net.cpp:399] inception_4c/output_inception_4c/output_0_split -> inception_4c/output_inception_4c/output_0_split_3
I0403 04:32:26.793154  2011 net.cpp:141] Setting up inception_4c/output_inception_4c/output_0_split
I0403 04:32:26.793181  2011 net.cpp:148] Top shape: 24 512 14 14 (2408448)
I0403 04:32:26.793198  2011 net.cpp:148] Top shape: 24 512 14 14 (2408448)
I0403 04:32:26.793213  2011 net.cpp:148] Top shape: 24 512 14 14 (2408448)
I0403 04:32:26.793228  2011 net.cpp:148] Top shape: 24 512 14 14 (2408448)
I0403 04:32:26.793242  2011 net.cpp:156] Memory required for data: 1111182528
I0403 04:32:26.793256  2011 layer_factory.hpp:77] Creating layer inception_4d/1x1
I0403 04:32:26.793279  2011 net.cpp:91] Creating Layer inception_4d/1x1
I0403 04:32:26.793298  2011 net.cpp:425] inception_4d/1x1 <- inception_4c/output_inception_4c/output_0_split_0
I0403 04:32:26.793316  2011 net.cpp:399] inception_4d/1x1 -> inception_4d/1x1
I0403 04:32:26.793875  2011 net.cpp:141] Setting up inception_4d/1x1
I0403 04:32:26.793900  2011 net.cpp:148] Top shape: 24 112 14 14 (526848)
I0403 04:32:26.793915  2011 net.cpp:156] Memory required for data: 1113289920
I0403 04:32:26.793932  2011 layer_factory.hpp:77] Creating layer inception_4d/relu_1x1
I0403 04:32:26.793949  2011 net.cpp:91] Creating Layer inception_4d/relu_1x1
I0403 04:32:26.793964  2011 net.cpp:425] inception_4d/relu_1x1 <- inception_4d/1x1
I0403 04:32:26.793984  2011 net.cpp:386] inception_4d/relu_1x1 -> inception_4d/1x1 (in-place)
I0403 04:32:26.794004  2011 net.cpp:141] Setting up inception_4d/relu_1x1
I0403 04:32:26.794021  2011 net.cpp:148] Top shape: 24 112 14 14 (526848)
I0403 04:32:26.794035  2011 net.cpp:156] Memory required for data: 1115397312
I0403 04:32:26.794049  2011 layer_factory.hpp:77] Creating layer inception_4d/3x3_reduce
I0403 04:32:26.794070  2011 net.cpp:91] Creating Layer inception_4d/3x3_reduce
I0403 04:32:26.794086  2011 net.cpp:425] inception_4d/3x3_reduce <- inception_4c/output_inception_4c/output_0_split_1
I0403 04:32:26.794121  2011 net.cpp:399] inception_4d/3x3_reduce -> inception_4d/3x3_reduce
I0403 04:32:26.794826  2011 net.cpp:141] Setting up inception_4d/3x3_reduce
I0403 04:32:26.794850  2011 net.cpp:148] Top shape: 24 144 14 14 (677376)
I0403 04:32:26.794865  2011 net.cpp:156] Memory required for data: 1118106816
I0403 04:32:26.794883  2011 layer_factory.hpp:77] Creating layer inception_4d/relu_3x3_reduce
I0403 04:32:26.794900  2011 net.cpp:91] Creating Layer inception_4d/relu_3x3_reduce
I0403 04:32:26.794916  2011 net.cpp:425] inception_4d/relu_3x3_reduce <- inception_4d/3x3_reduce
I0403 04:32:26.794934  2011 net.cpp:386] inception_4d/relu_3x3_reduce -> inception_4d/3x3_reduce (in-place)
I0403 04:32:26.794955  2011 net.cpp:141] Setting up inception_4d/relu_3x3_reduce
I0403 04:32:26.794972  2011 net.cpp:148] Top shape: 24 144 14 14 (677376)
I0403 04:32:26.794986  2011 net.cpp:156] Memory required for data: 1120816320
I0403 04:32:26.795001  2011 layer_factory.hpp:77] Creating layer inception_4d/3x3
I0403 04:32:26.795022  2011 net.cpp:91] Creating Layer inception_4d/3x3
I0403 04:32:26.795039  2011 net.cpp:425] inception_4d/3x3 <- inception_4d/3x3_reduce
I0403 04:32:26.795058  2011 net.cpp:399] inception_4d/3x3 -> inception_4d/3x3
I0403 04:32:26.798265  2011 net.cpp:141] Setting up inception_4d/3x3
I0403 04:32:26.798295  2011 net.cpp:148] Top shape: 24 288 14 14 (1354752)
I0403 04:32:26.798311  2011 net.cpp:156] Memory required for data: 1126235328
I0403 04:32:26.798329  2011 layer_factory.hpp:77] Creating layer inception_4d/relu_3x3
I0403 04:32:26.798351  2011 net.cpp:91] Creating Layer inception_4d/relu_3x3
I0403 04:32:26.798368  2011 net.cpp:425] inception_4d/relu_3x3 <- inception_4d/3x3
I0403 04:32:26.798398  2011 net.cpp:386] inception_4d/relu_3x3 -> inception_4d/3x3 (in-place)
I0403 04:32:26.798416  2011 net.cpp:141] Setting up inception_4d/relu_3x3
I0403 04:32:26.798434  2011 net.cpp:148] Top shape: 24 288 14 14 (1354752)
I0403 04:32:26.798447  2011 net.cpp:156] Memory required for data: 1131654336
I0403 04:32:26.798460  2011 layer_factory.hpp:77] Creating layer inception_4d/5x5_reduce
I0403 04:32:26.798498  2011 net.cpp:91] Creating Layer inception_4d/5x5_reduce
I0403 04:32:26.798517  2011 net.cpp:425] inception_4d/5x5_reduce <- inception_4c/output_inception_4c/output_0_split_2
I0403 04:32:26.798538  2011 net.cpp:399] inception_4d/5x5_reduce -> inception_4d/5x5_reduce
I0403 04:32:26.798874  2011 net.cpp:141] Setting up inception_4d/5x5_reduce
I0403 04:32:26.798898  2011 net.cpp:148] Top shape: 24 32 14 14 (150528)
I0403 04:32:26.798913  2011 net.cpp:156] Memory required for data: 1132256448
I0403 04:32:26.798929  2011 layer_factory.hpp:77] Creating layer inception_4d/relu_5x5_reduce
I0403 04:32:26.798948  2011 net.cpp:91] Creating Layer inception_4d/relu_5x5_reduce
I0403 04:32:26.798962  2011 net.cpp:425] inception_4d/relu_5x5_reduce <- inception_4d/5x5_reduce
I0403 04:32:26.798979  2011 net.cpp:386] inception_4d/relu_5x5_reduce -> inception_4d/5x5_reduce (in-place)
I0403 04:32:26.798997  2011 net.cpp:141] Setting up inception_4d/relu_5x5_reduce
I0403 04:32:26.799015  2011 net.cpp:148] Top shape: 24 32 14 14 (150528)
I0403 04:32:26.799027  2011 net.cpp:156] Memory required for data: 1132858560
I0403 04:32:26.799041  2011 layer_factory.hpp:77] Creating layer inception_4d/5x5
I0403 04:32:26.799062  2011 net.cpp:91] Creating Layer inception_4d/5x5
I0403 04:32:26.799078  2011 net.cpp:425] inception_4d/5x5 <- inception_4d/5x5_reduce
I0403 04:32:26.799101  2011 net.cpp:399] inception_4d/5x5 -> inception_4d/5x5
I0403 04:32:26.799662  2011 net.cpp:141] Setting up inception_4d/5x5
I0403 04:32:26.799690  2011 net.cpp:148] Top shape: 24 64 14 14 (301056)
I0403 04:32:26.799715  2011 net.cpp:156] Memory required for data: 1134062784
I0403 04:32:26.799732  2011 layer_factory.hpp:77] Creating layer inception_4d/relu_5x5
I0403 04:32:26.799751  2011 net.cpp:91] Creating Layer inception_4d/relu_5x5
I0403 04:32:26.799767  2011 net.cpp:425] inception_4d/relu_5x5 <- inception_4d/5x5
I0403 04:32:26.799784  2011 net.cpp:386] inception_4d/relu_5x5 -> inception_4d/5x5 (in-place)
I0403 04:32:26.799804  2011 net.cpp:141] Setting up inception_4d/relu_5x5
I0403 04:32:26.799824  2011 net.cpp:148] Top shape: 24 64 14 14 (301056)
I0403 04:32:26.799840  2011 net.cpp:156] Memory required for data: 1135267008
I0403 04:32:26.799855  2011 layer_factory.hpp:77] Creating layer inception_4d/pool
I0403 04:32:26.799878  2011 net.cpp:91] Creating Layer inception_4d/pool
I0403 04:32:26.799896  2011 net.cpp:425] inception_4d/pool <- inception_4c/output_inception_4c/output_0_split_3
I0403 04:32:26.799913  2011 net.cpp:399] inception_4d/pool -> inception_4d/pool
I0403 04:32:26.799971  2011 net.cpp:141] Setting up inception_4d/pool
I0403 04:32:26.799995  2011 net.cpp:148] Top shape: 24 512 14 14 (2408448)
I0403 04:32:26.800009  2011 net.cpp:156] Memory required for data: 1144900800
I0403 04:32:26.800024  2011 layer_factory.hpp:77] Creating layer inception_4d/pool_proj
I0403 04:32:26.800045  2011 net.cpp:91] Creating Layer inception_4d/pool_proj
I0403 04:32:26.800062  2011 net.cpp:425] inception_4d/pool_proj <- inception_4d/pool
I0403 04:32:26.800081  2011 net.cpp:399] inception_4d/pool_proj -> inception_4d/pool_proj
I0403 04:32:26.800509  2011 net.cpp:141] Setting up inception_4d/pool_proj
I0403 04:32:26.800537  2011 net.cpp:148] Top shape: 24 64 14 14 (301056)
I0403 04:32:26.800554  2011 net.cpp:156] Memory required for data: 1146105024
I0403 04:32:26.800570  2011 layer_factory.hpp:77] Creating layer inception_4d/relu_pool_proj
I0403 04:32:26.800590  2011 net.cpp:91] Creating Layer inception_4d/relu_pool_proj
I0403 04:32:26.800606  2011 net.cpp:425] inception_4d/relu_pool_proj <- inception_4d/pool_proj
I0403 04:32:26.800622  2011 net.cpp:386] inception_4d/relu_pool_proj -> inception_4d/pool_proj (in-place)
I0403 04:32:26.800642  2011 net.cpp:141] Setting up inception_4d/relu_pool_proj
I0403 04:32:26.800658  2011 net.cpp:148] Top shape: 24 64 14 14 (301056)
I0403 04:32:26.800673  2011 net.cpp:156] Memory required for data: 1147309248
I0403 04:32:26.800686  2011 layer_factory.hpp:77] Creating layer inception_4d/output
I0403 04:32:26.800717  2011 net.cpp:91] Creating Layer inception_4d/output
I0403 04:32:26.800734  2011 net.cpp:425] inception_4d/output <- inception_4d/1x1
I0403 04:32:26.800751  2011 net.cpp:425] inception_4d/output <- inception_4d/3x3
I0403 04:32:26.800767  2011 net.cpp:425] inception_4d/output <- inception_4d/5x5
I0403 04:32:26.800783  2011 net.cpp:425] inception_4d/output <- inception_4d/pool_proj
I0403 04:32:26.800803  2011 net.cpp:399] inception_4d/output -> inception_4d/output
I0403 04:32:26.800844  2011 net.cpp:141] Setting up inception_4d/output
I0403 04:32:26.800870  2011 net.cpp:148] Top shape: 24 528 14 14 (2483712)
I0403 04:32:26.800885  2011 net.cpp:156] Memory required for data: 1157244096
I0403 04:32:26.800899  2011 layer_factory.hpp:77] Creating layer inception_4d/output_inception_4d/output_0_split
I0403 04:32:26.800917  2011 net.cpp:91] Creating Layer inception_4d/output_inception_4d/output_0_split
I0403 04:32:26.800933  2011 net.cpp:425] inception_4d/output_inception_4d/output_0_split <- inception_4d/output
I0403 04:32:26.800951  2011 net.cpp:399] inception_4d/output_inception_4d/output_0_split -> inception_4d/output_inception_4d/output_0_split_0
I0403 04:32:26.800971  2011 net.cpp:399] inception_4d/output_inception_4d/output_0_split -> inception_4d/output_inception_4d/output_0_split_1
I0403 04:32:26.800989  2011 net.cpp:399] inception_4d/output_inception_4d/output_0_split -> inception_4d/output_inception_4d/output_0_split_2
I0403 04:32:26.801012  2011 net.cpp:399] inception_4d/output_inception_4d/output_0_split -> inception_4d/output_inception_4d/output_0_split_3
I0403 04:32:26.801033  2011 net.cpp:399] inception_4d/output_inception_4d/output_0_split -> inception_4d/output_inception_4d/output_0_split_4
I0403 04:32:26.801121  2011 net.cpp:141] Setting up inception_4d/output_inception_4d/output_0_split
I0403 04:32:26.801144  2011 net.cpp:148] Top shape: 24 528 14 14 (2483712)
I0403 04:32:26.801162  2011 net.cpp:148] Top shape: 24 528 14 14 (2483712)
I0403 04:32:26.801177  2011 net.cpp:148] Top shape: 24 528 14 14 (2483712)
I0403 04:32:26.801192  2011 net.cpp:148] Top shape: 24 528 14 14 (2483712)
I0403 04:32:26.801206  2011 net.cpp:148] Top shape: 24 528 14 14 (2483712)
I0403 04:32:26.801220  2011 net.cpp:156] Memory required for data: 1206918336
I0403 04:32:26.801234  2011 layer_factory.hpp:77] Creating layer loss2/ave_pool
I0403 04:32:26.801254  2011 net.cpp:91] Creating Layer loss2/ave_pool
I0403 04:32:26.801270  2011 net.cpp:425] loss2/ave_pool <- inception_4d/output_inception_4d/output_0_split_0
I0403 04:32:26.801288  2011 net.cpp:399] loss2/ave_pool -> loss2/ave_pool
I0403 04:32:26.801331  2011 net.cpp:141] Setting up loss2/ave_pool
I0403 04:32:26.801357  2011 net.cpp:148] Top shape: 24 528 4 4 (202752)
I0403 04:32:26.801373  2011 net.cpp:156] Memory required for data: 1207729344
I0403 04:32:26.801388  2011 layer_factory.hpp:77] Creating layer loss2/conv
I0403 04:32:26.801410  2011 net.cpp:91] Creating Layer loss2/conv
I0403 04:32:26.801430  2011 net.cpp:425] loss2/conv <- loss2/ave_pool
I0403 04:32:26.801451  2011 net.cpp:399] loss2/conv -> loss2/conv
I0403 04:32:26.802634  2011 net.cpp:141] Setting up loss2/conv
I0403 04:32:26.802662  2011 net.cpp:148] Top shape: 24 128 4 4 (49152)
I0403 04:32:26.802678  2011 net.cpp:156] Memory required for data: 1207925952
I0403 04:32:26.802696  2011 layer_factory.hpp:77] Creating layer loss2/relu_conv
I0403 04:32:26.802716  2011 net.cpp:91] Creating Layer loss2/relu_conv
I0403 04:32:26.802731  2011 net.cpp:425] loss2/relu_conv <- loss2/conv
I0403 04:32:26.802752  2011 net.cpp:386] loss2/relu_conv -> loss2/conv (in-place)
I0403 04:32:26.802772  2011 net.cpp:141] Setting up loss2/relu_conv
I0403 04:32:26.802788  2011 net.cpp:148] Top shape: 24 128 4 4 (49152)
I0403 04:32:26.802803  2011 net.cpp:156] Memory required for data: 1208122560
I0403 04:32:26.802815  2011 layer_factory.hpp:77] Creating layer loss2/fc
I0403 04:32:26.802835  2011 net.cpp:91] Creating Layer loss2/fc
I0403 04:32:26.802851  2011 net.cpp:425] loss2/fc <- loss2/conv
I0403 04:32:26.802872  2011 net.cpp:399] loss2/fc -> loss2/fc
I0403 04:32:26.819167  2011 net.cpp:141] Setting up loss2/fc
I0403 04:32:26.819216  2011 net.cpp:148] Top shape: 24 1024 (24576)
I0403 04:32:26.819231  2011 net.cpp:156] Memory required for data: 1208220864
I0403 04:32:26.819249  2011 layer_factory.hpp:77] Creating layer loss2/relu_fc
I0403 04:32:26.819269  2011 net.cpp:91] Creating Layer loss2/relu_fc
I0403 04:32:26.819286  2011 net.cpp:425] loss2/relu_fc <- loss2/fc
I0403 04:32:26.819306  2011 net.cpp:386] loss2/relu_fc -> loss2/fc (in-place)
I0403 04:32:26.819327  2011 net.cpp:141] Setting up loss2/relu_fc
I0403 04:32:26.819347  2011 net.cpp:148] Top shape: 24 1024 (24576)
I0403 04:32:26.819363  2011 net.cpp:156] Memory required for data: 1208319168
I0403 04:32:26.819376  2011 layer_factory.hpp:77] Creating layer loss2/drop_fc
I0403 04:32:26.819396  2011 net.cpp:91] Creating Layer loss2/drop_fc
I0403 04:32:26.819411  2011 net.cpp:425] loss2/drop_fc <- loss2/fc
I0403 04:32:26.819428  2011 net.cpp:386] loss2/drop_fc -> loss2/fc (in-place)
I0403 04:32:26.819473  2011 net.cpp:141] Setting up loss2/drop_fc
I0403 04:32:26.819496  2011 net.cpp:148] Top shape: 24 1024 (24576)
I0403 04:32:26.819510  2011 net.cpp:156] Memory required for data: 1208417472
I0403 04:32:26.819525  2011 layer_factory.hpp:77] Creating layer loss2/classifier_plantvillage
I0403 04:32:26.819545  2011 net.cpp:91] Creating Layer loss2/classifier_plantvillage
I0403 04:32:26.819562  2011 net.cpp:425] loss2/classifier_plantvillage <- loss2/fc
I0403 04:32:26.819581  2011 net.cpp:399] loss2/classifier_plantvillage -> loss2/classifier_plantvillage
I0403 04:32:26.819933  2011 net.cpp:141] Setting up loss2/classifier_plantvillage
I0403 04:32:26.819957  2011 net.cpp:148] Top shape: 24 38 (912)
I0403 04:32:26.819972  2011 net.cpp:156] Memory required for data: 1208421120
I0403 04:32:26.819988  2011 layer_factory.hpp:77] Creating layer loss2/classifier_plantvillage_loss2/classifier_plantvillage_0_split
I0403 04:32:26.820008  2011 net.cpp:91] Creating Layer loss2/classifier_plantvillage_loss2/classifier_plantvillage_0_split
I0403 04:32:26.820024  2011 net.cpp:425] loss2/classifier_plantvillage_loss2/classifier_plantvillage_0_split <- loss2/classifier_plantvillage
I0403 04:32:26.820042  2011 net.cpp:399] loss2/classifier_plantvillage_loss2/classifier_plantvillage_0_split -> loss2/classifier_plantvillage_loss2/classifier_plantvillage_0_split_0
I0403 04:32:26.820063  2011 net.cpp:399] loss2/classifier_plantvillage_loss2/classifier_plantvillage_0_split -> loss2/classifier_plantvillage_loss2/classifier_plantvillage_0_split_1
I0403 04:32:26.820085  2011 net.cpp:399] loss2/classifier_plantvillage_loss2/classifier_plantvillage_0_split -> loss2/classifier_plantvillage_loss2/classifier_plantvillage_0_split_2
I0403 04:32:26.820152  2011 net.cpp:141] Setting up loss2/classifier_plantvillage_loss2/classifier_plantvillage_0_split
I0403 04:32:26.820178  2011 net.cpp:148] Top shape: 24 38 (912)
I0403 04:32:26.820194  2011 net.cpp:148] Top shape: 24 38 (912)
I0403 04:32:26.820209  2011 net.cpp:148] Top shape: 24 38 (912)
I0403 04:32:26.820222  2011 net.cpp:156] Memory required for data: 1208432064
I0403 04:32:26.820236  2011 layer_factory.hpp:77] Creating layer inception_4e/1x1
I0403 04:32:26.820257  2011 net.cpp:91] Creating Layer inception_4e/1x1
I0403 04:32:26.820273  2011 net.cpp:425] inception_4e/1x1 <- inception_4d/output_inception_4d/output_0_split_1
I0403 04:32:26.820292  2011 net.cpp:399] inception_4e/1x1 -> inception_4e/1x1
I0403 04:32:26.821280  2011 net.cpp:141] Setting up inception_4e/1x1
I0403 04:32:26.821305  2011 net.cpp:148] Top shape: 24 256 14 14 (1204224)
I0403 04:32:26.821318  2011 net.cpp:156] Memory required for data: 1213248960
I0403 04:32:26.821336  2011 layer_factory.hpp:77] Creating layer inception_4e/relu_1x1
I0403 04:32:26.821357  2011 net.cpp:91] Creating Layer inception_4e/relu_1x1
I0403 04:32:26.821374  2011 net.cpp:425] inception_4e/relu_1x1 <- inception_4e/1x1
I0403 04:32:26.821393  2011 net.cpp:386] inception_4e/relu_1x1 -> inception_4e/1x1 (in-place)
I0403 04:32:26.821411  2011 net.cpp:141] Setting up inception_4e/relu_1x1
I0403 04:32:26.821447  2011 net.cpp:148] Top shape: 24 256 14 14 (1204224)
I0403 04:32:26.821461  2011 net.cpp:156] Memory required for data: 1218065856
I0403 04:32:26.821475  2011 layer_factory.hpp:77] Creating layer inception_4e/3x3_reduce
I0403 04:32:26.821498  2011 net.cpp:91] Creating Layer inception_4e/3x3_reduce
I0403 04:32:26.821514  2011 net.cpp:425] inception_4e/3x3_reduce <- inception_4d/output_inception_4d/output_0_split_2
I0403 04:32:26.821537  2011 net.cpp:399] inception_4e/3x3_reduce -> inception_4e/3x3_reduce
I0403 04:32:26.822808  2011 net.cpp:141] Setting up inception_4e/3x3_reduce
I0403 04:32:26.822836  2011 net.cpp:148] Top shape: 24 160 14 14 (752640)
I0403 04:32:26.822854  2011 net.cpp:156] Memory required for data: 1221076416
I0403 04:32:26.822875  2011 layer_factory.hpp:77] Creating layer inception_4e/relu_3x3_reduce
I0403 04:32:26.822897  2011 net.cpp:91] Creating Layer inception_4e/relu_3x3_reduce
I0403 04:32:26.822918  2011 net.cpp:425] inception_4e/relu_3x3_reduce <- inception_4e/3x3_reduce
I0403 04:32:26.822937  2011 net.cpp:386] inception_4e/relu_3x3_reduce -> inception_4e/3x3_reduce (in-place)
I0403 04:32:26.822954  2011 net.cpp:141] Setting up inception_4e/relu_3x3_reduce
I0403 04:32:26.822971  2011 net.cpp:148] Top shape: 24 160 14 14 (752640)
I0403 04:32:26.822984  2011 net.cpp:156] Memory required for data: 1224086976
I0403 04:32:26.822999  2011 layer_factory.hpp:77] Creating layer inception_4e/3x3
I0403 04:32:26.823021  2011 net.cpp:91] Creating Layer inception_4e/3x3
I0403 04:32:26.823038  2011 net.cpp:425] inception_4e/3x3 <- inception_4e/3x3_reduce
I0403 04:32:26.823056  2011 net.cpp:399] inception_4e/3x3 -> inception_4e/3x3
I0403 04:32:26.826753  2011 net.cpp:141] Setting up inception_4e/3x3
I0403 04:32:26.826782  2011 net.cpp:148] Top shape: 24 320 14 14 (1505280)
I0403 04:32:26.826797  2011 net.cpp:156] Memory required for data: 1230108096
I0403 04:32:26.826815  2011 layer_factory.hpp:77] Creating layer inception_4e/relu_3x3
I0403 04:32:26.826833  2011 net.cpp:91] Creating Layer inception_4e/relu_3x3
I0403 04:32:26.826849  2011 net.cpp:425] inception_4e/relu_3x3 <- inception_4e/3x3
I0403 04:32:26.826865  2011 net.cpp:386] inception_4e/relu_3x3 -> inception_4e/3x3 (in-place)
I0403 04:32:26.826884  2011 net.cpp:141] Setting up inception_4e/relu_3x3
I0403 04:32:26.826900  2011 net.cpp:148] Top shape: 24 320 14 14 (1505280)
I0403 04:32:26.826913  2011 net.cpp:156] Memory required for data: 1236129216
I0403 04:32:26.826927  2011 layer_factory.hpp:77] Creating layer inception_4e/5x5_reduce
I0403 04:32:26.826949  2011 net.cpp:91] Creating Layer inception_4e/5x5_reduce
I0403 04:32:26.826967  2011 net.cpp:425] inception_4e/5x5_reduce <- inception_4d/output_inception_4d/output_0_split_3
I0403 04:32:26.826988  2011 net.cpp:399] inception_4e/5x5_reduce -> inception_4e/5x5_reduce
I0403 04:32:26.827827  2011 net.cpp:141] Setting up inception_4e/5x5_reduce
I0403 04:32:26.827857  2011 net.cpp:148] Top shape: 24 32 14 14 (150528)
I0403 04:32:26.827872  2011 net.cpp:156] Memory required for data: 1236731328
I0403 04:32:26.827890  2011 layer_factory.hpp:77] Creating layer inception_4e/relu_5x5_reduce
I0403 04:32:26.827908  2011 net.cpp:91] Creating Layer inception_4e/relu_5x5_reduce
I0403 04:32:26.827924  2011 net.cpp:425] inception_4e/relu_5x5_reduce <- inception_4e/5x5_reduce
I0403 04:32:26.827940  2011 net.cpp:386] inception_4e/relu_5x5_reduce -> inception_4e/5x5_reduce (in-place)
I0403 04:32:26.827958  2011 net.cpp:141] Setting up inception_4e/relu_5x5_reduce
I0403 04:32:26.827975  2011 net.cpp:148] Top shape: 24 32 14 14 (150528)
I0403 04:32:26.827988  2011 net.cpp:156] Memory required for data: 1237333440
I0403 04:32:26.828001  2011 layer_factory.hpp:77] Creating layer inception_4e/5x5
I0403 04:32:26.828039  2011 net.cpp:91] Creating Layer inception_4e/5x5
I0403 04:32:26.828059  2011 net.cpp:425] inception_4e/5x5 <- inception_4e/5x5_reduce
I0403 04:32:26.828078  2011 net.cpp:399] inception_4e/5x5 -> inception_4e/5x5
I0403 04:32:26.828832  2011 net.cpp:141] Setting up inception_4e/5x5
I0403 04:32:26.828869  2011 net.cpp:148] Top shape: 24 128 14 14 (602112)
I0403 04:32:26.828884  2011 net.cpp:156] Memory required for data: 1239741888
I0403 04:32:26.828902  2011 layer_factory.hpp:77] Creating layer inception_4e/relu_5x5
I0403 04:32:26.828920  2011 net.cpp:91] Creating Layer inception_4e/relu_5x5
I0403 04:32:26.828936  2011 net.cpp:425] inception_4e/relu_5x5 <- inception_4e/5x5
I0403 04:32:26.828953  2011 net.cpp:386] inception_4e/relu_5x5 -> inception_4e/5x5 (in-place)
I0403 04:32:26.828970  2011 net.cpp:141] Setting up inception_4e/relu_5x5
I0403 04:32:26.828987  2011 net.cpp:148] Top shape: 24 128 14 14 (602112)
I0403 04:32:26.829000  2011 net.cpp:156] Memory required for data: 1242150336
I0403 04:32:26.829015  2011 layer_factory.hpp:77] Creating layer inception_4e/pool
I0403 04:32:26.829035  2011 net.cpp:91] Creating Layer inception_4e/pool
I0403 04:32:26.829051  2011 net.cpp:425] inception_4e/pool <- inception_4d/output_inception_4d/output_0_split_4
I0403 04:32:26.829068  2011 net.cpp:399] inception_4e/pool -> inception_4e/pool
I0403 04:32:26.829134  2011 net.cpp:141] Setting up inception_4e/pool
I0403 04:32:26.829157  2011 net.cpp:148] Top shape: 24 528 14 14 (2483712)
I0403 04:32:26.829172  2011 net.cpp:156] Memory required for data: 1252085184
I0403 04:32:26.829186  2011 layer_factory.hpp:77] Creating layer inception_4e/pool_proj
I0403 04:32:26.829210  2011 net.cpp:91] Creating Layer inception_4e/pool_proj
I0403 04:32:26.829227  2011 net.cpp:425] inception_4e/pool_proj <- inception_4e/pool
I0403 04:32:26.829246  2011 net.cpp:399] inception_4e/pool_proj -> inception_4e/pool_proj
I0403 04:32:26.829838  2011 net.cpp:141] Setting up inception_4e/pool_proj
I0403 04:32:26.829861  2011 net.cpp:148] Top shape: 24 128 14 14 (602112)
I0403 04:32:26.829876  2011 net.cpp:156] Memory required for data: 1254493632
I0403 04:32:26.829893  2011 layer_factory.hpp:77] Creating layer inception_4e/relu_pool_proj
I0403 04:32:26.829911  2011 net.cpp:91] Creating Layer inception_4e/relu_pool_proj
I0403 04:32:26.829927  2011 net.cpp:425] inception_4e/relu_pool_proj <- inception_4e/pool_proj
I0403 04:32:26.829946  2011 net.cpp:386] inception_4e/relu_pool_proj -> inception_4e/pool_proj (in-place)
I0403 04:32:26.829967  2011 net.cpp:141] Setting up inception_4e/relu_pool_proj
I0403 04:32:26.829982  2011 net.cpp:148] Top shape: 24 128 14 14 (602112)
I0403 04:32:26.829996  2011 net.cpp:156] Memory required for data: 1256902080
I0403 04:32:26.830009  2011 layer_factory.hpp:77] Creating layer inception_4e/output
I0403 04:32:26.830026  2011 net.cpp:91] Creating Layer inception_4e/output
I0403 04:32:26.830042  2011 net.cpp:425] inception_4e/output <- inception_4e/1x1
I0403 04:32:26.830057  2011 net.cpp:425] inception_4e/output <- inception_4e/3x3
I0403 04:32:26.830072  2011 net.cpp:425] inception_4e/output <- inception_4e/5x5
I0403 04:32:26.830088  2011 net.cpp:425] inception_4e/output <- inception_4e/pool_proj
I0403 04:32:26.830117  2011 net.cpp:399] inception_4e/output -> inception_4e/output
I0403 04:32:26.830158  2011 net.cpp:141] Setting up inception_4e/output
I0403 04:32:26.830180  2011 net.cpp:148] Top shape: 24 832 14 14 (3913728)
I0403 04:32:26.830195  2011 net.cpp:156] Memory required for data: 1272556992
I0403 04:32:26.830209  2011 layer_factory.hpp:77] Creating layer pool4/3x3_s2
I0403 04:32:26.830230  2011 net.cpp:91] Creating Layer pool4/3x3_s2
I0403 04:32:26.830247  2011 net.cpp:425] pool4/3x3_s2 <- inception_4e/output
I0403 04:32:26.830265  2011 net.cpp:399] pool4/3x3_s2 -> pool4/3x3_s2
I0403 04:32:26.830317  2011 net.cpp:141] Setting up pool4/3x3_s2
I0403 04:32:26.830339  2011 net.cpp:148] Top shape: 24 832 7 7 (978432)
I0403 04:32:26.830358  2011 net.cpp:156] Memory required for data: 1276470720
I0403 04:32:26.830374  2011 layer_factory.hpp:77] Creating layer pool4/3x3_s2_pool4/3x3_s2_0_split
I0403 04:32:26.830402  2011 net.cpp:91] Creating Layer pool4/3x3_s2_pool4/3x3_s2_0_split
I0403 04:32:26.830418  2011 net.cpp:425] pool4/3x3_s2_pool4/3x3_s2_0_split <- pool4/3x3_s2
I0403 04:32:26.830448  2011 net.cpp:399] pool4/3x3_s2_pool4/3x3_s2_0_split -> pool4/3x3_s2_pool4/3x3_s2_0_split_0
I0403 04:32:26.830471  2011 net.cpp:399] pool4/3x3_s2_pool4/3x3_s2_0_split -> pool4/3x3_s2_pool4/3x3_s2_0_split_1
I0403 04:32:26.830493  2011 net.cpp:399] pool4/3x3_s2_pool4/3x3_s2_0_split -> pool4/3x3_s2_pool4/3x3_s2_0_split_2
I0403 04:32:26.830513  2011 net.cpp:399] pool4/3x3_s2_pool4/3x3_s2_0_split -> pool4/3x3_s2_pool4/3x3_s2_0_split_3
I0403 04:32:26.830579  2011 net.cpp:141] Setting up pool4/3x3_s2_pool4/3x3_s2_0_split
I0403 04:32:26.830601  2011 net.cpp:148] Top shape: 24 832 7 7 (978432)
I0403 04:32:26.830617  2011 net.cpp:148] Top shape: 24 832 7 7 (978432)
I0403 04:32:26.830631  2011 net.cpp:148] Top shape: 24 832 7 7 (978432)
I0403 04:32:26.830646  2011 net.cpp:148] Top shape: 24 832 7 7 (978432)
I0403 04:32:26.830658  2011 net.cpp:156] Memory required for data: 1292125632
I0403 04:32:26.830672  2011 layer_factory.hpp:77] Creating layer inception_5a/1x1
I0403 04:32:26.830694  2011 net.cpp:91] Creating Layer inception_5a/1x1
I0403 04:32:26.830713  2011 net.cpp:425] inception_5a/1x1 <- pool4/3x3_s2_pool4/3x3_s2_0_split_0
I0403 04:32:26.830731  2011 net.cpp:399] inception_5a/1x1 -> inception_5a/1x1
I0403 04:32:26.832587  2011 net.cpp:141] Setting up inception_5a/1x1
I0403 04:32:26.832614  2011 net.cpp:148] Top shape: 24 256 7 7 (301056)
I0403 04:32:26.832630  2011 net.cpp:156] Memory required for data: 1293329856
I0403 04:32:26.832648  2011 layer_factory.hpp:77] Creating layer inception_5a/relu_1x1
I0403 04:32:26.832665  2011 net.cpp:91] Creating Layer inception_5a/relu_1x1
I0403 04:32:26.832681  2011 net.cpp:425] inception_5a/relu_1x1 <- inception_5a/1x1
I0403 04:32:26.832698  2011 net.cpp:386] inception_5a/relu_1x1 -> inception_5a/1x1 (in-place)
I0403 04:32:26.832717  2011 net.cpp:141] Setting up inception_5a/relu_1x1
I0403 04:32:26.832734  2011 net.cpp:148] Top shape: 24 256 7 7 (301056)
I0403 04:32:26.832747  2011 net.cpp:156] Memory required for data: 1294534080
I0403 04:32:26.832762  2011 layer_factory.hpp:77] Creating layer inception_5a/3x3_reduce
I0403 04:32:26.832784  2011 net.cpp:91] Creating Layer inception_5a/3x3_reduce
I0403 04:32:26.832801  2011 net.cpp:425] inception_5a/3x3_reduce <- pool4/3x3_s2_pool4/3x3_s2_0_split_1
I0403 04:32:26.832823  2011 net.cpp:399] inception_5a/3x3_reduce -> inception_5a/3x3_reduce
I0403 04:32:26.834312  2011 net.cpp:141] Setting up inception_5a/3x3_reduce
I0403 04:32:26.834347  2011 net.cpp:148] Top shape: 24 160 7 7 (188160)
I0403 04:32:26.834364  2011 net.cpp:156] Memory required for data: 1295286720
I0403 04:32:26.834398  2011 layer_factory.hpp:77] Creating layer inception_5a/relu_3x3_reduce
I0403 04:32:26.834419  2011 net.cpp:91] Creating Layer inception_5a/relu_3x3_reduce
I0403 04:32:26.834434  2011 net.cpp:425] inception_5a/relu_3x3_reduce <- inception_5a/3x3_reduce
I0403 04:32:26.834451  2011 net.cpp:386] inception_5a/relu_3x3_reduce -> inception_5a/3x3_reduce (in-place)
I0403 04:32:26.834470  2011 net.cpp:141] Setting up inception_5a/relu_3x3_reduce
I0403 04:32:26.834486  2011 net.cpp:148] Top shape: 24 160 7 7 (188160)
I0403 04:32:26.834499  2011 net.cpp:156] Memory required for data: 1296039360
I0403 04:32:26.834512  2011 layer_factory.hpp:77] Creating layer inception_5a/3x3
I0403 04:32:26.834535  2011 net.cpp:91] Creating Layer inception_5a/3x3
I0403 04:32:26.834552  2011 net.cpp:425] inception_5a/3x3 <- inception_5a/3x3_reduce
I0403 04:32:26.834573  2011 net.cpp:399] inception_5a/3x3 -> inception_5a/3x3
I0403 04:32:26.838268  2011 net.cpp:141] Setting up inception_5a/3x3
I0403 04:32:26.838301  2011 net.cpp:148] Top shape: 24 320 7 7 (376320)
I0403 04:32:26.838317  2011 net.cpp:156] Memory required for data: 1297544640
I0403 04:32:26.838335  2011 layer_factory.hpp:77] Creating layer inception_5a/relu_3x3
I0403 04:32:26.838358  2011 net.cpp:91] Creating Layer inception_5a/relu_3x3
I0403 04:32:26.838376  2011 net.cpp:425] inception_5a/relu_3x3 <- inception_5a/3x3
I0403 04:32:26.838404  2011 net.cpp:386] inception_5a/relu_3x3 -> inception_5a/3x3 (in-place)
I0403 04:32:26.838441  2011 net.cpp:141] Setting up inception_5a/relu_3x3
I0403 04:32:26.838462  2011 net.cpp:148] Top shape: 24 320 7 7 (376320)
I0403 04:32:26.838476  2011 net.cpp:156] Memory required for data: 1299049920
I0403 04:32:26.838491  2011 layer_factory.hpp:77] Creating layer inception_5a/5x5_reduce
I0403 04:32:26.838517  2011 net.cpp:91] Creating Layer inception_5a/5x5_reduce
I0403 04:32:26.838536  2011 net.cpp:425] inception_5a/5x5_reduce <- pool4/3x3_s2_pool4/3x3_s2_0_split_2
I0403 04:32:26.838557  2011 net.cpp:399] inception_5a/5x5_reduce -> inception_5a/5x5_reduce
I0403 04:32:26.838924  2011 net.cpp:141] Setting up inception_5a/5x5_reduce
I0403 04:32:26.838948  2011 net.cpp:148] Top shape: 24 32 7 7 (37632)
I0403 04:32:26.838963  2011 net.cpp:156] Memory required for data: 1299200448
I0403 04:32:26.838979  2011 layer_factory.hpp:77] Creating layer inception_5a/relu_5x5_reduce
I0403 04:32:26.838999  2011 net.cpp:91] Creating Layer inception_5a/relu_5x5_reduce
I0403 04:32:26.839016  2011 net.cpp:425] inception_5a/relu_5x5_reduce <- inception_5a/5x5_reduce
I0403 04:32:26.839032  2011 net.cpp:386] inception_5a/relu_5x5_reduce -> inception_5a/5x5_reduce (in-place)
I0403 04:32:26.839051  2011 net.cpp:141] Setting up inception_5a/relu_5x5_reduce
I0403 04:32:26.839067  2011 net.cpp:148] Top shape: 24 32 7 7 (37632)
I0403 04:32:26.839081  2011 net.cpp:156] Memory required for data: 1299350976
I0403 04:32:26.839094  2011 layer_factory.hpp:77] Creating layer inception_5a/5x5
I0403 04:32:26.839118  2011 net.cpp:91] Creating Layer inception_5a/5x5
I0403 04:32:26.839134  2011 net.cpp:425] inception_5a/5x5 <- inception_5a/5x5_reduce
I0403 04:32:26.839154  2011 net.cpp:399] inception_5a/5x5 -> inception_5a/5x5
I0403 04:32:26.839929  2011 net.cpp:141] Setting up inception_5a/5x5
I0403 04:32:26.839958  2011 net.cpp:148] Top shape: 24 128 7 7 (150528)
I0403 04:32:26.839974  2011 net.cpp:156] Memory required for data: 1299953088
I0403 04:32:26.839992  2011 layer_factory.hpp:77] Creating layer inception_5a/relu_5x5
I0403 04:32:26.840008  2011 net.cpp:91] Creating Layer inception_5a/relu_5x5
I0403 04:32:26.840023  2011 net.cpp:425] inception_5a/relu_5x5 <- inception_5a/5x5
I0403 04:32:26.840044  2011 net.cpp:386] inception_5a/relu_5x5 -> inception_5a/5x5 (in-place)
I0403 04:32:26.840064  2011 net.cpp:141] Setting up inception_5a/relu_5x5
I0403 04:32:26.840080  2011 net.cpp:148] Top shape: 24 128 7 7 (150528)
I0403 04:32:26.840093  2011 net.cpp:156] Memory required for data: 1300555200
I0403 04:32:26.840108  2011 layer_factory.hpp:77] Creating layer inception_5a/pool
I0403 04:32:26.840126  2011 net.cpp:91] Creating Layer inception_5a/pool
I0403 04:32:26.840140  2011 net.cpp:425] inception_5a/pool <- pool4/3x3_s2_pool4/3x3_s2_0_split_3
I0403 04:32:26.840157  2011 net.cpp:399] inception_5a/pool -> inception_5a/pool
I0403 04:32:26.840239  2011 net.cpp:141] Setting up inception_5a/pool
I0403 04:32:26.840262  2011 net.cpp:148] Top shape: 24 832 7 7 (978432)
I0403 04:32:26.840291  2011 net.cpp:156] Memory required for data: 1304468928
I0403 04:32:26.840308  2011 layer_factory.hpp:77] Creating layer inception_5a/pool_proj
I0403 04:32:26.840332  2011 net.cpp:91] Creating Layer inception_5a/pool_proj
I0403 04:32:26.840353  2011 net.cpp:425] inception_5a/pool_proj <- inception_5a/pool
I0403 04:32:26.840378  2011 net.cpp:399] inception_5a/pool_proj -> inception_5a/pool_proj
I0403 04:32:26.841708  2011 net.cpp:141] Setting up inception_5a/pool_proj
I0403 04:32:26.841737  2011 net.cpp:148] Top shape: 24 128 7 7 (150528)
I0403 04:32:26.841753  2011 net.cpp:156] Memory required for data: 1305071040
I0403 04:32:26.841770  2011 layer_factory.hpp:77] Creating layer inception_5a/relu_pool_proj
I0403 04:32:26.841789  2011 net.cpp:91] Creating Layer inception_5a/relu_pool_proj
I0403 04:32:26.841809  2011 net.cpp:425] inception_5a/relu_pool_proj <- inception_5a/pool_proj
I0403 04:32:26.841827  2011 net.cpp:386] inception_5a/relu_pool_proj -> inception_5a/pool_proj (in-place)
I0403 04:32:26.841847  2011 net.cpp:141] Setting up inception_5a/relu_pool_proj
I0403 04:32:26.841879  2011 net.cpp:148] Top shape: 24 128 7 7 (150528)
I0403 04:32:26.841894  2011 net.cpp:156] Memory required for data: 1305673152
I0403 04:32:26.841908  2011 layer_factory.hpp:77] Creating layer inception_5a/output
I0403 04:32:26.841927  2011 net.cpp:91] Creating Layer inception_5a/output
I0403 04:32:26.841943  2011 net.cpp:425] inception_5a/output <- inception_5a/1x1
I0403 04:32:26.841958  2011 net.cpp:425] inception_5a/output <- inception_5a/3x3
I0403 04:32:26.841975  2011 net.cpp:425] inception_5a/output <- inception_5a/5x5
I0403 04:32:26.841991  2011 net.cpp:425] inception_5a/output <- inception_5a/pool_proj
I0403 04:32:26.842008  2011 net.cpp:399] inception_5a/output -> inception_5a/output
I0403 04:32:26.842056  2011 net.cpp:141] Setting up inception_5a/output
I0403 04:32:26.842080  2011 net.cpp:148] Top shape: 24 832 7 7 (978432)
I0403 04:32:26.842097  2011 net.cpp:156] Memory required for data: 1309586880
I0403 04:32:26.842125  2011 layer_factory.hpp:77] Creating layer inception_5a/output_inception_5a/output_0_split
I0403 04:32:26.842146  2011 net.cpp:91] Creating Layer inception_5a/output_inception_5a/output_0_split
I0403 04:32:26.842164  2011 net.cpp:425] inception_5a/output_inception_5a/output_0_split <- inception_5a/output
I0403 04:32:26.842182  2011 net.cpp:399] inception_5a/output_inception_5a/output_0_split -> inception_5a/output_inception_5a/output_0_split_0
I0403 04:32:26.842203  2011 net.cpp:399] inception_5a/output_inception_5a/output_0_split -> inception_5a/output_inception_5a/output_0_split_1
I0403 04:32:26.842224  2011 net.cpp:399] inception_5a/output_inception_5a/output_0_split -> inception_5a/output_inception_5a/output_0_split_2
I0403 04:32:26.842247  2011 net.cpp:399] inception_5a/output_inception_5a/output_0_split -> inception_5a/output_inception_5a/output_0_split_3
I0403 04:32:26.842319  2011 net.cpp:141] Setting up inception_5a/output_inception_5a/output_0_split
I0403 04:32:26.842341  2011 net.cpp:148] Top shape: 24 832 7 7 (978432)
I0403 04:32:26.842370  2011 net.cpp:148] Top shape: 24 832 7 7 (978432)
I0403 04:32:26.842399  2011 net.cpp:148] Top shape: 24 832 7 7 (978432)
I0403 04:32:26.842416  2011 net.cpp:148] Top shape: 24 832 7 7 (978432)
I0403 04:32:26.842429  2011 net.cpp:156] Memory required for data: 1325241792
I0403 04:32:26.842444  2011 layer_factory.hpp:77] Creating layer inception_5b/1x1
I0403 04:32:26.842468  2011 net.cpp:91] Creating Layer inception_5b/1x1
I0403 04:32:26.842488  2011 net.cpp:425] inception_5b/1x1 <- inception_5a/output_inception_5a/output_0_split_0
I0403 04:32:26.842509  2011 net.cpp:399] inception_5b/1x1 -> inception_5b/1x1
I0403 04:32:26.845077  2011 net.cpp:141] Setting up inception_5b/1x1
I0403 04:32:26.845120  2011 net.cpp:148] Top shape: 24 384 7 7 (451584)
I0403 04:32:26.845136  2011 net.cpp:156] Memory required for data: 1327048128
I0403 04:32:26.845155  2011 layer_factory.hpp:77] Creating layer inception_5b/relu_1x1
I0403 04:32:26.845176  2011 net.cpp:91] Creating Layer inception_5b/relu_1x1
I0403 04:32:26.845196  2011 net.cpp:425] inception_5b/relu_1x1 <- inception_5b/1x1
I0403 04:32:26.845214  2011 net.cpp:386] inception_5b/relu_1x1 -> inception_5b/1x1 (in-place)
I0403 04:32:26.845233  2011 net.cpp:141] Setting up inception_5b/relu_1x1
I0403 04:32:26.845252  2011 net.cpp:148] Top shape: 24 384 7 7 (451584)
I0403 04:32:26.845266  2011 net.cpp:156] Memory required for data: 1328854464
I0403 04:32:26.845281  2011 layer_factory.hpp:77] Creating layer inception_5b/3x3_reduce
I0403 04:32:26.845307  2011 net.cpp:91] Creating Layer inception_5b/3x3_reduce
I0403 04:32:26.845326  2011 net.cpp:425] inception_5b/3x3_reduce <- inception_5a/output_inception_5a/output_0_split_1
I0403 04:32:26.845350  2011 net.cpp:399] inception_5b/3x3_reduce -> inception_5b/3x3_reduce
I0403 04:32:26.847040  2011 net.cpp:141] Setting up inception_5b/3x3_reduce
I0403 04:32:26.847069  2011 net.cpp:148] Top shape: 24 192 7 7 (225792)
I0403 04:32:26.847084  2011 net.cpp:156] Memory required for data: 1329757632
I0403 04:32:26.847103  2011 layer_factory.hpp:77] Creating layer inception_5b/relu_3x3_reduce
I0403 04:32:26.847139  2011 net.cpp:91] Creating Layer inception_5b/relu_3x3_reduce
I0403 04:32:26.847157  2011 net.cpp:425] inception_5b/relu_3x3_reduce <- inception_5b/3x3_reduce
I0403 04:32:26.847177  2011 net.cpp:386] inception_5b/relu_3x3_reduce -> inception_5b/3x3_reduce (in-place)
I0403 04:32:26.847195  2011 net.cpp:141] Setting up inception_5b/relu_3x3_reduce
I0403 04:32:26.847213  2011 net.cpp:148] Top shape: 24 192 7 7 (225792)
I0403 04:32:26.847228  2011 net.cpp:156] Memory required for data: 1330660800
I0403 04:32:26.847242  2011 layer_factory.hpp:77] Creating layer inception_5b/3x3
I0403 04:32:26.847265  2011 net.cpp:91] Creating Layer inception_5b/3x3
I0403 04:32:26.847283  2011 net.cpp:425] inception_5b/3x3 <- inception_5b/3x3_reduce
I0403 04:32:26.847302  2011 net.cpp:399] inception_5b/3x3 -> inception_5b/3x3
I0403 04:32:26.852583  2011 net.cpp:141] Setting up inception_5b/3x3
I0403 04:32:26.852613  2011 net.cpp:148] Top shape: 24 384 7 7 (451584)
I0403 04:32:26.852629  2011 net.cpp:156] Memory required for data: 1332467136
I0403 04:32:26.852648  2011 layer_factory.hpp:77] Creating layer inception_5b/relu_3x3
I0403 04:32:26.852668  2011 net.cpp:91] Creating Layer inception_5b/relu_3x3
I0403 04:32:26.852684  2011 net.cpp:425] inception_5b/relu_3x3 <- inception_5b/3x3
I0403 04:32:26.852704  2011 net.cpp:386] inception_5b/relu_3x3 -> inception_5b/3x3 (in-place)
I0403 04:32:26.852727  2011 net.cpp:141] Setting up inception_5b/relu_3x3
I0403 04:32:26.852746  2011 net.cpp:148] Top shape: 24 384 7 7 (451584)
I0403 04:32:26.852761  2011 net.cpp:156] Memory required for data: 1334273472
I0403 04:32:26.852774  2011 layer_factory.hpp:77] Creating layer inception_5b/5x5_reduce
I0403 04:32:26.852794  2011 net.cpp:91] Creating Layer inception_5b/5x5_reduce
I0403 04:32:26.852812  2011 net.cpp:425] inception_5b/5x5_reduce <- inception_5a/output_inception_5a/output_0_split_2
I0403 04:32:26.852833  2011 net.cpp:399] inception_5b/5x5_reduce -> inception_5b/5x5_reduce
I0403 04:32:26.853823  2011 net.cpp:141] Setting up inception_5b/5x5_reduce
I0403 04:32:26.853852  2011 net.cpp:148] Top shape: 24 48 7 7 (56448)
I0403 04:32:26.853868  2011 net.cpp:156] Memory required for data: 1334499264
I0403 04:32:26.853885  2011 layer_factory.hpp:77] Creating layer inception_5b/relu_5x5_reduce
I0403 04:32:26.853904  2011 net.cpp:91] Creating Layer inception_5b/relu_5x5_reduce
I0403 04:32:26.853920  2011 net.cpp:425] inception_5b/relu_5x5_reduce <- inception_5b/5x5_reduce
I0403 04:32:26.853937  2011 net.cpp:386] inception_5b/relu_5x5_reduce -> inception_5b/5x5_reduce (in-place)
I0403 04:32:26.853957  2011 net.cpp:141] Setting up inception_5b/relu_5x5_reduce
I0403 04:32:26.853976  2011 net.cpp:148] Top shape: 24 48 7 7 (56448)
I0403 04:32:26.853989  2011 net.cpp:156] Memory required for data: 1334725056
I0403 04:32:26.854003  2011 layer_factory.hpp:77] Creating layer inception_5b/5x5
I0403 04:32:26.854027  2011 net.cpp:91] Creating Layer inception_5b/5x5
I0403 04:32:26.854043  2011 net.cpp:425] inception_5b/5x5 <- inception_5b/5x5_reduce
I0403 04:32:26.854065  2011 net.cpp:399] inception_5b/5x5 -> inception_5b/5x5
I0403 04:32:26.855168  2011 net.cpp:141] Setting up inception_5b/5x5
I0403 04:32:26.855193  2011 net.cpp:148] Top shape: 24 128 7 7 (150528)
I0403 04:32:26.855208  2011 net.cpp:156] Memory required for data: 1335327168
I0403 04:32:26.855226  2011 layer_factory.hpp:77] Creating layer inception_5b/relu_5x5
I0403 04:32:26.855243  2011 net.cpp:91] Creating Layer inception_5b/relu_5x5
I0403 04:32:26.855259  2011 net.cpp:425] inception_5b/relu_5x5 <- inception_5b/5x5
I0403 04:32:26.855278  2011 net.cpp:386] inception_5b/relu_5x5 -> inception_5b/5x5 (in-place)
I0403 04:32:26.855298  2011 net.cpp:141] Setting up inception_5b/relu_5x5
I0403 04:32:26.855316  2011 net.cpp:148] Top shape: 24 128 7 7 (150528)
I0403 04:32:26.855330  2011 net.cpp:156] Memory required for data: 1335929280
I0403 04:32:26.855351  2011 layer_factory.hpp:77] Creating layer inception_5b/pool
I0403 04:32:26.855375  2011 net.cpp:91] Creating Layer inception_5b/pool
I0403 04:32:26.855406  2011 net.cpp:425] inception_5b/pool <- inception_5a/output_inception_5a/output_0_split_3
I0403 04:32:26.855427  2011 net.cpp:399] inception_5b/pool -> inception_5b/pool
I0403 04:32:26.855481  2011 net.cpp:141] Setting up inception_5b/pool
I0403 04:32:26.855504  2011 net.cpp:148] Top shape: 24 832 7 7 (978432)
I0403 04:32:26.855518  2011 net.cpp:156] Memory required for data: 1339843008
I0403 04:32:26.855532  2011 layer_factory.hpp:77] Creating layer inception_5b/pool_proj
I0403 04:32:26.855558  2011 net.cpp:91] Creating Layer inception_5b/pool_proj
I0403 04:32:26.855576  2011 net.cpp:425] inception_5b/pool_proj <- inception_5b/pool
I0403 04:32:26.855595  2011 net.cpp:399] inception_5b/pool_proj -> inception_5b/pool_proj
I0403 04:32:26.856914  2011 net.cpp:141] Setting up inception_5b/pool_proj
I0403 04:32:26.856942  2011 net.cpp:148] Top shape: 24 128 7 7 (150528)
I0403 04:32:26.856958  2011 net.cpp:156] Memory required for data: 1340445120
I0403 04:32:26.856976  2011 layer_factory.hpp:77] Creating layer inception_5b/relu_pool_proj
I0403 04:32:26.856994  2011 net.cpp:91] Creating Layer inception_5b/relu_pool_proj
I0403 04:32:26.857012  2011 net.cpp:425] inception_5b/relu_pool_proj <- inception_5b/pool_proj
I0403 04:32:26.857028  2011 net.cpp:386] inception_5b/relu_pool_proj -> inception_5b/pool_proj (in-place)
I0403 04:32:26.857048  2011 net.cpp:141] Setting up inception_5b/relu_pool_proj
I0403 04:32:26.857064  2011 net.cpp:148] Top shape: 24 128 7 7 (150528)
I0403 04:32:26.857080  2011 net.cpp:156] Memory required for data: 1341047232
I0403 04:32:26.857097  2011 layer_factory.hpp:77] Creating layer inception_5b/output
I0403 04:32:26.857120  2011 net.cpp:91] Creating Layer inception_5b/output
I0403 04:32:26.857136  2011 net.cpp:425] inception_5b/output <- inception_5b/1x1
I0403 04:32:26.857156  2011 net.cpp:425] inception_5b/output <- inception_5b/3x3
I0403 04:32:26.857173  2011 net.cpp:425] inception_5b/output <- inception_5b/5x5
I0403 04:32:26.857189  2011 net.cpp:425] inception_5b/output <- inception_5b/pool_proj
I0403 04:32:26.857206  2011 net.cpp:399] inception_5b/output -> inception_5b/output
I0403 04:32:26.857249  2011 net.cpp:141] Setting up inception_5b/output
I0403 04:32:26.857271  2011 net.cpp:148] Top shape: 24 1024 7 7 (1204224)
I0403 04:32:26.857285  2011 net.cpp:156] Memory required for data: 1345864128
I0403 04:32:26.857300  2011 layer_factory.hpp:77] Creating layer pool5/7x7_s1
I0403 04:32:26.857317  2011 net.cpp:91] Creating Layer pool5/7x7_s1
I0403 04:32:26.857332  2011 net.cpp:425] pool5/7x7_s1 <- inception_5b/output
I0403 04:32:26.857357  2011 net.cpp:399] pool5/7x7_s1 -> pool5/7x7_s1
I0403 04:32:26.857398  2011 net.cpp:141] Setting up pool5/7x7_s1
I0403 04:32:26.857421  2011 net.cpp:148] Top shape: 24 1024 1 1 (24576)
I0403 04:32:26.857437  2011 net.cpp:156] Memory required for data: 1345962432
I0403 04:32:26.857451  2011 layer_factory.hpp:77] Creating layer pool5/drop_7x7_s1
I0403 04:32:26.857470  2011 net.cpp:91] Creating Layer pool5/drop_7x7_s1
I0403 04:32:26.857484  2011 net.cpp:425] pool5/drop_7x7_s1 <- pool5/7x7_s1
I0403 04:32:26.857501  2011 net.cpp:386] pool5/drop_7x7_s1 -> pool5/7x7_s1 (in-place)
I0403 04:32:26.857540  2011 net.cpp:141] Setting up pool5/drop_7x7_s1
I0403 04:32:26.857563  2011 net.cpp:148] Top shape: 24 1024 1 1 (24576)
I0403 04:32:26.857578  2011 net.cpp:156] Memory required for data: 1346060736
I0403 04:32:26.857591  2011 layer_factory.hpp:77] Creating layer loss3/classifier_plantvillage
I0403 04:32:26.857614  2011 net.cpp:91] Creating Layer loss3/classifier_plantvillage
I0403 04:32:26.857631  2011 net.cpp:425] loss3/classifier_plantvillage <- pool5/7x7_s1
I0403 04:32:26.857650  2011 net.cpp:399] loss3/classifier_plantvillage -> loss3/classifier_plantvillage
I0403 04:32:26.857980  2011 net.cpp:141] Setting up loss3/classifier_plantvillage
I0403 04:32:26.858005  2011 net.cpp:148] Top shape: 24 38 (912)
I0403 04:32:26.858018  2011 net.cpp:156] Memory required for data: 1346064384
I0403 04:32:26.858036  2011 layer_factory.hpp:77] Creating layer loss3/classifier_plantvillage_loss3/classifier_plantvillage_0_split
I0403 04:32:26.858069  2011 net.cpp:91] Creating Layer loss3/classifier_plantvillage_loss3/classifier_plantvillage_0_split
I0403 04:32:26.858086  2011 net.cpp:425] loss3/classifier_plantvillage_loss3/classifier_plantvillage_0_split <- loss3/classifier_plantvillage
I0403 04:32:26.858108  2011 net.cpp:399] loss3/classifier_plantvillage_loss3/classifier_plantvillage_0_split -> loss3/classifier_plantvillage_loss3/classifier_plantvillage_0_split_0
I0403 04:32:26.858129  2011 net.cpp:399] loss3/classifier_plantvillage_loss3/classifier_plantvillage_0_split -> loss3/classifier_plantvillage_loss3/classifier_plantvillage_0_split_1
I0403 04:32:26.858150  2011 net.cpp:399] loss3/classifier_plantvillage_loss3/classifier_plantvillage_0_split -> loss3/classifier_plantvillage_loss3/classifier_plantvillage_0_split_2
I0403 04:32:26.858214  2011 net.cpp:141] Setting up loss3/classifier_plantvillage_loss3/classifier_plantvillage_0_split
I0403 04:32:26.858237  2011 net.cpp:148] Top shape: 24 38 (912)
I0403 04:32:26.858268  2011 net.cpp:148] Top shape: 24 38 (912)
I0403 04:32:26.858284  2011 net.cpp:148] Top shape: 24 38 (912)
I0403 04:32:26.858299  2011 net.cpp:156] Memory required for data: 1346075328
I0403 04:32:26.858314  2011 layer_factory.hpp:77] Creating layer loss1/loss
I0403 04:32:26.858331  2011 net.cpp:91] Creating Layer loss1/loss
I0403 04:32:26.858364  2011 net.cpp:425] loss1/loss <- loss1/classifier_plantvillage_loss1/classifier_plantvillage_0_split_0
I0403 04:32:26.858383  2011 net.cpp:425] loss1/loss <- label_data_1_split_0
…
