…
I0403 13:38:01.099629 32635 net.cpp:313] The NetState phase (1) differed from the phase (0) specified by a rule in layer data
I0403 13:38:01.099951 32635 net.cpp:49] Initializing net from parameters: 
state {
  phase: TEST
}
layer {
  name: "data"
  type: "Data"
  top: "data"
  top: "label"
  include {
    phase: TEST
  }
  transform_param {
    crop_size: 227
    mean_file: "/home/mohanty/data/final_dataset/lmdb/segmented-20-80/mean.binaryproto"
  }
  data_param {
    source: "/home/mohanty/data/final_dataset/lmdb/segmented-20-80/test_db"
    batch_size: 100
    backend: LMDB
  }
}
layer {
  name: "conv1"
  type: "Convolution"
  bottom: "data"
  top: "conv1"
  param {
    lr_mult: 1
    decay_mult: 1
  }
  param {
    lr_mult: 2
    decay_mult: 0
  }
  convolution_param {
    num_output: 96
    kernel_size: 11
    stride: 4
    weight_filler {
      type: "gaussian"
      std: 0.01
    }
    bias_filler {
      type: "constant"
      value: 0
    }
  }
}
layer {
  name: "relu1"
  type: "ReLU"
  bottom: "conv1"
  top: "conv1"
}
layer {
  name: "norm1"
  type: "LRN"
  bottom: "conv1"
  top: "norm1"
  lrn_param {
    local_size: 5
    alpha: 0.0001
    beta: 0.75
  }
}
layer {
  name: "pool1"
  type: "Pooling"
  bottom: "norm1"
  top: "pool1"
  pooling_param {
    pool: MAX
    kernel_size: 3
    stride: 2
  }
}
layer {
  name: "conv2"
  type: "Convolution"
  bottom: "pool1"
  top: "conv2"
  param {
    lr_mult: 1
    decay_mult: 1
  }
  param {
    lr_mult: 2
    decay_mult: 0
  }
  convolution_param {
    num_output: 256
    pad: 2
    kernel_size: 5
    group: 2
    weight_filler {
      type: "gaussian"
      std: 0.01
    }
    bias_filler {
      type: "constant"
      value: 0.1
    }
  }
}
layer {
  name: "relu2"
  type: "ReLU"
  bottom: "conv2"
  top: "conv2"
}
layer {
  name: "norm2"
  type: "LRN"
  bottom: "conv2"
  top: "norm2"
  lrn_param {
    local_size: 5
    alpha: 0.0001
    beta: 0.75
  }
}
layer {
  name: "pool2"
  type: "Pooling"
  bottom: "norm2"
  top: "pool2"
  pooling_param {
    pool: MAX
    kernel_size: 3
    stride: 2
  }
}
layer {
  name: "conv3"
  type: "Convolution"
  bottom: "pool2"
  top: "conv3"
  param {
    lr_mult: 1
    decay_mult: 1
  }
  param {
    lr_mult: 2
    decay_mult: 0
  }
  convolution_param {
    num_output: 384
    pad: 1
    kernel_size: 3
    weight_filler {
      type: "gaussian"
      std: 0.01
    }
    bias_filler {
      type: "constant"
      value: 0
    }
  }
}
layer {
  name: "relu3"
  type: "ReLU"
  bottom: "conv3"
  top: "conv3"
}
layer {
  name: "conv4"
  type: "Convolution"
  bottom: "conv3"
  top: "conv4"
  param {
    lr_mult: 1
    decay_mult: 1
  }
  param {
    lr_mult: 2
    decay_mult: 0
  }
  convolution_param {
    num_output: 384
    pad: 1
    kernel_size: 3
    group: 2
    weight_filler {
      type: "gaussian"
      std: 0.01
    }
    bias_filler {
      type: "constant"
      value: 0.1
    }
  }
}
layer {
  name: "relu4"
  type: "ReLU"
  bottom: "conv4"
  top: "conv4"
}
layer {
  name: "conv5"
  type: "Convolution"
  bottom: "conv4"
  top: "conv5"
  param {
    lr_mult: 1
    decay_mult: 1
  }
  param {
    lr_mult: 2
    decay_mult: 0
  }
  convolution_param {
    num_output: 256
    pad: 1
    kernel_size: 3
    group: 2
    weight_filler {
      type: "gaussian"
      std: 0.01
    }
    bias_filler {
      type: "constant"
      value: 0.1
    }
  }
}
layer {
  name: "relu5"
  type: "ReLU"
  bottom: "conv5"
  top: "conv5"
}
layer {
  name: "pool5"
  type: "Pooling"
  bottom: "conv5"
  top: "pool5"
  pooling_param {
    pool: MAX
    kernel_size: 3
    stride: 2
  }
}
layer {
  name: "fc6"
  type: "InnerProduct"
  bottom: "pool5"
  top: "fc6"
  param {
    lr_mult: 1
    decay_mult: 1
  }
  param {
    lr_mult: 2
    decay_mult: 0
  }
  inner_product_param {
    num_output: 4096
    weight_filler {
      type: "gaussian"
      std: 0.005
    }
    bias_filler {
      type: "constant"
      value: 0.1
    }
  }
}
layer {
  name: "relu6"
  type: "ReLU"
  bottom: "fc6"
  top: "fc6"
}
layer {
  name: "drop6"
  type: "Dropout"
  bottom: "fc6"
  top: "fc6"
  dropout_param {
    dropout_ratio: 0.5
  }
}
layer {
  name: "fc7"
  type: "InnerProduct"
  bottom: "fc6"
  top: "fc7"
  param {
    lr_mult: 1
    decay_mult: 1
  }
  param {
    lr_mult: 2
    decay_mult: 0
  }
  inner_product_param {
    num_output: 4096
    weight_filler {
      type: "gaussian"
      std: 0.005
    }
    bias_filler {
      type: "constant"
      value: 0.1
    }
  }
}
layer {
  name: "relu7"
  type: "ReLU"
  bottom: "fc7"
  top: "fc7"
}
layer {
  name: "drop7"
  type: "Dropout"
  bottom: "fc7"
  top: "fc7"
  dropout_param {
    dropout_ratio: 0.5
  }
}
layer {
  name: "fc8_plantvillage"
  type: "InnerProduct"
  bottom: "fc7"
  top: "fc8_plantvillage"
  param {
    lr_mult: 1
    decay_mult: 1
  }
  param {
    lr_mult: 2
    decay_mult: 0
  }
  inner_product_param {
    num_output: 38
    weight_filler {
      type: "gaussian"
      std: 0.01
    }
    bias_filler {
      type: "constant"
      value: 0
    }
  }
}
layer {
  name: "prob"
  type: "Softmax"
  bottom: "fc8_plantvillage"
  top: "prob"
  include {
    phase: TEST
  }
}
layer {
  name: "hdf5out"
  type: "HDF5Output"
  bottom: "prob"
  bottom: "label"
  include {
    phase: TEST
  }
  hdf5_output_param {
    file_name: "hdf5_dumps/iter_954.h5"
  }
}
layer {
  name: "loss"
  type: "SoftmaxWithLoss"
  bottom: "fc8_plantvillage"
  bottom: "label"
  top: "loss"
}
layer {
  name: "accuracy"
  type: "Accuracy"
  bottom: "fc8_plantvillage"
  bottom: "label"
  top: "accuracy"
  include {
    phase: TEST
  }
}
I0403 13:38:01.100533 32635 layer_factory.hpp:77] Creating layer data
I0403 13:38:01.101202 32635 net.cpp:91] Creating Layer data
I0403 13:38:01.101233 32635 net.cpp:399] data -> data
I0403 13:38:01.101291 32635 net.cpp:399] data -> label
I0403 13:38:01.101328 32635 data_transformer.cpp:25] Loading mean file from: /home/mohanty/data/final_dataset/lmdb/segmented-20-80/mean.binaryproto
I0403 13:38:01.107698 32638 db_lmdb.cpp:38] Opened lmdb /home/mohanty/data/final_dataset/lmdb/segmented-20-80/test_db
I0403 13:38:01.115581 32635 data_layer.cpp:41] output data size: 100,3,227,227
I0403 13:38:01.239470 32635 net.cpp:141] Setting up data
I0403 13:38:01.239574 32635 net.cpp:148] Top shape: 100 3 227 227 (15458700)
I0403 13:38:01.239598 32635 net.cpp:148] Top shape: 100 (100)
I0403 13:38:01.239614 32635 net.cpp:156] Memory required for data: 61835200
I0403 13:38:01.239641 32635 layer_factory.hpp:77] Creating layer label_data_1_split
I0403 13:38:01.239668 32635 net.cpp:91] Creating Layer label_data_1_split
I0403 13:38:01.239686 32635 net.cpp:425] label_data_1_split <- label
I0403 13:38:01.239718 32635 net.cpp:399] label_data_1_split -> label_data_1_split_0
I0403 13:38:01.239747 32635 net.cpp:399] label_data_1_split -> label_data_1_split_1
I0403 13:38:01.239778 32635 net.cpp:399] label_data_1_split -> label_data_1_split_2
I0403 13:38:01.239843 32635 net.cpp:141] Setting up label_data_1_split
I0403 13:38:01.239866 32635 net.cpp:148] Top shape: 100 (100)
I0403 13:38:01.239882 32635 net.cpp:148] Top shape: 100 (100)
I0403 13:38:01.239899 32635 net.cpp:148] Top shape: 100 (100)
I0403 13:38:01.239914 32635 net.cpp:156] Memory required for data: 61836400
I0403 13:38:01.239930 32635 layer_factory.hpp:77] Creating layer conv1
I0403 13:38:01.239962 32635 net.cpp:91] Creating Layer conv1
I0403 13:38:01.239981 32635 net.cpp:425] conv1 <- data
I0403 13:38:01.240001 32635 net.cpp:399] conv1 -> conv1
I0403 13:38:01.383147 32635 net.cpp:141] Setting up conv1
I0403 13:38:01.383208 32635 net.cpp:148] Top shape: 100 96 55 55 (29040000)
I0403 13:38:01.383226 32635 net.cpp:156] Memory required for data: 177996400
I0403 13:38:01.383261 32635 layer_factory.hpp:77] Creating layer relu1
I0403 13:38:01.383291 32635 net.cpp:91] Creating Layer relu1
I0403 13:38:01.383308 32635 net.cpp:425] relu1 <- conv1
I0403 13:38:01.383327 32635 net.cpp:386] relu1 -> conv1 (in-place)
I0403 13:38:01.383586 32635 net.cpp:141] Setting up relu1
I0403 13:38:01.383615 32635 net.cpp:148] Top shape: 100 96 55 55 (29040000)
I0403 13:38:01.383661 32635 net.cpp:156] Memory required for data: 294156400
I0403 13:38:01.383677 32635 layer_factory.hpp:77] Creating layer norm1
I0403 13:38:01.383704 32635 net.cpp:91] Creating Layer norm1
I0403 13:38:01.383723 32635 net.cpp:425] norm1 <- conv1
I0403 13:38:01.383743 32635 net.cpp:399] norm1 -> norm1
I0403 13:38:01.384053 32635 net.cpp:141] Setting up norm1
I0403 13:38:01.384081 32635 net.cpp:148] Top shape: 100 96 55 55 (29040000)
I0403 13:38:01.384098 32635 net.cpp:156] Memory required for data: 410316400
I0403 13:38:01.384114 32635 layer_factory.hpp:77] Creating layer pool1
I0403 13:38:01.384136 32635 net.cpp:91] Creating Layer pool1
I0403 13:38:01.384155 32635 net.cpp:425] pool1 <- norm1
I0403 13:38:01.384182 32635 net.cpp:399] pool1 -> pool1
I0403 13:38:01.384274 32635 net.cpp:141] Setting up pool1
I0403 13:38:01.384299 32635 net.cpp:148] Top shape: 100 96 27 27 (6998400)
I0403 13:38:01.384313 32635 net.cpp:156] Memory required for data: 438310000
I0403 13:38:01.384328 32635 layer_factory.hpp:77] Creating layer conv2
I0403 13:38:01.384353 32635 net.cpp:91] Creating Layer conv2
I0403 13:38:01.384371 32635 net.cpp:425] conv2 <- pool1
I0403 13:38:01.384389 32635 net.cpp:399] conv2 -> conv2
I0403 13:38:01.399315 32635 net.cpp:141] Setting up conv2
I0403 13:38:01.399351 32635 net.cpp:148] Top shape: 100 256 27 27 (18662400)
I0403 13:38:01.399369 32635 net.cpp:156] Memory required for data: 512959600
I0403 13:38:01.399391 32635 layer_factory.hpp:77] Creating layer relu2
I0403 13:38:01.399410 32635 net.cpp:91] Creating Layer relu2
I0403 13:38:01.399425 32635 net.cpp:425] relu2 <- conv2
I0403 13:38:01.399446 32635 net.cpp:386] relu2 -> conv2 (in-place)
I0403 13:38:01.399724 32635 net.cpp:141] Setting up relu2
I0403 13:38:01.399750 32635 net.cpp:148] Top shape: 100 256 27 27 (18662400)
I0403 13:38:01.399765 32635 net.cpp:156] Memory required for data: 587609200
I0403 13:38:01.399780 32635 layer_factory.hpp:77] Creating layer norm2
I0403 13:38:01.399801 32635 net.cpp:91] Creating Layer norm2
I0403 13:38:01.399821 32635 net.cpp:425] norm2 <- conv2
I0403 13:38:01.399840 32635 net.cpp:399] norm2 -> norm2
I0403 13:38:01.400038 32635 net.cpp:141] Setting up norm2
I0403 13:38:01.400063 32635 net.cpp:148] Top shape: 100 256 27 27 (18662400)
I0403 13:38:01.400079 32635 net.cpp:156] Memory required for data: 662258800
I0403 13:38:01.400094 32635 layer_factory.hpp:77] Creating layer pool2
I0403 13:38:01.400111 32635 net.cpp:91] Creating Layer pool2
I0403 13:38:01.400126 32635 net.cpp:425] pool2 <- norm2
I0403 13:38:01.400146 32635 net.cpp:399] pool2 -> pool2
I0403 13:38:01.400198 32635 net.cpp:141] Setting up pool2
I0403 13:38:01.400223 32635 net.cpp:148] Top shape: 100 256 13 13 (4326400)
I0403 13:38:01.400238 32635 net.cpp:156] Memory required for data: 679564400
I0403 13:38:01.400269 32635 layer_factory.hpp:77] Creating layer conv3
I0403 13:38:01.400295 32635 net.cpp:91] Creating Layer conv3
I0403 13:38:01.400312 32635 net.cpp:425] conv3 <- pool2
I0403 13:38:01.400331 32635 net.cpp:399] conv3 -> conv3
I0403 13:38:01.438742 32635 net.cpp:141] Setting up conv3
I0403 13:38:01.438804 32635 net.cpp:148] Top shape: 100 384 13 13 (6489600)
I0403 13:38:01.438822 32635 net.cpp:156] Memory required for data: 705522800
I0403 13:38:01.438846 32635 layer_factory.hpp:77] Creating layer relu3
I0403 13:38:01.438870 32635 net.cpp:91] Creating Layer relu3
I0403 13:38:01.438889 32635 net.cpp:425] relu3 <- conv3
I0403 13:38:01.438907 32635 net.cpp:386] relu3 -> conv3 (in-place)
I0403 13:38:01.439195 32635 net.cpp:141] Setting up relu3
I0403 13:38:01.439224 32635 net.cpp:148] Top shape: 100 384 13 13 (6489600)
I0403 13:38:01.439244 32635 net.cpp:156] Memory required for data: 731481200
I0403 13:38:01.439260 32635 layer_factory.hpp:77] Creating layer conv4
I0403 13:38:01.439285 32635 net.cpp:91] Creating Layer conv4
I0403 13:38:01.439303 32635 net.cpp:425] conv4 <- conv3
I0403 13:38:01.439326 32635 net.cpp:399] conv4 -> conv4
I0403 13:38:01.469993 32635 net.cpp:141] Setting up conv4
I0403 13:38:01.470036 32635 net.cpp:148] Top shape: 100 384 13 13 (6489600)
I0403 13:38:01.470083 32635 net.cpp:156] Memory required for data: 757439600
I0403 13:38:01.470106 32635 layer_factory.hpp:77] Creating layer relu4
I0403 13:38:01.470129 32635 net.cpp:91] Creating Layer relu4
I0403 13:38:01.470146 32635 net.cpp:425] relu4 <- conv4
I0403 13:38:01.470167 32635 net.cpp:386] relu4 -> conv4 (in-place)
I0403 13:38:01.470468 32635 net.cpp:141] Setting up relu4
I0403 13:38:01.470496 32635 net.cpp:148] Top shape: 100 384 13 13 (6489600)
I0403 13:38:01.470513 32635 net.cpp:156] Memory required for data: 783398000
I0403 13:38:01.470530 32635 layer_factory.hpp:77] Creating layer conv5
I0403 13:38:01.470554 32635 net.cpp:91] Creating Layer conv5
I0403 13:38:01.470572 32635 net.cpp:425] conv5 <- conv4
I0403 13:38:01.470592 32635 net.cpp:399] conv5 -> conv5
I0403 13:38:01.491080 32635 net.cpp:141] Setting up conv5
I0403 13:38:01.491125 32635 net.cpp:148] Top shape: 100 256 13 13 (4326400)
I0403 13:38:01.491142 32635 net.cpp:156] Memory required for data: 800703600
I0403 13:38:01.491168 32635 layer_factory.hpp:77] Creating layer relu5
I0403 13:38:01.491188 32635 net.cpp:91] Creating Layer relu5
I0403 13:38:01.491205 32635 net.cpp:425] relu5 <- conv5
I0403 13:38:01.491228 32635 net.cpp:386] relu5 -> conv5 (in-place)
I0403 13:38:01.491508 32635 net.cpp:141] Setting up relu5
I0403 13:38:01.491534 32635 net.cpp:148] Top shape: 100 256 13 13 (4326400)
I0403 13:38:01.491549 32635 net.cpp:156] Memory required for data: 818009200
I0403 13:38:01.491565 32635 layer_factory.hpp:77] Creating layer pool5
I0403 13:38:01.491590 32635 net.cpp:91] Creating Layer pool5
I0403 13:38:01.491608 32635 net.cpp:425] pool5 <- conv5
I0403 13:38:01.491626 32635 net.cpp:399] pool5 -> pool5
I0403 13:38:01.491685 32635 net.cpp:141] Setting up pool5
I0403 13:38:01.491709 32635 net.cpp:148] Top shape: 100 256 6 6 (921600)
I0403 13:38:01.491725 32635 net.cpp:156] Memory required for data: 821695600
I0403 13:38:01.491742 32635 layer_factory.hpp:77] Creating layer fc6
I0403 13:38:01.491797 32635 net.cpp:91] Creating Layer fc6
I0403 13:38:01.491818 32635 net.cpp:425] fc6 <- pool5
I0403 13:38:01.491837 32635 net.cpp:399] fc6 -> fc6
I0403 13:38:03.197989 32635 net.cpp:141] Setting up fc6
I0403 13:38:03.198043 32635 net.cpp:148] Top shape: 100 4096 (409600)
I0403 13:38:03.198060 32635 net.cpp:156] Memory required for data: 823334000
I0403 13:38:03.198081 32635 layer_factory.hpp:77] Creating layer relu6
I0403 13:38:03.198103 32635 net.cpp:91] Creating Layer relu6
I0403 13:38:03.198120 32635 net.cpp:425] relu6 <- fc6
I0403 13:38:03.198143 32635 net.cpp:386] relu6 -> fc6 (in-place)
I0403 13:38:03.198365 32635 net.cpp:141] Setting up relu6
I0403 13:38:03.198390 32635 net.cpp:148] Top shape: 100 4096 (409600)
I0403 13:38:03.198406 32635 net.cpp:156] Memory required for data: 824972400
I0403 13:38:03.198421 32635 layer_factory.hpp:77] Creating layer drop6
I0403 13:38:03.198439 32635 net.cpp:91] Creating Layer drop6
I0403 13:38:03.198456 32635 net.cpp:425] drop6 <- fc6
I0403 13:38:03.198477 32635 net.cpp:386] drop6 -> fc6 (in-place)
I0403 13:38:03.198529 32635 net.cpp:141] Setting up drop6
I0403 13:38:03.198552 32635 net.cpp:148] Top shape: 100 4096 (409600)
I0403 13:38:03.198568 32635 net.cpp:156] Memory required for data: 826610800
I0403 13:38:03.198583 32635 layer_factory.hpp:77] Creating layer fc7
I0403 13:38:03.198602 32635 net.cpp:91] Creating Layer fc7
I0403 13:38:03.198618 32635 net.cpp:425] fc7 <- fc6
I0403 13:38:03.198638 32635 net.cpp:399] fc7 -> fc7
I0403 13:38:03.948895 32635 net.cpp:141] Setting up fc7
I0403 13:38:03.948938 32635 net.cpp:148] Top shape: 100 4096 (409600)
I0403 13:38:03.948956 32635 net.cpp:156] Memory required for data: 828249200
I0403 13:38:03.948977 32635 layer_factory.hpp:77] Creating layer relu7
I0403 13:38:03.948999 32635 net.cpp:91] Creating Layer relu7
I0403 13:38:03.949018 32635 net.cpp:425] relu7 <- fc7
I0403 13:38:03.949039 32635 net.cpp:386] relu7 -> fc7 (in-place)
I0403 13:38:03.949465 32635 net.cpp:141] Setting up relu7
I0403 13:38:03.949491 32635 net.cpp:148] Top shape: 100 4096 (409600)
I0403 13:38:03.949539 32635 net.cpp:156] Memory required for data: 829887600
I0403 13:38:03.949555 32635 layer_factory.hpp:77] Creating layer drop7
I0403 13:38:03.949574 32635 net.cpp:91] Creating Layer drop7
I0403 13:38:03.949590 32635 net.cpp:425] drop7 <- fc7
I0403 13:38:03.949611 32635 net.cpp:386] drop7 -> fc7 (in-place)
I0403 13:38:03.949656 32635 net.cpp:141] Setting up drop7
I0403 13:38:03.949681 32635 net.cpp:148] Top shape: 100 4096 (409600)
I0403 13:38:03.949695 32635 net.cpp:156] Memory required for data: 831526000
I0403 13:38:03.949710 32635 layer_factory.hpp:77] Creating layer fc8_plantvillage
I0403 13:38:03.949730 32635 net.cpp:91] Creating Layer fc8_plantvillage
I0403 13:38:03.949746 32635 net.cpp:425] fc8_plantvillage <- fc7
I0403 13:38:03.949767 32635 net.cpp:399] fc8_plantvillage -> fc8_plantvillage
I0403 13:38:03.957377 32635 net.cpp:141] Setting up fc8_plantvillage
I0403 13:38:03.957407 32635 net.cpp:148] Top shape: 100 38 (3800)
I0403 13:38:03.957424 32635 net.cpp:156] Memory required for data: 831541200
I0403 13:38:03.957447 32635 layer_factory.hpp:77] Creating layer fc8_plantvillage_fc8_plantvillage_0_split
I0403 13:38:03.957466 32635 net.cpp:91] Creating Layer fc8_plantvillage_fc8_plantvillage_0_split
I0403 13:38:03.957484 32635 net.cpp:425] fc8_plantvillage_fc8_plantvillage_0_split <- fc8_plantvillage
I0403 13:38:03.957504 32635 net.cpp:399] fc8_plantvillage_fc8_plantvillage_0_split -> fc8_plantvillage_fc8_plantvillage_0_split_0
I0403 13:38:03.957526 32635 net.cpp:399] fc8_plantvillage_fc8_plantvillage_0_split -> fc8_plantvillage_fc8_plantvillage_0_split_1
I0403 13:38:03.957547 32635 net.cpp:399] fc8_plantvillage_fc8_plantvillage_0_split -> fc8_plantvillage_fc8_plantvillage_0_split_2
I0403 13:38:03.957625 32635 net.cpp:141] Setting up fc8_plantvillage_fc8_plantvillage_0_split
I0403 13:38:03.957650 32635 net.cpp:148] Top shape: 100 38 (3800)
I0403 13:38:03.957667 32635 net.cpp:148] Top shape: 100 38 (3800)
I0403 13:38:03.957684 32635 net.cpp:148] Top shape: 100 38 (3800)
I0403 13:38:03.957697 32635 net.cpp:156] Memory required for data: 831586800
I0403 13:38:03.957712 32635 layer_factory.hpp:77] Creating layer prob
I0403 13:38:03.957731 32635 net.cpp:91] Creating Layer prob
I0403 13:38:03.957747 32635 net.cpp:425] prob <- fc8_plantvillage_fc8_plantvillage_0_split_0
I0403 13:38:03.957767 32635 net.cpp:399] prob -> prob
I0403 13:38:03.958003 32635 net.cpp:141] Setting up prob
I0403 13:38:03.958029 32635 net.cpp:148] Top shape: 100 38 (3800)
I0403 13:38:03.958044 32635 net.cpp:156] Memory required for data: 831602000
I0403 13:38:03.958058 32635 layer_factory.hpp:77] Creating layer hdf5out
I0403 13:38:03.958076 32635 net.cpp:91] Creating Layer hdf5out
I0403 13:38:03.958093 32635 net.cpp:425] hdf5out <- prob
I0403 13:38:03.958109 32635 net.cpp:425] hdf5out <- label_data_1_split_0
I0403 13:38:03.960265 32635 net.cpp:141] Setting up hdf5out
…
