…
I0403 13:57:12.658974   554 net.cpp:313] The NetState phase (1) differed from the phase (0) specified by a rule in layer data
I0403 13:57:12.659340   554 net.cpp:49] Initializing net from parameters: 
state {
  phase: TEST
}
layer {
  name: "data"
  type: "Data"
  top: "data"
  top: "label"
  include {
    phase: TEST
  }
  transform_param {
    crop_size: 227
    mean_file: "/home/mohanty/data/final_dataset/lmdb/segmented-20-80/mean.binaryproto"
  }
  data_param {
    source: "/home/mohanty/data/final_dataset/lmdb/segmented-20-80/test_db"
    batch_size: 100
    backend: LMDB
  }
}
layer {
  name: "conv1"
  type: "Convolution"
  bottom: "data"
  top: "conv1"
  param {
    lr_mult: 1
    decay_mult: 1
  }
  param {
    lr_mult: 2
    decay_mult: 0
  }
  convolution_param {
    num_output: 96
    kernel_size: 11
    stride: 4
    weight_filler {
      type: "gaussian"
      std: 0.01
    }
    bias_filler {
      type: "constant"
      value: 0
    }
  }
}
layer {
  name: "relu1"
  type: "ReLU"
  bottom: "conv1"
  top: "conv1"
}
layer {
  name: "norm1"
  type: "LRN"
  bottom: "conv1"
  top: "norm1"
  lrn_param {
    local_size: 5
    alpha: 0.0001
    beta: 0.75
  }
}
layer {
  name: "pool1"
  type: "Pooling"
  bottom: "norm1"
  top: "pool1"
  pooling_param {
    pool: MAX
    kernel_size: 3
    stride: 2
  }
}
layer {
  name: "conv2"
  type: "Convolution"
  bottom: "pool1"
  top: "conv2"
  param {
    lr_mult: 1
    decay_mult: 1
  }
  param {
    lr_mult: 2
    decay_mult: 0
  }
  convolution_param {
    num_output: 256
    pad: 2
    kernel_size: 5
    group: 2
    weight_filler {
      type: "gaussian"
      std: 0.01
    }
    bias_filler {
      type: "constant"
      value: 0.1
    }
  }
}
layer {
  name: "relu2"
  type: "ReLU"
  bottom: "conv2"
  top: "conv2"
}
layer {
  name: "norm2"
  type: "LRN"
  bottom: "conv2"
  top: "norm2"
  lrn_param {
    local_size: 5
    alpha: 0.0001
    beta: 0.75
  }
}
layer {
  name: "pool2"
  type: "Pooling"
  bottom: "norm2"
  top: "pool2"
  pooling_param {
    pool: MAX
    kernel_size: 3
    stride: 2
  }
}
layer {
  name: "conv3"
  type: "Convolution"
  bottom: "pool2"
  top: "conv3"
  param {
    lr_mult: 1
    decay_mult: 1
  }
  param {
    lr_mult: 2
    decay_mult: 0
  }
  convolution_param {
    num_output: 384
    pad: 1
    kernel_size: 3
    weight_filler {
      type: "gaussian"
      std: 0.01
    }
    bias_filler {
      type: "constant"
      value: 0
    }
  }
}
layer {
  name: "relu3"
  type: "ReLU"
  bottom: "conv3"
  top: "conv3"
}
layer {
  name: "conv4"
  type: "Convolution"
  bottom: "conv3"
  top: "conv4"
  param {
    lr_mult: 1
    decay_mult: 1
  }
  param {
    lr_mult: 2
    decay_mult: 0
  }
  convolution_param {
    num_output: 384
    pad: 1
    kernel_size: 3
    group: 2
    weight_filler {
      type: "gaussian"
      std: 0.01
    }
    bias_filler {
      type: "constant"
      value: 0.1
    }
  }
}
layer {
  name: "relu4"
  type: "ReLU"
  bottom: "conv4"
  top: "conv4"
}
layer {
  name: "conv5"
  type: "Convolution"
  bottom: "conv4"
  top: "conv5"
  param {
    lr_mult: 1
    decay_mult: 1
  }
  param {
    lr_mult: 2
    decay_mult: 0
  }
  convolution_param {
    num_output: 256
    pad: 1
    kernel_size: 3
    group: 2
    weight_filler {
      type: "gaussian"
      std: 0.01
    }
    bias_filler {
      type: "constant"
      value: 0.1
    }
  }
}
layer {
  name: "relu5"
  type: "ReLU"
  bottom: "conv5"
  top: "conv5"
}
layer {
  name: "pool5"
  type: "Pooling"
  bottom: "conv5"
  top: "pool5"
  pooling_param {
    pool: MAX
    kernel_size: 3
    stride: 2
  }
}
layer {
  name: "fc6"
  type: "InnerProduct"
  bottom: "pool5"
  top: "fc6"
  param {
    lr_mult: 1
    decay_mult: 1
  }
  param {
    lr_mult: 2
    decay_mult: 0
  }
  inner_product_param {
    num_output: 4096
    weight_filler {
      type: "gaussian"
      std: 0.005
    }
    bias_filler {
      type: "constant"
      value: 0.1
    }
  }
}
layer {
  name: "relu6"
  type: "ReLU"
  bottom: "fc6"
  top: "fc6"
}
layer {
  name: "drop6"
  type: "Dropout"
  bottom: "fc6"
  top: "fc6"
  dropout_param {
    dropout_ratio: 0.5
  }
}
layer {
  name: "fc7"
  type: "InnerProduct"
  bottom: "fc6"
  top: "fc7"
  param {
    lr_mult: 1
    decay_mult: 1
  }
  param {
    lr_mult: 2
    decay_mult: 0
  }
  inner_product_param {
    num_output: 4096
    weight_filler {
      type: "gaussian"
      std: 0.005
    }
    bias_filler {
      type: "constant"
      value: 0.1
    }
  }
}
layer {
  name: "relu7"
  type: "ReLU"
  bottom: "fc7"
  top: "fc7"
}
layer {
  name: "drop7"
  type: "Dropout"
  bottom: "fc7"
  top: "fc7"
  dropout_param {
    dropout_ratio: 0.5
  }
}
layer {
  name: "fc8_plantvillage"
  type: "InnerProduct"
  bottom: "fc7"
  top: "fc8_plantvillage"
  param {
    lr_mult: 1
    decay_mult: 1
  }
  param {
    lr_mult: 2
    decay_mult: 0
  }
  inner_product_param {
    num_output: 38
    weight_filler {
      type: "gaussian"
      std: 0.01
    }
    bias_filler {
      type: "constant"
      value: 0
    }
  }
}
layer {
  name: "prob"
  type: "Softmax"
  bottom: "fc8_plantvillage"
  top: "prob"
  include {
    phase: TEST
  }
}
layer {
  name: "hdf5out"
  type: "HDF5Output"
  bottom: "prob"
  bottom: "label"
  include {
    phase: TEST
  }
  hdf5_output_param {
    file_name: "hdf5_dumps/iter_2544.h5"
  }
}
layer {
  name: "loss"
  type: "SoftmaxWithLoss"
  bottom: "fc8_plantvillage"
  bottom: "label"
  top: "loss"
}
layer {
  name: "accuracy"
  type: "Accuracy"
  bottom: "fc8_plantvillage"
  bottom: "label"
  top: "accuracy"
  include {
    phase: TEST
  }
}
I0403 13:57:12.659966   554 layer_factory.hpp:77] Creating layer data
I0403 13:57:12.660610   554 net.cpp:91] Creating Layer data
I0403 13:57:12.660642   554 net.cpp:399] data -> data
I0403 13:57:12.660693   554 net.cpp:399] data -> label
I0403 13:57:12.660729   554 data_transformer.cpp:25] Loading mean file from: /home/mohanty/data/final_dataset/lmdb/segmented-20-80/mean.binaryproto
I0403 13:57:12.665905   557 db_lmdb.cpp:38] Opened lmdb /home/mohanty/data/final_dataset/lmdb/segmented-20-80/test_db
I0403 13:57:12.675508   554 data_layer.cpp:41] output data size: 100,3,227,227
I0403 13:57:12.797854   554 net.cpp:141] Setting up data
I0403 13:57:12.797919   554 net.cpp:148] Top shape: 100 3 227 227 (15458700)
I0403 13:57:12.797941   554 net.cpp:148] Top shape: 100 (100)
I0403 13:57:12.797957   554 net.cpp:156] Memory required for data: 61835200
I0403 13:57:12.797986   554 layer_factory.hpp:77] Creating layer label_data_1_split
I0403 13:57:12.798012   554 net.cpp:91] Creating Layer label_data_1_split
I0403 13:57:12.798028   554 net.cpp:425] label_data_1_split <- label
I0403 13:57:12.798059   554 net.cpp:399] label_data_1_split -> label_data_1_split_0
I0403 13:57:12.798087   554 net.cpp:399] label_data_1_split -> label_data_1_split_1
I0403 13:57:12.798108   554 net.cpp:399] label_data_1_split -> label_data_1_split_2
I0403 13:57:12.798174   554 net.cpp:141] Setting up label_data_1_split
I0403 13:57:12.798198   554 net.cpp:148] Top shape: 100 (100)
I0403 13:57:12.798215   554 net.cpp:148] Top shape: 100 (100)
I0403 13:57:12.798231   554 net.cpp:148] Top shape: 100 (100)
I0403 13:57:12.798250   554 net.cpp:156] Memory required for data: 61836400
I0403 13:57:12.798266   554 layer_factory.hpp:77] Creating layer conv1
I0403 13:57:12.798300   554 net.cpp:91] Creating Layer conv1
I0403 13:57:12.798317   554 net.cpp:425] conv1 <- data
I0403 13:57:12.798337   554 net.cpp:399] conv1 -> conv1
I0403 13:57:12.940583   554 net.cpp:141] Setting up conv1
I0403 13:57:12.940671   554 net.cpp:148] Top shape: 100 96 55 55 (29040000)
I0403 13:57:12.940690   554 net.cpp:156] Memory required for data: 177996400
I0403 13:57:12.940721   554 layer_factory.hpp:77] Creating layer relu1
I0403 13:57:12.940747   554 net.cpp:91] Creating Layer relu1
I0403 13:57:12.940765   554 net.cpp:425] relu1 <- conv1
I0403 13:57:12.940784   554 net.cpp:386] relu1 -> conv1 (in-place)
I0403 13:57:12.941058   554 net.cpp:141] Setting up relu1
I0403 13:57:12.941084   554 net.cpp:148] Top shape: 100 96 55 55 (29040000)
I0403 13:57:12.941130   554 net.cpp:156] Memory required for data: 294156400
I0403 13:57:12.941146   554 layer_factory.hpp:77] Creating layer norm1
I0403 13:57:12.941174   554 net.cpp:91] Creating Layer norm1
I0403 13:57:12.941190   554 net.cpp:425] norm1 <- conv1
I0403 13:57:12.941208   554 net.cpp:399] norm1 -> norm1
I0403 13:57:12.941514   554 net.cpp:141] Setting up norm1
I0403 13:57:12.941540   554 net.cpp:148] Top shape: 100 96 55 55 (29040000)
I0403 13:57:12.941556   554 net.cpp:156] Memory required for data: 410316400
I0403 13:57:12.941572   554 layer_factory.hpp:77] Creating layer pool1
I0403 13:57:12.941594   554 net.cpp:91] Creating Layer pool1
I0403 13:57:12.941612   554 net.cpp:425] pool1 <- norm1
I0403 13:57:12.941629   554 net.cpp:399] pool1 -> pool1
I0403 13:57:12.941699   554 net.cpp:141] Setting up pool1
I0403 13:57:12.941722   554 net.cpp:148] Top shape: 100 96 27 27 (6998400)
I0403 13:57:12.941736   554 net.cpp:156] Memory required for data: 438310000
I0403 13:57:12.941752   554 layer_factory.hpp:77] Creating layer conv2
I0403 13:57:12.941776   554 net.cpp:91] Creating Layer conv2
I0403 13:57:12.941792   554 net.cpp:425] conv2 <- pool1
I0403 13:57:12.941809   554 net.cpp:399] conv2 -> conv2
I0403 13:57:12.956858   554 net.cpp:141] Setting up conv2
I0403 13:57:12.956905   554 net.cpp:148] Top shape: 100 256 27 27 (18662400)
I0403 13:57:12.956923   554 net.cpp:156] Memory required for data: 512959600
I0403 13:57:12.956945   554 layer_factory.hpp:77] Creating layer relu2
I0403 13:57:12.956966   554 net.cpp:91] Creating Layer relu2
I0403 13:57:12.956984   554 net.cpp:425] relu2 <- conv2
I0403 13:57:12.957005   554 net.cpp:386] relu2 -> conv2 (in-place)
I0403 13:57:12.957289   554 net.cpp:141] Setting up relu2
I0403 13:57:12.957316   554 net.cpp:148] Top shape: 100 256 27 27 (18662400)
I0403 13:57:12.957332   554 net.cpp:156] Memory required for data: 587609200
I0403 13:57:12.957347   554 layer_factory.hpp:77] Creating layer norm2
I0403 13:57:12.957371   554 net.cpp:91] Creating Layer norm2
I0403 13:57:12.957389   554 net.cpp:425] norm2 <- conv2
I0403 13:57:12.957435   554 net.cpp:399] norm2 -> norm2
I0403 13:57:12.957651   554 net.cpp:141] Setting up norm2
I0403 13:57:12.957677   554 net.cpp:148] Top shape: 100 256 27 27 (18662400)
I0403 13:57:12.957695   554 net.cpp:156] Memory required for data: 662258800
I0403 13:57:12.957710   554 layer_factory.hpp:77] Creating layer pool2
I0403 13:57:12.957728   554 net.cpp:91] Creating Layer pool2
I0403 13:57:12.957744   554 net.cpp:425] pool2 <- norm2
I0403 13:57:12.957764   554 net.cpp:399] pool2 -> pool2
I0403 13:57:12.957818   554 net.cpp:141] Setting up pool2
I0403 13:57:12.957844   554 net.cpp:148] Top shape: 100 256 13 13 (4326400)
I0403 13:57:12.957859   554 net.cpp:156] Memory required for data: 679564400
I0403 13:57:12.957875   554 layer_factory.hpp:77] Creating layer conv3
I0403 13:57:12.957898   554 net.cpp:91] Creating Layer conv3
I0403 13:57:12.957916   554 net.cpp:425] conv3 <- pool2
I0403 13:57:12.957936   554 net.cpp:399] conv3 -> conv3
I0403 13:57:12.996716   554 net.cpp:141] Setting up conv3
I0403 13:57:12.996800   554 net.cpp:148] Top shape: 100 384 13 13 (6489600)
I0403 13:57:12.996816   554 net.cpp:156] Memory required for data: 705522800
I0403 13:57:12.996841   554 layer_factory.hpp:77] Creating layer relu3
I0403 13:57:12.996863   554 net.cpp:91] Creating Layer relu3
I0403 13:57:12.996879   554 net.cpp:425] relu3 <- conv3
I0403 13:57:12.996901   554 net.cpp:386] relu3 -> conv3 (in-place)
I0403 13:57:12.997180   554 net.cpp:141] Setting up relu3
I0403 13:57:12.997205   554 net.cpp:148] Top shape: 100 384 13 13 (6489600)
I0403 13:57:12.997221   554 net.cpp:156] Memory required for data: 731481200
I0403 13:57:12.997236   554 layer_factory.hpp:77] Creating layer conv4
I0403 13:57:12.997308   554 net.cpp:91] Creating Layer conv4
I0403 13:57:12.997329   554 net.cpp:425] conv4 <- conv3
I0403 13:57:12.997352   554 net.cpp:399] conv4 -> conv4
I0403 13:57:13.027479   554 net.cpp:141] Setting up conv4
I0403 13:57:13.027540   554 net.cpp:148] Top shape: 100 384 13 13 (6489600)
I0403 13:57:13.027585   554 net.cpp:156] Memory required for data: 757439600
I0403 13:57:13.027606   554 layer_factory.hpp:77] Creating layer relu4
I0403 13:57:13.027626   554 net.cpp:91] Creating Layer relu4
I0403 13:57:13.027643   554 net.cpp:425] relu4 <- conv4
I0403 13:57:13.027663   554 net.cpp:386] relu4 -> conv4 (in-place)
I0403 13:57:13.027940   554 net.cpp:141] Setting up relu4
I0403 13:57:13.027969   554 net.cpp:148] Top shape: 100 384 13 13 (6489600)
I0403 13:57:13.027987   554 net.cpp:156] Memory required for data: 783398000
I0403 13:57:13.028002   554 layer_factory.hpp:77] Creating layer conv5
I0403 13:57:13.028024   554 net.cpp:91] Creating Layer conv5
I0403 13:57:13.028043   554 net.cpp:425] conv5 <- conv4
I0403 13:57:13.028064   554 net.cpp:399] conv5 -> conv5
I0403 13:57:13.048858   554 net.cpp:141] Setting up conv5
I0403 13:57:13.048910   554 net.cpp:148] Top shape: 100 256 13 13 (4326400)
I0403 13:57:13.048928   554 net.cpp:156] Memory required for data: 800703600
I0403 13:57:13.048952   554 layer_factory.hpp:77] Creating layer relu5
I0403 13:57:13.048974   554 net.cpp:91] Creating Layer relu5
I0403 13:57:13.048990   554 net.cpp:425] relu5 <- conv5
I0403 13:57:13.049010   554 net.cpp:386] relu5 -> conv5 (in-place)
I0403 13:57:13.049299   554 net.cpp:141] Setting up relu5
I0403 13:57:13.049326   554 net.cpp:148] Top shape: 100 256 13 13 (4326400)
I0403 13:57:13.049342   554 net.cpp:156] Memory required for data: 818009200
I0403 13:57:13.049358   554 layer_factory.hpp:77] Creating layer pool5
I0403 13:57:13.049382   554 net.cpp:91] Creating Layer pool5
I0403 13:57:13.049401   554 net.cpp:425] pool5 <- conv5
I0403 13:57:13.049418   554 net.cpp:399] pool5 -> pool5
I0403 13:57:13.049482   554 net.cpp:141] Setting up pool5
I0403 13:57:13.049506   554 net.cpp:148] Top shape: 100 256 6 6 (921600)
I0403 13:57:13.049521   554 net.cpp:156] Memory required for data: 821695600
I0403 13:57:13.049535   554 layer_factory.hpp:77] Creating layer fc6
I0403 13:57:13.049562   554 net.cpp:91] Creating Layer fc6
I0403 13:57:13.049581   554 net.cpp:425] fc6 <- pool5
I0403 13:57:13.049602   554 net.cpp:399] fc6 -> fc6
I0403 13:57:14.579798   554 net.cpp:141] Setting up fc6
I0403 13:57:14.579864   554 net.cpp:148] Top shape: 100 4096 (409600)
I0403 13:57:14.579879   554 net.cpp:156] Memory required for data: 823334000
I0403 13:57:14.579900   554 layer_factory.hpp:77] Creating layer relu6
I0403 13:57:14.579922   554 net.cpp:91] Creating Layer relu6
I0403 13:57:14.579938   554 net.cpp:425] relu6 <- fc6
I0403 13:57:14.579957   554 net.cpp:386] relu6 -> fc6 (in-place)
I0403 13:57:14.580174   554 net.cpp:141] Setting up relu6
I0403 13:57:14.580199   554 net.cpp:148] Top shape: 100 4096 (409600)
I0403 13:57:14.580214   554 net.cpp:156] Memory required for data: 824972400
I0403 13:57:14.580229   554 layer_factory.hpp:77] Creating layer drop6
I0403 13:57:14.580250   554 net.cpp:91] Creating Layer drop6
I0403 13:57:14.580267   554 net.cpp:425] drop6 <- fc6
I0403 13:57:14.580287   554 net.cpp:386] drop6 -> fc6 (in-place)
I0403 13:57:14.580338   554 net.cpp:141] Setting up drop6
I0403 13:57:14.580363   554 net.cpp:148] Top shape: 100 4096 (409600)
I0403 13:57:14.580379   554 net.cpp:156] Memory required for data: 826610800
I0403 13:57:14.580394   554 layer_factory.hpp:77] Creating layer fc7
I0403 13:57:14.580412   554 net.cpp:91] Creating Layer fc7
I0403 13:57:14.580427   554 net.cpp:425] fc7 <- fc6
I0403 13:57:14.580447   554 net.cpp:399] fc7 -> fc7
I0403 13:57:15.255355   554 net.cpp:141] Setting up fc7
I0403 13:57:15.255395   554 net.cpp:148] Top shape: 100 4096 (409600)
I0403 13:57:15.255412   554 net.cpp:156] Memory required for data: 828249200
I0403 13:57:15.255432   554 layer_factory.hpp:77] Creating layer relu7
I0403 13:57:15.255455   554 net.cpp:91] Creating Layer relu7
I0403 13:57:15.255473   554 net.cpp:425] relu7 <- fc7
I0403 13:57:15.255494   554 net.cpp:386] relu7 -> fc7 (in-place)
I0403 13:57:15.255918   554 net.cpp:141] Setting up relu7
I0403 13:57:15.255944   554 net.cpp:148] Top shape: 100 4096 (409600)
I0403 13:57:15.255991   554 net.cpp:156] Memory required for data: 829887600
I0403 13:57:15.256007   554 layer_factory.hpp:77] Creating layer drop7
I0403 13:57:15.256026   554 net.cpp:91] Creating Layer drop7
I0403 13:57:15.256042   554 net.cpp:425] drop7 <- fc7
I0403 13:57:15.256060   554 net.cpp:386] drop7 -> fc7 (in-place)
I0403 13:57:15.256103   554 net.cpp:141] Setting up drop7
I0403 13:57:15.256127   554 net.cpp:148] Top shape: 100 4096 (409600)
I0403 13:57:15.256142   554 net.cpp:156] Memory required for data: 831526000
I0403 13:57:15.256157   554 layer_factory.hpp:77] Creating layer fc8_plantvillage
I0403 13:57:15.256176   554 net.cpp:91] Creating Layer fc8_plantvillage
I0403 13:57:15.256191   554 net.cpp:425] fc8_plantvillage <- fc7
I0403 13:57:15.256211   554 net.cpp:399] fc8_plantvillage -> fc8_plantvillage
I0403 13:57:15.263116   554 net.cpp:141] Setting up fc8_plantvillage
I0403 13:57:15.263145   554 net.cpp:148] Top shape: 100 38 (3800)
I0403 13:57:15.263160   554 net.cpp:156] Memory required for data: 831541200
I0403 13:57:15.263178   554 layer_factory.hpp:77] Creating layer fc8_plantvillage_fc8_plantvillage_0_split
I0403 13:57:15.263197   554 net.cpp:91] Creating Layer fc8_plantvillage_fc8_plantvillage_0_split
I0403 13:57:15.263212   554 net.cpp:425] fc8_plantvillage_fc8_plantvillage_0_split <- fc8_plantvillage
I0403 13:57:15.263232   554 net.cpp:399] fc8_plantvillage_fc8_plantvillage_0_split -> fc8_plantvillage_fc8_plantvillage_0_split_0
I0403 13:57:15.263265   554 net.cpp:399] fc8_plantvillage_fc8_plantvillage_0_split -> fc8_plantvillage_fc8_plantvillage_0_split_1
I0403 13:57:15.263288   554 net.cpp:399] fc8_plantvillage_fc8_plantvillage_0_split -> fc8_plantvillage_fc8_plantvillage_0_split_2
I0403 13:57:15.263371   554 net.cpp:141] Setting up fc8_plantvillage_fc8_plantvillage_0_split
I0403 13:57:15.263397   554 net.cpp:148] Top shape: 100 38 (3800)
I0403 13:57:15.263416   554 net.cpp:148] Top shape: 100 38 (3800)
I0403 13:57:15.263432   554 net.cpp:148] Top shape: 100 38 (3800)
I0403 13:57:15.263445   554 net.cpp:156] Memory required for data: 831586800
I0403 13:57:15.263460   554 layer_factory.hpp:77] Creating layer prob
I0403 13:57:15.263479   554 net.cpp:91] Creating Layer prob
I0403 13:57:15.263494   554 net.cpp:425] prob <- fc8_plantvillage_fc8_plantvillage_0_split_0
I0403 13:57:15.263514   554 net.cpp:399] prob -> prob
I0403 13:57:15.263746   554 net.cpp:141] Setting up prob
I0403 13:57:15.263772   554 net.cpp:148] Top shape: 100 38 (3800)
I0403 13:57:15.263787   554 net.cpp:156] Memory required for data: 831602000
I0403 13:57:15.263803   554 layer_factory.hpp:77] Creating layer hdf5out
I0403 13:57:15.263820   554 net.cpp:91] Creating Layer hdf5out
I0403 13:57:15.263836   554 net.cpp:425] hdf5out <- prob
I0403 13:57:15.263854   554 net.cpp:425] hdf5out <- label_data_1_split_0
I0403 13:57:15.266048   554 net.cpp:141] Setting up hdf5out
…
