…
I0403 14:06:09.710397   741 net.cpp:313] The NetState phase (1) differed from the phase (0) specified by a rule in layer data
I0403 14:06:09.710677   741 net.cpp:49] Initializing net from parameters: 
state {
  phase: TEST
}
layer {
  name: "data"
  type: "Data"
  top: "data"
  top: "label"
  include {
    phase: TEST
  }
  transform_param {
    crop_size: 227
    mean_file: "/home/mohanty/data/final_dataset/lmdb/segmented-20-80/mean.binaryproto"
  }
  data_param {
    source: "/home/mohanty/data/final_dataset/lmdb/segmented-20-80/test_db"
    batch_size: 100
    backend: LMDB
  }
}
layer {
  name: "conv1"
  type: "Convolution"
  bottom: "data"
  top: "conv1"
  param {
    lr_mult: 1
    decay_mult: 1
  }
  param {
    lr_mult: 2
    decay_mult: 0
  }
  convolution_param {
    num_output: 96
    kernel_size: 11
    stride: 4
    weight_filler {
      type: "gaussian"
      std: 0.01
    }
    bias_filler {
      type: "constant"
      value: 0
    }
  }
}
layer {
  name: "relu1"
  type: "ReLU"
  bottom: "conv1"
  top: "conv1"
}
layer {
  name: "norm1"
  type: "LRN"
  bottom: "conv1"
  top: "norm1"
  lrn_param {
    local_size: 5
    alpha: 0.0001
    beta: 0.75
  }
}
layer {
  name: "pool1"
  type: "Pooling"
  bottom: "norm1"
  top: "pool1"
  pooling_param {
    pool: MAX
    kernel_size: 3
    stride: 2
  }
}
layer {
  name: "conv2"
  type: "Convolution"
  bottom: "pool1"
  top: "conv2"
  param {
    lr_mult: 1
    decay_mult: 1
  }
  param {
    lr_mult: 2
    decay_mult: 0
  }
  convolution_param {
    num_output: 256
    pad: 2
    kernel_size: 5
    group: 2
    weight_filler {
      type: "gaussian"
      std: 0.01
    }
    bias_filler {
      type: "constant"
      value: 0.1
    }
  }
}
layer {
  name: "relu2"
  type: "ReLU"
  bottom: "conv2"
  top: "conv2"
}
layer {
  name: "norm2"
  type: "LRN"
  bottom: "conv2"
  top: "norm2"
  lrn_param {
    local_size: 5
    alpha: 0.0001
    beta: 0.75
  }
}
layer {
  name: "pool2"
  type: "Pooling"
  bottom: "norm2"
  top: "pool2"
  pooling_param {
    pool: MAX
    kernel_size: 3
    stride: 2
  }
}
layer {
  name: "conv3"
  type: "Convolution"
  bottom: "pool2"
  top: "conv3"
  param {
    lr_mult: 1
    decay_mult: 1
  }
  param {
    lr_mult: 2
    decay_mult: 0
  }
  convolution_param {
    num_output: 384
    pad: 1
    kernel_size: 3
    weight_filler {
      type: "gaussian"
      std: 0.01
    }
    bias_filler {
      type: "constant"
      value: 0
    }
  }
}
layer {
  name: "relu3"
  type: "ReLU"
  bottom: "conv3"
  top: "conv3"
}
layer {
  name: "conv4"
  type: "Convolution"
  bottom: "conv3"
  top: "conv4"
  param {
    lr_mult: 1
    decay_mult: 1
  }
  param {
    lr_mult: 2
    decay_mult: 0
  }
  convolution_param {
    num_output: 384
    pad: 1
    kernel_size: 3
    group: 2
    weight_filler {
      type: "gaussian"
      std: 0.01
    }
    bias_filler {
      type: "constant"
      value: 0.1
    }
  }
}
layer {
  name: "relu4"
  type: "ReLU"
  bottom: "conv4"
  top: "conv4"
}
layer {
  name: "conv5"
  type: "Convolution"
  bottom: "conv4"
  top: "conv5"
  param {
    lr_mult: 1
    decay_mult: 1
  }
  param {
    lr_mult: 2
    decay_mult: 0
  }
  convolution_param {
    num_output: 256
    pad: 1
    kernel_size: 3
    group: 2
    weight_filler {
      type: "gaussian"
      std: 0.01
    }
    bias_filler {
      type: "constant"
      value: 0.1
    }
  }
}
layer {
  name: "relu5"
  type: "ReLU"
  bottom: "conv5"
  top: "conv5"
}
layer {
  name: "pool5"
  type: "Pooling"
  bottom: "conv5"
  top: "pool5"
  pooling_param {
    pool: MAX
    kernel_size: 3
    stride: 2
  }
}
layer {
  name: "fc6"
  type: "InnerProduct"
  bottom: "pool5"
  top: "fc6"
  param {
    lr_mult: 1
    decay_mult: 1
  }
  param {
    lr_mult: 2
    decay_mult: 0
  }
  inner_product_param {
    num_output: 4096
    weight_filler {
      type: "gaussian"
      std: 0.005
    }
    bias_filler {
      type: "constant"
      value: 0.1
    }
  }
}
layer {
  name: "relu6"
  type: "ReLU"
  bottom: "fc6"
  top: "fc6"
}
layer {
  name: "drop6"
  type: "Dropout"
  bottom: "fc6"
  top: "fc6"
  dropout_param {
    dropout_ratio: 0.5
  }
}
layer {
  name: "fc7"
  type: "InnerProduct"
  bottom: "fc6"
  top: "fc7"
  param {
    lr_mult: 1
    decay_mult: 1
  }
  param {
    lr_mult: 2
    decay_mult: 0
  }
  inner_product_param {
    num_output: 4096
    weight_filler {
      type: "gaussian"
      std: 0.005
    }
    bias_filler {
      type: "constant"
      value: 0.1
    }
  }
}
layer {
  name: "relu7"
  type: "ReLU"
  bottom: "fc7"
  top: "fc7"
}
layer {
  name: "drop7"
  type: "Dropout"
  bottom: "fc7"
  top: "fc7"
  dropout_param {
    dropout_ratio: 0.5
  }
}
layer {
  name: "fc8_plantvillage"
  type: "InnerProduct"
  bottom: "fc7"
  top: "fc8_plantvillage"
  param {
    lr_mult: 1
    decay_mult: 1
  }
  param {
    lr_mult: 2
    decay_mult: 0
  }
  inner_product_param {
    num_output: 38
    weight_filler {
      type: "gaussian"
      std: 0.01
    }
    bias_filler {
      type: "constant"
      value: 0
    }
  }
}
layer {
  name: "prob"
  type: "Softmax"
  bottom: "fc8_plantvillage"
  top: "prob"
  include {
    phase: TEST
  }
}
layer {
  name: "hdf5out"
  type: "HDF5Output"
  bottom: "prob"
  bottom: "label"
  include {
    phase: TEST
  }
  hdf5_output_param {
    file_name: "hdf5_dumps/iter_3199.h5"
  }
}
layer {
  name: "loss"
  type: "SoftmaxWithLoss"
  bottom: "fc8_plantvillage"
  bottom: "label"
  top: "loss"
}
layer {
  name: "accuracy"
  type: "Accuracy"
  bottom: "fc8_plantvillage"
  bottom: "label"
  top: "accuracy"
  include {
    phase: TEST
  }
}
I0403 14:06:09.711235   741 layer_factory.hpp:77] Creating layer data
I0403 14:06:09.711887   741 net.cpp:91] Creating Layer data
I0403 14:06:09.711918   741 net.cpp:399] data -> data
I0403 14:06:09.711967   741 net.cpp:399] data -> label
I0403 14:06:09.712002   741 data_transformer.cpp:25] Loading mean file from: /home/mohanty/data/final_dataset/lmdb/segmented-20-80/mean.binaryproto
I0403 14:06:09.714893   747 db_lmdb.cpp:38] Opened lmdb /home/mohanty/data/final_dataset/lmdb/segmented-20-80/test_db
I0403 14:06:09.726366   741 data_layer.cpp:41] output data size: 100,3,227,227
I0403 14:06:09.847877   741 net.cpp:141] Setting up data
I0403 14:06:09.847939   741 net.cpp:148] Top shape: 100 3 227 227 (15458700)
I0403 14:06:09.847965   741 net.cpp:148] Top shape: 100 (100)
I0403 14:06:09.847980   741 net.cpp:156] Memory required for data: 61835200
I0403 14:06:09.848009   741 layer_factory.hpp:77] Creating layer label_data_1_split
I0403 14:06:09.848037   741 net.cpp:91] Creating Layer label_data_1_split
I0403 14:06:09.848055   741 net.cpp:425] label_data_1_split <- label
I0403 14:06:09.848088   741 net.cpp:399] label_data_1_split -> label_data_1_split_0
I0403 14:06:09.848116   741 net.cpp:399] label_data_1_split -> label_data_1_split_1
I0403 14:06:09.848139   741 net.cpp:399] label_data_1_split -> label_data_1_split_2
I0403 14:06:09.848206   741 net.cpp:141] Setting up label_data_1_split
I0403 14:06:09.848232   741 net.cpp:148] Top shape: 100 (100)
I0403 14:06:09.848256   741 net.cpp:148] Top shape: 100 (100)
I0403 14:06:09.848274   741 net.cpp:148] Top shape: 100 (100)
I0403 14:06:09.848289   741 net.cpp:156] Memory required for data: 61836400
I0403 14:06:09.848306   741 layer_factory.hpp:77] Creating layer conv1
I0403 14:06:09.848338   741 net.cpp:91] Creating Layer conv1
I0403 14:06:09.848359   741 net.cpp:425] conv1 <- data
I0403 14:06:09.848379   741 net.cpp:399] conv1 -> conv1
I0403 14:06:09.989811   741 net.cpp:141] Setting up conv1
I0403 14:06:09.989899   741 net.cpp:148] Top shape: 100 96 55 55 (29040000)
I0403 14:06:09.989917   741 net.cpp:156] Memory required for data: 177996400
I0403 14:06:09.989950   741 layer_factory.hpp:77] Creating layer relu1
I0403 14:06:09.989979   741 net.cpp:91] Creating Layer relu1
I0403 14:06:09.990000   741 net.cpp:425] relu1 <- conv1
I0403 14:06:09.990020   741 net.cpp:386] relu1 -> conv1 (in-place)
I0403 14:06:09.990291   741 net.cpp:141] Setting up relu1
I0403 14:06:09.990320   741 net.cpp:148] Top shape: 100 96 55 55 (29040000)
I0403 14:06:09.990368   741 net.cpp:156] Memory required for data: 294156400
I0403 14:06:09.990386   741 layer_factory.hpp:77] Creating layer norm1
I0403 14:06:09.990416   741 net.cpp:91] Creating Layer norm1
I0403 14:06:09.990433   741 net.cpp:425] norm1 <- conv1
I0403 14:06:09.990453   741 net.cpp:399] norm1 -> norm1
I0403 14:06:09.990772   741 net.cpp:141] Setting up norm1
I0403 14:06:09.990802   741 net.cpp:148] Top shape: 100 96 55 55 (29040000)
I0403 14:06:09.990818   741 net.cpp:156] Memory required for data: 410316400
I0403 14:06:09.990834   741 layer_factory.hpp:77] Creating layer pool1
I0403 14:06:09.990859   741 net.cpp:91] Creating Layer pool1
I0403 14:06:09.990875   741 net.cpp:425] pool1 <- norm1
I0403 14:06:09.990895   741 net.cpp:399] pool1 -> pool1
I0403 14:06:09.990963   741 net.cpp:141] Setting up pool1
I0403 14:06:09.990988   741 net.cpp:148] Top shape: 100 96 27 27 (6998400)
I0403 14:06:09.991004   741 net.cpp:156] Memory required for data: 438310000
I0403 14:06:09.991019   741 layer_factory.hpp:77] Creating layer conv2
I0403 14:06:09.991045   741 net.cpp:91] Creating Layer conv2
I0403 14:06:09.991062   741 net.cpp:425] conv2 <- pool1
I0403 14:06:09.991081   741 net.cpp:399] conv2 -> conv2
I0403 14:06:10.006567   741 net.cpp:141] Setting up conv2
I0403 14:06:10.006659   741 net.cpp:148] Top shape: 100 256 27 27 (18662400)
I0403 14:06:10.006683   741 net.cpp:156] Memory required for data: 512959600
I0403 14:06:10.006710   741 layer_factory.hpp:77] Creating layer relu2
I0403 14:06:10.006731   741 net.cpp:91] Creating Layer relu2
I0403 14:06:10.006749   741 net.cpp:425] relu2 <- conv2
I0403 14:06:10.006768   741 net.cpp:386] relu2 -> conv2 (in-place)
I0403 14:06:10.007058   741 net.cpp:141] Setting up relu2
I0403 14:06:10.007088   741 net.cpp:148] Top shape: 100 256 27 27 (18662400)
I0403 14:06:10.007104   741 net.cpp:156] Memory required for data: 587609200
I0403 14:06:10.007120   741 layer_factory.hpp:77] Creating layer norm2
I0403 14:06:10.007143   741 net.cpp:91] Creating Layer norm2
I0403 14:06:10.007158   741 net.cpp:425] norm2 <- conv2
I0403 14:06:10.007179   741 net.cpp:399] norm2 -> norm2
I0403 14:06:10.007382   741 net.cpp:141] Setting up norm2
I0403 14:06:10.007408   741 net.cpp:148] Top shape: 100 256 27 27 (18662400)
I0403 14:06:10.007426   741 net.cpp:156] Memory required for data: 662258800
I0403 14:06:10.007441   741 layer_factory.hpp:77] Creating layer pool2
I0403 14:06:10.007459   741 net.cpp:91] Creating Layer pool2
I0403 14:06:10.007475   741 net.cpp:425] pool2 <- norm2
I0403 14:06:10.007493   741 net.cpp:399] pool2 -> pool2
I0403 14:06:10.007547   741 net.cpp:141] Setting up pool2
I0403 14:06:10.007570   741 net.cpp:148] Top shape: 100 256 13 13 (4326400)
I0403 14:06:10.007586   741 net.cpp:156] Memory required for data: 679564400
I0403 14:06:10.007601   741 layer_factory.hpp:77] Creating layer conv3
I0403 14:06:10.007627   741 net.cpp:91] Creating Layer conv3
I0403 14:06:10.007644   741 net.cpp:425] conv3 <- pool2
I0403 14:06:10.007664   741 net.cpp:399] conv3 -> conv3
I0403 14:06:10.046280   741 net.cpp:141] Setting up conv3
I0403 14:06:10.046346   741 net.cpp:148] Top shape: 100 384 13 13 (6489600)
I0403 14:06:10.046363   741 net.cpp:156] Memory required for data: 705522800
I0403 14:06:10.046389   741 layer_factory.hpp:77] Creating layer relu3
I0403 14:06:10.046414   741 net.cpp:91] Creating Layer relu3
I0403 14:06:10.046433   741 net.cpp:425] relu3 <- conv3
I0403 14:06:10.046453   741 net.cpp:386] relu3 -> conv3 (in-place)
I0403 14:06:10.046728   741 net.cpp:141] Setting up relu3
I0403 14:06:10.046756   741 net.cpp:148] Top shape: 100 384 13 13 (6489600)
I0403 14:06:10.046772   741 net.cpp:156] Memory required for data: 731481200
I0403 14:06:10.046787   741 layer_factory.hpp:77] Creating layer conv4
I0403 14:06:10.046814   741 net.cpp:91] Creating Layer conv4
I0403 14:06:10.046833   741 net.cpp:425] conv4 <- conv3
I0403 14:06:10.046852   741 net.cpp:399] conv4 -> conv4
I0403 14:06:10.076669   741 net.cpp:141] Setting up conv4
I0403 14:06:10.076732   741 net.cpp:148] Top shape: 100 384 13 13 (6489600)
I0403 14:06:10.076781   741 net.cpp:156] Memory required for data: 757439600
I0403 14:06:10.076804   741 layer_factory.hpp:77] Creating layer relu4
I0403 14:06:10.076828   741 net.cpp:91] Creating Layer relu4
I0403 14:06:10.076848   741 net.cpp:425] relu4 <- conv4
I0403 14:06:10.076867   741 net.cpp:386] relu4 -> conv4 (in-place)
I0403 14:06:10.077162   741 net.cpp:141] Setting up relu4
I0403 14:06:10.077191   741 net.cpp:148] Top shape: 100 384 13 13 (6489600)
I0403 14:06:10.077208   741 net.cpp:156] Memory required for data: 783398000
I0403 14:06:10.077222   741 layer_factory.hpp:77] Creating layer conv5
I0403 14:06:10.077251   741 net.cpp:91] Creating Layer conv5
I0403 14:06:10.077271   741 net.cpp:425] conv5 <- conv4
I0403 14:06:10.077294   741 net.cpp:399] conv5 -> conv5
I0403 14:06:10.098831   741 net.cpp:141] Setting up conv5
I0403 14:06:10.098896   741 net.cpp:148] Top shape: 100 256 13 13 (4326400)
I0403 14:06:10.098914   741 net.cpp:156] Memory required for data: 800703600
I0403 14:06:10.098942   741 layer_factory.hpp:77] Creating layer relu5
I0403 14:06:10.098966   741 net.cpp:91] Creating Layer relu5
I0403 14:06:10.099006   741 net.cpp:425] relu5 <- conv5
I0403 14:06:10.099035   741 net.cpp:386] relu5 -> conv5 (in-place)
I0403 14:06:10.099334   741 net.cpp:141] Setting up relu5
I0403 14:06:10.099365   741 net.cpp:148] Top shape: 100 256 13 13 (4326400)
I0403 14:06:10.099382   741 net.cpp:156] Memory required for data: 818009200
I0403 14:06:10.099398   741 layer_factory.hpp:77] Creating layer pool5
I0403 14:06:10.099421   741 net.cpp:91] Creating Layer pool5
I0403 14:06:10.099437   741 net.cpp:425] pool5 <- conv5
I0403 14:06:10.099458   741 net.cpp:399] pool5 -> pool5
I0403 14:06:10.099520   741 net.cpp:141] Setting up pool5
I0403 14:06:10.099545   741 net.cpp:148] Top shape: 100 256 6 6 (921600)
I0403 14:06:10.099560   741 net.cpp:156] Memory required for data: 821695600
I0403 14:06:10.099575   741 layer_factory.hpp:77] Creating layer fc6
I0403 14:06:10.099604   741 net.cpp:91] Creating Layer fc6
I0403 14:06:10.099623   741 net.cpp:425] fc6 <- pool5
I0403 14:06:10.099645   741 net.cpp:399] fc6 -> fc6
I0403 14:06:11.690698   741 net.cpp:141] Setting up fc6
I0403 14:06:11.690783   741 net.cpp:148] Top shape: 100 4096 (409600)
I0403 14:06:11.690800   741 net.cpp:156] Memory required for data: 823334000
I0403 14:06:11.690822   741 layer_factory.hpp:77] Creating layer relu6
I0403 14:06:11.690845   741 net.cpp:91] Creating Layer relu6
I0403 14:06:11.690863   741 net.cpp:425] relu6 <- fc6
I0403 14:06:11.690886   741 net.cpp:386] relu6 -> fc6 (in-place)
I0403 14:06:11.691107   741 net.cpp:141] Setting up relu6
I0403 14:06:11.691135   741 net.cpp:148] Top shape: 100 4096 (409600)
I0403 14:06:11.691153   741 net.cpp:156] Memory required for data: 824972400
I0403 14:06:11.691167   741 layer_factory.hpp:77] Creating layer drop6
I0403 14:06:11.691187   741 net.cpp:91] Creating Layer drop6
I0403 14:06:11.691203   741 net.cpp:425] drop6 <- fc6
I0403 14:06:11.691220   741 net.cpp:386] drop6 -> fc6 (in-place)
I0403 14:06:11.691280   741 net.cpp:141] Setting up drop6
I0403 14:06:11.691304   741 net.cpp:148] Top shape: 100 4096 (409600)
I0403 14:06:11.691319   741 net.cpp:156] Memory required for data: 826610800
I0403 14:06:11.691334   741 layer_factory.hpp:77] Creating layer fc7
I0403 14:06:11.691357   741 net.cpp:91] Creating Layer fc7
I0403 14:06:11.691375   741 net.cpp:425] fc7 <- fc6
I0403 14:06:11.691393   741 net.cpp:399] fc7 -> fc7
I0403 14:06:12.381582   741 net.cpp:141] Setting up fc7
I0403 14:06:12.381654   741 net.cpp:148] Top shape: 100 4096 (409600)
I0403 14:06:12.381670   741 net.cpp:156] Memory required for data: 828249200
I0403 14:06:12.381691   741 layer_factory.hpp:77] Creating layer relu7
I0403 14:06:12.381716   741 net.cpp:91] Creating Layer relu7
I0403 14:06:12.381734   741 net.cpp:425] relu7 <- fc7
I0403 14:06:12.381754   741 net.cpp:386] relu7 -> fc7 (in-place)
I0403 14:06:12.382169   741 net.cpp:141] Setting up relu7
I0403 14:06:12.382194   741 net.cpp:148] Top shape: 100 4096 (409600)
I0403 14:06:12.382236   741 net.cpp:156] Memory required for data: 829887600
I0403 14:06:12.382266   741 layer_factory.hpp:77] Creating layer drop7
I0403 14:06:12.382287   741 net.cpp:91] Creating Layer drop7
I0403 14:06:12.382304   741 net.cpp:425] drop7 <- fc7
I0403 14:06:12.382323   741 net.cpp:386] drop7 -> fc7 (in-place)
I0403 14:06:12.382366   741 net.cpp:141] Setting up drop7
I0403 14:06:12.382390   741 net.cpp:148] Top shape: 100 4096 (409600)
I0403 14:06:12.382405   741 net.cpp:156] Memory required for data: 831526000
I0403 14:06:12.382418   741 layer_factory.hpp:77] Creating layer fc8_plantvillage
I0403 14:06:12.382437   741 net.cpp:91] Creating Layer fc8_plantvillage
I0403 14:06:12.382453   741 net.cpp:425] fc8_plantvillage <- fc7
I0403 14:06:12.382473   741 net.cpp:399] fc8_plantvillage -> fc8_plantvillage
I0403 14:06:12.389185   741 net.cpp:141] Setting up fc8_plantvillage
I0403 14:06:12.389216   741 net.cpp:148] Top shape: 100 38 (3800)
I0403 14:06:12.389232   741 net.cpp:156] Memory required for data: 831541200
I0403 14:06:12.389257   741 layer_factory.hpp:77] Creating layer fc8_plantvillage_fc8_plantvillage_0_split
I0403 14:06:12.389278   741 net.cpp:91] Creating Layer fc8_plantvillage_fc8_plantvillage_0_split
I0403 14:06:12.389295   741 net.cpp:425] fc8_plantvillage_fc8_plantvillage_0_split <- fc8_plantvillage
I0403 14:06:12.389312   741 net.cpp:399] fc8_plantvillage_fc8_plantvillage_0_split -> fc8_plantvillage_fc8_plantvillage_0_split_0
I0403 14:06:12.389333   741 net.cpp:399] fc8_plantvillage_fc8_plantvillage_0_split -> fc8_plantvillage_fc8_plantvillage_0_split_1
I0403 14:06:12.389356   741 net.cpp:399] fc8_plantvillage_fc8_plantvillage_0_split -> fc8_plantvillage_fc8_plantvillage_0_split_2
I0403 14:06:12.389436   741 net.cpp:141] Setting up fc8_plantvillage_fc8_plantvillage_0_split
I0403 14:06:12.389461   741 net.cpp:148] Top shape: 100 38 (3800)
I0403 14:06:12.389477   741 net.cpp:148] Top shape: 100 38 (3800)
I0403 14:06:12.389492   741 net.cpp:148] Top shape: 100 38 (3800)
I0403 14:06:12.389506   741 net.cpp:156] Memory required for data: 831586800
I0403 14:06:12.389521   741 layer_factory.hpp:77] Creating layer prob
I0403 14:06:12.389539   741 net.cpp:91] Creating Layer prob
I0403 14:06:12.389555   741 net.cpp:425] prob <- fc8_plantvillage_fc8_plantvillage_0_split_0
I0403 14:06:12.389574   741 net.cpp:399] prob -> prob
I0403 14:06:12.389797   741 net.cpp:141] Setting up prob
I0403 14:06:12.389822   741 net.cpp:148] Top shape: 100 38 (3800)
I0403 14:06:12.389837   741 net.cpp:156] Memory required for data: 831602000
I0403 14:06:12.389853   741 layer_factory.hpp:77] Creating layer hdf5out
I0403 14:06:12.389873   741 net.cpp:91] Creating Layer hdf5out
I0403 14:06:12.389890   741 net.cpp:425] hdf5out <- prob
I0403 14:06:12.389906   741 net.cpp:425] hdf5out <- label_data_1_split_0
I0403 14:06:12.392164   741 net.cpp:141] Setting up hdf5out
…
