…
I0403 13:31:35.644222 32380 net.cpp:313] The NetState phase (1) differed from the phase (0) specified by a rule in layer data
I0403 13:31:35.644556 32380 net.cpp:49] Initializing net from parameters: 
state {
  phase: TEST
}
layer {
  name: "data"
  type: "Data"
  top: "data"
  top: "label"
  include {
    phase: TEST
  }
  transform_param {
    crop_size: 227
    mean_file: "/home/mohanty/data/final_dataset/lmdb/segmented-20-80/mean.binaryproto"
  }
  data_param {
    source: "/home/mohanty/data/final_dataset/lmdb/segmented-20-80/test_db"
    batch_size: 100
    backend: LMDB
  }
}
layer {
  name: "conv1"
  type: "Convolution"
  bottom: "data"
  top: "conv1"
  param {
    lr_mult: 1
    decay_mult: 1
  }
  param {
    lr_mult: 2
    decay_mult: 0
  }
  convolution_param {
    num_output: 96
    kernel_size: 11
    stride: 4
    weight_filler {
      type: "gaussian"
      std: 0.01
    }
    bias_filler {
      type: "constant"
      value: 0
    }
  }
}
layer {
  name: "relu1"
  type: "ReLU"
  bottom: "conv1"
  top: "conv1"
}
layer {
  name: "norm1"
  type: "LRN"
  bottom: "conv1"
  top: "norm1"
  lrn_param {
    local_size: 5
    alpha: 0.0001
    beta: 0.75
  }
}
layer {
  name: "pool1"
  type: "Pooling"
  bottom: "norm1"
  top: "pool1"
  pooling_param {
    pool: MAX
    kernel_size: 3
    stride: 2
  }
}
layer {
  name: "conv2"
  type: "Convolution"
  bottom: "pool1"
  top: "conv2"
  param {
    lr_mult: 1
    decay_mult: 1
  }
  param {
    lr_mult: 2
    decay_mult: 0
  }
  convolution_param {
    num_output: 256
    pad: 2
    kernel_size: 5
    group: 2
    weight_filler {
      type: "gaussian"
      std: 0.01
    }
    bias_filler {
      type: "constant"
      value: 0.1
    }
  }
}
layer {
  name: "relu2"
  type: "ReLU"
  bottom: "conv2"
  top: "conv2"
}
layer {
  name: "norm2"
  type: "LRN"
  bottom: "conv2"
  top: "norm2"
  lrn_param {
    local_size: 5
    alpha: 0.0001
    beta: 0.75
  }
}
layer {
  name: "pool2"
  type: "Pooling"
  bottom: "norm2"
  top: "pool2"
  pooling_param {
    pool: MAX
    kernel_size: 3
    stride: 2
  }
}
layer {
  name: "conv3"
  type: "Convolution"
  bottom: "pool2"
  top: "conv3"
  param {
    lr_mult: 1
    decay_mult: 1
  }
  param {
    lr_mult: 2
    decay_mult: 0
  }
  convolution_param {
    num_output: 384
    pad: 1
    kernel_size: 3
    weight_filler {
      type: "gaussian"
      std: 0.01
    }
    bias_filler {
      type: "constant"
      value: 0
    }
  }
}
layer {
  name: "relu3"
  type: "ReLU"
  bottom: "conv3"
  top: "conv3"
}
layer {
  name: "conv4"
  type: "Convolution"
  bottom: "conv3"
  top: "conv4"
  param {
    lr_mult: 1
    decay_mult: 1
  }
  param {
    lr_mult: 2
    decay_mult: 0
  }
  convolution_param {
    num_output: 384
    pad: 1
    kernel_size: 3
    group: 2
    weight_filler {
      type: "gaussian"
      std: 0.01
    }
    bias_filler {
      type: "constant"
      value: 0.1
    }
  }
}
layer {
  name: "relu4"
  type: "ReLU"
  bottom: "conv4"
  top: "conv4"
}
layer {
  name: "conv5"
  type: "Convolution"
  bottom: "conv4"
  top: "conv5"
  param {
    lr_mult: 1
    decay_mult: 1
  }
  param {
    lr_mult: 2
    decay_mult: 0
  }
  convolution_param {
    num_output: 256
    pad: 1
    kernel_size: 3
    group: 2
    weight_filler {
      type: "gaussian"
      std: 0.01
    }
    bias_filler {
      type: "constant"
      value: 0.1
    }
  }
}
layer {
  name: "relu5"
  type: "ReLU"
  bottom: "conv5"
  top: "conv5"
}
layer {
  name: "pool5"
  type: "Pooling"
  bottom: "conv5"
  top: "pool5"
  pooling_param {
    pool: MAX
    kernel_size: 3
    stride: 2
  }
}
layer {
  name: "fc6"
  type: "InnerProduct"
  bottom: "pool5"
  top: "fc6"
  param {
    lr_mult: 1
    decay_mult: 1
  }
  param {
    lr_mult: 2
    decay_mult: 0
  }
  inner_product_param {
    num_output: 4096
    weight_filler {
      type: "gaussian"
      std: 0.005
    }
    bias_filler {
      type: "constant"
      value: 0.1
    }
  }
}
layer {
  name: "relu6"
  type: "ReLU"
  bottom: "fc6"
  top: "fc6"
}
layer {
  name: "drop6"
  type: "Dropout"
  bottom: "fc6"
  top: "fc6"
  dropout_param {
    dropout_ratio: 0.5
  }
}
layer {
  name: "fc7"
  type: "InnerProduct"
  bottom: "fc6"
  top: "fc7"
  param {
    lr_mult: 1
    decay_mult: 1
  }
  param {
    lr_mult: 2
    decay_mult: 0
  }
  inner_product_param {
    num_output: 4096
    weight_filler {
      type: "gaussian"
      std: 0.005
    }
    bias_filler {
      type: "constant"
      value: 0.1
    }
  }
}
layer {
  name: "relu7"
  type: "ReLU"
  bottom: "fc7"
  top: "fc7"
}
layer {
  name: "drop7"
  type: "Dropout"
  bottom: "fc7"
  top: "fc7"
  dropout_param {
    dropout_ratio: 0.5
  }
}
layer {
  name: "fc8_plantvillage"
  type: "InnerProduct"
  bottom: "fc7"
  top: "fc8_plantvillage"
  param {
    lr_mult: 1
    decay_mult: 1
  }
  param {
    lr_mult: 2
    decay_mult: 0
  }
  inner_product_param {
    num_output: 38
    weight_filler {
      type: "gaussian"
      std: 0.01
    }
    bias_filler {
      type: "constant"
      value: 0
    }
  }
}
layer {
  name: "prob"
  type: "Softmax"
  bottom: "fc8_plantvillage"
  top: "prob"
  include {
    phase: TEST
  }
}
layer {
  name: "hdf5out"
  type: "HDF5Output"
  bottom: "prob"
  bottom: "label"
  include {
    phase: TEST
  }
  hdf5_output_param {
    file_name: "hdf5_dumps/iter_424.h5"
  }
}
layer {
  name: "loss"
  type: "SoftmaxWithLoss"
  bottom: "fc8_plantvillage"
  bottom: "label"
  top: "loss"
}
layer {
  name: "accuracy"
  type: "Accuracy"
  bottom: "fc8_plantvillage"
  bottom: "label"
  top: "accuracy"
  include {
    phase: TEST
  }
}
I0403 13:31:35.645172 32380 layer_factory.hpp:77] Creating layer data
I0403 13:31:35.645835 32380 net.cpp:91] Creating Layer data
I0403 13:31:35.645869 32380 net.cpp:399] data -> data
I0403 13:31:35.645920 32380 net.cpp:399] data -> label
I0403 13:31:35.645956 32380 data_transformer.cpp:25] Loading mean file from: /home/mohanty/data/final_dataset/lmdb/segmented-20-80/mean.binaryproto
I0403 13:31:35.648793 32383 db_lmdb.cpp:38] Opened lmdb /home/mohanty/data/final_dataset/lmdb/segmented-20-80/test_db
I0403 13:31:35.660293 32380 data_layer.cpp:41] output data size: 100,3,227,227
I0403 13:31:35.781020 32380 net.cpp:141] Setting up data
I0403 13:31:35.781126 32380 net.cpp:148] Top shape: 100 3 227 227 (15458700)
I0403 13:31:35.781148 32380 net.cpp:148] Top shape: 100 (100)
I0403 13:31:35.781163 32380 net.cpp:156] Memory required for data: 61835200
I0403 13:31:35.781193 32380 layer_factory.hpp:77] Creating layer label_data_1_split
I0403 13:31:35.781219 32380 net.cpp:91] Creating Layer label_data_1_split
I0403 13:31:35.781236 32380 net.cpp:425] label_data_1_split <- label
I0403 13:31:35.781273 32380 net.cpp:399] label_data_1_split -> label_data_1_split_0
I0403 13:31:35.781302 32380 net.cpp:399] label_data_1_split -> label_data_1_split_1
I0403 13:31:35.781323 32380 net.cpp:399] label_data_1_split -> label_data_1_split_2
I0403 13:31:35.781388 32380 net.cpp:141] Setting up label_data_1_split
I0403 13:31:35.781412 32380 net.cpp:148] Top shape: 100 (100)
I0403 13:31:35.781430 32380 net.cpp:148] Top shape: 100 (100)
I0403 13:31:35.781447 32380 net.cpp:148] Top shape: 100 (100)
I0403 13:31:35.781461 32380 net.cpp:156] Memory required for data: 61836400
I0403 13:31:35.781476 32380 layer_factory.hpp:77] Creating layer conv1
I0403 13:31:35.781509 32380 net.cpp:91] Creating Layer conv1
I0403 13:31:35.781527 32380 net.cpp:425] conv1 <- data
I0403 13:31:35.781548 32380 net.cpp:399] conv1 -> conv1
I0403 13:31:35.922890 32380 net.cpp:141] Setting up conv1
I0403 13:31:35.922979 32380 net.cpp:148] Top shape: 100 96 55 55 (29040000)
I0403 13:31:35.922997 32380 net.cpp:156] Memory required for data: 177996400
I0403 13:31:35.923029 32380 layer_factory.hpp:77] Creating layer relu1
I0403 13:31:35.923056 32380 net.cpp:91] Creating Layer relu1
I0403 13:31:35.923074 32380 net.cpp:425] relu1 <- conv1
I0403 13:31:35.923094 32380 net.cpp:386] relu1 -> conv1 (in-place)
I0403 13:31:35.923367 32380 net.cpp:141] Setting up relu1
I0403 13:31:35.923394 32380 net.cpp:148] Top shape: 100 96 55 55 (29040000)
I0403 13:31:35.923441 32380 net.cpp:156] Memory required for data: 294156400
I0403 13:31:35.923459 32380 layer_factory.hpp:77] Creating layer norm1
I0403 13:31:35.923485 32380 net.cpp:91] Creating Layer norm1
I0403 13:31:35.923503 32380 net.cpp:425] norm1 <- conv1
I0403 13:31:35.923522 32380 net.cpp:399] norm1 -> norm1
I0403 13:31:35.923830 32380 net.cpp:141] Setting up norm1
I0403 13:31:35.923859 32380 net.cpp:148] Top shape: 100 96 55 55 (29040000)
I0403 13:31:35.923876 32380 net.cpp:156] Memory required for data: 410316400
I0403 13:31:35.923892 32380 layer_factory.hpp:77] Creating layer pool1
I0403 13:31:35.923914 32380 net.cpp:91] Creating Layer pool1
I0403 13:31:35.923931 32380 net.cpp:425] pool1 <- norm1
I0403 13:31:35.923949 32380 net.cpp:399] pool1 -> pool1
I0403 13:31:35.924021 32380 net.cpp:141] Setting up pool1
I0403 13:31:35.924046 32380 net.cpp:148] Top shape: 100 96 27 27 (6998400)
I0403 13:31:35.924062 32380 net.cpp:156] Memory required for data: 438310000
I0403 13:31:35.924077 32380 layer_factory.hpp:77] Creating layer conv2
I0403 13:31:35.924101 32380 net.cpp:91] Creating Layer conv2
I0403 13:31:35.924118 32380 net.cpp:425] conv2 <- pool1
I0403 13:31:35.924136 32380 net.cpp:399] conv2 -> conv2
I0403 13:31:35.939242 32380 net.cpp:141] Setting up conv2
I0403 13:31:35.939286 32380 net.cpp:148] Top shape: 100 256 27 27 (18662400)
I0403 13:31:35.939303 32380 net.cpp:156] Memory required for data: 512959600
I0403 13:31:35.939327 32380 layer_factory.hpp:77] Creating layer relu2
I0403 13:31:35.939349 32380 net.cpp:91] Creating Layer relu2
I0403 13:31:35.939368 32380 net.cpp:425] relu2 <- conv2
I0403 13:31:35.939386 32380 net.cpp:386] relu2 -> conv2 (in-place)
I0403 13:31:35.939676 32380 net.cpp:141] Setting up relu2
I0403 13:31:35.939705 32380 net.cpp:148] Top shape: 100 256 27 27 (18662400)
I0403 13:31:35.939721 32380 net.cpp:156] Memory required for data: 587609200
I0403 13:31:35.939738 32380 layer_factory.hpp:77] Creating layer norm2
I0403 13:31:35.939760 32380 net.cpp:91] Creating Layer norm2
I0403 13:31:35.939779 32380 net.cpp:425] norm2 <- conv2
I0403 13:31:35.939797 32380 net.cpp:399] norm2 -> norm2
I0403 13:31:35.939990 32380 net.cpp:141] Setting up norm2
I0403 13:31:35.940016 32380 net.cpp:148] Top shape: 100 256 27 27 (18662400)
I0403 13:31:35.940032 32380 net.cpp:156] Memory required for data: 662258800
I0403 13:31:35.940047 32380 layer_factory.hpp:77] Creating layer pool2
I0403 13:31:35.940068 32380 net.cpp:91] Creating Layer pool2
I0403 13:31:35.940084 32380 net.cpp:425] pool2 <- norm2
I0403 13:31:35.940102 32380 net.cpp:399] pool2 -> pool2
I0403 13:31:35.940157 32380 net.cpp:141] Setting up pool2
I0403 13:31:35.940181 32380 net.cpp:148] Top shape: 100 256 13 13 (4326400)
I0403 13:31:35.940196 32380 net.cpp:156] Memory required for data: 679564400
I0403 13:31:35.940212 32380 layer_factory.hpp:77] Creating layer conv3
I0403 13:31:35.940235 32380 net.cpp:91] Creating Layer conv3
I0403 13:31:35.940258 32380 net.cpp:425] conv3 <- pool2
I0403 13:31:35.940279 32380 net.cpp:399] conv3 -> conv3
I0403 13:31:35.978850 32380 net.cpp:141] Setting up conv3
I0403 13:31:35.978935 32380 net.cpp:148] Top shape: 100 384 13 13 (6489600)
I0403 13:31:35.978955 32380 net.cpp:156] Memory required for data: 705522800
I0403 13:31:35.978981 32380 layer_factory.hpp:77] Creating layer relu3
I0403 13:31:35.979002 32380 net.cpp:91] Creating Layer relu3
I0403 13:31:35.979019 32380 net.cpp:425] relu3 <- conv3
I0403 13:31:35.979038 32380 net.cpp:386] relu3 -> conv3 (in-place)
I0403 13:31:35.979316 32380 net.cpp:141] Setting up relu3
I0403 13:31:35.979346 32380 net.cpp:148] Top shape: 100 384 13 13 (6489600)
I0403 13:31:35.979362 32380 net.cpp:156] Memory required for data: 731481200
I0403 13:31:35.979377 32380 layer_factory.hpp:77] Creating layer conv4
I0403 13:31:35.979414 32380 net.cpp:91] Creating Layer conv4
I0403 13:31:35.979434 32380 net.cpp:425] conv4 <- conv3
I0403 13:31:35.979454 32380 net.cpp:399] conv4 -> conv4
I0403 13:31:36.009637 32380 net.cpp:141] Setting up conv4
I0403 13:31:36.009716 32380 net.cpp:148] Top shape: 100 384 13 13 (6489600)
I0403 13:31:36.009766 32380 net.cpp:156] Memory required for data: 757439600
I0403 13:31:36.009790 32380 layer_factory.hpp:77] Creating layer relu4
I0403 13:31:36.009816 32380 net.cpp:91] Creating Layer relu4
I0403 13:31:36.009835 32380 net.cpp:425] relu4 <- conv4
I0403 13:31:36.009855 32380 net.cpp:386] relu4 -> conv4 (in-place)
I0403 13:31:36.010155 32380 net.cpp:141] Setting up relu4
I0403 13:31:36.010182 32380 net.cpp:148] Top shape: 100 384 13 13 (6489600)
I0403 13:31:36.010198 32380 net.cpp:156] Memory required for data: 783398000
I0403 13:31:36.010213 32380 layer_factory.hpp:77] Creating layer conv5
I0403 13:31:36.010242 32380 net.cpp:91] Creating Layer conv5
I0403 13:31:36.010262 32380 net.cpp:425] conv5 <- conv4
I0403 13:31:36.010284 32380 net.cpp:399] conv5 -> conv5
I0403 13:31:36.031198 32380 net.cpp:141] Setting up conv5
I0403 13:31:36.031263 32380 net.cpp:148] Top shape: 100 256 13 13 (4326400)
I0403 13:31:36.031281 32380 net.cpp:156] Memory required for data: 800703600
I0403 13:31:36.031306 32380 layer_factory.hpp:77] Creating layer relu5
I0403 13:31:36.031332 32380 net.cpp:91] Creating Layer relu5
I0403 13:31:36.031352 32380 net.cpp:425] relu5 <- conv5
I0403 13:31:36.031370 32380 net.cpp:386] relu5 -> conv5 (in-place)
I0403 13:31:36.031682 32380 net.cpp:141] Setting up relu5
I0403 13:31:36.031709 32380 net.cpp:148] Top shape: 100 256 13 13 (4326400)
I0403 13:31:36.031725 32380 net.cpp:156] Memory required for data: 818009200
I0403 13:31:36.031740 32380 layer_factory.hpp:77] Creating layer pool5
I0403 13:31:36.031765 32380 net.cpp:91] Creating Layer pool5
I0403 13:31:36.031785 32380 net.cpp:425] pool5 <- conv5
I0403 13:31:36.031805 32380 net.cpp:399] pool5 -> pool5
I0403 13:31:36.031867 32380 net.cpp:141] Setting up pool5
I0403 13:31:36.031890 32380 net.cpp:148] Top shape: 100 256 6 6 (921600)
I0403 13:31:36.031905 32380 net.cpp:156] Memory required for data: 821695600
I0403 13:31:36.031921 32380 layer_factory.hpp:77] Creating layer fc6
I0403 13:31:36.031950 32380 net.cpp:91] Creating Layer fc6
I0403 13:31:36.031968 32380 net.cpp:425] fc6 <- pool5
I0403 13:31:36.031990 32380 net.cpp:399] fc6 -> fc6
I0403 13:31:37.601635 32380 net.cpp:141] Setting up fc6
I0403 13:31:37.601696 32380 net.cpp:148] Top shape: 100 4096 (409600)
I0403 13:31:37.601713 32380 net.cpp:156] Memory required for data: 823334000
I0403 13:31:37.601737 32380 layer_factory.hpp:77] Creating layer relu6
I0403 13:31:37.601763 32380 net.cpp:91] Creating Layer relu6
I0403 13:31:37.601783 32380 net.cpp:425] relu6 <- fc6
I0403 13:31:37.601802 32380 net.cpp:386] relu6 -> fc6 (in-place)
I0403 13:31:37.602026 32380 net.cpp:141] Setting up relu6
I0403 13:31:37.602051 32380 net.cpp:148] Top shape: 100 4096 (409600)
I0403 13:31:37.602066 32380 net.cpp:156] Memory required for data: 824972400
I0403 13:31:37.602082 32380 layer_factory.hpp:77] Creating layer drop6
I0403 13:31:37.602102 32380 net.cpp:91] Creating Layer drop6
I0403 13:31:37.602118 32380 net.cpp:425] drop6 <- fc6
I0403 13:31:37.602135 32380 net.cpp:386] drop6 -> fc6 (in-place)
I0403 13:31:37.602190 32380 net.cpp:141] Setting up drop6
I0403 13:31:37.602213 32380 net.cpp:148] Top shape: 100 4096 (409600)
I0403 13:31:37.602227 32380 net.cpp:156] Memory required for data: 826610800
I0403 13:31:37.602268 32380 layer_factory.hpp:77] Creating layer fc7
I0403 13:31:37.602295 32380 net.cpp:91] Creating Layer fc7
I0403 13:31:37.602322 32380 net.cpp:425] fc7 <- fc6
I0403 13:31:37.602341 32380 net.cpp:399] fc7 -> fc7
I0403 13:31:38.287463 32380 net.cpp:141] Setting up fc7
I0403 13:31:38.287508 32380 net.cpp:148] Top shape: 100 4096 (409600)
I0403 13:31:38.287526 32380 net.cpp:156] Memory required for data: 828249200
I0403 13:31:38.287549 32380 layer_factory.hpp:77] Creating layer relu7
I0403 13:31:38.287571 32380 net.cpp:91] Creating Layer relu7
I0403 13:31:38.287588 32380 net.cpp:425] relu7 <- fc7
I0403 13:31:38.287608 32380 net.cpp:386] relu7 -> fc7 (in-place)
I0403 13:31:38.288028 32380 net.cpp:141] Setting up relu7
I0403 13:31:38.288053 32380 net.cpp:148] Top shape: 100 4096 (409600)
I0403 13:31:38.288102 32380 net.cpp:156] Memory required for data: 829887600
I0403 13:31:38.288118 32380 layer_factory.hpp:77] Creating layer drop7
I0403 13:31:38.288137 32380 net.cpp:91] Creating Layer drop7
I0403 13:31:38.288152 32380 net.cpp:425] drop7 <- fc7
I0403 13:31:38.288169 32380 net.cpp:386] drop7 -> fc7 (in-place)
I0403 13:31:38.288213 32380 net.cpp:141] Setting up drop7
I0403 13:31:38.288235 32380 net.cpp:148] Top shape: 100 4096 (409600)
I0403 13:31:38.288255 32380 net.cpp:156] Memory required for data: 831526000
I0403 13:31:38.288270 32380 layer_factory.hpp:77] Creating layer fc8_plantvillage
I0403 13:31:38.288291 32380 net.cpp:91] Creating Layer fc8_plantvillage
I0403 13:31:38.288307 32380 net.cpp:425] fc8_plantvillage <- fc7
I0403 13:31:38.288326 32380 net.cpp:399] fc8_plantvillage -> fc8_plantvillage
I0403 13:31:38.295045 32380 net.cpp:141] Setting up fc8_plantvillage
I0403 13:31:38.295074 32380 net.cpp:148] Top shape: 100 38 (3800)
I0403 13:31:38.295091 32380 net.cpp:156] Memory required for data: 831541200
I0403 13:31:38.295109 32380 layer_factory.hpp:77] Creating layer fc8_plantvillage_fc8_plantvillage_0_split
I0403 13:31:38.295130 32380 net.cpp:91] Creating Layer fc8_plantvillage_fc8_plantvillage_0_split
I0403 13:31:38.295146 32380 net.cpp:425] fc8_plantvillage_fc8_plantvillage_0_split <- fc8_plantvillage
I0403 13:31:38.295163 32380 net.cpp:399] fc8_plantvillage_fc8_plantvillage_0_split -> fc8_plantvillage_fc8_plantvillage_0_split_0
I0403 13:31:38.295186 32380 net.cpp:399] fc8_plantvillage_fc8_plantvillage_0_split -> fc8_plantvillage_fc8_plantvillage_0_split_1
I0403 13:31:38.295205 32380 net.cpp:399] fc8_plantvillage_fc8_plantvillage_0_split -> fc8_plantvillage_fc8_plantvillage_0_split_2
I0403 13:31:38.295284 32380 net.cpp:141] Setting up fc8_plantvillage_fc8_plantvillage_0_split
I0403 13:31:38.295308 32380 net.cpp:148] Top shape: 100 38 (3800)
I0403 13:31:38.295325 32380 net.cpp:148] Top shape: 100 38 (3800)
I0403 13:31:38.295339 32380 net.cpp:148] Top shape: 100 38 (3800)
I0403 13:31:38.295352 32380 net.cpp:156] Memory required for data: 831586800
I0403 13:31:38.295366 32380 layer_factory.hpp:77] Creating layer prob
I0403 13:31:38.295387 32380 net.cpp:91] Creating Layer prob
I0403 13:31:38.295403 32380 net.cpp:425] prob <- fc8_plantvillage_fc8_plantvillage_0_split_0
I0403 13:31:38.295420 32380 net.cpp:399] prob -> prob
I0403 13:31:38.295637 32380 net.cpp:141] Setting up prob
I0403 13:31:38.295662 32380 net.cpp:148] Top shape: 100 38 (3800)
I0403 13:31:38.295676 32380 net.cpp:156] Memory required for data: 831602000
I0403 13:31:38.295691 32380 layer_factory.hpp:77] Creating layer hdf5out
I0403 13:31:38.295711 32380 net.cpp:91] Creating Layer hdf5out
I0403 13:31:38.295727 32380 net.cpp:425] hdf5out <- prob
I0403 13:31:38.295743 32380 net.cpp:425] hdf5out <- label_data_1_split_0
I0403 13:31:38.297868 32380 net.cpp:141] Setting up hdf5out
…
