…
I0403 13:44:24.766054   300 net.cpp:313] The NetState phase (1) differed from the phase (0) specified by a rule in layer data
I0403 13:44:24.766374   300 net.cpp:49] Initializing net from parameters: 
state {
  phase: TEST
}
layer {
  name: "data"
  type: "Data"
  top: "data"
  top: "label"
  include {
    phase: TEST
  }
  transform_param {
    crop_size: 227
    mean_file: "/home/mohanty/data/final_dataset/lmdb/segmented-20-80/mean.binaryproto"
  }
  data_param {
    source: "/home/mohanty/data/final_dataset/lmdb/segmented-20-80/test_db"
    batch_size: 100
    backend: LMDB
  }
}
layer {
  name: "conv1"
  type: "Convolution"
  bottom: "data"
  top: "conv1"
  param {
    lr_mult: 1
    decay_mult: 1
  }
  param {
    lr_mult: 2
    decay_mult: 0
  }
  convolution_param {
    num_output: 96
    kernel_size: 11
    stride: 4
    weight_filler {
      type: "gaussian"
      std: 0.01
    }
    bias_filler {
      type: "constant"
      value: 0
    }
  }
}
layer {
  name: "relu1"
  type: "ReLU"
  bottom: "conv1"
  top: "conv1"
}
layer {
  name: "norm1"
  type: "LRN"
  bottom: "conv1"
  top: "norm1"
  lrn_param {
    local_size: 5
    alpha: 0.0001
    beta: 0.75
  }
}
layer {
  name: "pool1"
  type: "Pooling"
  bottom: "norm1"
  top: "pool1"
  pooling_param {
    pool: MAX
    kernel_size: 3
    stride: 2
  }
}
layer {
  name: "conv2"
  type: "Convolution"
  bottom: "pool1"
  top: "conv2"
  param {
    lr_mult: 1
    decay_mult: 1
  }
  param {
    lr_mult: 2
    decay_mult: 0
  }
  convolution_param {
    num_output: 256
    pad: 2
    kernel_size: 5
    group: 2
    weight_filler {
      type: "gaussian"
      std: 0.01
    }
    bias_filler {
      type: "constant"
      value: 0.1
    }
  }
}
layer {
  name: "relu2"
  type: "ReLU"
  bottom: "conv2"
  top: "conv2"
}
layer {
  name: "norm2"
  type: "LRN"
  bottom: "conv2"
  top: "norm2"
  lrn_param {
    local_size: 5
    alpha: 0.0001
    beta: 0.75
  }
}
layer {
  name: "pool2"
  type: "Pooling"
  bottom: "norm2"
  top: "pool2"
  pooling_param {
    pool: MAX
    kernel_size: 3
    stride: 2
  }
}
layer {
  name: "conv3"
  type: "Convolution"
  bottom: "pool2"
  top: "conv3"
  param {
    lr_mult: 1
    decay_mult: 1
  }
  param {
    lr_mult: 2
    decay_mult: 0
  }
  convolution_param {
    num_output: 384
    pad: 1
    kernel_size: 3
    weight_filler {
      type: "gaussian"
      std: 0.01
    }
    bias_filler {
      type: "constant"
      value: 0
    }
  }
}
layer {
  name: "relu3"
  type: "ReLU"
  bottom: "conv3"
  top: "conv3"
}
layer {
  name: "conv4"
  type: "Convolution"
  bottom: "conv3"
  top: "conv4"
  param {
    lr_mult: 1
    decay_mult: 1
  }
  param {
    lr_mult: 2
    decay_mult: 0
  }
  convolution_param {
    num_output: 384
    pad: 1
    kernel_size: 3
    group: 2
    weight_filler {
      type: "gaussian"
      std: 0.01
    }
    bias_filler {
      type: "constant"
      value: 0.1
    }
  }
}
layer {
  name: "relu4"
  type: "ReLU"
  bottom: "conv4"
  top: "conv4"
}
layer {
  name: "conv5"
  type: "Convolution"
  bottom: "conv4"
  top: "conv5"
  param {
    lr_mult: 1
    decay_mult: 1
  }
  param {
    lr_mult: 2
    decay_mult: 0
  }
  convolution_param {
    num_output: 256
    pad: 1
    kernel_size: 3
    group: 2
    weight_filler {
      type: "gaussian"
      std: 0.01
    }
    bias_filler {
      type: "constant"
      value: 0.1
    }
  }
}
layer {
  name: "relu5"
  type: "ReLU"
  bottom: "conv5"
  top: "conv5"
}
layer {
  name: "pool5"
  type: "Pooling"
  bottom: "conv5"
  top: "pool5"
  pooling_param {
    pool: MAX
    kernel_size: 3
    stride: 2
  }
}
layer {
  name: "fc6"
  type: "InnerProduct"
  bottom: "pool5"
  top: "fc6"
  param {
    lr_mult: 1
    decay_mult: 1
  }
  param {
    lr_mult: 2
    decay_mult: 0
  }
  inner_product_param {
    num_output: 4096
    weight_filler {
      type: "gaussian"
      std: 0.005
    }
    bias_filler {
      type: "constant"
      value: 0.1
    }
  }
}
layer {
  name: "relu6"
  type: "ReLU"
  bottom: "fc6"
  top: "fc6"
}
layer {
  name: "drop6"
  type: "Dropout"
  bottom: "fc6"
  top: "fc6"
  dropout_param {
    dropout_ratio: 0.5
  }
}
layer {
  name: "fc7"
  type: "InnerProduct"
  bottom: "fc6"
  top: "fc7"
  param {
    lr_mult: 1
    decay_mult: 1
  }
  param {
    lr_mult: 2
    decay_mult: 0
  }
  inner_product_param {
    num_output: 4096
    weight_filler {
      type: "gaussian"
      std: 0.005
    }
    bias_filler {
      type: "constant"
      value: 0.1
    }
  }
}
layer {
  name: "relu7"
  type: "ReLU"
  bottom: "fc7"
  top: "fc7"
}
layer {
  name: "drop7"
  type: "Dropout"
  bottom: "fc7"
  top: "fc7"
  dropout_param {
    dropout_ratio: 0.5
  }
}
layer {
  name: "fc8_plantvillage"
  type: "InnerProduct"
  bottom: "fc7"
  top: "fc8_plantvillage"
  param {
    lr_mult: 1
    decay_mult: 1
  }
  param {
    lr_mult: 2
    decay_mult: 0
  }
  inner_product_param {
    num_output: 38
    weight_filler {
      type: "gaussian"
      std: 0.01
    }
    bias_filler {
      type: "constant"
      value: 0
    }
  }
}
layer {
  name: "prob"
  type: "Softmax"
  bottom: "fc8_plantvillage"
  top: "prob"
  include {
    phase: TEST
  }
}
layer {
  name: "hdf5out"
  type: "HDF5Output"
  bottom: "prob"
  bottom: "label"
  include {
    phase: TEST
  }
  hdf5_output_param {
    file_name: "hdf5_dumps/iter_1484.h5"
  }
}
layer {
  name: "loss"
  type: "SoftmaxWithLoss"
  bottom: "fc8_plantvillage"
  bottom: "label"
  top: "loss"
}
layer {
  name: "accuracy"
  type: "Accuracy"
  bottom: "fc8_plantvillage"
  bottom: "label"
  top: "accuracy"
  include {
    phase: TEST
  }
}
I0403 13:44:24.766968   300 layer_factory.hpp:77] Creating layer data
I0403 13:44:24.767643   300 net.cpp:91] Creating Layer data
I0403 13:44:24.767675   300 net.cpp:399] data -> data
I0403 13:44:24.767730   300 net.cpp:399] data -> label
I0403 13:44:24.767768   300 data_transformer.cpp:25] Loading mean file from: /home/mohanty/data/final_dataset/lmdb/segmented-20-80/mean.binaryproto
I0403 13:44:24.770540   303 db_lmdb.cpp:38] Opened lmdb /home/mohanty/data/final_dataset/lmdb/segmented-20-80/test_db
I0403 13:44:24.782129   300 data_layer.cpp:41] output data size: 100,3,227,227
I0403 13:44:24.905673   300 net.cpp:141] Setting up data
I0403 13:44:24.905733   300 net.cpp:148] Top shape: 100 3 227 227 (15458700)
I0403 13:44:24.905756   300 net.cpp:148] Top shape: 100 (100)
I0403 13:44:24.905772   300 net.cpp:156] Memory required for data: 61835200
I0403 13:44:24.905800   300 layer_factory.hpp:77] Creating layer label_data_1_split
I0403 13:44:24.905829   300 net.cpp:91] Creating Layer label_data_1_split
I0403 13:44:24.905848   300 net.cpp:425] label_data_1_split <- label
I0403 13:44:24.905879   300 net.cpp:399] label_data_1_split -> label_data_1_split_0
I0403 13:44:24.905906   300 net.cpp:399] label_data_1_split -> label_data_1_split_1
I0403 13:44:24.905927   300 net.cpp:399] label_data_1_split -> label_data_1_split_2
I0403 13:44:24.905992   300 net.cpp:141] Setting up label_data_1_split
I0403 13:44:24.906018   300 net.cpp:148] Top shape: 100 (100)
I0403 13:44:24.906035   300 net.cpp:148] Top shape: 100 (100)
I0403 13:44:24.906052   300 net.cpp:148] Top shape: 100 (100)
I0403 13:44:24.906067   300 net.cpp:156] Memory required for data: 61836400
I0403 13:44:24.906082   300 layer_factory.hpp:77] Creating layer conv1
I0403 13:44:24.906116   300 net.cpp:91] Creating Layer conv1
I0403 13:44:24.906134   300 net.cpp:425] conv1 <- data
I0403 13:44:24.906155   300 net.cpp:399] conv1 -> conv1
I0403 13:44:25.051209   300 net.cpp:141] Setting up conv1
I0403 13:44:25.051316   300 net.cpp:148] Top shape: 100 96 55 55 (29040000)
I0403 13:44:25.051336   300 net.cpp:156] Memory required for data: 177996400
I0403 13:44:25.051368   300 layer_factory.hpp:77] Creating layer relu1
I0403 13:44:25.051396   300 net.cpp:91] Creating Layer relu1
I0403 13:44:25.051415   300 net.cpp:425] relu1 <- conv1
I0403 13:44:25.051435   300 net.cpp:386] relu1 -> conv1 (in-place)
I0403 13:44:25.051712   300 net.cpp:141] Setting up relu1
I0403 13:44:25.051739   300 net.cpp:148] Top shape: 100 96 55 55 (29040000)
I0403 13:44:25.051785   300 net.cpp:156] Memory required for data: 294156400
I0403 13:44:25.051801   300 layer_factory.hpp:77] Creating layer norm1
I0403 13:44:25.051828   300 net.cpp:91] Creating Layer norm1
I0403 13:44:25.051847   300 net.cpp:425] norm1 <- conv1
I0403 13:44:25.051867   300 net.cpp:399] norm1 -> norm1
I0403 13:44:25.052243   300 net.cpp:141] Setting up norm1
I0403 13:44:25.052275   300 net.cpp:148] Top shape: 100 96 55 55 (29040000)
I0403 13:44:25.052292   300 net.cpp:156] Memory required for data: 410316400
I0403 13:44:25.052309   300 layer_factory.hpp:77] Creating layer pool1
I0403 13:44:25.052332   300 net.cpp:91] Creating Layer pool1
I0403 13:44:25.052350   300 net.cpp:425] pool1 <- norm1
I0403 13:44:25.052367   300 net.cpp:399] pool1 -> pool1
I0403 13:44:25.052433   300 net.cpp:141] Setting up pool1
I0403 13:44:25.052458   300 net.cpp:148] Top shape: 100 96 27 27 (6998400)
I0403 13:44:25.052474   300 net.cpp:156] Memory required for data: 438310000
I0403 13:44:25.052489   300 layer_factory.hpp:77] Creating layer conv2
I0403 13:44:25.052513   300 net.cpp:91] Creating Layer conv2
I0403 13:44:25.052531   300 net.cpp:425] conv2 <- pool1
I0403 13:44:25.052547   300 net.cpp:399] conv2 -> conv2
I0403 13:44:25.067270   300 net.cpp:141] Setting up conv2
I0403 13:44:25.067308   300 net.cpp:148] Top shape: 100 256 27 27 (18662400)
I0403 13:44:25.067325   300 net.cpp:156] Memory required for data: 512959600
I0403 13:44:25.067348   300 layer_factory.hpp:77] Creating layer relu2
I0403 13:44:25.067368   300 net.cpp:91] Creating Layer relu2
I0403 13:44:25.067384   300 net.cpp:425] relu2 <- conv2
I0403 13:44:25.067400   300 net.cpp:386] relu2 -> conv2 (in-place)
I0403 13:44:25.067674   300 net.cpp:141] Setting up relu2
I0403 13:44:25.067700   300 net.cpp:148] Top shape: 100 256 27 27 (18662400)
I0403 13:44:25.067715   300 net.cpp:156] Memory required for data: 587609200
I0403 13:44:25.067730   300 layer_factory.hpp:77] Creating layer norm2
I0403 13:44:25.067750   300 net.cpp:91] Creating Layer norm2
I0403 13:44:25.067766   300 net.cpp:425] norm2 <- conv2
I0403 13:44:25.067783   300 net.cpp:399] norm2 -> norm2
I0403 13:44:25.067962   300 net.cpp:141] Setting up norm2
I0403 13:44:25.067987   300 net.cpp:148] Top shape: 100 256 27 27 (18662400)
I0403 13:44:25.068001   300 net.cpp:156] Memory required for data: 662258800
I0403 13:44:25.068017   300 layer_factory.hpp:77] Creating layer pool2
I0403 13:44:25.068034   300 net.cpp:91] Creating Layer pool2
I0403 13:44:25.068049   300 net.cpp:425] pool2 <- norm2
I0403 13:44:25.068066   300 net.cpp:399] pool2 -> pool2
I0403 13:44:25.068114   300 net.cpp:141] Setting up pool2
I0403 13:44:25.068135   300 net.cpp:148] Top shape: 100 256 13 13 (4326400)
I0403 13:44:25.068150   300 net.cpp:156] Memory required for data: 679564400
I0403 13:44:25.068166   300 layer_factory.hpp:77] Creating layer conv3
I0403 13:44:25.068186   300 net.cpp:91] Creating Layer conv3
I0403 13:44:25.068202   300 net.cpp:425] conv3 <- pool2
I0403 13:44:25.068219   300 net.cpp:399] conv3 -> conv3
I0403 13:44:25.106849   300 net.cpp:141] Setting up conv3
I0403 13:44:25.106925   300 net.cpp:148] Top shape: 100 384 13 13 (6489600)
I0403 13:44:25.106940   300 net.cpp:156] Memory required for data: 705522800
I0403 13:44:25.106966   300 layer_factory.hpp:77] Creating layer relu3
I0403 13:44:25.106988   300 net.cpp:91] Creating Layer relu3
I0403 13:44:25.107005   300 net.cpp:425] relu3 <- conv3
I0403 13:44:25.107024   300 net.cpp:386] relu3 -> conv3 (in-place)
I0403 13:44:25.107300   300 net.cpp:141] Setting up relu3
I0403 13:44:25.107326   300 net.cpp:148] Top shape: 100 384 13 13 (6489600)
I0403 13:44:25.107342   300 net.cpp:156] Memory required for data: 731481200
I0403 13:44:25.107358   300 layer_factory.hpp:77] Creating layer conv4
I0403 13:44:25.107383   300 net.cpp:91] Creating Layer conv4
I0403 13:44:25.107399   300 net.cpp:425] conv4 <- conv3
I0403 13:44:25.107419   300 net.cpp:399] conv4 -> conv4
I0403 13:44:25.137665   300 net.cpp:141] Setting up conv4
I0403 13:44:25.137733   300 net.cpp:148] Top shape: 100 384 13 13 (6489600)
I0403 13:44:25.137780   300 net.cpp:156] Memory required for data: 757439600
I0403 13:44:25.137801   300 layer_factory.hpp:77] Creating layer relu4
I0403 13:44:25.137826   300 net.cpp:91] Creating Layer relu4
I0403 13:44:25.137845   300 net.cpp:425] relu4 <- conv4
I0403 13:44:25.137863   300 net.cpp:386] relu4 -> conv4 (in-place)
I0403 13:44:25.138137   300 net.cpp:141] Setting up relu4
I0403 13:44:25.138164   300 net.cpp:148] Top shape: 100 384 13 13 (6489600)
I0403 13:44:25.138180   300 net.cpp:156] Memory required for data: 783398000
I0403 13:44:25.138195   300 layer_factory.hpp:77] Creating layer conv5
I0403 13:44:25.138219   300 net.cpp:91] Creating Layer conv5
I0403 13:44:25.138237   300 net.cpp:425] conv5 <- conv4
I0403 13:44:25.138258   300 net.cpp:399] conv5 -> conv5
I0403 13:44:25.158715   300 net.cpp:141] Setting up conv5
I0403 13:44:25.158748   300 net.cpp:148] Top shape: 100 256 13 13 (4326400)
I0403 13:44:25.158766   300 net.cpp:156] Memory required for data: 800703600
I0403 13:44:25.158792   300 layer_factory.hpp:77] Creating layer relu5
I0403 13:44:25.158812   300 net.cpp:91] Creating Layer relu5
I0403 13:44:25.158828   300 net.cpp:425] relu5 <- conv5
I0403 13:44:25.158844   300 net.cpp:386] relu5 -> conv5 (in-place)
I0403 13:44:25.159152   300 net.cpp:141] Setting up relu5
I0403 13:44:25.159181   300 net.cpp:148] Top shape: 100 256 13 13 (4326400)
I0403 13:44:25.159198   300 net.cpp:156] Memory required for data: 818009200
I0403 13:44:25.159212   300 layer_factory.hpp:77] Creating layer pool5
I0403 13:44:25.159235   300 net.cpp:91] Creating Layer pool5
I0403 13:44:25.159250   300 net.cpp:425] pool5 <- conv5
I0403 13:44:25.159276   300 net.cpp:399] pool5 -> pool5
I0403 13:44:25.159338   300 net.cpp:141] Setting up pool5
I0403 13:44:25.159361   300 net.cpp:148] Top shape: 100 256 6 6 (921600)
I0403 13:44:25.159375   300 net.cpp:156] Memory required for data: 821695600
I0403 13:44:25.159390   300 layer_factory.hpp:77] Creating layer fc6
I0403 13:44:25.159420   300 net.cpp:91] Creating Layer fc6
I0403 13:44:25.159440   300 net.cpp:425] fc6 <- pool5
I0403 13:44:25.159461   300 net.cpp:399] fc6 -> fc6
I0403 13:44:26.704288   300 net.cpp:141] Setting up fc6
I0403 13:44:26.704342   300 net.cpp:148] Top shape: 100 4096 (409600)
I0403 13:44:26.704360   300 net.cpp:156] Memory required for data: 823334000
I0403 13:44:26.704382   300 layer_factory.hpp:77] Creating layer relu6
I0403 13:44:26.704404   300 net.cpp:91] Creating Layer relu6
I0403 13:44:26.704421   300 net.cpp:425] relu6 <- fc6
I0403 13:44:26.704443   300 net.cpp:386] relu6 -> fc6 (in-place)
I0403 13:44:26.704661   300 net.cpp:141] Setting up relu6
I0403 13:44:26.704687   300 net.cpp:148] Top shape: 100 4096 (409600)
I0403 13:44:26.704705   300 net.cpp:156] Memory required for data: 824972400
I0403 13:44:26.704721   300 layer_factory.hpp:77] Creating layer drop6
I0403 13:44:26.704741   300 net.cpp:91] Creating Layer drop6
I0403 13:44:26.704756   300 net.cpp:425] drop6 <- fc6
I0403 13:44:26.704773   300 net.cpp:386] drop6 -> fc6 (in-place)
I0403 13:44:26.704828   300 net.cpp:141] Setting up drop6
I0403 13:44:26.704852   300 net.cpp:148] Top shape: 100 4096 (409600)
I0403 13:44:26.704869   300 net.cpp:156] Memory required for data: 826610800
I0403 13:44:26.704885   300 layer_factory.hpp:77] Creating layer fc7
I0403 13:44:26.704906   300 net.cpp:91] Creating Layer fc7
I0403 13:44:26.704923   300 net.cpp:425] fc7 <- fc6
I0403 13:44:26.704941   300 net.cpp:399] fc7 -> fc7
I0403 13:44:27.395958   300 net.cpp:141] Setting up fc7
I0403 13:44:27.396000   300 net.cpp:148] Top shape: 100 4096 (409600)
I0403 13:44:27.396018   300 net.cpp:156] Memory required for data: 828249200
I0403 13:44:27.396041   300 layer_factory.hpp:77] Creating layer relu7
I0403 13:44:27.396066   300 net.cpp:91] Creating Layer relu7
I0403 13:44:27.396085   300 net.cpp:425] relu7 <- fc7
I0403 13:44:27.396105   300 net.cpp:386] relu7 -> fc7 (in-place)
I0403 13:44:27.396518   300 net.cpp:141] Setting up relu7
I0403 13:44:27.396544   300 net.cpp:148] Top shape: 100 4096 (409600)
I0403 13:44:27.396579   300 net.cpp:156] Memory required for data: 829887600
I0403 13:44:27.396595   300 layer_factory.hpp:77] Creating layer drop7
I0403 13:44:27.396617   300 net.cpp:91] Creating Layer drop7
I0403 13:44:27.396633   300 net.cpp:425] drop7 <- fc7
I0403 13:44:27.396651   300 net.cpp:386] drop7 -> fc7 (in-place)
I0403 13:44:27.396697   300 net.cpp:141] Setting up drop7
I0403 13:44:27.396719   300 net.cpp:148] Top shape: 100 4096 (409600)
I0403 13:44:27.396734   300 net.cpp:156] Memory required for data: 831526000
I0403 13:44:27.396749   300 layer_factory.hpp:77] Creating layer fc8_plantvillage
I0403 13:44:27.396770   300 net.cpp:91] Creating Layer fc8_plantvillage
I0403 13:44:27.396785   300 net.cpp:425] fc8_plantvillage <- fc7
I0403 13:44:27.396805   300 net.cpp:399] fc8_plantvillage -> fc8_plantvillage
I0403 13:44:27.403641   300 net.cpp:141] Setting up fc8_plantvillage
I0403 13:44:27.403673   300 net.cpp:148] Top shape: 100 38 (3800)
I0403 13:44:27.403690   300 net.cpp:156] Memory required for data: 831541200
I0403 13:44:27.403710   300 layer_factory.hpp:77] Creating layer fc8_plantvillage_fc8_plantvillage_0_split
I0403 13:44:27.403730   300 net.cpp:91] Creating Layer fc8_plantvillage_fc8_plantvillage_0_split
I0403 13:44:27.403746   300 net.cpp:425] fc8_plantvillage_fc8_plantvillage_0_split <- fc8_plantvillage
I0403 13:44:27.403765   300 net.cpp:399] fc8_plantvillage_fc8_plantvillage_0_split -> fc8_plantvillage_fc8_plantvillage_0_split_0
I0403 13:44:27.403785   300 net.cpp:399] fc8_plantvillage_fc8_plantvillage_0_split -> fc8_plantvillage_fc8_plantvillage_0_split_1
I0403 13:44:27.403808   300 net.cpp:399] fc8_plantvillage_fc8_plantvillage_0_split -> fc8_plantvillage_fc8_plantvillage_0_split_2
I0403 13:44:27.403890   300 net.cpp:141] Setting up fc8_plantvillage_fc8_plantvillage_0_split
I0403 13:44:27.403915   300 net.cpp:148] Top shape: 100 38 (3800)
I0403 13:44:27.403933   300 net.cpp:148] Top shape: 100 38 (3800)
I0403 13:44:27.403949   300 net.cpp:148] Top shape: 100 38 (3800)
I0403 13:44:27.403964   300 net.cpp:156] Memory required for data: 831586800
I0403 13:44:27.403978   300 layer_factory.hpp:77] Creating layer prob
I0403 13:44:27.403997   300 net.cpp:91] Creating Layer prob
I0403 13:44:27.404013   300 net.cpp:425] prob <- fc8_plantvillage_fc8_plantvillage_0_split_0
I0403 13:44:27.404031   300 net.cpp:399] prob -> prob
I0403 13:44:27.404258   300 net.cpp:141] Setting up prob
I0403 13:44:27.404289   300 net.cpp:148] Top shape: 100 38 (3800)
I0403 13:44:27.404304   300 net.cpp:156] Memory required for data: 831602000
I0403 13:44:27.404319   300 layer_factory.hpp:77] Creating layer hdf5out
I0403 13:44:27.404340   300 net.cpp:91] Creating Layer hdf5out
I0403 13:44:27.404358   300 net.cpp:425] hdf5out <- prob
I0403 13:44:27.404374   300 net.cpp:425] hdf5out <- label_data_1_split_0
I0403 13:44:27.406723   300 net.cpp:141] Setting up hdf5out
…
