…
I0403 13:59:46.472549   611 net.cpp:313] The NetState phase (1) differed from the phase (0) specified by a rule in layer data
I0403 13:59:46.472842   611 net.cpp:49] Initializing net from parameters: 
state {
  phase: TEST
}
layer {
  name: "data"
  type: "Data"
  top: "data"
  top: "label"
  include {
    phase: TEST
  }
  transform_param {
    crop_size: 227
    mean_file: "/home/mohanty/data/final_dataset/lmdb/segmented-20-80/mean.binaryproto"
  }
  data_param {
    source: "/home/mohanty/data/final_dataset/lmdb/segmented-20-80/test_db"
    batch_size: 100
    backend: LMDB
  }
}
layer {
  name: "conv1"
  type: "Convolution"
  bottom: "data"
  top: "conv1"
  param {
    lr_mult: 1
    decay_mult: 1
  }
  param {
    lr_mult: 2
    decay_mult: 0
  }
  convolution_param {
    num_output: 96
    kernel_size: 11
    stride: 4
    weight_filler {
      type: "gaussian"
      std: 0.01
    }
    bias_filler {
      type: "constant"
      value: 0
    }
  }
}
layer {
  name: "relu1"
  type: "ReLU"
  bottom: "conv1"
  top: "conv1"
}
layer {
  name: "norm1"
  type: "LRN"
  bottom: "conv1"
  top: "norm1"
  lrn_param {
    local_size: 5
    alpha: 0.0001
    beta: 0.75
  }
}
layer {
  name: "pool1"
  type: "Pooling"
  bottom: "norm1"
  top: "pool1"
  pooling_param {
    pool: MAX
    kernel_size: 3
    stride: 2
  }
}
layer {
  name: "conv2"
  type: "Convolution"
  bottom: "pool1"
  top: "conv2"
  param {
    lr_mult: 1
    decay_mult: 1
  }
  param {
    lr_mult: 2
    decay_mult: 0
  }
  convolution_param {
    num_output: 256
    pad: 2
    kernel_size: 5
    group: 2
    weight_filler {
      type: "gaussian"
      std: 0.01
    }
    bias_filler {
      type: "constant"
      value: 0.1
    }
  }
}
layer {
  name: "relu2"
  type: "ReLU"
  bottom: "conv2"
  top: "conv2"
}
layer {
  name: "norm2"
  type: "LRN"
  bottom: "conv2"
  top: "norm2"
  lrn_param {
    local_size: 5
    alpha: 0.0001
    beta: 0.75
  }
}
layer {
  name: "pool2"
  type: "Pooling"
  bottom: "norm2"
  top: "pool2"
  pooling_param {
    pool: MAX
    kernel_size: 3
    stride: 2
  }
}
layer {
  name: "conv3"
  type: "Convolution"
  bottom: "pool2"
  top: "conv3"
  param {
    lr_mult: 1
    decay_mult: 1
  }
  param {
    lr_mult: 2
    decay_mult: 0
  }
  convolution_param {
    num_output: 384
    pad: 1
    kernel_size: 3
    weight_filler {
      type: "gaussian"
      std: 0.01
    }
    bias_filler {
      type: "constant"
      value: 0
    }
  }
}
layer {
  name: "relu3"
  type: "ReLU"
  bottom: "conv3"
  top: "conv3"
}
layer {
  name: "conv4"
  type: "Convolution"
  bottom: "conv3"
  top: "conv4"
  param {
    lr_mult: 1
    decay_mult: 1
  }
  param {
    lr_mult: 2
    decay_mult: 0
  }
  convolution_param {
    num_output: 384
    pad: 1
    kernel_size: 3
    group: 2
    weight_filler {
      type: "gaussian"
      std: 0.01
    }
    bias_filler {
      type: "constant"
      value: 0.1
    }
  }
}
layer {
  name: "relu4"
  type: "ReLU"
  bottom: "conv4"
  top: "conv4"
}
layer {
  name: "conv5"
  type: "Convolution"
  bottom: "conv4"
  top: "conv5"
  param {
    lr_mult: 1
    decay_mult: 1
  }
  param {
    lr_mult: 2
    decay_mult: 0
  }
  convolution_param {
    num_output: 256
    pad: 1
    kernel_size: 3
    group: 2
    weight_filler {
      type: "gaussian"
      std: 0.01
    }
    bias_filler {
      type: "constant"
      value: 0.1
    }
  }
}
layer {
  name: "relu5"
  type: "ReLU"
  bottom: "conv5"
  top: "conv5"
}
layer {
  name: "pool5"
  type: "Pooling"
  bottom: "conv5"
  top: "pool5"
  pooling_param {
    pool: MAX
    kernel_size: 3
    stride: 2
  }
}
layer {
  name: "fc6"
  type: "InnerProduct"
  bottom: "pool5"
  top: "fc6"
  param {
    lr_mult: 1
    decay_mult: 1
  }
  param {
    lr_mult: 2
    decay_mult: 0
  }
  inner_product_param {
    num_output: 4096
    weight_filler {
      type: "gaussian"
      std: 0.005
    }
    bias_filler {
      type: "constant"
      value: 0.1
    }
  }
}
layer {
  name: "relu6"
  type: "ReLU"
  bottom: "fc6"
  top: "fc6"
}
layer {
  name: "drop6"
  type: "Dropout"
  bottom: "fc6"
  top: "fc6"
  dropout_param {
    dropout_ratio: 0.5
  }
}
layer {
  name: "fc7"
  type: "InnerProduct"
  bottom: "fc6"
  top: "fc7"
  param {
    lr_mult: 1
    decay_mult: 1
  }
  param {
    lr_mult: 2
    decay_mult: 0
  }
  inner_product_param {
    num_output: 4096
    weight_filler {
      type: "gaussian"
      std: 0.005
    }
    bias_filler {
      type: "constant"
      value: 0.1
    }
  }
}
layer {
  name: "relu7"
  type: "ReLU"
  bottom: "fc7"
  top: "fc7"
}
layer {
  name: "drop7"
  type: "Dropout"
  bottom: "fc7"
  top: "fc7"
  dropout_param {
    dropout_ratio: 0.5
  }
}
layer {
  name: "fc8_plantvillage"
  type: "InnerProduct"
  bottom: "fc7"
  top: "fc8_plantvillage"
  param {
    lr_mult: 1
    decay_mult: 1
  }
  param {
    lr_mult: 2
    decay_mult: 0
  }
  inner_product_param {
    num_output: 38
    weight_filler {
      type: "gaussian"
      std: 0.01
    }
    bias_filler {
      type: "constant"
      value: 0
    }
  }
}
layer {
  name: "prob"
  type: "Softmax"
  bottom: "fc8_plantvillage"
  top: "prob"
  include {
    phase: TEST
  }
}
layer {
  name: "hdf5out"
  type: "HDF5Output"
  bottom: "prob"
  bottom: "label"
  include {
    phase: TEST
  }
  hdf5_output_param {
    file_name: "hdf5_dumps/iter_2756.h5"
  }
}
layer {
  name: "loss"
  type: "SoftmaxWithLoss"
  bottom: "fc8_plantvillage"
  bottom: "label"
  top: "loss"
}
layer {
  name: "accuracy"
  type: "Accuracy"
  bottom: "fc8_plantvillage"
  bottom: "label"
  top: "accuracy"
  include {
    phase: TEST
  }
}
I0403 13:59:46.473404   611 layer_factory.hpp:77] Creating layer data
I0403 13:59:46.474064   611 net.cpp:91] Creating Layer data
I0403 13:59:46.474099   611 net.cpp:399] data -> data
I0403 13:59:46.474150   611 net.cpp:399] data -> label
I0403 13:59:46.474187   611 data_transformer.cpp:25] Loading mean file from: /home/mohanty/data/final_dataset/lmdb/segmented-20-80/mean.binaryproto
I0403 13:59:46.479413   614 db_lmdb.cpp:38] Opened lmdb /home/mohanty/data/final_dataset/lmdb/segmented-20-80/test_db
I0403 13:59:46.494288   611 data_layer.cpp:41] output data size: 100,3,227,227
I0403 13:59:46.615670   611 net.cpp:141] Setting up data
I0403 13:59:46.615777   611 net.cpp:148] Top shape: 100 3 227 227 (15458700)
I0403 13:59:46.615799   611 net.cpp:148] Top shape: 100 (100)
I0403 13:59:46.615815   611 net.cpp:156] Memory required for data: 61835200
I0403 13:59:46.615844   611 layer_factory.hpp:77] Creating layer label_data_1_split
I0403 13:59:46.615869   611 net.cpp:91] Creating Layer label_data_1_split
I0403 13:59:46.615888   611 net.cpp:425] label_data_1_split <- label
I0403 13:59:46.615919   611 net.cpp:399] label_data_1_split -> label_data_1_split_0
I0403 13:59:46.615947   611 net.cpp:399] label_data_1_split -> label_data_1_split_1
I0403 13:59:46.615969   611 net.cpp:399] label_data_1_split -> label_data_1_split_2
I0403 13:59:46.616034   611 net.cpp:141] Setting up label_data_1_split
I0403 13:59:46.616058   611 net.cpp:148] Top shape: 100 (100)
I0403 13:59:46.616075   611 net.cpp:148] Top shape: 100 (100)
I0403 13:59:46.616092   611 net.cpp:148] Top shape: 100 (100)
I0403 13:59:46.616107   611 net.cpp:156] Memory required for data: 61836400
I0403 13:59:46.616122   611 layer_factory.hpp:77] Creating layer conv1
I0403 13:59:46.616155   611 net.cpp:91] Creating Layer conv1
I0403 13:59:46.616175   611 net.cpp:425] conv1 <- data
I0403 13:59:46.616195   611 net.cpp:399] conv1 -> conv1
I0403 13:59:46.758976   611 net.cpp:141] Setting up conv1
I0403 13:59:46.759064   611 net.cpp:148] Top shape: 100 96 55 55 (29040000)
I0403 13:59:46.759081   611 net.cpp:156] Memory required for data: 177996400
I0403 13:59:46.759112   611 layer_factory.hpp:77] Creating layer relu1
I0403 13:59:46.759138   611 net.cpp:91] Creating Layer relu1
I0403 13:59:46.759156   611 net.cpp:425] relu1 <- conv1
I0403 13:59:46.759176   611 net.cpp:386] relu1 -> conv1 (in-place)
I0403 13:59:46.759440   611 net.cpp:141] Setting up relu1
I0403 13:59:46.759467   611 net.cpp:148] Top shape: 100 96 55 55 (29040000)
I0403 13:59:46.759516   611 net.cpp:156] Memory required for data: 294156400
I0403 13:59:46.759532   611 layer_factory.hpp:77] Creating layer norm1
I0403 13:59:46.759560   611 net.cpp:91] Creating Layer norm1
I0403 13:59:46.759578   611 net.cpp:425] norm1 <- conv1
I0403 13:59:46.759596   611 net.cpp:399] norm1 -> norm1
I0403 13:59:46.759927   611 net.cpp:141] Setting up norm1
I0403 13:59:46.759955   611 net.cpp:148] Top shape: 100 96 55 55 (29040000)
I0403 13:59:46.759971   611 net.cpp:156] Memory required for data: 410316400
I0403 13:59:46.759986   611 layer_factory.hpp:77] Creating layer pool1
I0403 13:59:46.760010   611 net.cpp:91] Creating Layer pool1
I0403 13:59:46.760026   611 net.cpp:425] pool1 <- norm1
I0403 13:59:46.760045   611 net.cpp:399] pool1 -> pool1
I0403 13:59:46.760109   611 net.cpp:141] Setting up pool1
I0403 13:59:46.760133   611 net.cpp:148] Top shape: 100 96 27 27 (6998400)
I0403 13:59:46.760149   611 net.cpp:156] Memory required for data: 438310000
I0403 13:59:46.760164   611 layer_factory.hpp:77] Creating layer conv2
I0403 13:59:46.760188   611 net.cpp:91] Creating Layer conv2
I0403 13:59:46.760205   611 net.cpp:425] conv2 <- pool1
I0403 13:59:46.760223   611 net.cpp:399] conv2 -> conv2
I0403 13:59:46.775005   611 net.cpp:141] Setting up conv2
I0403 13:59:46.775040   611 net.cpp:148] Top shape: 100 256 27 27 (18662400)
I0403 13:59:46.775056   611 net.cpp:156] Memory required for data: 512959600
I0403 13:59:46.775077   611 layer_factory.hpp:77] Creating layer relu2
I0403 13:59:46.775096   611 net.cpp:91] Creating Layer relu2
I0403 13:59:46.775115   611 net.cpp:425] relu2 <- conv2
I0403 13:59:46.775133   611 net.cpp:386] relu2 -> conv2 (in-place)
I0403 13:59:46.775411   611 net.cpp:141] Setting up relu2
I0403 13:59:46.775439   611 net.cpp:148] Top shape: 100 256 27 27 (18662400)
I0403 13:59:46.775454   611 net.cpp:156] Memory required for data: 587609200
I0403 13:59:46.775468   611 layer_factory.hpp:77] Creating layer norm2
I0403 13:59:46.775490   611 net.cpp:91] Creating Layer norm2
I0403 13:59:46.775507   611 net.cpp:425] norm2 <- conv2
I0403 13:59:46.775526   611 net.cpp:399] norm2 -> norm2
I0403 13:59:46.775723   611 net.cpp:141] Setting up norm2
I0403 13:59:46.775748   611 net.cpp:148] Top shape: 100 256 27 27 (18662400)
I0403 13:59:46.775763   611 net.cpp:156] Memory required for data: 662258800
I0403 13:59:46.775779   611 layer_factory.hpp:77] Creating layer pool2
I0403 13:59:46.775796   611 net.cpp:91] Creating Layer pool2
I0403 13:59:46.775811   611 net.cpp:425] pool2 <- norm2
I0403 13:59:46.775835   611 net.cpp:399] pool2 -> pool2
I0403 13:59:46.775885   611 net.cpp:141] Setting up pool2
I0403 13:59:46.775910   611 net.cpp:148] Top shape: 100 256 13 13 (4326400)
I0403 13:59:46.775925   611 net.cpp:156] Memory required for data: 679564400
I0403 13:59:46.775940   611 layer_factory.hpp:77] Creating layer conv3
I0403 13:59:46.775962   611 net.cpp:91] Creating Layer conv3
I0403 13:59:46.775979   611 net.cpp:425] conv3 <- pool2
I0403 13:59:46.775998   611 net.cpp:399] conv3 -> conv3
I0403 13:59:46.814857   611 net.cpp:141] Setting up conv3
I0403 13:59:46.814939   611 net.cpp:148] Top shape: 100 384 13 13 (6489600)
I0403 13:59:46.814955   611 net.cpp:156] Memory required for data: 705522800
I0403 13:59:46.814981   611 layer_factory.hpp:77] Creating layer relu3
I0403 13:59:46.815003   611 net.cpp:91] Creating Layer relu3
I0403 13:59:46.815021   611 net.cpp:425] relu3 <- conv3
I0403 13:59:46.815042   611 net.cpp:386] relu3 -> conv3 (in-place)
I0403 13:59:46.815330   611 net.cpp:141] Setting up relu3
I0403 13:59:46.815357   611 net.cpp:148] Top shape: 100 384 13 13 (6489600)
I0403 13:59:46.815373   611 net.cpp:156] Memory required for data: 731481200
I0403 13:59:46.815388   611 layer_factory.hpp:77] Creating layer conv4
I0403 13:59:46.815414   611 net.cpp:91] Creating Layer conv4
I0403 13:59:46.815433   611 net.cpp:425] conv4 <- conv3
I0403 13:59:46.815454   611 net.cpp:399] conv4 -> conv4
I0403 13:59:46.846838   611 net.cpp:141] Setting up conv4
I0403 13:59:46.846909   611 net.cpp:148] Top shape: 100 384 13 13 (6489600)
I0403 13:59:46.846957   611 net.cpp:156] Memory required for data: 757439600
I0403 13:59:46.846981   611 layer_factory.hpp:77] Creating layer relu4
I0403 13:59:46.847003   611 net.cpp:91] Creating Layer relu4
I0403 13:59:46.847023   611 net.cpp:425] relu4 <- conv4
I0403 13:59:46.847045   611 net.cpp:386] relu4 -> conv4 (in-place)
I0403 13:59:46.847349   611 net.cpp:141] Setting up relu4
I0403 13:59:46.847379   611 net.cpp:148] Top shape: 100 384 13 13 (6489600)
I0403 13:59:46.847396   611 net.cpp:156] Memory required for data: 783398000
I0403 13:59:46.847412   611 layer_factory.hpp:77] Creating layer conv5
I0403 13:59:46.847439   611 net.cpp:91] Creating Layer conv5
I0403 13:59:46.847457   611 net.cpp:425] conv5 <- conv4
I0403 13:59:46.847481   611 net.cpp:399] conv5 -> conv5
I0403 13:59:46.868716   611 net.cpp:141] Setting up conv5
I0403 13:59:46.868755   611 net.cpp:148] Top shape: 100 256 13 13 (4326400)
I0403 13:59:46.868774   611 net.cpp:156] Memory required for data: 800703600
I0403 13:59:46.868799   611 layer_factory.hpp:77] Creating layer relu5
I0403 13:59:46.868819   611 net.cpp:91] Creating Layer relu5
I0403 13:59:46.868859   611 net.cpp:425] relu5 <- conv5
I0403 13:59:46.868887   611 net.cpp:386] relu5 -> conv5 (in-place)
I0403 13:59:46.869170   611 net.cpp:141] Setting up relu5
I0403 13:59:46.869199   611 net.cpp:148] Top shape: 100 256 13 13 (4326400)
I0403 13:59:46.869215   611 net.cpp:156] Memory required for data: 818009200
I0403 13:59:46.869231   611 layer_factory.hpp:77] Creating layer pool5
I0403 13:59:46.869261   611 net.cpp:91] Creating Layer pool5
I0403 13:59:46.869278   611 net.cpp:425] pool5 <- conv5
I0403 13:59:46.869297   611 net.cpp:399] pool5 -> pool5
I0403 13:59:46.869359   611 net.cpp:141] Setting up pool5
I0403 13:59:46.869382   611 net.cpp:148] Top shape: 100 256 6 6 (921600)
I0403 13:59:46.869397   611 net.cpp:156] Memory required for data: 821695600
I0403 13:59:46.869412   611 layer_factory.hpp:77] Creating layer fc6
I0403 13:59:46.869438   611 net.cpp:91] Creating Layer fc6
I0403 13:59:46.869457   611 net.cpp:425] fc6 <- pool5
I0403 13:59:46.869478   611 net.cpp:399] fc6 -> fc6
I0403 13:59:48.469416   611 net.cpp:141] Setting up fc6
I0403 13:59:48.469458   611 net.cpp:148] Top shape: 100 4096 (409600)
I0403 13:59:48.469475   611 net.cpp:156] Memory required for data: 823334000
I0403 13:59:48.469494   611 layer_factory.hpp:77] Creating layer relu6
I0403 13:59:48.469516   611 net.cpp:91] Creating Layer relu6
I0403 13:59:48.469532   611 net.cpp:425] relu6 <- fc6
I0403 13:59:48.469552   611 net.cpp:386] relu6 -> fc6 (in-place)
I0403 13:59:48.469759   611 net.cpp:141] Setting up relu6
I0403 13:59:48.469784   611 net.cpp:148] Top shape: 100 4096 (409600)
I0403 13:59:48.469799   611 net.cpp:156] Memory required for data: 824972400
I0403 13:59:48.469812   611 layer_factory.hpp:77] Creating layer drop6
I0403 13:59:48.469830   611 net.cpp:91] Creating Layer drop6
I0403 13:59:48.469846   611 net.cpp:425] drop6 <- fc6
I0403 13:59:48.469864   611 net.cpp:386] drop6 -> fc6 (in-place)
I0403 13:59:48.469910   611 net.cpp:141] Setting up drop6
I0403 13:59:48.469950   611 net.cpp:148] Top shape: 100 4096 (409600)
I0403 13:59:48.469966   611 net.cpp:156] Memory required for data: 826610800
I0403 13:59:48.469980   611 layer_factory.hpp:77] Creating layer fc7
I0403 13:59:48.470000   611 net.cpp:91] Creating Layer fc7
I0403 13:59:48.470016   611 net.cpp:425] fc7 <- fc6
I0403 13:59:48.470037   611 net.cpp:399] fc7 -> fc7
I0403 13:59:49.155673   611 net.cpp:141] Setting up fc7
I0403 13:59:49.155714   611 net.cpp:148] Top shape: 100 4096 (409600)
I0403 13:59:49.155730   611 net.cpp:156] Memory required for data: 828249200
I0403 13:59:49.155750   611 layer_factory.hpp:77] Creating layer relu7
I0403 13:59:49.155772   611 net.cpp:91] Creating Layer relu7
I0403 13:59:49.155788   611 net.cpp:425] relu7 <- fc7
I0403 13:59:49.155809   611 net.cpp:386] relu7 -> fc7 (in-place)
I0403 13:59:49.156195   611 net.cpp:141] Setting up relu7
I0403 13:59:49.156220   611 net.cpp:148] Top shape: 100 4096 (409600)
I0403 13:59:49.156258   611 net.cpp:156] Memory required for data: 829887600
I0403 13:59:49.156275   611 layer_factory.hpp:77] Creating layer drop7
I0403 13:59:49.156293   611 net.cpp:91] Creating Layer drop7
I0403 13:59:49.156307   611 net.cpp:425] drop7 <- fc7
I0403 13:59:49.156327   611 net.cpp:386] drop7 -> fc7 (in-place)
I0403 13:59:49.156368   611 net.cpp:141] Setting up drop7
I0403 13:59:49.156393   611 net.cpp:148] Top shape: 100 4096 (409600)
I0403 13:59:49.156407   611 net.cpp:156] Memory required for data: 831526000
I0403 13:59:49.156421   611 layer_factory.hpp:77] Creating layer fc8_plantvillage
I0403 13:59:49.156440   611 net.cpp:91] Creating Layer fc8_plantvillage
I0403 13:59:49.156455   611 net.cpp:425] fc8_plantvillage <- fc7
I0403 13:59:49.156476   611 net.cpp:399] fc8_plantvillage -> fc8_plantvillage
I0403 13:59:49.163110   611 net.cpp:141] Setting up fc8_plantvillage
I0403 13:59:49.163137   611 net.cpp:148] Top shape: 100 38 (3800)
I0403 13:59:49.163153   611 net.cpp:156] Memory required for data: 831541200
I0403 13:59:49.163172   611 layer_factory.hpp:77] Creating layer fc8_plantvillage_fc8_plantvillage_0_split
I0403 13:59:49.163189   611 net.cpp:91] Creating Layer fc8_plantvillage_fc8_plantvillage_0_split
I0403 13:59:49.163208   611 net.cpp:425] fc8_plantvillage_fc8_plantvillage_0_split <- fc8_plantvillage
I0403 13:59:49.163225   611 net.cpp:399] fc8_plantvillage_fc8_plantvillage_0_split -> fc8_plantvillage_fc8_plantvillage_0_split_0
I0403 13:59:49.163250   611 net.cpp:399] fc8_plantvillage_fc8_plantvillage_0_split -> fc8_plantvillage_fc8_plantvillage_0_split_1
I0403 13:59:49.163272   611 net.cpp:399] fc8_plantvillage_fc8_plantvillage_0_split -> fc8_plantvillage_fc8_plantvillage_0_split_2
I0403 13:59:49.163347   611 net.cpp:141] Setting up fc8_plantvillage_fc8_plantvillage_0_split
I0403 13:59:49.163372   611 net.cpp:148] Top shape: 100 38 (3800)
I0403 13:59:49.163388   611 net.cpp:148] Top shape: 100 38 (3800)
I0403 13:59:49.163403   611 net.cpp:148] Top shape: 100 38 (3800)
I0403 13:59:49.163417   611 net.cpp:156] Memory required for data: 831586800
I0403 13:59:49.163432   611 layer_factory.hpp:77] Creating layer prob
I0403 13:59:49.163450   611 net.cpp:91] Creating Layer prob
I0403 13:59:49.163465   611 net.cpp:425] prob <- fc8_plantvillage_fc8_plantvillage_0_split_0
I0403 13:59:49.163482   611 net.cpp:399] prob -> prob
I0403 13:59:49.163699   611 net.cpp:141] Setting up prob
I0403 13:59:49.163724   611 net.cpp:148] Top shape: 100 38 (3800)
I0403 13:59:49.163738   611 net.cpp:156] Memory required for data: 831602000
I0403 13:59:49.163753   611 layer_factory.hpp:77] Creating layer hdf5out
I0403 13:59:49.163770   611 net.cpp:91] Creating Layer hdf5out
I0403 13:59:49.163785   611 net.cpp:425] hdf5out <- prob
I0403 13:59:49.163801   611 net.cpp:425] hdf5out <- label_data_1_split_0
I0403 13:59:49.165976   611 net.cpp:141] Setting up hdf5out
…
