…
I0403 13:50:48.868116   423 net.cpp:313] The NetState phase (1) differed from the phase (0) specified by a rule in layer data
I0403 13:50:48.868432   423 net.cpp:49] Initializing net from parameters: 
state {
  phase: TEST
}
layer {
  name: "data"
  type: "Data"
  top: "data"
  top: "label"
  include {
    phase: TEST
  }
  transform_param {
    crop_size: 227
    mean_file: "/home/mohanty/data/final_dataset/lmdb/segmented-20-80/mean.binaryproto"
  }
  data_param {
    source: "/home/mohanty/data/final_dataset/lmdb/segmented-20-80/test_db"
    batch_size: 100
    backend: LMDB
  }
}
layer {
  name: "conv1"
  type: "Convolution"
  bottom: "data"
  top: "conv1"
  param {
    lr_mult: 1
    decay_mult: 1
  }
  param {
    lr_mult: 2
    decay_mult: 0
  }
  convolution_param {
    num_output: 96
    kernel_size: 11
    stride: 4
    weight_filler {
      type: "gaussian"
      std: 0.01
    }
    bias_filler {
      type: "constant"
      value: 0
    }
  }
}
layer {
  name: "relu1"
  type: "ReLU"
  bottom: "conv1"
  top: "conv1"
}
layer {
  name: "norm1"
  type: "LRN"
  bottom: "conv1"
  top: "norm1"
  lrn_param {
    local_size: 5
    alpha: 0.0001
    beta: 0.75
  }
}
layer {
  name: "pool1"
  type: "Pooling"
  bottom: "norm1"
  top: "pool1"
  pooling_param {
    pool: MAX
    kernel_size: 3
    stride: 2
  }
}
layer {
  name: "conv2"
  type: "Convolution"
  bottom: "pool1"
  top: "conv2"
  param {
    lr_mult: 1
    decay_mult: 1
  }
  param {
    lr_mult: 2
    decay_mult: 0
  }
  convolution_param {
    num_output: 256
    pad: 2
    kernel_size: 5
    group: 2
    weight_filler {
      type: "gaussian"
      std: 0.01
    }
    bias_filler {
      type: "constant"
      value: 0.1
    }
  }
}
layer {
  name: "relu2"
  type: "ReLU"
  bottom: "conv2"
  top: "conv2"
}
layer {
  name: "norm2"
  type: "LRN"
  bottom: "conv2"
  top: "norm2"
  lrn_param {
    local_size: 5
    alpha: 0.0001
    beta: 0.75
  }
}
layer {
  name: "pool2"
  type: "Pooling"
  bottom: "norm2"
  top: "pool2"
  pooling_param {
    pool: MAX
    kernel_size: 3
    stride: 2
  }
}
layer {
  name: "conv3"
  type: "Convolution"
  bottom: "pool2"
  top: "conv3"
  param {
    lr_mult: 1
    decay_mult: 1
  }
  param {
    lr_mult: 2
    decay_mult: 0
  }
  convolution_param {
    num_output: 384
    pad: 1
    kernel_size: 3
    weight_filler {
      type: "gaussian"
      std: 0.01
    }
    bias_filler {
      type: "constant"
      value: 0
    }
  }
}
layer {
  name: "relu3"
  type: "ReLU"
  bottom: "conv3"
  top: "conv3"
}
layer {
  name: "conv4"
  type: "Convolution"
  bottom: "conv3"
  top: "conv4"
  param {
    lr_mult: 1
    decay_mult: 1
  }
  param {
    lr_mult: 2
    decay_mult: 0
  }
  convolution_param {
    num_output: 384
    pad: 1
    kernel_size: 3
    group: 2
    weight_filler {
      type: "gaussian"
      std: 0.01
    }
    bias_filler {
      type: "constant"
      value: 0.1
    }
  }
}
layer {
  name: "relu4"
  type: "ReLU"
  bottom: "conv4"
  top: "conv4"
}
layer {
  name: "conv5"
  type: "Convolution"
  bottom: "conv4"
  top: "conv5"
  param {
    lr_mult: 1
    decay_mult: 1
  }
  param {
    lr_mult: 2
    decay_mult: 0
  }
  convolution_param {
    num_output: 256
    pad: 1
    kernel_size: 3
    group: 2
    weight_filler {
      type: "gaussian"
      std: 0.01
    }
    bias_filler {
      type: "constant"
      value: 0.1
    }
  }
}
layer {
  name: "relu5"
  type: "ReLU"
  bottom: "conv5"
  top: "conv5"
}
layer {
  name: "pool5"
  type: "Pooling"
  bottom: "conv5"
  top: "pool5"
  pooling_param {
    pool: MAX
    kernel_size: 3
    stride: 2
  }
}
layer {
  name: "fc6"
  type: "InnerProduct"
  bottom: "pool5"
  top: "fc6"
  param {
    lr_mult: 1
    decay_mult: 1
  }
  param {
    lr_mult: 2
    decay_mult: 0
  }
  inner_product_param {
    num_output: 4096
    weight_filler {
      type: "gaussian"
      std: 0.005
    }
    bias_filler {
      type: "constant"
      value: 0.1
    }
  }
}
layer {
  name: "relu6"
  type: "ReLU"
  bottom: "fc6"
  top: "fc6"
}
layer {
  name: "drop6"
  type: "Dropout"
  bottom: "fc6"
  top: "fc6"
  dropout_param {
    dropout_ratio: 0.5
  }
}
layer {
  name: "fc7"
  type: "InnerProduct"
  bottom: "fc6"
  top: "fc7"
  param {
    lr_mult: 1
    decay_mult: 1
  }
  param {
    lr_mult: 2
    decay_mult: 0
  }
  inner_product_param {
    num_output: 4096
    weight_filler {
      type: "gaussian"
      std: 0.005
    }
    bias_filler {
      type: "constant"
      value: 0.1
    }
  }
}
layer {
  name: "relu7"
  type: "ReLU"
  bottom: "fc7"
  top: "fc7"
}
layer {
  name: "drop7"
  type: "Dropout"
  bottom: "fc7"
  top: "fc7"
  dropout_param {
    dropout_ratio: 0.5
  }
}
layer {
  name: "fc8_plantvillage"
  type: "InnerProduct"
  bottom: "fc7"
  top: "fc8_plantvillage"
  param {
    lr_mult: 1
    decay_mult: 1
  }
  param {
    lr_mult: 2
    decay_mult: 0
  }
  inner_product_param {
    num_output: 38
    weight_filler {
      type: "gaussian"
      std: 0.01
    }
    bias_filler {
      type: "constant"
      value: 0
    }
  }
}
layer {
  name: "prob"
  type: "Softmax"
  bottom: "fc8_plantvillage"
  top: "prob"
  include {
    phase: TEST
  }
}
layer {
  name: "hdf5out"
  type: "HDF5Output"
  bottom: "prob"
  bottom: "label"
  include {
    phase: TEST
  }
  hdf5_output_param {
    file_name: "hdf5_dumps/iter_2014.h5"
  }
}
layer {
  name: "loss"
  type: "SoftmaxWithLoss"
  bottom: "fc8_plantvillage"
  bottom: "label"
  top: "loss"
}
layer {
  name: "accuracy"
  type: "Accuracy"
  bottom: "fc8_plantvillage"
  bottom: "label"
  top: "accuracy"
  include {
    phase: TEST
  }
}
I0403 13:50:48.869047   423 layer_factory.hpp:77] Creating layer data
I0403 13:50:48.869689   423 net.cpp:91] Creating Layer data
I0403 13:50:48.869720   423 net.cpp:399] data -> data
I0403 13:50:48.869773   423 net.cpp:399] data -> label
I0403 13:50:48.869808   423 data_transformer.cpp:25] Loading mean file from: /home/mohanty/data/final_dataset/lmdb/segmented-20-80/mean.binaryproto
I0403 13:50:48.872575   426 db_lmdb.cpp:38] Opened lmdb /home/mohanty/data/final_dataset/lmdb/segmented-20-80/test_db
I0403 13:50:48.884115   423 data_layer.cpp:41] output data size: 100,3,227,227
I0403 13:50:49.002619   423 net.cpp:141] Setting up data
I0403 13:50:49.002725   423 net.cpp:148] Top shape: 100 3 227 227 (15458700)
I0403 13:50:49.002748   423 net.cpp:148] Top shape: 100 (100)
I0403 13:50:49.002763   423 net.cpp:156] Memory required for data: 61835200
I0403 13:50:49.002790   423 layer_factory.hpp:77] Creating layer label_data_1_split
I0403 13:50:49.002815   423 net.cpp:91] Creating Layer label_data_1_split
I0403 13:50:49.002833   423 net.cpp:425] label_data_1_split <- label
I0403 13:50:49.002864   423 net.cpp:399] label_data_1_split -> label_data_1_split_0
I0403 13:50:49.002890   423 net.cpp:399] label_data_1_split -> label_data_1_split_1
I0403 13:50:49.002910   423 net.cpp:399] label_data_1_split -> label_data_1_split_2
I0403 13:50:49.002974   423 net.cpp:141] Setting up label_data_1_split
I0403 13:50:49.002997   423 net.cpp:148] Top shape: 100 (100)
I0403 13:50:49.003013   423 net.cpp:148] Top shape: 100 (100)
I0403 13:50:49.003029   423 net.cpp:148] Top shape: 100 (100)
I0403 13:50:49.003043   423 net.cpp:156] Memory required for data: 61836400
I0403 13:50:49.003058   423 layer_factory.hpp:77] Creating layer conv1
I0403 13:50:49.003090   423 net.cpp:91] Creating Layer conv1
I0403 13:50:49.003109   423 net.cpp:425] conv1 <- data
I0403 13:50:49.003129   423 net.cpp:399] conv1 -> conv1
I0403 13:50:49.146651   423 net.cpp:141] Setting up conv1
I0403 13:50:49.146728   423 net.cpp:148] Top shape: 100 96 55 55 (29040000)
I0403 13:50:49.146745   423 net.cpp:156] Memory required for data: 177996400
I0403 13:50:49.146776   423 layer_factory.hpp:77] Creating layer relu1
I0403 13:50:49.146806   423 net.cpp:91] Creating Layer relu1
I0403 13:50:49.146826   423 net.cpp:425] relu1 <- conv1
I0403 13:50:49.146845   423 net.cpp:386] relu1 -> conv1 (in-place)
I0403 13:50:49.147120   423 net.cpp:141] Setting up relu1
I0403 13:50:49.147148   423 net.cpp:148] Top shape: 100 96 55 55 (29040000)
I0403 13:50:49.147195   423 net.cpp:156] Memory required for data: 294156400
I0403 13:50:49.147212   423 layer_factory.hpp:77] Creating layer norm1
I0403 13:50:49.147248   423 net.cpp:91] Creating Layer norm1
I0403 13:50:49.147267   423 net.cpp:425] norm1 <- conv1
I0403 13:50:49.147289   423 net.cpp:399] norm1 -> norm1
I0403 13:50:49.147619   423 net.cpp:141] Setting up norm1
I0403 13:50:49.147650   423 net.cpp:148] Top shape: 100 96 55 55 (29040000)
I0403 13:50:49.147666   423 net.cpp:156] Memory required for data: 410316400
I0403 13:50:49.147681   423 layer_factory.hpp:77] Creating layer pool1
I0403 13:50:49.147704   423 net.cpp:91] Creating Layer pool1
I0403 13:50:49.147722   423 net.cpp:425] pool1 <- norm1
I0403 13:50:49.147742   423 net.cpp:399] pool1 -> pool1
I0403 13:50:49.147814   423 net.cpp:141] Setting up pool1
I0403 13:50:49.147840   423 net.cpp:148] Top shape: 100 96 27 27 (6998400)
I0403 13:50:49.147855   423 net.cpp:156] Memory required for data: 438310000
I0403 13:50:49.147869   423 layer_factory.hpp:77] Creating layer conv2
I0403 13:50:49.147894   423 net.cpp:91] Creating Layer conv2
I0403 13:50:49.147910   423 net.cpp:425] conv2 <- pool1
I0403 13:50:49.147932   423 net.cpp:399] conv2 -> conv2
I0403 13:50:49.162864   423 net.cpp:141] Setting up conv2
I0403 13:50:49.162905   423 net.cpp:148] Top shape: 100 256 27 27 (18662400)
I0403 13:50:49.162922   423 net.cpp:156] Memory required for data: 512959600
I0403 13:50:49.162945   423 layer_factory.hpp:77] Creating layer relu2
I0403 13:50:49.162964   423 net.cpp:91] Creating Layer relu2
I0403 13:50:49.162981   423 net.cpp:425] relu2 <- conv2
I0403 13:50:49.163002   423 net.cpp:386] relu2 -> conv2 (in-place)
I0403 13:50:49.163292   423 net.cpp:141] Setting up relu2
I0403 13:50:49.163319   423 net.cpp:148] Top shape: 100 256 27 27 (18662400)
I0403 13:50:49.163336   423 net.cpp:156] Memory required for data: 587609200
I0403 13:50:49.163350   423 layer_factory.hpp:77] Creating layer norm2
I0403 13:50:49.163373   423 net.cpp:91] Creating Layer norm2
I0403 13:50:49.163390   423 net.cpp:425] norm2 <- conv2
I0403 13:50:49.163409   423 net.cpp:399] norm2 -> norm2
I0403 13:50:49.163607   423 net.cpp:141] Setting up norm2
I0403 13:50:49.163636   423 net.cpp:148] Top shape: 100 256 27 27 (18662400)
I0403 13:50:49.163652   423 net.cpp:156] Memory required for data: 662258800
I0403 13:50:49.163667   423 layer_factory.hpp:77] Creating layer pool2
I0403 13:50:49.163686   423 net.cpp:91] Creating Layer pool2
I0403 13:50:49.163700   423 net.cpp:425] pool2 <- norm2
I0403 13:50:49.163720   423 net.cpp:399] pool2 -> pool2
I0403 13:50:49.163777   423 net.cpp:141] Setting up pool2
I0403 13:50:49.163800   423 net.cpp:148] Top shape: 100 256 13 13 (4326400)
I0403 13:50:49.163815   423 net.cpp:156] Memory required for data: 679564400
I0403 13:50:49.163831   423 layer_factory.hpp:77] Creating layer conv3
I0403 13:50:49.163854   423 net.cpp:91] Creating Layer conv3
I0403 13:50:49.163872   423 net.cpp:425] conv3 <- pool2
I0403 13:50:49.163892   423 net.cpp:399] conv3 -> conv3
I0403 13:50:49.202653   423 net.cpp:141] Setting up conv3
I0403 13:50:49.202725   423 net.cpp:148] Top shape: 100 384 13 13 (6489600)
I0403 13:50:49.202744   423 net.cpp:156] Memory required for data: 705522800
I0403 13:50:49.202769   423 layer_factory.hpp:77] Creating layer relu3
I0403 13:50:49.202790   423 net.cpp:91] Creating Layer relu3
I0403 13:50:49.202808   423 net.cpp:425] relu3 <- conv3
I0403 13:50:49.202831   423 net.cpp:386] relu3 -> conv3 (in-place)
I0403 13:50:49.203126   423 net.cpp:141] Setting up relu3
I0403 13:50:49.203156   423 net.cpp:148] Top shape: 100 384 13 13 (6489600)
I0403 13:50:49.203172   423 net.cpp:156] Memory required for data: 731481200
I0403 13:50:49.203188   423 layer_factory.hpp:77] Creating layer conv4
I0403 13:50:49.203217   423 net.cpp:91] Creating Layer conv4
I0403 13:50:49.203235   423 net.cpp:425] conv4 <- conv3
I0403 13:50:49.203269   423 net.cpp:399] conv4 -> conv4
I0403 13:50:49.234073   423 net.cpp:141] Setting up conv4
I0403 13:50:49.234118   423 net.cpp:148] Top shape: 100 384 13 13 (6489600)
I0403 13:50:49.234166   423 net.cpp:156] Memory required for data: 757439600
I0403 13:50:49.234189   423 layer_factory.hpp:77] Creating layer relu4
I0403 13:50:49.234215   423 net.cpp:91] Creating Layer relu4
I0403 13:50:49.234233   423 net.cpp:425] relu4 <- conv4
I0403 13:50:49.234259   423 net.cpp:386] relu4 -> conv4 (in-place)
I0403 13:50:49.234575   423 net.cpp:141] Setting up relu4
I0403 13:50:49.234602   423 net.cpp:148] Top shape: 100 384 13 13 (6489600)
I0403 13:50:49.234618   423 net.cpp:156] Memory required for data: 783398000
I0403 13:50:49.234634   423 layer_factory.hpp:77] Creating layer conv5
I0403 13:50:49.234663   423 net.cpp:91] Creating Layer conv5
I0403 13:50:49.234680   423 net.cpp:425] conv5 <- conv4
I0403 13:50:49.234700   423 net.cpp:399] conv5 -> conv5
I0403 13:50:49.255686   423 net.cpp:141] Setting up conv5
I0403 13:50:49.255727   423 net.cpp:148] Top shape: 100 256 13 13 (4326400)
I0403 13:50:49.255744   423 net.cpp:156] Memory required for data: 800703600
I0403 13:50:49.255767   423 layer_factory.hpp:77] Creating layer relu5
I0403 13:50:49.255786   423 net.cpp:91] Creating Layer relu5
I0403 13:50:49.255802   423 net.cpp:425] relu5 <- conv5
I0403 13:50:49.255821   423 net.cpp:386] relu5 -> conv5 (in-place)
I0403 13:50:49.256105   423 net.cpp:141] Setting up relu5
I0403 13:50:49.256132   423 net.cpp:148] Top shape: 100 256 13 13 (4326400)
I0403 13:50:49.256147   423 net.cpp:156] Memory required for data: 818009200
I0403 13:50:49.256163   423 layer_factory.hpp:77] Creating layer pool5
I0403 13:50:49.256184   423 net.cpp:91] Creating Layer pool5
I0403 13:50:49.256201   423 net.cpp:425] pool5 <- conv5
I0403 13:50:49.256223   423 net.cpp:399] pool5 -> pool5
I0403 13:50:49.256289   423 net.cpp:141] Setting up pool5
I0403 13:50:49.256314   423 net.cpp:148] Top shape: 100 256 6 6 (921600)
I0403 13:50:49.256328   423 net.cpp:156] Memory required for data: 821695600
I0403 13:50:49.256343   423 layer_factory.hpp:77] Creating layer fc6
I0403 13:50:49.256371   423 net.cpp:91] Creating Layer fc6
I0403 13:50:49.256391   423 net.cpp:425] fc6 <- pool5
I0403 13:50:49.256412   423 net.cpp:399] fc6 -> fc6
I0403 13:50:50.800024   423 net.cpp:141] Setting up fc6
I0403 13:50:50.800103   423 net.cpp:148] Top shape: 100 4096 (409600)
I0403 13:50:50.800120   423 net.cpp:156] Memory required for data: 823334000
I0403 13:50:50.800142   423 layer_factory.hpp:77] Creating layer relu6
I0403 13:50:50.800165   423 net.cpp:91] Creating Layer relu6
I0403 13:50:50.800184   423 net.cpp:425] relu6 <- fc6
I0403 13:50:50.800204   423 net.cpp:386] relu6 -> fc6 (in-place)
I0403 13:50:50.800425   423 net.cpp:141] Setting up relu6
I0403 13:50:50.800449   423 net.cpp:148] Top shape: 100 4096 (409600)
I0403 13:50:50.800464   423 net.cpp:156] Memory required for data: 824972400
I0403 13:50:50.800479   423 layer_factory.hpp:77] Creating layer drop6
I0403 13:50:50.800498   423 net.cpp:91] Creating Layer drop6
I0403 13:50:50.800513   423 net.cpp:425] drop6 <- fc6
I0403 13:50:50.800532   423 net.cpp:386] drop6 -> fc6 (in-place)
I0403 13:50:50.800585   423 net.cpp:141] Setting up drop6
I0403 13:50:50.800606   423 net.cpp:148] Top shape: 100 4096 (409600)
I0403 13:50:50.800621   423 net.cpp:156] Memory required for data: 826610800
I0403 13:50:50.800637   423 layer_factory.hpp:77] Creating layer fc7
I0403 13:50:50.800658   423 net.cpp:91] Creating Layer fc7
I0403 13:50:50.800675   423 net.cpp:425] fc7 <- fc6
I0403 13:50:50.800695   423 net.cpp:399] fc7 -> fc7
I0403 13:50:51.476793   423 net.cpp:141] Setting up fc7
I0403 13:50:51.476835   423 net.cpp:148] Top shape: 100 4096 (409600)
I0403 13:50:51.476850   423 net.cpp:156] Memory required for data: 828249200
I0403 13:50:51.476871   423 layer_factory.hpp:77] Creating layer relu7
I0403 13:50:51.476891   423 net.cpp:91] Creating Layer relu7
I0403 13:50:51.476908   423 net.cpp:425] relu7 <- fc7
I0403 13:50:51.476929   423 net.cpp:386] relu7 -> fc7 (in-place)
I0403 13:50:51.477335   423 net.cpp:141] Setting up relu7
I0403 13:50:51.477362   423 net.cpp:148] Top shape: 100 4096 (409600)
I0403 13:50:51.477407   423 net.cpp:156] Memory required for data: 829887600
I0403 13:50:51.477422   423 layer_factory.hpp:77] Creating layer drop7
I0403 13:50:51.477440   423 net.cpp:91] Creating Layer drop7
I0403 13:50:51.477457   423 net.cpp:425] drop7 <- fc7
I0403 13:50:51.477475   423 net.cpp:386] drop7 -> fc7 (in-place)
I0403 13:50:51.477519   423 net.cpp:141] Setting up drop7
I0403 13:50:51.477540   423 net.cpp:148] Top shape: 100 4096 (409600)
I0403 13:50:51.477552   423 net.cpp:156] Memory required for data: 831526000
I0403 13:50:51.477567   423 layer_factory.hpp:77] Creating layer fc8_plantvillage
I0403 13:50:51.477588   423 net.cpp:91] Creating Layer fc8_plantvillage
I0403 13:50:51.477604   423 net.cpp:425] fc8_plantvillage <- fc7
I0403 13:50:51.477625   423 net.cpp:399] fc8_plantvillage -> fc8_plantvillage
I0403 13:50:51.484133   423 net.cpp:141] Setting up fc8_plantvillage
I0403 13:50:51.484160   423 net.cpp:148] Top shape: 100 38 (3800)
I0403 13:50:51.484175   423 net.cpp:156] Memory required for data: 831541200
I0403 13:50:51.484192   423 layer_factory.hpp:77] Creating layer fc8_plantvillage_fc8_plantvillage_0_split
I0403 13:50:51.484210   423 net.cpp:91] Creating Layer fc8_plantvillage_fc8_plantvillage_0_split
I0403 13:50:51.484225   423 net.cpp:425] fc8_plantvillage_fc8_plantvillage_0_split <- fc8_plantvillage
I0403 13:50:51.484247   423 net.cpp:399] fc8_plantvillage_fc8_plantvillage_0_split -> fc8_plantvillage_fc8_plantvillage_0_split_0
I0403 13:50:51.484269   423 net.cpp:399] fc8_plantvillage_fc8_plantvillage_0_split -> fc8_plantvillage_fc8_plantvillage_0_split_1
I0403 13:50:51.484288   423 net.cpp:399] fc8_plantvillage_fc8_plantvillage_0_split -> fc8_plantvillage_fc8_plantvillage_0_split_2
I0403 13:50:51.484364   423 net.cpp:141] Setting up fc8_plantvillage_fc8_plantvillage_0_split
I0403 13:50:51.484386   423 net.cpp:148] Top shape: 100 38 (3800)
I0403 13:50:51.484402   423 net.cpp:148] Top shape: 100 38 (3800)
I0403 13:50:51.484416   423 net.cpp:148] Top shape: 100 38 (3800)
I0403 13:50:51.484429   423 net.cpp:156] Memory required for data: 831586800
I0403 13:50:51.484444   423 layer_factory.hpp:77] Creating layer prob
I0403 13:50:51.484462   423 net.cpp:91] Creating Layer prob
I0403 13:50:51.484477   423 net.cpp:425] prob <- fc8_plantvillage_fc8_plantvillage_0_split_0
I0403 13:50:51.484498   423 net.cpp:399] prob -> prob
I0403 13:50:51.484716   423 net.cpp:141] Setting up prob
I0403 13:50:51.484745   423 net.cpp:148] Top shape: 100 38 (3800)
I0403 13:50:51.484760   423 net.cpp:156] Memory required for data: 831602000
I0403 13:50:51.484774   423 layer_factory.hpp:77] Creating layer hdf5out
I0403 13:50:51.484793   423 net.cpp:91] Creating Layer hdf5out
I0403 13:50:51.484808   423 net.cpp:425] hdf5out <- prob
I0403 13:50:51.484823   423 net.cpp:425] hdf5out <- label_data_1_split_0
I0403 13:50:51.487081   423 net.cpp:141] Setting up hdf5out
…
