…
I0403 13:49:32.073710   401 net.cpp:313] The NetState phase (1) differed from the phase (0) specified by a rule in layer data
I0403 13:49:32.074018   401 net.cpp:49] Initializing net from parameters: 
state {
  phase: TEST
}
layer {
  name: "data"
  type: "Data"
  top: "data"
  top: "label"
  include {
    phase: TEST
  }
  transform_param {
    crop_size: 227
    mean_file: "/home/mohanty/data/final_dataset/lmdb/segmented-20-80/mean.binaryproto"
  }
  data_param {
    source: "/home/mohanty/data/final_dataset/lmdb/segmented-20-80/test_db"
    batch_size: 100
    backend: LMDB
  }
}
layer {
  name: "conv1"
  type: "Convolution"
  bottom: "data"
  top: "conv1"
  param {
    lr_mult: 1
    decay_mult: 1
  }
  param {
    lr_mult: 2
    decay_mult: 0
  }
  convolution_param {
    num_output: 96
    kernel_size: 11
    stride: 4
    weight_filler {
      type: "gaussian"
      std: 0.01
    }
    bias_filler {
      type: "constant"
      value: 0
    }
  }
}
layer {
  name: "relu1"
  type: "ReLU"
  bottom: "conv1"
  top: "conv1"
}
layer {
  name: "norm1"
  type: "LRN"
  bottom: "conv1"
  top: "norm1"
  lrn_param {
    local_size: 5
    alpha: 0.0001
    beta: 0.75
  }
}
layer {
  name: "pool1"
  type: "Pooling"
  bottom: "norm1"
  top: "pool1"
  pooling_param {
    pool: MAX
    kernel_size: 3
    stride: 2
  }
}
layer {
  name: "conv2"
  type: "Convolution"
  bottom: "pool1"
  top: "conv2"
  param {
    lr_mult: 1
    decay_mult: 1
  }
  param {
    lr_mult: 2
    decay_mult: 0
  }
  convolution_param {
    num_output: 256
    pad: 2
    kernel_size: 5
    group: 2
    weight_filler {
      type: "gaussian"
      std: 0.01
    }
    bias_filler {
      type: "constant"
      value: 0.1
    }
  }
}
layer {
  name: "relu2"
  type: "ReLU"
  bottom: "conv2"
  top: "conv2"
}
layer {
  name: "norm2"
  type: "LRN"
  bottom: "conv2"
  top: "norm2"
  lrn_param {
    local_size: 5
    alpha: 0.0001
    beta: 0.75
  }
}
layer {
  name: "pool2"
  type: "Pooling"
  bottom: "norm2"
  top: "pool2"
  pooling_param {
    pool: MAX
    kernel_size: 3
    stride: 2
  }
}
layer {
  name: "conv3"
  type: "Convolution"
  bottom: "pool2"
  top: "conv3"
  param {
    lr_mult: 1
    decay_mult: 1
  }
  param {
    lr_mult: 2
    decay_mult: 0
  }
  convolution_param {
    num_output: 384
    pad: 1
    kernel_size: 3
    weight_filler {
      type: "gaussian"
      std: 0.01
    }
    bias_filler {
      type: "constant"
      value: 0
    }
  }
}
layer {
  name: "relu3"
  type: "ReLU"
  bottom: "conv3"
  top: "conv3"
}
layer {
  name: "conv4"
  type: "Convolution"
  bottom: "conv3"
  top: "conv4"
  param {
    lr_mult: 1
    decay_mult: 1
  }
  param {
    lr_mult: 2
    decay_mult: 0
  }
  convolution_param {
    num_output: 384
    pad: 1
    kernel_size: 3
    group: 2
    weight_filler {
      type: "gaussian"
      std: 0.01
    }
    bias_filler {
      type: "constant"
      value: 0.1
    }
  }
}
layer {
  name: "relu4"
  type: "ReLU"
  bottom: "conv4"
  top: "conv4"
}
layer {
  name: "conv5"
  type: "Convolution"
  bottom: "conv4"
  top: "conv5"
  param {
    lr_mult: 1
    decay_mult: 1
  }
  param {
    lr_mult: 2
    decay_mult: 0
  }
  convolution_param {
    num_output: 256
    pad: 1
    kernel_size: 3
    group: 2
    weight_filler {
      type: "gaussian"
      std: 0.01
    }
    bias_filler {
      type: "constant"
      value: 0.1
    }
  }
}
layer {
  name: "relu5"
  type: "ReLU"
  bottom: "conv5"
  top: "conv5"
}
layer {
  name: "pool5"
  type: "Pooling"
  bottom: "conv5"
  top: "pool5"
  pooling_param {
    pool: MAX
    kernel_size: 3
    stride: 2
  }
}
layer {
  name: "fc6"
  type: "InnerProduct"
  bottom: "pool5"
  top: "fc6"
  param {
    lr_mult: 1
    decay_mult: 1
  }
  param {
    lr_mult: 2
    decay_mult: 0
  }
  inner_product_param {
    num_output: 4096
    weight_filler {
      type: "gaussian"
      std: 0.005
    }
    bias_filler {
      type: "constant"
      value: 0.1
    }
  }
}
layer {
  name: "relu6"
  type: "ReLU"
  bottom: "fc6"
  top: "fc6"
}
layer {
  name: "drop6"
  type: "Dropout"
  bottom: "fc6"
  top: "fc6"
  dropout_param {
    dropout_ratio: 0.5
  }
}
layer {
  name: "fc7"
  type: "InnerProduct"
  bottom: "fc6"
  top: "fc7"
  param {
    lr_mult: 1
    decay_mult: 1
  }
  param {
    lr_mult: 2
    decay_mult: 0
  }
  inner_product_param {
    num_output: 4096
    weight_filler {
      type: "gaussian"
      std: 0.005
    }
    bias_filler {
      type: "constant"
      value: 0.1
    }
  }
}
layer {
  name: "relu7"
  type: "ReLU"
  bottom: "fc7"
  top: "fc7"
}
layer {
  name: "drop7"
  type: "Dropout"
  bottom: "fc7"
  top: "fc7"
  dropout_param {
    dropout_ratio: 0.5
  }
}
layer {
  name: "fc8_plantvillage"
  type: "InnerProduct"
  bottom: "fc7"
  top: "fc8_plantvillage"
  param {
    lr_mult: 1
    decay_mult: 1
  }
  param {
    lr_mult: 2
    decay_mult: 0
  }
  inner_product_param {
    num_output: 38
    weight_filler {
      type: "gaussian"
      std: 0.01
    }
    bias_filler {
      type: "constant"
      value: 0
    }
  }
}
layer {
  name: "prob"
  type: "Softmax"
  bottom: "fc8_plantvillage"
  top: "prob"
  include {
    phase: TEST
  }
}
layer {
  name: "hdf5out"
  type: "HDF5Output"
  bottom: "prob"
  bottom: "label"
  include {
    phase: TEST
  }
  hdf5_output_param {
    file_name: "hdf5_dumps/iter_1908.h5"
  }
}
layer {
  name: "loss"
  type: "SoftmaxWithLoss"
  bottom: "fc8_plantvillage"
  bottom: "label"
  top: "loss"
}
layer {
  name: "accuracy"
  type: "Accuracy"
  bottom: "fc8_plantvillage"
  bottom: "label"
  top: "accuracy"
  include {
    phase: TEST
  }
}
I0403 13:49:32.074579   401 layer_factory.hpp:77] Creating layer data
I0403 13:49:32.075238   401 net.cpp:91] Creating Layer data
I0403 13:49:32.075276   401 net.cpp:399] data -> data
I0403 13:49:32.075330   401 net.cpp:399] data -> label
I0403 13:49:32.075366   401 data_transformer.cpp:25] Loading mean file from: /home/mohanty/data/final_dataset/lmdb/segmented-20-80/mean.binaryproto
I0403 13:49:32.080371   404 db_lmdb.cpp:38] Opened lmdb /home/mohanty/data/final_dataset/lmdb/segmented-20-80/test_db
I0403 13:49:32.089720   401 data_layer.cpp:41] output data size: 100,3,227,227
I0403 13:49:32.210619   401 net.cpp:141] Setting up data
I0403 13:49:32.210729   401 net.cpp:148] Top shape: 100 3 227 227 (15458700)
I0403 13:49:32.210754   401 net.cpp:148] Top shape: 100 (100)
I0403 13:49:32.210769   401 net.cpp:156] Memory required for data: 61835200
I0403 13:49:32.210798   401 layer_factory.hpp:77] Creating layer label_data_1_split
I0403 13:49:32.210824   401 net.cpp:91] Creating Layer label_data_1_split
I0403 13:49:32.210841   401 net.cpp:425] label_data_1_split <- label
I0403 13:49:32.210873   401 net.cpp:399] label_data_1_split -> label_data_1_split_0
I0403 13:49:32.210901   401 net.cpp:399] label_data_1_split -> label_data_1_split_1
I0403 13:49:32.210921   401 net.cpp:399] label_data_1_split -> label_data_1_split_2
I0403 13:49:32.210983   401 net.cpp:141] Setting up label_data_1_split
I0403 13:49:32.211007   401 net.cpp:148] Top shape: 100 (100)
I0403 13:49:32.211024   401 net.cpp:148] Top shape: 100 (100)
I0403 13:49:32.211041   401 net.cpp:148] Top shape: 100 (100)
I0403 13:49:32.211056   401 net.cpp:156] Memory required for data: 61836400
I0403 13:49:32.211073   401 layer_factory.hpp:77] Creating layer conv1
I0403 13:49:32.211105   401 net.cpp:91] Creating Layer conv1
I0403 13:49:32.211123   401 net.cpp:425] conv1 <- data
I0403 13:49:32.211143   401 net.cpp:399] conv1 -> conv1
I0403 13:49:32.354132   401 net.cpp:141] Setting up conv1
I0403 13:49:32.354215   401 net.cpp:148] Top shape: 100 96 55 55 (29040000)
I0403 13:49:32.354233   401 net.cpp:156] Memory required for data: 177996400
I0403 13:49:32.354269   401 layer_factory.hpp:77] Creating layer relu1
I0403 13:49:32.354297   401 net.cpp:91] Creating Layer relu1
I0403 13:49:32.354317   401 net.cpp:425] relu1 <- conv1
I0403 13:49:32.354336   401 net.cpp:386] relu1 -> conv1 (in-place)
I0403 13:49:32.354598   401 net.cpp:141] Setting up relu1
I0403 13:49:32.354625   401 net.cpp:148] Top shape: 100 96 55 55 (29040000)
I0403 13:49:32.354672   401 net.cpp:156] Memory required for data: 294156400
I0403 13:49:32.354689   401 layer_factory.hpp:77] Creating layer norm1
I0403 13:49:32.354717   401 net.cpp:91] Creating Layer norm1
I0403 13:49:32.354735   401 net.cpp:425] norm1 <- conv1
I0403 13:49:32.354754   401 net.cpp:399] norm1 -> norm1
I0403 13:49:32.355087   401 net.cpp:141] Setting up norm1
I0403 13:49:32.355114   401 net.cpp:148] Top shape: 100 96 55 55 (29040000)
I0403 13:49:32.355131   401 net.cpp:156] Memory required for data: 410316400
I0403 13:49:32.355147   401 layer_factory.hpp:77] Creating layer pool1
I0403 13:49:32.355170   401 net.cpp:91] Creating Layer pool1
I0403 13:49:32.355188   401 net.cpp:425] pool1 <- norm1
I0403 13:49:32.355206   401 net.cpp:399] pool1 -> pool1
I0403 13:49:32.355276   401 net.cpp:141] Setting up pool1
I0403 13:49:32.355301   401 net.cpp:148] Top shape: 100 96 27 27 (6998400)
I0403 13:49:32.355317   401 net.cpp:156] Memory required for data: 438310000
I0403 13:49:32.355332   401 layer_factory.hpp:77] Creating layer conv2
I0403 13:49:32.355360   401 net.cpp:91] Creating Layer conv2
I0403 13:49:32.355376   401 net.cpp:425] conv2 <- pool1
I0403 13:49:32.355396   401 net.cpp:399] conv2 -> conv2
I0403 13:49:32.370754   401 net.cpp:141] Setting up conv2
I0403 13:49:32.370797   401 net.cpp:148] Top shape: 100 256 27 27 (18662400)
I0403 13:49:32.370815   401 net.cpp:156] Memory required for data: 512959600
I0403 13:49:32.370836   401 layer_factory.hpp:77] Creating layer relu2
I0403 13:49:32.370857   401 net.cpp:91] Creating Layer relu2
I0403 13:49:32.370873   401 net.cpp:425] relu2 <- conv2
I0403 13:49:32.370892   401 net.cpp:386] relu2 -> conv2 (in-place)
I0403 13:49:32.371157   401 net.cpp:141] Setting up relu2
I0403 13:49:32.371184   401 net.cpp:148] Top shape: 100 256 27 27 (18662400)
I0403 13:49:32.371201   401 net.cpp:156] Memory required for data: 587609200
I0403 13:49:32.371215   401 layer_factory.hpp:77] Creating layer norm2
I0403 13:49:32.371237   401 net.cpp:91] Creating Layer norm2
I0403 13:49:32.371258   401 net.cpp:425] norm2 <- conv2
I0403 13:49:32.371280   401 net.cpp:399] norm2 -> norm2
I0403 13:49:32.371521   401 net.cpp:141] Setting up norm2
I0403 13:49:32.371548   401 net.cpp:148] Top shape: 100 256 27 27 (18662400)
I0403 13:49:32.371564   401 net.cpp:156] Memory required for data: 662258800
I0403 13:49:32.371580   401 layer_factory.hpp:77] Creating layer pool2
I0403 13:49:32.371599   401 net.cpp:91] Creating Layer pool2
I0403 13:49:32.371615   401 net.cpp:425] pool2 <- norm2
I0403 13:49:32.371634   401 net.cpp:399] pool2 -> pool2
I0403 13:49:32.371685   401 net.cpp:141] Setting up pool2
I0403 13:49:32.371708   401 net.cpp:148] Top shape: 100 256 13 13 (4326400)
I0403 13:49:32.371723   401 net.cpp:156] Memory required for data: 679564400
I0403 13:49:32.371739   401 layer_factory.hpp:77] Creating layer conv3
I0403 13:49:32.371762   401 net.cpp:91] Creating Layer conv3
I0403 13:49:32.371778   401 net.cpp:425] conv3 <- pool2
I0403 13:49:32.371798   401 net.cpp:399] conv3 -> conv3
I0403 13:49:32.410910   401 net.cpp:141] Setting up conv3
I0403 13:49:32.410986   401 net.cpp:148] Top shape: 100 384 13 13 (6489600)
I0403 13:49:32.411003   401 net.cpp:156] Memory required for data: 705522800
I0403 13:49:32.411029   401 layer_factory.hpp:77] Creating layer relu3
I0403 13:49:32.411051   401 net.cpp:91] Creating Layer relu3
I0403 13:49:32.411069   401 net.cpp:425] relu3 <- conv3
I0403 13:49:32.411088   401 net.cpp:386] relu3 -> conv3 (in-place)
I0403 13:49:32.411392   401 net.cpp:141] Setting up relu3
I0403 13:49:32.411420   401 net.cpp:148] Top shape: 100 384 13 13 (6489600)
I0403 13:49:32.411437   401 net.cpp:156] Memory required for data: 731481200
I0403 13:49:32.411453   401 layer_factory.hpp:77] Creating layer conv4
I0403 13:49:32.411476   401 net.cpp:91] Creating Layer conv4
I0403 13:49:32.411494   401 net.cpp:425] conv4 <- conv3
I0403 13:49:32.411520   401 net.cpp:399] conv4 -> conv4
I0403 13:49:32.442634   401 net.cpp:141] Setting up conv4
I0403 13:49:32.442677   401 net.cpp:148] Top shape: 100 384 13 13 (6489600)
I0403 13:49:32.442724   401 net.cpp:156] Memory required for data: 757439600
I0403 13:49:32.442746   401 layer_factory.hpp:77] Creating layer relu4
I0403 13:49:32.442769   401 net.cpp:91] Creating Layer relu4
I0403 13:49:32.442792   401 net.cpp:425] relu4 <- conv4
I0403 13:49:32.442811   401 net.cpp:386] relu4 -> conv4 (in-place)
I0403 13:49:32.443120   401 net.cpp:141] Setting up relu4
I0403 13:49:32.443147   401 net.cpp:148] Top shape: 100 384 13 13 (6489600)
I0403 13:49:32.443162   401 net.cpp:156] Memory required for data: 783398000
I0403 13:49:32.443178   401 layer_factory.hpp:77] Creating layer conv5
I0403 13:49:32.443203   401 net.cpp:91] Creating Layer conv5
I0403 13:49:32.443222   401 net.cpp:425] conv5 <- conv4
I0403 13:49:32.443251   401 net.cpp:399] conv5 -> conv5
I0403 13:49:32.463855   401 net.cpp:141] Setting up conv5
I0403 13:49:32.463893   401 net.cpp:148] Top shape: 100 256 13 13 (4326400)
I0403 13:49:32.463910   401 net.cpp:156] Memory required for data: 800703600
I0403 13:49:32.463933   401 layer_factory.hpp:77] Creating layer relu5
I0403 13:49:32.463955   401 net.cpp:91] Creating Layer relu5
I0403 13:49:32.463973   401 net.cpp:425] relu5 <- conv5
I0403 13:49:32.463990   401 net.cpp:386] relu5 -> conv5 (in-place)
I0403 13:49:32.464263   401 net.cpp:141] Setting up relu5
I0403 13:49:32.464289   401 net.cpp:148] Top shape: 100 256 13 13 (4326400)
I0403 13:49:32.464304   401 net.cpp:156] Memory required for data: 818009200
I0403 13:49:32.464319   401 layer_factory.hpp:77] Creating layer pool5
I0403 13:49:32.464344   401 net.cpp:91] Creating Layer pool5
I0403 13:49:32.464361   401 net.cpp:425] pool5 <- conv5
I0403 13:49:32.464380   401 net.cpp:399] pool5 -> pool5
I0403 13:49:32.464439   401 net.cpp:141] Setting up pool5
I0403 13:49:32.464462   401 net.cpp:148] Top shape: 100 256 6 6 (921600)
I0403 13:49:32.464478   401 net.cpp:156] Memory required for data: 821695600
I0403 13:49:32.464491   401 layer_factory.hpp:77] Creating layer fc6
I0403 13:49:32.464520   401 net.cpp:91] Creating Layer fc6
I0403 13:49:32.464537   401 net.cpp:425] fc6 <- pool5
I0403 13:49:32.464556   401 net.cpp:399] fc6 -> fc6
I0403 13:49:34.004397   401 net.cpp:141] Setting up fc6
I0403 13:49:34.004459   401 net.cpp:148] Top shape: 100 4096 (409600)
I0403 13:49:34.004477   401 net.cpp:156] Memory required for data: 823334000
I0403 13:49:34.004499   401 layer_factory.hpp:77] Creating layer relu6
I0403 13:49:34.004529   401 net.cpp:91] Creating Layer relu6
I0403 13:49:34.004547   401 net.cpp:425] relu6 <- fc6
I0403 13:49:34.004570   401 net.cpp:386] relu6 -> fc6 (in-place)
I0403 13:49:34.004782   401 net.cpp:141] Setting up relu6
I0403 13:49:34.004811   401 net.cpp:148] Top shape: 100 4096 (409600)
I0403 13:49:34.004825   401 net.cpp:156] Memory required for data: 824972400
I0403 13:49:34.004842   401 layer_factory.hpp:77] Creating layer drop6
I0403 13:49:34.004860   401 net.cpp:91] Creating Layer drop6
I0403 13:49:34.004875   401 net.cpp:425] drop6 <- fc6
I0403 13:49:34.004895   401 net.cpp:386] drop6 -> fc6 (in-place)
I0403 13:49:34.004948   401 net.cpp:141] Setting up drop6
I0403 13:49:34.004971   401 net.cpp:148] Top shape: 100 4096 (409600)
I0403 13:49:34.004986   401 net.cpp:156] Memory required for data: 826610800
I0403 13:49:34.005000   401 layer_factory.hpp:77] Creating layer fc7
I0403 13:49:34.005019   401 net.cpp:91] Creating Layer fc7
I0403 13:49:34.005035   401 net.cpp:425] fc7 <- fc6
I0403 13:49:34.005058   401 net.cpp:399] fc7 -> fc7
I0403 13:49:34.682449   401 net.cpp:141] Setting up fc7
I0403 13:49:34.682499   401 net.cpp:148] Top shape: 100 4096 (409600)
I0403 13:49:34.682515   401 net.cpp:156] Memory required for data: 828249200
I0403 13:49:34.682536   401 layer_factory.hpp:77] Creating layer relu7
I0403 13:49:34.682560   401 net.cpp:91] Creating Layer relu7
I0403 13:49:34.682579   401 net.cpp:425] relu7 <- fc7
I0403 13:49:34.682597   401 net.cpp:386] relu7 -> fc7 (in-place)
I0403 13:49:34.683012   401 net.cpp:141] Setting up relu7
I0403 13:49:34.683037   401 net.cpp:148] Top shape: 100 4096 (409600)
I0403 13:49:34.683082   401 net.cpp:156] Memory required for data: 829887600
I0403 13:49:34.683099   401 layer_factory.hpp:77] Creating layer drop7
I0403 13:49:34.683120   401 net.cpp:91] Creating Layer drop7
I0403 13:49:34.683135   401 net.cpp:425] drop7 <- fc7
I0403 13:49:34.683153   401 net.cpp:386] drop7 -> fc7 (in-place)
I0403 13:49:34.683193   401 net.cpp:141] Setting up drop7
I0403 13:49:34.683215   401 net.cpp:148] Top shape: 100 4096 (409600)
I0403 13:49:34.683231   401 net.cpp:156] Memory required for data: 831526000
I0403 13:49:34.683251   401 layer_factory.hpp:77] Creating layer fc8_plantvillage
I0403 13:49:34.683272   401 net.cpp:91] Creating Layer fc8_plantvillage
I0403 13:49:34.683289   401 net.cpp:425] fc8_plantvillage <- fc7
I0403 13:49:34.683308   401 net.cpp:399] fc8_plantvillage -> fc8_plantvillage
I0403 13:49:34.689813   401 net.cpp:141] Setting up fc8_plantvillage
I0403 13:49:34.689841   401 net.cpp:148] Top shape: 100 38 (3800)
I0403 13:49:34.689856   401 net.cpp:156] Memory required for data: 831541200
I0403 13:49:34.689874   401 layer_factory.hpp:77] Creating layer fc8_plantvillage_fc8_plantvillage_0_split
I0403 13:49:34.689894   401 net.cpp:91] Creating Layer fc8_plantvillage_fc8_plantvillage_0_split
I0403 13:49:34.689910   401 net.cpp:425] fc8_plantvillage_fc8_plantvillage_0_split <- fc8_plantvillage
I0403 13:49:34.689927   401 net.cpp:399] fc8_plantvillage_fc8_plantvillage_0_split -> fc8_plantvillage_fc8_plantvillage_0_split_0
I0403 13:49:34.689947   401 net.cpp:399] fc8_plantvillage_fc8_plantvillage_0_split -> fc8_plantvillage_fc8_plantvillage_0_split_1
I0403 13:49:34.689965   401 net.cpp:399] fc8_plantvillage_fc8_plantvillage_0_split -> fc8_plantvillage_fc8_plantvillage_0_split_2
I0403 13:49:34.690040   401 net.cpp:141] Setting up fc8_plantvillage_fc8_plantvillage_0_split
I0403 13:49:34.690063   401 net.cpp:148] Top shape: 100 38 (3800)
I0403 13:49:34.690079   401 net.cpp:148] Top shape: 100 38 (3800)
I0403 13:49:34.690095   401 net.cpp:148] Top shape: 100 38 (3800)
I0403 13:49:34.690109   401 net.cpp:156] Memory required for data: 831586800
I0403 13:49:34.690124   401 layer_factory.hpp:77] Creating layer prob
I0403 13:49:34.690141   401 net.cpp:91] Creating Layer prob
I0403 13:49:34.690157   401 net.cpp:425] prob <- fc8_plantvillage_fc8_plantvillage_0_split_0
I0403 13:49:34.690176   401 net.cpp:399] prob -> prob
I0403 13:49:34.690402   401 net.cpp:141] Setting up prob
I0403 13:49:34.690426   401 net.cpp:148] Top shape: 100 38 (3800)
I0403 13:49:34.690441   401 net.cpp:156] Memory required for data: 831602000
I0403 13:49:34.690456   401 layer_factory.hpp:77] Creating layer hdf5out
I0403 13:49:34.690486   401 net.cpp:91] Creating Layer hdf5out
I0403 13:49:34.690503   401 net.cpp:425] hdf5out <- prob
I0403 13:49:34.690520   401 net.cpp:425] hdf5out <- label_data_1_split_0
I0403 13:49:34.692636   401 net.cpp:141] Setting up hdf5out
…
