…
I0403 13:54:38.825906   508 net.cpp:313] The NetState phase (1) differed from the phase (0) specified by a rule in layer data
I0403 13:54:38.826190   508 net.cpp:49] Initializing net from parameters: 
state {
  phase: TEST
}
layer {
  name: "data"
  type: "Data"
  top: "data"
  top: "label"
  include {
    phase: TEST
  }
  transform_param {
    crop_size: 227
    mean_file: "/home/mohanty/data/final_dataset/lmdb/segmented-20-80/mean.binaryproto"
  }
  data_param {
    source: "/home/mohanty/data/final_dataset/lmdb/segmented-20-80/test_db"
    batch_size: 100
    backend: LMDB
  }
}
layer {
  name: "conv1"
  type: "Convolution"
  bottom: "data"
  top: "conv1"
  param {
    lr_mult: 1
    decay_mult: 1
  }
  param {
    lr_mult: 2
    decay_mult: 0
  }
  convolution_param {
    num_output: 96
    kernel_size: 11
    stride: 4
    weight_filler {
      type: "gaussian"
      std: 0.01
    }
    bias_filler {
      type: "constant"
      value: 0
    }
  }
}
layer {
  name: "relu1"
  type: "ReLU"
  bottom: "conv1"
  top: "conv1"
}
layer {
  name: "norm1"
  type: "LRN"
  bottom: "conv1"
  top: "norm1"
  lrn_param {
    local_size: 5
    alpha: 0.0001
    beta: 0.75
  }
}
layer {
  name: "pool1"
  type: "Pooling"
  bottom: "norm1"
  top: "pool1"
  pooling_param {
    pool: MAX
    kernel_size: 3
    stride: 2
  }
}
layer {
  name: "conv2"
  type: "Convolution"
  bottom: "pool1"
  top: "conv2"
  param {
    lr_mult: 1
    decay_mult: 1
  }
  param {
    lr_mult: 2
    decay_mult: 0
  }
  convolution_param {
    num_output: 256
    pad: 2
    kernel_size: 5
    group: 2
    weight_filler {
      type: "gaussian"
      std: 0.01
    }
    bias_filler {
      type: "constant"
      value: 0.1
    }
  }
}
layer {
  name: "relu2"
  type: "ReLU"
  bottom: "conv2"
  top: "conv2"
}
layer {
  name: "norm2"
  type: "LRN"
  bottom: "conv2"
  top: "norm2"
  lrn_param {
    local_size: 5
    alpha: 0.0001
    beta: 0.75
  }
}
layer {
  name: "pool2"
  type: "Pooling"
  bottom: "norm2"
  top: "pool2"
  pooling_param {
    pool: MAX
    kernel_size: 3
    stride: 2
  }
}
layer {
  name: "conv3"
  type: "Convolution"
  bottom: "pool2"
  top: "conv3"
  param {
    lr_mult: 1
    decay_mult: 1
  }
  param {
    lr_mult: 2
    decay_mult: 0
  }
  convolution_param {
    num_output: 384
    pad: 1
    kernel_size: 3
    weight_filler {
      type: "gaussian"
      std: 0.01
    }
    bias_filler {
      type: "constant"
      value: 0
    }
  }
}
layer {
  name: "relu3"
  type: "ReLU"
  bottom: "conv3"
  top: "conv3"
}
layer {
  name: "conv4"
  type: "Convolution"
  bottom: "conv3"
  top: "conv4"
  param {
    lr_mult: 1
    decay_mult: 1
  }
  param {
    lr_mult: 2
    decay_mult: 0
  }
  convolution_param {
    num_output: 384
    pad: 1
    kernel_size: 3
    group: 2
    weight_filler {
      type: "gaussian"
      std: 0.01
    }
    bias_filler {
      type: "constant"
      value: 0.1
    }
  }
}
layer {
  name: "relu4"
  type: "ReLU"
  bottom: "conv4"
  top: "conv4"
}
layer {
  name: "conv5"
  type: "Convolution"
  bottom: "conv4"
  top: "conv5"
  param {
    lr_mult: 1
    decay_mult: 1
  }
  param {
    lr_mult: 2
    decay_mult: 0
  }
  convolution_param {
    num_output: 256
    pad: 1
    kernel_size: 3
    group: 2
    weight_filler {
      type: "gaussian"
      std: 0.01
    }
    bias_filler {
      type: "constant"
      value: 0.1
    }
  }
}
layer {
  name: "relu5"
  type: "ReLU"
  bottom: "conv5"
  top: "conv5"
}
layer {
  name: "pool5"
  type: "Pooling"
  bottom: "conv5"
  top: "pool5"
  pooling_param {
    pool: MAX
    kernel_size: 3
    stride: 2
  }
}
layer {
  name: "fc6"
  type: "InnerProduct"
  bottom: "pool5"
  top: "fc6"
  param {
    lr_mult: 1
    decay_mult: 1
  }
  param {
    lr_mult: 2
    decay_mult: 0
  }
  inner_product_param {
    num_output: 4096
    weight_filler {
      type: "gaussian"
      std: 0.005
    }
    bias_filler {
      type: "constant"
      value: 0.1
    }
  }
}
layer {
  name: "relu6"
  type: "ReLU"
  bottom: "fc6"
  top: "fc6"
}
layer {
  name: "drop6"
  type: "Dropout"
  bottom: "fc6"
  top: "fc6"
  dropout_param {
    dropout_ratio: 0.5
  }
}
layer {
  name: "fc7"
  type: "InnerProduct"
  bottom: "fc6"
  top: "fc7"
  param {
    lr_mult: 1
    decay_mult: 1
  }
  param {
    lr_mult: 2
    decay_mult: 0
  }
  inner_product_param {
    num_output: 4096
    weight_filler {
      type: "gaussian"
      std: 0.005
    }
    bias_filler {
      type: "constant"
      value: 0.1
    }
  }
}
layer {
  name: "relu7"
  type: "ReLU"
  bottom: "fc7"
  top: "fc7"
}
layer {
  name: "drop7"
  type: "Dropout"
  bottom: "fc7"
  top: "fc7"
  dropout_param {
    dropout_ratio: 0.5
  }
}
layer {
  name: "fc8_plantvillage"
  type: "InnerProduct"
  bottom: "fc7"
  top: "fc8_plantvillage"
  param {
    lr_mult: 1
    decay_mult: 1
  }
  param {
    lr_mult: 2
    decay_mult: 0
  }
  inner_product_param {
    num_output: 38
    weight_filler {
      type: "gaussian"
      std: 0.01
    }
    bias_filler {
      type: "constant"
      value: 0
    }
  }
}
layer {
  name: "prob"
  type: "Softmax"
  bottom: "fc8_plantvillage"
  top: "prob"
  include {
    phase: TEST
  }
}
layer {
  name: "hdf5out"
  type: "HDF5Output"
  bottom: "prob"
  bottom: "label"
  include {
    phase: TEST
  }
  hdf5_output_param {
    file_name: "hdf5_dumps/iter_2332.h5"
  }
}
layer {
  name: "loss"
  type: "SoftmaxWithLoss"
  bottom: "fc8_plantvillage"
  bottom: "label"
  top: "loss"
}
layer {
  name: "accuracy"
  type: "Accuracy"
  bottom: "fc8_plantvillage"
  bottom: "label"
  top: "accuracy"
  include {
    phase: TEST
  }
}
I0403 13:54:38.826815   508 layer_factory.hpp:77] Creating layer data
I0403 13:54:38.827482   508 net.cpp:91] Creating Layer data
I0403 13:54:38.827515   508 net.cpp:399] data -> data
I0403 13:54:38.827565   508 net.cpp:399] data -> label
I0403 13:54:38.827602   508 data_transformer.cpp:25] Loading mean file from: /home/mohanty/data/final_dataset/lmdb/segmented-20-80/mean.binaryproto
I0403 13:54:38.833269   513 db_lmdb.cpp:38] Opened lmdb /home/mohanty/data/final_dataset/lmdb/segmented-20-80/test_db
I0403 13:54:38.841866   508 data_layer.cpp:41] output data size: 100,3,227,227
I0403 13:54:38.960585   508 net.cpp:141] Setting up data
I0403 13:54:38.960687   508 net.cpp:148] Top shape: 100 3 227 227 (15458700)
I0403 13:54:38.960711   508 net.cpp:148] Top shape: 100 (100)
I0403 13:54:38.960727   508 net.cpp:156] Memory required for data: 61835200
I0403 13:54:38.960754   508 layer_factory.hpp:77] Creating layer label_data_1_split
I0403 13:54:38.960779   508 net.cpp:91] Creating Layer label_data_1_split
I0403 13:54:38.960798   508 net.cpp:425] label_data_1_split <- label
I0403 13:54:38.960829   508 net.cpp:399] label_data_1_split -> label_data_1_split_0
I0403 13:54:38.960856   508 net.cpp:399] label_data_1_split -> label_data_1_split_1
I0403 13:54:38.960877   508 net.cpp:399] label_data_1_split -> label_data_1_split_2
I0403 13:54:38.960940   508 net.cpp:141] Setting up label_data_1_split
I0403 13:54:38.960964   508 net.cpp:148] Top shape: 100 (100)
I0403 13:54:38.960980   508 net.cpp:148] Top shape: 100 (100)
I0403 13:54:38.960997   508 net.cpp:148] Top shape: 100 (100)
I0403 13:54:38.961011   508 net.cpp:156] Memory required for data: 61836400
I0403 13:54:38.961026   508 layer_factory.hpp:77] Creating layer conv1
I0403 13:54:38.961058   508 net.cpp:91] Creating Layer conv1
I0403 13:54:38.961077   508 net.cpp:425] conv1 <- data
I0403 13:54:38.961097   508 net.cpp:399] conv1 -> conv1
I0403 13:54:39.103657   508 net.cpp:141] Setting up conv1
I0403 13:54:39.103744   508 net.cpp:148] Top shape: 100 96 55 55 (29040000)
I0403 13:54:39.103762   508 net.cpp:156] Memory required for data: 177996400
I0403 13:54:39.103816   508 layer_factory.hpp:77] Creating layer relu1
I0403 13:54:39.103847   508 net.cpp:91] Creating Layer relu1
I0403 13:54:39.103866   508 net.cpp:425] relu1 <- conv1
I0403 13:54:39.103885   508 net.cpp:386] relu1 -> conv1 (in-place)
I0403 13:54:39.104151   508 net.cpp:141] Setting up relu1
I0403 13:54:39.104182   508 net.cpp:148] Top shape: 100 96 55 55 (29040000)
I0403 13:54:39.104229   508 net.cpp:156] Memory required for data: 294156400
I0403 13:54:39.104252   508 layer_factory.hpp:77] Creating layer norm1
I0403 13:54:39.104280   508 net.cpp:91] Creating Layer norm1
I0403 13:54:39.104300   508 net.cpp:425] norm1 <- conv1
I0403 13:54:39.104318   508 net.cpp:399] norm1 -> norm1
I0403 13:54:39.104640   508 net.cpp:141] Setting up norm1
I0403 13:54:39.104670   508 net.cpp:148] Top shape: 100 96 55 55 (29040000)
I0403 13:54:39.104686   508 net.cpp:156] Memory required for data: 410316400
I0403 13:54:39.104702   508 layer_factory.hpp:77] Creating layer pool1
I0403 13:54:39.104728   508 net.cpp:91] Creating Layer pool1
I0403 13:54:39.104746   508 net.cpp:425] pool1 <- norm1
I0403 13:54:39.104765   508 net.cpp:399] pool1 -> pool1
I0403 13:54:39.104833   508 net.cpp:141] Setting up pool1
I0403 13:54:39.104857   508 net.cpp:148] Top shape: 100 96 27 27 (6998400)
I0403 13:54:39.104873   508 net.cpp:156] Memory required for data: 438310000
I0403 13:54:39.104888   508 layer_factory.hpp:77] Creating layer conv2
I0403 13:54:39.104914   508 net.cpp:91] Creating Layer conv2
I0403 13:54:39.104931   508 net.cpp:425] conv2 <- pool1
I0403 13:54:39.104951   508 net.cpp:399] conv2 -> conv2
I0403 13:54:39.120615   508 net.cpp:141] Setting up conv2
I0403 13:54:39.120674   508 net.cpp:148] Top shape: 100 256 27 27 (18662400)
I0403 13:54:39.120694   508 net.cpp:156] Memory required for data: 512959600
I0403 13:54:39.120723   508 layer_factory.hpp:77] Creating layer relu2
I0403 13:54:39.120744   508 net.cpp:91] Creating Layer relu2
I0403 13:54:39.120764   508 net.cpp:425] relu2 <- conv2
I0403 13:54:39.120782   508 net.cpp:386] relu2 -> conv2 (in-place)
I0403 13:54:39.121115   508 net.cpp:141] Setting up relu2
I0403 13:54:39.121145   508 net.cpp:148] Top shape: 100 256 27 27 (18662400)
I0403 13:54:39.121166   508 net.cpp:156] Memory required for data: 587609200
I0403 13:54:39.121183   508 layer_factory.hpp:77] Creating layer norm2
I0403 13:54:39.121206   508 net.cpp:91] Creating Layer norm2
I0403 13:54:39.121222   508 net.cpp:425] norm2 <- conv2
I0403 13:54:39.121248   508 net.cpp:399] norm2 -> norm2
I0403 13:54:39.121459   508 net.cpp:141] Setting up norm2
I0403 13:54:39.121486   508 net.cpp:148] Top shape: 100 256 27 27 (18662400)
I0403 13:54:39.121503   508 net.cpp:156] Memory required for data: 662258800
I0403 13:54:39.121520   508 layer_factory.hpp:77] Creating layer pool2
I0403 13:54:39.121541   508 net.cpp:91] Creating Layer pool2
I0403 13:54:39.121557   508 net.cpp:425] pool2 <- norm2
I0403 13:54:39.121575   508 net.cpp:399] pool2 -> pool2
I0403 13:54:39.121634   508 net.cpp:141] Setting up pool2
I0403 13:54:39.121657   508 net.cpp:148] Top shape: 100 256 13 13 (4326400)
I0403 13:54:39.121672   508 net.cpp:156] Memory required for data: 679564400
I0403 13:54:39.121687   508 layer_factory.hpp:77] Creating layer conv3
I0403 13:54:39.121712   508 net.cpp:91] Creating Layer conv3
I0403 13:54:39.121731   508 net.cpp:425] conv3 <- pool2
I0403 13:54:39.121753   508 net.cpp:399] conv3 -> conv3
I0403 13:54:39.160817   508 net.cpp:141] Setting up conv3
I0403 13:54:39.160886   508 net.cpp:148] Top shape: 100 384 13 13 (6489600)
I0403 13:54:39.160903   508 net.cpp:156] Memory required for data: 705522800
I0403 13:54:39.160950   508 layer_factory.hpp:77] Creating layer relu3
I0403 13:54:39.160982   508 net.cpp:91] Creating Layer relu3
I0403 13:54:39.161001   508 net.cpp:425] relu3 <- conv3
I0403 13:54:39.161020   508 net.cpp:386] relu3 -> conv3 (in-place)
I0403 13:54:39.161309   508 net.cpp:141] Setting up relu3
I0403 13:54:39.161335   508 net.cpp:148] Top shape: 100 384 13 13 (6489600)
I0403 13:54:39.161351   508 net.cpp:156] Memory required for data: 731481200
I0403 13:54:39.161367   508 layer_factory.hpp:77] Creating layer conv4
I0403 13:54:39.161392   508 net.cpp:91] Creating Layer conv4
I0403 13:54:39.161411   508 net.cpp:425] conv4 <- conv3
I0403 13:54:39.161432   508 net.cpp:399] conv4 -> conv4
I0403 13:54:39.192510   508 net.cpp:141] Setting up conv4
I0403 13:54:39.192582   508 net.cpp:148] Top shape: 100 384 13 13 (6489600)
I0403 13:54:39.192636   508 net.cpp:156] Memory required for data: 757439600
I0403 13:54:39.192658   508 layer_factory.hpp:77] Creating layer relu4
I0403 13:54:39.192682   508 net.cpp:91] Creating Layer relu4
I0403 13:54:39.192700   508 net.cpp:425] relu4 <- conv4
I0403 13:54:39.192723   508 net.cpp:386] relu4 -> conv4 (in-place)
I0403 13:54:39.193012   508 net.cpp:141] Setting up relu4
I0403 13:54:39.193040   508 net.cpp:148] Top shape: 100 384 13 13 (6489600)
I0403 13:54:39.193058   508 net.cpp:156] Memory required for data: 783398000
I0403 13:54:39.193073   508 layer_factory.hpp:77] Creating layer conv5
I0403 13:54:39.193100   508 net.cpp:91] Creating Layer conv5
I0403 13:54:39.193120   508 net.cpp:425] conv5 <- conv4
I0403 13:54:39.193143   508 net.cpp:399] conv5 -> conv5
I0403 13:54:39.214704   508 net.cpp:141] Setting up conv5
I0403 13:54:39.214773   508 net.cpp:148] Top shape: 100 256 13 13 (4326400)
I0403 13:54:39.214792   508 net.cpp:156] Memory required for data: 800703600
I0403 13:54:39.214819   508 layer_factory.hpp:77] Creating layer relu5
I0403 13:54:39.214881   508 net.cpp:91] Creating Layer relu5
I0403 13:54:39.214905   508 net.cpp:425] relu5 <- conv5
I0403 13:54:39.214925   508 net.cpp:386] relu5 -> conv5 (in-place)
I0403 13:54:39.215211   508 net.cpp:141] Setting up relu5
I0403 13:54:39.215245   508 net.cpp:148] Top shape: 100 256 13 13 (4326400)
I0403 13:54:39.215262   508 net.cpp:156] Memory required for data: 818009200
I0403 13:54:39.215277   508 layer_factory.hpp:77] Creating layer pool5
I0403 13:54:39.215303   508 net.cpp:91] Creating Layer pool5
I0403 13:54:39.215320   508 net.cpp:425] pool5 <- conv5
I0403 13:54:39.215339   508 net.cpp:399] pool5 -> pool5
I0403 13:54:39.215420   508 net.cpp:141] Setting up pool5
I0403 13:54:39.215443   508 net.cpp:148] Top shape: 100 256 6 6 (921600)
I0403 13:54:39.215458   508 net.cpp:156] Memory required for data: 821695600
I0403 13:54:39.215473   508 layer_factory.hpp:77] Creating layer fc6
I0403 13:54:39.215502   508 net.cpp:91] Creating Layer fc6
I0403 13:54:39.215520   508 net.cpp:425] fc6 <- pool5
I0403 13:54:39.215539   508 net.cpp:399] fc6 -> fc6
I0403 13:54:40.761973   508 net.cpp:141] Setting up fc6
I0403 13:54:40.762051   508 net.cpp:148] Top shape: 100 4096 (409600)
I0403 13:54:40.762068   508 net.cpp:156] Memory required for data: 823334000
I0403 13:54:40.762087   508 layer_factory.hpp:77] Creating layer relu6
I0403 13:54:40.762109   508 net.cpp:91] Creating Layer relu6
I0403 13:54:40.762125   508 net.cpp:425] relu6 <- fc6
I0403 13:54:40.762146   508 net.cpp:386] relu6 -> fc6 (in-place)
I0403 13:54:40.762372   508 net.cpp:141] Setting up relu6
I0403 13:54:40.762397   508 net.cpp:148] Top shape: 100 4096 (409600)
I0403 13:54:40.762411   508 net.cpp:156] Memory required for data: 824972400
I0403 13:54:40.762425   508 layer_factory.hpp:77] Creating layer drop6
I0403 13:54:40.762446   508 net.cpp:91] Creating Layer drop6
I0403 13:54:40.762462   508 net.cpp:425] drop6 <- fc6
I0403 13:54:40.762480   508 net.cpp:386] drop6 -> fc6 (in-place)
I0403 13:54:40.762528   508 net.cpp:141] Setting up drop6
I0403 13:54:40.762553   508 net.cpp:148] Top shape: 100 4096 (409600)
I0403 13:54:40.762567   508 net.cpp:156] Memory required for data: 826610800
I0403 13:54:40.762583   508 layer_factory.hpp:77] Creating layer fc7
I0403 13:54:40.762601   508 net.cpp:91] Creating Layer fc7
I0403 13:54:40.762616   508 net.cpp:425] fc7 <- fc6
I0403 13:54:40.762635   508 net.cpp:399] fc7 -> fc7
I0403 13:54:41.453955   508 net.cpp:141] Setting up fc7
I0403 13:54:41.454027   508 net.cpp:148] Top shape: 100 4096 (409600)
I0403 13:54:41.454044   508 net.cpp:156] Memory required for data: 828249200
I0403 13:54:41.454066   508 layer_factory.hpp:77] Creating layer relu7
I0403 13:54:41.454087   508 net.cpp:91] Creating Layer relu7
I0403 13:54:41.454104   508 net.cpp:425] relu7 <- fc7
I0403 13:54:41.454124   508 net.cpp:386] relu7 -> fc7 (in-place)
I0403 13:54:41.454546   508 net.cpp:141] Setting up relu7
I0403 13:54:41.454572   508 net.cpp:148] Top shape: 100 4096 (409600)
I0403 13:54:41.454613   508 net.cpp:156] Memory required for data: 829887600
I0403 13:54:41.454629   508 layer_factory.hpp:77] Creating layer drop7
I0403 13:54:41.454648   508 net.cpp:91] Creating Layer drop7
I0403 13:54:41.454663   508 net.cpp:425] drop7 <- fc7
I0403 13:54:41.454681   508 net.cpp:386] drop7 -> fc7 (in-place)
I0403 13:54:41.454726   508 net.cpp:141] Setting up drop7
I0403 13:54:41.454748   508 net.cpp:148] Top shape: 100 4096 (409600)
I0403 13:54:41.454762   508 net.cpp:156] Memory required for data: 831526000
I0403 13:54:41.454777   508 layer_factory.hpp:77] Creating layer fc8_plantvillage
I0403 13:54:41.454795   508 net.cpp:91] Creating Layer fc8_plantvillage
I0403 13:54:41.454810   508 net.cpp:425] fc8_plantvillage <- fc7
I0403 13:54:41.454830   508 net.cpp:399] fc8_plantvillage -> fc8_plantvillage
I0403 13:54:41.461367   508 net.cpp:141] Setting up fc8_plantvillage
I0403 13:54:41.461398   508 net.cpp:148] Top shape: 100 38 (3800)
I0403 13:54:41.461416   508 net.cpp:156] Memory required for data: 831541200
I0403 13:54:41.461433   508 layer_factory.hpp:77] Creating layer fc8_plantvillage_fc8_plantvillage_0_split
I0403 13:54:41.461452   508 net.cpp:91] Creating Layer fc8_plantvillage_fc8_plantvillage_0_split
I0403 13:54:41.461468   508 net.cpp:425] fc8_plantvillage_fc8_plantvillage_0_split <- fc8_plantvillage
I0403 13:54:41.461485   508 net.cpp:399] fc8_plantvillage_fc8_plantvillage_0_split -> fc8_plantvillage_fc8_plantvillage_0_split_0
I0403 13:54:41.461506   508 net.cpp:399] fc8_plantvillage_fc8_plantvillage_0_split -> fc8_plantvillage_fc8_plantvillage_0_split_1
I0403 13:54:41.461526   508 net.cpp:399] fc8_plantvillage_fc8_plantvillage_0_split -> fc8_plantvillage_fc8_plantvillage_0_split_2
I0403 13:54:41.461601   508 net.cpp:141] Setting up fc8_plantvillage_fc8_plantvillage_0_split
I0403 13:54:41.461624   508 net.cpp:148] Top shape: 100 38 (3800)
I0403 13:54:41.461640   508 net.cpp:148] Top shape: 100 38 (3800)
I0403 13:54:41.461655   508 net.cpp:148] Top shape: 100 38 (3800)
I0403 13:54:41.461668   508 net.cpp:156] Memory required for data: 831586800
I0403 13:54:41.461683   508 layer_factory.hpp:77] Creating layer prob
I0403 13:54:41.461699   508 net.cpp:91] Creating Layer prob
I0403 13:54:41.461714   508 net.cpp:425] prob <- fc8_plantvillage_fc8_plantvillage_0_split_0
I0403 13:54:41.461731   508 net.cpp:399] prob -> prob
I0403 13:54:41.461949   508 net.cpp:141] Setting up prob
I0403 13:54:41.461973   508 net.cpp:148] Top shape: 100 38 (3800)
I0403 13:54:41.461987   508 net.cpp:156] Memory required for data: 831602000
I0403 13:54:41.462002   508 layer_factory.hpp:77] Creating layer hdf5out
I0403 13:54:41.462020   508 net.cpp:91] Creating Layer hdf5out
I0403 13:54:41.462035   508 net.cpp:425] hdf5out <- prob
I0403 13:54:41.462054   508 net.cpp:425] hdf5out <- label_data_1_split_0
I0403 13:54:41.464313   508 net.cpp:141] Setting up hdf5out
…
