…
I0403 13:35:27.410105 32592 net.cpp:313] The NetState phase (1) differed from the phase (0) specified by a rule in layer data
I0403 13:35:27.410421 32592 net.cpp:49] Initializing net from parameters: 
state {
  phase: TEST
}
layer {
  name: "data"
  type: "Data"
  top: "data"
  top: "label"
  include {
    phase: TEST
  }
  transform_param {
    crop_size: 227
    mean_file: "/home/mohanty/data/final_dataset/lmdb/segmented-20-80/mean.binaryproto"
  }
  data_param {
    source: "/home/mohanty/data/final_dataset/lmdb/segmented-20-80/test_db"
    batch_size: 100
    backend: LMDB
  }
}
layer {
  name: "conv1"
  type: "Convolution"
  bottom: "data"
  top: "conv1"
  param {
    lr_mult: 1
    decay_mult: 1
  }
  param {
    lr_mult: 2
    decay_mult: 0
  }
  convolution_param {
    num_output: 96
    kernel_size: 11
    stride: 4
    weight_filler {
      type: "gaussian"
      std: 0.01
    }
    bias_filler {
      type: "constant"
      value: 0
    }
  }
}
layer {
  name: "relu1"
  type: "ReLU"
  bottom: "conv1"
  top: "conv1"
}
layer {
  name: "norm1"
  type: "LRN"
  bottom: "conv1"
  top: "norm1"
  lrn_param {
    local_size: 5
    alpha: 0.0001
    beta: 0.75
  }
}
layer {
  name: "pool1"
  type: "Pooling"
  bottom: "norm1"
  top: "pool1"
  pooling_param {
    pool: MAX
    kernel_size: 3
    stride: 2
  }
}
layer {
  name: "conv2"
  type: "Convolution"
  bottom: "pool1"
  top: "conv2"
  param {
    lr_mult: 1
    decay_mult: 1
  }
  param {
    lr_mult: 2
    decay_mult: 0
  }
  convolution_param {
    num_output: 256
    pad: 2
    kernel_size: 5
    group: 2
    weight_filler {
      type: "gaussian"
      std: 0.01
    }
    bias_filler {
      type: "constant"
      value: 0.1
    }
  }
}
layer {
  name: "relu2"
  type: "ReLU"
  bottom: "conv2"
  top: "conv2"
}
layer {
  name: "norm2"
  type: "LRN"
  bottom: "conv2"
  top: "norm2"
  lrn_param {
    local_size: 5
    alpha: 0.0001
    beta: 0.75
  }
}
layer {
  name: "pool2"
  type: "Pooling"
  bottom: "norm2"
  top: "pool2"
  pooling_param {
    pool: MAX
    kernel_size: 3
    stride: 2
  }
}
layer {
  name: "conv3"
  type: "Convolution"
  bottom: "pool2"
  top: "conv3"
  param {
    lr_mult: 1
    decay_mult: 1
  }
  param {
    lr_mult: 2
    decay_mult: 0
  }
  convolution_param {
    num_output: 384
    pad: 1
    kernel_size: 3
    weight_filler {
      type: "gaussian"
      std: 0.01
    }
    bias_filler {
      type: "constant"
      value: 0
    }
  }
}
layer {
  name: "relu3"
  type: "ReLU"
  bottom: "conv3"
  top: "conv3"
}
layer {
  name: "conv4"
  type: "Convolution"
  bottom: "conv3"
  top: "conv4"
  param {
    lr_mult: 1
    decay_mult: 1
  }
  param {
    lr_mult: 2
    decay_mult: 0
  }
  convolution_param {
    num_output: 384
    pad: 1
    kernel_size: 3
    group: 2
    weight_filler {
      type: "gaussian"
      std: 0.01
    }
    bias_filler {
      type: "constant"
      value: 0.1
    }
  }
}
layer {
  name: "relu4"
  type: "ReLU"
  bottom: "conv4"
  top: "conv4"
}
layer {
  name: "conv5"
  type: "Convolution"
  bottom: "conv4"
  top: "conv5"
  param {
    lr_mult: 1
    decay_mult: 1
  }
  param {
    lr_mult: 2
    decay_mult: 0
  }
  convolution_param {
    num_output: 256
    pad: 1
    kernel_size: 3
    group: 2
    weight_filler {
      type: "gaussian"
      std: 0.01
    }
    bias_filler {
      type: "constant"
      value: 0.1
    }
  }
}
layer {
  name: "relu5"
  type: "ReLU"
  bottom: "conv5"
  top: "conv5"
}
layer {
  name: "pool5"
  type: "Pooling"
  bottom: "conv5"
  top: "pool5"
  pooling_param {
    pool: MAX
    kernel_size: 3
    stride: 2
  }
}
layer {
  name: "fc6"
  type: "InnerProduct"
  bottom: "pool5"
  top: "fc6"
  param {
    lr_mult: 1
    decay_mult: 1
  }
  param {
    lr_mult: 2
    decay_mult: 0
  }
  inner_product_param {
    num_output: 4096
    weight_filler {
      type: "gaussian"
      std: 0.005
    }
    bias_filler {
      type: "constant"
      value: 0.1
    }
  }
}
layer {
  name: "relu6"
  type: "ReLU"
  bottom: "fc6"
  top: "fc6"
}
layer {
  name: "drop6"
  type: "Dropout"
  bottom: "fc6"
  top: "fc6"
  dropout_param {
    dropout_ratio: 0.5
  }
}
layer {
  name: "fc7"
  type: "InnerProduct"
  bottom: "fc6"
  top: "fc7"
  param {
    lr_mult: 1
    decay_mult: 1
  }
  param {
    lr_mult: 2
    decay_mult: 0
  }
  inner_product_param {
    num_output: 4096
    weight_filler {
      type: "gaussian"
      std: 0.005
    }
    bias_filler {
      type: "constant"
      value: 0.1
    }
  }
}
layer {
  name: "relu7"
  type: "ReLU"
  bottom: "fc7"
  top: "fc7"
}
layer {
  name: "drop7"
  type: "Dropout"
  bottom: "fc7"
  top: "fc7"
  dropout_param {
    dropout_ratio: 0.5
  }
}
layer {
  name: "fc8_plantvillage"
  type: "InnerProduct"
  bottom: "fc7"
  top: "fc8_plantvillage"
  param {
    lr_mult: 1
    decay_mult: 1
  }
  param {
    lr_mult: 2
    decay_mult: 0
  }
  inner_product_param {
    num_output: 38
    weight_filler {
      type: "gaussian"
      std: 0.01
    }
    bias_filler {
      type: "constant"
      value: 0
    }
  }
}
layer {
  name: "prob"
  type: "Softmax"
  bottom: "fc8_plantvillage"
  top: "prob"
  include {
    phase: TEST
  }
}
layer {
  name: "hdf5out"
  type: "HDF5Output"
  bottom: "prob"
  bottom: "label"
  include {
    phase: TEST
  }
  hdf5_output_param {
    file_name: "hdf5_dumps/iter_742.h5"
  }
}
layer {
  name: "loss"
  type: "SoftmaxWithLoss"
  bottom: "fc8_plantvillage"
  bottom: "label"
  top: "loss"
}
layer {
  name: "accuracy"
  type: "Accuracy"
  bottom: "fc8_plantvillage"
  bottom: "label"
  top: "accuracy"
  include {
    phase: TEST
  }
}
I0403 13:35:27.410979 32592 layer_factory.hpp:77] Creating layer data
I0403 13:35:27.411617 32592 net.cpp:91] Creating Layer data
I0403 13:35:27.411651 32592 net.cpp:399] data -> data
I0403 13:35:27.411701 32592 net.cpp:399] data -> label
I0403 13:35:27.411738 32592 data_transformer.cpp:25] Loading mean file from: /home/mohanty/data/final_dataset/lmdb/segmented-20-80/mean.binaryproto
I0403 13:35:27.417181 32595 db_lmdb.cpp:38] Opened lmdb /home/mohanty/data/final_dataset/lmdb/segmented-20-80/test_db
I0403 13:35:27.426509 32592 data_layer.cpp:41] output data size: 100,3,227,227
I0403 13:35:27.548735 32592 net.cpp:141] Setting up data
I0403 13:35:27.548802 32592 net.cpp:148] Top shape: 100 3 227 227 (15458700)
I0403 13:35:27.548827 32592 net.cpp:148] Top shape: 100 (100)
I0403 13:35:27.548843 32592 net.cpp:156] Memory required for data: 61835200
I0403 13:35:27.548873 32592 layer_factory.hpp:77] Creating layer label_data_1_split
I0403 13:35:27.548898 32592 net.cpp:91] Creating Layer label_data_1_split
I0403 13:35:27.548920 32592 net.cpp:425] label_data_1_split <- label
I0403 13:35:27.548952 32592 net.cpp:399] label_data_1_split -> label_data_1_split_0
I0403 13:35:27.548980 32592 net.cpp:399] label_data_1_split -> label_data_1_split_1
I0403 13:35:27.549001 32592 net.cpp:399] label_data_1_split -> label_data_1_split_2
I0403 13:35:27.549067 32592 net.cpp:141] Setting up label_data_1_split
I0403 13:35:27.549093 32592 net.cpp:148] Top shape: 100 (100)
I0403 13:35:27.549110 32592 net.cpp:148] Top shape: 100 (100)
I0403 13:35:27.549126 32592 net.cpp:148] Top shape: 100 (100)
I0403 13:35:27.549141 32592 net.cpp:156] Memory required for data: 61836400
I0403 13:35:27.549157 32592 layer_factory.hpp:77] Creating layer conv1
I0403 13:35:27.549191 32592 net.cpp:91] Creating Layer conv1
I0403 13:35:27.549211 32592 net.cpp:425] conv1 <- data
I0403 13:35:27.549232 32592 net.cpp:399] conv1 -> conv1
I0403 13:35:27.693282 32592 net.cpp:141] Setting up conv1
I0403 13:35:27.693372 32592 net.cpp:148] Top shape: 100 96 55 55 (29040000)
I0403 13:35:27.693389 32592 net.cpp:156] Memory required for data: 177996400
I0403 13:35:27.693423 32592 layer_factory.hpp:77] Creating layer relu1
I0403 13:35:27.693450 32592 net.cpp:91] Creating Layer relu1
I0403 13:35:27.693470 32592 net.cpp:425] relu1 <- conv1
I0403 13:35:27.693488 32592 net.cpp:386] relu1 -> conv1 (in-place)
I0403 13:35:27.693747 32592 net.cpp:141] Setting up relu1
I0403 13:35:27.693774 32592 net.cpp:148] Top shape: 100 96 55 55 (29040000)
I0403 13:35:27.693822 32592 net.cpp:156] Memory required for data: 294156400
I0403 13:35:27.693840 32592 layer_factory.hpp:77] Creating layer norm1
I0403 13:35:27.693931 32592 net.cpp:91] Creating Layer norm1
I0403 13:35:27.693950 32592 net.cpp:425] norm1 <- conv1
I0403 13:35:27.693969 32592 net.cpp:399] norm1 -> norm1
I0403 13:35:27.694289 32592 net.cpp:141] Setting up norm1
I0403 13:35:27.694317 32592 net.cpp:148] Top shape: 100 96 55 55 (29040000)
I0403 13:35:27.694334 32592 net.cpp:156] Memory required for data: 410316400
I0403 13:35:27.694350 32592 layer_factory.hpp:77] Creating layer pool1
I0403 13:35:27.694372 32592 net.cpp:91] Creating Layer pool1
I0403 13:35:27.694391 32592 net.cpp:425] pool1 <- norm1
I0403 13:35:27.694409 32592 net.cpp:399] pool1 -> pool1
I0403 13:35:27.694475 32592 net.cpp:141] Setting up pool1
I0403 13:35:27.694499 32592 net.cpp:148] Top shape: 100 96 27 27 (6998400)
I0403 13:35:27.694514 32592 net.cpp:156] Memory required for data: 438310000
I0403 13:35:27.694530 32592 layer_factory.hpp:77] Creating layer conv2
I0403 13:35:27.694555 32592 net.cpp:91] Creating Layer conv2
I0403 13:35:27.694571 32592 net.cpp:425] conv2 <- pool1
I0403 13:35:27.694591 32592 net.cpp:399] conv2 -> conv2
I0403 13:35:27.709890 32592 net.cpp:141] Setting up conv2
I0403 13:35:27.709934 32592 net.cpp:148] Top shape: 100 256 27 27 (18662400)
I0403 13:35:27.709954 32592 net.cpp:156] Memory required for data: 512959600
I0403 13:35:27.709978 32592 layer_factory.hpp:77] Creating layer relu2
I0403 13:35:27.710000 32592 net.cpp:91] Creating Layer relu2
I0403 13:35:27.710016 32592 net.cpp:425] relu2 <- conv2
I0403 13:35:27.710036 32592 net.cpp:386] relu2 -> conv2 (in-place)
I0403 13:35:27.710317 32592 net.cpp:141] Setting up relu2
I0403 13:35:27.710345 32592 net.cpp:148] Top shape: 100 256 27 27 (18662400)
I0403 13:35:27.710361 32592 net.cpp:156] Memory required for data: 587609200
I0403 13:35:27.710378 32592 layer_factory.hpp:77] Creating layer norm2
I0403 13:35:27.710399 32592 net.cpp:91] Creating Layer norm2
I0403 13:35:27.710417 32592 net.cpp:425] norm2 <- conv2
I0403 13:35:27.710435 32592 net.cpp:399] norm2 -> norm2
I0403 13:35:27.710675 32592 net.cpp:141] Setting up norm2
I0403 13:35:27.710703 32592 net.cpp:148] Top shape: 100 256 27 27 (18662400)
I0403 13:35:27.710719 32592 net.cpp:156] Memory required for data: 662258800
I0403 13:35:27.710736 32592 layer_factory.hpp:77] Creating layer pool2
I0403 13:35:27.710755 32592 net.cpp:91] Creating Layer pool2
I0403 13:35:27.710772 32592 net.cpp:425] pool2 <- norm2
I0403 13:35:27.710790 32592 net.cpp:399] pool2 -> pool2
I0403 13:35:27.710842 32592 net.cpp:141] Setting up pool2
I0403 13:35:27.710867 32592 net.cpp:148] Top shape: 100 256 13 13 (4326400)
I0403 13:35:27.710883 32592 net.cpp:156] Memory required for data: 679564400
I0403 13:35:27.710899 32592 layer_factory.hpp:77] Creating layer conv3
I0403 13:35:27.710922 32592 net.cpp:91] Creating Layer conv3
I0403 13:35:27.710939 32592 net.cpp:425] conv3 <- pool2
I0403 13:35:27.710958 32592 net.cpp:399] conv3 -> conv3
I0403 13:35:27.750988 32592 net.cpp:141] Setting up conv3
I0403 13:35:27.751071 32592 net.cpp:148] Top shape: 100 384 13 13 (6489600)
I0403 13:35:27.751088 32592 net.cpp:156] Memory required for data: 705522800
I0403 13:35:27.751116 32592 layer_factory.hpp:77] Creating layer relu3
I0403 13:35:27.751137 32592 net.cpp:91] Creating Layer relu3
I0403 13:35:27.751155 32592 net.cpp:425] relu3 <- conv3
I0403 13:35:27.751174 32592 net.cpp:386] relu3 -> conv3 (in-place)
I0403 13:35:27.751461 32592 net.cpp:141] Setting up relu3
I0403 13:35:27.751490 32592 net.cpp:148] Top shape: 100 384 13 13 (6489600)
I0403 13:35:27.751507 32592 net.cpp:156] Memory required for data: 731481200
I0403 13:35:27.751523 32592 layer_factory.hpp:77] Creating layer conv4
I0403 13:35:27.751549 32592 net.cpp:91] Creating Layer conv4
I0403 13:35:27.751566 32592 net.cpp:425] conv4 <- conv3
I0403 13:35:27.751586 32592 net.cpp:399] conv4 -> conv4
I0403 13:35:27.781702 32592 net.cpp:141] Setting up conv4
I0403 13:35:27.781755 32592 net.cpp:148] Top shape: 100 384 13 13 (6489600)
I0403 13:35:27.781818 32592 net.cpp:156] Memory required for data: 757439600
I0403 13:35:27.781852 32592 layer_factory.hpp:77] Creating layer relu4
I0403 13:35:27.781877 32592 net.cpp:91] Creating Layer relu4
I0403 13:35:27.781896 32592 net.cpp:425] relu4 <- conv4
I0403 13:35:27.781915 32592 net.cpp:386] relu4 -> conv4 (in-place)
I0403 13:35:27.782207 32592 net.cpp:141] Setting up relu4
I0403 13:35:27.782237 32592 net.cpp:148] Top shape: 100 384 13 13 (6489600)
I0403 13:35:27.782253 32592 net.cpp:156] Memory required for data: 783398000
I0403 13:35:27.782269 32592 layer_factory.hpp:77] Creating layer conv5
I0403 13:35:27.782310 32592 net.cpp:91] Creating Layer conv5
I0403 13:35:27.782328 32592 net.cpp:425] conv5 <- conv4
I0403 13:35:27.782347 32592 net.cpp:399] conv5 -> conv5
I0403 13:35:27.803267 32592 net.cpp:141] Setting up conv5
I0403 13:35:27.803321 32592 net.cpp:148] Top shape: 100 256 13 13 (4326400)
I0403 13:35:27.803341 32592 net.cpp:156] Memory required for data: 800703600
I0403 13:35:27.803367 32592 layer_factory.hpp:77] Creating layer relu5
I0403 13:35:27.803387 32592 net.cpp:91] Creating Layer relu5
I0403 13:35:27.803406 32592 net.cpp:425] relu5 <- conv5
I0403 13:35:27.803426 32592 net.cpp:386] relu5 -> conv5 (in-place)
I0403 13:35:27.803719 32592 net.cpp:141] Setting up relu5
I0403 13:35:27.803748 32592 net.cpp:148] Top shape: 100 256 13 13 (4326400)
I0403 13:35:27.803766 32592 net.cpp:156] Memory required for data: 818009200
I0403 13:35:27.803782 32592 layer_factory.hpp:77] Creating layer pool5
I0403 13:35:27.803807 32592 net.cpp:91] Creating Layer pool5
I0403 13:35:27.803822 32592 net.cpp:425] pool5 <- conv5
I0403 13:35:27.803845 32592 net.cpp:399] pool5 -> pool5
I0403 13:35:27.803910 32592 net.cpp:141] Setting up pool5
I0403 13:35:27.803936 32592 net.cpp:148] Top shape: 100 256 6 6 (921600)
I0403 13:35:27.803951 32592 net.cpp:156] Memory required for data: 821695600
I0403 13:35:27.803967 32592 layer_factory.hpp:77] Creating layer fc6
I0403 13:35:27.803997 32592 net.cpp:91] Creating Layer fc6
I0403 13:35:27.804016 32592 net.cpp:425] fc6 <- pool5
I0403 13:35:27.804039 32592 net.cpp:399] fc6 -> fc6
I0403 13:35:29.376416 32592 net.cpp:141] Setting up fc6
I0403 13:35:29.376502 32592 net.cpp:148] Top shape: 100 4096 (409600)
I0403 13:35:29.376519 32592 net.cpp:156] Memory required for data: 823334000
I0403 13:35:29.376543 32592 layer_factory.hpp:77] Creating layer relu6
I0403 13:35:29.376569 32592 net.cpp:91] Creating Layer relu6
I0403 13:35:29.376588 32592 net.cpp:425] relu6 <- fc6
I0403 13:35:29.376610 32592 net.cpp:386] relu6 -> fc6 (in-place)
I0403 13:35:29.376845 32592 net.cpp:141] Setting up relu6
I0403 13:35:29.376874 32592 net.cpp:148] Top shape: 100 4096 (409600)
I0403 13:35:29.376891 32592 net.cpp:156] Memory required for data: 824972400
I0403 13:35:29.376907 32592 layer_factory.hpp:77] Creating layer drop6
I0403 13:35:29.376927 32592 net.cpp:91] Creating Layer drop6
I0403 13:35:29.376943 32592 net.cpp:425] drop6 <- fc6
I0403 13:35:29.376961 32592 net.cpp:386] drop6 -> fc6 (in-place)
I0403 13:35:29.377019 32592 net.cpp:141] Setting up drop6
I0403 13:35:29.377044 32592 net.cpp:148] Top shape: 100 4096 (409600)
I0403 13:35:29.377059 32592 net.cpp:156] Memory required for data: 826610800
I0403 13:35:29.377075 32592 layer_factory.hpp:77] Creating layer fc7
I0403 13:35:29.377099 32592 net.cpp:91] Creating Layer fc7
I0403 13:35:29.377116 32592 net.cpp:425] fc7 <- fc6
I0403 13:35:29.377135 32592 net.cpp:399] fc7 -> fc7
I0403 13:35:30.072794 32592 net.cpp:141] Setting up fc7
I0403 13:35:30.072867 32592 net.cpp:148] Top shape: 100 4096 (409600)
I0403 13:35:30.072885 32592 net.cpp:156] Memory required for data: 828249200
I0403 13:35:30.072906 32592 layer_factory.hpp:77] Creating layer relu7
I0403 13:35:30.072931 32592 net.cpp:91] Creating Layer relu7
I0403 13:35:30.072948 32592 net.cpp:425] relu7 <- fc7
I0403 13:35:30.072968 32592 net.cpp:386] relu7 -> fc7 (in-place)
I0403 13:35:30.073400 32592 net.cpp:141] Setting up relu7
I0403 13:35:30.073429 32592 net.cpp:148] Top shape: 100 4096 (409600)
I0403 13:35:30.073472 32592 net.cpp:156] Memory required for data: 829887600
I0403 13:35:30.073488 32592 layer_factory.hpp:77] Creating layer drop7
I0403 13:35:30.073508 32592 net.cpp:91] Creating Layer drop7
I0403 13:35:30.073523 32592 net.cpp:425] drop7 <- fc7
I0403 13:35:30.073542 32592 net.cpp:386] drop7 -> fc7 (in-place)
I0403 13:35:30.073597 32592 net.cpp:141] Setting up drop7
I0403 13:35:30.073619 32592 net.cpp:148] Top shape: 100 4096 (409600)
I0403 13:35:30.073633 32592 net.cpp:156] Memory required for data: 831526000
I0403 13:35:30.073648 32592 layer_factory.hpp:77] Creating layer fc8_plantvillage
I0403 13:35:30.073669 32592 net.cpp:91] Creating Layer fc8_plantvillage
I0403 13:35:30.073685 32592 net.cpp:425] fc8_plantvillage <- fc7
I0403 13:35:30.073706 32592 net.cpp:399] fc8_plantvillage -> fc8_plantvillage
I0403 13:35:30.080371 32592 net.cpp:141] Setting up fc8_plantvillage
I0403 13:35:30.080400 32592 net.cpp:148] Top shape: 100 38 (3800)
I0403 13:35:30.080417 32592 net.cpp:156] Memory required for data: 831541200
I0403 13:35:30.080435 32592 layer_factory.hpp:77] Creating layer fc8_plantvillage_fc8_plantvillage_0_split
I0403 13:35:30.080454 32592 net.cpp:91] Creating Layer fc8_plantvillage_fc8_plantvillage_0_split
I0403 13:35:30.080469 32592 net.cpp:425] fc8_plantvillage_fc8_plantvillage_0_split <- fc8_plantvillage
I0403 13:35:30.080493 32592 net.cpp:399] fc8_plantvillage_fc8_plantvillage_0_split -> fc8_plantvillage_fc8_plantvillage_0_split_0
I0403 13:35:30.080514 32592 net.cpp:399] fc8_plantvillage_fc8_plantvillage_0_split -> fc8_plantvillage_fc8_plantvillage_0_split_1
I0403 13:35:30.080535 32592 net.cpp:399] fc8_plantvillage_fc8_plantvillage_0_split -> fc8_plantvillage_fc8_plantvillage_0_split_2
I0403 13:35:30.080611 32592 net.cpp:141] Setting up fc8_plantvillage_fc8_plantvillage_0_split
I0403 13:35:30.080636 32592 net.cpp:148] Top shape: 100 38 (3800)
I0403 13:35:30.080651 32592 net.cpp:148] Top shape: 100 38 (3800)
I0403 13:35:30.080667 32592 net.cpp:148] Top shape: 100 38 (3800)
I0403 13:35:30.080679 32592 net.cpp:156] Memory required for data: 831586800
I0403 13:35:30.080693 32592 layer_factory.hpp:77] Creating layer prob
I0403 13:35:30.080711 32592 net.cpp:91] Creating Layer prob
I0403 13:35:30.080726 32592 net.cpp:425] prob <- fc8_plantvillage_fc8_plantvillage_0_split_0
I0403 13:35:30.080744 32592 net.cpp:399] prob -> prob
I0403 13:35:30.080974 32592 net.cpp:141] Setting up prob
I0403 13:35:30.081002 32592 net.cpp:148] Top shape: 100 38 (3800)
I0403 13:35:30.081017 32592 net.cpp:156] Memory required for data: 831602000
I0403 13:35:30.081032 32592 layer_factory.hpp:77] Creating layer hdf5out
I0403 13:35:30.081051 32592 net.cpp:91] Creating Layer hdf5out
I0403 13:35:30.081065 32592 net.cpp:425] hdf5out <- prob
I0403 13:35:30.081080 32592 net.cpp:425] hdf5out <- label_data_1_split_0
I0403 13:35:30.083191 32592 net.cpp:141] Setting up hdf5out
…
