…
I0403 13:29:00.539031 32315 net.cpp:313] The NetState phase (1) differed from the phase (0) specified by a rule in layer data
I0403 13:29:00.539381 32315 net.cpp:49] Initializing net from parameters: 
state {
  phase: TEST
}
layer {
  name: "data"
  type: "Data"
  top: "data"
  top: "label"
  include {
    phase: TEST
  }
  transform_param {
    crop_size: 227
    mean_file: "/home/mohanty/data/final_dataset/lmdb/segmented-20-80/mean.binaryproto"
  }
  data_param {
    source: "/home/mohanty/data/final_dataset/lmdb/segmented-20-80/test_db"
    batch_size: 100
    backend: LMDB
  }
}
layer {
  name: "conv1"
  type: "Convolution"
  bottom: "data"
  top: "conv1"
  param {
    lr_mult: 1
    decay_mult: 1
  }
  param {
    lr_mult: 2
    decay_mult: 0
  }
  convolution_param {
    num_output: 96
    kernel_size: 11
    stride: 4
    weight_filler {
      type: "gaussian"
      std: 0.01
    }
    bias_filler {
      type: "constant"
      value: 0
    }
  }
}
layer {
  name: "relu1"
  type: "ReLU"
  bottom: "conv1"
  top: "conv1"
}
layer {
  name: "norm1"
  type: "LRN"
  bottom: "conv1"
  top: "norm1"
  lrn_param {
    local_size: 5
    alpha: 0.0001
    beta: 0.75
  }
}
layer {
  name: "pool1"
  type: "Pooling"
  bottom: "norm1"
  top: "pool1"
  pooling_param {
    pool: MAX
    kernel_size: 3
    stride: 2
  }
}
layer {
  name: "conv2"
  type: "Convolution"
  bottom: "pool1"
  top: "conv2"
  param {
    lr_mult: 1
    decay_mult: 1
  }
  param {
    lr_mult: 2
    decay_mult: 0
  }
  convolution_param {
    num_output: 256
    pad: 2
    kernel_size: 5
    group: 2
    weight_filler {
      type: "gaussian"
      std: 0.01
    }
    bias_filler {
      type: "constant"
      value: 0.1
    }
  }
}
layer {
  name: "relu2"
  type: "ReLU"
  bottom: "conv2"
  top: "conv2"
}
layer {
  name: "norm2"
  type: "LRN"
  bottom: "conv2"
  top: "norm2"
  lrn_param {
    local_size: 5
    alpha: 0.0001
    beta: 0.75
  }
}
layer {
  name: "pool2"
  type: "Pooling"
  bottom: "norm2"
  top: "pool2"
  pooling_param {
    pool: MAX
    kernel_size: 3
    stride: 2
  }
}
layer {
  name: "conv3"
  type: "Convolution"
  bottom: "pool2"
  top: "conv3"
  param {
    lr_mult: 1
    decay_mult: 1
  }
  param {
    lr_mult: 2
    decay_mult: 0
  }
  convolution_param {
    num_output: 384
    pad: 1
    kernel_size: 3
    weight_filler {
      type: "gaussian"
      std: 0.01
    }
    bias_filler {
      type: "constant"
      value: 0
    }
  }
}
layer {
  name: "relu3"
  type: "ReLU"
  bottom: "conv3"
  top: "conv3"
}
layer {
  name: "conv4"
  type: "Convolution"
  bottom: "conv3"
  top: "conv4"
  param {
    lr_mult: 1
    decay_mult: 1
  }
  param {
    lr_mult: 2
    decay_mult: 0
  }
  convolution_param {
    num_output: 384
    pad: 1
    kernel_size: 3
    group: 2
    weight_filler {
      type: "gaussian"
      std: 0.01
    }
    bias_filler {
      type: "constant"
      value: 0.1
    }
  }
}
layer {
  name: "relu4"
  type: "ReLU"
  bottom: "conv4"
  top: "conv4"
}
layer {
  name: "conv5"
  type: "Convolution"
  bottom: "conv4"
  top: "conv5"
  param {
    lr_mult: 1
    decay_mult: 1
  }
  param {
    lr_mult: 2
    decay_mult: 0
  }
  convolution_param {
    num_output: 256
    pad: 1
    kernel_size: 3
    group: 2
    weight_filler {
      type: "gaussian"
      std: 0.01
    }
    bias_filler {
      type: "constant"
      value: 0.1
    }
  }
}
layer {
  name: "relu5"
  type: "ReLU"
  bottom: "conv5"
  top: "conv5"
}
layer {
  name: "pool5"
  type: "Pooling"
  bottom: "conv5"
  top: "pool5"
  pooling_param {
    pool: MAX
    kernel_size: 3
    stride: 2
  }
}
layer {
  name: "fc6"
  type: "InnerProduct"
  bottom: "pool5"
  top: "fc6"
  param {
    lr_mult: 1
    decay_mult: 1
  }
  param {
    lr_mult: 2
    decay_mult: 0
  }
  inner_product_param {
    num_output: 4096
    weight_filler {
      type: "gaussian"
      std: 0.005
    }
    bias_filler {
      type: "constant"
      value: 0.1
    }
  }
}
layer {
  name: "relu6"
  type: "ReLU"
  bottom: "fc6"
  top: "fc6"
}
layer {
  name: "drop6"
  type: "Dropout"
  bottom: "fc6"
  top: "fc6"
  dropout_param {
    dropout_ratio: 0.5
  }
}
layer {
  name: "fc7"
  type: "InnerProduct"
  bottom: "fc6"
  top: "fc7"
  param {
    lr_mult: 1
    decay_mult: 1
  }
  param {
    lr_mult: 2
    decay_mult: 0
  }
  inner_product_param {
    num_output: 4096
    weight_filler {
      type: "gaussian"
      std: 0.005
    }
    bias_filler {
      type: "constant"
      value: 0.1
    }
  }
}
layer {
  name: "relu7"
  type: "ReLU"
  bottom: "fc7"
  top: "fc7"
}
layer {
  name: "drop7"
  type: "Dropout"
  bottom: "fc7"
  top: "fc7"
  dropout_param {
    dropout_ratio: 0.5
  }
}
layer {
  name: "fc8_plantvillage"
  type: "InnerProduct"
  bottom: "fc7"
  top: "fc8_plantvillage"
  param {
    lr_mult: 1
    decay_mult: 1
  }
  param {
    lr_mult: 2
    decay_mult: 0
  }
  inner_product_param {
    num_output: 38
    weight_filler {
      type: "gaussian"
      std: 0.01
    }
    bias_filler {
      type: "constant"
      value: 0
    }
  }
}
layer {
  name: "prob"
  type: "Softmax"
  bottom: "fc8_plantvillage"
  top: "prob"
  include {
    phase: TEST
  }
}
layer {
  name: "hdf5out"
  type: "HDF5Output"
  bottom: "prob"
  bottom: "label"
  include {
    phase: TEST
  }
  hdf5_output_param {
    file_name: "hdf5_dumps/iter_212.h5"
  }
}
layer {
  name: "loss"
  type: "SoftmaxWithLoss"
  bottom: "fc8_plantvillage"
  bottom: "label"
  top: "loss"
}
layer {
  name: "accuracy"
  type: "Accuracy"
  bottom: "fc8_plantvillage"
  bottom: "label"
  top: "accuracy"
  include {
    phase: TEST
  }
}
I0403 13:29:00.539974 32315 layer_factory.hpp:77] Creating layer data
I0403 13:29:00.540650 32315 net.cpp:91] Creating Layer data
I0403 13:29:00.540681 32315 net.cpp:399] data -> data
I0403 13:29:00.540734 32315 net.cpp:399] data -> label
I0403 13:29:00.540771 32315 data_transformer.cpp:25] Loading mean file from: /home/mohanty/data/final_dataset/lmdb/segmented-20-80/mean.binaryproto
I0403 13:29:00.548362 32319 db_lmdb.cpp:38] Opened lmdb /home/mohanty/data/final_dataset/lmdb/segmented-20-80/test_db
I0403 13:29:00.554817 32315 data_layer.cpp:41] output data size: 100,3,227,227
I0403 13:29:00.674729 32315 net.cpp:141] Setting up data
I0403 13:29:00.674834 32315 net.cpp:148] Top shape: 100 3 227 227 (15458700)
I0403 13:29:00.674855 32315 net.cpp:148] Top shape: 100 (100)
I0403 13:29:00.674870 32315 net.cpp:156] Memory required for data: 61835200
I0403 13:29:00.674896 32315 layer_factory.hpp:77] Creating layer label_data_1_split
I0403 13:29:00.674921 32315 net.cpp:91] Creating Layer label_data_1_split
I0403 13:29:00.674939 32315 net.cpp:425] label_data_1_split <- label
I0403 13:29:00.674970 32315 net.cpp:399] label_data_1_split -> label_data_1_split_0
I0403 13:29:00.674998 32315 net.cpp:399] label_data_1_split -> label_data_1_split_1
I0403 13:29:00.675019 32315 net.cpp:399] label_data_1_split -> label_data_1_split_2
I0403 13:29:00.675083 32315 net.cpp:141] Setting up label_data_1_split
I0403 13:29:00.675107 32315 net.cpp:148] Top shape: 100 (100)
I0403 13:29:00.675134 32315 net.cpp:148] Top shape: 100 (100)
I0403 13:29:00.675150 32315 net.cpp:148] Top shape: 100 (100)
I0403 13:29:00.675163 32315 net.cpp:156] Memory required for data: 61836400
I0403 13:29:00.675178 32315 layer_factory.hpp:77] Creating layer conv1
I0403 13:29:00.675209 32315 net.cpp:91] Creating Layer conv1
I0403 13:29:00.675225 32315 net.cpp:425] conv1 <- data
I0403 13:29:00.675243 32315 net.cpp:399] conv1 -> conv1
I0403 13:29:00.818400 32315 net.cpp:141] Setting up conv1
I0403 13:29:00.818487 32315 net.cpp:148] Top shape: 100 96 55 55 (29040000)
I0403 13:29:00.818505 32315 net.cpp:156] Memory required for data: 177996400
I0403 13:29:00.818536 32315 layer_factory.hpp:77] Creating layer relu1
I0403 13:29:00.818565 32315 net.cpp:91] Creating Layer relu1
I0403 13:29:00.818583 32315 net.cpp:425] relu1 <- conv1
I0403 13:29:00.818603 32315 net.cpp:386] relu1 -> conv1 (in-place)
I0403 13:29:00.818866 32315 net.cpp:141] Setting up relu1
I0403 13:29:00.818892 32315 net.cpp:148] Top shape: 100 96 55 55 (29040000)
I0403 13:29:00.818939 32315 net.cpp:156] Memory required for data: 294156400
I0403 13:29:00.818979 32315 layer_factory.hpp:77] Creating layer norm1
I0403 13:29:00.819010 32315 net.cpp:91] Creating Layer norm1
I0403 13:29:00.819028 32315 net.cpp:425] norm1 <- conv1
I0403 13:29:00.819046 32315 net.cpp:399] norm1 -> norm1
I0403 13:29:00.819367 32315 net.cpp:141] Setting up norm1
I0403 13:29:00.819394 32315 net.cpp:148] Top shape: 100 96 55 55 (29040000)
I0403 13:29:00.819409 32315 net.cpp:156] Memory required for data: 410316400
I0403 13:29:00.819425 32315 layer_factory.hpp:77] Creating layer pool1
I0403 13:29:00.819448 32315 net.cpp:91] Creating Layer pool1
I0403 13:29:00.819465 32315 net.cpp:425] pool1 <- norm1
I0403 13:29:00.819483 32315 net.cpp:399] pool1 -> pool1
I0403 13:29:00.819551 32315 net.cpp:141] Setting up pool1
I0403 13:29:00.819576 32315 net.cpp:148] Top shape: 100 96 27 27 (6998400)
I0403 13:29:00.819589 32315 net.cpp:156] Memory required for data: 438310000
I0403 13:29:00.819604 32315 layer_factory.hpp:77] Creating layer conv2
I0403 13:29:00.819628 32315 net.cpp:91] Creating Layer conv2
I0403 13:29:00.819644 32315 net.cpp:425] conv2 <- pool1
I0403 13:29:00.819664 32315 net.cpp:399] conv2 -> conv2
I0403 13:29:00.835117 32315 net.cpp:141] Setting up conv2
I0403 13:29:00.835162 32315 net.cpp:148] Top shape: 100 256 27 27 (18662400)
I0403 13:29:00.835180 32315 net.cpp:156] Memory required for data: 512959600
I0403 13:29:00.835202 32315 layer_factory.hpp:77] Creating layer relu2
I0403 13:29:00.835223 32315 net.cpp:91] Creating Layer relu2
I0403 13:29:00.835240 32315 net.cpp:425] relu2 <- conv2
I0403 13:29:00.835259 32315 net.cpp:386] relu2 -> conv2 (in-place)
I0403 13:29:00.835552 32315 net.cpp:141] Setting up relu2
I0403 13:29:00.835580 32315 net.cpp:148] Top shape: 100 256 27 27 (18662400)
I0403 13:29:00.835595 32315 net.cpp:156] Memory required for data: 587609200
I0403 13:29:00.835613 32315 layer_factory.hpp:77] Creating layer norm2
I0403 13:29:00.835636 32315 net.cpp:91] Creating Layer norm2
I0403 13:29:00.835654 32315 net.cpp:425] norm2 <- conv2
I0403 13:29:00.835675 32315 net.cpp:399] norm2 -> norm2
I0403 13:29:00.835882 32315 net.cpp:141] Setting up norm2
I0403 13:29:00.835909 32315 net.cpp:148] Top shape: 100 256 27 27 (18662400)
I0403 13:29:00.835925 32315 net.cpp:156] Memory required for data: 662258800
I0403 13:29:00.835942 32315 layer_factory.hpp:77] Creating layer pool2
I0403 13:29:00.835960 32315 net.cpp:91] Creating Layer pool2
I0403 13:29:00.835976 32315 net.cpp:425] pool2 <- norm2
I0403 13:29:00.835999 32315 net.cpp:399] pool2 -> pool2
I0403 13:29:00.836055 32315 net.cpp:141] Setting up pool2
I0403 13:29:00.836078 32315 net.cpp:148] Top shape: 100 256 13 13 (4326400)
I0403 13:29:00.836093 32315 net.cpp:156] Memory required for data: 679564400
I0403 13:29:00.836148 32315 layer_factory.hpp:77] Creating layer conv3
I0403 13:29:00.836179 32315 net.cpp:91] Creating Layer conv3
I0403 13:29:00.836197 32315 net.cpp:425] conv3 <- pool2
I0403 13:29:00.836217 32315 net.cpp:399] conv3 -> conv3
I0403 13:29:00.875471 32315 net.cpp:141] Setting up conv3
I0403 13:29:00.875536 32315 net.cpp:148] Top shape: 100 384 13 13 (6489600)
I0403 13:29:00.875552 32315 net.cpp:156] Memory required for data: 705522800
I0403 13:29:00.875577 32315 layer_factory.hpp:77] Creating layer relu3
I0403 13:29:00.875598 32315 net.cpp:91] Creating Layer relu3
I0403 13:29:00.875619 32315 net.cpp:425] relu3 <- conv3
I0403 13:29:00.875638 32315 net.cpp:386] relu3 -> conv3 (in-place)
I0403 13:29:00.875915 32315 net.cpp:141] Setting up relu3
I0403 13:29:00.875941 32315 net.cpp:148] Top shape: 100 384 13 13 (6489600)
I0403 13:29:00.875955 32315 net.cpp:156] Memory required for data: 731481200
I0403 13:29:00.875970 32315 layer_factory.hpp:77] Creating layer conv4
I0403 13:29:00.875995 32315 net.cpp:91] Creating Layer conv4
I0403 13:29:00.876013 32315 net.cpp:425] conv4 <- conv3
I0403 13:29:00.876034 32315 net.cpp:399] conv4 -> conv4
I0403 13:29:00.905745 32315 net.cpp:141] Setting up conv4
I0403 13:29:00.905804 32315 net.cpp:148] Top shape: 100 384 13 13 (6489600)
I0403 13:29:00.905851 32315 net.cpp:156] Memory required for data: 757439600
I0403 13:29:00.905871 32315 layer_factory.hpp:77] Creating layer relu4
I0403 13:29:00.905891 32315 net.cpp:91] Creating Layer relu4
I0403 13:29:00.905908 32315 net.cpp:425] relu4 <- conv4
I0403 13:29:00.905928 32315 net.cpp:386] relu4 -> conv4 (in-place)
I0403 13:29:00.906203 32315 net.cpp:141] Setting up relu4
I0403 13:29:00.906230 32315 net.cpp:148] Top shape: 100 384 13 13 (6489600)
I0403 13:29:00.906246 32315 net.cpp:156] Memory required for data: 783398000
I0403 13:29:00.906261 32315 layer_factory.hpp:77] Creating layer conv5
I0403 13:29:00.906291 32315 net.cpp:91] Creating Layer conv5
I0403 13:29:00.906309 32315 net.cpp:425] conv5 <- conv4
I0403 13:29:00.906328 32315 net.cpp:399] conv5 -> conv5
I0403 13:29:00.926585 32315 net.cpp:141] Setting up conv5
I0403 13:29:00.926621 32315 net.cpp:148] Top shape: 100 256 13 13 (4326400)
I0403 13:29:00.926637 32315 net.cpp:156] Memory required for data: 800703600
I0403 13:29:00.926661 32315 layer_factory.hpp:77] Creating layer relu5
I0403 13:29:00.926681 32315 net.cpp:91] Creating Layer relu5
I0403 13:29:00.926697 32315 net.cpp:425] relu5 <- conv5
I0403 13:29:00.926717 32315 net.cpp:386] relu5 -> conv5 (in-place)
I0403 13:29:00.927026 32315 net.cpp:141] Setting up relu5
I0403 13:29:00.927052 32315 net.cpp:148] Top shape: 100 256 13 13 (4326400)
I0403 13:29:00.927067 32315 net.cpp:156] Memory required for data: 818009200
I0403 13:29:00.927081 32315 layer_factory.hpp:77] Creating layer pool5
I0403 13:29:00.927104 32315 net.cpp:91] Creating Layer pool5
I0403 13:29:00.927122 32315 net.cpp:425] pool5 <- conv5
I0403 13:29:00.927140 32315 net.cpp:399] pool5 -> pool5
I0403 13:29:00.927201 32315 net.cpp:141] Setting up pool5
I0403 13:29:00.927225 32315 net.cpp:148] Top shape: 100 256 6 6 (921600)
I0403 13:29:00.927239 32315 net.cpp:156] Memory required for data: 821695600
I0403 13:29:00.927254 32315 layer_factory.hpp:77] Creating layer fc6
I0403 13:29:00.927284 32315 net.cpp:91] Creating Layer fc6
I0403 13:29:00.927304 32315 net.cpp:425] fc6 <- pool5
I0403 13:29:00.927323 32315 net.cpp:399] fc6 -> fc6
I0403 13:29:02.451560 32315 net.cpp:141] Setting up fc6
I0403 13:29:02.451649 32315 net.cpp:148] Top shape: 100 4096 (409600)
I0403 13:29:02.451666 32315 net.cpp:156] Memory required for data: 823334000
I0403 13:29:02.451689 32315 layer_factory.hpp:77] Creating layer relu6
I0403 13:29:02.451714 32315 net.cpp:91] Creating Layer relu6
I0403 13:29:02.451733 32315 net.cpp:425] relu6 <- fc6
I0403 13:29:02.451753 32315 net.cpp:386] relu6 -> fc6 (in-place)
I0403 13:29:02.451982 32315 net.cpp:141] Setting up relu6
I0403 13:29:02.452006 32315 net.cpp:148] Top shape: 100 4096 (409600)
I0403 13:29:02.452021 32315 net.cpp:156] Memory required for data: 824972400
I0403 13:29:02.452036 32315 layer_factory.hpp:77] Creating layer drop6
I0403 13:29:02.452054 32315 net.cpp:91] Creating Layer drop6
I0403 13:29:02.452070 32315 net.cpp:425] drop6 <- fc6
I0403 13:29:02.452095 32315 net.cpp:386] drop6 -> fc6 (in-place)
I0403 13:29:02.452147 32315 net.cpp:141] Setting up drop6
I0403 13:29:02.452172 32315 net.cpp:148] Top shape: 100 4096 (409600)
I0403 13:29:02.452188 32315 net.cpp:156] Memory required for data: 826610800
I0403 13:29:02.452203 32315 layer_factory.hpp:77] Creating layer fc7
I0403 13:29:02.452224 32315 net.cpp:91] Creating Layer fc7
I0403 13:29:02.452239 32315 net.cpp:425] fc7 <- fc6
I0403 13:29:02.452260 32315 net.cpp:399] fc7 -> fc7
I0403 13:29:03.155702 32315 net.cpp:141] Setting up fc7
I0403 13:29:03.155797 32315 net.cpp:148] Top shape: 100 4096 (409600)
I0403 13:29:03.155813 32315 net.cpp:156] Memory required for data: 828249200
I0403 13:29:03.155836 32315 layer_factory.hpp:77] Creating layer relu7
I0403 13:29:03.155860 32315 net.cpp:91] Creating Layer relu7
I0403 13:29:03.155879 32315 net.cpp:425] relu7 <- fc7
I0403 13:29:03.155903 32315 net.cpp:386] relu7 -> fc7 (in-place)
I0403 13:29:03.156368 32315 net.cpp:141] Setting up relu7
I0403 13:29:03.156395 32315 net.cpp:148] Top shape: 100 4096 (409600)
I0403 13:29:03.156443 32315 net.cpp:156] Memory required for data: 829887600
I0403 13:29:03.156461 32315 layer_factory.hpp:77] Creating layer drop7
I0403 13:29:03.156481 32315 net.cpp:91] Creating Layer drop7
I0403 13:29:03.156499 32315 net.cpp:425] drop7 <- fc7
I0403 13:29:03.156519 32315 net.cpp:386] drop7 -> fc7 (in-place)
I0403 13:29:03.156566 32315 net.cpp:141] Setting up drop7
I0403 13:29:03.156591 32315 net.cpp:148] Top shape: 100 4096 (409600)
I0403 13:29:03.156608 32315 net.cpp:156] Memory required for data: 831526000
I0403 13:29:03.156625 32315 layer_factory.hpp:77] Creating layer fc8_plantvillage
I0403 13:29:03.156644 32315 net.cpp:91] Creating Layer fc8_plantvillage
I0403 13:29:03.156661 32315 net.cpp:425] fc8_plantvillage <- fc7
I0403 13:29:03.156682 32315 net.cpp:399] fc8_plantvillage -> fc8_plantvillage
I0403 13:29:03.163892 32315 net.cpp:141] Setting up fc8_plantvillage
I0403 13:29:03.163955 32315 net.cpp:148] Top shape: 100 38 (3800)
I0403 13:29:03.163971 32315 net.cpp:156] Memory required for data: 831541200
I0403 13:29:03.163993 32315 layer_factory.hpp:77] Creating layer fc8_plantvillage_fc8_plantvillage_0_split
I0403 13:29:03.164016 32315 net.cpp:91] Creating Layer fc8_plantvillage_fc8_plantvillage_0_split
I0403 13:29:03.164032 32315 net.cpp:425] fc8_plantvillage_fc8_plantvillage_0_split <- fc8_plantvillage
I0403 13:29:03.164053 32315 net.cpp:399] fc8_plantvillage_fc8_plantvillage_0_split -> fc8_plantvillage_fc8_plantvillage_0_split_0
I0403 13:29:03.164077 32315 net.cpp:399] fc8_plantvillage_fc8_plantvillage_0_split -> fc8_plantvillage_fc8_plantvillage_0_split_1
I0403 13:29:03.164098 32315 net.cpp:399] fc8_plantvillage_fc8_plantvillage_0_split -> fc8_plantvillage_fc8_plantvillage_0_split_2
I0403 13:29:03.164186 32315 net.cpp:141] Setting up fc8_plantvillage_fc8_plantvillage_0_split
I0403 13:29:03.164211 32315 net.cpp:148] Top shape: 100 38 (3800)
I0403 13:29:03.164227 32315 net.cpp:148] Top shape: 100 38 (3800)
I0403 13:29:03.164243 32315 net.cpp:148] Top shape: 100 38 (3800)
I0403 13:29:03.164258 32315 net.cpp:156] Memory required for data: 831586800
I0403 13:29:03.164280 32315 layer_factory.hpp:77] Creating layer prob
I0403 13:29:03.164302 32315 net.cpp:91] Creating Layer prob
I0403 13:29:03.164319 32315 net.cpp:425] prob <- fc8_plantvillage_fc8_plantvillage_0_split_0
I0403 13:29:03.164342 32315 net.cpp:399] prob -> prob
I0403 13:29:03.164623 32315 net.cpp:141] Setting up prob
I0403 13:29:03.164650 32315 net.cpp:148] Top shape: 100 38 (3800)
I0403 13:29:03.164666 32315 net.cpp:156] Memory required for data: 831602000
I0403 13:29:03.164682 32315 layer_factory.hpp:77] Creating layer hdf5out
I0403 13:29:03.164703 32315 net.cpp:91] Creating Layer hdf5out
I0403 13:29:03.164718 32315 net.cpp:425] hdf5out <- prob
I0403 13:29:03.164736 32315 net.cpp:425] hdf5out <- label_data_1_split_0
I0403 13:29:03.167254 32315 net.cpp:141] Setting up hdf5out
…
