…
I0403 14:03:36.779870   687 net.cpp:313] The NetState phase (1) differed from the phase (0) specified by a rule in layer data
I0403 14:03:36.780166   687 net.cpp:49] Initializing net from parameters: 
state {
  phase: TEST
}
layer {
  name: "data"
  type: "Data"
  top: "data"
  top: "label"
  include {
    phase: TEST
  }
  transform_param {
    crop_size: 227
    mean_file: "/home/mohanty/data/final_dataset/lmdb/segmented-20-80/mean.binaryproto"
  }
  data_param {
    source: "/home/mohanty/data/final_dataset/lmdb/segmented-20-80/test_db"
    batch_size: 100
    backend: LMDB
  }
}
layer {
  name: "conv1"
  type: "Convolution"
  bottom: "data"
  top: "conv1"
  param {
    lr_mult: 1
    decay_mult: 1
  }
  param {
    lr_mult: 2
    decay_mult: 0
  }
  convolution_param {
    num_output: 96
    kernel_size: 11
    stride: 4
    weight_filler {
      type: "gaussian"
      std: 0.01
    }
    bias_filler {
      type: "constant"
      value: 0
    }
  }
}
layer {
  name: "relu1"
  type: "ReLU"
  bottom: "conv1"
  top: "conv1"
}
layer {
  name: "norm1"
  type: "LRN"
  bottom: "conv1"
  top: "norm1"
  lrn_param {
    local_size: 5
    alpha: 0.0001
    beta: 0.75
  }
}
layer {
  name: "pool1"
  type: "Pooling"
  bottom: "norm1"
  top: "pool1"
  pooling_param {
    pool: MAX
    kernel_size: 3
    stride: 2
  }
}
layer {
  name: "conv2"
  type: "Convolution"
  bottom: "pool1"
  top: "conv2"
  param {
    lr_mult: 1
    decay_mult: 1
  }
  param {
    lr_mult: 2
    decay_mult: 0
  }
  convolution_param {
    num_output: 256
    pad: 2
    kernel_size: 5
    group: 2
    weight_filler {
      type: "gaussian"
      std: 0.01
    }
    bias_filler {
      type: "constant"
      value: 0.1
    }
  }
}
layer {
  name: "relu2"
  type: "ReLU"
  bottom: "conv2"
  top: "conv2"
}
layer {
  name: "norm2"
  type: "LRN"
  bottom: "conv2"
  top: "norm2"
  lrn_param {
    local_size: 5
    alpha: 0.0001
    beta: 0.75
  }
}
layer {
  name: "pool2"
  type: "Pooling"
  bottom: "norm2"
  top: "pool2"
  pooling_param {
    pool: MAX
    kernel_size: 3
    stride: 2
  }
}
layer {
  name: "conv3"
  type: "Convolution"
  bottom: "pool2"
  top: "conv3"
  param {
    lr_mult: 1
    decay_mult: 1
  }
  param {
    lr_mult: 2
    decay_mult: 0
  }
  convolution_param {
    num_output: 384
    pad: 1
    kernel_size: 3
    weight_filler {
      type: "gaussian"
      std: 0.01
    }
    bias_filler {
      type: "constant"
      value: 0
    }
  }
}
layer {
  name: "relu3"
  type: "ReLU"
  bottom: "conv3"
  top: "conv3"
}
layer {
  name: "conv4"
  type: "Convolution"
  bottom: "conv3"
  top: "conv4"
  param {
    lr_mult: 1
    decay_mult: 1
  }
  param {
    lr_mult: 2
    decay_mult: 0
  }
  convolution_param {
    num_output: 384
    pad: 1
    kernel_size: 3
    group: 2
    weight_filler {
      type: "gaussian"
      std: 0.01
    }
    bias_filler {
      type: "constant"
      value: 0.1
    }
  }
}
layer {
  name: "relu4"
  type: "ReLU"
  bottom: "conv4"
  top: "conv4"
}
layer {
  name: "conv5"
  type: "Convolution"
  bottom: "conv4"
  top: "conv5"
  param {
    lr_mult: 1
    decay_mult: 1
  }
  param {
    lr_mult: 2
    decay_mult: 0
  }
  convolution_param {
    num_output: 256
    pad: 1
    kernel_size: 3
    group: 2
    weight_filler {
      type: "gaussian"
      std: 0.01
    }
    bias_filler {
      type: "constant"
      value: 0.1
    }
  }
}
layer {
  name: "relu5"
  type: "ReLU"
  bottom: "conv5"
  top: "conv5"
}
layer {
  name: "pool5"
  type: "Pooling"
  bottom: "conv5"
  top: "pool5"
  pooling_param {
    pool: MAX
    kernel_size: 3
    stride: 2
  }
}
layer {
  name: "fc6"
  type: "InnerProduct"
  bottom: "pool5"
  top: "fc6"
  param {
    lr_mult: 1
    decay_mult: 1
  }
  param {
    lr_mult: 2
    decay_mult: 0
  }
  inner_product_param {
    num_output: 4096
    weight_filler {
      type: "gaussian"
      std: 0.005
    }
    bias_filler {
      type: "constant"
      value: 0.1
    }
  }
}
layer {
  name: "relu6"
  type: "ReLU"
  bottom: "fc6"
  top: "fc6"
}
layer {
  name: "drop6"
  type: "Dropout"
  bottom: "fc6"
  top: "fc6"
  dropout_param {
    dropout_ratio: 0.5
  }
}
layer {
  name: "fc7"
  type: "InnerProduct"
  bottom: "fc6"
  top: "fc7"
  param {
    lr_mult: 1
    decay_mult: 1
  }
  param {
    lr_mult: 2
    decay_mult: 0
  }
  inner_product_param {
    num_output: 4096
    weight_filler {
      type: "gaussian"
      std: 0.005
    }
    bias_filler {
      type: "constant"
      value: 0.1
    }
  }
}
layer {
  name: "relu7"
  type: "ReLU"
  bottom: "fc7"
  top: "fc7"
}
layer {
  name: "drop7"
  type: "Dropout"
  bottom: "fc7"
  top: "fc7"
  dropout_param {
    dropout_ratio: 0.5
  }
}
layer {
  name: "fc8_plantvillage"
  type: "InnerProduct"
  bottom: "fc7"
  top: "fc8_plantvillage"
  param {
    lr_mult: 1
    decay_mult: 1
  }
  param {
    lr_mult: 2
    decay_mult: 0
  }
  inner_product_param {
    num_output: 38
    weight_filler {
      type: "gaussian"
      std: 0.01
    }
    bias_filler {
      type: "constant"
      value: 0
    }
  }
}
layer {
  name: "prob"
  type: "Softmax"
  bottom: "fc8_plantvillage"
  top: "prob"
  include {
    phase: TEST
  }
}
layer {
  name: "hdf5out"
  type: "HDF5Output"
  bottom: "prob"
  bottom: "label"
  include {
    phase: TEST
  }
  hdf5_output_param {
    file_name: "hdf5_dumps/iter_3074.h5"
  }
}
layer {
  name: "loss"
  type: "SoftmaxWithLoss"
  bottom: "fc8_plantvillage"
  bottom: "label"
  top: "loss"
}
layer {
  name: "accuracy"
  type: "Accuracy"
  bottom: "fc8_plantvillage"
  bottom: "label"
  top: "accuracy"
  include {
    phase: TEST
  }
}
I0403 14:03:36.780830   687 layer_factory.hpp:77] Creating layer data
I0403 14:03:36.781481   687 net.cpp:91] Creating Layer data
I0403 14:03:36.781514   687 net.cpp:399] data -> data
I0403 14:03:36.781565   687 net.cpp:399] data -> label
I0403 14:03:36.781605   687 data_transformer.cpp:25] Loading mean file from: /home/mohanty/data/final_dataset/lmdb/segmented-20-80/mean.binaryproto
I0403 14:03:36.784229   690 db_lmdb.cpp:38] Opened lmdb /home/mohanty/data/final_dataset/lmdb/segmented-20-80/test_db
I0403 14:03:36.796206   687 data_layer.cpp:41] output data size: 100,3,227,227
I0403 14:03:36.917500   687 net.cpp:141] Setting up data
I0403 14:03:36.917572   687 net.cpp:148] Top shape: 100 3 227 227 (15458700)
I0403 14:03:36.917595   687 net.cpp:148] Top shape: 100 (100)
I0403 14:03:36.917611   687 net.cpp:156] Memory required for data: 61835200
I0403 14:03:36.917639   687 layer_factory.hpp:77] Creating layer label_data_1_split
I0403 14:03:36.917664   687 net.cpp:91] Creating Layer label_data_1_split
I0403 14:03:36.917682   687 net.cpp:425] label_data_1_split <- label
I0403 14:03:36.917714   687 net.cpp:399] label_data_1_split -> label_data_1_split_0
I0403 14:03:36.917742   687 net.cpp:399] label_data_1_split -> label_data_1_split_1
I0403 14:03:36.917764   687 net.cpp:399] label_data_1_split -> label_data_1_split_2
I0403 14:03:36.917842   687 net.cpp:141] Setting up label_data_1_split
I0403 14:03:36.917865   687 net.cpp:148] Top shape: 100 (100)
I0403 14:03:36.917882   687 net.cpp:148] Top shape: 100 (100)
I0403 14:03:36.917898   687 net.cpp:148] Top shape: 100 (100)
I0403 14:03:36.917913   687 net.cpp:156] Memory required for data: 61836400
I0403 14:03:36.917928   687 layer_factory.hpp:77] Creating layer conv1
I0403 14:03:36.917960   687 net.cpp:91] Creating Layer conv1
I0403 14:03:36.917979   687 net.cpp:425] conv1 <- data
I0403 14:03:36.917999   687 net.cpp:399] conv1 -> conv1
I0403 14:03:37.060858   687 net.cpp:141] Setting up conv1
I0403 14:03:37.060950   687 net.cpp:148] Top shape: 100 96 55 55 (29040000)
I0403 14:03:37.060968   687 net.cpp:156] Memory required for data: 177996400
I0403 14:03:37.061002   687 layer_factory.hpp:77] Creating layer relu1
I0403 14:03:37.061030   687 net.cpp:91] Creating Layer relu1
I0403 14:03:37.061050   687 net.cpp:425] relu1 <- conv1
I0403 14:03:37.061069   687 net.cpp:386] relu1 -> conv1 (in-place)
I0403 14:03:37.061342   687 net.cpp:141] Setting up relu1
I0403 14:03:37.061372   687 net.cpp:148] Top shape: 100 96 55 55 (29040000)
I0403 14:03:37.061420   687 net.cpp:156] Memory required for data: 294156400
I0403 14:03:37.061439   687 layer_factory.hpp:77] Creating layer norm1
I0403 14:03:37.061467   687 net.cpp:91] Creating Layer norm1
I0403 14:03:37.061486   687 net.cpp:425] norm1 <- conv1
I0403 14:03:37.061506   687 net.cpp:399] norm1 -> norm1
I0403 14:03:37.061836   687 net.cpp:141] Setting up norm1
I0403 14:03:37.061866   687 net.cpp:148] Top shape: 100 96 55 55 (29040000)
I0403 14:03:37.061882   687 net.cpp:156] Memory required for data: 410316400
I0403 14:03:37.061897   687 layer_factory.hpp:77] Creating layer pool1
I0403 14:03:37.061923   687 net.cpp:91] Creating Layer pool1
I0403 14:03:37.061944   687 net.cpp:425] pool1 <- norm1
I0403 14:03:37.061964   687 net.cpp:399] pool1 -> pool1
I0403 14:03:37.062038   687 net.cpp:141] Setting up pool1
I0403 14:03:37.062064   687 net.cpp:148] Top shape: 100 96 27 27 (6998400)
I0403 14:03:37.062079   687 net.cpp:156] Memory required for data: 438310000
I0403 14:03:37.062095   687 layer_factory.hpp:77] Creating layer conv2
I0403 14:03:37.062124   687 net.cpp:91] Creating Layer conv2
I0403 14:03:37.062142   687 net.cpp:425] conv2 <- pool1
I0403 14:03:37.062165   687 net.cpp:399] conv2 -> conv2
I0403 14:03:37.077981   687 net.cpp:141] Setting up conv2
I0403 14:03:37.078040   687 net.cpp:148] Top shape: 100 256 27 27 (18662400)
I0403 14:03:37.078058   687 net.cpp:156] Memory required for data: 512959600
I0403 14:03:37.078084   687 layer_factory.hpp:77] Creating layer relu2
I0403 14:03:37.078107   687 net.cpp:91] Creating Layer relu2
I0403 14:03:37.078125   687 net.cpp:425] relu2 <- conv2
I0403 14:03:37.078145   687 net.cpp:386] relu2 -> conv2 (in-place)
I0403 14:03:37.078445   687 net.cpp:141] Setting up relu2
I0403 14:03:37.078474   687 net.cpp:148] Top shape: 100 256 27 27 (18662400)
I0403 14:03:37.078490   687 net.cpp:156] Memory required for data: 587609200
I0403 14:03:37.078506   687 layer_factory.hpp:77] Creating layer norm2
I0403 14:03:37.078532   687 net.cpp:91] Creating Layer norm2
I0403 14:03:37.078550   687 net.cpp:425] norm2 <- conv2
I0403 14:03:37.078572   687 net.cpp:399] norm2 -> norm2
I0403 14:03:37.078781   687 net.cpp:141] Setting up norm2
I0403 14:03:37.078809   687 net.cpp:148] Top shape: 100 256 27 27 (18662400)
I0403 14:03:37.078824   687 net.cpp:156] Memory required for data: 662258800
I0403 14:03:37.078840   687 layer_factory.hpp:77] Creating layer pool2
I0403 14:03:37.078860   687 net.cpp:91] Creating Layer pool2
I0403 14:03:37.078876   687 net.cpp:425] pool2 <- norm2
I0403 14:03:37.078897   687 net.cpp:399] pool2 -> pool2
I0403 14:03:37.078954   687 net.cpp:141] Setting up pool2
I0403 14:03:37.078979   687 net.cpp:148] Top shape: 100 256 13 13 (4326400)
I0403 14:03:37.078995   687 net.cpp:156] Memory required for data: 679564400
I0403 14:03:37.079010   687 layer_factory.hpp:77] Creating layer conv3
I0403 14:03:37.079040   687 net.cpp:91] Creating Layer conv3
I0403 14:03:37.079057   687 net.cpp:425] conv3 <- pool2
I0403 14:03:37.079077   687 net.cpp:399] conv3 -> conv3
I0403 14:03:37.119202   687 net.cpp:141] Setting up conv3
I0403 14:03:37.119274   687 net.cpp:148] Top shape: 100 384 13 13 (6489600)
I0403 14:03:37.119293   687 net.cpp:156] Memory required for data: 705522800
I0403 14:03:37.119319   687 layer_factory.hpp:77] Creating layer relu3
I0403 14:03:37.119344   687 net.cpp:91] Creating Layer relu3
I0403 14:03:37.119364   687 net.cpp:425] relu3 <- conv3
I0403 14:03:37.119385   687 net.cpp:386] relu3 -> conv3 (in-place)
I0403 14:03:37.119669   687 net.cpp:141] Setting up relu3
I0403 14:03:37.119699   687 net.cpp:148] Top shape: 100 384 13 13 (6489600)
I0403 14:03:37.119714   687 net.cpp:156] Memory required for data: 731481200
I0403 14:03:37.119730   687 layer_factory.hpp:77] Creating layer conv4
I0403 14:03:37.119757   687 net.cpp:91] Creating Layer conv4
I0403 14:03:37.119776   687 net.cpp:425] conv4 <- conv3
I0403 14:03:37.119797   687 net.cpp:399] conv4 -> conv4
I0403 14:03:37.151260   687 net.cpp:141] Setting up conv4
I0403 14:03:37.151338   687 net.cpp:148] Top shape: 100 384 13 13 (6489600)
I0403 14:03:37.151387   687 net.cpp:156] Memory required for data: 757439600
I0403 14:03:37.151410   687 layer_factory.hpp:77] Creating layer relu4
I0403 14:03:37.151434   687 net.cpp:91] Creating Layer relu4
I0403 14:03:37.151453   687 net.cpp:425] relu4 <- conv4
I0403 14:03:37.151475   687 net.cpp:386] relu4 -> conv4 (in-place)
I0403 14:03:37.151770   687 net.cpp:141] Setting up relu4
I0403 14:03:37.151799   687 net.cpp:148] Top shape: 100 384 13 13 (6489600)
I0403 14:03:37.151815   687 net.cpp:156] Memory required for data: 783398000
I0403 14:03:37.151831   687 layer_factory.hpp:77] Creating layer conv5
I0403 14:03:37.151857   687 net.cpp:91] Creating Layer conv5
I0403 14:03:37.151875   687 net.cpp:425] conv5 <- conv4
I0403 14:03:37.151898   687 net.cpp:399] conv5 -> conv5
I0403 14:03:37.173553   687 net.cpp:141] Setting up conv5
I0403 14:03:37.173593   687 net.cpp:148] Top shape: 100 256 13 13 (4326400)
I0403 14:03:37.173609   687 net.cpp:156] Memory required for data: 800703600
I0403 14:03:37.173635   687 layer_factory.hpp:77] Creating layer relu5
I0403 14:03:37.173657   687 net.cpp:91] Creating Layer relu5
I0403 14:03:37.173702   687 net.cpp:425] relu5 <- conv5
I0403 14:03:37.173733   687 net.cpp:386] relu5 -> conv5 (in-place)
I0403 14:03:37.174026   687 net.cpp:141] Setting up relu5
I0403 14:03:37.174055   687 net.cpp:148] Top shape: 100 256 13 13 (4326400)
I0403 14:03:37.174072   687 net.cpp:156] Memory required for data: 818009200
I0403 14:03:37.174088   687 layer_factory.hpp:77] Creating layer pool5
I0403 14:03:37.174113   687 net.cpp:91] Creating Layer pool5
I0403 14:03:37.174131   687 net.cpp:425] pool5 <- conv5
I0403 14:03:37.174150   687 net.cpp:399] pool5 -> pool5
I0403 14:03:37.174216   687 net.cpp:141] Setting up pool5
I0403 14:03:37.174242   687 net.cpp:148] Top shape: 100 256 6 6 (921600)
I0403 14:03:37.174257   687 net.cpp:156] Memory required for data: 821695600
I0403 14:03:37.174275   687 layer_factory.hpp:77] Creating layer fc6
I0403 14:03:37.174307   687 net.cpp:91] Creating Layer fc6
I0403 14:03:37.174326   687 net.cpp:425] fc6 <- pool5
I0403 14:03:37.174346   687 net.cpp:399] fc6 -> fc6
I0403 14:03:38.720873   687 net.cpp:141] Setting up fc6
I0403 14:03:38.720914   687 net.cpp:148] Top shape: 100 4096 (409600)
I0403 14:03:38.720930   687 net.cpp:156] Memory required for data: 823334000
I0403 14:03:38.720950   687 layer_factory.hpp:77] Creating layer relu6
I0403 14:03:38.720971   687 net.cpp:91] Creating Layer relu6
I0403 14:03:38.720989   687 net.cpp:425] relu6 <- fc6
I0403 14:03:38.721009   687 net.cpp:386] relu6 -> fc6 (in-place)
I0403 14:03:38.721218   687 net.cpp:141] Setting up relu6
I0403 14:03:38.721242   687 net.cpp:148] Top shape: 100 4096 (409600)
I0403 14:03:38.721256   687 net.cpp:156] Memory required for data: 824972400
I0403 14:03:38.721276   687 layer_factory.hpp:77] Creating layer drop6
I0403 14:03:38.721295   687 net.cpp:91] Creating Layer drop6
I0403 14:03:38.721310   687 net.cpp:425] drop6 <- fc6
I0403 14:03:38.721331   687 net.cpp:386] drop6 -> fc6 (in-place)
I0403 14:03:38.721385   687 net.cpp:141] Setting up drop6
I0403 14:03:38.721406   687 net.cpp:148] Top shape: 100 4096 (409600)
I0403 14:03:38.721421   687 net.cpp:156] Memory required for data: 826610800
I0403 14:03:38.721436   687 layer_factory.hpp:77] Creating layer fc7
I0403 14:03:38.721454   687 net.cpp:91] Creating Layer fc7
I0403 14:03:38.721468   687 net.cpp:425] fc7 <- fc6
I0403 14:03:38.721490   687 net.cpp:399] fc7 -> fc7
I0403 14:03:39.403784   687 net.cpp:141] Setting up fc7
I0403 14:03:39.403823   687 net.cpp:148] Top shape: 100 4096 (409600)
I0403 14:03:39.403838   687 net.cpp:156] Memory required for data: 828249200
I0403 14:03:39.403859   687 layer_factory.hpp:77] Creating layer relu7
I0403 14:03:39.403882   687 net.cpp:91] Creating Layer relu7
I0403 14:03:39.403900   687 net.cpp:425] relu7 <- fc7
I0403 14:03:39.403918   687 net.cpp:386] relu7 -> fc7 (in-place)
I0403 14:03:39.404316   687 net.cpp:141] Setting up relu7
I0403 14:03:39.404341   687 net.cpp:148] Top shape: 100 4096 (409600)
I0403 14:03:39.404386   687 net.cpp:156] Memory required for data: 829887600
I0403 14:03:39.404402   687 layer_factory.hpp:77] Creating layer drop7
I0403 14:03:39.404422   687 net.cpp:91] Creating Layer drop7
I0403 14:03:39.404439   687 net.cpp:425] drop7 <- fc7
I0403 14:03:39.404456   687 net.cpp:386] drop7 -> fc7 (in-place)
I0403 14:03:39.404498   687 net.cpp:141] Setting up drop7
I0403 14:03:39.404522   687 net.cpp:148] Top shape: 100 4096 (409600)
I0403 14:03:39.404538   687 net.cpp:156] Memory required for data: 831526000
I0403 14:03:39.404553   687 layer_factory.hpp:77] Creating layer fc8_plantvillage
I0403 14:03:39.404572   687 net.cpp:91] Creating Layer fc8_plantvillage
I0403 14:03:39.404587   687 net.cpp:425] fc8_plantvillage <- fc7
I0403 14:03:39.404606   687 net.cpp:399] fc8_plantvillage -> fc8_plantvillage
I0403 14:03:39.411115   687 net.cpp:141] Setting up fc8_plantvillage
I0403 14:03:39.411142   687 net.cpp:148] Top shape: 100 38 (3800)
I0403 14:03:39.411157   687 net.cpp:156] Memory required for data: 831541200
I0403 14:03:39.411175   687 layer_factory.hpp:77] Creating layer fc8_plantvillage_fc8_plantvillage_0_split
I0403 14:03:39.411195   687 net.cpp:91] Creating Layer fc8_plantvillage_fc8_plantvillage_0_split
I0403 14:03:39.411211   687 net.cpp:425] fc8_plantvillage_fc8_plantvillage_0_split <- fc8_plantvillage
I0403 14:03:39.411228   687 net.cpp:399] fc8_plantvillage_fc8_plantvillage_0_split -> fc8_plantvillage_fc8_plantvillage_0_split_0
I0403 14:03:39.411248   687 net.cpp:399] fc8_plantvillage_fc8_plantvillage_0_split -> fc8_plantvillage_fc8_plantvillage_0_split_1
I0403 14:03:39.411268   687 net.cpp:399] fc8_plantvillage_fc8_plantvillage_0_split -> fc8_plantvillage_fc8_plantvillage_0_split_2
I0403 14:03:39.411350   687 net.cpp:141] Setting up fc8_plantvillage_fc8_plantvillage_0_split
I0403 14:03:39.411373   687 net.cpp:148] Top shape: 100 38 (3800)
I0403 14:03:39.411389   687 net.cpp:148] Top shape: 100 38 (3800)
I0403 14:03:39.411404   687 net.cpp:148] Top shape: 100 38 (3800)
I0403 14:03:39.411417   687 net.cpp:156] Memory required for data: 831586800
I0403 14:03:39.411432   687 layer_factory.hpp:77] Creating layer prob
I0403 14:03:39.411450   687 net.cpp:91] Creating Layer prob
I0403 14:03:39.411465   687 net.cpp:425] prob <- fc8_plantvillage_fc8_plantvillage_0_split_0
I0403 14:03:39.411485   687 net.cpp:399] prob -> prob
I0403 14:03:39.411708   687 net.cpp:141] Setting up prob
I0403 14:03:39.411733   687 net.cpp:148] Top shape: 100 38 (3800)
I0403 14:03:39.411747   687 net.cpp:156] Memory required for data: 831602000
I0403 14:03:39.411761   687 layer_factory.hpp:77] Creating layer hdf5out
I0403 14:03:39.411782   687 net.cpp:91] Creating Layer hdf5out
I0403 14:03:39.411799   687 net.cpp:425] hdf5out <- prob
I0403 14:03:39.411815   687 net.cpp:425] hdf5out <- label_data_1_split_0
I0403 14:03:39.414039   687 net.cpp:141] Setting up hdf5out
…
