…
I0403 13:27:38.551931 32275 net.cpp:313] The NetState phase (1) differed from the phase (0) specified by a rule in layer data
I0403 13:27:38.552228 32275 net.cpp:49] Initializing net from parameters: 
state {
  phase: TEST
}
layer {
  name: "data"
  type: "Data"
  top: "data"
  top: "label"
  include {
    phase: TEST
  }
  transform_param {
    crop_size: 227
    mean_file: "/home/mohanty/data/final_dataset/lmdb/segmented-20-80/mean.binaryproto"
  }
  data_param {
    source: "/home/mohanty/data/final_dataset/lmdb/segmented-20-80/test_db"
    batch_size: 100
    backend: LMDB
  }
}
layer {
  name: "conv1"
  type: "Convolution"
  bottom: "data"
  top: "conv1"
  param {
    lr_mult: 1
    decay_mult: 1
  }
  param {
    lr_mult: 2
    decay_mult: 0
  }
  convolution_param {
    num_output: 96
    kernel_size: 11
    stride: 4
    weight_filler {
      type: "gaussian"
      std: 0.01
    }
    bias_filler {
      type: "constant"
      value: 0
    }
  }
}
layer {
  name: "relu1"
  type: "ReLU"
  bottom: "conv1"
  top: "conv1"
}
layer {
  name: "norm1"
  type: "LRN"
  bottom: "conv1"
  top: "norm1"
  lrn_param {
    local_size: 5
    alpha: 0.0001
    beta: 0.75
  }
}
layer {
  name: "pool1"
  type: "Pooling"
  bottom: "norm1"
  top: "pool1"
  pooling_param {
    pool: MAX
    kernel_size: 3
    stride: 2
  }
}
layer {
  name: "conv2"
  type: "Convolution"
  bottom: "pool1"
  top: "conv2"
  param {
    lr_mult: 1
    decay_mult: 1
  }
  param {
    lr_mult: 2
    decay_mult: 0
  }
  convolution_param {
    num_output: 256
    pad: 2
    kernel_size: 5
    group: 2
    weight_filler {
      type: "gaussian"
      std: 0.01
    }
    bias_filler {
      type: "constant"
      value: 0.1
    }
  }
}
layer {
  name: "relu2"
  type: "ReLU"
  bottom: "conv2"
  top: "conv2"
}
layer {
  name: "norm2"
  type: "LRN"
  bottom: "conv2"
  top: "norm2"
  lrn_param {
    local_size: 5
    alpha: 0.0001
    beta: 0.75
  }
}
layer {
  name: "pool2"
  type: "Pooling"
  bottom: "norm2"
  top: "pool2"
  pooling_param {
    pool: MAX
    kernel_size: 3
    stride: 2
  }
}
layer {
  name: "conv3"
  type: "Convolution"
  bottom: "pool2"
  top: "conv3"
  param {
    lr_mult: 1
    decay_mult: 1
  }
  param {
    lr_mult: 2
    decay_mult: 0
  }
  convolution_param {
    num_output: 384
    pad: 1
    kernel_size: 3
    weight_filler {
      type: "gaussian"
      std: 0.01
    }
    bias_filler {
      type: "constant"
      value: 0
    }
  }
}
layer {
  name: "relu3"
  type: "ReLU"
  bottom: "conv3"
  top: "conv3"
}
layer {
  name: "conv4"
  type: "Convolution"
  bottom: "conv3"
  top: "conv4"
  param {
    lr_mult: 1
    decay_mult: 1
  }
  param {
    lr_mult: 2
    decay_mult: 0
  }
  convolution_param {
    num_output: 384
    pad: 1
    kernel_size: 3
    group: 2
    weight_filler {
      type: "gaussian"
      std: 0.01
    }
    bias_filler {
      type: "constant"
      value: 0.1
    }
  }
}
layer {
  name: "relu4"
  type: "ReLU"
  bottom: "conv4"
  top: "conv4"
}
layer {
  name: "conv5"
  type: "Convolution"
  bottom: "conv4"
  top: "conv5"
  param {
    lr_mult: 1
    decay_mult: 1
  }
  param {
    lr_mult: 2
    decay_mult: 0
  }
  convolution_param {
    num_output: 256
    pad: 1
    kernel_size: 3
    group: 2
    weight_filler {
      type: "gaussian"
      std: 0.01
    }
    bias_filler {
      type: "constant"
      value: 0.1
    }
  }
}
layer {
  name: "relu5"
  type: "ReLU"
  bottom: "conv5"
  top: "conv5"
}
layer {
  name: "pool5"
  type: "Pooling"
  bottom: "conv5"
  top: "pool5"
  pooling_param {
    pool: MAX
    kernel_size: 3
    stride: 2
  }
}
layer {
  name: "fc6"
  type: "InnerProduct"
  bottom: "pool5"
  top: "fc6"
  param {
    lr_mult: 1
    decay_mult: 1
  }
  param {
    lr_mult: 2
    decay_mult: 0
  }
  inner_product_param {
    num_output: 4096
    weight_filler {
      type: "gaussian"
      std: 0.005
    }
    bias_filler {
      type: "constant"
      value: 0.1
    }
  }
}
layer {
  name: "relu6"
  type: "ReLU"
  bottom: "fc6"
  top: "fc6"
}
layer {
  name: "drop6"
  type: "Dropout"
  bottom: "fc6"
  top: "fc6"
  dropout_param {
    dropout_ratio: 0.5
  }
}
layer {
  name: "fc7"
  type: "InnerProduct"
  bottom: "fc6"
  top: "fc7"
  param {
    lr_mult: 1
    decay_mult: 1
  }
  param {
    lr_mult: 2
    decay_mult: 0
  }
  inner_product_param {
    num_output: 4096
    weight_filler {
      type: "gaussian"
      std: 0.005
    }
    bias_filler {
      type: "constant"
      value: 0.1
    }
  }
}
layer {
  name: "relu7"
  type: "ReLU"
  bottom: "fc7"
  top: "fc7"
}
layer {
  name: "drop7"
  type: "Dropout"
  bottom: "fc7"
  top: "fc7"
  dropout_param {
    dropout_ratio: 0.5
  }
}
layer {
  name: "fc8_plantvillage"
  type: "InnerProduct"
  bottom: "fc7"
  top: "fc8_plantvillage"
  param {
    lr_mult: 1
    decay_mult: 1
  }
  param {
    lr_mult: 2
    decay_mult: 0
  }
  inner_product_param {
    num_output: 38
    weight_filler {
      type: "gaussian"
      std: 0.01
    }
    bias_filler {
      type: "constant"
      value: 0
    }
  }
}
layer {
  name: "prob"
  type: "Softmax"
  bottom: "fc8_plantvillage"
  top: "prob"
  include {
    phase: TEST
  }
}
layer {
  name: "hdf5out"
  type: "HDF5Output"
  bottom: "prob"
  bottom: "label"
  include {
    phase: TEST
  }
  hdf5_output_param {
    file_name: "hdf5_dumps/iter_106.h5"
  }
}
layer {
  name: "loss"
  type: "SoftmaxWithLoss"
  bottom: "fc8_plantvillage"
  bottom: "label"
  top: "loss"
}
layer {
  name: "accuracy"
  type: "Accuracy"
  bottom: "fc8_plantvillage"
  bottom: "label"
  top: "accuracy"
  include {
    phase: TEST
  }
}
I0403 13:27:38.554205 32275 layer_factory.hpp:77] Creating layer data
I0403 13:27:38.554868 32275 net.cpp:91] Creating Layer data
I0403 13:27:38.554903 32275 net.cpp:399] data -> data
I0403 13:27:38.554967 32275 net.cpp:399] data -> label
I0403 13:27:38.555002 32275 data_transformer.cpp:25] Loading mean file from: /home/mohanty/data/final_dataset/lmdb/segmented-20-80/mean.binaryproto
I0403 13:27:38.601735 32278 db_lmdb.cpp:38] Opened lmdb /home/mohanty/data/final_dataset/lmdb/segmented-20-80/test_db
I0403 13:27:38.662022 32275 data_layer.cpp:41] output data size: 100,3,227,227
I0403 13:27:38.786689 32275 net.cpp:141] Setting up data
I0403 13:27:38.786799 32275 net.cpp:148] Top shape: 100 3 227 227 (15458700)
I0403 13:27:38.786823 32275 net.cpp:148] Top shape: 100 (100)
I0403 13:27:38.786839 32275 net.cpp:156] Memory required for data: 61835200
I0403 13:27:38.786866 32275 layer_factory.hpp:77] Creating layer label_data_1_split
I0403 13:27:38.786892 32275 net.cpp:91] Creating Layer label_data_1_split
I0403 13:27:38.786911 32275 net.cpp:425] label_data_1_split <- label
I0403 13:27:38.786942 32275 net.cpp:399] label_data_1_split -> label_data_1_split_0
I0403 13:27:38.786968 32275 net.cpp:399] label_data_1_split -> label_data_1_split_1
I0403 13:27:38.786990 32275 net.cpp:399] label_data_1_split -> label_data_1_split_2
I0403 13:27:38.787055 32275 net.cpp:141] Setting up label_data_1_split
I0403 13:27:38.787078 32275 net.cpp:148] Top shape: 100 (100)
I0403 13:27:38.787096 32275 net.cpp:148] Top shape: 100 (100)
I0403 13:27:38.787112 32275 net.cpp:148] Top shape: 100 (100)
I0403 13:27:38.787127 32275 net.cpp:156] Memory required for data: 61836400
I0403 13:27:38.787142 32275 layer_factory.hpp:77] Creating layer conv1
I0403 13:27:38.787174 32275 net.cpp:91] Creating Layer conv1
I0403 13:27:38.787194 32275 net.cpp:425] conv1 <- data
I0403 13:27:38.787214 32275 net.cpp:399] conv1 -> conv1
I0403 13:27:38.933398 32275 net.cpp:141] Setting up conv1
I0403 13:27:38.933467 32275 net.cpp:148] Top shape: 100 96 55 55 (29040000)
I0403 13:27:38.933485 32275 net.cpp:156] Memory required for data: 177996400
I0403 13:27:38.933518 32275 layer_factory.hpp:77] Creating layer relu1
I0403 13:27:38.933547 32275 net.cpp:91] Creating Layer relu1
I0403 13:27:38.933567 32275 net.cpp:425] relu1 <- conv1
I0403 13:27:38.933585 32275 net.cpp:386] relu1 -> conv1 (in-place)
I0403 13:27:38.933857 32275 net.cpp:141] Setting up relu1
I0403 13:27:38.933886 32275 net.cpp:148] Top shape: 100 96 55 55 (29040000)
I0403 13:27:38.933933 32275 net.cpp:156] Memory required for data: 294156400
I0403 13:27:38.933950 32275 layer_factory.hpp:77] Creating layer norm1
I0403 13:27:38.933979 32275 net.cpp:91] Creating Layer norm1
I0403 13:27:38.933997 32275 net.cpp:425] norm1 <- conv1
I0403 13:27:38.934015 32275 net.cpp:399] norm1 -> norm1
I0403 13:27:38.934327 32275 net.cpp:141] Setting up norm1
I0403 13:27:38.934355 32275 net.cpp:148] Top shape: 100 96 55 55 (29040000)
I0403 13:27:38.934372 32275 net.cpp:156] Memory required for data: 410316400
I0403 13:27:38.934387 32275 layer_factory.hpp:77] Creating layer pool1
I0403 13:27:38.934412 32275 net.cpp:91] Creating Layer pool1
I0403 13:27:38.934428 32275 net.cpp:425] pool1 <- norm1
I0403 13:27:38.934448 32275 net.cpp:399] pool1 -> pool1
I0403 13:27:38.934514 32275 net.cpp:141] Setting up pool1
I0403 13:27:38.934538 32275 net.cpp:148] Top shape: 100 96 27 27 (6998400)
I0403 13:27:38.934553 32275 net.cpp:156] Memory required for data: 438310000
I0403 13:27:38.934568 32275 layer_factory.hpp:77] Creating layer conv2
I0403 13:27:38.934593 32275 net.cpp:91] Creating Layer conv2
I0403 13:27:38.934610 32275 net.cpp:425] conv2 <- pool1
I0403 13:27:38.934629 32275 net.cpp:399] conv2 -> conv2
I0403 13:27:38.950269 32275 net.cpp:141] Setting up conv2
I0403 13:27:38.950317 32275 net.cpp:148] Top shape: 100 256 27 27 (18662400)
I0403 13:27:38.950335 32275 net.cpp:156] Memory required for data: 512959600
I0403 13:27:38.950358 32275 layer_factory.hpp:77] Creating layer relu2
I0403 13:27:38.950379 32275 net.cpp:91] Creating Layer relu2
I0403 13:27:38.950395 32275 net.cpp:425] relu2 <- conv2
I0403 13:27:38.950415 32275 net.cpp:386] relu2 -> conv2 (in-place)
I0403 13:27:38.950690 32275 net.cpp:141] Setting up relu2
I0403 13:27:38.950717 32275 net.cpp:148] Top shape: 100 256 27 27 (18662400)
I0403 13:27:38.950733 32275 net.cpp:156] Memory required for data: 587609200
I0403 13:27:38.950749 32275 layer_factory.hpp:77] Creating layer norm2
I0403 13:27:38.950773 32275 net.cpp:91] Creating Layer norm2
I0403 13:27:38.950789 32275 net.cpp:425] norm2 <- conv2
I0403 13:27:38.950809 32275 net.cpp:399] norm2 -> norm2
I0403 13:27:38.951000 32275 net.cpp:141] Setting up norm2
I0403 13:27:38.951025 32275 net.cpp:148] Top shape: 100 256 27 27 (18662400)
I0403 13:27:38.951040 32275 net.cpp:156] Memory required for data: 662258800
I0403 13:27:38.951056 32275 layer_factory.hpp:77] Creating layer pool2
I0403 13:27:38.951076 32275 net.cpp:91] Creating Layer pool2
I0403 13:27:38.951092 32275 net.cpp:425] pool2 <- norm2
I0403 13:27:38.951112 32275 net.cpp:399] pool2 -> pool2
I0403 13:27:38.951162 32275 net.cpp:141] Setting up pool2
I0403 13:27:38.951185 32275 net.cpp:148] Top shape: 100 256 13 13 (4326400)
I0403 13:27:38.951200 32275 net.cpp:156] Memory required for data: 679564400
I0403 13:27:38.951215 32275 layer_factory.hpp:77] Creating layer conv3
I0403 13:27:38.951237 32275 net.cpp:91] Creating Layer conv3
I0403 13:27:38.951259 32275 net.cpp:425] conv3 <- pool2
I0403 13:27:38.951278 32275 net.cpp:399] conv3 -> conv3
I0403 13:27:38.990793 32275 net.cpp:141] Setting up conv3
I0403 13:27:38.990859 32275 net.cpp:148] Top shape: 100 384 13 13 (6489600)
I0403 13:27:38.990876 32275 net.cpp:156] Memory required for data: 705522800
I0403 13:27:38.990903 32275 layer_factory.hpp:77] Creating layer relu3
I0403 13:27:38.990926 32275 net.cpp:91] Creating Layer relu3
I0403 13:27:38.990944 32275 net.cpp:425] relu3 <- conv3
I0403 13:27:38.990963 32275 net.cpp:386] relu3 -> conv3 (in-place)
I0403 13:27:38.991233 32275 net.cpp:141] Setting up relu3
I0403 13:27:38.991264 32275 net.cpp:148] Top shape: 100 384 13 13 (6489600)
I0403 13:27:38.991281 32275 net.cpp:156] Memory required for data: 731481200
I0403 13:27:38.991297 32275 layer_factory.hpp:77] Creating layer conv4
I0403 13:27:38.991322 32275 net.cpp:91] Creating Layer conv4
I0403 13:27:38.991338 32275 net.cpp:425] conv4 <- conv3
I0403 13:27:38.991358 32275 net.cpp:399] conv4 -> conv4
I0403 13:27:39.022565 32275 net.cpp:141] Setting up conv4
I0403 13:27:39.022634 32275 net.cpp:148] Top shape: 100 384 13 13 (6489600)
I0403 13:27:39.022683 32275 net.cpp:156] Memory required for data: 757439600
I0403 13:27:39.022706 32275 layer_factory.hpp:77] Creating layer relu4
I0403 13:27:39.022730 32275 net.cpp:91] Creating Layer relu4
I0403 13:27:39.022748 32275 net.cpp:425] relu4 <- conv4
I0403 13:27:39.022769 32275 net.cpp:386] relu4 -> conv4 (in-place)
I0403 13:27:39.023085 32275 net.cpp:141] Setting up relu4
I0403 13:27:39.023114 32275 net.cpp:148] Top shape: 100 384 13 13 (6489600)
I0403 13:27:39.023130 32275 net.cpp:156] Memory required for data: 783398000
I0403 13:27:39.023146 32275 layer_factory.hpp:77] Creating layer conv5
I0403 13:27:39.023174 32275 net.cpp:91] Creating Layer conv5
I0403 13:27:39.023191 32275 net.cpp:425] conv5 <- conv4
I0403 13:27:39.023213 32275 net.cpp:399] conv5 -> conv5
I0403 13:27:39.044422 32275 net.cpp:141] Setting up conv5
I0403 13:27:39.044482 32275 net.cpp:148] Top shape: 100 256 13 13 (4326400)
I0403 13:27:39.044499 32275 net.cpp:156] Memory required for data: 800703600
I0403 13:27:39.044526 32275 layer_factory.hpp:77] Creating layer relu5
I0403 13:27:39.044553 32275 net.cpp:91] Creating Layer relu5
I0403 13:27:39.044570 32275 net.cpp:425] relu5 <- conv5
I0403 13:27:39.044591 32275 net.cpp:386] relu5 -> conv5 (in-place)
I0403 13:27:39.044880 32275 net.cpp:141] Setting up relu5
I0403 13:27:39.044909 32275 net.cpp:148] Top shape: 100 256 13 13 (4326400)
I0403 13:27:39.044924 32275 net.cpp:156] Memory required for data: 818009200
I0403 13:27:39.044939 32275 layer_factory.hpp:77] Creating layer pool5
I0403 13:27:39.044968 32275 net.cpp:91] Creating Layer pool5
I0403 13:27:39.044987 32275 net.cpp:425] pool5 <- conv5
I0403 13:27:39.045009 32275 net.cpp:399] pool5 -> pool5
I0403 13:27:39.045075 32275 net.cpp:141] Setting up pool5
I0403 13:27:39.045101 32275 net.cpp:148] Top shape: 100 256 6 6 (921600)
I0403 13:27:39.045116 32275 net.cpp:156] Memory required for data: 821695600
I0403 13:27:39.045132 32275 layer_factory.hpp:77] Creating layer fc6
I0403 13:27:39.045162 32275 net.cpp:91] Creating Layer fc6
I0403 13:27:39.045181 32275 net.cpp:425] fc6 <- pool5
I0403 13:27:39.045200 32275 net.cpp:399] fc6 -> fc6
I0403 13:27:40.613353 32275 net.cpp:141] Setting up fc6
I0403 13:27:40.613440 32275 net.cpp:148] Top shape: 100 4096 (409600)
I0403 13:27:40.613457 32275 net.cpp:156] Memory required for data: 823334000
I0403 13:27:40.613478 32275 layer_factory.hpp:77] Creating layer relu6
I0403 13:27:40.613499 32275 net.cpp:91] Creating Layer relu6
I0403 13:27:40.613519 32275 net.cpp:425] relu6 <- fc6
I0403 13:27:40.613539 32275 net.cpp:386] relu6 -> fc6 (in-place)
I0403 13:27:40.613760 32275 net.cpp:141] Setting up relu6
I0403 13:27:40.613785 32275 net.cpp:148] Top shape: 100 4096 (409600)
I0403 13:27:40.613800 32275 net.cpp:156] Memory required for data: 824972400
I0403 13:27:40.613814 32275 layer_factory.hpp:77] Creating layer drop6
I0403 13:27:40.613836 32275 net.cpp:91] Creating Layer drop6
I0403 13:27:40.613852 32275 net.cpp:425] drop6 <- fc6
I0403 13:27:40.613868 32275 net.cpp:386] drop6 -> fc6 (in-place)
I0403 13:27:40.613921 32275 net.cpp:141] Setting up drop6
I0403 13:27:40.613943 32275 net.cpp:148] Top shape: 100 4096 (409600)
I0403 13:27:40.613958 32275 net.cpp:156] Memory required for data: 826610800
I0403 13:27:40.613973 32275 layer_factory.hpp:77] Creating layer fc7
I0403 13:27:40.613993 32275 net.cpp:91] Creating Layer fc7
I0403 13:27:40.614009 32275 net.cpp:425] fc7 <- fc6
I0403 13:27:40.614029 32275 net.cpp:399] fc7 -> fc7
I0403 13:27:41.313802 32275 net.cpp:141] Setting up fc7
I0403 13:27:41.313889 32275 net.cpp:148] Top shape: 100 4096 (409600)
I0403 13:27:41.313906 32275 net.cpp:156] Memory required for data: 828249200
I0403 13:27:41.313928 32275 layer_factory.hpp:77] Creating layer relu7
I0403 13:27:41.313951 32275 net.cpp:91] Creating Layer relu7
I0403 13:27:41.313967 32275 net.cpp:425] relu7 <- fc7
I0403 13:27:41.313987 32275 net.cpp:386] relu7 -> fc7 (in-place)
I0403 13:27:41.314388 32275 net.cpp:141] Setting up relu7
I0403 13:27:41.314414 32275 net.cpp:148] Top shape: 100 4096 (409600)
I0403 13:27:41.314460 32275 net.cpp:156] Memory required for data: 829887600
I0403 13:27:41.314477 32275 layer_factory.hpp:77] Creating layer drop7
I0403 13:27:41.314499 32275 net.cpp:91] Creating Layer drop7
I0403 13:27:41.314515 32275 net.cpp:425] drop7 <- fc7
I0403 13:27:41.314533 32275 net.cpp:386] drop7 -> fc7 (in-place)
I0403 13:27:41.314579 32275 net.cpp:141] Setting up drop7
I0403 13:27:41.314600 32275 net.cpp:148] Top shape: 100 4096 (409600)
I0403 13:27:41.314615 32275 net.cpp:156] Memory required for data: 831526000
I0403 13:27:41.314630 32275 layer_factory.hpp:77] Creating layer fc8_plantvillage
I0403 13:27:41.314651 32275 net.cpp:91] Creating Layer fc8_plantvillage
I0403 13:27:41.314668 32275 net.cpp:425] fc8_plantvillage <- fc7
I0403 13:27:41.314687 32275 net.cpp:399] fc8_plantvillage -> fc8_plantvillage
I0403 13:27:41.321405 32275 net.cpp:141] Setting up fc8_plantvillage
I0403 13:27:41.321435 32275 net.cpp:148] Top shape: 100 38 (3800)
I0403 13:27:41.321451 32275 net.cpp:156] Memory required for data: 831541200
I0403 13:27:41.321477 32275 layer_factory.hpp:77] Creating layer fc8_plantvillage_fc8_plantvillage_0_split
I0403 13:27:41.321501 32275 net.cpp:91] Creating Layer fc8_plantvillage_fc8_plantvillage_0_split
I0403 13:27:41.321519 32275 net.cpp:425] fc8_plantvillage_fc8_plantvillage_0_split <- fc8_plantvillage
I0403 13:27:41.321537 32275 net.cpp:399] fc8_plantvillage_fc8_plantvillage_0_split -> fc8_plantvillage_fc8_plantvillage_0_split_0
I0403 13:27:41.321560 32275 net.cpp:399] fc8_plantvillage_fc8_plantvillage_0_split -> fc8_plantvillage_fc8_plantvillage_0_split_1
I0403 13:27:41.321583 32275 net.cpp:399] fc8_plantvillage_fc8_plantvillage_0_split -> fc8_plantvillage_fc8_plantvillage_0_split_2
I0403 13:27:41.321663 32275 net.cpp:141] Setting up fc8_plantvillage_fc8_plantvillage_0_split
I0403 13:27:41.321687 32275 net.cpp:148] Top shape: 100 38 (3800)
I0403 13:27:41.321704 32275 net.cpp:148] Top shape: 100 38 (3800)
I0403 13:27:41.321722 32275 net.cpp:148] Top shape: 100 38 (3800)
I0403 13:27:41.321748 32275 net.cpp:156] Memory required for data: 831586800
I0403 13:27:41.321761 32275 layer_factory.hpp:77] Creating layer prob
I0403 13:27:41.321782 32275 net.cpp:91] Creating Layer prob
I0403 13:27:41.321815 32275 net.cpp:425] prob <- fc8_plantvillage_fc8_plantvillage_0_split_0
I0403 13:27:41.321835 32275 net.cpp:399] prob -> prob
I0403 13:27:41.322068 32275 net.cpp:141] Setting up prob
I0403 13:27:41.322098 32275 net.cpp:148] Top shape: 100 38 (3800)
I0403 13:27:41.322114 32275 net.cpp:156] Memory required for data: 831602000
I0403 13:27:41.322129 32275 layer_factory.hpp:77] Creating layer hdf5out
I0403 13:27:41.322151 32275 net.cpp:91] Creating Layer hdf5out
I0403 13:27:41.322168 32275 net.cpp:425] hdf5out <- prob
I0403 13:27:41.322185 32275 net.cpp:425] hdf5out <- label_data_1_split_0
I0403 13:27:41.334843 32275 net.cpp:141] Setting up hdf5out
…
