…
I0403 13:41:51.492522 32709 net.cpp:313] The NetState phase (1) differed from the phase (0) specified by a rule in layer data
I0403 13:41:51.492841 32709 net.cpp:49] Initializing net from parameters: 
state {
  phase: TEST
}
layer {
  name: "data"
  type: "Data"
  top: "data"
  top: "label"
  include {
    phase: TEST
  }
  transform_param {
    crop_size: 227
    mean_file: "/home/mohanty/data/final_dataset/lmdb/segmented-20-80/mean.binaryproto"
  }
  data_param {
    source: "/home/mohanty/data/final_dataset/lmdb/segmented-20-80/test_db"
    batch_size: 100
    backend: LMDB
  }
}
layer {
  name: "conv1"
  type: "Convolution"
  bottom: "data"
  top: "conv1"
  param {
    lr_mult: 1
    decay_mult: 1
  }
  param {
    lr_mult: 2
    decay_mult: 0
  }
  convolution_param {
    num_output: 96
    kernel_size: 11
    stride: 4
    weight_filler {
      type: "gaussian"
      std: 0.01
    }
    bias_filler {
      type: "constant"
      value: 0
    }
  }
}
layer {
  name: "relu1"
  type: "ReLU"
  bottom: "conv1"
  top: "conv1"
}
layer {
  name: "norm1"
  type: "LRN"
  bottom: "conv1"
  top: "norm1"
  lrn_param {
    local_size: 5
    alpha: 0.0001
    beta: 0.75
  }
}
layer {
  name: "pool1"
  type: "Pooling"
  bottom: "norm1"
  top: "pool1"
  pooling_param {
    pool: MAX
    kernel_size: 3
    stride: 2
  }
}
layer {
  name: "conv2"
  type: "Convolution"
  bottom: "pool1"
  top: "conv2"
  param {
    lr_mult: 1
    decay_mult: 1
  }
  param {
    lr_mult: 2
    decay_mult: 0
  }
  convolution_param {
    num_output: 256
    pad: 2
    kernel_size: 5
    group: 2
    weight_filler {
      type: "gaussian"
      std: 0.01
    }
    bias_filler {
      type: "constant"
      value: 0.1
    }
  }
}
layer {
  name: "relu2"
  type: "ReLU"
  bottom: "conv2"
  top: "conv2"
}
layer {
  name: "norm2"
  type: "LRN"
  bottom: "conv2"
  top: "norm2"
  lrn_param {
    local_size: 5
    alpha: 0.0001
    beta: 0.75
  }
}
layer {
  name: "pool2"
  type: "Pooling"
  bottom: "norm2"
  top: "pool2"
  pooling_param {
    pool: MAX
    kernel_size: 3
    stride: 2
  }
}
layer {
  name: "conv3"
  type: "Convolution"
  bottom: "pool2"
  top: "conv3"
  param {
    lr_mult: 1
    decay_mult: 1
  }
  param {
    lr_mult: 2
    decay_mult: 0
  }
  convolution_param {
    num_output: 384
    pad: 1
    kernel_size: 3
    weight_filler {
      type: "gaussian"
      std: 0.01
    }
    bias_filler {
      type: "constant"
      value: 0
    }
  }
}
layer {
  name: "relu3"
  type: "ReLU"
  bottom: "conv3"
  top: "conv3"
}
layer {
  name: "conv4"
  type: "Convolution"
  bottom: "conv3"
  top: "conv4"
  param {
    lr_mult: 1
    decay_mult: 1
  }
  param {
    lr_mult: 2
    decay_mult: 0
  }
  convolution_param {
    num_output: 384
    pad: 1
    kernel_size: 3
    group: 2
    weight_filler {
      type: "gaussian"
      std: 0.01
    }
    bias_filler {
      type: "constant"
      value: 0.1
    }
  }
}
layer {
  name: "relu4"
  type: "ReLU"
  bottom: "conv4"
  top: "conv4"
}
layer {
  name: "conv5"
  type: "Convolution"
  bottom: "conv4"
  top: "conv5"
  param {
    lr_mult: 1
    decay_mult: 1
  }
  param {
    lr_mult: 2
    decay_mult: 0
  }
  convolution_param {
    num_output: 256
    pad: 1
    kernel_size: 3
    group: 2
    weight_filler {
      type: "gaussian"
      std: 0.01
    }
    bias_filler {
      type: "constant"
      value: 0.1
    }
  }
}
layer {
  name: "relu5"
  type: "ReLU"
  bottom: "conv5"
  top: "conv5"
}
layer {
  name: "pool5"
  type: "Pooling"
  bottom: "conv5"
  top: "pool5"
  pooling_param {
    pool: MAX
    kernel_size: 3
    stride: 2
  }
}
layer {
  name: "fc6"
  type: "InnerProduct"
  bottom: "pool5"
  top: "fc6"
  param {
    lr_mult: 1
    decay_mult: 1
  }
  param {
    lr_mult: 2
    decay_mult: 0
  }
  inner_product_param {
    num_output: 4096
    weight_filler {
      type: "gaussian"
      std: 0.005
    }
    bias_filler {
      type: "constant"
      value: 0.1
    }
  }
}
layer {
  name: "relu6"
  type: "ReLU"
  bottom: "fc6"
  top: "fc6"
}
layer {
  name: "drop6"
  type: "Dropout"
  bottom: "fc6"
  top: "fc6"
  dropout_param {
    dropout_ratio: 0.5
  }
}
layer {
  name: "fc7"
  type: "InnerProduct"
  bottom: "fc6"
  top: "fc7"
  param {
    lr_mult: 1
    decay_mult: 1
  }
  param {
    lr_mult: 2
    decay_mult: 0
  }
  inner_product_param {
    num_output: 4096
    weight_filler {
      type: "gaussian"
      std: 0.005
    }
    bias_filler {
      type: "constant"
      value: 0.1
    }
  }
}
layer {
  name: "relu7"
  type: "ReLU"
  bottom: "fc7"
  top: "fc7"
}
layer {
  name: "drop7"
  type: "Dropout"
  bottom: "fc7"
  top: "fc7"
  dropout_param {
    dropout_ratio: 0.5
  }
}
layer {
  name: "fc8_plantvillage"
  type: "InnerProduct"
  bottom: "fc7"
  top: "fc8_plantvillage"
  param {
    lr_mult: 1
    decay_mult: 1
  }
  param {
    lr_mult: 2
    decay_mult: 0
  }
  inner_product_param {
    num_output: 38
    weight_filler {
      type: "gaussian"
      std: 0.01
    }
    bias_filler {
      type: "constant"
      value: 0
    }
  }
}
layer {
  name: "prob"
  type: "Softmax"
  bottom: "fc8_plantvillage"
  top: "prob"
  include {
    phase: TEST
  }
}
layer {
  name: "hdf5out"
  type: "HDF5Output"
  bottom: "prob"
  bottom: "label"
  include {
    phase: TEST
  }
  hdf5_output_param {
    file_name: "hdf5_dumps/iter_1272.h5"
  }
}
layer {
  name: "loss"
  type: "SoftmaxWithLoss"
  bottom: "fc8_plantvillage"
  bottom: "label"
  top: "loss"
}
layer {
  name: "accuracy"
  type: "Accuracy"
  bottom: "fc8_plantvillage"
  bottom: "label"
  top: "accuracy"
  include {
    phase: TEST
  }
}
I0403 13:41:51.493424 32709 layer_factory.hpp:77] Creating layer data
I0403 13:41:51.494079 32709 net.cpp:91] Creating Layer data
I0403 13:41:51.494112 32709 net.cpp:399] data -> data
I0403 13:41:51.494164 32709 net.cpp:399] data -> label
I0403 13:41:51.494202 32709 data_transformer.cpp:25] Loading mean file from: /home/mohanty/data/final_dataset/lmdb/segmented-20-80/mean.binaryproto
I0403 13:41:51.497107 32712 db_lmdb.cpp:38] Opened lmdb /home/mohanty/data/final_dataset/lmdb/segmented-20-80/test_db
I0403 13:41:51.508906 32709 data_layer.cpp:41] output data size: 100,3,227,227
I0403 13:41:51.632549 32709 net.cpp:141] Setting up data
I0403 13:41:51.632653 32709 net.cpp:148] Top shape: 100 3 227 227 (15458700)
I0403 13:41:51.632676 32709 net.cpp:148] Top shape: 100 (100)
I0403 13:41:51.632693 32709 net.cpp:156] Memory required for data: 61835200
I0403 13:41:51.632720 32709 layer_factory.hpp:77] Creating layer label_data_1_split
I0403 13:41:51.632745 32709 net.cpp:91] Creating Layer label_data_1_split
I0403 13:41:51.632764 32709 net.cpp:425] label_data_1_split <- label
I0403 13:41:51.632797 32709 net.cpp:399] label_data_1_split -> label_data_1_split_0
I0403 13:41:51.632823 32709 net.cpp:399] label_data_1_split -> label_data_1_split_1
I0403 13:41:51.632845 32709 net.cpp:399] label_data_1_split -> label_data_1_split_2
I0403 13:41:51.632910 32709 net.cpp:141] Setting up label_data_1_split
I0403 13:41:51.632933 32709 net.cpp:148] Top shape: 100 (100)
I0403 13:41:51.632951 32709 net.cpp:148] Top shape: 100 (100)
I0403 13:41:51.632967 32709 net.cpp:148] Top shape: 100 (100)
I0403 13:41:51.632982 32709 net.cpp:156] Memory required for data: 61836400
I0403 13:41:51.632997 32709 layer_factory.hpp:77] Creating layer conv1
I0403 13:41:51.633028 32709 net.cpp:91] Creating Layer conv1
I0403 13:41:51.633046 32709 net.cpp:425] conv1 <- data
I0403 13:41:51.633066 32709 net.cpp:399] conv1 -> conv1
I0403 13:41:51.778309 32709 net.cpp:141] Setting up conv1
I0403 13:41:51.778401 32709 net.cpp:148] Top shape: 100 96 55 55 (29040000)
I0403 13:41:51.778420 32709 net.cpp:156] Memory required for data: 177996400
I0403 13:41:51.778453 32709 layer_factory.hpp:77] Creating layer relu1
I0403 13:41:51.778481 32709 net.cpp:91] Creating Layer relu1
I0403 13:41:51.778501 32709 net.cpp:425] relu1 <- conv1
I0403 13:41:51.778523 32709 net.cpp:386] relu1 -> conv1 (in-place)
I0403 13:41:51.778837 32709 net.cpp:141] Setting up relu1
I0403 13:41:51.778866 32709 net.cpp:148] Top shape: 100 96 55 55 (29040000)
I0403 13:41:51.778914 32709 net.cpp:156] Memory required for data: 294156400
I0403 13:41:51.778930 32709 layer_factory.hpp:77] Creating layer norm1
I0403 13:41:51.778961 32709 net.cpp:91] Creating Layer norm1
I0403 13:41:51.778980 32709 net.cpp:425] norm1 <- conv1
I0403 13:41:51.779001 32709 net.cpp:399] norm1 -> norm1
I0403 13:41:51.779351 32709 net.cpp:141] Setting up norm1
I0403 13:41:51.779381 32709 net.cpp:148] Top shape: 100 96 55 55 (29040000)
I0403 13:41:51.779397 32709 net.cpp:156] Memory required for data: 410316400
I0403 13:41:51.779412 32709 layer_factory.hpp:77] Creating layer pool1
I0403 13:41:51.779438 32709 net.cpp:91] Creating Layer pool1
I0403 13:41:51.779455 32709 net.cpp:425] pool1 <- norm1
I0403 13:41:51.779474 32709 net.cpp:399] pool1 -> pool1
I0403 13:41:51.779548 32709 net.cpp:141] Setting up pool1
I0403 13:41:51.779573 32709 net.cpp:148] Top shape: 100 96 27 27 (6998400)
I0403 13:41:51.779588 32709 net.cpp:156] Memory required for data: 438310000
I0403 13:41:51.779604 32709 layer_factory.hpp:77] Creating layer conv2
I0403 13:41:51.779631 32709 net.cpp:91] Creating Layer conv2
I0403 13:41:51.779649 32709 net.cpp:425] conv2 <- pool1
I0403 13:41:51.779670 32709 net.cpp:399] conv2 -> conv2
I0403 13:41:51.795102 32709 net.cpp:141] Setting up conv2
I0403 13:41:51.795145 32709 net.cpp:148] Top shape: 100 256 27 27 (18662400)
I0403 13:41:51.795162 32709 net.cpp:156] Memory required for data: 512959600
I0403 13:41:51.795184 32709 layer_factory.hpp:77] Creating layer relu2
I0403 13:41:51.795207 32709 net.cpp:91] Creating Layer relu2
I0403 13:41:51.795224 32709 net.cpp:425] relu2 <- conv2
I0403 13:41:51.795243 32709 net.cpp:386] relu2 -> conv2 (in-place)
I0403 13:41:51.795526 32709 net.cpp:141] Setting up relu2
I0403 13:41:51.795554 32709 net.cpp:148] Top shape: 100 256 27 27 (18662400)
I0403 13:41:51.795569 32709 net.cpp:156] Memory required for data: 587609200
I0403 13:41:51.795584 32709 layer_factory.hpp:77] Creating layer norm2
I0403 13:41:51.795608 32709 net.cpp:91] Creating Layer norm2
I0403 13:41:51.795650 32709 net.cpp:425] norm2 <- conv2
I0403 13:41:51.795678 32709 net.cpp:399] norm2 -> norm2
I0403 13:41:51.795882 32709 net.cpp:141] Setting up norm2
I0403 13:41:51.795908 32709 net.cpp:148] Top shape: 100 256 27 27 (18662400)
I0403 13:41:51.795923 32709 net.cpp:156] Memory required for data: 662258800
I0403 13:41:51.795938 32709 layer_factory.hpp:77] Creating layer pool2
I0403 13:41:51.795960 32709 net.cpp:91] Creating Layer pool2
I0403 13:41:51.795977 32709 net.cpp:425] pool2 <- norm2
I0403 13:41:51.795994 32709 net.cpp:399] pool2 -> pool2
I0403 13:41:51.796049 32709 net.cpp:141] Setting up pool2
I0403 13:41:51.796072 32709 net.cpp:148] Top shape: 100 256 13 13 (4326400)
I0403 13:41:51.796087 32709 net.cpp:156] Memory required for data: 679564400
I0403 13:41:51.796102 32709 layer_factory.hpp:77] Creating layer conv3
I0403 13:41:51.796124 32709 net.cpp:91] Creating Layer conv3
I0403 13:41:51.796141 32709 net.cpp:425] conv3 <- pool2
I0403 13:41:51.796162 32709 net.cpp:399] conv3 -> conv3
I0403 13:41:51.835456 32709 net.cpp:141] Setting up conv3
I0403 13:41:51.835495 32709 net.cpp:148] Top shape: 100 384 13 13 (6489600)
I0403 13:41:51.835512 32709 net.cpp:156] Memory required for data: 705522800
I0403 13:41:51.835541 32709 layer_factory.hpp:77] Creating layer relu3
I0403 13:41:51.835564 32709 net.cpp:91] Creating Layer relu3
I0403 13:41:51.835582 32709 net.cpp:425] relu3 <- conv3
I0403 13:41:51.835600 32709 net.cpp:386] relu3 -> conv3 (in-place)
I0403 13:41:51.835888 32709 net.cpp:141] Setting up relu3
I0403 13:41:51.835916 32709 net.cpp:148] Top shape: 100 384 13 13 (6489600)
I0403 13:41:51.835932 32709 net.cpp:156] Memory required for data: 731481200
I0403 13:41:51.835947 32709 layer_factory.hpp:77] Creating layer conv4
I0403 13:41:51.835973 32709 net.cpp:91] Creating Layer conv4
I0403 13:41:51.835993 32709 net.cpp:425] conv4 <- conv3
I0403 13:41:51.836052 32709 net.cpp:399] conv4 -> conv4
I0403 13:41:51.867210 32709 net.cpp:141] Setting up conv4
I0403 13:41:51.867301 32709 net.cpp:148] Top shape: 100 384 13 13 (6489600)
I0403 13:41:51.867352 32709 net.cpp:156] Memory required for data: 757439600
I0403 13:41:51.867377 32709 layer_factory.hpp:77] Creating layer relu4
I0403 13:41:51.867403 32709 net.cpp:91] Creating Layer relu4
I0403 13:41:51.867422 32709 net.cpp:425] relu4 <- conv4
I0403 13:41:51.867442 32709 net.cpp:386] relu4 -> conv4 (in-place)
I0403 13:41:51.867733 32709 net.cpp:141] Setting up relu4
I0403 13:41:51.867759 32709 net.cpp:148] Top shape: 100 384 13 13 (6489600)
I0403 13:41:51.867775 32709 net.cpp:156] Memory required for data: 783398000
I0403 13:41:51.867791 32709 layer_factory.hpp:77] Creating layer conv5
I0403 13:41:51.867818 32709 net.cpp:91] Creating Layer conv5
I0403 13:41:51.867837 32709 net.cpp:425] conv5 <- conv4
I0403 13:41:51.867859 32709 net.cpp:399] conv5 -> conv5
I0403 13:41:51.888819 32709 net.cpp:141] Setting up conv5
I0403 13:41:51.888864 32709 net.cpp:148] Top shape: 100 256 13 13 (4326400)
I0403 13:41:51.888880 32709 net.cpp:156] Memory required for data: 800703600
I0403 13:41:51.888903 32709 layer_factory.hpp:77] Creating layer relu5
I0403 13:41:51.888926 32709 net.cpp:91] Creating Layer relu5
I0403 13:41:51.888943 32709 net.cpp:425] relu5 <- conv5
I0403 13:41:51.888960 32709 net.cpp:386] relu5 -> conv5 (in-place)
I0403 13:41:51.889240 32709 net.cpp:141] Setting up relu5
I0403 13:41:51.889266 32709 net.cpp:148] Top shape: 100 256 13 13 (4326400)
I0403 13:41:51.889288 32709 net.cpp:156] Memory required for data: 818009200
I0403 13:41:51.889304 32709 layer_factory.hpp:77] Creating layer pool5
I0403 13:41:51.889329 32709 net.cpp:91] Creating Layer pool5
I0403 13:41:51.889346 32709 net.cpp:425] pool5 <- conv5
I0403 13:41:51.889369 32709 net.cpp:399] pool5 -> pool5
I0403 13:41:51.889430 32709 net.cpp:141] Setting up pool5
I0403 13:41:51.889452 32709 net.cpp:148] Top shape: 100 256 6 6 (921600)
I0403 13:41:51.889467 32709 net.cpp:156] Memory required for data: 821695600
I0403 13:41:51.889482 32709 layer_factory.hpp:77] Creating layer fc6
I0403 13:41:51.889510 32709 net.cpp:91] Creating Layer fc6
I0403 13:41:51.889528 32709 net.cpp:425] fc6 <- pool5
I0403 13:41:51.889547 32709 net.cpp:399] fc6 -> fc6
I0403 13:41:53.446666 32709 net.cpp:141] Setting up fc6
I0403 13:41:53.446707 32709 net.cpp:148] Top shape: 100 4096 (409600)
I0403 13:41:53.446722 32709 net.cpp:156] Memory required for data: 823334000
I0403 13:41:53.446743 32709 layer_factory.hpp:77] Creating layer relu6
I0403 13:41:53.446764 32709 net.cpp:91] Creating Layer relu6
I0403 13:41:53.446781 32709 net.cpp:425] relu6 <- fc6
I0403 13:41:53.446802 32709 net.cpp:386] relu6 -> fc6 (in-place)
I0403 13:41:53.447018 32709 net.cpp:141] Setting up relu6
I0403 13:41:53.447042 32709 net.cpp:148] Top shape: 100 4096 (409600)
I0403 13:41:53.447057 32709 net.cpp:156] Memory required for data: 824972400
I0403 13:41:53.447072 32709 layer_factory.hpp:77] Creating layer drop6
I0403 13:41:53.447091 32709 net.cpp:91] Creating Layer drop6
I0403 13:41:53.447108 32709 net.cpp:425] drop6 <- fc6
I0403 13:41:53.447125 32709 net.cpp:386] drop6 -> fc6 (in-place)
I0403 13:41:53.447177 32709 net.cpp:141] Setting up drop6
I0403 13:41:53.447201 32709 net.cpp:148] Top shape: 100 4096 (409600)
I0403 13:41:53.447214 32709 net.cpp:156] Memory required for data: 826610800
I0403 13:41:53.447229 32709 layer_factory.hpp:77] Creating layer fc7
I0403 13:41:53.447248 32709 net.cpp:91] Creating Layer fc7
I0403 13:41:53.447264 32709 net.cpp:425] fc7 <- fc6
I0403 13:41:53.447294 32709 net.cpp:399] fc7 -> fc7
I0403 13:41:54.129065 32709 net.cpp:141] Setting up fc7
I0403 13:41:54.129137 32709 net.cpp:148] Top shape: 100 4096 (409600)
I0403 13:41:54.129151 32709 net.cpp:156] Memory required for data: 828249200
I0403 13:41:54.129171 32709 layer_factory.hpp:77] Creating layer relu7
I0403 13:41:54.129194 32709 net.cpp:91] Creating Layer relu7
I0403 13:41:54.129212 32709 net.cpp:425] relu7 <- fc7
I0403 13:41:54.129231 32709 net.cpp:386] relu7 -> fc7 (in-place)
I0403 13:41:54.129621 32709 net.cpp:141] Setting up relu7
I0403 13:41:54.129647 32709 net.cpp:148] Top shape: 100 4096 (409600)
I0403 13:41:54.129691 32709 net.cpp:156] Memory required for data: 829887600
I0403 13:41:54.129706 32709 layer_factory.hpp:77] Creating layer drop7
I0403 13:41:54.129726 32709 net.cpp:91] Creating Layer drop7
I0403 13:41:54.129742 32709 net.cpp:425] drop7 <- fc7
I0403 13:41:54.129760 32709 net.cpp:386] drop7 -> fc7 (in-place)
I0403 13:41:54.129802 32709 net.cpp:141] Setting up drop7
I0403 13:41:54.129824 32709 net.cpp:148] Top shape: 100 4096 (409600)
I0403 13:41:54.129838 32709 net.cpp:156] Memory required for data: 831526000
I0403 13:41:54.129853 32709 layer_factory.hpp:77] Creating layer fc8_plantvillage
I0403 13:41:54.129871 32709 net.cpp:91] Creating Layer fc8_plantvillage
I0403 13:41:54.129886 32709 net.cpp:425] fc8_plantvillage <- fc7
I0403 13:41:54.129906 32709 net.cpp:399] fc8_plantvillage -> fc8_plantvillage
I0403 13:41:54.136461 32709 net.cpp:141] Setting up fc8_plantvillage
I0403 13:41:54.136488 32709 net.cpp:148] Top shape: 100 38 (3800)
I0403 13:41:54.136504 32709 net.cpp:156] Memory required for data: 831541200
I0403 13:41:54.136523 32709 layer_factory.hpp:77] Creating layer fc8_plantvillage_fc8_plantvillage_0_split
I0403 13:41:54.136543 32709 net.cpp:91] Creating Layer fc8_plantvillage_fc8_plantvillage_0_split
I0403 13:41:54.136559 32709 net.cpp:425] fc8_plantvillage_fc8_plantvillage_0_split <- fc8_plantvillage
I0403 13:41:54.136576 32709 net.cpp:399] fc8_plantvillage_fc8_plantvillage_0_split -> fc8_plantvillage_fc8_plantvillage_0_split_0
I0403 13:41:54.136595 32709 net.cpp:399] fc8_plantvillage_fc8_plantvillage_0_split -> fc8_plantvillage_fc8_plantvillage_0_split_1
I0403 13:41:54.136617 32709 net.cpp:399] fc8_plantvillage_fc8_plantvillage_0_split -> fc8_plantvillage_fc8_plantvillage_0_split_2
I0403 13:41:54.136693 32709 net.cpp:141] Setting up fc8_plantvillage_fc8_plantvillage_0_split
I0403 13:41:54.136716 32709 net.cpp:148] Top shape: 100 38 (3800)
I0403 13:41:54.136732 32709 net.cpp:148] Top shape: 100 38 (3800)
I0403 13:41:54.136746 32709 net.cpp:148] Top shape: 100 38 (3800)
I0403 13:41:54.136760 32709 net.cpp:156] Memory required for data: 831586800
I0403 13:41:54.136775 32709 layer_factory.hpp:77] Creating layer prob
I0403 13:41:54.136792 32709 net.cpp:91] Creating Layer prob
I0403 13:41:54.136807 32709 net.cpp:425] prob <- fc8_plantvillage_fc8_plantvillage_0_split_0
I0403 13:41:54.136827 32709 net.cpp:399] prob -> prob
I0403 13:41:54.137050 32709 net.cpp:141] Setting up prob
I0403 13:41:54.137074 32709 net.cpp:148] Top shape: 100 38 (3800)
I0403 13:41:54.137089 32709 net.cpp:156] Memory required for data: 831602000
I0403 13:41:54.137104 32709 layer_factory.hpp:77] Creating layer hdf5out
I0403 13:41:54.137123 32709 net.cpp:91] Creating Layer hdf5out
I0403 13:41:54.137140 32709 net.cpp:425] hdf5out <- prob
I0403 13:41:54.137156 32709 net.cpp:425] hdf5out <- label_data_1_split_0
I0403 13:41:54.139425 32709 net.cpp:141] Setting up hdf5out
…
