…
I0403 13:36:44.280146 32609 net.cpp:313] The NetState phase (1) differed from the phase (0) specified by a rule in layer data
I0403 13:36:44.280462 32609 net.cpp:49] Initializing net from parameters: 
state {
  phase: TEST
}
layer {
  name: "data"
  type: "Data"
  top: "data"
  top: "label"
  include {
    phase: TEST
  }
  transform_param {
    crop_size: 227
    mean_file: "/home/mohanty/data/final_dataset/lmdb/segmented-20-80/mean.binaryproto"
  }
  data_param {
    source: "/home/mohanty/data/final_dataset/lmdb/segmented-20-80/test_db"
    batch_size: 100
    backend: LMDB
  }
}
layer {
  name: "conv1"
  type: "Convolution"
  bottom: "data"
  top: "conv1"
  param {
    lr_mult: 1
    decay_mult: 1
  }
  param {
    lr_mult: 2
    decay_mult: 0
  }
  convolution_param {
    num_output: 96
    kernel_size: 11
    stride: 4
    weight_filler {
      type: "gaussian"
      std: 0.01
    }
    bias_filler {
      type: "constant"
      value: 0
    }
  }
}
layer {
  name: "relu1"
  type: "ReLU"
  bottom: "conv1"
  top: "conv1"
}
layer {
  name: "norm1"
  type: "LRN"
  bottom: "conv1"
  top: "norm1"
  lrn_param {
    local_size: 5
    alpha: 0.0001
    beta: 0.75
  }
}
layer {
  name: "pool1"
  type: "Pooling"
  bottom: "norm1"
  top: "pool1"
  pooling_param {
    pool: MAX
    kernel_size: 3
    stride: 2
  }
}
layer {
  name: "conv2"
  type: "Convolution"
  bottom: "pool1"
  top: "conv2"
  param {
    lr_mult: 1
    decay_mult: 1
  }
  param {
    lr_mult: 2
    decay_mult: 0
  }
  convolution_param {
    num_output: 256
    pad: 2
    kernel_size: 5
    group: 2
    weight_filler {
      type: "gaussian"
      std: 0.01
    }
    bias_filler {
      type: "constant"
      value: 0.1
    }
  }
}
layer {
  name: "relu2"
  type: "ReLU"
  bottom: "conv2"
  top: "conv2"
}
layer {
  name: "norm2"
  type: "LRN"
  bottom: "conv2"
  top: "norm2"
  lrn_param {
    local_size: 5
    alpha: 0.0001
    beta: 0.75
  }
}
layer {
  name: "pool2"
  type: "Pooling"
  bottom: "norm2"
  top: "pool2"
  pooling_param {
    pool: MAX
    kernel_size: 3
    stride: 2
  }
}
layer {
  name: "conv3"
  type: "Convolution"
  bottom: "pool2"
  top: "conv3"
  param {
    lr_mult: 1
    decay_mult: 1
  }
  param {
    lr_mult: 2
    decay_mult: 0
  }
  convolution_param {
    num_output: 384
    pad: 1
    kernel_size: 3
    weight_filler {
      type: "gaussian"
      std: 0.01
    }
    bias_filler {
      type: "constant"
      value: 0
    }
  }
}
layer {
  name: "relu3"
  type: "ReLU"
  bottom: "conv3"
  top: "conv3"
}
layer {
  name: "conv4"
  type: "Convolution"
  bottom: "conv3"
  top: "conv4"
  param {
    lr_mult: 1
    decay_mult: 1
  }
  param {
    lr_mult: 2
    decay_mult: 0
  }
  convolution_param {
    num_output: 384
    pad: 1
    kernel_size: 3
    group: 2
    weight_filler {
      type: "gaussian"
      std: 0.01
    }
    bias_filler {
      type: "constant"
      value: 0.1
    }
  }
}
layer {
  name: "relu4"
  type: "ReLU"
  bottom: "conv4"
  top: "conv4"
}
layer {
  name: "conv5"
  type: "Convolution"
  bottom: "conv4"
  top: "conv5"
  param {
    lr_mult: 1
    decay_mult: 1
  }
  param {
    lr_mult: 2
    decay_mult: 0
  }
  convolution_param {
    num_output: 256
    pad: 1
    kernel_size: 3
    group: 2
    weight_filler {
      type: "gaussian"
      std: 0.01
    }
    bias_filler {
      type: "constant"
      value: 0.1
    }
  }
}
layer {
  name: "relu5"
  type: "ReLU"
  bottom: "conv5"
  top: "conv5"
}
layer {
  name: "pool5"
  type: "Pooling"
  bottom: "conv5"
  top: "pool5"
  pooling_param {
    pool: MAX
    kernel_size: 3
    stride: 2
  }
}
layer {
  name: "fc6"
  type: "InnerProduct"
  bottom: "pool5"
  top: "fc6"
  param {
    lr_mult: 1
    decay_mult: 1
  }
  param {
    lr_mult: 2
    decay_mult: 0
  }
  inner_product_param {
    num_output: 4096
    weight_filler {
      type: "gaussian"
      std: 0.005
    }
    bias_filler {
      type: "constant"
      value: 0.1
    }
  }
}
layer {
  name: "relu6"
  type: "ReLU"
  bottom: "fc6"
  top: "fc6"
}
layer {
  name: "drop6"
  type: "Dropout"
  bottom: "fc6"
  top: "fc6"
  dropout_param {
    dropout_ratio: 0.5
  }
}
layer {
  name: "fc7"
  type: "InnerProduct"
  bottom: "fc6"
  top: "fc7"
  param {
    lr_mult: 1
    decay_mult: 1
  }
  param {
    lr_mult: 2
    decay_mult: 0
  }
  inner_product_param {
    num_output: 4096
    weight_filler {
      type: "gaussian"
      std: 0.005
    }
    bias_filler {
      type: "constant"
      value: 0.1
    }
  }
}
layer {
  name: "relu7"
  type: "ReLU"
  bottom: "fc7"
  top: "fc7"
}
layer {
  name: "drop7"
  type: "Dropout"
  bottom: "fc7"
  top: "fc7"
  dropout_param {
    dropout_ratio: 0.5
  }
}
layer {
  name: "fc8_plantvillage"
  type: "InnerProduct"
  bottom: "fc7"
  top: "fc8_plantvillage"
  param {
    lr_mult: 1
    decay_mult: 1
  }
  param {
    lr_mult: 2
    decay_mult: 0
  }
  inner_product_param {
    num_output: 38
    weight_filler {
      type: "gaussian"
      std: 0.01
    }
    bias_filler {
      type: "constant"
      value: 0
    }
  }
}
layer {
  name: "prob"
  type: "Softmax"
  bottom: "fc8_plantvillage"
  top: "prob"
  include {
    phase: TEST
  }
}
layer {
  name: "hdf5out"
  type: "HDF5Output"
  bottom: "prob"
  bottom: "label"
  include {
    phase: TEST
  }
  hdf5_output_param {
    file_name: "hdf5_dumps/iter_848.h5"
  }
}
layer {
  name: "loss"
  type: "SoftmaxWithLoss"
  bottom: "fc8_plantvillage"
  bottom: "label"
  top: "loss"
}
layer {
  name: "accuracy"
  type: "Accuracy"
  bottom: "fc8_plantvillage"
  bottom: "label"
  top: "accuracy"
  include {
    phase: TEST
  }
}
I0403 13:36:44.281005 32609 layer_factory.hpp:77] Creating layer data
I0403 13:36:44.281648 32609 net.cpp:91] Creating Layer data
I0403 13:36:44.281682 32609 net.cpp:399] data -> data
I0403 13:36:44.281733 32609 net.cpp:399] data -> label
I0403 13:36:44.281767 32609 data_transformer.cpp:25] Loading mean file from: /home/mohanty/data/final_dataset/lmdb/segmented-20-80/mean.binaryproto
I0403 13:36:44.284664 32613 db_lmdb.cpp:38] Opened lmdb /home/mohanty/data/final_dataset/lmdb/segmented-20-80/test_db
I0403 13:36:44.296010 32609 data_layer.cpp:41] output data size: 100,3,227,227
I0403 13:36:44.413992 32609 net.cpp:141] Setting up data
I0403 13:36:44.414094 32609 net.cpp:148] Top shape: 100 3 227 227 (15458700)
I0403 13:36:44.414116 32609 net.cpp:148] Top shape: 100 (100)
I0403 13:36:44.414131 32609 net.cpp:156] Memory required for data: 61835200
I0403 13:36:44.414158 32609 layer_factory.hpp:77] Creating layer label_data_1_split
I0403 13:36:44.414191 32609 net.cpp:91] Creating Layer label_data_1_split
I0403 13:36:44.414208 32609 net.cpp:425] label_data_1_split <- label
I0403 13:36:44.414243 32609 net.cpp:399] label_data_1_split -> label_data_1_split_0
I0403 13:36:44.414271 32609 net.cpp:399] label_data_1_split -> label_data_1_split_1
I0403 13:36:44.414291 32609 net.cpp:399] label_data_1_split -> label_data_1_split_2
I0403 13:36:44.414351 32609 net.cpp:141] Setting up label_data_1_split
I0403 13:36:44.414374 32609 net.cpp:148] Top shape: 100 (100)
I0403 13:36:44.414391 32609 net.cpp:148] Top shape: 100 (100)
I0403 13:36:44.414407 32609 net.cpp:148] Top shape: 100 (100)
I0403 13:36:44.414420 32609 net.cpp:156] Memory required for data: 61836400
I0403 13:36:44.414434 32609 layer_factory.hpp:77] Creating layer conv1
I0403 13:36:44.414465 32609 net.cpp:91] Creating Layer conv1
I0403 13:36:44.414486 32609 net.cpp:425] conv1 <- data
I0403 13:36:44.414505 32609 net.cpp:399] conv1 -> conv1
I0403 13:36:44.555048 32609 net.cpp:141] Setting up conv1
I0403 13:36:44.555094 32609 net.cpp:148] Top shape: 100 96 55 55 (29040000)
I0403 13:36:44.555111 32609 net.cpp:156] Memory required for data: 177996400
I0403 13:36:44.555142 32609 layer_factory.hpp:77] Creating layer relu1
I0403 13:36:44.555171 32609 net.cpp:91] Creating Layer relu1
I0403 13:36:44.555189 32609 net.cpp:425] relu1 <- conv1
I0403 13:36:44.555209 32609 net.cpp:386] relu1 -> conv1 (in-place)
I0403 13:36:44.555487 32609 net.cpp:141] Setting up relu1
I0403 13:36:44.555515 32609 net.cpp:148] Top shape: 100 96 55 55 (29040000)
I0403 13:36:44.555562 32609 net.cpp:156] Memory required for data: 294156400
I0403 13:36:44.555578 32609 layer_factory.hpp:77] Creating layer norm1
I0403 13:36:44.555630 32609 net.cpp:91] Creating Layer norm1
I0403 13:36:44.555650 32609 net.cpp:425] norm1 <- conv1
I0403 13:36:44.555670 32609 net.cpp:399] norm1 -> norm1
I0403 13:36:44.555995 32609 net.cpp:141] Setting up norm1
I0403 13:36:44.556023 32609 net.cpp:148] Top shape: 100 96 55 55 (29040000)
I0403 13:36:44.556040 32609 net.cpp:156] Memory required for data: 410316400
I0403 13:36:44.556056 32609 layer_factory.hpp:77] Creating layer pool1
I0403 13:36:44.556080 32609 net.cpp:91] Creating Layer pool1
I0403 13:36:44.556098 32609 net.cpp:425] pool1 <- norm1
I0403 13:36:44.556116 32609 net.cpp:399] pool1 -> pool1
I0403 13:36:44.556186 32609 net.cpp:141] Setting up pool1
I0403 13:36:44.556211 32609 net.cpp:148] Top shape: 100 96 27 27 (6998400)
I0403 13:36:44.556226 32609 net.cpp:156] Memory required for data: 438310000
I0403 13:36:44.556246 32609 layer_factory.hpp:77] Creating layer conv2
I0403 13:36:44.556275 32609 net.cpp:91] Creating Layer conv2
I0403 13:36:44.556293 32609 net.cpp:425] conv2 <- pool1
I0403 13:36:44.556314 32609 net.cpp:399] conv2 -> conv2
I0403 13:36:44.571297 32609 net.cpp:141] Setting up conv2
I0403 13:36:44.571341 32609 net.cpp:148] Top shape: 100 256 27 27 (18662400)
I0403 13:36:44.571358 32609 net.cpp:156] Memory required for data: 512959600
I0403 13:36:44.571384 32609 layer_factory.hpp:77] Creating layer relu2
I0403 13:36:44.571404 32609 net.cpp:91] Creating Layer relu2
I0403 13:36:44.571421 32609 net.cpp:425] relu2 <- conv2
I0403 13:36:44.571439 32609 net.cpp:386] relu2 -> conv2 (in-place)
I0403 13:36:44.571739 32609 net.cpp:141] Setting up relu2
I0403 13:36:44.571781 32609 net.cpp:148] Top shape: 100 256 27 27 (18662400)
I0403 13:36:44.571797 32609 net.cpp:156] Memory required for data: 587609200
I0403 13:36:44.571812 32609 layer_factory.hpp:77] Creating layer norm2
I0403 13:36:44.571833 32609 net.cpp:91] Creating Layer norm2
I0403 13:36:44.571861 32609 net.cpp:425] norm2 <- conv2
I0403 13:36:44.571882 32609 net.cpp:399] norm2 -> norm2
I0403 13:36:44.572118 32609 net.cpp:141] Setting up norm2
I0403 13:36:44.572144 32609 net.cpp:148] Top shape: 100 256 27 27 (18662400)
I0403 13:36:44.572159 32609 net.cpp:156] Memory required for data: 662258800
I0403 13:36:44.572173 32609 layer_factory.hpp:77] Creating layer pool2
I0403 13:36:44.572193 32609 net.cpp:91] Creating Layer pool2
I0403 13:36:44.572209 32609 net.cpp:425] pool2 <- norm2
I0403 13:36:44.572226 32609 net.cpp:399] pool2 -> pool2
I0403 13:36:44.572281 32609 net.cpp:141] Setting up pool2
I0403 13:36:44.572305 32609 net.cpp:148] Top shape: 100 256 13 13 (4326400)
I0403 13:36:44.572319 32609 net.cpp:156] Memory required for data: 679564400
I0403 13:36:44.572334 32609 layer_factory.hpp:77] Creating layer conv3
I0403 13:36:44.572356 32609 net.cpp:91] Creating Layer conv3
I0403 13:36:44.572373 32609 net.cpp:425] conv3 <- pool2
I0403 13:36:44.572394 32609 net.cpp:399] conv3 -> conv3
I0403 13:36:44.610213 32609 net.cpp:141] Setting up conv3
I0403 13:36:44.610278 32609 net.cpp:148] Top shape: 100 384 13 13 (6489600)
I0403 13:36:44.610296 32609 net.cpp:156] Memory required for data: 705522800
I0403 13:36:44.610321 32609 layer_factory.hpp:77] Creating layer relu3
I0403 13:36:44.610345 32609 net.cpp:91] Creating Layer relu3
I0403 13:36:44.610365 32609 net.cpp:425] relu3 <- conv3
I0403 13:36:44.610384 32609 net.cpp:386] relu3 -> conv3 (in-place)
I0403 13:36:44.610677 32609 net.cpp:141] Setting up relu3
I0403 13:36:44.610704 32609 net.cpp:148] Top shape: 100 384 13 13 (6489600)
I0403 13:36:44.610720 32609 net.cpp:156] Memory required for data: 731481200
I0403 13:36:44.610736 32609 layer_factory.hpp:77] Creating layer conv4
I0403 13:36:44.610775 32609 net.cpp:91] Creating Layer conv4
I0403 13:36:44.610793 32609 net.cpp:425] conv4 <- conv3
I0403 13:36:44.610812 32609 net.cpp:399] conv4 -> conv4
I0403 13:36:44.641247 32609 net.cpp:141] Setting up conv4
I0403 13:36:44.641288 32609 net.cpp:148] Top shape: 100 384 13 13 (6489600)
I0403 13:36:44.641336 32609 net.cpp:156] Memory required for data: 757439600
I0403 13:36:44.641358 32609 layer_factory.hpp:77] Creating layer relu4
I0403 13:36:44.641384 32609 net.cpp:91] Creating Layer relu4
I0403 13:36:44.641403 32609 net.cpp:425] relu4 <- conv4
I0403 13:36:44.641422 32609 net.cpp:386] relu4 -> conv4 (in-place)
I0403 13:36:44.641710 32609 net.cpp:141] Setting up relu4
I0403 13:36:44.641736 32609 net.cpp:148] Top shape: 100 384 13 13 (6489600)
I0403 13:36:44.641752 32609 net.cpp:156] Memory required for data: 783398000
I0403 13:36:44.641767 32609 layer_factory.hpp:77] Creating layer conv5
I0403 13:36:44.641793 32609 net.cpp:91] Creating Layer conv5
I0403 13:36:44.641810 32609 net.cpp:425] conv5 <- conv4
I0403 13:36:44.641834 32609 net.cpp:399] conv5 -> conv5
I0403 13:36:44.663424 32609 net.cpp:141] Setting up conv5
I0403 13:36:44.663485 32609 net.cpp:148] Top shape: 100 256 13 13 (4326400)
I0403 13:36:44.663501 32609 net.cpp:156] Memory required for data: 800703600
I0403 13:36:44.663529 32609 layer_factory.hpp:77] Creating layer relu5
I0403 13:36:44.663550 32609 net.cpp:91] Creating Layer relu5
I0403 13:36:44.663568 32609 net.cpp:425] relu5 <- conv5
I0403 13:36:44.663585 32609 net.cpp:386] relu5 -> conv5 (in-place)
I0403 13:36:44.663902 32609 net.cpp:141] Setting up relu5
I0403 13:36:44.663931 32609 net.cpp:148] Top shape: 100 256 13 13 (4326400)
I0403 13:36:44.663949 32609 net.cpp:156] Memory required for data: 818009200
I0403 13:36:44.663964 32609 layer_factory.hpp:77] Creating layer pool5
I0403 13:36:44.663986 32609 net.cpp:91] Creating Layer pool5
I0403 13:36:44.664002 32609 net.cpp:425] pool5 <- conv5
I0403 13:36:44.664023 32609 net.cpp:399] pool5 -> pool5
I0403 13:36:44.664083 32609 net.cpp:141] Setting up pool5
I0403 13:36:44.664108 32609 net.cpp:148] Top shape: 100 256 6 6 (921600)
I0403 13:36:44.664122 32609 net.cpp:156] Memory required for data: 821695600
I0403 13:36:44.664137 32609 layer_factory.hpp:77] Creating layer fc6
I0403 13:36:44.664165 32609 net.cpp:91] Creating Layer fc6
I0403 13:36:44.664183 32609 net.cpp:425] fc6 <- pool5
I0403 13:36:44.664204 32609 net.cpp:399] fc6 -> fc6
I0403 13:36:46.205062 32609 net.cpp:141] Setting up fc6
I0403 13:36:46.205139 32609 net.cpp:148] Top shape: 100 4096 (409600)
I0403 13:36:46.205155 32609 net.cpp:156] Memory required for data: 823334000
I0403 13:36:46.205176 32609 layer_factory.hpp:77] Creating layer relu6
I0403 13:36:46.205198 32609 net.cpp:91] Creating Layer relu6
I0403 13:36:46.205215 32609 net.cpp:425] relu6 <- fc6
I0403 13:36:46.205236 32609 net.cpp:386] relu6 -> fc6 (in-place)
I0403 13:36:46.205458 32609 net.cpp:141] Setting up relu6
I0403 13:36:46.205495 32609 net.cpp:148] Top shape: 100 4096 (409600)
I0403 13:36:46.205510 32609 net.cpp:156] Memory required for data: 824972400
I0403 13:36:46.205525 32609 layer_factory.hpp:77] Creating layer drop6
I0403 13:36:46.205548 32609 net.cpp:91] Creating Layer drop6
I0403 13:36:46.205564 32609 net.cpp:425] drop6 <- fc6
I0403 13:36:46.205582 32609 net.cpp:386] drop6 -> fc6 (in-place)
I0403 13:36:46.205636 32609 net.cpp:141] Setting up drop6
I0403 13:36:46.205658 32609 net.cpp:148] Top shape: 100 4096 (409600)
I0403 13:36:46.205674 32609 net.cpp:156] Memory required for data: 826610800
I0403 13:36:46.205688 32609 layer_factory.hpp:77] Creating layer fc7
I0403 13:36:46.205710 32609 net.cpp:91] Creating Layer fc7
I0403 13:36:46.205729 32609 net.cpp:425] fc7 <- fc6
I0403 13:36:46.205746 32609 net.cpp:399] fc7 -> fc7
I0403 13:36:46.888820 32609 net.cpp:141] Setting up fc7
I0403 13:36:46.888864 32609 net.cpp:148] Top shape: 100 4096 (409600)
I0403 13:36:46.888880 32609 net.cpp:156] Memory required for data: 828249200
I0403 13:36:46.888902 32609 layer_factory.hpp:77] Creating layer relu7
I0403 13:36:46.888928 32609 net.cpp:91] Creating Layer relu7
I0403 13:36:46.888947 32609 net.cpp:425] relu7 <- fc7
I0403 13:36:46.888967 32609 net.cpp:386] relu7 -> fc7 (in-place)
I0403 13:36:46.889395 32609 net.cpp:141] Setting up relu7
I0403 13:36:46.889425 32609 net.cpp:148] Top shape: 100 4096 (409600)
I0403 13:36:46.889470 32609 net.cpp:156] Memory required for data: 829887600
I0403 13:36:46.889487 32609 layer_factory.hpp:77] Creating layer drop7
I0403 13:36:46.889508 32609 net.cpp:91] Creating Layer drop7
I0403 13:36:46.889525 32609 net.cpp:425] drop7 <- fc7
I0403 13:36:46.889545 32609 net.cpp:386] drop7 -> fc7 (in-place)
I0403 13:36:46.889591 32609 net.cpp:141] Setting up drop7
I0403 13:36:46.889614 32609 net.cpp:148] Top shape: 100 4096 (409600)
I0403 13:36:46.889629 32609 net.cpp:156] Memory required for data: 831526000
I0403 13:36:46.889644 32609 layer_factory.hpp:77] Creating layer fc8_plantvillage
I0403 13:36:46.889664 32609 net.cpp:91] Creating Layer fc8_plantvillage
I0403 13:36:46.889679 32609 net.cpp:425] fc8_plantvillage <- fc7
I0403 13:36:46.889700 32609 net.cpp:399] fc8_plantvillage -> fc8_plantvillage
I0403 13:36:46.896884 32609 net.cpp:141] Setting up fc8_plantvillage
I0403 13:36:46.896917 32609 net.cpp:148] Top shape: 100 38 (3800)
I0403 13:36:46.896934 32609 net.cpp:156] Memory required for data: 831541200
I0403 13:36:46.896953 32609 layer_factory.hpp:77] Creating layer fc8_plantvillage_fc8_plantvillage_0_split
I0403 13:36:46.896973 32609 net.cpp:91] Creating Layer fc8_plantvillage_fc8_plantvillage_0_split
I0403 13:36:46.896989 32609 net.cpp:425] fc8_plantvillage_fc8_plantvillage_0_split <- fc8_plantvillage
I0403 13:36:46.897007 32609 net.cpp:399] fc8_plantvillage_fc8_plantvillage_0_split -> fc8_plantvillage_fc8_plantvillage_0_split_0
I0403 13:36:46.897028 32609 net.cpp:399] fc8_plantvillage_fc8_plantvillage_0_split -> fc8_plantvillage_fc8_plantvillage_0_split_1
I0403 13:36:46.897052 32609 net.cpp:399] fc8_plantvillage_fc8_plantvillage_0_split -> fc8_plantvillage_fc8_plantvillage_0_split_2
I0403 13:36:46.897133 32609 net.cpp:141] Setting up fc8_plantvillage_fc8_plantvillage_0_split
I0403 13:36:46.897158 32609 net.cpp:148] Top shape: 100 38 (3800)
I0403 13:36:46.897176 32609 net.cpp:148] Top shape: 100 38 (3800)
I0403 13:36:46.897193 32609 net.cpp:148] Top shape: 100 38 (3800)
I0403 13:36:46.897208 32609 net.cpp:156] Memory required for data: 831586800
I0403 13:36:46.897223 32609 layer_factory.hpp:77] Creating layer prob
I0403 13:36:46.897245 32609 net.cpp:91] Creating Layer prob
I0403 13:36:46.897264 32609 net.cpp:425] prob <- fc8_plantvillage_fc8_plantvillage_0_split_0
I0403 13:36:46.897282 32609 net.cpp:399] prob -> prob
I0403 13:36:46.897523 32609 net.cpp:141] Setting up prob
I0403 13:36:46.897549 32609 net.cpp:148] Top shape: 100 38 (3800)
I0403 13:36:46.897565 32609 net.cpp:156] Memory required for data: 831602000
I0403 13:36:46.897581 32609 layer_factory.hpp:77] Creating layer hdf5out
I0403 13:36:46.897605 32609 net.cpp:91] Creating Layer hdf5out
I0403 13:36:46.897622 32609 net.cpp:425] hdf5out <- prob
I0403 13:36:46.897639 32609 net.cpp:425] hdf5out <- label_data_1_split_0
I0403 13:36:46.899724 32609 net.cpp:141] Setting up hdf5out
…
