…
I0403 13:34:10.908015 32545 net.cpp:313] The NetState phase (1) differed from the phase (0) specified by a rule in layer data
I0403 13:34:10.908771 32545 net.cpp:49] Initializing net from parameters: 
state {
  phase: TEST
}
layer {
  name: "data"
  type: "Data"
  top: "data"
  top: "label"
  include {
    phase: TEST
  }
  transform_param {
    crop_size: 227
    mean_file: "/home/mohanty/data/final_dataset/lmdb/segmented-20-80/mean.binaryproto"
  }
  data_param {
    source: "/home/mohanty/data/final_dataset/lmdb/segmented-20-80/test_db"
    batch_size: 100
    backend: LMDB
  }
}
layer {
  name: "conv1"
  type: "Convolution"
  bottom: "data"
  top: "conv1"
  param {
    lr_mult: 1
    decay_mult: 1
  }
  param {
    lr_mult: 2
    decay_mult: 0
  }
  convolution_param {
    num_output: 96
    kernel_size: 11
    stride: 4
    weight_filler {
      type: "gaussian"
      std: 0.01
    }
    bias_filler {
      type: "constant"
      value: 0
    }
  }
}
layer {
  name: "relu1"
  type: "ReLU"
  bottom: "conv1"
  top: "conv1"
}
layer {
  name: "norm1"
  type: "LRN"
  bottom: "conv1"
  top: "norm1"
  lrn_param {
    local_size: 5
    alpha: 0.0001
    beta: 0.75
  }
}
layer {
  name: "pool1"
  type: "Pooling"
  bottom: "norm1"
  top: "pool1"
  pooling_param {
    pool: MAX
    kernel_size: 3
    stride: 2
  }
}
layer {
  name: "conv2"
  type: "Convolution"
  bottom: "pool1"
  top: "conv2"
  param {
    lr_mult: 1
    decay_mult: 1
  }
  param {
    lr_mult: 2
    decay_mult: 0
  }
  convolution_param {
    num_output: 256
    pad: 2
    kernel_size: 5
    group: 2
    weight_filler {
      type: "gaussian"
      std: 0.01
    }
    bias_filler {
      type: "constant"
      value: 0.1
    }
  }
}
layer {
  name: "relu2"
  type: "ReLU"
  bottom: "conv2"
  top: "conv2"
}
layer {
  name: "norm2"
  type: "LRN"
  bottom: "conv2"
  top: "norm2"
  lrn_param {
    local_size: 5
    alpha: 0.0001
    beta: 0.75
  }
}
layer {
  name: "pool2"
  type: "Pooling"
  bottom: "norm2"
  top: "pool2"
  pooling_param {
    pool: MAX
    kernel_size: 3
    stride: 2
  }
}
layer {
  name: "conv3"
  type: "Convolution"
  bottom: "pool2"
  top: "conv3"
  param {
    lr_mult: 1
    decay_mult: 1
  }
  param {
    lr_mult: 2
    decay_mult: 0
  }
  convolution_param {
    num_output: 384
    pad: 1
    kernel_size: 3
    weight_filler {
      type: "gaussian"
      std: 0.01
    }
    bias_filler {
      type: "constant"
      value: 0
    }
  }
}
layer {
  name: "relu3"
  type: "ReLU"
  bottom: "conv3"
  top: "conv3"
}
layer {
  name: "conv4"
  type: "Convolution"
  bottom: "conv3"
  top: "conv4"
  param {
    lr_mult: 1
    decay_mult: 1
  }
  param {
    lr_mult: 2
    decay_mult: 0
  }
  convolution_param {
    num_output: 384
    pad: 1
    kernel_size: 3
    group: 2
    weight_filler {
      type: "gaussian"
      std: 0.01
    }
    bias_filler {
      type: "constant"
      value: 0.1
    }
  }
}
layer {
  name: "relu4"
  type: "ReLU"
  bottom: "conv4"
  top: "conv4"
}
layer {
  name: "conv5"
  type: "Convolution"
  bottom: "conv4"
  top: "conv5"
  param {
    lr_mult: 1
    decay_mult: 1
  }
  param {
    lr_mult: 2
    decay_mult: 0
  }
  convolution_param {
    num_output: 256
    pad: 1
    kernel_size: 3
    group: 2
    weight_filler {
      type: "gaussian"
      std: 0.01
    }
    bias_filler {
      type: "constant"
      value: 0.1
    }
  }
}
layer {
  name: "relu5"
  type: "ReLU"
  bottom: "conv5"
  top: "conv5"
}
layer {
  name: "pool5"
  type: "Pooling"
  bottom: "conv5"
  top: "pool5"
  pooling_param {
    pool: MAX
    kernel_size: 3
    stride: 2
  }
}
layer {
  name: "fc6"
  type: "InnerProduct"
  bottom: "pool5"
  top: "fc6"
  param {
    lr_mult: 1
    decay_mult: 1
  }
  param {
    lr_mult: 2
    decay_mult: 0
  }
  inner_product_param {
    num_output: 4096
    weight_filler {
      type: "gaussian"
      std: 0.005
    }
    bias_filler {
      type: "constant"
      value: 0.1
    }
  }
}
layer {
  name: "relu6"
  type: "ReLU"
  bottom: "fc6"
  top: "fc6"
}
layer {
  name: "drop6"
  type: "Dropout"
  bottom: "fc6"
  top: "fc6"
  dropout_param {
    dropout_ratio: 0.5
  }
}
layer {
  name: "fc7"
  type: "InnerProduct"
  bottom: "fc6"
  top: "fc7"
  param {
    lr_mult: 1
    decay_mult: 1
  }
  param {
    lr_mult: 2
    decay_mult: 0
  }
  inner_product_param {
    num_output: 4096
    weight_filler {
      type: "gaussian"
      std: 0.005
    }
    bias_filler {
      type: "constant"
      value: 0.1
    }
  }
}
layer {
  name: "relu7"
  type: "ReLU"
  bottom: "fc7"
  top: "fc7"
}
layer {
  name: "drop7"
  type: "Dropout"
  bottom: "fc7"
  top: "fc7"
  dropout_param {
    dropout_ratio: 0.5
  }
}
layer {
  name: "fc8_plantvillage"
  type: "InnerProduct"
  bottom: "fc7"
  top: "fc8_plantvillage"
  param {
    lr_mult: 1
    decay_mult: 1
  }
  param {
    lr_mult: 2
    decay_mult: 0
  }
  inner_product_param {
    num_output: 38
    weight_filler {
      type: "gaussian"
      std: 0.01
    }
    bias_filler {
      type: "constant"
      value: 0
    }
  }
}
layer {
  name: "prob"
  type: "Softmax"
  bottom: "fc8_plantvillage"
  top: "prob"
  include {
    phase: TEST
  }
}
layer {
  name: "hdf5out"
  type: "HDF5Output"
  bottom: "prob"
  bottom: "label"
  include {
    phase: TEST
  }
  hdf5_output_param {
    file_name: "hdf5_dumps/iter_636.h5"
  }
}
layer {
  name: "loss"
  type: "SoftmaxWithLoss"
  bottom: "fc8_plantvillage"
  bottom: "label"
  top: "loss"
}
layer {
  name: "accuracy"
  type: "Accuracy"
  bottom: "fc8_plantvillage"
  bottom: "label"
  top: "accuracy"
  include {
    phase: TEST
  }
}
I0403 13:34:10.909704 32545 layer_factory.hpp:77] Creating layer data
I0403 13:34:10.911351 32545 net.cpp:91] Creating Layer data
I0403 13:34:10.911428 32545 net.cpp:399] data -> data
I0403 13:34:10.911550 32545 net.cpp:399] data -> label
I0403 13:34:10.911638 32545 data_transformer.cpp:25] Loading mean file from: /home/mohanty/data/final_dataset/lmdb/segmented-20-80/mean.binaryproto
I0403 13:34:10.926854 32547 db_lmdb.cpp:38] Opened lmdb /home/mohanty/data/final_dataset/lmdb/segmented-20-80/test_db
I0403 13:34:10.934845 32545 data_layer.cpp:41] output data size: 100,3,227,227
I0403 13:34:11.072172 32545 net.cpp:141] Setting up data
I0403 13:34:11.072306 32545 net.cpp:148] Top shape: 100 3 227 227 (15458700)
I0403 13:34:11.072335 32545 net.cpp:148] Top shape: 100 (100)
I0403 13:34:11.072352 32545 net.cpp:156] Memory required for data: 61835200
I0403 13:34:11.072386 32545 layer_factory.hpp:77] Creating layer label_data_1_split
I0403 13:34:11.072415 32545 net.cpp:91] Creating Layer label_data_1_split
I0403 13:34:11.072437 32545 net.cpp:425] label_data_1_split <- label
I0403 13:34:11.072474 32545 net.cpp:399] label_data_1_split -> label_data_1_split_0
I0403 13:34:11.072506 32545 net.cpp:399] label_data_1_split -> label_data_1_split_1
I0403 13:34:11.072530 32545 net.cpp:399] label_data_1_split -> label_data_1_split_2
I0403 13:34:11.072608 32545 net.cpp:141] Setting up label_data_1_split
I0403 13:34:11.072635 32545 net.cpp:148] Top shape: 100 (100)
I0403 13:34:11.072655 32545 net.cpp:148] Top shape: 100 (100)
I0403 13:34:11.072675 32545 net.cpp:148] Top shape: 100 (100)
I0403 13:34:11.072692 32545 net.cpp:156] Memory required for data: 61836400
I0403 13:34:11.072710 32545 layer_factory.hpp:77] Creating layer conv1
I0403 13:34:11.072747 32545 net.cpp:91] Creating Layer conv1
I0403 13:34:11.072769 32545 net.cpp:425] conv1 <- data
I0403 13:34:11.072793 32545 net.cpp:399] conv1 -> conv1
I0403 13:34:11.238881 32545 net.cpp:141] Setting up conv1
I0403 13:34:11.238976 32545 net.cpp:148] Top shape: 100 96 55 55 (29040000)
I0403 13:34:11.238997 32545 net.cpp:156] Memory required for data: 177996400
I0403 13:34:11.239034 32545 layer_factory.hpp:77] Creating layer relu1
I0403 13:34:11.239068 32545 net.cpp:91] Creating Layer relu1
I0403 13:34:11.239090 32545 net.cpp:425] relu1 <- conv1
I0403 13:34:11.239114 32545 net.cpp:386] relu1 -> conv1 (in-place)
I0403 13:34:11.239437 32545 net.cpp:141] Setting up relu1
I0403 13:34:11.239470 32545 net.cpp:148] Top shape: 100 96 55 55 (29040000)
I0403 13:34:11.239524 32545 net.cpp:156] Memory required for data: 294156400
I0403 13:34:11.239545 32545 layer_factory.hpp:77] Creating layer norm1
I0403 13:34:11.239578 32545 net.cpp:91] Creating Layer norm1
I0403 13:34:11.239599 32545 net.cpp:425] norm1 <- conv1
I0403 13:34:11.239621 32545 net.cpp:399] norm1 -> norm1
I0403 13:34:11.239985 32545 net.cpp:141] Setting up norm1
I0403 13:34:11.240018 32545 net.cpp:148] Top shape: 100 96 55 55 (29040000)
I0403 13:34:11.240037 32545 net.cpp:156] Memory required for data: 410316400
I0403 13:34:11.240056 32545 layer_factory.hpp:77] Creating layer pool1
I0403 13:34:11.240082 32545 net.cpp:91] Creating Layer pool1
I0403 13:34:11.240103 32545 net.cpp:425] pool1 <- norm1
I0403 13:34:11.240125 32545 net.cpp:399] pool1 -> pool1
I0403 13:34:11.240203 32545 net.cpp:141] Setting up pool1
I0403 13:34:11.240231 32545 net.cpp:148] Top shape: 100 96 27 27 (6998400)
I0403 13:34:11.240258 32545 net.cpp:156] Memory required for data: 438310000
I0403 13:34:11.240278 32545 layer_factory.hpp:77] Creating layer conv2
I0403 13:34:11.240308 32545 net.cpp:91] Creating Layer conv2
I0403 13:34:11.240327 32545 net.cpp:425] conv2 <- pool1
I0403 13:34:11.240350 32545 net.cpp:399] conv2 -> conv2
I0403 13:34:11.258236 32545 net.cpp:141] Setting up conv2
I0403 13:34:11.258286 32545 net.cpp:148] Top shape: 100 256 27 27 (18662400)
I0403 13:34:11.258306 32545 net.cpp:156] Memory required for data: 512959600
I0403 13:34:11.258332 32545 layer_factory.hpp:77] Creating layer relu2
I0403 13:34:11.258355 32545 net.cpp:91] Creating Layer relu2
I0403 13:34:11.258374 32545 net.cpp:425] relu2 <- conv2
I0403 13:34:11.258395 32545 net.cpp:386] relu2 -> conv2 (in-place)
I0403 13:34:11.258752 32545 net.cpp:141] Setting up relu2
I0403 13:34:11.258785 32545 net.cpp:148] Top shape: 100 256 27 27 (18662400)
I0403 13:34:11.258805 32545 net.cpp:156] Memory required for data: 587609200
I0403 13:34:11.258826 32545 layer_factory.hpp:77] Creating layer norm2
I0403 13:34:11.258849 32545 net.cpp:91] Creating Layer norm2
I0403 13:34:11.258869 32545 net.cpp:425] norm2 <- conv2
I0403 13:34:11.258891 32545 net.cpp:399] norm2 -> norm2
I0403 13:34:11.259114 32545 net.cpp:141] Setting up norm2
I0403 13:34:11.259146 32545 net.cpp:148] Top shape: 100 256 27 27 (18662400)
I0403 13:34:11.259165 32545 net.cpp:156] Memory required for data: 662258800
I0403 13:34:11.259183 32545 layer_factory.hpp:77] Creating layer pool2
I0403 13:34:11.259205 32545 net.cpp:91] Creating Layer pool2
I0403 13:34:11.259224 32545 net.cpp:425] pool2 <- norm2
I0403 13:34:11.259255 32545 net.cpp:399] pool2 -> pool2
I0403 13:34:11.259316 32545 net.cpp:141] Setting up pool2
I0403 13:34:11.259343 32545 net.cpp:148] Top shape: 100 256 13 13 (4326400)
I0403 13:34:11.259362 32545 net.cpp:156] Memory required for data: 679564400
I0403 13:34:11.259380 32545 layer_factory.hpp:77] Creating layer conv3
I0403 13:34:11.259407 32545 net.cpp:91] Creating Layer conv3
I0403 13:34:11.259426 32545 net.cpp:425] conv3 <- pool2
I0403 13:34:11.259449 32545 net.cpp:399] conv3 -> conv3
I0403 13:34:11.305747 32545 net.cpp:141] Setting up conv3
I0403 13:34:11.305848 32545 net.cpp:148] Top shape: 100 384 13 13 (6489600)
I0403 13:34:11.305873 32545 net.cpp:156] Memory required for data: 705522800
I0403 13:34:11.305902 32545 layer_factory.hpp:77] Creating layer relu3
I0403 13:34:11.305927 32545 net.cpp:91] Creating Layer relu3
I0403 13:34:11.305948 32545 net.cpp:425] relu3 <- conv3
I0403 13:34:11.305971 32545 net.cpp:386] relu3 -> conv3 (in-place)
I0403 13:34:11.306295 32545 net.cpp:141] Setting up relu3
I0403 13:34:11.306329 32545 net.cpp:148] Top shape: 100 384 13 13 (6489600)
I0403 13:34:11.306349 32545 net.cpp:156] Memory required for data: 731481200
I0403 13:34:11.306366 32545 layer_factory.hpp:77] Creating layer conv4
I0403 13:34:11.306394 32545 net.cpp:91] Creating Layer conv4
I0403 13:34:11.306416 32545 net.cpp:425] conv4 <- conv3
I0403 13:34:11.306439 32545 net.cpp:399] conv4 -> conv4
I0403 13:34:11.342656 32545 net.cpp:141] Setting up conv4
I0403 13:34:11.342713 32545 net.cpp:148] Top shape: 100 384 13 13 (6489600)
I0403 13:34:11.342768 32545 net.cpp:156] Memory required for data: 757439600
I0403 13:34:11.342793 32545 layer_factory.hpp:77] Creating layer relu4
I0403 13:34:11.342821 32545 net.cpp:91] Creating Layer relu4
I0403 13:34:11.342844 32545 net.cpp:425] relu4 <- conv4
I0403 13:34:11.342865 32545 net.cpp:386] relu4 -> conv4 (in-place)
I0403 13:34:11.343204 32545 net.cpp:141] Setting up relu4
I0403 13:34:11.343235 32545 net.cpp:148] Top shape: 100 384 13 13 (6489600)
I0403 13:34:11.343262 32545 net.cpp:156] Memory required for data: 783398000
I0403 13:34:11.343281 32545 layer_factory.hpp:77] Creating layer conv5
I0403 13:34:11.343314 32545 net.cpp:91] Creating Layer conv5
I0403 13:34:11.343336 32545 net.cpp:425] conv5 <- conv4
I0403 13:34:11.343363 32545 net.cpp:399] conv5 -> conv5
I0403 13:34:11.368296 32545 net.cpp:141] Setting up conv5
I0403 13:34:11.368340 32545 net.cpp:148] Top shape: 100 256 13 13 (4326400)
I0403 13:34:11.368391 32545 net.cpp:156] Memory required for data: 800703600
I0403 13:34:11.368422 32545 layer_factory.hpp:77] Creating layer relu5
I0403 13:34:11.368451 32545 net.cpp:91] Creating Layer relu5
I0403 13:34:11.368473 32545 net.cpp:425] relu5 <- conv5
I0403 13:34:11.368494 32545 net.cpp:386] relu5 -> conv5 (in-place)
I0403 13:34:11.368826 32545 net.cpp:141] Setting up relu5
I0403 13:34:11.368860 32545 net.cpp:148] Top shape: 100 256 13 13 (4326400)
I0403 13:34:11.368880 32545 net.cpp:156] Memory required for data: 818009200
I0403 13:34:11.368899 32545 layer_factory.hpp:77] Creating layer pool5
I0403 13:34:11.368926 32545 net.cpp:91] Creating Layer pool5
I0403 13:34:11.368944 32545 net.cpp:425] pool5 <- conv5
I0403 13:34:11.368969 32545 net.cpp:399] pool5 -> pool5
I0403 13:34:11.369041 32545 net.cpp:141] Setting up pool5
I0403 13:34:11.369072 32545 net.cpp:148] Top shape: 100 256 6 6 (921600)
I0403 13:34:11.369091 32545 net.cpp:156] Memory required for data: 821695600
I0403 13:34:11.369109 32545 layer_factory.hpp:77] Creating layer fc6
I0403 13:34:11.369141 32545 net.cpp:91] Creating Layer fc6
I0403 13:34:11.369163 32545 net.cpp:425] fc6 <- pool5
I0403 13:34:11.369189 32545 net.cpp:399] fc6 -> fc6
I0403 13:34:13.070978 32545 net.cpp:141] Setting up fc6
I0403 13:34:13.071065 32545 net.cpp:148] Top shape: 100 4096 (409600)
I0403 13:34:13.071081 32545 net.cpp:156] Memory required for data: 823334000
I0403 13:34:13.071102 32545 layer_factory.hpp:77] Creating layer relu6
I0403 13:34:13.071125 32545 net.cpp:91] Creating Layer relu6
I0403 13:34:13.071142 32545 net.cpp:425] relu6 <- fc6
I0403 13:34:13.071161 32545 net.cpp:386] relu6 -> fc6 (in-place)
I0403 13:34:13.071379 32545 net.cpp:141] Setting up relu6
I0403 13:34:13.071403 32545 net.cpp:148] Top shape: 100 4096 (409600)
I0403 13:34:13.071418 32545 net.cpp:156] Memory required for data: 824972400
I0403 13:34:13.071431 32545 layer_factory.hpp:77] Creating layer drop6
I0403 13:34:13.071454 32545 net.cpp:91] Creating Layer drop6
I0403 13:34:13.071468 32545 net.cpp:425] drop6 <- fc6
I0403 13:34:13.071483 32545 net.cpp:386] drop6 -> fc6 (in-place)
I0403 13:34:13.071534 32545 net.cpp:141] Setting up drop6
I0403 13:34:13.071554 32545 net.cpp:148] Top shape: 100 4096 (409600)
I0403 13:34:13.071568 32545 net.cpp:156] Memory required for data: 826610800
I0403 13:34:13.071583 32545 layer_factory.hpp:77] Creating layer fc7
I0403 13:34:13.071602 32545 net.cpp:91] Creating Layer fc7
I0403 13:34:13.071617 32545 net.cpp:425] fc7 <- fc6
I0403 13:34:13.071635 32545 net.cpp:399] fc7 -> fc7
I0403 13:34:13.727159 32545 net.cpp:141] Setting up fc7
I0403 13:34:13.727257 32545 net.cpp:148] Top shape: 100 4096 (409600)
I0403 13:34:13.727274 32545 net.cpp:156] Memory required for data: 828249200
I0403 13:34:13.727295 32545 layer_factory.hpp:77] Creating layer relu7
I0403 13:34:13.727315 32545 net.cpp:91] Creating Layer relu7
I0403 13:34:13.727331 32545 net.cpp:425] relu7 <- fc7
I0403 13:34:13.727349 32545 net.cpp:386] relu7 -> fc7 (in-place)
I0403 13:34:13.727751 32545 net.cpp:141] Setting up relu7
I0403 13:34:13.727788 32545 net.cpp:148] Top shape: 100 4096 (409600)
I0403 13:34:13.727850 32545 net.cpp:156] Memory required for data: 829887600
I0403 13:34:13.727865 32545 layer_factory.hpp:77] Creating layer drop7
I0403 13:34:13.727883 32545 net.cpp:91] Creating Layer drop7
I0403 13:34:13.727898 32545 net.cpp:425] drop7 <- fc7
I0403 13:34:13.727916 32545 net.cpp:386] drop7 -> fc7 (in-place)
I0403 13:34:13.727957 32545 net.cpp:141] Setting up drop7
I0403 13:34:13.727978 32545 net.cpp:148] Top shape: 100 4096 (409600)
I0403 13:34:13.727993 32545 net.cpp:156] Memory required for data: 831526000
I0403 13:34:13.728005 32545 layer_factory.hpp:77] Creating layer fc8_plantvillage
I0403 13:34:13.728026 32545 net.cpp:91] Creating Layer fc8_plantvillage
I0403 13:34:13.728042 32545 net.cpp:425] fc8_plantvillage <- fc7
I0403 13:34:13.728060 32545 net.cpp:399] fc8_plantvillage -> fc8_plantvillage
I0403 13:34:13.734583 32545 net.cpp:141] Setting up fc8_plantvillage
I0403 13:34:13.734609 32545 net.cpp:148] Top shape: 100 38 (3800)
I0403 13:34:13.734623 32545 net.cpp:156] Memory required for data: 831541200
I0403 13:34:13.734640 32545 layer_factory.hpp:77] Creating layer fc8_plantvillage_fc8_plantvillage_0_split
I0403 13:34:13.734663 32545 net.cpp:91] Creating Layer fc8_plantvillage_fc8_plantvillage_0_split
I0403 13:34:13.734678 32545 net.cpp:425] fc8_plantvillage_fc8_plantvillage_0_split <- fc8_plantvillage
I0403 13:34:13.734695 32545 net.cpp:399] fc8_plantvillage_fc8_plantvillage_0_split -> fc8_plantvillage_fc8_plantvillage_0_split_0
I0403 13:34:13.734716 32545 net.cpp:399] fc8_plantvillage_fc8_plantvillage_0_split -> fc8_plantvillage_fc8_plantvillage_0_split_1
I0403 13:34:13.734735 32545 net.cpp:399] fc8_plantvillage_fc8_plantvillage_0_split -> fc8_plantvillage_fc8_plantvillage_0_split_2
I0403 13:34:13.734807 32545 net.cpp:141] Setting up fc8_plantvillage_fc8_plantvillage_0_split
I0403 13:34:13.734827 32545 net.cpp:148] Top shape: 100 38 (3800)
I0403 13:34:13.734843 32545 net.cpp:148] Top shape: 100 38 (3800)
I0403 13:34:13.734858 32545 net.cpp:148] Top shape: 100 38 (3800)
I0403 13:34:13.734870 32545 net.cpp:156] Memory required for data: 831586800
I0403 13:34:13.734884 32545 layer_factory.hpp:77] Creating layer prob
I0403 13:34:13.734906 32545 net.cpp:91] Creating Layer prob
I0403 13:34:13.734921 32545 net.cpp:425] prob <- fc8_plantvillage_fc8_plantvillage_0_split_0
I0403 13:34:13.734938 32545 net.cpp:399] prob -> prob
I0403 13:34:13.735147 32545 net.cpp:141] Setting up prob
I0403 13:34:13.735172 32545 net.cpp:148] Top shape: 100 38 (3800)
I0403 13:34:13.735185 32545 net.cpp:156] Memory required for data: 831602000
I0403 13:34:13.735198 32545 layer_factory.hpp:77] Creating layer hdf5out
I0403 13:34:13.735219 32545 net.cpp:91] Creating Layer hdf5out
I0403 13:34:13.735234 32545 net.cpp:425] hdf5out <- prob
I0403 13:34:13.735255 32545 net.cpp:425] hdf5out <- label_data_1_split_0
I0403 13:34:13.737612 32545 net.cpp:141] Setting up hdf5out
…
