…
I0403 13:40:34.754400 32690 net.cpp:313] The NetState phase (1) differed from the phase (0) specified by a rule in layer data
I0403 13:40:34.754712 32690 net.cpp:49] Initializing net from parameters: 
state {
  phase: TEST
}
layer {
  name: "data"
  type: "Data"
  top: "data"
  top: "label"
  include {
    phase: TEST
  }
  transform_param {
    crop_size: 227
    mean_file: "/home/mohanty/data/final_dataset/lmdb/segmented-20-80/mean.binaryproto"
  }
  data_param {
    source: "/home/mohanty/data/final_dataset/lmdb/segmented-20-80/test_db"
    batch_size: 100
    backend: LMDB
  }
}
layer {
  name: "conv1"
  type: "Convolution"
  bottom: "data"
  top: "conv1"
  param {
    lr_mult: 1
    decay_mult: 1
  }
  param {
    lr_mult: 2
    decay_mult: 0
  }
  convolution_param {
    num_output: 96
    kernel_size: 11
    stride: 4
    weight_filler {
      type: "gaussian"
      std: 0.01
    }
    bias_filler {
      type: "constant"
      value: 0
    }
  }
}
layer {
  name: "relu1"
  type: "ReLU"
  bottom: "conv1"
  top: "conv1"
}
layer {
  name: "norm1"
  type: "LRN"
  bottom: "conv1"
  top: "norm1"
  lrn_param {
    local_size: 5
    alpha: 0.0001
    beta: 0.75
  }
}
layer {
  name: "pool1"
  type: "Pooling"
  bottom: "norm1"
  top: "pool1"
  pooling_param {
    pool: MAX
    kernel_size: 3
    stride: 2
  }
}
layer {
  name: "conv2"
  type: "Convolution"
  bottom: "pool1"
  top: "conv2"
  param {
    lr_mult: 1
    decay_mult: 1
  }
  param {
    lr_mult: 2
    decay_mult: 0
  }
  convolution_param {
    num_output: 256
    pad: 2
    kernel_size: 5
    group: 2
    weight_filler {
      type: "gaussian"
      std: 0.01
    }
    bias_filler {
      type: "constant"
      value: 0.1
    }
  }
}
layer {
  name: "relu2"
  type: "ReLU"
  bottom: "conv2"
  top: "conv2"
}
layer {
  name: "norm2"
  type: "LRN"
  bottom: "conv2"
  top: "norm2"
  lrn_param {
    local_size: 5
    alpha: 0.0001
    beta: 0.75
  }
}
layer {
  name: "pool2"
  type: "Pooling"
  bottom: "norm2"
  top: "pool2"
  pooling_param {
    pool: MAX
    kernel_size: 3
    stride: 2
  }
}
layer {
  name: "conv3"
  type: "Convolution"
  bottom: "pool2"
  top: "conv3"
  param {
    lr_mult: 1
    decay_mult: 1
  }
  param {
    lr_mult: 2
    decay_mult: 0
  }
  convolution_param {
    num_output: 384
    pad: 1
    kernel_size: 3
    weight_filler {
      type: "gaussian"
      std: 0.01
    }
    bias_filler {
      type: "constant"
      value: 0
    }
  }
}
layer {
  name: "relu3"
  type: "ReLU"
  bottom: "conv3"
  top: "conv3"
}
layer {
  name: "conv4"
  type: "Convolution"
  bottom: "conv3"
  top: "conv4"
  param {
    lr_mult: 1
    decay_mult: 1
  }
  param {
    lr_mult: 2
    decay_mult: 0
  }
  convolution_param {
    num_output: 384
    pad: 1
    kernel_size: 3
    group: 2
    weight_filler {
      type: "gaussian"
      std: 0.01
    }
    bias_filler {
      type: "constant"
      value: 0.1
    }
  }
}
layer {
  name: "relu4"
  type: "ReLU"
  bottom: "conv4"
  top: "conv4"
}
layer {
  name: "conv5"
  type: "Convolution"
  bottom: "conv4"
  top: "conv5"
  param {
    lr_mult: 1
    decay_mult: 1
  }
  param {
    lr_mult: 2
    decay_mult: 0
  }
  convolution_param {
    num_output: 256
    pad: 1
    kernel_size: 3
    group: 2
    weight_filler {
      type: "gaussian"
      std: 0.01
    }
    bias_filler {
      type: "constant"
      value: 0.1
    }
  }
}
layer {
  name: "relu5"
  type: "ReLU"
  bottom: "conv5"
  top: "conv5"
}
layer {
  name: "pool5"
  type: "Pooling"
  bottom: "conv5"
  top: "pool5"
  pooling_param {
    pool: MAX
    kernel_size: 3
    stride: 2
  }
}
layer {
  name: "fc6"
  type: "InnerProduct"
  bottom: "pool5"
  top: "fc6"
  param {
    lr_mult: 1
    decay_mult: 1
  }
  param {
    lr_mult: 2
    decay_mult: 0
  }
  inner_product_param {
    num_output: 4096
    weight_filler {
      type: "gaussian"
      std: 0.005
    }
    bias_filler {
      type: "constant"
      value: 0.1
    }
  }
}
layer {
  name: "relu6"
  type: "ReLU"
  bottom: "fc6"
  top: "fc6"
}
layer {
  name: "drop6"
  type: "Dropout"
  bottom: "fc6"
  top: "fc6"
  dropout_param {
    dropout_ratio: 0.5
  }
}
layer {
  name: "fc7"
  type: "InnerProduct"
  bottom: "fc6"
  top: "fc7"
  param {
    lr_mult: 1
    decay_mult: 1
  }
  param {
    lr_mult: 2
    decay_mult: 0
  }
  inner_product_param {
    num_output: 4096
    weight_filler {
      type: "gaussian"
      std: 0.005
    }
    bias_filler {
      type: "constant"
      value: 0.1
    }
  }
}
layer {
  name: "relu7"
  type: "ReLU"
  bottom: "fc7"
  top: "fc7"
}
layer {
  name: "drop7"
  type: "Dropout"
  bottom: "fc7"
  top: "fc7"
  dropout_param {
    dropout_ratio: 0.5
  }
}
layer {
  name: "fc8_plantvillage"
  type: "InnerProduct"
  bottom: "fc7"
  top: "fc8_plantvillage"
  param {
    lr_mult: 1
    decay_mult: 1
  }
  param {
    lr_mult: 2
    decay_mult: 0
  }
  inner_product_param {
    num_output: 38
    weight_filler {
      type: "gaussian"
      std: 0.01
    }
    bias_filler {
      type: "constant"
      value: 0
    }
  }
}
layer {
  name: "prob"
  type: "Softmax"
  bottom: "fc8_plantvillage"
  top: "prob"
  include {
    phase: TEST
  }
}
layer {
  name: "hdf5out"
  type: "HDF5Output"
  bottom: "prob"
  bottom: "label"
  include {
    phase: TEST
  }
  hdf5_output_param {
    file_name: "hdf5_dumps/iter_1166.h5"
  }
}
layer {
  name: "loss"
  type: "SoftmaxWithLoss"
  bottom: "fc8_plantvillage"
  bottom: "label"
  top: "loss"
}
layer {
  name: "accuracy"
  type: "Accuracy"
  bottom: "fc8_plantvillage"
  bottom: "label"
  top: "accuracy"
  include {
    phase: TEST
  }
}
I0403 13:40:34.755319 32690 layer_factory.hpp:77] Creating layer data
I0403 13:40:34.755986 32690 net.cpp:91] Creating Layer data
I0403 13:40:34.756021 32690 net.cpp:399] data -> data
I0403 13:40:34.756072 32690 net.cpp:399] data -> label
I0403 13:40:34.756110 32690 data_transformer.cpp:25] Loading mean file from: /home/mohanty/data/final_dataset/lmdb/segmented-20-80/mean.binaryproto
I0403 13:40:34.760978 32693 db_lmdb.cpp:38] Opened lmdb /home/mohanty/data/final_dataset/lmdb/segmented-20-80/test_db
I0403 13:40:34.770946 32690 data_layer.cpp:41] output data size: 100,3,227,227
I0403 13:40:34.895905 32690 net.cpp:141] Setting up data
I0403 13:40:34.895977 32690 net.cpp:148] Top shape: 100 3 227 227 (15458700)
I0403 13:40:34.896001 32690 net.cpp:148] Top shape: 100 (100)
I0403 13:40:34.896018 32690 net.cpp:156] Memory required for data: 61835200
I0403 13:40:34.896046 32690 layer_factory.hpp:77] Creating layer label_data_1_split
I0403 13:40:34.896073 32690 net.cpp:91] Creating Layer label_data_1_split
I0403 13:40:34.896092 32690 net.cpp:425] label_data_1_split <- label
I0403 13:40:34.896124 32690 net.cpp:399] label_data_1_split -> label_data_1_split_0
I0403 13:40:34.896152 32690 net.cpp:399] label_data_1_split -> label_data_1_split_1
I0403 13:40:34.896174 32690 net.cpp:399] label_data_1_split -> label_data_1_split_2
I0403 13:40:34.896239 32690 net.cpp:141] Setting up label_data_1_split
I0403 13:40:34.896263 32690 net.cpp:148] Top shape: 100 (100)
I0403 13:40:34.896287 32690 net.cpp:148] Top shape: 100 (100)
I0403 13:40:34.896304 32690 net.cpp:148] Top shape: 100 (100)
I0403 13:40:34.896320 32690 net.cpp:156] Memory required for data: 61836400
I0403 13:40:34.896337 32690 layer_factory.hpp:77] Creating layer conv1
I0403 13:40:34.896368 32690 net.cpp:91] Creating Layer conv1
I0403 13:40:34.896389 32690 net.cpp:425] conv1 <- data
I0403 13:40:34.896409 32690 net.cpp:399] conv1 -> conv1
I0403 13:40:35.040745 32690 net.cpp:141] Setting up conv1
I0403 13:40:35.040848 32690 net.cpp:148] Top shape: 100 96 55 55 (29040000)
I0403 13:40:35.040866 32690 net.cpp:156] Memory required for data: 177996400
I0403 13:40:35.040899 32690 layer_factory.hpp:77] Creating layer relu1
I0403 13:40:35.040927 32690 net.cpp:91] Creating Layer relu1
I0403 13:40:35.040948 32690 net.cpp:425] relu1 <- conv1
I0403 13:40:35.040969 32690 net.cpp:386] relu1 -> conv1 (in-place)
I0403 13:40:35.041240 32690 net.cpp:141] Setting up relu1
I0403 13:40:35.041270 32690 net.cpp:148] Top shape: 100 96 55 55 (29040000)
I0403 13:40:35.041326 32690 net.cpp:156] Memory required for data: 294156400
I0403 13:40:35.041343 32690 layer_factory.hpp:77] Creating layer norm1
I0403 13:40:35.041373 32690 net.cpp:91] Creating Layer norm1
I0403 13:40:35.041393 32690 net.cpp:425] norm1 <- conv1
I0403 13:40:35.041412 32690 net.cpp:399] norm1 -> norm1
I0403 13:40:35.041740 32690 net.cpp:141] Setting up norm1
I0403 13:40:35.041841 32690 net.cpp:148] Top shape: 100 96 55 55 (29040000)
I0403 13:40:35.041859 32690 net.cpp:156] Memory required for data: 410316400
I0403 13:40:35.041875 32690 layer_factory.hpp:77] Creating layer pool1
I0403 13:40:35.041899 32690 net.cpp:91] Creating Layer pool1
I0403 13:40:35.041918 32690 net.cpp:425] pool1 <- norm1
I0403 13:40:35.041936 32690 net.cpp:399] pool1 -> pool1
I0403 13:40:35.042007 32690 net.cpp:141] Setting up pool1
I0403 13:40:35.042033 32690 net.cpp:148] Top shape: 100 96 27 27 (6998400)
I0403 13:40:35.042052 32690 net.cpp:156] Memory required for data: 438310000
I0403 13:40:35.042075 32690 layer_factory.hpp:77] Creating layer conv2
I0403 13:40:35.042109 32690 net.cpp:91] Creating Layer conv2
I0403 13:40:35.042134 32690 net.cpp:425] conv2 <- pool1
I0403 13:40:35.042162 32690 net.cpp:399] conv2 -> conv2
I0403 13:40:35.057868 32690 net.cpp:141] Setting up conv2
I0403 13:40:35.057921 32690 net.cpp:148] Top shape: 100 256 27 27 (18662400)
I0403 13:40:35.057939 32690 net.cpp:156] Memory required for data: 512959600
I0403 13:40:35.057962 32690 layer_factory.hpp:77] Creating layer relu2
I0403 13:40:35.057983 32690 net.cpp:91] Creating Layer relu2
I0403 13:40:35.058001 32690 net.cpp:425] relu2 <- conv2
I0403 13:40:35.058018 32690 net.cpp:386] relu2 -> conv2 (in-place)
I0403 13:40:35.058297 32690 net.cpp:141] Setting up relu2
I0403 13:40:35.058325 32690 net.cpp:148] Top shape: 100 256 27 27 (18662400)
I0403 13:40:35.058341 32690 net.cpp:156] Memory required for data: 587609200
I0403 13:40:35.058357 32690 layer_factory.hpp:77] Creating layer norm2
I0403 13:40:35.058378 32690 net.cpp:91] Creating Layer norm2
I0403 13:40:35.058395 32690 net.cpp:425] norm2 <- conv2
I0403 13:40:35.058414 32690 net.cpp:399] norm2 -> norm2
I0403 13:40:35.058648 32690 net.cpp:141] Setting up norm2
I0403 13:40:35.058676 32690 net.cpp:148] Top shape: 100 256 27 27 (18662400)
I0403 13:40:35.058691 32690 net.cpp:156] Memory required for data: 662258800
I0403 13:40:35.058706 32690 layer_factory.hpp:77] Creating layer pool2
I0403 13:40:35.058727 32690 net.cpp:91] Creating Layer pool2
I0403 13:40:35.058743 32690 net.cpp:425] pool2 <- norm2
I0403 13:40:35.058760 32690 net.cpp:399] pool2 -> pool2
I0403 13:40:35.058811 32690 net.cpp:141] Setting up pool2
I0403 13:40:35.058835 32690 net.cpp:148] Top shape: 100 256 13 13 (4326400)
I0403 13:40:35.058851 32690 net.cpp:156] Memory required for data: 679564400
I0403 13:40:35.058866 32690 layer_factory.hpp:77] Creating layer conv3
I0403 13:40:35.058887 32690 net.cpp:91] Creating Layer conv3
I0403 13:40:35.058904 32690 net.cpp:425] conv3 <- pool2
I0403 13:40:35.058924 32690 net.cpp:399] conv3 -> conv3
I0403 13:40:35.097834 32690 net.cpp:141] Setting up conv3
I0403 13:40:35.097892 32690 net.cpp:148] Top shape: 100 384 13 13 (6489600)
I0403 13:40:35.097908 32690 net.cpp:156] Memory required for data: 705522800
I0403 13:40:35.097934 32690 layer_factory.hpp:77] Creating layer relu3
I0403 13:40:35.097957 32690 net.cpp:91] Creating Layer relu3
I0403 13:40:35.097975 32690 net.cpp:425] relu3 <- conv3
I0403 13:40:35.097995 32690 net.cpp:386] relu3 -> conv3 (in-place)
I0403 13:40:35.098289 32690 net.cpp:141] Setting up relu3
I0403 13:40:35.098320 32690 net.cpp:148] Top shape: 100 384 13 13 (6489600)
I0403 13:40:35.098336 32690 net.cpp:156] Memory required for data: 731481200
I0403 13:40:35.098353 32690 layer_factory.hpp:77] Creating layer conv4
I0403 13:40:35.098378 32690 net.cpp:91] Creating Layer conv4
I0403 13:40:35.098397 32690 net.cpp:425] conv4 <- conv3
I0403 13:40:35.098417 32690 net.cpp:399] conv4 -> conv4
I0403 13:40:35.129756 32690 net.cpp:141] Setting up conv4
I0403 13:40:35.129837 32690 net.cpp:148] Top shape: 100 384 13 13 (6489600)
I0403 13:40:35.129884 32690 net.cpp:156] Memory required for data: 757439600
I0403 13:40:35.129907 32690 layer_factory.hpp:77] Creating layer relu4
I0403 13:40:35.129932 32690 net.cpp:91] Creating Layer relu4
I0403 13:40:35.129952 32690 net.cpp:425] relu4 <- conv4
I0403 13:40:35.129972 32690 net.cpp:386] relu4 -> conv4 (in-place)
I0403 13:40:35.130280 32690 net.cpp:141] Setting up relu4
I0403 13:40:35.130307 32690 net.cpp:148] Top shape: 100 384 13 13 (6489600)
I0403 13:40:35.130324 32690 net.cpp:156] Memory required for data: 783398000
I0403 13:40:35.130341 32690 layer_factory.hpp:77] Creating layer conv5
I0403 13:40:35.130367 32690 net.cpp:91] Creating Layer conv5
I0403 13:40:35.130385 32690 net.cpp:425] conv5 <- conv4
I0403 13:40:35.130409 32690 net.cpp:399] conv5 -> conv5
I0403 13:40:35.151716 32690 net.cpp:141] Setting up conv5
I0403 13:40:35.151770 32690 net.cpp:148] Top shape: 100 256 13 13 (4326400)
I0403 13:40:35.151787 32690 net.cpp:156] Memory required for data: 800703600
I0403 13:40:35.151815 32690 layer_factory.hpp:77] Creating layer relu5
I0403 13:40:35.151864 32690 net.cpp:91] Creating Layer relu5
I0403 13:40:35.151886 32690 net.cpp:425] relu5 <- conv5
I0403 13:40:35.151906 32690 net.cpp:386] relu5 -> conv5 (in-place)
I0403 13:40:35.152195 32690 net.cpp:141] Setting up relu5
I0403 13:40:35.152225 32690 net.cpp:148] Top shape: 100 256 13 13 (4326400)
I0403 13:40:35.152241 32690 net.cpp:156] Memory required for data: 818009200
I0403 13:40:35.152257 32690 layer_factory.hpp:77] Creating layer pool5
I0403 13:40:35.152284 32690 net.cpp:91] Creating Layer pool5
I0403 13:40:35.152302 32690 net.cpp:425] pool5 <- conv5
I0403 13:40:35.152323 32690 net.cpp:399] pool5 -> pool5
I0403 13:40:35.152385 32690 net.cpp:141] Setting up pool5
I0403 13:40:35.152408 32690 net.cpp:148] Top shape: 100 256 6 6 (921600)
I0403 13:40:35.152425 32690 net.cpp:156] Memory required for data: 821695600
I0403 13:40:35.152439 32690 layer_factory.hpp:77] Creating layer fc6
I0403 13:40:35.152469 32690 net.cpp:91] Creating Layer fc6
I0403 13:40:35.152487 32690 net.cpp:425] fc6 <- pool5
I0403 13:40:35.152509 32690 net.cpp:399] fc6 -> fc6
I0403 13:40:36.710476 32690 net.cpp:141] Setting up fc6
I0403 13:40:36.710541 32690 net.cpp:148] Top shape: 100 4096 (409600)
I0403 13:40:36.710557 32690 net.cpp:156] Memory required for data: 823334000
I0403 13:40:36.710578 32690 layer_factory.hpp:77] Creating layer relu6
I0403 13:40:36.710600 32690 net.cpp:91] Creating Layer relu6
I0403 13:40:36.710618 32690 net.cpp:425] relu6 <- fc6
I0403 13:40:36.710640 32690 net.cpp:386] relu6 -> fc6 (in-place)
I0403 13:40:36.710867 32690 net.cpp:141] Setting up relu6
I0403 13:40:36.710894 32690 net.cpp:148] Top shape: 100 4096 (409600)
I0403 13:40:36.710911 32690 net.cpp:156] Memory required for data: 824972400
I0403 13:40:36.710927 32690 layer_factory.hpp:77] Creating layer drop6
I0403 13:40:36.710944 32690 net.cpp:91] Creating Layer drop6
I0403 13:40:36.710960 32690 net.cpp:425] drop6 <- fc6
I0403 13:40:36.710978 32690 net.cpp:386] drop6 -> fc6 (in-place)
I0403 13:40:36.711030 32690 net.cpp:141] Setting up drop6
I0403 13:40:36.711053 32690 net.cpp:148] Top shape: 100 4096 (409600)
I0403 13:40:36.711068 32690 net.cpp:156] Memory required for data: 826610800
I0403 13:40:36.711083 32690 layer_factory.hpp:77] Creating layer fc7
I0403 13:40:36.711104 32690 net.cpp:91] Creating Layer fc7
I0403 13:40:36.711122 32690 net.cpp:425] fc7 <- fc6
I0403 13:40:36.711139 32690 net.cpp:399] fc7 -> fc7
I0403 13:40:37.397367 32690 net.cpp:141] Setting up fc7
I0403 13:40:37.397406 32690 net.cpp:148] Top shape: 100 4096 (409600)
I0403 13:40:37.397423 32690 net.cpp:156] Memory required for data: 828249200
I0403 13:40:37.397444 32690 layer_factory.hpp:77] Creating layer relu7
I0403 13:40:37.397467 32690 net.cpp:91] Creating Layer relu7
I0403 13:40:37.397486 32690 net.cpp:425] relu7 <- fc7
I0403 13:40:37.397505 32690 net.cpp:386] relu7 -> fc7 (in-place)
I0403 13:40:37.397910 32690 net.cpp:141] Setting up relu7
I0403 13:40:37.397936 32690 net.cpp:148] Top shape: 100 4096 (409600)
I0403 13:40:37.397982 32690 net.cpp:156] Memory required for data: 829887600
I0403 13:40:37.397997 32690 layer_factory.hpp:77] Creating layer drop7
I0403 13:40:37.398020 32690 net.cpp:91] Creating Layer drop7
I0403 13:40:37.398036 32690 net.cpp:425] drop7 <- fc7
I0403 13:40:37.398053 32690 net.cpp:386] drop7 -> fc7 (in-place)
I0403 13:40:37.398097 32690 net.cpp:141] Setting up drop7
I0403 13:40:37.398119 32690 net.cpp:148] Top shape: 100 4096 (409600)
I0403 13:40:37.398133 32690 net.cpp:156] Memory required for data: 831526000
I0403 13:40:37.398149 32690 layer_factory.hpp:77] Creating layer fc8_plantvillage
I0403 13:40:37.398169 32690 net.cpp:91] Creating Layer fc8_plantvillage
I0403 13:40:37.398186 32690 net.cpp:425] fc8_plantvillage <- fc7
I0403 13:40:37.398205 32690 net.cpp:399] fc8_plantvillage -> fc8_plantvillage
I0403 13:40:37.404794 32690 net.cpp:141] Setting up fc8_plantvillage
I0403 13:40:37.404822 32690 net.cpp:148] Top shape: 100 38 (3800)
I0403 13:40:37.404837 32690 net.cpp:156] Memory required for data: 831541200
I0403 13:40:37.404855 32690 layer_factory.hpp:77] Creating layer fc8_plantvillage_fc8_plantvillage_0_split
I0403 13:40:37.404873 32690 net.cpp:91] Creating Layer fc8_plantvillage_fc8_plantvillage_0_split
I0403 13:40:37.404889 32690 net.cpp:425] fc8_plantvillage_fc8_plantvillage_0_split <- fc8_plantvillage
I0403 13:40:37.404906 32690 net.cpp:399] fc8_plantvillage_fc8_plantvillage_0_split -> fc8_plantvillage_fc8_plantvillage_0_split_0
I0403 13:40:37.404928 32690 net.cpp:399] fc8_plantvillage_fc8_plantvillage_0_split -> fc8_plantvillage_fc8_plantvillage_0_split_1
I0403 13:40:37.404949 32690 net.cpp:399] fc8_plantvillage_fc8_plantvillage_0_split -> fc8_plantvillage_fc8_plantvillage_0_split_2
I0403 13:40:37.405024 32690 net.cpp:141] Setting up fc8_plantvillage_fc8_plantvillage_0_split
I0403 13:40:37.405046 32690 net.cpp:148] Top shape: 100 38 (3800)
I0403 13:40:37.405062 32690 net.cpp:148] Top shape: 100 38 (3800)
I0403 13:40:37.405078 32690 net.cpp:148] Top shape: 100 38 (3800)
I0403 13:40:37.405092 32690 net.cpp:156] Memory required for data: 831586800
I0403 13:40:37.405105 32690 layer_factory.hpp:77] Creating layer prob
I0403 13:40:37.405123 32690 net.cpp:91] Creating Layer prob
I0403 13:40:37.405138 32690 net.cpp:425] prob <- fc8_plantvillage_fc8_plantvillage_0_split_0
I0403 13:40:37.405156 32690 net.cpp:399] prob -> prob
I0403 13:40:37.405385 32690 net.cpp:141] Setting up prob
I0403 13:40:37.405411 32690 net.cpp:148] Top shape: 100 38 (3800)
I0403 13:40:37.405424 32690 net.cpp:156] Memory required for data: 831602000
I0403 13:40:37.405439 32690 layer_factory.hpp:77] Creating layer hdf5out
I0403 13:40:37.405460 32690 net.cpp:91] Creating Layer hdf5out
I0403 13:40:37.405478 32690 net.cpp:425] hdf5out <- prob
I0403 13:40:37.405493 32690 net.cpp:425] hdf5out <- label_data_1_split_0
I0403 13:40:37.407918 32690 net.cpp:141] Setting up hdf5out
…
