…
I0403 13:55:55.623034   530 net.cpp:313] The NetState phase (1) differed from the phase (0) specified by a rule in layer data
I0403 13:55:55.623335   530 net.cpp:49] Initializing net from parameters: 
state {
  phase: TEST
}
layer {
  name: "data"
  type: "Data"
  top: "data"
  top: "label"
  include {
    phase: TEST
  }
  transform_param {
    crop_size: 227
    mean_file: "/home/mohanty/data/final_dataset/lmdb/segmented-20-80/mean.binaryproto"
  }
  data_param {
    source: "/home/mohanty/data/final_dataset/lmdb/segmented-20-80/test_db"
    batch_size: 100
    backend: LMDB
  }
}
layer {
  name: "conv1"
  type: "Convolution"
  bottom: "data"
  top: "conv1"
  param {
    lr_mult: 1
    decay_mult: 1
  }
  param {
    lr_mult: 2
    decay_mult: 0
  }
  convolution_param {
    num_output: 96
    kernel_size: 11
    stride: 4
    weight_filler {
      type: "gaussian"
      std: 0.01
    }
    bias_filler {
      type: "constant"
      value: 0
    }
  }
}
layer {
  name: "relu1"
  type: "ReLU"
  bottom: "conv1"
  top: "conv1"
}
layer {
  name: "norm1"
  type: "LRN"
  bottom: "conv1"
  top: "norm1"
  lrn_param {
    local_size: 5
    alpha: 0.0001
    beta: 0.75
  }
}
layer {
  name: "pool1"
  type: "Pooling"
  bottom: "norm1"
  top: "pool1"
  pooling_param {
    pool: MAX
    kernel_size: 3
    stride: 2
  }
}
layer {
  name: "conv2"
  type: "Convolution"
  bottom: "pool1"
  top: "conv2"
  param {
    lr_mult: 1
    decay_mult: 1
  }
  param {
    lr_mult: 2
    decay_mult: 0
  }
  convolution_param {
    num_output: 256
    pad: 2
    kernel_size: 5
    group: 2
    weight_filler {
      type: "gaussian"
      std: 0.01
    }
    bias_filler {
      type: "constant"
      value: 0.1
    }
  }
}
layer {
  name: "relu2"
  type: "ReLU"
  bottom: "conv2"
  top: "conv2"
}
layer {
  name: "norm2"
  type: "LRN"
  bottom: "conv2"
  top: "norm2"
  lrn_param {
    local_size: 5
    alpha: 0.0001
    beta: 0.75
  }
}
layer {
  name: "pool2"
  type: "Pooling"
  bottom: "norm2"
  top: "pool2"
  pooling_param {
    pool: MAX
    kernel_size: 3
    stride: 2
  }
}
layer {
  name: "conv3"
  type: "Convolution"
  bottom: "pool2"
  top: "conv3"
  param {
    lr_mult: 1
    decay_mult: 1
  }
  param {
    lr_mult: 2
    decay_mult: 0
  }
  convolution_param {
    num_output: 384
    pad: 1
    kernel_size: 3
    weight_filler {
      type: "gaussian"
      std: 0.01
    }
    bias_filler {
      type: "constant"
      value: 0
    }
  }
}
layer {
  name: "relu3"
  type: "ReLU"
  bottom: "conv3"
  top: "conv3"
}
layer {
  name: "conv4"
  type: "Convolution"
  bottom: "conv3"
  top: "conv4"
  param {
    lr_mult: 1
    decay_mult: 1
  }
  param {
    lr_mult: 2
    decay_mult: 0
  }
  convolution_param {
    num_output: 384
    pad: 1
    kernel_size: 3
    group: 2
    weight_filler {
      type: "gaussian"
      std: 0.01
    }
    bias_filler {
      type: "constant"
      value: 0.1
    }
  }
}
layer {
  name: "relu4"
  type: "ReLU"
  bottom: "conv4"
  top: "conv4"
}
layer {
  name: "conv5"
  type: "Convolution"
  bottom: "conv4"
  top: "conv5"
  param {
    lr_mult: 1
    decay_mult: 1
  }
  param {
    lr_mult: 2
    decay_mult: 0
  }
  convolution_param {
    num_output: 256
    pad: 1
    kernel_size: 3
    group: 2
    weight_filler {
      type: "gaussian"
      std: 0.01
    }
    bias_filler {
      type: "constant"
      value: 0.1
    }
  }
}
layer {
  name: "relu5"
  type: "ReLU"
  bottom: "conv5"
  top: "conv5"
}
layer {
  name: "pool5"
  type: "Pooling"
  bottom: "conv5"
  top: "pool5"
  pooling_param {
    pool: MAX
    kernel_size: 3
    stride: 2
  }
}
layer {
  name: "fc6"
  type: "InnerProduct"
  bottom: "pool5"
  top: "fc6"
  param {
    lr_mult: 1
    decay_mult: 1
  }
  param {
    lr_mult: 2
    decay_mult: 0
  }
  inner_product_param {
    num_output: 4096
    weight_filler {
      type: "gaussian"
      std: 0.005
    }
    bias_filler {
      type: "constant"
      value: 0.1
    }
  }
}
layer {
  name: "relu6"
  type: "ReLU"
  bottom: "fc6"
  top: "fc6"
}
layer {
  name: "drop6"
  type: "Dropout"
  bottom: "fc6"
  top: "fc6"
  dropout_param {
    dropout_ratio: 0.5
  }
}
layer {
  name: "fc7"
  type: "InnerProduct"
  bottom: "fc6"
  top: "fc7"
  param {
    lr_mult: 1
    decay_mult: 1
  }
  param {
    lr_mult: 2
    decay_mult: 0
  }
  inner_product_param {
    num_output: 4096
    weight_filler {
      type: "gaussian"
      std: 0.005
    }
    bias_filler {
      type: "constant"
      value: 0.1
    }
  }
}
layer {
  name: "relu7"
  type: "ReLU"
  bottom: "fc7"
  top: "fc7"
}
layer {
  name: "drop7"
  type: "Dropout"
  bottom: "fc7"
  top: "fc7"
  dropout_param {
    dropout_ratio: 0.5
  }
}
layer {
  name: "fc8_plantvillage"
  type: "InnerProduct"
  bottom: "fc7"
  top: "fc8_plantvillage"
  param {
    lr_mult: 1
    decay_mult: 1
  }
  param {
    lr_mult: 2
    decay_mult: 0
  }
  inner_product_param {
    num_output: 38
    weight_filler {
      type: "gaussian"
      std: 0.01
    }
    bias_filler {
      type: "constant"
      value: 0
    }
  }
}
layer {
  name: "prob"
  type: "Softmax"
  bottom: "fc8_plantvillage"
  top: "prob"
  include {
    phase: TEST
  }
}
layer {
  name: "hdf5out"
  type: "HDF5Output"
  bottom: "prob"
  bottom: "label"
  include {
    phase: TEST
  }
  hdf5_output_param {
    file_name: "hdf5_dumps/iter_2438.h5"
  }
}
layer {
  name: "loss"
  type: "SoftmaxWithLoss"
  bottom: "fc8_plantvillage"
  bottom: "label"
  top: "loss"
}
layer {
  name: "accuracy"
  type: "Accuracy"
  bottom: "fc8_plantvillage"
  bottom: "label"
  top: "accuracy"
  include {
    phase: TEST
  }
}
I0403 13:55:55.623965   530 layer_factory.hpp:77] Creating layer data
I0403 13:55:55.624614   530 net.cpp:91] Creating Layer data
I0403 13:55:55.624647   530 net.cpp:399] data -> data
I0403 13:55:55.624697   530 net.cpp:399] data -> label
I0403 13:55:55.624733   530 data_transformer.cpp:25] Loading mean file from: /home/mohanty/data/final_dataset/lmdb/segmented-20-80/mean.binaryproto
I0403 13:55:55.627907   533 db_lmdb.cpp:38] Opened lmdb /home/mohanty/data/final_dataset/lmdb/segmented-20-80/test_db
I0403 13:55:55.642576   530 data_layer.cpp:41] output data size: 100,3,227,227
I0403 13:55:55.763747   530 net.cpp:141] Setting up data
I0403 13:55:55.763855   530 net.cpp:148] Top shape: 100 3 227 227 (15458700)
I0403 13:55:55.763880   530 net.cpp:148] Top shape: 100 (100)
I0403 13:55:55.763897   530 net.cpp:156] Memory required for data: 61835200
I0403 13:55:55.763926   530 layer_factory.hpp:77] Creating layer label_data_1_split
I0403 13:55:55.763952   530 net.cpp:91] Creating Layer label_data_1_split
I0403 13:55:55.763970   530 net.cpp:425] label_data_1_split <- label
I0403 13:55:55.764003   530 net.cpp:399] label_data_1_split -> label_data_1_split_0
I0403 13:55:55.764030   530 net.cpp:399] label_data_1_split -> label_data_1_split_1
I0403 13:55:55.764051   530 net.cpp:399] label_data_1_split -> label_data_1_split_2
I0403 13:55:55.764117   530 net.cpp:141] Setting up label_data_1_split
I0403 13:55:55.764142   530 net.cpp:148] Top shape: 100 (100)
I0403 13:55:55.764159   530 net.cpp:148] Top shape: 100 (100)
I0403 13:55:55.764178   530 net.cpp:148] Top shape: 100 (100)
I0403 13:55:55.764192   530 net.cpp:156] Memory required for data: 61836400
I0403 13:55:55.764209   530 layer_factory.hpp:77] Creating layer conv1
I0403 13:55:55.764241   530 net.cpp:91] Creating Layer conv1
I0403 13:55:55.764261   530 net.cpp:425] conv1 <- data
I0403 13:55:55.764287   530 net.cpp:399] conv1 -> conv1
I0403 13:55:55.906458   530 net.cpp:141] Setting up conv1
I0403 13:55:55.906512   530 net.cpp:148] Top shape: 100 96 55 55 (29040000)
I0403 13:55:55.906530   530 net.cpp:156] Memory required for data: 177996400
I0403 13:55:55.906561   530 layer_factory.hpp:77] Creating layer relu1
I0403 13:55:55.906591   530 net.cpp:91] Creating Layer relu1
I0403 13:55:55.906611   530 net.cpp:425] relu1 <- conv1
I0403 13:55:55.906635   530 net.cpp:386] relu1 -> conv1 (in-place)
I0403 13:55:55.906947   530 net.cpp:141] Setting up relu1
I0403 13:55:55.906977   530 net.cpp:148] Top shape: 100 96 55 55 (29040000)
I0403 13:55:55.907024   530 net.cpp:156] Memory required for data: 294156400
I0403 13:55:55.907042   530 layer_factory.hpp:77] Creating layer norm1
I0403 13:55:55.907073   530 net.cpp:91] Creating Layer norm1
I0403 13:55:55.907093   530 net.cpp:425] norm1 <- conv1
I0403 13:55:55.907115   530 net.cpp:399] norm1 -> norm1
I0403 13:55:55.907470   530 net.cpp:141] Setting up norm1
I0403 13:55:55.907503   530 net.cpp:148] Top shape: 100 96 55 55 (29040000)
I0403 13:55:55.907521   530 net.cpp:156] Memory required for data: 410316400
I0403 13:55:55.907537   530 layer_factory.hpp:77] Creating layer pool1
I0403 13:55:55.907562   530 net.cpp:91] Creating Layer pool1
I0403 13:55:55.907580   530 net.cpp:425] pool1 <- norm1
I0403 13:55:55.907603   530 net.cpp:399] pool1 -> pool1
I0403 13:55:55.907678   530 net.cpp:141] Setting up pool1
I0403 13:55:55.907704   530 net.cpp:148] Top shape: 100 96 27 27 (6998400)
I0403 13:55:55.907721   530 net.cpp:156] Memory required for data: 438310000
I0403 13:55:55.907737   530 layer_factory.hpp:77] Creating layer conv2
I0403 13:55:55.907765   530 net.cpp:91] Creating Layer conv2
I0403 13:55:55.907785   530 net.cpp:425] conv2 <- pool1
I0403 13:55:55.907807   530 net.cpp:399] conv2 -> conv2
I0403 13:55:55.923521   530 net.cpp:141] Setting up conv2
I0403 13:55:55.923576   530 net.cpp:148] Top shape: 100 256 27 27 (18662400)
I0403 13:55:55.923595   530 net.cpp:156] Memory required for data: 512959600
I0403 13:55:55.923622   530 layer_factory.hpp:77] Creating layer relu2
I0403 13:55:55.923642   530 net.cpp:91] Creating Layer relu2
I0403 13:55:55.923660   530 net.cpp:425] relu2 <- conv2
I0403 13:55:55.923679   530 net.cpp:386] relu2 -> conv2 (in-place)
I0403 13:55:55.924027   530 net.cpp:141] Setting up relu2
I0403 13:55:55.924057   530 net.cpp:148] Top shape: 100 256 27 27 (18662400)
I0403 13:55:55.924073   530 net.cpp:156] Memory required for data: 587609200
I0403 13:55:55.924089   530 layer_factory.hpp:77] Creating layer norm2
I0403 13:55:55.924115   530 net.cpp:91] Creating Layer norm2
I0403 13:55:55.924134   530 net.cpp:425] norm2 <- conv2
I0403 13:55:55.924154   530 net.cpp:399] norm2 -> norm2
I0403 13:55:55.924368   530 net.cpp:141] Setting up norm2
I0403 13:55:55.924401   530 net.cpp:148] Top shape: 100 256 27 27 (18662400)
I0403 13:55:55.924418   530 net.cpp:156] Memory required for data: 662258800
I0403 13:55:55.924437   530 layer_factory.hpp:77] Creating layer pool2
I0403 13:55:55.924455   530 net.cpp:91] Creating Layer pool2
I0403 13:55:55.924473   530 net.cpp:425] pool2 <- norm2
I0403 13:55:55.924490   530 net.cpp:399] pool2 -> pool2
I0403 13:55:55.924549   530 net.cpp:141] Setting up pool2
I0403 13:55:55.924573   530 net.cpp:148] Top shape: 100 256 13 13 (4326400)
I0403 13:55:55.924589   530 net.cpp:156] Memory required for data: 679564400
I0403 13:55:55.924605   530 layer_factory.hpp:77] Creating layer conv3
I0403 13:55:55.924630   530 net.cpp:91] Creating Layer conv3
I0403 13:55:55.924649   530 net.cpp:425] conv3 <- pool2
I0403 13:55:55.924671   530 net.cpp:399] conv3 -> conv3
I0403 13:55:55.964362   530 net.cpp:141] Setting up conv3
I0403 13:55:55.964442   530 net.cpp:148] Top shape: 100 384 13 13 (6489600)
I0403 13:55:55.964458   530 net.cpp:156] Memory required for data: 705522800
I0403 13:55:55.964489   530 layer_factory.hpp:77] Creating layer relu3
I0403 13:55:55.964514   530 net.cpp:91] Creating Layer relu3
I0403 13:55:55.964530   530 net.cpp:425] relu3 <- conv3
I0403 13:55:55.964550   530 net.cpp:386] relu3 -> conv3 (in-place)
I0403 13:55:55.964836   530 net.cpp:141] Setting up relu3
I0403 13:55:55.964866   530 net.cpp:148] Top shape: 100 384 13 13 (6489600)
I0403 13:55:55.964884   530 net.cpp:156] Memory required for data: 731481200
I0403 13:55:55.964900   530 layer_factory.hpp:77] Creating layer conv4
I0403 13:55:55.964925   530 net.cpp:91] Creating Layer conv4
I0403 13:55:55.964942   530 net.cpp:425] conv4 <- conv3
I0403 13:55:55.964962   530 net.cpp:399] conv4 -> conv4
I0403 13:55:55.996095   530 net.cpp:141] Setting up conv4
I0403 13:55:55.996134   530 net.cpp:148] Top shape: 100 384 13 13 (6489600)
I0403 13:55:55.996172   530 net.cpp:156] Memory required for data: 757439600
I0403 13:55:55.996196   530 layer_factory.hpp:77] Creating layer relu4
I0403 13:55:55.996219   530 net.cpp:91] Creating Layer relu4
I0403 13:55:55.996237   530 net.cpp:425] relu4 <- conv4
I0403 13:55:55.996258   530 net.cpp:386] relu4 -> conv4 (in-place)
I0403 13:55:55.996546   530 net.cpp:141] Setting up relu4
I0403 13:55:55.996574   530 net.cpp:148] Top shape: 100 384 13 13 (6489600)
I0403 13:55:55.996592   530 net.cpp:156] Memory required for data: 783398000
I0403 13:55:55.996606   530 layer_factory.hpp:77] Creating layer conv5
I0403 13:55:55.996633   530 net.cpp:91] Creating Layer conv5
I0403 13:55:55.996655   530 net.cpp:425] conv5 <- conv4
I0403 13:55:55.996675   530 net.cpp:399] conv5 -> conv5
I0403 13:55:56.017637   530 net.cpp:141] Setting up conv5
I0403 13:55:56.017701   530 net.cpp:148] Top shape: 100 256 13 13 (4326400)
I0403 13:55:56.017722   530 net.cpp:156] Memory required for data: 800703600
I0403 13:55:56.017750   530 layer_factory.hpp:77] Creating layer relu5
I0403 13:55:56.017771   530 net.cpp:91] Creating Layer relu5
I0403 13:55:56.017788   530 net.cpp:425] relu5 <- conv5
I0403 13:55:56.017807   530 net.cpp:386] relu5 -> conv5 (in-place)
I0403 13:55:56.018142   530 net.cpp:141] Setting up relu5
I0403 13:55:56.018173   530 net.cpp:148] Top shape: 100 256 13 13 (4326400)
I0403 13:55:56.018190   530 net.cpp:156] Memory required for data: 818009200
I0403 13:55:56.018206   530 layer_factory.hpp:77] Creating layer pool5
I0403 13:55:56.018229   530 net.cpp:91] Creating Layer pool5
I0403 13:55:56.018245   530 net.cpp:425] pool5 <- conv5
I0403 13:55:56.018268   530 net.cpp:399] pool5 -> pool5
I0403 13:55:56.018337   530 net.cpp:141] Setting up pool5
I0403 13:55:56.018362   530 net.cpp:148] Top shape: 100 256 6 6 (921600)
I0403 13:55:56.018378   530 net.cpp:156] Memory required for data: 821695600
I0403 13:55:56.018393   530 layer_factory.hpp:77] Creating layer fc6
I0403 13:55:56.018422   530 net.cpp:91] Creating Layer fc6
I0403 13:55:56.018442   530 net.cpp:425] fc6 <- pool5
I0403 13:55:56.018465   530 net.cpp:399] fc6 -> fc6
I0403 13:55:57.570479   530 net.cpp:141] Setting up fc6
I0403 13:55:57.570556   530 net.cpp:148] Top shape: 100 4096 (409600)
I0403 13:55:57.570572   530 net.cpp:156] Memory required for data: 823334000
I0403 13:55:57.570593   530 layer_factory.hpp:77] Creating layer relu6
I0403 13:55:57.570617   530 net.cpp:91] Creating Layer relu6
I0403 13:55:57.570636   530 net.cpp:425] relu6 <- fc6
I0403 13:55:57.570654   530 net.cpp:386] relu6 -> fc6 (in-place)
I0403 13:55:57.570875   530 net.cpp:141] Setting up relu6
I0403 13:55:57.570904   530 net.cpp:148] Top shape: 100 4096 (409600)
I0403 13:55:57.570919   530 net.cpp:156] Memory required for data: 824972400
I0403 13:55:57.570935   530 layer_factory.hpp:77] Creating layer drop6
I0403 13:55:57.570953   530 net.cpp:91] Creating Layer drop6
I0403 13:55:57.570968   530 net.cpp:425] drop6 <- fc6
I0403 13:55:57.570986   530 net.cpp:386] drop6 -> fc6 (in-place)
I0403 13:55:57.571038   530 net.cpp:141] Setting up drop6
I0403 13:55:57.571059   530 net.cpp:148] Top shape: 100 4096 (409600)
I0403 13:55:57.571074   530 net.cpp:156] Memory required for data: 826610800
I0403 13:55:57.571089   530 layer_factory.hpp:77] Creating layer fc7
I0403 13:55:57.571111   530 net.cpp:91] Creating Layer fc7
I0403 13:55:57.571127   530 net.cpp:425] fc7 <- fc6
I0403 13:55:57.571146   530 net.cpp:399] fc7 -> fc7
I0403 13:55:58.249027   530 net.cpp:141] Setting up fc7
I0403 13:55:58.249105   530 net.cpp:148] Top shape: 100 4096 (409600)
I0403 13:55:58.249122   530 net.cpp:156] Memory required for data: 828249200
I0403 13:55:58.249145   530 layer_factory.hpp:77] Creating layer relu7
I0403 13:55:58.249171   530 net.cpp:91] Creating Layer relu7
I0403 13:55:58.249188   530 net.cpp:425] relu7 <- fc7
I0403 13:55:58.249207   530 net.cpp:386] relu7 -> fc7 (in-place)
I0403 13:55:58.249637   530 net.cpp:141] Setting up relu7
I0403 13:55:58.249666   530 net.cpp:148] Top shape: 100 4096 (409600)
I0403 13:55:58.249711   530 net.cpp:156] Memory required for data: 829887600
I0403 13:55:58.249727   530 layer_factory.hpp:77] Creating layer drop7
I0403 13:55:58.249747   530 net.cpp:91] Creating Layer drop7
I0403 13:55:58.249761   530 net.cpp:425] drop7 <- fc7
I0403 13:55:58.249779   530 net.cpp:386] drop7 -> fc7 (in-place)
I0403 13:55:58.249836   530 net.cpp:141] Setting up drop7
I0403 13:55:58.249858   530 net.cpp:148] Top shape: 100 4096 (409600)
I0403 13:55:58.249873   530 net.cpp:156] Memory required for data: 831526000
I0403 13:55:58.249887   530 layer_factory.hpp:77] Creating layer fc8_plantvillage
I0403 13:55:58.249909   530 net.cpp:91] Creating Layer fc8_plantvillage
I0403 13:55:58.249925   530 net.cpp:425] fc8_plantvillage <- fc7
I0403 13:55:58.249943   530 net.cpp:399] fc8_plantvillage -> fc8_plantvillage
I0403 13:55:58.256463   530 net.cpp:141] Setting up fc8_plantvillage
I0403 13:55:58.256490   530 net.cpp:148] Top shape: 100 38 (3800)
I0403 13:55:58.256505   530 net.cpp:156] Memory required for data: 831541200
I0403 13:55:58.256523   530 layer_factory.hpp:77] Creating layer fc8_plantvillage_fc8_plantvillage_0_split
I0403 13:55:58.256541   530 net.cpp:91] Creating Layer fc8_plantvillage_fc8_plantvillage_0_split
I0403 13:55:58.256557   530 net.cpp:425] fc8_plantvillage_fc8_plantvillage_0_split <- fc8_plantvillage
I0403 13:55:58.256574   530 net.cpp:399] fc8_plantvillage_fc8_plantvillage_0_split -> fc8_plantvillage_fc8_plantvillage_0_split_0
I0403 13:55:58.256597   530 net.cpp:399] fc8_plantvillage_fc8_plantvillage_0_split -> fc8_plantvillage_fc8_plantvillage_0_split_1
I0403 13:55:58.256618   530 net.cpp:399] fc8_plantvillage_fc8_plantvillage_0_split -> fc8_plantvillage_fc8_plantvillage_0_split_2
I0403 13:55:58.256693   530 net.cpp:141] Setting up fc8_plantvillage_fc8_plantvillage_0_split
I0403 13:55:58.256716   530 net.cpp:148] Top shape: 100 38 (3800)
I0403 13:55:58.256733   530 net.cpp:148] Top shape: 100 38 (3800)
I0403 13:55:58.256749   530 net.cpp:148] Top shape: 100 38 (3800)
I0403 13:55:58.256763   530 net.cpp:156] Memory required for data: 831586800
I0403 13:55:58.256778   530 layer_factory.hpp:77] Creating layer prob
I0403 13:55:58.256796   530 net.cpp:91] Creating Layer prob
I0403 13:55:58.256811   530 net.cpp:425] prob <- fc8_plantvillage_fc8_plantvillage_0_split_0
I0403 13:55:58.256829   530 net.cpp:399] prob -> prob
I0403 13:55:58.257051   530 net.cpp:141] Setting up prob
I0403 13:55:58.257076   530 net.cpp:148] Top shape: 100 38 (3800)
I0403 13:55:58.257091   530 net.cpp:156] Memory required for data: 831602000
I0403 13:55:58.257105   530 layer_factory.hpp:77] Creating layer hdf5out
I0403 13:55:58.257128   530 net.cpp:91] Creating Layer hdf5out
I0403 13:55:58.257143   530 net.cpp:425] hdf5out <- prob
I0403 13:55:58.257159   530 net.cpp:425] hdf5out <- label_data_1_split_0
I0403 13:55:58.259718   530 net.cpp:141] Setting up hdf5out
…
