…
I0403 14:04:53.557657   718 net.cpp:313] The NetState phase (1) differed from the phase (0) specified by a rule in layer data
I0403 14:04:53.557973   718 net.cpp:49] Initializing net from parameters: 
state {
  phase: TEST
}
layer {
  name: "data"
  type: "Data"
  top: "data"
  top: "label"
  include {
    phase: TEST
  }
  transform_param {
    crop_size: 227
    mean_file: "/home/mohanty/data/final_dataset/lmdb/segmented-20-80/mean.binaryproto"
  }
  data_param {
    source: "/home/mohanty/data/final_dataset/lmdb/segmented-20-80/test_db"
    batch_size: 100
    backend: LMDB
  }
}
layer {
  name: "conv1"
  type: "Convolution"
  bottom: "data"
  top: "conv1"
  param {
    lr_mult: 1
    decay_mult: 1
  }
  param {
    lr_mult: 2
    decay_mult: 0
  }
  convolution_param {
    num_output: 96
    kernel_size: 11
    stride: 4
    weight_filler {
      type: "gaussian"
      std: 0.01
    }
    bias_filler {
      type: "constant"
      value: 0
    }
  }
}
layer {
  name: "relu1"
  type: "ReLU"
  bottom: "conv1"
  top: "conv1"
}
layer {
  name: "norm1"
  type: "LRN"
  bottom: "conv1"
  top: "norm1"
  lrn_param {
    local_size: 5
    alpha: 0.0001
    beta: 0.75
  }
}
layer {
  name: "pool1"
  type: "Pooling"
  bottom: "norm1"
  top: "pool1"
  pooling_param {
    pool: MAX
    kernel_size: 3
    stride: 2
  }
}
layer {
  name: "conv2"
  type: "Convolution"
  bottom: "pool1"
  top: "conv2"
  param {
    lr_mult: 1
    decay_mult: 1
  }
  param {
    lr_mult: 2
    decay_mult: 0
  }
  convolution_param {
    num_output: 256
    pad: 2
    kernel_size: 5
    group: 2
    weight_filler {
      type: "gaussian"
      std: 0.01
    }
    bias_filler {
      type: "constant"
      value: 0.1
    }
  }
}
layer {
  name: "relu2"
  type: "ReLU"
  bottom: "conv2"
  top: "conv2"
}
layer {
  name: "norm2"
  type: "LRN"
  bottom: "conv2"
  top: "norm2"
  lrn_param {
    local_size: 5
    alpha: 0.0001
    beta: 0.75
  }
}
layer {
  name: "pool2"
  type: "Pooling"
  bottom: "norm2"
  top: "pool2"
  pooling_param {
    pool: MAX
    kernel_size: 3
    stride: 2
  }
}
layer {
  name: "conv3"
  type: "Convolution"
  bottom: "pool2"
  top: "conv3"
  param {
    lr_mult: 1
    decay_mult: 1
  }
  param {
    lr_mult: 2
    decay_mult: 0
  }
  convolution_param {
    num_output: 384
    pad: 1
    kernel_size: 3
    weight_filler {
      type: "gaussian"
      std: 0.01
    }
    bias_filler {
      type: "constant"
      value: 0
    }
  }
}
layer {
  name: "relu3"
  type: "ReLU"
  bottom: "conv3"
  top: "conv3"
}
layer {
  name: "conv4"
  type: "Convolution"
  bottom: "conv3"
  top: "conv4"
  param {
    lr_mult: 1
    decay_mult: 1
  }
  param {
    lr_mult: 2
    decay_mult: 0
  }
  convolution_param {
    num_output: 384
    pad: 1
    kernel_size: 3
    group: 2
    weight_filler {
      type: "gaussian"
      std: 0.01
    }
    bias_filler {
      type: "constant"
      value: 0.1
    }
  }
}
layer {
  name: "relu4"
  type: "ReLU"
  bottom: "conv4"
  top: "conv4"
}
layer {
  name: "conv5"
  type: "Convolution"
  bottom: "conv4"
  top: "conv5"
  param {
    lr_mult: 1
    decay_mult: 1
  }
  param {
    lr_mult: 2
    decay_mult: 0
  }
  convolution_param {
    num_output: 256
    pad: 1
    kernel_size: 3
    group: 2
    weight_filler {
      type: "gaussian"
      std: 0.01
    }
    bias_filler {
      type: "constant"
      value: 0.1
    }
  }
}
layer {
  name: "relu5"
  type: "ReLU"
  bottom: "conv5"
  top: "conv5"
}
layer {
  name: "pool5"
  type: "Pooling"
  bottom: "conv5"
  top: "pool5"
  pooling_param {
    pool: MAX
    kernel_size: 3
    stride: 2
  }
}
layer {
  name: "fc6"
  type: "InnerProduct"
  bottom: "pool5"
  top: "fc6"
  param {
    lr_mult: 1
    decay_mult: 1
  }
  param {
    lr_mult: 2
    decay_mult: 0
  }
  inner_product_param {
    num_output: 4096
    weight_filler {
      type: "gaussian"
      std: 0.005
    }
    bias_filler {
      type: "constant"
      value: 0.1
    }
  }
}
layer {
  name: "relu6"
  type: "ReLU"
  bottom: "fc6"
  top: "fc6"
}
layer {
  name: "drop6"
  type: "Dropout"
  bottom: "fc6"
  top: "fc6"
  dropout_param {
    dropout_ratio: 0.5
  }
}
layer {
  name: "fc7"
  type: "InnerProduct"
  bottom: "fc6"
  top: "fc7"
  param {
    lr_mult: 1
    decay_mult: 1
  }
  param {
    lr_mult: 2
    decay_mult: 0
  }
  inner_product_param {
    num_output: 4096
    weight_filler {
      type: "gaussian"
      std: 0.005
    }
    bias_filler {
      type: "constant"
      value: 0.1
    }
  }
}
layer {
  name: "relu7"
  type: "ReLU"
  bottom: "fc7"
  top: "fc7"
}
layer {
  name: "drop7"
  type: "Dropout"
  bottom: "fc7"
  top: "fc7"
  dropout_param {
    dropout_ratio: 0.5
  }
}
layer {
  name: "fc8_plantvillage"
  type: "InnerProduct"
  bottom: "fc7"
  top: "fc8_plantvillage"
  param {
    lr_mult: 1
    decay_mult: 1
  }
  param {
    lr_mult: 2
    decay_mult: 0
  }
  inner_product_param {
    num_output: 38
    weight_filler {
      type: "gaussian"
      std: 0.01
    }
    bias_filler {
      type: "constant"
      value: 0
    }
  }
}
layer {
  name: "prob"
  type: "Softmax"
  bottom: "fc8_plantvillage"
  top: "prob"
  include {
    phase: TEST
  }
}
layer {
  name: "hdf5out"
  type: "HDF5Output"
  bottom: "prob"
  bottom: "label"
  include {
    phase: TEST
  }
  hdf5_output_param {
    file_name: "hdf5_dumps/iter_3180.h5"
  }
}
layer {
  name: "loss"
  type: "SoftmaxWithLoss"
  bottom: "fc8_plantvillage"
  bottom: "label"
  top: "loss"
}
layer {
  name: "accuracy"
  type: "Accuracy"
  bottom: "fc8_plantvillage"
  bottom: "label"
  top: "accuracy"
  include {
    phase: TEST
  }
}
I0403 14:04:53.558557   718 layer_factory.hpp:77] Creating layer data
I0403 14:04:53.559217   718 net.cpp:91] Creating Layer data
I0403 14:04:53.559247   718 net.cpp:399] data -> data
I0403 14:04:53.559305   718 net.cpp:399] data -> label
I0403 14:04:53.559345   718 data_transformer.cpp:25] Loading mean file from: /home/mohanty/data/final_dataset/lmdb/segmented-20-80/mean.binaryproto
I0403 14:04:53.578397   723 db_lmdb.cpp:38] Opened lmdb /home/mohanty/data/final_dataset/lmdb/segmented-20-80/test_db
I0403 14:04:53.580592   718 data_layer.cpp:41] output data size: 100,3,227,227
I0403 14:04:53.704190   718 net.cpp:141] Setting up data
I0403 14:04:53.704252   718 net.cpp:148] Top shape: 100 3 227 227 (15458700)
I0403 14:04:53.704279   718 net.cpp:148] Top shape: 100 (100)
I0403 14:04:53.704296   718 net.cpp:156] Memory required for data: 61835200
I0403 14:04:53.704325   718 layer_factory.hpp:77] Creating layer label_data_1_split
I0403 14:04:53.704351   718 net.cpp:91] Creating Layer label_data_1_split
I0403 14:04:53.704370   718 net.cpp:425] label_data_1_split <- label
I0403 14:04:53.704402   718 net.cpp:399] label_data_1_split -> label_data_1_split_0
I0403 14:04:53.704430   718 net.cpp:399] label_data_1_split -> label_data_1_split_1
I0403 14:04:53.704452   718 net.cpp:399] label_data_1_split -> label_data_1_split_2
I0403 14:04:53.704516   718 net.cpp:141] Setting up label_data_1_split
I0403 14:04:53.704540   718 net.cpp:148] Top shape: 100 (100)
I0403 14:04:53.704556   718 net.cpp:148] Top shape: 100 (100)
I0403 14:04:53.704573   718 net.cpp:148] Top shape: 100 (100)
I0403 14:04:53.704588   718 net.cpp:156] Memory required for data: 61836400
I0403 14:04:53.704603   718 layer_factory.hpp:77] Creating layer conv1
I0403 14:04:53.704637   718 net.cpp:91] Creating Layer conv1
I0403 14:04:53.704654   718 net.cpp:425] conv1 <- data
I0403 14:04:53.704674   718 net.cpp:399] conv1 -> conv1
I0403 14:04:53.848178   718 net.cpp:141] Setting up conv1
I0403 14:04:53.848260   718 net.cpp:148] Top shape: 100 96 55 55 (29040000)
I0403 14:04:53.848284   718 net.cpp:156] Memory required for data: 177996400
I0403 14:04:53.848317   718 layer_factory.hpp:77] Creating layer relu1
I0403 14:04:53.848345   718 net.cpp:91] Creating Layer relu1
I0403 14:04:53.848362   718 net.cpp:425] relu1 <- conv1
I0403 14:04:53.848381   718 net.cpp:386] relu1 -> conv1 (in-place)
I0403 14:04:53.848636   718 net.cpp:141] Setting up relu1
I0403 14:04:53.848664   718 net.cpp:148] Top shape: 100 96 55 55 (29040000)
I0403 14:04:53.848711   718 net.cpp:156] Memory required for data: 294156400
I0403 14:04:53.848727   718 layer_factory.hpp:77] Creating layer norm1
I0403 14:04:53.848755   718 net.cpp:91] Creating Layer norm1
I0403 14:04:53.848774   718 net.cpp:425] norm1 <- conv1
I0403 14:04:53.848793   718 net.cpp:399] norm1 -> norm1
I0403 14:04:53.849100   718 net.cpp:141] Setting up norm1
I0403 14:04:53.849128   718 net.cpp:148] Top shape: 100 96 55 55 (29040000)
I0403 14:04:53.849144   718 net.cpp:156] Memory required for data: 410316400
I0403 14:04:53.849160   718 layer_factory.hpp:77] Creating layer pool1
I0403 14:04:53.849184   718 net.cpp:91] Creating Layer pool1
I0403 14:04:53.849200   718 net.cpp:425] pool1 <- norm1
I0403 14:04:53.849220   718 net.cpp:399] pool1 -> pool1
I0403 14:04:53.849292   718 net.cpp:141] Setting up pool1
I0403 14:04:53.849315   718 net.cpp:148] Top shape: 100 96 27 27 (6998400)
I0403 14:04:53.849331   718 net.cpp:156] Memory required for data: 438310000
I0403 14:04:53.849346   718 layer_factory.hpp:77] Creating layer conv2
I0403 14:04:53.849370   718 net.cpp:91] Creating Layer conv2
I0403 14:04:53.849387   718 net.cpp:425] conv2 <- pool1
I0403 14:04:53.849406   718 net.cpp:399] conv2 -> conv2
I0403 14:04:53.864676   718 net.cpp:141] Setting up conv2
I0403 14:04:53.864711   718 net.cpp:148] Top shape: 100 256 27 27 (18662400)
I0403 14:04:53.864728   718 net.cpp:156] Memory required for data: 512959600
I0403 14:04:53.864750   718 layer_factory.hpp:77] Creating layer relu2
I0403 14:04:53.864773   718 net.cpp:91] Creating Layer relu2
I0403 14:04:53.864790   718 net.cpp:425] relu2 <- conv2
I0403 14:04:53.864843   718 net.cpp:386] relu2 -> conv2 (in-place)
I0403 14:04:53.865137   718 net.cpp:141] Setting up relu2
I0403 14:04:53.865165   718 net.cpp:148] Top shape: 100 256 27 27 (18662400)
I0403 14:04:53.865183   718 net.cpp:156] Memory required for data: 587609200
I0403 14:04:53.865198   718 layer_factory.hpp:77] Creating layer norm2
I0403 14:04:53.865222   718 net.cpp:91] Creating Layer norm2
I0403 14:04:53.865239   718 net.cpp:425] norm2 <- conv2
I0403 14:04:53.865259   718 net.cpp:399] norm2 -> norm2
I0403 14:04:53.865470   718 net.cpp:141] Setting up norm2
I0403 14:04:53.865497   718 net.cpp:148] Top shape: 100 256 27 27 (18662400)
I0403 14:04:53.865512   718 net.cpp:156] Memory required for data: 662258800
I0403 14:04:53.865528   718 layer_factory.hpp:77] Creating layer pool2
I0403 14:04:53.865546   718 net.cpp:91] Creating Layer pool2
I0403 14:04:53.865562   718 net.cpp:425] pool2 <- norm2
I0403 14:04:53.865584   718 net.cpp:399] pool2 -> pool2
I0403 14:04:53.865639   718 net.cpp:141] Setting up pool2
I0403 14:04:53.865664   718 net.cpp:148] Top shape: 100 256 13 13 (4326400)
I0403 14:04:53.865679   718 net.cpp:156] Memory required for data: 679564400
I0403 14:04:53.865694   718 layer_factory.hpp:77] Creating layer conv3
I0403 14:04:53.865717   718 net.cpp:91] Creating Layer conv3
I0403 14:04:53.865734   718 net.cpp:425] conv3 <- pool2
I0403 14:04:53.865756   718 net.cpp:399] conv3 -> conv3
I0403 14:04:53.906260   718 net.cpp:141] Setting up conv3
I0403 14:04:53.906345   718 net.cpp:148] Top shape: 100 384 13 13 (6489600)
I0403 14:04:53.906363   718 net.cpp:156] Memory required for data: 705522800
I0403 14:04:53.906389   718 layer_factory.hpp:77] Creating layer relu3
I0403 14:04:53.906414   718 net.cpp:91] Creating Layer relu3
I0403 14:04:53.906431   718 net.cpp:425] relu3 <- conv3
I0403 14:04:53.906453   718 net.cpp:386] relu3 -> conv3 (in-place)
I0403 14:04:53.906744   718 net.cpp:141] Setting up relu3
I0403 14:04:53.906770   718 net.cpp:148] Top shape: 100 384 13 13 (6489600)
I0403 14:04:53.906786   718 net.cpp:156] Memory required for data: 731481200
I0403 14:04:53.906801   718 layer_factory.hpp:77] Creating layer conv4
I0403 14:04:53.906829   718 net.cpp:91] Creating Layer conv4
I0403 14:04:53.906847   718 net.cpp:425] conv4 <- conv3
I0403 14:04:53.906869   718 net.cpp:399] conv4 -> conv4
I0403 14:04:53.937638   718 net.cpp:141] Setting up conv4
I0403 14:04:53.937692   718 net.cpp:148] Top shape: 100 384 13 13 (6489600)
I0403 14:04:53.937739   718 net.cpp:156] Memory required for data: 757439600
I0403 14:04:53.937762   718 layer_factory.hpp:77] Creating layer relu4
I0403 14:04:53.937783   718 net.cpp:91] Creating Layer relu4
I0403 14:04:53.937798   718 net.cpp:425] relu4 <- conv4
I0403 14:04:53.937819   718 net.cpp:386] relu4 -> conv4 (in-place)
I0403 14:04:53.938102   718 net.cpp:141] Setting up relu4
I0403 14:04:53.938129   718 net.cpp:148] Top shape: 100 384 13 13 (6489600)
I0403 14:04:53.938144   718 net.cpp:156] Memory required for data: 783398000
I0403 14:04:53.938160   718 layer_factory.hpp:77] Creating layer conv5
I0403 14:04:53.938195   718 net.cpp:91] Creating Layer conv5
I0403 14:04:53.938213   718 net.cpp:425] conv5 <- conv4
I0403 14:04:53.938235   718 net.cpp:399] conv5 -> conv5
I0403 14:04:53.959565   718 net.cpp:141] Setting up conv5
I0403 14:04:53.959604   718 net.cpp:148] Top shape: 100 256 13 13 (4326400)
I0403 14:04:53.959621   718 net.cpp:156] Memory required for data: 800703600
I0403 14:04:53.959645   718 layer_factory.hpp:77] Creating layer relu5
I0403 14:04:53.959668   718 net.cpp:91] Creating Layer relu5
I0403 14:04:53.959686   718 net.cpp:425] relu5 <- conv5
I0403 14:04:53.959705   718 net.cpp:386] relu5 -> conv5 (in-place)
I0403 14:04:53.960041   718 net.cpp:141] Setting up relu5
I0403 14:04:53.960069   718 net.cpp:148] Top shape: 100 256 13 13 (4326400)
I0403 14:04:53.960085   718 net.cpp:156] Memory required for data: 818009200
I0403 14:04:53.960101   718 layer_factory.hpp:77] Creating layer pool5
I0403 14:04:53.960126   718 net.cpp:91] Creating Layer pool5
I0403 14:04:53.960144   718 net.cpp:425] pool5 <- conv5
I0403 14:04:53.960163   718 net.cpp:399] pool5 -> pool5
I0403 14:04:53.960227   718 net.cpp:141] Setting up pool5
I0403 14:04:53.960252   718 net.cpp:148] Top shape: 100 256 6 6 (921600)
I0403 14:04:53.960266   718 net.cpp:156] Memory required for data: 821695600
I0403 14:04:53.960288   718 layer_factory.hpp:77] Creating layer fc6
I0403 14:04:53.960316   718 net.cpp:91] Creating Layer fc6
I0403 14:04:53.960335   718 net.cpp:425] fc6 <- pool5
I0403 14:04:53.960356   718 net.cpp:399] fc6 -> fc6
I0403 14:04:55.544649   718 net.cpp:141] Setting up fc6
I0403 14:04:55.544729   718 net.cpp:148] Top shape: 100 4096 (409600)
I0403 14:04:55.544744   718 net.cpp:156] Memory required for data: 823334000
I0403 14:04:55.544764   718 layer_factory.hpp:77] Creating layer relu6
I0403 14:04:55.544786   718 net.cpp:91] Creating Layer relu6
I0403 14:04:55.544803   718 net.cpp:425] relu6 <- fc6
I0403 14:04:55.544822   718 net.cpp:386] relu6 -> fc6 (in-place)
I0403 14:04:55.545034   718 net.cpp:141] Setting up relu6
I0403 14:04:55.545058   718 net.cpp:148] Top shape: 100 4096 (409600)
I0403 14:04:55.545073   718 net.cpp:156] Memory required for data: 824972400
I0403 14:04:55.545085   718 layer_factory.hpp:77] Creating layer drop6
I0403 14:04:55.545104   718 net.cpp:91] Creating Layer drop6
I0403 14:04:55.545119   718 net.cpp:425] drop6 <- fc6
I0403 14:04:55.545137   718 net.cpp:386] drop6 -> fc6 (in-place)
I0403 14:04:55.545187   718 net.cpp:141] Setting up drop6
I0403 14:04:55.545214   718 net.cpp:148] Top shape: 100 4096 (409600)
I0403 14:04:55.545229   718 net.cpp:156] Memory required for data: 826610800
I0403 14:04:55.545244   718 layer_factory.hpp:77] Creating layer fc7
I0403 14:04:55.545264   718 net.cpp:91] Creating Layer fc7
I0403 14:04:55.545284   718 net.cpp:425] fc7 <- fc6
I0403 14:04:55.545303   718 net.cpp:399] fc7 -> fc7
I0403 14:04:56.241328   718 net.cpp:141] Setting up fc7
I0403 14:04:56.241405   718 net.cpp:148] Top shape: 100 4096 (409600)
I0403 14:04:56.241420   718 net.cpp:156] Memory required for data: 828249200
I0403 14:04:56.241441   718 layer_factory.hpp:77] Creating layer relu7
I0403 14:04:56.241463   718 net.cpp:91] Creating Layer relu7
I0403 14:04:56.241480   718 net.cpp:425] relu7 <- fc7
I0403 14:04:56.241502   718 net.cpp:386] relu7 -> fc7 (in-place)
I0403 14:04:56.241935   718 net.cpp:141] Setting up relu7
I0403 14:04:56.241961   718 net.cpp:148] Top shape: 100 4096 (409600)
I0403 14:04:56.242008   718 net.cpp:156] Memory required for data: 829887600
I0403 14:04:56.242023   718 layer_factory.hpp:77] Creating layer drop7
I0403 14:04:56.242043   718 net.cpp:91] Creating Layer drop7
I0403 14:04:56.242058   718 net.cpp:425] drop7 <- fc7
I0403 14:04:56.242076   718 net.cpp:386] drop7 -> fc7 (in-place)
I0403 14:04:56.242120   718 net.cpp:141] Setting up drop7
I0403 14:04:56.242146   718 net.cpp:148] Top shape: 100 4096 (409600)
I0403 14:04:56.242161   718 net.cpp:156] Memory required for data: 831526000
I0403 14:04:56.242174   718 layer_factory.hpp:77] Creating layer fc8_plantvillage
I0403 14:04:56.242195   718 net.cpp:91] Creating Layer fc8_plantvillage
I0403 14:04:56.242210   718 net.cpp:425] fc8_plantvillage <- fc7
I0403 14:04:56.242233   718 net.cpp:399] fc8_plantvillage -> fc8_plantvillage
I0403 14:04:56.248935   718 net.cpp:141] Setting up fc8_plantvillage
I0403 14:04:56.248962   718 net.cpp:148] Top shape: 100 38 (3800)
I0403 14:04:56.248977   718 net.cpp:156] Memory required for data: 831541200
I0403 14:04:56.248994   718 layer_factory.hpp:77] Creating layer fc8_plantvillage_fc8_plantvillage_0_split
I0403 14:04:56.249014   718 net.cpp:91] Creating Layer fc8_plantvillage_fc8_plantvillage_0_split
I0403 14:04:56.249029   718 net.cpp:425] fc8_plantvillage_fc8_plantvillage_0_split <- fc8_plantvillage
I0403 14:04:56.249047   718 net.cpp:399] fc8_plantvillage_fc8_plantvillage_0_split -> fc8_plantvillage_fc8_plantvillage_0_split_0
I0403 14:04:56.249064   718 net.cpp:399] fc8_plantvillage_fc8_plantvillage_0_split -> fc8_plantvillage_fc8_plantvillage_0_split_1
I0403 14:04:56.249083   718 net.cpp:399] fc8_plantvillage_fc8_plantvillage_0_split -> fc8_plantvillage_fc8_plantvillage_0_split_2
I0403 14:04:56.249158   718 net.cpp:141] Setting up fc8_plantvillage_fc8_plantvillage_0_split
I0403 14:04:56.249181   718 net.cpp:148] Top shape: 100 38 (3800)
I0403 14:04:56.249197   718 net.cpp:148] Top shape: 100 38 (3800)
I0403 14:04:56.249210   718 net.cpp:148] Top shape: 100 38 (3800)
I0403 14:04:56.249223   718 net.cpp:156] Memory required for data: 831586800
I0403 14:04:56.249238   718 layer_factory.hpp:77] Creating layer prob
I0403 14:04:56.249254   718 net.cpp:91] Creating Layer prob
I0403 14:04:56.249269   718 net.cpp:425] prob <- fc8_plantvillage_fc8_plantvillage_0_split_0
I0403 14:04:56.249290   718 net.cpp:399] prob -> prob
I0403 14:04:56.249506   718 net.cpp:141] Setting up prob
I0403 14:04:56.249531   718 net.cpp:148] Top shape: 100 38 (3800)
I0403 14:04:56.249546   718 net.cpp:156] Memory required for data: 831602000
I0403 14:04:56.249559   718 layer_factory.hpp:77] Creating layer hdf5out
I0403 14:04:56.249577   718 net.cpp:91] Creating Layer hdf5out
I0403 14:04:56.249591   718 net.cpp:425] hdf5out <- prob
I0403 14:04:56.249606   718 net.cpp:425] hdf5out <- label_data_1_split_0
I0403 14:04:56.251813   718 net.cpp:141] Setting up hdf5out
…
