…
I0403 14:01:03.624469   633 net.cpp:313] The NetState phase (1) differed from the phase (0) specified by a rule in layer data
I0403 14:01:03.624758   633 net.cpp:49] Initializing net from parameters: 
state {
  phase: TEST
}
layer {
  name: "data"
  type: "Data"
  top: "data"
  top: "label"
  include {
    phase: TEST
  }
  transform_param {
    crop_size: 227
    mean_file: "/home/mohanty/data/final_dataset/lmdb/segmented-20-80/mean.binaryproto"
  }
  data_param {
    source: "/home/mohanty/data/final_dataset/lmdb/segmented-20-80/test_db"
    batch_size: 100
    backend: LMDB
  }
}
layer {
  name: "conv1"
  type: "Convolution"
  bottom: "data"
  top: "conv1"
  param {
    lr_mult: 1
    decay_mult: 1
  }
  param {
    lr_mult: 2
    decay_mult: 0
  }
  convolution_param {
    num_output: 96
    kernel_size: 11
    stride: 4
    weight_filler {
      type: "gaussian"
      std: 0.01
    }
    bias_filler {
      type: "constant"
      value: 0
    }
  }
}
layer {
  name: "relu1"
  type: "ReLU"
  bottom: "conv1"
  top: "conv1"
}
layer {
  name: "norm1"
  type: "LRN"
  bottom: "conv1"
  top: "norm1"
  lrn_param {
    local_size: 5
    alpha: 0.0001
    beta: 0.75
  }
}
layer {
  name: "pool1"
  type: "Pooling"
  bottom: "norm1"
  top: "pool1"
  pooling_param {
    pool: MAX
    kernel_size: 3
    stride: 2
  }
}
layer {
  name: "conv2"
  type: "Convolution"
  bottom: "pool1"
  top: "conv2"
  param {
    lr_mult: 1
    decay_mult: 1
  }
  param {
    lr_mult: 2
    decay_mult: 0
  }
  convolution_param {
    num_output: 256
    pad: 2
    kernel_size: 5
    group: 2
    weight_filler {
      type: "gaussian"
      std: 0.01
    }
    bias_filler {
      type: "constant"
      value: 0.1
    }
  }
}
layer {
  name: "relu2"
  type: "ReLU"
  bottom: "conv2"
  top: "conv2"
}
layer {
  name: "norm2"
  type: "LRN"
  bottom: "conv2"
  top: "norm2"
  lrn_param {
    local_size: 5
    alpha: 0.0001
    beta: 0.75
  }
}
layer {
  name: "pool2"
  type: "Pooling"
  bottom: "norm2"
  top: "pool2"
  pooling_param {
    pool: MAX
    kernel_size: 3
    stride: 2
  }
}
layer {
  name: "conv3"
  type: "Convolution"
  bottom: "pool2"
  top: "conv3"
  param {
    lr_mult: 1
    decay_mult: 1
  }
  param {
    lr_mult: 2
    decay_mult: 0
  }
  convolution_param {
    num_output: 384
    pad: 1
    kernel_size: 3
    weight_filler {
      type: "gaussian"
      std: 0.01
    }
    bias_filler {
      type: "constant"
      value: 0
    }
  }
}
layer {
  name: "relu3"
  type: "ReLU"
  bottom: "conv3"
  top: "conv3"
}
layer {
  name: "conv4"
  type: "Convolution"
  bottom: "conv3"
  top: "conv4"
  param {
    lr_mult: 1
    decay_mult: 1
  }
  param {
    lr_mult: 2
    decay_mult: 0
  }
  convolution_param {
    num_output: 384
    pad: 1
    kernel_size: 3
    group: 2
    weight_filler {
      type: "gaussian"
      std: 0.01
    }
    bias_filler {
      type: "constant"
      value: 0.1
    }
  }
}
layer {
  name: "relu4"
  type: "ReLU"
  bottom: "conv4"
  top: "conv4"
}
layer {
  name: "conv5"
  type: "Convolution"
  bottom: "conv4"
  top: "conv5"
  param {
    lr_mult: 1
    decay_mult: 1
  }
  param {
    lr_mult: 2
    decay_mult: 0
  }
  convolution_param {
    num_output: 256
    pad: 1
    kernel_size: 3
    group: 2
    weight_filler {
      type: "gaussian"
      std: 0.01
    }
    bias_filler {
      type: "constant"
      value: 0.1
    }
  }
}
layer {
  name: "relu5"
  type: "ReLU"
  bottom: "conv5"
  top: "conv5"
}
layer {
  name: "pool5"
  type: "Pooling"
  bottom: "conv5"
  top: "pool5"
  pooling_param {
    pool: MAX
    kernel_size: 3
    stride: 2
  }
}
layer {
  name: "fc6"
  type: "InnerProduct"
  bottom: "pool5"
  top: "fc6"
  param {
    lr_mult: 1
    decay_mult: 1
  }
  param {
    lr_mult: 2
    decay_mult: 0
  }
  inner_product_param {
    num_output: 4096
    weight_filler {
      type: "gaussian"
      std: 0.005
    }
    bias_filler {
      type: "constant"
      value: 0.1
    }
  }
}
layer {
  name: "relu6"
  type: "ReLU"
  bottom: "fc6"
  top: "fc6"
}
layer {
  name: "drop6"
  type: "Dropout"
  bottom: "fc6"
  top: "fc6"
  dropout_param {
    dropout_ratio: 0.5
  }
}
layer {
  name: "fc7"
  type: "InnerProduct"
  bottom: "fc6"
  top: "fc7"
  param {
    lr_mult: 1
    decay_mult: 1
  }
  param {
    lr_mult: 2
    decay_mult: 0
  }
  inner_product_param {
    num_output: 4096
    weight_filler {
      type: "gaussian"
      std: 0.005
    }
    bias_filler {
      type: "constant"
      value: 0.1
    }
  }
}
layer {
  name: "relu7"
  type: "ReLU"
  bottom: "fc7"
  top: "fc7"
}
layer {
  name: "drop7"
  type: "Dropout"
  bottom: "fc7"
  top: "fc7"
  dropout_param {
    dropout_ratio: 0.5
  }
}
layer {
  name: "fc8_plantvillage"
  type: "InnerProduct"
  bottom: "fc7"
  top: "fc8_plantvillage"
  param {
    lr_mult: 1
    decay_mult: 1
  }
  param {
    lr_mult: 2
    decay_mult: 0
  }
  inner_product_param {
    num_output: 38
    weight_filler {
      type: "gaussian"
      std: 0.01
    }
    bias_filler {
      type: "constant"
      value: 0
    }
  }
}
layer {
  name: "prob"
  type: "Softmax"
  bottom: "fc8_plantvillage"
  top: "prob"
  include {
    phase: TEST
  }
}
layer {
  name: "hdf5out"
  type: "HDF5Output"
  bottom: "prob"
  bottom: "label"
  include {
    phase: TEST
  }
  hdf5_output_param {
    file_name: "hdf5_dumps/iter_2862.h5"
  }
}
layer {
  name: "loss"
  type: "SoftmaxWithLoss"
  bottom: "fc8_plantvillage"
  bottom: "label"
  top: "loss"
}
layer {
  name: "accuracy"
  type: "Accuracy"
  bottom: "fc8_plantvillage"
  bottom: "label"
  top: "accuracy"
  include {
    phase: TEST
  }
}
I0403 14:01:03.625313   633 layer_factory.hpp:77] Creating layer data
I0403 14:01:03.625952   633 net.cpp:91] Creating Layer data
I0403 14:01:03.625982   633 net.cpp:399] data -> data
I0403 14:01:03.626031   633 net.cpp:399] data -> label
I0403 14:01:03.626068   633 data_transformer.cpp:25] Loading mean file from: /home/mohanty/data/final_dataset/lmdb/segmented-20-80/mean.binaryproto
I0403 14:01:03.629889   647 db_lmdb.cpp:38] Opened lmdb /home/mohanty/data/final_dataset/lmdb/segmented-20-80/test_db
I0403 14:01:03.640687   633 data_layer.cpp:41] output data size: 100,3,227,227
I0403 14:01:03.761952   633 net.cpp:141] Setting up data
I0403 14:01:03.762058   633 net.cpp:148] Top shape: 100 3 227 227 (15458700)
I0403 14:01:03.762084   633 net.cpp:148] Top shape: 100 (100)
I0403 14:01:03.762100   633 net.cpp:156] Memory required for data: 61835200
I0403 14:01:03.762128   633 layer_factory.hpp:77] Creating layer label_data_1_split
I0403 14:01:03.762156   633 net.cpp:91] Creating Layer label_data_1_split
I0403 14:01:03.762176   633 net.cpp:425] label_data_1_split <- label
I0403 14:01:03.762208   633 net.cpp:399] label_data_1_split -> label_data_1_split_0
I0403 14:01:03.762248   633 net.cpp:399] label_data_1_split -> label_data_1_split_1
I0403 14:01:03.762274   633 net.cpp:399] label_data_1_split -> label_data_1_split_2
I0403 14:01:03.762341   633 net.cpp:141] Setting up label_data_1_split
I0403 14:01:03.762367   633 net.cpp:148] Top shape: 100 (100)
I0403 14:01:03.762385   633 net.cpp:148] Top shape: 100 (100)
I0403 14:01:03.762403   633 net.cpp:148] Top shape: 100 (100)
I0403 14:01:03.762420   633 net.cpp:156] Memory required for data: 61836400
I0403 14:01:03.762436   633 layer_factory.hpp:77] Creating layer conv1
I0403 14:01:03.762470   633 net.cpp:91] Creating Layer conv1
I0403 14:01:03.762490   633 net.cpp:425] conv1 <- data
I0403 14:01:03.762509   633 net.cpp:399] conv1 -> conv1
I0403 14:01:03.906039   633 net.cpp:141] Setting up conv1
I0403 14:01:03.906129   633 net.cpp:148] Top shape: 100 96 55 55 (29040000)
I0403 14:01:03.906147   633 net.cpp:156] Memory required for data: 177996400
I0403 14:01:03.906179   633 layer_factory.hpp:77] Creating layer relu1
I0403 14:01:03.906209   633 net.cpp:91] Creating Layer relu1
I0403 14:01:03.906229   633 net.cpp:425] relu1 <- conv1
I0403 14:01:03.906255   633 net.cpp:386] relu1 -> conv1 (in-place)
I0403 14:01:03.906533   633 net.cpp:141] Setting up relu1
I0403 14:01:03.906561   633 net.cpp:148] Top shape: 100 96 55 55 (29040000)
I0403 14:01:03.906607   633 net.cpp:156] Memory required for data: 294156400
I0403 14:01:03.906625   633 layer_factory.hpp:77] Creating layer norm1
I0403 14:01:03.906654   633 net.cpp:91] Creating Layer norm1
I0403 14:01:03.906673   633 net.cpp:425] norm1 <- conv1
I0403 14:01:03.906697   633 net.cpp:399] norm1 -> norm1
I0403 14:01:03.907021   633 net.cpp:141] Setting up norm1
I0403 14:01:03.907053   633 net.cpp:148] Top shape: 100 96 55 55 (29040000)
I0403 14:01:03.907070   633 net.cpp:156] Memory required for data: 410316400
I0403 14:01:03.907086   633 layer_factory.hpp:77] Creating layer pool1
I0403 14:01:03.907109   633 net.cpp:91] Creating Layer pool1
I0403 14:01:03.907127   633 net.cpp:425] pool1 <- norm1
I0403 14:01:03.907148   633 net.cpp:399] pool1 -> pool1
I0403 14:01:03.907219   633 net.cpp:141] Setting up pool1
I0403 14:01:03.907249   633 net.cpp:148] Top shape: 100 96 27 27 (6998400)
I0403 14:01:03.907268   633 net.cpp:156] Memory required for data: 438310000
I0403 14:01:03.907284   633 layer_factory.hpp:77] Creating layer conv2
I0403 14:01:03.907310   633 net.cpp:91] Creating Layer conv2
I0403 14:01:03.907328   633 net.cpp:425] conv2 <- pool1
I0403 14:01:03.907348   633 net.cpp:399] conv2 -> conv2
I0403 14:01:03.922426   633 net.cpp:141] Setting up conv2
I0403 14:01:03.922466   633 net.cpp:148] Top shape: 100 256 27 27 (18662400)
I0403 14:01:03.922484   633 net.cpp:156] Memory required for data: 512959600
I0403 14:01:03.922509   633 layer_factory.hpp:77] Creating layer relu2
I0403 14:01:03.922529   633 net.cpp:91] Creating Layer relu2
I0403 14:01:03.922549   633 net.cpp:425] relu2 <- conv2
I0403 14:01:03.922582   633 net.cpp:386] relu2 -> conv2 (in-place)
I0403 14:01:03.922871   633 net.cpp:141] Setting up relu2
I0403 14:01:03.922901   633 net.cpp:148] Top shape: 100 256 27 27 (18662400)
I0403 14:01:03.922917   633 net.cpp:156] Memory required for data: 587609200
I0403 14:01:03.922935   633 layer_factory.hpp:77] Creating layer norm2
I0403 14:01:03.922960   633 net.cpp:91] Creating Layer norm2
I0403 14:01:03.922979   633 net.cpp:425] norm2 <- conv2
I0403 14:01:03.923001   633 net.cpp:399] norm2 -> norm2
I0403 14:01:03.923204   633 net.cpp:141] Setting up norm2
I0403 14:01:03.923248   633 net.cpp:148] Top shape: 100 256 27 27 (18662400)
I0403 14:01:03.923267   633 net.cpp:156] Memory required for data: 662258800
I0403 14:01:03.923285   633 layer_factory.hpp:77] Creating layer pool2
I0403 14:01:03.923305   633 net.cpp:91] Creating Layer pool2
I0403 14:01:03.923322   633 net.cpp:425] pool2 <- norm2
I0403 14:01:03.923343   633 net.cpp:399] pool2 -> pool2
I0403 14:01:03.923399   633 net.cpp:141] Setting up pool2
I0403 14:01:03.923425   633 net.cpp:148] Top shape: 100 256 13 13 (4326400)
I0403 14:01:03.923442   633 net.cpp:156] Memory required for data: 679564400
I0403 14:01:03.923460   633 layer_factory.hpp:77] Creating layer conv3
I0403 14:01:03.923490   633 net.cpp:91] Creating Layer conv3
I0403 14:01:03.923508   633 net.cpp:425] conv3 <- pool2
I0403 14:01:03.923528   633 net.cpp:399] conv3 -> conv3
I0403 14:01:03.963171   633 net.cpp:141] Setting up conv3
I0403 14:01:03.963224   633 net.cpp:148] Top shape: 100 384 13 13 (6489600)
I0403 14:01:03.963250   633 net.cpp:156] Memory required for data: 705522800
I0403 14:01:03.963279   633 layer_factory.hpp:77] Creating layer relu3
I0403 14:01:03.963304   633 net.cpp:91] Creating Layer relu3
I0403 14:01:03.963325   633 net.cpp:425] relu3 <- conv3
I0403 14:01:03.963348   633 net.cpp:386] relu3 -> conv3 (in-place)
I0403 14:01:03.963636   633 net.cpp:141] Setting up relu3
I0403 14:01:03.963665   633 net.cpp:148] Top shape: 100 384 13 13 (6489600)
I0403 14:01:03.963682   633 net.cpp:156] Memory required for data: 731481200
I0403 14:01:03.963699   633 layer_factory.hpp:77] Creating layer conv4
I0403 14:01:03.963728   633 net.cpp:91] Creating Layer conv4
I0403 14:01:03.963747   633 net.cpp:425] conv4 <- conv3
I0403 14:01:03.963769   633 net.cpp:399] conv4 -> conv4
I0403 14:01:03.993832   633 net.cpp:141] Setting up conv4
I0403 14:01:03.993896   633 net.cpp:148] Top shape: 100 384 13 13 (6489600)
I0403 14:01:03.993945   633 net.cpp:156] Memory required for data: 757439600
I0403 14:01:03.993968   633 layer_factory.hpp:77] Creating layer relu4
I0403 14:01:03.993988   633 net.cpp:91] Creating Layer relu4
I0403 14:01:03.994006   633 net.cpp:425] relu4 <- conv4
I0403 14:01:03.994027   633 net.cpp:386] relu4 -> conv4 (in-place)
I0403 14:01:03.994316   633 net.cpp:141] Setting up relu4
I0403 14:01:03.994346   633 net.cpp:148] Top shape: 100 384 13 13 (6489600)
I0403 14:01:03.994362   633 net.cpp:156] Memory required for data: 783398000
I0403 14:01:03.994379   633 layer_factory.hpp:77] Creating layer conv5
I0403 14:01:03.994403   633 net.cpp:91] Creating Layer conv5
I0403 14:01:03.994422   633 net.cpp:425] conv5 <- conv4
I0403 14:01:03.994441   633 net.cpp:399] conv5 -> conv5
I0403 14:01:04.015194   633 net.cpp:141] Setting up conv5
I0403 14:01:04.015242   633 net.cpp:148] Top shape: 100 256 13 13 (4326400)
I0403 14:01:04.015264   633 net.cpp:156] Memory required for data: 800703600
I0403 14:01:04.015290   633 layer_factory.hpp:77] Creating layer relu5
I0403 14:01:04.015313   633 net.cpp:91] Creating Layer relu5
I0403 14:01:04.015331   633 net.cpp:425] relu5 <- conv5
I0403 14:01:04.015353   633 net.cpp:386] relu5 -> conv5 (in-place)
I0403 14:01:04.015638   633 net.cpp:141] Setting up relu5
I0403 14:01:04.015666   633 net.cpp:148] Top shape: 100 256 13 13 (4326400)
I0403 14:01:04.015682   633 net.cpp:156] Memory required for data: 818009200
I0403 14:01:04.015699   633 layer_factory.hpp:77] Creating layer pool5
I0403 14:01:04.015722   633 net.cpp:91] Creating Layer pool5
I0403 14:01:04.015740   633 net.cpp:425] pool5 <- conv5
I0403 14:01:04.015766   633 net.cpp:399] pool5 -> pool5
I0403 14:01:04.015831   633 net.cpp:141] Setting up pool5
I0403 14:01:04.015856   633 net.cpp:148] Top shape: 100 256 6 6 (921600)
I0403 14:01:04.015872   633 net.cpp:156] Memory required for data: 821695600
I0403 14:01:04.015888   633 layer_factory.hpp:77] Creating layer fc6
I0403 14:01:04.015920   633 net.cpp:91] Creating Layer fc6
I0403 14:01:04.015939   633 net.cpp:425] fc6 <- pool5
I0403 14:01:04.015961   633 net.cpp:399] fc6 -> fc6
I0403 14:01:05.594823   633 net.cpp:141] Setting up fc6
I0403 14:01:05.594884   633 net.cpp:148] Top shape: 100 4096 (409600)
I0403 14:01:05.594902   633 net.cpp:156] Memory required for data: 823334000
I0403 14:01:05.594924   633 layer_factory.hpp:77] Creating layer relu6
I0403 14:01:05.594949   633 net.cpp:91] Creating Layer relu6
I0403 14:01:05.594967   633 net.cpp:425] relu6 <- fc6
I0403 14:01:05.594987   633 net.cpp:386] relu6 -> fc6 (in-place)
I0403 14:01:05.595207   633 net.cpp:141] Setting up relu6
I0403 14:01:05.595234   633 net.cpp:148] Top shape: 100 4096 (409600)
I0403 14:01:05.595258   633 net.cpp:156] Memory required for data: 824972400
I0403 14:01:05.595274   633 layer_factory.hpp:77] Creating layer drop6
I0403 14:01:05.595293   633 net.cpp:91] Creating Layer drop6
I0403 14:01:05.595310   633 net.cpp:425] drop6 <- fc6
I0403 14:01:05.595331   633 net.cpp:386] drop6 -> fc6 (in-place)
I0403 14:01:05.595384   633 net.cpp:141] Setting up drop6
I0403 14:01:05.595412   633 net.cpp:148] Top shape: 100 4096 (409600)
I0403 14:01:05.595429   633 net.cpp:156] Memory required for data: 826610800
I0403 14:01:05.595444   633 layer_factory.hpp:77] Creating layer fc7
I0403 14:01:05.595465   633 net.cpp:91] Creating Layer fc7
I0403 14:01:05.595481   633 net.cpp:425] fc7 <- fc6
I0403 14:01:05.595504   633 net.cpp:399] fc7 -> fc7
I0403 14:01:06.270879   633 net.cpp:141] Setting up fc7
I0403 14:01:06.270921   633 net.cpp:148] Top shape: 100 4096 (409600)
I0403 14:01:06.270937   633 net.cpp:156] Memory required for data: 828249200
I0403 14:01:06.270959   633 layer_factory.hpp:77] Creating layer relu7
I0403 14:01:06.270982   633 net.cpp:91] Creating Layer relu7
I0403 14:01:06.271000   633 net.cpp:425] relu7 <- fc7
I0403 14:01:06.271021   633 net.cpp:386] relu7 -> fc7 (in-place)
I0403 14:01:06.271425   633 net.cpp:141] Setting up relu7
I0403 14:01:06.271453   633 net.cpp:148] Top shape: 100 4096 (409600)
I0403 14:01:06.271486   633 net.cpp:156] Memory required for data: 829887600
I0403 14:01:06.271503   633 layer_factory.hpp:77] Creating layer drop7
I0403 14:01:06.271523   633 net.cpp:91] Creating Layer drop7
I0403 14:01:06.271539   633 net.cpp:425] drop7 <- fc7
I0403 14:01:06.271559   633 net.cpp:386] drop7 -> fc7 (in-place)
I0403 14:01:06.271602   633 net.cpp:141] Setting up drop7
I0403 14:01:06.271623   633 net.cpp:148] Top shape: 100 4096 (409600)
I0403 14:01:06.271639   633 net.cpp:156] Memory required for data: 831526000
I0403 14:01:06.271654   633 layer_factory.hpp:77] Creating layer fc8_plantvillage
I0403 14:01:06.271677   633 net.cpp:91] Creating Layer fc8_plantvillage
I0403 14:01:06.271694   633 net.cpp:425] fc8_plantvillage <- fc7
I0403 14:01:06.271714   633 net.cpp:399] fc8_plantvillage -> fc8_plantvillage
I0403 14:01:06.278431   633 net.cpp:141] Setting up fc8_plantvillage
I0403 14:01:06.278461   633 net.cpp:148] Top shape: 100 38 (3800)
I0403 14:01:06.278478   633 net.cpp:156] Memory required for data: 831541200
I0403 14:01:06.278498   633 layer_factory.hpp:77] Creating layer fc8_plantvillage_fc8_plantvillage_0_split
I0403 14:01:06.278517   633 net.cpp:91] Creating Layer fc8_plantvillage_fc8_plantvillage_0_split
I0403 14:01:06.278533   633 net.cpp:425] fc8_plantvillage_fc8_plantvillage_0_split <- fc8_plantvillage
I0403 14:01:06.278553   633 net.cpp:399] fc8_plantvillage_fc8_plantvillage_0_split -> fc8_plantvillage_fc8_plantvillage_0_split_0
I0403 14:01:06.278576   633 net.cpp:399] fc8_plantvillage_fc8_plantvillage_0_split -> fc8_plantvillage_fc8_plantvillage_0_split_1
I0403 14:01:06.278597   633 net.cpp:399] fc8_plantvillage_fc8_plantvillage_0_split -> fc8_plantvillage_fc8_plantvillage_0_split_2
I0403 14:01:06.278676   633 net.cpp:141] Setting up fc8_plantvillage_fc8_plantvillage_0_split
I0403 14:01:06.278702   633 net.cpp:148] Top shape: 100 38 (3800)
I0403 14:01:06.278719   633 net.cpp:148] Top shape: 100 38 (3800)
I0403 14:01:06.278735   633 net.cpp:148] Top shape: 100 38 (3800)
I0403 14:01:06.278750   633 net.cpp:156] Memory required for data: 831586800
I0403 14:01:06.278765   633 layer_factory.hpp:77] Creating layer prob
I0403 14:01:06.278785   633 net.cpp:91] Creating Layer prob
I0403 14:01:06.278801   633 net.cpp:425] prob <- fc8_plantvillage_fc8_plantvillage_0_split_0
I0403 14:01:06.278823   633 net.cpp:399] prob -> prob
I0403 14:01:06.279047   633 net.cpp:141] Setting up prob
I0403 14:01:06.279074   633 net.cpp:148] Top shape: 100 38 (3800)
I0403 14:01:06.279091   633 net.cpp:156] Memory required for data: 831602000
I0403 14:01:06.279106   633 layer_factory.hpp:77] Creating layer hdf5out
I0403 14:01:06.279125   633 net.cpp:91] Creating Layer hdf5out
I0403 14:01:06.279141   633 net.cpp:425] hdf5out <- prob
I0403 14:01:06.279158   633 net.cpp:425] hdf5out <- label_data_1_split_0
I0403 14:01:06.281280   633 net.cpp:141] Setting up hdf5out
…
