…
I0403 13:30:17.491449 32347 net.cpp:313] The NetState phase (1) differed from the phase (0) specified by a rule in layer data
I0403 13:30:17.491737 32347 net.cpp:49] Initializing net from parameters: 
state {
  phase: TEST
}
layer {
  name: "data"
  type: "Data"
  top: "data"
  top: "label"
  include {
    phase: TEST
  }
  transform_param {
    crop_size: 227
    mean_file: "/home/mohanty/data/final_dataset/lmdb/segmented-20-80/mean.binaryproto"
  }
  data_param {
    source: "/home/mohanty/data/final_dataset/lmdb/segmented-20-80/test_db"
    batch_size: 100
    backend: LMDB
  }
}
layer {
  name: "conv1"
  type: "Convolution"
  bottom: "data"
  top: "conv1"
  param {
    lr_mult: 1
    decay_mult: 1
  }
  param {
    lr_mult: 2
    decay_mult: 0
  }
  convolution_param {
    num_output: 96
    kernel_size: 11
    stride: 4
    weight_filler {
      type: "gaussian"
      std: 0.01
    }
    bias_filler {
      type: "constant"
      value: 0
    }
  }
}
layer {
  name: "relu1"
  type: "ReLU"
  bottom: "conv1"
  top: "conv1"
}
layer {
  name: "norm1"
  type: "LRN"
  bottom: "conv1"
  top: "norm1"
  lrn_param {
    local_size: 5
    alpha: 0.0001
    beta: 0.75
  }
}
layer {
  name: "pool1"
  type: "Pooling"
  bottom: "norm1"
  top: "pool1"
  pooling_param {
    pool: MAX
    kernel_size: 3
    stride: 2
  }
}
layer {
  name: "conv2"
  type: "Convolution"
  bottom: "pool1"
  top: "conv2"
  param {
    lr_mult: 1
    decay_mult: 1
  }
  param {
    lr_mult: 2
    decay_mult: 0
  }
  convolution_param {
    num_output: 256
    pad: 2
    kernel_size: 5
    group: 2
    weight_filler {
      type: "gaussian"
      std: 0.01
    }
    bias_filler {
      type: "constant"
      value: 0.1
    }
  }
}
layer {
  name: "relu2"
  type: "ReLU"
  bottom: "conv2"
  top: "conv2"
}
layer {
  name: "norm2"
  type: "LRN"
  bottom: "conv2"
  top: "norm2"
  lrn_param {
    local_size: 5
    alpha: 0.0001
    beta: 0.75
  }
}
layer {
  name: "pool2"
  type: "Pooling"
  bottom: "norm2"
  top: "pool2"
  pooling_param {
    pool: MAX
    kernel_size: 3
    stride: 2
  }
}
layer {
  name: "conv3"
  type: "Convolution"
  bottom: "pool2"
  top: "conv3"
  param {
    lr_mult: 1
    decay_mult: 1
  }
  param {
    lr_mult: 2
    decay_mult: 0
  }
  convolution_param {
    num_output: 384
    pad: 1
    kernel_size: 3
    weight_filler {
      type: "gaussian"
      std: 0.01
    }
    bias_filler {
      type: "constant"
      value: 0
    }
  }
}
layer {
  name: "relu3"
  type: "ReLU"
  bottom: "conv3"
  top: "conv3"
}
layer {
  name: "conv4"
  type: "Convolution"
  bottom: "conv3"
  top: "conv4"
  param {
    lr_mult: 1
    decay_mult: 1
  }
  param {
    lr_mult: 2
    decay_mult: 0
  }
  convolution_param {
    num_output: 384
    pad: 1
    kernel_size: 3
    group: 2
    weight_filler {
      type: "gaussian"
      std: 0.01
    }
    bias_filler {
      type: "constant"
      value: 0.1
    }
  }
}
layer {
  name: "relu4"
  type: "ReLU"
  bottom: "conv4"
  top: "conv4"
}
layer {
  name: "conv5"
  type: "Convolution"
  bottom: "conv4"
  top: "conv5"
  param {
    lr_mult: 1
    decay_mult: 1
  }
  param {
    lr_mult: 2
    decay_mult: 0
  }
  convolution_param {
    num_output: 256
    pad: 1
    kernel_size: 3
    group: 2
    weight_filler {
      type: "gaussian"
      std: 0.01
    }
    bias_filler {
      type: "constant"
      value: 0.1
    }
  }
}
layer {
  name: "relu5"
  type: "ReLU"
  bottom: "conv5"
  top: "conv5"
}
layer {
  name: "pool5"
  type: "Pooling"
  bottom: "conv5"
  top: "pool5"
  pooling_param {
    pool: MAX
    kernel_size: 3
    stride: 2
  }
}
layer {
  name: "fc6"
  type: "InnerProduct"
  bottom: "pool5"
  top: "fc6"
  param {
    lr_mult: 1
    decay_mult: 1
  }
  param {
    lr_mult: 2
    decay_mult: 0
  }
  inner_product_param {
    num_output: 4096
    weight_filler {
      type: "gaussian"
      std: 0.005
    }
    bias_filler {
      type: "constant"
      value: 0.1
    }
  }
}
layer {
  name: "relu6"
  type: "ReLU"
  bottom: "fc6"
  top: "fc6"
}
layer {
  name: "drop6"
  type: "Dropout"
  bottom: "fc6"
  top: "fc6"
  dropout_param {
    dropout_ratio: 0.5
  }
}
layer {
  name: "fc7"
  type: "InnerProduct"
  bottom: "fc6"
  top: "fc7"
  param {
    lr_mult: 1
    decay_mult: 1
  }
  param {
    lr_mult: 2
    decay_mult: 0
  }
  inner_product_param {
    num_output: 4096
    weight_filler {
      type: "gaussian"
      std: 0.005
    }
    bias_filler {
      type: "constant"
      value: 0.1
    }
  }
}
layer {
  name: "relu7"
  type: "ReLU"
  bottom: "fc7"
  top: "fc7"
}
layer {
  name: "drop7"
  type: "Dropout"
  bottom: "fc7"
  top: "fc7"
  dropout_param {
    dropout_ratio: 0.5
  }
}
layer {
  name: "fc8_plantvillage"
  type: "InnerProduct"
  bottom: "fc7"
  top: "fc8_plantvillage"
  param {
    lr_mult: 1
    decay_mult: 1
  }
  param {
    lr_mult: 2
    decay_mult: 0
  }
  inner_product_param {
    num_output: 38
    weight_filler {
      type: "gaussian"
      std: 0.01
    }
    bias_filler {
      type: "constant"
      value: 0
    }
  }
}
layer {
  name: "prob"
  type: "Softmax"
  bottom: "fc8_plantvillage"
  top: "prob"
  include {
    phase: TEST
  }
}
layer {
  name: "hdf5out"
  type: "HDF5Output"
  bottom: "prob"
  bottom: "label"
  include {
    phase: TEST
  }
  hdf5_output_param {
    file_name: "hdf5_dumps/iter_318.h5"
  }
}
layer {
  name: "loss"
  type: "SoftmaxWithLoss"
  bottom: "fc8_plantvillage"
  bottom: "label"
  top: "loss"
}
layer {
  name: "accuracy"
  type: "Accuracy"
  bottom: "fc8_plantvillage"
  bottom: "label"
  top: "accuracy"
  include {
    phase: TEST
  }
}
I0403 13:30:17.492327 32347 layer_factory.hpp:77] Creating layer data
I0403 13:30:17.492959 32347 net.cpp:91] Creating Layer data
I0403 13:30:17.492990 32347 net.cpp:399] data -> data
I0403 13:30:17.493039 32347 net.cpp:399] data -> label
I0403 13:30:17.493074 32347 data_transformer.cpp:25] Loading mean file from: /home/mohanty/data/final_dataset/lmdb/segmented-20-80/mean.binaryproto
I0403 13:30:17.496367 32351 db_lmdb.cpp:38] Opened lmdb /home/mohanty/data/final_dataset/lmdb/segmented-20-80/test_db
I0403 13:30:17.507318 32347 data_layer.cpp:41] output data size: 100,3,227,227
I0403 13:30:17.625169 32347 net.cpp:141] Setting up data
I0403 13:30:17.625277 32347 net.cpp:148] Top shape: 100 3 227 227 (15458700)
I0403 13:30:17.625299 32347 net.cpp:148] Top shape: 100 (100)
I0403 13:30:17.625314 32347 net.cpp:156] Memory required for data: 61835200
I0403 13:30:17.625341 32347 layer_factory.hpp:77] Creating layer label_data_1_split
I0403 13:30:17.625366 32347 net.cpp:91] Creating Layer label_data_1_split
I0403 13:30:17.625385 32347 net.cpp:425] label_data_1_split <- label
I0403 13:30:17.625416 32347 net.cpp:399] label_data_1_split -> label_data_1_split_0
I0403 13:30:17.625443 32347 net.cpp:399] label_data_1_split -> label_data_1_split_1
I0403 13:30:17.625464 32347 net.cpp:399] label_data_1_split -> label_data_1_split_2
I0403 13:30:17.625530 32347 net.cpp:141] Setting up label_data_1_split
I0403 13:30:17.625552 32347 net.cpp:148] Top shape: 100 (100)
I0403 13:30:17.625568 32347 net.cpp:148] Top shape: 100 (100)
I0403 13:30:17.625586 32347 net.cpp:148] Top shape: 100 (100)
I0403 13:30:17.625599 32347 net.cpp:156] Memory required for data: 61836400
I0403 13:30:17.625614 32347 layer_factory.hpp:77] Creating layer conv1
I0403 13:30:17.625645 32347 net.cpp:91] Creating Layer conv1
I0403 13:30:17.625665 32347 net.cpp:425] conv1 <- data
I0403 13:30:17.625685 32347 net.cpp:399] conv1 -> conv1
I0403 13:30:17.766428 32347 net.cpp:141] Setting up conv1
I0403 13:30:17.766518 32347 net.cpp:148] Top shape: 100 96 55 55 (29040000)
I0403 13:30:17.766536 32347 net.cpp:156] Memory required for data: 177996400
I0403 13:30:17.766568 32347 layer_factory.hpp:77] Creating layer relu1
I0403 13:30:17.766597 32347 net.cpp:91] Creating Layer relu1
I0403 13:30:17.766618 32347 net.cpp:425] relu1 <- conv1
I0403 13:30:17.766640 32347 net.cpp:386] relu1 -> conv1 (in-place)
I0403 13:30:17.766927 32347 net.cpp:141] Setting up relu1
I0403 13:30:17.766955 32347 net.cpp:148] Top shape: 100 96 55 55 (29040000)
I0403 13:30:17.767004 32347 net.cpp:156] Memory required for data: 294156400
I0403 13:30:17.767021 32347 layer_factory.hpp:77] Creating layer norm1
I0403 13:30:17.767051 32347 net.cpp:91] Creating Layer norm1
I0403 13:30:17.767071 32347 net.cpp:425] norm1 <- conv1
I0403 13:30:17.767093 32347 net.cpp:399] norm1 -> norm1
I0403 13:30:17.767462 32347 net.cpp:141] Setting up norm1
I0403 13:30:17.767493 32347 net.cpp:148] Top shape: 100 96 55 55 (29040000)
I0403 13:30:17.767509 32347 net.cpp:156] Memory required for data: 410316400
I0403 13:30:17.767525 32347 layer_factory.hpp:77] Creating layer pool1
I0403 13:30:17.767549 32347 net.cpp:91] Creating Layer pool1
I0403 13:30:17.767566 32347 net.cpp:425] pool1 <- norm1
I0403 13:30:17.767587 32347 net.cpp:399] pool1 -> pool1
I0403 13:30:17.767659 32347 net.cpp:141] Setting up pool1
I0403 13:30:17.767683 32347 net.cpp:148] Top shape: 100 96 27 27 (6998400)
I0403 13:30:17.767699 32347 net.cpp:156] Memory required for data: 438310000
I0403 13:30:17.767714 32347 layer_factory.hpp:77] Creating layer conv2
I0403 13:30:17.767740 32347 net.cpp:91] Creating Layer conv2
I0403 13:30:17.767758 32347 net.cpp:425] conv2 <- pool1
I0403 13:30:17.767779 32347 net.cpp:399] conv2 -> conv2
I0403 13:30:17.783412 32347 net.cpp:141] Setting up conv2
I0403 13:30:17.783471 32347 net.cpp:148] Top shape: 100 256 27 27 (18662400)
I0403 13:30:17.783489 32347 net.cpp:156] Memory required for data: 512959600
I0403 13:30:17.783514 32347 layer_factory.hpp:77] Creating layer relu2
I0403 13:30:17.783534 32347 net.cpp:91] Creating Layer relu2
I0403 13:30:17.783550 32347 net.cpp:425] relu2 <- conv2
I0403 13:30:17.783570 32347 net.cpp:386] relu2 -> conv2 (in-place)
I0403 13:30:17.783860 32347 net.cpp:141] Setting up relu2
I0403 13:30:17.783888 32347 net.cpp:148] Top shape: 100 256 27 27 (18662400)
I0403 13:30:17.783905 32347 net.cpp:156] Memory required for data: 587609200
I0403 13:30:17.783920 32347 layer_factory.hpp:77] Creating layer norm2
I0403 13:30:17.783941 32347 net.cpp:91] Creating Layer norm2
I0403 13:30:17.783957 32347 net.cpp:425] norm2 <- conv2
I0403 13:30:17.783980 32347 net.cpp:399] norm2 -> norm2
I0403 13:30:17.784188 32347 net.cpp:141] Setting up norm2
I0403 13:30:17.784257 32347 net.cpp:148] Top shape: 100 256 27 27 (18662400)
I0403 13:30:17.784277 32347 net.cpp:156] Memory required for data: 662258800
I0403 13:30:17.784293 32347 layer_factory.hpp:77] Creating layer pool2
I0403 13:30:17.784312 32347 net.cpp:91] Creating Layer pool2
I0403 13:30:17.784328 32347 net.cpp:425] pool2 <- norm2
I0403 13:30:17.784346 32347 net.cpp:399] pool2 -> pool2
I0403 13:30:17.784404 32347 net.cpp:141] Setting up pool2
I0403 13:30:17.784427 32347 net.cpp:148] Top shape: 100 256 13 13 (4326400)
I0403 13:30:17.784443 32347 net.cpp:156] Memory required for data: 679564400
I0403 13:30:17.784458 32347 layer_factory.hpp:77] Creating layer conv3
I0403 13:30:17.784483 32347 net.cpp:91] Creating Layer conv3
I0403 13:30:17.784502 32347 net.cpp:425] conv3 <- pool2
I0403 13:30:17.784523 32347 net.cpp:399] conv3 -> conv3
I0403 13:30:17.824596 32347 net.cpp:141] Setting up conv3
I0403 13:30:17.824681 32347 net.cpp:148] Top shape: 100 384 13 13 (6489600)
I0403 13:30:17.824699 32347 net.cpp:156] Memory required for data: 705522800
I0403 13:30:17.824725 32347 layer_factory.hpp:77] Creating layer relu3
I0403 13:30:17.824751 32347 net.cpp:91] Creating Layer relu3
I0403 13:30:17.824770 32347 net.cpp:425] relu3 <- conv3
I0403 13:30:17.824790 32347 net.cpp:386] relu3 -> conv3 (in-place)
I0403 13:30:17.825112 32347 net.cpp:141] Setting up relu3
I0403 13:30:17.825142 32347 net.cpp:148] Top shape: 100 384 13 13 (6489600)
I0403 13:30:17.825160 32347 net.cpp:156] Memory required for data: 731481200
I0403 13:30:17.825176 32347 layer_factory.hpp:77] Creating layer conv4
I0403 13:30:17.825202 32347 net.cpp:91] Creating Layer conv4
I0403 13:30:17.825222 32347 net.cpp:425] conv4 <- conv3
I0403 13:30:17.825244 32347 net.cpp:399] conv4 -> conv4
I0403 13:30:17.856570 32347 net.cpp:141] Setting up conv4
I0403 13:30:17.856652 32347 net.cpp:148] Top shape: 100 384 13 13 (6489600)
I0403 13:30:17.856699 32347 net.cpp:156] Memory required for data: 757439600
I0403 13:30:17.856722 32347 layer_factory.hpp:77] Creating layer relu4
I0403 13:30:17.856747 32347 net.cpp:91] Creating Layer relu4
I0403 13:30:17.856766 32347 net.cpp:425] relu4 <- conv4
I0403 13:30:17.856786 32347 net.cpp:386] relu4 -> conv4 (in-place)
I0403 13:30:17.857079 32347 net.cpp:141] Setting up relu4
I0403 13:30:17.857107 32347 net.cpp:148] Top shape: 100 384 13 13 (6489600)
I0403 13:30:17.857123 32347 net.cpp:156] Memory required for data: 783398000
I0403 13:30:17.857139 32347 layer_factory.hpp:77] Creating layer conv5
I0403 13:30:17.857167 32347 net.cpp:91] Creating Layer conv5
I0403 13:30:17.857185 32347 net.cpp:425] conv5 <- conv4
I0403 13:30:17.857208 32347 net.cpp:399] conv5 -> conv5
I0403 13:30:17.878671 32347 net.cpp:141] Setting up conv5
I0403 13:30:17.878727 32347 net.cpp:148] Top shape: 100 256 13 13 (4326400)
I0403 13:30:17.878746 32347 net.cpp:156] Memory required for data: 800703600
I0403 13:30:17.878774 32347 layer_factory.hpp:77] Creating layer relu5
I0403 13:30:17.878798 32347 net.cpp:91] Creating Layer relu5
I0403 13:30:17.878815 32347 net.cpp:425] relu5 <- conv5
I0403 13:30:17.878834 32347 net.cpp:386] relu5 -> conv5 (in-place)
I0403 13:30:17.879175 32347 net.cpp:141] Setting up relu5
I0403 13:30:17.879206 32347 net.cpp:148] Top shape: 100 256 13 13 (4326400)
I0403 13:30:17.879222 32347 net.cpp:156] Memory required for data: 818009200
I0403 13:30:17.879238 32347 layer_factory.hpp:77] Creating layer pool5
I0403 13:30:17.879266 32347 net.cpp:91] Creating Layer pool5
I0403 13:30:17.879282 32347 net.cpp:425] pool5 <- conv5
I0403 13:30:17.879303 32347 net.cpp:399] pool5 -> pool5
I0403 13:30:17.879367 32347 net.cpp:141] Setting up pool5
I0403 13:30:17.879391 32347 net.cpp:148] Top shape: 100 256 6 6 (921600)
I0403 13:30:17.879406 32347 net.cpp:156] Memory required for data: 821695600
I0403 13:30:17.879421 32347 layer_factory.hpp:77] Creating layer fc6
I0403 13:30:17.879452 32347 net.cpp:91] Creating Layer fc6
I0403 13:30:17.879472 32347 net.cpp:425] fc6 <- pool5
I0403 13:30:17.879492 32347 net.cpp:399] fc6 -> fc6
I0403 13:30:19.449342 32347 net.cpp:141] Setting up fc6
I0403 13:30:19.449431 32347 net.cpp:148] Top shape: 100 4096 (409600)
I0403 13:30:19.449447 32347 net.cpp:156] Memory required for data: 823334000
I0403 13:30:19.449470 32347 layer_factory.hpp:77] Creating layer relu6
I0403 13:30:19.449494 32347 net.cpp:91] Creating Layer relu6
I0403 13:30:19.449513 32347 net.cpp:425] relu6 <- fc6
I0403 13:30:19.449532 32347 net.cpp:386] relu6 -> fc6 (in-place)
I0403 13:30:19.449759 32347 net.cpp:141] Setting up relu6
I0403 13:30:19.449784 32347 net.cpp:148] Top shape: 100 4096 (409600)
I0403 13:30:19.449800 32347 net.cpp:156] Memory required for data: 824972400
I0403 13:30:19.449815 32347 layer_factory.hpp:77] Creating layer drop6
I0403 13:30:19.449833 32347 net.cpp:91] Creating Layer drop6
I0403 13:30:19.449848 32347 net.cpp:425] drop6 <- fc6
I0403 13:30:19.449865 32347 net.cpp:386] drop6 -> fc6 (in-place)
I0403 13:30:19.449918 32347 net.cpp:141] Setting up drop6
I0403 13:30:19.449940 32347 net.cpp:148] Top shape: 100 4096 (409600)
I0403 13:30:19.449955 32347 net.cpp:156] Memory required for data: 826610800
I0403 13:30:19.449970 32347 layer_factory.hpp:77] Creating layer fc7
I0403 13:30:19.449991 32347 net.cpp:91] Creating Layer fc7
I0403 13:30:19.450008 32347 net.cpp:425] fc7 <- fc6
I0403 13:30:19.450026 32347 net.cpp:399] fc7 -> fc7
I0403 13:30:20.134269 32347 net.cpp:141] Setting up fc7
I0403 13:30:20.134356 32347 net.cpp:148] Top shape: 100 4096 (409600)
I0403 13:30:20.134372 32347 net.cpp:156] Memory required for data: 828249200
I0403 13:30:20.134393 32347 layer_factory.hpp:77] Creating layer relu7
I0403 13:30:20.134418 32347 net.cpp:91] Creating Layer relu7
I0403 13:30:20.134435 32347 net.cpp:425] relu7 <- fc7
I0403 13:30:20.134454 32347 net.cpp:386] relu7 -> fc7 (in-place)
I0403 13:30:20.134873 32347 net.cpp:141] Setting up relu7
I0403 13:30:20.134899 32347 net.cpp:148] Top shape: 100 4096 (409600)
I0403 13:30:20.134948 32347 net.cpp:156] Memory required for data: 829887600
I0403 13:30:20.134964 32347 layer_factory.hpp:77] Creating layer drop7
I0403 13:30:20.134985 32347 net.cpp:91] Creating Layer drop7
I0403 13:30:20.135002 32347 net.cpp:425] drop7 <- fc7
I0403 13:30:20.135020 32347 net.cpp:386] drop7 -> fc7 (in-place)
I0403 13:30:20.135066 32347 net.cpp:141] Setting up drop7
I0403 13:30:20.135087 32347 net.cpp:148] Top shape: 100 4096 (409600)
I0403 13:30:20.135102 32347 net.cpp:156] Memory required for data: 831526000
I0403 13:30:20.135116 32347 layer_factory.hpp:77] Creating layer fc8_plantvillage
I0403 13:30:20.135138 32347 net.cpp:91] Creating Layer fc8_plantvillage
I0403 13:30:20.135154 32347 net.cpp:425] fc8_plantvillage <- fc7
I0403 13:30:20.135172 32347 net.cpp:399] fc8_plantvillage -> fc8_plantvillage
I0403 13:30:20.141875 32347 net.cpp:141] Setting up fc8_plantvillage
I0403 13:30:20.141902 32347 net.cpp:148] Top shape: 100 38 (3800)
I0403 13:30:20.141917 32347 net.cpp:156] Memory required for data: 831541200
I0403 13:30:20.141935 32347 layer_factory.hpp:77] Creating layer fc8_plantvillage_fc8_plantvillage_0_split
I0403 13:30:20.141954 32347 net.cpp:91] Creating Layer fc8_plantvillage_fc8_plantvillage_0_split
I0403 13:30:20.141970 32347 net.cpp:425] fc8_plantvillage_fc8_plantvillage_0_split <- fc8_plantvillage
I0403 13:30:20.141988 32347 net.cpp:399] fc8_plantvillage_fc8_plantvillage_0_split -> fc8_plantvillage_fc8_plantvillage_0_split_0
I0403 13:30:20.142010 32347 net.cpp:399] fc8_plantvillage_fc8_plantvillage_0_split -> fc8_plantvillage_fc8_plantvillage_0_split_1
I0403 13:30:20.142031 32347 net.cpp:399] fc8_plantvillage_fc8_plantvillage_0_split -> fc8_plantvillage_fc8_plantvillage_0_split_2
I0403 13:30:20.142108 32347 net.cpp:141] Setting up fc8_plantvillage_fc8_plantvillage_0_split
I0403 13:30:20.142132 32347 net.cpp:148] Top shape: 100 38 (3800)
I0403 13:30:20.142148 32347 net.cpp:148] Top shape: 100 38 (3800)
I0403 13:30:20.142163 32347 net.cpp:148] Top shape: 100 38 (3800)
I0403 13:30:20.142177 32347 net.cpp:156] Memory required for data: 831586800
I0403 13:30:20.142194 32347 layer_factory.hpp:77] Creating layer prob
I0403 13:30:20.142212 32347 net.cpp:91] Creating Layer prob
I0403 13:30:20.142227 32347 net.cpp:425] prob <- fc8_plantvillage_fc8_plantvillage_0_split_0
I0403 13:30:20.142272 32347 net.cpp:399] prob -> prob
I0403 13:30:20.142511 32347 net.cpp:141] Setting up prob
I0403 13:30:20.142539 32347 net.cpp:148] Top shape: 100 38 (3800)
I0403 13:30:20.142554 32347 net.cpp:156] Memory required for data: 831602000
I0403 13:30:20.142568 32347 layer_factory.hpp:77] Creating layer hdf5out
I0403 13:30:20.142601 32347 net.cpp:91] Creating Layer hdf5out
I0403 13:30:20.142618 32347 net.cpp:425] hdf5out <- prob
I0403 13:30:20.142634 32347 net.cpp:425] hdf5out <- label_data_1_split_0
I0403 13:30:20.145054 32347 net.cpp:141] Setting up hdf5out
…
