…
I0403 13:45:41.865998   325 net.cpp:313] The NetState phase (1) differed from the phase (0) specified by a rule in layer data
I0403 13:45:41.866322   325 net.cpp:49] Initializing net from parameters: 
state {
  phase: TEST
}
layer {
  name: "data"
  type: "Data"
  top: "data"
  top: "label"
  include {
    phase: TEST
  }
  transform_param {
    crop_size: 227
    mean_file: "/home/mohanty/data/final_dataset/lmdb/segmented-20-80/mean.binaryproto"
  }
  data_param {
    source: "/home/mohanty/data/final_dataset/lmdb/segmented-20-80/test_db"
    batch_size: 100
    backend: LMDB
  }
}
layer {
  name: "conv1"
  type: "Convolution"
  bottom: "data"
  top: "conv1"
  param {
    lr_mult: 1
    decay_mult: 1
  }
  param {
    lr_mult: 2
    decay_mult: 0
  }
  convolution_param {
    num_output: 96
    kernel_size: 11
    stride: 4
    weight_filler {
      type: "gaussian"
      std: 0.01
    }
    bias_filler {
      type: "constant"
      value: 0
    }
  }
}
layer {
  name: "relu1"
  type: "ReLU"
  bottom: "conv1"
  top: "conv1"
}
layer {
  name: "norm1"
  type: "LRN"
  bottom: "conv1"
  top: "norm1"
  lrn_param {
    local_size: 5
    alpha: 0.0001
    beta: 0.75
  }
}
layer {
  name: "pool1"
  type: "Pooling"
  bottom: "norm1"
  top: "pool1"
  pooling_param {
    pool: MAX
    kernel_size: 3
    stride: 2
  }
}
layer {
  name: "conv2"
  type: "Convolution"
  bottom: "pool1"
  top: "conv2"
  param {
    lr_mult: 1
    decay_mult: 1
  }
  param {
    lr_mult: 2
    decay_mult: 0
  }
  convolution_param {
    num_output: 256
    pad: 2
    kernel_size: 5
    group: 2
    weight_filler {
      type: "gaussian"
      std: 0.01
    }
    bias_filler {
      type: "constant"
      value: 0.1
    }
  }
}
layer {
  name: "relu2"
  type: "ReLU"
  bottom: "conv2"
  top: "conv2"
}
layer {
  name: "norm2"
  type: "LRN"
  bottom: "conv2"
  top: "norm2"
  lrn_param {
    local_size: 5
    alpha: 0.0001
    beta: 0.75
  }
}
layer {
  name: "pool2"
  type: "Pooling"
  bottom: "norm2"
  top: "pool2"
  pooling_param {
    pool: MAX
    kernel_size: 3
    stride: 2
  }
}
layer {
  name: "conv3"
  type: "Convolution"
  bottom: "pool2"
  top: "conv3"
  param {
    lr_mult: 1
    decay_mult: 1
  }
  param {
    lr_mult: 2
    decay_mult: 0
  }
  convolution_param {
    num_output: 384
    pad: 1
    kernel_size: 3
    weight_filler {
      type: "gaussian"
      std: 0.01
    }
    bias_filler {
      type: "constant"
      value: 0
    }
  }
}
layer {
  name: "relu3"
  type: "ReLU"
  bottom: "conv3"
  top: "conv3"
}
layer {
  name: "conv4"
  type: "Convolution"
  bottom: "conv3"
  top: "conv4"
  param {
    lr_mult: 1
    decay_mult: 1
  }
  param {
    lr_mult: 2
    decay_mult: 0
  }
  convolution_param {
    num_output: 384
    pad: 1
    kernel_size: 3
    group: 2
    weight_filler {
      type: "gaussian"
      std: 0.01
    }
    bias_filler {
      type: "constant"
      value: 0.1
    }
  }
}
layer {
  name: "relu4"
  type: "ReLU"
  bottom: "conv4"
  top: "conv4"
}
layer {
  name: "conv5"
  type: "Convolution"
  bottom: "conv4"
  top: "conv5"
  param {
    lr_mult: 1
    decay_mult: 1
  }
  param {
    lr_mult: 2
    decay_mult: 0
  }
  convolution_param {
    num_output: 256
    pad: 1
    kernel_size: 3
    group: 2
    weight_filler {
      type: "gaussian"
      std: 0.01
    }
    bias_filler {
      type: "constant"
      value: 0.1
    }
  }
}
layer {
  name: "relu5"
  type: "ReLU"
  bottom: "conv5"
  top: "conv5"
}
layer {
  name: "pool5"
  type: "Pooling"
  bottom: "conv5"
  top: "pool5"
  pooling_param {
    pool: MAX
    kernel_size: 3
    stride: 2
  }
}
layer {
  name: "fc6"
  type: "InnerProduct"
  bottom: "pool5"
  top: "fc6"
  param {
    lr_mult: 1
    decay_mult: 1
  }
  param {
    lr_mult: 2
    decay_mult: 0
  }
  inner_product_param {
    num_output: 4096
    weight_filler {
      type: "gaussian"
      std: 0.005
    }
    bias_filler {
      type: "constant"
      value: 0.1
    }
  }
}
layer {
  name: "relu6"
  type: "ReLU"
  bottom: "fc6"
  top: "fc6"
}
layer {
  name: "drop6"
  type: "Dropout"
  bottom: "fc6"
  top: "fc6"
  dropout_param {
    dropout_ratio: 0.5
  }
}
layer {
  name: "fc7"
  type: "InnerProduct"
  bottom: "fc6"
  top: "fc7"
  param {
    lr_mult: 1
    decay_mult: 1
  }
  param {
    lr_mult: 2
    decay_mult: 0
  }
  inner_product_param {
    num_output: 4096
    weight_filler {
      type: "gaussian"
      std: 0.005
    }
    bias_filler {
      type: "constant"
      value: 0.1
    }
  }
}
layer {
  name: "relu7"
  type: "ReLU"
  bottom: "fc7"
  top: "fc7"
}
layer {
  name: "drop7"
  type: "Dropout"
  bottom: "fc7"
  top: "fc7"
  dropout_param {
    dropout_ratio: 0.5
  }
}
layer {
  name: "fc8_plantvillage"
  type: "InnerProduct"
  bottom: "fc7"
  top: "fc8_plantvillage"
  param {
    lr_mult: 1
    decay_mult: 1
  }
  param {
    lr_mult: 2
    decay_mult: 0
  }
  inner_product_param {
    num_output: 38
    weight_filler {
      type: "gaussian"
      std: 0.01
    }
    bias_filler {
      type: "constant"
      value: 0
    }
  }
}
layer {
  name: "prob"
  type: "Softmax"
  bottom: "fc8_plantvillage"
  top: "prob"
  include {
    phase: TEST
  }
}
layer {
  name: "hdf5out"
  type: "HDF5Output"
  bottom: "prob"
  bottom: "label"
  include {
    phase: TEST
  }
  hdf5_output_param {
    file_name: "hdf5_dumps/iter_1590.h5"
  }
}
layer {
  name: "loss"
  type: "SoftmaxWithLoss"
  bottom: "fc8_plantvillage"
  bottom: "label"
  top: "loss"
}
layer {
  name: "accuracy"
  type: "Accuracy"
  bottom: "fc8_plantvillage"
  bottom: "label"
  top: "accuracy"
  include {
    phase: TEST
  }
}
I0403 13:45:41.866883   325 layer_factory.hpp:77] Creating layer data
I0403 13:45:41.867543   325 net.cpp:91] Creating Layer data
I0403 13:45:41.867578   325 net.cpp:399] data -> data
I0403 13:45:41.867630   325 net.cpp:399] data -> label
I0403 13:45:41.867666   325 data_transformer.cpp:25] Loading mean file from: /home/mohanty/data/final_dataset/lmdb/segmented-20-80/mean.binaryproto
I0403 13:45:41.874730   328 db_lmdb.cpp:38] Opened lmdb /home/mohanty/data/final_dataset/lmdb/segmented-20-80/test_db
I0403 13:45:41.881685   325 data_layer.cpp:41] output data size: 100,3,227,227
I0403 13:45:42.005442   325 net.cpp:141] Setting up data
I0403 13:45:42.005508   325 net.cpp:148] Top shape: 100 3 227 227 (15458700)
I0403 13:45:42.005532   325 net.cpp:148] Top shape: 100 (100)
I0403 13:45:42.005548   325 net.cpp:156] Memory required for data: 61835200
I0403 13:45:42.005576   325 layer_factory.hpp:77] Creating layer label_data_1_split
I0403 13:45:42.005604   325 net.cpp:91] Creating Layer label_data_1_split
I0403 13:45:42.005621   325 net.cpp:425] label_data_1_split <- label
I0403 13:45:42.005653   325 net.cpp:399] label_data_1_split -> label_data_1_split_0
I0403 13:45:42.005681   325 net.cpp:399] label_data_1_split -> label_data_1_split_1
I0403 13:45:42.005702   325 net.cpp:399] label_data_1_split -> label_data_1_split_2
I0403 13:45:42.005769   325 net.cpp:141] Setting up label_data_1_split
I0403 13:45:42.005792   325 net.cpp:148] Top shape: 100 (100)
I0403 13:45:42.005810   325 net.cpp:148] Top shape: 100 (100)
I0403 13:45:42.005827   325 net.cpp:148] Top shape: 100 (100)
I0403 13:45:42.005843   325 net.cpp:156] Memory required for data: 61836400
I0403 13:45:42.005858   325 layer_factory.hpp:77] Creating layer conv1
I0403 13:45:42.005892   325 net.cpp:91] Creating Layer conv1
I0403 13:45:42.005910   325 net.cpp:425] conv1 <- data
I0403 13:45:42.005931   325 net.cpp:399] conv1 -> conv1
I0403 13:45:42.149554   325 net.cpp:141] Setting up conv1
I0403 13:45:42.149644   325 net.cpp:148] Top shape: 100 96 55 55 (29040000)
I0403 13:45:42.149662   325 net.cpp:156] Memory required for data: 177996400
I0403 13:45:42.149698   325 layer_factory.hpp:77] Creating layer relu1
I0403 13:45:42.149727   325 net.cpp:91] Creating Layer relu1
I0403 13:45:42.149746   325 net.cpp:425] relu1 <- conv1
I0403 13:45:42.149767   325 net.cpp:386] relu1 -> conv1 (in-place)
I0403 13:45:42.150049   325 net.cpp:141] Setting up relu1
I0403 13:45:42.150101   325 net.cpp:148] Top shape: 100 96 55 55 (29040000)
I0403 13:45:42.150153   325 net.cpp:156] Memory required for data: 294156400
I0403 13:45:42.150171   325 layer_factory.hpp:77] Creating layer norm1
I0403 13:45:42.150202   325 net.cpp:91] Creating Layer norm1
I0403 13:45:42.150220   325 net.cpp:425] norm1 <- conv1
I0403 13:45:42.150243   325 net.cpp:399] norm1 -> norm1
I0403 13:45:42.150593   325 net.cpp:141] Setting up norm1
I0403 13:45:42.150629   325 net.cpp:148] Top shape: 100 96 55 55 (29040000)
I0403 13:45:42.150655   325 net.cpp:156] Memory required for data: 410316400
I0403 13:45:42.150678   325 layer_factory.hpp:77] Creating layer pool1
I0403 13:45:42.150710   325 net.cpp:91] Creating Layer pool1
I0403 13:45:42.150732   325 net.cpp:425] pool1 <- norm1
I0403 13:45:42.150760   325 net.cpp:399] pool1 -> pool1
I0403 13:45:42.150838   325 net.cpp:141] Setting up pool1
I0403 13:45:42.150864   325 net.cpp:148] Top shape: 100 96 27 27 (6998400)
I0403 13:45:42.150881   325 net.cpp:156] Memory required for data: 438310000
I0403 13:45:42.150897   325 layer_factory.hpp:77] Creating layer conv2
I0403 13:45:42.150926   325 net.cpp:91] Creating Layer conv2
I0403 13:45:42.150945   325 net.cpp:425] conv2 <- pool1
I0403 13:45:42.150965   325 net.cpp:399] conv2 -> conv2
I0403 13:45:42.166669   325 net.cpp:141] Setting up conv2
I0403 13:45:42.166717   325 net.cpp:148] Top shape: 100 256 27 27 (18662400)
I0403 13:45:42.166734   325 net.cpp:156] Memory required for data: 512959600
I0403 13:45:42.166759   325 layer_factory.hpp:77] Creating layer relu2
I0403 13:45:42.166780   325 net.cpp:91] Creating Layer relu2
I0403 13:45:42.166797   325 net.cpp:425] relu2 <- conv2
I0403 13:45:42.166820   325 net.cpp:386] relu2 -> conv2 (in-place)
I0403 13:45:42.167115   325 net.cpp:141] Setting up relu2
I0403 13:45:42.167145   325 net.cpp:148] Top shape: 100 256 27 27 (18662400)
I0403 13:45:42.167204   325 net.cpp:156] Memory required for data: 587609200
I0403 13:45:42.167225   325 layer_factory.hpp:77] Creating layer norm2
I0403 13:45:42.167251   325 net.cpp:91] Creating Layer norm2
I0403 13:45:42.167269   325 net.cpp:425] norm2 <- conv2
I0403 13:45:42.167295   325 net.cpp:399] norm2 -> norm2
I0403 13:45:42.167502   325 net.cpp:141] Setting up norm2
I0403 13:45:42.167532   325 net.cpp:148] Top shape: 100 256 27 27 (18662400)
I0403 13:45:42.167551   325 net.cpp:156] Memory required for data: 662258800
I0403 13:45:42.167567   325 layer_factory.hpp:77] Creating layer pool2
I0403 13:45:42.167585   325 net.cpp:91] Creating Layer pool2
I0403 13:45:42.167603   325 net.cpp:425] pool2 <- norm2
I0403 13:45:42.167625   325 net.cpp:399] pool2 -> pool2
I0403 13:45:42.167681   325 net.cpp:141] Setting up pool2
I0403 13:45:42.167706   325 net.cpp:148] Top shape: 100 256 13 13 (4326400)
I0403 13:45:42.167722   325 net.cpp:156] Memory required for data: 679564400
I0403 13:45:42.167738   325 layer_factory.hpp:77] Creating layer conv3
I0403 13:45:42.167763   325 net.cpp:91] Creating Layer conv3
I0403 13:45:42.167781   325 net.cpp:425] conv3 <- pool2
I0403 13:45:42.167804   325 net.cpp:399] conv3 -> conv3
I0403 13:45:42.207098   325 net.cpp:141] Setting up conv3
I0403 13:45:42.207165   325 net.cpp:148] Top shape: 100 384 13 13 (6489600)
I0403 13:45:42.207183   325 net.cpp:156] Memory required for data: 705522800
I0403 13:45:42.207211   325 layer_factory.hpp:77] Creating layer relu3
I0403 13:45:42.207232   325 net.cpp:91] Creating Layer relu3
I0403 13:45:42.207252   325 net.cpp:425] relu3 <- conv3
I0403 13:45:42.207284   325 net.cpp:386] relu3 -> conv3 (in-place)
I0403 13:45:42.207619   325 net.cpp:141] Setting up relu3
I0403 13:45:42.207648   325 net.cpp:148] Top shape: 100 384 13 13 (6489600)
I0403 13:45:42.207664   325 net.cpp:156] Memory required for data: 731481200
I0403 13:45:42.207681   325 layer_factory.hpp:77] Creating layer conv4
I0403 13:45:42.207707   325 net.cpp:91] Creating Layer conv4
I0403 13:45:42.207726   325 net.cpp:425] conv4 <- conv3
I0403 13:45:42.207749   325 net.cpp:399] conv4 -> conv4
I0403 13:45:42.239256   325 net.cpp:141] Setting up conv4
I0403 13:45:42.239306   325 net.cpp:148] Top shape: 100 384 13 13 (6489600)
I0403 13:45:42.239357   325 net.cpp:156] Memory required for data: 757439600
I0403 13:45:42.239382   325 layer_factory.hpp:77] Creating layer relu4
I0403 13:45:42.239404   325 net.cpp:91] Creating Layer relu4
I0403 13:45:42.239423   325 net.cpp:425] relu4 <- conv4
I0403 13:45:42.239444   325 net.cpp:386] relu4 -> conv4 (in-place)
I0403 13:45:42.239734   325 net.cpp:141] Setting up relu4
I0403 13:45:42.239765   325 net.cpp:148] Top shape: 100 384 13 13 (6489600)
I0403 13:45:42.239784   325 net.cpp:156] Memory required for data: 783398000
I0403 13:45:42.239800   325 layer_factory.hpp:77] Creating layer conv5
I0403 13:45:42.239828   325 net.cpp:91] Creating Layer conv5
I0403 13:45:42.239846   325 net.cpp:425] conv5 <- conv4
I0403 13:45:42.239867   325 net.cpp:399] conv5 -> conv5
I0403 13:45:42.261212   325 net.cpp:141] Setting up conv5
I0403 13:45:42.261268   325 net.cpp:148] Top shape: 100 256 13 13 (4326400)
I0403 13:45:42.261296   325 net.cpp:156] Memory required for data: 800703600
I0403 13:45:42.261322   325 layer_factory.hpp:77] Creating layer relu5
I0403 13:45:42.261343   325 net.cpp:91] Creating Layer relu5
I0403 13:45:42.261359   325 net.cpp:425] relu5 <- conv5
I0403 13:45:42.261381   325 net.cpp:386] relu5 -> conv5 (in-place)
I0403 13:45:42.261704   325 net.cpp:141] Setting up relu5
I0403 13:45:42.261734   325 net.cpp:148] Top shape: 100 256 13 13 (4326400)
I0403 13:45:42.261749   325 net.cpp:156] Memory required for data: 818009200
I0403 13:45:42.261765   325 layer_factory.hpp:77] Creating layer pool5
I0403 13:45:42.261790   325 net.cpp:91] Creating Layer pool5
I0403 13:45:42.261808   325 net.cpp:425] pool5 <- conv5
I0403 13:45:42.261827   325 net.cpp:399] pool5 -> pool5
I0403 13:45:42.261889   325 net.cpp:141] Setting up pool5
I0403 13:45:42.261914   325 net.cpp:148] Top shape: 100 256 6 6 (921600)
I0403 13:45:42.261929   325 net.cpp:156] Memory required for data: 821695600
I0403 13:45:42.261945   325 layer_factory.hpp:77] Creating layer fc6
I0403 13:45:42.261971   325 net.cpp:91] Creating Layer fc6
I0403 13:45:42.261989   325 net.cpp:425] fc6 <- pool5
I0403 13:45:42.262011   325 net.cpp:399] fc6 -> fc6
I0403 13:45:43.811730   325 net.cpp:141] Setting up fc6
I0403 13:45:43.811810   325 net.cpp:148] Top shape: 100 4096 (409600)
I0403 13:45:43.811827   325 net.cpp:156] Memory required for data: 823334000
I0403 13:45:43.811849   325 layer_factory.hpp:77] Creating layer relu6
I0403 13:45:43.811872   325 net.cpp:91] Creating Layer relu6
I0403 13:45:43.811888   325 net.cpp:425] relu6 <- fc6
I0403 13:45:43.811908   325 net.cpp:386] relu6 -> fc6 (in-place)
I0403 13:45:43.812122   325 net.cpp:141] Setting up relu6
I0403 13:45:43.812150   325 net.cpp:148] Top shape: 100 4096 (409600)
I0403 13:45:43.812165   325 net.cpp:156] Memory required for data: 824972400
I0403 13:45:43.812180   325 layer_factory.hpp:77] Creating layer drop6
I0403 13:45:43.812201   325 net.cpp:91] Creating Layer drop6
I0403 13:45:43.812216   325 net.cpp:425] drop6 <- fc6
I0403 13:45:43.812235   325 net.cpp:386] drop6 -> fc6 (in-place)
I0403 13:45:43.812296   325 net.cpp:141] Setting up drop6
I0403 13:45:43.812320   325 net.cpp:148] Top shape: 100 4096 (409600)
I0403 13:45:43.812335   325 net.cpp:156] Memory required for data: 826610800
I0403 13:45:43.812350   325 layer_factory.hpp:77] Creating layer fc7
I0403 13:45:43.812372   325 net.cpp:91] Creating Layer fc7
I0403 13:45:43.812389   325 net.cpp:425] fc7 <- fc6
I0403 13:45:43.812410   325 net.cpp:399] fc7 -> fc7
I0403 13:45:44.491829   325 net.cpp:141] Setting up fc7
I0403 13:45:44.491870   325 net.cpp:148] Top shape: 100 4096 (409600)
I0403 13:45:44.491885   325 net.cpp:156] Memory required for data: 828249200
I0403 13:45:44.491905   325 layer_factory.hpp:77] Creating layer relu7
I0403 13:45:44.491926   325 net.cpp:91] Creating Layer relu7
I0403 13:45:44.491945   325 net.cpp:425] relu7 <- fc7
I0403 13:45:44.491962   325 net.cpp:386] relu7 -> fc7 (in-place)
I0403 13:45:44.492379   325 net.cpp:141] Setting up relu7
I0403 13:45:44.492405   325 net.cpp:148] Top shape: 100 4096 (409600)
I0403 13:45:44.492436   325 net.cpp:156] Memory required for data: 829887600
I0403 13:45:44.492452   325 layer_factory.hpp:77] Creating layer drop7
I0403 13:45:44.492470   325 net.cpp:91] Creating Layer drop7
I0403 13:45:44.492488   325 net.cpp:425] drop7 <- fc7
I0403 13:45:44.492508   325 net.cpp:386] drop7 -> fc7 (in-place)
I0403 13:45:44.492550   325 net.cpp:141] Setting up drop7
I0403 13:45:44.492573   325 net.cpp:148] Top shape: 100 4096 (409600)
I0403 13:45:44.492586   325 net.cpp:156] Memory required for data: 831526000
I0403 13:45:44.492600   325 layer_factory.hpp:77] Creating layer fc8_plantvillage
I0403 13:45:44.492622   325 net.cpp:91] Creating Layer fc8_plantvillage
I0403 13:45:44.492638   325 net.cpp:425] fc8_plantvillage <- fc7
I0403 13:45:44.492658   325 net.cpp:399] fc8_plantvillage -> fc8_plantvillage
I0403 13:45:44.499213   325 net.cpp:141] Setting up fc8_plantvillage
I0403 13:45:44.499240   325 net.cpp:148] Top shape: 100 38 (3800)
I0403 13:45:44.499256   325 net.cpp:156] Memory required for data: 831541200
I0403 13:45:44.499279   325 layer_factory.hpp:77] Creating layer fc8_plantvillage_fc8_plantvillage_0_split
I0403 13:45:44.499299   325 net.cpp:91] Creating Layer fc8_plantvillage_fc8_plantvillage_0_split
I0403 13:45:44.499315   325 net.cpp:425] fc8_plantvillage_fc8_plantvillage_0_split <- fc8_plantvillage
I0403 13:45:44.499335   325 net.cpp:399] fc8_plantvillage_fc8_plantvillage_0_split -> fc8_plantvillage_fc8_plantvillage_0_split_0
I0403 13:45:44.499354   325 net.cpp:399] fc8_plantvillage_fc8_plantvillage_0_split -> fc8_plantvillage_fc8_plantvillage_0_split_1
I0403 13:45:44.499374   325 net.cpp:399] fc8_plantvillage_fc8_plantvillage_0_split -> fc8_plantvillage_fc8_plantvillage_0_split_2
I0403 13:45:44.499449   325 net.cpp:141] Setting up fc8_plantvillage_fc8_plantvillage_0_split
I0403 13:45:44.499474   325 net.cpp:148] Top shape: 100 38 (3800)
I0403 13:45:44.499491   325 net.cpp:148] Top shape: 100 38 (3800)
I0403 13:45:44.499506   325 net.cpp:148] Top shape: 100 38 (3800)
I0403 13:45:44.499521   325 net.cpp:156] Memory required for data: 831586800
I0403 13:45:44.499534   325 layer_factory.hpp:77] Creating layer prob
I0403 13:45:44.499552   325 net.cpp:91] Creating Layer prob
I0403 13:45:44.499568   325 net.cpp:425] prob <- fc8_plantvillage_fc8_plantvillage_0_split_0
I0403 13:45:44.499585   325 net.cpp:399] prob -> prob
I0403 13:45:44.499814   325 net.cpp:141] Setting up prob
I0403 13:45:44.499843   325 net.cpp:148] Top shape: 100 38 (3800)
I0403 13:45:44.499860   325 net.cpp:156] Memory required for data: 831602000
I0403 13:45:44.499874   325 layer_factory.hpp:77] Creating layer hdf5out
I0403 13:45:44.499894   325 net.cpp:91] Creating Layer hdf5out
I0403 13:45:44.499910   325 net.cpp:425] hdf5out <- prob
I0403 13:45:44.499927   325 net.cpp:425] hdf5out <- label_data_1_split_0
I0403 13:45:44.502295   325 net.cpp:141] Setting up hdf5out
…
