…
I0403 13:39:17.751849 32663 net.cpp:313] The NetState phase (1) differed from the phase (0) specified by a rule in layer data
I0403 13:39:17.752161 32663 net.cpp:49] Initializing net from parameters: 
state {
  phase: TEST
}
layer {
  name: "data"
  type: "Data"
  top: "data"
  top: "label"
  include {
    phase: TEST
  }
  transform_param {
    crop_size: 227
    mean_file: "/home/mohanty/data/final_dataset/lmdb/segmented-20-80/mean.binaryproto"
  }
  data_param {
    source: "/home/mohanty/data/final_dataset/lmdb/segmented-20-80/test_db"
    batch_size: 100
    backend: LMDB
  }
}
layer {
  name: "conv1"
  type: "Convolution"
  bottom: "data"
  top: "conv1"
  param {
    lr_mult: 1
    decay_mult: 1
  }
  param {
    lr_mult: 2
    decay_mult: 0
  }
  convolution_param {
    num_output: 96
    kernel_size: 11
    stride: 4
    weight_filler {
      type: "gaussian"
      std: 0.01
    }
    bias_filler {
      type: "constant"
      value: 0
    }
  }
}
layer {
  name: "relu1"
  type: "ReLU"
  bottom: "conv1"
  top: "conv1"
}
layer {
  name: "norm1"
  type: "LRN"
  bottom: "conv1"
  top: "norm1"
  lrn_param {
    local_size: 5
    alpha: 0.0001
    beta: 0.75
  }
}
layer {
  name: "pool1"
  type: "Pooling"
  bottom: "norm1"
  top: "pool1"
  pooling_param {
    pool: MAX
    kernel_size: 3
    stride: 2
  }
}
layer {
  name: "conv2"
  type: "Convolution"
  bottom: "pool1"
  top: "conv2"
  param {
    lr_mult: 1
    decay_mult: 1
  }
  param {
    lr_mult: 2
    decay_mult: 0
  }
  convolution_param {
    num_output: 256
    pad: 2
    kernel_size: 5
    group: 2
    weight_filler {
      type: "gaussian"
      std: 0.01
    }
    bias_filler {
      type: "constant"
      value: 0.1
    }
  }
}
layer {
  name: "relu2"
  type: "ReLU"
  bottom: "conv2"
  top: "conv2"
}
layer {
  name: "norm2"
  type: "LRN"
  bottom: "conv2"
  top: "norm2"
  lrn_param {
    local_size: 5
    alpha: 0.0001
    beta: 0.75
  }
}
layer {
  name: "pool2"
  type: "Pooling"
  bottom: "norm2"
  top: "pool2"
  pooling_param {
    pool: MAX
    kernel_size: 3
    stride: 2
  }
}
layer {
  name: "conv3"
  type: "Convolution"
  bottom: "pool2"
  top: "conv3"
  param {
    lr_mult: 1
    decay_mult: 1
  }
  param {
    lr_mult: 2
    decay_mult: 0
  }
  convolution_param {
    num_output: 384
    pad: 1
    kernel_size: 3
    weight_filler {
      type: "gaussian"
      std: 0.01
    }
    bias_filler {
      type: "constant"
      value: 0
    }
  }
}
layer {
  name: "relu3"
  type: "ReLU"
  bottom: "conv3"
  top: "conv3"
}
layer {
  name: "conv4"
  type: "Convolution"
  bottom: "conv3"
  top: "conv4"
  param {
    lr_mult: 1
    decay_mult: 1
  }
  param {
    lr_mult: 2
    decay_mult: 0
  }
  convolution_param {
    num_output: 384
    pad: 1
    kernel_size: 3
    group: 2
    weight_filler {
      type: "gaussian"
      std: 0.01
    }
    bias_filler {
      type: "constant"
      value: 0.1
    }
  }
}
layer {
  name: "relu4"
  type: "ReLU"
  bottom: "conv4"
  top: "conv4"
}
layer {
  name: "conv5"
  type: "Convolution"
  bottom: "conv4"
  top: "conv5"
  param {
    lr_mult: 1
    decay_mult: 1
  }
  param {
    lr_mult: 2
    decay_mult: 0
  }
  convolution_param {
    num_output: 256
    pad: 1
    kernel_size: 3
    group: 2
    weight_filler {
      type: "gaussian"
      std: 0.01
    }
    bias_filler {
      type: "constant"
      value: 0.1
    }
  }
}
layer {
  name: "relu5"
  type: "ReLU"
  bottom: "conv5"
  top: "conv5"
}
layer {
  name: "pool5"
  type: "Pooling"
  bottom: "conv5"
  top: "pool5"
  pooling_param {
    pool: MAX
    kernel_size: 3
    stride: 2
  }
}
layer {
  name: "fc6"
  type: "InnerProduct"
  bottom: "pool5"
  top: "fc6"
  param {
    lr_mult: 1
    decay_mult: 1
  }
  param {
    lr_mult: 2
    decay_mult: 0
  }
  inner_product_param {
    num_output: 4096
    weight_filler {
      type: "gaussian"
      std: 0.005
    }
    bias_filler {
      type: "constant"
      value: 0.1
    }
  }
}
layer {
  name: "relu6"
  type: "ReLU"
  bottom: "fc6"
  top: "fc6"
}
layer {
  name: "drop6"
  type: "Dropout"
  bottom: "fc6"
  top: "fc6"
  dropout_param {
    dropout_ratio: 0.5
  }
}
layer {
  name: "fc7"
  type: "InnerProduct"
  bottom: "fc6"
  top: "fc7"
  param {
    lr_mult: 1
    decay_mult: 1
  }
  param {
    lr_mult: 2
    decay_mult: 0
  }
  inner_product_param {
    num_output: 4096
    weight_filler {
      type: "gaussian"
      std: 0.005
    }
    bias_filler {
      type: "constant"
      value: 0.1
    }
  }
}
layer {
  name: "relu7"
  type: "ReLU"
  bottom: "fc7"
  top: "fc7"
}
layer {
  name: "drop7"
  type: "Dropout"
  bottom: "fc7"
  top: "fc7"
  dropout_param {
    dropout_ratio: 0.5
  }
}
layer {
  name: "fc8_plantvillage"
  type: "InnerProduct"
  bottom: "fc7"
  top: "fc8_plantvillage"
  param {
    lr_mult: 1
    decay_mult: 1
  }
  param {
    lr_mult: 2
    decay_mult: 0
  }
  inner_product_param {
    num_output: 38
    weight_filler {
      type: "gaussian"
      std: 0.01
    }
    bias_filler {
      type: "constant"
      value: 0
    }
  }
}
layer {
  name: "prob"
  type: "Softmax"
  bottom: "fc8_plantvillage"
  top: "prob"
  include {
    phase: TEST
  }
}
layer {
  name: "hdf5out"
  type: "HDF5Output"
  bottom: "prob"
  bottom: "label"
  include {
    phase: TEST
  }
  hdf5_output_param {
    file_name: "hdf5_dumps/iter_1060.h5"
  }
}
layer {
  name: "loss"
  type: "SoftmaxWithLoss"
  bottom: "fc8_plantvillage"
  bottom: "label"
  top: "loss"
}
layer {
  name: "accuracy"
  type: "Accuracy"
  bottom: "fc8_plantvillage"
  bottom: "label"
  top: "accuracy"
  include {
    phase: TEST
  }
}
I0403 13:39:17.752769 32663 layer_factory.hpp:77] Creating layer data
I0403 13:39:17.753424 32663 net.cpp:91] Creating Layer data
I0403 13:39:17.753456 32663 net.cpp:399] data -> data
I0403 13:39:17.753510 32663 net.cpp:399] data -> label
I0403 13:39:17.753550 32663 data_transformer.cpp:25] Loading mean file from: /home/mohanty/data/final_dataset/lmdb/segmented-20-80/mean.binaryproto
I0403 13:39:17.756496 32666 db_lmdb.cpp:38] Opened lmdb /home/mohanty/data/final_dataset/lmdb/segmented-20-80/test_db
I0403 13:39:17.768271 32663 data_layer.cpp:41] output data size: 100,3,227,227
I0403 13:39:17.889981 32663 net.cpp:141] Setting up data
I0403 13:39:17.890087 32663 net.cpp:148] Top shape: 100 3 227 227 (15458700)
I0403 13:39:17.890112 32663 net.cpp:148] Top shape: 100 (100)
I0403 13:39:17.890131 32663 net.cpp:156] Memory required for data: 61835200
I0403 13:39:17.890161 32663 layer_factory.hpp:77] Creating layer label_data_1_split
I0403 13:39:17.890189 32663 net.cpp:91] Creating Layer label_data_1_split
I0403 13:39:17.890211 32663 net.cpp:425] label_data_1_split <- label
I0403 13:39:17.890249 32663 net.cpp:399] label_data_1_split -> label_data_1_split_0
I0403 13:39:17.890280 32663 net.cpp:399] label_data_1_split -> label_data_1_split_1
I0403 13:39:17.890305 32663 net.cpp:399] label_data_1_split -> label_data_1_split_2
I0403 13:39:17.890372 32663 net.cpp:141] Setting up label_data_1_split
I0403 13:39:17.890399 32663 net.cpp:148] Top shape: 100 (100)
I0403 13:39:17.890419 32663 net.cpp:148] Top shape: 100 (100)
I0403 13:39:17.890439 32663 net.cpp:148] Top shape: 100 (100)
I0403 13:39:17.890455 32663 net.cpp:156] Memory required for data: 61836400
I0403 13:39:17.890473 32663 layer_factory.hpp:77] Creating layer conv1
I0403 13:39:17.890507 32663 net.cpp:91] Creating Layer conv1
I0403 13:39:17.890528 32663 net.cpp:425] conv1 <- data
I0403 13:39:17.890549 32663 net.cpp:399] conv1 -> conv1
I0403 13:39:18.033915 32663 net.cpp:141] Setting up conv1
I0403 13:39:18.034003 32663 net.cpp:148] Top shape: 100 96 55 55 (29040000)
I0403 13:39:18.034023 32663 net.cpp:156] Memory required for data: 177996400
I0403 13:39:18.034055 32663 layer_factory.hpp:77] Creating layer relu1
I0403 13:39:18.034085 32663 net.cpp:91] Creating Layer relu1
I0403 13:39:18.034103 32663 net.cpp:425] relu1 <- conv1
I0403 13:39:18.034123 32663 net.cpp:386] relu1 -> conv1 (in-place)
I0403 13:39:18.034386 32663 net.cpp:141] Setting up relu1
I0403 13:39:18.034415 32663 net.cpp:148] Top shape: 100 96 55 55 (29040000)
I0403 13:39:18.034463 32663 net.cpp:156] Memory required for data: 294156400
I0403 13:39:18.034481 32663 layer_factory.hpp:77] Creating layer norm1
I0403 13:39:18.034509 32663 net.cpp:91] Creating Layer norm1
I0403 13:39:18.034528 32663 net.cpp:425] norm1 <- conv1
I0403 13:39:18.034548 32663 net.cpp:399] norm1 -> norm1
I0403 13:39:18.034900 32663 net.cpp:141] Setting up norm1
I0403 13:39:18.034927 32663 net.cpp:148] Top shape: 100 96 55 55 (29040000)
I0403 13:39:18.034945 32663 net.cpp:156] Memory required for data: 410316400
I0403 13:39:18.034960 32663 layer_factory.hpp:77] Creating layer pool1
I0403 13:39:18.034986 32663 net.cpp:91] Creating Layer pool1
I0403 13:39:18.035006 32663 net.cpp:425] pool1 <- norm1
I0403 13:39:18.035023 32663 net.cpp:399] pool1 -> pool1
I0403 13:39:18.035096 32663 net.cpp:141] Setting up pool1
I0403 13:39:18.035121 32663 net.cpp:148] Top shape: 100 96 27 27 (6998400)
I0403 13:39:18.035137 32663 net.cpp:156] Memory required for data: 438310000
I0403 13:39:18.035153 32663 layer_factory.hpp:77] Creating layer conv2
I0403 13:39:18.035181 32663 net.cpp:91] Creating Layer conv2
I0403 13:39:18.035199 32663 net.cpp:425] conv2 <- pool1
I0403 13:39:18.035223 32663 net.cpp:399] conv2 -> conv2
I0403 13:39:18.050387 32663 net.cpp:141] Setting up conv2
I0403 13:39:18.050441 32663 net.cpp:148] Top shape: 100 256 27 27 (18662400)
I0403 13:39:18.050459 32663 net.cpp:156] Memory required for data: 512959600
I0403 13:39:18.050485 32663 layer_factory.hpp:77] Creating layer relu2
I0403 13:39:18.050511 32663 net.cpp:91] Creating Layer relu2
I0403 13:39:18.050531 32663 net.cpp:425] relu2 <- conv2
I0403 13:39:18.050551 32663 net.cpp:386] relu2 -> conv2 (in-place)
I0403 13:39:18.050839 32663 net.cpp:141] Setting up relu2
I0403 13:39:18.050869 32663 net.cpp:148] Top shape: 100 256 27 27 (18662400)
I0403 13:39:18.050886 32663 net.cpp:156] Memory required for data: 587609200
I0403 13:39:18.050904 32663 layer_factory.hpp:77] Creating layer norm2
I0403 13:39:18.050930 32663 net.cpp:91] Creating Layer norm2
I0403 13:39:18.050950 32663 net.cpp:425] norm2 <- conv2
I0403 13:39:18.050972 32663 net.cpp:399] norm2 -> norm2
I0403 13:39:18.051187 32663 net.cpp:141] Setting up norm2
I0403 13:39:18.051214 32663 net.cpp:148] Top shape: 100 256 27 27 (18662400)
I0403 13:39:18.051232 32663 net.cpp:156] Memory required for data: 662258800
I0403 13:39:18.051254 32663 layer_factory.hpp:77] Creating layer pool2
I0403 13:39:18.051278 32663 net.cpp:91] Creating Layer pool2
I0403 13:39:18.051297 32663 net.cpp:425] pool2 <- norm2
I0403 13:39:18.051317 32663 net.cpp:399] pool2 -> pool2
I0403 13:39:18.051376 32663 net.cpp:141] Setting up pool2
I0403 13:39:18.051403 32663 net.cpp:148] Top shape: 100 256 13 13 (4326400)
I0403 13:39:18.051421 32663 net.cpp:156] Memory required for data: 679564400
I0403 13:39:18.051440 32663 layer_factory.hpp:77] Creating layer conv3
I0403 13:39:18.051465 32663 net.cpp:91] Creating Layer conv3
I0403 13:39:18.051484 32663 net.cpp:425] conv3 <- pool2
I0403 13:39:18.051508 32663 net.cpp:399] conv3 -> conv3
I0403 13:39:18.090471 32663 net.cpp:141] Setting up conv3
I0403 13:39:18.090520 32663 net.cpp:148] Top shape: 100 384 13 13 (6489600)
I0403 13:39:18.090539 32663 net.cpp:156] Memory required for data: 705522800
I0403 13:39:18.090569 32663 layer_factory.hpp:77] Creating layer relu3
I0403 13:39:18.090595 32663 net.cpp:91] Creating Layer relu3
I0403 13:39:18.090615 32663 net.cpp:425] relu3 <- conv3
I0403 13:39:18.090634 32663 net.cpp:386] relu3 -> conv3 (in-place)
I0403 13:39:18.090910 32663 net.cpp:141] Setting up relu3
I0403 13:39:18.090939 32663 net.cpp:148] Top shape: 100 384 13 13 (6489600)
I0403 13:39:18.090956 32663 net.cpp:156] Memory required for data: 731481200
I0403 13:39:18.090973 32663 layer_factory.hpp:77] Creating layer conv4
I0403 13:39:18.091001 32663 net.cpp:91] Creating Layer conv4
I0403 13:39:18.091018 32663 net.cpp:425] conv4 <- conv3
I0403 13:39:18.091042 32663 net.cpp:399] conv4 -> conv4
I0403 13:39:18.120040 32663 net.cpp:141] Setting up conv4
I0403 13:39:18.120090 32663 net.cpp:148] Top shape: 100 384 13 13 (6489600)
I0403 13:39:18.120141 32663 net.cpp:156] Memory required for data: 757439600
I0403 13:39:18.120162 32663 layer_factory.hpp:77] Creating layer relu4
I0403 13:39:18.120187 32663 net.cpp:91] Creating Layer relu4
I0403 13:39:18.120206 32663 net.cpp:425] relu4 <- conv4
I0403 13:39:18.120225 32663 net.cpp:386] relu4 -> conv4 (in-place)
I0403 13:39:18.120530 32663 net.cpp:141] Setting up relu4
I0403 13:39:18.120558 32663 net.cpp:148] Top shape: 100 384 13 13 (6489600)
I0403 13:39:18.120574 32663 net.cpp:156] Memory required for data: 783398000
I0403 13:39:18.120590 32663 layer_factory.hpp:77] Creating layer conv5
I0403 13:39:18.120615 32663 net.cpp:91] Creating Layer conv5
I0403 13:39:18.120633 32663 net.cpp:425] conv5 <- conv4
I0403 13:39:18.120657 32663 net.cpp:399] conv5 -> conv5
I0403 13:39:18.140970 32663 net.cpp:141] Setting up conv5
I0403 13:39:18.141024 32663 net.cpp:148] Top shape: 100 256 13 13 (4326400)
I0403 13:39:18.141043 32663 net.cpp:156] Memory required for data: 800703600
I0403 13:39:18.141069 32663 layer_factory.hpp:77] Creating layer relu5
I0403 13:39:18.141094 32663 net.cpp:91] Creating Layer relu5
I0403 13:39:18.141114 32663 net.cpp:425] relu5 <- conv5
I0403 13:39:18.141135 32663 net.cpp:386] relu5 -> conv5 (in-place)
I0403 13:39:18.141430 32663 net.cpp:141] Setting up relu5
I0403 13:39:18.141460 32663 net.cpp:148] Top shape: 100 256 13 13 (4326400)
I0403 13:39:18.141477 32663 net.cpp:156] Memory required for data: 818009200
I0403 13:39:18.141494 32663 layer_factory.hpp:77] Creating layer pool5
I0403 13:39:18.141520 32663 net.cpp:91] Creating Layer pool5
I0403 13:39:18.141541 32663 net.cpp:425] pool5 <- conv5
I0403 13:39:18.141566 32663 net.cpp:399] pool5 -> pool5
I0403 13:39:18.141631 32663 net.cpp:141] Setting up pool5
I0403 13:39:18.141659 32663 net.cpp:148] Top shape: 100 256 6 6 (921600)
I0403 13:39:18.141675 32663 net.cpp:156] Memory required for data: 821695600
I0403 13:39:18.141691 32663 layer_factory.hpp:77] Creating layer fc6
I0403 13:39:18.141721 32663 net.cpp:91] Creating Layer fc6
I0403 13:39:18.141741 32663 net.cpp:425] fc6 <- pool5
I0403 13:39:18.141760 32663 net.cpp:399] fc6 -> fc6
I0403 13:39:19.680305 32663 net.cpp:141] Setting up fc6
I0403 13:39:19.680348 32663 net.cpp:148] Top shape: 100 4096 (409600)
I0403 13:39:19.680367 32663 net.cpp:156] Memory required for data: 823334000
I0403 13:39:19.680389 32663 layer_factory.hpp:77] Creating layer relu6
I0403 13:39:19.680414 32663 net.cpp:91] Creating Layer relu6
I0403 13:39:19.680433 32663 net.cpp:425] relu6 <- fc6
I0403 13:39:19.680456 32663 net.cpp:386] relu6 -> fc6 (in-place)
I0403 13:39:19.680675 32663 net.cpp:141] Setting up relu6
I0403 13:39:19.680702 32663 net.cpp:148] Top shape: 100 4096 (409600)
I0403 13:39:19.680717 32663 net.cpp:156] Memory required for data: 824972400
I0403 13:39:19.680734 32663 layer_factory.hpp:77] Creating layer drop6
I0403 13:39:19.680757 32663 net.cpp:91] Creating Layer drop6
I0403 13:39:19.680775 32663 net.cpp:425] drop6 <- fc6
I0403 13:39:19.680794 32663 net.cpp:386] drop6 -> fc6 (in-place)
I0403 13:39:19.680850 32663 net.cpp:141] Setting up drop6
I0403 13:39:19.680873 32663 net.cpp:148] Top shape: 100 4096 (409600)
I0403 13:39:19.680888 32663 net.cpp:156] Memory required for data: 826610800
I0403 13:39:19.680903 32663 layer_factory.hpp:77] Creating layer fc7
I0403 13:39:19.680924 32663 net.cpp:91] Creating Layer fc7
I0403 13:39:19.680940 32663 net.cpp:425] fc7 <- fc6
I0403 13:39:19.680964 32663 net.cpp:399] fc7 -> fc7
I0403 13:39:20.357836 32663 net.cpp:141] Setting up fc7
I0403 13:39:20.357921 32663 net.cpp:148] Top shape: 100 4096 (409600)
I0403 13:39:20.357939 32663 net.cpp:156] Memory required for data: 828249200
I0403 13:39:20.357960 32663 layer_factory.hpp:77] Creating layer relu7
I0403 13:39:20.357987 32663 net.cpp:91] Creating Layer relu7
I0403 13:39:20.358007 32663 net.cpp:425] relu7 <- fc7
I0403 13:39:20.358028 32663 net.cpp:386] relu7 -> fc7 (in-place)
I0403 13:39:20.358458 32663 net.cpp:141] Setting up relu7
I0403 13:39:20.358485 32663 net.cpp:148] Top shape: 100 4096 (409600)
I0403 13:39:20.358535 32663 net.cpp:156] Memory required for data: 829887600
I0403 13:39:20.358552 32663 layer_factory.hpp:77] Creating layer drop7
I0403 13:39:20.358575 32663 net.cpp:91] Creating Layer drop7
I0403 13:39:20.358592 32663 net.cpp:425] drop7 <- fc7
I0403 13:39:20.358611 32663 net.cpp:386] drop7 -> fc7 (in-place)
I0403 13:39:20.358656 32663 net.cpp:141] Setting up drop7
I0403 13:39:20.358682 32663 net.cpp:148] Top shape: 100 4096 (409600)
I0403 13:39:20.358700 32663 net.cpp:156] Memory required for data: 831526000
I0403 13:39:20.358716 32663 layer_factory.hpp:77] Creating layer fc8_plantvillage
I0403 13:39:20.358737 32663 net.cpp:91] Creating Layer fc8_plantvillage
I0403 13:39:20.358753 32663 net.cpp:425] fc8_plantvillage <- fc7
I0403 13:39:20.358777 32663 net.cpp:399] fc8_plantvillage -> fc8_plantvillage
I0403 13:39:20.365526 32663 net.cpp:141] Setting up fc8_plantvillage
I0403 13:39:20.365556 32663 net.cpp:148] Top shape: 100 38 (3800)
I0403 13:39:20.365573 32663 net.cpp:156] Memory required for data: 831541200
I0403 13:39:20.365594 32663 layer_factory.hpp:77] Creating layer fc8_plantvillage_fc8_plantvillage_0_split
I0403 13:39:20.365617 32663 net.cpp:91] Creating Layer fc8_plantvillage_fc8_plantvillage_0_split
I0403 13:39:20.365634 32663 net.cpp:425] fc8_plantvillage_fc8_plantvillage_0_split <- fc8_plantvillage
I0403 13:39:20.365653 32663 net.cpp:399] fc8_plantvillage_fc8_plantvillage_0_split -> fc8_plantvillage_fc8_plantvillage_0_split_0
I0403 13:39:20.365675 32663 net.cpp:399] fc8_plantvillage_fc8_plantvillage_0_split -> fc8_plantvillage_fc8_plantvillage_0_split_1
I0403 13:39:20.365696 32663 net.cpp:399] fc8_plantvillage_fc8_plantvillage_0_split -> fc8_plantvillage_fc8_plantvillage_0_split_2
I0403 13:39:20.365790 32663 net.cpp:141] Setting up fc8_plantvillage_fc8_plantvillage_0_split
I0403 13:39:20.365815 32663 net.cpp:148] Top shape: 100 38 (3800)
I0403 13:39:20.365833 32663 net.cpp:148] Top shape: 100 38 (3800)
I0403 13:39:20.365850 32663 net.cpp:148] Top shape: 100 38 (3800)
I0403 13:39:20.365865 32663 net.cpp:156] Memory required for data: 831586800
I0403 13:39:20.365881 32663 layer_factory.hpp:77] Creating layer prob
I0403 13:39:20.365901 32663 net.cpp:91] Creating Layer prob
I0403 13:39:20.365918 32663 net.cpp:425] prob <- fc8_plantvillage_fc8_plantvillage_0_split_0
I0403 13:39:20.365941 32663 net.cpp:399] prob -> prob
I0403 13:39:20.366175 32663 net.cpp:141] Setting up prob
I0403 13:39:20.366201 32663 net.cpp:148] Top shape: 100 38 (3800)
I0403 13:39:20.366217 32663 net.cpp:156] Memory required for data: 831602000
I0403 13:39:20.366235 32663 layer_factory.hpp:77] Creating layer hdf5out
I0403 13:39:20.366256 32663 net.cpp:91] Creating Layer hdf5out
I0403 13:39:20.366278 32663 net.cpp:425] hdf5out <- prob
I0403 13:39:20.366297 32663 net.cpp:425] hdf5out <- label_data_1_split_0
I0403 13:39:20.368554 32663 net.cpp:141] Setting up hdf5out
…
