…
I0403 13:32:54.722451 32415 net.cpp:313] The NetState phase (1) differed from the phase (0) specified by a rule in layer data
I0403 13:32:54.722770 32415 net.cpp:49] Initializing net from parameters: 
state {
  phase: TEST
}
layer {
  name: "data"
  type: "Data"
  top: "data"
  top: "label"
  include {
    phase: TEST
  }
  transform_param {
    crop_size: 227
    mean_file: "/home/mohanty/data/final_dataset/lmdb/segmented-20-80/mean.binaryproto"
  }
  data_param {
    source: "/home/mohanty/data/final_dataset/lmdb/segmented-20-80/test_db"
    batch_size: 100
    backend: LMDB
  }
}
layer {
  name: "conv1"
  type: "Convolution"
  bottom: "data"
  top: "conv1"
  param {
    lr_mult: 1
    decay_mult: 1
  }
  param {
    lr_mult: 2
    decay_mult: 0
  }
  convolution_param {
    num_output: 96
    kernel_size: 11
    stride: 4
    weight_filler {
      type: "gaussian"
      std: 0.01
    }
    bias_filler {
      type: "constant"
      value: 0
    }
  }
}
layer {
  name: "relu1"
  type: "ReLU"
  bottom: "conv1"
  top: "conv1"
}
layer {
  name: "norm1"
  type: "LRN"
  bottom: "conv1"
  top: "norm1"
  lrn_param {
    local_size: 5
    alpha: 0.0001
    beta: 0.75
  }
}
layer {
  name: "pool1"
  type: "Pooling"
  bottom: "norm1"
  top: "pool1"
  pooling_param {
    pool: MAX
    kernel_size: 3
    stride: 2
  }
}
layer {
  name: "conv2"
  type: "Convolution"
  bottom: "pool1"
  top: "conv2"
  param {
    lr_mult: 1
    decay_mult: 1
  }
  param {
    lr_mult: 2
    decay_mult: 0
  }
  convolution_param {
    num_output: 256
    pad: 2
    kernel_size: 5
    group: 2
    weight_filler {
      type: "gaussian"
      std: 0.01
    }
    bias_filler {
      type: "constant"
      value: 0.1
    }
  }
}
layer {
  name: "relu2"
  type: "ReLU"
  bottom: "conv2"
  top: "conv2"
}
layer {
  name: "norm2"
  type: "LRN"
  bottom: "conv2"
  top: "norm2"
  lrn_param {
    local_size: 5
    alpha: 0.0001
    beta: 0.75
  }
}
layer {
  name: "pool2"
  type: "Pooling"
  bottom: "norm2"
  top: "pool2"
  pooling_param {
    pool: MAX
    kernel_size: 3
    stride: 2
  }
}
layer {
  name: "conv3"
  type: "Convolution"
  bottom: "pool2"
  top: "conv3"
  param {
    lr_mult: 1
    decay_mult: 1
  }
  param {
    lr_mult: 2
    decay_mult: 0
  }
  convolution_param {
    num_output: 384
    pad: 1
    kernel_size: 3
    weight_filler {
      type: "gaussian"
      std: 0.01
    }
    bias_filler {
      type: "constant"
      value: 0
    }
  }
}
layer {
  name: "relu3"
  type: "ReLU"
  bottom: "conv3"
  top: "conv3"
}
layer {
  name: "conv4"
  type: "Convolution"
  bottom: "conv3"
  top: "conv4"
  param {
    lr_mult: 1
    decay_mult: 1
  }
  param {
    lr_mult: 2
    decay_mult: 0
  }
  convolution_param {
    num_output: 384
    pad: 1
    kernel_size: 3
    group: 2
    weight_filler {
      type: "gaussian"
      std: 0.01
    }
    bias_filler {
      type: "constant"
      value: 0.1
    }
  }
}
layer {
  name: "relu4"
  type: "ReLU"
  bottom: "conv4"
  top: "conv4"
}
layer {
  name: "conv5"
  type: "Convolution"
  bottom: "conv4"
  top: "conv5"
  param {
    lr_mult: 1
    decay_mult: 1
  }
  param {
    lr_mult: 2
    decay_mult: 0
  }
  convolution_param {
    num_output: 256
    pad: 1
    kernel_size: 3
    group: 2
    weight_filler {
      type: "gaussian"
      std: 0.01
    }
    bias_filler {
      type: "constant"
      value: 0.1
    }
  }
}
layer {
  name: "relu5"
  type: "ReLU"
  bottom: "conv5"
  top: "conv5"
}
layer {
  name: "pool5"
  type: "Pooling"
  bottom: "conv5"
  top: "pool5"
  pooling_param {
    pool: MAX
    kernel_size: 3
    stride: 2
  }
}
layer {
  name: "fc6"
  type: "InnerProduct"
  bottom: "pool5"
  top: "fc6"
  param {
    lr_mult: 1
    decay_mult: 1
  }
  param {
    lr_mult: 2
    decay_mult: 0
  }
  inner_product_param {
    num_output: 4096
    weight_filler {
      type: "gaussian"
      std: 0.005
    }
    bias_filler {
      type: "constant"
      value: 0.1
    }
  }
}
layer {
  name: "relu6"
  type: "ReLU"
  bottom: "fc6"
  top: "fc6"
}
layer {
  name: "drop6"
  type: "Dropout"
  bottom: "fc6"
  top: "fc6"
  dropout_param {
    dropout_ratio: 0.5
  }
}
layer {
  name: "fc7"
  type: "InnerProduct"
  bottom: "fc6"
  top: "fc7"
  param {
    lr_mult: 1
    decay_mult: 1
  }
  param {
    lr_mult: 2
    decay_mult: 0
  }
  inner_product_param {
    num_output: 4096
    weight_filler {
      type: "gaussian"
      std: 0.005
    }
    bias_filler {
      type: "constant"
      value: 0.1
    }
  }
}
layer {
  name: "relu7"
  type: "ReLU"
  bottom: "fc7"
  top: "fc7"
}
layer {
  name: "drop7"
  type: "Dropout"
  bottom: "fc7"
  top: "fc7"
  dropout_param {
    dropout_ratio: 0.5
  }
}
layer {
  name: "fc8_plantvillage"
  type: "InnerProduct"
  bottom: "fc7"
  top: "fc8_plantvillage"
  param {
    lr_mult: 1
    decay_mult: 1
  }
  param {
    lr_mult: 2
    decay_mult: 0
  }
  inner_product_param {
    num_output: 38
    weight_filler {
      type: "gaussian"
      std: 0.01
    }
    bias_filler {
      type: "constant"
      value: 0
    }
  }
}
layer {
  name: "prob"
  type: "Softmax"
  bottom: "fc8_plantvillage"
  top: "prob"
  include {
    phase: TEST
  }
}
layer {
  name: "hdf5out"
  type: "HDF5Output"
  bottom: "prob"
  bottom: "label"
  include {
    phase: TEST
  }
  hdf5_output_param {
    file_name: "hdf5_dumps/iter_530.h5"
  }
}
layer {
  name: "loss"
  type: "SoftmaxWithLoss"
  bottom: "fc8_plantvillage"
  bottom: "label"
  top: "loss"
}
layer {
  name: "accuracy"
  type: "Accuracy"
  bottom: "fc8_plantvillage"
  bottom: "label"
  top: "accuracy"
  include {
    phase: TEST
  }
}
I0403 13:32:54.723338 32415 layer_factory.hpp:77] Creating layer data
I0403 13:32:54.724002 32415 net.cpp:91] Creating Layer data
I0403 13:32:54.724032 32415 net.cpp:399] data -> data
I0403 13:32:54.724086 32415 net.cpp:399] data -> label
I0403 13:32:54.724123 32415 data_transformer.cpp:25] Loading mean file from: /home/mohanty/data/final_dataset/lmdb/segmented-20-80/mean.binaryproto
I0403 13:32:54.727666 32419 db_lmdb.cpp:38] Opened lmdb /home/mohanty/data/final_dataset/lmdb/segmented-20-80/test_db
I0403 13:32:54.738675 32415 data_layer.cpp:41] output data size: 100,3,227,227
I0403 13:32:54.856607 32415 net.cpp:141] Setting up data
I0403 13:32:54.856714 32415 net.cpp:148] Top shape: 100 3 227 227 (15458700)
I0403 13:32:54.856736 32415 net.cpp:148] Top shape: 100 (100)
I0403 13:32:54.856753 32415 net.cpp:156] Memory required for data: 61835200
I0403 13:32:54.856781 32415 layer_factory.hpp:77] Creating layer label_data_1_split
I0403 13:32:54.856806 32415 net.cpp:91] Creating Layer label_data_1_split
I0403 13:32:54.856824 32415 net.cpp:425] label_data_1_split <- label
I0403 13:32:54.856855 32415 net.cpp:399] label_data_1_split -> label_data_1_split_0
I0403 13:32:54.856881 32415 net.cpp:399] label_data_1_split -> label_data_1_split_1
I0403 13:32:54.856901 32415 net.cpp:399] label_data_1_split -> label_data_1_split_2
I0403 13:32:54.856963 32415 net.cpp:141] Setting up label_data_1_split
I0403 13:32:54.856986 32415 net.cpp:148] Top shape: 100 (100)
I0403 13:32:54.857003 32415 net.cpp:148] Top shape: 100 (100)
I0403 13:32:54.857019 32415 net.cpp:148] Top shape: 100 (100)
I0403 13:32:54.857033 32415 net.cpp:156] Memory required for data: 61836400
I0403 13:32:54.857048 32415 layer_factory.hpp:77] Creating layer conv1
I0403 13:32:54.857079 32415 net.cpp:91] Creating Layer conv1
I0403 13:32:54.857097 32415 net.cpp:425] conv1 <- data
I0403 13:32:54.857116 32415 net.cpp:399] conv1 -> conv1
I0403 13:32:54.992694 32415 net.cpp:141] Setting up conv1
I0403 13:32:54.992759 32415 net.cpp:148] Top shape: 100 96 55 55 (29040000)
I0403 13:32:54.992777 32415 net.cpp:156] Memory required for data: 177996400
I0403 13:32:54.992807 32415 layer_factory.hpp:77] Creating layer relu1
I0403 13:32:54.992833 32415 net.cpp:91] Creating Layer relu1
I0403 13:32:54.992851 32415 net.cpp:425] relu1 <- conv1
I0403 13:32:54.992871 32415 net.cpp:386] relu1 -> conv1 (in-place)
I0403 13:32:54.993134 32415 net.cpp:141] Setting up relu1
I0403 13:32:54.993163 32415 net.cpp:148] Top shape: 100 96 55 55 (29040000)
I0403 13:32:54.993207 32415 net.cpp:156] Memory required for data: 294156400
I0403 13:32:54.993224 32415 layer_factory.hpp:77] Creating layer norm1
I0403 13:32:54.993252 32415 net.cpp:91] Creating Layer norm1
I0403 13:32:54.993275 32415 net.cpp:425] norm1 <- conv1
I0403 13:32:54.993294 32415 net.cpp:399] norm1 -> norm1
I0403 13:32:54.993665 32415 net.cpp:141] Setting up norm1
I0403 13:32:54.993693 32415 net.cpp:148] Top shape: 100 96 55 55 (29040000)
I0403 13:32:54.993710 32415 net.cpp:156] Memory required for data: 410316400
I0403 13:32:54.993724 32415 layer_factory.hpp:77] Creating layer pool1
I0403 13:32:54.993749 32415 net.cpp:91] Creating Layer pool1
I0403 13:32:54.993767 32415 net.cpp:425] pool1 <- norm1
I0403 13:32:54.993784 32415 net.cpp:399] pool1 -> pool1
I0403 13:32:54.993870 32415 net.cpp:141] Setting up pool1
I0403 13:32:54.993894 32415 net.cpp:148] Top shape: 100 96 27 27 (6998400)
I0403 13:32:54.993908 32415 net.cpp:156] Memory required for data: 438310000
I0403 13:32:54.993923 32415 layer_factory.hpp:77] Creating layer conv2
I0403 13:32:54.993948 32415 net.cpp:91] Creating Layer conv2
I0403 13:32:54.993965 32415 net.cpp:425] conv2 <- pool1
I0403 13:32:54.993985 32415 net.cpp:399] conv2 -> conv2
I0403 13:32:55.008517 32415 net.cpp:141] Setting up conv2
I0403 13:32:55.008558 32415 net.cpp:148] Top shape: 100 256 27 27 (18662400)
I0403 13:32:55.008574 32415 net.cpp:156] Memory required for data: 512959600
I0403 13:32:55.008594 32415 layer_factory.hpp:77] Creating layer relu2
I0403 13:32:55.008618 32415 net.cpp:91] Creating Layer relu2
I0403 13:32:55.008635 32415 net.cpp:425] relu2 <- conv2
I0403 13:32:55.008651 32415 net.cpp:386] relu2 -> conv2 (in-place)
I0403 13:32:55.008922 32415 net.cpp:141] Setting up relu2
I0403 13:32:55.008949 32415 net.cpp:148] Top shape: 100 256 27 27 (18662400)
I0403 13:32:55.008963 32415 net.cpp:156] Memory required for data: 587609200
I0403 13:32:55.008977 32415 layer_factory.hpp:77] Creating layer norm2
I0403 13:32:55.009001 32415 net.cpp:91] Creating Layer norm2
I0403 13:32:55.009016 32415 net.cpp:425] norm2 <- conv2
I0403 13:32:55.009037 32415 net.cpp:399] norm2 -> norm2
I0403 13:32:55.009227 32415 net.cpp:141] Setting up norm2
I0403 13:32:55.009253 32415 net.cpp:148] Top shape: 100 256 27 27 (18662400)
I0403 13:32:55.009265 32415 net.cpp:156] Memory required for data: 662258800
I0403 13:32:55.009284 32415 layer_factory.hpp:77] Creating layer pool2
I0403 13:32:55.009302 32415 net.cpp:91] Creating Layer pool2
I0403 13:32:55.009317 32415 net.cpp:425] pool2 <- norm2
I0403 13:32:55.009337 32415 net.cpp:399] pool2 -> pool2
I0403 13:32:55.009388 32415 net.cpp:141] Setting up pool2
I0403 13:32:55.009410 32415 net.cpp:148] Top shape: 100 256 13 13 (4326400)
I0403 13:32:55.009425 32415 net.cpp:156] Memory required for data: 679564400
I0403 13:32:55.009439 32415 layer_factory.hpp:77] Creating layer conv3
I0403 13:32:55.009464 32415 net.cpp:91] Creating Layer conv3
I0403 13:32:55.009480 32415 net.cpp:425] conv3 <- pool2
I0403 13:32:55.009498 32415 net.cpp:399] conv3 -> conv3
I0403 13:32:55.047430 32415 net.cpp:141] Setting up conv3
I0403 13:32:55.047493 32415 net.cpp:148] Top shape: 100 384 13 13 (6489600)
I0403 13:32:55.047509 32415 net.cpp:156] Memory required for data: 705522800
I0403 13:32:55.047533 32415 layer_factory.hpp:77] Creating layer relu3
I0403 13:32:55.047557 32415 net.cpp:91] Creating Layer relu3
I0403 13:32:55.047575 32415 net.cpp:425] relu3 <- conv3
I0403 13:32:55.047592 32415 net.cpp:386] relu3 -> conv3 (in-place)
I0403 13:32:55.047870 32415 net.cpp:141] Setting up relu3
I0403 13:32:55.047897 32415 net.cpp:148] Top shape: 100 384 13 13 (6489600)
I0403 13:32:55.047912 32415 net.cpp:156] Memory required for data: 731481200
I0403 13:32:55.047929 32415 layer_factory.hpp:77] Creating layer conv4
I0403 13:32:55.047952 32415 net.cpp:91] Creating Layer conv4
I0403 13:32:55.047969 32415 net.cpp:425] conv4 <- conv3
I0403 13:32:55.047991 32415 net.cpp:399] conv4 -> conv4
I0403 13:32:55.077453 32415 net.cpp:141] Setting up conv4
I0403 13:32:55.077505 32415 net.cpp:148] Top shape: 100 384 13 13 (6489600)
I0403 13:32:55.077550 32415 net.cpp:156] Memory required for data: 757439600
I0403 13:32:55.077571 32415 layer_factory.hpp:77] Creating layer relu4
I0403 13:32:55.077590 32415 net.cpp:91] Creating Layer relu4
I0403 13:32:55.077605 32415 net.cpp:425] relu4 <- conv4
I0403 13:32:55.077625 32415 net.cpp:386] relu4 -> conv4 (in-place)
I0403 13:32:55.077900 32415 net.cpp:141] Setting up relu4
I0403 13:32:55.077926 32415 net.cpp:148] Top shape: 100 384 13 13 (6489600)
I0403 13:32:55.077941 32415 net.cpp:156] Memory required for data: 783398000
I0403 13:32:55.077956 32415 layer_factory.hpp:77] Creating layer conv5
I0403 13:32:55.077980 32415 net.cpp:91] Creating Layer conv5
I0403 13:32:55.077997 32415 net.cpp:425] conv5 <- conv4
I0403 13:32:55.078018 32415 net.cpp:399] conv5 -> conv5
I0403 13:32:55.097890 32415 net.cpp:141] Setting up conv5
I0403 13:32:55.097929 32415 net.cpp:148] Top shape: 100 256 13 13 (4326400)
I0403 13:32:55.097945 32415 net.cpp:156] Memory required for data: 800703600
I0403 13:32:55.097967 32415 layer_factory.hpp:77] Creating layer relu5
I0403 13:32:55.097986 32415 net.cpp:91] Creating Layer relu5
I0403 13:32:55.098002 32415 net.cpp:425] relu5 <- conv5
I0403 13:32:55.098023 32415 net.cpp:386] relu5 -> conv5 (in-place)
I0403 13:32:55.098297 32415 net.cpp:141] Setting up relu5
I0403 13:32:55.098325 32415 net.cpp:148] Top shape: 100 256 13 13 (4326400)
I0403 13:32:55.098338 32415 net.cpp:156] Memory required for data: 818009200
I0403 13:32:55.098353 32415 layer_factory.hpp:77] Creating layer pool5
I0403 13:32:55.098376 32415 net.cpp:91] Creating Layer pool5
I0403 13:32:55.098393 32415 net.cpp:425] pool5 <- conv5
I0403 13:32:55.098412 32415 net.cpp:399] pool5 -> pool5
I0403 13:32:55.098471 32415 net.cpp:141] Setting up pool5
I0403 13:32:55.098495 32415 net.cpp:148] Top shape: 100 256 6 6 (921600)
I0403 13:32:55.098508 32415 net.cpp:156] Memory required for data: 821695600
I0403 13:32:55.098522 32415 layer_factory.hpp:77] Creating layer fc6
I0403 13:32:55.098551 32415 net.cpp:91] Creating Layer fc6
I0403 13:32:55.098568 32415 net.cpp:425] fc6 <- pool5
I0403 13:32:55.098587 32415 net.cpp:399] fc6 -> fc6
I0403 13:32:56.617957 32415 net.cpp:141] Setting up fc6
I0403 13:32:56.618047 32415 net.cpp:148] Top shape: 100 4096 (409600)
I0403 13:32:56.618062 32415 net.cpp:156] Memory required for data: 823334000
I0403 13:32:56.618084 32415 layer_factory.hpp:77] Creating layer relu6
I0403 13:32:56.618105 32415 net.cpp:91] Creating Layer relu6
I0403 13:32:56.618121 32415 net.cpp:425] relu6 <- fc6
I0403 13:32:56.618142 32415 net.cpp:386] relu6 -> fc6 (in-place)
I0403 13:32:56.618368 32415 net.cpp:141] Setting up relu6
I0403 13:32:56.618392 32415 net.cpp:148] Top shape: 100 4096 (409600)
I0403 13:32:56.618407 32415 net.cpp:156] Memory required for data: 824972400
I0403 13:32:56.618420 32415 layer_factory.hpp:77] Creating layer drop6
I0403 13:32:56.618438 32415 net.cpp:91] Creating Layer drop6
I0403 13:32:56.618453 32415 net.cpp:425] drop6 <- fc6
I0403 13:32:56.618470 32415 net.cpp:386] drop6 -> fc6 (in-place)
I0403 13:32:56.618522 32415 net.cpp:141] Setting up drop6
I0403 13:32:56.618547 32415 net.cpp:148] Top shape: 100 4096 (409600)
I0403 13:32:56.618561 32415 net.cpp:156] Memory required for data: 826610800
I0403 13:32:56.618576 32415 layer_factory.hpp:77] Creating layer fc7
I0403 13:32:56.618593 32415 net.cpp:91] Creating Layer fc7
I0403 13:32:56.618607 32415 net.cpp:425] fc7 <- fc6
I0403 13:32:56.618626 32415 net.cpp:399] fc7 -> fc7
I0403 13:32:57.318470 32415 net.cpp:141] Setting up fc7
I0403 13:32:57.318553 32415 net.cpp:148] Top shape: 100 4096 (409600)
I0403 13:32:57.318570 32415 net.cpp:156] Memory required for data: 828249200
I0403 13:32:57.318593 32415 layer_factory.hpp:77] Creating layer relu7
I0403 13:32:57.318617 32415 net.cpp:91] Creating Layer relu7
I0403 13:32:57.318636 32415 net.cpp:425] relu7 <- fc7
I0403 13:32:57.318656 32415 net.cpp:386] relu7 -> fc7 (in-place)
I0403 13:32:57.319095 32415 net.cpp:141] Setting up relu7
I0403 13:32:57.319123 32415 net.cpp:148] Top shape: 100 4096 (409600)
I0403 13:32:57.319171 32415 net.cpp:156] Memory required for data: 829887600
I0403 13:32:57.319187 32415 layer_factory.hpp:77] Creating layer drop7
I0403 13:32:57.319207 32415 net.cpp:91] Creating Layer drop7
I0403 13:32:57.319223 32415 net.cpp:425] drop7 <- fc7
I0403 13:32:57.319244 32415 net.cpp:386] drop7 -> fc7 (in-place)
I0403 13:32:57.319295 32415 net.cpp:141] Setting up drop7
I0403 13:32:57.319322 32415 net.cpp:148] Top shape: 100 4096 (409600)
I0403 13:32:57.319339 32415 net.cpp:156] Memory required for data: 831526000
I0403 13:32:57.319353 32415 layer_factory.hpp:77] Creating layer fc8_plantvillage
I0403 13:32:57.319373 32415 net.cpp:91] Creating Layer fc8_plantvillage
I0403 13:32:57.319389 32415 net.cpp:425] fc8_plantvillage <- fc7
I0403 13:32:57.319411 32415 net.cpp:399] fc8_plantvillage -> fc8_plantvillage
I0403 13:32:57.326556 32415 net.cpp:141] Setting up fc8_plantvillage
I0403 13:32:57.326587 32415 net.cpp:148] Top shape: 100 38 (3800)
I0403 13:32:57.326603 32415 net.cpp:156] Memory required for data: 831541200
I0403 13:32:57.326622 32415 layer_factory.hpp:77] Creating layer fc8_plantvillage_fc8_plantvillage_0_split
I0403 13:32:57.326643 32415 net.cpp:91] Creating Layer fc8_plantvillage_fc8_plantvillage_0_split
I0403 13:32:57.326661 32415 net.cpp:425] fc8_plantvillage_fc8_plantvillage_0_split <- fc8_plantvillage
I0403 13:32:57.326679 32415 net.cpp:399] fc8_plantvillage_fc8_plantvillage_0_split -> fc8_plantvillage_fc8_plantvillage_0_split_0
I0403 13:32:57.326700 32415 net.cpp:399] fc8_plantvillage_fc8_plantvillage_0_split -> fc8_plantvillage_fc8_plantvillage_0_split_1
I0403 13:32:57.326720 32415 net.cpp:399] fc8_plantvillage_fc8_plantvillage_0_split -> fc8_plantvillage_fc8_plantvillage_0_split_2
I0403 13:32:57.326800 32415 net.cpp:141] Setting up fc8_plantvillage_fc8_plantvillage_0_split
I0403 13:32:57.326824 32415 net.cpp:148] Top shape: 100 38 (3800)
I0403 13:32:57.326841 32415 net.cpp:148] Top shape: 100 38 (3800)
I0403 13:32:57.326858 32415 net.cpp:148] Top shape: 100 38 (3800)
I0403 13:32:57.326872 32415 net.cpp:156] Memory required for data: 831586800
I0403 13:32:57.326887 32415 layer_factory.hpp:77] Creating layer prob
I0403 13:32:57.326906 32415 net.cpp:91] Creating Layer prob
I0403 13:32:57.326923 32415 net.cpp:425] prob <- fc8_plantvillage_fc8_plantvillage_0_split_0
I0403 13:32:57.326944 32415 net.cpp:399] prob -> prob
I0403 13:32:57.327188 32415 net.cpp:141] Setting up prob
I0403 13:32:57.327214 32415 net.cpp:148] Top shape: 100 38 (3800)
I0403 13:32:57.327229 32415 net.cpp:156] Memory required for data: 831602000
I0403 13:32:57.327244 32415 layer_factory.hpp:77] Creating layer hdf5out
I0403 13:32:57.327265 32415 net.cpp:91] Creating Layer hdf5out
I0403 13:32:57.327291 32415 net.cpp:425] hdf5out <- prob
I0403 13:32:57.327308 32415 net.cpp:425] hdf5out <- label_data_1_split_0
I0403 13:32:57.330432 32415 net.cpp:141] Setting up hdf5out
…
