…
I0403 13:52:05.737833   447 net.cpp:313] The NetState phase (1) differed from the phase (0) specified by a rule in layer data
I0403 13:52:05.738147   447 net.cpp:49] Initializing net from parameters: 
state {
  phase: TEST
}
layer {
  name: "data"
  type: "Data"
  top: "data"
  top: "label"
  include {
    phase: TEST
  }
  transform_param {
    crop_size: 227
    mean_file: "/home/mohanty/data/final_dataset/lmdb/segmented-20-80/mean.binaryproto"
  }
  data_param {
    source: "/home/mohanty/data/final_dataset/lmdb/segmented-20-80/test_db"
    batch_size: 100
    backend: LMDB
  }
}
layer {
  name: "conv1"
  type: "Convolution"
  bottom: "data"
  top: "conv1"
  param {
    lr_mult: 1
    decay_mult: 1
  }
  param {
    lr_mult: 2
    decay_mult: 0
  }
  convolution_param {
    num_output: 96
    kernel_size: 11
    stride: 4
    weight_filler {
      type: "gaussian"
      std: 0.01
    }
    bias_filler {
      type: "constant"
      value: 0
    }
  }
}
layer {
  name: "relu1"
  type: "ReLU"
  bottom: "conv1"
  top: "conv1"
}
layer {
  name: "norm1"
  type: "LRN"
  bottom: "conv1"
  top: "norm1"
  lrn_param {
    local_size: 5
    alpha: 0.0001
    beta: 0.75
  }
}
layer {
  name: "pool1"
  type: "Pooling"
  bottom: "norm1"
  top: "pool1"
  pooling_param {
    pool: MAX
    kernel_size: 3
    stride: 2
  }
}
layer {
  name: "conv2"
  type: "Convolution"
  bottom: "pool1"
  top: "conv2"
  param {
    lr_mult: 1
    decay_mult: 1
  }
  param {
    lr_mult: 2
    decay_mult: 0
  }
  convolution_param {
    num_output: 256
    pad: 2
    kernel_size: 5
    group: 2
    weight_filler {
      type: "gaussian"
      std: 0.01
    }
    bias_filler {
      type: "constant"
      value: 0.1
    }
  }
}
layer {
  name: "relu2"
  type: "ReLU"
  bottom: "conv2"
  top: "conv2"
}
layer {
  name: "norm2"
  type: "LRN"
  bottom: "conv2"
  top: "norm2"
  lrn_param {
    local_size: 5
    alpha: 0.0001
    beta: 0.75
  }
}
layer {
  name: "pool2"
  type: "Pooling"
  bottom: "norm2"
  top: "pool2"
  pooling_param {
    pool: MAX
    kernel_size: 3
    stride: 2
  }
}
layer {
  name: "conv3"
  type: "Convolution"
  bottom: "pool2"
  top: "conv3"
  param {
    lr_mult: 1
    decay_mult: 1
  }
  param {
    lr_mult: 2
    decay_mult: 0
  }
  convolution_param {
    num_output: 384
    pad: 1
    kernel_size: 3
    weight_filler {
      type: "gaussian"
      std: 0.01
    }
    bias_filler {
      type: "constant"
      value: 0
    }
  }
}
layer {
  name: "relu3"
  type: "ReLU"
  bottom: "conv3"
  top: "conv3"
}
layer {
  name: "conv4"
  type: "Convolution"
  bottom: "conv3"
  top: "conv4"
  param {
    lr_mult: 1
    decay_mult: 1
  }
  param {
    lr_mult: 2
    decay_mult: 0
  }
  convolution_param {
    num_output: 384
    pad: 1
    kernel_size: 3
    group: 2
    weight_filler {
      type: "gaussian"
      std: 0.01
    }
    bias_filler {
      type: "constant"
      value: 0.1
    }
  }
}
layer {
  name: "relu4"
  type: "ReLU"
  bottom: "conv4"
  top: "conv4"
}
layer {
  name: "conv5"
  type: "Convolution"
  bottom: "conv4"
  top: "conv5"
  param {
    lr_mult: 1
    decay_mult: 1
  }
  param {
    lr_mult: 2
    decay_mult: 0
  }
  convolution_param {
    num_output: 256
    pad: 1
    kernel_size: 3
    group: 2
    weight_filler {
      type: "gaussian"
      std: 0.01
    }
    bias_filler {
      type: "constant"
      value: 0.1
    }
  }
}
layer {
  name: "relu5"
  type: "ReLU"
  bottom: "conv5"
  top: "conv5"
}
layer {
  name: "pool5"
  type: "Pooling"
  bottom: "conv5"
  top: "pool5"
  pooling_param {
    pool: MAX
    kernel_size: 3
    stride: 2
  }
}
layer {
  name: "fc6"
  type: "InnerProduct"
  bottom: "pool5"
  top: "fc6"
  param {
    lr_mult: 1
    decay_mult: 1
  }
  param {
    lr_mult: 2
    decay_mult: 0
  }
  inner_product_param {
    num_output: 4096
    weight_filler {
      type: "gaussian"
      std: 0.005
    }
    bias_filler {
      type: "constant"
      value: 0.1
    }
  }
}
layer {
  name: "relu6"
  type: "ReLU"
  bottom: "fc6"
  top: "fc6"
}
layer {
  name: "drop6"
  type: "Dropout"
  bottom: "fc6"
  top: "fc6"
  dropout_param {
    dropout_ratio: 0.5
  }
}
layer {
  name: "fc7"
  type: "InnerProduct"
  bottom: "fc6"
  top: "fc7"
  param {
    lr_mult: 1
    decay_mult: 1
  }
  param {
    lr_mult: 2
    decay_mult: 0
  }
  inner_product_param {
    num_output: 4096
    weight_filler {
      type: "gaussian"
      std: 0.005
    }
    bias_filler {
      type: "constant"
      value: 0.1
    }
  }
}
layer {
  name: "relu7"
  type: "ReLU"
  bottom: "fc7"
  top: "fc7"
}
layer {
  name: "drop7"
  type: "Dropout"
  bottom: "fc7"
  top: "fc7"
  dropout_param {
    dropout_ratio: 0.5
  }
}
layer {
  name: "fc8_plantvillage"
  type: "InnerProduct"
  bottom: "fc7"
  top: "fc8_plantvillage"
  param {
    lr_mult: 1
    decay_mult: 1
  }
  param {
    lr_mult: 2
    decay_mult: 0
  }
  inner_product_param {
    num_output: 38
    weight_filler {
      type: "gaussian"
      std: 0.01
    }
    bias_filler {
      type: "constant"
      value: 0
    }
  }
}
layer {
  name: "prob"
  type: "Softmax"
  bottom: "fc8_plantvillage"
  top: "prob"
  include {
    phase: TEST
  }
}
layer {
  name: "hdf5out"
  type: "HDF5Output"
  bottom: "prob"
  bottom: "label"
  include {
    phase: TEST
  }
  hdf5_output_param {
    file_name: "hdf5_dumps/iter_2120.h5"
  }
}
layer {
  name: "loss"
  type: "SoftmaxWithLoss"
  bottom: "fc8_plantvillage"
  bottom: "label"
  top: "loss"
}
layer {
  name: "accuracy"
  type: "Accuracy"
  bottom: "fc8_plantvillage"
  bottom: "label"
  top: "accuracy"
  include {
    phase: TEST
  }
}
I0403 13:52:05.738751   447 layer_factory.hpp:77] Creating layer data
I0403 13:52:05.739418   447 net.cpp:91] Creating Layer data
I0403 13:52:05.739450   447 net.cpp:399] data -> data
I0403 13:52:05.739501   447 net.cpp:399] data -> label
I0403 13:52:05.739538   447 data_transformer.cpp:25] Loading mean file from: /home/mohanty/data/final_dataset/lmdb/segmented-20-80/mean.binaryproto
I0403 13:52:05.744371   450 db_lmdb.cpp:38] Opened lmdb /home/mohanty/data/final_dataset/lmdb/segmented-20-80/test_db
I0403 13:52:05.754014   447 data_layer.cpp:41] output data size: 100,3,227,227
I0403 13:52:05.878031   447 net.cpp:141] Setting up data
I0403 13:52:05.878088   447 net.cpp:148] Top shape: 100 3 227 227 (15458700)
I0403 13:52:05.878111   447 net.cpp:148] Top shape: 100 (100)
I0403 13:52:05.878126   447 net.cpp:156] Memory required for data: 61835200
I0403 13:52:05.878154   447 layer_factory.hpp:77] Creating layer label_data_1_split
I0403 13:52:05.878180   447 net.cpp:91] Creating Layer label_data_1_split
I0403 13:52:05.878197   447 net.cpp:425] label_data_1_split <- label
I0403 13:52:05.878229   447 net.cpp:399] label_data_1_split -> label_data_1_split_0
I0403 13:52:05.878262   447 net.cpp:399] label_data_1_split -> label_data_1_split_1
I0403 13:52:05.878283   447 net.cpp:399] label_data_1_split -> label_data_1_split_2
I0403 13:52:05.878346   447 net.cpp:141] Setting up label_data_1_split
I0403 13:52:05.878371   447 net.cpp:148] Top shape: 100 (100)
I0403 13:52:05.878387   447 net.cpp:148] Top shape: 100 (100)
I0403 13:52:05.878404   447 net.cpp:148] Top shape: 100 (100)
I0403 13:52:05.878418   447 net.cpp:156] Memory required for data: 61836400
I0403 13:52:05.878434   447 layer_factory.hpp:77] Creating layer conv1
I0403 13:52:05.878466   447 net.cpp:91] Creating Layer conv1
I0403 13:52:05.878485   447 net.cpp:425] conv1 <- data
I0403 13:52:05.878505   447 net.cpp:399] conv1 -> conv1
I0403 13:52:06.022337   447 net.cpp:141] Setting up conv1
I0403 13:52:06.022431   447 net.cpp:148] Top shape: 100 96 55 55 (29040000)
I0403 13:52:06.022450   447 net.cpp:156] Memory required for data: 177996400
I0403 13:52:06.022483   447 layer_factory.hpp:77] Creating layer relu1
I0403 13:52:06.022512   447 net.cpp:91] Creating Layer relu1
I0403 13:52:06.022532   447 net.cpp:425] relu1 <- conv1
I0403 13:52:06.022552   447 net.cpp:386] relu1 -> conv1 (in-place)
I0403 13:52:06.022857   447 net.cpp:141] Setting up relu1
I0403 13:52:06.022887   447 net.cpp:148] Top shape: 100 96 55 55 (29040000)
I0403 13:52:06.022938   447 net.cpp:156] Memory required for data: 294156400
I0403 13:52:06.022955   447 layer_factory.hpp:77] Creating layer norm1
I0403 13:52:06.022984   447 net.cpp:91] Creating Layer norm1
I0403 13:52:06.023002   447 net.cpp:425] norm1 <- conv1
I0403 13:52:06.023025   447 net.cpp:399] norm1 -> norm1
I0403 13:52:06.023371   447 net.cpp:141] Setting up norm1
I0403 13:52:06.023401   447 net.cpp:148] Top shape: 100 96 55 55 (29040000)
I0403 13:52:06.023417   447 net.cpp:156] Memory required for data: 410316400
I0403 13:52:06.023435   447 layer_factory.hpp:77] Creating layer pool1
I0403 13:52:06.023460   447 net.cpp:91] Creating Layer pool1
I0403 13:52:06.023491   447 net.cpp:425] pool1 <- norm1
I0403 13:52:06.023512   447 net.cpp:399] pool1 -> pool1
I0403 13:52:06.023584   447 net.cpp:141] Setting up pool1
I0403 13:52:06.023608   447 net.cpp:148] Top shape: 100 96 27 27 (6998400)
I0403 13:52:06.023623   447 net.cpp:156] Memory required for data: 438310000
I0403 13:52:06.023639   447 layer_factory.hpp:77] Creating layer conv2
I0403 13:52:06.023669   447 net.cpp:91] Creating Layer conv2
I0403 13:52:06.023685   447 net.cpp:425] conv2 <- pool1
I0403 13:52:06.023705   447 net.cpp:399] conv2 -> conv2
I0403 13:52:06.039434   447 net.cpp:141] Setting up conv2
I0403 13:52:06.039482   447 net.cpp:148] Top shape: 100 256 27 27 (18662400)
I0403 13:52:06.039499   447 net.cpp:156] Memory required for data: 512959600
I0403 13:52:06.039525   447 layer_factory.hpp:77] Creating layer relu2
I0403 13:52:06.039547   447 net.cpp:91] Creating Layer relu2
I0403 13:52:06.039566   447 net.cpp:425] relu2 <- conv2
I0403 13:52:06.039583   447 net.cpp:386] relu2 -> conv2 (in-place)
I0403 13:52:06.039911   447 net.cpp:141] Setting up relu2
I0403 13:52:06.039939   447 net.cpp:148] Top shape: 100 256 27 27 (18662400)
I0403 13:52:06.039955   447 net.cpp:156] Memory required for data: 587609200
I0403 13:52:06.039970   447 layer_factory.hpp:77] Creating layer norm2
I0403 13:52:06.039995   447 net.cpp:91] Creating Layer norm2
I0403 13:52:06.040014   447 net.cpp:425] norm2 <- conv2
I0403 13:52:06.040035   447 net.cpp:399] norm2 -> norm2
I0403 13:52:06.040235   447 net.cpp:141] Setting up norm2
I0403 13:52:06.040264   447 net.cpp:148] Top shape: 100 256 27 27 (18662400)
I0403 13:52:06.040280   447 net.cpp:156] Memory required for data: 662258800
I0403 13:52:06.040295   447 layer_factory.hpp:77] Creating layer pool2
I0403 13:52:06.040314   447 net.cpp:91] Creating Layer pool2
I0403 13:52:06.040330   447 net.cpp:425] pool2 <- norm2
I0403 13:52:06.040351   447 net.cpp:399] pool2 -> pool2
I0403 13:52:06.040405   447 net.cpp:141] Setting up pool2
I0403 13:52:06.040429   447 net.cpp:148] Top shape: 100 256 13 13 (4326400)
I0403 13:52:06.040444   447 net.cpp:156] Memory required for data: 679564400
I0403 13:52:06.040458   447 layer_factory.hpp:77] Creating layer conv3
I0403 13:52:06.040482   447 net.cpp:91] Creating Layer conv3
I0403 13:52:06.040500   447 net.cpp:425] conv3 <- pool2
I0403 13:52:06.040518   447 net.cpp:399] conv3 -> conv3
I0403 13:52:06.078505   447 net.cpp:141] Setting up conv3
I0403 13:52:06.078559   447 net.cpp:148] Top shape: 100 384 13 13 (6489600)
I0403 13:52:06.078575   447 net.cpp:156] Memory required for data: 705522800
I0403 13:52:06.078598   447 layer_factory.hpp:77] Creating layer relu3
I0403 13:52:06.078618   447 net.cpp:91] Creating Layer relu3
I0403 13:52:06.078634   447 net.cpp:425] relu3 <- conv3
I0403 13:52:06.078655   447 net.cpp:386] relu3 -> conv3 (in-place)
I0403 13:52:06.078956   447 net.cpp:141] Setting up relu3
I0403 13:52:06.078982   447 net.cpp:148] Top shape: 100 384 13 13 (6489600)
I0403 13:52:06.078997   447 net.cpp:156] Memory required for data: 731481200
I0403 13:52:06.079012   447 layer_factory.hpp:77] Creating layer conv4
I0403 13:52:06.079036   447 net.cpp:91] Creating Layer conv4
I0403 13:52:06.079053   447 net.cpp:425] conv4 <- conv3
I0403 13:52:06.079076   447 net.cpp:399] conv4 -> conv4
I0403 13:52:06.109642   447 net.cpp:141] Setting up conv4
I0403 13:52:06.109721   447 net.cpp:148] Top shape: 100 384 13 13 (6489600)
I0403 13:52:06.109771   447 net.cpp:156] Memory required for data: 757439600
I0403 13:52:06.109793   447 layer_factory.hpp:77] Creating layer relu4
I0403 13:52:06.109817   447 net.cpp:91] Creating Layer relu4
I0403 13:52:06.109835   447 net.cpp:425] relu4 <- conv4
I0403 13:52:06.109858   447 net.cpp:386] relu4 -> conv4 (in-place)
I0403 13:52:06.110146   447 net.cpp:141] Setting up relu4
I0403 13:52:06.110172   447 net.cpp:148] Top shape: 100 384 13 13 (6489600)
I0403 13:52:06.110188   447 net.cpp:156] Memory required for data: 783398000
I0403 13:52:06.110203   447 layer_factory.hpp:77] Creating layer conv5
I0403 13:52:06.110230   447 net.cpp:91] Creating Layer conv5
I0403 13:52:06.110254   447 net.cpp:425] conv5 <- conv4
I0403 13:52:06.110276   447 net.cpp:399] conv5 -> conv5
I0403 13:52:06.131142   447 net.cpp:141] Setting up conv5
I0403 13:52:06.131191   447 net.cpp:148] Top shape: 100 256 13 13 (4326400)
I0403 13:52:06.131206   447 net.cpp:156] Memory required for data: 800703600
I0403 13:52:06.131230   447 layer_factory.hpp:77] Creating layer relu5
I0403 13:52:06.131285   447 net.cpp:91] Creating Layer relu5
I0403 13:52:06.131309   447 net.cpp:425] relu5 <- conv5
I0403 13:52:06.131330   447 net.cpp:386] relu5 -> conv5 (in-place)
I0403 13:52:06.131600   447 net.cpp:141] Setting up relu5
I0403 13:52:06.131626   447 net.cpp:148] Top shape: 100 256 13 13 (4326400)
I0403 13:52:06.131641   447 net.cpp:156] Memory required for data: 818009200
I0403 13:52:06.131656   447 layer_factory.hpp:77] Creating layer pool5
I0403 13:52:06.131680   447 net.cpp:91] Creating Layer pool5
I0403 13:52:06.131698   447 net.cpp:425] pool5 <- conv5
I0403 13:52:06.131716   447 net.cpp:399] pool5 -> pool5
I0403 13:52:06.131775   447 net.cpp:141] Setting up pool5
I0403 13:52:06.131798   447 net.cpp:148] Top shape: 100 256 6 6 (921600)
I0403 13:52:06.131813   447 net.cpp:156] Memory required for data: 821695600
I0403 13:52:06.131827   447 layer_factory.hpp:77] Creating layer fc6
I0403 13:52:06.131855   447 net.cpp:91] Creating Layer fc6
I0403 13:52:06.131871   447 net.cpp:425] fc6 <- pool5
I0403 13:52:06.131892   447 net.cpp:399] fc6 -> fc6
I0403 13:52:07.722090   447 net.cpp:141] Setting up fc6
I0403 13:52:07.722132   447 net.cpp:148] Top shape: 100 4096 (409600)
I0403 13:52:07.722148   447 net.cpp:156] Memory required for data: 823334000
I0403 13:52:07.722170   447 layer_factory.hpp:77] Creating layer relu6
I0403 13:52:07.722190   447 net.cpp:91] Creating Layer relu6
I0403 13:52:07.722208   447 net.cpp:425] relu6 <- fc6
I0403 13:52:07.722226   447 net.cpp:386] relu6 -> fc6 (in-place)
I0403 13:52:07.722446   447 net.cpp:141] Setting up relu6
I0403 13:52:07.722471   447 net.cpp:148] Top shape: 100 4096 (409600)
I0403 13:52:07.722486   447 net.cpp:156] Memory required for data: 824972400
I0403 13:52:07.722501   447 layer_factory.hpp:77] Creating layer drop6
I0403 13:52:07.722518   447 net.cpp:91] Creating Layer drop6
I0403 13:52:07.722533   447 net.cpp:425] drop6 <- fc6
I0403 13:52:07.722553   447 net.cpp:386] drop6 -> fc6 (in-place)
I0403 13:52:07.722602   447 net.cpp:141] Setting up drop6
I0403 13:52:07.722628   447 net.cpp:148] Top shape: 100 4096 (409600)
I0403 13:52:07.722643   447 net.cpp:156] Memory required for data: 826610800
I0403 13:52:07.722658   447 layer_factory.hpp:77] Creating layer fc7
I0403 13:52:07.722677   447 net.cpp:91] Creating Layer fc7
I0403 13:52:07.722693   447 net.cpp:425] fc7 <- fc6
I0403 13:52:07.722712   447 net.cpp:399] fc7 -> fc7
I0403 13:52:08.423406   447 net.cpp:141] Setting up fc7
I0403 13:52:08.423447   447 net.cpp:148] Top shape: 100 4096 (409600)
I0403 13:52:08.423463   447 net.cpp:156] Memory required for data: 828249200
I0403 13:52:08.423485   447 layer_factory.hpp:77] Creating layer relu7
I0403 13:52:08.423506   447 net.cpp:91] Creating Layer relu7
I0403 13:52:08.423523   447 net.cpp:425] relu7 <- fc7
I0403 13:52:08.423544   447 net.cpp:386] relu7 -> fc7 (in-place)
I0403 13:52:08.423948   447 net.cpp:141] Setting up relu7
I0403 13:52:08.423974   447 net.cpp:148] Top shape: 100 4096 (409600)
I0403 13:52:08.424007   447 net.cpp:156] Memory required for data: 829887600
I0403 13:52:08.424022   447 layer_factory.hpp:77] Creating layer drop7
I0403 13:52:08.424041   447 net.cpp:91] Creating Layer drop7
I0403 13:52:08.424057   447 net.cpp:425] drop7 <- fc7
I0403 13:52:08.424075   447 net.cpp:386] drop7 -> fc7 (in-place)
I0403 13:52:08.424119   447 net.cpp:141] Setting up drop7
I0403 13:52:08.424144   447 net.cpp:148] Top shape: 100 4096 (409600)
I0403 13:52:08.424160   447 net.cpp:156] Memory required for data: 831526000
I0403 13:52:08.424175   447 layer_factory.hpp:77] Creating layer fc8_plantvillage
I0403 13:52:08.424195   447 net.cpp:91] Creating Layer fc8_plantvillage
I0403 13:52:08.424209   447 net.cpp:425] fc8_plantvillage <- fc7
I0403 13:52:08.424231   447 net.cpp:399] fc8_plantvillage -> fc8_plantvillage
I0403 13:52:08.430932   447 net.cpp:141] Setting up fc8_plantvillage
I0403 13:52:08.430959   447 net.cpp:148] Top shape: 100 38 (3800)
I0403 13:52:08.430974   447 net.cpp:156] Memory required for data: 831541200
I0403 13:52:08.430991   447 layer_factory.hpp:77] Creating layer fc8_plantvillage_fc8_plantvillage_0_split
I0403 13:52:08.431012   447 net.cpp:91] Creating Layer fc8_plantvillage_fc8_plantvillage_0_split
I0403 13:52:08.431027   447 net.cpp:425] fc8_plantvillage_fc8_plantvillage_0_split <- fc8_plantvillage
I0403 13:52:08.431044   447 net.cpp:399] fc8_plantvillage_fc8_plantvillage_0_split -> fc8_plantvillage_fc8_plantvillage_0_split_0
I0403 13:52:08.431064   447 net.cpp:399] fc8_plantvillage_fc8_plantvillage_0_split -> fc8_plantvillage_fc8_plantvillage_0_split_1
I0403 13:52:08.431084   447 net.cpp:399] fc8_plantvillage_fc8_plantvillage_0_split -> fc8_plantvillage_fc8_plantvillage_0_split_2
I0403 13:52:08.431159   447 net.cpp:141] Setting up fc8_plantvillage_fc8_plantvillage_0_split
I0403 13:52:08.431182   447 net.cpp:148] Top shape: 100 38 (3800)
I0403 13:52:08.431197   447 net.cpp:148] Top shape: 100 38 (3800)
I0403 13:52:08.431212   447 net.cpp:148] Top shape: 100 38 (3800)
I0403 13:52:08.431226   447 net.cpp:156] Memory required for data: 831586800
I0403 13:52:08.431244   447 layer_factory.hpp:77] Creating layer prob
I0403 13:52:08.431263   447 net.cpp:91] Creating Layer prob
I0403 13:52:08.431279   447 net.cpp:425] prob <- fc8_plantvillage_fc8_plantvillage_0_split_0
I0403 13:52:08.431298   447 net.cpp:399] prob -> prob
I0403 13:52:08.431514   447 net.cpp:141] Setting up prob
I0403 13:52:08.431538   447 net.cpp:148] Top shape: 100 38 (3800)
I0403 13:52:08.431552   447 net.cpp:156] Memory required for data: 831602000
I0403 13:52:08.431567   447 layer_factory.hpp:77] Creating layer hdf5out
I0403 13:52:08.431586   447 net.cpp:91] Creating Layer hdf5out
I0403 13:52:08.431601   447 net.cpp:425] hdf5out <- prob
I0403 13:52:08.431617   447 net.cpp:425] hdf5out <- label_data_1_split_0
I0403 13:52:08.433784   447 net.cpp:141] Setting up hdf5out
…
