…
I0403 13:53:21.998352   465 net.cpp:313] The NetState phase (1) differed from the phase (0) specified by a rule in layer data
I0403 13:53:21.998636   465 net.cpp:49] Initializing net from parameters: 
state {
  phase: TEST
}
layer {
  name: "data"
  type: "Data"
  top: "data"
  top: "label"
  include {
    phase: TEST
  }
  transform_param {
    crop_size: 227
    mean_file: "/home/mohanty/data/final_dataset/lmdb/segmented-20-80/mean.binaryproto"
  }
  data_param {
    source: "/home/mohanty/data/final_dataset/lmdb/segmented-20-80/test_db"
    batch_size: 100
    backend: LMDB
  }
}
layer {
  name: "conv1"
  type: "Convolution"
  bottom: "data"
  top: "conv1"
  param {
    lr_mult: 1
    decay_mult: 1
  }
  param {
    lr_mult: 2
    decay_mult: 0
  }
  convolution_param {
    num_output: 96
    kernel_size: 11
    stride: 4
    weight_filler {
      type: "gaussian"
      std: 0.01
    }
    bias_filler {
      type: "constant"
      value: 0
    }
  }
}
layer {
  name: "relu1"
  type: "ReLU"
  bottom: "conv1"
  top: "conv1"
}
layer {
  name: "norm1"
  type: "LRN"
  bottom: "conv1"
  top: "norm1"
  lrn_param {
    local_size: 5
    alpha: 0.0001
    beta: 0.75
  }
}
layer {
  name: "pool1"
  type: "Pooling"
  bottom: "norm1"
  top: "pool1"
  pooling_param {
    pool: MAX
    kernel_size: 3
    stride: 2
  }
}
layer {
  name: "conv2"
  type: "Convolution"
  bottom: "pool1"
  top: "conv2"
  param {
    lr_mult: 1
    decay_mult: 1
  }
  param {
    lr_mult: 2
    decay_mult: 0
  }
  convolution_param {
    num_output: 256
    pad: 2
    kernel_size: 5
    group: 2
    weight_filler {
      type: "gaussian"
      std: 0.01
    }
    bias_filler {
      type: "constant"
      value: 0.1
    }
  }
}
layer {
  name: "relu2"
  type: "ReLU"
  bottom: "conv2"
  top: "conv2"
}
layer {
  name: "norm2"
  type: "LRN"
  bottom: "conv2"
  top: "norm2"
  lrn_param {
    local_size: 5
    alpha: 0.0001
    beta: 0.75
  }
}
layer {
  name: "pool2"
  type: "Pooling"
  bottom: "norm2"
  top: "pool2"
  pooling_param {
    pool: MAX
    kernel_size: 3
    stride: 2
  }
}
layer {
  name: "conv3"
  type: "Convolution"
  bottom: "pool2"
  top: "conv3"
  param {
    lr_mult: 1
    decay_mult: 1
  }
  param {
    lr_mult: 2
    decay_mult: 0
  }
  convolution_param {
    num_output: 384
    pad: 1
    kernel_size: 3
    weight_filler {
      type: "gaussian"
      std: 0.01
    }
    bias_filler {
      type: "constant"
      value: 0
    }
  }
}
layer {
  name: "relu3"
  type: "ReLU"
  bottom: "conv3"
  top: "conv3"
}
layer {
  name: "conv4"
  type: "Convolution"
  bottom: "conv3"
  top: "conv4"
  param {
    lr_mult: 1
    decay_mult: 1
  }
  param {
    lr_mult: 2
    decay_mult: 0
  }
  convolution_param {
    num_output: 384
    pad: 1
    kernel_size: 3
    group: 2
    weight_filler {
      type: "gaussian"
      std: 0.01
    }
    bias_filler {
      type: "constant"
      value: 0.1
    }
  }
}
layer {
  name: "relu4"
  type: "ReLU"
  bottom: "conv4"
  top: "conv4"
}
layer {
  name: "conv5"
  type: "Convolution"
  bottom: "conv4"
  top: "conv5"
  param {
    lr_mult: 1
    decay_mult: 1
  }
  param {
    lr_mult: 2
    decay_mult: 0
  }
  convolution_param {
    num_output: 256
    pad: 1
    kernel_size: 3
    group: 2
    weight_filler {
      type: "gaussian"
      std: 0.01
    }
    bias_filler {
      type: "constant"
      value: 0.1
    }
  }
}
layer {
  name: "relu5"
  type: "ReLU"
  bottom: "conv5"
  top: "conv5"
}
layer {
  name: "pool5"
  type: "Pooling"
  bottom: "conv5"
  top: "pool5"
  pooling_param {
    pool: MAX
    kernel_size: 3
    stride: 2
  }
}
layer {
  name: "fc6"
  type: "InnerProduct"
  bottom: "pool5"
  top: "fc6"
  param {
    lr_mult: 1
    decay_mult: 1
  }
  param {
    lr_mult: 2
    decay_mult: 0
  }
  inner_product_param {
    num_output: 4096
    weight_filler {
      type: "gaussian"
      std: 0.005
    }
    bias_filler {
      type: "constant"
      value: 0.1
    }
  }
}
layer {
  name: "relu6"
  type: "ReLU"
  bottom: "fc6"
  top: "fc6"
}
layer {
  name: "drop6"
  type: "Dropout"
  bottom: "fc6"
  top: "fc6"
  dropout_param {
    dropout_ratio: 0.5
  }
}
layer {
  name: "fc7"
  type: "InnerProduct"
  bottom: "fc6"
  top: "fc7"
  param {
    lr_mult: 1
    decay_mult: 1
  }
  param {
    lr_mult: 2
    decay_mult: 0
  }
  inner_product_param {
    num_output: 4096
    weight_filler {
      type: "gaussian"
      std: 0.005
    }
    bias_filler {
      type: "constant"
      value: 0.1
    }
  }
}
layer {
  name: "relu7"
  type: "ReLU"
  bottom: "fc7"
  top: "fc7"
}
layer {
  name: "drop7"
  type: "Dropout"
  bottom: "fc7"
  top: "fc7"
  dropout_param {
    dropout_ratio: 0.5
  }
}
layer {
  name: "fc8_plantvillage"
  type: "InnerProduct"
  bottom: "fc7"
  top: "fc8_plantvillage"
  param {
    lr_mult: 1
    decay_mult: 1
  }
  param {
    lr_mult: 2
    decay_mult: 0
  }
  inner_product_param {
    num_output: 38
    weight_filler {
      type: "gaussian"
      std: 0.01
    }
    bias_filler {
      type: "constant"
      value: 0
    }
  }
}
layer {
  name: "prob"
  type: "Softmax"
  bottom: "fc8_plantvillage"
  top: "prob"
  include {
    phase: TEST
  }
}
layer {
  name: "hdf5out"
  type: "HDF5Output"
  bottom: "prob"
  bottom: "label"
  include {
    phase: TEST
  }
  hdf5_output_param {
    file_name: "hdf5_dumps/iter_2226.h5"
  }
}
layer {
  name: "loss"
  type: "SoftmaxWithLoss"
  bottom: "fc8_plantvillage"
  bottom: "label"
  top: "loss"
}
layer {
  name: "accuracy"
  type: "Accuracy"
  bottom: "fc8_plantvillage"
  bottom: "label"
  top: "accuracy"
  include {
    phase: TEST
  }
}
I0403 13:53:21.999174   465 layer_factory.hpp:77] Creating layer data
I0403 13:53:21.999810   465 net.cpp:91] Creating Layer data
I0403 13:53:21.999840   465 net.cpp:399] data -> data
I0403 13:53:21.999892   465 net.cpp:399] data -> label
I0403 13:53:21.999929   465 data_transformer.cpp:25] Loading mean file from: /home/mohanty/data/final_dataset/lmdb/segmented-20-80/mean.binaryproto
I0403 13:53:22.002799   475 db_lmdb.cpp:38] Opened lmdb /home/mohanty/data/final_dataset/lmdb/segmented-20-80/test_db
I0403 13:53:22.013943   465 data_layer.cpp:41] output data size: 100,3,227,227
I0403 13:53:22.133127   465 net.cpp:141] Setting up data
I0403 13:53:22.133237   465 net.cpp:148] Top shape: 100 3 227 227 (15458700)
I0403 13:53:22.133262   465 net.cpp:148] Top shape: 100 (100)
I0403 13:53:22.133291   465 net.cpp:156] Memory required for data: 61835200
I0403 13:53:22.133322   465 layer_factory.hpp:77] Creating layer label_data_1_split
I0403 13:53:22.133348   465 net.cpp:91] Creating Layer label_data_1_split
I0403 13:53:22.133368   465 net.cpp:425] label_data_1_split <- label
I0403 13:53:22.133400   465 net.cpp:399] label_data_1_split -> label_data_1_split_0
I0403 13:53:22.133427   465 net.cpp:399] label_data_1_split -> label_data_1_split_1
I0403 13:53:22.133450   465 net.cpp:399] label_data_1_split -> label_data_1_split_2
I0403 13:53:22.133517   465 net.cpp:141] Setting up label_data_1_split
I0403 13:53:22.133543   465 net.cpp:148] Top shape: 100 (100)
I0403 13:53:22.133560   465 net.cpp:148] Top shape: 100 (100)
I0403 13:53:22.133579   465 net.cpp:148] Top shape: 100 (100)
I0403 13:53:22.133592   465 net.cpp:156] Memory required for data: 61836400
I0403 13:53:22.133608   465 layer_factory.hpp:77] Creating layer conv1
I0403 13:53:22.133641   465 net.cpp:91] Creating Layer conv1
I0403 13:53:22.133661   465 net.cpp:425] conv1 <- data
I0403 13:53:22.133680   465 net.cpp:399] conv1 -> conv1
I0403 13:53:22.274557   465 net.cpp:141] Setting up conv1
I0403 13:53:22.274617   465 net.cpp:148] Top shape: 100 96 55 55 (29040000)
I0403 13:53:22.274634   465 net.cpp:156] Memory required for data: 177996400
I0403 13:53:22.274667   465 layer_factory.hpp:77] Creating layer relu1
I0403 13:53:22.274695   465 net.cpp:91] Creating Layer relu1
I0403 13:53:22.274714   465 net.cpp:425] relu1 <- conv1
I0403 13:53:22.274734   465 net.cpp:386] relu1 -> conv1 (in-place)
I0403 13:53:22.274997   465 net.cpp:141] Setting up relu1
I0403 13:53:22.275025   465 net.cpp:148] Top shape: 100 96 55 55 (29040000)
I0403 13:53:22.275073   465 net.cpp:156] Memory required for data: 294156400
I0403 13:53:22.275089   465 layer_factory.hpp:77] Creating layer norm1
I0403 13:53:22.275117   465 net.cpp:91] Creating Layer norm1
I0403 13:53:22.275135   465 net.cpp:425] norm1 <- conv1
I0403 13:53:22.275154   465 net.cpp:399] norm1 -> norm1
I0403 13:53:22.275483   465 net.cpp:141] Setting up norm1
I0403 13:53:22.275538   465 net.cpp:148] Top shape: 100 96 55 55 (29040000)
I0403 13:53:22.275559   465 net.cpp:156] Memory required for data: 410316400
I0403 13:53:22.275575   465 layer_factory.hpp:77] Creating layer pool1
I0403 13:53:22.275599   465 net.cpp:91] Creating Layer pool1
I0403 13:53:22.275615   465 net.cpp:425] pool1 <- norm1
I0403 13:53:22.275635   465 net.cpp:399] pool1 -> pool1
I0403 13:53:22.275701   465 net.cpp:141] Setting up pool1
I0403 13:53:22.275725   465 net.cpp:148] Top shape: 100 96 27 27 (6998400)
I0403 13:53:22.275740   465 net.cpp:156] Memory required for data: 438310000
I0403 13:53:22.275755   465 layer_factory.hpp:77] Creating layer conv2
I0403 13:53:22.275780   465 net.cpp:91] Creating Layer conv2
I0403 13:53:22.275797   465 net.cpp:425] conv2 <- pool1
I0403 13:53:22.275816   465 net.cpp:399] conv2 -> conv2
I0403 13:53:22.291020   465 net.cpp:141] Setting up conv2
I0403 13:53:22.291066   465 net.cpp:148] Top shape: 100 256 27 27 (18662400)
I0403 13:53:22.291085   465 net.cpp:156] Memory required for data: 512959600
I0403 13:53:22.291110   465 layer_factory.hpp:77] Creating layer relu2
I0403 13:53:22.291129   465 net.cpp:91] Creating Layer relu2
I0403 13:53:22.291146   465 net.cpp:425] relu2 <- conv2
I0403 13:53:22.291163   465 net.cpp:386] relu2 -> conv2 (in-place)
I0403 13:53:22.291474   465 net.cpp:141] Setting up relu2
I0403 13:53:22.291502   465 net.cpp:148] Top shape: 100 256 27 27 (18662400)
I0403 13:53:22.291518   465 net.cpp:156] Memory required for data: 587609200
I0403 13:53:22.291533   465 layer_factory.hpp:77] Creating layer norm2
I0403 13:53:22.291558   465 net.cpp:91] Creating Layer norm2
I0403 13:53:22.291575   465 net.cpp:425] norm2 <- conv2
I0403 13:53:22.291594   465 net.cpp:399] norm2 -> norm2
I0403 13:53:22.291796   465 net.cpp:141] Setting up norm2
I0403 13:53:22.291826   465 net.cpp:148] Top shape: 100 256 27 27 (18662400)
I0403 13:53:22.291842   465 net.cpp:156] Memory required for data: 662258800
I0403 13:53:22.291858   465 layer_factory.hpp:77] Creating layer pool2
I0403 13:53:22.291877   465 net.cpp:91] Creating Layer pool2
I0403 13:53:22.291892   465 net.cpp:425] pool2 <- norm2
I0403 13:53:22.291909   465 net.cpp:399] pool2 -> pool2
I0403 13:53:22.291963   465 net.cpp:141] Setting up pool2
I0403 13:53:22.291988   465 net.cpp:148] Top shape: 100 256 13 13 (4326400)
I0403 13:53:22.292003   465 net.cpp:156] Memory required for data: 679564400
I0403 13:53:22.292018   465 layer_factory.hpp:77] Creating layer conv3
I0403 13:53:22.292042   465 net.cpp:91] Creating Layer conv3
I0403 13:53:22.292059   465 net.cpp:425] conv3 <- pool2
I0403 13:53:22.292116   465 net.cpp:399] conv3 -> conv3
I0403 13:53:22.331045   465 net.cpp:141] Setting up conv3
I0403 13:53:22.331090   465 net.cpp:148] Top shape: 100 384 13 13 (6489600)
I0403 13:53:22.331109   465 net.cpp:156] Memory required for data: 705522800
I0403 13:53:22.331135   465 layer_factory.hpp:77] Creating layer relu3
I0403 13:53:22.331158   465 net.cpp:91] Creating Layer relu3
I0403 13:53:22.331176   465 net.cpp:425] relu3 <- conv3
I0403 13:53:22.331197   465 net.cpp:386] relu3 -> conv3 (in-place)
I0403 13:53:22.331473   465 net.cpp:141] Setting up relu3
I0403 13:53:22.331502   465 net.cpp:148] Top shape: 100 384 13 13 (6489600)
I0403 13:53:22.331519   465 net.cpp:156] Memory required for data: 731481200
I0403 13:53:22.331534   465 layer_factory.hpp:77] Creating layer conv4
I0403 13:53:22.331560   465 net.cpp:91] Creating Layer conv4
I0403 13:53:22.331578   465 net.cpp:425] conv4 <- conv3
I0403 13:53:22.331595   465 net.cpp:399] conv4 -> conv4
I0403 13:53:22.361371   465 net.cpp:141] Setting up conv4
I0403 13:53:22.361416   465 net.cpp:148] Top shape: 100 384 13 13 (6489600)
I0403 13:53:22.361464   465 net.cpp:156] Memory required for data: 757439600
I0403 13:53:22.361485   465 layer_factory.hpp:77] Creating layer relu4
I0403 13:53:22.361507   465 net.cpp:91] Creating Layer relu4
I0403 13:53:22.361526   465 net.cpp:425] relu4 <- conv4
I0403 13:53:22.361543   465 net.cpp:386] relu4 -> conv4 (in-place)
I0403 13:53:22.361824   465 net.cpp:141] Setting up relu4
I0403 13:53:22.361851   465 net.cpp:148] Top shape: 100 384 13 13 (6489600)
I0403 13:53:22.361866   465 net.cpp:156] Memory required for data: 783398000
I0403 13:53:22.361881   465 layer_factory.hpp:77] Creating layer conv5
I0403 13:53:22.361908   465 net.cpp:91] Creating Layer conv5
I0403 13:53:22.361927   465 net.cpp:425] conv5 <- conv4
I0403 13:53:22.361945   465 net.cpp:399] conv5 -> conv5
I0403 13:53:22.382541   465 net.cpp:141] Setting up conv5
I0403 13:53:22.382597   465 net.cpp:148] Top shape: 100 256 13 13 (4326400)
I0403 13:53:22.382616   465 net.cpp:156] Memory required for data: 800703600
I0403 13:53:22.382642   465 layer_factory.hpp:77] Creating layer relu5
I0403 13:53:22.382663   465 net.cpp:91] Creating Layer relu5
I0403 13:53:22.382680   465 net.cpp:425] relu5 <- conv5
I0403 13:53:22.382699   465 net.cpp:386] relu5 -> conv5 (in-place)
I0403 13:53:22.383021   465 net.cpp:141] Setting up relu5
I0403 13:53:22.383052   465 net.cpp:148] Top shape: 100 256 13 13 (4326400)
I0403 13:53:22.383069   465 net.cpp:156] Memory required for data: 818009200
I0403 13:53:22.383085   465 layer_factory.hpp:77] Creating layer pool5
I0403 13:53:22.383107   465 net.cpp:91] Creating Layer pool5
I0403 13:53:22.383124   465 net.cpp:425] pool5 <- conv5
I0403 13:53:22.383147   465 net.cpp:399] pool5 -> pool5
I0403 13:53:22.383206   465 net.cpp:141] Setting up pool5
I0403 13:53:22.383230   465 net.cpp:148] Top shape: 100 256 6 6 (921600)
I0403 13:53:22.383246   465 net.cpp:156] Memory required for data: 821695600
I0403 13:53:22.383260   465 layer_factory.hpp:77] Creating layer fc6
I0403 13:53:22.383302   465 net.cpp:91] Creating Layer fc6
I0403 13:53:22.383322   465 net.cpp:425] fc6 <- pool5
I0403 13:53:22.383343   465 net.cpp:399] fc6 -> fc6
I0403 13:53:23.963567   465 net.cpp:141] Setting up fc6
I0403 13:53:23.963611   465 net.cpp:148] Top shape: 100 4096 (409600)
I0403 13:53:23.963629   465 net.cpp:156] Memory required for data: 823334000
I0403 13:53:23.963649   465 layer_factory.hpp:77] Creating layer relu6
I0403 13:53:23.963672   465 net.cpp:91] Creating Layer relu6
I0403 13:53:23.963690   465 net.cpp:425] relu6 <- fc6
I0403 13:53:23.963709   465 net.cpp:386] relu6 -> fc6 (in-place)
I0403 13:53:23.963924   465 net.cpp:141] Setting up relu6
I0403 13:53:23.963951   465 net.cpp:148] Top shape: 100 4096 (409600)
I0403 13:53:23.963966   465 net.cpp:156] Memory required for data: 824972400
I0403 13:53:23.963981   465 layer_factory.hpp:77] Creating layer drop6
I0403 13:53:23.963999   465 net.cpp:91] Creating Layer drop6
I0403 13:53:23.964015   465 net.cpp:425] drop6 <- fc6
I0403 13:53:23.964031   465 net.cpp:386] drop6 -> fc6 (in-place)
I0403 13:53:23.964083   465 net.cpp:141] Setting up drop6
I0403 13:53:23.964105   465 net.cpp:148] Top shape: 100 4096 (409600)
I0403 13:53:23.964119   465 net.cpp:156] Memory required for data: 826610800
I0403 13:53:23.964133   465 layer_factory.hpp:77] Creating layer fc7
I0403 13:53:23.964159   465 net.cpp:91] Creating Layer fc7
I0403 13:53:23.964174   465 net.cpp:425] fc7 <- fc6
I0403 13:53:23.964192   465 net.cpp:399] fc7 -> fc7
I0403 13:53:24.641726   465 net.cpp:141] Setting up fc7
I0403 13:53:24.641772   465 net.cpp:148] Top shape: 100 4096 (409600)
I0403 13:53:24.641788   465 net.cpp:156] Memory required for data: 828249200
I0403 13:53:24.641809   465 layer_factory.hpp:77] Creating layer relu7
I0403 13:53:24.641834   465 net.cpp:91] Creating Layer relu7
I0403 13:53:24.641852   465 net.cpp:425] relu7 <- fc7
I0403 13:53:24.641872   465 net.cpp:386] relu7 -> fc7 (in-place)
I0403 13:53:24.642299   465 net.cpp:141] Setting up relu7
I0403 13:53:24.642331   465 net.cpp:148] Top shape: 100 4096 (409600)
I0403 13:53:24.642366   465 net.cpp:156] Memory required for data: 829887600
I0403 13:53:24.642382   465 layer_factory.hpp:77] Creating layer drop7
I0403 13:53:24.642401   465 net.cpp:91] Creating Layer drop7
I0403 13:53:24.642417   465 net.cpp:425] drop7 <- fc7
I0403 13:53:24.642434   465 net.cpp:386] drop7 -> fc7 (in-place)
I0403 13:53:24.642480   465 net.cpp:141] Setting up drop7
I0403 13:53:24.642503   465 net.cpp:148] Top shape: 100 4096 (409600)
I0403 13:53:24.642518   465 net.cpp:156] Memory required for data: 831526000
I0403 13:53:24.642532   465 layer_factory.hpp:77] Creating layer fc8_plantvillage
I0403 13:53:24.642557   465 net.cpp:91] Creating Layer fc8_plantvillage
I0403 13:53:24.642573   465 net.cpp:425] fc8_plantvillage <- fc7
I0403 13:53:24.642591   465 net.cpp:399] fc8_plantvillage -> fc8_plantvillage
I0403 13:53:24.649180   465 net.cpp:141] Setting up fc8_plantvillage
I0403 13:53:24.649209   465 net.cpp:148] Top shape: 100 38 (3800)
I0403 13:53:24.649224   465 net.cpp:156] Memory required for data: 831541200
I0403 13:53:24.649242   465 layer_factory.hpp:77] Creating layer fc8_plantvillage_fc8_plantvillage_0_split
I0403 13:53:24.649261   465 net.cpp:91] Creating Layer fc8_plantvillage_fc8_plantvillage_0_split
I0403 13:53:24.649286   465 net.cpp:425] fc8_plantvillage_fc8_plantvillage_0_split <- fc8_plantvillage
I0403 13:53:24.649303   465 net.cpp:399] fc8_plantvillage_fc8_plantvillage_0_split -> fc8_plantvillage_fc8_plantvillage_0_split_0
I0403 13:53:24.649338   465 net.cpp:399] fc8_plantvillage_fc8_plantvillage_0_split -> fc8_plantvillage_fc8_plantvillage_0_split_1
I0403 13:53:24.649361   465 net.cpp:399] fc8_plantvillage_fc8_plantvillage_0_split -> fc8_plantvillage_fc8_plantvillage_0_split_2
I0403 13:53:24.649437   465 net.cpp:141] Setting up fc8_plantvillage_fc8_plantvillage_0_split
I0403 13:53:24.649461   465 net.cpp:148] Top shape: 100 38 (3800)
I0403 13:53:24.649477   465 net.cpp:148] Top shape: 100 38 (3800)
I0403 13:53:24.649492   465 net.cpp:148] Top shape: 100 38 (3800)
I0403 13:53:24.649507   465 net.cpp:156] Memory required for data: 831586800
I0403 13:53:24.649520   465 layer_factory.hpp:77] Creating layer prob
I0403 13:53:24.649539   465 net.cpp:91] Creating Layer prob
I0403 13:53:24.649554   465 net.cpp:425] prob <- fc8_plantvillage_fc8_plantvillage_0_split_0
I0403 13:53:24.649571   465 net.cpp:399] prob -> prob
I0403 13:53:24.649806   465 net.cpp:141] Setting up prob
I0403 13:53:24.649832   465 net.cpp:148] Top shape: 100 38 (3800)
I0403 13:53:24.649847   465 net.cpp:156] Memory required for data: 831602000
I0403 13:53:24.649862   465 layer_factory.hpp:77] Creating layer hdf5out
I0403 13:53:24.649883   465 net.cpp:91] Creating Layer hdf5out
I0403 13:53:24.649899   465 net.cpp:425] hdf5out <- prob
I0403 13:53:24.649914   465 net.cpp:425] hdf5out <- label_data_1_split_0
I0403 13:53:24.652057   465 net.cpp:141] Setting up hdf5out
…
