…
I0403 13:46:58.601848   344 net.cpp:313] The NetState phase (1) differed from the phase (0) specified by a rule in layer data
I0403 13:46:58.602141   344 net.cpp:49] Initializing net from parameters: 
state {
  phase: TEST
}
layer {
  name: "data"
  type: "Data"
  top: "data"
  top: "label"
  include {
    phase: TEST
  }
  transform_param {
    crop_size: 227
    mean_file: "/home/mohanty/data/final_dataset/lmdb/segmented-20-80/mean.binaryproto"
  }
  data_param {
    source: "/home/mohanty/data/final_dataset/lmdb/segmented-20-80/test_db"
    batch_size: 100
    backend: LMDB
  }
}
layer {
  name: "conv1"
  type: "Convolution"
  bottom: "data"
  top: "conv1"
  param {
    lr_mult: 1
    decay_mult: 1
  }
  param {
    lr_mult: 2
    decay_mult: 0
  }
  convolution_param {
    num_output: 96
    kernel_size: 11
    stride: 4
    weight_filler {
      type: "gaussian"
      std: 0.01
    }
    bias_filler {
      type: "constant"
      value: 0
    }
  }
}
layer {
  name: "relu1"
  type: "ReLU"
  bottom: "conv1"
  top: "conv1"
}
layer {
  name: "norm1"
  type: "LRN"
  bottom: "conv1"
  top: "norm1"
  lrn_param {
    local_size: 5
    alpha: 0.0001
    beta: 0.75
  }
}
layer {
  name: "pool1"
  type: "Pooling"
  bottom: "norm1"
  top: "pool1"
  pooling_param {
    pool: MAX
    kernel_size: 3
    stride: 2
  }
}
layer {
  name: "conv2"
  type: "Convolution"
  bottom: "pool1"
  top: "conv2"
  param {
    lr_mult: 1
    decay_mult: 1
  }
  param {
    lr_mult: 2
    decay_mult: 0
  }
  convolution_param {
    num_output: 256
    pad: 2
    kernel_size: 5
    group: 2
    weight_filler {
      type: "gaussian"
      std: 0.01
    }
    bias_filler {
      type: "constant"
      value: 0.1
    }
  }
}
layer {
  name: "relu2"
  type: "ReLU"
  bottom: "conv2"
  top: "conv2"
}
layer {
  name: "norm2"
  type: "LRN"
  bottom: "conv2"
  top: "norm2"
  lrn_param {
    local_size: 5
    alpha: 0.0001
    beta: 0.75
  }
}
layer {
  name: "pool2"
  type: "Pooling"
  bottom: "norm2"
  top: "pool2"
  pooling_param {
    pool: MAX
    kernel_size: 3
    stride: 2
  }
}
layer {
  name: "conv3"
  type: "Convolution"
  bottom: "pool2"
  top: "conv3"
  param {
    lr_mult: 1
    decay_mult: 1
  }
  param {
    lr_mult: 2
    decay_mult: 0
  }
  convolution_param {
    num_output: 384
    pad: 1
    kernel_size: 3
    weight_filler {
      type: "gaussian"
      std: 0.01
    }
    bias_filler {
      type: "constant"
      value: 0
    }
  }
}
layer {
  name: "relu3"
  type: "ReLU"
  bottom: "conv3"
  top: "conv3"
}
layer {
  name: "conv4"
  type: "Convolution"
  bottom: "conv3"
  top: "conv4"
  param {
    lr_mult: 1
    decay_mult: 1
  }
  param {
    lr_mult: 2
    decay_mult: 0
  }
  convolution_param {
    num_output: 384
    pad: 1
    kernel_size: 3
    group: 2
    weight_filler {
      type: "gaussian"
      std: 0.01
    }
    bias_filler {
      type: "constant"
      value: 0.1
    }
  }
}
layer {
  name: "relu4"
  type: "ReLU"
  bottom: "conv4"
  top: "conv4"
}
layer {
  name: "conv5"
  type: "Convolution"
  bottom: "conv4"
  top: "conv5"
  param {
    lr_mult: 1
    decay_mult: 1
  }
  param {
    lr_mult: 2
    decay_mult: 0
  }
  convolution_param {
    num_output: 256
    pad: 1
    kernel_size: 3
    group: 2
    weight_filler {
      type: "gaussian"
      std: 0.01
    }
    bias_filler {
      type: "constant"
      value: 0.1
    }
  }
}
layer {
  name: "relu5"
  type: "ReLU"
  bottom: "conv5"
  top: "conv5"
}
layer {
  name: "pool5"
  type: "Pooling"
  bottom: "conv5"
  top: "pool5"
  pooling_param {
    pool: MAX
    kernel_size: 3
    stride: 2
  }
}
layer {
  name: "fc6"
  type: "InnerProduct"
  bottom: "pool5"
  top: "fc6"
  param {
    lr_mult: 1
    decay_mult: 1
  }
  param {
    lr_mult: 2
    decay_mult: 0
  }
  inner_product_param {
    num_output: 4096
    weight_filler {
      type: "gaussian"
      std: 0.005
    }
    bias_filler {
      type: "constant"
      value: 0.1
    }
  }
}
layer {
  name: "relu6"
  type: "ReLU"
  bottom: "fc6"
  top: "fc6"
}
layer {
  name: "drop6"
  type: "Dropout"
  bottom: "fc6"
  top: "fc6"
  dropout_param {
    dropout_ratio: 0.5
  }
}
layer {
  name: "fc7"
  type: "InnerProduct"
  bottom: "fc6"
  top: "fc7"
  param {
    lr_mult: 1
    decay_mult: 1
  }
  param {
    lr_mult: 2
    decay_mult: 0
  }
  inner_product_param {
    num_output: 4096
    weight_filler {
      type: "gaussian"
      std: 0.005
    }
    bias_filler {
      type: "constant"
      value: 0.1
    }
  }
}
layer {
  name: "relu7"
  type: "ReLU"
  bottom: "fc7"
  top: "fc7"
}
layer {
  name: "drop7"
  type: "Dropout"
  bottom: "fc7"
  top: "fc7"
  dropout_param {
    dropout_ratio: 0.5
  }
}
layer {
  name: "fc8_plantvillage"
  type: "InnerProduct"
  bottom: "fc7"
  top: "fc8_plantvillage"
  param {
    lr_mult: 1
    decay_mult: 1
  }
  param {
    lr_mult: 2
    decay_mult: 0
  }
  inner_product_param {
    num_output: 38
    weight_filler {
      type: "gaussian"
      std: 0.01
    }
    bias_filler {
      type: "constant"
      value: 0
    }
  }
}
layer {
  name: "prob"
  type: "Softmax"
  bottom: "fc8_plantvillage"
  top: "prob"
  include {
    phase: TEST
  }
}
layer {
  name: "hdf5out"
  type: "HDF5Output"
  bottom: "prob"
  bottom: "label"
  include {
    phase: TEST
  }
  hdf5_output_param {
    file_name: "hdf5_dumps/iter_1696.h5"
  }
}
layer {
  name: "loss"
  type: "SoftmaxWithLoss"
  bottom: "fc8_plantvillage"
  bottom: "label"
  top: "loss"
}
layer {
  name: "accuracy"
  type: "Accuracy"
  bottom: "fc8_plantvillage"
  bottom: "label"
  top: "accuracy"
  include {
    phase: TEST
  }
}
I0403 13:46:58.602660   344 layer_factory.hpp:77] Creating layer data
I0403 13:46:58.603286   344 net.cpp:91] Creating Layer data
I0403 13:46:58.603317   344 net.cpp:399] data -> data
I0403 13:46:58.603368   344 net.cpp:399] data -> label
I0403 13:46:58.603404   344 data_transformer.cpp:25] Loading mean file from: /home/mohanty/data/final_dataset/lmdb/segmented-20-80/mean.binaryproto
I0403 13:46:58.606822   347 db_lmdb.cpp:38] Opened lmdb /home/mohanty/data/final_dataset/lmdb/segmented-20-80/test_db
I0403 13:46:58.617758   344 data_layer.cpp:41] output data size: 100,3,227,227
I0403 13:46:58.739171   344 net.cpp:141] Setting up data
I0403 13:46:58.739279   344 net.cpp:148] Top shape: 100 3 227 227 (15458700)
I0403 13:46:58.739305   344 net.cpp:148] Top shape: 100 (100)
I0403 13:46:58.739321   344 net.cpp:156] Memory required for data: 61835200
I0403 13:46:58.739351   344 layer_factory.hpp:77] Creating layer label_data_1_split
I0403 13:46:58.739377   344 net.cpp:91] Creating Layer label_data_1_split
I0403 13:46:58.739397   344 net.cpp:425] label_data_1_split <- label
I0403 13:46:58.739429   344 net.cpp:399] label_data_1_split -> label_data_1_split_0
I0403 13:46:58.739459   344 net.cpp:399] label_data_1_split -> label_data_1_split_1
I0403 13:46:58.739481   344 net.cpp:399] label_data_1_split -> label_data_1_split_2
I0403 13:46:58.739547   344 net.cpp:141] Setting up label_data_1_split
I0403 13:46:58.739572   344 net.cpp:148] Top shape: 100 (100)
I0403 13:46:58.739588   344 net.cpp:148] Top shape: 100 (100)
I0403 13:46:58.739605   344 net.cpp:148] Top shape: 100 (100)
I0403 13:46:58.739621   344 net.cpp:156] Memory required for data: 61836400
I0403 13:46:58.739636   344 layer_factory.hpp:77] Creating layer conv1
I0403 13:46:58.739670   344 net.cpp:91] Creating Layer conv1
I0403 13:46:58.739689   344 net.cpp:425] conv1 <- data
I0403 13:46:58.739711   344 net.cpp:399] conv1 -> conv1
I0403 13:46:58.885157   344 net.cpp:141] Setting up conv1
I0403 13:46:58.885203   344 net.cpp:148] Top shape: 100 96 55 55 (29040000)
I0403 13:46:58.885221   344 net.cpp:156] Memory required for data: 177996400
I0403 13:46:58.885253   344 layer_factory.hpp:77] Creating layer relu1
I0403 13:46:58.885287   344 net.cpp:91] Creating Layer relu1
I0403 13:46:58.885368   344 net.cpp:425] relu1 <- conv1
I0403 13:46:58.885396   344 net.cpp:386] relu1 -> conv1 (in-place)
I0403 13:46:58.885663   344 net.cpp:141] Setting up relu1
I0403 13:46:58.885692   344 net.cpp:148] Top shape: 100 96 55 55 (29040000)
I0403 13:46:58.885741   344 net.cpp:156] Memory required for data: 294156400
I0403 13:46:58.885759   344 layer_factory.hpp:77] Creating layer norm1
I0403 13:46:58.885788   344 net.cpp:91] Creating Layer norm1
I0403 13:46:58.885807   344 net.cpp:425] norm1 <- conv1
I0403 13:46:58.885826   344 net.cpp:399] norm1 -> norm1
I0403 13:46:58.886143   344 net.cpp:141] Setting up norm1
I0403 13:46:58.886173   344 net.cpp:148] Top shape: 100 96 55 55 (29040000)
I0403 13:46:58.886188   344 net.cpp:156] Memory required for data: 410316400
I0403 13:46:58.886204   344 layer_factory.hpp:77] Creating layer pool1
I0403 13:46:58.886227   344 net.cpp:91] Creating Layer pool1
I0403 13:46:58.886247   344 net.cpp:425] pool1 <- norm1
I0403 13:46:58.886266   344 net.cpp:399] pool1 -> pool1
I0403 13:46:58.886353   344 net.cpp:141] Setting up pool1
I0403 13:46:58.886379   344 net.cpp:148] Top shape: 100 96 27 27 (6998400)
I0403 13:46:58.886394   344 net.cpp:156] Memory required for data: 438310000
I0403 13:46:58.886410   344 layer_factory.hpp:77] Creating layer conv2
I0403 13:46:58.886435   344 net.cpp:91] Creating Layer conv2
I0403 13:46:58.886452   344 net.cpp:425] conv2 <- pool1
I0403 13:46:58.886473   344 net.cpp:399] conv2 -> conv2
I0403 13:46:58.902163   344 net.cpp:141] Setting up conv2
I0403 13:46:58.902209   344 net.cpp:148] Top shape: 100 256 27 27 (18662400)
I0403 13:46:58.902228   344 net.cpp:156] Memory required for data: 512959600
I0403 13:46:58.902254   344 layer_factory.hpp:77] Creating layer relu2
I0403 13:46:58.902284   344 net.cpp:91] Creating Layer relu2
I0403 13:46:58.902307   344 net.cpp:425] relu2 <- conv2
I0403 13:46:58.902329   344 net.cpp:386] relu2 -> conv2 (in-place)
I0403 13:46:58.902662   344 net.cpp:141] Setting up relu2
I0403 13:46:58.902691   344 net.cpp:148] Top shape: 100 256 27 27 (18662400)
I0403 13:46:58.902706   344 net.cpp:156] Memory required for data: 587609200
I0403 13:46:58.902722   344 layer_factory.hpp:77] Creating layer norm2
I0403 13:46:58.902746   344 net.cpp:91] Creating Layer norm2
I0403 13:46:58.902765   344 net.cpp:425] norm2 <- conv2
I0403 13:46:58.902782   344 net.cpp:399] norm2 -> norm2
I0403 13:46:58.902986   344 net.cpp:141] Setting up norm2
I0403 13:46:58.903013   344 net.cpp:148] Top shape: 100 256 27 27 (18662400)
I0403 13:46:58.903030   344 net.cpp:156] Memory required for data: 662258800
I0403 13:46:58.903046   344 layer_factory.hpp:77] Creating layer pool2
I0403 13:46:58.903065   344 net.cpp:91] Creating Layer pool2
I0403 13:46:58.903081   344 net.cpp:425] pool2 <- norm2
I0403 13:46:58.903103   344 net.cpp:399] pool2 -> pool2
I0403 13:46:58.903170   344 net.cpp:141] Setting up pool2
I0403 13:46:58.903198   344 net.cpp:148] Top shape: 100 256 13 13 (4326400)
I0403 13:46:58.903213   344 net.cpp:156] Memory required for data: 679564400
I0403 13:46:58.903228   344 layer_factory.hpp:77] Creating layer conv3
I0403 13:46:58.903252   344 net.cpp:91] Creating Layer conv3
I0403 13:46:58.903270   344 net.cpp:425] conv3 <- pool2
I0403 13:46:58.903295   344 net.cpp:399] conv3 -> conv3
I0403 13:46:58.942745   344 net.cpp:141] Setting up conv3
I0403 13:46:58.942812   344 net.cpp:148] Top shape: 100 384 13 13 (6489600)
I0403 13:46:58.942839   344 net.cpp:156] Memory required for data: 705522800
I0403 13:46:58.942865   344 layer_factory.hpp:77] Creating layer relu3
I0403 13:46:58.942886   344 net.cpp:91] Creating Layer relu3
I0403 13:46:58.942906   344 net.cpp:425] relu3 <- conv3
I0403 13:46:58.942931   344 net.cpp:386] relu3 -> conv3 (in-place)
I0403 13:46:58.943222   344 net.cpp:141] Setting up relu3
I0403 13:46:58.943250   344 net.cpp:148] Top shape: 100 384 13 13 (6489600)
I0403 13:46:58.943267   344 net.cpp:156] Memory required for data: 731481200
I0403 13:46:58.943289   344 layer_factory.hpp:77] Creating layer conv4
I0403 13:46:58.943316   344 net.cpp:91] Creating Layer conv4
I0403 13:46:58.943334   344 net.cpp:425] conv4 <- conv3
I0403 13:46:58.943356   344 net.cpp:399] conv4 -> conv4
I0403 13:46:58.974782   344 net.cpp:141] Setting up conv4
I0403 13:46:58.974828   344 net.cpp:148] Top shape: 100 384 13 13 (6489600)
I0403 13:46:58.974877   344 net.cpp:156] Memory required for data: 757439600
I0403 13:46:58.974900   344 layer_factory.hpp:77] Creating layer relu4
I0403 13:46:58.974923   344 net.cpp:91] Creating Layer relu4
I0403 13:46:58.974941   344 net.cpp:425] relu4 <- conv4
I0403 13:46:58.974962   344 net.cpp:386] relu4 -> conv4 (in-place)
I0403 13:46:58.975252   344 net.cpp:141] Setting up relu4
I0403 13:46:58.975288   344 net.cpp:148] Top shape: 100 384 13 13 (6489600)
I0403 13:46:58.975306   344 net.cpp:156] Memory required for data: 783398000
I0403 13:46:58.975322   344 layer_factory.hpp:77] Creating layer conv5
I0403 13:46:58.975352   344 net.cpp:91] Creating Layer conv5
I0403 13:46:58.975369   344 net.cpp:425] conv5 <- conv4
I0403 13:46:58.975390   344 net.cpp:399] conv5 -> conv5
I0403 13:46:58.996938   344 net.cpp:141] Setting up conv5
I0403 13:46:58.996987   344 net.cpp:148] Top shape: 100 256 13 13 (4326400)
I0403 13:46:58.997006   344 net.cpp:156] Memory required for data: 800703600
I0403 13:46:58.997032   344 layer_factory.hpp:77] Creating layer relu5
I0403 13:46:58.997052   344 net.cpp:91] Creating Layer relu5
I0403 13:46:58.997071   344 net.cpp:425] relu5 <- conv5
I0403 13:46:58.997092   344 net.cpp:386] relu5 -> conv5 (in-place)
I0403 13:46:58.997426   344 net.cpp:141] Setting up relu5
I0403 13:46:58.997455   344 net.cpp:148] Top shape: 100 256 13 13 (4326400)
I0403 13:46:58.997473   344 net.cpp:156] Memory required for data: 818009200
I0403 13:46:58.997489   344 layer_factory.hpp:77] Creating layer pool5
I0403 13:46:58.997514   344 net.cpp:91] Creating Layer pool5
I0403 13:46:58.997532   344 net.cpp:425] pool5 <- conv5
I0403 13:46:58.997552   344 net.cpp:399] pool5 -> pool5
I0403 13:46:58.997616   344 net.cpp:141] Setting up pool5
I0403 13:46:58.997640   344 net.cpp:148] Top shape: 100 256 6 6 (921600)
I0403 13:46:58.997655   344 net.cpp:156] Memory required for data: 821695600
I0403 13:46:58.997670   344 layer_factory.hpp:77] Creating layer fc6
I0403 13:46:58.997699   344 net.cpp:91] Creating Layer fc6
I0403 13:46:58.997717   344 net.cpp:425] fc6 <- pool5
I0403 13:46:58.997740   344 net.cpp:399] fc6 -> fc6
I0403 13:47:00.551074   344 net.cpp:141] Setting up fc6
I0403 13:47:00.551136   344 net.cpp:148] Top shape: 100 4096 (409600)
I0403 13:47:00.551153   344 net.cpp:156] Memory required for data: 823334000
I0403 13:47:00.551175   344 layer_factory.hpp:77] Creating layer relu6
I0403 13:47:00.551198   344 net.cpp:91] Creating Layer relu6
I0403 13:47:00.551215   344 net.cpp:425] relu6 <- fc6
I0403 13:47:00.551234   344 net.cpp:386] relu6 -> fc6 (in-place)
I0403 13:47:00.551460   344 net.cpp:141] Setting up relu6
I0403 13:47:00.551499   344 net.cpp:148] Top shape: 100 4096 (409600)
I0403 13:47:00.551515   344 net.cpp:156] Memory required for data: 824972400
I0403 13:47:00.551532   344 layer_factory.hpp:77] Creating layer drop6
I0403 13:47:00.551551   344 net.cpp:91] Creating Layer drop6
I0403 13:47:00.551566   344 net.cpp:425] drop6 <- fc6
I0403 13:47:00.551587   344 net.cpp:386] drop6 -> fc6 (in-place)
I0403 13:47:00.551640   344 net.cpp:141] Setting up drop6
I0403 13:47:00.551663   344 net.cpp:148] Top shape: 100 4096 (409600)
I0403 13:47:00.551678   344 net.cpp:156] Memory required for data: 826610800
I0403 13:47:00.551692   344 layer_factory.hpp:77] Creating layer fc7
I0403 13:47:00.551718   344 net.cpp:91] Creating Layer fc7
I0403 13:47:00.551736   344 net.cpp:425] fc7 <- fc6
I0403 13:47:00.551769   344 net.cpp:399] fc7 -> fc7
I0403 13:47:01.230171   344 net.cpp:141] Setting up fc7
I0403 13:47:01.230232   344 net.cpp:148] Top shape: 100 4096 (409600)
I0403 13:47:01.230247   344 net.cpp:156] Memory required for data: 828249200
I0403 13:47:01.230269   344 layer_factory.hpp:77] Creating layer relu7
I0403 13:47:01.230296   344 net.cpp:91] Creating Layer relu7
I0403 13:47:01.230314   344 net.cpp:425] relu7 <- fc7
I0403 13:47:01.230336   344 net.cpp:386] relu7 -> fc7 (in-place)
I0403 13:47:01.230753   344 net.cpp:141] Setting up relu7
I0403 13:47:01.230779   344 net.cpp:148] Top shape: 100 4096 (409600)
I0403 13:47:01.230825   344 net.cpp:156] Memory required for data: 829887600
I0403 13:47:01.230841   344 layer_factory.hpp:77] Creating layer drop7
I0403 13:47:01.230860   344 net.cpp:91] Creating Layer drop7
I0403 13:47:01.230876   344 net.cpp:425] drop7 <- fc7
I0403 13:47:01.230898   344 net.cpp:386] drop7 -> fc7 (in-place)
I0403 13:47:01.230942   344 net.cpp:141] Setting up drop7
I0403 13:47:01.230967   344 net.cpp:148] Top shape: 100 4096 (409600)
I0403 13:47:01.230983   344 net.cpp:156] Memory required for data: 831526000
I0403 13:47:01.230998   344 layer_factory.hpp:77] Creating layer fc8_plantvillage
I0403 13:47:01.231017   344 net.cpp:91] Creating Layer fc8_plantvillage
I0403 13:47:01.231034   344 net.cpp:425] fc8_plantvillage <- fc7
I0403 13:47:01.231053   344 net.cpp:399] fc8_plantvillage -> fc8_plantvillage
I0403 13:47:01.237768   344 net.cpp:141] Setting up fc8_plantvillage
I0403 13:47:01.237798   344 net.cpp:148] Top shape: 100 38 (3800)
I0403 13:47:01.237814   344 net.cpp:156] Memory required for data: 831541200
I0403 13:47:01.237833   344 layer_factory.hpp:77] Creating layer fc8_plantvillage_fc8_plantvillage_0_split
I0403 13:47:01.237853   344 net.cpp:91] Creating Layer fc8_plantvillage_fc8_plantvillage_0_split
I0403 13:47:01.237869   344 net.cpp:425] fc8_plantvillage_fc8_plantvillage_0_split <- fc8_plantvillage
I0403 13:47:01.237890   344 net.cpp:399] fc8_plantvillage_fc8_plantvillage_0_split -> fc8_plantvillage_fc8_plantvillage_0_split_0
I0403 13:47:01.237911   344 net.cpp:399] fc8_plantvillage_fc8_plantvillage_0_split -> fc8_plantvillage_fc8_plantvillage_0_split_1
I0403 13:47:01.237932   344 net.cpp:399] fc8_plantvillage_fc8_plantvillage_0_split -> fc8_plantvillage_fc8_plantvillage_0_split_2
I0403 13:47:01.238010   344 net.cpp:141] Setting up fc8_plantvillage_fc8_plantvillage_0_split
I0403 13:47:01.238037   344 net.cpp:148] Top shape: 100 38 (3800)
I0403 13:47:01.238056   344 net.cpp:148] Top shape: 100 38 (3800)
I0403 13:47:01.238072   344 net.cpp:148] Top shape: 100 38 (3800)
I0403 13:47:01.238086   344 net.cpp:156] Memory required for data: 831586800
I0403 13:47:01.238101   344 layer_factory.hpp:77] Creating layer prob
I0403 13:47:01.238119   344 net.cpp:91] Creating Layer prob
I0403 13:47:01.238136   344 net.cpp:425] prob <- fc8_plantvillage_fc8_plantvillage_0_split_0
I0403 13:47:01.238153   344 net.cpp:399] prob -> prob
I0403 13:47:01.238394   344 net.cpp:141] Setting up prob
I0403 13:47:01.238420   344 net.cpp:148] Top shape: 100 38 (3800)
I0403 13:47:01.238435   344 net.cpp:156] Memory required for data: 831602000
I0403 13:47:01.238448   344 layer_factory.hpp:77] Creating layer hdf5out
I0403 13:47:01.238467   344 net.cpp:91] Creating Layer hdf5out
I0403 13:47:01.238483   344 net.cpp:425] hdf5out <- prob
I0403 13:47:01.238499   344 net.cpp:425] hdf5out <- label_data_1_split_0
I0403 13:47:01.240893   344 net.cpp:141] Setting up hdf5out
…
