…
I0403 13:48:14.946264   368 net.cpp:313] The NetState phase (1) differed from the phase (0) specified by a rule in layer data
I0403 13:48:14.946565   368 net.cpp:49] Initializing net from parameters: 
state {
  phase: TEST
}
layer {
  name: "data"
  type: "Data"
  top: "data"
  top: "label"
  include {
    phase: TEST
  }
  transform_param {
    crop_size: 227
    mean_file: "/home/mohanty/data/final_dataset/lmdb/segmented-20-80/mean.binaryproto"
  }
  data_param {
    source: "/home/mohanty/data/final_dataset/lmdb/segmented-20-80/test_db"
    batch_size: 100
    backend: LMDB
  }
}
layer {
  name: "conv1"
  type: "Convolution"
  bottom: "data"
  top: "conv1"
  param {
    lr_mult: 1
    decay_mult: 1
  }
  param {
    lr_mult: 2
    decay_mult: 0
  }
  convolution_param {
    num_output: 96
    kernel_size: 11
    stride: 4
    weight_filler {
      type: "gaussian"
      std: 0.01
    }
    bias_filler {
      type: "constant"
      value: 0
    }
  }
}
layer {
  name: "relu1"
  type: "ReLU"
  bottom: "conv1"
  top: "conv1"
}
layer {
  name: "norm1"
  type: "LRN"
  bottom: "conv1"
  top: "norm1"
  lrn_param {
    local_size: 5
    alpha: 0.0001
    beta: 0.75
  }
}
layer {
  name: "pool1"
  type: "Pooling"
  bottom: "norm1"
  top: "pool1"
  pooling_param {
    pool: MAX
    kernel_size: 3
    stride: 2
  }
}
layer {
  name: "conv2"
  type: "Convolution"
  bottom: "pool1"
  top: "conv2"
  param {
    lr_mult: 1
    decay_mult: 1
  }
  param {
    lr_mult: 2
    decay_mult: 0
  }
  convolution_param {
    num_output: 256
    pad: 2
    kernel_size: 5
    group: 2
    weight_filler {
      type: "gaussian"
      std: 0.01
    }
    bias_filler {
      type: "constant"
      value: 0.1
    }
  }
}
layer {
  name: "relu2"
  type: "ReLU"
  bottom: "conv2"
  top: "conv2"
}
layer {
  name: "norm2"
  type: "LRN"
  bottom: "conv2"
  top: "norm2"
  lrn_param {
    local_size: 5
    alpha: 0.0001
    beta: 0.75
  }
}
layer {
  name: "pool2"
  type: "Pooling"
  bottom: "norm2"
  top: "pool2"
  pooling_param {
    pool: MAX
    kernel_size: 3
    stride: 2
  }
}
layer {
  name: "conv3"
  type: "Convolution"
  bottom: "pool2"
  top: "conv3"
  param {
    lr_mult: 1
    decay_mult: 1
  }
  param {
    lr_mult: 2
    decay_mult: 0
  }
  convolution_param {
    num_output: 384
    pad: 1
    kernel_size: 3
    weight_filler {
      type: "gaussian"
      std: 0.01
    }
    bias_filler {
      type: "constant"
      value: 0
    }
  }
}
layer {
  name: "relu3"
  type: "ReLU"
  bottom: "conv3"
  top: "conv3"
}
layer {
  name: "conv4"
  type: "Convolution"
  bottom: "conv3"
  top: "conv4"
  param {
    lr_mult: 1
    decay_mult: 1
  }
  param {
    lr_mult: 2
    decay_mult: 0
  }
  convolution_param {
    num_output: 384
    pad: 1
    kernel_size: 3
    group: 2
    weight_filler {
      type: "gaussian"
      std: 0.01
    }
    bias_filler {
      type: "constant"
      value: 0.1
    }
  }
}
layer {
  name: "relu4"
  type: "ReLU"
  bottom: "conv4"
  top: "conv4"
}
layer {
  name: "conv5"
  type: "Convolution"
  bottom: "conv4"
  top: "conv5"
  param {
    lr_mult: 1
    decay_mult: 1
  }
  param {
    lr_mult: 2
    decay_mult: 0
  }
  convolution_param {
    num_output: 256
    pad: 1
    kernel_size: 3
    group: 2
    weight_filler {
      type: "gaussian"
      std: 0.01
    }
    bias_filler {
      type: "constant"
      value: 0.1
    }
  }
}
layer {
  name: "relu5"
  type: "ReLU"
  bottom: "conv5"
  top: "conv5"
}
layer {
  name: "pool5"
  type: "Pooling"
  bottom: "conv5"
  top: "pool5"
  pooling_param {
    pool: MAX
    kernel_size: 3
    stride: 2
  }
}
layer {
  name: "fc6"
  type: "InnerProduct"
  bottom: "pool5"
  top: "fc6"
  param {
    lr_mult: 1
    decay_mult: 1
  }
  param {
    lr_mult: 2
    decay_mult: 0
  }
  inner_product_param {
    num_output: 4096
    weight_filler {
      type: "gaussian"
      std: 0.005
    }
    bias_filler {
      type: "constant"
      value: 0.1
    }
  }
}
layer {
  name: "relu6"
  type: "ReLU"
  bottom: "fc6"
  top: "fc6"
}
layer {
  name: "drop6"
  type: "Dropout"
  bottom: "fc6"
  top: "fc6"
  dropout_param {
    dropout_ratio: 0.5
  }
}
layer {
  name: "fc7"
  type: "InnerProduct"
  bottom: "fc6"
  top: "fc7"
  param {
    lr_mult: 1
    decay_mult: 1
  }
  param {
    lr_mult: 2
    decay_mult: 0
  }
  inner_product_param {
    num_output: 4096
    weight_filler {
      type: "gaussian"
      std: 0.005
    }
    bias_filler {
      type: "constant"
      value: 0.1
    }
  }
}
layer {
  name: "relu7"
  type: "ReLU"
  bottom: "fc7"
  top: "fc7"
}
layer {
  name: "drop7"
  type: "Dropout"
  bottom: "fc7"
  top: "fc7"
  dropout_param {
    dropout_ratio: 0.5
  }
}
layer {
  name: "fc8_plantvillage"
  type: "InnerProduct"
  bottom: "fc7"
  top: "fc8_plantvillage"
  param {
    lr_mult: 1
    decay_mult: 1
  }
  param {
    lr_mult: 2
    decay_mult: 0
  }
  inner_product_param {
    num_output: 38
    weight_filler {
      type: "gaussian"
      std: 0.01
    }
    bias_filler {
      type: "constant"
      value: 0
    }
  }
}
layer {
  name: "prob"
  type: "Softmax"
  bottom: "fc8_plantvillage"
  top: "prob"
  include {
    phase: TEST
  }
}
layer {
  name: "hdf5out"
  type: "HDF5Output"
  bottom: "prob"
  bottom: "label"
  include {
    phase: TEST
  }
  hdf5_output_param {
    file_name: "hdf5_dumps/iter_1802.h5"
  }
}
layer {
  name: "loss"
  type: "SoftmaxWithLoss"
  bottom: "fc8_plantvillage"
  bottom: "label"
  top: "loss"
}
layer {
  name: "accuracy"
  type: "Accuracy"
  bottom: "fc8_plantvillage"
  bottom: "label"
  top: "accuracy"
  include {
    phase: TEST
  }
}
I0403 13:48:14.947114   368 layer_factory.hpp:77] Creating layer data
I0403 13:48:14.947754   368 net.cpp:91] Creating Layer data
I0403 13:48:14.947784   368 net.cpp:399] data -> data
I0403 13:48:14.947834   368 net.cpp:399] data -> label
I0403 13:48:14.947870   368 data_transformer.cpp:25] Loading mean file from: /home/mohanty/data/final_dataset/lmdb/segmented-20-80/mean.binaryproto
I0403 13:48:14.951088   371 db_lmdb.cpp:38] Opened lmdb /home/mohanty/data/final_dataset/lmdb/segmented-20-80/test_db
I0403 13:48:14.962493   368 data_layer.cpp:41] output data size: 100,3,227,227
I0403 13:48:15.084425   368 net.cpp:141] Setting up data
I0403 13:48:15.084527   368 net.cpp:148] Top shape: 100 3 227 227 (15458700)
I0403 13:48:15.084552   368 net.cpp:148] Top shape: 100 (100)
I0403 13:48:15.084568   368 net.cpp:156] Memory required for data: 61835200
I0403 13:48:15.084595   368 layer_factory.hpp:77] Creating layer label_data_1_split
I0403 13:48:15.084620   368 net.cpp:91] Creating Layer label_data_1_split
I0403 13:48:15.084638   368 net.cpp:425] label_data_1_split <- label
I0403 13:48:15.084669   368 net.cpp:399] label_data_1_split -> label_data_1_split_0
I0403 13:48:15.084697   368 net.cpp:399] label_data_1_split -> label_data_1_split_1
I0403 13:48:15.084717   368 net.cpp:399] label_data_1_split -> label_data_1_split_2
I0403 13:48:15.084781   368 net.cpp:141] Setting up label_data_1_split
I0403 13:48:15.084805   368 net.cpp:148] Top shape: 100 (100)
I0403 13:48:15.084822   368 net.cpp:148] Top shape: 100 (100)
I0403 13:48:15.084839   368 net.cpp:148] Top shape: 100 (100)
I0403 13:48:15.084854   368 net.cpp:156] Memory required for data: 61836400
I0403 13:48:15.084869   368 layer_factory.hpp:77] Creating layer conv1
I0403 13:48:15.084903   368 net.cpp:91] Creating Layer conv1
I0403 13:48:15.084921   368 net.cpp:425] conv1 <- data
I0403 13:48:15.084941   368 net.cpp:399] conv1 -> conv1
I0403 13:48:15.230263   368 net.cpp:141] Setting up conv1
I0403 13:48:15.230353   368 net.cpp:148] Top shape: 100 96 55 55 (29040000)
I0403 13:48:15.230372   368 net.cpp:156] Memory required for data: 177996400
I0403 13:48:15.230404   368 layer_factory.hpp:77] Creating layer relu1
I0403 13:48:15.230433   368 net.cpp:91] Creating Layer relu1
I0403 13:48:15.230453   368 net.cpp:425] relu1 <- conv1
I0403 13:48:15.230474   368 net.cpp:386] relu1 -> conv1 (in-place)
I0403 13:48:15.230828   368 net.cpp:141] Setting up relu1
I0403 13:48:15.230854   368 net.cpp:148] Top shape: 100 96 55 55 (29040000)
I0403 13:48:15.230901   368 net.cpp:156] Memory required for data: 294156400
I0403 13:48:15.230916   368 layer_factory.hpp:77] Creating layer norm1
I0403 13:48:15.230943   368 net.cpp:91] Creating Layer norm1
I0403 13:48:15.230960   368 net.cpp:425] norm1 <- conv1
I0403 13:48:15.230983   368 net.cpp:399] norm1 -> norm1
I0403 13:48:15.231309   368 net.cpp:141] Setting up norm1
I0403 13:48:15.231338   368 net.cpp:148] Top shape: 100 96 55 55 (29040000)
I0403 13:48:15.231353   368 net.cpp:156] Memory required for data: 410316400
I0403 13:48:15.231367   368 layer_factory.hpp:77] Creating layer pool1
I0403 13:48:15.231389   368 net.cpp:91] Creating Layer pool1
I0403 13:48:15.231405   368 net.cpp:425] pool1 <- norm1
I0403 13:48:15.231426   368 net.cpp:399] pool1 -> pool1
I0403 13:48:15.231497   368 net.cpp:141] Setting up pool1
I0403 13:48:15.231520   368 net.cpp:148] Top shape: 100 96 27 27 (6998400)
I0403 13:48:15.231534   368 net.cpp:156] Memory required for data: 438310000
I0403 13:48:15.231549   368 layer_factory.hpp:77] Creating layer conv2
I0403 13:48:15.231575   368 net.cpp:91] Creating Layer conv2
I0403 13:48:15.231591   368 net.cpp:425] conv2 <- pool1
I0403 13:48:15.231613   368 net.cpp:399] conv2 -> conv2
I0403 13:48:15.246646   368 net.cpp:141] Setting up conv2
I0403 13:48:15.246686   368 net.cpp:148] Top shape: 100 256 27 27 (18662400)
I0403 13:48:15.246703   368 net.cpp:156] Memory required for data: 512959600
I0403 13:48:15.246726   368 layer_factory.hpp:77] Creating layer relu2
I0403 13:48:15.246747   368 net.cpp:91] Creating Layer relu2
I0403 13:48:15.246764   368 net.cpp:425] relu2 <- conv2
I0403 13:48:15.246781   368 net.cpp:386] relu2 -> conv2 (in-place)
I0403 13:48:15.247104   368 net.cpp:141] Setting up relu2
I0403 13:48:15.247131   368 net.cpp:148] Top shape: 100 256 27 27 (18662400)
I0403 13:48:15.247148   368 net.cpp:156] Memory required for data: 587609200
I0403 13:48:15.247162   368 layer_factory.hpp:77] Creating layer norm2
I0403 13:48:15.247185   368 net.cpp:91] Creating Layer norm2
I0403 13:48:15.247202   368 net.cpp:425] norm2 <- conv2
I0403 13:48:15.247223   368 net.cpp:399] norm2 -> norm2
I0403 13:48:15.247426   368 net.cpp:141] Setting up norm2
I0403 13:48:15.247453   368 net.cpp:148] Top shape: 100 256 27 27 (18662400)
I0403 13:48:15.247468   368 net.cpp:156] Memory required for data: 662258800
I0403 13:48:15.247483   368 layer_factory.hpp:77] Creating layer pool2
I0403 13:48:15.247503   368 net.cpp:91] Creating Layer pool2
I0403 13:48:15.247520   368 net.cpp:425] pool2 <- norm2
I0403 13:48:15.247537   368 net.cpp:399] pool2 -> pool2
I0403 13:48:15.247592   368 net.cpp:141] Setting up pool2
I0403 13:48:15.247617   368 net.cpp:148] Top shape: 100 256 13 13 (4326400)
I0403 13:48:15.247632   368 net.cpp:156] Memory required for data: 679564400
I0403 13:48:15.247647   368 layer_factory.hpp:77] Creating layer conv3
I0403 13:48:15.247670   368 net.cpp:91] Creating Layer conv3
I0403 13:48:15.247687   368 net.cpp:425] conv3 <- pool2
I0403 13:48:15.247709   368 net.cpp:399] conv3 -> conv3
I0403 13:48:15.286988   368 net.cpp:141] Setting up conv3
I0403 13:48:15.287030   368 net.cpp:148] Top shape: 100 384 13 13 (6489600)
I0403 13:48:15.287047   368 net.cpp:156] Memory required for data: 705522800
I0403 13:48:15.287072   368 layer_factory.hpp:77] Creating layer relu3
I0403 13:48:15.287097   368 net.cpp:91] Creating Layer relu3
I0403 13:48:15.287117   368 net.cpp:425] relu3 <- conv3
I0403 13:48:15.287135   368 net.cpp:386] relu3 -> conv3 (in-place)
I0403 13:48:15.287418   368 net.cpp:141] Setting up relu3
I0403 13:48:15.287446   368 net.cpp:148] Top shape: 100 384 13 13 (6489600)
I0403 13:48:15.287462   368 net.cpp:156] Memory required for data: 731481200
I0403 13:48:15.287478   368 layer_factory.hpp:77] Creating layer conv4
I0403 13:48:15.287503   368 net.cpp:91] Creating Layer conv4
I0403 13:48:15.287521   368 net.cpp:425] conv4 <- conv3
I0403 13:48:15.287544   368 net.cpp:399] conv4 -> conv4
I0403 13:48:15.317246   368 net.cpp:141] Setting up conv4
I0403 13:48:15.317302   368 net.cpp:148] Top shape: 100 384 13 13 (6489600)
I0403 13:48:15.317349   368 net.cpp:156] Memory required for data: 757439600
I0403 13:48:15.317371   368 layer_factory.hpp:77] Creating layer relu4
I0403 13:48:15.317390   368 net.cpp:91] Creating Layer relu4
I0403 13:48:15.317406   368 net.cpp:425] relu4 <- conv4
I0403 13:48:15.317427   368 net.cpp:386] relu4 -> conv4 (in-place)
I0403 13:48:15.317698   368 net.cpp:141] Setting up relu4
I0403 13:48:15.317724   368 net.cpp:148] Top shape: 100 384 13 13 (6489600)
I0403 13:48:15.317739   368 net.cpp:156] Memory required for data: 783398000
I0403 13:48:15.317754   368 layer_factory.hpp:77] Creating layer conv5
I0403 13:48:15.317780   368 net.cpp:91] Creating Layer conv5
I0403 13:48:15.317800   368 net.cpp:425] conv5 <- conv4
I0403 13:48:15.317819   368 net.cpp:399] conv5 -> conv5
I0403 13:48:15.338479   368 net.cpp:141] Setting up conv5
I0403 13:48:15.338523   368 net.cpp:148] Top shape: 100 256 13 13 (4326400)
I0403 13:48:15.338541   368 net.cpp:156] Memory required for data: 800703600
I0403 13:48:15.338564   368 layer_factory.hpp:77] Creating layer relu5
I0403 13:48:15.338587   368 net.cpp:91] Creating Layer relu5
I0403 13:48:15.338604   368 net.cpp:425] relu5 <- conv5
I0403 13:48:15.338621   368 net.cpp:386] relu5 -> conv5 (in-place)
I0403 13:48:15.338932   368 net.cpp:141] Setting up relu5
I0403 13:48:15.338959   368 net.cpp:148] Top shape: 100 256 13 13 (4326400)
I0403 13:48:15.338975   368 net.cpp:156] Memory required for data: 818009200
I0403 13:48:15.338991   368 layer_factory.hpp:77] Creating layer pool5
I0403 13:48:15.339015   368 net.cpp:91] Creating Layer pool5
I0403 13:48:15.339032   368 net.cpp:425] pool5 <- conv5
I0403 13:48:15.339051   368 net.cpp:399] pool5 -> pool5
I0403 13:48:15.339112   368 net.cpp:141] Setting up pool5
I0403 13:48:15.339136   368 net.cpp:148] Top shape: 100 256 6 6 (921600)
I0403 13:48:15.339150   368 net.cpp:156] Memory required for data: 821695600
I0403 13:48:15.339165   368 layer_factory.hpp:77] Creating layer fc6
I0403 13:48:15.339195   368 net.cpp:91] Creating Layer fc6
I0403 13:48:15.339215   368 net.cpp:425] fc6 <- pool5
I0403 13:48:15.339232   368 net.cpp:399] fc6 -> fc6
I0403 13:48:16.898046   368 net.cpp:141] Setting up fc6
I0403 13:48:16.898092   368 net.cpp:148] Top shape: 100 4096 (409600)
I0403 13:48:16.898109   368 net.cpp:156] Memory required for data: 823334000
I0403 13:48:16.898130   368 layer_factory.hpp:77] Creating layer relu6
I0403 13:48:16.898154   368 net.cpp:91] Creating Layer relu6
I0403 13:48:16.898171   368 net.cpp:425] relu6 <- fc6
I0403 13:48:16.898205   368 net.cpp:386] relu6 -> fc6 (in-place)
I0403 13:48:16.898424   368 net.cpp:141] Setting up relu6
I0403 13:48:16.898450   368 net.cpp:148] Top shape: 100 4096 (409600)
I0403 13:48:16.898464   368 net.cpp:156] Memory required for data: 824972400
I0403 13:48:16.898479   368 layer_factory.hpp:77] Creating layer drop6
I0403 13:48:16.898500   368 net.cpp:91] Creating Layer drop6
I0403 13:48:16.898516   368 net.cpp:425] drop6 <- fc6
I0403 13:48:16.898532   368 net.cpp:386] drop6 -> fc6 (in-place)
I0403 13:48:16.898582   368 net.cpp:141] Setting up drop6
I0403 13:48:16.898607   368 net.cpp:148] Top shape: 100 4096 (409600)
I0403 13:48:16.898623   368 net.cpp:156] Memory required for data: 826610800
I0403 13:48:16.898638   368 layer_factory.hpp:77] Creating layer fc7
I0403 13:48:16.898658   368 net.cpp:91] Creating Layer fc7
I0403 13:48:16.898672   368 net.cpp:425] fc7 <- fc6
I0403 13:48:16.898691   368 net.cpp:399] fc7 -> fc7
I0403 13:48:17.622206   368 net.cpp:141] Setting up fc7
I0403 13:48:17.622262   368 net.cpp:148] Top shape: 100 4096 (409600)
I0403 13:48:17.622290   368 net.cpp:156] Memory required for data: 828249200
I0403 13:48:17.622313   368 layer_factory.hpp:77] Creating layer relu7
I0403 13:48:17.622336   368 net.cpp:91] Creating Layer relu7
I0403 13:48:17.622354   368 net.cpp:425] relu7 <- fc7
I0403 13:48:17.622375   368 net.cpp:386] relu7 -> fc7 (in-place)
I0403 13:48:17.622787   368 net.cpp:141] Setting up relu7
I0403 13:48:17.622814   368 net.cpp:148] Top shape: 100 4096 (409600)
I0403 13:48:17.622853   368 net.cpp:156] Memory required for data: 829887600
I0403 13:48:17.622869   368 layer_factory.hpp:77] Creating layer drop7
I0403 13:48:17.622889   368 net.cpp:91] Creating Layer drop7
I0403 13:48:17.622905   368 net.cpp:425] drop7 <- fc7
I0403 13:48:17.622925   368 net.cpp:386] drop7 -> fc7 (in-place)
I0403 13:48:17.622972   368 net.cpp:141] Setting up drop7
I0403 13:48:17.622995   368 net.cpp:148] Top shape: 100 4096 (409600)
I0403 13:48:17.623009   368 net.cpp:156] Memory required for data: 831526000
I0403 13:48:17.623024   368 layer_factory.hpp:77] Creating layer fc8_plantvillage
I0403 13:48:17.623044   368 net.cpp:91] Creating Layer fc8_plantvillage
I0403 13:48:17.623060   368 net.cpp:425] fc8_plantvillage <- fc7
I0403 13:48:17.623081   368 net.cpp:399] fc8_plantvillage -> fc8_plantvillage
I0403 13:48:17.630117   368 net.cpp:141] Setting up fc8_plantvillage
I0403 13:48:17.630147   368 net.cpp:148] Top shape: 100 38 (3800)
I0403 13:48:17.630163   368 net.cpp:156] Memory required for data: 831541200
I0403 13:48:17.630183   368 layer_factory.hpp:77] Creating layer fc8_plantvillage_fc8_plantvillage_0_split
I0403 13:48:17.630205   368 net.cpp:91] Creating Layer fc8_plantvillage_fc8_plantvillage_0_split
I0403 13:48:17.630223   368 net.cpp:425] fc8_plantvillage_fc8_plantvillage_0_split <- fc8_plantvillage
I0403 13:48:17.630241   368 net.cpp:399] fc8_plantvillage_fc8_plantvillage_0_split -> fc8_plantvillage_fc8_plantvillage_0_split_0
I0403 13:48:17.630262   368 net.cpp:399] fc8_plantvillage_fc8_plantvillage_0_split -> fc8_plantvillage_fc8_plantvillage_0_split_1
I0403 13:48:17.630290   368 net.cpp:399] fc8_plantvillage_fc8_plantvillage_0_split -> fc8_plantvillage_fc8_plantvillage_0_split_2
I0403 13:48:17.630374   368 net.cpp:141] Setting up fc8_plantvillage_fc8_plantvillage_0_split
I0403 13:48:17.630398   368 net.cpp:148] Top shape: 100 38 (3800)
I0403 13:48:17.630415   368 net.cpp:148] Top shape: 100 38 (3800)
I0403 13:48:17.630432   368 net.cpp:148] Top shape: 100 38 (3800)
I0403 13:48:17.630446   368 net.cpp:156] Memory required for data: 831586800
I0403 13:48:17.630461   368 layer_factory.hpp:77] Creating layer prob
I0403 13:48:17.630481   368 net.cpp:91] Creating Layer prob
I0403 13:48:17.630496   368 net.cpp:425] prob <- fc8_plantvillage_fc8_plantvillage_0_split_0
I0403 13:48:17.630516   368 net.cpp:399] prob -> prob
I0403 13:48:17.630755   368 net.cpp:141] Setting up prob
I0403 13:48:17.630782   368 net.cpp:148] Top shape: 100 38 (3800)
I0403 13:48:17.630798   368 net.cpp:156] Memory required for data: 831602000
I0403 13:48:17.630815   368 layer_factory.hpp:77] Creating layer hdf5out
I0403 13:48:17.630834   368 net.cpp:91] Creating Layer hdf5out
I0403 13:48:17.630851   368 net.cpp:425] hdf5out <- prob
I0403 13:48:17.630867   368 net.cpp:425] hdf5out <- label_data_1_split_0
I0403 13:48:17.633074   368 net.cpp:141] Setting up hdf5out
…
