…
I0403 13:43:08.405076 32733 net.cpp:313] The NetState phase (1) differed from the phase (0) specified by a rule in layer data
I0403 13:43:08.405383 32733 net.cpp:49] Initializing net from parameters: 
state {
  phase: TEST
}
layer {
  name: "data"
  type: "Data"
  top: "data"
  top: "label"
  include {
    phase: TEST
  }
  transform_param {
    crop_size: 227
    mean_file: "/home/mohanty/data/final_dataset/lmdb/segmented-20-80/mean.binaryproto"
  }
  data_param {
    source: "/home/mohanty/data/final_dataset/lmdb/segmented-20-80/test_db"
    batch_size: 100
    backend: LMDB
  }
}
layer {
  name: "conv1"
  type: "Convolution"
  bottom: "data"
  top: "conv1"
  param {
    lr_mult: 1
    decay_mult: 1
  }
  param {
    lr_mult: 2
    decay_mult: 0
  }
  convolution_param {
    num_output: 96
    kernel_size: 11
    stride: 4
    weight_filler {
      type: "gaussian"
      std: 0.01
    }
    bias_filler {
      type: "constant"
      value: 0
    }
  }
}
layer {
  name: "relu1"
  type: "ReLU"
  bottom: "conv1"
  top: "conv1"
}
layer {
  name: "norm1"
  type: "LRN"
  bottom: "conv1"
  top: "norm1"
  lrn_param {
    local_size: 5
    alpha: 0.0001
    beta: 0.75
  }
}
layer {
  name: "pool1"
  type: "Pooling"
  bottom: "norm1"
  top: "pool1"
  pooling_param {
    pool: MAX
    kernel_size: 3
    stride: 2
  }
}
layer {
  name: "conv2"
  type: "Convolution"
  bottom: "pool1"
  top: "conv2"
  param {
    lr_mult: 1
    decay_mult: 1
  }
  param {
    lr_mult: 2
    decay_mult: 0
  }
  convolution_param {
    num_output: 256
    pad: 2
    kernel_size: 5
    group: 2
    weight_filler {
      type: "gaussian"
      std: 0.01
    }
    bias_filler {
      type: "constant"
      value: 0.1
    }
  }
}
layer {
  name: "relu2"
  type: "ReLU"
  bottom: "conv2"
  top: "conv2"
}
layer {
  name: "norm2"
  type: "LRN"
  bottom: "conv2"
  top: "norm2"
  lrn_param {
    local_size: 5
    alpha: 0.0001
    beta: 0.75
  }
}
layer {
  name: "pool2"
  type: "Pooling"
  bottom: "norm2"
  top: "pool2"
  pooling_param {
    pool: MAX
    kernel_size: 3
    stride: 2
  }
}
layer {
  name: "conv3"
  type: "Convolution"
  bottom: "pool2"
  top: "conv3"
  param {
    lr_mult: 1
    decay_mult: 1
  }
  param {
    lr_mult: 2
    decay_mult: 0
  }
  convolution_param {
    num_output: 384
    pad: 1
    kernel_size: 3
    weight_filler {
      type: "gaussian"
      std: 0.01
    }
    bias_filler {
      type: "constant"
      value: 0
    }
  }
}
layer {
  name: "relu3"
  type: "ReLU"
  bottom: "conv3"
  top: "conv3"
}
layer {
  name: "conv4"
  type: "Convolution"
  bottom: "conv3"
  top: "conv4"
  param {
    lr_mult: 1
    decay_mult: 1
  }
  param {
    lr_mult: 2
    decay_mult: 0
  }
  convolution_param {
    num_output: 384
    pad: 1
    kernel_size: 3
    group: 2
    weight_filler {
      type: "gaussian"
      std: 0.01
    }
    bias_filler {
      type: "constant"
      value: 0.1
    }
  }
}
layer {
  name: "relu4"
  type: "ReLU"
  bottom: "conv4"
  top: "conv4"
}
layer {
  name: "conv5"
  type: "Convolution"
  bottom: "conv4"
  top: "conv5"
  param {
    lr_mult: 1
    decay_mult: 1
  }
  param {
    lr_mult: 2
    decay_mult: 0
  }
  convolution_param {
    num_output: 256
    pad: 1
    kernel_size: 3
    group: 2
    weight_filler {
      type: "gaussian"
      std: 0.01
    }
    bias_filler {
      type: "constant"
      value: 0.1
    }
  }
}
layer {
  name: "relu5"
  type: "ReLU"
  bottom: "conv5"
  top: "conv5"
}
layer {
  name: "pool5"
  type: "Pooling"
  bottom: "conv5"
  top: "pool5"
  pooling_param {
    pool: MAX
    kernel_size: 3
    stride: 2
  }
}
layer {
  name: "fc6"
  type: "InnerProduct"
  bottom: "pool5"
  top: "fc6"
  param {
    lr_mult: 1
    decay_mult: 1
  }
  param {
    lr_mult: 2
    decay_mult: 0
  }
  inner_product_param {
    num_output: 4096
    weight_filler {
      type: "gaussian"
      std: 0.005
    }
    bias_filler {
      type: "constant"
      value: 0.1
    }
  }
}
layer {
  name: "relu6"
  type: "ReLU"
  bottom: "fc6"
  top: "fc6"
}
layer {
  name: "drop6"
  type: "Dropout"
  bottom: "fc6"
  top: "fc6"
  dropout_param {
    dropout_ratio: 0.5
  }
}
layer {
  name: "fc7"
  type: "InnerProduct"
  bottom: "fc6"
  top: "fc7"
  param {
    lr_mult: 1
    decay_mult: 1
  }
  param {
    lr_mult: 2
    decay_mult: 0
  }
  inner_product_param {
    num_output: 4096
    weight_filler {
      type: "gaussian"
      std: 0.005
    }
    bias_filler {
      type: "constant"
      value: 0.1
    }
  }
}
layer {
  name: "relu7"
  type: "ReLU"
  bottom: "fc7"
  top: "fc7"
}
layer {
  name: "drop7"
  type: "Dropout"
  bottom: "fc7"
  top: "fc7"
  dropout_param {
    dropout_ratio: 0.5
  }
}
layer {
  name: "fc8_plantvillage"
  type: "InnerProduct"
  bottom: "fc7"
  top: "fc8_plantvillage"
  param {
    lr_mult: 1
    decay_mult: 1
  }
  param {
    lr_mult: 2
    decay_mult: 0
  }
  inner_product_param {
    num_output: 38
    weight_filler {
      type: "gaussian"
      std: 0.01
    }
    bias_filler {
      type: "constant"
      value: 0
    }
  }
}
layer {
  name: "prob"
  type: "Softmax"
  bottom: "fc8_plantvillage"
  top: "prob"
  include {
    phase: TEST
  }
}
layer {
  name: "hdf5out"
  type: "HDF5Output"
  bottom: "prob"
  bottom: "label"
  include {
    phase: TEST
  }
  hdf5_output_param {
    file_name: "hdf5_dumps/iter_1378.h5"
  }
}
layer {
  name: "loss"
  type: "SoftmaxWithLoss"
  bottom: "fc8_plantvillage"
  bottom: "label"
  top: "loss"
}
layer {
  name: "accuracy"
  type: "Accuracy"
  bottom: "fc8_plantvillage"
  bottom: "label"
  top: "accuracy"
  include {
    phase: TEST
  }
}
I0403 13:43:08.405964 32733 layer_factory.hpp:77] Creating layer data
I0403 13:43:08.406589 32733 net.cpp:91] Creating Layer data
I0403 13:43:08.406621 32733 net.cpp:399] data -> data
I0403 13:43:08.406672 32733 net.cpp:399] data -> label
I0403 13:43:08.406709 32733 data_transformer.cpp:25] Loading mean file from: /home/mohanty/data/final_dataset/lmdb/segmented-20-80/mean.binaryproto
I0403 13:43:08.411797 32738 db_lmdb.cpp:38] Opened lmdb /home/mohanty/data/final_dataset/lmdb/segmented-20-80/test_db
I0403 13:43:08.421208 32733 data_layer.cpp:41] output data size: 100,3,227,227
I0403 13:43:08.541865 32733 net.cpp:141] Setting up data
I0403 13:43:08.541926 32733 net.cpp:148] Top shape: 100 3 227 227 (15458700)
I0403 13:43:08.541950 32733 net.cpp:148] Top shape: 100 (100)
I0403 13:43:08.541967 32733 net.cpp:156] Memory required for data: 61835200
I0403 13:43:08.541997 32733 layer_factory.hpp:77] Creating layer label_data_1_split
I0403 13:43:08.542024 32733 net.cpp:91] Creating Layer label_data_1_split
I0403 13:43:08.542045 32733 net.cpp:425] label_data_1_split <- label
I0403 13:43:08.542078 32733 net.cpp:399] label_data_1_split -> label_data_1_split_0
I0403 13:43:08.542105 32733 net.cpp:399] label_data_1_split -> label_data_1_split_1
I0403 13:43:08.542127 32733 net.cpp:399] label_data_1_split -> label_data_1_split_2
I0403 13:43:08.542194 32733 net.cpp:141] Setting up label_data_1_split
I0403 13:43:08.542218 32733 net.cpp:148] Top shape: 100 (100)
I0403 13:43:08.542237 32733 net.cpp:148] Top shape: 100 (100)
I0403 13:43:08.542253 32733 net.cpp:148] Top shape: 100 (100)
I0403 13:43:08.542269 32733 net.cpp:156] Memory required for data: 61836400
I0403 13:43:08.542297 32733 layer_factory.hpp:77] Creating layer conv1
I0403 13:43:08.542330 32733 net.cpp:91] Creating Layer conv1
I0403 13:43:08.542349 32733 net.cpp:425] conv1 <- data
I0403 13:43:08.542371 32733 net.cpp:399] conv1 -> conv1
I0403 13:43:08.682075 32733 net.cpp:141] Setting up conv1
I0403 13:43:08.682165 32733 net.cpp:148] Top shape: 100 96 55 55 (29040000)
I0403 13:43:08.682185 32733 net.cpp:156] Memory required for data: 177996400
I0403 13:43:08.682219 32733 layer_factory.hpp:77] Creating layer relu1
I0403 13:43:08.682248 32733 net.cpp:91] Creating Layer relu1
I0403 13:43:08.682270 32733 net.cpp:425] relu1 <- conv1
I0403 13:43:08.682306 32733 net.cpp:386] relu1 -> conv1 (in-place)
I0403 13:43:08.682577 32733 net.cpp:141] Setting up relu1
I0403 13:43:08.682606 32733 net.cpp:148] Top shape: 100 96 55 55 (29040000)
I0403 13:43:08.682654 32733 net.cpp:156] Memory required for data: 294156400
I0403 13:43:08.682672 32733 layer_factory.hpp:77] Creating layer norm1
I0403 13:43:08.682701 32733 net.cpp:91] Creating Layer norm1
I0403 13:43:08.682720 32733 net.cpp:425] norm1 <- conv1
I0403 13:43:08.682739 32733 net.cpp:399] norm1 -> norm1
I0403 13:43:08.683039 32733 net.cpp:141] Setting up norm1
I0403 13:43:08.683068 32733 net.cpp:148] Top shape: 100 96 55 55 (29040000)
I0403 13:43:08.683086 32733 net.cpp:156] Memory required for data: 410316400
I0403 13:43:08.683102 32733 layer_factory.hpp:77] Creating layer pool1
I0403 13:43:08.683126 32733 net.cpp:91] Creating Layer pool1
I0403 13:43:08.683145 32733 net.cpp:425] pool1 <- norm1
I0403 13:43:08.683162 32733 net.cpp:399] pool1 -> pool1
I0403 13:43:08.683228 32733 net.cpp:141] Setting up pool1
I0403 13:43:08.683320 32733 net.cpp:148] Top shape: 100 96 27 27 (6998400)
I0403 13:43:08.683336 32733 net.cpp:156] Memory required for data: 438310000
I0403 13:43:08.683351 32733 layer_factory.hpp:77] Creating layer conv2
I0403 13:43:08.683375 32733 net.cpp:91] Creating Layer conv2
I0403 13:43:08.683393 32733 net.cpp:425] conv2 <- pool1
I0403 13:43:08.683411 32733 net.cpp:399] conv2 -> conv2
I0403 13:43:08.698004 32733 net.cpp:141] Setting up conv2
I0403 13:43:08.698042 32733 net.cpp:148] Top shape: 100 256 27 27 (18662400)
I0403 13:43:08.698060 32733 net.cpp:156] Memory required for data: 512959600
I0403 13:43:08.698084 32733 layer_factory.hpp:77] Creating layer relu2
I0403 13:43:08.698106 32733 net.cpp:91] Creating Layer relu2
I0403 13:43:08.698122 32733 net.cpp:425] relu2 <- conv2
I0403 13:43:08.698140 32733 net.cpp:386] relu2 -> conv2 (in-place)
I0403 13:43:08.698407 32733 net.cpp:141] Setting up relu2
I0403 13:43:08.698434 32733 net.cpp:148] Top shape: 100 256 27 27 (18662400)
I0403 13:43:08.698451 32733 net.cpp:156] Memory required for data: 587609200
I0403 13:43:08.698467 32733 layer_factory.hpp:77] Creating layer norm2
I0403 13:43:08.698487 32733 net.cpp:91] Creating Layer norm2
I0403 13:43:08.698504 32733 net.cpp:425] norm2 <- conv2
I0403 13:43:08.698523 32733 net.cpp:399] norm2 -> norm2
I0403 13:43:08.698719 32733 net.cpp:141] Setting up norm2
I0403 13:43:08.698745 32733 net.cpp:148] Top shape: 100 256 27 27 (18662400)
I0403 13:43:08.698762 32733 net.cpp:156] Memory required for data: 662258800
I0403 13:43:08.698777 32733 layer_factory.hpp:77] Creating layer pool2
I0403 13:43:08.698797 32733 net.cpp:91] Creating Layer pool2
I0403 13:43:08.698813 32733 net.cpp:425] pool2 <- norm2
I0403 13:43:08.698833 32733 net.cpp:399] pool2 -> pool2
I0403 13:43:08.698884 32733 net.cpp:141] Setting up pool2
I0403 13:43:08.698909 32733 net.cpp:148] Top shape: 100 256 13 13 (4326400)
I0403 13:43:08.698923 32733 net.cpp:156] Memory required for data: 679564400
I0403 13:43:08.698940 32733 layer_factory.hpp:77] Creating layer conv3
I0403 13:43:08.698961 32733 net.cpp:91] Creating Layer conv3
I0403 13:43:08.698978 32733 net.cpp:425] conv3 <- pool2
I0403 13:43:08.698998 32733 net.cpp:399] conv3 -> conv3
I0403 13:43:08.737931 32733 net.cpp:141] Setting up conv3
I0403 13:43:08.738003 32733 net.cpp:148] Top shape: 100 384 13 13 (6489600)
I0403 13:43:08.738023 32733 net.cpp:156] Memory required for data: 705522800
I0403 13:43:08.738050 32733 layer_factory.hpp:77] Creating layer relu3
I0403 13:43:08.738073 32733 net.cpp:91] Creating Layer relu3
I0403 13:43:08.738092 32733 net.cpp:425] relu3 <- conv3
I0403 13:43:08.738116 32733 net.cpp:386] relu3 -> conv3 (in-place)
I0403 13:43:08.738415 32733 net.cpp:141] Setting up relu3
I0403 13:43:08.738443 32733 net.cpp:148] Top shape: 100 384 13 13 (6489600)
I0403 13:43:08.738459 32733 net.cpp:156] Memory required for data: 731481200
I0403 13:43:08.738476 32733 layer_factory.hpp:77] Creating layer conv4
I0403 13:43:08.738503 32733 net.cpp:91] Creating Layer conv4
I0403 13:43:08.738528 32733 net.cpp:425] conv4 <- conv3
I0403 13:43:08.738551 32733 net.cpp:399] conv4 -> conv4
I0403 13:43:08.768112 32733 net.cpp:141] Setting up conv4
I0403 13:43:08.768167 32733 net.cpp:148] Top shape: 100 384 13 13 (6489600)
I0403 13:43:08.768216 32733 net.cpp:156] Memory required for data: 757439600
I0403 13:43:08.768251 32733 layer_factory.hpp:77] Creating layer relu4
I0403 13:43:08.768277 32733 net.cpp:91] Creating Layer relu4
I0403 13:43:08.768296 32733 net.cpp:425] relu4 <- conv4
I0403 13:43:08.768319 32733 net.cpp:386] relu4 -> conv4 (in-place)
I0403 13:43:08.768604 32733 net.cpp:141] Setting up relu4
I0403 13:43:08.768633 32733 net.cpp:148] Top shape: 100 384 13 13 (6489600)
I0403 13:43:08.768651 32733 net.cpp:156] Memory required for data: 783398000
I0403 13:43:08.768668 32733 layer_factory.hpp:77] Creating layer conv5
I0403 13:43:08.768694 32733 net.cpp:91] Creating Layer conv5
I0403 13:43:08.768714 32733 net.cpp:425] conv5 <- conv4
I0403 13:43:08.768739 32733 net.cpp:399] conv5 -> conv5
I0403 13:43:08.789690 32733 net.cpp:141] Setting up conv5
I0403 13:43:08.789754 32733 net.cpp:148] Top shape: 100 256 13 13 (4326400)
I0403 13:43:08.789773 32733 net.cpp:156] Memory required for data: 800703600
I0403 13:43:08.789801 32733 layer_factory.hpp:77] Creating layer relu5
I0403 13:43:08.789824 32733 net.cpp:91] Creating Layer relu5
I0403 13:43:08.789847 32733 net.cpp:425] relu5 <- conv5
I0403 13:43:08.789901 32733 net.cpp:386] relu5 -> conv5 (in-place)
I0403 13:43:08.790187 32733 net.cpp:141] Setting up relu5
I0403 13:43:08.790215 32733 net.cpp:148] Top shape: 100 256 13 13 (4326400)
I0403 13:43:08.790231 32733 net.cpp:156] Memory required for data: 818009200
I0403 13:43:08.790247 32733 layer_factory.hpp:77] Creating layer pool5
I0403 13:43:08.790277 32733 net.cpp:91] Creating Layer pool5
I0403 13:43:08.790304 32733 net.cpp:425] pool5 <- conv5
I0403 13:43:08.790325 32733 net.cpp:399] pool5 -> pool5
I0403 13:43:08.790397 32733 net.cpp:141] Setting up pool5
I0403 13:43:08.790422 32733 net.cpp:148] Top shape: 100 256 6 6 (921600)
I0403 13:43:08.790438 32733 net.cpp:156] Memory required for data: 821695600
I0403 13:43:08.790454 32733 layer_factory.hpp:77] Creating layer fc6
I0403 13:43:08.790482 32733 net.cpp:91] Creating Layer fc6
I0403 13:43:08.790501 32733 net.cpp:425] fc6 <- pool5
I0403 13:43:08.790524 32733 net.cpp:399] fc6 -> fc6
I0403 13:43:10.332142 32733 net.cpp:141] Setting up fc6
I0403 13:43:10.332185 32733 net.cpp:148] Top shape: 100 4096 (409600)
I0403 13:43:10.332201 32733 net.cpp:156] Memory required for data: 823334000
I0403 13:43:10.332223 32733 layer_factory.hpp:77] Creating layer relu6
I0403 13:43:10.332247 32733 net.cpp:91] Creating Layer relu6
I0403 13:43:10.332264 32733 net.cpp:425] relu6 <- fc6
I0403 13:43:10.332296 32733 net.cpp:386] relu6 -> fc6 (in-place)
I0403 13:43:10.332510 32733 net.cpp:141] Setting up relu6
I0403 13:43:10.332536 32733 net.cpp:148] Top shape: 100 4096 (409600)
I0403 13:43:10.332551 32733 net.cpp:156] Memory required for data: 824972400
I0403 13:43:10.332566 32733 layer_factory.hpp:77] Creating layer drop6
I0403 13:43:10.332586 32733 net.cpp:91] Creating Layer drop6
I0403 13:43:10.332602 32733 net.cpp:425] drop6 <- fc6
I0403 13:43:10.332624 32733 net.cpp:386] drop6 -> fc6 (in-place)
I0403 13:43:10.332674 32733 net.cpp:141] Setting up drop6
I0403 13:43:10.332700 32733 net.cpp:148] Top shape: 100 4096 (409600)
I0403 13:43:10.332716 32733 net.cpp:156] Memory required for data: 826610800
I0403 13:43:10.332731 32733 layer_factory.hpp:77] Creating layer fc7
I0403 13:43:10.332751 32733 net.cpp:91] Creating Layer fc7
I0403 13:43:10.332767 32733 net.cpp:425] fc7 <- fc6
I0403 13:43:10.332787 32733 net.cpp:399] fc7 -> fc7
I0403 13:43:11.024001 32733 net.cpp:141] Setting up fc7
I0403 13:43:11.024047 32733 net.cpp:148] Top shape: 100 4096 (409600)
I0403 13:43:11.024067 32733 net.cpp:156] Memory required for data: 828249200
I0403 13:43:11.024092 32733 layer_factory.hpp:77] Creating layer relu7
I0403 13:43:11.024116 32733 net.cpp:91] Creating Layer relu7
I0403 13:43:11.024134 32733 net.cpp:425] relu7 <- fc7
I0403 13:43:11.024158 32733 net.cpp:386] relu7 -> fc7 (in-place)
I0403 13:43:11.024605 32733 net.cpp:141] Setting up relu7
I0403 13:43:11.024636 32733 net.cpp:148] Top shape: 100 4096 (409600)
I0403 13:43:11.024687 32733 net.cpp:156] Memory required for data: 829887600
I0403 13:43:11.024703 32733 layer_factory.hpp:77] Creating layer drop7
I0403 13:43:11.024724 32733 net.cpp:91] Creating Layer drop7
I0403 13:43:11.024752 32733 net.cpp:425] drop7 <- fc7
I0403 13:43:11.024781 32733 net.cpp:386] drop7 -> fc7 (in-place)
I0403 13:43:11.024828 32733 net.cpp:141] Setting up drop7
I0403 13:43:11.024858 32733 net.cpp:148] Top shape: 100 4096 (409600)
I0403 13:43:11.024875 32733 net.cpp:156] Memory required for data: 831526000
I0403 13:43:11.024893 32733 layer_factory.hpp:77] Creating layer fc8_plantvillage
I0403 13:43:11.024914 32733 net.cpp:91] Creating Layer fc8_plantvillage
I0403 13:43:11.024931 32733 net.cpp:425] fc8_plantvillage <- fc7
I0403 13:43:11.024953 32733 net.cpp:399] fc8_plantvillage -> fc8_plantvillage
I0403 13:43:11.032097 32733 net.cpp:141] Setting up fc8_plantvillage
I0403 13:43:11.032129 32733 net.cpp:148] Top shape: 100 38 (3800)
I0403 13:43:11.032146 32733 net.cpp:156] Memory required for data: 831541200
I0403 13:43:11.032168 32733 layer_factory.hpp:77] Creating layer fc8_plantvillage_fc8_plantvillage_0_split
I0403 13:43:11.032192 32733 net.cpp:91] Creating Layer fc8_plantvillage_fc8_plantvillage_0_split
I0403 13:43:11.032212 32733 net.cpp:425] fc8_plantvillage_fc8_plantvillage_0_split <- fc8_plantvillage
I0403 13:43:11.032232 32733 net.cpp:399] fc8_plantvillage_fc8_plantvillage_0_split -> fc8_plantvillage_fc8_plantvillage_0_split_0
I0403 13:43:11.032254 32733 net.cpp:399] fc8_plantvillage_fc8_plantvillage_0_split -> fc8_plantvillage_fc8_plantvillage_0_split_1
I0403 13:43:11.032290 32733 net.cpp:399] fc8_plantvillage_fc8_plantvillage_0_split -> fc8_plantvillage_fc8_plantvillage_0_split_2
I0403 13:43:11.032377 32733 net.cpp:141] Setting up fc8_plantvillage_fc8_plantvillage_0_split
I0403 13:43:11.032403 32733 net.cpp:148] Top shape: 100 38 (3800)
I0403 13:43:11.032421 32733 net.cpp:148] Top shape: 100 38 (3800)
I0403 13:43:11.032439 32733 net.cpp:148] Top shape: 100 38 (3800)
I0403 13:43:11.032455 32733 net.cpp:156] Memory required for data: 831586800
I0403 13:43:11.032471 32733 layer_factory.hpp:77] Creating layer prob
I0403 13:43:11.032491 32733 net.cpp:91] Creating Layer prob
I0403 13:43:11.032510 32733 net.cpp:425] prob <- fc8_plantvillage_fc8_plantvillage_0_split_0
I0403 13:43:11.032529 32733 net.cpp:399] prob -> prob
I0403 13:43:11.032768 32733 net.cpp:141] Setting up prob
I0403 13:43:11.032795 32733 net.cpp:148] Top shape: 100 38 (3800)
I0403 13:43:11.032812 32733 net.cpp:156] Memory required for data: 831602000
I0403 13:43:11.032829 32733 layer_factory.hpp:77] Creating layer hdf5out
I0403 13:43:11.032850 32733 net.cpp:91] Creating Layer hdf5out
I0403 13:43:11.032866 32733 net.cpp:425] hdf5out <- prob
I0403 13:43:11.032886 32733 net.cpp:425] hdf5out <- label_data_1_split_0
I0403 13:43:11.035202 32733 net.cpp:141] Setting up hdf5out
…
