…
I0403 13:58:29.186419   573 net.cpp:313] The NetState phase (1) differed from the phase (0) specified by a rule in layer data
I0403 13:58:29.186729   573 net.cpp:49] Initializing net from parameters: 
state {
  phase: TEST
}
layer {
  name: "data"
  type: "Data"
  top: "data"
  top: "label"
  include {
    phase: TEST
  }
  transform_param {
    crop_size: 227
    mean_file: "/home/mohanty/data/final_dataset/lmdb/segmented-20-80/mean.binaryproto"
  }
  data_param {
    source: "/home/mohanty/data/final_dataset/lmdb/segmented-20-80/test_db"
    batch_size: 100
    backend: LMDB
  }
}
layer {
  name: "conv1"
  type: "Convolution"
  bottom: "data"
  top: "conv1"
  param {
    lr_mult: 1
    decay_mult: 1
  }
  param {
    lr_mult: 2
    decay_mult: 0
  }
  convolution_param {
    num_output: 96
    kernel_size: 11
    stride: 4
    weight_filler {
      type: "gaussian"
      std: 0.01
    }
    bias_filler {
      type: "constant"
      value: 0
    }
  }
}
layer {
  name: "relu1"
  type: "ReLU"
  bottom: "conv1"
  top: "conv1"
}
layer {
  name: "norm1"
  type: "LRN"
  bottom: "conv1"
  top: "norm1"
  lrn_param {
    local_size: 5
    alpha: 0.0001
    beta: 0.75
  }
}
layer {
  name: "pool1"
  type: "Pooling"
  bottom: "norm1"
  top: "pool1"
  pooling_param {
    pool: MAX
    kernel_size: 3
    stride: 2
  }
}
layer {
  name: "conv2"
  type: "Convolution"
  bottom: "pool1"
  top: "conv2"
  param {
    lr_mult: 1
    decay_mult: 1
  }
  param {
    lr_mult: 2
    decay_mult: 0
  }
  convolution_param {
    num_output: 256
    pad: 2
    kernel_size: 5
    group: 2
    weight_filler {
      type: "gaussian"
      std: 0.01
    }
    bias_filler {
      type: "constant"
      value: 0.1
    }
  }
}
layer {
  name: "relu2"
  type: "ReLU"
  bottom: "conv2"
  top: "conv2"
}
layer {
  name: "norm2"
  type: "LRN"
  bottom: "conv2"
  top: "norm2"
  lrn_param {
    local_size: 5
    alpha: 0.0001
    beta: 0.75
  }
}
layer {
  name: "pool2"
  type: "Pooling"
  bottom: "norm2"
  top: "pool2"
  pooling_param {
    pool: MAX
    kernel_size: 3
    stride: 2
  }
}
layer {
  name: "conv3"
  type: "Convolution"
  bottom: "pool2"
  top: "conv3"
  param {
    lr_mult: 1
    decay_mult: 1
  }
  param {
    lr_mult: 2
    decay_mult: 0
  }
  convolution_param {
    num_output: 384
    pad: 1
    kernel_size: 3
    weight_filler {
      type: "gaussian"
      std: 0.01
    }
    bias_filler {
      type: "constant"
      value: 0
    }
  }
}
layer {
  name: "relu3"
  type: "ReLU"
  bottom: "conv3"
  top: "conv3"
}
layer {
  name: "conv4"
  type: "Convolution"
  bottom: "conv3"
  top: "conv4"
  param {
    lr_mult: 1
    decay_mult: 1
  }
  param {
    lr_mult: 2
    decay_mult: 0
  }
  convolution_param {
    num_output: 384
    pad: 1
    kernel_size: 3
    group: 2
    weight_filler {
      type: "gaussian"
      std: 0.01
    }
    bias_filler {
      type: "constant"
      value: 0.1
    }
  }
}
layer {
  name: "relu4"
  type: "ReLU"
  bottom: "conv4"
  top: "conv4"
}
layer {
  name: "conv5"
  type: "Convolution"
  bottom: "conv4"
  top: "conv5"
  param {
    lr_mult: 1
    decay_mult: 1
  }
  param {
    lr_mult: 2
    decay_mult: 0
  }
  convolution_param {
    num_output: 256
    pad: 1
    kernel_size: 3
    group: 2
    weight_filler {
      type: "gaussian"
      std: 0.01
    }
    bias_filler {
      type: "constant"
      value: 0.1
    }
  }
}
layer {
  name: "relu5"
  type: "ReLU"
  bottom: "conv5"
  top: "conv5"
}
layer {
  name: "pool5"
  type: "Pooling"
  bottom: "conv5"
  top: "pool5"
  pooling_param {
    pool: MAX
    kernel_size: 3
    stride: 2
  }
}
layer {
  name: "fc6"
  type: "InnerProduct"
  bottom: "pool5"
  top: "fc6"
  param {
    lr_mult: 1
    decay_mult: 1
  }
  param {
    lr_mult: 2
    decay_mult: 0
  }
  inner_product_param {
    num_output: 4096
    weight_filler {
      type: "gaussian"
      std: 0.005
    }
    bias_filler {
      type: "constant"
      value: 0.1
    }
  }
}
layer {
  name: "relu6"
  type: "ReLU"
  bottom: "fc6"
  top: "fc6"
}
layer {
  name: "drop6"
  type: "Dropout"
  bottom: "fc6"
  top: "fc6"
  dropout_param {
    dropout_ratio: 0.5
  }
}
layer {
  name: "fc7"
  type: "InnerProduct"
  bottom: "fc6"
  top: "fc7"
  param {
    lr_mult: 1
    decay_mult: 1
  }
  param {
    lr_mult: 2
    decay_mult: 0
  }
  inner_product_param {
    num_output: 4096
    weight_filler {
      type: "gaussian"
      std: 0.005
    }
    bias_filler {
      type: "constant"
      value: 0.1
    }
  }
}
layer {
  name: "relu7"
  type: "ReLU"
  bottom: "fc7"
  top: "fc7"
}
layer {
  name: "drop7"
  type: "Dropout"
  bottom: "fc7"
  top: "fc7"
  dropout_param {
    dropout_ratio: 0.5
  }
}
layer {
  name: "fc8_plantvillage"
  type: "InnerProduct"
  bottom: "fc7"
  top: "fc8_plantvillage"
  param {
    lr_mult: 1
    decay_mult: 1
  }
  param {
    lr_mult: 2
    decay_mult: 0
  }
  inner_product_param {
    num_output: 38
    weight_filler {
      type: "gaussian"
      std: 0.01
    }
    bias_filler {
      type: "constant"
      value: 0
    }
  }
}
layer {
  name: "prob"
  type: "Softmax"
  bottom: "fc8_plantvillage"
  top: "prob"
  include {
    phase: TEST
  }
}
layer {
  name: "hdf5out"
  type: "HDF5Output"
  bottom: "prob"
  bottom: "label"
  include {
    phase: TEST
  }
  hdf5_output_param {
    file_name: "hdf5_dumps/iter_2650.h5"
  }
}
layer {
  name: "loss"
  type: "SoftmaxWithLoss"
  bottom: "fc8_plantvillage"
  bottom: "label"
  top: "loss"
}
layer {
  name: "accuracy"
  type: "Accuracy"
  bottom: "fc8_plantvillage"
  bottom: "label"
  top: "accuracy"
  include {
    phase: TEST
  }
}
I0403 13:58:29.187238   573 layer_factory.hpp:77] Creating layer data
I0403 13:58:29.187885   573 net.cpp:91] Creating Layer data
I0403 13:58:29.187917   573 net.cpp:399] data -> data
I0403 13:58:29.187968   573 net.cpp:399] data -> label
I0403 13:58:29.188005   573 data_transformer.cpp:25] Loading mean file from: /home/mohanty/data/final_dataset/lmdb/segmented-20-80/mean.binaryproto
I0403 13:58:29.190974   576 db_lmdb.cpp:38] Opened lmdb /home/mohanty/data/final_dataset/lmdb/segmented-20-80/test_db
I0403 13:58:29.202574   573 data_layer.cpp:41] output data size: 100,3,227,227
I0403 13:58:29.326000   573 net.cpp:141] Setting up data
I0403 13:58:29.326107   573 net.cpp:148] Top shape: 100 3 227 227 (15458700)
I0403 13:58:29.326130   573 net.cpp:148] Top shape: 100 (100)
I0403 13:58:29.326146   573 net.cpp:156] Memory required for data: 61835200
I0403 13:58:29.326184   573 layer_factory.hpp:77] Creating layer label_data_1_split
I0403 13:58:29.326210   573 net.cpp:91] Creating Layer label_data_1_split
I0403 13:58:29.326230   573 net.cpp:425] label_data_1_split <- label
I0403 13:58:29.326261   573 net.cpp:399] label_data_1_split -> label_data_1_split_0
I0403 13:58:29.326294   573 net.cpp:399] label_data_1_split -> label_data_1_split_1
I0403 13:58:29.326316   573 net.cpp:399] label_data_1_split -> label_data_1_split_2
I0403 13:58:29.326382   573 net.cpp:141] Setting up label_data_1_split
I0403 13:58:29.326407   573 net.cpp:148] Top shape: 100 (100)
I0403 13:58:29.326426   573 net.cpp:148] Top shape: 100 (100)
I0403 13:58:29.326442   573 net.cpp:148] Top shape: 100 (100)
I0403 13:58:29.326467   573 net.cpp:156] Memory required for data: 61836400
I0403 13:58:29.326483   573 layer_factory.hpp:77] Creating layer conv1
I0403 13:58:29.326515   573 net.cpp:91] Creating Layer conv1
I0403 13:58:29.326535   573 net.cpp:425] conv1 <- data
I0403 13:58:29.326555   573 net.cpp:399] conv1 -> conv1
I0403 13:58:29.471483   573 net.cpp:141] Setting up conv1
I0403 13:58:29.471565   573 net.cpp:148] Top shape: 100 96 55 55 (29040000)
I0403 13:58:29.471582   573 net.cpp:156] Memory required for data: 177996400
I0403 13:58:29.471614   573 layer_factory.hpp:77] Creating layer relu1
I0403 13:58:29.471643   573 net.cpp:91] Creating Layer relu1
I0403 13:58:29.471662   573 net.cpp:425] relu1 <- conv1
I0403 13:58:29.471683   573 net.cpp:386] relu1 -> conv1 (in-place)
I0403 13:58:29.471946   573 net.cpp:141] Setting up relu1
I0403 13:58:29.471976   573 net.cpp:148] Top shape: 100 96 55 55 (29040000)
I0403 13:58:29.472025   573 net.cpp:156] Memory required for data: 294156400
I0403 13:58:29.472043   573 layer_factory.hpp:77] Creating layer norm1
I0403 13:58:29.472071   573 net.cpp:91] Creating Layer norm1
I0403 13:58:29.472090   573 net.cpp:425] norm1 <- conv1
I0403 13:58:29.472108   573 net.cpp:399] norm1 -> norm1
I0403 13:58:29.472436   573 net.cpp:141] Setting up norm1
I0403 13:58:29.472466   573 net.cpp:148] Top shape: 100 96 55 55 (29040000)
I0403 13:58:29.472483   573 net.cpp:156] Memory required for data: 410316400
I0403 13:58:29.472499   573 layer_factory.hpp:77] Creating layer pool1
I0403 13:58:29.472524   573 net.cpp:91] Creating Layer pool1
I0403 13:58:29.472543   573 net.cpp:425] pool1 <- norm1
I0403 13:58:29.472561   573 net.cpp:399] pool1 -> pool1
I0403 13:58:29.472630   573 net.cpp:141] Setting up pool1
I0403 13:58:29.472654   573 net.cpp:148] Top shape: 100 96 27 27 (6998400)
I0403 13:58:29.472671   573 net.cpp:156] Memory required for data: 438310000
I0403 13:58:29.472687   573 layer_factory.hpp:77] Creating layer conv2
I0403 13:58:29.472712   573 net.cpp:91] Creating Layer conv2
I0403 13:58:29.472729   573 net.cpp:425] conv2 <- pool1
I0403 13:58:29.472748   573 net.cpp:399] conv2 -> conv2
I0403 13:58:29.488173   573 net.cpp:141] Setting up conv2
I0403 13:58:29.488231   573 net.cpp:148] Top shape: 100 256 27 27 (18662400)
I0403 13:58:29.488250   573 net.cpp:156] Memory required for data: 512959600
I0403 13:58:29.488279   573 layer_factory.hpp:77] Creating layer relu2
I0403 13:58:29.488301   573 net.cpp:91] Creating Layer relu2
I0403 13:58:29.488319   573 net.cpp:425] relu2 <- conv2
I0403 13:58:29.488338   573 net.cpp:386] relu2 -> conv2 (in-place)
I0403 13:58:29.488631   573 net.cpp:141] Setting up relu2
I0403 13:58:29.488658   573 net.cpp:148] Top shape: 100 256 27 27 (18662400)
I0403 13:58:29.488674   573 net.cpp:156] Memory required for data: 587609200
I0403 13:58:29.488690   573 layer_factory.hpp:77] Creating layer norm2
I0403 13:58:29.488715   573 net.cpp:91] Creating Layer norm2
I0403 13:58:29.488734   573 net.cpp:425] norm2 <- conv2
I0403 13:58:29.488752   573 net.cpp:399] norm2 -> norm2
I0403 13:58:29.488961   573 net.cpp:141] Setting up norm2
I0403 13:58:29.488991   573 net.cpp:148] Top shape: 100 256 27 27 (18662400)
I0403 13:58:29.489006   573 net.cpp:156] Memory required for data: 662258800
I0403 13:58:29.489022   573 layer_factory.hpp:77] Creating layer pool2
I0403 13:58:29.489042   573 net.cpp:91] Creating Layer pool2
I0403 13:58:29.489059   573 net.cpp:425] pool2 <- norm2
I0403 13:58:29.489078   573 net.cpp:399] pool2 -> pool2
I0403 13:58:29.489133   573 net.cpp:141] Setting up pool2
I0403 13:58:29.489157   573 net.cpp:148] Top shape: 100 256 13 13 (4326400)
I0403 13:58:29.489173   573 net.cpp:156] Memory required for data: 679564400
I0403 13:58:29.489192   573 layer_factory.hpp:77] Creating layer conv3
I0403 13:58:29.489215   573 net.cpp:91] Creating Layer conv3
I0403 13:58:29.489233   573 net.cpp:425] conv3 <- pool2
I0403 13:58:29.489255   573 net.cpp:399] conv3 -> conv3
I0403 13:58:29.528806   573 net.cpp:141] Setting up conv3
I0403 13:58:29.528879   573 net.cpp:148] Top shape: 100 384 13 13 (6489600)
I0403 13:58:29.528898   573 net.cpp:156] Memory required for data: 705522800
I0403 13:58:29.528925   573 layer_factory.hpp:77] Creating layer relu3
I0403 13:58:29.528949   573 net.cpp:91] Creating Layer relu3
I0403 13:58:29.528967   573 net.cpp:425] relu3 <- conv3
I0403 13:58:29.528987   573 net.cpp:386] relu3 -> conv3 (in-place)
I0403 13:58:29.529286   573 net.cpp:141] Setting up relu3
I0403 13:58:29.529317   573 net.cpp:148] Top shape: 100 384 13 13 (6489600)
I0403 13:58:29.529335   573 net.cpp:156] Memory required for data: 731481200
I0403 13:58:29.529350   573 layer_factory.hpp:77] Creating layer conv4
I0403 13:58:29.529377   573 net.cpp:91] Creating Layer conv4
I0403 13:58:29.529397   573 net.cpp:425] conv4 <- conv3
I0403 13:58:29.529417   573 net.cpp:399] conv4 -> conv4
I0403 13:58:29.560088   573 net.cpp:141] Setting up conv4
I0403 13:58:29.560137   573 net.cpp:148] Top shape: 100 384 13 13 (6489600)
I0403 13:58:29.560187   573 net.cpp:156] Memory required for data: 757439600
I0403 13:58:29.560211   573 layer_factory.hpp:77] Creating layer relu4
I0403 13:58:29.560235   573 net.cpp:91] Creating Layer relu4
I0403 13:58:29.560255   573 net.cpp:425] relu4 <- conv4
I0403 13:58:29.560277   573 net.cpp:386] relu4 -> conv4 (in-place)
I0403 13:58:29.560580   573 net.cpp:141] Setting up relu4
I0403 13:58:29.560608   573 net.cpp:148] Top shape: 100 384 13 13 (6489600)
I0403 13:58:29.560624   573 net.cpp:156] Memory required for data: 783398000
I0403 13:58:29.560641   573 layer_factory.hpp:77] Creating layer conv5
I0403 13:58:29.560667   573 net.cpp:91] Creating Layer conv5
I0403 13:58:29.560684   573 net.cpp:425] conv5 <- conv4
I0403 13:58:29.560706   573 net.cpp:399] conv5 -> conv5
I0403 13:58:29.581889   573 net.cpp:141] Setting up conv5
I0403 13:58:29.581950   573 net.cpp:148] Top shape: 100 256 13 13 (4326400)
I0403 13:58:29.581971   573 net.cpp:156] Memory required for data: 800703600
I0403 13:58:29.582000   573 layer_factory.hpp:77] Creating layer relu5
I0403 13:58:29.582023   573 net.cpp:91] Creating Layer relu5
I0403 13:58:29.582041   573 net.cpp:425] relu5 <- conv5
I0403 13:58:29.582059   573 net.cpp:386] relu5 -> conv5 (in-place)
I0403 13:58:29.582377   573 net.cpp:141] Setting up relu5
I0403 13:58:29.582408   573 net.cpp:148] Top shape: 100 256 13 13 (4326400)
I0403 13:58:29.582427   573 net.cpp:156] Memory required for data: 818009200
I0403 13:58:29.582442   573 layer_factory.hpp:77] Creating layer pool5
I0403 13:58:29.582465   573 net.cpp:91] Creating Layer pool5
I0403 13:58:29.582484   573 net.cpp:425] pool5 <- conv5
I0403 13:58:29.582506   573 net.cpp:399] pool5 -> pool5
I0403 13:58:29.582571   573 net.cpp:141] Setting up pool5
I0403 13:58:29.582597   573 net.cpp:148] Top shape: 100 256 6 6 (921600)
I0403 13:58:29.582613   573 net.cpp:156] Memory required for data: 821695600
I0403 13:58:29.582628   573 layer_factory.hpp:77] Creating layer fc6
I0403 13:58:29.582659   573 net.cpp:91] Creating Layer fc6
I0403 13:58:29.582679   573 net.cpp:425] fc6 <- pool5
I0403 13:58:29.582701   573 net.cpp:399] fc6 -> fc6
I0403 13:58:31.125900   573 net.cpp:141] Setting up fc6
I0403 13:58:31.125979   573 net.cpp:148] Top shape: 100 4096 (409600)
I0403 13:58:31.125995   573 net.cpp:156] Memory required for data: 823334000
I0403 13:58:31.126015   573 layer_factory.hpp:77] Creating layer relu6
I0403 13:58:31.126040   573 net.cpp:91] Creating Layer relu6
I0403 13:58:31.126058   573 net.cpp:425] relu6 <- fc6
I0403 13:58:31.126078   573 net.cpp:386] relu6 -> fc6 (in-place)
I0403 13:58:31.126291   573 net.cpp:141] Setting up relu6
I0403 13:58:31.126317   573 net.cpp:148] Top shape: 100 4096 (409600)
I0403 13:58:31.126332   573 net.cpp:156] Memory required for data: 824972400
I0403 13:58:31.126346   573 layer_factory.hpp:77] Creating layer drop6
I0403 13:58:31.126364   573 net.cpp:91] Creating Layer drop6
I0403 13:58:31.126379   573 net.cpp:425] drop6 <- fc6
I0403 13:58:31.126396   573 net.cpp:386] drop6 -> fc6 (in-place)
I0403 13:58:31.126446   573 net.cpp:141] Setting up drop6
I0403 13:58:31.126468   573 net.cpp:148] Top shape: 100 4096 (409600)
I0403 13:58:31.126483   573 net.cpp:156] Memory required for data: 826610800
I0403 13:58:31.126497   573 layer_factory.hpp:77] Creating layer fc7
I0403 13:58:31.126518   573 net.cpp:91] Creating Layer fc7
I0403 13:58:31.126534   573 net.cpp:425] fc7 <- fc6
I0403 13:58:31.126551   573 net.cpp:399] fc7 -> fc7
I0403 13:58:31.805801   573 net.cpp:141] Setting up fc7
I0403 13:58:31.805869   573 net.cpp:148] Top shape: 100 4096 (409600)
I0403 13:58:31.805887   573 net.cpp:156] Memory required for data: 828249200
I0403 13:58:31.805910   573 layer_factory.hpp:77] Creating layer relu7
I0403 13:58:31.805935   573 net.cpp:91] Creating Layer relu7
I0403 13:58:31.805954   573 net.cpp:425] relu7 <- fc7
I0403 13:58:31.805974   573 net.cpp:386] relu7 -> fc7 (in-place)
I0403 13:58:31.806411   573 net.cpp:141] Setting up relu7
I0403 13:58:31.806452   573 net.cpp:148] Top shape: 100 4096 (409600)
I0403 13:58:31.806499   573 net.cpp:156] Memory required for data: 829887600
I0403 13:58:31.806514   573 layer_factory.hpp:77] Creating layer drop7
I0403 13:58:31.806532   573 net.cpp:91] Creating Layer drop7
I0403 13:58:31.806548   573 net.cpp:425] drop7 <- fc7
I0403 13:58:31.806565   573 net.cpp:386] drop7 -> fc7 (in-place)
I0403 13:58:31.806607   573 net.cpp:141] Setting up drop7
I0403 13:58:31.806629   573 net.cpp:148] Top shape: 100 4096 (409600)
I0403 13:58:31.806643   573 net.cpp:156] Memory required for data: 831526000
I0403 13:58:31.806658   573 layer_factory.hpp:77] Creating layer fc8_plantvillage
I0403 13:58:31.806679   573 net.cpp:91] Creating Layer fc8_plantvillage
I0403 13:58:31.806695   573 net.cpp:425] fc8_plantvillage <- fc7
I0403 13:58:31.806712   573 net.cpp:399] fc8_plantvillage -> fc8_plantvillage
I0403 13:58:31.813256   573 net.cpp:141] Setting up fc8_plantvillage
I0403 13:58:31.813294   573 net.cpp:148] Top shape: 100 38 (3800)
I0403 13:58:31.813313   573 net.cpp:156] Memory required for data: 831541200
I0403 13:58:31.813330   573 layer_factory.hpp:77] Creating layer fc8_plantvillage_fc8_plantvillage_0_split
I0403 13:58:31.813349   573 net.cpp:91] Creating Layer fc8_plantvillage_fc8_plantvillage_0_split
I0403 13:58:31.813365   573 net.cpp:425] fc8_plantvillage_fc8_plantvillage_0_split <- fc8_plantvillage
I0403 13:58:31.813382   573 net.cpp:399] fc8_plantvillage_fc8_plantvillage_0_split -> fc8_plantvillage_fc8_plantvillage_0_split_0
I0403 13:58:31.813405   573 net.cpp:399] fc8_plantvillage_fc8_plantvillage_0_split -> fc8_plantvillage_fc8_plantvillage_0_split_1
I0403 13:58:31.813426   573 net.cpp:399] fc8_plantvillage_fc8_plantvillage_0_split -> fc8_plantvillage_fc8_plantvillage_0_split_2
I0403 13:58:31.813501   573 net.cpp:141] Setting up fc8_plantvillage_fc8_plantvillage_0_split
I0403 13:58:31.813524   573 net.cpp:148] Top shape: 100 38 (3800)
I0403 13:58:31.813540   573 net.cpp:148] Top shape: 100 38 (3800)
I0403 13:58:31.813555   573 net.cpp:148] Top shape: 100 38 (3800)
I0403 13:58:31.813568   573 net.cpp:156] Memory required for data: 831586800
I0403 13:58:31.813582   573 layer_factory.hpp:77] Creating layer prob
I0403 13:58:31.813601   573 net.cpp:91] Creating Layer prob
I0403 13:58:31.813616   573 net.cpp:425] prob <- fc8_plantvillage_fc8_plantvillage_0_split_0
I0403 13:58:31.813634   573 net.cpp:399] prob -> prob
I0403 13:58:31.813853   573 net.cpp:141] Setting up prob
I0403 13:58:31.813877   573 net.cpp:148] Top shape: 100 38 (3800)
I0403 13:58:31.813892   573 net.cpp:156] Memory required for data: 831602000
I0403 13:58:31.813906   573 layer_factory.hpp:77] Creating layer hdf5out
I0403 13:58:31.813928   573 net.cpp:91] Creating Layer hdf5out
I0403 13:58:31.813943   573 net.cpp:425] hdf5out <- prob
I0403 13:58:31.813961   573 net.cpp:425] hdf5out <- label_data_1_split_0
I0403 13:58:31.816189   573 net.cpp:141] Setting up hdf5out
…
