…
I0403 14:02:20.043761   667 net.cpp:313] The NetState phase (1) differed from the phase (0) specified by a rule in layer data
I0403 14:02:20.044064   667 net.cpp:49] Initializing net from parameters: 
state {
  phase: TEST
}
layer {
  name: "data"
  type: "Data"
  top: "data"
  top: "label"
  include {
    phase: TEST
  }
  transform_param {
    crop_size: 227
    mean_file: "/home/mohanty/data/final_dataset/lmdb/segmented-20-80/mean.binaryproto"
  }
  data_param {
    source: "/home/mohanty/data/final_dataset/lmdb/segmented-20-80/test_db"
    batch_size: 100
    backend: LMDB
  }
}
layer {
  name: "conv1"
  type: "Convolution"
  bottom: "data"
  top: "conv1"
  param {
    lr_mult: 1
    decay_mult: 1
  }
  param {
    lr_mult: 2
    decay_mult: 0
  }
  convolution_param {
    num_output: 96
    kernel_size: 11
    stride: 4
    weight_filler {
      type: "gaussian"
      std: 0.01
    }
    bias_filler {
      type: "constant"
      value: 0
    }
  }
}
layer {
  name: "relu1"
  type: "ReLU"
  bottom: "conv1"
  top: "conv1"
}
layer {
  name: "norm1"
  type: "LRN"
  bottom: "conv1"
  top: "norm1"
  lrn_param {
    local_size: 5
    alpha: 0.0001
    beta: 0.75
  }
}
layer {
  name: "pool1"
  type: "Pooling"
  bottom: "norm1"
  top: "pool1"
  pooling_param {
    pool: MAX
    kernel_size: 3
    stride: 2
  }
}
layer {
  name: "conv2"
  type: "Convolution"
  bottom: "pool1"
  top: "conv2"
  param {
    lr_mult: 1
    decay_mult: 1
  }
  param {
    lr_mult: 2
    decay_mult: 0
  }
  convolution_param {
    num_output: 256
    pad: 2
    kernel_size: 5
    group: 2
    weight_filler {
      type: "gaussian"
      std: 0.01
    }
    bias_filler {
      type: "constant"
      value: 0.1
    }
  }
}
layer {
  name: "relu2"
  type: "ReLU"
  bottom: "conv2"
  top: "conv2"
}
layer {
  name: "norm2"
  type: "LRN"
  bottom: "conv2"
  top: "norm2"
  lrn_param {
    local_size: 5
    alpha: 0.0001
    beta: 0.75
  }
}
layer {
  name: "pool2"
  type: "Pooling"
  bottom: "norm2"
  top: "pool2"
  pooling_param {
    pool: MAX
    kernel_size: 3
    stride: 2
  }
}
layer {
  name: "conv3"
  type: "Convolution"
  bottom: "pool2"
  top: "conv3"
  param {
    lr_mult: 1
    decay_mult: 1
  }
  param {
    lr_mult: 2
    decay_mult: 0
  }
  convolution_param {
    num_output: 384
    pad: 1
    kernel_size: 3
    weight_filler {
      type: "gaussian"
      std: 0.01
    }
    bias_filler {
      type: "constant"
      value: 0
    }
  }
}
layer {
  name: "relu3"
  type: "ReLU"
  bottom: "conv3"
  top: "conv3"
}
layer {
  name: "conv4"
  type: "Convolution"
  bottom: "conv3"
  top: "conv4"
  param {
    lr_mult: 1
    decay_mult: 1
  }
  param {
    lr_mult: 2
    decay_mult: 0
  }
  convolution_param {
    num_output: 384
    pad: 1
    kernel_size: 3
    group: 2
    weight_filler {
      type: "gaussian"
      std: 0.01
    }
    bias_filler {
      type: "constant"
      value: 0.1
    }
  }
}
layer {
  name: "relu4"
  type: "ReLU"
  bottom: "conv4"
  top: "conv4"
}
layer {
  name: "conv5"
  type: "Convolution"
  bottom: "conv4"
  top: "conv5"
  param {
    lr_mult: 1
    decay_mult: 1
  }
  param {
    lr_mult: 2
    decay_mult: 0
  }
  convolution_param {
    num_output: 256
    pad: 1
    kernel_size: 3
    group: 2
    weight_filler {
      type: "gaussian"
      std: 0.01
    }
    bias_filler {
      type: "constant"
      value: 0.1
    }
  }
}
layer {
  name: "relu5"
  type: "ReLU"
  bottom: "conv5"
  top: "conv5"
}
layer {
  name: "pool5"
  type: "Pooling"
  bottom: "conv5"
  top: "pool5"
  pooling_param {
    pool: MAX
    kernel_size: 3
    stride: 2
  }
}
layer {
  name: "fc6"
  type: "InnerProduct"
  bottom: "pool5"
  top: "fc6"
  param {
    lr_mult: 1
    decay_mult: 1
  }
  param {
    lr_mult: 2
    decay_mult: 0
  }
  inner_product_param {
    num_output: 4096
    weight_filler {
      type: "gaussian"
      std: 0.005
    }
    bias_filler {
      type: "constant"
      value: 0.1
    }
  }
}
layer {
  name: "relu6"
  type: "ReLU"
  bottom: "fc6"
  top: "fc6"
}
layer {
  name: "drop6"
  type: "Dropout"
  bottom: "fc6"
  top: "fc6"
  dropout_param {
    dropout_ratio: 0.5
  }
}
layer {
  name: "fc7"
  type: "InnerProduct"
  bottom: "fc6"
  top: "fc7"
  param {
    lr_mult: 1
    decay_mult: 1
  }
  param {
    lr_mult: 2
    decay_mult: 0
  }
  inner_product_param {
    num_output: 4096
    weight_filler {
      type: "gaussian"
      std: 0.005
    }
    bias_filler {
      type: "constant"
      value: 0.1
    }
  }
}
layer {
  name: "relu7"
  type: "ReLU"
  bottom: "fc7"
  top: "fc7"
}
layer {
  name: "drop7"
  type: "Dropout"
  bottom: "fc7"
  top: "fc7"
  dropout_param {
    dropout_ratio: 0.5
  }
}
layer {
  name: "fc8_plantvillage"
  type: "InnerProduct"
  bottom: "fc7"
  top: "fc8_plantvillage"
  param {
    lr_mult: 1
    decay_mult: 1
  }
  param {
    lr_mult: 2
    decay_mult: 0
  }
  inner_product_param {
    num_output: 38
    weight_filler {
      type: "gaussian"
      std: 0.01
    }
    bias_filler {
      type: "constant"
      value: 0
    }
  }
}
layer {
  name: "prob"
  type: "Softmax"
  bottom: "fc8_plantvillage"
  top: "prob"
  include {
    phase: TEST
  }
}
layer {
  name: "hdf5out"
  type: "HDF5Output"
  bottom: "prob"
  bottom: "label"
  include {
    phase: TEST
  }
  hdf5_output_param {
    file_name: "hdf5_dumps/iter_2968.h5"
  }
}
layer {
  name: "loss"
  type: "SoftmaxWithLoss"
  bottom: "fc8_plantvillage"
  bottom: "label"
  top: "loss"
}
layer {
  name: "accuracy"
  type: "Accuracy"
  bottom: "fc8_plantvillage"
  bottom: "label"
  top: "accuracy"
  include {
    phase: TEST
  }
}
I0403 14:02:20.044662   667 layer_factory.hpp:77] Creating layer data
I0403 14:02:20.045315   667 net.cpp:91] Creating Layer data
I0403 14:02:20.045349   667 net.cpp:399] data -> data
I0403 14:02:20.045402   667 net.cpp:399] data -> label
I0403 14:02:20.045438   667 data_transformer.cpp:25] Loading mean file from: /home/mohanty/data/final_dataset/lmdb/segmented-20-80/mean.binaryproto
I0403 14:02:20.050143   670 db_lmdb.cpp:38] Opened lmdb /home/mohanty/data/final_dataset/lmdb/segmented-20-80/test_db
I0403 14:02:20.072692   667 data_layer.cpp:41] output data size: 100,3,227,227
I0403 14:02:20.195397   667 net.cpp:141] Setting up data
I0403 14:02:20.195502   667 net.cpp:148] Top shape: 100 3 227 227 (15458700)
I0403 14:02:20.195526   667 net.cpp:148] Top shape: 100 (100)
I0403 14:02:20.195543   667 net.cpp:156] Memory required for data: 61835200
I0403 14:02:20.195569   667 layer_factory.hpp:77] Creating layer label_data_1_split
I0403 14:02:20.195595   667 net.cpp:91] Creating Layer label_data_1_split
I0403 14:02:20.195614   667 net.cpp:425] label_data_1_split <- label
I0403 14:02:20.195647   667 net.cpp:399] label_data_1_split -> label_data_1_split_0
I0403 14:02:20.195674   667 net.cpp:399] label_data_1_split -> label_data_1_split_1
I0403 14:02:20.195696   667 net.cpp:399] label_data_1_split -> label_data_1_split_2
I0403 14:02:20.195761   667 net.cpp:141] Setting up label_data_1_split
I0403 14:02:20.195785   667 net.cpp:148] Top shape: 100 (100)
I0403 14:02:20.195803   667 net.cpp:148] Top shape: 100 (100)
I0403 14:02:20.195821   667 net.cpp:148] Top shape: 100 (100)
I0403 14:02:20.195835   667 net.cpp:156] Memory required for data: 61836400
I0403 14:02:20.195852   667 layer_factory.hpp:77] Creating layer conv1
I0403 14:02:20.195884   667 net.cpp:91] Creating Layer conv1
I0403 14:02:20.195904   667 net.cpp:425] conv1 <- data
I0403 14:02:20.195924   667 net.cpp:399] conv1 -> conv1
I0403 14:02:20.338361   667 net.cpp:141] Setting up conv1
I0403 14:02:20.338431   667 net.cpp:148] Top shape: 100 96 55 55 (29040000)
I0403 14:02:20.338449   667 net.cpp:156] Memory required for data: 177996400
I0403 14:02:20.338481   667 layer_factory.hpp:77] Creating layer relu1
I0403 14:02:20.338510   667 net.cpp:91] Creating Layer relu1
I0403 14:02:20.338529   667 net.cpp:425] relu1 <- conv1
I0403 14:02:20.338549   667 net.cpp:386] relu1 -> conv1 (in-place)
I0403 14:02:20.338804   667 net.cpp:141] Setting up relu1
I0403 14:02:20.338831   667 net.cpp:148] Top shape: 100 96 55 55 (29040000)
I0403 14:02:20.338879   667 net.cpp:156] Memory required for data: 294156400
I0403 14:02:20.338897   667 layer_factory.hpp:77] Creating layer norm1
I0403 14:02:20.338924   667 net.cpp:91] Creating Layer norm1
I0403 14:02:20.338943   667 net.cpp:425] norm1 <- conv1
I0403 14:02:20.338961   667 net.cpp:399] norm1 -> norm1
I0403 14:02:20.339296   667 net.cpp:141] Setting up norm1
I0403 14:02:20.339325   667 net.cpp:148] Top shape: 100 96 55 55 (29040000)
I0403 14:02:20.339342   667 net.cpp:156] Memory required for data: 410316400
I0403 14:02:20.339359   667 layer_factory.hpp:77] Creating layer pool1
I0403 14:02:20.339381   667 net.cpp:91] Creating Layer pool1
I0403 14:02:20.339400   667 net.cpp:425] pool1 <- norm1
I0403 14:02:20.339418   667 net.cpp:399] pool1 -> pool1
I0403 14:02:20.339484   667 net.cpp:141] Setting up pool1
I0403 14:02:20.339509   667 net.cpp:148] Top shape: 100 96 27 27 (6998400)
I0403 14:02:20.339524   667 net.cpp:156] Memory required for data: 438310000
I0403 14:02:20.339551   667 layer_factory.hpp:77] Creating layer conv2
I0403 14:02:20.339576   667 net.cpp:91] Creating Layer conv2
I0403 14:02:20.339593   667 net.cpp:425] conv2 <- pool1
I0403 14:02:20.339612   667 net.cpp:399] conv2 -> conv2
I0403 14:02:20.354323   667 net.cpp:141] Setting up conv2
I0403 14:02:20.354362   667 net.cpp:148] Top shape: 100 256 27 27 (18662400)
I0403 14:02:20.354409   667 net.cpp:156] Memory required for data: 512959600
I0403 14:02:20.354437   667 layer_factory.hpp:77] Creating layer relu2
I0403 14:02:20.354456   667 net.cpp:91] Creating Layer relu2
I0403 14:02:20.354472   667 net.cpp:425] relu2 <- conv2
I0403 14:02:20.354490   667 net.cpp:386] relu2 -> conv2 (in-place)
I0403 14:02:20.354748   667 net.cpp:141] Setting up relu2
I0403 14:02:20.354774   667 net.cpp:148] Top shape: 100 256 27 27 (18662400)
I0403 14:02:20.354789   667 net.cpp:156] Memory required for data: 587609200
I0403 14:02:20.354805   667 layer_factory.hpp:77] Creating layer norm2
I0403 14:02:20.354825   667 net.cpp:91] Creating Layer norm2
I0403 14:02:20.354841   667 net.cpp:425] norm2 <- conv2
I0403 14:02:20.354859   667 net.cpp:399] norm2 -> norm2
I0403 14:02:20.355034   667 net.cpp:141] Setting up norm2
I0403 14:02:20.355059   667 net.cpp:148] Top shape: 100 256 27 27 (18662400)
I0403 14:02:20.355074   667 net.cpp:156] Memory required for data: 662258800
I0403 14:02:20.355089   667 layer_factory.hpp:77] Creating layer pool2
I0403 14:02:20.355108   667 net.cpp:91] Creating Layer pool2
I0403 14:02:20.355123   667 net.cpp:425] pool2 <- norm2
I0403 14:02:20.355140   667 net.cpp:399] pool2 -> pool2
I0403 14:02:20.355187   667 net.cpp:141] Setting up pool2
I0403 14:02:20.355209   667 net.cpp:148] Top shape: 100 256 13 13 (4326400)
I0403 14:02:20.355224   667 net.cpp:156] Memory required for data: 679564400
I0403 14:02:20.355239   667 layer_factory.hpp:77] Creating layer conv3
I0403 14:02:20.355275   667 net.cpp:91] Creating Layer conv3
I0403 14:02:20.355293   667 net.cpp:425] conv3 <- pool2
I0403 14:02:20.355312   667 net.cpp:399] conv3 -> conv3
I0403 14:02:20.393895   667 net.cpp:141] Setting up conv3
I0403 14:02:20.393965   667 net.cpp:148] Top shape: 100 384 13 13 (6489600)
I0403 14:02:20.393981   667 net.cpp:156] Memory required for data: 705522800
I0403 14:02:20.394006   667 layer_factory.hpp:77] Creating layer relu3
I0403 14:02:20.394027   667 net.cpp:91] Creating Layer relu3
I0403 14:02:20.394044   667 net.cpp:425] relu3 <- conv3
I0403 14:02:20.394063   667 net.cpp:386] relu3 -> conv3 (in-place)
I0403 14:02:20.394363   667 net.cpp:141] Setting up relu3
I0403 14:02:20.394392   667 net.cpp:148] Top shape: 100 384 13 13 (6489600)
I0403 14:02:20.394407   667 net.cpp:156] Memory required for data: 731481200
I0403 14:02:20.394423   667 layer_factory.hpp:77] Creating layer conv4
I0403 14:02:20.394448   667 net.cpp:91] Creating Layer conv4
I0403 14:02:20.394464   667 net.cpp:425] conv4 <- conv3
I0403 14:02:20.394484   667 net.cpp:399] conv4 -> conv4
I0403 14:02:20.425225   667 net.cpp:141] Setting up conv4
I0403 14:02:20.425267   667 net.cpp:148] Top shape: 100 384 13 13 (6489600)
I0403 14:02:20.425307   667 net.cpp:156] Memory required for data: 757439600
I0403 14:02:20.425329   667 layer_factory.hpp:77] Creating layer relu4
I0403 14:02:20.425355   667 net.cpp:91] Creating Layer relu4
I0403 14:02:20.425375   667 net.cpp:425] relu4 <- conv4
I0403 14:02:20.425395   667 net.cpp:386] relu4 -> conv4 (in-place)
I0403 14:02:20.425678   667 net.cpp:141] Setting up relu4
I0403 14:02:20.425705   667 net.cpp:148] Top shape: 100 384 13 13 (6489600)
I0403 14:02:20.425721   667 net.cpp:156] Memory required for data: 783398000
I0403 14:02:20.425736   667 layer_factory.hpp:77] Creating layer conv5
I0403 14:02:20.425762   667 net.cpp:91] Creating Layer conv5
I0403 14:02:20.425781   667 net.cpp:425] conv5 <- conv4
I0403 14:02:20.425802   667 net.cpp:399] conv5 -> conv5
I0403 14:02:20.446329   667 net.cpp:141] Setting up conv5
I0403 14:02:20.446367   667 net.cpp:148] Top shape: 100 256 13 13 (4326400)
I0403 14:02:20.446384   667 net.cpp:156] Memory required for data: 800703600
I0403 14:02:20.446411   667 layer_factory.hpp:77] Creating layer relu5
I0403 14:02:20.446434   667 net.cpp:91] Creating Layer relu5
I0403 14:02:20.446482   667 net.cpp:425] relu5 <- conv5
I0403 14:02:20.446502   667 net.cpp:386] relu5 -> conv5 (in-place)
I0403 14:02:20.446795   667 net.cpp:141] Setting up relu5
I0403 14:02:20.446825   667 net.cpp:148] Top shape: 100 256 13 13 (4326400)
I0403 14:02:20.446840   667 net.cpp:156] Memory required for data: 818009200
I0403 14:02:20.446854   667 layer_factory.hpp:77] Creating layer pool5
I0403 14:02:20.446876   667 net.cpp:91] Creating Layer pool5
I0403 14:02:20.446892   667 net.cpp:425] pool5 <- conv5
I0403 14:02:20.446912   667 net.cpp:399] pool5 -> pool5
I0403 14:02:20.446971   667 net.cpp:141] Setting up pool5
I0403 14:02:20.446995   667 net.cpp:148] Top shape: 100 256 6 6 (921600)
I0403 14:02:20.447008   667 net.cpp:156] Memory required for data: 821695600
I0403 14:02:20.447023   667 layer_factory.hpp:77] Creating layer fc6
I0403 14:02:20.447052   667 net.cpp:91] Creating Layer fc6
I0403 14:02:20.447069   667 net.cpp:425] fc6 <- pool5
I0403 14:02:20.447090   667 net.cpp:399] fc6 -> fc6
I0403 14:02:22.017436   667 net.cpp:141] Setting up fc6
I0403 14:02:22.017478   667 net.cpp:148] Top shape: 100 4096 (409600)
I0403 14:02:22.017494   667 net.cpp:156] Memory required for data: 823334000
I0403 14:02:22.017516   667 layer_factory.hpp:77] Creating layer relu6
I0403 14:02:22.017540   667 net.cpp:91] Creating Layer relu6
I0403 14:02:22.017559   667 net.cpp:425] relu6 <- fc6
I0403 14:02:22.017578   667 net.cpp:386] relu6 -> fc6 (in-place)
I0403 14:02:22.017787   667 net.cpp:141] Setting up relu6
I0403 14:02:22.017814   667 net.cpp:148] Top shape: 100 4096 (409600)
I0403 14:02:22.017829   667 net.cpp:156] Memory required for data: 824972400
I0403 14:02:22.017845   667 layer_factory.hpp:77] Creating layer drop6
I0403 14:02:22.017863   667 net.cpp:91] Creating Layer drop6
I0403 14:02:22.017879   667 net.cpp:425] drop6 <- fc6
I0403 14:02:22.017897   667 net.cpp:386] drop6 -> fc6 (in-place)
I0403 14:02:22.017952   667 net.cpp:141] Setting up drop6
I0403 14:02:22.017976   667 net.cpp:148] Top shape: 100 4096 (409600)
I0403 14:02:22.017989   667 net.cpp:156] Memory required for data: 826610800
I0403 14:02:22.018004   667 layer_factory.hpp:77] Creating layer fc7
I0403 14:02:22.018026   667 net.cpp:91] Creating Layer fc7
I0403 14:02:22.018043   667 net.cpp:425] fc7 <- fc6
I0403 14:02:22.018060   667 net.cpp:399] fc7 -> fc7
I0403 14:02:22.711498   667 net.cpp:141] Setting up fc7
I0403 14:02:22.711565   667 net.cpp:148] Top shape: 100 4096 (409600)
I0403 14:02:22.711581   667 net.cpp:156] Memory required for data: 828249200
I0403 14:02:22.711602   667 layer_factory.hpp:77] Creating layer relu7
I0403 14:02:22.711627   667 net.cpp:91] Creating Layer relu7
I0403 14:02:22.711645   667 net.cpp:425] relu7 <- fc7
I0403 14:02:22.711664   667 net.cpp:386] relu7 -> fc7 (in-place)
I0403 14:02:22.712062   667 net.cpp:141] Setting up relu7
I0403 14:02:22.712088   667 net.cpp:148] Top shape: 100 4096 (409600)
I0403 14:02:22.712142   667 net.cpp:156] Memory required for data: 829887600
I0403 14:02:22.712158   667 layer_factory.hpp:77] Creating layer drop7
I0403 14:02:22.712180   667 net.cpp:91] Creating Layer drop7
I0403 14:02:22.712196   667 net.cpp:425] drop7 <- fc7
I0403 14:02:22.712214   667 net.cpp:386] drop7 -> fc7 (in-place)
I0403 14:02:22.712260   667 net.cpp:141] Setting up drop7
I0403 14:02:22.712296   667 net.cpp:148] Top shape: 100 4096 (409600)
I0403 14:02:22.712312   667 net.cpp:156] Memory required for data: 831526000
I0403 14:02:22.712327   667 layer_factory.hpp:77] Creating layer fc8_plantvillage
I0403 14:02:22.712350   667 net.cpp:91] Creating Layer fc8_plantvillage
I0403 14:02:22.712366   667 net.cpp:425] fc8_plantvillage <- fc7
I0403 14:02:22.712385   667 net.cpp:399] fc8_plantvillage -> fc8_plantvillage
I0403 14:02:22.719231   667 net.cpp:141] Setting up fc8_plantvillage
I0403 14:02:22.719259   667 net.cpp:148] Top shape: 100 38 (3800)
I0403 14:02:22.719280   667 net.cpp:156] Memory required for data: 831541200
I0403 14:02:22.719300   667 layer_factory.hpp:77] Creating layer fc8_plantvillage_fc8_plantvillage_0_split
I0403 14:02:22.719319   667 net.cpp:91] Creating Layer fc8_plantvillage_fc8_plantvillage_0_split
I0403 14:02:22.719336   667 net.cpp:425] fc8_plantvillage_fc8_plantvillage_0_split <- fc8_plantvillage
I0403 14:02:22.719352   667 net.cpp:399] fc8_plantvillage_fc8_plantvillage_0_split -> fc8_plantvillage_fc8_plantvillage_0_split_0
I0403 14:02:22.719375   667 net.cpp:399] fc8_plantvillage_fc8_plantvillage_0_split -> fc8_plantvillage_fc8_plantvillage_0_split_1
I0403 14:02:22.719396   667 net.cpp:399] fc8_plantvillage_fc8_plantvillage_0_split -> fc8_plantvillage_fc8_plantvillage_0_split_2
I0403 14:02:22.719472   667 net.cpp:141] Setting up fc8_plantvillage_fc8_plantvillage_0_split
I0403 14:02:22.719496   667 net.cpp:148] Top shape: 100 38 (3800)
I0403 14:02:22.719512   667 net.cpp:148] Top shape: 100 38 (3800)
I0403 14:02:22.719527   667 net.cpp:148] Top shape: 100 38 (3800)
I0403 14:02:22.719542   667 net.cpp:156] Memory required for data: 831586800
I0403 14:02:22.719557   667 layer_factory.hpp:77] Creating layer prob
I0403 14:02:22.719575   667 net.cpp:91] Creating Layer prob
I0403 14:02:22.719591   667 net.cpp:425] prob <- fc8_plantvillage_fc8_plantvillage_0_split_0
I0403 14:02:22.719609   667 net.cpp:399] prob -> prob
I0403 14:02:22.719833   667 net.cpp:141] Setting up prob
I0403 14:02:22.719858   667 net.cpp:148] Top shape: 100 38 (3800)
I0403 14:02:22.719873   667 net.cpp:156] Memory required for data: 831602000
I0403 14:02:22.719888   667 layer_factory.hpp:77] Creating layer hdf5out
I0403 14:02:22.719910   667 net.cpp:91] Creating Layer hdf5out
I0403 14:02:22.719928   667 net.cpp:425] hdf5out <- prob
I0403 14:02:22.719944   667 net.cpp:425] hdf5out <- label_data_1_split_0
I0403 14:02:22.722137   667 net.cpp:141] Setting up hdf5out
…
