…
I0403 12:02:13.189211  1276 net.cpp:313] The NetState phase (0) differed from the phase (1) specified by a rule in layer loss3/top-5
I0403 12:02:13.192982  1276 net.cpp:49] Initializing net from parameters: 
state {
  phase: TRAIN
}
layer {
  name: "data"
  type: "Data"
  top: "data"
  top: "label"
  include {
    phase: TRAIN
  }
  transform_param {
    mirror: true
    crop_size: 224
    mean_file: "/home/mohanty/data/final_dataset/lmdb/color-80-20/mean.binaryproto"
  }
  data_param {
    source: "/home/mohanty/data/final_dataset/lmdb/color-80-20/train_db"
    batch_size: 24
    backend: LMDB
  }
}
layer {
  name: "conv1/7x7_s2"
  type: "Convolution"
  bottom: "data"
  top: "conv1/7x7_s2"
  param {
    lr_mult: 1
    decay_mult: 1
  }
  param {
    lr_mult: 2
    decay_mult: 0
  }
  convolution_param {
    num_output: 64
    pad: 3
    kernel_size: 7
    stride: 2
    weight_filler {
      type: "xavier"
      std: 0.1
    }
    bias_filler {
      type: "constant"
      value: 0.2
    }
  }
}
layer {
  name: "conv1/relu_7x7"
  type: "ReLU"
  bottom: "conv1/7x7_s2"
  top: "conv1/7x7_s2"
}
layer {
  name: "pool1/3x3_s2"
  type: "Pooling"
  bottom: "conv1/7x7_s2"
  top: "pool1/3x3_s2"
  pooling_param {
    pool: MAX
    kernel_size: 3
    stride: 2
  }
}
layer {
  name: "pool1/norm1"
  type: "LRN"
  bottom: "pool1/3x3_s2"
  top: "pool1/norm1"
  lrn_param {
    local_size: 5
    alpha: 0.0001
    beta: 0.75
  }
}
layer {
  name: "conv2/3x3_reduce"
  type: "Convolution"
  bottom: "pool1/norm1"
  top: "conv2/3x3_reduce"
  param {
    lr_mult: 1
    decay_mult: 1
  }
  param {
    lr_mult: 2
    decay_mult: 0
  }
  convolution_param {
    num_output: 64
    kernel_size: 1
    weight_filler {
      type: "xavier"
      std: 0.1
    }
    bias_filler {
      type: "constant"
      value: 0.2
    }
  }
}
layer {
  name: "conv2/relu_3x3_reduce"
  type: "ReLU"
  bottom: "conv2/3x3_reduce"
  top: "conv2/3x3_reduce"
}
layer {
  name: "conv2/3x3"
  type: "Convolution"
  bottom: "conv2/3x3_reduce"
  top: "conv2/3x3"
  param {
    lr_mult: 1
    decay_mult: 1
  }
  param {
    lr_mult: 2
    decay_mult: 0
  }
  convolution_param {
    num_output: 192
    pad: 1
    kernel_size: 3
    weight_filler {
      type: "xavier"
      std: 0.03
    }
    bias_filler {
      type: "constant"
      value: 0.2
    }
  }
}
layer {
  name: "conv2/relu_3x3"
  type: "ReLU"
  bottom: "conv2/3x3"
  top: "conv2/3x3"
}
layer {
  name: "conv2/norm2"
  type: "LRN"
  bottom: "conv2/3x3"
  top: "conv2/norm2"
  lrn_param {
    local_size: 5
    alpha: 0.0001
    beta: 0.75
  }
}
layer {
  name: "pool2/3x3_s2"
  type: "Pooling"
  bottom: "conv2/norm2"
  top: "pool2/3x3_s2"
  pooling_param {
    pool: MAX
    kernel_size: 3
    stride: 2
  }
}
layer {
  name: "inception_3a/1x1"
  type: "Convolution"
  bottom: "pool2/3x3_s2"
  top: "inception_3a/1x1"
  param {
    lr_mult: 1
    decay_mult: 1
  }
  param {
    lr_mult: 2
    decay_mult: 0
  }
  convolution_param {
    num_output: 64
    kernel_size: 1
    weight_filler {
      type: "xavier"
      std: 0.03
    }
    bias_filler {
      type: "constant"
      value: 0.2
    }
  }
}
layer {
  name: "inception_3a/relu_1x1"
  type: "ReLU"
  bottom: "inception_3a/1x1"
  top: "inception_3a/1x1"
}
layer {
  name: "inception_3a/3x3_reduce"
  type: "Convolution"
  bottom: "pool2/3x3_s2"
  top: "inception_3a/3x3_reduce"
  param {
    lr_mult: 1
    decay_mult: 1
  }
  param {
    lr_mult: 2
    decay_mult: 0
  }
  convolution_param {
    num_output: 96
    kernel_size: 1
    weight_filler {
      type: "xavier"
      std: 0.09
    }
    bias_filler {
      type: "constant"
      value: 0.2
    }
  }
}
layer {
  name: "inception_3a/relu_3x3_reduce"
  type: "ReLU"
  bottom: "inception_3a/3x3_reduce"
  top: "inception_3a/3x3_reduce"
}
layer {
  name: "inception_3a/3x3"
  type: "Convolution"
  bottom: "inception_3a/3x3_reduce"
  top: "inception_3a/3x3"
  param {
    lr_mult: 1
    decay_mult: 1
  }
  param {
    lr_mult: 2
    decay_mult: 0
  }
  convolution_param {
    num_output: 128
    pad: 1
    kernel_size: 3
    weight_filler {
      type: "xavier"
      std: 0.03
    }
    bias_filler {
      type: "constant"
      value: 0.2
    }
  }
}
layer {
  name: "inception_3a/relu_3x3"
  type: "ReLU"
  bottom: "inception_3a/3x3"
  top: "inception_3a/3x3"
}
layer {
  name: "inception_3a/5x5_reduce"
  type: "Convolution"
  bottom: "pool2/3x3_s2"
  top: "inception_3a/5x5_reduce"
  param {
    lr_mult: 1
    decay_mult: 1
  }
  param {
    lr_mult: 2
    decay_mult: 0
  }
  convolution_param {
    num_output: 16
    kernel_size: 1
    weight_filler {
      type: "xavier"
      std: 0.2
    }
    bias_filler {
      type: "constant"
      value: 0.2
    }
  }
}
layer {
  name: "inception_3a/relu_5x5_reduce"
  type: "ReLU"
  bottom: "inception_3a/5x5_reduce"
  top: "inception_3a/5x5_reduce"
}
layer {
  name: "inception_3a/5x5"
  type: "Convolution"
  bottom: "inception_3a/5x5_reduce"
  top: "inception_3a/5x5"
  param {
    lr_mult: 1
    decay_mult: 1
  }
  param {
    lr_mult: 2
    decay_mult: 0
  }
  convolution_param {
    num_output: 32
    pad: 2
    kernel_size: 5
    weight_filler {
      type: "xavier"
      std: 0.03
    }
    bias_filler {
      type: "constant"
      value: 0.2
    }
  }
}
layer {
  name: "inception_3a/relu_5x5"
  type: "ReLU"
  bottom: "inception_3a/5x5"
  top: "inception_3a/5x5"
}
layer {
  name: "inception_3a/pool"
  type: "Pooling"
  bottom: "pool2/3x3_s2"
  top: "inception_3a/pool"
  pooling_param {
    pool: MAX
    kernel_size: 3
    stride: 1
    pad: 1
  }
}
layer {
  name: "inception_3a/pool_proj"
  type: "Convolution"
  bottom: "inception_3a/pool"
  top: "inception_3a/pool_proj"
  param {
    lr_mult: 1
    decay_mult: 1
  }
  param {
    lr_mult: 2
    decay_mult: 0
  }
  convolution_param {
    num_output: 32
    kernel_size: 1
    weight_filler {
      type: "xavier"
      std: 0.1
    }
    bias_filler {
      type: "constant"
      value: 0.2
    }
  }
}
layer {
  name: "inception_3a/relu_pool_proj"
  type: "ReLU"
  bottom: "inception_3a/pool_proj"
  top: "inception_3a/pool_proj"
}
layer {
  name: "inception_3a/output"
  type: "Concat"
  bottom: "inception_3a/1x1"
  bottom: "inception_3a/3x3"
  bottom: "inception_3a/5x5"
  bottom: "inception_3a/pool_proj"
  top: "inception_3a/output"
}
layer {
  name: "inception_3b/1x1"
  type: "Convolution"
  bottom: "inception_3a/output"
  top: "inception_3b/1x1"
  param {
    lr_mult: 1
    decay_mult: 1
  }
  param {
    lr_mult: 2
    decay_mult: 0
  }
  convolution_param {
    num_output: 128
    kernel_size: 1
    weight_filler {
      type: "xavier"
      std: 0.03
    }
    bias_filler {
      type: "constant"
      value: 0.2
    }
  }
}
layer {
  name: "inception_3b/relu_1x1"
  type: "ReLU"
  bottom: "inception_3b/1x1"
  top: "inception_3b/1x1"
}
layer {
  name: "inception_3b/3x3_reduce"
  type: "Convolution"
  bottom: "inception_3a/output"
  top: "inception_3b/3x3_reduce"
  param {
    lr_mult: 1
    decay_mult: 1
  }
  param {
    lr_mult: 2
    decay_mult: 0
  }
  convolution_param {
    num_output: 128
    kernel_size: 1
    weight_filler {
      type: "xavier"
      std: 0.09
    }
    bias_filler {
      type: "constant"
      value: 0.2
    }
  }
}
layer {
  name: "inception_3b/relu_3x3_reduce"
  type: "ReLU"
  bottom: "inception_3b/3x3_reduce"
  top: "inception_3b/3x3_reduce"
}
layer {
  name: "inception_3b/3x3"
  type: "Convolution"
  bottom: "inception_3b/3x3_reduce"
  top: "inception_3b/3x3"
  param {
    lr_mult: 1
    decay_mult: 1
  }
  param {
    lr_mult: 2
    decay_mult: 0
  }
  convolution_param {
    num_output: 192
    pad: 1
    kernel_size: 3
    weight_filler {
      type: "xavier"
      std: 0.03
    }
    bias_filler {
      type: "constant"
      value: 0.2
    }
  }
}
layer {
  name: "inception_3b/relu_3x3"
  type: "ReLU"
  bottom: "inception_3b/3x3"
  top: "inception_3b/3x3"
}
layer {
  name: "inception_3b/5x5_reduce"
  type: "Convolution"
  bottom: "inception_3a/output"
  top: "inception_3b/5x5_reduce"
  param {
    lr_mult: 1
    decay_mult: 1
  }
  param {
    lr_mult: 2
    decay_mult: 0
  }
  convolution_param {
    num_output: 32
    kernel_size: 1
    weight_filler {
      type: "xavier"
      std: 0.2
    }
    bias_filler {
      type: "constant"
      value: 0.2
    }
  }
}
layer {
  name: "inception_3b/relu_5x5_reduce"
  type: "ReLU"
  bottom: "inception_3b/5x5_reduce"
  top: "inception_3b/5x5_reduce"
}
layer {
  name: "inception_3b/5x5"
  type: "Convolution"
  bottom: "inception_3b/5x5_reduce"
  top: "inception_3b/5x5"
  param {
    lr_mult: 1
    decay_mult: 1
  }
  param {
    lr_mult: 2
    decay_mult: 0
  }
  convolution_param {
    num_output: 96
    pad: 2
    kernel_size: 5
    weight_filler {
      type: "xavier"
      std: 0.03
    }
    bias_filler {
      type: "constant"
      value: 0.2
    }
  }
}
layer {
  name: "inception_3b/relu_5x5"
  type: "ReLU"
  bottom: "inception_3b/5x5"
  top: "inception_3b/5x5"
}
layer {
  name: "inception_3b/pool"
  type: "Pooling"
  bottom: "inception_3a/output"
  top: "inception_3b/pool"
  pooling_param {
    pool: MAX
    kernel_size: 3
    stride: 1
    pad: 1
  }
}
layer {
  name: "inception_3b/pool_proj"
  type: "Convolution"
  bottom: "inception_3b/pool"
  top: "inception_3b/pool_proj"
  param {
    lr_mult: 1
    decay_mult: 1
  }
  param {
    lr_mult: 2
    decay_mult: 0
  }
  convolution_param {
    num_output: 64
    kernel_size: 1
    weight_filler {
      type: "xavier"
      std: 0.1
    }
    bias_filler {
      type: "constant"
      value: 0.2
    }
  }
}
layer {
  name: "inception_3b/relu_pool_proj"
  type: "ReLU"
  bottom: "inception_3b/pool_proj"
  top: "inception_3b/pool_proj"
}
layer {
  name: "inception_3b/output"
  type: "Concat"
  bottom: "inception_3b/1x1"
  bottom: "inception_3b/3x3"
  bottom: "inception_3b/5x5"
  bottom: "inception_3b/pool_proj"
  top: "inception_3b/output"
}
layer {
  name: "pool3/3x3_s2"
  type: "Pooling"
  bottom: "inception_3b/output"
  top: "pool3/3x3_s2"
  pooling_param {
    pool: MAX
    kernel_size: 3
    stride: 2
  }
}
layer {
  name: "inception_4a/1x1"
  type: "Convolution"
  bottom: "pool3/3x3_s2"
  top: "inception_4a/1x1"
  param {
    lr_mult: 1
    decay_mult: 1
  }
  param {
    lr_mult: 2
    decay_mult: 0
  }
  convolution_param {
    num_output: 192
    kernel_size: 1
    weight_filler {
      type: "xavier"
      std: 0.03
    }
    bias_filler {
      type: "constant"
      value: 0.2
    }
  }
}
layer {
  name: "inception_4a/relu_1x1"
  type: "ReLU"
  bottom: "inception_4a/1x1"
  top: "inception_4a/1x1"
}
layer {
  name: "inception_4a/3x3_reduce"
  type: "Convolution"
  bottom: "pool3/3x3_s2"
  top: "inception_4a/3x3_reduce"
  param {
    lr_mult: 1
    decay_mult: 1
  }
  param {
    lr_mult: 2
    decay_mult: 0
  }
  convolution_param {
    num_output: 96
    kernel_size: 1
    weight_filler {
      type: "xavier"
      std: 0.09
    }
    bias_filler {
      type: "constant"
      value: 0.2
    }
  }
}
layer {
  name: "inception_4a/relu_3x3_reduce"
  type: "ReLU"
  bottom: "inception_4a/3x3_reduce"
  top: "inception_4a/3x3_reduce"
}
layer {
  name: "inception_4a/3x3"
  type: "Convolution"
  bottom: "inception_4a/3x3_reduce"
  top: "inception_4a/3x3"
  param {
    lr_mult: 1
    decay_mult: 1
  }
  param {
    lr_mult: 2
    decay_mult: 0
  }
  convolution_param {
    num_output: 208
    pad: 1
    kernel_size: 3
    weight_filler {
      type: "xavier"
      std: 0.03
    }
    bias_filler {
      type: "constant"
      value: 0.2
    }
  }
}
layer {
  name: "inception_4a/relu_3x3"
  type: "ReLU"
  bottom: "inception_4a/3x3"
  top: "inception_4a/3x3"
}
layer {
  name: "inception_4a/5x5_reduce"
  type: "Convolution"
  bottom: "pool3/3x3_s2"
  top: "inception_4a/5x5_reduce"
  param {
    lr_mult: 1
    decay_mult: 1
  }
  param {
    lr_mult: 2
    decay_mult: 0
  }
  convolution_param {
    num_output: 16
    kernel_size: 1
    weight_filler {
      type: "xavier"
      std: 0.2
    }
    bias_filler {
      type: "constant"
      value: 0.2
    }
  }
}
layer {
  name: "inception_4a/relu_5x5_reduce"
  type: "ReLU"
  bottom: "inception_4a/5x5_reduce"
  top: "inception_4a/5x5_reduce"
}
layer {
  name: "inception_4a/5x5"
  type: "Convolution"
  bottom: "inception_4a/5x5_reduce"
  top: "inception_4a/5x5"
  param {
    lr_mult: 1
    decay_mult: 1
  }
  param {
    lr_mult: 2
    decay_mult: 0
  }
  convolution_param {
    num_output: 48
    pad: 2
    kernel_size: 5
    weight_filler {
      type: "xavier"
      std: 0.03
    }
    bias_filler {
      type: "constant"
      value: 0.2
    }
  }
}
layer {
  name: "inception_4a/relu_5x5"
  type: "ReLU"
  bottom: "inception_4a/5x5"
  top: "inception_4a/5x5"
}
layer {
  name: "inception_4a/pool"
  type: "Pooling"
  bottom: "pool3/3x3_s2"
  top: "inception_4a/pool"
  pooling_param {
    pool: MAX
    kernel_size: 3
    stride: 1
    pad: 1
  }
}
layer {
  name: "inception_4a/pool_proj"
  type: "Convolution"
  bottom: "inception_4a/pool"
  top: "inception_4a/pool_proj"
  param {
    lr_mult: 1
    decay_mult: 1
  }
  param {
    lr_mult: 2
    decay_mult: 0
  }
  convolution_param {
    num_output: 64
    kernel_size: 1
    weight_filler {
      type: "xavier"
      std: 0.1
    }
    bias_filler {
      type: "constant"
      value: 0.2
    }
  }
}
layer {
  name: "inception_4a/relu_pool_proj"
  type: "ReLU"
  bottom: "inception_4a/pool_proj"
  top: "inception_4a/pool_proj"
}
layer {
  name: "inception_4a/output"
  type: "Concat"
  bottom: "inception_4a/1x1"
  bottom: "inception_4a/3x3"
  bottom: "inception_4a/5x5"
  bottom: "inception_4a/pool_proj"
  top: "inception_4a/output"
}
layer {
  name: "loss1/ave_pool"
  type: "Pooling"
  bottom: "inception_4a/output"
  top: "loss1/ave_pool"
  pooling_param {
    pool: AVE
    kernel_size: 5
    stride: 3
  }
}
layer {
  name: "loss1/conv"
  type: "Convolution"
  bottom: "loss1/ave_pool"
  top: "loss1/conv"
  param {
    lr_mult: 1
    decay_mult: 1
  }
  param {
    lr_mult: 2
    decay_mult: 0
  }
  convolution_param {
    num_output: 128
    kernel_size: 1
    weight_filler {
      type: "xavier"
      std: 0.08
    }
    bias_filler {
      type: "constant"
      value: 0.2
    }
  }
}
layer {
  name: "loss1/relu_conv"
  type: "ReLU"
  bottom: "loss1/conv"
  top: "loss1/conv"
}
layer {
  name: "loss1/fc"
  type: "InnerProduct"
  bottom: "loss1/conv"
  top: "loss1/fc"
  param {
    lr_mult: 1
    decay_mult: 1
  }
  param {
    lr_mult: 2
    decay_mult: 0
  }
  inner_product_param {
    num_output: 1024
    weight_filler {
      type: "xavier"
      std: 0.02
    }
    bias_filler {
      type: "constant"
      value: 0.2
    }
  }
}
layer {
  name: "loss1/relu_fc"
  type: "ReLU"
  bottom: "loss1/fc"
  top: "loss1/fc"
}
layer {
  name: "loss1/drop_fc"
  type: "Dropout"
  bottom: "loss1/fc"
  top: "loss1/fc"
  dropout_param {
    dropout_ratio: 0.7
  }
}
layer {
  name: "loss1/classifier_plantvillage"
  type: "InnerProduct"
  bottom: "loss1/fc"
  top: "loss1/classifier_plantvillage"
  param {
    lr_mult: 1
    decay_mult: 1
  }
  param {
    lr_mult: 2
    decay_mult: 0
  }
  inner_product_param {
    num_output: 38
    weight_filler {
      type: "xavier"
      std: 0.0009765625
    }
    bias_filler {
      type: "constant"
      value: 0
    }
  }
}
layer {
  name: "inception_4b/1x1"
  type: "Convolution"
  bottom: "inception_4a/output"
  top: "inception_4b/1x1"
  param {
    lr_mult: 1
    decay_mult: 1
  }
  param {
    lr_mult: 2
    decay_mult: 0
  }
  convolution_param {
    num_output: 160
    kernel_size: 1
    weight_filler {
      type: "xavier"
      std: 0.03
    }
    bias_filler {
      type: "constant"
      value: 0.2
    }
  }
}
layer {
  name: "inception_4b/relu_1x1"
  type: "ReLU"
  bottom: "inception_4b/1x1"
  top: "inception_4b/1x1"
}
layer {
  name: "inception_4b/3x3_reduce"
  type: "Convolution"
  bottom: "inception_4a/output"
  top: "inception_4b/3x3_reduce"
  param {
    lr_mult: 1
    decay_mult: 1
  }
  param {
    lr_mult: 2
    decay_mult: 0
  }
  convolution_param {
    num_output: 112
    kernel_size: 1
    weight_filler {
      type: "xavier"
      std: 0.09
    }
    bias_filler {
      type: "constant"
      value: 0.2
    }
  }
}
layer {
  name: "inception_4b/relu_3x3_reduce"
  type: "ReLU"
  bottom: "inception_4b/3x3_reduce"
  top: "inception_4b/3x3_reduce"
}
layer {
  name: "inception_4b/3x3"
  type: "Convolution"
  bottom: "inception_4b/3x3_reduce"
  top: "inception_4b/3x3"
  param {
    lr_mult: 1
    decay_mult: 1
  }
  param {
    lr_mult: 2
    decay_mult: 0
  }
  convolution_param {
    num_output: 224
    pad: 1
    kernel_size: 3
    weight_filler {
      type: "xavier"
      std: 0.03
    }
    bias_filler {
      type: "constant"
      value: 0.2
    }
  }
}
layer {
  name: "inception_4b/relu_3x3"
  type: "ReLU"
  bottom: "inception_4b/3x3"
  top: "inception_4b/3x3"
}
layer {
  name: "inception_4b/5x5_reduce"
  type: "Convolution"
  bottom: "inception_4a/output"
  top: "inception_4b/5x5_reduce"
  param {
    lr_mult: 1
    decay_mult: 1
  }
  param {
    lr_mult: 2
    decay_mult: 0
  }
  convolution_param {
    num_output: 24
    kernel_size: 1
    weight_filler {
      type: "xavier"
      std: 0.2
    }
    bias_filler {
      type: "constant"
      value: 0.2
    }
  }
}
layer {
  name: "inception_4b/relu_5x5_reduce"
  type: "ReLU"
  bottom: "inception_4b/5x5_reduce"
  top: "inception_4b/5x5_reduce"
}
layer {
  name: "inception_4b/5x5"
  type: "Convolution"
  bottom: "inception_4b/5x5_reduce"
  top: "inception_4b/5x5"
  param {
    lr_mult: 1
    decay_mult: 1
  }
  param {
    lr_mult: 2
    decay_mult: 0
  }
  convolution_param {
    num_output: 64
    pad: 2
    kernel_size: 5
    weight_filler {
      type: "xavier"
      std: 0.03
    }
    bias_filler {
      type: "constant"
      value: 0.2
    }
  }
}
layer {
  name: "inception_4b/relu_5x5"
  type: "ReLU"
  bottom: "inception_4b/5x5"
  top: "inception_4b/5x5"
}
layer {
  name: "inception_4b/pool"
  type: "Pooling"
  bottom: "inception_4a/output"
  top: "inception_4b/pool"
  pooling_param {
    pool: MAX
    kernel_size: 3
    stride: 1
    pad: 1
  }
}
layer {
  name: "inception_4b/pool_proj"
  type: "Convolution"
  bottom: "inception_4b/pool"
  top: "inception_4b/pool_proj"
  param {
    lr_mult: 1
    decay_mult: 1
  }
  param {
    lr_mult: 2
    decay_mult: 0
  }
  convolution_param {
    num_output: 64
    kernel_size: 1
    weight_filler {
      type: "xavier"
      std: 0.1
    }
    bias_filler {
      type: "constant"
      value: 0.2
    }
  }
}
layer {
  name: "inception_4b/relu_pool_proj"
  type: "ReLU"
  bottom: "inception_4b/pool_proj"
  top: "inception_4b/pool_proj"
}
layer {
  name: "inception_4b/output"
  type: "Concat"
  bottom: "inception_4b/1x1"
  bottom: "inception_4b/3x3"
  bottom: "inception_4b/5x5"
  bottom: "inception_4b/pool_proj"
  top: "inception_4b/output"
}
layer {
  name: "inception_4c/1x1"
  type: "Convolution"
  bottom: "inception_4b/output"
  top: "inception_4c/1x1"
  param {
    lr_mult: 1
    decay_mult: 1
  }
  param {
    lr_mult: 2
    decay_mult: 0
  }
  convolution_param {
    num_output: 128
    kernel_size: 1
    weight_filler {
      type: "xavier"
      std: 0.03
    }
    bias_filler {
      type: "constant"
      value: 0.2
    }
  }
}
layer {
  name: "inception_4c/relu_1x1"
  type: "ReLU"
  bottom: "inception_4c/1x1"
  top: "inception_4c/1x1"
}
layer {
  name: "inception_4c/3x3_reduce"
  type: "Convolution"
  bottom: "inception_4b/output"
  top: "inception_4c/3x3_reduce"
  param {
    lr_mult: 1
    decay_mult: 1
  }
  param {
    lr_mult: 2
    decay_mult: 0
  }
  convolution_param {
    num_output: 128
    kernel_size: 1
    weight_filler {
      type: "xavier"
      std: 0.09
    }
    bias_filler {
      type: "constant"
      value: 0.2
    }
  }
}
layer {
  name: "inception_4c/relu_3x3_reduce"
  type: "ReLU"
  bottom: "inception_4c/3x3_reduce"
  top: "inception_4c/3x3_reduce"
}
layer {
  name: "inception_4c/3x3"
  type: "Convolution"
  bottom: "inception_4c/3x3_reduce"
  top: "inception_4c/3x3"
  param {
    lr_mult: 1
    decay_mult: 1
  }
  param {
    lr_mult: 2
    decay_mult: 0
  }
  convolution_param {
    num_output: 256
    pad: 1
    kernel_size: 3
    weight_filler {
      type: "xavier"
      std: 0.03
    }
    bias_filler {
      type: "constant"
      value: 0.2
    }
  }
}
layer {
  name: "inception_4c/relu_3x3"
  type: "ReLU"
  bottom: "inception_4c/3x3"
  top: "inception_4c/3x3"
}
layer {
  name: "inception_4c/5x5_reduce"
  type: "Convolution"
  bottom: "inception_4b/output"
  top: "inception_4c/5x5_reduce"
  param {
    lr_mult: 1
    decay_mult: 1
  }
  param {
    lr_mult: 2
    decay_mult: 0
  }
  convolution_param {
    num_output: 24
    kernel_size: 1
    weight_filler {
      type: "xavier"
      std: 0.2
    }
    bias_filler {
      type: "constant"
      value: 0.2
    }
  }
}
layer {
  name: "inception_4c/relu_5x5_reduce"
  type: "ReLU"
  bottom: "inception_4c/5x5_reduce"
  top: "inception_4c/5x5_reduce"
}
layer {
  name: "inception_4c/5x5"
  type: "Convolution"
  bottom: "inception_4c/5x5_reduce"
  top: "inception_4c/5x5"
  param {
    lr_mult: 1
    decay_mult: 1
  }
  param {
    lr_mult: 2
    decay_mult: 0
  }
  convolution_param {
    num_output: 64
    pad: 2
    kernel_size: 5
    weight_filler {
      type: "xavier"
      std: 0.03
    }
    bias_filler {
      type: "constant"
      value: 0.2
    }
  }
}
layer {
  name: "inception_4c/relu_5x5"
  type: "ReLU"
  bottom: "inception_4c/5x5"
  top: "inception_4c/5x5"
}
layer {
  name: "inception_4c/pool"
  type: "Pooling"
  bottom: "inception_4b/output"
  top: "inception_4c/pool"
  pooling_param {
    pool: MAX
    kernel_size: 3
    stride: 1
    pad: 1
  }
}
layer {
  name: "inception_4c/pool_proj"
  type: "Convolution"
  bottom: "inception_4c/pool"
  top: "inception_4c/pool_proj"
  param {
    lr_mult: 1
    decay_mult: 1
  }
  param {
    lr_mult: 2
    decay_mult: 0
  }
  convolution_param {
    num_output: 64
    kernel_size: 1
    weight_filler {
      type: "xavier"
      std: 0.1
    }
    bias_filler {
      type: "constant"
      value: 0.2
    }
  }
}
layer {
  name: "inception_4c/relu_pool_proj"
  type: "ReLU"
  bottom: "inception_4c/pool_proj"
  top: "inception_4c/pool_proj"
}
layer {
  name: "inception_4c/output"
  type: "Concat"
  bottom: "inception_4c/1x1"
  bottom: "inception_4c/3x3"
  bottom: "inception_4c/5x5"
  bottom: "inception_4c/pool_proj"
  top: "inception_4c/output"
}
layer {
  name: "inception_4d/1x1"
  type: "Convolution"
  bottom: "inception_4c/output"
  top: "inception_4d/1x1"
  param {
    lr_mult: 1
    decay_mult: 1
  }
  param {
    lr_mult: 2
    decay_mult: 0
  }
  convolution_param {
    num_output: 112
    kernel_size: 1
    weight_filler {
      type: "xavier"
      std: 0.03
    }
    bias_filler {
      type: "constant"
      value: 0.2
    }
  }
}
layer {
  name: "inception_4d/relu_1x1"
  type: "ReLU"
  bottom: "inception_4d/1x1"
  top: "inception_4d/1x1"
}
layer {
  name: "inception_4d/3x3_reduce"
  type: "Convolution"
  bottom: "inception_4c/output"
  top: "inception_4d/3x3_reduce"
  param {
    lr_mult: 1
    decay_mult: 1
  }
  param {
    lr_mult: 2
    decay_mult: 0
  }
  convolution_param {
    num_output: 144
    kernel_size: 1
    weight_filler {
      type: "xavier"
      std: 0.09
    }
    bias_filler {
      type: "constant"
      value: 0.2
    }
  }
}
layer {
  name: "inception_4d/relu_3x3_reduce"
  type: "ReLU"
  bottom: "inception_4d/3x3_reduce"
  top: "inception_4d/3x3_reduce"
}
layer {
  name: "inception_4d/3x3"
  type: "Convolution"
  bottom: "inception_4d/3x3_reduce"
  top: "inception_4d/3x3"
  param {
    lr_mult: 1
    decay_mult: 1
  }
  param {
    lr_mult: 2
    decay_mult: 0
  }
  convolution_param {
    num_output: 288
    pad: 1
    kernel_size: 3
    weight_filler {
      type: "xavier"
      std: 0.03
    }
    bias_filler {
      type: "constant"
      value: 0.2
    }
  }
}
layer {
  name: "inception_4d/relu_3x3"
  type: "ReLU"
  bottom: "inception_4d/3x3"
  top: "inception_4d/3x3"
}
layer {
  name: "inception_4d/5x5_reduce"
  type: "Convolution"
  bottom: "inception_4c/output"
  top: "inception_4d/5x5_reduce"
  param {
    lr_mult: 1
    decay_mult: 1
  }
  param {
    lr_mult: 2
    decay_mult: 0
  }
  convolution_param {
    num_output: 32
    kernel_size: 1
    weight_filler {
      type: "xavier"
      std: 0.2
    }
    bias_filler {
      type: "constant"
      value: 0.2
    }
  }
}
layer {
  name: "inception_4d/relu_5x5_reduce"
  type: "ReLU"
  bottom: "inception_4d/5x5_reduce"
  top: "inception_4d/5x5_reduce"
}
layer {
  name: "inception_4d/5x5"
  type: "Convolution"
  bottom: "inception_4d/5x5_reduce"
  top: "inception_4d/5x5"
  param {
    lr_mult: 1
    decay_mult: 1
  }
  param {
    lr_mult: 2
    decay_mult: 0
  }
  convolution_param {
    num_output: 64
    pad: 2
    kernel_size: 5
    weight_filler {
      type: "xavier"
      std: 0.03
    }
    bias_filler {
      type: "constant"
      value: 0.2
    }
  }
}
layer {
  name: "inception_4d/relu_5x5"
  type: "ReLU"
  bottom: "inception_4d/5x5"
  top: "inception_4d/5x5"
}
layer {
  name: "inception_4d/pool"
  type: "Pooling"
  bottom: "inception_4c/output"
  top: "inception_4d/pool"
  pooling_param {
    pool: MAX
    kernel_size: 3
    stride: 1
    pad: 1
  }
}
layer {
  name: "inception_4d/pool_proj"
  type: "Convolution"
  bottom: "inception_4d/pool"
  top: "inception_4d/pool_proj"
  param {
    lr_mult: 1
    decay_mult: 1
  }
  param {
    lr_mult: 2
    decay_mult: 0
  }
  convolution_param {
    num_output: 64
    kernel_size: 1
    weight_filler {
      type: "xavier"
      std: 0.1
    }
    bias_filler {
      type: "constant"
      value: 0.2
    }
  }
}
layer {
  name: "inception_4d/relu_pool_proj"
  type: "ReLU"
  bottom: "inception_4d/pool_proj"
  top: "inception_4d/pool_proj"
}
layer {
  name: "inception_4d/output"
  type: "Concat"
  bottom: "inception_4d/1x1"
  bottom: "inception_4d/3x3"
  bottom: "inception_4d/5x5"
  bottom: "inception_4d/pool_proj"
  top: "inception_4d/output"
}
layer {
  name: "loss2/ave_pool"
  type: "Pooling"
  bottom: "inception_4d/output"
  top: "loss2/ave_pool"
  pooling_param {
    pool: AVE
    kernel_size: 5
    stride: 3
  }
}
layer {
  name: "loss2/conv"
  type: "Convolution"
  bottom: "loss2/ave_pool"
  top: "loss2/conv"
  param {
    lr_mult: 1
    decay_mult: 1
  }
  param {
    lr_mult: 2
    decay_mult: 0
  }
  convolution_param {
    num_output: 128
    kernel_size: 1
    weight_filler {
      type: "xavier"
      std: 0.08
    }
    bias_filler {
      type: "constant"
      value: 0.2
    }
  }
}
layer {
  name: "loss2/relu_conv"
  type: "ReLU"
  bottom: "loss2/conv"
  top: "loss2/conv"
}
layer {
  name: "loss2/fc"
  type: "InnerProduct"
  bottom: "loss2/conv"
  top: "loss2/fc"
  param {
    lr_mult: 1
    decay_mult: 1
  }
  param {
    lr_mult: 2
    decay_mult: 0
  }
  inner_product_param {
    num_output: 1024
    weight_filler {
      type: "xavier"
      std: 0.02
    }
    bias_filler {
      type: "constant"
      value: 0.2
    }
  }
}
layer {
  name: "loss2/relu_fc"
  type: "ReLU"
  bottom: "loss2/fc"
  top: "loss2/fc"
}
layer {
  name: "loss2/drop_fc"
  type: "Dropout"
  bottom: "loss2/fc"
  top: "loss2/fc"
  dropout_param {
    dropout_ratio: 0.7
  }
}
layer {
  name: "loss2/classifier_plantvillage"
  type: "InnerProduct"
  bottom: "loss2/fc"
  top: "loss2/classifier_plantvillage"
  param {
    lr_mult: 1
    decay_mult: 1
  }
  param {
    lr_mult: 2
    decay_mult: 0
  }
  inner_product_param {
    num_output: 38
    weight_filler {
      type: "xavier"
      std: 0.0009765625
    }
    bias_filler {
      type: "constant"
      value: 0
    }
  }
}
layer {
  name: "inception_4e/1x1"
  type: "Convolution"
  bottom: "inception_4d/output"
  top: "inception_4e/1x1"
  param {
    lr_mult: 1
    decay_mult: 1
  }
  param {
    lr_mult: 2
    decay_mult: 0
  }
  convolution_param {
    num_output: 256
    kernel_size: 1
    weight_filler {
      type: "xavier"
      std: 0.03
    }
    bias_filler {
      type: "constant"
      value: 0.2
    }
  }
}
layer {
  name: "inception_4e/relu_1x1"
  type: "ReLU"
  bottom: "inception_4e/1x1"
  top: "inception_4e/1x1"
}
layer {
  name: "inception_4e/3x3_reduce"
  type: "Convolution"
  bottom: "inception_4d/output"
  top: "inception_4e/3x3_reduce"
  param {
    lr_mult: 1
    decay_mult: 1
  }
  param {
    lr_mult: 2
    decay_mult: 0
  }
  convolution_param {
    num_output: 160
    kernel_size: 1
    weight_filler {
      type: "xavier"
      std: 0.09
    }
    bias_filler {
      type: "constant"
      value: 0.2
    }
  }
}
layer {
  name: "inception_4e/relu_3x3_reduce"
  type: "ReLU"
  bottom: "inception_4e/3x3_reduce"
  top: "inception_4e/3x3_reduce"
}
layer {
  name: "inception_4e/3x3"
  type: "Convolution"
  bottom: "inception_4e/3x3_reduce"
  top: "inception_4e/3x3"
  param {
    lr_mult: 1
    decay_mult: 1
  }
  param {
    lr_mult: 2
    decay_mult: 0
  }
  convolution_param {
    num_output: 320
    pad: 1
    kernel_size: 3
    weight_filler {
      type: "xavier"
      std: 0.03
    }
    bias_filler {
      type: "constant"
      value: 0.2
    }
  }
}
layer {
  name: "inception_4e/relu_3x3"
  type: "ReLU"
  bottom: "inception_4e/3x3"
  top: "inception_4e/3x3"
}
layer {
  name: "inception_4e/5x5_reduce"
  type: "Convolution"
  bottom: "inception_4d/output"
  top: "inception_4e/5x5_reduce"
  param {
    lr_mult: 1
    decay_mult: 1
  }
  param {
    lr_mult: 2
    decay_mult: 0
  }
  convolution_param {
    num_output: 32
    kernel_size: 1
    weight_filler {
      type: "xavier"
      std: 0.2
    }
    bias_filler {
      type: "constant"
      value: 0.2
    }
  }
}
layer {
  name: "inception_4e/relu_5x5_reduce"
  type: "ReLU"
  bottom: "inception_4e/5x5_reduce"
  top: "inception_4e/5x5_reduce"
}
layer {
  name: "inception_4e/5x5"
  type: "Convolution"
  bottom: "inception_4e/5x5_reduce"
  top: "inception_4e/5x5"
 
I0403 12:02:13.194166  1276 layer_factory.hpp:77] Creating layer data
I0403 12:02:13.194777  1276 net.cpp:91] Creating Layer data
I0403 12:02:13.194813  1276 net.cpp:399] data -> data
I0403 12:02:13.194866  1276 net.cpp:399] data -> label
I0403 12:02:13.194900  1276 data_transformer.cpp:25] Loading mean file from: /home/mohanty/data/final_dataset/lmdb/color-80-20/mean.binaryproto
I0403 12:02:13.247854  1281 db_lmdb.cpp:38] Opened lmdb /home/mohanty/data/final_dataset/lmdb/color-80-20/train_db
I0403 12:02:13.305907  1276 data_layer.cpp:41] output data size: 24,3,224,224
I0403 12:02:13.332028  1276 net.cpp:141] Setting up data
I0403 12:02:13.332106  1276 net.cpp:148] Top shape: 24 3 224 224 (3612672)
I0403 12:02:13.332128  1276 net.cpp:148] Top shape: 24 (24)
I0403 12:02:13.332142  1276 net.cpp:156] Memory required for data: 14450784
I0403 12:02:13.332204  1276 layer_factory.hpp:77] Creating layer label_data_1_split
I0403 12:02:13.332237  1276 net.cpp:91] Creating Layer label_data_1_split
I0403 12:02:13.332257  1276 net.cpp:425] label_data_1_split <- label
I0403 12:02:13.332288  1276 net.cpp:399] label_data_1_split -> label_data_1_split_0
I0403 12:02:13.332314  1276 net.cpp:399] label_data_1_split -> label_data_1_split_1
I0403 12:02:13.332339  1276 net.cpp:399] label_data_1_split -> label_data_1_split_2
I0403 12:02:13.332401  1276 net.cpp:141] Setting up label_data_1_split
I0403 12:02:13.332424  1276 net.cpp:148] Top shape: 24 (24)
I0403 12:02:13.332442  1276 net.cpp:148] Top shape: 24 (24)
I0403 12:02:13.332456  1276 net.cpp:148] Top shape: 24 (24)
I0403 12:02:13.332470  1276 net.cpp:156] Memory required for data: 14451072
I0403 12:02:13.332485  1276 layer_factory.hpp:77] Creating layer conv1/7x7_s2
I0403 12:02:13.332521  1276 net.cpp:91] Creating Layer conv1/7x7_s2
I0403 12:02:13.332540  1276 net.cpp:425] conv1/7x7_s2 <- data
I0403 12:02:13.332559  1276 net.cpp:399] conv1/7x7_s2 -> conv1/7x7_s2
I0403 12:02:13.333433  1276 net.cpp:141] Setting up conv1/7x7_s2
I0403 12:02:13.333461  1276 net.cpp:148] Top shape: 24 64 112 112 (19267584)
I0403 12:02:13.333477  1276 net.cpp:156] Memory required for data: 91521408
I0403 12:02:13.333511  1276 layer_factory.hpp:77] Creating layer conv1/relu_7x7
I0403 12:02:13.333535  1276 net.cpp:91] Creating Layer conv1/relu_7x7
I0403 12:02:13.333552  1276 net.cpp:425] conv1/relu_7x7 <- conv1/7x7_s2
I0403 12:02:13.333570  1276 net.cpp:386] conv1/relu_7x7 -> conv1/7x7_s2 (in-place)
I0403 12:02:13.333591  1276 net.cpp:141] Setting up conv1/relu_7x7
I0403 12:02:13.333609  1276 net.cpp:148] Top shape: 24 64 112 112 (19267584)
I0403 12:02:13.333622  1276 net.cpp:156] Memory required for data: 168591744
I0403 12:02:13.333636  1276 layer_factory.hpp:77] Creating layer pool1/3x3_s2
I0403 12:02:13.333657  1276 net.cpp:91] Creating Layer pool1/3x3_s2
I0403 12:02:13.333673  1276 net.cpp:425] pool1/3x3_s2 <- conv1/7x7_s2
I0403 12:02:13.333689  1276 net.cpp:399] pool1/3x3_s2 -> pool1/3x3_s2
I0403 12:02:13.333750  1276 net.cpp:141] Setting up pool1/3x3_s2
I0403 12:02:13.333773  1276 net.cpp:148] Top shape: 24 64 56 56 (4816896)
I0403 12:02:13.333788  1276 net.cpp:156] Memory required for data: 187859328
I0403 12:02:13.333802  1276 layer_factory.hpp:77] Creating layer pool1/norm1
I0403 12:02:13.333822  1276 net.cpp:91] Creating Layer pool1/norm1
I0403 12:02:13.333837  1276 net.cpp:425] pool1/norm1 <- pool1/3x3_s2
I0403 12:02:13.333853  1276 net.cpp:399] pool1/norm1 -> pool1/norm1
I0403 12:02:13.333901  1276 net.cpp:141] Setting up pool1/norm1
I0403 12:02:13.333923  1276 net.cpp:148] Top shape: 24 64 56 56 (4816896)
I0403 12:02:13.333937  1276 net.cpp:156] Memory required for data: 207126912
I0403 12:02:13.333951  1276 layer_factory.hpp:77] Creating layer conv2/3x3_reduce
I0403 12:02:13.333973  1276 net.cpp:91] Creating Layer conv2/3x3_reduce
I0403 12:02:13.333989  1276 net.cpp:425] conv2/3x3_reduce <- pool1/norm1
I0403 12:02:13.334008  1276 net.cpp:399] conv2/3x3_reduce -> conv2/3x3_reduce
I0403 12:02:13.336171  1276 net.cpp:141] Setting up conv2/3x3_reduce
I0403 12:02:13.336210  1276 net.cpp:148] Top shape: 24 64 56 56 (4816896)
I0403 12:02:13.336226  1276 net.cpp:156] Memory required for data: 226394496
I0403 12:02:13.336247  1276 layer_factory.hpp:77] Creating layer conv2/relu_3x3_reduce
I0403 12:02:13.336266  1276 net.cpp:91] Creating Layer conv2/relu_3x3_reduce
I0403 12:02:13.336282  1276 net.cpp:425] conv2/relu_3x3_reduce <- conv2/3x3_reduce
I0403 12:02:13.336299  1276 net.cpp:386] conv2/relu_3x3_reduce -> conv2/3x3_reduce (in-place)
I0403 12:02:13.336319  1276 net.cpp:141] Setting up conv2/relu_3x3_reduce
I0403 12:02:13.336349  1276 net.cpp:148] Top shape: 24 64 56 56 (4816896)
I0403 12:02:13.336365  1276 net.cpp:156] Memory required for data: 245662080
I0403 12:02:13.336380  1276 layer_factory.hpp:77] Creating layer conv2/3x3
I0403 12:02:13.336403  1276 net.cpp:91] Creating Layer conv2/3x3
I0403 12:02:13.336421  1276 net.cpp:425] conv2/3x3 <- conv2/3x3_reduce
I0403 12:02:13.336457  1276 net.cpp:399] conv2/3x3 -> conv2/3x3
I0403 12:02:13.337579  1282 blocking_queue.cpp:50] Waiting for data
I0403 12:02:13.337740  1276 net.cpp:141] Setting up conv2/3x3
I0403 12:02:13.337769  1276 net.cpp:148] Top shape: 24 192 56 56 (14450688)
I0403 12:02:13.337784  1276 net.cpp:156] Memory required for data: 303464832
I0403 12:02:13.337803  1276 layer_factory.hpp:77] Creating layer conv2/relu_3x3
I0403 12:02:13.337822  1276 net.cpp:91] Creating Layer conv2/relu_3x3
I0403 12:02:13.337838  1276 net.cpp:425] conv2/relu_3x3 <- conv2/3x3
I0403 12:02:13.337857  1276 net.cpp:386] conv2/relu_3x3 -> conv2/3x3 (in-place)
I0403 12:02:13.337874  1276 net.cpp:141] Setting up conv2/relu_3x3
I0403 12:02:13.337893  1276 net.cpp:148] Top shape: 24 192 56 56 (14450688)
I0403 12:02:13.337906  1276 net.cpp:156] Memory required for data: 361267584
I0403 12:02:13.337920  1276 layer_factory.hpp:77] Creating layer conv2/norm2
I0403 12:02:13.337939  1276 net.cpp:91] Creating Layer conv2/norm2
I0403 12:02:13.337954  1276 net.cpp:425] conv2/norm2 <- conv2/3x3
I0403 12:02:13.337970  1276 net.cpp:399] conv2/norm2 -> conv2/norm2
I0403 12:02:13.338014  1276 net.cpp:141] Setting up conv2/norm2
I0403 12:02:13.338037  1276 net.cpp:148] Top shape: 24 192 56 56 (14450688)
I0403 12:02:13.338049  1276 net.cpp:156] Memory required for data: 419070336
I0403 12:02:13.338063  1276 layer_factory.hpp:77] Creating layer pool2/3x3_s2
I0403 12:02:13.338081  1276 net.cpp:91] Creating Layer pool2/3x3_s2
I0403 12:02:13.338098  1276 net.cpp:425] pool2/3x3_s2 <- conv2/norm2
I0403 12:02:13.338115  1276 net.cpp:399] pool2/3x3_s2 -> pool2/3x3_s2
I0403 12:02:13.338157  1276 net.cpp:141] Setting up pool2/3x3_s2
I0403 12:02:13.338179  1276 net.cpp:148] Top shape: 24 192 28 28 (3612672)
I0403 12:02:13.338193  1276 net.cpp:156] Memory required for data: 433521024
I0403 12:02:13.338207  1276 layer_factory.hpp:77] Creating layer pool2/3x3_s2_pool2/3x3_s2_0_split
I0403 12:02:13.338227  1276 net.cpp:91] Creating Layer pool2/3x3_s2_pool2/3x3_s2_0_split
I0403 12:02:13.338243  1276 net.cpp:425] pool2/3x3_s2_pool2/3x3_s2_0_split <- pool2/3x3_s2
I0403 12:02:13.338263  1276 net.cpp:399] pool2/3x3_s2_pool2/3x3_s2_0_split -> pool2/3x3_s2_pool2/3x3_s2_0_split_0
I0403 12:02:13.338282  1276 net.cpp:399] pool2/3x3_s2_pool2/3x3_s2_0_split -> pool2/3x3_s2_pool2/3x3_s2_0_split_1
I0403 12:02:13.338301  1276 net.cpp:399] pool2/3x3_s2_pool2/3x3_s2_0_split -> pool2/3x3_s2_pool2/3x3_s2_0_split_2
I0403 12:02:13.338320  1276 net.cpp:399] pool2/3x3_s2_pool2/3x3_s2_0_split -> pool2/3x3_s2_pool2/3x3_s2_0_split_3
I0403 12:02:13.338382  1276 net.cpp:141] Setting up pool2/3x3_s2_pool2/3x3_s2_0_split
I0403 12:02:13.338404  1276 net.cpp:148] Top shape: 24 192 28 28 (3612672)
I0403 12:02:13.338419  1276 net.cpp:148] Top shape: 24 192 28 28 (3612672)
I0403 12:02:13.338434  1276 net.cpp:148] Top shape: 24 192 28 28 (3612672)
I0403 12:02:13.338449  1276 net.cpp:148] Top shape: 24 192 28 28 (3612672)
I0403 12:02:13.338462  1276 net.cpp:156] Memory required for data: 491323776
I0403 12:02:13.338476  1276 layer_factory.hpp:77] Creating layer inception_3a/1x1
I0403 12:02:13.338497  1276 net.cpp:91] Creating Layer inception_3a/1x1
I0403 12:02:13.338515  1276 net.cpp:425] inception_3a/1x1 <- pool2/3x3_s2_pool2/3x3_s2_0_split_0
I0403 12:02:13.338533  1276 net.cpp:399] inception_3a/1x1 -> inception_3a/1x1
I0403 12:02:13.339274  1276 net.cpp:141] Setting up inception_3a/1x1
I0403 12:02:13.339300  1276 net.cpp:148] Top shape: 24 64 28 28 (1204224)
I0403 12:02:13.339315  1276 net.cpp:156] Memory required for data: 496140672
I0403 12:02:13.339349  1276 layer_factory.hpp:77] Creating layer inception_3a/relu_1x1
I0403 12:02:13.339370  1276 net.cpp:91] Creating Layer inception_3a/relu_1x1
I0403 12:02:13.339385  1276 net.cpp:425] inception_3a/relu_1x1 <- inception_3a/1x1
I0403 12:02:13.339401  1276 net.cpp:386] inception_3a/relu_1x1 -> inception_3a/1x1 (in-place)
I0403 12:02:13.339421  1276 net.cpp:141] Setting up inception_3a/relu_1x1
I0403 12:02:13.339437  1276 net.cpp:148] Top shape: 24 64 28 28 (1204224)
I0403 12:02:13.339465  1276 net.cpp:156] Memory required for data: 500957568
I0403 12:02:13.339481  1276 layer_factory.hpp:77] Creating layer inception_3a/3x3_reduce
I0403 12:02:13.339504  1276 net.cpp:91] Creating Layer inception_3a/3x3_reduce
I0403 12:02:13.339522  1276 net.cpp:425] inception_3a/3x3_reduce <- pool2/3x3_s2_pool2/3x3_s2_0_split_1
I0403 12:02:13.339541  1276 net.cpp:399] inception_3a/3x3_reduce -> inception_3a/3x3_reduce
I0403 12:02:13.340325  1276 net.cpp:141] Setting up inception_3a/3x3_reduce
I0403 12:02:13.340368  1276 net.cpp:148] Top shape: 24 96 28 28 (1806336)
I0403 12:02:13.340384  1276 net.cpp:156] Memory required for data: 508182912
I0403 12:02:13.340404  1276 layer_factory.hpp:77] Creating layer inception_3a/relu_3x3_reduce
I0403 12:02:13.340423  1276 net.cpp:91] Creating Layer inception_3a/relu_3x3_reduce
I0403 12:02:13.340440  1276 net.cpp:425] inception_3a/relu_3x3_reduce <- inception_3a/3x3_reduce
I0403 12:02:13.340459  1276 net.cpp:386] inception_3a/relu_3x3_reduce -> inception_3a/3x3_reduce (in-place)
I0403 12:02:13.340479  1276 net.cpp:141] Setting up inception_3a/relu_3x3_reduce
I0403 12:02:13.340497  1276 net.cpp:148] Top shape: 24 96 28 28 (1806336)
I0403 12:02:13.340510  1276 net.cpp:156] Memory required for data: 515408256
I0403 12:02:13.340524  1276 layer_factory.hpp:77] Creating layer inception_3a/3x3
I0403 12:02:13.340548  1276 net.cpp:91] Creating Layer inception_3a/3x3
I0403 12:02:13.340564  1276 net.cpp:425] inception_3a/3x3 <- inception_3a/3x3_reduce
I0403 12:02:13.340584  1276 net.cpp:399] inception_3a/3x3 -> inception_3a/3x3
I0403 12:02:13.341362  1276 net.cpp:141] Setting up inception_3a/3x3
I0403 12:02:13.341387  1276 net.cpp:148] Top shape: 24 128 28 28 (2408448)
I0403 12:02:13.341401  1276 net.cpp:156] Memory required for data: 525042048
I0403 12:02:13.341418  1276 layer_factory.hpp:77] Creating layer inception_3a/relu_3x3
I0403 12:02:13.341436  1276 net.cpp:91] Creating Layer inception_3a/relu_3x3
I0403 12:02:13.341452  1276 net.cpp:425] inception_3a/relu_3x3 <- inception_3a/3x3
I0403 12:02:13.341470  1276 net.cpp:386] inception_3a/relu_3x3 -> inception_3a/3x3 (in-place)
I0403 12:02:13.341490  1276 net.cpp:141] Setting up inception_3a/relu_3x3
I0403 12:02:13.341507  1276 net.cpp:148] Top shape: 24 128 28 28 (2408448)
I0403 12:02:13.341521  1276 net.cpp:156] Memory required for data: 534675840
I0403 12:02:13.341534  1276 layer_factory.hpp:77] Creating layer inception_3a/5x5_reduce
I0403 12:02:13.341554  1276 net.cpp:91] Creating Layer inception_3a/5x5_reduce
I0403 12:02:13.341570  1276 net.cpp:425] inception_3a/5x5_reduce <- pool2/3x3_s2_pool2/3x3_s2_0_split_2
I0403 12:02:13.341593  1276 net.cpp:399] inception_3a/5x5_reduce -> inception_3a/5x5_reduce
I0403 12:02:13.341815  1276 net.cpp:141] Setting up inception_3a/5x5_reduce
I0403 12:02:13.341838  1276 net.cpp:148] Top shape: 24 16 28 28 (301056)
I0403 12:02:13.341852  1276 net.cpp:156] Memory required for data: 535880064
I0403 12:02:13.341868  1276 layer_factory.hpp:77] Creating layer inception_3a/relu_5x5_reduce
I0403 12:02:13.341886  1276 net.cpp:91] Creating Layer inception_3a/relu_5x5_reduce
I0403 12:02:13.341902  1276 net.cpp:425] inception_3a/relu_5x5_reduce <- inception_3a/5x5_reduce
I0403 12:02:13.341922  1276 net.cpp:386] inception_3a/relu_5x5_reduce -> inception_3a/5x5_reduce (in-place)
I0403 12:02:13.341940  1276 net.cpp:141] Setting up inception_3a/relu_5x5_reduce
I0403 12:02:13.341956  1276 net.cpp:148] Top shape: 24 16 28 28 (301056)
I0403 12:02:13.341969  1276 net.cpp:156] Memory required for data: 537084288
I0403 12:02:13.341984  1276 layer_factory.hpp:77] Creating layer inception_3a/5x5
I0403 12:02:13.342005  1276 net.cpp:91] Creating Layer inception_3a/5x5
I0403 12:02:13.342022  1276 net.cpp:425] inception_3a/5x5 <- inception_3a/5x5_reduce
I0403 12:02:13.342041  1276 net.cpp:399] inception_3a/5x5 -> inception_3a/5x5
I0403 12:02:13.342290  1276 net.cpp:141] Setting up inception_3a/5x5
I0403 12:02:13.342314  1276 net.cpp:148] Top shape: 24 32 28 28 (602112)
I0403 12:02:13.342357  1276 net.cpp:156] Memory required for data: 539492736
I0403 12:02:13.342386  1276 layer_factory.hpp:77] Creating layer inception_3a/relu_5x5
I0403 12:02:13.342417  1276 net.cpp:91] Creating Layer inception_3a/relu_5x5
I0403 12:02:13.342433  1276 net.cpp:425] inception_3a/relu_5x5 <- inception_3a/5x5
I0403 12:02:13.342453  1276 net.cpp:386] inception_3a/relu_5x5 -> inception_3a/5x5 (in-place)
I0403 12:02:13.342473  1276 net.cpp:141] Setting up inception_3a/relu_5x5
I0403 12:02:13.342490  1276 net.cpp:148] Top shape: 24 32 28 28 (602112)
I0403 12:02:13.342504  1276 net.cpp:156] Memory required for data: 541901184
I0403 12:02:13.342519  1276 layer_factory.hpp:77] Creating layer inception_3a/pool
I0403 12:02:13.342537  1276 net.cpp:91] Creating Layer inception_3a/pool
I0403 12:02:13.342553  1276 net.cpp:425] inception_3a/pool <- pool2/3x3_s2_pool2/3x3_s2_0_split_3
I0403 12:02:13.342571  1276 net.cpp:399] inception_3a/pool -> inception_3a/pool
I0403 12:02:13.342623  1276 net.cpp:141] Setting up inception_3a/pool
I0403 12:02:13.342646  1276 net.cpp:148] Top shape: 24 192 28 28 (3612672)
I0403 12:02:13.342661  1276 net.cpp:156] Memory required for data: 556351872
I0403 12:02:13.342675  1276 layer_factory.hpp:77] Creating layer inception_3a/pool_proj
I0403 12:02:13.342710  1276 net.cpp:91] Creating Layer inception_3a/pool_proj
I0403 12:02:13.342727  1276 net.cpp:425] inception_3a/pool_proj <- inception_3a/pool
I0403 12:02:13.342761  1276 net.cpp:399] inception_3a/pool_proj -> inception_3a/pool_proj
I0403 12:02:13.342974  1276 net.cpp:141] Setting up inception_3a/pool_proj
I0403 12:02:13.342998  1276 net.cpp:148] Top shape: 24 32 28 28 (602112)
I0403 12:02:13.343011  1276 net.cpp:156] Memory required for data: 558760320
I0403 12:02:13.343034  1276 layer_factory.hpp:77] Creating layer inception_3a/relu_pool_proj
I0403 12:02:13.343052  1276 net.cpp:91] Creating Layer inception_3a/relu_pool_proj
I0403 12:02:13.343068  1276 net.cpp:425] inception_3a/relu_pool_proj <- inception_3a/pool_proj
I0403 12:02:13.343086  1276 net.cpp:386] inception_3a/relu_pool_proj -> inception_3a/pool_proj (in-place)
I0403 12:02:13.343104  1276 net.cpp:141] Setting up inception_3a/relu_pool_proj
I0403 12:02:13.343122  1276 net.cpp:148] Top shape: 24 32 28 28 (602112)
I0403 12:02:13.343135  1276 net.cpp:156] Memory required for data: 561168768
I0403 12:02:13.343148  1276 layer_factory.hpp:77] Creating layer inception_3a/output
I0403 12:02:13.343165  1276 net.cpp:91] Creating Layer inception_3a/output
I0403 12:02:13.343180  1276 net.cpp:425] inception_3a/output <- inception_3a/1x1
I0403 12:02:13.343195  1276 net.cpp:425] inception_3a/output <- inception_3a/3x3
I0403 12:02:13.343210  1276 net.cpp:425] inception_3a/output <- inception_3a/5x5
I0403 12:02:13.343225  1276 net.cpp:425] inception_3a/output <- inception_3a/pool_proj
I0403 12:02:13.343240  1276 net.cpp:399] inception_3a/output -> inception_3a/output
I0403 12:02:13.343281  1276 net.cpp:141] Setting up inception_3a/output
I0403 12:02:13.343302  1276 net.cpp:148] Top shape: 24 256 28 28 (4816896)
I0403 12:02:13.343315  1276 net.cpp:156] Memory required for data: 580436352
I0403 12:02:13.343333  1276 layer_factory.hpp:77] Creating layer inception_3a/output_inception_3a/output_0_split
I0403 12:02:13.343366  1276 net.cpp:91] Creating Layer inception_3a/output_inception_3a/output_0_split
I0403 12:02:13.343384  1276 net.cpp:425] inception_3a/output_inception_3a/output_0_split <- inception_3a/output
I0403 12:02:13.343400  1276 net.cpp:399] inception_3a/output_inception_3a/output_0_split -> inception_3a/output_inception_3a/output_0_split_0
I0403 12:02:13.343420  1276 net.cpp:399] inception_3a/output_inception_3a/output_0_split -> inception_3a/output_inception_3a/output_0_split_1
I0403 12:02:13.343441  1276 net.cpp:399] inception_3a/output_inception_3a/output_0_split -> inception_3a/output_inception_3a/output_0_split_2
I0403 12:02:13.343459  1276 net.cpp:399] inception_3a/output_inception_3a/output_0_split -> inception_3a/output_inception_3a/output_0_split_3
I0403 12:02:13.343521  1276 net.cpp:141] Setting up inception_3a/output_inception_3a/output_0_split
I0403 12:02:13.343554  1276 net.cpp:148] Top shape: 24 256 28 28 (4816896)
I0403 12:02:13.343570  1276 net.cpp:148] Top shape: 24 256 28 28 (4816896)
I0403 12:02:13.343585  1276 net.cpp:148] Top shape: 24 256 28 28 (4816896)
I0403 12:02:13.343600  1276 net.cpp:148] Top shape: 24 256 28 28 (4816896)
I0403 12:02:13.343616  1276 net.cpp:156] Memory required for data: 657506688
I0403 12:02:13.343642  1276 layer_factory.hpp:77] Creating layer inception_3b/1x1
I0403 12:02:13.343664  1276 net.cpp:91] Creating Layer inception_3b/1x1
I0403 12:02:13.343680  1276 net.cpp:425] inception_3b/1x1 <- inception_3a/output_inception_3a/output_0_split_0
I0403 12:02:13.343700  1276 net.cpp:399] inception_3b/1x1 -> inception_3b/1x1
I0403 12:02:13.344048  1276 net.cpp:141] Setting up inception_3b/1x1
I0403 12:02:13.344070  1276 net.cpp:148] Top shape: 24 128 28 28 (2408448)
I0403 12:02:13.344086  1276 net.cpp:156] Memory required for data: 667140480
I0403 12:02:13.344102  1276 layer_factory.hpp:77] Creating layer inception_3b/relu_1x1
I0403 12:02:13.344120  1276 net.cpp:91] Creating Layer inception_3b/relu_1x1
I0403 12:02:13.344133  1276 net.cpp:425] inception_3b/relu_1x1 <- inception_3b/1x1
I0403 12:02:13.344152  1276 net.cpp:386] inception_3b/relu_1x1 -> inception_3b/1x1 (in-place)
I0403 12:02:13.344172  1276 net.cpp:141] Setting up inception_3b/relu_1x1
I0403 12:02:13.344188  1276 net.cpp:148] Top shape: 24 128 28 28 (2408448)
I0403 12:02:13.344202  1276 net.cpp:156] Memory required for data: 676774272
I0403 12:02:13.344215  1276 layer_factory.hpp:77] Creating layer inception_3b/3x3_reduce
I0403 12:02:13.344238  1276 net.cpp:91] Creating Layer inception_3b/3x3_reduce
I0403 12:02:13.344254  1276 net.cpp:425] inception_3b/3x3_reduce <- inception_3a/output_inception_3a/output_0_split_1
I0403 12:02:13.344274  1276 net.cpp:399] inception_3b/3x3_reduce -> inception_3b/3x3_reduce
I0403 12:02:13.344676  1276 net.cpp:141] Setting up inception_3b/3x3_reduce
I0403 12:02:13.344701  1276 net.cpp:148] Top shape: 24 128 28 28 (2408448)
I0403 12:02:13.344715  1276 net.cpp:156] Memory required for data: 686408064
I0403 12:02:13.344732  1276 layer_factory.hpp:77] Creating layer inception_3b/relu_3x3_reduce
I0403 12:02:13.344750  1276 net.cpp:91] Creating Layer inception_3b/relu_3x3_reduce
I0403 12:02:13.344765  1276 net.cpp:425] inception_3b/relu_3x3_reduce <- inception_3b/3x3_reduce
I0403 12:02:13.344782  1276 net.cpp:386] inception_3b/relu_3x3_reduce -> inception_3b/3x3_reduce (in-place)
I0403 12:02:13.344807  1276 net.cpp:141] Setting up inception_3b/relu_3x3_reduce
I0403 12:02:13.344823  1276 net.cpp:148] Top shape: 24 128 28 28 (2408448)
I0403 12:02:13.344837  1276 net.cpp:156] Memory required for data: 696041856
I0403 12:02:13.344851  1276 layer_factory.hpp:77] Creating layer inception_3b/3x3
I0403 12:02:13.344876  1276 net.cpp:91] Creating Layer inception_3b/3x3
I0403 12:02:13.344893  1276 net.cpp:425] inception_3b/3x3 <- inception_3b/3x3_reduce
I0403 12:02:13.344913  1276 net.cpp:399] inception_3b/3x3 -> inception_3b/3x3
I0403 12:02:13.346815  1276 net.cpp:141] Setting up inception_3b/3x3
I0403 12:02:13.346843  1276 net.cpp:148] Top shape: 24 192 28 28 (3612672)
I0403 12:02:13.346858  1276 net.cpp:156] Memory required for data: 710492544
I0403 12:02:13.346874  1276 layer_factory.hpp:77] Creating layer inception_3b/relu_3x3
I0403 12:02:13.346892  1276 net.cpp:91] Creating Layer inception_3b/relu_3x3
I0403 12:02:13.346909  1276 net.cpp:425] inception_3b/relu_3x3 <- inception_3b/3x3
I0403 12:02:13.346928  1276 net.cpp:386] inception_3b/relu_3x3 -> inception_3b/3x3 (in-place)
I0403 12:02:13.346947  1276 net.cpp:141] Setting up inception_3b/relu_3x3
I0403 12:02:13.346964  1276 net.cpp:148] Top shape: 24 192 28 28 (3612672)
I0403 12:02:13.346978  1276 net.cpp:156] Memory required for data: 724943232
I0403 12:02:13.346992  1276 layer_factory.hpp:77] Creating layer inception_3b/5x5_reduce
I0403 12:02:13.347015  1276 net.cpp:91] Creating Layer inception_3b/5x5_reduce
I0403 12:02:13.347033  1276 net.cpp:425] inception_3b/5x5_reduce <- inception_3a/output_inception_3a/output_0_split_2
I0403 12:02:13.347065  1276 net.cpp:399] inception_3b/5x5_reduce -> inception_3b/5x5_reduce
I0403 12:02:13.347309  1276 net.cpp:141] Setting up inception_3b/5x5_reduce
I0403 12:02:13.347337  1276 net.cpp:148] Top shape: 24 32 28 28 (602112)
I0403 12:02:13.347353  1276 net.cpp:156] Memory required for data: 727351680
I0403 12:02:13.347370  1276 layer_factory.hpp:77] Creating layer inception_3b/relu_5x5_reduce
I0403 12:02:13.347388  1276 net.cpp:91] Creating Layer inception_3b/relu_5x5_reduce
I0403 12:02:13.347404  1276 net.cpp:425] inception_3b/relu_5x5_reduce <- inception_3b/5x5_reduce
I0403 12:02:13.347424  1276 net.cpp:386] inception_3b/relu_5x5_reduce -> inception_3b/5x5_reduce (in-place)
I0403 12:02:13.347442  1276 net.cpp:141] Setting up inception_3b/relu_5x5_reduce
I0403 12:02:13.347460  1276 net.cpp:148] Top shape: 24 32 28 28 (602112)
I0403 12:02:13.347473  1276 net.cpp:156] Memory required for data: 729760128
I0403 12:02:13.347487  1276 layer_factory.hpp:77] Creating layer inception_3b/5x5
I0403 12:02:13.347511  1276 net.cpp:91] Creating Layer inception_3b/5x5
I0403 12:02:13.347528  1276 net.cpp:425] inception_3b/5x5 <- inception_3b/5x5_reduce
I0403 12:02:13.347546  1276 net.cpp:399] inception_3b/5x5 -> inception_3b/5x5
I0403 12:02:13.348666  1276 net.cpp:141] Setting up inception_3b/5x5
I0403 12:02:13.348695  1276 net.cpp:148] Top shape: 24 96 28 28 (1806336)
I0403 12:02:13.348709  1276 net.cpp:156] Memory required for data: 736985472
I0403 12:02:13.348726  1276 layer_factory.hpp:77] Creating layer inception_3b/relu_5x5
I0403 12:02:13.348747  1276 net.cpp:91] Creating Layer inception_3b/relu_5x5
I0403 12:02:13.348763  1276 net.cpp:425] inception_3b/relu_5x5 <- inception_3b/5x5
I0403 12:02:13.348780  1276 net.cpp:386] inception_3b/relu_5x5 -> inception_3b/5x5 (in-place)
I0403 12:02:13.348799  1276 net.cpp:141] Setting up inception_3b/relu_5x5
I0403 12:02:13.348817  1276 net.cpp:148] Top shape: 24 96 28 28 (1806336)
I0403 12:02:13.348831  1276 net.cpp:156] Memory required for data: 744210816
I0403 12:02:13.348845  1276 layer_factory.hpp:77] Creating layer inception_3b/pool
I0403 12:02:13.348865  1276 net.cpp:91] Creating Layer inception_3b/pool
I0403 12:02:13.348881  1276 net.cpp:425] inception_3b/pool <- inception_3a/output_inception_3a/output_0_split_3
I0403 12:02:13.348898  1276 net.cpp:399] inception_3b/pool -> inception_3b/pool
I0403 12:02:13.348948  1276 net.cpp:141] Setting up inception_3b/pool
I0403 12:02:13.348969  1276 net.cpp:148] Top shape: 24 256 28 28 (4816896)
I0403 12:02:13.348984  1276 net.cpp:156] Memory required for data: 763478400
I0403 12:02:13.348999  1276 layer_factory.hpp:77] Creating layer inception_3b/pool_proj
I0403 12:02:13.349020  1276 net.cpp:91] Creating Layer inception_3b/pool_proj
I0403 12:02:13.349038  1276 net.cpp:425] inception_3b/pool_proj <- inception_3b/pool
I0403 12:02:13.349057  1276 net.cpp:399] inception_3b/pool_proj -> inception_3b/pool_proj
I0403 12:02:13.349362  1276 net.cpp:141] Setting up inception_3b/pool_proj
I0403 12:02:13.349387  1276 net.cpp:148] Top shape: 24 64 28 28 (1204224)
I0403 12:02:13.349402  1276 net.cpp:156] Memory required for data: 768295296
I0403 12:02:13.349419  1276 layer_factory.hpp:77] Creating layer inception_3b/relu_pool_proj
I0403 12:02:13.349450  1276 net.cpp:91] Creating Layer inception_3b/relu_pool_proj
I0403 12:02:13.349465  1276 net.cpp:425] inception_3b/relu_pool_proj <- inception_3b/pool_proj
I0403 12:02:13.349486  1276 net.cpp:386] inception_3b/relu_pool_proj -> inception_3b/pool_proj (in-place)
I0403 12:02:13.349506  1276 net.cpp:141] Setting up inception_3b/relu_pool_proj
I0403 12:02:13.349522  1276 net.cpp:148] Top shape: 24 64 28 28 (1204224)
I0403 12:02:13.349536  1276 net.cpp:156] Memory required for data: 773112192
I0403 12:02:13.349550  1276 layer_factory.hpp:77] Creating layer inception_3b/output
I0403 12:02:13.349567  1276 net.cpp:91] Creating Layer inception_3b/output
I0403 12:02:13.349583  1276 net.cpp:425] inception_3b/output <- inception_3b/1x1
I0403 12:02:13.349613  1276 net.cpp:425] inception_3b/output <- inception_3b/3x3
I0403 12:02:13.349630  1276 net.cpp:425] inception_3b/output <- inception_3b/5x5
I0403 12:02:13.349645  1276 net.cpp:425] inception_3b/output <- inception_3b/pool_proj
I0403 12:02:13.349665  1276 net.cpp:399] inception_3b/output -> inception_3b/output
I0403 12:02:13.349702  1276 net.cpp:141] Setting up inception_3b/output
I0403 12:02:13.349725  1276 net.cpp:148] Top shape: 24 480 28 28 (9031680)
I0403 12:02:13.349738  1276 net.cpp:156] Memory required for data: 809238912
I0403 12:02:13.349752  1276 layer_factory.hpp:77] Creating layer pool3/3x3_s2
I0403 12:02:13.349772  1276 net.cpp:91] Creating Layer pool3/3x3_s2
I0403 12:02:13.349788  1276 net.cpp:425] pool3/3x3_s2 <- inception_3b/output
I0403 12:02:13.349807  1276 net.cpp:399] pool3/3x3_s2 -> pool3/3x3_s2
I0403 12:02:13.349854  1276 net.cpp:141] Setting up pool3/3x3_s2
I0403 12:02:13.349876  1276 net.cpp:148] Top shape: 24 480 14 14 (2257920)
I0403 12:02:13.349890  1276 net.cpp:156] Memory required for data: 818270592
I0403 12:02:13.349905  1276 layer_factory.hpp:77] Creating layer pool3/3x3_s2_pool3/3x3_s2_0_split
I0403 12:02:13.349921  1276 net.cpp:91] Creating Layer pool3/3x3_s2_pool3/3x3_s2_0_split
I0403 12:02:13.349936  1276 net.cpp:425] pool3/3x3_s2_pool3/3x3_s2_0_split <- pool3/3x3_s2
I0403 12:02:13.349956  1276 net.cpp:399] pool3/3x3_s2_pool3/3x3_s2_0_split -> pool3/3x3_s2_pool3/3x3_s2_0_split_0
I0403 12:02:13.349975  1276 net.cpp:399] pool3/3x3_s2_pool3/3x3_s2_0_split -> pool3/3x3_s2_pool3/3x3_s2_0_split_1
I0403 12:02:13.349997  1276 net.cpp:399] pool3/3x3_s2_pool3/3x3_s2_0_split -> pool3/3x3_s2_pool3/3x3_s2_0_split_2
I0403 12:02:13.350016  1276 net.cpp:399] pool3/3x3_s2_pool3/3x3_s2_0_split -> pool3/3x3_s2_pool3/3x3_s2_0_split_3
I0403 12:02:13.350077  1276 net.cpp:141] Setting up pool3/3x3_s2_pool3/3x3_s2_0_split
I0403 12:02:13.350103  1276 net.cpp:148] Top shape: 24 480 14 14 (2257920)
I0403 12:02:13.350121  1276 net.cpp:148] Top shape: 24 480 14 14 (2257920)
I0403 12:02:13.350134  1276 net.cpp:148] Top shape: 24 480 14 14 (2257920)
I0403 12:02:13.350149  1276 net.cpp:148] Top shape: 24 480 14 14 (2257920)
I0403 12:02:13.350162  1276 net.cpp:156] Memory required for data: 854397312
I0403 12:02:13.350175  1276 layer_factory.hpp:77] Creating layer inception_4a/1x1
I0403 12:02:13.350195  1276 net.cpp:91] Creating Layer inception_4a/1x1
I0403 12:02:13.350213  1276 net.cpp:425] inception_4a/1x1 <- pool3/3x3_s2_pool3/3x3_s2_0_split_0
I0403 12:02:13.350234  1276 net.cpp:399] inception_4a/1x1 -> inception_4a/1x1
I0403 12:02:13.350945  1276 net.cpp:141] Setting up inception_4a/1x1
I0403 12:02:13.350968  1276 net.cpp:148] Top shape: 24 192 14 14 (903168)
I0403 12:02:13.350983  1276 net.cpp:156] Memory required for data: 858009984
I0403 12:02:13.351001  1276 layer_factory.hpp:77] Creating layer inception_4a/relu_1x1
I0403 12:02:13.351018  1276 net.cpp:91] Creating Layer inception_4a/relu_1x1
I0403 12:02:13.351033  1276 net.cpp:425] inception_4a/relu_1x1 <- inception_4a/1x1
I0403 12:02:13.351052  1276 net.cpp:386] inception_4a/relu_1x1 -> inception_4a/1x1 (in-place)
I0403 12:02:13.351071  1276 net.cpp:141] Setting up inception_4a/relu_1x1
I0403 12:02:13.351089  1276 net.cpp:148] Top shape: 24 192 14 14 (903168)
I0403 12:02:13.351104  1276 net.cpp:156] Memory required for data: 861622656
I0403 12:02:13.351117  1276 layer_factory.hpp:77] Creating layer inception_4a/3x3_reduce
I0403 12:02:13.351141  1276 net.cpp:91] Creating Layer inception_4a/3x3_reduce
I0403 12:02:13.351158  1276 net.cpp:425] inception_4a/3x3_reduce <- pool3/3x3_s2_pool3/3x3_s2_0_split_1
I0403 12:02:13.351177  1276 net.cpp:399] inception_4a/3x3_reduce -> inception_4a/3x3_reduce
I0403 12:02:13.351624  1276 net.cpp:141] Setting up inception_4a/3x3_reduce
I0403 12:02:13.351649  1276 net.cpp:148] Top shape: 24 96 14 14 (451584)
I0403 12:02:13.351663  1276 net.cpp:156] Memory required for data: 863428992
I0403 12:02:13.351686  1276 layer_factory.hpp:77] Creating layer inception_4a/relu_3x3_reduce
I0403 12:02:13.351706  1276 net.cpp:91] Creating Layer inception_4a/relu_3x3_reduce
I0403 12:02:13.351735  1276 net.cpp:425] inception_4a/relu_3x3_reduce <- inception_4a/3x3_reduce
I0403 12:02:13.351755  1276 net.cpp:386] inception_4a/relu_3x3_reduce -> inception_4a/3x3_reduce (in-place)
I0403 12:02:13.351776  1276 net.cpp:141] Setting up inception_4a/relu_3x3_reduce
I0403 12:02:13.351794  1276 net.cpp:148] Top shape: 24 96 14 14 (451584)
I0403 12:02:13.351807  1276 net.cpp:156] Memory required for data: 865235328
I0403 12:02:13.351821  1276 layer_factory.hpp:77] Creating layer inception_4a/3x3
I0403 12:02:13.351841  1276 net.cpp:91] Creating Layer inception_4a/3x3
I0403 12:02:13.351861  1276 net.cpp:425] inception_4a/3x3 <- inception_4a/3x3_reduce
I0403 12:02:13.351879  1276 net.cpp:399] inception_4a/3x3 -> inception_4a/3x3
I0403 12:02:13.353535  1276 net.cpp:141] Setting up inception_4a/3x3
I0403 12:02:13.353562  1276 net.cpp:148] Top shape: 24 208 14 14 (978432)
I0403 12:02:13.353577  1276 net.cpp:156] Memory required for data: 869149056
I0403 12:02:13.353595  1276 layer_factory.hpp:77] Creating layer inception_4a/relu_3x3
I0403 12:02:13.353612  1276 net.cpp:91] Creating Layer inception_4a/relu_3x3
I0403 12:02:13.353628  1276 net.cpp:425] inception_4a/relu_3x3 <- inception_4a/3x3
I0403 12:02:13.353646  1276 net.cpp:386] inception_4a/relu_3x3 -> inception_4a/3x3 (in-place)
I0403 12:02:13.353663  1276 net.cpp:141] Setting up inception_4a/relu_3x3
I0403 12:02:13.353680  1276 net.cpp:148] Top shape: 24 208 14 14 (978432)
I0403 12:02:13.353693  1276 net.cpp:156] Memory required for data: 873062784
I0403 12:02:13.353708  1276 layer_factory.hpp:77] Creating layer inception_4a/5x5_reduce
I0403 12:02:13.353729  1276 net.cpp:91] Creating Layer inception_4a/5x5_reduce
I0403 12:02:13.353746  1276 net.cpp:425] inception_4a/5x5_reduce <- pool3/3x3_s2_pool3/3x3_s2_0_split_2
I0403 12:02:13.353766  1276 net.cpp:399] inception_4a/5x5_reduce -> inception_4a/5x5_reduce
I0403 12:02:13.354007  1276 net.cpp:141] Setting up inception_4a/5x5_reduce
I0403 12:02:13.354029  1276 net.cpp:148] Top shape: 24 16 14 14 (75264)
I0403 12:02:13.354044  1276 net.cpp:156] Memory required for data: 873363840
I0403 12:02:13.354060  1276 layer_factory.hpp:77] Creating layer inception_4a/relu_5x5_reduce
I0403 12:02:13.354079  1276 net.cpp:91] Creating Layer inception_4a/relu_5x5_reduce
I0403 12:02:13.354094  1276 net.cpp:425] inception_4a/relu_5x5_reduce <- inception_4a/5x5_reduce
I0403 12:02:13.354110  1276 net.cpp:386] inception_4a/relu_5x5_reduce -> inception_4a/5x5_reduce (in-place)
I0403 12:02:13.354132  1276 net.cpp:141] Setting up inception_4a/relu_5x5_reduce
I0403 12:02:13.354148  1276 net.cpp:148] Top shape: 24 16 14 14 (75264)
I0403 12:02:13.354162  1276 net.cpp:156] Memory required for data: 873664896
I0403 12:02:13.354176  1276 layer_factory.hpp:77] Creating layer inception_4a/5x5
I0403 12:02:13.354197  1276 net.cpp:91] Creating Layer inception_4a/5x5
I0403 12:02:13.354213  1276 net.cpp:425] inception_4a/5x5 <- inception_4a/5x5_reduce
I0403 12:02:13.354235  1276 net.cpp:399] inception_4a/5x5 -> inception_4a/5x5
I0403 12:02:13.354557  1276 net.cpp:141] Setting up inception_4a/5x5
I0403 12:02:13.354581  1276 net.cpp:148] Top shape: 24 48 14 14 (225792)
I0403 12:02:13.354596  1276 net.cpp:156] Memory required for data: 874568064
I0403 12:02:13.354614  1276 layer_factory.hpp:77] Creating layer inception_4a/relu_5x5
I0403 12:02:13.354643  1276 net.cpp:91] Creating Layer inception_4a/relu_5x5
I0403 12:02:13.354660  1276 net.cpp:425] inception_4a/relu_5x5 <- inception_4a/5x5
I0403 12:02:13.354676  1276 net.cpp:386] inception_4a/relu_5x5 -> inception_4a/5x5 (in-place)
I0403 12:02:13.354694  1276 net.cpp:141] Setting up inception_4a/relu_5x5
I0403 12:02:13.354710  1276 net.cpp:148] Top shape: 24 48 14 14 (225792)
I0403 12:02:13.354723  1276 net.cpp:156] Memory required for data: 875471232
I0403 12:02:13.354737  1276 layer_factory.hpp:77] Creating layer inception_4a/pool
I0403 12:02:13.354758  1276 net.cpp:91] Creating Layer inception_4a/pool
I0403 12:02:13.354774  1276 net.cpp:425] inception_4a/pool <- pool3/3x3_s2_pool3/3x3_s2_0_split_3
I0403 12:02:13.354806  1276 net.cpp:399] inception_4a/pool -> inception_4a/pool
I0403 12:02:13.354857  1276 net.cpp:141] Setting up inception_4a/pool
I0403 12:02:13.354879  1276 net.cpp:148] Top shape: 24 480 14 14 (2257920)
I0403 12:02:13.354894  1276 net.cpp:156] Memory required for data: 884502912
I0403 12:02:13.354908  1276 layer_factory.hpp:77] Creating layer inception_4a/pool_proj
I0403 12:02:13.354930  1276 net.cpp:91] Creating Layer inception_4a/pool_proj
I0403 12:02:13.354948  1276 net.cpp:425] inception_4a/pool_proj <- inception_4a/pool
I0403 12:02:13.354966  1276 net.cpp:399] inception_4a/pool_proj -> inception_4a/pool_proj
I0403 12:02:13.355321  1276 net.cpp:141] Setting up inception_4a/pool_proj
I0403 12:02:13.355350  1276 net.cpp:148] Top shape: 24 64 14 14 (301056)
I0403 12:02:13.355366  1276 net.cpp:156] Memory required for data: 885707136
I0403 12:02:13.355383  1276 layer_factory.hpp:77] Creating layer inception_4a/relu_pool_proj
I0403 12:02:13.355401  1276 net.cpp:91] Creating Layer inception_4a/relu_pool_proj
I0403 12:02:13.355417  1276 net.cpp:425] inception_4a/relu_pool_proj <- inception_4a/pool_proj
I0403 12:02:13.355433  1276 net.cpp:386] inception_4a/relu_pool_proj -> inception_4a/pool_proj (in-place)
I0403 12:02:13.355453  1276 net.cpp:141] Setting up inception_4a/relu_pool_proj
I0403 12:02:13.355468  1276 net.cpp:148] Top shape: 24 64 14 14 (301056)
I0403 12:02:13.355481  1276 net.cpp:156] Memory required for data: 886911360
I0403 12:02:13.355495  1276 layer_factory.hpp:77] Creating layer inception_4a/output
I0403 12:02:13.355512  1276 net.cpp:91] Creating Layer inception_4a/output
I0403 12:02:13.355527  1276 net.cpp:425] inception_4a/output <- inception_4a/1x1
I0403 12:02:13.355542  1276 net.cpp:425] inception_4a/output <- inception_4a/3x3
I0403 12:02:13.355557  1276 net.cpp:425] inception_4a/output <- inception_4a/5x5
I0403 12:02:13.355572  1276 net.cpp:425] inception_4a/output <- inception_4a/pool_proj
I0403 12:02:13.355592  1276 net.cpp:399] inception_4a/output -> inception_4a/output
I0403 12:02:13.355628  1276 net.cpp:141] Setting up inception_4a/output
I0403 12:02:13.355651  1276 net.cpp:148] Top shape: 24 512 14 14 (2408448)
I0403 12:02:13.355666  1276 net.cpp:156] Memory required for data: 896545152
I0403 12:02:13.355680  1276 layer_factory.hpp:77] Creating layer inception_4a/output_inception_4a/output_0_split
I0403 12:02:13.355696  1276 net.cpp:91] Creating Layer inception_4a/output_inception_4a/output_0_split
I0403 12:02:13.355712  1276 net.cpp:425] inception_4a/output_inception_4a/output_0_split <- inception_4a/output
I0403 12:02:13.355729  1276 net.cpp:399] inception_4a/output_inception_4a/output_0_split -> inception_4a/output_inception_4a/output_0_split_0
I0403 12:02:13.355749  1276 net.cpp:399] inception_4a/output_inception_4a/output_0_split -> inception_4a/output_inception_4a/output_0_split_1
I0403 12:02:13.355772  1276 net.cpp:399] inception_4a/output_inception_4a/output_0_split -> inception_4a/output_inception_4a/output_0_split_2
I0403 12:02:13.355793  1276 net.cpp:399] inception_4a/output_inception_4a/output_0_split -> inception_4a/output_inception_4a/output_0_split_3
I0403 12:02:13.355813  1276 net.cpp:399] inception_4a/output_inception_4a/output_0_split -> inception_4a/output_inception_4a/output_0_split_4
I0403 12:02:13.355885  1276 net.cpp:141] Setting up inception_4a/output_inception_4a/output_0_split
I0403 12:02:13.355906  1276 net.cpp:148] Top shape: 24 512 14 14 (2408448)
I0403 12:02:13.355922  1276 net.cpp:148] Top shape: 24 512 14 14 (2408448)
I0403 12:02:13.355937  1276 net.cpp:148] Top shape: 24 512 14 14 (2408448)
I0403 12:02:13.355950  1276 net.cpp:148] Top shape: 24 512 14 14 (2408448)
I0403 12:02:13.355964  1276 net.cpp:148] Top shape: 24 512 14 14 (2408448)
I0403 12:02:13.355978  1276 net.cpp:156] Memory required for data: 944714112
I0403 12:02:13.355991  1276 layer_factory.hpp:77] Creating layer loss1/ave_pool
I0403 12:02:13.356010  1276 net.cpp:91] Creating Layer loss1/ave_pool
I0403 12:02:13.356040  1276 net.cpp:425] loss1/ave_pool <- inception_4a/output_inception_4a/output_0_split_0
I0403 12:02:13.356058  1276 net.cpp:399] loss1/ave_pool -> loss1/ave_pool
I0403 12:02:13.356096  1276 net.cpp:141] Setting up loss1/ave_pool
I0403 12:02:13.356117  1276 net.cpp:148] Top shape: 24 512 4 4 (196608)
I0403 12:02:13.356132  1276 net.cpp:156] Memory required for data: 945500544
I0403 12:02:13.356145  1276 layer_factory.hpp:77] Creating layer loss1/conv
I0403 12:02:13.356168  1276 net.cpp:91] Creating Layer loss1/conv
I0403 12:02:13.356184  1276 net.cpp:425] loss1/conv <- loss1/ave_pool
I0403 12:02:13.356204  1276 net.cpp:399] loss1/conv -> loss1/conv
I0403 12:02:13.356748  1276 net.cpp:141] Setting up loss1/conv
I0403 12:02:13.356772  1276 net.cpp:148] Top shape: 24 128 4 4 (49152)
I0403 12:02:13.356787  1276 net.cpp:156] Memory required for data: 945697152
I0403 12:02:13.356804  1276 layer_factory.hpp:77] Creating layer loss1/relu_conv
I0403 12:02:13.356822  1276 net.cpp:91] Creating Layer loss1/relu_conv
I0403 12:02:13.356837  1276 net.cpp:425] loss1/relu_conv <- loss1/conv
I0403 12:02:13.356853  1276 net.cpp:386] loss1/relu_conv -> loss1/conv (in-place)
I0403 12:02:13.356871  1276 net.cpp:141] Setting up loss1/relu_conv
I0403 12:02:13.356889  1276 net.cpp:148] Top shape: 24 128 4 4 (49152)
I0403 12:02:13.356901  1276 net.cpp:156] Memory required for data: 945893760
I0403 12:02:13.356915  1276 layer_factory.hpp:77] Creating layer loss1/fc
I0403 12:02:13.356938  1276 net.cpp:91] Creating Layer loss1/fc
I0403 12:02:13.356955  1276 net.cpp:425] loss1/fc <- loss1/conv
I0403 12:02:13.356974  1276 net.cpp:399] loss1/fc -> loss1/fc
I0403 12:02:13.372130  1276 net.cpp:141] Setting up loss1/fc
I0403 12:02:13.372174  1276 net.cpp:148] Top shape: 24 1024 (24576)
I0403 12:02:13.372190  1276 net.cpp:156] Memory required for data: 945992064
I0403 12:02:13.372208  1276 layer_factory.hpp:77] Creating layer loss1/relu_fc
I0403 12:02:13.372226  1276 net.cpp:91] Creating Layer loss1/relu_fc
I0403 12:02:13.372242  1276 net.cpp:425] loss1/relu_fc <- loss1/fc
I0403 12:02:13.372259  1276 net.cpp:386] loss1/relu_fc -> loss1/fc (in-place)
I0403 12:02:13.372278  1276 net.cpp:141] Setting up loss1/relu_fc
I0403 12:02:13.372294  1276 net.cpp:148] Top shape: 24 1024 (24576)
I0403 12:02:13.372308  1276 net.cpp:156] Memory required for data: 946090368
I0403 12:02:13.372320  1276 layer_factory.hpp:77] Creating layer loss1/drop_fc
I0403 12:02:13.372355  1276 net.cpp:91] Creating Layer loss1/drop_fc
I0403 12:02:13.372373  1276 net.cpp:425] loss1/drop_fc <- loss1/fc
I0403 12:02:13.372390  1276 net.cpp:386] loss1/drop_fc -> loss1/fc (in-place)
I0403 12:02:13.372433  1276 net.cpp:141] Setting up loss1/drop_fc
I0403 12:02:13.372455  1276 net.cpp:148] Top shape: 24 1024 (24576)
I0403 12:02:13.372469  1276 net.cpp:156] Memory required for data: 946188672
I0403 12:02:13.372483  1276 layer_factory.hpp:77] Creating layer loss1/classifier_plantvillage
I0403 12:02:13.372504  1276 net.cpp:91] Creating Layer loss1/classifier_plantvillage
I0403 12:02:13.372520  1276 net.cpp:425] loss1/classifier_plantvillage <- loss1/fc
I0403 12:02:13.372539  1276 net.cpp:399] loss1/classifier_plantvillage -> loss1/classifier_plantvillage
I0403 12:02:13.373333  1276 net.cpp:141] Setting up loss1/classifier_plantvillage
I0403 12:02:13.373360  1276 net.cpp:148] Top shape: 24 38 (912)
I0403 12:02:13.373375  1276 net.cpp:156] Memory required for data: 946192320
I0403 12:02:13.373392  1276 layer_factory.hpp:77] Creating layer inception_4b/1x1
I0403 12:02:13.373416  1276 net.cpp:91] Creating Layer inception_4b/1x1
I0403 12:02:13.373433  1276 net.cpp:425] inception_4b/1x1 <- inception_4a/output_inception_4a/output_0_split_1
I0403 12:02:13.373452  1276 net.cpp:399] inception_4b/1x1 -> inception_4b/1x1
I0403 12:02:13.374066  1276 net.cpp:141] Setting up inception_4b/1x1
I0403 12:02:13.374092  1276 net.cpp:148] Top shape: 24 160 14 14 (752640)
I0403 12:02:13.374106  1276 net.cpp:156] Memory required for data: 949202880
I0403 12:02:13.374122  1276 layer_factory.hpp:77] Creating layer inception_4b/relu_1x1
I0403 12:02:13.374156  1276 net.cpp:91] Creating Layer inception_4b/relu_1x1
I0403 12:02:13.374173  1276 net.cpp:425] inception_4b/relu_1x1 <- inception_4b/1x1
I0403 12:02:13.374192  1276 net.cpp:386] inception_4b/relu_1x1 -> inception_4b/1x1 (in-place)
I0403 12:02:13.374212  1276 net.cpp:141] Setting up inception_4b/relu_1x1
I0403 12:02:13.374228  1276 net.cpp:148] Top shape: 24 160 14 14 (752640)
I0403 12:02:13.374241  1276 net.cpp:156] Memory required for data: 952213440
I0403 12:02:13.374254  1276 layer_factory.hpp:77] Creating layer inception_4b/3x3_reduce
I0403 12:02:13.374276  1276 net.cpp:91] Creating Layer inception_4b/3x3_reduce
I0403 12:02:13.374294  1276 net.cpp:425] inception_4b/3x3_reduce <- inception_4a/output_inception_4a/output_0_split_2
I0403 12:02:13.374312  1276 net.cpp:399] inception_4b/3x3_reduce -> inception_4b/3x3_reduce
I0403 12:02:13.374835  1276 net.cpp:141] Setting up inception_4b/3x3_reduce
I0403 12:02:13.374860  1276 net.cpp:148] Top shape: 24 112 14 14 (526848)
I0403 12:02:13.374872  1276 net.cpp:156] Memory required for data: 954320832
I0403 12:02:13.374889  1276 layer_factory.hpp:77] Creating layer inception_4b/relu_3x3_reduce
I0403 12:02:13.374905  1276 net.cpp:91] Creating Layer inception_4b/relu_3x3_reduce
I0403 12:02:13.374920  1276 net.cpp:425] inception_4b/relu_3x3_reduce <- inception_4b/3x3_reduce
I0403 12:02:13.374939  1276 net.cpp:386] inception_4b/relu_3x3_reduce -> inception_4b/3x3_reduce (in-place)
I0403 12:02:13.374958  1276 net.cpp:141] Setting up inception_4b/relu_3x3_reduce
I0403 12:02:13.374974  1276 net.cpp:148] Top shape: 24 112 14 14 (526848)
I0403 12:02:13.374987  1276 net.cpp:156] Memory required for data: 956428224
I0403 12:02:13.375000  1276 layer_factory.hpp:77] Creating layer inception_4b/3x3
I0403 12:02:13.375021  1276 net.cpp:91] Creating Layer inception_4b/3x3
I0403 12:02:13.375038  1276 net.cpp:425] inception_4b/3x3 <- inception_4b/3x3_reduce
I0403 12:02:13.375056  1276 net.cpp:399] inception_4b/3x3 -> inception_4b/3x3
I0403 12:02:13.376978  1276 net.cpp:141] Setting up inception_4b/3x3
I0403 12:02:13.377005  1276 net.cpp:148] Top shape: 24 224 14 14 (1053696)
I0403 12:02:13.377020  1276 net.cpp:156] Memory required for data: 960643008
I0403 12:02:13.377038  1276 layer_factory.hpp:77] Creating layer inception_4b/relu_3x3
I0403 12:02:13.377055  1276 net.cpp:91] Creating Layer inception_4b/relu_3x3
I0403 12:02:13.377071  1276 net.cpp:425] inception_4b/relu_3x3 <- inception_4b/3x3
I0403 12:02:13.377091  1276 net.cpp:386] inception_4b/relu_3x3 -> inception_4b/3x3 (in-place)
I0403 12:02:13.377112  1276 net.cpp:141] Setting up inception_4b/relu_3x3
I0403 12:02:13.377130  1276 net.cpp:148] Top shape: 24 224 14 14 (1053696)
I0403 12:02:13.377143  1276 net.cpp:156] Memory required for data: 964857792
I0403 12:02:13.377156  1276 layer_factory.hpp:77] Creating layer inception_4b/5x5_reduce
I0403 12:02:13.377179  1276 net.cpp:91] Creating Layer inception_4b/5x5_reduce
I0403 12:02:13.377197  1276 net.cpp:425] inception_4b/5x5_reduce <- inception_4a/output_inception_4a/output_0_split_3
I0403 12:02:13.377215  1276 net.cpp:399] inception_4b/5x5_reduce -> inception_4b/5x5_reduce
I0403 12:02:13.377496  1276 net.cpp:141] Setting up inception_4b/5x5_reduce
I0403 12:02:13.377521  1276 net.cpp:148] Top shape: 24 24 14 14 (112896)
I0403 12:02:13.377535  1276 net.cpp:156] Memory required for data: 965309376
I0403 12:02:13.377552  1276 layer_factory.hpp:77] Creating layer inception_4b/relu_5x5_reduce
I0403 12:02:13.377570  1276 net.cpp:91] Creating Layer inception_4b/relu_5x5_reduce
I0403 12:02:13.377586  1276 net.cpp:425] inception_4b/relu_5x5_reduce <- inception_4b/5x5_reduce
I0403 12:02:13.377605  1276 net.cpp:386] inception_4b/relu_5x5_reduce -> inception_4b/5x5_reduce (in-place)
I0403 12:02:13.377625  1276 net.cpp:141] Setting up inception_4b/relu_5x5_reduce
I0403 12:02:13.377642  1276 net.cpp:148] Top shape: 24 24 14 14 (112896)
I0403 12:02:13.377656  1276 net.cpp:156] Memory required for data: 965760960
I0403 12:02:13.377670  1276 layer_factory.hpp:77] Creating layer inception_4b/5x5
I0403 12:02:13.377707  1276 net.cpp:91] Creating Layer inception_4b/5x5
I0403 12:02:13.377725  1276 net.cpp:425] inception_4b/5x5 <- inception_4b/5x5_reduce
I0403 12:02:13.377744  1276 net.cpp:399] inception_4b/5x5 -> inception_4b/5x5
I0403 12:02:13.378149  1276 net.cpp:141] Setting up inception_4b/5x5
I0403 12:02:13.378173  1276 net.cpp:148] Top shape: 24 64 14 14 (301056)
I0403 12:02:13.378187  1276 net.cpp:156] Memory required for data: 966965184
I0403 12:02:13.378204  1276 layer_factory.hpp:77] Creating layer inception_4b/relu_5x5
I0403 12:02:13.378221  1276 net.cpp:91] Creating Layer inception_4b/relu_5x5
I0403 12:02:13.378237  1276 net.cpp:425] inception_4b/relu_5x5 <- inception_4b/5x5
I0403 12:02:13.378257  1276 net.cpp:386] inception_4b/relu_5x5 -> inception_4b/5x5 (in-place)
I0403 12:02:13.378278  1276 net.cpp:141] Setting up inception_4b/relu_5x5
I0403 12:02:13.378294  1276 net.cpp:148] Top shape: 24 64 14 14 (301056)
I0403 12:02:13.378309  1276 net.cpp:156] Memory required for data: 968169408
I0403 12:02:13.378321  1276 layer_factory.hpp:77] Creating layer inception_4b/pool
I0403 12:02:13.378356  1276 net.cpp:91] Creating Layer inception_4b/pool
I0403 12:02:13.378373  1276 net.cpp:425] inception_4b/pool <- inception_4a/output_inception_4a/output_0_split_4
I0403 12:02:13.378392  1276 net.cpp:399] inception_4b/pool -> inception_4b/pool
I0403 12:02:13.378444  1276 net.cpp:141] Setting up inception_4b/pool
I0403 12:02:13.378468  1276 net.cpp:148] Top shape: 24 512 14 14 (2408448)
I0403 12:02:13.378482  1276 net.cpp:156] Memory required for data: 977803200
I0403 12:02:13.378496  1276 layer_factory.hpp:77] Creating layer inception_4b/pool_proj
I0403 12:02:13.378518  1276 net.cpp:91] Creating Layer inception_4b/pool_proj
I0403 12:02:13.378536  1276 net.cpp:425] inception_4b/pool_proj <- inception_4b/pool
I0403 12:02:13.378558  1276 net.cpp:399] inception_4b/pool_proj -> inception_4b/pool_proj
I0403 12:02:13.378952  1276 net.cpp:141] Setting up inception_4b/pool_proj
I0403 12:02:13.378980  1276 net.cpp:148] Top shape: 24 64 14 14 (301056)
I0403 12:02:13.378995  1276 net.cpp:156] Memory required for data: 979007424
I0403 12:02:13.379012  1276 layer_factory.hpp:77] Creating layer inception_4b/relu_pool_proj
I0403 12:02:13.379030  1276 net.cpp:91] Creating Layer inception_4b/relu_pool_proj
I0403 12:02:13.379046  1276 net.cpp:425] inception_4b/relu_pool_proj <- inception_4b/pool_proj
I0403 12:02:13.379065  1276 net.cpp:386] inception_4b/relu_pool_proj -> inception_4b/pool_proj (in-place)
I0403 12:02:13.379083  1276 net.cpp:141] Setting up inception_4b/relu_pool_proj
I0403 12:02:13.379099  1276 net.cpp:148] Top shape: 24 64 14 14 (301056)
I0403 12:02:13.379113  1276 net.cpp:156] Memory required for data: 980211648
I0403 12:02:13.379127  1276 layer_factory.hpp:77] Creating layer inception_4b/output
I0403 12:02:13.379143  1276 net.cpp:91] Creating Layer inception_4b/output
I0403 12:02:13.379158  1276 net.cpp:425] inception_4b/output <- inception_4b/1x1
I0403 12:02:13.379174  1276 net.cpp:425] inception_4b/output <- inception_4b/3x3
I0403 12:02:13.379189  1276 net.cpp:425] inception_4b/output <- inception_4b/5x5
I0403 12:02:13.379204  1276 net.cpp:425] inception_4b/output <- inception_4b/pool_proj
I0403 12:02:13.379223  1276 net.cpp:399] inception_4b/output -> inception_4b/output
I0403 12:02:13.379262  1276 net.cpp:141] Setting up inception_4b/output
I0403 12:02:13.379284  1276 net.cpp:148] Top shape: 24 512 14 14 (2408448)
I0403 12:02:13.379298  1276 net.cpp:156] Memory required for data: 989845440
I0403 12:02:13.379312  1276 layer_factory.hpp:77] Creating layer inception_4b/output_inception_4b/output_0_split
I0403 12:02:13.379333  1276 net.cpp:91] Creating Layer inception_4b/output_inception_4b/output_0_split
I0403 12:02:13.379350  1276 net.cpp:425] inception_4b/output_inception_4b/output_0_split <- inception_4b/output
I0403 12:02:13.379367  1276 net.cpp:399] inception_4b/output_inception_4b/output_0_split -> inception_4b/output_inception_4b/output_0_split_0
I0403 12:02:13.379390  1276 net.cpp:399] inception_4b/output_inception_4b/output_0_split -> inception_4b/output_inception_4b/output_0_split_1
I0403 12:02:13.379423  1276 net.cpp:399] inception_4b/output_inception_4b/output_0_split -> inception_4b/output_inception_4b/output_0_split_2
I0403 12:02:13.379446  1276 net.cpp:399] inception_4b/output_inception_4b/output_0_split -> inception_4b/output_inception_4b/output_0_split_3
I0403 12:02:13.379511  1276 net.cpp:141] Setting up inception_4b/output_inception_4b/output_0_split
I0403 12:02:13.379533  1276 net.cpp:148] Top shape: 24 512 14 14 (2408448)
I0403 12:02:13.379549  1276 net.cpp:148] Top shape: 24 512 14 14 (2408448)
I0403 12:02:13.379562  1276 net.cpp:148] Top shape: 24 512 14 14 (2408448)
I0403 12:02:13.379577  1276 net.cpp:148] Top shape: 24 512 14 14 (2408448)
I0403 12:02:13.379590  1276 net.cpp:156] Memory required for data: 1028380608
I0403 12:02:13.379603  1276 layer_factory.hpp:77] Creating layer inception_4c/1x1
I0403 12:02:13.379626  1276 net.cpp:91] Creating Layer inception_4c/1x1
I0403 12:02:13.379645  1276 net.cpp:425] inception_4c/1x1 <- inception_4b/output_inception_4b/output_0_split_0
I0403 12:02:13.379667  1276 net.cpp:399] inception_4c/1x1 -> inception_4c/1x1
I0403 12:02:13.380204  1276 net.cpp:141] Setting up inception_4c/1x1
I0403 12:02:13.380228  1276 net.cpp:148] Top shape: 24 128 14 14 (602112)
I0403 12:02:13.380242  1276 net.cpp:156] Memory required for data: 1030789056
I0403 12:02:13.380259  1276 layer_factory.hpp:77] Creating layer inception_4c/relu_1x1
I0403 12:02:13.380280  1276 net.cpp:91] Creating Layer inception_4c/relu_1x1
I0403 12:02:13.380297  1276 net.cpp:425] inception_4c/relu_1x1 <- inception_4c/1x1
I0403 12:02:13.380314  1276 net.cpp:386] inception_4c/relu_1x1 -> inception_4c/1x1 (in-place)
I0403 12:02:13.380336  1276 net.cpp:141] Setting up inception_4c/relu_1x1
I0403 12:02:13.380354  1276 net.cpp:148] Top shape: 24 128 14 14 (602112)
I0403 12:02:13.380368  1276 net.cpp:156] Memory required for data: 1033197504
I0403 12:02:13.380383  1276 layer_factory.hpp:77] Creating layer inception_4c/3x3_reduce
I0403 12:02:13.380405  1276 net.cpp:91] Creating Layer inception_4c/3x3_reduce
I0403 12:02:13.380422  1276 net.cpp:425] inception_4c/3x3_reduce <- inception_4b/output_inception_4b/output_0_split_1
I0403 12:02:13.380444  1276 net.cpp:399] inception_4c/3x3_reduce -> inception_4c/3x3_reduce
I0403 12:02:13.381496  1276 net.cpp:141] Setting up inception_4c/3x3_reduce
I0403 12:02:13.381522  1276 net.cpp:148] Top shape: 24 128 14 14 (602112)
I0403 12:02:13.381537  1276 net.cpp:156] Memory required for data: 1035605952
I0403 12:02:13.381556  1276 layer_factory.hpp:77] Creating layer inception_4c/relu_3x3_reduce
I0403 12:02:13.381573  1276 net.cpp:91] Creating Layer inception_4c/relu_3x3_reduce
I0403 12:02:13.381588  1276 net.cpp:425] inception_4c/relu_3x3_reduce <- inception_4c/3x3_reduce
I0403 12:02:13.381608  1276 net.cpp:386] inception_4c/relu_3x3_reduce -> inception_4c/3x3_reduce (in-place)
I0403 12:02:13.381628  1276 net.cpp:141] Setting up inception_4c/relu_3x3_reduce
I0403 12:02:13.381645  1276 net.cpp:148] Top shape: 24 128 14 14 (602112)
I0403 12:02:13.381659  1276 net.cpp:156] Memory required for data: 1038014400
I0403 12:02:13.381674  1276 layer_factory.hpp:77] Creating layer inception_4c/3x3
I0403 12:02:13.381698  1276 net.cpp:91] Creating Layer inception_4c/3x3
I0403 12:02:13.381716  1276 net.cpp:425] inception_4c/3x3 <- inception_4c/3x3_reduce
I0403 12:02:13.381736  1276 net.cpp:399] inception_4c/3x3 -> inception_4c/3x3
I0403 12:02:13.384083  1276 net.cpp:141] Setting up inception_4c/3x3
I0403 12:02:13.384110  1276 net.cpp:148] Top shape: 24 256 14 14 (1204224)
I0403 12:02:13.384125  1276 net.cpp:156] Memory required for data: 1042831296
I0403 12:02:13.384155  1276 layer_factory.hpp:77] Creating layer inception_4c/relu_3x3
I0403 12:02:13.384177  1276 net.cpp:91] Creating Layer inception_4c/relu_3x3
I0403 12:02:13.384194  1276 net.cpp:425] inception_4c/relu_3x3 <- inception_4c/3x3
I0403 12:02:13.384214  1276 net.cpp:386] inception_4c/relu_3x3 -> inception_4c/3x3 (in-place)
I0403 12:02:13.384248  1276 net.cpp:141] Setting up inception_4c/relu_3x3
I0403 12:02:13.384268  1276 net.cpp:148] Top shape: 24 256 14 14 (1204224)
I0403 12:02:13.384281  1276 net.cpp:156] Memory required for data: 1047648192
I0403 12:02:13.384294  1276 layer_factory.hpp:77] Creating layer inception_4c/5x5_reduce
I0403 12:02:13.384315  1276 net.cpp:91] Creating Layer inception_4c/5x5_reduce
I0403 12:02:13.384336  1276 net.cpp:425] inception_4c/5x5_reduce <- inception_4b/output_inception_4b/output_0_split_2
I0403 12:02:13.384361  1276 net.cpp:399] inception_4c/5x5_reduce -> inception_4c/5x5_reduce
I0403 12:02:13.384645  1276 net.cpp:141] Setting up inception_4c/5x5_reduce
I0403 12:02:13.384670  1276 net.cpp:148] Top shape: 24 24 14 14 (112896)
I0403 12:02:13.384685  1276 net.cpp:156] Memory required for data: 1048099776
I0403 12:02:13.384701  1276 layer_factory.hpp:77] Creating layer inception_4c/relu_5x5_reduce
I0403 12:02:13.384721  1276 net.cpp:91] Creating Layer inception_4c/relu_5x5_reduce
I0403 12:02:13.384737  1276 net.cpp:425] inception_4c/relu_5x5_reduce <- inception_4c/5x5_reduce
I0403 12:02:13.384754  1276 net.cpp:386] inception_4c/relu_5x5_reduce -> inception_4c/5x5_reduce (in-place)
I0403 12:02:13.384773  1276 net.cpp:141] Setting up inception_4c/relu_5x5_reduce
I0403 12:02:13.384789  1276 net.cpp:148] Top shape: 24 24 14 14 (112896)
I0403 12:02:13.384804  1276 net.cpp:156] Memory required for data: 1048551360
I0403 12:02:13.384817  1276 layer_factory.hpp:77] Creating layer inception_4c/5x5
I0403 12:02:13.384840  1276 net.cpp:91] Creating Layer inception_4c/5x5
I0403 12:02:13.384858  1276 net.cpp:425] inception_4c/5x5 <- inception_4c/5x5_reduce
I0403 12:02:13.384878  1276 net.cpp:399] inception_4c/5x5 -> inception_4c/5x5
I0403 12:02:13.385288  1276 net.cpp:141] Setting up inception_4c/5x5
I0403 12:02:13.385313  1276 net.cpp:148] Top shape: 24 64 14 14 (301056)
I0403 12:02:13.385326  1276 net.cpp:156] Memory required for data: 1049755584
I0403 12:02:13.385349  1276 layer_factory.hpp:77] Creating layer inception_4c/relu_5x5
I0403 12:02:13.385366  1276 net.cpp:91] Creating Layer inception_4c/relu_5x5
I0403 12:02:13.385381  1276 net.cpp:425] inception_4c/relu_5x5 <- inception_4c/5x5
I0403 12:02:13.385398  1276 net.cpp:386] inception_4c/relu_5x5 -> inception_4c/5x5 (in-place)
I0403 12:02:13.385416  1276 net.cpp:141] Setting up inception_4c/relu_5x5
I0403 12:02:13.385432  1276 net.cpp:148] Top shape: 24 64 14 14 (301056)
I0403 12:02:13.385447  1276 net.cpp:156] Memory required for data: 1050959808
I0403 12:02:13.385460  1276 layer_factory.hpp:77] Creating layer inception_4c/pool
I0403 12:02:13.385479  1276 net.cpp:91] Creating Layer inception_4c/pool
I0403 12:02:13.385495  1276 net.cpp:425] inception_4c/pool <- inception_4b/output_inception_4b/output_0_split_3
I0403 12:02:13.385514  1276 net.cpp:399] inception_4c/pool -> inception_4c/pool
I0403 12:02:13.385562  1276 net.cpp:141] Setting up inception_4c/pool
I0403 12:02:13.385584  1276 net.cpp:148] Top shape: 24 512 14 14 (2408448)
I0403 12:02:13.385598  1276 net.cpp:156] Memory required for data: 1060593600
I0403 12:02:13.385612  1276 layer_factory.hpp:77] Creating layer inception_4c/pool_proj
I0403 12:02:13.385637  1276 net.cpp:91] Creating Layer inception_4c/pool_proj
I0403 12:02:13.385653  1276 net.cpp:425] inception_4c/pool_proj <- inception_4c/pool
I0403 12:02:13.385671  1276 net.cpp:399] inception_4c/pool_proj -> inception_4c/pool_proj
I0403 12:02:13.386046  1276 net.cpp:141] Setting up inception_4c/pool_proj
I0403 12:02:13.386070  1276 net.cpp:148] Top shape: 24 64 14 14 (301056)
I0403 12:02:13.386086  1276 net.cpp:156] Memory required for data: 1061797824
I0403 12:02:13.386103  1276 layer_factory.hpp:77] Creating layer inception_4c/relu_pool_proj
I0403 12:02:13.386122  1276 net.cpp:91] Creating Layer inception_4c/relu_pool_proj
I0403 12:02:13.386139  1276 net.cpp:425] inception_4c/relu_pool_proj <- inception_4c/pool_proj
I0403 12:02:13.386157  1276 net.cpp:386] inception_4c/relu_pool_proj -> inception_4c/pool_proj (in-place)
I0403 12:02:13.386176  1276 net.cpp:141] Setting up inception_4c/relu_pool_proj
I0403 12:02:13.386205  1276 net.cpp:148] Top shape: 24 64 14 14 (301056)
I0403 12:02:13.386220  1276 net.cpp:156] Memory required for data: 1063002048
I0403 12:02:13.386234  1276 layer_factory.hpp:77] Creating layer inception_4c/output
I0403 12:02:13.386251  1276 net.cpp:91] Creating Layer inception_4c/output
I0403 12:02:13.386266  1276 net.cpp:425] inception_4c/output <- inception_4c/1x1
I0403 12:02:13.386282  1276 net.cpp:425] inception_4c/output <- inception_4c/3x3
I0403 12:02:13.386298  1276 net.cpp:425] inception_4c/output <- inception_4c/5x5
I0403 12:02:13.386313  1276 net.cpp:425] inception_4c/output <- inception_4c/pool_proj
I0403 12:02:13.386353  1276 net.cpp:399] inception_4c/output -> inception_4c/output
I0403 12:02:13.386396  1276 net.cpp:141] Setting up inception_4c/output
I0403 12:02:13.386420  1276 net.cpp:148] Top shape: 24 512 14 14 (2408448)
I0403 12:02:13.386435  1276 net.cpp:156] Memory required for data: 1072635840
I0403 12:02:13.386448  1276 layer_factory.hpp:77] Creating layer inception_4c/output_inception_4c/output_0_split
I0403 12:02:13.386469  1276 net.cpp:91] Creating Layer inception_4c/output_inception_4c/output_0_split
I0403 12:02:13.386487  1276 net.cpp:425] inception_4c/output_inception_4c/output_0_split <- inception_4c/output
I0403 12:02:13.386503  1276 net.cpp:399] inception_4c/output_inception_4c/output_0_split -> inception_4c/output_inception_4c/output_0_split_0
I0403 12:02:13.386524  1276 net.cpp:399] inception_4c/output_inception_4c/output_0_split -> inception_4c/output_inception_4c/output_0_split_1
I0403 12:02:13.386544  1276 net.cpp:399] inception_4c/output_inception_4c/output_0_split -> inception_4c/output_inception_4c/output_0_split_2
I0403 12:02:13.386565  1276 net.cpp:399] inception_4c/output_inception_4c/output_0_split -> inception_4c/output_inception_4c/output_0_split_3
I0403 12:02:13.386643  1276 net.cpp:141] Setting up inception_4c/output_inception_4c/output_0_split
I0403 12:02:13.386667  1276 net.cpp:148] Top shape: 24 512 14 14 (2408448)
I0403 12:02:13.386682  1276 net.cpp:148] Top shape: 24 512 14 14 (2408448)
I0403 12:02:13.386696  1276 net.cpp:148] Top shape: 24 512 14 14 (2408448)
I0403 12:02:13.386711  1276 net.cpp:148] Top shape: 24 512 14 14 (2408448)
I0403 12:02:13.386724  1276 net.cpp:156] Memory required for data: 1111171008
I0403 12:02:13.386739  1276 layer_factory.hpp:77] Creating layer inception_4d/1x1
I0403 12:02:13.386761  1276 net.cpp:91] Creating Layer inception_4d/1x1
I0403 12:02:13.386778  1276 net.cpp:425] inception_4d/1x1 <- inception_4c/output_inception_4c/output_0_split_0
I0403 12:02:13.386800  1276 net.cpp:399] inception_4d/1x1 -> inception_4d/1x1
I0403 12:02:13.387302  1276 net.cpp:141] Setting up inception_4d/1x1
I0403 12:02:13.387331  1276 net.cpp:148] Top shape: 24 112 14 14 (526848)
I0403 12:02:13.387346  1276 net.cpp:156] Memory required for data: 1113278400
I0403 12:02:13.387363  1276 layer_factory.hpp:77] Creating layer inception_4d/relu_1x1
I0403 12:02:13.387383  1276 net.cpp:91] Creating Layer inception_4d/relu_1x1
I0403 12:02:13.387401  1276 net.cpp:425] inception_4d/relu_1x1 <- inception_4d/1x1
I0403 12:02:13.387418  1276 net.cpp:386] inception_4d/relu_1x1 -> inception_4d/1x1 (in-place)
I0403 12:02:13.387436  1276 net.cpp:141] Setting up inception_4d/relu_1x1
I0403 12:02:13.387454  1276 net.cpp:148] Top shape: 24 112 14 14 (526848)
I0403 12:02:13.387466  1276 net.cpp:156] Memory required for data: 1115385792
I0403 12:02:13.387480  1276 layer_factory.hpp:77] Creating layer inception_4d/3x3_reduce
I0403 12:02:13.387503  1276 net.cpp:91] Creating Layer inception_4d/3x3_reduce
I0403 12:02:13.387521  1276 net.cpp:425] inception_4d/3x3_reduce <- inception_4c/output_inception_4c/output_0_split_1
I0403 12:02:13.387542  1276 net.cpp:399] inception_4d/3x3_reduce -> inception_4d/3x3_reduce
I0403 12:02:13.388154  1276 net.cpp:141] Setting up inception_4d/3x3_reduce
I0403 12:02:13.388177  1276 net.cpp:148] Top shape: 24 144 14 14 (677376)
I0403 12:02:13.388191  1276 net.cpp:156] Memory required for data: 1118095296
I0403 12:02:13.388221  1276 layer_factory.hpp:77] Creating layer inception_4d/relu_3x3_reduce
I0403 12:02:13.388241  1276 net.cpp:91] Creating Layer inception_4d/relu_3x3_reduce
I0403 12:02:13.388257  1276 net.cpp:425] inception_4d/relu_3x3_reduce <- inception_4d/3x3_reduce
I0403 12:02:13.388273  1276 net.cpp:386] inception_4d/relu_3x3_reduce -> inception_4d/3x3_reduce (in-place)
I0403 12:02:13.388291  1276 net.cpp:141] Setting up inception_4d/relu_3x3_reduce
I0403 12:02:13.388308  1276 net.cpp:148] Top shape: 24 144 14 14 (677376)
I0403 12:02:13.388320  1276 net.cpp:156] Memory required for data: 1120804800
I0403 12:02:13.388339  1276 layer_factory.hpp:77] Creating layer inception_4d/3x3
I0403 12:02:13.388362  1276 net.cpp:91] Creating Layer inception_4d/3x3
I0403 12:02:13.388380  1276 net.cpp:425] inception_4d/3x3 <- inception_4d/3x3_reduce
I0403 12:02:13.388401  1276 net.cpp:399] inception_4d/3x3 -> inception_4d/3x3
I0403 12:02:13.391413  1276 net.cpp:141] Setting up inception_4d/3x3
I0403 12:02:13.391440  1276 net.cpp:148] Top shape: 24 288 14 14 (1354752)
I0403 12:02:13.391455  1276 net.cpp:156] Memory required for data: 1126223808
I0403 12:02:13.391472  1276 layer_factory.hpp:77] Creating layer inception_4d/relu_3x3
I0403 12:02:13.391490  1276 net.cpp:91] Creating Layer inception_4d/relu_3x3
I0403 12:02:13.391506  1276 net.cpp:425] inception_4d/relu_3x3 <- inception_4d/3x3
I0403 12:02:13.391523  1276 net.cpp:386] inception_4d/relu_3x3 -> inception_4d/3x3 (in-place)
I0403 12:02:13.391546  1276 net.cpp:141] Setting up inception_4d/relu_3x3
I0403 12:02:13.391562  1276 net.cpp:148] Top shape: 24 288 14 14 (1354752)
I0403 12:02:13.391577  1276 net.cpp:156] Memory required for data: 1131642816
I0403 12:02:13.391589  1276 layer_factory.hpp:77] Creating layer inception_4d/5x5_reduce
I0403 12:02:13.391610  1276 net.cpp:91] Creating Layer inception_4d/5x5_reduce
I0403 12:02:13.391626  1276 net.cpp:425] inception_4d/5x5_reduce <- inception_4c/output_inception_4c/output_0_split_2
I0403 12:02:13.391647  1276 net.cpp:399] inception_4d/5x5_reduce -> inception_4d/5x5_reduce
I0403 12:02:13.391945  1276 net.cpp:141] Setting up inception_4d/5x5_reduce
I0403 12:02:13.391968  1276 net.cpp:148] Top shape: 24 32 14 14 (150528)
I0403 12:02:13.391983  1276 net.cpp:156] Memory required for data: 1132244928
I0403 12:02:13.391999  1276 layer_factory.hpp:77] Creating layer inception_4d/relu_5x5_reduce
I0403 12:02:13.392017  1276 net.cpp:91] Creating Layer inception_4d/relu_5x5_reduce
I0403 12:02:13.392033  1276 net.cpp:425] inception_4d/relu_5x5_reduce <- inception_4d/5x5_reduce
I0403 12:02:13.392050  1276 net.cpp:386] inception_4d/relu_5x5_reduce -> inception_4d/5x5_reduce (in-place)
I0403 12:02:13.392068  1276 net.cpp:141] Setting up inception_4d/relu_5x5_reduce
I0403 12:02:13.392086  1276 net.cpp:148] Top shape: 24 32 14 14 (150528)
I0403 12:02:13.392099  1276 net.cpp:156] Memory required for data: 1132847040
I0403 12:02:13.392113  1276 layer_factory.hpp:77] Creating layer inception_4d/5x5
I0403 12:02:13.392137  1276 net.cpp:91] Creating Layer inception_4d/5x5
I0403 12:02:13.392153  1276 net.cpp:425] inception_4d/5x5 <- inception_4d/5x5_reduce
I0403 12:02:13.392174  1276 net.cpp:399] inception_4d/5x5 -> inception_4d/5x5
I0403 12:02:13.392655  1276 net.cpp:141] Setting up inception_4d/5x5
I0403 12:02:13.392680  1276 net.cpp:148] Top shape: 24 64 14 14 (301056)
I0403 12:02:13.392698  1276 net.cpp:156] Memory required for data: 1134051264
I0403 12:02:13.392715  1276 layer_factory.hpp:77] Creating layer inception_4d/relu_5x5
I0403 12:02:13.392732  1276 net.cpp:91] Creating Layer inception_4d/relu_5x5
I0403 12:02:13.392747  1276 net.cpp:425] inception_4d/relu_5x5 <- inception_4d/5x5
I0403 12:02:13.392765  1276 net.cpp:386] inception_4d/relu_5x5 -> inception_4d/5x5 (in-place)
I0403 12:02:13.392786  1276 net.cpp:141] Setting up inception_4d/relu_5x5
I0403 12:02:13.392803  1276 net.cpp:148] Top shape: 24 64 14 14 (301056)
I0403 12:02:13.392818  1276 net.cpp:156] Memory required for data: 1135255488
I0403 12:02:13.392832  1276 layer_factory.hpp:77] Creating layer inception_4d/pool
I0403 12:02:13.392864  1276 net.cpp:91] Creating Layer inception_4d/pool
I0403 12:02:13.392881  1276 net.cpp:425] inception_4d/pool <- inception_4c/output_inception_4c/output_0_split_3
I0403 12:02:13.392899  1276 net.cpp:399] inception_4d/pool -> inception_4d/pool
I0403 12:02:13.392951  1276 net.cpp:141] Setting up inception_4d/pool
I0403 12:02:13.392984  1276 net.cpp:148] Top shape: 24 512 14 14 (2408448)
I0403 12:02:13.392998  1276 net.cpp:156] Memory required for data: 1144889280
I0403 12:02:13.393012  1276 layer_factory.hpp:77] Creating layer inception_4d/pool_proj
I0403 12:02:13.393033  1276 net.cpp:91] Creating Layer inception_4d/pool_proj
I0403 12:02:13.393051  1276 net.cpp:425] inception_4d/pool_proj <- inception_4d/pool
I0403 12:02:13.393071  1276 net.cpp:399] inception_4d/pool_proj -> inception_4d/pool_proj
I0403 12:02:13.393947  1276 net.cpp:141] Setting up inception_4d/pool_proj
I0403 12:02:13.393975  1276 net.cpp:148] Top shape: 24 64 14 14 (301056)
I0403 12:02:13.393991  1276 net.cpp:156] Memory required for data: 1146093504
I0403 12:02:13.394008  1276 layer_factory.hpp:77] Creating layer inception_4d/relu_pool_proj
I0403 12:02:13.394026  1276 net.cpp:91] Creating Layer inception_4d/relu_pool_proj
I0403 12:02:13.394042  1276 net.cpp:425] inception_4d/relu_pool_proj <- inception_4d/pool_proj
I0403 12:02:13.394058  1276 net.cpp:386] inception_4d/relu_pool_proj -> inception_4d/pool_proj (in-place)
I0403 12:02:13.394076  1276 net.cpp:141] Setting up inception_4d/relu_pool_proj
I0403 12:02:13.394093  1276 net.cpp:148] Top shape: 24 64 14 14 (301056)
I0403 12:02:13.394107  1276 net.cpp:156] Memory required for data: 1147297728
I0403 12:02:13.394120  1276 layer_factory.hpp:77] Creating layer inception_4d/output
I0403 12:02:13.394137  1276 net.cpp:91] Creating Layer inception_4d/output
I0403 12:02:13.394151  1276 net.cpp:425] inception_4d/output <- inception_4d/1x1
I0403 12:02:13.394167  1276 net.cpp:425] inception_4d/output <- inception_4d/3x3
I0403 12:02:13.394183  1276 net.cpp:425] inception_4d/output <- inception_4d/5x5
I0403 12:02:13.394197  1276 net.cpp:425] inception_4d/output <- inception_4d/pool_proj
I0403 12:02:13.394217  1276 net.cpp:399] inception_4d/output -> inception_4d/output
I0403 12:02:13.394253  1276 net.cpp:141] Setting up inception_4d/output
I0403 12:02:13.394276  1276 net.cpp:148] Top shape: 24 528 14 14 (2483712)
I0403 12:02:13.394291  1276 net.cpp:156] Memory required for data: 1157232576
I0403 12:02:13.394305  1276 layer_factory.hpp:77] Creating layer inception_4d/output_inception_4d/output_0_split
I0403 12:02:13.394322  1276 net.cpp:91] Creating Layer inception_4d/output_inception_4d/output_0_split
I0403 12:02:13.394356  1276 net.cpp:425] inception_4d/output_inception_4d/output_0_split <- inception_4d/output
I0403 12:02:13.394373  1276 net.cpp:399] inception_4d/output_inception_4d/output_0_split -> inception_4d/output_inception_4d/output_0_split_0
I0403 12:02:13.394393  1276 net.cpp:399] inception_4d/output_inception_4d/output_0_split -> inception_4d/output_inception_4d/output_0_split_1
I0403 12:02:13.394417  1276 net.cpp:399] inception_4d/output_inception_4d/output_0_split -> inception_4d/output_inception_4d/output_0_split_2
I0403 12:02:13.394438  1276 net.cpp:399] inception_4d/output_inception_4d/output_0_split -> inception_4d/output_inception_4d/output_0_split_3
I0403 12:02:13.394457  1276 net.cpp:399] inception_4d/output_inception_4d/output_0_split -> inception_4d/output_inception_4d/output_0_split_4
I0403 12:02:13.394533  1276 net.cpp:141] Setting up inception_4d/output_inception_4d/output_0_split
I0403 12:02:13.394556  1276 net.cpp:148] Top shape: 24 528 14 14 (2483712)
I0403 12:02:13.394572  1276 net.cpp:148] Top shape: 24 528 14 14 (2483712)
I0403 12:02:13.394585  1276 net.cpp:148] Top shape: 24 528 14 14 (2483712)
I0403 12:02:13.394600  1276 net.cpp:148] Top shape: 24 528 14 14 (2483712)
I0403 12:02:13.394615  1276 net.cpp:148] Top shape: 24 528 14 14 (2483712)
I0403 12:02:13.394641  1276 net.cpp:156] Memory required for data: 1206906816
I0403 12:02:13.394667  1276 layer_factory.hpp:77] Creating layer loss2/ave_pool
I0403 12:02:13.394688  1276 net.cpp:91] Creating Layer loss2/ave_pool
I0403 12:02:13.394704  1276 net.cpp:425] loss2/ave_pool <- inception_4d/output_inception_4d/output_0_split_0
I0403 12:02:13.394721  1276 net.cpp:399] loss2/ave_pool -> loss2/ave_pool
I0403 12:02:13.394759  1276 net.cpp:141] Setting up loss2/ave_pool
I0403 12:02:13.394780  1276 net.cpp:148] Top shape: 24 528 4 4 (202752)
I0403 12:02:13.394794  1276 net.cpp:156] Memory required for data: 1207717824
I0403 12:02:13.394809  1276 layer_factory.hpp:77] Creating layer loss2/conv
I0403 12:02:13.394830  1276 net.cpp:91] Creating Layer loss2/conv
I0403 12:02:13.394847  1276 net.cpp:425] loss2/conv <- loss2/ave_pool
I0403 12:02:13.394867  1276 net.cpp:399] loss2/conv -> loss2/conv
I0403 12:02:13.395942  1276 net.cpp:141] Setting up loss2/conv
I0403 12:02:13.395970  1276 net.cpp:148] Top shape: 24 128 4 4 (49152)
I0403 12:02:13.395985  1276 net.cpp:156] Memory required for data: 1207914432
I0403 12:02:13.396003  1276 layer_factory.hpp:77] Creating layer loss2/relu_conv
I0403 12:02:13.396020  1276 net.cpp:91] Creating Layer loss2/relu_conv
I0403 12:02:13.396036  1276 net.cpp:425] loss2/relu_conv <- loss2/conv
I0403 12:02:13.396057  1276 net.cpp:386] loss2/relu_conv -> loss2/conv (in-place)
I0403 12:02:13.396078  1276 net.cpp:141] Setting up loss2/relu_conv
I0403 12:02:13.396095  1276 net.cpp:148] Top shape: 24 128 4 4 (49152)
I0403 12:02:13.396108  1276 net.cpp:156] Memory required for data: 1208111040
I0403 12:02:13.396122  1276 layer_factory.hpp:77] Creating layer loss2/fc
I0403 12:02:13.396142  1276 net.cpp:91] Creating Layer loss2/fc
I0403 12:02:13.396157  1276 net.cpp:425] loss2/fc <- loss2/conv
I0403 12:02:13.396178  1276 net.cpp:399] loss2/fc -> loss2/fc
I0403 12:02:13.411502  1276 net.cpp:141] Setting up loss2/fc
I0403 12:02:13.411542  1276 net.cpp:148] Top shape: 24 1024 (24576)
I0403 12:02:13.411558  1276 net.cpp:156] Memory required for data: 1208209344
I0403 12:02:13.411576  1276 layer_factory.hpp:77] Creating layer loss2/relu_fc
I0403 12:02:13.411607  1276 net.cpp:91] Creating Layer loss2/relu_fc
I0403 12:02:13.411623  1276 net.cpp:425] loss2/relu_fc <- loss2/fc
I0403 12:02:13.411643  1276 net.cpp:386] loss2/relu_fc -> loss2/fc (in-place)
I0403 12:02:13.411664  1276 net.cpp:141] Setting up loss2/relu_fc
I0403 12:02:13.411680  1276 net.cpp:148] Top shape: 24 1024 (24576)
I0403 12:02:13.411695  1276 net.cpp:156] Memory required for data: 1208307648
I0403 12:02:13.411707  1276 layer_factory.hpp:77] Creating layer loss2/drop_fc
I0403 12:02:13.411725  1276 net.cpp:91] Creating Layer loss2/drop_fc
I0403 12:02:13.411741  1276 net.cpp:425] loss2/drop_fc <- loss2/fc
I0403 12:02:13.411759  1276 net.cpp:386] loss2/drop_fc -> loss2/fc (in-place)
I0403 12:02:13.411798  1276 net.cpp:141] Setting up loss2/drop_fc
I0403 12:02:13.411820  1276 net.cpp:148] Top shape: 24 1024 (24576)
I0403 12:02:13.411834  1276 net.cpp:156] Memory required for data: 1208405952
I0403 12:02:13.411849  1276 layer_factory.hpp:77] Creating layer loss2/classifier_plantvillage
I0403 12:02:13.411870  1276 net.cpp:91] Creating Layer loss2/classifier_plantvillage
I0403 12:02:13.411887  1276 net.cpp:425] loss2/classifier_plantvillage <- loss2/fc
I0403 12:02:13.411907  1276 net.cpp:399] loss2/classifier_plantvillage -> loss2/classifier_plantvillage
I0403 12:02:13.412220  1276 net.cpp:141] Setting up loss2/classifier_plantvillage
I0403 12:02:13.412243  1276 net.cpp:148] Top shape: 24 38 (912)
I0403 12:02:13.412257  1276 net.cpp:156] Memory required for data: 1208409600
I0403 12:02:13.412276  1276 layer_factory.hpp:77] Creating layer inception_4e/1x1
I0403 12:02:13.412299  1276 net.cpp:91] Creating Layer inception_4e/1x1
I0403 12:02:13.412330  1276 net.cpp:425] inception_4e/1x1 <- inception_4d/output_inception_4d/output_0_split_1
I0403 12:02:13.412353  1276 net.cpp:399] inception_4e/1x1 -> inception_4e/1x1
I0403 12:02:13.413267  1276 net.cpp:141] Setting up inception_4e/1x1
I0403 12:02:13.413291  1276 net.cpp:148] Top shape: 24 256 14 14 (1204224)
I0403 12:02:13.413322  1276 net.cpp:156] Memory required for data: 1213226496
I0403 12:02:13.413346  1276 layer_factory.hpp:77] Creating layer inception_4e/relu_1x1
I0403 12:02:13.413363  1276 net.cpp:91] Creating Layer inception_4e/relu_1x1
I0403 12:02:13.413378  1276 net.cpp:425] inception_4e/relu_1x1 <- inception_4e/1x1
I0403 12:02:13.413395  1276 net.cpp:386] inception_4e/relu_1x1 -> inception_4e/1x1 (in-place)
I0403 12:02:13.413414  1276 net.cpp:141] Setting up inception_4e/relu_1x1
I0403 12:02:13.413429  1276 net.cpp:148] Top shape: 24 256 14 14 (1204224)
I0403 12:02:13.413442  1276 net.cpp:156] Memory required for data: 1218043392
I0403 12:02:13.413455  1276 layer_factory.hpp:77] Creating layer inception_4e/3x3_reduce
I0403 12:02:13.413477  1276 net.cpp:91] Creating Layer inception_4e/3x3_reduce
I0403 12:02:13.413494  1276 net.cpp:425] inception_4e/3x3_reduce <- inception_4d/output_inception_4d/output_0_split_2
I0403 12:02:13.413516  1276 net.cpp:399] inception_4e/3x3_reduce -> inception_4e/3x3_reduce
I0403 12:02:13.414676  1276 net.cpp:141] Setting up inception_4e/3x3_reduce
I0403 12:02:13.414702  1276 net.cpp:148] Top shape: 24 160 14 14 (752640)
I0403 12:02:13.414717  1276 net.cpp:156] Memory required for data: 1221053952
I0403 12:02:13.414733  1276 layer_factory.hpp:77] Creating layer inception_4e/relu_3x3_reduce
I0403 12:02:13.414752  1276 net.cpp:91] Creating Layer inception_4e/relu_3x3_reduce
I0403 12:02:13.414767  1276 net.cpp:425] inception_4e/relu_3x3_reduce <- inception_4e/3x3_reduce
I0403 12:02:13.414786  1276 net.cpp:386] inception_4e/relu_3x3_reduce -> inception_4e/3x3_reduce (in-place)
I0403 12:02:13.414806  1276 net.cpp:141] Setting up inception_4e/relu_3x3_reduce
I0403 12:02:13.414822  1276 net.cpp:148] Top shape: 24 160 14 14 (752640)
I0403 12:02:13.414836  1276 net.cpp:156] Memory required for data: 1224064512
I0403 12:02:13.414849  1276 layer_factory.hpp:77] Creating layer inception_4e/3x3
I0403 12:02:13.414872  1276 net.cpp:91] Creating Layer inception_4e/3x3
I0403 12:02:13.414890  1276 net.cpp:425] inception_4e/3x3 <- inception_4e/3x3_reduce
I0403 12:02:13.414907  1276 net.cpp:399] inception_4e/3x3 -> inception_4e/3x3
I0403 12:02:13.418458  1276 net.cpp:141] Setting up inception_4e/3x3
I0403 12:02:13.418485  1276 net.cpp:148] Top shape: 24 320 14 14 (1505280)
I0403 12:02:13.418501  1276 net.cpp:156] Memory required for data: 1230085632
I0403 12:02:13.418519  1276 layer_factory.hpp:77] Creating layer inception_4e/relu_3x3
I0403 12:02:13.418540  1276 net.cpp:91] Creating Layer inception_4e/relu_3x3
I0403 12:02:13.418556  1276 net.cpp:425] inception_4e/relu_3x3 <- inception_4e/3x3
I0403 12:02:13.418573  1276 net.cpp:386] inception_4e/relu_3x3 -> inception_4e/3x3 (in-place)
I0403 12:02:13.418592  1276 net.cpp:141] Setting up inception_4e/relu_3x3
I0403 12:02:13.418609  1276 net.cpp:148] Top shape: 24 320 14 14 (1505280)
I0403 12:02:13.418623  1276 net.cpp:156] Memory required for data: 1236106752
I0403 12:02:13.418648  1276 layer_factory.hpp:77] Creating layer inception_4e/5x5_reduce
I0403 12:02:13.418670  1276 net.cpp:91] Creating Layer inception_4e/5x5_reduce
I0403 12:02:13.418687  1276 net.cpp:425] inception_4e/5x5_reduce <- inception_4d/output_inception_4d/output_0_split_3
I0403 12:02:13.418709  1276 net.cpp:399] inception_4e/5x5_reduce -> inception_4e/5x5_reduce
I0403 12:02:13.419006  1276 net.cpp:141] Setting up inception_4e/5x5_reduce
I0403 12:02:13.419029  1276 net.cpp:148] Top shape: 24 32 14 14 (150528)
I0403 12:02:13.419044  1276 net.cpp:156] Memory required for data: 1236708864
I0403 12:02:13.419060  1276 layer_factory.hpp:77] Creating layer inception_4e/relu_5x5_reduce
I0403 12:02:13.419078  1276 net.cpp:91] Creating Layer inception_4e/relu_5x5_reduce
I0403 12:02:13.419095  1276 net.cpp:425] inception_4e/relu_5x5_reduce <- inception_4e/5x5_reduce
I0403 12:02:13.419111  1276 net.cpp:386] inception_4e/relu_5x5_reduce -> inception_4e/5x5_reduce (in-place)
I0403 12:02:13.419129  1276 net.cpp:141] Setting up inception_4e/relu_5x5_reduce
I0403 12:02:13.419145  1276 net.cpp:148] Top shape: 24 32 14 14 (150528)
I0403 12:02:13.419173  1276 net.cpp:156] Memory required for data: 1237310976
I0403 12:02:13.419188  1276 layer_factory.hpp:77] Creating layer inception_4e/5x5
I0403 12:02:13.419210  1276 net.cpp:91] Creating Layer inception_4e/5x5
I0403 12:02:13.419229  1276 net.cpp:425] inception_4e/5x5 <- inception_4e/5x5_reduce
I0403 12:02:13.419250  1276 net.cpp:399] inception_4e/5x5 -> inception_4e/5x5
I0403 12:02:13.419978  1276 net.cpp:141] Setting up inception_4e/5x5
I0403 12:02:13.420002  1276 net.cpp:148] Top shape: 24 128 14 14 (602112)
I0403 12:02:13.420016  1276 net.cpp:156] Memory required for data: 1239719424
I0403 12:02:13.420032  1276 layer_factory.hpp:77] Creating layer inception_4e/relu_5x5
I0403 12:02:13.420052  1276 net.cpp:91] Creating Layer inception_4e/relu_5x5
I0403 12:02:13.420068  1276 net.cpp:425] inception_4e/relu_5x5 <- inception_4e/5x5
I0403 12:02:13.420085  1276 net.cpp:386] inception_4e/relu_5x5 -> inception_4e/5x5 (in-place)
I0403 12:02:13.420104  1276 net.cpp:141] Setting up inception_4e/relu_5x5
I0403 12:02:13.420120  1276 net.cpp:148] Top shape: 24 128 14 14 (602112)
I0403 12:02:13.420132  1276 net.cpp:156] Memory required for data: 1242127872
I0403 12:02:13.420145  1276 layer_factory.hpp:77] Creating layer inception_4e/pool
I0403 12:02:13.420181  1276 net.cpp:91] Creating Layer inception_4e/pool
I0403 12:02:13.420198  1276 net.cpp:425] inception_4e/pool <- inception_4d/output_inception_4d/output_0_split_4
I0403 12:02:13.420217  1276 net.cpp:399] inception_4e/pool -> inception_4e/pool
I0403 12:02:13.420265  1276 net.cpp:141] Setting up inception_4e/pool
I0403 12:02:13.420286  1276 net.cpp:148] Top shape: 24 528 14 14 (2483712)
I0403 12:02:13.420300  1276 net.cpp:156] Memory required for data: 1252062720
I0403 12:02:13.420315  1276 layer_factory.hpp:77] Creating layer inception_4e/pool_proj
I0403 12:02:13.420341  1276 net.cpp:91] Creating Layer inception_4e/pool_proj
I0403 12:02:13.420358  1276 net.cpp:425] inception_4e/pool_proj <- inception_4e/pool
I0403 12:02:13.420378  1276 net.cpp:399] inception_4e/pool_proj -> inception_4e/pool_proj
I0403 12:02:13.420924  1276 net.cpp:141] Setting up inception_4e/pool_proj
I0403 12:02:13.420948  1276 net.cpp:148] Top shape: 24 128 14 14 (602112)
I0403 12:02:13.420961  1276 net.cpp:156] Memory required for data: 1254471168
I0403 12:02:13.420977  1276 layer_factory.hpp:77] Creating layer inception_4e/relu_pool_proj
I0403 12:02:13.420995  1276 net.cpp:91] Creating Layer inception_4e/relu_pool_proj
I0403 12:02:13.421010  1276 net.cpp:425] inception_4e/relu_pool_proj <- inception_4e/pool_proj
I0403 12:02:13.421027  1276 net.cpp:386] inception_4e/relu_pool_proj -> inception_4e/pool_proj (in-place)
I0403 12:02:13.421046  1276 net.cpp:141] Setting up inception_4e/relu_pool_proj
I0403 12:02:13.421061  1276 net.cpp:148] Top shape: 24 128 14 14 (602112)
I0403 12:02:13.421074  1276 net.cpp:156] Memory required for data: 1256879616
I0403 12:02:13.421088  1276 layer_factory.hpp:77] Creating layer inception_4e/output
I0403 12:02:13.421105  1276 net.cpp:91] Creating Layer inception_4e/output
I0403 12:02:13.421120  1276 net.cpp:425] inception_4e/output <- inception_4e/1x1
I0403 12:02:13.421135  1276 net.cpp:425] inception_4e/output <- inception_4e/3x3
I0403 12:02:13.421150  1276 net.cpp:425] inception_4e/output <- inception_4e/5x5
I0403 12:02:13.421165  1276 net.cpp:425] inception_4e/output <- inception_4e/pool_proj
I0403 12:02:13.421181  1276 net.cpp:399] inception_4e/output -> inception_4e/output
I0403 12:02:13.421221  1276 net.cpp:141] Setting up inception_4e/output
I0403 12:02:13.421242  1276 net.cpp:148] Top shape: 24 832 14 14 (3913728)
I0403 12:02:13.421255  1276 net.cpp:156] Memory required for data: 1272534528
I0403 12:02:13.421269  1276 layer_factory.hpp:77] Creating layer pool4/3x3_s2
I0403 12:02:13.421288  1276 net.cpp:91] Creating Layer pool4/3x3_s2
I0403 12:02:13.421305  1276 net.cpp:425] pool4/3x3_s2 <- inception_4e/output
I0403 12:02:13.421322  1276 net.cpp:399] pool4/3x3_s2 -> pool4/3x3_s2
I0403 12:02:13.421376  1276 net.cpp:141] Setting up pool4/3x3_s2
I0403 12:02:13.421408  1276 net.cpp:148] Top shape: 24 832 7 7 (978432)
I0403 12:02:13.421423  1276 net.cpp:156] Memory required for data: 1276448256
I0403 12:02:13.421437  1276 layer_factory.hpp:77] Creating layer pool4/3x3_s2_pool4/3x3_s2_0_split
I0403 12:02:13.421453  1276 net.cpp:91] Creating Layer pool4/3x3_s2_pool4/3x3_s2_0_split
I0403 12:02:13.421468  1276 net.cpp:425] pool4/3x3_s2_pool4/3x3_s2_0_split <- pool4/3x3_s2
I0403 12:02:13.421488  1276 net.cpp:399] pool4/3x3_s2_pool4/3x3_s2_0_split -> pool4/3x3_s2_pool4/3x3_s2_0_split_0
I0403 12:02:13.421507  1276 net.cpp:399] pool4/3x3_s2_pool4/3x3_s2_0_split -> pool4/3x3_s2_pool4/3x3_s2_0_split_1
I0403 12:02:13.421527  1276 net.cpp:399] pool4/3x3_s2_pool4/3x3_s2_0_split -> pool4/3x3_s2_pool4/3x3_s2_0_split_2
I0403 12:02:13.421546  1276 net.cpp:399] pool4/3x3_s2_pool4/3x3_s2_0_split -> pool4/3x3_s2_pool4/3x3_s2_0_split_3
I0403 12:02:13.421612  1276 net.cpp:141] Setting up pool4/3x3_s2_pool4/3x3_s2_0_split
I0403 12:02:13.421636  1276 net.cpp:148] Top shape: 24 832 7 7 (978432)
I0403 12:02:13.421653  1276 net.cpp:148] Top shape: 24 832 7 7 (978432)
I0403 12:02:13.421668  1276 net.cpp:148] Top shape: 24 832 7 7 (978432)
I0403 12:02:13.421681  1276 net.cpp:148] Top shape: 24 832 7 7 (978432)
I0403 12:02:13.421694  1276 net.cpp:156] Memory required for data: 1292103168
I0403 12:02:13.421708  1276 layer_factory.hpp:77] Creating layer inception_5a/1x1
I0403 12:02:13.421730  1276 net.cpp:91] Creating Layer inception_5a/1x1
I0403 12:02:13.421747  1276 net.cpp:425] inception_5a/1x1 <- pool4/3x3_s2_pool4/3x3_s2_0_split_0
I0403 12:02:13.421766  1276 net.cpp:399] inception_5a/1x1 -> inception_5a/1x1
I0403 12:02:13.423584  1276 net.cpp:141] Setting up inception_5a/1x1
I0403 12:02:13.423610  1276 net.cpp:148] Top shape: 24 256 7 7 (301056)
I0403 12:02:13.423624  1276 net.cpp:156] Memory required for data: 1293307392
I0403 12:02:13.423641  1276 layer_factory.hpp:77] Creating layer inception_5a/relu_1x1
I0403 12:02:13.423660  1276 net.cpp:91] Creating Layer inception_5a/relu_1x1
I0403 12:02:13.423674  1276 net.cpp:425] inception_5a/relu_1x1 <- inception_5a/1x1
I0403 12:02:13.423691  1276 net.cpp:386] inception_5a/relu_1x1 -> inception_5a/1x1 (in-place)
I0403 12:02:13.423709  1276 net.cpp:141] Setting up inception_5a/relu_1x1
I0403 12:02:13.423725  1276 net.cpp:148] Top shape: 24 256 7 7 (301056)
I0403 12:02:13.423738  1276 net.cpp:156] Memory required for data: 1294511616
I0403 12:02:13.423753  1276 layer_factory.hpp:77] Creating layer inception_5a/3x3_reduce
I0403 12:02:13.423774  1276 net.cpp:91] Creating Layer inception_5a/3x3_reduce
I0403 12:02:13.423791  1276 net.cpp:425] inception_5a/3x3_reduce <- pool4/3x3_s2_pool4/3x3_s2_0_split_1
I0403 12:02:13.423811  1276 net.cpp:399] inception_5a/3x3_reduce -> inception_5a/3x3_reduce
I0403 12:02:13.425196  1276 net.cpp:141] Setting up inception_5a/3x3_reduce
I0403 12:02:13.425222  1276 net.cpp:148] Top shape: 24 160 7 7 (188160)
I0403 12:02:13.425236  1276 net.cpp:156] Memory required for data: 1295264256
I0403 12:02:13.425254  1276 layer_factory.hpp:77] Creating layer inception_5a/relu_3x3_reduce
I0403 12:02:13.425272  1276 net.cpp:91] Creating Layer inception_5a/relu_3x3_reduce
I0403 12:02:13.425287  1276 net.cpp:425] inception_5a/relu_3x3_reduce <- inception_5a/3x3_reduce
I0403 12:02:13.425304  1276 net.cpp:386] inception_5a/relu_3x3_reduce -> inception_5a/3x3_reduce (in-place)
I0403 12:02:13.425323  1276 net.cpp:141] Setting up inception_5a/relu_3x3_reduce
I0403 12:02:13.425344  1276 net.cpp:148] Top shape: 24 160 7 7 (188160)
I0403 12:02:13.425357  1276 net.cpp:156] Memory required for data: 1296016896
I0403 12:02:13.425370  1276 layer_factory.hpp:77] Creating layer inception_5a/3x3
I0403 12:02:13.425392  1276 net.cpp:91] Creating Layer inception_5a/3x3
I0403 12:02:13.425410  1276 net.cpp:425] inception_5a/3x3 <- inception_5a/3x3_reduce
I0403 12:02:13.425431  1276 net.cpp:399] inception_5a/3x3 -> inception_5a/3x3
I0403 12:02:13.428988  1276 net.cpp:141] Setting up inception_5a/3x3
I0403 12:02:13.429029  1276 net.cpp:148] Top shape: 24 320 7 7 (376320)
I0403 12:02:13.429045  1276 net.cpp:156] Memory required for data: 1297522176
I0403 12:02:13.429062  1276 layer_factory.hpp:77] Creating layer inception_5a/relu_3x3
I0403 12:02:13.429080  1276 net.cpp:91] Creating Layer inception_5a/relu_3x3
I0403 12:02:13.429095  1276 net.cpp:425] inception_5a/relu_3x3 <- inception_5a/3x3
I0403 12:02:13.429112  1276 net.cpp:386] inception_5a/relu_3x3 -> inception_5a/3x3 (in-place)
I0403 12:02:13.429129  1276 net.cpp:141] Setting up inception_5a/relu_3x3
I0403 12:02:13.429147  1276 net.cpp:148] Top shape: 24 320 7 7 (376320)
I0403 12:02:13.429159  1276 net.cpp:156] Memory required for data: 1299027456
I0403 12:02:13.429172  1276 layer_factory.hpp:77] Creating layer inception_5a/5x5_reduce
I0403 12:02:13.429194  1276 net.cpp:91] Creating Layer inception_5a/5x5_reduce
I0403 12:02:13.429211  1276 net.cpp:425] inception_5a/5x5_reduce <- pool4/3x3_s2_pool4/3x3_s2_0_split_2
I0403 12:02:13.429231  1276 net.cpp:399] inception_5a/5x5_reduce -> inception_5a/5x5_reduce
I0403 12:02:13.429591  1276 net.cpp:141] Setting up inception_5a/5x5_reduce
I0403 12:02:13.429615  1276 net.cpp:148] Top shape: 24 32 7 7 (37632)
I0403 12:02:13.429630  1276 net.cpp:156] Memory required for data: 1299177984
I0403 12:02:13.429646  1276 layer_factory.hpp:77] Creating layer inception_5a/relu_5x5_reduce
I0403 12:02:13.429666  1276 net.cpp:91] Creating Layer inception_5a/relu_5x5_reduce
I0403 12:02:13.429682  1276 net.cpp:425] inception_5a/relu_5x5_reduce <- inception_5a/5x5_reduce
I0403 12:02:13.429698  1276 net.cpp:386] inception_5a/relu_5x5_reduce -> inception_5a/5x5_reduce (in-place)
I0403 12:02:13.429716  1276 net.cpp:141] Setting up inception_5a/relu_5x5_reduce
I0403 12:02:13.429733  1276 net.cpp:148] Top shape: 24 32 7 7 (37632)
I0403 12:02:13.429745  1276 net.cpp:156] Memory required for data: 1299328512
I0403 12:02:13.429759  1276 layer_factory.hpp:77] Creating layer inception_5a/5x5
I0403 12:02:13.429780  1276 net.cpp:91] Creating Layer inception_5a/5x5
I0403 12:02:13.429797  1276 net.cpp:425] inception_5a/5x5 <- inception_5a/5x5_reduce
I0403 12:02:13.429818  1276 net.cpp:399] inception_5a/5x5 -> inception_5a/5x5
I0403 12:02:13.430569  1276 net.cpp:141] Setting up inception_5a/5x5
I0403 12:02:13.430594  1276 net.cpp:148] Top shape: 24 128 7 7 (150528)
I0403 12:02:13.430608  1276 net.cpp:156] Memory required for data: 1299930624
I0403 12:02:13.430637  1276 layer_factory.hpp:77] Creating layer inception_5a/relu_5x5
I0403 12:02:13.430655  1276 net.cpp:91] Creating Layer inception_5a/relu_5x5
I0403 12:02:13.430670  1276 net.cpp:425] inception_5a/relu_5x5 <- inception_5a/5x5
I0403 12:02:13.430686  1276 net.cpp:386] inception_5a/relu_5x5 -> inception_5a/5x5 (in-place)
I0403 12:02:13.430704  1276 net.cpp:141] Setting up inception_5a/relu_5x5
I0403 12:02:13.430721  1276 net.cpp:148] Top shape: 24 128 7 7 (150528)
I0403 12:02:13.430733  1276 net.cpp:156] Memory required for data: 1300532736
I0403 12:02:13.430747  1276 layer_factory.hpp:77] Creating layer inception_5a/pool
I0403 12:02:13.430763  1276 net.cpp:91] Creating Layer inception_5a/pool
I0403 12:02:13.430778  1276 net.cpp:425] inception_5a/pool <- pool4/3x3_s2_pool4/3x3_s2_0_split_3
I0403 12:02:13.430799  1276 net.cpp:399] inception_5a/pool -> inception_5a/pool
I0403 12:02:13.430848  1276 net.cpp:141] Setting up inception_5a/pool
I0403 12:02:13.430871  1276 net.cpp:148] Top shape: 24 832 7 7 (978432)
I0403 12:02:13.430883  1276 net.cpp:156] Memory required for data: 1304446464
I0403 12:02:13.430897  1276 layer_factory.hpp:77] Creating layer inception_5a/pool_proj
I0403 12:02:13.430918  1276 net.cpp:91] Creating Layer inception_5a/pool_proj
I0403 12:02:13.430935  1276 net.cpp:425] inception_5a/pool_proj <- inception_5a/pool
I0403 12:02:13.430955  1276 net.cpp:399] inception_5a/pool_proj -> inception_5a/pool_proj
I0403 12:02:13.432199  1276 net.cpp:141] Setting up inception_5a/pool_proj
I0403 12:02:13.432227  1276 net.cpp:148] Top shape: 24 128 7 7 (150528)
I0403 12:02:13.432242  1276 net.cpp:156] Memory required for data: 1305048576
I0403 12:02:13.432273  1276 layer_factory.hpp:77] Creating layer inception_5a/relu_pool_proj
I0403 12:02:13.432291  1276 net.cpp:91] Creating Layer inception_5a/relu_pool_proj
I0403 12:02:13.432307  1276 net.cpp:425] inception_5a/relu_pool_proj <- inception_5a/pool_proj
I0403 12:02:13.432324  1276 net.cpp:386] inception_5a/relu_pool_proj -> inception_5a/pool_proj (in-place)
I0403 12:02:13.432348  1276 net.cpp:141] Setting up inception_5a/relu_pool_proj
I0403 12:02:13.432364  1276 net.cpp:148] Top shape: 24 128 7 7 (150528)
I0403 12:02:13.432379  1276 net.cpp:156] Memory required for data: 1305650688
I0403 12:02:13.432391  1276 layer_factory.hpp:77] Creating layer inception_5a/output
I0403 12:02:13.432409  1276 net.cpp:91] Creating Layer inception_5a/output
I0403 12:02:13.432422  1276 net.cpp:425] inception_5a/output <- inception_5a/1x1
I0403 12:02:13.432437  1276 net.cpp:425] inception_5a/output <- inception_5a/3x3
I0403 12:02:13.432452  1276 net.cpp:425] inception_5a/output <- inception_5a/5x5
I0403 12:02:13.432467  1276 net.cpp:425] inception_5a/output <- inception_5a/pool_proj
I0403 12:02:13.432487  1276 net.cpp:399] inception_5a/output -> inception_5a/output
I0403 12:02:13.432523  1276 net.cpp:141] Setting up inception_5a/output
I0403 12:02:13.432548  1276 net.cpp:148] Top shape: 24 832 7 7 (978432)
I0403 12:02:13.432561  1276 net.cpp:156] Memory required for data: 1309564416
I0403 12:02:13.432575  1276 layer_factory.hpp:77] Creating layer inception_5a/output_inception_5a/output_0_split
I0403 12:02:13.432592  1276 net.cpp:91] Creating Layer inception_5a/output_inception_5a/output_0_split
I0403 12:02:13.432607  1276 net.cpp:425] inception_5a/output_inception_5a/output_0_split <- inception_5a/output
I0403 12:02:13.432623  1276 net.cpp:399] inception_5a/output_inception_5a/output_0_split -> inception_5a/output_inception_5a/output_0_split_0
I0403 12:02:13.432643  1276 net.cpp:399] inception_5a/output_inception_5a/output_0_split -> inception_5a/output_inception_5a/output_0_split_1
I0403 12:02:13.432664  1276 net.cpp:399] inception_5a/output_inception_5a/output_0_split -> inception_5a/output_inception_5a/output_0_split_2
I0403 12:02:13.432687  1276 net.cpp:399] inception_5a/output_inception_5a/output_0_split -> inception_5a/output_inception_5a/output_0_split_3
I0403 12:02:13.432752  1276 net.cpp:141] Setting up inception_5a/output_inception_5a/output_0_split
I0403 12:02:13.432773  1276 net.cpp:148] Top shape: 24 832 7 7 (978432)
I0403 12:02:13.432788  1276 net.cpp:148] Top shape: 24 832 7 7 (978432)
I0403 12:02:13.432802  1276 net.cpp:148] Top shape: 24 832 7 7 (978432)
I0403 12:02:13.432816  1276 net.cpp:148] Top shape: 24 832 7 7 (978432)
I0403 12:02:13.432832  1276 net.cpp:156] Memory required for data: 1325219328
I0403 12:02:13.432845  1276 layer_factory.hpp:77] Creating layer inception_5b/1x1
I0403 12:02:13.432868  1276 net.cpp:91] Creating Layer inception_5b/1x1
I0403 12:02:13.432884  1276 net.cpp:425] inception_5b/1x1 <- inception_5a/output_inception_5a/output_0_split_0
I0403 12:02:13.432904  1276 net.cpp:399] inception_5b/1x1 -> inception_5b/1x1
I0403 12:02:13.435438  1276 net.cpp:141] Setting up inception_5b/1x1
I0403 12:02:13.435466  1276 net.cpp:148] Top shape: 24 384 7 7 (451584)
I0403 12:02:13.435480  1276 net.cpp:156] Memory required for data: 1327025664
I0403 12:02:13.435498  1276 layer_factory.hpp:77] Creating layer inception_5b/relu_1x1
I0403 12:02:13.435516  1276 net.cpp:91] Creating Layer inception_5b/relu_1x1
I0403 12:02:13.435533  1276 net.cpp:425] inception_5b/relu_1x1 <- inception_5b/1x1
I0403 12:02:13.435549  1276 net.cpp:386] inception_5b/relu_1x1 -> inception_5b/1x1 (in-place)
I0403 12:02:13.435567  1276 net.cpp:141] Setting up inception_5b/relu_1x1
I0403 12:02:13.435585  1276 net.cpp:148] Top shape: 24 384 7 7 (451584)
I0403 12:02:13.435598  1276 net.cpp:156] Memory required for data: 1328832000
I0403 12:02:13.435612  1276 layer_factory.hpp:77] Creating layer inception_5b/3x3_reduce
I0403 12:02:13.435636  1276 net.cpp:91] Creating Layer inception_5b/3x3_reduce
I0403 12:02:13.435664  1276 net.cpp:425] inception_5b/3x3_reduce <- inception_5a/output_inception_5a/output_0_split_1
I0403 12:02:13.435688  1276 net.cpp:399] inception_5b/3x3_reduce -> inception_5b/3x3_reduce
I0403 12:02:13.437264  1276 net.cpp:141] Setting up inception_5b/3x3_reduce
I0403 12:02:13.437290  1276 net.cpp:148] Top shape: 24 192 7 7 (225792)
I0403 12:02:13.437305  1276 net.cpp:156] Memory required for data: 1329735168
I0403 12:02:13.437324  1276 layer_factory.hpp:77] Creating layer inception_5b/relu_3x3_reduce
I0403 12:02:13.437346  1276 net.cpp:91] Creating Layer inception_5b/relu_3x3_reduce
I0403 12:02:13.437363  1276 net.cpp:425] inception_5b/relu_3x3_reduce <- inception_5b/3x3_reduce
I0403 12:02:13.437381  1276 net.cpp:386] inception_5b/relu_3x3_reduce -> inception_5b/3x3_reduce (in-place)
I0403 12:02:13.437399  1276 net.cpp:141] Setting up inception_5b/relu_3x3_reduce
I0403 12:02:13.437417  1276 net.cpp:148] Top shape: 24 192 7 7 (225792)
I0403 12:02:13.437430  1276 net.cpp:156] Memory required for data: 1330638336
I0403 12:02:13.437444  1276 layer_factory.hpp:77] Creating layer inception_5b/3x3
I0403 12:02:13.437466  1276 net.cpp:91] Creating Layer inception_5b/3x3
I0403 12:02:13.437484  1276 net.cpp:425] inception_5b/3x3 <- inception_5b/3x3_reduce
I0403 12:02:13.437505  1276 net.cpp:399] inception_5b/3x3 -> inception_5b/3x3
I0403 12:02:13.442615  1276 net.cpp:141] Setting up inception_5b/3x3
I0403 12:02:13.442653  1276 net.cpp:148] Top shape: 24 384 7 7 (451584)
I0403 12:02:13.442668  1276 net.cpp:156] Memory required for data: 1332444672
I0403 12:02:13.442685  1276 layer_factory.hpp:77] Creating layer inception_5b/relu_3x3
I0403 12:02:13.442703  1276 net.cpp:91] Creating Layer inception_5b/relu_3x3
I0403 12:02:13.442719  1276 net.cpp:425] inception_5b/relu_3x3 <- inception_5b/3x3
I0403 12:02:13.442739  1276 net.cpp:386] inception_5b/relu_3x3 -> inception_5b/3x3 (in-place)
I0403 12:02:13.442759  1276 net.cpp:141] Setting up inception_5b/relu_3x3
I0403 12:02:13.442775  1276 net.cpp:148] Top shape: 24 384 7 7 (451584)
I0403 12:02:13.442790  1276 net.cpp:156] Memory required for data: 1334251008
I0403 12:02:13.442803  1276 layer_factory.hpp:77] Creating layer inception_5b/5x5_reduce
I0403 12:02:13.442826  1276 net.cpp:91] Creating Layer inception_5b/5x5_reduce
I0403 12:02:13.442842  1276 net.cpp:425] inception_5b/5x5_reduce <- inception_5a/output_inception_5a/output_0_split_2
I0403 12:02:13.442862  1276 net.cpp:399] inception_5b/5x5_reduce -> inception_5b/5x5_reduce
I0403 12:02:13.443305  1276 net.cpp:141] Setting up inception_5b/5x5_reduce
I0403 12:02:13.443332  1276 net.cpp:148] Top shape: 24 48 7 7 (56448)
I0403 12:02:13.443348  1276 net.cpp:156] Memory required for data: 1334476800
I0403 12:02:13.443366  1276 layer_factory.hpp:77] Creating layer inception_5b/relu_5x5_reduce
I0403 12:02:13.443383  1276 net.cpp:91] Creating Layer inception_5b/relu_5x5_reduce
I0403 12:02:13.443399  1276 net.cpp:425] inception_5b/relu_5x5_reduce <- inception_5b/5x5_reduce
I0403 12:02:13.443419  1276 net.cpp:386] inception_5b/relu_5x5_reduce -> inception_5b/5x5_reduce (in-place)
I0403 12:02:13.443439  1276 net.cpp:141] Setting up inception_5b/relu_5x5_reduce
I0403 12:02:13.443455  1276 net.cpp:148] Top shape: 24 48 7 7 (56448)
I0403 12:02:13.443470  1276 net.cpp:156] Memory required for data: 1334702592
I0403 12:02:13.443482  1276 layer_factory.hpp:77] Creating layer inception_5b/5x5
I0403 12:02:13.443506  1276 net.cpp:91] Creating Layer inception_5b/5x5
I0403 12:02:13.443522  1276 net.cpp:425] inception_5b/5x5 <- inception_5b/5x5_reduce
I0403 12:02:13.443542  1276 net.cpp:399] inception_5b/5x5 -> inception_5b/5x5
I0403 12:02:13.444599  1276 net.cpp:141] Setting up inception_5b/5x5
I0403 12:02:13.444625  1276 net.cpp:148] Top shape: 24 128 7 7 (150528)
I0403 12:02:13.444641  1276 net.cpp:156] Memory required for data: 1335304704
I0403 12:02:13.444658  1276 layer_factory.hpp:77] Creating layer inception_5b/relu_5x5
I0403 12:02:13.444677  1276 net.cpp:91] Creating Layer inception_5b/relu_5x5
I0403 12:02:13.444694  1276 net.cpp:425] inception_5b/relu_5x5 <- inception_5b/5x5
I0403 12:02:13.444726  1276 net.cpp:386] inception_5b/relu_5x5 -> inception_5b/5x5 (in-place)
I0403 12:02:13.444751  1276 net.cpp:141] Setting up inception_5b/relu_5x5
I0403 12:02:13.444768  1276 net.cpp:148] Top shape: 24 128 7 7 (150528)
I0403 12:02:13.444783  1276 net.cpp:156] Memory required for data: 1335906816
I0403 12:02:13.444797  1276 layer_factory.hpp:77] Creating layer inception_5b/pool
I0403 12:02:13.444814  1276 net.cpp:91] Creating Layer inception_5b/pool
I0403 12:02:13.444830  1276 net.cpp:425] inception_5b/pool <- inception_5a/output_inception_5a/output_0_split_3
I0403 12:02:13.444849  1276 net.cpp:399] inception_5b/pool -> inception_5b/pool
I0403 12:02:13.444902  1276 net.cpp:141] Setting up inception_5b/pool
I0403 12:02:13.444926  1276 net.cpp:148] Top shape: 24 832 7 7 (978432)
I0403 12:02:13.444939  1276 net.cpp:156] Memory required for data: 1339820544
I0403 12:02:13.444953  1276 layer_factory.hpp:77] Creating layer inception_5b/pool_proj
I0403 12:02:13.444977  1276 net.cpp:91] Creating Layer inception_5b/pool_proj
I0403 12:02:13.444994  1276 net.cpp:425] inception_5b/pool_proj <- inception_5b/pool
I0403 12:02:13.445013  1276 net.cpp:399] inception_5b/pool_proj -> inception_5b/pool_proj
I0403 12:02:13.446341  1276 net.cpp:141] Setting up inception_5b/pool_proj
I0403 12:02:13.446369  1276 net.cpp:148] Top shape: 24 128 7 7 (150528)
I0403 12:02:13.446385  1276 net.cpp:156] Memory required for data: 1340422656
I0403 12:02:13.446403  1276 layer_factory.hpp:77] Creating layer inception_5b/relu_pool_proj
I0403 12:02:13.446421  1276 net.cpp:91] Creating Layer inception_5b/relu_pool_proj
I0403 12:02:13.446450  1276 net.cpp:425] inception_5b/relu_pool_proj <- inception_5b/pool_proj
I0403 12:02:13.446471  1276 net.cpp:386] inception_5b/relu_pool_proj -> inception_5b/pool_proj (in-place)
I0403 12:02:13.446492  1276 net.cpp:141] Setting up inception_5b/relu_pool_proj
I0403 12:02:13.446509  1276 net.cpp:148] Top shape: 24 128 7 7 (150528)
I0403 12:02:13.446524  1276 net.cpp:156] Memory required for data: 1341024768
I0403 12:02:13.446538  1276 layer_factory.hpp:77] Creating layer inception_5b/output
I0403 12:02:13.446557  1276 net.cpp:91] Creating Layer inception_5b/output
I0403 12:02:13.446573  1276 net.cpp:425] inception_5b/output <- inception_5b/1x1
I0403 12:02:13.446588  1276 net.cpp:425] inception_5b/output <- inception_5b/3x3
I0403 12:02:13.446604  1276 net.cpp:425] inception_5b/output <- inception_5b/5x5
I0403 12:02:13.446620  1276 net.cpp:425] inception_5b/output <- inception_5b/pool_proj
I0403 12:02:13.446637  1276 net.cpp:399] inception_5b/output -> inception_5b/output
I0403 12:02:13.446678  1276 net.cpp:141] Setting up inception_5b/output
I0403 12:02:13.446702  1276 net.cpp:148] Top shape: 24 1024 7 7 (1204224)
I0403 12:02:13.446717  1276 net.cpp:156] Memory required for data: 1345841664
I0403 12:02:13.446741  1276 layer_factory.hpp:77] Creating layer pool5/7x7_s1
I0403 12:02:13.446758  1276 net.cpp:91] Creating Layer pool5/7x7_s1
I0403 12:02:13.446774  1276 net.cpp:425] pool5/7x7_s1 <- inception_5b/output
I0403 12:02:13.446822  1276 net.cpp:399] pool5/7x7_s1 -> pool5/7x7_s1
I0403 12:02:13.446863  1276 net.cpp:141] Setting up pool5/7x7_s1
I0403 12:02:13.446887  1276 net.cpp:148] Top shape: 24 1024 1 1 (24576)
I0403 12:02:13.446902  1276 net.cpp:156] Memory required for data: 1345939968
I0403 12:02:13.446916  1276 layer_factory.hpp:77] Creating layer pool5/drop_7x7_s1
I0403 12:02:13.446933  1276 net.cpp:91] Creating Layer pool5/drop_7x7_s1
I0403 12:02:13.446949  1276 net.cpp:425] pool5/drop_7x7_s1 <- pool5/7x7_s1
I0403 12:02:13.446969  1276 net.cpp:386] pool5/drop_7x7_s1 -> pool5/7x7_s1 (in-place)
I0403 12:02:13.447007  1276 net.cpp:141] Setting up pool5/drop_7x7_s1
I0403 12:02:13.447029  1276 net.cpp:148] Top shape: 24 1024 1 1 (24576)
I0403 12:02:13.447043  1276 net.cpp:156] Memory required for data: 1346038272
I0403 12:02:13.447058  1276 layer_factory.hpp:77] Creating layer loss3/classifier_plantvillage
I0403 12:02:13.447093  1276 net.cpp:91] Creating Layer loss3/classifier_plantvillage
I0403 12:02:13.447123  1276 net.cpp:425] loss3/classifier_plantvillage <- pool5/7x7_s1
I0403 12:02:13.447144  1276 net.cpp:399] loss3/classifier_plantvillage -> loss3/classifier_plantvillage
I0403 12:02:13.447491  1276 net.cpp:141] Setting up loss3/classifier_plantvillage
I0403 12:02:13.447515  1276 net.cpp:148] Top shape: 24 38 (912)
I0403 12:02:13.447530  1276 net.cpp:156] Memory required for data: 1346041920
I0403 12:02:13.447547  1276 layer_factory.hpp:77] Creating layer loss1/loss
I0403 12:02:13.447571  1276 net.cpp:91] Creating Layer loss1/loss
I0403 12:02:13.447590  1276 net.cpp:425] loss1/loss <- loss1/classifier_plantvillage
I0403 12:02:13.447607  1276 net.cpp:425] loss1/loss <- label_data_1_split_0
I0403 12:02:13.447625  1276 net.cpp:399] loss1/loss -> loss1/loss
…
I0403 12:02:13.457387  1276 net.cpp:313] The NetState phase (1) differed from the phase (0) specified by a rule in layer data
I0403 12:02:13.461302  1276 net.cpp:49] Initializing net from parameters: 
state {
  phase: TEST
}
layer {
  name: "data"
  type: "Data"
  top: "data"
  top: "label"
  include {
    phase: TEST
  }
  transform_param {
    mirror: false
    crop_size: 224
    mean_file: "/home/mohanty/data/final_dataset/lmdb/color-80-20/mean.binaryproto"
  }
  data_param {
    source: "/home/mohanty/data/final_dataset/lmdb/color-80-20/test_db"
    batch_size: 24
    backend: LMDB
  }
}
layer {
  name: "conv1/7x7_s2"
  type: "Convolution"
  bottom: "data"
  top: "conv1/7x7_s2"
  param {
    lr_mult: 1
    decay_mult: 1
  }
  param {
    lr_mult: 2
    decay_mult: 0
  }
  convolution_param {
    num_output: 64
    pad: 3
    kernel_size: 7
    stride: 2
    weight_filler {
      type: "xavier"
      std: 0.1
    }
    bias_filler {
      type: "constant"
      value: 0.2
    }
  }
}
layer {
  name: "conv1/relu_7x7"
  type: "ReLU"
  bottom: "conv1/7x7_s2"
  top: "conv1/7x7_s2"
}
layer {
  name: "pool1/3x3_s2"
  type: "Pooling"
  bottom: "conv1/7x7_s2"
  top: "pool1/3x3_s2"
  pooling_param {
    pool: MAX
    kernel_size: 3
    stride: 2
  }
}
layer {
  name: "pool1/norm1"
  type: "LRN"
  bottom: "pool1/3x3_s2"
  top: "pool1/norm1"
  lrn_param {
    local_size: 5
    alpha: 0.0001
    beta: 0.75
  }
}
layer {
  name: "conv2/3x3_reduce"
  type: "Convolution"
  bottom: "pool1/norm1"
  top: "conv2/3x3_reduce"
  param {
    lr_mult: 1
    decay_mult: 1
  }
  param {
    lr_mult: 2
    decay_mult: 0
  }
  convolution_param {
    num_output: 64
    kernel_size: 1
    weight_filler {
      type: "xavier"
      std: 0.1
    }
    bias_filler {
      type: "constant"
      value: 0.2
    }
  }
}
layer {
  name: "conv2/relu_3x3_reduce"
  type: "ReLU"
  bottom: "conv2/3x3_reduce"
  top: "conv2/3x3_reduce"
}
layer {
  name: "conv2/3x3"
  type: "Convolution"
  bottom: "conv2/3x3_reduce"
  top: "conv2/3x3"
  param {
    lr_mult: 1
    decay_mult: 1
  }
  param {
    lr_mult: 2
    decay_mult: 0
  }
  convolution_param {
    num_output: 192
    pad: 1
    kernel_size: 3
    weight_filler {
      type: "xavier"
      std: 0.03
    }
    bias_filler {
      type: "constant"
      value: 0.2
    }
  }
}
layer {
  name: "conv2/relu_3x3"
  type: "ReLU"
  bottom: "conv2/3x3"
  top: "conv2/3x3"
}
layer {
  name: "conv2/norm2"
  type: "LRN"
  bottom: "conv2/3x3"
  top: "conv2/norm2"
  lrn_param {
    local_size: 5
    alpha: 0.0001
    beta: 0.75
  }
}
layer {
  name: "pool2/3x3_s2"
  type: "Pooling"
  bottom: "conv2/norm2"
  top: "pool2/3x3_s2"
  pooling_param {
    pool: MAX
    kernel_size: 3
    stride: 2
  }
}
layer {
  name: "inception_3a/1x1"
  type: "Convolution"
  bottom: "pool2/3x3_s2"
  top: "inception_3a/1x1"
  param {
    lr_mult: 1
    decay_mult: 1
  }
  param {
    lr_mult: 2
    decay_mult: 0
  }
  convolution_param {
    num_output: 64
    kernel_size: 1
    weight_filler {
      type: "xavier"
      std: 0.03
    }
    bias_filler {
      type: "constant"
      value: 0.2
    }
  }
}
layer {
  name: "inception_3a/relu_1x1"
  type: "ReLU"
  bottom: "inception_3a/1x1"
  top: "inception_3a/1x1"
}
layer {
  name: "inception_3a/3x3_reduce"
  type: "Convolution"
  bottom: "pool2/3x3_s2"
  top: "inception_3a/3x3_reduce"
  param {
    lr_mult: 1
    decay_mult: 1
  }
  param {
    lr_mult: 2
    decay_mult: 0
  }
  convolution_param {
    num_output: 96
    kernel_size: 1
    weight_filler {
      type: "xavier"
      std: 0.09
    }
    bias_filler {
      type: "constant"
      value: 0.2
    }
  }
}
layer {
  name: "inception_3a/relu_3x3_reduce"
  type: "ReLU"
  bottom: "inception_3a/3x3_reduce"
  top: "inception_3a/3x3_reduce"
}
layer {
  name: "inception_3a/3x3"
  type: "Convolution"
  bottom: "inception_3a/3x3_reduce"
  top: "inception_3a/3x3"
  param {
    lr_mult: 1
    decay_mult: 1
  }
  param {
    lr_mult: 2
    decay_mult: 0
  }
  convolution_param {
    num_output: 128
    pad: 1
    kernel_size: 3
    weight_filler {
      type: "xavier"
      std: 0.03
    }
    bias_filler {
      type: "constant"
      value: 0.2
    }
  }
}
layer {
  name: "inception_3a/relu_3x3"
  type: "ReLU"
  bottom: "inception_3a/3x3"
  top: "inception_3a/3x3"
}
layer {
  name: "inception_3a/5x5_reduce"
  type: "Convolution"
  bottom: "pool2/3x3_s2"
  top: "inception_3a/5x5_reduce"
  param {
    lr_mult: 1
    decay_mult: 1
  }
  param {
    lr_mult: 2
    decay_mult: 0
  }
  convolution_param {
    num_output: 16
    kernel_size: 1
    weight_filler {
      type: "xavier"
      std: 0.2
    }
    bias_filler {
      type: "constant"
      value: 0.2
    }
  }
}
layer {
  name: "inception_3a/relu_5x5_reduce"
  type: "ReLU"
  bottom: "inception_3a/5x5_reduce"
  top: "inception_3a/5x5_reduce"
}
layer {
  name: "inception_3a/5x5"
  type: "Convolution"
  bottom: "inception_3a/5x5_reduce"
  top: "inception_3a/5x5"
  param {
    lr_mult: 1
    decay_mult: 1
  }
  param {
    lr_mult: 2
    decay_mult: 0
  }
  convolution_param {
    num_output: 32
    pad: 2
    kernel_size: 5
    weight_filler {
      type: "xavier"
      std: 0.03
    }
    bias_filler {
      type: "constant"
      value: 0.2
    }
  }
}
layer {
  name: "inception_3a/relu_5x5"
  type: "ReLU"
  bottom: "inception_3a/5x5"
  top: "inception_3a/5x5"
}
layer {
  name: "inception_3a/pool"
  type: "Pooling"
  bottom: "pool2/3x3_s2"
  top: "inception_3a/pool"
  pooling_param {
    pool: MAX
    kernel_size: 3
    stride: 1
    pad: 1
  }
}
layer {
  name: "inception_3a/pool_proj"
  type: "Convolution"
  bottom: "inception_3a/pool"
  top: "inception_3a/pool_proj"
  param {
    lr_mult: 1
    decay_mult: 1
  }
  param {
    lr_mult: 2
    decay_mult: 0
  }
  convolution_param {
    num_output: 32
    kernel_size: 1
    weight_filler {
      type: "xavier"
      std: 0.1
    }
    bias_filler {
      type: "constant"
      value: 0.2
    }
  }
}
layer {
  name: "inception_3a/relu_pool_proj"
  type: "ReLU"
  bottom: "inception_3a/pool_proj"
  top: "inception_3a/pool_proj"
}
layer {
  name: "inception_3a/output"
  type: "Concat"
  bottom: "inception_3a/1x1"
  bottom: "inception_3a/3x3"
  bottom: "inception_3a/5x5"
  bottom: "inception_3a/pool_proj"
  top: "inception_3a/output"
}
layer {
  name: "inception_3b/1x1"
  type: "Convolution"
  bottom: "inception_3a/output"
  top: "inception_3b/1x1"
  param {
    lr_mult: 1
    decay_mult: 1
  }
  param {
    lr_mult: 2
    decay_mult: 0
  }
  convolution_param {
    num_output: 128
    kernel_size: 1
    weight_filler {
      type: "xavier"
      std: 0.03
    }
    bias_filler {
      type: "constant"
      value: 0.2
    }
  }
}
layer {
  name: "inception_3b/relu_1x1"
  type: "ReLU"
  bottom: "inception_3b/1x1"
  top: "inception_3b/1x1"
}
layer {
  name: "inception_3b/3x3_reduce"
  type: "Convolution"
  bottom: "inception_3a/output"
  top: "inception_3b/3x3_reduce"
  param {
    lr_mult: 1
    decay_mult: 1
  }
  param {
    lr_mult: 2
    decay_mult: 0
  }
  convolution_param {
    num_output: 128
    kernel_size: 1
    weight_filler {
      type: "xavier"
      std: 0.09
    }
    bias_filler {
      type: "constant"
      value: 0.2
    }
  }
}
layer {
  name: "inception_3b/relu_3x3_reduce"
  type: "ReLU"
  bottom: "inception_3b/3x3_reduce"
  top: "inception_3b/3x3_reduce"
}
layer {
  name: "inception_3b/3x3"
  type: "Convolution"
  bottom: "inception_3b/3x3_reduce"
  top: "inception_3b/3x3"
  param {
    lr_mult: 1
    decay_mult: 1
  }
  param {
    lr_mult: 2
    decay_mult: 0
  }
  convolution_param {
    num_output: 192
    pad: 1
    kernel_size: 3
    weight_filler {
      type: "xavier"
      std: 0.03
    }
    bias_filler {
      type: "constant"
      value: 0.2
    }
  }
}
layer {
  name: "inception_3b/relu_3x3"
  type: "ReLU"
  bottom: "inception_3b/3x3"
  top: "inception_3b/3x3"
}
layer {
  name: "inception_3b/5x5_reduce"
  type: "Convolution"
  bottom: "inception_3a/output"
  top: "inception_3b/5x5_reduce"
  param {
    lr_mult: 1
    decay_mult: 1
  }
  param {
    lr_mult: 2
    decay_mult: 0
  }
  convolution_param {
    num_output: 32
    kernel_size: 1
    weight_filler {
      type: "xavier"
      std: 0.2
    }
    bias_filler {
      type: "constant"
      value: 0.2
    }
  }
}
layer {
  name: "inception_3b/relu_5x5_reduce"
  type: "ReLU"
  bottom: "inception_3b/5x5_reduce"
  top: "inception_3b/5x5_reduce"
}
layer {
  name: "inception_3b/5x5"
  type: "Convolution"
  bottom: "inception_3b/5x5_reduce"
  top: "inception_3b/5x5"
  param {
    lr_mult: 1
    decay_mult: 1
  }
  param {
    lr_mult: 2
    decay_mult: 0
  }
  convolution_param {
    num_output: 96
    pad: 2
    kernel_size: 5
    weight_filler {
      type: "xavier"
      std: 0.03
    }
    bias_filler {
      type: "constant"
      value: 0.2
    }
  }
}
layer {
  name: "inception_3b/relu_5x5"
  type: "ReLU"
  bottom: "inception_3b/5x5"
  top: "inception_3b/5x5"
}
layer {
  name: "inception_3b/pool"
  type: "Pooling"
  bottom: "inception_3a/output"
  top: "inception_3b/pool"
  pooling_param {
    pool: MAX
    kernel_size: 3
    stride: 1
    pad: 1
  }
}
layer {
  name: "inception_3b/pool_proj"
  type: "Convolution"
  bottom: "inception_3b/pool"
  top: "inception_3b/pool_proj"
  param {
    lr_mult: 1
    decay_mult: 1
  }
  param {
    lr_mult: 2
    decay_mult: 0
  }
  convolution_param {
    num_output: 64
    kernel_size: 1
    weight_filler {
      type: "xavier"
      std: 0.1
    }
    bias_filler {
      type: "constant"
      value: 0.2
    }
  }
}
layer {
  name: "inception_3b/relu_pool_proj"
  type: "ReLU"
  bottom: "inception_3b/pool_proj"
  top: "inception_3b/pool_proj"
}
layer {
  name: "inception_3b/output"
  type: "Concat"
  bottom: "inception_3b/1x1"
  bottom: "inception_3b/3x3"
  bottom: "inception_3b/5x5"
  bottom: "inception_3b/pool_proj"
  top: "inception_3b/output"
}
layer {
  name: "pool3/3x3_s2"
  type: "Pooling"
  bottom: "inception_3b/output"
  top: "pool3/3x3_s2"
  pooling_param {
    pool: MAX
    kernel_size: 3
    stride: 2
  }
}
layer {
  name: "inception_4a/1x1"
  type: "Convolution"
  bottom: "pool3/3x3_s2"
  top: "inception_4a/1x1"
  param {
    lr_mult: 1
    decay_mult: 1
  }
  param {
    lr_mult: 2
    decay_mult: 0
  }
  convolution_param {
    num_output: 192
    kernel_size: 1
    weight_filler {
      type: "xavier"
      std: 0.03
    }
    bias_filler {
      type: "constant"
      value: 0.2
    }
  }
}
layer {
  name: "inception_4a/relu_1x1"
  type: "ReLU"
  bottom: "inception_4a/1x1"
  top: "inception_4a/1x1"
}
layer {
  name: "inception_4a/3x3_reduce"
  type: "Convolution"
  bottom: "pool3/3x3_s2"
  top: "inception_4a/3x3_reduce"
  param {
    lr_mult: 1
    decay_mult: 1
  }
  param {
    lr_mult: 2
    decay_mult: 0
  }
  convolution_param {
    num_output: 96
    kernel_size: 1
    weight_filler {
      type: "xavier"
      std: 0.09
    }
    bias_filler {
      type: "constant"
      value: 0.2
    }
  }
}
layer {
  name: "inception_4a/relu_3x3_reduce"
  type: "ReLU"
  bottom: "inception_4a/3x3_reduce"
  top: "inception_4a/3x3_reduce"
}
layer {
  name: "inception_4a/3x3"
  type: "Convolution"
  bottom: "inception_4a/3x3_reduce"
  top: "inception_4a/3x3"
  param {
    lr_mult: 1
    decay_mult: 1
  }
  param {
    lr_mult: 2
    decay_mult: 0
  }
  convolution_param {
    num_output: 208
    pad: 1
    kernel_size: 3
    weight_filler {
      type: "xavier"
      std: 0.03
    }
    bias_filler {
      type: "constant"
      value: 0.2
    }
  }
}
layer {
  name: "inception_4a/relu_3x3"
  type: "ReLU"
  bottom: "inception_4a/3x3"
  top: "inception_4a/3x3"
}
layer {
  name: "inception_4a/5x5_reduce"
  type: "Convolution"
  bottom: "pool3/3x3_s2"
  top: "inception_4a/5x5_reduce"
  param {
    lr_mult: 1
    decay_mult: 1
  }
  param {
    lr_mult: 2
    decay_mult: 0
  }
  convolution_param {
    num_output: 16
    kernel_size: 1
    weight_filler {
      type: "xavier"
      std: 0.2
    }
    bias_filler {
      type: "constant"
      value: 0.2
    }
  }
}
layer {
  name: "inception_4a/relu_5x5_reduce"
  type: "ReLU"
  bottom: "inception_4a/5x5_reduce"
  top: "inception_4a/5x5_reduce"
}
layer {
  name: "inception_4a/5x5"
  type: "Convolution"
  bottom: "inception_4a/5x5_reduce"
  top: "inception_4a/5x5"
  param {
    lr_mult: 1
    decay_mult: 1
  }
  param {
    lr_mult: 2
    decay_mult: 0
  }
  convolution_param {
    num_output: 48
    pad: 2
    kernel_size: 5
    weight_filler {
      type: "xavier"
      std: 0.03
    }
    bias_filler {
      type: "constant"
      value: 0.2
    }
  }
}
layer {
  name: "inception_4a/relu_5x5"
  type: "ReLU"
  bottom: "inception_4a/5x5"
  top: "inception_4a/5x5"
}
layer {
  name: "inception_4a/pool"
  type: "Pooling"
  bottom: "pool3/3x3_s2"
  top: "inception_4a/pool"
  pooling_param {
    pool: MAX
    kernel_size: 3
    stride: 1
    pad: 1
  }
}
layer {
  name: "inception_4a/pool_proj"
  type: "Convolution"
  bottom: "inception_4a/pool"
  top: "inception_4a/pool_proj"
  param {
    lr_mult: 1
    decay_mult: 1
  }
  param {
    lr_mult: 2
    decay_mult: 0
  }
  convolution_param {
    num_output: 64
    kernel_size: 1
    weight_filler {
      type: "xavier"
      std: 0.1
    }
    bias_filler {
      type: "constant"
      value: 0.2
    }
  }
}
layer {
  name: "inception_4a/relu_pool_proj"
  type: "ReLU"
  bottom: "inception_4a/pool_proj"
  top: "inception_4a/pool_proj"
}
layer {
  name: "inception_4a/output"
  type: "Concat"
  bottom: "inception_4a/1x1"
  bottom: "inception_4a/3x3"
  bottom: "inception_4a/5x5"
  bottom: "inception_4a/pool_proj"
  top: "inception_4a/output"
}
layer {
  name: "loss1/ave_pool"
  type: "Pooling"
  bottom: "inception_4a/output"
  top: "loss1/ave_pool"
  pooling_param {
    pool: AVE
    kernel_size: 5
    stride: 3
  }
}
layer {
  name: "loss1/conv"
  type: "Convolution"
  bottom: "loss1/ave_pool"
  top: "loss1/conv"
  param {
    lr_mult: 1
    decay_mult: 1
  }
  param {
    lr_mult: 2
    decay_mult: 0
  }
  convolution_param {
    num_output: 128
    kernel_size: 1
    weight_filler {
      type: "xavier"
      std: 0.08
    }
    bias_filler {
      type: "constant"
      value: 0.2
    }
  }
}
layer {
  name: "loss1/relu_conv"
  type: "ReLU"
  bottom: "loss1/conv"
  top: "loss1/conv"
}
layer {
  name: "loss1/fc"
  type: "InnerProduct"
  bottom: "loss1/conv"
  top: "loss1/fc"
  param {
    lr_mult: 1
    decay_mult: 1
  }
  param {
    lr_mult: 2
    decay_mult: 0
  }
  inner_product_param {
    num_output: 1024
    weight_filler {
      type: "xavier"
      std: 0.02
    }
    bias_filler {
      type: "constant"
      value: 0.2
    }
  }
}
layer {
  name: "loss1/relu_fc"
  type: "ReLU"
  bottom: "loss1/fc"
  top: "loss1/fc"
}
layer {
  name: "loss1/drop_fc"
  type: "Dropout"
  bottom: "loss1/fc"
  top: "loss1/fc"
  dropout_param {
    dropout_ratio: 0.7
  }
}
layer {
  name: "loss1/classifier_plantvillage"
  type: "InnerProduct"
  bottom: "loss1/fc"
  top: "loss1/classifier_plantvillage"
  param {
    lr_mult: 1
    decay_mult: 1
  }
  param {
    lr_mult: 2
    decay_mult: 0
  }
  inner_product_param {
    num_output: 38
    weight_filler {
      type: "xavier"
      std: 0.0009765625
    }
    bias_filler {
      type: "constant"
      value: 0
    }
  }
}
layer {
  name: "inception_4b/1x1"
  type: "Convolution"
  bottom: "inception_4a/output"
  top: "inception_4b/1x1"
  param {
    lr_mult: 1
    decay_mult: 1
  }
  param {
    lr_mult: 2
    decay_mult: 0
  }
  convolution_param {
    num_output: 160
    kernel_size: 1
    weight_filler {
      type: "xavier"
      std: 0.03
    }
    bias_filler {
      type: "constant"
      value: 0.2
    }
  }
}
layer {
  name: "inception_4b/relu_1x1"
…
I0403 12:02:13.658313  1276 layer_factory.hpp:77] Creating layer inception_4c/pool
I0403 12:02:13.658339  1276 net.cpp:91] Creating Layer inception_4c/pool
I0403 12:02:13.658356  1276 net.cpp:425] inception_4c/pool <- inception_4b/output_inception_4b/output_0_split_3
I0403 12:02:13.658375  1276 net.cpp:399] inception_4c/pool -> inception_4c/pool
I0403 12:02:13.658434  1276 net.cpp:141] Setting up inception_4c/pool
I0403 12:02:13.658458  1276 net.cpp:148] Top shape: 24 512 14 14 (2408448)
I0403 12:02:13.658473  1276 net.cpp:156] Memory required for data: 1060605120
I0403 12:02:13.658488  1276 layer_factory.hpp:77] Creating layer inception_4c/pool_proj
I0403 12:02:13.658511  1276 net.cpp:91] Creating Layer inception_4c/pool_proj
I0403 12:02:13.658529  1276 net.cpp:425] inception_4c/pool_proj <- inception_4c/pool
I0403 12:02:13.658550  1276 net.cpp:399] inception_4c/pool_proj -> inception_4c/pool_proj
I0403 12:02:13.658987  1276 net.cpp:141] Setting up inception_4c/pool_proj
I0403 12:02:13.659013  1276 net.cpp:148] Top shape: 24 64 14 14 (301056)
I0403 12:02:13.659029  1276 net.cpp:156] Memory required for data: 1061809344
I0403 12:02:13.659047  1276 layer_factory.hpp:77] Creating layer inception_4c/relu_pool_proj
I0403 12:02:13.659067  1276 net.cpp:91] Creating Layer inception_4c/relu_pool_proj
I0403 12:02:13.659086  1276 net.cpp:425] inception_4c/relu_pool_proj <- inception_4c/pool_proj
I0403 12:02:13.659107  1276 net.cpp:386] inception_4c/relu_pool_proj -> inception_4c/pool_proj (in-place)
I0403 12:02:13.659129  1276 net.cpp:141] Setting up inception_4c/relu_pool_proj
I0403 12:02:13.659147  1276 net.cpp:148] Top shape: 24 64 14 14 (301056)
I0403 12:02:13.659162  1276 net.cpp:156] Memory required for data: 1063013568
I0403 12:02:13.659178  1276 layer_factory.hpp:77] Creating layer inception_4c/output
I0403 12:02:13.659196  1276 net.cpp:91] Creating Layer inception_4c/output
I0403 12:02:13.659214  1276 net.cpp:425] inception_4c/output <- inception_4c/1x1
I0403 12:02:13.659230  1276 net.cpp:425] inception_4c/output <- inception_4c/3x3
I0403 12:02:13.659248  1276 net.cpp:425] inception_4c/output <- inception_4c/5x5
I0403 12:02:13.659265  1276 net.cpp:425] inception_4c/output <- inception_4c/pool_proj
I0403 12:02:13.659287  1276 net.cpp:399] inception_4c/output -> inception_4c/output
I0403 12:02:13.659334  1276 net.cpp:141] Setting up inception_4c/output
I0403 12:02:13.659359  1276 net.cpp:148] Top shape: 24 512 14 14 (2408448)
I0403 12:02:13.659374  1276 net.cpp:156] Memory required for data: 1072647360
I0403 12:02:13.659389  1276 layer_factory.hpp:77] Creating layer inception_4c/output_inception_4c/output_0_split
I0403 12:02:13.659410  1276 net.cpp:91] Creating Layer inception_4c/output_inception_4c/output_0_split
I0403 12:02:13.659430  1276 net.cpp:425] inception_4c/output_inception_4c/output_0_split <- inception_4c/output
I0403 12:02:13.659447  1276 net.cpp:399] inception_4c/output_inception_4c/output_0_split -> inception_4c/output_inception_4c/output_0_split_0
I0403 12:02:13.659469  1276 net.cpp:399] inception_4c/output_inception_4c/output_0_split -> inception_4c/output_inception_4c/output_0_split_1
I0403 12:02:13.659490  1276 net.cpp:399] inception_4c/output_inception_4c/output_0_split -> inception_4c/output_inception_4c/output_0_split_2
I0403 12:02:13.659515  1276 net.cpp:399] inception_4c/output_inception_4c/output_0_split -> inception_4c/output_inception_4c/output_0_split_3
I0403 12:02:13.659610  1276 net.cpp:141] Setting up inception_4c/output_inception_4c/output_0_split
I0403 12:02:13.659634  1276 net.cpp:148] Top shape: 24 512 14 14 (2408448)
I0403 12:02:13.659651  1276 net.cpp:148] Top shape: 24 512 14 14 (2408448)
I0403 12:02:13.659669  1276 net.cpp:148] Top shape: 24 512 14 14 (2408448)
I0403 12:02:13.659693  1276 net.cpp:148] Top shape: 24 512 14 14 (2408448)
I0403 12:02:13.659711  1276 net.cpp:156] Memory required for data: 1111182528
I0403 12:02:13.659734  1276 layer_factory.hpp:77] Creating layer inception_4d/1x1
I0403 12:02:13.659764  1276 net.cpp:91] Creating Layer inception_4d/1x1
I0403 12:02:13.659785  1276 net.cpp:425] inception_4d/1x1 <- inception_4c/output_inception_4c/output_0_split_0
I0403 12:02:13.659806  1276 net.cpp:399] inception_4d/1x1 -> inception_4d/1x1
I0403 12:02:13.660388  1276 net.cpp:141] Setting up inception_4d/1x1
I0403 12:02:13.660418  1276 net.cpp:148] Top shape: 24 112 14 14 (526848)
I0403 12:02:13.660434  1276 net.cpp:156] Memory required for data: 1113289920
I0403 12:02:13.660451  1276 layer_factory.hpp:77] Creating layer inception_4d/relu_1x1
I0403 12:02:13.660470  1276 net.cpp:91] Creating Layer inception_4d/relu_1x1
I0403 12:02:13.660488  1276 net.cpp:425] inception_4d/relu_1x1 <- inception_4d/1x1
I0403 12:02:13.660506  1276 net.cpp:386] inception_4d/relu_1x1 -> inception_4d/1x1 (in-place)
I0403 12:02:13.660526  1276 net.cpp:141] Setting up inception_4d/relu_1x1
I0403 12:02:13.660544  1276 net.cpp:148] Top shape: 24 112 14 14 (526848)
I0403 12:02:13.660558  1276 net.cpp:156] Memory required for data: 1115397312
I0403 12:02:13.660573  1276 layer_factory.hpp:77] Creating layer inception_4d/3x3_reduce
I0403 12:02:13.660598  1276 net.cpp:91] Creating Layer inception_4d/3x3_reduce
I0403 12:02:13.660616  1276 net.cpp:425] inception_4d/3x3_reduce <- inception_4c/output_inception_4c/output_0_split_1
I0403 12:02:13.660639  1276 net.cpp:399] inception_4d/3x3_reduce -> inception_4d/3x3_reduce
I0403 12:02:13.661324  1276 net.cpp:141] Setting up inception_4d/3x3_reduce
I0403 12:02:13.661353  1276 net.cpp:148] Top shape: 24 144 14 14 (677376)
I0403 12:02:13.661370  1276 net.cpp:156] Memory required for data: 1118106816
I0403 12:02:13.661387  1276 layer_factory.hpp:77] Creating layer inception_4d/relu_3x3_reduce
I0403 12:02:13.661412  1276 net.cpp:91] Creating Layer inception_4d/relu_3x3_reduce
I0403 12:02:13.661432  1276 net.cpp:425] inception_4d/relu_3x3_reduce <- inception_4d/3x3_reduce
I0403 12:02:13.661450  1276 net.cpp:386] inception_4d/relu_3x3_reduce -> inception_4d/3x3_reduce (in-place)
I0403 12:02:13.661470  1276 net.cpp:141] Setting up inception_4d/relu_3x3_reduce
I0403 12:02:13.661489  1276 net.cpp:148] Top shape: 24 144 14 14 (677376)
I0403 12:02:13.661504  1276 net.cpp:156] Memory required for data: 1120816320
I0403 12:02:13.661519  1276 layer_factory.hpp:77] Creating layer inception_4d/3x3
I0403 12:02:13.661542  1276 net.cpp:91] Creating Layer inception_4d/3x3
I0403 12:02:13.661561  1276 net.cpp:425] inception_4d/3x3 <- inception_4d/3x3_reduce
I0403 12:02:13.661581  1276 net.cpp:399] inception_4d/3x3 -> inception_4d/3x3
I0403 12:02:13.664836  1276 net.cpp:141] Setting up inception_4d/3x3
I0403 12:02:13.664866  1276 net.cpp:148] Top shape: 24 288 14 14 (1354752)
I0403 12:02:13.664882  1276 net.cpp:156] Memory required for data: 1126235328
I0403 12:02:13.664901  1276 layer_factory.hpp:77] Creating layer inception_4d/relu_3x3
I0403 12:02:13.664921  1276 net.cpp:91] Creating Layer inception_4d/relu_3x3
I0403 12:02:13.664938  1276 net.cpp:425] inception_4d/relu_3x3 <- inception_4d/3x3
I0403 12:02:13.664959  1276 net.cpp:386] inception_4d/relu_3x3 -> inception_4d/3x3 (in-place)
I0403 12:02:13.664981  1276 net.cpp:141] Setting up inception_4d/relu_3x3
I0403 12:02:13.664999  1276 net.cpp:148] Top shape: 24 288 14 14 (1354752)
I0403 12:02:13.665014  1276 net.cpp:156] Memory required for data: 1131654336
I0403 12:02:13.665029  1276 layer_factory.hpp:77] Creating layer inception_4d/5x5_reduce
I0403 12:02:13.665067  1276 net.cpp:91] Creating Layer inception_4d/5x5_reduce
I0403 12:02:13.665088  1276 net.cpp:425] inception_4d/5x5_reduce <- inception_4c/output_inception_4c/output_0_split_2
I0403 12:02:13.665108  1276 net.cpp:399] inception_4d/5x5_reduce -> inception_4d/5x5_reduce
I0403 12:02:13.665467  1276 net.cpp:141] Setting up inception_4d/5x5_reduce
I0403 12:02:13.665521  1276 net.cpp:148] Top shape: 24 32 14 14 (150528)
I0403 12:02:13.665554  1276 net.cpp:156] Memory required for data: 1132256448
I0403 12:02:13.665580  1276 layer_factory.hpp:77] Creating layer inception_4d/relu_5x5_reduce
I0403 12:02:13.665599  1276 net.cpp:91] Creating Layer inception_4d/relu_5x5_reduce
I0403 12:02:13.665616  1276 net.cpp:425] inception_4d/relu_5x5_reduce <- inception_4d/5x5_reduce
I0403 12:02:13.665637  1276 net.cpp:386] inception_4d/relu_5x5_reduce -> inception_4d/5x5_reduce (in-place)
I0403 12:02:13.665658  1276 net.cpp:141] Setting up inception_4d/relu_5x5_reduce
I0403 12:02:13.665686  1276 net.cpp:148] Top shape: 24 32 14 14 (150528)
I0403 12:02:13.665700  1276 net.cpp:156] Memory required for data: 1132858560
I0403 12:02:13.665714  1276 layer_factory.hpp:77] Creating layer inception_4d/5x5
I0403 12:02:13.665740  1276 net.cpp:91] Creating Layer inception_4d/5x5
I0403 12:02:13.665757  1276 net.cpp:425] inception_4d/5x5 <- inception_4d/5x5_reduce
I0403 12:02:13.665778  1276 net.cpp:399] inception_4d/5x5 -> inception_4d/5x5
I0403 12:02:13.666321  1276 net.cpp:141] Setting up inception_4d/5x5
I0403 12:02:13.666357  1276 net.cpp:148] Top shape: 24 64 14 14 (301056)
I0403 12:02:13.666373  1276 net.cpp:156] Memory required for data: 1134062784
I0403 12:02:13.666391  1276 layer_factory.hpp:77] Creating layer inception_4d/relu_5x5
I0403 12:02:13.666410  1276 net.cpp:91] Creating Layer inception_4d/relu_5x5
I0403 12:02:13.666427  1276 net.cpp:425] inception_4d/relu_5x5 <- inception_4d/5x5
I0403 12:02:13.666447  1276 net.cpp:386] inception_4d/relu_5x5 -> inception_4d/5x5 (in-place)
I0403 12:02:13.666467  1276 net.cpp:141] Setting up inception_4d/relu_5x5
I0403 12:02:13.666486  1276 net.cpp:148] Top shape: 24 64 14 14 (301056)
I0403 12:02:13.666499  1276 net.cpp:156] Memory required for data: 1135267008
I0403 12:02:13.666513  1276 layer_factory.hpp:77] Creating layer inception_4d/pool
I0403 12:02:13.666532  1276 net.cpp:91] Creating Layer inception_4d/pool
I0403 12:02:13.666548  1276 net.cpp:425] inception_4d/pool <- inception_4c/output_inception_4c/output_0_split_3
I0403 12:02:13.666570  1276 net.cpp:399] inception_4d/pool -> inception_4d/pool
I0403 12:02:13.666627  1276 net.cpp:141] Setting up inception_4d/pool
I0403 12:02:13.666652  1276 net.cpp:148] Top shape: 24 512 14 14 (2408448)
I0403 12:02:13.666667  1276 net.cpp:156] Memory required for data: 1144900800
I0403 12:02:13.666682  1276 layer_factory.hpp:77] Creating layer inception_4d/pool_proj
I0403 12:02:13.666707  1276 net.cpp:91] Creating Layer inception_4d/pool_proj
I0403 12:02:13.666725  1276 net.cpp:425] inception_4d/pool_proj <- inception_4d/pool
I0403 12:02:13.666748  1276 net.cpp:399] inception_4d/pool_proj -> inception_4d/pool_proj
I0403 12:02:13.667181  1276 net.cpp:141] Setting up inception_4d/pool_proj
I0403 12:02:13.667207  1276 net.cpp:148] Top shape: 24 64 14 14 (301056)
I0403 12:02:13.667220  1276 net.cpp:156] Memory required for data: 1146105024
I0403 12:02:13.667238  1276 layer_factory.hpp:77] Creating layer inception_4d/relu_pool_proj
I0403 12:02:13.667258  1276 net.cpp:91] Creating Layer inception_4d/relu_pool_proj
I0403 12:02:13.667274  1276 net.cpp:425] inception_4d/relu_pool_proj <- inception_4d/pool_proj
I0403 12:02:13.667292  1276 net.cpp:386] inception_4d/relu_pool_proj -> inception_4d/pool_proj (in-place)
I0403 12:02:13.667312  1276 net.cpp:141] Setting up inception_4d/relu_pool_proj
I0403 12:02:13.667333  1276 net.cpp:148] Top shape: 24 64 14 14 (301056)
I0403 12:02:13.667351  1276 net.cpp:156] Memory required for data: 1147309248
I0403 12:02:13.667371  1276 layer_factory.hpp:77] Creating layer inception_4d/output
I0403 12:02:13.667414  1276 net.cpp:91] Creating Layer inception_4d/output
I0403 12:02:13.667440  1276 net.cpp:425] inception_4d/output <- inception_4d/1x1
I0403 12:02:13.667459  1276 net.cpp:425] inception_4d/output <- inception_4d/3x3
I0403 12:02:13.667479  1276 net.cpp:425] inception_4d/output <- inception_4d/5x5
I0403 12:02:13.667500  1276 net.cpp:425] inception_4d/output <- inception_4d/pool_proj
I0403 12:02:13.667518  1276 net.cpp:399] inception_4d/output -> inception_4d/output
I0403 12:02:13.667564  1276 net.cpp:141] Setting up inception_4d/output
I0403 12:02:13.667588  1276 net.cpp:148] Top shape: 24 528 14 14 (2483712)
I0403 12:02:13.667603  1276 net.cpp:156] Memory required for data: 1157244096
I0403 12:02:13.667618  1276 layer_factory.hpp:77] Creating layer inception_4d/output_inception_4d/output_0_split
I0403 12:02:13.667637  1276 net.cpp:91] Creating Layer inception_4d/output_inception_4d/output_0_split
I0403 12:02:13.667654  1276 net.cpp:425] inception_4d/output_inception_4d/output_0_split <- inception_4d/output
I0403 12:02:13.667675  1276 net.cpp:399] inception_4d/output_inception_4d/output_0_split -> inception_4d/output_inception_4d/output_0_split_0
I0403 12:02:13.667697  1276 net.cpp:399] inception_4d/output_inception_4d/output_0_split -> inception_4d/output_inception_4d/output_0_split_1
I0403 12:02:13.667719  1276 net.cpp:399] inception_4d/output_inception_4d/output_0_split -> inception_4d/output_inception_4d/output_0_split_2
I0403 12:02:13.667742  1276 net.cpp:399] inception_4d/output_inception_4d/output_0_split -> inception_4d/output_inception_4d/output_0_split_3
I0403 12:02:13.667762  1276 net.cpp:399] inception_4d/output_inception_4d/output_0_split -> inception_4d/output_inception_4d/output_0_split_4
I0403 12:02:13.667850  1276 net.cpp:141] Setting up inception_4d/output_inception_4d/output_0_split
I0403 12:02:13.667876  1276 net.cpp:148] Top shape: 24 528 14 14 (2483712)
I0403 12:02:13.667893  1276 net.cpp:148] Top shape: 24 528 14 14 (2483712)
I0403 12:02:13.667909  1276 net.cpp:148] Top shape: 24 528 14 14 (2483712)
I0403 12:02:13.667925  1276 net.cpp:148] Top shape: 24 528 14 14 (2483712)
I0403 12:02:13.667940  1276 net.cpp:148] Top shape: 24 528 14 14 (2483712)
I0403 12:02:13.667954  1276 net.cpp:156] Memory required for data: 1206918336
I0403 12:02:13.667968  1276 layer_factory.hpp:77] Creating layer loss2/ave_pool
I0403 12:02:13.667987  1276 net.cpp:91] Creating Layer loss2/ave_pool
I0403 12:02:13.668004  1276 net.cpp:425] loss2/ave_pool <- inception_4d/output_inception_4d/output_0_split_0
I0403 12:02:13.668022  1276 net.cpp:399] loss2/ave_pool -> loss2/ave_pool
I0403 12:02:13.668066  1276 net.cpp:141] Setting up loss2/ave_pool
I0403 12:02:13.668092  1276 net.cpp:148] Top shape: 24 528 4 4 (202752)
I0403 12:02:13.668107  1276 net.cpp:156] Memory required for data: 1207729344
I0403 12:02:13.668122  1276 layer_factory.hpp:77] Creating layer loss2/conv
I0403 12:02:13.668146  1276 net.cpp:91] Creating Layer loss2/conv
I0403 12:02:13.668164  1276 net.cpp:425] loss2/conv <- loss2/ave_pool
I0403 12:02:13.668189  1276 net.cpp:399] loss2/conv -> loss2/conv
I0403 12:02:13.669368  1276 net.cpp:141] Setting up loss2/conv
I0403 12:02:13.669399  1276 net.cpp:148] Top shape: 24 128 4 4 (49152)
I0403 12:02:13.669414  1276 net.cpp:156] Memory required for data: 1207925952
I0403 12:02:13.669433  1276 layer_factory.hpp:77] Creating layer loss2/relu_conv
I0403 12:02:13.669456  1276 net.cpp:91] Creating Layer loss2/relu_conv
I0403 12:02:13.669474  1276 net.cpp:425] loss2/relu_conv <- loss2/conv
I0403 12:02:13.669492  1276 net.cpp:386] loss2/relu_conv -> loss2/conv (in-place)
I0403 12:02:13.669512  1276 net.cpp:141] Setting up loss2/relu_conv
I0403 12:02:13.669530  1276 net.cpp:148] Top shape: 24 128 4 4 (49152)
I0403 12:02:13.669544  1276 net.cpp:156] Memory required for data: 1208122560
I0403 12:02:13.669559  1276 layer_factory.hpp:77] Creating layer loss2/fc
I0403 12:02:13.669582  1276 net.cpp:91] Creating Layer loss2/fc
I0403 12:02:13.669600  1276 net.cpp:425] loss2/fc <- loss2/conv
I0403 12:02:13.669620  1276 net.cpp:399] loss2/fc -> loss2/fc
I0403 12:02:13.685608  1276 net.cpp:141] Setting up loss2/fc
I0403 12:02:13.685655  1276 net.cpp:148] Top shape: 24 1024 (24576)
I0403 12:02:13.685672  1276 net.cpp:156] Memory required for data: 1208220864
I0403 12:02:13.685691  1276 layer_factory.hpp:77] Creating layer loss2/relu_fc
I0403 12:02:13.685714  1276 net.cpp:91] Creating Layer loss2/relu_fc
I0403 12:02:13.685732  1276 net.cpp:425] loss2/relu_fc <- loss2/fc
I0403 12:02:13.685751  1276 net.cpp:386] loss2/relu_fc -> loss2/fc (in-place)
I0403 12:02:13.685772  1276 net.cpp:141] Setting up loss2/relu_fc
I0403 12:02:13.685791  1276 net.cpp:148] Top shape: 24 1024 (24576)
I0403 12:02:13.685806  1276 net.cpp:156] Memory required for data: 1208319168
I0403 12:02:13.685819  1276 layer_factory.hpp:77] Creating layer loss2/drop_fc
I0403 12:02:13.685838  1276 net.cpp:91] Creating Layer loss2/drop_fc
I0403 12:02:13.685859  1276 net.cpp:425] loss2/drop_fc <- loss2/fc
I0403 12:02:13.685878  1276 net.cpp:386] loss2/drop_fc -> loss2/fc (in-place)
I0403 12:02:13.685922  1276 net.cpp:141] Setting up loss2/drop_fc
I0403 12:02:13.685945  1276 net.cpp:148] Top shape: 24 1024 (24576)
I0403 12:02:13.685958  1276 net.cpp:156] Memory required for data: 1208417472
I0403 12:02:13.685972  1276 layer_factory.hpp:77] Creating layer loss2/classifier_plantvillage
I0403 12:02:13.685997  1276 net.cpp:91] Creating Layer loss2/classifier_plantvillage
I0403 12:02:13.686014  1276 net.cpp:425] loss2/classifier_plantvillage <- loss2/fc
I0403 12:02:13.686036  1276 net.cpp:399] loss2/classifier_plantvillage -> loss2/classifier_plantvillage
I0403 12:02:13.686403  1276 net.cpp:141] Setting up loss2/classifier_plantvillage
I0403 12:02:13.686427  1276 net.cpp:148] Top shape: 24 38 (912)
I0403 12:02:13.686442  1276 net.cpp:156] Memory required for data: 1208421120
I0403 12:02:13.686460  1276 layer_factory.hpp:77] Creating layer loss2/classifier_plantvillage_loss2/classifier_plantvillage_0_split
I0403 12:02:13.686482  1276 net.cpp:91] Creating Layer loss2/classifier_plantvillage_loss2/classifier_plantvillage_0_split
I0403 12:02:13.686501  1276 net.cpp:425] loss2/classifier_plantvillage_loss2/classifier_plantvillage_0_split <- loss2/classifier_plantvillage
I0403 12:02:13.686519  1276 net.cpp:399] loss2/classifier_plantvillage_loss2/classifier_plantvillage_0_split -> loss2/classifier_plantvillage_loss2/classifier_plantvillage_0_split_0
I0403 12:02:13.686540  1276 net.cpp:399] loss2/classifier_plantvillage_loss2/classifier_plantvillage_0_split -> loss2/classifier_plantvillage_loss2/classifier_plantvillage_0_split_1
I0403 12:02:13.686561  1276 net.cpp:399] loss2/classifier_plantvillage_loss2/classifier_plantvillage_0_split -> loss2/classifier_plantvillage_loss2/classifier_plantvillage_0_split_2
I0403 12:02:13.686630  1276 net.cpp:141] Setting up loss2/classifier_plantvillage_loss2/classifier_plantvillage_0_split
I0403 12:02:13.686653  1276 net.cpp:148] Top shape: 24 38 (912)
I0403 12:02:13.686669  1276 net.cpp:148] Top shape: 24 38 (912)
I0403 12:02:13.686686  1276 net.cpp:148] Top shape: 24 38 (912)
I0403 12:02:13.686698  1276 net.cpp:156] Memory required for data: 1208432064
I0403 12:02:13.686713  1276 layer_factory.hpp:77] Creating layer inception_4e/1x1
I0403 12:02:13.686735  1276 net.cpp:91] Creating Layer inception_4e/1x1
I0403 12:02:13.686753  1276 net.cpp:425] inception_4e/1x1 <- inception_4d/output_inception_4d/output_0_split_1
I0403 12:02:13.686774  1276 net.cpp:399] inception_4e/1x1 -> inception_4e/1x1
I0403 12:02:13.687793  1276 net.cpp:141] Setting up inception_4e/1x1
I0403 12:02:13.687829  1276 net.cpp:148] Top shape: 24 256 14 14 (1204224)
I0403 12:02:13.687844  1276 net.cpp:156] Memory required for data: 1213248960
I0403 12:02:13.687862  1276 layer_factory.hpp:77] Creating layer inception_4e/relu_1x1
I0403 12:02:13.687891  1276 net.cpp:91] Creating Layer inception_4e/relu_1x1
I0403 12:02:13.687908  1276 net.cpp:425] inception_4e/relu_1x1 <- inception_4e/1x1
I0403 12:02:13.687929  1276 net.cpp:386] inception_4e/relu_1x1 -> inception_4e/1x1 (in-place)
I0403 12:02:13.687950  1276 net.cpp:141] Setting up inception_4e/relu_1x1
I0403 12:02:13.687988  1276 net.cpp:148] Top shape: 24 256 14 14 (1204224)
I0403 12:02:13.688004  1276 net.cpp:156] Memory required for data: 1218065856
I0403 12:02:13.688019  1276 layer_factory.hpp:77] Creating layer inception_4e/3x3_reduce
I0403 12:02:13.688042  1276 net.cpp:91] Creating Layer inception_4e/3x3_reduce
I0403 12:02:13.688060  1276 net.cpp:425] inception_4e/3x3_reduce <- inception_4d/output_inception_4d/output_0_split_2
I0403 12:02:13.688079  1276 net.cpp:399] inception_4e/3x3_reduce -> inception_4e/3x3_reduce
I0403 12:02:13.689371  1276 net.cpp:141] Setting up inception_4e/3x3_reduce
I0403 12:02:13.689400  1276 net.cpp:148] Top shape: 24 160 14 14 (752640)
I0403 12:02:13.689416  1276 net.cpp:156] Memory required for data: 1221076416
I0403 12:02:13.689435  1276 layer_factory.hpp:77] Creating layer inception_4e/relu_3x3_reduce
I0403 12:02:13.689455  1276 net.cpp:91] Creating Layer inception_4e/relu_3x3_reduce
I0403 12:02:13.689471  1276 net.cpp:425] inception_4e/relu_3x3_reduce <- inception_4e/3x3_reduce
I0403 12:02:13.689488  1276 net.cpp:386] inception_4e/relu_3x3_reduce -> inception_4e/3x3_reduce (in-place)
I0403 12:02:13.689508  1276 net.cpp:141] Setting up inception_4e/relu_3x3_reduce
I0403 12:02:13.689527  1276 net.cpp:148] Top shape: 24 160 14 14 (752640)
I0403 12:02:13.689540  1276 net.cpp:156] Memory required for data: 1224086976
I0403 12:02:13.689555  1276 layer_factory.hpp:77] Creating layer inception_4e/3x3
I0403 12:02:13.689579  1276 net.cpp:91] Creating Layer inception_4e/3x3
I0403 12:02:13.689597  1276 net.cpp:425] inception_4e/3x3 <- inception_4e/3x3_reduce
I0403 12:02:13.689620  1276 net.cpp:399] inception_4e/3x3 -> inception_4e/3x3
I0403 12:02:13.693444  1276 net.cpp:141] Setting up inception_4e/3x3
I0403 12:02:13.693471  1276 net.cpp:148] Top shape: 24 320 14 14 (1505280)
I0403 12:02:13.693487  1276 net.cpp:156] Memory required for data: 1230108096
I0403 12:02:13.693505  1276 layer_factory.hpp:77] Creating layer inception_4e/relu_3x3
I0403 12:02:13.693523  1276 net.cpp:91] Creating Layer inception_4e/relu_3x3
I0403 12:02:13.693539  1276 net.cpp:425] inception_4e/relu_3x3 <- inception_4e/3x3
I0403 12:02:13.693559  1276 net.cpp:386] inception_4e/relu_3x3 -> inception_4e/3x3 (in-place)
I0403 12:02:13.693580  1276 net.cpp:141] Setting up inception_4e/relu_3x3
I0403 12:02:13.693598  1276 net.cpp:148] Top shape: 24 320 14 14 (1505280)
I0403 12:02:13.693611  1276 net.cpp:156] Memory required for data: 1236129216
I0403 12:02:13.693625  1276 layer_factory.hpp:77] Creating layer inception_4e/5x5_reduce
I0403 12:02:13.693650  1276 net.cpp:91] Creating Layer inception_4e/5x5_reduce
I0403 12:02:13.693667  1276 net.cpp:425] inception_4e/5x5_reduce <- inception_4d/output_inception_4d/output_0_split_3
I0403 12:02:13.693686  1276 net.cpp:399] inception_4e/5x5_reduce -> inception_4e/5x5_reduce
I0403 12:02:13.694526  1276 net.cpp:141] Setting up inception_4e/5x5_reduce
I0403 12:02:13.694555  1276 net.cpp:148] Top shape: 24 32 14 14 (150528)
I0403 12:02:13.694569  1276 net.cpp:156] Memory required for data: 1236731328
I0403 12:02:13.694587  1276 layer_factory.hpp:77] Creating layer inception_4e/relu_5x5_reduce
I0403 12:02:13.694607  1276 net.cpp:91] Creating Layer inception_4e/relu_5x5_reduce
I0403 12:02:13.694622  1276 net.cpp:425] inception_4e/relu_5x5_reduce <- inception_4e/5x5_reduce
I0403 12:02:13.694640  1276 net.cpp:386] inception_4e/relu_5x5_reduce -> inception_4e/5x5_reduce (in-place)
I0403 12:02:13.694664  1276 net.cpp:141] Setting up inception_4e/relu_5x5_reduce
I0403 12:02:13.694689  1276 net.cpp:148] Top shape: 24 32 14 14 (150528)
I0403 12:02:13.694707  1276 net.cpp:156] Memory required for data: 1237333440
I0403 12:02:13.694726  1276 layer_factory.hpp:77] Creating layer inception_4e/5x5
I0403 12:02:13.694772  1276 net.cpp:91] Creating Layer inception_4e/5x5
I0403 12:02:13.694792  1276 net.cpp:425] inception_4e/5x5 <- inception_4e/5x5_reduce
I0403 12:02:13.694816  1276 net.cpp:399] inception_4e/5x5 -> inception_4e/5x5
I0403 12:02:13.695587  1276 net.cpp:141] Setting up inception_4e/5x5
I0403 12:02:13.695626  1276 net.cpp:148] Top shape: 24 128 14 14 (602112)
I0403 12:02:13.695641  1276 net.cpp:156] Memory required for data: 1239741888
I0403 12:02:13.695659  1276 layer_factory.hpp:77] Creating layer inception_4e/relu_5x5
I0403 12:02:13.695679  1276 net.cpp:91] Creating Layer inception_4e/relu_5x5
I0403 12:02:13.695696  1276 net.cpp:425] inception_4e/relu_5x5 <- inception_4e/5x5
I0403 12:02:13.695716  1276 net.cpp:386] inception_4e/relu_5x5 -> inception_4e/5x5 (in-place)
I0403 12:02:13.695737  1276 net.cpp:141] Setting up inception_4e/relu_5x5
I0403 12:02:13.695755  1276 net.cpp:148] Top shape: 24 128 14 14 (602112)
I0403 12:02:13.695770  1276 net.cpp:156] Memory required for data: 1242150336
I0403 12:02:13.695783  1276 layer_factory.hpp:77] Creating layer inception_4e/pool
I0403 12:02:13.695802  1276 net.cpp:91] Creating Layer inception_4e/pool
I0403 12:02:13.695818  1276 net.cpp:425] inception_4e/pool <- inception_4d/output_inception_4d/output_0_split_4
I0403 12:02:13.695838  1276 net.cpp:399] inception_4e/pool -> inception_4e/pool
I0403 12:02:13.695893  1276 net.cpp:141] Setting up inception_4e/pool
I0403 12:02:13.695915  1276 net.cpp:148] Top shape: 24 528 14 14 (2483712)
I0403 12:02:13.695930  1276 net.cpp:156] Memory required for data: 1252085184
I0403 12:02:13.695945  1276 layer_factory.hpp:77] Creating layer inception_4e/pool_proj
I0403 12:02:13.695969  1276 net.cpp:91] Creating Layer inception_4e/pool_proj
I0403 12:02:13.695987  1276 net.cpp:425] inception_4e/pool_proj <- inception_4e/pool
I0403 12:02:13.696008  1276 net.cpp:399] inception_4e/pool_proj -> inception_4e/pool_proj
I0403 12:02:13.696615  1276 net.cpp:141] Setting up inception_4e/pool_proj
I0403 12:02:13.696642  1276 net.cpp:148] Top shape: 24 128 14 14 (602112)
I0403 12:02:13.696661  1276 net.cpp:156] Memory required for data: 1254493632
I0403 12:02:13.696679  1276 layer_factory.hpp:77] Creating layer inception_4e/relu_pool_proj
I0403 12:02:13.696698  1276 net.cpp:91] Creating Layer inception_4e/relu_pool_proj
I0403 12:02:13.696715  1276 net.cpp:425] inception_4e/relu_pool_proj <- inception_4e/pool_proj
I0403 12:02:13.696733  1276 net.cpp:386] inception_4e/relu_pool_proj -> inception_4e/pool_proj (in-place)
I0403 12:02:13.696753  1276 net.cpp:141] Setting up inception_4e/relu_pool_proj
I0403 12:02:13.696770  1276 net.cpp:148] Top shape: 24 128 14 14 (602112)
I0403 12:02:13.696784  1276 net.cpp:156] Memory required for data: 1256902080
I0403 12:02:13.696799  1276 layer_factory.hpp:77] Creating layer inception_4e/output
I0403 12:02:13.696816  1276 net.cpp:91] Creating Layer inception_4e/output
I0403 12:02:13.696832  1276 net.cpp:425] inception_4e/output <- inception_4e/1x1
I0403 12:02:13.696848  1276 net.cpp:425] inception_4e/output <- inception_4e/3x3
I0403 12:02:13.696864  1276 net.cpp:425] inception_4e/output <- inception_4e/5x5
I0403 12:02:13.696880  1276 net.cpp:425] inception_4e/output <- inception_4e/pool_proj
I0403 12:02:13.696900  1276 net.cpp:399] inception_4e/output -> inception_4e/output
I0403 12:02:13.696941  1276 net.cpp:141] Setting up inception_4e/output
I0403 12:02:13.696967  1276 net.cpp:148] Top shape: 24 832 14 14 (3913728)
I0403 12:02:13.696984  1276 net.cpp:156] Memory required for data: 1272556992
I0403 12:02:13.696998  1276 layer_factory.hpp:77] Creating layer pool4/3x3_s2
I0403 12:02:13.697016  1276 net.cpp:91] Creating Layer pool4/3x3_s2
I0403 12:02:13.697032  1276 net.cpp:425] pool4/3x3_s2 <- inception_4e/output
I0403 12:02:13.697051  1276 net.cpp:399] pool4/3x3_s2 -> pool4/3x3_s2
I0403 12:02:13.697118  1276 net.cpp:141] Setting up pool4/3x3_s2
I0403 12:02:13.697142  1276 net.cpp:148] Top shape: 24 832 7 7 (978432)
I0403 12:02:13.697157  1276 net.cpp:156] Memory required for data: 1276470720
I0403 12:02:13.697172  1276 layer_factory.hpp:77] Creating layer pool4/3x3_s2_pool4/3x3_s2_0_split
I0403 12:02:13.697190  1276 net.cpp:91] Creating Layer pool4/3x3_s2_pool4/3x3_s2_0_split
I0403 12:02:13.697207  1276 net.cpp:425] pool4/3x3_s2_pool4/3x3_s2_0_split <- pool4/3x3_s2
I0403 12:02:13.697242  1276 net.cpp:399] pool4/3x3_s2_pool4/3x3_s2_0_split -> pool4/3x3_s2_pool4/3x3_s2_0_split_0
I0403 12:02:13.697264  1276 net.cpp:399] pool4/3x3_s2_pool4/3x3_s2_0_split -> pool4/3x3_s2_pool4/3x3_s2_0_split_1
I0403 12:02:13.697288  1276 net.cpp:399] pool4/3x3_s2_pool4/3x3_s2_0_split -> pool4/3x3_s2_pool4/3x3_s2_0_split_2
I0403 12:02:13.697309  1276 net.cpp:399] pool4/3x3_s2_pool4/3x3_s2_0_split -> pool4/3x3_s2_pool4/3x3_s2_0_split_3
I0403 12:02:13.697394  1276 net.cpp:141] Setting up pool4/3x3_s2_pool4/3x3_s2_0_split
I0403 12:02:13.697417  1276 net.cpp:148] Top shape: 24 832 7 7 (978432)
I0403 12:02:13.697433  1276 net.cpp:148] Top shape: 24 832 7 7 (978432)
I0403 12:02:13.697448  1276 net.cpp:148] Top shape: 24 832 7 7 (978432)
I0403 12:02:13.697463  1276 net.cpp:148] Top shape: 24 832 7 7 (978432)
I0403 12:02:13.697477  1276 net.cpp:156] Memory required for data: 1292125632
I0403 12:02:13.697491  1276 layer_factory.hpp:77] Creating layer inception_5a/1x1
I0403 12:02:13.697515  1276 net.cpp:91] Creating Layer inception_5a/1x1
I0403 12:02:13.697532  1276 net.cpp:425] inception_5a/1x1 <- pool4/3x3_s2_pool4/3x3_s2_0_split_0
I0403 12:02:13.697552  1276 net.cpp:399] inception_5a/1x1 -> inception_5a/1x1
I0403 12:02:13.699441  1276 net.cpp:141] Setting up inception_5a/1x1
I0403 12:02:13.699470  1276 net.cpp:148] Top shape: 24 256 7 7 (301056)
I0403 12:02:13.699486  1276 net.cpp:156] Memory required for data: 1293329856
I0403 12:02:13.699503  1276 layer_factory.hpp:77] Creating layer inception_5a/relu_1x1
I0403 12:02:13.699522  1276 net.cpp:91] Creating Layer inception_5a/relu_1x1
I0403 12:02:13.699539  1276 net.cpp:425] inception_5a/relu_1x1 <- inception_5a/1x1
I0403 12:02:13.699559  1276 net.cpp:386] inception_5a/relu_1x1 -> inception_5a/1x1 (in-place)
I0403 12:02:13.699579  1276 net.cpp:141] Setting up inception_5a/relu_1x1
I0403 12:02:13.699597  1276 net.cpp:148] Top shape: 24 256 7 7 (301056)
I0403 12:02:13.699612  1276 net.cpp:156] Memory required for data: 1294534080
I0403 12:02:13.699626  1276 layer_factory.hpp:77] Creating layer inception_5a/3x3_reduce
I0403 12:02:13.699651  1276 net.cpp:91] Creating Layer inception_5a/3x3_reduce
I0403 12:02:13.699668  1276 net.cpp:425] inception_5a/3x3_reduce <- pool4/3x3_s2_pool4/3x3_s2_0_split_1
I0403 12:02:13.699687  1276 net.cpp:399] inception_5a/3x3_reduce -> inception_5a/3x3_reduce
I0403 12:02:13.701184  1276 net.cpp:141] Setting up inception_5a/3x3_reduce
I0403 12:02:13.701212  1276 net.cpp:148] Top shape: 24 160 7 7 (188160)
I0403 12:02:13.701258  1276 net.cpp:156] Memory required for data: 1295286720
I0403 12:02:13.701280  1276 layer_factory.hpp:77] Creating layer inception_5a/relu_3x3_reduce
I0403 12:02:13.701300  1276 net.cpp:91] Creating Layer inception_5a/relu_3x3_reduce
I0403 12:02:13.701318  1276 net.cpp:425] inception_5a/relu_3x3_reduce <- inception_5a/3x3_reduce
I0403 12:02:13.701339  1276 net.cpp:386] inception_5a/relu_3x3_reduce -> inception_5a/3x3_reduce (in-place)
I0403 12:02:13.701360  1276 net.cpp:141] Setting up inception_5a/relu_3x3_reduce
I0403 12:02:13.701378  1276 net.cpp:148] Top shape: 24 160 7 7 (188160)
I0403 12:02:13.701393  1276 net.cpp:156] Memory required for data: 1296039360
I0403 12:02:13.701407  1276 layer_factory.hpp:77] Creating layer inception_5a/3x3
I0403 12:02:13.701431  1276 net.cpp:91] Creating Layer inception_5a/3x3
I0403 12:02:13.701450  1276 net.cpp:425] inception_5a/3x3 <- inception_5a/3x3_reduce
I0403 12:02:13.701470  1276 net.cpp:399] inception_5a/3x3 -> inception_5a/3x3
I0403 12:02:13.706539  1276 net.cpp:141] Setting up inception_5a/3x3
I0403 12:02:13.706575  1276 net.cpp:148] Top shape: 24 320 7 7 (376320)
I0403 12:02:13.706591  1276 net.cpp:156] Memory required for data: 1297544640
I0403 12:02:13.706610  1276 layer_factory.hpp:77] Creating layer inception_5a/relu_3x3
I0403 12:02:13.706629  1276 net.cpp:91] Creating Layer inception_5a/relu_3x3
I0403 12:02:13.706645  1276 net.cpp:425] inception_5a/relu_3x3 <- inception_5a/3x3
I0403 12:02:13.706663  1276 net.cpp:386] inception_5a/relu_3x3 -> inception_5a/3x3 (in-place)
I0403 12:02:13.706703  1276 net.cpp:141] Setting up inception_5a/relu_3x3
I0403 12:02:13.706722  1276 net.cpp:148] Top shape: 24 320 7 7 (376320)
I0403 12:02:13.706737  1276 net.cpp:156] Memory required for data: 1299049920
I0403 12:02:13.706750  1276 layer_factory.hpp:77] Creating layer inception_5a/5x5_reduce
I0403 12:02:13.706774  1276 net.cpp:91] Creating Layer inception_5a/5x5_reduce
I0403 12:02:13.706792  1276 net.cpp:425] inception_5a/5x5_reduce <- pool4/3x3_s2_pool4/3x3_s2_0_split_2
I0403 12:02:13.706815  1276 net.cpp:399] inception_5a/5x5_reduce -> inception_5a/5x5_reduce
I0403 12:02:13.707185  1276 net.cpp:141] Setting up inception_5a/5x5_reduce
I0403 12:02:13.707208  1276 net.cpp:148] Top shape: 24 32 7 7 (37632)
I0403 12:02:13.707223  1276 net.cpp:156] Memory required for data: 1299200448
I0403 12:02:13.707239  1276 layer_factory.hpp:77] Creating layer inception_5a/relu_5x5_reduce
I0403 12:02:13.707257  1276 net.cpp:91] Creating Layer inception_5a/relu_5x5_reduce
I0403 12:02:13.707274  1276 net.cpp:425] inception_5a/relu_5x5_reduce <- inception_5a/5x5_reduce
I0403 12:02:13.707293  1276 net.cpp:386] inception_5a/relu_5x5_reduce -> inception_5a/5x5_reduce (in-place)
I0403 12:02:13.707312  1276 net.cpp:141] Setting up inception_5a/relu_5x5_reduce
I0403 12:02:13.707345  1276 net.cpp:148] Top shape: 24 32 7 7 (37632)
I0403 12:02:13.707361  1276 net.cpp:156] Memory required for data: 1299350976
I0403 12:02:13.707376  1276 layer_factory.hpp:77] Creating layer inception_5a/5x5
I0403 12:02:13.707396  1276 net.cpp:91] Creating Layer inception_5a/5x5
I0403 12:02:13.707414  1276 net.cpp:425] inception_5a/5x5 <- inception_5a/5x5_reduce
I0403 12:02:13.707437  1276 net.cpp:399] inception_5a/5x5 -> inception_5a/5x5
I0403 12:02:13.708286  1276 net.cpp:141] Setting up inception_5a/5x5
I0403 12:02:13.708313  1276 net.cpp:148] Top shape: 24 128 7 7 (150528)
I0403 12:02:13.708348  1276 net.cpp:156] Memory required for data: 1299953088
I0403 12:02:13.708369  1276 layer_factory.hpp:77] Creating layer inception_5a/relu_5x5
I0403 12:02:13.708389  1276 net.cpp:91] Creating Layer inception_5a/relu_5x5
I0403 12:02:13.708417  1276 net.cpp:425] inception_5a/relu_5x5 <- inception_5a/5x5
I0403 12:02:13.708436  1276 net.cpp:386] inception_5a/relu_5x5 -> inception_5a/5x5 (in-place)
I0403 12:02:13.708456  1276 net.cpp:141] Setting up inception_5a/relu_5x5
I0403 12:02:13.708474  1276 net.cpp:148] Top shape: 24 128 7 7 (150528)
I0403 12:02:13.708489  1276 net.cpp:156] Memory required for data: 1300555200
I0403 12:02:13.708504  1276 layer_factory.hpp:77] Creating layer inception_5a/pool
I0403 12:02:13.708523  1276 net.cpp:91] Creating Layer inception_5a/pool
I0403 12:02:13.708539  1276 net.cpp:425] inception_5a/pool <- pool4/3x3_s2_pool4/3x3_s2_0_split_3
I0403 12:02:13.708561  1276 net.cpp:399] inception_5a/pool -> inception_5a/pool
I0403 12:02:13.708616  1276 net.cpp:141] Setting up inception_5a/pool
I0403 12:02:13.708642  1276 net.cpp:148] Top shape: 24 832 7 7 (978432)
I0403 12:02:13.708657  1276 net.cpp:156] Memory required for data: 1304468928
I0403 12:02:13.708672  1276 layer_factory.hpp:77] Creating layer inception_5a/pool_proj
I0403 12:02:13.708709  1276 net.cpp:91] Creating Layer inception_5a/pool_proj
I0403 12:02:13.708727  1276 net.cpp:425] inception_5a/pool_proj <- inception_5a/pool
I0403 12:02:13.708750  1276 net.cpp:399] inception_5a/pool_proj -> inception_5a/pool_proj
I0403 12:02:13.710078  1276 net.cpp:141] Setting up inception_5a/pool_proj
I0403 12:02:13.710108  1276 net.cpp:148] Top shape: 24 128 7 7 (150528)
I0403 12:02:13.710124  1276 net.cpp:156] Memory required for data: 1305071040
I0403 12:02:13.710142  1276 layer_factory.hpp:77] Creating layer inception_5a/relu_pool_proj
I0403 12:02:13.710161  1276 net.cpp:91] Creating Layer inception_5a/relu_pool_proj
I0403 12:02:13.710178  1276 net.cpp:425] inception_5a/relu_pool_proj <- inception_5a/pool_proj
I0403 12:02:13.710196  1276 net.cpp:386] inception_5a/relu_pool_proj -> inception_5a/pool_proj (in-place)
I0403 12:02:13.710216  1276 net.cpp:141] Setting up inception_5a/relu_pool_proj
I0403 12:02:13.710253  1276 net.cpp:148] Top shape: 24 128 7 7 (150528)
I0403 12:02:13.710268  1276 net.cpp:156] Memory required for data: 1305673152
I0403 12:02:13.710283  1276 layer_factory.hpp:77] Creating layer inception_5a/output
I0403 12:02:13.710304  1276 net.cpp:91] Creating Layer inception_5a/output
I0403 12:02:13.710321  1276 net.cpp:425] inception_5a/output <- inception_5a/1x1
I0403 12:02:13.710343  1276 net.cpp:425] inception_5a/output <- inception_5a/3x3
I0403 12:02:13.710363  1276 net.cpp:425] inception_5a/output <- inception_5a/5x5
I0403 12:02:13.710381  1276 net.cpp:425] inception_5a/output <- inception_5a/pool_proj
I0403 12:02:13.710398  1276 net.cpp:399] inception_5a/output -> inception_5a/output
I0403 12:02:13.710438  1276 net.cpp:141] Setting up inception_5a/output
I0403 12:02:13.710464  1276 net.cpp:148] Top shape: 24 832 7 7 (978432)
I0403 12:02:13.710479  1276 net.cpp:156] Memory required for data: 1309586880
I0403 12:02:13.710492  1276 layer_factory.hpp:77] Creating layer inception_5a/output_inception_5a/output_0_split
I0403 12:02:13.710511  1276 net.cpp:91] Creating Layer inception_5a/output_inception_5a/output_0_split
I0403 12:02:13.710528  1276 net.cpp:425] inception_5a/output_inception_5a/output_0_split <- inception_5a/output
I0403 12:02:13.710547  1276 net.cpp:399] inception_5a/output_inception_5a/output_0_split -> inception_5a/output_inception_5a/output_0_split_0
I0403 12:02:13.710569  1276 net.cpp:399] inception_5a/output_inception_5a/output_0_split -> inception_5a/output_inception_5a/output_0_split_1
I0403 12:02:13.710597  1276 net.cpp:399] inception_5a/output_inception_5a/output_0_split -> inception_5a/output_inception_5a/output_0_split_2
I0403 12:02:13.710619  1276 net.cpp:399] inception_5a/output_inception_5a/output_0_split -> inception_5a/output_inception_5a/output_0_split_3
I0403 12:02:13.710690  1276 net.cpp:141] Setting up inception_5a/output_inception_5a/output_0_split
I0403 12:02:13.710712  1276 net.cpp:148] Top shape: 24 832 7 7 (978432)
I0403 12:02:13.710728  1276 net.cpp:148] Top shape: 24 832 7 7 (978432)
I0403 12:02:13.710743  1276 net.cpp:148] Top shape: 24 832 7 7 (978432)
I0403 12:02:13.710758  1276 net.cpp:148] Top shape: 24 832 7 7 (978432)
I0403 12:02:13.710772  1276 net.cpp:156] Memory required for data: 1325241792
I0403 12:02:13.710785  1276 layer_factory.hpp:77] Creating layer inception_5b/1x1
I0403 12:02:13.710809  1276 net.cpp:91] Creating Layer inception_5b/1x1
I0403 12:02:13.710830  1276 net.cpp:425] inception_5b/1x1 <- inception_5a/output_inception_5a/output_0_split_0
I0403 12:02:13.710851  1276 net.cpp:399] inception_5b/1x1 -> inception_5b/1x1
I0403 12:02:13.713412  1276 net.cpp:141] Setting up inception_5b/1x1
I0403 12:02:13.713440  1276 net.cpp:148] Top shape: 24 384 7 7 (451584)
I0403 12:02:13.713457  1276 net.cpp:156] Memory required for data: 1327048128
I0403 12:02:13.713476  1276 layer_factory.hpp:77] Creating layer inception_5b/relu_1x1
I0403 12:02:13.713496  1276 net.cpp:91] Creating Layer inception_5b/relu_1x1
I0403 12:02:13.713513  1276 net.cpp:425] inception_5b/relu_1x1 <- inception_5b/1x1
I0403 12:02:13.713532  1276 net.cpp:386] inception_5b/relu_1x1 -> inception_5b/1x1 (in-place)
I0403 12:02:13.713552  1276 net.cpp:141] Setting up inception_5b/relu_1x1
I0403 12:02:13.713569  1276 net.cpp:148] Top shape: 24 384 7 7 (451584)
I0403 12:02:13.713584  1276 net.cpp:156] Memory required for data: 1328854464
I0403 12:02:13.713598  1276 layer_factory.hpp:77] Creating layer inception_5b/3x3_reduce
I0403 12:02:13.713624  1276 net.cpp:91] Creating Layer inception_5b/3x3_reduce
I0403 12:02:13.713649  1276 net.cpp:425] inception_5b/3x3_reduce <- inception_5a/output_inception_5a/output_0_split_1
I0403 12:02:13.713677  1276 net.cpp:399] inception_5b/3x3_reduce -> inception_5b/3x3_reduce
I0403 12:02:13.715289  1276 net.cpp:141] Setting up inception_5b/3x3_reduce
I0403 12:02:13.715317  1276 net.cpp:148] Top shape: 24 192 7 7 (225792)
I0403 12:02:13.715339  1276 net.cpp:156] Memory required for data: 1329757632
I0403 12:02:13.715363  1276 layer_factory.hpp:77] Creating layer inception_5b/relu_3x3_reduce
I0403 12:02:13.715402  1276 net.cpp:91] Creating Layer inception_5b/relu_3x3_reduce
I0403 12:02:13.715426  1276 net.cpp:425] inception_5b/relu_3x3_reduce <- inception_5b/3x3_reduce
I0403 12:02:13.715447  1276 net.cpp:386] inception_5b/relu_3x3_reduce -> inception_5b/3x3_reduce (in-place)
I0403 12:02:13.715468  1276 net.cpp:141] Setting up inception_5b/relu_3x3_reduce
I0403 12:02:13.715489  1276 net.cpp:148] Top shape: 24 192 7 7 (225792)
I0403 12:02:13.715503  1276 net.cpp:156] Memory required for data: 1330660800
I0403 12:02:13.715517  1276 layer_factory.hpp:77] Creating layer inception_5b/3x3
I0403 12:02:13.715541  1276 net.cpp:91] Creating Layer inception_5b/3x3
I0403 12:02:13.715559  1276 net.cpp:425] inception_5b/3x3 <- inception_5b/3x3_reduce
I0403 12:02:13.715580  1276 net.cpp:399] inception_5b/3x3 -> inception_5b/3x3
I0403 12:02:13.720798  1276 net.cpp:141] Setting up inception_5b/3x3
I0403 12:02:13.720826  1276 net.cpp:148] Top shape: 24 384 7 7 (451584)
I0403 12:02:13.720842  1276 net.cpp:156] Memory required for data: 1332467136
I0403 12:02:13.720860  1276 layer_factory.hpp:77] Creating layer inception_5b/relu_3x3
I0403 12:02:13.720880  1276 net.cpp:91] Creating Layer inception_5b/relu_3x3
I0403 12:02:13.720906  1276 net.cpp:425] inception_5b/relu_3x3 <- inception_5b/3x3
I0403 12:02:13.720928  1276 net.cpp:386] inception_5b/relu_3x3 -> inception_5b/3x3 (in-place)
I0403 12:02:13.720954  1276 net.cpp:141] Setting up inception_5b/relu_3x3
I0403 12:02:13.720978  1276 net.cpp:148] Top shape: 24 384 7 7 (451584)
I0403 12:02:13.720991  1276 net.cpp:156] Memory required for data: 1334273472
I0403 12:02:13.721009  1276 layer_factory.hpp:77] Creating layer inception_5b/5x5_reduce
I0403 12:02:13.721034  1276 net.cpp:91] Creating Layer inception_5b/5x5_reduce
I0403 12:02:13.721052  1276 net.cpp:425] inception_5b/5x5_reduce <- inception_5a/output_inception_5a/output_0_split_2
I0403 12:02:13.721072  1276 net.cpp:399] inception_5b/5x5_reduce -> inception_5b/5x5_reduce
I0403 12:02:13.722036  1276 net.cpp:141] Setting up inception_5b/5x5_reduce
I0403 12:02:13.722065  1276 net.cpp:148] Top shape: 24 48 7 7 (56448)
I0403 12:02:13.722084  1276 net.cpp:156] Memory required for data: 1334499264
I0403 12:02:13.722101  1276 layer_factory.hpp:77] Creating layer inception_5b/relu_5x5_reduce
I0403 12:02:13.722121  1276 net.cpp:91] Creating Layer inception_5b/relu_5x5_reduce
I0403 12:02:13.722138  1276 net.cpp:425] inception_5b/relu_5x5_reduce <- inception_5b/5x5_reduce
I0403 12:02:13.722158  1276 net.cpp:386] inception_5b/relu_5x5_reduce -> inception_5b/5x5_reduce (in-place)
I0403 12:02:13.722180  1276 net.cpp:141] Setting up inception_5b/relu_5x5_reduce
I0403 12:02:13.722198  1276 net.cpp:148] Top shape: 24 48 7 7 (56448)
I0403 12:02:13.722213  1276 net.cpp:156] Memory required for data: 1334725056
I0403 12:02:13.722226  1276 layer_factory.hpp:77] Creating layer inception_5b/5x5
I0403 12:02:13.722252  1276 net.cpp:91] Creating Layer inception_5b/5x5
I0403 12:02:13.722271  1276 net.cpp:425] inception_5b/5x5 <- inception_5b/5x5_reduce
I0403 12:02:13.722290  1276 net.cpp:399] inception_5b/5x5 -> inception_5b/5x5
I0403 12:02:13.723366  1276 net.cpp:141] Setting up inception_5b/5x5
I0403 12:02:13.723390  1276 net.cpp:148] Top shape: 24 128 7 7 (150528)
I0403 12:02:13.723405  1276 net.cpp:156] Memory required for data: 1335327168
I0403 12:02:13.723423  1276 layer_factory.hpp:77] Creating layer inception_5b/relu_5x5
I0403 12:02:13.723443  1276 net.cpp:91] Creating Layer inception_5b/relu_5x5
I0403 12:02:13.723459  1276 net.cpp:425] inception_5b/relu_5x5 <- inception_5b/5x5
I0403 12:02:13.723476  1276 net.cpp:386] inception_5b/relu_5x5 -> inception_5b/5x5 (in-place)
I0403 12:02:13.723495  1276 net.cpp:141] Setting up inception_5b/relu_5x5
I0403 12:02:13.723512  1276 net.cpp:148] Top shape: 24 128 7 7 (150528)
I0403 12:02:13.723527  1276 net.cpp:156] Memory required for data: 1335929280
I0403 12:02:13.723541  1276 layer_factory.hpp:77] Creating layer inception_5b/pool
I0403 12:02:13.723562  1276 net.cpp:91] Creating Layer inception_5b/pool
I0403 12:02:13.723593  1276 net.cpp:425] inception_5b/pool <- inception_5a/output_inception_5a/output_0_split_3
I0403 12:02:13.723613  1276 net.cpp:399] inception_5b/pool -> inception_5b/pool
I0403 12:02:13.723670  1276 net.cpp:141] Setting up inception_5b/pool
I0403 12:02:13.723693  1276 net.cpp:148] Top shape: 24 832 7 7 (978432)
I0403 12:02:13.723708  1276 net.cpp:156] Memory required for data: 1339843008
I0403 12:02:13.723722  1276 layer_factory.hpp:77] Creating layer inception_5b/pool_proj
I0403 12:02:13.723745  1276 net.cpp:91] Creating Layer inception_5b/pool_proj
I0403 12:02:13.723764  1276 net.cpp:425] inception_5b/pool_proj <- inception_5b/pool
I0403 12:02:13.723786  1276 net.cpp:399] inception_5b/pool_proj -> inception_5b/pool_proj
I0403 12:02:13.725215  1276 net.cpp:141] Setting up inception_5b/pool_proj
I0403 12:02:13.725244  1276 net.cpp:148] Top shape: 24 128 7 7 (150528)
I0403 12:02:13.725260  1276 net.cpp:156] Memory required for data: 1340445120
I0403 12:02:13.725278  1276 layer_factory.hpp:77] Creating layer inception_5b/relu_pool_proj
I0403 12:02:13.725296  1276 net.cpp:91] Creating Layer inception_5b/relu_pool_proj
I0403 12:02:13.725313  1276 net.cpp:425] inception_5b/relu_pool_proj <- inception_5b/pool_proj
I0403 12:02:13.725338  1276 net.cpp:386] inception_5b/relu_pool_proj -> inception_5b/pool_proj (in-place)
I0403 12:02:13.725361  1276 net.cpp:141] Setting up inception_5b/relu_pool_proj
I0403 12:02:13.725380  1276 net.cpp:148] Top shape: 24 128 7 7 (150528)
I0403 12:02:13.725394  1276 net.cpp:156] Memory required for data: 1341047232
I0403 12:02:13.725409  1276 layer_factory.hpp:77] Creating layer inception_5b/output
I0403 12:02:13.725427  1276 net.cpp:91] Creating Layer inception_5b/output
I0403 12:02:13.725443  1276 net.cpp:425] inception_5b/output <- inception_5b/1x1
I0403 12:02:13.725461  1276 net.cpp:425] inception_5b/output <- inception_5b/3x3
I0403 12:02:13.725476  1276 net.cpp:425] inception_5b/output <- inception_5b/5x5
I0403 12:02:13.725492  1276 net.cpp:425] inception_5b/output <- inception_5b/pool_proj
I0403 12:02:13.725512  1276 net.cpp:399] inception_5b/output -> inception_5b/output
I0403 12:02:13.725553  1276 net.cpp:141] Setting up inception_5b/output
I0403 12:02:13.725575  1276 net.cpp:148] Top shape: 24 1024 7 7 (1204224)
I0403 12:02:13.725590  1276 net.cpp:156] Memory required for data: 1345864128
I0403 12:02:13.725605  1276 layer_factory.hpp:77] Creating layer pool5/7x7_s1
I0403 12:02:13.725625  1276 net.cpp:91] Creating Layer pool5/7x7_s1
I0403 12:02:13.725643  1276 net.cpp:425] pool5/7x7_s1 <- inception_5b/output
I0403 12:02:13.725661  1276 net.cpp:399] pool5/7x7_s1 -> pool5/7x7_s1
I0403 12:02:13.725703  1276 net.cpp:141] Setting up pool5/7x7_s1
I0403 12:02:13.725725  1276 net.cpp:148] Top shape: 24 1024 1 1 (24576)
I0403 12:02:13.725740  1276 net.cpp:156] Memory required for data: 1345962432
I0403 12:02:13.725754  1276 layer_factory.hpp:77] Creating layer pool5/drop_7x7_s1
I0403 12:02:13.725774  1276 net.cpp:91] Creating Layer pool5/drop_7x7_s1
I0403 12:02:13.725790  1276 net.cpp:425] pool5/drop_7x7_s1 <- pool5/7x7_s1
I0403 12:02:13.725811  1276 net.cpp:386] pool5/drop_7x7_s1 -> pool5/7x7_s1 (in-place)
I0403 12:02:13.725850  1276 net.cpp:141] Setting up pool5/drop_7x7_s1
I0403 12:02:13.725875  1276 net.cpp:148] Top shape: 24 1024 1 1 (24576)
I0403 12:02:13.725891  1276 net.cpp:156] Memory required for data: 1346060736
I0403 12:02:13.725905  1276 layer_factory.hpp:77] Creating layer loss3/classifier_plantvillage
I0403 12:02:13.725926  1276 net.cpp:91] Creating Layer loss3/classifier_plantvillage
I0403 12:02:13.725942  1276 net.cpp:425] loss3/classifier_plantvillage <- pool5/7x7_s1
I0403 12:02:13.725965  1276 net.cpp:399] loss3/classifier_plantvillage -> loss3/classifier_plantvillage
I0403 12:02:13.726296  1276 net.cpp:141] Setting up loss3/classifier_plantvillage
I0403 12:02:13.726321  1276 net.cpp:148] Top shape: 24 38 (912)
I0403 12:02:13.726348  1276 net.cpp:156] Memory required for data: 1346064384
I0403 12:02:13.726368  1276 layer_factory.hpp:77] Creating layer loss3/classifier_plantvillage_loss3/classifier_plantvillage_0_split
I0403 12:02:13.726411  1276 net.cpp:91] Creating Layer loss3/classifier_plantvillage_loss3/classifier_plantvillage_0_split
I0403 12:02:13.726434  1276 net.cpp:425] loss3/classifier_plantvillage_loss3/classifier_plantvillage_0_split <- loss3/classifier_plantvillage
I0403 12:02:13.726454  1276 net.cpp:399] loss3/classifier_plantvillage_loss3/classifier_plantvillage_0_split -> loss3/classifier_plantvillage_loss3/classifier_plantvillage_0_split_0
I0403 12:02:13.726477  1276 net.cpp:399] loss3/classifier_plantvillage_loss3/classifier_plantvillage_0_split -> loss3/classifier_plantvillage_loss3/classifier_plantvillage_0_split_1
I0403 12:02:13.726500  1276 net.cpp:399] loss3/classifier_plantvillage_loss3/classifier_plantvillage_0_split -> loss3/classifier_plantvillage_loss3/classifier_plantvillage_0_split_2
I0403 12:02:13.726564  1276 net.cpp:141] Setting up loss3/classifier_plantvillage_loss3/classifier_plantvillage_0_split
I0403 12:02:13.726588  1276 net.cpp:148] Top shape: 24 38 (912)
I0403 12:02:13.726603  1276 net.cpp:148] Top shape: 24 38 (912)
I0403 12:02:13.726619  1276 net.cpp:148] Top shape: 24 38 (912)
I0403 12:02:13.726632  1276 net.cpp:156] Memory required for data: 1346075328
I0403 12:02:13.726647  1276 layer_factory.hpp:77] Creating layer loss1/loss
I0403 12:02:13.726665  1276 net.cpp:91] Creating Layer loss1/loss
I0403 12:02:13.726681  1276 net.cpp:425] loss1/loss <- loss1/classifier_plantvillage_loss1/classifier_plantvillage_0_split_0
I0403 12:02:13.726698  1276 net.cpp:425] loss1/loss <- label_data_1_split_0
…
