…
I0403 14:01:46.481484 12541 net.cpp:313] The NetState phase (1) differed from the phase (0) specified by a rule in layer data
I0403 14:01:46.481793 12541 net.cpp:49] Initializing net from parameters: 
state {
  phase: TEST
}
layer {
  name: "data"
  type: "Data"
  top: "data"
  top: "label"
  include {
    phase: TEST
  }
  transform_param {
    crop_size: 227
    mean_file: "/home/mohanty/data/final_dataset/lmdb/grayscale-80-20/mean.binaryproto"
  }
  data_param {
    source: "/home/mohanty/data/final_dataset/lmdb/grayscale-80-20/test_db"
    batch_size: 100
    backend: LMDB
  }
}
layer {
  name: "conv1"
  type: "Convolution"
  bottom: "data"
  top: "conv1"
  param {
    lr_mult: 1
    decay_mult: 1
  }
  param {
    lr_mult: 2
    decay_mult: 0
  }
  convolution_param {
    num_output: 96
    kernel_size: 11
    stride: 4
    weight_filler {
      type: "gaussian"
      std: 0.01
    }
    bias_filler {
      type: "constant"
      value: 0
    }
  }
}
layer {
  name: "relu1"
  type: "ReLU"
  bottom: "conv1"
  top: "conv1"
}
layer {
  name: "norm1"
  type: "LRN"
  bottom: "conv1"
  top: "norm1"
  lrn_param {
    local_size: 5
    alpha: 0.0001
    beta: 0.75
  }
}
layer {
  name: "pool1"
  type: "Pooling"
  bottom: "norm1"
  top: "pool1"
  pooling_param {
    pool: MAX
    kernel_size: 3
    stride: 2
  }
}
layer {
  name: "conv2"
  type: "Convolution"
  bottom: "pool1"
  top: "conv2"
  param {
    lr_mult: 1
    decay_mult: 1
  }
  param {
    lr_mult: 2
    decay_mult: 0
  }
  convolution_param {
    num_output: 256
    pad: 2
    kernel_size: 5
    group: 2
    weight_filler {
      type: "gaussian"
      std: 0.01
    }
    bias_filler {
      type: "constant"
      value: 0.1
    }
  }
}
layer {
  name: "relu2"
  type: "ReLU"
  bottom: "conv2"
  top: "conv2"
}
layer {
  name: "norm2"
  type: "LRN"
  bottom: "conv2"
  top: "norm2"
  lrn_param {
    local_size: 5
    alpha: 0.0001
    beta: 0.75
  }
}
layer {
  name: "pool2"
  type: "Pooling"
  bottom: "norm2"
  top: "pool2"
  pooling_param {
    pool: MAX
    kernel_size: 3
    stride: 2
  }
}
layer {
  name: "conv3"
  type: "Convolution"
  bottom: "pool2"
  top: "conv3"
  param {
    lr_mult: 1
    decay_mult: 1
  }
  param {
    lr_mult: 2
    decay_mult: 0
  }
  convolution_param {
    num_output: 384
    pad: 1
    kernel_size: 3
    weight_filler {
      type: "gaussian"
      std: 0.01
    }
    bias_filler {
      type: "constant"
      value: 0
    }
  }
}
layer {
  name: "relu3"
  type: "ReLU"
  bottom: "conv3"
  top: "conv3"
}
layer {
  name: "conv4"
  type: "Convolution"
  bottom: "conv3"
  top: "conv4"
  param {
    lr_mult: 1
    decay_mult: 1
  }
  param {
    lr_mult: 2
    decay_mult: 0
  }
  convolution_param {
    num_output: 384
    pad: 1
    kernel_size: 3
    group: 2
    weight_filler {
      type: "gaussian"
      std: 0.01
    }
    bias_filler {
      type: "constant"
      value: 0.1
    }
  }
}
layer {
  name: "relu4"
  type: "ReLU"
  bottom: "conv4"
  top: "conv4"
}
layer {
  name: "conv5"
  type: "Convolution"
  bottom: "conv4"
  top: "conv5"
  param {
    lr_mult: 1
    decay_mult: 1
  }
  param {
    lr_mult: 2
    decay_mult: 0
  }
  convolution_param {
    num_output: 256
    pad: 1
    kernel_size: 3
    group: 2
    weight_filler {
      type: "gaussian"
      std: 0.01
    }
    bias_filler {
      type: "constant"
      value: 0.1
    }
  }
}
layer {
  name: "relu5"
  type: "ReLU"
  bottom: "conv5"
  top: "conv5"
}
layer {
  name: "pool5"
  type: "Pooling"
  bottom: "conv5"
  top: "pool5"
  pooling_param {
    pool: MAX
    kernel_size: 3
    stride: 2
  }
}
layer {
  name: "fc6"
  type: "InnerProduct"
  bottom: "pool5"
  top: "fc6"
  param {
    lr_mult: 1
    decay_mult: 1
  }
  param {
    lr_mult: 2
    decay_mult: 0
  }
  inner_product_param {
    num_output: 4096
    weight_filler {
      type: "gaussian"
      std: 0.005
    }
    bias_filler {
      type: "constant"
      value: 0.1
    }
  }
}
layer {
  name: "relu6"
  type: "ReLU"
  bottom: "fc6"
  top: "fc6"
}
layer {
  name: "drop6"
  type: "Dropout"
  bottom: "fc6"
  top: "fc6"
  dropout_param {
    dropout_ratio: 0.5
  }
}
layer {
  name: "fc7"
  type: "InnerProduct"
  bottom: "fc6"
  top: "fc7"
  param {
    lr_mult: 1
    decay_mult: 1
  }
  param {
    lr_mult: 2
    decay_mult: 0
  }
  inner_product_param {
    num_output: 4096
    weight_filler {
      type: "gaussian"
      std: 0.005
    }
    bias_filler {
      type: "constant"
      value: 0.1
    }
  }
}
layer {
  name: "relu7"
  type: "ReLU"
  bottom: "fc7"
  top: "fc7"
}
layer {
  name: "drop7"
  type: "Dropout"
  bottom: "fc7"
  top: "fc7"
  dropout_param {
    dropout_ratio: 0.5
  }
}
layer {
  name: "fc8_plantvillage"
  type: "InnerProduct"
  bottom: "fc7"
  top: "fc8_plantvillage"
  param {
    lr_mult: 1
    decay_mult: 1
  }
  param {
    lr_mult: 2
    decay_mult: 0
  }
  inner_product_param {
    num_output: 38
    weight_filler {
      type: "gaussian"
      std: 0.01
    }
    bias_filler {
      type: "constant"
      value: 0
    }
  }
}
layer {
  name: "prob"
  type: "Softmax"
  bottom: "fc8_plantvillage"
  top: "prob"
  include {
    phase: TEST
  }
}
layer {
  name: "hdf5out"
  type: "HDF5Output"
  bottom: "prob"
  bottom: "label"
  include {
    phase: TEST
  }
  hdf5_output_param {
    file_name: "hdf5_dumps/iter_1308.h5"
  }
}
layer {
  name: "loss"
  type: "SoftmaxWithLoss"
  bottom: "fc8_plantvillage"
  bottom: "label"
  top: "loss"
}
layer {
  name: "accuracy"
  type: "Accuracy"
  bottom: "fc8_plantvillage"
  bottom: "label"
  top: "accuracy"
  include {
    phase: TEST
  }
}
I0403 14:01:46.482393 12541 layer_factory.hpp:77] Creating layer data
I0403 14:01:46.483043 12541 net.cpp:91] Creating Layer data
I0403 14:01:46.483077 12541 net.cpp:399] data -> data
I0403 14:01:46.483126 12541 net.cpp:399] data -> label
I0403 14:01:46.483162 12541 data_transformer.cpp:25] Loading mean file from: /home/mohanty/data/final_dataset/lmdb/grayscale-80-20/mean.binaryproto
I0403 14:01:46.486223 12545 db_lmdb.cpp:38] Opened lmdb /home/mohanty/data/final_dataset/lmdb/grayscale-80-20/test_db
I0403 14:01:46.497500 12541 data_layer.cpp:41] output data size: 100,3,227,227
I0403 14:01:46.615845 12541 net.cpp:141] Setting up data
I0403 14:01:46.615936 12541 net.cpp:148] Top shape: 100 3 227 227 (15458700)
I0403 14:01:46.615957 12541 net.cpp:148] Top shape: 100 (100)
I0403 14:01:46.615972 12541 net.cpp:156] Memory required for data: 61835200
I0403 14:01:46.615999 12541 layer_factory.hpp:77] Creating layer label_data_1_split
I0403 14:01:46.616024 12541 net.cpp:91] Creating Layer label_data_1_split
I0403 14:01:46.616041 12541 net.cpp:425] label_data_1_split <- label
I0403 14:01:46.616071 12541 net.cpp:399] label_data_1_split -> label_data_1_split_0
I0403 14:01:46.616097 12541 net.cpp:399] label_data_1_split -> label_data_1_split_1
I0403 14:01:46.616117 12541 net.cpp:399] label_data_1_split -> label_data_1_split_2
I0403 14:01:46.616178 12541 net.cpp:141] Setting up label_data_1_split
I0403 14:01:46.616200 12541 net.cpp:148] Top shape: 100 (100)
I0403 14:01:46.616216 12541 net.cpp:148] Top shape: 100 (100)
I0403 14:01:46.616231 12541 net.cpp:148] Top shape: 100 (100)
I0403 14:01:46.616245 12541 net.cpp:156] Memory required for data: 61836400
I0403 14:01:46.616258 12541 layer_factory.hpp:77] Creating layer conv1
I0403 14:01:46.616289 12541 net.cpp:91] Creating Layer conv1
I0403 14:01:46.616315 12541 net.cpp:425] conv1 <- data
I0403 14:01:46.616333 12541 net.cpp:399] conv1 -> conv1
I0403 14:01:46.754731 12541 net.cpp:141] Setting up conv1
I0403 14:01:46.754796 12541 net.cpp:148] Top shape: 100 96 55 55 (29040000)
I0403 14:01:46.754812 12541 net.cpp:156] Memory required for data: 177996400
I0403 14:01:46.754842 12541 layer_factory.hpp:77] Creating layer relu1
I0403 14:01:46.754869 12541 net.cpp:91] Creating Layer relu1
I0403 14:01:46.754887 12541 net.cpp:425] relu1 <- conv1
I0403 14:01:46.754905 12541 net.cpp:386] relu1 -> conv1 (in-place)
I0403 14:01:46.755177 12541 net.cpp:141] Setting up relu1
I0403 14:01:46.755203 12541 net.cpp:148] Top shape: 100 96 55 55 (29040000)
I0403 14:01:46.755251 12541 net.cpp:156] Memory required for data: 294156400
I0403 14:01:46.755267 12541 layer_factory.hpp:77] Creating layer norm1
I0403 14:01:46.755295 12541 net.cpp:91] Creating Layer norm1
I0403 14:01:46.755312 12541 net.cpp:425] norm1 <- conv1
I0403 14:01:46.755329 12541 net.cpp:399] norm1 -> norm1
I0403 14:01:46.755635 12541 net.cpp:141] Setting up norm1
I0403 14:01:46.755662 12541 net.cpp:148] Top shape: 100 96 55 55 (29040000)
I0403 14:01:46.755678 12541 net.cpp:156] Memory required for data: 410316400
I0403 14:01:46.755692 12541 layer_factory.hpp:77] Creating layer pool1
I0403 14:01:46.755715 12541 net.cpp:91] Creating Layer pool1
I0403 14:01:46.755731 12541 net.cpp:425] pool1 <- norm1
I0403 14:01:46.755748 12541 net.cpp:399] pool1 -> pool1
I0403 14:01:46.755815 12541 net.cpp:141] Setting up pool1
I0403 14:01:46.755838 12541 net.cpp:148] Top shape: 100 96 27 27 (6998400)
I0403 14:01:46.755853 12541 net.cpp:156] Memory required for data: 438310000
I0403 14:01:46.755868 12541 layer_factory.hpp:77] Creating layer conv2
I0403 14:01:46.755892 12541 net.cpp:91] Creating Layer conv2
I0403 14:01:46.755908 12541 net.cpp:425] conv2 <- pool1
I0403 14:01:46.755924 12541 net.cpp:399] conv2 -> conv2
I0403 14:01:46.770476 12541 net.cpp:141] Setting up conv2
I0403 14:01:46.770510 12541 net.cpp:148] Top shape: 100 256 27 27 (18662400)
I0403 14:01:46.770527 12541 net.cpp:156] Memory required for data: 512959600
I0403 14:01:46.770547 12541 layer_factory.hpp:77] Creating layer relu2
I0403 14:01:46.770568 12541 net.cpp:91] Creating Layer relu2
I0403 14:01:46.770586 12541 net.cpp:425] relu2 <- conv2
I0403 14:01:46.770607 12541 net.cpp:386] relu2 -> conv2 (in-place)
I0403 14:01:46.770895 12541 net.cpp:141] Setting up relu2
I0403 14:01:46.770922 12541 net.cpp:148] Top shape: 100 256 27 27 (18662400)
I0403 14:01:46.770938 12541 net.cpp:156] Memory required for data: 587609200
I0403 14:01:46.770953 12541 layer_factory.hpp:77] Creating layer norm2
I0403 14:01:46.770972 12541 net.cpp:91] Creating Layer norm2
I0403 14:01:46.770988 12541 net.cpp:425] norm2 <- conv2
I0403 14:01:46.771008 12541 net.cpp:399] norm2 -> norm2
I0403 14:01:46.771204 12541 net.cpp:141] Setting up norm2
I0403 14:01:46.771229 12541 net.cpp:148] Top shape: 100 256 27 27 (18662400)
I0403 14:01:46.771245 12541 net.cpp:156] Memory required for data: 662258800
I0403 14:01:46.771258 12541 layer_factory.hpp:77] Creating layer pool2
I0403 14:01:46.771278 12541 net.cpp:91] Creating Layer pool2
I0403 14:01:46.771294 12541 net.cpp:425] pool2 <- norm2
I0403 14:01:46.771311 12541 net.cpp:399] pool2 -> pool2
I0403 14:01:46.771363 12541 net.cpp:141] Setting up pool2
I0403 14:01:46.771385 12541 net.cpp:148] Top shape: 100 256 13 13 (4326400)
I0403 14:01:46.771400 12541 net.cpp:156] Memory required for data: 679564400
I0403 14:01:46.771414 12541 layer_factory.hpp:77] Creating layer conv3
I0403 14:01:46.771436 12541 net.cpp:91] Creating Layer conv3
I0403 14:01:46.771453 12541 net.cpp:425] conv3 <- pool2
I0403 14:01:46.771476 12541 net.cpp:399] conv3 -> conv3
I0403 14:01:46.808888 12541 net.cpp:141] Setting up conv3
I0403 14:01:46.808928 12541 net.cpp:148] Top shape: 100 384 13 13 (6489600)
I0403 14:01:46.808944 12541 net.cpp:156] Memory required for data: 705522800
I0403 14:01:46.808972 12541 layer_factory.hpp:77] Creating layer relu3
I0403 14:01:46.808995 12541 net.cpp:91] Creating Layer relu3
I0403 14:01:46.809012 12541 net.cpp:425] relu3 <- conv3
I0403 14:01:46.809031 12541 net.cpp:386] relu3 -> conv3 (in-place)
I0403 14:01:46.809314 12541 net.cpp:141] Setting up relu3
I0403 14:01:46.809341 12541 net.cpp:148] Top shape: 100 384 13 13 (6489600)
I0403 14:01:46.809360 12541 net.cpp:156] Memory required for data: 731481200
I0403 14:01:46.809373 12541 layer_factory.hpp:77] Creating layer conv4
I0403 14:01:46.809396 12541 net.cpp:91] Creating Layer conv4
I0403 14:01:46.809412 12541 net.cpp:425] conv4 <- conv3
I0403 14:01:46.809432 12541 net.cpp:399] conv4 -> conv4
I0403 14:01:46.845193 12541 net.cpp:141] Setting up conv4
I0403 14:01:46.845264 12541 net.cpp:148] Top shape: 100 384 13 13 (6489600)
I0403 14:01:46.845314 12541 net.cpp:156] Memory required for data: 757439600
I0403 14:01:46.845335 12541 layer_factory.hpp:77] Creating layer relu4
I0403 14:01:46.845360 12541 net.cpp:91] Creating Layer relu4
I0403 14:01:46.845378 12541 net.cpp:425] relu4 <- conv4
I0403 14:01:46.845396 12541 net.cpp:386] relu4 -> conv4 (in-place)
I0403 14:01:46.845705 12541 net.cpp:141] Setting up relu4
I0403 14:01:46.845731 12541 net.cpp:148] Top shape: 100 384 13 13 (6489600)
I0403 14:01:46.845746 12541 net.cpp:156] Memory required for data: 783398000
I0403 14:01:46.845760 12541 layer_factory.hpp:77] Creating layer conv5
I0403 14:01:46.845785 12541 net.cpp:91] Creating Layer conv5
I0403 14:01:46.845803 12541 net.cpp:425] conv5 <- conv4
I0403 14:01:46.845824 12541 net.cpp:399] conv5 -> conv5
I0403 14:01:46.866351 12541 net.cpp:141] Setting up conv5
I0403 14:01:46.866389 12541 net.cpp:148] Top shape: 100 256 13 13 (4326400)
I0403 14:01:46.866405 12541 net.cpp:156] Memory required for data: 800703600
I0403 14:01:46.866427 12541 layer_factory.hpp:77] Creating layer relu5
I0403 14:01:46.866451 12541 net.cpp:91] Creating Layer relu5
I0403 14:01:46.866467 12541 net.cpp:425] relu5 <- conv5
I0403 14:01:46.866484 12541 net.cpp:386] relu5 -> conv5 (in-place)
I0403 14:01:46.866765 12541 net.cpp:141] Setting up relu5
I0403 14:01:46.866791 12541 net.cpp:148] Top shape: 100 256 13 13 (4326400)
I0403 14:01:46.866806 12541 net.cpp:156] Memory required for data: 818009200
I0403 14:01:46.866822 12541 layer_factory.hpp:77] Creating layer pool5
I0403 14:01:46.866845 12541 net.cpp:91] Creating Layer pool5
I0403 14:01:46.866863 12541 net.cpp:425] pool5 <- conv5
I0403 14:01:46.866881 12541 net.cpp:399] pool5 -> pool5
I0403 14:01:46.866942 12541 net.cpp:141] Setting up pool5
I0403 14:01:46.866966 12541 net.cpp:148] Top shape: 100 256 6 6 (921600)
I0403 14:01:46.866981 12541 net.cpp:156] Memory required for data: 821695600
I0403 14:01:46.866994 12541 layer_factory.hpp:77] Creating layer fc6
I0403 14:01:46.867023 12541 net.cpp:91] Creating Layer fc6
I0403 14:01:46.867040 12541 net.cpp:425] fc6 <- pool5
I0403 14:01:46.867061 12541 net.cpp:399] fc6 -> fc6
I0403 14:01:48.402552 12541 net.cpp:141] Setting up fc6
I0403 14:01:48.402592 12541 net.cpp:148] Top shape: 100 4096 (409600)
I0403 14:01:48.402614 12541 net.cpp:156] Memory required for data: 823334000
I0403 14:01:48.402637 12541 layer_factory.hpp:77] Creating layer relu6
I0403 14:01:48.402657 12541 net.cpp:91] Creating Layer relu6
I0403 14:01:48.402678 12541 net.cpp:425] relu6 <- fc6
I0403 14:01:48.402698 12541 net.cpp:386] relu6 -> fc6 (in-place)
I0403 14:01:48.402920 12541 net.cpp:141] Setting up relu6
I0403 14:01:48.402945 12541 net.cpp:148] Top shape: 100 4096 (409600)
I0403 14:01:48.402961 12541 net.cpp:156] Memory required for data: 824972400
I0403 14:01:48.402973 12541 layer_factory.hpp:77] Creating layer drop6
I0403 14:01:48.402993 12541 net.cpp:91] Creating Layer drop6
I0403 14:01:48.403009 12541 net.cpp:425] drop6 <- fc6
I0403 14:01:48.403026 12541 net.cpp:386] drop6 -> fc6 (in-place)
I0403 14:01:48.403077 12541 net.cpp:141] Setting up drop6
I0403 14:01:48.403100 12541 net.cpp:148] Top shape: 100 4096 (409600)
I0403 14:01:48.403113 12541 net.cpp:156] Memory required for data: 826610800
I0403 14:01:48.403127 12541 layer_factory.hpp:77] Creating layer fc7
I0403 14:01:48.403146 12541 net.cpp:91] Creating Layer fc7
I0403 14:01:48.403162 12541 net.cpp:425] fc7 <- fc6
I0403 14:01:48.403180 12541 net.cpp:399] fc7 -> fc7
I0403 14:01:49.083470 12541 net.cpp:141] Setting up fc7
I0403 14:01:49.083539 12541 net.cpp:148] Top shape: 100 4096 (409600)
I0403 14:01:49.083555 12541 net.cpp:156] Memory required for data: 828249200
I0403 14:01:49.083575 12541 layer_factory.hpp:77] Creating layer relu7
I0403 14:01:49.083596 12541 net.cpp:91] Creating Layer relu7
I0403 14:01:49.083618 12541 net.cpp:425] relu7 <- fc7
I0403 14:01:49.083637 12541 net.cpp:386] relu7 -> fc7 (in-place)
I0403 14:01:49.084030 12541 net.cpp:141] Setting up relu7
I0403 14:01:49.084056 12541 net.cpp:148] Top shape: 100 4096 (409600)
I0403 14:01:49.084106 12541 net.cpp:156] Memory required for data: 829887600
I0403 14:01:49.084121 12541 layer_factory.hpp:77] Creating layer drop7
I0403 14:01:49.084141 12541 net.cpp:91] Creating Layer drop7
I0403 14:01:49.084157 12541 net.cpp:425] drop7 <- fc7
I0403 14:01:49.084173 12541 net.cpp:386] drop7 -> fc7 (in-place)
I0403 14:01:49.084216 12541 net.cpp:141] Setting up drop7
I0403 14:01:49.084239 12541 net.cpp:148] Top shape: 100 4096 (409600)
I0403 14:01:49.084252 12541 net.cpp:156] Memory required for data: 831526000
I0403 14:01:49.084265 12541 layer_factory.hpp:77] Creating layer fc8_plantvillage
I0403 14:01:49.084286 12541 net.cpp:91] Creating Layer fc8_plantvillage
I0403 14:01:49.084301 12541 net.cpp:425] fc8_plantvillage <- fc7
I0403 14:01:49.084318 12541 net.cpp:399] fc8_plantvillage -> fc8_plantvillage
I0403 14:01:49.090878 12541 net.cpp:141] Setting up fc8_plantvillage
I0403 14:01:49.090904 12541 net.cpp:148] Top shape: 100 38 (3800)
I0403 14:01:49.090924 12541 net.cpp:156] Memory required for data: 831541200
I0403 14:01:49.090941 12541 layer_factory.hpp:77] Creating layer fc8_plantvillage_fc8_plantvillage_0_split
I0403 14:01:49.090965 12541 net.cpp:91] Creating Layer fc8_plantvillage_fc8_plantvillage_0_split
I0403 14:01:49.090980 12541 net.cpp:425] fc8_plantvillage_fc8_plantvillage_0_split <- fc8_plantvillage
I0403 14:01:49.090997 12541 net.cpp:399] fc8_plantvillage_fc8_plantvillage_0_split -> fc8_plantvillage_fc8_plantvillage_0_split_0
I0403 14:01:49.091017 12541 net.cpp:399] fc8_plantvillage_fc8_plantvillage_0_split -> fc8_plantvillage_fc8_plantvillage_0_split_1
I0403 14:01:49.091042 12541 net.cpp:399] fc8_plantvillage_fc8_plantvillage_0_split -> fc8_plantvillage_fc8_plantvillage_0_split_2
I0403 14:01:49.091119 12541 net.cpp:141] Setting up fc8_plantvillage_fc8_plantvillage_0_split
I0403 14:01:49.091141 12541 net.cpp:148] Top shape: 100 38 (3800)
I0403 14:01:49.091157 12541 net.cpp:148] Top shape: 100 38 (3800)
I0403 14:01:49.091172 12541 net.cpp:148] Top shape: 100 38 (3800)
I0403 14:01:49.091186 12541 net.cpp:156] Memory required for data: 831586800
I0403 14:01:49.091199 12541 layer_factory.hpp:77] Creating layer prob
I0403 14:01:49.091218 12541 net.cpp:91] Creating Layer prob
I0403 14:01:49.091234 12541 net.cpp:425] prob <- fc8_plantvillage_fc8_plantvillage_0_split_0
I0403 14:01:49.091251 12541 net.cpp:399] prob -> prob
I0403 14:01:49.091475 12541 net.cpp:141] Setting up prob
I0403 14:01:49.091500 12541 net.cpp:148] Top shape: 100 38 (3800)
I0403 14:01:49.091514 12541 net.cpp:156] Memory required for data: 831602000
I0403 14:01:49.091528 12541 layer_factory.hpp:77] Creating layer hdf5out
I0403 14:01:49.091548 12541 net.cpp:91] Creating Layer hdf5out
I0403 14:01:49.091564 12541 net.cpp:425] hdf5out <- prob
I0403 14:01:49.091580 12541 net.cpp:425] hdf5out <- label_data_1_split_0
I0403 14:01:49.093744 12541 net.cpp:141] Setting up hdf5out
…
