…
I0403 14:07:38.050460 12753 net.cpp:313] The NetState phase (1) differed from the phase (0) specified by a rule in layer data
I0403 14:07:38.050765 12753 net.cpp:49] Initializing net from parameters: 
state {
  phase: TEST
}
layer {
  name: "data"
  type: "Data"
  top: "data"
  top: "label"
  include {
    phase: TEST
  }
  transform_param {
    crop_size: 227
    mean_file: "/home/mohanty/data/final_dataset/lmdb/grayscale-80-20/mean.binaryproto"
  }
  data_param {
    source: "/home/mohanty/data/final_dataset/lmdb/grayscale-80-20/test_db"
    batch_size: 100
    backend: LMDB
  }
}
layer {
  name: "conv1"
  type: "Convolution"
  bottom: "data"
  top: "conv1"
  param {
    lr_mult: 1
    decay_mult: 1
  }
  param {
    lr_mult: 2
    decay_mult: 0
  }
  convolution_param {
    num_output: 96
    kernel_size: 11
    stride: 4
    weight_filler {
      type: "gaussian"
      std: 0.01
    }
    bias_filler {
      type: "constant"
      value: 0
    }
  }
}
layer {
  name: "relu1"
  type: "ReLU"
  bottom: "conv1"
  top: "conv1"
}
layer {
  name: "norm1"
  type: "LRN"
  bottom: "conv1"
  top: "norm1"
  lrn_param {
    local_size: 5
    alpha: 0.0001
    beta: 0.75
  }
}
layer {
  name: "pool1"
  type: "Pooling"
  bottom: "norm1"
  top: "pool1"
  pooling_param {
    pool: MAX
    kernel_size: 3
    stride: 2
  }
}
layer {
  name: "conv2"
  type: "Convolution"
  bottom: "pool1"
  top: "conv2"
  param {
    lr_mult: 1
    decay_mult: 1
  }
  param {
    lr_mult: 2
    decay_mult: 0
  }
  convolution_param {
    num_output: 256
    pad: 2
    kernel_size: 5
    group: 2
    weight_filler {
      type: "gaussian"
      std: 0.01
    }
    bias_filler {
      type: "constant"
      value: 0.1
    }
  }
}
layer {
  name: "relu2"
  type: "ReLU"
  bottom: "conv2"
  top: "conv2"
}
layer {
  name: "norm2"
  type: "LRN"
  bottom: "conv2"
  top: "norm2"
  lrn_param {
    local_size: 5
    alpha: 0.0001
    beta: 0.75
  }
}
layer {
  name: "pool2"
  type: "Pooling"
  bottom: "norm2"
  top: "pool2"
  pooling_param {
    pool: MAX
    kernel_size: 3
    stride: 2
  }
}
layer {
  name: "conv3"
  type: "Convolution"
  bottom: "pool2"
  top: "conv3"
  param {
    lr_mult: 1
    decay_mult: 1
  }
  param {
    lr_mult: 2
    decay_mult: 0
  }
  convolution_param {
    num_output: 384
    pad: 1
    kernel_size: 3
    weight_filler {
      type: "gaussian"
      std: 0.01
    }
    bias_filler {
      type: "constant"
      value: 0
    }
  }
}
layer {
  name: "relu3"
  type: "ReLU"
  bottom: "conv3"
  top: "conv3"
}
layer {
  name: "conv4"
  type: "Convolution"
  bottom: "conv3"
  top: "conv4"
  param {
    lr_mult: 1
    decay_mult: 1
  }
  param {
    lr_mult: 2
    decay_mult: 0
  }
  convolution_param {
    num_output: 384
    pad: 1
    kernel_size: 3
    group: 2
    weight_filler {
      type: "gaussian"
      std: 0.01
    }
    bias_filler {
      type: "constant"
      value: 0.1
    }
  }
}
layer {
  name: "relu4"
  type: "ReLU"
  bottom: "conv4"
  top: "conv4"
}
layer {
  name: "conv5"
  type: "Convolution"
  bottom: "conv4"
  top: "conv5"
  param {
    lr_mult: 1
    decay_mult: 1
  }
  param {
    lr_mult: 2
    decay_mult: 0
  }
  convolution_param {
    num_output: 256
    pad: 1
    kernel_size: 3
    group: 2
    weight_filler {
      type: "gaussian"
      std: 0.01
    }
    bias_filler {
      type: "constant"
      value: 0.1
    }
  }
}
layer {
  name: "relu5"
  type: "ReLU"
  bottom: "conv5"
  top: "conv5"
}
layer {
  name: "pool5"
  type: "Pooling"
  bottom: "conv5"
  top: "pool5"
  pooling_param {
    pool: MAX
    kernel_size: 3
    stride: 2
  }
}
layer {
  name: "fc6"
  type: "InnerProduct"
  bottom: "pool5"
  top: "fc6"
  param {
    lr_mult: 1
    decay_mult: 1
  }
  param {
    lr_mult: 2
    decay_mult: 0
  }
  inner_product_param {
    num_output: 4096
    weight_filler {
      type: "gaussian"
      std: 0.005
    }
    bias_filler {
      type: "constant"
      value: 0.1
    }
  }
}
layer {
  name: "relu6"
  type: "ReLU"
  bottom: "fc6"
  top: "fc6"
}
layer {
  name: "drop6"
  type: "Dropout"
  bottom: "fc6"
  top: "fc6"
  dropout_param {
    dropout_ratio: 0.5
  }
}
layer {
  name: "fc7"
  type: "InnerProduct"
  bottom: "fc6"
  top: "fc7"
  param {
    lr_mult: 1
    decay_mult: 1
  }
  param {
    lr_mult: 2
    decay_mult: 0
  }
  inner_product_param {
    num_output: 4096
    weight_filler {
      type: "gaussian"
      std: 0.005
    }
    bias_filler {
      type: "constant"
      value: 0.1
    }
  }
}
layer {
  name: "relu7"
  type: "ReLU"
  bottom: "fc7"
  top: "fc7"
}
layer {
  name: "drop7"
  type: "Dropout"
  bottom: "fc7"
  top: "fc7"
  dropout_param {
    dropout_ratio: 0.5
  }
}
layer {
  name: "fc8_plantvillage"
  type: "InnerProduct"
  bottom: "fc7"
  top: "fc8_plantvillage"
  param {
    lr_mult: 1
    decay_mult: 1
  }
  param {
    lr_mult: 2
    decay_mult: 0
  }
  inner_product_param {
    num_output: 38
    weight_filler {
      type: "gaussian"
      std: 0.01
    }
    bias_filler {
      type: "constant"
      value: 0
    }
  }
}
layer {
  name: "prob"
  type: "Softmax"
  bottom: "fc8_plantvillage"
  top: "prob"
  include {
    phase: TEST
  }
}
layer {
  name: "hdf5out"
  type: "HDF5Output"
  bottom: "prob"
  bottom: "label"
  include {
    phase: TEST
  }
  hdf5_output_param {
    file_name: "hdf5_dumps/iter_7412.h5"
  }
}
layer {
  name: "loss"
  type: "SoftmaxWithLoss"
  bottom: "fc8_plantvillage"
  bottom: "label"
  top: "loss"
}
layer {
  name: "accuracy"
  type: "Accuracy"
  bottom: "fc8_plantvillage"
  bottom: "label"
  top: "accuracy"
  include {
    phase: TEST
  }
}
I0403 14:07:38.051326 12753 layer_factory.hpp:77] Creating layer data
I0403 14:07:38.051965 12753 net.cpp:91] Creating Layer data
I0403 14:07:38.051995 12753 net.cpp:399] data -> data
I0403 14:07:38.052042 12753 net.cpp:399] data -> label
I0403 14:07:38.052080 12753 data_transformer.cpp:25] Loading mean file from: /home/mohanty/data/final_dataset/lmdb/grayscale-80-20/mean.binaryproto
I0403 14:07:38.055327 12758 db_lmdb.cpp:38] Opened lmdb /home/mohanty/data/final_dataset/lmdb/grayscale-80-20/test_db
I0403 14:07:38.066341 12753 data_layer.cpp:41] output data size: 100,3,227,227
I0403 14:07:38.185490 12753 net.cpp:141] Setting up data
I0403 14:07:38.185580 12753 net.cpp:148] Top shape: 100 3 227 227 (15458700)
I0403 14:07:38.185606 12753 net.cpp:148] Top shape: 100 (100)
I0403 14:07:38.185623 12753 net.cpp:156] Memory required for data: 61835200
I0403 14:07:38.185650 12753 layer_factory.hpp:77] Creating layer label_data_1_split
I0403 14:07:38.185675 12753 net.cpp:91] Creating Layer label_data_1_split
I0403 14:07:38.185693 12753 net.cpp:425] label_data_1_split <- label
I0403 14:07:38.185725 12753 net.cpp:399] label_data_1_split -> label_data_1_split_0
I0403 14:07:38.185753 12753 net.cpp:399] label_data_1_split -> label_data_1_split_1
I0403 14:07:38.185775 12753 net.cpp:399] label_data_1_split -> label_data_1_split_2
I0403 14:07:38.185837 12753 net.cpp:141] Setting up label_data_1_split
I0403 14:07:38.185860 12753 net.cpp:148] Top shape: 100 (100)
I0403 14:07:38.185878 12753 net.cpp:148] Top shape: 100 (100)
I0403 14:07:38.185894 12753 net.cpp:148] Top shape: 100 (100)
I0403 14:07:38.185907 12753 net.cpp:156] Memory required for data: 61836400
I0403 14:07:38.185922 12753 layer_factory.hpp:77] Creating layer conv1
I0403 14:07:38.185953 12753 net.cpp:91] Creating Layer conv1
I0403 14:07:38.185972 12753 net.cpp:425] conv1 <- data
I0403 14:07:38.185992 12753 net.cpp:399] conv1 -> conv1
I0403 14:07:38.324791 12753 net.cpp:141] Setting up conv1
I0403 14:07:38.324862 12753 net.cpp:148] Top shape: 100 96 55 55 (29040000)
I0403 14:07:38.324878 12753 net.cpp:156] Memory required for data: 177996400
I0403 14:07:38.324909 12753 layer_factory.hpp:77] Creating layer relu1
I0403 14:07:38.324936 12753 net.cpp:91] Creating Layer relu1
I0403 14:07:38.324955 12753 net.cpp:425] relu1 <- conv1
I0403 14:07:38.324973 12753 net.cpp:386] relu1 -> conv1 (in-place)
I0403 14:07:38.325261 12753 net.cpp:141] Setting up relu1
I0403 14:07:38.325289 12753 net.cpp:148] Top shape: 100 96 55 55 (29040000)
I0403 14:07:38.325336 12753 net.cpp:156] Memory required for data: 294156400
I0403 14:07:38.325352 12753 layer_factory.hpp:77] Creating layer norm1
I0403 14:07:38.325378 12753 net.cpp:91] Creating Layer norm1
I0403 14:07:38.325397 12753 net.cpp:425] norm1 <- conv1
I0403 14:07:38.325414 12753 net.cpp:399] norm1 -> norm1
I0403 14:07:38.325719 12753 net.cpp:141] Setting up norm1
I0403 14:07:38.325747 12753 net.cpp:148] Top shape: 100 96 55 55 (29040000)
I0403 14:07:38.325763 12753 net.cpp:156] Memory required for data: 410316400
I0403 14:07:38.325778 12753 layer_factory.hpp:77] Creating layer pool1
I0403 14:07:38.325800 12753 net.cpp:91] Creating Layer pool1
I0403 14:07:38.325817 12753 net.cpp:425] pool1 <- norm1
I0403 14:07:38.325834 12753 net.cpp:399] pool1 -> pool1
I0403 14:07:38.325902 12753 net.cpp:141] Setting up pool1
I0403 14:07:38.325925 12753 net.cpp:148] Top shape: 100 96 27 27 (6998400)
I0403 14:07:38.325940 12753 net.cpp:156] Memory required for data: 438310000
I0403 14:07:38.325955 12753 layer_factory.hpp:77] Creating layer conv2
I0403 14:07:38.325979 12753 net.cpp:91] Creating Layer conv2
I0403 14:07:38.325995 12753 net.cpp:425] conv2 <- pool1
I0403 14:07:38.326014 12753 net.cpp:399] conv2 -> conv2
I0403 14:07:38.341006 12753 net.cpp:141] Setting up conv2
I0403 14:07:38.341042 12753 net.cpp:148] Top shape: 100 256 27 27 (18662400)
I0403 14:07:38.341058 12753 net.cpp:156] Memory required for data: 512959600
I0403 14:07:38.341080 12753 layer_factory.hpp:77] Creating layer relu2
I0403 14:07:38.341100 12753 net.cpp:91] Creating Layer relu2
I0403 14:07:38.341115 12753 net.cpp:425] relu2 <- conv2
I0403 14:07:38.341132 12753 net.cpp:386] relu2 -> conv2 (in-place)
I0403 14:07:38.341406 12753 net.cpp:141] Setting up relu2
I0403 14:07:38.341435 12753 net.cpp:148] Top shape: 100 256 27 27 (18662400)
I0403 14:07:38.341450 12753 net.cpp:156] Memory required for data: 587609200
I0403 14:07:38.341465 12753 layer_factory.hpp:77] Creating layer norm2
I0403 14:07:38.341485 12753 net.cpp:91] Creating Layer norm2
I0403 14:07:38.341500 12753 net.cpp:425] norm2 <- conv2
I0403 14:07:38.341532 12753 net.cpp:399] norm2 -> norm2
I0403 14:07:38.341738 12753 net.cpp:141] Setting up norm2
I0403 14:07:38.341765 12753 net.cpp:148] Top shape: 100 256 27 27 (18662400)
I0403 14:07:38.341780 12753 net.cpp:156] Memory required for data: 662258800
I0403 14:07:38.341794 12753 layer_factory.hpp:77] Creating layer pool2
I0403 14:07:38.341827 12753 net.cpp:91] Creating Layer pool2
I0403 14:07:38.341843 12753 net.cpp:425] pool2 <- norm2
I0403 14:07:38.341861 12753 net.cpp:399] pool2 -> pool2
I0403 14:07:38.341914 12753 net.cpp:141] Setting up pool2
I0403 14:07:38.341936 12753 net.cpp:148] Top shape: 100 256 13 13 (4326400)
I0403 14:07:38.341951 12753 net.cpp:156] Memory required for data: 679564400
I0403 14:07:38.341965 12753 layer_factory.hpp:77] Creating layer conv3
I0403 14:07:38.341987 12753 net.cpp:91] Creating Layer conv3
I0403 14:07:38.342005 12753 net.cpp:425] conv3 <- pool2
I0403 14:07:38.342025 12753 net.cpp:399] conv3 -> conv3
I0403 14:07:38.386970 12753 net.cpp:141] Setting up conv3
I0403 14:07:38.387048 12753 net.cpp:148] Top shape: 100 384 13 13 (6489600)
I0403 14:07:38.387064 12753 net.cpp:156] Memory required for data: 705522800
I0403 14:07:38.387091 12753 layer_factory.hpp:77] Creating layer relu3
I0403 14:07:38.387117 12753 net.cpp:91] Creating Layer relu3
I0403 14:07:38.387135 12753 net.cpp:425] relu3 <- conv3
I0403 14:07:38.387156 12753 net.cpp:386] relu3 -> conv3 (in-place)
I0403 14:07:38.387434 12753 net.cpp:141] Setting up relu3
I0403 14:07:38.387461 12753 net.cpp:148] Top shape: 100 384 13 13 (6489600)
I0403 14:07:38.387476 12753 net.cpp:156] Memory required for data: 731481200
I0403 14:07:38.387491 12753 layer_factory.hpp:77] Creating layer conv4
I0403 14:07:38.387516 12753 net.cpp:91] Creating Layer conv4
I0403 14:07:38.387534 12753 net.cpp:425] conv4 <- conv3
I0403 14:07:38.387557 12753 net.cpp:399] conv4 -> conv4
I0403 14:07:38.417634 12753 net.cpp:141] Setting up conv4
I0403 14:07:38.417678 12753 net.cpp:148] Top shape: 100 384 13 13 (6489600)
I0403 14:07:38.417729 12753 net.cpp:156] Memory required for data: 757439600
I0403 14:07:38.417752 12753 layer_factory.hpp:77] Creating layer relu4
I0403 14:07:38.417771 12753 net.cpp:91] Creating Layer relu4
I0403 14:07:38.417788 12753 net.cpp:425] relu4 <- conv4
I0403 14:07:38.417809 12753 net.cpp:386] relu4 -> conv4 (in-place)
I0403 14:07:38.418082 12753 net.cpp:141] Setting up relu4
I0403 14:07:38.418108 12753 net.cpp:148] Top shape: 100 384 13 13 (6489600)
I0403 14:07:38.418124 12753 net.cpp:156] Memory required for data: 783398000
I0403 14:07:38.418139 12753 layer_factory.hpp:77] Creating layer conv5
I0403 14:07:38.418165 12753 net.cpp:91] Creating Layer conv5
I0403 14:07:38.418207 12753 net.cpp:425] conv5 <- conv4
I0403 14:07:38.418236 12753 net.cpp:399] conv5 -> conv5
I0403 14:07:38.438689 12753 net.cpp:141] Setting up conv5
I0403 14:07:38.438724 12753 net.cpp:148] Top shape: 100 256 13 13 (4326400)
I0403 14:07:38.438740 12753 net.cpp:156] Memory required for data: 800703600
I0403 14:07:38.438766 12753 layer_factory.hpp:77] Creating layer relu5
I0403 14:07:38.438786 12753 net.cpp:91] Creating Layer relu5
I0403 14:07:38.438802 12753 net.cpp:425] relu5 <- conv5
I0403 14:07:38.438818 12753 net.cpp:386] relu5 -> conv5 (in-place)
I0403 14:07:38.439133 12753 net.cpp:141] Setting up relu5
I0403 14:07:38.439160 12753 net.cpp:148] Top shape: 100 256 13 13 (4326400)
I0403 14:07:38.439177 12753 net.cpp:156] Memory required for data: 818009200
I0403 14:07:38.439191 12753 layer_factory.hpp:77] Creating layer pool5
I0403 14:07:38.439214 12753 net.cpp:91] Creating Layer pool5
I0403 14:07:38.439231 12753 net.cpp:425] pool5 <- conv5
I0403 14:07:38.439249 12753 net.cpp:399] pool5 -> pool5
I0403 14:07:38.439308 12753 net.cpp:141] Setting up pool5
I0403 14:07:38.439332 12753 net.cpp:148] Top shape: 100 256 6 6 (921600)
I0403 14:07:38.439345 12753 net.cpp:156] Memory required for data: 821695600
I0403 14:07:38.439359 12753 layer_factory.hpp:77] Creating layer fc6
I0403 14:07:38.439386 12753 net.cpp:91] Creating Layer fc6
I0403 14:07:38.439404 12753 net.cpp:425] fc6 <- pool5
I0403 14:07:38.439424 12753 net.cpp:399] fc6 -> fc6
I0403 14:07:40.033632 12753 net.cpp:141] Setting up fc6
I0403 14:07:40.033710 12753 net.cpp:148] Top shape: 100 4096 (409600)
I0403 14:07:40.033726 12753 net.cpp:156] Memory required for data: 823334000
I0403 14:07:40.033747 12753 layer_factory.hpp:77] Creating layer relu6
I0403 14:07:40.033769 12753 net.cpp:91] Creating Layer relu6
I0403 14:07:40.033787 12753 net.cpp:425] relu6 <- fc6
I0403 14:07:40.033807 12753 net.cpp:386] relu6 -> fc6 (in-place)
I0403 14:07:40.034047 12753 net.cpp:141] Setting up relu6
I0403 14:07:40.034071 12753 net.cpp:148] Top shape: 100 4096 (409600)
I0403 14:07:40.034086 12753 net.cpp:156] Memory required for data: 824972400
I0403 14:07:40.034101 12753 layer_factory.hpp:77] Creating layer drop6
I0403 14:07:40.034121 12753 net.cpp:91] Creating Layer drop6
I0403 14:07:40.034137 12753 net.cpp:425] drop6 <- fc6
I0403 14:07:40.034153 12753 net.cpp:386] drop6 -> fc6 (in-place)
I0403 14:07:40.034209 12753 net.cpp:141] Setting up drop6
I0403 14:07:40.034230 12753 net.cpp:148] Top shape: 100 4096 (409600)
I0403 14:07:40.034245 12753 net.cpp:156] Memory required for data: 826610800
I0403 14:07:40.034257 12753 layer_factory.hpp:77] Creating layer fc7
I0403 14:07:40.034288 12753 net.cpp:91] Creating Layer fc7
I0403 14:07:40.034304 12753 net.cpp:425] fc7 <- fc6
I0403 14:07:40.034324 12753 net.cpp:399] fc7 -> fc7
I0403 14:07:42.432412 12753 net.cpp:141] Setting up fc7
I0403 14:07:42.432478 12753 net.cpp:148] Top shape: 100 4096 (409600)
I0403 14:07:42.432494 12753 net.cpp:156] Memory required for data: 828249200
I0403 14:07:42.432515 12753 layer_factory.hpp:77] Creating layer relu7
I0403 14:07:42.432538 12753 net.cpp:91] Creating Layer relu7
I0403 14:07:42.432556 12753 net.cpp:425] relu7 <- fc7
I0403 14:07:42.432575 12753 net.cpp:386] relu7 -> fc7 (in-place)
I0403 14:07:42.432991 12753 net.cpp:141] Setting up relu7
I0403 14:07:42.433017 12753 net.cpp:148] Top shape: 100 4096 (409600)
I0403 14:07:42.433068 12753 net.cpp:156] Memory required for data: 829887600
I0403 14:07:42.433084 12753 layer_factory.hpp:77] Creating layer drop7
I0403 14:07:42.433105 12753 net.cpp:91] Creating Layer drop7
I0403 14:07:42.433121 12753 net.cpp:425] drop7 <- fc7
I0403 14:07:42.433140 12753 net.cpp:386] drop7 -> fc7 (in-place)
I0403 14:07:42.433184 12753 net.cpp:141] Setting up drop7
I0403 14:07:42.433207 12753 net.cpp:148] Top shape: 100 4096 (409600)
I0403 14:07:42.433223 12753 net.cpp:156] Memory required for data: 831526000
I0403 14:07:42.433236 12753 layer_factory.hpp:77] Creating layer fc8_plantvillage
I0403 14:07:42.433255 12753 net.cpp:91] Creating Layer fc8_plantvillage
I0403 14:07:42.433270 12753 net.cpp:425] fc8_plantvillage <- fc7
I0403 14:07:42.433290 12753 net.cpp:399] fc8_plantvillage -> fc8_plantvillage
I0403 14:07:42.439960 12753 net.cpp:141] Setting up fc8_plantvillage
I0403 14:07:42.439991 12753 net.cpp:148] Top shape: 100 38 (3800)
I0403 14:07:42.440009 12753 net.cpp:156] Memory required for data: 831541200
I0403 14:07:42.440027 12753 layer_factory.hpp:77] Creating layer fc8_plantvillage_fc8_plantvillage_0_split
I0403 14:07:42.440045 12753 net.cpp:91] Creating Layer fc8_plantvillage_fc8_plantvillage_0_split
I0403 14:07:42.440060 12753 net.cpp:425] fc8_plantvillage_fc8_plantvillage_0_split <- fc8_plantvillage
I0403 14:07:42.440079 12753 net.cpp:399] fc8_plantvillage_fc8_plantvillage_0_split -> fc8_plantvillage_fc8_plantvillage_0_split_0
I0403 14:07:42.440104 12753 net.cpp:399] fc8_plantvillage_fc8_plantvillage_0_split -> fc8_plantvillage_fc8_plantvillage_0_split_1
I0403 14:07:42.440125 12753 net.cpp:399] fc8_plantvillage_fc8_plantvillage_0_split -> fc8_plantvillage_fc8_plantvillage_0_split_2
I0403 14:07:42.440202 12753 net.cpp:141] Setting up fc8_plantvillage_fc8_plantvillage_0_split
I0403 14:07:42.440227 12753 net.cpp:148] Top shape: 100 38 (3800)
I0403 14:07:42.440243 12753 net.cpp:148] Top shape: 100 38 (3800)
I0403 14:07:42.440258 12753 net.cpp:148] Top shape: 100 38 (3800)
I0403 14:07:42.440271 12753 net.cpp:156] Memory required for data: 831586800
I0403 14:07:42.440285 12753 layer_factory.hpp:77] Creating layer prob
I0403 14:07:42.440304 12753 net.cpp:91] Creating Layer prob
I0403 14:07:42.440318 12753 net.cpp:425] prob <- fc8_plantvillage_fc8_plantvillage_0_split_0
I0403 14:07:42.440336 12753 net.cpp:399] prob -> prob
I0403 14:07:42.440562 12753 net.cpp:141] Setting up prob
I0403 14:07:42.440590 12753 net.cpp:148] Top shape: 100 38 (3800)
I0403 14:07:42.440609 12753 net.cpp:156] Memory required for data: 831602000
I0403 14:07:42.440625 12753 layer_factory.hpp:77] Creating layer hdf5out
I0403 14:07:42.440659 12753 net.cpp:91] Creating Layer hdf5out
I0403 14:07:42.440675 12753 net.cpp:425] hdf5out <- prob
I0403 14:07:42.440691 12753 net.cpp:425] hdf5out <- label_data_1_split_0
I0403 14:07:42.443377 12753 net.cpp:141] Setting up hdf5out
…
