…
I0403 14:01:21.588693 12530 net.cpp:313] The NetState phase (1) differed from the phase (0) specified by a rule in layer data
I0403 14:01:21.588987 12530 net.cpp:49] Initializing net from parameters: 
state {
  phase: TEST
}
layer {
  name: "data"
  type: "Data"
  top: "data"
  top: "label"
  include {
    phase: TEST
  }
  transform_param {
    crop_size: 227
    mean_file: "/home/mohanty/data/final_dataset/lmdb/grayscale-80-20/mean.binaryproto"
  }
  data_param {
    source: "/home/mohanty/data/final_dataset/lmdb/grayscale-80-20/test_db"
    batch_size: 100
    backend: LMDB
  }
}
layer {
  name: "conv1"
  type: "Convolution"
  bottom: "data"
  top: "conv1"
  param {
    lr_mult: 1
    decay_mult: 1
  }
  param {
    lr_mult: 2
    decay_mult: 0
  }
  convolution_param {
    num_output: 96
    kernel_size: 11
    stride: 4
    weight_filler {
      type: "gaussian"
      std: 0.01
    }
    bias_filler {
      type: "constant"
      value: 0
    }
  }
}
layer {
  name: "relu1"
  type: "ReLU"
  bottom: "conv1"
  top: "conv1"
}
layer {
  name: "norm1"
  type: "LRN"
  bottom: "conv1"
  top: "norm1"
  lrn_param {
    local_size: 5
    alpha: 0.0001
    beta: 0.75
  }
}
layer {
  name: "pool1"
  type: "Pooling"
  bottom: "norm1"
  top: "pool1"
  pooling_param {
    pool: MAX
    kernel_size: 3
    stride: 2
  }
}
layer {
  name: "conv2"
  type: "Convolution"
  bottom: "pool1"
  top: "conv2"
  param {
    lr_mult: 1
    decay_mult: 1
  }
  param {
    lr_mult: 2
    decay_mult: 0
  }
  convolution_param {
    num_output: 256
    pad: 2
    kernel_size: 5
    group: 2
    weight_filler {
      type: "gaussian"
      std: 0.01
    }
    bias_filler {
      type: "constant"
      value: 0.1
    }
  }
}
layer {
  name: "relu2"
  type: "ReLU"
  bottom: "conv2"
  top: "conv2"
}
layer {
  name: "norm2"
  type: "LRN"
  bottom: "conv2"
  top: "norm2"
  lrn_param {
    local_size: 5
    alpha: 0.0001
    beta: 0.75
  }
}
layer {
  name: "pool2"
  type: "Pooling"
  bottom: "norm2"
  top: "pool2"
  pooling_param {
    pool: MAX
    kernel_size: 3
    stride: 2
  }
}
layer {
  name: "conv3"
  type: "Convolution"
  bottom: "pool2"
  top: "conv3"
  param {
    lr_mult: 1
    decay_mult: 1
  }
  param {
    lr_mult: 2
    decay_mult: 0
  }
  convolution_param {
    num_output: 384
    pad: 1
    kernel_size: 3
    weight_filler {
      type: "gaussian"
      std: 0.01
    }
    bias_filler {
      type: "constant"
      value: 0
    }
  }
}
layer {
  name: "relu3"
  type: "ReLU"
  bottom: "conv3"
  top: "conv3"
}
layer {
  name: "conv4"
  type: "Convolution"
  bottom: "conv3"
  top: "conv4"
  param {
    lr_mult: 1
    decay_mult: 1
  }
  param {
    lr_mult: 2
    decay_mult: 0
  }
  convolution_param {
    num_output: 384
    pad: 1
    kernel_size: 3
    group: 2
    weight_filler {
      type: "gaussian"
      std: 0.01
    }
    bias_filler {
      type: "constant"
      value: 0.1
    }
  }
}
layer {
  name: "relu4"
  type: "ReLU"
  bottom: "conv4"
  top: "conv4"
}
layer {
  name: "conv5"
  type: "Convolution"
  bottom: "conv4"
  top: "conv5"
  param {
    lr_mult: 1
    decay_mult: 1
  }
  param {
    lr_mult: 2
    decay_mult: 0
  }
  convolution_param {
    num_output: 256
    pad: 1
    kernel_size: 3
    group: 2
    weight_filler {
      type: "gaussian"
      std: 0.01
    }
    bias_filler {
      type: "constant"
      value: 0.1
    }
  }
}
layer {
  name: "relu5"
  type: "ReLU"
  bottom: "conv5"
  top: "conv5"
}
layer {
  name: "pool5"
  type: "Pooling"
  bottom: "conv5"
  top: "pool5"
  pooling_param {
    pool: MAX
    kernel_size: 3
    stride: 2
  }
}
layer {
  name: "fc6"
  type: "InnerProduct"
  bottom: "pool5"
  top: "fc6"
  param {
    lr_mult: 1
    decay_mult: 1
  }
  param {
    lr_mult: 2
    decay_mult: 0
  }
  inner_product_param {
    num_output: 4096
    weight_filler {
      type: "gaussian"
      std: 0.005
    }
    bias_filler {
      type: "constant"
      value: 0.1
    }
  }
}
layer {
  name: "relu6"
  type: "ReLU"
  bottom: "fc6"
  top: "fc6"
}
layer {
  name: "drop6"
  type: "Dropout"
  bottom: "fc6"
  top: "fc6"
  dropout_param {
    dropout_ratio: 0.5
  }
}
layer {
  name: "fc7"
  type: "InnerProduct"
  bottom: "fc6"
  top: "fc7"
  param {
    lr_mult: 1
    decay_mult: 1
  }
  param {
    lr_mult: 2
    decay_mult: 0
  }
  inner_product_param {
    num_output: 4096
    weight_filler {
      type: "gaussian"
      std: 0.005
    }
    bias_filler {
      type: "constant"
      value: 0.1
    }
  }
}
layer {
  name: "relu7"
  type: "ReLU"
  bottom: "fc7"
  top: "fc7"
}
layer {
  name: "drop7"
  type: "Dropout"
  bottom: "fc7"
  top: "fc7"
  dropout_param {
    dropout_ratio: 0.5
  }
}
layer {
  name: "fc8_plantvillage"
  type: "InnerProduct"
  bottom: "fc7"
  top: "fc8_plantvillage"
  param {
    lr_mult: 1
    decay_mult: 1
  }
  param {
    lr_mult: 2
    decay_mult: 0
  }
  inner_product_param {
    num_output: 38
    weight_filler {
      type: "gaussian"
      std: 0.01
    }
    bias_filler {
      type: "constant"
      value: 0
    }
  }
}
layer {
  name: "prob"
  type: "Softmax"
  bottom: "fc8_plantvillage"
  top: "prob"
  include {
    phase: TEST
  }
}
layer {
  name: "hdf5out"
  type: "HDF5Output"
  bottom: "prob"
  bottom: "label"
  include {
    phase: TEST
  }
  hdf5_output_param {
    file_name: "hdf5_dumps/iter_872.h5"
  }
}
layer {
  name: "loss"
  type: "SoftmaxWithLoss"
  bottom: "fc8_plantvillage"
  bottom: "label"
  top: "loss"
}
layer {
  name: "accuracy"
  type: "Accuracy"
  bottom: "fc8_plantvillage"
  bottom: "label"
  top: "accuracy"
  include {
    phase: TEST
  }
}
I0403 14:01:21.589578 12530 layer_factory.hpp:77] Creating layer data
I0403 14:01:21.590217 12530 net.cpp:91] Creating Layer data
I0403 14:01:21.590248 12530 net.cpp:399] data -> data
I0403 14:01:21.590309 12530 net.cpp:399] data -> label
I0403 14:01:21.590344 12530 data_transformer.cpp:25] Loading mean file from: /home/mohanty/data/final_dataset/lmdb/grayscale-80-20/mean.binaryproto
I0403 14:01:21.593519 12533 db_lmdb.cpp:38] Opened lmdb /home/mohanty/data/final_dataset/lmdb/grayscale-80-20/test_db
I0403 14:01:21.604516 12530 data_layer.cpp:41] output data size: 100,3,227,227
I0403 14:01:21.723513 12530 net.cpp:141] Setting up data
I0403 14:01:21.723573 12530 net.cpp:148] Top shape: 100 3 227 227 (15458700)
I0403 14:01:21.723601 12530 net.cpp:148] Top shape: 100 (100)
I0403 14:01:21.723619 12530 net.cpp:156] Memory required for data: 61835200
I0403 14:01:21.723649 12530 layer_factory.hpp:77] Creating layer label_data_1_split
I0403 14:01:21.723675 12530 net.cpp:91] Creating Layer label_data_1_split
I0403 14:01:21.723695 12530 net.cpp:425] label_data_1_split <- label
I0403 14:01:21.723728 12530 net.cpp:399] label_data_1_split -> label_data_1_split_0
I0403 14:01:21.723757 12530 net.cpp:399] label_data_1_split -> label_data_1_split_1
I0403 14:01:21.723778 12530 net.cpp:399] label_data_1_split -> label_data_1_split_2
I0403 14:01:21.723842 12530 net.cpp:141] Setting up label_data_1_split
I0403 14:01:21.723866 12530 net.cpp:148] Top shape: 100 (100)
I0403 14:01:21.723884 12530 net.cpp:148] Top shape: 100 (100)
I0403 14:01:21.723902 12530 net.cpp:148] Top shape: 100 (100)
I0403 14:01:21.723917 12530 net.cpp:156] Memory required for data: 61836400
I0403 14:01:21.723932 12530 layer_factory.hpp:77] Creating layer conv1
I0403 14:01:21.723964 12530 net.cpp:91] Creating Layer conv1
I0403 14:01:21.723984 12530 net.cpp:425] conv1 <- data
I0403 14:01:21.724004 12530 net.cpp:399] conv1 -> conv1
I0403 14:01:21.866080 12530 net.cpp:141] Setting up conv1
I0403 14:01:21.866155 12530 net.cpp:148] Top shape: 100 96 55 55 (29040000)
I0403 14:01:21.866173 12530 net.cpp:156] Memory required for data: 177996400
I0403 14:01:21.866204 12530 layer_factory.hpp:77] Creating layer relu1
I0403 14:01:21.866230 12530 net.cpp:91] Creating Layer relu1
I0403 14:01:21.866250 12530 net.cpp:425] relu1 <- conv1
I0403 14:01:21.866269 12530 net.cpp:386] relu1 -> conv1 (in-place)
I0403 14:01:21.866545 12530 net.cpp:141] Setting up relu1
I0403 14:01:21.866576 12530 net.cpp:148] Top shape: 100 96 55 55 (29040000)
I0403 14:01:21.866626 12530 net.cpp:156] Memory required for data: 294156400
I0403 14:01:21.866643 12530 layer_factory.hpp:77] Creating layer norm1
I0403 14:01:21.866679 12530 net.cpp:91] Creating Layer norm1
I0403 14:01:21.866698 12530 net.cpp:425] norm1 <- conv1
I0403 14:01:21.866715 12530 net.cpp:399] norm1 -> norm1
I0403 14:01:21.867048 12530 net.cpp:141] Setting up norm1
I0403 14:01:21.867074 12530 net.cpp:148] Top shape: 100 96 55 55 (29040000)
I0403 14:01:21.867089 12530 net.cpp:156] Memory required for data: 410316400
I0403 14:01:21.867105 12530 layer_factory.hpp:77] Creating layer pool1
I0403 14:01:21.867126 12530 net.cpp:91] Creating Layer pool1
I0403 14:01:21.867142 12530 net.cpp:425] pool1 <- norm1
I0403 14:01:21.867164 12530 net.cpp:399] pool1 -> pool1
I0403 14:01:21.867236 12530 net.cpp:141] Setting up pool1
I0403 14:01:21.867259 12530 net.cpp:148] Top shape: 100 96 27 27 (6998400)
I0403 14:01:21.867274 12530 net.cpp:156] Memory required for data: 438310000
I0403 14:01:21.867288 12530 layer_factory.hpp:77] Creating layer conv2
I0403 14:01:21.867313 12530 net.cpp:91] Creating Layer conv2
I0403 14:01:21.867331 12530 net.cpp:425] conv2 <- pool1
I0403 14:01:21.867350 12530 net.cpp:399] conv2 -> conv2
I0403 14:01:21.882073 12530 net.cpp:141] Setting up conv2
I0403 14:01:21.882107 12530 net.cpp:148] Top shape: 100 256 27 27 (18662400)
I0403 14:01:21.882123 12530 net.cpp:156] Memory required for data: 512959600
I0403 14:01:21.882144 12530 layer_factory.hpp:77] Creating layer relu2
I0403 14:01:21.882165 12530 net.cpp:91] Creating Layer relu2
I0403 14:01:21.882182 12530 net.cpp:425] relu2 <- conv2
I0403 14:01:21.882200 12530 net.cpp:386] relu2 -> conv2 (in-place)
I0403 14:01:21.882473 12530 net.cpp:141] Setting up relu2
I0403 14:01:21.882501 12530 net.cpp:148] Top shape: 100 256 27 27 (18662400)
I0403 14:01:21.882518 12530 net.cpp:156] Memory required for data: 587609200
I0403 14:01:21.882532 12530 layer_factory.hpp:77] Creating layer norm2
I0403 14:01:21.882560 12530 net.cpp:91] Creating Layer norm2
I0403 14:01:21.882582 12530 net.cpp:425] norm2 <- conv2
I0403 14:01:21.882603 12530 net.cpp:399] norm2 -> norm2
I0403 14:01:21.882803 12530 net.cpp:141] Setting up norm2
I0403 14:01:21.882828 12530 net.cpp:148] Top shape: 100 256 27 27 (18662400)
I0403 14:01:21.882843 12530 net.cpp:156] Memory required for data: 662258800
I0403 14:01:21.882858 12530 layer_factory.hpp:77] Creating layer pool2
I0403 14:01:21.882877 12530 net.cpp:91] Creating Layer pool2
I0403 14:01:21.882894 12530 net.cpp:425] pool2 <- norm2
I0403 14:01:21.882910 12530 net.cpp:399] pool2 -> pool2
I0403 14:01:21.882962 12530 net.cpp:141] Setting up pool2
I0403 14:01:21.882984 12530 net.cpp:148] Top shape: 100 256 13 13 (4326400)
I0403 14:01:21.882999 12530 net.cpp:156] Memory required for data: 679564400
I0403 14:01:21.883013 12530 layer_factory.hpp:77] Creating layer conv3
I0403 14:01:21.883035 12530 net.cpp:91] Creating Layer conv3
I0403 14:01:21.883054 12530 net.cpp:425] conv3 <- pool2
I0403 14:01:21.883072 12530 net.cpp:399] conv3 -> conv3
I0403 14:01:21.927034 12530 net.cpp:141] Setting up conv3
I0403 14:01:21.927104 12530 net.cpp:148] Top shape: 100 384 13 13 (6489600)
I0403 14:01:21.927122 12530 net.cpp:156] Memory required for data: 705522800
I0403 14:01:21.927148 12530 layer_factory.hpp:77] Creating layer relu3
I0403 14:01:21.927173 12530 net.cpp:91] Creating Layer relu3
I0403 14:01:21.927191 12530 net.cpp:425] relu3 <- conv3
I0403 14:01:21.927211 12530 net.cpp:386] relu3 -> conv3 (in-place)
I0403 14:01:21.927491 12530 net.cpp:141] Setting up relu3
I0403 14:01:21.927518 12530 net.cpp:148] Top shape: 100 384 13 13 (6489600)
I0403 14:01:21.927533 12530 net.cpp:156] Memory required for data: 731481200
I0403 14:01:21.927548 12530 layer_factory.hpp:77] Creating layer conv4
I0403 14:01:21.927578 12530 net.cpp:91] Creating Layer conv4
I0403 14:01:21.927606 12530 net.cpp:425] conv4 <- conv3
I0403 14:01:21.927628 12530 net.cpp:399] conv4 -> conv4
I0403 14:01:21.956581 12530 net.cpp:141] Setting up conv4
I0403 14:01:21.956624 12530 net.cpp:148] Top shape: 100 384 13 13 (6489600)
I0403 14:01:21.956670 12530 net.cpp:156] Memory required for data: 757439600
I0403 14:01:21.956691 12530 layer_factory.hpp:77] Creating layer relu4
I0403 14:01:21.956710 12530 net.cpp:91] Creating Layer relu4
I0403 14:01:21.956727 12530 net.cpp:425] relu4 <- conv4
I0403 14:01:21.956746 12530 net.cpp:386] relu4 -> conv4 (in-place)
I0403 14:01:21.957021 12530 net.cpp:141] Setting up relu4
I0403 14:01:21.957048 12530 net.cpp:148] Top shape: 100 384 13 13 (6489600)
I0403 14:01:21.957063 12530 net.cpp:156] Memory required for data: 783398000
I0403 14:01:21.957080 12530 layer_factory.hpp:77] Creating layer conv5
I0403 14:01:21.957105 12530 net.cpp:91] Creating Layer conv5
I0403 14:01:21.957123 12530 net.cpp:425] conv5 <- conv4
I0403 14:01:21.957155 12530 net.cpp:399] conv5 -> conv5
I0403 14:01:21.977044 12530 net.cpp:141] Setting up conv5
I0403 14:01:21.977077 12530 net.cpp:148] Top shape: 100 256 13 13 (4326400)
I0403 14:01:21.977093 12530 net.cpp:156] Memory required for data: 800703600
I0403 14:01:21.977116 12530 layer_factory.hpp:77] Creating layer relu5
I0403 14:01:21.977139 12530 net.cpp:91] Creating Layer relu5
I0403 14:01:21.977157 12530 net.cpp:425] relu5 <- conv5
I0403 14:01:21.977175 12530 net.cpp:386] relu5 -> conv5 (in-place)
I0403 14:01:21.977452 12530 net.cpp:141] Setting up relu5
I0403 14:01:21.977478 12530 net.cpp:148] Top shape: 100 256 13 13 (4326400)
I0403 14:01:21.977494 12530 net.cpp:156] Memory required for data: 818009200
I0403 14:01:21.977509 12530 layer_factory.hpp:77] Creating layer pool5
I0403 14:01:21.977535 12530 net.cpp:91] Creating Layer pool5
I0403 14:01:21.977552 12530 net.cpp:425] pool5 <- conv5
I0403 14:01:21.977576 12530 net.cpp:399] pool5 -> pool5
I0403 14:01:21.977638 12530 net.cpp:141] Setting up pool5
I0403 14:01:21.977663 12530 net.cpp:148] Top shape: 100 256 6 6 (921600)
I0403 14:01:21.977677 12530 net.cpp:156] Memory required for data: 821695600
I0403 14:01:21.977692 12530 layer_factory.hpp:77] Creating layer fc6
I0403 14:01:21.977720 12530 net.cpp:91] Creating Layer fc6
I0403 14:01:21.977740 12530 net.cpp:425] fc6 <- pool5
I0403 14:01:21.977757 12530 net.cpp:399] fc6 -> fc6
I0403 14:01:23.521661 12530 net.cpp:141] Setting up fc6
I0403 14:01:23.521721 12530 net.cpp:148] Top shape: 100 4096 (409600)
I0403 14:01:23.521738 12530 net.cpp:156] Memory required for data: 823334000
I0403 14:01:23.521757 12530 layer_factory.hpp:77] Creating layer relu6
I0403 14:01:23.521780 12530 net.cpp:91] Creating Layer relu6
I0403 14:01:23.521796 12530 net.cpp:425] relu6 <- fc6
I0403 14:01:23.521817 12530 net.cpp:386] relu6 -> fc6 (in-place)
I0403 14:01:23.522050 12530 net.cpp:141] Setting up relu6
I0403 14:01:23.522078 12530 net.cpp:148] Top shape: 100 4096 (409600)
I0403 14:01:23.522092 12530 net.cpp:156] Memory required for data: 824972400
I0403 14:01:23.522107 12530 layer_factory.hpp:77] Creating layer drop6
I0403 14:01:23.522130 12530 net.cpp:91] Creating Layer drop6
I0403 14:01:23.522147 12530 net.cpp:425] drop6 <- fc6
I0403 14:01:23.522164 12530 net.cpp:386] drop6 -> fc6 (in-place)
I0403 14:01:23.522215 12530 net.cpp:141] Setting up drop6
I0403 14:01:23.522243 12530 net.cpp:148] Top shape: 100 4096 (409600)
I0403 14:01:23.522259 12530 net.cpp:156] Memory required for data: 826610800
I0403 14:01:23.522274 12530 layer_factory.hpp:77] Creating layer fc7
I0403 14:01:23.522294 12530 net.cpp:91] Creating Layer fc7
I0403 14:01:23.522311 12530 net.cpp:425] fc7 <- fc6
I0403 14:01:23.522332 12530 net.cpp:399] fc7 -> fc7
I0403 14:01:24.197695 12530 net.cpp:141] Setting up fc7
I0403 14:01:24.197739 12530 net.cpp:148] Top shape: 100 4096 (409600)
I0403 14:01:24.197757 12530 net.cpp:156] Memory required for data: 828249200
I0403 14:01:24.197780 12530 layer_factory.hpp:77] Creating layer relu7
I0403 14:01:24.197803 12530 net.cpp:91] Creating Layer relu7
I0403 14:01:24.197823 12530 net.cpp:425] relu7 <- fc7
I0403 14:01:24.197844 12530 net.cpp:386] relu7 -> fc7 (in-place)
I0403 14:01:24.198258 12530 net.cpp:141] Setting up relu7
I0403 14:01:24.198284 12530 net.cpp:148] Top shape: 100 4096 (409600)
I0403 14:01:24.198339 12530 net.cpp:156] Memory required for data: 829887600
I0403 14:01:24.198355 12530 layer_factory.hpp:77] Creating layer drop7
I0403 14:01:24.198374 12530 net.cpp:91] Creating Layer drop7
I0403 14:01:24.198390 12530 net.cpp:425] drop7 <- fc7
I0403 14:01:24.198408 12530 net.cpp:386] drop7 -> fc7 (in-place)
I0403 14:01:24.198451 12530 net.cpp:141] Setting up drop7
I0403 14:01:24.198477 12530 net.cpp:148] Top shape: 100 4096 (409600)
I0403 14:01:24.198490 12530 net.cpp:156] Memory required for data: 831526000
I0403 14:01:24.198505 12530 layer_factory.hpp:77] Creating layer fc8_plantvillage
I0403 14:01:24.198525 12530 net.cpp:91] Creating Layer fc8_plantvillage
I0403 14:01:24.198540 12530 net.cpp:425] fc8_plantvillage <- fc7
I0403 14:01:24.198561 12530 net.cpp:399] fc8_plantvillage -> fc8_plantvillage
I0403 14:01:24.205298 12530 net.cpp:141] Setting up fc8_plantvillage
I0403 14:01:24.205328 12530 net.cpp:148] Top shape: 100 38 (3800)
I0403 14:01:24.205344 12530 net.cpp:156] Memory required for data: 831541200
I0403 14:01:24.205363 12530 layer_factory.hpp:77] Creating layer fc8_plantvillage_fc8_plantvillage_0_split
I0403 14:01:24.205385 12530 net.cpp:91] Creating Layer fc8_plantvillage_fc8_plantvillage_0_split
I0403 14:01:24.205404 12530 net.cpp:425] fc8_plantvillage_fc8_plantvillage_0_split <- fc8_plantvillage
I0403 14:01:24.205421 12530 net.cpp:399] fc8_plantvillage_fc8_plantvillage_0_split -> fc8_plantvillage_fc8_plantvillage_0_split_0
I0403 14:01:24.205441 12530 net.cpp:399] fc8_plantvillage_fc8_plantvillage_0_split -> fc8_plantvillage_fc8_plantvillage_0_split_1
I0403 14:01:24.205461 12530 net.cpp:399] fc8_plantvillage_fc8_plantvillage_0_split -> fc8_plantvillage_fc8_plantvillage_0_split_2
I0403 14:01:24.205539 12530 net.cpp:141] Setting up fc8_plantvillage_fc8_plantvillage_0_split
I0403 14:01:24.205565 12530 net.cpp:148] Top shape: 100 38 (3800)
I0403 14:01:24.205590 12530 net.cpp:148] Top shape: 100 38 (3800)
I0403 14:01:24.205606 12530 net.cpp:148] Top shape: 100 38 (3800)
I0403 14:01:24.205621 12530 net.cpp:156] Memory required for data: 831586800
I0403 14:01:24.205636 12530 layer_factory.hpp:77] Creating layer prob
I0403 14:01:24.205654 12530 net.cpp:91] Creating Layer prob
I0403 14:01:24.205670 12530 net.cpp:425] prob <- fc8_plantvillage_fc8_plantvillage_0_split_0
I0403 14:01:24.205689 12530 net.cpp:399] prob -> prob
I0403 14:01:24.205919 12530 net.cpp:141] Setting up prob
I0403 14:01:24.205945 12530 net.cpp:148] Top shape: 100 38 (3800)
I0403 14:01:24.205960 12530 net.cpp:156] Memory required for data: 831602000
I0403 14:01:24.205974 12530 layer_factory.hpp:77] Creating layer hdf5out
I0403 14:01:24.205992 12530 net.cpp:91] Creating Layer hdf5out
I0403 14:01:24.206007 12530 net.cpp:425] hdf5out <- prob
I0403 14:01:24.206023 12530 net.cpp:425] hdf5out <- label_data_1_split_0
I0403 14:01:24.208431 12530 net.cpp:141] Setting up hdf5out
…
