…
I0403 14:08:30.046198 12780 net.cpp:313] The NetState phase (1) differed from the phase (0) specified by a rule in layer data
I0403 14:08:30.046499 12780 net.cpp:49] Initializing net from parameters: 
state {
  phase: TEST
}
layer {
  name: "data"
  type: "Data"
  top: "data"
  top: "label"
  include {
    phase: TEST
  }
  transform_param {
    crop_size: 227
    mean_file: "/home/mohanty/data/final_dataset/lmdb/grayscale-80-20/mean.binaryproto"
  }
  data_param {
    source: "/home/mohanty/data/final_dataset/lmdb/grayscale-80-20/test_db"
    batch_size: 100
    backend: LMDB
  }
}
layer {
  name: "conv1"
  type: "Convolution"
  bottom: "data"
  top: "conv1"
  param {
    lr_mult: 1
    decay_mult: 1
  }
  param {
    lr_mult: 2
    decay_mult: 0
  }
  convolution_param {
    num_output: 96
    kernel_size: 11
    stride: 4
    weight_filler {
      type: "gaussian"
      std: 0.01
    }
    bias_filler {
      type: "constant"
      value: 0
    }
  }
}
layer {
  name: "relu1"
  type: "ReLU"
  bottom: "conv1"
  top: "conv1"
}
layer {
  name: "norm1"
  type: "LRN"
  bottom: "conv1"
  top: "norm1"
  lrn_param {
    local_size: 5
    alpha: 0.0001
    beta: 0.75
  }
}
layer {
  name: "pool1"
  type: "Pooling"
  bottom: "norm1"
  top: "pool1"
  pooling_param {
    pool: MAX
    kernel_size: 3
    stride: 2
  }
}
layer {
  name: "conv2"
  type: "Convolution"
  bottom: "pool1"
  top: "conv2"
  param {
    lr_mult: 1
    decay_mult: 1
  }
  param {
    lr_mult: 2
    decay_mult: 0
  }
  convolution_param {
    num_output: 256
    pad: 2
    kernel_size: 5
    group: 2
    weight_filler {
      type: "gaussian"
      std: 0.01
    }
    bias_filler {
      type: "constant"
      value: 0.1
    }
  }
}
layer {
  name: "relu2"
  type: "ReLU"
  bottom: "conv2"
  top: "conv2"
}
layer {
  name: "norm2"
  type: "LRN"
  bottom: "conv2"
  top: "norm2"
  lrn_param {
    local_size: 5
    alpha: 0.0001
    beta: 0.75
  }
}
layer {
  name: "pool2"
  type: "Pooling"
  bottom: "norm2"
  top: "pool2"
  pooling_param {
    pool: MAX
    kernel_size: 3
    stride: 2
  }
}
layer {
  name: "conv3"
  type: "Convolution"
  bottom: "pool2"
  top: "conv3"
  param {
    lr_mult: 1
    decay_mult: 1
  }
  param {
    lr_mult: 2
    decay_mult: 0
  }
  convolution_param {
    num_output: 384
    pad: 1
    kernel_size: 3
    weight_filler {
      type: "gaussian"
      std: 0.01
    }
    bias_filler {
      type: "constant"
      value: 0
    }
  }
}
layer {
  name: "relu3"
  type: "ReLU"
  bottom: "conv3"
  top: "conv3"
}
layer {
  name: "conv4"
  type: "Convolution"
  bottom: "conv3"
  top: "conv4"
  param {
    lr_mult: 1
    decay_mult: 1
  }
  param {
    lr_mult: 2
    decay_mult: 0
  }
  convolution_param {
    num_output: 384
    pad: 1
    kernel_size: 3
    group: 2
    weight_filler {
      type: "gaussian"
      std: 0.01
    }
    bias_filler {
      type: "constant"
      value: 0.1
    }
  }
}
layer {
  name: "relu4"
  type: "ReLU"
  bottom: "conv4"
  top: "conv4"
}
layer {
  name: "conv5"
  type: "Convolution"
  bottom: "conv4"
  top: "conv5"
  param {
    lr_mult: 1
    decay_mult: 1
  }
  param {
    lr_mult: 2
    decay_mult: 0
  }
  convolution_param {
    num_output: 256
    pad: 1
    kernel_size: 3
    group: 2
    weight_filler {
      type: "gaussian"
      std: 0.01
    }
    bias_filler {
      type: "constant"
      value: 0.1
    }
  }
}
layer {
  name: "relu5"
  type: "ReLU"
  bottom: "conv5"
  top: "conv5"
}
layer {
  name: "pool5"
  type: "Pooling"
  bottom: "conv5"
  top: "pool5"
  pooling_param {
    pool: MAX
    kernel_size: 3
    stride: 2
  }
}
layer {
  name: "fc6"
  type: "InnerProduct"
  bottom: "pool5"
  top: "fc6"
  param {
    lr_mult: 1
    decay_mult: 1
  }
  param {
    lr_mult: 2
    decay_mult: 0
  }
  inner_product_param {
    num_output: 4096
    weight_filler {
      type: "gaussian"
      std: 0.005
    }
    bias_filler {
      type: "constant"
      value: 0.1
    }
  }
}
layer {
  name: "relu6"
  type: "ReLU"
  bottom: "fc6"
  top: "fc6"
}
layer {
  name: "drop6"
  type: "Dropout"
  bottom: "fc6"
  top: "fc6"
  dropout_param {
    dropout_ratio: 0.5
  }
}
layer {
  name: "fc7"
  type: "InnerProduct"
  bottom: "fc6"
  top: "fc7"
  param {
    lr_mult: 1
    decay_mult: 1
  }
  param {
    lr_mult: 2
    decay_mult: 0
  }
  inner_product_param {
    num_output: 4096
    weight_filler {
      type: "gaussian"
      std: 0.005
    }
    bias_filler {
      type: "constant"
      value: 0.1
    }
  }
}
layer {
  name: "relu7"
  type: "ReLU"
  bottom: "fc7"
  top: "fc7"
}
layer {
  name: "drop7"
  type: "Dropout"
  bottom: "fc7"
  top: "fc7"
  dropout_param {
    dropout_ratio: 0.5
  }
}
layer {
  name: "fc8_plantvillage"
  type: "InnerProduct"
  bottom: "fc7"
  top: "fc8_plantvillage"
  param {
    lr_mult: 1
    decay_mult: 1
  }
  param {
    lr_mult: 2
    decay_mult: 0
  }
  inner_product_param {
    num_output: 38
    weight_filler {
      type: "gaussian"
      std: 0.01
    }
    bias_filler {
      type: "constant"
      value: 0
    }
  }
}
layer {
  name: "prob"
  type: "Softmax"
  bottom: "fc8_plantvillage"
  top: "prob"
  include {
    phase: TEST
  }
}
layer {
  name: "hdf5out"
  type: "HDF5Output"
  bottom: "prob"
  bottom: "label"
  include {
    phase: TEST
  }
  hdf5_output_param {
    file_name: "hdf5_dumps/iter_8284.h5"
  }
}
layer {
  name: "loss"
  type: "SoftmaxWithLoss"
  bottom: "fc8_plantvillage"
  bottom: "label"
  top: "loss"
}
layer {
  name: "accuracy"
  type: "Accuracy"
  bottom: "fc8_plantvillage"
  bottom: "label"
  top: "accuracy"
  include {
    phase: TEST
  }
}
I0403 14:08:30.047189 12780 layer_factory.hpp:77] Creating layer data
I0403 14:08:30.047859 12780 net.cpp:91] Creating Layer data
I0403 14:08:30.047894 12780 net.cpp:399] data -> data
I0403 14:08:30.047946 12780 net.cpp:399] data -> label
I0403 14:08:30.047984 12780 data_transformer.cpp:25] Loading mean file from: /home/mohanty/data/final_dataset/lmdb/grayscale-80-20/mean.binaryproto
I0403 14:08:30.050398 12783 db_lmdb.cpp:38] Opened lmdb /home/mohanty/data/final_dataset/lmdb/grayscale-80-20/test_db
I0403 14:08:30.062839 12780 data_layer.cpp:41] output data size: 100,3,227,227
I0403 14:08:30.182320 12780 net.cpp:141] Setting up data
I0403 14:08:30.182392 12780 net.cpp:148] Top shape: 100 3 227 227 (15458700)
I0403 14:08:30.182415 12780 net.cpp:148] Top shape: 100 (100)
I0403 14:08:30.182430 12780 net.cpp:156] Memory required for data: 61835200
I0403 14:08:30.182458 12780 layer_factory.hpp:77] Creating layer label_data_1_split
I0403 14:08:30.182483 12780 net.cpp:91] Creating Layer label_data_1_split
I0403 14:08:30.182500 12780 net.cpp:425] label_data_1_split <- label
I0403 14:08:30.182531 12780 net.cpp:399] label_data_1_split -> label_data_1_split_0
I0403 14:08:30.182561 12780 net.cpp:399] label_data_1_split -> label_data_1_split_1
I0403 14:08:30.182582 12780 net.cpp:399] label_data_1_split -> label_data_1_split_2
I0403 14:08:30.182648 12780 net.cpp:141] Setting up label_data_1_split
I0403 14:08:30.182672 12780 net.cpp:148] Top shape: 100 (100)
I0403 14:08:30.182689 12780 net.cpp:148] Top shape: 100 (100)
I0403 14:08:30.182705 12780 net.cpp:148] Top shape: 100 (100)
I0403 14:08:30.182719 12780 net.cpp:156] Memory required for data: 61836400
I0403 14:08:30.182734 12780 layer_factory.hpp:77] Creating layer conv1
I0403 14:08:30.182765 12780 net.cpp:91] Creating Layer conv1
I0403 14:08:30.182783 12780 net.cpp:425] conv1 <- data
I0403 14:08:30.182801 12780 net.cpp:399] conv1 -> conv1
I0403 14:08:30.321092 12780 net.cpp:141] Setting up conv1
I0403 14:08:30.321171 12780 net.cpp:148] Top shape: 100 96 55 55 (29040000)
I0403 14:08:30.321188 12780 net.cpp:156] Memory required for data: 177996400
I0403 14:08:30.321220 12780 layer_factory.hpp:77] Creating layer relu1
I0403 14:08:30.321249 12780 net.cpp:91] Creating Layer relu1
I0403 14:08:30.321269 12780 net.cpp:425] relu1 <- conv1
I0403 14:08:30.321288 12780 net.cpp:386] relu1 -> conv1 (in-place)
I0403 14:08:30.321544 12780 net.cpp:141] Setting up relu1
I0403 14:08:30.321573 12780 net.cpp:148] Top shape: 100 96 55 55 (29040000)
I0403 14:08:30.321635 12780 net.cpp:156] Memory required for data: 294156400
I0403 14:08:30.321651 12780 layer_factory.hpp:77] Creating layer norm1
I0403 14:08:30.321679 12780 net.cpp:91] Creating Layer norm1
I0403 14:08:30.321698 12780 net.cpp:425] norm1 <- conv1
I0403 14:08:30.321717 12780 net.cpp:399] norm1 -> norm1
I0403 14:08:30.322023 12780 net.cpp:141] Setting up norm1
I0403 14:08:30.322052 12780 net.cpp:148] Top shape: 100 96 55 55 (29040000)
I0403 14:08:30.322068 12780 net.cpp:156] Memory required for data: 410316400
I0403 14:08:30.322084 12780 layer_factory.hpp:77] Creating layer pool1
I0403 14:08:30.322108 12780 net.cpp:91] Creating Layer pool1
I0403 14:08:30.322125 12780 net.cpp:425] pool1 <- norm1
I0403 14:08:30.322144 12780 net.cpp:399] pool1 -> pool1
I0403 14:08:30.322211 12780 net.cpp:141] Setting up pool1
I0403 14:08:30.322237 12780 net.cpp:148] Top shape: 100 96 27 27 (6998400)
I0403 14:08:30.322253 12780 net.cpp:156] Memory required for data: 438310000
I0403 14:08:30.322268 12780 layer_factory.hpp:77] Creating layer conv2
I0403 14:08:30.322293 12780 net.cpp:91] Creating Layer conv2
I0403 14:08:30.322311 12780 net.cpp:425] conv2 <- pool1
I0403 14:08:30.322330 12780 net.cpp:399] conv2 -> conv2
I0403 14:08:30.337499 12780 net.cpp:141] Setting up conv2
I0403 14:08:30.337538 12780 net.cpp:148] Top shape: 100 256 27 27 (18662400)
I0403 14:08:30.337555 12780 net.cpp:156] Memory required for data: 512959600
I0403 14:08:30.337579 12780 layer_factory.hpp:77] Creating layer relu2
I0403 14:08:30.337604 12780 net.cpp:91] Creating Layer relu2
I0403 14:08:30.337622 12780 net.cpp:425] relu2 <- conv2
I0403 14:08:30.337641 12780 net.cpp:386] relu2 -> conv2 (in-place)
I0403 14:08:30.337908 12780 net.cpp:141] Setting up relu2
I0403 14:08:30.337935 12780 net.cpp:148] Top shape: 100 256 27 27 (18662400)
I0403 14:08:30.337951 12780 net.cpp:156] Memory required for data: 587609200
I0403 14:08:30.337967 12780 layer_factory.hpp:77] Creating layer norm2
I0403 14:08:30.337990 12780 net.cpp:91] Creating Layer norm2
I0403 14:08:30.338006 12780 net.cpp:425] norm2 <- conv2
I0403 14:08:30.338024 12780 net.cpp:399] norm2 -> norm2
I0403 14:08:30.338207 12780 net.cpp:141] Setting up norm2
I0403 14:08:30.338233 12780 net.cpp:148] Top shape: 100 256 27 27 (18662400)
I0403 14:08:30.338249 12780 net.cpp:156] Memory required for data: 662258800
I0403 14:08:30.338268 12780 layer_factory.hpp:77] Creating layer pool2
I0403 14:08:30.338286 12780 net.cpp:91] Creating Layer pool2
I0403 14:08:30.338302 12780 net.cpp:425] pool2 <- norm2
I0403 14:08:30.338322 12780 net.cpp:399] pool2 -> pool2
I0403 14:08:30.338371 12780 net.cpp:141] Setting up pool2
I0403 14:08:30.338395 12780 net.cpp:148] Top shape: 100 256 13 13 (4326400)
I0403 14:08:30.338412 12780 net.cpp:156] Memory required for data: 679564400
I0403 14:08:30.338426 12780 layer_factory.hpp:77] Creating layer conv3
I0403 14:08:30.338449 12780 net.cpp:91] Creating Layer conv3
I0403 14:08:30.338465 12780 net.cpp:425] conv3 <- pool2
I0403 14:08:30.338485 12780 net.cpp:399] conv3 -> conv3
I0403 14:08:30.376111 12780 net.cpp:141] Setting up conv3
I0403 14:08:30.376162 12780 net.cpp:148] Top shape: 100 384 13 13 (6489600)
I0403 14:08:30.376178 12780 net.cpp:156] Memory required for data: 705522800
I0403 14:08:30.376204 12780 layer_factory.hpp:77] Creating layer relu3
I0403 14:08:30.376222 12780 net.cpp:91] Creating Layer relu3
I0403 14:08:30.376240 12780 net.cpp:425] relu3 <- conv3
I0403 14:08:30.376256 12780 net.cpp:386] relu3 -> conv3 (in-place)
I0403 14:08:30.376546 12780 net.cpp:141] Setting up relu3
I0403 14:08:30.376579 12780 net.cpp:148] Top shape: 100 384 13 13 (6489600)
I0403 14:08:30.376597 12780 net.cpp:156] Memory required for data: 731481200
I0403 14:08:30.376619 12780 layer_factory.hpp:77] Creating layer conv4
I0403 14:08:30.376647 12780 net.cpp:91] Creating Layer conv4
I0403 14:08:30.376667 12780 net.cpp:425] conv4 <- conv3
I0403 14:08:30.376688 12780 net.cpp:399] conv4 -> conv4
I0403 14:08:30.412433 12780 net.cpp:141] Setting up conv4
I0403 14:08:30.412472 12780 net.cpp:148] Top shape: 100 384 13 13 (6489600)
I0403 14:08:30.412524 12780 net.cpp:156] Memory required for data: 757439600
I0403 14:08:30.412547 12780 layer_factory.hpp:77] Creating layer relu4
I0403 14:08:30.412575 12780 net.cpp:91] Creating Layer relu4
I0403 14:08:30.412602 12780 net.cpp:425] relu4 <- conv4
I0403 14:08:30.412629 12780 net.cpp:386] relu4 -> conv4 (in-place)
I0403 14:08:30.412937 12780 net.cpp:141] Setting up relu4
I0403 14:08:30.412966 12780 net.cpp:148] Top shape: 100 384 13 13 (6489600)
I0403 14:08:30.412981 12780 net.cpp:156] Memory required for data: 783398000
I0403 14:08:30.412997 12780 layer_factory.hpp:77] Creating layer conv5
I0403 14:08:30.413023 12780 net.cpp:91] Creating Layer conv5
I0403 14:08:30.413043 12780 net.cpp:425] conv5 <- conv4
I0403 14:08:30.413066 12780 net.cpp:399] conv5 -> conv5
I0403 14:08:30.433173 12780 net.cpp:141] Setting up conv5
I0403 14:08:30.433212 12780 net.cpp:148] Top shape: 100 256 13 13 (4326400)
I0403 14:08:30.433228 12780 net.cpp:156] Memory required for data: 800703600
I0403 14:08:30.433253 12780 layer_factory.hpp:77] Creating layer relu5
I0403 14:08:30.433275 12780 net.cpp:91] Creating Layer relu5
I0403 14:08:30.433293 12780 net.cpp:425] relu5 <- conv5
I0403 14:08:30.433311 12780 net.cpp:386] relu5 -> conv5 (in-place)
I0403 14:08:30.433581 12780 net.cpp:141] Setting up relu5
I0403 14:08:30.433619 12780 net.cpp:148] Top shape: 100 256 13 13 (4326400)
I0403 14:08:30.433637 12780 net.cpp:156] Memory required for data: 818009200
I0403 14:08:30.433655 12780 layer_factory.hpp:77] Creating layer pool5
I0403 14:08:30.433676 12780 net.cpp:91] Creating Layer pool5
I0403 14:08:30.433693 12780 net.cpp:425] pool5 <- conv5
I0403 14:08:30.433714 12780 net.cpp:399] pool5 -> pool5
I0403 14:08:30.433773 12780 net.cpp:141] Setting up pool5
I0403 14:08:30.433799 12780 net.cpp:148] Top shape: 100 256 6 6 (921600)
I0403 14:08:30.433815 12780 net.cpp:156] Memory required for data: 821695600
I0403 14:08:30.433830 12780 layer_factory.hpp:77] Creating layer fc6
I0403 14:08:30.433856 12780 net.cpp:91] Creating Layer fc6
I0403 14:08:30.433873 12780 net.cpp:425] fc6 <- pool5
I0403 14:08:30.433893 12780 net.cpp:399] fc6 -> fc6
I0403 14:08:31.975745 12780 net.cpp:141] Setting up fc6
I0403 14:08:31.975788 12780 net.cpp:148] Top shape: 100 4096 (409600)
I0403 14:08:31.975805 12780 net.cpp:156] Memory required for data: 823334000
I0403 14:08:31.975826 12780 layer_factory.hpp:77] Creating layer relu6
I0403 14:08:31.975852 12780 net.cpp:91] Creating Layer relu6
I0403 14:08:31.975869 12780 net.cpp:425] relu6 <- fc6
I0403 14:08:31.975888 12780 net.cpp:386] relu6 -> fc6 (in-place)
I0403 14:08:31.976104 12780 net.cpp:141] Setting up relu6
I0403 14:08:31.976128 12780 net.cpp:148] Top shape: 100 4096 (409600)
I0403 14:08:31.976143 12780 net.cpp:156] Memory required for data: 824972400
I0403 14:08:31.976158 12780 layer_factory.hpp:77] Creating layer drop6
I0403 14:08:31.976179 12780 net.cpp:91] Creating Layer drop6
I0403 14:08:31.976197 12780 net.cpp:425] drop6 <- fc6
I0403 14:08:31.976213 12780 net.cpp:386] drop6 -> fc6 (in-place)
I0403 14:08:31.976264 12780 net.cpp:141] Setting up drop6
I0403 14:08:31.976289 12780 net.cpp:148] Top shape: 100 4096 (409600)
I0403 14:08:31.976303 12780 net.cpp:156] Memory required for data: 826610800
I0403 14:08:31.976318 12780 layer_factory.hpp:77] Creating layer fc7
I0403 14:08:31.976346 12780 net.cpp:91] Creating Layer fc7
I0403 14:08:31.976363 12780 net.cpp:425] fc7 <- fc6
I0403 14:08:31.976382 12780 net.cpp:399] fc7 -> fc7
I0403 14:08:32.662605 12780 net.cpp:141] Setting up fc7
I0403 14:08:32.662662 12780 net.cpp:148] Top shape: 100 4096 (409600)
I0403 14:08:32.662679 12780 net.cpp:156] Memory required for data: 828249200
I0403 14:08:32.662700 12780 layer_factory.hpp:77] Creating layer relu7
I0403 14:08:32.662724 12780 net.cpp:91] Creating Layer relu7
I0403 14:08:32.662741 12780 net.cpp:425] relu7 <- fc7
I0403 14:08:32.662761 12780 net.cpp:386] relu7 -> fc7 (in-place)
I0403 14:08:32.663151 12780 net.cpp:141] Setting up relu7
I0403 14:08:32.663178 12780 net.cpp:148] Top shape: 100 4096 (409600)
I0403 14:08:32.663225 12780 net.cpp:156] Memory required for data: 829887600
I0403 14:08:32.663241 12780 layer_factory.hpp:77] Creating layer drop7
I0403 14:08:32.663261 12780 net.cpp:91] Creating Layer drop7
I0403 14:08:32.663277 12780 net.cpp:425] drop7 <- fc7
I0403 14:08:32.663295 12780 net.cpp:386] drop7 -> fc7 (in-place)
I0403 14:08:32.663341 12780 net.cpp:141] Setting up drop7
I0403 14:08:32.663362 12780 net.cpp:148] Top shape: 100 4096 (409600)
I0403 14:08:32.663378 12780 net.cpp:156] Memory required for data: 831526000
I0403 14:08:32.663393 12780 layer_factory.hpp:77] Creating layer fc8_plantvillage
I0403 14:08:32.663414 12780 net.cpp:91] Creating Layer fc8_plantvillage
I0403 14:08:32.663430 12780 net.cpp:425] fc8_plantvillage <- fc7
I0403 14:08:32.663450 12780 net.cpp:399] fc8_plantvillage -> fc8_plantvillage
I0403 14:08:32.670310 12780 net.cpp:141] Setting up fc8_plantvillage
I0403 14:08:32.670341 12780 net.cpp:148] Top shape: 100 38 (3800)
I0403 14:08:32.670357 12780 net.cpp:156] Memory required for data: 831541200
I0403 14:08:32.670377 12780 layer_factory.hpp:77] Creating layer fc8_plantvillage_fc8_plantvillage_0_split
I0403 14:08:32.670397 12780 net.cpp:91] Creating Layer fc8_plantvillage_fc8_plantvillage_0_split
I0403 14:08:32.670414 12780 net.cpp:425] fc8_plantvillage_fc8_plantvillage_0_split <- fc8_plantvillage
I0403 14:08:32.670433 12780 net.cpp:399] fc8_plantvillage_fc8_plantvillage_0_split -> fc8_plantvillage_fc8_plantvillage_0_split_0
I0403 14:08:32.670455 12780 net.cpp:399] fc8_plantvillage_fc8_plantvillage_0_split -> fc8_plantvillage_fc8_plantvillage_0_split_1
I0403 14:08:32.670476 12780 net.cpp:399] fc8_plantvillage_fc8_plantvillage_0_split -> fc8_plantvillage_fc8_plantvillage_0_split_2
I0403 14:08:32.670553 12780 net.cpp:141] Setting up fc8_plantvillage_fc8_plantvillage_0_split
I0403 14:08:32.670578 12780 net.cpp:148] Top shape: 100 38 (3800)
I0403 14:08:32.670593 12780 net.cpp:148] Top shape: 100 38 (3800)
I0403 14:08:32.670616 12780 net.cpp:148] Top shape: 100 38 (3800)
I0403 14:08:32.670631 12780 net.cpp:156] Memory required for data: 831586800
I0403 14:08:32.670646 12780 layer_factory.hpp:77] Creating layer prob
I0403 14:08:32.670667 12780 net.cpp:91] Creating Layer prob
I0403 14:08:32.670685 12780 net.cpp:425] prob <- fc8_plantvillage_fc8_plantvillage_0_split_0
I0403 14:08:32.670702 12780 net.cpp:399] prob -> prob
I0403 14:08:32.670925 12780 net.cpp:141] Setting up prob
I0403 14:08:32.670950 12780 net.cpp:148] Top shape: 100 38 (3800)
I0403 14:08:32.670969 12780 net.cpp:156] Memory required for data: 831602000
I0403 14:08:32.670984 12780 layer_factory.hpp:77] Creating layer hdf5out
I0403 14:08:32.671002 12780 net.cpp:91] Creating Layer hdf5out
I0403 14:08:32.671020 12780 net.cpp:425] hdf5out <- prob
I0403 14:08:32.671036 12780 net.cpp:425] hdf5out <- label_data_1_split_0
I0403 14:08:32.673241 12780 net.cpp:141] Setting up hdf5out
…
