…
I0403 14:03:26.858749 12591 net.cpp:313] The NetState phase (1) differed from the phase (0) specified by a rule in layer data
I0403 14:03:26.859057 12591 net.cpp:49] Initializing net from parameters: 
state {
  phase: TEST
}
layer {
  name: "data"
  type: "Data"
  top: "data"
  top: "label"
  include {
    phase: TEST
  }
  transform_param {
    crop_size: 227
    mean_file: "/home/mohanty/data/final_dataset/lmdb/grayscale-80-20/mean.binaryproto"
  }
  data_param {
    source: "/home/mohanty/data/final_dataset/lmdb/grayscale-80-20/test_db"
    batch_size: 100
    backend: LMDB
  }
}
layer {
  name: "conv1"
  type: "Convolution"
  bottom: "data"
  top: "conv1"
  param {
    lr_mult: 1
    decay_mult: 1
  }
  param {
    lr_mult: 2
    decay_mult: 0
  }
  convolution_param {
    num_output: 96
    kernel_size: 11
    stride: 4
    weight_filler {
      type: "gaussian"
      std: 0.01
    }
    bias_filler {
      type: "constant"
      value: 0
    }
  }
}
layer {
  name: "relu1"
  type: "ReLU"
  bottom: "conv1"
  top: "conv1"
}
layer {
  name: "norm1"
  type: "LRN"
  bottom: "conv1"
  top: "norm1"
  lrn_param {
    local_size: 5
    alpha: 0.0001
    beta: 0.75
  }
}
layer {
  name: "pool1"
  type: "Pooling"
  bottom: "norm1"
  top: "pool1"
  pooling_param {
    pool: MAX
    kernel_size: 3
    stride: 2
  }
}
layer {
  name: "conv2"
  type: "Convolution"
  bottom: "pool1"
  top: "conv2"
  param {
    lr_mult: 1
    decay_mult: 1
  }
  param {
    lr_mult: 2
    decay_mult: 0
  }
  convolution_param {
    num_output: 256
    pad: 2
    kernel_size: 5
    group: 2
    weight_filler {
      type: "gaussian"
      std: 0.01
    }
    bias_filler {
      type: "constant"
      value: 0.1
    }
  }
}
layer {
  name: "relu2"
  type: "ReLU"
  bottom: "conv2"
  top: "conv2"
}
layer {
  name: "norm2"
  type: "LRN"
  bottom: "conv2"
  top: "norm2"
  lrn_param {
    local_size: 5
    alpha: 0.0001
    beta: 0.75
  }
}
layer {
  name: "pool2"
  type: "Pooling"
  bottom: "norm2"
  top: "pool2"
  pooling_param {
    pool: MAX
    kernel_size: 3
    stride: 2
  }
}
layer {
  name: "conv3"
  type: "Convolution"
  bottom: "pool2"
  top: "conv3"
  param {
    lr_mult: 1
    decay_mult: 1
  }
  param {
    lr_mult: 2
    decay_mult: 0
  }
  convolution_param {
    num_output: 384
    pad: 1
    kernel_size: 3
    weight_filler {
      type: "gaussian"
      std: 0.01
    }
    bias_filler {
      type: "constant"
      value: 0
    }
  }
}
layer {
  name: "relu3"
  type: "ReLU"
  bottom: "conv3"
  top: "conv3"
}
layer {
  name: "conv4"
  type: "Convolution"
  bottom: "conv3"
  top: "conv4"
  param {
    lr_mult: 1
    decay_mult: 1
  }
  param {
    lr_mult: 2
    decay_mult: 0
  }
  convolution_param {
    num_output: 384
    pad: 1
    kernel_size: 3
    group: 2
    weight_filler {
      type: "gaussian"
      std: 0.01
    }
    bias_filler {
      type: "constant"
      value: 0.1
    }
  }
}
layer {
  name: "relu4"
  type: "ReLU"
  bottom: "conv4"
  top: "conv4"
}
layer {
  name: "conv5"
  type: "Convolution"
  bottom: "conv4"
  top: "conv5"
  param {
    lr_mult: 1
    decay_mult: 1
  }
  param {
    lr_mult: 2
    decay_mult: 0
  }
  convolution_param {
    num_output: 256
    pad: 1
    kernel_size: 3
    group: 2
    weight_filler {
      type: "gaussian"
      std: 0.01
    }
    bias_filler {
      type: "constant"
      value: 0.1
    }
  }
}
layer {
  name: "relu5"
  type: "ReLU"
  bottom: "conv5"
  top: "conv5"
}
layer {
  name: "pool5"
  type: "Pooling"
  bottom: "conv5"
  top: "pool5"
  pooling_param {
    pool: MAX
    kernel_size: 3
    stride: 2
  }
}
layer {
  name: "fc6"
  type: "InnerProduct"
  bottom: "pool5"
  top: "fc6"
  param {
    lr_mult: 1
    decay_mult: 1
  }
  param {
    lr_mult: 2
    decay_mult: 0
  }
  inner_product_param {
    num_output: 4096
    weight_filler {
      type: "gaussian"
      std: 0.005
    }
    bias_filler {
      type: "constant"
      value: 0.1
    }
  }
}
layer {
  name: "relu6"
  type: "ReLU"
  bottom: "fc6"
  top: "fc6"
}
layer {
  name: "drop6"
  type: "Dropout"
  bottom: "fc6"
  top: "fc6"
  dropout_param {
    dropout_ratio: 0.5
  }
}
layer {
  name: "fc7"
  type: "InnerProduct"
  bottom: "fc6"
  top: "fc7"
  param {
    lr_mult: 1
    decay_mult: 1
  }
  param {
    lr_mult: 2
    decay_mult: 0
  }
  inner_product_param {
    num_output: 4096
    weight_filler {
      type: "gaussian"
      std: 0.005
    }
    bias_filler {
      type: "constant"
      value: 0.1
    }
  }
}
layer {
  name: "relu7"
  type: "ReLU"
  bottom: "fc7"
  top: "fc7"
}
layer {
  name: "drop7"
  type: "Dropout"
  bottom: "fc7"
  top: "fc7"
  dropout_param {
    dropout_ratio: 0.5
  }
}
layer {
  name: "fc8_plantvillage"
  type: "InnerProduct"
  bottom: "fc7"
  top: "fc8_plantvillage"
  param {
    lr_mult: 1
    decay_mult: 1
  }
  param {
    lr_mult: 2
    decay_mult: 0
  }
  inner_product_param {
    num_output: 38
    weight_filler {
      type: "gaussian"
      std: 0.01
    }
    bias_filler {
      type: "constant"
      value: 0
    }
  }
}
layer {
  name: "prob"
  type: "Softmax"
  bottom: "fc8_plantvillage"
  top: "prob"
  include {
    phase: TEST
  }
}
layer {
  name: "hdf5out"
  type: "HDF5Output"
  bottom: "prob"
  bottom: "label"
  include {
    phase: TEST
  }
  hdf5_output_param {
    file_name: "hdf5_dumps/iter_3052.h5"
  }
}
layer {
  name: "loss"
  type: "SoftmaxWithLoss"
  bottom: "fc8_plantvillage"
  bottom: "label"
  top: "loss"
}
layer {
  name: "accuracy"
  type: "Accuracy"
  bottom: "fc8_plantvillage"
  bottom: "label"
  top: "accuracy"
  include {
    phase: TEST
  }
}
I0403 14:03:26.859627 12591 layer_factory.hpp:77] Creating layer data
I0403 14:03:26.860270 12591 net.cpp:91] Creating Layer data
I0403 14:03:26.860303 12591 net.cpp:399] data -> data
I0403 14:03:26.860352 12591 net.cpp:399] data -> label
I0403 14:03:26.860388 12591 data_transformer.cpp:25] Loading mean file from: /home/mohanty/data/final_dataset/lmdb/grayscale-80-20/mean.binaryproto
I0403 14:03:26.863677 12594 db_lmdb.cpp:38] Opened lmdb /home/mohanty/data/final_dataset/lmdb/grayscale-80-20/test_db
I0403 14:03:26.875037 12591 data_layer.cpp:41] output data size: 100,3,227,227
I0403 14:03:26.995455 12591 net.cpp:141] Setting up data
I0403 14:03:26.995539 12591 net.cpp:148] Top shape: 100 3 227 227 (15458700)
I0403 14:03:26.995560 12591 net.cpp:148] Top shape: 100 (100)
I0403 14:03:26.995575 12591 net.cpp:156] Memory required for data: 61835200
I0403 14:03:26.995605 12591 layer_factory.hpp:77] Creating layer label_data_1_split
I0403 14:03:26.995630 12591 net.cpp:91] Creating Layer label_data_1_split
I0403 14:03:26.995646 12591 net.cpp:425] label_data_1_split <- label
I0403 14:03:26.995677 12591 net.cpp:399] label_data_1_split -> label_data_1_split_0
I0403 14:03:26.995703 12591 net.cpp:399] label_data_1_split -> label_data_1_split_1
I0403 14:03:26.995723 12591 net.cpp:399] label_data_1_split -> label_data_1_split_2
I0403 14:03:26.995784 12591 net.cpp:141] Setting up label_data_1_split
I0403 14:03:26.995806 12591 net.cpp:148] Top shape: 100 (100)
I0403 14:03:26.995821 12591 net.cpp:148] Top shape: 100 (100)
I0403 14:03:26.995836 12591 net.cpp:148] Top shape: 100 (100)
I0403 14:03:26.995851 12591 net.cpp:156] Memory required for data: 61836400
I0403 14:03:26.995864 12591 layer_factory.hpp:77] Creating layer conv1
I0403 14:03:26.995894 12591 net.cpp:91] Creating Layer conv1
I0403 14:03:26.995911 12591 net.cpp:425] conv1 <- data
I0403 14:03:26.995929 12591 net.cpp:399] conv1 -> conv1
I0403 14:03:27.136612 12591 net.cpp:141] Setting up conv1
I0403 14:03:27.136657 12591 net.cpp:148] Top shape: 100 96 55 55 (29040000)
I0403 14:03:27.136674 12591 net.cpp:156] Memory required for data: 177996400
I0403 14:03:27.136704 12591 layer_factory.hpp:77] Creating layer relu1
I0403 14:03:27.136734 12591 net.cpp:91] Creating Layer relu1
I0403 14:03:27.136754 12591 net.cpp:425] relu1 <- conv1
I0403 14:03:27.136772 12591 net.cpp:386] relu1 -> conv1 (in-place)
I0403 14:03:27.137054 12591 net.cpp:141] Setting up relu1
I0403 14:03:27.137081 12591 net.cpp:148] Top shape: 100 96 55 55 (29040000)
I0403 14:03:27.137130 12591 net.cpp:156] Memory required for data: 294156400
I0403 14:03:27.137146 12591 layer_factory.hpp:77] Creating layer norm1
I0403 14:03:27.137176 12591 net.cpp:91] Creating Layer norm1
I0403 14:03:27.137194 12591 net.cpp:425] norm1 <- conv1
I0403 14:03:27.137214 12591 net.cpp:399] norm1 -> norm1
I0403 14:03:27.137545 12591 net.cpp:141] Setting up norm1
I0403 14:03:27.137574 12591 net.cpp:148] Top shape: 100 96 55 55 (29040000)
I0403 14:03:27.137591 12591 net.cpp:156] Memory required for data: 410316400
I0403 14:03:27.137611 12591 layer_factory.hpp:77] Creating layer pool1
I0403 14:03:27.137635 12591 net.cpp:91] Creating Layer pool1
I0403 14:03:27.137653 12591 net.cpp:425] pool1 <- norm1
I0403 14:03:27.137672 12591 net.cpp:399] pool1 -> pool1
I0403 14:03:27.137744 12591 net.cpp:141] Setting up pool1
I0403 14:03:27.137768 12591 net.cpp:148] Top shape: 100 96 27 27 (6998400)
I0403 14:03:27.137784 12591 net.cpp:156] Memory required for data: 438310000
I0403 14:03:27.137799 12591 layer_factory.hpp:77] Creating layer conv2
I0403 14:03:27.137826 12591 net.cpp:91] Creating Layer conv2
I0403 14:03:27.137842 12591 net.cpp:425] conv2 <- pool1
I0403 14:03:27.137863 12591 net.cpp:399] conv2 -> conv2
I0403 14:03:27.152720 12591 net.cpp:141] Setting up conv2
I0403 14:03:27.152757 12591 net.cpp:148] Top shape: 100 256 27 27 (18662400)
I0403 14:03:27.152775 12591 net.cpp:156] Memory required for data: 512959600
I0403 14:03:27.152796 12591 layer_factory.hpp:77] Creating layer relu2
I0403 14:03:27.152813 12591 net.cpp:91] Creating Layer relu2
I0403 14:03:27.152829 12591 net.cpp:425] relu2 <- conv2
I0403 14:03:27.152848 12591 net.cpp:386] relu2 -> conv2 (in-place)
I0403 14:03:27.153126 12591 net.cpp:141] Setting up relu2
I0403 14:03:27.153152 12591 net.cpp:148] Top shape: 100 256 27 27 (18662400)
I0403 14:03:27.153167 12591 net.cpp:156] Memory required for data: 587609200
I0403 14:03:27.153180 12591 layer_factory.hpp:77] Creating layer norm2
I0403 14:03:27.153203 12591 net.cpp:91] Creating Layer norm2
I0403 14:03:27.153218 12591 net.cpp:425] norm2 <- conv2
I0403 14:03:27.153235 12591 net.cpp:399] norm2 -> norm2
I0403 14:03:27.153426 12591 net.cpp:141] Setting up norm2
I0403 14:03:27.153455 12591 net.cpp:148] Top shape: 100 256 27 27 (18662400)
I0403 14:03:27.153468 12591 net.cpp:156] Memory required for data: 662258800
I0403 14:03:27.153483 12591 layer_factory.hpp:77] Creating layer pool2
I0403 14:03:27.153501 12591 net.cpp:91] Creating Layer pool2
I0403 14:03:27.153514 12591 net.cpp:425] pool2 <- norm2
I0403 14:03:27.153533 12591 net.cpp:399] pool2 -> pool2
I0403 14:03:27.153635 12591 net.cpp:141] Setting up pool2
I0403 14:03:27.153661 12591 net.cpp:148] Top shape: 100 256 13 13 (4326400)
I0403 14:03:27.153683 12591 net.cpp:156] Memory required for data: 679564400
I0403 14:03:27.153697 12591 layer_factory.hpp:77] Creating layer conv3
I0403 14:03:27.153719 12591 net.cpp:91] Creating Layer conv3
I0403 14:03:27.153735 12591 net.cpp:425] conv3 <- pool2
I0403 14:03:27.153755 12591 net.cpp:399] conv3 -> conv3
I0403 14:03:27.194912 12591 net.cpp:141] Setting up conv3
I0403 14:03:27.194972 12591 net.cpp:148] Top shape: 100 384 13 13 (6489600)
I0403 14:03:27.194989 12591 net.cpp:156] Memory required for data: 705522800
I0403 14:03:27.195014 12591 layer_factory.hpp:77] Creating layer relu3
I0403 14:03:27.195035 12591 net.cpp:91] Creating Layer relu3
I0403 14:03:27.195052 12591 net.cpp:425] relu3 <- conv3
I0403 14:03:27.195073 12591 net.cpp:386] relu3 -> conv3 (in-place)
I0403 14:03:27.195360 12591 net.cpp:141] Setting up relu3
I0403 14:03:27.195389 12591 net.cpp:148] Top shape: 100 384 13 13 (6489600)
I0403 14:03:27.195406 12591 net.cpp:156] Memory required for data: 731481200
I0403 14:03:27.195421 12591 layer_factory.hpp:77] Creating layer conv4
I0403 14:03:27.195446 12591 net.cpp:91] Creating Layer conv4
I0403 14:03:27.195462 12591 net.cpp:425] conv4 <- conv3
I0403 14:03:27.195480 12591 net.cpp:399] conv4 -> conv4
I0403 14:03:27.226052 12591 net.cpp:141] Setting up conv4
I0403 14:03:27.226091 12591 net.cpp:148] Top shape: 100 384 13 13 (6489600)
I0403 14:03:27.226127 12591 net.cpp:156] Memory required for data: 757439600
I0403 14:03:27.226151 12591 layer_factory.hpp:77] Creating layer relu4
I0403 14:03:27.226176 12591 net.cpp:91] Creating Layer relu4
I0403 14:03:27.226193 12591 net.cpp:425] relu4 <- conv4
I0403 14:03:27.226213 12591 net.cpp:386] relu4 -> conv4 (in-place)
I0403 14:03:27.226510 12591 net.cpp:141] Setting up relu4
I0403 14:03:27.226536 12591 net.cpp:148] Top shape: 100 384 13 13 (6489600)
I0403 14:03:27.226549 12591 net.cpp:156] Memory required for data: 783398000
I0403 14:03:27.226564 12591 layer_factory.hpp:77] Creating layer conv5
I0403 14:03:27.226619 12591 net.cpp:91] Creating Layer conv5
I0403 14:03:27.226640 12591 net.cpp:425] conv5 <- conv4
I0403 14:03:27.226658 12591 net.cpp:399] conv5 -> conv5
I0403 14:03:27.246817 12591 net.cpp:141] Setting up conv5
I0403 14:03:27.246855 12591 net.cpp:148] Top shape: 100 256 13 13 (4326400)
I0403 14:03:27.246871 12591 net.cpp:156] Memory required for data: 800703600
I0403 14:03:27.246894 12591 layer_factory.hpp:77] Creating layer relu5
I0403 14:03:27.246912 12591 net.cpp:91] Creating Layer relu5
I0403 14:03:27.246928 12591 net.cpp:425] relu5 <- conv5
I0403 14:03:27.246948 12591 net.cpp:386] relu5 -> conv5 (in-place)
I0403 14:03:27.247259 12591 net.cpp:141] Setting up relu5
I0403 14:03:27.247285 12591 net.cpp:148] Top shape: 100 256 13 13 (4326400)
I0403 14:03:27.247300 12591 net.cpp:156] Memory required for data: 818009200
I0403 14:03:27.247314 12591 layer_factory.hpp:77] Creating layer pool5
I0403 14:03:27.247335 12591 net.cpp:91] Creating Layer pool5
I0403 14:03:27.247349 12591 net.cpp:425] pool5 <- conv5
I0403 14:03:27.247370 12591 net.cpp:399] pool5 -> pool5
I0403 14:03:27.247427 12591 net.cpp:141] Setting up pool5
I0403 14:03:27.247450 12591 net.cpp:148] Top shape: 100 256 6 6 (921600)
I0403 14:03:27.247463 12591 net.cpp:156] Memory required for data: 821695600
I0403 14:03:27.247478 12591 layer_factory.hpp:77] Creating layer fc6
I0403 14:03:27.247508 12591 net.cpp:91] Creating Layer fc6
I0403 14:03:27.247525 12591 net.cpp:425] fc6 <- pool5
I0403 14:03:27.247545 12591 net.cpp:399] fc6 -> fc6
I0403 14:03:28.777629 12591 net.cpp:141] Setting up fc6
I0403 14:03:28.777669 12591 net.cpp:148] Top shape: 100 4096 (409600)
I0403 14:03:28.777685 12591 net.cpp:156] Memory required for data: 823334000
I0403 14:03:28.777704 12591 layer_factory.hpp:77] Creating layer relu6
I0403 14:03:28.777727 12591 net.cpp:91] Creating Layer relu6
I0403 14:03:28.777745 12591 net.cpp:425] relu6 <- fc6
I0403 14:03:28.777762 12591 net.cpp:386] relu6 -> fc6 (in-place)
I0403 14:03:28.777969 12591 net.cpp:141] Setting up relu6
I0403 14:03:28.777995 12591 net.cpp:148] Top shape: 100 4096 (409600)
I0403 14:03:28.778010 12591 net.cpp:156] Memory required for data: 824972400
I0403 14:03:28.778024 12591 layer_factory.hpp:77] Creating layer drop6
I0403 14:03:28.778043 12591 net.cpp:91] Creating Layer drop6
I0403 14:03:28.778059 12591 net.cpp:425] drop6 <- fc6
I0403 14:03:28.778075 12591 net.cpp:386] drop6 -> fc6 (in-place)
I0403 14:03:28.778126 12591 net.cpp:141] Setting up drop6
I0403 14:03:28.778147 12591 net.cpp:148] Top shape: 100 4096 (409600)
I0403 14:03:28.778162 12591 net.cpp:156] Memory required for data: 826610800
I0403 14:03:28.778174 12591 layer_factory.hpp:77] Creating layer fc7
I0403 14:03:28.778195 12591 net.cpp:91] Creating Layer fc7
I0403 14:03:28.778211 12591 net.cpp:425] fc7 <- fc6
I0403 14:03:28.778228 12591 net.cpp:399] fc7 -> fc7
I0403 14:03:29.453321 12591 net.cpp:141] Setting up fc7
I0403 14:03:29.453361 12591 net.cpp:148] Top shape: 100 4096 (409600)
I0403 14:03:29.453377 12591 net.cpp:156] Memory required for data: 828249200
I0403 14:03:29.453395 12591 layer_factory.hpp:77] Creating layer relu7
I0403 14:03:29.453418 12591 net.cpp:91] Creating Layer relu7
I0403 14:03:29.453435 12591 net.cpp:425] relu7 <- fc7
I0403 14:03:29.453456 12591 net.cpp:386] relu7 -> fc7 (in-place)
I0403 14:03:29.453846 12591 net.cpp:141] Setting up relu7
I0403 14:03:29.453873 12591 net.cpp:148] Top shape: 100 4096 (409600)
I0403 14:03:29.453928 12591 net.cpp:156] Memory required for data: 829887600
I0403 14:03:29.453944 12591 layer_factory.hpp:77] Creating layer drop7
I0403 14:03:29.453961 12591 net.cpp:91] Creating Layer drop7
I0403 14:03:29.453976 12591 net.cpp:425] drop7 <- fc7
I0403 14:03:29.453995 12591 net.cpp:386] drop7 -> fc7 (in-place)
I0403 14:03:29.454036 12591 net.cpp:141] Setting up drop7
I0403 14:03:29.454058 12591 net.cpp:148] Top shape: 100 4096 (409600)
I0403 14:03:29.454072 12591 net.cpp:156] Memory required for data: 831526000
I0403 14:03:29.454085 12591 layer_factory.hpp:77] Creating layer fc8_plantvillage
I0403 14:03:29.454107 12591 net.cpp:91] Creating Layer fc8_plantvillage
I0403 14:03:29.454123 12591 net.cpp:425] fc8_plantvillage <- fc7
I0403 14:03:29.454141 12591 net.cpp:399] fc8_plantvillage -> fc8_plantvillage
I0403 14:03:29.460669 12591 net.cpp:141] Setting up fc8_plantvillage
I0403 14:03:29.460695 12591 net.cpp:148] Top shape: 100 38 (3800)
I0403 14:03:29.460711 12591 net.cpp:156] Memory required for data: 831541200
I0403 14:03:29.460728 12591 layer_factory.hpp:77] Creating layer fc8_plantvillage_fc8_plantvillage_0_split
I0403 14:03:29.460746 12591 net.cpp:91] Creating Layer fc8_plantvillage_fc8_plantvillage_0_split
I0403 14:03:29.460759 12591 net.cpp:425] fc8_plantvillage_fc8_plantvillage_0_split <- fc8_plantvillage
I0403 14:03:29.460777 12591 net.cpp:399] fc8_plantvillage_fc8_plantvillage_0_split -> fc8_plantvillage_fc8_plantvillage_0_split_0
I0403 14:03:29.460798 12591 net.cpp:399] fc8_plantvillage_fc8_plantvillage_0_split -> fc8_plantvillage_fc8_plantvillage_0_split_1
I0403 14:03:29.460816 12591 net.cpp:399] fc8_plantvillage_fc8_plantvillage_0_split -> fc8_plantvillage_fc8_plantvillage_0_split_2
I0403 14:03:29.460891 12591 net.cpp:141] Setting up fc8_plantvillage_fc8_plantvillage_0_split
I0403 14:03:29.460912 12591 net.cpp:148] Top shape: 100 38 (3800)
I0403 14:03:29.460927 12591 net.cpp:148] Top shape: 100 38 (3800)
I0403 14:03:29.460942 12591 net.cpp:148] Top shape: 100 38 (3800)
I0403 14:03:29.460955 12591 net.cpp:156] Memory required for data: 831586800
I0403 14:03:29.460969 12591 layer_factory.hpp:77] Creating layer prob
I0403 14:03:29.460986 12591 net.cpp:91] Creating Layer prob
I0403 14:03:29.461000 12591 net.cpp:425] prob <- fc8_plantvillage_fc8_plantvillage_0_split_0
I0403 14:03:29.461016 12591 net.cpp:399] prob -> prob
I0403 14:03:29.461231 12591 net.cpp:141] Setting up prob
I0403 14:03:29.461258 12591 net.cpp:148] Top shape: 100 38 (3800)
I0403 14:03:29.461273 12591 net.cpp:156] Memory required for data: 831602000
I0403 14:03:29.461287 12591 layer_factory.hpp:77] Creating layer hdf5out
I0403 14:03:29.461304 12591 net.cpp:91] Creating Layer hdf5out
I0403 14:03:29.461319 12591 net.cpp:425] hdf5out <- prob
I0403 14:03:29.461335 12591 net.cpp:425] hdf5out <- label_data_1_split_0
I0403 14:03:29.463882 12591 net.cpp:141] Setting up hdf5out
…
