…
I0403 14:02:11.657492 12558 net.cpp:313] The NetState phase (1) differed from the phase (0) specified by a rule in layer data
I0403 14:02:11.657790 12558 net.cpp:49] Initializing net from parameters: 
state {
  phase: TEST
}
layer {
  name: "data"
  type: "Data"
  top: "data"
  top: "label"
  include {
    phase: TEST
  }
  transform_param {
    crop_size: 227
    mean_file: "/home/mohanty/data/final_dataset/lmdb/grayscale-80-20/mean.binaryproto"
  }
  data_param {
    source: "/home/mohanty/data/final_dataset/lmdb/grayscale-80-20/test_db"
    batch_size: 100
    backend: LMDB
  }
}
layer {
  name: "conv1"
  type: "Convolution"
  bottom: "data"
  top: "conv1"
  param {
    lr_mult: 1
    decay_mult: 1
  }
  param {
    lr_mult: 2
    decay_mult: 0
  }
  convolution_param {
    num_output: 96
    kernel_size: 11
    stride: 4
    weight_filler {
      type: "gaussian"
      std: 0.01
    }
    bias_filler {
      type: "constant"
      value: 0
    }
  }
}
layer {
  name: "relu1"
  type: "ReLU"
  bottom: "conv1"
  top: "conv1"
}
layer {
  name: "norm1"
  type: "LRN"
  bottom: "conv1"
  top: "norm1"
  lrn_param {
    local_size: 5
    alpha: 0.0001
    beta: 0.75
  }
}
layer {
  name: "pool1"
  type: "Pooling"
  bottom: "norm1"
  top: "pool1"
  pooling_param {
    pool: MAX
    kernel_size: 3
    stride: 2
  }
}
layer {
  name: "conv2"
  type: "Convolution"
  bottom: "pool1"
  top: "conv2"
  param {
    lr_mult: 1
    decay_mult: 1
  }
  param {
    lr_mult: 2
    decay_mult: 0
  }
  convolution_param {
    num_output: 256
    pad: 2
    kernel_size: 5
    group: 2
    weight_filler {
      type: "gaussian"
      std: 0.01
    }
    bias_filler {
      type: "constant"
      value: 0.1
    }
  }
}
layer {
  name: "relu2"
  type: "ReLU"
  bottom: "conv2"
  top: "conv2"
}
layer {
  name: "norm2"
  type: "LRN"
  bottom: "conv2"
  top: "norm2"
  lrn_param {
    local_size: 5
    alpha: 0.0001
    beta: 0.75
  }
}
layer {
  name: "pool2"
  type: "Pooling"
  bottom: "norm2"
  top: "pool2"
  pooling_param {
    pool: MAX
    kernel_size: 3
    stride: 2
  }
}
layer {
  name: "conv3"
  type: "Convolution"
  bottom: "pool2"
  top: "conv3"
  param {
    lr_mult: 1
    decay_mult: 1
  }
  param {
    lr_mult: 2
    decay_mult: 0
  }
  convolution_param {
    num_output: 384
    pad: 1
    kernel_size: 3
    weight_filler {
      type: "gaussian"
      std: 0.01
    }
    bias_filler {
      type: "constant"
      value: 0
    }
  }
}
layer {
  name: "relu3"
  type: "ReLU"
  bottom: "conv3"
  top: "conv3"
}
layer {
  name: "conv4"
  type: "Convolution"
  bottom: "conv3"
  top: "conv4"
  param {
    lr_mult: 1
    decay_mult: 1
  }
  param {
    lr_mult: 2
    decay_mult: 0
  }
  convolution_param {
    num_output: 384
    pad: 1
    kernel_size: 3
    group: 2
    weight_filler {
      type: "gaussian"
      std: 0.01
    }
    bias_filler {
      type: "constant"
      value: 0.1
    }
  }
}
layer {
  name: "relu4"
  type: "ReLU"
  bottom: "conv4"
  top: "conv4"
}
layer {
  name: "conv5"
  type: "Convolution"
  bottom: "conv4"
  top: "conv5"
  param {
    lr_mult: 1
    decay_mult: 1
  }
  param {
    lr_mult: 2
    decay_mult: 0
  }
  convolution_param {
    num_output: 256
    pad: 1
    kernel_size: 3
    group: 2
    weight_filler {
      type: "gaussian"
      std: 0.01
    }
    bias_filler {
      type: "constant"
      value: 0.1
    }
  }
}
layer {
  name: "relu5"
  type: "ReLU"
  bottom: "conv5"
  top: "conv5"
}
layer {
  name: "pool5"
  type: "Pooling"
  bottom: "conv5"
  top: "pool5"
  pooling_param {
    pool: MAX
    kernel_size: 3
    stride: 2
  }
}
layer {
  name: "fc6"
  type: "InnerProduct"
  bottom: "pool5"
  top: "fc6"
  param {
    lr_mult: 1
    decay_mult: 1
  }
  param {
    lr_mult: 2
    decay_mult: 0
  }
  inner_product_param {
    num_output: 4096
    weight_filler {
      type: "gaussian"
      std: 0.005
    }
    bias_filler {
      type: "constant"
      value: 0.1
    }
  }
}
layer {
  name: "relu6"
  type: "ReLU"
  bottom: "fc6"
  top: "fc6"
}
layer {
  name: "drop6"
  type: "Dropout"
  bottom: "fc6"
  top: "fc6"
  dropout_param {
    dropout_ratio: 0.5
  }
}
layer {
  name: "fc7"
  type: "InnerProduct"
  bottom: "fc6"
  top: "fc7"
  param {
    lr_mult: 1
    decay_mult: 1
  }
  param {
    lr_mult: 2
    decay_mult: 0
  }
  inner_product_param {
    num_output: 4096
    weight_filler {
      type: "gaussian"
      std: 0.005
    }
    bias_filler {
      type: "constant"
      value: 0.1
    }
  }
}
layer {
  name: "relu7"
  type: "ReLU"
  bottom: "fc7"
  top: "fc7"
}
layer {
  name: "drop7"
  type: "Dropout"
  bottom: "fc7"
  top: "fc7"
  dropout_param {
    dropout_ratio: 0.5
  }
}
layer {
  name: "fc8_plantvillage"
  type: "InnerProduct"
  bottom: "fc7"
  top: "fc8_plantvillage"
  param {
    lr_mult: 1
    decay_mult: 1
  }
  param {
    lr_mult: 2
    decay_mult: 0
  }
  inner_product_param {
    num_output: 38
    weight_filler {
      type: "gaussian"
      std: 0.01
    }
    bias_filler {
      type: "constant"
      value: 0
    }
  }
}
layer {
  name: "prob"
  type: "Softmax"
  bottom: "fc8_plantvillage"
  top: "prob"
  include {
    phase: TEST
  }
}
layer {
  name: "hdf5out"
  type: "HDF5Output"
  bottom: "prob"
  bottom: "label"
  include {
    phase: TEST
  }
  hdf5_output_param {
    file_name: "hdf5_dumps/iter_1744.h5"
  }
}
layer {
  name: "loss"
  type: "SoftmaxWithLoss"
  bottom: "fc8_plantvillage"
  bottom: "label"
  top: "loss"
}
layer {
  name: "accuracy"
  type: "Accuracy"
  bottom: "fc8_plantvillage"
  bottom: "label"
  top: "accuracy"
  include {
    phase: TEST
  }
}
I0403 14:02:11.658370 12558 layer_factory.hpp:77] Creating layer data
I0403 14:02:11.659006 12558 net.cpp:91] Creating Layer data
I0403 14:02:11.659037 12558 net.cpp:399] data -> data
I0403 14:02:11.659085 12558 net.cpp:399] data -> label
I0403 14:02:11.659121 12558 data_transformer.cpp:25] Loading mean file from: /home/mohanty/data/final_dataset/lmdb/grayscale-80-20/mean.binaryproto
I0403 14:02:11.661957 12561 db_lmdb.cpp:38] Opened lmdb /home/mohanty/data/final_dataset/lmdb/grayscale-80-20/test_db
I0403 14:02:11.673415 12558 data_layer.cpp:41] output data size: 100,3,227,227
I0403 14:02:11.791864 12558 net.cpp:141] Setting up data
I0403 14:02:11.791923 12558 net.cpp:148] Top shape: 100 3 227 227 (15458700)
I0403 14:02:11.791945 12558 net.cpp:148] Top shape: 100 (100)
I0403 14:02:11.791962 12558 net.cpp:156] Memory required for data: 61835200
I0403 14:02:11.791990 12558 layer_factory.hpp:77] Creating layer label_data_1_split
I0403 14:02:11.792014 12558 net.cpp:91] Creating Layer label_data_1_split
I0403 14:02:11.792032 12558 net.cpp:425] label_data_1_split <- label
I0403 14:02:11.792062 12558 net.cpp:399] label_data_1_split -> label_data_1_split_0
I0403 14:02:11.792088 12558 net.cpp:399] label_data_1_split -> label_data_1_split_1
I0403 14:02:11.792107 12558 net.cpp:399] label_data_1_split -> label_data_1_split_2
I0403 14:02:11.792168 12558 net.cpp:141] Setting up label_data_1_split
I0403 14:02:11.792191 12558 net.cpp:148] Top shape: 100 (100)
I0403 14:02:11.792206 12558 net.cpp:148] Top shape: 100 (100)
I0403 14:02:11.792222 12558 net.cpp:148] Top shape: 100 (100)
I0403 14:02:11.792235 12558 net.cpp:156] Memory required for data: 61836400
I0403 14:02:11.792249 12558 layer_factory.hpp:77] Creating layer conv1
I0403 14:02:11.792279 12558 net.cpp:91] Creating Layer conv1
I0403 14:02:11.792299 12558 net.cpp:425] conv1 <- data
I0403 14:02:11.792317 12558 net.cpp:399] conv1 -> conv1
I0403 14:02:11.936745 12558 net.cpp:141] Setting up conv1
I0403 14:02:11.936822 12558 net.cpp:148] Top shape: 100 96 55 55 (29040000)
I0403 14:02:11.936841 12558 net.cpp:156] Memory required for data: 177996400
I0403 14:02:11.936872 12558 layer_factory.hpp:77] Creating layer relu1
I0403 14:02:11.936899 12558 net.cpp:91] Creating Layer relu1
I0403 14:02:11.936918 12558 net.cpp:425] relu1 <- conv1
I0403 14:02:11.936936 12558 net.cpp:386] relu1 -> conv1 (in-place)
I0403 14:02:11.937244 12558 net.cpp:141] Setting up relu1
I0403 14:02:11.937276 12558 net.cpp:148] Top shape: 100 96 55 55 (29040000)
I0403 14:02:11.937331 12558 net.cpp:156] Memory required for data: 294156400
I0403 14:02:11.937348 12558 layer_factory.hpp:77] Creating layer norm1
I0403 14:02:11.937376 12558 net.cpp:91] Creating Layer norm1
I0403 14:02:11.937393 12558 net.cpp:425] norm1 <- conv1
I0403 14:02:11.937412 12558 net.cpp:399] norm1 -> norm1
I0403 14:02:11.937743 12558 net.cpp:141] Setting up norm1
I0403 14:02:11.937772 12558 net.cpp:148] Top shape: 100 96 55 55 (29040000)
I0403 14:02:11.937788 12558 net.cpp:156] Memory required for data: 410316400
I0403 14:02:11.937805 12558 layer_factory.hpp:77] Creating layer pool1
I0403 14:02:11.937830 12558 net.cpp:91] Creating Layer pool1
I0403 14:02:11.937849 12558 net.cpp:425] pool1 <- norm1
I0403 14:02:11.937866 12558 net.cpp:399] pool1 -> pool1
I0403 14:02:11.937942 12558 net.cpp:141] Setting up pool1
I0403 14:02:11.937965 12558 net.cpp:148] Top shape: 100 96 27 27 (6998400)
I0403 14:02:11.937980 12558 net.cpp:156] Memory required for data: 438310000
I0403 14:02:11.937996 12558 layer_factory.hpp:77] Creating layer conv2
I0403 14:02:11.938022 12558 net.cpp:91] Creating Layer conv2
I0403 14:02:11.938040 12558 net.cpp:425] conv2 <- pool1
I0403 14:02:11.938062 12558 net.cpp:399] conv2 -> conv2
I0403 14:02:11.953387 12558 net.cpp:141] Setting up conv2
I0403 14:02:11.953441 12558 net.cpp:148] Top shape: 100 256 27 27 (18662400)
I0403 14:02:11.953459 12558 net.cpp:156] Memory required for data: 512959600
I0403 14:02:11.953483 12558 layer_factory.hpp:77] Creating layer relu2
I0403 14:02:11.953505 12558 net.cpp:91] Creating Layer relu2
I0403 14:02:11.953521 12558 net.cpp:425] relu2 <- conv2
I0403 14:02:11.953538 12558 net.cpp:386] relu2 -> conv2 (in-place)
I0403 14:02:11.953827 12558 net.cpp:141] Setting up relu2
I0403 14:02:11.953857 12558 net.cpp:148] Top shape: 100 256 27 27 (18662400)
I0403 14:02:11.953874 12558 net.cpp:156] Memory required for data: 587609200
I0403 14:02:11.953891 12558 layer_factory.hpp:77] Creating layer norm2
I0403 14:02:11.953910 12558 net.cpp:91] Creating Layer norm2
I0403 14:02:11.953927 12558 net.cpp:425] norm2 <- conv2
I0403 14:02:11.953949 12558 net.cpp:399] norm2 -> norm2
I0403 14:02:11.954152 12558 net.cpp:141] Setting up norm2
I0403 14:02:11.954179 12558 net.cpp:148] Top shape: 100 256 27 27 (18662400)
I0403 14:02:11.954196 12558 net.cpp:156] Memory required for data: 662258800
I0403 14:02:11.954212 12558 layer_factory.hpp:77] Creating layer pool2
I0403 14:02:11.954231 12558 net.cpp:91] Creating Layer pool2
I0403 14:02:11.954246 12558 net.cpp:425] pool2 <- norm2
I0403 14:02:11.954265 12558 net.cpp:399] pool2 -> pool2
I0403 14:02:11.954319 12558 net.cpp:141] Setting up pool2
I0403 14:02:11.954342 12558 net.cpp:148] Top shape: 100 256 13 13 (4326400)
I0403 14:02:11.954357 12558 net.cpp:156] Memory required for data: 679564400
I0403 14:02:11.954372 12558 layer_factory.hpp:77] Creating layer conv3
I0403 14:02:11.954397 12558 net.cpp:91] Creating Layer conv3
I0403 14:02:11.954414 12558 net.cpp:425] conv3 <- pool2
I0403 14:02:11.954435 12558 net.cpp:399] conv3 -> conv3
I0403 14:02:11.992607 12558 net.cpp:141] Setting up conv3
I0403 14:02:11.992655 12558 net.cpp:148] Top shape: 100 384 13 13 (6489600)
I0403 14:02:11.992671 12558 net.cpp:156] Memory required for data: 705522800
I0403 14:02:11.992696 12558 layer_factory.hpp:77] Creating layer relu3
I0403 14:02:11.992719 12558 net.cpp:91] Creating Layer relu3
I0403 14:02:11.992738 12558 net.cpp:425] relu3 <- conv3
I0403 14:02:11.992755 12558 net.cpp:386] relu3 -> conv3 (in-place)
I0403 14:02:11.993032 12558 net.cpp:141] Setting up relu3
I0403 14:02:11.993059 12558 net.cpp:148] Top shape: 100 384 13 13 (6489600)
I0403 14:02:11.993074 12558 net.cpp:156] Memory required for data: 731481200
I0403 14:02:11.993089 12558 layer_factory.hpp:77] Creating layer conv4
I0403 14:02:11.993115 12558 net.cpp:91] Creating Layer conv4
I0403 14:02:11.993132 12558 net.cpp:425] conv4 <- conv3
I0403 14:02:11.993151 12558 net.cpp:399] conv4 -> conv4
I0403 14:02:12.023037 12558 net.cpp:141] Setting up conv4
I0403 14:02:12.023092 12558 net.cpp:148] Top shape: 100 384 13 13 (6489600)
I0403 14:02:12.023145 12558 net.cpp:156] Memory required for data: 757439600
I0403 14:02:12.023167 12558 layer_factory.hpp:77] Creating layer relu4
I0403 14:02:12.023190 12558 net.cpp:91] Creating Layer relu4
I0403 14:02:12.023208 12558 net.cpp:425] relu4 <- conv4
I0403 14:02:12.023227 12558 net.cpp:386] relu4 -> conv4 (in-place)
I0403 14:02:12.023516 12558 net.cpp:141] Setting up relu4
I0403 14:02:12.023543 12558 net.cpp:148] Top shape: 100 384 13 13 (6489600)
I0403 14:02:12.023558 12558 net.cpp:156] Memory required for data: 783398000
I0403 14:02:12.023578 12558 layer_factory.hpp:77] Creating layer conv5
I0403 14:02:12.023605 12558 net.cpp:91] Creating Layer conv5
I0403 14:02:12.023623 12558 net.cpp:425] conv5 <- conv4
I0403 14:02:12.023645 12558 net.cpp:399] conv5 -> conv5
I0403 14:02:12.044515 12558 net.cpp:141] Setting up conv5
I0403 14:02:12.044584 12558 net.cpp:148] Top shape: 100 256 13 13 (4326400)
I0403 14:02:12.044605 12558 net.cpp:156] Memory required for data: 800703600
I0403 14:02:12.044643 12558 layer_factory.hpp:77] Creating layer relu5
I0403 14:02:12.044669 12558 net.cpp:91] Creating Layer relu5
I0403 14:02:12.044688 12558 net.cpp:425] relu5 <- conv5
I0403 14:02:12.044708 12558 net.cpp:386] relu5 -> conv5 (in-place)
I0403 14:02:12.044992 12558 net.cpp:141] Setting up relu5
I0403 14:02:12.045022 12558 net.cpp:148] Top shape: 100 256 13 13 (4326400)
I0403 14:02:12.045038 12558 net.cpp:156] Memory required for data: 818009200
I0403 14:02:12.045054 12558 layer_factory.hpp:77] Creating layer pool5
I0403 14:02:12.045076 12558 net.cpp:91] Creating Layer pool5
I0403 14:02:12.045092 12558 net.cpp:425] pool5 <- conv5
I0403 14:02:12.045114 12558 net.cpp:399] pool5 -> pool5
I0403 14:02:12.045176 12558 net.cpp:141] Setting up pool5
I0403 14:02:12.045200 12558 net.cpp:148] Top shape: 100 256 6 6 (921600)
I0403 14:02:12.045214 12558 net.cpp:156] Memory required for data: 821695600
I0403 14:02:12.045229 12558 layer_factory.hpp:77] Creating layer fc6
I0403 14:02:12.045258 12558 net.cpp:91] Creating Layer fc6
I0403 14:02:12.045276 12558 net.cpp:425] fc6 <- pool5
I0403 14:02:12.045298 12558 net.cpp:399] fc6 -> fc6
I0403 14:02:13.640524 12558 net.cpp:141] Setting up fc6
I0403 14:02:13.640573 12558 net.cpp:148] Top shape: 100 4096 (409600)
I0403 14:02:13.640593 12558 net.cpp:156] Memory required for data: 823334000
I0403 14:02:13.640614 12558 layer_factory.hpp:77] Creating layer relu6
I0403 14:02:13.640637 12558 net.cpp:91] Creating Layer relu6
I0403 14:02:13.640656 12558 net.cpp:425] relu6 <- fc6
I0403 14:02:13.640678 12558 net.cpp:386] relu6 -> fc6 (in-place)
I0403 14:02:13.640908 12558 net.cpp:141] Setting up relu6
I0403 14:02:13.640939 12558 net.cpp:148] Top shape: 100 4096 (409600)
I0403 14:02:13.640957 12558 net.cpp:156] Memory required for data: 824972400
I0403 14:02:13.640974 12558 layer_factory.hpp:77] Creating layer drop6
I0403 14:02:13.640993 12558 net.cpp:91] Creating Layer drop6
I0403 14:02:13.641008 12558 net.cpp:425] drop6 <- fc6
I0403 14:02:13.641026 12558 net.cpp:386] drop6 -> fc6 (in-place)
I0403 14:02:13.641079 12558 net.cpp:141] Setting up drop6
I0403 14:02:13.641104 12558 net.cpp:148] Top shape: 100 4096 (409600)
I0403 14:02:13.641121 12558 net.cpp:156] Memory required for data: 826610800
I0403 14:02:13.641137 12558 layer_factory.hpp:77] Creating layer fc7
I0403 14:02:13.641160 12558 net.cpp:91] Creating Layer fc7
I0403 14:02:13.641178 12558 net.cpp:425] fc7 <- fc6
I0403 14:02:13.641196 12558 net.cpp:399] fc7 -> fc7
I0403 14:02:14.352320 12558 net.cpp:141] Setting up fc7
I0403 14:02:14.352362 12558 net.cpp:148] Top shape: 100 4096 (409600)
I0403 14:02:14.352380 12558 net.cpp:156] Memory required for data: 828249200
I0403 14:02:14.352401 12558 layer_factory.hpp:77] Creating layer relu7
I0403 14:02:14.352427 12558 net.cpp:91] Creating Layer relu7
I0403 14:02:14.352444 12558 net.cpp:425] relu7 <- fc7
I0403 14:02:14.352463 12558 net.cpp:386] relu7 -> fc7 (in-place)
I0403 14:02:14.352859 12558 net.cpp:141] Setting up relu7
I0403 14:02:14.352885 12558 net.cpp:148] Top shape: 100 4096 (409600)
I0403 14:02:14.352939 12558 net.cpp:156] Memory required for data: 829887600
I0403 14:02:14.352955 12558 layer_factory.hpp:77] Creating layer drop7
I0403 14:02:14.352977 12558 net.cpp:91] Creating Layer drop7
I0403 14:02:14.352994 12558 net.cpp:425] drop7 <- fc7
I0403 14:02:14.353010 12558 net.cpp:386] drop7 -> fc7 (in-place)
I0403 14:02:14.353055 12558 net.cpp:141] Setting up drop7
I0403 14:02:14.353077 12558 net.cpp:148] Top shape: 100 4096 (409600)
I0403 14:02:14.353092 12558 net.cpp:156] Memory required for data: 831526000
I0403 14:02:14.353107 12558 layer_factory.hpp:77] Creating layer fc8_plantvillage
I0403 14:02:14.353128 12558 net.cpp:91] Creating Layer fc8_plantvillage
I0403 14:02:14.353144 12558 net.cpp:425] fc8_plantvillage <- fc7
I0403 14:02:14.353163 12558 net.cpp:399] fc8_plantvillage -> fc8_plantvillage
I0403 14:02:14.360558 12558 net.cpp:141] Setting up fc8_plantvillage
I0403 14:02:14.360591 12558 net.cpp:148] Top shape: 100 38 (3800)
I0403 14:02:14.360608 12558 net.cpp:156] Memory required for data: 831541200
I0403 14:02:14.360628 12558 layer_factory.hpp:77] Creating layer fc8_plantvillage_fc8_plantvillage_0_split
I0403 14:02:14.360647 12558 net.cpp:91] Creating Layer fc8_plantvillage_fc8_plantvillage_0_split
I0403 14:02:14.360662 12558 net.cpp:425] fc8_plantvillage_fc8_plantvillage_0_split <- fc8_plantvillage
I0403 14:02:14.360680 12558 net.cpp:399] fc8_plantvillage_fc8_plantvillage_0_split -> fc8_plantvillage_fc8_plantvillage_0_split_0
I0403 14:02:14.360699 12558 net.cpp:399] fc8_plantvillage_fc8_plantvillage_0_split -> fc8_plantvillage_fc8_plantvillage_0_split_1
I0403 14:02:14.360721 12558 net.cpp:399] fc8_plantvillage_fc8_plantvillage_0_split -> fc8_plantvillage_fc8_plantvillage_0_split_2
I0403 14:02:14.360800 12558 net.cpp:141] Setting up fc8_plantvillage_fc8_plantvillage_0_split
I0403 14:02:14.360823 12558 net.cpp:148] Top shape: 100 38 (3800)
I0403 14:02:14.360839 12558 net.cpp:148] Top shape: 100 38 (3800)
I0403 14:02:14.360854 12558 net.cpp:148] Top shape: 100 38 (3800)
I0403 14:02:14.360868 12558 net.cpp:156] Memory required for data: 831586800
I0403 14:02:14.360882 12558 layer_factory.hpp:77] Creating layer prob
I0403 14:02:14.360900 12558 net.cpp:91] Creating Layer prob
I0403 14:02:14.360915 12558 net.cpp:425] prob <- fc8_plantvillage_fc8_plantvillage_0_split_0
I0403 14:02:14.360932 12558 net.cpp:399] prob -> prob
I0403 14:02:14.361157 12558 net.cpp:141] Setting up prob
I0403 14:02:14.361182 12558 net.cpp:148] Top shape: 100 38 (3800)
I0403 14:02:14.361197 12558 net.cpp:156] Memory required for data: 831602000
I0403 14:02:14.361212 12558 layer_factory.hpp:77] Creating layer hdf5out
I0403 14:02:14.361233 12558 net.cpp:91] Creating Layer hdf5out
I0403 14:02:14.361249 12558 net.cpp:425] hdf5out <- prob
I0403 14:02:14.361265 12558 net.cpp:425] hdf5out <- label_data_1_split_0
I0403 14:02:14.363499 12558 net.cpp:141] Setting up hdf5out
…
