…
I0403 14:09:20.184702 12815 net.cpp:313] The NetState phase (1) differed from the phase (0) specified by a rule in layer data
I0403 14:09:20.184995 12815 net.cpp:49] Initializing net from parameters: 
state {
  phase: TEST
}
layer {
  name: "data"
  type: "Data"
  top: "data"
  top: "label"
  include {
    phase: TEST
  }
  transform_param {
    crop_size: 227
    mean_file: "/home/mohanty/data/final_dataset/lmdb/grayscale-80-20/mean.binaryproto"
  }
  data_param {
    source: "/home/mohanty/data/final_dataset/lmdb/grayscale-80-20/test_db"
    batch_size: 100
    backend: LMDB
  }
}
layer {
  name: "conv1"
  type: "Convolution"
  bottom: "data"
  top: "conv1"
  param {
    lr_mult: 1
    decay_mult: 1
  }
  param {
    lr_mult: 2
    decay_mult: 0
  }
  convolution_param {
    num_output: 96
    kernel_size: 11
    stride: 4
    weight_filler {
      type: "gaussian"
      std: 0.01
    }
    bias_filler {
      type: "constant"
      value: 0
    }
  }
}
layer {
  name: "relu1"
  type: "ReLU"
  bottom: "conv1"
  top: "conv1"
}
layer {
  name: "norm1"
  type: "LRN"
  bottom: "conv1"
  top: "norm1"
  lrn_param {
    local_size: 5
    alpha: 0.0001
    beta: 0.75
  }
}
layer {
  name: "pool1"
  type: "Pooling"
  bottom: "norm1"
  top: "pool1"
  pooling_param {
    pool: MAX
    kernel_size: 3
    stride: 2
  }
}
layer {
  name: "conv2"
  type: "Convolution"
  bottom: "pool1"
  top: "conv2"
  param {
    lr_mult: 1
    decay_mult: 1
  }
  param {
    lr_mult: 2
    decay_mult: 0
  }
  convolution_param {
    num_output: 256
    pad: 2
    kernel_size: 5
    group: 2
    weight_filler {
      type: "gaussian"
      std: 0.01
    }
    bias_filler {
      type: "constant"
      value: 0.1
    }
  }
}
layer {
  name: "relu2"
  type: "ReLU"
  bottom: "conv2"
  top: "conv2"
}
layer {
  name: "norm2"
  type: "LRN"
  bottom: "conv2"
  top: "norm2"
  lrn_param {
    local_size: 5
    alpha: 0.0001
    beta: 0.75
  }
}
layer {
  name: "pool2"
  type: "Pooling"
  bottom: "norm2"
  top: "pool2"
  pooling_param {
    pool: MAX
    kernel_size: 3
    stride: 2
  }
}
layer {
  name: "conv3"
  type: "Convolution"
  bottom: "pool2"
  top: "conv3"
  param {
    lr_mult: 1
    decay_mult: 1
  }
  param {
    lr_mult: 2
    decay_mult: 0
  }
  convolution_param {
    num_output: 384
    pad: 1
    kernel_size: 3
    weight_filler {
      type: "gaussian"
      std: 0.01
    }
    bias_filler {
      type: "constant"
      value: 0
    }
  }
}
layer {
  name: "relu3"
  type: "ReLU"
  bottom: "conv3"
  top: "conv3"
}
layer {
  name: "conv4"
  type: "Convolution"
  bottom: "conv3"
  top: "conv4"
  param {
    lr_mult: 1
    decay_mult: 1
  }
  param {
    lr_mult: 2
    decay_mult: 0
  }
  convolution_param {
    num_output: 384
    pad: 1
    kernel_size: 3
    group: 2
    weight_filler {
      type: "gaussian"
      std: 0.01
    }
    bias_filler {
      type: "constant"
      value: 0.1
    }
  }
}
layer {
  name: "relu4"
  type: "ReLU"
  bottom: "conv4"
  top: "conv4"
}
layer {
  name: "conv5"
  type: "Convolution"
  bottom: "conv4"
  top: "conv5"
  param {
    lr_mult: 1
    decay_mult: 1
  }
  param {
    lr_mult: 2
    decay_mult: 0
  }
  convolution_param {
    num_output: 256
    pad: 1
    kernel_size: 3
    group: 2
    weight_filler {
      type: "gaussian"
      std: 0.01
    }
    bias_filler {
      type: "constant"
      value: 0.1
    }
  }
}
layer {
  name: "relu5"
  type: "ReLU"
  bottom: "conv5"
  top: "conv5"
}
layer {
  name: "pool5"
  type: "Pooling"
  bottom: "conv5"
  top: "pool5"
  pooling_param {
    pool: MAX
    kernel_size: 3
    stride: 2
  }
}
layer {
  name: "fc6"
  type: "InnerProduct"
  bottom: "pool5"
  top: "fc6"
  param {
    lr_mult: 1
    decay_mult: 1
  }
  param {
    lr_mult: 2
    decay_mult: 0
  }
  inner_product_param {
    num_output: 4096
    weight_filler {
      type: "gaussian"
      std: 0.005
    }
    bias_filler {
      type: "constant"
      value: 0.1
    }
  }
}
layer {
  name: "relu6"
  type: "ReLU"
  bottom: "fc6"
  top: "fc6"
}
layer {
  name: "drop6"
  type: "Dropout"
  bottom: "fc6"
  top: "fc6"
  dropout_param {
    dropout_ratio: 0.5
  }
}
layer {
  name: "fc7"
  type: "InnerProduct"
  bottom: "fc6"
  top: "fc7"
  param {
    lr_mult: 1
    decay_mult: 1
  }
  param {
    lr_mult: 2
    decay_mult: 0
  }
  inner_product_param {
    num_output: 4096
    weight_filler {
      type: "gaussian"
      std: 0.005
    }
    bias_filler {
      type: "constant"
      value: 0.1
    }
  }
}
layer {
  name: "relu7"
  type: "ReLU"
  bottom: "fc7"
  top: "fc7"
}
layer {
  name: "drop7"
  type: "Dropout"
  bottom: "fc7"
  top: "fc7"
  dropout_param {
    dropout_ratio: 0.5
  }
}
layer {
  name: "fc8_plantvillage"
  type: "InnerProduct"
  bottom: "fc7"
  top: "fc8_plantvillage"
  param {
    lr_mult: 1
    decay_mult: 1
  }
  param {
    lr_mult: 2
    decay_mult: 0
  }
  inner_product_param {
    num_output: 38
    weight_filler {
      type: "gaussian"
      std: 0.01
    }
    bias_filler {
      type: "constant"
      value: 0
    }
  }
}
layer {
  name: "prob"
  type: "Softmax"
  bottom: "fc8_plantvillage"
  top: "prob"
  include {
    phase: TEST
  }
}
layer {
  name: "hdf5out"
  type: "HDF5Output"
  bottom: "prob"
  bottom: "label"
  include {
    phase: TEST
  }
  hdf5_output_param {
    file_name: "hdf5_dumps/iter_9156.h5"
  }
}
layer {
  name: "loss"
  type: "SoftmaxWithLoss"
  bottom: "fc8_plantvillage"
  bottom: "label"
  top: "loss"
}
layer {
  name: "accuracy"
  type: "Accuracy"
  bottom: "fc8_plantvillage"
  bottom: "label"
  top: "accuracy"
  include {
    phase: TEST
  }
}
I0403 14:09:20.185549 12815 layer_factory.hpp:77] Creating layer data
I0403 14:09:20.186182 12815 net.cpp:91] Creating Layer data
I0403 14:09:20.186211 12815 net.cpp:399] data -> data
I0403 14:09:20.186264 12815 net.cpp:399] data -> label
I0403 14:09:20.186300 12815 data_transformer.cpp:25] Loading mean file from: /home/mohanty/data/final_dataset/lmdb/grayscale-80-20/mean.binaryproto
I0403 14:09:20.189294 12818 db_lmdb.cpp:38] Opened lmdb /home/mohanty/data/final_dataset/lmdb/grayscale-80-20/test_db
I0403 14:09:20.200500 12815 data_layer.cpp:41] output data size: 100,3,227,227
I0403 14:09:20.321951 12815 net.cpp:141] Setting up data
I0403 14:09:20.322044 12815 net.cpp:148] Top shape: 100 3 227 227 (15458700)
I0403 14:09:20.322069 12815 net.cpp:148] Top shape: 100 (100)
I0403 14:09:20.322085 12815 net.cpp:156] Memory required for data: 61835200
I0403 14:09:20.322115 12815 layer_factory.hpp:77] Creating layer label_data_1_split
I0403 14:09:20.322141 12815 net.cpp:91] Creating Layer label_data_1_split
I0403 14:09:20.322162 12815 net.cpp:425] label_data_1_split <- label
I0403 14:09:20.322195 12815 net.cpp:399] label_data_1_split -> label_data_1_split_0
I0403 14:09:20.322221 12815 net.cpp:399] label_data_1_split -> label_data_1_split_1
I0403 14:09:20.322243 12815 net.cpp:399] label_data_1_split -> label_data_1_split_2
I0403 14:09:20.322306 12815 net.cpp:141] Setting up label_data_1_split
I0403 14:09:20.322330 12815 net.cpp:148] Top shape: 100 (100)
I0403 14:09:20.322346 12815 net.cpp:148] Top shape: 100 (100)
I0403 14:09:20.322363 12815 net.cpp:148] Top shape: 100 (100)
I0403 14:09:20.322377 12815 net.cpp:156] Memory required for data: 61836400
I0403 14:09:20.322391 12815 layer_factory.hpp:77] Creating layer conv1
I0403 14:09:20.322423 12815 net.cpp:91] Creating Layer conv1
I0403 14:09:20.322441 12815 net.cpp:425] conv1 <- data
I0403 14:09:20.322460 12815 net.cpp:399] conv1 -> conv1
I0403 14:09:20.459970 12815 net.cpp:141] Setting up conv1
I0403 14:09:20.460047 12815 net.cpp:148] Top shape: 100 96 55 55 (29040000)
I0403 14:09:20.460063 12815 net.cpp:156] Memory required for data: 177996400
I0403 14:09:20.460094 12815 layer_factory.hpp:77] Creating layer relu1
I0403 14:09:20.460120 12815 net.cpp:91] Creating Layer relu1
I0403 14:09:20.460137 12815 net.cpp:425] relu1 <- conv1
I0403 14:09:20.460156 12815 net.cpp:386] relu1 -> conv1 (in-place)
I0403 14:09:20.460405 12815 net.cpp:141] Setting up relu1
I0403 14:09:20.460439 12815 net.cpp:148] Top shape: 100 96 55 55 (29040000)
I0403 14:09:20.460496 12815 net.cpp:156] Memory required for data: 294156400
I0403 14:09:20.460516 12815 layer_factory.hpp:77] Creating layer norm1
I0403 14:09:20.460542 12815 net.cpp:91] Creating Layer norm1
I0403 14:09:20.460559 12815 net.cpp:425] norm1 <- conv1
I0403 14:09:20.460582 12815 net.cpp:399] norm1 -> norm1
I0403 14:09:20.460880 12815 net.cpp:141] Setting up norm1
I0403 14:09:20.460908 12815 net.cpp:148] Top shape: 100 96 55 55 (29040000)
I0403 14:09:20.460924 12815 net.cpp:156] Memory required for data: 410316400
I0403 14:09:20.460938 12815 layer_factory.hpp:77] Creating layer pool1
I0403 14:09:20.460961 12815 net.cpp:91] Creating Layer pool1
I0403 14:09:20.460978 12815 net.cpp:425] pool1 <- norm1
I0403 14:09:20.460995 12815 net.cpp:399] pool1 -> pool1
I0403 14:09:20.461061 12815 net.cpp:141] Setting up pool1
I0403 14:09:20.461084 12815 net.cpp:148] Top shape: 100 96 27 27 (6998400)
I0403 14:09:20.461098 12815 net.cpp:156] Memory required for data: 438310000
I0403 14:09:20.461112 12815 layer_factory.hpp:77] Creating layer conv2
I0403 14:09:20.461135 12815 net.cpp:91] Creating Layer conv2
I0403 14:09:20.461153 12815 net.cpp:425] conv2 <- pool1
I0403 14:09:20.461169 12815 net.cpp:399] conv2 -> conv2
I0403 14:09:20.475873 12815 net.cpp:141] Setting up conv2
I0403 14:09:20.475920 12815 net.cpp:148] Top shape: 100 256 27 27 (18662400)
I0403 14:09:20.475937 12815 net.cpp:156] Memory required for data: 512959600
I0403 14:09:20.475960 12815 layer_factory.hpp:77] Creating layer relu2
I0403 14:09:20.475980 12815 net.cpp:91] Creating Layer relu2
I0403 14:09:20.475996 12815 net.cpp:425] relu2 <- conv2
I0403 14:09:20.476014 12815 net.cpp:386] relu2 -> conv2 (in-place)
I0403 14:09:20.476287 12815 net.cpp:141] Setting up relu2
I0403 14:09:20.476313 12815 net.cpp:148] Top shape: 100 256 27 27 (18662400)
I0403 14:09:20.476330 12815 net.cpp:156] Memory required for data: 587609200
I0403 14:09:20.476346 12815 layer_factory.hpp:77] Creating layer norm2
I0403 14:09:20.476366 12815 net.cpp:91] Creating Layer norm2
I0403 14:09:20.476382 12815 net.cpp:425] norm2 <- conv2
I0403 14:09:20.476400 12815 net.cpp:399] norm2 -> norm2
I0403 14:09:20.476615 12815 net.cpp:141] Setting up norm2
I0403 14:09:20.476644 12815 net.cpp:148] Top shape: 100 256 27 27 (18662400)
I0403 14:09:20.476660 12815 net.cpp:156] Memory required for data: 662258800
I0403 14:09:20.476675 12815 layer_factory.hpp:77] Creating layer pool2
I0403 14:09:20.476698 12815 net.cpp:91] Creating Layer pool2
I0403 14:09:20.476716 12815 net.cpp:425] pool2 <- norm2
I0403 14:09:20.476734 12815 net.cpp:399] pool2 -> pool2
I0403 14:09:20.476789 12815 net.cpp:141] Setting up pool2
I0403 14:09:20.476814 12815 net.cpp:148] Top shape: 100 256 13 13 (4326400)
I0403 14:09:20.476829 12815 net.cpp:156] Memory required for data: 679564400
I0403 14:09:20.476843 12815 layer_factory.hpp:77] Creating layer conv3
I0403 14:09:20.476867 12815 net.cpp:91] Creating Layer conv3
I0403 14:09:20.476886 12815 net.cpp:425] conv3 <- pool2
I0403 14:09:20.476907 12815 net.cpp:399] conv3 -> conv3
I0403 14:09:20.515725 12815 net.cpp:141] Setting up conv3
I0403 14:09:20.515765 12815 net.cpp:148] Top shape: 100 384 13 13 (6489600)
I0403 14:09:20.515780 12815 net.cpp:156] Memory required for data: 705522800
I0403 14:09:20.515806 12815 layer_factory.hpp:77] Creating layer relu3
I0403 14:09:20.515830 12815 net.cpp:91] Creating Layer relu3
I0403 14:09:20.515849 12815 net.cpp:425] relu3 <- conv3
I0403 14:09:20.515867 12815 net.cpp:386] relu3 -> conv3 (in-place)
I0403 14:09:20.516144 12815 net.cpp:141] Setting up relu3
I0403 14:09:20.516170 12815 net.cpp:148] Top shape: 100 384 13 13 (6489600)
I0403 14:09:20.516185 12815 net.cpp:156] Memory required for data: 731481200
I0403 14:09:20.516199 12815 layer_factory.hpp:77] Creating layer conv4
I0403 14:09:20.516227 12815 net.cpp:91] Creating Layer conv4
I0403 14:09:20.516244 12815 net.cpp:425] conv4 <- conv3
I0403 14:09:20.516263 12815 net.cpp:399] conv4 -> conv4
I0403 14:09:20.545019 12815 net.cpp:141] Setting up conv4
I0403 14:09:20.545059 12815 net.cpp:148] Top shape: 100 384 13 13 (6489600)
I0403 14:09:20.545107 12815 net.cpp:156] Memory required for data: 757439600
I0403 14:09:20.545130 12815 layer_factory.hpp:77] Creating layer relu4
I0403 14:09:20.545155 12815 net.cpp:91] Creating Layer relu4
I0403 14:09:20.545173 12815 net.cpp:425] relu4 <- conv4
I0403 14:09:20.545192 12815 net.cpp:386] relu4 -> conv4 (in-place)
I0403 14:09:20.545467 12815 net.cpp:141] Setting up relu4
I0403 14:09:20.545493 12815 net.cpp:148] Top shape: 100 384 13 13 (6489600)
I0403 14:09:20.545511 12815 net.cpp:156] Memory required for data: 783398000
I0403 14:09:20.545526 12815 layer_factory.hpp:77] Creating layer conv5
I0403 14:09:20.545547 12815 net.cpp:91] Creating Layer conv5
I0403 14:09:20.545564 12815 net.cpp:425] conv5 <- conv4
I0403 14:09:20.545590 12815 net.cpp:399] conv5 -> conv5
I0403 14:09:20.565740 12815 net.cpp:141] Setting up conv5
I0403 14:09:20.565783 12815 net.cpp:148] Top shape: 100 256 13 13 (4326400)
I0403 14:09:20.565800 12815 net.cpp:156] Memory required for data: 800703600
I0403 14:09:20.565826 12815 layer_factory.hpp:77] Creating layer relu5
I0403 14:09:20.565847 12815 net.cpp:91] Creating Layer relu5
I0403 14:09:20.565863 12815 net.cpp:425] relu5 <- conv5
I0403 14:09:20.565882 12815 net.cpp:386] relu5 -> conv5 (in-place)
I0403 14:09:20.566192 12815 net.cpp:141] Setting up relu5
I0403 14:09:20.566222 12815 net.cpp:148] Top shape: 100 256 13 13 (4326400)
I0403 14:09:20.566238 12815 net.cpp:156] Memory required for data: 818009200
I0403 14:09:20.566253 12815 layer_factory.hpp:77] Creating layer pool5
I0403 14:09:20.566275 12815 net.cpp:91] Creating Layer pool5
I0403 14:09:20.566292 12815 net.cpp:425] pool5 <- conv5
I0403 14:09:20.566313 12815 net.cpp:399] pool5 -> pool5
I0403 14:09:20.566373 12815 net.cpp:141] Setting up pool5
I0403 14:09:20.566397 12815 net.cpp:148] Top shape: 100 256 6 6 (921600)
I0403 14:09:20.566411 12815 net.cpp:156] Memory required for data: 821695600
I0403 14:09:20.566426 12815 layer_factory.hpp:77] Creating layer fc6
I0403 14:09:20.566455 12815 net.cpp:91] Creating Layer fc6
I0403 14:09:20.566473 12815 net.cpp:425] fc6 <- pool5
I0403 14:09:20.566493 12815 net.cpp:399] fc6 -> fc6
I0403 14:09:22.098228 12815 net.cpp:141] Setting up fc6
I0403 14:09:22.098268 12815 net.cpp:148] Top shape: 100 4096 (409600)
I0403 14:09:22.098284 12815 net.cpp:156] Memory required for data: 823334000
I0403 14:09:22.098304 12815 layer_factory.hpp:77] Creating layer relu6
I0403 14:09:22.098326 12815 net.cpp:91] Creating Layer relu6
I0403 14:09:22.098342 12815 net.cpp:425] relu6 <- fc6
I0403 14:09:22.098362 12815 net.cpp:386] relu6 -> fc6 (in-place)
I0403 14:09:22.098575 12815 net.cpp:141] Setting up relu6
I0403 14:09:22.098600 12815 net.cpp:148] Top shape: 100 4096 (409600)
I0403 14:09:22.098614 12815 net.cpp:156] Memory required for data: 824972400
I0403 14:09:22.098628 12815 layer_factory.hpp:77] Creating layer drop6
I0403 14:09:22.098649 12815 net.cpp:91] Creating Layer drop6
I0403 14:09:22.098664 12815 net.cpp:425] drop6 <- fc6
I0403 14:09:22.098680 12815 net.cpp:386] drop6 -> fc6 (in-place)
I0403 14:09:22.098731 12815 net.cpp:141] Setting up drop6
I0403 14:09:22.098752 12815 net.cpp:148] Top shape: 100 4096 (409600)
I0403 14:09:22.098767 12815 net.cpp:156] Memory required for data: 826610800
I0403 14:09:22.098780 12815 layer_factory.hpp:77] Creating layer fc7
I0403 14:09:22.098801 12815 net.cpp:91] Creating Layer fc7
I0403 14:09:22.098817 12815 net.cpp:425] fc7 <- fc6
I0403 14:09:22.098834 12815 net.cpp:399] fc7 -> fc7
I0403 14:09:22.774577 12815 net.cpp:141] Setting up fc7
I0403 14:09:22.774649 12815 net.cpp:148] Top shape: 100 4096 (409600)
I0403 14:09:22.774665 12815 net.cpp:156] Memory required for data: 828249200
I0403 14:09:22.774687 12815 layer_factory.hpp:77] Creating layer relu7
I0403 14:09:22.774709 12815 net.cpp:91] Creating Layer relu7
I0403 14:09:22.774727 12815 net.cpp:425] relu7 <- fc7
I0403 14:09:22.774747 12815 net.cpp:386] relu7 -> fc7 (in-place)
I0403 14:09:22.775141 12815 net.cpp:141] Setting up relu7
I0403 14:09:22.775167 12815 net.cpp:148] Top shape: 100 4096 (409600)
I0403 14:09:22.775218 12815 net.cpp:156] Memory required for data: 829887600
I0403 14:09:22.775233 12815 layer_factory.hpp:77] Creating layer drop7
I0403 14:09:22.775254 12815 net.cpp:91] Creating Layer drop7
I0403 14:09:22.775270 12815 net.cpp:425] drop7 <- fc7
I0403 14:09:22.775287 12815 net.cpp:386] drop7 -> fc7 (in-place)
I0403 14:09:22.775332 12815 net.cpp:141] Setting up drop7
I0403 14:09:22.775354 12815 net.cpp:148] Top shape: 100 4096 (409600)
I0403 14:09:22.775368 12815 net.cpp:156] Memory required for data: 831526000
I0403 14:09:22.775382 12815 layer_factory.hpp:77] Creating layer fc8_plantvillage
I0403 14:09:22.775403 12815 net.cpp:91] Creating Layer fc8_plantvillage
I0403 14:09:22.775418 12815 net.cpp:425] fc8_plantvillage <- fc7
I0403 14:09:22.775437 12815 net.cpp:399] fc8_plantvillage -> fc8_plantvillage
I0403 14:09:22.782156 12815 net.cpp:141] Setting up fc8_plantvillage
I0403 14:09:22.782186 12815 net.cpp:148] Top shape: 100 38 (3800)
I0403 14:09:22.782202 12815 net.cpp:156] Memory required for data: 831541200
I0403 14:09:22.782219 12815 layer_factory.hpp:77] Creating layer fc8_plantvillage_fc8_plantvillage_0_split
I0403 14:09:22.782238 12815 net.cpp:91] Creating Layer fc8_plantvillage_fc8_plantvillage_0_split
I0403 14:09:22.782253 12815 net.cpp:425] fc8_plantvillage_fc8_plantvillage_0_split <- fc8_plantvillage
I0403 14:09:22.782269 12815 net.cpp:399] fc8_plantvillage_fc8_plantvillage_0_split -> fc8_plantvillage_fc8_plantvillage_0_split_0
I0403 14:09:22.782289 12815 net.cpp:399] fc8_plantvillage_fc8_plantvillage_0_split -> fc8_plantvillage_fc8_plantvillage_0_split_1
I0403 14:09:22.782308 12815 net.cpp:399] fc8_plantvillage_fc8_plantvillage_0_split -> fc8_plantvillage_fc8_plantvillage_0_split_2
I0403 14:09:22.782385 12815 net.cpp:141] Setting up fc8_plantvillage_fc8_plantvillage_0_split
I0403 14:09:22.782408 12815 net.cpp:148] Top shape: 100 38 (3800)
I0403 14:09:22.782424 12815 net.cpp:148] Top shape: 100 38 (3800)
I0403 14:09:22.782439 12815 net.cpp:148] Top shape: 100 38 (3800)
I0403 14:09:22.782452 12815 net.cpp:156] Memory required for data: 831586800
I0403 14:09:22.782466 12815 layer_factory.hpp:77] Creating layer prob
I0403 14:09:22.782485 12815 net.cpp:91] Creating Layer prob
I0403 14:09:22.782500 12815 net.cpp:425] prob <- fc8_plantvillage_fc8_plantvillage_0_split_0
I0403 14:09:22.782517 12815 net.cpp:399] prob -> prob
I0403 14:09:22.782749 12815 net.cpp:141] Setting up prob
I0403 14:09:22.782775 12815 net.cpp:148] Top shape: 100 38 (3800)
I0403 14:09:22.782789 12815 net.cpp:156] Memory required for data: 831602000
I0403 14:09:22.782804 12815 layer_factory.hpp:77] Creating layer hdf5out
I0403 14:09:22.782825 12815 net.cpp:91] Creating Layer hdf5out
I0403 14:09:22.782841 12815 net.cpp:425] hdf5out <- prob
I0403 14:09:22.782856 12815 net.cpp:425] hdf5out <- label_data_1_split_0
I0403 14:09:22.785097 12815 net.cpp:141] Setting up hdf5out
…
