…
I0403 14:05:32.516881 12666 net.cpp:313] The NetState phase (1) differed from the phase (0) specified by a rule in layer data
I0403 14:05:32.517173 12666 net.cpp:49] Initializing net from parameters: 
state {
  phase: TEST
}
layer {
  name: "data"
  type: "Data"
  top: "data"
  top: "label"
  include {
    phase: TEST
  }
  transform_param {
    crop_size: 227
    mean_file: "/home/mohanty/data/final_dataset/lmdb/grayscale-80-20/mean.binaryproto"
  }
  data_param {
    source: "/home/mohanty/data/final_dataset/lmdb/grayscale-80-20/test_db"
    batch_size: 100
    backend: LMDB
  }
}
layer {
  name: "conv1"
  type: "Convolution"
  bottom: "data"
  top: "conv1"
  param {
    lr_mult: 1
    decay_mult: 1
  }
  param {
    lr_mult: 2
    decay_mult: 0
  }
  convolution_param {
    num_output: 96
    kernel_size: 11
    stride: 4
    weight_filler {
      type: "gaussian"
      std: 0.01
    }
    bias_filler {
      type: "constant"
      value: 0
    }
  }
}
layer {
  name: "relu1"
  type: "ReLU"
  bottom: "conv1"
  top: "conv1"
}
layer {
  name: "norm1"
  type: "LRN"
  bottom: "conv1"
  top: "norm1"
  lrn_param {
    local_size: 5
    alpha: 0.0001
    beta: 0.75
  }
}
layer {
  name: "pool1"
  type: "Pooling"
  bottom: "norm1"
  top: "pool1"
  pooling_param {
    pool: MAX
    kernel_size: 3
    stride: 2
  }
}
layer {
  name: "conv2"
  type: "Convolution"
  bottom: "pool1"
  top: "conv2"
  param {
    lr_mult: 1
    decay_mult: 1
  }
  param {
    lr_mult: 2
    decay_mult: 0
  }
  convolution_param {
    num_output: 256
    pad: 2
    kernel_size: 5
    group: 2
    weight_filler {
      type: "gaussian"
      std: 0.01
    }
    bias_filler {
      type: "constant"
      value: 0.1
    }
  }
}
layer {
  name: "relu2"
  type: "ReLU"
  bottom: "conv2"
  top: "conv2"
}
layer {
  name: "norm2"
  type: "LRN"
  bottom: "conv2"
  top: "norm2"
  lrn_param {
    local_size: 5
    alpha: 0.0001
    beta: 0.75
  }
}
layer {
  name: "pool2"
  type: "Pooling"
  bottom: "norm2"
  top: "pool2"
  pooling_param {
    pool: MAX
    kernel_size: 3
    stride: 2
  }
}
layer {
  name: "conv3"
  type: "Convolution"
  bottom: "pool2"
  top: "conv3"
  param {
    lr_mult: 1
    decay_mult: 1
  }
  param {
    lr_mult: 2
    decay_mult: 0
  }
  convolution_param {
    num_output: 384
    pad: 1
    kernel_size: 3
    weight_filler {
      type: "gaussian"
      std: 0.01
    }
    bias_filler {
      type: "constant"
      value: 0
    }
  }
}
layer {
  name: "relu3"
  type: "ReLU"
  bottom: "conv3"
  top: "conv3"
}
layer {
  name: "conv4"
  type: "Convolution"
  bottom: "conv3"
  top: "conv4"
  param {
    lr_mult: 1
    decay_mult: 1
  }
  param {
    lr_mult: 2
    decay_mult: 0
  }
  convolution_param {
    num_output: 384
    pad: 1
    kernel_size: 3
    group: 2
    weight_filler {
      type: "gaussian"
      std: 0.01
    }
    bias_filler {
      type: "constant"
      value: 0.1
    }
  }
}
layer {
  name: "relu4"
  type: "ReLU"
  bottom: "conv4"
  top: "conv4"
}
layer {
  name: "conv5"
  type: "Convolution"
  bottom: "conv4"
  top: "conv5"
  param {
    lr_mult: 1
    decay_mult: 1
  }
  param {
    lr_mult: 2
    decay_mult: 0
  }
  convolution_param {
    num_output: 256
    pad: 1
    kernel_size: 3
    group: 2
    weight_filler {
      type: "gaussian"
      std: 0.01
    }
    bias_filler {
      type: "constant"
      value: 0.1
    }
  }
}
layer {
  name: "relu5"
  type: "ReLU"
  bottom: "conv5"
  top: "conv5"
}
layer {
  name: "pool5"
  type: "Pooling"
  bottom: "conv5"
  top: "pool5"
  pooling_param {
    pool: MAX
    kernel_size: 3
    stride: 2
  }
}
layer {
  name: "fc6"
  type: "InnerProduct"
  bottom: "pool5"
  top: "fc6"
  param {
    lr_mult: 1
    decay_mult: 1
  }
  param {
    lr_mult: 2
    decay_mult: 0
  }
  inner_product_param {
    num_output: 4096
    weight_filler {
      type: "gaussian"
      std: 0.005
    }
    bias_filler {
      type: "constant"
      value: 0.1
    }
  }
}
layer {
  name: "relu6"
  type: "ReLU"
  bottom: "fc6"
  top: "fc6"
}
layer {
  name: "drop6"
  type: "Dropout"
  bottom: "fc6"
  top: "fc6"
  dropout_param {
    dropout_ratio: 0.5
  }
}
layer {
  name: "fc7"
  type: "InnerProduct"
  bottom: "fc6"
  top: "fc7"
  param {
    lr_mult: 1
    decay_mult: 1
  }
  param {
    lr_mult: 2
    decay_mult: 0
  }
  inner_product_param {
    num_output: 4096
    weight_filler {
      type: "gaussian"
      std: 0.005
    }
    bias_filler {
      type: "constant"
      value: 0.1
    }
  }
}
layer {
  name: "relu7"
  type: "ReLU"
  bottom: "fc7"
  top: "fc7"
}
layer {
  name: "drop7"
  type: "Dropout"
  bottom: "fc7"
  top: "fc7"
  dropout_param {
    dropout_ratio: 0.5
  }
}
layer {
  name: "fc8_plantvillage"
  type: "InnerProduct"
  bottom: "fc7"
  top: "fc8_plantvillage"
  param {
    lr_mult: 1
    decay_mult: 1
  }
  param {
    lr_mult: 2
    decay_mult: 0
  }
  inner_product_param {
    num_output: 38
    weight_filler {
      type: "gaussian"
      std: 0.01
    }
    bias_filler {
      type: "constant"
      value: 0
    }
  }
}
layer {
  name: "prob"
  type: "Softmax"
  bottom: "fc8_plantvillage"
  top: "prob"
  include {
    phase: TEST
  }
}
layer {
  name: "hdf5out"
  type: "HDF5Output"
  bottom: "prob"
  bottom: "label"
  include {
    phase: TEST
  }
  hdf5_output_param {
    file_name: "hdf5_dumps/iter_5232.h5"
  }
}
layer {
  name: "loss"
  type: "SoftmaxWithLoss"
  bottom: "fc8_plantvillage"
  bottom: "label"
  top: "loss"
}
layer {
  name: "accuracy"
  type: "Accuracy"
  bottom: "fc8_plantvillage"
  bottom: "label"
  top: "accuracy"
  include {
    phase: TEST
  }
}
I0403 14:05:32.517791 12666 layer_factory.hpp:77] Creating layer data
I0403 14:05:32.518421 12666 net.cpp:91] Creating Layer data
I0403 14:05:32.518450 12666 net.cpp:399] data -> data
I0403 14:05:32.518497 12666 net.cpp:399] data -> label
I0403 14:05:32.518532 12666 data_transformer.cpp:25] Loading mean file from: /home/mohanty/data/final_dataset/lmdb/grayscale-80-20/mean.binaryproto
I0403 14:05:32.521682 12669 db_lmdb.cpp:38] Opened lmdb /home/mohanty/data/final_dataset/lmdb/grayscale-80-20/test_db
I0403 14:05:32.532564 12666 data_layer.cpp:41] output data size: 100,3,227,227
I0403 14:05:32.652047 12666 net.cpp:141] Setting up data
I0403 14:05:32.652106 12666 net.cpp:148] Top shape: 100 3 227 227 (15458700)
I0403 14:05:32.652128 12666 net.cpp:148] Top shape: 100 (100)
I0403 14:05:32.652143 12666 net.cpp:156] Memory required for data: 61835200
I0403 14:05:32.652169 12666 layer_factory.hpp:77] Creating layer label_data_1_split
I0403 14:05:32.652194 12666 net.cpp:91] Creating Layer label_data_1_split
I0403 14:05:32.652211 12666 net.cpp:425] label_data_1_split <- label
I0403 14:05:32.652241 12666 net.cpp:399] label_data_1_split -> label_data_1_split_0
I0403 14:05:32.652271 12666 net.cpp:399] label_data_1_split -> label_data_1_split_1
I0403 14:05:32.652290 12666 net.cpp:399] label_data_1_split -> label_data_1_split_2
I0403 14:05:32.652354 12666 net.cpp:141] Setting up label_data_1_split
I0403 14:05:32.652377 12666 net.cpp:148] Top shape: 100 (100)
I0403 14:05:32.652393 12666 net.cpp:148] Top shape: 100 (100)
I0403 14:05:32.652410 12666 net.cpp:148] Top shape: 100 (100)
I0403 14:05:32.652423 12666 net.cpp:156] Memory required for data: 61836400
I0403 14:05:32.652437 12666 layer_factory.hpp:77] Creating layer conv1
I0403 14:05:32.652467 12666 net.cpp:91] Creating Layer conv1
I0403 14:05:32.652485 12666 net.cpp:425] conv1 <- data
I0403 14:05:32.652503 12666 net.cpp:399] conv1 -> conv1
I0403 14:05:32.794834 12666 net.cpp:141] Setting up conv1
I0403 14:05:32.794911 12666 net.cpp:148] Top shape: 100 96 55 55 (29040000)
I0403 14:05:32.794929 12666 net.cpp:156] Memory required for data: 177996400
I0403 14:05:32.794960 12666 layer_factory.hpp:77] Creating layer relu1
I0403 14:05:32.794986 12666 net.cpp:91] Creating Layer relu1
I0403 14:05:32.795004 12666 net.cpp:425] relu1 <- conv1
I0403 14:05:32.795022 12666 net.cpp:386] relu1 -> conv1 (in-place)
I0403 14:05:32.795279 12666 net.cpp:141] Setting up relu1
I0403 14:05:32.795306 12666 net.cpp:148] Top shape: 100 96 55 55 (29040000)
I0403 14:05:32.795359 12666 net.cpp:156] Memory required for data: 294156400
I0403 14:05:32.795375 12666 layer_factory.hpp:77] Creating layer norm1
I0403 14:05:32.795402 12666 net.cpp:91] Creating Layer norm1
I0403 14:05:32.795418 12666 net.cpp:425] norm1 <- conv1
I0403 14:05:32.795435 12666 net.cpp:399] norm1 -> norm1
I0403 14:05:32.795744 12666 net.cpp:141] Setting up norm1
I0403 14:05:32.795771 12666 net.cpp:148] Top shape: 100 96 55 55 (29040000)
I0403 14:05:32.795786 12666 net.cpp:156] Memory required for data: 410316400
I0403 14:05:32.795800 12666 layer_factory.hpp:77] Creating layer pool1
I0403 14:05:32.795822 12666 net.cpp:91] Creating Layer pool1
I0403 14:05:32.795840 12666 net.cpp:425] pool1 <- norm1
I0403 14:05:32.795855 12666 net.cpp:399] pool1 -> pool1
I0403 14:05:32.795920 12666 net.cpp:141] Setting up pool1
I0403 14:05:32.795943 12666 net.cpp:148] Top shape: 100 96 27 27 (6998400)
I0403 14:05:32.795958 12666 net.cpp:156] Memory required for data: 438310000
I0403 14:05:32.795972 12666 layer_factory.hpp:77] Creating layer conv2
I0403 14:05:32.795996 12666 net.cpp:91] Creating Layer conv2
I0403 14:05:32.796011 12666 net.cpp:425] conv2 <- pool1
I0403 14:05:32.796030 12666 net.cpp:399] conv2 -> conv2
I0403 14:05:32.811022 12666 net.cpp:141] Setting up conv2
I0403 14:05:32.811056 12666 net.cpp:148] Top shape: 100 256 27 27 (18662400)
I0403 14:05:32.811072 12666 net.cpp:156] Memory required for data: 512959600
I0403 14:05:32.811092 12666 layer_factory.hpp:77] Creating layer relu2
I0403 14:05:32.811113 12666 net.cpp:91] Creating Layer relu2
I0403 14:05:32.811130 12666 net.cpp:425] relu2 <- conv2
I0403 14:05:32.811146 12666 net.cpp:386] relu2 -> conv2 (in-place)
I0403 14:05:32.811426 12666 net.cpp:141] Setting up relu2
I0403 14:05:32.811453 12666 net.cpp:148] Top shape: 100 256 27 27 (18662400)
I0403 14:05:32.811468 12666 net.cpp:156] Memory required for data: 587609200
I0403 14:05:32.811482 12666 layer_factory.hpp:77] Creating layer norm2
I0403 14:05:32.811503 12666 net.cpp:91] Creating Layer norm2
I0403 14:05:32.811520 12666 net.cpp:425] norm2 <- conv2
I0403 14:05:32.811539 12666 net.cpp:399] norm2 -> norm2
I0403 14:05:32.811738 12666 net.cpp:141] Setting up norm2
I0403 14:05:32.811763 12666 net.cpp:148] Top shape: 100 256 27 27 (18662400)
I0403 14:05:32.811777 12666 net.cpp:156] Memory required for data: 662258800
I0403 14:05:32.811791 12666 layer_factory.hpp:77] Creating layer pool2
I0403 14:05:32.811810 12666 net.cpp:91] Creating Layer pool2
I0403 14:05:32.811826 12666 net.cpp:425] pool2 <- norm2
I0403 14:05:32.811843 12666 net.cpp:399] pool2 -> pool2
I0403 14:05:32.811895 12666 net.cpp:141] Setting up pool2
I0403 14:05:32.811918 12666 net.cpp:148] Top shape: 100 256 13 13 (4326400)
I0403 14:05:32.811931 12666 net.cpp:156] Memory required for data: 679564400
I0403 14:05:32.811977 12666 layer_factory.hpp:77] Creating layer conv3
I0403 14:05:32.812006 12666 net.cpp:91] Creating Layer conv3
I0403 14:05:32.812023 12666 net.cpp:425] conv3 <- pool2
I0403 14:05:32.812043 12666 net.cpp:399] conv3 -> conv3
I0403 14:05:32.852267 12666 net.cpp:141] Setting up conv3
I0403 14:05:32.852342 12666 net.cpp:148] Top shape: 100 384 13 13 (6489600)
I0403 14:05:32.852360 12666 net.cpp:156] Memory required for data: 705522800
I0403 14:05:32.852385 12666 layer_factory.hpp:77] Creating layer relu3
I0403 14:05:32.852411 12666 net.cpp:91] Creating Layer relu3
I0403 14:05:32.852429 12666 net.cpp:425] relu3 <- conv3
I0403 14:05:32.852448 12666 net.cpp:386] relu3 -> conv3 (in-place)
I0403 14:05:32.852736 12666 net.cpp:141] Setting up relu3
I0403 14:05:32.852763 12666 net.cpp:148] Top shape: 100 384 13 13 (6489600)
I0403 14:05:32.852779 12666 net.cpp:156] Memory required for data: 731481200
I0403 14:05:32.852795 12666 layer_factory.hpp:77] Creating layer conv4
I0403 14:05:32.852820 12666 net.cpp:91] Creating Layer conv4
I0403 14:05:32.852838 12666 net.cpp:425] conv4 <- conv3
I0403 14:05:32.852859 12666 net.cpp:399] conv4 -> conv4
I0403 14:05:32.882721 12666 net.cpp:141] Setting up conv4
I0403 14:05:32.882771 12666 net.cpp:148] Top shape: 100 384 13 13 (6489600)
I0403 14:05:32.882819 12666 net.cpp:156] Memory required for data: 757439600
I0403 14:05:32.882840 12666 layer_factory.hpp:77] Creating layer relu4
I0403 14:05:32.882860 12666 net.cpp:91] Creating Layer relu4
I0403 14:05:32.882877 12666 net.cpp:425] relu4 <- conv4
I0403 14:05:32.882897 12666 net.cpp:386] relu4 -> conv4 (in-place)
I0403 14:05:32.883170 12666 net.cpp:141] Setting up relu4
I0403 14:05:32.883196 12666 net.cpp:148] Top shape: 100 384 13 13 (6489600)
I0403 14:05:32.883211 12666 net.cpp:156] Memory required for data: 783398000
I0403 14:05:32.883227 12666 layer_factory.hpp:77] Creating layer conv5
I0403 14:05:32.883257 12666 net.cpp:91] Creating Layer conv5
I0403 14:05:32.883276 12666 net.cpp:425] conv5 <- conv4
I0403 14:05:32.883298 12666 net.cpp:399] conv5 -> conv5
I0403 14:05:32.903304 12666 net.cpp:141] Setting up conv5
I0403 14:05:32.903337 12666 net.cpp:148] Top shape: 100 256 13 13 (4326400)
I0403 14:05:32.903353 12666 net.cpp:156] Memory required for data: 800703600
I0403 14:05:32.903375 12666 layer_factory.hpp:77] Creating layer relu5
I0403 14:05:32.903396 12666 net.cpp:91] Creating Layer relu5
I0403 14:05:32.903412 12666 net.cpp:425] relu5 <- conv5
I0403 14:05:32.903429 12666 net.cpp:386] relu5 -> conv5 (in-place)
I0403 14:05:32.903708 12666 net.cpp:141] Setting up relu5
I0403 14:05:32.903734 12666 net.cpp:148] Top shape: 100 256 13 13 (4326400)
I0403 14:05:32.903749 12666 net.cpp:156] Memory required for data: 818009200
I0403 14:05:32.903764 12666 layer_factory.hpp:77] Creating layer pool5
I0403 14:05:32.903789 12666 net.cpp:91] Creating Layer pool5
I0403 14:05:32.903805 12666 net.cpp:425] pool5 <- conv5
I0403 14:05:32.903822 12666 net.cpp:399] pool5 -> pool5
I0403 14:05:32.903882 12666 net.cpp:141] Setting up pool5
I0403 14:05:32.903904 12666 net.cpp:148] Top shape: 100 256 6 6 (921600)
I0403 14:05:32.903918 12666 net.cpp:156] Memory required for data: 821695600
I0403 14:05:32.903933 12666 layer_factory.hpp:77] Creating layer fc6
I0403 14:05:32.903960 12666 net.cpp:91] Creating Layer fc6
I0403 14:05:32.903976 12666 net.cpp:425] fc6 <- pool5
I0403 14:05:32.903995 12666 net.cpp:399] fc6 -> fc6
I0403 14:05:34.442808 12666 net.cpp:141] Setting up fc6
I0403 14:05:34.442850 12666 net.cpp:148] Top shape: 100 4096 (409600)
I0403 14:05:34.442867 12666 net.cpp:156] Memory required for data: 823334000
I0403 14:05:34.442888 12666 layer_factory.hpp:77] Creating layer relu6
I0403 14:05:34.442909 12666 net.cpp:91] Creating Layer relu6
I0403 14:05:34.442926 12666 net.cpp:425] relu6 <- fc6
I0403 14:05:34.442946 12666 net.cpp:386] relu6 -> fc6 (in-place)
I0403 14:05:34.443161 12666 net.cpp:141] Setting up relu6
I0403 14:05:34.443186 12666 net.cpp:148] Top shape: 100 4096 (409600)
I0403 14:05:34.443200 12666 net.cpp:156] Memory required for data: 824972400
I0403 14:05:34.443214 12666 layer_factory.hpp:77] Creating layer drop6
I0403 14:05:34.443235 12666 net.cpp:91] Creating Layer drop6
I0403 14:05:34.443251 12666 net.cpp:425] drop6 <- fc6
I0403 14:05:34.443269 12666 net.cpp:386] drop6 -> fc6 (in-place)
I0403 14:05:34.443318 12666 net.cpp:141] Setting up drop6
I0403 14:05:34.443343 12666 net.cpp:148] Top shape: 100 4096 (409600)
I0403 14:05:34.443358 12666 net.cpp:156] Memory required for data: 826610800
I0403 14:05:34.443373 12666 layer_factory.hpp:77] Creating layer fc7
I0403 14:05:34.443392 12666 net.cpp:91] Creating Layer fc7
I0403 14:05:34.443408 12666 net.cpp:425] fc7 <- fc6
I0403 14:05:34.443428 12666 net.cpp:399] fc7 -> fc7
I0403 14:05:35.121482 12666 net.cpp:141] Setting up fc7
I0403 14:05:35.121549 12666 net.cpp:148] Top shape: 100 4096 (409600)
I0403 14:05:35.121564 12666 net.cpp:156] Memory required for data: 828249200
I0403 14:05:35.121585 12666 layer_factory.hpp:77] Creating layer relu7
I0403 14:05:35.121611 12666 net.cpp:91] Creating Layer relu7
I0403 14:05:35.121629 12666 net.cpp:425] relu7 <- fc7
I0403 14:05:35.121650 12666 net.cpp:386] relu7 -> fc7 (in-place)
I0403 14:05:35.122051 12666 net.cpp:141] Setting up relu7
I0403 14:05:35.122076 12666 net.cpp:148] Top shape: 100 4096 (409600)
I0403 14:05:35.122133 12666 net.cpp:156] Memory required for data: 829887600
I0403 14:05:35.122149 12666 layer_factory.hpp:77] Creating layer drop7
I0403 14:05:35.122167 12666 net.cpp:91] Creating Layer drop7
I0403 14:05:35.122182 12666 net.cpp:425] drop7 <- fc7
I0403 14:05:35.122201 12666 net.cpp:386] drop7 -> fc7 (in-place)
I0403 14:05:35.122256 12666 net.cpp:141] Setting up drop7
I0403 14:05:35.122278 12666 net.cpp:148] Top shape: 100 4096 (409600)
I0403 14:05:35.122293 12666 net.cpp:156] Memory required for data: 831526000
I0403 14:05:35.122308 12666 layer_factory.hpp:77] Creating layer fc8_plantvillage
I0403 14:05:35.122326 12666 net.cpp:91] Creating Layer fc8_plantvillage
I0403 14:05:35.122341 12666 net.cpp:425] fc8_plantvillage <- fc7
I0403 14:05:35.122362 12666 net.cpp:399] fc8_plantvillage -> fc8_plantvillage
I0403 14:05:35.129185 12666 net.cpp:141] Setting up fc8_plantvillage
I0403 14:05:35.129214 12666 net.cpp:148] Top shape: 100 38 (3800)
I0403 14:05:35.129228 12666 net.cpp:156] Memory required for data: 831541200
I0403 14:05:35.129245 12666 layer_factory.hpp:77] Creating layer fc8_plantvillage_fc8_plantvillage_0_split
I0403 14:05:35.129267 12666 net.cpp:91] Creating Layer fc8_plantvillage_fc8_plantvillage_0_split
I0403 14:05:35.129282 12666 net.cpp:425] fc8_plantvillage_fc8_plantvillage_0_split <- fc8_plantvillage
I0403 14:05:35.129300 12666 net.cpp:399] fc8_plantvillage_fc8_plantvillage_0_split -> fc8_plantvillage_fc8_plantvillage_0_split_0
I0403 14:05:35.129320 12666 net.cpp:399] fc8_plantvillage_fc8_plantvillage_0_split -> fc8_plantvillage_fc8_plantvillage_0_split_1
I0403 14:05:35.129339 12666 net.cpp:399] fc8_plantvillage_fc8_plantvillage_0_split -> fc8_plantvillage_fc8_plantvillage_0_split_2
I0403 14:05:35.129422 12666 net.cpp:141] Setting up fc8_plantvillage_fc8_plantvillage_0_split
I0403 14:05:35.129446 12666 net.cpp:148] Top shape: 100 38 (3800)
I0403 14:05:35.129472 12666 net.cpp:148] Top shape: 100 38 (3800)
I0403 14:05:35.129487 12666 net.cpp:148] Top shape: 100 38 (3800)
I0403 14:05:35.129501 12666 net.cpp:156] Memory required for data: 831586800
I0403 14:05:35.129515 12666 layer_factory.hpp:77] Creating layer prob
I0403 14:05:35.129534 12666 net.cpp:91] Creating Layer prob
I0403 14:05:35.129549 12666 net.cpp:425] prob <- fc8_plantvillage_fc8_plantvillage_0_split_0
I0403 14:05:35.129566 12666 net.cpp:399] prob -> prob
I0403 14:05:35.129812 12666 net.cpp:141] Setting up prob
I0403 14:05:35.129837 12666 net.cpp:148] Top shape: 100 38 (3800)
I0403 14:05:35.129853 12666 net.cpp:156] Memory required for data: 831602000
I0403 14:05:35.129866 12666 layer_factory.hpp:77] Creating layer hdf5out
I0403 14:05:35.129884 12666 net.cpp:91] Creating Layer hdf5out
I0403 14:05:35.129899 12666 net.cpp:425] hdf5out <- prob
I0403 14:05:35.129915 12666 net.cpp:425] hdf5out <- label_data_1_split_0
I0403 14:05:35.133443 12666 net.cpp:141] Setting up hdf5out
…
