…
I0403 14:03:01.907202 12580 net.cpp:313] The NetState phase (1) differed from the phase (0) specified by a rule in layer data
I0403 14:03:01.907495 12580 net.cpp:49] Initializing net from parameters: 
state {
  phase: TEST
}
layer {
  name: "data"
  type: "Data"
  top: "data"
  top: "label"
  include {
    phase: TEST
  }
  transform_param {
    crop_size: 227
    mean_file: "/home/mohanty/data/final_dataset/lmdb/grayscale-80-20/mean.binaryproto"
  }
  data_param {
    source: "/home/mohanty/data/final_dataset/lmdb/grayscale-80-20/test_db"
    batch_size: 100
    backend: LMDB
  }
}
layer {
  name: "conv1"
  type: "Convolution"
  bottom: "data"
  top: "conv1"
  param {
    lr_mult: 1
    decay_mult: 1
  }
  param {
    lr_mult: 2
    decay_mult: 0
  }
  convolution_param {
    num_output: 96
    kernel_size: 11
    stride: 4
    weight_filler {
      type: "gaussian"
      std: 0.01
    }
    bias_filler {
      type: "constant"
      value: 0
    }
  }
}
layer {
  name: "relu1"
  type: "ReLU"
  bottom: "conv1"
  top: "conv1"
}
layer {
  name: "norm1"
  type: "LRN"
  bottom: "conv1"
  top: "norm1"
  lrn_param {
    local_size: 5
    alpha: 0.0001
    beta: 0.75
  }
}
layer {
  name: "pool1"
  type: "Pooling"
  bottom: "norm1"
  top: "pool1"
  pooling_param {
    pool: MAX
    kernel_size: 3
    stride: 2
  }
}
layer {
  name: "conv2"
  type: "Convolution"
  bottom: "pool1"
  top: "conv2"
  param {
    lr_mult: 1
    decay_mult: 1
  }
  param {
    lr_mult: 2
    decay_mult: 0
  }
  convolution_param {
    num_output: 256
    pad: 2
    kernel_size: 5
    group: 2
    weight_filler {
      type: "gaussian"
      std: 0.01
    }
    bias_filler {
      type: "constant"
      value: 0.1
    }
  }
}
layer {
  name: "relu2"
  type: "ReLU"
  bottom: "conv2"
  top: "conv2"
}
layer {
  name: "norm2"
  type: "LRN"
  bottom: "conv2"
  top: "norm2"
  lrn_param {
    local_size: 5
    alpha: 0.0001
    beta: 0.75
  }
}
layer {
  name: "pool2"
  type: "Pooling"
  bottom: "norm2"
  top: "pool2"
  pooling_param {
    pool: MAX
    kernel_size: 3
    stride: 2
  }
}
layer {
  name: "conv3"
  type: "Convolution"
  bottom: "pool2"
  top: "conv3"
  param {
    lr_mult: 1
    decay_mult: 1
  }
  param {
    lr_mult: 2
    decay_mult: 0
  }
  convolution_param {
    num_output: 384
    pad: 1
    kernel_size: 3
    weight_filler {
      type: "gaussian"
      std: 0.01
    }
    bias_filler {
      type: "constant"
      value: 0
    }
  }
}
layer {
  name: "relu3"
  type: "ReLU"
  bottom: "conv3"
  top: "conv3"
}
layer {
  name: "conv4"
  type: "Convolution"
  bottom: "conv3"
  top: "conv4"
  param {
    lr_mult: 1
    decay_mult: 1
  }
  param {
    lr_mult: 2
    decay_mult: 0
  }
  convolution_param {
    num_output: 384
    pad: 1
    kernel_size: 3
    group: 2
    weight_filler {
      type: "gaussian"
      std: 0.01
    }
    bias_filler {
      type: "constant"
      value: 0.1
    }
  }
}
layer {
  name: "relu4"
  type: "ReLU"
  bottom: "conv4"
  top: "conv4"
}
layer {
  name: "conv5"
  type: "Convolution"
  bottom: "conv4"
  top: "conv5"
  param {
    lr_mult: 1
    decay_mult: 1
  }
  param {
    lr_mult: 2
    decay_mult: 0
  }
  convolution_param {
    num_output: 256
    pad: 1
    kernel_size: 3
    group: 2
    weight_filler {
      type: "gaussian"
      std: 0.01
    }
    bias_filler {
      type: "constant"
      value: 0.1
    }
  }
}
layer {
  name: "relu5"
  type: "ReLU"
  bottom: "conv5"
  top: "conv5"
}
layer {
  name: "pool5"
  type: "Pooling"
  bottom: "conv5"
  top: "pool5"
  pooling_param {
    pool: MAX
    kernel_size: 3
    stride: 2
  }
}
layer {
  name: "fc6"
  type: "InnerProduct"
  bottom: "pool5"
  top: "fc6"
  param {
    lr_mult: 1
    decay_mult: 1
  }
  param {
    lr_mult: 2
    decay_mult: 0
  }
  inner_product_param {
    num_output: 4096
    weight_filler {
      type: "gaussian"
      std: 0.005
    }
    bias_filler {
      type: "constant"
      value: 0.1
    }
  }
}
layer {
  name: "relu6"
  type: "ReLU"
  bottom: "fc6"
  top: "fc6"
}
layer {
  name: "drop6"
  type: "Dropout"
  bottom: "fc6"
  top: "fc6"
  dropout_param {
    dropout_ratio: 0.5
  }
}
layer {
  name: "fc7"
  type: "InnerProduct"
  bottom: "fc6"
  top: "fc7"
  param {
    lr_mult: 1
    decay_mult: 1
  }
  param {
    lr_mult: 2
    decay_mult: 0
  }
  inner_product_param {
    num_output: 4096
    weight_filler {
      type: "gaussian"
      std: 0.005
    }
    bias_filler {
      type: "constant"
      value: 0.1
    }
  }
}
layer {
  name: "relu7"
  type: "ReLU"
  bottom: "fc7"
  top: "fc7"
}
layer {
  name: "drop7"
  type: "Dropout"
  bottom: "fc7"
  top: "fc7"
  dropout_param {
    dropout_ratio: 0.5
  }
}
layer {
  name: "fc8_plantvillage"
  type: "InnerProduct"
  bottom: "fc7"
  top: "fc8_plantvillage"
  param {
    lr_mult: 1
    decay_mult: 1
  }
  param {
    lr_mult: 2
    decay_mult: 0
  }
  inner_product_param {
    num_output: 38
    weight_filler {
      type: "gaussian"
      std: 0.01
    }
    bias_filler {
      type: "constant"
      value: 0
    }
  }
}
layer {
  name: "prob"
  type: "Softmax"
  bottom: "fc8_plantvillage"
  top: "prob"
  include {
    phase: TEST
  }
}
layer {
  name: "hdf5out"
  type: "HDF5Output"
  bottom: "prob"
  bottom: "label"
  include {
    phase: TEST
  }
  hdf5_output_param {
    file_name: "hdf5_dumps/iter_2616.h5"
  }
}
layer {
  name: "loss"
  type: "SoftmaxWithLoss"
  bottom: "fc8_plantvillage"
  bottom: "label"
  top: "loss"
}
layer {
  name: "accuracy"
  type: "Accuracy"
  bottom: "fc8_plantvillage"
  bottom: "label"
  top: "accuracy"
  include {
    phase: TEST
  }
}
I0403 14:03:01.908134 12580 layer_factory.hpp:77] Creating layer data
I0403 14:03:01.908771 12580 net.cpp:91] Creating Layer data
I0403 14:03:01.908802 12580 net.cpp:399] data -> data
I0403 14:03:01.908854 12580 net.cpp:399] data -> label
I0403 14:03:01.908888 12580 data_transformer.cpp:25] Loading mean file from: /home/mohanty/data/final_dataset/lmdb/grayscale-80-20/mean.binaryproto
I0403 14:03:01.912266 12583 db_lmdb.cpp:38] Opened lmdb /home/mohanty/data/final_dataset/lmdb/grayscale-80-20/test_db
I0403 14:03:01.922832 12580 data_layer.cpp:41] output data size: 100,3,227,227
I0403 14:03:02.043508 12580 net.cpp:141] Setting up data
I0403 14:03:02.043567 12580 net.cpp:148] Top shape: 100 3 227 227 (15458700)
I0403 14:03:02.043591 12580 net.cpp:148] Top shape: 100 (100)
I0403 14:03:02.043611 12580 net.cpp:156] Memory required for data: 61835200
I0403 14:03:02.043639 12580 layer_factory.hpp:77] Creating layer label_data_1_split
I0403 14:03:02.043664 12580 net.cpp:91] Creating Layer label_data_1_split
I0403 14:03:02.043684 12580 net.cpp:425] label_data_1_split <- label
I0403 14:03:02.043715 12580 net.cpp:399] label_data_1_split -> label_data_1_split_0
I0403 14:03:02.043743 12580 net.cpp:399] label_data_1_split -> label_data_1_split_1
I0403 14:03:02.043764 12580 net.cpp:399] label_data_1_split -> label_data_1_split_2
I0403 14:03:02.043828 12580 net.cpp:141] Setting up label_data_1_split
I0403 14:03:02.043851 12580 net.cpp:148] Top shape: 100 (100)
I0403 14:03:02.043867 12580 net.cpp:148] Top shape: 100 (100)
I0403 14:03:02.043884 12580 net.cpp:148] Top shape: 100 (100)
I0403 14:03:02.043898 12580 net.cpp:156] Memory required for data: 61836400
I0403 14:03:02.043913 12580 layer_factory.hpp:77] Creating layer conv1
I0403 14:03:02.043946 12580 net.cpp:91] Creating Layer conv1
I0403 14:03:02.043965 12580 net.cpp:425] conv1 <- data
I0403 14:03:02.043984 12580 net.cpp:399] conv1 -> conv1
I0403 14:03:02.185657 12580 net.cpp:141] Setting up conv1
I0403 14:03:02.185736 12580 net.cpp:148] Top shape: 100 96 55 55 (29040000)
I0403 14:03:02.185755 12580 net.cpp:156] Memory required for data: 177996400
I0403 14:03:02.185786 12580 layer_factory.hpp:77] Creating layer relu1
I0403 14:03:02.185813 12580 net.cpp:91] Creating Layer relu1
I0403 14:03:02.185832 12580 net.cpp:425] relu1 <- conv1
I0403 14:03:02.185853 12580 net.cpp:386] relu1 -> conv1 (in-place)
I0403 14:03:02.186113 12580 net.cpp:141] Setting up relu1
I0403 14:03:02.186141 12580 net.cpp:148] Top shape: 100 96 55 55 (29040000)
I0403 14:03:02.186194 12580 net.cpp:156] Memory required for data: 294156400
I0403 14:03:02.186211 12580 layer_factory.hpp:77] Creating layer norm1
I0403 14:03:02.186239 12580 net.cpp:91] Creating Layer norm1
I0403 14:03:02.186256 12580 net.cpp:425] norm1 <- conv1
I0403 14:03:02.186275 12580 net.cpp:399] norm1 -> norm1
I0403 14:03:02.186583 12580 net.cpp:141] Setting up norm1
I0403 14:03:02.186615 12580 net.cpp:148] Top shape: 100 96 55 55 (29040000)
I0403 14:03:02.186631 12580 net.cpp:156] Memory required for data: 410316400
I0403 14:03:02.186647 12580 layer_factory.hpp:77] Creating layer pool1
I0403 14:03:02.186671 12580 net.cpp:91] Creating Layer pool1
I0403 14:03:02.186687 12580 net.cpp:425] pool1 <- norm1
I0403 14:03:02.186705 12580 net.cpp:399] pool1 -> pool1
I0403 14:03:02.186771 12580 net.cpp:141] Setting up pool1
I0403 14:03:02.186795 12580 net.cpp:148] Top shape: 100 96 27 27 (6998400)
I0403 14:03:02.186810 12580 net.cpp:156] Memory required for data: 438310000
I0403 14:03:02.186825 12580 layer_factory.hpp:77] Creating layer conv2
I0403 14:03:02.186849 12580 net.cpp:91] Creating Layer conv2
I0403 14:03:02.186866 12580 net.cpp:425] conv2 <- pool1
I0403 14:03:02.186884 12580 net.cpp:399] conv2 -> conv2
I0403 14:03:02.201702 12580 net.cpp:141] Setting up conv2
I0403 14:03:02.201738 12580 net.cpp:148] Top shape: 100 256 27 27 (18662400)
I0403 14:03:02.201756 12580 net.cpp:156] Memory required for data: 512959600
I0403 14:03:02.201778 12580 layer_factory.hpp:77] Creating layer relu2
I0403 14:03:02.201797 12580 net.cpp:91] Creating Layer relu2
I0403 14:03:02.201813 12580 net.cpp:425] relu2 <- conv2
I0403 14:03:02.201831 12580 net.cpp:386] relu2 -> conv2 (in-place)
I0403 14:03:02.202117 12580 net.cpp:141] Setting up relu2
I0403 14:03:02.202144 12580 net.cpp:148] Top shape: 100 256 27 27 (18662400)
I0403 14:03:02.202159 12580 net.cpp:156] Memory required for data: 587609200
I0403 14:03:02.202175 12580 layer_factory.hpp:77] Creating layer norm2
I0403 14:03:02.202196 12580 net.cpp:91] Creating Layer norm2
I0403 14:03:02.202214 12580 net.cpp:425] norm2 <- conv2
I0403 14:03:02.202232 12580 net.cpp:399] norm2 -> norm2
I0403 14:03:02.202433 12580 net.cpp:141] Setting up norm2
I0403 14:03:02.202461 12580 net.cpp:148] Top shape: 100 256 27 27 (18662400)
I0403 14:03:02.202478 12580 net.cpp:156] Memory required for data: 662258800
I0403 14:03:02.202493 12580 layer_factory.hpp:77] Creating layer pool2
I0403 14:03:02.202513 12580 net.cpp:91] Creating Layer pool2
I0403 14:03:02.202529 12580 net.cpp:425] pool2 <- norm2
I0403 14:03:02.202548 12580 net.cpp:399] pool2 -> pool2
I0403 14:03:02.202605 12580 net.cpp:141] Setting up pool2
I0403 14:03:02.202628 12580 net.cpp:148] Top shape: 100 256 13 13 (4326400)
I0403 14:03:02.202643 12580 net.cpp:156] Memory required for data: 679564400
I0403 14:03:02.202657 12580 layer_factory.hpp:77] Creating layer conv3
I0403 14:03:02.202680 12580 net.cpp:91] Creating Layer conv3
I0403 14:03:02.202697 12580 net.cpp:425] conv3 <- pool2
I0403 14:03:02.202718 12580 net.cpp:399] conv3 -> conv3
I0403 14:03:02.242472 12580 net.cpp:141] Setting up conv3
I0403 14:03:02.242550 12580 net.cpp:148] Top shape: 100 384 13 13 (6489600)
I0403 14:03:02.242568 12580 net.cpp:156] Memory required for data: 705522800
I0403 14:03:02.242595 12580 layer_factory.hpp:77] Creating layer relu3
I0403 14:03:02.242624 12580 net.cpp:91] Creating Layer relu3
I0403 14:03:02.242642 12580 net.cpp:425] relu3 <- conv3
I0403 14:03:02.242666 12580 net.cpp:386] relu3 -> conv3 (in-place)
I0403 14:03:02.242969 12580 net.cpp:141] Setting up relu3
I0403 14:03:02.242996 12580 net.cpp:148] Top shape: 100 384 13 13 (6489600)
I0403 14:03:02.243013 12580 net.cpp:156] Memory required for data: 731481200
I0403 14:03:02.243028 12580 layer_factory.hpp:77] Creating layer conv4
I0403 14:03:02.243057 12580 net.cpp:91] Creating Layer conv4
I0403 14:03:02.243075 12580 net.cpp:425] conv4 <- conv3
I0403 14:03:02.243099 12580 net.cpp:399] conv4 -> conv4
I0403 14:03:02.278642 12580 net.cpp:141] Setting up conv4
I0403 14:03:02.278692 12580 net.cpp:148] Top shape: 100 384 13 13 (6489600)
I0403 14:03:02.278760 12580 net.cpp:156] Memory required for data: 757439600
I0403 14:03:02.278782 12580 layer_factory.hpp:77] Creating layer relu4
I0403 14:03:02.278803 12580 net.cpp:91] Creating Layer relu4
I0403 14:03:02.278820 12580 net.cpp:425] relu4 <- conv4
I0403 14:03:02.278838 12580 net.cpp:386] relu4 -> conv4 (in-place)
I0403 14:03:02.279124 12580 net.cpp:141] Setting up relu4
I0403 14:03:02.279166 12580 net.cpp:148] Top shape: 100 384 13 13 (6489600)
I0403 14:03:02.279186 12580 net.cpp:156] Memory required for data: 783398000
I0403 14:03:02.279201 12580 layer_factory.hpp:77] Creating layer conv5
I0403 14:03:02.279227 12580 net.cpp:91] Creating Layer conv5
I0403 14:03:02.279243 12580 net.cpp:425] conv5 <- conv4
I0403 14:03:02.279263 12580 net.cpp:399] conv5 -> conv5
I0403 14:03:02.299953 12580 net.cpp:141] Setting up conv5
I0403 14:03:02.299994 12580 net.cpp:148] Top shape: 100 256 13 13 (4326400)
I0403 14:03:02.300014 12580 net.cpp:156] Memory required for data: 800703600
I0403 14:03:02.300039 12580 layer_factory.hpp:77] Creating layer relu5
I0403 14:03:02.300060 12580 net.cpp:91] Creating Layer relu5
I0403 14:03:02.300076 12580 net.cpp:425] relu5 <- conv5
I0403 14:03:02.300098 12580 net.cpp:386] relu5 -> conv5 (in-place)
I0403 14:03:02.300389 12580 net.cpp:141] Setting up relu5
I0403 14:03:02.300416 12580 net.cpp:148] Top shape: 100 256 13 13 (4326400)
I0403 14:03:02.300431 12580 net.cpp:156] Memory required for data: 818009200
I0403 14:03:02.300447 12580 layer_factory.hpp:77] Creating layer pool5
I0403 14:03:02.300472 12580 net.cpp:91] Creating Layer pool5
I0403 14:03:02.300490 12580 net.cpp:425] pool5 <- conv5
I0403 14:03:02.300509 12580 net.cpp:399] pool5 -> pool5
I0403 14:03:02.300571 12580 net.cpp:141] Setting up pool5
I0403 14:03:02.300596 12580 net.cpp:148] Top shape: 100 256 6 6 (921600)
I0403 14:03:02.300617 12580 net.cpp:156] Memory required for data: 821695600
I0403 14:03:02.300633 12580 layer_factory.hpp:77] Creating layer fc6
I0403 14:03:02.300660 12580 net.cpp:91] Creating Layer fc6
I0403 14:03:02.300678 12580 net.cpp:425] fc6 <- pool5
I0403 14:03:02.300699 12580 net.cpp:399] fc6 -> fc6
I0403 14:03:03.832191 12580 net.cpp:141] Setting up fc6
I0403 14:03:03.832254 12580 net.cpp:148] Top shape: 100 4096 (409600)
I0403 14:03:03.832273 12580 net.cpp:156] Memory required for data: 823334000
I0403 14:03:03.832293 12580 layer_factory.hpp:77] Creating layer relu6
I0403 14:03:03.832314 12580 net.cpp:91] Creating Layer relu6
I0403 14:03:03.832331 12580 net.cpp:425] relu6 <- fc6
I0403 14:03:03.832350 12580 net.cpp:386] relu6 -> fc6 (in-place)
I0403 14:03:03.832563 12580 net.cpp:141] Setting up relu6
I0403 14:03:03.832589 12580 net.cpp:148] Top shape: 100 4096 (409600)
I0403 14:03:03.832609 12580 net.cpp:156] Memory required for data: 824972400
I0403 14:03:03.832624 12580 layer_factory.hpp:77] Creating layer drop6
I0403 14:03:03.832643 12580 net.cpp:91] Creating Layer drop6
I0403 14:03:03.832658 12580 net.cpp:425] drop6 <- fc6
I0403 14:03:03.832676 12580 net.cpp:386] drop6 -> fc6 (in-place)
I0403 14:03:03.832726 12580 net.cpp:141] Setting up drop6
I0403 14:03:03.832746 12580 net.cpp:148] Top shape: 100 4096 (409600)
I0403 14:03:03.832762 12580 net.cpp:156] Memory required for data: 826610800
I0403 14:03:03.832775 12580 layer_factory.hpp:77] Creating layer fc7
I0403 14:03:03.832798 12580 net.cpp:91] Creating Layer fc7
I0403 14:03:03.832815 12580 net.cpp:425] fc7 <- fc6
I0403 14:03:03.832836 12580 net.cpp:399] fc7 -> fc7
I0403 14:03:04.506865 12580 net.cpp:141] Setting up fc7
I0403 14:03:04.506904 12580 net.cpp:148] Top shape: 100 4096 (409600)
I0403 14:03:04.506921 12580 net.cpp:156] Memory required for data: 828249200
I0403 14:03:04.506940 12580 layer_factory.hpp:77] Creating layer relu7
I0403 14:03:04.506963 12580 net.cpp:91] Creating Layer relu7
I0403 14:03:04.506979 12580 net.cpp:425] relu7 <- fc7
I0403 14:03:04.507001 12580 net.cpp:386] relu7 -> fc7 (in-place)
I0403 14:03:04.507411 12580 net.cpp:141] Setting up relu7
I0403 14:03:04.507436 12580 net.cpp:148] Top shape: 100 4096 (409600)
I0403 14:03:04.507493 12580 net.cpp:156] Memory required for data: 829887600
I0403 14:03:04.507508 12580 layer_factory.hpp:77] Creating layer drop7
I0403 14:03:04.507527 12580 net.cpp:91] Creating Layer drop7
I0403 14:03:04.507542 12580 net.cpp:425] drop7 <- fc7
I0403 14:03:04.507568 12580 net.cpp:386] drop7 -> fc7 (in-place)
I0403 14:03:04.507616 12580 net.cpp:141] Setting up drop7
I0403 14:03:04.507637 12580 net.cpp:148] Top shape: 100 4096 (409600)
I0403 14:03:04.507652 12580 net.cpp:156] Memory required for data: 831526000
I0403 14:03:04.507666 12580 layer_factory.hpp:77] Creating layer fc8_plantvillage
I0403 14:03:04.507688 12580 net.cpp:91] Creating Layer fc8_plantvillage
I0403 14:03:04.507704 12580 net.cpp:425] fc8_plantvillage <- fc7
I0403 14:03:04.507725 12580 net.cpp:399] fc8_plantvillage -> fc8_plantvillage
I0403 14:03:04.514442 12580 net.cpp:141] Setting up fc8_plantvillage
I0403 14:03:04.514470 12580 net.cpp:148] Top shape: 100 38 (3800)
I0403 14:03:04.514487 12580 net.cpp:156] Memory required for data: 831541200
I0403 14:03:04.514504 12580 layer_factory.hpp:77] Creating layer fc8_plantvillage_fc8_plantvillage_0_split
I0403 14:03:04.514523 12580 net.cpp:91] Creating Layer fc8_plantvillage_fc8_plantvillage_0_split
I0403 14:03:04.514538 12580 net.cpp:425] fc8_plantvillage_fc8_plantvillage_0_split <- fc8_plantvillage
I0403 14:03:04.514557 12580 net.cpp:399] fc8_plantvillage_fc8_plantvillage_0_split -> fc8_plantvillage_fc8_plantvillage_0_split_0
I0403 14:03:04.514577 12580 net.cpp:399] fc8_plantvillage_fc8_plantvillage_0_split -> fc8_plantvillage_fc8_plantvillage_0_split_1
I0403 14:03:04.514597 12580 net.cpp:399] fc8_plantvillage_fc8_plantvillage_0_split -> fc8_plantvillage_fc8_plantvillage_0_split_2
I0403 14:03:04.514686 12580 net.cpp:141] Setting up fc8_plantvillage_fc8_plantvillage_0_split
I0403 14:03:04.514711 12580 net.cpp:148] Top shape: 100 38 (3800)
I0403 14:03:04.514729 12580 net.cpp:148] Top shape: 100 38 (3800)
I0403 14:03:04.514744 12580 net.cpp:148] Top shape: 100 38 (3800)
I0403 14:03:04.514757 12580 net.cpp:156] Memory required for data: 831586800
I0403 14:03:04.514771 12580 layer_factory.hpp:77] Creating layer prob
I0403 14:03:04.514789 12580 net.cpp:91] Creating Layer prob
I0403 14:03:04.514804 12580 net.cpp:425] prob <- fc8_plantvillage_fc8_plantvillage_0_split_0
I0403 14:03:04.514822 12580 net.cpp:399] prob -> prob
I0403 14:03:04.515041 12580 net.cpp:141] Setting up prob
I0403 14:03:04.515069 12580 net.cpp:148] Top shape: 100 38 (3800)
I0403 14:03:04.515084 12580 net.cpp:156] Memory required for data: 831602000
I0403 14:03:04.515100 12580 layer_factory.hpp:77] Creating layer hdf5out
I0403 14:03:04.515117 12580 net.cpp:91] Creating Layer hdf5out
I0403 14:03:04.515133 12580 net.cpp:425] hdf5out <- prob
I0403 14:03:04.515148 12580 net.cpp:425] hdf5out <- label_data_1_split_0
I0403 14:03:04.517395 12580 net.cpp:141] Setting up hdf5out
…
