…
I0403 14:10:10.309886 12841 net.cpp:313] The NetState phase (1) differed from the phase (0) specified by a rule in layer data
I0403 14:10:10.310165 12841 net.cpp:49] Initializing net from parameters: 
state {
  phase: TEST
}
layer {
  name: "data"
  type: "Data"
  top: "data"
  top: "label"
  include {
    phase: TEST
  }
  transform_param {
    crop_size: 227
    mean_file: "/home/mohanty/data/final_dataset/lmdb/grayscale-80-20/mean.binaryproto"
  }
  data_param {
    source: "/home/mohanty/data/final_dataset/lmdb/grayscale-80-20/test_db"
    batch_size: 100
    backend: LMDB
  }
}
layer {
  name: "conv1"
  type: "Convolution"
  bottom: "data"
  top: "conv1"
  param {
    lr_mult: 1
    decay_mult: 1
  }
  param {
    lr_mult: 2
    decay_mult: 0
  }
  convolution_param {
    num_output: 96
    kernel_size: 11
    stride: 4
    weight_filler {
      type: "gaussian"
      std: 0.01
    }
    bias_filler {
      type: "constant"
      value: 0
    }
  }
}
layer {
  name: "relu1"
  type: "ReLU"
  bottom: "conv1"
  top: "conv1"
}
layer {
  name: "norm1"
  type: "LRN"
  bottom: "conv1"
  top: "norm1"
  lrn_param {
    local_size: 5
    alpha: 0.0001
    beta: 0.75
  }
}
layer {
  name: "pool1"
  type: "Pooling"
  bottom: "norm1"
  top: "pool1"
  pooling_param {
    pool: MAX
    kernel_size: 3
    stride: 2
  }
}
layer {
  name: "conv2"
  type: "Convolution"
  bottom: "pool1"
  top: "conv2"
  param {
    lr_mult: 1
    decay_mult: 1
  }
  param {
    lr_mult: 2
    decay_mult: 0
  }
  convolution_param {
    num_output: 256
    pad: 2
    kernel_size: 5
    group: 2
    weight_filler {
      type: "gaussian"
      std: 0.01
    }
    bias_filler {
      type: "constant"
      value: 0.1
    }
  }
}
layer {
  name: "relu2"
  type: "ReLU"
  bottom: "conv2"
  top: "conv2"
}
layer {
  name: "norm2"
  type: "LRN"
  bottom: "conv2"
  top: "norm2"
  lrn_param {
    local_size: 5
    alpha: 0.0001
    beta: 0.75
  }
}
layer {
  name: "pool2"
  type: "Pooling"
  bottom: "norm2"
  top: "pool2"
  pooling_param {
    pool: MAX
    kernel_size: 3
    stride: 2
  }
}
layer {
  name: "conv3"
  type: "Convolution"
  bottom: "pool2"
  top: "conv3"
  param {
    lr_mult: 1
    decay_mult: 1
  }
  param {
    lr_mult: 2
    decay_mult: 0
  }
  convolution_param {
    num_output: 384
    pad: 1
    kernel_size: 3
    weight_filler {
      type: "gaussian"
      std: 0.01
    }
    bias_filler {
      type: "constant"
      value: 0
    }
  }
}
layer {
  name: "relu3"
  type: "ReLU"
  bottom: "conv3"
  top: "conv3"
}
layer {
  name: "conv4"
  type: "Convolution"
  bottom: "conv3"
  top: "conv4"
  param {
    lr_mult: 1
    decay_mult: 1
  }
  param {
    lr_mult: 2
    decay_mult: 0
  }
  convolution_param {
    num_output: 384
    pad: 1
    kernel_size: 3
    group: 2
    weight_filler {
      type: "gaussian"
      std: 0.01
    }
    bias_filler {
      type: "constant"
      value: 0.1
    }
  }
}
layer {
  name: "relu4"
  type: "ReLU"
  bottom: "conv4"
  top: "conv4"
}
layer {
  name: "conv5"
  type: "Convolution"
  bottom: "conv4"
  top: "conv5"
  param {
    lr_mult: 1
    decay_mult: 1
  }
  param {
    lr_mult: 2
    decay_mult: 0
  }
  convolution_param {
    num_output: 256
    pad: 1
    kernel_size: 3
    group: 2
    weight_filler {
      type: "gaussian"
      std: 0.01
    }
    bias_filler {
      type: "constant"
      value: 0.1
    }
  }
}
layer {
  name: "relu5"
  type: "ReLU"
  bottom: "conv5"
  top: "conv5"
}
layer {
  name: "pool5"
  type: "Pooling"
  bottom: "conv5"
  top: "pool5"
  pooling_param {
    pool: MAX
    kernel_size: 3
    stride: 2
  }
}
layer {
  name: "fc6"
  type: "InnerProduct"
  bottom: "pool5"
  top: "fc6"
  param {
    lr_mult: 1
    decay_mult: 1
  }
  param {
    lr_mult: 2
    decay_mult: 0
  }
  inner_product_param {
    num_output: 4096
    weight_filler {
      type: "gaussian"
      std: 0.005
    }
    bias_filler {
      type: "constant"
      value: 0.1
    }
  }
}
layer {
  name: "relu6"
  type: "ReLU"
  bottom: "fc6"
  top: "fc6"
}
layer {
  name: "drop6"
  type: "Dropout"
  bottom: "fc6"
  top: "fc6"
  dropout_param {
    dropout_ratio: 0.5
  }
}
layer {
  name: "fc7"
  type: "InnerProduct"
  bottom: "fc6"
  top: "fc7"
  param {
    lr_mult: 1
    decay_mult: 1
  }
  param {
    lr_mult: 2
    decay_mult: 0
  }
  inner_product_param {
    num_output: 4096
    weight_filler {
      type: "gaussian"
      std: 0.005
    }
    bias_filler {
      type: "constant"
      value: 0.1
    }
  }
}
layer {
  name: "relu7"
  type: "ReLU"
  bottom: "fc7"
  top: "fc7"
}
layer {
  name: "drop7"
  type: "Dropout"
  bottom: "fc7"
  top: "fc7"
  dropout_param {
    dropout_ratio: 0.5
  }
}
layer {
  name: "fc8_plantvillage"
  type: "InnerProduct"
  bottom: "fc7"
  top: "fc8_plantvillage"
  param {
    lr_mult: 1
    decay_mult: 1
  }
  param {
    lr_mult: 2
    decay_mult: 0
  }
  inner_product_param {
    num_output: 38
    weight_filler {
      type: "gaussian"
      std: 0.01
    }
    bias_filler {
      type: "constant"
      value: 0
    }
  }
}
layer {
  name: "prob"
  type: "Softmax"
  bottom: "fc8_plantvillage"
  top: "prob"
  include {
    phase: TEST
  }
}
layer {
  name: "hdf5out"
  type: "HDF5Output"
  bottom: "prob"
  bottom: "label"
  include {
    phase: TEST
  }
  hdf5_output_param {
    file_name: "hdf5_dumps/iter_10028.h5"
  }
}
layer {
  name: "loss"
  type: "SoftmaxWithLoss"
  bottom: "fc8_plantvillage"
  bottom: "label"
  top: "loss"
}
layer {
  name: "accuracy"
  type: "Accuracy"
  bottom: "fc8_plantvillage"
  bottom: "label"
  top: "accuracy"
  include {
    phase: TEST
  }
}
I0403 14:10:10.310770 12841 layer_factory.hpp:77] Creating layer data
I0403 14:10:10.311399 12841 net.cpp:91] Creating Layer data
I0403 14:10:10.311431 12841 net.cpp:399] data -> data
I0403 14:10:10.311481 12841 net.cpp:399] data -> label
I0403 14:10:10.311518 12841 data_transformer.cpp:25] Loading mean file from: /home/mohanty/data/final_dataset/lmdb/grayscale-80-20/mean.binaryproto
I0403 14:10:10.314652 12844 db_lmdb.cpp:38] Opened lmdb /home/mohanty/data/final_dataset/lmdb/grayscale-80-20/test_db
I0403 14:10:10.325839 12841 data_layer.cpp:41] output data size: 100,3,227,227
I0403 14:10:10.445086 12841 net.cpp:141] Setting up data
I0403 14:10:10.445175 12841 net.cpp:148] Top shape: 100 3 227 227 (15458700)
I0403 14:10:10.445197 12841 net.cpp:148] Top shape: 100 (100)
I0403 14:10:10.445214 12841 net.cpp:156] Memory required for data: 61835200
I0403 14:10:10.445241 12841 layer_factory.hpp:77] Creating layer label_data_1_split
I0403 14:10:10.445266 12841 net.cpp:91] Creating Layer label_data_1_split
I0403 14:10:10.445284 12841 net.cpp:425] label_data_1_split <- label
I0403 14:10:10.445317 12841 net.cpp:399] label_data_1_split -> label_data_1_split_0
I0403 14:10:10.445343 12841 net.cpp:399] label_data_1_split -> label_data_1_split_1
I0403 14:10:10.445364 12841 net.cpp:399] label_data_1_split -> label_data_1_split_2
I0403 14:10:10.445428 12841 net.cpp:141] Setting up label_data_1_split
I0403 14:10:10.445452 12841 net.cpp:148] Top shape: 100 (100)
I0403 14:10:10.445469 12841 net.cpp:148] Top shape: 100 (100)
I0403 14:10:10.445485 12841 net.cpp:148] Top shape: 100 (100)
I0403 14:10:10.445500 12841 net.cpp:156] Memory required for data: 61836400
I0403 14:10:10.445514 12841 layer_factory.hpp:77] Creating layer conv1
I0403 14:10:10.445545 12841 net.cpp:91] Creating Layer conv1
I0403 14:10:10.445564 12841 net.cpp:425] conv1 <- data
I0403 14:10:10.445588 12841 net.cpp:399] conv1 -> conv1
I0403 14:10:10.584065 12841 net.cpp:141] Setting up conv1
I0403 14:10:10.584137 12841 net.cpp:148] Top shape: 100 96 55 55 (29040000)
I0403 14:10:10.584154 12841 net.cpp:156] Memory required for data: 177996400
I0403 14:10:10.584187 12841 layer_factory.hpp:77] Creating layer relu1
I0403 14:10:10.584213 12841 net.cpp:91] Creating Layer relu1
I0403 14:10:10.584230 12841 net.cpp:425] relu1 <- conv1
I0403 14:10:10.584249 12841 net.cpp:386] relu1 -> conv1 (in-place)
I0403 14:10:10.584498 12841 net.cpp:141] Setting up relu1
I0403 14:10:10.584525 12841 net.cpp:148] Top shape: 100 96 55 55 (29040000)
I0403 14:10:10.584596 12841 net.cpp:156] Memory required for data: 294156400
I0403 14:10:10.584615 12841 layer_factory.hpp:77] Creating layer norm1
I0403 14:10:10.584642 12841 net.cpp:91] Creating Layer norm1
I0403 14:10:10.584659 12841 net.cpp:425] norm1 <- conv1
I0403 14:10:10.584676 12841 net.cpp:399] norm1 -> norm1
I0403 14:10:10.584986 12841 net.cpp:141] Setting up norm1
I0403 14:10:10.585013 12841 net.cpp:148] Top shape: 100 96 55 55 (29040000)
I0403 14:10:10.585029 12841 net.cpp:156] Memory required for data: 410316400
I0403 14:10:10.585044 12841 layer_factory.hpp:77] Creating layer pool1
I0403 14:10:10.585067 12841 net.cpp:91] Creating Layer pool1
I0403 14:10:10.585084 12841 net.cpp:425] pool1 <- norm1
I0403 14:10:10.585100 12841 net.cpp:399] pool1 -> pool1
I0403 14:10:10.585166 12841 net.cpp:141] Setting up pool1
I0403 14:10:10.585191 12841 net.cpp:148] Top shape: 100 96 27 27 (6998400)
I0403 14:10:10.585206 12841 net.cpp:156] Memory required for data: 438310000
I0403 14:10:10.585221 12841 layer_factory.hpp:77] Creating layer conv2
I0403 14:10:10.585244 12841 net.cpp:91] Creating Layer conv2
I0403 14:10:10.585260 12841 net.cpp:425] conv2 <- pool1
I0403 14:10:10.585278 12841 net.cpp:399] conv2 -> conv2
I0403 14:10:10.599804 12841 net.cpp:141] Setting up conv2
I0403 14:10:10.599838 12841 net.cpp:148] Top shape: 100 256 27 27 (18662400)
I0403 14:10:10.599853 12841 net.cpp:156] Memory required for data: 512959600
I0403 14:10:10.599874 12841 layer_factory.hpp:77] Creating layer relu2
I0403 14:10:10.599895 12841 net.cpp:91] Creating Layer relu2
I0403 14:10:10.599911 12841 net.cpp:425] relu2 <- conv2
I0403 14:10:10.599928 12841 net.cpp:386] relu2 -> conv2 (in-place)
I0403 14:10:10.600203 12841 net.cpp:141] Setting up relu2
I0403 14:10:10.600229 12841 net.cpp:148] Top shape: 100 256 27 27 (18662400)
I0403 14:10:10.600244 12841 net.cpp:156] Memory required for data: 587609200
I0403 14:10:10.600258 12841 layer_factory.hpp:77] Creating layer norm2
I0403 14:10:10.600281 12841 net.cpp:91] Creating Layer norm2
I0403 14:10:10.600297 12841 net.cpp:425] norm2 <- conv2
I0403 14:10:10.600314 12841 net.cpp:399] norm2 -> norm2
I0403 14:10:10.600513 12841 net.cpp:141] Setting up norm2
I0403 14:10:10.600539 12841 net.cpp:148] Top shape: 100 256 27 27 (18662400)
I0403 14:10:10.600553 12841 net.cpp:156] Memory required for data: 662258800
I0403 14:10:10.600572 12841 layer_factory.hpp:77] Creating layer pool2
I0403 14:10:10.600590 12841 net.cpp:91] Creating Layer pool2
I0403 14:10:10.600606 12841 net.cpp:425] pool2 <- norm2
I0403 14:10:10.600626 12841 net.cpp:399] pool2 -> pool2
I0403 14:10:10.600678 12841 net.cpp:141] Setting up pool2
I0403 14:10:10.600704 12841 net.cpp:148] Top shape: 100 256 13 13 (4326400)
I0403 14:10:10.600719 12841 net.cpp:156] Memory required for data: 679564400
I0403 14:10:10.600734 12841 layer_factory.hpp:77] Creating layer conv3
I0403 14:10:10.600755 12841 net.cpp:91] Creating Layer conv3
I0403 14:10:10.600772 12841 net.cpp:425] conv3 <- pool2
I0403 14:10:10.600790 12841 net.cpp:399] conv3 -> conv3
I0403 14:10:10.638893 12841 net.cpp:141] Setting up conv3
I0403 14:10:10.638963 12841 net.cpp:148] Top shape: 100 384 13 13 (6489600)
I0403 14:10:10.638981 12841 net.cpp:156] Memory required for data: 705522800
I0403 14:10:10.639006 12841 layer_factory.hpp:77] Creating layer relu3
I0403 14:10:10.639029 12841 net.cpp:91] Creating Layer relu3
I0403 14:10:10.639045 12841 net.cpp:425] relu3 <- conv3
I0403 14:10:10.639067 12841 net.cpp:386] relu3 -> conv3 (in-place)
I0403 14:10:10.645283 12841 net.cpp:141] Setting up relu3
I0403 14:10:10.645320 12841 net.cpp:148] Top shape: 100 384 13 13 (6489600)
I0403 14:10:10.645337 12841 net.cpp:156] Memory required for data: 731481200
I0403 14:10:10.645352 12841 layer_factory.hpp:77] Creating layer conv4
I0403 14:10:10.645378 12841 net.cpp:91] Creating Layer conv4
I0403 14:10:10.645397 12841 net.cpp:425] conv4 <- conv3
I0403 14:10:10.645421 12841 net.cpp:399] conv4 -> conv4
I0403 14:10:10.674744 12841 net.cpp:141] Setting up conv4
I0403 14:10:10.674794 12841 net.cpp:148] Top shape: 100 384 13 13 (6489600)
I0403 14:10:10.674844 12841 net.cpp:156] Memory required for data: 757439600
I0403 14:10:10.674866 12841 layer_factory.hpp:77] Creating layer relu4
I0403 14:10:10.674887 12841 net.cpp:91] Creating Layer relu4
I0403 14:10:10.674904 12841 net.cpp:425] relu4 <- conv4
I0403 14:10:10.674924 12841 net.cpp:386] relu4 -> conv4 (in-place)
I0403 14:10:10.675218 12841 net.cpp:141] Setting up relu4
I0403 14:10:10.675246 12841 net.cpp:148] Top shape: 100 384 13 13 (6489600)
I0403 14:10:10.675261 12841 net.cpp:156] Memory required for data: 783398000
I0403 14:10:10.675276 12841 layer_factory.hpp:77] Creating layer conv5
I0403 14:10:10.675299 12841 net.cpp:91] Creating Layer conv5
I0403 14:10:10.675317 12841 net.cpp:425] conv5 <- conv4
I0403 14:10:10.675338 12841 net.cpp:399] conv5 -> conv5
I0403 14:10:10.695117 12841 net.cpp:141] Setting up conv5
I0403 14:10:10.695152 12841 net.cpp:148] Top shape: 100 256 13 13 (4326400)
I0403 14:10:10.695169 12841 net.cpp:156] Memory required for data: 800703600
I0403 14:10:10.695194 12841 layer_factory.hpp:77] Creating layer relu5
I0403 14:10:10.695211 12841 net.cpp:91] Creating Layer relu5
I0403 14:10:10.695226 12841 net.cpp:425] relu5 <- conv5
I0403 14:10:10.695246 12841 net.cpp:386] relu5 -> conv5 (in-place)
I0403 14:10:10.695520 12841 net.cpp:141] Setting up relu5
I0403 14:10:10.695547 12841 net.cpp:148] Top shape: 100 256 13 13 (4326400)
I0403 14:10:10.695564 12841 net.cpp:156] Memory required for data: 818009200
I0403 14:10:10.695583 12841 layer_factory.hpp:77] Creating layer pool5
I0403 14:10:10.695606 12841 net.cpp:91] Creating Layer pool5
I0403 14:10:10.695623 12841 net.cpp:425] pool5 <- conv5
I0403 14:10:10.695641 12841 net.cpp:399] pool5 -> pool5
I0403 14:10:10.695704 12841 net.cpp:141] Setting up pool5
I0403 14:10:10.695729 12841 net.cpp:148] Top shape: 100 256 6 6 (921600)
I0403 14:10:10.695746 12841 net.cpp:156] Memory required for data: 821695600
I0403 14:10:10.695761 12841 layer_factory.hpp:77] Creating layer fc6
I0403 14:10:10.695787 12841 net.cpp:91] Creating Layer fc6
I0403 14:10:10.695804 12841 net.cpp:425] fc6 <- pool5
I0403 14:10:10.695825 12841 net.cpp:399] fc6 -> fc6
I0403 14:10:12.226027 12841 net.cpp:141] Setting up fc6
I0403 14:10:12.226106 12841 net.cpp:148] Top shape: 100 4096 (409600)
I0403 14:10:12.226125 12841 net.cpp:156] Memory required for data: 823334000
I0403 14:10:12.226145 12841 layer_factory.hpp:77] Creating layer relu6
I0403 14:10:12.226167 12841 net.cpp:91] Creating Layer relu6
I0403 14:10:12.226184 12841 net.cpp:425] relu6 <- fc6
I0403 14:10:12.226203 12841 net.cpp:386] relu6 -> fc6 (in-place)
I0403 14:10:12.226439 12841 net.cpp:141] Setting up relu6
I0403 14:10:12.226465 12841 net.cpp:148] Top shape: 100 4096 (409600)
I0403 14:10:12.226480 12841 net.cpp:156] Memory required for data: 824972400
I0403 14:10:12.226495 12841 layer_factory.hpp:77] Creating layer drop6
I0403 14:10:12.226512 12841 net.cpp:91] Creating Layer drop6
I0403 14:10:12.226527 12841 net.cpp:425] drop6 <- fc6
I0403 14:10:12.226547 12841 net.cpp:386] drop6 -> fc6 (in-place)
I0403 14:10:12.226613 12841 net.cpp:141] Setting up drop6
I0403 14:10:12.226646 12841 net.cpp:148] Top shape: 100 4096 (409600)
I0403 14:10:12.226667 12841 net.cpp:156] Memory required for data: 826610800
I0403 14:10:12.226692 12841 layer_factory.hpp:77] Creating layer fc7
I0403 14:10:12.226713 12841 net.cpp:91] Creating Layer fc7
I0403 14:10:12.226728 12841 net.cpp:425] fc7 <- fc6
I0403 14:10:12.226752 12841 net.cpp:399] fc7 -> fc7
I0403 14:10:12.912902 12841 net.cpp:141] Setting up fc7
I0403 14:10:12.912947 12841 net.cpp:148] Top shape: 100 4096 (409600)
I0403 14:10:12.912964 12841 net.cpp:156] Memory required for data: 828249200
I0403 14:10:12.912984 12841 layer_factory.hpp:77] Creating layer relu7
I0403 14:10:12.913007 12841 net.cpp:91] Creating Layer relu7
I0403 14:10:12.913023 12841 net.cpp:425] relu7 <- fc7
I0403 14:10:12.913044 12841 net.cpp:386] relu7 -> fc7 (in-place)
I0403 14:10:12.913429 12841 net.cpp:141] Setting up relu7
I0403 14:10:12.913455 12841 net.cpp:148] Top shape: 100 4096 (409600)
I0403 14:10:12.913512 12841 net.cpp:156] Memory required for data: 829887600
I0403 14:10:12.913528 12841 layer_factory.hpp:77] Creating layer drop7
I0403 14:10:12.913547 12841 net.cpp:91] Creating Layer drop7
I0403 14:10:12.913563 12841 net.cpp:425] drop7 <- fc7
I0403 14:10:12.913589 12841 net.cpp:386] drop7 -> fc7 (in-place)
I0403 14:10:12.913632 12841 net.cpp:141] Setting up drop7
I0403 14:10:12.913660 12841 net.cpp:148] Top shape: 100 4096 (409600)
I0403 14:10:12.913674 12841 net.cpp:156] Memory required for data: 831526000
I0403 14:10:12.913688 12841 layer_factory.hpp:77] Creating layer fc8_plantvillage
I0403 14:10:12.913708 12841 net.cpp:91] Creating Layer fc8_plantvillage
I0403 14:10:12.913723 12841 net.cpp:425] fc8_plantvillage <- fc7
I0403 14:10:12.913743 12841 net.cpp:399] fc8_plantvillage -> fc8_plantvillage
I0403 14:10:12.920455 12841 net.cpp:141] Setting up fc8_plantvillage
I0403 14:10:12.920485 12841 net.cpp:148] Top shape: 100 38 (3800)
I0403 14:10:12.920500 12841 net.cpp:156] Memory required for data: 831541200
I0403 14:10:12.920518 12841 layer_factory.hpp:77] Creating layer fc8_plantvillage_fc8_plantvillage_0_split
I0403 14:10:12.920537 12841 net.cpp:91] Creating Layer fc8_plantvillage_fc8_plantvillage_0_split
I0403 14:10:12.920557 12841 net.cpp:425] fc8_plantvillage_fc8_plantvillage_0_split <- fc8_plantvillage
I0403 14:10:12.920580 12841 net.cpp:399] fc8_plantvillage_fc8_plantvillage_0_split -> fc8_plantvillage_fc8_plantvillage_0_split_0
I0403 14:10:12.920601 12841 net.cpp:399] fc8_plantvillage_fc8_plantvillage_0_split -> fc8_plantvillage_fc8_plantvillage_0_split_1
I0403 14:10:12.920621 12841 net.cpp:399] fc8_plantvillage_fc8_plantvillage_0_split -> fc8_plantvillage_fc8_plantvillage_0_split_2
I0403 14:10:12.920698 12841 net.cpp:141] Setting up fc8_plantvillage_fc8_plantvillage_0_split
I0403 14:10:12.920725 12841 net.cpp:148] Top shape: 100 38 (3800)
I0403 14:10:12.920742 12841 net.cpp:148] Top shape: 100 38 (3800)
I0403 14:10:12.920758 12841 net.cpp:148] Top shape: 100 38 (3800)
I0403 14:10:12.920773 12841 net.cpp:156] Memory required for data: 831586800
I0403 14:10:12.920786 12841 layer_factory.hpp:77] Creating layer prob
I0403 14:10:12.920804 12841 net.cpp:91] Creating Layer prob
I0403 14:10:12.920819 12841 net.cpp:425] prob <- fc8_plantvillage_fc8_plantvillage_0_split_0
I0403 14:10:12.920836 12841 net.cpp:399] prob -> prob
I0403 14:10:12.921066 12841 net.cpp:141] Setting up prob
I0403 14:10:12.921092 12841 net.cpp:148] Top shape: 100 38 (3800)
I0403 14:10:12.921106 12841 net.cpp:156] Memory required for data: 831602000
I0403 14:10:12.921121 12841 layer_factory.hpp:77] Creating layer hdf5out
I0403 14:10:12.921140 12841 net.cpp:91] Creating Layer hdf5out
I0403 14:10:12.921155 12841 net.cpp:425] hdf5out <- prob
I0403 14:10:12.921171 12841 net.cpp:425] hdf5out <- label_data_1_split_0
I0403 14:10:12.923374 12841 net.cpp:141] Setting up hdf5out
…
