…
I0403 14:08:55.139140 12792 net.cpp:313] The NetState phase (1) differed from the phase (0) specified by a rule in layer data
I0403 14:08:55.139438 12792 net.cpp:49] Initializing net from parameters: 
state {
  phase: TEST
}
layer {
  name: "data"
  type: "Data"
  top: "data"
  top: "label"
  include {
    phase: TEST
  }
  transform_param {
    crop_size: 227
    mean_file: "/home/mohanty/data/final_dataset/lmdb/grayscale-80-20/mean.binaryproto"
  }
  data_param {
    source: "/home/mohanty/data/final_dataset/lmdb/grayscale-80-20/test_db"
    batch_size: 100
    backend: LMDB
  }
}
layer {
  name: "conv1"
  type: "Convolution"
  bottom: "data"
  top: "conv1"
  param {
    lr_mult: 1
    decay_mult: 1
  }
  param {
    lr_mult: 2
    decay_mult: 0
  }
  convolution_param {
    num_output: 96
    kernel_size: 11
    stride: 4
    weight_filler {
      type: "gaussian"
      std: 0.01
    }
    bias_filler {
      type: "constant"
      value: 0
    }
  }
}
layer {
  name: "relu1"
  type: "ReLU"
  bottom: "conv1"
  top: "conv1"
}
layer {
  name: "norm1"
  type: "LRN"
  bottom: "conv1"
  top: "norm1"
  lrn_param {
    local_size: 5
    alpha: 0.0001
    beta: 0.75
  }
}
layer {
  name: "pool1"
  type: "Pooling"
  bottom: "norm1"
  top: "pool1"
  pooling_param {
    pool: MAX
    kernel_size: 3
    stride: 2
  }
}
layer {
  name: "conv2"
  type: "Convolution"
  bottom: "pool1"
  top: "conv2"
  param {
    lr_mult: 1
    decay_mult: 1
  }
  param {
    lr_mult: 2
    decay_mult: 0
  }
  convolution_param {
    num_output: 256
    pad: 2
    kernel_size: 5
    group: 2
    weight_filler {
      type: "gaussian"
      std: 0.01
    }
    bias_filler {
      type: "constant"
      value: 0.1
    }
  }
}
layer {
  name: "relu2"
  type: "ReLU"
  bottom: "conv2"
  top: "conv2"
}
layer {
  name: "norm2"
  type: "LRN"
  bottom: "conv2"
  top: "norm2"
  lrn_param {
    local_size: 5
    alpha: 0.0001
    beta: 0.75
  }
}
layer {
  name: "pool2"
  type: "Pooling"
  bottom: "norm2"
  top: "pool2"
  pooling_param {
    pool: MAX
    kernel_size: 3
    stride: 2
  }
}
layer {
  name: "conv3"
  type: "Convolution"
  bottom: "pool2"
  top: "conv3"
  param {
    lr_mult: 1
    decay_mult: 1
  }
  param {
    lr_mult: 2
    decay_mult: 0
  }
  convolution_param {
    num_output: 384
    pad: 1
    kernel_size: 3
    weight_filler {
      type: "gaussian"
      std: 0.01
    }
    bias_filler {
      type: "constant"
      value: 0
    }
  }
}
layer {
  name: "relu3"
  type: "ReLU"
  bottom: "conv3"
  top: "conv3"
}
layer {
  name: "conv4"
  type: "Convolution"
  bottom: "conv3"
  top: "conv4"
  param {
    lr_mult: 1
    decay_mult: 1
  }
  param {
    lr_mult: 2
    decay_mult: 0
  }
  convolution_param {
    num_output: 384
    pad: 1
    kernel_size: 3
    group: 2
    weight_filler {
      type: "gaussian"
      std: 0.01
    }
    bias_filler {
      type: "constant"
      value: 0.1
    }
  }
}
layer {
  name: "relu4"
  type: "ReLU"
  bottom: "conv4"
  top: "conv4"
}
layer {
  name: "conv5"
  type: "Convolution"
  bottom: "conv4"
  top: "conv5"
  param {
    lr_mult: 1
    decay_mult: 1
  }
  param {
    lr_mult: 2
    decay_mult: 0
  }
  convolution_param {
    num_output: 256
    pad: 1
    kernel_size: 3
    group: 2
    weight_filler {
      type: "gaussian"
      std: 0.01
    }
    bias_filler {
      type: "constant"
      value: 0.1
    }
  }
}
layer {
  name: "relu5"
  type: "ReLU"
  bottom: "conv5"
  top: "conv5"
}
layer {
  name: "pool5"
  type: "Pooling"
  bottom: "conv5"
  top: "pool5"
  pooling_param {
    pool: MAX
    kernel_size: 3
    stride: 2
  }
}
layer {
  name: "fc6"
  type: "InnerProduct"
  bottom: "pool5"
  top: "fc6"
  param {
    lr_mult: 1
    decay_mult: 1
  }
  param {
    lr_mult: 2
    decay_mult: 0
  }
  inner_product_param {
    num_output: 4096
    weight_filler {
      type: "gaussian"
      std: 0.005
    }
    bias_filler {
      type: "constant"
      value: 0.1
    }
  }
}
layer {
  name: "relu6"
  type: "ReLU"
  bottom: "fc6"
  top: "fc6"
}
layer {
  name: "drop6"
  type: "Dropout"
  bottom: "fc6"
  top: "fc6"
  dropout_param {
    dropout_ratio: 0.5
  }
}
layer {
  name: "fc7"
  type: "InnerProduct"
  bottom: "fc6"
  top: "fc7"
  param {
    lr_mult: 1
    decay_mult: 1
  }
  param {
    lr_mult: 2
    decay_mult: 0
  }
  inner_product_param {
    num_output: 4096
    weight_filler {
      type: "gaussian"
      std: 0.005
    }
    bias_filler {
      type: "constant"
      value: 0.1
    }
  }
}
layer {
  name: "relu7"
  type: "ReLU"
  bottom: "fc7"
  top: "fc7"
}
layer {
  name: "drop7"
  type: "Dropout"
  bottom: "fc7"
  top: "fc7"
  dropout_param {
    dropout_ratio: 0.5
  }
}
layer {
  name: "fc8_plantvillage"
  type: "InnerProduct"
  bottom: "fc7"
  top: "fc8_plantvillage"
  param {
    lr_mult: 1
    decay_mult: 1
  }
  param {
    lr_mult: 2
    decay_mult: 0
  }
  inner_product_param {
    num_output: 38
    weight_filler {
      type: "gaussian"
      std: 0.01
    }
    bias_filler {
      type: "constant"
      value: 0
    }
  }
}
layer {
  name: "prob"
  type: "Softmax"
  bottom: "fc8_plantvillage"
  top: "prob"
  include {
    phase: TEST
  }
}
layer {
  name: "hdf5out"
  type: "HDF5Output"
  bottom: "prob"
  bottom: "label"
  include {
    phase: TEST
  }
  hdf5_output_param {
    file_name: "hdf5_dumps/iter_8720.h5"
  }
}
layer {
  name: "loss"
  type: "SoftmaxWithLoss"
  bottom: "fc8_plantvillage"
  bottom: "label"
  top: "loss"
}
layer {
  name: "accuracy"
  type: "Accuracy"
  bottom: "fc8_plantvillage"
  bottom: "label"
  top: "accuracy"
  include {
    phase: TEST
  }
}
I0403 14:08:55.140120 12792 layer_factory.hpp:77] Creating layer data
I0403 14:08:55.140782 12792 net.cpp:91] Creating Layer data
I0403 14:08:55.140816 12792 net.cpp:399] data -> data
I0403 14:08:55.140866 12792 net.cpp:399] data -> label
I0403 14:08:55.140902 12792 data_transformer.cpp:25] Loading mean file from: /home/mohanty/data/final_dataset/lmdb/grayscale-80-20/mean.binaryproto
I0403 14:08:55.143610 12805 db_lmdb.cpp:38] Opened lmdb /home/mohanty/data/final_dataset/lmdb/grayscale-80-20/test_db
I0403 14:08:55.155190 12792 data_layer.cpp:41] output data size: 100,3,227,227
I0403 14:08:55.277904 12792 net.cpp:141] Setting up data
I0403 14:08:55.277998 12792 net.cpp:148] Top shape: 100 3 227 227 (15458700)
I0403 14:08:55.278020 12792 net.cpp:148] Top shape: 100 (100)
I0403 14:08:55.278035 12792 net.cpp:156] Memory required for data: 61835200
I0403 14:08:55.278064 12792 layer_factory.hpp:77] Creating layer label_data_1_split
I0403 14:08:55.278089 12792 net.cpp:91] Creating Layer label_data_1_split
I0403 14:08:55.278106 12792 net.cpp:425] label_data_1_split <- label
I0403 14:08:55.278139 12792 net.cpp:399] label_data_1_split -> label_data_1_split_0
I0403 14:08:55.278167 12792 net.cpp:399] label_data_1_split -> label_data_1_split_1
I0403 14:08:55.278188 12792 net.cpp:399] label_data_1_split -> label_data_1_split_2
I0403 14:08:55.278260 12792 net.cpp:141] Setting up label_data_1_split
I0403 14:08:55.278285 12792 net.cpp:148] Top shape: 100 (100)
I0403 14:08:55.278301 12792 net.cpp:148] Top shape: 100 (100)
I0403 14:08:55.278317 12792 net.cpp:148] Top shape: 100 (100)
I0403 14:08:55.278332 12792 net.cpp:156] Memory required for data: 61836400
I0403 14:08:55.278347 12792 layer_factory.hpp:77] Creating layer conv1
I0403 14:08:55.278380 12792 net.cpp:91] Creating Layer conv1
I0403 14:08:55.278399 12792 net.cpp:425] conv1 <- data
I0403 14:08:55.278419 12792 net.cpp:399] conv1 -> conv1
I0403 14:08:55.420181 12792 net.cpp:141] Setting up conv1
I0403 14:08:55.420256 12792 net.cpp:148] Top shape: 100 96 55 55 (29040000)
I0403 14:08:55.420274 12792 net.cpp:156] Memory required for data: 177996400
I0403 14:08:55.420305 12792 layer_factory.hpp:77] Creating layer relu1
I0403 14:08:55.420332 12792 net.cpp:91] Creating Layer relu1
I0403 14:08:55.420351 12792 net.cpp:425] relu1 <- conv1
I0403 14:08:55.420369 12792 net.cpp:386] relu1 -> conv1 (in-place)
I0403 14:08:55.420632 12792 net.cpp:141] Setting up relu1
I0403 14:08:55.420660 12792 net.cpp:148] Top shape: 100 96 55 55 (29040000)
I0403 14:08:55.420712 12792 net.cpp:156] Memory required for data: 294156400
I0403 14:08:55.420728 12792 layer_factory.hpp:77] Creating layer norm1
I0403 14:08:55.420755 12792 net.cpp:91] Creating Layer norm1
I0403 14:08:55.420773 12792 net.cpp:425] norm1 <- conv1
I0403 14:08:55.420790 12792 net.cpp:399] norm1 -> norm1
I0403 14:08:55.421104 12792 net.cpp:141] Setting up norm1
I0403 14:08:55.421133 12792 net.cpp:148] Top shape: 100 96 55 55 (29040000)
I0403 14:08:55.421149 12792 net.cpp:156] Memory required for data: 410316400
I0403 14:08:55.421164 12792 layer_factory.hpp:77] Creating layer pool1
I0403 14:08:55.421185 12792 net.cpp:91] Creating Layer pool1
I0403 14:08:55.421202 12792 net.cpp:425] pool1 <- norm1
I0403 14:08:55.421221 12792 net.cpp:399] pool1 -> pool1
I0403 14:08:55.421288 12792 net.cpp:141] Setting up pool1
I0403 14:08:55.421311 12792 net.cpp:148] Top shape: 100 96 27 27 (6998400)
I0403 14:08:55.421326 12792 net.cpp:156] Memory required for data: 438310000
I0403 14:08:55.421341 12792 layer_factory.hpp:77] Creating layer conv2
I0403 14:08:55.421368 12792 net.cpp:91] Creating Layer conv2
I0403 14:08:55.421385 12792 net.cpp:425] conv2 <- pool1
I0403 14:08:55.421406 12792 net.cpp:399] conv2 -> conv2
I0403 14:08:55.436753 12792 net.cpp:141] Setting up conv2
I0403 14:08:55.436808 12792 net.cpp:148] Top shape: 100 256 27 27 (18662400)
I0403 14:08:55.436825 12792 net.cpp:156] Memory required for data: 512959600
I0403 14:08:55.436848 12792 layer_factory.hpp:77] Creating layer relu2
I0403 14:08:55.436872 12792 net.cpp:91] Creating Layer relu2
I0403 14:08:55.436889 12792 net.cpp:425] relu2 <- conv2
I0403 14:08:55.436908 12792 net.cpp:386] relu2 -> conv2 (in-place)
I0403 14:08:55.437230 12792 net.cpp:141] Setting up relu2
I0403 14:08:55.437258 12792 net.cpp:148] Top shape: 100 256 27 27 (18662400)
I0403 14:08:55.437273 12792 net.cpp:156] Memory required for data: 587609200
I0403 14:08:55.437286 12792 layer_factory.hpp:77] Creating layer norm2
I0403 14:08:55.437309 12792 net.cpp:91] Creating Layer norm2
I0403 14:08:55.437327 12792 net.cpp:425] norm2 <- conv2
I0403 14:08:55.437346 12792 net.cpp:399] norm2 -> norm2
I0403 14:08:55.437547 12792 net.cpp:141] Setting up norm2
I0403 14:08:55.437573 12792 net.cpp:148] Top shape: 100 256 27 27 (18662400)
I0403 14:08:55.437588 12792 net.cpp:156] Memory required for data: 662258800
I0403 14:08:55.437607 12792 layer_factory.hpp:77] Creating layer pool2
I0403 14:08:55.437626 12792 net.cpp:91] Creating Layer pool2
I0403 14:08:55.437641 12792 net.cpp:425] pool2 <- norm2
I0403 14:08:55.437661 12792 net.cpp:399] pool2 -> pool2
I0403 14:08:55.437716 12792 net.cpp:141] Setting up pool2
I0403 14:08:55.437739 12792 net.cpp:148] Top shape: 100 256 13 13 (4326400)
I0403 14:08:55.437753 12792 net.cpp:156] Memory required for data: 679564400
I0403 14:08:55.437768 12792 layer_factory.hpp:77] Creating layer conv3
I0403 14:08:55.437794 12792 net.cpp:91] Creating Layer conv3
I0403 14:08:55.437811 12792 net.cpp:425] conv3 <- pool2
I0403 14:08:55.437829 12792 net.cpp:399] conv3 -> conv3
I0403 14:08:55.477766 12792 net.cpp:141] Setting up conv3
I0403 14:08:55.477810 12792 net.cpp:148] Top shape: 100 384 13 13 (6489600)
I0403 14:08:55.477826 12792 net.cpp:156] Memory required for data: 705522800
I0403 14:08:55.477850 12792 layer_factory.hpp:77] Creating layer relu3
I0403 14:08:55.477874 12792 net.cpp:91] Creating Layer relu3
I0403 14:08:55.477891 12792 net.cpp:425] relu3 <- conv3
I0403 14:08:55.477910 12792 net.cpp:386] relu3 -> conv3 (in-place)
I0403 14:08:55.478181 12792 net.cpp:141] Setting up relu3
I0403 14:08:55.478209 12792 net.cpp:148] Top shape: 100 384 13 13 (6489600)
I0403 14:08:55.478225 12792 net.cpp:156] Memory required for data: 731481200
I0403 14:08:55.478240 12792 layer_factory.hpp:77] Creating layer conv4
I0403 14:08:55.478265 12792 net.cpp:91] Creating Layer conv4
I0403 14:08:55.478281 12792 net.cpp:425] conv4 <- conv3
I0403 14:08:55.478302 12792 net.cpp:399] conv4 -> conv4
I0403 14:08:55.507895 12792 net.cpp:141] Setting up conv4
I0403 14:08:55.507938 12792 net.cpp:148] Top shape: 100 384 13 13 (6489600)
I0403 14:08:55.507989 12792 net.cpp:156] Memory required for data: 757439600
I0403 14:08:55.508010 12792 layer_factory.hpp:77] Creating layer relu4
I0403 14:08:55.508029 12792 net.cpp:91] Creating Layer relu4
I0403 14:08:55.508052 12792 net.cpp:425] relu4 <- conv4
I0403 14:08:55.508070 12792 net.cpp:386] relu4 -> conv4 (in-place)
I0403 14:08:55.508349 12792 net.cpp:141] Setting up relu4
I0403 14:08:55.508378 12792 net.cpp:148] Top shape: 100 384 13 13 (6489600)
I0403 14:08:55.508393 12792 net.cpp:156] Memory required for data: 783398000
I0403 14:08:55.508407 12792 layer_factory.hpp:77] Creating layer conv5
I0403 14:08:55.508433 12792 net.cpp:91] Creating Layer conv5
I0403 14:08:55.508450 12792 net.cpp:425] conv5 <- conv4
I0403 14:08:55.508471 12792 net.cpp:399] conv5 -> conv5
I0403 14:08:55.529323 12792 net.cpp:141] Setting up conv5
I0403 14:08:55.529382 12792 net.cpp:148] Top shape: 100 256 13 13 (4326400)
I0403 14:08:55.529398 12792 net.cpp:156] Memory required for data: 800703600
I0403 14:08:55.529423 12792 layer_factory.hpp:77] Creating layer relu5
I0403 14:08:55.529450 12792 net.cpp:91] Creating Layer relu5
I0403 14:08:55.529469 12792 net.cpp:425] relu5 <- conv5
I0403 14:08:55.529487 12792 net.cpp:386] relu5 -> conv5 (in-place)
I0403 14:08:55.529824 12792 net.cpp:141] Setting up relu5
I0403 14:08:55.529852 12792 net.cpp:148] Top shape: 100 256 13 13 (4326400)
I0403 14:08:55.529867 12792 net.cpp:156] Memory required for data: 818009200
I0403 14:08:55.529881 12792 layer_factory.hpp:77] Creating layer pool5
I0403 14:08:55.529906 12792 net.cpp:91] Creating Layer pool5
I0403 14:08:55.529922 12792 net.cpp:425] pool5 <- conv5
I0403 14:08:55.529940 12792 net.cpp:399] pool5 -> pool5
I0403 14:08:55.530005 12792 net.cpp:141] Setting up pool5
I0403 14:08:55.530030 12792 net.cpp:148] Top shape: 100 256 6 6 (921600)
I0403 14:08:55.530045 12792 net.cpp:156] Memory required for data: 821695600
I0403 14:08:55.530058 12792 layer_factory.hpp:77] Creating layer fc6
I0403 14:08:55.530087 12792 net.cpp:91] Creating Layer fc6
I0403 14:08:55.530104 12792 net.cpp:425] fc6 <- pool5
I0403 14:08:55.530122 12792 net.cpp:399] fc6 -> fc6
I0403 14:08:57.058737 12792 net.cpp:141] Setting up fc6
I0403 14:08:57.058782 12792 net.cpp:148] Top shape: 100 4096 (409600)
I0403 14:08:57.058797 12792 net.cpp:156] Memory required for data: 823334000
I0403 14:08:57.058818 12792 layer_factory.hpp:77] Creating layer relu6
I0403 14:08:57.058840 12792 net.cpp:91] Creating Layer relu6
I0403 14:08:57.058856 12792 net.cpp:425] relu6 <- fc6
I0403 14:08:57.058877 12792 net.cpp:386] relu6 -> fc6 (in-place)
I0403 14:08:57.059098 12792 net.cpp:141] Setting up relu6
I0403 14:08:57.059123 12792 net.cpp:148] Top shape: 100 4096 (409600)
I0403 14:08:57.059136 12792 net.cpp:156] Memory required for data: 824972400
I0403 14:08:57.059150 12792 layer_factory.hpp:77] Creating layer drop6
I0403 14:08:57.059170 12792 net.cpp:91] Creating Layer drop6
I0403 14:08:57.059183 12792 net.cpp:425] drop6 <- fc6
I0403 14:08:57.059203 12792 net.cpp:386] drop6 -> fc6 (in-place)
I0403 14:08:57.059258 12792 net.cpp:141] Setting up drop6
I0403 14:08:57.059280 12792 net.cpp:148] Top shape: 100 4096 (409600)
I0403 14:08:57.059295 12792 net.cpp:156] Memory required for data: 826610800
I0403 14:08:57.059309 12792 layer_factory.hpp:77] Creating layer fc7
I0403 14:08:57.059329 12792 net.cpp:91] Creating Layer fc7
I0403 14:08:57.059345 12792 net.cpp:425] fc7 <- fc6
I0403 14:08:57.059366 12792 net.cpp:399] fc7 -> fc7
I0403 14:08:57.733762 12792 net.cpp:141] Setting up fc7
I0403 14:08:57.733829 12792 net.cpp:148] Top shape: 100 4096 (409600)
I0403 14:08:57.733844 12792 net.cpp:156] Memory required for data: 828249200
I0403 14:08:57.733863 12792 layer_factory.hpp:77] Creating layer relu7
I0403 14:08:57.733887 12792 net.cpp:91] Creating Layer relu7
I0403 14:08:57.733904 12792 net.cpp:425] relu7 <- fc7
I0403 14:08:57.733923 12792 net.cpp:386] relu7 -> fc7 (in-place)
I0403 14:08:57.734311 12792 net.cpp:141] Setting up relu7
I0403 14:08:57.734338 12792 net.cpp:148] Top shape: 100 4096 (409600)
I0403 14:08:57.734391 12792 net.cpp:156] Memory required for data: 829887600
I0403 14:08:57.734406 12792 layer_factory.hpp:77] Creating layer drop7
I0403 14:08:57.734427 12792 net.cpp:91] Creating Layer drop7
I0403 14:08:57.734442 12792 net.cpp:425] drop7 <- fc7
I0403 14:08:57.734458 12792 net.cpp:386] drop7 -> fc7 (in-place)
I0403 14:08:57.734499 12792 net.cpp:141] Setting up drop7
I0403 14:08:57.734524 12792 net.cpp:148] Top shape: 100 4096 (409600)
I0403 14:08:57.734539 12792 net.cpp:156] Memory required for data: 831526000
I0403 14:08:57.734551 12792 layer_factory.hpp:77] Creating layer fc8_plantvillage
I0403 14:08:57.734570 12792 net.cpp:91] Creating Layer fc8_plantvillage
I0403 14:08:57.734585 12792 net.cpp:425] fc8_plantvillage <- fc7
I0403 14:08:57.734612 12792 net.cpp:399] fc8_plantvillage -> fc8_plantvillage
I0403 14:08:57.741255 12792 net.cpp:141] Setting up fc8_plantvillage
I0403 14:08:57.741282 12792 net.cpp:148] Top shape: 100 38 (3800)
I0403 14:08:57.741297 12792 net.cpp:156] Memory required for data: 831541200
I0403 14:08:57.741315 12792 layer_factory.hpp:77] Creating layer fc8_plantvillage_fc8_plantvillage_0_split
I0403 14:08:57.741339 12792 net.cpp:91] Creating Layer fc8_plantvillage_fc8_plantvillage_0_split
I0403 14:08:57.741356 12792 net.cpp:425] fc8_plantvillage_fc8_plantvillage_0_split <- fc8_plantvillage
I0403 14:08:57.741374 12792 net.cpp:399] fc8_plantvillage_fc8_plantvillage_0_split -> fc8_plantvillage_fc8_plantvillage_0_split_0
I0403 14:08:57.741394 12792 net.cpp:399] fc8_plantvillage_fc8_plantvillage_0_split -> fc8_plantvillage_fc8_plantvillage_0_split_1
I0403 14:08:57.741411 12792 net.cpp:399] fc8_plantvillage_fc8_plantvillage_0_split -> fc8_plantvillage_fc8_plantvillage_0_split_2
I0403 14:08:57.741490 12792 net.cpp:141] Setting up fc8_plantvillage_fc8_plantvillage_0_split
I0403 14:08:57.741514 12792 net.cpp:148] Top shape: 100 38 (3800)
I0403 14:08:57.741529 12792 net.cpp:148] Top shape: 100 38 (3800)
I0403 14:08:57.741546 12792 net.cpp:148] Top shape: 100 38 (3800)
I0403 14:08:57.741561 12792 net.cpp:156] Memory required for data: 831586800
I0403 14:08:57.741575 12792 layer_factory.hpp:77] Creating layer prob
I0403 14:08:57.741595 12792 net.cpp:91] Creating Layer prob
I0403 14:08:57.741614 12792 net.cpp:425] prob <- fc8_plantvillage_fc8_plantvillage_0_split_0
I0403 14:08:57.741636 12792 net.cpp:399] prob -> prob
I0403 14:08:57.741860 12792 net.cpp:141] Setting up prob
I0403 14:08:57.741885 12792 net.cpp:148] Top shape: 100 38 (3800)
I0403 14:08:57.741900 12792 net.cpp:156] Memory required for data: 831602000
I0403 14:08:57.741915 12792 layer_factory.hpp:77] Creating layer hdf5out
I0403 14:08:57.741935 12792 net.cpp:91] Creating Layer hdf5out
I0403 14:08:57.741951 12792 net.cpp:425] hdf5out <- prob
I0403 14:08:57.741966 12792 net.cpp:425] hdf5out <- label_data_1_split_0
I0403 14:08:57.744355 12792 net.cpp:141] Setting up hdf5out
…
