…
I0403 14:04:16.904752 12626 net.cpp:313] The NetState phase (1) differed from the phase (0) specified by a rule in layer data
I0403 14:04:16.905055 12626 net.cpp:49] Initializing net from parameters: 
state {
  phase: TEST
}
layer {
  name: "data"
  type: "Data"
  top: "data"
  top: "label"
  include {
    phase: TEST
  }
  transform_param {
    crop_size: 227
    mean_file: "/home/mohanty/data/final_dataset/lmdb/grayscale-80-20/mean.binaryproto"
  }
  data_param {
    source: "/home/mohanty/data/final_dataset/lmdb/grayscale-80-20/test_db"
    batch_size: 100
    backend: LMDB
  }
}
layer {
  name: "conv1"
  type: "Convolution"
  bottom: "data"
  top: "conv1"
  param {
    lr_mult: 1
    decay_mult: 1
  }
  param {
    lr_mult: 2
    decay_mult: 0
  }
  convolution_param {
    num_output: 96
    kernel_size: 11
    stride: 4
    weight_filler {
      type: "gaussian"
      std: 0.01
    }
    bias_filler {
      type: "constant"
      value: 0
    }
  }
}
layer {
  name: "relu1"
  type: "ReLU"
  bottom: "conv1"
  top: "conv1"
}
layer {
  name: "norm1"
  type: "LRN"
  bottom: "conv1"
  top: "norm1"
  lrn_param {
    local_size: 5
    alpha: 0.0001
    beta: 0.75
  }
}
layer {
  name: "pool1"
  type: "Pooling"
  bottom: "norm1"
  top: "pool1"
  pooling_param {
    pool: MAX
    kernel_size: 3
    stride: 2
  }
}
layer {
  name: "conv2"
  type: "Convolution"
  bottom: "pool1"
  top: "conv2"
  param {
    lr_mult: 1
    decay_mult: 1
  }
  param {
    lr_mult: 2
    decay_mult: 0
  }
  convolution_param {
    num_output: 256
    pad: 2
    kernel_size: 5
    group: 2
    weight_filler {
      type: "gaussian"
      std: 0.01
    }
    bias_filler {
      type: "constant"
      value: 0.1
    }
  }
}
layer {
  name: "relu2"
  type: "ReLU"
  bottom: "conv2"
  top: "conv2"
}
layer {
  name: "norm2"
  type: "LRN"
  bottom: "conv2"
  top: "norm2"
  lrn_param {
    local_size: 5
    alpha: 0.0001
    beta: 0.75
  }
}
layer {
  name: "pool2"
  type: "Pooling"
  bottom: "norm2"
  top: "pool2"
  pooling_param {
    pool: MAX
    kernel_size: 3
    stride: 2
  }
}
layer {
  name: "conv3"
  type: "Convolution"
  bottom: "pool2"
  top: "conv3"
  param {
    lr_mult: 1
    decay_mult: 1
  }
  param {
    lr_mult: 2
    decay_mult: 0
  }
  convolution_param {
    num_output: 384
    pad: 1
    kernel_size: 3
    weight_filler {
      type: "gaussian"
      std: 0.01
    }
    bias_filler {
      type: "constant"
      value: 0
    }
  }
}
layer {
  name: "relu3"
  type: "ReLU"
  bottom: "conv3"
  top: "conv3"
}
layer {
  name: "conv4"
  type: "Convolution"
  bottom: "conv3"
  top: "conv4"
  param {
    lr_mult: 1
    decay_mult: 1
  }
  param {
    lr_mult: 2
    decay_mult: 0
  }
  convolution_param {
    num_output: 384
    pad: 1
    kernel_size: 3
    group: 2
    weight_filler {
      type: "gaussian"
      std: 0.01
    }
    bias_filler {
      type: "constant"
      value: 0.1
    }
  }
}
layer {
  name: "relu4"
  type: "ReLU"
  bottom: "conv4"
  top: "conv4"
}
layer {
  name: "conv5"
  type: "Convolution"
  bottom: "conv4"
  top: "conv5"
  param {
    lr_mult: 1
    decay_mult: 1
  }
  param {
    lr_mult: 2
    decay_mult: 0
  }
  convolution_param {
    num_output: 256
    pad: 1
    kernel_size: 3
    group: 2
    weight_filler {
      type: "gaussian"
      std: 0.01
    }
    bias_filler {
      type: "constant"
      value: 0.1
    }
  }
}
layer {
  name: "relu5"
  type: "ReLU"
  bottom: "conv5"
  top: "conv5"
}
layer {
  name: "pool5"
  type: "Pooling"
  bottom: "conv5"
  top: "pool5"
  pooling_param {
    pool: MAX
    kernel_size: 3
    stride: 2
  }
}
layer {
  name: "fc6"
  type: "InnerProduct"
  bottom: "pool5"
  top: "fc6"
  param {
    lr_mult: 1
    decay_mult: 1
  }
  param {
    lr_mult: 2
    decay_mult: 0
  }
  inner_product_param {
    num_output: 4096
    weight_filler {
      type: "gaussian"
      std: 0.005
    }
    bias_filler {
      type: "constant"
      value: 0.1
    }
  }
}
layer {
  name: "relu6"
  type: "ReLU"
  bottom: "fc6"
  top: "fc6"
}
layer {
  name: "drop6"
  type: "Dropout"
  bottom: "fc6"
  top: "fc6"
  dropout_param {
    dropout_ratio: 0.5
  }
}
layer {
  name: "fc7"
  type: "InnerProduct"
  bottom: "fc6"
  top: "fc7"
  param {
    lr_mult: 1
    decay_mult: 1
  }
  param {
    lr_mult: 2
    decay_mult: 0
  }
  inner_product_param {
    num_output: 4096
    weight_filler {
      type: "gaussian"
      std: 0.005
    }
    bias_filler {
      type: "constant"
      value: 0.1
    }
  }
}
layer {
  name: "relu7"
  type: "ReLU"
  bottom: "fc7"
  top: "fc7"
}
layer {
  name: "drop7"
  type: "Dropout"
  bottom: "fc7"
  top: "fc7"
  dropout_param {
    dropout_ratio: 0.5
  }
}
layer {
  name: "fc8_plantvillage"
  type: "InnerProduct"
  bottom: "fc7"
  top: "fc8_plantvillage"
  param {
    lr_mult: 1
    decay_mult: 1
  }
  param {
    lr_mult: 2
    decay_mult: 0
  }
  inner_product_param {
    num_output: 38
    weight_filler {
      type: "gaussian"
      std: 0.01
    }
    bias_filler {
      type: "constant"
      value: 0
    }
  }
}
layer {
  name: "prob"
  type: "Softmax"
  bottom: "fc8_plantvillage"
  top: "prob"
  include {
    phase: TEST
  }
}
layer {
  name: "hdf5out"
  type: "HDF5Output"
  bottom: "prob"
  bottom: "label"
  include {
    phase: TEST
  }
  hdf5_output_param {
    file_name: "hdf5_dumps/iter_3924.h5"
  }
}
layer {
  name: "loss"
  type: "SoftmaxWithLoss"
  bottom: "fc8_plantvillage"
  bottom: "label"
  top: "loss"
}
layer {
  name: "accuracy"
  type: "Accuracy"
  bottom: "fc8_plantvillage"
  bottom: "label"
  top: "accuracy"
  include {
    phase: TEST
  }
}
I0403 14:04:16.905653 12626 layer_factory.hpp:77] Creating layer data
I0403 14:04:16.906311 12626 net.cpp:91] Creating Layer data
I0403 14:04:16.906344 12626 net.cpp:399] data -> data
I0403 14:04:16.906396 12626 net.cpp:399] data -> label
I0403 14:04:16.906435 12626 data_transformer.cpp:25] Loading mean file from: /home/mohanty/data/final_dataset/lmdb/grayscale-80-20/mean.binaryproto
I0403 14:04:16.908866 12629 db_lmdb.cpp:38] Opened lmdb /home/mohanty/data/final_dataset/lmdb/grayscale-80-20/test_db
I0403 14:04:16.921176 12626 data_layer.cpp:41] output data size: 100,3,227,227
I0403 14:04:17.042933 12626 net.cpp:141] Setting up data
I0403 14:04:17.042991 12626 net.cpp:148] Top shape: 100 3 227 227 (15458700)
I0403 14:04:17.043015 12626 net.cpp:148] Top shape: 100 (100)
I0403 14:04:17.043031 12626 net.cpp:156] Memory required for data: 61835200
I0403 14:04:17.043061 12626 layer_factory.hpp:77] Creating layer label_data_1_split
I0403 14:04:17.043084 12626 net.cpp:91] Creating Layer label_data_1_split
I0403 14:04:17.043102 12626 net.cpp:425] label_data_1_split <- label
I0403 14:04:17.043134 12626 net.cpp:399] label_data_1_split -> label_data_1_split_0
I0403 14:04:17.043161 12626 net.cpp:399] label_data_1_split -> label_data_1_split_1
I0403 14:04:17.043181 12626 net.cpp:399] label_data_1_split -> label_data_1_split_2
I0403 14:04:17.043241 12626 net.cpp:141] Setting up label_data_1_split
I0403 14:04:17.043265 12626 net.cpp:148] Top shape: 100 (100)
I0403 14:04:17.043282 12626 net.cpp:148] Top shape: 100 (100)
I0403 14:04:17.043297 12626 net.cpp:148] Top shape: 100 (100)
I0403 14:04:17.043309 12626 net.cpp:156] Memory required for data: 61836400
I0403 14:04:17.043324 12626 layer_factory.hpp:77] Creating layer conv1
I0403 14:04:17.043355 12626 net.cpp:91] Creating Layer conv1
I0403 14:04:17.043373 12626 net.cpp:425] conv1 <- data
I0403 14:04:17.043391 12626 net.cpp:399] conv1 -> conv1
I0403 14:04:17.180598 12626 net.cpp:141] Setting up conv1
I0403 14:04:17.180680 12626 net.cpp:148] Top shape: 100 96 55 55 (29040000)
I0403 14:04:17.180697 12626 net.cpp:156] Memory required for data: 177996400
I0403 14:04:17.180728 12626 layer_factory.hpp:77] Creating layer relu1
I0403 14:04:17.180757 12626 net.cpp:91] Creating Layer relu1
I0403 14:04:17.180774 12626 net.cpp:425] relu1 <- conv1
I0403 14:04:17.180794 12626 net.cpp:386] relu1 -> conv1 (in-place)
I0403 14:04:17.181067 12626 net.cpp:141] Setting up relu1
I0403 14:04:17.181097 12626 net.cpp:148] Top shape: 100 96 55 55 (29040000)
I0403 14:04:17.181151 12626 net.cpp:156] Memory required for data: 294156400
I0403 14:04:17.181169 12626 layer_factory.hpp:77] Creating layer norm1
I0403 14:04:17.181195 12626 net.cpp:91] Creating Layer norm1
I0403 14:04:17.181213 12626 net.cpp:425] norm1 <- conv1
I0403 14:04:17.181234 12626 net.cpp:399] norm1 -> norm1
I0403 14:04:17.181565 12626 net.cpp:141] Setting up norm1
I0403 14:04:17.181596 12626 net.cpp:148] Top shape: 100 96 55 55 (29040000)
I0403 14:04:17.181612 12626 net.cpp:156] Memory required for data: 410316400
I0403 14:04:17.181628 12626 layer_factory.hpp:77] Creating layer pool1
I0403 14:04:17.181650 12626 net.cpp:91] Creating Layer pool1
I0403 14:04:17.181668 12626 net.cpp:425] pool1 <- norm1
I0403 14:04:17.181689 12626 net.cpp:399] pool1 -> pool1
I0403 14:04:17.181762 12626 net.cpp:141] Setting up pool1
I0403 14:04:17.181787 12626 net.cpp:148] Top shape: 100 96 27 27 (6998400)
I0403 14:04:17.181802 12626 net.cpp:156] Memory required for data: 438310000
I0403 14:04:17.181816 12626 layer_factory.hpp:77] Creating layer conv2
I0403 14:04:17.181845 12626 net.cpp:91] Creating Layer conv2
I0403 14:04:17.181862 12626 net.cpp:425] conv2 <- pool1
I0403 14:04:17.181881 12626 net.cpp:399] conv2 -> conv2
I0403 14:04:17.196900 12626 net.cpp:141] Setting up conv2
I0403 14:04:17.196952 12626 net.cpp:148] Top shape: 100 256 27 27 (18662400)
I0403 14:04:17.196969 12626 net.cpp:156] Memory required for data: 512959600
I0403 14:04:17.196991 12626 layer_factory.hpp:77] Creating layer relu2
I0403 14:04:17.197015 12626 net.cpp:91] Creating Layer relu2
I0403 14:04:17.197032 12626 net.cpp:425] relu2 <- conv2
I0403 14:04:17.197051 12626 net.cpp:386] relu2 -> conv2 (in-place)
I0403 14:04:17.197329 12626 net.cpp:141] Setting up relu2
I0403 14:04:17.197357 12626 net.cpp:148] Top shape: 100 256 27 27 (18662400)
I0403 14:04:17.197372 12626 net.cpp:156] Memory required for data: 587609200
I0403 14:04:17.197388 12626 layer_factory.hpp:77] Creating layer norm2
I0403 14:04:17.197412 12626 net.cpp:91] Creating Layer norm2
I0403 14:04:17.197428 12626 net.cpp:425] norm2 <- conv2
I0403 14:04:17.197449 12626 net.cpp:399] norm2 -> norm2
I0403 14:04:17.197659 12626 net.cpp:141] Setting up norm2
I0403 14:04:17.197685 12626 net.cpp:148] Top shape: 100 256 27 27 (18662400)
I0403 14:04:17.197700 12626 net.cpp:156] Memory required for data: 662258800
I0403 14:04:17.197715 12626 layer_factory.hpp:77] Creating layer pool2
I0403 14:04:17.197732 12626 net.cpp:91] Creating Layer pool2
I0403 14:04:17.197748 12626 net.cpp:425] pool2 <- norm2
I0403 14:04:17.197769 12626 net.cpp:399] pool2 -> pool2
I0403 14:04:17.197824 12626 net.cpp:141] Setting up pool2
I0403 14:04:17.197846 12626 net.cpp:148] Top shape: 100 256 13 13 (4326400)
I0403 14:04:17.197861 12626 net.cpp:156] Memory required for data: 679564400
I0403 14:04:17.197876 12626 layer_factory.hpp:77] Creating layer conv3
I0403 14:04:17.197901 12626 net.cpp:91] Creating Layer conv3
I0403 14:04:17.197918 12626 net.cpp:425] conv3 <- pool2
I0403 14:04:17.197939 12626 net.cpp:399] conv3 -> conv3
I0403 14:04:17.235430 12626 net.cpp:141] Setting up conv3
I0403 14:04:17.235483 12626 net.cpp:148] Top shape: 100 384 13 13 (6489600)
I0403 14:04:17.235502 12626 net.cpp:156] Memory required for data: 705522800
I0403 14:04:17.235525 12626 layer_factory.hpp:77] Creating layer relu3
I0403 14:04:17.235546 12626 net.cpp:91] Creating Layer relu3
I0403 14:04:17.235563 12626 net.cpp:425] relu3 <- conv3
I0403 14:04:17.235589 12626 net.cpp:386] relu3 -> conv3 (in-place)
I0403 14:04:17.235868 12626 net.cpp:141] Setting up relu3
I0403 14:04:17.235895 12626 net.cpp:148] Top shape: 100 384 13 13 (6489600)
I0403 14:04:17.235910 12626 net.cpp:156] Memory required for data: 731481200
I0403 14:04:17.235925 12626 layer_factory.hpp:77] Creating layer conv4
I0403 14:04:17.235949 12626 net.cpp:91] Creating Layer conv4
I0403 14:04:17.235966 12626 net.cpp:425] conv4 <- conv3
I0403 14:04:17.235988 12626 net.cpp:399] conv4 -> conv4
I0403 14:04:17.271337 12626 net.cpp:141] Setting up conv4
I0403 14:04:17.271399 12626 net.cpp:148] Top shape: 100 384 13 13 (6489600)
I0403 14:04:17.271456 12626 net.cpp:156] Memory required for data: 757439600
I0403 14:04:17.271481 12626 layer_factory.hpp:77] Creating layer relu4
I0403 14:04:17.271502 12626 net.cpp:91] Creating Layer relu4
I0403 14:04:17.271520 12626 net.cpp:425] relu4 <- conv4
I0403 14:04:17.271543 12626 net.cpp:386] relu4 -> conv4 (in-place)
I0403 14:04:17.271831 12626 net.cpp:141] Setting up relu4
I0403 14:04:17.271859 12626 net.cpp:148] Top shape: 100 384 13 13 (6489600)
I0403 14:04:17.271875 12626 net.cpp:156] Memory required for data: 783398000
I0403 14:04:17.271890 12626 layer_factory.hpp:77] Creating layer conv5
I0403 14:04:17.271917 12626 net.cpp:91] Creating Layer conv5
I0403 14:04:17.271944 12626 net.cpp:425] conv5 <- conv4
I0403 14:04:17.271966 12626 net.cpp:399] conv5 -> conv5
I0403 14:04:17.292464 12626 net.cpp:141] Setting up conv5
I0403 14:04:17.292505 12626 net.cpp:148] Top shape: 100 256 13 13 (4326400)
I0403 14:04:17.292523 12626 net.cpp:156] Memory required for data: 800703600
I0403 14:04:17.292548 12626 layer_factory.hpp:77] Creating layer relu5
I0403 14:04:17.292578 12626 net.cpp:91] Creating Layer relu5
I0403 14:04:17.292598 12626 net.cpp:425] relu5 <- conv5
I0403 14:04:17.292618 12626 net.cpp:386] relu5 -> conv5 (in-place)
I0403 14:04:17.292898 12626 net.cpp:141] Setting up relu5
I0403 14:04:17.292927 12626 net.cpp:148] Top shape: 100 256 13 13 (4326400)
I0403 14:04:17.292942 12626 net.cpp:156] Memory required for data: 818009200
I0403 14:04:17.292956 12626 layer_factory.hpp:77] Creating layer pool5
I0403 14:04:17.292982 12626 net.cpp:91] Creating Layer pool5
I0403 14:04:17.292999 12626 net.cpp:425] pool5 <- conv5
I0403 14:04:17.293020 12626 net.cpp:399] pool5 -> pool5
I0403 14:04:17.293079 12626 net.cpp:141] Setting up pool5
I0403 14:04:17.293104 12626 net.cpp:148] Top shape: 100 256 6 6 (921600)
I0403 14:04:17.293118 12626 net.cpp:156] Memory required for data: 821695600
I0403 14:04:17.293133 12626 layer_factory.hpp:77] Creating layer fc6
I0403 14:04:17.293160 12626 net.cpp:91] Creating Layer fc6
I0403 14:04:17.293179 12626 net.cpp:425] fc6 <- pool5
I0403 14:04:17.293200 12626 net.cpp:399] fc6 -> fc6
I0403 14:04:18.832185 12626 net.cpp:141] Setting up fc6
I0403 14:04:18.832231 12626 net.cpp:148] Top shape: 100 4096 (409600)
I0403 14:04:18.832248 12626 net.cpp:156] Memory required for data: 823334000
I0403 14:04:18.832273 12626 layer_factory.hpp:77] Creating layer relu6
I0403 14:04:18.832294 12626 net.cpp:91] Creating Layer relu6
I0403 14:04:18.832314 12626 net.cpp:425] relu6 <- fc6
I0403 14:04:18.832334 12626 net.cpp:386] relu6 -> fc6 (in-place)
I0403 14:04:18.832553 12626 net.cpp:141] Setting up relu6
I0403 14:04:18.832583 12626 net.cpp:148] Top shape: 100 4096 (409600)
I0403 14:04:18.832599 12626 net.cpp:156] Memory required for data: 824972400
I0403 14:04:18.832615 12626 layer_factory.hpp:77] Creating layer drop6
I0403 14:04:18.832633 12626 net.cpp:91] Creating Layer drop6
I0403 14:04:18.832649 12626 net.cpp:425] drop6 <- fc6
I0403 14:04:18.832669 12626 net.cpp:386] drop6 -> fc6 (in-place)
I0403 14:04:18.832721 12626 net.cpp:141] Setting up drop6
I0403 14:04:18.832746 12626 net.cpp:148] Top shape: 100 4096 (409600)
I0403 14:04:18.832763 12626 net.cpp:156] Memory required for data: 826610800
I0403 14:04:18.832778 12626 layer_factory.hpp:77] Creating layer fc7
I0403 14:04:18.832798 12626 net.cpp:91] Creating Layer fc7
I0403 14:04:18.832814 12626 net.cpp:425] fc7 <- fc6
I0403 14:04:18.832835 12626 net.cpp:399] fc7 -> fc7
I0403 14:04:19.509390 12626 net.cpp:141] Setting up fc7
I0403 14:04:19.509433 12626 net.cpp:148] Top shape: 100 4096 (409600)
I0403 14:04:19.509449 12626 net.cpp:156] Memory required for data: 828249200
I0403 14:04:19.509469 12626 layer_factory.hpp:77] Creating layer relu7
I0403 14:04:19.509491 12626 net.cpp:91] Creating Layer relu7
I0403 14:04:19.509508 12626 net.cpp:425] relu7 <- fc7
I0403 14:04:19.509531 12626 net.cpp:386] relu7 -> fc7 (in-place)
I0403 14:04:19.509927 12626 net.cpp:141] Setting up relu7
I0403 14:04:19.509951 12626 net.cpp:148] Top shape: 100 4096 (409600)
I0403 14:04:19.509984 12626 net.cpp:156] Memory required for data: 829887600
I0403 14:04:19.509999 12626 layer_factory.hpp:77] Creating layer drop7
I0403 14:04:19.510016 12626 net.cpp:91] Creating Layer drop7
I0403 14:04:19.510032 12626 net.cpp:425] drop7 <- fc7
I0403 14:04:19.510051 12626 net.cpp:386] drop7 -> fc7 (in-place)
I0403 14:04:19.510094 12626 net.cpp:141] Setting up drop7
I0403 14:04:19.510118 12626 net.cpp:148] Top shape: 100 4096 (409600)
I0403 14:04:19.510133 12626 net.cpp:156] Memory required for data: 831526000
I0403 14:04:19.510148 12626 layer_factory.hpp:77] Creating layer fc8_plantvillage
I0403 14:04:19.510165 12626 net.cpp:91] Creating Layer fc8_plantvillage
I0403 14:04:19.510180 12626 net.cpp:425] fc8_plantvillage <- fc7
I0403 14:04:19.510201 12626 net.cpp:399] fc8_plantvillage -> fc8_plantvillage
I0403 14:04:19.516726 12626 net.cpp:141] Setting up fc8_plantvillage
I0403 14:04:19.516754 12626 net.cpp:148] Top shape: 100 38 (3800)
I0403 14:04:19.516770 12626 net.cpp:156] Memory required for data: 831541200
I0403 14:04:19.516788 12626 layer_factory.hpp:77] Creating layer fc8_plantvillage_fc8_plantvillage_0_split
I0403 14:04:19.516810 12626 net.cpp:91] Creating Layer fc8_plantvillage_fc8_plantvillage_0_split
I0403 14:04:19.516827 12626 net.cpp:425] fc8_plantvillage_fc8_plantvillage_0_split <- fc8_plantvillage
I0403 14:04:19.516845 12626 net.cpp:399] fc8_plantvillage_fc8_plantvillage_0_split -> fc8_plantvillage_fc8_plantvillage_0_split_0
I0403 14:04:19.516865 12626 net.cpp:399] fc8_plantvillage_fc8_plantvillage_0_split -> fc8_plantvillage_fc8_plantvillage_0_split_1
I0403 14:04:19.516885 12626 net.cpp:399] fc8_plantvillage_fc8_plantvillage_0_split -> fc8_plantvillage_fc8_plantvillage_0_split_2
I0403 14:04:19.516960 12626 net.cpp:141] Setting up fc8_plantvillage_fc8_plantvillage_0_split
I0403 14:04:19.516983 12626 net.cpp:148] Top shape: 100 38 (3800)
I0403 14:04:19.516999 12626 net.cpp:148] Top shape: 100 38 (3800)
I0403 14:04:19.517014 12626 net.cpp:148] Top shape: 100 38 (3800)
I0403 14:04:19.517027 12626 net.cpp:156] Memory required for data: 831586800
I0403 14:04:19.517041 12626 layer_factory.hpp:77] Creating layer prob
I0403 14:04:19.517060 12626 net.cpp:91] Creating Layer prob
I0403 14:04:19.517073 12626 net.cpp:425] prob <- fc8_plantvillage_fc8_plantvillage_0_split_0
I0403 14:04:19.517091 12626 net.cpp:399] prob -> prob
I0403 14:04:19.517307 12626 net.cpp:141] Setting up prob
I0403 14:04:19.517331 12626 net.cpp:148] Top shape: 100 38 (3800)
I0403 14:04:19.517345 12626 net.cpp:156] Memory required for data: 831602000
I0403 14:04:19.517359 12626 layer_factory.hpp:77] Creating layer hdf5out
I0403 14:04:19.517377 12626 net.cpp:91] Creating Layer hdf5out
I0403 14:04:19.517392 12626 net.cpp:425] hdf5out <- prob
I0403 14:04:19.517408 12626 net.cpp:425] hdf5out <- label_data_1_split_0
I0403 14:04:19.519712 12626 net.cpp:141] Setting up hdf5out
…
