…
I0403 14:13:05.876668 12924 net.cpp:313] The NetState phase (1) differed from the phase (0) specified by a rule in layer data
I0403 14:13:05.876960 12924 net.cpp:49] Initializing net from parameters: 
state {
  phase: TEST
}
layer {
  name: "data"
  type: "Data"
  top: "data"
  top: "label"
  include {
    phase: TEST
  }
  transform_param {
    crop_size: 227
    mean_file: "/home/mohanty/data/final_dataset/lmdb/grayscale-80-20/mean.binaryproto"
  }
  data_param {
    source: "/home/mohanty/data/final_dataset/lmdb/grayscale-80-20/test_db"
    batch_size: 100
    backend: LMDB
  }
}
layer {
  name: "conv1"
  type: "Convolution"
  bottom: "data"
  top: "conv1"
  param {
    lr_mult: 1
    decay_mult: 1
  }
  param {
    lr_mult: 2
    decay_mult: 0
  }
  convolution_param {
    num_output: 96
    kernel_size: 11
    stride: 4
    weight_filler {
      type: "gaussian"
      std: 0.01
    }
    bias_filler {
      type: "constant"
      value: 0
    }
  }
}
layer {
  name: "relu1"
  type: "ReLU"
  bottom: "conv1"
  top: "conv1"
}
layer {
  name: "norm1"
  type: "LRN"
  bottom: "conv1"
  top: "norm1"
  lrn_param {
    local_size: 5
    alpha: 0.0001
    beta: 0.75
  }
}
layer {
  name: "pool1"
  type: "Pooling"
  bottom: "norm1"
  top: "pool1"
  pooling_param {
    pool: MAX
    kernel_size: 3
    stride: 2
  }
}
layer {
  name: "conv2"
  type: "Convolution"
  bottom: "pool1"
  top: "conv2"
  param {
    lr_mult: 1
    decay_mult: 1
  }
  param {
    lr_mult: 2
    decay_mult: 0
  }
  convolution_param {
    num_output: 256
    pad: 2
    kernel_size: 5
    group: 2
    weight_filler {
      type: "gaussian"
      std: 0.01
    }
    bias_filler {
      type: "constant"
      value: 0.1
    }
  }
}
layer {
  name: "relu2"
  type: "ReLU"
  bottom: "conv2"
  top: "conv2"
}
layer {
  name: "norm2"
  type: "LRN"
  bottom: "conv2"
  top: "norm2"
  lrn_param {
    local_size: 5
    alpha: 0.0001
    beta: 0.75
  }
}
layer {
  name: "pool2"
  type: "Pooling"
  bottom: "norm2"
  top: "pool2"
  pooling_param {
    pool: MAX
    kernel_size: 3
    stride: 2
  }
}
layer {
  name: "conv3"
  type: "Convolution"
  bottom: "pool2"
  top: "conv3"
  param {
    lr_mult: 1
    decay_mult: 1
  }
  param {
    lr_mult: 2
    decay_mult: 0
  }
  convolution_param {
    num_output: 384
    pad: 1
    kernel_size: 3
    weight_filler {
      type: "gaussian"
      std: 0.01
    }
    bias_filler {
      type: "constant"
      value: 0
    }
  }
}
layer {
  name: "relu3"
  type: "ReLU"
  bottom: "conv3"
  top: "conv3"
}
layer {
  name: "conv4"
  type: "Convolution"
  bottom: "conv3"
  top: "conv4"
  param {
    lr_mult: 1
    decay_mult: 1
  }
  param {
    lr_mult: 2
    decay_mult: 0
  }
  convolution_param {
    num_output: 384
    pad: 1
    kernel_size: 3
    group: 2
    weight_filler {
      type: "gaussian"
      std: 0.01
    }
    bias_filler {
      type: "constant"
      value: 0.1
    }
  }
}
layer {
  name: "relu4"
  type: "ReLU"
  bottom: "conv4"
  top: "conv4"
}
layer {
  name: "conv5"
  type: "Convolution"
  bottom: "conv4"
  top: "conv5"
  param {
    lr_mult: 1
    decay_mult: 1
  }
  param {
    lr_mult: 2
    decay_mult: 0
  }
  convolution_param {
    num_output: 256
    pad: 1
    kernel_size: 3
    group: 2
    weight_filler {
      type: "gaussian"
      std: 0.01
    }
    bias_filler {
      type: "constant"
      value: 0.1
    }
  }
}
layer {
  name: "relu5"
  type: "ReLU"
  bottom: "conv5"
  top: "conv5"
}
layer {
  name: "pool5"
  type: "Pooling"
  bottom: "conv5"
  top: "pool5"
  pooling_param {
    pool: MAX
    kernel_size: 3
    stride: 2
  }
}
layer {
  name: "fc6"
  type: "InnerProduct"
  bottom: "pool5"
  top: "fc6"
  param {
    lr_mult: 1
    decay_mult: 1
  }
  param {
    lr_mult: 2
    decay_mult: 0
  }
  inner_product_param {
    num_output: 4096
    weight_filler {
      type: "gaussian"
      std: 0.005
    }
    bias_filler {
      type: "constant"
      value: 0.1
    }
  }
}
layer {
  name: "relu6"
  type: "ReLU"
  bottom: "fc6"
  top: "fc6"
}
layer {
  name: "drop6"
  type: "Dropout"
  bottom: "fc6"
  top: "fc6"
  dropout_param {
    dropout_ratio: 0.5
  }
}
layer {
  name: "fc7"
  type: "InnerProduct"
  bottom: "fc6"
  top: "fc7"
  param {
    lr_mult: 1
    decay_mult: 1
  }
  param {
    lr_mult: 2
    decay_mult: 0
  }
  inner_product_param {
    num_output: 4096
    weight_filler {
      type: "gaussian"
      std: 0.005
    }
    bias_filler {
      type: "constant"
      value: 0.1
    }
  }
}
layer {
  name: "relu7"
  type: "ReLU"
  bottom: "fc7"
  top: "fc7"
}
layer {
  name: "drop7"
  type: "Dropout"
  bottom: "fc7"
  top: "fc7"
  dropout_param {
    dropout_ratio: 0.5
  }
}
layer {
  name: "fc8_plantvillage"
  type: "InnerProduct"
  bottom: "fc7"
  top: "fc8_plantvillage"
  param {
    lr_mult: 1
    decay_mult: 1
  }
  param {
    lr_mult: 2
    decay_mult: 0
  }
  inner_product_param {
    num_output: 38
    weight_filler {
      type: "gaussian"
      std: 0.01
    }
    bias_filler {
      type: "constant"
      value: 0
    }
  }
}
layer {
  name: "prob"
  type: "Softmax"
  bottom: "fc8_plantvillage"
  top: "prob"
  include {
    phase: TEST
  }
}
layer {
  name: "hdf5out"
  type: "HDF5Output"
  bottom: "prob"
  bottom: "label"
  include {
    phase: TEST
  }
  hdf5_output_param {
    file_name: "hdf5_dumps/iter_13080.h5"
  }
}
layer {
  name: "loss"
  type: "SoftmaxWithLoss"
  bottom: "fc8_plantvillage"
  bottom: "label"
  top: "loss"
}
layer {
  name: "accuracy"
  type: "Accuracy"
  bottom: "fc8_plantvillage"
  bottom: "label"
  top: "accuracy"
  include {
    phase: TEST
  }
}
I0403 14:13:05.877555 12924 layer_factory.hpp:77] Creating layer data
I0403 14:13:05.878217 12924 net.cpp:91] Creating Layer data
I0403 14:13:05.878247 12924 net.cpp:399] data -> data
I0403 14:13:05.878299 12924 net.cpp:399] data -> label
I0403 14:13:05.878336 12924 data_transformer.cpp:25] Loading mean file from: /home/mohanty/data/final_dataset/lmdb/grayscale-80-20/mean.binaryproto
I0403 14:13:05.881762 12927 db_lmdb.cpp:38] Opened lmdb /home/mohanty/data/final_dataset/lmdb/grayscale-80-20/test_db
I0403 14:13:05.892696 12924 data_layer.cpp:41] output data size: 100,3,227,227
I0403 14:13:06.014860 12924 net.cpp:141] Setting up data
I0403 14:13:06.014957 12924 net.cpp:148] Top shape: 100 3 227 227 (15458700)
I0403 14:13:06.014981 12924 net.cpp:148] Top shape: 100 (100)
I0403 14:13:06.014997 12924 net.cpp:156] Memory required for data: 61835200
I0403 14:13:06.015027 12924 layer_factory.hpp:77] Creating layer label_data_1_split
I0403 14:13:06.015053 12924 net.cpp:91] Creating Layer label_data_1_split
I0403 14:13:06.015071 12924 net.cpp:425] label_data_1_split <- label
I0403 14:13:06.015105 12924 net.cpp:399] label_data_1_split -> label_data_1_split_0
I0403 14:13:06.015133 12924 net.cpp:399] label_data_1_split -> label_data_1_split_1
I0403 14:13:06.015156 12924 net.cpp:399] label_data_1_split -> label_data_1_split_2
I0403 14:13:06.015223 12924 net.cpp:141] Setting up label_data_1_split
I0403 14:13:06.015246 12924 net.cpp:148] Top shape: 100 (100)
I0403 14:13:06.015264 12924 net.cpp:148] Top shape: 100 (100)
I0403 14:13:06.015282 12924 net.cpp:148] Top shape: 100 (100)
I0403 14:13:06.015300 12924 net.cpp:156] Memory required for data: 61836400
I0403 14:13:06.015314 12924 layer_factory.hpp:77] Creating layer conv1
I0403 14:13:06.015348 12924 net.cpp:91] Creating Layer conv1
I0403 14:13:06.015367 12924 net.cpp:425] conv1 <- data
I0403 14:13:06.015388 12924 net.cpp:399] conv1 -> conv1
I0403 14:13:06.157918 12924 net.cpp:141] Setting up conv1
I0403 14:13:06.157990 12924 net.cpp:148] Top shape: 100 96 55 55 (29040000)
I0403 14:13:06.158007 12924 net.cpp:156] Memory required for data: 177996400
I0403 14:13:06.158040 12924 layer_factory.hpp:77] Creating layer relu1
I0403 14:13:06.158066 12924 net.cpp:91] Creating Layer relu1
I0403 14:13:06.158084 12924 net.cpp:425] relu1 <- conv1
I0403 14:13:06.158103 12924 net.cpp:386] relu1 -> conv1 (in-place)
I0403 14:13:06.158352 12924 net.cpp:141] Setting up relu1
I0403 14:13:06.158380 12924 net.cpp:148] Top shape: 100 96 55 55 (29040000)
I0403 14:13:06.158427 12924 net.cpp:156] Memory required for data: 294156400
I0403 14:13:06.158443 12924 layer_factory.hpp:77] Creating layer norm1
I0403 14:13:06.158470 12924 net.cpp:91] Creating Layer norm1
I0403 14:13:06.158488 12924 net.cpp:425] norm1 <- conv1
I0403 14:13:06.158505 12924 net.cpp:399] norm1 -> norm1
I0403 14:13:06.158829 12924 net.cpp:141] Setting up norm1
I0403 14:13:06.158857 12924 net.cpp:148] Top shape: 100 96 55 55 (29040000)
I0403 14:13:06.158874 12924 net.cpp:156] Memory required for data: 410316400
I0403 14:13:06.158890 12924 layer_factory.hpp:77] Creating layer pool1
I0403 14:13:06.158913 12924 net.cpp:91] Creating Layer pool1
I0403 14:13:06.158931 12924 net.cpp:425] pool1 <- norm1
I0403 14:13:06.158949 12924 net.cpp:399] pool1 -> pool1
I0403 14:13:06.159016 12924 net.cpp:141] Setting up pool1
I0403 14:13:06.159040 12924 net.cpp:148] Top shape: 100 96 27 27 (6998400)
I0403 14:13:06.159055 12924 net.cpp:156] Memory required for data: 438310000
I0403 14:13:06.159070 12924 layer_factory.hpp:77] Creating layer conv2
I0403 14:13:06.159095 12924 net.cpp:91] Creating Layer conv2
I0403 14:13:06.159111 12924 net.cpp:425] conv2 <- pool1
I0403 14:13:06.159129 12924 net.cpp:399] conv2 -> conv2
I0403 14:13:06.174059 12924 net.cpp:141] Setting up conv2
I0403 14:13:06.174098 12924 net.cpp:148] Top shape: 100 256 27 27 (18662400)
I0403 14:13:06.174118 12924 net.cpp:156] Memory required for data: 512959600
I0403 14:13:06.174140 12924 layer_factory.hpp:77] Creating layer relu2
I0403 14:13:06.174161 12924 net.cpp:91] Creating Layer relu2
I0403 14:13:06.174177 12924 net.cpp:425] relu2 <- conv2
I0403 14:13:06.174197 12924 net.cpp:386] relu2 -> conv2 (in-place)
I0403 14:13:06.174482 12924 net.cpp:141] Setting up relu2
I0403 14:13:06.174510 12924 net.cpp:148] Top shape: 100 256 27 27 (18662400)
I0403 14:13:06.174525 12924 net.cpp:156] Memory required for data: 587609200
I0403 14:13:06.174540 12924 layer_factory.hpp:77] Creating layer norm2
I0403 14:13:06.174563 12924 net.cpp:91] Creating Layer norm2
I0403 14:13:06.174582 12924 net.cpp:425] norm2 <- conv2
I0403 14:13:06.174610 12924 net.cpp:399] norm2 -> norm2
I0403 14:13:06.174813 12924 net.cpp:141] Setting up norm2
I0403 14:13:06.174840 12924 net.cpp:148] Top shape: 100 256 27 27 (18662400)
I0403 14:13:06.174857 12924 net.cpp:156] Memory required for data: 662258800
I0403 14:13:06.174872 12924 layer_factory.hpp:77] Creating layer pool2
I0403 14:13:06.174890 12924 net.cpp:91] Creating Layer pool2
I0403 14:13:06.174906 12924 net.cpp:425] pool2 <- norm2
I0403 14:13:06.174926 12924 net.cpp:399] pool2 -> pool2
I0403 14:13:06.174978 12924 net.cpp:141] Setting up pool2
I0403 14:13:06.175001 12924 net.cpp:148] Top shape: 100 256 13 13 (4326400)
I0403 14:13:06.175016 12924 net.cpp:156] Memory required for data: 679564400
I0403 14:13:06.175031 12924 layer_factory.hpp:77] Creating layer conv3
I0403 14:13:06.175055 12924 net.cpp:91] Creating Layer conv3
I0403 14:13:06.175071 12924 net.cpp:425] conv3 <- pool2
I0403 14:13:06.175091 12924 net.cpp:399] conv3 -> conv3
I0403 14:13:06.215320 12924 net.cpp:141] Setting up conv3
I0403 14:13:06.215389 12924 net.cpp:148] Top shape: 100 384 13 13 (6489600)
I0403 14:13:06.215406 12924 net.cpp:156] Memory required for data: 705522800
I0403 14:13:06.215432 12924 layer_factory.hpp:77] Creating layer relu3
I0403 14:13:06.215454 12924 net.cpp:91] Creating Layer relu3
I0403 14:13:06.215472 12924 net.cpp:425] relu3 <- conv3
I0403 14:13:06.215493 12924 net.cpp:386] relu3 -> conv3 (in-place)
I0403 14:13:06.215778 12924 net.cpp:141] Setting up relu3
I0403 14:13:06.215806 12924 net.cpp:148] Top shape: 100 384 13 13 (6489600)
I0403 14:13:06.215821 12924 net.cpp:156] Memory required for data: 731481200
I0403 14:13:06.215836 12924 layer_factory.hpp:77] Creating layer conv4
I0403 14:13:06.215862 12924 net.cpp:91] Creating Layer conv4
I0403 14:13:06.215880 12924 net.cpp:425] conv4 <- conv3
I0403 14:13:06.215903 12924 net.cpp:399] conv4 -> conv4
I0403 14:13:06.245296 12924 net.cpp:141] Setting up conv4
I0403 14:13:06.245337 12924 net.cpp:148] Top shape: 100 384 13 13 (6489600)
I0403 14:13:06.245388 12924 net.cpp:156] Memory required for data: 757439600
I0403 14:13:06.245409 12924 layer_factory.hpp:77] Creating layer relu4
I0403 14:13:06.245430 12924 net.cpp:91] Creating Layer relu4
I0403 14:13:06.245447 12924 net.cpp:425] relu4 <- conv4
I0403 14:13:06.245466 12924 net.cpp:386] relu4 -> conv4 (in-place)
I0403 14:13:06.245745 12924 net.cpp:141] Setting up relu4
I0403 14:13:06.245774 12924 net.cpp:148] Top shape: 100 384 13 13 (6489600)
I0403 14:13:06.245790 12924 net.cpp:156] Memory required for data: 783398000
I0403 14:13:06.245805 12924 layer_factory.hpp:77] Creating layer conv5
I0403 14:13:06.245831 12924 net.cpp:91] Creating Layer conv5
I0403 14:13:06.245849 12924 net.cpp:425] conv5 <- conv4
I0403 14:13:06.245867 12924 net.cpp:399] conv5 -> conv5
I0403 14:13:06.265664 12924 net.cpp:141] Setting up conv5
I0403 14:13:06.265700 12924 net.cpp:148] Top shape: 100 256 13 13 (4326400)
I0403 14:13:06.265717 12924 net.cpp:156] Memory required for data: 800703600
I0403 14:13:06.265740 12924 layer_factory.hpp:77] Creating layer relu5
I0403 14:13:06.265760 12924 net.cpp:91] Creating Layer relu5
I0403 14:13:06.265775 12924 net.cpp:425] relu5 <- conv5
I0403 14:13:06.265795 12924 net.cpp:386] relu5 -> conv5 (in-place)
I0403 14:13:06.266077 12924 net.cpp:141] Setting up relu5
I0403 14:13:06.266103 12924 net.cpp:148] Top shape: 100 256 13 13 (4326400)
I0403 14:13:06.266119 12924 net.cpp:156] Memory required for data: 818009200
I0403 14:13:06.266134 12924 layer_factory.hpp:77] Creating layer pool5
I0403 14:13:06.266158 12924 net.cpp:91] Creating Layer pool5
I0403 14:13:06.266175 12924 net.cpp:425] pool5 <- conv5
I0403 14:13:06.266192 12924 net.cpp:399] pool5 -> pool5
I0403 14:13:06.266252 12924 net.cpp:141] Setting up pool5
I0403 14:13:06.266276 12924 net.cpp:148] Top shape: 100 256 6 6 (921600)
I0403 14:13:06.266291 12924 net.cpp:156] Memory required for data: 821695600
I0403 14:13:06.266305 12924 layer_factory.hpp:77] Creating layer fc6
I0403 14:13:06.266330 12924 net.cpp:91] Creating Layer fc6
I0403 14:13:06.266348 12924 net.cpp:425] fc6 <- pool5
I0403 14:13:06.266368 12924 net.cpp:399] fc6 -> fc6
I0403 14:13:07.803575 12924 net.cpp:141] Setting up fc6
I0403 14:13:07.803624 12924 net.cpp:148] Top shape: 100 4096 (409600)
I0403 14:13:07.803642 12924 net.cpp:156] Memory required for data: 823334000
I0403 14:13:07.803663 12924 layer_factory.hpp:77] Creating layer relu6
I0403 14:13:07.803686 12924 net.cpp:91] Creating Layer relu6
I0403 14:13:07.803704 12924 net.cpp:425] relu6 <- fc6
I0403 14:13:07.803721 12924 net.cpp:386] relu6 -> fc6 (in-place)
I0403 14:13:07.803941 12924 net.cpp:141] Setting up relu6
I0403 14:13:07.803967 12924 net.cpp:148] Top shape: 100 4096 (409600)
I0403 14:13:07.803983 12924 net.cpp:156] Memory required for data: 824972400
I0403 14:13:07.803998 12924 layer_factory.hpp:77] Creating layer drop6
I0403 14:13:07.804018 12924 net.cpp:91] Creating Layer drop6
I0403 14:13:07.804033 12924 net.cpp:425] drop6 <- fc6
I0403 14:13:07.804051 12924 net.cpp:386] drop6 -> fc6 (in-place)
I0403 14:13:07.804100 12924 net.cpp:141] Setting up drop6
I0403 14:13:07.804122 12924 net.cpp:148] Top shape: 100 4096 (409600)
I0403 14:13:07.804137 12924 net.cpp:156] Memory required for data: 826610800
I0403 14:13:07.804152 12924 layer_factory.hpp:77] Creating layer fc7
I0403 14:13:07.804173 12924 net.cpp:91] Creating Layer fc7
I0403 14:13:07.804190 12924 net.cpp:425] fc7 <- fc6
I0403 14:13:07.804210 12924 net.cpp:399] fc7 -> fc7
I0403 14:13:08.479127 12924 net.cpp:141] Setting up fc7
I0403 14:13:08.479171 12924 net.cpp:148] Top shape: 100 4096 (409600)
I0403 14:13:08.479187 12924 net.cpp:156] Memory required for data: 828249200
I0403 14:13:08.479207 12924 layer_factory.hpp:77] Creating layer relu7
I0403 14:13:08.479228 12924 net.cpp:91] Creating Layer relu7
I0403 14:13:08.479245 12924 net.cpp:425] relu7 <- fc7
I0403 14:13:08.479264 12924 net.cpp:386] relu7 -> fc7 (in-place)
I0403 14:13:08.479674 12924 net.cpp:141] Setting up relu7
I0403 14:13:08.479701 12924 net.cpp:148] Top shape: 100 4096 (409600)
I0403 14:13:08.479738 12924 net.cpp:156] Memory required for data: 829887600
I0403 14:13:08.479754 12924 layer_factory.hpp:77] Creating layer drop7
I0403 14:13:08.479773 12924 net.cpp:91] Creating Layer drop7
I0403 14:13:08.479789 12924 net.cpp:425] drop7 <- fc7
I0403 14:13:08.479807 12924 net.cpp:386] drop7 -> fc7 (in-place)
I0403 14:13:08.479862 12924 net.cpp:141] Setting up drop7
I0403 14:13:08.479883 12924 net.cpp:148] Top shape: 100 4096 (409600)
I0403 14:13:08.479897 12924 net.cpp:156] Memory required for data: 831526000
I0403 14:13:08.479912 12924 layer_factory.hpp:77] Creating layer fc8_plantvillage
I0403 14:13:08.479933 12924 net.cpp:91] Creating Layer fc8_plantvillage
I0403 14:13:08.479949 12924 net.cpp:425] fc8_plantvillage <- fc7
I0403 14:13:08.479969 12924 net.cpp:399] fc8_plantvillage -> fc8_plantvillage
I0403 14:13:08.486477 12924 net.cpp:141] Setting up fc8_plantvillage
I0403 14:13:08.486505 12924 net.cpp:148] Top shape: 100 38 (3800)
I0403 14:13:08.486521 12924 net.cpp:156] Memory required for data: 831541200
I0403 14:13:08.486537 12924 layer_factory.hpp:77] Creating layer fc8_plantvillage_fc8_plantvillage_0_split
I0403 14:13:08.486555 12924 net.cpp:91] Creating Layer fc8_plantvillage_fc8_plantvillage_0_split
I0403 14:13:08.486569 12924 net.cpp:425] fc8_plantvillage_fc8_plantvillage_0_split <- fc8_plantvillage
I0403 14:13:08.486589 12924 net.cpp:399] fc8_plantvillage_fc8_plantvillage_0_split -> fc8_plantvillage_fc8_plantvillage_0_split_0
I0403 14:13:08.486613 12924 net.cpp:399] fc8_plantvillage_fc8_plantvillage_0_split -> fc8_plantvillage_fc8_plantvillage_0_split_1
I0403 14:13:08.486635 12924 net.cpp:399] fc8_plantvillage_fc8_plantvillage_0_split -> fc8_plantvillage_fc8_plantvillage_0_split_2
I0403 14:13:08.486711 12924 net.cpp:141] Setting up fc8_plantvillage_fc8_plantvillage_0_split
I0403 14:13:08.486737 12924 net.cpp:148] Top shape: 100 38 (3800)
I0403 14:13:08.486753 12924 net.cpp:148] Top shape: 100 38 (3800)
I0403 14:13:08.486768 12924 net.cpp:148] Top shape: 100 38 (3800)
I0403 14:13:08.486781 12924 net.cpp:156] Memory required for data: 831586800
I0403 14:13:08.486795 12924 layer_factory.hpp:77] Creating layer prob
I0403 14:13:08.486812 12924 net.cpp:91] Creating Layer prob
I0403 14:13:08.486829 12924 net.cpp:425] prob <- fc8_plantvillage_fc8_plantvillage_0_split_0
I0403 14:13:08.486845 12924 net.cpp:399] prob -> prob
I0403 14:13:08.487057 12924 net.cpp:141] Setting up prob
I0403 14:13:08.487083 12924 net.cpp:148] Top shape: 100 38 (3800)
I0403 14:13:08.487098 12924 net.cpp:156] Memory required for data: 831602000
I0403 14:13:08.487113 12924 layer_factory.hpp:77] Creating layer hdf5out
I0403 14:13:08.487131 12924 net.cpp:91] Creating Layer hdf5out
I0403 14:13:08.487146 12924 net.cpp:425] hdf5out <- prob
I0403 14:13:08.487162 12924 net.cpp:425] hdf5out <- label_data_1_split_0
I0403 14:13:08.489403 12924 net.cpp:141] Setting up hdf5out
…
