…
I0403 14:05:07.275663 12656 net.cpp:313] The NetState phase (1) differed from the phase (0) specified by a rule in layer data
I0403 14:05:07.275975 12656 net.cpp:49] Initializing net from parameters: 
state {
  phase: TEST
}
layer {
  name: "data"
  type: "Data"
  top: "data"
  top: "label"
  include {
    phase: TEST
  }
  transform_param {
    crop_size: 227
    mean_file: "/home/mohanty/data/final_dataset/lmdb/grayscale-80-20/mean.binaryproto"
  }
  data_param {
    source: "/home/mohanty/data/final_dataset/lmdb/grayscale-80-20/test_db"
    batch_size: 100
    backend: LMDB
  }
}
layer {
  name: "conv1"
  type: "Convolution"
  bottom: "data"
  top: "conv1"
  param {
    lr_mult: 1
    decay_mult: 1
  }
  param {
    lr_mult: 2
    decay_mult: 0
  }
  convolution_param {
    num_output: 96
    kernel_size: 11
    stride: 4
    weight_filler {
      type: "gaussian"
      std: 0.01
    }
    bias_filler {
      type: "constant"
      value: 0
    }
  }
}
layer {
  name: "relu1"
  type: "ReLU"
  bottom: "conv1"
  top: "conv1"
}
layer {
  name: "norm1"
  type: "LRN"
  bottom: "conv1"
  top: "norm1"
  lrn_param {
    local_size: 5
    alpha: 0.0001
    beta: 0.75
  }
}
layer {
  name: "pool1"
  type: "Pooling"
  bottom: "norm1"
  top: "pool1"
  pooling_param {
    pool: MAX
    kernel_size: 3
    stride: 2
  }
}
layer {
  name: "conv2"
  type: "Convolution"
  bottom: "pool1"
  top: "conv2"
  param {
    lr_mult: 1
    decay_mult: 1
  }
  param {
    lr_mult: 2
    decay_mult: 0
  }
  convolution_param {
    num_output: 256
    pad: 2
    kernel_size: 5
    group: 2
    weight_filler {
      type: "gaussian"
      std: 0.01
    }
    bias_filler {
      type: "constant"
      value: 0.1
    }
  }
}
layer {
  name: "relu2"
  type: "ReLU"
  bottom: "conv2"
  top: "conv2"
}
layer {
  name: "norm2"
  type: "LRN"
  bottom: "conv2"
  top: "norm2"
  lrn_param {
    local_size: 5
    alpha: 0.0001
    beta: 0.75
  }
}
layer {
  name: "pool2"
  type: "Pooling"
  bottom: "norm2"
  top: "pool2"
  pooling_param {
    pool: MAX
    kernel_size: 3
    stride: 2
  }
}
layer {
  name: "conv3"
  type: "Convolution"
  bottom: "pool2"
  top: "conv3"
  param {
    lr_mult: 1
    decay_mult: 1
  }
  param {
    lr_mult: 2
    decay_mult: 0
  }
  convolution_param {
    num_output: 384
    pad: 1
    kernel_size: 3
    weight_filler {
      type: "gaussian"
      std: 0.01
    }
    bias_filler {
      type: "constant"
      value: 0
    }
  }
}
layer {
  name: "relu3"
  type: "ReLU"
  bottom: "conv3"
  top: "conv3"
}
layer {
  name: "conv4"
  type: "Convolution"
  bottom: "conv3"
  top: "conv4"
  param {
    lr_mult: 1
    decay_mult: 1
  }
  param {
    lr_mult: 2
    decay_mult: 0
  }
  convolution_param {
    num_output: 384
    pad: 1
    kernel_size: 3
    group: 2
    weight_filler {
      type: "gaussian"
      std: 0.01
    }
    bias_filler {
      type: "constant"
      value: 0.1
    }
  }
}
layer {
  name: "relu4"
  type: "ReLU"
  bottom: "conv4"
  top: "conv4"
}
layer {
  name: "conv5"
  type: "Convolution"
  bottom: "conv4"
  top: "conv5"
  param {
    lr_mult: 1
    decay_mult: 1
  }
  param {
    lr_mult: 2
    decay_mult: 0
  }
  convolution_param {
    num_output: 256
    pad: 1
    kernel_size: 3
    group: 2
    weight_filler {
      type: "gaussian"
      std: 0.01
    }
    bias_filler {
      type: "constant"
      value: 0.1
    }
  }
}
layer {
  name: "relu5"
  type: "ReLU"
  bottom: "conv5"
  top: "conv5"
}
layer {
  name: "pool5"
  type: "Pooling"
  bottom: "conv5"
  top: "pool5"
  pooling_param {
    pool: MAX
    kernel_size: 3
    stride: 2
  }
}
layer {
  name: "fc6"
  type: "InnerProduct"
  bottom: "pool5"
  top: "fc6"
  param {
    lr_mult: 1
    decay_mult: 1
  }
  param {
    lr_mult: 2
    decay_mult: 0
  }
  inner_product_param {
    num_output: 4096
    weight_filler {
      type: "gaussian"
      std: 0.005
    }
    bias_filler {
      type: "constant"
      value: 0.1
    }
  }
}
layer {
  name: "relu6"
  type: "ReLU"
  bottom: "fc6"
  top: "fc6"
}
layer {
  name: "drop6"
  type: "Dropout"
  bottom: "fc6"
  top: "fc6"
  dropout_param {
    dropout_ratio: 0.5
  }
}
layer {
  name: "fc7"
  type: "InnerProduct"
  bottom: "fc6"
  top: "fc7"
  param {
    lr_mult: 1
    decay_mult: 1
  }
  param {
    lr_mult: 2
    decay_mult: 0
  }
  inner_product_param {
    num_output: 4096
    weight_filler {
      type: "gaussian"
      std: 0.005
    }
    bias_filler {
      type: "constant"
      value: 0.1
    }
  }
}
layer {
  name: "relu7"
  type: "ReLU"
  bottom: "fc7"
  top: "fc7"
}
layer {
  name: "drop7"
  type: "Dropout"
  bottom: "fc7"
  top: "fc7"
  dropout_param {
    dropout_ratio: 0.5
  }
}
layer {
  name: "fc8_plantvillage"
  type: "InnerProduct"
  bottom: "fc7"
  top: "fc8_plantvillage"
  param {
    lr_mult: 1
    decay_mult: 1
  }
  param {
    lr_mult: 2
    decay_mult: 0
  }
  inner_product_param {
    num_output: 38
    weight_filler {
      type: "gaussian"
      std: 0.01
    }
    bias_filler {
      type: "constant"
      value: 0
    }
  }
}
layer {
  name: "prob"
  type: "Softmax"
  bottom: "fc8_plantvillage"
  top: "prob"
  include {
    phase: TEST
  }
}
layer {
  name: "hdf5out"
  type: "HDF5Output"
  bottom: "prob"
  bottom: "label"
  include {
    phase: TEST
  }
  hdf5_output_param {
    file_name: "hdf5_dumps/iter_4796.h5"
  }
}
layer {
  name: "loss"
  type: "SoftmaxWithLoss"
  bottom: "fc8_plantvillage"
  bottom: "label"
  top: "loss"
}
layer {
  name: "accuracy"
  type: "Accuracy"
  bottom: "fc8_plantvillage"
  bottom: "label"
  top: "accuracy"
  include {
    phase: TEST
  }
}
I0403 14:05:07.276545 12656 layer_factory.hpp:77] Creating layer data
I0403 14:05:07.277192 12656 net.cpp:91] Creating Layer data
I0403 14:05:07.277225 12656 net.cpp:399] data -> data
I0403 14:05:07.277277 12656 net.cpp:399] data -> label
I0403 14:05:07.277326 12656 data_transformer.cpp:25] Loading mean file from: /home/mohanty/data/final_dataset/lmdb/grayscale-80-20/mean.binaryproto
I0403 14:05:07.280351 12661 db_lmdb.cpp:38] Opened lmdb /home/mohanty/data/final_dataset/lmdb/grayscale-80-20/test_db
I0403 14:05:07.291955 12656 data_layer.cpp:41] output data size: 100,3,227,227
I0403 14:05:07.413146 12656 net.cpp:141] Setting up data
I0403 14:05:07.413235 12656 net.cpp:148] Top shape: 100 3 227 227 (15458700)
I0403 14:05:07.413259 12656 net.cpp:148] Top shape: 100 (100)
I0403 14:05:07.413274 12656 net.cpp:156] Memory required for data: 61835200
I0403 14:05:07.413301 12656 layer_factory.hpp:77] Creating layer label_data_1_split
I0403 14:05:07.413326 12656 net.cpp:91] Creating Layer label_data_1_split
I0403 14:05:07.413344 12656 net.cpp:425] label_data_1_split <- label
I0403 14:05:07.413377 12656 net.cpp:399] label_data_1_split -> label_data_1_split_0
I0403 14:05:07.413403 12656 net.cpp:399] label_data_1_split -> label_data_1_split_1
I0403 14:05:07.413424 12656 net.cpp:399] label_data_1_split -> label_data_1_split_2
I0403 14:05:07.413486 12656 net.cpp:141] Setting up label_data_1_split
I0403 14:05:07.413509 12656 net.cpp:148] Top shape: 100 (100)
I0403 14:05:07.413534 12656 net.cpp:148] Top shape: 100 (100)
I0403 14:05:07.413550 12656 net.cpp:148] Top shape: 100 (100)
I0403 14:05:07.413563 12656 net.cpp:156] Memory required for data: 61836400
I0403 14:05:07.413583 12656 layer_factory.hpp:77] Creating layer conv1
I0403 14:05:07.413614 12656 net.cpp:91] Creating Layer conv1
I0403 14:05:07.413632 12656 net.cpp:425] conv1 <- data
I0403 14:05:07.413651 12656 net.cpp:399] conv1 -> conv1
I0403 14:05:07.555426 12656 net.cpp:141] Setting up conv1
I0403 14:05:07.555470 12656 net.cpp:148] Top shape: 100 96 55 55 (29040000)
I0403 14:05:07.555488 12656 net.cpp:156] Memory required for data: 177996400
I0403 14:05:07.555519 12656 layer_factory.hpp:77] Creating layer relu1
I0403 14:05:07.555547 12656 net.cpp:91] Creating Layer relu1
I0403 14:05:07.555564 12656 net.cpp:425] relu1 <- conv1
I0403 14:05:07.555594 12656 net.cpp:386] relu1 -> conv1 (in-place)
I0403 14:05:07.555872 12656 net.cpp:141] Setting up relu1
I0403 14:05:07.555899 12656 net.cpp:148] Top shape: 100 96 55 55 (29040000)
I0403 14:05:07.555933 12656 net.cpp:156] Memory required for data: 294156400
I0403 14:05:07.555950 12656 layer_factory.hpp:77] Creating layer norm1
I0403 14:05:07.555980 12656 net.cpp:91] Creating Layer norm1
I0403 14:05:07.555999 12656 net.cpp:425] norm1 <- conv1
I0403 14:05:07.556017 12656 net.cpp:399] norm1 -> norm1
I0403 14:05:07.556346 12656 net.cpp:141] Setting up norm1
I0403 14:05:07.556375 12656 net.cpp:148] Top shape: 100 96 55 55 (29040000)
I0403 14:05:07.556390 12656 net.cpp:156] Memory required for data: 410316400
I0403 14:05:07.556404 12656 layer_factory.hpp:77] Creating layer pool1
I0403 14:05:07.556429 12656 net.cpp:91] Creating Layer pool1
I0403 14:05:07.556447 12656 net.cpp:425] pool1 <- norm1
I0403 14:05:07.556464 12656 net.cpp:399] pool1 -> pool1
I0403 14:05:07.556534 12656 net.cpp:141] Setting up pool1
I0403 14:05:07.556557 12656 net.cpp:148] Top shape: 100 96 27 27 (6998400)
I0403 14:05:07.556577 12656 net.cpp:156] Memory required for data: 438310000
I0403 14:05:07.556594 12656 layer_factory.hpp:77] Creating layer conv2
I0403 14:05:07.556622 12656 net.cpp:91] Creating Layer conv2
I0403 14:05:07.556641 12656 net.cpp:425] conv2 <- pool1
I0403 14:05:07.556663 12656 net.cpp:399] conv2 -> conv2
I0403 14:05:07.571353 12656 net.cpp:141] Setting up conv2
I0403 14:05:07.571388 12656 net.cpp:148] Top shape: 100 256 27 27 (18662400)
I0403 14:05:07.571404 12656 net.cpp:156] Memory required for data: 512959600
I0403 14:05:07.571424 12656 layer_factory.hpp:77] Creating layer relu2
I0403 14:05:07.571447 12656 net.cpp:91] Creating Layer relu2
I0403 14:05:07.571465 12656 net.cpp:425] relu2 <- conv2
I0403 14:05:07.571481 12656 net.cpp:386] relu2 -> conv2 (in-place)
I0403 14:05:07.571758 12656 net.cpp:141] Setting up relu2
I0403 14:05:07.571784 12656 net.cpp:148] Top shape: 100 256 27 27 (18662400)
I0403 14:05:07.571799 12656 net.cpp:156] Memory required for data: 587609200
I0403 14:05:07.571812 12656 layer_factory.hpp:77] Creating layer norm2
I0403 14:05:07.571835 12656 net.cpp:91] Creating Layer norm2
I0403 14:05:07.571851 12656 net.cpp:425] norm2 <- conv2
I0403 14:05:07.571872 12656 net.cpp:399] norm2 -> norm2
I0403 14:05:07.572065 12656 net.cpp:141] Setting up norm2
I0403 14:05:07.572090 12656 net.cpp:148] Top shape: 100 256 27 27 (18662400)
I0403 14:05:07.572104 12656 net.cpp:156] Memory required for data: 662258800
I0403 14:05:07.572119 12656 layer_factory.hpp:77] Creating layer pool2
I0403 14:05:07.572137 12656 net.cpp:91] Creating Layer pool2
I0403 14:05:07.572152 12656 net.cpp:425] pool2 <- norm2
I0403 14:05:07.572171 12656 net.cpp:399] pool2 -> pool2
I0403 14:05:07.572223 12656 net.cpp:141] Setting up pool2
I0403 14:05:07.572245 12656 net.cpp:148] Top shape: 100 256 13 13 (4326400)
I0403 14:05:07.572260 12656 net.cpp:156] Memory required for data: 679564400
I0403 14:05:07.572274 12656 layer_factory.hpp:77] Creating layer conv3
I0403 14:05:07.572296 12656 net.cpp:91] Creating Layer conv3
I0403 14:05:07.572312 12656 net.cpp:425] conv3 <- pool2
I0403 14:05:07.572332 12656 net.cpp:399] conv3 -> conv3
I0403 14:05:07.609854 12656 net.cpp:141] Setting up conv3
I0403 14:05:07.609910 12656 net.cpp:148] Top shape: 100 384 13 13 (6489600)
I0403 14:05:07.609926 12656 net.cpp:156] Memory required for data: 705522800
I0403 14:05:07.609951 12656 layer_factory.hpp:77] Creating layer relu3
I0403 14:05:07.609972 12656 net.cpp:91] Creating Layer relu3
I0403 14:05:07.609988 12656 net.cpp:425] relu3 <- conv3
I0403 14:05:07.610007 12656 net.cpp:386] relu3 -> conv3 (in-place)
I0403 14:05:07.610281 12656 net.cpp:141] Setting up relu3
I0403 14:05:07.610309 12656 net.cpp:148] Top shape: 100 384 13 13 (6489600)
I0403 14:05:07.610326 12656 net.cpp:156] Memory required for data: 731481200
I0403 14:05:07.610342 12656 layer_factory.hpp:77] Creating layer conv4
I0403 14:05:07.610368 12656 net.cpp:91] Creating Layer conv4
I0403 14:05:07.610385 12656 net.cpp:425] conv4 <- conv3
I0403 14:05:07.610406 12656 net.cpp:399] conv4 -> conv4
I0403 14:05:07.646498 12656 net.cpp:141] Setting up conv4
I0403 14:05:07.646538 12656 net.cpp:148] Top shape: 100 384 13 13 (6489600)
I0403 14:05:07.646597 12656 net.cpp:156] Memory required for data: 757439600
I0403 14:05:07.646621 12656 layer_factory.hpp:77] Creating layer relu4
I0403 14:05:07.646647 12656 net.cpp:91] Creating Layer relu4
I0403 14:05:07.646667 12656 net.cpp:425] relu4 <- conv4
I0403 14:05:07.646687 12656 net.cpp:386] relu4 -> conv4 (in-place)
I0403 14:05:07.646986 12656 net.cpp:141] Setting up relu4
I0403 14:05:07.647012 12656 net.cpp:148] Top shape: 100 384 13 13 (6489600)
I0403 14:05:07.647027 12656 net.cpp:156] Memory required for data: 783398000
I0403 14:05:07.647042 12656 layer_factory.hpp:77] Creating layer conv5
I0403 14:05:07.647066 12656 net.cpp:91] Creating Layer conv5
I0403 14:05:07.647083 12656 net.cpp:425] conv5 <- conv4
I0403 14:05:07.647105 12656 net.cpp:399] conv5 -> conv5
I0403 14:05:07.667091 12656 net.cpp:141] Setting up conv5
I0403 14:05:07.667125 12656 net.cpp:148] Top shape: 100 256 13 13 (4326400)
I0403 14:05:07.667141 12656 net.cpp:156] Memory required for data: 800703600
I0403 14:05:07.667165 12656 layer_factory.hpp:77] Creating layer relu5
I0403 14:05:07.667188 12656 net.cpp:91] Creating Layer relu5
I0403 14:05:07.667206 12656 net.cpp:425] relu5 <- conv5
I0403 14:05:07.667223 12656 net.cpp:386] relu5 -> conv5 (in-place)
I0403 14:05:07.667492 12656 net.cpp:141] Setting up relu5
I0403 14:05:07.667520 12656 net.cpp:148] Top shape: 100 256 13 13 (4326400)
I0403 14:05:07.667533 12656 net.cpp:156] Memory required for data: 818009200
I0403 14:05:07.667548 12656 layer_factory.hpp:77] Creating layer pool5
I0403 14:05:07.667577 12656 net.cpp:91] Creating Layer pool5
I0403 14:05:07.667600 12656 net.cpp:425] pool5 <- conv5
I0403 14:05:07.667620 12656 net.cpp:399] pool5 -> pool5
I0403 14:05:07.667680 12656 net.cpp:141] Setting up pool5
I0403 14:05:07.667704 12656 net.cpp:148] Top shape: 100 256 6 6 (921600)
I0403 14:05:07.667718 12656 net.cpp:156] Memory required for data: 821695600
I0403 14:05:07.667732 12656 layer_factory.hpp:77] Creating layer fc6
I0403 14:05:07.667759 12656 net.cpp:91] Creating Layer fc6
I0403 14:05:07.667778 12656 net.cpp:425] fc6 <- pool5
I0403 14:05:07.667794 12656 net.cpp:399] fc6 -> fc6
I0403 14:05:09.354194 12656 net.cpp:141] Setting up fc6
I0403 14:05:09.354238 12656 net.cpp:148] Top shape: 100 4096 (409600)
I0403 14:05:09.354254 12656 net.cpp:156] Memory required for data: 823334000
I0403 14:05:09.354274 12656 layer_factory.hpp:77] Creating layer relu6
I0403 14:05:09.354297 12656 net.cpp:91] Creating Layer relu6
I0403 14:05:09.354313 12656 net.cpp:425] relu6 <- fc6
I0403 14:05:09.354334 12656 net.cpp:386] relu6 -> fc6 (in-place)
I0403 14:05:09.354542 12656 net.cpp:141] Setting up relu6
I0403 14:05:09.354565 12656 net.cpp:148] Top shape: 100 4096 (409600)
I0403 14:05:09.354591 12656 net.cpp:156] Memory required for data: 824972400
I0403 14:05:09.354605 12656 layer_factory.hpp:77] Creating layer drop6
I0403 14:05:09.354622 12656 net.cpp:91] Creating Layer drop6
I0403 14:05:09.354636 12656 net.cpp:425] drop6 <- fc6
I0403 14:05:09.354655 12656 net.cpp:386] drop6 -> fc6 (in-place)
I0403 14:05:09.354708 12656 net.cpp:141] Setting up drop6
I0403 14:05:09.354732 12656 net.cpp:148] Top shape: 100 4096 (409600)
I0403 14:05:09.354744 12656 net.cpp:156] Memory required for data: 826610800
I0403 14:05:09.354758 12656 layer_factory.hpp:77] Creating layer fc7
I0403 14:05:09.354776 12656 net.cpp:91] Creating Layer fc7
I0403 14:05:09.354790 12656 net.cpp:425] fc7 <- fc6
I0403 14:05:09.354809 12656 net.cpp:399] fc7 -> fc7
I0403 14:05:10.098934 12656 net.cpp:141] Setting up fc7
I0403 14:05:10.098976 12656 net.cpp:148] Top shape: 100 4096 (409600)
I0403 14:05:10.098992 12656 net.cpp:156] Memory required for data: 828249200
I0403 14:05:10.099014 12656 layer_factory.hpp:77] Creating layer relu7
I0403 14:05:10.099037 12656 net.cpp:91] Creating Layer relu7
I0403 14:05:10.099056 12656 net.cpp:425] relu7 <- fc7
I0403 14:05:10.099074 12656 net.cpp:386] relu7 -> fc7 (in-place)
I0403 14:05:10.099473 12656 net.cpp:141] Setting up relu7
I0403 14:05:10.099499 12656 net.cpp:148] Top shape: 100 4096 (409600)
I0403 14:05:10.099534 12656 net.cpp:156] Memory required for data: 829887600
I0403 14:05:10.099550 12656 layer_factory.hpp:77] Creating layer drop7
I0403 14:05:10.099575 12656 net.cpp:91] Creating Layer drop7
I0403 14:05:10.099592 12656 net.cpp:425] drop7 <- fc7
I0403 14:05:10.099608 12656 net.cpp:386] drop7 -> fc7 (in-place)
I0403 14:05:10.099649 12656 net.cpp:141] Setting up drop7
I0403 14:05:10.099674 12656 net.cpp:148] Top shape: 100 4096 (409600)
I0403 14:05:10.099689 12656 net.cpp:156] Memory required for data: 831526000
I0403 14:05:10.099704 12656 layer_factory.hpp:77] Creating layer fc8_plantvillage
I0403 14:05:10.099722 12656 net.cpp:91] Creating Layer fc8_plantvillage
I0403 14:05:10.099738 12656 net.cpp:425] fc8_plantvillage <- fc7
I0403 14:05:10.099761 12656 net.cpp:399] fc8_plantvillage -> fc8_plantvillage
I0403 14:05:10.107151 12656 net.cpp:141] Setting up fc8_plantvillage
I0403 14:05:10.107179 12656 net.cpp:148] Top shape: 100 38 (3800)
I0403 14:05:10.107194 12656 net.cpp:156] Memory required for data: 831541200
I0403 14:05:10.107211 12656 layer_factory.hpp:77] Creating layer fc8_plantvillage_fc8_plantvillage_0_split
I0403 14:05:10.107233 12656 net.cpp:91] Creating Layer fc8_plantvillage_fc8_plantvillage_0_split
I0403 14:05:10.107249 12656 net.cpp:425] fc8_plantvillage_fc8_plantvillage_0_split <- fc8_plantvillage
I0403 14:05:10.107265 12656 net.cpp:399] fc8_plantvillage_fc8_plantvillage_0_split -> fc8_plantvillage_fc8_plantvillage_0_split_0
I0403 14:05:10.107285 12656 net.cpp:399] fc8_plantvillage_fc8_plantvillage_0_split -> fc8_plantvillage_fc8_plantvillage_0_split_1
I0403 14:05:10.107307 12656 net.cpp:399] fc8_plantvillage_fc8_plantvillage_0_split -> fc8_plantvillage_fc8_plantvillage_0_split_2
I0403 14:05:10.107386 12656 net.cpp:141] Setting up fc8_plantvillage_fc8_plantvillage_0_split
I0403 14:05:10.107409 12656 net.cpp:148] Top shape: 100 38 (3800)
I0403 14:05:10.107424 12656 net.cpp:148] Top shape: 100 38 (3800)
I0403 14:05:10.107439 12656 net.cpp:148] Top shape: 100 38 (3800)
I0403 14:05:10.107453 12656 net.cpp:156] Memory required for data: 831586800
I0403 14:05:10.107467 12656 layer_factory.hpp:77] Creating layer prob
I0403 14:05:10.107486 12656 net.cpp:91] Creating Layer prob
I0403 14:05:10.107499 12656 net.cpp:425] prob <- fc8_plantvillage_fc8_plantvillage_0_split_0
I0403 14:05:10.107519 12656 net.cpp:399] prob -> prob
I0403 14:05:10.107746 12656 net.cpp:141] Setting up prob
I0403 14:05:10.107772 12656 net.cpp:148] Top shape: 100 38 (3800)
I0403 14:05:10.107787 12656 net.cpp:156] Memory required for data: 831602000
I0403 14:05:10.107801 12656 layer_factory.hpp:77] Creating layer hdf5out
I0403 14:05:10.107821 12656 net.cpp:91] Creating Layer hdf5out
I0403 14:05:10.107838 12656 net.cpp:425] hdf5out <- prob
I0403 14:05:10.107854 12656 net.cpp:425] hdf5out <- label_data_1_split_0
I0403 14:05:10.110265 12656 net.cpp:141] Setting up hdf5out
…
