…
I0403 14:11:25.607761 12880 net.cpp:313] The NetState phase (1) differed from the phase (0) specified by a rule in layer data
I0403 14:11:25.608053 12880 net.cpp:49] Initializing net from parameters: 
state {
  phase: TEST
}
layer {
  name: "data"
  type: "Data"
  top: "data"
  top: "label"
  include {
    phase: TEST
  }
  transform_param {
    crop_size: 227
    mean_file: "/home/mohanty/data/final_dataset/lmdb/grayscale-80-20/mean.binaryproto"
  }
  data_param {
    source: "/home/mohanty/data/final_dataset/lmdb/grayscale-80-20/test_db"
    batch_size: 100
    backend: LMDB
  }
}
layer {
  name: "conv1"
  type: "Convolution"
  bottom: "data"
  top: "conv1"
  param {
    lr_mult: 1
    decay_mult: 1
  }
  param {
    lr_mult: 2
    decay_mult: 0
  }
  convolution_param {
    num_output: 96
    kernel_size: 11
    stride: 4
    weight_filler {
      type: "gaussian"
      std: 0.01
    }
    bias_filler {
      type: "constant"
      value: 0
    }
  }
}
layer {
  name: "relu1"
  type: "ReLU"
  bottom: "conv1"
  top: "conv1"
}
layer {
  name: "norm1"
  type: "LRN"
  bottom: "conv1"
  top: "norm1"
  lrn_param {
    local_size: 5
    alpha: 0.0001
    beta: 0.75
  }
}
layer {
  name: "pool1"
  type: "Pooling"
  bottom: "norm1"
  top: "pool1"
  pooling_param {
    pool: MAX
    kernel_size: 3
    stride: 2
  }
}
layer {
  name: "conv2"
  type: "Convolution"
  bottom: "pool1"
  top: "conv2"
  param {
    lr_mult: 1
    decay_mult: 1
  }
  param {
    lr_mult: 2
    decay_mult: 0
  }
  convolution_param {
    num_output: 256
    pad: 2
    kernel_size: 5
    group: 2
    weight_filler {
      type: "gaussian"
      std: 0.01
    }
    bias_filler {
      type: "constant"
      value: 0.1
    }
  }
}
layer {
  name: "relu2"
  type: "ReLU"
  bottom: "conv2"
  top: "conv2"
}
layer {
  name: "norm2"
  type: "LRN"
  bottom: "conv2"
  top: "norm2"
  lrn_param {
    local_size: 5
    alpha: 0.0001
    beta: 0.75
  }
}
layer {
  name: "pool2"
  type: "Pooling"
  bottom: "norm2"
  top: "pool2"
  pooling_param {
    pool: MAX
    kernel_size: 3
    stride: 2
  }
}
layer {
  name: "conv3"
  type: "Convolution"
  bottom: "pool2"
  top: "conv3"
  param {
    lr_mult: 1
    decay_mult: 1
  }
  param {
    lr_mult: 2
    decay_mult: 0
  }
  convolution_param {
    num_output: 384
    pad: 1
    kernel_size: 3
    weight_filler {
      type: "gaussian"
      std: 0.01
    }
    bias_filler {
      type: "constant"
      value: 0
    }
  }
}
layer {
  name: "relu3"
  type: "ReLU"
  bottom: "conv3"
  top: "conv3"
}
layer {
  name: "conv4"
  type: "Convolution"
  bottom: "conv3"
  top: "conv4"
  param {
    lr_mult: 1
    decay_mult: 1
  }
  param {
    lr_mult: 2
    decay_mult: 0
  }
  convolution_param {
    num_output: 384
    pad: 1
    kernel_size: 3
    group: 2
    weight_filler {
      type: "gaussian"
      std: 0.01
    }
    bias_filler {
      type: "constant"
      value: 0.1
    }
  }
}
layer {
  name: "relu4"
  type: "ReLU"
  bottom: "conv4"
  top: "conv4"
}
layer {
  name: "conv5"
  type: "Convolution"
  bottom: "conv4"
  top: "conv5"
  param {
    lr_mult: 1
    decay_mult: 1
  }
  param {
    lr_mult: 2
    decay_mult: 0
  }
  convolution_param {
    num_output: 256
    pad: 1
    kernel_size: 3
    group: 2
    weight_filler {
      type: "gaussian"
      std: 0.01
    }
    bias_filler {
      type: "constant"
      value: 0.1
    }
  }
}
layer {
  name: "relu5"
  type: "ReLU"
  bottom: "conv5"
  top: "conv5"
}
layer {
  name: "pool5"
  type: "Pooling"
  bottom: "conv5"
  top: "pool5"
  pooling_param {
    pool: MAX
    kernel_size: 3
    stride: 2
  }
}
layer {
  name: "fc6"
  type: "InnerProduct"
  bottom: "pool5"
  top: "fc6"
  param {
    lr_mult: 1
    decay_mult: 1
  }
  param {
    lr_mult: 2
    decay_mult: 0
  }
  inner_product_param {
    num_output: 4096
    weight_filler {
      type: "gaussian"
      std: 0.005
    }
    bias_filler {
      type: "constant"
      value: 0.1
    }
  }
}
layer {
  name: "relu6"
  type: "ReLU"
  bottom: "fc6"
  top: "fc6"
}
layer {
  name: "drop6"
  type: "Dropout"
  bottom: "fc6"
  top: "fc6"
  dropout_param {
    dropout_ratio: 0.5
  }
}
layer {
  name: "fc7"
  type: "InnerProduct"
  bottom: "fc6"
  top: "fc7"
  param {
    lr_mult: 1
    decay_mult: 1
  }
  param {
    lr_mult: 2
    decay_mult: 0
  }
  inner_product_param {
    num_output: 4096
    weight_filler {
      type: "gaussian"
      std: 0.005
    }
    bias_filler {
      type: "constant"
      value: 0.1
    }
  }
}
layer {
  name: "relu7"
  type: "ReLU"
  bottom: "fc7"
  top: "fc7"
}
layer {
  name: "drop7"
  type: "Dropout"
  bottom: "fc7"
  top: "fc7"
  dropout_param {
    dropout_ratio: 0.5
  }
}
layer {
  name: "fc8_plantvillage"
  type: "InnerProduct"
  bottom: "fc7"
  top: "fc8_plantvillage"
  param {
    lr_mult: 1
    decay_mult: 1
  }
  param {
    lr_mult: 2
    decay_mult: 0
  }
  inner_product_param {
    num_output: 38
    weight_filler {
      type: "gaussian"
      std: 0.01
    }
    bias_filler {
      type: "constant"
      value: 0
    }
  }
}
layer {
  name: "prob"
  type: "Softmax"
  bottom: "fc8_plantvillage"
  top: "prob"
  include {
    phase: TEST
  }
}
layer {
  name: "hdf5out"
  type: "HDF5Output"
  bottom: "prob"
  bottom: "label"
  include {
    phase: TEST
  }
  hdf5_output_param {
    file_name: "hdf5_dumps/iter_11336.h5"
  }
}
layer {
  name: "loss"
  type: "SoftmaxWithLoss"
  bottom: "fc8_plantvillage"
  bottom: "label"
  top: "loss"
}
layer {
  name: "accuracy"
  type: "Accuracy"
  bottom: "fc8_plantvillage"
  bottom: "label"
  top: "accuracy"
  include {
    phase: TEST
  }
}
I0403 14:11:25.608654 12880 layer_factory.hpp:77] Creating layer data
I0403 14:11:25.609304 12880 net.cpp:91] Creating Layer data
I0403 14:11:25.609336 12880 net.cpp:399] data -> data
I0403 14:11:25.609385 12880 net.cpp:399] data -> label
I0403 14:11:25.609421 12880 data_transformer.cpp:25] Loading mean file from: /home/mohanty/data/final_dataset/lmdb/grayscale-80-20/mean.binaryproto
I0403 14:11:25.612524 12883 db_lmdb.cpp:38] Opened lmdb /home/mohanty/data/final_dataset/lmdb/grayscale-80-20/test_db
I0403 14:11:25.623895 12880 data_layer.cpp:41] output data size: 100,3,227,227
I0403 14:11:25.748251 12880 net.cpp:141] Setting up data
I0403 14:11:25.748345 12880 net.cpp:148] Top shape: 100 3 227 227 (15458700)
I0403 14:11:25.748370 12880 net.cpp:148] Top shape: 100 (100)
I0403 14:11:25.748386 12880 net.cpp:156] Memory required for data: 61835200
I0403 14:11:25.748416 12880 layer_factory.hpp:77] Creating layer label_data_1_split
I0403 14:11:25.748443 12880 net.cpp:91] Creating Layer label_data_1_split
I0403 14:11:25.748462 12880 net.cpp:425] label_data_1_split <- label
I0403 14:11:25.748494 12880 net.cpp:399] label_data_1_split -> label_data_1_split_0
I0403 14:11:25.748522 12880 net.cpp:399] label_data_1_split -> label_data_1_split_1
I0403 14:11:25.748543 12880 net.cpp:399] label_data_1_split -> label_data_1_split_2
I0403 14:11:25.748612 12880 net.cpp:141] Setting up label_data_1_split
I0403 14:11:25.748637 12880 net.cpp:148] Top shape: 100 (100)
I0403 14:11:25.748656 12880 net.cpp:148] Top shape: 100 (100)
I0403 14:11:25.748672 12880 net.cpp:148] Top shape: 100 (100)
I0403 14:11:25.748685 12880 net.cpp:156] Memory required for data: 61836400
I0403 14:11:25.748700 12880 layer_factory.hpp:77] Creating layer conv1
I0403 14:11:25.748733 12880 net.cpp:91] Creating Layer conv1
I0403 14:11:25.748751 12880 net.cpp:425] conv1 <- data
I0403 14:11:25.748770 12880 net.cpp:399] conv1 -> conv1
I0403 14:11:25.893586 12880 net.cpp:141] Setting up conv1
I0403 14:11:25.893661 12880 net.cpp:148] Top shape: 100 96 55 55 (29040000)
I0403 14:11:25.893677 12880 net.cpp:156] Memory required for data: 177996400
I0403 14:11:25.893708 12880 layer_factory.hpp:77] Creating layer relu1
I0403 14:11:25.893734 12880 net.cpp:91] Creating Layer relu1
I0403 14:11:25.893753 12880 net.cpp:425] relu1 <- conv1
I0403 14:11:25.893770 12880 net.cpp:386] relu1 -> conv1 (in-place)
I0403 14:11:25.894021 12880 net.cpp:141] Setting up relu1
I0403 14:11:25.894047 12880 net.cpp:148] Top shape: 100 96 55 55 (29040000)
I0403 14:11:25.894095 12880 net.cpp:156] Memory required for data: 294156400
I0403 14:11:25.894111 12880 layer_factory.hpp:77] Creating layer norm1
I0403 14:11:25.894137 12880 net.cpp:91] Creating Layer norm1
I0403 14:11:25.894155 12880 net.cpp:425] norm1 <- conv1
I0403 14:11:25.894171 12880 net.cpp:399] norm1 -> norm1
I0403 14:11:25.894479 12880 net.cpp:141] Setting up norm1
I0403 14:11:25.894505 12880 net.cpp:148] Top shape: 100 96 55 55 (29040000)
I0403 14:11:25.894520 12880 net.cpp:156] Memory required for data: 410316400
I0403 14:11:25.894536 12880 layer_factory.hpp:77] Creating layer pool1
I0403 14:11:25.894557 12880 net.cpp:91] Creating Layer pool1
I0403 14:11:25.894585 12880 net.cpp:425] pool1 <- norm1
I0403 14:11:25.894606 12880 net.cpp:399] pool1 -> pool1
I0403 14:11:25.894672 12880 net.cpp:141] Setting up pool1
I0403 14:11:25.894695 12880 net.cpp:148] Top shape: 100 96 27 27 (6998400)
I0403 14:11:25.894711 12880 net.cpp:156] Memory required for data: 438310000
I0403 14:11:25.894724 12880 layer_factory.hpp:77] Creating layer conv2
I0403 14:11:25.894748 12880 net.cpp:91] Creating Layer conv2
I0403 14:11:25.894763 12880 net.cpp:425] conv2 <- pool1
I0403 14:11:25.894780 12880 net.cpp:399] conv2 -> conv2
I0403 14:11:25.909941 12880 net.cpp:141] Setting up conv2
I0403 14:11:25.909987 12880 net.cpp:148] Top shape: 100 256 27 27 (18662400)
I0403 14:11:25.910004 12880 net.cpp:156] Memory required for data: 512959600
I0403 14:11:25.910027 12880 layer_factory.hpp:77] Creating layer relu2
I0403 14:11:25.910049 12880 net.cpp:91] Creating Layer relu2
I0403 14:11:25.910066 12880 net.cpp:425] relu2 <- conv2
I0403 14:11:25.910084 12880 net.cpp:386] relu2 -> conv2 (in-place)
I0403 14:11:25.910367 12880 net.cpp:141] Setting up relu2
I0403 14:11:25.910395 12880 net.cpp:148] Top shape: 100 256 27 27 (18662400)
I0403 14:11:25.910411 12880 net.cpp:156] Memory required for data: 587609200
I0403 14:11:25.910426 12880 layer_factory.hpp:77] Creating layer norm2
I0403 14:11:25.910447 12880 net.cpp:91] Creating Layer norm2
I0403 14:11:25.910464 12880 net.cpp:425] norm2 <- conv2
I0403 14:11:25.910482 12880 net.cpp:399] norm2 -> norm2
I0403 14:11:25.910693 12880 net.cpp:141] Setting up norm2
I0403 14:11:25.910719 12880 net.cpp:148] Top shape: 100 256 27 27 (18662400)
I0403 14:11:25.910735 12880 net.cpp:156] Memory required for data: 662258800
I0403 14:11:25.910749 12880 layer_factory.hpp:77] Creating layer pool2
I0403 14:11:25.910769 12880 net.cpp:91] Creating Layer pool2
I0403 14:11:25.910786 12880 net.cpp:425] pool2 <- norm2
I0403 14:11:25.910804 12880 net.cpp:399] pool2 -> pool2
I0403 14:11:25.910857 12880 net.cpp:141] Setting up pool2
I0403 14:11:25.910881 12880 net.cpp:148] Top shape: 100 256 13 13 (4326400)
I0403 14:11:25.910897 12880 net.cpp:156] Memory required for data: 679564400
I0403 14:11:25.910912 12880 layer_factory.hpp:77] Creating layer conv3
I0403 14:11:25.910934 12880 net.cpp:91] Creating Layer conv3
I0403 14:11:25.910951 12880 net.cpp:425] conv3 <- pool2
I0403 14:11:25.910971 12880 net.cpp:399] conv3 -> conv3
I0403 14:11:25.953178 12880 net.cpp:141] Setting up conv3
I0403 14:11:25.953225 12880 net.cpp:148] Top shape: 100 384 13 13 (6489600)
I0403 14:11:25.953241 12880 net.cpp:156] Memory required for data: 705522800
I0403 14:11:25.953269 12880 layer_factory.hpp:77] Creating layer relu3
I0403 14:11:25.953294 12880 net.cpp:91] Creating Layer relu3
I0403 14:11:25.953310 12880 net.cpp:425] relu3 <- conv3
I0403 14:11:25.953328 12880 net.cpp:386] relu3 -> conv3 (in-place)
I0403 14:11:25.953610 12880 net.cpp:141] Setting up relu3
I0403 14:11:25.953636 12880 net.cpp:148] Top shape: 100 384 13 13 (6489600)
I0403 14:11:25.953655 12880 net.cpp:156] Memory required for data: 731481200
I0403 14:11:25.953670 12880 layer_factory.hpp:77] Creating layer conv4
I0403 14:11:25.953691 12880 net.cpp:91] Creating Layer conv4
I0403 14:11:25.953707 12880 net.cpp:425] conv4 <- conv3
I0403 14:11:25.953727 12880 net.cpp:399] conv4 -> conv4
I0403 14:11:25.983369 12880 net.cpp:141] Setting up conv4
I0403 14:11:25.983414 12880 net.cpp:148] Top shape: 100 384 13 13 (6489600)
I0403 14:11:25.983464 12880 net.cpp:156] Memory required for data: 757439600
I0403 14:11:25.983482 12880 layer_factory.hpp:77] Creating layer relu4
I0403 14:11:25.983503 12880 net.cpp:91] Creating Layer relu4
I0403 14:11:25.983521 12880 net.cpp:425] relu4 <- conv4
I0403 14:11:25.983537 12880 net.cpp:386] relu4 -> conv4 (in-place)
I0403 14:11:25.983817 12880 net.cpp:141] Setting up relu4
I0403 14:11:25.983844 12880 net.cpp:148] Top shape: 100 384 13 13 (6489600)
I0403 14:11:25.983860 12880 net.cpp:156] Memory required for data: 783398000
I0403 14:11:25.983873 12880 layer_factory.hpp:77] Creating layer conv5
I0403 14:11:25.983897 12880 net.cpp:91] Creating Layer conv5
I0403 14:11:25.983916 12880 net.cpp:425] conv5 <- conv4
I0403 14:11:25.983935 12880 net.cpp:399] conv5 -> conv5
I0403 14:11:26.004814 12880 net.cpp:141] Setting up conv5
I0403 14:11:26.004870 12880 net.cpp:148] Top shape: 100 256 13 13 (4326400)
I0403 14:11:26.004887 12880 net.cpp:156] Memory required for data: 800703600
I0403 14:11:26.004911 12880 layer_factory.hpp:77] Creating layer relu5
I0403 14:11:26.004942 12880 net.cpp:91] Creating Layer relu5
I0403 14:11:26.004961 12880 net.cpp:425] relu5 <- conv5
I0403 14:11:26.004979 12880 net.cpp:386] relu5 -> conv5 (in-place)
I0403 14:11:26.005264 12880 net.cpp:141] Setting up relu5
I0403 14:11:26.005291 12880 net.cpp:148] Top shape: 100 256 13 13 (4326400)
I0403 14:11:26.005307 12880 net.cpp:156] Memory required for data: 818009200
I0403 14:11:26.005328 12880 layer_factory.hpp:77] Creating layer pool5
I0403 14:11:26.005352 12880 net.cpp:91] Creating Layer pool5
I0403 14:11:26.005370 12880 net.cpp:425] pool5 <- conv5
I0403 14:11:26.005395 12880 net.cpp:399] pool5 -> pool5
I0403 14:11:26.005456 12880 net.cpp:141] Setting up pool5
I0403 14:11:26.005481 12880 net.cpp:148] Top shape: 100 256 6 6 (921600)
I0403 14:11:26.005496 12880 net.cpp:156] Memory required for data: 821695600
I0403 14:11:26.005511 12880 layer_factory.hpp:77] Creating layer fc6
I0403 14:11:26.005538 12880 net.cpp:91] Creating Layer fc6
I0403 14:11:26.005556 12880 net.cpp:425] fc6 <- pool5
I0403 14:11:26.005579 12880 net.cpp:399] fc6 -> fc6
I0403 14:11:27.551676 12880 net.cpp:141] Setting up fc6
I0403 14:11:27.551718 12880 net.cpp:148] Top shape: 100 4096 (409600)
I0403 14:11:27.551735 12880 net.cpp:156] Memory required for data: 823334000
I0403 14:11:27.551756 12880 layer_factory.hpp:77] Creating layer relu6
I0403 14:11:27.551777 12880 net.cpp:91] Creating Layer relu6
I0403 14:11:27.551794 12880 net.cpp:425] relu6 <- fc6
I0403 14:11:27.551816 12880 net.cpp:386] relu6 -> fc6 (in-place)
I0403 14:11:27.552032 12880 net.cpp:141] Setting up relu6
I0403 14:11:27.552057 12880 net.cpp:148] Top shape: 100 4096 (409600)
I0403 14:11:27.552073 12880 net.cpp:156] Memory required for data: 824972400
I0403 14:11:27.552086 12880 layer_factory.hpp:77] Creating layer drop6
I0403 14:11:27.552106 12880 net.cpp:91] Creating Layer drop6
I0403 14:11:27.552121 12880 net.cpp:425] drop6 <- fc6
I0403 14:11:27.552139 12880 net.cpp:386] drop6 -> fc6 (in-place)
I0403 14:11:27.552189 12880 net.cpp:141] Setting up drop6
I0403 14:11:27.552211 12880 net.cpp:148] Top shape: 100 4096 (409600)
I0403 14:11:27.552224 12880 net.cpp:156] Memory required for data: 826610800
I0403 14:11:27.552237 12880 layer_factory.hpp:77] Creating layer fc7
I0403 14:11:27.552256 12880 net.cpp:91] Creating Layer fc7
I0403 14:11:27.552270 12880 net.cpp:425] fc7 <- fc6
I0403 14:11:27.552289 12880 net.cpp:399] fc7 -> fc7
I0403 14:11:28.232029 12880 net.cpp:141] Setting up fc7
I0403 14:11:28.232074 12880 net.cpp:148] Top shape: 100 4096 (409600)
I0403 14:11:28.232092 12880 net.cpp:156] Memory required for data: 828249200
I0403 14:11:28.232113 12880 layer_factory.hpp:77] Creating layer relu7
I0403 14:11:28.232136 12880 net.cpp:91] Creating Layer relu7
I0403 14:11:28.232152 12880 net.cpp:425] relu7 <- fc7
I0403 14:11:28.232170 12880 net.cpp:386] relu7 -> fc7 (in-place)
I0403 14:11:28.232584 12880 net.cpp:141] Setting up relu7
I0403 14:11:28.232610 12880 net.cpp:148] Top shape: 100 4096 (409600)
I0403 14:11:28.232663 12880 net.cpp:156] Memory required for data: 829887600
I0403 14:11:28.232678 12880 layer_factory.hpp:77] Creating layer drop7
I0403 14:11:28.232699 12880 net.cpp:91] Creating Layer drop7
I0403 14:11:28.232714 12880 net.cpp:425] drop7 <- fc7
I0403 14:11:28.232730 12880 net.cpp:386] drop7 -> fc7 (in-place)
I0403 14:11:28.232774 12880 net.cpp:141] Setting up drop7
I0403 14:11:28.232795 12880 net.cpp:148] Top shape: 100 4096 (409600)
I0403 14:11:28.232808 12880 net.cpp:156] Memory required for data: 831526000
I0403 14:11:28.232822 12880 layer_factory.hpp:77] Creating layer fc8_plantvillage
I0403 14:11:28.232841 12880 net.cpp:91] Creating Layer fc8_plantvillage
I0403 14:11:28.232858 12880 net.cpp:425] fc8_plantvillage <- fc7
I0403 14:11:28.232875 12880 net.cpp:399] fc8_plantvillage -> fc8_plantvillage
I0403 14:11:28.239457 12880 net.cpp:141] Setting up fc8_plantvillage
I0403 14:11:28.239485 12880 net.cpp:148] Top shape: 100 38 (3800)
I0403 14:11:28.239501 12880 net.cpp:156] Memory required for data: 831541200
I0403 14:11:28.239518 12880 layer_factory.hpp:77] Creating layer fc8_plantvillage_fc8_plantvillage_0_split
I0403 14:11:28.239539 12880 net.cpp:91] Creating Layer fc8_plantvillage_fc8_plantvillage_0_split
I0403 14:11:28.239554 12880 net.cpp:425] fc8_plantvillage_fc8_plantvillage_0_split <- fc8_plantvillage
I0403 14:11:28.239575 12880 net.cpp:399] fc8_plantvillage_fc8_plantvillage_0_split -> fc8_plantvillage_fc8_plantvillage_0_split_0
I0403 14:11:28.239596 12880 net.cpp:399] fc8_plantvillage_fc8_plantvillage_0_split -> fc8_plantvillage_fc8_plantvillage_0_split_1
I0403 14:11:28.239619 12880 net.cpp:399] fc8_plantvillage_fc8_plantvillage_0_split -> fc8_plantvillage_fc8_plantvillage_0_split_2
I0403 14:11:28.239696 12880 net.cpp:141] Setting up fc8_plantvillage_fc8_plantvillage_0_split
I0403 14:11:28.239720 12880 net.cpp:148] Top shape: 100 38 (3800)
I0403 14:11:28.239737 12880 net.cpp:148] Top shape: 100 38 (3800)
I0403 14:11:28.239750 12880 net.cpp:148] Top shape: 100 38 (3800)
I0403 14:11:28.239763 12880 net.cpp:156] Memory required for data: 831586800
I0403 14:11:28.239778 12880 layer_factory.hpp:77] Creating layer prob
I0403 14:11:28.239797 12880 net.cpp:91] Creating Layer prob
I0403 14:11:28.239814 12880 net.cpp:425] prob <- fc8_plantvillage_fc8_plantvillage_0_split_0
I0403 14:11:28.239831 12880 net.cpp:399] prob -> prob
I0403 14:11:28.240051 12880 net.cpp:141] Setting up prob
I0403 14:11:28.240074 12880 net.cpp:148] Top shape: 100 38 (3800)
I0403 14:11:28.240088 12880 net.cpp:156] Memory required for data: 831602000
I0403 14:11:28.240103 12880 layer_factory.hpp:77] Creating layer hdf5out
I0403 14:11:28.240123 12880 net.cpp:91] Creating Layer hdf5out
I0403 14:11:28.240139 12880 net.cpp:425] hdf5out <- prob
I0403 14:11:28.240154 12880 net.cpp:425] hdf5out <- label_data_1_split_0
I0403 14:11:28.242328 12880 net.cpp:141] Setting up hdf5out
…
