…
I0403 14:11:00.536953 12868 net.cpp:313] The NetState phase (1) differed from the phase (0) specified by a rule in layer data
I0403 14:11:00.537262 12868 net.cpp:49] Initializing net from parameters: 
state {
  phase: TEST
}
layer {
  name: "data"
  type: "Data"
  top: "data"
  top: "label"
  include {
    phase: TEST
  }
  transform_param {
    crop_size: 227
    mean_file: "/home/mohanty/data/final_dataset/lmdb/grayscale-80-20/mean.binaryproto"
  }
  data_param {
    source: "/home/mohanty/data/final_dataset/lmdb/grayscale-80-20/test_db"
    batch_size: 100
    backend: LMDB
  }
}
layer {
  name: "conv1"
  type: "Convolution"
  bottom: "data"
  top: "conv1"
  param {
    lr_mult: 1
    decay_mult: 1
  }
  param {
    lr_mult: 2
    decay_mult: 0
  }
  convolution_param {
    num_output: 96
    kernel_size: 11
    stride: 4
    weight_filler {
      type: "gaussian"
      std: 0.01
    }
    bias_filler {
      type: "constant"
      value: 0
    }
  }
}
layer {
  name: "relu1"
  type: "ReLU"
  bottom: "conv1"
  top: "conv1"
}
layer {
  name: "norm1"
  type: "LRN"
  bottom: "conv1"
  top: "norm1"
  lrn_param {
    local_size: 5
    alpha: 0.0001
    beta: 0.75
  }
}
layer {
  name: "pool1"
  type: "Pooling"
  bottom: "norm1"
  top: "pool1"
  pooling_param {
    pool: MAX
    kernel_size: 3
    stride: 2
  }
}
layer {
  name: "conv2"
  type: "Convolution"
  bottom: "pool1"
  top: "conv2"
  param {
    lr_mult: 1
    decay_mult: 1
  }
  param {
    lr_mult: 2
    decay_mult: 0
  }
  convolution_param {
    num_output: 256
    pad: 2
    kernel_size: 5
    group: 2
    weight_filler {
      type: "gaussian"
      std: 0.01
    }
    bias_filler {
      type: "constant"
      value: 0.1
    }
  }
}
layer {
  name: "relu2"
  type: "ReLU"
  bottom: "conv2"
  top: "conv2"
}
layer {
  name: "norm2"
  type: "LRN"
  bottom: "conv2"
  top: "norm2"
  lrn_param {
    local_size: 5
    alpha: 0.0001
    beta: 0.75
  }
}
layer {
  name: "pool2"
  type: "Pooling"
  bottom: "norm2"
  top: "pool2"
  pooling_param {
    pool: MAX
    kernel_size: 3
    stride: 2
  }
}
layer {
  name: "conv3"
  type: "Convolution"
  bottom: "pool2"
  top: "conv3"
  param {
    lr_mult: 1
    decay_mult: 1
  }
  param {
    lr_mult: 2
    decay_mult: 0
  }
  convolution_param {
    num_output: 384
    pad: 1
    kernel_size: 3
    weight_filler {
      type: "gaussian"
      std: 0.01
    }
    bias_filler {
      type: "constant"
      value: 0
    }
  }
}
layer {
  name: "relu3"
  type: "ReLU"
  bottom: "conv3"
  top: "conv3"
}
layer {
  name: "conv4"
  type: "Convolution"
  bottom: "conv3"
  top: "conv4"
  param {
    lr_mult: 1
    decay_mult: 1
  }
  param {
    lr_mult: 2
    decay_mult: 0
  }
  convolution_param {
    num_output: 384
    pad: 1
    kernel_size: 3
    group: 2
    weight_filler {
      type: "gaussian"
      std: 0.01
    }
    bias_filler {
      type: "constant"
      value: 0.1
    }
  }
}
layer {
  name: "relu4"
  type: "ReLU"
  bottom: "conv4"
  top: "conv4"
}
layer {
  name: "conv5"
  type: "Convolution"
  bottom: "conv4"
  top: "conv5"
  param {
    lr_mult: 1
    decay_mult: 1
  }
  param {
    lr_mult: 2
    decay_mult: 0
  }
  convolution_param {
    num_output: 256
    pad: 1
    kernel_size: 3
    group: 2
    weight_filler {
      type: "gaussian"
      std: 0.01
    }
    bias_filler {
      type: "constant"
      value: 0.1
    }
  }
}
layer {
  name: "relu5"
  type: "ReLU"
  bottom: "conv5"
  top: "conv5"
}
layer {
  name: "pool5"
  type: "Pooling"
  bottom: "conv5"
  top: "pool5"
  pooling_param {
    pool: MAX
    kernel_size: 3
    stride: 2
  }
}
layer {
  name: "fc6"
  type: "InnerProduct"
  bottom: "pool5"
  top: "fc6"
  param {
    lr_mult: 1
    decay_mult: 1
  }
  param {
    lr_mult: 2
    decay_mult: 0
  }
  inner_product_param {
    num_output: 4096
    weight_filler {
      type: "gaussian"
      std: 0.005
    }
    bias_filler {
      type: "constant"
      value: 0.1
    }
  }
}
layer {
  name: "relu6"
  type: "ReLU"
  bottom: "fc6"
  top: "fc6"
}
layer {
  name: "drop6"
  type: "Dropout"
  bottom: "fc6"
  top: "fc6"
  dropout_param {
    dropout_ratio: 0.5
  }
}
layer {
  name: "fc7"
  type: "InnerProduct"
  bottom: "fc6"
  top: "fc7"
  param {
    lr_mult: 1
    decay_mult: 1
  }
  param {
    lr_mult: 2
    decay_mult: 0
  }
  inner_product_param {
    num_output: 4096
    weight_filler {
      type: "gaussian"
      std: 0.005
    }
    bias_filler {
      type: "constant"
      value: 0.1
    }
  }
}
layer {
  name: "relu7"
  type: "ReLU"
  bottom: "fc7"
  top: "fc7"
}
layer {
  name: "drop7"
  type: "Dropout"
  bottom: "fc7"
  top: "fc7"
  dropout_param {
    dropout_ratio: 0.5
  }
}
layer {
  name: "fc8_plantvillage"
  type: "InnerProduct"
  bottom: "fc7"
  top: "fc8_plantvillage"
  param {
    lr_mult: 1
    decay_mult: 1
  }
  param {
    lr_mult: 2
    decay_mult: 0
  }
  inner_product_param {
    num_output: 38
    weight_filler {
      type: "gaussian"
      std: 0.01
    }
    bias_filler {
      type: "constant"
      value: 0
    }
  }
}
layer {
  name: "prob"
  type: "Softmax"
  bottom: "fc8_plantvillage"
  top: "prob"
  include {
    phase: TEST
  }
}
layer {
  name: "hdf5out"
  type: "HDF5Output"
  bottom: "prob"
  bottom: "label"
  include {
    phase: TEST
  }
  hdf5_output_param {
    file_name: "hdf5_dumps/iter_10900.h5"
  }
}
layer {
  name: "loss"
  type: "SoftmaxWithLoss"
  bottom: "fc8_plantvillage"
  bottom: "label"
  top: "loss"
}
layer {
  name: "accuracy"
  type: "Accuracy"
  bottom: "fc8_plantvillage"
  bottom: "label"
  top: "accuracy"
  include {
    phase: TEST
  }
}
I0403 14:11:00.537852 12868 layer_factory.hpp:77] Creating layer data
I0403 14:11:00.538511 12868 net.cpp:91] Creating Layer data
I0403 14:11:00.538542 12868 net.cpp:399] data -> data
I0403 14:11:00.538594 12868 net.cpp:399] data -> label
I0403 14:11:00.538638 12868 data_transformer.cpp:25] Loading mean file from: /home/mohanty/data/final_dataset/lmdb/grayscale-80-20/mean.binaryproto
I0403 14:11:00.541062 12871 db_lmdb.cpp:38] Opened lmdb /home/mohanty/data/final_dataset/lmdb/grayscale-80-20/test_db
I0403 14:11:00.553215 12868 data_layer.cpp:41] output data size: 100,3,227,227
I0403 14:11:00.673663 12868 net.cpp:141] Setting up data
I0403 14:11:00.673755 12868 net.cpp:148] Top shape: 100 3 227 227 (15458700)
I0403 14:11:00.673777 12868 net.cpp:148] Top shape: 100 (100)
I0403 14:11:00.673791 12868 net.cpp:156] Memory required for data: 61835200
I0403 14:11:00.673820 12868 layer_factory.hpp:77] Creating layer label_data_1_split
I0403 14:11:00.673845 12868 net.cpp:91] Creating Layer label_data_1_split
I0403 14:11:00.673861 12868 net.cpp:425] label_data_1_split <- label
I0403 14:11:00.673892 12868 net.cpp:399] label_data_1_split -> label_data_1_split_0
I0403 14:11:00.673919 12868 net.cpp:399] label_data_1_split -> label_data_1_split_1
I0403 14:11:00.673939 12868 net.cpp:399] label_data_1_split -> label_data_1_split_2
I0403 14:11:00.674000 12868 net.cpp:141] Setting up label_data_1_split
I0403 14:11:00.674023 12868 net.cpp:148] Top shape: 100 (100)
I0403 14:11:00.674041 12868 net.cpp:148] Top shape: 100 (100)
I0403 14:11:00.674055 12868 net.cpp:148] Top shape: 100 (100)
I0403 14:11:00.674068 12868 net.cpp:156] Memory required for data: 61836400
I0403 14:11:00.674082 12868 layer_factory.hpp:77] Creating layer conv1
I0403 14:11:00.674113 12868 net.cpp:91] Creating Layer conv1
I0403 14:11:00.674130 12868 net.cpp:425] conv1 <- data
I0403 14:11:00.674149 12868 net.cpp:399] conv1 -> conv1
I0403 14:11:00.820637 12868 net.cpp:141] Setting up conv1
I0403 14:11:00.820705 12868 net.cpp:148] Top shape: 100 96 55 55 (29040000)
I0403 14:11:00.820724 12868 net.cpp:156] Memory required for data: 177996400
I0403 14:11:00.820756 12868 layer_factory.hpp:77] Creating layer relu1
I0403 14:11:00.820785 12868 net.cpp:91] Creating Layer relu1
I0403 14:11:00.820804 12868 net.cpp:425] relu1 <- conv1
I0403 14:11:00.820823 12868 net.cpp:386] relu1 -> conv1 (in-place)
I0403 14:11:00.821089 12868 net.cpp:141] Setting up relu1
I0403 14:11:00.821117 12868 net.cpp:148] Top shape: 100 96 55 55 (29040000)
I0403 14:11:00.821159 12868 net.cpp:156] Memory required for data: 294156400
I0403 14:11:00.821177 12868 layer_factory.hpp:77] Creating layer norm1
I0403 14:11:00.821205 12868 net.cpp:91] Creating Layer norm1
I0403 14:11:00.821223 12868 net.cpp:425] norm1 <- conv1
I0403 14:11:00.821243 12868 net.cpp:399] norm1 -> norm1
I0403 14:11:00.821625 12868 net.cpp:141] Setting up norm1
I0403 14:11:00.821655 12868 net.cpp:148] Top shape: 100 96 55 55 (29040000)
I0403 14:11:00.821671 12868 net.cpp:156] Memory required for data: 410316400
I0403 14:11:00.821686 12868 layer_factory.hpp:77] Creating layer pool1
I0403 14:11:00.821709 12868 net.cpp:91] Creating Layer pool1
I0403 14:11:00.821727 12868 net.cpp:425] pool1 <- norm1
I0403 14:11:00.821745 12868 net.cpp:399] pool1 -> pool1
I0403 14:11:00.821812 12868 net.cpp:141] Setting up pool1
I0403 14:11:00.821836 12868 net.cpp:148] Top shape: 100 96 27 27 (6998400)
I0403 14:11:00.821851 12868 net.cpp:156] Memory required for data: 438310000
I0403 14:11:00.821867 12868 layer_factory.hpp:77] Creating layer conv2
I0403 14:11:00.821892 12868 net.cpp:91] Creating Layer conv2
I0403 14:11:00.821909 12868 net.cpp:425] conv2 <- pool1
I0403 14:11:00.821928 12868 net.cpp:399] conv2 -> conv2
I0403 14:11:00.837555 12868 net.cpp:141] Setting up conv2
I0403 14:11:00.837599 12868 net.cpp:148] Top shape: 100 256 27 27 (18662400)
I0403 14:11:00.837618 12868 net.cpp:156] Memory required for data: 512959600
I0403 14:11:00.837679 12868 layer_factory.hpp:77] Creating layer relu2
I0403 14:11:00.837700 12868 net.cpp:91] Creating Layer relu2
I0403 14:11:00.837718 12868 net.cpp:425] relu2 <- conv2
I0403 14:11:00.837738 12868 net.cpp:386] relu2 -> conv2 (in-place)
I0403 14:11:00.838032 12868 net.cpp:141] Setting up relu2
I0403 14:11:00.838059 12868 net.cpp:148] Top shape: 100 256 27 27 (18662400)
I0403 14:11:00.838074 12868 net.cpp:156] Memory required for data: 587609200
I0403 14:11:00.838090 12868 layer_factory.hpp:77] Creating layer norm2
I0403 14:11:00.838112 12868 net.cpp:91] Creating Layer norm2
I0403 14:11:00.838130 12868 net.cpp:425] norm2 <- conv2
I0403 14:11:00.838148 12868 net.cpp:399] norm2 -> norm2
I0403 14:11:00.838351 12868 net.cpp:141] Setting up norm2
I0403 14:11:00.838381 12868 net.cpp:148] Top shape: 100 256 27 27 (18662400)
I0403 14:11:00.838397 12868 net.cpp:156] Memory required for data: 662258800
I0403 14:11:00.838412 12868 layer_factory.hpp:77] Creating layer pool2
I0403 14:11:00.838429 12868 net.cpp:91] Creating Layer pool2
I0403 14:11:00.838445 12868 net.cpp:425] pool2 <- norm2
I0403 14:11:00.838466 12868 net.cpp:399] pool2 -> pool2
I0403 14:11:00.838520 12868 net.cpp:141] Setting up pool2
I0403 14:11:00.838543 12868 net.cpp:148] Top shape: 100 256 13 13 (4326400)
I0403 14:11:00.838558 12868 net.cpp:156] Memory required for data: 679564400
I0403 14:11:00.838578 12868 layer_factory.hpp:77] Creating layer conv3
I0403 14:11:00.838603 12868 net.cpp:91] Creating Layer conv3
I0403 14:11:00.838621 12868 net.cpp:425] conv3 <- pool2
I0403 14:11:00.838642 12868 net.cpp:399] conv3 -> conv3
I0403 14:11:00.879719 12868 net.cpp:141] Setting up conv3
I0403 14:11:00.879786 12868 net.cpp:148] Top shape: 100 384 13 13 (6489600)
I0403 14:11:00.879803 12868 net.cpp:156] Memory required for data: 705522800
I0403 14:11:00.879828 12868 layer_factory.hpp:77] Creating layer relu3
I0403 14:11:00.879851 12868 net.cpp:91] Creating Layer relu3
I0403 14:11:00.879868 12868 net.cpp:425] relu3 <- conv3
I0403 14:11:00.879890 12868 net.cpp:386] relu3 -> conv3 (in-place)
I0403 14:11:00.880185 12868 net.cpp:141] Setting up relu3
I0403 14:11:00.880213 12868 net.cpp:148] Top shape: 100 384 13 13 (6489600)
I0403 14:11:00.880228 12868 net.cpp:156] Memory required for data: 731481200
I0403 14:11:00.880244 12868 layer_factory.hpp:77] Creating layer conv4
I0403 14:11:00.880272 12868 net.cpp:91] Creating Layer conv4
I0403 14:11:00.880290 12868 net.cpp:425] conv4 <- conv3
I0403 14:11:00.880321 12868 net.cpp:399] conv4 -> conv4
I0403 14:11:00.911767 12868 net.cpp:141] Setting up conv4
I0403 14:11:00.911813 12868 net.cpp:148] Top shape: 100 384 13 13 (6489600)
I0403 14:11:00.911849 12868 net.cpp:156] Memory required for data: 757439600
I0403 14:11:00.911871 12868 layer_factory.hpp:77] Creating layer relu4
I0403 14:11:00.911895 12868 net.cpp:91] Creating Layer relu4
I0403 14:11:00.911912 12868 net.cpp:425] relu4 <- conv4
I0403 14:11:00.911931 12868 net.cpp:386] relu4 -> conv4 (in-place)
I0403 14:11:00.912222 12868 net.cpp:141] Setting up relu4
I0403 14:11:00.912252 12868 net.cpp:148] Top shape: 100 384 13 13 (6489600)
I0403 14:11:00.912294 12868 net.cpp:156] Memory required for data: 783398000
I0403 14:11:00.912317 12868 layer_factory.hpp:77] Creating layer conv5
I0403 14:11:00.912346 12868 net.cpp:91] Creating Layer conv5
I0403 14:11:00.912365 12868 net.cpp:425] conv5 <- conv4
I0403 14:11:00.912384 12868 net.cpp:399] conv5 -> conv5
I0403 14:11:00.933818 12868 net.cpp:141] Setting up conv5
I0403 14:11:00.933858 12868 net.cpp:148] Top shape: 100 256 13 13 (4326400)
I0403 14:11:00.933876 12868 net.cpp:156] Memory required for data: 800703600
I0403 14:11:00.933900 12868 layer_factory.hpp:77] Creating layer relu5
I0403 14:11:00.933920 12868 net.cpp:91] Creating Layer relu5
I0403 14:11:00.933938 12868 net.cpp:425] relu5 <- conv5
I0403 14:11:00.933959 12868 net.cpp:386] relu5 -> conv5 (in-place)
I0403 14:11:00.934295 12868 net.cpp:141] Setting up relu5
I0403 14:11:00.934324 12868 net.cpp:148] Top shape: 100 256 13 13 (4326400)
I0403 14:11:00.934339 12868 net.cpp:156] Memory required for data: 818009200
I0403 14:11:00.934355 12868 layer_factory.hpp:77] Creating layer pool5
I0403 14:11:00.934381 12868 net.cpp:91] Creating Layer pool5
I0403 14:11:00.934399 12868 net.cpp:425] pool5 <- conv5
I0403 14:11:00.934418 12868 net.cpp:399] pool5 -> pool5
I0403 14:11:00.934478 12868 net.cpp:141] Setting up pool5
I0403 14:11:00.934502 12868 net.cpp:148] Top shape: 100 256 6 6 (921600)
I0403 14:11:00.934517 12868 net.cpp:156] Memory required for data: 821695600
I0403 14:11:00.934532 12868 layer_factory.hpp:77] Creating layer fc6
I0403 14:11:00.934558 12868 net.cpp:91] Creating Layer fc6
I0403 14:11:00.934588 12868 net.cpp:425] fc6 <- pool5
I0403 14:11:00.934612 12868 net.cpp:399] fc6 -> fc6
I0403 14:11:02.470593 12868 net.cpp:141] Setting up fc6
I0403 14:11:02.470661 12868 net.cpp:148] Top shape: 100 4096 (409600)
I0403 14:11:02.470677 12868 net.cpp:156] Memory required for data: 823334000
I0403 14:11:02.470697 12868 layer_factory.hpp:77] Creating layer relu6
I0403 14:11:02.470718 12868 net.cpp:91] Creating Layer relu6
I0403 14:11:02.470734 12868 net.cpp:425] relu6 <- fc6
I0403 14:11:02.470753 12868 net.cpp:386] relu6 -> fc6 (in-place)
I0403 14:11:02.470963 12868 net.cpp:141] Setting up relu6
I0403 14:11:02.470988 12868 net.cpp:148] Top shape: 100 4096 (409600)
I0403 14:11:02.471004 12868 net.cpp:156] Memory required for data: 824972400
I0403 14:11:02.471017 12868 layer_factory.hpp:77] Creating layer drop6
I0403 14:11:02.471035 12868 net.cpp:91] Creating Layer drop6
I0403 14:11:02.471050 12868 net.cpp:425] drop6 <- fc6
I0403 14:11:02.471068 12868 net.cpp:386] drop6 -> fc6 (in-place)
I0403 14:11:02.471115 12868 net.cpp:141] Setting up drop6
I0403 14:11:02.471138 12868 net.cpp:148] Top shape: 100 4096 (409600)
I0403 14:11:02.471150 12868 net.cpp:156] Memory required for data: 826610800
I0403 14:11:02.471164 12868 layer_factory.hpp:77] Creating layer fc7
I0403 14:11:02.471185 12868 net.cpp:91] Creating Layer fc7
I0403 14:11:02.471201 12868 net.cpp:425] fc7 <- fc6
I0403 14:11:02.471221 12868 net.cpp:399] fc7 -> fc7
I0403 14:11:03.145109 12868 net.cpp:141] Setting up fc7
I0403 14:11:03.145158 12868 net.cpp:148] Top shape: 100 4096 (409600)
I0403 14:11:03.145174 12868 net.cpp:156] Memory required for data: 828249200
I0403 14:11:03.145195 12868 layer_factory.hpp:77] Creating layer relu7
I0403 14:11:03.145215 12868 net.cpp:91] Creating Layer relu7
I0403 14:11:03.145232 12868 net.cpp:425] relu7 <- fc7
I0403 14:11:03.145251 12868 net.cpp:386] relu7 -> fc7 (in-place)
I0403 14:11:03.145670 12868 net.cpp:141] Setting up relu7
I0403 14:11:03.145699 12868 net.cpp:148] Top shape: 100 4096 (409600)
I0403 14:11:03.145752 12868 net.cpp:156] Memory required for data: 829887600
I0403 14:11:03.145768 12868 layer_factory.hpp:77] Creating layer drop7
I0403 14:11:03.145787 12868 net.cpp:91] Creating Layer drop7
I0403 14:11:03.145802 12868 net.cpp:425] drop7 <- fc7
I0403 14:11:03.145822 12868 net.cpp:386] drop7 -> fc7 (in-place)
I0403 14:11:03.145864 12868 net.cpp:141] Setting up drop7
I0403 14:11:03.145885 12868 net.cpp:148] Top shape: 100 4096 (409600)
I0403 14:11:03.145900 12868 net.cpp:156] Memory required for data: 831526000
I0403 14:11:03.145915 12868 layer_factory.hpp:77] Creating layer fc8_plantvillage
I0403 14:11:03.145936 12868 net.cpp:91] Creating Layer fc8_plantvillage
I0403 14:11:03.145951 12868 net.cpp:425] fc8_plantvillage <- fc7
I0403 14:11:03.145972 12868 net.cpp:399] fc8_plantvillage -> fc8_plantvillage
I0403 14:11:03.152680 12868 net.cpp:141] Setting up fc8_plantvillage
I0403 14:11:03.152709 12868 net.cpp:148] Top shape: 100 38 (3800)
I0403 14:11:03.152724 12868 net.cpp:156] Memory required for data: 831541200
I0403 14:11:03.152741 12868 layer_factory.hpp:77] Creating layer fc8_plantvillage_fc8_plantvillage_0_split
I0403 14:11:03.152760 12868 net.cpp:91] Creating Layer fc8_plantvillage_fc8_plantvillage_0_split
I0403 14:11:03.152776 12868 net.cpp:425] fc8_plantvillage_fc8_plantvillage_0_split <- fc8_plantvillage
I0403 14:11:03.152794 12868 net.cpp:399] fc8_plantvillage_fc8_plantvillage_0_split -> fc8_plantvillage_fc8_plantvillage_0_split_0
I0403 14:11:03.152814 12868 net.cpp:399] fc8_plantvillage_fc8_plantvillage_0_split -> fc8_plantvillage_fc8_plantvillage_0_split_1
I0403 14:11:03.152833 12868 net.cpp:399] fc8_plantvillage_fc8_plantvillage_0_split -> fc8_plantvillage_fc8_plantvillage_0_split_2
I0403 14:11:03.152909 12868 net.cpp:141] Setting up fc8_plantvillage_fc8_plantvillage_0_split
I0403 14:11:03.152935 12868 net.cpp:148] Top shape: 100 38 (3800)
I0403 14:11:03.152951 12868 net.cpp:148] Top shape: 100 38 (3800)
I0403 14:11:03.152966 12868 net.cpp:148] Top shape: 100 38 (3800)
I0403 14:11:03.152979 12868 net.cpp:156] Memory required for data: 831586800
I0403 14:11:03.152993 12868 layer_factory.hpp:77] Creating layer prob
I0403 14:11:03.153010 12868 net.cpp:91] Creating Layer prob
I0403 14:11:03.153025 12868 net.cpp:425] prob <- fc8_plantvillage_fc8_plantvillage_0_split_0
I0403 14:11:03.153043 12868 net.cpp:399] prob -> prob
I0403 14:11:03.153261 12868 net.cpp:141] Setting up prob
I0403 14:11:03.153290 12868 net.cpp:148] Top shape: 100 38 (3800)
I0403 14:11:03.153304 12868 net.cpp:156] Memory required for data: 831602000
I0403 14:11:03.153318 12868 layer_factory.hpp:77] Creating layer hdf5out
I0403 14:11:03.153336 12868 net.cpp:91] Creating Layer hdf5out
I0403 14:11:03.153350 12868 net.cpp:425] hdf5out <- prob
I0403 14:11:03.153367 12868 net.cpp:425] hdf5out <- label_data_1_split_0
I0403 14:11:03.155525 12868 net.cpp:141] Setting up hdf5out
…
