…
I0403 14:07:12.886484 12743 net.cpp:313] The NetState phase (1) differed from the phase (0) specified by a rule in layer data
I0403 14:07:12.886796 12743 net.cpp:49] Initializing net from parameters: 
state {
  phase: TEST
}
layer {
  name: "data"
  type: "Data"
  top: "data"
  top: "label"
  include {
    phase: TEST
  }
  transform_param {
    crop_size: 227
    mean_file: "/home/mohanty/data/final_dataset/lmdb/grayscale-80-20/mean.binaryproto"
  }
  data_param {
    source: "/home/mohanty/data/final_dataset/lmdb/grayscale-80-20/test_db"
    batch_size: 100
    backend: LMDB
  }
}
layer {
  name: "conv1"
  type: "Convolution"
  bottom: "data"
  top: "conv1"
  param {
    lr_mult: 1
    decay_mult: 1
  }
  param {
    lr_mult: 2
    decay_mult: 0
  }
  convolution_param {
    num_output: 96
    kernel_size: 11
    stride: 4
    weight_filler {
      type: "gaussian"
      std: 0.01
    }
    bias_filler {
      type: "constant"
      value: 0
    }
  }
}
layer {
  name: "relu1"
  type: "ReLU"
  bottom: "conv1"
  top: "conv1"
}
layer {
  name: "norm1"
  type: "LRN"
  bottom: "conv1"
  top: "norm1"
  lrn_param {
    local_size: 5
    alpha: 0.0001
    beta: 0.75
  }
}
layer {
  name: "pool1"
  type: "Pooling"
  bottom: "norm1"
  top: "pool1"
  pooling_param {
    pool: MAX
    kernel_size: 3
    stride: 2
  }
}
layer {
  name: "conv2"
  type: "Convolution"
  bottom: "pool1"
  top: "conv2"
  param {
    lr_mult: 1
    decay_mult: 1
  }
  param {
    lr_mult: 2
    decay_mult: 0
  }
  convolution_param {
    num_output: 256
    pad: 2
    kernel_size: 5
    group: 2
    weight_filler {
      type: "gaussian"
      std: 0.01
    }
    bias_filler {
      type: "constant"
      value: 0.1
    }
  }
}
layer {
  name: "relu2"
  type: "ReLU"
  bottom: "conv2"
  top: "conv2"
}
layer {
  name: "norm2"
  type: "LRN"
  bottom: "conv2"
  top: "norm2"
  lrn_param {
    local_size: 5
    alpha: 0.0001
    beta: 0.75
  }
}
layer {
  name: "pool2"
  type: "Pooling"
  bottom: "norm2"
  top: "pool2"
  pooling_param {
    pool: MAX
    kernel_size: 3
    stride: 2
  }
}
layer {
  name: "conv3"
  type: "Convolution"
  bottom: "pool2"
  top: "conv3"
  param {
    lr_mult: 1
    decay_mult: 1
  }
  param {
    lr_mult: 2
    decay_mult: 0
  }
  convolution_param {
    num_output: 384
    pad: 1
    kernel_size: 3
    weight_filler {
      type: "gaussian"
      std: 0.01
    }
    bias_filler {
      type: "constant"
      value: 0
    }
  }
}
layer {
  name: "relu3"
  type: "ReLU"
  bottom: "conv3"
  top: "conv3"
}
layer {
  name: "conv4"
  type: "Convolution"
  bottom: "conv3"
  top: "conv4"
  param {
    lr_mult: 1
    decay_mult: 1
  }
  param {
    lr_mult: 2
    decay_mult: 0
  }
  convolution_param {
    num_output: 384
    pad: 1
    kernel_size: 3
    group: 2
    weight_filler {
      type: "gaussian"
      std: 0.01
    }
    bias_filler {
      type: "constant"
      value: 0.1
    }
  }
}
layer {
  name: "relu4"
  type: "ReLU"
  bottom: "conv4"
  top: "conv4"
}
layer {
  name: "conv5"
  type: "Convolution"
  bottom: "conv4"
  top: "conv5"
  param {
    lr_mult: 1
    decay_mult: 1
  }
  param {
    lr_mult: 2
    decay_mult: 0
  }
  convolution_param {
    num_output: 256
    pad: 1
    kernel_size: 3
    group: 2
    weight_filler {
      type: "gaussian"
      std: 0.01
    }
    bias_filler {
      type: "constant"
      value: 0.1
    }
  }
}
layer {
  name: "relu5"
  type: "ReLU"
  bottom: "conv5"
  top: "conv5"
}
layer {
  name: "pool5"
  type: "Pooling"
  bottom: "conv5"
  top: "pool5"
  pooling_param {
    pool: MAX
    kernel_size: 3
    stride: 2
  }
}
layer {
  name: "fc6"
  type: "InnerProduct"
  bottom: "pool5"
  top: "fc6"
  param {
    lr_mult: 1
    decay_mult: 1
  }
  param {
    lr_mult: 2
    decay_mult: 0
  }
  inner_product_param {
    num_output: 4096
    weight_filler {
      type: "gaussian"
      std: 0.005
    }
    bias_filler {
      type: "constant"
      value: 0.1
    }
  }
}
layer {
  name: "relu6"
  type: "ReLU"
  bottom: "fc6"
  top: "fc6"
}
layer {
  name: "drop6"
  type: "Dropout"
  bottom: "fc6"
  top: "fc6"
  dropout_param {
    dropout_ratio: 0.5
  }
}
layer {
  name: "fc7"
  type: "InnerProduct"
  bottom: "fc6"
  top: "fc7"
  param {
    lr_mult: 1
    decay_mult: 1
  }
  param {
    lr_mult: 2
    decay_mult: 0
  }
  inner_product_param {
    num_output: 4096
    weight_filler {
      type: "gaussian"
      std: 0.005
    }
    bias_filler {
      type: "constant"
      value: 0.1
    }
  }
}
layer {
  name: "relu7"
  type: "ReLU"
  bottom: "fc7"
  top: "fc7"
}
layer {
  name: "drop7"
  type: "Dropout"
  bottom: "fc7"
  top: "fc7"
  dropout_param {
    dropout_ratio: 0.5
  }
}
layer {
  name: "fc8_plantvillage"
  type: "InnerProduct"
  bottom: "fc7"
  top: "fc8_plantvillage"
  param {
    lr_mult: 1
    decay_mult: 1
  }
  param {
    lr_mult: 2
    decay_mult: 0
  }
  inner_product_param {
    num_output: 38
    weight_filler {
      type: "gaussian"
      std: 0.01
    }
    bias_filler {
      type: "constant"
      value: 0
    }
  }
}
layer {
  name: "prob"
  type: "Softmax"
  bottom: "fc8_plantvillage"
  top: "prob"
  include {
    phase: TEST
  }
}
layer {
  name: "hdf5out"
  type: "HDF5Output"
  bottom: "prob"
  bottom: "label"
  include {
    phase: TEST
  }
  hdf5_output_param {
    file_name: "hdf5_dumps/iter_6976.h5"
  }
}
layer {
  name: "loss"
  type: "SoftmaxWithLoss"
  bottom: "fc8_plantvillage"
  bottom: "label"
  top: "loss"
}
layer {
  name: "accuracy"
  type: "Accuracy"
  bottom: "fc8_plantvillage"
  bottom: "label"
  top: "accuracy"
  include {
    phase: TEST
  }
}
I0403 14:07:12.887388 12743 layer_factory.hpp:77] Creating layer data
I0403 14:07:12.888031 12743 net.cpp:91] Creating Layer data
I0403 14:07:12.888064 12743 net.cpp:399] data -> data
I0403 14:07:12.888114 12743 net.cpp:399] data -> label
I0403 14:07:12.888151 12743 data_transformer.cpp:25] Loading mean file from: /home/mohanty/data/final_dataset/lmdb/grayscale-80-20/mean.binaryproto
I0403 14:07:12.891263 12747 db_lmdb.cpp:38] Opened lmdb /home/mohanty/data/final_dataset/lmdb/grayscale-80-20/test_db
I0403 14:07:12.902479 12743 data_layer.cpp:41] output data size: 100,3,227,227
I0403 14:07:13.022213 12743 net.cpp:141] Setting up data
I0403 14:07:13.022271 12743 net.cpp:148] Top shape: 100 3 227 227 (15458700)
I0403 14:07:13.022295 12743 net.cpp:148] Top shape: 100 (100)
I0403 14:07:13.022311 12743 net.cpp:156] Memory required for data: 61835200
I0403 14:07:13.022341 12743 layer_factory.hpp:77] Creating layer label_data_1_split
I0403 14:07:13.022367 12743 net.cpp:91] Creating Layer label_data_1_split
I0403 14:07:13.022384 12743 net.cpp:425] label_data_1_split <- label
I0403 14:07:13.022416 12743 net.cpp:399] label_data_1_split -> label_data_1_split_0
I0403 14:07:13.022444 12743 net.cpp:399] label_data_1_split -> label_data_1_split_1
I0403 14:07:13.022465 12743 net.cpp:399] label_data_1_split -> label_data_1_split_2
I0403 14:07:13.022526 12743 net.cpp:141] Setting up label_data_1_split
I0403 14:07:13.022563 12743 net.cpp:148] Top shape: 100 (100)
I0403 14:07:13.022581 12743 net.cpp:148] Top shape: 100 (100)
I0403 14:07:13.022601 12743 net.cpp:148] Top shape: 100 (100)
I0403 14:07:13.022619 12743 net.cpp:156] Memory required for data: 61836400
I0403 14:07:13.022634 12743 layer_factory.hpp:77] Creating layer conv1
I0403 14:07:13.022666 12743 net.cpp:91] Creating Layer conv1
I0403 14:07:13.022686 12743 net.cpp:425] conv1 <- data
I0403 14:07:13.022707 12743 net.cpp:399] conv1 -> conv1
I0403 14:07:13.160526 12743 net.cpp:141] Setting up conv1
I0403 14:07:13.160586 12743 net.cpp:148] Top shape: 100 96 55 55 (29040000)
I0403 14:07:13.160609 12743 net.cpp:156] Memory required for data: 177996400
I0403 14:07:13.160641 12743 layer_factory.hpp:77] Creating layer relu1
I0403 14:07:13.160668 12743 net.cpp:91] Creating Layer relu1
I0403 14:07:13.160687 12743 net.cpp:425] relu1 <- conv1
I0403 14:07:13.160711 12743 net.cpp:386] relu1 -> conv1 (in-place)
I0403 14:07:13.160992 12743 net.cpp:141] Setting up relu1
I0403 14:07:13.161020 12743 net.cpp:148] Top shape: 100 96 55 55 (29040000)
I0403 14:07:13.161072 12743 net.cpp:156] Memory required for data: 294156400
I0403 14:07:13.161089 12743 layer_factory.hpp:77] Creating layer norm1
I0403 14:07:13.161118 12743 net.cpp:91] Creating Layer norm1
I0403 14:07:13.161137 12743 net.cpp:425] norm1 <- conv1
I0403 14:07:13.161159 12743 net.cpp:399] norm1 -> norm1
I0403 14:07:13.161484 12743 net.cpp:141] Setting up norm1
I0403 14:07:13.161514 12743 net.cpp:148] Top shape: 100 96 55 55 (29040000)
I0403 14:07:13.161530 12743 net.cpp:156] Memory required for data: 410316400
I0403 14:07:13.161546 12743 layer_factory.hpp:77] Creating layer pool1
I0403 14:07:13.161568 12743 net.cpp:91] Creating Layer pool1
I0403 14:07:13.161586 12743 net.cpp:425] pool1 <- norm1
I0403 14:07:13.161613 12743 net.cpp:399] pool1 -> pool1
I0403 14:07:13.161685 12743 net.cpp:141] Setting up pool1
I0403 14:07:13.161710 12743 net.cpp:148] Top shape: 100 96 27 27 (6998400)
I0403 14:07:13.161726 12743 net.cpp:156] Memory required for data: 438310000
I0403 14:07:13.161741 12743 layer_factory.hpp:77] Creating layer conv2
I0403 14:07:13.161768 12743 net.cpp:91] Creating Layer conv2
I0403 14:07:13.161785 12743 net.cpp:425] conv2 <- pool1
I0403 14:07:13.161805 12743 net.cpp:399] conv2 -> conv2
I0403 14:07:13.176995 12743 net.cpp:141] Setting up conv2
I0403 14:07:13.177055 12743 net.cpp:148] Top shape: 100 256 27 27 (18662400)
I0403 14:07:13.177073 12743 net.cpp:156] Memory required for data: 512959600
I0403 14:07:13.177096 12743 layer_factory.hpp:77] Creating layer relu2
I0403 14:07:13.177119 12743 net.cpp:91] Creating Layer relu2
I0403 14:07:13.177135 12743 net.cpp:425] relu2 <- conv2
I0403 14:07:13.177153 12743 net.cpp:386] relu2 -> conv2 (in-place)
I0403 14:07:13.177438 12743 net.cpp:141] Setting up relu2
I0403 14:07:13.177465 12743 net.cpp:148] Top shape: 100 256 27 27 (18662400)
I0403 14:07:13.177480 12743 net.cpp:156] Memory required for data: 587609200
I0403 14:07:13.177495 12743 layer_factory.hpp:77] Creating layer norm2
I0403 14:07:13.177520 12743 net.cpp:91] Creating Layer norm2
I0403 14:07:13.177537 12743 net.cpp:425] norm2 <- conv2
I0403 14:07:13.177556 12743 net.cpp:399] norm2 -> norm2
I0403 14:07:13.177769 12743 net.cpp:141] Setting up norm2
I0403 14:07:13.177798 12743 net.cpp:148] Top shape: 100 256 27 27 (18662400)
I0403 14:07:13.177815 12743 net.cpp:156] Memory required for data: 662258800
I0403 14:07:13.177830 12743 layer_factory.hpp:77] Creating layer pool2
I0403 14:07:13.177850 12743 net.cpp:91] Creating Layer pool2
I0403 14:07:13.177866 12743 net.cpp:425] pool2 <- norm2
I0403 14:07:13.177883 12743 net.cpp:399] pool2 -> pool2
I0403 14:07:13.177945 12743 net.cpp:141] Setting up pool2
I0403 14:07:13.177969 12743 net.cpp:148] Top shape: 100 256 13 13 (4326400)
I0403 14:07:13.177984 12743 net.cpp:156] Memory required for data: 679564400
I0403 14:07:13.177999 12743 layer_factory.hpp:77] Creating layer conv3
I0403 14:07:13.178023 12743 net.cpp:91] Creating Layer conv3
I0403 14:07:13.178040 12743 net.cpp:425] conv3 <- pool2
I0403 14:07:13.178061 12743 net.cpp:399] conv3 -> conv3
I0403 14:07:13.216156 12743 net.cpp:141] Setting up conv3
I0403 14:07:13.216209 12743 net.cpp:148] Top shape: 100 384 13 13 (6489600)
I0403 14:07:13.216226 12743 net.cpp:156] Memory required for data: 705522800
I0403 14:07:13.216253 12743 layer_factory.hpp:77] Creating layer relu3
I0403 14:07:13.216277 12743 net.cpp:91] Creating Layer relu3
I0403 14:07:13.216295 12743 net.cpp:425] relu3 <- conv3
I0403 14:07:13.216315 12743 net.cpp:386] relu3 -> conv3 (in-place)
I0403 14:07:13.216584 12743 net.cpp:141] Setting up relu3
I0403 14:07:13.216617 12743 net.cpp:148] Top shape: 100 384 13 13 (6489600)
I0403 14:07:13.216634 12743 net.cpp:156] Memory required for data: 731481200
I0403 14:07:13.216648 12743 layer_factory.hpp:77] Creating layer conv4
I0403 14:07:13.216675 12743 net.cpp:91] Creating Layer conv4
I0403 14:07:13.216692 12743 net.cpp:425] conv4 <- conv3
I0403 14:07:13.216711 12743 net.cpp:399] conv4 -> conv4
I0403 14:07:13.252158 12743 net.cpp:141] Setting up conv4
I0403 14:07:13.252215 12743 net.cpp:148] Top shape: 100 384 13 13 (6489600)
I0403 14:07:13.252267 12743 net.cpp:156] Memory required for data: 757439600
I0403 14:07:13.252290 12743 layer_factory.hpp:77] Creating layer relu4
I0403 14:07:13.252313 12743 net.cpp:91] Creating Layer relu4
I0403 14:07:13.252331 12743 net.cpp:425] relu4 <- conv4
I0403 14:07:13.252351 12743 net.cpp:386] relu4 -> conv4 (in-place)
I0403 14:07:13.252630 12743 net.cpp:141] Setting up relu4
I0403 14:07:13.252658 12743 net.cpp:148] Top shape: 100 384 13 13 (6489600)
I0403 14:07:13.252674 12743 net.cpp:156] Memory required for data: 783398000
I0403 14:07:13.252691 12743 layer_factory.hpp:77] Creating layer conv5
I0403 14:07:13.252720 12743 net.cpp:91] Creating Layer conv5
I0403 14:07:13.252743 12743 net.cpp:425] conv5 <- conv4
I0403 14:07:13.252768 12743 net.cpp:399] conv5 -> conv5
I0403 14:07:13.273411 12743 net.cpp:141] Setting up conv5
I0403 14:07:13.273471 12743 net.cpp:148] Top shape: 100 256 13 13 (4326400)
I0403 14:07:13.273489 12743 net.cpp:156] Memory required for data: 800703600
I0403 14:07:13.273514 12743 layer_factory.hpp:77] Creating layer relu5
I0403 14:07:13.273535 12743 net.cpp:91] Creating Layer relu5
I0403 14:07:13.273553 12743 net.cpp:425] relu5 <- conv5
I0403 14:07:13.273571 12743 net.cpp:386] relu5 -> conv5 (in-place)
I0403 14:07:13.273855 12743 net.cpp:141] Setting up relu5
I0403 14:07:13.273886 12743 net.cpp:148] Top shape: 100 256 13 13 (4326400)
I0403 14:07:13.273905 12743 net.cpp:156] Memory required for data: 818009200
I0403 14:07:13.273919 12743 layer_factory.hpp:77] Creating layer pool5
I0403 14:07:13.273942 12743 net.cpp:91] Creating Layer pool5
I0403 14:07:13.273958 12743 net.cpp:425] pool5 <- conv5
I0403 14:07:13.273980 12743 net.cpp:399] pool5 -> pool5
I0403 14:07:13.274044 12743 net.cpp:141] Setting up pool5
I0403 14:07:13.274067 12743 net.cpp:148] Top shape: 100 256 6 6 (921600)
I0403 14:07:13.274082 12743 net.cpp:156] Memory required for data: 821695600
I0403 14:07:13.274099 12743 layer_factory.hpp:77] Creating layer fc6
I0403 14:07:13.274127 12743 net.cpp:91] Creating Layer fc6
I0403 14:07:13.274147 12743 net.cpp:425] fc6 <- pool5
I0403 14:07:13.274166 12743 net.cpp:399] fc6 -> fc6
I0403 14:07:14.815016 12743 net.cpp:141] Setting up fc6
I0403 14:07:14.815057 12743 net.cpp:148] Top shape: 100 4096 (409600)
I0403 14:07:14.815073 12743 net.cpp:156] Memory required for data: 823334000
I0403 14:07:14.815093 12743 layer_factory.hpp:77] Creating layer relu6
I0403 14:07:14.815117 12743 net.cpp:91] Creating Layer relu6
I0403 14:07:14.815137 12743 net.cpp:425] relu6 <- fc6
I0403 14:07:14.815156 12743 net.cpp:386] relu6 -> fc6 (in-place)
I0403 14:07:14.815366 12743 net.cpp:141] Setting up relu6
I0403 14:07:14.815394 12743 net.cpp:148] Top shape: 100 4096 (409600)
I0403 14:07:14.815410 12743 net.cpp:156] Memory required for data: 824972400
I0403 14:07:14.815428 12743 layer_factory.hpp:77] Creating layer drop6
I0403 14:07:14.815445 12743 net.cpp:91] Creating Layer drop6
I0403 14:07:14.815460 12743 net.cpp:425] drop6 <- fc6
I0403 14:07:14.815476 12743 net.cpp:386] drop6 -> fc6 (in-place)
I0403 14:07:14.815527 12743 net.cpp:141] Setting up drop6
I0403 14:07:14.815549 12743 net.cpp:148] Top shape: 100 4096 (409600)
I0403 14:07:14.815563 12743 net.cpp:156] Memory required for data: 826610800
I0403 14:07:14.815577 12743 layer_factory.hpp:77] Creating layer fc7
I0403 14:07:14.815603 12743 net.cpp:91] Creating Layer fc7
I0403 14:07:14.815619 12743 net.cpp:425] fc7 <- fc6
I0403 14:07:14.815636 12743 net.cpp:399] fc7 -> fc7
I0403 14:07:15.495471 12743 net.cpp:141] Setting up fc7
I0403 14:07:15.495543 12743 net.cpp:148] Top shape: 100 4096 (409600)
I0403 14:07:15.495560 12743 net.cpp:156] Memory required for data: 828249200
I0403 14:07:15.495580 12743 layer_factory.hpp:77] Creating layer relu7
I0403 14:07:15.495609 12743 net.cpp:91] Creating Layer relu7
I0403 14:07:15.495630 12743 net.cpp:425] relu7 <- fc7
I0403 14:07:15.495648 12743 net.cpp:386] relu7 -> fc7 (in-place)
I0403 14:07:15.496052 12743 net.cpp:141] Setting up relu7
I0403 14:07:15.496080 12743 net.cpp:148] Top shape: 100 4096 (409600)
I0403 14:07:15.496130 12743 net.cpp:156] Memory required for data: 829887600
I0403 14:07:15.496152 12743 layer_factory.hpp:77] Creating layer drop7
I0403 14:07:15.496172 12743 net.cpp:91] Creating Layer drop7
I0403 14:07:15.496192 12743 net.cpp:425] drop7 <- fc7
I0403 14:07:15.496214 12743 net.cpp:386] drop7 -> fc7 (in-place)
I0403 14:07:15.496268 12743 net.cpp:141] Setting up drop7
I0403 14:07:15.496299 12743 net.cpp:148] Top shape: 100 4096 (409600)
I0403 14:07:15.496321 12743 net.cpp:156] Memory required for data: 831526000
I0403 14:07:15.496336 12743 layer_factory.hpp:77] Creating layer fc8_plantvillage
I0403 14:07:15.496357 12743 net.cpp:91] Creating Layer fc8_plantvillage
I0403 14:07:15.496373 12743 net.cpp:425] fc8_plantvillage <- fc7
I0403 14:07:15.496390 12743 net.cpp:399] fc8_plantvillage -> fc8_plantvillage
I0403 14:07:15.503031 12743 net.cpp:141] Setting up fc8_plantvillage
I0403 14:07:15.503060 12743 net.cpp:148] Top shape: 100 38 (3800)
I0403 14:07:15.503075 12743 net.cpp:156] Memory required for data: 831541200
I0403 14:07:15.503093 12743 layer_factory.hpp:77] Creating layer fc8_plantvillage_fc8_plantvillage_0_split
I0403 14:07:15.503110 12743 net.cpp:91] Creating Layer fc8_plantvillage_fc8_plantvillage_0_split
I0403 14:07:15.503125 12743 net.cpp:425] fc8_plantvillage_fc8_plantvillage_0_split <- fc8_plantvillage
I0403 14:07:15.503142 12743 net.cpp:399] fc8_plantvillage_fc8_plantvillage_0_split -> fc8_plantvillage_fc8_plantvillage_0_split_0
I0403 14:07:15.503164 12743 net.cpp:399] fc8_plantvillage_fc8_plantvillage_0_split -> fc8_plantvillage_fc8_plantvillage_0_split_1
I0403 14:07:15.503183 12743 net.cpp:399] fc8_plantvillage_fc8_plantvillage_0_split -> fc8_plantvillage_fc8_plantvillage_0_split_2
I0403 14:07:15.503258 12743 net.cpp:141] Setting up fc8_plantvillage_fc8_plantvillage_0_split
I0403 14:07:15.503281 12743 net.cpp:148] Top shape: 100 38 (3800)
I0403 14:07:15.503296 12743 net.cpp:148] Top shape: 100 38 (3800)
I0403 14:07:15.503311 12743 net.cpp:148] Top shape: 100 38 (3800)
I0403 14:07:15.503324 12743 net.cpp:156] Memory required for data: 831586800
I0403 14:07:15.503339 12743 layer_factory.hpp:77] Creating layer prob
I0403 14:07:15.503355 12743 net.cpp:91] Creating Layer prob
I0403 14:07:15.503371 12743 net.cpp:425] prob <- fc8_plantvillage_fc8_plantvillage_0_split_0
I0403 14:07:15.503387 12743 net.cpp:399] prob -> prob
I0403 14:07:15.503614 12743 net.cpp:141] Setting up prob
I0403 14:07:15.503639 12743 net.cpp:148] Top shape: 100 38 (3800)
I0403 14:07:15.503654 12743 net.cpp:156] Memory required for data: 831602000
I0403 14:07:15.503667 12743 layer_factory.hpp:77] Creating layer hdf5out
I0403 14:07:15.503690 12743 net.cpp:91] Creating Layer hdf5out
I0403 14:07:15.503706 12743 net.cpp:425] hdf5out <- prob
I0403 14:07:15.503721 12743 net.cpp:425] hdf5out <- label_data_1_split_0
I0403 14:07:15.505924 12743 net.cpp:141] Setting up hdf5out
…
