…
I0403 14:08:05.011878 12768 net.cpp:313] The NetState phase (1) differed from the phase (0) specified by a rule in layer data
I0403 14:08:05.012167 12768 net.cpp:49] Initializing net from parameters: 
state {
  phase: TEST
}
layer {
  name: "data"
  type: "Data"
  top: "data"
  top: "label"
  include {
    phase: TEST
  }
  transform_param {
    crop_size: 227
    mean_file: "/home/mohanty/data/final_dataset/lmdb/grayscale-80-20/mean.binaryproto"
  }
  data_param {
    source: "/home/mohanty/data/final_dataset/lmdb/grayscale-80-20/test_db"
    batch_size: 100
    backend: LMDB
  }
}
layer {
  name: "conv1"
  type: "Convolution"
  bottom: "data"
  top: "conv1"
  param {
    lr_mult: 1
    decay_mult: 1
  }
  param {
    lr_mult: 2
    decay_mult: 0
  }
  convolution_param {
    num_output: 96
    kernel_size: 11
    stride: 4
    weight_filler {
      type: "gaussian"
      std: 0.01
    }
    bias_filler {
      type: "constant"
      value: 0
    }
  }
}
layer {
  name: "relu1"
  type: "ReLU"
  bottom: "conv1"
  top: "conv1"
}
layer {
  name: "norm1"
  type: "LRN"
  bottom: "conv1"
  top: "norm1"
  lrn_param {
    local_size: 5
    alpha: 0.0001
    beta: 0.75
  }
}
layer {
  name: "pool1"
  type: "Pooling"
  bottom: "norm1"
  top: "pool1"
  pooling_param {
    pool: MAX
    kernel_size: 3
    stride: 2
  }
}
layer {
  name: "conv2"
  type: "Convolution"
  bottom: "pool1"
  top: "conv2"
  param {
    lr_mult: 1
    decay_mult: 1
  }
  param {
    lr_mult: 2
    decay_mult: 0
  }
  convolution_param {
    num_output: 256
    pad: 2
    kernel_size: 5
    group: 2
    weight_filler {
      type: "gaussian"
      std: 0.01
    }
    bias_filler {
      type: "constant"
      value: 0.1
    }
  }
}
layer {
  name: "relu2"
  type: "ReLU"
  bottom: "conv2"
  top: "conv2"
}
layer {
  name: "norm2"
  type: "LRN"
  bottom: "conv2"
  top: "norm2"
  lrn_param {
    local_size: 5
    alpha: 0.0001
    beta: 0.75
  }
}
layer {
  name: "pool2"
  type: "Pooling"
  bottom: "norm2"
  top: "pool2"
  pooling_param {
    pool: MAX
    kernel_size: 3
    stride: 2
  }
}
layer {
  name: "conv3"
  type: "Convolution"
  bottom: "pool2"
  top: "conv3"
  param {
    lr_mult: 1
    decay_mult: 1
  }
  param {
    lr_mult: 2
    decay_mult: 0
  }
  convolution_param {
    num_output: 384
    pad: 1
    kernel_size: 3
    weight_filler {
      type: "gaussian"
      std: 0.01
    }
    bias_filler {
      type: "constant"
      value: 0
    }
  }
}
layer {
  name: "relu3"
  type: "ReLU"
  bottom: "conv3"
  top: "conv3"
}
layer {
  name: "conv4"
  type: "Convolution"
  bottom: "conv3"
  top: "conv4"
  param {
    lr_mult: 1
    decay_mult: 1
  }
  param {
    lr_mult: 2
    decay_mult: 0
  }
  convolution_param {
    num_output: 384
    pad: 1
    kernel_size: 3
    group: 2
    weight_filler {
      type: "gaussian"
      std: 0.01
    }
    bias_filler {
      type: "constant"
      value: 0.1
    }
  }
}
layer {
  name: "relu4"
  type: "ReLU"
  bottom: "conv4"
  top: "conv4"
}
layer {
  name: "conv5"
  type: "Convolution"
  bottom: "conv4"
  top: "conv5"
  param {
    lr_mult: 1
    decay_mult: 1
  }
  param {
    lr_mult: 2
    decay_mult: 0
  }
  convolution_param {
    num_output: 256
    pad: 1
    kernel_size: 3
    group: 2
    weight_filler {
      type: "gaussian"
      std: 0.01
    }
    bias_filler {
      type: "constant"
      value: 0.1
    }
  }
}
layer {
  name: "relu5"
  type: "ReLU"
  bottom: "conv5"
  top: "conv5"
}
layer {
  name: "pool5"
  type: "Pooling"
  bottom: "conv5"
  top: "pool5"
  pooling_param {
    pool: MAX
    kernel_size: 3
    stride: 2
  }
}
layer {
  name: "fc6"
  type: "InnerProduct"
  bottom: "pool5"
  top: "fc6"
  param {
    lr_mult: 1
    decay_mult: 1
  }
  param {
    lr_mult: 2
    decay_mult: 0
  }
  inner_product_param {
    num_output: 4096
    weight_filler {
      type: "gaussian"
      std: 0.005
    }
    bias_filler {
      type: "constant"
      value: 0.1
    }
  }
}
layer {
  name: "relu6"
  type: "ReLU"
  bottom: "fc6"
  top: "fc6"
}
layer {
  name: "drop6"
  type: "Dropout"
  bottom: "fc6"
  top: "fc6"
  dropout_param {
    dropout_ratio: 0.5
  }
}
layer {
  name: "fc7"
  type: "InnerProduct"
  bottom: "fc6"
  top: "fc7"
  param {
    lr_mult: 1
    decay_mult: 1
  }
  param {
    lr_mult: 2
    decay_mult: 0
  }
  inner_product_param {
    num_output: 4096
    weight_filler {
      type: "gaussian"
      std: 0.005
    }
    bias_filler {
      type: "constant"
      value: 0.1
    }
  }
}
layer {
  name: "relu7"
  type: "ReLU"
  bottom: "fc7"
  top: "fc7"
}
layer {
  name: "drop7"
  type: "Dropout"
  bottom: "fc7"
  top: "fc7"
  dropout_param {
    dropout_ratio: 0.5
  }
}
layer {
  name: "fc8_plantvillage"
  type: "InnerProduct"
  bottom: "fc7"
  top: "fc8_plantvillage"
  param {
    lr_mult: 1
    decay_mult: 1
  }
  param {
    lr_mult: 2
    decay_mult: 0
  }
  inner_product_param {
    num_output: 38
    weight_filler {
      type: "gaussian"
      std: 0.01
    }
    bias_filler {
      type: "constant"
      value: 0
    }
  }
}
layer {
  name: "prob"
  type: "Softmax"
  bottom: "fc8_plantvillage"
  top: "prob"
  include {
    phase: TEST
  }
}
layer {
  name: "hdf5out"
  type: "HDF5Output"
  bottom: "prob"
  bottom: "label"
  include {
    phase: TEST
  }
  hdf5_output_param {
    file_name: "hdf5_dumps/iter_7848.h5"
  }
}
layer {
  name: "loss"
  type: "SoftmaxWithLoss"
  bottom: "fc8_plantvillage"
  bottom: "label"
  top: "loss"
}
layer {
  name: "accuracy"
  type: "Accuracy"
  bottom: "fc8_plantvillage"
  bottom: "label"
  top: "accuracy"
  include {
    phase: TEST
  }
}
I0403 14:08:05.012841 12768 layer_factory.hpp:77] Creating layer data
I0403 14:08:05.013485 12768 net.cpp:91] Creating Layer data
I0403 14:08:05.013516 12768 net.cpp:399] data -> data
I0403 14:08:05.013566 12768 net.cpp:399] data -> label
I0403 14:08:05.013610 12768 data_transformer.cpp:25] Loading mean file from: /home/mohanty/data/final_dataset/lmdb/grayscale-80-20/mean.binaryproto
I0403 14:08:05.015974 12772 db_lmdb.cpp:38] Opened lmdb /home/mohanty/data/final_dataset/lmdb/grayscale-80-20/test_db
I0403 14:08:05.028369 12768 data_layer.cpp:41] output data size: 100,3,227,227
I0403 14:08:05.149538 12768 net.cpp:141] Setting up data
I0403 14:08:05.149636 12768 net.cpp:148] Top shape: 100 3 227 227 (15458700)
I0403 14:08:05.149659 12768 net.cpp:148] Top shape: 100 (100)
I0403 14:08:05.149674 12768 net.cpp:156] Memory required for data: 61835200
I0403 14:08:05.149703 12768 layer_factory.hpp:77] Creating layer label_data_1_split
I0403 14:08:05.149729 12768 net.cpp:91] Creating Layer label_data_1_split
I0403 14:08:05.149747 12768 net.cpp:425] label_data_1_split <- label
I0403 14:08:05.149780 12768 net.cpp:399] label_data_1_split -> label_data_1_split_0
I0403 14:08:05.149807 12768 net.cpp:399] label_data_1_split -> label_data_1_split_1
I0403 14:08:05.149828 12768 net.cpp:399] label_data_1_split -> label_data_1_split_2
I0403 14:08:05.149893 12768 net.cpp:141] Setting up label_data_1_split
I0403 14:08:05.149917 12768 net.cpp:148] Top shape: 100 (100)
I0403 14:08:05.149935 12768 net.cpp:148] Top shape: 100 (100)
I0403 14:08:05.149950 12768 net.cpp:148] Top shape: 100 (100)
I0403 14:08:05.149963 12768 net.cpp:156] Memory required for data: 61836400
I0403 14:08:05.149978 12768 layer_factory.hpp:77] Creating layer conv1
I0403 14:08:05.150009 12768 net.cpp:91] Creating Layer conv1
I0403 14:08:05.150028 12768 net.cpp:425] conv1 <- data
I0403 14:08:05.150048 12768 net.cpp:399] conv1 -> conv1
I0403 14:08:05.292706 12768 net.cpp:141] Setting up conv1
I0403 14:08:05.292783 12768 net.cpp:148] Top shape: 100 96 55 55 (29040000)
I0403 14:08:05.292800 12768 net.cpp:156] Memory required for data: 177996400
I0403 14:08:05.292832 12768 layer_factory.hpp:77] Creating layer relu1
I0403 14:08:05.292860 12768 net.cpp:91] Creating Layer relu1
I0403 14:08:05.292877 12768 net.cpp:425] relu1 <- conv1
I0403 14:08:05.292896 12768 net.cpp:386] relu1 -> conv1 (in-place)
I0403 14:08:05.293151 12768 net.cpp:141] Setting up relu1
I0403 14:08:05.293179 12768 net.cpp:148] Top shape: 100 96 55 55 (29040000)
I0403 14:08:05.293228 12768 net.cpp:156] Memory required for data: 294156400
I0403 14:08:05.293246 12768 layer_factory.hpp:77] Creating layer norm1
I0403 14:08:05.293274 12768 net.cpp:91] Creating Layer norm1
I0403 14:08:05.293292 12768 net.cpp:425] norm1 <- conv1
I0403 14:08:05.293310 12768 net.cpp:399] norm1 -> norm1
I0403 14:08:05.293684 12768 net.cpp:141] Setting up norm1
I0403 14:08:05.293712 12768 net.cpp:148] Top shape: 100 96 55 55 (29040000)
I0403 14:08:05.293728 12768 net.cpp:156] Memory required for data: 410316400
I0403 14:08:05.293743 12768 layer_factory.hpp:77] Creating layer pool1
I0403 14:08:05.293766 12768 net.cpp:91] Creating Layer pool1
I0403 14:08:05.293783 12768 net.cpp:425] pool1 <- norm1
I0403 14:08:05.293800 12768 net.cpp:399] pool1 -> pool1
I0403 14:08:05.293866 12768 net.cpp:141] Setting up pool1
I0403 14:08:05.293890 12768 net.cpp:148] Top shape: 100 96 27 27 (6998400)
I0403 14:08:05.293905 12768 net.cpp:156] Memory required for data: 438310000
I0403 14:08:05.293920 12768 layer_factory.hpp:77] Creating layer conv2
I0403 14:08:05.293943 12768 net.cpp:91] Creating Layer conv2
I0403 14:08:05.293959 12768 net.cpp:425] conv2 <- pool1
I0403 14:08:05.293977 12768 net.cpp:399] conv2 -> conv2
I0403 14:08:05.309134 12768 net.cpp:141] Setting up conv2
I0403 14:08:05.309217 12768 net.cpp:148] Top shape: 100 256 27 27 (18662400)
I0403 14:08:05.309238 12768 net.cpp:156] Memory required for data: 512959600
I0403 14:08:05.309262 12768 layer_factory.hpp:77] Creating layer relu2
I0403 14:08:05.309285 12768 net.cpp:91] Creating Layer relu2
I0403 14:08:05.309303 12768 net.cpp:425] relu2 <- conv2
I0403 14:08:05.309319 12768 net.cpp:386] relu2 -> conv2 (in-place)
I0403 14:08:05.309607 12768 net.cpp:141] Setting up relu2
I0403 14:08:05.309634 12768 net.cpp:148] Top shape: 100 256 27 27 (18662400)
I0403 14:08:05.309650 12768 net.cpp:156] Memory required for data: 587609200
I0403 14:08:05.309666 12768 layer_factory.hpp:77] Creating layer norm2
I0403 14:08:05.309689 12768 net.cpp:91] Creating Layer norm2
I0403 14:08:05.309707 12768 net.cpp:425] norm2 <- conv2
I0403 14:08:05.309726 12768 net.cpp:399] norm2 -> norm2
I0403 14:08:05.309928 12768 net.cpp:141] Setting up norm2
I0403 14:08:05.309954 12768 net.cpp:148] Top shape: 100 256 27 27 (18662400)
I0403 14:08:05.309969 12768 net.cpp:156] Memory required for data: 662258800
I0403 14:08:05.309984 12768 layer_factory.hpp:77] Creating layer pool2
I0403 14:08:05.310004 12768 net.cpp:91] Creating Layer pool2
I0403 14:08:05.310021 12768 net.cpp:425] pool2 <- norm2
I0403 14:08:05.310039 12768 net.cpp:399] pool2 -> pool2
I0403 14:08:05.310091 12768 net.cpp:141] Setting up pool2
I0403 14:08:05.310114 12768 net.cpp:148] Top shape: 100 256 13 13 (4326400)
I0403 14:08:05.310129 12768 net.cpp:156] Memory required for data: 679564400
I0403 14:08:05.310143 12768 layer_factory.hpp:77] Creating layer conv3
I0403 14:08:05.310168 12768 net.cpp:91] Creating Layer conv3
I0403 14:08:05.310184 12768 net.cpp:425] conv3 <- pool2
I0403 14:08:05.310205 12768 net.cpp:399] conv3 -> conv3
I0403 14:08:05.349689 12768 net.cpp:141] Setting up conv3
I0403 14:08:05.349743 12768 net.cpp:148] Top shape: 100 384 13 13 (6489600)
I0403 14:08:05.349759 12768 net.cpp:156] Memory required for data: 705522800
I0403 14:08:05.349782 12768 layer_factory.hpp:77] Creating layer relu3
I0403 14:08:05.349804 12768 net.cpp:91] Creating Layer relu3
I0403 14:08:05.349822 12768 net.cpp:425] relu3 <- conv3
I0403 14:08:05.349839 12768 net.cpp:386] relu3 -> conv3 (in-place)
I0403 14:08:05.350106 12768 net.cpp:141] Setting up relu3
I0403 14:08:05.350132 12768 net.cpp:148] Top shape: 100 384 13 13 (6489600)
I0403 14:08:05.350147 12768 net.cpp:156] Memory required for data: 731481200
I0403 14:08:05.350162 12768 layer_factory.hpp:77] Creating layer conv4
I0403 14:08:05.350185 12768 net.cpp:91] Creating Layer conv4
I0403 14:08:05.350203 12768 net.cpp:425] conv4 <- conv3
I0403 14:08:05.350222 12768 net.cpp:399] conv4 -> conv4
I0403 14:08:05.380883 12768 net.cpp:141] Setting up conv4
I0403 14:08:05.380941 12768 net.cpp:148] Top shape: 100 384 13 13 (6489600)
I0403 14:08:05.380997 12768 net.cpp:156] Memory required for data: 757439600
I0403 14:08:05.381021 12768 layer_factory.hpp:77] Creating layer relu4
I0403 14:08:05.381042 12768 net.cpp:91] Creating Layer relu4
I0403 14:08:05.381059 12768 net.cpp:425] relu4 <- conv4
I0403 14:08:05.381080 12768 net.cpp:386] relu4 -> conv4 (in-place)
I0403 14:08:05.381368 12768 net.cpp:141] Setting up relu4
I0403 14:08:05.381397 12768 net.cpp:148] Top shape: 100 384 13 13 (6489600)
I0403 14:08:05.381412 12768 net.cpp:156] Memory required for data: 783398000
I0403 14:08:05.381456 12768 layer_factory.hpp:77] Creating layer conv5
I0403 14:08:05.381490 12768 net.cpp:91] Creating Layer conv5
I0403 14:08:05.381508 12768 net.cpp:425] conv5 <- conv4
I0403 14:08:05.381532 12768 net.cpp:399] conv5 -> conv5
I0403 14:08:05.402497 12768 net.cpp:141] Setting up conv5
I0403 14:08:05.402562 12768 net.cpp:148] Top shape: 100 256 13 13 (4326400)
I0403 14:08:05.402578 12768 net.cpp:156] Memory required for data: 800703600
I0403 14:08:05.402606 12768 layer_factory.hpp:77] Creating layer relu5
I0403 14:08:05.402633 12768 net.cpp:91] Creating Layer relu5
I0403 14:08:05.402650 12768 net.cpp:425] relu5 <- conv5
I0403 14:08:05.402670 12768 net.cpp:386] relu5 -> conv5 (in-place)
I0403 14:08:05.402981 12768 net.cpp:141] Setting up relu5
I0403 14:08:05.403008 12768 net.cpp:148] Top shape: 100 256 13 13 (4326400)
I0403 14:08:05.403023 12768 net.cpp:156] Memory required for data: 818009200
I0403 14:08:05.403038 12768 layer_factory.hpp:77] Creating layer pool5
I0403 14:08:05.403061 12768 net.cpp:91] Creating Layer pool5
I0403 14:08:05.403077 12768 net.cpp:425] pool5 <- conv5
I0403 14:08:05.403095 12768 net.cpp:399] pool5 -> pool5
I0403 14:08:05.403154 12768 net.cpp:141] Setting up pool5
I0403 14:08:05.403177 12768 net.cpp:148] Top shape: 100 256 6 6 (921600)
I0403 14:08:05.403192 12768 net.cpp:156] Memory required for data: 821695600
I0403 14:08:05.403205 12768 layer_factory.hpp:77] Creating layer fc6
I0403 14:08:05.403234 12768 net.cpp:91] Creating Layer fc6
I0403 14:08:05.403250 12768 net.cpp:425] fc6 <- pool5
I0403 14:08:05.403269 12768 net.cpp:399] fc6 -> fc6
I0403 14:08:06.967443 12768 net.cpp:141] Setting up fc6
I0403 14:08:06.967489 12768 net.cpp:148] Top shape: 100 4096 (409600)
I0403 14:08:06.967505 12768 net.cpp:156] Memory required for data: 823334000
I0403 14:08:06.967527 12768 layer_factory.hpp:77] Creating layer relu6
I0403 14:08:06.967548 12768 net.cpp:91] Creating Layer relu6
I0403 14:08:06.967571 12768 net.cpp:425] relu6 <- fc6
I0403 14:08:06.967592 12768 net.cpp:386] relu6 -> fc6 (in-place)
I0403 14:08:06.967818 12768 net.cpp:141] Setting up relu6
I0403 14:08:06.967844 12768 net.cpp:148] Top shape: 100 4096 (409600)
I0403 14:08:06.967860 12768 net.cpp:156] Memory required for data: 824972400
I0403 14:08:06.967875 12768 layer_factory.hpp:77] Creating layer drop6
I0403 14:08:06.967895 12768 net.cpp:91] Creating Layer drop6
I0403 14:08:06.967911 12768 net.cpp:425] drop6 <- fc6
I0403 14:08:06.967928 12768 net.cpp:386] drop6 -> fc6 (in-place)
I0403 14:08:06.967978 12768 net.cpp:141] Setting up drop6
I0403 14:08:06.968003 12768 net.cpp:148] Top shape: 100 4096 (409600)
I0403 14:08:06.968019 12768 net.cpp:156] Memory required for data: 826610800
I0403 14:08:06.968034 12768 layer_factory.hpp:77] Creating layer fc7
I0403 14:08:06.968052 12768 net.cpp:91] Creating Layer fc7
I0403 14:08:06.968067 12768 net.cpp:425] fc7 <- fc6
I0403 14:08:06.968087 12768 net.cpp:399] fc7 -> fc7
I0403 14:08:07.653754 12768 net.cpp:141] Setting up fc7
I0403 14:08:07.653795 12768 net.cpp:148] Top shape: 100 4096 (409600)
I0403 14:08:07.653811 12768 net.cpp:156] Memory required for data: 828249200
I0403 14:08:07.653831 12768 layer_factory.hpp:77] Creating layer relu7
I0403 14:08:07.653852 12768 net.cpp:91] Creating Layer relu7
I0403 14:08:07.653869 12768 net.cpp:425] relu7 <- fc7
I0403 14:08:07.653889 12768 net.cpp:386] relu7 -> fc7 (in-place)
I0403 14:08:07.654304 12768 net.cpp:141] Setting up relu7
I0403 14:08:07.654330 12768 net.cpp:148] Top shape: 100 4096 (409600)
I0403 14:08:07.654362 12768 net.cpp:156] Memory required for data: 829887600
I0403 14:08:07.654378 12768 layer_factory.hpp:77] Creating layer drop7
I0403 14:08:07.654397 12768 net.cpp:91] Creating Layer drop7
I0403 14:08:07.654412 12768 net.cpp:425] drop7 <- fc7
I0403 14:08:07.654430 12768 net.cpp:386] drop7 -> fc7 (in-place)
I0403 14:08:07.654472 12768 net.cpp:141] Setting up drop7
I0403 14:08:07.654497 12768 net.cpp:148] Top shape: 100 4096 (409600)
I0403 14:08:07.654511 12768 net.cpp:156] Memory required for data: 831526000
I0403 14:08:07.654525 12768 layer_factory.hpp:77] Creating layer fc8_plantvillage
I0403 14:08:07.654543 12768 net.cpp:91] Creating Layer fc8_plantvillage
I0403 14:08:07.654567 12768 net.cpp:425] fc8_plantvillage <- fc7
I0403 14:08:07.654588 12768 net.cpp:399] fc8_plantvillage -> fc8_plantvillage
I0403 14:08:07.661387 12768 net.cpp:141] Setting up fc8_plantvillage
I0403 14:08:07.661417 12768 net.cpp:148] Top shape: 100 38 (3800)
I0403 14:08:07.661432 12768 net.cpp:156] Memory required for data: 831541200
I0403 14:08:07.661448 12768 layer_factory.hpp:77] Creating layer fc8_plantvillage_fc8_plantvillage_0_split
I0403 14:08:07.661469 12768 net.cpp:91] Creating Layer fc8_plantvillage_fc8_plantvillage_0_split
I0403 14:08:07.661484 12768 net.cpp:425] fc8_plantvillage_fc8_plantvillage_0_split <- fc8_plantvillage
I0403 14:08:07.661501 12768 net.cpp:399] fc8_plantvillage_fc8_plantvillage_0_split -> fc8_plantvillage_fc8_plantvillage_0_split_0
I0403 14:08:07.661520 12768 net.cpp:399] fc8_plantvillage_fc8_plantvillage_0_split -> fc8_plantvillage_fc8_plantvillage_0_split_1
I0403 14:08:07.661540 12768 net.cpp:399] fc8_plantvillage_fc8_plantvillage_0_split -> fc8_plantvillage_fc8_plantvillage_0_split_2
I0403 14:08:07.661625 12768 net.cpp:141] Setting up fc8_plantvillage_fc8_plantvillage_0_split
I0403 14:08:07.661648 12768 net.cpp:148] Top shape: 100 38 (3800)
I0403 14:08:07.661664 12768 net.cpp:148] Top shape: 100 38 (3800)
I0403 14:08:07.661679 12768 net.cpp:148] Top shape: 100 38 (3800)
I0403 14:08:07.661691 12768 net.cpp:156] Memory required for data: 831586800
I0403 14:08:07.661705 12768 layer_factory.hpp:77] Creating layer prob
I0403 14:08:07.661722 12768 net.cpp:91] Creating Layer prob
I0403 14:08:07.661737 12768 net.cpp:425] prob <- fc8_plantvillage_fc8_plantvillage_0_split_0
I0403 14:08:07.661754 12768 net.cpp:399] prob -> prob
I0403 14:08:07.661977 12768 net.cpp:141] Setting up prob
I0403 14:08:07.662003 12768 net.cpp:148] Top shape: 100 38 (3800)
I0403 14:08:07.662016 12768 net.cpp:156] Memory required for data: 831602000
I0403 14:08:07.662030 12768 layer_factory.hpp:77] Creating layer hdf5out
I0403 14:08:07.662048 12768 net.cpp:91] Creating Layer hdf5out
I0403 14:08:07.662063 12768 net.cpp:425] hdf5out <- prob
I0403 14:08:07.662078 12768 net.cpp:425] hdf5out <- label_data_1_split_0
I0403 14:08:07.664491 12768 net.cpp:141] Setting up hdf5out
…
