…
I0403 14:12:15.588770 12901 net.cpp:313] The NetState phase (1) differed from the phase (0) specified by a rule in layer data
I0403 14:12:15.589052 12901 net.cpp:49] Initializing net from parameters: 
state {
  phase: TEST
}
layer {
  name: "data"
  type: "Data"
  top: "data"
  top: "label"
  include {
    phase: TEST
  }
  transform_param {
    crop_size: 227
    mean_file: "/home/mohanty/data/final_dataset/lmdb/grayscale-80-20/mean.binaryproto"
  }
  data_param {
    source: "/home/mohanty/data/final_dataset/lmdb/grayscale-80-20/test_db"
    batch_size: 100
    backend: LMDB
  }
}
layer {
  name: "conv1"
  type: "Convolution"
  bottom: "data"
  top: "conv1"
  param {
    lr_mult: 1
    decay_mult: 1
  }
  param {
    lr_mult: 2
    decay_mult: 0
  }
  convolution_param {
    num_output: 96
    kernel_size: 11
    stride: 4
    weight_filler {
      type: "gaussian"
      std: 0.01
    }
    bias_filler {
      type: "constant"
      value: 0
    }
  }
}
layer {
  name: "relu1"
  type: "ReLU"
  bottom: "conv1"
  top: "conv1"
}
layer {
  name: "norm1"
  type: "LRN"
  bottom: "conv1"
  top: "norm1"
  lrn_param {
    local_size: 5
    alpha: 0.0001
    beta: 0.75
  }
}
layer {
  name: "pool1"
  type: "Pooling"
  bottom: "norm1"
  top: "pool1"
  pooling_param {
    pool: MAX
    kernel_size: 3
    stride: 2
  }
}
layer {
  name: "conv2"
  type: "Convolution"
  bottom: "pool1"
  top: "conv2"
  param {
    lr_mult: 1
    decay_mult: 1
  }
  param {
    lr_mult: 2
    decay_mult: 0
  }
  convolution_param {
    num_output: 256
    pad: 2
    kernel_size: 5
    group: 2
    weight_filler {
      type: "gaussian"
      std: 0.01
    }
    bias_filler {
      type: "constant"
      value: 0.1
    }
  }
}
layer {
  name: "relu2"
  type: "ReLU"
  bottom: "conv2"
  top: "conv2"
}
layer {
  name: "norm2"
  type: "LRN"
  bottom: "conv2"
  top: "norm2"
  lrn_param {
    local_size: 5
    alpha: 0.0001
    beta: 0.75
  }
}
layer {
  name: "pool2"
  type: "Pooling"
  bottom: "norm2"
  top: "pool2"
  pooling_param {
    pool: MAX
    kernel_size: 3
    stride: 2
  }
}
layer {
  name: "conv3"
  type: "Convolution"
  bottom: "pool2"
  top: "conv3"
  param {
    lr_mult: 1
    decay_mult: 1
  }
  param {
    lr_mult: 2
    decay_mult: 0
  }
  convolution_param {
    num_output: 384
    pad: 1
    kernel_size: 3
    weight_filler {
      type: "gaussian"
      std: 0.01
    }
    bias_filler {
      type: "constant"
      value: 0
    }
  }
}
layer {
  name: "relu3"
  type: "ReLU"
  bottom: "conv3"
  top: "conv3"
}
layer {
  name: "conv4"
  type: "Convolution"
  bottom: "conv3"
  top: "conv4"
  param {
    lr_mult: 1
    decay_mult: 1
  }
  param {
    lr_mult: 2
    decay_mult: 0
  }
  convolution_param {
    num_output: 384
    pad: 1
    kernel_size: 3
    group: 2
    weight_filler {
      type: "gaussian"
      std: 0.01
    }
    bias_filler {
      type: "constant"
      value: 0.1
    }
  }
}
layer {
  name: "relu4"
  type: "ReLU"
  bottom: "conv4"
  top: "conv4"
}
layer {
  name: "conv5"
  type: "Convolution"
  bottom: "conv4"
  top: "conv5"
  param {
    lr_mult: 1
    decay_mult: 1
  }
  param {
    lr_mult: 2
    decay_mult: 0
  }
  convolution_param {
    num_output: 256
    pad: 1
    kernel_size: 3
    group: 2
    weight_filler {
      type: "gaussian"
      std: 0.01
    }
    bias_filler {
      type: "constant"
      value: 0.1
    }
  }
}
layer {
  name: "relu5"
  type: "ReLU"
  bottom: "conv5"
  top: "conv5"
}
layer {
  name: "pool5"
  type: "Pooling"
  bottom: "conv5"
  top: "pool5"
  pooling_param {
    pool: MAX
    kernel_size: 3
    stride: 2
  }
}
layer {
  name: "fc6"
  type: "InnerProduct"
  bottom: "pool5"
  top: "fc6"
  param {
    lr_mult: 1
    decay_mult: 1
  }
  param {
    lr_mult: 2
    decay_mult: 0
  }
  inner_product_param {
    num_output: 4096
    weight_filler {
      type: "gaussian"
      std: 0.005
    }
    bias_filler {
      type: "constant"
      value: 0.1
    }
  }
}
layer {
  name: "relu6"
  type: "ReLU"
  bottom: "fc6"
  top: "fc6"
}
layer {
  name: "drop6"
  type: "Dropout"
  bottom: "fc6"
  top: "fc6"
  dropout_param {
    dropout_ratio: 0.5
  }
}
layer {
  name: "fc7"
  type: "InnerProduct"
  bottom: "fc6"
  top: "fc7"
  param {
    lr_mult: 1
    decay_mult: 1
  }
  param {
    lr_mult: 2
    decay_mult: 0
  }
  inner_product_param {
    num_output: 4096
    weight_filler {
      type: "gaussian"
      std: 0.005
    }
    bias_filler {
      type: "constant"
      value: 0.1
    }
  }
}
layer {
  name: "relu7"
  type: "ReLU"
  bottom: "fc7"
  top: "fc7"
}
layer {
  name: "drop7"
  type: "Dropout"
  bottom: "fc7"
  top: "fc7"
  dropout_param {
    dropout_ratio: 0.5
  }
}
layer {
  name: "fc8_plantvillage"
  type: "InnerProduct"
  bottom: "fc7"
  top: "fc8_plantvillage"
  param {
    lr_mult: 1
    decay_mult: 1
  }
  param {
    lr_mult: 2
    decay_mult: 0
  }
  inner_product_param {
    num_output: 38
    weight_filler {
      type: "gaussian"
      std: 0.01
    }
    bias_filler {
      type: "constant"
      value: 0
    }
  }
}
layer {
  name: "prob"
  type: "Softmax"
  bottom: "fc8_plantvillage"
  top: "prob"
  include {
    phase: TEST
  }
}
layer {
  name: "hdf5out"
  type: "HDF5Output"
  bottom: "prob"
  bottom: "label"
  include {
    phase: TEST
  }
  hdf5_output_param {
    file_name: "hdf5_dumps/iter_12208.h5"
  }
}
layer {
  name: "loss"
  type: "SoftmaxWithLoss"
  bottom: "fc8_plantvillage"
  bottom: "label"
  top: "loss"
}
layer {
  name: "accuracy"
  type: "Accuracy"
  bottom: "fc8_plantvillage"
  bottom: "label"
  top: "accuracy"
  include {
    phase: TEST
  }
}
I0403 14:12:15.589587 12901 layer_factory.hpp:77] Creating layer data
I0403 14:12:15.590206 12901 net.cpp:91] Creating Layer data
I0403 14:12:15.590235 12901 net.cpp:399] data -> data
I0403 14:12:15.590281 12901 net.cpp:399] data -> label
I0403 14:12:15.590317 12901 data_transformer.cpp:25] Loading mean file from: /home/mohanty/data/final_dataset/lmdb/grayscale-80-20/mean.binaryproto
I0403 14:12:15.593283 12905 db_lmdb.cpp:38] Opened lmdb /home/mohanty/data/final_dataset/lmdb/grayscale-80-20/test_db
I0403 14:12:15.604181 12901 data_layer.cpp:41] output data size: 100,3,227,227
I0403 14:12:15.724342 12901 net.cpp:141] Setting up data
I0403 14:12:15.724433 12901 net.cpp:148] Top shape: 100 3 227 227 (15458700)
I0403 14:12:15.724457 12901 net.cpp:148] Top shape: 100 (100)
I0403 14:12:15.724472 12901 net.cpp:156] Memory required for data: 61835200
I0403 14:12:15.724499 12901 layer_factory.hpp:77] Creating layer label_data_1_split
I0403 14:12:15.724524 12901 net.cpp:91] Creating Layer label_data_1_split
I0403 14:12:15.724541 12901 net.cpp:425] label_data_1_split <- label
I0403 14:12:15.724583 12901 net.cpp:399] label_data_1_split -> label_data_1_split_0
I0403 14:12:15.724619 12901 net.cpp:399] label_data_1_split -> label_data_1_split_1
I0403 14:12:15.724642 12901 net.cpp:399] label_data_1_split -> label_data_1_split_2
I0403 14:12:15.724704 12901 net.cpp:141] Setting up label_data_1_split
I0403 14:12:15.724727 12901 net.cpp:148] Top shape: 100 (100)
I0403 14:12:15.724743 12901 net.cpp:148] Top shape: 100 (100)
I0403 14:12:15.724761 12901 net.cpp:148] Top shape: 100 (100)
I0403 14:12:15.724774 12901 net.cpp:156] Memory required for data: 61836400
I0403 14:12:15.724789 12901 layer_factory.hpp:77] Creating layer conv1
I0403 14:12:15.724819 12901 net.cpp:91] Creating Layer conv1
I0403 14:12:15.724838 12901 net.cpp:425] conv1 <- data
I0403 14:12:15.724858 12901 net.cpp:399] conv1 -> conv1
I0403 14:12:15.865978 12901 net.cpp:141] Setting up conv1
I0403 14:12:15.866055 12901 net.cpp:148] Top shape: 100 96 55 55 (29040000)
I0403 14:12:15.866072 12901 net.cpp:156] Memory required for data: 177996400
I0403 14:12:15.866104 12901 layer_factory.hpp:77] Creating layer relu1
I0403 14:12:15.866183 12901 net.cpp:91] Creating Layer relu1
I0403 14:12:15.866205 12901 net.cpp:425] relu1 <- conv1
I0403 14:12:15.866225 12901 net.cpp:386] relu1 -> conv1 (in-place)
I0403 14:12:15.866477 12901 net.cpp:141] Setting up relu1
I0403 14:12:15.866503 12901 net.cpp:148] Top shape: 100 96 55 55 (29040000)
I0403 14:12:15.866552 12901 net.cpp:156] Memory required for data: 294156400
I0403 14:12:15.866572 12901 layer_factory.hpp:77] Creating layer norm1
I0403 14:12:15.866600 12901 net.cpp:91] Creating Layer norm1
I0403 14:12:15.866618 12901 net.cpp:425] norm1 <- conv1
I0403 14:12:15.866636 12901 net.cpp:399] norm1 -> norm1
I0403 14:12:15.866933 12901 net.cpp:141] Setting up norm1
I0403 14:12:15.866961 12901 net.cpp:148] Top shape: 100 96 55 55 (29040000)
I0403 14:12:15.866976 12901 net.cpp:156] Memory required for data: 410316400
I0403 14:12:15.866991 12901 layer_factory.hpp:77] Creating layer pool1
I0403 14:12:15.867014 12901 net.cpp:91] Creating Layer pool1
I0403 14:12:15.867030 12901 net.cpp:425] pool1 <- norm1
I0403 14:12:15.867048 12901 net.cpp:399] pool1 -> pool1
I0403 14:12:15.867113 12901 net.cpp:141] Setting up pool1
I0403 14:12:15.867136 12901 net.cpp:148] Top shape: 100 96 27 27 (6998400)
I0403 14:12:15.867151 12901 net.cpp:156] Memory required for data: 438310000
I0403 14:12:15.867166 12901 layer_factory.hpp:77] Creating layer conv2
I0403 14:12:15.867190 12901 net.cpp:91] Creating Layer conv2
I0403 14:12:15.867207 12901 net.cpp:425] conv2 <- pool1
I0403 14:12:15.867223 12901 net.cpp:399] conv2 -> conv2
I0403 14:12:15.882035 12901 net.cpp:141] Setting up conv2
I0403 14:12:15.882071 12901 net.cpp:148] Top shape: 100 256 27 27 (18662400)
I0403 14:12:15.882088 12901 net.cpp:156] Memory required for data: 512959600
I0403 14:12:15.882109 12901 layer_factory.hpp:77] Creating layer relu2
I0403 14:12:15.882128 12901 net.cpp:91] Creating Layer relu2
I0403 14:12:15.882144 12901 net.cpp:425] relu2 <- conv2
I0403 14:12:15.882163 12901 net.cpp:386] relu2 -> conv2 (in-place)
I0403 14:12:15.882434 12901 net.cpp:141] Setting up relu2
I0403 14:12:15.882462 12901 net.cpp:148] Top shape: 100 256 27 27 (18662400)
I0403 14:12:15.882477 12901 net.cpp:156] Memory required for data: 587609200
I0403 14:12:15.882491 12901 layer_factory.hpp:77] Creating layer norm2
I0403 14:12:15.882515 12901 net.cpp:91] Creating Layer norm2
I0403 14:12:15.882532 12901 net.cpp:425] norm2 <- conv2
I0403 14:12:15.882550 12901 net.cpp:399] norm2 -> norm2
I0403 14:12:15.882743 12901 net.cpp:141] Setting up norm2
I0403 14:12:15.882771 12901 net.cpp:148] Top shape: 100 256 27 27 (18662400)
I0403 14:12:15.882786 12901 net.cpp:156] Memory required for data: 662258800
I0403 14:12:15.882802 12901 layer_factory.hpp:77] Creating layer pool2
I0403 14:12:15.882818 12901 net.cpp:91] Creating Layer pool2
I0403 14:12:15.882833 12901 net.cpp:425] pool2 <- norm2
I0403 14:12:15.882853 12901 net.cpp:399] pool2 -> pool2
I0403 14:12:15.882902 12901 net.cpp:141] Setting up pool2
I0403 14:12:15.882925 12901 net.cpp:148] Top shape: 100 256 13 13 (4326400)
I0403 14:12:15.882939 12901 net.cpp:156] Memory required for data: 679564400
I0403 14:12:15.882953 12901 layer_factory.hpp:77] Creating layer conv3
I0403 14:12:15.882975 12901 net.cpp:91] Creating Layer conv3
I0403 14:12:15.883040 12901 net.cpp:425] conv3 <- pool2
I0403 14:12:15.883060 12901 net.cpp:399] conv3 -> conv3
I0403 14:12:15.923439 12901 net.cpp:141] Setting up conv3
I0403 14:12:15.923513 12901 net.cpp:148] Top shape: 100 384 13 13 (6489600)
I0403 14:12:15.923530 12901 net.cpp:156] Memory required for data: 705522800
I0403 14:12:15.923557 12901 layer_factory.hpp:77] Creating layer relu3
I0403 14:12:15.923583 12901 net.cpp:91] Creating Layer relu3
I0403 14:12:15.923602 12901 net.cpp:425] relu3 <- conv3
I0403 14:12:15.923624 12901 net.cpp:386] relu3 -> conv3 (in-place)
I0403 14:12:15.923899 12901 net.cpp:141] Setting up relu3
I0403 14:12:15.923928 12901 net.cpp:148] Top shape: 100 384 13 13 (6489600)
I0403 14:12:15.923945 12901 net.cpp:156] Memory required for data: 731481200
I0403 14:12:15.923960 12901 layer_factory.hpp:77] Creating layer conv4
I0403 14:12:15.923987 12901 net.cpp:91] Creating Layer conv4
I0403 14:12:15.924005 12901 net.cpp:425] conv4 <- conv3
I0403 14:12:15.924024 12901 net.cpp:399] conv4 -> conv4
I0403 14:12:15.953119 12901 net.cpp:141] Setting up conv4
I0403 14:12:15.953168 12901 net.cpp:148] Top shape: 100 384 13 13 (6489600)
I0403 14:12:15.953207 12901 net.cpp:156] Memory required for data: 757439600
I0403 14:12:15.953227 12901 layer_factory.hpp:77] Creating layer relu4
I0403 14:12:15.953249 12901 net.cpp:91] Creating Layer relu4
I0403 14:12:15.953269 12901 net.cpp:425] relu4 <- conv4
I0403 14:12:15.953286 12901 net.cpp:386] relu4 -> conv4 (in-place)
I0403 14:12:15.953575 12901 net.cpp:141] Setting up relu4
I0403 14:12:15.953605 12901 net.cpp:148] Top shape: 100 384 13 13 (6489600)
I0403 14:12:15.953620 12901 net.cpp:156] Memory required for data: 783398000
I0403 14:12:15.953634 12901 layer_factory.hpp:77] Creating layer conv5
I0403 14:12:15.953660 12901 net.cpp:91] Creating Layer conv5
I0403 14:12:15.953677 12901 net.cpp:425] conv5 <- conv4
I0403 14:12:15.953696 12901 net.cpp:399] conv5 -> conv5
I0403 14:12:15.973464 12901 net.cpp:141] Setting up conv5
I0403 14:12:15.973497 12901 net.cpp:148] Top shape: 100 256 13 13 (4326400)
I0403 14:12:15.973513 12901 net.cpp:156] Memory required for data: 800703600
I0403 14:12:15.973537 12901 layer_factory.hpp:77] Creating layer relu5
I0403 14:12:15.973556 12901 net.cpp:91] Creating Layer relu5
I0403 14:12:15.973577 12901 net.cpp:425] relu5 <- conv5
I0403 14:12:15.973597 12901 net.cpp:386] relu5 -> conv5 (in-place)
I0403 14:12:15.973877 12901 net.cpp:141] Setting up relu5
I0403 14:12:15.973904 12901 net.cpp:148] Top shape: 100 256 13 13 (4326400)
I0403 14:12:15.973919 12901 net.cpp:156] Memory required for data: 818009200
I0403 14:12:15.973933 12901 layer_factory.hpp:77] Creating layer pool5
I0403 14:12:15.973954 12901 net.cpp:91] Creating Layer pool5
I0403 14:12:15.973971 12901 net.cpp:425] pool5 <- conv5
I0403 14:12:15.973994 12901 net.cpp:399] pool5 -> pool5
I0403 14:12:15.974052 12901 net.cpp:141] Setting up pool5
I0403 14:12:15.974076 12901 net.cpp:148] Top shape: 100 256 6 6 (921600)
I0403 14:12:15.974089 12901 net.cpp:156] Memory required for data: 821695600
I0403 14:12:15.974103 12901 layer_factory.hpp:77] Creating layer fc6
I0403 14:12:15.974131 12901 net.cpp:91] Creating Layer fc6
I0403 14:12:15.974148 12901 net.cpp:425] fc6 <- pool5
I0403 14:12:15.974169 12901 net.cpp:399] fc6 -> fc6
I0403 14:12:17.506628 12901 net.cpp:141] Setting up fc6
I0403 14:12:17.506693 12901 net.cpp:148] Top shape: 100 4096 (409600)
I0403 14:12:17.506710 12901 net.cpp:156] Memory required for data: 823334000
I0403 14:12:17.506729 12901 layer_factory.hpp:77] Creating layer relu6
I0403 14:12:17.506753 12901 net.cpp:91] Creating Layer relu6
I0403 14:12:17.506772 12901 net.cpp:425] relu6 <- fc6
I0403 14:12:17.506789 12901 net.cpp:386] relu6 -> fc6 (in-place)
I0403 14:12:17.506999 12901 net.cpp:141] Setting up relu6
I0403 14:12:17.507025 12901 net.cpp:148] Top shape: 100 4096 (409600)
I0403 14:12:17.507040 12901 net.cpp:156] Memory required for data: 824972400
I0403 14:12:17.507053 12901 layer_factory.hpp:77] Creating layer drop6
I0403 14:12:17.507071 12901 net.cpp:91] Creating Layer drop6
I0403 14:12:17.507086 12901 net.cpp:425] drop6 <- fc6
I0403 14:12:17.507107 12901 net.cpp:386] drop6 -> fc6 (in-place)
I0403 14:12:17.507158 12901 net.cpp:141] Setting up drop6
I0403 14:12:17.507179 12901 net.cpp:148] Top shape: 100 4096 (409600)
I0403 14:12:17.507192 12901 net.cpp:156] Memory required for data: 826610800
I0403 14:12:17.507206 12901 layer_factory.hpp:77] Creating layer fc7
I0403 14:12:17.507228 12901 net.cpp:91] Creating Layer fc7
I0403 14:12:17.507243 12901 net.cpp:425] fc7 <- fc6
I0403 14:12:17.507262 12901 net.cpp:399] fc7 -> fc7
I0403 14:12:18.182211 12901 net.cpp:141] Setting up fc7
I0403 14:12:18.182265 12901 net.cpp:148] Top shape: 100 4096 (409600)
I0403 14:12:18.182281 12901 net.cpp:156] Memory required for data: 828249200
I0403 14:12:18.182304 12901 layer_factory.hpp:77] Creating layer relu7
I0403 14:12:18.182325 12901 net.cpp:91] Creating Layer relu7
I0403 14:12:18.182342 12901 net.cpp:425] relu7 <- fc7
I0403 14:12:18.182363 12901 net.cpp:386] relu7 -> fc7 (in-place)
I0403 14:12:18.182770 12901 net.cpp:141] Setting up relu7
I0403 14:12:18.182797 12901 net.cpp:148] Top shape: 100 4096 (409600)
I0403 14:12:18.182852 12901 net.cpp:156] Memory required for data: 829887600
I0403 14:12:18.182868 12901 layer_factory.hpp:77] Creating layer drop7
I0403 14:12:18.182885 12901 net.cpp:91] Creating Layer drop7
I0403 14:12:18.182900 12901 net.cpp:425] drop7 <- fc7
I0403 14:12:18.182922 12901 net.cpp:386] drop7 -> fc7 (in-place)
I0403 14:12:18.182965 12901 net.cpp:141] Setting up drop7
I0403 14:12:18.182986 12901 net.cpp:148] Top shape: 100 4096 (409600)
I0403 14:12:18.183001 12901 net.cpp:156] Memory required for data: 831526000
I0403 14:12:18.183013 12901 layer_factory.hpp:77] Creating layer fc8_plantvillage
I0403 14:12:18.183034 12901 net.cpp:91] Creating Layer fc8_plantvillage
I0403 14:12:18.183050 12901 net.cpp:425] fc8_plantvillage <- fc7
I0403 14:12:18.183069 12901 net.cpp:399] fc8_plantvillage -> fc8_plantvillage
I0403 14:12:18.189599 12901 net.cpp:141] Setting up fc8_plantvillage
I0403 14:12:18.189628 12901 net.cpp:148] Top shape: 100 38 (3800)
I0403 14:12:18.189643 12901 net.cpp:156] Memory required for data: 831541200
I0403 14:12:18.189661 12901 layer_factory.hpp:77] Creating layer fc8_plantvillage_fc8_plantvillage_0_split
I0403 14:12:18.189678 12901 net.cpp:91] Creating Layer fc8_plantvillage_fc8_plantvillage_0_split
I0403 14:12:18.189692 12901 net.cpp:425] fc8_plantvillage_fc8_plantvillage_0_split <- fc8_plantvillage
I0403 14:12:18.189712 12901 net.cpp:399] fc8_plantvillage_fc8_plantvillage_0_split -> fc8_plantvillage_fc8_plantvillage_0_split_0
I0403 14:12:18.189733 12901 net.cpp:399] fc8_plantvillage_fc8_plantvillage_0_split -> fc8_plantvillage_fc8_plantvillage_0_split_1
I0403 14:12:18.189751 12901 net.cpp:399] fc8_plantvillage_fc8_plantvillage_0_split -> fc8_plantvillage_fc8_plantvillage_0_split_2
I0403 14:12:18.189824 12901 net.cpp:141] Setting up fc8_plantvillage_fc8_plantvillage_0_split
I0403 14:12:18.189847 12901 net.cpp:148] Top shape: 100 38 (3800)
I0403 14:12:18.189862 12901 net.cpp:148] Top shape: 100 38 (3800)
I0403 14:12:18.189877 12901 net.cpp:148] Top shape: 100 38 (3800)
I0403 14:12:18.189890 12901 net.cpp:156] Memory required for data: 831586800
I0403 14:12:18.189903 12901 layer_factory.hpp:77] Creating layer prob
I0403 14:12:18.189920 12901 net.cpp:91] Creating Layer prob
I0403 14:12:18.189935 12901 net.cpp:425] prob <- fc8_plantvillage_fc8_plantvillage_0_split_0
I0403 14:12:18.189954 12901 net.cpp:399] prob -> prob
I0403 14:12:18.190172 12901 net.cpp:141] Setting up prob
I0403 14:12:18.190199 12901 net.cpp:148] Top shape: 100 38 (3800)
I0403 14:12:18.190215 12901 net.cpp:156] Memory required for data: 831602000
I0403 14:12:18.190229 12901 layer_factory.hpp:77] Creating layer hdf5out
I0403 14:12:18.190246 12901 net.cpp:91] Creating Layer hdf5out
I0403 14:12:18.190261 12901 net.cpp:425] hdf5out <- prob
I0403 14:12:18.190276 12901 net.cpp:425] hdf5out <- label_data_1_split_0
I0403 14:12:18.192783 12901 net.cpp:141] Setting up hdf5out
…
