…
I0403 14:03:51.863656 12601 net.cpp:313] The NetState phase (1) differed from the phase (0) specified by a rule in layer data
I0403 14:03:51.863936 12601 net.cpp:49] Initializing net from parameters: 
state {
  phase: TEST
}
layer {
  name: "data"
  type: "Data"
  top: "data"
  top: "label"
  include {
    phase: TEST
  }
  transform_param {
    crop_size: 227
    mean_file: "/home/mohanty/data/final_dataset/lmdb/grayscale-80-20/mean.binaryproto"
  }
  data_param {
    source: "/home/mohanty/data/final_dataset/lmdb/grayscale-80-20/test_db"
    batch_size: 100
    backend: LMDB
  }
}
layer {
  name: "conv1"
  type: "Convolution"
  bottom: "data"
  top: "conv1"
  param {
    lr_mult: 1
    decay_mult: 1
  }
  param {
    lr_mult: 2
    decay_mult: 0
  }
  convolution_param {
    num_output: 96
    kernel_size: 11
    stride: 4
    weight_filler {
      type: "gaussian"
      std: 0.01
    }
    bias_filler {
      type: "constant"
      value: 0
    }
  }
}
layer {
  name: "relu1"
  type: "ReLU"
  bottom: "conv1"
  top: "conv1"
}
layer {
  name: "norm1"
  type: "LRN"
  bottom: "conv1"
  top: "norm1"
  lrn_param {
    local_size: 5
    alpha: 0.0001
    beta: 0.75
  }
}
layer {
  name: "pool1"
  type: "Pooling"
  bottom: "norm1"
  top: "pool1"
  pooling_param {
    pool: MAX
    kernel_size: 3
    stride: 2
  }
}
layer {
  name: "conv2"
  type: "Convolution"
  bottom: "pool1"
  top: "conv2"
  param {
    lr_mult: 1
    decay_mult: 1
  }
  param {
    lr_mult: 2
    decay_mult: 0
  }
  convolution_param {
    num_output: 256
    pad: 2
    kernel_size: 5
    group: 2
    weight_filler {
      type: "gaussian"
      std: 0.01
    }
    bias_filler {
      type: "constant"
      value: 0.1
    }
  }
}
layer {
  name: "relu2"
  type: "ReLU"
  bottom: "conv2"
  top: "conv2"
}
layer {
  name: "norm2"
  type: "LRN"
  bottom: "conv2"
  top: "norm2"
  lrn_param {
    local_size: 5
    alpha: 0.0001
    beta: 0.75
  }
}
layer {
  name: "pool2"
  type: "Pooling"
  bottom: "norm2"
  top: "pool2"
  pooling_param {
    pool: MAX
    kernel_size: 3
    stride: 2
  }
}
layer {
  name: "conv3"
  type: "Convolution"
  bottom: "pool2"
  top: "conv3"
  param {
    lr_mult: 1
    decay_mult: 1
  }
  param {
    lr_mult: 2
    decay_mult: 0
  }
  convolution_param {
    num_output: 384
    pad: 1
    kernel_size: 3
    weight_filler {
      type: "gaussian"
      std: 0.01
    }
    bias_filler {
      type: "constant"
      value: 0
    }
  }
}
layer {
  name: "relu3"
  type: "ReLU"
  bottom: "conv3"
  top: "conv3"
}
layer {
  name: "conv4"
  type: "Convolution"
  bottom: "conv3"
  top: "conv4"
  param {
    lr_mult: 1
    decay_mult: 1
  }
  param {
    lr_mult: 2
    decay_mult: 0
  }
  convolution_param {
    num_output: 384
    pad: 1
    kernel_size: 3
    group: 2
    weight_filler {
      type: "gaussian"
      std: 0.01
    }
    bias_filler {
      type: "constant"
      value: 0.1
    }
  }
}
layer {
  name: "relu4"
  type: "ReLU"
  bottom: "conv4"
  top: "conv4"
}
layer {
  name: "conv5"
  type: "Convolution"
  bottom: "conv4"
  top: "conv5"
  param {
    lr_mult: 1
    decay_mult: 1
  }
  param {
    lr_mult: 2
    decay_mult: 0
  }
  convolution_param {
    num_output: 256
    pad: 1
    kernel_size: 3
    group: 2
    weight_filler {
      type: "gaussian"
      std: 0.01
    }
    bias_filler {
      type: "constant"
      value: 0.1
    }
  }
}
layer {
  name: "relu5"
  type: "ReLU"
  bottom: "conv5"
  top: "conv5"
}
layer {
  name: "pool5"
  type: "Pooling"
  bottom: "conv5"
  top: "pool5"
  pooling_param {
    pool: MAX
    kernel_size: 3
    stride: 2
  }
}
layer {
  name: "fc6"
  type: "InnerProduct"
  bottom: "pool5"
  top: "fc6"
  param {
    lr_mult: 1
    decay_mult: 1
  }
  param {
    lr_mult: 2
    decay_mult: 0
  }
  inner_product_param {
    num_output: 4096
    weight_filler {
      type: "gaussian"
      std: 0.005
    }
    bias_filler {
      type: "constant"
      value: 0.1
    }
  }
}
layer {
  name: "relu6"
  type: "ReLU"
  bottom: "fc6"
  top: "fc6"
}
layer {
  name: "drop6"
  type: "Dropout"
  bottom: "fc6"
  top: "fc6"
  dropout_param {
    dropout_ratio: 0.5
  }
}
layer {
  name: "fc7"
  type: "InnerProduct"
  bottom: "fc6"
  top: "fc7"
  param {
    lr_mult: 1
    decay_mult: 1
  }
  param {
    lr_mult: 2
    decay_mult: 0
  }
  inner_product_param {
    num_output: 4096
    weight_filler {
      type: "gaussian"
      std: 0.005
    }
    bias_filler {
      type: "constant"
      value: 0.1
    }
  }
}
layer {
  name: "relu7"
  type: "ReLU"
  bottom: "fc7"
  top: "fc7"
}
layer {
  name: "drop7"
  type: "Dropout"
  bottom: "fc7"
  top: "fc7"
  dropout_param {
    dropout_ratio: 0.5
  }
}
layer {
  name: "fc8_plantvillage"
  type: "InnerProduct"
  bottom: "fc7"
  top: "fc8_plantvillage"
  param {
    lr_mult: 1
    decay_mult: 1
  }
  param {
    lr_mult: 2
    decay_mult: 0
  }
  inner_product_param {
    num_output: 38
    weight_filler {
      type: "gaussian"
      std: 0.01
    }
    bias_filler {
      type: "constant"
      value: 0
    }
  }
}
layer {
  name: "prob"
  type: "Softmax"
  bottom: "fc8_plantvillage"
  top: "prob"
  include {
    phase: TEST
  }
}
layer {
  name: "hdf5out"
  type: "HDF5Output"
  bottom: "prob"
  bottom: "label"
  include {
    phase: TEST
  }
  hdf5_output_param {
    file_name: "hdf5_dumps/iter_3488.h5"
  }
}
layer {
  name: "loss"
  type: "SoftmaxWithLoss"
  bottom: "fc8_plantvillage"
  bottom: "label"
  top: "loss"
}
layer {
  name: "accuracy"
  type: "Accuracy"
  bottom: "fc8_plantvillage"
  bottom: "label"
  top: "accuracy"
  include {
    phase: TEST
  }
}
I0403 14:03:51.864536 12601 layer_factory.hpp:77] Creating layer data
I0403 14:03:51.865196 12601 net.cpp:91] Creating Layer data
I0403 14:03:51.865228 12601 net.cpp:399] data -> data
I0403 14:03:51.865278 12601 net.cpp:399] data -> label
I0403 14:03:51.865314 12601 data_transformer.cpp:25] Loading mean file from: /home/mohanty/data/final_dataset/lmdb/grayscale-80-20/mean.binaryproto
I0403 14:03:51.868705 12604 db_lmdb.cpp:38] Opened lmdb /home/mohanty/data/final_dataset/lmdb/grayscale-80-20/test_db
I0403 14:03:51.879672 12601 data_layer.cpp:41] output data size: 100,3,227,227
I0403 14:03:51.998430 12601 net.cpp:141] Setting up data
I0403 14:03:51.998522 12601 net.cpp:148] Top shape: 100 3 227 227 (15458700)
I0403 14:03:51.998544 12601 net.cpp:148] Top shape: 100 (100)
I0403 14:03:51.998559 12601 net.cpp:156] Memory required for data: 61835200
I0403 14:03:51.998591 12601 layer_factory.hpp:77] Creating layer label_data_1_split
I0403 14:03:51.998616 12601 net.cpp:91] Creating Layer label_data_1_split
I0403 14:03:51.998633 12601 net.cpp:425] label_data_1_split <- label
I0403 14:03:51.998666 12601 net.cpp:399] label_data_1_split -> label_data_1_split_0
I0403 14:03:51.998692 12601 net.cpp:399] label_data_1_split -> label_data_1_split_1
I0403 14:03:51.998711 12601 net.cpp:399] label_data_1_split -> label_data_1_split_2
I0403 14:03:51.998774 12601 net.cpp:141] Setting up label_data_1_split
I0403 14:03:51.998796 12601 net.cpp:148] Top shape: 100 (100)
I0403 14:03:51.998812 12601 net.cpp:148] Top shape: 100 (100)
I0403 14:03:51.998828 12601 net.cpp:148] Top shape: 100 (100)
I0403 14:03:51.998842 12601 net.cpp:156] Memory required for data: 61836400
I0403 14:03:51.998857 12601 layer_factory.hpp:77] Creating layer conv1
I0403 14:03:51.998888 12601 net.cpp:91] Creating Layer conv1
I0403 14:03:51.998904 12601 net.cpp:425] conv1 <- data
I0403 14:03:51.998922 12601 net.cpp:399] conv1 -> conv1
I0403 14:03:52.142078 12601 net.cpp:141] Setting up conv1
I0403 14:03:52.142204 12601 net.cpp:148] Top shape: 100 96 55 55 (29040000)
I0403 14:03:52.142221 12601 net.cpp:156] Memory required for data: 177996400
I0403 14:03:52.142251 12601 layer_factory.hpp:77] Creating layer relu1
I0403 14:03:52.142277 12601 net.cpp:91] Creating Layer relu1
I0403 14:03:52.142297 12601 net.cpp:425] relu1 <- conv1
I0403 14:03:52.142315 12601 net.cpp:386] relu1 -> conv1 (in-place)
I0403 14:03:52.142572 12601 net.cpp:141] Setting up relu1
I0403 14:03:52.142599 12601 net.cpp:148] Top shape: 100 96 55 55 (29040000)
I0403 14:03:52.142647 12601 net.cpp:156] Memory required for data: 294156400
I0403 14:03:52.142665 12601 layer_factory.hpp:77] Creating layer norm1
I0403 14:03:52.142690 12601 net.cpp:91] Creating Layer norm1
I0403 14:03:52.142707 12601 net.cpp:425] norm1 <- conv1
I0403 14:03:52.142725 12601 net.cpp:399] norm1 -> norm1
I0403 14:03:52.143028 12601 net.cpp:141] Setting up norm1
I0403 14:03:52.143054 12601 net.cpp:148] Top shape: 100 96 55 55 (29040000)
I0403 14:03:52.143069 12601 net.cpp:156] Memory required for data: 410316400
I0403 14:03:52.143085 12601 layer_factory.hpp:77] Creating layer pool1
I0403 14:03:52.143107 12601 net.cpp:91] Creating Layer pool1
I0403 14:03:52.143124 12601 net.cpp:425] pool1 <- norm1
I0403 14:03:52.143141 12601 net.cpp:399] pool1 -> pool1
I0403 14:03:52.143205 12601 net.cpp:141] Setting up pool1
I0403 14:03:52.143229 12601 net.cpp:148] Top shape: 100 96 27 27 (6998400)
I0403 14:03:52.143244 12601 net.cpp:156] Memory required for data: 438310000
I0403 14:03:52.143260 12601 layer_factory.hpp:77] Creating layer conv2
I0403 14:03:52.143282 12601 net.cpp:91] Creating Layer conv2
I0403 14:03:52.143301 12601 net.cpp:425] conv2 <- pool1
I0403 14:03:52.143317 12601 net.cpp:399] conv2 -> conv2
I0403 14:03:52.158324 12601 net.cpp:141] Setting up conv2
I0403 14:03:52.158357 12601 net.cpp:148] Top shape: 100 256 27 27 (18662400)
I0403 14:03:52.158373 12601 net.cpp:156] Memory required for data: 512959600
I0403 14:03:52.158395 12601 layer_factory.hpp:77] Creating layer relu2
I0403 14:03:52.158418 12601 net.cpp:91] Creating Layer relu2
I0403 14:03:52.158435 12601 net.cpp:425] relu2 <- conv2
I0403 14:03:52.158452 12601 net.cpp:386] relu2 -> conv2 (in-place)
I0403 14:03:52.158731 12601 net.cpp:141] Setting up relu2
I0403 14:03:52.158758 12601 net.cpp:148] Top shape: 100 256 27 27 (18662400)
I0403 14:03:52.158773 12601 net.cpp:156] Memory required for data: 587609200
I0403 14:03:52.158788 12601 layer_factory.hpp:77] Creating layer norm2
I0403 14:03:52.158810 12601 net.cpp:91] Creating Layer norm2
I0403 14:03:52.158828 12601 net.cpp:425] norm2 <- conv2
I0403 14:03:52.158846 12601 net.cpp:399] norm2 -> norm2
I0403 14:03:52.159039 12601 net.cpp:141] Setting up norm2
I0403 14:03:52.159065 12601 net.cpp:148] Top shape: 100 256 27 27 (18662400)
I0403 14:03:52.159080 12601 net.cpp:156] Memory required for data: 662258800
I0403 14:03:52.159096 12601 layer_factory.hpp:77] Creating layer pool2
I0403 14:03:52.159116 12601 net.cpp:91] Creating Layer pool2
I0403 14:03:52.159132 12601 net.cpp:425] pool2 <- norm2
I0403 14:03:52.159147 12601 net.cpp:399] pool2 -> pool2
I0403 14:03:52.159199 12601 net.cpp:141] Setting up pool2
I0403 14:03:52.159222 12601 net.cpp:148] Top shape: 100 256 13 13 (4326400)
I0403 14:03:52.159237 12601 net.cpp:156] Memory required for data: 679564400
I0403 14:03:52.159251 12601 layer_factory.hpp:77] Creating layer conv3
I0403 14:03:52.159273 12601 net.cpp:91] Creating Layer conv3
I0403 14:03:52.159293 12601 net.cpp:425] conv3 <- pool2
I0403 14:03:52.159356 12601 net.cpp:399] conv3 -> conv3
I0403 14:03:52.198164 12601 net.cpp:141] Setting up conv3
I0403 14:03:52.198231 12601 net.cpp:148] Top shape: 100 384 13 13 (6489600)
I0403 14:03:52.198249 12601 net.cpp:156] Memory required for data: 705522800
I0403 14:03:52.198273 12601 layer_factory.hpp:77] Creating layer relu3
I0403 14:03:52.198300 12601 net.cpp:91] Creating Layer relu3
I0403 14:03:52.198319 12601 net.cpp:425] relu3 <- conv3
I0403 14:03:52.198338 12601 net.cpp:386] relu3 -> conv3 (in-place)
I0403 14:03:52.198621 12601 net.cpp:141] Setting up relu3
I0403 14:03:52.198648 12601 net.cpp:148] Top shape: 100 384 13 13 (6489600)
I0403 14:03:52.198664 12601 net.cpp:156] Memory required for data: 731481200
I0403 14:03:52.198679 12601 layer_factory.hpp:77] Creating layer conv4
I0403 14:03:52.198705 12601 net.cpp:91] Creating Layer conv4
I0403 14:03:52.198724 12601 net.cpp:425] conv4 <- conv3
I0403 14:03:52.198745 12601 net.cpp:399] conv4 -> conv4
I0403 14:03:52.228536 12601 net.cpp:141] Setting up conv4
I0403 14:03:52.228595 12601 net.cpp:148] Top shape: 100 384 13 13 (6489600)
I0403 14:03:52.228643 12601 net.cpp:156] Memory required for data: 757439600
I0403 14:03:52.228665 12601 layer_factory.hpp:77] Creating layer relu4
I0403 14:03:52.228687 12601 net.cpp:91] Creating Layer relu4
I0403 14:03:52.228703 12601 net.cpp:425] relu4 <- conv4
I0403 14:03:52.228724 12601 net.cpp:386] relu4 -> conv4 (in-place)
I0403 14:03:52.229014 12601 net.cpp:141] Setting up relu4
I0403 14:03:52.229040 12601 net.cpp:148] Top shape: 100 384 13 13 (6489600)
I0403 14:03:52.229055 12601 net.cpp:156] Memory required for data: 783398000
I0403 14:03:52.229069 12601 layer_factory.hpp:77] Creating layer conv5
I0403 14:03:52.229094 12601 net.cpp:91] Creating Layer conv5
I0403 14:03:52.229111 12601 net.cpp:425] conv5 <- conv4
I0403 14:03:52.229131 12601 net.cpp:399] conv5 -> conv5
I0403 14:03:52.249228 12601 net.cpp:141] Setting up conv5
I0403 14:03:52.249263 12601 net.cpp:148] Top shape: 100 256 13 13 (4326400)
I0403 14:03:52.249279 12601 net.cpp:156] Memory required for data: 800703600
I0403 14:03:52.249303 12601 layer_factory.hpp:77] Creating layer relu5
I0403 14:03:52.249325 12601 net.cpp:91] Creating Layer relu5
I0403 14:03:52.249341 12601 net.cpp:425] relu5 <- conv5
I0403 14:03:52.249358 12601 net.cpp:386] relu5 -> conv5 (in-place)
I0403 14:03:52.249644 12601 net.cpp:141] Setting up relu5
I0403 14:03:52.249670 12601 net.cpp:148] Top shape: 100 256 13 13 (4326400)
I0403 14:03:52.249686 12601 net.cpp:156] Memory required for data: 818009200
I0403 14:03:52.249701 12601 layer_factory.hpp:77] Creating layer pool5
I0403 14:03:52.249724 12601 net.cpp:91] Creating Layer pool5
I0403 14:03:52.249742 12601 net.cpp:425] pool5 <- conv5
I0403 14:03:52.249758 12601 net.cpp:399] pool5 -> pool5
I0403 14:03:52.249819 12601 net.cpp:141] Setting up pool5
I0403 14:03:52.249841 12601 net.cpp:148] Top shape: 100 256 6 6 (921600)
I0403 14:03:52.249856 12601 net.cpp:156] Memory required for data: 821695600
I0403 14:03:52.249871 12601 layer_factory.hpp:77] Creating layer fc6
I0403 14:03:52.249898 12601 net.cpp:91] Creating Layer fc6
I0403 14:03:52.249915 12601 net.cpp:425] fc6 <- pool5
I0403 14:03:52.249933 12601 net.cpp:399] fc6 -> fc6
I0403 14:03:53.803189 12601 net.cpp:141] Setting up fc6
I0403 14:03:53.803231 12601 net.cpp:148] Top shape: 100 4096 (409600)
I0403 14:03:53.803247 12601 net.cpp:156] Memory required for data: 823334000
I0403 14:03:53.803269 12601 layer_factory.hpp:77] Creating layer relu6
I0403 14:03:53.803292 12601 net.cpp:91] Creating Layer relu6
I0403 14:03:53.803308 12601 net.cpp:425] relu6 <- fc6
I0403 14:03:53.803330 12601 net.cpp:386] relu6 -> fc6 (in-place)
I0403 14:03:53.803544 12601 net.cpp:141] Setting up relu6
I0403 14:03:53.803572 12601 net.cpp:148] Top shape: 100 4096 (409600)
I0403 14:03:53.803588 12601 net.cpp:156] Memory required for data: 824972400
I0403 14:03:53.803603 12601 layer_factory.hpp:77] Creating layer drop6
I0403 14:03:53.803624 12601 net.cpp:91] Creating Layer drop6
I0403 14:03:53.803640 12601 net.cpp:425] drop6 <- fc6
I0403 14:03:53.803658 12601 net.cpp:386] drop6 -> fc6 (in-place)
I0403 14:03:53.803706 12601 net.cpp:141] Setting up drop6
I0403 14:03:53.803732 12601 net.cpp:148] Top shape: 100 4096 (409600)
I0403 14:03:53.803747 12601 net.cpp:156] Memory required for data: 826610800
I0403 14:03:53.803761 12601 layer_factory.hpp:77] Creating layer fc7
I0403 14:03:53.803781 12601 net.cpp:91] Creating Layer fc7
I0403 14:03:53.803794 12601 net.cpp:425] fc7 <- fc6
I0403 14:03:53.803814 12601 net.cpp:399] fc7 -> fc7
I0403 14:03:54.490278 12601 net.cpp:141] Setting up fc7
I0403 14:03:54.490319 12601 net.cpp:148] Top shape: 100 4096 (409600)
I0403 14:03:54.490335 12601 net.cpp:156] Memory required for data: 828249200
I0403 14:03:54.490355 12601 layer_factory.hpp:77] Creating layer relu7
I0403 14:03:54.490376 12601 net.cpp:91] Creating Layer relu7
I0403 14:03:54.490393 12601 net.cpp:425] relu7 <- fc7
I0403 14:03:54.490413 12601 net.cpp:386] relu7 -> fc7 (in-place)
I0403 14:03:54.490825 12601 net.cpp:141] Setting up relu7
I0403 14:03:54.490851 12601 net.cpp:148] Top shape: 100 4096 (409600)
I0403 14:03:54.490903 12601 net.cpp:156] Memory required for data: 829887600
I0403 14:03:54.490921 12601 layer_factory.hpp:77] Creating layer drop7
I0403 14:03:54.490938 12601 net.cpp:91] Creating Layer drop7
I0403 14:03:54.490952 12601 net.cpp:425] drop7 <- fc7
I0403 14:03:54.490972 12601 net.cpp:386] drop7 -> fc7 (in-place)
I0403 14:03:54.491017 12601 net.cpp:141] Setting up drop7
I0403 14:03:54.491039 12601 net.cpp:148] Top shape: 100 4096 (409600)
I0403 14:03:54.491055 12601 net.cpp:156] Memory required for data: 831526000
I0403 14:03:54.491070 12601 layer_factory.hpp:77] Creating layer fc8_plantvillage
I0403 14:03:54.491088 12601 net.cpp:91] Creating Layer fc8_plantvillage
I0403 14:03:54.491103 12601 net.cpp:425] fc8_plantvillage <- fc7
I0403 14:03:54.491123 12601 net.cpp:399] fc8_plantvillage -> fc8_plantvillage
I0403 14:03:54.497715 12601 net.cpp:141] Setting up fc8_plantvillage
I0403 14:03:54.497743 12601 net.cpp:148] Top shape: 100 38 (3800)
I0403 14:03:54.497758 12601 net.cpp:156] Memory required for data: 831541200
I0403 14:03:54.497776 12601 layer_factory.hpp:77] Creating layer fc8_plantvillage_fc8_plantvillage_0_split
I0403 14:03:54.497795 12601 net.cpp:91] Creating Layer fc8_plantvillage_fc8_plantvillage_0_split
I0403 14:03:54.497812 12601 net.cpp:425] fc8_plantvillage_fc8_plantvillage_0_split <- fc8_plantvillage
I0403 14:03:54.497828 12601 net.cpp:399] fc8_plantvillage_fc8_plantvillage_0_split -> fc8_plantvillage_fc8_plantvillage_0_split_0
I0403 14:03:54.497846 12601 net.cpp:399] fc8_plantvillage_fc8_plantvillage_0_split -> fc8_plantvillage_fc8_plantvillage_0_split_1
I0403 14:03:54.497865 12601 net.cpp:399] fc8_plantvillage_fc8_plantvillage_0_split -> fc8_plantvillage_fc8_plantvillage_0_split_2
I0403 14:03:54.497941 12601 net.cpp:141] Setting up fc8_plantvillage_fc8_plantvillage_0_split
I0403 14:03:54.497964 12601 net.cpp:148] Top shape: 100 38 (3800)
I0403 14:03:54.497980 12601 net.cpp:148] Top shape: 100 38 (3800)
I0403 14:03:54.497997 12601 net.cpp:148] Top shape: 100 38 (3800)
I0403 14:03:54.498010 12601 net.cpp:156] Memory required for data: 831586800
I0403 14:03:54.498024 12601 layer_factory.hpp:77] Creating layer prob
I0403 14:03:54.498042 12601 net.cpp:91] Creating Layer prob
I0403 14:03:54.498056 12601 net.cpp:425] prob <- fc8_plantvillage_fc8_plantvillage_0_split_0
I0403 14:03:54.498073 12601 net.cpp:399] prob -> prob
I0403 14:03:54.498292 12601 net.cpp:141] Setting up prob
I0403 14:03:54.498317 12601 net.cpp:148] Top shape: 100 38 (3800)
I0403 14:03:54.498332 12601 net.cpp:156] Memory required for data: 831602000
I0403 14:03:54.498345 12601 layer_factory.hpp:77] Creating layer hdf5out
I0403 14:03:54.498363 12601 net.cpp:91] Creating Layer hdf5out
I0403 14:03:54.498378 12601 net.cpp:425] hdf5out <- prob
I0403 14:03:54.498394 12601 net.cpp:425] hdf5out <- label_data_1_split_0
I0403 14:03:54.500599 12601 net.cpp:141] Setting up hdf5out
…
