…
I0403 14:12:40.603494 12915 net.cpp:313] The NetState phase (1) differed from the phase (0) specified by a rule in layer data
I0403 14:12:40.603795 12915 net.cpp:49] Initializing net from parameters: 
state {
  phase: TEST
}
layer {
  name: "data"
  type: "Data"
  top: "data"
  top: "label"
  include {
    phase: TEST
  }
  transform_param {
    crop_size: 227
    mean_file: "/home/mohanty/data/final_dataset/lmdb/grayscale-80-20/mean.binaryproto"
  }
  data_param {
    source: "/home/mohanty/data/final_dataset/lmdb/grayscale-80-20/test_db"
    batch_size: 100
    backend: LMDB
  }
}
layer {
  name: "conv1"
  type: "Convolution"
  bottom: "data"
  top: "conv1"
  param {
    lr_mult: 1
    decay_mult: 1
  }
  param {
    lr_mult: 2
    decay_mult: 0
  }
  convolution_param {
    num_output: 96
    kernel_size: 11
    stride: 4
    weight_filler {
      type: "gaussian"
      std: 0.01
    }
    bias_filler {
      type: "constant"
      value: 0
    }
  }
}
layer {
  name: "relu1"
  type: "ReLU"
  bottom: "conv1"
  top: "conv1"
}
layer {
  name: "norm1"
  type: "LRN"
  bottom: "conv1"
  top: "norm1"
  lrn_param {
    local_size: 5
    alpha: 0.0001
    beta: 0.75
  }
}
layer {
  name: "pool1"
  type: "Pooling"
  bottom: "norm1"
  top: "pool1"
  pooling_param {
    pool: MAX
    kernel_size: 3
    stride: 2
  }
}
layer {
  name: "conv2"
  type: "Convolution"
  bottom: "pool1"
  top: "conv2"
  param {
    lr_mult: 1
    decay_mult: 1
  }
  param {
    lr_mult: 2
    decay_mult: 0
  }
  convolution_param {
    num_output: 256
    pad: 2
    kernel_size: 5
    group: 2
    weight_filler {
      type: "gaussian"
      std: 0.01
    }
    bias_filler {
      type: "constant"
      value: 0.1
    }
  }
}
layer {
  name: "relu2"
  type: "ReLU"
  bottom: "conv2"
  top: "conv2"
}
layer {
  name: "norm2"
  type: "LRN"
  bottom: "conv2"
  top: "norm2"
  lrn_param {
    local_size: 5
    alpha: 0.0001
    beta: 0.75
  }
}
layer {
  name: "pool2"
  type: "Pooling"
  bottom: "norm2"
  top: "pool2"
  pooling_param {
    pool: MAX
    kernel_size: 3
    stride: 2
  }
}
layer {
  name: "conv3"
  type: "Convolution"
  bottom: "pool2"
  top: "conv3"
  param {
    lr_mult: 1
    decay_mult: 1
  }
  param {
    lr_mult: 2
    decay_mult: 0
  }
  convolution_param {
    num_output: 384
    pad: 1
    kernel_size: 3
    weight_filler {
      type: "gaussian"
      std: 0.01
    }
    bias_filler {
      type: "constant"
      value: 0
    }
  }
}
layer {
  name: "relu3"
  type: "ReLU"
  bottom: "conv3"
  top: "conv3"
}
layer {
  name: "conv4"
  type: "Convolution"
  bottom: "conv3"
  top: "conv4"
  param {
    lr_mult: 1
    decay_mult: 1
  }
  param {
    lr_mult: 2
    decay_mult: 0
  }
  convolution_param {
    num_output: 384
    pad: 1
    kernel_size: 3
    group: 2
    weight_filler {
      type: "gaussian"
      std: 0.01
    }
    bias_filler {
      type: "constant"
      value: 0.1
    }
  }
}
layer {
  name: "relu4"
  type: "ReLU"
  bottom: "conv4"
  top: "conv4"
}
layer {
  name: "conv5"
  type: "Convolution"
  bottom: "conv4"
  top: "conv5"
  param {
    lr_mult: 1
    decay_mult: 1
  }
  param {
    lr_mult: 2
    decay_mult: 0
  }
  convolution_param {
    num_output: 256
    pad: 1
    kernel_size: 3
    group: 2
    weight_filler {
      type: "gaussian"
      std: 0.01
    }
    bias_filler {
      type: "constant"
      value: 0.1
    }
  }
}
layer {
  name: "relu5"
  type: "ReLU"
  bottom: "conv5"
  top: "conv5"
}
layer {
  name: "pool5"
  type: "Pooling"
  bottom: "conv5"
  top: "pool5"
  pooling_param {
    pool: MAX
    kernel_size: 3
    stride: 2
  }
}
layer {
  name: "fc6"
  type: "InnerProduct"
  bottom: "pool5"
  top: "fc6"
  param {
    lr_mult: 1
    decay_mult: 1
  }
  param {
    lr_mult: 2
    decay_mult: 0
  }
  inner_product_param {
    num_output: 4096
    weight_filler {
      type: "gaussian"
      std: 0.005
    }
    bias_filler {
      type: "constant"
      value: 0.1
    }
  }
}
layer {
  name: "relu6"
  type: "ReLU"
  bottom: "fc6"
  top: "fc6"
}
layer {
  name: "drop6"
  type: "Dropout"
  bottom: "fc6"
  top: "fc6"
  dropout_param {
    dropout_ratio: 0.5
  }
}
layer {
  name: "fc7"
  type: "InnerProduct"
  bottom: "fc6"
  top: "fc7"
  param {
    lr_mult: 1
    decay_mult: 1
  }
  param {
    lr_mult: 2
    decay_mult: 0
  }
  inner_product_param {
    num_output: 4096
    weight_filler {
      type: "gaussian"
      std: 0.005
    }
    bias_filler {
      type: "constant"
      value: 0.1
    }
  }
}
layer {
  name: "relu7"
  type: "ReLU"
  bottom: "fc7"
  top: "fc7"
}
layer {
  name: "drop7"
  type: "Dropout"
  bottom: "fc7"
  top: "fc7"
  dropout_param {
    dropout_ratio: 0.5
  }
}
layer {
  name: "fc8_plantvillage"
  type: "InnerProduct"
  bottom: "fc7"
  top: "fc8_plantvillage"
  param {
    lr_mult: 1
    decay_mult: 1
  }
  param {
    lr_mult: 2
    decay_mult: 0
  }
  inner_product_param {
    num_output: 38
    weight_filler {
      type: "gaussian"
      std: 0.01
    }
    bias_filler {
      type: "constant"
      value: 0
    }
  }
}
layer {
  name: "prob"
  type: "Softmax"
  bottom: "fc8_plantvillage"
  top: "prob"
  include {
    phase: TEST
  }
}
layer {
  name: "hdf5out"
  type: "HDF5Output"
  bottom: "prob"
  bottom: "label"
  include {
    phase: TEST
  }
  hdf5_output_param {
    file_name: "hdf5_dumps/iter_12644.h5"
  }
}
layer {
  name: "loss"
  type: "SoftmaxWithLoss"
  bottom: "fc8_plantvillage"
  bottom: "label"
  top: "loss"
}
layer {
  name: "accuracy"
  type: "Accuracy"
  bottom: "fc8_plantvillage"
  bottom: "label"
  top: "accuracy"
  include {
    phase: TEST
  }
}
I0403 14:12:40.604346 12915 layer_factory.hpp:77] Creating layer data
I0403 14:12:40.605003 12915 net.cpp:91] Creating Layer data
I0403 14:12:40.605037 12915 net.cpp:399] data -> data
I0403 14:12:40.605089 12915 net.cpp:399] data -> label
I0403 14:12:40.605129 12915 data_transformer.cpp:25] Loading mean file from: /home/mohanty/data/final_dataset/lmdb/grayscale-80-20/mean.binaryproto
I0403 14:12:40.608383 12918 db_lmdb.cpp:38] Opened lmdb /home/mohanty/data/final_dataset/lmdb/grayscale-80-20/test_db
I0403 14:12:40.619382 12915 data_layer.cpp:41] output data size: 100,3,227,227
I0403 14:12:40.739285 12915 net.cpp:141] Setting up data
I0403 14:12:40.739344 12915 net.cpp:148] Top shape: 100 3 227 227 (15458700)
I0403 14:12:40.739369 12915 net.cpp:148] Top shape: 100 (100)
I0403 14:12:40.739387 12915 net.cpp:156] Memory required for data: 61835200
I0403 14:12:40.739415 12915 layer_factory.hpp:77] Creating layer label_data_1_split
I0403 14:12:40.739440 12915 net.cpp:91] Creating Layer label_data_1_split
I0403 14:12:40.739459 12915 net.cpp:425] label_data_1_split <- label
I0403 14:12:40.739492 12915 net.cpp:399] label_data_1_split -> label_data_1_split_0
I0403 14:12:40.739521 12915 net.cpp:399] label_data_1_split -> label_data_1_split_1
I0403 14:12:40.739542 12915 net.cpp:399] label_data_1_split -> label_data_1_split_2
I0403 14:12:40.739609 12915 net.cpp:141] Setting up label_data_1_split
I0403 14:12:40.739632 12915 net.cpp:148] Top shape: 100 (100)
I0403 14:12:40.739650 12915 net.cpp:148] Top shape: 100 (100)
I0403 14:12:40.739666 12915 net.cpp:148] Top shape: 100 (100)
I0403 14:12:40.739681 12915 net.cpp:156] Memory required for data: 61836400
I0403 14:12:40.739696 12915 layer_factory.hpp:77] Creating layer conv1
I0403 14:12:40.739728 12915 net.cpp:91] Creating Layer conv1
I0403 14:12:40.739747 12915 net.cpp:425] conv1 <- data
I0403 14:12:40.739766 12915 net.cpp:399] conv1 -> conv1
I0403 14:12:40.884269 12915 net.cpp:141] Setting up conv1
I0403 14:12:40.884328 12915 net.cpp:148] Top shape: 100 96 55 55 (29040000)
I0403 14:12:40.884346 12915 net.cpp:156] Memory required for data: 177996400
I0403 14:12:40.884376 12915 layer_factory.hpp:77] Creating layer relu1
I0403 14:12:40.884402 12915 net.cpp:91] Creating Layer relu1
I0403 14:12:40.884419 12915 net.cpp:425] relu1 <- conv1
I0403 14:12:40.884438 12915 net.cpp:386] relu1 -> conv1 (in-place)
I0403 14:12:40.884701 12915 net.cpp:141] Setting up relu1
I0403 14:12:40.884728 12915 net.cpp:148] Top shape: 100 96 55 55 (29040000)
I0403 14:12:40.884776 12915 net.cpp:156] Memory required for data: 294156400
I0403 14:12:40.884793 12915 layer_factory.hpp:77] Creating layer norm1
I0403 14:12:40.884820 12915 net.cpp:91] Creating Layer norm1
I0403 14:12:40.884838 12915 net.cpp:425] norm1 <- conv1
I0403 14:12:40.884855 12915 net.cpp:399] norm1 -> norm1
I0403 14:12:40.885200 12915 net.cpp:141] Setting up norm1
I0403 14:12:40.885228 12915 net.cpp:148] Top shape: 100 96 55 55 (29040000)
I0403 14:12:40.885244 12915 net.cpp:156] Memory required for data: 410316400
I0403 14:12:40.885258 12915 layer_factory.hpp:77] Creating layer pool1
I0403 14:12:40.885282 12915 net.cpp:91] Creating Layer pool1
I0403 14:12:40.885299 12915 net.cpp:425] pool1 <- norm1
I0403 14:12:40.885318 12915 net.cpp:399] pool1 -> pool1
I0403 14:12:40.885381 12915 net.cpp:141] Setting up pool1
I0403 14:12:40.885406 12915 net.cpp:148] Top shape: 100 96 27 27 (6998400)
I0403 14:12:40.885421 12915 net.cpp:156] Memory required for data: 438310000
I0403 14:12:40.885434 12915 layer_factory.hpp:77] Creating layer conv2
I0403 14:12:40.885458 12915 net.cpp:91] Creating Layer conv2
I0403 14:12:40.885474 12915 net.cpp:425] conv2 <- pool1
I0403 14:12:40.885491 12915 net.cpp:399] conv2 -> conv2
I0403 14:12:40.900154 12915 net.cpp:141] Setting up conv2
I0403 14:12:40.900192 12915 net.cpp:148] Top shape: 100 256 27 27 (18662400)
I0403 14:12:40.900209 12915 net.cpp:156] Memory required for data: 512959600
I0403 14:12:40.900267 12915 layer_factory.hpp:77] Creating layer relu2
I0403 14:12:40.900295 12915 net.cpp:91] Creating Layer relu2
I0403 14:12:40.900315 12915 net.cpp:425] relu2 <- conv2
I0403 14:12:40.900332 12915 net.cpp:386] relu2 -> conv2 (in-place)
I0403 14:12:40.900611 12915 net.cpp:141] Setting up relu2
I0403 14:12:40.900640 12915 net.cpp:148] Top shape: 100 256 27 27 (18662400)
I0403 14:12:40.900656 12915 net.cpp:156] Memory required for data: 587609200
I0403 14:12:40.900671 12915 layer_factory.hpp:77] Creating layer norm2
I0403 14:12:40.900694 12915 net.cpp:91] Creating Layer norm2
I0403 14:12:40.900712 12915 net.cpp:425] norm2 <- conv2
I0403 14:12:40.900732 12915 net.cpp:399] norm2 -> norm2
I0403 14:12:40.900926 12915 net.cpp:141] Setting up norm2
I0403 14:12:40.900954 12915 net.cpp:148] Top shape: 100 256 27 27 (18662400)
I0403 14:12:40.900969 12915 net.cpp:156] Memory required for data: 662258800
I0403 14:12:40.900982 12915 layer_factory.hpp:77] Creating layer pool2
I0403 14:12:40.901001 12915 net.cpp:91] Creating Layer pool2
I0403 14:12:40.901018 12915 net.cpp:425] pool2 <- norm2
I0403 14:12:40.901036 12915 net.cpp:399] pool2 -> pool2
I0403 14:12:40.901087 12915 net.cpp:141] Setting up pool2
I0403 14:12:40.901110 12915 net.cpp:148] Top shape: 100 256 13 13 (4326400)
I0403 14:12:40.901124 12915 net.cpp:156] Memory required for data: 679564400
I0403 14:12:40.901139 12915 layer_factory.hpp:77] Creating layer conv3
I0403 14:12:40.901160 12915 net.cpp:91] Creating Layer conv3
I0403 14:12:40.901177 12915 net.cpp:425] conv3 <- pool2
I0403 14:12:40.901197 12915 net.cpp:399] conv3 -> conv3
I0403 14:12:40.939929 12915 net.cpp:141] Setting up conv3
I0403 14:12:40.939999 12915 net.cpp:148] Top shape: 100 384 13 13 (6489600)
I0403 14:12:40.940016 12915 net.cpp:156] Memory required for data: 705522800
I0403 14:12:40.940043 12915 layer_factory.hpp:77] Creating layer relu3
I0403 14:12:40.940068 12915 net.cpp:91] Creating Layer relu3
I0403 14:12:40.940085 12915 net.cpp:425] relu3 <- conv3
I0403 14:12:40.940167 12915 net.cpp:386] relu3 -> conv3 (in-place)
I0403 14:12:40.940451 12915 net.cpp:141] Setting up relu3
I0403 14:12:40.940479 12915 net.cpp:148] Top shape: 100 384 13 13 (6489600)
I0403 14:12:40.940495 12915 net.cpp:156] Memory required for data: 731481200
I0403 14:12:40.940510 12915 layer_factory.hpp:77] Creating layer conv4
I0403 14:12:40.940536 12915 net.cpp:91] Creating Layer conv4
I0403 14:12:40.940554 12915 net.cpp:425] conv4 <- conv3
I0403 14:12:40.940579 12915 net.cpp:399] conv4 -> conv4
I0403 14:12:40.970399 12915 net.cpp:141] Setting up conv4
I0403 14:12:40.970451 12915 net.cpp:148] Top shape: 100 384 13 13 (6489600)
I0403 14:12:40.970501 12915 net.cpp:156] Memory required for data: 757439600
I0403 14:12:40.970523 12915 layer_factory.hpp:77] Creating layer relu4
I0403 14:12:40.970546 12915 net.cpp:91] Creating Layer relu4
I0403 14:12:40.970563 12915 net.cpp:425] relu4 <- conv4
I0403 14:12:40.970587 12915 net.cpp:386] relu4 -> conv4 (in-place)
I0403 14:12:40.970860 12915 net.cpp:141] Setting up relu4
I0403 14:12:40.970886 12915 net.cpp:148] Top shape: 100 384 13 13 (6489600)
I0403 14:12:40.970901 12915 net.cpp:156] Memory required for data: 783398000
I0403 14:12:40.970916 12915 layer_factory.hpp:77] Creating layer conv5
I0403 14:12:40.970939 12915 net.cpp:91] Creating Layer conv5
I0403 14:12:40.970957 12915 net.cpp:425] conv5 <- conv4
I0403 14:12:40.970976 12915 net.cpp:399] conv5 -> conv5
I0403 14:12:40.991180 12915 net.cpp:141] Setting up conv5
I0403 14:12:40.991216 12915 net.cpp:148] Top shape: 100 256 13 13 (4326400)
I0403 14:12:40.991235 12915 net.cpp:156] Memory required for data: 800703600
I0403 14:12:40.991258 12915 layer_factory.hpp:77] Creating layer relu5
I0403 14:12:40.991282 12915 net.cpp:91] Creating Layer relu5
I0403 14:12:40.991302 12915 net.cpp:425] relu5 <- conv5
I0403 14:12:40.991319 12915 net.cpp:386] relu5 -> conv5 (in-place)
I0403 14:12:40.991655 12915 net.cpp:141] Setting up relu5
I0403 14:12:40.991683 12915 net.cpp:148] Top shape: 100 256 13 13 (4326400)
I0403 14:12:40.991698 12915 net.cpp:156] Memory required for data: 818009200
I0403 14:12:40.991713 12915 layer_factory.hpp:77] Creating layer pool5
I0403 14:12:40.991737 12915 net.cpp:91] Creating Layer pool5
I0403 14:12:40.991753 12915 net.cpp:425] pool5 <- conv5
I0403 14:12:40.991775 12915 net.cpp:399] pool5 -> pool5
I0403 14:12:40.991832 12915 net.cpp:141] Setting up pool5
I0403 14:12:40.991854 12915 net.cpp:148] Top shape: 100 256 6 6 (921600)
I0403 14:12:40.991869 12915 net.cpp:156] Memory required for data: 821695600
I0403 14:12:40.991883 12915 layer_factory.hpp:77] Creating layer fc6
I0403 14:12:40.991910 12915 net.cpp:91] Creating Layer fc6
I0403 14:12:40.991928 12915 net.cpp:425] fc6 <- pool5
I0403 14:12:40.991945 12915 net.cpp:399] fc6 -> fc6
I0403 14:12:42.526376 12915 net.cpp:141] Setting up fc6
I0403 14:12:42.526418 12915 net.cpp:148] Top shape: 100 4096 (409600)
I0403 14:12:42.526434 12915 net.cpp:156] Memory required for data: 823334000
I0403 14:12:42.526455 12915 layer_factory.hpp:77] Creating layer relu6
I0403 14:12:42.526479 12915 net.cpp:91] Creating Layer relu6
I0403 14:12:42.526496 12915 net.cpp:425] relu6 <- fc6
I0403 14:12:42.526517 12915 net.cpp:386] relu6 -> fc6 (in-place)
I0403 14:12:42.526738 12915 net.cpp:141] Setting up relu6
I0403 14:12:42.526765 12915 net.cpp:148] Top shape: 100 4096 (409600)
I0403 14:12:42.526780 12915 net.cpp:156] Memory required for data: 824972400
I0403 14:12:42.526794 12915 layer_factory.hpp:77] Creating layer drop6
I0403 14:12:42.526819 12915 net.cpp:91] Creating Layer drop6
I0403 14:12:42.526837 12915 net.cpp:425] drop6 <- fc6
I0403 14:12:42.526854 12915 net.cpp:386] drop6 -> fc6 (in-place)
I0403 14:12:42.526906 12915 net.cpp:141] Setting up drop6
I0403 14:12:42.526929 12915 net.cpp:148] Top shape: 100 4096 (409600)
I0403 14:12:42.526943 12915 net.cpp:156] Memory required for data: 826610800
I0403 14:12:42.526958 12915 layer_factory.hpp:77] Creating layer fc7
I0403 14:12:42.526978 12915 net.cpp:91] Creating Layer fc7
I0403 14:12:42.526993 12915 net.cpp:425] fc7 <- fc6
I0403 14:12:42.527014 12915 net.cpp:399] fc7 -> fc7
I0403 14:12:43.218268 12915 net.cpp:141] Setting up fc7
I0403 14:12:43.218332 12915 net.cpp:148] Top shape: 100 4096 (409600)
I0403 14:12:43.218349 12915 net.cpp:156] Memory required for data: 828249200
I0403 14:12:43.218370 12915 layer_factory.hpp:77] Creating layer relu7
I0403 14:12:43.218397 12915 net.cpp:91] Creating Layer relu7
I0403 14:12:43.218418 12915 net.cpp:425] relu7 <- fc7
I0403 14:12:43.218439 12915 net.cpp:386] relu7 -> fc7 (in-place)
I0403 14:12:43.218854 12915 net.cpp:141] Setting up relu7
I0403 14:12:43.218881 12915 net.cpp:148] Top shape: 100 4096 (409600)
I0403 14:12:43.218932 12915 net.cpp:156] Memory required for data: 829887600
I0403 14:12:43.218948 12915 layer_factory.hpp:77] Creating layer drop7
I0403 14:12:43.218969 12915 net.cpp:91] Creating Layer drop7
I0403 14:12:43.218986 12915 net.cpp:425] drop7 <- fc7
I0403 14:12:43.219004 12915 net.cpp:386] drop7 -> fc7 (in-place)
I0403 14:12:43.219051 12915 net.cpp:141] Setting up drop7
I0403 14:12:43.219074 12915 net.cpp:148] Top shape: 100 4096 (409600)
I0403 14:12:43.219089 12915 net.cpp:156] Memory required for data: 831526000
I0403 14:12:43.219104 12915 layer_factory.hpp:77] Creating layer fc8_plantvillage
I0403 14:12:43.219123 12915 net.cpp:91] Creating Layer fc8_plantvillage
I0403 14:12:43.219140 12915 net.cpp:425] fc8_plantvillage <- fc7
I0403 14:12:43.219159 12915 net.cpp:399] fc8_plantvillage -> fc8_plantvillage
I0403 14:12:43.225898 12915 net.cpp:141] Setting up fc8_plantvillage
I0403 14:12:43.225929 12915 net.cpp:148] Top shape: 100 38 (3800)
I0403 14:12:43.225946 12915 net.cpp:156] Memory required for data: 831541200
I0403 14:12:43.225965 12915 layer_factory.hpp:77] Creating layer fc8_plantvillage_fc8_plantvillage_0_split
I0403 14:12:43.225986 12915 net.cpp:91] Creating Layer fc8_plantvillage_fc8_plantvillage_0_split
I0403 14:12:43.226002 12915 net.cpp:425] fc8_plantvillage_fc8_plantvillage_0_split <- fc8_plantvillage
I0403 14:12:43.226021 12915 net.cpp:399] fc8_plantvillage_fc8_plantvillage_0_split -> fc8_plantvillage_fc8_plantvillage_0_split_0
I0403 14:12:43.226040 12915 net.cpp:399] fc8_plantvillage_fc8_plantvillage_0_split -> fc8_plantvillage_fc8_plantvillage_0_split_1
I0403 14:12:43.226063 12915 net.cpp:399] fc8_plantvillage_fc8_plantvillage_0_split -> fc8_plantvillage_fc8_plantvillage_0_split_2
I0403 14:12:43.226140 12915 net.cpp:141] Setting up fc8_plantvillage_fc8_plantvillage_0_split
I0403 14:12:43.226163 12915 net.cpp:148] Top shape: 100 38 (3800)
I0403 14:12:43.226181 12915 net.cpp:148] Top shape: 100 38 (3800)
I0403 14:12:43.226197 12915 net.cpp:148] Top shape: 100 38 (3800)
I0403 14:12:43.226209 12915 net.cpp:156] Memory required for data: 831586800
I0403 14:12:43.226223 12915 layer_factory.hpp:77] Creating layer prob
I0403 14:12:43.226241 12915 net.cpp:91] Creating Layer prob
I0403 14:12:43.226258 12915 net.cpp:425] prob <- fc8_plantvillage_fc8_plantvillage_0_split_0
I0403 14:12:43.226276 12915 net.cpp:399] prob -> prob
I0403 14:12:43.226500 12915 net.cpp:141] Setting up prob
I0403 14:12:43.226524 12915 net.cpp:148] Top shape: 100 38 (3800)
I0403 14:12:43.226539 12915 net.cpp:156] Memory required for data: 831602000
I0403 14:12:43.226554 12915 layer_factory.hpp:77] Creating layer hdf5out
I0403 14:12:43.226580 12915 net.cpp:91] Creating Layer hdf5out
I0403 14:12:43.226599 12915 net.cpp:425] hdf5out <- prob
I0403 14:12:43.226615 12915 net.cpp:425] hdf5out <- label_data_1_split_0
I0403 14:12:43.228859 12915 net.cpp:141] Setting up hdf5out
…
