…
I0403 14:11:50.625562 12889 net.cpp:313] The NetState phase (1) differed from the phase (0) specified by a rule in layer data
I0403 14:11:50.625891 12889 net.cpp:49] Initializing net from parameters: 
state {
  phase: TEST
}
layer {
  name: "data"
  type: "Data"
  top: "data"
  top: "label"
  include {
    phase: TEST
  }
  transform_param {
    crop_size: 227
    mean_file: "/home/mohanty/data/final_dataset/lmdb/grayscale-80-20/mean.binaryproto"
  }
  data_param {
    source: "/home/mohanty/data/final_dataset/lmdb/grayscale-80-20/test_db"
    batch_size: 100
    backend: LMDB
  }
}
layer {
  name: "conv1"
  type: "Convolution"
  bottom: "data"
  top: "conv1"
  param {
    lr_mult: 1
    decay_mult: 1
  }
  param {
    lr_mult: 2
    decay_mult: 0
  }
  convolution_param {
    num_output: 96
    kernel_size: 11
    stride: 4
    weight_filler {
      type: "gaussian"
      std: 0.01
    }
    bias_filler {
      type: "constant"
      value: 0
    }
  }
}
layer {
  name: "relu1"
  type: "ReLU"
  bottom: "conv1"
  top: "conv1"
}
layer {
  name: "norm1"
  type: "LRN"
  bottom: "conv1"
  top: "norm1"
  lrn_param {
    local_size: 5
    alpha: 0.0001
    beta: 0.75
  }
}
layer {
  name: "pool1"
  type: "Pooling"
  bottom: "norm1"
  top: "pool1"
  pooling_param {
    pool: MAX
    kernel_size: 3
    stride: 2
  }
}
layer {
  name: "conv2"
  type: "Convolution"
  bottom: "pool1"
  top: "conv2"
  param {
    lr_mult: 1
    decay_mult: 1
  }
  param {
    lr_mult: 2
    decay_mult: 0
  }
  convolution_param {
    num_output: 256
    pad: 2
    kernel_size: 5
    group: 2
    weight_filler {
      type: "gaussian"
      std: 0.01
    }
    bias_filler {
      type: "constant"
      value: 0.1
    }
  }
}
layer {
  name: "relu2"
  type: "ReLU"
  bottom: "conv2"
  top: "conv2"
}
layer {
  name: "norm2"
  type: "LRN"
  bottom: "conv2"
  top: "norm2"
  lrn_param {
    local_size: 5
    alpha: 0.0001
    beta: 0.75
  }
}
layer {
  name: "pool2"
  type: "Pooling"
  bottom: "norm2"
  top: "pool2"
  pooling_param {
    pool: MAX
    kernel_size: 3
    stride: 2
  }
}
layer {
  name: "conv3"
  type: "Convolution"
  bottom: "pool2"
  top: "conv3"
  param {
    lr_mult: 1
    decay_mult: 1
  }
  param {
    lr_mult: 2
    decay_mult: 0
  }
  convolution_param {
    num_output: 384
    pad: 1
    kernel_size: 3
    weight_filler {
      type: "gaussian"
      std: 0.01
    }
    bias_filler {
      type: "constant"
      value: 0
    }
  }
}
layer {
  name: "relu3"
  type: "ReLU"
  bottom: "conv3"
  top: "conv3"
}
layer {
  name: "conv4"
  type: "Convolution"
  bottom: "conv3"
  top: "conv4"
  param {
    lr_mult: 1
    decay_mult: 1
  }
  param {
    lr_mult: 2
    decay_mult: 0
  }
  convolution_param {
    num_output: 384
    pad: 1
    kernel_size: 3
    group: 2
    weight_filler {
      type: "gaussian"
      std: 0.01
    }
    bias_filler {
      type: "constant"
      value: 0.1
    }
  }
}
layer {
  name: "relu4"
  type: "ReLU"
  bottom: "conv4"
  top: "conv4"
}
layer {
  name: "conv5"
  type: "Convolution"
  bottom: "conv4"
  top: "conv5"
  param {
    lr_mult: 1
    decay_mult: 1
  }
  param {
    lr_mult: 2
    decay_mult: 0
  }
  convolution_param {
    num_output: 256
    pad: 1
    kernel_size: 3
    group: 2
    weight_filler {
      type: "gaussian"
      std: 0.01
    }
    bias_filler {
      type: "constant"
      value: 0.1
    }
  }
}
layer {
  name: "relu5"
  type: "ReLU"
  bottom: "conv5"
  top: "conv5"
}
layer {
  name: "pool5"
  type: "Pooling"
  bottom: "conv5"
  top: "pool5"
  pooling_param {
    pool: MAX
    kernel_size: 3
    stride: 2
  }
}
layer {
  name: "fc6"
  type: "InnerProduct"
  bottom: "pool5"
  top: "fc6"
  param {
    lr_mult: 1
    decay_mult: 1
  }
  param {
    lr_mult: 2
    decay_mult: 0
  }
  inner_product_param {
    num_output: 4096
    weight_filler {
      type: "gaussian"
      std: 0.005
    }
    bias_filler {
      type: "constant"
      value: 0.1
    }
  }
}
layer {
  name: "relu6"
  type: "ReLU"
  bottom: "fc6"
  top: "fc6"
}
layer {
  name: "drop6"
  type: "Dropout"
  bottom: "fc6"
  top: "fc6"
  dropout_param {
    dropout_ratio: 0.5
  }
}
layer {
  name: "fc7"
  type: "InnerProduct"
  bottom: "fc6"
  top: "fc7"
  param {
    lr_mult: 1
    decay_mult: 1
  }
  param {
    lr_mult: 2
    decay_mult: 0
  }
  inner_product_param {
    num_output: 4096
    weight_filler {
      type: "gaussian"
      std: 0.005
    }
    bias_filler {
      type: "constant"
      value: 0.1
    }
  }
}
layer {
  name: "relu7"
  type: "ReLU"
  bottom: "fc7"
  top: "fc7"
}
layer {
  name: "drop7"
  type: "Dropout"
  bottom: "fc7"
  top: "fc7"
  dropout_param {
    dropout_ratio: 0.5
  }
}
layer {
  name: "fc8_plantvillage"
  type: "InnerProduct"
  bottom: "fc7"
  top: "fc8_plantvillage"
  param {
    lr_mult: 1
    decay_mult: 1
  }
  param {
    lr_mult: 2
    decay_mult: 0
  }
  inner_product_param {
    num_output: 38
    weight_filler {
      type: "gaussian"
      std: 0.01
    }
    bias_filler {
      type: "constant"
      value: 0
    }
  }
}
layer {
  name: "prob"
  type: "Softmax"
  bottom: "fc8_plantvillage"
  top: "prob"
  include {
    phase: TEST
  }
}
layer {
  name: "hdf5out"
  type: "HDF5Output"
  bottom: "prob"
  bottom: "label"
  include {
    phase: TEST
  }
  hdf5_output_param {
    file_name: "hdf5_dumps/iter_11772.h5"
  }
}
layer {
  name: "loss"
  type: "SoftmaxWithLoss"
  bottom: "fc8_plantvillage"
  bottom: "label"
  top: "loss"
}
layer {
  name: "accuracy"
  type: "Accuracy"
  bottom: "fc8_plantvillage"
  bottom: "label"
  top: "accuracy"
  include {
    phase: TEST
  }
}
I0403 14:11:50.626473 12889 layer_factory.hpp:77] Creating layer data
I0403 14:11:50.627138 12889 net.cpp:91] Creating Layer data
I0403 14:11:50.627172 12889 net.cpp:399] data -> data
I0403 14:11:50.627223 12889 net.cpp:399] data -> label
I0403 14:11:50.627261 12889 data_transformer.cpp:25] Loading mean file from: /home/mohanty/data/final_dataset/lmdb/grayscale-80-20/mean.binaryproto
I0403 14:11:50.630309 12892 db_lmdb.cpp:38] Opened lmdb /home/mohanty/data/final_dataset/lmdb/grayscale-80-20/test_db
I0403 14:11:50.642117 12889 data_layer.cpp:41] output data size: 100,3,227,227
I0403 14:11:50.761989 12889 net.cpp:141] Setting up data
I0403 14:11:50.762079 12889 net.cpp:148] Top shape: 100 3 227 227 (15458700)
I0403 14:11:50.762101 12889 net.cpp:148] Top shape: 100 (100)
I0403 14:11:50.762115 12889 net.cpp:156] Memory required for data: 61835200
I0403 14:11:50.762142 12889 layer_factory.hpp:77] Creating layer label_data_1_split
I0403 14:11:50.762166 12889 net.cpp:91] Creating Layer label_data_1_split
I0403 14:11:50.762183 12889 net.cpp:425] label_data_1_split <- label
I0403 14:11:50.762215 12889 net.cpp:399] label_data_1_split -> label_data_1_split_0
I0403 14:11:50.762243 12889 net.cpp:399] label_data_1_split -> label_data_1_split_1
I0403 14:11:50.762264 12889 net.cpp:399] label_data_1_split -> label_data_1_split_2
I0403 14:11:50.762327 12889 net.cpp:141] Setting up label_data_1_split
I0403 14:11:50.762351 12889 net.cpp:148] Top shape: 100 (100)
I0403 14:11:50.762367 12889 net.cpp:148] Top shape: 100 (100)
I0403 14:11:50.762382 12889 net.cpp:148] Top shape: 100 (100)
I0403 14:11:50.762397 12889 net.cpp:156] Memory required for data: 61836400
I0403 14:11:50.762410 12889 layer_factory.hpp:77] Creating layer conv1
I0403 14:11:50.762441 12889 net.cpp:91] Creating Layer conv1
I0403 14:11:50.762459 12889 net.cpp:425] conv1 <- data
I0403 14:11:50.762477 12889 net.cpp:399] conv1 -> conv1
I0403 14:11:50.900117 12889 net.cpp:141] Setting up conv1
I0403 14:11:50.900193 12889 net.cpp:148] Top shape: 100 96 55 55 (29040000)
I0403 14:11:50.900210 12889 net.cpp:156] Memory required for data: 177996400
I0403 14:11:50.900240 12889 layer_factory.hpp:77] Creating layer relu1
I0403 14:11:50.900267 12889 net.cpp:91] Creating Layer relu1
I0403 14:11:50.900285 12889 net.cpp:425] relu1 <- conv1
I0403 14:11:50.900303 12889 net.cpp:386] relu1 -> conv1 (in-place)
I0403 14:11:50.900554 12889 net.cpp:141] Setting up relu1
I0403 14:11:50.900583 12889 net.cpp:148] Top shape: 100 96 55 55 (29040000)
I0403 14:11:50.900636 12889 net.cpp:156] Memory required for data: 294156400
I0403 14:11:50.900652 12889 layer_factory.hpp:77] Creating layer norm1
I0403 14:11:50.900678 12889 net.cpp:91] Creating Layer norm1
I0403 14:11:50.900696 12889 net.cpp:425] norm1 <- conv1
I0403 14:11:50.900713 12889 net.cpp:399] norm1 -> norm1
I0403 14:11:50.901016 12889 net.cpp:141] Setting up norm1
I0403 14:11:50.901044 12889 net.cpp:148] Top shape: 100 96 55 55 (29040000)
I0403 14:11:50.901059 12889 net.cpp:156] Memory required for data: 410316400
I0403 14:11:50.901074 12889 layer_factory.hpp:77] Creating layer pool1
I0403 14:11:50.901096 12889 net.cpp:91] Creating Layer pool1
I0403 14:11:50.901113 12889 net.cpp:425] pool1 <- norm1
I0403 14:11:50.901129 12889 net.cpp:399] pool1 -> pool1
I0403 14:11:50.901195 12889 net.cpp:141] Setting up pool1
I0403 14:11:50.901217 12889 net.cpp:148] Top shape: 100 96 27 27 (6998400)
I0403 14:11:50.901232 12889 net.cpp:156] Memory required for data: 438310000
I0403 14:11:50.901247 12889 layer_factory.hpp:77] Creating layer conv2
I0403 14:11:50.901271 12889 net.cpp:91] Creating Layer conv2
I0403 14:11:50.901288 12889 net.cpp:425] conv2 <- pool1
I0403 14:11:50.901304 12889 net.cpp:399] conv2 -> conv2
I0403 14:11:50.915802 12889 net.cpp:141] Setting up conv2
I0403 14:11:50.915835 12889 net.cpp:148] Top shape: 100 256 27 27 (18662400)
I0403 14:11:50.915851 12889 net.cpp:156] Memory required for data: 512959600
I0403 14:11:50.915874 12889 layer_factory.hpp:77] Creating layer relu2
I0403 14:11:50.915892 12889 net.cpp:91] Creating Layer relu2
I0403 14:11:50.915909 12889 net.cpp:425] relu2 <- conv2
I0403 14:11:50.915925 12889 net.cpp:386] relu2 -> conv2 (in-place)
I0403 14:11:50.916198 12889 net.cpp:141] Setting up relu2
I0403 14:11:50.916226 12889 net.cpp:148] Top shape: 100 256 27 27 (18662400)
I0403 14:11:50.916242 12889 net.cpp:156] Memory required for data: 587609200
I0403 14:11:50.916256 12889 layer_factory.hpp:77] Creating layer norm2
I0403 14:11:50.916275 12889 net.cpp:91] Creating Layer norm2
I0403 14:11:50.916290 12889 net.cpp:425] norm2 <- conv2
I0403 14:11:50.916309 12889 net.cpp:399] norm2 -> norm2
I0403 14:11:50.916506 12889 net.cpp:141] Setting up norm2
I0403 14:11:50.916530 12889 net.cpp:148] Top shape: 100 256 27 27 (18662400)
I0403 14:11:50.916545 12889 net.cpp:156] Memory required for data: 662258800
I0403 14:11:50.916559 12889 layer_factory.hpp:77] Creating layer pool2
I0403 14:11:50.916581 12889 net.cpp:91] Creating Layer pool2
I0403 14:11:50.916597 12889 net.cpp:425] pool2 <- norm2
I0403 14:11:50.916620 12889 net.cpp:399] pool2 -> pool2
I0403 14:11:50.916672 12889 net.cpp:141] Setting up pool2
I0403 14:11:50.916694 12889 net.cpp:148] Top shape: 100 256 13 13 (4326400)
I0403 14:11:50.916708 12889 net.cpp:156] Memory required for data: 679564400
I0403 14:11:50.916723 12889 layer_factory.hpp:77] Creating layer conv3
I0403 14:11:50.916744 12889 net.cpp:91] Creating Layer conv3
I0403 14:11:50.916760 12889 net.cpp:425] conv3 <- pool2
I0403 14:11:50.916780 12889 net.cpp:399] conv3 -> conv3
I0403 14:11:50.955139 12889 net.cpp:141] Setting up conv3
I0403 14:11:50.955215 12889 net.cpp:148] Top shape: 100 384 13 13 (6489600)
I0403 14:11:50.955232 12889 net.cpp:156] Memory required for data: 705522800
I0403 14:11:50.955260 12889 layer_factory.hpp:77] Creating layer relu3
I0403 14:11:50.955284 12889 net.cpp:91] Creating Layer relu3
I0403 14:11:50.955302 12889 net.cpp:425] relu3 <- conv3
I0403 14:11:50.955320 12889 net.cpp:386] relu3 -> conv3 (in-place)
I0403 14:11:50.955605 12889 net.cpp:141] Setting up relu3
I0403 14:11:50.955633 12889 net.cpp:148] Top shape: 100 384 13 13 (6489600)
I0403 14:11:50.955649 12889 net.cpp:156] Memory required for data: 731481200
I0403 14:11:50.955664 12889 layer_factory.hpp:77] Creating layer conv4
I0403 14:11:50.955693 12889 net.cpp:91] Creating Layer conv4
I0403 14:11:50.955711 12889 net.cpp:425] conv4 <- conv3
I0403 14:11:50.955730 12889 net.cpp:399] conv4 -> conv4
I0403 14:11:50.990347 12889 net.cpp:141] Setting up conv4
I0403 14:11:50.990398 12889 net.cpp:148] Top shape: 100 384 13 13 (6489600)
I0403 14:11:50.990447 12889 net.cpp:156] Memory required for data: 757439600
I0403 14:11:50.990468 12889 layer_factory.hpp:77] Creating layer relu4
I0403 14:11:50.990489 12889 net.cpp:91] Creating Layer relu4
I0403 14:11:50.990506 12889 net.cpp:425] relu4 <- conv4
I0403 14:11:50.990525 12889 net.cpp:386] relu4 -> conv4 (in-place)
I0403 14:11:50.990825 12889 net.cpp:141] Setting up relu4
I0403 14:11:50.990851 12889 net.cpp:148] Top shape: 100 384 13 13 (6489600)
I0403 14:11:50.990866 12889 net.cpp:156] Memory required for data: 783398000
I0403 14:11:50.990881 12889 layer_factory.hpp:77] Creating layer conv5
I0403 14:11:50.990906 12889 net.cpp:91] Creating Layer conv5
I0403 14:11:50.990922 12889 net.cpp:425] conv5 <- conv4
I0403 14:11:50.990942 12889 net.cpp:399] conv5 -> conv5
I0403 14:11:51.012176 12889 net.cpp:141] Setting up conv5
I0403 14:11:51.012212 12889 net.cpp:148] Top shape: 100 256 13 13 (4326400)
I0403 14:11:51.012228 12889 net.cpp:156] Memory required for data: 800703600
I0403 14:11:51.012272 12889 layer_factory.hpp:77] Creating layer relu5
I0403 14:11:51.012295 12889 net.cpp:91] Creating Layer relu5
I0403 14:11:51.012315 12889 net.cpp:425] relu5 <- conv5
I0403 14:11:51.012333 12889 net.cpp:386] relu5 -> conv5 (in-place)
I0403 14:11:51.012621 12889 net.cpp:141] Setting up relu5
I0403 14:11:51.012648 12889 net.cpp:148] Top shape: 100 256 13 13 (4326400)
I0403 14:11:51.012667 12889 net.cpp:156] Memory required for data: 818009200
I0403 14:11:51.012682 12889 layer_factory.hpp:77] Creating layer pool5
I0403 14:11:51.012703 12889 net.cpp:91] Creating Layer pool5
I0403 14:11:51.012719 12889 net.cpp:425] pool5 <- conv5
I0403 14:11:51.012740 12889 net.cpp:399] pool5 -> pool5
I0403 14:11:51.012800 12889 net.cpp:141] Setting up pool5
I0403 14:11:51.012825 12889 net.cpp:148] Top shape: 100 256 6 6 (921600)
I0403 14:11:51.012840 12889 net.cpp:156] Memory required for data: 821695600
I0403 14:11:51.012853 12889 layer_factory.hpp:77] Creating layer fc6
I0403 14:11:51.012886 12889 net.cpp:91] Creating Layer fc6
I0403 14:11:51.012903 12889 net.cpp:425] fc6 <- pool5
I0403 14:11:51.012923 12889 net.cpp:399] fc6 -> fc6
I0403 14:11:52.543336 12889 net.cpp:141] Setting up fc6
I0403 14:11:52.543404 12889 net.cpp:148] Top shape: 100 4096 (409600)
I0403 14:11:52.543421 12889 net.cpp:156] Memory required for data: 823334000
I0403 14:11:52.543440 12889 layer_factory.hpp:77] Creating layer relu6
I0403 14:11:52.543462 12889 net.cpp:91] Creating Layer relu6
I0403 14:11:52.543479 12889 net.cpp:425] relu6 <- fc6
I0403 14:11:52.543500 12889 net.cpp:386] relu6 -> fc6 (in-place)
I0403 14:11:52.543745 12889 net.cpp:141] Setting up relu6
I0403 14:11:52.543768 12889 net.cpp:148] Top shape: 100 4096 (409600)
I0403 14:11:52.543782 12889 net.cpp:156] Memory required for data: 824972400
I0403 14:11:52.543797 12889 layer_factory.hpp:77] Creating layer drop6
I0403 14:11:52.543815 12889 net.cpp:91] Creating Layer drop6
I0403 14:11:52.543830 12889 net.cpp:425] drop6 <- fc6
I0403 14:11:52.543846 12889 net.cpp:386] drop6 -> fc6 (in-place)
I0403 14:11:52.543896 12889 net.cpp:141] Setting up drop6
I0403 14:11:52.543918 12889 net.cpp:148] Top shape: 100 4096 (409600)
I0403 14:11:52.543932 12889 net.cpp:156] Memory required for data: 826610800
I0403 14:11:52.543946 12889 layer_factory.hpp:77] Creating layer fc7
I0403 14:11:52.543967 12889 net.cpp:91] Creating Layer fc7
I0403 14:11:52.543982 12889 net.cpp:425] fc7 <- fc6
I0403 14:11:52.543998 12889 net.cpp:399] fc7 -> fc7
I0403 14:11:53.225507 12889 net.cpp:141] Setting up fc7
I0403 14:11:53.225569 12889 net.cpp:148] Top shape: 100 4096 (409600)
I0403 14:11:53.225584 12889 net.cpp:156] Memory required for data: 828249200
I0403 14:11:53.225610 12889 layer_factory.hpp:77] Creating layer relu7
I0403 14:11:53.225635 12889 net.cpp:91] Creating Layer relu7
I0403 14:11:53.225651 12889 net.cpp:425] relu7 <- fc7
I0403 14:11:53.225669 12889 net.cpp:386] relu7 -> fc7 (in-place)
I0403 14:11:53.226063 12889 net.cpp:141] Setting up relu7
I0403 14:11:53.226089 12889 net.cpp:148] Top shape: 100 4096 (409600)
I0403 14:11:53.226143 12889 net.cpp:156] Memory required for data: 829887600
I0403 14:11:53.226158 12889 layer_factory.hpp:77] Creating layer drop7
I0403 14:11:53.226178 12889 net.cpp:91] Creating Layer drop7
I0403 14:11:53.226194 12889 net.cpp:425] drop7 <- fc7
I0403 14:11:53.226210 12889 net.cpp:386] drop7 -> fc7 (in-place)
I0403 14:11:53.226254 12889 net.cpp:141] Setting up drop7
I0403 14:11:53.226289 12889 net.cpp:148] Top shape: 100 4096 (409600)
I0403 14:11:53.226305 12889 net.cpp:156] Memory required for data: 831526000
I0403 14:11:53.226318 12889 layer_factory.hpp:77] Creating layer fc8_plantvillage
I0403 14:11:53.226336 12889 net.cpp:91] Creating Layer fc8_plantvillage
I0403 14:11:53.226351 12889 net.cpp:425] fc8_plantvillage <- fc7
I0403 14:11:53.226372 12889 net.cpp:399] fc8_plantvillage -> fc8_plantvillage
I0403 14:11:53.233009 12889 net.cpp:141] Setting up fc8_plantvillage
I0403 14:11:53.233039 12889 net.cpp:148] Top shape: 100 38 (3800)
I0403 14:11:53.233055 12889 net.cpp:156] Memory required for data: 831541200
I0403 14:11:53.233072 12889 layer_factory.hpp:77] Creating layer fc8_plantvillage_fc8_plantvillage_0_split
I0403 14:11:53.233089 12889 net.cpp:91] Creating Layer fc8_plantvillage_fc8_plantvillage_0_split
I0403 14:11:53.233104 12889 net.cpp:425] fc8_plantvillage_fc8_plantvillage_0_split <- fc8_plantvillage
I0403 14:11:53.233121 12889 net.cpp:399] fc8_plantvillage_fc8_plantvillage_0_split -> fc8_plantvillage_fc8_plantvillage_0_split_0
I0403 14:11:53.233140 12889 net.cpp:399] fc8_plantvillage_fc8_plantvillage_0_split -> fc8_plantvillage_fc8_plantvillage_0_split_1
I0403 14:11:53.233158 12889 net.cpp:399] fc8_plantvillage_fc8_plantvillage_0_split -> fc8_plantvillage_fc8_plantvillage_0_split_2
I0403 14:11:53.233237 12889 net.cpp:141] Setting up fc8_plantvillage_fc8_plantvillage_0_split
I0403 14:11:53.233258 12889 net.cpp:148] Top shape: 100 38 (3800)
I0403 14:11:53.233274 12889 net.cpp:148] Top shape: 100 38 (3800)
I0403 14:11:53.233289 12889 net.cpp:148] Top shape: 100 38 (3800)
I0403 14:11:53.233302 12889 net.cpp:156] Memory required for data: 831586800
I0403 14:11:53.233316 12889 layer_factory.hpp:77] Creating layer prob
I0403 14:11:53.233335 12889 net.cpp:91] Creating Layer prob
I0403 14:11:53.233350 12889 net.cpp:425] prob <- fc8_plantvillage_fc8_plantvillage_0_split_0
I0403 14:11:53.233366 12889 net.cpp:399] prob -> prob
I0403 14:11:53.233592 12889 net.cpp:141] Setting up prob
I0403 14:11:53.233623 12889 net.cpp:148] Top shape: 100 38 (3800)
I0403 14:11:53.233638 12889 net.cpp:156] Memory required for data: 831602000
I0403 14:11:53.233652 12889 layer_factory.hpp:77] Creating layer hdf5out
I0403 14:11:53.233674 12889 net.cpp:91] Creating Layer hdf5out
I0403 14:11:53.233690 12889 net.cpp:425] hdf5out <- prob
I0403 14:11:53.233705 12889 net.cpp:425] hdf5out <- label_data_1_split_0
I0403 14:11:53.236305 12889 net.cpp:141] Setting up hdf5out
…
