…
I0403 14:13:30.971395 12942 net.cpp:313] The NetState phase (1) differed from the phase (0) specified by a rule in layer data
I0403 14:13:30.971726 12942 net.cpp:49] Initializing net from parameters: 
state {
  phase: TEST
}
layer {
  name: "data"
  type: "Data"
  top: "data"
  top: "label"
  include {
    phase: TEST
  }
  transform_param {
    crop_size: 227
    mean_file: "/home/mohanty/data/final_dataset/lmdb/grayscale-80-20/mean.binaryproto"
  }
  data_param {
    source: "/home/mohanty/data/final_dataset/lmdb/grayscale-80-20/test_db"
    batch_size: 100
    backend: LMDB
  }
}
layer {
  name: "conv1"
  type: "Convolution"
  bottom: "data"
  top: "conv1"
  param {
    lr_mult: 1
    decay_mult: 1
  }
  param {
    lr_mult: 2
    decay_mult: 0
  }
  convolution_param {
    num_output: 96
    kernel_size: 11
    stride: 4
    weight_filler {
      type: "gaussian"
      std: 0.01
    }
    bias_filler {
      type: "constant"
      value: 0
    }
  }
}
layer {
  name: "relu1"
  type: "ReLU"
  bottom: "conv1"
  top: "conv1"
}
layer {
  name: "norm1"
  type: "LRN"
  bottom: "conv1"
  top: "norm1"
  lrn_param {
    local_size: 5
    alpha: 0.0001
    beta: 0.75
  }
}
layer {
  name: "pool1"
  type: "Pooling"
  bottom: "norm1"
  top: "pool1"
  pooling_param {
    pool: MAX
    kernel_size: 3
    stride: 2
  }
}
layer {
  name: "conv2"
  type: "Convolution"
  bottom: "pool1"
  top: "conv2"
  param {
    lr_mult: 1
    decay_mult: 1
  }
  param {
    lr_mult: 2
    decay_mult: 0
  }
  convolution_param {
    num_output: 256
    pad: 2
    kernel_size: 5
    group: 2
    weight_filler {
      type: "gaussian"
      std: 0.01
    }
    bias_filler {
      type: "constant"
      value: 0.1
    }
  }
}
layer {
  name: "relu2"
  type: "ReLU"
  bottom: "conv2"
  top: "conv2"
}
layer {
  name: "norm2"
  type: "LRN"
  bottom: "conv2"
  top: "norm2"
  lrn_param {
    local_size: 5
    alpha: 0.0001
    beta: 0.75
  }
}
layer {
  name: "pool2"
  type: "Pooling"
  bottom: "norm2"
  top: "pool2"
  pooling_param {
    pool: MAX
    kernel_size: 3
    stride: 2
  }
}
layer {
  name: "conv3"
  type: "Convolution"
  bottom: "pool2"
  top: "conv3"
  param {
    lr_mult: 1
    decay_mult: 1
  }
  param {
    lr_mult: 2
    decay_mult: 0
  }
  convolution_param {
    num_output: 384
    pad: 1
    kernel_size: 3
    weight_filler {
      type: "gaussian"
      std: 0.01
    }
    bias_filler {
      type: "constant"
      value: 0
    }
  }
}
layer {
  name: "relu3"
  type: "ReLU"
  bottom: "conv3"
  top: "conv3"
}
layer {
  name: "conv4"
  type: "Convolution"
  bottom: "conv3"
  top: "conv4"
  param {
    lr_mult: 1
    decay_mult: 1
  }
  param {
    lr_mult: 2
    decay_mult: 0
  }
  convolution_param {
    num_output: 384
    pad: 1
    kernel_size: 3
    group: 2
    weight_filler {
      type: "gaussian"
      std: 0.01
    }
    bias_filler {
      type: "constant"
      value: 0.1
    }
  }
}
layer {
  name: "relu4"
  type: "ReLU"
  bottom: "conv4"
  top: "conv4"
}
layer {
  name: "conv5"
  type: "Convolution"
  bottom: "conv4"
  top: "conv5"
  param {
    lr_mult: 1
    decay_mult: 1
  }
  param {
    lr_mult: 2
    decay_mult: 0
  }
  convolution_param {
    num_output: 256
    pad: 1
    kernel_size: 3
    group: 2
    weight_filler {
      type: "gaussian"
      std: 0.01
    }
    bias_filler {
      type: "constant"
      value: 0.1
    }
  }
}
layer {
  name: "relu5"
  type: "ReLU"
  bottom: "conv5"
  top: "conv5"
}
layer {
  name: "pool5"
  type: "Pooling"
  bottom: "conv5"
  top: "pool5"
  pooling_param {
    pool: MAX
    kernel_size: 3
    stride: 2
  }
}
layer {
  name: "fc6"
  type: "InnerProduct"
  bottom: "pool5"
  top: "fc6"
  param {
    lr_mult: 1
    decay_mult: 1
  }
  param {
    lr_mult: 2
    decay_mult: 0
  }
  inner_product_param {
    num_output: 4096
    weight_filler {
      type: "gaussian"
      std: 0.005
    }
    bias_filler {
      type: "constant"
      value: 0.1
    }
  }
}
layer {
  name: "relu6"
  type: "ReLU"
  bottom: "fc6"
  top: "fc6"
}
layer {
  name: "drop6"
  type: "Dropout"
  bottom: "fc6"
  top: "fc6"
  dropout_param {
    dropout_ratio: 0.5
  }
}
layer {
  name: "fc7"
  type: "InnerProduct"
  bottom: "fc6"
  top: "fc7"
  param {
    lr_mult: 1
    decay_mult: 1
  }
  param {
    lr_mult: 2
    decay_mult: 0
  }
  inner_product_param {
    num_output: 4096
    weight_filler {
      type: "gaussian"
      std: 0.005
    }
    bias_filler {
      type: "constant"
      value: 0.1
    }
  }
}
layer {
  name: "relu7"
  type: "ReLU"
  bottom: "fc7"
  top: "fc7"
}
layer {
  name: "drop7"
  type: "Dropout"
  bottom: "fc7"
  top: "fc7"
  dropout_param {
    dropout_ratio: 0.5
  }
}
layer {
  name: "fc8_plantvillage"
  type: "InnerProduct"
  bottom: "fc7"
  top: "fc8_plantvillage"
  param {
    lr_mult: 1
    decay_mult: 1
  }
  param {
    lr_mult: 2
    decay_mult: 0
  }
  inner_product_param {
    num_output: 38
    weight_filler {
      type: "gaussian"
      std: 0.01
    }
    bias_filler {
      type: "constant"
      value: 0
    }
  }
}
layer {
  name: "prob"
  type: "Softmax"
  bottom: "fc8_plantvillage"
  top: "prob"
  include {
    phase: TEST
  }
}
layer {
  name: "hdf5out"
  type: "HDF5Output"
  bottom: "prob"
  bottom: "label"
  include {
    phase: TEST
  }
  hdf5_output_param {
    file_name: "hdf5_dumps/iter_13085.h5"
  }
}
layer {
  name: "loss"
  type: "SoftmaxWithLoss"
  bottom: "fc8_plantvillage"
  bottom: "label"
  top: "loss"
}
layer {
  name: "accuracy"
  type: "Accuracy"
  bottom: "fc8_plantvillage"
  bottom: "label"
  top: "accuracy"
  include {
    phase: TEST
  }
}
I0403 14:13:30.972318 12942 layer_factory.hpp:77] Creating layer data
I0403 14:13:30.972978 12942 net.cpp:91] Creating Layer data
I0403 14:13:30.973011 12942 net.cpp:399] data -> data
I0403 14:13:30.973062 12942 net.cpp:399] data -> label
I0403 14:13:30.973099 12942 data_transformer.cpp:25] Loading mean file from: /home/mohanty/data/final_dataset/lmdb/grayscale-80-20/mean.binaryproto
I0403 14:13:30.975679 12946 db_lmdb.cpp:38] Opened lmdb /home/mohanty/data/final_dataset/lmdb/grayscale-80-20/test_db
I0403 14:13:30.987743 12942 data_layer.cpp:41] output data size: 100,3,227,227
I0403 14:13:31.108489 12942 net.cpp:141] Setting up data
I0403 14:13:31.108578 12942 net.cpp:148] Top shape: 100 3 227 227 (15458700)
I0403 14:13:31.108602 12942 net.cpp:148] Top shape: 100 (100)
I0403 14:13:31.108618 12942 net.cpp:156] Memory required for data: 61835200
I0403 14:13:31.108644 12942 layer_factory.hpp:77] Creating layer label_data_1_split
I0403 14:13:31.108670 12942 net.cpp:91] Creating Layer label_data_1_split
I0403 14:13:31.108688 12942 net.cpp:425] label_data_1_split <- label
I0403 14:13:31.108718 12942 net.cpp:399] label_data_1_split -> label_data_1_split_0
I0403 14:13:31.108746 12942 net.cpp:399] label_data_1_split -> label_data_1_split_1
I0403 14:13:31.108767 12942 net.cpp:399] label_data_1_split -> label_data_1_split_2
I0403 14:13:31.108829 12942 net.cpp:141] Setting up label_data_1_split
I0403 14:13:31.108852 12942 net.cpp:148] Top shape: 100 (100)
I0403 14:13:31.108868 12942 net.cpp:148] Top shape: 100 (100)
I0403 14:13:31.108885 12942 net.cpp:148] Top shape: 100 (100)
I0403 14:13:31.108898 12942 net.cpp:156] Memory required for data: 61836400
I0403 14:13:31.108912 12942 layer_factory.hpp:77] Creating layer conv1
I0403 14:13:31.108943 12942 net.cpp:91] Creating Layer conv1
I0403 14:13:31.108961 12942 net.cpp:425] conv1 <- data
I0403 14:13:31.108980 12942 net.cpp:399] conv1 -> conv1
I0403 14:13:31.254418 12942 net.cpp:141] Setting up conv1
I0403 14:13:31.254462 12942 net.cpp:148] Top shape: 100 96 55 55 (29040000)
I0403 14:13:31.254479 12942 net.cpp:156] Memory required for data: 177996400
I0403 14:13:31.254508 12942 layer_factory.hpp:77] Creating layer relu1
I0403 14:13:31.254535 12942 net.cpp:91] Creating Layer relu1
I0403 14:13:31.254552 12942 net.cpp:425] relu1 <- conv1
I0403 14:13:31.254581 12942 net.cpp:386] relu1 -> conv1 (in-place)
I0403 14:13:31.254834 12942 net.cpp:141] Setting up relu1
I0403 14:13:31.254861 12942 net.cpp:148] Top shape: 100 96 55 55 (29040000)
I0403 14:13:31.254909 12942 net.cpp:156] Memory required for data: 294156400
I0403 14:13:31.254925 12942 layer_factory.hpp:77] Creating layer norm1
I0403 14:13:31.254951 12942 net.cpp:91] Creating Layer norm1
I0403 14:13:31.254967 12942 net.cpp:425] norm1 <- conv1
I0403 14:13:31.254986 12942 net.cpp:399] norm1 -> norm1
I0403 14:13:31.255280 12942 net.cpp:141] Setting up norm1
I0403 14:13:31.255306 12942 net.cpp:148] Top shape: 100 96 55 55 (29040000)
I0403 14:13:31.255321 12942 net.cpp:156] Memory required for data: 410316400
I0403 14:13:31.255336 12942 layer_factory.hpp:77] Creating layer pool1
I0403 14:13:31.255358 12942 net.cpp:91] Creating Layer pool1
I0403 14:13:31.255375 12942 net.cpp:425] pool1 <- norm1
I0403 14:13:31.255393 12942 net.cpp:399] pool1 -> pool1
I0403 14:13:31.255456 12942 net.cpp:141] Setting up pool1
I0403 14:13:31.255480 12942 net.cpp:148] Top shape: 100 96 27 27 (6998400)
I0403 14:13:31.255493 12942 net.cpp:156] Memory required for data: 438310000
I0403 14:13:31.255508 12942 layer_factory.hpp:77] Creating layer conv2
I0403 14:13:31.255532 12942 net.cpp:91] Creating Layer conv2
I0403 14:13:31.255548 12942 net.cpp:425] conv2 <- pool1
I0403 14:13:31.255565 12942 net.cpp:399] conv2 -> conv2
I0403 14:13:31.270426 12942 net.cpp:141] Setting up conv2
I0403 14:13:31.270460 12942 net.cpp:148] Top shape: 100 256 27 27 (18662400)
I0403 14:13:31.270476 12942 net.cpp:156] Memory required for data: 512959600
I0403 14:13:31.270499 12942 layer_factory.hpp:77] Creating layer relu2
I0403 14:13:31.270519 12942 net.cpp:91] Creating Layer relu2
I0403 14:13:31.270534 12942 net.cpp:425] relu2 <- conv2
I0403 14:13:31.270550 12942 net.cpp:386] relu2 -> conv2 (in-place)
I0403 14:13:31.270829 12942 net.cpp:141] Setting up relu2
I0403 14:13:31.270859 12942 net.cpp:148] Top shape: 100 256 27 27 (18662400)
I0403 14:13:31.270874 12942 net.cpp:156] Memory required for data: 587609200
I0403 14:13:31.270889 12942 layer_factory.hpp:77] Creating layer norm2
I0403 14:13:31.270908 12942 net.cpp:91] Creating Layer norm2
I0403 14:13:31.270925 12942 net.cpp:425] norm2 <- conv2
I0403 14:13:31.270943 12942 net.cpp:399] norm2 -> norm2
I0403 14:13:31.271136 12942 net.cpp:141] Setting up norm2
I0403 14:13:31.271162 12942 net.cpp:148] Top shape: 100 256 27 27 (18662400)
I0403 14:13:31.271176 12942 net.cpp:156] Memory required for data: 662258800
I0403 14:13:31.271190 12942 layer_factory.hpp:77] Creating layer pool2
I0403 14:13:31.271209 12942 net.cpp:91] Creating Layer pool2
I0403 14:13:31.271225 12942 net.cpp:425] pool2 <- norm2
I0403 14:13:31.271242 12942 net.cpp:399] pool2 -> pool2
I0403 14:13:31.271293 12942 net.cpp:141] Setting up pool2
I0403 14:13:31.271316 12942 net.cpp:148] Top shape: 100 256 13 13 (4326400)
I0403 14:13:31.271365 12942 net.cpp:156] Memory required for data: 679564400
I0403 14:13:31.271386 12942 layer_factory.hpp:77] Creating layer conv3
I0403 14:13:31.271411 12942 net.cpp:91] Creating Layer conv3
I0403 14:13:31.271430 12942 net.cpp:425] conv3 <- pool2
I0403 14:13:31.271450 12942 net.cpp:399] conv3 -> conv3
I0403 14:13:31.310909 12942 net.cpp:141] Setting up conv3
I0403 14:13:31.310966 12942 net.cpp:148] Top shape: 100 384 13 13 (6489600)
I0403 14:13:31.310983 12942 net.cpp:156] Memory required for data: 705522800
I0403 14:13:31.311008 12942 layer_factory.hpp:77] Creating layer relu3
I0403 14:13:31.311031 12942 net.cpp:91] Creating Layer relu3
I0403 14:13:31.311049 12942 net.cpp:425] relu3 <- conv3
I0403 14:13:31.311067 12942 net.cpp:386] relu3 -> conv3 (in-place)
I0403 14:13:31.311347 12942 net.cpp:141] Setting up relu3
I0403 14:13:31.311374 12942 net.cpp:148] Top shape: 100 384 13 13 (6489600)
I0403 14:13:31.311390 12942 net.cpp:156] Memory required for data: 731481200
I0403 14:13:31.311405 12942 layer_factory.hpp:77] Creating layer conv4
I0403 14:13:31.311431 12942 net.cpp:91] Creating Layer conv4
I0403 14:13:31.311450 12942 net.cpp:425] conv4 <- conv3
I0403 14:13:31.311468 12942 net.cpp:399] conv4 -> conv4
I0403 14:13:31.341986 12942 net.cpp:141] Setting up conv4
I0403 14:13:31.342023 12942 net.cpp:148] Top shape: 100 384 13 13 (6489600)
I0403 14:13:31.342079 12942 net.cpp:156] Memory required for data: 757439600
I0403 14:13:31.342102 12942 layer_factory.hpp:77] Creating layer relu4
I0403 14:13:31.342125 12942 net.cpp:91] Creating Layer relu4
I0403 14:13:31.342144 12942 net.cpp:425] relu4 <- conv4
I0403 14:13:31.342162 12942 net.cpp:386] relu4 -> conv4 (in-place)
I0403 14:13:31.342463 12942 net.cpp:141] Setting up relu4
I0403 14:13:31.342489 12942 net.cpp:148] Top shape: 100 384 13 13 (6489600)
I0403 14:13:31.342504 12942 net.cpp:156] Memory required for data: 783398000
I0403 14:13:31.342519 12942 layer_factory.hpp:77] Creating layer conv5
I0403 14:13:31.342543 12942 net.cpp:91] Creating Layer conv5
I0403 14:13:31.342561 12942 net.cpp:425] conv5 <- conv4
I0403 14:13:31.342587 12942 net.cpp:399] conv5 -> conv5
I0403 14:13:31.362758 12942 net.cpp:141] Setting up conv5
I0403 14:13:31.362794 12942 net.cpp:148] Top shape: 100 256 13 13 (4326400)
I0403 14:13:31.362810 12942 net.cpp:156] Memory required for data: 800703600
I0403 14:13:31.362836 12942 layer_factory.hpp:77] Creating layer relu5
I0403 14:13:31.362855 12942 net.cpp:91] Creating Layer relu5
I0403 14:13:31.362872 12942 net.cpp:425] relu5 <- conv5
I0403 14:13:31.362931 12942 net.cpp:386] relu5 -> conv5 (in-place)
I0403 14:13:31.363205 12942 net.cpp:141] Setting up relu5
I0403 14:13:31.363234 12942 net.cpp:148] Top shape: 100 256 13 13 (4326400)
I0403 14:13:31.363250 12942 net.cpp:156] Memory required for data: 818009200
I0403 14:13:31.363265 12942 layer_factory.hpp:77] Creating layer pool5
I0403 14:13:31.363286 12942 net.cpp:91] Creating Layer pool5
I0403 14:13:31.363302 12942 net.cpp:425] pool5 <- conv5
I0403 14:13:31.363322 12942 net.cpp:399] pool5 -> pool5
I0403 14:13:31.363381 12942 net.cpp:141] Setting up pool5
I0403 14:13:31.363404 12942 net.cpp:148] Top shape: 100 256 6 6 (921600)
I0403 14:13:31.363417 12942 net.cpp:156] Memory required for data: 821695600
I0403 14:13:31.363431 12942 layer_factory.hpp:77] Creating layer fc6
I0403 14:13:31.363461 12942 net.cpp:91] Creating Layer fc6
I0403 14:13:31.363478 12942 net.cpp:425] fc6 <- pool5
I0403 14:13:31.363498 12942 net.cpp:399] fc6 -> fc6
I0403 14:13:32.920183 12942 net.cpp:141] Setting up fc6
I0403 14:13:32.920245 12942 net.cpp:148] Top shape: 100 4096 (409600)
I0403 14:13:32.920264 12942 net.cpp:156] Memory required for data: 823334000
I0403 14:13:32.920284 12942 layer_factory.hpp:77] Creating layer relu6
I0403 14:13:32.920305 12942 net.cpp:91] Creating Layer relu6
I0403 14:13:32.920320 12942 net.cpp:425] relu6 <- fc6
I0403 14:13:32.920341 12942 net.cpp:386] relu6 -> fc6 (in-place)
I0403 14:13:32.920557 12942 net.cpp:141] Setting up relu6
I0403 14:13:32.920586 12942 net.cpp:148] Top shape: 100 4096 (409600)
I0403 14:13:32.920601 12942 net.cpp:156] Memory required for data: 824972400
I0403 14:13:32.920616 12942 layer_factory.hpp:77] Creating layer drop6
I0403 14:13:32.920636 12942 net.cpp:91] Creating Layer drop6
I0403 14:13:32.920653 12942 net.cpp:425] drop6 <- fc6
I0403 14:13:32.920670 12942 net.cpp:386] drop6 -> fc6 (in-place)
I0403 14:13:32.920722 12942 net.cpp:141] Setting up drop6
I0403 14:13:32.920745 12942 net.cpp:148] Top shape: 100 4096 (409600)
I0403 14:13:32.920759 12942 net.cpp:156] Memory required for data: 826610800
I0403 14:13:32.920773 12942 layer_factory.hpp:77] Creating layer fc7
I0403 14:13:32.920795 12942 net.cpp:91] Creating Layer fc7
I0403 14:13:32.920811 12942 net.cpp:425] fc7 <- fc6
I0403 14:13:32.920828 12942 net.cpp:399] fc7 -> fc7
I0403 14:13:33.606762 12942 net.cpp:141] Setting up fc7
I0403 14:13:33.606819 12942 net.cpp:148] Top shape: 100 4096 (409600)
I0403 14:13:33.606837 12942 net.cpp:156] Memory required for data: 828249200
I0403 14:13:33.606858 12942 layer_factory.hpp:77] Creating layer relu7
I0403 14:13:33.606880 12942 net.cpp:91] Creating Layer relu7
I0403 14:13:33.606899 12942 net.cpp:425] relu7 <- fc7
I0403 14:13:33.606916 12942 net.cpp:386] relu7 -> fc7 (in-place)
I0403 14:13:33.607312 12942 net.cpp:141] Setting up relu7
I0403 14:13:33.607338 12942 net.cpp:148] Top shape: 100 4096 (409600)
I0403 14:13:33.607393 12942 net.cpp:156] Memory required for data: 829887600
I0403 14:13:33.607408 12942 layer_factory.hpp:77] Creating layer drop7
I0403 14:13:33.607429 12942 net.cpp:91] Creating Layer drop7
I0403 14:13:33.607445 12942 net.cpp:425] drop7 <- fc7
I0403 14:13:33.607462 12942 net.cpp:386] drop7 -> fc7 (in-place)
I0403 14:13:33.607506 12942 net.cpp:141] Setting up drop7
I0403 14:13:33.607527 12942 net.cpp:148] Top shape: 100 4096 (409600)
I0403 14:13:33.607542 12942 net.cpp:156] Memory required for data: 831526000
I0403 14:13:33.607555 12942 layer_factory.hpp:77] Creating layer fc8_plantvillage
I0403 14:13:33.607578 12942 net.cpp:91] Creating Layer fc8_plantvillage
I0403 14:13:33.607595 12942 net.cpp:425] fc8_plantvillage <- fc7
I0403 14:13:33.607614 12942 net.cpp:399] fc8_plantvillage -> fc8_plantvillage
I0403 14:13:33.614440 12942 net.cpp:141] Setting up fc8_plantvillage
I0403 14:13:33.614475 12942 net.cpp:148] Top shape: 100 38 (3800)
I0403 14:13:33.614490 12942 net.cpp:156] Memory required for data: 831541200
I0403 14:13:33.614508 12942 layer_factory.hpp:77] Creating layer fc8_plantvillage_fc8_plantvillage_0_split
I0403 14:13:33.614526 12942 net.cpp:91] Creating Layer fc8_plantvillage_fc8_plantvillage_0_split
I0403 14:13:33.614542 12942 net.cpp:425] fc8_plantvillage_fc8_plantvillage_0_split <- fc8_plantvillage
I0403 14:13:33.614558 12942 net.cpp:399] fc8_plantvillage_fc8_plantvillage_0_split -> fc8_plantvillage_fc8_plantvillage_0_split_0
I0403 14:13:33.614588 12942 net.cpp:399] fc8_plantvillage_fc8_plantvillage_0_split -> fc8_plantvillage_fc8_plantvillage_0_split_1
I0403 14:13:33.614612 12942 net.cpp:399] fc8_plantvillage_fc8_plantvillage_0_split -> fc8_plantvillage_fc8_plantvillage_0_split_2
I0403 14:13:33.614691 12942 net.cpp:141] Setting up fc8_plantvillage_fc8_plantvillage_0_split
I0403 14:13:33.614713 12942 net.cpp:148] Top shape: 100 38 (3800)
I0403 14:13:33.614728 12942 net.cpp:148] Top shape: 100 38 (3800)
I0403 14:13:33.614743 12942 net.cpp:148] Top shape: 100 38 (3800)
I0403 14:13:33.614756 12942 net.cpp:156] Memory required for data: 831586800
I0403 14:13:33.614770 12942 layer_factory.hpp:77] Creating layer prob
I0403 14:13:33.614789 12942 net.cpp:91] Creating Layer prob
I0403 14:13:33.614804 12942 net.cpp:425] prob <- fc8_plantvillage_fc8_plantvillage_0_split_0
I0403 14:13:33.614820 12942 net.cpp:399] prob -> prob
I0403 14:13:33.615042 12942 net.cpp:141] Setting up prob
I0403 14:13:33.615067 12942 net.cpp:148] Top shape: 100 38 (3800)
I0403 14:13:33.615082 12942 net.cpp:156] Memory required for data: 831602000
I0403 14:13:33.615097 12942 layer_factory.hpp:77] Creating layer hdf5out
I0403 14:13:33.615118 12942 net.cpp:91] Creating Layer hdf5out
I0403 14:13:33.615134 12942 net.cpp:425] hdf5out <- prob
I0403 14:13:33.615149 12942 net.cpp:425] hdf5out <- label_data_1_split_0
I0403 14:13:33.617507 12942 net.cpp:141] Setting up hdf5out
…
