…
I0403 14:05:57.501298 12679 net.cpp:313] The NetState phase (1) differed from the phase (0) specified by a rule in layer data
I0403 14:05:57.501616 12679 net.cpp:49] Initializing net from parameters: 
state {
  phase: TEST
}
layer {
  name: "data"
  type: "Data"
  top: "data"
  top: "label"
  include {
    phase: TEST
  }
  transform_param {
    crop_size: 227
    mean_file: "/home/mohanty/data/final_dataset/lmdb/grayscale-80-20/mean.binaryproto"
  }
  data_param {
    source: "/home/mohanty/data/final_dataset/lmdb/grayscale-80-20/test_db"
    batch_size: 100
    backend: LMDB
  }
}
layer {
  name: "conv1"
  type: "Convolution"
  bottom: "data"
  top: "conv1"
  param {
    lr_mult: 1
    decay_mult: 1
  }
  param {
    lr_mult: 2
    decay_mult: 0
  }
  convolution_param {
    num_output: 96
    kernel_size: 11
    stride: 4
    weight_filler {
      type: "gaussian"
      std: 0.01
    }
    bias_filler {
      type: "constant"
      value: 0
    }
  }
}
layer {
  name: "relu1"
  type: "ReLU"
  bottom: "conv1"
  top: "conv1"
}
layer {
  name: "norm1"
  type: "LRN"
  bottom: "conv1"
  top: "norm1"
  lrn_param {
    local_size: 5
    alpha: 0.0001
    beta: 0.75
  }
}
layer {
  name: "pool1"
  type: "Pooling"
  bottom: "norm1"
  top: "pool1"
  pooling_param {
    pool: MAX
    kernel_size: 3
    stride: 2
  }
}
layer {
  name: "conv2"
  type: "Convolution"
  bottom: "pool1"
  top: "conv2"
  param {
    lr_mult: 1
    decay_mult: 1
  }
  param {
    lr_mult: 2
    decay_mult: 0
  }
  convolution_param {
    num_output: 256
    pad: 2
    kernel_size: 5
    group: 2
    weight_filler {
      type: "gaussian"
      std: 0.01
    }
    bias_filler {
      type: "constant"
      value: 0.1
    }
  }
}
layer {
  name: "relu2"
  type: "ReLU"
  bottom: "conv2"
  top: "conv2"
}
layer {
  name: "norm2"
  type: "LRN"
  bottom: "conv2"
  top: "norm2"
  lrn_param {
    local_size: 5
    alpha: 0.0001
    beta: 0.75
  }
}
layer {
  name: "pool2"
  type: "Pooling"
  bottom: "norm2"
  top: "pool2"
  pooling_param {
    pool: MAX
    kernel_size: 3
    stride: 2
  }
}
layer {
  name: "conv3"
  type: "Convolution"
  bottom: "pool2"
  top: "conv3"
  param {
    lr_mult: 1
    decay_mult: 1
  }
  param {
    lr_mult: 2
    decay_mult: 0
  }
  convolution_param {
    num_output: 384
    pad: 1
    kernel_size: 3
    weight_filler {
      type: "gaussian"
      std: 0.01
    }
    bias_filler {
      type: "constant"
      value: 0
    }
  }
}
layer {
  name: "relu3"
  type: "ReLU"
  bottom: "conv3"
  top: "conv3"
}
layer {
  name: "conv4"
  type: "Convolution"
  bottom: "conv3"
  top: "conv4"
  param {
    lr_mult: 1
    decay_mult: 1
  }
  param {
    lr_mult: 2
    decay_mult: 0
  }
  convolution_param {
    num_output: 384
    pad: 1
    kernel_size: 3
    group: 2
    weight_filler {
      type: "gaussian"
      std: 0.01
    }
    bias_filler {
      type: "constant"
      value: 0.1
    }
  }
}
layer {
  name: "relu4"
  type: "ReLU"
  bottom: "conv4"
  top: "conv4"
}
layer {
  name: "conv5"
  type: "Convolution"
  bottom: "conv4"
  top: "conv5"
  param {
    lr_mult: 1
    decay_mult: 1
  }
  param {
    lr_mult: 2
    decay_mult: 0
  }
  convolution_param {
    num_output: 256
    pad: 1
    kernel_size: 3
    group: 2
    weight_filler {
      type: "gaussian"
      std: 0.01
    }
    bias_filler {
      type: "constant"
      value: 0.1
    }
  }
}
layer {
  name: "relu5"
  type: "ReLU"
  bottom: "conv5"
  top: "conv5"
}
layer {
  name: "pool5"
  type: "Pooling"
  bottom: "conv5"
  top: "pool5"
  pooling_param {
    pool: MAX
    kernel_size: 3
    stride: 2
  }
}
layer {
  name: "fc6"
  type: "InnerProduct"
  bottom: "pool5"
  top: "fc6"
  param {
    lr_mult: 1
    decay_mult: 1
  }
  param {
    lr_mult: 2
    decay_mult: 0
  }
  inner_product_param {
    num_output: 4096
    weight_filler {
      type: "gaussian"
      std: 0.005
    }
    bias_filler {
      type: "constant"
      value: 0.1
    }
  }
}
layer {
  name: "relu6"
  type: "ReLU"
  bottom: "fc6"
  top: "fc6"
}
layer {
  name: "drop6"
  type: "Dropout"
  bottom: "fc6"
  top: "fc6"
  dropout_param {
    dropout_ratio: 0.5
  }
}
layer {
  name: "fc7"
  type: "InnerProduct"
  bottom: "fc6"
  top: "fc7"
  param {
    lr_mult: 1
    decay_mult: 1
  }
  param {
    lr_mult: 2
    decay_mult: 0
  }
  inner_product_param {
    num_output: 4096
    weight_filler {
      type: "gaussian"
      std: 0.005
    }
    bias_filler {
      type: "constant"
      value: 0.1
    }
  }
}
layer {
  name: "relu7"
  type: "ReLU"
  bottom: "fc7"
  top: "fc7"
}
layer {
  name: "drop7"
  type: "Dropout"
  bottom: "fc7"
  top: "fc7"
  dropout_param {
    dropout_ratio: 0.5
  }
}
layer {
  name: "fc8_plantvillage"
  type: "InnerProduct"
  bottom: "fc7"
  top: "fc8_plantvillage"
  param {
    lr_mult: 1
    decay_mult: 1
  }
  param {
    lr_mult: 2
    decay_mult: 0
  }
  inner_product_param {
    num_output: 38
    weight_filler {
      type: "gaussian"
      std: 0.01
    }
    bias_filler {
      type: "constant"
      value: 0
    }
  }
}
layer {
  name: "prob"
  type: "Softmax"
  bottom: "fc8_plantvillage"
  top: "prob"
  include {
    phase: TEST
  }
}
layer {
  name: "hdf5out"
  type: "HDF5Output"
  bottom: "prob"
  bottom: "label"
  include {
    phase: TEST
  }
  hdf5_output_param {
    file_name: "hdf5_dumps/iter_5668.h5"
  }
}
layer {
  name: "loss"
  type: "SoftmaxWithLoss"
  bottom: "fc8_plantvillage"
  bottom: "label"
  top: "loss"
}
layer {
  name: "accuracy"
  type: "Accuracy"
  bottom: "fc8_plantvillage"
  bottom: "label"
  top: "accuracy"
  include {
    phase: TEST
  }
}
I0403 14:05:57.502182 12679 layer_factory.hpp:77] Creating layer data
I0403 14:05:57.502817 12679 net.cpp:91] Creating Layer data
I0403 14:05:57.502849 12679 net.cpp:399] data -> data
I0403 14:05:57.502899 12679 net.cpp:399] data -> label
I0403 14:05:57.502936 12679 data_transformer.cpp:25] Loading mean file from: /home/mohanty/data/final_dataset/lmdb/grayscale-80-20/mean.binaryproto
I0403 14:05:57.505584 12682 db_lmdb.cpp:38] Opened lmdb /home/mohanty/data/final_dataset/lmdb/grayscale-80-20/test_db
I0403 14:05:57.517588 12679 data_layer.cpp:41] output data size: 100,3,227,227
I0403 14:05:57.637392 12679 net.cpp:141] Setting up data
I0403 14:05:57.637449 12679 net.cpp:148] Top shape: 100 3 227 227 (15458700)
I0403 14:05:57.637472 12679 net.cpp:148] Top shape: 100 (100)
I0403 14:05:57.637487 12679 net.cpp:156] Memory required for data: 61835200
I0403 14:05:57.637516 12679 layer_factory.hpp:77] Creating layer label_data_1_split
I0403 14:05:57.637540 12679 net.cpp:91] Creating Layer label_data_1_split
I0403 14:05:57.637558 12679 net.cpp:425] label_data_1_split <- label
I0403 14:05:57.637590 12679 net.cpp:399] label_data_1_split -> label_data_1_split_0
I0403 14:05:57.637621 12679 net.cpp:399] label_data_1_split -> label_data_1_split_1
I0403 14:05:57.637642 12679 net.cpp:399] label_data_1_split -> label_data_1_split_2
I0403 14:05:57.637702 12679 net.cpp:141] Setting up label_data_1_split
I0403 14:05:57.637725 12679 net.cpp:148] Top shape: 100 (100)
I0403 14:05:57.637742 12679 net.cpp:148] Top shape: 100 (100)
I0403 14:05:57.637758 12679 net.cpp:148] Top shape: 100 (100)
I0403 14:05:57.637773 12679 net.cpp:156] Memory required for data: 61836400
I0403 14:05:57.637786 12679 layer_factory.hpp:77] Creating layer conv1
I0403 14:05:57.637816 12679 net.cpp:91] Creating Layer conv1
I0403 14:05:57.637835 12679 net.cpp:425] conv1 <- data
I0403 14:05:57.637851 12679 net.cpp:399] conv1 -> conv1
I0403 14:05:57.778373 12679 net.cpp:141] Setting up conv1
I0403 14:05:57.778448 12679 net.cpp:148] Top shape: 100 96 55 55 (29040000)
I0403 14:05:57.778466 12679 net.cpp:156] Memory required for data: 177996400
I0403 14:05:57.778498 12679 layer_factory.hpp:77] Creating layer relu1
I0403 14:05:57.778525 12679 net.cpp:91] Creating Layer relu1
I0403 14:05:57.778544 12679 net.cpp:425] relu1 <- conv1
I0403 14:05:57.778574 12679 net.cpp:386] relu1 -> conv1 (in-place)
I0403 14:05:57.778836 12679 net.cpp:141] Setting up relu1
I0403 14:05:57.778863 12679 net.cpp:148] Top shape: 100 96 55 55 (29040000)
I0403 14:05:57.778918 12679 net.cpp:156] Memory required for data: 294156400
I0403 14:05:57.778934 12679 layer_factory.hpp:77] Creating layer norm1
I0403 14:05:57.778961 12679 net.cpp:91] Creating Layer norm1
I0403 14:05:57.778980 12679 net.cpp:425] norm1 <- conv1
I0403 14:05:57.778998 12679 net.cpp:399] norm1 -> norm1
I0403 14:05:57.779309 12679 net.cpp:141] Setting up norm1
I0403 14:05:57.779337 12679 net.cpp:148] Top shape: 100 96 55 55 (29040000)
I0403 14:05:57.779355 12679 net.cpp:156] Memory required for data: 410316400
I0403 14:05:57.779369 12679 layer_factory.hpp:77] Creating layer pool1
I0403 14:05:57.779392 12679 net.cpp:91] Creating Layer pool1
I0403 14:05:57.779410 12679 net.cpp:425] pool1 <- norm1
I0403 14:05:57.779428 12679 net.cpp:399] pool1 -> pool1
I0403 14:05:57.779496 12679 net.cpp:141] Setting up pool1
I0403 14:05:57.779520 12679 net.cpp:148] Top shape: 100 96 27 27 (6998400)
I0403 14:05:57.779536 12679 net.cpp:156] Memory required for data: 438310000
I0403 14:05:57.779551 12679 layer_factory.hpp:77] Creating layer conv2
I0403 14:05:57.779595 12679 net.cpp:91] Creating Layer conv2
I0403 14:05:57.779615 12679 net.cpp:425] conv2 <- pool1
I0403 14:05:57.779633 12679 net.cpp:399] conv2 -> conv2
I0403 14:05:57.795364 12679 net.cpp:141] Setting up conv2
I0403 14:05:57.795423 12679 net.cpp:148] Top shape: 100 256 27 27 (18662400)
I0403 14:05:57.795440 12679 net.cpp:156] Memory required for data: 512959600
I0403 14:05:57.795464 12679 layer_factory.hpp:77] Creating layer relu2
I0403 14:05:57.795486 12679 net.cpp:91] Creating Layer relu2
I0403 14:05:57.795505 12679 net.cpp:425] relu2 <- conv2
I0403 14:05:57.795522 12679 net.cpp:386] relu2 -> conv2 (in-place)
I0403 14:05:57.795807 12679 net.cpp:141] Setting up relu2
I0403 14:05:57.795835 12679 net.cpp:148] Top shape: 100 256 27 27 (18662400)
I0403 14:05:57.795852 12679 net.cpp:156] Memory required for data: 587609200
I0403 14:05:57.795868 12679 layer_factory.hpp:77] Creating layer norm2
I0403 14:05:57.795891 12679 net.cpp:91] Creating Layer norm2
I0403 14:05:57.795948 12679 net.cpp:425] norm2 <- conv2
I0403 14:05:57.795974 12679 net.cpp:399] norm2 -> norm2
I0403 14:05:57.796171 12679 net.cpp:141] Setting up norm2
I0403 14:05:57.796198 12679 net.cpp:148] Top shape: 100 256 27 27 (18662400)
I0403 14:05:57.796214 12679 net.cpp:156] Memory required for data: 662258800
I0403 14:05:57.796229 12679 layer_factory.hpp:77] Creating layer pool2
I0403 14:05:57.796249 12679 net.cpp:91] Creating Layer pool2
I0403 14:05:57.796265 12679 net.cpp:425] pool2 <- norm2
I0403 14:05:57.796283 12679 net.cpp:399] pool2 -> pool2
I0403 14:05:57.796337 12679 net.cpp:141] Setting up pool2
I0403 14:05:57.796362 12679 net.cpp:148] Top shape: 100 256 13 13 (4326400)
I0403 14:05:57.796377 12679 net.cpp:156] Memory required for data: 679564400
I0403 14:05:57.796393 12679 layer_factory.hpp:77] Creating layer conv3
I0403 14:05:57.796416 12679 net.cpp:91] Creating Layer conv3
I0403 14:05:57.796433 12679 net.cpp:425] conv3 <- pool2
I0403 14:05:57.796452 12679 net.cpp:399] conv3 -> conv3
I0403 14:05:57.836041 12679 net.cpp:141] Setting up conv3
I0403 14:05:57.836091 12679 net.cpp:148] Top shape: 100 384 13 13 (6489600)
I0403 14:05:57.836107 12679 net.cpp:156] Memory required for data: 705522800
I0403 14:05:57.836132 12679 layer_factory.hpp:77] Creating layer relu3
I0403 14:05:57.836155 12679 net.cpp:91] Creating Layer relu3
I0403 14:05:57.836171 12679 net.cpp:425] relu3 <- conv3
I0403 14:05:57.836189 12679 net.cpp:386] relu3 -> conv3 (in-place)
I0403 14:05:57.836459 12679 net.cpp:141] Setting up relu3
I0403 14:05:57.836486 12679 net.cpp:148] Top shape: 100 384 13 13 (6489600)
I0403 14:05:57.836501 12679 net.cpp:156] Memory required for data: 731481200
I0403 14:05:57.836516 12679 layer_factory.hpp:77] Creating layer conv4
I0403 14:05:57.836541 12679 net.cpp:91] Creating Layer conv4
I0403 14:05:57.836560 12679 net.cpp:425] conv4 <- conv3
I0403 14:05:57.836585 12679 net.cpp:399] conv4 -> conv4
I0403 14:05:57.866487 12679 net.cpp:141] Setting up conv4
I0403 14:05:57.866541 12679 net.cpp:148] Top shape: 100 384 13 13 (6489600)
I0403 14:05:57.866597 12679 net.cpp:156] Memory required for data: 757439600
I0403 14:05:57.866621 12679 layer_factory.hpp:77] Creating layer relu4
I0403 14:05:57.866641 12679 net.cpp:91] Creating Layer relu4
I0403 14:05:57.866658 12679 net.cpp:425] relu4 <- conv4
I0403 14:05:57.866679 12679 net.cpp:386] relu4 -> conv4 (in-place)
I0403 14:05:57.866966 12679 net.cpp:141] Setting up relu4
I0403 14:05:57.866992 12679 net.cpp:148] Top shape: 100 384 13 13 (6489600)
I0403 14:05:57.867009 12679 net.cpp:156] Memory required for data: 783398000
I0403 14:05:57.867024 12679 layer_factory.hpp:77] Creating layer conv5
I0403 14:05:57.867053 12679 net.cpp:91] Creating Layer conv5
I0403 14:05:57.867097 12679 net.cpp:425] conv5 <- conv4
I0403 14:05:57.867123 12679 net.cpp:399] conv5 -> conv5
I0403 14:05:57.888020 12679 net.cpp:141] Setting up conv5
I0403 14:05:57.888077 12679 net.cpp:148] Top shape: 100 256 13 13 (4326400)
I0403 14:05:57.888092 12679 net.cpp:156] Memory required for data: 800703600
I0403 14:05:57.888118 12679 layer_factory.hpp:77] Creating layer relu5
I0403 14:05:57.888140 12679 net.cpp:91] Creating Layer relu5
I0403 14:05:57.888157 12679 net.cpp:425] relu5 <- conv5
I0403 14:05:57.888231 12679 net.cpp:386] relu5 -> conv5 (in-place)
I0403 14:05:57.888535 12679 net.cpp:141] Setting up relu5
I0403 14:05:57.888562 12679 net.cpp:148] Top shape: 100 256 13 13 (4326400)
I0403 14:05:57.888583 12679 net.cpp:156] Memory required for data: 818009200
I0403 14:05:57.888598 12679 layer_factory.hpp:77] Creating layer pool5
I0403 14:05:57.888623 12679 net.cpp:91] Creating Layer pool5
I0403 14:05:57.888641 12679 net.cpp:425] pool5 <- conv5
I0403 14:05:57.888660 12679 net.cpp:399] pool5 -> pool5
I0403 14:05:57.888722 12679 net.cpp:141] Setting up pool5
I0403 14:05:57.888746 12679 net.cpp:148] Top shape: 100 256 6 6 (921600)
I0403 14:05:57.888761 12679 net.cpp:156] Memory required for data: 821695600
I0403 14:05:57.888775 12679 layer_factory.hpp:77] Creating layer fc6
I0403 14:05:57.888804 12679 net.cpp:91] Creating Layer fc6
I0403 14:05:57.888828 12679 net.cpp:425] fc6 <- pool5
I0403 14:05:57.888846 12679 net.cpp:399] fc6 -> fc6
I0403 14:05:59.420974 12679 net.cpp:141] Setting up fc6
I0403 14:05:59.421018 12679 net.cpp:148] Top shape: 100 4096 (409600)
I0403 14:05:59.421035 12679 net.cpp:156] Memory required for data: 823334000
I0403 14:05:59.421054 12679 layer_factory.hpp:77] Creating layer relu6
I0403 14:05:59.421077 12679 net.cpp:91] Creating Layer relu6
I0403 14:05:59.421093 12679 net.cpp:425] relu6 <- fc6
I0403 14:05:59.421116 12679 net.cpp:386] relu6 -> fc6 (in-place)
I0403 14:05:59.421332 12679 net.cpp:141] Setting up relu6
I0403 14:05:59.421356 12679 net.cpp:148] Top shape: 100 4096 (409600)
I0403 14:05:59.421372 12679 net.cpp:156] Memory required for data: 824972400
I0403 14:05:59.421386 12679 layer_factory.hpp:77] Creating layer drop6
I0403 14:05:59.421403 12679 net.cpp:91] Creating Layer drop6
I0403 14:05:59.421418 12679 net.cpp:425] drop6 <- fc6
I0403 14:05:59.421437 12679 net.cpp:386] drop6 -> fc6 (in-place)
I0403 14:05:59.421490 12679 net.cpp:141] Setting up drop6
I0403 14:05:59.421514 12679 net.cpp:148] Top shape: 100 4096 (409600)
I0403 14:05:59.421530 12679 net.cpp:156] Memory required for data: 826610800
I0403 14:05:59.421543 12679 layer_factory.hpp:77] Creating layer fc7
I0403 14:05:59.421562 12679 net.cpp:91] Creating Layer fc7
I0403 14:05:59.421582 12679 net.cpp:425] fc7 <- fc6
I0403 14:05:59.421603 12679 net.cpp:399] fc7 -> fc7
I0403 14:06:00.095101 12679 net.cpp:141] Setting up fc7
I0403 14:06:00.095170 12679 net.cpp:148] Top shape: 100 4096 (409600)
I0403 14:06:00.095185 12679 net.cpp:156] Memory required for data: 828249200
I0403 14:06:00.095206 12679 layer_factory.hpp:77] Creating layer relu7
I0403 14:06:00.095228 12679 net.cpp:91] Creating Layer relu7
I0403 14:06:00.095247 12679 net.cpp:425] relu7 <- fc7
I0403 14:06:00.095265 12679 net.cpp:386] relu7 -> fc7 (in-place)
I0403 14:06:00.095672 12679 net.cpp:141] Setting up relu7
I0403 14:06:00.095698 12679 net.cpp:148] Top shape: 100 4096 (409600)
I0403 14:06:00.095748 12679 net.cpp:156] Memory required for data: 829887600
I0403 14:06:00.095764 12679 layer_factory.hpp:77] Creating layer drop7
I0403 14:06:00.095782 12679 net.cpp:91] Creating Layer drop7
I0403 14:06:00.095800 12679 net.cpp:425] drop7 <- fc7
I0403 14:06:00.095818 12679 net.cpp:386] drop7 -> fc7 (in-place)
I0403 14:06:00.095860 12679 net.cpp:141] Setting up drop7
I0403 14:06:00.095885 12679 net.cpp:148] Top shape: 100 4096 (409600)
I0403 14:06:00.095899 12679 net.cpp:156] Memory required for data: 831526000
I0403 14:06:00.095913 12679 layer_factory.hpp:77] Creating layer fc8_plantvillage
I0403 14:06:00.095933 12679 net.cpp:91] Creating Layer fc8_plantvillage
I0403 14:06:00.095949 12679 net.cpp:425] fc8_plantvillage <- fc7
I0403 14:06:00.095968 12679 net.cpp:399] fc8_plantvillage -> fc8_plantvillage
I0403 14:06:00.102478 12679 net.cpp:141] Setting up fc8_plantvillage
I0403 14:06:00.102504 12679 net.cpp:148] Top shape: 100 38 (3800)
I0403 14:06:00.102520 12679 net.cpp:156] Memory required for data: 831541200
I0403 14:06:00.102538 12679 layer_factory.hpp:77] Creating layer fc8_plantvillage_fc8_plantvillage_0_split
I0403 14:06:00.102558 12679 net.cpp:91] Creating Layer fc8_plantvillage_fc8_plantvillage_0_split
I0403 14:06:00.102578 12679 net.cpp:425] fc8_plantvillage_fc8_plantvillage_0_split <- fc8_plantvillage
I0403 14:06:00.102597 12679 net.cpp:399] fc8_plantvillage_fc8_plantvillage_0_split -> fc8_plantvillage_fc8_plantvillage_0_split_0
I0403 14:06:00.102617 12679 net.cpp:399] fc8_plantvillage_fc8_plantvillage_0_split -> fc8_plantvillage_fc8_plantvillage_0_split_1
I0403 14:06:00.102635 12679 net.cpp:399] fc8_plantvillage_fc8_plantvillage_0_split -> fc8_plantvillage_fc8_plantvillage_0_split_2
I0403 14:06:00.102715 12679 net.cpp:141] Setting up fc8_plantvillage_fc8_plantvillage_0_split
I0403 14:06:00.102737 12679 net.cpp:148] Top shape: 100 38 (3800)
I0403 14:06:00.102753 12679 net.cpp:148] Top shape: 100 38 (3800)
I0403 14:06:00.102767 12679 net.cpp:148] Top shape: 100 38 (3800)
I0403 14:06:00.102780 12679 net.cpp:156] Memory required for data: 831586800
I0403 14:06:00.102794 12679 layer_factory.hpp:77] Creating layer prob
I0403 14:06:00.102813 12679 net.cpp:91] Creating Layer prob
I0403 14:06:00.102826 12679 net.cpp:425] prob <- fc8_plantvillage_fc8_plantvillage_0_split_0
I0403 14:06:00.102845 12679 net.cpp:399] prob -> prob
I0403 14:06:00.103065 12679 net.cpp:141] Setting up prob
I0403 14:06:00.103090 12679 net.cpp:148] Top shape: 100 38 (3800)
I0403 14:06:00.103103 12679 net.cpp:156] Memory required for data: 831602000
I0403 14:06:00.103117 12679 layer_factory.hpp:77] Creating layer hdf5out
I0403 14:06:00.103138 12679 net.cpp:91] Creating Layer hdf5out
I0403 14:06:00.103154 12679 net.cpp:425] hdf5out <- prob
I0403 14:06:00.103169 12679 net.cpp:425] hdf5out <- label_data_1_split_0
I0403 14:06:00.105645 12679 net.cpp:141] Setting up hdf5out
…
