…
I0403 14:06:22.452193 12689 net.cpp:313] The NetState phase (1) differed from the phase (0) specified by a rule in layer data
I0403 14:06:22.452499 12689 net.cpp:49] Initializing net from parameters: 
state {
  phase: TEST
}
layer {
  name: "data"
  type: "Data"
  top: "data"
  top: "label"
  include {
    phase: TEST
  }
  transform_param {
    crop_size: 227
    mean_file: "/home/mohanty/data/final_dataset/lmdb/grayscale-80-20/mean.binaryproto"
  }
  data_param {
    source: "/home/mohanty/data/final_dataset/lmdb/grayscale-80-20/test_db"
    batch_size: 100
    backend: LMDB
  }
}
layer {
  name: "conv1"
  type: "Convolution"
  bottom: "data"
  top: "conv1"
  param {
    lr_mult: 1
    decay_mult: 1
  }
  param {
    lr_mult: 2
    decay_mult: 0
  }
  convolution_param {
    num_output: 96
    kernel_size: 11
    stride: 4
    weight_filler {
      type: "gaussian"
      std: 0.01
    }
    bias_filler {
      type: "constant"
      value: 0
    }
  }
}
layer {
  name: "relu1"
  type: "ReLU"
  bottom: "conv1"
  top: "conv1"
}
layer {
  name: "norm1"
  type: "LRN"
  bottom: "conv1"
  top: "norm1"
  lrn_param {
    local_size: 5
    alpha: 0.0001
    beta: 0.75
  }
}
layer {
  name: "pool1"
  type: "Pooling"
  bottom: "norm1"
  top: "pool1"
  pooling_param {
    pool: MAX
    kernel_size: 3
    stride: 2
  }
}
layer {
  name: "conv2"
  type: "Convolution"
  bottom: "pool1"
  top: "conv2"
  param {
    lr_mult: 1
    decay_mult: 1
  }
  param {
    lr_mult: 2
    decay_mult: 0
  }
  convolution_param {
    num_output: 256
    pad: 2
    kernel_size: 5
    group: 2
    weight_filler {
      type: "gaussian"
      std: 0.01
    }
    bias_filler {
      type: "constant"
      value: 0.1
    }
  }
}
layer {
  name: "relu2"
  type: "ReLU"
  bottom: "conv2"
  top: "conv2"
}
layer {
  name: "norm2"
  type: "LRN"
  bottom: "conv2"
  top: "norm2"
  lrn_param {
    local_size: 5
    alpha: 0.0001
    beta: 0.75
  }
}
layer {
  name: "pool2"
  type: "Pooling"
  bottom: "norm2"
  top: "pool2"
  pooling_param {
    pool: MAX
    kernel_size: 3
    stride: 2
  }
}
layer {
  name: "conv3"
  type: "Convolution"
  bottom: "pool2"
  top: "conv3"
  param {
    lr_mult: 1
    decay_mult: 1
  }
  param {
    lr_mult: 2
    decay_mult: 0
  }
  convolution_param {
    num_output: 384
    pad: 1
    kernel_size: 3
    weight_filler {
      type: "gaussian"
      std: 0.01
    }
    bias_filler {
      type: "constant"
      value: 0
    }
  }
}
layer {
  name: "relu3"
  type: "ReLU"
  bottom: "conv3"
  top: "conv3"
}
layer {
  name: "conv4"
  type: "Convolution"
  bottom: "conv3"
  top: "conv4"
  param {
    lr_mult: 1
    decay_mult: 1
  }
  param {
    lr_mult: 2
    decay_mult: 0
  }
  convolution_param {
    num_output: 384
    pad: 1
    kernel_size: 3
    group: 2
    weight_filler {
      type: "gaussian"
      std: 0.01
    }
    bias_filler {
      type: "constant"
      value: 0.1
    }
  }
}
layer {
  name: "relu4"
  type: "ReLU"
  bottom: "conv4"
  top: "conv4"
}
layer {
  name: "conv5"
  type: "Convolution"
  bottom: "conv4"
  top: "conv5"
  param {
    lr_mult: 1
    decay_mult: 1
  }
  param {
    lr_mult: 2
    decay_mult: 0
  }
  convolution_param {
    num_output: 256
    pad: 1
    kernel_size: 3
    group: 2
    weight_filler {
      type: "gaussian"
      std: 0.01
    }
    bias_filler {
      type: "constant"
      value: 0.1
    }
  }
}
layer {
  name: "relu5"
  type: "ReLU"
  bottom: "conv5"
  top: "conv5"
}
layer {
  name: "pool5"
  type: "Pooling"
  bottom: "conv5"
  top: "pool5"
  pooling_param {
    pool: MAX
    kernel_size: 3
    stride: 2
  }
}
layer {
  name: "fc6"
  type: "InnerProduct"
  bottom: "pool5"
  top: "fc6"
  param {
    lr_mult: 1
    decay_mult: 1
  }
  param {
    lr_mult: 2
    decay_mult: 0
  }
  inner_product_param {
    num_output: 4096
    weight_filler {
      type: "gaussian"
      std: 0.005
    }
    bias_filler {
      type: "constant"
      value: 0.1
    }
  }
}
layer {
  name: "relu6"
  type: "ReLU"
  bottom: "fc6"
  top: "fc6"
}
layer {
  name: "drop6"
  type: "Dropout"
  bottom: "fc6"
  top: "fc6"
  dropout_param {
    dropout_ratio: 0.5
  }
}
layer {
  name: "fc7"
  type: "InnerProduct"
  bottom: "fc6"
  top: "fc7"
  param {
    lr_mult: 1
    decay_mult: 1
  }
  param {
    lr_mult: 2
    decay_mult: 0
  }
  inner_product_param {
    num_output: 4096
    weight_filler {
      type: "gaussian"
      std: 0.005
    }
    bias_filler {
      type: "constant"
      value: 0.1
    }
  }
}
layer {
  name: "relu7"
  type: "ReLU"
  bottom: "fc7"
  top: "fc7"
}
layer {
  name: "drop7"
  type: "Dropout"
  bottom: "fc7"
  top: "fc7"
  dropout_param {
    dropout_ratio: 0.5
  }
}
layer {
  name: "fc8_plantvillage"
  type: "InnerProduct"
  bottom: "fc7"
  top: "fc8_plantvillage"
  param {
    lr_mult: 1
    decay_mult: 1
  }
  param {
    lr_mult: 2
    decay_mult: 0
  }
  inner_product_param {
    num_output: 38
    weight_filler {
      type: "gaussian"
      std: 0.01
    }
    bias_filler {
      type: "constant"
      value: 0
    }
  }
}
layer {
  name: "prob"
  type: "Softmax"
  bottom: "fc8_plantvillage"
  top: "prob"
  include {
    phase: TEST
  }
}
layer {
  name: "hdf5out"
  type: "HDF5Output"
  bottom: "prob"
  bottom: "label"
  include {
    phase: TEST
  }
  hdf5_output_param {
    file_name: "hdf5_dumps/iter_6104.h5"
  }
}
layer {
  name: "loss"
  type: "SoftmaxWithLoss"
  bottom: "fc8_plantvillage"
  bottom: "label"
  top: "loss"
}
layer {
  name: "accuracy"
  type: "Accuracy"
  bottom: "fc8_plantvillage"
  bottom: "label"
  top: "accuracy"
  include {
    phase: TEST
  }
}
I0403 14:06:22.453114 12689 layer_factory.hpp:77] Creating layer data
I0403 14:06:22.453766 12689 net.cpp:91] Creating Layer data
I0403 14:06:22.453796 12689 net.cpp:399] data -> data
I0403 14:06:22.453845 12689 net.cpp:399] data -> label
I0403 14:06:22.453881 12689 data_transformer.cpp:25] Loading mean file from: /home/mohanty/data/final_dataset/lmdb/grayscale-80-20/mean.binaryproto
I0403 14:06:22.458627 12694 db_lmdb.cpp:38] Opened lmdb /home/mohanty/data/final_dataset/lmdb/grayscale-80-20/test_db
I0403 14:06:22.468017 12689 data_layer.cpp:41] output data size: 100,3,227,227
I0403 14:06:22.589095 12689 net.cpp:141] Setting up data
I0403 14:06:22.589170 12689 net.cpp:148] Top shape: 100 3 227 227 (15458700)
I0403 14:06:22.589195 12689 net.cpp:148] Top shape: 100 (100)
I0403 14:06:22.589210 12689 net.cpp:156] Memory required for data: 61835200
I0403 14:06:22.589238 12689 layer_factory.hpp:77] Creating layer label_data_1_split
I0403 14:06:22.589265 12689 net.cpp:91] Creating Layer label_data_1_split
I0403 14:06:22.589282 12689 net.cpp:425] label_data_1_split <- label
I0403 14:06:22.589313 12689 net.cpp:399] label_data_1_split -> label_data_1_split_0
I0403 14:06:22.589341 12689 net.cpp:399] label_data_1_split -> label_data_1_split_1
I0403 14:06:22.589361 12689 net.cpp:399] label_data_1_split -> label_data_1_split_2
I0403 14:06:22.589424 12689 net.cpp:141] Setting up label_data_1_split
I0403 14:06:22.589447 12689 net.cpp:148] Top shape: 100 (100)
I0403 14:06:22.589463 12689 net.cpp:148] Top shape: 100 (100)
I0403 14:06:22.589478 12689 net.cpp:148] Top shape: 100 (100)
I0403 14:06:22.589493 12689 net.cpp:156] Memory required for data: 61836400
I0403 14:06:22.589507 12689 layer_factory.hpp:77] Creating layer conv1
I0403 14:06:22.589539 12689 net.cpp:91] Creating Layer conv1
I0403 14:06:22.589555 12689 net.cpp:425] conv1 <- data
I0403 14:06:22.589575 12689 net.cpp:399] conv1 -> conv1
I0403 14:06:22.731938 12689 net.cpp:141] Setting up conv1
I0403 14:06:22.732015 12689 net.cpp:148] Top shape: 100 96 55 55 (29040000)
I0403 14:06:22.732033 12689 net.cpp:156] Memory required for data: 177996400
I0403 14:06:22.732064 12689 layer_factory.hpp:77] Creating layer relu1
I0403 14:06:22.732091 12689 net.cpp:91] Creating Layer relu1
I0403 14:06:22.732108 12689 net.cpp:425] relu1 <- conv1
I0403 14:06:22.732130 12689 net.cpp:386] relu1 -> conv1 (in-place)
I0403 14:06:22.732405 12689 net.cpp:141] Setting up relu1
I0403 14:06:22.732434 12689 net.cpp:148] Top shape: 100 96 55 55 (29040000)
I0403 14:06:22.732487 12689 net.cpp:156] Memory required for data: 294156400
I0403 14:06:22.732503 12689 layer_factory.hpp:77] Creating layer norm1
I0403 14:06:22.732529 12689 net.cpp:91] Creating Layer norm1
I0403 14:06:22.732547 12689 net.cpp:425] norm1 <- conv1
I0403 14:06:22.732571 12689 net.cpp:399] norm1 -> norm1
I0403 14:06:22.732916 12689 net.cpp:141] Setting up norm1
I0403 14:06:22.732944 12689 net.cpp:148] Top shape: 100 96 55 55 (29040000)
I0403 14:06:22.732959 12689 net.cpp:156] Memory required for data: 410316400
I0403 14:06:22.732972 12689 layer_factory.hpp:77] Creating layer pool1
I0403 14:06:22.732995 12689 net.cpp:91] Creating Layer pool1
I0403 14:06:22.733011 12689 net.cpp:425] pool1 <- norm1
I0403 14:06:22.733031 12689 net.cpp:399] pool1 -> pool1
I0403 14:06:22.733098 12689 net.cpp:141] Setting up pool1
I0403 14:06:22.733124 12689 net.cpp:148] Top shape: 100 96 27 27 (6998400)
I0403 14:06:22.733139 12689 net.cpp:156] Memory required for data: 438310000
I0403 14:06:22.733152 12689 layer_factory.hpp:77] Creating layer conv2
I0403 14:06:22.733177 12689 net.cpp:91] Creating Layer conv2
I0403 14:06:22.733193 12689 net.cpp:425] conv2 <- pool1
I0403 14:06:22.733211 12689 net.cpp:399] conv2 -> conv2
I0403 14:06:22.748138 12689 net.cpp:141] Setting up conv2
I0403 14:06:22.748184 12689 net.cpp:148] Top shape: 100 256 27 27 (18662400)
I0403 14:06:22.748200 12689 net.cpp:156] Memory required for data: 512959600
I0403 14:06:22.748222 12689 layer_factory.hpp:77] Creating layer relu2
I0403 14:06:22.748244 12689 net.cpp:91] Creating Layer relu2
I0403 14:06:22.748260 12689 net.cpp:425] relu2 <- conv2
I0403 14:06:22.748281 12689 net.cpp:386] relu2 -> conv2 (in-place)
I0403 14:06:22.748586 12689 net.cpp:141] Setting up relu2
I0403 14:06:22.748613 12689 net.cpp:148] Top shape: 100 256 27 27 (18662400)
I0403 14:06:22.748630 12689 net.cpp:156] Memory required for data: 587609200
I0403 14:06:22.748644 12689 layer_factory.hpp:77] Creating layer norm2
I0403 14:06:22.748668 12689 net.cpp:91] Creating Layer norm2
I0403 14:06:22.748685 12689 net.cpp:425] norm2 <- conv2
I0403 14:06:22.748703 12689 net.cpp:399] norm2 -> norm2
I0403 14:06:22.748913 12689 net.cpp:141] Setting up norm2
I0403 14:06:22.748939 12689 net.cpp:148] Top shape: 100 256 27 27 (18662400)
I0403 14:06:22.748955 12689 net.cpp:156] Memory required for data: 662258800
I0403 14:06:22.748970 12689 layer_factory.hpp:77] Creating layer pool2
I0403 14:06:22.748986 12689 net.cpp:91] Creating Layer pool2
I0403 14:06:22.749001 12689 net.cpp:425] pool2 <- norm2
I0403 14:06:22.749020 12689 net.cpp:399] pool2 -> pool2
I0403 14:06:22.749074 12689 net.cpp:141] Setting up pool2
I0403 14:06:22.749097 12689 net.cpp:148] Top shape: 100 256 13 13 (4326400)
I0403 14:06:22.749111 12689 net.cpp:156] Memory required for data: 679564400
I0403 14:06:22.749125 12689 layer_factory.hpp:77] Creating layer conv3
I0403 14:06:22.749150 12689 net.cpp:91] Creating Layer conv3
I0403 14:06:22.749167 12689 net.cpp:425] conv3 <- pool2
I0403 14:06:22.749186 12689 net.cpp:399] conv3 -> conv3
I0403 14:06:22.789780 12689 net.cpp:141] Setting up conv3
I0403 14:06:22.789856 12689 net.cpp:148] Top shape: 100 384 13 13 (6489600)
I0403 14:06:22.789872 12689 net.cpp:156] Memory required for data: 705522800
I0403 14:06:22.789897 12689 layer_factory.hpp:77] Creating layer relu3
I0403 14:06:22.789921 12689 net.cpp:91] Creating Layer relu3
I0403 14:06:22.789937 12689 net.cpp:425] relu3 <- conv3
I0403 14:06:22.789963 12689 net.cpp:386] relu3 -> conv3 (in-place)
I0403 14:06:22.790241 12689 net.cpp:141] Setting up relu3
I0403 14:06:22.790268 12689 net.cpp:148] Top shape: 100 384 13 13 (6489600)
I0403 14:06:22.790283 12689 net.cpp:156] Memory required for data: 731481200
I0403 14:06:22.790300 12689 layer_factory.hpp:77] Creating layer conv4
I0403 14:06:22.790328 12689 net.cpp:91] Creating Layer conv4
I0403 14:06:22.790348 12689 net.cpp:425] conv4 <- conv3
I0403 14:06:22.790369 12689 net.cpp:399] conv4 -> conv4
I0403 14:06:22.819255 12689 net.cpp:141] Setting up conv4
I0403 14:06:22.819301 12689 net.cpp:148] Top shape: 100 384 13 13 (6489600)
I0403 14:06:22.819355 12689 net.cpp:156] Memory required for data: 757439600
I0403 14:06:22.819375 12689 layer_factory.hpp:77] Creating layer relu4
I0403 14:06:22.819396 12689 net.cpp:91] Creating Layer relu4
I0403 14:06:22.819411 12689 net.cpp:425] relu4 <- conv4
I0403 14:06:22.819430 12689 net.cpp:386] relu4 -> conv4 (in-place)
I0403 14:06:22.819710 12689 net.cpp:141] Setting up relu4
I0403 14:06:22.819737 12689 net.cpp:148] Top shape: 100 384 13 13 (6489600)
I0403 14:06:22.819752 12689 net.cpp:156] Memory required for data: 783398000
I0403 14:06:22.819767 12689 layer_factory.hpp:77] Creating layer conv5
I0403 14:06:22.819789 12689 net.cpp:91] Creating Layer conv5
I0403 14:06:22.819805 12689 net.cpp:425] conv5 <- conv4
I0403 14:06:22.819823 12689 net.cpp:399] conv5 -> conv5
I0403 14:06:22.840147 12689 net.cpp:141] Setting up conv5
I0403 14:06:22.840191 12689 net.cpp:148] Top shape: 100 256 13 13 (4326400)
I0403 14:06:22.840209 12689 net.cpp:156] Memory required for data: 800703600
I0403 14:06:22.840235 12689 layer_factory.hpp:77] Creating layer relu5
I0403 14:06:22.840257 12689 net.cpp:91] Creating Layer relu5
I0403 14:06:22.840276 12689 net.cpp:425] relu5 <- conv5
I0403 14:06:22.840298 12689 net.cpp:386] relu5 -> conv5 (in-place)
I0403 14:06:22.840590 12689 net.cpp:141] Setting up relu5
I0403 14:06:22.840620 12689 net.cpp:148] Top shape: 100 256 13 13 (4326400)
I0403 14:06:22.840636 12689 net.cpp:156] Memory required for data: 818009200
I0403 14:06:22.840651 12689 layer_factory.hpp:77] Creating layer pool5
I0403 14:06:22.840677 12689 net.cpp:91] Creating Layer pool5
I0403 14:06:22.840693 12689 net.cpp:425] pool5 <- conv5
I0403 14:06:22.840711 12689 net.cpp:399] pool5 -> pool5
I0403 14:06:22.840772 12689 net.cpp:141] Setting up pool5
I0403 14:06:22.840796 12689 net.cpp:148] Top shape: 100 256 6 6 (921600)
I0403 14:06:22.840811 12689 net.cpp:156] Memory required for data: 821695600
I0403 14:06:22.840826 12689 layer_factory.hpp:77] Creating layer fc6
I0403 14:06:22.840862 12689 net.cpp:91] Creating Layer fc6
I0403 14:06:22.840878 12689 net.cpp:425] fc6 <- pool5
I0403 14:06:22.840900 12689 net.cpp:399] fc6 -> fc6
I0403 14:06:24.381556 12689 net.cpp:141] Setting up fc6
I0403 14:06:24.381605 12689 net.cpp:148] Top shape: 100 4096 (409600)
I0403 14:06:24.381621 12689 net.cpp:156] Memory required for data: 823334000
I0403 14:06:24.381640 12689 layer_factory.hpp:77] Creating layer relu6
I0403 14:06:24.381664 12689 net.cpp:91] Creating Layer relu6
I0403 14:06:24.381680 12689 net.cpp:425] relu6 <- fc6
I0403 14:06:24.381698 12689 net.cpp:386] relu6 -> fc6 (in-place)
I0403 14:06:24.381911 12689 net.cpp:141] Setting up relu6
I0403 14:06:24.381934 12689 net.cpp:148] Top shape: 100 4096 (409600)
I0403 14:06:24.381960 12689 net.cpp:156] Memory required for data: 824972400
I0403 14:06:24.381974 12689 layer_factory.hpp:77] Creating layer drop6
I0403 14:06:24.381991 12689 net.cpp:91] Creating Layer drop6
I0403 14:06:24.382006 12689 net.cpp:425] drop6 <- fc6
I0403 14:06:24.382030 12689 net.cpp:386] drop6 -> fc6 (in-place)
I0403 14:06:24.382081 12689 net.cpp:141] Setting up drop6
I0403 14:06:24.382105 12689 net.cpp:148] Top shape: 100 4096 (409600)
I0403 14:06:24.382120 12689 net.cpp:156] Memory required for data: 826610800
I0403 14:06:24.382134 12689 layer_factory.hpp:77] Creating layer fc7
I0403 14:06:24.382153 12689 net.cpp:91] Creating Layer fc7
I0403 14:06:24.382167 12689 net.cpp:425] fc7 <- fc6
I0403 14:06:24.382186 12689 net.cpp:399] fc7 -> fc7
I0403 14:06:25.076354 12689 net.cpp:141] Setting up fc7
I0403 14:06:25.076395 12689 net.cpp:148] Top shape: 100 4096 (409600)
I0403 14:06:25.076411 12689 net.cpp:156] Memory required for data: 828249200
I0403 14:06:25.076431 12689 layer_factory.hpp:77] Creating layer relu7
I0403 14:06:25.076452 12689 net.cpp:91] Creating Layer relu7
I0403 14:06:25.076469 12689 net.cpp:425] relu7 <- fc7
I0403 14:06:25.076490 12689 net.cpp:386] relu7 -> fc7 (in-place)
I0403 14:06:25.076879 12689 net.cpp:141] Setting up relu7
I0403 14:06:25.076905 12689 net.cpp:148] Top shape: 100 4096 (409600)
I0403 14:06:25.076954 12689 net.cpp:156] Memory required for data: 829887600
I0403 14:06:25.076969 12689 layer_factory.hpp:77] Creating layer drop7
I0403 14:06:25.076987 12689 net.cpp:91] Creating Layer drop7
I0403 14:06:25.077003 12689 net.cpp:425] drop7 <- fc7
I0403 14:06:25.077021 12689 net.cpp:386] drop7 -> fc7 (in-place)
I0403 14:06:25.077064 12689 net.cpp:141] Setting up drop7
I0403 14:06:25.077085 12689 net.cpp:148] Top shape: 100 4096 (409600)
I0403 14:06:25.077100 12689 net.cpp:156] Memory required for data: 831526000
I0403 14:06:25.077113 12689 layer_factory.hpp:77] Creating layer fc8_plantvillage
I0403 14:06:25.077136 12689 net.cpp:91] Creating Layer fc8_plantvillage
I0403 14:06:25.077150 12689 net.cpp:425] fc8_plantvillage <- fc7
I0403 14:06:25.077170 12689 net.cpp:399] fc8_plantvillage -> fc8_plantvillage
I0403 14:06:25.083880 12689 net.cpp:141] Setting up fc8_plantvillage
I0403 14:06:25.083907 12689 net.cpp:148] Top shape: 100 38 (3800)
I0403 14:06:25.083922 12689 net.cpp:156] Memory required for data: 831541200
I0403 14:06:25.083940 12689 layer_factory.hpp:77] Creating layer fc8_plantvillage_fc8_plantvillage_0_split
I0403 14:06:25.083957 12689 net.cpp:91] Creating Layer fc8_plantvillage_fc8_plantvillage_0_split
I0403 14:06:25.083972 12689 net.cpp:425] fc8_plantvillage_fc8_plantvillage_0_split <- fc8_plantvillage
I0403 14:06:25.083993 12689 net.cpp:399] fc8_plantvillage_fc8_plantvillage_0_split -> fc8_plantvillage_fc8_plantvillage_0_split_0
I0403 14:06:25.084013 12689 net.cpp:399] fc8_plantvillage_fc8_plantvillage_0_split -> fc8_plantvillage_fc8_plantvillage_0_split_1
I0403 14:06:25.084033 12689 net.cpp:399] fc8_plantvillage_fc8_plantvillage_0_split -> fc8_plantvillage_fc8_plantvillage_0_split_2
I0403 14:06:25.084110 12689 net.cpp:141] Setting up fc8_plantvillage_fc8_plantvillage_0_split
I0403 14:06:25.084132 12689 net.cpp:148] Top shape: 100 38 (3800)
I0403 14:06:25.084147 12689 net.cpp:148] Top shape: 100 38 (3800)
I0403 14:06:25.084162 12689 net.cpp:148] Top shape: 100 38 (3800)
I0403 14:06:25.084175 12689 net.cpp:156] Memory required for data: 831586800
I0403 14:06:25.084189 12689 layer_factory.hpp:77] Creating layer prob
I0403 14:06:25.084208 12689 net.cpp:91] Creating Layer prob
I0403 14:06:25.084221 12689 net.cpp:425] prob <- fc8_plantvillage_fc8_plantvillage_0_split_0
I0403 14:06:25.084240 12689 net.cpp:399] prob -> prob
I0403 14:06:25.084463 12689 net.cpp:141] Setting up prob
I0403 14:06:25.084491 12689 net.cpp:148] Top shape: 100 38 (3800)
I0403 14:06:25.084506 12689 net.cpp:156] Memory required for data: 831602000
I0403 14:06:25.084520 12689 layer_factory.hpp:77] Creating layer hdf5out
I0403 14:06:25.084538 12689 net.cpp:91] Creating Layer hdf5out
I0403 14:06:25.084553 12689 net.cpp:425] hdf5out <- prob
I0403 14:06:25.084578 12689 net.cpp:425] hdf5out <- label_data_1_split_0
I0403 14:06:25.087065 12689 net.cpp:141] Setting up hdf5out
…
