…
I0403 14:02:36.983827 12568 net.cpp:313] The NetState phase (1) differed from the phase (0) specified by a rule in layer data
I0403 14:02:36.984127 12568 net.cpp:49] Initializing net from parameters: 
state {
  phase: TEST
}
layer {
  name: "data"
  type: "Data"
  top: "data"
  top: "label"
  include {
    phase: TEST
  }
  transform_param {
    crop_size: 227
    mean_file: "/home/mohanty/data/final_dataset/lmdb/grayscale-80-20/mean.binaryproto"
  }
  data_param {
    source: "/home/mohanty/data/final_dataset/lmdb/grayscale-80-20/test_db"
    batch_size: 100
    backend: LMDB
  }
}
layer {
  name: "conv1"
  type: "Convolution"
  bottom: "data"
  top: "conv1"
  param {
    lr_mult: 1
    decay_mult: 1
  }
  param {
    lr_mult: 2
    decay_mult: 0
  }
  convolution_param {
    num_output: 96
    kernel_size: 11
    stride: 4
    weight_filler {
      type: "gaussian"
      std: 0.01
    }
    bias_filler {
      type: "constant"
      value: 0
    }
  }
}
layer {
  name: "relu1"
  type: "ReLU"
  bottom: "conv1"
  top: "conv1"
}
layer {
  name: "norm1"
  type: "LRN"
  bottom: "conv1"
  top: "norm1"
  lrn_param {
    local_size: 5
    alpha: 0.0001
    beta: 0.75
  }
}
layer {
  name: "pool1"
  type: "Pooling"
  bottom: "norm1"
  top: "pool1"
  pooling_param {
    pool: MAX
    kernel_size: 3
    stride: 2
  }
}
layer {
  name: "conv2"
  type: "Convolution"
  bottom: "pool1"
  top: "conv2"
  param {
    lr_mult: 1
    decay_mult: 1
  }
  param {
    lr_mult: 2
    decay_mult: 0
  }
  convolution_param {
    num_output: 256
    pad: 2
    kernel_size: 5
    group: 2
    weight_filler {
      type: "gaussian"
      std: 0.01
    }
    bias_filler {
      type: "constant"
      value: 0.1
    }
  }
}
layer {
  name: "relu2"
  type: "ReLU"
  bottom: "conv2"
  top: "conv2"
}
layer {
  name: "norm2"
  type: "LRN"
  bottom: "conv2"
  top: "norm2"
  lrn_param {
    local_size: 5
    alpha: 0.0001
    beta: 0.75
  }
}
layer {
  name: "pool2"
  type: "Pooling"
  bottom: "norm2"
  top: "pool2"
  pooling_param {
    pool: MAX
    kernel_size: 3
    stride: 2
  }
}
layer {
  name: "conv3"
  type: "Convolution"
  bottom: "pool2"
  top: "conv3"
  param {
    lr_mult: 1
    decay_mult: 1
  }
  param {
    lr_mult: 2
    decay_mult: 0
  }
  convolution_param {
    num_output: 384
    pad: 1
    kernel_size: 3
    weight_filler {
      type: "gaussian"
      std: 0.01
    }
    bias_filler {
      type: "constant"
      value: 0
    }
  }
}
layer {
  name: "relu3"
  type: "ReLU"
  bottom: "conv3"
  top: "conv3"
}
layer {
  name: "conv4"
  type: "Convolution"
  bottom: "conv3"
  top: "conv4"
  param {
    lr_mult: 1
    decay_mult: 1
  }
  param {
    lr_mult: 2
    decay_mult: 0
  }
  convolution_param {
    num_output: 384
    pad: 1
    kernel_size: 3
    group: 2
    weight_filler {
      type: "gaussian"
      std: 0.01
    }
    bias_filler {
      type: "constant"
      value: 0.1
    }
  }
}
layer {
  name: "relu4"
  type: "ReLU"
  bottom: "conv4"
  top: "conv4"
}
layer {
  name: "conv5"
  type: "Convolution"
  bottom: "conv4"
  top: "conv5"
  param {
    lr_mult: 1
    decay_mult: 1
  }
  param {
    lr_mult: 2
    decay_mult: 0
  }
  convolution_param {
    num_output: 256
    pad: 1
    kernel_size: 3
    group: 2
    weight_filler {
      type: "gaussian"
      std: 0.01
    }
    bias_filler {
      type: "constant"
      value: 0.1
    }
  }
}
layer {
  name: "relu5"
  type: "ReLU"
  bottom: "conv5"
  top: "conv5"
}
layer {
  name: "pool5"
  type: "Pooling"
  bottom: "conv5"
  top: "pool5"
  pooling_param {
    pool: MAX
    kernel_size: 3
    stride: 2
  }
}
layer {
  name: "fc6"
  type: "InnerProduct"
  bottom: "pool5"
  top: "fc6"
  param {
    lr_mult: 1
    decay_mult: 1
  }
  param {
    lr_mult: 2
    decay_mult: 0
  }
  inner_product_param {
    num_output: 4096
    weight_filler {
      type: "gaussian"
      std: 0.005
    }
    bias_filler {
      type: "constant"
      value: 0.1
    }
  }
}
layer {
  name: "relu6"
  type: "ReLU"
  bottom: "fc6"
  top: "fc6"
}
layer {
  name: "drop6"
  type: "Dropout"
  bottom: "fc6"
  top: "fc6"
  dropout_param {
    dropout_ratio: 0.5
  }
}
layer {
  name: "fc7"
  type: "InnerProduct"
  bottom: "fc6"
  top: "fc7"
  param {
    lr_mult: 1
    decay_mult: 1
  }
  param {
    lr_mult: 2
    decay_mult: 0
  }
  inner_product_param {
    num_output: 4096
    weight_filler {
      type: "gaussian"
      std: 0.005
    }
    bias_filler {
      type: "constant"
      value: 0.1
    }
  }
}
layer {
  name: "relu7"
  type: "ReLU"
  bottom: "fc7"
  top: "fc7"
}
layer {
  name: "drop7"
  type: "Dropout"
  bottom: "fc7"
  top: "fc7"
  dropout_param {
    dropout_ratio: 0.5
  }
}
layer {
  name: "fc8_plantvillage"
  type: "InnerProduct"
  bottom: "fc7"
  top: "fc8_plantvillage"
  param {
    lr_mult: 1
    decay_mult: 1
  }
  param {
    lr_mult: 2
    decay_mult: 0
  }
  inner_product_param {
    num_output: 38
    weight_filler {
      type: "gaussian"
      std: 0.01
    }
    bias_filler {
      type: "constant"
      value: 0
    }
  }
}
layer {
  name: "prob"
  type: "Softmax"
  bottom: "fc8_plantvillage"
  top: "prob"
  include {
    phase: TEST
  }
}
layer {
  name: "hdf5out"
  type: "HDF5Output"
  bottom: "prob"
  bottom: "label"
  include {
    phase: TEST
  }
  hdf5_output_param {
    file_name: "hdf5_dumps/iter_2180.h5"
  }
}
layer {
  name: "loss"
  type: "SoftmaxWithLoss"
  bottom: "fc8_plantvillage"
  bottom: "label"
  top: "loss"
}
layer {
  name: "accuracy"
  type: "Accuracy"
  bottom: "fc8_plantvillage"
  bottom: "label"
  top: "accuracy"
  include {
    phase: TEST
  }
}
I0403 14:02:36.984742 12568 layer_factory.hpp:77] Creating layer data
I0403 14:02:36.985386 12568 net.cpp:91] Creating Layer data
I0403 14:02:36.985416 12568 net.cpp:399] data -> data
I0403 14:02:36.985468 12568 net.cpp:399] data -> label
I0403 14:02:36.985504 12568 data_transformer.cpp:25] Loading mean file from: /home/mohanty/data/final_dataset/lmdb/grayscale-80-20/mean.binaryproto
I0403 14:02:36.988143 12574 db_lmdb.cpp:38] Opened lmdb /home/mohanty/data/final_dataset/lmdb/grayscale-80-20/test_db
I0403 14:02:36.999891 12568 data_layer.cpp:41] output data size: 100,3,227,227
I0403 14:02:37.120198 12568 net.cpp:141] Setting up data
I0403 14:02:37.120265 12568 net.cpp:148] Top shape: 100 3 227 227 (15458700)
I0403 14:02:37.120288 12568 net.cpp:148] Top shape: 100 (100)
I0403 14:02:37.120304 12568 net.cpp:156] Memory required for data: 61835200
I0403 14:02:37.120332 12568 layer_factory.hpp:77] Creating layer label_data_1_split
I0403 14:02:37.120357 12568 net.cpp:91] Creating Layer label_data_1_split
I0403 14:02:37.120375 12568 net.cpp:425] label_data_1_split <- label
I0403 14:02:37.120407 12568 net.cpp:399] label_data_1_split -> label_data_1_split_0
I0403 14:02:37.120434 12568 net.cpp:399] label_data_1_split -> label_data_1_split_1
I0403 14:02:37.120455 12568 net.cpp:399] label_data_1_split -> label_data_1_split_2
I0403 14:02:37.120519 12568 net.cpp:141] Setting up label_data_1_split
I0403 14:02:37.120542 12568 net.cpp:148] Top shape: 100 (100)
I0403 14:02:37.120558 12568 net.cpp:148] Top shape: 100 (100)
I0403 14:02:37.120582 12568 net.cpp:148] Top shape: 100 (100)
I0403 14:02:37.120596 12568 net.cpp:156] Memory required for data: 61836400
I0403 14:02:37.120615 12568 layer_factory.hpp:77] Creating layer conv1
I0403 14:02:37.120647 12568 net.cpp:91] Creating Layer conv1
I0403 14:02:37.120666 12568 net.cpp:425] conv1 <- data
I0403 14:02:37.120684 12568 net.cpp:399] conv1 -> conv1
I0403 14:02:37.260308 12568 net.cpp:141] Setting up conv1
I0403 14:02:37.260367 12568 net.cpp:148] Top shape: 100 96 55 55 (29040000)
I0403 14:02:37.260385 12568 net.cpp:156] Memory required for data: 177996400
I0403 14:02:37.260416 12568 layer_factory.hpp:77] Creating layer relu1
I0403 14:02:37.260442 12568 net.cpp:91] Creating Layer relu1
I0403 14:02:37.260459 12568 net.cpp:425] relu1 <- conv1
I0403 14:02:37.260478 12568 net.cpp:386] relu1 -> conv1 (in-place)
I0403 14:02:37.260732 12568 net.cpp:141] Setting up relu1
I0403 14:02:37.260758 12568 net.cpp:148] Top shape: 100 96 55 55 (29040000)
I0403 14:02:37.260807 12568 net.cpp:156] Memory required for data: 294156400
I0403 14:02:37.260823 12568 layer_factory.hpp:77] Creating layer norm1
I0403 14:02:37.260850 12568 net.cpp:91] Creating Layer norm1
I0403 14:02:37.260867 12568 net.cpp:425] norm1 <- conv1
I0403 14:02:37.260885 12568 net.cpp:399] norm1 -> norm1
I0403 14:02:37.261181 12568 net.cpp:141] Setting up norm1
I0403 14:02:37.261245 12568 net.cpp:148] Top shape: 100 96 55 55 (29040000)
I0403 14:02:37.261262 12568 net.cpp:156] Memory required for data: 410316400
I0403 14:02:37.261277 12568 layer_factory.hpp:77] Creating layer pool1
I0403 14:02:37.261301 12568 net.cpp:91] Creating Layer pool1
I0403 14:02:37.261317 12568 net.cpp:425] pool1 <- norm1
I0403 14:02:37.261333 12568 net.cpp:399] pool1 -> pool1
I0403 14:02:37.261399 12568 net.cpp:141] Setting up pool1
I0403 14:02:37.261422 12568 net.cpp:148] Top shape: 100 96 27 27 (6998400)
I0403 14:02:37.261437 12568 net.cpp:156] Memory required for data: 438310000
I0403 14:02:37.261451 12568 layer_factory.hpp:77] Creating layer conv2
I0403 14:02:37.261474 12568 net.cpp:91] Creating Layer conv2
I0403 14:02:37.261490 12568 net.cpp:425] conv2 <- pool1
I0403 14:02:37.261507 12568 net.cpp:399] conv2 -> conv2
I0403 14:02:37.276660 12568 net.cpp:141] Setting up conv2
I0403 14:02:37.276739 12568 net.cpp:148] Top shape: 100 256 27 27 (18662400)
I0403 14:02:37.276760 12568 net.cpp:156] Memory required for data: 512959600
I0403 14:02:37.276783 12568 layer_factory.hpp:77] Creating layer relu2
I0403 14:02:37.276804 12568 net.cpp:91] Creating Layer relu2
I0403 14:02:37.276821 12568 net.cpp:425] relu2 <- conv2
I0403 14:02:37.276841 12568 net.cpp:386] relu2 -> conv2 (in-place)
I0403 14:02:37.277124 12568 net.cpp:141] Setting up relu2
I0403 14:02:37.277153 12568 net.cpp:148] Top shape: 100 256 27 27 (18662400)
I0403 14:02:37.277168 12568 net.cpp:156] Memory required for data: 587609200
I0403 14:02:37.277184 12568 layer_factory.hpp:77] Creating layer norm2
I0403 14:02:37.277206 12568 net.cpp:91] Creating Layer norm2
I0403 14:02:37.277225 12568 net.cpp:425] norm2 <- conv2
I0403 14:02:37.277241 12568 net.cpp:399] norm2 -> norm2
I0403 14:02:37.277446 12568 net.cpp:141] Setting up norm2
I0403 14:02:37.277472 12568 net.cpp:148] Top shape: 100 256 27 27 (18662400)
I0403 14:02:37.277487 12568 net.cpp:156] Memory required for data: 662258800
I0403 14:02:37.277501 12568 layer_factory.hpp:77] Creating layer pool2
I0403 14:02:37.277519 12568 net.cpp:91] Creating Layer pool2
I0403 14:02:37.277534 12568 net.cpp:425] pool2 <- norm2
I0403 14:02:37.277554 12568 net.cpp:399] pool2 -> pool2
I0403 14:02:37.277627 12568 net.cpp:141] Setting up pool2
I0403 14:02:37.277657 12568 net.cpp:148] Top shape: 100 256 13 13 (4326400)
I0403 14:02:37.277674 12568 net.cpp:156] Memory required for data: 679564400
I0403 14:02:37.277690 12568 layer_factory.hpp:77] Creating layer conv3
I0403 14:02:37.277714 12568 net.cpp:91] Creating Layer conv3
I0403 14:02:37.277731 12568 net.cpp:425] conv3 <- pool2
I0403 14:02:37.277750 12568 net.cpp:399] conv3 -> conv3
I0403 14:02:37.320206 12568 net.cpp:141] Setting up conv3
I0403 14:02:37.320281 12568 net.cpp:148] Top shape: 100 384 13 13 (6489600)
I0403 14:02:37.320299 12568 net.cpp:156] Memory required for data: 705522800
I0403 14:02:37.320324 12568 layer_factory.hpp:77] Creating layer relu3
I0403 14:02:37.320346 12568 net.cpp:91] Creating Layer relu3
I0403 14:02:37.320363 12568 net.cpp:425] relu3 <- conv3
I0403 14:02:37.320384 12568 net.cpp:386] relu3 -> conv3 (in-place)
I0403 14:02:37.320659 12568 net.cpp:141] Setting up relu3
I0403 14:02:37.320685 12568 net.cpp:148] Top shape: 100 384 13 13 (6489600)
I0403 14:02:37.320700 12568 net.cpp:156] Memory required for data: 731481200
I0403 14:02:37.320714 12568 layer_factory.hpp:77] Creating layer conv4
I0403 14:02:37.320739 12568 net.cpp:91] Creating Layer conv4
I0403 14:02:37.320756 12568 net.cpp:425] conv4 <- conv3
I0403 14:02:37.320777 12568 net.cpp:399] conv4 -> conv4
I0403 14:02:37.349843 12568 net.cpp:141] Setting up conv4
I0403 14:02:37.349887 12568 net.cpp:148] Top shape: 100 384 13 13 (6489600)
I0403 14:02:37.349937 12568 net.cpp:156] Memory required for data: 757439600
I0403 14:02:37.349958 12568 layer_factory.hpp:77] Creating layer relu4
I0403 14:02:37.349979 12568 net.cpp:91] Creating Layer relu4
I0403 14:02:37.349995 12568 net.cpp:425] relu4 <- conv4
I0403 14:02:37.350018 12568 net.cpp:386] relu4 -> conv4 (in-place)
I0403 14:02:37.350288 12568 net.cpp:141] Setting up relu4
I0403 14:02:37.350318 12568 net.cpp:148] Top shape: 100 384 13 13 (6489600)
I0403 14:02:37.350334 12568 net.cpp:156] Memory required for data: 783398000
I0403 14:02:37.350348 12568 layer_factory.hpp:77] Creating layer conv5
I0403 14:02:37.350373 12568 net.cpp:91] Creating Layer conv5
I0403 14:02:37.350391 12568 net.cpp:425] conv5 <- conv4
I0403 14:02:37.350411 12568 net.cpp:399] conv5 -> conv5
I0403 14:02:37.370785 12568 net.cpp:141] Setting up conv5
I0403 14:02:37.370836 12568 net.cpp:148] Top shape: 100 256 13 13 (4326400)
I0403 14:02:37.370853 12568 net.cpp:156] Memory required for data: 800703600
I0403 14:02:37.370878 12568 layer_factory.hpp:77] Creating layer relu5
I0403 14:02:37.370899 12568 net.cpp:91] Creating Layer relu5
I0403 14:02:37.370918 12568 net.cpp:425] relu5 <- conv5
I0403 14:02:37.370937 12568 net.cpp:386] relu5 -> conv5 (in-place)
I0403 14:02:37.371224 12568 net.cpp:141] Setting up relu5
I0403 14:02:37.371253 12568 net.cpp:148] Top shape: 100 256 13 13 (4326400)
I0403 14:02:37.371269 12568 net.cpp:156] Memory required for data: 818009200
I0403 14:02:37.371286 12568 layer_factory.hpp:77] Creating layer pool5
I0403 14:02:37.371315 12568 net.cpp:91] Creating Layer pool5
I0403 14:02:37.371332 12568 net.cpp:425] pool5 <- conv5
I0403 14:02:37.371351 12568 net.cpp:399] pool5 -> pool5
I0403 14:02:37.371412 12568 net.cpp:141] Setting up pool5
I0403 14:02:37.371435 12568 net.cpp:148] Top shape: 100 256 6 6 (921600)
I0403 14:02:37.371450 12568 net.cpp:156] Memory required for data: 821695600
I0403 14:02:37.371464 12568 layer_factory.hpp:77] Creating layer fc6
I0403 14:02:37.371490 12568 net.cpp:91] Creating Layer fc6
I0403 14:02:37.371507 12568 net.cpp:425] fc6 <- pool5
I0403 14:02:37.371527 12568 net.cpp:399] fc6 -> fc6
I0403 14:02:38.900663 12568 net.cpp:141] Setting up fc6
I0403 14:02:38.900730 12568 net.cpp:148] Top shape: 100 4096 (409600)
I0403 14:02:38.900746 12568 net.cpp:156] Memory required for data: 823334000
I0403 14:02:38.900768 12568 layer_factory.hpp:77] Creating layer relu6
I0403 14:02:38.900789 12568 net.cpp:91] Creating Layer relu6
I0403 14:02:38.900805 12568 net.cpp:425] relu6 <- fc6
I0403 14:02:38.900825 12568 net.cpp:386] relu6 -> fc6 (in-place)
I0403 14:02:38.901043 12568 net.cpp:141] Setting up relu6
I0403 14:02:38.901068 12568 net.cpp:148] Top shape: 100 4096 (409600)
I0403 14:02:38.901082 12568 net.cpp:156] Memory required for data: 824972400
I0403 14:02:38.901098 12568 layer_factory.hpp:77] Creating layer drop6
I0403 14:02:38.901114 12568 net.cpp:91] Creating Layer drop6
I0403 14:02:38.901129 12568 net.cpp:425] drop6 <- fc6
I0403 14:02:38.901149 12568 net.cpp:386] drop6 -> fc6 (in-place)
I0403 14:02:38.901197 12568 net.cpp:141] Setting up drop6
I0403 14:02:38.901222 12568 net.cpp:148] Top shape: 100 4096 (409600)
I0403 14:02:38.901237 12568 net.cpp:156] Memory required for data: 826610800
I0403 14:02:38.901250 12568 layer_factory.hpp:77] Creating layer fc7
I0403 14:02:38.901273 12568 net.cpp:91] Creating Layer fc7
I0403 14:02:38.901288 12568 net.cpp:425] fc7 <- fc6
I0403 14:02:38.901307 12568 net.cpp:399] fc7 -> fc7
I0403 14:02:39.576279 12568 net.cpp:141] Setting up fc7
I0403 14:02:39.576325 12568 net.cpp:148] Top shape: 100 4096 (409600)
I0403 14:02:39.576340 12568 net.cpp:156] Memory required for data: 828249200
I0403 14:02:39.576360 12568 layer_factory.hpp:77] Creating layer relu7
I0403 14:02:39.576381 12568 net.cpp:91] Creating Layer relu7
I0403 14:02:39.576397 12568 net.cpp:425] relu7 <- fc7
I0403 14:02:39.576418 12568 net.cpp:386] relu7 -> fc7 (in-place)
I0403 14:02:39.576824 12568 net.cpp:141] Setting up relu7
I0403 14:02:39.576851 12568 net.cpp:148] Top shape: 100 4096 (409600)
I0403 14:02:39.576899 12568 net.cpp:156] Memory required for data: 829887600
I0403 14:02:39.576915 12568 layer_factory.hpp:77] Creating layer drop7
I0403 14:02:39.576932 12568 net.cpp:91] Creating Layer drop7
I0403 14:02:39.576948 12568 net.cpp:425] drop7 <- fc7
I0403 14:02:39.576968 12568 net.cpp:386] drop7 -> fc7 (in-place)
I0403 14:02:39.577011 12568 net.cpp:141] Setting up drop7
I0403 14:02:39.577035 12568 net.cpp:148] Top shape: 100 4096 (409600)
I0403 14:02:39.577050 12568 net.cpp:156] Memory required for data: 831526000
I0403 14:02:39.577065 12568 layer_factory.hpp:77] Creating layer fc8_plantvillage
I0403 14:02:39.577085 12568 net.cpp:91] Creating Layer fc8_plantvillage
I0403 14:02:39.577100 12568 net.cpp:425] fc8_plantvillage <- fc7
I0403 14:02:39.577119 12568 net.cpp:399] fc8_plantvillage -> fc8_plantvillage
I0403 14:02:39.583847 12568 net.cpp:141] Setting up fc8_plantvillage
I0403 14:02:39.583876 12568 net.cpp:148] Top shape: 100 38 (3800)
I0403 14:02:39.583891 12568 net.cpp:156] Memory required for data: 831541200
I0403 14:02:39.583909 12568 layer_factory.hpp:77] Creating layer fc8_plantvillage_fc8_plantvillage_0_split
I0403 14:02:39.583927 12568 net.cpp:91] Creating Layer fc8_plantvillage_fc8_plantvillage_0_split
I0403 14:02:39.583942 12568 net.cpp:425] fc8_plantvillage_fc8_plantvillage_0_split <- fc8_plantvillage
I0403 14:02:39.583961 12568 net.cpp:399] fc8_plantvillage_fc8_plantvillage_0_split -> fc8_plantvillage_fc8_plantvillage_0_split_0
I0403 14:02:39.583982 12568 net.cpp:399] fc8_plantvillage_fc8_plantvillage_0_split -> fc8_plantvillage_fc8_plantvillage_0_split_1
I0403 14:02:39.584002 12568 net.cpp:399] fc8_plantvillage_fc8_plantvillage_0_split -> fc8_plantvillage_fc8_plantvillage_0_split_2
I0403 14:02:39.584080 12568 net.cpp:141] Setting up fc8_plantvillage_fc8_plantvillage_0_split
I0403 14:02:39.584105 12568 net.cpp:148] Top shape: 100 38 (3800)
I0403 14:02:39.584122 12568 net.cpp:148] Top shape: 100 38 (3800)
I0403 14:02:39.584137 12568 net.cpp:148] Top shape: 100 38 (3800)
I0403 14:02:39.584151 12568 net.cpp:156] Memory required for data: 831586800
I0403 14:02:39.584166 12568 layer_factory.hpp:77] Creating layer prob
I0403 14:02:39.584182 12568 net.cpp:91] Creating Layer prob
I0403 14:02:39.584197 12568 net.cpp:425] prob <- fc8_plantvillage_fc8_plantvillage_0_split_0
I0403 14:02:39.584214 12568 net.cpp:399] prob -> prob
I0403 14:02:39.584439 12568 net.cpp:141] Setting up prob
I0403 14:02:39.584463 12568 net.cpp:148] Top shape: 100 38 (3800)
I0403 14:02:39.584478 12568 net.cpp:156] Memory required for data: 831602000
I0403 14:02:39.584493 12568 layer_factory.hpp:77] Creating layer hdf5out
I0403 14:02:39.584511 12568 net.cpp:91] Creating Layer hdf5out
I0403 14:02:39.584527 12568 net.cpp:425] hdf5out <- prob
I0403 14:02:39.584542 12568 net.cpp:425] hdf5out <- label_data_1_split_0
I0403 14:02:39.586889 12568 net.cpp:141] Setting up hdf5out
…
