…
I0403 14:06:47.792209 12701 net.cpp:313] The NetState phase (1) differed from the phase (0) specified by a rule in layer data
I0403 14:06:47.792518 12701 net.cpp:49] Initializing net from parameters: 
state {
  phase: TEST
}
layer {
  name: "data"
  type: "Data"
  top: "data"
  top: "label"
  include {
    phase: TEST
  }
  transform_param {
    crop_size: 227
    mean_file: "/home/mohanty/data/final_dataset/lmdb/grayscale-80-20/mean.binaryproto"
  }
  data_param {
    source: "/home/mohanty/data/final_dataset/lmdb/grayscale-80-20/test_db"
    batch_size: 100
    backend: LMDB
  }
}
layer {
  name: "conv1"
  type: "Convolution"
  bottom: "data"
  top: "conv1"
  param {
    lr_mult: 1
    decay_mult: 1
  }
  param {
    lr_mult: 2
    decay_mult: 0
  }
  convolution_param {
    num_output: 96
    kernel_size: 11
    stride: 4
    weight_filler {
      type: "gaussian"
      std: 0.01
    }
    bias_filler {
      type: "constant"
      value: 0
    }
  }
}
layer {
  name: "relu1"
  type: "ReLU"
  bottom: "conv1"
  top: "conv1"
}
layer {
  name: "norm1"
  type: "LRN"
  bottom: "conv1"
  top: "norm1"
  lrn_param {
    local_size: 5
    alpha: 0.0001
    beta: 0.75
  }
}
layer {
  name: "pool1"
  type: "Pooling"
  bottom: "norm1"
  top: "pool1"
  pooling_param {
    pool: MAX
    kernel_size: 3
    stride: 2
  }
}
layer {
  name: "conv2"
  type: "Convolution"
  bottom: "pool1"
  top: "conv2"
  param {
    lr_mult: 1
    decay_mult: 1
  }
  param {
    lr_mult: 2
    decay_mult: 0
  }
  convolution_param {
    num_output: 256
    pad: 2
    kernel_size: 5
    group: 2
    weight_filler {
      type: "gaussian"
      std: 0.01
    }
    bias_filler {
      type: "constant"
      value: 0.1
    }
  }
}
layer {
  name: "relu2"
  type: "ReLU"
  bottom: "conv2"
  top: "conv2"
}
layer {
  name: "norm2"
  type: "LRN"
  bottom: "conv2"
  top: "norm2"
  lrn_param {
    local_size: 5
    alpha: 0.0001
    beta: 0.75
  }
}
layer {
  name: "pool2"
  type: "Pooling"
  bottom: "norm2"
  top: "pool2"
  pooling_param {
    pool: MAX
    kernel_size: 3
    stride: 2
  }
}
layer {
  name: "conv3"
  type: "Convolution"
  bottom: "pool2"
  top: "conv3"
  param {
    lr_mult: 1
    decay_mult: 1
  }
  param {
    lr_mult: 2
    decay_mult: 0
  }
  convolution_param {
    num_output: 384
    pad: 1
    kernel_size: 3
    weight_filler {
      type: "gaussian"
      std: 0.01
    }
    bias_filler {
      type: "constant"
      value: 0
    }
  }
}
layer {
  name: "relu3"
  type: "ReLU"
  bottom: "conv3"
  top: "conv3"
}
layer {
  name: "conv4"
  type: "Convolution"
  bottom: "conv3"
  top: "conv4"
  param {
    lr_mult: 1
    decay_mult: 1
  }
  param {
    lr_mult: 2
    decay_mult: 0
  }
  convolution_param {
    num_output: 384
    pad: 1
    kernel_size: 3
    group: 2
    weight_filler {
      type: "gaussian"
      std: 0.01
    }
    bias_filler {
      type: "constant"
      value: 0.1
    }
  }
}
layer {
  name: "relu4"
  type: "ReLU"
  bottom: "conv4"
  top: "conv4"
}
layer {
  name: "conv5"
  type: "Convolution"
  bottom: "conv4"
  top: "conv5"
  param {
    lr_mult: 1
    decay_mult: 1
  }
  param {
    lr_mult: 2
    decay_mult: 0
  }
  convolution_param {
    num_output: 256
    pad: 1
    kernel_size: 3
    group: 2
    weight_filler {
      type: "gaussian"
      std: 0.01
    }
    bias_filler {
      type: "constant"
      value: 0.1
    }
  }
}
layer {
  name: "relu5"
  type: "ReLU"
  bottom: "conv5"
  top: "conv5"
}
layer {
  name: "pool5"
  type: "Pooling"
  bottom: "conv5"
  top: "pool5"
  pooling_param {
    pool: MAX
    kernel_size: 3
    stride: 2
  }
}
layer {
  name: "fc6"
  type: "InnerProduct"
  bottom: "pool5"
  top: "fc6"
  param {
    lr_mult: 1
    decay_mult: 1
  }
  param {
    lr_mult: 2
    decay_mult: 0
  }
  inner_product_param {
    num_output: 4096
    weight_filler {
      type: "gaussian"
      std: 0.005
    }
    bias_filler {
      type: "constant"
      value: 0.1
    }
  }
}
layer {
  name: "relu6"
  type: "ReLU"
  bottom: "fc6"
  top: "fc6"
}
layer {
  name: "drop6"
  type: "Dropout"
  bottom: "fc6"
  top: "fc6"
  dropout_param {
    dropout_ratio: 0.5
  }
}
layer {
  name: "fc7"
  type: "InnerProduct"
  bottom: "fc6"
  top: "fc7"
  param {
    lr_mult: 1
    decay_mult: 1
  }
  param {
    lr_mult: 2
    decay_mult: 0
  }
  inner_product_param {
    num_output: 4096
    weight_filler {
      type: "gaussian"
      std: 0.005
    }
    bias_filler {
      type: "constant"
      value: 0.1
    }
  }
}
layer {
  name: "relu7"
  type: "ReLU"
  bottom: "fc7"
  top: "fc7"
}
layer {
  name: "drop7"
  type: "Dropout"
  bottom: "fc7"
  top: "fc7"
  dropout_param {
    dropout_ratio: 0.5
  }
}
layer {
  name: "fc8_plantvillage"
  type: "InnerProduct"
  bottom: "fc7"
  top: "fc8_plantvillage"
  param {
    lr_mult: 1
    decay_mult: 1
  }
  param {
    lr_mult: 2
    decay_mult: 0
  }
  inner_product_param {
    num_output: 38
    weight_filler {
      type: "gaussian"
      std: 0.01
    }
    bias_filler {
      type: "constant"
      value: 0
    }
  }
}
layer {
  name: "prob"
  type: "Softmax"
  bottom: "fc8_plantvillage"
  top: "prob"
  include {
    phase: TEST
  }
}
layer {
  name: "hdf5out"
  type: "HDF5Output"
  bottom: "prob"
  bottom: "label"
  include {
    phase: TEST
  }
  hdf5_output_param {
    file_name: "hdf5_dumps/iter_6540.h5"
  }
}
layer {
  name: "loss"
  type: "SoftmaxWithLoss"
  bottom: "fc8_plantvillage"
  bottom: "label"
  top: "loss"
}
layer {
  name: "accuracy"
  type: "Accuracy"
  bottom: "fc8_plantvillage"
  bottom: "label"
  top: "accuracy"
  include {
    phase: TEST
  }
}
I0403 14:06:47.793089 12701 layer_factory.hpp:77] Creating layer data
I0403 14:06:47.793740 12701 net.cpp:91] Creating Layer data
I0403 14:06:47.793772 12701 net.cpp:399] data -> data
I0403 14:06:47.793824 12701 net.cpp:399] data -> label
I0403 14:06:47.793864 12701 data_transformer.cpp:25] Loading mean file from: /home/mohanty/data/final_dataset/lmdb/grayscale-80-20/mean.binaryproto
I0403 14:06:47.796742 12704 db_lmdb.cpp:38] Opened lmdb /home/mohanty/data/final_dataset/lmdb/grayscale-80-20/test_db
I0403 14:06:47.808398 12701 data_layer.cpp:41] output data size: 100,3,227,227
I0403 14:06:47.928050 12701 net.cpp:141] Setting up data
I0403 14:06:47.928107 12701 net.cpp:148] Top shape: 100 3 227 227 (15458700)
I0403 14:06:47.928129 12701 net.cpp:148] Top shape: 100 (100)
I0403 14:06:47.928143 12701 net.cpp:156] Memory required for data: 61835200
I0403 14:06:47.928171 12701 layer_factory.hpp:77] Creating layer label_data_1_split
I0403 14:06:47.928195 12701 net.cpp:91] Creating Layer label_data_1_split
I0403 14:06:47.928211 12701 net.cpp:425] label_data_1_split <- label
I0403 14:06:47.928243 12701 net.cpp:399] label_data_1_split -> label_data_1_split_0
I0403 14:06:47.928272 12701 net.cpp:399] label_data_1_split -> label_data_1_split_1
I0403 14:06:47.928292 12701 net.cpp:399] label_data_1_split -> label_data_1_split_2
I0403 14:06:47.928351 12701 net.cpp:141] Setting up label_data_1_split
I0403 14:06:47.928374 12701 net.cpp:148] Top shape: 100 (100)
I0403 14:06:47.928390 12701 net.cpp:148] Top shape: 100 (100)
I0403 14:06:47.928405 12701 net.cpp:148] Top shape: 100 (100)
I0403 14:06:47.928417 12701 net.cpp:156] Memory required for data: 61836400
I0403 14:06:47.928431 12701 layer_factory.hpp:77] Creating layer conv1
I0403 14:06:47.928462 12701 net.cpp:91] Creating Layer conv1
I0403 14:06:47.928479 12701 net.cpp:425] conv1 <- data
I0403 14:06:47.928498 12701 net.cpp:399] conv1 -> conv1
I0403 14:06:48.070619 12701 net.cpp:141] Setting up conv1
I0403 14:06:48.070751 12701 net.cpp:148] Top shape: 100 96 55 55 (29040000)
I0403 14:06:48.070773 12701 net.cpp:156] Memory required for data: 177996400
I0403 14:06:48.070804 12701 layer_factory.hpp:77] Creating layer relu1
I0403 14:06:48.070832 12701 net.cpp:91] Creating Layer relu1
I0403 14:06:48.070850 12701 net.cpp:425] relu1 <- conv1
I0403 14:06:48.070871 12701 net.cpp:386] relu1 -> conv1 (in-place)
I0403 14:06:48.071151 12701 net.cpp:141] Setting up relu1
I0403 14:06:48.071178 12701 net.cpp:148] Top shape: 100 96 55 55 (29040000)
I0403 14:06:48.071231 12701 net.cpp:156] Memory required for data: 294156400
I0403 14:06:48.071249 12701 layer_factory.hpp:77] Creating layer norm1
I0403 14:06:48.071279 12701 net.cpp:91] Creating Layer norm1
I0403 14:06:48.071297 12701 net.cpp:425] norm1 <- conv1
I0403 14:06:48.071316 12701 net.cpp:399] norm1 -> norm1
I0403 14:06:48.071671 12701 net.cpp:141] Setting up norm1
I0403 14:06:48.071701 12701 net.cpp:148] Top shape: 100 96 55 55 (29040000)
I0403 14:06:48.071717 12701 net.cpp:156] Memory required for data: 410316400
I0403 14:06:48.071732 12701 layer_factory.hpp:77] Creating layer pool1
I0403 14:06:48.071759 12701 net.cpp:91] Creating Layer pool1
I0403 14:06:48.071777 12701 net.cpp:425] pool1 <- norm1
I0403 14:06:48.071795 12701 net.cpp:399] pool1 -> pool1
I0403 14:06:48.071871 12701 net.cpp:141] Setting up pool1
I0403 14:06:48.071897 12701 net.cpp:148] Top shape: 100 96 27 27 (6998400)
I0403 14:06:48.071913 12701 net.cpp:156] Memory required for data: 438310000
I0403 14:06:48.071928 12701 layer_factory.hpp:77] Creating layer conv2
I0403 14:06:48.071956 12701 net.cpp:91] Creating Layer conv2
I0403 14:06:48.071974 12701 net.cpp:425] conv2 <- pool1
I0403 14:06:48.071995 12701 net.cpp:399] conv2 -> conv2
I0403 14:06:48.087846 12701 net.cpp:141] Setting up conv2
I0403 14:06:48.087889 12701 net.cpp:148] Top shape: 100 256 27 27 (18662400)
I0403 14:06:48.087906 12701 net.cpp:156] Memory required for data: 512959600
I0403 14:06:48.087931 12701 layer_factory.hpp:77] Creating layer relu2
I0403 14:06:48.087952 12701 net.cpp:91] Creating Layer relu2
I0403 14:06:48.087968 12701 net.cpp:425] relu2 <- conv2
I0403 14:06:48.087986 12701 net.cpp:386] relu2 -> conv2 (in-place)
I0403 14:06:48.088274 12701 net.cpp:141] Setting up relu2
I0403 14:06:48.088304 12701 net.cpp:148] Top shape: 100 256 27 27 (18662400)
I0403 14:06:48.088320 12701 net.cpp:156] Memory required for data: 587609200
I0403 14:06:48.088335 12701 layer_factory.hpp:77] Creating layer norm2
I0403 14:06:48.088356 12701 net.cpp:91] Creating Layer norm2
I0403 14:06:48.088372 12701 net.cpp:425] norm2 <- conv2
I0403 14:06:48.088392 12701 net.cpp:399] norm2 -> norm2
I0403 14:06:48.088598 12701 net.cpp:141] Setting up norm2
I0403 14:06:48.088624 12701 net.cpp:148] Top shape: 100 256 27 27 (18662400)
I0403 14:06:48.088639 12701 net.cpp:156] Memory required for data: 662258800
I0403 14:06:48.088654 12701 layer_factory.hpp:77] Creating layer pool2
I0403 14:06:48.088675 12701 net.cpp:91] Creating Layer pool2
I0403 14:06:48.088691 12701 net.cpp:425] pool2 <- norm2
I0403 14:06:48.088709 12701 net.cpp:399] pool2 -> pool2
I0403 14:06:48.088762 12701 net.cpp:141] Setting up pool2
I0403 14:06:48.088786 12701 net.cpp:148] Top shape: 100 256 13 13 (4326400)
I0403 14:06:48.088840 12701 net.cpp:156] Memory required for data: 679564400
I0403 14:06:48.088860 12701 layer_factory.hpp:77] Creating layer conv3
I0403 14:06:48.088884 12701 net.cpp:91] Creating Layer conv3
I0403 14:06:48.088901 12701 net.cpp:425] conv3 <- pool2
I0403 14:06:48.088922 12701 net.cpp:399] conv3 -> conv3
I0403 14:06:48.126781 12701 net.cpp:141] Setting up conv3
I0403 14:06:48.126832 12701 net.cpp:148] Top shape: 100 384 13 13 (6489600)
I0403 14:06:48.126847 12701 net.cpp:156] Memory required for data: 705522800
I0403 14:06:48.126869 12701 layer_factory.hpp:77] Creating layer relu3
I0403 14:06:48.126893 12701 net.cpp:91] Creating Layer relu3
I0403 14:06:48.126909 12701 net.cpp:425] relu3 <- conv3
I0403 14:06:48.126929 12701 net.cpp:386] relu3 -> conv3 (in-place)
I0403 14:06:48.127199 12701 net.cpp:141] Setting up relu3
I0403 14:06:48.127226 12701 net.cpp:148] Top shape: 100 384 13 13 (6489600)
I0403 14:06:48.127240 12701 net.cpp:156] Memory required for data: 731481200
I0403 14:06:48.127255 12701 layer_factory.hpp:77] Creating layer conv4
I0403 14:06:48.127279 12701 net.cpp:91] Creating Layer conv4
I0403 14:06:48.127301 12701 net.cpp:425] conv4 <- conv3
I0403 14:06:48.127320 12701 net.cpp:399] conv4 -> conv4
I0403 14:06:48.157621 12701 net.cpp:141] Setting up conv4
I0403 14:06:48.157685 12701 net.cpp:148] Top shape: 100 384 13 13 (6489600)
I0403 14:06:48.157735 12701 net.cpp:156] Memory required for data: 757439600
I0403 14:06:48.157757 12701 layer_factory.hpp:77] Creating layer relu4
I0403 14:06:48.157780 12701 net.cpp:91] Creating Layer relu4
I0403 14:06:48.157798 12701 net.cpp:425] relu4 <- conv4
I0403 14:06:48.157821 12701 net.cpp:386] relu4 -> conv4 (in-place)
I0403 14:06:48.158104 12701 net.cpp:141] Setting up relu4
I0403 14:06:48.158133 12701 net.cpp:148] Top shape: 100 384 13 13 (6489600)
I0403 14:06:48.158148 12701 net.cpp:156] Memory required for data: 783398000
I0403 14:06:48.158162 12701 layer_factory.hpp:77] Creating layer conv5
I0403 14:06:48.158190 12701 net.cpp:91] Creating Layer conv5
I0403 14:06:48.158208 12701 net.cpp:425] conv5 <- conv4
I0403 14:06:48.158228 12701 net.cpp:399] conv5 -> conv5
I0403 14:06:48.179132 12701 net.cpp:141] Setting up conv5
I0403 14:06:48.179169 12701 net.cpp:148] Top shape: 100 256 13 13 (4326400)
I0403 14:06:48.179186 12701 net.cpp:156] Memory required for data: 800703600
I0403 14:06:48.179214 12701 layer_factory.hpp:77] Creating layer relu5
I0403 14:06:48.179246 12701 net.cpp:91] Creating Layer relu5
I0403 14:06:48.179265 12701 net.cpp:425] relu5 <- conv5
I0403 14:06:48.179283 12701 net.cpp:386] relu5 -> conv5 (in-place)
I0403 14:06:48.179589 12701 net.cpp:141] Setting up relu5
I0403 14:06:48.179616 12701 net.cpp:148] Top shape: 100 256 13 13 (4326400)
I0403 14:06:48.179631 12701 net.cpp:156] Memory required for data: 818009200
I0403 14:06:48.179646 12701 layer_factory.hpp:77] Creating layer pool5
I0403 14:06:48.179669 12701 net.cpp:91] Creating Layer pool5
I0403 14:06:48.179687 12701 net.cpp:425] pool5 <- conv5
I0403 14:06:48.179704 12701 net.cpp:399] pool5 -> pool5
I0403 14:06:48.179765 12701 net.cpp:141] Setting up pool5
I0403 14:06:48.179790 12701 net.cpp:148] Top shape: 100 256 6 6 (921600)
I0403 14:06:48.179805 12701 net.cpp:156] Memory required for data: 821695600
I0403 14:06:48.179818 12701 layer_factory.hpp:77] Creating layer fc6
I0403 14:06:48.179847 12701 net.cpp:91] Creating Layer fc6
I0403 14:06:48.179864 12701 net.cpp:425] fc6 <- pool5
I0403 14:06:48.179890 12701 net.cpp:399] fc6 -> fc6
I0403 14:06:49.730208 12701 net.cpp:141] Setting up fc6
I0403 14:06:49.730247 12701 net.cpp:148] Top shape: 100 4096 (409600)
I0403 14:06:49.730264 12701 net.cpp:156] Memory required for data: 823334000
I0403 14:06:49.730283 12701 layer_factory.hpp:77] Creating layer relu6
I0403 14:06:49.730304 12701 net.cpp:91] Creating Layer relu6
I0403 14:06:49.730321 12701 net.cpp:425] relu6 <- fc6
I0403 14:06:49.730341 12701 net.cpp:386] relu6 -> fc6 (in-place)
I0403 14:06:49.730551 12701 net.cpp:141] Setting up relu6
I0403 14:06:49.730579 12701 net.cpp:148] Top shape: 100 4096 (409600)
I0403 14:06:49.730594 12701 net.cpp:156] Memory required for data: 824972400
I0403 14:06:49.730608 12701 layer_factory.hpp:77] Creating layer drop6
I0403 14:06:49.730628 12701 net.cpp:91] Creating Layer drop6
I0403 14:06:49.730645 12701 net.cpp:425] drop6 <- fc6
I0403 14:06:49.730661 12701 net.cpp:386] drop6 -> fc6 (in-place)
I0403 14:06:49.730711 12701 net.cpp:141] Setting up drop6
I0403 14:06:49.730734 12701 net.cpp:148] Top shape: 100 4096 (409600)
I0403 14:06:49.730747 12701 net.cpp:156] Memory required for data: 826610800
I0403 14:06:49.730762 12701 layer_factory.hpp:77] Creating layer fc7
I0403 14:06:49.730779 12701 net.cpp:91] Creating Layer fc7
I0403 14:06:49.730794 12701 net.cpp:425] fc7 <- fc6
I0403 14:06:49.730813 12701 net.cpp:399] fc7 -> fc7
I0403 14:06:50.405458 12701 net.cpp:141] Setting up fc7
I0403 14:06:50.405498 12701 net.cpp:148] Top shape: 100 4096 (409600)
I0403 14:06:50.405514 12701 net.cpp:156] Memory required for data: 828249200
I0403 14:06:50.405534 12701 layer_factory.hpp:77] Creating layer relu7
I0403 14:06:50.405557 12701 net.cpp:91] Creating Layer relu7
I0403 14:06:50.405581 12701 net.cpp:425] relu7 <- fc7
I0403 14:06:50.405601 12701 net.cpp:386] relu7 -> fc7 (in-place)
I0403 14:06:50.406007 12701 net.cpp:141] Setting up relu7
I0403 14:06:50.406033 12701 net.cpp:148] Top shape: 100 4096 (409600)
I0403 14:06:50.406088 12701 net.cpp:156] Memory required for data: 829887600
I0403 14:06:50.406105 12701 layer_factory.hpp:77] Creating layer drop7
I0403 14:06:50.406126 12701 net.cpp:91] Creating Layer drop7
I0403 14:06:50.406142 12701 net.cpp:425] drop7 <- fc7
I0403 14:06:50.406159 12701 net.cpp:386] drop7 -> fc7 (in-place)
I0403 14:06:50.406204 12701 net.cpp:141] Setting up drop7
I0403 14:06:50.406226 12701 net.cpp:148] Top shape: 100 4096 (409600)
I0403 14:06:50.406240 12701 net.cpp:156] Memory required for data: 831526000
I0403 14:06:50.406255 12701 layer_factory.hpp:77] Creating layer fc8_plantvillage
I0403 14:06:50.406275 12701 net.cpp:91] Creating Layer fc8_plantvillage
I0403 14:06:50.406289 12701 net.cpp:425] fc8_plantvillage <- fc7
I0403 14:06:50.406311 12701 net.cpp:399] fc8_plantvillage -> fc8_plantvillage
I0403 14:06:50.413043 12701 net.cpp:141] Setting up fc8_plantvillage
I0403 14:06:50.413074 12701 net.cpp:148] Top shape: 100 38 (3800)
I0403 14:06:50.413090 12701 net.cpp:156] Memory required for data: 831541200
I0403 14:06:50.413107 12701 layer_factory.hpp:77] Creating layer fc8_plantvillage_fc8_plantvillage_0_split
I0403 14:06:50.413125 12701 net.cpp:91] Creating Layer fc8_plantvillage_fc8_plantvillage_0_split
I0403 14:06:50.413141 12701 net.cpp:425] fc8_plantvillage_fc8_plantvillage_0_split <- fc8_plantvillage
I0403 14:06:50.413158 12701 net.cpp:399] fc8_plantvillage_fc8_plantvillage_0_split -> fc8_plantvillage_fc8_plantvillage_0_split_0
I0403 14:06:50.413177 12701 net.cpp:399] fc8_plantvillage_fc8_plantvillage_0_split -> fc8_plantvillage_fc8_plantvillage_0_split_1
I0403 14:06:50.413197 12701 net.cpp:399] fc8_plantvillage_fc8_plantvillage_0_split -> fc8_plantvillage_fc8_plantvillage_0_split_2
I0403 14:06:50.413277 12701 net.cpp:141] Setting up fc8_plantvillage_fc8_plantvillage_0_split
I0403 14:06:50.413300 12701 net.cpp:148] Top shape: 100 38 (3800)
I0403 14:06:50.413316 12701 net.cpp:148] Top shape: 100 38 (3800)
I0403 14:06:50.413331 12701 net.cpp:148] Top shape: 100 38 (3800)
I0403 14:06:50.413346 12701 net.cpp:156] Memory required for data: 831586800
I0403 14:06:50.413359 12701 layer_factory.hpp:77] Creating layer prob
I0403 14:06:50.413378 12701 net.cpp:91] Creating Layer prob
I0403 14:06:50.413393 12701 net.cpp:425] prob <- fc8_plantvillage_fc8_plantvillage_0_split_0
I0403 14:06:50.413409 12701 net.cpp:399] prob -> prob
I0403 14:06:50.413643 12701 net.cpp:141] Setting up prob
I0403 14:06:50.413668 12701 net.cpp:148] Top shape: 100 38 (3800)
I0403 14:06:50.413684 12701 net.cpp:156] Memory required for data: 831602000
I0403 14:06:50.413698 12701 layer_factory.hpp:77] Creating layer hdf5out
I0403 14:06:50.413720 12701 net.cpp:91] Creating Layer hdf5out
I0403 14:06:50.413738 12701 net.cpp:425] hdf5out <- prob
I0403 14:06:50.413753 12701 net.cpp:425] hdf5out <- label_data_1_split_0
I0403 14:06:50.416205 12701 net.cpp:141] Setting up hdf5out
…
