…
I0403 14:09:45.217108 12826 net.cpp:313] The NetState phase (1) differed from the phase (0) specified by a rule in layer data
I0403 14:09:45.217427 12826 net.cpp:49] Initializing net from parameters: 
state {
  phase: TEST
}
layer {
  name: "data"
  type: "Data"
  top: "data"
  top: "label"
  include {
    phase: TEST
  }
  transform_param {
    crop_size: 227
    mean_file: "/home/mohanty/data/final_dataset/lmdb/grayscale-80-20/mean.binaryproto"
  }
  data_param {
    source: "/home/mohanty/data/final_dataset/lmdb/grayscale-80-20/test_db"
    batch_size: 100
    backend: LMDB
  }
}
layer {
  name: "conv1"
  type: "Convolution"
  bottom: "data"
  top: "conv1"
  param {
    lr_mult: 1
    decay_mult: 1
  }
  param {
    lr_mult: 2
    decay_mult: 0
  }
  convolution_param {
    num_output: 96
    kernel_size: 11
    stride: 4
    weight_filler {
      type: "gaussian"
      std: 0.01
    }
    bias_filler {
      type: "constant"
      value: 0
    }
  }
}
layer {
  name: "relu1"
  type: "ReLU"
  bottom: "conv1"
  top: "conv1"
}
layer {
  name: "norm1"
  type: "LRN"
  bottom: "conv1"
  top: "norm1"
  lrn_param {
    local_size: 5
    alpha: 0.0001
    beta: 0.75
  }
}
layer {
  name: "pool1"
  type: "Pooling"
  bottom: "norm1"
  top: "pool1"
  pooling_param {
    pool: MAX
    kernel_size: 3
    stride: 2
  }
}
layer {
  name: "conv2"
  type: "Convolution"
  bottom: "pool1"
  top: "conv2"
  param {
    lr_mult: 1
    decay_mult: 1
  }
  param {
    lr_mult: 2
    decay_mult: 0
  }
  convolution_param {
    num_output: 256
    pad: 2
    kernel_size: 5
    group: 2
    weight_filler {
      type: "gaussian"
      std: 0.01
    }
    bias_filler {
      type: "constant"
      value: 0.1
    }
  }
}
layer {
  name: "relu2"
  type: "ReLU"
  bottom: "conv2"
  top: "conv2"
}
layer {
  name: "norm2"
  type: "LRN"
  bottom: "conv2"
  top: "norm2"
  lrn_param {
    local_size: 5
    alpha: 0.0001
    beta: 0.75
  }
}
layer {
  name: "pool2"
  type: "Pooling"
  bottom: "norm2"
  top: "pool2"
  pooling_param {
    pool: MAX
    kernel_size: 3
    stride: 2
  }
}
layer {
  name: "conv3"
  type: "Convolution"
  bottom: "pool2"
  top: "conv3"
  param {
    lr_mult: 1
    decay_mult: 1
  }
  param {
    lr_mult: 2
    decay_mult: 0
  }
  convolution_param {
    num_output: 384
    pad: 1
    kernel_size: 3
    weight_filler {
      type: "gaussian"
      std: 0.01
    }
    bias_filler {
      type: "constant"
      value: 0
    }
  }
}
layer {
  name: "relu3"
  type: "ReLU"
  bottom: "conv3"
  top: "conv3"
}
layer {
  name: "conv4"
  type: "Convolution"
  bottom: "conv3"
  top: "conv4"
  param {
    lr_mult: 1
    decay_mult: 1
  }
  param {
    lr_mult: 2
    decay_mult: 0
  }
  convolution_param {
    num_output: 384
    pad: 1
    kernel_size: 3
    group: 2
    weight_filler {
      type: "gaussian"
      std: 0.01
    }
    bias_filler {
      type: "constant"
      value: 0.1
    }
  }
}
layer {
  name: "relu4"
  type: "ReLU"
  bottom: "conv4"
  top: "conv4"
}
layer {
  name: "conv5"
  type: "Convolution"
  bottom: "conv4"
  top: "conv5"
  param {
    lr_mult: 1
    decay_mult: 1
  }
  param {
    lr_mult: 2
    decay_mult: 0
  }
  convolution_param {
    num_output: 256
    pad: 1
    kernel_size: 3
    group: 2
    weight_filler {
      type: "gaussian"
      std: 0.01
    }
    bias_filler {
      type: "constant"
      value: 0.1
    }
  }
}
layer {
  name: "relu5"
  type: "ReLU"
  bottom: "conv5"
  top: "conv5"
}
layer {
  name: "pool5"
  type: "Pooling"
  bottom: "conv5"
  top: "pool5"
  pooling_param {
    pool: MAX
    kernel_size: 3
    stride: 2
  }
}
layer {
  name: "fc6"
  type: "InnerProduct"
  bottom: "pool5"
  top: "fc6"
  param {
    lr_mult: 1
    decay_mult: 1
  }
  param {
    lr_mult: 2
    decay_mult: 0
  }
  inner_product_param {
    num_output: 4096
    weight_filler {
      type: "gaussian"
      std: 0.005
    }
    bias_filler {
      type: "constant"
      value: 0.1
    }
  }
}
layer {
  name: "relu6"
  type: "ReLU"
  bottom: "fc6"
  top: "fc6"
}
layer {
  name: "drop6"
  type: "Dropout"
  bottom: "fc6"
  top: "fc6"
  dropout_param {
    dropout_ratio: 0.5
  }
}
layer {
  name: "fc7"
  type: "InnerProduct"
  bottom: "fc6"
  top: "fc7"
  param {
    lr_mult: 1
    decay_mult: 1
  }
  param {
    lr_mult: 2
    decay_mult: 0
  }
  inner_product_param {
    num_output: 4096
    weight_filler {
      type: "gaussian"
      std: 0.005
    }
    bias_filler {
      type: "constant"
      value: 0.1
    }
  }
}
layer {
  name: "relu7"
  type: "ReLU"
  bottom: "fc7"
  top: "fc7"
}
layer {
  name: "drop7"
  type: "Dropout"
  bottom: "fc7"
  top: "fc7"
  dropout_param {
    dropout_ratio: 0.5
  }
}
layer {
  name: "fc8_plantvillage"
  type: "InnerProduct"
  bottom: "fc7"
  top: "fc8_plantvillage"
  param {
    lr_mult: 1
    decay_mult: 1
  }
  param {
    lr_mult: 2
    decay_mult: 0
  }
  inner_product_param {
    num_output: 38
    weight_filler {
      type: "gaussian"
      std: 0.01
    }
    bias_filler {
      type: "constant"
      value: 0
    }
  }
}
layer {
  name: "prob"
  type: "Softmax"
  bottom: "fc8_plantvillage"
  top: "prob"
  include {
    phase: TEST
  }
}
layer {
  name: "hdf5out"
  type: "HDF5Output"
  bottom: "prob"
  bottom: "label"
  include {
    phase: TEST
  }
  hdf5_output_param {
    file_name: "hdf5_dumps/iter_9592.h5"
  }
}
layer {
  name: "loss"
  type: "SoftmaxWithLoss"
  bottom: "fc8_plantvillage"
  bottom: "label"
  top: "loss"
}
layer {
  name: "accuracy"
  type: "Accuracy"
  bottom: "fc8_plantvillage"
  bottom: "label"
  top: "accuracy"
  include {
    phase: TEST
  }
}
I0403 14:09:45.218106 12826 layer_factory.hpp:77] Creating layer data
I0403 14:09:45.218772 12826 net.cpp:91] Creating Layer data
I0403 14:09:45.218807 12826 net.cpp:399] data -> data
I0403 14:09:45.218863 12826 net.cpp:399] data -> label
I0403 14:09:45.218901 12826 data_transformer.cpp:25] Loading mean file from: /home/mohanty/data/final_dataset/lmdb/grayscale-80-20/mean.binaryproto
I0403 14:09:45.221603 12829 db_lmdb.cpp:38] Opened lmdb /home/mohanty/data/final_dataset/lmdb/grayscale-80-20/test_db
I0403 14:09:45.233589 12826 data_layer.cpp:41] output data size: 100,3,227,227
I0403 14:09:45.354339 12826 net.cpp:141] Setting up data
I0403 14:09:45.354429 12826 net.cpp:148] Top shape: 100 3 227 227 (15458700)
I0403 14:09:45.354452 12826 net.cpp:148] Top shape: 100 (100)
I0403 14:09:45.354467 12826 net.cpp:156] Memory required for data: 61835200
I0403 14:09:45.354496 12826 layer_factory.hpp:77] Creating layer label_data_1_split
I0403 14:09:45.354521 12826 net.cpp:91] Creating Layer label_data_1_split
I0403 14:09:45.354538 12826 net.cpp:425] label_data_1_split <- label
I0403 14:09:45.354578 12826 net.cpp:399] label_data_1_split -> label_data_1_split_0
I0403 14:09:45.354606 12826 net.cpp:399] label_data_1_split -> label_data_1_split_1
I0403 14:09:45.354627 12826 net.cpp:399] label_data_1_split -> label_data_1_split_2
I0403 14:09:45.354688 12826 net.cpp:141] Setting up label_data_1_split
I0403 14:09:45.354712 12826 net.cpp:148] Top shape: 100 (100)
I0403 14:09:45.354727 12826 net.cpp:148] Top shape: 100 (100)
I0403 14:09:45.354742 12826 net.cpp:148] Top shape: 100 (100)
I0403 14:09:45.354754 12826 net.cpp:156] Memory required for data: 61836400
I0403 14:09:45.354768 12826 layer_factory.hpp:77] Creating layer conv1
I0403 14:09:45.354799 12826 net.cpp:91] Creating Layer conv1
I0403 14:09:45.354816 12826 net.cpp:425] conv1 <- data
I0403 14:09:45.354833 12826 net.cpp:399] conv1 -> conv1
I0403 14:09:45.496254 12826 net.cpp:141] Setting up conv1
I0403 14:09:45.496300 12826 net.cpp:148] Top shape: 100 96 55 55 (29040000)
I0403 14:09:45.496318 12826 net.cpp:156] Memory required for data: 177996400
I0403 14:09:45.496350 12826 layer_factory.hpp:77] Creating layer relu1
I0403 14:09:45.496376 12826 net.cpp:91] Creating Layer relu1
I0403 14:09:45.496395 12826 net.cpp:425] relu1 <- conv1
I0403 14:09:45.496414 12826 net.cpp:386] relu1 -> conv1 (in-place)
I0403 14:09:45.496676 12826 net.cpp:141] Setting up relu1
I0403 14:09:45.496703 12826 net.cpp:148] Top shape: 100 96 55 55 (29040000)
I0403 14:09:45.496738 12826 net.cpp:156] Memory required for data: 294156400
I0403 14:09:45.496754 12826 layer_factory.hpp:77] Creating layer norm1
I0403 14:09:45.496780 12826 net.cpp:91] Creating Layer norm1
I0403 14:09:45.496798 12826 net.cpp:425] norm1 <- conv1
I0403 14:09:45.496815 12826 net.cpp:399] norm1 -> norm1
I0403 14:09:45.497119 12826 net.cpp:141] Setting up norm1
I0403 14:09:45.497146 12826 net.cpp:148] Top shape: 100 96 55 55 (29040000)
I0403 14:09:45.497160 12826 net.cpp:156] Memory required for data: 410316400
I0403 14:09:45.497175 12826 layer_factory.hpp:77] Creating layer pool1
I0403 14:09:45.497197 12826 net.cpp:91] Creating Layer pool1
I0403 14:09:45.497212 12826 net.cpp:425] pool1 <- norm1
I0403 14:09:45.497230 12826 net.cpp:399] pool1 -> pool1
I0403 14:09:45.497293 12826 net.cpp:141] Setting up pool1
I0403 14:09:45.497316 12826 net.cpp:148] Top shape: 100 96 27 27 (6998400)
I0403 14:09:45.497330 12826 net.cpp:156] Memory required for data: 438310000
I0403 14:09:45.497344 12826 layer_factory.hpp:77] Creating layer conv2
I0403 14:09:45.497369 12826 net.cpp:91] Creating Layer conv2
I0403 14:09:45.497383 12826 net.cpp:425] conv2 <- pool1
I0403 14:09:45.497400 12826 net.cpp:399] conv2 -> conv2
I0403 14:09:45.512110 12826 net.cpp:141] Setting up conv2
I0403 14:09:45.512145 12826 net.cpp:148] Top shape: 100 256 27 27 (18662400)
I0403 14:09:45.512163 12826 net.cpp:156] Memory required for data: 512959600
I0403 14:09:45.512186 12826 layer_factory.hpp:77] Creating layer relu2
I0403 14:09:45.512204 12826 net.cpp:91] Creating Layer relu2
I0403 14:09:45.512219 12826 net.cpp:425] relu2 <- conv2
I0403 14:09:45.512236 12826 net.cpp:386] relu2 -> conv2 (in-place)
I0403 14:09:45.512538 12826 net.cpp:141] Setting up relu2
I0403 14:09:45.512579 12826 net.cpp:148] Top shape: 100 256 27 27 (18662400)
I0403 14:09:45.512595 12826 net.cpp:156] Memory required for data: 587609200
I0403 14:09:45.512611 12826 layer_factory.hpp:77] Creating layer norm2
I0403 14:09:45.512645 12826 net.cpp:91] Creating Layer norm2
I0403 14:09:45.512663 12826 net.cpp:425] norm2 <- conv2
I0403 14:09:45.512681 12826 net.cpp:399] norm2 -> norm2
I0403 14:09:45.512872 12826 net.cpp:141] Setting up norm2
I0403 14:09:45.512898 12826 net.cpp:148] Top shape: 100 256 27 27 (18662400)
I0403 14:09:45.512913 12826 net.cpp:156] Memory required for data: 662258800
I0403 14:09:45.512928 12826 layer_factory.hpp:77] Creating layer pool2
I0403 14:09:45.512948 12826 net.cpp:91] Creating Layer pool2
I0403 14:09:45.512964 12826 net.cpp:425] pool2 <- norm2
I0403 14:09:45.512980 12826 net.cpp:399] pool2 -> pool2
I0403 14:09:45.513032 12826 net.cpp:141] Setting up pool2
I0403 14:09:45.513056 12826 net.cpp:148] Top shape: 100 256 13 13 (4326400)
I0403 14:09:45.513070 12826 net.cpp:156] Memory required for data: 679564400
I0403 14:09:45.513084 12826 layer_factory.hpp:77] Creating layer conv3
I0403 14:09:45.513106 12826 net.cpp:91] Creating Layer conv3
I0403 14:09:45.513123 12826 net.cpp:425] conv3 <- pool2
I0403 14:09:45.513183 12826 net.cpp:399] conv3 -> conv3
I0403 14:09:45.554396 12826 net.cpp:141] Setting up conv3
I0403 14:09:45.554453 12826 net.cpp:148] Top shape: 100 384 13 13 (6489600)
I0403 14:09:45.554474 12826 net.cpp:156] Memory required for data: 705522800
I0403 14:09:45.554498 12826 layer_factory.hpp:77] Creating layer relu3
I0403 14:09:45.554522 12826 net.cpp:91] Creating Layer relu3
I0403 14:09:45.554539 12826 net.cpp:425] relu3 <- conv3
I0403 14:09:45.554558 12826 net.cpp:386] relu3 -> conv3 (in-place)
I0403 14:09:45.554852 12826 net.cpp:141] Setting up relu3
I0403 14:09:45.554882 12826 net.cpp:148] Top shape: 100 384 13 13 (6489600)
I0403 14:09:45.554898 12826 net.cpp:156] Memory required for data: 731481200
I0403 14:09:45.554913 12826 layer_factory.hpp:77] Creating layer conv4
I0403 14:09:45.554937 12826 net.cpp:91] Creating Layer conv4
I0403 14:09:45.554955 12826 net.cpp:425] conv4 <- conv3
I0403 14:09:45.554972 12826 net.cpp:399] conv4 -> conv4
I0403 14:09:45.585440 12826 net.cpp:141] Setting up conv4
I0403 14:09:45.585479 12826 net.cpp:148] Top shape: 100 384 13 13 (6489600)
I0403 14:09:45.585530 12826 net.cpp:156] Memory required for data: 757439600
I0403 14:09:45.585553 12826 layer_factory.hpp:77] Creating layer relu4
I0403 14:09:45.585580 12826 net.cpp:91] Creating Layer relu4
I0403 14:09:45.585598 12826 net.cpp:425] relu4 <- conv4
I0403 14:09:45.585618 12826 net.cpp:386] relu4 -> conv4 (in-place)
I0403 14:09:45.585896 12826 net.cpp:141] Setting up relu4
I0403 14:09:45.585922 12826 net.cpp:148] Top shape: 100 384 13 13 (6489600)
I0403 14:09:45.585963 12826 net.cpp:156] Memory required for data: 783398000
I0403 14:09:45.585980 12826 layer_factory.hpp:77] Creating layer conv5
I0403 14:09:45.586006 12826 net.cpp:91] Creating Layer conv5
I0403 14:09:45.586024 12826 net.cpp:425] conv5 <- conv4
I0403 14:09:45.586045 12826 net.cpp:399] conv5 -> conv5
I0403 14:09:45.606223 12826 net.cpp:141] Setting up conv5
I0403 14:09:45.606259 12826 net.cpp:148] Top shape: 100 256 13 13 (4326400)
I0403 14:09:45.606276 12826 net.cpp:156] Memory required for data: 800703600
I0403 14:09:45.606299 12826 layer_factory.hpp:77] Creating layer relu5
I0403 14:09:45.606323 12826 net.cpp:91] Creating Layer relu5
I0403 14:09:45.606341 12826 net.cpp:425] relu5 <- conv5
I0403 14:09:45.606359 12826 net.cpp:386] relu5 -> conv5 (in-place)
I0403 14:09:45.606681 12826 net.cpp:141] Setting up relu5
I0403 14:09:45.606709 12826 net.cpp:148] Top shape: 100 256 13 13 (4326400)
I0403 14:09:45.606724 12826 net.cpp:156] Memory required for data: 818009200
I0403 14:09:45.606739 12826 layer_factory.hpp:77] Creating layer pool5
I0403 14:09:45.606760 12826 net.cpp:91] Creating Layer pool5
I0403 14:09:45.606777 12826 net.cpp:425] pool5 <- conv5
I0403 14:09:45.606796 12826 net.cpp:399] pool5 -> pool5
I0403 14:09:45.606855 12826 net.cpp:141] Setting up pool5
I0403 14:09:45.606878 12826 net.cpp:148] Top shape: 100 256 6 6 (921600)
I0403 14:09:45.606892 12826 net.cpp:156] Memory required for data: 821695600
I0403 14:09:45.606906 12826 layer_factory.hpp:77] Creating layer fc6
I0403 14:09:45.606933 12826 net.cpp:91] Creating Layer fc6
I0403 14:09:45.606950 12826 net.cpp:425] fc6 <- pool5
I0403 14:09:45.606969 12826 net.cpp:399] fc6 -> fc6
I0403 14:09:47.140307 12826 net.cpp:141] Setting up fc6
I0403 14:09:47.140374 12826 net.cpp:148] Top shape: 100 4096 (409600)
I0403 14:09:47.140391 12826 net.cpp:156] Memory required for data: 823334000
I0403 14:09:47.140411 12826 layer_factory.hpp:77] Creating layer relu6
I0403 14:09:47.140435 12826 net.cpp:91] Creating Layer relu6
I0403 14:09:47.140453 12826 net.cpp:425] relu6 <- fc6
I0403 14:09:47.140473 12826 net.cpp:386] relu6 -> fc6 (in-place)
I0403 14:09:47.140696 12826 net.cpp:141] Setting up relu6
I0403 14:09:47.140720 12826 net.cpp:148] Top shape: 100 4096 (409600)
I0403 14:09:47.140734 12826 net.cpp:156] Memory required for data: 824972400
I0403 14:09:47.140749 12826 layer_factory.hpp:77] Creating layer drop6
I0403 14:09:47.140774 12826 net.cpp:91] Creating Layer drop6
I0403 14:09:47.140789 12826 net.cpp:425] drop6 <- fc6
I0403 14:09:47.140805 12826 net.cpp:386] drop6 -> fc6 (in-place)
I0403 14:09:47.140857 12826 net.cpp:141] Setting up drop6
I0403 14:09:47.140880 12826 net.cpp:148] Top shape: 100 4096 (409600)
I0403 14:09:47.140895 12826 net.cpp:156] Memory required for data: 826610800
I0403 14:09:47.140909 12826 layer_factory.hpp:77] Creating layer fc7
I0403 14:09:47.140931 12826 net.cpp:91] Creating Layer fc7
I0403 14:09:47.140946 12826 net.cpp:425] fc7 <- fc6
I0403 14:09:47.140964 12826 net.cpp:399] fc7 -> fc7
I0403 14:09:47.819541 12826 net.cpp:141] Setting up fc7
I0403 14:09:47.819588 12826 net.cpp:148] Top shape: 100 4096 (409600)
I0403 14:09:47.819607 12826 net.cpp:156] Memory required for data: 828249200
I0403 14:09:47.819628 12826 layer_factory.hpp:77] Creating layer relu7
I0403 14:09:47.819649 12826 net.cpp:91] Creating Layer relu7
I0403 14:09:47.819666 12826 net.cpp:425] relu7 <- fc7
I0403 14:09:47.819685 12826 net.cpp:386] relu7 -> fc7 (in-place)
I0403 14:09:47.820075 12826 net.cpp:141] Setting up relu7
I0403 14:09:47.820099 12826 net.cpp:148] Top shape: 100 4096 (409600)
I0403 14:09:47.820152 12826 net.cpp:156] Memory required for data: 829887600
I0403 14:09:47.820168 12826 layer_factory.hpp:77] Creating layer drop7
I0403 14:09:47.820186 12826 net.cpp:91] Creating Layer drop7
I0403 14:09:47.820199 12826 net.cpp:425] drop7 <- fc7
I0403 14:09:47.820216 12826 net.cpp:386] drop7 -> fc7 (in-place)
I0403 14:09:47.820263 12826 net.cpp:141] Setting up drop7
I0403 14:09:47.820286 12826 net.cpp:148] Top shape: 100 4096 (409600)
I0403 14:09:47.820298 12826 net.cpp:156] Memory required for data: 831526000
I0403 14:09:47.820312 12826 layer_factory.hpp:77] Creating layer fc8_plantvillage
I0403 14:09:47.820333 12826 net.cpp:91] Creating Layer fc8_plantvillage
I0403 14:09:47.820348 12826 net.cpp:425] fc8_plantvillage <- fc7
I0403 14:09:47.820365 12826 net.cpp:399] fc8_plantvillage -> fc8_plantvillage
I0403 14:09:47.826966 12826 net.cpp:141] Setting up fc8_plantvillage
I0403 14:09:47.826994 12826 net.cpp:148] Top shape: 100 38 (3800)
I0403 14:09:47.827009 12826 net.cpp:156] Memory required for data: 831541200
I0403 14:09:47.827028 12826 layer_factory.hpp:77] Creating layer fc8_plantvillage_fc8_plantvillage_0_split
I0403 14:09:47.827049 12826 net.cpp:91] Creating Layer fc8_plantvillage_fc8_plantvillage_0_split
I0403 14:09:47.827065 12826 net.cpp:425] fc8_plantvillage_fc8_plantvillage_0_split <- fc8_plantvillage
I0403 14:09:47.827081 12826 net.cpp:399] fc8_plantvillage_fc8_plantvillage_0_split -> fc8_plantvillage_fc8_plantvillage_0_split_0
I0403 14:09:47.827103 12826 net.cpp:399] fc8_plantvillage_fc8_plantvillage_0_split -> fc8_plantvillage_fc8_plantvillage_0_split_1
I0403 14:09:47.827124 12826 net.cpp:399] fc8_plantvillage_fc8_plantvillage_0_split -> fc8_plantvillage_fc8_plantvillage_0_split_2
I0403 14:09:47.827199 12826 net.cpp:141] Setting up fc8_plantvillage_fc8_plantvillage_0_split
I0403 14:09:47.827222 12826 net.cpp:148] Top shape: 100 38 (3800)
I0403 14:09:47.827237 12826 net.cpp:148] Top shape: 100 38 (3800)
I0403 14:09:47.827251 12826 net.cpp:148] Top shape: 100 38 (3800)
I0403 14:09:47.827266 12826 net.cpp:156] Memory required for data: 831586800
I0403 14:09:47.827280 12826 layer_factory.hpp:77] Creating layer prob
I0403 14:09:47.827299 12826 net.cpp:91] Creating Layer prob
I0403 14:09:47.827316 12826 net.cpp:425] prob <- fc8_plantvillage_fc8_plantvillage_0_split_0
I0403 14:09:47.827332 12826 net.cpp:399] prob -> prob
I0403 14:09:47.827549 12826 net.cpp:141] Setting up prob
I0403 14:09:47.827577 12826 net.cpp:148] Top shape: 100 38 (3800)
I0403 14:09:47.827594 12826 net.cpp:156] Memory required for data: 831602000
I0403 14:09:47.827607 12826 layer_factory.hpp:77] Creating layer hdf5out
I0403 14:09:47.827627 12826 net.cpp:91] Creating Layer hdf5out
I0403 14:09:47.827642 12826 net.cpp:425] hdf5out <- prob
I0403 14:09:47.827657 12826 net.cpp:425] hdf5out <- label_data_1_split_0
I0403 14:09:47.830009 12826 net.cpp:141] Setting up hdf5out
…
