…
I0403 14:04:41.990895 12639 net.cpp:313] The NetState phase (1) differed from the phase (0) specified by a rule in layer data
I0403 14:04:41.991180 12639 net.cpp:49] Initializing net from parameters: 
state {
  phase: TEST
}
layer {
  name: "data"
  type: "Data"
  top: "data"
  top: "label"
  include {
    phase: TEST
  }
  transform_param {
    crop_size: 227
    mean_file: "/home/mohanty/data/final_dataset/lmdb/grayscale-80-20/mean.binaryproto"
  }
  data_param {
    source: "/home/mohanty/data/final_dataset/lmdb/grayscale-80-20/test_db"
    batch_size: 100
    backend: LMDB
  }
}
layer {
  name: "conv1"
  type: "Convolution"
  bottom: "data"
  top: "conv1"
  param {
    lr_mult: 1
    decay_mult: 1
  }
  param {
    lr_mult: 2
    decay_mult: 0
  }
  convolution_param {
    num_output: 96
    kernel_size: 11
    stride: 4
    weight_filler {
      type: "gaussian"
      std: 0.01
    }
    bias_filler {
      type: "constant"
      value: 0
    }
  }
}
layer {
  name: "relu1"
  type: "ReLU"
  bottom: "conv1"
  top: "conv1"
}
layer {
  name: "norm1"
  type: "LRN"
  bottom: "conv1"
  top: "norm1"
  lrn_param {
    local_size: 5
    alpha: 0.0001
    beta: 0.75
  }
}
layer {
  name: "pool1"
  type: "Pooling"
  bottom: "norm1"
  top: "pool1"
  pooling_param {
    pool: MAX
    kernel_size: 3
    stride: 2
  }
}
layer {
  name: "conv2"
  type: "Convolution"
  bottom: "pool1"
  top: "conv2"
  param {
    lr_mult: 1
    decay_mult: 1
  }
  param {
    lr_mult: 2
    decay_mult: 0
  }
  convolution_param {
    num_output: 256
    pad: 2
    kernel_size: 5
    group: 2
    weight_filler {
      type: "gaussian"
      std: 0.01
    }
    bias_filler {
      type: "constant"
      value: 0.1
    }
  }
}
layer {
  name: "relu2"
  type: "ReLU"
  bottom: "conv2"
  top: "conv2"
}
layer {
  name: "norm2"
  type: "LRN"
  bottom: "conv2"
  top: "norm2"
  lrn_param {
    local_size: 5
    alpha: 0.0001
    beta: 0.75
  }
}
layer {
  name: "pool2"
  type: "Pooling"
  bottom: "norm2"
  top: "pool2"
  pooling_param {
    pool: MAX
    kernel_size: 3
    stride: 2
  }
}
layer {
  name: "conv3"
  type: "Convolution"
  bottom: "pool2"
  top: "conv3"
  param {
    lr_mult: 1
    decay_mult: 1
  }
  param {
    lr_mult: 2
    decay_mult: 0
  }
  convolution_param {
    num_output: 384
    pad: 1
    kernel_size: 3
    weight_filler {
      type: "gaussian"
      std: 0.01
    }
    bias_filler {
      type: "constant"
      value: 0
    }
  }
}
layer {
  name: "relu3"
  type: "ReLU"
  bottom: "conv3"
  top: "conv3"
}
layer {
  name: "conv4"
  type: "Convolution"
  bottom: "conv3"
  top: "conv4"
  param {
    lr_mult: 1
    decay_mult: 1
  }
  param {
    lr_mult: 2
    decay_mult: 0
  }
  convolution_param {
    num_output: 384
    pad: 1
    kernel_size: 3
    group: 2
    weight_filler {
      type: "gaussian"
      std: 0.01
    }
    bias_filler {
      type: "constant"
      value: 0.1
    }
  }
}
layer {
  name: "relu4"
  type: "ReLU"
  bottom: "conv4"
  top: "conv4"
}
layer {
  name: "conv5"
  type: "Convolution"
  bottom: "conv4"
  top: "conv5"
  param {
    lr_mult: 1
    decay_mult: 1
  }
  param {
    lr_mult: 2
    decay_mult: 0
  }
  convolution_param {
    num_output: 256
    pad: 1
    kernel_size: 3
    group: 2
    weight_filler {
      type: "gaussian"
      std: 0.01
    }
    bias_filler {
      type: "constant"
      value: 0.1
    }
  }
}
layer {
  name: "relu5"
  type: "ReLU"
  bottom: "conv5"
  top: "conv5"
}
layer {
  name: "pool5"
  type: "Pooling"
  bottom: "conv5"
  top: "pool5"
  pooling_param {
    pool: MAX
    kernel_size: 3
    stride: 2
  }
}
layer {
  name: "fc6"
  type: "InnerProduct"
  bottom: "pool5"
  top: "fc6"
  param {
    lr_mult: 1
    decay_mult: 1
  }
  param {
    lr_mult: 2
    decay_mult: 0
  }
  inner_product_param {
    num_output: 4096
    weight_filler {
      type: "gaussian"
      std: 0.005
    }
    bias_filler {
      type: "constant"
      value: 0.1
    }
  }
}
layer {
  name: "relu6"
  type: "ReLU"
  bottom: "fc6"
  top: "fc6"
}
layer {
  name: "drop6"
  type: "Dropout"
  bottom: "fc6"
  top: "fc6"
  dropout_param {
    dropout_ratio: 0.5
  }
}
layer {
  name: "fc7"
  type: "InnerProduct"
  bottom: "fc6"
  top: "fc7"
  param {
    lr_mult: 1
    decay_mult: 1
  }
  param {
    lr_mult: 2
    decay_mult: 0
  }
  inner_product_param {
    num_output: 4096
    weight_filler {
      type: "gaussian"
      std: 0.005
    }
    bias_filler {
      type: "constant"
      value: 0.1
    }
  }
}
layer {
  name: "relu7"
  type: "ReLU"
  bottom: "fc7"
  top: "fc7"
}
layer {
  name: "drop7"
  type: "Dropout"
  bottom: "fc7"
  top: "fc7"
  dropout_param {
    dropout_ratio: 0.5
  }
}
layer {
  name: "fc8_plantvillage"
  type: "InnerProduct"
  bottom: "fc7"
  top: "fc8_plantvillage"
  param {
    lr_mult: 1
    decay_mult: 1
  }
  param {
    lr_mult: 2
    decay_mult: 0
  }
  inner_product_param {
    num_output: 38
    weight_filler {
      type: "gaussian"
      std: 0.01
    }
    bias_filler {
      type: "constant"
      value: 0
    }
  }
}
layer {
  name: "prob"
  type: "Softmax"
  bottom: "fc8_plantvillage"
  top: "prob"
  include {
    phase: TEST
  }
}
layer {
  name: "hdf5out"
  type: "HDF5Output"
  bottom: "prob"
  bottom: "label"
  include {
    phase: TEST
  }
  hdf5_output_param {
    file_name: "hdf5_dumps/iter_4360.h5"
  }
}
layer {
  name: "loss"
  type: "SoftmaxWithLoss"
  bottom: "fc8_plantvillage"
  bottom: "label"
  top: "loss"
}
layer {
  name: "accuracy"
  type: "Accuracy"
  bottom: "fc8_plantvillage"
  bottom: "label"
  top: "accuracy"
  include {
    phase: TEST
  }
}
I0403 14:04:41.991761 12639 layer_factory.hpp:77] Creating layer data
I0403 14:04:41.992388 12639 net.cpp:91] Creating Layer data
I0403 14:04:41.992416 12639 net.cpp:399] data -> data
I0403 14:04:41.992465 12639 net.cpp:399] data -> label
I0403 14:04:41.992501 12639 data_transformer.cpp:25] Loading mean file from: /home/mohanty/data/final_dataset/lmdb/grayscale-80-20/mean.binaryproto
I0403 14:04:41.995666 12643 db_lmdb.cpp:38] Opened lmdb /home/mohanty/data/final_dataset/lmdb/grayscale-80-20/test_db
I0403 14:04:42.006974 12639 data_layer.cpp:41] output data size: 100,3,227,227
I0403 14:04:42.128316 12639 net.cpp:141] Setting up data
I0403 14:04:42.128412 12639 net.cpp:148] Top shape: 100 3 227 227 (15458700)
I0403 14:04:42.128434 12639 net.cpp:148] Top shape: 100 (100)
I0403 14:04:42.128450 12639 net.cpp:156] Memory required for data: 61835200
I0403 14:04:42.128479 12639 layer_factory.hpp:77] Creating layer label_data_1_split
I0403 14:04:42.128504 12639 net.cpp:91] Creating Layer label_data_1_split
I0403 14:04:42.128522 12639 net.cpp:425] label_data_1_split <- label
I0403 14:04:42.128556 12639 net.cpp:399] label_data_1_split -> label_data_1_split_0
I0403 14:04:42.128587 12639 net.cpp:399] label_data_1_split -> label_data_1_split_1
I0403 14:04:42.128609 12639 net.cpp:399] label_data_1_split -> label_data_1_split_2
I0403 14:04:42.128675 12639 net.cpp:141] Setting up label_data_1_split
I0403 14:04:42.128700 12639 net.cpp:148] Top shape: 100 (100)
I0403 14:04:42.128731 12639 net.cpp:148] Top shape: 100 (100)
I0403 14:04:42.128747 12639 net.cpp:148] Top shape: 100 (100)
I0403 14:04:42.128762 12639 net.cpp:156] Memory required for data: 61836400
I0403 14:04:42.128775 12639 layer_factory.hpp:77] Creating layer conv1
I0403 14:04:42.128805 12639 net.cpp:91] Creating Layer conv1
I0403 14:04:42.128824 12639 net.cpp:425] conv1 <- data
I0403 14:04:42.128844 12639 net.cpp:399] conv1 -> conv1
I0403 14:04:42.269274 12639 net.cpp:141] Setting up conv1
I0403 14:04:42.269351 12639 net.cpp:148] Top shape: 100 96 55 55 (29040000)
I0403 14:04:42.269367 12639 net.cpp:156] Memory required for data: 177996400
I0403 14:04:42.269398 12639 layer_factory.hpp:77] Creating layer relu1
I0403 14:04:42.269425 12639 net.cpp:91] Creating Layer relu1
I0403 14:04:42.269443 12639 net.cpp:425] relu1 <- conv1
I0403 14:04:42.269460 12639 net.cpp:386] relu1 -> conv1 (in-place)
I0403 14:04:42.269718 12639 net.cpp:141] Setting up relu1
I0403 14:04:42.269745 12639 net.cpp:148] Top shape: 100 96 55 55 (29040000)
I0403 14:04:42.269799 12639 net.cpp:156] Memory required for data: 294156400
I0403 14:04:42.269815 12639 layer_factory.hpp:77] Creating layer norm1
I0403 14:04:42.269842 12639 net.cpp:91] Creating Layer norm1
I0403 14:04:42.269860 12639 net.cpp:425] norm1 <- conv1
I0403 14:04:42.269876 12639 net.cpp:399] norm1 -> norm1
I0403 14:04:42.270179 12639 net.cpp:141] Setting up norm1
I0403 14:04:42.270206 12639 net.cpp:148] Top shape: 100 96 55 55 (29040000)
I0403 14:04:42.270221 12639 net.cpp:156] Memory required for data: 410316400
I0403 14:04:42.270236 12639 layer_factory.hpp:77] Creating layer pool1
I0403 14:04:42.270257 12639 net.cpp:91] Creating Layer pool1
I0403 14:04:42.270274 12639 net.cpp:425] pool1 <- norm1
I0403 14:04:42.270292 12639 net.cpp:399] pool1 -> pool1
I0403 14:04:42.270356 12639 net.cpp:141] Setting up pool1
I0403 14:04:42.270380 12639 net.cpp:148] Top shape: 100 96 27 27 (6998400)
I0403 14:04:42.270393 12639 net.cpp:156] Memory required for data: 438310000
I0403 14:04:42.270407 12639 layer_factory.hpp:77] Creating layer conv2
I0403 14:04:42.270431 12639 net.cpp:91] Creating Layer conv2
I0403 14:04:42.270447 12639 net.cpp:425] conv2 <- pool1
I0403 14:04:42.270464 12639 net.cpp:399] conv2 -> conv2
I0403 14:04:42.285750 12639 net.cpp:141] Setting up conv2
I0403 14:04:42.285799 12639 net.cpp:148] Top shape: 100 256 27 27 (18662400)
I0403 14:04:42.285815 12639 net.cpp:156] Memory required for data: 512959600
I0403 14:04:42.285837 12639 layer_factory.hpp:77] Creating layer relu2
I0403 14:04:42.285857 12639 net.cpp:91] Creating Layer relu2
I0403 14:04:42.285883 12639 net.cpp:425] relu2 <- conv2
I0403 14:04:42.285902 12639 net.cpp:386] relu2 -> conv2 (in-place)
I0403 14:04:42.286173 12639 net.cpp:141] Setting up relu2
I0403 14:04:42.286201 12639 net.cpp:148] Top shape: 100 256 27 27 (18662400)
I0403 14:04:42.286216 12639 net.cpp:156] Memory required for data: 587609200
I0403 14:04:42.286231 12639 layer_factory.hpp:77] Creating layer norm2
I0403 14:04:42.286252 12639 net.cpp:91] Creating Layer norm2
I0403 14:04:42.286268 12639 net.cpp:425] norm2 <- conv2
I0403 14:04:42.286286 12639 net.cpp:399] norm2 -> norm2
I0403 14:04:42.286512 12639 net.cpp:141] Setting up norm2
I0403 14:04:42.286540 12639 net.cpp:148] Top shape: 100 256 27 27 (18662400)
I0403 14:04:42.286555 12639 net.cpp:156] Memory required for data: 662258800
I0403 14:04:42.286573 12639 layer_factory.hpp:77] Creating layer pool2
I0403 14:04:42.286592 12639 net.cpp:91] Creating Layer pool2
I0403 14:04:42.286607 12639 net.cpp:425] pool2 <- norm2
I0403 14:04:42.286625 12639 net.cpp:399] pool2 -> pool2
I0403 14:04:42.286677 12639 net.cpp:141] Setting up pool2
I0403 14:04:42.286701 12639 net.cpp:148] Top shape: 100 256 13 13 (4326400)
I0403 14:04:42.286716 12639 net.cpp:156] Memory required for data: 679564400
I0403 14:04:42.286731 12639 layer_factory.hpp:77] Creating layer conv3
I0403 14:04:42.286752 12639 net.cpp:91] Creating Layer conv3
I0403 14:04:42.286768 12639 net.cpp:425] conv3 <- pool2
I0403 14:04:42.286787 12639 net.cpp:399] conv3 -> conv3
I0403 14:04:42.331368 12639 net.cpp:141] Setting up conv3
I0403 14:04:42.331415 12639 net.cpp:148] Top shape: 100 384 13 13 (6489600)
I0403 14:04:42.331432 12639 net.cpp:156] Memory required for data: 705522800
I0403 14:04:42.331457 12639 layer_factory.hpp:77] Creating layer relu3
I0403 14:04:42.331480 12639 net.cpp:91] Creating Layer relu3
I0403 14:04:42.331496 12639 net.cpp:425] relu3 <- conv3
I0403 14:04:42.331516 12639 net.cpp:386] relu3 -> conv3 (in-place)
I0403 14:04:42.331784 12639 net.cpp:141] Setting up relu3
I0403 14:04:42.331810 12639 net.cpp:148] Top shape: 100 384 13 13 (6489600)
I0403 14:04:42.331825 12639 net.cpp:156] Memory required for data: 731481200
I0403 14:04:42.331840 12639 layer_factory.hpp:77] Creating layer conv4
I0403 14:04:42.331864 12639 net.cpp:91] Creating Layer conv4
I0403 14:04:42.331881 12639 net.cpp:425] conv4 <- conv3
I0403 14:04:42.331898 12639 net.cpp:399] conv4 -> conv4
I0403 14:04:42.360754 12639 net.cpp:141] Setting up conv4
I0403 14:04:42.360805 12639 net.cpp:148] Top shape: 100 384 13 13 (6489600)
I0403 14:04:42.360860 12639 net.cpp:156] Memory required for data: 757439600
I0403 14:04:42.360882 12639 layer_factory.hpp:77] Creating layer relu4
I0403 14:04:42.360901 12639 net.cpp:91] Creating Layer relu4
I0403 14:04:42.360918 12639 net.cpp:425] relu4 <- conv4
I0403 14:04:42.360936 12639 net.cpp:386] relu4 -> conv4 (in-place)
I0403 14:04:42.361227 12639 net.cpp:141] Setting up relu4
I0403 14:04:42.361263 12639 net.cpp:148] Top shape: 100 384 13 13 (6489600)
I0403 14:04:42.361277 12639 net.cpp:156] Memory required for data: 783398000
I0403 14:04:42.361294 12639 layer_factory.hpp:77] Creating layer conv5
I0403 14:04:42.361321 12639 net.cpp:91] Creating Layer conv5
I0403 14:04:42.361338 12639 net.cpp:425] conv5 <- conv4
I0403 14:04:42.361359 12639 net.cpp:399] conv5 -> conv5
I0403 14:04:42.381898 12639 net.cpp:141] Setting up conv5
I0403 14:04:42.381958 12639 net.cpp:148] Top shape: 100 256 13 13 (4326400)
I0403 14:04:42.381973 12639 net.cpp:156] Memory required for data: 800703600
I0403 14:04:42.381997 12639 layer_factory.hpp:77] Creating layer relu5
I0403 14:04:42.382021 12639 net.cpp:91] Creating Layer relu5
I0403 14:04:42.382040 12639 net.cpp:425] relu5 <- conv5
I0403 14:04:42.382058 12639 net.cpp:386] relu5 -> conv5 (in-place)
I0403 14:04:42.382345 12639 net.cpp:141] Setting up relu5
I0403 14:04:42.382377 12639 net.cpp:148] Top shape: 100 256 13 13 (4326400)
I0403 14:04:42.382396 12639 net.cpp:156] Memory required for data: 818009200
I0403 14:04:42.382412 12639 layer_factory.hpp:77] Creating layer pool5
I0403 14:04:42.382434 12639 net.cpp:91] Creating Layer pool5
I0403 14:04:42.382450 12639 net.cpp:425] pool5 <- conv5
I0403 14:04:42.382472 12639 net.cpp:399] pool5 -> pool5
I0403 14:04:42.382531 12639 net.cpp:141] Setting up pool5
I0403 14:04:42.382557 12639 net.cpp:148] Top shape: 100 256 6 6 (921600)
I0403 14:04:42.382577 12639 net.cpp:156] Memory required for data: 821695600
I0403 14:04:42.382593 12639 layer_factory.hpp:77] Creating layer fc6
I0403 14:04:42.382621 12639 net.cpp:91] Creating Layer fc6
I0403 14:04:42.382637 12639 net.cpp:425] fc6 <- pool5
I0403 14:04:42.382658 12639 net.cpp:399] fc6 -> fc6
I0403 14:04:43.964032 12639 net.cpp:141] Setting up fc6
I0403 14:04:43.964087 12639 net.cpp:148] Top shape: 100 4096 (409600)
I0403 14:04:43.964102 12639 net.cpp:156] Memory required for data: 823334000
I0403 14:04:43.964123 12639 layer_factory.hpp:77] Creating layer relu6
I0403 14:04:43.964149 12639 net.cpp:91] Creating Layer relu6
I0403 14:04:43.964167 12639 net.cpp:425] relu6 <- fc6
I0403 14:04:43.964186 12639 net.cpp:386] relu6 -> fc6 (in-place)
I0403 14:04:43.964408 12639 net.cpp:141] Setting up relu6
I0403 14:04:43.964433 12639 net.cpp:148] Top shape: 100 4096 (409600)
I0403 14:04:43.964448 12639 net.cpp:156] Memory required for data: 824972400
I0403 14:04:43.964463 12639 layer_factory.hpp:77] Creating layer drop6
I0403 14:04:43.964483 12639 net.cpp:91] Creating Layer drop6
I0403 14:04:43.964500 12639 net.cpp:425] drop6 <- fc6
I0403 14:04:43.964519 12639 net.cpp:386] drop6 -> fc6 (in-place)
I0403 14:04:43.964581 12639 net.cpp:141] Setting up drop6
I0403 14:04:43.964606 12639 net.cpp:148] Top shape: 100 4096 (409600)
I0403 14:04:43.964619 12639 net.cpp:156] Memory required for data: 826610800
I0403 14:04:43.964634 12639 layer_factory.hpp:77] Creating layer fc7
I0403 14:04:43.964656 12639 net.cpp:91] Creating Layer fc7
I0403 14:04:43.964673 12639 net.cpp:425] fc7 <- fc6
I0403 14:04:43.964690 12639 net.cpp:399] fc7 -> fc7
I0403 14:04:44.663429 12639 net.cpp:141] Setting up fc7
I0403 14:04:44.663506 12639 net.cpp:148] Top shape: 100 4096 (409600)
I0403 14:04:44.663522 12639 net.cpp:156] Memory required for data: 828249200
I0403 14:04:44.663542 12639 layer_factory.hpp:77] Creating layer relu7
I0403 14:04:44.663564 12639 net.cpp:91] Creating Layer relu7
I0403 14:04:44.663585 12639 net.cpp:425] relu7 <- fc7
I0403 14:04:44.663604 12639 net.cpp:386] relu7 -> fc7 (in-place)
I0403 14:04:44.663998 12639 net.cpp:141] Setting up relu7
I0403 14:04:44.664027 12639 net.cpp:148] Top shape: 100 4096 (409600)
I0403 14:04:44.664078 12639 net.cpp:156] Memory required for data: 829887600
I0403 14:04:44.664094 12639 layer_factory.hpp:77] Creating layer drop7
I0403 14:04:44.664113 12639 net.cpp:91] Creating Layer drop7
I0403 14:04:44.664129 12639 net.cpp:425] drop7 <- fc7
I0403 14:04:44.664145 12639 net.cpp:386] drop7 -> fc7 (in-place)
I0403 14:04:44.664191 12639 net.cpp:141] Setting up drop7
I0403 14:04:44.664216 12639 net.cpp:148] Top shape: 100 4096 (409600)
I0403 14:04:44.664229 12639 net.cpp:156] Memory required for data: 831526000
I0403 14:04:44.664243 12639 layer_factory.hpp:77] Creating layer fc8_plantvillage
I0403 14:04:44.664265 12639 net.cpp:91] Creating Layer fc8_plantvillage
I0403 14:04:44.664280 12639 net.cpp:425] fc8_plantvillage <- fc7
I0403 14:04:44.664299 12639 net.cpp:399] fc8_plantvillage -> fc8_plantvillage
I0403 14:04:44.671103 12639 net.cpp:141] Setting up fc8_plantvillage
I0403 14:04:44.671131 12639 net.cpp:148] Top shape: 100 38 (3800)
I0403 14:04:44.671147 12639 net.cpp:156] Memory required for data: 831541200
I0403 14:04:44.671174 12639 layer_factory.hpp:77] Creating layer fc8_plantvillage_fc8_plantvillage_0_split
I0403 14:04:44.671203 12639 net.cpp:91] Creating Layer fc8_plantvillage_fc8_plantvillage_0_split
I0403 14:04:44.671224 12639 net.cpp:425] fc8_plantvillage_fc8_plantvillage_0_split <- fc8_plantvillage
I0403 14:04:44.671250 12639 net.cpp:399] fc8_plantvillage_fc8_plantvillage_0_split -> fc8_plantvillage_fc8_plantvillage_0_split_0
I0403 14:04:44.671277 12639 net.cpp:399] fc8_plantvillage_fc8_plantvillage_0_split -> fc8_plantvillage_fc8_plantvillage_0_split_1
I0403 14:04:44.671301 12639 net.cpp:399] fc8_plantvillage_fc8_plantvillage_0_split -> fc8_plantvillage_fc8_plantvillage_0_split_2
I0403 14:04:44.671388 12639 net.cpp:141] Setting up fc8_plantvillage_fc8_plantvillage_0_split
I0403 14:04:44.671412 12639 net.cpp:148] Top shape: 100 38 (3800)
I0403 14:04:44.671428 12639 net.cpp:148] Top shape: 100 38 (3800)
I0403 14:04:44.671444 12639 net.cpp:148] Top shape: 100 38 (3800)
I0403 14:04:44.671458 12639 net.cpp:156] Memory required for data: 831586800
I0403 14:04:44.671473 12639 layer_factory.hpp:77] Creating layer prob
I0403 14:04:44.671492 12639 net.cpp:91] Creating Layer prob
I0403 14:04:44.671509 12639 net.cpp:425] prob <- fc8_plantvillage_fc8_plantvillage_0_split_0
I0403 14:04:44.671526 12639 net.cpp:399] prob -> prob
I0403 14:04:44.671761 12639 net.cpp:141] Setting up prob
I0403 14:04:44.671785 12639 net.cpp:148] Top shape: 100 38 (3800)
I0403 14:04:44.671800 12639 net.cpp:156] Memory required for data: 831602000
I0403 14:04:44.671815 12639 layer_factory.hpp:77] Creating layer hdf5out
I0403 14:04:44.671835 12639 net.cpp:91] Creating Layer hdf5out
I0403 14:04:44.671851 12639 net.cpp:425] hdf5out <- prob
I0403 14:04:44.671867 12639 net.cpp:425] hdf5out <- label_data_1_split_0
I0403 14:04:44.674021 12639 net.cpp:141] Setting up hdf5out
…
