…
I0403 14:00:56.349493 12509 net.cpp:313] The NetState phase (1) differed from the phase (0) specified by a rule in layer data
I0403 14:00:56.349805 12509 net.cpp:49] Initializing net from parameters: 
state {
  phase: TEST
}
layer {
  name: "data"
  type: "Data"
  top: "data"
  top: "label"
  include {
    phase: TEST
  }
  transform_param {
    crop_size: 227
    mean_file: "/home/mohanty/data/final_dataset/lmdb/grayscale-80-20/mean.binaryproto"
  }
  data_param {
    source: "/home/mohanty/data/final_dataset/lmdb/grayscale-80-20/test_db"
    batch_size: 100
    backend: LMDB
  }
}
layer {
  name: "conv1"
  type: "Convolution"
  bottom: "data"
  top: "conv1"
  param {
    lr_mult: 1
    decay_mult: 1
  }
  param {
    lr_mult: 2
    decay_mult: 0
  }
  convolution_param {
    num_output: 96
    kernel_size: 11
    stride: 4
    weight_filler {
      type: "gaussian"
      std: 0.01
    }
    bias_filler {
      type: "constant"
      value: 0
    }
  }
}
layer {
  name: "relu1"
  type: "ReLU"
  bottom: "conv1"
  top: "conv1"
}
layer {
  name: "norm1"
  type: "LRN"
  bottom: "conv1"
  top: "norm1"
  lrn_param {
    local_size: 5
    alpha: 0.0001
    beta: 0.75
  }
}
layer {
  name: "pool1"
  type: "Pooling"
  bottom: "norm1"
  top: "pool1"
  pooling_param {
    pool: MAX
    kernel_size: 3
    stride: 2
  }
}
layer {
  name: "conv2"
  type: "Convolution"
  bottom: "pool1"
  top: "conv2"
  param {
    lr_mult: 1
    decay_mult: 1
  }
  param {
    lr_mult: 2
    decay_mult: 0
  }
  convolution_param {
    num_output: 256
    pad: 2
    kernel_size: 5
    group: 2
    weight_filler {
      type: "gaussian"
      std: 0.01
    }
    bias_filler {
      type: "constant"
      value: 0.1
    }
  }
}
layer {
  name: "relu2"
  type: "ReLU"
  bottom: "conv2"
  top: "conv2"
}
layer {
  name: "norm2"
  type: "LRN"
  bottom: "conv2"
  top: "norm2"
  lrn_param {
    local_size: 5
    alpha: 0.0001
    beta: 0.75
  }
}
layer {
  name: "pool2"
  type: "Pooling"
  bottom: "norm2"
  top: "pool2"
  pooling_param {
    pool: MAX
    kernel_size: 3
    stride: 2
  }
}
layer {
  name: "conv3"
  type: "Convolution"
  bottom: "pool2"
  top: "conv3"
  param {
    lr_mult: 1
    decay_mult: 1
  }
  param {
    lr_mult: 2
    decay_mult: 0
  }
  convolution_param {
    num_output: 384
    pad: 1
    kernel_size: 3
    weight_filler {
      type: "gaussian"
      std: 0.01
    }
    bias_filler {
      type: "constant"
      value: 0
    }
  }
}
layer {
  name: "relu3"
  type: "ReLU"
  bottom: "conv3"
  top: "conv3"
}
layer {
  name: "conv4"
  type: "Convolution"
  bottom: "conv3"
  top: "conv4"
  param {
    lr_mult: 1
    decay_mult: 1
  }
  param {
    lr_mult: 2
    decay_mult: 0
  }
  convolution_param {
    num_output: 384
    pad: 1
    kernel_size: 3
    group: 2
    weight_filler {
      type: "gaussian"
      std: 0.01
    }
    bias_filler {
      type: "constant"
      value: 0.1
    }
  }
}
layer {
  name: "relu4"
  type: "ReLU"
  bottom: "conv4"
  top: "conv4"
}
layer {
  name: "conv5"
  type: "Convolution"
  bottom: "conv4"
  top: "conv5"
  param {
    lr_mult: 1
    decay_mult: 1
  }
  param {
    lr_mult: 2
    decay_mult: 0
  }
  convolution_param {
    num_output: 256
    pad: 1
    kernel_size: 3
    group: 2
    weight_filler {
      type: "gaussian"
      std: 0.01
    }
    bias_filler {
      type: "constant"
      value: 0.1
    }
  }
}
layer {
  name: "relu5"
  type: "ReLU"
  bottom: "conv5"
  top: "conv5"
}
layer {
  name: "pool5"
  type: "Pooling"
  bottom: "conv5"
  top: "pool5"
  pooling_param {
    pool: MAX
    kernel_size: 3
    stride: 2
  }
}
layer {
  name: "fc6"
  type: "InnerProduct"
  bottom: "pool5"
  top: "fc6"
  param {
    lr_mult: 1
    decay_mult: 1
  }
  param {
    lr_mult: 2
    decay_mult: 0
  }
  inner_product_param {
    num_output: 4096
    weight_filler {
      type: "gaussian"
      std: 0.005
    }
    bias_filler {
      type: "constant"
      value: 0.1
    }
  }
}
layer {
  name: "relu6"
  type: "ReLU"
  bottom: "fc6"
  top: "fc6"
}
layer {
  name: "drop6"
  type: "Dropout"
  bottom: "fc6"
  top: "fc6"
  dropout_param {
    dropout_ratio: 0.5
  }
}
layer {
  name: "fc7"
  type: "InnerProduct"
  bottom: "fc6"
  top: "fc7"
  param {
    lr_mult: 1
    decay_mult: 1
  }
  param {
    lr_mult: 2
    decay_mult: 0
  }
  inner_product_param {
    num_output: 4096
    weight_filler {
      type: "gaussian"
      std: 0.005
    }
    bias_filler {
      type: "constant"
      value: 0.1
    }
  }
}
layer {
  name: "relu7"
  type: "ReLU"
  bottom: "fc7"
  top: "fc7"
}
layer {
  name: "drop7"
  type: "Dropout"
  bottom: "fc7"
  top: "fc7"
  dropout_param {
    dropout_ratio: 0.5
  }
}
layer {
  name: "fc8_plantvillage"
  type: "InnerProduct"
  bottom: "fc7"
  top: "fc8_plantvillage"
  param {
    lr_mult: 1
    decay_mult: 1
  }
  param {
    lr_mult: 2
    decay_mult: 0
  }
  inner_product_param {
    num_output: 38
    weight_filler {
      type: "gaussian"
      std: 0.01
    }
    bias_filler {
      type: "constant"
      value: 0
    }
  }
}
layer {
  name: "prob"
  type: "Softmax"
  bottom: "fc8_plantvillage"
  top: "prob"
  include {
    phase: TEST
  }
}
layer {
  name: "hdf5out"
  type: "HDF5Output"
  bottom: "prob"
  bottom: "label"
  include {
    phase: TEST
  }
  hdf5_output_param {
    file_name: "hdf5_dumps/iter_436.h5"
  }
}
layer {
  name: "loss"
  type: "SoftmaxWithLoss"
  bottom: "fc8_plantvillage"
  bottom: "label"
  top: "loss"
}
layer {
  name: "accuracy"
  type: "Accuracy"
  bottom: "fc8_plantvillage"
  bottom: "label"
  top: "accuracy"
  include {
    phase: TEST
  }
}
I0403 14:00:56.350415 12509 layer_factory.hpp:77] Creating layer data
I0403 14:00:56.351063 12509 net.cpp:91] Creating Layer data
I0403 14:00:56.351096 12509 net.cpp:399] data -> data
I0403 14:00:56.351145 12509 net.cpp:399] data -> label
I0403 14:00:56.351181 12509 data_transformer.cpp:25] Loading mean file from: /home/mohanty/data/final_dataset/lmdb/grayscale-80-20/mean.binaryproto
I0403 14:00:56.354632 12512 db_lmdb.cpp:38] Opened lmdb /home/mohanty/data/final_dataset/lmdb/grayscale-80-20/test_db
I0403 14:00:56.365413 12509 data_layer.cpp:41] output data size: 100,3,227,227
I0403 14:00:56.487609 12509 net.cpp:141] Setting up data
I0403 14:00:56.487668 12509 net.cpp:148] Top shape: 100 3 227 227 (15458700)
I0403 14:00:56.487692 12509 net.cpp:148] Top shape: 100 (100)
I0403 14:00:56.487709 12509 net.cpp:156] Memory required for data: 61835200
I0403 14:00:56.487735 12509 layer_factory.hpp:77] Creating layer label_data_1_split
I0403 14:00:56.487761 12509 net.cpp:91] Creating Layer label_data_1_split
I0403 14:00:56.487778 12509 net.cpp:425] label_data_1_split <- label
I0403 14:00:56.487812 12509 net.cpp:399] label_data_1_split -> label_data_1_split_0
I0403 14:00:56.487838 12509 net.cpp:399] label_data_1_split -> label_data_1_split_1
I0403 14:00:56.487859 12509 net.cpp:399] label_data_1_split -> label_data_1_split_2
I0403 14:00:56.487922 12509 net.cpp:141] Setting up label_data_1_split
I0403 14:00:56.487946 12509 net.cpp:148] Top shape: 100 (100)
I0403 14:00:56.487963 12509 net.cpp:148] Top shape: 100 (100)
I0403 14:00:56.487980 12509 net.cpp:148] Top shape: 100 (100)
I0403 14:00:56.487994 12509 net.cpp:156] Memory required for data: 61836400
I0403 14:00:56.488010 12509 layer_factory.hpp:77] Creating layer conv1
I0403 14:00:56.488042 12509 net.cpp:91] Creating Layer conv1
I0403 14:00:56.488060 12509 net.cpp:425] conv1 <- data
I0403 14:00:56.488080 12509 net.cpp:399] conv1 -> conv1
I0403 14:00:56.631908 12509 net.cpp:141] Setting up conv1
I0403 14:00:56.631985 12509 net.cpp:148] Top shape: 100 96 55 55 (29040000)
I0403 14:00:56.632004 12509 net.cpp:156] Memory required for data: 177996400
I0403 14:00:56.632033 12509 layer_factory.hpp:77] Creating layer relu1
I0403 14:00:56.632061 12509 net.cpp:91] Creating Layer relu1
I0403 14:00:56.632078 12509 net.cpp:425] relu1 <- conv1
I0403 14:00:56.632099 12509 net.cpp:386] relu1 -> conv1 (in-place)
I0403 14:00:56.632372 12509 net.cpp:141] Setting up relu1
I0403 14:00:56.632398 12509 net.cpp:148] Top shape: 100 96 55 55 (29040000)
I0403 14:00:56.632447 12509 net.cpp:156] Memory required for data: 294156400
I0403 14:00:56.632463 12509 layer_factory.hpp:77] Creating layer norm1
I0403 14:00:56.632493 12509 net.cpp:91] Creating Layer norm1
I0403 14:00:56.632511 12509 net.cpp:425] norm1 <- conv1
I0403 14:00:56.632529 12509 net.cpp:399] norm1 -> norm1
I0403 14:00:56.632853 12509 net.cpp:141] Setting up norm1
I0403 14:00:56.632881 12509 net.cpp:148] Top shape: 100 96 55 55 (29040000)
I0403 14:00:56.632896 12509 net.cpp:156] Memory required for data: 410316400
I0403 14:00:56.632910 12509 layer_factory.hpp:77] Creating layer pool1
I0403 14:00:56.632936 12509 net.cpp:91] Creating Layer pool1
I0403 14:00:56.632953 12509 net.cpp:425] pool1 <- norm1
I0403 14:00:56.632971 12509 net.cpp:399] pool1 -> pool1
I0403 14:00:56.633038 12509 net.cpp:141] Setting up pool1
I0403 14:00:56.633062 12509 net.cpp:148] Top shape: 100 96 27 27 (6998400)
I0403 14:00:56.633077 12509 net.cpp:156] Memory required for data: 438310000
I0403 14:00:56.633092 12509 layer_factory.hpp:77] Creating layer conv2
I0403 14:00:56.633117 12509 net.cpp:91] Creating Layer conv2
I0403 14:00:56.633134 12509 net.cpp:425] conv2 <- pool1
I0403 14:00:56.633188 12509 net.cpp:399] conv2 -> conv2
I0403 14:00:56.648417 12509 net.cpp:141] Setting up conv2
I0403 14:00:56.648452 12509 net.cpp:148] Top shape: 100 256 27 27 (18662400)
I0403 14:00:56.648504 12509 net.cpp:156] Memory required for data: 512959600
I0403 14:00:56.648531 12509 layer_factory.hpp:77] Creating layer relu2
I0403 14:00:56.648555 12509 net.cpp:91] Creating Layer relu2
I0403 14:00:56.648572 12509 net.cpp:425] relu2 <- conv2
I0403 14:00:56.648591 12509 net.cpp:386] relu2 -> conv2 (in-place)
I0403 14:00:56.648879 12509 net.cpp:141] Setting up relu2
I0403 14:00:56.648907 12509 net.cpp:148] Top shape: 100 256 27 27 (18662400)
I0403 14:00:56.648924 12509 net.cpp:156] Memory required for data: 587609200
I0403 14:00:56.648939 12509 layer_factory.hpp:77] Creating layer norm2
I0403 14:00:56.648959 12509 net.cpp:91] Creating Layer norm2
I0403 14:00:56.648975 12509 net.cpp:425] norm2 <- conv2
I0403 14:00:56.648995 12509 net.cpp:399] norm2 -> norm2
I0403 14:00:56.649197 12509 net.cpp:141] Setting up norm2
I0403 14:00:56.649224 12509 net.cpp:148] Top shape: 100 256 27 27 (18662400)
I0403 14:00:56.649238 12509 net.cpp:156] Memory required for data: 662258800
I0403 14:00:56.649255 12509 layer_factory.hpp:77] Creating layer pool2
I0403 14:00:56.649274 12509 net.cpp:91] Creating Layer pool2
I0403 14:00:56.649292 12509 net.cpp:425] pool2 <- norm2
I0403 14:00:56.649309 12509 net.cpp:399] pool2 -> pool2
I0403 14:00:56.649363 12509 net.cpp:141] Setting up pool2
I0403 14:00:56.649386 12509 net.cpp:148] Top shape: 100 256 13 13 (4326400)
I0403 14:00:56.649401 12509 net.cpp:156] Memory required for data: 679564400
I0403 14:00:56.649416 12509 layer_factory.hpp:77] Creating layer conv3
I0403 14:00:56.649440 12509 net.cpp:91] Creating Layer conv3
I0403 14:00:56.649457 12509 net.cpp:425] conv3 <- pool2
I0403 14:00:56.649477 12509 net.cpp:399] conv3 -> conv3
I0403 14:00:56.688989 12509 net.cpp:141] Setting up conv3
I0403 14:00:56.689066 12509 net.cpp:148] Top shape: 100 384 13 13 (6489600)
I0403 14:00:56.689085 12509 net.cpp:156] Memory required for data: 705522800
I0403 14:00:56.689116 12509 layer_factory.hpp:77] Creating layer relu3
I0403 14:00:56.689139 12509 net.cpp:91] Creating Layer relu3
I0403 14:00:56.689158 12509 net.cpp:425] relu3 <- conv3
I0403 14:00:56.689177 12509 net.cpp:386] relu3 -> conv3 (in-place)
I0403 14:00:56.689450 12509 net.cpp:141] Setting up relu3
I0403 14:00:56.689476 12509 net.cpp:148] Top shape: 100 384 13 13 (6489600)
I0403 14:00:56.689494 12509 net.cpp:156] Memory required for data: 731481200
I0403 14:00:56.689509 12509 layer_factory.hpp:77] Creating layer conv4
I0403 14:00:56.689532 12509 net.cpp:91] Creating Layer conv4
I0403 14:00:56.689548 12509 net.cpp:425] conv4 <- conv3
I0403 14:00:56.689579 12509 net.cpp:399] conv4 -> conv4
I0403 14:00:56.719117 12509 net.cpp:141] Setting up conv4
I0403 14:00:56.719163 12509 net.cpp:148] Top shape: 100 384 13 13 (6489600)
I0403 14:00:56.719213 12509 net.cpp:156] Memory required for data: 757439600
I0403 14:00:56.719233 12509 layer_factory.hpp:77] Creating layer relu4
I0403 14:00:56.719254 12509 net.cpp:91] Creating Layer relu4
I0403 14:00:56.719271 12509 net.cpp:425] relu4 <- conv4
I0403 14:00:56.719290 12509 net.cpp:386] relu4 -> conv4 (in-place)
I0403 14:00:56.719560 12509 net.cpp:141] Setting up relu4
I0403 14:00:56.719586 12509 net.cpp:148] Top shape: 100 384 13 13 (6489600)
I0403 14:00:56.719605 12509 net.cpp:156] Memory required for data: 783398000
I0403 14:00:56.719621 12509 layer_factory.hpp:77] Creating layer conv5
I0403 14:00:56.719646 12509 net.cpp:91] Creating Layer conv5
I0403 14:00:56.719665 12509 net.cpp:425] conv5 <- conv4
I0403 14:00:56.719684 12509 net.cpp:399] conv5 -> conv5
I0403 14:00:56.742226 12509 net.cpp:141] Setting up conv5
I0403 14:00:56.742269 12509 net.cpp:148] Top shape: 100 256 13 13 (4326400)
I0403 14:00:56.742286 12509 net.cpp:156] Memory required for data: 800703600
I0403 14:00:56.742313 12509 layer_factory.hpp:77] Creating layer relu5
I0403 14:00:56.742336 12509 net.cpp:91] Creating Layer relu5
I0403 14:00:56.742353 12509 net.cpp:425] relu5 <- conv5
I0403 14:00:56.742372 12509 net.cpp:386] relu5 -> conv5 (in-place)
I0403 14:00:56.742665 12509 net.cpp:141] Setting up relu5
I0403 14:00:56.742691 12509 net.cpp:148] Top shape: 100 256 13 13 (4326400)
I0403 14:00:56.742707 12509 net.cpp:156] Memory required for data: 818009200
I0403 14:00:56.742722 12509 layer_factory.hpp:77] Creating layer pool5
I0403 14:00:56.742748 12509 net.cpp:91] Creating Layer pool5
I0403 14:00:56.742765 12509 net.cpp:425] pool5 <- conv5
I0403 14:00:56.742785 12509 net.cpp:399] pool5 -> pool5
I0403 14:00:56.742846 12509 net.cpp:141] Setting up pool5
I0403 14:00:56.742869 12509 net.cpp:148] Top shape: 100 256 6 6 (921600)
I0403 14:00:56.742884 12509 net.cpp:156] Memory required for data: 821695600
I0403 14:00:56.742898 12509 layer_factory.hpp:77] Creating layer fc6
I0403 14:00:56.742928 12509 net.cpp:91] Creating Layer fc6
I0403 14:00:56.742945 12509 net.cpp:425] fc6 <- pool5
I0403 14:00:56.742964 12509 net.cpp:399] fc6 -> fc6
I0403 14:00:58.285732 12509 net.cpp:141] Setting up fc6
I0403 14:00:58.285795 12509 net.cpp:148] Top shape: 100 4096 (409600)
I0403 14:00:58.285812 12509 net.cpp:156] Memory required for data: 823334000
I0403 14:00:58.285833 12509 layer_factory.hpp:77] Creating layer relu6
I0403 14:00:58.285856 12509 net.cpp:91] Creating Layer relu6
I0403 14:00:58.285872 12509 net.cpp:425] relu6 <- fc6
I0403 14:00:58.285894 12509 net.cpp:386] relu6 -> fc6 (in-place)
I0403 14:00:58.286110 12509 net.cpp:141] Setting up relu6
I0403 14:00:58.286134 12509 net.cpp:148] Top shape: 100 4096 (409600)
I0403 14:00:58.286149 12509 net.cpp:156] Memory required for data: 824972400
I0403 14:00:58.286162 12509 layer_factory.hpp:77] Creating layer drop6
I0403 14:00:58.286183 12509 net.cpp:91] Creating Layer drop6
I0403 14:00:58.286200 12509 net.cpp:425] drop6 <- fc6
I0403 14:00:58.286216 12509 net.cpp:386] drop6 -> fc6 (in-place)
I0403 14:00:58.286265 12509 net.cpp:141] Setting up drop6
I0403 14:00:58.286288 12509 net.cpp:148] Top shape: 100 4096 (409600)
I0403 14:00:58.286303 12509 net.cpp:156] Memory required for data: 826610800
I0403 14:00:58.286316 12509 layer_factory.hpp:77] Creating layer fc7
I0403 14:00:58.286334 12509 net.cpp:91] Creating Layer fc7
I0403 14:00:58.286350 12509 net.cpp:425] fc7 <- fc6
I0403 14:00:58.286371 12509 net.cpp:399] fc7 -> fc7
I0403 14:00:58.972761 12509 net.cpp:141] Setting up fc7
I0403 14:00:58.972827 12509 net.cpp:148] Top shape: 100 4096 (409600)
I0403 14:00:58.972846 12509 net.cpp:156] Memory required for data: 828249200
I0403 14:00:58.972868 12509 layer_factory.hpp:77] Creating layer relu7
I0403 14:00:58.972892 12509 net.cpp:91] Creating Layer relu7
I0403 14:00:58.972910 12509 net.cpp:425] relu7 <- fc7
I0403 14:00:58.972929 12509 net.cpp:386] relu7 -> fc7 (in-place)
I0403 14:00:58.973351 12509 net.cpp:141] Setting up relu7
I0403 14:00:58.973377 12509 net.cpp:148] Top shape: 100 4096 (409600)
I0403 14:00:58.973429 12509 net.cpp:156] Memory required for data: 829887600
I0403 14:00:58.973448 12509 layer_factory.hpp:77] Creating layer drop7
I0403 14:00:58.973470 12509 net.cpp:91] Creating Layer drop7
I0403 14:00:58.973489 12509 net.cpp:425] drop7 <- fc7
I0403 14:00:58.973506 12509 net.cpp:386] drop7 -> fc7 (in-place)
I0403 14:00:58.973553 12509 net.cpp:141] Setting up drop7
I0403 14:00:58.973577 12509 net.cpp:148] Top shape: 100 4096 (409600)
I0403 14:00:58.973592 12509 net.cpp:156] Memory required for data: 831526000
I0403 14:00:58.973611 12509 layer_factory.hpp:77] Creating layer fc8_plantvillage
I0403 14:00:58.973635 12509 net.cpp:91] Creating Layer fc8_plantvillage
I0403 14:00:58.973654 12509 net.cpp:425] fc8_plantvillage <- fc7
I0403 14:00:58.973672 12509 net.cpp:399] fc8_plantvillage -> fc8_plantvillage
I0403 14:00:58.980837 12509 net.cpp:141] Setting up fc8_plantvillage
I0403 14:00:58.980870 12509 net.cpp:148] Top shape: 100 38 (3800)
I0403 14:00:58.980885 12509 net.cpp:156] Memory required for data: 831541200
I0403 14:00:58.980904 12509 layer_factory.hpp:77] Creating layer fc8_plantvillage_fc8_plantvillage_0_split
I0403 14:00:58.980926 12509 net.cpp:91] Creating Layer fc8_plantvillage_fc8_plantvillage_0_split
I0403 14:00:58.980942 12509 net.cpp:425] fc8_plantvillage_fc8_plantvillage_0_split <- fc8_plantvillage
I0403 14:00:58.980960 12509 net.cpp:399] fc8_plantvillage_fc8_plantvillage_0_split -> fc8_plantvillage_fc8_plantvillage_0_split_0
I0403 14:00:58.980981 12509 net.cpp:399] fc8_plantvillage_fc8_plantvillage_0_split -> fc8_plantvillage_fc8_plantvillage_0_split_1
I0403 14:00:58.981004 12509 net.cpp:399] fc8_plantvillage_fc8_plantvillage_0_split -> fc8_plantvillage_fc8_plantvillage_0_split_2
I0403 14:00:58.981086 12509 net.cpp:141] Setting up fc8_plantvillage_fc8_plantvillage_0_split
I0403 14:00:58.981109 12509 net.cpp:148] Top shape: 100 38 (3800)
I0403 14:00:58.981127 12509 net.cpp:148] Top shape: 100 38 (3800)
I0403 14:00:58.981142 12509 net.cpp:148] Top shape: 100 38 (3800)
I0403 14:00:58.981156 12509 net.cpp:156] Memory required for data: 831586800
I0403 14:00:58.981171 12509 layer_factory.hpp:77] Creating layer prob
I0403 14:00:58.981194 12509 net.cpp:91] Creating Layer prob
I0403 14:00:58.981210 12509 net.cpp:425] prob <- fc8_plantvillage_fc8_plantvillage_0_split_0
I0403 14:00:58.981230 12509 net.cpp:399] prob -> prob
I0403 14:00:58.981467 12509 net.cpp:141] Setting up prob
I0403 14:00:58.981493 12509 net.cpp:148] Top shape: 100 38 (3800)
I0403 14:00:58.981508 12509 net.cpp:156] Memory required for data: 831602000
I0403 14:00:58.981524 12509 layer_factory.hpp:77] Creating layer hdf5out
I0403 14:00:58.981545 12509 net.cpp:91] Creating Layer hdf5out
I0403 14:00:58.981562 12509 net.cpp:425] hdf5out <- prob
I0403 14:00:58.981580 12509 net.cpp:425] hdf5out <- label_data_1_split_0
I0403 14:00:59.007540 12509 net.cpp:141] Setting up hdf5out
…
