…
I0403 14:10:35.427510 12856 net.cpp:313] The NetState phase (1) differed from the phase (0) specified by a rule in layer data
I0403 14:10:35.427813 12856 net.cpp:49] Initializing net from parameters: 
state {
  phase: TEST
}
layer {
  name: "data"
  type: "Data"
  top: "data"
  top: "label"
  include {
    phase: TEST
  }
  transform_param {
    crop_size: 227
    mean_file: "/home/mohanty/data/final_dataset/lmdb/grayscale-80-20/mean.binaryproto"
  }
  data_param {
    source: "/home/mohanty/data/final_dataset/lmdb/grayscale-80-20/test_db"
    batch_size: 100
    backend: LMDB
  }
}
layer {
  name: "conv1"
  type: "Convolution"
  bottom: "data"
  top: "conv1"
  param {
    lr_mult: 1
    decay_mult: 1
  }
  param {
    lr_mult: 2
    decay_mult: 0
  }
  convolution_param {
    num_output: 96
    kernel_size: 11
    stride: 4
    weight_filler {
      type: "gaussian"
      std: 0.01
    }
    bias_filler {
      type: "constant"
      value: 0
    }
  }
}
layer {
  name: "relu1"
  type: "ReLU"
  bottom: "conv1"
  top: "conv1"
}
layer {
  name: "norm1"
  type: "LRN"
  bottom: "conv1"
  top: "norm1"
  lrn_param {
    local_size: 5
    alpha: 0.0001
    beta: 0.75
  }
}
layer {
  name: "pool1"
  type: "Pooling"
  bottom: "norm1"
  top: "pool1"
  pooling_param {
    pool: MAX
    kernel_size: 3
    stride: 2
  }
}
layer {
  name: "conv2"
  type: "Convolution"
  bottom: "pool1"
  top: "conv2"
  param {
    lr_mult: 1
    decay_mult: 1
  }
  param {
    lr_mult: 2
    decay_mult: 0
  }
  convolution_param {
    num_output: 256
    pad: 2
    kernel_size: 5
    group: 2
    weight_filler {
      type: "gaussian"
      std: 0.01
    }
    bias_filler {
      type: "constant"
      value: 0.1
    }
  }
}
layer {
  name: "relu2"
  type: "ReLU"
  bottom: "conv2"
  top: "conv2"
}
layer {
  name: "norm2"
  type: "LRN"
  bottom: "conv2"
  top: "norm2"
  lrn_param {
    local_size: 5
    alpha: 0.0001
    beta: 0.75
  }
}
layer {
  name: "pool2"
  type: "Pooling"
  bottom: "norm2"
  top: "pool2"
  pooling_param {
    pool: MAX
    kernel_size: 3
    stride: 2
  }
}
layer {
  name: "conv3"
  type: "Convolution"
  bottom: "pool2"
  top: "conv3"
  param {
    lr_mult: 1
    decay_mult: 1
  }
  param {
    lr_mult: 2
    decay_mult: 0
  }
  convolution_param {
    num_output: 384
    pad: 1
    kernel_size: 3
    weight_filler {
      type: "gaussian"
      std: 0.01
    }
    bias_filler {
      type: "constant"
      value: 0
    }
  }
}
layer {
  name: "relu3"
  type: "ReLU"
  bottom: "conv3"
  top: "conv3"
}
layer {
  name: "conv4"
  type: "Convolution"
  bottom: "conv3"
  top: "conv4"
  param {
    lr_mult: 1
    decay_mult: 1
  }
  param {
    lr_mult: 2
    decay_mult: 0
  }
  convolution_param {
    num_output: 384
    pad: 1
    kernel_size: 3
    group: 2
    weight_filler {
      type: "gaussian"
      std: 0.01
    }
    bias_filler {
      type: "constant"
      value: 0.1
    }
  }
}
layer {
  name: "relu4"
  type: "ReLU"
  bottom: "conv4"
  top: "conv4"
}
layer {
  name: "conv5"
  type: "Convolution"
  bottom: "conv4"
  top: "conv5"
  param {
    lr_mult: 1
    decay_mult: 1
  }
  param {
    lr_mult: 2
    decay_mult: 0
  }
  convolution_param {
    num_output: 256
    pad: 1
    kernel_size: 3
    group: 2
    weight_filler {
      type: "gaussian"
      std: 0.01
    }
    bias_filler {
      type: "constant"
      value: 0.1
    }
  }
}
layer {
  name: "relu5"
  type: "ReLU"
  bottom: "conv5"
  top: "conv5"
}
layer {
  name: "pool5"
  type: "Pooling"
  bottom: "conv5"
  top: "pool5"
  pooling_param {
    pool: MAX
    kernel_size: 3
    stride: 2
  }
}
layer {
  name: "fc6"
  type: "InnerProduct"
  bottom: "pool5"
  top: "fc6"
  param {
    lr_mult: 1
    decay_mult: 1
  }
  param {
    lr_mult: 2
    decay_mult: 0
  }
  inner_product_param {
    num_output: 4096
    weight_filler {
      type: "gaussian"
      std: 0.005
    }
    bias_filler {
      type: "constant"
      value: 0.1
    }
  }
}
layer {
  name: "relu6"
  type: "ReLU"
  bottom: "fc6"
  top: "fc6"
}
layer {
  name: "drop6"
  type: "Dropout"
  bottom: "fc6"
  top: "fc6"
  dropout_param {
    dropout_ratio: 0.5
  }
}
layer {
  name: "fc7"
  type: "InnerProduct"
  bottom: "fc6"
  top: "fc7"
  param {
    lr_mult: 1
    decay_mult: 1
  }
  param {
    lr_mult: 2
    decay_mult: 0
  }
  inner_product_param {
    num_output: 4096
    weight_filler {
      type: "gaussian"
      std: 0.005
    }
    bias_filler {
      type: "constant"
      value: 0.1
    }
  }
}
layer {
  name: "relu7"
  type: "ReLU"
  bottom: "fc7"
  top: "fc7"
}
layer {
  name: "drop7"
  type: "Dropout"
  bottom: "fc7"
  top: "fc7"
  dropout_param {
    dropout_ratio: 0.5
  }
}
layer {
  name: "fc8_plantvillage"
  type: "InnerProduct"
  bottom: "fc7"
  top: "fc8_plantvillage"
  param {
    lr_mult: 1
    decay_mult: 1
  }
  param {
    lr_mult: 2
    decay_mult: 0
  }
  inner_product_param {
    num_output: 38
    weight_filler {
      type: "gaussian"
      std: 0.01
    }
    bias_filler {
      type: "constant"
      value: 0
    }
  }
}
layer {
  name: "prob"
  type: "Softmax"
  bottom: "fc8_plantvillage"
  top: "prob"
  include {
    phase: TEST
  }
}
layer {
  name: "hdf5out"
  type: "HDF5Output"
  bottom: "prob"
  bottom: "label"
  include {
    phase: TEST
  }
  hdf5_output_param {
    file_name: "hdf5_dumps/iter_10464.h5"
  }
}
layer {
  name: "loss"
  type: "SoftmaxWithLoss"
  bottom: "fc8_plantvillage"
  bottom: "label"
  top: "loss"
}
layer {
  name: "accuracy"
  type: "Accuracy"
  bottom: "fc8_plantvillage"
  bottom: "label"
  top: "accuracy"
  include {
    phase: TEST
  }
}
I0403 14:10:35.428376 12856 layer_factory.hpp:77] Creating layer data
I0403 14:10:35.429023 12856 net.cpp:91] Creating Layer data
I0403 14:10:35.429054 12856 net.cpp:399] data -> data
I0403 14:10:35.429105 12856 net.cpp:399] data -> label
I0403 14:10:35.429141 12856 data_transformer.cpp:25] Loading mean file from: /home/mohanty/data/final_dataset/lmdb/grayscale-80-20/mean.binaryproto
I0403 14:10:35.431943 12860 db_lmdb.cpp:38] Opened lmdb /home/mohanty/data/final_dataset/lmdb/grayscale-80-20/test_db
I0403 14:10:35.443590 12856 data_layer.cpp:41] output data size: 100,3,227,227
I0403 14:10:35.562974 12856 net.cpp:141] Setting up data
I0403 14:10:35.563031 12856 net.cpp:148] Top shape: 100 3 227 227 (15458700)
I0403 14:10:35.563052 12856 net.cpp:148] Top shape: 100 (100)
I0403 14:10:35.563067 12856 net.cpp:156] Memory required for data: 61835200
I0403 14:10:35.563096 12856 layer_factory.hpp:77] Creating layer label_data_1_split
I0403 14:10:35.563119 12856 net.cpp:91] Creating Layer label_data_1_split
I0403 14:10:35.563136 12856 net.cpp:425] label_data_1_split <- label
I0403 14:10:35.563166 12856 net.cpp:399] label_data_1_split -> label_data_1_split_0
I0403 14:10:35.563192 12856 net.cpp:399] label_data_1_split -> label_data_1_split_1
I0403 14:10:35.563212 12856 net.cpp:399] label_data_1_split -> label_data_1_split_2
I0403 14:10:35.563273 12856 net.cpp:141] Setting up label_data_1_split
I0403 14:10:35.563298 12856 net.cpp:148] Top shape: 100 (100)
I0403 14:10:35.563314 12856 net.cpp:148] Top shape: 100 (100)
I0403 14:10:35.563330 12856 net.cpp:148] Top shape: 100 (100)
I0403 14:10:35.563344 12856 net.cpp:156] Memory required for data: 61836400
I0403 14:10:35.563359 12856 layer_factory.hpp:77] Creating layer conv1
I0403 14:10:35.563388 12856 net.cpp:91] Creating Layer conv1
I0403 14:10:35.563406 12856 net.cpp:425] conv1 <- data
I0403 14:10:35.563424 12856 net.cpp:399] conv1 -> conv1
I0403 14:10:35.703533 12856 net.cpp:141] Setting up conv1
I0403 14:10:35.703619 12856 net.cpp:148] Top shape: 100 96 55 55 (29040000)
I0403 14:10:35.703639 12856 net.cpp:156] Memory required for data: 177996400
I0403 14:10:35.703673 12856 layer_factory.hpp:77] Creating layer relu1
I0403 14:10:35.703702 12856 net.cpp:91] Creating Layer relu1
I0403 14:10:35.703721 12856 net.cpp:425] relu1 <- conv1
I0403 14:10:35.703739 12856 net.cpp:386] relu1 -> conv1 (in-place)
I0403 14:10:35.704021 12856 net.cpp:141] Setting up relu1
I0403 14:10:35.704054 12856 net.cpp:148] Top shape: 100 96 55 55 (29040000)
I0403 14:10:35.704110 12856 net.cpp:156] Memory required for data: 294156400
I0403 14:10:35.704128 12856 layer_factory.hpp:77] Creating layer norm1
I0403 14:10:35.704154 12856 net.cpp:91] Creating Layer norm1
I0403 14:10:35.704171 12856 net.cpp:425] norm1 <- conv1
I0403 14:10:35.704192 12856 net.cpp:399] norm1 -> norm1
I0403 14:10:35.704530 12856 net.cpp:141] Setting up norm1
I0403 14:10:35.704557 12856 net.cpp:148] Top shape: 100 96 55 55 (29040000)
I0403 14:10:35.704573 12856 net.cpp:156] Memory required for data: 410316400
I0403 14:10:35.704588 12856 layer_factory.hpp:77] Creating layer pool1
I0403 14:10:35.704625 12856 net.cpp:91] Creating Layer pool1
I0403 14:10:35.704644 12856 net.cpp:425] pool1 <- norm1
I0403 14:10:35.704664 12856 net.cpp:399] pool1 -> pool1
I0403 14:10:35.704735 12856 net.cpp:141] Setting up pool1
I0403 14:10:35.704761 12856 net.cpp:148] Top shape: 100 96 27 27 (6998400)
I0403 14:10:35.704776 12856 net.cpp:156] Memory required for data: 438310000
I0403 14:10:35.704790 12856 layer_factory.hpp:77] Creating layer conv2
I0403 14:10:35.704819 12856 net.cpp:91] Creating Layer conv2
I0403 14:10:35.704836 12856 net.cpp:425] conv2 <- pool1
I0403 14:10:35.704855 12856 net.cpp:399] conv2 -> conv2
I0403 14:10:35.719877 12856 net.cpp:141] Setting up conv2
I0403 14:10:35.719924 12856 net.cpp:148] Top shape: 100 256 27 27 (18662400)
I0403 14:10:35.719941 12856 net.cpp:156] Memory required for data: 512959600
I0403 14:10:35.719964 12856 layer_factory.hpp:77] Creating layer relu2
I0403 14:10:35.719985 12856 net.cpp:91] Creating Layer relu2
I0403 14:10:35.720001 12856 net.cpp:425] relu2 <- conv2
I0403 14:10:35.720022 12856 net.cpp:386] relu2 -> conv2 (in-place)
I0403 14:10:35.720302 12856 net.cpp:141] Setting up relu2
I0403 14:10:35.720329 12856 net.cpp:148] Top shape: 100 256 27 27 (18662400)
I0403 14:10:35.720345 12856 net.cpp:156] Memory required for data: 587609200
I0403 14:10:35.720361 12856 layer_factory.hpp:77] Creating layer norm2
I0403 14:10:35.720386 12856 net.cpp:91] Creating Layer norm2
I0403 14:10:35.720402 12856 net.cpp:425] norm2 <- conv2
I0403 14:10:35.720420 12856 net.cpp:399] norm2 -> norm2
I0403 14:10:35.720633 12856 net.cpp:141] Setting up norm2
I0403 14:10:35.720659 12856 net.cpp:148] Top shape: 100 256 27 27 (18662400)
I0403 14:10:35.720674 12856 net.cpp:156] Memory required for data: 662258800
I0403 14:10:35.720690 12856 layer_factory.hpp:77] Creating layer pool2
I0403 14:10:35.720707 12856 net.cpp:91] Creating Layer pool2
I0403 14:10:35.720723 12856 net.cpp:425] pool2 <- norm2
I0403 14:10:35.720743 12856 net.cpp:399] pool2 -> pool2
I0403 14:10:35.720798 12856 net.cpp:141] Setting up pool2
I0403 14:10:35.720824 12856 net.cpp:148] Top shape: 100 256 13 13 (4326400)
I0403 14:10:35.720839 12856 net.cpp:156] Memory required for data: 679564400
I0403 14:10:35.720854 12856 layer_factory.hpp:77] Creating layer conv3
I0403 14:10:35.720880 12856 net.cpp:91] Creating Layer conv3
I0403 14:10:35.720896 12856 net.cpp:425] conv3 <- pool2
I0403 14:10:35.720916 12856 net.cpp:399] conv3 -> conv3
I0403 14:10:35.758731 12856 net.cpp:141] Setting up conv3
I0403 14:10:35.758776 12856 net.cpp:148] Top shape: 100 384 13 13 (6489600)
I0403 14:10:35.758793 12856 net.cpp:156] Memory required for data: 705522800
I0403 14:10:35.758816 12856 layer_factory.hpp:77] Creating layer relu3
I0403 14:10:35.758838 12856 net.cpp:91] Creating Layer relu3
I0403 14:10:35.758854 12856 net.cpp:425] relu3 <- conv3
I0403 14:10:35.758875 12856 net.cpp:386] relu3 -> conv3 (in-place)
I0403 14:10:35.759148 12856 net.cpp:141] Setting up relu3
I0403 14:10:35.759174 12856 net.cpp:148] Top shape: 100 384 13 13 (6489600)
I0403 14:10:35.759189 12856 net.cpp:156] Memory required for data: 731481200
I0403 14:10:35.759203 12856 layer_factory.hpp:77] Creating layer conv4
I0403 14:10:35.759227 12856 net.cpp:91] Creating Layer conv4
I0403 14:10:35.759244 12856 net.cpp:425] conv4 <- conv3
I0403 14:10:35.759266 12856 net.cpp:399] conv4 -> conv4
I0403 14:10:35.788120 12856 net.cpp:141] Setting up conv4
I0403 14:10:35.788164 12856 net.cpp:148] Top shape: 100 384 13 13 (6489600)
I0403 14:10:35.788220 12856 net.cpp:156] Memory required for data: 757439600
I0403 14:10:35.788241 12856 layer_factory.hpp:77] Creating layer relu4
I0403 14:10:35.788261 12856 net.cpp:91] Creating Layer relu4
I0403 14:10:35.788278 12856 net.cpp:425] relu4 <- conv4
I0403 14:10:35.788301 12856 net.cpp:386] relu4 -> conv4 (in-place)
I0403 14:10:35.788583 12856 net.cpp:141] Setting up relu4
I0403 14:10:35.788616 12856 net.cpp:148] Top shape: 100 384 13 13 (6489600)
I0403 14:10:35.788635 12856 net.cpp:156] Memory required for data: 783398000
I0403 14:10:35.788650 12856 layer_factory.hpp:77] Creating layer conv5
I0403 14:10:35.788673 12856 net.cpp:91] Creating Layer conv5
I0403 14:10:35.788692 12856 net.cpp:425] conv5 <- conv4
I0403 14:10:35.788712 12856 net.cpp:399] conv5 -> conv5
I0403 14:10:35.809240 12856 net.cpp:141] Setting up conv5
I0403 14:10:35.809303 12856 net.cpp:148] Top shape: 100 256 13 13 (4326400)
I0403 14:10:35.809320 12856 net.cpp:156] Memory required for data: 800703600
I0403 14:10:35.809345 12856 layer_factory.hpp:77] Creating layer relu5
I0403 14:10:35.809367 12856 net.cpp:91] Creating Layer relu5
I0403 14:10:35.809384 12856 net.cpp:425] relu5 <- conv5
I0403 14:10:35.809406 12856 net.cpp:386] relu5 -> conv5 (in-place)
I0403 14:10:35.809697 12856 net.cpp:141] Setting up relu5
I0403 14:10:35.809725 12856 net.cpp:148] Top shape: 100 256 13 13 (4326400)
I0403 14:10:35.809741 12856 net.cpp:156] Memory required for data: 818009200
I0403 14:10:35.809756 12856 layer_factory.hpp:77] Creating layer pool5
I0403 14:10:35.809780 12856 net.cpp:91] Creating Layer pool5
I0403 14:10:35.809798 12856 net.cpp:425] pool5 <- conv5
I0403 14:10:35.809815 12856 net.cpp:399] pool5 -> pool5
I0403 14:10:35.809878 12856 net.cpp:141] Setting up pool5
I0403 14:10:35.809902 12856 net.cpp:148] Top shape: 100 256 6 6 (921600)
I0403 14:10:35.809917 12856 net.cpp:156] Memory required for data: 821695600
I0403 14:10:35.809932 12856 layer_factory.hpp:77] Creating layer fc6
I0403 14:10:35.809958 12856 net.cpp:91] Creating Layer fc6
I0403 14:10:35.809976 12856 net.cpp:425] fc6 <- pool5
I0403 14:10:35.809998 12856 net.cpp:399] fc6 -> fc6
I0403 14:10:37.371055 12856 net.cpp:141] Setting up fc6
I0403 14:10:37.371124 12856 net.cpp:148] Top shape: 100 4096 (409600)
I0403 14:10:37.371140 12856 net.cpp:156] Memory required for data: 823334000
I0403 14:10:37.371160 12856 layer_factory.hpp:77] Creating layer relu6
I0403 14:10:37.371183 12856 net.cpp:91] Creating Layer relu6
I0403 14:10:37.371201 12856 net.cpp:425] relu6 <- fc6
I0403 14:10:37.371222 12856 net.cpp:386] relu6 -> fc6 (in-place)
I0403 14:10:37.371443 12856 net.cpp:141] Setting up relu6
I0403 14:10:37.371469 12856 net.cpp:148] Top shape: 100 4096 (409600)
I0403 14:10:37.371484 12856 net.cpp:156] Memory required for data: 824972400
I0403 14:10:37.371498 12856 layer_factory.hpp:77] Creating layer drop6
I0403 14:10:37.371517 12856 net.cpp:91] Creating Layer drop6
I0403 14:10:37.371532 12856 net.cpp:425] drop6 <- fc6
I0403 14:10:37.371552 12856 net.cpp:386] drop6 -> fc6 (in-place)
I0403 14:10:37.371608 12856 net.cpp:141] Setting up drop6
I0403 14:10:37.371634 12856 net.cpp:148] Top shape: 100 4096 (409600)
I0403 14:10:37.371650 12856 net.cpp:156] Memory required for data: 826610800
I0403 14:10:37.371665 12856 layer_factory.hpp:77] Creating layer fc7
I0403 14:10:37.371685 12856 net.cpp:91] Creating Layer fc7
I0403 14:10:37.371701 12856 net.cpp:425] fc7 <- fc6
I0403 14:10:37.371721 12856 net.cpp:399] fc7 -> fc7
I0403 14:10:38.054975 12856 net.cpp:141] Setting up fc7
I0403 14:10:38.055016 12856 net.cpp:148] Top shape: 100 4096 (409600)
I0403 14:10:38.055032 12856 net.cpp:156] Memory required for data: 828249200
I0403 14:10:38.055052 12856 layer_factory.hpp:77] Creating layer relu7
I0403 14:10:38.055073 12856 net.cpp:91] Creating Layer relu7
I0403 14:10:38.055088 12856 net.cpp:425] relu7 <- fc7
I0403 14:10:38.055109 12856 net.cpp:386] relu7 -> fc7 (in-place)
I0403 14:10:38.055500 12856 net.cpp:141] Setting up relu7
I0403 14:10:38.055526 12856 net.cpp:148] Top shape: 100 4096 (409600)
I0403 14:10:38.055562 12856 net.cpp:156] Memory required for data: 829887600
I0403 14:10:38.055577 12856 layer_factory.hpp:77] Creating layer drop7
I0403 14:10:38.055595 12856 net.cpp:91] Creating Layer drop7
I0403 14:10:38.055615 12856 net.cpp:425] drop7 <- fc7
I0403 14:10:38.055634 12856 net.cpp:386] drop7 -> fc7 (in-place)
I0403 14:10:38.055677 12856 net.cpp:141] Setting up drop7
I0403 14:10:38.055701 12856 net.cpp:148] Top shape: 100 4096 (409600)
I0403 14:10:38.055717 12856 net.cpp:156] Memory required for data: 831526000
I0403 14:10:38.055732 12856 layer_factory.hpp:77] Creating layer fc8_plantvillage
I0403 14:10:38.055750 12856 net.cpp:91] Creating Layer fc8_plantvillage
I0403 14:10:38.055764 12856 net.cpp:425] fc8_plantvillage <- fc7
I0403 14:10:38.055783 12856 net.cpp:399] fc8_plantvillage -> fc8_plantvillage
I0403 14:10:38.062299 12856 net.cpp:141] Setting up fc8_plantvillage
I0403 14:10:38.062328 12856 net.cpp:148] Top shape: 100 38 (3800)
I0403 14:10:38.062342 12856 net.cpp:156] Memory required for data: 831541200
I0403 14:10:38.062360 12856 layer_factory.hpp:77] Creating layer fc8_plantvillage_fc8_plantvillage_0_split
I0403 14:10:38.062378 12856 net.cpp:91] Creating Layer fc8_plantvillage_fc8_plantvillage_0_split
I0403 14:10:38.062393 12856 net.cpp:425] fc8_plantvillage_fc8_plantvillage_0_split <- fc8_plantvillage
I0403 14:10:38.062424 12856 net.cpp:399] fc8_plantvillage_fc8_plantvillage_0_split -> fc8_plantvillage_fc8_plantvillage_0_split_0
I0403 14:10:38.062445 12856 net.cpp:399] fc8_plantvillage_fc8_plantvillage_0_split -> fc8_plantvillage_fc8_plantvillage_0_split_1
I0403 14:10:38.062464 12856 net.cpp:399] fc8_plantvillage_fc8_plantvillage_0_split -> fc8_plantvillage_fc8_plantvillage_0_split_2
I0403 14:10:38.062542 12856 net.cpp:141] Setting up fc8_plantvillage_fc8_plantvillage_0_split
I0403 14:10:38.062568 12856 net.cpp:148] Top shape: 100 38 (3800)
I0403 14:10:38.062587 12856 net.cpp:148] Top shape: 100 38 (3800)
I0403 14:10:38.062605 12856 net.cpp:148] Top shape: 100 38 (3800)
I0403 14:10:38.062620 12856 net.cpp:156] Memory required for data: 831586800
I0403 14:10:38.062635 12856 layer_factory.hpp:77] Creating layer prob
I0403 14:10:38.062654 12856 net.cpp:91] Creating Layer prob
I0403 14:10:38.062669 12856 net.cpp:425] prob <- fc8_plantvillage_fc8_plantvillage_0_split_0
I0403 14:10:38.062688 12856 net.cpp:399] prob -> prob
I0403 14:10:38.062911 12856 net.cpp:141] Setting up prob
I0403 14:10:38.062937 12856 net.cpp:148] Top shape: 100 38 (3800)
I0403 14:10:38.062952 12856 net.cpp:156] Memory required for data: 831602000
I0403 14:10:38.062966 12856 layer_factory.hpp:77] Creating layer hdf5out
I0403 14:10:38.062985 12856 net.cpp:91] Creating Layer hdf5out
I0403 14:10:38.063000 12856 net.cpp:425] hdf5out <- prob
I0403 14:10:38.063016 12856 net.cpp:425] hdf5out <- label_data_1_split_0
I0403 14:10:38.066040 12856 net.cpp:141] Setting up hdf5out
…
