…
I0403 15:02:35.513283 18133 net.cpp:313] The NetState phase (1) differed from the phase (0) specified by a rule in layer data
I0403 15:02:35.513589 18133 net.cpp:49] Initializing net from parameters: 
state {
  phase: TEST
}
layer {
  name: "data"
  type: "Data"
  top: "data"
  top: "label"
  include {
    phase: TEST
  }
  transform_param {
    crop_size: 227
    mean_file: "/home/mohanty/data/final_dataset/lmdb/color-80-20/mean.binaryproto"
  }
  data_param {
    source: "/home/mohanty/data/final_dataset/lmdb/color-80-20/test_db"
    batch_size: 100
    backend: LMDB
  }
}
layer {
  name: "conv1"
  type: "Convolution"
  bottom: "data"
  top: "conv1"
  param {
    lr_mult: 1
    decay_mult: 1
  }
  param {
    lr_mult: 2
    decay_mult: 0
  }
  convolution_param {
    num_output: 96
    kernel_size: 11
    stride: 4
    weight_filler {
      type: "gaussian"
      std: 0.01
    }
    bias_filler {
      type: "constant"
      value: 0
    }
  }
}
layer {
  name: "relu1"
  type: "ReLU"
  bottom: "conv1"
  top: "conv1"
}
layer {
  name: "norm1"
  type: "LRN"
  bottom: "conv1"
  top: "norm1"
  lrn_param {
    local_size: 5
    alpha: 0.0001
    beta: 0.75
  }
}
layer {
  name: "pool1"
  type: "Pooling"
  bottom: "norm1"
  top: "pool1"
  pooling_param {
    pool: MAX
    kernel_size: 3
    stride: 2
  }
}
layer {
  name: "conv2"
  type: "Convolution"
  bottom: "pool1"
  top: "conv2"
  param {
    lr_mult: 1
    decay_mult: 1
  }
  param {
    lr_mult: 2
    decay_mult: 0
  }
  convolution_param {
    num_output: 256
    pad: 2
    kernel_size: 5
    group: 2
    weight_filler {
      type: "gaussian"
      std: 0.01
    }
    bias_filler {
      type: "constant"
      value: 0.1
    }
  }
}
layer {
  name: "relu2"
  type: "ReLU"
  bottom: "conv2"
  top: "conv2"
}
layer {
  name: "norm2"
  type: "LRN"
  bottom: "conv2"
  top: "norm2"
  lrn_param {
    local_size: 5
    alpha: 0.0001
    beta: 0.75
  }
}
layer {
  name: "pool2"
  type: "Pooling"
  bottom: "norm2"
  top: "pool2"
  pooling_param {
    pool: MAX
    kernel_size: 3
    stride: 2
  }
}
layer {
  name: "conv3"
  type: "Convolution"
  bottom: "pool2"
  top: "conv3"
  param {
    lr_mult: 1
    decay_mult: 1
  }
  param {
    lr_mult: 2
    decay_mult: 0
  }
  convolution_param {
    num_output: 384
    pad: 1
    kernel_size: 3
    weight_filler {
      type: "gaussian"
      std: 0.01
    }
    bias_filler {
      type: "constant"
      value: 0
    }
  }
}
layer {
  name: "relu3"
  type: "ReLU"
  bottom: "conv3"
  top: "conv3"
}
layer {
  name: "conv4"
  type: "Convolution"
  bottom: "conv3"
  top: "conv4"
  param {
    lr_mult: 1
    decay_mult: 1
  }
  param {
    lr_mult: 2
    decay_mult: 0
  }
  convolution_param {
    num_output: 384
    pad: 1
    kernel_size: 3
    group: 2
    weight_filler {
      type: "gaussian"
      std: 0.01
    }
    bias_filler {
      type: "constant"
      value: 0.1
    }
  }
}
layer {
  name: "relu4"
  type: "ReLU"
  bottom: "conv4"
  top: "conv4"
}
layer {
  name: "conv5"
  type: "Convolution"
  bottom: "conv4"
  top: "conv5"
  param {
    lr_mult: 1
    decay_mult: 1
  }
  param {
    lr_mult: 2
    decay_mult: 0
  }
  convolution_param {
    num_output: 256
    pad: 1
    kernel_size: 3
    group: 2
    weight_filler {
      type: "gaussian"
      std: 0.01
    }
    bias_filler {
      type: "constant"
      value: 0.1
    }
  }
}
layer {
  name: "relu5"
  type: "ReLU"
  bottom: "conv5"
  top: "conv5"
}
layer {
  name: "pool5"
  type: "Pooling"
  bottom: "conv5"
  top: "pool5"
  pooling_param {
    pool: MAX
    kernel_size: 3
    stride: 2
  }
}
layer {
  name: "fc6"
  type: "InnerProduct"
  bottom: "pool5"
  top: "fc6"
  param {
    lr_mult: 1
    decay_mult: 1
  }
  param {
    lr_mult: 2
    decay_mult: 0
  }
  inner_product_param {
    num_output: 4096
    weight_filler {
      type: "gaussian"
      std: 0.005
    }
    bias_filler {
      type: "constant"
      value: 0.1
    }
  }
}
layer {
  name: "relu6"
  type: "ReLU"
  bottom: "fc6"
  top: "fc6"
}
layer {
  name: "drop6"
  type: "Dropout"
  bottom: "fc6"
  top: "fc6"
  dropout_param {
    dropout_ratio: 0.5
  }
}
layer {
  name: "fc7"
  type: "InnerProduct"
  bottom: "fc6"
  top: "fc7"
  param {
    lr_mult: 1
    decay_mult: 1
  }
  param {
    lr_mult: 2
    decay_mult: 0
  }
  inner_product_param {
    num_output: 4096
    weight_filler {
      type: "gaussian"
      std: 0.005
    }
    bias_filler {
      type: "constant"
      value: 0.1
    }
  }
}
layer {
  name: "relu7"
  type: "ReLU"
  bottom: "fc7"
  top: "fc7"
}
layer {
  name: "drop7"
  type: "Dropout"
  bottom: "fc7"
  top: "fc7"
  dropout_param {
    dropout_ratio: 0.5
  }
}
layer {
  name: "fc8_plantvillage"
  type: "InnerProduct"
  bottom: "fc7"
  top: "fc8_plantvillage"
  param {
    lr_mult: 1
    decay_mult: 1
  }
  param {
    lr_mult: 2
    decay_mult: 0
  }
  inner_product_param {
    num_output: 38
    weight_filler {
      type: "gaussian"
      std: 0.01
    }
    bias_filler {
      type: "constant"
      value: 0
    }
  }
}
layer {
  name: "prob"
  type: "Softmax"
  bottom: "fc8_plantvillage"
  top: "prob"
  include {
    phase: TEST
  }
}
layer {
  name: "hdf5out"
  type: "HDF5Output"
  bottom: "prob"
  bottom: "label"
  include {
    phase: TEST
  }
  hdf5_output_param {
    file_name: "hdf5_dumps/iter_2622.h5"
  }
}
layer {
  name: "loss"
  type: "SoftmaxWithLoss"
  bottom: "fc8_plantvillage"
  bottom: "label"
  top: "loss"
}
layer {
  name: "accuracy"
  type: "Accuracy"
  bottom: "fc8_plantvillage"
  bottom: "label"
  top: "accuracy"
  include {
    phase: TEST
  }
}
I0403 15:02:35.514145 18133 layer_factory.hpp:77] Creating layer data
I0403 15:02:35.514801 18133 net.cpp:91] Creating Layer data
I0403 15:02:35.514830 18133 net.cpp:399] data -> data
I0403 15:02:35.514880 18133 net.cpp:399] data -> label
I0403 15:02:35.514916 18133 data_transformer.cpp:25] Loading mean file from: /home/mohanty/data/final_dataset/lmdb/color-80-20/mean.binaryproto
I0403 15:02:35.518646 18136 db_lmdb.cpp:38] Opened lmdb /home/mohanty/data/final_dataset/lmdb/color-80-20/test_db
I0403 15:02:35.529649 18133 data_layer.cpp:41] output data size: 100,3,227,227
I0403 15:02:35.654033 18133 net.cpp:141] Setting up data
I0403 15:02:35.654095 18133 net.cpp:148] Top shape: 100 3 227 227 (15458700)
I0403 15:02:35.654120 18133 net.cpp:148] Top shape: 100 (100)
I0403 15:02:35.654137 18133 net.cpp:156] Memory required for data: 61835200
I0403 15:02:35.654165 18133 layer_factory.hpp:77] Creating layer label_data_1_split
I0403 15:02:35.654191 18133 net.cpp:91] Creating Layer label_data_1_split
I0403 15:02:35.654209 18133 net.cpp:425] label_data_1_split <- label
I0403 15:02:35.654242 18133 net.cpp:399] label_data_1_split -> label_data_1_split_0
I0403 15:02:35.654268 18133 net.cpp:399] label_data_1_split -> label_data_1_split_1
I0403 15:02:35.654289 18133 net.cpp:399] label_data_1_split -> label_data_1_split_2
I0403 15:02:35.654351 18133 net.cpp:141] Setting up label_data_1_split
I0403 15:02:35.654374 18133 net.cpp:148] Top shape: 100 (100)
I0403 15:02:35.654391 18133 net.cpp:148] Top shape: 100 (100)
I0403 15:02:35.654407 18133 net.cpp:148] Top shape: 100 (100)
I0403 15:02:35.654420 18133 net.cpp:156] Memory required for data: 61836400
I0403 15:02:35.654435 18133 layer_factory.hpp:77] Creating layer conv1
I0403 15:02:35.654466 18133 net.cpp:91] Creating Layer conv1
I0403 15:02:35.654484 18133 net.cpp:425] conv1 <- data
I0403 15:02:35.654505 18133 net.cpp:399] conv1 -> conv1
I0403 15:02:35.799480 18133 net.cpp:141] Setting up conv1
I0403 15:02:35.799572 18133 net.cpp:148] Top shape: 100 96 55 55 (29040000)
I0403 15:02:35.799590 18133 net.cpp:156] Memory required for data: 177996400
I0403 15:02:35.799623 18133 layer_factory.hpp:77] Creating layer relu1
I0403 15:02:35.799652 18133 net.cpp:91] Creating Layer relu1
I0403 15:02:35.799671 18133 net.cpp:425] relu1 <- conv1
I0403 15:02:35.799690 18133 net.cpp:386] relu1 -> conv1 (in-place)
I0403 15:02:35.799959 18133 net.cpp:141] Setting up relu1
I0403 15:02:35.799991 18133 net.cpp:148] Top shape: 100 96 55 55 (29040000)
I0403 15:02:35.800009 18133 net.cpp:156] Memory required for data: 294156400
I0403 15:02:35.800062 18133 layer_factory.hpp:77] Creating layer norm1
I0403 15:02:35.800096 18133 net.cpp:91] Creating Layer norm1
I0403 15:02:35.800114 18133 net.cpp:425] norm1 <- conv1
I0403 15:02:35.800135 18133 net.cpp:399] norm1 -> norm1
I0403 15:02:35.800529 18133 net.cpp:141] Setting up norm1
I0403 15:02:35.800557 18133 net.cpp:148] Top shape: 100 96 55 55 (29040000)
I0403 15:02:35.800575 18133 net.cpp:156] Memory required for data: 410316400
I0403 15:02:35.800590 18133 layer_factory.hpp:77] Creating layer pool1
I0403 15:02:35.800614 18133 net.cpp:91] Creating Layer pool1
I0403 15:02:35.800632 18133 net.cpp:425] pool1 <- norm1
I0403 15:02:35.800655 18133 net.cpp:399] pool1 -> pool1
I0403 15:02:35.800730 18133 net.cpp:141] Setting up pool1
I0403 15:02:35.800755 18133 net.cpp:148] Top shape: 100 96 27 27 (6998400)
I0403 15:02:35.800770 18133 net.cpp:156] Memory required for data: 438310000
I0403 15:02:35.800786 18133 layer_factory.hpp:77] Creating layer conv2
I0403 15:02:35.800814 18133 net.cpp:91] Creating Layer conv2
I0403 15:02:35.800832 18133 net.cpp:425] conv2 <- pool1
I0403 15:02:35.800853 18133 net.cpp:399] conv2 -> conv2
I0403 15:02:35.816645 18133 net.cpp:141] Setting up conv2
I0403 15:02:35.816696 18133 net.cpp:148] Top shape: 100 256 27 27 (18662400)
I0403 15:02:35.816715 18133 net.cpp:156] Memory required for data: 512959600
I0403 15:02:35.816740 18133 layer_factory.hpp:77] Creating layer relu2
I0403 15:02:35.816761 18133 net.cpp:91] Creating Layer relu2
I0403 15:02:35.816779 18133 net.cpp:425] relu2 <- conv2
I0403 15:02:35.816800 18133 net.cpp:386] relu2 -> conv2 (in-place)
I0403 15:02:35.817100 18133 net.cpp:141] Setting up relu2
I0403 15:02:35.817127 18133 net.cpp:148] Top shape: 100 256 27 27 (18662400)
I0403 15:02:35.817143 18133 net.cpp:156] Memory required for data: 587609200
I0403 15:02:35.817159 18133 layer_factory.hpp:77] Creating layer norm2
I0403 15:02:35.817183 18133 net.cpp:91] Creating Layer norm2
I0403 15:02:35.817201 18133 net.cpp:425] norm2 <- conv2
I0403 15:02:35.817220 18133 net.cpp:399] norm2 -> norm2
I0403 15:02:35.817425 18133 net.cpp:141] Setting up norm2
I0403 15:02:35.817456 18133 net.cpp:148] Top shape: 100 256 27 27 (18662400)
I0403 15:02:35.817472 18133 net.cpp:156] Memory required for data: 662258800
I0403 15:02:35.817488 18133 layer_factory.hpp:77] Creating layer pool2
I0403 15:02:35.817507 18133 net.cpp:91] Creating Layer pool2
I0403 15:02:35.817523 18133 net.cpp:425] pool2 <- norm2
I0403 15:02:35.817543 18133 net.cpp:399] pool2 -> pool2
I0403 15:02:35.817600 18133 net.cpp:141] Setting up pool2
I0403 15:02:35.817626 18133 net.cpp:148] Top shape: 100 256 13 13 (4326400)
I0403 15:02:35.817643 18133 net.cpp:156] Memory required for data: 679564400
I0403 15:02:35.817658 18133 layer_factory.hpp:77] Creating layer conv3
I0403 15:02:35.817683 18133 net.cpp:91] Creating Layer conv3
I0403 15:02:35.817701 18133 net.cpp:425] conv3 <- pool2
I0403 15:02:35.817721 18133 net.cpp:399] conv3 -> conv3
I0403 15:02:35.862314 18133 net.cpp:141] Setting up conv3
I0403 15:02:35.862385 18133 net.cpp:148] Top shape: 100 384 13 13 (6489600)
I0403 15:02:35.862402 18133 net.cpp:156] Memory required for data: 705522800
I0403 15:02:35.862428 18133 layer_factory.hpp:77] Creating layer relu3
I0403 15:02:35.862450 18133 net.cpp:91] Creating Layer relu3
I0403 15:02:35.862468 18133 net.cpp:425] relu3 <- conv3
I0403 15:02:35.862490 18133 net.cpp:386] relu3 -> conv3 (in-place)
I0403 15:02:35.862777 18133 net.cpp:141] Setting up relu3
I0403 15:02:35.862807 18133 net.cpp:148] Top shape: 100 384 13 13 (6489600)
I0403 15:02:35.862823 18133 net.cpp:156] Memory required for data: 731481200
I0403 15:02:35.862838 18133 layer_factory.hpp:77] Creating layer conv4
I0403 15:02:35.862864 18133 net.cpp:91] Creating Layer conv4
I0403 15:02:35.862882 18133 net.cpp:425] conv4 <- conv3
I0403 15:02:35.862907 18133 net.cpp:399] conv4 -> conv4
I0403 15:02:35.893818 18133 net.cpp:141] Setting up conv4
I0403 15:02:35.893896 18133 net.cpp:148] Top shape: 100 384 13 13 (6489600)
I0403 15:02:35.893944 18133 net.cpp:156] Memory required for data: 757439600
I0403 15:02:35.893967 18133 layer_factory.hpp:77] Creating layer relu4
I0403 15:02:35.893990 18133 net.cpp:91] Creating Layer relu4
I0403 15:02:35.894019 18133 net.cpp:425] relu4 <- conv4
I0403 15:02:35.894038 18133 net.cpp:386] relu4 -> conv4 (in-place)
I0403 15:02:35.894347 18133 net.cpp:141] Setting up relu4
I0403 15:02:35.894377 18133 net.cpp:148] Top shape: 100 384 13 13 (6489600)
I0403 15:02:35.894393 18133 net.cpp:156] Memory required for data: 783398000
I0403 15:02:35.894409 18133 layer_factory.hpp:77] Creating layer conv5
I0403 15:02:35.894434 18133 net.cpp:91] Creating Layer conv5
I0403 15:02:35.894453 18133 net.cpp:425] conv5 <- conv4
I0403 15:02:35.894472 18133 net.cpp:399] conv5 -> conv5
I0403 15:02:35.915294 18133 net.cpp:141] Setting up conv5
I0403 15:02:35.915346 18133 net.cpp:148] Top shape: 100 256 13 13 (4326400)
I0403 15:02:35.915364 18133 net.cpp:156] Memory required for data: 800703600
I0403 15:02:35.915388 18133 layer_factory.hpp:77] Creating layer relu5
I0403 15:02:35.915408 18133 net.cpp:91] Creating Layer relu5
I0403 15:02:35.915426 18133 net.cpp:425] relu5 <- conv5
I0403 15:02:35.915446 18133 net.cpp:386] relu5 -> conv5 (in-place)
I0403 15:02:35.915729 18133 net.cpp:141] Setting up relu5
I0403 15:02:35.915755 18133 net.cpp:148] Top shape: 100 256 13 13 (4326400)
I0403 15:02:35.915771 18133 net.cpp:156] Memory required for data: 818009200
I0403 15:02:35.915786 18133 layer_factory.hpp:77] Creating layer pool5
I0403 15:02:35.915809 18133 net.cpp:91] Creating Layer pool5
I0403 15:02:35.915827 18133 net.cpp:425] pool5 <- conv5
I0403 15:02:35.915844 18133 net.cpp:399] pool5 -> pool5
I0403 15:02:35.915904 18133 net.cpp:141] Setting up pool5
I0403 15:02:35.915927 18133 net.cpp:148] Top shape: 100 256 6 6 (921600)
I0403 15:02:35.915941 18133 net.cpp:156] Memory required for data: 821695600
I0403 15:02:35.915956 18133 layer_factory.hpp:77] Creating layer fc6
I0403 15:02:35.915982 18133 net.cpp:91] Creating Layer fc6
I0403 15:02:35.915998 18133 net.cpp:425] fc6 <- pool5
I0403 15:02:35.916019 18133 net.cpp:399] fc6 -> fc6
I0403 15:02:37.466749 18133 net.cpp:141] Setting up fc6
I0403 15:02:37.466819 18133 net.cpp:148] Top shape: 100 4096 (409600)
I0403 15:02:37.466835 18133 net.cpp:156] Memory required for data: 823334000
I0403 15:02:37.466855 18133 layer_factory.hpp:77] Creating layer relu6
I0403 15:02:37.466876 18133 net.cpp:91] Creating Layer relu6
I0403 15:02:37.466892 18133 net.cpp:425] relu6 <- fc6
I0403 15:02:37.466912 18133 net.cpp:386] relu6 -> fc6 (in-place)
I0403 15:02:37.467128 18133 net.cpp:141] Setting up relu6
I0403 15:02:37.467154 18133 net.cpp:148] Top shape: 100 4096 (409600)
I0403 15:02:37.467169 18133 net.cpp:156] Memory required for data: 824972400
I0403 15:02:37.467183 18133 layer_factory.hpp:77] Creating layer drop6
I0403 15:02:37.467201 18133 net.cpp:91] Creating Layer drop6
I0403 15:02:37.467216 18133 net.cpp:425] drop6 <- fc6
I0403 15:02:37.467236 18133 net.cpp:386] drop6 -> fc6 (in-place)
I0403 15:02:37.467284 18133 net.cpp:141] Setting up drop6
I0403 15:02:37.467306 18133 net.cpp:148] Top shape: 100 4096 (409600)
I0403 15:02:37.467321 18133 net.cpp:156] Memory required for data: 826610800
I0403 15:02:37.467335 18133 layer_factory.hpp:77] Creating layer fc7
I0403 15:02:37.467357 18133 net.cpp:91] Creating Layer fc7
I0403 15:02:37.467375 18133 net.cpp:425] fc7 <- fc6
I0403 15:02:37.467394 18133 net.cpp:399] fc7 -> fc7
I0403 15:02:38.145505 18133 net.cpp:141] Setting up fc7
I0403 15:02:38.145546 18133 net.cpp:148] Top shape: 100 4096 (409600)
I0403 15:02:38.145561 18133 net.cpp:156] Memory required for data: 828249200
I0403 15:02:38.145581 18133 layer_factory.hpp:77] Creating layer relu7
I0403 15:02:38.145602 18133 net.cpp:91] Creating Layer relu7
I0403 15:02:38.145619 18133 net.cpp:425] relu7 <- fc7
I0403 15:02:38.145639 18133 net.cpp:386] relu7 -> fc7 (in-place)
I0403 15:02:38.146040 18133 net.cpp:141] Setting up relu7
I0403 15:02:38.146070 18133 net.cpp:148] Top shape: 100 4096 (409600)
I0403 15:02:38.146102 18133 net.cpp:156] Memory required for data: 829887600
I0403 15:02:38.146118 18133 layer_factory.hpp:77] Creating layer drop7
I0403 15:02:38.146136 18133 net.cpp:91] Creating Layer drop7
I0403 15:02:38.146152 18133 net.cpp:425] drop7 <- fc7
I0403 15:02:38.146170 18133 net.cpp:386] drop7 -> fc7 (in-place)
I0403 15:02:38.146211 18133 net.cpp:141] Setting up drop7
I0403 15:02:38.146236 18133 net.cpp:148] Top shape: 100 4096 (409600)
I0403 15:02:38.146250 18133 net.cpp:156] Memory required for data: 831526000
I0403 15:02:38.146265 18133 layer_factory.hpp:77] Creating layer fc8_plantvillage
I0403 15:02:38.146283 18133 net.cpp:91] Creating Layer fc8_plantvillage
I0403 15:02:38.146298 18133 net.cpp:425] fc8_plantvillage <- fc7
I0403 15:02:38.146318 18133 net.cpp:399] fc8_plantvillage -> fc8_plantvillage
I0403 15:02:38.153009 18133 net.cpp:141] Setting up fc8_plantvillage
I0403 15:02:38.153040 18133 net.cpp:148] Top shape: 100 38 (3800)
I0403 15:02:38.153060 18133 net.cpp:156] Memory required for data: 831541200
I0403 15:02:38.153079 18133 layer_factory.hpp:77] Creating layer fc8_plantvillage_fc8_plantvillage_0_split
I0403 15:02:38.153096 18133 net.cpp:91] Creating Layer fc8_plantvillage_fc8_plantvillage_0_split
I0403 15:02:38.153111 18133 net.cpp:425] fc8_plantvillage_fc8_plantvillage_0_split <- fc8_plantvillage
I0403 15:02:38.153131 18133 net.cpp:399] fc8_plantvillage_fc8_plantvillage_0_split -> fc8_plantvillage_fc8_plantvillage_0_split_0
I0403 15:02:38.153151 18133 net.cpp:399] fc8_plantvillage_fc8_plantvillage_0_split -> fc8_plantvillage_fc8_plantvillage_0_split_1
I0403 15:02:38.153172 18133 net.cpp:399] fc8_plantvillage_fc8_plantvillage_0_split -> fc8_plantvillage_fc8_plantvillage_0_split_2
I0403 15:02:38.153247 18133 net.cpp:141] Setting up fc8_plantvillage_fc8_plantvillage_0_split
I0403 15:02:38.153272 18133 net.cpp:148] Top shape: 100 38 (3800)
I0403 15:02:38.153290 18133 net.cpp:148] Top shape: 100 38 (3800)
I0403 15:02:38.153304 18133 net.cpp:148] Top shape: 100 38 (3800)
I0403 15:02:38.153318 18133 net.cpp:156] Memory required for data: 831586800
I0403 15:02:38.153332 18133 layer_factory.hpp:77] Creating layer prob
I0403 15:02:38.153350 18133 net.cpp:91] Creating Layer prob
I0403 15:02:38.153365 18133 net.cpp:425] prob <- fc8_plantvillage_fc8_plantvillage_0_split_0
I0403 15:02:38.153383 18133 net.cpp:399] prob -> prob
I0403 15:02:38.153609 18133 net.cpp:141] Setting up prob
I0403 15:02:38.153635 18133 net.cpp:148] Top shape: 100 38 (3800)
I0403 15:02:38.153650 18133 net.cpp:156] Memory required for data: 831602000
I0403 15:02:38.153663 18133 layer_factory.hpp:77] Creating layer hdf5out
I0403 15:02:38.153682 18133 net.cpp:91] Creating Layer hdf5out
I0403 15:02:38.153698 18133 net.cpp:425] hdf5out <- prob
I0403 15:02:38.153713 18133 net.cpp:425] hdf5out <- label_data_1_split_0
I0403 15:02:38.155832 18133 net.cpp:141] Setting up hdf5out
…
