…
I0403 15:00:28.405841 18061 net.cpp:313] The NetState phase (1) differed from the phase (0) specified by a rule in layer data
I0403 15:00:28.406174 18061 net.cpp:49] Initializing net from parameters: 
state {
  phase: TEST
}
layer {
  name: "data"
  type: "Data"
  top: "data"
  top: "label"
  include {
    phase: TEST
  }
  transform_param {
    crop_size: 227
    mean_file: "/home/mohanty/data/final_dataset/lmdb/color-80-20/mean.binaryproto"
  }
  data_param {
    source: "/home/mohanty/data/final_dataset/lmdb/color-80-20/test_db"
    batch_size: 100
    backend: LMDB
  }
}
layer {
  name: "conv1"
  type: "Convolution"
  bottom: "data"
  top: "conv1"
  param {
    lr_mult: 1
    decay_mult: 1
  }
  param {
    lr_mult: 2
    decay_mult: 0
  }
  convolution_param {
    num_output: 96
    kernel_size: 11
    stride: 4
    weight_filler {
      type: "gaussian"
      std: 0.01
    }
    bias_filler {
      type: "constant"
      value: 0
    }
  }
}
layer {
  name: "relu1"
  type: "ReLU"
  bottom: "conv1"
  top: "conv1"
}
layer {
  name: "norm1"
  type: "LRN"
  bottom: "conv1"
  top: "norm1"
  lrn_param {
    local_size: 5
    alpha: 0.0001
    beta: 0.75
  }
}
layer {
  name: "pool1"
  type: "Pooling"
  bottom: "norm1"
  top: "pool1"
  pooling_param {
    pool: MAX
    kernel_size: 3
    stride: 2
  }
}
layer {
  name: "conv2"
  type: "Convolution"
  bottom: "pool1"
  top: "conv2"
  param {
    lr_mult: 1
    decay_mult: 1
  }
  param {
    lr_mult: 2
    decay_mult: 0
  }
  convolution_param {
    num_output: 256
    pad: 2
    kernel_size: 5
    group: 2
    weight_filler {
      type: "gaussian"
      std: 0.01
    }
    bias_filler {
      type: "constant"
      value: 0.1
    }
  }
}
layer {
  name: "relu2"
  type: "ReLU"
  bottom: "conv2"
  top: "conv2"
}
layer {
  name: "norm2"
  type: "LRN"
  bottom: "conv2"
  top: "norm2"
  lrn_param {
    local_size: 5
    alpha: 0.0001
    beta: 0.75
  }
}
layer {
  name: "pool2"
  type: "Pooling"
  bottom: "norm2"
  top: "pool2"
  pooling_param {
    pool: MAX
    kernel_size: 3
    stride: 2
  }
}
layer {
  name: "conv3"
  type: "Convolution"
  bottom: "pool2"
  top: "conv3"
  param {
    lr_mult: 1
    decay_mult: 1
  }
  param {
    lr_mult: 2
    decay_mult: 0
  }
  convolution_param {
    num_output: 384
    pad: 1
    kernel_size: 3
    weight_filler {
      type: "gaussian"
      std: 0.01
    }
    bias_filler {
      type: "constant"
      value: 0
    }
  }
}
layer {
  name: "relu3"
  type: "ReLU"
  bottom: "conv3"
  top: "conv3"
}
layer {
  name: "conv4"
  type: "Convolution"
  bottom: "conv3"
  top: "conv4"
  param {
    lr_mult: 1
    decay_mult: 1
  }
  param {
    lr_mult: 2
    decay_mult: 0
  }
  convolution_param {
    num_output: 384
    pad: 1
    kernel_size: 3
    group: 2
    weight_filler {
      type: "gaussian"
      std: 0.01
    }
    bias_filler {
      type: "constant"
      value: 0.1
    }
  }
}
layer {
  name: "relu4"
  type: "ReLU"
  bottom: "conv4"
  top: "conv4"
}
layer {
  name: "conv5"
  type: "Convolution"
  bottom: "conv4"
  top: "conv5"
  param {
    lr_mult: 1
    decay_mult: 1
  }
  param {
    lr_mult: 2
    decay_mult: 0
  }
  convolution_param {
    num_output: 256
    pad: 1
    kernel_size: 3
    group: 2
    weight_filler {
      type: "gaussian"
      std: 0.01
    }
    bias_filler {
      type: "constant"
      value: 0.1
    }
  }
}
layer {
  name: "relu5"
  type: "ReLU"
  bottom: "conv5"
  top: "conv5"
}
layer {
  name: "pool5"
  type: "Pooling"
  bottom: "conv5"
  top: "pool5"
  pooling_param {
    pool: MAX
    kernel_size: 3
    stride: 2
  }
}
layer {
  name: "fc6"
  type: "InnerProduct"
  bottom: "pool5"
  top: "fc6"
  param {
    lr_mult: 1
    decay_mult: 1
  }
  param {
    lr_mult: 2
    decay_mult: 0
  }
  inner_product_param {
    num_output: 4096
    weight_filler {
      type: "gaussian"
      std: 0.005
    }
    bias_filler {
      type: "constant"
      value: 0.1
    }
  }
}
layer {
  name: "relu6"
  type: "ReLU"
  bottom: "fc6"
  top: "fc6"
}
layer {
  name: "drop6"
  type: "Dropout"
  bottom: "fc6"
  top: "fc6"
  dropout_param {
    dropout_ratio: 0.5
  }
}
layer {
  name: "fc7"
  type: "InnerProduct"
  bottom: "fc6"
  top: "fc7"
  param {
    lr_mult: 1
    decay_mult: 1
  }
  param {
    lr_mult: 2
    decay_mult: 0
  }
  inner_product_param {
    num_output: 4096
    weight_filler {
      type: "gaussian"
      std: 0.005
    }
    bias_filler {
      type: "constant"
      value: 0.1
    }
  }
}
layer {
  name: "relu7"
  type: "ReLU"
  bottom: "fc7"
  top: "fc7"
}
layer {
  name: "drop7"
  type: "Dropout"
  bottom: "fc7"
  top: "fc7"
  dropout_param {
    dropout_ratio: 0.5
  }
}
layer {
  name: "fc8_plantvillage"
  type: "InnerProduct"
  bottom: "fc7"
  top: "fc8_plantvillage"
  param {
    lr_mult: 1
    decay_mult: 1
  }
  param {
    lr_mult: 2
    decay_mult: 0
  }
  inner_product_param {
    num_output: 38
    weight_filler {
      type: "gaussian"
      std: 0.01
    }
    bias_filler {
      type: "constant"
      value: 0
    }
  }
}
layer {
  name: "prob"
  type: "Softmax"
  bottom: "fc8_plantvillage"
  top: "prob"
  include {
    phase: TEST
  }
}
layer {
  name: "hdf5out"
  type: "HDF5Output"
  bottom: "prob"
  bottom: "label"
  include {
    phase: TEST
  }
  hdf5_output_param {
    file_name: "hdf5_dumps/iter_437.h5"
  }
}
layer {
  name: "loss"
  type: "SoftmaxWithLoss"
  bottom: "fc8_plantvillage"
  bottom: "label"
  top: "loss"
}
layer {
  name: "accuracy"
  type: "Accuracy"
  bottom: "fc8_plantvillage"
  bottom: "label"
  top: "accuracy"
  include {
    phase: TEST
  }
}
I0403 15:00:28.406747 18061 layer_factory.hpp:77] Creating layer data
I0403 15:00:28.407421 18061 net.cpp:91] Creating Layer data
I0403 15:00:28.407454 18061 net.cpp:399] data -> data
I0403 15:00:28.407505 18061 net.cpp:399] data -> label
I0403 15:00:28.407543 18061 data_transformer.cpp:25] Loading mean file from: /home/mohanty/data/final_dataset/lmdb/color-80-20/mean.binaryproto
I0403 15:00:28.467110 18064 db_lmdb.cpp:38] Opened lmdb /home/mohanty/data/final_dataset/lmdb/color-80-20/test_db
I0403 15:00:28.489332 18061 data_layer.cpp:41] output data size: 100,3,227,227
I0403 15:00:28.678623 18061 net.cpp:141] Setting up data
I0403 15:00:28.678714 18061 net.cpp:148] Top shape: 100 3 227 227 (15458700)
I0403 15:00:28.678740 18061 net.cpp:148] Top shape: 100 (100)
I0403 15:00:28.678755 18061 net.cpp:156] Memory required for data: 61835200
I0403 15:00:28.678784 18061 layer_factory.hpp:77] Creating layer label_data_1_split
I0403 15:00:28.678810 18061 net.cpp:91] Creating Layer label_data_1_split
I0403 15:00:28.678828 18061 net.cpp:425] label_data_1_split <- label
I0403 15:00:28.678860 18061 net.cpp:399] label_data_1_split -> label_data_1_split_0
I0403 15:00:28.678889 18061 net.cpp:399] label_data_1_split -> label_data_1_split_1
I0403 15:00:28.678910 18061 net.cpp:399] label_data_1_split -> label_data_1_split_2
I0403 15:00:28.678977 18061 net.cpp:141] Setting up label_data_1_split
I0403 15:00:28.679000 18061 net.cpp:148] Top shape: 100 (100)
I0403 15:00:28.679018 18061 net.cpp:148] Top shape: 100 (100)
I0403 15:00:28.679034 18061 net.cpp:148] Top shape: 100 (100)
I0403 15:00:28.679054 18061 net.cpp:156] Memory required for data: 61836400
I0403 15:00:28.679070 18061 layer_factory.hpp:77] Creating layer conv1
I0403 15:00:28.679101 18061 net.cpp:91] Creating Layer conv1
I0403 15:00:28.679119 18061 net.cpp:425] conv1 <- data
I0403 15:00:28.697715 18061 net.cpp:399] conv1 -> conv1
I0403 15:00:28.857823 18061 net.cpp:141] Setting up conv1
I0403 15:00:28.857893 18061 net.cpp:148] Top shape: 100 96 55 55 (29040000)
I0403 15:00:28.857913 18061 net.cpp:156] Memory required for data: 177996400
I0403 15:00:28.857944 18061 layer_factory.hpp:77] Creating layer relu1
I0403 15:00:28.857971 18061 net.cpp:91] Creating Layer relu1
I0403 15:00:28.857991 18061 net.cpp:425] relu1 <- conv1
I0403 15:00:28.858011 18061 net.cpp:386] relu1 -> conv1 (in-place)
I0403 15:00:28.858304 18061 net.cpp:141] Setting up relu1
I0403 15:00:28.858332 18061 net.cpp:148] Top shape: 100 96 55 55 (29040000)
I0403 15:00:28.858350 18061 net.cpp:156] Memory required for data: 294156400
I0403 15:00:28.858399 18061 layer_factory.hpp:77] Creating layer norm1
I0403 15:00:28.858430 18061 net.cpp:91] Creating Layer norm1
I0403 15:00:28.858449 18061 net.cpp:425] norm1 <- conv1
I0403 15:00:28.858467 18061 net.cpp:399] norm1 -> norm1
I0403 15:00:28.858803 18061 net.cpp:141] Setting up norm1
I0403 15:00:28.858831 18061 net.cpp:148] Top shape: 100 96 55 55 (29040000)
I0403 15:00:28.858849 18061 net.cpp:156] Memory required for data: 410316400
I0403 15:00:28.858865 18061 layer_factory.hpp:77] Creating layer pool1
I0403 15:00:28.858891 18061 net.cpp:91] Creating Layer pool1
I0403 15:00:28.858911 18061 net.cpp:425] pool1 <- norm1
I0403 15:00:28.858928 18061 net.cpp:399] pool1 -> pool1
I0403 15:00:28.859001 18061 net.cpp:141] Setting up pool1
I0403 15:00:28.859026 18061 net.cpp:148] Top shape: 100 96 27 27 (6998400)
I0403 15:00:28.859041 18061 net.cpp:156] Memory required for data: 438310000
I0403 15:00:28.859062 18061 layer_factory.hpp:77] Creating layer conv2
I0403 15:00:28.859091 18061 net.cpp:91] Creating Layer conv2
I0403 15:00:28.859109 18061 net.cpp:425] conv2 <- pool1
I0403 15:00:28.859132 18061 net.cpp:399] conv2 -> conv2
I0403 15:00:28.875769 18061 net.cpp:141] Setting up conv2
I0403 15:00:28.875808 18061 net.cpp:148] Top shape: 100 256 27 27 (18662400)
I0403 15:00:28.875825 18061 net.cpp:156] Memory required for data: 512959600
I0403 15:00:28.875849 18061 layer_factory.hpp:77] Creating layer relu2
I0403 15:00:28.875874 18061 net.cpp:91] Creating Layer relu2
I0403 15:00:28.875892 18061 net.cpp:425] relu2 <- conv2
I0403 15:00:28.875911 18061 net.cpp:386] relu2 -> conv2 (in-place)
I0403 15:00:28.876263 18061 net.cpp:141] Setting up relu2
I0403 15:00:28.876343 18061 net.cpp:148] Top shape: 100 256 27 27 (18662400)
I0403 15:00:28.876360 18061 net.cpp:156] Memory required for data: 587609200
I0403 15:00:28.876376 18061 layer_factory.hpp:77] Creating layer norm2
I0403 15:00:28.876401 18061 net.cpp:91] Creating Layer norm2
I0403 15:00:28.876420 18061 net.cpp:425] norm2 <- conv2
I0403 15:00:28.876441 18061 net.cpp:399] norm2 -> norm2
I0403 15:00:28.876652 18061 net.cpp:141] Setting up norm2
I0403 15:00:28.876679 18061 net.cpp:148] Top shape: 100 256 27 27 (18662400)
I0403 15:00:28.876694 18061 net.cpp:156] Memory required for data: 662258800
I0403 15:00:28.876709 18061 layer_factory.hpp:77] Creating layer pool2
I0403 15:00:28.876731 18061 net.cpp:91] Creating Layer pool2
I0403 15:00:28.876747 18061 net.cpp:425] pool2 <- norm2
I0403 15:00:28.876765 18061 net.cpp:399] pool2 -> pool2
I0403 15:00:28.876822 18061 net.cpp:141] Setting up pool2
I0403 15:00:28.876847 18061 net.cpp:148] Top shape: 100 256 13 13 (4326400)
I0403 15:00:28.876862 18061 net.cpp:156] Memory required for data: 679564400
I0403 15:00:28.876876 18061 layer_factory.hpp:77] Creating layer conv3
I0403 15:00:28.876902 18061 net.cpp:91] Creating Layer conv3
I0403 15:00:28.876919 18061 net.cpp:425] conv3 <- pool2
I0403 15:00:28.876940 18061 net.cpp:399] conv3 -> conv3
I0403 15:00:28.918560 18061 net.cpp:141] Setting up conv3
I0403 15:00:28.918622 18061 net.cpp:148] Top shape: 100 384 13 13 (6489600)
I0403 15:00:28.918638 18061 net.cpp:156] Memory required for data: 705522800
I0403 15:00:28.918669 18061 layer_factory.hpp:77] Creating layer relu3
I0403 15:00:28.918694 18061 net.cpp:91] Creating Layer relu3
I0403 15:00:28.918711 18061 net.cpp:425] relu3 <- conv3
I0403 15:00:28.918731 18061 net.cpp:386] relu3 -> conv3 (in-place)
I0403 15:00:28.919229 18061 net.cpp:141] Setting up relu3
I0403 15:00:28.919255 18061 net.cpp:148] Top shape: 100 384 13 13 (6489600)
I0403 15:00:28.919271 18061 net.cpp:156] Memory required for data: 731481200
I0403 15:00:28.919286 18061 layer_factory.hpp:77] Creating layer conv4
I0403 15:00:28.919312 18061 net.cpp:91] Creating Layer conv4
I0403 15:00:28.919330 18061 net.cpp:425] conv4 <- conv3
I0403 15:00:28.919353 18061 net.cpp:399] conv4 -> conv4
I0403 15:00:28.950850 18061 net.cpp:141] Setting up conv4
I0403 15:00:28.950906 18061 net.cpp:148] Top shape: 100 384 13 13 (6489600)
I0403 15:00:28.950953 18061 net.cpp:156] Memory required for data: 757439600
I0403 15:00:28.950975 18061 layer_factory.hpp:77] Creating layer relu4
I0403 15:00:28.950999 18061 net.cpp:91] Creating Layer relu4
I0403 15:00:28.951017 18061 net.cpp:425] relu4 <- conv4
I0403 15:00:28.951037 18061 net.cpp:386] relu4 -> conv4 (in-place)
I0403 15:00:28.951333 18061 net.cpp:141] Setting up relu4
I0403 15:00:28.951361 18061 net.cpp:148] Top shape: 100 384 13 13 (6489600)
I0403 15:00:28.951377 18061 net.cpp:156] Memory required for data: 783398000
I0403 15:00:28.951393 18061 layer_factory.hpp:77] Creating layer conv5
I0403 15:00:28.951418 18061 net.cpp:91] Creating Layer conv5
I0403 15:00:28.951436 18061 net.cpp:425] conv5 <- conv4
I0403 15:00:28.951458 18061 net.cpp:399] conv5 -> conv5
I0403 15:00:28.973013 18061 net.cpp:141] Setting up conv5
I0403 15:00:28.973058 18061 net.cpp:148] Top shape: 100 256 13 13 (4326400)
I0403 15:00:28.973076 18061 net.cpp:156] Memory required for data: 800703600
I0403 15:00:28.973103 18061 layer_factory.hpp:77] Creating layer relu5
I0403 15:00:28.973125 18061 net.cpp:91] Creating Layer relu5
I0403 15:00:28.973145 18061 net.cpp:425] relu5 <- conv5
I0403 15:00:28.973163 18061 net.cpp:386] relu5 -> conv5 (in-place)
I0403 15:00:28.973466 18061 net.cpp:141] Setting up relu5
I0403 15:00:28.973495 18061 net.cpp:148] Top shape: 100 256 13 13 (4326400)
I0403 15:00:28.973510 18061 net.cpp:156] Memory required for data: 818009200
I0403 15:00:28.973526 18061 layer_factory.hpp:77] Creating layer pool5
I0403 15:00:28.973551 18061 net.cpp:91] Creating Layer pool5
I0403 15:00:28.973567 18061 net.cpp:425] pool5 <- conv5
I0403 15:00:28.973588 18061 net.cpp:399] pool5 -> pool5
I0403 15:00:28.973651 18061 net.cpp:141] Setting up pool5
I0403 15:00:28.973675 18061 net.cpp:148] Top shape: 100 256 6 6 (921600)
I0403 15:00:28.973690 18061 net.cpp:156] Memory required for data: 821695600
I0403 15:00:28.973706 18061 layer_factory.hpp:77] Creating layer fc6
I0403 15:00:28.973734 18061 net.cpp:91] Creating Layer fc6
I0403 15:00:28.973753 18061 net.cpp:425] fc6 <- pool5
I0403 15:00:28.973772 18061 net.cpp:399] fc6 -> fc6
I0403 15:00:30.563681 18061 net.cpp:141] Setting up fc6
I0403 15:00:30.563724 18061 net.cpp:148] Top shape: 100 4096 (409600)
I0403 15:00:30.563740 18061 net.cpp:156] Memory required for data: 823334000
I0403 15:00:30.563760 18061 layer_factory.hpp:77] Creating layer relu6
I0403 15:00:30.563781 18061 net.cpp:91] Creating Layer relu6
I0403 15:00:30.563797 18061 net.cpp:425] relu6 <- fc6
I0403 15:00:30.563818 18061 net.cpp:386] relu6 -> fc6 (in-place)
I0403 15:00:30.564033 18061 net.cpp:141] Setting up relu6
I0403 15:00:30.564060 18061 net.cpp:148] Top shape: 100 4096 (409600)
I0403 15:00:30.564075 18061 net.cpp:156] Memory required for data: 824972400
I0403 15:00:30.564090 18061 layer_factory.hpp:77] Creating layer drop6
I0403 15:00:30.564110 18061 net.cpp:91] Creating Layer drop6
I0403 15:00:30.564126 18061 net.cpp:425] drop6 <- fc6
I0403 15:00:30.564142 18061 net.cpp:386] drop6 -> fc6 (in-place)
I0403 15:00:30.564195 18061 net.cpp:141] Setting up drop6
I0403 15:00:30.564218 18061 net.cpp:148] Top shape: 100 4096 (409600)
I0403 15:00:30.564231 18061 net.cpp:156] Memory required for data: 826610800
I0403 15:00:30.564246 18061 layer_factory.hpp:77] Creating layer fc7
I0403 15:00:30.564265 18061 net.cpp:91] Creating Layer fc7
I0403 15:00:30.564280 18061 net.cpp:425] fc7 <- fc6
I0403 15:00:30.564302 18061 net.cpp:399] fc7 -> fc7
I0403 15:00:31.242934 18061 net.cpp:141] Setting up fc7
I0403 15:00:31.243023 18061 net.cpp:148] Top shape: 100 4096 (409600)
I0403 15:00:31.243039 18061 net.cpp:156] Memory required for data: 828249200
I0403 15:00:31.243068 18061 layer_factory.hpp:77] Creating layer relu7
I0403 15:00:31.243095 18061 net.cpp:91] Creating Layer relu7
I0403 15:00:31.243113 18061 net.cpp:425] relu7 <- fc7
I0403 15:00:31.243134 18061 net.cpp:386] relu7 -> fc7 (in-place)
I0403 15:00:31.243541 18061 net.cpp:141] Setting up relu7
I0403 15:00:31.243568 18061 net.cpp:148] Top shape: 100 4096 (409600)
I0403 15:00:31.243609 18061 net.cpp:156] Memory required for data: 829887600
I0403 15:00:31.243625 18061 layer_factory.hpp:77] Creating layer drop7
I0403 15:00:31.243646 18061 net.cpp:91] Creating Layer drop7
I0403 15:00:31.243662 18061 net.cpp:425] drop7 <- fc7
I0403 15:00:31.243680 18061 net.cpp:386] drop7 -> fc7 (in-place)
I0403 15:00:31.243723 18061 net.cpp:141] Setting up drop7
I0403 15:00:31.243746 18061 net.cpp:148] Top shape: 100 4096 (409600)
I0403 15:00:31.243759 18061 net.cpp:156] Memory required for data: 831526000
I0403 15:00:31.243774 18061 layer_factory.hpp:77] Creating layer fc8_plantvillage
I0403 15:00:31.243794 18061 net.cpp:91] Creating Layer fc8_plantvillage
I0403 15:00:31.243808 18061 net.cpp:425] fc8_plantvillage <- fc7
I0403 15:00:31.243829 18061 net.cpp:399] fc8_plantvillage -> fc8_plantvillage
I0403 15:00:31.250586 18061 net.cpp:141] Setting up fc8_plantvillage
I0403 15:00:31.250615 18061 net.cpp:148] Top shape: 100 38 (3800)
I0403 15:00:31.250632 18061 net.cpp:156] Memory required for data: 831541200
I0403 15:00:31.250649 18061 layer_factory.hpp:77] Creating layer fc8_plantvillage_fc8_plantvillage_0_split
I0403 15:00:31.250669 18061 net.cpp:91] Creating Layer fc8_plantvillage_fc8_plantvillage_0_split
I0403 15:00:31.250686 18061 net.cpp:425] fc8_plantvillage_fc8_plantvillage_0_split <- fc8_plantvillage
I0403 15:00:31.250704 18061 net.cpp:399] fc8_plantvillage_fc8_plantvillage_0_split -> fc8_plantvillage_fc8_plantvillage_0_split_0
I0403 15:00:31.250723 18061 net.cpp:399] fc8_plantvillage_fc8_plantvillage_0_split -> fc8_plantvillage_fc8_plantvillage_0_split_1
I0403 15:00:31.250744 18061 net.cpp:399] fc8_plantvillage_fc8_plantvillage_0_split -> fc8_plantvillage_fc8_plantvillage_0_split_2
I0403 15:00:31.250823 18061 net.cpp:141] Setting up fc8_plantvillage_fc8_plantvillage_0_split
I0403 15:00:31.250847 18061 net.cpp:148] Top shape: 100 38 (3800)
I0403 15:00:31.250864 18061 net.cpp:148] Top shape: 100 38 (3800)
I0403 15:00:31.250879 18061 net.cpp:148] Top shape: 100 38 (3800)
I0403 15:00:31.250892 18061 net.cpp:156] Memory required for data: 831586800
I0403 15:00:31.250907 18061 layer_factory.hpp:77] Creating layer prob
I0403 15:00:31.250927 18061 net.cpp:91] Creating Layer prob
I0403 15:00:31.250943 18061 net.cpp:425] prob <- fc8_plantvillage_fc8_plantvillage_0_split_0
I0403 15:00:31.250963 18061 net.cpp:399] prob -> prob
I0403 15:00:31.251197 18061 net.cpp:141] Setting up prob
I0403 15:00:31.251224 18061 net.cpp:148] Top shape: 100 38 (3800)
I0403 15:00:31.251237 18061 net.cpp:156] Memory required for data: 831602000
I0403 15:00:31.251252 18061 layer_factory.hpp:77] Creating layer hdf5out
I0403 15:00:31.251273 18061 net.cpp:91] Creating Layer hdf5out
I0403 15:00:31.251289 18061 net.cpp:425] hdf5out <- prob
I0403 15:00:31.251305 18061 net.cpp:425] hdf5out <- label_data_1_split_0
I0403 15:00:31.264914 18061 net.cpp:141] Setting up hdf5out
…
