…
I0403 15:01:19.907510 18093 net.cpp:313] The NetState phase (1) differed from the phase (0) specified by a rule in layer data
I0403 15:01:19.907814 18093 net.cpp:49] Initializing net from parameters: 
state {
  phase: TEST
}
layer {
  name: "data"
  type: "Data"
  top: "data"
  top: "label"
  include {
    phase: TEST
  }
  transform_param {
    crop_size: 227
    mean_file: "/home/mohanty/data/final_dataset/lmdb/color-80-20/mean.binaryproto"
  }
  data_param {
    source: "/home/mohanty/data/final_dataset/lmdb/color-80-20/test_db"
    batch_size: 100
    backend: LMDB
  }
}
layer {
  name: "conv1"
  type: "Convolution"
  bottom: "data"
  top: "conv1"
  param {
    lr_mult: 1
    decay_mult: 1
  }
  param {
    lr_mult: 2
    decay_mult: 0
  }
  convolution_param {
    num_output: 96
    kernel_size: 11
    stride: 4
    weight_filler {
      type: "gaussian"
      std: 0.01
    }
    bias_filler {
      type: "constant"
      value: 0
    }
  }
}
layer {
  name: "relu1"
  type: "ReLU"
  bottom: "conv1"
  top: "conv1"
}
layer {
  name: "norm1"
  type: "LRN"
  bottom: "conv1"
  top: "norm1"
  lrn_param {
    local_size: 5
    alpha: 0.0001
    beta: 0.75
  }
}
layer {
  name: "pool1"
  type: "Pooling"
  bottom: "norm1"
  top: "pool1"
  pooling_param {
    pool: MAX
    kernel_size: 3
    stride: 2
  }
}
layer {
  name: "conv2"
  type: "Convolution"
  bottom: "pool1"
  top: "conv2"
  param {
    lr_mult: 1
    decay_mult: 1
  }
  param {
    lr_mult: 2
    decay_mult: 0
  }
  convolution_param {
    num_output: 256
    pad: 2
    kernel_size: 5
    group: 2
    weight_filler {
      type: "gaussian"
      std: 0.01
    }
    bias_filler {
      type: "constant"
      value: 0.1
    }
  }
}
layer {
  name: "relu2"
  type: "ReLU"
  bottom: "conv2"
  top: "conv2"
}
layer {
  name: "norm2"
  type: "LRN"
  bottom: "conv2"
  top: "norm2"
  lrn_param {
    local_size: 5
    alpha: 0.0001
    beta: 0.75
  }
}
layer {
  name: "pool2"
  type: "Pooling"
  bottom: "norm2"
  top: "pool2"
  pooling_param {
    pool: MAX
    kernel_size: 3
    stride: 2
  }
}
layer {
  name: "conv3"
  type: "Convolution"
  bottom: "pool2"
  top: "conv3"
  param {
    lr_mult: 1
    decay_mult: 1
  }
  param {
    lr_mult: 2
    decay_mult: 0
  }
  convolution_param {
    num_output: 384
    pad: 1
    kernel_size: 3
    weight_filler {
      type: "gaussian"
      std: 0.01
    }
    bias_filler {
      type: "constant"
      value: 0
    }
  }
}
layer {
  name: "relu3"
  type: "ReLU"
  bottom: "conv3"
  top: "conv3"
}
layer {
  name: "conv4"
  type: "Convolution"
  bottom: "conv3"
  top: "conv4"
  param {
    lr_mult: 1
    decay_mult: 1
  }
  param {
    lr_mult: 2
    decay_mult: 0
  }
  convolution_param {
    num_output: 384
    pad: 1
    kernel_size: 3
    group: 2
    weight_filler {
      type: "gaussian"
      std: 0.01
    }
    bias_filler {
      type: "constant"
      value: 0.1
    }
  }
}
layer {
  name: "relu4"
  type: "ReLU"
  bottom: "conv4"
  top: "conv4"
}
layer {
  name: "conv5"
  type: "Convolution"
  bottom: "conv4"
  top: "conv5"
  param {
    lr_mult: 1
    decay_mult: 1
  }
  param {
    lr_mult: 2
    decay_mult: 0
  }
  convolution_param {
    num_output: 256
    pad: 1
    kernel_size: 3
    group: 2
    weight_filler {
      type: "gaussian"
      std: 0.01
    }
    bias_filler {
      type: "constant"
      value: 0.1
    }
  }
}
layer {
  name: "relu5"
  type: "ReLU"
  bottom: "conv5"
  top: "conv5"
}
layer {
  name: "pool5"
  type: "Pooling"
  bottom: "conv5"
  top: "pool5"
  pooling_param {
    pool: MAX
    kernel_size: 3
    stride: 2
  }
}
layer {
  name: "fc6"
  type: "InnerProduct"
  bottom: "pool5"
  top: "fc6"
  param {
    lr_mult: 1
    decay_mult: 1
  }
  param {
    lr_mult: 2
    decay_mult: 0
  }
  inner_product_param {
    num_output: 4096
    weight_filler {
      type: "gaussian"
      std: 0.005
    }
    bias_filler {
      type: "constant"
      value: 0.1
    }
  }
}
layer {
  name: "relu6"
  type: "ReLU"
  bottom: "fc6"
  top: "fc6"
}
layer {
  name: "drop6"
  type: "Dropout"
  bottom: "fc6"
  top: "fc6"
  dropout_param {
    dropout_ratio: 0.5
  }
}
layer {
  name: "fc7"
  type: "InnerProduct"
  bottom: "fc6"
  top: "fc7"
  param {
    lr_mult: 1
    decay_mult: 1
  }
  param {
    lr_mult: 2
    decay_mult: 0
  }
  inner_product_param {
    num_output: 4096
    weight_filler {
      type: "gaussian"
      std: 0.005
    }
    bias_filler {
      type: "constant"
      value: 0.1
    }
  }
}
layer {
  name: "relu7"
  type: "ReLU"
  bottom: "fc7"
  top: "fc7"
}
layer {
  name: "drop7"
  type: "Dropout"
  bottom: "fc7"
  top: "fc7"
  dropout_param {
    dropout_ratio: 0.5
  }
}
layer {
  name: "fc8_plantvillage"
  type: "InnerProduct"
  bottom: "fc7"
  top: "fc8_plantvillage"
  param {
    lr_mult: 1
    decay_mult: 1
  }
  param {
    lr_mult: 2
    decay_mult: 0
  }
  inner_product_param {
    num_output: 38
    weight_filler {
      type: "gaussian"
      std: 0.01
    }
    bias_filler {
      type: "constant"
      value: 0
    }
  }
}
layer {
  name: "prob"
  type: "Softmax"
  bottom: "fc8_plantvillage"
  top: "prob"
  include {
    phase: TEST
  }
}
layer {
  name: "hdf5out"
  type: "HDF5Output"
  bottom: "prob"
  bottom: "label"
  include {
    phase: TEST
  }
  hdf5_output_param {
    file_name: "hdf5_dumps/iter_1311.h5"
  }
}
layer {
  name: "loss"
  type: "SoftmaxWithLoss"
  bottom: "fc8_plantvillage"
  bottom: "label"
  top: "loss"
}
layer {
  name: "accuracy"
  type: "Accuracy"
  bottom: "fc8_plantvillage"
  bottom: "label"
  top: "accuracy"
  include {
    phase: TEST
  }
}
I0403 15:01:19.908373 18093 layer_factory.hpp:77] Creating layer data
I0403 15:01:19.909003 18093 net.cpp:91] Creating Layer data
I0403 15:01:19.909035 18093 net.cpp:399] data -> data
I0403 15:01:19.909090 18093 net.cpp:399] data -> label
I0403 15:01:19.909126 18093 data_transformer.cpp:25] Loading mean file from: /home/mohanty/data/final_dataset/lmdb/color-80-20/mean.binaryproto
I0403 15:01:19.912140 18096 db_lmdb.cpp:38] Opened lmdb /home/mohanty/data/final_dataset/lmdb/color-80-20/test_db
I0403 15:01:19.923708 18093 data_layer.cpp:41] output data size: 100,3,227,227
I0403 15:01:20.047624 18093 net.cpp:141] Setting up data
I0403 15:01:20.047730 18093 net.cpp:148] Top shape: 100 3 227 227 (15458700)
I0403 15:01:20.047754 18093 net.cpp:148] Top shape: 100 (100)
I0403 15:01:20.047770 18093 net.cpp:156] Memory required for data: 61835200
I0403 15:01:20.047798 18093 layer_factory.hpp:77] Creating layer label_data_1_split
I0403 15:01:20.047823 18093 net.cpp:91] Creating Layer label_data_1_split
I0403 15:01:20.047842 18093 net.cpp:425] label_data_1_split <- label
I0403 15:01:20.047874 18093 net.cpp:399] label_data_1_split -> label_data_1_split_0
I0403 15:01:20.047902 18093 net.cpp:399] label_data_1_split -> label_data_1_split_1
I0403 15:01:20.047924 18093 net.cpp:399] label_data_1_split -> label_data_1_split_2
I0403 15:01:20.047987 18093 net.cpp:141] Setting up label_data_1_split
I0403 15:01:20.048012 18093 net.cpp:148] Top shape: 100 (100)
I0403 15:01:20.048028 18093 net.cpp:148] Top shape: 100 (100)
I0403 15:01:20.048044 18093 net.cpp:148] Top shape: 100 (100)
I0403 15:01:20.048072 18093 net.cpp:156] Memory required for data: 61836400
I0403 15:01:20.048089 18093 layer_factory.hpp:77] Creating layer conv1
I0403 15:01:20.048121 18093 net.cpp:91] Creating Layer conv1
I0403 15:01:20.048141 18093 net.cpp:425] conv1 <- data
I0403 15:01:20.048161 18093 net.cpp:399] conv1 -> conv1
I0403 15:01:20.194048 18093 net.cpp:141] Setting up conv1
I0403 15:01:20.194138 18093 net.cpp:148] Top shape: 100 96 55 55 (29040000)
I0403 15:01:20.194155 18093 net.cpp:156] Memory required for data: 177996400
I0403 15:01:20.194188 18093 layer_factory.hpp:77] Creating layer relu1
I0403 15:01:20.194216 18093 net.cpp:91] Creating Layer relu1
I0403 15:01:20.194242 18093 net.cpp:425] relu1 <- conv1
I0403 15:01:20.194262 18093 net.cpp:386] relu1 -> conv1 (in-place)
I0403 15:01:20.194520 18093 net.cpp:141] Setting up relu1
I0403 15:01:20.194550 18093 net.cpp:148] Top shape: 100 96 55 55 (29040000)
I0403 15:01:20.194566 18093 net.cpp:156] Memory required for data: 294156400
I0403 15:01:20.194615 18093 layer_factory.hpp:77] Creating layer norm1
I0403 15:01:20.194648 18093 net.cpp:91] Creating Layer norm1
I0403 15:01:20.194666 18093 net.cpp:425] norm1 <- conv1
I0403 15:01:20.194689 18093 net.cpp:399] norm1 -> norm1
I0403 15:01:20.195000 18093 net.cpp:141] Setting up norm1
I0403 15:01:20.195034 18093 net.cpp:148] Top shape: 100 96 55 55 (29040000)
I0403 15:01:20.195052 18093 net.cpp:156] Memory required for data: 410316400
I0403 15:01:20.195068 18093 layer_factory.hpp:77] Creating layer pool1
I0403 15:01:20.195092 18093 net.cpp:91] Creating Layer pool1
I0403 15:01:20.195111 18093 net.cpp:425] pool1 <- norm1
I0403 15:01:20.195130 18093 net.cpp:399] pool1 -> pool1
I0403 15:01:20.195199 18093 net.cpp:141] Setting up pool1
I0403 15:01:20.195233 18093 net.cpp:148] Top shape: 100 96 27 27 (6998400)
I0403 15:01:20.195250 18093 net.cpp:156] Memory required for data: 438310000
I0403 15:01:20.195264 18093 layer_factory.hpp:77] Creating layer conv2
I0403 15:01:20.195291 18093 net.cpp:91] Creating Layer conv2
I0403 15:01:20.195307 18093 net.cpp:425] conv2 <- pool1
I0403 15:01:20.195325 18093 net.cpp:399] conv2 -> conv2
I0403 15:01:20.210682 18093 net.cpp:141] Setting up conv2
I0403 15:01:20.210738 18093 net.cpp:148] Top shape: 100 256 27 27 (18662400)
I0403 15:01:20.210757 18093 net.cpp:156] Memory required for data: 512959600
I0403 15:01:20.210780 18093 layer_factory.hpp:77] Creating layer relu2
I0403 15:01:20.210801 18093 net.cpp:91] Creating Layer relu2
I0403 15:01:20.210819 18093 net.cpp:425] relu2 <- conv2
I0403 15:01:20.210836 18093 net.cpp:386] relu2 -> conv2 (in-place)
I0403 15:01:20.211132 18093 net.cpp:141] Setting up relu2
I0403 15:01:20.211160 18093 net.cpp:148] Top shape: 100 256 27 27 (18662400)
I0403 15:01:20.211176 18093 net.cpp:156] Memory required for data: 587609200
I0403 15:01:20.211192 18093 layer_factory.hpp:77] Creating layer norm2
I0403 15:01:20.211218 18093 net.cpp:91] Creating Layer norm2
I0403 15:01:20.211237 18093 net.cpp:425] norm2 <- conv2
I0403 15:01:20.211261 18093 net.cpp:399] norm2 -> norm2
I0403 15:01:20.211463 18093 net.cpp:141] Setting up norm2
I0403 15:01:20.211493 18093 net.cpp:148] Top shape: 100 256 27 27 (18662400)
I0403 15:01:20.211509 18093 net.cpp:156] Memory required for data: 662258800
I0403 15:01:20.211524 18093 layer_factory.hpp:77] Creating layer pool2
I0403 15:01:20.211544 18093 net.cpp:91] Creating Layer pool2
I0403 15:01:20.211558 18093 net.cpp:425] pool2 <- norm2
I0403 15:01:20.211578 18093 net.cpp:399] pool2 -> pool2
I0403 15:01:20.211635 18093 net.cpp:141] Setting up pool2
I0403 15:01:20.211659 18093 net.cpp:148] Top shape: 100 256 13 13 (4326400)
I0403 15:01:20.211674 18093 net.cpp:156] Memory required for data: 679564400
I0403 15:01:20.211690 18093 layer_factory.hpp:77] Creating layer conv3
I0403 15:01:20.211715 18093 net.cpp:91] Creating Layer conv3
I0403 15:01:20.211733 18093 net.cpp:425] conv3 <- pool2
I0403 15:01:20.211755 18093 net.cpp:399] conv3 -> conv3
I0403 15:01:20.256656 18093 net.cpp:141] Setting up conv3
I0403 15:01:20.256721 18093 net.cpp:148] Top shape: 100 384 13 13 (6489600)
I0403 15:01:20.256741 18093 net.cpp:156] Memory required for data: 705522800
I0403 15:01:20.256768 18093 layer_factory.hpp:77] Creating layer relu3
I0403 15:01:20.256791 18093 net.cpp:91] Creating Layer relu3
I0403 15:01:20.256809 18093 net.cpp:425] relu3 <- conv3
I0403 15:01:20.256832 18093 net.cpp:386] relu3 -> conv3 (in-place)
I0403 15:01:20.257120 18093 net.cpp:141] Setting up relu3
I0403 15:01:20.257151 18093 net.cpp:148] Top shape: 100 384 13 13 (6489600)
I0403 15:01:20.257169 18093 net.cpp:156] Memory required for data: 731481200
I0403 15:01:20.257184 18093 layer_factory.hpp:77] Creating layer conv4
I0403 15:01:20.257211 18093 net.cpp:91] Creating Layer conv4
I0403 15:01:20.257230 18093 net.cpp:425] conv4 <- conv3
I0403 15:01:20.257249 18093 net.cpp:399] conv4 -> conv4
I0403 15:01:20.287799 18093 net.cpp:141] Setting up conv4
I0403 15:01:20.287855 18093 net.cpp:148] Top shape: 100 384 13 13 (6489600)
I0403 15:01:20.287904 18093 net.cpp:156] Memory required for data: 757439600
I0403 15:01:20.287926 18093 layer_factory.hpp:77] Creating layer relu4
I0403 15:01:20.287950 18093 net.cpp:91] Creating Layer relu4
I0403 15:01:20.287969 18093 net.cpp:425] relu4 <- conv4
I0403 15:01:20.287988 18093 net.cpp:386] relu4 -> conv4 (in-place)
I0403 15:01:20.288305 18093 net.cpp:141] Setting up relu4
I0403 15:01:20.288333 18093 net.cpp:148] Top shape: 100 384 13 13 (6489600)
I0403 15:01:20.288349 18093 net.cpp:156] Memory required for data: 783398000
I0403 15:01:20.288365 18093 layer_factory.hpp:77] Creating layer conv5
I0403 15:01:20.288393 18093 net.cpp:91] Creating Layer conv5
I0403 15:01:20.288410 18093 net.cpp:425] conv5 <- conv4
I0403 15:01:20.288429 18093 net.cpp:399] conv5 -> conv5
I0403 15:01:20.309535 18093 net.cpp:141] Setting up conv5
I0403 15:01:20.309595 18093 net.cpp:148] Top shape: 100 256 13 13 (4326400)
I0403 15:01:20.309614 18093 net.cpp:156] Memory required for data: 800703600
I0403 15:01:20.309641 18093 layer_factory.hpp:77] Creating layer relu5
I0403 15:01:20.309664 18093 net.cpp:91] Creating Layer relu5
I0403 15:01:20.309682 18093 net.cpp:425] relu5 <- conv5
I0403 15:01:20.309705 18093 net.cpp:386] relu5 -> conv5 (in-place)
I0403 15:01:20.309996 18093 net.cpp:141] Setting up relu5
I0403 15:01:20.310030 18093 net.cpp:148] Top shape: 100 256 13 13 (4326400)
I0403 15:01:20.310047 18093 net.cpp:156] Memory required for data: 818009200
I0403 15:01:20.310065 18093 layer_factory.hpp:77] Creating layer pool5
I0403 15:01:20.310087 18093 net.cpp:91] Creating Layer pool5
I0403 15:01:20.310104 18093 net.cpp:425] pool5 <- conv5
I0403 15:01:20.310127 18093 net.cpp:399] pool5 -> pool5
I0403 15:01:20.310192 18093 net.cpp:141] Setting up pool5
I0403 15:01:20.310217 18093 net.cpp:148] Top shape: 100 256 6 6 (921600)
I0403 15:01:20.310232 18093 net.cpp:156] Memory required for data: 821695600
I0403 15:01:20.310248 18093 layer_factory.hpp:77] Creating layer fc6
I0403 15:01:20.310278 18093 net.cpp:91] Creating Layer fc6
I0403 15:01:20.310297 18093 net.cpp:425] fc6 <- pool5
I0403 15:01:20.310319 18093 net.cpp:399] fc6 -> fc6
I0403 15:01:21.845613 18093 net.cpp:141] Setting up fc6
I0403 15:01:21.845657 18093 net.cpp:148] Top shape: 100 4096 (409600)
I0403 15:01:21.845675 18093 net.cpp:156] Memory required for data: 823334000
I0403 15:01:21.845696 18093 layer_factory.hpp:77] Creating layer relu6
I0403 15:01:21.845721 18093 net.cpp:91] Creating Layer relu6
I0403 15:01:21.845738 18093 net.cpp:425] relu6 <- fc6
I0403 15:01:21.845758 18093 net.cpp:386] relu6 -> fc6 (in-place)
I0403 15:01:21.845966 18093 net.cpp:141] Setting up relu6
I0403 15:01:21.845993 18093 net.cpp:148] Top shape: 100 4096 (409600)
I0403 15:01:21.846007 18093 net.cpp:156] Memory required for data: 824972400
I0403 15:01:21.846027 18093 layer_factory.hpp:77] Creating layer drop6
I0403 15:01:21.846047 18093 net.cpp:91] Creating Layer drop6
I0403 15:01:21.846062 18093 net.cpp:425] drop6 <- fc6
I0403 15:01:21.846078 18093 net.cpp:386] drop6 -> fc6 (in-place)
I0403 15:01:21.846127 18093 net.cpp:141] Setting up drop6
I0403 15:01:21.846149 18093 net.cpp:148] Top shape: 100 4096 (409600)
I0403 15:01:21.846163 18093 net.cpp:156] Memory required for data: 826610800
I0403 15:01:21.846177 18093 layer_factory.hpp:77] Creating layer fc7
I0403 15:01:21.846199 18093 net.cpp:91] Creating Layer fc7
I0403 15:01:21.846215 18093 net.cpp:425] fc7 <- fc6
I0403 15:01:21.846232 18093 net.cpp:399] fc7 -> fc7
I0403 15:01:22.529832 18093 net.cpp:141] Setting up fc7
I0403 15:01:22.529876 18093 net.cpp:148] Top shape: 100 4096 (409600)
I0403 15:01:22.529894 18093 net.cpp:156] Memory required for data: 828249200
I0403 15:01:22.529916 18093 layer_factory.hpp:77] Creating layer relu7
I0403 15:01:22.529940 18093 net.cpp:91] Creating Layer relu7
I0403 15:01:22.529958 18093 net.cpp:425] relu7 <- fc7
I0403 15:01:22.529979 18093 net.cpp:386] relu7 -> fc7 (in-place)
I0403 15:01:22.530403 18093 net.cpp:141] Setting up relu7
I0403 15:01:22.530433 18093 net.cpp:148] Top shape: 100 4096 (409600)
I0403 15:01:22.530480 18093 net.cpp:156] Memory required for data: 829887600
I0403 15:01:22.530496 18093 layer_factory.hpp:77] Creating layer drop7
I0403 15:01:22.530515 18093 net.cpp:91] Creating Layer drop7
I0403 15:01:22.530532 18093 net.cpp:425] drop7 <- fc7
I0403 15:01:22.530562 18093 net.cpp:386] drop7 -> fc7 (in-place)
I0403 15:01:22.530606 18093 net.cpp:141] Setting up drop7
I0403 15:01:22.530628 18093 net.cpp:148] Top shape: 100 4096 (409600)
I0403 15:01:22.530642 18093 net.cpp:156] Memory required for data: 831526000
I0403 15:01:22.530657 18093 layer_factory.hpp:77] Creating layer fc8_plantvillage
I0403 15:01:22.530678 18093 net.cpp:91] Creating Layer fc8_plantvillage
I0403 15:01:22.530694 18093 net.cpp:425] fc8_plantvillage <- fc7
I0403 15:01:22.530715 18093 net.cpp:399] fc8_plantvillage -> fc8_plantvillage
I0403 15:01:22.537485 18093 net.cpp:141] Setting up fc8_plantvillage
I0403 15:01:22.537515 18093 net.cpp:148] Top shape: 100 38 (3800)
I0403 15:01:22.537531 18093 net.cpp:156] Memory required for data: 831541200
I0403 15:01:22.537562 18093 layer_factory.hpp:77] Creating layer fc8_plantvillage_fc8_plantvillage_0_split
I0403 15:01:22.537582 18093 net.cpp:91] Creating Layer fc8_plantvillage_fc8_plantvillage_0_split
I0403 15:01:22.537597 18093 net.cpp:425] fc8_plantvillage_fc8_plantvillage_0_split <- fc8_plantvillage
I0403 15:01:22.537617 18093 net.cpp:399] fc8_plantvillage_fc8_plantvillage_0_split -> fc8_plantvillage_fc8_plantvillage_0_split_0
I0403 15:01:22.537638 18093 net.cpp:399] fc8_plantvillage_fc8_plantvillage_0_split -> fc8_plantvillage_fc8_plantvillage_0_split_1
I0403 15:01:22.537658 18093 net.cpp:399] fc8_plantvillage_fc8_plantvillage_0_split -> fc8_plantvillage_fc8_plantvillage_0_split_2
I0403 15:01:22.537734 18093 net.cpp:141] Setting up fc8_plantvillage_fc8_plantvillage_0_split
I0403 15:01:22.537757 18093 net.cpp:148] Top shape: 100 38 (3800)
I0403 15:01:22.537773 18093 net.cpp:148] Top shape: 100 38 (3800)
I0403 15:01:22.537788 18093 net.cpp:148] Top shape: 100 38 (3800)
I0403 15:01:22.537801 18093 net.cpp:156] Memory required for data: 831586800
I0403 15:01:22.537816 18093 layer_factory.hpp:77] Creating layer prob
I0403 15:01:22.537834 18093 net.cpp:91] Creating Layer prob
I0403 15:01:22.537848 18093 net.cpp:425] prob <- fc8_plantvillage_fc8_plantvillage_0_split_0
I0403 15:01:22.537866 18093 net.cpp:399] prob -> prob
I0403 15:01:22.538102 18093 net.cpp:141] Setting up prob
I0403 15:01:22.538132 18093 net.cpp:148] Top shape: 100 38 (3800)
I0403 15:01:22.538148 18093 net.cpp:156] Memory required for data: 831602000
I0403 15:01:22.538163 18093 layer_factory.hpp:77] Creating layer hdf5out
I0403 15:01:22.538182 18093 net.cpp:91] Creating Layer hdf5out
I0403 15:01:22.538198 18093 net.cpp:425] hdf5out <- prob
I0403 15:01:22.538214 18093 net.cpp:425] hdf5out <- label_data_1_split_0
I0403 15:01:22.540417 18093 net.cpp:141] Setting up hdf5out
…
