…
I0403 15:08:02.447674 18308 net.cpp:313] The NetState phase (1) differed from the phase (0) specified by a rule in layer data
I0403 15:08:02.447988 18308 net.cpp:49] Initializing net from parameters: 
state {
  phase: TEST
}
layer {
  name: "data"
  type: "Data"
  top: "data"
  top: "label"
  include {
    phase: TEST
  }
  transform_param {
    crop_size: 227
    mean_file: "/home/mohanty/data/final_dataset/lmdb/color-80-20/mean.binaryproto"
  }
  data_param {
    source: "/home/mohanty/data/final_dataset/lmdb/color-80-20/test_db"
    batch_size: 100
    backend: LMDB
  }
}
layer {
  name: "conv1"
  type: "Convolution"
  bottom: "data"
  top: "conv1"
  param {
    lr_mult: 1
    decay_mult: 1
  }
  param {
    lr_mult: 2
    decay_mult: 0
  }
  convolution_param {
    num_output: 96
    kernel_size: 11
    stride: 4
    weight_filler {
      type: "gaussian"
      std: 0.01
    }
    bias_filler {
      type: "constant"
      value: 0
    }
  }
}
layer {
  name: "relu1"
  type: "ReLU"
  bottom: "conv1"
  top: "conv1"
}
layer {
  name: "norm1"
  type: "LRN"
  bottom: "conv1"
  top: "norm1"
  lrn_param {
    local_size: 5
    alpha: 0.0001
    beta: 0.75
  }
}
layer {
  name: "pool1"
  type: "Pooling"
  bottom: "norm1"
  top: "pool1"
  pooling_param {
    pool: MAX
    kernel_size: 3
    stride: 2
  }
}
layer {
  name: "conv2"
  type: "Convolution"
  bottom: "pool1"
  top: "conv2"
  param {
    lr_mult: 1
    decay_mult: 1
  }
  param {
    lr_mult: 2
    decay_mult: 0
  }
  convolution_param {
    num_output: 256
    pad: 2
    kernel_size: 5
    group: 2
    weight_filler {
      type: "gaussian"
      std: 0.01
    }
    bias_filler {
      type: "constant"
      value: 0.1
    }
  }
}
layer {
  name: "relu2"
  type: "ReLU"
  bottom: "conv2"
  top: "conv2"
}
layer {
  name: "norm2"
  type: "LRN"
  bottom: "conv2"
  top: "norm2"
  lrn_param {
    local_size: 5
    alpha: 0.0001
    beta: 0.75
  }
}
layer {
  name: "pool2"
  type: "Pooling"
  bottom: "norm2"
  top: "pool2"
  pooling_param {
    pool: MAX
    kernel_size: 3
    stride: 2
  }
}
layer {
  name: "conv3"
  type: "Convolution"
  bottom: "pool2"
  top: "conv3"
  param {
    lr_mult: 1
    decay_mult: 1
  }
  param {
    lr_mult: 2
    decay_mult: 0
  }
  convolution_param {
    num_output: 384
    pad: 1
    kernel_size: 3
    weight_filler {
      type: "gaussian"
      std: 0.01
    }
    bias_filler {
      type: "constant"
      value: 0
    }
  }
}
layer {
  name: "relu3"
  type: "ReLU"
  bottom: "conv3"
  top: "conv3"
}
layer {
  name: "conv4"
  type: "Convolution"
  bottom: "conv3"
  top: "conv4"
  param {
    lr_mult: 1
    decay_mult: 1
  }
  param {
    lr_mult: 2
    decay_mult: 0
  }
  convolution_param {
    num_output: 384
    pad: 1
    kernel_size: 3
    group: 2
    weight_filler {
      type: "gaussian"
      std: 0.01
    }
    bias_filler {
      type: "constant"
      value: 0.1
    }
  }
}
layer {
  name: "relu4"
  type: "ReLU"
  bottom: "conv4"
  top: "conv4"
}
layer {
  name: "conv5"
  type: "Convolution"
  bottom: "conv4"
  top: "conv5"
  param {
    lr_mult: 1
    decay_mult: 1
  }
  param {
    lr_mult: 2
    decay_mult: 0
  }
  convolution_param {
    num_output: 256
    pad: 1
    kernel_size: 3
    group: 2
    weight_filler {
      type: "gaussian"
      std: 0.01
    }
    bias_filler {
      type: "constant"
      value: 0.1
    }
  }
}
layer {
  name: "relu5"
  type: "ReLU"
  bottom: "conv5"
  top: "conv5"
}
layer {
  name: "pool5"
  type: "Pooling"
  bottom: "conv5"
  top: "pool5"
  pooling_param {
    pool: MAX
    kernel_size: 3
    stride: 2
  }
}
layer {
  name: "fc6"
  type: "InnerProduct"
  bottom: "pool5"
  top: "fc6"
  param {
    lr_mult: 1
    decay_mult: 1
  }
  param {
    lr_mult: 2
    decay_mult: 0
  }
  inner_product_param {
    num_output: 4096
    weight_filler {
      type: "gaussian"
      std: 0.005
    }
    bias_filler {
      type: "constant"
      value: 0.1
    }
  }
}
layer {
  name: "relu6"
  type: "ReLU"
  bottom: "fc6"
  top: "fc6"
}
layer {
  name: "drop6"
  type: "Dropout"
  bottom: "fc6"
  top: "fc6"
  dropout_param {
    dropout_ratio: 0.5
  }
}
layer {
  name: "fc7"
  type: "InnerProduct"
  bottom: "fc6"
  top: "fc7"
  param {
    lr_mult: 1
    decay_mult: 1
  }
  param {
    lr_mult: 2
    decay_mult: 0
  }
  inner_product_param {
    num_output: 4096
    weight_filler {
      type: "gaussian"
      std: 0.005
    }
    bias_filler {
      type: "constant"
      value: 0.1
    }
  }
}
layer {
  name: "relu7"
  type: "ReLU"
  bottom: "fc7"
  top: "fc7"
}
layer {
  name: "drop7"
  type: "Dropout"
  bottom: "fc7"
  top: "fc7"
  dropout_param {
    dropout_ratio: 0.5
  }
}
layer {
  name: "fc8_plantvillage"
  type: "InnerProduct"
  bottom: "fc7"
  top: "fc8_plantvillage"
  param {
    lr_mult: 1
    decay_mult: 1
  }
  param {
    lr_mult: 2
    decay_mult: 0
  }
  inner_product_param {
    num_output: 38
    weight_filler {
      type: "gaussian"
      std: 0.01
    }
    bias_filler {
      type: "constant"
      value: 0
    }
  }
}
layer {
  name: "prob"
  type: "Softmax"
  bottom: "fc8_plantvillage"
  top: "prob"
  include {
    phase: TEST
  }
}
layer {
  name: "hdf5out"
  type: "HDF5Output"
  bottom: "prob"
  bottom: "label"
  include {
    phase: TEST
  }
  hdf5_output_param {
    file_name: "hdf5_dumps/iter_8303.h5"
  }
}
layer {
  name: "loss"
  type: "SoftmaxWithLoss"
  bottom: "fc8_plantvillage"
  bottom: "label"
  top: "loss"
}
layer {
  name: "accuracy"
  type: "Accuracy"
  bottom: "fc8_plantvillage"
  bottom: "label"
  top: "accuracy"
  include {
    phase: TEST
  }
}
I0403 15:08:02.448557 18308 layer_factory.hpp:77] Creating layer data
I0403 15:08:02.449228 18308 net.cpp:91] Creating Layer data
I0403 15:08:02.449259 18308 net.cpp:399] data -> data
I0403 15:08:02.449313 18308 net.cpp:399] data -> label
I0403 15:08:02.449352 18308 data_transformer.cpp:25] Loading mean file from: /home/mohanty/data/final_dataset/lmdb/color-80-20/mean.binaryproto
I0403 15:08:02.452571 18311 db_lmdb.cpp:38] Opened lmdb /home/mohanty/data/final_dataset/lmdb/color-80-20/test_db
I0403 15:08:02.463907 18308 data_layer.cpp:41] output data size: 100,3,227,227
I0403 15:08:02.585643 18308 net.cpp:141] Setting up data
I0403 15:08:02.585702 18308 net.cpp:148] Top shape: 100 3 227 227 (15458700)
I0403 15:08:02.585726 18308 net.cpp:148] Top shape: 100 (100)
I0403 15:08:02.585741 18308 net.cpp:156] Memory required for data: 61835200
I0403 15:08:02.585769 18308 layer_factory.hpp:77] Creating layer label_data_1_split
I0403 15:08:02.585795 18308 net.cpp:91] Creating Layer label_data_1_split
I0403 15:08:02.585813 18308 net.cpp:425] label_data_1_split <- label
I0403 15:08:02.585845 18308 net.cpp:399] label_data_1_split -> label_data_1_split_0
I0403 15:08:02.585872 18308 net.cpp:399] label_data_1_split -> label_data_1_split_1
I0403 15:08:02.585893 18308 net.cpp:399] label_data_1_split -> label_data_1_split_2
I0403 15:08:02.585958 18308 net.cpp:141] Setting up label_data_1_split
I0403 15:08:02.585983 18308 net.cpp:148] Top shape: 100 (100)
I0403 15:08:02.586000 18308 net.cpp:148] Top shape: 100 (100)
I0403 15:08:02.586016 18308 net.cpp:148] Top shape: 100 (100)
I0403 15:08:02.586030 18308 net.cpp:156] Memory required for data: 61836400
I0403 15:08:02.586046 18308 layer_factory.hpp:77] Creating layer conv1
I0403 15:08:02.586083 18308 net.cpp:91] Creating Layer conv1
I0403 15:08:02.586102 18308 net.cpp:425] conv1 <- data
I0403 15:08:02.586122 18308 net.cpp:399] conv1 -> conv1
I0403 15:08:02.731268 18308 net.cpp:141] Setting up conv1
I0403 15:08:02.731336 18308 net.cpp:148] Top shape: 100 96 55 55 (29040000)
I0403 15:08:02.731354 18308 net.cpp:156] Memory required for data: 177996400
I0403 15:08:02.731386 18308 layer_factory.hpp:77] Creating layer relu1
I0403 15:08:02.731415 18308 net.cpp:91] Creating Layer relu1
I0403 15:08:02.731436 18308 net.cpp:425] relu1 <- conv1
I0403 15:08:02.731456 18308 net.cpp:386] relu1 -> conv1 (in-place)
I0403 15:08:02.731725 18308 net.cpp:141] Setting up relu1
I0403 15:08:02.731758 18308 net.cpp:148] Top shape: 100 96 55 55 (29040000)
I0403 15:08:02.731778 18308 net.cpp:156] Memory required for data: 294156400
I0403 15:08:02.731827 18308 layer_factory.hpp:77] Creating layer norm1
I0403 15:08:02.731855 18308 net.cpp:91] Creating Layer norm1
I0403 15:08:02.731874 18308 net.cpp:425] norm1 <- conv1
I0403 15:08:02.731892 18308 net.cpp:399] norm1 -> norm1
I0403 15:08:02.732219 18308 net.cpp:141] Setting up norm1
I0403 15:08:02.732249 18308 net.cpp:148] Top shape: 100 96 55 55 (29040000)
I0403 15:08:02.732267 18308 net.cpp:156] Memory required for data: 410316400
I0403 15:08:02.732283 18308 layer_factory.hpp:77] Creating layer pool1
I0403 15:08:02.732306 18308 net.cpp:91] Creating Layer pool1
I0403 15:08:02.732323 18308 net.cpp:425] pool1 <- norm1
I0403 15:08:02.732342 18308 net.cpp:399] pool1 -> pool1
I0403 15:08:02.732412 18308 net.cpp:141] Setting up pool1
I0403 15:08:02.732437 18308 net.cpp:148] Top shape: 100 96 27 27 (6998400)
I0403 15:08:02.732453 18308 net.cpp:156] Memory required for data: 438310000
I0403 15:08:02.732470 18308 layer_factory.hpp:77] Creating layer conv2
I0403 15:08:02.732494 18308 net.cpp:91] Creating Layer conv2
I0403 15:08:02.732511 18308 net.cpp:425] conv2 <- pool1
I0403 15:08:02.732529 18308 net.cpp:399] conv2 -> conv2
I0403 15:08:02.748291 18308 net.cpp:141] Setting up conv2
I0403 15:08:02.748327 18308 net.cpp:148] Top shape: 100 256 27 27 (18662400)
I0403 15:08:02.748345 18308 net.cpp:156] Memory required for data: 512959600
I0403 15:08:02.748373 18308 layer_factory.hpp:77] Creating layer relu2
I0403 15:08:02.748399 18308 net.cpp:91] Creating Layer relu2
I0403 15:08:02.748423 18308 net.cpp:425] relu2 <- conv2
I0403 15:08:02.748443 18308 net.cpp:386] relu2 -> conv2 (in-place)
I0403 15:08:02.748729 18308 net.cpp:141] Setting up relu2
I0403 15:08:02.748759 18308 net.cpp:148] Top shape: 100 256 27 27 (18662400)
I0403 15:08:02.748775 18308 net.cpp:156] Memory required for data: 587609200
I0403 15:08:02.748790 18308 layer_factory.hpp:77] Creating layer norm2
I0403 15:08:02.748813 18308 net.cpp:91] Creating Layer norm2
I0403 15:08:02.748831 18308 net.cpp:425] norm2 <- conv2
I0403 15:08:02.748848 18308 net.cpp:399] norm2 -> norm2
I0403 15:08:02.749053 18308 net.cpp:141] Setting up norm2
I0403 15:08:02.749081 18308 net.cpp:148] Top shape: 100 256 27 27 (18662400)
I0403 15:08:02.749097 18308 net.cpp:156] Memory required for data: 662258800
I0403 15:08:02.749114 18308 layer_factory.hpp:77] Creating layer pool2
I0403 15:08:02.749132 18308 net.cpp:91] Creating Layer pool2
I0403 15:08:02.749148 18308 net.cpp:425] pool2 <- norm2
I0403 15:08:02.749172 18308 net.cpp:399] pool2 -> pool2
I0403 15:08:02.749229 18308 net.cpp:141] Setting up pool2
I0403 15:08:02.749254 18308 net.cpp:148] Top shape: 100 256 13 13 (4326400)
I0403 15:08:02.749269 18308 net.cpp:156] Memory required for data: 679564400
I0403 15:08:02.749285 18308 layer_factory.hpp:77] Creating layer conv3
I0403 15:08:02.749310 18308 net.cpp:91] Creating Layer conv3
I0403 15:08:02.749328 18308 net.cpp:425] conv3 <- pool2
I0403 15:08:02.749349 18308 net.cpp:399] conv3 -> conv3
I0403 15:08:02.789072 18308 net.cpp:141] Setting up conv3
I0403 15:08:02.789144 18308 net.cpp:148] Top shape: 100 384 13 13 (6489600)
I0403 15:08:02.789160 18308 net.cpp:156] Memory required for data: 705522800
I0403 15:08:02.789186 18308 layer_factory.hpp:77] Creating layer relu3
I0403 15:08:02.789207 18308 net.cpp:91] Creating Layer relu3
I0403 15:08:02.789225 18308 net.cpp:425] relu3 <- conv3
I0403 15:08:02.789247 18308 net.cpp:386] relu3 -> conv3 (in-place)
I0403 15:08:02.808130 18308 net.cpp:141] Setting up relu3
I0403 15:08:02.808171 18308 net.cpp:148] Top shape: 100 384 13 13 (6489600)
I0403 15:08:02.808188 18308 net.cpp:156] Memory required for data: 731481200
I0403 15:08:02.808204 18308 layer_factory.hpp:77] Creating layer conv4
I0403 15:08:02.808233 18308 net.cpp:91] Creating Layer conv4
I0403 15:08:02.808251 18308 net.cpp:425] conv4 <- conv3
I0403 15:08:02.808274 18308 net.cpp:399] conv4 -> conv4
I0403 15:08:02.840733 18308 net.cpp:141] Setting up conv4
I0403 15:08:02.840775 18308 net.cpp:148] Top shape: 100 384 13 13 (6489600)
I0403 15:08:02.840823 18308 net.cpp:156] Memory required for data: 757439600
I0403 15:08:02.840849 18308 layer_factory.hpp:77] Creating layer relu4
I0403 15:08:02.840873 18308 net.cpp:91] Creating Layer relu4
I0403 15:08:02.840895 18308 net.cpp:425] relu4 <- conv4
I0403 15:08:02.840919 18308 net.cpp:386] relu4 -> conv4 (in-place)
I0403 15:08:02.841217 18308 net.cpp:141] Setting up relu4
I0403 15:08:02.841246 18308 net.cpp:148] Top shape: 100 384 13 13 (6489600)
I0403 15:08:02.841262 18308 net.cpp:156] Memory required for data: 783398000
I0403 15:08:02.841279 18308 layer_factory.hpp:77] Creating layer conv5
I0403 15:08:02.841305 18308 net.cpp:91] Creating Layer conv5
I0403 15:08:02.841322 18308 net.cpp:425] conv5 <- conv4
I0403 15:08:02.841344 18308 net.cpp:399] conv5 -> conv5
I0403 15:08:02.862573 18308 net.cpp:141] Setting up conv5
I0403 15:08:02.862620 18308 net.cpp:148] Top shape: 100 256 13 13 (4326400)
I0403 15:08:02.862637 18308 net.cpp:156] Memory required for data: 800703600
I0403 15:08:02.862663 18308 layer_factory.hpp:77] Creating layer relu5
I0403 15:08:02.862686 18308 net.cpp:91] Creating Layer relu5
I0403 15:08:02.862705 18308 net.cpp:425] relu5 <- conv5
I0403 15:08:02.862725 18308 net.cpp:386] relu5 -> conv5 (in-place)
I0403 15:08:02.863029 18308 net.cpp:141] Setting up relu5
I0403 15:08:02.863064 18308 net.cpp:148] Top shape: 100 256 13 13 (4326400)
I0403 15:08:02.863080 18308 net.cpp:156] Memory required for data: 818009200
I0403 15:08:02.863096 18308 layer_factory.hpp:77] Creating layer pool5
I0403 15:08:02.863122 18308 net.cpp:91] Creating Layer pool5
I0403 15:08:02.863142 18308 net.cpp:425] pool5 <- conv5
I0403 15:08:02.863162 18308 net.cpp:399] pool5 -> pool5
I0403 15:08:02.863227 18308 net.cpp:141] Setting up pool5
I0403 15:08:02.863253 18308 net.cpp:148] Top shape: 100 256 6 6 (921600)
I0403 15:08:02.863270 18308 net.cpp:156] Memory required for data: 821695600
I0403 15:08:02.863286 18308 layer_factory.hpp:77] Creating layer fc6
I0403 15:08:02.863314 18308 net.cpp:91] Creating Layer fc6
I0403 15:08:02.863332 18308 net.cpp:425] fc6 <- pool5
I0403 15:08:02.863353 18308 net.cpp:399] fc6 -> fc6
I0403 15:08:04.402302 18308 net.cpp:141] Setting up fc6
I0403 15:08:04.402384 18308 net.cpp:148] Top shape: 100 4096 (409600)
I0403 15:08:04.402400 18308 net.cpp:156] Memory required for data: 823334000
I0403 15:08:04.402420 18308 layer_factory.hpp:77] Creating layer relu6
I0403 15:08:04.402442 18308 net.cpp:91] Creating Layer relu6
I0403 15:08:04.402459 18308 net.cpp:425] relu6 <- fc6
I0403 15:08:04.402478 18308 net.cpp:386] relu6 -> fc6 (in-place)
I0403 15:08:04.402698 18308 net.cpp:141] Setting up relu6
I0403 15:08:04.402726 18308 net.cpp:148] Top shape: 100 4096 (409600)
I0403 15:08:04.402741 18308 net.cpp:156] Memory required for data: 824972400
I0403 15:08:04.402755 18308 layer_factory.hpp:77] Creating layer drop6
I0403 15:08:04.402773 18308 net.cpp:91] Creating Layer drop6
I0403 15:08:04.402788 18308 net.cpp:425] drop6 <- fc6
I0403 15:08:04.402807 18308 net.cpp:386] drop6 -> fc6 (in-place)
I0403 15:08:04.402859 18308 net.cpp:141] Setting up drop6
I0403 15:08:04.402885 18308 net.cpp:148] Top shape: 100 4096 (409600)
I0403 15:08:04.402900 18308 net.cpp:156] Memory required for data: 826610800
I0403 15:08:04.402915 18308 layer_factory.hpp:77] Creating layer fc7
I0403 15:08:04.402935 18308 net.cpp:91] Creating Layer fc7
I0403 15:08:04.402951 18308 net.cpp:425] fc7 <- fc6
I0403 15:08:04.402969 18308 net.cpp:399] fc7 -> fc7
I0403 15:08:05.081832 18308 net.cpp:141] Setting up fc7
I0403 15:08:05.081876 18308 net.cpp:148] Top shape: 100 4096 (409600)
I0403 15:08:05.081892 18308 net.cpp:156] Memory required for data: 828249200
I0403 15:08:05.081912 18308 layer_factory.hpp:77] Creating layer relu7
I0403 15:08:05.081933 18308 net.cpp:91] Creating Layer relu7
I0403 15:08:05.081950 18308 net.cpp:425] relu7 <- fc7
I0403 15:08:05.081979 18308 net.cpp:386] relu7 -> fc7 (in-place)
I0403 15:08:05.082399 18308 net.cpp:141] Setting up relu7
I0403 15:08:05.082425 18308 net.cpp:148] Top shape: 100 4096 (409600)
I0403 15:08:05.082480 18308 net.cpp:156] Memory required for data: 829887600
I0403 15:08:05.082495 18308 layer_factory.hpp:77] Creating layer drop7
I0403 15:08:05.082515 18308 net.cpp:91] Creating Layer drop7
I0403 15:08:05.082530 18308 net.cpp:425] drop7 <- fc7
I0403 15:08:05.082550 18308 net.cpp:386] drop7 -> fc7 (in-place)
I0403 15:08:05.082592 18308 net.cpp:141] Setting up drop7
I0403 15:08:05.082617 18308 net.cpp:148] Top shape: 100 4096 (409600)
I0403 15:08:05.082631 18308 net.cpp:156] Memory required for data: 831526000
I0403 15:08:05.082646 18308 layer_factory.hpp:77] Creating layer fc8_plantvillage
I0403 15:08:05.082664 18308 net.cpp:91] Creating Layer fc8_plantvillage
I0403 15:08:05.082679 18308 net.cpp:425] fc8_plantvillage <- fc7
I0403 15:08:05.082698 18308 net.cpp:399] fc8_plantvillage -> fc8_plantvillage
I0403 15:08:05.089283 18308 net.cpp:141] Setting up fc8_plantvillage
I0403 15:08:05.089311 18308 net.cpp:148] Top shape: 100 38 (3800)
I0403 15:08:05.089328 18308 net.cpp:156] Memory required for data: 831541200
I0403 15:08:05.089345 18308 layer_factory.hpp:77] Creating layer fc8_plantvillage_fc8_plantvillage_0_split
I0403 15:08:05.089366 18308 net.cpp:91] Creating Layer fc8_plantvillage_fc8_plantvillage_0_split
I0403 15:08:05.089382 18308 net.cpp:425] fc8_plantvillage_fc8_plantvillage_0_split <- fc8_plantvillage
I0403 15:08:05.089401 18308 net.cpp:399] fc8_plantvillage_fc8_plantvillage_0_split -> fc8_plantvillage_fc8_plantvillage_0_split_0
I0403 15:08:05.089419 18308 net.cpp:399] fc8_plantvillage_fc8_plantvillage_0_split -> fc8_plantvillage_fc8_plantvillage_0_split_1
I0403 15:08:05.089439 18308 net.cpp:399] fc8_plantvillage_fc8_plantvillage_0_split -> fc8_plantvillage_fc8_plantvillage_0_split_2
I0403 15:08:05.089521 18308 net.cpp:141] Setting up fc8_plantvillage_fc8_plantvillage_0_split
I0403 15:08:05.089545 18308 net.cpp:148] Top shape: 100 38 (3800)
I0403 15:08:05.089561 18308 net.cpp:148] Top shape: 100 38 (3800)
I0403 15:08:05.089577 18308 net.cpp:148] Top shape: 100 38 (3800)
I0403 15:08:05.089591 18308 net.cpp:156] Memory required for data: 831586800
I0403 15:08:05.089606 18308 layer_factory.hpp:77] Creating layer prob
I0403 15:08:05.089624 18308 net.cpp:91] Creating Layer prob
I0403 15:08:05.089639 18308 net.cpp:425] prob <- fc8_plantvillage_fc8_plantvillage_0_split_0
I0403 15:08:05.089656 18308 net.cpp:399] prob -> prob
I0403 15:08:05.089881 18308 net.cpp:141] Setting up prob
I0403 15:08:05.089908 18308 net.cpp:148] Top shape: 100 38 (3800)
I0403 15:08:05.089923 18308 net.cpp:156] Memory required for data: 831602000
I0403 15:08:05.089937 18308 layer_factory.hpp:77] Creating layer hdf5out
I0403 15:08:05.089956 18308 net.cpp:91] Creating Layer hdf5out
I0403 15:08:05.089972 18308 net.cpp:425] hdf5out <- prob
I0403 15:08:05.089987 18308 net.cpp:425] hdf5out <- label_data_1_split_0
I0403 15:08:05.092265 18308 net.cpp:141] Setting up hdf5out
…
