…
I0403 15:10:08.278244 18377 net.cpp:313] The NetState phase (1) differed from the phase (0) specified by a rule in layer data
I0403 15:10:08.278561 18377 net.cpp:49] Initializing net from parameters: 
state {
  phase: TEST
}
layer {
  name: "data"
  type: "Data"
  top: "data"
  top: "label"
  include {
    phase: TEST
  }
  transform_param {
    crop_size: 227
    mean_file: "/home/mohanty/data/final_dataset/lmdb/color-80-20/mean.binaryproto"
  }
  data_param {
    source: "/home/mohanty/data/final_dataset/lmdb/color-80-20/test_db"
    batch_size: 100
    backend: LMDB
  }
}
layer {
  name: "conv1"
  type: "Convolution"
  bottom: "data"
  top: "conv1"
  param {
    lr_mult: 1
    decay_mult: 1
  }
  param {
    lr_mult: 2
    decay_mult: 0
  }
  convolution_param {
    num_output: 96
    kernel_size: 11
    stride: 4
    weight_filler {
      type: "gaussian"
      std: 0.01
    }
    bias_filler {
      type: "constant"
      value: 0
    }
  }
}
layer {
  name: "relu1"
  type: "ReLU"
  bottom: "conv1"
  top: "conv1"
}
layer {
  name: "norm1"
  type: "LRN"
  bottom: "conv1"
  top: "norm1"
  lrn_param {
    local_size: 5
    alpha: 0.0001
    beta: 0.75
  }
}
layer {
  name: "pool1"
  type: "Pooling"
  bottom: "norm1"
  top: "pool1"
  pooling_param {
    pool: MAX
    kernel_size: 3
    stride: 2
  }
}
layer {
  name: "conv2"
  type: "Convolution"
  bottom: "pool1"
  top: "conv2"
  param {
    lr_mult: 1
    decay_mult: 1
  }
  param {
    lr_mult: 2
    decay_mult: 0
  }
  convolution_param {
    num_output: 256
    pad: 2
    kernel_size: 5
    group: 2
    weight_filler {
      type: "gaussian"
      std: 0.01
    }
    bias_filler {
      type: "constant"
      value: 0.1
    }
  }
}
layer {
  name: "relu2"
  type: "ReLU"
  bottom: "conv2"
  top: "conv2"
}
layer {
  name: "norm2"
  type: "LRN"
  bottom: "conv2"
  top: "norm2"
  lrn_param {
    local_size: 5
    alpha: 0.0001
    beta: 0.75
  }
}
layer {
  name: "pool2"
  type: "Pooling"
  bottom: "norm2"
  top: "pool2"
  pooling_param {
    pool: MAX
    kernel_size: 3
    stride: 2
  }
}
layer {
  name: "conv3"
  type: "Convolution"
  bottom: "pool2"
  top: "conv3"
  param {
    lr_mult: 1
    decay_mult: 1
  }
  param {
    lr_mult: 2
    decay_mult: 0
  }
  convolution_param {
    num_output: 384
    pad: 1
    kernel_size: 3
    weight_filler {
      type: "gaussian"
      std: 0.01
    }
    bias_filler {
      type: "constant"
      value: 0
    }
  }
}
layer {
  name: "relu3"
  type: "ReLU"
  bottom: "conv3"
  top: "conv3"
}
layer {
  name: "conv4"
  type: "Convolution"
  bottom: "conv3"
  top: "conv4"
  param {
    lr_mult: 1
    decay_mult: 1
  }
  param {
    lr_mult: 2
    decay_mult: 0
  }
  convolution_param {
    num_output: 384
    pad: 1
    kernel_size: 3
    group: 2
    weight_filler {
      type: "gaussian"
      std: 0.01
    }
    bias_filler {
      type: "constant"
      value: 0.1
    }
  }
}
layer {
  name: "relu4"
  type: "ReLU"
  bottom: "conv4"
  top: "conv4"
}
layer {
  name: "conv5"
  type: "Convolution"
  bottom: "conv4"
  top: "conv5"
  param {
    lr_mult: 1
    decay_mult: 1
  }
  param {
    lr_mult: 2
    decay_mult: 0
  }
  convolution_param {
    num_output: 256
    pad: 1
    kernel_size: 3
    group: 2
    weight_filler {
      type: "gaussian"
      std: 0.01
    }
    bias_filler {
      type: "constant"
      value: 0.1
    }
  }
}
layer {
  name: "relu5"
  type: "ReLU"
  bottom: "conv5"
  top: "conv5"
}
layer {
  name: "pool5"
  type: "Pooling"
  bottom: "conv5"
  top: "pool5"
  pooling_param {
    pool: MAX
    kernel_size: 3
    stride: 2
  }
}
layer {
  name: "fc6"
  type: "InnerProduct"
  bottom: "pool5"
  top: "fc6"
  param {
    lr_mult: 1
    decay_mult: 1
  }
  param {
    lr_mult: 2
    decay_mult: 0
  }
  inner_product_param {
    num_output: 4096
    weight_filler {
      type: "gaussian"
      std: 0.005
    }
    bias_filler {
      type: "constant"
      value: 0.1
    }
  }
}
layer {
  name: "relu6"
  type: "ReLU"
  bottom: "fc6"
  top: "fc6"
}
layer {
  name: "drop6"
  type: "Dropout"
  bottom: "fc6"
  top: "fc6"
  dropout_param {
    dropout_ratio: 0.5
  }
}
layer {
  name: "fc7"
  type: "InnerProduct"
  bottom: "fc6"
  top: "fc7"
  param {
    lr_mult: 1
    decay_mult: 1
  }
  param {
    lr_mult: 2
    decay_mult: 0
  }
  inner_product_param {
    num_output: 4096
    weight_filler {
      type: "gaussian"
      std: 0.005
    }
    bias_filler {
      type: "constant"
      value: 0.1
    }
  }
}
layer {
  name: "relu7"
  type: "ReLU"
  bottom: "fc7"
  top: "fc7"
}
layer {
  name: "drop7"
  type: "Dropout"
  bottom: "fc7"
  top: "fc7"
  dropout_param {
    dropout_ratio: 0.5
  }
}
layer {
  name: "fc8_plantvillage"
  type: "InnerProduct"
  bottom: "fc7"
  top: "fc8_plantvillage"
  param {
    lr_mult: 1
    decay_mult: 1
  }
  param {
    lr_mult: 2
    decay_mult: 0
  }
  inner_product_param {
    num_output: 38
    weight_filler {
      type: "gaussian"
      std: 0.01
    }
    bias_filler {
      type: "constant"
      value: 0
    }
  }
}
layer {
  name: "prob"
  type: "Softmax"
  bottom: "fc8_plantvillage"
  top: "prob"
  include {
    phase: TEST
  }
}
layer {
  name: "hdf5out"
  type: "HDF5Output"
  bottom: "prob"
  bottom: "label"
  include {
    phase: TEST
  }
  hdf5_output_param {
    file_name: "hdf5_dumps/iter_10488.h5"
  }
}
layer {
  name: "loss"
  type: "SoftmaxWithLoss"
  bottom: "fc8_plantvillage"
  bottom: "label"
  top: "loss"
}
layer {
  name: "accuracy"
  type: "Accuracy"
  bottom: "fc8_plantvillage"
  bottom: "label"
  top: "accuracy"
  include {
    phase: TEST
  }
}
I0403 15:10:08.279142 18377 layer_factory.hpp:77] Creating layer data
I0403 15:10:08.279793 18377 net.cpp:91] Creating Layer data
I0403 15:10:08.279820 18377 net.cpp:399] data -> data
I0403 15:10:08.279871 18377 net.cpp:399] data -> label
I0403 15:10:08.279907 18377 data_transformer.cpp:25] Loading mean file from: /home/mohanty/data/final_dataset/lmdb/color-80-20/mean.binaryproto
I0403 15:10:08.290954 18380 db_lmdb.cpp:38] Opened lmdb /home/mohanty/data/final_dataset/lmdb/color-80-20/test_db
I0403 15:10:08.293237 18377 data_layer.cpp:41] output data size: 100,3,227,227
I0403 15:10:08.415709 18377 net.cpp:141] Setting up data
I0403 15:10:08.415814 18377 net.cpp:148] Top shape: 100 3 227 227 (15458700)
I0403 15:10:08.415838 18377 net.cpp:148] Top shape: 100 (100)
I0403 15:10:08.415854 18377 net.cpp:156] Memory required for data: 61835200
I0403 15:10:08.415884 18377 layer_factory.hpp:77] Creating layer label_data_1_split
I0403 15:10:08.415910 18377 net.cpp:91] Creating Layer label_data_1_split
I0403 15:10:08.415930 18377 net.cpp:425] label_data_1_split <- label
I0403 15:10:08.415961 18377 net.cpp:399] label_data_1_split -> label_data_1_split_0
I0403 15:10:08.415988 18377 net.cpp:399] label_data_1_split -> label_data_1_split_1
I0403 15:10:08.416009 18377 net.cpp:399] label_data_1_split -> label_data_1_split_2
I0403 15:10:08.416076 18377 net.cpp:141] Setting up label_data_1_split
I0403 15:10:08.416100 18377 net.cpp:148] Top shape: 100 (100)
I0403 15:10:08.416115 18377 net.cpp:148] Top shape: 100 (100)
I0403 15:10:08.416132 18377 net.cpp:148] Top shape: 100 (100)
I0403 15:10:08.416146 18377 net.cpp:156] Memory required for data: 61836400
I0403 15:10:08.416160 18377 layer_factory.hpp:77] Creating layer conv1
I0403 15:10:08.416191 18377 net.cpp:91] Creating Layer conv1
I0403 15:10:08.416209 18377 net.cpp:425] conv1 <- data
I0403 15:10:08.416229 18377 net.cpp:399] conv1 -> conv1
I0403 15:10:08.561316 18377 net.cpp:141] Setting up conv1
I0403 15:10:08.561393 18377 net.cpp:148] Top shape: 100 96 55 55 (29040000)
I0403 15:10:08.561409 18377 net.cpp:156] Memory required for data: 177996400
I0403 15:10:08.561439 18377 layer_factory.hpp:77] Creating layer relu1
I0403 15:10:08.561467 18377 net.cpp:91] Creating Layer relu1
I0403 15:10:08.561485 18377 net.cpp:425] relu1 <- conv1
I0403 15:10:08.561503 18377 net.cpp:386] relu1 -> conv1 (in-place)
I0403 15:10:08.561753 18377 net.cpp:141] Setting up relu1
I0403 15:10:08.561780 18377 net.cpp:148] Top shape: 100 96 55 55 (29040000)
I0403 15:10:08.561830 18377 net.cpp:156] Memory required for data: 294156400
I0403 15:10:08.561879 18377 layer_factory.hpp:77] Creating layer norm1
I0403 15:10:08.561908 18377 net.cpp:91] Creating Layer norm1
I0403 15:10:08.561925 18377 net.cpp:425] norm1 <- conv1
I0403 15:10:08.561942 18377 net.cpp:399] norm1 -> norm1
I0403 15:10:08.562250 18377 net.cpp:141] Setting up norm1
I0403 15:10:08.562278 18377 net.cpp:148] Top shape: 100 96 55 55 (29040000)
I0403 15:10:08.562294 18377 net.cpp:156] Memory required for data: 410316400
I0403 15:10:08.562307 18377 layer_factory.hpp:77] Creating layer pool1
I0403 15:10:08.562330 18377 net.cpp:91] Creating Layer pool1
I0403 15:10:08.562345 18377 net.cpp:425] pool1 <- norm1
I0403 15:10:08.562363 18377 net.cpp:399] pool1 -> pool1
I0403 15:10:08.562428 18377 net.cpp:141] Setting up pool1
I0403 15:10:08.562450 18377 net.cpp:148] Top shape: 100 96 27 27 (6998400)
I0403 15:10:08.562465 18377 net.cpp:156] Memory required for data: 438310000
I0403 15:10:08.562479 18377 layer_factory.hpp:77] Creating layer conv2
I0403 15:10:08.562502 18377 net.cpp:91] Creating Layer conv2
I0403 15:10:08.562518 18377 net.cpp:425] conv2 <- pool1
I0403 15:10:08.562536 18377 net.cpp:399] conv2 -> conv2
I0403 15:10:08.577356 18377 net.cpp:141] Setting up conv2
I0403 15:10:08.577392 18377 net.cpp:148] Top shape: 100 256 27 27 (18662400)
I0403 15:10:08.577409 18377 net.cpp:156] Memory required for data: 512959600
I0403 15:10:08.577430 18377 layer_factory.hpp:77] Creating layer relu2
I0403 15:10:08.577450 18377 net.cpp:91] Creating Layer relu2
I0403 15:10:08.577466 18377 net.cpp:425] relu2 <- conv2
I0403 15:10:08.577482 18377 net.cpp:386] relu2 -> conv2 (in-place)
I0403 15:10:08.577739 18377 net.cpp:141] Setting up relu2
I0403 15:10:08.577766 18377 net.cpp:148] Top shape: 100 256 27 27 (18662400)
I0403 15:10:08.577780 18377 net.cpp:156] Memory required for data: 587609200
I0403 15:10:08.577795 18377 layer_factory.hpp:77] Creating layer norm2
I0403 15:10:08.577814 18377 net.cpp:91] Creating Layer norm2
I0403 15:10:08.577831 18377 net.cpp:425] norm2 <- conv2
I0403 15:10:08.577847 18377 net.cpp:399] norm2 -> norm2
I0403 15:10:08.578033 18377 net.cpp:141] Setting up norm2
I0403 15:10:08.578059 18377 net.cpp:148] Top shape: 100 256 27 27 (18662400)
I0403 15:10:08.578074 18377 net.cpp:156] Memory required for data: 662258800
I0403 15:10:08.578088 18377 layer_factory.hpp:77] Creating layer pool2
I0403 15:10:08.578105 18377 net.cpp:91] Creating Layer pool2
I0403 15:10:08.578120 18377 net.cpp:425] pool2 <- norm2
I0403 15:10:08.578137 18377 net.cpp:399] pool2 -> pool2
I0403 15:10:08.578184 18377 net.cpp:141] Setting up pool2
I0403 15:10:08.578207 18377 net.cpp:148] Top shape: 100 256 13 13 (4326400)
I0403 15:10:08.578220 18377 net.cpp:156] Memory required for data: 679564400
I0403 15:10:08.578233 18377 layer_factory.hpp:77] Creating layer conv3
I0403 15:10:08.578253 18377 net.cpp:91] Creating Layer conv3
I0403 15:10:08.578269 18377 net.cpp:425] conv3 <- pool2
I0403 15:10:08.578286 18377 net.cpp:399] conv3 -> conv3
I0403 15:10:08.619717 18377 net.cpp:141] Setting up conv3
I0403 15:10:08.619791 18377 net.cpp:148] Top shape: 100 384 13 13 (6489600)
I0403 15:10:08.619807 18377 net.cpp:156] Memory required for data: 705522800
I0403 15:10:08.619833 18377 layer_factory.hpp:77] Creating layer relu3
I0403 15:10:08.619854 18377 net.cpp:91] Creating Layer relu3
I0403 15:10:08.619873 18377 net.cpp:425] relu3 <- conv3
I0403 15:10:08.619896 18377 net.cpp:386] relu3 -> conv3 (in-place)
I0403 15:10:08.620164 18377 net.cpp:141] Setting up relu3
I0403 15:10:08.620193 18377 net.cpp:148] Top shape: 100 384 13 13 (6489600)
I0403 15:10:08.620209 18377 net.cpp:156] Memory required for data: 731481200
I0403 15:10:08.620224 18377 layer_factory.hpp:77] Creating layer conv4
I0403 15:10:08.620249 18377 net.cpp:91] Creating Layer conv4
I0403 15:10:08.620265 18377 net.cpp:425] conv4 <- conv3
I0403 15:10:08.620285 18377 net.cpp:399] conv4 -> conv4
I0403 15:10:08.650849 18377 net.cpp:141] Setting up conv4
I0403 15:10:08.650892 18377 net.cpp:148] Top shape: 100 384 13 13 (6489600)
I0403 15:10:08.650938 18377 net.cpp:156] Memory required for data: 757439600
I0403 15:10:08.650959 18377 layer_factory.hpp:77] Creating layer relu4
I0403 15:10:08.650980 18377 net.cpp:91] Creating Layer relu4
I0403 15:10:08.651000 18377 net.cpp:425] relu4 <- conv4
I0403 15:10:08.651022 18377 net.cpp:386] relu4 -> conv4 (in-place)
I0403 15:10:08.651301 18377 net.cpp:141] Setting up relu4
I0403 15:10:08.651327 18377 net.cpp:148] Top shape: 100 384 13 13 (6489600)
I0403 15:10:08.651343 18377 net.cpp:156] Memory required for data: 783398000
I0403 15:10:08.651357 18377 layer_factory.hpp:77] Creating layer conv5
I0403 15:10:08.651386 18377 net.cpp:91] Creating Layer conv5
I0403 15:10:08.651402 18377 net.cpp:425] conv5 <- conv4
I0403 15:10:08.651423 18377 net.cpp:399] conv5 -> conv5
I0403 15:10:08.672216 18377 net.cpp:141] Setting up conv5
I0403 15:10:08.672251 18377 net.cpp:148] Top shape: 100 256 13 13 (4326400)
I0403 15:10:08.672268 18377 net.cpp:156] Memory required for data: 800703600
I0403 15:10:08.672294 18377 layer_factory.hpp:77] Creating layer relu5
I0403 15:10:08.672313 18377 net.cpp:91] Creating Layer relu5
I0403 15:10:08.672329 18377 net.cpp:425] relu5 <- conv5
I0403 15:10:08.672348 18377 net.cpp:386] relu5 -> conv5 (in-place)
I0403 15:10:08.672622 18377 net.cpp:141] Setting up relu5
I0403 15:10:08.672651 18377 net.cpp:148] Top shape: 100 256 13 13 (4326400)
I0403 15:10:08.672667 18377 net.cpp:156] Memory required for data: 818009200
I0403 15:10:08.672680 18377 layer_factory.hpp:77] Creating layer pool5
I0403 15:10:08.672701 18377 net.cpp:91] Creating Layer pool5
I0403 15:10:08.672716 18377 net.cpp:425] pool5 <- conv5
I0403 15:10:08.672737 18377 net.cpp:399] pool5 -> pool5
I0403 15:10:08.672794 18377 net.cpp:141] Setting up pool5
I0403 15:10:08.672817 18377 net.cpp:148] Top shape: 100 256 6 6 (921600)
I0403 15:10:08.672832 18377 net.cpp:156] Memory required for data: 821695600
I0403 15:10:08.672845 18377 layer_factory.hpp:77] Creating layer fc6
I0403 15:10:08.672873 18377 net.cpp:91] Creating Layer fc6
I0403 15:10:08.672890 18377 net.cpp:425] fc6 <- pool5
I0403 15:10:08.672914 18377 net.cpp:399] fc6 -> fc6
I0403 15:10:10.222735 18377 net.cpp:141] Setting up fc6
I0403 15:10:10.222777 18377 net.cpp:148] Top shape: 100 4096 (409600)
I0403 15:10:10.222792 18377 net.cpp:156] Memory required for data: 823334000
I0403 15:10:10.222812 18377 layer_factory.hpp:77] Creating layer relu6
I0403 15:10:10.222833 18377 net.cpp:91] Creating Layer relu6
I0403 15:10:10.222849 18377 net.cpp:425] relu6 <- fc6
I0403 15:10:10.222869 18377 net.cpp:386] relu6 -> fc6 (in-place)
I0403 15:10:10.223088 18377 net.cpp:141] Setting up relu6
I0403 15:10:10.223115 18377 net.cpp:148] Top shape: 100 4096 (409600)
I0403 15:10:10.223130 18377 net.cpp:156] Memory required for data: 824972400
I0403 15:10:10.223143 18377 layer_factory.hpp:77] Creating layer drop6
I0403 15:10:10.223161 18377 net.cpp:91] Creating Layer drop6
I0403 15:10:10.223176 18377 net.cpp:425] drop6 <- fc6
I0403 15:10:10.223192 18377 net.cpp:386] drop6 -> fc6 (in-place)
I0403 15:10:10.223244 18377 net.cpp:141] Setting up drop6
I0403 15:10:10.223266 18377 net.cpp:148] Top shape: 100 4096 (409600)
I0403 15:10:10.223280 18377 net.cpp:156] Memory required for data: 826610800
I0403 15:10:10.223294 18377 layer_factory.hpp:77] Creating layer fc7
I0403 15:10:10.223316 18377 net.cpp:91] Creating Layer fc7
I0403 15:10:10.223332 18377 net.cpp:425] fc7 <- fc6
I0403 15:10:10.223350 18377 net.cpp:399] fc7 -> fc7
I0403 15:10:10.902740 18377 net.cpp:141] Setting up fc7
I0403 15:10:10.902817 18377 net.cpp:148] Top shape: 100 4096 (409600)
I0403 15:10:10.902833 18377 net.cpp:156] Memory required for data: 828249200
I0403 15:10:10.902853 18377 layer_factory.hpp:77] Creating layer relu7
I0403 15:10:10.902878 18377 net.cpp:91] Creating Layer relu7
I0403 15:10:10.902895 18377 net.cpp:425] relu7 <- fc7
I0403 15:10:10.902915 18377 net.cpp:386] relu7 -> fc7 (in-place)
I0403 15:10:10.903364 18377 net.cpp:141] Setting up relu7
I0403 15:10:10.903403 18377 net.cpp:148] Top shape: 100 4096 (409600)
I0403 15:10:10.903448 18377 net.cpp:156] Memory required for data: 829887600
I0403 15:10:10.903465 18377 layer_factory.hpp:77] Creating layer drop7
I0403 15:10:10.903486 18377 net.cpp:91] Creating Layer drop7
I0403 15:10:10.903501 18377 net.cpp:425] drop7 <- fc7
I0403 15:10:10.903518 18377 net.cpp:386] drop7 -> fc7 (in-place)
I0403 15:10:10.903563 18377 net.cpp:141] Setting up drop7
I0403 15:10:10.903584 18377 net.cpp:148] Top shape: 100 4096 (409600)
I0403 15:10:10.903599 18377 net.cpp:156] Memory required for data: 831526000
I0403 15:10:10.903612 18377 layer_factory.hpp:77] Creating layer fc8_plantvillage
I0403 15:10:10.903633 18377 net.cpp:91] Creating Layer fc8_plantvillage
I0403 15:10:10.903650 18377 net.cpp:425] fc8_plantvillage <- fc7
I0403 15:10:10.903667 18377 net.cpp:399] fc8_plantvillage -> fc8_plantvillage
I0403 15:10:10.910475 18377 net.cpp:141] Setting up fc8_plantvillage
I0403 15:10:10.910501 18377 net.cpp:148] Top shape: 100 38 (3800)
I0403 15:10:10.910517 18377 net.cpp:156] Memory required for data: 831541200
I0403 15:10:10.910534 18377 layer_factory.hpp:77] Creating layer fc8_plantvillage_fc8_plantvillage_0_split
I0403 15:10:10.910552 18377 net.cpp:91] Creating Layer fc8_plantvillage_fc8_plantvillage_0_split
I0403 15:10:10.910567 18377 net.cpp:425] fc8_plantvillage_fc8_plantvillage_0_split <- fc8_plantvillage
I0403 15:10:10.910584 18377 net.cpp:399] fc8_plantvillage_fc8_plantvillage_0_split -> fc8_plantvillage_fc8_plantvillage_0_split_0
I0403 15:10:10.910606 18377 net.cpp:399] fc8_plantvillage_fc8_plantvillage_0_split -> fc8_plantvillage_fc8_plantvillage_0_split_1
I0403 15:10:10.910626 18377 net.cpp:399] fc8_plantvillage_fc8_plantvillage_0_split -> fc8_plantvillage_fc8_plantvillage_0_split_2
I0403 15:10:10.910702 18377 net.cpp:141] Setting up fc8_plantvillage_fc8_plantvillage_0_split
I0403 15:10:10.910725 18377 net.cpp:148] Top shape: 100 38 (3800)
I0403 15:10:10.910740 18377 net.cpp:148] Top shape: 100 38 (3800)
I0403 15:10:10.910755 18377 net.cpp:148] Top shape: 100 38 (3800)
I0403 15:10:10.910768 18377 net.cpp:156] Memory required for data: 831586800
I0403 15:10:10.910783 18377 layer_factory.hpp:77] Creating layer prob
I0403 15:10:10.910799 18377 net.cpp:91] Creating Layer prob
I0403 15:10:10.910815 18377 net.cpp:425] prob <- fc8_plantvillage_fc8_plantvillage_0_split_0
I0403 15:10:10.910832 18377 net.cpp:399] prob -> prob
I0403 15:10:10.911072 18377 net.cpp:141] Setting up prob
I0403 15:10:10.911098 18377 net.cpp:148] Top shape: 100 38 (3800)
I0403 15:10:10.911113 18377 net.cpp:156] Memory required for data: 831602000
I0403 15:10:10.911126 18377 layer_factory.hpp:77] Creating layer hdf5out
I0403 15:10:10.911149 18377 net.cpp:91] Creating Layer hdf5out
I0403 15:10:10.911165 18377 net.cpp:425] hdf5out <- prob
I0403 15:10:10.911181 18377 net.cpp:425] hdf5out <- label_data_1_split_0
I0403 15:10:10.913682 18377 net.cpp:141] Setting up hdf5out
…
