…
I0403 15:08:52.783674 18327 net.cpp:313] The NetState phase (1) differed from the phase (0) specified by a rule in layer data
I0403 15:08:52.783998 18327 net.cpp:49] Initializing net from parameters: 
state {
  phase: TEST
}
layer {
  name: "data"
  type: "Data"
  top: "data"
  top: "label"
  include {
    phase: TEST
  }
  transform_param {
    crop_size: 227
    mean_file: "/home/mohanty/data/final_dataset/lmdb/color-80-20/mean.binaryproto"
  }
  data_param {
    source: "/home/mohanty/data/final_dataset/lmdb/color-80-20/test_db"
    batch_size: 100
    backend: LMDB
  }
}
layer {
  name: "conv1"
  type: "Convolution"
  bottom: "data"
  top: "conv1"
  param {
    lr_mult: 1
    decay_mult: 1
  }
  param {
    lr_mult: 2
    decay_mult: 0
  }
  convolution_param {
    num_output: 96
    kernel_size: 11
    stride: 4
    weight_filler {
      type: "gaussian"
      std: 0.01
    }
    bias_filler {
      type: "constant"
      value: 0
    }
  }
}
layer {
  name: "relu1"
  type: "ReLU"
  bottom: "conv1"
  top: "conv1"
}
layer {
  name: "norm1"
  type: "LRN"
  bottom: "conv1"
  top: "norm1"
  lrn_param {
    local_size: 5
    alpha: 0.0001
    beta: 0.75
  }
}
layer {
  name: "pool1"
  type: "Pooling"
  bottom: "norm1"
  top: "pool1"
  pooling_param {
    pool: MAX
    kernel_size: 3
    stride: 2
  }
}
layer {
  name: "conv2"
  type: "Convolution"
  bottom: "pool1"
  top: "conv2"
  param {
    lr_mult: 1
    decay_mult: 1
  }
  param {
    lr_mult: 2
    decay_mult: 0
  }
  convolution_param {
    num_output: 256
    pad: 2
    kernel_size: 5
    group: 2
    weight_filler {
      type: "gaussian"
      std: 0.01
    }
    bias_filler {
      type: "constant"
      value: 0.1
    }
  }
}
layer {
  name: "relu2"
  type: "ReLU"
  bottom: "conv2"
  top: "conv2"
}
layer {
  name: "norm2"
  type: "LRN"
  bottom: "conv2"
  top: "norm2"
  lrn_param {
    local_size: 5
    alpha: 0.0001
    beta: 0.75
  }
}
layer {
  name: "pool2"
  type: "Pooling"
  bottom: "norm2"
  top: "pool2"
  pooling_param {
    pool: MAX
    kernel_size: 3
    stride: 2
  }
}
layer {
  name: "conv3"
  type: "Convolution"
  bottom: "pool2"
  top: "conv3"
  param {
    lr_mult: 1
    decay_mult: 1
  }
  param {
    lr_mult: 2
    decay_mult: 0
  }
  convolution_param {
    num_output: 384
    pad: 1
    kernel_size: 3
    weight_filler {
      type: "gaussian"
      std: 0.01
    }
    bias_filler {
      type: "constant"
      value: 0
    }
  }
}
layer {
  name: "relu3"
  type: "ReLU"
  bottom: "conv3"
  top: "conv3"
}
layer {
  name: "conv4"
  type: "Convolution"
  bottom: "conv3"
  top: "conv4"
  param {
    lr_mult: 1
    decay_mult: 1
  }
  param {
    lr_mult: 2
    decay_mult: 0
  }
  convolution_param {
    num_output: 384
    pad: 1
    kernel_size: 3
    group: 2
    weight_filler {
      type: "gaussian"
      std: 0.01
    }
    bias_filler {
      type: "constant"
      value: 0.1
    }
  }
}
layer {
  name: "relu4"
  type: "ReLU"
  bottom: "conv4"
  top: "conv4"
}
layer {
  name: "conv5"
  type: "Convolution"
  bottom: "conv4"
  top: "conv5"
  param {
    lr_mult: 1
    decay_mult: 1
  }
  param {
    lr_mult: 2
    decay_mult: 0
  }
  convolution_param {
    num_output: 256
    pad: 1
    kernel_size: 3
    group: 2
    weight_filler {
      type: "gaussian"
      std: 0.01
    }
    bias_filler {
      type: "constant"
      value: 0.1
    }
  }
}
layer {
  name: "relu5"
  type: "ReLU"
  bottom: "conv5"
  top: "conv5"
}
layer {
  name: "pool5"
  type: "Pooling"
  bottom: "conv5"
  top: "pool5"
  pooling_param {
    pool: MAX
    kernel_size: 3
    stride: 2
  }
}
layer {
  name: "fc6"
  type: "InnerProduct"
  bottom: "pool5"
  top: "fc6"
  param {
    lr_mult: 1
    decay_mult: 1
  }
  param {
    lr_mult: 2
    decay_mult: 0
  }
  inner_product_param {
    num_output: 4096
    weight_filler {
      type: "gaussian"
      std: 0.005
    }
    bias_filler {
      type: "constant"
      value: 0.1
    }
  }
}
layer {
  name: "relu6"
  type: "ReLU"
  bottom: "fc6"
  top: "fc6"
}
layer {
  name: "drop6"
  type: "Dropout"
  bottom: "fc6"
  top: "fc6"
  dropout_param {
    dropout_ratio: 0.5
  }
}
layer {
  name: "fc7"
  type: "InnerProduct"
  bottom: "fc6"
  top: "fc7"
  param {
    lr_mult: 1
    decay_mult: 1
  }
  param {
    lr_mult: 2
    decay_mult: 0
  }
  inner_product_param {
    num_output: 4096
    weight_filler {
      type: "gaussian"
      std: 0.005
    }
    bias_filler {
      type: "constant"
      value: 0.1
    }
  }
}
layer {
  name: "relu7"
  type: "ReLU"
  bottom: "fc7"
  top: "fc7"
}
layer {
  name: "drop7"
  type: "Dropout"
  bottom: "fc7"
  top: "fc7"
  dropout_param {
    dropout_ratio: 0.5
  }
}
layer {
  name: "fc8_plantvillage"
  type: "InnerProduct"
  bottom: "fc7"
  top: "fc8_plantvillage"
  param {
    lr_mult: 1
    decay_mult: 1
  }
  param {
    lr_mult: 2
    decay_mult: 0
  }
  inner_product_param {
    num_output: 38
    weight_filler {
      type: "gaussian"
      std: 0.01
    }
    bias_filler {
      type: "constant"
      value: 0
    }
  }
}
layer {
  name: "prob"
  type: "Softmax"
  bottom: "fc8_plantvillage"
  top: "prob"
  include {
    phase: TEST
  }
}
layer {
  name: "hdf5out"
  type: "HDF5Output"
  bottom: "prob"
  bottom: "label"
  include {
    phase: TEST
  }
  hdf5_output_param {
    file_name: "hdf5_dumps/iter_9177.h5"
  }
}
layer {
  name: "loss"
  type: "SoftmaxWithLoss"
  bottom: "fc8_plantvillage"
  bottom: "label"
  top: "loss"
}
layer {
  name: "accuracy"
  type: "Accuracy"
  bottom: "fc8_plantvillage"
  bottom: "label"
  top: "accuracy"
  include {
    phase: TEST
  }
}
I0403 15:08:52.784567 18327 layer_factory.hpp:77] Creating layer data
I0403 15:08:52.785193 18327 net.cpp:91] Creating Layer data
I0403 15:08:52.785225 18327 net.cpp:399] data -> data
I0403 15:08:52.785276 18327 net.cpp:399] data -> label
I0403 15:08:52.785312 18327 data_transformer.cpp:25] Loading mean file from: /home/mohanty/data/final_dataset/lmdb/color-80-20/mean.binaryproto
I0403 15:08:52.787817 18331 db_lmdb.cpp:38] Opened lmdb /home/mohanty/data/final_dataset/lmdb/color-80-20/test_db
I0403 15:08:52.799705 18327 data_layer.cpp:41] output data size: 100,3,227,227
I0403 15:08:52.920488 18327 net.cpp:141] Setting up data
I0403 15:08:52.920595 18327 net.cpp:148] Top shape: 100 3 227 227 (15458700)
I0403 15:08:52.920617 18327 net.cpp:148] Top shape: 100 (100)
I0403 15:08:52.920632 18327 net.cpp:156] Memory required for data: 61835200
I0403 15:08:52.920660 18327 layer_factory.hpp:77] Creating layer label_data_1_split
I0403 15:08:52.920686 18327 net.cpp:91] Creating Layer label_data_1_split
I0403 15:08:52.920704 18327 net.cpp:425] label_data_1_split <- label
I0403 15:08:52.920735 18327 net.cpp:399] label_data_1_split -> label_data_1_split_0
I0403 15:08:52.920763 18327 net.cpp:399] label_data_1_split -> label_data_1_split_1
I0403 15:08:52.920781 18327 net.cpp:399] label_data_1_split -> label_data_1_split_2
I0403 15:08:52.920843 18327 net.cpp:141] Setting up label_data_1_split
I0403 15:08:52.920866 18327 net.cpp:148] Top shape: 100 (100)
I0403 15:08:52.920882 18327 net.cpp:148] Top shape: 100 (100)
I0403 15:08:52.920898 18327 net.cpp:148] Top shape: 100 (100)
I0403 15:08:52.920912 18327 net.cpp:156] Memory required for data: 61836400
I0403 15:08:52.920928 18327 layer_factory.hpp:77] Creating layer conv1
I0403 15:08:52.920958 18327 net.cpp:91] Creating Layer conv1
I0403 15:08:52.920975 18327 net.cpp:425] conv1 <- data
I0403 15:08:52.920994 18327 net.cpp:399] conv1 -> conv1
I0403 15:08:53.063655 18327 net.cpp:141] Setting up conv1
I0403 15:08:53.063725 18327 net.cpp:148] Top shape: 100 96 55 55 (29040000)
I0403 15:08:53.063742 18327 net.cpp:156] Memory required for data: 177996400
I0403 15:08:53.063774 18327 layer_factory.hpp:77] Creating layer relu1
I0403 15:08:53.063802 18327 net.cpp:91] Creating Layer relu1
I0403 15:08:53.063820 18327 net.cpp:425] relu1 <- conv1
I0403 15:08:53.063839 18327 net.cpp:386] relu1 -> conv1 (in-place)
I0403 15:08:53.064103 18327 net.cpp:141] Setting up relu1
I0403 15:08:53.064133 18327 net.cpp:148] Top shape: 100 96 55 55 (29040000)
I0403 15:08:53.064152 18327 net.cpp:156] Memory required for data: 294156400
I0403 15:08:53.064203 18327 layer_factory.hpp:77] Creating layer norm1
I0403 15:08:53.064232 18327 net.cpp:91] Creating Layer norm1
I0403 15:08:53.064250 18327 net.cpp:425] norm1 <- conv1
I0403 15:08:53.064268 18327 net.cpp:399] norm1 -> norm1
I0403 15:08:53.064579 18327 net.cpp:141] Setting up norm1
I0403 15:08:53.064606 18327 net.cpp:148] Top shape: 100 96 55 55 (29040000)
I0403 15:08:53.064622 18327 net.cpp:156] Memory required for data: 410316400
I0403 15:08:53.064638 18327 layer_factory.hpp:77] Creating layer pool1
I0403 15:08:53.064661 18327 net.cpp:91] Creating Layer pool1
I0403 15:08:53.064678 18327 net.cpp:425] pool1 <- norm1
I0403 15:08:53.064697 18327 net.cpp:399] pool1 -> pool1
I0403 15:08:53.064764 18327 net.cpp:141] Setting up pool1
I0403 15:08:53.064787 18327 net.cpp:148] Top shape: 100 96 27 27 (6998400)
I0403 15:08:53.064802 18327 net.cpp:156] Memory required for data: 438310000
I0403 15:08:53.064818 18327 layer_factory.hpp:77] Creating layer conv2
I0403 15:08:53.064842 18327 net.cpp:91] Creating Layer conv2
I0403 15:08:53.064860 18327 net.cpp:425] conv2 <- pool1
I0403 15:08:53.064878 18327 net.cpp:399] conv2 -> conv2
I0403 15:08:53.079857 18327 net.cpp:141] Setting up conv2
I0403 15:08:53.079911 18327 net.cpp:148] Top shape: 100 256 27 27 (18662400)
I0403 15:08:53.079928 18327 net.cpp:156] Memory required for data: 512959600
I0403 15:08:53.079952 18327 layer_factory.hpp:77] Creating layer relu2
I0403 15:08:53.079975 18327 net.cpp:91] Creating Layer relu2
I0403 15:08:53.079993 18327 net.cpp:425] relu2 <- conv2
I0403 15:08:53.080013 18327 net.cpp:386] relu2 -> conv2 (in-place)
I0403 15:08:53.080307 18327 net.cpp:141] Setting up relu2
I0403 15:08:53.080334 18327 net.cpp:148] Top shape: 100 256 27 27 (18662400)
I0403 15:08:53.080350 18327 net.cpp:156] Memory required for data: 587609200
I0403 15:08:53.080365 18327 layer_factory.hpp:77] Creating layer norm2
I0403 15:08:53.080389 18327 net.cpp:91] Creating Layer norm2
I0403 15:08:53.080407 18327 net.cpp:425] norm2 <- conv2
I0403 15:08:53.080428 18327 net.cpp:399] norm2 -> norm2
I0403 15:08:53.080632 18327 net.cpp:141] Setting up norm2
I0403 15:08:53.080658 18327 net.cpp:148] Top shape: 100 256 27 27 (18662400)
I0403 15:08:53.080673 18327 net.cpp:156] Memory required for data: 662258800
I0403 15:08:53.080689 18327 layer_factory.hpp:77] Creating layer pool2
I0403 15:08:53.080708 18327 net.cpp:91] Creating Layer pool2
I0403 15:08:53.080724 18327 net.cpp:425] pool2 <- norm2
I0403 15:08:53.080744 18327 net.cpp:399] pool2 -> pool2
I0403 15:08:53.080801 18327 net.cpp:141] Setting up pool2
I0403 15:08:53.080824 18327 net.cpp:148] Top shape: 100 256 13 13 (4326400)
I0403 15:08:53.080839 18327 net.cpp:156] Memory required for data: 679564400
I0403 15:08:53.080855 18327 layer_factory.hpp:77] Creating layer conv3
I0403 15:08:53.080879 18327 net.cpp:91] Creating Layer conv3
I0403 15:08:53.080898 18327 net.cpp:425] conv3 <- pool2
I0403 15:08:53.080919 18327 net.cpp:399] conv3 -> conv3
I0403 15:08:53.122961 18327 net.cpp:141] Setting up conv3
I0403 15:08:53.123049 18327 net.cpp:148] Top shape: 100 384 13 13 (6489600)
I0403 15:08:53.123069 18327 net.cpp:156] Memory required for data: 705522800
I0403 15:08:53.123092 18327 layer_factory.hpp:77] Creating layer relu3
I0403 15:08:53.123113 18327 net.cpp:91] Creating Layer relu3
I0403 15:08:53.123131 18327 net.cpp:425] relu3 <- conv3
I0403 15:08:53.123152 18327 net.cpp:386] relu3 -> conv3 (in-place)
I0403 15:08:53.123422 18327 net.cpp:141] Setting up relu3
I0403 15:08:53.123448 18327 net.cpp:148] Top shape: 100 384 13 13 (6489600)
I0403 15:08:53.123463 18327 net.cpp:156] Memory required for data: 731481200
I0403 15:08:53.123479 18327 layer_factory.hpp:77] Creating layer conv4
I0403 15:08:53.123504 18327 net.cpp:91] Creating Layer conv4
I0403 15:08:53.123522 18327 net.cpp:425] conv4 <- conv3
I0403 15:08:53.123543 18327 net.cpp:399] conv4 -> conv4
I0403 15:08:53.152873 18327 net.cpp:141] Setting up conv4
I0403 15:08:53.152912 18327 net.cpp:148] Top shape: 100 384 13 13 (6489600)
I0403 15:08:53.152951 18327 net.cpp:156] Memory required for data: 757439600
I0403 15:08:53.152976 18327 layer_factory.hpp:77] Creating layer relu4
I0403 15:08:53.152998 18327 net.cpp:91] Creating Layer relu4
I0403 15:08:53.153022 18327 net.cpp:425] relu4 <- conv4
I0403 15:08:53.153045 18327 net.cpp:386] relu4 -> conv4 (in-place)
I0403 15:08:53.153337 18327 net.cpp:141] Setting up relu4
I0403 15:08:53.153365 18327 net.cpp:148] Top shape: 100 384 13 13 (6489600)
I0403 15:08:53.153383 18327 net.cpp:156] Memory required for data: 783398000
I0403 15:08:53.153399 18327 layer_factory.hpp:77] Creating layer conv5
I0403 15:08:53.153424 18327 net.cpp:91] Creating Layer conv5
I0403 15:08:53.153442 18327 net.cpp:425] conv5 <- conv4
I0403 15:08:53.153465 18327 net.cpp:399] conv5 -> conv5
I0403 15:08:53.174666 18327 net.cpp:141] Setting up conv5
I0403 15:08:53.174731 18327 net.cpp:148] Top shape: 100 256 13 13 (4326400)
I0403 15:08:53.174746 18327 net.cpp:156] Memory required for data: 800703600
I0403 15:08:53.174772 18327 layer_factory.hpp:77] Creating layer relu5
I0403 15:08:53.174796 18327 net.cpp:91] Creating Layer relu5
I0403 15:08:53.174815 18327 net.cpp:425] relu5 <- conv5
I0403 15:08:53.174834 18327 net.cpp:386] relu5 -> conv5 (in-place)
I0403 15:08:53.175127 18327 net.cpp:141] Setting up relu5
I0403 15:08:53.175153 18327 net.cpp:148] Top shape: 100 256 13 13 (4326400)
I0403 15:08:53.175168 18327 net.cpp:156] Memory required for data: 818009200
I0403 15:08:53.175184 18327 layer_factory.hpp:77] Creating layer pool5
I0403 15:08:53.175210 18327 net.cpp:91] Creating Layer pool5
I0403 15:08:53.175228 18327 net.cpp:425] pool5 <- conv5
I0403 15:08:53.175247 18327 net.cpp:399] pool5 -> pool5
I0403 15:08:53.175312 18327 net.cpp:141] Setting up pool5
I0403 15:08:53.175334 18327 net.cpp:148] Top shape: 100 256 6 6 (921600)
I0403 15:08:53.175350 18327 net.cpp:156] Memory required for data: 821695600
I0403 15:08:53.175365 18327 layer_factory.hpp:77] Creating layer fc6
I0403 15:08:53.175398 18327 net.cpp:91] Creating Layer fc6
I0403 15:08:53.175417 18327 net.cpp:425] fc6 <- pool5
I0403 15:08:53.175442 18327 net.cpp:399] fc6 -> fc6
I0403 15:08:54.740008 18327 net.cpp:141] Setting up fc6
I0403 15:08:54.740069 18327 net.cpp:148] Top shape: 100 4096 (409600)
I0403 15:08:54.740085 18327 net.cpp:156] Memory required for data: 823334000
I0403 15:08:54.740106 18327 layer_factory.hpp:77] Creating layer relu6
I0403 15:08:54.740128 18327 net.cpp:91] Creating Layer relu6
I0403 15:08:54.740145 18327 net.cpp:425] relu6 <- fc6
I0403 15:08:54.740164 18327 net.cpp:386] relu6 -> fc6 (in-place)
I0403 15:08:54.740386 18327 net.cpp:141] Setting up relu6
I0403 15:08:54.740411 18327 net.cpp:148] Top shape: 100 4096 (409600)
I0403 15:08:54.740425 18327 net.cpp:156] Memory required for data: 824972400
I0403 15:08:54.740440 18327 layer_factory.hpp:77] Creating layer drop6
I0403 15:08:54.740459 18327 net.cpp:91] Creating Layer drop6
I0403 15:08:54.740474 18327 net.cpp:425] drop6 <- fc6
I0403 15:08:54.740494 18327 net.cpp:386] drop6 -> fc6 (in-place)
I0403 15:08:54.740546 18327 net.cpp:141] Setting up drop6
I0403 15:08:54.740571 18327 net.cpp:148] Top shape: 100 4096 (409600)
I0403 15:08:54.740587 18327 net.cpp:156] Memory required for data: 826610800
I0403 15:08:54.740602 18327 layer_factory.hpp:77] Creating layer fc7
I0403 15:08:54.740622 18327 net.cpp:91] Creating Layer fc7
I0403 15:08:54.740638 18327 net.cpp:425] fc7 <- fc6
I0403 15:08:54.740656 18327 net.cpp:399] fc7 -> fc7
I0403 15:08:55.420164 18327 net.cpp:141] Setting up fc7
I0403 15:08:55.420205 18327 net.cpp:148] Top shape: 100 4096 (409600)
I0403 15:08:55.420222 18327 net.cpp:156] Memory required for data: 828249200
I0403 15:08:55.420243 18327 layer_factory.hpp:77] Creating layer relu7
I0403 15:08:55.420280 18327 net.cpp:91] Creating Layer relu7
I0403 15:08:55.420298 18327 net.cpp:425] relu7 <- fc7
I0403 15:08:55.420332 18327 net.cpp:386] relu7 -> fc7 (in-place)
I0403 15:08:55.420764 18327 net.cpp:141] Setting up relu7
I0403 15:08:55.420791 18327 net.cpp:148] Top shape: 100 4096 (409600)
I0403 15:08:55.420837 18327 net.cpp:156] Memory required for data: 829887600
I0403 15:08:55.420855 18327 layer_factory.hpp:77] Creating layer drop7
I0403 15:08:55.420874 18327 net.cpp:91] Creating Layer drop7
I0403 15:08:55.420891 18327 net.cpp:425] drop7 <- fc7
I0403 15:08:55.420912 18327 net.cpp:386] drop7 -> fc7 (in-place)
I0403 15:08:55.420956 18327 net.cpp:141] Setting up drop7
I0403 15:08:55.420981 18327 net.cpp:148] Top shape: 100 4096 (409600)
I0403 15:08:55.420996 18327 net.cpp:156] Memory required for data: 831526000
I0403 15:08:55.421012 18327 layer_factory.hpp:77] Creating layer fc8_plantvillage
I0403 15:08:55.421037 18327 net.cpp:91] Creating Layer fc8_plantvillage
I0403 15:08:55.421054 18327 net.cpp:425] fc8_plantvillage <- fc7
I0403 15:08:55.421078 18327 net.cpp:399] fc8_plantvillage -> fc8_plantvillage
I0403 15:08:55.427819 18327 net.cpp:141] Setting up fc8_plantvillage
I0403 15:08:55.427846 18327 net.cpp:148] Top shape: 100 38 (3800)
I0403 15:08:55.427861 18327 net.cpp:156] Memory required for data: 831541200
I0403 15:08:55.427880 18327 layer_factory.hpp:77] Creating layer fc8_plantvillage_fc8_plantvillage_0_split
I0403 15:08:55.427899 18327 net.cpp:91] Creating Layer fc8_plantvillage_fc8_plantvillage_0_split
I0403 15:08:55.427917 18327 net.cpp:425] fc8_plantvillage_fc8_plantvillage_0_split <- fc8_plantvillage
I0403 15:08:55.427933 18327 net.cpp:399] fc8_plantvillage_fc8_plantvillage_0_split -> fc8_plantvillage_fc8_plantvillage_0_split_0
I0403 15:08:55.427953 18327 net.cpp:399] fc8_plantvillage_fc8_plantvillage_0_split -> fc8_plantvillage_fc8_plantvillage_0_split_1
I0403 15:08:55.427973 18327 net.cpp:399] fc8_plantvillage_fc8_plantvillage_0_split -> fc8_plantvillage_fc8_plantvillage_0_split_2
I0403 15:08:55.428066 18327 net.cpp:141] Setting up fc8_plantvillage_fc8_plantvillage_0_split
I0403 15:08:55.428091 18327 net.cpp:148] Top shape: 100 38 (3800)
I0403 15:08:55.428110 18327 net.cpp:148] Top shape: 100 38 (3800)
I0403 15:08:55.428125 18327 net.cpp:148] Top shape: 100 38 (3800)
I0403 15:08:55.428139 18327 net.cpp:156] Memory required for data: 831586800
I0403 15:08:55.428153 18327 layer_factory.hpp:77] Creating layer prob
I0403 15:08:55.428172 18327 net.cpp:91] Creating Layer prob
I0403 15:08:55.428187 18327 net.cpp:425] prob <- fc8_plantvillage_fc8_plantvillage_0_split_0
I0403 15:08:55.428205 18327 net.cpp:399] prob -> prob
I0403 15:08:55.428431 18327 net.cpp:141] Setting up prob
I0403 15:08:55.428457 18327 net.cpp:148] Top shape: 100 38 (3800)
I0403 15:08:55.428472 18327 net.cpp:156] Memory required for data: 831602000
I0403 15:08:55.428486 18327 layer_factory.hpp:77] Creating layer hdf5out
I0403 15:08:55.428505 18327 net.cpp:91] Creating Layer hdf5out
I0403 15:08:55.428520 18327 net.cpp:425] hdf5out <- prob
I0403 15:08:55.428537 18327 net.cpp:425] hdf5out <- label_data_1_split_0
I0403 15:08:55.430794 18327 net.cpp:141] Setting up hdf5out
…
