…
I0403 15:10:33.379559 18389 net.cpp:313] The NetState phase (1) differed from the phase (0) specified by a rule in layer data
I0403 15:10:33.379868 18389 net.cpp:49] Initializing net from parameters: 
state {
  phase: TEST
}
layer {
  name: "data"
  type: "Data"
  top: "data"
  top: "label"
  include {
    phase: TEST
  }
  transform_param {
    crop_size: 227
    mean_file: "/home/mohanty/data/final_dataset/lmdb/color-80-20/mean.binaryproto"
  }
  data_param {
    source: "/home/mohanty/data/final_dataset/lmdb/color-80-20/test_db"
    batch_size: 100
    backend: LMDB
  }
}
layer {
  name: "conv1"
  type: "Convolution"
  bottom: "data"
  top: "conv1"
  param {
    lr_mult: 1
    decay_mult: 1
  }
  param {
    lr_mult: 2
    decay_mult: 0
  }
  convolution_param {
    num_output: 96
    kernel_size: 11
    stride: 4
    weight_filler {
      type: "gaussian"
      std: 0.01
    }
    bias_filler {
      type: "constant"
      value: 0
    }
  }
}
layer {
  name: "relu1"
  type: "ReLU"
  bottom: "conv1"
  top: "conv1"
}
layer {
  name: "norm1"
  type: "LRN"
  bottom: "conv1"
  top: "norm1"
  lrn_param {
    local_size: 5
    alpha: 0.0001
    beta: 0.75
  }
}
layer {
  name: "pool1"
  type: "Pooling"
  bottom: "norm1"
  top: "pool1"
  pooling_param {
    pool: MAX
    kernel_size: 3
    stride: 2
  }
}
layer {
  name: "conv2"
  type: "Convolution"
  bottom: "pool1"
  top: "conv2"
  param {
    lr_mult: 1
    decay_mult: 1
  }
  param {
    lr_mult: 2
    decay_mult: 0
  }
  convolution_param {
    num_output: 256
    pad: 2
    kernel_size: 5
    group: 2
    weight_filler {
      type: "gaussian"
      std: 0.01
    }
    bias_filler {
      type: "constant"
      value: 0.1
    }
  }
}
layer {
  name: "relu2"
  type: "ReLU"
  bottom: "conv2"
  top: "conv2"
}
layer {
  name: "norm2"
  type: "LRN"
  bottom: "conv2"
  top: "norm2"
  lrn_param {
    local_size: 5
    alpha: 0.0001
    beta: 0.75
  }
}
layer {
  name: "pool2"
  type: "Pooling"
  bottom: "norm2"
  top: "pool2"
  pooling_param {
    pool: MAX
    kernel_size: 3
    stride: 2
  }
}
layer {
  name: "conv3"
  type: "Convolution"
  bottom: "pool2"
  top: "conv3"
  param {
    lr_mult: 1
    decay_mult: 1
  }
  param {
    lr_mult: 2
    decay_mult: 0
  }
  convolution_param {
    num_output: 384
    pad: 1
    kernel_size: 3
    weight_filler {
      type: "gaussian"
      std: 0.01
    }
    bias_filler {
      type: "constant"
      value: 0
    }
  }
}
layer {
  name: "relu3"
  type: "ReLU"
  bottom: "conv3"
  top: "conv3"
}
layer {
  name: "conv4"
  type: "Convolution"
  bottom: "conv3"
  top: "conv4"
  param {
    lr_mult: 1
    decay_mult: 1
  }
  param {
    lr_mult: 2
    decay_mult: 0
  }
  convolution_param {
    num_output: 384
    pad: 1
    kernel_size: 3
    group: 2
    weight_filler {
      type: "gaussian"
      std: 0.01
    }
    bias_filler {
      type: "constant"
      value: 0.1
    }
  }
}
layer {
  name: "relu4"
  type: "ReLU"
  bottom: "conv4"
  top: "conv4"
}
layer {
  name: "conv5"
  type: "Convolution"
  bottom: "conv4"
  top: "conv5"
  param {
    lr_mult: 1
    decay_mult: 1
  }
  param {
    lr_mult: 2
    decay_mult: 0
  }
  convolution_param {
    num_output: 256
    pad: 1
    kernel_size: 3
    group: 2
    weight_filler {
      type: "gaussian"
      std: 0.01
    }
    bias_filler {
      type: "constant"
      value: 0.1
    }
  }
}
layer {
  name: "relu5"
  type: "ReLU"
  bottom: "conv5"
  top: "conv5"
}
layer {
  name: "pool5"
  type: "Pooling"
  bottom: "conv5"
  top: "pool5"
  pooling_param {
    pool: MAX
    kernel_size: 3
    stride: 2
  }
}
layer {
  name: "fc6"
  type: "InnerProduct"
  bottom: "pool5"
  top: "fc6"
  param {
    lr_mult: 1
    decay_mult: 1
  }
  param {
    lr_mult: 2
    decay_mult: 0
  }
  inner_product_param {
    num_output: 4096
    weight_filler {
      type: "gaussian"
      std: 0.005
    }
    bias_filler {
      type: "constant"
      value: 0.1
    }
  }
}
layer {
  name: "relu6"
  type: "ReLU"
  bottom: "fc6"
  top: "fc6"
}
layer {
  name: "drop6"
  type: "Dropout"
  bottom: "fc6"
  top: "fc6"
  dropout_param {
    dropout_ratio: 0.5
  }
}
layer {
  name: "fc7"
  type: "InnerProduct"
  bottom: "fc6"
  top: "fc7"
  param {
    lr_mult: 1
    decay_mult: 1
  }
  param {
    lr_mult: 2
    decay_mult: 0
  }
  inner_product_param {
    num_output: 4096
    weight_filler {
      type: "gaussian"
      std: 0.005
    }
    bias_filler {
      type: "constant"
      value: 0.1
    }
  }
}
layer {
  name: "relu7"
  type: "ReLU"
  bottom: "fc7"
  top: "fc7"
}
layer {
  name: "drop7"
  type: "Dropout"
  bottom: "fc7"
  top: "fc7"
  dropout_param {
    dropout_ratio: 0.5
  }
}
layer {
  name: "fc8_plantvillage"
  type: "InnerProduct"
  bottom: "fc7"
  top: "fc8_plantvillage"
  param {
    lr_mult: 1
    decay_mult: 1
  }
  param {
    lr_mult: 2
    decay_mult: 0
  }
  inner_product_param {
    num_output: 38
    weight_filler {
      type: "gaussian"
      std: 0.01
    }
    bias_filler {
      type: "constant"
      value: 0
    }
  }
}
layer {
  name: "prob"
  type: "Softmax"
  bottom: "fc8_plantvillage"
  top: "prob"
  include {
    phase: TEST
  }
}
layer {
  name: "hdf5out"
  type: "HDF5Output"
  bottom: "prob"
  bottom: "label"
  include {
    phase: TEST
  }
  hdf5_output_param {
    file_name: "hdf5_dumps/iter_10925.h5"
  }
}
layer {
  name: "loss"
  type: "SoftmaxWithLoss"
  bottom: "fc8_plantvillage"
  bottom: "label"
  top: "loss"
}
layer {
  name: "accuracy"
  type: "Accuracy"
  bottom: "fc8_plantvillage"
  bottom: "label"
  top: "accuracy"
  include {
    phase: TEST
  }
}
I0403 15:10:33.380419 18389 layer_factory.hpp:77] Creating layer data
I0403 15:10:33.381047 18389 net.cpp:91] Creating Layer data
I0403 15:10:33.381078 18389 net.cpp:399] data -> data
I0403 15:10:33.381129 18389 net.cpp:399] data -> label
I0403 15:10:33.381165 18389 data_transformer.cpp:25] Loading mean file from: /home/mohanty/data/final_dataset/lmdb/color-80-20/mean.binaryproto
I0403 15:10:33.383851 18392 db_lmdb.cpp:38] Opened lmdb /home/mohanty/data/final_dataset/lmdb/color-80-20/test_db
I0403 15:10:33.395839 18389 data_layer.cpp:41] output data size: 100,3,227,227
I0403 15:10:33.517547 18389 net.cpp:141] Setting up data
I0403 15:10:33.517652 18389 net.cpp:148] Top shape: 100 3 227 227 (15458700)
I0403 15:10:33.517675 18389 net.cpp:148] Top shape: 100 (100)
I0403 15:10:33.517691 18389 net.cpp:156] Memory required for data: 61835200
I0403 15:10:33.517719 18389 layer_factory.hpp:77] Creating layer label_data_1_split
I0403 15:10:33.517745 18389 net.cpp:91] Creating Layer label_data_1_split
I0403 15:10:33.517763 18389 net.cpp:425] label_data_1_split <- label
I0403 15:10:33.517796 18389 net.cpp:399] label_data_1_split -> label_data_1_split_0
I0403 15:10:33.517823 18389 net.cpp:399] label_data_1_split -> label_data_1_split_1
I0403 15:10:33.517844 18389 net.cpp:399] label_data_1_split -> label_data_1_split_2
I0403 15:10:33.517907 18389 net.cpp:141] Setting up label_data_1_split
I0403 15:10:33.517931 18389 net.cpp:148] Top shape: 100 (100)
I0403 15:10:33.517949 18389 net.cpp:148] Top shape: 100 (100)
I0403 15:10:33.517966 18389 net.cpp:148] Top shape: 100 (100)
I0403 15:10:33.517979 18389 net.cpp:156] Memory required for data: 61836400
I0403 15:10:33.517995 18389 layer_factory.hpp:77] Creating layer conv1
I0403 15:10:33.518030 18389 net.cpp:91] Creating Layer conv1
I0403 15:10:33.518050 18389 net.cpp:425] conv1 <- data
I0403 15:10:33.518069 18389 net.cpp:399] conv1 -> conv1
I0403 15:10:33.663655 18389 net.cpp:141] Setting up conv1
I0403 15:10:33.663712 18389 net.cpp:148] Top shape: 100 96 55 55 (29040000)
I0403 15:10:33.663728 18389 net.cpp:156] Memory required for data: 177996400
I0403 15:10:33.663759 18389 layer_factory.hpp:77] Creating layer relu1
I0403 15:10:33.663785 18389 net.cpp:91] Creating Layer relu1
I0403 15:10:33.663803 18389 net.cpp:425] relu1 <- conv1
I0403 15:10:33.663821 18389 net.cpp:386] relu1 -> conv1 (in-place)
I0403 15:10:33.664103 18389 net.cpp:141] Setting up relu1
I0403 15:10:33.664131 18389 net.cpp:148] Top shape: 100 96 55 55 (29040000)
I0403 15:10:33.664149 18389 net.cpp:156] Memory required for data: 294156400
I0403 15:10:33.664202 18389 layer_factory.hpp:77] Creating layer norm1
I0403 15:10:33.664233 18389 net.cpp:91] Creating Layer norm1
I0403 15:10:33.664252 18389 net.cpp:425] norm1 <- conv1
I0403 15:10:33.664269 18389 net.cpp:399] norm1 -> norm1
I0403 15:10:33.664602 18389 net.cpp:141] Setting up norm1
I0403 15:10:33.664629 18389 net.cpp:148] Top shape: 100 96 55 55 (29040000)
I0403 15:10:33.664645 18389 net.cpp:156] Memory required for data: 410316400
I0403 15:10:33.664660 18389 layer_factory.hpp:77] Creating layer pool1
I0403 15:10:33.664685 18389 net.cpp:91] Creating Layer pool1
I0403 15:10:33.664702 18389 net.cpp:425] pool1 <- norm1
I0403 15:10:33.664719 18389 net.cpp:399] pool1 -> pool1
I0403 15:10:33.664793 18389 net.cpp:141] Setting up pool1
I0403 15:10:33.664818 18389 net.cpp:148] Top shape: 100 96 27 27 (6998400)
I0403 15:10:33.664831 18389 net.cpp:156] Memory required for data: 438310000
I0403 15:10:33.664846 18389 layer_factory.hpp:77] Creating layer conv2
I0403 15:10:33.664872 18389 net.cpp:91] Creating Layer conv2
I0403 15:10:33.664890 18389 net.cpp:425] conv2 <- pool1
I0403 15:10:33.664909 18389 net.cpp:399] conv2 -> conv2
I0403 15:10:33.680004 18389 net.cpp:141] Setting up conv2
I0403 15:10:33.680064 18389 net.cpp:148] Top shape: 100 256 27 27 (18662400)
I0403 15:10:33.680086 18389 net.cpp:156] Memory required for data: 512959600
I0403 15:10:33.680109 18389 layer_factory.hpp:77] Creating layer relu2
I0403 15:10:33.680135 18389 net.cpp:91] Creating Layer relu2
I0403 15:10:33.680151 18389 net.cpp:425] relu2 <- conv2
I0403 15:10:33.680169 18389 net.cpp:386] relu2 -> conv2 (in-place)
I0403 15:10:33.680451 18389 net.cpp:141] Setting up relu2
I0403 15:10:33.680481 18389 net.cpp:148] Top shape: 100 256 27 27 (18662400)
I0403 15:10:33.680496 18389 net.cpp:156] Memory required for data: 587609200
I0403 15:10:33.680510 18389 layer_factory.hpp:77] Creating layer norm2
I0403 15:10:33.680533 18389 net.cpp:91] Creating Layer norm2
I0403 15:10:33.680551 18389 net.cpp:425] norm2 <- conv2
I0403 15:10:33.680570 18389 net.cpp:399] norm2 -> norm2
I0403 15:10:33.680768 18389 net.cpp:141] Setting up norm2
I0403 15:10:33.680794 18389 net.cpp:148] Top shape: 100 256 27 27 (18662400)
I0403 15:10:33.680809 18389 net.cpp:156] Memory required for data: 662258800
I0403 15:10:33.680824 18389 layer_factory.hpp:77] Creating layer pool2
I0403 15:10:33.680845 18389 net.cpp:91] Creating Layer pool2
I0403 15:10:33.680860 18389 net.cpp:425] pool2 <- norm2
I0403 15:10:33.680877 18389 net.cpp:399] pool2 -> pool2
I0403 15:10:33.680930 18389 net.cpp:141] Setting up pool2
I0403 15:10:33.680953 18389 net.cpp:148] Top shape: 100 256 13 13 (4326400)
I0403 15:10:33.680968 18389 net.cpp:156] Memory required for data: 679564400
I0403 15:10:33.680982 18389 layer_factory.hpp:77] Creating layer conv3
I0403 15:10:33.681005 18389 net.cpp:91] Creating Layer conv3
I0403 15:10:33.681021 18389 net.cpp:425] conv3 <- pool2
I0403 15:10:33.681041 18389 net.cpp:399] conv3 -> conv3
I0403 15:10:33.721210 18389 net.cpp:141] Setting up conv3
I0403 15:10:33.721284 18389 net.cpp:148] Top shape: 100 384 13 13 (6489600)
I0403 15:10:33.721300 18389 net.cpp:156] Memory required for data: 705522800
I0403 15:10:33.721326 18389 layer_factory.hpp:77] Creating layer relu3
I0403 15:10:33.721349 18389 net.cpp:91] Creating Layer relu3
I0403 15:10:33.721365 18389 net.cpp:425] relu3 <- conv3
I0403 15:10:33.721384 18389 net.cpp:386] relu3 -> conv3 (in-place)
I0403 15:10:33.721659 18389 net.cpp:141] Setting up relu3
I0403 15:10:33.721685 18389 net.cpp:148] Top shape: 100 384 13 13 (6489600)
I0403 15:10:33.721700 18389 net.cpp:156] Memory required for data: 731481200
I0403 15:10:33.721714 18389 layer_factory.hpp:77] Creating layer conv4
I0403 15:10:33.721738 18389 net.cpp:91] Creating Layer conv4
I0403 15:10:33.721755 18389 net.cpp:425] conv4 <- conv3
I0403 15:10:33.721776 18389 net.cpp:399] conv4 -> conv4
I0403 15:10:33.750967 18389 net.cpp:141] Setting up conv4
I0403 15:10:33.751005 18389 net.cpp:148] Top shape: 100 384 13 13 (6489600)
I0403 15:10:33.751055 18389 net.cpp:156] Memory required for data: 757439600
I0403 15:10:33.751078 18389 layer_factory.hpp:77] Creating layer relu4
I0403 15:10:33.751101 18389 net.cpp:91] Creating Layer relu4
I0403 15:10:33.751117 18389 net.cpp:425] relu4 <- conv4
I0403 15:10:33.751135 18389 net.cpp:386] relu4 -> conv4 (in-place)
I0403 15:10:33.751418 18389 net.cpp:141] Setting up relu4
I0403 15:10:33.751446 18389 net.cpp:148] Top shape: 100 384 13 13 (6489600)
I0403 15:10:33.751461 18389 net.cpp:156] Memory required for data: 783398000
I0403 15:10:33.751474 18389 layer_factory.hpp:77] Creating layer conv5
I0403 15:10:33.751499 18389 net.cpp:91] Creating Layer conv5
I0403 15:10:33.751516 18389 net.cpp:425] conv5 <- conv4
I0403 15:10:33.751538 18389 net.cpp:399] conv5 -> conv5
I0403 15:10:33.772121 18389 net.cpp:141] Setting up conv5
I0403 15:10:33.772178 18389 net.cpp:148] Top shape: 100 256 13 13 (4326400)
I0403 15:10:33.772197 18389 net.cpp:156] Memory required for data: 800703600
I0403 15:10:33.772222 18389 layer_factory.hpp:77] Creating layer relu5
I0403 15:10:33.772248 18389 net.cpp:91] Creating Layer relu5
I0403 15:10:33.772269 18389 net.cpp:425] relu5 <- conv5
I0403 15:10:33.772287 18389 net.cpp:386] relu5 -> conv5 (in-place)
I0403 15:10:33.772593 18389 net.cpp:141] Setting up relu5
I0403 15:10:33.772621 18389 net.cpp:148] Top shape: 100 256 13 13 (4326400)
I0403 15:10:33.772639 18389 net.cpp:156] Memory required for data: 818009200
I0403 15:10:33.772653 18389 layer_factory.hpp:77] Creating layer pool5
I0403 15:10:33.772678 18389 net.cpp:91] Creating Layer pool5
I0403 15:10:33.772694 18389 net.cpp:425] pool5 <- conv5
I0403 15:10:33.772716 18389 net.cpp:399] pool5 -> pool5
I0403 15:10:33.772778 18389 net.cpp:141] Setting up pool5
I0403 15:10:33.772802 18389 net.cpp:148] Top shape: 100 256 6 6 (921600)
I0403 15:10:33.772817 18389 net.cpp:156] Memory required for data: 821695600
I0403 15:10:33.772832 18389 layer_factory.hpp:77] Creating layer fc6
I0403 15:10:33.772861 18389 net.cpp:91] Creating Layer fc6
I0403 15:10:33.772879 18389 net.cpp:425] fc6 <- pool5
I0403 15:10:33.772897 18389 net.cpp:399] fc6 -> fc6
I0403 15:10:35.304695 18389 net.cpp:141] Setting up fc6
I0403 15:10:35.304771 18389 net.cpp:148] Top shape: 100 4096 (409600)
I0403 15:10:35.304787 18389 net.cpp:156] Memory required for data: 823334000
I0403 15:10:35.304808 18389 layer_factory.hpp:77] Creating layer relu6
I0403 15:10:35.304841 18389 net.cpp:91] Creating Layer relu6
I0403 15:10:35.304857 18389 net.cpp:425] relu6 <- fc6
I0403 15:10:35.304877 18389 net.cpp:386] relu6 -> fc6 (in-place)
I0403 15:10:35.305091 18389 net.cpp:141] Setting up relu6
I0403 15:10:35.305115 18389 net.cpp:148] Top shape: 100 4096 (409600)
I0403 15:10:35.305130 18389 net.cpp:156] Memory required for data: 824972400
I0403 15:10:35.305143 18389 layer_factory.hpp:77] Creating layer drop6
I0403 15:10:35.305162 18389 net.cpp:91] Creating Layer drop6
I0403 15:10:35.305177 18389 net.cpp:425] drop6 <- fc6
I0403 15:10:35.305193 18389 net.cpp:386] drop6 -> fc6 (in-place)
I0403 15:10:35.305244 18389 net.cpp:141] Setting up drop6
I0403 15:10:35.305266 18389 net.cpp:148] Top shape: 100 4096 (409600)
I0403 15:10:35.305280 18389 net.cpp:156] Memory required for data: 826610800
I0403 15:10:35.305294 18389 layer_factory.hpp:77] Creating layer fc7
I0403 15:10:35.305312 18389 net.cpp:91] Creating Layer fc7
I0403 15:10:35.305327 18389 net.cpp:425] fc7 <- fc6
I0403 15:10:35.305346 18389 net.cpp:399] fc7 -> fc7
I0403 15:10:35.988606 18389 net.cpp:141] Setting up fc7
I0403 15:10:35.988651 18389 net.cpp:148] Top shape: 100 4096 (409600)
I0403 15:10:35.988667 18389 net.cpp:156] Memory required for data: 828249200
I0403 15:10:35.988687 18389 layer_factory.hpp:77] Creating layer relu7
I0403 15:10:35.988713 18389 net.cpp:91] Creating Layer relu7
I0403 15:10:35.988730 18389 net.cpp:425] relu7 <- fc7
I0403 15:10:35.988749 18389 net.cpp:386] relu7 -> fc7 (in-place)
I0403 15:10:35.989182 18389 net.cpp:141] Setting up relu7
I0403 15:10:35.989210 18389 net.cpp:148] Top shape: 100 4096 (409600)
I0403 15:10:35.989259 18389 net.cpp:156] Memory required for data: 829887600
I0403 15:10:35.989275 18389 layer_factory.hpp:77] Creating layer drop7
I0403 15:10:35.989297 18389 net.cpp:91] Creating Layer drop7
I0403 15:10:35.989315 18389 net.cpp:425] drop7 <- fc7
I0403 15:10:35.989332 18389 net.cpp:386] drop7 -> fc7 (in-place)
I0403 15:10:35.989380 18389 net.cpp:141] Setting up drop7
I0403 15:10:35.989403 18389 net.cpp:148] Top shape: 100 4096 (409600)
I0403 15:10:35.989418 18389 net.cpp:156] Memory required for data: 831526000
I0403 15:10:35.989433 18389 layer_factory.hpp:77] Creating layer fc8_plantvillage
I0403 15:10:35.989452 18389 net.cpp:91] Creating Layer fc8_plantvillage
I0403 15:10:35.989467 18389 net.cpp:425] fc8_plantvillage <- fc7
I0403 15:10:35.989488 18389 net.cpp:399] fc8_plantvillage -> fc8_plantvillage
I0403 15:10:35.996631 18389 net.cpp:141] Setting up fc8_plantvillage
I0403 15:10:35.996660 18389 net.cpp:148] Top shape: 100 38 (3800)
I0403 15:10:35.996676 18389 net.cpp:156] Memory required for data: 831541200
I0403 15:10:35.996695 18389 layer_factory.hpp:77] Creating layer fc8_plantvillage_fc8_plantvillage_0_split
I0403 15:10:35.996716 18389 net.cpp:91] Creating Layer fc8_plantvillage_fc8_plantvillage_0_split
I0403 15:10:35.996732 18389 net.cpp:425] fc8_plantvillage_fc8_plantvillage_0_split <- fc8_plantvillage
I0403 15:10:35.996749 18389 net.cpp:399] fc8_plantvillage_fc8_plantvillage_0_split -> fc8_plantvillage_fc8_plantvillage_0_split_0
I0403 15:10:35.996770 18389 net.cpp:399] fc8_plantvillage_fc8_plantvillage_0_split -> fc8_plantvillage_fc8_plantvillage_0_split_1
I0403 15:10:35.996793 18389 net.cpp:399] fc8_plantvillage_fc8_plantvillage_0_split -> fc8_plantvillage_fc8_plantvillage_0_split_2
I0403 15:10:35.996875 18389 net.cpp:141] Setting up fc8_plantvillage_fc8_plantvillage_0_split
I0403 15:10:35.996899 18389 net.cpp:148] Top shape: 100 38 (3800)
I0403 15:10:35.996917 18389 net.cpp:148] Top shape: 100 38 (3800)
I0403 15:10:35.996932 18389 net.cpp:148] Top shape: 100 38 (3800)
I0403 15:10:35.996947 18389 net.cpp:156] Memory required for data: 831586800
I0403 15:10:35.996961 18389 layer_factory.hpp:77] Creating layer prob
I0403 15:10:35.996980 18389 net.cpp:91] Creating Layer prob
I0403 15:10:35.996996 18389 net.cpp:425] prob <- fc8_plantvillage_fc8_plantvillage_0_split_0
I0403 15:10:35.997017 18389 net.cpp:399] prob -> prob
I0403 15:10:35.997262 18389 net.cpp:141] Setting up prob
I0403 15:10:35.997289 18389 net.cpp:148] Top shape: 100 38 (3800)
I0403 15:10:35.997304 18389 net.cpp:156] Memory required for data: 831602000
I0403 15:10:35.997319 18389 layer_factory.hpp:77] Creating layer hdf5out
I0403 15:10:35.997341 18389 net.cpp:91] Creating Layer hdf5out
I0403 15:10:35.997359 18389 net.cpp:425] hdf5out <- prob
I0403 15:10:35.997375 18389 net.cpp:425] hdf5out <- label_data_1_split_0
I0403 15:10:35.999718 18389 net.cpp:141] Setting up hdf5out
…
