…
I0403 15:11:48.722342 18422 net.cpp:313] The NetState phase (1) differed from the phase (0) specified by a rule in layer data
I0403 15:11:48.722662 18422 net.cpp:49] Initializing net from parameters: 
state {
  phase: TEST
}
layer {
  name: "data"
  type: "Data"
  top: "data"
  top: "label"
  include {
    phase: TEST
  }
  transform_param {
    crop_size: 227
    mean_file: "/home/mohanty/data/final_dataset/lmdb/color-80-20/mean.binaryproto"
  }
  data_param {
    source: "/home/mohanty/data/final_dataset/lmdb/color-80-20/test_db"
    batch_size: 100
    backend: LMDB
  }
}
layer {
  name: "conv1"
  type: "Convolution"
  bottom: "data"
  top: "conv1"
  param {
    lr_mult: 1
    decay_mult: 1
  }
  param {
    lr_mult: 2
    decay_mult: 0
  }
  convolution_param {
    num_output: 96
    kernel_size: 11
    stride: 4
    weight_filler {
      type: "gaussian"
      std: 0.01
    }
    bias_filler {
      type: "constant"
      value: 0
    }
  }
}
layer {
  name: "relu1"
  type: "ReLU"
  bottom: "conv1"
  top: "conv1"
}
layer {
  name: "norm1"
  type: "LRN"
  bottom: "conv1"
  top: "norm1"
  lrn_param {
    local_size: 5
    alpha: 0.0001
    beta: 0.75
  }
}
layer {
  name: "pool1"
  type: "Pooling"
  bottom: "norm1"
  top: "pool1"
  pooling_param {
    pool: MAX
    kernel_size: 3
    stride: 2
  }
}
layer {
  name: "conv2"
  type: "Convolution"
  bottom: "pool1"
  top: "conv2"
  param {
    lr_mult: 1
    decay_mult: 1
  }
  param {
    lr_mult: 2
    decay_mult: 0
  }
  convolution_param {
    num_output: 256
    pad: 2
    kernel_size: 5
    group: 2
    weight_filler {
      type: "gaussian"
      std: 0.01
    }
    bias_filler {
      type: "constant"
      value: 0.1
    }
  }
}
layer {
  name: "relu2"
  type: "ReLU"
  bottom: "conv2"
  top: "conv2"
}
layer {
  name: "norm2"
  type: "LRN"
  bottom: "conv2"
  top: "norm2"
  lrn_param {
    local_size: 5
    alpha: 0.0001
    beta: 0.75
  }
}
layer {
  name: "pool2"
  type: "Pooling"
  bottom: "norm2"
  top: "pool2"
  pooling_param {
    pool: MAX
    kernel_size: 3
    stride: 2
  }
}
layer {
  name: "conv3"
  type: "Convolution"
  bottom: "pool2"
  top: "conv3"
  param {
    lr_mult: 1
    decay_mult: 1
  }
  param {
    lr_mult: 2
    decay_mult: 0
  }
  convolution_param {
    num_output: 384
    pad: 1
    kernel_size: 3
    weight_filler {
      type: "gaussian"
      std: 0.01
    }
    bias_filler {
      type: "constant"
      value: 0
    }
  }
}
layer {
  name: "relu3"
  type: "ReLU"
  bottom: "conv3"
  top: "conv3"
}
layer {
  name: "conv4"
  type: "Convolution"
  bottom: "conv3"
  top: "conv4"
  param {
    lr_mult: 1
    decay_mult: 1
  }
  param {
    lr_mult: 2
    decay_mult: 0
  }
  convolution_param {
    num_output: 384
    pad: 1
    kernel_size: 3
    group: 2
    weight_filler {
      type: "gaussian"
      std: 0.01
    }
    bias_filler {
      type: "constant"
      value: 0.1
    }
  }
}
layer {
  name: "relu4"
  type: "ReLU"
  bottom: "conv4"
  top: "conv4"
}
layer {
  name: "conv5"
  type: "Convolution"
  bottom: "conv4"
  top: "conv5"
  param {
    lr_mult: 1
    decay_mult: 1
  }
  param {
    lr_mult: 2
    decay_mult: 0
  }
  convolution_param {
    num_output: 256
    pad: 1
    kernel_size: 3
    group: 2
    weight_filler {
      type: "gaussian"
      std: 0.01
    }
    bias_filler {
      type: "constant"
      value: 0.1
    }
  }
}
layer {
  name: "relu5"
  type: "ReLU"
  bottom: "conv5"
  top: "conv5"
}
layer {
  name: "pool5"
  type: "Pooling"
  bottom: "conv5"
  top: "pool5"
  pooling_param {
    pool: MAX
    kernel_size: 3
    stride: 2
  }
}
layer {
  name: "fc6"
  type: "InnerProduct"
  bottom: "pool5"
  top: "fc6"
  param {
    lr_mult: 1
    decay_mult: 1
  }
  param {
    lr_mult: 2
    decay_mult: 0
  }
  inner_product_param {
    num_output: 4096
    weight_filler {
      type: "gaussian"
      std: 0.005
    }
    bias_filler {
      type: "constant"
      value: 0.1
    }
  }
}
layer {
  name: "relu6"
  type: "ReLU"
  bottom: "fc6"
  top: "fc6"
}
layer {
  name: "drop6"
  type: "Dropout"
  bottom: "fc6"
  top: "fc6"
  dropout_param {
    dropout_ratio: 0.5
  }
}
layer {
  name: "fc7"
  type: "InnerProduct"
  bottom: "fc6"
  top: "fc7"
  param {
    lr_mult: 1
    decay_mult: 1
  }
  param {
    lr_mult: 2
    decay_mult: 0
  }
  inner_product_param {
    num_output: 4096
    weight_filler {
      type: "gaussian"
      std: 0.005
    }
    bias_filler {
      type: "constant"
      value: 0.1
    }
  }
}
layer {
  name: "relu7"
  type: "ReLU"
  bottom: "fc7"
  top: "fc7"
}
layer {
  name: "drop7"
  type: "Dropout"
  bottom: "fc7"
  top: "fc7"
  dropout_param {
    dropout_ratio: 0.5
  }
}
layer {
  name: "fc8_plantvillage"
  type: "InnerProduct"
  bottom: "fc7"
  top: "fc8_plantvillage"
  param {
    lr_mult: 1
    decay_mult: 1
  }
  param {
    lr_mult: 2
    decay_mult: 0
  }
  inner_product_param {
    num_output: 38
    weight_filler {
      type: "gaussian"
      std: 0.01
    }
    bias_filler {
      type: "constant"
      value: 0
    }
  }
}
layer {
  name: "prob"
  type: "Softmax"
  bottom: "fc8_plantvillage"
  top: "prob"
  include {
    phase: TEST
  }
}
layer {
  name: "hdf5out"
  type: "HDF5Output"
  bottom: "prob"
  bottom: "label"
  include {
    phase: TEST
  }
  hdf5_output_param {
    file_name: "hdf5_dumps/iter_12236.h5"
  }
}
layer {
  name: "loss"
  type: "SoftmaxWithLoss"
  bottom: "fc8_plantvillage"
  bottom: "label"
  top: "loss"
}
layer {
  name: "accuracy"
  type: "Accuracy"
  bottom: "fc8_plantvillage"
  bottom: "label"
  top: "accuracy"
  include {
    phase: TEST
  }
}
I0403 15:11:48.723202 18422 layer_factory.hpp:77] Creating layer data
I0403 15:11:48.723860 18422 net.cpp:91] Creating Layer data
I0403 15:11:48.723891 18422 net.cpp:399] data -> data
I0403 15:11:48.723942 18422 net.cpp:399] data -> label
I0403 15:11:48.723981 18422 data_transformer.cpp:25] Loading mean file from: /home/mohanty/data/final_dataset/lmdb/color-80-20/mean.binaryproto
I0403 15:11:48.726197 18425 db_lmdb.cpp:38] Opened lmdb /home/mohanty/data/final_dataset/lmdb/color-80-20/test_db
I0403 15:11:48.738859 18422 data_layer.cpp:41] output data size: 100,3,227,227
I0403 15:11:48.863981 18422 net.cpp:141] Setting up data
I0403 15:11:48.864105 18422 net.cpp:148] Top shape: 100 3 227 227 (15458700)
I0403 15:11:48.864127 18422 net.cpp:148] Top shape: 100 (100)
I0403 15:11:48.864142 18422 net.cpp:156] Memory required for data: 61835200
I0403 15:11:48.864171 18422 layer_factory.hpp:77] Creating layer label_data_1_split
I0403 15:11:48.864195 18422 net.cpp:91] Creating Layer label_data_1_split
I0403 15:11:48.864213 18422 net.cpp:425] label_data_1_split <- label
I0403 15:11:48.864246 18422 net.cpp:399] label_data_1_split -> label_data_1_split_0
I0403 15:11:48.864274 18422 net.cpp:399] label_data_1_split -> label_data_1_split_1
I0403 15:11:48.864294 18422 net.cpp:399] label_data_1_split -> label_data_1_split_2
I0403 15:11:48.864356 18422 net.cpp:141] Setting up label_data_1_split
I0403 15:11:48.864379 18422 net.cpp:148] Top shape: 100 (100)
I0403 15:11:48.864395 18422 net.cpp:148] Top shape: 100 (100)
I0403 15:11:48.864411 18422 net.cpp:148] Top shape: 100 (100)
I0403 15:11:48.864425 18422 net.cpp:156] Memory required for data: 61836400
I0403 15:11:48.864440 18422 layer_factory.hpp:77] Creating layer conv1
I0403 15:11:48.864470 18422 net.cpp:91] Creating Layer conv1
I0403 15:11:48.864488 18422 net.cpp:425] conv1 <- data
I0403 15:11:48.864507 18422 net.cpp:399] conv1 -> conv1
I0403 15:11:49.015740 18422 net.cpp:141] Setting up conv1
I0403 15:11:49.015832 18422 net.cpp:148] Top shape: 100 96 55 55 (29040000)
I0403 15:11:49.015851 18422 net.cpp:156] Memory required for data: 177996400
I0403 15:11:49.015882 18422 layer_factory.hpp:77] Creating layer relu1
I0403 15:11:49.015911 18422 net.cpp:91] Creating Layer relu1
I0403 15:11:49.015931 18422 net.cpp:425] relu1 <- conv1
I0403 15:11:49.015950 18422 net.cpp:386] relu1 -> conv1 (in-place)
I0403 15:11:49.016227 18422 net.cpp:141] Setting up relu1
I0403 15:11:49.016257 18422 net.cpp:148] Top shape: 100 96 55 55 (29040000)
I0403 15:11:49.016273 18422 net.cpp:156] Memory required for data: 294156400
I0403 15:11:49.016324 18422 layer_factory.hpp:77] Creating layer norm1
I0403 15:11:49.016353 18422 net.cpp:91] Creating Layer norm1
I0403 15:11:49.016372 18422 net.cpp:425] norm1 <- conv1
I0403 15:11:49.016391 18422 net.cpp:399] norm1 -> norm1
I0403 15:11:49.016736 18422 net.cpp:141] Setting up norm1
I0403 15:11:49.016764 18422 net.cpp:148] Top shape: 100 96 55 55 (29040000)
I0403 15:11:49.016780 18422 net.cpp:156] Memory required for data: 410316400
I0403 15:11:49.016796 18422 layer_factory.hpp:77] Creating layer pool1
I0403 15:11:49.016819 18422 net.cpp:91] Creating Layer pool1
I0403 15:11:49.016836 18422 net.cpp:425] pool1 <- norm1
I0403 15:11:49.016854 18422 net.cpp:399] pool1 -> pool1
I0403 15:11:49.016921 18422 net.cpp:141] Setting up pool1
I0403 15:11:49.016945 18422 net.cpp:148] Top shape: 100 96 27 27 (6998400)
I0403 15:11:49.016963 18422 net.cpp:156] Memory required for data: 438310000
I0403 15:11:49.016978 18422 layer_factory.hpp:77] Creating layer conv2
I0403 15:11:49.017004 18422 net.cpp:91] Creating Layer conv2
I0403 15:11:49.017019 18422 net.cpp:425] conv2 <- pool1
I0403 15:11:49.017037 18422 net.cpp:399] conv2 -> conv2
I0403 15:11:49.032019 18422 net.cpp:141] Setting up conv2
I0403 15:11:49.032061 18422 net.cpp:148] Top shape: 100 256 27 27 (18662400)
I0403 15:11:49.032079 18422 net.cpp:156] Memory required for data: 512959600
I0403 15:11:49.032101 18422 layer_factory.hpp:77] Creating layer relu2
I0403 15:11:49.032120 18422 net.cpp:91] Creating Layer relu2
I0403 15:11:49.032136 18422 net.cpp:425] relu2 <- conv2
I0403 15:11:49.032153 18422 net.cpp:386] relu2 -> conv2 (in-place)
I0403 15:11:49.032429 18422 net.cpp:141] Setting up relu2
I0403 15:11:49.032457 18422 net.cpp:148] Top shape: 100 256 27 27 (18662400)
I0403 15:11:49.032472 18422 net.cpp:156] Memory required for data: 587609200
I0403 15:11:49.032487 18422 layer_factory.hpp:77] Creating layer norm2
I0403 15:11:49.032507 18422 net.cpp:91] Creating Layer norm2
I0403 15:11:49.032523 18422 net.cpp:425] norm2 <- conv2
I0403 15:11:49.032541 18422 net.cpp:399] norm2 -> norm2
I0403 15:11:49.032740 18422 net.cpp:141] Setting up norm2
I0403 15:11:49.032766 18422 net.cpp:148] Top shape: 100 256 27 27 (18662400)
I0403 15:11:49.032781 18422 net.cpp:156] Memory required for data: 662258800
I0403 15:11:49.032795 18422 layer_factory.hpp:77] Creating layer pool2
I0403 15:11:49.032814 18422 net.cpp:91] Creating Layer pool2
I0403 15:11:49.032829 18422 net.cpp:425] pool2 <- norm2
I0403 15:11:49.032846 18422 net.cpp:399] pool2 -> pool2
I0403 15:11:49.032896 18422 net.cpp:141] Setting up pool2
I0403 15:11:49.032918 18422 net.cpp:148] Top shape: 100 256 13 13 (4326400)
I0403 15:11:49.032933 18422 net.cpp:156] Memory required for data: 679564400
I0403 15:11:49.032948 18422 layer_factory.hpp:77] Creating layer conv3
I0403 15:11:49.032970 18422 net.cpp:91] Creating Layer conv3
I0403 15:11:49.032986 18422 net.cpp:425] conv3 <- pool2
I0403 15:11:49.033004 18422 net.cpp:399] conv3 -> conv3
I0403 15:11:49.077121 18422 net.cpp:141] Setting up conv3
I0403 15:11:49.077172 18422 net.cpp:148] Top shape: 100 384 13 13 (6489600)
I0403 15:11:49.077188 18422 net.cpp:156] Memory required for data: 705522800
I0403 15:11:49.077214 18422 layer_factory.hpp:77] Creating layer relu3
I0403 15:11:49.077236 18422 net.cpp:91] Creating Layer relu3
I0403 15:11:49.077255 18422 net.cpp:425] relu3 <- conv3
I0403 15:11:49.077275 18422 net.cpp:386] relu3 -> conv3 (in-place)
I0403 15:11:49.077571 18422 net.cpp:141] Setting up relu3
I0403 15:11:49.077600 18422 net.cpp:148] Top shape: 100 384 13 13 (6489600)
I0403 15:11:49.077615 18422 net.cpp:156] Memory required for data: 731481200
I0403 15:11:49.077630 18422 layer_factory.hpp:77] Creating layer conv4
I0403 15:11:49.077657 18422 net.cpp:91] Creating Layer conv4
I0403 15:11:49.077674 18422 net.cpp:425] conv4 <- conv3
I0403 15:11:49.077697 18422 net.cpp:399] conv4 -> conv4
I0403 15:11:49.108098 18422 net.cpp:141] Setting up conv4
I0403 15:11:49.108180 18422 net.cpp:148] Top shape: 100 384 13 13 (6489600)
I0403 15:11:49.108227 18422 net.cpp:156] Memory required for data: 757439600
I0403 15:11:49.108248 18422 layer_factory.hpp:77] Creating layer relu4
I0403 15:11:49.108270 18422 net.cpp:91] Creating Layer relu4
I0403 15:11:49.108288 18422 net.cpp:425] relu4 <- conv4
I0403 15:11:49.108309 18422 net.cpp:386] relu4 -> conv4 (in-place)
I0403 15:11:49.108589 18422 net.cpp:141] Setting up relu4
I0403 15:11:49.108615 18422 net.cpp:148] Top shape: 100 384 13 13 (6489600)
I0403 15:11:49.108630 18422 net.cpp:156] Memory required for data: 783398000
I0403 15:11:49.108645 18422 layer_factory.hpp:77] Creating layer conv5
I0403 15:11:49.108669 18422 net.cpp:91] Creating Layer conv5
I0403 15:11:49.108686 18422 net.cpp:425] conv5 <- conv4
I0403 15:11:49.108707 18422 net.cpp:399] conv5 -> conv5
I0403 15:11:49.128644 18422 net.cpp:141] Setting up conv5
I0403 15:11:49.128676 18422 net.cpp:148] Top shape: 100 256 13 13 (4326400)
I0403 15:11:49.128691 18422 net.cpp:156] Memory required for data: 800703600
I0403 15:11:49.128717 18422 layer_factory.hpp:77] Creating layer relu5
I0403 15:11:49.128736 18422 net.cpp:91] Creating Layer relu5
I0403 15:11:49.128751 18422 net.cpp:425] relu5 <- conv5
I0403 15:11:49.128769 18422 net.cpp:386] relu5 -> conv5 (in-place)
I0403 15:11:49.129045 18422 net.cpp:141] Setting up relu5
I0403 15:11:49.129075 18422 net.cpp:148] Top shape: 100 256 13 13 (4326400)
I0403 15:11:49.129091 18422 net.cpp:156] Memory required for data: 818009200
I0403 15:11:49.129106 18422 layer_factory.hpp:77] Creating layer pool5
I0403 15:11:49.129128 18422 net.cpp:91] Creating Layer pool5
I0403 15:11:49.129145 18422 net.cpp:425] pool5 <- conv5
I0403 15:11:49.129163 18422 net.cpp:399] pool5 -> pool5
I0403 15:11:49.129228 18422 net.cpp:141] Setting up pool5
I0403 15:11:49.129257 18422 net.cpp:148] Top shape: 100 256 6 6 (921600)
I0403 15:11:49.129273 18422 net.cpp:156] Memory required for data: 821695600
I0403 15:11:49.129287 18422 layer_factory.hpp:77] Creating layer fc6
I0403 15:11:49.129317 18422 net.cpp:91] Creating Layer fc6
I0403 15:11:49.129333 18422 net.cpp:425] fc6 <- pool5
I0403 15:11:49.129351 18422 net.cpp:399] fc6 -> fc6
I0403 15:11:50.667088 18422 net.cpp:141] Setting up fc6
I0403 15:11:50.667129 18422 net.cpp:148] Top shape: 100 4096 (409600)
I0403 15:11:50.667145 18422 net.cpp:156] Memory required for data: 823334000
I0403 15:11:50.667165 18422 layer_factory.hpp:77] Creating layer relu6
I0403 15:11:50.667186 18422 net.cpp:91] Creating Layer relu6
I0403 15:11:50.667202 18422 net.cpp:425] relu6 <- fc6
I0403 15:11:50.667223 18422 net.cpp:386] relu6 -> fc6 (in-place)
I0403 15:11:50.667441 18422 net.cpp:141] Setting up relu6
I0403 15:11:50.667466 18422 net.cpp:148] Top shape: 100 4096 (409600)
I0403 15:11:50.667480 18422 net.cpp:156] Memory required for data: 824972400
I0403 15:11:50.667495 18422 layer_factory.hpp:77] Creating layer drop6
I0403 15:11:50.667515 18422 net.cpp:91] Creating Layer drop6
I0403 15:11:50.667531 18422 net.cpp:425] drop6 <- fc6
I0403 15:11:50.667548 18422 net.cpp:386] drop6 -> fc6 (in-place)
I0403 15:11:50.667601 18422 net.cpp:141] Setting up drop6
I0403 15:11:50.667623 18422 net.cpp:148] Top shape: 100 4096 (409600)
I0403 15:11:50.667639 18422 net.cpp:156] Memory required for data: 826610800
I0403 15:11:50.667652 18422 layer_factory.hpp:77] Creating layer fc7
I0403 15:11:50.667671 18422 net.cpp:91] Creating Layer fc7
I0403 15:11:50.667685 18422 net.cpp:425] fc7 <- fc6
I0403 15:11:50.667706 18422 net.cpp:399] fc7 -> fc7
I0403 15:11:51.344617 18422 net.cpp:141] Setting up fc7
I0403 15:11:51.344691 18422 net.cpp:148] Top shape: 100 4096 (409600)
I0403 15:11:51.344707 18422 net.cpp:156] Memory required for data: 828249200
I0403 15:11:51.344727 18422 layer_factory.hpp:77] Creating layer relu7
I0403 15:11:51.344751 18422 net.cpp:91] Creating Layer relu7
I0403 15:11:51.344769 18422 net.cpp:425] relu7 <- fc7
I0403 15:11:51.344787 18422 net.cpp:386] relu7 -> fc7 (in-place)
I0403 15:11:51.345206 18422 net.cpp:141] Setting up relu7
I0403 15:11:51.345230 18422 net.cpp:148] Top shape: 100 4096 (409600)
I0403 15:11:51.345278 18422 net.cpp:156] Memory required for data: 829887600
I0403 15:11:51.345293 18422 layer_factory.hpp:77] Creating layer drop7
I0403 15:11:51.345314 18422 net.cpp:91] Creating Layer drop7
I0403 15:11:51.345329 18422 net.cpp:425] drop7 <- fc7
I0403 15:11:51.345345 18422 net.cpp:386] drop7 -> fc7 (in-place)
I0403 15:11:51.345389 18422 net.cpp:141] Setting up drop7
I0403 15:11:51.345412 18422 net.cpp:148] Top shape: 100 4096 (409600)
I0403 15:11:51.345424 18422 net.cpp:156] Memory required for data: 831526000
I0403 15:11:51.345438 18422 layer_factory.hpp:77] Creating layer fc8_plantvillage
I0403 15:11:51.345456 18422 net.cpp:91] Creating Layer fc8_plantvillage
I0403 15:11:51.345471 18422 net.cpp:425] fc8_plantvillage <- fc7
I0403 15:11:51.345491 18422 net.cpp:399] fc8_plantvillage -> fc8_plantvillage
I0403 15:11:51.352028 18422 net.cpp:141] Setting up fc8_plantvillage
I0403 15:11:51.352063 18422 net.cpp:148] Top shape: 100 38 (3800)
I0403 15:11:51.352080 18422 net.cpp:156] Memory required for data: 831541200
I0403 15:11:51.352097 18422 layer_factory.hpp:77] Creating layer fc8_plantvillage_fc8_plantvillage_0_split
I0403 15:11:51.352116 18422 net.cpp:91] Creating Layer fc8_plantvillage_fc8_plantvillage_0_split
I0403 15:11:51.352130 18422 net.cpp:425] fc8_plantvillage_fc8_plantvillage_0_split <- fc8_plantvillage
I0403 15:11:51.352146 18422 net.cpp:399] fc8_plantvillage_fc8_plantvillage_0_split -> fc8_plantvillage_fc8_plantvillage_0_split_0
I0403 15:11:51.352165 18422 net.cpp:399] fc8_plantvillage_fc8_plantvillage_0_split -> fc8_plantvillage_fc8_plantvillage_0_split_1
I0403 15:11:51.352185 18422 net.cpp:399] fc8_plantvillage_fc8_plantvillage_0_split -> fc8_plantvillage_fc8_plantvillage_0_split_2
I0403 15:11:51.352260 18422 net.cpp:141] Setting up fc8_plantvillage_fc8_plantvillage_0_split
I0403 15:11:51.352283 18422 net.cpp:148] Top shape: 100 38 (3800)
I0403 15:11:51.352299 18422 net.cpp:148] Top shape: 100 38 (3800)
I0403 15:11:51.352313 18422 net.cpp:148] Top shape: 100 38 (3800)
I0403 15:11:51.352326 18422 net.cpp:156] Memory required for data: 831586800
I0403 15:11:51.352340 18422 layer_factory.hpp:77] Creating layer prob
I0403 15:11:51.352357 18422 net.cpp:91] Creating Layer prob
I0403 15:11:51.352372 18422 net.cpp:425] prob <- fc8_plantvillage_fc8_plantvillage_0_split_0
I0403 15:11:51.352390 18422 net.cpp:399] prob -> prob
I0403 15:11:51.352619 18422 net.cpp:141] Setting up prob
I0403 15:11:51.352643 18422 net.cpp:148] Top shape: 100 38 (3800)
I0403 15:11:51.352658 18422 net.cpp:156] Memory required for data: 831602000
I0403 15:11:51.352670 18422 layer_factory.hpp:77] Creating layer hdf5out
I0403 15:11:51.352691 18422 net.cpp:91] Creating Layer hdf5out
I0403 15:11:51.352707 18422 net.cpp:425] hdf5out <- prob
I0403 15:11:51.352722 18422 net.cpp:425] hdf5out <- label_data_1_split_0
I0403 15:11:51.354969 18422 net.cpp:141] Setting up hdf5out
…
