…
I0403 15:05:06.210144 18218 net.cpp:313] The NetState phase (1) differed from the phase (0) specified by a rule in layer data
I0403 15:05:06.210449 18218 net.cpp:49] Initializing net from parameters: 
state {
  phase: TEST
}
layer {
  name: "data"
  type: "Data"
  top: "data"
  top: "label"
  include {
    phase: TEST
  }
  transform_param {
    crop_size: 227
    mean_file: "/home/mohanty/data/final_dataset/lmdb/color-80-20/mean.binaryproto"
  }
  data_param {
    source: "/home/mohanty/data/final_dataset/lmdb/color-80-20/test_db"
    batch_size: 100
    backend: LMDB
  }
}
layer {
  name: "conv1"
  type: "Convolution"
  bottom: "data"
  top: "conv1"
  param {
    lr_mult: 1
    decay_mult: 1
  }
  param {
    lr_mult: 2
    decay_mult: 0
  }
  convolution_param {
    num_output: 96
    kernel_size: 11
    stride: 4
    weight_filler {
      type: "gaussian"
      std: 0.01
    }
    bias_filler {
      type: "constant"
      value: 0
    }
  }
}
layer {
  name: "relu1"
  type: "ReLU"
  bottom: "conv1"
  top: "conv1"
}
layer {
  name: "norm1"
  type: "LRN"
  bottom: "conv1"
  top: "norm1"
  lrn_param {
    local_size: 5
    alpha: 0.0001
    beta: 0.75
  }
}
layer {
  name: "pool1"
  type: "Pooling"
  bottom: "norm1"
  top: "pool1"
  pooling_param {
    pool: MAX
    kernel_size: 3
    stride: 2
  }
}
layer {
  name: "conv2"
  type: "Convolution"
  bottom: "pool1"
  top: "conv2"
  param {
    lr_mult: 1
    decay_mult: 1
  }
  param {
    lr_mult: 2
    decay_mult: 0
  }
  convolution_param {
    num_output: 256
    pad: 2
    kernel_size: 5
    group: 2
    weight_filler {
      type: "gaussian"
      std: 0.01
    }
    bias_filler {
      type: "constant"
      value: 0.1
    }
  }
}
layer {
  name: "relu2"
  type: "ReLU"
  bottom: "conv2"
  top: "conv2"
}
layer {
  name: "norm2"
  type: "LRN"
  bottom: "conv2"
  top: "norm2"
  lrn_param {
    local_size: 5
    alpha: 0.0001
    beta: 0.75
  }
}
layer {
  name: "pool2"
  type: "Pooling"
  bottom: "norm2"
  top: "pool2"
  pooling_param {
    pool: MAX
    kernel_size: 3
    stride: 2
  }
}
layer {
  name: "conv3"
  type: "Convolution"
  bottom: "pool2"
  top: "conv3"
  param {
    lr_mult: 1
    decay_mult: 1
  }
  param {
    lr_mult: 2
    decay_mult: 0
  }
  convolution_param {
    num_output: 384
    pad: 1
    kernel_size: 3
    weight_filler {
      type: "gaussian"
      std: 0.01
    }
    bias_filler {
      type: "constant"
      value: 0
    }
  }
}
layer {
  name: "relu3"
  type: "ReLU"
  bottom: "conv3"
  top: "conv3"
}
layer {
  name: "conv4"
  type: "Convolution"
  bottom: "conv3"
  top: "conv4"
  param {
    lr_mult: 1
    decay_mult: 1
  }
  param {
    lr_mult: 2
    decay_mult: 0
  }
  convolution_param {
    num_output: 384
    pad: 1
    kernel_size: 3
    group: 2
    weight_filler {
      type: "gaussian"
      std: 0.01
    }
    bias_filler {
      type: "constant"
      value: 0.1
    }
  }
}
layer {
  name: "relu4"
  type: "ReLU"
  bottom: "conv4"
  top: "conv4"
}
layer {
  name: "conv5"
  type: "Convolution"
  bottom: "conv4"
  top: "conv5"
  param {
    lr_mult: 1
    decay_mult: 1
  }
  param {
    lr_mult: 2
    decay_mult: 0
  }
  convolution_param {
    num_output: 256
    pad: 1
    kernel_size: 3
    group: 2
    weight_filler {
      type: "gaussian"
      std: 0.01
    }
    bias_filler {
      type: "constant"
      value: 0.1
    }
  }
}
layer {
  name: "relu5"
  type: "ReLU"
  bottom: "conv5"
  top: "conv5"
}
layer {
  name: "pool5"
  type: "Pooling"
  bottom: "conv5"
  top: "pool5"
  pooling_param {
    pool: MAX
    kernel_size: 3
    stride: 2
  }
}
layer {
  name: "fc6"
  type: "InnerProduct"
  bottom: "pool5"
  top: "fc6"
  param {
    lr_mult: 1
    decay_mult: 1
  }
  param {
    lr_mult: 2
    decay_mult: 0
  }
  inner_product_param {
    num_output: 4096
    weight_filler {
      type: "gaussian"
      std: 0.005
    }
    bias_filler {
      type: "constant"
      value: 0.1
    }
  }
}
layer {
  name: "relu6"
  type: "ReLU"
  bottom: "fc6"
  top: "fc6"
}
layer {
  name: "drop6"
  type: "Dropout"
  bottom: "fc6"
  top: "fc6"
  dropout_param {
    dropout_ratio: 0.5
  }
}
layer {
  name: "fc7"
  type: "InnerProduct"
  bottom: "fc6"
  top: "fc7"
  param {
    lr_mult: 1
    decay_mult: 1
  }
  param {
    lr_mult: 2
    decay_mult: 0
  }
  inner_product_param {
    num_output: 4096
    weight_filler {
      type: "gaussian"
      std: 0.005
    }
    bias_filler {
      type: "constant"
      value: 0.1
    }
  }
}
layer {
  name: "relu7"
  type: "ReLU"
  bottom: "fc7"
  top: "fc7"
}
layer {
  name: "drop7"
  type: "Dropout"
  bottom: "fc7"
  top: "fc7"
  dropout_param {
    dropout_ratio: 0.5
  }
}
layer {
  name: "fc8_plantvillage"
  type: "InnerProduct"
  bottom: "fc7"
  top: "fc8_plantvillage"
  param {
    lr_mult: 1
    decay_mult: 1
  }
  param {
    lr_mult: 2
    decay_mult: 0
  }
  inner_product_param {
    num_output: 38
    weight_filler {
      type: "gaussian"
      std: 0.01
    }
    bias_filler {
      type: "constant"
      value: 0
    }
  }
}
layer {
  name: "prob"
  type: "Softmax"
  bottom: "fc8_plantvillage"
  top: "prob"
  include {
    phase: TEST
  }
}
layer {
  name: "hdf5out"
  type: "HDF5Output"
  bottom: "prob"
  bottom: "label"
  include {
    phase: TEST
  }
  hdf5_output_param {
    file_name: "hdf5_dumps/iter_5244.h5"
  }
}
layer {
  name: "loss"
  type: "SoftmaxWithLoss"
  bottom: "fc8_plantvillage"
  bottom: "label"
  top: "loss"
}
layer {
  name: "accuracy"
  type: "Accuracy"
  bottom: "fc8_plantvillage"
  bottom: "label"
  top: "accuracy"
  include {
    phase: TEST
  }
}
I0403 15:05:06.211040 18218 layer_factory.hpp:77] Creating layer data
I0403 15:05:06.211733 18218 net.cpp:91] Creating Layer data
I0403 15:05:06.211767 18218 net.cpp:399] data -> data
I0403 15:05:06.211817 18218 net.cpp:399] data -> label
I0403 15:05:06.211854 18218 data_transformer.cpp:25] Loading mean file from: /home/mohanty/data/final_dataset/lmdb/color-80-20/mean.binaryproto
I0403 15:05:06.214468 18221 db_lmdb.cpp:38] Opened lmdb /home/mohanty/data/final_dataset/lmdb/color-80-20/test_db
I0403 15:05:06.226632 18218 data_layer.cpp:41] output data size: 100,3,227,227
I0403 15:05:06.350447 18218 net.cpp:141] Setting up data
I0403 15:05:06.350507 18218 net.cpp:148] Top shape: 100 3 227 227 (15458700)
I0403 15:05:06.350530 18218 net.cpp:148] Top shape: 100 (100)
I0403 15:05:06.350546 18218 net.cpp:156] Memory required for data: 61835200
I0403 15:05:06.350575 18218 layer_factory.hpp:77] Creating layer label_data_1_split
I0403 15:05:06.350600 18218 net.cpp:91] Creating Layer label_data_1_split
I0403 15:05:06.350618 18218 net.cpp:425] label_data_1_split <- label
I0403 15:05:06.350649 18218 net.cpp:399] label_data_1_split -> label_data_1_split_0
I0403 15:05:06.350677 18218 net.cpp:399] label_data_1_split -> label_data_1_split_1
I0403 15:05:06.350699 18218 net.cpp:399] label_data_1_split -> label_data_1_split_2
I0403 15:05:06.350762 18218 net.cpp:141] Setting up label_data_1_split
I0403 15:05:06.350785 18218 net.cpp:148] Top shape: 100 (100)
I0403 15:05:06.350803 18218 net.cpp:148] Top shape: 100 (100)
I0403 15:05:06.350821 18218 net.cpp:148] Top shape: 100 (100)
I0403 15:05:06.350834 18218 net.cpp:156] Memory required for data: 61836400
I0403 15:05:06.350849 18218 layer_factory.hpp:77] Creating layer conv1
I0403 15:05:06.350881 18218 net.cpp:91] Creating Layer conv1
I0403 15:05:06.350900 18218 net.cpp:425] conv1 <- data
I0403 15:05:06.350920 18218 net.cpp:399] conv1 -> conv1
I0403 15:05:06.499732 18218 net.cpp:141] Setting up conv1
I0403 15:05:06.499824 18218 net.cpp:148] Top shape: 100 96 55 55 (29040000)
I0403 15:05:06.499841 18218 net.cpp:156] Memory required for data: 177996400
I0403 15:05:06.499874 18218 layer_factory.hpp:77] Creating layer relu1
I0403 15:05:06.499902 18218 net.cpp:91] Creating Layer relu1
I0403 15:05:06.499922 18218 net.cpp:425] relu1 <- conv1
I0403 15:05:06.499940 18218 net.cpp:386] relu1 -> conv1 (in-place)
I0403 15:05:06.500253 18218 net.cpp:141] Setting up relu1
I0403 15:05:06.500283 18218 net.cpp:148] Top shape: 100 96 55 55 (29040000)
I0403 15:05:06.500298 18218 net.cpp:156] Memory required for data: 294156400
I0403 15:05:06.500349 18218 layer_factory.hpp:77] Creating layer norm1
I0403 15:05:06.500380 18218 net.cpp:91] Creating Layer norm1
I0403 15:05:06.500398 18218 net.cpp:425] norm1 <- conv1
I0403 15:05:06.500417 18218 net.cpp:399] norm1 -> norm1
I0403 15:05:06.500735 18218 net.cpp:141] Setting up norm1
I0403 15:05:06.500764 18218 net.cpp:148] Top shape: 100 96 55 55 (29040000)
I0403 15:05:06.500780 18218 net.cpp:156] Memory required for data: 410316400
I0403 15:05:06.500797 18218 layer_factory.hpp:77] Creating layer pool1
I0403 15:05:06.500819 18218 net.cpp:91] Creating Layer pool1
I0403 15:05:06.500836 18218 net.cpp:425] pool1 <- norm1
I0403 15:05:06.500855 18218 net.cpp:399] pool1 -> pool1
I0403 15:05:06.500924 18218 net.cpp:141] Setting up pool1
I0403 15:05:06.500949 18218 net.cpp:148] Top shape: 100 96 27 27 (6998400)
I0403 15:05:06.500967 18218 net.cpp:156] Memory required for data: 438310000
I0403 15:05:06.500982 18218 layer_factory.hpp:77] Creating layer conv2
I0403 15:05:06.501008 18218 net.cpp:91] Creating Layer conv2
I0403 15:05:06.501029 18218 net.cpp:425] conv2 <- pool1
I0403 15:05:06.501050 18218 net.cpp:399] conv2 -> conv2
I0403 15:05:06.516587 18218 net.cpp:141] Setting up conv2
I0403 15:05:06.516636 18218 net.cpp:148] Top shape: 100 256 27 27 (18662400)
I0403 15:05:06.516654 18218 net.cpp:156] Memory required for data: 512959600
I0403 15:05:06.516677 18218 layer_factory.hpp:77] Creating layer relu2
I0403 15:05:06.516697 18218 net.cpp:91] Creating Layer relu2
I0403 15:05:06.516713 18218 net.cpp:425] relu2 <- conv2
I0403 15:05:06.516731 18218 net.cpp:386] relu2 -> conv2 (in-place)
I0403 15:05:06.517009 18218 net.cpp:141] Setting up relu2
I0403 15:05:06.517040 18218 net.cpp:148] Top shape: 100 256 27 27 (18662400)
I0403 15:05:06.517056 18218 net.cpp:156] Memory required for data: 587609200
I0403 15:05:06.517072 18218 layer_factory.hpp:77] Creating layer norm2
I0403 15:05:06.517096 18218 net.cpp:91] Creating Layer norm2
I0403 15:05:06.517112 18218 net.cpp:425] norm2 <- conv2
I0403 15:05:06.517132 18218 net.cpp:399] norm2 -> norm2
I0403 15:05:06.517336 18218 net.cpp:141] Setting up norm2
I0403 15:05:06.517362 18218 net.cpp:148] Top shape: 100 256 27 27 (18662400)
I0403 15:05:06.517379 18218 net.cpp:156] Memory required for data: 662258800
I0403 15:05:06.517393 18218 layer_factory.hpp:77] Creating layer pool2
I0403 15:05:06.517415 18218 net.cpp:91] Creating Layer pool2
I0403 15:05:06.517431 18218 net.cpp:425] pool2 <- norm2
I0403 15:05:06.517449 18218 net.cpp:399] pool2 -> pool2
I0403 15:05:06.517503 18218 net.cpp:141] Setting up pool2
I0403 15:05:06.517525 18218 net.cpp:148] Top shape: 100 256 13 13 (4326400)
I0403 15:05:06.517540 18218 net.cpp:156] Memory required for data: 679564400
I0403 15:05:06.517555 18218 layer_factory.hpp:77] Creating layer conv3
I0403 15:05:06.517580 18218 net.cpp:91] Creating Layer conv3
I0403 15:05:06.517596 18218 net.cpp:425] conv3 <- pool2
I0403 15:05:06.517616 18218 net.cpp:399] conv3 -> conv3
I0403 15:05:06.557585 18218 net.cpp:141] Setting up conv3
I0403 15:05:06.557643 18218 net.cpp:148] Top shape: 100 384 13 13 (6489600)
I0403 15:05:06.557660 18218 net.cpp:156] Memory required for data: 705522800
I0403 15:05:06.557683 18218 layer_factory.hpp:77] Creating layer relu3
I0403 15:05:06.557708 18218 net.cpp:91] Creating Layer relu3
I0403 15:05:06.557725 18218 net.cpp:425] relu3 <- conv3
I0403 15:05:06.557744 18218 net.cpp:386] relu3 -> conv3 (in-place)
I0403 15:05:06.558048 18218 net.cpp:141] Setting up relu3
I0403 15:05:06.558078 18218 net.cpp:148] Top shape: 100 384 13 13 (6489600)
I0403 15:05:06.558094 18218 net.cpp:156] Memory required for data: 731481200
I0403 15:05:06.558109 18218 layer_factory.hpp:77] Creating layer conv4
I0403 15:05:06.558135 18218 net.cpp:91] Creating Layer conv4
I0403 15:05:06.558153 18218 net.cpp:425] conv4 <- conv3
I0403 15:05:06.558176 18218 net.cpp:399] conv4 -> conv4
I0403 15:05:06.589560 18218 net.cpp:141] Setting up conv4
I0403 15:05:06.589642 18218 net.cpp:148] Top shape: 100 384 13 13 (6489600)
I0403 15:05:06.589694 18218 net.cpp:156] Memory required for data: 757439600
I0403 15:05:06.589716 18218 layer_factory.hpp:77] Creating layer relu4
I0403 15:05:06.589738 18218 net.cpp:91] Creating Layer relu4
I0403 15:05:06.589757 18218 net.cpp:425] relu4 <- conv4
I0403 15:05:06.589779 18218 net.cpp:386] relu4 -> conv4 (in-place)
I0403 15:05:06.590082 18218 net.cpp:141] Setting up relu4
I0403 15:05:06.590111 18218 net.cpp:148] Top shape: 100 384 13 13 (6489600)
I0403 15:05:06.590126 18218 net.cpp:156] Memory required for data: 783398000
I0403 15:05:06.590142 18218 layer_factory.hpp:77] Creating layer conv5
I0403 15:05:06.590169 18218 net.cpp:91] Creating Layer conv5
I0403 15:05:06.590186 18218 net.cpp:425] conv5 <- conv4
I0403 15:05:06.590209 18218 net.cpp:399] conv5 -> conv5
I0403 15:05:06.611382 18218 net.cpp:141] Setting up conv5
I0403 15:05:06.611428 18218 net.cpp:148] Top shape: 100 256 13 13 (4326400)
I0403 15:05:06.611445 18218 net.cpp:156] Memory required for data: 800703600
I0403 15:05:06.611470 18218 layer_factory.hpp:77] Creating layer relu5
I0403 15:05:06.611493 18218 net.cpp:91] Creating Layer relu5
I0403 15:05:06.611511 18218 net.cpp:425] relu5 <- conv5
I0403 15:05:06.611528 18218 net.cpp:386] relu5 -> conv5 (in-place)
I0403 15:05:06.611811 18218 net.cpp:141] Setting up relu5
I0403 15:05:06.611838 18218 net.cpp:148] Top shape: 100 256 13 13 (4326400)
I0403 15:05:06.611853 18218 net.cpp:156] Memory required for data: 818009200
I0403 15:05:06.611868 18218 layer_factory.hpp:77] Creating layer pool5
I0403 15:05:06.611893 18218 net.cpp:91] Creating Layer pool5
I0403 15:05:06.611910 18218 net.cpp:425] pool5 <- conv5
I0403 15:05:06.611929 18218 net.cpp:399] pool5 -> pool5
I0403 15:05:06.611990 18218 net.cpp:141] Setting up pool5
I0403 15:05:06.612015 18218 net.cpp:148] Top shape: 100 256 6 6 (921600)
I0403 15:05:06.612035 18218 net.cpp:156] Memory required for data: 821695600
I0403 15:05:06.612051 18218 layer_factory.hpp:77] Creating layer fc6
I0403 15:05:06.612079 18218 net.cpp:91] Creating Layer fc6
I0403 15:05:06.612098 18218 net.cpp:425] fc6 <- pool5
I0403 15:05:06.612117 18218 net.cpp:399] fc6 -> fc6
I0403 15:05:08.187088 18218 net.cpp:141] Setting up fc6
I0403 15:05:08.187130 18218 net.cpp:148] Top shape: 100 4096 (409600)
I0403 15:05:08.187147 18218 net.cpp:156] Memory required for data: 823334000
I0403 15:05:08.187168 18218 layer_factory.hpp:77] Creating layer relu6
I0403 15:05:08.187191 18218 net.cpp:91] Creating Layer relu6
I0403 15:05:08.187208 18218 net.cpp:425] relu6 <- fc6
I0403 15:05:08.187232 18218 net.cpp:386] relu6 -> fc6 (in-place)
I0403 15:05:08.187456 18218 net.cpp:141] Setting up relu6
I0403 15:05:08.187482 18218 net.cpp:148] Top shape: 100 4096 (409600)
I0403 15:05:08.187497 18218 net.cpp:156] Memory required for data: 824972400
I0403 15:05:08.187512 18218 layer_factory.hpp:77] Creating layer drop6
I0403 15:05:08.187535 18218 net.cpp:91] Creating Layer drop6
I0403 15:05:08.187551 18218 net.cpp:425] drop6 <- fc6
I0403 15:05:08.187567 18218 net.cpp:386] drop6 -> fc6 (in-place)
I0403 15:05:08.187619 18218 net.cpp:141] Setting up drop6
I0403 15:05:08.187646 18218 net.cpp:148] Top shape: 100 4096 (409600)
I0403 15:05:08.187662 18218 net.cpp:156] Memory required for data: 826610800
I0403 15:05:08.187677 18218 layer_factory.hpp:77] Creating layer fc7
I0403 15:05:08.187697 18218 net.cpp:91] Creating Layer fc7
I0403 15:05:08.187713 18218 net.cpp:425] fc7 <- fc6
I0403 15:05:08.187733 18218 net.cpp:399] fc7 -> fc7
I0403 15:05:08.868443 18218 net.cpp:141] Setting up fc7
I0403 15:05:08.868494 18218 net.cpp:148] Top shape: 100 4096 (409600)
I0403 15:05:08.868511 18218 net.cpp:156] Memory required for data: 828249200
I0403 15:05:08.868532 18218 layer_factory.hpp:77] Creating layer relu7
I0403 15:05:08.868553 18218 net.cpp:91] Creating Layer relu7
I0403 15:05:08.868571 18218 net.cpp:425] relu7 <- fc7
I0403 15:05:08.868592 18218 net.cpp:386] relu7 -> fc7 (in-place)
I0403 15:05:08.868989 18218 net.cpp:141] Setting up relu7
I0403 15:05:08.869015 18218 net.cpp:148] Top shape: 100 4096 (409600)
I0403 15:05:08.869070 18218 net.cpp:156] Memory required for data: 829887600
I0403 15:05:08.869086 18218 layer_factory.hpp:77] Creating layer drop7
I0403 15:05:08.869103 18218 net.cpp:91] Creating Layer drop7
I0403 15:05:08.869118 18218 net.cpp:425] drop7 <- fc7
I0403 15:05:08.869138 18218 net.cpp:386] drop7 -> fc7 (in-place)
I0403 15:05:08.869180 18218 net.cpp:141] Setting up drop7
I0403 15:05:08.869204 18218 net.cpp:148] Top shape: 100 4096 (409600)
I0403 15:05:08.869218 18218 net.cpp:156] Memory required for data: 831526000
I0403 15:05:08.869232 18218 layer_factory.hpp:77] Creating layer fc8_plantvillage
I0403 15:05:08.869251 18218 net.cpp:91] Creating Layer fc8_plantvillage
I0403 15:05:08.869266 18218 net.cpp:425] fc8_plantvillage <- fc7
I0403 15:05:08.869285 18218 net.cpp:399] fc8_plantvillage -> fc8_plantvillage
I0403 15:05:08.876027 18218 net.cpp:141] Setting up fc8_plantvillage
I0403 15:05:08.876057 18218 net.cpp:148] Top shape: 100 38 (3800)
I0403 15:05:08.876073 18218 net.cpp:156] Memory required for data: 831541200
I0403 15:05:08.876092 18218 layer_factory.hpp:77] Creating layer fc8_plantvillage_fc8_plantvillage_0_split
I0403 15:05:08.876113 18218 net.cpp:91] Creating Layer fc8_plantvillage_fc8_plantvillage_0_split
I0403 15:05:08.876130 18218 net.cpp:425] fc8_plantvillage_fc8_plantvillage_0_split <- fc8_plantvillage
I0403 15:05:08.876148 18218 net.cpp:399] fc8_plantvillage_fc8_plantvillage_0_split -> fc8_plantvillage_fc8_plantvillage_0_split_0
I0403 15:05:08.876169 18218 net.cpp:399] fc8_plantvillage_fc8_plantvillage_0_split -> fc8_plantvillage_fc8_plantvillage_0_split_1
I0403 15:05:08.876190 18218 net.cpp:399] fc8_plantvillage_fc8_plantvillage_0_split -> fc8_plantvillage_fc8_plantvillage_0_split_2
I0403 15:05:08.876272 18218 net.cpp:141] Setting up fc8_plantvillage_fc8_plantvillage_0_split
I0403 15:05:08.876296 18218 net.cpp:148] Top shape: 100 38 (3800)
I0403 15:05:08.876313 18218 net.cpp:148] Top shape: 100 38 (3800)
I0403 15:05:08.876329 18218 net.cpp:148] Top shape: 100 38 (3800)
I0403 15:05:08.876343 18218 net.cpp:156] Memory required for data: 831586800
I0403 15:05:08.876358 18218 layer_factory.hpp:77] Creating layer prob
I0403 15:05:08.876377 18218 net.cpp:91] Creating Layer prob
I0403 15:05:08.876394 18218 net.cpp:425] prob <- fc8_plantvillage_fc8_plantvillage_0_split_0
I0403 15:05:08.876411 18218 net.cpp:399] prob -> prob
I0403 15:05:08.876638 18218 net.cpp:141] Setting up prob
I0403 15:05:08.876663 18218 net.cpp:148] Top shape: 100 38 (3800)
I0403 15:05:08.876678 18218 net.cpp:156] Memory required for data: 831602000
I0403 15:05:08.876693 18218 layer_factory.hpp:77] Creating layer hdf5out
I0403 15:05:08.876711 18218 net.cpp:91] Creating Layer hdf5out
I0403 15:05:08.876726 18218 net.cpp:425] hdf5out <- prob
I0403 15:05:08.876741 18218 net.cpp:425] hdf5out <- label_data_1_split_0
I0403 15:05:08.879206 18218 net.cpp:141] Setting up hdf5out
…
