…
I0403 15:03:50.833245 18170 net.cpp:313] The NetState phase (1) differed from the phase (0) specified by a rule in layer data
I0403 15:03:50.833542 18170 net.cpp:49] Initializing net from parameters: 
state {
  phase: TEST
}
layer {
  name: "data"
  type: "Data"
  top: "data"
  top: "label"
  include {
    phase: TEST
  }
  transform_param {
    crop_size: 227
    mean_file: "/home/mohanty/data/final_dataset/lmdb/color-80-20/mean.binaryproto"
  }
  data_param {
    source: "/home/mohanty/data/final_dataset/lmdb/color-80-20/test_db"
    batch_size: 100
    backend: LMDB
  }
}
layer {
  name: "conv1"
  type: "Convolution"
  bottom: "data"
  top: "conv1"
  param {
    lr_mult: 1
    decay_mult: 1
  }
  param {
    lr_mult: 2
    decay_mult: 0
  }
  convolution_param {
    num_output: 96
    kernel_size: 11
    stride: 4
    weight_filler {
      type: "gaussian"
      std: 0.01
    }
    bias_filler {
      type: "constant"
      value: 0
    }
  }
}
layer {
  name: "relu1"
  type: "ReLU"
  bottom: "conv1"
  top: "conv1"
}
layer {
  name: "norm1"
  type: "LRN"
  bottom: "conv1"
  top: "norm1"
  lrn_param {
    local_size: 5
    alpha: 0.0001
    beta: 0.75
  }
}
layer {
  name: "pool1"
  type: "Pooling"
  bottom: "norm1"
  top: "pool1"
  pooling_param {
    pool: MAX
    kernel_size: 3
    stride: 2
  }
}
layer {
  name: "conv2"
  type: "Convolution"
  bottom: "pool1"
  top: "conv2"
  param {
    lr_mult: 1
    decay_mult: 1
  }
  param {
    lr_mult: 2
    decay_mult: 0
  }
  convolution_param {
    num_output: 256
    pad: 2
    kernel_size: 5
    group: 2
    weight_filler {
      type: "gaussian"
      std: 0.01
    }
    bias_filler {
      type: "constant"
      value: 0.1
    }
  }
}
layer {
  name: "relu2"
  type: "ReLU"
  bottom: "conv2"
  top: "conv2"
}
layer {
  name: "norm2"
  type: "LRN"
  bottom: "conv2"
  top: "norm2"
  lrn_param {
    local_size: 5
    alpha: 0.0001
    beta: 0.75
  }
}
layer {
  name: "pool2"
  type: "Pooling"
  bottom: "norm2"
  top: "pool2"
  pooling_param {
    pool: MAX
    kernel_size: 3
    stride: 2
  }
}
layer {
  name: "conv3"
  type: "Convolution"
  bottom: "pool2"
  top: "conv3"
  param {
    lr_mult: 1
    decay_mult: 1
  }
  param {
    lr_mult: 2
    decay_mult: 0
  }
  convolution_param {
    num_output: 384
    pad: 1
    kernel_size: 3
    weight_filler {
      type: "gaussian"
      std: 0.01
    }
    bias_filler {
      type: "constant"
      value: 0
    }
  }
}
layer {
  name: "relu3"
  type: "ReLU"
  bottom: "conv3"
  top: "conv3"
}
layer {
  name: "conv4"
  type: "Convolution"
  bottom: "conv3"
  top: "conv4"
  param {
    lr_mult: 1
    decay_mult: 1
  }
  param {
    lr_mult: 2
    decay_mult: 0
  }
  convolution_param {
    num_output: 384
    pad: 1
    kernel_size: 3
    group: 2
    weight_filler {
      type: "gaussian"
      std: 0.01
    }
    bias_filler {
      type: "constant"
      value: 0.1
    }
  }
}
layer {
  name: "relu4"
  type: "ReLU"
  bottom: "conv4"
  top: "conv4"
}
layer {
  name: "conv5"
  type: "Convolution"
  bottom: "conv4"
  top: "conv5"
  param {
    lr_mult: 1
    decay_mult: 1
  }
  param {
    lr_mult: 2
    decay_mult: 0
  }
  convolution_param {
    num_output: 256
    pad: 1
    kernel_size: 3
    group: 2
    weight_filler {
      type: "gaussian"
      std: 0.01
    }
    bias_filler {
      type: "constant"
      value: 0.1
    }
  }
}
layer {
  name: "relu5"
  type: "ReLU"
  bottom: "conv5"
  top: "conv5"
}
layer {
  name: "pool5"
  type: "Pooling"
  bottom: "conv5"
  top: "pool5"
  pooling_param {
    pool: MAX
    kernel_size: 3
    stride: 2
  }
}
layer {
  name: "fc6"
  type: "InnerProduct"
  bottom: "pool5"
  top: "fc6"
  param {
    lr_mult: 1
    decay_mult: 1
  }
  param {
    lr_mult: 2
    decay_mult: 0
  }
  inner_product_param {
    num_output: 4096
    weight_filler {
      type: "gaussian"
      std: 0.005
    }
    bias_filler {
      type: "constant"
      value: 0.1
    }
  }
}
layer {
  name: "relu6"
  type: "ReLU"
  bottom: "fc6"
  top: "fc6"
}
layer {
  name: "drop6"
  type: "Dropout"
  bottom: "fc6"
  top: "fc6"
  dropout_param {
    dropout_ratio: 0.5
  }
}
layer {
  name: "fc7"
  type: "InnerProduct"
  bottom: "fc6"
  top: "fc7"
  param {
    lr_mult: 1
    decay_mult: 1
  }
  param {
    lr_mult: 2
    decay_mult: 0
  }
  inner_product_param {
    num_output: 4096
    weight_filler {
      type: "gaussian"
      std: 0.005
    }
    bias_filler {
      type: "constant"
      value: 0.1
    }
  }
}
layer {
  name: "relu7"
  type: "ReLU"
  bottom: "fc7"
  top: "fc7"
}
layer {
  name: "drop7"
  type: "Dropout"
  bottom: "fc7"
  top: "fc7"
  dropout_param {
    dropout_ratio: 0.5
  }
}
layer {
  name: "fc8_plantvillage"
  type: "InnerProduct"
  bottom: "fc7"
  top: "fc8_plantvillage"
  param {
    lr_mult: 1
    decay_mult: 1
  }
  param {
    lr_mult: 2
    decay_mult: 0
  }
  inner_product_param {
    num_output: 38
    weight_filler {
      type: "gaussian"
      std: 0.01
    }
    bias_filler {
      type: "constant"
      value: 0
    }
  }
}
layer {
  name: "prob"
  type: "Softmax"
  bottom: "fc8_plantvillage"
  top: "prob"
  include {
    phase: TEST
  }
}
layer {
  name: "hdf5out"
  type: "HDF5Output"
  bottom: "prob"
  bottom: "label"
  include {
    phase: TEST
  }
  hdf5_output_param {
    file_name: "hdf5_dumps/iter_3933.h5"
  }
}
layer {
  name: "loss"
  type: "SoftmaxWithLoss"
  bottom: "fc8_plantvillage"
  bottom: "label"
  top: "loss"
}
layer {
  name: "accuracy"
  type: "Accuracy"
  bottom: "fc8_plantvillage"
  bottom: "label"
  top: "accuracy"
  include {
    phase: TEST
  }
}
I0403 15:03:50.834100 18170 layer_factory.hpp:77] Creating layer data
I0403 15:03:50.834735 18170 net.cpp:91] Creating Layer data
I0403 15:03:50.834767 18170 net.cpp:399] data -> data
I0403 15:03:50.834816 18170 net.cpp:399] data -> label
I0403 15:03:50.834852 18170 data_transformer.cpp:25] Loading mean file from: /home/mohanty/data/final_dataset/lmdb/color-80-20/mean.binaryproto
I0403 15:03:50.837469 18173 db_lmdb.cpp:38] Opened lmdb /home/mohanty/data/final_dataset/lmdb/color-80-20/test_db
I0403 15:03:50.849364 18170 data_layer.cpp:41] output data size: 100,3,227,227
I0403 15:03:50.971492 18170 net.cpp:141] Setting up data
I0403 15:03:50.971601 18170 net.cpp:148] Top shape: 100 3 227 227 (15458700)
I0403 15:03:50.971623 18170 net.cpp:148] Top shape: 100 (100)
I0403 15:03:50.971639 18170 net.cpp:156] Memory required for data: 61835200
I0403 15:03:50.971668 18170 layer_factory.hpp:77] Creating layer label_data_1_split
I0403 15:03:50.971691 18170 net.cpp:91] Creating Layer label_data_1_split
I0403 15:03:50.971710 18170 net.cpp:425] label_data_1_split <- label
I0403 15:03:50.971741 18170 net.cpp:399] label_data_1_split -> label_data_1_split_0
I0403 15:03:50.971770 18170 net.cpp:399] label_data_1_split -> label_data_1_split_1
I0403 15:03:50.971789 18170 net.cpp:399] label_data_1_split -> label_data_1_split_2
I0403 15:03:50.971855 18170 net.cpp:141] Setting up label_data_1_split
I0403 15:03:50.971879 18170 net.cpp:148] Top shape: 100 (100)
I0403 15:03:50.971895 18170 net.cpp:148] Top shape: 100 (100)
I0403 15:03:50.971911 18170 net.cpp:148] Top shape: 100 (100)
I0403 15:03:50.971926 18170 net.cpp:156] Memory required for data: 61836400
I0403 15:03:50.971941 18170 layer_factory.hpp:77] Creating layer conv1
I0403 15:03:50.971971 18170 net.cpp:91] Creating Layer conv1
I0403 15:03:50.971990 18170 net.cpp:425] conv1 <- data
I0403 15:03:50.972010 18170 net.cpp:399] conv1 -> conv1
I0403 15:03:51.111775 18170 net.cpp:141] Setting up conv1
I0403 15:03:51.111865 18170 net.cpp:148] Top shape: 100 96 55 55 (29040000)
I0403 15:03:51.111881 18170 net.cpp:156] Memory required for data: 177996400
I0403 15:03:51.111912 18170 layer_factory.hpp:77] Creating layer relu1
I0403 15:03:51.111938 18170 net.cpp:91] Creating Layer relu1
I0403 15:03:51.111956 18170 net.cpp:425] relu1 <- conv1
I0403 15:03:51.111974 18170 net.cpp:386] relu1 -> conv1 (in-place)
I0403 15:03:51.112247 18170 net.cpp:141] Setting up relu1
I0403 15:03:51.112274 18170 net.cpp:148] Top shape: 100 96 55 55 (29040000)
I0403 15:03:51.112289 18170 net.cpp:156] Memory required for data: 294156400
I0403 15:03:51.112334 18170 layer_factory.hpp:77] Creating layer norm1
I0403 15:03:51.112361 18170 net.cpp:91] Creating Layer norm1
I0403 15:03:51.112378 18170 net.cpp:425] norm1 <- conv1
I0403 15:03:51.112399 18170 net.cpp:399] norm1 -> norm1
I0403 15:03:51.112723 18170 net.cpp:141] Setting up norm1
I0403 15:03:51.112751 18170 net.cpp:148] Top shape: 100 96 55 55 (29040000)
I0403 15:03:51.112766 18170 net.cpp:156] Memory required for data: 410316400
I0403 15:03:51.112782 18170 layer_factory.hpp:77] Creating layer pool1
I0403 15:03:51.112802 18170 net.cpp:91] Creating Layer pool1
I0403 15:03:51.112818 18170 net.cpp:425] pool1 <- norm1
I0403 15:03:51.112838 18170 net.cpp:399] pool1 -> pool1
I0403 15:03:51.112910 18170 net.cpp:141] Setting up pool1
I0403 15:03:51.112933 18170 net.cpp:148] Top shape: 100 96 27 27 (6998400)
I0403 15:03:51.112948 18170 net.cpp:156] Memory required for data: 438310000
I0403 15:03:51.112962 18170 layer_factory.hpp:77] Creating layer conv2
I0403 15:03:51.112989 18170 net.cpp:91] Creating Layer conv2
I0403 15:03:51.113005 18170 net.cpp:425] conv2 <- pool1
I0403 15:03:51.113023 18170 net.cpp:399] conv2 -> conv2
I0403 15:03:51.127988 18170 net.cpp:141] Setting up conv2
I0403 15:03:51.128031 18170 net.cpp:148] Top shape: 100 256 27 27 (18662400)
I0403 15:03:51.128058 18170 net.cpp:156] Memory required for data: 512959600
I0403 15:03:51.128087 18170 layer_factory.hpp:77] Creating layer relu2
I0403 15:03:51.128118 18170 net.cpp:91] Creating Layer relu2
I0403 15:03:51.128135 18170 net.cpp:425] relu2 <- conv2
I0403 15:03:51.128154 18170 net.cpp:386] relu2 -> conv2 (in-place)
I0403 15:03:51.128443 18170 net.cpp:141] Setting up relu2
I0403 15:03:51.128470 18170 net.cpp:148] Top shape: 100 256 27 27 (18662400)
I0403 15:03:51.128485 18170 net.cpp:156] Memory required for data: 587609200
I0403 15:03:51.128501 18170 layer_factory.hpp:77] Creating layer norm2
I0403 15:03:51.128525 18170 net.cpp:91] Creating Layer norm2
I0403 15:03:51.128541 18170 net.cpp:425] norm2 <- conv2
I0403 15:03:51.128561 18170 net.cpp:399] norm2 -> norm2
I0403 15:03:51.128762 18170 net.cpp:141] Setting up norm2
I0403 15:03:51.128789 18170 net.cpp:148] Top shape: 100 256 27 27 (18662400)
I0403 15:03:51.128805 18170 net.cpp:156] Memory required for data: 662258800
I0403 15:03:51.128820 18170 layer_factory.hpp:77] Creating layer pool2
I0403 15:03:51.128837 18170 net.cpp:91] Creating Layer pool2
I0403 15:03:51.128859 18170 net.cpp:425] pool2 <- norm2
I0403 15:03:51.128877 18170 net.cpp:399] pool2 -> pool2
I0403 15:03:51.128931 18170 net.cpp:141] Setting up pool2
I0403 15:03:51.128954 18170 net.cpp:148] Top shape: 100 256 13 13 (4326400)
I0403 15:03:51.128969 18170 net.cpp:156] Memory required for data: 679564400
I0403 15:03:51.128983 18170 layer_factory.hpp:77] Creating layer conv3
I0403 15:03:51.129009 18170 net.cpp:91] Creating Layer conv3
I0403 15:03:51.129025 18170 net.cpp:425] conv3 <- pool2
I0403 15:03:51.129045 18170 net.cpp:399] conv3 -> conv3
I0403 15:03:51.168045 18170 net.cpp:141] Setting up conv3
I0403 15:03:51.168095 18170 net.cpp:148] Top shape: 100 384 13 13 (6489600)
I0403 15:03:51.168112 18170 net.cpp:156] Memory required for data: 705522800
I0403 15:03:51.168136 18170 layer_factory.hpp:77] Creating layer relu3
I0403 15:03:51.168160 18170 net.cpp:91] Creating Layer relu3
I0403 15:03:51.168179 18170 net.cpp:425] relu3 <- conv3
I0403 15:03:51.168197 18170 net.cpp:386] relu3 -> conv3 (in-place)
I0403 15:03:51.168474 18170 net.cpp:141] Setting up relu3
I0403 15:03:51.168501 18170 net.cpp:148] Top shape: 100 384 13 13 (6489600)
I0403 15:03:51.168516 18170 net.cpp:156] Memory required for data: 731481200
I0403 15:03:51.168531 18170 layer_factory.hpp:77] Creating layer conv4
I0403 15:03:51.168555 18170 net.cpp:91] Creating Layer conv4
I0403 15:03:51.168572 18170 net.cpp:425] conv4 <- conv3
I0403 15:03:51.168594 18170 net.cpp:399] conv4 -> conv4
I0403 15:03:51.197604 18170 net.cpp:141] Setting up conv4
I0403 15:03:51.197649 18170 net.cpp:148] Top shape: 100 384 13 13 (6489600)
I0403 15:03:51.197696 18170 net.cpp:156] Memory required for data: 757439600
I0403 15:03:51.197716 18170 layer_factory.hpp:77] Creating layer relu4
I0403 15:03:51.197736 18170 net.cpp:91] Creating Layer relu4
I0403 15:03:51.197751 18170 net.cpp:425] relu4 <- conv4
I0403 15:03:51.197772 18170 net.cpp:386] relu4 -> conv4 (in-place)
I0403 15:03:51.198057 18170 net.cpp:141] Setting up relu4
I0403 15:03:51.198086 18170 net.cpp:148] Top shape: 100 384 13 13 (6489600)
I0403 15:03:51.198102 18170 net.cpp:156] Memory required for data: 783398000
I0403 15:03:51.198118 18170 layer_factory.hpp:77] Creating layer conv5
I0403 15:03:51.198145 18170 net.cpp:91] Creating Layer conv5
I0403 15:03:51.198165 18170 net.cpp:425] conv5 <- conv4
I0403 15:03:51.198189 18170 net.cpp:399] conv5 -> conv5
I0403 15:03:51.218456 18170 net.cpp:141] Setting up conv5
I0403 15:03:51.218502 18170 net.cpp:148] Top shape: 100 256 13 13 (4326400)
I0403 15:03:51.218518 18170 net.cpp:156] Memory required for data: 800703600
I0403 15:03:51.218539 18170 layer_factory.hpp:77] Creating layer relu5
I0403 15:03:51.218562 18170 net.cpp:91] Creating Layer relu5
I0403 15:03:51.218580 18170 net.cpp:425] relu5 <- conv5
I0403 15:03:51.218597 18170 net.cpp:386] relu5 -> conv5 (in-place)
I0403 15:03:51.218874 18170 net.cpp:141] Setting up relu5
I0403 15:03:51.218901 18170 net.cpp:148] Top shape: 100 256 13 13 (4326400)
I0403 15:03:51.218916 18170 net.cpp:156] Memory required for data: 818009200
I0403 15:03:51.218931 18170 layer_factory.hpp:77] Creating layer pool5
I0403 15:03:51.218956 18170 net.cpp:91] Creating Layer pool5
I0403 15:03:51.218974 18170 net.cpp:425] pool5 <- conv5
I0403 15:03:51.218992 18170 net.cpp:399] pool5 -> pool5
I0403 15:03:51.219064 18170 net.cpp:141] Setting up pool5
I0403 15:03:51.219090 18170 net.cpp:148] Top shape: 100 256 6 6 (921600)
I0403 15:03:51.219105 18170 net.cpp:156] Memory required for data: 821695600
I0403 15:03:51.219120 18170 layer_factory.hpp:77] Creating layer fc6
I0403 15:03:51.219146 18170 net.cpp:91] Creating Layer fc6
I0403 15:03:51.219164 18170 net.cpp:425] fc6 <- pool5
I0403 15:03:51.219185 18170 net.cpp:399] fc6 -> fc6
I0403 15:03:52.754412 18170 net.cpp:141] Setting up fc6
I0403 15:03:52.754456 18170 net.cpp:148] Top shape: 100 4096 (409600)
I0403 15:03:52.754472 18170 net.cpp:156] Memory required for data: 823334000
I0403 15:03:52.754493 18170 layer_factory.hpp:77] Creating layer relu6
I0403 15:03:52.754515 18170 net.cpp:91] Creating Layer relu6
I0403 15:03:52.754531 18170 net.cpp:425] relu6 <- fc6
I0403 15:03:52.754549 18170 net.cpp:386] relu6 -> fc6 (in-place)
I0403 15:03:52.754765 18170 net.cpp:141] Setting up relu6
I0403 15:03:52.754791 18170 net.cpp:148] Top shape: 100 4096 (409600)
I0403 15:03:52.754804 18170 net.cpp:156] Memory required for data: 824972400
I0403 15:03:52.754819 18170 layer_factory.hpp:77] Creating layer drop6
I0403 15:03:52.754837 18170 net.cpp:91] Creating Layer drop6
I0403 15:03:52.754851 18170 net.cpp:425] drop6 <- fc6
I0403 15:03:52.754870 18170 net.cpp:386] drop6 -> fc6 (in-place)
I0403 15:03:52.754920 18170 net.cpp:141] Setting up drop6
I0403 15:03:52.754945 18170 net.cpp:148] Top shape: 100 4096 (409600)
I0403 15:03:52.754961 18170 net.cpp:156] Memory required for data: 826610800
I0403 15:03:52.754976 18170 layer_factory.hpp:77] Creating layer fc7
I0403 15:03:52.754994 18170 net.cpp:91] Creating Layer fc7
I0403 15:03:52.755009 18170 net.cpp:425] fc7 <- fc6
I0403 15:03:52.755029 18170 net.cpp:399] fc7 -> fc7
I0403 15:03:53.433554 18170 net.cpp:141] Setting up fc7
I0403 15:03:53.433619 18170 net.cpp:148] Top shape: 100 4096 (409600)
I0403 15:03:53.433635 18170 net.cpp:156] Memory required for data: 828249200
I0403 15:03:53.433656 18170 layer_factory.hpp:77] Creating layer relu7
I0403 15:03:53.433677 18170 net.cpp:91] Creating Layer relu7
I0403 15:03:53.433696 18170 net.cpp:425] relu7 <- fc7
I0403 15:03:53.433717 18170 net.cpp:386] relu7 -> fc7 (in-place)
I0403 15:03:53.434128 18170 net.cpp:141] Setting up relu7
I0403 15:03:53.434155 18170 net.cpp:148] Top shape: 100 4096 (409600)
I0403 15:03:53.434209 18170 net.cpp:156] Memory required for data: 829887600
I0403 15:03:53.434226 18170 layer_factory.hpp:77] Creating layer drop7
I0403 15:03:53.434245 18170 net.cpp:91] Creating Layer drop7
I0403 15:03:53.434265 18170 net.cpp:425] drop7 <- fc7
I0403 15:03:53.434285 18170 net.cpp:386] drop7 -> fc7 (in-place)
I0403 15:03:53.434335 18170 net.cpp:141] Setting up drop7
I0403 15:03:53.434365 18170 net.cpp:148] Top shape: 100 4096 (409600)
I0403 15:03:53.434381 18170 net.cpp:156] Memory required for data: 831526000
I0403 15:03:53.434399 18170 layer_factory.hpp:77] Creating layer fc8_plantvillage
I0403 15:03:53.434418 18170 net.cpp:91] Creating Layer fc8_plantvillage
I0403 15:03:53.434434 18170 net.cpp:425] fc8_plantvillage <- fc7
I0403 15:03:53.434455 18170 net.cpp:399] fc8_plantvillage -> fc8_plantvillage
I0403 15:03:53.441407 18170 net.cpp:141] Setting up fc8_plantvillage
I0403 15:03:53.441437 18170 net.cpp:148] Top shape: 100 38 (3800)
I0403 15:03:53.441452 18170 net.cpp:156] Memory required for data: 831541200
I0403 15:03:53.441469 18170 layer_factory.hpp:77] Creating layer fc8_plantvillage_fc8_plantvillage_0_split
I0403 15:03:53.441490 18170 net.cpp:91] Creating Layer fc8_plantvillage_fc8_plantvillage_0_split
I0403 15:03:53.441506 18170 net.cpp:425] fc8_plantvillage_fc8_plantvillage_0_split <- fc8_plantvillage
I0403 15:03:53.441524 18170 net.cpp:399] fc8_plantvillage_fc8_plantvillage_0_split -> fc8_plantvillage_fc8_plantvillage_0_split_0
I0403 15:03:53.441543 18170 net.cpp:399] fc8_plantvillage_fc8_plantvillage_0_split -> fc8_plantvillage_fc8_plantvillage_0_split_1
I0403 15:03:53.441563 18170 net.cpp:399] fc8_plantvillage_fc8_plantvillage_0_split -> fc8_plantvillage_fc8_plantvillage_0_split_2
I0403 15:03:53.441643 18170 net.cpp:141] Setting up fc8_plantvillage_fc8_plantvillage_0_split
I0403 15:03:53.441668 18170 net.cpp:148] Top shape: 100 38 (3800)
I0403 15:03:53.441684 18170 net.cpp:148] Top shape: 100 38 (3800)
I0403 15:03:53.441700 18170 net.cpp:148] Top shape: 100 38 (3800)
I0403 15:03:53.441715 18170 net.cpp:156] Memory required for data: 831586800
I0403 15:03:53.441728 18170 layer_factory.hpp:77] Creating layer prob
I0403 15:03:53.441746 18170 net.cpp:91] Creating Layer prob
I0403 15:03:53.441761 18170 net.cpp:425] prob <- fc8_plantvillage_fc8_plantvillage_0_split_0
I0403 15:03:53.441779 18170 net.cpp:399] prob -> prob
I0403 15:03:53.442013 18170 net.cpp:141] Setting up prob
I0403 15:03:53.442039 18170 net.cpp:148] Top shape: 100 38 (3800)
I0403 15:03:53.442061 18170 net.cpp:156] Memory required for data: 831602000
I0403 15:03:53.442080 18170 layer_factory.hpp:77] Creating layer hdf5out
I0403 15:03:53.442098 18170 net.cpp:91] Creating Layer hdf5out
I0403 15:03:53.442113 18170 net.cpp:425] hdf5out <- prob
I0403 15:03:53.442131 18170 net.cpp:425] hdf5out <- label_data_1_split_0
I0403 15:03:53.444475 18170 net.cpp:141] Setting up hdf5out
…
