…
I0403 15:05:31.294687 18227 net.cpp:313] The NetState phase (1) differed from the phase (0) specified by a rule in layer data
I0403 15:05:31.294975 18227 net.cpp:49] Initializing net from parameters: 
state {
  phase: TEST
}
layer {
  name: "data"
  type: "Data"
  top: "data"
  top: "label"
  include {
    phase: TEST
  }
  transform_param {
    crop_size: 227
    mean_file: "/home/mohanty/data/final_dataset/lmdb/color-80-20/mean.binaryproto"
  }
  data_param {
    source: "/home/mohanty/data/final_dataset/lmdb/color-80-20/test_db"
    batch_size: 100
    backend: LMDB
  }
}
layer {
  name: "conv1"
  type: "Convolution"
  bottom: "data"
  top: "conv1"
  param {
    lr_mult: 1
    decay_mult: 1
  }
  param {
    lr_mult: 2
    decay_mult: 0
  }
  convolution_param {
    num_output: 96
    kernel_size: 11
    stride: 4
    weight_filler {
      type: "gaussian"
      std: 0.01
    }
    bias_filler {
      type: "constant"
      value: 0
    }
  }
}
layer {
  name: "relu1"
  type: "ReLU"
  bottom: "conv1"
  top: "conv1"
}
layer {
  name: "norm1"
  type: "LRN"
  bottom: "conv1"
  top: "norm1"
  lrn_param {
    local_size: 5
    alpha: 0.0001
    beta: 0.75
  }
}
layer {
  name: "pool1"
  type: "Pooling"
  bottom: "norm1"
  top: "pool1"
  pooling_param {
    pool: MAX
    kernel_size: 3
    stride: 2
  }
}
layer {
  name: "conv2"
  type: "Convolution"
  bottom: "pool1"
  top: "conv2"
  param {
    lr_mult: 1
    decay_mult: 1
  }
  param {
    lr_mult: 2
    decay_mult: 0
  }
  convolution_param {
    num_output: 256
    pad: 2
    kernel_size: 5
    group: 2
    weight_filler {
      type: "gaussian"
      std: 0.01
    }
    bias_filler {
      type: "constant"
      value: 0.1
    }
  }
}
layer {
  name: "relu2"
  type: "ReLU"
  bottom: "conv2"
  top: "conv2"
}
layer {
  name: "norm2"
  type: "LRN"
  bottom: "conv2"
  top: "norm2"
  lrn_param {
    local_size: 5
    alpha: 0.0001
    beta: 0.75
  }
}
layer {
  name: "pool2"
  type: "Pooling"
  bottom: "norm2"
  top: "pool2"
  pooling_param {
    pool: MAX
    kernel_size: 3
    stride: 2
  }
}
layer {
  name: "conv3"
  type: "Convolution"
  bottom: "pool2"
  top: "conv3"
  param {
    lr_mult: 1
    decay_mult: 1
  }
  param {
    lr_mult: 2
    decay_mult: 0
  }
  convolution_param {
    num_output: 384
    pad: 1
    kernel_size: 3
    weight_filler {
      type: "gaussian"
      std: 0.01
    }
    bias_filler {
      type: "constant"
      value: 0
    }
  }
}
layer {
  name: "relu3"
  type: "ReLU"
  bottom: "conv3"
  top: "conv3"
}
layer {
  name: "conv4"
  type: "Convolution"
  bottom: "conv3"
  top: "conv4"
  param {
    lr_mult: 1
    decay_mult: 1
  }
  param {
    lr_mult: 2
    decay_mult: 0
  }
  convolution_param {
    num_output: 384
    pad: 1
    kernel_size: 3
    group: 2
    weight_filler {
      type: "gaussian"
      std: 0.01
    }
    bias_filler {
      type: "constant"
      value: 0.1
    }
  }
}
layer {
  name: "relu4"
  type: "ReLU"
  bottom: "conv4"
  top: "conv4"
}
layer {
  name: "conv5"
  type: "Convolution"
  bottom: "conv4"
  top: "conv5"
  param {
    lr_mult: 1
    decay_mult: 1
  }
  param {
    lr_mult: 2
    decay_mult: 0
  }
  convolution_param {
    num_output: 256
    pad: 1
    kernel_size: 3
    group: 2
    weight_filler {
      type: "gaussian"
      std: 0.01
    }
    bias_filler {
      type: "constant"
      value: 0.1
    }
  }
}
layer {
  name: "relu5"
  type: "ReLU"
  bottom: "conv5"
  top: "conv5"
}
layer {
  name: "pool5"
  type: "Pooling"
  bottom: "conv5"
  top: "pool5"
  pooling_param {
    pool: MAX
    kernel_size: 3
    stride: 2
  }
}
layer {
  name: "fc6"
  type: "InnerProduct"
  bottom: "pool5"
  top: "fc6"
  param {
    lr_mult: 1
    decay_mult: 1
  }
  param {
    lr_mult: 2
    decay_mult: 0
  }
  inner_product_param {
    num_output: 4096
    weight_filler {
      type: "gaussian"
      std: 0.005
    }
    bias_filler {
      type: "constant"
      value: 0.1
    }
  }
}
layer {
  name: "relu6"
  type: "ReLU"
  bottom: "fc6"
  top: "fc6"
}
layer {
  name: "drop6"
  type: "Dropout"
  bottom: "fc6"
  top: "fc6"
  dropout_param {
    dropout_ratio: 0.5
  }
}
layer {
  name: "fc7"
  type: "InnerProduct"
  bottom: "fc6"
  top: "fc7"
  param {
    lr_mult: 1
    decay_mult: 1
  }
  param {
    lr_mult: 2
    decay_mult: 0
  }
  inner_product_param {
    num_output: 4096
    weight_filler {
      type: "gaussian"
      std: 0.005
    }
    bias_filler {
      type: "constant"
      value: 0.1
    }
  }
}
layer {
  name: "relu7"
  type: "ReLU"
  bottom: "fc7"
  top: "fc7"
}
layer {
  name: "drop7"
  type: "Dropout"
  bottom: "fc7"
  top: "fc7"
  dropout_param {
    dropout_ratio: 0.5
  }
}
layer {
  name: "fc8_plantvillage"
  type: "InnerProduct"
  bottom: "fc7"
  top: "fc8_plantvillage"
  param {
    lr_mult: 1
    decay_mult: 1
  }
  param {
    lr_mult: 2
    decay_mult: 0
  }
  inner_product_param {
    num_output: 38
    weight_filler {
      type: "gaussian"
      std: 0.01
    }
    bias_filler {
      type: "constant"
      value: 0
    }
  }
}
layer {
  name: "prob"
  type: "Softmax"
  bottom: "fc8_plantvillage"
  top: "prob"
  include {
    phase: TEST
  }
}
layer {
  name: "hdf5out"
  type: "HDF5Output"
  bottom: "prob"
  bottom: "label"
  include {
    phase: TEST
  }
  hdf5_output_param {
    file_name: "hdf5_dumps/iter_5681.h5"
  }
}
layer {
  name: "loss"
  type: "SoftmaxWithLoss"
  bottom: "fc8_plantvillage"
  bottom: "label"
  top: "loss"
}
layer {
  name: "accuracy"
  type: "Accuracy"
  bottom: "fc8_plantvillage"
  bottom: "label"
  top: "accuracy"
  include {
    phase: TEST
  }
}
I0403 15:05:31.295547 18227 layer_factory.hpp:77] Creating layer data
I0403 15:05:31.296177 18227 net.cpp:91] Creating Layer data
I0403 15:05:31.296208 18227 net.cpp:399] data -> data
I0403 15:05:31.296263 18227 net.cpp:399] data -> label
I0403 15:05:31.296299 18227 data_transformer.cpp:25] Loading mean file from: /home/mohanty/data/final_dataset/lmdb/color-80-20/mean.binaryproto
I0403 15:05:31.298990 18232 db_lmdb.cpp:38] Opened lmdb /home/mohanty/data/final_dataset/lmdb/color-80-20/test_db
I0403 15:05:31.311007 18227 data_layer.cpp:41] output data size: 100,3,227,227
I0403 15:05:31.432472 18227 net.cpp:141] Setting up data
I0403 15:05:31.432577 18227 net.cpp:148] Top shape: 100 3 227 227 (15458700)
I0403 15:05:31.432600 18227 net.cpp:148] Top shape: 100 (100)
I0403 15:05:31.432616 18227 net.cpp:156] Memory required for data: 61835200
I0403 15:05:31.432644 18227 layer_factory.hpp:77] Creating layer label_data_1_split
I0403 15:05:31.432669 18227 net.cpp:91] Creating Layer label_data_1_split
I0403 15:05:31.432687 18227 net.cpp:425] label_data_1_split <- label
I0403 15:05:31.432720 18227 net.cpp:399] label_data_1_split -> label_data_1_split_0
I0403 15:05:31.432749 18227 net.cpp:399] label_data_1_split -> label_data_1_split_1
I0403 15:05:31.432768 18227 net.cpp:399] label_data_1_split -> label_data_1_split_2
I0403 15:05:31.432832 18227 net.cpp:141] Setting up label_data_1_split
I0403 15:05:31.432857 18227 net.cpp:148] Top shape: 100 (100)
I0403 15:05:31.432873 18227 net.cpp:148] Top shape: 100 (100)
I0403 15:05:31.432889 18227 net.cpp:148] Top shape: 100 (100)
I0403 15:05:31.432904 18227 net.cpp:156] Memory required for data: 61836400
I0403 15:05:31.432919 18227 layer_factory.hpp:77] Creating layer conv1
I0403 15:05:31.432950 18227 net.cpp:91] Creating Layer conv1
I0403 15:05:31.432970 18227 net.cpp:425] conv1 <- data
I0403 15:05:31.432988 18227 net.cpp:399] conv1 -> conv1
I0403 15:05:31.580121 18227 net.cpp:141] Setting up conv1
I0403 15:05:31.580210 18227 net.cpp:148] Top shape: 100 96 55 55 (29040000)
I0403 15:05:31.580227 18227 net.cpp:156] Memory required for data: 177996400
I0403 15:05:31.580257 18227 layer_factory.hpp:77] Creating layer relu1
I0403 15:05:31.580286 18227 net.cpp:91] Creating Layer relu1
I0403 15:05:31.580303 18227 net.cpp:425] relu1 <- conv1
I0403 15:05:31.580322 18227 net.cpp:386] relu1 -> conv1 (in-place)
I0403 15:05:31.580590 18227 net.cpp:141] Setting up relu1
I0403 15:05:31.580662 18227 net.cpp:148] Top shape: 100 96 55 55 (29040000)
I0403 15:05:31.580683 18227 net.cpp:156] Memory required for data: 294156400
I0403 15:05:31.580730 18227 layer_factory.hpp:77] Creating layer norm1
I0403 15:05:31.580759 18227 net.cpp:91] Creating Layer norm1
I0403 15:05:31.580776 18227 net.cpp:425] norm1 <- conv1
I0403 15:05:31.580793 18227 net.cpp:399] norm1 -> norm1
I0403 15:05:31.581115 18227 net.cpp:141] Setting up norm1
I0403 15:05:31.581143 18227 net.cpp:148] Top shape: 100 96 55 55 (29040000)
I0403 15:05:31.581158 18227 net.cpp:156] Memory required for data: 410316400
I0403 15:05:31.581173 18227 layer_factory.hpp:77] Creating layer pool1
I0403 15:05:31.581197 18227 net.cpp:91] Creating Layer pool1
I0403 15:05:31.581214 18227 net.cpp:425] pool1 <- norm1
I0403 15:05:31.581231 18227 net.cpp:399] pool1 -> pool1
I0403 15:05:31.581298 18227 net.cpp:141] Setting up pool1
I0403 15:05:31.581322 18227 net.cpp:148] Top shape: 100 96 27 27 (6998400)
I0403 15:05:31.581338 18227 net.cpp:156] Memory required for data: 438310000
I0403 15:05:31.581353 18227 layer_factory.hpp:77] Creating layer conv2
I0403 15:05:31.581377 18227 net.cpp:91] Creating Layer conv2
I0403 15:05:31.581393 18227 net.cpp:425] conv2 <- pool1
I0403 15:05:31.581411 18227 net.cpp:399] conv2 -> conv2
I0403 15:05:31.596978 18227 net.cpp:141] Setting up conv2
I0403 15:05:31.597026 18227 net.cpp:148] Top shape: 100 256 27 27 (18662400)
I0403 15:05:31.597044 18227 net.cpp:156] Memory required for data: 512959600
I0403 15:05:31.597072 18227 layer_factory.hpp:77] Creating layer relu2
I0403 15:05:31.597092 18227 net.cpp:91] Creating Layer relu2
I0403 15:05:31.597108 18227 net.cpp:425] relu2 <- conv2
I0403 15:05:31.597129 18227 net.cpp:386] relu2 -> conv2 (in-place)
I0403 15:05:31.597427 18227 net.cpp:141] Setting up relu2
I0403 15:05:31.597455 18227 net.cpp:148] Top shape: 100 256 27 27 (18662400)
I0403 15:05:31.597471 18227 net.cpp:156] Memory required for data: 587609200
I0403 15:05:31.597486 18227 layer_factory.hpp:77] Creating layer norm2
I0403 15:05:31.597511 18227 net.cpp:91] Creating Layer norm2
I0403 15:05:31.597528 18227 net.cpp:425] norm2 <- conv2
I0403 15:05:31.597546 18227 net.cpp:399] norm2 -> norm2
I0403 15:05:31.597759 18227 net.cpp:141] Setting up norm2
I0403 15:05:31.597787 18227 net.cpp:148] Top shape: 100 256 27 27 (18662400)
I0403 15:05:31.597803 18227 net.cpp:156] Memory required for data: 662258800
I0403 15:05:31.597820 18227 layer_factory.hpp:77] Creating layer pool2
I0403 15:05:31.597838 18227 net.cpp:91] Creating Layer pool2
I0403 15:05:31.597854 18227 net.cpp:425] pool2 <- norm2
I0403 15:05:31.597875 18227 net.cpp:399] pool2 -> pool2
I0403 15:05:31.597930 18227 net.cpp:141] Setting up pool2
I0403 15:05:31.597956 18227 net.cpp:148] Top shape: 100 256 13 13 (4326400)
I0403 15:05:31.597972 18227 net.cpp:156] Memory required for data: 679564400
I0403 15:05:31.597987 18227 layer_factory.hpp:77] Creating layer conv3
I0403 15:05:31.598012 18227 net.cpp:91] Creating Layer conv3
I0403 15:05:31.598029 18227 net.cpp:425] conv3 <- pool2
I0403 15:05:31.598060 18227 net.cpp:399] conv3 -> conv3
I0403 15:05:31.641170 18227 net.cpp:141] Setting up conv3
I0403 15:05:31.641216 18227 net.cpp:148] Top shape: 100 384 13 13 (6489600)
I0403 15:05:31.641232 18227 net.cpp:156] Memory required for data: 705522800
I0403 15:05:31.641258 18227 layer_factory.hpp:77] Creating layer relu3
I0403 15:05:31.641280 18227 net.cpp:91] Creating Layer relu3
I0403 15:05:31.641297 18227 net.cpp:425] relu3 <- conv3
I0403 15:05:31.641319 18227 net.cpp:386] relu3 -> conv3 (in-place)
I0403 15:05:31.641610 18227 net.cpp:141] Setting up relu3
I0403 15:05:31.641638 18227 net.cpp:148] Top shape: 100 384 13 13 (6489600)
I0403 15:05:31.641652 18227 net.cpp:156] Memory required for data: 731481200
I0403 15:05:31.641667 18227 layer_factory.hpp:77] Creating layer conv4
I0403 15:05:31.641693 18227 net.cpp:91] Creating Layer conv4
I0403 15:05:31.641710 18227 net.cpp:425] conv4 <- conv3
I0403 15:05:31.641731 18227 net.cpp:399] conv4 -> conv4
I0403 15:05:31.672143 18227 net.cpp:141] Setting up conv4
I0403 15:05:31.672194 18227 net.cpp:148] Top shape: 100 384 13 13 (6489600)
I0403 15:05:31.672241 18227 net.cpp:156] Memory required for data: 757439600
I0403 15:05:31.672262 18227 layer_factory.hpp:77] Creating layer relu4
I0403 15:05:31.672282 18227 net.cpp:91] Creating Layer relu4
I0403 15:05:31.672298 18227 net.cpp:425] relu4 <- conv4
I0403 15:05:31.672315 18227 net.cpp:386] relu4 -> conv4 (in-place)
I0403 15:05:31.672602 18227 net.cpp:141] Setting up relu4
I0403 15:05:31.672631 18227 net.cpp:148] Top shape: 100 384 13 13 (6489600)
I0403 15:05:31.672647 18227 net.cpp:156] Memory required for data: 783398000
I0403 15:05:31.672662 18227 layer_factory.hpp:77] Creating layer conv5
I0403 15:05:31.672685 18227 net.cpp:91] Creating Layer conv5
I0403 15:05:31.672703 18227 net.cpp:425] conv5 <- conv4
I0403 15:05:31.672722 18227 net.cpp:399] conv5 -> conv5
I0403 15:05:31.694337 18227 net.cpp:141] Setting up conv5
I0403 15:05:31.694406 18227 net.cpp:148] Top shape: 100 256 13 13 (4326400)
I0403 15:05:31.694423 18227 net.cpp:156] Memory required for data: 800703600
I0403 15:05:31.694449 18227 layer_factory.hpp:77] Creating layer relu5
I0403 15:05:31.694471 18227 net.cpp:91] Creating Layer relu5
I0403 15:05:31.694489 18227 net.cpp:425] relu5 <- conv5
I0403 15:05:31.694511 18227 net.cpp:386] relu5 -> conv5 (in-place)
I0403 15:05:31.694809 18227 net.cpp:141] Setting up relu5
I0403 15:05:31.694838 18227 net.cpp:148] Top shape: 100 256 13 13 (4326400)
I0403 15:05:31.694854 18227 net.cpp:156] Memory required for data: 818009200
I0403 15:05:31.694869 18227 layer_factory.hpp:77] Creating layer pool5
I0403 15:05:31.694895 18227 net.cpp:91] Creating Layer pool5
I0403 15:05:31.694912 18227 net.cpp:425] pool5 <- conv5
I0403 15:05:31.694931 18227 net.cpp:399] pool5 -> pool5
I0403 15:05:31.694995 18227 net.cpp:141] Setting up pool5
I0403 15:05:31.695020 18227 net.cpp:148] Top shape: 100 256 6 6 (921600)
I0403 15:05:31.695035 18227 net.cpp:156] Memory required for data: 821695600
I0403 15:05:31.695055 18227 layer_factory.hpp:77] Creating layer fc6
I0403 15:05:31.695086 18227 net.cpp:91] Creating Layer fc6
I0403 15:05:31.695103 18227 net.cpp:425] fc6 <- pool5
I0403 15:05:31.695124 18227 net.cpp:399] fc6 -> fc6
I0403 15:05:33.251482 18227 net.cpp:141] Setting up fc6
I0403 15:05:33.251543 18227 net.cpp:148] Top shape: 100 4096 (409600)
I0403 15:05:33.251559 18227 net.cpp:156] Memory required for data: 823334000
I0403 15:05:33.251579 18227 layer_factory.hpp:77] Creating layer relu6
I0403 15:05:33.251600 18227 net.cpp:91] Creating Layer relu6
I0403 15:05:33.251616 18227 net.cpp:425] relu6 <- fc6
I0403 15:05:33.251634 18227 net.cpp:386] relu6 -> fc6 (in-place)
I0403 15:05:33.251863 18227 net.cpp:141] Setting up relu6
I0403 15:05:33.251888 18227 net.cpp:148] Top shape: 100 4096 (409600)
I0403 15:05:33.251900 18227 net.cpp:156] Memory required for data: 824972400
I0403 15:05:33.251915 18227 layer_factory.hpp:77] Creating layer drop6
I0403 15:05:33.251934 18227 net.cpp:91] Creating Layer drop6
I0403 15:05:33.251948 18227 net.cpp:425] drop6 <- fc6
I0403 15:05:33.251966 18227 net.cpp:386] drop6 -> fc6 (in-place)
I0403 15:05:33.252017 18227 net.cpp:141] Setting up drop6
I0403 15:05:33.252038 18227 net.cpp:148] Top shape: 100 4096 (409600)
I0403 15:05:33.252058 18227 net.cpp:156] Memory required for data: 826610800
I0403 15:05:33.252073 18227 layer_factory.hpp:77] Creating layer fc7
I0403 15:05:33.252097 18227 net.cpp:91] Creating Layer fc7
I0403 15:05:33.252115 18227 net.cpp:425] fc7 <- fc6
I0403 15:05:33.252133 18227 net.cpp:399] fc7 -> fc7
I0403 15:05:33.934720 18227 net.cpp:141] Setting up fc7
I0403 15:05:33.934759 18227 net.cpp:148] Top shape: 100 4096 (409600)
I0403 15:05:33.934774 18227 net.cpp:156] Memory required for data: 828249200
I0403 15:05:33.934794 18227 layer_factory.hpp:77] Creating layer relu7
I0403 15:05:33.934815 18227 net.cpp:91] Creating Layer relu7
I0403 15:05:33.934833 18227 net.cpp:425] relu7 <- fc7
I0403 15:05:33.934852 18227 net.cpp:386] relu7 -> fc7 (in-place)
I0403 15:05:33.935269 18227 net.cpp:141] Setting up relu7
I0403 15:05:33.935295 18227 net.cpp:148] Top shape: 100 4096 (409600)
I0403 15:05:33.935353 18227 net.cpp:156] Memory required for data: 829887600
I0403 15:05:33.935369 18227 layer_factory.hpp:77] Creating layer drop7
I0403 15:05:33.935389 18227 net.cpp:91] Creating Layer drop7
I0403 15:05:33.935403 18227 net.cpp:425] drop7 <- fc7
I0403 15:05:33.935422 18227 net.cpp:386] drop7 -> fc7 (in-place)
I0403 15:05:33.935464 18227 net.cpp:141] Setting up drop7
I0403 15:05:33.935489 18227 net.cpp:148] Top shape: 100 4096 (409600)
I0403 15:05:33.935504 18227 net.cpp:156] Memory required for data: 831526000
I0403 15:05:33.935518 18227 layer_factory.hpp:77] Creating layer fc8_plantvillage
I0403 15:05:33.935537 18227 net.cpp:91] Creating Layer fc8_plantvillage
I0403 15:05:33.935552 18227 net.cpp:425] fc8_plantvillage <- fc7
I0403 15:05:33.935571 18227 net.cpp:399] fc8_plantvillage -> fc8_plantvillage
I0403 15:05:33.942453 18227 net.cpp:141] Setting up fc8_plantvillage
I0403 15:05:33.942482 18227 net.cpp:148] Top shape: 100 38 (3800)
I0403 15:05:33.942509 18227 net.cpp:156] Memory required for data: 831541200
I0403 15:05:33.942528 18227 layer_factory.hpp:77] Creating layer fc8_plantvillage_fc8_plantvillage_0_split
I0403 15:05:33.942545 18227 net.cpp:91] Creating Layer fc8_plantvillage_fc8_plantvillage_0_split
I0403 15:05:33.942560 18227 net.cpp:425] fc8_plantvillage_fc8_plantvillage_0_split <- fc8_plantvillage
I0403 15:05:33.942579 18227 net.cpp:399] fc8_plantvillage_fc8_plantvillage_0_split -> fc8_plantvillage_fc8_plantvillage_0_split_0
I0403 15:05:33.942600 18227 net.cpp:399] fc8_plantvillage_fc8_plantvillage_0_split -> fc8_plantvillage_fc8_plantvillage_0_split_1
I0403 15:05:33.942620 18227 net.cpp:399] fc8_plantvillage_fc8_plantvillage_0_split -> fc8_plantvillage_fc8_plantvillage_0_split_2
I0403 15:05:33.942698 18227 net.cpp:141] Setting up fc8_plantvillage_fc8_plantvillage_0_split
I0403 15:05:33.942721 18227 net.cpp:148] Top shape: 100 38 (3800)
I0403 15:05:33.942739 18227 net.cpp:148] Top shape: 100 38 (3800)
I0403 15:05:33.942754 18227 net.cpp:148] Top shape: 100 38 (3800)
I0403 15:05:33.942767 18227 net.cpp:156] Memory required for data: 831586800
I0403 15:05:33.942781 18227 layer_factory.hpp:77] Creating layer prob
I0403 15:05:33.942798 18227 net.cpp:91] Creating Layer prob
I0403 15:05:33.942813 18227 net.cpp:425] prob <- fc8_plantvillage_fc8_plantvillage_0_split_0
I0403 15:05:33.942831 18227 net.cpp:399] prob -> prob
I0403 15:05:33.943068 18227 net.cpp:141] Setting up prob
I0403 15:05:33.943094 18227 net.cpp:148] Top shape: 100 38 (3800)
I0403 15:05:33.943107 18227 net.cpp:156] Memory required for data: 831602000
I0403 15:05:33.943122 18227 layer_factory.hpp:77] Creating layer hdf5out
I0403 15:05:33.943140 18227 net.cpp:91] Creating Layer hdf5out
I0403 15:05:33.943156 18227 net.cpp:425] hdf5out <- prob
I0403 15:05:33.943171 18227 net.cpp:425] hdf5out <- label_data_1_split_0
I0403 15:05:33.945539 18227 net.cpp:141] Setting up hdf5out
…
