…
I0403 15:02:10.495085 18120 net.cpp:313] The NetState phase (1) differed from the phase (0) specified by a rule in layer data
I0403 15:02:10.495414 18120 net.cpp:49] Initializing net from parameters: 
state {
  phase: TEST
}
layer {
  name: "data"
  type: "Data"
  top: "data"
  top: "label"
  include {
    phase: TEST
  }
  transform_param {
    crop_size: 227
    mean_file: "/home/mohanty/data/final_dataset/lmdb/color-80-20/mean.binaryproto"
  }
  data_param {
    source: "/home/mohanty/data/final_dataset/lmdb/color-80-20/test_db"
    batch_size: 100
    backend: LMDB
  }
}
layer {
  name: "conv1"
  type: "Convolution"
  bottom: "data"
  top: "conv1"
  param {
    lr_mult: 1
    decay_mult: 1
  }
  param {
    lr_mult: 2
    decay_mult: 0
  }
  convolution_param {
    num_output: 96
    kernel_size: 11
    stride: 4
    weight_filler {
      type: "gaussian"
      std: 0.01
    }
    bias_filler {
      type: "constant"
      value: 0
    }
  }
}
layer {
  name: "relu1"
  type: "ReLU"
  bottom: "conv1"
  top: "conv1"
}
layer {
  name: "norm1"
  type: "LRN"
  bottom: "conv1"
  top: "norm1"
  lrn_param {
    local_size: 5
    alpha: 0.0001
    beta: 0.75
  }
}
layer {
  name: "pool1"
  type: "Pooling"
  bottom: "norm1"
  top: "pool1"
  pooling_param {
    pool: MAX
    kernel_size: 3
    stride: 2
  }
}
layer {
  name: "conv2"
  type: "Convolution"
  bottom: "pool1"
  top: "conv2"
  param {
    lr_mult: 1
    decay_mult: 1
  }
  param {
    lr_mult: 2
    decay_mult: 0
  }
  convolution_param {
    num_output: 256
    pad: 2
    kernel_size: 5
    group: 2
    weight_filler {
      type: "gaussian"
      std: 0.01
    }
    bias_filler {
      type: "constant"
      value: 0.1
    }
  }
}
layer {
  name: "relu2"
  type: "ReLU"
  bottom: "conv2"
  top: "conv2"
}
layer {
  name: "norm2"
  type: "LRN"
  bottom: "conv2"
  top: "norm2"
  lrn_param {
    local_size: 5
    alpha: 0.0001
    beta: 0.75
  }
}
layer {
  name: "pool2"
  type: "Pooling"
  bottom: "norm2"
  top: "pool2"
  pooling_param {
    pool: MAX
    kernel_size: 3
    stride: 2
  }
}
layer {
  name: "conv3"
  type: "Convolution"
  bottom: "pool2"
  top: "conv3"
  param {
    lr_mult: 1
    decay_mult: 1
  }
  param {
    lr_mult: 2
    decay_mult: 0
  }
  convolution_param {
    num_output: 384
    pad: 1
    kernel_size: 3
    weight_filler {
      type: "gaussian"
      std: 0.01
    }
    bias_filler {
      type: "constant"
      value: 0
    }
  }
}
layer {
  name: "relu3"
  type: "ReLU"
  bottom: "conv3"
  top: "conv3"
}
layer {
  name: "conv4"
  type: "Convolution"
  bottom: "conv3"
  top: "conv4"
  param {
    lr_mult: 1
    decay_mult: 1
  }
  param {
    lr_mult: 2
    decay_mult: 0
  }
  convolution_param {
    num_output: 384
    pad: 1
    kernel_size: 3
    group: 2
    weight_filler {
      type: "gaussian"
      std: 0.01
    }
    bias_filler {
      type: "constant"
      value: 0.1
    }
  }
}
layer {
  name: "relu4"
  type: "ReLU"
  bottom: "conv4"
  top: "conv4"
}
layer {
  name: "conv5"
  type: "Convolution"
  bottom: "conv4"
  top: "conv5"
  param {
    lr_mult: 1
    decay_mult: 1
  }
  param {
    lr_mult: 2
    decay_mult: 0
  }
  convolution_param {
    num_output: 256
    pad: 1
    kernel_size: 3
    group: 2
    weight_filler {
      type: "gaussian"
      std: 0.01
    }
    bias_filler {
      type: "constant"
      value: 0.1
    }
  }
}
layer {
  name: "relu5"
  type: "ReLU"
  bottom: "conv5"
  top: "conv5"
}
layer {
  name: "pool5"
  type: "Pooling"
  bottom: "conv5"
  top: "pool5"
  pooling_param {
    pool: MAX
    kernel_size: 3
    stride: 2
  }
}
layer {
  name: "fc6"
  type: "InnerProduct"
  bottom: "pool5"
  top: "fc6"
  param {
    lr_mult: 1
    decay_mult: 1
  }
  param {
    lr_mult: 2
    decay_mult: 0
  }
  inner_product_param {
    num_output: 4096
    weight_filler {
      type: "gaussian"
      std: 0.005
    }
    bias_filler {
      type: "constant"
      value: 0.1
    }
  }
}
layer {
  name: "relu6"
  type: "ReLU"
  bottom: "fc6"
  top: "fc6"
}
layer {
  name: "drop6"
  type: "Dropout"
  bottom: "fc6"
  top: "fc6"
  dropout_param {
    dropout_ratio: 0.5
  }
}
layer {
  name: "fc7"
  type: "InnerProduct"
  bottom: "fc6"
  top: "fc7"
  param {
    lr_mult: 1
    decay_mult: 1
  }
  param {
    lr_mult: 2
    decay_mult: 0
  }
  inner_product_param {
    num_output: 4096
    weight_filler {
      type: "gaussian"
      std: 0.005
    }
    bias_filler {
      type: "constant"
      value: 0.1
    }
  }
}
layer {
  name: "relu7"
  type: "ReLU"
  bottom: "fc7"
  top: "fc7"
}
layer {
  name: "drop7"
  type: "Dropout"
  bottom: "fc7"
  top: "fc7"
  dropout_param {
    dropout_ratio: 0.5
  }
}
layer {
  name: "fc8_plantvillage"
  type: "InnerProduct"
  bottom: "fc7"
  top: "fc8_plantvillage"
  param {
    lr_mult: 1
    decay_mult: 1
  }
  param {
    lr_mult: 2
    decay_mult: 0
  }
  inner_product_param {
    num_output: 38
    weight_filler {
      type: "gaussian"
      std: 0.01
    }
    bias_filler {
      type: "constant"
      value: 0
    }
  }
}
layer {
  name: "prob"
  type: "Softmax"
  bottom: "fc8_plantvillage"
  top: "prob"
  include {
    phase: TEST
  }
}
layer {
  name: "hdf5out"
  type: "HDF5Output"
  bottom: "prob"
  bottom: "label"
  include {
    phase: TEST
  }
  hdf5_output_param {
    file_name: "hdf5_dumps/iter_2185.h5"
  }
}
layer {
  name: "loss"
  type: "SoftmaxWithLoss"
  bottom: "fc8_plantvillage"
  bottom: "label"
  top: "loss"
}
layer {
  name: "accuracy"
  type: "Accuracy"
  bottom: "fc8_plantvillage"
  bottom: "label"
  top: "accuracy"
  include {
    phase: TEST
  }
}
I0403 15:02:10.495988 18120 layer_factory.hpp:77] Creating layer data
I0403 15:02:10.496644 18120 net.cpp:91] Creating Layer data
I0403 15:02:10.496675 18120 net.cpp:399] data -> data
I0403 15:02:10.496724 18120 net.cpp:399] data -> label
I0403 15:02:10.496765 18120 data_transformer.cpp:25] Loading mean file from: /home/mohanty/data/final_dataset/lmdb/color-80-20/mean.binaryproto
I0403 15:02:10.499588 18124 db_lmdb.cpp:38] Opened lmdb /home/mohanty/data/final_dataset/lmdb/color-80-20/test_db
I0403 15:02:10.513015 18120 data_layer.cpp:41] output data size: 100,3,227,227
I0403 15:02:10.634891 18120 net.cpp:141] Setting up data
I0403 15:02:10.634949 18120 net.cpp:148] Top shape: 100 3 227 227 (15458700)
I0403 15:02:10.634974 18120 net.cpp:148] Top shape: 100 (100)
I0403 15:02:10.634989 18120 net.cpp:156] Memory required for data: 61835200
I0403 15:02:10.635016 18120 layer_factory.hpp:77] Creating layer label_data_1_split
I0403 15:02:10.635041 18120 net.cpp:91] Creating Layer label_data_1_split
I0403 15:02:10.635062 18120 net.cpp:425] label_data_1_split <- label
I0403 15:02:10.635094 18120 net.cpp:399] label_data_1_split -> label_data_1_split_0
I0403 15:02:10.635120 18120 net.cpp:399] label_data_1_split -> label_data_1_split_1
I0403 15:02:10.635140 18120 net.cpp:399] label_data_1_split -> label_data_1_split_2
I0403 15:02:10.635202 18120 net.cpp:141] Setting up label_data_1_split
I0403 15:02:10.635226 18120 net.cpp:148] Top shape: 100 (100)
I0403 15:02:10.635241 18120 net.cpp:148] Top shape: 100 (100)
I0403 15:02:10.635257 18120 net.cpp:148] Top shape: 100 (100)
I0403 15:02:10.635270 18120 net.cpp:156] Memory required for data: 61836400
I0403 15:02:10.635284 18120 layer_factory.hpp:77] Creating layer conv1
I0403 15:02:10.635315 18120 net.cpp:91] Creating Layer conv1
I0403 15:02:10.635334 18120 net.cpp:425] conv1 <- data
I0403 15:02:10.635352 18120 net.cpp:399] conv1 -> conv1
I0403 15:02:10.780027 18120 net.cpp:141] Setting up conv1
I0403 15:02:10.780122 18120 net.cpp:148] Top shape: 100 96 55 55 (29040000)
I0403 15:02:10.780140 18120 net.cpp:156] Memory required for data: 177996400
I0403 15:02:10.780172 18120 layer_factory.hpp:77] Creating layer relu1
I0403 15:02:10.780200 18120 net.cpp:91] Creating Layer relu1
I0403 15:02:10.780217 18120 net.cpp:425] relu1 <- conv1
I0403 15:02:10.780236 18120 net.cpp:386] relu1 -> conv1 (in-place)
I0403 15:02:10.780499 18120 net.cpp:141] Setting up relu1
I0403 15:02:10.780526 18120 net.cpp:148] Top shape: 100 96 55 55 (29040000)
I0403 15:02:10.780542 18120 net.cpp:156] Memory required for data: 294156400
I0403 15:02:10.780589 18120 layer_factory.hpp:77] Creating layer norm1
I0403 15:02:10.780618 18120 net.cpp:91] Creating Layer norm1
I0403 15:02:10.780637 18120 net.cpp:425] norm1 <- conv1
I0403 15:02:10.780655 18120 net.cpp:399] norm1 -> norm1
I0403 15:02:10.781008 18120 net.cpp:141] Setting up norm1
I0403 15:02:10.781036 18120 net.cpp:148] Top shape: 100 96 55 55 (29040000)
I0403 15:02:10.781056 18120 net.cpp:156] Memory required for data: 410316400
I0403 15:02:10.781072 18120 layer_factory.hpp:77] Creating layer pool1
I0403 15:02:10.781095 18120 net.cpp:91] Creating Layer pool1
I0403 15:02:10.781111 18120 net.cpp:425] pool1 <- norm1
I0403 15:02:10.781129 18120 net.cpp:399] pool1 -> pool1
I0403 15:02:10.781198 18120 net.cpp:141] Setting up pool1
I0403 15:02:10.781221 18120 net.cpp:148] Top shape: 100 96 27 27 (6998400)
I0403 15:02:10.781236 18120 net.cpp:156] Memory required for data: 438310000
I0403 15:02:10.781251 18120 layer_factory.hpp:77] Creating layer conv2
I0403 15:02:10.781275 18120 net.cpp:91] Creating Layer conv2
I0403 15:02:10.781291 18120 net.cpp:425] conv2 <- pool1
I0403 15:02:10.781309 18120 net.cpp:399] conv2 -> conv2
I0403 15:02:10.796489 18120 net.cpp:141] Setting up conv2
I0403 15:02:10.796530 18120 net.cpp:148] Top shape: 100 256 27 27 (18662400)
I0403 15:02:10.796546 18120 net.cpp:156] Memory required for data: 512959600
I0403 15:02:10.796569 18120 layer_factory.hpp:77] Creating layer relu2
I0403 15:02:10.796589 18120 net.cpp:91] Creating Layer relu2
I0403 15:02:10.796607 18120 net.cpp:425] relu2 <- conv2
I0403 15:02:10.796623 18120 net.cpp:386] relu2 -> conv2 (in-place)
I0403 15:02:10.796928 18120 net.cpp:141] Setting up relu2
I0403 15:02:10.796955 18120 net.cpp:148] Top shape: 100 256 27 27 (18662400)
I0403 15:02:10.796972 18120 net.cpp:156] Memory required for data: 587609200
I0403 15:02:10.796986 18120 layer_factory.hpp:77] Creating layer norm2
I0403 15:02:10.797008 18120 net.cpp:91] Creating Layer norm2
I0403 15:02:10.797024 18120 net.cpp:425] norm2 <- conv2
I0403 15:02:10.797041 18120 net.cpp:399] norm2 -> norm2
I0403 15:02:10.797237 18120 net.cpp:141] Setting up norm2
I0403 15:02:10.797263 18120 net.cpp:148] Top shape: 100 256 27 27 (18662400)
I0403 15:02:10.797278 18120 net.cpp:156] Memory required for data: 662258800
I0403 15:02:10.797293 18120 layer_factory.hpp:77] Creating layer pool2
I0403 15:02:10.797312 18120 net.cpp:91] Creating Layer pool2
I0403 15:02:10.797327 18120 net.cpp:425] pool2 <- norm2
I0403 15:02:10.797344 18120 net.cpp:399] pool2 -> pool2
I0403 15:02:10.797394 18120 net.cpp:141] Setting up pool2
I0403 15:02:10.797417 18120 net.cpp:148] Top shape: 100 256 13 13 (4326400)
I0403 15:02:10.797431 18120 net.cpp:156] Memory required for data: 679564400
I0403 15:02:10.797446 18120 layer_factory.hpp:77] Creating layer conv3
I0403 15:02:10.797466 18120 net.cpp:91] Creating Layer conv3
I0403 15:02:10.797482 18120 net.cpp:425] conv3 <- pool2
I0403 15:02:10.797500 18120 net.cpp:399] conv3 -> conv3
I0403 15:02:10.839189 18120 net.cpp:141] Setting up conv3
I0403 15:02:10.839257 18120 net.cpp:148] Top shape: 100 384 13 13 (6489600)
I0403 15:02:10.839273 18120 net.cpp:156] Memory required for data: 705522800
I0403 15:02:10.839298 18120 layer_factory.hpp:77] Creating layer relu3
I0403 15:02:10.839318 18120 net.cpp:91] Creating Layer relu3
I0403 15:02:10.839334 18120 net.cpp:425] relu3 <- conv3
I0403 15:02:10.839351 18120 net.cpp:386] relu3 -> conv3 (in-place)
I0403 15:02:10.839614 18120 net.cpp:141] Setting up relu3
I0403 15:02:10.839640 18120 net.cpp:148] Top shape: 100 384 13 13 (6489600)
I0403 15:02:10.839655 18120 net.cpp:156] Memory required for data: 731481200
I0403 15:02:10.839669 18120 layer_factory.hpp:77] Creating layer conv4
I0403 15:02:10.839692 18120 net.cpp:91] Creating Layer conv4
I0403 15:02:10.839709 18120 net.cpp:425] conv4 <- conv3
I0403 15:02:10.839726 18120 net.cpp:399] conv4 -> conv4
I0403 15:02:10.869597 18120 net.cpp:141] Setting up conv4
I0403 15:02:10.869676 18120 net.cpp:148] Top shape: 100 384 13 13 (6489600)
I0403 15:02:10.869724 18120 net.cpp:156] Memory required for data: 757439600
I0403 15:02:10.869745 18120 layer_factory.hpp:77] Creating layer relu4
I0403 15:02:10.869770 18120 net.cpp:91] Creating Layer relu4
I0403 15:02:10.869787 18120 net.cpp:425] relu4 <- conv4
I0403 15:02:10.869807 18120 net.cpp:386] relu4 -> conv4 (in-place)
I0403 15:02:10.870100 18120 net.cpp:141] Setting up relu4
I0403 15:02:10.870126 18120 net.cpp:148] Top shape: 100 384 13 13 (6489600)
I0403 15:02:10.870141 18120 net.cpp:156] Memory required for data: 783398000
I0403 15:02:10.870157 18120 layer_factory.hpp:77] Creating layer conv5
I0403 15:02:10.870182 18120 net.cpp:91] Creating Layer conv5
I0403 15:02:10.870199 18120 net.cpp:425] conv5 <- conv4
I0403 15:02:10.870220 18120 net.cpp:399] conv5 -> conv5
I0403 15:02:10.890710 18120 net.cpp:141] Setting up conv5
I0403 15:02:10.890756 18120 net.cpp:148] Top shape: 100 256 13 13 (4326400)
I0403 15:02:10.890771 18120 net.cpp:156] Memory required for data: 800703600
I0403 15:02:10.890795 18120 layer_factory.hpp:77] Creating layer relu5
I0403 15:02:10.890817 18120 net.cpp:91] Creating Layer relu5
I0403 15:02:10.890835 18120 net.cpp:425] relu5 <- conv5
I0403 15:02:10.890852 18120 net.cpp:386] relu5 -> conv5 (in-place)
I0403 15:02:10.891139 18120 net.cpp:141] Setting up relu5
I0403 15:02:10.891167 18120 net.cpp:148] Top shape: 100 256 13 13 (4326400)
I0403 15:02:10.891182 18120 net.cpp:156] Memory required for data: 818009200
I0403 15:02:10.891196 18120 layer_factory.hpp:77] Creating layer pool5
I0403 15:02:10.891221 18120 net.cpp:91] Creating Layer pool5
I0403 15:02:10.891237 18120 net.cpp:425] pool5 <- conv5
I0403 15:02:10.891258 18120 net.cpp:399] pool5 -> pool5
I0403 15:02:10.891319 18120 net.cpp:141] Setting up pool5
I0403 15:02:10.891341 18120 net.cpp:148] Top shape: 100 256 6 6 (921600)
I0403 15:02:10.891355 18120 net.cpp:156] Memory required for data: 821695600
I0403 15:02:10.891369 18120 layer_factory.hpp:77] Creating layer fc6
I0403 15:02:10.891396 18120 net.cpp:91] Creating Layer fc6
I0403 15:02:10.891414 18120 net.cpp:425] fc6 <- pool5
I0403 15:02:10.891434 18120 net.cpp:399] fc6 -> fc6
I0403 15:02:12.452431 18120 net.cpp:141] Setting up fc6
I0403 15:02:12.452507 18120 net.cpp:148] Top shape: 100 4096 (409600)
I0403 15:02:12.452522 18120 net.cpp:156] Memory required for data: 823334000
I0403 15:02:12.452543 18120 layer_factory.hpp:77] Creating layer relu6
I0403 15:02:12.452567 18120 net.cpp:91] Creating Layer relu6
I0403 15:02:12.452585 18120 net.cpp:425] relu6 <- fc6
I0403 15:02:12.452603 18120 net.cpp:386] relu6 -> fc6 (in-place)
I0403 15:02:12.452819 18120 net.cpp:141] Setting up relu6
I0403 15:02:12.452843 18120 net.cpp:148] Top shape: 100 4096 (409600)
I0403 15:02:12.452857 18120 net.cpp:156] Memory required for data: 824972400
I0403 15:02:12.452872 18120 layer_factory.hpp:77] Creating layer drop6
I0403 15:02:12.452891 18120 net.cpp:91] Creating Layer drop6
I0403 15:02:12.452908 18120 net.cpp:425] drop6 <- fc6
I0403 15:02:12.452924 18120 net.cpp:386] drop6 -> fc6 (in-place)
I0403 15:02:12.452976 18120 net.cpp:141] Setting up drop6
I0403 15:02:12.452998 18120 net.cpp:148] Top shape: 100 4096 (409600)
I0403 15:02:12.453011 18120 net.cpp:156] Memory required for data: 826610800
I0403 15:02:12.453025 18120 layer_factory.hpp:77] Creating layer fc7
I0403 15:02:12.453047 18120 net.cpp:91] Creating Layer fc7
I0403 15:02:12.453068 18120 net.cpp:425] fc7 <- fc6
I0403 15:02:12.453085 18120 net.cpp:399] fc7 -> fc7
I0403 15:02:13.137676 18120 net.cpp:141] Setting up fc7
I0403 15:02:13.137742 18120 net.cpp:148] Top shape: 100 4096 (409600)
I0403 15:02:13.137758 18120 net.cpp:156] Memory required for data: 828249200
I0403 15:02:13.137778 18120 layer_factory.hpp:77] Creating layer relu7
I0403 15:02:13.137799 18120 net.cpp:91] Creating Layer relu7
I0403 15:02:13.137816 18120 net.cpp:425] relu7 <- fc7
I0403 15:02:13.137835 18120 net.cpp:386] relu7 -> fc7 (in-place)
I0403 15:02:13.138262 18120 net.cpp:141] Setting up relu7
I0403 15:02:13.138288 18120 net.cpp:148] Top shape: 100 4096 (409600)
I0403 15:02:13.138339 18120 net.cpp:156] Memory required for data: 829887600
I0403 15:02:13.138353 18120 layer_factory.hpp:77] Creating layer drop7
I0403 15:02:13.138372 18120 net.cpp:91] Creating Layer drop7
I0403 15:02:13.138387 18120 net.cpp:425] drop7 <- fc7
I0403 15:02:13.138404 18120 net.cpp:386] drop7 -> fc7 (in-place)
I0403 15:02:13.138450 18120 net.cpp:141] Setting up drop7
I0403 15:02:13.138473 18120 net.cpp:148] Top shape: 100 4096 (409600)
I0403 15:02:13.138487 18120 net.cpp:156] Memory required for data: 831526000
I0403 15:02:13.138500 18120 layer_factory.hpp:77] Creating layer fc8_plantvillage
I0403 15:02:13.138521 18120 net.cpp:91] Creating Layer fc8_plantvillage
I0403 15:02:13.138537 18120 net.cpp:425] fc8_plantvillage <- fc7
I0403 15:02:13.138555 18120 net.cpp:399] fc8_plantvillage -> fc8_plantvillage
I0403 15:02:13.145234 18120 net.cpp:141] Setting up fc8_plantvillage
I0403 15:02:13.145262 18120 net.cpp:148] Top shape: 100 38 (3800)
I0403 15:02:13.145275 18120 net.cpp:156] Memory required for data: 831541200
I0403 15:02:13.145292 18120 layer_factory.hpp:77] Creating layer fc8_plantvillage_fc8_plantvillage_0_split
I0403 15:02:13.145314 18120 net.cpp:91] Creating Layer fc8_plantvillage_fc8_plantvillage_0_split
I0403 15:02:13.145330 18120 net.cpp:425] fc8_plantvillage_fc8_plantvillage_0_split <- fc8_plantvillage
I0403 15:02:13.145346 18120 net.cpp:399] fc8_plantvillage_fc8_plantvillage_0_split -> fc8_plantvillage_fc8_plantvillage_0_split_0
I0403 15:02:13.145367 18120 net.cpp:399] fc8_plantvillage_fc8_plantvillage_0_split -> fc8_plantvillage_fc8_plantvillage_0_split_1
I0403 15:02:13.145388 18120 net.cpp:399] fc8_plantvillage_fc8_plantvillage_0_split -> fc8_plantvillage_fc8_plantvillage_0_split_2
I0403 15:02:13.145464 18120 net.cpp:141] Setting up fc8_plantvillage_fc8_plantvillage_0_split
I0403 15:02:13.145486 18120 net.cpp:148] Top shape: 100 38 (3800)
I0403 15:02:13.145503 18120 net.cpp:148] Top shape: 100 38 (3800)
I0403 15:02:13.145516 18120 net.cpp:148] Top shape: 100 38 (3800)
I0403 15:02:13.145529 18120 net.cpp:156] Memory required for data: 831586800
I0403 15:02:13.145542 18120 layer_factory.hpp:77] Creating layer prob
I0403 15:02:13.145562 18120 net.cpp:91] Creating Layer prob
I0403 15:02:13.145577 18120 net.cpp:425] prob <- fc8_plantvillage_fc8_plantvillage_0_split_0
I0403 15:02:13.145594 18120 net.cpp:399] prob -> prob
I0403 15:02:13.145818 18120 net.cpp:141] Setting up prob
I0403 15:02:13.145843 18120 net.cpp:148] Top shape: 100 38 (3800)
I0403 15:02:13.145856 18120 net.cpp:156] Memory required for data: 831602000
I0403 15:02:13.145870 18120 layer_factory.hpp:77] Creating layer hdf5out
I0403 15:02:13.145890 18120 net.cpp:91] Creating Layer hdf5out
I0403 15:02:13.145906 18120 net.cpp:425] hdf5out <- prob
I0403 15:02:13.145920 18120 net.cpp:425] hdf5out <- label_data_1_split_0
I0403 15:02:13.148449 18120 net.cpp:141] Setting up hdf5out
…
