…
I0403 15:04:41.059161 18207 net.cpp:313] The NetState phase (1) differed from the phase (0) specified by a rule in layer data
I0403 15:04:41.059481 18207 net.cpp:49] Initializing net from parameters: 
state {
  phase: TEST
}
layer {
  name: "data"
  type: "Data"
  top: "data"
  top: "label"
  include {
    phase: TEST
  }
  transform_param {
    crop_size: 227
    mean_file: "/home/mohanty/data/final_dataset/lmdb/color-80-20/mean.binaryproto"
  }
  data_param {
    source: "/home/mohanty/data/final_dataset/lmdb/color-80-20/test_db"
    batch_size: 100
    backend: LMDB
  }
}
layer {
  name: "conv1"
  type: "Convolution"
  bottom: "data"
  top: "conv1"
  param {
    lr_mult: 1
    decay_mult: 1
  }
  param {
    lr_mult: 2
    decay_mult: 0
  }
  convolution_param {
    num_output: 96
    kernel_size: 11
    stride: 4
    weight_filler {
      type: "gaussian"
      std: 0.01
    }
    bias_filler {
      type: "constant"
      value: 0
    }
  }
}
layer {
  name: "relu1"
  type: "ReLU"
  bottom: "conv1"
  top: "conv1"
}
layer {
  name: "norm1"
  type: "LRN"
  bottom: "conv1"
  top: "norm1"
  lrn_param {
    local_size: 5
    alpha: 0.0001
    beta: 0.75
  }
}
layer {
  name: "pool1"
  type: "Pooling"
  bottom: "norm1"
  top: "pool1"
  pooling_param {
    pool: MAX
    kernel_size: 3
    stride: 2
  }
}
layer {
  name: "conv2"
  type: "Convolution"
  bottom: "pool1"
  top: "conv2"
  param {
    lr_mult: 1
    decay_mult: 1
  }
  param {
    lr_mult: 2
    decay_mult: 0
  }
  convolution_param {
    num_output: 256
    pad: 2
    kernel_size: 5
    group: 2
    weight_filler {
      type: "gaussian"
      std: 0.01
    }
    bias_filler {
      type: "constant"
      value: 0.1
    }
  }
}
layer {
  name: "relu2"
  type: "ReLU"
  bottom: "conv2"
  top: "conv2"
}
layer {
  name: "norm2"
  type: "LRN"
  bottom: "conv2"
  top: "norm2"
  lrn_param {
    local_size: 5
    alpha: 0.0001
    beta: 0.75
  }
}
layer {
  name: "pool2"
  type: "Pooling"
  bottom: "norm2"
  top: "pool2"
  pooling_param {
    pool: MAX
    kernel_size: 3
    stride: 2
  }
}
layer {
  name: "conv3"
  type: "Convolution"
  bottom: "pool2"
  top: "conv3"
  param {
    lr_mult: 1
    decay_mult: 1
  }
  param {
    lr_mult: 2
    decay_mult: 0
  }
  convolution_param {
    num_output: 384
    pad: 1
    kernel_size: 3
    weight_filler {
      type: "gaussian"
      std: 0.01
    }
    bias_filler {
      type: "constant"
      value: 0
    }
  }
}
layer {
  name: "relu3"
  type: "ReLU"
  bottom: "conv3"
  top: "conv3"
}
layer {
  name: "conv4"
  type: "Convolution"
  bottom: "conv3"
  top: "conv4"
  param {
    lr_mult: 1
    decay_mult: 1
  }
  param {
    lr_mult: 2
    decay_mult: 0
  }
  convolution_param {
    num_output: 384
    pad: 1
    kernel_size: 3
    group: 2
    weight_filler {
      type: "gaussian"
      std: 0.01
    }
    bias_filler {
      type: "constant"
      value: 0.1
    }
  }
}
layer {
  name: "relu4"
  type: "ReLU"
  bottom: "conv4"
  top: "conv4"
}
layer {
  name: "conv5"
  type: "Convolution"
  bottom: "conv4"
  top: "conv5"
  param {
    lr_mult: 1
    decay_mult: 1
  }
  param {
    lr_mult: 2
    decay_mult: 0
  }
  convolution_param {
    num_output: 256
    pad: 1
    kernel_size: 3
    group: 2
    weight_filler {
      type: "gaussian"
      std: 0.01
    }
    bias_filler {
      type: "constant"
      value: 0.1
    }
  }
}
layer {
  name: "relu5"
  type: "ReLU"
  bottom: "conv5"
  top: "conv5"
}
layer {
  name: "pool5"
  type: "Pooling"
  bottom: "conv5"
  top: "pool5"
  pooling_param {
    pool: MAX
    kernel_size: 3
    stride: 2
  }
}
layer {
  name: "fc6"
  type: "InnerProduct"
  bottom: "pool5"
  top: "fc6"
  param {
    lr_mult: 1
    decay_mult: 1
  }
  param {
    lr_mult: 2
    decay_mult: 0
  }
  inner_product_param {
    num_output: 4096
    weight_filler {
      type: "gaussian"
      std: 0.005
    }
    bias_filler {
      type: "constant"
      value: 0.1
    }
  }
}
layer {
  name: "relu6"
  type: "ReLU"
  bottom: "fc6"
  top: "fc6"
}
layer {
  name: "drop6"
  type: "Dropout"
  bottom: "fc6"
  top: "fc6"
  dropout_param {
    dropout_ratio: 0.5
  }
}
layer {
  name: "fc7"
  type: "InnerProduct"
  bottom: "fc6"
  top: "fc7"
  param {
    lr_mult: 1
    decay_mult: 1
  }
  param {
    lr_mult: 2
    decay_mult: 0
  }
  inner_product_param {
    num_output: 4096
    weight_filler {
      type: "gaussian"
      std: 0.005
    }
    bias_filler {
      type: "constant"
      value: 0.1
    }
  }
}
layer {
  name: "relu7"
  type: "ReLU"
  bottom: "fc7"
  top: "fc7"
}
layer {
  name: "drop7"
  type: "Dropout"
  bottom: "fc7"
  top: "fc7"
  dropout_param {
    dropout_ratio: 0.5
  }
}
layer {
  name: "fc8_plantvillage"
  type: "InnerProduct"
  bottom: "fc7"
  top: "fc8_plantvillage"
  param {
    lr_mult: 1
    decay_mult: 1
  }
  param {
    lr_mult: 2
    decay_mult: 0
  }
  inner_product_param {
    num_output: 38
    weight_filler {
      type: "gaussian"
      std: 0.01
    }
    bias_filler {
      type: "constant"
      value: 0
    }
  }
}
layer {
  name: "prob"
  type: "Softmax"
  bottom: "fc8_plantvillage"
  top: "prob"
  include {
    phase: TEST
  }
}
layer {
  name: "hdf5out"
  type: "HDF5Output"
  bottom: "prob"
  bottom: "label"
  include {
    phase: TEST
  }
  hdf5_output_param {
    file_name: "hdf5_dumps/iter_4807.h5"
  }
}
layer {
  name: "loss"
  type: "SoftmaxWithLoss"
  bottom: "fc8_plantvillage"
  bottom: "label"
  top: "loss"
}
layer {
  name: "accuracy"
  type: "Accuracy"
  bottom: "fc8_plantvillage"
  bottom: "label"
  top: "accuracy"
  include {
    phase: TEST
  }
}
I0403 15:04:41.060047 18207 layer_factory.hpp:77] Creating layer data
I0403 15:04:41.060708 18207 net.cpp:91] Creating Layer data
I0403 15:04:41.060742 18207 net.cpp:399] data -> data
I0403 15:04:41.060793 18207 net.cpp:399] data -> label
I0403 15:04:41.060830 18207 data_transformer.cpp:25] Loading mean file from: /home/mohanty/data/final_dataset/lmdb/color-80-20/mean.binaryproto
I0403 15:04:41.063715 18210 db_lmdb.cpp:38] Opened lmdb /home/mohanty/data/final_dataset/lmdb/color-80-20/test_db
I0403 15:04:41.089552 18207 data_layer.cpp:41] output data size: 100,3,227,227
I0403 15:04:41.210944 18207 net.cpp:141] Setting up data
I0403 15:04:41.211007 18207 net.cpp:148] Top shape: 100 3 227 227 (15458700)
I0403 15:04:41.211035 18207 net.cpp:148] Top shape: 100 (100)
I0403 15:04:41.211052 18207 net.cpp:156] Memory required for data: 61835200
I0403 15:04:41.211082 18207 layer_factory.hpp:77] Creating layer label_data_1_split
I0403 15:04:41.211110 18207 net.cpp:91] Creating Layer label_data_1_split
I0403 15:04:41.211129 18207 net.cpp:425] label_data_1_split <- label
I0403 15:04:41.211161 18207 net.cpp:399] label_data_1_split -> label_data_1_split_0
I0403 15:04:41.211189 18207 net.cpp:399] label_data_1_split -> label_data_1_split_1
I0403 15:04:41.211210 18207 net.cpp:399] label_data_1_split -> label_data_1_split_2
I0403 15:04:41.211272 18207 net.cpp:141] Setting up label_data_1_split
I0403 15:04:41.211297 18207 net.cpp:148] Top shape: 100 (100)
I0403 15:04:41.211313 18207 net.cpp:148] Top shape: 100 (100)
I0403 15:04:41.211330 18207 net.cpp:148] Top shape: 100 (100)
I0403 15:04:41.211345 18207 net.cpp:156] Memory required for data: 61836400
I0403 15:04:41.211361 18207 layer_factory.hpp:77] Creating layer conv1
I0403 15:04:41.211393 18207 net.cpp:91] Creating Layer conv1
I0403 15:04:41.211412 18207 net.cpp:425] conv1 <- data
I0403 15:04:41.211432 18207 net.cpp:399] conv1 -> conv1
I0403 15:04:41.357053 18207 net.cpp:141] Setting up conv1
I0403 15:04:41.357131 18207 net.cpp:148] Top shape: 100 96 55 55 (29040000)
I0403 15:04:41.357151 18207 net.cpp:156] Memory required for data: 177996400
I0403 15:04:41.357183 18207 layer_factory.hpp:77] Creating layer relu1
I0403 15:04:41.357216 18207 net.cpp:91] Creating Layer relu1
I0403 15:04:41.357235 18207 net.cpp:425] relu1 <- conv1
I0403 15:04:41.357266 18207 net.cpp:386] relu1 -> conv1 (in-place)
I0403 15:04:41.357529 18207 net.cpp:141] Setting up relu1
I0403 15:04:41.357558 18207 net.cpp:148] Top shape: 100 96 55 55 (29040000)
I0403 15:04:41.357574 18207 net.cpp:156] Memory required for data: 294156400
I0403 15:04:41.357628 18207 layer_factory.hpp:77] Creating layer norm1
I0403 15:04:41.357666 18207 net.cpp:91] Creating Layer norm1
I0403 15:04:41.357692 18207 net.cpp:425] norm1 <- conv1
I0403 15:04:41.357713 18207 net.cpp:399] norm1 -> norm1
I0403 15:04:41.358043 18207 net.cpp:141] Setting up norm1
I0403 15:04:41.358084 18207 net.cpp:148] Top shape: 100 96 55 55 (29040000)
I0403 15:04:41.358101 18207 net.cpp:156] Memory required for data: 410316400
I0403 15:04:41.358117 18207 layer_factory.hpp:77] Creating layer pool1
I0403 15:04:41.358141 18207 net.cpp:91] Creating Layer pool1
I0403 15:04:41.358160 18207 net.cpp:425] pool1 <- norm1
I0403 15:04:41.358180 18207 net.cpp:399] pool1 -> pool1
I0403 15:04:41.358249 18207 net.cpp:141] Setting up pool1
I0403 15:04:41.358274 18207 net.cpp:148] Top shape: 100 96 27 27 (6998400)
I0403 15:04:41.358290 18207 net.cpp:156] Memory required for data: 438310000
I0403 15:04:41.358306 18207 layer_factory.hpp:77] Creating layer conv2
I0403 15:04:41.358331 18207 net.cpp:91] Creating Layer conv2
I0403 15:04:41.358348 18207 net.cpp:425] conv2 <- pool1
I0403 15:04:41.358368 18207 net.cpp:399] conv2 -> conv2
I0403 15:04:41.373872 18207 net.cpp:141] Setting up conv2
I0403 15:04:41.373934 18207 net.cpp:148] Top shape: 100 256 27 27 (18662400)
I0403 15:04:41.373951 18207 net.cpp:156] Memory required for data: 512959600
I0403 15:04:41.373980 18207 layer_factory.hpp:77] Creating layer relu2
I0403 15:04:41.374002 18207 net.cpp:91] Creating Layer relu2
I0403 15:04:41.374022 18207 net.cpp:425] relu2 <- conv2
I0403 15:04:41.374042 18207 net.cpp:386] relu2 -> conv2 (in-place)
I0403 15:04:41.374326 18207 net.cpp:141] Setting up relu2
I0403 15:04:41.374356 18207 net.cpp:148] Top shape: 100 256 27 27 (18662400)
I0403 15:04:41.374373 18207 net.cpp:156] Memory required for data: 587609200
I0403 15:04:41.374389 18207 layer_factory.hpp:77] Creating layer norm2
I0403 15:04:41.374413 18207 net.cpp:91] Creating Layer norm2
I0403 15:04:41.374429 18207 net.cpp:425] norm2 <- conv2
I0403 15:04:41.374449 18207 net.cpp:399] norm2 -> norm2
I0403 15:04:41.374639 18207 net.cpp:141] Setting up norm2
I0403 15:04:41.374665 18207 net.cpp:148] Top shape: 100 256 27 27 (18662400)
I0403 15:04:41.374681 18207 net.cpp:156] Memory required for data: 662258800
I0403 15:04:41.374697 18207 layer_factory.hpp:77] Creating layer pool2
I0403 15:04:41.374717 18207 net.cpp:91] Creating Layer pool2
I0403 15:04:41.374733 18207 net.cpp:425] pool2 <- norm2
I0403 15:04:41.374752 18207 net.cpp:399] pool2 -> pool2
I0403 15:04:41.374804 18207 net.cpp:141] Setting up pool2
I0403 15:04:41.374828 18207 net.cpp:148] Top shape: 100 256 13 13 (4326400)
I0403 15:04:41.374845 18207 net.cpp:156] Memory required for data: 679564400
I0403 15:04:41.374861 18207 layer_factory.hpp:77] Creating layer conv3
I0403 15:04:41.374884 18207 net.cpp:91] Creating Layer conv3
I0403 15:04:41.374902 18207 net.cpp:425] conv3 <- pool2
I0403 15:04:41.374922 18207 net.cpp:399] conv3 -> conv3
I0403 15:04:41.416190 18207 net.cpp:141] Setting up conv3
I0403 15:04:41.416275 18207 net.cpp:148] Top shape: 100 384 13 13 (6489600)
I0403 15:04:41.416292 18207 net.cpp:156] Memory required for data: 705522800
I0403 15:04:41.416319 18207 layer_factory.hpp:77] Creating layer relu3
I0403 15:04:41.416342 18207 net.cpp:91] Creating Layer relu3
I0403 15:04:41.416359 18207 net.cpp:425] relu3 <- conv3
I0403 15:04:41.416379 18207 net.cpp:386] relu3 -> conv3 (in-place)
I0403 15:04:41.416646 18207 net.cpp:141] Setting up relu3
I0403 15:04:41.416673 18207 net.cpp:148] Top shape: 100 384 13 13 (6489600)
I0403 15:04:41.416689 18207 net.cpp:156] Memory required for data: 731481200
I0403 15:04:41.416705 18207 layer_factory.hpp:77] Creating layer conv4
I0403 15:04:41.416729 18207 net.cpp:91] Creating Layer conv4
I0403 15:04:41.416746 18207 net.cpp:425] conv4 <- conv3
I0403 15:04:41.416765 18207 net.cpp:399] conv4 -> conv4
I0403 15:04:41.446626 18207 net.cpp:141] Setting up conv4
I0403 15:04:41.446661 18207 net.cpp:148] Top shape: 100 384 13 13 (6489600)
I0403 15:04:41.446715 18207 net.cpp:156] Memory required for data: 757439600
I0403 15:04:41.446738 18207 layer_factory.hpp:77] Creating layer relu4
I0403 15:04:41.446760 18207 net.cpp:91] Creating Layer relu4
I0403 15:04:41.446785 18207 net.cpp:425] relu4 <- conv4
I0403 15:04:41.446805 18207 net.cpp:386] relu4 -> conv4 (in-place)
I0403 15:04:41.447100 18207 net.cpp:141] Setting up relu4
I0403 15:04:41.447129 18207 net.cpp:148] Top shape: 100 384 13 13 (6489600)
I0403 15:04:41.447146 18207 net.cpp:156] Memory required for data: 783398000
I0403 15:04:41.447162 18207 layer_factory.hpp:77] Creating layer conv5
I0403 15:04:41.447187 18207 net.cpp:91] Creating Layer conv5
I0403 15:04:41.447206 18207 net.cpp:425] conv5 <- conv4
I0403 15:04:41.447229 18207 net.cpp:399] conv5 -> conv5
I0403 15:04:41.468538 18207 net.cpp:141] Setting up conv5
I0403 15:04:41.468601 18207 net.cpp:148] Top shape: 100 256 13 13 (4326400)
I0403 15:04:41.468619 18207 net.cpp:156] Memory required for data: 800703600
I0403 15:04:41.468646 18207 layer_factory.hpp:77] Creating layer relu5
I0403 15:04:41.468669 18207 net.cpp:91] Creating Layer relu5
I0403 15:04:41.468688 18207 net.cpp:425] relu5 <- conv5
I0403 15:04:41.468708 18207 net.cpp:386] relu5 -> conv5 (in-place)
I0403 15:04:41.468997 18207 net.cpp:141] Setting up relu5
I0403 15:04:41.469027 18207 net.cpp:148] Top shape: 100 256 13 13 (4326400)
I0403 15:04:41.469044 18207 net.cpp:156] Memory required for data: 818009200
I0403 15:04:41.469068 18207 layer_factory.hpp:77] Creating layer pool5
I0403 15:04:41.469095 18207 net.cpp:91] Creating Layer pool5
I0403 15:04:41.469115 18207 net.cpp:425] pool5 <- conv5
I0403 15:04:41.469135 18207 net.cpp:399] pool5 -> pool5
I0403 15:04:41.469211 18207 net.cpp:141] Setting up pool5
I0403 15:04:41.469238 18207 net.cpp:148] Top shape: 100 256 6 6 (921600)
I0403 15:04:41.469254 18207 net.cpp:156] Memory required for data: 821695600
I0403 15:04:41.469272 18207 layer_factory.hpp:77] Creating layer fc6
I0403 15:04:41.469301 18207 net.cpp:91] Creating Layer fc6
I0403 15:04:41.469322 18207 net.cpp:425] fc6 <- pool5
I0403 15:04:41.469342 18207 net.cpp:399] fc6 -> fc6
I0403 15:04:43.097012 18207 net.cpp:141] Setting up fc6
I0403 15:04:43.097092 18207 net.cpp:148] Top shape: 100 4096 (409600)
I0403 15:04:43.097108 18207 net.cpp:156] Memory required for data: 823334000
I0403 15:04:43.097129 18207 layer_factory.hpp:77] Creating layer relu6
I0403 15:04:43.097152 18207 net.cpp:91] Creating Layer relu6
I0403 15:04:43.097168 18207 net.cpp:425] relu6 <- fc6
I0403 15:04:43.097189 18207 net.cpp:386] relu6 -> fc6 (in-place)
I0403 15:04:43.097403 18207 net.cpp:141] Setting up relu6
I0403 15:04:43.097426 18207 net.cpp:148] Top shape: 100 4096 (409600)
I0403 15:04:43.097441 18207 net.cpp:156] Memory required for data: 824972400
I0403 15:04:43.097455 18207 layer_factory.hpp:77] Creating layer drop6
I0403 15:04:43.097472 18207 net.cpp:91] Creating Layer drop6
I0403 15:04:43.097487 18207 net.cpp:425] drop6 <- fc6
I0403 15:04:43.097506 18207 net.cpp:386] drop6 -> fc6 (in-place)
I0403 15:04:43.097558 18207 net.cpp:141] Setting up drop6
I0403 15:04:43.097581 18207 net.cpp:148] Top shape: 100 4096 (409600)
I0403 15:04:43.097595 18207 net.cpp:156] Memory required for data: 826610800
I0403 15:04:43.097609 18207 layer_factory.hpp:77] Creating layer fc7
I0403 15:04:43.097628 18207 net.cpp:91] Creating Layer fc7
I0403 15:04:43.097645 18207 net.cpp:425] fc7 <- fc6
I0403 15:04:43.097666 18207 net.cpp:399] fc7 -> fc7
I0403 15:04:43.794598 18207 net.cpp:141] Setting up fc7
I0403 15:04:43.794669 18207 net.cpp:148] Top shape: 100 4096 (409600)
I0403 15:04:43.794685 18207 net.cpp:156] Memory required for data: 828249200
I0403 15:04:43.794705 18207 layer_factory.hpp:77] Creating layer relu7
I0403 15:04:43.794730 18207 net.cpp:91] Creating Layer relu7
I0403 15:04:43.794749 18207 net.cpp:425] relu7 <- fc7
I0403 15:04:43.794767 18207 net.cpp:386] relu7 -> fc7 (in-place)
I0403 15:04:43.795167 18207 net.cpp:141] Setting up relu7
I0403 15:04:43.795192 18207 net.cpp:148] Top shape: 100 4096 (409600)
I0403 15:04:43.795238 18207 net.cpp:156] Memory required for data: 829887600
I0403 15:04:43.795254 18207 layer_factory.hpp:77] Creating layer drop7
I0403 15:04:43.795275 18207 net.cpp:91] Creating Layer drop7
I0403 15:04:43.795291 18207 net.cpp:425] drop7 <- fc7
I0403 15:04:43.795307 18207 net.cpp:386] drop7 -> fc7 (in-place)
I0403 15:04:43.795348 18207 net.cpp:141] Setting up drop7
I0403 15:04:43.795372 18207 net.cpp:148] Top shape: 100 4096 (409600)
I0403 15:04:43.795387 18207 net.cpp:156] Memory required for data: 831526000
I0403 15:04:43.795402 18207 layer_factory.hpp:77] Creating layer fc8_plantvillage
I0403 15:04:43.795420 18207 net.cpp:91] Creating Layer fc8_plantvillage
I0403 15:04:43.795436 18207 net.cpp:425] fc8_plantvillage <- fc7
I0403 15:04:43.795456 18207 net.cpp:399] fc8_plantvillage -> fc8_plantvillage
I0403 15:04:43.802261 18207 net.cpp:141] Setting up fc8_plantvillage
I0403 15:04:43.802289 18207 net.cpp:148] Top shape: 100 38 (3800)
I0403 15:04:43.802304 18207 net.cpp:156] Memory required for data: 831541200
I0403 15:04:43.802321 18207 layer_factory.hpp:77] Creating layer fc8_plantvillage_fc8_plantvillage_0_split
I0403 15:04:43.802342 18207 net.cpp:91] Creating Layer fc8_plantvillage_fc8_plantvillage_0_split
I0403 15:04:43.802358 18207 net.cpp:425] fc8_plantvillage_fc8_plantvillage_0_split <- fc8_plantvillage
I0403 15:04:43.802376 18207 net.cpp:399] fc8_plantvillage_fc8_plantvillage_0_split -> fc8_plantvillage_fc8_plantvillage_0_split_0
I0403 15:04:43.802395 18207 net.cpp:399] fc8_plantvillage_fc8_plantvillage_0_split -> fc8_plantvillage_fc8_plantvillage_0_split_1
I0403 15:04:43.802414 18207 net.cpp:399] fc8_plantvillage_fc8_plantvillage_0_split -> fc8_plantvillage_fc8_plantvillage_0_split_2
I0403 15:04:43.802491 18207 net.cpp:141] Setting up fc8_plantvillage_fc8_plantvillage_0_split
I0403 15:04:43.802515 18207 net.cpp:148] Top shape: 100 38 (3800)
I0403 15:04:43.802531 18207 net.cpp:148] Top shape: 100 38 (3800)
I0403 15:04:43.802546 18207 net.cpp:148] Top shape: 100 38 (3800)
I0403 15:04:43.802558 18207 net.cpp:156] Memory required for data: 831586800
I0403 15:04:43.802572 18207 layer_factory.hpp:77] Creating layer prob
I0403 15:04:43.802590 18207 net.cpp:91] Creating Layer prob
I0403 15:04:43.802605 18207 net.cpp:425] prob <- fc8_plantvillage_fc8_plantvillage_0_split_0
I0403 15:04:43.802624 18207 net.cpp:399] prob -> prob
I0403 15:04:43.802847 18207 net.cpp:141] Setting up prob
I0403 15:04:43.802871 18207 net.cpp:148] Top shape: 100 38 (3800)
I0403 15:04:43.802886 18207 net.cpp:156] Memory required for data: 831602000
I0403 15:04:43.802901 18207 layer_factory.hpp:77] Creating layer hdf5out
I0403 15:04:43.802922 18207 net.cpp:91] Creating Layer hdf5out
I0403 15:04:43.802937 18207 net.cpp:425] hdf5out <- prob
I0403 15:04:43.802953 18207 net.cpp:425] hdf5out <- label_data_1_split_0
I0403 15:04:43.805111 18207 net.cpp:141] Setting up hdf5out
…
