…
I0403 15:03:25.673748 18154 net.cpp:313] The NetState phase (1) differed from the phase (0) specified by a rule in layer data
I0403 15:03:25.674093 18154 net.cpp:49] Initializing net from parameters: 
state {
  phase: TEST
}
layer {
  name: "data"
  type: "Data"
  top: "data"
  top: "label"
  include {
    phase: TEST
  }
  transform_param {
    crop_size: 227
    mean_file: "/home/mohanty/data/final_dataset/lmdb/color-80-20/mean.binaryproto"
  }
  data_param {
    source: "/home/mohanty/data/final_dataset/lmdb/color-80-20/test_db"
    batch_size: 100
    backend: LMDB
  }
}
layer {
  name: "conv1"
  type: "Convolution"
  bottom: "data"
  top: "conv1"
  param {
    lr_mult: 1
    decay_mult: 1
  }
  param {
    lr_mult: 2
    decay_mult: 0
  }
  convolution_param {
    num_output: 96
    kernel_size: 11
    stride: 4
    weight_filler {
      type: "gaussian"
      std: 0.01
    }
    bias_filler {
      type: "constant"
      value: 0
    }
  }
}
layer {
  name: "relu1"
  type: "ReLU"
  bottom: "conv1"
  top: "conv1"
}
layer {
  name: "norm1"
  type: "LRN"
  bottom: "conv1"
  top: "norm1"
  lrn_param {
    local_size: 5
    alpha: 0.0001
    beta: 0.75
  }
}
layer {
  name: "pool1"
  type: "Pooling"
  bottom: "norm1"
  top: "pool1"
  pooling_param {
    pool: MAX
    kernel_size: 3
    stride: 2
  }
}
layer {
  name: "conv2"
  type: "Convolution"
  bottom: "pool1"
  top: "conv2"
  param {
    lr_mult: 1
    decay_mult: 1
  }
  param {
    lr_mult: 2
    decay_mult: 0
  }
  convolution_param {
    num_output: 256
    pad: 2
    kernel_size: 5
    group: 2
    weight_filler {
      type: "gaussian"
      std: 0.01
    }
    bias_filler {
      type: "constant"
      value: 0.1
    }
  }
}
layer {
  name: "relu2"
  type: "ReLU"
  bottom: "conv2"
  top: "conv2"
}
layer {
  name: "norm2"
  type: "LRN"
  bottom: "conv2"
  top: "norm2"
  lrn_param {
    local_size: 5
    alpha: 0.0001
    beta: 0.75
  }
}
layer {
  name: "pool2"
  type: "Pooling"
  bottom: "norm2"
  top: "pool2"
  pooling_param {
    pool: MAX
    kernel_size: 3
    stride: 2
  }
}
layer {
  name: "conv3"
  type: "Convolution"
  bottom: "pool2"
  top: "conv3"
  param {
    lr_mult: 1
    decay_mult: 1
  }
  param {
    lr_mult: 2
    decay_mult: 0
  }
  convolution_param {
    num_output: 384
    pad: 1
    kernel_size: 3
    weight_filler {
      type: "gaussian"
      std: 0.01
    }
    bias_filler {
      type: "constant"
      value: 0
    }
  }
}
layer {
  name: "relu3"
  type: "ReLU"
  bottom: "conv3"
  top: "conv3"
}
layer {
  name: "conv4"
  type: "Convolution"
  bottom: "conv3"
  top: "conv4"
  param {
    lr_mult: 1
    decay_mult: 1
  }
  param {
    lr_mult: 2
    decay_mult: 0
  }
  convolution_param {
    num_output: 384
    pad: 1
    kernel_size: 3
    group: 2
    weight_filler {
      type: "gaussian"
      std: 0.01
    }
    bias_filler {
      type: "constant"
      value: 0.1
    }
  }
}
layer {
  name: "relu4"
  type: "ReLU"
  bottom: "conv4"
  top: "conv4"
}
layer {
  name: "conv5"
  type: "Convolution"
  bottom: "conv4"
  top: "conv5"
  param {
    lr_mult: 1
    decay_mult: 1
  }
  param {
    lr_mult: 2
    decay_mult: 0
  }
  convolution_param {
    num_output: 256
    pad: 1
    kernel_size: 3
    group: 2
    weight_filler {
      type: "gaussian"
      std: 0.01
    }
    bias_filler {
      type: "constant"
      value: 0.1
    }
  }
}
layer {
  name: "relu5"
  type: "ReLU"
  bottom: "conv5"
  top: "conv5"
}
layer {
  name: "pool5"
  type: "Pooling"
  bottom: "conv5"
  top: "pool5"
  pooling_param {
    pool: MAX
    kernel_size: 3
    stride: 2
  }
}
layer {
  name: "fc6"
  type: "InnerProduct"
  bottom: "pool5"
  top: "fc6"
  param {
    lr_mult: 1
    decay_mult: 1
  }
  param {
    lr_mult: 2
    decay_mult: 0
  }
  inner_product_param {
    num_output: 4096
    weight_filler {
      type: "gaussian"
      std: 0.005
    }
    bias_filler {
      type: "constant"
      value: 0.1
    }
  }
}
layer {
  name: "relu6"
  type: "ReLU"
  bottom: "fc6"
  top: "fc6"
}
layer {
  name: "drop6"
  type: "Dropout"
  bottom: "fc6"
  top: "fc6"
  dropout_param {
    dropout_ratio: 0.5
  }
}
layer {
  name: "fc7"
  type: "InnerProduct"
  bottom: "fc6"
  top: "fc7"
  param {
    lr_mult: 1
    decay_mult: 1
  }
  param {
    lr_mult: 2
    decay_mult: 0
  }
  inner_product_param {
    num_output: 4096
    weight_filler {
      type: "gaussian"
      std: 0.005
    }
    bias_filler {
      type: "constant"
      value: 0.1
    }
  }
}
layer {
  name: "relu7"
  type: "ReLU"
  bottom: "fc7"
  top: "fc7"
}
layer {
  name: "drop7"
  type: "Dropout"
  bottom: "fc7"
  top: "fc7"
  dropout_param {
    dropout_ratio: 0.5
  }
}
layer {
  name: "fc8_plantvillage"
  type: "InnerProduct"
  bottom: "fc7"
  top: "fc8_plantvillage"
  param {
    lr_mult: 1
    decay_mult: 1
  }
  param {
    lr_mult: 2
    decay_mult: 0
  }
  inner_product_param {
    num_output: 38
    weight_filler {
      type: "gaussian"
      std: 0.01
    }
    bias_filler {
      type: "constant"
      value: 0
    }
  }
}
layer {
  name: "prob"
  type: "Softmax"
  bottom: "fc8_plantvillage"
  top: "prob"
  include {
    phase: TEST
  }
}
layer {
  name: "hdf5out"
  type: "HDF5Output"
  bottom: "prob"
  bottom: "label"
  include {
    phase: TEST
  }
  hdf5_output_param {
    file_name: "hdf5_dumps/iter_3496.h5"
  }
}
layer {
  name: "loss"
  type: "SoftmaxWithLoss"
  bottom: "fc8_plantvillage"
  bottom: "label"
  top: "loss"
}
layer {
  name: "accuracy"
  type: "Accuracy"
  bottom: "fc8_plantvillage"
  bottom: "label"
  top: "accuracy"
  include {
    phase: TEST
  }
}
I0403 15:03:25.674732 18154 layer_factory.hpp:77] Creating layer data
I0403 15:03:25.675393 18154 net.cpp:91] Creating Layer data
I0403 15:03:25.675425 18154 net.cpp:399] data -> data
I0403 15:03:25.675477 18154 net.cpp:399] data -> label
I0403 15:03:25.675513 18154 data_transformer.cpp:25] Loading mean file from: /home/mohanty/data/final_dataset/lmdb/color-80-20/mean.binaryproto
I0403 15:03:25.677801 18157 db_lmdb.cpp:38] Opened lmdb /home/mohanty/data/final_dataset/lmdb/color-80-20/test_db
I0403 15:03:25.690227 18154 data_layer.cpp:41] output data size: 100,3,227,227
I0403 15:03:25.811393 18154 net.cpp:141] Setting up data
I0403 15:03:25.811452 18154 net.cpp:148] Top shape: 100 3 227 227 (15458700)
I0403 15:03:25.811475 18154 net.cpp:148] Top shape: 100 (100)
I0403 15:03:25.811489 18154 net.cpp:156] Memory required for data: 61835200
I0403 15:03:25.811517 18154 layer_factory.hpp:77] Creating layer label_data_1_split
I0403 15:03:25.811542 18154 net.cpp:91] Creating Layer label_data_1_split
I0403 15:03:25.811559 18154 net.cpp:425] label_data_1_split <- label
I0403 15:03:25.811590 18154 net.cpp:399] label_data_1_split -> label_data_1_split_0
I0403 15:03:25.811616 18154 net.cpp:399] label_data_1_split -> label_data_1_split_1
I0403 15:03:25.811637 18154 net.cpp:399] label_data_1_split -> label_data_1_split_2
I0403 15:03:25.811698 18154 net.cpp:141] Setting up label_data_1_split
I0403 15:03:25.811722 18154 net.cpp:148] Top shape: 100 (100)
I0403 15:03:25.811738 18154 net.cpp:148] Top shape: 100 (100)
I0403 15:03:25.811753 18154 net.cpp:148] Top shape: 100 (100)
I0403 15:03:25.811766 18154 net.cpp:156] Memory required for data: 61836400
I0403 15:03:25.811781 18154 layer_factory.hpp:77] Creating layer conv1
I0403 15:03:25.811811 18154 net.cpp:91] Creating Layer conv1
I0403 15:03:25.811830 18154 net.cpp:425] conv1 <- data
I0403 15:03:25.811849 18154 net.cpp:399] conv1 -> conv1
I0403 15:03:25.958732 18154 net.cpp:141] Setting up conv1
I0403 15:03:25.958822 18154 net.cpp:148] Top shape: 100 96 55 55 (29040000)
I0403 15:03:25.958838 18154 net.cpp:156] Memory required for data: 177996400
I0403 15:03:25.958869 18154 layer_factory.hpp:77] Creating layer relu1
I0403 15:03:25.958899 18154 net.cpp:91] Creating Layer relu1
I0403 15:03:25.958919 18154 net.cpp:425] relu1 <- conv1
I0403 15:03:25.958936 18154 net.cpp:386] relu1 -> conv1 (in-place)
I0403 15:03:25.959202 18154 net.cpp:141] Setting up relu1
I0403 15:03:25.959229 18154 net.cpp:148] Top shape: 100 96 55 55 (29040000)
I0403 15:03:25.959252 18154 net.cpp:156] Memory required for data: 294156400
I0403 15:03:25.959298 18154 layer_factory.hpp:77] Creating layer norm1
I0403 15:03:25.959327 18154 net.cpp:91] Creating Layer norm1
I0403 15:03:25.959345 18154 net.cpp:425] norm1 <- conv1
I0403 15:03:25.959365 18154 net.cpp:399] norm1 -> norm1
I0403 15:03:25.959735 18154 net.cpp:141] Setting up norm1
I0403 15:03:25.959766 18154 net.cpp:148] Top shape: 100 96 55 55 (29040000)
I0403 15:03:25.959782 18154 net.cpp:156] Memory required for data: 410316400
I0403 15:03:25.959799 18154 layer_factory.hpp:77] Creating layer pool1
I0403 15:03:25.959821 18154 net.cpp:91] Creating Layer pool1
I0403 15:03:25.959838 18154 net.cpp:425] pool1 <- norm1
I0403 15:03:25.959859 18154 net.cpp:399] pool1 -> pool1
I0403 15:03:25.959931 18154 net.cpp:141] Setting up pool1
I0403 15:03:25.959959 18154 net.cpp:148] Top shape: 100 96 27 27 (6998400)
I0403 15:03:25.959975 18154 net.cpp:156] Memory required for data: 438310000
I0403 15:03:25.959990 18154 layer_factory.hpp:77] Creating layer conv2
I0403 15:03:25.960013 18154 net.cpp:91] Creating Layer conv2
I0403 15:03:25.960036 18154 net.cpp:425] conv2 <- pool1
I0403 15:03:25.960057 18154 net.cpp:399] conv2 -> conv2
I0403 15:03:25.975224 18154 net.cpp:141] Setting up conv2
I0403 15:03:25.975280 18154 net.cpp:148] Top shape: 100 256 27 27 (18662400)
I0403 15:03:25.975296 18154 net.cpp:156] Memory required for data: 512959600
I0403 15:03:25.975318 18154 layer_factory.hpp:77] Creating layer relu2
I0403 15:03:25.975337 18154 net.cpp:91] Creating Layer relu2
I0403 15:03:25.975353 18154 net.cpp:425] relu2 <- conv2
I0403 15:03:25.975374 18154 net.cpp:386] relu2 -> conv2 (in-place)
I0403 15:03:25.975649 18154 net.cpp:141] Setting up relu2
I0403 15:03:25.975675 18154 net.cpp:148] Top shape: 100 256 27 27 (18662400)
I0403 15:03:25.975690 18154 net.cpp:156] Memory required for data: 587609200
I0403 15:03:25.975705 18154 layer_factory.hpp:77] Creating layer norm2
I0403 15:03:25.975728 18154 net.cpp:91] Creating Layer norm2
I0403 15:03:25.975744 18154 net.cpp:425] norm2 <- conv2
I0403 15:03:25.975761 18154 net.cpp:399] norm2 -> norm2
I0403 15:03:25.975955 18154 net.cpp:141] Setting up norm2
I0403 15:03:25.975981 18154 net.cpp:148] Top shape: 100 256 27 27 (18662400)
I0403 15:03:25.975998 18154 net.cpp:156] Memory required for data: 662258800
I0403 15:03:25.976013 18154 layer_factory.hpp:77] Creating layer pool2
I0403 15:03:25.976035 18154 net.cpp:91] Creating Layer pool2
I0403 15:03:25.976052 18154 net.cpp:425] pool2 <- norm2
I0403 15:03:25.976070 18154 net.cpp:399] pool2 -> pool2
I0403 15:03:25.976122 18154 net.cpp:141] Setting up pool2
I0403 15:03:25.976145 18154 net.cpp:148] Top shape: 100 256 13 13 (4326400)
I0403 15:03:25.976158 18154 net.cpp:156] Memory required for data: 679564400
I0403 15:03:25.976173 18154 layer_factory.hpp:77] Creating layer conv3
I0403 15:03:25.976196 18154 net.cpp:91] Creating Layer conv3
I0403 15:03:25.976213 18154 net.cpp:425] conv3 <- pool2
I0403 15:03:25.976230 18154 net.cpp:399] conv3 -> conv3
I0403 15:03:26.017484 18154 net.cpp:141] Setting up conv3
I0403 15:03:26.017550 18154 net.cpp:148] Top shape: 100 384 13 13 (6489600)
I0403 15:03:26.017568 18154 net.cpp:156] Memory required for data: 705522800
I0403 15:03:26.017592 18154 layer_factory.hpp:77] Creating layer relu3
I0403 15:03:26.017613 18154 net.cpp:91] Creating Layer relu3
I0403 15:03:26.017629 18154 net.cpp:425] relu3 <- conv3
I0403 15:03:26.017650 18154 net.cpp:386] relu3 -> conv3 (in-place)
I0403 15:03:26.017925 18154 net.cpp:141] Setting up relu3
I0403 15:03:26.017954 18154 net.cpp:148] Top shape: 100 384 13 13 (6489600)
I0403 15:03:26.017971 18154 net.cpp:156] Memory required for data: 731481200
I0403 15:03:26.017987 18154 layer_factory.hpp:77] Creating layer conv4
I0403 15:03:26.018010 18154 net.cpp:91] Creating Layer conv4
I0403 15:03:26.018043 18154 net.cpp:425] conv4 <- conv3
I0403 15:03:26.018080 18154 net.cpp:399] conv4 -> conv4
I0403 15:03:26.048504 18154 net.cpp:141] Setting up conv4
I0403 15:03:26.048544 18154 net.cpp:148] Top shape: 100 384 13 13 (6489600)
I0403 15:03:26.048593 18154 net.cpp:156] Memory required for data: 757439600
I0403 15:03:26.048614 18154 layer_factory.hpp:77] Creating layer relu4
I0403 15:03:26.048638 18154 net.cpp:91] Creating Layer relu4
I0403 15:03:26.048656 18154 net.cpp:425] relu4 <- conv4
I0403 15:03:26.048676 18154 net.cpp:386] relu4 -> conv4 (in-place)
I0403 15:03:26.048959 18154 net.cpp:141] Setting up relu4
I0403 15:03:26.048986 18154 net.cpp:148] Top shape: 100 384 13 13 (6489600)
I0403 15:03:26.049002 18154 net.cpp:156] Memory required for data: 783398000
I0403 15:03:26.049022 18154 layer_factory.hpp:77] Creating layer conv5
I0403 15:03:26.049052 18154 net.cpp:91] Creating Layer conv5
I0403 15:03:26.049072 18154 net.cpp:425] conv5 <- conv4
I0403 15:03:26.049090 18154 net.cpp:399] conv5 -> conv5
I0403 15:03:26.069586 18154 net.cpp:141] Setting up conv5
I0403 15:03:26.069636 18154 net.cpp:148] Top shape: 100 256 13 13 (4326400)
I0403 15:03:26.069653 18154 net.cpp:156] Memory required for data: 800703600
I0403 15:03:26.069676 18154 layer_factory.hpp:77] Creating layer relu5
I0403 15:03:26.069695 18154 net.cpp:91] Creating Layer relu5
I0403 15:03:26.069710 18154 net.cpp:425] relu5 <- conv5
I0403 15:03:26.069732 18154 net.cpp:386] relu5 -> conv5 (in-place)
I0403 15:03:26.070005 18154 net.cpp:141] Setting up relu5
I0403 15:03:26.070035 18154 net.cpp:148] Top shape: 100 256 13 13 (4326400)
I0403 15:03:26.070051 18154 net.cpp:156] Memory required for data: 818009200
I0403 15:03:26.070065 18154 layer_factory.hpp:77] Creating layer pool5
I0403 15:03:26.070087 18154 net.cpp:91] Creating Layer pool5
I0403 15:03:26.070102 18154 net.cpp:425] pool5 <- conv5
I0403 15:03:26.070123 18154 net.cpp:399] pool5 -> pool5
I0403 15:03:26.070183 18154 net.cpp:141] Setting up pool5
I0403 15:03:26.070206 18154 net.cpp:148] Top shape: 100 256 6 6 (921600)
I0403 15:03:26.070220 18154 net.cpp:156] Memory required for data: 821695600
I0403 15:03:26.070235 18154 layer_factory.hpp:77] Creating layer fc6
I0403 15:03:26.070264 18154 net.cpp:91] Creating Layer fc6
I0403 15:03:26.070282 18154 net.cpp:425] fc6 <- pool5
I0403 15:03:26.070303 18154 net.cpp:399] fc6 -> fc6
I0403 15:03:27.657636 18154 net.cpp:141] Setting up fc6
I0403 15:03:27.657690 18154 net.cpp:148] Top shape: 100 4096 (409600)
I0403 15:03:27.657704 18154 net.cpp:156] Memory required for data: 823334000
I0403 15:03:27.657726 18154 layer_factory.hpp:77] Creating layer relu6
I0403 15:03:27.657748 18154 net.cpp:91] Creating Layer relu6
I0403 15:03:27.657768 18154 net.cpp:425] relu6 <- fc6
I0403 15:03:27.657786 18154 net.cpp:386] relu6 -> fc6 (in-place)
I0403 15:03:27.658000 18154 net.cpp:141] Setting up relu6
I0403 15:03:27.658037 18154 net.cpp:148] Top shape: 100 4096 (409600)
I0403 15:03:27.658054 18154 net.cpp:156] Memory required for data: 824972400
I0403 15:03:27.658068 18154 layer_factory.hpp:77] Creating layer drop6
I0403 15:03:27.658087 18154 net.cpp:91] Creating Layer drop6
I0403 15:03:27.658102 18154 net.cpp:425] drop6 <- fc6
I0403 15:03:27.658121 18154 net.cpp:386] drop6 -> fc6 (in-place)
I0403 15:03:27.658174 18154 net.cpp:141] Setting up drop6
I0403 15:03:27.658195 18154 net.cpp:148] Top shape: 100 4096 (409600)
I0403 15:03:27.658210 18154 net.cpp:156] Memory required for data: 826610800
I0403 15:03:27.658222 18154 layer_factory.hpp:77] Creating layer fc7
I0403 15:03:27.658246 18154 net.cpp:91] Creating Layer fc7
I0403 15:03:27.658262 18154 net.cpp:425] fc7 <- fc6
I0403 15:03:27.658282 18154 net.cpp:399] fc7 -> fc7
I0403 15:03:28.343351 18154 net.cpp:141] Setting up fc7
I0403 15:03:28.343392 18154 net.cpp:148] Top shape: 100 4096 (409600)
I0403 15:03:28.343407 18154 net.cpp:156] Memory required for data: 828249200
I0403 15:03:28.343427 18154 layer_factory.hpp:77] Creating layer relu7
I0403 15:03:28.343448 18154 net.cpp:91] Creating Layer relu7
I0403 15:03:28.343464 18154 net.cpp:425] relu7 <- fc7
I0403 15:03:28.343485 18154 net.cpp:386] relu7 -> fc7 (in-place)
I0403 15:03:28.343873 18154 net.cpp:141] Setting up relu7
I0403 15:03:28.343900 18154 net.cpp:148] Top shape: 100 4096 (409600)
I0403 15:03:28.343932 18154 net.cpp:156] Memory required for data: 829887600
I0403 15:03:28.343950 18154 layer_factory.hpp:77] Creating layer drop7
I0403 15:03:28.343967 18154 net.cpp:91] Creating Layer drop7
I0403 15:03:28.343982 18154 net.cpp:425] drop7 <- fc7
I0403 15:03:28.344002 18154 net.cpp:386] drop7 -> fc7 (in-place)
I0403 15:03:28.344063 18154 net.cpp:141] Setting up drop7
I0403 15:03:28.344087 18154 net.cpp:148] Top shape: 100 4096 (409600)
I0403 15:03:28.344101 18154 net.cpp:156] Memory required for data: 831526000
I0403 15:03:28.344115 18154 layer_factory.hpp:77] Creating layer fc8_plantvillage
I0403 15:03:28.344137 18154 net.cpp:91] Creating Layer fc8_plantvillage
I0403 15:03:28.344154 18154 net.cpp:425] fc8_plantvillage <- fc7
I0403 15:03:28.344174 18154 net.cpp:399] fc8_plantvillage -> fc8_plantvillage
I0403 15:03:28.350891 18154 net.cpp:141] Setting up fc8_plantvillage
I0403 15:03:28.350919 18154 net.cpp:148] Top shape: 100 38 (3800)
I0403 15:03:28.350934 18154 net.cpp:156] Memory required for data: 831541200
I0403 15:03:28.350951 18154 layer_factory.hpp:77] Creating layer fc8_plantvillage_fc8_plantvillage_0_split
I0403 15:03:28.350970 18154 net.cpp:91] Creating Layer fc8_plantvillage_fc8_plantvillage_0_split
I0403 15:03:28.350986 18154 net.cpp:425] fc8_plantvillage_fc8_plantvillage_0_split <- fc8_plantvillage
I0403 15:03:28.351006 18154 net.cpp:399] fc8_plantvillage_fc8_plantvillage_0_split -> fc8_plantvillage_fc8_plantvillage_0_split_0
I0403 15:03:28.351032 18154 net.cpp:399] fc8_plantvillage_fc8_plantvillage_0_split -> fc8_plantvillage_fc8_plantvillage_0_split_1
I0403 15:03:28.351054 18154 net.cpp:399] fc8_plantvillage_fc8_plantvillage_0_split -> fc8_plantvillage_fc8_plantvillage_0_split_2
I0403 15:03:28.351131 18154 net.cpp:141] Setting up fc8_plantvillage_fc8_plantvillage_0_split
I0403 15:03:28.351155 18154 net.cpp:148] Top shape: 100 38 (3800)
I0403 15:03:28.351171 18154 net.cpp:148] Top shape: 100 38 (3800)
I0403 15:03:28.351186 18154 net.cpp:148] Top shape: 100 38 (3800)
I0403 15:03:28.351199 18154 net.cpp:156] Memory required for data: 831586800
I0403 15:03:28.351212 18154 layer_factory.hpp:77] Creating layer prob
I0403 15:03:28.351230 18154 net.cpp:91] Creating Layer prob
I0403 15:03:28.351245 18154 net.cpp:425] prob <- fc8_plantvillage_fc8_plantvillage_0_split_0
I0403 15:03:28.351266 18154 net.cpp:399] prob -> prob
I0403 15:03:28.351490 18154 net.cpp:141] Setting up prob
I0403 15:03:28.351519 18154 net.cpp:148] Top shape: 100 38 (3800)
I0403 15:03:28.351534 18154 net.cpp:156] Memory required for data: 831602000
I0403 15:03:28.351549 18154 layer_factory.hpp:77] Creating layer hdf5out
I0403 15:03:28.351567 18154 net.cpp:91] Creating Layer hdf5out
I0403 15:03:28.351583 18154 net.cpp:425] hdf5out <- prob
I0403 15:03:28.351598 18154 net.cpp:425] hdf5out <- label_data_1_split_0
I0403 15:03:28.353842 18154 net.cpp:141] Setting up hdf5out
…
