…
I0403 15:03:00.555994 18142 net.cpp:313] The NetState phase (1) differed from the phase (0) specified by a rule in layer data
I0403 15:03:00.556305 18142 net.cpp:49] Initializing net from parameters: 
state {
  phase: TEST
}
layer {
  name: "data"
  type: "Data"
  top: "data"
  top: "label"
  include {
    phase: TEST
  }
  transform_param {
    crop_size: 227
    mean_file: "/home/mohanty/data/final_dataset/lmdb/color-80-20/mean.binaryproto"
  }
  data_param {
    source: "/home/mohanty/data/final_dataset/lmdb/color-80-20/test_db"
    batch_size: 100
    backend: LMDB
  }
}
layer {
  name: "conv1"
  type: "Convolution"
  bottom: "data"
  top: "conv1"
  param {
    lr_mult: 1
    decay_mult: 1
  }
  param {
    lr_mult: 2
    decay_mult: 0
  }
  convolution_param {
    num_output: 96
    kernel_size: 11
    stride: 4
    weight_filler {
      type: "gaussian"
      std: 0.01
    }
    bias_filler {
      type: "constant"
      value: 0
    }
  }
}
layer {
  name: "relu1"
  type: "ReLU"
  bottom: "conv1"
  top: "conv1"
}
layer {
  name: "norm1"
  type: "LRN"
  bottom: "conv1"
  top: "norm1"
  lrn_param {
    local_size: 5
    alpha: 0.0001
    beta: 0.75
  }
}
layer {
  name: "pool1"
  type: "Pooling"
  bottom: "norm1"
  top: "pool1"
  pooling_param {
    pool: MAX
    kernel_size: 3
    stride: 2
  }
}
layer {
  name: "conv2"
  type: "Convolution"
  bottom: "pool1"
  top: "conv2"
  param {
    lr_mult: 1
    decay_mult: 1
  }
  param {
    lr_mult: 2
    decay_mult: 0
  }
  convolution_param {
    num_output: 256
    pad: 2
    kernel_size: 5
    group: 2
    weight_filler {
      type: "gaussian"
      std: 0.01
    }
    bias_filler {
      type: "constant"
      value: 0.1
    }
  }
}
layer {
  name: "relu2"
  type: "ReLU"
  bottom: "conv2"
  top: "conv2"
}
layer {
  name: "norm2"
  type: "LRN"
  bottom: "conv2"
  top: "norm2"
  lrn_param {
    local_size: 5
    alpha: 0.0001
    beta: 0.75
  }
}
layer {
  name: "pool2"
  type: "Pooling"
  bottom: "norm2"
  top: "pool2"
  pooling_param {
    pool: MAX
    kernel_size: 3
    stride: 2
  }
}
layer {
  name: "conv3"
  type: "Convolution"
  bottom: "pool2"
  top: "conv3"
  param {
    lr_mult: 1
    decay_mult: 1
  }
  param {
    lr_mult: 2
    decay_mult: 0
  }
  convolution_param {
    num_output: 384
    pad: 1
    kernel_size: 3
    weight_filler {
      type: "gaussian"
      std: 0.01
    }
    bias_filler {
      type: "constant"
      value: 0
    }
  }
}
layer {
  name: "relu3"
  type: "ReLU"
  bottom: "conv3"
  top: "conv3"
}
layer {
  name: "conv4"
  type: "Convolution"
  bottom: "conv3"
  top: "conv4"
  param {
    lr_mult: 1
    decay_mult: 1
  }
  param {
    lr_mult: 2
    decay_mult: 0
  }
  convolution_param {
    num_output: 384
    pad: 1
    kernel_size: 3
    group: 2
    weight_filler {
      type: "gaussian"
      std: 0.01
    }
    bias_filler {
      type: "constant"
      value: 0.1
    }
  }
}
layer {
  name: "relu4"
  type: "ReLU"
  bottom: "conv4"
  top: "conv4"
}
layer {
  name: "conv5"
  type: "Convolution"
  bottom: "conv4"
  top: "conv5"
  param {
    lr_mult: 1
    decay_mult: 1
  }
  param {
    lr_mult: 2
    decay_mult: 0
  }
  convolution_param {
    num_output: 256
    pad: 1
    kernel_size: 3
    group: 2
    weight_filler {
      type: "gaussian"
      std: 0.01
    }
    bias_filler {
      type: "constant"
      value: 0.1
    }
  }
}
layer {
  name: "relu5"
  type: "ReLU"
  bottom: "conv5"
  top: "conv5"
}
layer {
  name: "pool5"
  type: "Pooling"
  bottom: "conv5"
  top: "pool5"
  pooling_param {
    pool: MAX
    kernel_size: 3
    stride: 2
  }
}
layer {
  name: "fc6"
  type: "InnerProduct"
  bottom: "pool5"
  top: "fc6"
  param {
    lr_mult: 1
    decay_mult: 1
  }
  param {
    lr_mult: 2
    decay_mult: 0
  }
  inner_product_param {
    num_output: 4096
    weight_filler {
      type: "gaussian"
      std: 0.005
    }
    bias_filler {
      type: "constant"
      value: 0.1
    }
  }
}
layer {
  name: "relu6"
  type: "ReLU"
  bottom: "fc6"
  top: "fc6"
}
layer {
  name: "drop6"
  type: "Dropout"
  bottom: "fc6"
  top: "fc6"
  dropout_param {
    dropout_ratio: 0.5
  }
}
layer {
  name: "fc7"
  type: "InnerProduct"
  bottom: "fc6"
  top: "fc7"
  param {
    lr_mult: 1
    decay_mult: 1
  }
  param {
    lr_mult: 2
    decay_mult: 0
  }
  inner_product_param {
    num_output: 4096
    weight_filler {
      type: "gaussian"
      std: 0.005
    }
    bias_filler {
      type: "constant"
      value: 0.1
    }
  }
}
layer {
  name: "relu7"
  type: "ReLU"
  bottom: "fc7"
  top: "fc7"
}
layer {
  name: "drop7"
  type: "Dropout"
  bottom: "fc7"
  top: "fc7"
  dropout_param {
    dropout_ratio: 0.5
  }
}
layer {
  name: "fc8_plantvillage"
  type: "InnerProduct"
  bottom: "fc7"
  top: "fc8_plantvillage"
  param {
    lr_mult: 1
    decay_mult: 1
  }
  param {
    lr_mult: 2
    decay_mult: 0
  }
  inner_product_param {
    num_output: 38
    weight_filler {
      type: "gaussian"
      std: 0.01
    }
    bias_filler {
      type: "constant"
      value: 0
    }
  }
}
layer {
  name: "prob"
  type: "Softmax"
  bottom: "fc8_plantvillage"
  top: "prob"
  include {
    phase: TEST
  }
}
layer {
  name: "hdf5out"
  type: "HDF5Output"
  bottom: "prob"
  bottom: "label"
  include {
    phase: TEST
  }
  hdf5_output_param {
    file_name: "hdf5_dumps/iter_3059.h5"
  }
}
layer {
  name: "loss"
  type: "SoftmaxWithLoss"
  bottom: "fc8_plantvillage"
  bottom: "label"
  top: "loss"
}
layer {
  name: "accuracy"
  type: "Accuracy"
  bottom: "fc8_plantvillage"
  bottom: "label"
  top: "accuracy"
  include {
    phase: TEST
  }
}
I0403 15:03:00.556828 18142 layer_factory.hpp:77] Creating layer data
I0403 15:03:00.557461 18142 net.cpp:91] Creating Layer data
I0403 15:03:00.557492 18142 net.cpp:399] data -> data
I0403 15:03:00.557543 18142 net.cpp:399] data -> label
I0403 15:03:00.557579 18142 data_transformer.cpp:25] Loading mean file from: /home/mohanty/data/final_dataset/lmdb/color-80-20/mean.binaryproto
I0403 15:03:00.560179 18147 db_lmdb.cpp:38] Opened lmdb /home/mohanty/data/final_dataset/lmdb/color-80-20/test_db
I0403 15:03:00.572376 18142 data_layer.cpp:41] output data size: 100,3,227,227
I0403 15:03:00.696472 18142 net.cpp:141] Setting up data
I0403 15:03:00.696579 18142 net.cpp:148] Top shape: 100 3 227 227 (15458700)
I0403 15:03:00.696604 18142 net.cpp:148] Top shape: 100 (100)
I0403 15:03:00.696620 18142 net.cpp:156] Memory required for data: 61835200
I0403 15:03:00.696650 18142 layer_factory.hpp:77] Creating layer label_data_1_split
I0403 15:03:00.696676 18142 net.cpp:91] Creating Layer label_data_1_split
I0403 15:03:00.696696 18142 net.cpp:425] label_data_1_split <- label
I0403 15:03:00.696730 18142 net.cpp:399] label_data_1_split -> label_data_1_split_0
I0403 15:03:00.696758 18142 net.cpp:399] label_data_1_split -> label_data_1_split_1
I0403 15:03:00.696780 18142 net.cpp:399] label_data_1_split -> label_data_1_split_2
I0403 15:03:00.696844 18142 net.cpp:141] Setting up label_data_1_split
I0403 15:03:00.696871 18142 net.cpp:148] Top shape: 100 (100)
I0403 15:03:00.696888 18142 net.cpp:148] Top shape: 100 (100)
I0403 15:03:00.696907 18142 net.cpp:148] Top shape: 100 (100)
I0403 15:03:00.696921 18142 net.cpp:156] Memory required for data: 61836400
I0403 15:03:00.696938 18142 layer_factory.hpp:77] Creating layer conv1
I0403 15:03:00.696969 18142 net.cpp:91] Creating Layer conv1
I0403 15:03:00.696990 18142 net.cpp:425] conv1 <- data
I0403 15:03:00.697010 18142 net.cpp:399] conv1 -> conv1
I0403 15:03:00.845446 18142 net.cpp:141] Setting up conv1
I0403 15:03:00.845541 18142 net.cpp:148] Top shape: 100 96 55 55 (29040000)
I0403 15:03:00.845559 18142 net.cpp:156] Memory required for data: 177996400
I0403 15:03:00.845592 18142 layer_factory.hpp:77] Creating layer relu1
I0403 15:03:00.845621 18142 net.cpp:91] Creating Layer relu1
I0403 15:03:00.845640 18142 net.cpp:425] relu1 <- conv1
I0403 15:03:00.845661 18142 net.cpp:386] relu1 -> conv1 (in-place)
I0403 15:03:00.845927 18142 net.cpp:141] Setting up relu1
I0403 15:03:00.845957 18142 net.cpp:148] Top shape: 100 96 55 55 (29040000)
I0403 15:03:00.845973 18142 net.cpp:156] Memory required for data: 294156400
I0403 15:03:00.846024 18142 layer_factory.hpp:77] Creating layer norm1
I0403 15:03:00.846055 18142 net.cpp:91] Creating Layer norm1
I0403 15:03:00.846076 18142 net.cpp:425] norm1 <- conv1
I0403 15:03:00.846094 18142 net.cpp:399] norm1 -> norm1
I0403 15:03:00.846420 18142 net.cpp:141] Setting up norm1
I0403 15:03:00.846447 18142 net.cpp:148] Top shape: 100 96 55 55 (29040000)
I0403 15:03:00.846463 18142 net.cpp:156] Memory required for data: 410316400
I0403 15:03:00.846479 18142 layer_factory.hpp:77] Creating layer pool1
I0403 15:03:00.846503 18142 net.cpp:91] Creating Layer pool1
I0403 15:03:00.846520 18142 net.cpp:425] pool1 <- norm1
I0403 15:03:00.846539 18142 net.cpp:399] pool1 -> pool1
I0403 15:03:00.846606 18142 net.cpp:141] Setting up pool1
I0403 15:03:00.846629 18142 net.cpp:148] Top shape: 100 96 27 27 (6998400)
I0403 15:03:00.846644 18142 net.cpp:156] Memory required for data: 438310000
I0403 15:03:00.846659 18142 layer_factory.hpp:77] Creating layer conv2
I0403 15:03:00.846684 18142 net.cpp:91] Creating Layer conv2
I0403 15:03:00.846700 18142 net.cpp:425] conv2 <- pool1
I0403 15:03:00.846719 18142 net.cpp:399] conv2 -> conv2
I0403 15:03:00.862329 18142 net.cpp:141] Setting up conv2
I0403 15:03:00.862382 18142 net.cpp:148] Top shape: 100 256 27 27 (18662400)
I0403 15:03:00.862401 18142 net.cpp:156] Memory required for data: 512959600
I0403 15:03:00.862424 18142 layer_factory.hpp:77] Creating layer relu2
I0403 15:03:00.862445 18142 net.cpp:91] Creating Layer relu2
I0403 15:03:00.862463 18142 net.cpp:425] relu2 <- conv2
I0403 15:03:00.862483 18142 net.cpp:386] relu2 -> conv2 (in-place)
I0403 15:03:00.862764 18142 net.cpp:141] Setting up relu2
I0403 15:03:00.862794 18142 net.cpp:148] Top shape: 100 256 27 27 (18662400)
I0403 15:03:00.862812 18142 net.cpp:156] Memory required for data: 587609200
I0403 15:03:00.862829 18142 layer_factory.hpp:77] Creating layer norm2
I0403 15:03:00.862851 18142 net.cpp:91] Creating Layer norm2
I0403 15:03:00.862869 18142 net.cpp:425] norm2 <- conv2
I0403 15:03:00.862890 18142 net.cpp:399] norm2 -> norm2
I0403 15:03:00.863128 18142 net.cpp:141] Setting up norm2
I0403 15:03:00.863157 18142 net.cpp:148] Top shape: 100 256 27 27 (18662400)
I0403 15:03:00.863173 18142 net.cpp:156] Memory required for data: 662258800
I0403 15:03:00.863188 18142 layer_factory.hpp:77] Creating layer pool2
I0403 15:03:00.863207 18142 net.cpp:91] Creating Layer pool2
I0403 15:03:00.863224 18142 net.cpp:425] pool2 <- norm2
I0403 15:03:00.863242 18142 net.cpp:399] pool2 -> pool2
I0403 15:03:00.863294 18142 net.cpp:141] Setting up pool2
I0403 15:03:00.863318 18142 net.cpp:148] Top shape: 100 256 13 13 (4326400)
I0403 15:03:00.863334 18142 net.cpp:156] Memory required for data: 679564400
I0403 15:03:00.863348 18142 layer_factory.hpp:77] Creating layer conv3
I0403 15:03:00.863371 18142 net.cpp:91] Creating Layer conv3
I0403 15:03:00.863389 18142 net.cpp:425] conv3 <- pool2
I0403 15:03:00.863407 18142 net.cpp:399] conv3 -> conv3
I0403 15:03:00.904307 18142 net.cpp:141] Setting up conv3
I0403 15:03:00.904357 18142 net.cpp:148] Top shape: 100 384 13 13 (6489600)
I0403 15:03:00.904374 18142 net.cpp:156] Memory required for data: 705522800
I0403 15:03:00.904402 18142 layer_factory.hpp:77] Creating layer relu3
I0403 15:03:00.904428 18142 net.cpp:91] Creating Layer relu3
I0403 15:03:00.904448 18142 net.cpp:425] relu3 <- conv3
I0403 15:03:00.904469 18142 net.cpp:386] relu3 -> conv3 (in-place)
I0403 15:03:00.904752 18142 net.cpp:141] Setting up relu3
I0403 15:03:00.904779 18142 net.cpp:148] Top shape: 100 384 13 13 (6489600)
I0403 15:03:00.904795 18142 net.cpp:156] Memory required for data: 731481200
I0403 15:03:00.904810 18142 layer_factory.hpp:77] Creating layer conv4
I0403 15:03:00.904836 18142 net.cpp:91] Creating Layer conv4
I0403 15:03:00.904853 18142 net.cpp:425] conv4 <- conv3
I0403 15:03:00.904875 18142 net.cpp:399] conv4 -> conv4
I0403 15:03:00.935241 18142 net.cpp:141] Setting up conv4
I0403 15:03:00.935294 18142 net.cpp:148] Top shape: 100 384 13 13 (6489600)
I0403 15:03:00.935359 18142 net.cpp:156] Memory required for data: 757439600
I0403 15:03:00.935380 18142 layer_factory.hpp:77] Creating layer relu4
I0403 15:03:00.935412 18142 net.cpp:91] Creating Layer relu4
I0403 15:03:00.935430 18142 net.cpp:425] relu4 <- conv4
I0403 15:03:00.935451 18142 net.cpp:386] relu4 -> conv4 (in-place)
I0403 15:03:00.935740 18142 net.cpp:141] Setting up relu4
I0403 15:03:00.935770 18142 net.cpp:148] Top shape: 100 384 13 13 (6489600)
I0403 15:03:00.935787 18142 net.cpp:156] Memory required for data: 783398000
I0403 15:03:00.935803 18142 layer_factory.hpp:77] Creating layer conv5
I0403 15:03:00.935827 18142 net.cpp:91] Creating Layer conv5
I0403 15:03:00.935845 18142 net.cpp:425] conv5 <- conv4
I0403 15:03:00.935868 18142 net.cpp:399] conv5 -> conv5
I0403 15:03:00.957494 18142 net.cpp:141] Setting up conv5
I0403 15:03:00.957558 18142 net.cpp:148] Top shape: 100 256 13 13 (4326400)
I0403 15:03:00.957576 18142 net.cpp:156] Memory required for data: 800703600
I0403 15:03:00.957602 18142 layer_factory.hpp:77] Creating layer relu5
I0403 15:03:00.957624 18142 net.cpp:91] Creating Layer relu5
I0403 15:03:00.957643 18142 net.cpp:425] relu5 <- conv5
I0403 15:03:00.957669 18142 net.cpp:386] relu5 -> conv5 (in-place)
I0403 15:03:00.957963 18142 net.cpp:141] Setting up relu5
I0403 15:03:00.957996 18142 net.cpp:148] Top shape: 100 256 13 13 (4326400)
I0403 15:03:00.958012 18142 net.cpp:156] Memory required for data: 818009200
I0403 15:03:00.958041 18142 layer_factory.hpp:77] Creating layer pool5
I0403 15:03:00.958070 18142 net.cpp:91] Creating Layer pool5
I0403 15:03:00.958089 18142 net.cpp:425] pool5 <- conv5
I0403 15:03:00.958111 18142 net.cpp:399] pool5 -> pool5
I0403 15:03:00.958176 18142 net.cpp:141] Setting up pool5
I0403 15:03:00.958201 18142 net.cpp:148] Top shape: 100 256 6 6 (921600)
I0403 15:03:00.958216 18142 net.cpp:156] Memory required for data: 821695600
I0403 15:03:00.958232 18142 layer_factory.hpp:77] Creating layer fc6
I0403 15:03:00.958263 18142 net.cpp:91] Creating Layer fc6
I0403 15:03:00.958281 18142 net.cpp:425] fc6 <- pool5
I0403 15:03:00.958300 18142 net.cpp:399] fc6 -> fc6
I0403 15:03:02.528112 18142 net.cpp:141] Setting up fc6
I0403 15:03:02.528158 18142 net.cpp:148] Top shape: 100 4096 (409600)
I0403 15:03:02.528175 18142 net.cpp:156] Memory required for data: 823334000
I0403 15:03:02.528195 18142 layer_factory.hpp:77] Creating layer relu6
I0403 15:03:02.528218 18142 net.cpp:91] Creating Layer relu6
I0403 15:03:02.528234 18142 net.cpp:425] relu6 <- fc6
I0403 15:03:02.528264 18142 net.cpp:386] relu6 -> fc6 (in-place)
I0403 15:03:02.528472 18142 net.cpp:141] Setting up relu6
I0403 15:03:02.528496 18142 net.cpp:148] Top shape: 100 4096 (409600)
I0403 15:03:02.528511 18142 net.cpp:156] Memory required for data: 824972400
I0403 15:03:02.528524 18142 layer_factory.hpp:77] Creating layer drop6
I0403 15:03:02.528542 18142 net.cpp:91] Creating Layer drop6
I0403 15:03:02.528558 18142 net.cpp:425] drop6 <- fc6
I0403 15:03:02.528576 18142 net.cpp:386] drop6 -> fc6 (in-place)
I0403 15:03:02.528625 18142 net.cpp:141] Setting up drop6
I0403 15:03:02.528651 18142 net.cpp:148] Top shape: 100 4096 (409600)
I0403 15:03:02.528666 18142 net.cpp:156] Memory required for data: 826610800
I0403 15:03:02.528681 18142 layer_factory.hpp:77] Creating layer fc7
I0403 15:03:02.528699 18142 net.cpp:91] Creating Layer fc7
I0403 15:03:02.528715 18142 net.cpp:425] fc7 <- fc6
I0403 15:03:02.528734 18142 net.cpp:399] fc7 -> fc7
I0403 15:03:03.216193 18142 net.cpp:141] Setting up fc7
I0403 15:03:03.216246 18142 net.cpp:148] Top shape: 100 4096 (409600)
I0403 15:03:03.216261 18142 net.cpp:156] Memory required for data: 828249200
I0403 15:03:03.216282 18142 layer_factory.hpp:77] Creating layer relu7
I0403 15:03:03.216303 18142 net.cpp:91] Creating Layer relu7
I0403 15:03:03.216320 18142 net.cpp:425] relu7 <- fc7
I0403 15:03:03.216341 18142 net.cpp:386] relu7 -> fc7 (in-place)
I0403 15:03:03.216752 18142 net.cpp:141] Setting up relu7
I0403 15:03:03.216778 18142 net.cpp:148] Top shape: 100 4096 (409600)
I0403 15:03:03.216814 18142 net.cpp:156] Memory required for data: 829887600
I0403 15:03:03.216830 18142 layer_factory.hpp:77] Creating layer drop7
I0403 15:03:03.216847 18142 net.cpp:91] Creating Layer drop7
I0403 15:03:03.216863 18142 net.cpp:425] drop7 <- fc7
I0403 15:03:03.216881 18142 net.cpp:386] drop7 -> fc7 (in-place)
I0403 15:03:03.216924 18142 net.cpp:141] Setting up drop7
I0403 15:03:03.216949 18142 net.cpp:148] Top shape: 100 4096 (409600)
I0403 15:03:03.216964 18142 net.cpp:156] Memory required for data: 831526000
I0403 15:03:03.216979 18142 layer_factory.hpp:77] Creating layer fc8_plantvillage
I0403 15:03:03.216997 18142 net.cpp:91] Creating Layer fc8_plantvillage
I0403 15:03:03.217012 18142 net.cpp:425] fc8_plantvillage <- fc7
I0403 15:03:03.217038 18142 net.cpp:399] fc8_plantvillage -> fc8_plantvillage
I0403 15:03:03.223839 18142 net.cpp:141] Setting up fc8_plantvillage
I0403 15:03:03.223868 18142 net.cpp:148] Top shape: 100 38 (3800)
I0403 15:03:03.223886 18142 net.cpp:156] Memory required for data: 831541200
I0403 15:03:03.223906 18142 layer_factory.hpp:77] Creating layer fc8_plantvillage_fc8_plantvillage_0_split
I0403 15:03:03.223923 18142 net.cpp:91] Creating Layer fc8_plantvillage_fc8_plantvillage_0_split
I0403 15:03:03.223938 18142 net.cpp:425] fc8_plantvillage_fc8_plantvillage_0_split <- fc8_plantvillage
I0403 15:03:03.223958 18142 net.cpp:399] fc8_plantvillage_fc8_plantvillage_0_split -> fc8_plantvillage_fc8_plantvillage_0_split_0
I0403 15:03:03.223978 18142 net.cpp:399] fc8_plantvillage_fc8_plantvillage_0_split -> fc8_plantvillage_fc8_plantvillage_0_split_1
I0403 15:03:03.223999 18142 net.cpp:399] fc8_plantvillage_fc8_plantvillage_0_split -> fc8_plantvillage_fc8_plantvillage_0_split_2
I0403 15:03:03.224081 18142 net.cpp:141] Setting up fc8_plantvillage_fc8_plantvillage_0_split
I0403 15:03:03.224104 18142 net.cpp:148] Top shape: 100 38 (3800)
I0403 15:03:03.224120 18142 net.cpp:148] Top shape: 100 38 (3800)
I0403 15:03:03.224135 18142 net.cpp:148] Top shape: 100 38 (3800)
I0403 15:03:03.224149 18142 net.cpp:156] Memory required for data: 831586800
I0403 15:03:03.224164 18142 layer_factory.hpp:77] Creating layer prob
I0403 15:03:03.224181 18142 net.cpp:91] Creating Layer prob
I0403 15:03:03.224196 18142 net.cpp:425] prob <- fc8_plantvillage_fc8_plantvillage_0_split_0
I0403 15:03:03.224215 18142 net.cpp:399] prob -> prob
I0403 15:03:03.224444 18142 net.cpp:141] Setting up prob
I0403 15:03:03.224470 18142 net.cpp:148] Top shape: 100 38 (3800)
I0403 15:03:03.224485 18142 net.cpp:156] Memory required for data: 831602000
I0403 15:03:03.224500 18142 layer_factory.hpp:77] Creating layer hdf5out
I0403 15:03:03.224519 18142 net.cpp:91] Creating Layer hdf5out
I0403 15:03:03.224534 18142 net.cpp:425] hdf5out <- prob
I0403 15:03:03.224550 18142 net.cpp:425] hdf5out <- label_data_1_split_0
I0403 15:03:03.227004 18142 net.cpp:141] Setting up hdf5out
…
