…
I0403 15:09:42.993744 18358 net.cpp:313] The NetState phase (1) differed from the phase (0) specified by a rule in layer data
I0403 15:09:42.994046 18358 net.cpp:49] Initializing net from parameters: 
state {
  phase: TEST
}
layer {
  name: "data"
  type: "Data"
  top: "data"
  top: "label"
  include {
    phase: TEST
  }
  transform_param {
    crop_size: 227
    mean_file: "/home/mohanty/data/final_dataset/lmdb/color-80-20/mean.binaryproto"
  }
  data_param {
    source: "/home/mohanty/data/final_dataset/lmdb/color-80-20/test_db"
    batch_size: 100
    backend: LMDB
  }
}
layer {
  name: "conv1"
  type: "Convolution"
  bottom: "data"
  top: "conv1"
  param {
    lr_mult: 1
    decay_mult: 1
  }
  param {
    lr_mult: 2
    decay_mult: 0
  }
  convolution_param {
    num_output: 96
    kernel_size: 11
    stride: 4
    weight_filler {
      type: "gaussian"
      std: 0.01
    }
    bias_filler {
      type: "constant"
      value: 0
    }
  }
}
layer {
  name: "relu1"
  type: "ReLU"
  bottom: "conv1"
  top: "conv1"
}
layer {
  name: "norm1"
  type: "LRN"
  bottom: "conv1"
  top: "norm1"
  lrn_param {
    local_size: 5
    alpha: 0.0001
    beta: 0.75
  }
}
layer {
  name: "pool1"
  type: "Pooling"
  bottom: "norm1"
  top: "pool1"
  pooling_param {
    pool: MAX
    kernel_size: 3
    stride: 2
  }
}
layer {
  name: "conv2"
  type: "Convolution"
  bottom: "pool1"
  top: "conv2"
  param {
    lr_mult: 1
    decay_mult: 1
  }
  param {
    lr_mult: 2
    decay_mult: 0
  }
  convolution_param {
    num_output: 256
    pad: 2
    kernel_size: 5
    group: 2
    weight_filler {
      type: "gaussian"
      std: 0.01
    }
    bias_filler {
      type: "constant"
      value: 0.1
    }
  }
}
layer {
  name: "relu2"
  type: "ReLU"
  bottom: "conv2"
  top: "conv2"
}
layer {
  name: "norm2"
  type: "LRN"
  bottom: "conv2"
  top: "norm2"
  lrn_param {
    local_size: 5
    alpha: 0.0001
    beta: 0.75
  }
}
layer {
  name: "pool2"
  type: "Pooling"
  bottom: "norm2"
  top: "pool2"
  pooling_param {
    pool: MAX
    kernel_size: 3
    stride: 2
  }
}
layer {
  name: "conv3"
  type: "Convolution"
  bottom: "pool2"
  top: "conv3"
  param {
    lr_mult: 1
    decay_mult: 1
  }
  param {
    lr_mult: 2
    decay_mult: 0
  }
  convolution_param {
    num_output: 384
    pad: 1
    kernel_size: 3
    weight_filler {
      type: "gaussian"
      std: 0.01
    }
    bias_filler {
      type: "constant"
      value: 0
    }
  }
}
layer {
  name: "relu3"
  type: "ReLU"
  bottom: "conv3"
  top: "conv3"
}
layer {
  name: "conv4"
  type: "Convolution"
  bottom: "conv3"
  top: "conv4"
  param {
    lr_mult: 1
    decay_mult: 1
  }
  param {
    lr_mult: 2
    decay_mult: 0
  }
  convolution_param {
    num_output: 384
    pad: 1
    kernel_size: 3
    group: 2
    weight_filler {
      type: "gaussian"
      std: 0.01
    }
    bias_filler {
      type: "constant"
      value: 0.1
    }
  }
}
layer {
  name: "relu4"
  type: "ReLU"
  bottom: "conv4"
  top: "conv4"
}
layer {
  name: "conv5"
  type: "Convolution"
  bottom: "conv4"
  top: "conv5"
  param {
    lr_mult: 1
    decay_mult: 1
  }
  param {
    lr_mult: 2
    decay_mult: 0
  }
  convolution_param {
    num_output: 256
    pad: 1
    kernel_size: 3
    group: 2
    weight_filler {
      type: "gaussian"
      std: 0.01
    }
    bias_filler {
      type: "constant"
      value: 0.1
    }
  }
}
layer {
  name: "relu5"
  type: "ReLU"
  bottom: "conv5"
  top: "conv5"
}
layer {
  name: "pool5"
  type: "Pooling"
  bottom: "conv5"
  top: "pool5"
  pooling_param {
    pool: MAX
    kernel_size: 3
    stride: 2
  }
}
layer {
  name: "fc6"
  type: "InnerProduct"
  bottom: "pool5"
  top: "fc6"
  param {
    lr_mult: 1
    decay_mult: 1
  }
  param {
    lr_mult: 2
    decay_mult: 0
  }
  inner_product_param {
    num_output: 4096
    weight_filler {
      type: "gaussian"
      std: 0.005
    }
    bias_filler {
      type: "constant"
      value: 0.1
    }
  }
}
layer {
  name: "relu6"
  type: "ReLU"
  bottom: "fc6"
  top: "fc6"
}
layer {
  name: "drop6"
  type: "Dropout"
  bottom: "fc6"
  top: "fc6"
  dropout_param {
    dropout_ratio: 0.5
  }
}
layer {
  name: "fc7"
  type: "InnerProduct"
  bottom: "fc6"
  top: "fc7"
  param {
    lr_mult: 1
    decay_mult: 1
  }
  param {
    lr_mult: 2
    decay_mult: 0
  }
  inner_product_param {
    num_output: 4096
    weight_filler {
      type: "gaussian"
      std: 0.005
    }
    bias_filler {
      type: "constant"
      value: 0.1
    }
  }
}
layer {
  name: "relu7"
  type: "ReLU"
  bottom: "fc7"
  top: "fc7"
}
layer {
  name: "drop7"
  type: "Dropout"
  bottom: "fc7"
  top: "fc7"
  dropout_param {
    dropout_ratio: 0.5
  }
}
layer {
  name: "fc8_plantvillage"
  type: "InnerProduct"
  bottom: "fc7"
  top: "fc8_plantvillage"
  param {
    lr_mult: 1
    decay_mult: 1
  }
  param {
    lr_mult: 2
    decay_mult: 0
  }
  inner_product_param {
    num_output: 38
    weight_filler {
      type: "gaussian"
      std: 0.01
    }
    bias_filler {
      type: "constant"
      value: 0
    }
  }
}
layer {
  name: "prob"
  type: "Softmax"
  bottom: "fc8_plantvillage"
  top: "prob"
  include {
    phase: TEST
  }
}
layer {
  name: "hdf5out"
  type: "HDF5Output"
  bottom: "prob"
  bottom: "label"
  include {
    phase: TEST
  }
  hdf5_output_param {
    file_name: "hdf5_dumps/iter_10051.h5"
  }
}
layer {
  name: "loss"
  type: "SoftmaxWithLoss"
  bottom: "fc8_plantvillage"
  bottom: "label"
  top: "loss"
}
layer {
  name: "accuracy"
  type: "Accuracy"
  bottom: "fc8_plantvillage"
  bottom: "label"
  top: "accuracy"
  include {
    phase: TEST
  }
}
I0403 15:09:42.994616 18358 layer_factory.hpp:77] Creating layer data
I0403 15:09:42.995263 18358 net.cpp:91] Creating Layer data
I0403 15:09:42.995296 18358 net.cpp:399] data -> data
I0403 15:09:42.995345 18358 net.cpp:399] data -> label
I0403 15:09:42.995380 18358 data_transformer.cpp:25] Loading mean file from: /home/mohanty/data/final_dataset/lmdb/color-80-20/mean.binaryproto
I0403 15:09:42.998348 18361 db_lmdb.cpp:38] Opened lmdb /home/mohanty/data/final_dataset/lmdb/color-80-20/test_db
I0403 15:09:43.009865 18358 data_layer.cpp:41] output data size: 100,3,227,227
I0403 15:09:43.133101 18358 net.cpp:141] Setting up data
I0403 15:09:43.133219 18358 net.cpp:148] Top shape: 100 3 227 227 (15458700)
I0403 15:09:43.133241 18358 net.cpp:148] Top shape: 100 (100)
I0403 15:09:43.133257 18358 net.cpp:156] Memory required for data: 61835200
I0403 15:09:43.133285 18358 layer_factory.hpp:77] Creating layer label_data_1_split
I0403 15:09:43.133311 18358 net.cpp:91] Creating Layer label_data_1_split
I0403 15:09:43.133329 18358 net.cpp:425] label_data_1_split <- label
I0403 15:09:43.133363 18358 net.cpp:399] label_data_1_split -> label_data_1_split_0
I0403 15:09:43.133389 18358 net.cpp:399] label_data_1_split -> label_data_1_split_1
I0403 15:09:43.133409 18358 net.cpp:399] label_data_1_split -> label_data_1_split_2
I0403 15:09:43.133476 18358 net.cpp:141] Setting up label_data_1_split
I0403 15:09:43.133498 18358 net.cpp:148] Top shape: 100 (100)
I0403 15:09:43.133517 18358 net.cpp:148] Top shape: 100 (100)
I0403 15:09:43.133533 18358 net.cpp:148] Top shape: 100 (100)
I0403 15:09:43.133546 18358 net.cpp:156] Memory required for data: 61836400
I0403 15:09:43.133561 18358 layer_factory.hpp:77] Creating layer conv1
I0403 15:09:43.133592 18358 net.cpp:91] Creating Layer conv1
I0403 15:09:43.133610 18358 net.cpp:425] conv1 <- data
I0403 15:09:43.133630 18358 net.cpp:399] conv1 -> conv1
I0403 15:09:43.279628 18358 net.cpp:141] Setting up conv1
I0403 15:09:43.279727 18358 net.cpp:148] Top shape: 100 96 55 55 (29040000)
I0403 15:09:43.279744 18358 net.cpp:156] Memory required for data: 177996400
I0403 15:09:43.279775 18358 layer_factory.hpp:77] Creating layer relu1
I0403 15:09:43.279803 18358 net.cpp:91] Creating Layer relu1
I0403 15:09:43.279822 18358 net.cpp:425] relu1 <- conv1
I0403 15:09:43.279840 18358 net.cpp:386] relu1 -> conv1 (in-place)
I0403 15:09:43.280112 18358 net.cpp:141] Setting up relu1
I0403 15:09:43.280140 18358 net.cpp:148] Top shape: 100 96 55 55 (29040000)
I0403 15:09:43.280155 18358 net.cpp:156] Memory required for data: 294156400
I0403 15:09:43.280201 18358 layer_factory.hpp:77] Creating layer norm1
I0403 15:09:43.280232 18358 net.cpp:91] Creating Layer norm1
I0403 15:09:43.280251 18358 net.cpp:425] norm1 <- conv1
I0403 15:09:43.280268 18358 net.cpp:399] norm1 -> norm1
I0403 15:09:43.280601 18358 net.cpp:141] Setting up norm1
I0403 15:09:43.280628 18358 net.cpp:148] Top shape: 100 96 55 55 (29040000)
I0403 15:09:43.280644 18358 net.cpp:156] Memory required for data: 410316400
I0403 15:09:43.280659 18358 layer_factory.hpp:77] Creating layer pool1
I0403 15:09:43.280685 18358 net.cpp:91] Creating Layer pool1
I0403 15:09:43.280704 18358 net.cpp:425] pool1 <- norm1
I0403 15:09:43.280721 18358 net.cpp:399] pool1 -> pool1
I0403 15:09:43.280794 18358 net.cpp:141] Setting up pool1
I0403 15:09:43.280818 18358 net.cpp:148] Top shape: 100 96 27 27 (6998400)
I0403 15:09:43.280833 18358 net.cpp:156] Memory required for data: 438310000
I0403 15:09:43.280848 18358 layer_factory.hpp:77] Creating layer conv2
I0403 15:09:43.280875 18358 net.cpp:91] Creating Layer conv2
I0403 15:09:43.280892 18358 net.cpp:425] conv2 <- pool1
I0403 15:09:43.280913 18358 net.cpp:399] conv2 -> conv2
I0403 15:09:43.296205 18358 net.cpp:141] Setting up conv2
I0403 15:09:43.296241 18358 net.cpp:148] Top shape: 100 256 27 27 (18662400)
I0403 15:09:43.296257 18358 net.cpp:156] Memory required for data: 512959600
I0403 15:09:43.296280 18358 layer_factory.hpp:77] Creating layer relu2
I0403 15:09:43.296301 18358 net.cpp:91] Creating Layer relu2
I0403 15:09:43.296317 18358 net.cpp:425] relu2 <- conv2
I0403 15:09:43.296334 18358 net.cpp:386] relu2 -> conv2 (in-place)
I0403 15:09:43.296614 18358 net.cpp:141] Setting up relu2
I0403 15:09:43.296644 18358 net.cpp:148] Top shape: 100 256 27 27 (18662400)
I0403 15:09:43.296660 18358 net.cpp:156] Memory required for data: 587609200
I0403 15:09:43.296675 18358 layer_factory.hpp:77] Creating layer norm2
I0403 15:09:43.296695 18358 net.cpp:91] Creating Layer norm2
I0403 15:09:43.296711 18358 net.cpp:425] norm2 <- conv2
I0403 15:09:43.296732 18358 net.cpp:399] norm2 -> norm2
I0403 15:09:43.296932 18358 net.cpp:141] Setting up norm2
I0403 15:09:43.296960 18358 net.cpp:148] Top shape: 100 256 27 27 (18662400)
I0403 15:09:43.296975 18358 net.cpp:156] Memory required for data: 662258800
I0403 15:09:43.296990 18358 layer_factory.hpp:77] Creating layer pool2
I0403 15:09:43.297010 18358 net.cpp:91] Creating Layer pool2
I0403 15:09:43.297046 18358 net.cpp:425] pool2 <- norm2
I0403 15:09:43.297066 18358 net.cpp:399] pool2 -> pool2
I0403 15:09:43.297122 18358 net.cpp:141] Setting up pool2
I0403 15:09:43.297148 18358 net.cpp:148] Top shape: 100 256 13 13 (4326400)
I0403 15:09:43.297163 18358 net.cpp:156] Memory required for data: 679564400
I0403 15:09:43.297179 18358 layer_factory.hpp:77] Creating layer conv3
I0403 15:09:43.297202 18358 net.cpp:91] Creating Layer conv3
I0403 15:09:43.297221 18358 net.cpp:425] conv3 <- pool2
I0403 15:09:43.297243 18358 net.cpp:399] conv3 -> conv3
I0403 15:09:43.341913 18358 net.cpp:141] Setting up conv3
I0403 15:09:43.341967 18358 net.cpp:148] Top shape: 100 384 13 13 (6489600)
I0403 15:09:43.341984 18358 net.cpp:156] Memory required for data: 705522800
I0403 15:09:43.342010 18358 layer_factory.hpp:77] Creating layer relu3
I0403 15:09:43.342042 18358 net.cpp:91] Creating Layer relu3
I0403 15:09:43.342064 18358 net.cpp:425] relu3 <- conv3
I0403 15:09:43.342085 18358 net.cpp:386] relu3 -> conv3 (in-place)
I0403 15:09:43.342377 18358 net.cpp:141] Setting up relu3
I0403 15:09:43.342406 18358 net.cpp:148] Top shape: 100 384 13 13 (6489600)
I0403 15:09:43.342422 18358 net.cpp:156] Memory required for data: 731481200
I0403 15:09:43.342437 18358 layer_factory.hpp:77] Creating layer conv4
I0403 15:09:43.342464 18358 net.cpp:91] Creating Layer conv4
I0403 15:09:43.342483 18358 net.cpp:425] conv4 <- conv3
I0403 15:09:43.342502 18358 net.cpp:399] conv4 -> conv4
I0403 15:09:43.372287 18358 net.cpp:141] Setting up conv4
I0403 15:09:43.372340 18358 net.cpp:148] Top shape: 100 384 13 13 (6489600)
I0403 15:09:43.372391 18358 net.cpp:156] Memory required for data: 757439600
I0403 15:09:43.372412 18358 layer_factory.hpp:77] Creating layer relu4
I0403 15:09:43.372434 18358 net.cpp:91] Creating Layer relu4
I0403 15:09:43.372452 18358 net.cpp:425] relu4 <- conv4
I0403 15:09:43.372472 18358 net.cpp:386] relu4 -> conv4 (in-place)
I0403 15:09:43.372761 18358 net.cpp:141] Setting up relu4
I0403 15:09:43.372789 18358 net.cpp:148] Top shape: 100 384 13 13 (6489600)
I0403 15:09:43.372805 18358 net.cpp:156] Memory required for data: 783398000
I0403 15:09:43.372820 18358 layer_factory.hpp:77] Creating layer conv5
I0403 15:09:43.372844 18358 net.cpp:91] Creating Layer conv5
I0403 15:09:43.372861 18358 net.cpp:425] conv5 <- conv4
I0403 15:09:43.372884 18358 net.cpp:399] conv5 -> conv5
I0403 15:09:43.393591 18358 net.cpp:141] Setting up conv5
I0403 15:09:43.393633 18358 net.cpp:148] Top shape: 100 256 13 13 (4326400)
I0403 15:09:43.393649 18358 net.cpp:156] Memory required for data: 800703600
I0403 15:09:43.393676 18358 layer_factory.hpp:77] Creating layer relu5
I0403 15:09:43.393697 18358 net.cpp:91] Creating Layer relu5
I0403 15:09:43.393712 18358 net.cpp:425] relu5 <- conv5
I0403 15:09:43.393729 18358 net.cpp:386] relu5 -> conv5 (in-place)
I0403 15:09:43.394027 18358 net.cpp:141] Setting up relu5
I0403 15:09:43.394057 18358 net.cpp:148] Top shape: 100 256 13 13 (4326400)
I0403 15:09:43.394075 18358 net.cpp:156] Memory required for data: 818009200
I0403 15:09:43.394091 18358 layer_factory.hpp:77] Creating layer pool5
I0403 15:09:43.394114 18358 net.cpp:91] Creating Layer pool5
I0403 15:09:43.394130 18358 net.cpp:425] pool5 <- conv5
I0403 15:09:43.394148 18358 net.cpp:399] pool5 -> pool5
I0403 15:09:43.394213 18358 net.cpp:141] Setting up pool5
I0403 15:09:43.394238 18358 net.cpp:148] Top shape: 100 256 6 6 (921600)
I0403 15:09:43.394254 18358 net.cpp:156] Memory required for data: 821695600
I0403 15:09:43.394269 18358 layer_factory.hpp:77] Creating layer fc6
I0403 15:09:43.394299 18358 net.cpp:91] Creating Layer fc6
I0403 15:09:43.394317 18358 net.cpp:425] fc6 <- pool5
I0403 15:09:43.394338 18358 net.cpp:399] fc6 -> fc6
I0403 15:09:44.940713 18358 net.cpp:141] Setting up fc6
I0403 15:09:44.940757 18358 net.cpp:148] Top shape: 100 4096 (409600)
I0403 15:09:44.940773 18358 net.cpp:156] Memory required for data: 823334000
I0403 15:09:44.940793 18358 layer_factory.hpp:77] Creating layer relu6
I0403 15:09:44.940814 18358 net.cpp:91] Creating Layer relu6
I0403 15:09:44.940830 18358 net.cpp:425] relu6 <- fc6
I0403 15:09:44.940852 18358 net.cpp:386] relu6 -> fc6 (in-place)
I0403 15:09:44.941071 18358 net.cpp:141] Setting up relu6
I0403 15:09:44.941097 18358 net.cpp:148] Top shape: 100 4096 (409600)
I0403 15:09:44.941110 18358 net.cpp:156] Memory required for data: 824972400
I0403 15:09:44.941125 18358 layer_factory.hpp:77] Creating layer drop6
I0403 15:09:44.941146 18358 net.cpp:91] Creating Layer drop6
I0403 15:09:44.941162 18358 net.cpp:425] drop6 <- fc6
I0403 15:09:44.941179 18358 net.cpp:386] drop6 -> fc6 (in-place)
I0403 15:09:44.941231 18358 net.cpp:141] Setting up drop6
I0403 15:09:44.941254 18358 net.cpp:148] Top shape: 100 4096 (409600)
I0403 15:09:44.941269 18358 net.cpp:156] Memory required for data: 826610800
I0403 15:09:44.941283 18358 layer_factory.hpp:77] Creating layer fc7
I0403 15:09:44.941305 18358 net.cpp:91] Creating Layer fc7
I0403 15:09:44.941323 18358 net.cpp:425] fc7 <- fc6
I0403 15:09:44.941340 18358 net.cpp:399] fc7 -> fc7
I0403 15:09:45.619168 18358 net.cpp:141] Setting up fc7
I0403 15:09:45.619210 18358 net.cpp:148] Top shape: 100 4096 (409600)
I0403 15:09:45.619226 18358 net.cpp:156] Memory required for data: 828249200
I0403 15:09:45.619247 18358 layer_factory.hpp:77] Creating layer relu7
I0403 15:09:45.619273 18358 net.cpp:91] Creating Layer relu7
I0403 15:09:45.619292 18358 net.cpp:425] relu7 <- fc7
I0403 15:09:45.619310 18358 net.cpp:386] relu7 -> fc7 (in-place)
I0403 15:09:45.619717 18358 net.cpp:141] Setting up relu7
I0403 15:09:45.619743 18358 net.cpp:148] Top shape: 100 4096 (409600)
I0403 15:09:45.619791 18358 net.cpp:156] Memory required for data: 829887600
I0403 15:09:45.619807 18358 layer_factory.hpp:77] Creating layer drop7
I0403 15:09:45.619827 18358 net.cpp:91] Creating Layer drop7
I0403 15:09:45.619843 18358 net.cpp:425] drop7 <- fc7
I0403 15:09:45.619859 18358 net.cpp:386] drop7 -> fc7 (in-place)
I0403 15:09:45.619904 18358 net.cpp:141] Setting up drop7
I0403 15:09:45.619926 18358 net.cpp:148] Top shape: 100 4096 (409600)
I0403 15:09:45.619940 18358 net.cpp:156] Memory required for data: 831526000
I0403 15:09:45.619954 18358 layer_factory.hpp:77] Creating layer fc8_plantvillage
I0403 15:09:45.619973 18358 net.cpp:91] Creating Layer fc8_plantvillage
I0403 15:09:45.619989 18358 net.cpp:425] fc8_plantvillage <- fc7
I0403 15:09:45.620009 18358 net.cpp:399] fc8_plantvillage -> fc8_plantvillage
I0403 15:09:45.626633 18358 net.cpp:141] Setting up fc8_plantvillage
I0403 15:09:45.626663 18358 net.cpp:148] Top shape: 100 38 (3800)
I0403 15:09:45.626678 18358 net.cpp:156] Memory required for data: 831541200
I0403 15:09:45.626696 18358 layer_factory.hpp:77] Creating layer fc8_plantvillage_fc8_plantvillage_0_split
I0403 15:09:45.626713 18358 net.cpp:91] Creating Layer fc8_plantvillage_fc8_plantvillage_0_split
I0403 15:09:45.626729 18358 net.cpp:425] fc8_plantvillage_fc8_plantvillage_0_split <- fc8_plantvillage
I0403 15:09:45.626745 18358 net.cpp:399] fc8_plantvillage_fc8_plantvillage_0_split -> fc8_plantvillage_fc8_plantvillage_0_split_0
I0403 15:09:45.626763 18358 net.cpp:399] fc8_plantvillage_fc8_plantvillage_0_split -> fc8_plantvillage_fc8_plantvillage_0_split_1
I0403 15:09:45.626782 18358 net.cpp:399] fc8_plantvillage_fc8_plantvillage_0_split -> fc8_plantvillage_fc8_plantvillage_0_split_2
I0403 15:09:45.626857 18358 net.cpp:141] Setting up fc8_plantvillage_fc8_plantvillage_0_split
I0403 15:09:45.626879 18358 net.cpp:148] Top shape: 100 38 (3800)
I0403 15:09:45.626895 18358 net.cpp:148] Top shape: 100 38 (3800)
I0403 15:09:45.626909 18358 net.cpp:148] Top shape: 100 38 (3800)
I0403 15:09:45.626922 18358 net.cpp:156] Memory required for data: 831586800
I0403 15:09:45.626936 18358 layer_factory.hpp:77] Creating layer prob
I0403 15:09:45.626953 18358 net.cpp:91] Creating Layer prob
I0403 15:09:45.626968 18358 net.cpp:425] prob <- fc8_plantvillage_fc8_plantvillage_0_split_0
I0403 15:09:45.626986 18358 net.cpp:399] prob -> prob
I0403 15:09:45.627209 18358 net.cpp:141] Setting up prob
I0403 15:09:45.627234 18358 net.cpp:148] Top shape: 100 38 (3800)
I0403 15:09:45.627249 18358 net.cpp:156] Memory required for data: 831602000
I0403 15:09:45.627262 18358 layer_factory.hpp:77] Creating layer hdf5out
I0403 15:09:45.627284 18358 net.cpp:91] Creating Layer hdf5out
I0403 15:09:45.627300 18358 net.cpp:425] hdf5out <- prob
I0403 15:09:45.627315 18358 net.cpp:425] hdf5out <- label_data_1_split_0
I0403 15:09:45.629621 18358 net.cpp:141] Setting up hdf5out
…
