…
I0403 15:04:15.992527 18183 net.cpp:313] The NetState phase (1) differed from the phase (0) specified by a rule in layer data
I0403 15:04:15.992822 18183 net.cpp:49] Initializing net from parameters: 
state {
  phase: TEST
}
layer {
  name: "data"
  type: "Data"
  top: "data"
  top: "label"
  include {
    phase: TEST
  }
  transform_param {
    crop_size: 227
    mean_file: "/home/mohanty/data/final_dataset/lmdb/color-80-20/mean.binaryproto"
  }
  data_param {
    source: "/home/mohanty/data/final_dataset/lmdb/color-80-20/test_db"
    batch_size: 100
    backend: LMDB
  }
}
layer {
  name: "conv1"
  type: "Convolution"
  bottom: "data"
  top: "conv1"
  param {
    lr_mult: 1
    decay_mult: 1
  }
  param {
    lr_mult: 2
    decay_mult: 0
  }
  convolution_param {
    num_output: 96
    kernel_size: 11
    stride: 4
    weight_filler {
      type: "gaussian"
      std: 0.01
    }
    bias_filler {
      type: "constant"
      value: 0
    }
  }
}
layer {
  name: "relu1"
  type: "ReLU"
  bottom: "conv1"
  top: "conv1"
}
layer {
  name: "norm1"
  type: "LRN"
  bottom: "conv1"
  top: "norm1"
  lrn_param {
    local_size: 5
    alpha: 0.0001
    beta: 0.75
  }
}
layer {
  name: "pool1"
  type: "Pooling"
  bottom: "norm1"
  top: "pool1"
  pooling_param {
    pool: MAX
    kernel_size: 3
    stride: 2
  }
}
layer {
  name: "conv2"
  type: "Convolution"
  bottom: "pool1"
  top: "conv2"
  param {
    lr_mult: 1
    decay_mult: 1
  }
  param {
    lr_mult: 2
    decay_mult: 0
  }
  convolution_param {
    num_output: 256
    pad: 2
    kernel_size: 5
    group: 2
    weight_filler {
      type: "gaussian"
      std: 0.01
    }
    bias_filler {
      type: "constant"
      value: 0.1
    }
  }
}
layer {
  name: "relu2"
  type: "ReLU"
  bottom: "conv2"
  top: "conv2"
}
layer {
  name: "norm2"
  type: "LRN"
  bottom: "conv2"
  top: "norm2"
  lrn_param {
    local_size: 5
    alpha: 0.0001
    beta: 0.75
  }
}
layer {
  name: "pool2"
  type: "Pooling"
  bottom: "norm2"
  top: "pool2"
  pooling_param {
    pool: MAX
    kernel_size: 3
    stride: 2
  }
}
layer {
  name: "conv3"
  type: "Convolution"
  bottom: "pool2"
  top: "conv3"
  param {
    lr_mult: 1
    decay_mult: 1
  }
  param {
    lr_mult: 2
    decay_mult: 0
  }
  convolution_param {
    num_output: 384
    pad: 1
    kernel_size: 3
    weight_filler {
      type: "gaussian"
      std: 0.01
    }
    bias_filler {
      type: "constant"
      value: 0
    }
  }
}
layer {
  name: "relu3"
  type: "ReLU"
  bottom: "conv3"
  top: "conv3"
}
layer {
  name: "conv4"
  type: "Convolution"
  bottom: "conv3"
  top: "conv4"
  param {
    lr_mult: 1
    decay_mult: 1
  }
  param {
    lr_mult: 2
    decay_mult: 0
  }
  convolution_param {
    num_output: 384
    pad: 1
    kernel_size: 3
    group: 2
    weight_filler {
      type: "gaussian"
      std: 0.01
    }
    bias_filler {
      type: "constant"
      value: 0.1
    }
  }
}
layer {
  name: "relu4"
  type: "ReLU"
  bottom: "conv4"
  top: "conv4"
}
layer {
  name: "conv5"
  type: "Convolution"
  bottom: "conv4"
  top: "conv5"
  param {
    lr_mult: 1
    decay_mult: 1
  }
  param {
    lr_mult: 2
    decay_mult: 0
  }
  convolution_param {
    num_output: 256
    pad: 1
    kernel_size: 3
    group: 2
    weight_filler {
      type: "gaussian"
      std: 0.01
    }
    bias_filler {
      type: "constant"
      value: 0.1
    }
  }
}
layer {
  name: "relu5"
  type: "ReLU"
  bottom: "conv5"
  top: "conv5"
}
layer {
  name: "pool5"
  type: "Pooling"
  bottom: "conv5"
  top: "pool5"
  pooling_param {
    pool: MAX
    kernel_size: 3
    stride: 2
  }
}
layer {
  name: "fc6"
  type: "InnerProduct"
  bottom: "pool5"
  top: "fc6"
  param {
    lr_mult: 1
    decay_mult: 1
  }
  param {
    lr_mult: 2
    decay_mult: 0
  }
  inner_product_param {
    num_output: 4096
    weight_filler {
      type: "gaussian"
      std: 0.005
    }
    bias_filler {
      type: "constant"
      value: 0.1
    }
  }
}
layer {
  name: "relu6"
  type: "ReLU"
  bottom: "fc6"
  top: "fc6"
}
layer {
  name: "drop6"
  type: "Dropout"
  bottom: "fc6"
  top: "fc6"
  dropout_param {
    dropout_ratio: 0.5
  }
}
layer {
  name: "fc7"
  type: "InnerProduct"
  bottom: "fc6"
  top: "fc7"
  param {
    lr_mult: 1
    decay_mult: 1
  }
  param {
    lr_mult: 2
    decay_mult: 0
  }
  inner_product_param {
    num_output: 4096
    weight_filler {
      type: "gaussian"
      std: 0.005
    }
    bias_filler {
      type: "constant"
      value: 0.1
    }
  }
}
layer {
  name: "relu7"
  type: "ReLU"
  bottom: "fc7"
  top: "fc7"
}
layer {
  name: "drop7"
  type: "Dropout"
  bottom: "fc7"
  top: "fc7"
  dropout_param {
    dropout_ratio: 0.5
  }
}
layer {
  name: "fc8_plantvillage"
  type: "InnerProduct"
  bottom: "fc7"
  top: "fc8_plantvillage"
  param {
    lr_mult: 1
    decay_mult: 1
  }
  param {
    lr_mult: 2
    decay_mult: 0
  }
  inner_product_param {
    num_output: 38
    weight_filler {
      type: "gaussian"
      std: 0.01
    }
    bias_filler {
      type: "constant"
      value: 0
    }
  }
}
layer {
  name: "prob"
  type: "Softmax"
  bottom: "fc8_plantvillage"
  top: "prob"
  include {
    phase: TEST
  }
}
layer {
  name: "hdf5out"
  type: "HDF5Output"
  bottom: "prob"
  bottom: "label"
  include {
    phase: TEST
  }
  hdf5_output_param {
    file_name: "hdf5_dumps/iter_4370.h5"
  }
}
layer {
  name: "loss"
  type: "SoftmaxWithLoss"
  bottom: "fc8_plantvillage"
  bottom: "label"
  top: "loss"
}
layer {
  name: "accuracy"
  type: "Accuracy"
  bottom: "fc8_plantvillage"
  bottom: "label"
  top: "accuracy"
  include {
    phase: TEST
  }
}
I0403 15:04:15.993376 18183 layer_factory.hpp:77] Creating layer data
I0403 15:04:15.994031 18183 net.cpp:91] Creating Layer data
I0403 15:04:15.994070 18183 net.cpp:399] data -> data
I0403 15:04:15.994122 18183 net.cpp:399] data -> label
I0403 15:04:15.994160 18183 data_transformer.cpp:25] Loading mean file from: /home/mohanty/data/final_dataset/lmdb/color-80-20/mean.binaryproto
I0403 15:04:15.996747 18188 db_lmdb.cpp:38] Opened lmdb /home/mohanty/data/final_dataset/lmdb/color-80-20/test_db
I0403 15:04:16.008899 18183 data_layer.cpp:41] output data size: 100,3,227,227
I0403 15:04:16.128749 18183 net.cpp:141] Setting up data
I0403 15:04:16.128854 18183 net.cpp:148] Top shape: 100 3 227 227 (15458700)
I0403 15:04:16.128876 18183 net.cpp:148] Top shape: 100 (100)
I0403 15:04:16.128890 18183 net.cpp:156] Memory required for data: 61835200
I0403 15:04:16.128916 18183 layer_factory.hpp:77] Creating layer label_data_1_split
I0403 15:04:16.128940 18183 net.cpp:91] Creating Layer label_data_1_split
I0403 15:04:16.128958 18183 net.cpp:425] label_data_1_split <- label
I0403 15:04:16.128989 18183 net.cpp:399] label_data_1_split -> label_data_1_split_0
I0403 15:04:16.129016 18183 net.cpp:399] label_data_1_split -> label_data_1_split_1
I0403 15:04:16.129037 18183 net.cpp:399] label_data_1_split -> label_data_1_split_2
I0403 15:04:16.129102 18183 net.cpp:141] Setting up label_data_1_split
I0403 15:04:16.129127 18183 net.cpp:148] Top shape: 100 (100)
I0403 15:04:16.129142 18183 net.cpp:148] Top shape: 100 (100)
I0403 15:04:16.129158 18183 net.cpp:148] Top shape: 100 (100)
I0403 15:04:16.129170 18183 net.cpp:156] Memory required for data: 61836400
I0403 15:04:16.129184 18183 layer_factory.hpp:77] Creating layer conv1
I0403 15:04:16.129215 18183 net.cpp:91] Creating Layer conv1
I0403 15:04:16.129235 18183 net.cpp:425] conv1 <- data
I0403 15:04:16.129266 18183 net.cpp:399] conv1 -> conv1
I0403 15:04:16.274652 18183 net.cpp:141] Setting up conv1
I0403 15:04:16.274741 18183 net.cpp:148] Top shape: 100 96 55 55 (29040000)
I0403 15:04:16.274758 18183 net.cpp:156] Memory required for data: 177996400
I0403 15:04:16.274790 18183 layer_factory.hpp:77] Creating layer relu1
I0403 15:04:16.274816 18183 net.cpp:91] Creating Layer relu1
I0403 15:04:16.274835 18183 net.cpp:425] relu1 <- conv1
I0403 15:04:16.274855 18183 net.cpp:386] relu1 -> conv1 (in-place)
I0403 15:04:16.275120 18183 net.cpp:141] Setting up relu1
I0403 15:04:16.275148 18183 net.cpp:148] Top shape: 100 96 55 55 (29040000)
I0403 15:04:16.275163 18183 net.cpp:156] Memory required for data: 294156400
I0403 15:04:16.275210 18183 layer_factory.hpp:77] Creating layer norm1
I0403 15:04:16.275240 18183 net.cpp:91] Creating Layer norm1
I0403 15:04:16.275259 18183 net.cpp:425] norm1 <- conv1
I0403 15:04:16.275276 18183 net.cpp:399] norm1 -> norm1
I0403 15:04:16.275585 18183 net.cpp:141] Setting up norm1
I0403 15:04:16.275614 18183 net.cpp:148] Top shape: 100 96 55 55 (29040000)
I0403 15:04:16.275629 18183 net.cpp:156] Memory required for data: 410316400
I0403 15:04:16.275645 18183 layer_factory.hpp:77] Creating layer pool1
I0403 15:04:16.275667 18183 net.cpp:91] Creating Layer pool1
I0403 15:04:16.275686 18183 net.cpp:425] pool1 <- norm1
I0403 15:04:16.275703 18183 net.cpp:399] pool1 -> pool1
I0403 15:04:16.275771 18183 net.cpp:141] Setting up pool1
I0403 15:04:16.275796 18183 net.cpp:148] Top shape: 100 96 27 27 (6998400)
I0403 15:04:16.275811 18183 net.cpp:156] Memory required for data: 438310000
I0403 15:04:16.275826 18183 layer_factory.hpp:77] Creating layer conv2
I0403 15:04:16.275851 18183 net.cpp:91] Creating Layer conv2
I0403 15:04:16.275868 18183 net.cpp:425] conv2 <- pool1
I0403 15:04:16.275887 18183 net.cpp:399] conv2 -> conv2
I0403 15:04:16.291117 18183 net.cpp:141] Setting up conv2
I0403 15:04:16.291177 18183 net.cpp:148] Top shape: 100 256 27 27 (18662400)
I0403 15:04:16.291193 18183 net.cpp:156] Memory required for data: 512959600
I0403 15:04:16.291215 18183 layer_factory.hpp:77] Creating layer relu2
I0403 15:04:16.291236 18183 net.cpp:91] Creating Layer relu2
I0403 15:04:16.291254 18183 net.cpp:425] relu2 <- conv2
I0403 15:04:16.291272 18183 net.cpp:386] relu2 -> conv2 (in-place)
I0403 15:04:16.291538 18183 net.cpp:141] Setting up relu2
I0403 15:04:16.291565 18183 net.cpp:148] Top shape: 100 256 27 27 (18662400)
I0403 15:04:16.291580 18183 net.cpp:156] Memory required for data: 587609200
I0403 15:04:16.291595 18183 layer_factory.hpp:77] Creating layer norm2
I0403 15:04:16.291616 18183 net.cpp:91] Creating Layer norm2
I0403 15:04:16.291633 18183 net.cpp:425] norm2 <- conv2
I0403 15:04:16.291653 18183 net.cpp:399] norm2 -> norm2
I0403 15:04:16.291880 18183 net.cpp:141] Setting up norm2
I0403 15:04:16.291908 18183 net.cpp:148] Top shape: 100 256 27 27 (18662400)
I0403 15:04:16.291923 18183 net.cpp:156] Memory required for data: 662258800
I0403 15:04:16.291937 18183 layer_factory.hpp:77] Creating layer pool2
I0403 15:04:16.291956 18183 net.cpp:91] Creating Layer pool2
I0403 15:04:16.291971 18183 net.cpp:425] pool2 <- norm2
I0403 15:04:16.291990 18183 net.cpp:399] pool2 -> pool2
I0403 15:04:16.292040 18183 net.cpp:141] Setting up pool2
I0403 15:04:16.292068 18183 net.cpp:148] Top shape: 100 256 13 13 (4326400)
I0403 15:04:16.292083 18183 net.cpp:156] Memory required for data: 679564400
I0403 15:04:16.292098 18183 layer_factory.hpp:77] Creating layer conv3
I0403 15:04:16.292120 18183 net.cpp:91] Creating Layer conv3
I0403 15:04:16.292138 18183 net.cpp:425] conv3 <- pool2
I0403 15:04:16.292156 18183 net.cpp:399] conv3 -> conv3
I0403 15:04:16.331624 18183 net.cpp:141] Setting up conv3
I0403 15:04:16.331693 18183 net.cpp:148] Top shape: 100 384 13 13 (6489600)
I0403 15:04:16.331708 18183 net.cpp:156] Memory required for data: 705522800
I0403 15:04:16.331732 18183 layer_factory.hpp:77] Creating layer relu3
I0403 15:04:16.331753 18183 net.cpp:91] Creating Layer relu3
I0403 15:04:16.331769 18183 net.cpp:425] relu3 <- conv3
I0403 15:04:16.331790 18183 net.cpp:386] relu3 -> conv3 (in-place)
I0403 15:04:16.332072 18183 net.cpp:141] Setting up relu3
I0403 15:04:16.332099 18183 net.cpp:148] Top shape: 100 384 13 13 (6489600)
I0403 15:04:16.332114 18183 net.cpp:156] Memory required for data: 731481200
I0403 15:04:16.332129 18183 layer_factory.hpp:77] Creating layer conv4
I0403 15:04:16.332154 18183 net.cpp:91] Creating Layer conv4
I0403 15:04:16.332171 18183 net.cpp:425] conv4 <- conv3
I0403 15:04:16.332192 18183 net.cpp:399] conv4 -> conv4
I0403 15:04:16.362145 18183 net.cpp:141] Setting up conv4
I0403 15:04:16.362203 18183 net.cpp:148] Top shape: 100 384 13 13 (6489600)
I0403 15:04:16.362241 18183 net.cpp:156] Memory required for data: 757439600
I0403 15:04:16.362263 18183 layer_factory.hpp:77] Creating layer relu4
I0403 15:04:16.362284 18183 net.cpp:91] Creating Layer relu4
I0403 15:04:16.362301 18183 net.cpp:425] relu4 <- conv4
I0403 15:04:16.362323 18183 net.cpp:386] relu4 -> conv4 (in-place)
I0403 15:04:16.362610 18183 net.cpp:141] Setting up relu4
I0403 15:04:16.362640 18183 net.cpp:148] Top shape: 100 384 13 13 (6489600)
I0403 15:04:16.362656 18183 net.cpp:156] Memory required for data: 783398000
I0403 15:04:16.362673 18183 layer_factory.hpp:77] Creating layer conv5
I0403 15:04:16.362697 18183 net.cpp:91] Creating Layer conv5
I0403 15:04:16.362716 18183 net.cpp:425] conv5 <- conv4
I0403 15:04:16.362736 18183 net.cpp:399] conv5 -> conv5
I0403 15:04:16.383678 18183 net.cpp:141] Setting up conv5
I0403 15:04:16.383744 18183 net.cpp:148] Top shape: 100 256 13 13 (4326400)
I0403 15:04:16.383761 18183 net.cpp:156] Memory required for data: 800703600
I0403 15:04:16.383786 18183 layer_factory.hpp:77] Creating layer relu5
I0403 15:04:16.383807 18183 net.cpp:91] Creating Layer relu5
I0403 15:04:16.383824 18183 net.cpp:425] relu5 <- conv5
I0403 15:04:16.383846 18183 net.cpp:386] relu5 -> conv5 (in-place)
I0403 15:04:16.384137 18183 net.cpp:141] Setting up relu5
I0403 15:04:16.384165 18183 net.cpp:148] Top shape: 100 256 13 13 (4326400)
I0403 15:04:16.384179 18183 net.cpp:156] Memory required for data: 818009200
I0403 15:04:16.384194 18183 layer_factory.hpp:77] Creating layer pool5
I0403 15:04:16.384219 18183 net.cpp:91] Creating Layer pool5
I0403 15:04:16.384238 18183 net.cpp:425] pool5 <- conv5
I0403 15:04:16.384255 18183 net.cpp:399] pool5 -> pool5
I0403 15:04:16.384320 18183 net.cpp:141] Setting up pool5
I0403 15:04:16.384343 18183 net.cpp:148] Top shape: 100 256 6 6 (921600)
I0403 15:04:16.384358 18183 net.cpp:156] Memory required for data: 821695600
I0403 15:04:16.384373 18183 layer_factory.hpp:77] Creating layer fc6
I0403 15:04:16.384400 18183 net.cpp:91] Creating Layer fc6
I0403 15:04:16.384418 18183 net.cpp:425] fc6 <- pool5
I0403 15:04:16.384439 18183 net.cpp:399] fc6 -> fc6
I0403 15:04:17.954633 18183 net.cpp:141] Setting up fc6
I0403 15:04:17.954725 18183 net.cpp:148] Top shape: 100 4096 (409600)
I0403 15:04:17.954741 18183 net.cpp:156] Memory required for data: 823334000
I0403 15:04:17.954762 18183 layer_factory.hpp:77] Creating layer relu6
I0403 15:04:17.954784 18183 net.cpp:91] Creating Layer relu6
I0403 15:04:17.954802 18183 net.cpp:425] relu6 <- fc6
I0403 15:04:17.954823 18183 net.cpp:386] relu6 -> fc6 (in-place)
I0403 15:04:17.955060 18183 net.cpp:141] Setting up relu6
I0403 15:04:17.955086 18183 net.cpp:148] Top shape: 100 4096 (409600)
I0403 15:04:17.955101 18183 net.cpp:156] Memory required for data: 824972400
I0403 15:04:17.955116 18183 layer_factory.hpp:77] Creating layer drop6
I0403 15:04:17.955133 18183 net.cpp:91] Creating Layer drop6
I0403 15:04:17.955149 18183 net.cpp:425] drop6 <- fc6
I0403 15:04:17.955168 18183 net.cpp:386] drop6 -> fc6 (in-place)
I0403 15:04:17.955219 18183 net.cpp:141] Setting up drop6
I0403 15:04:17.955241 18183 net.cpp:148] Top shape: 100 4096 (409600)
I0403 15:04:17.955255 18183 net.cpp:156] Memory required for data: 826610800
I0403 15:04:17.955270 18183 layer_factory.hpp:77] Creating layer fc7
I0403 15:04:17.955296 18183 net.cpp:91] Creating Layer fc7
I0403 15:04:17.955313 18183 net.cpp:425] fc7 <- fc6
I0403 15:04:17.955334 18183 net.cpp:399] fc7 -> fc7
I0403 15:04:18.647629 18183 net.cpp:141] Setting up fc7
I0403 15:04:18.647707 18183 net.cpp:148] Top shape: 100 4096 (409600)
I0403 15:04:18.647722 18183 net.cpp:156] Memory required for data: 828249200
I0403 15:04:18.647742 18183 layer_factory.hpp:77] Creating layer relu7
I0403 15:04:18.647761 18183 net.cpp:91] Creating Layer relu7
I0403 15:04:18.647778 18183 net.cpp:425] relu7 <- fc7
I0403 15:04:18.647799 18183 net.cpp:386] relu7 -> fc7 (in-place)
I0403 15:04:18.648214 18183 net.cpp:141] Setting up relu7
I0403 15:04:18.648241 18183 net.cpp:148] Top shape: 100 4096 (409600)
I0403 15:04:18.648286 18183 net.cpp:156] Memory required for data: 829887600
I0403 15:04:18.648301 18183 layer_factory.hpp:77] Creating layer drop7
I0403 15:04:18.648319 18183 net.cpp:91] Creating Layer drop7
I0403 15:04:18.648334 18183 net.cpp:425] drop7 <- fc7
I0403 15:04:18.648353 18183 net.cpp:386] drop7 -> fc7 (in-place)
I0403 15:04:18.648396 18183 net.cpp:141] Setting up drop7
I0403 15:04:18.648421 18183 net.cpp:148] Top shape: 100 4096 (409600)
I0403 15:04:18.648434 18183 net.cpp:156] Memory required for data: 831526000
I0403 15:04:18.648448 18183 layer_factory.hpp:77] Creating layer fc8_plantvillage
I0403 15:04:18.648468 18183 net.cpp:91] Creating Layer fc8_plantvillage
I0403 15:04:18.648483 18183 net.cpp:425] fc8_plantvillage <- fc7
I0403 15:04:18.648504 18183 net.cpp:399] fc8_plantvillage -> fc8_plantvillage
I0403 15:04:18.655066 18183 net.cpp:141] Setting up fc8_plantvillage
I0403 15:04:18.655094 18183 net.cpp:148] Top shape: 100 38 (3800)
I0403 15:04:18.655108 18183 net.cpp:156] Memory required for data: 831541200
I0403 15:04:18.655125 18183 layer_factory.hpp:77] Creating layer fc8_plantvillage_fc8_plantvillage_0_split
I0403 15:04:18.655143 18183 net.cpp:91] Creating Layer fc8_plantvillage_fc8_plantvillage_0_split
I0403 15:04:18.655158 18183 net.cpp:425] fc8_plantvillage_fc8_plantvillage_0_split <- fc8_plantvillage
I0403 15:04:18.655177 18183 net.cpp:399] fc8_plantvillage_fc8_plantvillage_0_split -> fc8_plantvillage_fc8_plantvillage_0_split_0
I0403 15:04:18.655199 18183 net.cpp:399] fc8_plantvillage_fc8_plantvillage_0_split -> fc8_plantvillage_fc8_plantvillage_0_split_1
I0403 15:04:18.655218 18183 net.cpp:399] fc8_plantvillage_fc8_plantvillage_0_split -> fc8_plantvillage_fc8_plantvillage_0_split_2
I0403 15:04:18.655294 18183 net.cpp:141] Setting up fc8_plantvillage_fc8_plantvillage_0_split
I0403 15:04:18.655320 18183 net.cpp:148] Top shape: 100 38 (3800)
I0403 15:04:18.655336 18183 net.cpp:148] Top shape: 100 38 (3800)
I0403 15:04:18.655352 18183 net.cpp:148] Top shape: 100 38 (3800)
I0403 15:04:18.655365 18183 net.cpp:156] Memory required for data: 831586800
I0403 15:04:18.655380 18183 layer_factory.hpp:77] Creating layer prob
I0403 15:04:18.655396 18183 net.cpp:91] Creating Layer prob
I0403 15:04:18.655411 18183 net.cpp:425] prob <- fc8_plantvillage_fc8_plantvillage_0_split_0
I0403 15:04:18.655429 18183 net.cpp:399] prob -> prob
I0403 15:04:18.655647 18183 net.cpp:141] Setting up prob
I0403 15:04:18.655673 18183 net.cpp:148] Top shape: 100 38 (3800)
I0403 15:04:18.655686 18183 net.cpp:156] Memory required for data: 831602000
I0403 15:04:18.655700 18183 layer_factory.hpp:77] Creating layer hdf5out
I0403 15:04:18.655719 18183 net.cpp:91] Creating Layer hdf5out
I0403 15:04:18.655733 18183 net.cpp:425] hdf5out <- prob
I0403 15:04:18.655748 18183 net.cpp:425] hdf5out <- label_data_1_split_0
I0403 15:04:18.657933 18183 net.cpp:141] Setting up hdf5out
…
