…
I0403 15:05:56.662552 18244 net.cpp:313] The NetState phase (1) differed from the phase (0) specified by a rule in layer data
I0403 15:05:56.662866 18244 net.cpp:49] Initializing net from parameters: 
state {
  phase: TEST
}
layer {
  name: "data"
  type: "Data"
  top: "data"
  top: "label"
  include {
    phase: TEST
  }
  transform_param {
    crop_size: 227
    mean_file: "/home/mohanty/data/final_dataset/lmdb/color-80-20/mean.binaryproto"
  }
  data_param {
    source: "/home/mohanty/data/final_dataset/lmdb/color-80-20/test_db"
    batch_size: 100
    backend: LMDB
  }
}
layer {
  name: "conv1"
  type: "Convolution"
  bottom: "data"
  top: "conv1"
  param {
    lr_mult: 1
    decay_mult: 1
  }
  param {
    lr_mult: 2
    decay_mult: 0
  }
  convolution_param {
    num_output: 96
    kernel_size: 11
    stride: 4
    weight_filler {
      type: "gaussian"
      std: 0.01
    }
    bias_filler {
      type: "constant"
      value: 0
    }
  }
}
layer {
  name: "relu1"
  type: "ReLU"
  bottom: "conv1"
  top: "conv1"
}
layer {
  name: "norm1"
  type: "LRN"
  bottom: "conv1"
  top: "norm1"
  lrn_param {
    local_size: 5
    alpha: 0.0001
    beta: 0.75
  }
}
layer {
  name: "pool1"
  type: "Pooling"
  bottom: "norm1"
  top: "pool1"
  pooling_param {
    pool: MAX
    kernel_size: 3
    stride: 2
  }
}
layer {
  name: "conv2"
  type: "Convolution"
  bottom: "pool1"
  top: "conv2"
  param {
    lr_mult: 1
    decay_mult: 1
  }
  param {
    lr_mult: 2
    decay_mult: 0
  }
  convolution_param {
    num_output: 256
    pad: 2
    kernel_size: 5
    group: 2
    weight_filler {
      type: "gaussian"
      std: 0.01
    }
    bias_filler {
      type: "constant"
      value: 0.1
    }
  }
}
layer {
  name: "relu2"
  type: "ReLU"
  bottom: "conv2"
  top: "conv2"
}
layer {
  name: "norm2"
  type: "LRN"
  bottom: "conv2"
  top: "norm2"
  lrn_param {
    local_size: 5
    alpha: 0.0001
    beta: 0.75
  }
}
layer {
  name: "pool2"
  type: "Pooling"
  bottom: "norm2"
  top: "pool2"
  pooling_param {
    pool: MAX
    kernel_size: 3
    stride: 2
  }
}
layer {
  name: "conv3"
  type: "Convolution"
  bottom: "pool2"
  top: "conv3"
  param {
    lr_mult: 1
    decay_mult: 1
  }
  param {
    lr_mult: 2
    decay_mult: 0
  }
  convolution_param {
    num_output: 384
    pad: 1
    kernel_size: 3
    weight_filler {
      type: "gaussian"
      std: 0.01
    }
    bias_filler {
      type: "constant"
      value: 0
    }
  }
}
layer {
  name: "relu3"
  type: "ReLU"
  bottom: "conv3"
  top: "conv3"
}
layer {
  name: "conv4"
  type: "Convolution"
  bottom: "conv3"
  top: "conv4"
  param {
    lr_mult: 1
    decay_mult: 1
  }
  param {
    lr_mult: 2
    decay_mult: 0
  }
  convolution_param {
    num_output: 384
    pad: 1
    kernel_size: 3
    group: 2
    weight_filler {
      type: "gaussian"
      std: 0.01
    }
    bias_filler {
      type: "constant"
      value: 0.1
    }
  }
}
layer {
  name: "relu4"
  type: "ReLU"
  bottom: "conv4"
  top: "conv4"
}
layer {
  name: "conv5"
  type: "Convolution"
  bottom: "conv4"
  top: "conv5"
  param {
    lr_mult: 1
    decay_mult: 1
  }
  param {
    lr_mult: 2
    decay_mult: 0
  }
  convolution_param {
    num_output: 256
    pad: 1
    kernel_size: 3
    group: 2
    weight_filler {
      type: "gaussian"
      std: 0.01
    }
    bias_filler {
      type: "constant"
      value: 0.1
    }
  }
}
layer {
  name: "relu5"
  type: "ReLU"
  bottom: "conv5"
  top: "conv5"
}
layer {
  name: "pool5"
  type: "Pooling"
  bottom: "conv5"
  top: "pool5"
  pooling_param {
    pool: MAX
    kernel_size: 3
    stride: 2
  }
}
layer {
  name: "fc6"
  type: "InnerProduct"
  bottom: "pool5"
  top: "fc6"
  param {
    lr_mult: 1
    decay_mult: 1
  }
  param {
    lr_mult: 2
    decay_mult: 0
  }
  inner_product_param {
    num_output: 4096
    weight_filler {
      type: "gaussian"
      std: 0.005
    }
    bias_filler {
      type: "constant"
      value: 0.1
    }
  }
}
layer {
  name: "relu6"
  type: "ReLU"
  bottom: "fc6"
  top: "fc6"
}
layer {
  name: "drop6"
  type: "Dropout"
  bottom: "fc6"
  top: "fc6"
  dropout_param {
    dropout_ratio: 0.5
  }
}
layer {
  name: "fc7"
  type: "InnerProduct"
  bottom: "fc6"
  top: "fc7"
  param {
    lr_mult: 1
    decay_mult: 1
  }
  param {
    lr_mult: 2
    decay_mult: 0
  }
  inner_product_param {
    num_output: 4096
    weight_filler {
      type: "gaussian"
      std: 0.005
    }
    bias_filler {
      type: "constant"
      value: 0.1
    }
  }
}
layer {
  name: "relu7"
  type: "ReLU"
  bottom: "fc7"
  top: "fc7"
}
layer {
  name: "drop7"
  type: "Dropout"
  bottom: "fc7"
  top: "fc7"
  dropout_param {
    dropout_ratio: 0.5
  }
}
layer {
  name: "fc8_plantvillage"
  type: "InnerProduct"
  bottom: "fc7"
  top: "fc8_plantvillage"
  param {
    lr_mult: 1
    decay_mult: 1
  }
  param {
    lr_mult: 2
    decay_mult: 0
  }
  inner_product_param {
    num_output: 38
    weight_filler {
      type: "gaussian"
      std: 0.01
    }
    bias_filler {
      type: "constant"
      value: 0
    }
  }
}
layer {
  name: "prob"
  type: "Softmax"
  bottom: "fc8_plantvillage"
  top: "prob"
  include {
    phase: TEST
  }
}
layer {
  name: "hdf5out"
  type: "HDF5Output"
  bottom: "prob"
  bottom: "label"
  include {
    phase: TEST
  }
  hdf5_output_param {
    file_name: "hdf5_dumps/iter_6118.h5"
  }
}
layer {
  name: "loss"
  type: "SoftmaxWithLoss"
  bottom: "fc8_plantvillage"
  bottom: "label"
  top: "loss"
}
layer {
  name: "accuracy"
  type: "Accuracy"
  bottom: "fc8_plantvillage"
  bottom: "label"
  top: "accuracy"
  include {
    phase: TEST
  }
}
I0403 15:05:56.663444 18244 layer_factory.hpp:77] Creating layer data
I0403 15:05:56.664118 18244 net.cpp:91] Creating Layer data
I0403 15:05:56.664150 18244 net.cpp:399] data -> data
I0403 15:05:56.664203 18244 net.cpp:399] data -> label
I0403 15:05:56.664242 18244 data_transformer.cpp:25] Loading mean file from: /home/mohanty/data/final_dataset/lmdb/color-80-20/mean.binaryproto
I0403 15:05:56.666774 18247 db_lmdb.cpp:38] Opened lmdb /home/mohanty/data/final_dataset/lmdb/color-80-20/test_db
I0403 15:05:56.678638 18244 data_layer.cpp:41] output data size: 100,3,227,227
I0403 15:05:56.799659 18244 net.cpp:141] Setting up data
I0403 15:05:56.799767 18244 net.cpp:148] Top shape: 100 3 227 227 (15458700)
I0403 15:05:56.799789 18244 net.cpp:148] Top shape: 100 (100)
I0403 15:05:56.799806 18244 net.cpp:156] Memory required for data: 61835200
I0403 15:05:56.799836 18244 layer_factory.hpp:77] Creating layer label_data_1_split
I0403 15:05:56.799863 18244 net.cpp:91] Creating Layer label_data_1_split
I0403 15:05:56.799882 18244 net.cpp:425] label_data_1_split <- label
I0403 15:05:56.799914 18244 net.cpp:399] label_data_1_split -> label_data_1_split_0
I0403 15:05:56.799942 18244 net.cpp:399] label_data_1_split -> label_data_1_split_1
I0403 15:05:56.799962 18244 net.cpp:399] label_data_1_split -> label_data_1_split_2
I0403 15:05:56.800030 18244 net.cpp:141] Setting up label_data_1_split
I0403 15:05:56.800055 18244 net.cpp:148] Top shape: 100 (100)
I0403 15:05:56.800071 18244 net.cpp:148] Top shape: 100 (100)
I0403 15:05:56.800087 18244 net.cpp:148] Top shape: 100 (100)
I0403 15:05:56.800101 18244 net.cpp:156] Memory required for data: 61836400
I0403 15:05:56.800117 18244 layer_factory.hpp:77] Creating layer conv1
I0403 15:05:56.800148 18244 net.cpp:91] Creating Layer conv1
I0403 15:05:56.800166 18244 net.cpp:425] conv1 <- data
I0403 15:05:56.800185 18244 net.cpp:399] conv1 -> conv1
I0403 15:05:56.942723 18244 net.cpp:141] Setting up conv1
I0403 15:05:56.942816 18244 net.cpp:148] Top shape: 100 96 55 55 (29040000)
I0403 15:05:56.942834 18244 net.cpp:156] Memory required for data: 177996400
I0403 15:05:56.942867 18244 layer_factory.hpp:77] Creating layer relu1
I0403 15:05:56.942894 18244 net.cpp:91] Creating Layer relu1
I0403 15:05:56.942912 18244 net.cpp:425] relu1 <- conv1
I0403 15:05:56.942934 18244 net.cpp:386] relu1 -> conv1 (in-place)
I0403 15:05:56.943210 18244 net.cpp:141] Setting up relu1
I0403 15:05:56.943238 18244 net.cpp:148] Top shape: 100 96 55 55 (29040000)
I0403 15:05:56.943254 18244 net.cpp:156] Memory required for data: 294156400
I0403 15:05:56.943300 18244 layer_factory.hpp:77] Creating layer norm1
I0403 15:05:56.943331 18244 net.cpp:91] Creating Layer norm1
I0403 15:05:56.943351 18244 net.cpp:425] norm1 <- conv1
I0403 15:05:56.943368 18244 net.cpp:399] norm1 -> norm1
I0403 15:05:56.943703 18244 net.cpp:141] Setting up norm1
I0403 15:05:56.943730 18244 net.cpp:148] Top shape: 100 96 55 55 (29040000)
I0403 15:05:56.943747 18244 net.cpp:156] Memory required for data: 410316400
I0403 15:05:56.943763 18244 layer_factory.hpp:77] Creating layer pool1
I0403 15:05:56.943786 18244 net.cpp:91] Creating Layer pool1
I0403 15:05:56.943804 18244 net.cpp:425] pool1 <- norm1
I0403 15:05:56.943821 18244 net.cpp:399] pool1 -> pool1
I0403 15:05:56.943892 18244 net.cpp:141] Setting up pool1
I0403 15:05:56.943914 18244 net.cpp:148] Top shape: 100 96 27 27 (6998400)
I0403 15:05:56.943930 18244 net.cpp:156] Memory required for data: 438310000
I0403 15:05:56.943945 18244 layer_factory.hpp:77] Creating layer conv2
I0403 15:05:56.943970 18244 net.cpp:91] Creating Layer conv2
I0403 15:05:56.943987 18244 net.cpp:425] conv2 <- pool1
I0403 15:05:56.944010 18244 net.cpp:399] conv2 -> conv2
I0403 15:05:56.959317 18244 net.cpp:141] Setting up conv2
I0403 15:05:56.959357 18244 net.cpp:148] Top shape: 100 256 27 27 (18662400)
I0403 15:05:56.959372 18244 net.cpp:156] Memory required for data: 512959600
I0403 15:05:56.959398 18244 layer_factory.hpp:77] Creating layer relu2
I0403 15:05:56.959417 18244 net.cpp:91] Creating Layer relu2
I0403 15:05:56.959434 18244 net.cpp:425] relu2 <- conv2
I0403 15:05:56.959451 18244 net.cpp:386] relu2 -> conv2 (in-place)
I0403 15:05:56.959731 18244 net.cpp:141] Setting up relu2
I0403 15:05:56.959758 18244 net.cpp:148] Top shape: 100 256 27 27 (18662400)
I0403 15:05:56.959779 18244 net.cpp:156] Memory required for data: 587609200
I0403 15:05:56.959795 18244 layer_factory.hpp:77] Creating layer norm2
I0403 15:05:56.959816 18244 net.cpp:91] Creating Layer norm2
I0403 15:05:56.959832 18244 net.cpp:425] norm2 <- conv2
I0403 15:05:56.959853 18244 net.cpp:399] norm2 -> norm2
I0403 15:05:56.960057 18244 net.cpp:141] Setting up norm2
I0403 15:05:56.960083 18244 net.cpp:148] Top shape: 100 256 27 27 (18662400)
I0403 15:05:56.960098 18244 net.cpp:156] Memory required for data: 662258800
I0403 15:05:56.960114 18244 layer_factory.hpp:77] Creating layer pool2
I0403 15:05:56.960134 18244 net.cpp:91] Creating Layer pool2
I0403 15:05:56.960151 18244 net.cpp:425] pool2 <- norm2
I0403 15:05:56.960170 18244 net.cpp:399] pool2 -> pool2
I0403 15:05:56.960235 18244 net.cpp:141] Setting up pool2
I0403 15:05:56.960260 18244 net.cpp:148] Top shape: 100 256 13 13 (4326400)
I0403 15:05:56.960276 18244 net.cpp:156] Memory required for data: 679564400
I0403 15:05:56.960291 18244 layer_factory.hpp:77] Creating layer conv3
I0403 15:05:56.960315 18244 net.cpp:91] Creating Layer conv3
I0403 15:05:56.960333 18244 net.cpp:425] conv3 <- pool2
I0403 15:05:56.960356 18244 net.cpp:399] conv3 -> conv3
I0403 15:05:57.005210 18244 net.cpp:141] Setting up conv3
I0403 15:05:57.005295 18244 net.cpp:148] Top shape: 100 384 13 13 (6489600)
I0403 15:05:57.005312 18244 net.cpp:156] Memory required for data: 705522800
I0403 15:05:57.005338 18244 layer_factory.hpp:77] Creating layer relu3
I0403 15:05:57.005364 18244 net.cpp:91] Creating Layer relu3
I0403 15:05:57.005383 18244 net.cpp:425] relu3 <- conv3
I0403 15:05:57.005404 18244 net.cpp:386] relu3 -> conv3 (in-place)
I0403 15:05:57.005702 18244 net.cpp:141] Setting up relu3
I0403 15:05:57.005729 18244 net.cpp:148] Top shape: 100 384 13 13 (6489600)
I0403 15:05:57.005744 18244 net.cpp:156] Memory required for data: 731481200
I0403 15:05:57.005760 18244 layer_factory.hpp:77] Creating layer conv4
I0403 15:05:57.005786 18244 net.cpp:91] Creating Layer conv4
I0403 15:05:57.005805 18244 net.cpp:425] conv4 <- conv3
I0403 15:05:57.005826 18244 net.cpp:399] conv4 -> conv4
I0403 15:05:57.036936 18244 net.cpp:141] Setting up conv4
I0403 15:05:57.037009 18244 net.cpp:148] Top shape: 100 384 13 13 (6489600)
I0403 15:05:57.037058 18244 net.cpp:156] Memory required for data: 757439600
I0403 15:05:57.037081 18244 layer_factory.hpp:77] Creating layer relu4
I0403 15:05:57.037103 18244 net.cpp:91] Creating Layer relu4
I0403 15:05:57.037120 18244 net.cpp:425] relu4 <- conv4
I0403 15:05:57.037142 18244 net.cpp:386] relu4 -> conv4 (in-place)
I0403 15:05:57.037431 18244 net.cpp:141] Setting up relu4
I0403 15:05:57.037458 18244 net.cpp:148] Top shape: 100 384 13 13 (6489600)
I0403 15:05:57.037473 18244 net.cpp:156] Memory required for data: 783398000
I0403 15:05:57.037488 18244 layer_factory.hpp:77] Creating layer conv5
I0403 15:05:57.037516 18244 net.cpp:91] Creating Layer conv5
I0403 15:05:57.037534 18244 net.cpp:425] conv5 <- conv4
I0403 15:05:57.037559 18244 net.cpp:399] conv5 -> conv5
I0403 15:05:57.058496 18244 net.cpp:141] Setting up conv5
I0403 15:05:57.058531 18244 net.cpp:148] Top shape: 100 256 13 13 (4326400)
I0403 15:05:57.058548 18244 net.cpp:156] Memory required for data: 800703600
I0403 15:05:57.058571 18244 layer_factory.hpp:77] Creating layer relu5
I0403 15:05:57.058593 18244 net.cpp:91] Creating Layer relu5
I0403 15:05:57.058609 18244 net.cpp:425] relu5 <- conv5
I0403 15:05:57.058627 18244 net.cpp:386] relu5 -> conv5 (in-place)
I0403 15:05:57.058909 18244 net.cpp:141] Setting up relu5
I0403 15:05:57.058936 18244 net.cpp:148] Top shape: 100 256 13 13 (4326400)
I0403 15:05:57.058951 18244 net.cpp:156] Memory required for data: 818009200
I0403 15:05:57.058967 18244 layer_factory.hpp:77] Creating layer pool5
I0403 15:05:57.058991 18244 net.cpp:91] Creating Layer pool5
I0403 15:05:57.059008 18244 net.cpp:425] pool5 <- conv5
I0403 15:05:57.059041 18244 net.cpp:399] pool5 -> pool5
I0403 15:05:57.059104 18244 net.cpp:141] Setting up pool5
I0403 15:05:57.059128 18244 net.cpp:148] Top shape: 100 256 6 6 (921600)
I0403 15:05:57.059144 18244 net.cpp:156] Memory required for data: 821695600
I0403 15:05:57.059159 18244 layer_factory.hpp:77] Creating layer fc6
I0403 15:05:57.059188 18244 net.cpp:91] Creating Layer fc6
I0403 15:05:57.059206 18244 net.cpp:425] fc6 <- pool5
I0403 15:05:57.059226 18244 net.cpp:399] fc6 -> fc6
I0403 15:05:58.616530 18244 net.cpp:141] Setting up fc6
I0403 15:05:58.616605 18244 net.cpp:148] Top shape: 100 4096 (409600)
I0403 15:05:58.616621 18244 net.cpp:156] Memory required for data: 823334000
I0403 15:05:58.616641 18244 layer_factory.hpp:77] Creating layer relu6
I0403 15:05:58.616662 18244 net.cpp:91] Creating Layer relu6
I0403 15:05:58.616678 18244 net.cpp:425] relu6 <- fc6
I0403 15:05:58.616699 18244 net.cpp:386] relu6 -> fc6 (in-place)
I0403 15:05:58.616917 18244 net.cpp:141] Setting up relu6
I0403 15:05:58.616941 18244 net.cpp:148] Top shape: 100 4096 (409600)
I0403 15:05:58.616955 18244 net.cpp:156] Memory required for data: 824972400
I0403 15:05:58.616969 18244 layer_factory.hpp:77] Creating layer drop6
I0403 15:05:58.616991 18244 net.cpp:91] Creating Layer drop6
I0403 15:05:58.617005 18244 net.cpp:425] drop6 <- fc6
I0403 15:05:58.617027 18244 net.cpp:386] drop6 -> fc6 (in-place)
I0403 15:05:58.617075 18244 net.cpp:141] Setting up drop6
I0403 15:05:58.617100 18244 net.cpp:148] Top shape: 100 4096 (409600)
I0403 15:05:58.617115 18244 net.cpp:156] Memory required for data: 826610800
I0403 15:05:58.617130 18244 layer_factory.hpp:77] Creating layer fc7
I0403 15:05:58.617148 18244 net.cpp:91] Creating Layer fc7
I0403 15:05:58.617163 18244 net.cpp:425] fc7 <- fc6
I0403 15:05:58.617185 18244 net.cpp:399] fc7 -> fc7
I0403 15:05:59.302381 18244 net.cpp:141] Setting up fc7
I0403 15:05:59.302429 18244 net.cpp:148] Top shape: 100 4096 (409600)
I0403 15:05:59.302445 18244 net.cpp:156] Memory required for data: 828249200
I0403 15:05:59.302465 18244 layer_factory.hpp:77] Creating layer relu7
I0403 15:05:59.302490 18244 net.cpp:91] Creating Layer relu7
I0403 15:05:59.302507 18244 net.cpp:425] relu7 <- fc7
I0403 15:05:59.302526 18244 net.cpp:386] relu7 -> fc7 (in-place)
I0403 15:05:59.302947 18244 net.cpp:141] Setting up relu7
I0403 15:05:59.302973 18244 net.cpp:148] Top shape: 100 4096 (409600)
I0403 15:05:59.303027 18244 net.cpp:156] Memory required for data: 829887600
I0403 15:05:59.303045 18244 layer_factory.hpp:77] Creating layer drop7
I0403 15:05:59.303064 18244 net.cpp:91] Creating Layer drop7
I0403 15:05:59.303081 18244 net.cpp:425] drop7 <- fc7
I0403 15:05:59.303100 18244 net.cpp:386] drop7 -> fc7 (in-place)
I0403 15:05:59.303145 18244 net.cpp:141] Setting up drop7
I0403 15:05:59.303167 18244 net.cpp:148] Top shape: 100 4096 (409600)
I0403 15:05:59.303182 18244 net.cpp:156] Memory required for data: 831526000
I0403 15:05:59.303195 18244 layer_factory.hpp:77] Creating layer fc8_plantvillage
I0403 15:05:59.303215 18244 net.cpp:91] Creating Layer fc8_plantvillage
I0403 15:05:59.303231 18244 net.cpp:425] fc8_plantvillage <- fc7
I0403 15:05:59.303251 18244 net.cpp:399] fc8_plantvillage -> fc8_plantvillage
I0403 15:05:59.309996 18244 net.cpp:141] Setting up fc8_plantvillage
I0403 15:05:59.310030 18244 net.cpp:148] Top shape: 100 38 (3800)
I0403 15:05:59.310047 18244 net.cpp:156] Memory required for data: 831541200
I0403 15:05:59.310065 18244 layer_factory.hpp:77] Creating layer fc8_plantvillage_fc8_plantvillage_0_split
I0403 15:05:59.310083 18244 net.cpp:91] Creating Layer fc8_plantvillage_fc8_plantvillage_0_split
I0403 15:05:59.310098 18244 net.cpp:425] fc8_plantvillage_fc8_plantvillage_0_split <- fc8_plantvillage
I0403 15:05:59.310117 18244 net.cpp:399] fc8_plantvillage_fc8_plantvillage_0_split -> fc8_plantvillage_fc8_plantvillage_0_split_0
I0403 15:05:59.310137 18244 net.cpp:399] fc8_plantvillage_fc8_plantvillage_0_split -> fc8_plantvillage_fc8_plantvillage_0_split_1
I0403 15:05:59.310155 18244 net.cpp:399] fc8_plantvillage_fc8_plantvillage_0_split -> fc8_plantvillage_fc8_plantvillage_0_split_2
I0403 15:05:59.310235 18244 net.cpp:141] Setting up fc8_plantvillage_fc8_plantvillage_0_split
I0403 15:05:59.310258 18244 net.cpp:148] Top shape: 100 38 (3800)
I0403 15:05:59.310273 18244 net.cpp:148] Top shape: 100 38 (3800)
I0403 15:05:59.310289 18244 net.cpp:148] Top shape: 100 38 (3800)
I0403 15:05:59.310302 18244 net.cpp:156] Memory required for data: 831586800
I0403 15:05:59.310317 18244 layer_factory.hpp:77] Creating layer prob
I0403 15:05:59.310334 18244 net.cpp:91] Creating Layer prob
I0403 15:05:59.310350 18244 net.cpp:425] prob <- fc8_plantvillage_fc8_plantvillage_0_split_0
I0403 15:05:59.310369 18244 net.cpp:399] prob -> prob
I0403 15:05:59.310592 18244 net.cpp:141] Setting up prob
I0403 15:05:59.310617 18244 net.cpp:148] Top shape: 100 38 (3800)
I0403 15:05:59.310632 18244 net.cpp:156] Memory required for data: 831602000
I0403 15:05:59.310647 18244 layer_factory.hpp:77] Creating layer hdf5out
I0403 15:05:59.310664 18244 net.cpp:91] Creating Layer hdf5out
I0403 15:05:59.310679 18244 net.cpp:425] hdf5out <- prob
I0403 15:05:59.310699 18244 net.cpp:425] hdf5out <- label_data_1_split_0
I0403 15:05:59.312966 18244 net.cpp:141] Setting up hdf5out
…
