…
I0403 15:11:23.650527 18410 net.cpp:313] The NetState phase (1) differed from the phase (0) specified by a rule in layer data
I0403 15:11:23.650835 18410 net.cpp:49] Initializing net from parameters: 
state {
  phase: TEST
}
layer {
  name: "data"
  type: "Data"
  top: "data"
  top: "label"
  include {
    phase: TEST
  }
  transform_param {
    crop_size: 227
    mean_file: "/home/mohanty/data/final_dataset/lmdb/color-80-20/mean.binaryproto"
  }
  data_param {
    source: "/home/mohanty/data/final_dataset/lmdb/color-80-20/test_db"
    batch_size: 100
    backend: LMDB
  }
}
layer {
  name: "conv1"
  type: "Convolution"
  bottom: "data"
  top: "conv1"
  param {
    lr_mult: 1
    decay_mult: 1
  }
  param {
    lr_mult: 2
    decay_mult: 0
  }
  convolution_param {
    num_output: 96
    kernel_size: 11
    stride: 4
    weight_filler {
      type: "gaussian"
      std: 0.01
    }
    bias_filler {
      type: "constant"
      value: 0
    }
  }
}
layer {
  name: "relu1"
  type: "ReLU"
  bottom: "conv1"
  top: "conv1"
}
layer {
  name: "norm1"
  type: "LRN"
  bottom: "conv1"
  top: "norm1"
  lrn_param {
    local_size: 5
    alpha: 0.0001
    beta: 0.75
  }
}
layer {
  name: "pool1"
  type: "Pooling"
  bottom: "norm1"
  top: "pool1"
  pooling_param {
    pool: MAX
    kernel_size: 3
    stride: 2
  }
}
layer {
  name: "conv2"
  type: "Convolution"
  bottom: "pool1"
  top: "conv2"
  param {
    lr_mult: 1
    decay_mult: 1
  }
  param {
    lr_mult: 2
    decay_mult: 0
  }
  convolution_param {
    num_output: 256
    pad: 2
    kernel_size: 5
    group: 2
    weight_filler {
      type: "gaussian"
      std: 0.01
    }
    bias_filler {
      type: "constant"
      value: 0.1
    }
  }
}
layer {
  name: "relu2"
  type: "ReLU"
  bottom: "conv2"
  top: "conv2"
}
layer {
  name: "norm2"
  type: "LRN"
  bottom: "conv2"
  top: "norm2"
  lrn_param {
    local_size: 5
    alpha: 0.0001
    beta: 0.75
  }
}
layer {
  name: "pool2"
  type: "Pooling"
  bottom: "norm2"
  top: "pool2"
  pooling_param {
    pool: MAX
    kernel_size: 3
    stride: 2
  }
}
layer {
  name: "conv3"
  type: "Convolution"
  bottom: "pool2"
  top: "conv3"
  param {
    lr_mult: 1
    decay_mult: 1
  }
  param {
    lr_mult: 2
    decay_mult: 0
  }
  convolution_param {
    num_output: 384
    pad: 1
    kernel_size: 3
    weight_filler {
      type: "gaussian"
      std: 0.01
    }
    bias_filler {
      type: "constant"
      value: 0
    }
  }
}
layer {
  name: "relu3"
  type: "ReLU"
  bottom: "conv3"
  top: "conv3"
}
layer {
  name: "conv4"
  type: "Convolution"
  bottom: "conv3"
  top: "conv4"
  param {
    lr_mult: 1
    decay_mult: 1
  }
  param {
    lr_mult: 2
    decay_mult: 0
  }
  convolution_param {
    num_output: 384
    pad: 1
    kernel_size: 3
    group: 2
    weight_filler {
      type: "gaussian"
      std: 0.01
    }
    bias_filler {
      type: "constant"
      value: 0.1
    }
  }
}
layer {
  name: "relu4"
  type: "ReLU"
  bottom: "conv4"
  top: "conv4"
}
layer {
  name: "conv5"
  type: "Convolution"
  bottom: "conv4"
  top: "conv5"
  param {
    lr_mult: 1
    decay_mult: 1
  }
  param {
    lr_mult: 2
    decay_mult: 0
  }
  convolution_param {
    num_output: 256
    pad: 1
    kernel_size: 3
    group: 2
    weight_filler {
      type: "gaussian"
      std: 0.01
    }
    bias_filler {
      type: "constant"
      value: 0.1
    }
  }
}
layer {
  name: "relu5"
  type: "ReLU"
  bottom: "conv5"
  top: "conv5"
}
layer {
  name: "pool5"
  type: "Pooling"
  bottom: "conv5"
  top: "pool5"
  pooling_param {
    pool: MAX
    kernel_size: 3
    stride: 2
  }
}
layer {
  name: "fc6"
  type: "InnerProduct"
  bottom: "pool5"
  top: "fc6"
  param {
    lr_mult: 1
    decay_mult: 1
  }
  param {
    lr_mult: 2
    decay_mult: 0
  }
  inner_product_param {
    num_output: 4096
    weight_filler {
      type: "gaussian"
      std: 0.005
    }
    bias_filler {
      type: "constant"
      value: 0.1
    }
  }
}
layer {
  name: "relu6"
  type: "ReLU"
  bottom: "fc6"
  top: "fc6"
}
layer {
  name: "drop6"
  type: "Dropout"
  bottom: "fc6"
  top: "fc6"
  dropout_param {
    dropout_ratio: 0.5
  }
}
layer {
  name: "fc7"
  type: "InnerProduct"
  bottom: "fc6"
  top: "fc7"
  param {
    lr_mult: 1
    decay_mult: 1
  }
  param {
    lr_mult: 2
    decay_mult: 0
  }
  inner_product_param {
    num_output: 4096
    weight_filler {
      type: "gaussian"
      std: 0.005
    }
    bias_filler {
      type: "constant"
      value: 0.1
    }
  }
}
layer {
  name: "relu7"
  type: "ReLU"
  bottom: "fc7"
  top: "fc7"
}
layer {
  name: "drop7"
  type: "Dropout"
  bottom: "fc7"
  top: "fc7"
  dropout_param {
    dropout_ratio: 0.5
  }
}
layer {
  name: "fc8_plantvillage"
  type: "InnerProduct"
  bottom: "fc7"
  top: "fc8_plantvillage"
  param {
    lr_mult: 1
    decay_mult: 1
  }
  param {
    lr_mult: 2
    decay_mult: 0
  }
  inner_product_param {
    num_output: 38
    weight_filler {
      type: "gaussian"
      std: 0.01
    }
    bias_filler {
      type: "constant"
      value: 0
    }
  }
}
layer {
  name: "prob"
  type: "Softmax"
  bottom: "fc8_plantvillage"
  top: "prob"
  include {
    phase: TEST
  }
}
layer {
  name: "hdf5out"
  type: "HDF5Output"
  bottom: "prob"
  bottom: "label"
  include {
    phase: TEST
  }
  hdf5_output_param {
    file_name: "hdf5_dumps/iter_11799.h5"
  }
}
layer {
  name: "loss"
  type: "SoftmaxWithLoss"
  bottom: "fc8_plantvillage"
  bottom: "label"
  top: "loss"
}
layer {
  name: "accuracy"
  type: "Accuracy"
  bottom: "fc8_plantvillage"
  bottom: "label"
  top: "accuracy"
  include {
    phase: TEST
  }
}
I0403 15:11:23.651402 18410 layer_factory.hpp:77] Creating layer data
I0403 15:11:23.652040 18410 net.cpp:91] Creating Layer data
I0403 15:11:23.652070 18410 net.cpp:399] data -> data
I0403 15:11:23.652118 18410 net.cpp:399] data -> label
I0403 15:11:23.652156 18410 data_transformer.cpp:25] Loading mean file from: /home/mohanty/data/final_dataset/lmdb/color-80-20/mean.binaryproto
I0403 15:11:23.654913 18414 db_lmdb.cpp:38] Opened lmdb /home/mohanty/data/final_dataset/lmdb/color-80-20/test_db
I0403 15:11:23.666611 18410 data_layer.cpp:41] output data size: 100,3,227,227
I0403 15:11:23.786130 18410 net.cpp:141] Setting up data
I0403 15:11:23.786237 18410 net.cpp:148] Top shape: 100 3 227 227 (15458700)
I0403 15:11:23.786258 18410 net.cpp:148] Top shape: 100 (100)
I0403 15:11:23.786273 18410 net.cpp:156] Memory required for data: 61835200
I0403 15:11:23.786300 18410 layer_factory.hpp:77] Creating layer label_data_1_split
I0403 15:11:23.786324 18410 net.cpp:91] Creating Layer label_data_1_split
I0403 15:11:23.786341 18410 net.cpp:425] label_data_1_split <- label
I0403 15:11:23.786372 18410 net.cpp:399] label_data_1_split -> label_data_1_split_0
I0403 15:11:23.786398 18410 net.cpp:399] label_data_1_split -> label_data_1_split_1
I0403 15:11:23.786417 18410 net.cpp:399] label_data_1_split -> label_data_1_split_2
I0403 15:11:23.786478 18410 net.cpp:141] Setting up label_data_1_split
I0403 15:11:23.786500 18410 net.cpp:148] Top shape: 100 (100)
I0403 15:11:23.786516 18410 net.cpp:148] Top shape: 100 (100)
I0403 15:11:23.786532 18410 net.cpp:148] Top shape: 100 (100)
I0403 15:11:23.786545 18410 net.cpp:156] Memory required for data: 61836400
I0403 15:11:23.786558 18410 layer_factory.hpp:77] Creating layer conv1
I0403 15:11:23.786588 18410 net.cpp:91] Creating Layer conv1
I0403 15:11:23.786607 18410 net.cpp:425] conv1 <- data
I0403 15:11:23.786624 18410 net.cpp:399] conv1 -> conv1
I0403 15:11:23.932827 18410 net.cpp:141] Setting up conv1
I0403 15:11:23.932909 18410 net.cpp:148] Top shape: 100 96 55 55 (29040000)
I0403 15:11:23.932925 18410 net.cpp:156] Memory required for data: 177996400
I0403 15:11:23.932957 18410 layer_factory.hpp:77] Creating layer relu1
I0403 15:11:23.932987 18410 net.cpp:91] Creating Layer relu1
I0403 15:11:23.933007 18410 net.cpp:425] relu1 <- conv1
I0403 15:11:23.933056 18410 net.cpp:386] relu1 -> conv1 (in-place)
I0403 15:11:23.933405 18410 net.cpp:141] Setting up relu1
I0403 15:11:23.933434 18410 net.cpp:148] Top shape: 100 96 55 55 (29040000)
I0403 15:11:23.933450 18410 net.cpp:156] Memory required for data: 294156400
I0403 15:11:23.933501 18410 layer_factory.hpp:77] Creating layer norm1
I0403 15:11:23.933529 18410 net.cpp:91] Creating Layer norm1
I0403 15:11:23.933548 18410 net.cpp:425] norm1 <- conv1
I0403 15:11:23.933567 18410 net.cpp:399] norm1 -> norm1
I0403 15:11:23.933890 18410 net.cpp:141] Setting up norm1
I0403 15:11:23.933919 18410 net.cpp:148] Top shape: 100 96 55 55 (29040000)
I0403 15:11:23.933935 18410 net.cpp:156] Memory required for data: 410316400
I0403 15:11:23.933951 18410 layer_factory.hpp:77] Creating layer pool1
I0403 15:11:23.933974 18410 net.cpp:91] Creating Layer pool1
I0403 15:11:23.933992 18410 net.cpp:425] pool1 <- norm1
I0403 15:11:23.934010 18410 net.cpp:399] pool1 -> pool1
I0403 15:11:23.934103 18410 net.cpp:141] Setting up pool1
I0403 15:11:23.934126 18410 net.cpp:148] Top shape: 100 96 27 27 (6998400)
I0403 15:11:23.934142 18410 net.cpp:156] Memory required for data: 438310000
I0403 15:11:23.934157 18410 layer_factory.hpp:77] Creating layer conv2
I0403 15:11:23.934183 18410 net.cpp:91] Creating Layer conv2
I0403 15:11:23.934201 18410 net.cpp:425] conv2 <- pool1
I0403 15:11:23.934218 18410 net.cpp:399] conv2 -> conv2
I0403 15:11:23.950006 18410 net.cpp:141] Setting up conv2
I0403 15:11:23.950074 18410 net.cpp:148] Top shape: 100 256 27 27 (18662400)
I0403 15:11:23.950093 18410 net.cpp:156] Memory required for data: 512959600
I0403 15:11:23.950116 18410 layer_factory.hpp:77] Creating layer relu2
I0403 15:11:23.950137 18410 net.cpp:91] Creating Layer relu2
I0403 15:11:23.950153 18410 net.cpp:425] relu2 <- conv2
I0403 15:11:23.950175 18410 net.cpp:386] relu2 -> conv2 (in-place)
I0403 15:11:23.950466 18410 net.cpp:141] Setting up relu2
I0403 15:11:23.950494 18410 net.cpp:148] Top shape: 100 256 27 27 (18662400)
I0403 15:11:23.950510 18410 net.cpp:156] Memory required for data: 587609200
I0403 15:11:23.950523 18410 layer_factory.hpp:77] Creating layer norm2
I0403 15:11:23.950547 18410 net.cpp:91] Creating Layer norm2
I0403 15:11:23.950564 18410 net.cpp:425] norm2 <- conv2
I0403 15:11:23.950582 18410 net.cpp:399] norm2 -> norm2
I0403 15:11:23.950790 18410 net.cpp:141] Setting up norm2
I0403 15:11:23.950819 18410 net.cpp:148] Top shape: 100 256 27 27 (18662400)
I0403 15:11:23.950835 18410 net.cpp:156] Memory required for data: 662258800
I0403 15:11:23.950850 18410 layer_factory.hpp:77] Creating layer pool2
I0403 15:11:23.950868 18410 net.cpp:91] Creating Layer pool2
I0403 15:11:23.950883 18410 net.cpp:425] pool2 <- norm2
I0403 15:11:23.950903 18410 net.cpp:399] pool2 -> pool2
I0403 15:11:23.950960 18410 net.cpp:141] Setting up pool2
I0403 15:11:23.950984 18410 net.cpp:148] Top shape: 100 256 13 13 (4326400)
I0403 15:11:23.950997 18410 net.cpp:156] Memory required for data: 679564400
I0403 15:11:23.951011 18410 layer_factory.hpp:77] Creating layer conv3
I0403 15:11:23.951042 18410 net.cpp:91] Creating Layer conv3
I0403 15:11:23.951062 18410 net.cpp:425] conv3 <- pool2
I0403 15:11:23.951083 18410 net.cpp:399] conv3 -> conv3
I0403 15:11:23.992521 18410 net.cpp:141] Setting up conv3
I0403 15:11:23.992599 18410 net.cpp:148] Top shape: 100 384 13 13 (6489600)
I0403 15:11:23.992617 18410 net.cpp:156] Memory required for data: 705522800
I0403 15:11:23.992643 18410 layer_factory.hpp:77] Creating layer relu3
I0403 15:11:23.992666 18410 net.cpp:91] Creating Layer relu3
I0403 15:11:23.992683 18410 net.cpp:425] relu3 <- conv3
I0403 15:11:23.992707 18410 net.cpp:386] relu3 -> conv3 (in-place)
I0403 15:11:23.992996 18410 net.cpp:141] Setting up relu3
I0403 15:11:23.993031 18410 net.cpp:148] Top shape: 100 384 13 13 (6489600)
I0403 15:11:23.993049 18410 net.cpp:156] Memory required for data: 731481200
I0403 15:11:23.993064 18410 layer_factory.hpp:77] Creating layer conv4
I0403 15:11:23.993089 18410 net.cpp:91] Creating Layer conv4
I0403 15:11:23.993108 18410 net.cpp:425] conv4 <- conv3
I0403 15:11:23.993126 18410 net.cpp:399] conv4 -> conv4
I0403 15:11:24.023726 18410 net.cpp:141] Setting up conv4
I0403 15:11:24.023761 18410 net.cpp:148] Top shape: 100 384 13 13 (6489600)
I0403 15:11:24.023797 18410 net.cpp:156] Memory required for data: 757439600
I0403 15:11:24.023818 18410 layer_factory.hpp:77] Creating layer relu4
I0403 15:11:24.023840 18410 net.cpp:91] Creating Layer relu4
I0403 15:11:24.023859 18410 net.cpp:425] relu4 <- conv4
I0403 15:11:24.023880 18410 net.cpp:386] relu4 -> conv4 (in-place)
I0403 15:11:24.024183 18410 net.cpp:141] Setting up relu4
I0403 15:11:24.024211 18410 net.cpp:148] Top shape: 100 384 13 13 (6489600)
I0403 15:11:24.024226 18410 net.cpp:156] Memory required for data: 783398000
I0403 15:11:24.024241 18410 layer_factory.hpp:77] Creating layer conv5
I0403 15:11:24.024267 18410 net.cpp:91] Creating Layer conv5
I0403 15:11:24.024286 18410 net.cpp:425] conv5 <- conv4
I0403 15:11:24.024304 18410 net.cpp:399] conv5 -> conv5
I0403 15:11:24.045483 18410 net.cpp:141] Setting up conv5
I0403 15:11:24.045547 18410 net.cpp:148] Top shape: 100 256 13 13 (4326400)
I0403 15:11:24.045564 18410 net.cpp:156] Memory required for data: 800703600
I0403 15:11:24.045590 18410 layer_factory.hpp:77] Creating layer relu5
I0403 15:11:24.045611 18410 net.cpp:91] Creating Layer relu5
I0403 15:11:24.045629 18410 net.cpp:425] relu5 <- conv5
I0403 15:11:24.045651 18410 net.cpp:386] relu5 -> conv5 (in-place)
I0403 15:11:24.045946 18410 net.cpp:141] Setting up relu5
I0403 15:11:24.045974 18410 net.cpp:148] Top shape: 100 256 13 13 (4326400)
I0403 15:11:24.045991 18410 net.cpp:156] Memory required for data: 818009200
I0403 15:11:24.046006 18410 layer_factory.hpp:77] Creating layer pool5
I0403 15:11:24.046033 18410 net.cpp:91] Creating Layer pool5
I0403 15:11:24.046051 18410 net.cpp:425] pool5 <- conv5
I0403 15:11:24.046073 18410 net.cpp:399] pool5 -> pool5
I0403 15:11:24.046138 18410 net.cpp:141] Setting up pool5
I0403 15:11:24.046161 18410 net.cpp:148] Top shape: 100 256 6 6 (921600)
I0403 15:11:24.046176 18410 net.cpp:156] Memory required for data: 821695600
I0403 15:11:24.046191 18410 layer_factory.hpp:77] Creating layer fc6
I0403 15:11:24.046221 18410 net.cpp:91] Creating Layer fc6
I0403 15:11:24.046239 18410 net.cpp:425] fc6 <- pool5
I0403 15:11:24.046260 18410 net.cpp:399] fc6 -> fc6
I0403 15:11:25.587157 18410 net.cpp:141] Setting up fc6
I0403 15:11:25.587230 18410 net.cpp:148] Top shape: 100 4096 (409600)
I0403 15:11:25.587245 18410 net.cpp:156] Memory required for data: 823334000
I0403 15:11:25.587265 18410 layer_factory.hpp:77] Creating layer relu6
I0403 15:11:25.587287 18410 net.cpp:91] Creating Layer relu6
I0403 15:11:25.587304 18410 net.cpp:425] relu6 <- fc6
I0403 15:11:25.587322 18410 net.cpp:386] relu6 -> fc6 (in-place)
I0403 15:11:25.587532 18410 net.cpp:141] Setting up relu6
I0403 15:11:25.587565 18410 net.cpp:148] Top shape: 100 4096 (409600)
I0403 15:11:25.587580 18410 net.cpp:156] Memory required for data: 824972400
I0403 15:11:25.587594 18410 layer_factory.hpp:77] Creating layer drop6
I0403 15:11:25.587612 18410 net.cpp:91] Creating Layer drop6
I0403 15:11:25.587626 18410 net.cpp:425] drop6 <- fc6
I0403 15:11:25.587642 18410 net.cpp:386] drop6 -> fc6 (in-place)
I0403 15:11:25.587692 18410 net.cpp:141] Setting up drop6
I0403 15:11:25.587714 18410 net.cpp:148] Top shape: 100 4096 (409600)
I0403 15:11:25.587728 18410 net.cpp:156] Memory required for data: 826610800
I0403 15:11:25.587741 18410 layer_factory.hpp:77] Creating layer fc7
I0403 15:11:25.587762 18410 net.cpp:91] Creating Layer fc7
I0403 15:11:25.587779 18410 net.cpp:425] fc7 <- fc6
I0403 15:11:25.587795 18410 net.cpp:399] fc7 -> fc7
I0403 15:11:26.266809 18410 net.cpp:141] Setting up fc7
I0403 15:11:26.266865 18410 net.cpp:148] Top shape: 100 4096 (409600)
I0403 15:11:26.266881 18410 net.cpp:156] Memory required for data: 828249200
I0403 15:11:26.266901 18410 layer_factory.hpp:77] Creating layer relu7
I0403 15:11:26.266924 18410 net.cpp:91] Creating Layer relu7
I0403 15:11:26.266940 18410 net.cpp:425] relu7 <- fc7
I0403 15:11:26.266962 18410 net.cpp:386] relu7 -> fc7 (in-place)
I0403 15:11:26.267391 18410 net.cpp:141] Setting up relu7
I0403 15:11:26.267419 18410 net.cpp:148] Top shape: 100 4096 (409600)
I0403 15:11:26.267482 18410 net.cpp:156] Memory required for data: 829887600
I0403 15:11:26.267508 18410 layer_factory.hpp:77] Creating layer drop7
I0403 15:11:26.267526 18410 net.cpp:91] Creating Layer drop7
I0403 15:11:26.267542 18410 net.cpp:425] drop7 <- fc7
I0403 15:11:26.267562 18410 net.cpp:386] drop7 -> fc7 (in-place)
I0403 15:11:26.267608 18410 net.cpp:141] Setting up drop7
I0403 15:11:26.267630 18410 net.cpp:148] Top shape: 100 4096 (409600)
I0403 15:11:26.267644 18410 net.cpp:156] Memory required for data: 831526000
I0403 15:11:26.267659 18410 layer_factory.hpp:77] Creating layer fc8_plantvillage
I0403 15:11:26.267681 18410 net.cpp:91] Creating Layer fc8_plantvillage
I0403 15:11:26.267698 18410 net.cpp:425] fc8_plantvillage <- fc7
I0403 15:11:26.267719 18410 net.cpp:399] fc8_plantvillage -> fc8_plantvillage
I0403 15:11:26.274544 18410 net.cpp:141] Setting up fc8_plantvillage
I0403 15:11:26.274571 18410 net.cpp:148] Top shape: 100 38 (3800)
I0403 15:11:26.274586 18410 net.cpp:156] Memory required for data: 831541200
I0403 15:11:26.274603 18410 layer_factory.hpp:77] Creating layer fc8_plantvillage_fc8_plantvillage_0_split
I0403 15:11:26.274621 18410 net.cpp:91] Creating Layer fc8_plantvillage_fc8_plantvillage_0_split
I0403 15:11:26.274636 18410 net.cpp:425] fc8_plantvillage_fc8_plantvillage_0_split <- fc8_plantvillage
I0403 15:11:26.274655 18410 net.cpp:399] fc8_plantvillage_fc8_plantvillage_0_split -> fc8_plantvillage_fc8_plantvillage_0_split_0
I0403 15:11:26.274675 18410 net.cpp:399] fc8_plantvillage_fc8_plantvillage_0_split -> fc8_plantvillage_fc8_plantvillage_0_split_1
I0403 15:11:26.274695 18410 net.cpp:399] fc8_plantvillage_fc8_plantvillage_0_split -> fc8_plantvillage_fc8_plantvillage_0_split_2
I0403 15:11:26.274775 18410 net.cpp:141] Setting up fc8_plantvillage_fc8_plantvillage_0_split
I0403 15:11:26.274798 18410 net.cpp:148] Top shape: 100 38 (3800)
I0403 15:11:26.274814 18410 net.cpp:148] Top shape: 100 38 (3800)
I0403 15:11:26.274829 18410 net.cpp:148] Top shape: 100 38 (3800)
I0403 15:11:26.274842 18410 net.cpp:156] Memory required for data: 831586800
I0403 15:11:26.274857 18410 layer_factory.hpp:77] Creating layer prob
I0403 15:11:26.274873 18410 net.cpp:91] Creating Layer prob
I0403 15:11:26.274888 18410 net.cpp:425] prob <- fc8_plantvillage_fc8_plantvillage_0_split_0
I0403 15:11:26.274904 18410 net.cpp:399] prob -> prob
I0403 15:11:26.275143 18410 net.cpp:141] Setting up prob
I0403 15:11:26.275171 18410 net.cpp:148] Top shape: 100 38 (3800)
I0403 15:11:26.275185 18410 net.cpp:156] Memory required for data: 831602000
I0403 15:11:26.275199 18410 layer_factory.hpp:77] Creating layer hdf5out
I0403 15:11:26.275216 18410 net.cpp:91] Creating Layer hdf5out
I0403 15:11:26.275230 18410 net.cpp:425] hdf5out <- prob
I0403 15:11:26.275245 18410 net.cpp:425] hdf5out <- label_data_1_split_0
I0403 15:11:26.277400 18410 net.cpp:141] Setting up hdf5out
…
