…
I0403 15:06:46.944110 18265 net.cpp:313] The NetState phase (1) differed from the phase (0) specified by a rule in layer data
I0403 15:06:46.944443 18265 net.cpp:49] Initializing net from parameters: 
state {
  phase: TEST
}
layer {
  name: "data"
  type: "Data"
  top: "data"
  top: "label"
  include {
    phase: TEST
  }
  transform_param {
    crop_size: 227
    mean_file: "/home/mohanty/data/final_dataset/lmdb/color-80-20/mean.binaryproto"
  }
  data_param {
    source: "/home/mohanty/data/final_dataset/lmdb/color-80-20/test_db"
    batch_size: 100
    backend: LMDB
  }
}
layer {
  name: "conv1"
  type: "Convolution"
  bottom: "data"
  top: "conv1"
  param {
    lr_mult: 1
    decay_mult: 1
  }
  param {
    lr_mult: 2
    decay_mult: 0
  }
  convolution_param {
    num_output: 96
    kernel_size: 11
    stride: 4
    weight_filler {
      type: "gaussian"
      std: 0.01
    }
    bias_filler {
      type: "constant"
      value: 0
    }
  }
}
layer {
  name: "relu1"
  type: "ReLU"
  bottom: "conv1"
  top: "conv1"
}
layer {
  name: "norm1"
  type: "LRN"
  bottom: "conv1"
  top: "norm1"
  lrn_param {
    local_size: 5
    alpha: 0.0001
    beta: 0.75
  }
}
layer {
  name: "pool1"
  type: "Pooling"
  bottom: "norm1"
  top: "pool1"
  pooling_param {
    pool: MAX
    kernel_size: 3
    stride: 2
  }
}
layer {
  name: "conv2"
  type: "Convolution"
  bottom: "pool1"
  top: "conv2"
  param {
    lr_mult: 1
    decay_mult: 1
  }
  param {
    lr_mult: 2
    decay_mult: 0
  }
  convolution_param {
    num_output: 256
    pad: 2
    kernel_size: 5
    group: 2
    weight_filler {
      type: "gaussian"
      std: 0.01
    }
    bias_filler {
      type: "constant"
      value: 0.1
    }
  }
}
layer {
  name: "relu2"
  type: "ReLU"
  bottom: "conv2"
  top: "conv2"
}
layer {
  name: "norm2"
  type: "LRN"
  bottom: "conv2"
  top: "norm2"
  lrn_param {
    local_size: 5
    alpha: 0.0001
    beta: 0.75
  }
}
layer {
  name: "pool2"
  type: "Pooling"
  bottom: "norm2"
  top: "pool2"
  pooling_param {
    pool: MAX
    kernel_size: 3
    stride: 2
  }
}
layer {
  name: "conv3"
  type: "Convolution"
  bottom: "pool2"
  top: "conv3"
  param {
    lr_mult: 1
    decay_mult: 1
  }
  param {
    lr_mult: 2
    decay_mult: 0
  }
  convolution_param {
    num_output: 384
    pad: 1
    kernel_size: 3
    weight_filler {
      type: "gaussian"
      std: 0.01
    }
    bias_filler {
      type: "constant"
      value: 0
    }
  }
}
layer {
  name: "relu3"
  type: "ReLU"
  bottom: "conv3"
  top: "conv3"
}
layer {
  name: "conv4"
  type: "Convolution"
  bottom: "conv3"
  top: "conv4"
  param {
    lr_mult: 1
    decay_mult: 1
  }
  param {
    lr_mult: 2
    decay_mult: 0
  }
  convolution_param {
    num_output: 384
    pad: 1
    kernel_size: 3
    group: 2
    weight_filler {
      type: "gaussian"
      std: 0.01
    }
    bias_filler {
      type: "constant"
      value: 0.1
    }
  }
}
layer {
  name: "relu4"
  type: "ReLU"
  bottom: "conv4"
  top: "conv4"
}
layer {
  name: "conv5"
  type: "Convolution"
  bottom: "conv4"
  top: "conv5"
  param {
    lr_mult: 1
    decay_mult: 1
  }
  param {
    lr_mult: 2
    decay_mult: 0
  }
  convolution_param {
    num_output: 256
    pad: 1
    kernel_size: 3
    group: 2
    weight_filler {
      type: "gaussian"
      std: 0.01
    }
    bias_filler {
      type: "constant"
      value: 0.1
    }
  }
}
layer {
  name: "relu5"
  type: "ReLU"
  bottom: "conv5"
  top: "conv5"
}
layer {
  name: "pool5"
  type: "Pooling"
  bottom: "conv5"
  top: "pool5"
  pooling_param {
    pool: MAX
    kernel_size: 3
    stride: 2
  }
}
layer {
  name: "fc6"
  type: "InnerProduct"
  bottom: "pool5"
  top: "fc6"
  param {
    lr_mult: 1
    decay_mult: 1
  }
  param {
    lr_mult: 2
    decay_mult: 0
  }
  inner_product_param {
    num_output: 4096
    weight_filler {
      type: "gaussian"
      std: 0.005
    }
    bias_filler {
      type: "constant"
      value: 0.1
    }
  }
}
layer {
  name: "relu6"
  type: "ReLU"
  bottom: "fc6"
  top: "fc6"
}
layer {
  name: "drop6"
  type: "Dropout"
  bottom: "fc6"
  top: "fc6"
  dropout_param {
    dropout_ratio: 0.5
  }
}
layer {
  name: "fc7"
  type: "InnerProduct"
  bottom: "fc6"
  top: "fc7"
  param {
    lr_mult: 1
    decay_mult: 1
  }
  param {
    lr_mult: 2
    decay_mult: 0
  }
  inner_product_param {
    num_output: 4096
    weight_filler {
      type: "gaussian"
      std: 0.005
    }
    bias_filler {
      type: "constant"
      value: 0.1
    }
  }
}
layer {
  name: "relu7"
  type: "ReLU"
  bottom: "fc7"
  top: "fc7"
}
layer {
  name: "drop7"
  type: "Dropout"
  bottom: "fc7"
  top: "fc7"
  dropout_param {
    dropout_ratio: 0.5
  }
}
layer {
  name: "fc8_plantvillage"
  type: "InnerProduct"
  bottom: "fc7"
  top: "fc8_plantvillage"
  param {
    lr_mult: 1
    decay_mult: 1
  }
  param {
    lr_mult: 2
    decay_mult: 0
  }
  inner_product_param {
    num_output: 38
    weight_filler {
      type: "gaussian"
      std: 0.01
    }
    bias_filler {
      type: "constant"
      value: 0
    }
  }
}
layer {
  name: "prob"
  type: "Softmax"
  bottom: "fc8_plantvillage"
  top: "prob"
  include {
    phase: TEST
  }
}
layer {
  name: "hdf5out"
  type: "HDF5Output"
  bottom: "prob"
  bottom: "label"
  include {
    phase: TEST
  }
  hdf5_output_param {
    file_name: "hdf5_dumps/iter_6992.h5"
  }
}
layer {
  name: "loss"
  type: "SoftmaxWithLoss"
  bottom: "fc8_plantvillage"
  bottom: "label"
  top: "loss"
}
layer {
  name: "accuracy"
  type: "Accuracy"
  bottom: "fc8_plantvillage"
  bottom: "label"
  top: "accuracy"
  include {
    phase: TEST
  }
}
I0403 15:06:46.944983 18265 layer_factory.hpp:77] Creating layer data
I0403 15:06:46.945667 18265 net.cpp:91] Creating Layer data
I0403 15:06:46.945699 18265 net.cpp:399] data -> data
I0403 15:06:46.945752 18265 net.cpp:399] data -> label
I0403 15:06:46.945790 18265 data_transformer.cpp:25] Loading mean file from: /home/mohanty/data/final_dataset/lmdb/color-80-20/mean.binaryproto
I0403 15:06:46.948093 18270 db_lmdb.cpp:38] Opened lmdb /home/mohanty/data/final_dataset/lmdb/color-80-20/test_db
I0403 15:06:46.960620 18265 data_layer.cpp:41] output data size: 100,3,227,227
I0403 15:06:47.084872 18265 net.cpp:141] Setting up data
I0403 15:06:47.084933 18265 net.cpp:148] Top shape: 100 3 227 227 (15458700)
I0403 15:06:47.084957 18265 net.cpp:148] Top shape: 100 (100)
I0403 15:06:47.084974 18265 net.cpp:156] Memory required for data: 61835200
I0403 15:06:47.085001 18265 layer_factory.hpp:77] Creating layer label_data_1_split
I0403 15:06:47.085026 18265 net.cpp:91] Creating Layer label_data_1_split
I0403 15:06:47.085044 18265 net.cpp:425] label_data_1_split <- label
I0403 15:06:47.085081 18265 net.cpp:399] label_data_1_split -> label_data_1_split_0
I0403 15:06:47.085110 18265 net.cpp:399] label_data_1_split -> label_data_1_split_1
I0403 15:06:47.085131 18265 net.cpp:399] label_data_1_split -> label_data_1_split_2
I0403 15:06:47.085193 18265 net.cpp:141] Setting up label_data_1_split
I0403 15:06:47.085218 18265 net.cpp:148] Top shape: 100 (100)
I0403 15:06:47.085234 18265 net.cpp:148] Top shape: 100 (100)
I0403 15:06:47.085252 18265 net.cpp:148] Top shape: 100 (100)
I0403 15:06:47.085265 18265 net.cpp:156] Memory required for data: 61836400
I0403 15:06:47.085280 18265 layer_factory.hpp:77] Creating layer conv1
I0403 15:06:47.085314 18265 net.cpp:91] Creating Layer conv1
I0403 15:06:47.085333 18265 net.cpp:425] conv1 <- data
I0403 15:06:47.085352 18265 net.cpp:399] conv1 -> conv1
I0403 15:06:47.231315 18265 net.cpp:141] Setting up conv1
I0403 15:06:47.231359 18265 net.cpp:148] Top shape: 100 96 55 55 (29040000)
I0403 15:06:47.231375 18265 net.cpp:156] Memory required for data: 177996400
I0403 15:06:47.231406 18265 layer_factory.hpp:77] Creating layer relu1
I0403 15:06:47.231434 18265 net.cpp:91] Creating Layer relu1
I0403 15:06:47.231452 18265 net.cpp:425] relu1 <- conv1
I0403 15:06:47.231472 18265 net.cpp:386] relu1 -> conv1 (in-place)
I0403 15:06:47.231744 18265 net.cpp:141] Setting up relu1
I0403 15:06:47.231771 18265 net.cpp:148] Top shape: 100 96 55 55 (29040000)
I0403 15:06:47.231787 18265 net.cpp:156] Memory required for data: 294156400
I0403 15:06:47.231820 18265 layer_factory.hpp:77] Creating layer norm1
I0403 15:06:47.231849 18265 net.cpp:91] Creating Layer norm1
I0403 15:06:47.231868 18265 net.cpp:425] norm1 <- conv1
I0403 15:06:47.231885 18265 net.cpp:399] norm1 -> norm1
I0403 15:06:47.232197 18265 net.cpp:141] Setting up norm1
I0403 15:06:47.232225 18265 net.cpp:148] Top shape: 100 96 55 55 (29040000)
I0403 15:06:47.232240 18265 net.cpp:156] Memory required for data: 410316400
I0403 15:06:47.232255 18265 layer_factory.hpp:77] Creating layer pool1
I0403 15:06:47.232278 18265 net.cpp:91] Creating Layer pool1
I0403 15:06:47.232295 18265 net.cpp:425] pool1 <- norm1
I0403 15:06:47.232312 18265 net.cpp:399] pool1 -> pool1
I0403 15:06:47.232379 18265 net.cpp:141] Setting up pool1
I0403 15:06:47.232403 18265 net.cpp:148] Top shape: 100 96 27 27 (6998400)
I0403 15:06:47.232417 18265 net.cpp:156] Memory required for data: 438310000
I0403 15:06:47.232432 18265 layer_factory.hpp:77] Creating layer conv2
I0403 15:06:47.232456 18265 net.cpp:91] Creating Layer conv2
I0403 15:06:47.232473 18265 net.cpp:425] conv2 <- pool1
I0403 15:06:47.232491 18265 net.cpp:399] conv2 -> conv2
I0403 15:06:47.247378 18265 net.cpp:141] Setting up conv2
I0403 15:06:47.247427 18265 net.cpp:148] Top shape: 100 256 27 27 (18662400)
I0403 15:06:47.247445 18265 net.cpp:156] Memory required for data: 512959600
I0403 15:06:47.247468 18265 layer_factory.hpp:77] Creating layer relu2
I0403 15:06:47.247489 18265 net.cpp:91] Creating Layer relu2
I0403 15:06:47.247519 18265 net.cpp:425] relu2 <- conv2
I0403 15:06:47.247539 18265 net.cpp:386] relu2 -> conv2 (in-place)
I0403 15:06:47.247834 18265 net.cpp:141] Setting up relu2
I0403 15:06:47.247861 18265 net.cpp:148] Top shape: 100 256 27 27 (18662400)
I0403 15:06:47.247877 18265 net.cpp:156] Memory required for data: 587609200
I0403 15:06:47.247892 18265 layer_factory.hpp:77] Creating layer norm2
I0403 15:06:47.247915 18265 net.cpp:91] Creating Layer norm2
I0403 15:06:47.247931 18265 net.cpp:425] norm2 <- conv2
I0403 15:06:47.247948 18265 net.cpp:399] norm2 -> norm2
I0403 15:06:47.248157 18265 net.cpp:141] Setting up norm2
I0403 15:06:47.248183 18265 net.cpp:148] Top shape: 100 256 27 27 (18662400)
I0403 15:06:47.248196 18265 net.cpp:156] Memory required for data: 662258800
I0403 15:06:47.248211 18265 layer_factory.hpp:77] Creating layer pool2
I0403 15:06:47.248229 18265 net.cpp:91] Creating Layer pool2
I0403 15:06:47.248244 18265 net.cpp:425] pool2 <- norm2
I0403 15:06:47.248263 18265 net.cpp:399] pool2 -> pool2
I0403 15:06:47.248314 18265 net.cpp:141] Setting up pool2
I0403 15:06:47.248337 18265 net.cpp:148] Top shape: 100 256 13 13 (4326400)
I0403 15:06:47.248352 18265 net.cpp:156] Memory required for data: 679564400
I0403 15:06:47.248365 18265 layer_factory.hpp:77] Creating layer conv3
I0403 15:06:47.248389 18265 net.cpp:91] Creating Layer conv3
I0403 15:06:47.248405 18265 net.cpp:425] conv3 <- pool2
I0403 15:06:47.248423 18265 net.cpp:399] conv3 -> conv3
I0403 15:06:47.292255 18265 net.cpp:141] Setting up conv3
I0403 15:06:47.292325 18265 net.cpp:148] Top shape: 100 384 13 13 (6489600)
I0403 15:06:47.292342 18265 net.cpp:156] Memory required for data: 705522800
I0403 15:06:47.292366 18265 layer_factory.hpp:77] Creating layer relu3
I0403 15:06:47.292387 18265 net.cpp:91] Creating Layer relu3
I0403 15:06:47.292403 18265 net.cpp:425] relu3 <- conv3
I0403 15:06:47.292423 18265 net.cpp:386] relu3 -> conv3 (in-place)
I0403 15:06:47.292704 18265 net.cpp:141] Setting up relu3
I0403 15:06:47.292732 18265 net.cpp:148] Top shape: 100 384 13 13 (6489600)
I0403 15:06:47.292748 18265 net.cpp:156] Memory required for data: 731481200
I0403 15:06:47.292764 18265 layer_factory.hpp:77] Creating layer conv4
I0403 15:06:47.292793 18265 net.cpp:91] Creating Layer conv4
I0403 15:06:47.292811 18265 net.cpp:425] conv4 <- conv3
I0403 15:06:47.292832 18265 net.cpp:399] conv4 -> conv4
I0403 15:06:47.322942 18265 net.cpp:141] Setting up conv4
I0403 15:06:47.322985 18265 net.cpp:148] Top shape: 100 384 13 13 (6489600)
I0403 15:06:47.323038 18265 net.cpp:156] Memory required for data: 757439600
I0403 15:06:47.323071 18265 layer_factory.hpp:77] Creating layer relu4
I0403 15:06:47.323096 18265 net.cpp:91] Creating Layer relu4
I0403 15:06:47.323114 18265 net.cpp:425] relu4 <- conv4
I0403 15:06:47.323137 18265 net.cpp:386] relu4 -> conv4 (in-place)
I0403 15:06:47.323438 18265 net.cpp:141] Setting up relu4
I0403 15:06:47.323468 18265 net.cpp:148] Top shape: 100 384 13 13 (6489600)
I0403 15:06:47.323484 18265 net.cpp:156] Memory required for data: 783398000
I0403 15:06:47.323500 18265 layer_factory.hpp:77] Creating layer conv5
I0403 15:06:47.323539 18265 net.cpp:91] Creating Layer conv5
I0403 15:06:47.323556 18265 net.cpp:425] conv5 <- conv4
I0403 15:06:47.323575 18265 net.cpp:399] conv5 -> conv5
I0403 15:06:47.344753 18265 net.cpp:141] Setting up conv5
I0403 15:06:47.344821 18265 net.cpp:148] Top shape: 100 256 13 13 (4326400)
I0403 15:06:47.344849 18265 net.cpp:156] Memory required for data: 800703600
I0403 15:06:47.344876 18265 layer_factory.hpp:77] Creating layer relu5
I0403 15:06:47.344894 18265 net.cpp:91] Creating Layer relu5
I0403 15:06:47.344912 18265 net.cpp:425] relu5 <- conv5
I0403 15:06:47.344933 18265 net.cpp:386] relu5 -> conv5 (in-place)
I0403 15:06:47.345213 18265 net.cpp:141] Setting up relu5
I0403 15:06:47.345242 18265 net.cpp:148] Top shape: 100 256 13 13 (4326400)
I0403 15:06:47.345258 18265 net.cpp:156] Memory required for data: 818009200
I0403 15:06:47.345273 18265 layer_factory.hpp:77] Creating layer pool5
I0403 15:06:47.345299 18265 net.cpp:91] Creating Layer pool5
I0403 15:06:47.345319 18265 net.cpp:425] pool5 <- conv5
I0403 15:06:47.345336 18265 net.cpp:399] pool5 -> pool5
I0403 15:06:47.345397 18265 net.cpp:141] Setting up pool5
I0403 15:06:47.345420 18265 net.cpp:148] Top shape: 100 256 6 6 (921600)
I0403 15:06:47.345435 18265 net.cpp:156] Memory required for data: 821695600
I0403 15:06:47.345449 18265 layer_factory.hpp:77] Creating layer fc6
I0403 15:06:47.345476 18265 net.cpp:91] Creating Layer fc6
I0403 15:06:47.345494 18265 net.cpp:425] fc6 <- pool5
I0403 15:06:47.345515 18265 net.cpp:399] fc6 -> fc6
I0403 15:06:48.902127 18265 net.cpp:141] Setting up fc6
I0403 15:06:48.902182 18265 net.cpp:148] Top shape: 100 4096 (409600)
I0403 15:06:48.902199 18265 net.cpp:156] Memory required for data: 823334000
I0403 15:06:48.902218 18265 layer_factory.hpp:77] Creating layer relu6
I0403 15:06:48.902241 18265 net.cpp:91] Creating Layer relu6
I0403 15:06:48.902258 18265 net.cpp:425] relu6 <- fc6
I0403 15:06:48.902276 18265 net.cpp:386] relu6 -> fc6 (in-place)
I0403 15:06:48.902492 18265 net.cpp:141] Setting up relu6
I0403 15:06:48.902514 18265 net.cpp:148] Top shape: 100 4096 (409600)
I0403 15:06:48.902529 18265 net.cpp:156] Memory required for data: 824972400
I0403 15:06:48.902542 18265 layer_factory.hpp:77] Creating layer drop6
I0403 15:06:48.902560 18265 net.cpp:91] Creating Layer drop6
I0403 15:06:48.902575 18265 net.cpp:425] drop6 <- fc6
I0403 15:06:48.902592 18265 net.cpp:386] drop6 -> fc6 (in-place)
I0403 15:06:48.902642 18265 net.cpp:141] Setting up drop6
I0403 15:06:48.902667 18265 net.cpp:148] Top shape: 100 4096 (409600)
I0403 15:06:48.902683 18265 net.cpp:156] Memory required for data: 826610800
I0403 15:06:48.902695 18265 layer_factory.hpp:77] Creating layer fc7
I0403 15:06:48.902714 18265 net.cpp:91] Creating Layer fc7
I0403 15:06:48.902729 18265 net.cpp:425] fc7 <- fc6
I0403 15:06:48.902748 18265 net.cpp:399] fc7 -> fc7
I0403 15:06:49.586416 18265 net.cpp:141] Setting up fc7
I0403 15:06:49.586467 18265 net.cpp:148] Top shape: 100 4096 (409600)
I0403 15:06:49.586484 18265 net.cpp:156] Memory required for data: 828249200
I0403 15:06:49.586516 18265 layer_factory.hpp:77] Creating layer relu7
I0403 15:06:49.586539 18265 net.cpp:91] Creating Layer relu7
I0403 15:06:49.586556 18265 net.cpp:425] relu7 <- fc7
I0403 15:06:49.586580 18265 net.cpp:386] relu7 -> fc7 (in-place)
I0403 15:06:49.586987 18265 net.cpp:141] Setting up relu7
I0403 15:06:49.587013 18265 net.cpp:148] Top shape: 100 4096 (409600)
I0403 15:06:49.587065 18265 net.cpp:156] Memory required for data: 829887600
I0403 15:06:49.587082 18265 layer_factory.hpp:77] Creating layer drop7
I0403 15:06:49.587100 18265 net.cpp:91] Creating Layer drop7
I0403 15:06:49.587116 18265 net.cpp:425] drop7 <- fc7
I0403 15:06:49.587136 18265 net.cpp:386] drop7 -> fc7 (in-place)
I0403 15:06:49.587177 18265 net.cpp:141] Setting up drop7
I0403 15:06:49.587199 18265 net.cpp:148] Top shape: 100 4096 (409600)
I0403 15:06:49.587214 18265 net.cpp:156] Memory required for data: 831526000
I0403 15:06:49.587229 18265 layer_factory.hpp:77] Creating layer fc8_plantvillage
I0403 15:06:49.587249 18265 net.cpp:91] Creating Layer fc8_plantvillage
I0403 15:06:49.587266 18265 net.cpp:425] fc8_plantvillage <- fc7
I0403 15:06:49.587286 18265 net.cpp:399] fc8_plantvillage -> fc8_plantvillage
I0403 15:06:49.594007 18265 net.cpp:141] Setting up fc8_plantvillage
I0403 15:06:49.594036 18265 net.cpp:148] Top shape: 100 38 (3800)
I0403 15:06:49.594058 18265 net.cpp:156] Memory required for data: 831541200
I0403 15:06:49.594079 18265 layer_factory.hpp:77] Creating layer fc8_plantvillage_fc8_plantvillage_0_split
I0403 15:06:49.594097 18265 net.cpp:91] Creating Layer fc8_plantvillage_fc8_plantvillage_0_split
I0403 15:06:49.594112 18265 net.cpp:425] fc8_plantvillage_fc8_plantvillage_0_split <- fc8_plantvillage
I0403 15:06:49.594131 18265 net.cpp:399] fc8_plantvillage_fc8_plantvillage_0_split -> fc8_plantvillage_fc8_plantvillage_0_split_0
I0403 15:06:49.594152 18265 net.cpp:399] fc8_plantvillage_fc8_plantvillage_0_split -> fc8_plantvillage_fc8_plantvillage_0_split_1
I0403 15:06:49.594172 18265 net.cpp:399] fc8_plantvillage_fc8_plantvillage_0_split -> fc8_plantvillage_fc8_plantvillage_0_split_2
I0403 15:06:49.594249 18265 net.cpp:141] Setting up fc8_plantvillage_fc8_plantvillage_0_split
I0403 15:06:49.594274 18265 net.cpp:148] Top shape: 100 38 (3800)
I0403 15:06:49.594288 18265 net.cpp:148] Top shape: 100 38 (3800)
I0403 15:06:49.594303 18265 net.cpp:148] Top shape: 100 38 (3800)
I0403 15:06:49.594317 18265 net.cpp:156] Memory required for data: 831586800
I0403 15:06:49.594331 18265 layer_factory.hpp:77] Creating layer prob
I0403 15:06:49.594349 18265 net.cpp:91] Creating Layer prob
I0403 15:06:49.594364 18265 net.cpp:425] prob <- fc8_plantvillage_fc8_plantvillage_0_split_0
I0403 15:06:49.594384 18265 net.cpp:399] prob -> prob
I0403 15:06:49.594615 18265 net.cpp:141] Setting up prob
I0403 15:06:49.594643 18265 net.cpp:148] Top shape: 100 38 (3800)
I0403 15:06:49.594658 18265 net.cpp:156] Memory required for data: 831602000
I0403 15:06:49.594673 18265 layer_factory.hpp:77] Creating layer hdf5out
I0403 15:06:49.594691 18265 net.cpp:91] Creating Layer hdf5out
I0403 15:06:49.594707 18265 net.cpp:425] hdf5out <- prob
I0403 15:06:49.594722 18265 net.cpp:425] hdf5out <- label_data_1_split_0
I0403 15:06:49.597239 18265 net.cpp:141] Setting up hdf5out
…
