…
I0403 15:07:12.120067 18277 net.cpp:313] The NetState phase (1) differed from the phase (0) specified by a rule in layer data
I0403 15:07:12.120358 18277 net.cpp:49] Initializing net from parameters: 
state {
  phase: TEST
}
layer {
  name: "data"
  type: "Data"
  top: "data"
  top: "label"
  include {
    phase: TEST
  }
  transform_param {
    crop_size: 227
    mean_file: "/home/mohanty/data/final_dataset/lmdb/color-80-20/mean.binaryproto"
  }
  data_param {
    source: "/home/mohanty/data/final_dataset/lmdb/color-80-20/test_db"
    batch_size: 100
    backend: LMDB
  }
}
layer {
  name: "conv1"
  type: "Convolution"
  bottom: "data"
  top: "conv1"
  param {
    lr_mult: 1
    decay_mult: 1
  }
  param {
    lr_mult: 2
    decay_mult: 0
  }
  convolution_param {
    num_output: 96
    kernel_size: 11
    stride: 4
    weight_filler {
      type: "gaussian"
      std: 0.01
    }
    bias_filler {
      type: "constant"
      value: 0
    }
  }
}
layer {
  name: "relu1"
  type: "ReLU"
  bottom: "conv1"
  top: "conv1"
}
layer {
  name: "norm1"
  type: "LRN"
  bottom: "conv1"
  top: "norm1"
  lrn_param {
    local_size: 5
    alpha: 0.0001
    beta: 0.75
  }
}
layer {
  name: "pool1"
  type: "Pooling"
  bottom: "norm1"
  top: "pool1"
  pooling_param {
    pool: MAX
    kernel_size: 3
    stride: 2
  }
}
layer {
  name: "conv2"
  type: "Convolution"
  bottom: "pool1"
  top: "conv2"
  param {
    lr_mult: 1
    decay_mult: 1
  }
  param {
    lr_mult: 2
    decay_mult: 0
  }
  convolution_param {
    num_output: 256
    pad: 2
    kernel_size: 5
    group: 2
    weight_filler {
      type: "gaussian"
      std: 0.01
    }
    bias_filler {
      type: "constant"
      value: 0.1
    }
  }
}
layer {
  name: "relu2"
  type: "ReLU"
  bottom: "conv2"
  top: "conv2"
}
layer {
  name: "norm2"
  type: "LRN"
  bottom: "conv2"
  top: "norm2"
  lrn_param {
    local_size: 5
    alpha: 0.0001
    beta: 0.75
  }
}
layer {
  name: "pool2"
  type: "Pooling"
  bottom: "norm2"
  top: "pool2"
  pooling_param {
    pool: MAX
    kernel_size: 3
    stride: 2
  }
}
layer {
  name: "conv3"
  type: "Convolution"
  bottom: "pool2"
  top: "conv3"
  param {
    lr_mult: 1
    decay_mult: 1
  }
  param {
    lr_mult: 2
    decay_mult: 0
  }
  convolution_param {
    num_output: 384
    pad: 1
    kernel_size: 3
    weight_filler {
      type: "gaussian"
      std: 0.01
    }
    bias_filler {
      type: "constant"
      value: 0
    }
  }
}
layer {
  name: "relu3"
  type: "ReLU"
  bottom: "conv3"
  top: "conv3"
}
layer {
  name: "conv4"
  type: "Convolution"
  bottom: "conv3"
  top: "conv4"
  param {
    lr_mult: 1
    decay_mult: 1
  }
  param {
    lr_mult: 2
    decay_mult: 0
  }
  convolution_param {
    num_output: 384
    pad: 1
    kernel_size: 3
    group: 2
    weight_filler {
      type: "gaussian"
      std: 0.01
    }
    bias_filler {
      type: "constant"
      value: 0.1
    }
  }
}
layer {
  name: "relu4"
  type: "ReLU"
  bottom: "conv4"
  top: "conv4"
}
layer {
  name: "conv5"
  type: "Convolution"
  bottom: "conv4"
  top: "conv5"
  param {
    lr_mult: 1
    decay_mult: 1
  }
  param {
    lr_mult: 2
    decay_mult: 0
  }
  convolution_param {
    num_output: 256
    pad: 1
    kernel_size: 3
    group: 2
    weight_filler {
      type: "gaussian"
      std: 0.01
    }
    bias_filler {
      type: "constant"
      value: 0.1
    }
  }
}
layer {
  name: "relu5"
  type: "ReLU"
  bottom: "conv5"
  top: "conv5"
}
layer {
  name: "pool5"
  type: "Pooling"
  bottom: "conv5"
  top: "pool5"
  pooling_param {
    pool: MAX
    kernel_size: 3
    stride: 2
  }
}
layer {
  name: "fc6"
  type: "InnerProduct"
  bottom: "pool5"
  top: "fc6"
  param {
    lr_mult: 1
    decay_mult: 1
  }
  param {
    lr_mult: 2
    decay_mult: 0
  }
  inner_product_param {
    num_output: 4096
    weight_filler {
      type: "gaussian"
      std: 0.005
    }
    bias_filler {
      type: "constant"
      value: 0.1
    }
  }
}
layer {
  name: "relu6"
  type: "ReLU"
  bottom: "fc6"
  top: "fc6"
}
layer {
  name: "drop6"
  type: "Dropout"
  bottom: "fc6"
  top: "fc6"
  dropout_param {
    dropout_ratio: 0.5
  }
}
layer {
  name: "fc7"
  type: "InnerProduct"
  bottom: "fc6"
  top: "fc7"
  param {
    lr_mult: 1
    decay_mult: 1
  }
  param {
    lr_mult: 2
    decay_mult: 0
  }
  inner_product_param {
    num_output: 4096
    weight_filler {
      type: "gaussian"
      std: 0.005
    }
    bias_filler {
      type: "constant"
      value: 0.1
    }
  }
}
layer {
  name: "relu7"
  type: "ReLU"
  bottom: "fc7"
  top: "fc7"
}
layer {
  name: "drop7"
  type: "Dropout"
  bottom: "fc7"
  top: "fc7"
  dropout_param {
    dropout_ratio: 0.5
  }
}
layer {
  name: "fc8_plantvillage"
  type: "InnerProduct"
  bottom: "fc7"
  top: "fc8_plantvillage"
  param {
    lr_mult: 1
    decay_mult: 1
  }
  param {
    lr_mult: 2
    decay_mult: 0
  }
  inner_product_param {
    num_output: 38
    weight_filler {
      type: "gaussian"
      std: 0.01
    }
    bias_filler {
      type: "constant"
      value: 0
    }
  }
}
layer {
  name: "prob"
  type: "Softmax"
  bottom: "fc8_plantvillage"
  top: "prob"
  include {
    phase: TEST
  }
}
layer {
  name: "hdf5out"
  type: "HDF5Output"
  bottom: "prob"
  bottom: "label"
  include {
    phase: TEST
  }
  hdf5_output_param {
    file_name: "hdf5_dumps/iter_7429.h5"
  }
}
layer {
  name: "loss"
  type: "SoftmaxWithLoss"
  bottom: "fc8_plantvillage"
  bottom: "label"
  top: "loss"
}
layer {
  name: "accuracy"
  type: "Accuracy"
  bottom: "fc8_plantvillage"
  bottom: "label"
  top: "accuracy"
  include {
    phase: TEST
  }
}
I0403 15:07:12.120915 18277 layer_factory.hpp:77] Creating layer data
I0403 15:07:12.121575 18277 net.cpp:91] Creating Layer data
I0403 15:07:12.121608 18277 net.cpp:399] data -> data
I0403 15:07:12.121657 18277 net.cpp:399] data -> label
I0403 15:07:12.121693 18277 data_transformer.cpp:25] Loading mean file from: /home/mohanty/data/final_dataset/lmdb/color-80-20/mean.binaryproto
I0403 15:07:12.124397 18280 db_lmdb.cpp:38] Opened lmdb /home/mohanty/data/final_dataset/lmdb/color-80-20/test_db
I0403 15:07:12.136387 18277 data_layer.cpp:41] output data size: 100,3,227,227
I0403 15:07:12.256903 18277 net.cpp:141] Setting up data
I0403 15:07:12.257010 18277 net.cpp:148] Top shape: 100 3 227 227 (15458700)
I0403 15:07:12.257032 18277 net.cpp:148] Top shape: 100 (100)
I0403 15:07:12.257051 18277 net.cpp:156] Memory required for data: 61835200
I0403 15:07:12.257081 18277 layer_factory.hpp:77] Creating layer label_data_1_split
I0403 15:07:12.257105 18277 net.cpp:91] Creating Layer label_data_1_split
I0403 15:07:12.257123 18277 net.cpp:425] label_data_1_split <- label
I0403 15:07:12.257154 18277 net.cpp:399] label_data_1_split -> label_data_1_split_0
I0403 15:07:12.257180 18277 net.cpp:399] label_data_1_split -> label_data_1_split_1
I0403 15:07:12.257200 18277 net.cpp:399] label_data_1_split -> label_data_1_split_2
I0403 15:07:12.257261 18277 net.cpp:141] Setting up label_data_1_split
I0403 15:07:12.257284 18277 net.cpp:148] Top shape: 100 (100)
I0403 15:07:12.257302 18277 net.cpp:148] Top shape: 100 (100)
I0403 15:07:12.257316 18277 net.cpp:148] Top shape: 100 (100)
I0403 15:07:12.257330 18277 net.cpp:156] Memory required for data: 61836400
I0403 15:07:12.257345 18277 layer_factory.hpp:77] Creating layer conv1
I0403 15:07:12.257376 18277 net.cpp:91] Creating Layer conv1
I0403 15:07:12.257395 18277 net.cpp:425] conv1 <- data
I0403 15:07:12.257413 18277 net.cpp:399] conv1 -> conv1
I0403 15:07:12.401062 18277 net.cpp:141] Setting up conv1
I0403 15:07:12.401150 18277 net.cpp:148] Top shape: 100 96 55 55 (29040000)
I0403 15:07:12.401167 18277 net.cpp:156] Memory required for data: 177996400
I0403 15:07:12.401198 18277 layer_factory.hpp:77] Creating layer relu1
I0403 15:07:12.401227 18277 net.cpp:91] Creating Layer relu1
I0403 15:07:12.401248 18277 net.cpp:425] relu1 <- conv1
I0403 15:07:12.401271 18277 net.cpp:386] relu1 -> conv1 (in-place)
I0403 15:07:12.401535 18277 net.cpp:141] Setting up relu1
I0403 15:07:12.401562 18277 net.cpp:148] Top shape: 100 96 55 55 (29040000)
I0403 15:07:12.401577 18277 net.cpp:156] Memory required for data: 294156400
I0403 15:07:12.401623 18277 layer_factory.hpp:77] Creating layer norm1
I0403 15:07:12.401653 18277 net.cpp:91] Creating Layer norm1
I0403 15:07:12.401670 18277 net.cpp:425] norm1 <- conv1
I0403 15:07:12.401689 18277 net.cpp:399] norm1 -> norm1
I0403 15:07:12.402001 18277 net.cpp:141] Setting up norm1
I0403 15:07:12.402034 18277 net.cpp:148] Top shape: 100 96 55 55 (29040000)
I0403 15:07:12.402051 18277 net.cpp:156] Memory required for data: 410316400
I0403 15:07:12.402066 18277 layer_factory.hpp:77] Creating layer pool1
I0403 15:07:12.402089 18277 net.cpp:91] Creating Layer pool1
I0403 15:07:12.402106 18277 net.cpp:425] pool1 <- norm1
I0403 15:07:12.402123 18277 net.cpp:399] pool1 -> pool1
I0403 15:07:12.402191 18277 net.cpp:141] Setting up pool1
I0403 15:07:12.402215 18277 net.cpp:148] Top shape: 100 96 27 27 (6998400)
I0403 15:07:12.402230 18277 net.cpp:156] Memory required for data: 438310000
I0403 15:07:12.402246 18277 layer_factory.hpp:77] Creating layer conv2
I0403 15:07:12.402271 18277 net.cpp:91] Creating Layer conv2
I0403 15:07:12.402287 18277 net.cpp:425] conv2 <- pool1
I0403 15:07:12.402305 18277 net.cpp:399] conv2 -> conv2
I0403 15:07:12.417415 18277 net.cpp:141] Setting up conv2
I0403 15:07:12.417454 18277 net.cpp:148] Top shape: 100 256 27 27 (18662400)
I0403 15:07:12.417471 18277 net.cpp:156] Memory required for data: 512959600
I0403 15:07:12.417492 18277 layer_factory.hpp:77] Creating layer relu2
I0403 15:07:12.417511 18277 net.cpp:91] Creating Layer relu2
I0403 15:07:12.417527 18277 net.cpp:425] relu2 <- conv2
I0403 15:07:12.417547 18277 net.cpp:386] relu2 -> conv2 (in-place)
I0403 15:07:12.417830 18277 net.cpp:141] Setting up relu2
I0403 15:07:12.417857 18277 net.cpp:148] Top shape: 100 256 27 27 (18662400)
I0403 15:07:12.417872 18277 net.cpp:156] Memory required for data: 587609200
I0403 15:07:12.417888 18277 layer_factory.hpp:77] Creating layer norm2
I0403 15:07:12.417911 18277 net.cpp:91] Creating Layer norm2
I0403 15:07:12.417927 18277 net.cpp:425] norm2 <- conv2
I0403 15:07:12.417946 18277 net.cpp:399] norm2 -> norm2
I0403 15:07:12.418157 18277 net.cpp:141] Setting up norm2
I0403 15:07:12.418184 18277 net.cpp:148] Top shape: 100 256 27 27 (18662400)
I0403 15:07:12.418197 18277 net.cpp:156] Memory required for data: 662258800
I0403 15:07:12.418213 18277 layer_factory.hpp:77] Creating layer pool2
I0403 15:07:12.418231 18277 net.cpp:91] Creating Layer pool2
I0403 15:07:12.418248 18277 net.cpp:425] pool2 <- norm2
I0403 15:07:12.418267 18277 net.cpp:399] pool2 -> pool2
I0403 15:07:12.418321 18277 net.cpp:141] Setting up pool2
I0403 15:07:12.418344 18277 net.cpp:148] Top shape: 100 256 13 13 (4326400)
I0403 15:07:12.418359 18277 net.cpp:156] Memory required for data: 679564400
I0403 15:07:12.418373 18277 layer_factory.hpp:77] Creating layer conv3
I0403 15:07:12.418401 18277 net.cpp:91] Creating Layer conv3
I0403 15:07:12.418417 18277 net.cpp:425] conv3 <- pool2
I0403 15:07:12.418436 18277 net.cpp:399] conv3 -> conv3
I0403 15:07:12.460778 18277 net.cpp:141] Setting up conv3
I0403 15:07:12.460825 18277 net.cpp:148] Top shape: 100 384 13 13 (6489600)
I0403 15:07:12.460844 18277 net.cpp:156] Memory required for data: 705522800
I0403 15:07:12.460870 18277 layer_factory.hpp:77] Creating layer relu3
I0403 15:07:12.460892 18277 net.cpp:91] Creating Layer relu3
I0403 15:07:12.460909 18277 net.cpp:425] relu3 <- conv3
I0403 15:07:12.460932 18277 net.cpp:386] relu3 -> conv3 (in-place)
I0403 15:07:12.461215 18277 net.cpp:141] Setting up relu3
I0403 15:07:12.461252 18277 net.cpp:148] Top shape: 100 384 13 13 (6489600)
I0403 15:07:12.461267 18277 net.cpp:156] Memory required for data: 731481200
I0403 15:07:12.461282 18277 layer_factory.hpp:77] Creating layer conv4
I0403 15:07:12.461308 18277 net.cpp:91] Creating Layer conv4
I0403 15:07:12.461325 18277 net.cpp:425] conv4 <- conv3
I0403 15:07:12.461346 18277 net.cpp:399] conv4 -> conv4
I0403 15:07:12.490236 18277 net.cpp:141] Setting up conv4
I0403 15:07:12.490285 18277 net.cpp:148] Top shape: 100 384 13 13 (6489600)
I0403 15:07:12.490334 18277 net.cpp:156] Memory required for data: 757439600
I0403 15:07:12.490355 18277 layer_factory.hpp:77] Creating layer relu4
I0403 15:07:12.490376 18277 net.cpp:91] Creating Layer relu4
I0403 15:07:12.490393 18277 net.cpp:425] relu4 <- conv4
I0403 15:07:12.490414 18277 net.cpp:386] relu4 -> conv4 (in-place)
I0403 15:07:12.490686 18277 net.cpp:141] Setting up relu4
I0403 15:07:12.490715 18277 net.cpp:148] Top shape: 100 384 13 13 (6489600)
I0403 15:07:12.490731 18277 net.cpp:156] Memory required for data: 783398000
I0403 15:07:12.490744 18277 layer_factory.hpp:77] Creating layer conv5
I0403 15:07:12.490768 18277 net.cpp:91] Creating Layer conv5
I0403 15:07:12.490785 18277 net.cpp:425] conv5 <- conv4
I0403 15:07:12.490803 18277 net.cpp:399] conv5 -> conv5
I0403 15:07:12.510912 18277 net.cpp:141] Setting up conv5
I0403 15:07:12.510953 18277 net.cpp:148] Top shape: 100 256 13 13 (4326400)
I0403 15:07:12.510968 18277 net.cpp:156] Memory required for data: 800703600
I0403 15:07:12.510993 18277 layer_factory.hpp:77] Creating layer relu5
I0403 15:07:12.511013 18277 net.cpp:91] Creating Layer relu5
I0403 15:07:12.511034 18277 net.cpp:425] relu5 <- conv5
I0403 15:07:12.511054 18277 net.cpp:386] relu5 -> conv5 (in-place)
I0403 15:07:12.511342 18277 net.cpp:141] Setting up relu5
I0403 15:07:12.511368 18277 net.cpp:148] Top shape: 100 256 13 13 (4326400)
I0403 15:07:12.511384 18277 net.cpp:156] Memory required for data: 818009200
I0403 15:07:12.511399 18277 layer_factory.hpp:77] Creating layer pool5
I0403 15:07:12.511425 18277 net.cpp:91] Creating Layer pool5
I0403 15:07:12.511443 18277 net.cpp:425] pool5 <- conv5
I0403 15:07:12.511461 18277 net.cpp:399] pool5 -> pool5
I0403 15:07:12.511523 18277 net.cpp:141] Setting up pool5
I0403 15:07:12.511549 18277 net.cpp:148] Top shape: 100 256 6 6 (921600)
I0403 15:07:12.511564 18277 net.cpp:156] Memory required for data: 821695600
I0403 15:07:12.511579 18277 layer_factory.hpp:77] Creating layer fc6
I0403 15:07:12.511606 18277 net.cpp:91] Creating Layer fc6
I0403 15:07:12.511623 18277 net.cpp:425] fc6 <- pool5
I0403 15:07:12.511644 18277 net.cpp:399] fc6 -> fc6
I0403 15:07:14.048166 18277 net.cpp:141] Setting up fc6
I0403 15:07:14.048208 18277 net.cpp:148] Top shape: 100 4096 (409600)
I0403 15:07:14.048225 18277 net.cpp:156] Memory required for data: 823334000
I0403 15:07:14.048245 18277 layer_factory.hpp:77] Creating layer relu6
I0403 15:07:14.048270 18277 net.cpp:91] Creating Layer relu6
I0403 15:07:14.048287 18277 net.cpp:425] relu6 <- fc6
I0403 15:07:14.048307 18277 net.cpp:386] relu6 -> fc6 (in-place)
I0403 15:07:14.048530 18277 net.cpp:141] Setting up relu6
I0403 15:07:14.048555 18277 net.cpp:148] Top shape: 100 4096 (409600)
I0403 15:07:14.048570 18277 net.cpp:156] Memory required for data: 824972400
I0403 15:07:14.048585 18277 layer_factory.hpp:77] Creating layer drop6
I0403 15:07:14.048604 18277 net.cpp:91] Creating Layer drop6
I0403 15:07:14.048620 18277 net.cpp:425] drop6 <- fc6
I0403 15:07:14.048640 18277 net.cpp:386] drop6 -> fc6 (in-place)
I0403 15:07:14.048691 18277 net.cpp:141] Setting up drop6
I0403 15:07:14.048717 18277 net.cpp:148] Top shape: 100 4096 (409600)
I0403 15:07:14.048733 18277 net.cpp:156] Memory required for data: 826610800
I0403 15:07:14.048749 18277 layer_factory.hpp:77] Creating layer fc7
I0403 15:07:14.048769 18277 net.cpp:91] Creating Layer fc7
I0403 15:07:14.048785 18277 net.cpp:425] fc7 <- fc6
I0403 15:07:14.048805 18277 net.cpp:399] fc7 -> fc7
I0403 15:07:14.726737 18277 net.cpp:141] Setting up fc7
I0403 15:07:14.726819 18277 net.cpp:148] Top shape: 100 4096 (409600)
I0403 15:07:14.726835 18277 net.cpp:156] Memory required for data: 828249200
I0403 15:07:14.726855 18277 layer_factory.hpp:77] Creating layer relu7
I0403 15:07:14.726876 18277 net.cpp:91] Creating Layer relu7
I0403 15:07:14.726894 18277 net.cpp:425] relu7 <- fc7
I0403 15:07:14.726915 18277 net.cpp:386] relu7 -> fc7 (in-place)
I0403 15:07:14.727334 18277 net.cpp:141] Setting up relu7
I0403 15:07:14.727360 18277 net.cpp:148] Top shape: 100 4096 (409600)
I0403 15:07:14.727418 18277 net.cpp:156] Memory required for data: 829887600
I0403 15:07:14.727434 18277 layer_factory.hpp:77] Creating layer drop7
I0403 15:07:14.727453 18277 net.cpp:91] Creating Layer drop7
I0403 15:07:14.727469 18277 net.cpp:425] drop7 <- fc7
I0403 15:07:14.727489 18277 net.cpp:386] drop7 -> fc7 (in-place)
I0403 15:07:14.727535 18277 net.cpp:141] Setting up drop7
I0403 15:07:14.727557 18277 net.cpp:148] Top shape: 100 4096 (409600)
I0403 15:07:14.727571 18277 net.cpp:156] Memory required for data: 831526000
I0403 15:07:14.727586 18277 layer_factory.hpp:77] Creating layer fc8_plantvillage
I0403 15:07:14.727608 18277 net.cpp:91] Creating Layer fc8_plantvillage
I0403 15:07:14.727625 18277 net.cpp:425] fc8_plantvillage <- fc7
I0403 15:07:14.727645 18277 net.cpp:399] fc8_plantvillage -> fc8_plantvillage
I0403 15:07:14.734426 18277 net.cpp:141] Setting up fc8_plantvillage
I0403 15:07:14.734455 18277 net.cpp:148] Top shape: 100 38 (3800)
I0403 15:07:14.734469 18277 net.cpp:156] Memory required for data: 831541200
I0403 15:07:14.734488 18277 layer_factory.hpp:77] Creating layer fc8_plantvillage_fc8_plantvillage_0_split
I0403 15:07:14.734504 18277 net.cpp:91] Creating Layer fc8_plantvillage_fc8_plantvillage_0_split
I0403 15:07:14.734525 18277 net.cpp:425] fc8_plantvillage_fc8_plantvillage_0_split <- fc8_plantvillage
I0403 15:07:14.734549 18277 net.cpp:399] fc8_plantvillage_fc8_plantvillage_0_split -> fc8_plantvillage_fc8_plantvillage_0_split_0
I0403 15:07:14.734570 18277 net.cpp:399] fc8_plantvillage_fc8_plantvillage_0_split -> fc8_plantvillage_fc8_plantvillage_0_split_1
I0403 15:07:14.734588 18277 net.cpp:399] fc8_plantvillage_fc8_plantvillage_0_split -> fc8_plantvillage_fc8_plantvillage_0_split_2
I0403 15:07:14.734664 18277 net.cpp:141] Setting up fc8_plantvillage_fc8_plantvillage_0_split
I0403 15:07:14.734688 18277 net.cpp:148] Top shape: 100 38 (3800)
I0403 15:07:14.734704 18277 net.cpp:148] Top shape: 100 38 (3800)
I0403 15:07:14.734726 18277 net.cpp:148] Top shape: 100 38 (3800)
I0403 15:07:14.734740 18277 net.cpp:156] Memory required for data: 831586800
I0403 15:07:14.734762 18277 layer_factory.hpp:77] Creating layer prob
I0403 15:07:14.734781 18277 net.cpp:91] Creating Layer prob
I0403 15:07:14.734796 18277 net.cpp:425] prob <- fc8_plantvillage_fc8_plantvillage_0_split_0
I0403 15:07:14.734815 18277 net.cpp:399] prob -> prob
I0403 15:07:14.735054 18277 net.cpp:141] Setting up prob
I0403 15:07:14.735082 18277 net.cpp:148] Top shape: 100 38 (3800)
I0403 15:07:14.735105 18277 net.cpp:156] Memory required for data: 831602000
I0403 15:07:14.735126 18277 layer_factory.hpp:77] Creating layer hdf5out
I0403 15:07:14.735146 18277 net.cpp:91] Creating Layer hdf5out
I0403 15:07:14.735160 18277 net.cpp:425] hdf5out <- prob
I0403 15:07:14.735177 18277 net.cpp:425] hdf5out <- label_data_1_split_0
I0403 15:07:14.737294 18277 net.cpp:141] Setting up hdf5out
…
