…
I0403 15:09:17.867661 18339 net.cpp:313] The NetState phase (1) differed from the phase (0) specified by a rule in layer data
I0403 15:09:17.867991 18339 net.cpp:49] Initializing net from parameters: 
state {
  phase: TEST
}
layer {
  name: "data"
  type: "Data"
  top: "data"
  top: "label"
  include {
    phase: TEST
  }
  transform_param {
    crop_size: 227
    mean_file: "/home/mohanty/data/final_dataset/lmdb/color-80-20/mean.binaryproto"
  }
  data_param {
    source: "/home/mohanty/data/final_dataset/lmdb/color-80-20/test_db"
    batch_size: 100
    backend: LMDB
  }
}
layer {
  name: "conv1"
  type: "Convolution"
  bottom: "data"
  top: "conv1"
  param {
    lr_mult: 1
    decay_mult: 1
  }
  param {
    lr_mult: 2
    decay_mult: 0
  }
  convolution_param {
    num_output: 96
    kernel_size: 11
    stride: 4
    weight_filler {
      type: "gaussian"
      std: 0.01
    }
    bias_filler {
      type: "constant"
      value: 0
    }
  }
}
layer {
  name: "relu1"
  type: "ReLU"
  bottom: "conv1"
  top: "conv1"
}
layer {
  name: "norm1"
  type: "LRN"
  bottom: "conv1"
  top: "norm1"
  lrn_param {
    local_size: 5
    alpha: 0.0001
    beta: 0.75
  }
}
layer {
  name: "pool1"
  type: "Pooling"
  bottom: "norm1"
  top: "pool1"
  pooling_param {
    pool: MAX
    kernel_size: 3
    stride: 2
  }
}
layer {
  name: "conv2"
  type: "Convolution"
  bottom: "pool1"
  top: "conv2"
  param {
    lr_mult: 1
    decay_mult: 1
  }
  param {
    lr_mult: 2
    decay_mult: 0
  }
  convolution_param {
    num_output: 256
    pad: 2
    kernel_size: 5
    group: 2
    weight_filler {
      type: "gaussian"
      std: 0.01
    }
    bias_filler {
      type: "constant"
      value: 0.1
    }
  }
}
layer {
  name: "relu2"
  type: "ReLU"
  bottom: "conv2"
  top: "conv2"
}
layer {
  name: "norm2"
  type: "LRN"
  bottom: "conv2"
  top: "norm2"
  lrn_param {
    local_size: 5
    alpha: 0.0001
    beta: 0.75
  }
}
layer {
  name: "pool2"
  type: "Pooling"
  bottom: "norm2"
  top: "pool2"
  pooling_param {
    pool: MAX
    kernel_size: 3
    stride: 2
  }
}
layer {
  name: "conv3"
  type: "Convolution"
  bottom: "pool2"
  top: "conv3"
  param {
    lr_mult: 1
    decay_mult: 1
  }
  param {
    lr_mult: 2
    decay_mult: 0
  }
  convolution_param {
    num_output: 384
    pad: 1
    kernel_size: 3
    weight_filler {
      type: "gaussian"
      std: 0.01
    }
    bias_filler {
      type: "constant"
      value: 0
    }
  }
}
layer {
  name: "relu3"
  type: "ReLU"
  bottom: "conv3"
  top: "conv3"
}
layer {
  name: "conv4"
  type: "Convolution"
  bottom: "conv3"
  top: "conv4"
  param {
    lr_mult: 1
    decay_mult: 1
  }
  param {
    lr_mult: 2
    decay_mult: 0
  }
  convolution_param {
    num_output: 384
    pad: 1
    kernel_size: 3
    group: 2
    weight_filler {
      type: "gaussian"
      std: 0.01
    }
    bias_filler {
      type: "constant"
      value: 0.1
    }
  }
}
layer {
  name: "relu4"
  type: "ReLU"
  bottom: "conv4"
  top: "conv4"
}
layer {
  name: "conv5"
  type: "Convolution"
  bottom: "conv4"
  top: "conv5"
  param {
    lr_mult: 1
    decay_mult: 1
  }
  param {
    lr_mult: 2
    decay_mult: 0
  }
  convolution_param {
    num_output: 256
    pad: 1
    kernel_size: 3
    group: 2
    weight_filler {
      type: "gaussian"
      std: 0.01
    }
    bias_filler {
      type: "constant"
      value: 0.1
    }
  }
}
layer {
  name: "relu5"
  type: "ReLU"
  bottom: "conv5"
  top: "conv5"
}
layer {
  name: "pool5"
  type: "Pooling"
  bottom: "conv5"
  top: "pool5"
  pooling_param {
    pool: MAX
    kernel_size: 3
    stride: 2
  }
}
layer {
  name: "fc6"
  type: "InnerProduct"
  bottom: "pool5"
  top: "fc6"
  param {
    lr_mult: 1
    decay_mult: 1
  }
  param {
    lr_mult: 2
    decay_mult: 0
  }
  inner_product_param {
    num_output: 4096
    weight_filler {
      type: "gaussian"
      std: 0.005
    }
    bias_filler {
      type: "constant"
      value: 0.1
    }
  }
}
layer {
  name: "relu6"
  type: "ReLU"
  bottom: "fc6"
  top: "fc6"
}
layer {
  name: "drop6"
  type: "Dropout"
  bottom: "fc6"
  top: "fc6"
  dropout_param {
    dropout_ratio: 0.5
  }
}
layer {
  name: "fc7"
  type: "InnerProduct"
  bottom: "fc6"
  top: "fc7"
  param {
    lr_mult: 1
    decay_mult: 1
  }
  param {
    lr_mult: 2
    decay_mult: 0
  }
  inner_product_param {
    num_output: 4096
    weight_filler {
      type: "gaussian"
      std: 0.005
    }
    bias_filler {
      type: "constant"
      value: 0.1
    }
  }
}
layer {
  name: "relu7"
  type: "ReLU"
  bottom: "fc7"
  top: "fc7"
}
layer {
  name: "drop7"
  type: "Dropout"
  bottom: "fc7"
  top: "fc7"
  dropout_param {
    dropout_ratio: 0.5
  }
}
layer {
  name: "fc8_plantvillage"
  type: "InnerProduct"
  bottom: "fc7"
  top: "fc8_plantvillage"
  param {
    lr_mult: 1
    decay_mult: 1
  }
  param {
    lr_mult: 2
    decay_mult: 0
  }
  inner_product_param {
    num_output: 38
    weight_filler {
      type: "gaussian"
      std: 0.01
    }
    bias_filler {
      type: "constant"
      value: 0
    }
  }
}
layer {
  name: "prob"
  type: "Softmax"
  bottom: "fc8_plantvillage"
  top: "prob"
  include {
    phase: TEST
  }
}
layer {
  name: "hdf5out"
  type: "HDF5Output"
  bottom: "prob"
  bottom: "label"
  include {
    phase: TEST
  }
  hdf5_output_param {
    file_name: "hdf5_dumps/iter_9614.h5"
  }
}
layer {
  name: "loss"
  type: "SoftmaxWithLoss"
  bottom: "fc8_plantvillage"
  bottom: "label"
  top: "loss"
}
layer {
  name: "accuracy"
  type: "Accuracy"
  bottom: "fc8_plantvillage"
  bottom: "label"
  top: "accuracy"
  include {
    phase: TEST
  }
}
I0403 15:09:17.868538 18339 layer_factory.hpp:77] Creating layer data
I0403 15:09:17.869196 18339 net.cpp:91] Creating Layer data
I0403 15:09:17.869230 18339 net.cpp:399] data -> data
I0403 15:09:17.869280 18339 net.cpp:399] data -> label
I0403 15:09:17.869316 18339 data_transformer.cpp:25] Loading mean file from: /home/mohanty/data/final_dataset/lmdb/color-80-20/mean.binaryproto
I0403 15:09:17.871693 18342 db_lmdb.cpp:38] Opened lmdb /home/mohanty/data/final_dataset/lmdb/color-80-20/test_db
I0403 15:09:17.883802 18339 data_layer.cpp:41] output data size: 100,3,227,227
I0403 15:09:18.009567 18339 net.cpp:141] Setting up data
I0403 15:09:18.009629 18339 net.cpp:148] Top shape: 100 3 227 227 (15458700)
I0403 15:09:18.009651 18339 net.cpp:148] Top shape: 100 (100)
I0403 15:09:18.009667 18339 net.cpp:156] Memory required for data: 61835200
I0403 15:09:18.009696 18339 layer_factory.hpp:77] Creating layer label_data_1_split
I0403 15:09:18.009722 18339 net.cpp:91] Creating Layer label_data_1_split
I0403 15:09:18.009740 18339 net.cpp:425] label_data_1_split <- label
I0403 15:09:18.009773 18339 net.cpp:399] label_data_1_split -> label_data_1_split_0
I0403 15:09:18.009801 18339 net.cpp:399] label_data_1_split -> label_data_1_split_1
I0403 15:09:18.009821 18339 net.cpp:399] label_data_1_split -> label_data_1_split_2
I0403 15:09:18.009886 18339 net.cpp:141] Setting up label_data_1_split
I0403 15:09:18.009908 18339 net.cpp:148] Top shape: 100 (100)
I0403 15:09:18.009925 18339 net.cpp:148] Top shape: 100 (100)
I0403 15:09:18.009941 18339 net.cpp:148] Top shape: 100 (100)
I0403 15:09:18.009955 18339 net.cpp:156] Memory required for data: 61836400
I0403 15:09:18.009970 18339 layer_factory.hpp:77] Creating layer conv1
I0403 15:09:18.010004 18339 net.cpp:91] Creating Layer conv1
I0403 15:09:18.010022 18339 net.cpp:425] conv1 <- data
I0403 15:09:18.010042 18339 net.cpp:399] conv1 -> conv1
I0403 15:09:18.158251 18339 net.cpp:141] Setting up conv1
I0403 15:09:18.158336 18339 net.cpp:148] Top shape: 100 96 55 55 (29040000)
I0403 15:09:18.158354 18339 net.cpp:156] Memory required for data: 177996400
I0403 15:09:18.158385 18339 layer_factory.hpp:77] Creating layer relu1
I0403 15:09:18.158413 18339 net.cpp:91] Creating Layer relu1
I0403 15:09:18.158432 18339 net.cpp:425] relu1 <- conv1
I0403 15:09:18.158452 18339 net.cpp:386] relu1 -> conv1 (in-place)
I0403 15:09:18.158715 18339 net.cpp:141] Setting up relu1
I0403 15:09:18.158743 18339 net.cpp:148] Top shape: 100 96 55 55 (29040000)
I0403 15:09:18.158761 18339 net.cpp:156] Memory required for data: 294156400
I0403 15:09:18.158808 18339 layer_factory.hpp:77] Creating layer norm1
I0403 15:09:18.158839 18339 net.cpp:91] Creating Layer norm1
I0403 15:09:18.158859 18339 net.cpp:425] norm1 <- conv1
I0403 15:09:18.158877 18339 net.cpp:399] norm1 -> norm1
I0403 15:09:18.159214 18339 net.cpp:141] Setting up norm1
I0403 15:09:18.159243 18339 net.cpp:148] Top shape: 100 96 55 55 (29040000)
I0403 15:09:18.159260 18339 net.cpp:156] Memory required for data: 410316400
I0403 15:09:18.159276 18339 layer_factory.hpp:77] Creating layer pool1
I0403 15:09:18.159310 18339 net.cpp:91] Creating Layer pool1
I0403 15:09:18.159332 18339 net.cpp:425] pool1 <- norm1
I0403 15:09:18.159355 18339 net.cpp:399] pool1 -> pool1
I0403 15:09:18.159427 18339 net.cpp:141] Setting up pool1
I0403 15:09:18.159452 18339 net.cpp:148] Top shape: 100 96 27 27 (6998400)
I0403 15:09:18.159467 18339 net.cpp:156] Memory required for data: 438310000
I0403 15:09:18.159483 18339 layer_factory.hpp:77] Creating layer conv2
I0403 15:09:18.159507 18339 net.cpp:91] Creating Layer conv2
I0403 15:09:18.159523 18339 net.cpp:425] conv2 <- pool1
I0403 15:09:18.159541 18339 net.cpp:399] conv2 -> conv2
I0403 15:09:18.174935 18339 net.cpp:141] Setting up conv2
I0403 15:09:18.174971 18339 net.cpp:148] Top shape: 100 256 27 27 (18662400)
I0403 15:09:18.174988 18339 net.cpp:156] Memory required for data: 512959600
I0403 15:09:18.175010 18339 layer_factory.hpp:77] Creating layer relu2
I0403 15:09:18.175035 18339 net.cpp:91] Creating Layer relu2
I0403 15:09:18.175051 18339 net.cpp:425] relu2 <- conv2
I0403 15:09:18.175072 18339 net.cpp:386] relu2 -> conv2 (in-place)
I0403 15:09:18.175364 18339 net.cpp:141] Setting up relu2
I0403 15:09:18.175391 18339 net.cpp:148] Top shape: 100 256 27 27 (18662400)
I0403 15:09:18.175407 18339 net.cpp:156] Memory required for data: 587609200
I0403 15:09:18.175422 18339 layer_factory.hpp:77] Creating layer norm2
I0403 15:09:18.175446 18339 net.cpp:91] Creating Layer norm2
I0403 15:09:18.175462 18339 net.cpp:425] norm2 <- conv2
I0403 15:09:18.175484 18339 net.cpp:399] norm2 -> norm2
I0403 15:09:18.175693 18339 net.cpp:141] Setting up norm2
I0403 15:09:18.175720 18339 net.cpp:148] Top shape: 100 256 27 27 (18662400)
I0403 15:09:18.175735 18339 net.cpp:156] Memory required for data: 662258800
I0403 15:09:18.175750 18339 layer_factory.hpp:77] Creating layer pool2
I0403 15:09:18.175771 18339 net.cpp:91] Creating Layer pool2
I0403 15:09:18.175788 18339 net.cpp:425] pool2 <- norm2
I0403 15:09:18.175815 18339 net.cpp:399] pool2 -> pool2
I0403 15:09:18.175875 18339 net.cpp:141] Setting up pool2
I0403 15:09:18.175899 18339 net.cpp:148] Top shape: 100 256 13 13 (4326400)
I0403 15:09:18.175915 18339 net.cpp:156] Memory required for data: 679564400
I0403 15:09:18.175930 18339 layer_factory.hpp:77] Creating layer conv3
I0403 15:09:18.175954 18339 net.cpp:91] Creating Layer conv3
I0403 15:09:18.175972 18339 net.cpp:425] conv3 <- pool2
I0403 15:09:18.175992 18339 net.cpp:399] conv3 -> conv3
I0403 15:09:18.219388 18339 net.cpp:141] Setting up conv3
I0403 15:09:18.219466 18339 net.cpp:148] Top shape: 100 384 13 13 (6489600)
I0403 15:09:18.219483 18339 net.cpp:156] Memory required for data: 705522800
I0403 15:09:18.219509 18339 layer_factory.hpp:77] Creating layer relu3
I0403 15:09:18.219532 18339 net.cpp:91] Creating Layer relu3
I0403 15:09:18.219554 18339 net.cpp:425] relu3 <- conv3
I0403 15:09:18.219574 18339 net.cpp:386] relu3 -> conv3 (in-place)
I0403 15:09:18.219868 18339 net.cpp:141] Setting up relu3
I0403 15:09:18.219897 18339 net.cpp:148] Top shape: 100 384 13 13 (6489600)
I0403 15:09:18.219912 18339 net.cpp:156] Memory required for data: 731481200
I0403 15:09:18.219928 18339 layer_factory.hpp:77] Creating layer conv4
I0403 15:09:18.219954 18339 net.cpp:91] Creating Layer conv4
I0403 15:09:18.219974 18339 net.cpp:425] conv4 <- conv3
I0403 15:09:18.219995 18339 net.cpp:399] conv4 -> conv4
I0403 15:09:18.250684 18339 net.cpp:141] Setting up conv4
I0403 15:09:18.250753 18339 net.cpp:148] Top shape: 100 384 13 13 (6489600)
I0403 15:09:18.250803 18339 net.cpp:156] Memory required for data: 757439600
I0403 15:09:18.250828 18339 layer_factory.hpp:77] Creating layer relu4
I0403 15:09:18.250850 18339 net.cpp:91] Creating Layer relu4
I0403 15:09:18.250867 18339 net.cpp:425] relu4 <- conv4
I0403 15:09:18.250890 18339 net.cpp:386] relu4 -> conv4 (in-place)
I0403 15:09:18.251183 18339 net.cpp:141] Setting up relu4
I0403 15:09:18.251215 18339 net.cpp:148] Top shape: 100 384 13 13 (6489600)
I0403 15:09:18.251232 18339 net.cpp:156] Memory required for data: 783398000
I0403 15:09:18.251247 18339 layer_factory.hpp:77] Creating layer conv5
I0403 15:09:18.251271 18339 net.cpp:91] Creating Layer conv5
I0403 15:09:18.251289 18339 net.cpp:425] conv5 <- conv4
I0403 15:09:18.251309 18339 net.cpp:399] conv5 -> conv5
I0403 15:09:18.272390 18339 net.cpp:141] Setting up conv5
I0403 15:09:18.272424 18339 net.cpp:148] Top shape: 100 256 13 13 (4326400)
I0403 15:09:18.272440 18339 net.cpp:156] Memory required for data: 800703600
I0403 15:09:18.272464 18339 layer_factory.hpp:77] Creating layer relu5
I0403 15:09:18.272483 18339 net.cpp:91] Creating Layer relu5
I0403 15:09:18.272500 18339 net.cpp:425] relu5 <- conv5
I0403 15:09:18.272521 18339 net.cpp:386] relu5 -> conv5 (in-place)
I0403 15:09:18.272814 18339 net.cpp:141] Setting up relu5
I0403 15:09:18.272842 18339 net.cpp:148] Top shape: 100 256 13 13 (4326400)
I0403 15:09:18.272858 18339 net.cpp:156] Memory required for data: 818009200
I0403 15:09:18.272873 18339 layer_factory.hpp:77] Creating layer pool5
I0403 15:09:18.272899 18339 net.cpp:91] Creating Layer pool5
I0403 15:09:18.272917 18339 net.cpp:425] pool5 <- conv5
I0403 15:09:18.272938 18339 net.cpp:399] pool5 -> pool5
I0403 15:09:18.273000 18339 net.cpp:141] Setting up pool5
I0403 15:09:18.273035 18339 net.cpp:148] Top shape: 100 256 6 6 (921600)
I0403 15:09:18.273059 18339 net.cpp:156] Memory required for data: 821695600
I0403 15:09:18.273083 18339 layer_factory.hpp:77] Creating layer fc6
I0403 15:09:18.273116 18339 net.cpp:91] Creating Layer fc6
I0403 15:09:18.273140 18339 net.cpp:425] fc6 <- pool5
I0403 15:09:18.273161 18339 net.cpp:399] fc6 -> fc6
I0403 15:09:19.819469 18339 net.cpp:141] Setting up fc6
I0403 15:09:19.819540 18339 net.cpp:148] Top shape: 100 4096 (409600)
I0403 15:09:19.819555 18339 net.cpp:156] Memory required for data: 823334000
I0403 15:09:19.819574 18339 layer_factory.hpp:77] Creating layer relu6
I0403 15:09:19.819598 18339 net.cpp:91] Creating Layer relu6
I0403 15:09:19.819614 18339 net.cpp:425] relu6 <- fc6
I0403 15:09:19.819633 18339 net.cpp:386] relu6 -> fc6 (in-place)
I0403 15:09:19.819849 18339 net.cpp:141] Setting up relu6
I0403 15:09:19.819874 18339 net.cpp:148] Top shape: 100 4096 (409600)
I0403 15:09:19.819887 18339 net.cpp:156] Memory required for data: 824972400
I0403 15:09:19.819901 18339 layer_factory.hpp:77] Creating layer drop6
I0403 15:09:19.819919 18339 net.cpp:91] Creating Layer drop6
I0403 15:09:19.819934 18339 net.cpp:425] drop6 <- fc6
I0403 15:09:19.819969 18339 net.cpp:386] drop6 -> fc6 (in-place)
I0403 15:09:19.820025 18339 net.cpp:141] Setting up drop6
I0403 15:09:19.820050 18339 net.cpp:148] Top shape: 100 4096 (409600)
I0403 15:09:19.820066 18339 net.cpp:156] Memory required for data: 826610800
I0403 15:09:19.820081 18339 layer_factory.hpp:77] Creating layer fc7
I0403 15:09:19.820101 18339 net.cpp:91] Creating Layer fc7
I0403 15:09:19.820116 18339 net.cpp:425] fc7 <- fc6
I0403 15:09:19.820135 18339 net.cpp:399] fc7 -> fc7
I0403 15:09:20.499265 18339 net.cpp:141] Setting up fc7
I0403 15:09:20.499306 18339 net.cpp:148] Top shape: 100 4096 (409600)
I0403 15:09:20.499322 18339 net.cpp:156] Memory required for data: 828249200
I0403 15:09:20.499342 18339 layer_factory.hpp:77] Creating layer relu7
I0403 15:09:20.499364 18339 net.cpp:91] Creating Layer relu7
I0403 15:09:20.499380 18339 net.cpp:425] relu7 <- fc7
I0403 15:09:20.499402 18339 net.cpp:386] relu7 -> fc7 (in-place)
I0403 15:09:20.499805 18339 net.cpp:141] Setting up relu7
I0403 15:09:20.499831 18339 net.cpp:148] Top shape: 100 4096 (409600)
I0403 15:09:20.499863 18339 net.cpp:156] Memory required for data: 829887600
I0403 15:09:20.499878 18339 layer_factory.hpp:77] Creating layer drop7
I0403 15:09:20.499897 18339 net.cpp:91] Creating Layer drop7
I0403 15:09:20.499912 18339 net.cpp:425] drop7 <- fc7
I0403 15:09:20.499932 18339 net.cpp:386] drop7 -> fc7 (in-place)
I0403 15:09:20.499974 18339 net.cpp:141] Setting up drop7
I0403 15:09:20.500000 18339 net.cpp:148] Top shape: 100 4096 (409600)
I0403 15:09:20.500015 18339 net.cpp:156] Memory required for data: 831526000
I0403 15:09:20.500035 18339 layer_factory.hpp:77] Creating layer fc8_plantvillage
I0403 15:09:20.500054 18339 net.cpp:91] Creating Layer fc8_plantvillage
I0403 15:09:20.500069 18339 net.cpp:425] fc8_plantvillage <- fc7
I0403 15:09:20.500088 18339 net.cpp:399] fc8_plantvillage -> fc8_plantvillage
I0403 15:09:20.506800 18339 net.cpp:141] Setting up fc8_plantvillage
I0403 15:09:20.506829 18339 net.cpp:148] Top shape: 100 38 (3800)
I0403 15:09:20.506844 18339 net.cpp:156] Memory required for data: 831541200
I0403 15:09:20.506860 18339 layer_factory.hpp:77] Creating layer fc8_plantvillage_fc8_plantvillage_0_split
I0403 15:09:20.506878 18339 net.cpp:91] Creating Layer fc8_plantvillage_fc8_plantvillage_0_split
I0403 15:09:20.506894 18339 net.cpp:425] fc8_plantvillage_fc8_plantvillage_0_split <- fc8_plantvillage
I0403 15:09:20.506914 18339 net.cpp:399] fc8_plantvillage_fc8_plantvillage_0_split -> fc8_plantvillage_fc8_plantvillage_0_split_0
I0403 15:09:20.506934 18339 net.cpp:399] fc8_plantvillage_fc8_plantvillage_0_split -> fc8_plantvillage_fc8_plantvillage_0_split_1
I0403 15:09:20.506953 18339 net.cpp:399] fc8_plantvillage_fc8_plantvillage_0_split -> fc8_plantvillage_fc8_plantvillage_0_split_2
I0403 15:09:20.507033 18339 net.cpp:141] Setting up fc8_plantvillage_fc8_plantvillage_0_split
I0403 15:09:20.507056 18339 net.cpp:148] Top shape: 100 38 (3800)
I0403 15:09:20.507073 18339 net.cpp:148] Top shape: 100 38 (3800)
I0403 15:09:20.507087 18339 net.cpp:148] Top shape: 100 38 (3800)
I0403 15:09:20.507100 18339 net.cpp:156] Memory required for data: 831586800
I0403 15:09:20.507114 18339 layer_factory.hpp:77] Creating layer prob
I0403 15:09:20.507133 18339 net.cpp:91] Creating Layer prob
I0403 15:09:20.507148 18339 net.cpp:425] prob <- fc8_plantvillage_fc8_plantvillage_0_split_0
I0403 15:09:20.507169 18339 net.cpp:399] prob -> prob
I0403 15:09:20.507396 18339 net.cpp:141] Setting up prob
I0403 15:09:20.507421 18339 net.cpp:148] Top shape: 100 38 (3800)
I0403 15:09:20.507436 18339 net.cpp:156] Memory required for data: 831602000
I0403 15:09:20.507450 18339 layer_factory.hpp:77] Creating layer hdf5out
I0403 15:09:20.507468 18339 net.cpp:91] Creating Layer hdf5out
I0403 15:09:20.507484 18339 net.cpp:425] hdf5out <- prob
I0403 15:09:20.507500 18339 net.cpp:425] hdf5out <- label_data_1_split_0
I0403 15:09:20.509668 18339 net.cpp:141] Setting up hdf5out
…
