…
I0403 15:07:37.221266 18288 net.cpp:313] The NetState phase (1) differed from the phase (0) specified by a rule in layer data
I0403 15:07:37.221577 18288 net.cpp:49] Initializing net from parameters: 
state {
  phase: TEST
}
layer {
  name: "data"
  type: "Data"
  top: "data"
  top: "label"
  include {
    phase: TEST
  }
  transform_param {
    crop_size: 227
    mean_file: "/home/mohanty/data/final_dataset/lmdb/color-80-20/mean.binaryproto"
  }
  data_param {
    source: "/home/mohanty/data/final_dataset/lmdb/color-80-20/test_db"
    batch_size: 100
    backend: LMDB
  }
}
layer {
  name: "conv1"
  type: "Convolution"
  bottom: "data"
  top: "conv1"
  param {
    lr_mult: 1
    decay_mult: 1
  }
  param {
    lr_mult: 2
    decay_mult: 0
  }
  convolution_param {
    num_output: 96
    kernel_size: 11
    stride: 4
    weight_filler {
      type: "gaussian"
      std: 0.01
    }
    bias_filler {
      type: "constant"
      value: 0
    }
  }
}
layer {
  name: "relu1"
  type: "ReLU"
  bottom: "conv1"
  top: "conv1"
}
layer {
  name: "norm1"
  type: "LRN"
  bottom: "conv1"
  top: "norm1"
  lrn_param {
    local_size: 5
    alpha: 0.0001
    beta: 0.75
  }
}
layer {
  name: "pool1"
  type: "Pooling"
  bottom: "norm1"
  top: "pool1"
  pooling_param {
    pool: MAX
    kernel_size: 3
    stride: 2
  }
}
layer {
  name: "conv2"
  type: "Convolution"
  bottom: "pool1"
  top: "conv2"
  param {
    lr_mult: 1
    decay_mult: 1
  }
  param {
    lr_mult: 2
    decay_mult: 0
  }
  convolution_param {
    num_output: 256
    pad: 2
    kernel_size: 5
    group: 2
    weight_filler {
      type: "gaussian"
      std: 0.01
    }
    bias_filler {
      type: "constant"
      value: 0.1
    }
  }
}
layer {
  name: "relu2"
  type: "ReLU"
  bottom: "conv2"
  top: "conv2"
}
layer {
  name: "norm2"
  type: "LRN"
  bottom: "conv2"
  top: "norm2"
  lrn_param {
    local_size: 5
    alpha: 0.0001
    beta: 0.75
  }
}
layer {
  name: "pool2"
  type: "Pooling"
  bottom: "norm2"
  top: "pool2"
  pooling_param {
    pool: MAX
    kernel_size: 3
    stride: 2
  }
}
layer {
  name: "conv3"
  type: "Convolution"
  bottom: "pool2"
  top: "conv3"
  param {
    lr_mult: 1
    decay_mult: 1
  }
  param {
    lr_mult: 2
    decay_mult: 0
  }
  convolution_param {
    num_output: 384
    pad: 1
    kernel_size: 3
    weight_filler {
      type: "gaussian"
      std: 0.01
    }
    bias_filler {
      type: "constant"
      value: 0
    }
  }
}
layer {
  name: "relu3"
  type: "ReLU"
  bottom: "conv3"
  top: "conv3"
}
layer {
  name: "conv4"
  type: "Convolution"
  bottom: "conv3"
  top: "conv4"
  param {
    lr_mult: 1
    decay_mult: 1
  }
  param {
    lr_mult: 2
    decay_mult: 0
  }
  convolution_param {
    num_output: 384
    pad: 1
    kernel_size: 3
    group: 2
    weight_filler {
      type: "gaussian"
      std: 0.01
    }
    bias_filler {
      type: "constant"
      value: 0.1
    }
  }
}
layer {
  name: "relu4"
  type: "ReLU"
  bottom: "conv4"
  top: "conv4"
}
layer {
  name: "conv5"
  type: "Convolution"
  bottom: "conv4"
  top: "conv5"
  param {
    lr_mult: 1
    decay_mult: 1
  }
  param {
    lr_mult: 2
    decay_mult: 0
  }
  convolution_param {
    num_output: 256
    pad: 1
    kernel_size: 3
    group: 2
    weight_filler {
      type: "gaussian"
      std: 0.01
    }
    bias_filler {
      type: "constant"
      value: 0.1
    }
  }
}
layer {
  name: "relu5"
  type: "ReLU"
  bottom: "conv5"
  top: "conv5"
}
layer {
  name: "pool5"
  type: "Pooling"
  bottom: "conv5"
  top: "pool5"
  pooling_param {
    pool: MAX
    kernel_size: 3
    stride: 2
  }
}
layer {
  name: "fc6"
  type: "InnerProduct"
  bottom: "pool5"
  top: "fc6"
  param {
    lr_mult: 1
    decay_mult: 1
  }
  param {
    lr_mult: 2
    decay_mult: 0
  }
  inner_product_param {
    num_output: 4096
    weight_filler {
      type: "gaussian"
      std: 0.005
    }
    bias_filler {
      type: "constant"
      value: 0.1
    }
  }
}
layer {
  name: "relu6"
  type: "ReLU"
  bottom: "fc6"
  top: "fc6"
}
layer {
  name: "drop6"
  type: "Dropout"
  bottom: "fc6"
  top: "fc6"
  dropout_param {
    dropout_ratio: 0.5
  }
}
layer {
  name: "fc7"
  type: "InnerProduct"
  bottom: "fc6"
  top: "fc7"
  param {
    lr_mult: 1
    decay_mult: 1
  }
  param {
    lr_mult: 2
    decay_mult: 0
  }
  inner_product_param {
    num_output: 4096
    weight_filler {
      type: "gaussian"
      std: 0.005
    }
    bias_filler {
      type: "constant"
      value: 0.1
    }
  }
}
layer {
  name: "relu7"
  type: "ReLU"
  bottom: "fc7"
  top: "fc7"
}
layer {
  name: "drop7"
  type: "Dropout"
  bottom: "fc7"
  top: "fc7"
  dropout_param {
    dropout_ratio: 0.5
  }
}
layer {
  name: "fc8_plantvillage"
  type: "InnerProduct"
  bottom: "fc7"
  top: "fc8_plantvillage"
  param {
    lr_mult: 1
    decay_mult: 1
  }
  param {
    lr_mult: 2
    decay_mult: 0
  }
  inner_product_param {
    num_output: 38
    weight_filler {
      type: "gaussian"
      std: 0.01
    }
    bias_filler {
      type: "constant"
      value: 0
    }
  }
}
layer {
  name: "prob"
  type: "Softmax"
  bottom: "fc8_plantvillage"
  top: "prob"
  include {
    phase: TEST
  }
}
layer {
  name: "hdf5out"
  type: "HDF5Output"
  bottom: "prob"
  bottom: "label"
  include {
    phase: TEST
  }
  hdf5_output_param {
    file_name: "hdf5_dumps/iter_7866.h5"
  }
}
layer {
  name: "loss"
  type: "SoftmaxWithLoss"
  bottom: "fc8_plantvillage"
  bottom: "label"
  top: "loss"
}
layer {
  name: "accuracy"
  type: "Accuracy"
  bottom: "fc8_plantvillage"
  bottom: "label"
  top: "accuracy"
  include {
    phase: TEST
  }
}
I0403 15:07:37.222153 18288 layer_factory.hpp:77] Creating layer data
I0403 15:07:37.222787 18288 net.cpp:91] Creating Layer data
I0403 15:07:37.222817 18288 net.cpp:399] data -> data
I0403 15:07:37.222869 18288 net.cpp:399] data -> label
I0403 15:07:37.222905 18288 data_transformer.cpp:25] Loading mean file from: /home/mohanty/data/final_dataset/lmdb/color-80-20/mean.binaryproto
I0403 15:07:37.225646 18292 db_lmdb.cpp:38] Opened lmdb /home/mohanty/data/final_dataset/lmdb/color-80-20/test_db
I0403 15:07:37.237501 18288 data_layer.cpp:41] output data size: 100,3,227,227
I0403 15:07:37.360421 18288 net.cpp:141] Setting up data
I0403 15:07:37.360520 18288 net.cpp:148] Top shape: 100 3 227 227 (15458700)
I0403 15:07:37.360543 18288 net.cpp:148] Top shape: 100 (100)
I0403 15:07:37.360558 18288 net.cpp:156] Memory required for data: 61835200
I0403 15:07:37.360585 18288 layer_factory.hpp:77] Creating layer label_data_1_split
I0403 15:07:37.360610 18288 net.cpp:91] Creating Layer label_data_1_split
I0403 15:07:37.360628 18288 net.cpp:425] label_data_1_split <- label
I0403 15:07:37.360661 18288 net.cpp:399] label_data_1_split -> label_data_1_split_0
I0403 15:07:37.360687 18288 net.cpp:399] label_data_1_split -> label_data_1_split_1
I0403 15:07:37.360708 18288 net.cpp:399] label_data_1_split -> label_data_1_split_2
I0403 15:07:37.360770 18288 net.cpp:141] Setting up label_data_1_split
I0403 15:07:37.360792 18288 net.cpp:148] Top shape: 100 (100)
I0403 15:07:37.360810 18288 net.cpp:148] Top shape: 100 (100)
I0403 15:07:37.360826 18288 net.cpp:148] Top shape: 100 (100)
I0403 15:07:37.360839 18288 net.cpp:156] Memory required for data: 61836400
I0403 15:07:37.360854 18288 layer_factory.hpp:77] Creating layer conv1
I0403 15:07:37.360885 18288 net.cpp:91] Creating Layer conv1
I0403 15:07:37.360903 18288 net.cpp:425] conv1 <- data
I0403 15:07:37.360923 18288 net.cpp:399] conv1 -> conv1
I0403 15:07:37.507056 18288 net.cpp:141] Setting up conv1
I0403 15:07:37.507117 18288 net.cpp:148] Top shape: 100 96 55 55 (29040000)
I0403 15:07:37.507133 18288 net.cpp:156] Memory required for data: 177996400
I0403 15:07:37.507166 18288 layer_factory.hpp:77] Creating layer relu1
I0403 15:07:37.507195 18288 net.cpp:91] Creating Layer relu1
I0403 15:07:37.507213 18288 net.cpp:425] relu1 <- conv1
I0403 15:07:37.507233 18288 net.cpp:386] relu1 -> conv1 (in-place)
I0403 15:07:37.507505 18288 net.cpp:141] Setting up relu1
I0403 15:07:37.507534 18288 net.cpp:148] Top shape: 100 96 55 55 (29040000)
I0403 15:07:37.507550 18288 net.cpp:156] Memory required for data: 294156400
I0403 15:07:37.507597 18288 layer_factory.hpp:77] Creating layer norm1
I0403 15:07:37.507627 18288 net.cpp:91] Creating Layer norm1
I0403 15:07:37.507645 18288 net.cpp:425] norm1 <- conv1
I0403 15:07:37.507663 18288 net.cpp:399] norm1 -> norm1
I0403 15:07:37.507972 18288 net.cpp:141] Setting up norm1
I0403 15:07:37.507999 18288 net.cpp:148] Top shape: 100 96 55 55 (29040000)
I0403 15:07:37.508015 18288 net.cpp:156] Memory required for data: 410316400
I0403 15:07:37.508031 18288 layer_factory.hpp:77] Creating layer pool1
I0403 15:07:37.508066 18288 net.cpp:91] Creating Layer pool1
I0403 15:07:37.508086 18288 net.cpp:425] pool1 <- norm1
I0403 15:07:37.508105 18288 net.cpp:399] pool1 -> pool1
I0403 15:07:37.508172 18288 net.cpp:141] Setting up pool1
I0403 15:07:37.508196 18288 net.cpp:148] Top shape: 100 96 27 27 (6998400)
I0403 15:07:37.508213 18288 net.cpp:156] Memory required for data: 438310000
I0403 15:07:37.508227 18288 layer_factory.hpp:77] Creating layer conv2
I0403 15:07:37.508252 18288 net.cpp:91] Creating Layer conv2
I0403 15:07:37.508268 18288 net.cpp:425] conv2 <- pool1
I0403 15:07:37.508286 18288 net.cpp:399] conv2 -> conv2
I0403 15:07:37.522984 18288 net.cpp:141] Setting up conv2
I0403 15:07:37.523041 18288 net.cpp:148] Top shape: 100 256 27 27 (18662400)
I0403 15:07:37.523062 18288 net.cpp:156] Memory required for data: 512959600
I0403 15:07:37.523084 18288 layer_factory.hpp:77] Creating layer relu2
I0403 15:07:37.523104 18288 net.cpp:91] Creating Layer relu2
I0403 15:07:37.523120 18288 net.cpp:425] relu2 <- conv2
I0403 15:07:37.523138 18288 net.cpp:386] relu2 -> conv2 (in-place)
I0403 15:07:37.523416 18288 net.cpp:141] Setting up relu2
I0403 15:07:37.523442 18288 net.cpp:148] Top shape: 100 256 27 27 (18662400)
I0403 15:07:37.523458 18288 net.cpp:156] Memory required for data: 587609200
I0403 15:07:37.523473 18288 layer_factory.hpp:77] Creating layer norm2
I0403 15:07:37.523493 18288 net.cpp:91] Creating Layer norm2
I0403 15:07:37.523507 18288 net.cpp:425] norm2 <- conv2
I0403 15:07:37.523524 18288 net.cpp:399] norm2 -> norm2
I0403 15:07:37.523702 18288 net.cpp:141] Setting up norm2
I0403 15:07:37.523728 18288 net.cpp:148] Top shape: 100 256 27 27 (18662400)
I0403 15:07:37.523742 18288 net.cpp:156] Memory required for data: 662258800
I0403 15:07:37.523756 18288 layer_factory.hpp:77] Creating layer pool2
I0403 15:07:37.523774 18288 net.cpp:91] Creating Layer pool2
I0403 15:07:37.523789 18288 net.cpp:425] pool2 <- norm2
I0403 15:07:37.523805 18288 net.cpp:399] pool2 -> pool2
I0403 15:07:37.523854 18288 net.cpp:141] Setting up pool2
I0403 15:07:37.523876 18288 net.cpp:148] Top shape: 100 256 13 13 (4326400)
I0403 15:07:37.523890 18288 net.cpp:156] Memory required for data: 679564400
I0403 15:07:37.523905 18288 layer_factory.hpp:77] Creating layer conv3
I0403 15:07:37.523926 18288 net.cpp:91] Creating Layer conv3
I0403 15:07:37.523941 18288 net.cpp:425] conv3 <- pool2
I0403 15:07:37.523958 18288 net.cpp:399] conv3 -> conv3
I0403 15:07:37.565784 18288 net.cpp:141] Setting up conv3
I0403 15:07:37.565861 18288 net.cpp:148] Top shape: 100 384 13 13 (6489600)
I0403 15:07:37.565878 18288 net.cpp:156] Memory required for data: 705522800
I0403 15:07:37.565903 18288 layer_factory.hpp:77] Creating layer relu3
I0403 15:07:37.565925 18288 net.cpp:91] Creating Layer relu3
I0403 15:07:37.565943 18288 net.cpp:425] relu3 <- conv3
I0403 15:07:37.565961 18288 net.cpp:386] relu3 -> conv3 (in-place)
I0403 15:07:37.566254 18288 net.cpp:141] Setting up relu3
I0403 15:07:37.566283 18288 net.cpp:148] Top shape: 100 384 13 13 (6489600)
I0403 15:07:37.566299 18288 net.cpp:156] Memory required for data: 731481200
I0403 15:07:37.566315 18288 layer_factory.hpp:77] Creating layer conv4
I0403 15:07:37.566351 18288 net.cpp:91] Creating Layer conv4
I0403 15:07:37.566367 18288 net.cpp:425] conv4 <- conv3
I0403 15:07:37.566386 18288 net.cpp:399] conv4 -> conv4
I0403 15:07:37.596235 18288 net.cpp:141] Setting up conv4
I0403 15:07:37.596274 18288 net.cpp:148] Top shape: 100 384 13 13 (6489600)
I0403 15:07:37.596335 18288 net.cpp:156] Memory required for data: 757439600
I0403 15:07:37.596359 18288 layer_factory.hpp:77] Creating layer relu4
I0403 15:07:37.596380 18288 net.cpp:91] Creating Layer relu4
I0403 15:07:37.596397 18288 net.cpp:425] relu4 <- conv4
I0403 15:07:37.596417 18288 net.cpp:386] relu4 -> conv4 (in-place)
I0403 15:07:37.596716 18288 net.cpp:141] Setting up relu4
I0403 15:07:37.596743 18288 net.cpp:148] Top shape: 100 384 13 13 (6489600)
I0403 15:07:37.596760 18288 net.cpp:156] Memory required for data: 783398000
I0403 15:07:37.596774 18288 layer_factory.hpp:77] Creating layer conv5
I0403 15:07:37.596801 18288 net.cpp:91] Creating Layer conv5
I0403 15:07:37.596818 18288 net.cpp:425] conv5 <- conv4
I0403 15:07:37.596839 18288 net.cpp:399] conv5 -> conv5
I0403 15:07:37.616775 18288 net.cpp:141] Setting up conv5
I0403 15:07:37.616814 18288 net.cpp:148] Top shape: 100 256 13 13 (4326400)
I0403 15:07:37.616829 18288 net.cpp:156] Memory required for data: 800703600
I0403 15:07:37.616852 18288 layer_factory.hpp:77] Creating layer relu5
I0403 15:07:37.616871 18288 net.cpp:91] Creating Layer relu5
I0403 15:07:37.616886 18288 net.cpp:425] relu5 <- conv5
I0403 15:07:37.616906 18288 net.cpp:386] relu5 -> conv5 (in-place)
I0403 15:07:37.617187 18288 net.cpp:141] Setting up relu5
I0403 15:07:37.617213 18288 net.cpp:148] Top shape: 100 256 13 13 (4326400)
I0403 15:07:37.617230 18288 net.cpp:156] Memory required for data: 818009200
I0403 15:07:37.617245 18288 layer_factory.hpp:77] Creating layer pool5
I0403 15:07:37.617269 18288 net.cpp:91] Creating Layer pool5
I0403 15:07:37.617286 18288 net.cpp:425] pool5 <- conv5
I0403 15:07:37.617305 18288 net.cpp:399] pool5 -> pool5
I0403 15:07:37.617364 18288 net.cpp:141] Setting up pool5
I0403 15:07:37.617388 18288 net.cpp:148] Top shape: 100 256 6 6 (921600)
I0403 15:07:37.617403 18288 net.cpp:156] Memory required for data: 821695600
I0403 15:07:37.617416 18288 layer_factory.hpp:77] Creating layer fc6
I0403 15:07:37.617445 18288 net.cpp:91] Creating Layer fc6
I0403 15:07:37.617463 18288 net.cpp:425] fc6 <- pool5
I0403 15:07:37.617481 18288 net.cpp:399] fc6 -> fc6
I0403 15:07:39.163512 18288 net.cpp:141] Setting up fc6
I0403 15:07:39.163576 18288 net.cpp:148] Top shape: 100 4096 (409600)
I0403 15:07:39.163594 18288 net.cpp:156] Memory required for data: 823334000
I0403 15:07:39.163614 18288 layer_factory.hpp:77] Creating layer relu6
I0403 15:07:39.163635 18288 net.cpp:91] Creating Layer relu6
I0403 15:07:39.163651 18288 net.cpp:425] relu6 <- fc6
I0403 15:07:39.163673 18288 net.cpp:386] relu6 -> fc6 (in-place)
I0403 15:07:39.163890 18288 net.cpp:141] Setting up relu6
I0403 15:07:39.163915 18288 net.cpp:148] Top shape: 100 4096 (409600)
I0403 15:07:39.163929 18288 net.cpp:156] Memory required for data: 824972400
I0403 15:07:39.163944 18288 layer_factory.hpp:77] Creating layer drop6
I0403 15:07:39.163962 18288 net.cpp:91] Creating Layer drop6
I0403 15:07:39.163976 18288 net.cpp:425] drop6 <- fc6
I0403 15:07:39.163998 18288 net.cpp:386] drop6 -> fc6 (in-place)
I0403 15:07:39.164054 18288 net.cpp:141] Setting up drop6
I0403 15:07:39.164080 18288 net.cpp:148] Top shape: 100 4096 (409600)
I0403 15:07:39.164095 18288 net.cpp:156] Memory required for data: 826610800
I0403 15:07:39.164110 18288 layer_factory.hpp:77] Creating layer fc7
I0403 15:07:39.164130 18288 net.cpp:91] Creating Layer fc7
I0403 15:07:39.164145 18288 net.cpp:425] fc7 <- fc6
I0403 15:07:39.164165 18288 net.cpp:399] fc7 -> fc7
I0403 15:07:39.844089 18288 net.cpp:141] Setting up fc7
I0403 15:07:39.844161 18288 net.cpp:148] Top shape: 100 4096 (409600)
I0403 15:07:39.844177 18288 net.cpp:156] Memory required for data: 828249200
I0403 15:07:39.844200 18288 layer_factory.hpp:77] Creating layer relu7
I0403 15:07:39.844223 18288 net.cpp:91] Creating Layer relu7
I0403 15:07:39.844239 18288 net.cpp:425] relu7 <- fc7
I0403 15:07:39.844261 18288 net.cpp:386] relu7 -> fc7 (in-place)
I0403 15:07:39.844674 18288 net.cpp:141] Setting up relu7
I0403 15:07:39.844702 18288 net.cpp:148] Top shape: 100 4096 (409600)
I0403 15:07:39.844745 18288 net.cpp:156] Memory required for data: 829887600
I0403 15:07:39.844761 18288 layer_factory.hpp:77] Creating layer drop7
I0403 15:07:39.844780 18288 net.cpp:91] Creating Layer drop7
I0403 15:07:39.844797 18288 net.cpp:425] drop7 <- fc7
I0403 15:07:39.844820 18288 net.cpp:386] drop7 -> fc7 (in-place)
I0403 15:07:39.844864 18288 net.cpp:141] Setting up drop7
I0403 15:07:39.844889 18288 net.cpp:148] Top shape: 100 4096 (409600)
I0403 15:07:39.844905 18288 net.cpp:156] Memory required for data: 831526000
I0403 15:07:39.844919 18288 layer_factory.hpp:77] Creating layer fc8_plantvillage
I0403 15:07:39.844940 18288 net.cpp:91] Creating Layer fc8_plantvillage
I0403 15:07:39.844955 18288 net.cpp:425] fc8_plantvillage <- fc7
I0403 15:07:39.844975 18288 net.cpp:399] fc8_plantvillage -> fc8_plantvillage
I0403 15:07:39.852165 18288 net.cpp:141] Setting up fc8_plantvillage
I0403 15:07:39.852196 18288 net.cpp:148] Top shape: 100 38 (3800)
I0403 15:07:39.852211 18288 net.cpp:156] Memory required for data: 831541200
I0403 15:07:39.852231 18288 layer_factory.hpp:77] Creating layer fc8_plantvillage_fc8_plantvillage_0_split
I0403 15:07:39.852251 18288 net.cpp:91] Creating Layer fc8_plantvillage_fc8_plantvillage_0_split
I0403 15:07:39.852267 18288 net.cpp:425] fc8_plantvillage_fc8_plantvillage_0_split <- fc8_plantvillage
I0403 15:07:39.852286 18288 net.cpp:399] fc8_plantvillage_fc8_plantvillage_0_split -> fc8_plantvillage_fc8_plantvillage_0_split_0
I0403 15:07:39.852309 18288 net.cpp:399] fc8_plantvillage_fc8_plantvillage_0_split -> fc8_plantvillage_fc8_plantvillage_0_split_1
I0403 15:07:39.852330 18288 net.cpp:399] fc8_plantvillage_fc8_plantvillage_0_split -> fc8_plantvillage_fc8_plantvillage_0_split_2
I0403 15:07:39.852411 18288 net.cpp:141] Setting up fc8_plantvillage_fc8_plantvillage_0_split
I0403 15:07:39.852435 18288 net.cpp:148] Top shape: 100 38 (3800)
I0403 15:07:39.852452 18288 net.cpp:148] Top shape: 100 38 (3800)
I0403 15:07:39.852468 18288 net.cpp:148] Top shape: 100 38 (3800)
I0403 15:07:39.852483 18288 net.cpp:156] Memory required for data: 831586800
I0403 15:07:39.852496 18288 layer_factory.hpp:77] Creating layer prob
I0403 15:07:39.852516 18288 net.cpp:91] Creating Layer prob
I0403 15:07:39.852532 18288 net.cpp:425] prob <- fc8_plantvillage_fc8_plantvillage_0_split_0
I0403 15:07:39.852552 18288 net.cpp:399] prob -> prob
I0403 15:07:39.852797 18288 net.cpp:141] Setting up prob
I0403 15:07:39.852823 18288 net.cpp:148] Top shape: 100 38 (3800)
I0403 15:07:39.852838 18288 net.cpp:156] Memory required for data: 831602000
I0403 15:07:39.852854 18288 layer_factory.hpp:77] Creating layer hdf5out
I0403 15:07:39.852874 18288 net.cpp:91] Creating Layer hdf5out
I0403 15:07:39.852890 18288 net.cpp:425] hdf5out <- prob
I0403 15:07:39.852906 18288 net.cpp:425] hdf5out <- label_data_1_split_0
I0403 15:07:39.855139 18288 net.cpp:141] Setting up hdf5out
…
