…
I0403 15:06:21.871330 18255 net.cpp:313] The NetState phase (1) differed from the phase (0) specified by a rule in layer data
I0403 15:06:21.871629 18255 net.cpp:49] Initializing net from parameters: 
state {
  phase: TEST
}
layer {
  name: "data"
  type: "Data"
  top: "data"
  top: "label"
  include {
    phase: TEST
  }
  transform_param {
    crop_size: 227
    mean_file: "/home/mohanty/data/final_dataset/lmdb/color-80-20/mean.binaryproto"
  }
  data_param {
    source: "/home/mohanty/data/final_dataset/lmdb/color-80-20/test_db"
    batch_size: 100
    backend: LMDB
  }
}
layer {
  name: "conv1"
  type: "Convolution"
  bottom: "data"
  top: "conv1"
  param {
    lr_mult: 1
    decay_mult: 1
  }
  param {
    lr_mult: 2
    decay_mult: 0
  }
  convolution_param {
    num_output: 96
    kernel_size: 11
    stride: 4
    weight_filler {
      type: "gaussian"
      std: 0.01
    }
    bias_filler {
      type: "constant"
      value: 0
    }
  }
}
layer {
  name: "relu1"
  type: "ReLU"
  bottom: "conv1"
  top: "conv1"
}
layer {
  name: "norm1"
  type: "LRN"
  bottom: "conv1"
  top: "norm1"
  lrn_param {
    local_size: 5
    alpha: 0.0001
    beta: 0.75
  }
}
layer {
  name: "pool1"
  type: "Pooling"
  bottom: "norm1"
  top: "pool1"
  pooling_param {
    pool: MAX
    kernel_size: 3
    stride: 2
  }
}
layer {
  name: "conv2"
  type: "Convolution"
  bottom: "pool1"
  top: "conv2"
  param {
    lr_mult: 1
    decay_mult: 1
  }
  param {
    lr_mult: 2
    decay_mult: 0
  }
  convolution_param {
    num_output: 256
    pad: 2
    kernel_size: 5
    group: 2
    weight_filler {
      type: "gaussian"
      std: 0.01
    }
    bias_filler {
      type: "constant"
      value: 0.1
    }
  }
}
layer {
  name: "relu2"
  type: "ReLU"
  bottom: "conv2"
  top: "conv2"
}
layer {
  name: "norm2"
  type: "LRN"
  bottom: "conv2"
  top: "norm2"
  lrn_param {
    local_size: 5
    alpha: 0.0001
    beta: 0.75
  }
}
layer {
  name: "pool2"
  type: "Pooling"
  bottom: "norm2"
  top: "pool2"
  pooling_param {
    pool: MAX
    kernel_size: 3
    stride: 2
  }
}
layer {
  name: "conv3"
  type: "Convolution"
  bottom: "pool2"
  top: "conv3"
  param {
    lr_mult: 1
    decay_mult: 1
  }
  param {
    lr_mult: 2
    decay_mult: 0
  }
  convolution_param {
    num_output: 384
    pad: 1
    kernel_size: 3
    weight_filler {
      type: "gaussian"
      std: 0.01
    }
    bias_filler {
      type: "constant"
      value: 0
    }
  }
}
layer {
  name: "relu3"
  type: "ReLU"
  bottom: "conv3"
  top: "conv3"
}
layer {
  name: "conv4"
  type: "Convolution"
  bottom: "conv3"
  top: "conv4"
  param {
    lr_mult: 1
    decay_mult: 1
  }
  param {
    lr_mult: 2
    decay_mult: 0
  }
  convolution_param {
    num_output: 384
    pad: 1
    kernel_size: 3
    group: 2
    weight_filler {
      type: "gaussian"
      std: 0.01
    }
    bias_filler {
      type: "constant"
      value: 0.1
    }
  }
}
layer {
  name: "relu4"
  type: "ReLU"
  bottom: "conv4"
  top: "conv4"
}
layer {
  name: "conv5"
  type: "Convolution"
  bottom: "conv4"
  top: "conv5"
  param {
    lr_mult: 1
    decay_mult: 1
  }
  param {
    lr_mult: 2
    decay_mult: 0
  }
  convolution_param {
    num_output: 256
    pad: 1
    kernel_size: 3
    group: 2
    weight_filler {
      type: "gaussian"
      std: 0.01
    }
    bias_filler {
      type: "constant"
      value: 0.1
    }
  }
}
layer {
  name: "relu5"
  type: "ReLU"
  bottom: "conv5"
  top: "conv5"
}
layer {
  name: "pool5"
  type: "Pooling"
  bottom: "conv5"
  top: "pool5"
  pooling_param {
    pool: MAX
    kernel_size: 3
    stride: 2
  }
}
layer {
  name: "fc6"
  type: "InnerProduct"
  bottom: "pool5"
  top: "fc6"
  param {
    lr_mult: 1
    decay_mult: 1
  }
  param {
    lr_mult: 2
    decay_mult: 0
  }
  inner_product_param {
    num_output: 4096
    weight_filler {
      type: "gaussian"
      std: 0.005
    }
    bias_filler {
      type: "constant"
      value: 0.1
    }
  }
}
layer {
  name: "relu6"
  type: "ReLU"
  bottom: "fc6"
  top: "fc6"
}
layer {
  name: "drop6"
  type: "Dropout"
  bottom: "fc6"
  top: "fc6"
  dropout_param {
    dropout_ratio: 0.5
  }
}
layer {
  name: "fc7"
  type: "InnerProduct"
  bottom: "fc6"
  top: "fc7"
  param {
    lr_mult: 1
    decay_mult: 1
  }
  param {
    lr_mult: 2
    decay_mult: 0
  }
  inner_product_param {
    num_output: 4096
    weight_filler {
      type: "gaussian"
      std: 0.005
    }
    bias_filler {
      type: "constant"
      value: 0.1
    }
  }
}
layer {
  name: "relu7"
  type: "ReLU"
  bottom: "fc7"
  top: "fc7"
}
layer {
  name: "drop7"
  type: "Dropout"
  bottom: "fc7"
  top: "fc7"
  dropout_param {
    dropout_ratio: 0.5
  }
}
layer {
  name: "fc8_plantvillage"
  type: "InnerProduct"
  bottom: "fc7"
  top: "fc8_plantvillage"
  param {
    lr_mult: 1
    decay_mult: 1
  }
  param {
    lr_mult: 2
    decay_mult: 0
  }
  inner_product_param {
    num_output: 38
    weight_filler {
      type: "gaussian"
      std: 0.01
    }
    bias_filler {
      type: "constant"
      value: 0
    }
  }
}
layer {
  name: "prob"
  type: "Softmax"
  bottom: "fc8_plantvillage"
  top: "prob"
  include {
    phase: TEST
  }
}
layer {
  name: "hdf5out"
  type: "HDF5Output"
  bottom: "prob"
  bottom: "label"
  include {
    phase: TEST
  }
  hdf5_output_param {
    file_name: "hdf5_dumps/iter_6555.h5"
  }
}
layer {
  name: "loss"
  type: "SoftmaxWithLoss"
  bottom: "fc8_plantvillage"
  bottom: "label"
  top: "loss"
}
layer {
  name: "accuracy"
  type: "Accuracy"
  bottom: "fc8_plantvillage"
  bottom: "label"
  top: "accuracy"
  include {
    phase: TEST
  }
}
I0403 15:06:21.872217 18255 layer_factory.hpp:77] Creating layer data
I0403 15:06:21.872851 18255 net.cpp:91] Creating Layer data
I0403 15:06:21.872882 18255 net.cpp:399] data -> data
I0403 15:06:21.872934 18255 net.cpp:399] data -> label
I0403 15:06:21.872970 18255 data_transformer.cpp:25] Loading mean file from: /home/mohanty/data/final_dataset/lmdb/color-80-20/mean.binaryproto
I0403 15:06:21.875259 18258 db_lmdb.cpp:38] Opened lmdb /home/mohanty/data/final_dataset/lmdb/color-80-20/test_db
I0403 15:06:21.887713 18255 data_layer.cpp:41] output data size: 100,3,227,227
I0403 15:06:22.011358 18255 net.cpp:141] Setting up data
I0403 15:06:22.011464 18255 net.cpp:148] Top shape: 100 3 227 227 (15458700)
I0403 15:06:22.011487 18255 net.cpp:148] Top shape: 100 (100)
I0403 15:06:22.011502 18255 net.cpp:156] Memory required for data: 61835200
I0403 15:06:22.011530 18255 layer_factory.hpp:77] Creating layer label_data_1_split
I0403 15:06:22.011556 18255 net.cpp:91] Creating Layer label_data_1_split
I0403 15:06:22.011574 18255 net.cpp:425] label_data_1_split <- label
I0403 15:06:22.011607 18255 net.cpp:399] label_data_1_split -> label_data_1_split_0
I0403 15:06:22.011634 18255 net.cpp:399] label_data_1_split -> label_data_1_split_1
I0403 15:06:22.011654 18255 net.cpp:399] label_data_1_split -> label_data_1_split_2
I0403 15:06:22.011718 18255 net.cpp:141] Setting up label_data_1_split
I0403 15:06:22.011741 18255 net.cpp:148] Top shape: 100 (100)
I0403 15:06:22.011759 18255 net.cpp:148] Top shape: 100 (100)
I0403 15:06:22.011775 18255 net.cpp:148] Top shape: 100 (100)
I0403 15:06:22.011788 18255 net.cpp:156] Memory required for data: 61836400
I0403 15:06:22.011803 18255 layer_factory.hpp:77] Creating layer conv1
I0403 15:06:22.011836 18255 net.cpp:91] Creating Layer conv1
I0403 15:06:22.011854 18255 net.cpp:425] conv1 <- data
I0403 15:06:22.011873 18255 net.cpp:399] conv1 -> conv1
I0403 15:06:22.162606 18255 net.cpp:141] Setting up conv1
I0403 15:06:22.162724 18255 net.cpp:148] Top shape: 100 96 55 55 (29040000)
I0403 15:06:22.162747 18255 net.cpp:156] Memory required for data: 177996400
I0403 15:06:22.162780 18255 layer_factory.hpp:77] Creating layer relu1
I0403 15:06:22.162807 18255 net.cpp:91] Creating Layer relu1
I0403 15:06:22.162827 18255 net.cpp:425] relu1 <- conv1
I0403 15:06:22.162844 18255 net.cpp:386] relu1 -> conv1 (in-place)
I0403 15:06:22.163113 18255 net.cpp:141] Setting up relu1
I0403 15:06:22.163141 18255 net.cpp:148] Top shape: 100 96 55 55 (29040000)
I0403 15:06:22.163156 18255 net.cpp:156] Memory required for data: 294156400
I0403 15:06:22.163205 18255 layer_factory.hpp:77] Creating layer norm1
I0403 15:06:22.163233 18255 net.cpp:91] Creating Layer norm1
I0403 15:06:22.163251 18255 net.cpp:425] norm1 <- conv1
I0403 15:06:22.163270 18255 net.cpp:399] norm1 -> norm1
I0403 15:06:22.163583 18255 net.cpp:141] Setting up norm1
I0403 15:06:22.163612 18255 net.cpp:148] Top shape: 100 96 55 55 (29040000)
I0403 15:06:22.163627 18255 net.cpp:156] Memory required for data: 410316400
I0403 15:06:22.163643 18255 layer_factory.hpp:77] Creating layer pool1
I0403 15:06:22.163667 18255 net.cpp:91] Creating Layer pool1
I0403 15:06:22.163686 18255 net.cpp:425] pool1 <- norm1
I0403 15:06:22.163703 18255 net.cpp:399] pool1 -> pool1
I0403 15:06:22.163772 18255 net.cpp:141] Setting up pool1
I0403 15:06:22.163797 18255 net.cpp:148] Top shape: 100 96 27 27 (6998400)
I0403 15:06:22.163812 18255 net.cpp:156] Memory required for data: 438310000
I0403 15:06:22.163828 18255 layer_factory.hpp:77] Creating layer conv2
I0403 15:06:22.163852 18255 net.cpp:91] Creating Layer conv2
I0403 15:06:22.163869 18255 net.cpp:425] conv2 <- pool1
I0403 15:06:22.163887 18255 net.cpp:399] conv2 -> conv2
I0403 15:06:22.179520 18255 net.cpp:141] Setting up conv2
I0403 15:06:22.179574 18255 net.cpp:148] Top shape: 100 256 27 27 (18662400)
I0403 15:06:22.179591 18255 net.cpp:156] Memory required for data: 512959600
I0403 15:06:22.179615 18255 layer_factory.hpp:77] Creating layer relu2
I0403 15:06:22.179633 18255 net.cpp:91] Creating Layer relu2
I0403 15:06:22.179649 18255 net.cpp:425] relu2 <- conv2
I0403 15:06:22.179666 18255 net.cpp:386] relu2 -> conv2 (in-place)
I0403 15:06:22.179932 18255 net.cpp:141] Setting up relu2
I0403 15:06:22.179960 18255 net.cpp:148] Top shape: 100 256 27 27 (18662400)
I0403 15:06:22.179975 18255 net.cpp:156] Memory required for data: 587609200
I0403 15:06:22.179991 18255 layer_factory.hpp:77] Creating layer norm2
I0403 15:06:22.180011 18255 net.cpp:91] Creating Layer norm2
I0403 15:06:22.180027 18255 net.cpp:425] norm2 <- conv2
I0403 15:06:22.180045 18255 net.cpp:399] norm2 -> norm2
I0403 15:06:22.180253 18255 net.cpp:141] Setting up norm2
I0403 15:06:22.180280 18255 net.cpp:148] Top shape: 100 256 27 27 (18662400)
I0403 15:06:22.180296 18255 net.cpp:156] Memory required for data: 662258800
I0403 15:06:22.180311 18255 layer_factory.hpp:77] Creating layer pool2
I0403 15:06:22.180331 18255 net.cpp:91] Creating Layer pool2
I0403 15:06:22.180346 18255 net.cpp:425] pool2 <- norm2
I0403 15:06:22.180366 18255 net.cpp:399] pool2 -> pool2
I0403 15:06:22.180416 18255 net.cpp:141] Setting up pool2
I0403 15:06:22.180440 18255 net.cpp:148] Top shape: 100 256 13 13 (4326400)
I0403 15:06:22.180456 18255 net.cpp:156] Memory required for data: 679564400
I0403 15:06:22.180471 18255 layer_factory.hpp:77] Creating layer conv3
I0403 15:06:22.180505 18255 net.cpp:91] Creating Layer conv3
I0403 15:06:22.180522 18255 net.cpp:425] conv3 <- pool2
I0403 15:06:22.180541 18255 net.cpp:399] conv3 -> conv3
I0403 15:06:22.219871 18255 net.cpp:141] Setting up conv3
I0403 15:06:22.219935 18255 net.cpp:148] Top shape: 100 384 13 13 (6489600)
I0403 15:06:22.219951 18255 net.cpp:156] Memory required for data: 705522800
I0403 15:06:22.219976 18255 layer_factory.hpp:77] Creating layer relu3
I0403 15:06:22.219997 18255 net.cpp:91] Creating Layer relu3
I0403 15:06:22.220013 18255 net.cpp:425] relu3 <- conv3
I0403 15:06:22.220032 18255 net.cpp:386] relu3 -> conv3 (in-place)
I0403 15:06:22.220348 18255 net.cpp:141] Setting up relu3
I0403 15:06:22.220383 18255 net.cpp:148] Top shape: 100 384 13 13 (6489600)
I0403 15:06:22.220398 18255 net.cpp:156] Memory required for data: 731481200
I0403 15:06:22.220413 18255 layer_factory.hpp:77] Creating layer conv4
I0403 15:06:22.220437 18255 net.cpp:91] Creating Layer conv4
I0403 15:06:22.220453 18255 net.cpp:425] conv4 <- conv3
I0403 15:06:22.220471 18255 net.cpp:399] conv4 -> conv4
I0403 15:06:22.251540 18255 net.cpp:141] Setting up conv4
I0403 15:06:22.251617 18255 net.cpp:148] Top shape: 100 384 13 13 (6489600)
I0403 15:06:22.251667 18255 net.cpp:156] Memory required for data: 757439600
I0403 15:06:22.251689 18255 layer_factory.hpp:77] Creating layer relu4
I0403 15:06:22.251714 18255 net.cpp:91] Creating Layer relu4
I0403 15:06:22.251734 18255 net.cpp:425] relu4 <- conv4
I0403 15:06:22.251752 18255 net.cpp:386] relu4 -> conv4 (in-place)
I0403 15:06:22.252040 18255 net.cpp:141] Setting up relu4
I0403 15:06:22.252074 18255 net.cpp:148] Top shape: 100 384 13 13 (6489600)
I0403 15:06:22.252089 18255 net.cpp:156] Memory required for data: 783398000
I0403 15:06:22.252105 18255 layer_factory.hpp:77] Creating layer conv5
I0403 15:06:22.252133 18255 net.cpp:91] Creating Layer conv5
I0403 15:06:22.252151 18255 net.cpp:425] conv5 <- conv4
I0403 15:06:22.252171 18255 net.cpp:399] conv5 -> conv5
I0403 15:06:22.273854 18255 net.cpp:141] Setting up conv5
I0403 15:06:22.273915 18255 net.cpp:148] Top shape: 100 256 13 13 (4326400)
I0403 15:06:22.273931 18255 net.cpp:156] Memory required for data: 800703600
I0403 15:06:22.273954 18255 layer_factory.hpp:77] Creating layer relu5
I0403 15:06:22.273974 18255 net.cpp:91] Creating Layer relu5
I0403 15:06:22.273991 18255 net.cpp:425] relu5 <- conv5
I0403 15:06:22.274011 18255 net.cpp:386] relu5 -> conv5 (in-place)
I0403 15:06:22.274296 18255 net.cpp:141] Setting up relu5
I0403 15:06:22.274322 18255 net.cpp:148] Top shape: 100 256 13 13 (4326400)
I0403 15:06:22.274338 18255 net.cpp:156] Memory required for data: 818009200
I0403 15:06:22.274351 18255 layer_factory.hpp:77] Creating layer pool5
I0403 15:06:22.274374 18255 net.cpp:91] Creating Layer pool5
I0403 15:06:22.274389 18255 net.cpp:425] pool5 <- conv5
I0403 15:06:22.274408 18255 net.cpp:399] pool5 -> pool5
I0403 15:06:22.274468 18255 net.cpp:141] Setting up pool5
I0403 15:06:22.274492 18255 net.cpp:148] Top shape: 100 256 6 6 (921600)
I0403 15:06:22.274505 18255 net.cpp:156] Memory required for data: 821695600
I0403 15:06:22.274519 18255 layer_factory.hpp:77] Creating layer fc6
I0403 15:06:22.274547 18255 net.cpp:91] Creating Layer fc6
I0403 15:06:22.274564 18255 net.cpp:425] fc6 <- pool5
I0403 15:06:22.274585 18255 net.cpp:399] fc6 -> fc6
I0403 15:06:23.826833 18255 net.cpp:141] Setting up fc6
I0403 15:06:23.826887 18255 net.cpp:148] Top shape: 100 4096 (409600)
I0403 15:06:23.826905 18255 net.cpp:156] Memory required for data: 823334000
I0403 15:06:23.826927 18255 layer_factory.hpp:77] Creating layer relu6
I0403 15:06:23.826956 18255 net.cpp:91] Creating Layer relu6
I0403 15:06:23.826977 18255 net.cpp:425] relu6 <- fc6
I0403 15:06:23.826997 18255 net.cpp:386] relu6 -> fc6 (in-place)
I0403 15:06:23.827242 18255 net.cpp:141] Setting up relu6
I0403 15:06:23.827272 18255 net.cpp:148] Top shape: 100 4096 (409600)
I0403 15:06:23.827289 18255 net.cpp:156] Memory required for data: 824972400
I0403 15:06:23.827304 18255 layer_factory.hpp:77] Creating layer drop6
I0403 15:06:23.827332 18255 net.cpp:91] Creating Layer drop6
I0403 15:06:23.827350 18255 net.cpp:425] drop6 <- fc6
I0403 15:06:23.827368 18255 net.cpp:386] drop6 -> fc6 (in-place)
I0403 15:06:23.827426 18255 net.cpp:141] Setting up drop6
I0403 15:06:23.827451 18255 net.cpp:148] Top shape: 100 4096 (409600)
I0403 15:06:23.827467 18255 net.cpp:156] Memory required for data: 826610800
I0403 15:06:23.827482 18255 layer_factory.hpp:77] Creating layer fc7
I0403 15:06:23.827513 18255 net.cpp:91] Creating Layer fc7
I0403 15:06:23.827534 18255 net.cpp:425] fc7 <- fc6
I0403 15:06:23.827556 18255 net.cpp:399] fc7 -> fc7
I0403 15:06:24.522514 18255 net.cpp:141] Setting up fc7
I0403 15:06:24.522558 18255 net.cpp:148] Top shape: 100 4096 (409600)
I0403 15:06:24.522578 18255 net.cpp:156] Memory required for data: 828249200
I0403 15:06:24.522598 18255 layer_factory.hpp:77] Creating layer relu7
I0403 15:06:24.522622 18255 net.cpp:91] Creating Layer relu7
I0403 15:06:24.522640 18255 net.cpp:425] relu7 <- fc7
I0403 15:06:24.522661 18255 net.cpp:386] relu7 -> fc7 (in-place)
I0403 15:06:24.523077 18255 net.cpp:141] Setting up relu7
I0403 15:06:24.523107 18255 net.cpp:148] Top shape: 100 4096 (409600)
I0403 15:06:24.523138 18255 net.cpp:156] Memory required for data: 829887600
I0403 15:06:24.523154 18255 layer_factory.hpp:77] Creating layer drop7
I0403 15:06:24.523172 18255 net.cpp:91] Creating Layer drop7
I0403 15:06:24.523187 18255 net.cpp:425] drop7 <- fc7
I0403 15:06:24.523206 18255 net.cpp:386] drop7 -> fc7 (in-place)
I0403 15:06:24.523249 18255 net.cpp:141] Setting up drop7
I0403 15:06:24.523272 18255 net.cpp:148] Top shape: 100 4096 (409600)
I0403 15:06:24.523285 18255 net.cpp:156] Memory required for data: 831526000
I0403 15:06:24.523299 18255 layer_factory.hpp:77] Creating layer fc8_plantvillage
I0403 15:06:24.523322 18255 net.cpp:91] Creating Layer fc8_plantvillage
I0403 15:06:24.523339 18255 net.cpp:425] fc8_plantvillage <- fc7
I0403 15:06:24.523360 18255 net.cpp:399] fc8_plantvillage -> fc8_plantvillage
I0403 15:06:24.530122 18255 net.cpp:141] Setting up fc8_plantvillage
I0403 15:06:24.530150 18255 net.cpp:148] Top shape: 100 38 (3800)
I0403 15:06:24.530165 18255 net.cpp:156] Memory required for data: 831541200
I0403 15:06:24.530184 18255 layer_factory.hpp:77] Creating layer fc8_plantvillage_fc8_plantvillage_0_split
I0403 15:06:24.530201 18255 net.cpp:91] Creating Layer fc8_plantvillage_fc8_plantvillage_0_split
I0403 15:06:24.530216 18255 net.cpp:425] fc8_plantvillage_fc8_plantvillage_0_split <- fc8_plantvillage
I0403 15:06:24.530237 18255 net.cpp:399] fc8_plantvillage_fc8_plantvillage_0_split -> fc8_plantvillage_fc8_plantvillage_0_split_0
I0403 15:06:24.530258 18255 net.cpp:399] fc8_plantvillage_fc8_plantvillage_0_split -> fc8_plantvillage_fc8_plantvillage_0_split_1
I0403 15:06:24.530277 18255 net.cpp:399] fc8_plantvillage_fc8_plantvillage_0_split -> fc8_plantvillage_fc8_plantvillage_0_split_2
I0403 15:06:24.530352 18255 net.cpp:141] Setting up fc8_plantvillage_fc8_plantvillage_0_split
I0403 15:06:24.530376 18255 net.cpp:148] Top shape: 100 38 (3800)
I0403 15:06:24.530392 18255 net.cpp:148] Top shape: 100 38 (3800)
I0403 15:06:24.530406 18255 net.cpp:148] Top shape: 100 38 (3800)
I0403 15:06:24.530421 18255 net.cpp:156] Memory required for data: 831586800
I0403 15:06:24.530434 18255 layer_factory.hpp:77] Creating layer prob
I0403 15:06:24.530452 18255 net.cpp:91] Creating Layer prob
I0403 15:06:24.530467 18255 net.cpp:425] prob <- fc8_plantvillage_fc8_plantvillage_0_split_0
I0403 15:06:24.530483 18255 net.cpp:399] prob -> prob
I0403 15:06:24.530709 18255 net.cpp:141] Setting up prob
I0403 15:06:24.530736 18255 net.cpp:148] Top shape: 100 38 (3800)
I0403 15:06:24.530751 18255 net.cpp:156] Memory required for data: 831602000
I0403 15:06:24.530766 18255 layer_factory.hpp:77] Creating layer hdf5out
I0403 15:06:24.530784 18255 net.cpp:91] Creating Layer hdf5out
I0403 15:06:24.530799 18255 net.cpp:425] hdf5out <- prob
I0403 15:06:24.530815 18255 net.cpp:425] hdf5out <- label_data_1_split_0
I0403 15:06:24.533339 18255 net.cpp:141] Setting up hdf5out
…
