…
I0403 15:10:58.505617 18400 net.cpp:313] The NetState phase (1) differed from the phase (0) specified by a rule in layer data
I0403 15:10:58.505938 18400 net.cpp:49] Initializing net from parameters: 
state {
  phase: TEST
}
layer {
  name: "data"
  type: "Data"
  top: "data"
  top: "label"
  include {
    phase: TEST
  }
  transform_param {
    crop_size: 227
    mean_file: "/home/mohanty/data/final_dataset/lmdb/color-80-20/mean.binaryproto"
  }
  data_param {
    source: "/home/mohanty/data/final_dataset/lmdb/color-80-20/test_db"
    batch_size: 100
    backend: LMDB
  }
}
layer {
  name: "conv1"
  type: "Convolution"
  bottom: "data"
  top: "conv1"
  param {
    lr_mult: 1
    decay_mult: 1
  }
  param {
    lr_mult: 2
    decay_mult: 0
  }
  convolution_param {
    num_output: 96
    kernel_size: 11
    stride: 4
    weight_filler {
      type: "gaussian"
      std: 0.01
    }
    bias_filler {
      type: "constant"
      value: 0
    }
  }
}
layer {
  name: "relu1"
  type: "ReLU"
  bottom: "conv1"
  top: "conv1"
}
layer {
  name: "norm1"
  type: "LRN"
  bottom: "conv1"
  top: "norm1"
  lrn_param {
    local_size: 5
    alpha: 0.0001
    beta: 0.75
  }
}
layer {
  name: "pool1"
  type: "Pooling"
  bottom: "norm1"
  top: "pool1"
  pooling_param {
    pool: MAX
    kernel_size: 3
    stride: 2
  }
}
layer {
  name: "conv2"
  type: "Convolution"
  bottom: "pool1"
  top: "conv2"
  param {
    lr_mult: 1
    decay_mult: 1
  }
  param {
    lr_mult: 2
    decay_mult: 0
  }
  convolution_param {
    num_output: 256
    pad: 2
    kernel_size: 5
    group: 2
    weight_filler {
      type: "gaussian"
      std: 0.01
    }
    bias_filler {
      type: "constant"
      value: 0.1
    }
  }
}
layer {
  name: "relu2"
  type: "ReLU"
  bottom: "conv2"
  top: "conv2"
}
layer {
  name: "norm2"
  type: "LRN"
  bottom: "conv2"
  top: "norm2"
  lrn_param {
    local_size: 5
    alpha: 0.0001
    beta: 0.75
  }
}
layer {
  name: "pool2"
  type: "Pooling"
  bottom: "norm2"
  top: "pool2"
  pooling_param {
    pool: MAX
    kernel_size: 3
    stride: 2
  }
}
layer {
  name: "conv3"
  type: "Convolution"
  bottom: "pool2"
  top: "conv3"
  param {
    lr_mult: 1
    decay_mult: 1
  }
  param {
    lr_mult: 2
    decay_mult: 0
  }
  convolution_param {
    num_output: 384
    pad: 1
    kernel_size: 3
    weight_filler {
      type: "gaussian"
      std: 0.01
    }
    bias_filler {
      type: "constant"
      value: 0
    }
  }
}
layer {
  name: "relu3"
  type: "ReLU"
  bottom: "conv3"
  top: "conv3"
}
layer {
  name: "conv4"
  type: "Convolution"
  bottom: "conv3"
  top: "conv4"
  param {
    lr_mult: 1
    decay_mult: 1
  }
  param {
    lr_mult: 2
    decay_mult: 0
  }
  convolution_param {
    num_output: 384
    pad: 1
    kernel_size: 3
    group: 2
    weight_filler {
      type: "gaussian"
      std: 0.01
    }
    bias_filler {
      type: "constant"
      value: 0.1
    }
  }
}
layer {
  name: "relu4"
  type: "ReLU"
  bottom: "conv4"
  top: "conv4"
}
layer {
  name: "conv5"
  type: "Convolution"
  bottom: "conv4"
  top: "conv5"
  param {
    lr_mult: 1
    decay_mult: 1
  }
  param {
    lr_mult: 2
    decay_mult: 0
  }
  convolution_param {
    num_output: 256
    pad: 1
    kernel_size: 3
    group: 2
    weight_filler {
      type: "gaussian"
      std: 0.01
    }
    bias_filler {
      type: "constant"
      value: 0.1
    }
  }
}
layer {
  name: "relu5"
  type: "ReLU"
  bottom: "conv5"
  top: "conv5"
}
layer {
  name: "pool5"
  type: "Pooling"
  bottom: "conv5"
  top: "pool5"
  pooling_param {
    pool: MAX
    kernel_size: 3
    stride: 2
  }
}
layer {
  name: "fc6"
  type: "InnerProduct"
  bottom: "pool5"
  top: "fc6"
  param {
    lr_mult: 1
    decay_mult: 1
  }
  param {
    lr_mult: 2
    decay_mult: 0
  }
  inner_product_param {
    num_output: 4096
    weight_filler {
      type: "gaussian"
      std: 0.005
    }
    bias_filler {
      type: "constant"
      value: 0.1
    }
  }
}
layer {
  name: "relu6"
  type: "ReLU"
  bottom: "fc6"
  top: "fc6"
}
layer {
  name: "drop6"
  type: "Dropout"
  bottom: "fc6"
  top: "fc6"
  dropout_param {
    dropout_ratio: 0.5
  }
}
layer {
  name: "fc7"
  type: "InnerProduct"
  bottom: "fc6"
  top: "fc7"
  param {
    lr_mult: 1
    decay_mult: 1
  }
  param {
    lr_mult: 2
    decay_mult: 0
  }
  inner_product_param {
    num_output: 4096
    weight_filler {
      type: "gaussian"
      std: 0.005
    }
    bias_filler {
      type: "constant"
      value: 0.1
    }
  }
}
layer {
  name: "relu7"
  type: "ReLU"
  bottom: "fc7"
  top: "fc7"
}
layer {
  name: "drop7"
  type: "Dropout"
  bottom: "fc7"
  top: "fc7"
  dropout_param {
    dropout_ratio: 0.5
  }
}
layer {
  name: "fc8_plantvillage"
  type: "InnerProduct"
  bottom: "fc7"
  top: "fc8_plantvillage"
  param {
    lr_mult: 1
    decay_mult: 1
  }
  param {
    lr_mult: 2
    decay_mult: 0
  }
  inner_product_param {
    num_output: 38
    weight_filler {
      type: "gaussian"
      std: 0.01
    }
    bias_filler {
      type: "constant"
      value: 0
    }
  }
}
layer {
  name: "prob"
  type: "Softmax"
  bottom: "fc8_plantvillage"
  top: "prob"
  include {
    phase: TEST
  }
}
layer {
  name: "hdf5out"
  type: "HDF5Output"
  bottom: "prob"
  bottom: "label"
  include {
    phase: TEST
  }
  hdf5_output_param {
    file_name: "hdf5_dumps/iter_11362.h5"
  }
}
layer {
  name: "loss"
  type: "SoftmaxWithLoss"
  bottom: "fc8_plantvillage"
  bottom: "label"
  top: "loss"
}
layer {
  name: "accuracy"
  type: "Accuracy"
  bottom: "fc8_plantvillage"
  bottom: "label"
  top: "accuracy"
  include {
    phase: TEST
  }
}
I0403 15:10:58.506564 18400 layer_factory.hpp:77] Creating layer data
I0403 15:10:58.507230 18400 net.cpp:91] Creating Layer data
I0403 15:10:58.507264 18400 net.cpp:399] data -> data
I0403 15:10:58.507319 18400 net.cpp:399] data -> label
I0403 15:10:58.507355 18400 data_transformer.cpp:25] Loading mean file from: /home/mohanty/data/final_dataset/lmdb/color-80-20/mean.binaryproto
I0403 15:10:58.510282 18403 db_lmdb.cpp:38] Opened lmdb /home/mohanty/data/final_dataset/lmdb/color-80-20/test_db
I0403 15:10:58.522291 18400 data_layer.cpp:41] output data size: 100,3,227,227
I0403 15:10:58.644198 18400 net.cpp:141] Setting up data
I0403 15:10:58.644258 18400 net.cpp:148] Top shape: 100 3 227 227 (15458700)
I0403 15:10:58.644284 18400 net.cpp:148] Top shape: 100 (100)
I0403 15:10:58.644301 18400 net.cpp:156] Memory required for data: 61835200
I0403 15:10:58.644342 18400 layer_factory.hpp:77] Creating layer label_data_1_split
I0403 15:10:58.644367 18400 net.cpp:91] Creating Layer label_data_1_split
I0403 15:10:58.644386 18400 net.cpp:425] label_data_1_split <- label
I0403 15:10:58.644418 18400 net.cpp:399] label_data_1_split -> label_data_1_split_0
I0403 15:10:58.644445 18400 net.cpp:399] label_data_1_split -> label_data_1_split_1
I0403 15:10:58.644465 18400 net.cpp:399] label_data_1_split -> label_data_1_split_2
I0403 15:10:58.644528 18400 net.cpp:141] Setting up label_data_1_split
I0403 15:10:58.644553 18400 net.cpp:148] Top shape: 100 (100)
I0403 15:10:58.644570 18400 net.cpp:148] Top shape: 100 (100)
I0403 15:10:58.644587 18400 net.cpp:148] Top shape: 100 (100)
I0403 15:10:58.644601 18400 net.cpp:156] Memory required for data: 61836400
I0403 15:10:58.644616 18400 layer_factory.hpp:77] Creating layer conv1
I0403 15:10:58.644649 18400 net.cpp:91] Creating Layer conv1
I0403 15:10:58.644667 18400 net.cpp:425] conv1 <- data
I0403 15:10:58.644687 18400 net.cpp:399] conv1 -> conv1
I0403 15:10:58.791646 18400 net.cpp:141] Setting up conv1
I0403 15:10:58.791718 18400 net.cpp:148] Top shape: 100 96 55 55 (29040000)
I0403 15:10:58.791736 18400 net.cpp:156] Memory required for data: 177996400
I0403 15:10:58.791771 18400 layer_factory.hpp:77] Creating layer relu1
I0403 15:10:58.791803 18400 net.cpp:91] Creating Layer relu1
I0403 15:10:58.791822 18400 net.cpp:425] relu1 <- conv1
I0403 15:10:58.791841 18400 net.cpp:386] relu1 -> conv1 (in-place)
I0403 15:10:58.792145 18400 net.cpp:141] Setting up relu1
I0403 15:10:58.792174 18400 net.cpp:148] Top shape: 100 96 55 55 (29040000)
I0403 15:10:58.792191 18400 net.cpp:156] Memory required for data: 294156400
I0403 15:10:58.792239 18400 layer_factory.hpp:77] Creating layer norm1
I0403 15:10:58.792270 18400 net.cpp:91] Creating Layer norm1
I0403 15:10:58.792299 18400 net.cpp:425] norm1 <- conv1
I0403 15:10:58.792328 18400 net.cpp:399] norm1 -> norm1
I0403 15:10:58.792752 18400 net.cpp:141] Setting up norm1
I0403 15:10:58.792780 18400 net.cpp:148] Top shape: 100 96 55 55 (29040000)
I0403 15:10:58.792796 18400 net.cpp:156] Memory required for data: 410316400
I0403 15:10:58.792811 18400 layer_factory.hpp:77] Creating layer pool1
I0403 15:10:58.792835 18400 net.cpp:91] Creating Layer pool1
I0403 15:10:58.792852 18400 net.cpp:425] pool1 <- norm1
I0403 15:10:58.792873 18400 net.cpp:399] pool1 -> pool1
I0403 15:10:58.792948 18400 net.cpp:141] Setting up pool1
I0403 15:10:58.792975 18400 net.cpp:148] Top shape: 100 96 27 27 (6998400)
I0403 15:10:58.792990 18400 net.cpp:156] Memory required for data: 438310000
I0403 15:10:58.793006 18400 layer_factory.hpp:77] Creating layer conv2
I0403 15:10:58.793035 18400 net.cpp:91] Creating Layer conv2
I0403 15:10:58.793057 18400 net.cpp:425] conv2 <- pool1
I0403 15:10:58.793077 18400 net.cpp:399] conv2 -> conv2
I0403 15:10:58.809914 18400 net.cpp:141] Setting up conv2
I0403 15:10:58.809973 18400 net.cpp:148] Top shape: 100 256 27 27 (18662400)
I0403 15:10:58.809989 18400 net.cpp:156] Memory required for data: 512959600
I0403 15:10:58.810012 18400 layer_factory.hpp:77] Creating layer relu2
I0403 15:10:58.810032 18400 net.cpp:91] Creating Layer relu2
I0403 15:10:58.810051 18400 net.cpp:425] relu2 <- conv2
I0403 15:10:58.810075 18400 net.cpp:386] relu2 -> conv2 (in-place)
I0403 15:10:58.810374 18400 net.cpp:141] Setting up relu2
I0403 15:10:58.810400 18400 net.cpp:148] Top shape: 100 256 27 27 (18662400)
I0403 15:10:58.810417 18400 net.cpp:156] Memory required for data: 587609200
I0403 15:10:58.810431 18400 layer_factory.hpp:77] Creating layer norm2
I0403 15:10:58.810456 18400 net.cpp:91] Creating Layer norm2
I0403 15:10:58.810472 18400 net.cpp:425] norm2 <- conv2
I0403 15:10:58.810490 18400 net.cpp:399] norm2 -> norm2
I0403 15:10:58.810698 18400 net.cpp:141] Setting up norm2
I0403 15:10:58.810727 18400 net.cpp:148] Top shape: 100 256 27 27 (18662400)
I0403 15:10:58.810742 18400 net.cpp:156] Memory required for data: 662258800
I0403 15:10:58.810758 18400 layer_factory.hpp:77] Creating layer pool2
I0403 15:10:58.810775 18400 net.cpp:91] Creating Layer pool2
I0403 15:10:58.810791 18400 net.cpp:425] pool2 <- norm2
I0403 15:10:58.810811 18400 net.cpp:399] pool2 -> pool2
I0403 15:10:58.810865 18400 net.cpp:141] Setting up pool2
I0403 15:10:58.810889 18400 net.cpp:148] Top shape: 100 256 13 13 (4326400)
I0403 15:10:58.810904 18400 net.cpp:156] Memory required for data: 679564400
I0403 15:10:58.810917 18400 layer_factory.hpp:77] Creating layer conv3
I0403 15:10:58.810941 18400 net.cpp:91] Creating Layer conv3
I0403 15:10:58.810958 18400 net.cpp:425] conv3 <- pool2
I0403 15:10:58.810979 18400 net.cpp:399] conv3 -> conv3
I0403 15:10:58.850402 18400 net.cpp:141] Setting up conv3
I0403 15:10:58.850471 18400 net.cpp:148] Top shape: 100 384 13 13 (6489600)
I0403 15:10:58.850528 18400 net.cpp:156] Memory required for data: 705522800
I0403 15:10:58.850560 18400 layer_factory.hpp:77] Creating layer relu3
I0403 15:10:58.850584 18400 net.cpp:91] Creating Layer relu3
I0403 15:10:58.850602 18400 net.cpp:425] relu3 <- conv3
I0403 15:10:58.850625 18400 net.cpp:386] relu3 -> conv3 (in-place)
I0403 15:10:58.850921 18400 net.cpp:141] Setting up relu3
I0403 15:10:58.850950 18400 net.cpp:148] Top shape: 100 384 13 13 (6489600)
I0403 15:10:58.850966 18400 net.cpp:156] Memory required for data: 731481200
I0403 15:10:58.850983 18400 layer_factory.hpp:77] Creating layer conv4
I0403 15:10:58.851007 18400 net.cpp:91] Creating Layer conv4
I0403 15:10:58.851025 18400 net.cpp:425] conv4 <- conv3
I0403 15:10:58.851053 18400 net.cpp:399] conv4 -> conv4
I0403 15:10:58.882513 18400 net.cpp:141] Setting up conv4
I0403 15:10:58.882555 18400 net.cpp:148] Top shape: 100 384 13 13 (6489600)
I0403 15:10:58.882603 18400 net.cpp:156] Memory required for data: 757439600
I0403 15:10:58.882627 18400 layer_factory.hpp:77] Creating layer relu4
I0403 15:10:58.882649 18400 net.cpp:91] Creating Layer relu4
I0403 15:10:58.882668 18400 net.cpp:425] relu4 <- conv4
I0403 15:10:58.882686 18400 net.cpp:386] relu4 -> conv4 (in-place)
I0403 15:10:58.882987 18400 net.cpp:141] Setting up relu4
I0403 15:10:58.883018 18400 net.cpp:148] Top shape: 100 384 13 13 (6489600)
I0403 15:10:58.883034 18400 net.cpp:156] Memory required for data: 783398000
I0403 15:10:58.883054 18400 layer_factory.hpp:77] Creating layer conv5
I0403 15:10:58.883082 18400 net.cpp:91] Creating Layer conv5
I0403 15:10:58.883101 18400 net.cpp:425] conv5 <- conv4
I0403 15:10:58.883121 18400 net.cpp:399] conv5 -> conv5
I0403 15:10:58.904413 18400 net.cpp:141] Setting up conv5
I0403 15:10:58.904469 18400 net.cpp:148] Top shape: 100 256 13 13 (4326400)
I0403 15:10:58.904486 18400 net.cpp:156] Memory required for data: 800703600
I0403 15:10:58.904511 18400 layer_factory.hpp:77] Creating layer relu5
I0403 15:10:58.904532 18400 net.cpp:91] Creating Layer relu5
I0403 15:10:58.904549 18400 net.cpp:425] relu5 <- conv5
I0403 15:10:58.904570 18400 net.cpp:386] relu5 -> conv5 (in-place)
I0403 15:10:58.904856 18400 net.cpp:141] Setting up relu5
I0403 15:10:58.904887 18400 net.cpp:148] Top shape: 100 256 13 13 (4326400)
I0403 15:10:58.904904 18400 net.cpp:156] Memory required for data: 818009200
I0403 15:10:58.904919 18400 layer_factory.hpp:77] Creating layer pool5
I0403 15:10:58.904944 18400 net.cpp:91] Creating Layer pool5
I0403 15:10:58.904961 18400 net.cpp:425] pool5 <- conv5
I0403 15:10:58.904980 18400 net.cpp:399] pool5 -> pool5
I0403 15:10:58.905041 18400 net.cpp:141] Setting up pool5
I0403 15:10:58.905071 18400 net.cpp:148] Top shape: 100 256 6 6 (921600)
I0403 15:10:58.905086 18400 net.cpp:156] Memory required for data: 821695600
I0403 15:10:58.905100 18400 layer_factory.hpp:77] Creating layer fc6
I0403 15:10:58.905128 18400 net.cpp:91] Creating Layer fc6
I0403 15:10:58.905146 18400 net.cpp:425] fc6 <- pool5
I0403 15:10:58.905167 18400 net.cpp:399] fc6 -> fc6
I0403 15:11:00.463932 18400 net.cpp:141] Setting up fc6
I0403 15:11:00.463978 18400 net.cpp:148] Top shape: 100 4096 (409600)
I0403 15:11:00.463994 18400 net.cpp:156] Memory required for data: 823334000
I0403 15:11:00.464015 18400 layer_factory.hpp:77] Creating layer relu6
I0403 15:11:00.464037 18400 net.cpp:91] Creating Layer relu6
I0403 15:11:00.464059 18400 net.cpp:425] relu6 <- fc6
I0403 15:11:00.464079 18400 net.cpp:386] relu6 -> fc6 (in-place)
I0403 15:11:00.464296 18400 net.cpp:141] Setting up relu6
I0403 15:11:00.464325 18400 net.cpp:148] Top shape: 100 4096 (409600)
I0403 15:11:00.464341 18400 net.cpp:156] Memory required for data: 824972400
I0403 15:11:00.464356 18400 layer_factory.hpp:77] Creating layer drop6
I0403 15:11:00.464375 18400 net.cpp:91] Creating Layer drop6
I0403 15:11:00.464390 18400 net.cpp:425] drop6 <- fc6
I0403 15:11:00.464409 18400 net.cpp:386] drop6 -> fc6 (in-place)
I0403 15:11:00.464462 18400 net.cpp:141] Setting up drop6
I0403 15:11:00.464484 18400 net.cpp:148] Top shape: 100 4096 (409600)
I0403 15:11:00.464498 18400 net.cpp:156] Memory required for data: 826610800
I0403 15:11:00.464514 18400 layer_factory.hpp:77] Creating layer fc7
I0403 15:11:00.464539 18400 net.cpp:91] Creating Layer fc7
I0403 15:11:00.464555 18400 net.cpp:425] fc7 <- fc6
I0403 15:11:00.464573 18400 net.cpp:399] fc7 -> fc7
I0403 15:11:01.142508 18400 net.cpp:141] Setting up fc7
I0403 15:11:01.142581 18400 net.cpp:148] Top shape: 100 4096 (409600)
I0403 15:11:01.142596 18400 net.cpp:156] Memory required for data: 828249200
I0403 15:11:01.142616 18400 layer_factory.hpp:77] Creating layer relu7
I0403 15:11:01.142637 18400 net.cpp:91] Creating Layer relu7
I0403 15:11:01.142653 18400 net.cpp:425] relu7 <- fc7
I0403 15:11:01.142673 18400 net.cpp:386] relu7 -> fc7 (in-place)
I0403 15:11:01.143095 18400 net.cpp:141] Setting up relu7
I0403 15:11:01.143124 18400 net.cpp:148] Top shape: 100 4096 (409600)
I0403 15:11:01.143170 18400 net.cpp:156] Memory required for data: 829887600
I0403 15:11:01.143187 18400 layer_factory.hpp:77] Creating layer drop7
I0403 15:11:01.143204 18400 net.cpp:91] Creating Layer drop7
I0403 15:11:01.143219 18400 net.cpp:425] drop7 <- fc7
I0403 15:11:01.143236 18400 net.cpp:386] drop7 -> fc7 (in-place)
I0403 15:11:01.143293 18400 net.cpp:141] Setting up drop7
I0403 15:11:01.143316 18400 net.cpp:148] Top shape: 100 4096 (409600)
I0403 15:11:01.143328 18400 net.cpp:156] Memory required for data: 831526000
I0403 15:11:01.143343 18400 layer_factory.hpp:77] Creating layer fc8_plantvillage
I0403 15:11:01.143364 18400 net.cpp:91] Creating Layer fc8_plantvillage
I0403 15:11:01.143379 18400 net.cpp:425] fc8_plantvillage <- fc7
I0403 15:11:01.143396 18400 net.cpp:399] fc8_plantvillage -> fc8_plantvillage
I0403 15:11:01.149922 18400 net.cpp:141] Setting up fc8_plantvillage
I0403 15:11:01.149950 18400 net.cpp:148] Top shape: 100 38 (3800)
I0403 15:11:01.149966 18400 net.cpp:156] Memory required for data: 831541200
I0403 15:11:01.149984 18400 layer_factory.hpp:77] Creating layer fc8_plantvillage_fc8_plantvillage_0_split
I0403 15:11:01.150002 18400 net.cpp:91] Creating Layer fc8_plantvillage_fc8_plantvillage_0_split
I0403 15:11:01.150017 18400 net.cpp:425] fc8_plantvillage_fc8_plantvillage_0_split <- fc8_plantvillage
I0403 15:11:01.150038 18400 net.cpp:399] fc8_plantvillage_fc8_plantvillage_0_split -> fc8_plantvillage_fc8_plantvillage_0_split_0
I0403 15:11:01.150064 18400 net.cpp:399] fc8_plantvillage_fc8_plantvillage_0_split -> fc8_plantvillage_fc8_plantvillage_0_split_1
I0403 15:11:01.150085 18400 net.cpp:399] fc8_plantvillage_fc8_plantvillage_0_split -> fc8_plantvillage_fc8_plantvillage_0_split_2
I0403 15:11:01.150162 18400 net.cpp:141] Setting up fc8_plantvillage_fc8_plantvillage_0_split
I0403 15:11:01.150188 18400 net.cpp:148] Top shape: 100 38 (3800)
I0403 15:11:01.150205 18400 net.cpp:148] Top shape: 100 38 (3800)
I0403 15:11:01.150220 18400 net.cpp:148] Top shape: 100 38 (3800)
I0403 15:11:01.150233 18400 net.cpp:156] Memory required for data: 831586800
I0403 15:11:01.150248 18400 layer_factory.hpp:77] Creating layer prob
I0403 15:11:01.150265 18400 net.cpp:91] Creating Layer prob
I0403 15:11:01.150280 18400 net.cpp:425] prob <- fc8_plantvillage_fc8_plantvillage_0_split_0
I0403 15:11:01.150297 18400 net.cpp:399] prob -> prob
I0403 15:11:01.150519 18400 net.cpp:141] Setting up prob
I0403 15:11:01.150547 18400 net.cpp:148] Top shape: 100 38 (3800)
I0403 15:11:01.150563 18400 net.cpp:156] Memory required for data: 831602000
I0403 15:11:01.150578 18400 layer_factory.hpp:77] Creating layer hdf5out
I0403 15:11:01.150595 18400 net.cpp:91] Creating Layer hdf5out
I0403 15:11:01.150610 18400 net.cpp:425] hdf5out <- prob
I0403 15:11:01.150625 18400 net.cpp:425] hdf5out <- label_data_1_split_0
I0403 15:11:01.152827 18400 net.cpp:141] Setting up hdf5out
…
