…
I0403 15:13:04.173447 18458 net.cpp:313] The NetState phase (1) differed from the phase (0) specified by a rule in layer data
I0403 15:13:04.173755 18458 net.cpp:49] Initializing net from parameters: 
state {
  phase: TEST
}
layer {
  name: "data"
  type: "Data"
  top: "data"
  top: "label"
  include {
    phase: TEST
  }
  transform_param {
    crop_size: 227
    mean_file: "/home/mohanty/data/final_dataset/lmdb/color-80-20/mean.binaryproto"
  }
  data_param {
    source: "/home/mohanty/data/final_dataset/lmdb/color-80-20/test_db"
    batch_size: 100
    backend: LMDB
  }
}
layer {
  name: "conv1"
  type: "Convolution"
  bottom: "data"
  top: "conv1"
  param {
    lr_mult: 1
    decay_mult: 1
  }
  param {
    lr_mult: 2
    decay_mult: 0
  }
  convolution_param {
    num_output: 96
    kernel_size: 11
    stride: 4
    weight_filler {
      type: "gaussian"
      std: 0.01
    }
    bias_filler {
      type: "constant"
      value: 0
    }
  }
}
layer {
  name: "relu1"
  type: "ReLU"
  bottom: "conv1"
  top: "conv1"
}
layer {
  name: "norm1"
  type: "LRN"
  bottom: "conv1"
  top: "norm1"
  lrn_param {
    local_size: 5
    alpha: 0.0001
    beta: 0.75
  }
}
layer {
  name: "pool1"
  type: "Pooling"
  bottom: "norm1"
  top: "pool1"
  pooling_param {
    pool: MAX
    kernel_size: 3
    stride: 2
  }
}
layer {
  name: "conv2"
  type: "Convolution"
  bottom: "pool1"
  top: "conv2"
  param {
    lr_mult: 1
    decay_mult: 1
  }
  param {
    lr_mult: 2
    decay_mult: 0
  }
  convolution_param {
    num_output: 256
    pad: 2
    kernel_size: 5
    group: 2
    weight_filler {
      type: "gaussian"
      std: 0.01
    }
    bias_filler {
      type: "constant"
      value: 0.1
    }
  }
}
layer {
  name: "relu2"
  type: "ReLU"
  bottom: "conv2"
  top: "conv2"
}
layer {
  name: "norm2"
  type: "LRN"
  bottom: "conv2"
  top: "norm2"
  lrn_param {
    local_size: 5
    alpha: 0.0001
    beta: 0.75
  }
}
layer {
  name: "pool2"
  type: "Pooling"
  bottom: "norm2"
  top: "pool2"
  pooling_param {
    pool: MAX
    kernel_size: 3
    stride: 2
  }
}
layer {
  name: "conv3"
  type: "Convolution"
  bottom: "pool2"
  top: "conv3"
  param {
    lr_mult: 1
    decay_mult: 1
  }
  param {
    lr_mult: 2
    decay_mult: 0
  }
  convolution_param {
    num_output: 384
    pad: 1
    kernel_size: 3
    weight_filler {
      type: "gaussian"
      std: 0.01
    }
    bias_filler {
      type: "constant"
      value: 0
    }
  }
}
layer {
  name: "relu3"
  type: "ReLU"
  bottom: "conv3"
  top: "conv3"
}
layer {
  name: "conv4"
  type: "Convolution"
  bottom: "conv3"
  top: "conv4"
  param {
    lr_mult: 1
    decay_mult: 1
  }
  param {
    lr_mult: 2
    decay_mult: 0
  }
  convolution_param {
    num_output: 384
    pad: 1
    kernel_size: 3
    group: 2
    weight_filler {
      type: "gaussian"
      std: 0.01
    }
    bias_filler {
      type: "constant"
      value: 0.1
    }
  }
}
layer {
  name: "relu4"
  type: "ReLU"
  bottom: "conv4"
  top: "conv4"
}
layer {
  name: "conv5"
  type: "Convolution"
  bottom: "conv4"
  top: "conv5"
  param {
    lr_mult: 1
    decay_mult: 1
  }
  param {
    lr_mult: 2
    decay_mult: 0
  }
  convolution_param {
    num_output: 256
    pad: 1
    kernel_size: 3
    group: 2
    weight_filler {
      type: "gaussian"
      std: 0.01
    }
    bias_filler {
      type: "constant"
      value: 0.1
    }
  }
}
layer {
  name: "relu5"
  type: "ReLU"
  bottom: "conv5"
  top: "conv5"
}
layer {
  name: "pool5"
  type: "Pooling"
  bottom: "conv5"
  top: "pool5"
  pooling_param {
    pool: MAX
    kernel_size: 3
    stride: 2
  }
}
layer {
  name: "fc6"
  type: "InnerProduct"
  bottom: "pool5"
  top: "fc6"
  param {
    lr_mult: 1
    decay_mult: 1
  }
  param {
    lr_mult: 2
    decay_mult: 0
  }
  inner_product_param {
    num_output: 4096
    weight_filler {
      type: "gaussian"
      std: 0.005
    }
    bias_filler {
      type: "constant"
      value: 0.1
    }
  }
}
layer {
  name: "relu6"
  type: "ReLU"
  bottom: "fc6"
  top: "fc6"
}
layer {
  name: "drop6"
  type: "Dropout"
  bottom: "fc6"
  top: "fc6"
  dropout_param {
    dropout_ratio: 0.5
  }
}
layer {
  name: "fc7"
  type: "InnerProduct"
  bottom: "fc6"
  top: "fc7"
  param {
    lr_mult: 1
    decay_mult: 1
  }
  param {
    lr_mult: 2
    decay_mult: 0
  }
  inner_product_param {
    num_output: 4096
    weight_filler {
      type: "gaussian"
      std: 0.005
    }
    bias_filler {
      type: "constant"
      value: 0.1
    }
  }
}
layer {
  name: "relu7"
  type: "ReLU"
  bottom: "fc7"
  top: "fc7"
}
layer {
  name: "drop7"
  type: "Dropout"
  bottom: "fc7"
  top: "fc7"
  dropout_param {
    dropout_ratio: 0.5
  }
}
layer {
  name: "fc8_plantvillage"
  type: "InnerProduct"
  bottom: "fc7"
  top: "fc8_plantvillage"
  param {
    lr_mult: 1
    decay_mult: 1
  }
  param {
    lr_mult: 2
    decay_mult: 0
  }
  inner_product_param {
    num_output: 38
    weight_filler {
      type: "gaussian"
      std: 0.01
    }
    bias_filler {
      type: "constant"
      value: 0
    }
  }
}
layer {
  name: "prob"
  type: "Softmax"
  bottom: "fc8_plantvillage"
  top: "prob"
  include {
    phase: TEST
  }
}
layer {
  name: "hdf5out"
  type: "HDF5Output"
  bottom: "prob"
  bottom: "label"
  include {
    phase: TEST
  }
  hdf5_output_param {
    file_name: "hdf5_dumps/iter_13127.h5"
  }
}
layer {
  name: "loss"
  type: "SoftmaxWithLoss"
  bottom: "fc8_plantvillage"
  bottom: "label"
  top: "loss"
}
layer {
  name: "accuracy"
  type: "Accuracy"
  bottom: "fc8_plantvillage"
  bottom: "label"
  top: "accuracy"
  include {
    phase: TEST
  }
}
I0403 15:13:04.174319 18458 layer_factory.hpp:77] Creating layer data
I0403 15:13:04.174959 18458 net.cpp:91] Creating Layer data
I0403 15:13:04.174989 18458 net.cpp:399] data -> data
I0403 15:13:04.175046 18458 net.cpp:399] data -> label
I0403 15:13:04.175084 18458 data_transformer.cpp:25] Loading mean file from: /home/mohanty/data/final_dataset/lmdb/color-80-20/mean.binaryproto
I0403 15:13:04.177505 18461 db_lmdb.cpp:38] Opened lmdb /home/mohanty/data/final_dataset/lmdb/color-80-20/test_db
I0403 15:13:04.189692 18458 data_layer.cpp:41] output data size: 100,3,227,227
I0403 15:13:04.311597 18458 net.cpp:141] Setting up data
I0403 15:13:04.311656 18458 net.cpp:148] Top shape: 100 3 227 227 (15458700)
I0403 15:13:04.311678 18458 net.cpp:148] Top shape: 100 (100)
I0403 15:13:04.311693 18458 net.cpp:156] Memory required for data: 61835200
I0403 15:13:04.311720 18458 layer_factory.hpp:77] Creating layer label_data_1_split
I0403 15:13:04.311745 18458 net.cpp:91] Creating Layer label_data_1_split
I0403 15:13:04.311763 18458 net.cpp:425] label_data_1_split <- label
I0403 15:13:04.311794 18458 net.cpp:399] label_data_1_split -> label_data_1_split_0
I0403 15:13:04.311820 18458 net.cpp:399] label_data_1_split -> label_data_1_split_1
I0403 15:13:04.311841 18458 net.cpp:399] label_data_1_split -> label_data_1_split_2
I0403 15:13:04.311902 18458 net.cpp:141] Setting up label_data_1_split
I0403 15:13:04.311925 18458 net.cpp:148] Top shape: 100 (100)
I0403 15:13:04.311942 18458 net.cpp:148] Top shape: 100 (100)
I0403 15:13:04.311960 18458 net.cpp:148] Top shape: 100 (100)
I0403 15:13:04.311975 18458 net.cpp:156] Memory required for data: 61836400
I0403 15:13:04.311988 18458 layer_factory.hpp:77] Creating layer conv1
I0403 15:13:04.312037 18458 net.cpp:91] Creating Layer conv1
I0403 15:13:04.312057 18458 net.cpp:425] conv1 <- data
I0403 15:13:04.312077 18458 net.cpp:399] conv1 -> conv1
I0403 15:13:04.455270 18458 net.cpp:141] Setting up conv1
I0403 15:13:04.455344 18458 net.cpp:148] Top shape: 100 96 55 55 (29040000)
I0403 15:13:04.455363 18458 net.cpp:156] Memory required for data: 177996400
I0403 15:13:04.455394 18458 layer_factory.hpp:77] Creating layer relu1
I0403 15:13:04.455420 18458 net.cpp:91] Creating Layer relu1
I0403 15:13:04.455438 18458 net.cpp:425] relu1 <- conv1
I0403 15:13:04.455456 18458 net.cpp:386] relu1 -> conv1 (in-place)
I0403 15:13:04.455718 18458 net.cpp:141] Setting up relu1
I0403 15:13:04.455745 18458 net.cpp:148] Top shape: 100 96 55 55 (29040000)
I0403 15:13:04.455760 18458 net.cpp:156] Memory required for data: 294156400
I0403 15:13:04.455808 18458 layer_factory.hpp:77] Creating layer norm1
I0403 15:13:04.455837 18458 net.cpp:91] Creating Layer norm1
I0403 15:13:04.455855 18458 net.cpp:425] norm1 <- conv1
I0403 15:13:04.455873 18458 net.cpp:399] norm1 -> norm1
I0403 15:13:04.456187 18458 net.cpp:141] Setting up norm1
I0403 15:13:04.456215 18458 net.cpp:148] Top shape: 100 96 55 55 (29040000)
I0403 15:13:04.456231 18458 net.cpp:156] Memory required for data: 410316400
I0403 15:13:04.456246 18458 layer_factory.hpp:77] Creating layer pool1
I0403 15:13:04.456269 18458 net.cpp:91] Creating Layer pool1
I0403 15:13:04.456286 18458 net.cpp:425] pool1 <- norm1
I0403 15:13:04.456303 18458 net.cpp:399] pool1 -> pool1
I0403 15:13:04.456375 18458 net.cpp:141] Setting up pool1
I0403 15:13:04.456399 18458 net.cpp:148] Top shape: 100 96 27 27 (6998400)
I0403 15:13:04.456415 18458 net.cpp:156] Memory required for data: 438310000
I0403 15:13:04.456429 18458 layer_factory.hpp:77] Creating layer conv2
I0403 15:13:04.456454 18458 net.cpp:91] Creating Layer conv2
I0403 15:13:04.456471 18458 net.cpp:425] conv2 <- pool1
I0403 15:13:04.456490 18458 net.cpp:399] conv2 -> conv2
I0403 15:13:04.471848 18458 net.cpp:141] Setting up conv2
I0403 15:13:04.471914 18458 net.cpp:148] Top shape: 100 256 27 27 (18662400)
I0403 15:13:04.471930 18458 net.cpp:156] Memory required for data: 512959600
I0403 15:13:04.471953 18458 layer_factory.hpp:77] Creating layer relu2
I0403 15:13:04.471979 18458 net.cpp:91] Creating Layer relu2
I0403 15:13:04.471997 18458 net.cpp:425] relu2 <- conv2
I0403 15:13:04.472019 18458 net.cpp:386] relu2 -> conv2 (in-place)
I0403 15:13:04.472308 18458 net.cpp:141] Setting up relu2
I0403 15:13:04.472335 18458 net.cpp:148] Top shape: 100 256 27 27 (18662400)
I0403 15:13:04.472350 18458 net.cpp:156] Memory required for data: 587609200
I0403 15:13:04.472365 18458 layer_factory.hpp:77] Creating layer norm2
I0403 15:13:04.472388 18458 net.cpp:91] Creating Layer norm2
I0403 15:13:04.472406 18458 net.cpp:425] norm2 <- conv2
I0403 15:13:04.472426 18458 net.cpp:399] norm2 -> norm2
I0403 15:13:04.472625 18458 net.cpp:141] Setting up norm2
I0403 15:13:04.472651 18458 net.cpp:148] Top shape: 100 256 27 27 (18662400)
I0403 15:13:04.472666 18458 net.cpp:156] Memory required for data: 662258800
I0403 15:13:04.472681 18458 layer_factory.hpp:77] Creating layer pool2
I0403 15:13:04.472698 18458 net.cpp:91] Creating Layer pool2
I0403 15:13:04.472713 18458 net.cpp:425] pool2 <- norm2
I0403 15:13:04.472733 18458 net.cpp:399] pool2 -> pool2
I0403 15:13:04.472786 18458 net.cpp:141] Setting up pool2
I0403 15:13:04.472810 18458 net.cpp:148] Top shape: 100 256 13 13 (4326400)
I0403 15:13:04.472825 18458 net.cpp:156] Memory required for data: 679564400
I0403 15:13:04.472838 18458 layer_factory.hpp:77] Creating layer conv3
I0403 15:13:04.472898 18458 net.cpp:91] Creating Layer conv3
I0403 15:13:04.472919 18458 net.cpp:425] conv3 <- pool2
I0403 15:13:04.472940 18458 net.cpp:399] conv3 -> conv3
I0403 15:13:04.515090 18458 net.cpp:141] Setting up conv3
I0403 15:13:04.515157 18458 net.cpp:148] Top shape: 100 384 13 13 (6489600)
I0403 15:13:04.515174 18458 net.cpp:156] Memory required for data: 705522800
I0403 15:13:04.515198 18458 layer_factory.hpp:77] Creating layer relu3
I0403 15:13:04.515221 18458 net.cpp:91] Creating Layer relu3
I0403 15:13:04.515239 18458 net.cpp:425] relu3 <- conv3
I0403 15:13:04.515256 18458 net.cpp:386] relu3 -> conv3 (in-place)
I0403 15:13:04.515537 18458 net.cpp:141] Setting up relu3
I0403 15:13:04.515563 18458 net.cpp:148] Top shape: 100 384 13 13 (6489600)
I0403 15:13:04.515578 18458 net.cpp:156] Memory required for data: 731481200
I0403 15:13:04.515591 18458 layer_factory.hpp:77] Creating layer conv4
I0403 15:13:04.515616 18458 net.cpp:91] Creating Layer conv4
I0403 15:13:04.515632 18458 net.cpp:425] conv4 <- conv3
I0403 15:13:04.515652 18458 net.cpp:399] conv4 -> conv4
I0403 15:13:04.545672 18458 net.cpp:141] Setting up conv4
I0403 15:13:04.545745 18458 net.cpp:148] Top shape: 100 384 13 13 (6489600)
I0403 15:13:04.545792 18458 net.cpp:156] Memory required for data: 757439600
I0403 15:13:04.545814 18458 layer_factory.hpp:77] Creating layer relu4
I0403 15:13:04.545835 18458 net.cpp:91] Creating Layer relu4
I0403 15:13:04.545856 18458 net.cpp:425] relu4 <- conv4
I0403 15:13:04.545874 18458 net.cpp:386] relu4 -> conv4 (in-place)
I0403 15:13:04.546164 18458 net.cpp:141] Setting up relu4
I0403 15:13:04.546191 18458 net.cpp:148] Top shape: 100 384 13 13 (6489600)
I0403 15:13:04.546207 18458 net.cpp:156] Memory required for data: 783398000
I0403 15:13:04.546222 18458 layer_factory.hpp:77] Creating layer conv5
I0403 15:13:04.546248 18458 net.cpp:91] Creating Layer conv5
I0403 15:13:04.546267 18458 net.cpp:425] conv5 <- conv4
I0403 15:13:04.546288 18458 net.cpp:399] conv5 -> conv5
I0403 15:13:04.567245 18458 net.cpp:141] Setting up conv5
I0403 15:13:04.567281 18458 net.cpp:148] Top shape: 100 256 13 13 (4326400)
I0403 15:13:04.567298 18458 net.cpp:156] Memory required for data: 800703600
I0403 15:13:04.567322 18458 layer_factory.hpp:77] Creating layer relu5
I0403 15:13:04.567348 18458 net.cpp:91] Creating Layer relu5
I0403 15:13:04.567365 18458 net.cpp:425] relu5 <- conv5
I0403 15:13:04.567384 18458 net.cpp:386] relu5 -> conv5 (in-place)
I0403 15:13:04.567664 18458 net.cpp:141] Setting up relu5
I0403 15:13:04.567692 18458 net.cpp:148] Top shape: 100 256 13 13 (4326400)
I0403 15:13:04.567706 18458 net.cpp:156] Memory required for data: 818009200
I0403 15:13:04.567721 18458 layer_factory.hpp:77] Creating layer pool5
I0403 15:13:04.567746 18458 net.cpp:91] Creating Layer pool5
I0403 15:13:04.567764 18458 net.cpp:425] pool5 <- conv5
I0403 15:13:04.567781 18458 net.cpp:399] pool5 -> pool5
I0403 15:13:04.567843 18458 net.cpp:141] Setting up pool5
I0403 15:13:04.567867 18458 net.cpp:148] Top shape: 100 256 6 6 (921600)
I0403 15:13:04.567881 18458 net.cpp:156] Memory required for data: 821695600
I0403 15:13:04.567896 18458 layer_factory.hpp:77] Creating layer fc6
I0403 15:13:04.567926 18458 net.cpp:91] Creating Layer fc6
I0403 15:13:04.567944 18458 net.cpp:425] fc6 <- pool5
I0403 15:13:04.567962 18458 net.cpp:399] fc6 -> fc6
I0403 15:13:06.145331 18458 net.cpp:141] Setting up fc6
I0403 15:13:06.145417 18458 net.cpp:148] Top shape: 100 4096 (409600)
I0403 15:13:06.145433 18458 net.cpp:156] Memory required for data: 823334000
I0403 15:13:06.145454 18458 layer_factory.hpp:77] Creating layer relu6
I0403 15:13:06.145476 18458 net.cpp:91] Creating Layer relu6
I0403 15:13:06.145494 18458 net.cpp:425] relu6 <- fc6
I0403 15:13:06.145516 18458 net.cpp:386] relu6 -> fc6 (in-place)
I0403 15:13:06.145736 18458 net.cpp:141] Setting up relu6
I0403 15:13:06.145761 18458 net.cpp:148] Top shape: 100 4096 (409600)
I0403 15:13:06.145776 18458 net.cpp:156] Memory required for data: 824972400
I0403 15:13:06.145790 18458 layer_factory.hpp:77] Creating layer drop6
I0403 15:13:06.145810 18458 net.cpp:91] Creating Layer drop6
I0403 15:13:06.145825 18458 net.cpp:425] drop6 <- fc6
I0403 15:13:06.145844 18458 net.cpp:386] drop6 -> fc6 (in-place)
I0403 15:13:06.145900 18458 net.cpp:141] Setting up drop6
I0403 15:13:06.145923 18458 net.cpp:148] Top shape: 100 4096 (409600)
I0403 15:13:06.145937 18458 net.cpp:156] Memory required for data: 826610800
I0403 15:13:06.145952 18458 layer_factory.hpp:77] Creating layer fc7
I0403 15:13:06.145977 18458 net.cpp:91] Creating Layer fc7
I0403 15:13:06.145992 18458 net.cpp:425] fc7 <- fc6
I0403 15:13:06.146013 18458 net.cpp:399] fc7 -> fc7
I0403 15:13:06.839069 18458 net.cpp:141] Setting up fc7
I0403 15:13:06.839138 18458 net.cpp:148] Top shape: 100 4096 (409600)
I0403 15:13:06.839154 18458 net.cpp:156] Memory required for data: 828249200
I0403 15:13:06.839174 18458 layer_factory.hpp:77] Creating layer relu7
I0403 15:13:06.839197 18458 net.cpp:91] Creating Layer relu7
I0403 15:13:06.839215 18458 net.cpp:425] relu7 <- fc7
I0403 15:13:06.839234 18458 net.cpp:386] relu7 -> fc7 (in-place)
I0403 15:13:06.839630 18458 net.cpp:141] Setting up relu7
I0403 15:13:06.839656 18458 net.cpp:148] Top shape: 100 4096 (409600)
I0403 15:13:06.839701 18458 net.cpp:156] Memory required for data: 829887600
I0403 15:13:06.839717 18458 layer_factory.hpp:77] Creating layer drop7
I0403 15:13:06.839738 18458 net.cpp:91] Creating Layer drop7
I0403 15:13:06.839756 18458 net.cpp:425] drop7 <- fc7
I0403 15:13:06.839773 18458 net.cpp:386] drop7 -> fc7 (in-place)
I0403 15:13:06.839814 18458 net.cpp:141] Setting up drop7
I0403 15:13:06.839838 18458 net.cpp:148] Top shape: 100 4096 (409600)
I0403 15:13:06.839854 18458 net.cpp:156] Memory required for data: 831526000
I0403 15:13:06.839867 18458 layer_factory.hpp:77] Creating layer fc8_plantvillage
I0403 15:13:06.839887 18458 net.cpp:91] Creating Layer fc8_plantvillage
I0403 15:13:06.839903 18458 net.cpp:425] fc8_plantvillage <- fc7
I0403 15:13:06.839923 18458 net.cpp:399] fc8_plantvillage -> fc8_plantvillage
I0403 15:13:06.846729 18458 net.cpp:141] Setting up fc8_plantvillage
I0403 15:13:06.846757 18458 net.cpp:148] Top shape: 100 38 (3800)
I0403 15:13:06.846771 18458 net.cpp:156] Memory required for data: 831541200
I0403 15:13:06.846791 18458 layer_factory.hpp:77] Creating layer fc8_plantvillage_fc8_plantvillage_0_split
I0403 15:13:06.846812 18458 net.cpp:91] Creating Layer fc8_plantvillage_fc8_plantvillage_0_split
I0403 15:13:06.846828 18458 net.cpp:425] fc8_plantvillage_fc8_plantvillage_0_split <- fc8_plantvillage
I0403 15:13:06.846845 18458 net.cpp:399] fc8_plantvillage_fc8_plantvillage_0_split -> fc8_plantvillage_fc8_plantvillage_0_split_0
I0403 15:13:06.846865 18458 net.cpp:399] fc8_plantvillage_fc8_plantvillage_0_split -> fc8_plantvillage_fc8_plantvillage_0_split_1
I0403 15:13:06.846884 18458 net.cpp:399] fc8_plantvillage_fc8_plantvillage_0_split -> fc8_plantvillage_fc8_plantvillage_0_split_2
I0403 15:13:06.846962 18458 net.cpp:141] Setting up fc8_plantvillage_fc8_plantvillage_0_split
I0403 15:13:06.846985 18458 net.cpp:148] Top shape: 100 38 (3800)
I0403 15:13:06.847002 18458 net.cpp:148] Top shape: 100 38 (3800)
I0403 15:13:06.847024 18458 net.cpp:148] Top shape: 100 38 (3800)
I0403 15:13:06.847053 18458 net.cpp:156] Memory required for data: 831586800
I0403 15:13:06.847067 18458 layer_factory.hpp:77] Creating layer prob
I0403 15:13:06.847086 18458 net.cpp:91] Creating Layer prob
I0403 15:13:06.847102 18458 net.cpp:425] prob <- fc8_plantvillage_fc8_plantvillage_0_split_0
I0403 15:13:06.847124 18458 net.cpp:399] prob -> prob
I0403 15:13:06.847357 18458 net.cpp:141] Setting up prob
I0403 15:13:06.847381 18458 net.cpp:148] Top shape: 100 38 (3800)
I0403 15:13:06.847398 18458 net.cpp:156] Memory required for data: 831602000
I0403 15:13:06.847411 18458 layer_factory.hpp:77] Creating layer hdf5out
I0403 15:13:06.847434 18458 net.cpp:91] Creating Layer hdf5out
I0403 15:13:06.847450 18458 net.cpp:425] hdf5out <- prob
I0403 15:13:06.847465 18458 net.cpp:425] hdf5out <- label_data_1_split_0
I0403 15:13:06.849732 18458 net.cpp:141] Setting up hdf5out
…
