…
I0403 15:00:54.731875 18072 net.cpp:313] The NetState phase (1) differed from the phase (0) specified by a rule in layer data
I0403 15:00:54.732205 18072 net.cpp:49] Initializing net from parameters: 
state {
  phase: TEST
}
layer {
  name: "data"
  type: "Data"
  top: "data"
  top: "label"
  include {
    phase: TEST
  }
  transform_param {
    crop_size: 227
    mean_file: "/home/mohanty/data/final_dataset/lmdb/color-80-20/mean.binaryproto"
  }
  data_param {
    source: "/home/mohanty/data/final_dataset/lmdb/color-80-20/test_db"
    batch_size: 100
    backend: LMDB
  }
}
layer {
  name: "conv1"
  type: "Convolution"
  bottom: "data"
  top: "conv1"
  param {
    lr_mult: 1
    decay_mult: 1
  }
  param {
    lr_mult: 2
    decay_mult: 0
  }
  convolution_param {
    num_output: 96
    kernel_size: 11
    stride: 4
    weight_filler {
      type: "gaussian"
      std: 0.01
    }
    bias_filler {
      type: "constant"
      value: 0
    }
  }
}
layer {
  name: "relu1"
  type: "ReLU"
  bottom: "conv1"
  top: "conv1"
}
layer {
  name: "norm1"
  type: "LRN"
  bottom: "conv1"
  top: "norm1"
  lrn_param {
    local_size: 5
    alpha: 0.0001
    beta: 0.75
  }
}
layer {
  name: "pool1"
  type: "Pooling"
  bottom: "norm1"
  top: "pool1"
  pooling_param {
    pool: MAX
    kernel_size: 3
    stride: 2
  }
}
layer {
  name: "conv2"
  type: "Convolution"
  bottom: "pool1"
  top: "conv2"
  param {
    lr_mult: 1
    decay_mult: 1
  }
  param {
    lr_mult: 2
    decay_mult: 0
  }
  convolution_param {
    num_output: 256
    pad: 2
    kernel_size: 5
    group: 2
    weight_filler {
      type: "gaussian"
      std: 0.01
    }
    bias_filler {
      type: "constant"
      value: 0.1
    }
  }
}
layer {
  name: "relu2"
  type: "ReLU"
  bottom: "conv2"
  top: "conv2"
}
layer {
  name: "norm2"
  type: "LRN"
  bottom: "conv2"
  top: "norm2"
  lrn_param {
    local_size: 5
    alpha: 0.0001
    beta: 0.75
  }
}
layer {
  name: "pool2"
  type: "Pooling"
  bottom: "norm2"
  top: "pool2"
  pooling_param {
    pool: MAX
    kernel_size: 3
    stride: 2
  }
}
layer {
  name: "conv3"
  type: "Convolution"
  bottom: "pool2"
  top: "conv3"
  param {
    lr_mult: 1
    decay_mult: 1
  }
  param {
    lr_mult: 2
    decay_mult: 0
  }
  convolution_param {
    num_output: 384
    pad: 1
    kernel_size: 3
    weight_filler {
      type: "gaussian"
      std: 0.01
    }
    bias_filler {
      type: "constant"
      value: 0
    }
  }
}
layer {
  name: "relu3"
  type: "ReLU"
  bottom: "conv3"
  top: "conv3"
}
layer {
  name: "conv4"
  type: "Convolution"
  bottom: "conv3"
  top: "conv4"
  param {
    lr_mult: 1
    decay_mult: 1
  }
  param {
    lr_mult: 2
    decay_mult: 0
  }
  convolution_param {
    num_output: 384
    pad: 1
    kernel_size: 3
    group: 2
    weight_filler {
      type: "gaussian"
      std: 0.01
    }
    bias_filler {
      type: "constant"
      value: 0.1
    }
  }
}
layer {
  name: "relu4"
  type: "ReLU"
  bottom: "conv4"
  top: "conv4"
}
layer {
  name: "conv5"
  type: "Convolution"
  bottom: "conv4"
  top: "conv5"
  param {
    lr_mult: 1
    decay_mult: 1
  }
  param {
    lr_mult: 2
    decay_mult: 0
  }
  convolution_param {
    num_output: 256
    pad: 1
    kernel_size: 3
    group: 2
    weight_filler {
      type: "gaussian"
      std: 0.01
    }
    bias_filler {
      type: "constant"
      value: 0.1
    }
  }
}
layer {
  name: "relu5"
  type: "ReLU"
  bottom: "conv5"
  top: "conv5"
}
layer {
  name: "pool5"
  type: "Pooling"
  bottom: "conv5"
  top: "pool5"
  pooling_param {
    pool: MAX
    kernel_size: 3
    stride: 2
  }
}
layer {
  name: "fc6"
  type: "InnerProduct"
  bottom: "pool5"
  top: "fc6"
  param {
    lr_mult: 1
    decay_mult: 1
  }
  param {
    lr_mult: 2
    decay_mult: 0
  }
  inner_product_param {
    num_output: 4096
    weight_filler {
      type: "gaussian"
      std: 0.005
    }
    bias_filler {
      type: "constant"
      value: 0.1
    }
  }
}
layer {
  name: "relu6"
  type: "ReLU"
  bottom: "fc6"
  top: "fc6"
}
layer {
  name: "drop6"
  type: "Dropout"
  bottom: "fc6"
  top: "fc6"
  dropout_param {
    dropout_ratio: 0.5
  }
}
layer {
  name: "fc7"
  type: "InnerProduct"
  bottom: "fc6"
  top: "fc7"
  param {
    lr_mult: 1
    decay_mult: 1
  }
  param {
    lr_mult: 2
    decay_mult: 0
  }
  inner_product_param {
    num_output: 4096
    weight_filler {
      type: "gaussian"
      std: 0.005
    }
    bias_filler {
      type: "constant"
      value: 0.1
    }
  }
}
layer {
  name: "relu7"
  type: "ReLU"
  bottom: "fc7"
  top: "fc7"
}
layer {
  name: "drop7"
  type: "Dropout"
  bottom: "fc7"
  top: "fc7"
  dropout_param {
    dropout_ratio: 0.5
  }
}
layer {
  name: "fc8_plantvillage"
  type: "InnerProduct"
  bottom: "fc7"
  top: "fc8_plantvillage"
  param {
    lr_mult: 1
    decay_mult: 1
  }
  param {
    lr_mult: 2
    decay_mult: 0
  }
  inner_product_param {
    num_output: 38
    weight_filler {
      type: "gaussian"
      std: 0.01
    }
    bias_filler {
      type: "constant"
      value: 0
    }
  }
}
layer {
  name: "prob"
  type: "Softmax"
  bottom: "fc8_plantvillage"
  top: "prob"
  include {
    phase: TEST
  }
}
layer {
  name: "hdf5out"
  type: "HDF5Output"
  bottom: "prob"
  bottom: "label"
  include {
    phase: TEST
  }
  hdf5_output_param {
    file_name: "hdf5_dumps/iter_874.h5"
  }
}
layer {
  name: "loss"
  type: "SoftmaxWithLoss"
  bottom: "fc8_plantvillage"
  bottom: "label"
  top: "loss"
}
layer {
  name: "accuracy"
  type: "Accuracy"
  bottom: "fc8_plantvillage"
  bottom: "label"
  top: "accuracy"
  include {
    phase: TEST
  }
}
I0403 15:00:54.732774 18072 layer_factory.hpp:77] Creating layer data
I0403 15:00:54.733407 18072 net.cpp:91] Creating Layer data
I0403 15:00:54.733440 18072 net.cpp:399] data -> data
I0403 15:00:54.733489 18072 net.cpp:399] data -> label
I0403 15:00:54.733526 18072 data_transformer.cpp:25] Loading mean file from: /home/mohanty/data/final_dataset/lmdb/color-80-20/mean.binaryproto
I0403 15:00:54.742030 18075 db_lmdb.cpp:38] Opened lmdb /home/mohanty/data/final_dataset/lmdb/color-80-20/test_db
I0403 15:00:54.747254 18072 data_layer.cpp:41] output data size: 100,3,227,227
I0403 15:00:54.871449 18072 net.cpp:141] Setting up data
I0403 15:00:54.871510 18072 net.cpp:148] Top shape: 100 3 227 227 (15458700)
I0403 15:00:54.871532 18072 net.cpp:148] Top shape: 100 (100)
I0403 15:00:54.871547 18072 net.cpp:156] Memory required for data: 61835200
I0403 15:00:54.871574 18072 layer_factory.hpp:77] Creating layer label_data_1_split
I0403 15:00:54.871599 18072 net.cpp:91] Creating Layer label_data_1_split
I0403 15:00:54.871618 18072 net.cpp:425] label_data_1_split <- label
I0403 15:00:54.871649 18072 net.cpp:399] label_data_1_split -> label_data_1_split_0
I0403 15:00:54.871676 18072 net.cpp:399] label_data_1_split -> label_data_1_split_1
I0403 15:00:54.871697 18072 net.cpp:399] label_data_1_split -> label_data_1_split_2
I0403 15:00:54.871760 18072 net.cpp:141] Setting up label_data_1_split
I0403 15:00:54.871783 18072 net.cpp:148] Top shape: 100 (100)
I0403 15:00:54.871799 18072 net.cpp:148] Top shape: 100 (100)
I0403 15:00:54.871814 18072 net.cpp:148] Top shape: 100 (100)
I0403 15:00:54.871829 18072 net.cpp:156] Memory required for data: 61836400
I0403 15:00:54.871843 18072 layer_factory.hpp:77] Creating layer conv1
I0403 15:00:54.871876 18072 net.cpp:91] Creating Layer conv1
I0403 15:00:54.871894 18072 net.cpp:425] conv1 <- data
I0403 15:00:54.871914 18072 net.cpp:399] conv1 -> conv1
I0403 15:00:55.018337 18072 net.cpp:141] Setting up conv1
I0403 15:00:55.018427 18072 net.cpp:148] Top shape: 100 96 55 55 (29040000)
I0403 15:00:55.018445 18072 net.cpp:156] Memory required for data: 177996400
I0403 15:00:55.018477 18072 layer_factory.hpp:77] Creating layer relu1
I0403 15:00:55.018506 18072 net.cpp:91] Creating Layer relu1
I0403 15:00:55.018523 18072 net.cpp:425] relu1 <- conv1
I0403 15:00:55.018543 18072 net.cpp:386] relu1 -> conv1 (in-place)
I0403 15:00:55.018808 18072 net.cpp:141] Setting up relu1
I0403 15:00:55.018836 18072 net.cpp:148] Top shape: 100 96 55 55 (29040000)
I0403 15:00:55.018851 18072 net.cpp:156] Memory required for data: 294156400
I0403 15:00:55.018901 18072 layer_factory.hpp:77] Creating layer norm1
I0403 15:00:55.018931 18072 net.cpp:91] Creating Layer norm1
I0403 15:00:55.018949 18072 net.cpp:425] norm1 <- conv1
I0403 15:00:55.018970 18072 net.cpp:399] norm1 -> norm1
I0403 15:00:55.019294 18072 net.cpp:141] Setting up norm1
I0403 15:00:55.019322 18072 net.cpp:148] Top shape: 100 96 55 55 (29040000)
I0403 15:00:55.019338 18072 net.cpp:156] Memory required for data: 410316400
I0403 15:00:55.019354 18072 layer_factory.hpp:77] Creating layer pool1
I0403 15:00:55.019378 18072 net.cpp:91] Creating Layer pool1
I0403 15:00:55.019397 18072 net.cpp:425] pool1 <- norm1
I0403 15:00:55.019414 18072 net.cpp:399] pool1 -> pool1
I0403 15:00:55.019484 18072 net.cpp:141] Setting up pool1
I0403 15:00:55.019512 18072 net.cpp:148] Top shape: 100 96 27 27 (6998400)
I0403 15:00:55.019527 18072 net.cpp:156] Memory required for data: 438310000
I0403 15:00:55.019543 18072 layer_factory.hpp:77] Creating layer conv2
I0403 15:00:55.019567 18072 net.cpp:91] Creating Layer conv2
I0403 15:00:55.019584 18072 net.cpp:425] conv2 <- pool1
I0403 15:00:55.019603 18072 net.cpp:399] conv2 -> conv2
I0403 15:00:55.034977 18072 net.cpp:141] Setting up conv2
I0403 15:00:55.035029 18072 net.cpp:148] Top shape: 100 256 27 27 (18662400)
I0403 15:00:55.035046 18072 net.cpp:156] Memory required for data: 512959600
I0403 15:00:55.035076 18072 layer_factory.hpp:77] Creating layer relu2
I0403 15:00:55.035097 18072 net.cpp:91] Creating Layer relu2
I0403 15:00:55.035115 18072 net.cpp:425] relu2 <- conv2
I0403 15:00:55.035133 18072 net.cpp:386] relu2 -> conv2 (in-place)
I0403 15:00:55.035413 18072 net.cpp:141] Setting up relu2
I0403 15:00:55.035440 18072 net.cpp:148] Top shape: 100 256 27 27 (18662400)
I0403 15:00:55.035456 18072 net.cpp:156] Memory required for data: 587609200
I0403 15:00:55.035471 18072 layer_factory.hpp:77] Creating layer norm2
I0403 15:00:55.035493 18072 net.cpp:91] Creating Layer norm2
I0403 15:00:55.035511 18072 net.cpp:425] norm2 <- conv2
I0403 15:00:55.035528 18072 net.cpp:399] norm2 -> norm2
I0403 15:00:55.035720 18072 net.cpp:141] Setting up norm2
I0403 15:00:55.035748 18072 net.cpp:148] Top shape: 100 256 27 27 (18662400)
I0403 15:00:55.035763 18072 net.cpp:156] Memory required for data: 662258800
I0403 15:00:55.035778 18072 layer_factory.hpp:77] Creating layer pool2
I0403 15:00:55.035797 18072 net.cpp:91] Creating Layer pool2
I0403 15:00:55.035814 18072 net.cpp:425] pool2 <- norm2
I0403 15:00:55.035831 18072 net.cpp:399] pool2 -> pool2
I0403 15:00:55.035883 18072 net.cpp:141] Setting up pool2
I0403 15:00:55.035907 18072 net.cpp:148] Top shape: 100 256 13 13 (4326400)
I0403 15:00:55.035922 18072 net.cpp:156] Memory required for data: 679564400
I0403 15:00:55.035936 18072 layer_factory.hpp:77] Creating layer conv3
I0403 15:00:55.035959 18072 net.cpp:91] Creating Layer conv3
I0403 15:00:55.035975 18072 net.cpp:425] conv3 <- pool2
I0403 15:00:55.035995 18072 net.cpp:399] conv3 -> conv3
I0403 15:00:55.080484 18072 net.cpp:141] Setting up conv3
I0403 15:00:55.080551 18072 net.cpp:148] Top shape: 100 384 13 13 (6489600)
I0403 15:00:55.080567 18072 net.cpp:156] Memory required for data: 705522800
I0403 15:00:55.080592 18072 layer_factory.hpp:77] Creating layer relu3
I0403 15:00:55.080613 18072 net.cpp:91] Creating Layer relu3
I0403 15:00:55.080631 18072 net.cpp:425] relu3 <- conv3
I0403 15:00:55.080653 18072 net.cpp:386] relu3 -> conv3 (in-place)
I0403 15:00:55.080940 18072 net.cpp:141] Setting up relu3
I0403 15:00:55.080968 18072 net.cpp:148] Top shape: 100 384 13 13 (6489600)
I0403 15:00:55.080982 18072 net.cpp:156] Memory required for data: 731481200
I0403 15:00:55.080997 18072 layer_factory.hpp:77] Creating layer conv4
I0403 15:00:55.081023 18072 net.cpp:91] Creating Layer conv4
I0403 15:00:55.081043 18072 net.cpp:425] conv4 <- conv3
I0403 15:00:55.081069 18072 net.cpp:399] conv4 -> conv4
I0403 15:00:55.111518 18072 net.cpp:141] Setting up conv4
I0403 15:00:55.111591 18072 net.cpp:148] Top shape: 100 384 13 13 (6489600)
I0403 15:00:55.111644 18072 net.cpp:156] Memory required for data: 757439600
I0403 15:00:55.111666 18072 layer_factory.hpp:77] Creating layer relu4
I0403 15:00:55.111688 18072 net.cpp:91] Creating Layer relu4
I0403 15:00:55.111706 18072 net.cpp:425] relu4 <- conv4
I0403 15:00:55.111726 18072 net.cpp:386] relu4 -> conv4 (in-place)
I0403 15:00:55.112017 18072 net.cpp:141] Setting up relu4
I0403 15:00:55.112051 18072 net.cpp:148] Top shape: 100 384 13 13 (6489600)
I0403 15:00:55.112069 18072 net.cpp:156] Memory required for data: 783398000
I0403 15:00:55.112084 18072 layer_factory.hpp:77] Creating layer conv5
I0403 15:00:55.112109 18072 net.cpp:91] Creating Layer conv5
I0403 15:00:55.112128 18072 net.cpp:425] conv5 <- conv4
I0403 15:00:55.112146 18072 net.cpp:399] conv5 -> conv5
I0403 15:00:55.133311 18072 net.cpp:141] Setting up conv5
I0403 15:00:55.133352 18072 net.cpp:148] Top shape: 100 256 13 13 (4326400)
I0403 15:00:55.133370 18072 net.cpp:156] Memory required for data: 800703600
I0403 15:00:55.133396 18072 layer_factory.hpp:77] Creating layer relu5
I0403 15:00:55.133417 18072 net.cpp:91] Creating Layer relu5
I0403 15:00:55.133433 18072 net.cpp:425] relu5 <- conv5
I0403 15:00:55.133456 18072 net.cpp:386] relu5 -> conv5 (in-place)
I0403 15:00:55.133745 18072 net.cpp:141] Setting up relu5
I0403 15:00:55.133774 18072 net.cpp:148] Top shape: 100 256 13 13 (4326400)
I0403 15:00:55.133788 18072 net.cpp:156] Memory required for data: 818009200
I0403 15:00:55.133803 18072 layer_factory.hpp:77] Creating layer pool5
I0403 15:00:55.133829 18072 net.cpp:91] Creating Layer pool5
I0403 15:00:55.133847 18072 net.cpp:425] pool5 <- conv5
I0403 15:00:55.133867 18072 net.cpp:399] pool5 -> pool5
I0403 15:00:55.133929 18072 net.cpp:141] Setting up pool5
I0403 15:00:55.133955 18072 net.cpp:148] Top shape: 100 256 6 6 (921600)
I0403 15:00:55.133970 18072 net.cpp:156] Memory required for data: 821695600
I0403 15:00:55.133985 18072 layer_factory.hpp:77] Creating layer fc6
I0403 15:00:55.134013 18072 net.cpp:91] Creating Layer fc6
I0403 15:00:55.134033 18072 net.cpp:425] fc6 <- pool5
I0403 15:00:55.134062 18072 net.cpp:399] fc6 -> fc6
I0403 15:00:56.678117 18072 net.cpp:141] Setting up fc6
I0403 15:00:56.678161 18072 net.cpp:148] Top shape: 100 4096 (409600)
I0403 15:00:56.678177 18072 net.cpp:156] Memory required for data: 823334000
I0403 15:00:56.678197 18072 layer_factory.hpp:77] Creating layer relu6
I0403 15:00:56.678220 18072 net.cpp:91] Creating Layer relu6
I0403 15:00:56.678236 18072 net.cpp:425] relu6 <- fc6
I0403 15:00:56.678254 18072 net.cpp:386] relu6 -> fc6 (in-place)
I0403 15:00:56.678463 18072 net.cpp:141] Setting up relu6
I0403 15:00:56.678489 18072 net.cpp:148] Top shape: 100 4096 (409600)
I0403 15:00:56.678503 18072 net.cpp:156] Memory required for data: 824972400
I0403 15:00:56.678517 18072 layer_factory.hpp:77] Creating layer drop6
I0403 15:00:56.678535 18072 net.cpp:91] Creating Layer drop6
I0403 15:00:56.678550 18072 net.cpp:425] drop6 <- fc6
I0403 15:00:56.678568 18072 net.cpp:386] drop6 -> fc6 (in-place)
I0403 15:00:56.678618 18072 net.cpp:141] Setting up drop6
I0403 15:00:56.678640 18072 net.cpp:148] Top shape: 100 4096 (409600)
I0403 15:00:56.678653 18072 net.cpp:156] Memory required for data: 826610800
I0403 15:00:56.678666 18072 layer_factory.hpp:77] Creating layer fc7
I0403 15:00:56.678688 18072 net.cpp:91] Creating Layer fc7
I0403 15:00:56.678704 18072 net.cpp:425] fc7 <- fc6
I0403 15:00:56.678724 18072 net.cpp:399] fc7 -> fc7
I0403 15:00:57.377439 18072 net.cpp:141] Setting up fc7
I0403 15:00:57.377480 18072 net.cpp:148] Top shape: 100 4096 (409600)
I0403 15:00:57.377495 18072 net.cpp:156] Memory required for data: 828249200
I0403 15:00:57.377514 18072 layer_factory.hpp:77] Creating layer relu7
I0403 15:00:57.377535 18072 net.cpp:91] Creating Layer relu7
I0403 15:00:57.377552 18072 net.cpp:425] relu7 <- fc7
I0403 15:00:57.377573 18072 net.cpp:386] relu7 -> fc7 (in-place)
I0403 15:00:57.377974 18072 net.cpp:141] Setting up relu7
I0403 15:00:57.377998 18072 net.cpp:148] Top shape: 100 4096 (409600)
I0403 15:00:57.378031 18072 net.cpp:156] Memory required for data: 829887600
I0403 15:00:57.378046 18072 layer_factory.hpp:77] Creating layer drop7
I0403 15:00:57.378077 18072 net.cpp:91] Creating Layer drop7
I0403 15:00:57.378093 18072 net.cpp:425] drop7 <- fc7
I0403 15:00:57.378111 18072 net.cpp:386] drop7 -> fc7 (in-place)
I0403 15:00:57.378155 18072 net.cpp:141] Setting up drop7
I0403 15:00:57.378176 18072 net.cpp:148] Top shape: 100 4096 (409600)
I0403 15:00:57.378193 18072 net.cpp:156] Memory required for data: 831526000
I0403 15:00:57.378207 18072 layer_factory.hpp:77] Creating layer fc8_plantvillage
I0403 15:00:57.378226 18072 net.cpp:91] Creating Layer fc8_plantvillage
I0403 15:00:57.378242 18072 net.cpp:425] fc8_plantvillage <- fc7
I0403 15:00:57.378260 18072 net.cpp:399] fc8_plantvillage -> fc8_plantvillage
I0403 15:00:57.384883 18072 net.cpp:141] Setting up fc8_plantvillage
I0403 15:00:57.384910 18072 net.cpp:148] Top shape: 100 38 (3800)
I0403 15:00:57.384924 18072 net.cpp:156] Memory required for data: 831541200
I0403 15:00:57.384941 18072 layer_factory.hpp:77] Creating layer fc8_plantvillage_fc8_plantvillage_0_split
I0403 15:00:57.384959 18072 net.cpp:91] Creating Layer fc8_plantvillage_fc8_plantvillage_0_split
I0403 15:00:57.384974 18072 net.cpp:425] fc8_plantvillage_fc8_plantvillage_0_split <- fc8_plantvillage
I0403 15:00:57.384992 18072 net.cpp:399] fc8_plantvillage_fc8_plantvillage_0_split -> fc8_plantvillage_fc8_plantvillage_0_split_0
I0403 15:00:57.385011 18072 net.cpp:399] fc8_plantvillage_fc8_plantvillage_0_split -> fc8_plantvillage_fc8_plantvillage_0_split_1
I0403 15:00:57.385030 18072 net.cpp:399] fc8_plantvillage_fc8_plantvillage_0_split -> fc8_plantvillage_fc8_plantvillage_0_split_2
I0403 15:00:57.385112 18072 net.cpp:141] Setting up fc8_plantvillage_fc8_plantvillage_0_split
I0403 15:00:57.385135 18072 net.cpp:148] Top shape: 100 38 (3800)
I0403 15:00:57.385152 18072 net.cpp:148] Top shape: 100 38 (3800)
I0403 15:00:57.385166 18072 net.cpp:148] Top shape: 100 38 (3800)
I0403 15:00:57.385180 18072 net.cpp:156] Memory required for data: 831586800
I0403 15:00:57.385195 18072 layer_factory.hpp:77] Creating layer prob
I0403 15:00:57.385211 18072 net.cpp:91] Creating Layer prob
I0403 15:00:57.385226 18072 net.cpp:425] prob <- fc8_plantvillage_fc8_plantvillage_0_split_0
I0403 15:00:57.385242 18072 net.cpp:399] prob -> prob
I0403 15:00:57.385462 18072 net.cpp:141] Setting up prob
I0403 15:00:57.385488 18072 net.cpp:148] Top shape: 100 38 (3800)
I0403 15:00:57.385501 18072 net.cpp:156] Memory required for data: 831602000
I0403 15:00:57.385515 18072 layer_factory.hpp:77] Creating layer hdf5out
I0403 15:00:57.385534 18072 net.cpp:91] Creating Layer hdf5out
I0403 15:00:57.385547 18072 net.cpp:425] hdf5out <- prob
I0403 15:00:57.385563 18072 net.cpp:425] hdf5out <- label_data_1_split_0
I0403 15:00:57.387720 18072 net.cpp:141] Setting up hdf5out
…
