…
I0403 15:12:14.000310 18435 net.cpp:313] The NetState phase (1) differed from the phase (0) specified by a rule in layer data
I0403 15:12:14.000614 18435 net.cpp:49] Initializing net from parameters: 
state {
  phase: TEST
}
layer {
  name: "data"
  type: "Data"
  top: "data"
  top: "label"
  include {
    phase: TEST
  }
  transform_param {
    crop_size: 227
    mean_file: "/home/mohanty/data/final_dataset/lmdb/color-80-20/mean.binaryproto"
  }
  data_param {
    source: "/home/mohanty/data/final_dataset/lmdb/color-80-20/test_db"
    batch_size: 100
    backend: LMDB
  }
}
layer {
  name: "conv1"
  type: "Convolution"
  bottom: "data"
  top: "conv1"
  param {
    lr_mult: 1
    decay_mult: 1
  }
  param {
    lr_mult: 2
    decay_mult: 0
  }
  convolution_param {
    num_output: 96
    kernel_size: 11
    stride: 4
    weight_filler {
      type: "gaussian"
      std: 0.01
    }
    bias_filler {
      type: "constant"
      value: 0
    }
  }
}
layer {
  name: "relu1"
  type: "ReLU"
  bottom: "conv1"
  top: "conv1"
}
layer {
  name: "norm1"
  type: "LRN"
  bottom: "conv1"
  top: "norm1"
  lrn_param {
    local_size: 5
    alpha: 0.0001
    beta: 0.75
  }
}
layer {
  name: "pool1"
  type: "Pooling"
  bottom: "norm1"
  top: "pool1"
  pooling_param {
    pool: MAX
    kernel_size: 3
    stride: 2
  }
}
layer {
  name: "conv2"
  type: "Convolution"
  bottom: "pool1"
  top: "conv2"
  param {
    lr_mult: 1
    decay_mult: 1
  }
  param {
    lr_mult: 2
    decay_mult: 0
  }
  convolution_param {
    num_output: 256
    pad: 2
    kernel_size: 5
    group: 2
    weight_filler {
      type: "gaussian"
      std: 0.01
    }
    bias_filler {
      type: "constant"
      value: 0.1
    }
  }
}
layer {
  name: "relu2"
  type: "ReLU"
  bottom: "conv2"
  top: "conv2"
}
layer {
  name: "norm2"
  type: "LRN"
  bottom: "conv2"
  top: "norm2"
  lrn_param {
    local_size: 5
    alpha: 0.0001
    beta: 0.75
  }
}
layer {
  name: "pool2"
  type: "Pooling"
  bottom: "norm2"
  top: "pool2"
  pooling_param {
    pool: MAX
    kernel_size: 3
    stride: 2
  }
}
layer {
  name: "conv3"
  type: "Convolution"
  bottom: "pool2"
  top: "conv3"
  param {
    lr_mult: 1
    decay_mult: 1
  }
  param {
    lr_mult: 2
    decay_mult: 0
  }
  convolution_param {
    num_output: 384
    pad: 1
    kernel_size: 3
    weight_filler {
      type: "gaussian"
      std: 0.01
    }
    bias_filler {
      type: "constant"
      value: 0
    }
  }
}
layer {
  name: "relu3"
  type: "ReLU"
  bottom: "conv3"
  top: "conv3"
}
layer {
  name: "conv4"
  type: "Convolution"
  bottom: "conv3"
  top: "conv4"
  param {
    lr_mult: 1
    decay_mult: 1
  }
  param {
    lr_mult: 2
    decay_mult: 0
  }
  convolution_param {
    num_output: 384
    pad: 1
    kernel_size: 3
    group: 2
    weight_filler {
      type: "gaussian"
      std: 0.01
    }
    bias_filler {
      type: "constant"
      value: 0.1
    }
  }
}
layer {
  name: "relu4"
  type: "ReLU"
  bottom: "conv4"
  top: "conv4"
}
layer {
  name: "conv5"
  type: "Convolution"
  bottom: "conv4"
  top: "conv5"
  param {
    lr_mult: 1
    decay_mult: 1
  }
  param {
    lr_mult: 2
    decay_mult: 0
  }
  convolution_param {
    num_output: 256
    pad: 1
    kernel_size: 3
    group: 2
    weight_filler {
      type: "gaussian"
      std: 0.01
    }
    bias_filler {
      type: "constant"
      value: 0.1
    }
  }
}
layer {
  name: "relu5"
  type: "ReLU"
  bottom: "conv5"
  top: "conv5"
}
layer {
  name: "pool5"
  type: "Pooling"
  bottom: "conv5"
  top: "pool5"
  pooling_param {
    pool: MAX
    kernel_size: 3
    stride: 2
  }
}
layer {
  name: "fc6"
  type: "InnerProduct"
  bottom: "pool5"
  top: "fc6"
  param {
    lr_mult: 1
    decay_mult: 1
  }
  param {
    lr_mult: 2
    decay_mult: 0
  }
  inner_product_param {
    num_output: 4096
    weight_filler {
      type: "gaussian"
      std: 0.005
    }
    bias_filler {
      type: "constant"
      value: 0.1
    }
  }
}
layer {
  name: "relu6"
  type: "ReLU"
  bottom: "fc6"
  top: "fc6"
}
layer {
  name: "drop6"
  type: "Dropout"
  bottom: "fc6"
  top: "fc6"
  dropout_param {
    dropout_ratio: 0.5
  }
}
layer {
  name: "fc7"
  type: "InnerProduct"
  bottom: "fc6"
  top: "fc7"
  param {
    lr_mult: 1
    decay_mult: 1
  }
  param {
    lr_mult: 2
    decay_mult: 0
  }
  inner_product_param {
    num_output: 4096
    weight_filler {
      type: "gaussian"
      std: 0.005
    }
    bias_filler {
      type: "constant"
      value: 0.1
    }
  }
}
layer {
  name: "relu7"
  type: "ReLU"
  bottom: "fc7"
  top: "fc7"
}
layer {
  name: "drop7"
  type: "Dropout"
  bottom: "fc7"
  top: "fc7"
  dropout_param {
    dropout_ratio: 0.5
  }
}
layer {
  name: "fc8_plantvillage"
  type: "InnerProduct"
  bottom: "fc7"
  top: "fc8_plantvillage"
  param {
    lr_mult: 1
    decay_mult: 1
  }
  param {
    lr_mult: 2
    decay_mult: 0
  }
  inner_product_param {
    num_output: 38
    weight_filler {
      type: "gaussian"
      std: 0.01
    }
    bias_filler {
      type: "constant"
      value: 0
    }
  }
}
layer {
  name: "prob"
  type: "Softmax"
  bottom: "fc8_plantvillage"
  top: "prob"
  include {
    phase: TEST
  }
}
layer {
  name: "hdf5out"
  type: "HDF5Output"
  bottom: "prob"
  bottom: "label"
  include {
    phase: TEST
  }
  hdf5_output_param {
    file_name: "hdf5_dumps/iter_12673.h5"
  }
}
layer {
  name: "loss"
  type: "SoftmaxWithLoss"
  bottom: "fc8_plantvillage"
  bottom: "label"
  top: "loss"
}
layer {
  name: "accuracy"
  type: "Accuracy"
  bottom: "fc8_plantvillage"
  bottom: "label"
  top: "accuracy"
  include {
    phase: TEST
  }
}
I0403 15:12:14.001173 18435 layer_factory.hpp:77] Creating layer data
I0403 15:12:14.001802 18435 net.cpp:91] Creating Layer data
I0403 15:12:14.001834 18435 net.cpp:399] data -> data
I0403 15:12:14.001883 18435 net.cpp:399] data -> label
I0403 15:12:14.001919 18435 data_transformer.cpp:25] Loading mean file from: /home/mohanty/data/final_dataset/lmdb/color-80-20/mean.binaryproto
I0403 15:12:14.005023 18438 db_lmdb.cpp:38] Opened lmdb /home/mohanty/data/final_dataset/lmdb/color-80-20/test_db
I0403 15:12:14.016404 18435 data_layer.cpp:41] output data size: 100,3,227,227
I0403 15:12:14.136661 18435 net.cpp:141] Setting up data
I0403 15:12:14.136718 18435 net.cpp:148] Top shape: 100 3 227 227 (15458700)
I0403 15:12:14.136740 18435 net.cpp:148] Top shape: 100 (100)
I0403 15:12:14.136755 18435 net.cpp:156] Memory required for data: 61835200
I0403 15:12:14.136781 18435 layer_factory.hpp:77] Creating layer label_data_1_split
I0403 15:12:14.136806 18435 net.cpp:91] Creating Layer label_data_1_split
I0403 15:12:14.136823 18435 net.cpp:425] label_data_1_split <- label
I0403 15:12:14.136854 18435 net.cpp:399] label_data_1_split -> label_data_1_split_0
I0403 15:12:14.136881 18435 net.cpp:399] label_data_1_split -> label_data_1_split_1
I0403 15:12:14.136901 18435 net.cpp:399] label_data_1_split -> label_data_1_split_2
I0403 15:12:14.136963 18435 net.cpp:141] Setting up label_data_1_split
I0403 15:12:14.136986 18435 net.cpp:148] Top shape: 100 (100)
I0403 15:12:14.137002 18435 net.cpp:148] Top shape: 100 (100)
I0403 15:12:14.137022 18435 net.cpp:148] Top shape: 100 (100)
I0403 15:12:14.137037 18435 net.cpp:156] Memory required for data: 61836400
I0403 15:12:14.137053 18435 layer_factory.hpp:77] Creating layer conv1
I0403 15:12:14.137082 18435 net.cpp:91] Creating Layer conv1
I0403 15:12:14.137100 18435 net.cpp:425] conv1 <- data
I0403 15:12:14.137120 18435 net.cpp:399] conv1 -> conv1
I0403 15:12:14.278221 18435 net.cpp:141] Setting up conv1
I0403 15:12:14.278293 18435 net.cpp:148] Top shape: 100 96 55 55 (29040000)
I0403 15:12:14.278311 18435 net.cpp:156] Memory required for data: 177996400
I0403 15:12:14.278344 18435 layer_factory.hpp:77] Creating layer relu1
I0403 15:12:14.278373 18435 net.cpp:91] Creating Layer relu1
I0403 15:12:14.278393 18435 net.cpp:425] relu1 <- conv1
I0403 15:12:14.278414 18435 net.cpp:386] relu1 -> conv1 (in-place)
I0403 15:12:14.278688 18435 net.cpp:141] Setting up relu1
I0403 15:12:14.278717 18435 net.cpp:148] Top shape: 100 96 55 55 (29040000)
I0403 15:12:14.278733 18435 net.cpp:156] Memory required for data: 294156400
I0403 15:12:14.278779 18435 layer_factory.hpp:77] Creating layer norm1
I0403 15:12:14.278810 18435 net.cpp:91] Creating Layer norm1
I0403 15:12:14.278828 18435 net.cpp:425] norm1 <- conv1
I0403 15:12:14.278847 18435 net.cpp:399] norm1 -> norm1
I0403 15:12:14.279172 18435 net.cpp:141] Setting up norm1
I0403 15:12:14.279201 18435 net.cpp:148] Top shape: 100 96 55 55 (29040000)
I0403 15:12:14.279217 18435 net.cpp:156] Memory required for data: 410316400
I0403 15:12:14.279233 18435 layer_factory.hpp:77] Creating layer pool1
I0403 15:12:14.279258 18435 net.cpp:91] Creating Layer pool1
I0403 15:12:14.279274 18435 net.cpp:425] pool1 <- norm1
I0403 15:12:14.279292 18435 net.cpp:399] pool1 -> pool1
I0403 15:12:14.279361 18435 net.cpp:141] Setting up pool1
I0403 15:12:14.279386 18435 net.cpp:148] Top shape: 100 96 27 27 (6998400)
I0403 15:12:14.279402 18435 net.cpp:156] Memory required for data: 438310000
I0403 15:12:14.279417 18435 layer_factory.hpp:77] Creating layer conv2
I0403 15:12:14.279441 18435 net.cpp:91] Creating Layer conv2
I0403 15:12:14.279458 18435 net.cpp:425] conv2 <- pool1
I0403 15:12:14.279477 18435 net.cpp:399] conv2 -> conv2
I0403 15:12:14.294699 18435 net.cpp:141] Setting up conv2
I0403 15:12:14.294761 18435 net.cpp:148] Top shape: 100 256 27 27 (18662400)
I0403 15:12:14.294780 18435 net.cpp:156] Memory required for data: 512959600
I0403 15:12:14.294806 18435 layer_factory.hpp:77] Creating layer relu2
I0403 15:12:14.294828 18435 net.cpp:91] Creating Layer relu2
I0403 15:12:14.294850 18435 net.cpp:425] relu2 <- conv2
I0403 15:12:14.294870 18435 net.cpp:386] relu2 -> conv2 (in-place)
I0403 15:12:14.295147 18435 net.cpp:141] Setting up relu2
I0403 15:12:14.295176 18435 net.cpp:148] Top shape: 100 256 27 27 (18662400)
I0403 15:12:14.295192 18435 net.cpp:156] Memory required for data: 587609200
I0403 15:12:14.295208 18435 layer_factory.hpp:77] Creating layer norm2
I0403 15:12:14.295230 18435 net.cpp:91] Creating Layer norm2
I0403 15:12:14.295246 18435 net.cpp:425] norm2 <- conv2
I0403 15:12:14.295264 18435 net.cpp:399] norm2 -> norm2
I0403 15:12:14.295452 18435 net.cpp:141] Setting up norm2
I0403 15:12:14.295478 18435 net.cpp:148] Top shape: 100 256 27 27 (18662400)
I0403 15:12:14.295492 18435 net.cpp:156] Memory required for data: 662258800
I0403 15:12:14.295507 18435 layer_factory.hpp:77] Creating layer pool2
I0403 15:12:14.295526 18435 net.cpp:91] Creating Layer pool2
I0403 15:12:14.295542 18435 net.cpp:425] pool2 <- norm2
I0403 15:12:14.295559 18435 net.cpp:399] pool2 -> pool2
I0403 15:12:14.295610 18435 net.cpp:141] Setting up pool2
I0403 15:12:14.295634 18435 net.cpp:148] Top shape: 100 256 13 13 (4326400)
I0403 15:12:14.295649 18435 net.cpp:156] Memory required for data: 679564400
I0403 15:12:14.295663 18435 layer_factory.hpp:77] Creating layer conv3
I0403 15:12:14.295686 18435 net.cpp:91] Creating Layer conv3
I0403 15:12:14.295701 18435 net.cpp:425] conv3 <- pool2
I0403 15:12:14.295719 18435 net.cpp:399] conv3 -> conv3
I0403 15:12:14.339427 18435 net.cpp:141] Setting up conv3
I0403 15:12:14.339493 18435 net.cpp:148] Top shape: 100 384 13 13 (6489600)
I0403 15:12:14.339514 18435 net.cpp:156] Memory required for data: 705522800
I0403 15:12:14.339540 18435 layer_factory.hpp:77] Creating layer relu3
I0403 15:12:14.339565 18435 net.cpp:91] Creating Layer relu3
I0403 15:12:14.339582 18435 net.cpp:425] relu3 <- conv3
I0403 15:12:14.339601 18435 net.cpp:386] relu3 -> conv3 (in-place)
I0403 15:12:14.339876 18435 net.cpp:141] Setting up relu3
I0403 15:12:14.339901 18435 net.cpp:148] Top shape: 100 384 13 13 (6489600)
I0403 15:12:14.339916 18435 net.cpp:156] Memory required for data: 731481200
I0403 15:12:14.339931 18435 layer_factory.hpp:77] Creating layer conv4
I0403 15:12:14.339957 18435 net.cpp:91] Creating Layer conv4
I0403 15:12:14.339974 18435 net.cpp:425] conv4 <- conv3
I0403 15:12:14.339993 18435 net.cpp:399] conv4 -> conv4
I0403 15:12:14.369102 18435 net.cpp:141] Setting up conv4
I0403 15:12:14.369165 18435 net.cpp:148] Top shape: 100 384 13 13 (6489600)
I0403 15:12:14.369215 18435 net.cpp:156] Memory required for data: 757439600
I0403 15:12:14.369236 18435 layer_factory.hpp:77] Creating layer relu4
I0403 15:12:14.369261 18435 net.cpp:91] Creating Layer relu4
I0403 15:12:14.369278 18435 net.cpp:425] relu4 <- conv4
I0403 15:12:14.369302 18435 net.cpp:386] relu4 -> conv4 (in-place)
I0403 15:12:14.369583 18435 net.cpp:141] Setting up relu4
I0403 15:12:14.369609 18435 net.cpp:148] Top shape: 100 384 13 13 (6489600)
I0403 15:12:14.369626 18435 net.cpp:156] Memory required for data: 783398000
I0403 15:12:14.369640 18435 layer_factory.hpp:77] Creating layer conv5
I0403 15:12:14.369665 18435 net.cpp:91] Creating Layer conv5
I0403 15:12:14.369683 18435 net.cpp:425] conv5 <- conv4
I0403 15:12:14.369706 18435 net.cpp:399] conv5 -> conv5
I0403 15:12:14.390245 18435 net.cpp:141] Setting up conv5
I0403 15:12:14.390308 18435 net.cpp:148] Top shape: 100 256 13 13 (4326400)
I0403 15:12:14.390324 18435 net.cpp:156] Memory required for data: 800703600
I0403 15:12:14.390353 18435 layer_factory.hpp:77] Creating layer relu5
I0403 15:12:14.390375 18435 net.cpp:91] Creating Layer relu5
I0403 15:12:14.390391 18435 net.cpp:425] relu5 <- conv5
I0403 15:12:14.390410 18435 net.cpp:386] relu5 -> conv5 (in-place)
I0403 15:12:14.390689 18435 net.cpp:141] Setting up relu5
I0403 15:12:14.390717 18435 net.cpp:148] Top shape: 100 256 13 13 (4326400)
I0403 15:12:14.390735 18435 net.cpp:156] Memory required for data: 818009200
I0403 15:12:14.390750 18435 layer_factory.hpp:77] Creating layer pool5
I0403 15:12:14.390771 18435 net.cpp:91] Creating Layer pool5
I0403 15:12:14.390787 18435 net.cpp:425] pool5 <- conv5
I0403 15:12:14.390806 18435 net.cpp:399] pool5 -> pool5
I0403 15:12:14.390869 18435 net.cpp:141] Setting up pool5
I0403 15:12:14.390893 18435 net.cpp:148] Top shape: 100 256 6 6 (921600)
I0403 15:12:14.390908 18435 net.cpp:156] Memory required for data: 821695600
I0403 15:12:14.390923 18435 layer_factory.hpp:77] Creating layer fc6
I0403 15:12:14.390951 18435 net.cpp:91] Creating Layer fc6
I0403 15:12:14.390969 18435 net.cpp:425] fc6 <- pool5
I0403 15:12:14.390990 18435 net.cpp:399] fc6 -> fc6
I0403 15:12:15.927784 18435 net.cpp:141] Setting up fc6
I0403 15:12:15.927826 18435 net.cpp:148] Top shape: 100 4096 (409600)
I0403 15:12:15.927842 18435 net.cpp:156] Memory required for data: 823334000
I0403 15:12:15.927861 18435 layer_factory.hpp:77] Creating layer relu6
I0403 15:12:15.927882 18435 net.cpp:91] Creating Layer relu6
I0403 15:12:15.927899 18435 net.cpp:425] relu6 <- fc6
I0403 15:12:15.927919 18435 net.cpp:386] relu6 -> fc6 (in-place)
I0403 15:12:15.928143 18435 net.cpp:141] Setting up relu6
I0403 15:12:15.928166 18435 net.cpp:148] Top shape: 100 4096 (409600)
I0403 15:12:15.928180 18435 net.cpp:156] Memory required for data: 824972400
I0403 15:12:15.928194 18435 layer_factory.hpp:77] Creating layer drop6
I0403 15:12:15.928215 18435 net.cpp:91] Creating Layer drop6
I0403 15:12:15.928230 18435 net.cpp:425] drop6 <- fc6
I0403 15:12:15.928246 18435 net.cpp:386] drop6 -> fc6 (in-place)
I0403 15:12:15.928297 18435 net.cpp:141] Setting up drop6
I0403 15:12:15.928318 18435 net.cpp:148] Top shape: 100 4096 (409600)
I0403 15:12:15.928331 18435 net.cpp:156] Memory required for data: 826610800
I0403 15:12:15.928345 18435 layer_factory.hpp:77] Creating layer fc7
I0403 15:12:15.928365 18435 net.cpp:91] Creating Layer fc7
I0403 15:12:15.928381 18435 net.cpp:425] fc7 <- fc6
I0403 15:12:15.928398 18435 net.cpp:399] fc7 -> fc7
I0403 15:12:16.607198 18435 net.cpp:141] Setting up fc7
I0403 15:12:16.607237 18435 net.cpp:148] Top shape: 100 4096 (409600)
I0403 15:12:16.607252 18435 net.cpp:156] Memory required for data: 828249200
I0403 15:12:16.607272 18435 layer_factory.hpp:77] Creating layer relu7
I0403 15:12:16.607295 18435 net.cpp:91] Creating Layer relu7
I0403 15:12:16.607312 18435 net.cpp:425] relu7 <- fc7
I0403 15:12:16.607329 18435 net.cpp:386] relu7 -> fc7 (in-place)
I0403 15:12:16.607728 18435 net.cpp:141] Setting up relu7
I0403 15:12:16.607753 18435 net.cpp:148] Top shape: 100 4096 (409600)
I0403 15:12:16.607796 18435 net.cpp:156] Memory required for data: 829887600
I0403 15:12:16.607811 18435 layer_factory.hpp:77] Creating layer drop7
I0403 15:12:16.607832 18435 net.cpp:91] Creating Layer drop7
I0403 15:12:16.607847 18435 net.cpp:425] drop7 <- fc7
I0403 15:12:16.607863 18435 net.cpp:386] drop7 -> fc7 (in-place)
I0403 15:12:16.607906 18435 net.cpp:141] Setting up drop7
I0403 15:12:16.607928 18435 net.cpp:148] Top shape: 100 4096 (409600)
I0403 15:12:16.607941 18435 net.cpp:156] Memory required for data: 831526000
I0403 15:12:16.607955 18435 layer_factory.hpp:77] Creating layer fc8_plantvillage
I0403 15:12:16.607974 18435 net.cpp:91] Creating Layer fc8_plantvillage
I0403 15:12:16.607988 18435 net.cpp:425] fc8_plantvillage <- fc7
I0403 15:12:16.608006 18435 net.cpp:399] fc8_plantvillage -> fc8_plantvillage
I0403 15:12:16.614562 18435 net.cpp:141] Setting up fc8_plantvillage
I0403 15:12:16.614591 18435 net.cpp:148] Top shape: 100 38 (3800)
I0403 15:12:16.614608 18435 net.cpp:156] Memory required for data: 831541200
I0403 15:12:16.614624 18435 layer_factory.hpp:77] Creating layer fc8_plantvillage_fc8_plantvillage_0_split
I0403 15:12:16.614642 18435 net.cpp:91] Creating Layer fc8_plantvillage_fc8_plantvillage_0_split
I0403 15:12:16.614656 18435 net.cpp:425] fc8_plantvillage_fc8_plantvillage_0_split <- fc8_plantvillage
I0403 15:12:16.614672 18435 net.cpp:399] fc8_plantvillage_fc8_plantvillage_0_split -> fc8_plantvillage_fc8_plantvillage_0_split_0
I0403 15:12:16.614691 18435 net.cpp:399] fc8_plantvillage_fc8_plantvillage_0_split -> fc8_plantvillage_fc8_plantvillage_0_split_1
I0403 15:12:16.614709 18435 net.cpp:399] fc8_plantvillage_fc8_plantvillage_0_split -> fc8_plantvillage_fc8_plantvillage_0_split_2
I0403 15:12:16.614784 18435 net.cpp:141] Setting up fc8_plantvillage_fc8_plantvillage_0_split
I0403 15:12:16.614806 18435 net.cpp:148] Top shape: 100 38 (3800)
I0403 15:12:16.614821 18435 net.cpp:148] Top shape: 100 38 (3800)
I0403 15:12:16.614836 18435 net.cpp:148] Top shape: 100 38 (3800)
I0403 15:12:16.614848 18435 net.cpp:156] Memory required for data: 831586800
I0403 15:12:16.614862 18435 layer_factory.hpp:77] Creating layer prob
I0403 15:12:16.614879 18435 net.cpp:91] Creating Layer prob
I0403 15:12:16.614893 18435 net.cpp:425] prob <- fc8_plantvillage_fc8_plantvillage_0_split_0
I0403 15:12:16.614910 18435 net.cpp:399] prob -> prob
I0403 15:12:16.615135 18435 net.cpp:141] Setting up prob
I0403 15:12:16.615159 18435 net.cpp:148] Top shape: 100 38 (3800)
I0403 15:12:16.615173 18435 net.cpp:156] Memory required for data: 831602000
I0403 15:12:16.615187 18435 layer_factory.hpp:77] Creating layer hdf5out
I0403 15:12:16.615208 18435 net.cpp:91] Creating Layer hdf5out
I0403 15:12:16.615223 18435 net.cpp:425] hdf5out <- prob
I0403 15:12:16.615238 18435 net.cpp:425] hdf5out <- label_data_1_split_0
I0403 15:12:16.617465 18435 net.cpp:141] Setting up hdf5out
…
