…
I0403 15:08:27.665782 18317 net.cpp:313] The NetState phase (1) differed from the phase (0) specified by a rule in layer data
I0403 15:08:27.666123 18317 net.cpp:49] Initializing net from parameters: 
state {
  phase: TEST
}
layer {
  name: "data"
  type: "Data"
  top: "data"
  top: "label"
  include {
    phase: TEST
  }
  transform_param {
    crop_size: 227
    mean_file: "/home/mohanty/data/final_dataset/lmdb/color-80-20/mean.binaryproto"
  }
  data_param {
    source: "/home/mohanty/data/final_dataset/lmdb/color-80-20/test_db"
    batch_size: 100
    backend: LMDB
  }
}
layer {
  name: "conv1"
  type: "Convolution"
  bottom: "data"
  top: "conv1"
  param {
    lr_mult: 1
    decay_mult: 1
  }
  param {
    lr_mult: 2
    decay_mult: 0
  }
  convolution_param {
    num_output: 96
    kernel_size: 11
    stride: 4
    weight_filler {
      type: "gaussian"
      std: 0.01
    }
    bias_filler {
      type: "constant"
      value: 0
    }
  }
}
layer {
  name: "relu1"
  type: "ReLU"
  bottom: "conv1"
  top: "conv1"
}
layer {
  name: "norm1"
  type: "LRN"
  bottom: "conv1"
  top: "norm1"
  lrn_param {
    local_size: 5
    alpha: 0.0001
    beta: 0.75
  }
}
layer {
  name: "pool1"
  type: "Pooling"
  bottom: "norm1"
  top: "pool1"
  pooling_param {
    pool: MAX
    kernel_size: 3
    stride: 2
  }
}
layer {
  name: "conv2"
  type: "Convolution"
  bottom: "pool1"
  top: "conv2"
  param {
    lr_mult: 1
    decay_mult: 1
  }
  param {
    lr_mult: 2
    decay_mult: 0
  }
  convolution_param {
    num_output: 256
    pad: 2
    kernel_size: 5
    group: 2
    weight_filler {
      type: "gaussian"
      std: 0.01
    }
    bias_filler {
      type: "constant"
      value: 0.1
    }
  }
}
layer {
  name: "relu2"
  type: "ReLU"
  bottom: "conv2"
  top: "conv2"
}
layer {
  name: "norm2"
  type: "LRN"
  bottom: "conv2"
  top: "norm2"
  lrn_param {
    local_size: 5
    alpha: 0.0001
    beta: 0.75
  }
}
layer {
  name: "pool2"
  type: "Pooling"
  bottom: "norm2"
  top: "pool2"
  pooling_param {
    pool: MAX
    kernel_size: 3
    stride: 2
  }
}
layer {
  name: "conv3"
  type: "Convolution"
  bottom: "pool2"
  top: "conv3"
  param {
    lr_mult: 1
    decay_mult: 1
  }
  param {
    lr_mult: 2
    decay_mult: 0
  }
  convolution_param {
    num_output: 384
    pad: 1
    kernel_size: 3
    weight_filler {
      type: "gaussian"
      std: 0.01
    }
    bias_filler {
      type: "constant"
      value: 0
    }
  }
}
layer {
  name: "relu3"
  type: "ReLU"
  bottom: "conv3"
  top: "conv3"
}
layer {
  name: "conv4"
  type: "Convolution"
  bottom: "conv3"
  top: "conv4"
  param {
    lr_mult: 1
    decay_mult: 1
  }
  param {
    lr_mult: 2
    decay_mult: 0
  }
  convolution_param {
    num_output: 384
    pad: 1
    kernel_size: 3
    group: 2
    weight_filler {
      type: "gaussian"
      std: 0.01
    }
    bias_filler {
      type: "constant"
      value: 0.1
    }
  }
}
layer {
  name: "relu4"
  type: "ReLU"
  bottom: "conv4"
  top: "conv4"
}
layer {
  name: "conv5"
  type: "Convolution"
  bottom: "conv4"
  top: "conv5"
  param {
    lr_mult: 1
    decay_mult: 1
  }
  param {
    lr_mult: 2
    decay_mult: 0
  }
  convolution_param {
    num_output: 256
    pad: 1
    kernel_size: 3
    group: 2
    weight_filler {
      type: "gaussian"
      std: 0.01
    }
    bias_filler {
      type: "constant"
      value: 0.1
    }
  }
}
layer {
  name: "relu5"
  type: "ReLU"
  bottom: "conv5"
  top: "conv5"
}
layer {
  name: "pool5"
  type: "Pooling"
  bottom: "conv5"
  top: "pool5"
  pooling_param {
    pool: MAX
    kernel_size: 3
    stride: 2
  }
}
layer {
  name: "fc6"
  type: "InnerProduct"
  bottom: "pool5"
  top: "fc6"
  param {
    lr_mult: 1
    decay_mult: 1
  }
  param {
    lr_mult: 2
    decay_mult: 0
  }
  inner_product_param {
    num_output: 4096
    weight_filler {
      type: "gaussian"
      std: 0.005
    }
    bias_filler {
      type: "constant"
      value: 0.1
    }
  }
}
layer {
  name: "relu6"
  type: "ReLU"
  bottom: "fc6"
  top: "fc6"
}
layer {
  name: "drop6"
  type: "Dropout"
  bottom: "fc6"
  top: "fc6"
  dropout_param {
    dropout_ratio: 0.5
  }
}
layer {
  name: "fc7"
  type: "InnerProduct"
  bottom: "fc6"
  top: "fc7"
  param {
    lr_mult: 1
    decay_mult: 1
  }
  param {
    lr_mult: 2
    decay_mult: 0
  }
  inner_product_param {
    num_output: 4096
    weight_filler {
      type: "gaussian"
      std: 0.005
    }
    bias_filler {
      type: "constant"
      value: 0.1
    }
  }
}
layer {
  name: "relu7"
  type: "ReLU"
  bottom: "fc7"
  top: "fc7"
}
layer {
  name: "drop7"
  type: "Dropout"
  bottom: "fc7"
  top: "fc7"
  dropout_param {
    dropout_ratio: 0.5
  }
}
layer {
  name: "fc8_plantvillage"
  type: "InnerProduct"
  bottom: "fc7"
  top: "fc8_plantvillage"
  param {
    lr_mult: 1
    decay_mult: 1
  }
  param {
    lr_mult: 2
    decay_mult: 0
  }
  inner_product_param {
    num_output: 38
    weight_filler {
      type: "gaussian"
      std: 0.01
    }
    bias_filler {
      type: "constant"
      value: 0
    }
  }
}
layer {
  name: "prob"
  type: "Softmax"
  bottom: "fc8_plantvillage"
  top: "prob"
  include {
    phase: TEST
  }
}
layer {
  name: "hdf5out"
  type: "HDF5Output"
  bottom: "prob"
  bottom: "label"
  include {
    phase: TEST
  }
  hdf5_output_param {
    file_name: "hdf5_dumps/iter_8740.h5"
  }
}
layer {
  name: "loss"
  type: "SoftmaxWithLoss"
  bottom: "fc8_plantvillage"
  bottom: "label"
  top: "loss"
}
layer {
  name: "accuracy"
  type: "Accuracy"
  bottom: "fc8_plantvillage"
  bottom: "label"
  top: "accuracy"
  include {
    phase: TEST
  }
}
I0403 15:08:27.666659 18317 layer_factory.hpp:77] Creating layer data
I0403 15:08:27.667312 18317 net.cpp:91] Creating Layer data
I0403 15:08:27.667345 18317 net.cpp:399] data -> data
I0403 15:08:27.667395 18317 net.cpp:399] data -> label
I0403 15:08:27.667431 18317 data_transformer.cpp:25] Loading mean file from: /home/mohanty/data/final_dataset/lmdb/color-80-20/mean.binaryproto
I0403 15:08:27.670240 18320 db_lmdb.cpp:38] Opened lmdb /home/mohanty/data/final_dataset/lmdb/color-80-20/test_db
I0403 15:08:27.682023 18317 data_layer.cpp:41] output data size: 100,3,227,227
I0403 15:08:27.805500 18317 net.cpp:141] Setting up data
I0403 15:08:27.805605 18317 net.cpp:148] Top shape: 100 3 227 227 (15458700)
I0403 15:08:27.805629 18317 net.cpp:148] Top shape: 100 (100)
I0403 15:08:27.805644 18317 net.cpp:156] Memory required for data: 61835200
I0403 15:08:27.805673 18317 layer_factory.hpp:77] Creating layer label_data_1_split
I0403 15:08:27.805699 18317 net.cpp:91] Creating Layer label_data_1_split
I0403 15:08:27.805718 18317 net.cpp:425] label_data_1_split <- label
I0403 15:08:27.805750 18317 net.cpp:399] label_data_1_split -> label_data_1_split_0
I0403 15:08:27.805779 18317 net.cpp:399] label_data_1_split -> label_data_1_split_1
I0403 15:08:27.805801 18317 net.cpp:399] label_data_1_split -> label_data_1_split_2
I0403 15:08:27.805866 18317 net.cpp:141] Setting up label_data_1_split
I0403 15:08:27.805891 18317 net.cpp:148] Top shape: 100 (100)
I0403 15:08:27.805907 18317 net.cpp:148] Top shape: 100 (100)
I0403 15:08:27.805924 18317 net.cpp:148] Top shape: 100 (100)
I0403 15:08:27.805939 18317 net.cpp:156] Memory required for data: 61836400
I0403 15:08:27.805955 18317 layer_factory.hpp:77] Creating layer conv1
I0403 15:08:27.805989 18317 net.cpp:91] Creating Layer conv1
I0403 15:08:27.806008 18317 net.cpp:425] conv1 <- data
I0403 15:08:27.806028 18317 net.cpp:399] conv1 -> conv1
I0403 15:08:27.950398 18317 net.cpp:141] Setting up conv1
I0403 15:08:27.950466 18317 net.cpp:148] Top shape: 100 96 55 55 (29040000)
I0403 15:08:27.950484 18317 net.cpp:156] Memory required for data: 177996400
I0403 15:08:27.950516 18317 layer_factory.hpp:77] Creating layer relu1
I0403 15:08:27.950544 18317 net.cpp:91] Creating Layer relu1
I0403 15:08:27.950563 18317 net.cpp:425] relu1 <- conv1
I0403 15:08:27.950582 18317 net.cpp:386] relu1 -> conv1 (in-place)
I0403 15:08:27.950845 18317 net.cpp:141] Setting up relu1
I0403 15:08:27.950872 18317 net.cpp:148] Top shape: 100 96 55 55 (29040000)
I0403 15:08:27.950888 18317 net.cpp:156] Memory required for data: 294156400
I0403 15:08:27.950950 18317 layer_factory.hpp:77] Creating layer norm1
I0403 15:08:27.950980 18317 net.cpp:91] Creating Layer norm1
I0403 15:08:27.950999 18317 net.cpp:425] norm1 <- conv1
I0403 15:08:27.951019 18317 net.cpp:399] norm1 -> norm1
I0403 15:08:27.951342 18317 net.cpp:141] Setting up norm1
I0403 15:08:27.951371 18317 net.cpp:148] Top shape: 100 96 55 55 (29040000)
I0403 15:08:27.951388 18317 net.cpp:156] Memory required for data: 410316400
I0403 15:08:27.951405 18317 layer_factory.hpp:77] Creating layer pool1
I0403 15:08:27.951428 18317 net.cpp:91] Creating Layer pool1
I0403 15:08:27.951458 18317 net.cpp:425] pool1 <- norm1
I0403 15:08:27.951478 18317 net.cpp:399] pool1 -> pool1
I0403 15:08:27.951545 18317 net.cpp:141] Setting up pool1
I0403 15:08:27.951568 18317 net.cpp:148] Top shape: 100 96 27 27 (6998400)
I0403 15:08:27.951584 18317 net.cpp:156] Memory required for data: 438310000
I0403 15:08:27.951599 18317 layer_factory.hpp:77] Creating layer conv2
I0403 15:08:27.951624 18317 net.cpp:91] Creating Layer conv2
I0403 15:08:27.951640 18317 net.cpp:425] conv2 <- pool1
I0403 15:08:27.951659 18317 net.cpp:399] conv2 -> conv2
I0403 15:08:27.967882 18317 net.cpp:141] Setting up conv2
I0403 15:08:27.967949 18317 net.cpp:148] Top shape: 100 256 27 27 (18662400)
I0403 15:08:27.967967 18317 net.cpp:156] Memory required for data: 512959600
I0403 15:08:27.967993 18317 layer_factory.hpp:77] Creating layer relu2
I0403 15:08:27.968016 18317 net.cpp:91] Creating Layer relu2
I0403 15:08:27.968035 18317 net.cpp:425] relu2 <- conv2
I0403 15:08:27.968060 18317 net.cpp:386] relu2 -> conv2 (in-place)
I0403 15:08:27.968355 18317 net.cpp:141] Setting up relu2
I0403 15:08:27.968386 18317 net.cpp:148] Top shape: 100 256 27 27 (18662400)
I0403 15:08:27.968402 18317 net.cpp:156] Memory required for data: 587609200
I0403 15:08:27.968417 18317 layer_factory.hpp:77] Creating layer norm2
I0403 15:08:27.968443 18317 net.cpp:91] Creating Layer norm2
I0403 15:08:27.968461 18317 net.cpp:425] norm2 <- conv2
I0403 15:08:27.968483 18317 net.cpp:399] norm2 -> norm2
I0403 15:08:27.968730 18317 net.cpp:141] Setting up norm2
I0403 15:08:27.968757 18317 net.cpp:148] Top shape: 100 256 27 27 (18662400)
I0403 15:08:27.968775 18317 net.cpp:156] Memory required for data: 662258800
I0403 15:08:27.968789 18317 layer_factory.hpp:77] Creating layer pool2
I0403 15:08:27.968808 18317 net.cpp:91] Creating Layer pool2
I0403 15:08:27.968824 18317 net.cpp:425] pool2 <- norm2
I0403 15:08:27.968845 18317 net.cpp:399] pool2 -> pool2
I0403 15:08:27.968901 18317 net.cpp:141] Setting up pool2
I0403 15:08:27.968925 18317 net.cpp:148] Top shape: 100 256 13 13 (4326400)
I0403 15:08:27.968940 18317 net.cpp:156] Memory required for data: 679564400
I0403 15:08:27.968956 18317 layer_factory.hpp:77] Creating layer conv3
I0403 15:08:27.968982 18317 net.cpp:91] Creating Layer conv3
I0403 15:08:27.969000 18317 net.cpp:425] conv3 <- pool2
I0403 15:08:27.969019 18317 net.cpp:399] conv3 -> conv3
I0403 15:08:28.009896 18317 net.cpp:141] Setting up conv3
I0403 15:08:28.009975 18317 net.cpp:148] Top shape: 100 384 13 13 (6489600)
I0403 15:08:28.009994 18317 net.cpp:156] Memory required for data: 705522800
I0403 15:08:28.010020 18317 layer_factory.hpp:77] Creating layer relu3
I0403 15:08:28.010061 18317 net.cpp:91] Creating Layer relu3
I0403 15:08:28.010082 18317 net.cpp:425] relu3 <- conv3
I0403 15:08:28.010102 18317 net.cpp:386] relu3 -> conv3 (in-place)
I0403 15:08:28.010401 18317 net.cpp:141] Setting up relu3
I0403 15:08:28.010468 18317 net.cpp:148] Top shape: 100 384 13 13 (6489600)
I0403 15:08:28.010489 18317 net.cpp:156] Memory required for data: 731481200
I0403 15:08:28.010505 18317 layer_factory.hpp:77] Creating layer conv4
I0403 15:08:28.010531 18317 net.cpp:91] Creating Layer conv4
I0403 15:08:28.010550 18317 net.cpp:425] conv4 <- conv3
I0403 15:08:28.010571 18317 net.cpp:399] conv4 -> conv4
I0403 15:08:28.042366 18317 net.cpp:141] Setting up conv4
I0403 15:08:28.042405 18317 net.cpp:148] Top shape: 100 384 13 13 (6489600)
I0403 15:08:28.042455 18317 net.cpp:156] Memory required for data: 757439600
I0403 15:08:28.042479 18317 layer_factory.hpp:77] Creating layer relu4
I0403 15:08:28.042500 18317 net.cpp:91] Creating Layer relu4
I0403 15:08:28.042518 18317 net.cpp:425] relu4 <- conv4
I0403 15:08:28.042541 18317 net.cpp:386] relu4 -> conv4 (in-place)
I0403 15:08:28.042877 18317 net.cpp:141] Setting up relu4
I0403 15:08:28.042906 18317 net.cpp:148] Top shape: 100 384 13 13 (6489600)
I0403 15:08:28.042922 18317 net.cpp:156] Memory required for data: 783398000
I0403 15:08:28.042937 18317 layer_factory.hpp:77] Creating layer conv5
I0403 15:08:28.042963 18317 net.cpp:91] Creating Layer conv5
I0403 15:08:28.042982 18317 net.cpp:425] conv5 <- conv4
I0403 15:08:28.043004 18317 net.cpp:399] conv5 -> conv5
I0403 15:08:28.065238 18317 net.cpp:141] Setting up conv5
I0403 15:08:28.065302 18317 net.cpp:148] Top shape: 100 256 13 13 (4326400)
I0403 15:08:28.065320 18317 net.cpp:156] Memory required for data: 800703600
I0403 15:08:28.065347 18317 layer_factory.hpp:77] Creating layer relu5
I0403 15:08:28.065369 18317 net.cpp:91] Creating Layer relu5
I0403 15:08:28.065387 18317 net.cpp:425] relu5 <- conv5
I0403 15:08:28.065409 18317 net.cpp:386] relu5 -> conv5 (in-place)
I0403 15:08:28.065701 18317 net.cpp:141] Setting up relu5
I0403 15:08:28.065729 18317 net.cpp:148] Top shape: 100 256 13 13 (4326400)
I0403 15:08:28.065745 18317 net.cpp:156] Memory required for data: 818009200
I0403 15:08:28.065762 18317 layer_factory.hpp:77] Creating layer pool5
I0403 15:08:28.065788 18317 net.cpp:91] Creating Layer pool5
I0403 15:08:28.065806 18317 net.cpp:425] pool5 <- conv5
I0403 15:08:28.065825 18317 net.cpp:399] pool5 -> pool5
I0403 15:08:28.065892 18317 net.cpp:141] Setting up pool5
I0403 15:08:28.065917 18317 net.cpp:148] Top shape: 100 256 6 6 (921600)
I0403 15:08:28.065933 18317 net.cpp:156] Memory required for data: 821695600
I0403 15:08:28.065948 18317 layer_factory.hpp:77] Creating layer fc6
I0403 15:08:28.065979 18317 net.cpp:91] Creating Layer fc6
I0403 15:08:28.065999 18317 net.cpp:425] fc6 <- pool5
I0403 15:08:28.066018 18317 net.cpp:399] fc6 -> fc6
I0403 15:08:29.626144 18317 net.cpp:141] Setting up fc6
I0403 15:08:29.626185 18317 net.cpp:148] Top shape: 100 4096 (409600)
I0403 15:08:29.626202 18317 net.cpp:156] Memory required for data: 823334000
I0403 15:08:29.626224 18317 layer_factory.hpp:77] Creating layer relu6
I0403 15:08:29.626245 18317 net.cpp:91] Creating Layer relu6
I0403 15:08:29.626263 18317 net.cpp:425] relu6 <- fc6
I0403 15:08:29.626286 18317 net.cpp:386] relu6 -> fc6 (in-place)
I0403 15:08:29.626503 18317 net.cpp:141] Setting up relu6
I0403 15:08:29.626528 18317 net.cpp:148] Top shape: 100 4096 (409600)
I0403 15:08:29.626543 18317 net.cpp:156] Memory required for data: 824972400
I0403 15:08:29.626557 18317 layer_factory.hpp:77] Creating layer drop6
I0403 15:08:29.626575 18317 net.cpp:91] Creating Layer drop6
I0403 15:08:29.626591 18317 net.cpp:425] drop6 <- fc6
I0403 15:08:29.626610 18317 net.cpp:386] drop6 -> fc6 (in-place)
I0403 15:08:29.626662 18317 net.cpp:141] Setting up drop6
I0403 15:08:29.626688 18317 net.cpp:148] Top shape: 100 4096 (409600)
I0403 15:08:29.626703 18317 net.cpp:156] Memory required for data: 826610800
I0403 15:08:29.626716 18317 layer_factory.hpp:77] Creating layer fc7
I0403 15:08:29.626736 18317 net.cpp:91] Creating Layer fc7
I0403 15:08:29.626751 18317 net.cpp:425] fc7 <- fc6
I0403 15:08:29.626771 18317 net.cpp:399] fc7 -> fc7
I0403 15:08:30.332818 18317 net.cpp:141] Setting up fc7
I0403 15:08:30.332859 18317 net.cpp:148] Top shape: 100 4096 (409600)
I0403 15:08:30.332875 18317 net.cpp:156] Memory required for data: 828249200
I0403 15:08:30.332897 18317 layer_factory.hpp:77] Creating layer relu7
I0403 15:08:30.332921 18317 net.cpp:91] Creating Layer relu7
I0403 15:08:30.332944 18317 net.cpp:425] relu7 <- fc7
I0403 15:08:30.332974 18317 net.cpp:386] relu7 -> fc7 (in-place)
I0403 15:08:30.333395 18317 net.cpp:141] Setting up relu7
I0403 15:08:30.333423 18317 net.cpp:148] Top shape: 100 4096 (409600)
I0403 15:08:30.333456 18317 net.cpp:156] Memory required for data: 829887600
I0403 15:08:30.333473 18317 layer_factory.hpp:77] Creating layer drop7
I0403 15:08:30.333492 18317 net.cpp:91] Creating Layer drop7
I0403 15:08:30.333509 18317 net.cpp:425] drop7 <- fc7
I0403 15:08:30.333529 18317 net.cpp:386] drop7 -> fc7 (in-place)
I0403 15:08:30.333573 18317 net.cpp:141] Setting up drop7
I0403 15:08:30.333598 18317 net.cpp:148] Top shape: 100 4096 (409600)
I0403 15:08:30.333614 18317 net.cpp:156] Memory required for data: 831526000
I0403 15:08:30.333629 18317 layer_factory.hpp:77] Creating layer fc8_plantvillage
I0403 15:08:30.333649 18317 net.cpp:91] Creating Layer fc8_plantvillage
I0403 15:08:30.333665 18317 net.cpp:425] fc8_plantvillage <- fc7
I0403 15:08:30.333686 18317 net.cpp:399] fc8_plantvillage -> fc8_plantvillage
I0403 15:08:30.340617 18317 net.cpp:141] Setting up fc8_plantvillage
I0403 15:08:30.340646 18317 net.cpp:148] Top shape: 100 38 (3800)
I0403 15:08:30.340662 18317 net.cpp:156] Memory required for data: 831541200
I0403 15:08:30.340680 18317 layer_factory.hpp:77] Creating layer fc8_plantvillage_fc8_plantvillage_0_split
I0403 15:08:30.340700 18317 net.cpp:91] Creating Layer fc8_plantvillage_fc8_plantvillage_0_split
I0403 15:08:30.340715 18317 net.cpp:425] fc8_plantvillage_fc8_plantvillage_0_split <- fc8_plantvillage
I0403 15:08:30.340736 18317 net.cpp:399] fc8_plantvillage_fc8_plantvillage_0_split -> fc8_plantvillage_fc8_plantvillage_0_split_0
I0403 15:08:30.340759 18317 net.cpp:399] fc8_plantvillage_fc8_plantvillage_0_split -> fc8_plantvillage_fc8_plantvillage_0_split_1
I0403 15:08:30.340778 18317 net.cpp:399] fc8_plantvillage_fc8_plantvillage_0_split -> fc8_plantvillage_fc8_plantvillage_0_split_2
I0403 15:08:30.340857 18317 net.cpp:141] Setting up fc8_plantvillage_fc8_plantvillage_0_split
I0403 15:08:30.340883 18317 net.cpp:148] Top shape: 100 38 (3800)
I0403 15:08:30.340898 18317 net.cpp:148] Top shape: 100 38 (3800)
I0403 15:08:30.340914 18317 net.cpp:148] Top shape: 100 38 (3800)
I0403 15:08:30.340929 18317 net.cpp:156] Memory required for data: 831586800
I0403 15:08:30.340942 18317 layer_factory.hpp:77] Creating layer prob
I0403 15:08:30.340962 18317 net.cpp:91] Creating Layer prob
I0403 15:08:30.340977 18317 net.cpp:425] prob <- fc8_plantvillage_fc8_plantvillage_0_split_0
I0403 15:08:30.340998 18317 net.cpp:399] prob -> prob
I0403 15:08:30.341243 18317 net.cpp:141] Setting up prob
I0403 15:08:30.341270 18317 net.cpp:148] Top shape: 100 38 (3800)
I0403 15:08:30.341286 18317 net.cpp:156] Memory required for data: 831602000
I0403 15:08:30.341301 18317 layer_factory.hpp:77] Creating layer hdf5out
I0403 15:08:30.341320 18317 net.cpp:91] Creating Layer hdf5out
I0403 15:08:30.341341 18317 net.cpp:425] hdf5out <- prob
I0403 15:08:30.341357 18317 net.cpp:425] hdf5out <- label_data_1_split_0
I0403 15:08:30.343715 18317 net.cpp:141] Setting up hdf5out
…
