…
I0403 15:12:39.079808 18446 net.cpp:313] The NetState phase (1) differed from the phase (0) specified by a rule in layer data
I0403 15:12:39.080121 18446 net.cpp:49] Initializing net from parameters: 
state {
  phase: TEST
}
layer {
  name: "data"
  type: "Data"
  top: "data"
  top: "label"
  include {
    phase: TEST
  }
  transform_param {
    crop_size: 227
    mean_file: "/home/mohanty/data/final_dataset/lmdb/color-80-20/mean.binaryproto"
  }
  data_param {
    source: "/home/mohanty/data/final_dataset/lmdb/color-80-20/test_db"
    batch_size: 100
    backend: LMDB
  }
}
layer {
  name: "conv1"
  type: "Convolution"
  bottom: "data"
  top: "conv1"
  param {
    lr_mult: 1
    decay_mult: 1
  }
  param {
    lr_mult: 2
    decay_mult: 0
  }
  convolution_param {
    num_output: 96
    kernel_size: 11
    stride: 4
    weight_filler {
      type: "gaussian"
      std: 0.01
    }
    bias_filler {
      type: "constant"
      value: 0
    }
  }
}
layer {
  name: "relu1"
  type: "ReLU"
  bottom: "conv1"
  top: "conv1"
}
layer {
  name: "norm1"
  type: "LRN"
  bottom: "conv1"
  top: "norm1"
  lrn_param {
    local_size: 5
    alpha: 0.0001
    beta: 0.75
  }
}
layer {
  name: "pool1"
  type: "Pooling"
  bottom: "norm1"
  top: "pool1"
  pooling_param {
    pool: MAX
    kernel_size: 3
    stride: 2
  }
}
layer {
  name: "conv2"
  type: "Convolution"
  bottom: "pool1"
  top: "conv2"
  param {
    lr_mult: 1
    decay_mult: 1
  }
  param {
    lr_mult: 2
    decay_mult: 0
  }
  convolution_param {
    num_output: 256
    pad: 2
    kernel_size: 5
    group: 2
    weight_filler {
      type: "gaussian"
      std: 0.01
    }
    bias_filler {
      type: "constant"
      value: 0.1
    }
  }
}
layer {
  name: "relu2"
  type: "ReLU"
  bottom: "conv2"
  top: "conv2"
}
layer {
  name: "norm2"
  type: "LRN"
  bottom: "conv2"
  top: "norm2"
  lrn_param {
    local_size: 5
    alpha: 0.0001
    beta: 0.75
  }
}
layer {
  name: "pool2"
  type: "Pooling"
  bottom: "norm2"
  top: "pool2"
  pooling_param {
    pool: MAX
    kernel_size: 3
    stride: 2
  }
}
layer {
  name: "conv3"
  type: "Convolution"
  bottom: "pool2"
  top: "conv3"
  param {
    lr_mult: 1
    decay_mult: 1
  }
  param {
    lr_mult: 2
    decay_mult: 0
  }
  convolution_param {
    num_output: 384
    pad: 1
    kernel_size: 3
    weight_filler {
      type: "gaussian"
      std: 0.01
    }
    bias_filler {
      type: "constant"
      value: 0
    }
  }
}
layer {
  name: "relu3"
  type: "ReLU"
  bottom: "conv3"
  top: "conv3"
}
layer {
  name: "conv4"
  type: "Convolution"
  bottom: "conv3"
  top: "conv4"
  param {
    lr_mult: 1
    decay_mult: 1
  }
  param {
    lr_mult: 2
    decay_mult: 0
  }
  convolution_param {
    num_output: 384
    pad: 1
    kernel_size: 3
    group: 2
    weight_filler {
      type: "gaussian"
      std: 0.01
    }
    bias_filler {
      type: "constant"
      value: 0.1
    }
  }
}
layer {
  name: "relu4"
  type: "ReLU"
  bottom: "conv4"
  top: "conv4"
}
layer {
  name: "conv5"
  type: "Convolution"
  bottom: "conv4"
  top: "conv5"
  param {
    lr_mult: 1
    decay_mult: 1
  }
  param {
    lr_mult: 2
    decay_mult: 0
  }
  convolution_param {
    num_output: 256
    pad: 1
    kernel_size: 3
    group: 2
    weight_filler {
      type: "gaussian"
      std: 0.01
    }
    bias_filler {
      type: "constant"
      value: 0.1
    }
  }
}
layer {
  name: "relu5"
  type: "ReLU"
  bottom: "conv5"
  top: "conv5"
}
layer {
  name: "pool5"
  type: "Pooling"
  bottom: "conv5"
  top: "pool5"
  pooling_param {
    pool: MAX
    kernel_size: 3
    stride: 2
  }
}
layer {
  name: "fc6"
  type: "InnerProduct"
  bottom: "pool5"
  top: "fc6"
  param {
    lr_mult: 1
    decay_mult: 1
  }
  param {
    lr_mult: 2
    decay_mult: 0
  }
  inner_product_param {
    num_output: 4096
    weight_filler {
      type: "gaussian"
      std: 0.005
    }
    bias_filler {
      type: "constant"
      value: 0.1
    }
  }
}
layer {
  name: "relu6"
  type: "ReLU"
  bottom: "fc6"
  top: "fc6"
}
layer {
  name: "drop6"
  type: "Dropout"
  bottom: "fc6"
  top: "fc6"
  dropout_param {
    dropout_ratio: 0.5
  }
}
layer {
  name: "fc7"
  type: "InnerProduct"
  bottom: "fc6"
  top: "fc7"
  param {
    lr_mult: 1
    decay_mult: 1
  }
  param {
    lr_mult: 2
    decay_mult: 0
  }
  inner_product_param {
    num_output: 4096
    weight_filler {
      type: "gaussian"
      std: 0.005
    }
    bias_filler {
      type: "constant"
      value: 0.1
    }
  }
}
layer {
  name: "relu7"
  type: "ReLU"
  bottom: "fc7"
  top: "fc7"
}
layer {
  name: "drop7"
  type: "Dropout"
  bottom: "fc7"
  top: "fc7"
  dropout_param {
    dropout_ratio: 0.5
  }
}
layer {
  name: "fc8_plantvillage"
  type: "InnerProduct"
  bottom: "fc7"
  top: "fc8_plantvillage"
  param {
    lr_mult: 1
    decay_mult: 1
  }
  param {
    lr_mult: 2
    decay_mult: 0
  }
  inner_product_param {
    num_output: 38
    weight_filler {
      type: "gaussian"
      std: 0.01
    }
    bias_filler {
      type: "constant"
      value: 0
    }
  }
}
layer {
  name: "prob"
  type: "Softmax"
  bottom: "fc8_plantvillage"
  top: "prob"
  include {
    phase: TEST
  }
}
layer {
  name: "hdf5out"
  type: "HDF5Output"
  bottom: "prob"
  bottom: "label"
  include {
    phase: TEST
  }
  hdf5_output_param {
    file_name: "hdf5_dumps/iter_13110.h5"
  }
}
layer {
  name: "loss"
  type: "SoftmaxWithLoss"
  bottom: "fc8_plantvillage"
  bottom: "label"
  top: "loss"
}
layer {
  name: "accuracy"
  type: "Accuracy"
  bottom: "fc8_plantvillage"
  bottom: "label"
  top: "accuracy"
  include {
    phase: TEST
  }
}
I0403 15:12:39.080715 18446 layer_factory.hpp:77] Creating layer data
I0403 15:12:39.081347 18446 net.cpp:91] Creating Layer data
I0403 15:12:39.081379 18446 net.cpp:399] data -> data
I0403 15:12:39.081429 18446 net.cpp:399] data -> label
I0403 15:12:39.081464 18446 data_transformer.cpp:25] Loading mean file from: /home/mohanty/data/final_dataset/lmdb/color-80-20/mean.binaryproto
I0403 15:12:39.084023 18449 db_lmdb.cpp:38] Opened lmdb /home/mohanty/data/final_dataset/lmdb/color-80-20/test_db
I0403 15:12:39.095934 18446 data_layer.cpp:41] output data size: 100,3,227,227
I0403 15:12:39.216441 18446 net.cpp:141] Setting up data
I0403 15:12:39.216502 18446 net.cpp:148] Top shape: 100 3 227 227 (15458700)
I0403 15:12:39.216527 18446 net.cpp:148] Top shape: 100 (100)
I0403 15:12:39.216543 18446 net.cpp:156] Memory required for data: 61835200
I0403 15:12:39.216572 18446 layer_factory.hpp:77] Creating layer label_data_1_split
I0403 15:12:39.216598 18446 net.cpp:91] Creating Layer label_data_1_split
I0403 15:12:39.216617 18446 net.cpp:425] label_data_1_split <- label
I0403 15:12:39.216650 18446 net.cpp:399] label_data_1_split -> label_data_1_split_0
I0403 15:12:39.216681 18446 net.cpp:399] label_data_1_split -> label_data_1_split_1
I0403 15:12:39.216702 18446 net.cpp:399] label_data_1_split -> label_data_1_split_2
I0403 15:12:39.216768 18446 net.cpp:141] Setting up label_data_1_split
I0403 15:12:39.216791 18446 net.cpp:148] Top shape: 100 (100)
I0403 15:12:39.216809 18446 net.cpp:148] Top shape: 100 (100)
I0403 15:12:39.216826 18446 net.cpp:148] Top shape: 100 (100)
I0403 15:12:39.216841 18446 net.cpp:156] Memory required for data: 61836400
I0403 15:12:39.216857 18446 layer_factory.hpp:77] Creating layer conv1
I0403 15:12:39.216889 18446 net.cpp:91] Creating Layer conv1
I0403 15:12:39.216908 18446 net.cpp:425] conv1 <- data
I0403 15:12:39.216928 18446 net.cpp:399] conv1 -> conv1
I0403 15:12:39.365226 18446 net.cpp:141] Setting up conv1
I0403 15:12:39.365314 18446 net.cpp:148] Top shape: 100 96 55 55 (29040000)
I0403 15:12:39.365331 18446 net.cpp:156] Memory required for data: 177996400
I0403 15:12:39.365361 18446 layer_factory.hpp:77] Creating layer relu1
I0403 15:12:39.365389 18446 net.cpp:91] Creating Layer relu1
I0403 15:12:39.365406 18446 net.cpp:425] relu1 <- conv1
I0403 15:12:39.365425 18446 net.cpp:386] relu1 -> conv1 (in-place)
I0403 15:12:39.365686 18446 net.cpp:141] Setting up relu1
I0403 15:12:39.365715 18446 net.cpp:148] Top shape: 100 96 55 55 (29040000)
I0403 15:12:39.365731 18446 net.cpp:156] Memory required for data: 294156400
I0403 15:12:39.365777 18446 layer_factory.hpp:77] Creating layer norm1
I0403 15:12:39.365806 18446 net.cpp:91] Creating Layer norm1
I0403 15:12:39.365824 18446 net.cpp:425] norm1 <- conv1
I0403 15:12:39.365842 18446 net.cpp:399] norm1 -> norm1
I0403 15:12:39.366161 18446 net.cpp:141] Setting up norm1
I0403 15:12:39.366189 18446 net.cpp:148] Top shape: 100 96 55 55 (29040000)
I0403 15:12:39.366205 18446 net.cpp:156] Memory required for data: 410316400
I0403 15:12:39.366220 18446 layer_factory.hpp:77] Creating layer pool1
I0403 15:12:39.366243 18446 net.cpp:91] Creating Layer pool1
I0403 15:12:39.366261 18446 net.cpp:425] pool1 <- norm1
I0403 15:12:39.366277 18446 net.cpp:399] pool1 -> pool1
I0403 15:12:39.366345 18446 net.cpp:141] Setting up pool1
I0403 15:12:39.366369 18446 net.cpp:148] Top shape: 100 96 27 27 (6998400)
I0403 15:12:39.366384 18446 net.cpp:156] Memory required for data: 438310000
I0403 15:12:39.366399 18446 layer_factory.hpp:77] Creating layer conv2
I0403 15:12:39.366422 18446 net.cpp:91] Creating Layer conv2
I0403 15:12:39.366438 18446 net.cpp:425] conv2 <- pool1
I0403 15:12:39.366456 18446 net.cpp:399] conv2 -> conv2
I0403 15:12:39.381629 18446 net.cpp:141] Setting up conv2
I0403 15:12:39.381665 18446 net.cpp:148] Top shape: 100 256 27 27 (18662400)
I0403 15:12:39.381682 18446 net.cpp:156] Memory required for data: 512959600
I0403 15:12:39.381705 18446 layer_factory.hpp:77] Creating layer relu2
I0403 15:12:39.381724 18446 net.cpp:91] Creating Layer relu2
I0403 15:12:39.381741 18446 net.cpp:425] relu2 <- conv2
I0403 15:12:39.381759 18446 net.cpp:386] relu2 -> conv2 (in-place)
I0403 15:12:39.382041 18446 net.cpp:141] Setting up relu2
I0403 15:12:39.382071 18446 net.cpp:148] Top shape: 100 256 27 27 (18662400)
I0403 15:12:39.382086 18446 net.cpp:156] Memory required for data: 587609200
I0403 15:12:39.382102 18446 layer_factory.hpp:77] Creating layer norm2
I0403 15:12:39.382122 18446 net.cpp:91] Creating Layer norm2
I0403 15:12:39.382139 18446 net.cpp:425] norm2 <- conv2
I0403 15:12:39.382158 18446 net.cpp:399] norm2 -> norm2
I0403 15:12:39.382398 18446 net.cpp:141] Setting up norm2
I0403 15:12:39.382426 18446 net.cpp:148] Top shape: 100 256 27 27 (18662400)
I0403 15:12:39.382441 18446 net.cpp:156] Memory required for data: 662258800
I0403 15:12:39.382457 18446 layer_factory.hpp:77] Creating layer pool2
I0403 15:12:39.382475 18446 net.cpp:91] Creating Layer pool2
I0403 15:12:39.382491 18446 net.cpp:425] pool2 <- norm2
I0403 15:12:39.382510 18446 net.cpp:399] pool2 -> pool2
I0403 15:12:39.382561 18446 net.cpp:141] Setting up pool2
I0403 15:12:39.382586 18446 net.cpp:148] Top shape: 100 256 13 13 (4326400)
I0403 15:12:39.382601 18446 net.cpp:156] Memory required for data: 679564400
I0403 15:12:39.382616 18446 layer_factory.hpp:77] Creating layer conv3
I0403 15:12:39.382637 18446 net.cpp:91] Creating Layer conv3
I0403 15:12:39.382653 18446 net.cpp:425] conv3 <- pool2
I0403 15:12:39.382673 18446 net.cpp:399] conv3 -> conv3
I0403 15:12:39.423746 18446 net.cpp:141] Setting up conv3
I0403 15:12:39.423835 18446 net.cpp:148] Top shape: 100 384 13 13 (6489600)
I0403 15:12:39.423853 18446 net.cpp:156] Memory required for data: 705522800
I0403 15:12:39.423880 18446 layer_factory.hpp:77] Creating layer relu3
I0403 15:12:39.423903 18446 net.cpp:91] Creating Layer relu3
I0403 15:12:39.423923 18446 net.cpp:425] relu3 <- conv3
I0403 15:12:39.423943 18446 net.cpp:386] relu3 -> conv3 (in-place)
I0403 15:12:39.424226 18446 net.cpp:141] Setting up relu3
I0403 15:12:39.424254 18446 net.cpp:148] Top shape: 100 384 13 13 (6489600)
I0403 15:12:39.424271 18446 net.cpp:156] Memory required for data: 731481200
I0403 15:12:39.424288 18446 layer_factory.hpp:77] Creating layer conv4
I0403 15:12:39.424312 18446 net.cpp:91] Creating Layer conv4
I0403 15:12:39.424329 18446 net.cpp:425] conv4 <- conv3
I0403 15:12:39.424348 18446 net.cpp:399] conv4 -> conv4
I0403 15:12:39.455653 18446 net.cpp:141] Setting up conv4
I0403 15:12:39.455708 18446 net.cpp:148] Top shape: 100 384 13 13 (6489600)
I0403 15:12:39.455755 18446 net.cpp:156] Memory required for data: 757439600
I0403 15:12:39.455777 18446 layer_factory.hpp:77] Creating layer relu4
I0403 15:12:39.455798 18446 net.cpp:91] Creating Layer relu4
I0403 15:12:39.455816 18446 net.cpp:425] relu4 <- conv4
I0403 15:12:39.455837 18446 net.cpp:386] relu4 -> conv4 (in-place)
I0403 15:12:39.456133 18446 net.cpp:141] Setting up relu4
I0403 15:12:39.456161 18446 net.cpp:148] Top shape: 100 384 13 13 (6489600)
I0403 15:12:39.456177 18446 net.cpp:156] Memory required for data: 783398000
I0403 15:12:39.456193 18446 layer_factory.hpp:77] Creating layer conv5
I0403 15:12:39.456218 18446 net.cpp:91] Creating Layer conv5
I0403 15:12:39.456235 18446 net.cpp:425] conv5 <- conv4
I0403 15:12:39.456259 18446 net.cpp:399] conv5 -> conv5
I0403 15:12:39.477875 18446 net.cpp:141] Setting up conv5
I0403 15:12:39.477915 18446 net.cpp:148] Top shape: 100 256 13 13 (4326400)
I0403 15:12:39.477932 18446 net.cpp:156] Memory required for data: 800703600
I0403 15:12:39.477957 18446 layer_factory.hpp:77] Creating layer relu5
I0403 15:12:39.477978 18446 net.cpp:91] Creating Layer relu5
I0403 15:12:39.477996 18446 net.cpp:425] relu5 <- conv5
I0403 15:12:39.478030 18446 net.cpp:386] relu5 -> conv5 (in-place)
I0403 15:12:39.478327 18446 net.cpp:141] Setting up relu5
I0403 15:12:39.478355 18446 net.cpp:148] Top shape: 100 256 13 13 (4326400)
I0403 15:12:39.478373 18446 net.cpp:156] Memory required for data: 818009200
I0403 15:12:39.478387 18446 layer_factory.hpp:77] Creating layer pool5
I0403 15:12:39.478411 18446 net.cpp:91] Creating Layer pool5
I0403 15:12:39.478430 18446 net.cpp:425] pool5 <- conv5
I0403 15:12:39.478448 18446 net.cpp:399] pool5 -> pool5
I0403 15:12:39.478513 18446 net.cpp:141] Setting up pool5
I0403 15:12:39.478536 18446 net.cpp:148] Top shape: 100 256 6 6 (921600)
I0403 15:12:39.478551 18446 net.cpp:156] Memory required for data: 821695600
I0403 15:12:39.478566 18446 layer_factory.hpp:77] Creating layer fc6
I0403 15:12:39.478595 18446 net.cpp:91] Creating Layer fc6
I0403 15:12:39.478611 18446 net.cpp:425] fc6 <- pool5
I0403 15:12:39.478632 18446 net.cpp:399] fc6 -> fc6
I0403 15:12:41.031200 18446 net.cpp:141] Setting up fc6
I0403 15:12:41.031272 18446 net.cpp:148] Top shape: 100 4096 (409600)
I0403 15:12:41.031288 18446 net.cpp:156] Memory required for data: 823334000
I0403 15:12:41.031309 18446 layer_factory.hpp:77] Creating layer relu6
I0403 15:12:41.031330 18446 net.cpp:91] Creating Layer relu6
I0403 15:12:41.031347 18446 net.cpp:425] relu6 <- fc6
I0403 15:12:41.031365 18446 net.cpp:386] relu6 -> fc6 (in-place)
I0403 15:12:41.031582 18446 net.cpp:141] Setting up relu6
I0403 15:12:41.031607 18446 net.cpp:148] Top shape: 100 4096 (409600)
I0403 15:12:41.031621 18446 net.cpp:156] Memory required for data: 824972400
I0403 15:12:41.031635 18446 layer_factory.hpp:77] Creating layer drop6
I0403 15:12:41.031652 18446 net.cpp:91] Creating Layer drop6
I0403 15:12:41.031678 18446 net.cpp:425] drop6 <- fc6
I0403 15:12:41.031698 18446 net.cpp:386] drop6 -> fc6 (in-place)
I0403 15:12:41.031750 18446 net.cpp:141] Setting up drop6
I0403 15:12:41.031776 18446 net.cpp:148] Top shape: 100 4096 (409600)
I0403 15:12:41.031791 18446 net.cpp:156] Memory required for data: 826610800
I0403 15:12:41.031806 18446 layer_factory.hpp:77] Creating layer fc7
I0403 15:12:41.031826 18446 net.cpp:91] Creating Layer fc7
I0403 15:12:41.031841 18446 net.cpp:425] fc7 <- fc6
I0403 15:12:41.031859 18446 net.cpp:399] fc7 -> fc7
I0403 15:12:41.718111 18446 net.cpp:141] Setting up fc7
I0403 15:12:41.718176 18446 net.cpp:148] Top shape: 100 4096 (409600)
I0403 15:12:41.718194 18446 net.cpp:156] Memory required for data: 828249200
I0403 15:12:41.718214 18446 layer_factory.hpp:77] Creating layer relu7
I0403 15:12:41.718235 18446 net.cpp:91] Creating Layer relu7
I0403 15:12:41.718251 18446 net.cpp:425] relu7 <- fc7
I0403 15:12:41.718272 18446 net.cpp:386] relu7 -> fc7 (in-place)
I0403 15:12:41.718693 18446 net.cpp:141] Setting up relu7
I0403 15:12:41.718719 18446 net.cpp:148] Top shape: 100 4096 (409600)
I0403 15:12:41.718765 18446 net.cpp:156] Memory required for data: 829887600
I0403 15:12:41.718780 18446 layer_factory.hpp:77] Creating layer drop7
I0403 15:12:41.718798 18446 net.cpp:91] Creating Layer drop7
I0403 15:12:41.718813 18446 net.cpp:425] drop7 <- fc7
I0403 15:12:41.718832 18446 net.cpp:386] drop7 -> fc7 (in-place)
I0403 15:12:41.718876 18446 net.cpp:141] Setting up drop7
I0403 15:12:41.718901 18446 net.cpp:148] Top shape: 100 4096 (409600)
I0403 15:12:41.718916 18446 net.cpp:156] Memory required for data: 831526000
I0403 15:12:41.718930 18446 layer_factory.hpp:77] Creating layer fc8_plantvillage
I0403 15:12:41.718950 18446 net.cpp:91] Creating Layer fc8_plantvillage
I0403 15:12:41.718964 18446 net.cpp:425] fc8_plantvillage <- fc7
I0403 15:12:41.718983 18446 net.cpp:399] fc8_plantvillage -> fc8_plantvillage
I0403 15:12:41.725625 18446 net.cpp:141] Setting up fc8_plantvillage
I0403 15:12:41.725653 18446 net.cpp:148] Top shape: 100 38 (3800)
I0403 15:12:41.725668 18446 net.cpp:156] Memory required for data: 831541200
I0403 15:12:41.725687 18446 layer_factory.hpp:77] Creating layer fc8_plantvillage_fc8_plantvillage_0_split
I0403 15:12:41.725706 18446 net.cpp:91] Creating Layer fc8_plantvillage_fc8_plantvillage_0_split
I0403 15:12:41.725723 18446 net.cpp:425] fc8_plantvillage_fc8_plantvillage_0_split <- fc8_plantvillage
I0403 15:12:41.725739 18446 net.cpp:399] fc8_plantvillage_fc8_plantvillage_0_split -> fc8_plantvillage_fc8_plantvillage_0_split_0
I0403 15:12:41.725757 18446 net.cpp:399] fc8_plantvillage_fc8_plantvillage_0_split -> fc8_plantvillage_fc8_plantvillage_0_split_1
I0403 15:12:41.725775 18446 net.cpp:399] fc8_plantvillage_fc8_plantvillage_0_split -> fc8_plantvillage_fc8_plantvillage_0_split_2
I0403 15:12:41.725853 18446 net.cpp:141] Setting up fc8_plantvillage_fc8_plantvillage_0_split
I0403 15:12:41.725878 18446 net.cpp:148] Top shape: 100 38 (3800)
I0403 15:12:41.725895 18446 net.cpp:148] Top shape: 100 38 (3800)
I0403 15:12:41.725910 18446 net.cpp:148] Top shape: 100 38 (3800)
I0403 15:12:41.725922 18446 net.cpp:156] Memory required for data: 831586800
I0403 15:12:41.725936 18446 layer_factory.hpp:77] Creating layer prob
I0403 15:12:41.725953 18446 net.cpp:91] Creating Layer prob
I0403 15:12:41.725967 18446 net.cpp:425] prob <- fc8_plantvillage_fc8_plantvillage_0_split_0
I0403 15:12:41.725985 18446 net.cpp:399] prob -> prob
I0403 15:12:41.726212 18446 net.cpp:141] Setting up prob
I0403 15:12:41.726236 18446 net.cpp:148] Top shape: 100 38 (3800)
I0403 15:12:41.726250 18446 net.cpp:156] Memory required for data: 831602000
I0403 15:12:41.726264 18446 layer_factory.hpp:77] Creating layer hdf5out
I0403 15:12:41.726281 18446 net.cpp:91] Creating Layer hdf5out
I0403 15:12:41.726296 18446 net.cpp:425] hdf5out <- prob
I0403 15:12:41.726312 18446 net.cpp:425] hdf5out <- label_data_1_split_0
I0403 15:12:41.728370 18446 net.cpp:141] Setting up hdf5out
…
