…
I0403 15:01:45.134481 18108 net.cpp:313] The NetState phase (1) differed from the phase (0) specified by a rule in layer data
I0403 15:01:45.134793 18108 net.cpp:49] Initializing net from parameters: 
state {
  phase: TEST
}
layer {
  name: "data"
  type: "Data"
  top: "data"
  top: "label"
  include {
    phase: TEST
  }
  transform_param {
    crop_size: 227
    mean_file: "/home/mohanty/data/final_dataset/lmdb/color-80-20/mean.binaryproto"
  }
  data_param {
    source: "/home/mohanty/data/final_dataset/lmdb/color-80-20/test_db"
    batch_size: 100
    backend: LMDB
  }
}
layer {
  name: "conv1"
  type: "Convolution"
  bottom: "data"
  top: "conv1"
  param {
    lr_mult: 1
    decay_mult: 1
  }
  param {
    lr_mult: 2
    decay_mult: 0
  }
  convolution_param {
    num_output: 96
    kernel_size: 11
    stride: 4
    weight_filler {
      type: "gaussian"
      std: 0.01
    }
    bias_filler {
      type: "constant"
      value: 0
    }
  }
}
layer {
  name: "relu1"
  type: "ReLU"
  bottom: "conv1"
  top: "conv1"
}
layer {
  name: "norm1"
  type: "LRN"
  bottom: "conv1"
  top: "norm1"
  lrn_param {
    local_size: 5
    alpha: 0.0001
    beta: 0.75
  }
}
layer {
  name: "pool1"
  type: "Pooling"
  bottom: "norm1"
  top: "pool1"
  pooling_param {
    pool: MAX
    kernel_size: 3
    stride: 2
  }
}
layer {
  name: "conv2"
  type: "Convolution"
  bottom: "pool1"
  top: "conv2"
  param {
    lr_mult: 1
    decay_mult: 1
  }
  param {
    lr_mult: 2
    decay_mult: 0
  }
  convolution_param {
    num_output: 256
    pad: 2
    kernel_size: 5
    group: 2
    weight_filler {
      type: "gaussian"
      std: 0.01
    }
    bias_filler {
      type: "constant"
      value: 0.1
    }
  }
}
layer {
  name: "relu2"
  type: "ReLU"
  bottom: "conv2"
  top: "conv2"
}
layer {
  name: "norm2"
  type: "LRN"
  bottom: "conv2"
  top: "norm2"
  lrn_param {
    local_size: 5
    alpha: 0.0001
    beta: 0.75
  }
}
layer {
  name: "pool2"
  type: "Pooling"
  bottom: "norm2"
  top: "pool2"
  pooling_param {
    pool: MAX
    kernel_size: 3
    stride: 2
  }
}
layer {
  name: "conv3"
  type: "Convolution"
  bottom: "pool2"
  top: "conv3"
  param {
    lr_mult: 1
    decay_mult: 1
  }
  param {
    lr_mult: 2
    decay_mult: 0
  }
  convolution_param {
    num_output: 384
    pad: 1
    kernel_size: 3
    weight_filler {
      type: "gaussian"
      std: 0.01
    }
    bias_filler {
      type: "constant"
      value: 0
    }
  }
}
layer {
  name: "relu3"
  type: "ReLU"
  bottom: "conv3"
  top: "conv3"
}
layer {
  name: "conv4"
  type: "Convolution"
  bottom: "conv3"
  top: "conv4"
  param {
    lr_mult: 1
    decay_mult: 1
  }
  param {
    lr_mult: 2
    decay_mult: 0
  }
  convolution_param {
    num_output: 384
    pad: 1
    kernel_size: 3
    group: 2
    weight_filler {
      type: "gaussian"
      std: 0.01
    }
    bias_filler {
      type: "constant"
      value: 0.1
    }
  }
}
layer {
  name: "relu4"
  type: "ReLU"
  bottom: "conv4"
  top: "conv4"
}
layer {
  name: "conv5"
  type: "Convolution"
  bottom: "conv4"
  top: "conv5"
  param {
    lr_mult: 1
    decay_mult: 1
  }
  param {
    lr_mult: 2
    decay_mult: 0
  }
  convolution_param {
    num_output: 256
    pad: 1
    kernel_size: 3
    group: 2
    weight_filler {
      type: "gaussian"
      std: 0.01
    }
    bias_filler {
      type: "constant"
      value: 0.1
    }
  }
}
layer {
  name: "relu5"
  type: "ReLU"
  bottom: "conv5"
  top: "conv5"
}
layer {
  name: "pool5"
  type: "Pooling"
  bottom: "conv5"
  top: "pool5"
  pooling_param {
    pool: MAX
    kernel_size: 3
    stride: 2
  }
}
layer {
  name: "fc6"
  type: "InnerProduct"
  bottom: "pool5"
  top: "fc6"
  param {
    lr_mult: 1
    decay_mult: 1
  }
  param {
    lr_mult: 2
    decay_mult: 0
  }
  inner_product_param {
    num_output: 4096
    weight_filler {
      type: "gaussian"
      std: 0.005
    }
    bias_filler {
      type: "constant"
      value: 0.1
    }
  }
}
layer {
  name: "relu6"
  type: "ReLU"
  bottom: "fc6"
  top: "fc6"
}
layer {
  name: "drop6"
  type: "Dropout"
  bottom: "fc6"
  top: "fc6"
  dropout_param {
    dropout_ratio: 0.5
  }
}
layer {
  name: "fc7"
  type: "InnerProduct"
  bottom: "fc6"
  top: "fc7"
  param {
    lr_mult: 1
    decay_mult: 1
  }
  param {
    lr_mult: 2
    decay_mult: 0
  }
  inner_product_param {
    num_output: 4096
    weight_filler {
      type: "gaussian"
      std: 0.005
    }
    bias_filler {
      type: "constant"
      value: 0.1
    }
  }
}
layer {
  name: "relu7"
  type: "ReLU"
  bottom: "fc7"
  top: "fc7"
}
layer {
  name: "drop7"
  type: "Dropout"
  bottom: "fc7"
  top: "fc7"
  dropout_param {
    dropout_ratio: 0.5
  }
}
layer {
  name: "fc8_plantvillage"
  type: "InnerProduct"
  bottom: "fc7"
  top: "fc8_plantvillage"
  param {
    lr_mult: 1
    decay_mult: 1
  }
  param {
    lr_mult: 2
    decay_mult: 0
  }
  inner_product_param {
    num_output: 38
    weight_filler {
      type: "gaussian"
      std: 0.01
    }
    bias_filler {
      type: "constant"
      value: 0
    }
  }
}
layer {
  name: "prob"
  type: "Softmax"
  bottom: "fc8_plantvillage"
  top: "prob"
  include {
    phase: TEST
  }
}
layer {
  name: "hdf5out"
  type: "HDF5Output"
  bottom: "prob"
  bottom: "label"
  include {
    phase: TEST
  }
  hdf5_output_param {
    file_name: "hdf5_dumps/iter_1748.h5"
  }
}
layer {
  name: "loss"
  type: "SoftmaxWithLoss"
  bottom: "fc8_plantvillage"
  bottom: "label"
  top: "loss"
}
layer {
  name: "accuracy"
  type: "Accuracy"
  bottom: "fc8_plantvillage"
  bottom: "label"
  top: "accuracy"
  include {
    phase: TEST
  }
}
I0403 15:01:45.135323 18108 layer_factory.hpp:77] Creating layer data
I0403 15:01:45.135973 18108 net.cpp:91] Creating Layer data
I0403 15:01:45.136004 18108 net.cpp:399] data -> data
I0403 15:01:45.136059 18108 net.cpp:399] data -> label
I0403 15:01:45.136099 18108 data_transformer.cpp:25] Loading mean file from: /home/mohanty/data/final_dataset/lmdb/color-80-20/mean.binaryproto
I0403 15:01:45.148072 18113 db_lmdb.cpp:38] Opened lmdb /home/mohanty/data/final_dataset/lmdb/color-80-20/test_db
I0403 15:01:45.160593 18108 data_layer.cpp:41] output data size: 100,3,227,227
I0403 15:01:45.283123 18108 net.cpp:141] Setting up data
I0403 15:01:45.283182 18108 net.cpp:148] Top shape: 100 3 227 227 (15458700)
I0403 15:01:45.283205 18108 net.cpp:148] Top shape: 100 (100)
I0403 15:01:45.283220 18108 net.cpp:156] Memory required for data: 61835200
I0403 15:01:45.283246 18108 layer_factory.hpp:77] Creating layer label_data_1_split
I0403 15:01:45.283272 18108 net.cpp:91] Creating Layer label_data_1_split
I0403 15:01:45.283288 18108 net.cpp:425] label_data_1_split <- label
I0403 15:01:45.283320 18108 net.cpp:399] label_data_1_split -> label_data_1_split_0
I0403 15:01:45.283347 18108 net.cpp:399] label_data_1_split -> label_data_1_split_1
I0403 15:01:45.283367 18108 net.cpp:399] label_data_1_split -> label_data_1_split_2
I0403 15:01:45.283432 18108 net.cpp:141] Setting up label_data_1_split
I0403 15:01:45.283454 18108 net.cpp:148] Top shape: 100 (100)
I0403 15:01:45.283470 18108 net.cpp:148] Top shape: 100 (100)
I0403 15:01:45.283485 18108 net.cpp:148] Top shape: 100 (100)
I0403 15:01:45.283499 18108 net.cpp:156] Memory required for data: 61836400
I0403 15:01:45.283514 18108 layer_factory.hpp:77] Creating layer conv1
I0403 15:01:45.283545 18108 net.cpp:91] Creating Layer conv1
I0403 15:01:45.283562 18108 net.cpp:425] conv1 <- data
I0403 15:01:45.283581 18108 net.cpp:399] conv1 -> conv1
I0403 15:01:45.430663 18108 net.cpp:141] Setting up conv1
I0403 15:01:45.430707 18108 net.cpp:148] Top shape: 100 96 55 55 (29040000)
I0403 15:01:45.430726 18108 net.cpp:156] Memory required for data: 177996400
I0403 15:01:45.430757 18108 layer_factory.hpp:77] Creating layer relu1
I0403 15:01:45.430785 18108 net.cpp:91] Creating Layer relu1
I0403 15:01:45.430804 18108 net.cpp:425] relu1 <- conv1
I0403 15:01:45.430824 18108 net.cpp:386] relu1 -> conv1 (in-place)
I0403 15:01:45.431093 18108 net.cpp:141] Setting up relu1
I0403 15:01:45.431121 18108 net.cpp:148] Top shape: 100 96 55 55 (29040000)
I0403 15:01:45.431138 18108 net.cpp:156] Memory required for data: 294156400
I0403 15:01:45.431228 18108 layer_factory.hpp:77] Creating layer norm1
I0403 15:01:45.431260 18108 net.cpp:91] Creating Layer norm1
I0403 15:01:45.431279 18108 net.cpp:425] norm1 <- conv1
I0403 15:01:45.431298 18108 net.cpp:399] norm1 -> norm1
I0403 15:01:45.431619 18108 net.cpp:141] Setting up norm1
I0403 15:01:45.431648 18108 net.cpp:148] Top shape: 100 96 55 55 (29040000)
I0403 15:01:45.431664 18108 net.cpp:156] Memory required for data: 410316400
I0403 15:01:45.431679 18108 layer_factory.hpp:77] Creating layer pool1
I0403 15:01:45.431702 18108 net.cpp:91] Creating Layer pool1
I0403 15:01:45.431720 18108 net.cpp:425] pool1 <- norm1
I0403 15:01:45.431738 18108 net.cpp:399] pool1 -> pool1
I0403 15:01:45.431808 18108 net.cpp:141] Setting up pool1
I0403 15:01:45.431833 18108 net.cpp:148] Top shape: 100 96 27 27 (6998400)
I0403 15:01:45.431849 18108 net.cpp:156] Memory required for data: 438310000
I0403 15:01:45.431864 18108 layer_factory.hpp:77] Creating layer conv2
I0403 15:01:45.431888 18108 net.cpp:91] Creating Layer conv2
I0403 15:01:45.431905 18108 net.cpp:425] conv2 <- pool1
I0403 15:01:45.431924 18108 net.cpp:399] conv2 -> conv2
I0403 15:01:45.447484 18108 net.cpp:141] Setting up conv2
I0403 15:01:45.447535 18108 net.cpp:148] Top shape: 100 256 27 27 (18662400)
I0403 15:01:45.447551 18108 net.cpp:156] Memory required for data: 512959600
I0403 15:01:45.447572 18108 layer_factory.hpp:77] Creating layer relu2
I0403 15:01:45.447592 18108 net.cpp:91] Creating Layer relu2
I0403 15:01:45.447607 18108 net.cpp:425] relu2 <- conv2
I0403 15:01:45.447626 18108 net.cpp:386] relu2 -> conv2 (in-place)
I0403 15:01:45.447902 18108 net.cpp:141] Setting up relu2
I0403 15:01:45.447928 18108 net.cpp:148] Top shape: 100 256 27 27 (18662400)
I0403 15:01:45.447942 18108 net.cpp:156] Memory required for data: 587609200
I0403 15:01:45.447957 18108 layer_factory.hpp:77] Creating layer norm2
I0403 15:01:45.447979 18108 net.cpp:91] Creating Layer norm2
I0403 15:01:45.447995 18108 net.cpp:425] norm2 <- conv2
I0403 15:01:45.448014 18108 net.cpp:399] norm2 -> norm2
I0403 15:01:45.448217 18108 net.cpp:141] Setting up norm2
I0403 15:01:45.448246 18108 net.cpp:148] Top shape: 100 256 27 27 (18662400)
I0403 15:01:45.448261 18108 net.cpp:156] Memory required for data: 662258800
I0403 15:01:45.448276 18108 layer_factory.hpp:77] Creating layer pool2
I0403 15:01:45.448292 18108 net.cpp:91] Creating Layer pool2
I0403 15:01:45.448307 18108 net.cpp:425] pool2 <- norm2
I0403 15:01:45.448325 18108 net.cpp:399] pool2 -> pool2
I0403 15:01:45.448376 18108 net.cpp:141] Setting up pool2
I0403 15:01:45.448401 18108 net.cpp:148] Top shape: 100 256 13 13 (4326400)
I0403 15:01:45.448415 18108 net.cpp:156] Memory required for data: 679564400
I0403 15:01:45.448431 18108 layer_factory.hpp:77] Creating layer conv3
I0403 15:01:45.448452 18108 net.cpp:91] Creating Layer conv3
I0403 15:01:45.448469 18108 net.cpp:425] conv3 <- pool2
I0403 15:01:45.448487 18108 net.cpp:399] conv3 -> conv3
I0403 15:01:45.491377 18108 net.cpp:141] Setting up conv3
I0403 15:01:45.491451 18108 net.cpp:148] Top shape: 100 384 13 13 (6489600)
I0403 15:01:45.491468 18108 net.cpp:156] Memory required for data: 705522800
I0403 15:01:45.491492 18108 layer_factory.hpp:77] Creating layer relu3
I0403 15:01:45.491513 18108 net.cpp:91] Creating Layer relu3
I0403 15:01:45.491529 18108 net.cpp:425] relu3 <- conv3
I0403 15:01:45.491550 18108 net.cpp:386] relu3 -> conv3 (in-place)
I0403 15:01:45.491833 18108 net.cpp:141] Setting up relu3
I0403 15:01:45.491861 18108 net.cpp:148] Top shape: 100 384 13 13 (6489600)
I0403 15:01:45.491876 18108 net.cpp:156] Memory required for data: 731481200
I0403 15:01:45.491891 18108 layer_factory.hpp:77] Creating layer conv4
I0403 15:01:45.491915 18108 net.cpp:91] Creating Layer conv4
I0403 15:01:45.491932 18108 net.cpp:425] conv4 <- conv3
I0403 15:01:45.491955 18108 net.cpp:399] conv4 -> conv4
I0403 15:01:45.522403 18108 net.cpp:141] Setting up conv4
I0403 15:01:45.522445 18108 net.cpp:148] Top shape: 100 384 13 13 (6489600)
I0403 15:01:45.522492 18108 net.cpp:156] Memory required for data: 757439600
I0403 15:01:45.522516 18108 layer_factory.hpp:77] Creating layer relu4
I0403 15:01:45.522537 18108 net.cpp:91] Creating Layer relu4
I0403 15:01:45.522555 18108 net.cpp:425] relu4 <- conv4
I0403 15:01:45.522574 18108 net.cpp:386] relu4 -> conv4 (in-place)
I0403 15:01:45.522861 18108 net.cpp:141] Setting up relu4
I0403 15:01:45.522891 18108 net.cpp:148] Top shape: 100 384 13 13 (6489600)
I0403 15:01:45.522907 18108 net.cpp:156] Memory required for data: 783398000
I0403 15:01:45.522922 18108 layer_factory.hpp:77] Creating layer conv5
I0403 15:01:45.522946 18108 net.cpp:91] Creating Layer conv5
I0403 15:01:45.522964 18108 net.cpp:425] conv5 <- conv4
I0403 15:01:45.522984 18108 net.cpp:399] conv5 -> conv5
I0403 15:01:45.543447 18108 net.cpp:141] Setting up conv5
I0403 15:01:45.543496 18108 net.cpp:148] Top shape: 100 256 13 13 (4326400)
I0403 15:01:45.543514 18108 net.cpp:156] Memory required for data: 800703600
I0403 15:01:45.543537 18108 layer_factory.hpp:77] Creating layer relu5
I0403 15:01:45.543556 18108 net.cpp:91] Creating Layer relu5
I0403 15:01:45.543571 18108 net.cpp:425] relu5 <- conv5
I0403 15:01:45.543591 18108 net.cpp:386] relu5 -> conv5 (in-place)
I0403 15:01:45.543865 18108 net.cpp:141] Setting up relu5
I0403 15:01:45.543891 18108 net.cpp:148] Top shape: 100 256 13 13 (4326400)
I0403 15:01:45.543905 18108 net.cpp:156] Memory required for data: 818009200
I0403 15:01:45.543920 18108 layer_factory.hpp:77] Creating layer pool5
I0403 15:01:45.543942 18108 net.cpp:91] Creating Layer pool5
I0403 15:01:45.543959 18108 net.cpp:425] pool5 <- conv5
I0403 15:01:45.543977 18108 net.cpp:399] pool5 -> pool5
I0403 15:01:45.544037 18108 net.cpp:141] Setting up pool5
I0403 15:01:45.544064 18108 net.cpp:148] Top shape: 100 256 6 6 (921600)
I0403 15:01:45.544080 18108 net.cpp:156] Memory required for data: 821695600
I0403 15:01:45.544092 18108 layer_factory.hpp:77] Creating layer fc6
I0403 15:01:45.544117 18108 net.cpp:91] Creating Layer fc6
I0403 15:01:45.544134 18108 net.cpp:425] fc6 <- pool5
I0403 15:01:45.544153 18108 net.cpp:399] fc6 -> fc6
I0403 15:01:47.102987 18108 net.cpp:141] Setting up fc6
I0403 15:01:47.103031 18108 net.cpp:148] Top shape: 100 4096 (409600)
I0403 15:01:47.103046 18108 net.cpp:156] Memory required for data: 823334000
I0403 15:01:47.103071 18108 layer_factory.hpp:77] Creating layer relu6
I0403 15:01:47.103093 18108 net.cpp:91] Creating Layer relu6
I0403 15:01:47.103111 18108 net.cpp:425] relu6 <- fc6
I0403 15:01:47.103129 18108 net.cpp:386] relu6 -> fc6 (in-place)
I0403 15:01:47.103346 18108 net.cpp:141] Setting up relu6
I0403 15:01:47.103371 18108 net.cpp:148] Top shape: 100 4096 (409600)
I0403 15:01:47.103385 18108 net.cpp:156] Memory required for data: 824972400
I0403 15:01:47.103399 18108 layer_factory.hpp:77] Creating layer drop6
I0403 15:01:47.103417 18108 net.cpp:91] Creating Layer drop6
I0403 15:01:47.103432 18108 net.cpp:425] drop6 <- fc6
I0403 15:01:47.103451 18108 net.cpp:386] drop6 -> fc6 (in-place)
I0403 15:01:47.103502 18108 net.cpp:141] Setting up drop6
I0403 15:01:47.103523 18108 net.cpp:148] Top shape: 100 4096 (409600)
I0403 15:01:47.103538 18108 net.cpp:156] Memory required for data: 826610800
I0403 15:01:47.103551 18108 layer_factory.hpp:77] Creating layer fc7
I0403 15:01:47.103574 18108 net.cpp:91] Creating Layer fc7
I0403 15:01:47.103590 18108 net.cpp:425] fc7 <- fc6
I0403 15:01:47.103610 18108 net.cpp:399] fc7 -> fc7
I0403 15:01:47.789535 18108 net.cpp:141] Setting up fc7
I0403 15:01:47.789584 18108 net.cpp:148] Top shape: 100 4096 (409600)
I0403 15:01:47.789599 18108 net.cpp:156] Memory required for data: 828249200
I0403 15:01:47.789620 18108 layer_factory.hpp:77] Creating layer relu7
I0403 15:01:47.789643 18108 net.cpp:91] Creating Layer relu7
I0403 15:01:47.789659 18108 net.cpp:425] relu7 <- fc7
I0403 15:01:47.789681 18108 net.cpp:386] relu7 -> fc7 (in-place)
I0403 15:01:47.790112 18108 net.cpp:141] Setting up relu7
I0403 15:01:47.790139 18108 net.cpp:148] Top shape: 100 4096 (409600)
I0403 15:01:47.790185 18108 net.cpp:156] Memory required for data: 829887600
I0403 15:01:47.790200 18108 layer_factory.hpp:77] Creating layer drop7
I0403 15:01:47.790220 18108 net.cpp:91] Creating Layer drop7
I0403 15:01:47.790235 18108 net.cpp:425] drop7 <- fc7
I0403 15:01:47.790254 18108 net.cpp:386] drop7 -> fc7 (in-place)
I0403 15:01:47.790298 18108 net.cpp:141] Setting up drop7
I0403 15:01:47.790323 18108 net.cpp:148] Top shape: 100 4096 (409600)
I0403 15:01:47.790338 18108 net.cpp:156] Memory required for data: 831526000
I0403 15:01:47.790352 18108 layer_factory.hpp:77] Creating layer fc8_plantvillage
I0403 15:01:47.790372 18108 net.cpp:91] Creating Layer fc8_plantvillage
I0403 15:01:47.790387 18108 net.cpp:425] fc8_plantvillage <- fc7
I0403 15:01:47.790407 18108 net.cpp:399] fc8_plantvillage -> fc8_plantvillage
I0403 15:01:47.797356 18108 net.cpp:141] Setting up fc8_plantvillage
I0403 15:01:47.797384 18108 net.cpp:148] Top shape: 100 38 (3800)
I0403 15:01:47.797399 18108 net.cpp:156] Memory required for data: 831541200
I0403 15:01:47.797417 18108 layer_factory.hpp:77] Creating layer fc8_plantvillage_fc8_plantvillage_0_split
I0403 15:01:47.797436 18108 net.cpp:91] Creating Layer fc8_plantvillage_fc8_plantvillage_0_split
I0403 15:01:47.797451 18108 net.cpp:425] fc8_plantvillage_fc8_plantvillage_0_split <- fc8_plantvillage
I0403 15:01:47.797471 18108 net.cpp:399] fc8_plantvillage_fc8_plantvillage_0_split -> fc8_plantvillage_fc8_plantvillage_0_split_0
I0403 15:01:47.797492 18108 net.cpp:399] fc8_plantvillage_fc8_plantvillage_0_split -> fc8_plantvillage_fc8_plantvillage_0_split_1
I0403 15:01:47.797511 18108 net.cpp:399] fc8_plantvillage_fc8_plantvillage_0_split -> fc8_plantvillage_fc8_plantvillage_0_split_2
I0403 15:01:47.797590 18108 net.cpp:141] Setting up fc8_plantvillage_fc8_plantvillage_0_split
I0403 15:01:47.797616 18108 net.cpp:148] Top shape: 100 38 (3800)
I0403 15:01:47.797632 18108 net.cpp:148] Top shape: 100 38 (3800)
I0403 15:01:47.797647 18108 net.cpp:148] Top shape: 100 38 (3800)
I0403 15:01:47.797662 18108 net.cpp:156] Memory required for data: 831586800
I0403 15:01:47.797675 18108 layer_factory.hpp:77] Creating layer prob
I0403 15:01:47.797693 18108 net.cpp:91] Creating Layer prob
I0403 15:01:47.797708 18108 net.cpp:425] prob <- fc8_plantvillage_fc8_plantvillage_0_split_0
I0403 15:01:47.797725 18108 net.cpp:399] prob -> prob
I0403 15:01:47.797956 18108 net.cpp:141] Setting up prob
I0403 15:01:47.797981 18108 net.cpp:148] Top shape: 100 38 (3800)
I0403 15:01:47.797996 18108 net.cpp:156] Memory required for data: 831602000
I0403 15:01:47.798012 18108 layer_factory.hpp:77] Creating layer hdf5out
I0403 15:01:47.798029 18108 net.cpp:91] Creating Layer hdf5out
I0403 15:01:47.798045 18108 net.cpp:425] hdf5out <- prob
I0403 15:01:47.798066 18108 net.cpp:425] hdf5out <- label_data_1_split_0
I0403 15:01:47.800269 18108 net.cpp:141] Setting up hdf5out
…
