…
I0403 13:17:57.220661 27734 net.cpp:313] The NetState phase (1) differed from the phase (0) specified by a rule in layer data
I0403 13:17:57.221009 27734 net.cpp:49] Initializing net from parameters: 
state {
  phase: TEST
}
layer {
  name: "data"
  type: "Data"
  top: "data"
  top: "label"
  include {
    phase: TEST
  }
  transform_param {
    crop_size: 227
    mean_file: "/home/mohanty/data/final_dataset/lmdb/color-60-40/mean.binaryproto"
  }
  data_param {
    source: "/home/mohanty/data/final_dataset/lmdb/color-60-40/test_db"
    batch_size: 100
    backend: LMDB
  }
}
layer {
  name: "conv1"
  type: "Convolution"
  bottom: "data"
  top: "conv1"
  param {
    lr_mult: 1
    decay_mult: 1
  }
  param {
    lr_mult: 2
    decay_mult: 0
  }
  convolution_param {
    num_output: 96
    kernel_size: 11
    stride: 4
    weight_filler {
      type: "gaussian"
      std: 0.01
    }
    bias_filler {
      type: "constant"
      value: 0
    }
  }
}
layer {
  name: "relu1"
  type: "ReLU"
  bottom: "conv1"
  top: "conv1"
}
layer {
  name: "norm1"
  type: "LRN"
  bottom: "conv1"
  top: "norm1"
  lrn_param {
    local_size: 5
    alpha: 0.0001
    beta: 0.75
  }
}
layer {
  name: "pool1"
  type: "Pooling"
  bottom: "norm1"
  top: "pool1"
  pooling_param {
    pool: MAX
    kernel_size: 3
    stride: 2
  }
}
layer {
  name: "conv2"
  type: "Convolution"
  bottom: "pool1"
  top: "conv2"
  param {
    lr_mult: 1
    decay_mult: 1
  }
  param {
    lr_mult: 2
    decay_mult: 0
  }
  convolution_param {
    num_output: 256
    pad: 2
    kernel_size: 5
    group: 2
    weight_filler {
      type: "gaussian"
      std: 0.01
    }
    bias_filler {
      type: "constant"
      value: 0.1
    }
  }
}
layer {
  name: "relu2"
  type: "ReLU"
  bottom: "conv2"
  top: "conv2"
}
layer {
  name: "norm2"
  type: "LRN"
  bottom: "conv2"
  top: "norm2"
  lrn_param {
    local_size: 5
    alpha: 0.0001
    beta: 0.75
  }
}
layer {
  name: "pool2"
  type: "Pooling"
  bottom: "norm2"
  top: "pool2"
  pooling_param {
    pool: MAX
    kernel_size: 3
    stride: 2
  }
}
layer {
  name: "conv3"
  type: "Convolution"
  bottom: "pool2"
  top: "conv3"
  param {
    lr_mult: 1
    decay_mult: 1
  }
  param {
    lr_mult: 2
    decay_mult: 0
  }
  convolution_param {
    num_output: 384
    pad: 1
    kernel_size: 3
    weight_filler {
      type: "gaussian"
      std: 0.01
    }
    bias_filler {
      type: "constant"
      value: 0
    }
  }
}
layer {
  name: "relu3"
  type: "ReLU"
  bottom: "conv3"
  top: "conv3"
}
layer {
  name: "conv4"
  type: "Convolution"
  bottom: "conv3"
  top: "conv4"
  param {
    lr_mult: 1
    decay_mult: 1
  }
  param {
    lr_mult: 2
    decay_mult: 0
  }
  convolution_param {
    num_output: 384
    pad: 1
    kernel_size: 3
    group: 2
    weight_filler {
      type: "gaussian"
      std: 0.01
    }
    bias_filler {
      type: "constant"
      value: 0.1
    }
  }
}
layer {
  name: "relu4"
  type: "ReLU"
  bottom: "conv4"
  top: "conv4"
}
layer {
  name: "conv5"
  type: "Convolution"
  bottom: "conv4"
  top: "conv5"
  param {
    lr_mult: 1
    decay_mult: 1
  }
  param {
    lr_mult: 2
    decay_mult: 0
  }
  convolution_param {
    num_output: 256
    pad: 1
    kernel_size: 3
    group: 2
    weight_filler {
      type: "gaussian"
      std: 0.01
    }
    bias_filler {
      type: "constant"
      value: 0.1
    }
  }
}
layer {
  name: "relu5"
  type: "ReLU"
  bottom: "conv5"
  top: "conv5"
}
layer {
  name: "pool5"
  type: "Pooling"
  bottom: "conv5"
  top: "pool5"
  pooling_param {
    pool: MAX
    kernel_size: 3
    stride: 2
  }
}
layer {
  name: "fc6"
  type: "InnerProduct"
  bottom: "pool5"
  top: "fc6"
  param {
    lr_mult: 1
    decay_mult: 1
  }
  param {
    lr_mult: 2
    decay_mult: 0
  }
  inner_product_param {
    num_output: 4096
    weight_filler {
      type: "gaussian"
      std: 0.005
    }
    bias_filler {
      type: "constant"
      value: 0.1
    }
  }
}
layer {
  name: "relu6"
  type: "ReLU"
  bottom: "fc6"
  top: "fc6"
}
layer {
  name: "drop6"
  type: "Dropout"
  bottom: "fc6"
  top: "fc6"
  dropout_param {
    dropout_ratio: 0.5
  }
}
layer {
  name: "fc7"
  type: "InnerProduct"
  bottom: "fc6"
  top: "fc7"
  param {
    lr_mult: 1
    decay_mult: 1
  }
  param {
    lr_mult: 2
    decay_mult: 0
  }
  inner_product_param {
    num_output: 4096
    weight_filler {
      type: "gaussian"
      std: 0.005
    }
    bias_filler {
      type: "constant"
      value: 0.1
    }
  }
}
layer {
  name: "relu7"
  type: "ReLU"
  bottom: "fc7"
  top: "fc7"
}
layer {
  name: "drop7"
  type: "Dropout"
  bottom: "fc7"
  top: "fc7"
  dropout_param {
    dropout_ratio: 0.5
  }
}
layer {
  name: "fc8_plantvillage"
  type: "InnerProduct"
  bottom: "fc7"
  top: "fc8_plantvillage"
  param {
    lr_mult: 1
    decay_mult: 1
  }
  param {
    lr_mult: 2
    decay_mult: 0
  }
  inner_product_param {
    num_output: 38
    weight_filler {
      type: "gaussian"
      std: 0.01
    }
    bias_filler {
      type: "constant"
      value: 0
    }
  }
}
layer {
  name: "prob"
  type: "Softmax"
  bottom: "fc8_plantvillage"
  top: "prob"
  include {
    phase: TEST
  }
}
layer {
  name: "hdf5out"
  type: "HDF5Output"
  bottom: "prob"
  bottom: "label"
  include {
    phase: TEST
  }
  hdf5_output_param {
    file_name: "hdf5_dumps/iter_5850.h5"
  }
}
layer {
  name: "loss"
  type: "SoftmaxWithLoss"
  bottom: "fc8_plantvillage"
  bottom: "label"
  top: "loss"
}
layer {
  name: "accuracy"
  type: "Accuracy"
  bottom: "fc8_plantvillage"
  bottom: "label"
  top: "accuracy"
  include {
    phase: TEST
  }
}
I0403 13:17:57.221613 27734 layer_factory.hpp:77] Creating layer data
I0403 13:17:57.222306 27734 net.cpp:91] Creating Layer data
I0403 13:17:57.222338 27734 net.cpp:399] data -> data
I0403 13:17:57.222393 27734 net.cpp:399] data -> label
I0403 13:17:57.222434 27734 data_transformer.cpp:25] Loading mean file from: /home/mohanty/data/final_dataset/lmdb/color-60-40/mean.binaryproto
I0403 13:17:57.224941 27737 db_lmdb.cpp:38] Opened lmdb /home/mohanty/data/final_dataset/lmdb/color-60-40/test_db
I0403 13:17:57.237663 27734 data_layer.cpp:41] output data size: 100,3,227,227
I0403 13:17:57.391095 27734 net.cpp:141] Setting up data
I0403 13:17:57.391206 27734 net.cpp:148] Top shape: 100 3 227 227 (15458700)
I0403 13:17:57.391232 27734 net.cpp:148] Top shape: 100 (100)
I0403 13:17:57.391247 27734 net.cpp:156] Memory required for data: 61835200
I0403 13:17:57.391278 27734 layer_factory.hpp:77] Creating layer label_data_1_split
I0403 13:17:57.391311 27734 net.cpp:91] Creating Layer label_data_1_split
I0403 13:17:57.391331 27734 net.cpp:425] label_data_1_split <- label
I0403 13:17:57.391365 27734 net.cpp:399] label_data_1_split -> label_data_1_split_0
I0403 13:17:57.391396 27734 net.cpp:399] label_data_1_split -> label_data_1_split_1
I0403 13:17:57.391417 27734 net.cpp:399] label_data_1_split -> label_data_1_split_2
I0403 13:17:57.391492 27734 net.cpp:141] Setting up label_data_1_split
I0403 13:17:57.391517 27734 net.cpp:148] Top shape: 100 (100)
I0403 13:17:57.391535 27734 net.cpp:148] Top shape: 100 (100)
I0403 13:17:57.391553 27734 net.cpp:148] Top shape: 100 (100)
I0403 13:17:57.391568 27734 net.cpp:156] Memory required for data: 61836400
I0403 13:17:57.391584 27734 layer_factory.hpp:77] Creating layer conv1
I0403 13:17:57.391618 27734 net.cpp:91] Creating Layer conv1
I0403 13:17:57.391639 27734 net.cpp:425] conv1 <- data
I0403 13:17:57.391659 27734 net.cpp:399] conv1 -> conv1
I0403 13:17:57.544618 27734 net.cpp:141] Setting up conv1
I0403 13:17:57.544699 27734 net.cpp:148] Top shape: 100 96 55 55 (29040000)
I0403 13:17:57.544718 27734 net.cpp:156] Memory required for data: 177996400
I0403 13:17:57.544752 27734 layer_factory.hpp:77] Creating layer relu1
I0403 13:17:57.544782 27734 net.cpp:91] Creating Layer relu1
I0403 13:17:57.544802 27734 net.cpp:425] relu1 <- conv1
I0403 13:17:57.544824 27734 net.cpp:386] relu1 -> conv1 (in-place)
I0403 13:17:57.545094 27734 net.cpp:141] Setting up relu1
I0403 13:17:57.545123 27734 net.cpp:148] Top shape: 100 96 55 55 (29040000)
I0403 13:17:57.545142 27734 net.cpp:156] Memory required for data: 294156400
I0403 13:17:57.545258 27734 layer_factory.hpp:77] Creating layer norm1
I0403 13:17:57.545294 27734 net.cpp:91] Creating Layer norm1
I0403 13:17:57.545313 27734 net.cpp:425] norm1 <- conv1
I0403 13:17:57.545336 27734 net.cpp:399] norm1 -> norm1
I0403 13:17:57.545660 27734 net.cpp:141] Setting up norm1
I0403 13:17:57.545693 27734 net.cpp:148] Top shape: 100 96 55 55 (29040000)
I0403 13:17:57.545711 27734 net.cpp:156] Memory required for data: 410316400
I0403 13:17:57.545730 27734 layer_factory.hpp:77] Creating layer pool1
I0403 13:17:57.545756 27734 net.cpp:91] Creating Layer pool1
I0403 13:17:57.545775 27734 net.cpp:425] pool1 <- norm1
I0403 13:17:57.545796 27734 net.cpp:399] pool1 -> pool1
I0403 13:17:57.545869 27734 net.cpp:141] Setting up pool1
I0403 13:17:57.545895 27734 net.cpp:148] Top shape: 100 96 27 27 (6998400)
I0403 13:17:57.545913 27734 net.cpp:156] Memory required for data: 438310000
I0403 13:17:57.545930 27734 layer_factory.hpp:77] Creating layer conv2
I0403 13:17:57.545958 27734 net.cpp:91] Creating Layer conv2
I0403 13:17:57.545976 27734 net.cpp:425] conv2 <- pool1
I0403 13:17:57.545996 27734 net.cpp:399] conv2 -> conv2
I0403 13:17:57.561862 27734 net.cpp:141] Setting up conv2
I0403 13:17:57.561926 27734 net.cpp:148] Top shape: 100 256 27 27 (18662400)
I0403 13:17:57.561945 27734 net.cpp:156] Memory required for data: 512959600
I0403 13:17:57.561974 27734 layer_factory.hpp:77] Creating layer relu2
I0403 13:17:57.561998 27734 net.cpp:91] Creating Layer relu2
I0403 13:17:57.562016 27734 net.cpp:425] relu2 <- conv2
I0403 13:17:57.562039 27734 net.cpp:386] relu2 -> conv2 (in-place)
I0403 13:17:57.562330 27734 net.cpp:141] Setting up relu2
I0403 13:17:57.562361 27734 net.cpp:148] Top shape: 100 256 27 27 (18662400)
I0403 13:17:57.562379 27734 net.cpp:156] Memory required for data: 587609200
I0403 13:17:57.562397 27734 layer_factory.hpp:77] Creating layer norm2
I0403 13:17:57.562424 27734 net.cpp:91] Creating Layer norm2
I0403 13:17:57.562443 27734 net.cpp:425] norm2 <- conv2
I0403 13:17:57.562464 27734 net.cpp:399] norm2 -> norm2
I0403 13:17:57.562666 27734 net.cpp:141] Setting up norm2
I0403 13:17:57.562695 27734 net.cpp:148] Top shape: 100 256 27 27 (18662400)
I0403 13:17:57.562712 27734 net.cpp:156] Memory required for data: 662258800
I0403 13:17:57.562731 27734 layer_factory.hpp:77] Creating layer pool2
I0403 13:17:57.562754 27734 net.cpp:91] Creating Layer pool2
I0403 13:17:57.562772 27734 net.cpp:425] pool2 <- norm2
I0403 13:17:57.562793 27734 net.cpp:399] pool2 -> pool2
I0403 13:17:57.562850 27734 net.cpp:141] Setting up pool2
I0403 13:17:57.562876 27734 net.cpp:148] Top shape: 100 256 13 13 (4326400)
I0403 13:17:57.562893 27734 net.cpp:156] Memory required for data: 679564400
I0403 13:17:57.562911 27734 layer_factory.hpp:77] Creating layer conv3
I0403 13:17:57.562937 27734 net.cpp:91] Creating Layer conv3
I0403 13:17:57.562955 27734 net.cpp:425] conv3 <- pool2
I0403 13:17:57.562978 27734 net.cpp:399] conv3 -> conv3
I0403 13:17:57.613126 27734 net.cpp:141] Setting up conv3
I0403 13:17:57.613214 27734 net.cpp:148] Top shape: 100 384 13 13 (6489600)
I0403 13:17:57.613231 27734 net.cpp:156] Memory required for data: 705522800
I0403 13:17:57.613262 27734 layer_factory.hpp:77] Creating layer relu3
I0403 13:17:57.613293 27734 net.cpp:91] Creating Layer relu3
I0403 13:17:57.613315 27734 net.cpp:425] relu3 <- conv3
I0403 13:17:57.613337 27734 net.cpp:386] relu3 -> conv3 (in-place)
I0403 13:17:57.613642 27734 net.cpp:141] Setting up relu3
I0403 13:17:57.613672 27734 net.cpp:148] Top shape: 100 384 13 13 (6489600)
I0403 13:17:57.613688 27734 net.cpp:156] Memory required for data: 731481200
I0403 13:17:57.613706 27734 layer_factory.hpp:77] Creating layer conv4
I0403 13:17:57.613737 27734 net.cpp:91] Creating Layer conv4
I0403 13:17:57.613757 27734 net.cpp:425] conv4 <- conv3
I0403 13:17:57.613778 27734 net.cpp:399] conv4 -> conv4
I0403 13:17:57.645206 27734 net.cpp:141] Setting up conv4
I0403 13:17:57.645249 27734 net.cpp:148] Top shape: 100 384 13 13 (6489600)
I0403 13:17:57.645304 27734 net.cpp:156] Memory required for data: 757439600
I0403 13:17:57.645328 27734 layer_factory.hpp:77] Creating layer relu4
I0403 13:17:57.645355 27734 net.cpp:91] Creating Layer relu4
I0403 13:17:57.645373 27734 net.cpp:425] relu4 <- conv4
I0403 13:17:57.645395 27734 net.cpp:386] relu4 -> conv4 (in-place)
I0403 13:17:57.645683 27734 net.cpp:141] Setting up relu4
I0403 13:17:57.645711 27734 net.cpp:148] Top shape: 100 384 13 13 (6489600)
I0403 13:17:57.645728 27734 net.cpp:156] Memory required for data: 783398000
I0403 13:17:57.645745 27734 layer_factory.hpp:77] Creating layer conv5
I0403 13:17:57.645772 27734 net.cpp:91] Creating Layer conv5
I0403 13:17:57.645792 27734 net.cpp:425] conv5 <- conv4
I0403 13:17:57.645813 27734 net.cpp:399] conv5 -> conv5
I0403 13:17:57.667039 27734 net.cpp:141] Setting up conv5
I0403 13:17:57.667096 27734 net.cpp:148] Top shape: 100 256 13 13 (4326400)
I0403 13:17:57.667114 27734 net.cpp:156] Memory required for data: 800703600
I0403 13:17:57.667143 27734 layer_factory.hpp:77] Creating layer relu5
I0403 13:17:57.667166 27734 net.cpp:91] Creating Layer relu5
I0403 13:17:57.667182 27734 net.cpp:425] relu5 <- conv5
I0403 13:17:57.667201 27734 net.cpp:386] relu5 -> conv5 (in-place)
I0403 13:17:57.667490 27734 net.cpp:141] Setting up relu5
I0403 13:17:57.667521 27734 net.cpp:148] Top shape: 100 256 13 13 (4326400)
I0403 13:17:57.667541 27734 net.cpp:156] Memory required for data: 818009200
I0403 13:17:57.667557 27734 layer_factory.hpp:77] Creating layer pool5
I0403 13:17:57.667579 27734 net.cpp:91] Creating Layer pool5
I0403 13:17:57.667596 27734 net.cpp:425] pool5 <- conv5
I0403 13:17:57.667619 27734 net.cpp:399] pool5 -> pool5
I0403 13:17:57.667682 27734 net.cpp:141] Setting up pool5
I0403 13:17:57.667707 27734 net.cpp:148] Top shape: 100 256 6 6 (921600)
I0403 13:17:57.667723 27734 net.cpp:156] Memory required for data: 821695600
I0403 13:17:57.667739 27734 layer_factory.hpp:77] Creating layer fc6
I0403 13:17:57.667770 27734 net.cpp:91] Creating Layer fc6
I0403 13:17:57.667789 27734 net.cpp:425] fc6 <- pool5
I0403 13:17:57.667811 27734 net.cpp:399] fc6 -> fc6
I0403 13:17:59.270756 27734 net.cpp:141] Setting up fc6
I0403 13:17:59.270834 27734 net.cpp:148] Top shape: 100 4096 (409600)
I0403 13:17:59.270853 27734 net.cpp:156] Memory required for data: 823334000
I0403 13:17:59.270877 27734 layer_factory.hpp:77] Creating layer relu6
I0403 13:17:59.270900 27734 net.cpp:91] Creating Layer relu6
I0403 13:17:59.270920 27734 net.cpp:425] relu6 <- fc6
I0403 13:17:59.270942 27734 net.cpp:386] relu6 -> fc6 (in-place)
I0403 13:17:59.271185 27734 net.cpp:141] Setting up relu6
I0403 13:17:59.271215 27734 net.cpp:148] Top shape: 100 4096 (409600)
I0403 13:17:59.271234 27734 net.cpp:156] Memory required for data: 824972400
I0403 13:17:59.271250 27734 layer_factory.hpp:77] Creating layer drop6
I0403 13:17:59.271271 27734 net.cpp:91] Creating Layer drop6
I0403 13:17:59.271294 27734 net.cpp:425] drop6 <- fc6
I0403 13:17:59.271314 27734 net.cpp:386] drop6 -> fc6 (in-place)
I0403 13:17:59.271371 27734 net.cpp:141] Setting up drop6
I0403 13:17:59.271397 27734 net.cpp:148] Top shape: 100 4096 (409600)
I0403 13:17:59.271414 27734 net.cpp:156] Memory required for data: 826610800
I0403 13:17:59.271430 27734 layer_factory.hpp:77] Creating layer fc7
I0403 13:17:59.271453 27734 net.cpp:91] Creating Layer fc7
I0403 13:17:59.271471 27734 net.cpp:425] fc7 <- fc6
I0403 13:17:59.271491 27734 net.cpp:399] fc7 -> fc7
I0403 13:17:59.963135 27734 net.cpp:141] Setting up fc7
I0403 13:17:59.963210 27734 net.cpp:148] Top shape: 100 4096 (409600)
I0403 13:17:59.963227 27734 net.cpp:156] Memory required for data: 828249200
I0403 13:17:59.963249 27734 layer_factory.hpp:77] Creating layer relu7
I0403 13:17:59.963274 27734 net.cpp:91] Creating Layer relu7
I0403 13:17:59.963306 27734 net.cpp:425] relu7 <- fc7
I0403 13:17:59.963330 27734 net.cpp:386] relu7 -> fc7 (in-place)
I0403 13:17:59.963738 27734 net.cpp:141] Setting up relu7
I0403 13:17:59.963767 27734 net.cpp:148] Top shape: 100 4096 (409600)
I0403 13:17:59.963815 27734 net.cpp:156] Memory required for data: 829887600
I0403 13:17:59.963832 27734 layer_factory.hpp:77] Creating layer drop7
I0403 13:17:59.963853 27734 net.cpp:91] Creating Layer drop7
I0403 13:17:59.963871 27734 net.cpp:425] drop7 <- fc7
I0403 13:17:59.963889 27734 net.cpp:386] drop7 -> fc7 (in-place)
I0403 13:17:59.963935 27734 net.cpp:141] Setting up drop7
I0403 13:17:59.963959 27734 net.cpp:148] Top shape: 100 4096 (409600)
I0403 13:17:59.963974 27734 net.cpp:156] Memory required for data: 831526000
I0403 13:17:59.963989 27734 layer_factory.hpp:77] Creating layer fc8_plantvillage
I0403 13:17:59.964009 27734 net.cpp:91] Creating Layer fc8_plantvillage
I0403 13:17:59.964025 27734 net.cpp:425] fc8_plantvillage <- fc7
I0403 13:17:59.964046 27734 net.cpp:399] fc8_plantvillage -> fc8_plantvillage
I0403 13:17:59.970762 27734 net.cpp:141] Setting up fc8_plantvillage
I0403 13:17:59.970793 27734 net.cpp:148] Top shape: 100 38 (3800)
I0403 13:17:59.970809 27734 net.cpp:156] Memory required for data: 831541200
I0403 13:17:59.970827 27734 layer_factory.hpp:77] Creating layer fc8_plantvillage_fc8_plantvillage_0_split
I0403 13:17:59.970847 27734 net.cpp:91] Creating Layer fc8_plantvillage_fc8_plantvillage_0_split
I0403 13:17:59.970863 27734 net.cpp:425] fc8_plantvillage_fc8_plantvillage_0_split <- fc8_plantvillage
I0403 13:17:59.970881 27734 net.cpp:399] fc8_plantvillage_fc8_plantvillage_0_split -> fc8_plantvillage_fc8_plantvillage_0_split_0
I0403 13:17:59.970902 27734 net.cpp:399] fc8_plantvillage_fc8_plantvillage_0_split -> fc8_plantvillage_fc8_plantvillage_0_split_1
I0403 13:17:59.970928 27734 net.cpp:399] fc8_plantvillage_fc8_plantvillage_0_split -> fc8_plantvillage_fc8_plantvillage_0_split_2
I0403 13:17:59.971009 27734 net.cpp:141] Setting up fc8_plantvillage_fc8_plantvillage_0_split
I0403 13:17:59.971032 27734 net.cpp:148] Top shape: 100 38 (3800)
I0403 13:17:59.971050 27734 net.cpp:148] Top shape: 100 38 (3800)
I0403 13:17:59.971066 27734 net.cpp:148] Top shape: 100 38 (3800)
I0403 13:17:59.971081 27734 net.cpp:156] Memory required for data: 831586800
I0403 13:17:59.971096 27734 layer_factory.hpp:77] Creating layer prob
I0403 13:17:59.971114 27734 net.cpp:91] Creating Layer prob
I0403 13:17:59.971130 27734 net.cpp:425] prob <- fc8_plantvillage_fc8_plantvillage_0_split_0
I0403 13:17:59.971148 27734 net.cpp:399] prob -> prob
I0403 13:17:59.971381 27734 net.cpp:141] Setting up prob
I0403 13:17:59.971408 27734 net.cpp:148] Top shape: 100 38 (3800)
I0403 13:17:59.971426 27734 net.cpp:156] Memory required for data: 831602000
I0403 13:17:59.971441 27734 layer_factory.hpp:77] Creating layer hdf5out
I0403 13:17:59.971463 27734 net.cpp:91] Creating Layer hdf5out
I0403 13:17:59.971482 27734 net.cpp:425] hdf5out <- prob
I0403 13:17:59.971499 27734 net.cpp:425] hdf5out <- label_data_1_split_0
I0403 13:17:59.989389 27734 net.cpp:141] Setting up hdf5out
…
