…
I0403 13:11:32.766024 27561 net.cpp:313] The NetState phase (1) differed from the phase (0) specified by a rule in layer data
I0403 13:11:32.766356 27561 net.cpp:49] Initializing net from parameters: 
state {
  phase: TEST
}
layer {
  name: "data"
  type: "Data"
  top: "data"
  top: "label"
  include {
    phase: TEST
  }
  transform_param {
    crop_size: 227
    mean_file: "/home/mohanty/data/final_dataset/lmdb/color-60-40/mean.binaryproto"
  }
  data_param {
    source: "/home/mohanty/data/final_dataset/lmdb/color-60-40/test_db"
    batch_size: 100
    backend: LMDB
  }
}
layer {
  name: "conv1"
  type: "Convolution"
  bottom: "data"
  top: "conv1"
  param {
    lr_mult: 1
    decay_mult: 1
  }
  param {
    lr_mult: 2
    decay_mult: 0
  }
  convolution_param {
    num_output: 96
    kernel_size: 11
    stride: 4
    weight_filler {
      type: "gaussian"
      std: 0.01
    }
    bias_filler {
      type: "constant"
      value: 0
    }
  }
}
layer {
  name: "relu1"
  type: "ReLU"
  bottom: "conv1"
  top: "conv1"
}
layer {
  name: "norm1"
  type: "LRN"
  bottom: "conv1"
  top: "norm1"
  lrn_param {
    local_size: 5
    alpha: 0.0001
    beta: 0.75
  }
}
layer {
  name: "pool1"
  type: "Pooling"
  bottom: "norm1"
  top: "pool1"
  pooling_param {
    pool: MAX
    kernel_size: 3
    stride: 2
  }
}
layer {
  name: "conv2"
  type: "Convolution"
  bottom: "pool1"
  top: "conv2"
  param {
    lr_mult: 1
    decay_mult: 1
  }
  param {
    lr_mult: 2
    decay_mult: 0
  }
  convolution_param {
    num_output: 256
    pad: 2
    kernel_size: 5
    group: 2
    weight_filler {
      type: "gaussian"
      std: 0.01
    }
    bias_filler {
      type: "constant"
      value: 0.1
    }
  }
}
layer {
  name: "relu2"
  type: "ReLU"
  bottom: "conv2"
  top: "conv2"
}
layer {
  name: "norm2"
  type: "LRN"
  bottom: "conv2"
  top: "norm2"
  lrn_param {
    local_size: 5
    alpha: 0.0001
    beta: 0.75
  }
}
layer {
  name: "pool2"
  type: "Pooling"
  bottom: "norm2"
  top: "pool2"
  pooling_param {
    pool: MAX
    kernel_size: 3
    stride: 2
  }
}
layer {
  name: "conv3"
  type: "Convolution"
  bottom: "pool2"
  top: "conv3"
  param {
    lr_mult: 1
    decay_mult: 1
  }
  param {
    lr_mult: 2
    decay_mult: 0
  }
  convolution_param {
    num_output: 384
    pad: 1
    kernel_size: 3
    weight_filler {
      type: "gaussian"
      std: 0.01
    }
    bias_filler {
      type: "constant"
      value: 0
    }
  }
}
layer {
  name: "relu3"
  type: "ReLU"
  bottom: "conv3"
  top: "conv3"
}
layer {
  name: "conv4"
  type: "Convolution"
  bottom: "conv3"
  top: "conv4"
  param {
    lr_mult: 1
    decay_mult: 1
  }
  param {
    lr_mult: 2
    decay_mult: 0
  }
  convolution_param {
    num_output: 384
    pad: 1
    kernel_size: 3
    group: 2
    weight_filler {
      type: "gaussian"
      std: 0.01
    }
    bias_filler {
      type: "constant"
      value: 0.1
    }
  }
}
layer {
  name: "relu4"
  type: "ReLU"
  bottom: "conv4"
  top: "conv4"
}
layer {
  name: "conv5"
  type: "Convolution"
  bottom: "conv4"
  top: "conv5"
  param {
    lr_mult: 1
    decay_mult: 1
  }
  param {
    lr_mult: 2
    decay_mult: 0
  }
  convolution_param {
    num_output: 256
    pad: 1
    kernel_size: 3
    group: 2
    weight_filler {
      type: "gaussian"
      std: 0.01
    }
    bias_filler {
      type: "constant"
      value: 0.1
    }
  }
}
layer {
  name: "relu5"
  type: "ReLU"
  bottom: "conv5"
  top: "conv5"
}
layer {
  name: "pool5"
  type: "Pooling"
  bottom: "conv5"
  top: "pool5"
  pooling_param {
    pool: MAX
    kernel_size: 3
    stride: 2
  }
}
layer {
  name: "fc6"
  type: "InnerProduct"
  bottom: "pool5"
  top: "fc6"
  param {
    lr_mult: 1
    decay_mult: 1
  }
  param {
    lr_mult: 2
    decay_mult: 0
  }
  inner_product_param {
    num_output: 4096
    weight_filler {
      type: "gaussian"
      std: 0.005
    }
    bias_filler {
      type: "constant"
      value: 0.1
    }
  }
}
layer {
  name: "relu6"
  type: "ReLU"
  bottom: "fc6"
  top: "fc6"
}
layer {
  name: "drop6"
  type: "Dropout"
  bottom: "fc6"
  top: "fc6"
  dropout_param {
    dropout_ratio: 0.5
  }
}
layer {
  name: "fc7"
  type: "InnerProduct"
  bottom: "fc6"
  top: "fc7"
  param {
    lr_mult: 1
    decay_mult: 1
  }
  param {
    lr_mult: 2
    decay_mult: 0
  }
  inner_product_param {
    num_output: 4096
    weight_filler {
      type: "gaussian"
      std: 0.005
    }
    bias_filler {
      type: "constant"
      value: 0.1
    }
  }
}
layer {
  name: "relu7"
  type: "ReLU"
  bottom: "fc7"
  top: "fc7"
}
layer {
  name: "drop7"
  type: "Dropout"
  bottom: "fc7"
  top: "fc7"
  dropout_param {
    dropout_ratio: 0.5
  }
}
layer {
  name: "fc8_plantvillage"
  type: "InnerProduct"
  bottom: "fc7"
  top: "fc8_plantvillage"
  param {
    lr_mult: 1
    decay_mult: 1
  }
  param {
    lr_mult: 2
    decay_mult: 0
  }
  inner_product_param {
    num_output: 38
    weight_filler {
      type: "gaussian"
      std: 0.01
    }
    bias_filler {
      type: "constant"
      value: 0
    }
  }
}
layer {
  name: "prob"
  type: "Softmax"
  bottom: "fc8_plantvillage"
  top: "prob"
  include {
    phase: TEST
  }
}
layer {
  name: "hdf5out"
  type: "HDF5Output"
  bottom: "prob"
  bottom: "label"
  include {
    phase: TEST
  }
  hdf5_output_param {
    file_name: "hdf5_dumps/iter_3250.h5"
  }
}
layer {
  name: "loss"
  type: "SoftmaxWithLoss"
  bottom: "fc8_plantvillage"
  bottom: "label"
  top: "loss"
}
layer {
  name: "accuracy"
  type: "Accuracy"
  bottom: "fc8_plantvillage"
  bottom: "label"
  top: "accuracy"
  include {
    phase: TEST
  }
}
I0403 13:11:32.766944 27561 layer_factory.hpp:77] Creating layer data
I0403 13:11:32.767608 27561 net.cpp:91] Creating Layer data
I0403 13:11:32.767642 27561 net.cpp:399] data -> data
I0403 13:11:32.767696 27561 net.cpp:399] data -> label
I0403 13:11:32.767735 27561 data_transformer.cpp:25] Loading mean file from: /home/mohanty/data/final_dataset/lmdb/color-60-40/mean.binaryproto
I0403 13:11:32.770442 27564 db_lmdb.cpp:38] Opened lmdb /home/mohanty/data/final_dataset/lmdb/color-60-40/test_db
I0403 13:11:32.782440 27561 data_layer.cpp:41] output data size: 100,3,227,227
I0403 13:11:32.916620 27561 net.cpp:141] Setting up data
I0403 13:11:32.916689 27561 net.cpp:148] Top shape: 100 3 227 227 (15458700)
I0403 13:11:32.916712 27561 net.cpp:148] Top shape: 100 (100)
I0403 13:11:32.916728 27561 net.cpp:156] Memory required for data: 61835200
I0403 13:11:32.916756 27561 layer_factory.hpp:77] Creating layer label_data_1_split
I0403 13:11:32.916782 27561 net.cpp:91] Creating Layer label_data_1_split
I0403 13:11:32.916800 27561 net.cpp:425] label_data_1_split <- label
I0403 13:11:32.916833 27561 net.cpp:399] label_data_1_split -> label_data_1_split_0
I0403 13:11:32.916860 27561 net.cpp:399] label_data_1_split -> label_data_1_split_1
I0403 13:11:32.916880 27561 net.cpp:399] label_data_1_split -> label_data_1_split_2
I0403 13:11:32.916955 27561 net.cpp:141] Setting up label_data_1_split
I0403 13:11:32.916982 27561 net.cpp:148] Top shape: 100 (100)
I0403 13:11:32.916999 27561 net.cpp:148] Top shape: 100 (100)
I0403 13:11:32.917017 27561 net.cpp:148] Top shape: 100 (100)
I0403 13:11:32.917032 27561 net.cpp:156] Memory required for data: 61836400
I0403 13:11:32.917047 27561 layer_factory.hpp:77] Creating layer conv1
I0403 13:11:32.917079 27561 net.cpp:91] Creating Layer conv1
I0403 13:11:32.917099 27561 net.cpp:425] conv1 <- data
I0403 13:11:32.917119 27561 net.cpp:399] conv1 -> conv1
I0403 13:11:33.064637 27561 net.cpp:141] Setting up conv1
I0403 13:11:33.064714 27561 net.cpp:148] Top shape: 100 96 55 55 (29040000)
I0403 13:11:33.064733 27561 net.cpp:156] Memory required for data: 177996400
I0403 13:11:33.064766 27561 layer_factory.hpp:77] Creating layer relu1
I0403 13:11:33.064796 27561 net.cpp:91] Creating Layer relu1
I0403 13:11:33.064817 27561 net.cpp:425] relu1 <- conv1
I0403 13:11:33.064837 27561 net.cpp:386] relu1 -> conv1 (in-place)
I0403 13:11:33.065093 27561 net.cpp:141] Setting up relu1
I0403 13:11:33.065122 27561 net.cpp:148] Top shape: 100 96 55 55 (29040000)
I0403 13:11:33.065140 27561 net.cpp:156] Memory required for data: 294156400
I0403 13:11:33.065187 27561 layer_factory.hpp:77] Creating layer norm1
I0403 13:11:33.065218 27561 net.cpp:91] Creating Layer norm1
I0403 13:11:33.065237 27561 net.cpp:425] norm1 <- conv1
I0403 13:11:33.065256 27561 net.cpp:399] norm1 -> norm1
I0403 13:11:33.065564 27561 net.cpp:141] Setting up norm1
I0403 13:11:33.065594 27561 net.cpp:148] Top shape: 100 96 55 55 (29040000)
I0403 13:11:33.065610 27561 net.cpp:156] Memory required for data: 410316400
I0403 13:11:33.065626 27561 layer_factory.hpp:77] Creating layer pool1
I0403 13:11:33.065650 27561 net.cpp:91] Creating Layer pool1
I0403 13:11:33.065668 27561 net.cpp:425] pool1 <- norm1
I0403 13:11:33.065686 27561 net.cpp:399] pool1 -> pool1
I0403 13:11:33.065754 27561 net.cpp:141] Setting up pool1
I0403 13:11:33.065780 27561 net.cpp:148] Top shape: 100 96 27 27 (6998400)
I0403 13:11:33.065796 27561 net.cpp:156] Memory required for data: 438310000
I0403 13:11:33.065812 27561 layer_factory.hpp:77] Creating layer conv2
I0403 13:11:33.065837 27561 net.cpp:91] Creating Layer conv2
I0403 13:11:33.065855 27561 net.cpp:425] conv2 <- pool1
I0403 13:11:33.065874 27561 net.cpp:399] conv2 -> conv2
I0403 13:11:33.080739 27561 net.cpp:141] Setting up conv2
I0403 13:11:33.080787 27561 net.cpp:148] Top shape: 100 256 27 27 (18662400)
I0403 13:11:33.080806 27561 net.cpp:156] Memory required for data: 512959600
I0403 13:11:33.080829 27561 layer_factory.hpp:77] Creating layer relu2
I0403 13:11:33.080850 27561 net.cpp:91] Creating Layer relu2
I0403 13:11:33.080868 27561 net.cpp:425] relu2 <- conv2
I0403 13:11:33.080888 27561 net.cpp:386] relu2 -> conv2 (in-place)
I0403 13:11:33.081161 27561 net.cpp:141] Setting up relu2
I0403 13:11:33.081188 27561 net.cpp:148] Top shape: 100 256 27 27 (18662400)
I0403 13:11:33.081205 27561 net.cpp:156] Memory required for data: 587609200
I0403 13:11:33.081220 27561 layer_factory.hpp:77] Creating layer norm2
I0403 13:11:33.081243 27561 net.cpp:91] Creating Layer norm2
I0403 13:11:33.081259 27561 net.cpp:425] norm2 <- conv2
I0403 13:11:33.081279 27561 net.cpp:399] norm2 -> norm2
I0403 13:11:33.081480 27561 net.cpp:141] Setting up norm2
I0403 13:11:33.081507 27561 net.cpp:148] Top shape: 100 256 27 27 (18662400)
I0403 13:11:33.081523 27561 net.cpp:156] Memory required for data: 662258800
I0403 13:11:33.081538 27561 layer_factory.hpp:77] Creating layer pool2
I0403 13:11:33.081559 27561 net.cpp:91] Creating Layer pool2
I0403 13:11:33.081578 27561 net.cpp:425] pool2 <- norm2
I0403 13:11:33.081596 27561 net.cpp:399] pool2 -> pool2
I0403 13:11:33.081653 27561 net.cpp:141] Setting up pool2
I0403 13:11:33.081677 27561 net.cpp:148] Top shape: 100 256 13 13 (4326400)
I0403 13:11:33.081693 27561 net.cpp:156] Memory required for data: 679564400
I0403 13:11:33.081708 27561 layer_factory.hpp:77] Creating layer conv3
I0403 13:11:33.081733 27561 net.cpp:91] Creating Layer conv3
I0403 13:11:33.081753 27561 net.cpp:425] conv3 <- pool2
I0403 13:11:33.081773 27561 net.cpp:399] conv3 -> conv3
I0403 13:11:33.119941 27561 net.cpp:141] Setting up conv3
I0403 13:11:33.119995 27561 net.cpp:148] Top shape: 100 384 13 13 (6489600)
I0403 13:11:33.120012 27561 net.cpp:156] Memory required for data: 705522800
I0403 13:11:33.120039 27561 layer_factory.hpp:77] Creating layer relu3
I0403 13:11:33.120064 27561 net.cpp:91] Creating Layer relu3
I0403 13:11:33.120085 27561 net.cpp:425] relu3 <- conv3
I0403 13:11:33.120105 27561 net.cpp:386] relu3 -> conv3 (in-place)
I0403 13:11:33.120390 27561 net.cpp:141] Setting up relu3
I0403 13:11:33.120417 27561 net.cpp:148] Top shape: 100 384 13 13 (6489600)
I0403 13:11:33.120434 27561 net.cpp:156] Memory required for data: 731481200
I0403 13:11:33.120450 27561 layer_factory.hpp:77] Creating layer conv4
I0403 13:11:33.120478 27561 net.cpp:91] Creating Layer conv4
I0403 13:11:33.120496 27561 net.cpp:425] conv4 <- conv3
I0403 13:11:33.120519 27561 net.cpp:399] conv4 -> conv4
I0403 13:11:33.150166 27561 net.cpp:141] Setting up conv4
I0403 13:11:33.150229 27561 net.cpp:148] Top shape: 100 384 13 13 (6489600)
I0403 13:11:33.150279 27561 net.cpp:156] Memory required for data: 757439600
I0403 13:11:33.150308 27561 layer_factory.hpp:77] Creating layer relu4
I0403 13:11:33.150331 27561 net.cpp:91] Creating Layer relu4
I0403 13:11:33.150349 27561 net.cpp:425] relu4 <- conv4
I0403 13:11:33.150373 27561 net.cpp:386] relu4 -> conv4 (in-place)
I0403 13:11:33.150676 27561 net.cpp:141] Setting up relu4
I0403 13:11:33.150706 27561 net.cpp:148] Top shape: 100 384 13 13 (6489600)
I0403 13:11:33.150722 27561 net.cpp:156] Memory required for data: 783398000
I0403 13:11:33.150738 27561 layer_factory.hpp:77] Creating layer conv5
I0403 13:11:33.150763 27561 net.cpp:91] Creating Layer conv5
I0403 13:11:33.150782 27561 net.cpp:425] conv5 <- conv4
I0403 13:11:33.150804 27561 net.cpp:399] conv5 -> conv5
I0403 13:11:33.171254 27561 net.cpp:141] Setting up conv5
I0403 13:11:33.171306 27561 net.cpp:148] Top shape: 100 256 13 13 (4326400)
I0403 13:11:33.171324 27561 net.cpp:156] Memory required for data: 800703600
I0403 13:11:33.171351 27561 layer_factory.hpp:77] Creating layer relu5
I0403 13:11:33.171375 27561 net.cpp:91] Creating Layer relu5
I0403 13:11:33.171393 27561 net.cpp:425] relu5 <- conv5
I0403 13:11:33.171412 27561 net.cpp:386] relu5 -> conv5 (in-place)
I0403 13:11:33.171692 27561 net.cpp:141] Setting up relu5
I0403 13:11:33.171720 27561 net.cpp:148] Top shape: 100 256 13 13 (4326400)
I0403 13:11:33.171737 27561 net.cpp:156] Memory required for data: 818009200
I0403 13:11:33.171753 27561 layer_factory.hpp:77] Creating layer pool5
I0403 13:11:33.171778 27561 net.cpp:91] Creating Layer pool5
I0403 13:11:33.171797 27561 net.cpp:425] pool5 <- conv5
I0403 13:11:33.171816 27561 net.cpp:399] pool5 -> pool5
I0403 13:11:33.171882 27561 net.cpp:141] Setting up pool5
I0403 13:11:33.171907 27561 net.cpp:148] Top shape: 100 256 6 6 (921600)
I0403 13:11:33.171923 27561 net.cpp:156] Memory required for data: 821695600
I0403 13:11:33.171938 27561 layer_factory.hpp:77] Creating layer fc6
I0403 13:11:33.171968 27561 net.cpp:91] Creating Layer fc6
I0403 13:11:33.171988 27561 net.cpp:425] fc6 <- pool5
I0403 13:11:33.172006 27561 net.cpp:399] fc6 -> fc6
I0403 13:11:34.727735 27561 net.cpp:141] Setting up fc6
I0403 13:11:34.727777 27561 net.cpp:148] Top shape: 100 4096 (409600)
I0403 13:11:34.727795 27561 net.cpp:156] Memory required for data: 823334000
I0403 13:11:34.727818 27561 layer_factory.hpp:77] Creating layer relu6
I0403 13:11:34.727841 27561 net.cpp:91] Creating Layer relu6
I0403 13:11:34.727859 27561 net.cpp:425] relu6 <- fc6
I0403 13:11:34.727881 27561 net.cpp:386] relu6 -> fc6 (in-place)
I0403 13:11:34.728096 27561 net.cpp:141] Setting up relu6
I0403 13:11:34.728122 27561 net.cpp:148] Top shape: 100 4096 (409600)
I0403 13:11:34.728137 27561 net.cpp:156] Memory required for data: 824972400
I0403 13:11:34.728152 27561 layer_factory.hpp:77] Creating layer drop6
I0403 13:11:34.728173 27561 net.cpp:91] Creating Layer drop6
I0403 13:11:34.728189 27561 net.cpp:425] drop6 <- fc6
I0403 13:11:34.728209 27561 net.cpp:386] drop6 -> fc6 (in-place)
I0403 13:11:34.728258 27561 net.cpp:141] Setting up drop6
I0403 13:11:34.728291 27561 net.cpp:148] Top shape: 100 4096 (409600)
I0403 13:11:34.728323 27561 net.cpp:156] Memory required for data: 826610800
I0403 13:11:34.728339 27561 layer_factory.hpp:77] Creating layer fc7
I0403 13:11:34.728360 27561 net.cpp:91] Creating Layer fc7
I0403 13:11:34.728377 27561 net.cpp:425] fc7 <- fc6
I0403 13:11:34.728399 27561 net.cpp:399] fc7 -> fc7
I0403 13:11:35.435827 27561 net.cpp:141] Setting up fc7
I0403 13:11:35.435904 27561 net.cpp:148] Top shape: 100 4096 (409600)
I0403 13:11:35.435920 27561 net.cpp:156] Memory required for data: 828249200
I0403 13:11:35.435943 27561 layer_factory.hpp:77] Creating layer relu7
I0403 13:11:35.435966 27561 net.cpp:91] Creating Layer relu7
I0403 13:11:35.435983 27561 net.cpp:425] relu7 <- fc7
I0403 13:11:35.436004 27561 net.cpp:386] relu7 -> fc7 (in-place)
I0403 13:11:35.436408 27561 net.cpp:141] Setting up relu7
I0403 13:11:35.436436 27561 net.cpp:148] Top shape: 100 4096 (409600)
I0403 13:11:35.436485 27561 net.cpp:156] Memory required for data: 829887600
I0403 13:11:35.436502 27561 layer_factory.hpp:77] Creating layer drop7
I0403 13:11:35.436522 27561 net.cpp:91] Creating Layer drop7
I0403 13:11:35.436537 27561 net.cpp:425] drop7 <- fc7
I0403 13:11:35.436556 27561 net.cpp:386] drop7 -> fc7 (in-place)
I0403 13:11:35.436604 27561 net.cpp:141] Setting up drop7
I0403 13:11:35.436627 27561 net.cpp:148] Top shape: 100 4096 (409600)
I0403 13:11:35.436642 27561 net.cpp:156] Memory required for data: 831526000
I0403 13:11:35.436657 27561 layer_factory.hpp:77] Creating layer fc8_plantvillage
I0403 13:11:35.436677 27561 net.cpp:91] Creating Layer fc8_plantvillage
I0403 13:11:35.436693 27561 net.cpp:425] fc8_plantvillage <- fc7
I0403 13:11:35.436714 27561 net.cpp:399] fc8_plantvillage -> fc8_plantvillage
I0403 13:11:35.443434 27561 net.cpp:141] Setting up fc8_plantvillage
I0403 13:11:35.443464 27561 net.cpp:148] Top shape: 100 38 (3800)
I0403 13:11:35.443478 27561 net.cpp:156] Memory required for data: 831541200
I0403 13:11:35.443497 27561 layer_factory.hpp:77] Creating layer fc8_plantvillage_fc8_plantvillage_0_split
I0403 13:11:35.443519 27561 net.cpp:91] Creating Layer fc8_plantvillage_fc8_plantvillage_0_split
I0403 13:11:35.443536 27561 net.cpp:425] fc8_plantvillage_fc8_plantvillage_0_split <- fc8_plantvillage
I0403 13:11:35.443553 27561 net.cpp:399] fc8_plantvillage_fc8_plantvillage_0_split -> fc8_plantvillage_fc8_plantvillage_0_split_0
I0403 13:11:35.443573 27561 net.cpp:399] fc8_plantvillage_fc8_plantvillage_0_split -> fc8_plantvillage_fc8_plantvillage_0_split_1
I0403 13:11:35.443595 27561 net.cpp:399] fc8_plantvillage_fc8_plantvillage_0_split -> fc8_plantvillage_fc8_plantvillage_0_split_2
I0403 13:11:35.443675 27561 net.cpp:141] Setting up fc8_plantvillage_fc8_plantvillage_0_split
I0403 13:11:35.443701 27561 net.cpp:148] Top shape: 100 38 (3800)
I0403 13:11:35.443717 27561 net.cpp:148] Top shape: 100 38 (3800)
I0403 13:11:35.443733 27561 net.cpp:148] Top shape: 100 38 (3800)
I0403 13:11:35.443748 27561 net.cpp:156] Memory required for data: 831586800
I0403 13:11:35.443763 27561 layer_factory.hpp:77] Creating layer prob
I0403 13:11:35.443783 27561 net.cpp:91] Creating Layer prob
I0403 13:11:35.443797 27561 net.cpp:425] prob <- fc8_plantvillage_fc8_plantvillage_0_split_0
I0403 13:11:35.443815 27561 net.cpp:399] prob -> prob
I0403 13:11:35.444044 27561 net.cpp:141] Setting up prob
I0403 13:11:35.444072 27561 net.cpp:148] Top shape: 100 38 (3800)
I0403 13:11:35.444087 27561 net.cpp:156] Memory required for data: 831602000
I0403 13:11:35.444104 27561 layer_factory.hpp:77] Creating layer hdf5out
I0403 13:11:35.444124 27561 net.cpp:91] Creating Layer hdf5out
I0403 13:11:35.444139 27561 net.cpp:425] hdf5out <- prob
I0403 13:11:35.444155 27561 net.cpp:425] hdf5out <- label_data_1_split_0
I0403 13:11:35.448320 27561 net.cpp:141] Setting up hdf5out
…
