…
I0403 13:23:27.659118 27997 net.cpp:313] The NetState phase (1) differed from the phase (0) specified by a rule in layer data
I0403 13:23:27.659430 27997 net.cpp:49] Initializing net from parameters: 
state {
  phase: TEST
}
layer {
  name: "data"
  type: "Data"
  top: "data"
  top: "label"
  include {
    phase: TEST
  }
  transform_param {
    crop_size: 227
    mean_file: "/home/mohanty/data/final_dataset/lmdb/color-60-40/mean.binaryproto"
  }
  data_param {
    source: "/home/mohanty/data/final_dataset/lmdb/color-60-40/test_db"
    batch_size: 100
    backend: LMDB
  }
}
layer {
  name: "conv1"
  type: "Convolution"
  bottom: "data"
  top: "conv1"
  param {
    lr_mult: 1
    decay_mult: 1
  }
  param {
    lr_mult: 2
    decay_mult: 0
  }
  convolution_param {
    num_output: 96
    kernel_size: 11
    stride: 4
    weight_filler {
      type: "gaussian"
      std: 0.01
    }
    bias_filler {
      type: "constant"
      value: 0
    }
  }
}
layer {
  name: "relu1"
  type: "ReLU"
  bottom: "conv1"
  top: "conv1"
}
layer {
  name: "norm1"
  type: "LRN"
  bottom: "conv1"
  top: "norm1"
  lrn_param {
    local_size: 5
    alpha: 0.0001
    beta: 0.75
  }
}
layer {
  name: "pool1"
  type: "Pooling"
  bottom: "norm1"
  top: "pool1"
  pooling_param {
    pool: MAX
    kernel_size: 3
    stride: 2
  }
}
layer {
  name: "conv2"
  type: "Convolution"
  bottom: "pool1"
  top: "conv2"
  param {
    lr_mult: 1
    decay_mult: 1
  }
  param {
    lr_mult: 2
    decay_mult: 0
  }
  convolution_param {
    num_output: 256
    pad: 2
    kernel_size: 5
    group: 2
    weight_filler {
      type: "gaussian"
      std: 0.01
    }
    bias_filler {
      type: "constant"
      value: 0.1
    }
  }
}
layer {
  name: "relu2"
  type: "ReLU"
  bottom: "conv2"
  top: "conv2"
}
layer {
  name: "norm2"
  type: "LRN"
  bottom: "conv2"
  top: "norm2"
  lrn_param {
    local_size: 5
    alpha: 0.0001
    beta: 0.75
  }
}
layer {
  name: "pool2"
  type: "Pooling"
  bottom: "norm2"
  top: "pool2"
  pooling_param {
    pool: MAX
    kernel_size: 3
    stride: 2
  }
}
layer {
  name: "conv3"
  type: "Convolution"
  bottom: "pool2"
  top: "conv3"
  param {
    lr_mult: 1
    decay_mult: 1
  }
  param {
    lr_mult: 2
    decay_mult: 0
  }
  convolution_param {
    num_output: 384
    pad: 1
    kernel_size: 3
    weight_filler {
      type: "gaussian"
      std: 0.01
    }
    bias_filler {
      type: "constant"
      value: 0
    }
  }
}
layer {
  name: "relu3"
  type: "ReLU"
  bottom: "conv3"
  top: "conv3"
}
layer {
  name: "conv4"
  type: "Convolution"
  bottom: "conv3"
  top: "conv4"
  param {
    lr_mult: 1
    decay_mult: 1
  }
  param {
    lr_mult: 2
    decay_mult: 0
  }
  convolution_param {
    num_output: 384
    pad: 1
    kernel_size: 3
    group: 2
    weight_filler {
      type: "gaussian"
      std: 0.01
    }
    bias_filler {
      type: "constant"
      value: 0.1
    }
  }
}
layer {
  name: "relu4"
  type: "ReLU"
  bottom: "conv4"
  top: "conv4"
}
layer {
  name: "conv5"
  type: "Convolution"
  bottom: "conv4"
  top: "conv5"
  param {
    lr_mult: 1
    decay_mult: 1
  }
  param {
    lr_mult: 2
    decay_mult: 0
  }
  convolution_param {
    num_output: 256
    pad: 1
    kernel_size: 3
    group: 2
    weight_filler {
      type: "gaussian"
      std: 0.01
    }
    bias_filler {
      type: "constant"
      value: 0.1
    }
  }
}
layer {
  name: "relu5"
  type: "ReLU"
  bottom: "conv5"
  top: "conv5"
}
layer {
  name: "pool5"
  type: "Pooling"
  bottom: "conv5"
  top: "pool5"
  pooling_param {
    pool: MAX
    kernel_size: 3
    stride: 2
  }
}
layer {
  name: "fc6"
  type: "InnerProduct"
  bottom: "pool5"
  top: "fc6"
  param {
    lr_mult: 1
    decay_mult: 1
  }
  param {
    lr_mult: 2
    decay_mult: 0
  }
  inner_product_param {
    num_output: 4096
    weight_filler {
      type: "gaussian"
      std: 0.005
    }
    bias_filler {
      type: "constant"
      value: 0.1
    }
  }
}
layer {
  name: "relu6"
  type: "ReLU"
  bottom: "fc6"
  top: "fc6"
}
layer {
  name: "drop6"
  type: "Dropout"
  bottom: "fc6"
  top: "fc6"
  dropout_param {
    dropout_ratio: 0.5
  }
}
layer {
  name: "fc7"
  type: "InnerProduct"
  bottom: "fc6"
  top: "fc7"
  param {
    lr_mult: 1
    decay_mult: 1
  }
  param {
    lr_mult: 2
    decay_mult: 0
  }
  inner_product_param {
    num_output: 4096
    weight_filler {
      type: "gaussian"
      std: 0.005
    }
    bias_filler {
      type: "constant"
      value: 0.1
    }
  }
}
layer {
  name: "relu7"
  type: "ReLU"
  bottom: "fc7"
  top: "fc7"
}
layer {
  name: "drop7"
  type: "Dropout"
  bottom: "fc7"
  top: "fc7"
  dropout_param {
    dropout_ratio: 0.5
  }
}
layer {
  name: "fc8_plantvillage"
  type: "InnerProduct"
  bottom: "fc7"
  top: "fc8_plantvillage"
  param {
    lr_mult: 1
    decay_mult: 1
  }
  param {
    lr_mult: 2
    decay_mult: 0
  }
  inner_product_param {
    num_output: 38
    weight_filler {
      type: "gaussian"
      std: 0.01
    }
    bias_filler {
      type: "constant"
      value: 0
    }
  }
}
layer {
  name: "prob"
  type: "Softmax"
  bottom: "fc8_plantvillage"
  top: "prob"
  include {
    phase: TEST
  }
}
layer {
  name: "hdf5out"
  type: "HDF5Output"
  bottom: "prob"
  bottom: "label"
  include {
    phase: TEST
  }
  hdf5_output_param {
    file_name: "hdf5_dumps/iter_8125.h5"
  }
}
layer {
  name: "loss"
  type: "SoftmaxWithLoss"
  bottom: "fc8_plantvillage"
  bottom: "label"
  top: "loss"
}
layer {
  name: "accuracy"
  type: "Accuracy"
  bottom: "fc8_plantvillage"
  bottom: "label"
  top: "accuracy"
  include {
    phase: TEST
  }
}
I0403 13:23:27.660050 27997 layer_factory.hpp:77] Creating layer data
I0403 13:23:27.660720 27997 net.cpp:91] Creating Layer data
I0403 13:23:27.660754 27997 net.cpp:399] data -> data
I0403 13:23:27.660805 27997 net.cpp:399] data -> label
I0403 13:23:27.660842 27997 data_transformer.cpp:25] Loading mean file from: /home/mohanty/data/final_dataset/lmdb/color-60-40/mean.binaryproto
I0403 13:23:27.663630 28001 db_lmdb.cpp:38] Opened lmdb /home/mohanty/data/final_dataset/lmdb/color-60-40/test_db
I0403 13:23:27.675662 27997 data_layer.cpp:41] output data size: 100,3,227,227
I0403 13:23:27.811229 27997 net.cpp:141] Setting up data
I0403 13:23:27.811342 27997 net.cpp:148] Top shape: 100 3 227 227 (15458700)
I0403 13:23:27.811365 27997 net.cpp:148] Top shape: 100 (100)
I0403 13:23:27.811381 27997 net.cpp:156] Memory required for data: 61835200
I0403 13:23:27.811410 27997 layer_factory.hpp:77] Creating layer label_data_1_split
I0403 13:23:27.811437 27997 net.cpp:91] Creating Layer label_data_1_split
I0403 13:23:27.811457 27997 net.cpp:425] label_data_1_split <- label
I0403 13:23:27.811492 27997 net.cpp:399] label_data_1_split -> label_data_1_split_0
I0403 13:23:27.811520 27997 net.cpp:399] label_data_1_split -> label_data_1_split_1
I0403 13:23:27.811542 27997 net.cpp:399] label_data_1_split -> label_data_1_split_2
I0403 13:23:27.811617 27997 net.cpp:141] Setting up label_data_1_split
I0403 13:23:27.811641 27997 net.cpp:148] Top shape: 100 (100)
I0403 13:23:27.811660 27997 net.cpp:148] Top shape: 100 (100)
I0403 13:23:27.811676 27997 net.cpp:148] Top shape: 100 (100)
I0403 13:23:27.811691 27997 net.cpp:156] Memory required for data: 61836400
I0403 13:23:27.811707 27997 layer_factory.hpp:77] Creating layer conv1
I0403 13:23:27.811741 27997 net.cpp:91] Creating Layer conv1
I0403 13:23:27.811761 27997 net.cpp:425] conv1 <- data
I0403 13:23:27.811782 27997 net.cpp:399] conv1 -> conv1
I0403 13:23:27.963793 27997 net.cpp:141] Setting up conv1
I0403 13:23:27.963874 27997 net.cpp:148] Top shape: 100 96 55 55 (29040000)
I0403 13:23:27.963893 27997 net.cpp:156] Memory required for data: 177996400
I0403 13:23:27.963927 27997 layer_factory.hpp:77] Creating layer relu1
I0403 13:23:27.963958 27997 net.cpp:91] Creating Layer relu1
I0403 13:23:27.963976 27997 net.cpp:425] relu1 <- conv1
I0403 13:23:27.964000 27997 net.cpp:386] relu1 -> conv1 (in-place)
I0403 13:23:27.964364 27997 net.cpp:141] Setting up relu1
I0403 13:23:27.964393 27997 net.cpp:148] Top shape: 100 96 55 55 (29040000)
I0403 13:23:27.964412 27997 net.cpp:156] Memory required for data: 294156400
I0403 13:23:27.964462 27997 layer_factory.hpp:77] Creating layer norm1
I0403 13:23:27.964494 27997 net.cpp:91] Creating Layer norm1
I0403 13:23:27.964515 27997 net.cpp:425] norm1 <- conv1
I0403 13:23:27.964540 27997 net.cpp:399] norm1 -> norm1
I0403 13:23:27.964882 27997 net.cpp:141] Setting up norm1
I0403 13:23:27.964913 27997 net.cpp:148] Top shape: 100 96 55 55 (29040000)
I0403 13:23:27.964932 27997 net.cpp:156] Memory required for data: 410316400
I0403 13:23:27.964949 27997 layer_factory.hpp:77] Creating layer pool1
I0403 13:23:27.964972 27997 net.cpp:91] Creating Layer pool1
I0403 13:23:27.964992 27997 net.cpp:425] pool1 <- norm1
I0403 13:23:27.965013 27997 net.cpp:399] pool1 -> pool1
I0403 13:23:27.965087 27997 net.cpp:141] Setting up pool1
I0403 13:23:27.965114 27997 net.cpp:148] Top shape: 100 96 27 27 (6998400)
I0403 13:23:27.965131 27997 net.cpp:156] Memory required for data: 438310000
I0403 13:23:27.965147 27997 layer_factory.hpp:77] Creating layer conv2
I0403 13:23:27.965175 27997 net.cpp:91] Creating Layer conv2
I0403 13:23:27.965193 27997 net.cpp:425] conv2 <- pool1
I0403 13:23:27.965215 27997 net.cpp:399] conv2 -> conv2
I0403 13:23:27.981006 27997 net.cpp:141] Setting up conv2
I0403 13:23:27.981055 27997 net.cpp:148] Top shape: 100 256 27 27 (18662400)
I0403 13:23:27.981075 27997 net.cpp:156] Memory required for data: 512959600
I0403 13:23:27.981099 27997 layer_factory.hpp:77] Creating layer relu2
I0403 13:23:27.981122 27997 net.cpp:91] Creating Layer relu2
I0403 13:23:27.981139 27997 net.cpp:425] relu2 <- conv2
I0403 13:23:27.981159 27997 net.cpp:386] relu2 -> conv2 (in-place)
I0403 13:23:27.981462 27997 net.cpp:141] Setting up relu2
I0403 13:23:27.981490 27997 net.cpp:148] Top shape: 100 256 27 27 (18662400)
I0403 13:23:27.981508 27997 net.cpp:156] Memory required for data: 587609200
I0403 13:23:27.981525 27997 layer_factory.hpp:77] Creating layer norm2
I0403 13:23:27.981550 27997 net.cpp:91] Creating Layer norm2
I0403 13:23:27.981570 27997 net.cpp:425] norm2 <- conv2
I0403 13:23:27.981590 27997 net.cpp:399] norm2 -> norm2
I0403 13:23:27.981796 27997 net.cpp:141] Setting up norm2
I0403 13:23:27.981825 27997 net.cpp:148] Top shape: 100 256 27 27 (18662400)
I0403 13:23:27.981842 27997 net.cpp:156] Memory required for data: 662258800
I0403 13:23:27.981858 27997 layer_factory.hpp:77] Creating layer pool2
I0403 13:23:27.981878 27997 net.cpp:91] Creating Layer pool2
I0403 13:23:27.981896 27997 net.cpp:425] pool2 <- norm2
I0403 13:23:27.981915 27997 net.cpp:399] pool2 -> pool2
I0403 13:23:27.981972 27997 net.cpp:141] Setting up pool2
I0403 13:23:27.981997 27997 net.cpp:148] Top shape: 100 256 13 13 (4326400)
I0403 13:23:27.982012 27997 net.cpp:156] Memory required for data: 679564400
I0403 13:23:27.982028 27997 layer_factory.hpp:77] Creating layer conv3
I0403 13:23:27.982123 27997 net.cpp:91] Creating Layer conv3
I0403 13:23:27.982148 27997 net.cpp:425] conv3 <- pool2
I0403 13:23:27.982172 27997 net.cpp:399] conv3 -> conv3
I0403 13:23:28.030333 27997 net.cpp:141] Setting up conv3
I0403 13:23:28.030378 27997 net.cpp:148] Top shape: 100 384 13 13 (6489600)
I0403 13:23:28.030395 27997 net.cpp:156] Memory required for data: 705522800
I0403 13:23:28.030421 27997 layer_factory.hpp:77] Creating layer relu3
I0403 13:23:28.030447 27997 net.cpp:91] Creating Layer relu3
I0403 13:23:28.030467 27997 net.cpp:425] relu3 <- conv3
I0403 13:23:28.030486 27997 net.cpp:386] relu3 -> conv3 (in-place)
I0403 13:23:28.030768 27997 net.cpp:141] Setting up relu3
I0403 13:23:28.030798 27997 net.cpp:148] Top shape: 100 384 13 13 (6489600)
I0403 13:23:28.030815 27997 net.cpp:156] Memory required for data: 731481200
I0403 13:23:28.030832 27997 layer_factory.hpp:77] Creating layer conv4
I0403 13:23:28.030860 27997 net.cpp:91] Creating Layer conv4
I0403 13:23:28.030879 27997 net.cpp:425] conv4 <- conv3
I0403 13:23:28.030899 27997 net.cpp:399] conv4 -> conv4
I0403 13:23:28.061206 27997 net.cpp:141] Setting up conv4
I0403 13:23:28.061276 27997 net.cpp:148] Top shape: 100 384 13 13 (6489600)
I0403 13:23:28.061329 27997 net.cpp:156] Memory required for data: 757439600
I0403 13:23:28.061352 27997 layer_factory.hpp:77] Creating layer relu4
I0403 13:23:28.061378 27997 net.cpp:91] Creating Layer relu4
I0403 13:23:28.061396 27997 net.cpp:425] relu4 <- conv4
I0403 13:23:28.061416 27997 net.cpp:386] relu4 -> conv4 (in-place)
I0403 13:23:28.061743 27997 net.cpp:141] Setting up relu4
I0403 13:23:28.061771 27997 net.cpp:148] Top shape: 100 384 13 13 (6489600)
I0403 13:23:28.061786 27997 net.cpp:156] Memory required for data: 783398000
I0403 13:23:28.061802 27997 layer_factory.hpp:77] Creating layer conv5
I0403 13:23:28.061828 27997 net.cpp:91] Creating Layer conv5
I0403 13:23:28.061846 27997 net.cpp:425] conv5 <- conv4
I0403 13:23:28.061868 27997 net.cpp:399] conv5 -> conv5
I0403 13:23:28.082820 27997 net.cpp:141] Setting up conv5
I0403 13:23:28.082870 27997 net.cpp:148] Top shape: 100 256 13 13 (4326400)
I0403 13:23:28.082890 27997 net.cpp:156] Memory required for data: 800703600
I0403 13:23:28.082916 27997 layer_factory.hpp:77] Creating layer relu5
I0403 13:23:28.082936 27997 net.cpp:91] Creating Layer relu5
I0403 13:23:28.082952 27997 net.cpp:425] relu5 <- conv5
I0403 13:23:28.082970 27997 net.cpp:386] relu5 -> conv5 (in-place)
I0403 13:23:28.083250 27997 net.cpp:141] Setting up relu5
I0403 13:23:28.083281 27997 net.cpp:148] Top shape: 100 256 13 13 (4326400)
I0403 13:23:28.083302 27997 net.cpp:156] Memory required for data: 818009200
I0403 13:23:28.083318 27997 layer_factory.hpp:77] Creating layer pool5
I0403 13:23:28.083339 27997 net.cpp:91] Creating Layer pool5
I0403 13:23:28.083356 27997 net.cpp:425] pool5 <- conv5
I0403 13:23:28.083377 27997 net.cpp:399] pool5 -> pool5
I0403 13:23:28.083452 27997 net.cpp:141] Setting up pool5
I0403 13:23:28.083479 27997 net.cpp:148] Top shape: 100 256 6 6 (921600)
I0403 13:23:28.083495 27997 net.cpp:156] Memory required for data: 821695600
I0403 13:23:28.083510 27997 layer_factory.hpp:77] Creating layer fc6
I0403 13:23:28.083541 27997 net.cpp:91] Creating Layer fc6
I0403 13:23:28.083561 27997 net.cpp:425] fc6 <- pool5
I0403 13:23:28.083582 27997 net.cpp:399] fc6 -> fc6
I0403 13:23:29.686646 27997 net.cpp:141] Setting up fc6
I0403 13:23:29.686688 27997 net.cpp:148] Top shape: 100 4096 (409600)
I0403 13:23:29.686705 27997 net.cpp:156] Memory required for data: 823334000
I0403 13:23:29.686727 27997 layer_factory.hpp:77] Creating layer relu6
I0403 13:23:29.686751 27997 net.cpp:91] Creating Layer relu6
I0403 13:23:29.686769 27997 net.cpp:425] relu6 <- fc6
I0403 13:23:29.686791 27997 net.cpp:386] relu6 -> fc6 (in-place)
I0403 13:23:29.687005 27997 net.cpp:141] Setting up relu6
I0403 13:23:29.687031 27997 net.cpp:148] Top shape: 100 4096 (409600)
I0403 13:23:29.687047 27997 net.cpp:156] Memory required for data: 824972400
I0403 13:23:29.687062 27997 layer_factory.hpp:77] Creating layer drop6
I0403 13:23:29.687080 27997 net.cpp:91] Creating Layer drop6
I0403 13:23:29.687095 27997 net.cpp:425] drop6 <- fc6
I0403 13:23:29.687113 27997 net.cpp:386] drop6 -> fc6 (in-place)
I0403 13:23:29.687162 27997 net.cpp:141] Setting up drop6
I0403 13:23:29.687186 27997 net.cpp:148] Top shape: 100 4096 (409600)
I0403 13:23:29.687199 27997 net.cpp:156] Memory required for data: 826610800
I0403 13:23:29.687216 27997 layer_factory.hpp:77] Creating layer fc7
I0403 13:23:29.687237 27997 net.cpp:91] Creating Layer fc7
I0403 13:23:29.687253 27997 net.cpp:425] fc7 <- fc6
I0403 13:23:29.687271 27997 net.cpp:399] fc7 -> fc7
I0403 13:23:30.372782 27997 net.cpp:141] Setting up fc7
I0403 13:23:30.372861 27997 net.cpp:148] Top shape: 100 4096 (409600)
I0403 13:23:30.372877 27997 net.cpp:156] Memory required for data: 828249200
I0403 13:23:30.372900 27997 layer_factory.hpp:77] Creating layer relu7
I0403 13:23:30.372926 27997 net.cpp:91] Creating Layer relu7
I0403 13:23:30.372946 27997 net.cpp:425] relu7 <- fc7
I0403 13:23:30.372967 27997 net.cpp:386] relu7 -> fc7 (in-place)
I0403 13:23:30.373399 27997 net.cpp:141] Setting up relu7
I0403 13:23:30.373426 27997 net.cpp:148] Top shape: 100 4096 (409600)
I0403 13:23:30.373476 27997 net.cpp:156] Memory required for data: 829887600
I0403 13:23:30.373492 27997 layer_factory.hpp:77] Creating layer drop7
I0403 13:23:30.373513 27997 net.cpp:91] Creating Layer drop7
I0403 13:23:30.373531 27997 net.cpp:425] drop7 <- fc7
I0403 13:23:30.373550 27997 net.cpp:386] drop7 -> fc7 (in-place)
I0403 13:23:30.373595 27997 net.cpp:141] Setting up drop7
I0403 13:23:30.373620 27997 net.cpp:148] Top shape: 100 4096 (409600)
I0403 13:23:30.373633 27997 net.cpp:156] Memory required for data: 831526000
I0403 13:23:30.373648 27997 layer_factory.hpp:77] Creating layer fc8_plantvillage
I0403 13:23:30.373670 27997 net.cpp:91] Creating Layer fc8_plantvillage
I0403 13:23:30.373687 27997 net.cpp:425] fc8_plantvillage <- fc7
I0403 13:23:30.373705 27997 net.cpp:399] fc8_plantvillage -> fc8_plantvillage
I0403 13:23:30.380429 27997 net.cpp:141] Setting up fc8_plantvillage
I0403 13:23:30.380456 27997 net.cpp:148] Top shape: 100 38 (3800)
I0403 13:23:30.380473 27997 net.cpp:156] Memory required for data: 831541200
I0403 13:23:30.380492 27997 layer_factory.hpp:77] Creating layer fc8_plantvillage_fc8_plantvillage_0_split
I0403 13:23:30.380512 27997 net.cpp:91] Creating Layer fc8_plantvillage_fc8_plantvillage_0_split
I0403 13:23:30.380528 27997 net.cpp:425] fc8_plantvillage_fc8_plantvillage_0_split <- fc8_plantvillage
I0403 13:23:30.380545 27997 net.cpp:399] fc8_plantvillage_fc8_plantvillage_0_split -> fc8_plantvillage_fc8_plantvillage_0_split_0
I0403 13:23:30.380569 27997 net.cpp:399] fc8_plantvillage_fc8_plantvillage_0_split -> fc8_plantvillage_fc8_plantvillage_0_split_1
I0403 13:23:30.380590 27997 net.cpp:399] fc8_plantvillage_fc8_plantvillage_0_split -> fc8_plantvillage_fc8_plantvillage_0_split_2
I0403 13:23:30.380668 27997 net.cpp:141] Setting up fc8_plantvillage_fc8_plantvillage_0_split
I0403 13:23:30.380692 27997 net.cpp:148] Top shape: 100 38 (3800)
I0403 13:23:30.380708 27997 net.cpp:148] Top shape: 100 38 (3800)
I0403 13:23:30.380723 27997 net.cpp:148] Top shape: 100 38 (3800)
I0403 13:23:30.380738 27997 net.cpp:156] Memory required for data: 831586800
I0403 13:23:30.380753 27997 layer_factory.hpp:77] Creating layer prob
I0403 13:23:30.380784 27997 net.cpp:91] Creating Layer prob
I0403 13:23:30.380800 27997 net.cpp:425] prob <- fc8_plantvillage_fc8_plantvillage_0_split_0
I0403 13:23:30.380820 27997 net.cpp:399] prob -> prob
I0403 13:23:30.381052 27997 net.cpp:141] Setting up prob
I0403 13:23:30.381090 27997 net.cpp:148] Top shape: 100 38 (3800)
I0403 13:23:30.381104 27997 net.cpp:156] Memory required for data: 831602000
I0403 13:23:30.381120 27997 layer_factory.hpp:77] Creating layer hdf5out
I0403 13:23:30.381142 27997 net.cpp:91] Creating Layer hdf5out
I0403 13:23:30.381160 27997 net.cpp:425] hdf5out <- prob
I0403 13:23:30.381175 27997 net.cpp:425] hdf5out <- label_data_1_split_0
I0403 13:23:30.385246 27997 net.cpp:141] Setting up hdf5out
…
