…
I0403 13:13:57.930021 27631 net.cpp:313] The NetState phase (1) differed from the phase (0) specified by a rule in layer data
I0403 13:13:57.930366 27631 net.cpp:49] Initializing net from parameters: 
state {
  phase: TEST
}
layer {
  name: "data"
  type: "Data"
  top: "data"
  top: "label"
  include {
    phase: TEST
  }
  transform_param {
    crop_size: 227
    mean_file: "/home/mohanty/data/final_dataset/lmdb/color-60-40/mean.binaryproto"
  }
  data_param {
    source: "/home/mohanty/data/final_dataset/lmdb/color-60-40/test_db"
    batch_size: 100
    backend: LMDB
  }
}
layer {
  name: "conv1"
  type: "Convolution"
  bottom: "data"
  top: "conv1"
  param {
    lr_mult: 1
    decay_mult: 1
  }
  param {
    lr_mult: 2
    decay_mult: 0
  }
  convolution_param {
    num_output: 96
    kernel_size: 11
    stride: 4
    weight_filler {
      type: "gaussian"
      std: 0.01
    }
    bias_filler {
      type: "constant"
      value: 0
    }
  }
}
layer {
  name: "relu1"
  type: "ReLU"
  bottom: "conv1"
  top: "conv1"
}
layer {
  name: "norm1"
  type: "LRN"
  bottom: "conv1"
  top: "norm1"
  lrn_param {
    local_size: 5
    alpha: 0.0001
    beta: 0.75
  }
}
layer {
  name: "pool1"
  type: "Pooling"
  bottom: "norm1"
  top: "pool1"
  pooling_param {
    pool: MAX
    kernel_size: 3
    stride: 2
  }
}
layer {
  name: "conv2"
  type: "Convolution"
  bottom: "pool1"
  top: "conv2"
  param {
    lr_mult: 1
    decay_mult: 1
  }
  param {
    lr_mult: 2
    decay_mult: 0
  }
  convolution_param {
    num_output: 256
    pad: 2
    kernel_size: 5
    group: 2
    weight_filler {
      type: "gaussian"
      std: 0.01
    }
    bias_filler {
      type: "constant"
      value: 0.1
    }
  }
}
layer {
  name: "relu2"
  type: "ReLU"
  bottom: "conv2"
  top: "conv2"
}
layer {
  name: "norm2"
  type: "LRN"
  bottom: "conv2"
  top: "norm2"
  lrn_param {
    local_size: 5
    alpha: 0.0001
    beta: 0.75
  }
}
layer {
  name: "pool2"
  type: "Pooling"
  bottom: "norm2"
  top: "pool2"
  pooling_param {
    pool: MAX
    kernel_size: 3
    stride: 2
  }
}
layer {
  name: "conv3"
  type: "Convolution"
  bottom: "pool2"
  top: "conv3"
  param {
    lr_mult: 1
    decay_mult: 1
  }
  param {
    lr_mult: 2
    decay_mult: 0
  }
  convolution_param {
    num_output: 384
    pad: 1
    kernel_size: 3
    weight_filler {
      type: "gaussian"
      std: 0.01
    }
    bias_filler {
      type: "constant"
      value: 0
    }
  }
}
layer {
  name: "relu3"
  type: "ReLU"
  bottom: "conv3"
  top: "conv3"
}
layer {
  name: "conv4"
  type: "Convolution"
  bottom: "conv3"
  top: "conv4"
  param {
    lr_mult: 1
    decay_mult: 1
  }
  param {
    lr_mult: 2
    decay_mult: 0
  }
  convolution_param {
    num_output: 384
    pad: 1
    kernel_size: 3
    group: 2
    weight_filler {
      type: "gaussian"
      std: 0.01
    }
    bias_filler {
      type: "constant"
      value: 0.1
    }
  }
}
layer {
  name: "relu4"
  type: "ReLU"
  bottom: "conv4"
  top: "conv4"
}
layer {
  name: "conv5"
  type: "Convolution"
  bottom: "conv4"
  top: "conv5"
  param {
    lr_mult: 1
    decay_mult: 1
  }
  param {
    lr_mult: 2
    decay_mult: 0
  }
  convolution_param {
    num_output: 256
    pad: 1
    kernel_size: 3
    group: 2
    weight_filler {
      type: "gaussian"
      std: 0.01
    }
    bias_filler {
      type: "constant"
      value: 0.1
    }
  }
}
layer {
  name: "relu5"
  type: "ReLU"
  bottom: "conv5"
  top: "conv5"
}
layer {
  name: "pool5"
  type: "Pooling"
  bottom: "conv5"
  top: "pool5"
  pooling_param {
    pool: MAX
    kernel_size: 3
    stride: 2
  }
}
layer {
  name: "fc6"
  type: "InnerProduct"
  bottom: "pool5"
  top: "fc6"
  param {
    lr_mult: 1
    decay_mult: 1
  }
  param {
    lr_mult: 2
    decay_mult: 0
  }
  inner_product_param {
    num_output: 4096
    weight_filler {
      type: "gaussian"
      std: 0.005
    }
    bias_filler {
      type: "constant"
      value: 0.1
    }
  }
}
layer {
  name: "relu6"
  type: "ReLU"
  bottom: "fc6"
  top: "fc6"
}
layer {
  name: "drop6"
  type: "Dropout"
  bottom: "fc6"
  top: "fc6"
  dropout_param {
    dropout_ratio: 0.5
  }
}
layer {
  name: "fc7"
  type: "InnerProduct"
  bottom: "fc6"
  top: "fc7"
  param {
    lr_mult: 1
    decay_mult: 1
  }
  param {
    lr_mult: 2
    decay_mult: 0
  }
  inner_product_param {
    num_output: 4096
    weight_filler {
      type: "gaussian"
      std: 0.005
    }
    bias_filler {
      type: "constant"
      value: 0.1
    }
  }
}
layer {
  name: "relu7"
  type: "ReLU"
  bottom: "fc7"
  top: "fc7"
}
layer {
  name: "drop7"
  type: "Dropout"
  bottom: "fc7"
  top: "fc7"
  dropout_param {
    dropout_ratio: 0.5
  }
}
layer {
  name: "fc8_plantvillage"
  type: "InnerProduct"
  bottom: "fc7"
  top: "fc8_plantvillage"
  param {
    lr_mult: 1
    decay_mult: 1
  }
  param {
    lr_mult: 2
    decay_mult: 0
  }
  inner_product_param {
    num_output: 38
    weight_filler {
      type: "gaussian"
      std: 0.01
    }
    bias_filler {
      type: "constant"
      value: 0
    }
  }
}
layer {
  name: "prob"
  type: "Softmax"
  bottom: "fc8_plantvillage"
  top: "prob"
  include {
    phase: TEST
  }
}
layer {
  name: "hdf5out"
  type: "HDF5Output"
  bottom: "prob"
  bottom: "label"
  include {
    phase: TEST
  }
  hdf5_output_param {
    file_name: "hdf5_dumps/iter_4225.h5"
  }
}
layer {
  name: "loss"
  type: "SoftmaxWithLoss"
  bottom: "fc8_plantvillage"
  bottom: "label"
  top: "loss"
}
layer {
  name: "accuracy"
  type: "Accuracy"
  bottom: "fc8_plantvillage"
  bottom: "label"
  top: "accuracy"
  include {
    phase: TEST
  }
}
I0403 13:13:57.930898 27631 layer_factory.hpp:77] Creating layer data
I0403 13:13:57.931555 27631 net.cpp:91] Creating Layer data
I0403 13:13:57.931589 27631 net.cpp:399] data -> data
I0403 13:13:57.931643 27631 net.cpp:399] data -> label
I0403 13:13:57.931681 27631 data_transformer.cpp:25] Loading mean file from: /home/mohanty/data/final_dataset/lmdb/color-60-40/mean.binaryproto
I0403 13:13:57.934281 27634 db_lmdb.cpp:38] Opened lmdb /home/mohanty/data/final_dataset/lmdb/color-60-40/test_db
I0403 13:13:57.946446 27631 data_layer.cpp:41] output data size: 100,3,227,227
I0403 13:13:58.079192 27631 net.cpp:141] Setting up data
I0403 13:13:58.079290 27631 net.cpp:148] Top shape: 100 3 227 227 (15458700)
I0403 13:13:58.079315 27631 net.cpp:148] Top shape: 100 (100)
I0403 13:13:58.079332 27631 net.cpp:156] Memory required for data: 61835200
I0403 13:13:58.079362 27631 layer_factory.hpp:77] Creating layer label_data_1_split
I0403 13:13:58.079388 27631 net.cpp:91] Creating Layer label_data_1_split
I0403 13:13:58.079407 27631 net.cpp:425] label_data_1_split <- label
I0403 13:13:58.079438 27631 net.cpp:399] label_data_1_split -> label_data_1_split_0
I0403 13:13:58.079468 27631 net.cpp:399] label_data_1_split -> label_data_1_split_1
I0403 13:13:58.079488 27631 net.cpp:399] label_data_1_split -> label_data_1_split_2
I0403 13:13:58.079551 27631 net.cpp:141] Setting up label_data_1_split
I0403 13:13:58.079576 27631 net.cpp:148] Top shape: 100 (100)
I0403 13:13:58.079594 27631 net.cpp:148] Top shape: 100 (100)
I0403 13:13:58.079612 27631 net.cpp:148] Top shape: 100 (100)
I0403 13:13:58.079627 27631 net.cpp:156] Memory required for data: 61836400
I0403 13:13:58.079644 27631 layer_factory.hpp:77] Creating layer conv1
I0403 13:13:58.079676 27631 net.cpp:91] Creating Layer conv1
I0403 13:13:58.079697 27631 net.cpp:425] conv1 <- data
I0403 13:13:58.079716 27631 net.cpp:399] conv1 -> conv1
I0403 13:13:58.225406 27631 net.cpp:141] Setting up conv1
I0403 13:13:58.225550 27631 net.cpp:148] Top shape: 100 96 55 55 (29040000)
I0403 13:13:58.225574 27631 net.cpp:156] Memory required for data: 177996400
I0403 13:13:58.225608 27631 layer_factory.hpp:77] Creating layer relu1
I0403 13:13:58.225638 27631 net.cpp:91] Creating Layer relu1
I0403 13:13:58.225658 27631 net.cpp:425] relu1 <- conv1
I0403 13:13:58.225677 27631 net.cpp:386] relu1 -> conv1 (in-place)
I0403 13:13:58.225941 27631 net.cpp:141] Setting up relu1
I0403 13:13:58.225970 27631 net.cpp:148] Top shape: 100 96 55 55 (29040000)
I0403 13:13:58.225987 27631 net.cpp:156] Memory required for data: 294156400
I0403 13:13:58.226034 27631 layer_factory.hpp:77] Creating layer norm1
I0403 13:13:58.226064 27631 net.cpp:91] Creating Layer norm1
I0403 13:13:58.226083 27631 net.cpp:425] norm1 <- conv1
I0403 13:13:58.226100 27631 net.cpp:399] norm1 -> norm1
I0403 13:13:58.226419 27631 net.cpp:141] Setting up norm1
I0403 13:13:58.226449 27631 net.cpp:148] Top shape: 100 96 55 55 (29040000)
I0403 13:13:58.226465 27631 net.cpp:156] Memory required for data: 410316400
I0403 13:13:58.226481 27631 layer_factory.hpp:77] Creating layer pool1
I0403 13:13:58.226506 27631 net.cpp:91] Creating Layer pool1
I0403 13:13:58.226523 27631 net.cpp:425] pool1 <- norm1
I0403 13:13:58.226541 27631 net.cpp:399] pool1 -> pool1
I0403 13:13:58.226611 27631 net.cpp:141] Setting up pool1
I0403 13:13:58.226636 27631 net.cpp:148] Top shape: 100 96 27 27 (6998400)
I0403 13:13:58.226652 27631 net.cpp:156] Memory required for data: 438310000
I0403 13:13:58.226670 27631 layer_factory.hpp:77] Creating layer conv2
I0403 13:13:58.226696 27631 net.cpp:91] Creating Layer conv2
I0403 13:13:58.226713 27631 net.cpp:425] conv2 <- pool1
I0403 13:13:58.226732 27631 net.cpp:399] conv2 -> conv2
I0403 13:13:58.241945 27631 net.cpp:141] Setting up conv2
I0403 13:13:58.241992 27631 net.cpp:148] Top shape: 100 256 27 27 (18662400)
I0403 13:13:58.242009 27631 net.cpp:156] Memory required for data: 512959600
I0403 13:13:58.242034 27631 layer_factory.hpp:77] Creating layer relu2
I0403 13:13:58.242056 27631 net.cpp:91] Creating Layer relu2
I0403 13:13:58.242074 27631 net.cpp:425] relu2 <- conv2
I0403 13:13:58.242091 27631 net.cpp:386] relu2 -> conv2 (in-place)
I0403 13:13:58.242367 27631 net.cpp:141] Setting up relu2
I0403 13:13:58.242393 27631 net.cpp:148] Top shape: 100 256 27 27 (18662400)
I0403 13:13:58.242410 27631 net.cpp:156] Memory required for data: 587609200
I0403 13:13:58.242427 27631 layer_factory.hpp:77] Creating layer norm2
I0403 13:13:58.242450 27631 net.cpp:91] Creating Layer norm2
I0403 13:13:58.242467 27631 net.cpp:425] norm2 <- conv2
I0403 13:13:58.242486 27631 net.cpp:399] norm2 -> norm2
I0403 13:13:58.242691 27631 net.cpp:141] Setting up norm2
I0403 13:13:58.242745 27631 net.cpp:148] Top shape: 100 256 27 27 (18662400)
I0403 13:13:58.242768 27631 net.cpp:156] Memory required for data: 662258800
I0403 13:13:58.242784 27631 layer_factory.hpp:77] Creating layer pool2
I0403 13:13:58.242802 27631 net.cpp:91] Creating Layer pool2
I0403 13:13:58.242818 27631 net.cpp:425] pool2 <- norm2
I0403 13:13:58.242847 27631 net.cpp:399] pool2 -> pool2
I0403 13:13:58.242909 27631 net.cpp:141] Setting up pool2
I0403 13:13:58.242936 27631 net.cpp:148] Top shape: 100 256 13 13 (4326400)
I0403 13:13:58.242954 27631 net.cpp:156] Memory required for data: 679564400
I0403 13:13:58.242969 27631 layer_factory.hpp:77] Creating layer conv3
I0403 13:13:58.242992 27631 net.cpp:91] Creating Layer conv3
I0403 13:13:58.243010 27631 net.cpp:425] conv3 <- pool2
I0403 13:13:58.243029 27631 net.cpp:399] conv3 -> conv3
I0403 13:13:58.282073 27631 net.cpp:141] Setting up conv3
I0403 13:13:58.282150 27631 net.cpp:148] Top shape: 100 384 13 13 (6489600)
I0403 13:13:58.282167 27631 net.cpp:156] Memory required for data: 705522800
I0403 13:13:58.282196 27631 layer_factory.hpp:77] Creating layer relu3
I0403 13:13:58.282220 27631 net.cpp:91] Creating Layer relu3
I0403 13:13:58.282238 27631 net.cpp:425] relu3 <- conv3
I0403 13:13:58.282260 27631 net.cpp:386] relu3 -> conv3 (in-place)
I0403 13:13:58.282552 27631 net.cpp:141] Setting up relu3
I0403 13:13:58.282580 27631 net.cpp:148] Top shape: 100 384 13 13 (6489600)
I0403 13:13:58.282598 27631 net.cpp:156] Memory required for data: 731481200
I0403 13:13:58.282613 27631 layer_factory.hpp:77] Creating layer conv4
I0403 13:13:58.282640 27631 net.cpp:91] Creating Layer conv4
I0403 13:13:58.282660 27631 net.cpp:425] conv4 <- conv3
I0403 13:13:58.282685 27631 net.cpp:399] conv4 -> conv4
I0403 13:13:58.313272 27631 net.cpp:141] Setting up conv4
I0403 13:13:58.313350 27631 net.cpp:148] Top shape: 100 384 13 13 (6489600)
I0403 13:13:58.313405 27631 net.cpp:156] Memory required for data: 757439600
I0403 13:13:58.313428 27631 layer_factory.hpp:77] Creating layer relu4
I0403 13:13:58.313451 27631 net.cpp:91] Creating Layer relu4
I0403 13:13:58.313473 27631 net.cpp:425] relu4 <- conv4
I0403 13:13:58.313496 27631 net.cpp:386] relu4 -> conv4 (in-place)
I0403 13:13:58.313789 27631 net.cpp:141] Setting up relu4
I0403 13:13:58.313818 27631 net.cpp:148] Top shape: 100 384 13 13 (6489600)
I0403 13:13:58.313835 27631 net.cpp:156] Memory required for data: 783398000
I0403 13:13:58.313853 27631 layer_factory.hpp:77] Creating layer conv5
I0403 13:13:58.313880 27631 net.cpp:91] Creating Layer conv5
I0403 13:13:58.313900 27631 net.cpp:425] conv5 <- conv4
I0403 13:13:58.313923 27631 net.cpp:399] conv5 -> conv5
I0403 13:13:58.335602 27631 net.cpp:141] Setting up conv5
I0403 13:13:58.335657 27631 net.cpp:148] Top shape: 100 256 13 13 (4326400)
I0403 13:13:58.335675 27631 net.cpp:156] Memory required for data: 800703600
I0403 13:13:58.335703 27631 layer_factory.hpp:77] Creating layer relu5
I0403 13:13:58.335726 27631 net.cpp:91] Creating Layer relu5
I0403 13:13:58.335748 27631 net.cpp:425] relu5 <- conv5
I0403 13:13:58.335769 27631 net.cpp:386] relu5 -> conv5 (in-place)
I0403 13:13:58.336062 27631 net.cpp:141] Setting up relu5
I0403 13:13:58.336091 27631 net.cpp:148] Top shape: 100 256 13 13 (4326400)
I0403 13:13:58.336108 27631 net.cpp:156] Memory required for data: 818009200
I0403 13:13:58.336125 27631 layer_factory.hpp:77] Creating layer pool5
I0403 13:13:58.336151 27631 net.cpp:91] Creating Layer pool5
I0403 13:13:58.336169 27631 net.cpp:425] pool5 <- conv5
I0403 13:13:58.336189 27631 net.cpp:399] pool5 -> pool5
I0403 13:13:58.336254 27631 net.cpp:141] Setting up pool5
I0403 13:13:58.336280 27631 net.cpp:148] Top shape: 100 256 6 6 (921600)
I0403 13:13:58.336302 27631 net.cpp:156] Memory required for data: 821695600
I0403 13:13:58.336318 27631 layer_factory.hpp:77] Creating layer fc6
I0403 13:13:58.336345 27631 net.cpp:91] Creating Layer fc6
I0403 13:13:58.336366 27631 net.cpp:425] fc6 <- pool5
I0403 13:13:58.336387 27631 net.cpp:399] fc6 -> fc6
I0403 13:13:59.931964 27631 net.cpp:141] Setting up fc6
I0403 13:13:59.932045 27631 net.cpp:148] Top shape: 100 4096 (409600)
I0403 13:13:59.932063 27631 net.cpp:156] Memory required for data: 823334000
I0403 13:13:59.932086 27631 layer_factory.hpp:77] Creating layer relu6
I0403 13:13:59.932109 27631 net.cpp:91] Creating Layer relu6
I0403 13:13:59.932126 27631 net.cpp:425] relu6 <- fc6
I0403 13:13:59.932147 27631 net.cpp:386] relu6 -> fc6 (in-place)
I0403 13:13:59.932381 27631 net.cpp:141] Setting up relu6
I0403 13:13:59.932407 27631 net.cpp:148] Top shape: 100 4096 (409600)
I0403 13:13:59.932423 27631 net.cpp:156] Memory required for data: 824972400
I0403 13:13:59.932441 27631 layer_factory.hpp:77] Creating layer drop6
I0403 13:13:59.932461 27631 net.cpp:91] Creating Layer drop6
I0403 13:13:59.932476 27631 net.cpp:425] drop6 <- fc6
I0403 13:13:59.932494 27631 net.cpp:386] drop6 -> fc6 (in-place)
I0403 13:13:59.932546 27631 net.cpp:141] Setting up drop6
I0403 13:13:59.932575 27631 net.cpp:148] Top shape: 100 4096 (409600)
I0403 13:13:59.932592 27631 net.cpp:156] Memory required for data: 826610800
I0403 13:13:59.932608 27631 layer_factory.hpp:77] Creating layer fc7
I0403 13:13:59.932629 27631 net.cpp:91] Creating Layer fc7
I0403 13:13:59.932646 27631 net.cpp:425] fc7 <- fc6
I0403 13:13:59.932665 27631 net.cpp:399] fc7 -> fc7
I0403 13:14:00.623430 27631 net.cpp:141] Setting up fc7
I0403 13:14:00.623508 27631 net.cpp:148] Top shape: 100 4096 (409600)
I0403 13:14:00.623525 27631 net.cpp:156] Memory required for data: 828249200
I0403 13:14:00.623548 27631 layer_factory.hpp:77] Creating layer relu7
I0403 13:14:00.623572 27631 net.cpp:91] Creating Layer relu7
I0403 13:14:00.623592 27631 net.cpp:425] relu7 <- fc7
I0403 13:14:00.623615 27631 net.cpp:386] relu7 -> fc7 (in-place)
I0403 13:14:00.624016 27631 net.cpp:141] Setting up relu7
I0403 13:14:00.624043 27631 net.cpp:148] Top shape: 100 4096 (409600)
I0403 13:14:00.624094 27631 net.cpp:156] Memory required for data: 829887600
I0403 13:14:00.624109 27631 layer_factory.hpp:77] Creating layer drop7
I0403 13:14:00.624130 27631 net.cpp:91] Creating Layer drop7
I0403 13:14:00.624145 27631 net.cpp:425] drop7 <- fc7
I0403 13:14:00.624166 27631 net.cpp:386] drop7 -> fc7 (in-place)
I0403 13:14:00.624209 27631 net.cpp:141] Setting up drop7
I0403 13:14:00.624235 27631 net.cpp:148] Top shape: 100 4096 (409600)
I0403 13:14:00.624251 27631 net.cpp:156] Memory required for data: 831526000
I0403 13:14:00.624267 27631 layer_factory.hpp:77] Creating layer fc8_plantvillage
I0403 13:14:00.624294 27631 net.cpp:91] Creating Layer fc8_plantvillage
I0403 13:14:00.624311 27631 net.cpp:425] fc8_plantvillage <- fc7
I0403 13:14:00.624332 27631 net.cpp:399] fc8_plantvillage -> fc8_plantvillage
I0403 13:14:00.631111 27631 net.cpp:141] Setting up fc8_plantvillage
I0403 13:14:00.631140 27631 net.cpp:148] Top shape: 100 38 (3800)
I0403 13:14:00.631157 27631 net.cpp:156] Memory required for data: 831541200
I0403 13:14:00.631176 27631 layer_factory.hpp:77] Creating layer fc8_plantvillage_fc8_plantvillage_0_split
I0403 13:14:00.631198 27631 net.cpp:91] Creating Layer fc8_plantvillage_fc8_plantvillage_0_split
I0403 13:14:00.631216 27631 net.cpp:425] fc8_plantvillage_fc8_plantvillage_0_split <- fc8_plantvillage
I0403 13:14:00.631232 27631 net.cpp:399] fc8_plantvillage_fc8_plantvillage_0_split -> fc8_plantvillage_fc8_plantvillage_0_split_0
I0403 13:14:00.631253 27631 net.cpp:399] fc8_plantvillage_fc8_plantvillage_0_split -> fc8_plantvillage_fc8_plantvillage_0_split_1
I0403 13:14:00.631273 27631 net.cpp:399] fc8_plantvillage_fc8_plantvillage_0_split -> fc8_plantvillage_fc8_plantvillage_0_split_2
I0403 13:14:00.631361 27631 net.cpp:141] Setting up fc8_plantvillage_fc8_plantvillage_0_split
I0403 13:14:00.631386 27631 net.cpp:148] Top shape: 100 38 (3800)
I0403 13:14:00.631402 27631 net.cpp:148] Top shape: 100 38 (3800)
I0403 13:14:00.631419 27631 net.cpp:148] Top shape: 100 38 (3800)
I0403 13:14:00.631434 27631 net.cpp:156] Memory required for data: 831586800
I0403 13:14:00.631449 27631 layer_factory.hpp:77] Creating layer prob
I0403 13:14:00.631469 27631 net.cpp:91] Creating Layer prob
I0403 13:14:00.631485 27631 net.cpp:425] prob <- fc8_plantvillage_fc8_plantvillage_0_split_0
I0403 13:14:00.631503 27631 net.cpp:399] prob -> prob
I0403 13:14:00.631733 27631 net.cpp:141] Setting up prob
I0403 13:14:00.631760 27631 net.cpp:148] Top shape: 100 38 (3800)
I0403 13:14:00.631777 27631 net.cpp:156] Memory required for data: 831602000
I0403 13:14:00.631791 27631 layer_factory.hpp:77] Creating layer hdf5out
I0403 13:14:00.631813 27631 net.cpp:91] Creating Layer hdf5out
I0403 13:14:00.631829 27631 net.cpp:425] hdf5out <- prob
I0403 13:14:00.631847 27631 net.cpp:425] hdf5out <- label_data_1_split_0
I0403 13:14:00.635612 27631 net.cpp:141] Setting up hdf5out
…
