…
I0403 13:15:33.415261 27673 net.cpp:313] The NetState phase (1) differed from the phase (0) specified by a rule in layer data
I0403 13:15:33.415571 27673 net.cpp:49] Initializing net from parameters: 
state {
  phase: TEST
}
layer {
  name: "data"
  type: "Data"
  top: "data"
  top: "label"
  include {
    phase: TEST
  }
  transform_param {
    crop_size: 227
    mean_file: "/home/mohanty/data/final_dataset/lmdb/color-60-40/mean.binaryproto"
  }
  data_param {
    source: "/home/mohanty/data/final_dataset/lmdb/color-60-40/test_db"
    batch_size: 100
    backend: LMDB
  }
}
layer {
  name: "conv1"
  type: "Convolution"
  bottom: "data"
  top: "conv1"
  param {
    lr_mult: 1
    decay_mult: 1
  }
  param {
    lr_mult: 2
    decay_mult: 0
  }
  convolution_param {
    num_output: 96
    kernel_size: 11
    stride: 4
    weight_filler {
      type: "gaussian"
      std: 0.01
    }
    bias_filler {
      type: "constant"
      value: 0
    }
  }
}
layer {
  name: "relu1"
  type: "ReLU"
  bottom: "conv1"
  top: "conv1"
}
layer {
  name: "norm1"
  type: "LRN"
  bottom: "conv1"
  top: "norm1"
  lrn_param {
    local_size: 5
    alpha: 0.0001
    beta: 0.75
  }
}
layer {
  name: "pool1"
  type: "Pooling"
  bottom: "norm1"
  top: "pool1"
  pooling_param {
    pool: MAX
    kernel_size: 3
    stride: 2
  }
}
layer {
  name: "conv2"
  type: "Convolution"
  bottom: "pool1"
  top: "conv2"
  param {
    lr_mult: 1
    decay_mult: 1
  }
  param {
    lr_mult: 2
    decay_mult: 0
  }
  convolution_param {
    num_output: 256
    pad: 2
    kernel_size: 5
    group: 2
    weight_filler {
      type: "gaussian"
      std: 0.01
    }
    bias_filler {
      type: "constant"
      value: 0.1
    }
  }
}
layer {
  name: "relu2"
  type: "ReLU"
  bottom: "conv2"
  top: "conv2"
}
layer {
  name: "norm2"
  type: "LRN"
  bottom: "conv2"
  top: "norm2"
  lrn_param {
    local_size: 5
    alpha: 0.0001
    beta: 0.75
  }
}
layer {
  name: "pool2"
  type: "Pooling"
  bottom: "norm2"
  top: "pool2"
  pooling_param {
    pool: MAX
    kernel_size: 3
    stride: 2
  }
}
layer {
  name: "conv3"
  type: "Convolution"
  bottom: "pool2"
  top: "conv3"
  param {
    lr_mult: 1
    decay_mult: 1
  }
  param {
    lr_mult: 2
    decay_mult: 0
  }
  convolution_param {
    num_output: 384
    pad: 1
    kernel_size: 3
    weight_filler {
      type: "gaussian"
      std: 0.01
    }
    bias_filler {
      type: "constant"
      value: 0
    }
  }
}
layer {
  name: "relu3"
  type: "ReLU"
  bottom: "conv3"
  top: "conv3"
}
layer {
  name: "conv4"
  type: "Convolution"
  bottom: "conv3"
  top: "conv4"
  param {
    lr_mult: 1
    decay_mult: 1
  }
  param {
    lr_mult: 2
    decay_mult: 0
  }
  convolution_param {
    num_output: 384
    pad: 1
    kernel_size: 3
    group: 2
    weight_filler {
      type: "gaussian"
      std: 0.01
    }
    bias_filler {
      type: "constant"
      value: 0.1
    }
  }
}
layer {
  name: "relu4"
  type: "ReLU"
  bottom: "conv4"
  top: "conv4"
}
layer {
  name: "conv5"
  type: "Convolution"
  bottom: "conv4"
  top: "conv5"
  param {
    lr_mult: 1
    decay_mult: 1
  }
  param {
    lr_mult: 2
    decay_mult: 0
  }
  convolution_param {
    num_output: 256
    pad: 1
    kernel_size: 3
    group: 2
    weight_filler {
      type: "gaussian"
      std: 0.01
    }
    bias_filler {
      type: "constant"
      value: 0.1
    }
  }
}
layer {
  name: "relu5"
  type: "ReLU"
  bottom: "conv5"
  top: "conv5"
}
layer {
  name: "pool5"
  type: "Pooling"
  bottom: "conv5"
  top: "pool5"
  pooling_param {
    pool: MAX
    kernel_size: 3
    stride: 2
  }
}
layer {
  name: "fc6"
  type: "InnerProduct"
  bottom: "pool5"
  top: "fc6"
  param {
    lr_mult: 1
    decay_mult: 1
  }
  param {
    lr_mult: 2
    decay_mult: 0
  }
  inner_product_param {
    num_output: 4096
    weight_filler {
      type: "gaussian"
      std: 0.005
    }
    bias_filler {
      type: "constant"
      value: 0.1
    }
  }
}
layer {
  name: "relu6"
  type: "ReLU"
  bottom: "fc6"
  top: "fc6"
}
layer {
  name: "drop6"
  type: "Dropout"
  bottom: "fc6"
  top: "fc6"
  dropout_param {
    dropout_ratio: 0.5
  }
}
layer {
  name: "fc7"
  type: "InnerProduct"
  bottom: "fc6"
  top: "fc7"
  param {
    lr_mult: 1
    decay_mult: 1
  }
  param {
    lr_mult: 2
    decay_mult: 0
  }
  inner_product_param {
    num_output: 4096
    weight_filler {
      type: "gaussian"
      std: 0.005
    }
    bias_filler {
      type: "constant"
      value: 0.1
    }
  }
}
layer {
  name: "relu7"
  type: "ReLU"
  bottom: "fc7"
  top: "fc7"
}
layer {
  name: "drop7"
  type: "Dropout"
  bottom: "fc7"
  top: "fc7"
  dropout_param {
    dropout_ratio: 0.5
  }
}
layer {
  name: "fc8_plantvillage"
  type: "InnerProduct"
  bottom: "fc7"
  top: "fc8_plantvillage"
  param {
    lr_mult: 1
    decay_mult: 1
  }
  param {
    lr_mult: 2
    decay_mult: 0
  }
  inner_product_param {
    num_output: 38
    weight_filler {
      type: "gaussian"
      std: 0.01
    }
    bias_filler {
      type: "constant"
      value: 0
    }
  }
}
layer {
  name: "prob"
  type: "Softmax"
  bottom: "fc8_plantvillage"
  top: "prob"
  include {
    phase: TEST
  }
}
layer {
  name: "hdf5out"
  type: "HDF5Output"
  bottom: "prob"
  bottom: "label"
  include {
    phase: TEST
  }
  hdf5_output_param {
    file_name: "hdf5_dumps/iter_4875.h5"
  }
}
layer {
  name: "loss"
  type: "SoftmaxWithLoss"
  bottom: "fc8_plantvillage"
  bottom: "label"
  top: "loss"
}
layer {
  name: "accuracy"
  type: "Accuracy"
  bottom: "fc8_plantvillage"
  bottom: "label"
  top: "accuracy"
  include {
    phase: TEST
  }
}
I0403 13:15:33.416070 27673 layer_factory.hpp:77] Creating layer data
I0403 13:15:33.416740 27673 net.cpp:91] Creating Layer data
I0403 13:15:33.416774 27673 net.cpp:399] data -> data
I0403 13:15:33.416826 27673 net.cpp:399] data -> label
I0403 13:15:33.416864 27673 data_transformer.cpp:25] Loading mean file from: /home/mohanty/data/final_dataset/lmdb/color-60-40/mean.binaryproto
I0403 13:15:33.420112 27677 db_lmdb.cpp:38] Opened lmdb /home/mohanty/data/final_dataset/lmdb/color-60-40/test_db
I0403 13:15:33.431288 27673 data_layer.cpp:41] output data size: 100,3,227,227
I0403 13:15:33.564296 27673 net.cpp:141] Setting up data
I0403 13:15:33.564389 27673 net.cpp:148] Top shape: 100 3 227 227 (15458700)
I0403 13:15:33.564412 27673 net.cpp:148] Top shape: 100 (100)
I0403 13:15:33.564429 27673 net.cpp:156] Memory required for data: 61835200
I0403 13:15:33.564456 27673 layer_factory.hpp:77] Creating layer label_data_1_split
I0403 13:15:33.564483 27673 net.cpp:91] Creating Layer label_data_1_split
I0403 13:15:33.564502 27673 net.cpp:425] label_data_1_split <- label
I0403 13:15:33.564534 27673 net.cpp:399] label_data_1_split -> label_data_1_split_0
I0403 13:15:33.564561 27673 net.cpp:399] label_data_1_split -> label_data_1_split_1
I0403 13:15:33.564582 27673 net.cpp:399] label_data_1_split -> label_data_1_split_2
I0403 13:15:33.564646 27673 net.cpp:141] Setting up label_data_1_split
I0403 13:15:33.564671 27673 net.cpp:148] Top shape: 100 (100)
I0403 13:15:33.564688 27673 net.cpp:148] Top shape: 100 (100)
I0403 13:15:33.564704 27673 net.cpp:148] Top shape: 100 (100)
I0403 13:15:33.564718 27673 net.cpp:156] Memory required for data: 61836400
I0403 13:15:33.564733 27673 layer_factory.hpp:77] Creating layer conv1
I0403 13:15:33.564766 27673 net.cpp:91] Creating Layer conv1
I0403 13:15:33.564785 27673 net.cpp:425] conv1 <- data
I0403 13:15:33.564806 27673 net.cpp:399] conv1 -> conv1
I0403 13:15:33.711279 27673 net.cpp:141] Setting up conv1
I0403 13:15:33.711382 27673 net.cpp:148] Top shape: 100 96 55 55 (29040000)
I0403 13:15:33.711400 27673 net.cpp:156] Memory required for data: 177996400
I0403 13:15:33.711432 27673 layer_factory.hpp:77] Creating layer relu1
I0403 13:15:33.711462 27673 net.cpp:91] Creating Layer relu1
I0403 13:15:33.711480 27673 net.cpp:425] relu1 <- conv1
I0403 13:15:33.711500 27673 net.cpp:386] relu1 -> conv1 (in-place)
I0403 13:15:33.711772 27673 net.cpp:141] Setting up relu1
I0403 13:15:33.711799 27673 net.cpp:148] Top shape: 100 96 55 55 (29040000)
I0403 13:15:33.711815 27673 net.cpp:156] Memory required for data: 294156400
I0403 13:15:33.711865 27673 layer_factory.hpp:77] Creating layer norm1
I0403 13:15:33.711894 27673 net.cpp:91] Creating Layer norm1
I0403 13:15:33.711913 27673 net.cpp:425] norm1 <- conv1
I0403 13:15:33.711932 27673 net.cpp:399] norm1 -> norm1
I0403 13:15:33.712270 27673 net.cpp:141] Setting up norm1
I0403 13:15:33.712298 27673 net.cpp:148] Top shape: 100 96 55 55 (29040000)
I0403 13:15:33.712316 27673 net.cpp:156] Memory required for data: 410316400
I0403 13:15:33.712332 27673 layer_factory.hpp:77] Creating layer pool1
I0403 13:15:33.712353 27673 net.cpp:91] Creating Layer pool1
I0403 13:15:33.712370 27673 net.cpp:425] pool1 <- norm1
I0403 13:15:33.712390 27673 net.cpp:399] pool1 -> pool1
I0403 13:15:33.712462 27673 net.cpp:141] Setting up pool1
I0403 13:15:33.712487 27673 net.cpp:148] Top shape: 100 96 27 27 (6998400)
I0403 13:15:33.712503 27673 net.cpp:156] Memory required for data: 438310000
I0403 13:15:33.712520 27673 layer_factory.hpp:77] Creating layer conv2
I0403 13:15:33.712549 27673 net.cpp:91] Creating Layer conv2
I0403 13:15:33.712568 27673 net.cpp:425] conv2 <- pool1
I0403 13:15:33.712586 27673 net.cpp:399] conv2 -> conv2
I0403 13:15:33.727591 27673 net.cpp:141] Setting up conv2
I0403 13:15:33.727644 27673 net.cpp:148] Top shape: 100 256 27 27 (18662400)
I0403 13:15:33.727668 27673 net.cpp:156] Memory required for data: 512959600
I0403 13:15:33.727694 27673 layer_factory.hpp:77] Creating layer relu2
I0403 13:15:33.727713 27673 net.cpp:91] Creating Layer relu2
I0403 13:15:33.727731 27673 net.cpp:425] relu2 <- conv2
I0403 13:15:33.727753 27673 net.cpp:386] relu2 -> conv2 (in-place)
I0403 13:15:33.728044 27673 net.cpp:141] Setting up relu2
I0403 13:15:33.728071 27673 net.cpp:148] Top shape: 100 256 27 27 (18662400)
I0403 13:15:33.728088 27673 net.cpp:156] Memory required for data: 587609200
I0403 13:15:33.728103 27673 layer_factory.hpp:77] Creating layer norm2
I0403 13:15:33.728129 27673 net.cpp:91] Creating Layer norm2
I0403 13:15:33.728147 27673 net.cpp:425] norm2 <- conv2
I0403 13:15:33.728166 27673 net.cpp:399] norm2 -> norm2
I0403 13:15:33.728375 27673 net.cpp:141] Setting up norm2
I0403 13:15:33.728404 27673 net.cpp:148] Top shape: 100 256 27 27 (18662400)
I0403 13:15:33.728421 27673 net.cpp:156] Memory required for data: 662258800
I0403 13:15:33.728436 27673 layer_factory.hpp:77] Creating layer pool2
I0403 13:15:33.728456 27673 net.cpp:91] Creating Layer pool2
I0403 13:15:33.728476 27673 net.cpp:425] pool2 <- norm2
I0403 13:15:33.728495 27673 net.cpp:399] pool2 -> pool2
I0403 13:15:33.728550 27673 net.cpp:141] Setting up pool2
I0403 13:15:33.728579 27673 net.cpp:148] Top shape: 100 256 13 13 (4326400)
I0403 13:15:33.728595 27673 net.cpp:156] Memory required for data: 679564400
I0403 13:15:33.728610 27673 layer_factory.hpp:77] Creating layer conv3
I0403 13:15:33.728631 27673 net.cpp:91] Creating Layer conv3
I0403 13:15:33.728648 27673 net.cpp:425] conv3 <- pool2
I0403 13:15:33.728670 27673 net.cpp:399] conv3 -> conv3
I0403 13:15:33.767663 27673 net.cpp:141] Setting up conv3
I0403 13:15:33.767735 27673 net.cpp:148] Top shape: 100 384 13 13 (6489600)
I0403 13:15:33.767752 27673 net.cpp:156] Memory required for data: 705522800
I0403 13:15:33.767779 27673 layer_factory.hpp:77] Creating layer relu3
I0403 13:15:33.767803 27673 net.cpp:91] Creating Layer relu3
I0403 13:15:33.767822 27673 net.cpp:425] relu3 <- conv3
I0403 13:15:33.767844 27673 net.cpp:386] relu3 -> conv3 (in-place)
I0403 13:15:33.768137 27673 net.cpp:141] Setting up relu3
I0403 13:15:33.768165 27673 net.cpp:148] Top shape: 100 384 13 13 (6489600)
I0403 13:15:33.768182 27673 net.cpp:156] Memory required for data: 731481200
I0403 13:15:33.768198 27673 layer_factory.hpp:77] Creating layer conv4
I0403 13:15:33.768224 27673 net.cpp:91] Creating Layer conv4
I0403 13:15:33.768242 27673 net.cpp:425] conv4 <- conv3
I0403 13:15:33.768272 27673 net.cpp:399] conv4 -> conv4
I0403 13:15:33.798365 27673 net.cpp:141] Setting up conv4
I0403 13:15:33.798429 27673 net.cpp:148] Top shape: 100 384 13 13 (6489600)
I0403 13:15:33.798480 27673 net.cpp:156] Memory required for data: 757439600
I0403 13:15:33.798503 27673 layer_factory.hpp:77] Creating layer relu4
I0403 13:15:33.798527 27673 net.cpp:91] Creating Layer relu4
I0403 13:15:33.798547 27673 net.cpp:425] relu4 <- conv4
I0403 13:15:33.798565 27673 net.cpp:386] relu4 -> conv4 (in-place)
I0403 13:15:33.798852 27673 net.cpp:141] Setting up relu4
I0403 13:15:33.798884 27673 net.cpp:148] Top shape: 100 384 13 13 (6489600)
I0403 13:15:33.798902 27673 net.cpp:156] Memory required for data: 783398000
I0403 13:15:33.798918 27673 layer_factory.hpp:77] Creating layer conv5
I0403 13:15:33.798944 27673 net.cpp:91] Creating Layer conv5
I0403 13:15:33.798961 27673 net.cpp:425] conv5 <- conv4
I0403 13:15:33.798982 27673 net.cpp:399] conv5 -> conv5
I0403 13:15:33.819603 27673 net.cpp:141] Setting up conv5
I0403 13:15:33.819658 27673 net.cpp:148] Top shape: 100 256 13 13 (4326400)
I0403 13:15:33.819676 27673 net.cpp:156] Memory required for data: 800703600
I0403 13:15:33.819703 27673 layer_factory.hpp:77] Creating layer relu5
I0403 13:15:33.819725 27673 net.cpp:91] Creating Layer relu5
I0403 13:15:33.819743 27673 net.cpp:425] relu5 <- conv5
I0403 13:15:33.819766 27673 net.cpp:386] relu5 -> conv5 (in-place)
I0403 13:15:33.820070 27673 net.cpp:141] Setting up relu5
I0403 13:15:33.820098 27673 net.cpp:148] Top shape: 100 256 13 13 (4326400)
I0403 13:15:33.820114 27673 net.cpp:156] Memory required for data: 818009200
I0403 13:15:33.820130 27673 layer_factory.hpp:77] Creating layer pool5
I0403 13:15:33.820158 27673 net.cpp:91] Creating Layer pool5
I0403 13:15:33.820175 27673 net.cpp:425] pool5 <- conv5
I0403 13:15:33.820194 27673 net.cpp:399] pool5 -> pool5
I0403 13:15:33.820266 27673 net.cpp:141] Setting up pool5
I0403 13:15:33.820291 27673 net.cpp:148] Top shape: 100 256 6 6 (921600)
I0403 13:15:33.820307 27673 net.cpp:156] Memory required for data: 821695600
I0403 13:15:33.820323 27673 layer_factory.hpp:77] Creating layer fc6
I0403 13:15:33.820353 27673 net.cpp:91] Creating Layer fc6
I0403 13:15:33.820369 27673 net.cpp:425] fc6 <- pool5
I0403 13:15:33.820391 27673 net.cpp:399] fc6 -> fc6
I0403 13:15:35.417093 27673 net.cpp:141] Setting up fc6
I0403 13:15:35.417176 27673 net.cpp:148] Top shape: 100 4096 (409600)
I0403 13:15:35.417194 27673 net.cpp:156] Memory required for data: 823334000
I0403 13:15:35.417217 27673 layer_factory.hpp:77] Creating layer relu6
I0403 13:15:35.417240 27673 net.cpp:91] Creating Layer relu6
I0403 13:15:35.417265 27673 net.cpp:425] relu6 <- fc6
I0403 13:15:35.417289 27673 net.cpp:386] relu6 -> fc6 (in-place)
I0403 13:15:35.417515 27673 net.cpp:141] Setting up relu6
I0403 13:15:35.417544 27673 net.cpp:148] Top shape: 100 4096 (409600)
I0403 13:15:35.417562 27673 net.cpp:156] Memory required for data: 824972400
I0403 13:15:35.417577 27673 layer_factory.hpp:77] Creating layer drop6
I0403 13:15:35.417596 27673 net.cpp:91] Creating Layer drop6
I0403 13:15:35.417613 27673 net.cpp:425] drop6 <- fc6
I0403 13:15:35.417634 27673 net.cpp:386] drop6 -> fc6 (in-place)
I0403 13:15:35.417700 27673 net.cpp:141] Setting up drop6
I0403 13:15:35.417726 27673 net.cpp:148] Top shape: 100 4096 (409600)
I0403 13:15:35.417740 27673 net.cpp:156] Memory required for data: 826610800
I0403 13:15:35.417757 27673 layer_factory.hpp:77] Creating layer fc7
I0403 13:15:35.417783 27673 net.cpp:91] Creating Layer fc7
I0403 13:15:35.417801 27673 net.cpp:425] fc7 <- fc6
I0403 13:15:35.417824 27673 net.cpp:399] fc7 -> fc7
I0403 13:15:36.109048 27673 net.cpp:141] Setting up fc7
I0403 13:15:36.109112 27673 net.cpp:148] Top shape: 100 4096 (409600)
I0403 13:15:36.109130 27673 net.cpp:156] Memory required for data: 828249200
I0403 13:15:36.109153 27673 layer_factory.hpp:77] Creating layer relu7
I0403 13:15:36.109175 27673 net.cpp:91] Creating Layer relu7
I0403 13:15:36.109194 27673 net.cpp:425] relu7 <- fc7
I0403 13:15:36.109216 27673 net.cpp:386] relu7 -> fc7 (in-place)
I0403 13:15:36.109652 27673 net.cpp:141] Setting up relu7
I0403 13:15:36.109680 27673 net.cpp:148] Top shape: 100 4096 (409600)
I0403 13:15:36.109732 27673 net.cpp:156] Memory required for data: 829887600
I0403 13:15:36.109750 27673 layer_factory.hpp:77] Creating layer drop7
I0403 13:15:36.109782 27673 net.cpp:91] Creating Layer drop7
I0403 13:15:36.109797 27673 net.cpp:425] drop7 <- fc7
I0403 13:15:36.109818 27673 net.cpp:386] drop7 -> fc7 (in-place)
I0403 13:15:36.109863 27673 net.cpp:141] Setting up drop7
I0403 13:15:36.109886 27673 net.cpp:148] Top shape: 100 4096 (409600)
I0403 13:15:36.109905 27673 net.cpp:156] Memory required for data: 831526000
I0403 13:15:36.109921 27673 layer_factory.hpp:77] Creating layer fc8_plantvillage
I0403 13:15:36.109941 27673 net.cpp:91] Creating Layer fc8_plantvillage
I0403 13:15:36.109957 27673 net.cpp:425] fc8_plantvillage <- fc7
I0403 13:15:36.109977 27673 net.cpp:399] fc8_plantvillage -> fc8_plantvillage
I0403 13:15:36.116837 27673 net.cpp:141] Setting up fc8_plantvillage
I0403 13:15:36.116868 27673 net.cpp:148] Top shape: 100 38 (3800)
I0403 13:15:36.116884 27673 net.cpp:156] Memory required for data: 831541200
I0403 13:15:36.116902 27673 layer_factory.hpp:77] Creating layer fc8_plantvillage_fc8_plantvillage_0_split
I0403 13:15:36.116921 27673 net.cpp:91] Creating Layer fc8_plantvillage_fc8_plantvillage_0_split
I0403 13:15:36.116938 27673 net.cpp:425] fc8_plantvillage_fc8_plantvillage_0_split <- fc8_plantvillage
I0403 13:15:36.116958 27673 net.cpp:399] fc8_plantvillage_fc8_plantvillage_0_split -> fc8_plantvillage_fc8_plantvillage_0_split_0
I0403 13:15:36.116979 27673 net.cpp:399] fc8_plantvillage_fc8_plantvillage_0_split -> fc8_plantvillage_fc8_plantvillage_0_split_1
I0403 13:15:36.116999 27673 net.cpp:399] fc8_plantvillage_fc8_plantvillage_0_split -> fc8_plantvillage_fc8_plantvillage_0_split_2
I0403 13:15:36.117076 27673 net.cpp:141] Setting up fc8_plantvillage_fc8_plantvillage_0_split
I0403 13:15:36.117103 27673 net.cpp:148] Top shape: 100 38 (3800)
I0403 13:15:36.117121 27673 net.cpp:148] Top shape: 100 38 (3800)
I0403 13:15:36.117138 27673 net.cpp:148] Top shape: 100 38 (3800)
I0403 13:15:36.117153 27673 net.cpp:156] Memory required for data: 831586800
I0403 13:15:36.117168 27673 layer_factory.hpp:77] Creating layer prob
I0403 13:15:36.117187 27673 net.cpp:91] Creating Layer prob
I0403 13:15:36.117203 27673 net.cpp:425] prob <- fc8_plantvillage_fc8_plantvillage_0_split_0
I0403 13:15:36.117221 27673 net.cpp:399] prob -> prob
I0403 13:15:36.117454 27673 net.cpp:141] Setting up prob
I0403 13:15:36.117481 27673 net.cpp:148] Top shape: 100 38 (3800)
I0403 13:15:36.117497 27673 net.cpp:156] Memory required for data: 831602000
I0403 13:15:36.117513 27673 layer_factory.hpp:77] Creating layer hdf5out
I0403 13:15:36.117533 27673 net.cpp:91] Creating Layer hdf5out
I0403 13:15:36.117549 27673 net.cpp:425] hdf5out <- prob
I0403 13:15:36.117566 27673 net.cpp:425] hdf5out <- label_data_1_split_0
I0403 13:15:36.138161 27673 net.cpp:141] Setting up hdf5out
…
