…
I0403 13:07:34.430225 27441 net.cpp:313] The NetState phase (1) differed from the phase (0) specified by a rule in layer data
I0403 13:07:34.430546 27441 net.cpp:49] Initializing net from parameters: 
state {
  phase: TEST
}
layer {
  name: "data"
  type: "Data"
  top: "data"
  top: "label"
  include {
    phase: TEST
  }
  transform_param {
    crop_size: 227
    mean_file: "/home/mohanty/data/final_dataset/lmdb/color-60-40/mean.binaryproto"
  }
  data_param {
    source: "/home/mohanty/data/final_dataset/lmdb/color-60-40/test_db"
    batch_size: 100
    backend: LMDB
  }
}
layer {
  name: "conv1"
  type: "Convolution"
  bottom: "data"
  top: "conv1"
  param {
    lr_mult: 1
    decay_mult: 1
  }
  param {
    lr_mult: 2
    decay_mult: 0
  }
  convolution_param {
    num_output: 96
    kernel_size: 11
    stride: 4
    weight_filler {
      type: "gaussian"
      std: 0.01
    }
    bias_filler {
      type: "constant"
      value: 0
    }
  }
}
layer {
  name: "relu1"
  type: "ReLU"
  bottom: "conv1"
  top: "conv1"
}
layer {
  name: "norm1"
  type: "LRN"
  bottom: "conv1"
  top: "norm1"
  lrn_param {
    local_size: 5
    alpha: 0.0001
    beta: 0.75
  }
}
layer {
  name: "pool1"
  type: "Pooling"
  bottom: "norm1"
  top: "pool1"
  pooling_param {
    pool: MAX
    kernel_size: 3
    stride: 2
  }
}
layer {
  name: "conv2"
  type: "Convolution"
  bottom: "pool1"
  top: "conv2"
  param {
    lr_mult: 1
    decay_mult: 1
  }
  param {
    lr_mult: 2
    decay_mult: 0
  }
  convolution_param {
    num_output: 256
    pad: 2
    kernel_size: 5
    group: 2
    weight_filler {
      type: "gaussian"
      std: 0.01
    }
    bias_filler {
      type: "constant"
      value: 0.1
    }
  }
}
layer {
  name: "relu2"
  type: "ReLU"
  bottom: "conv2"
  top: "conv2"
}
layer {
  name: "norm2"
  type: "LRN"
  bottom: "conv2"
  top: "norm2"
  lrn_param {
    local_size: 5
    alpha: 0.0001
    beta: 0.75
  }
}
layer {
  name: "pool2"
  type: "Pooling"
  bottom: "norm2"
  top: "pool2"
  pooling_param {
    pool: MAX
    kernel_size: 3
    stride: 2
  }
}
layer {
  name: "conv3"
  type: "Convolution"
  bottom: "pool2"
  top: "conv3"
  param {
    lr_mult: 1
    decay_mult: 1
  }
  param {
    lr_mult: 2
    decay_mult: 0
  }
  convolution_param {
    num_output: 384
    pad: 1
    kernel_size: 3
    weight_filler {
      type: "gaussian"
      std: 0.01
    }
    bias_filler {
      type: "constant"
      value: 0
    }
  }
}
layer {
  name: "relu3"
  type: "ReLU"
  bottom: "conv3"
  top: "conv3"
}
layer {
  name: "conv4"
  type: "Convolution"
  bottom: "conv3"
  top: "conv4"
  param {
    lr_mult: 1
    decay_mult: 1
  }
  param {
    lr_mult: 2
    decay_mult: 0
  }
  convolution_param {
    num_output: 384
    pad: 1
    kernel_size: 3
    group: 2
    weight_filler {
      type: "gaussian"
      std: 0.01
    }
    bias_filler {
      type: "constant"
      value: 0.1
    }
  }
}
layer {
  name: "relu4"
  type: "ReLU"
  bottom: "conv4"
  top: "conv4"
}
layer {
  name: "conv5"
  type: "Convolution"
  bottom: "conv4"
  top: "conv5"
  param {
    lr_mult: 1
    decay_mult: 1
  }
  param {
    lr_mult: 2
    decay_mult: 0
  }
  convolution_param {
    num_output: 256
    pad: 1
    kernel_size: 3
    group: 2
    weight_filler {
      type: "gaussian"
      std: 0.01
    }
    bias_filler {
      type: "constant"
      value: 0.1
    }
  }
}
layer {
  name: "relu5"
  type: "ReLU"
  bottom: "conv5"
  top: "conv5"
}
layer {
  name: "pool5"
  type: "Pooling"
  bottom: "conv5"
  top: "pool5"
  pooling_param {
    pool: MAX
    kernel_size: 3
    stride: 2
  }
}
layer {
  name: "fc6"
  type: "InnerProduct"
  bottom: "pool5"
  top: "fc6"
  param {
    lr_mult: 1
    decay_mult: 1
  }
  param {
    lr_mult: 2
    decay_mult: 0
  }
  inner_product_param {
    num_output: 4096
    weight_filler {
      type: "gaussian"
      std: 0.005
    }
    bias_filler {
      type: "constant"
      value: 0.1
    }
  }
}
layer {
  name: "relu6"
  type: "ReLU"
  bottom: "fc6"
  top: "fc6"
}
layer {
  name: "drop6"
  type: "Dropout"
  bottom: "fc6"
  top: "fc6"
  dropout_param {
    dropout_ratio: 0.5
  }
}
layer {
  name: "fc7"
  type: "InnerProduct"
  bottom: "fc6"
  top: "fc7"
  param {
    lr_mult: 1
    decay_mult: 1
  }
  param {
    lr_mult: 2
    decay_mult: 0
  }
  inner_product_param {
    num_output: 4096
    weight_filler {
      type: "gaussian"
      std: 0.005
    }
    bias_filler {
      type: "constant"
      value: 0.1
    }
  }
}
layer {
  name: "relu7"
  type: "ReLU"
  bottom: "fc7"
  top: "fc7"
}
layer {
  name: "drop7"
  type: "Dropout"
  bottom: "fc7"
  top: "fc7"
  dropout_param {
    dropout_ratio: 0.5
  }
}
layer {
  name: "fc8_plantvillage"
  type: "InnerProduct"
  bottom: "fc7"
  top: "fc8_plantvillage"
  param {
    lr_mult: 1
    decay_mult: 1
  }
  param {
    lr_mult: 2
    decay_mult: 0
  }
  inner_product_param {
    num_output: 38
    weight_filler {
      type: "gaussian"
      std: 0.01
    }
    bias_filler {
      type: "constant"
      value: 0
    }
  }
}
layer {
  name: "prob"
  type: "Softmax"
  bottom: "fc8_plantvillage"
  top: "prob"
  include {
    phase: TEST
  }
}
layer {
  name: "hdf5out"
  type: "HDF5Output"
  bottom: "prob"
  bottom: "label"
  include {
    phase: TEST
  }
  hdf5_output_param {
    file_name: "hdf5_dumps/iter_1625.h5"
  }
}
layer {
  name: "loss"
  type: "SoftmaxWithLoss"
  bottom: "fc8_plantvillage"
  bottom: "label"
  top: "loss"
}
layer {
  name: "accuracy"
  type: "Accuracy"
  bottom: "fc8_plantvillage"
  bottom: "label"
  top: "accuracy"
  include {
    phase: TEST
  }
}
I0403 13:07:34.431143 27441 layer_factory.hpp:77] Creating layer data
I0403 13:07:34.431802 27441 net.cpp:91] Creating Layer data
I0403 13:07:34.431838 27441 net.cpp:399] data -> data
I0403 13:07:34.431890 27441 net.cpp:399] data -> label
I0403 13:07:34.431928 27441 data_transformer.cpp:25] Loading mean file from: /home/mohanty/data/final_dataset/lmdb/color-60-40/mean.binaryproto
I0403 13:07:34.434840 27447 db_lmdb.cpp:38] Opened lmdb /home/mohanty/data/final_dataset/lmdb/color-60-40/test_db
I0403 13:07:34.446440 27441 data_layer.cpp:41] output data size: 100,3,227,227
I0403 13:07:34.581751 27441 net.cpp:141] Setting up data
I0403 13:07:34.581859 27441 net.cpp:148] Top shape: 100 3 227 227 (15458700)
I0403 13:07:34.581886 27441 net.cpp:148] Top shape: 100 (100)
I0403 13:07:34.581900 27441 net.cpp:156] Memory required for data: 61835200
I0403 13:07:34.581929 27441 layer_factory.hpp:77] Creating layer label_data_1_split
I0403 13:07:34.581957 27441 net.cpp:91] Creating Layer label_data_1_split
I0403 13:07:34.581979 27441 net.cpp:425] label_data_1_split <- label
I0403 13:07:34.582010 27441 net.cpp:399] label_data_1_split -> label_data_1_split_0
I0403 13:07:34.582038 27441 net.cpp:399] label_data_1_split -> label_data_1_split_1
I0403 13:07:34.582061 27441 net.cpp:399] label_data_1_split -> label_data_1_split_2
I0403 13:07:34.582129 27441 net.cpp:141] Setting up label_data_1_split
I0403 13:07:34.582154 27441 net.cpp:148] Top shape: 100 (100)
I0403 13:07:34.582170 27441 net.cpp:148] Top shape: 100 (100)
I0403 13:07:34.582186 27441 net.cpp:148] Top shape: 100 (100)
I0403 13:07:34.582202 27441 net.cpp:156] Memory required for data: 61836400
I0403 13:07:34.582217 27441 layer_factory.hpp:77] Creating layer conv1
I0403 13:07:34.582250 27441 net.cpp:91] Creating Layer conv1
I0403 13:07:34.582269 27441 net.cpp:425] conv1 <- data
I0403 13:07:34.582298 27441 net.cpp:399] conv1 -> conv1
I0403 13:07:34.732707 27441 net.cpp:141] Setting up conv1
I0403 13:07:34.732774 27441 net.cpp:148] Top shape: 100 96 55 55 (29040000)
I0403 13:07:34.732792 27441 net.cpp:156] Memory required for data: 177996400
I0403 13:07:34.732825 27441 layer_factory.hpp:77] Creating layer relu1
I0403 13:07:34.732853 27441 net.cpp:91] Creating Layer relu1
I0403 13:07:34.732873 27441 net.cpp:425] relu1 <- conv1
I0403 13:07:34.732893 27441 net.cpp:386] relu1 -> conv1 (in-place)
I0403 13:07:34.733168 27441 net.cpp:141] Setting up relu1
I0403 13:07:34.733201 27441 net.cpp:148] Top shape: 100 96 55 55 (29040000)
I0403 13:07:34.733218 27441 net.cpp:156] Memory required for data: 294156400
I0403 13:07:34.733268 27441 layer_factory.hpp:77] Creating layer norm1
I0403 13:07:34.733304 27441 net.cpp:91] Creating Layer norm1
I0403 13:07:34.733325 27441 net.cpp:425] norm1 <- conv1
I0403 13:07:34.733343 27441 net.cpp:399] norm1 -> norm1
I0403 13:07:34.733786 27441 net.cpp:141] Setting up norm1
I0403 13:07:34.733816 27441 net.cpp:148] Top shape: 100 96 55 55 (29040000)
I0403 13:07:34.733832 27441 net.cpp:156] Memory required for data: 410316400
I0403 13:07:34.733849 27441 layer_factory.hpp:77] Creating layer pool1
I0403 13:07:34.733875 27441 net.cpp:91] Creating Layer pool1
I0403 13:07:34.733893 27441 net.cpp:425] pool1 <- norm1
I0403 13:07:34.733913 27441 net.cpp:399] pool1 -> pool1
I0403 13:07:34.733988 27441 net.cpp:141] Setting up pool1
I0403 13:07:34.734014 27441 net.cpp:148] Top shape: 100 96 27 27 (6998400)
I0403 13:07:34.734030 27441 net.cpp:156] Memory required for data: 438310000
I0403 13:07:34.734045 27441 layer_factory.hpp:77] Creating layer conv2
I0403 13:07:34.734073 27441 net.cpp:91] Creating Layer conv2
I0403 13:07:34.734091 27441 net.cpp:425] conv2 <- pool1
I0403 13:07:34.734113 27441 net.cpp:399] conv2 -> conv2
I0403 13:07:34.749925 27441 net.cpp:141] Setting up conv2
I0403 13:07:34.749979 27441 net.cpp:148] Top shape: 100 256 27 27 (18662400)
I0403 13:07:34.749996 27441 net.cpp:156] Memory required for data: 512959600
I0403 13:07:34.750020 27441 layer_factory.hpp:77] Creating layer relu2
I0403 13:07:34.750046 27441 net.cpp:91] Creating Layer relu2
I0403 13:07:34.750066 27441 net.cpp:425] relu2 <- conv2
I0403 13:07:34.750085 27441 net.cpp:386] relu2 -> conv2 (in-place)
I0403 13:07:34.750385 27441 net.cpp:141] Setting up relu2
I0403 13:07:34.750413 27441 net.cpp:148] Top shape: 100 256 27 27 (18662400)
I0403 13:07:34.750429 27441 net.cpp:156] Memory required for data: 587609200
I0403 13:07:34.750447 27441 layer_factory.hpp:77] Creating layer norm2
I0403 13:07:34.750470 27441 net.cpp:91] Creating Layer norm2
I0403 13:07:34.750489 27441 net.cpp:425] norm2 <- conv2
I0403 13:07:34.750510 27441 net.cpp:399] norm2 -> norm2
I0403 13:07:34.750720 27441 net.cpp:141] Setting up norm2
I0403 13:07:34.750748 27441 net.cpp:148] Top shape: 100 256 27 27 (18662400)
I0403 13:07:34.750764 27441 net.cpp:156] Memory required for data: 662258800
I0403 13:07:34.750780 27441 layer_factory.hpp:77] Creating layer pool2
I0403 13:07:34.750799 27441 net.cpp:91] Creating Layer pool2
I0403 13:07:34.750815 27441 net.cpp:425] pool2 <- norm2
I0403 13:07:34.750838 27441 net.cpp:399] pool2 -> pool2
I0403 13:07:34.750893 27441 net.cpp:141] Setting up pool2
I0403 13:07:34.750919 27441 net.cpp:148] Top shape: 100 256 13 13 (4326400)
I0403 13:07:34.750934 27441 net.cpp:156] Memory required for data: 679564400
I0403 13:07:34.750949 27441 layer_factory.hpp:77] Creating layer conv3
I0403 13:07:34.750977 27441 net.cpp:91] Creating Layer conv3
I0403 13:07:34.750994 27441 net.cpp:425] conv3 <- pool2
I0403 13:07:34.751014 27441 net.cpp:399] conv3 -> conv3
I0403 13:07:34.790833 27441 net.cpp:141] Setting up conv3
I0403 13:07:34.790875 27441 net.cpp:148] Top shape: 100 384 13 13 (6489600)
I0403 13:07:34.790892 27441 net.cpp:156] Memory required for data: 705522800
I0403 13:07:34.790920 27441 layer_factory.hpp:77] Creating layer relu3
I0403 13:07:34.790946 27441 net.cpp:91] Creating Layer relu3
I0403 13:07:34.790966 27441 net.cpp:425] relu3 <- conv3
I0403 13:07:34.790985 27441 net.cpp:386] relu3 -> conv3 (in-place)
I0403 13:07:34.791275 27441 net.cpp:141] Setting up relu3
I0403 13:07:34.791307 27441 net.cpp:148] Top shape: 100 384 13 13 (6489600)
I0403 13:07:34.791326 27441 net.cpp:156] Memory required for data: 731481200
I0403 13:07:34.791342 27441 layer_factory.hpp:77] Creating layer conv4
I0403 13:07:34.791369 27441 net.cpp:91] Creating Layer conv4
I0403 13:07:34.791388 27441 net.cpp:425] conv4 <- conv3
I0403 13:07:34.791411 27441 net.cpp:399] conv4 -> conv4
I0403 13:07:34.822077 27441 net.cpp:141] Setting up conv4
I0403 13:07:34.822144 27441 net.cpp:148] Top shape: 100 384 13 13 (6489600)
I0403 13:07:34.822193 27441 net.cpp:156] Memory required for data: 757439600
I0403 13:07:34.822216 27441 layer_factory.hpp:77] Creating layer relu4
I0403 13:07:34.822238 27441 net.cpp:91] Creating Layer relu4
I0403 13:07:34.822257 27441 net.cpp:425] relu4 <- conv4
I0403 13:07:34.822280 27441 net.cpp:386] relu4 -> conv4 (in-place)
I0403 13:07:34.822579 27441 net.cpp:141] Setting up relu4
I0403 13:07:34.822608 27441 net.cpp:148] Top shape: 100 384 13 13 (6489600)
I0403 13:07:34.822625 27441 net.cpp:156] Memory required for data: 783398000
I0403 13:07:34.822641 27441 layer_factory.hpp:77] Creating layer conv5
I0403 13:07:34.822669 27441 net.cpp:91] Creating Layer conv5
I0403 13:07:34.822687 27441 net.cpp:425] conv5 <- conv4
I0403 13:07:34.822710 27441 net.cpp:399] conv5 -> conv5
I0403 13:07:34.843817 27441 net.cpp:141] Setting up conv5
I0403 13:07:34.843876 27441 net.cpp:148] Top shape: 100 256 13 13 (4326400)
I0403 13:07:34.843894 27441 net.cpp:156] Memory required for data: 800703600
I0403 13:07:34.843920 27441 layer_factory.hpp:77] Creating layer relu5
I0403 13:07:34.843942 27441 net.cpp:91] Creating Layer relu5
I0403 13:07:34.843961 27441 net.cpp:425] relu5 <- conv5
I0403 13:07:34.843984 27441 net.cpp:386] relu5 -> conv5 (in-place)
I0403 13:07:34.844266 27441 net.cpp:141] Setting up relu5
I0403 13:07:34.844305 27441 net.cpp:148] Top shape: 100 256 13 13 (4326400)
I0403 13:07:34.844324 27441 net.cpp:156] Memory required for data: 818009200
I0403 13:07:34.844341 27441 layer_factory.hpp:77] Creating layer pool5
I0403 13:07:34.844365 27441 net.cpp:91] Creating Layer pool5
I0403 13:07:34.844384 27441 net.cpp:425] pool5 <- conv5
I0403 13:07:34.844403 27441 net.cpp:399] pool5 -> pool5
I0403 13:07:34.844467 27441 net.cpp:141] Setting up pool5
I0403 13:07:34.844493 27441 net.cpp:148] Top shape: 100 256 6 6 (921600)
I0403 13:07:34.844508 27441 net.cpp:156] Memory required for data: 821695600
I0403 13:07:34.844523 27441 layer_factory.hpp:77] Creating layer fc6
I0403 13:07:34.844553 27441 net.cpp:91] Creating Layer fc6
I0403 13:07:34.844574 27441 net.cpp:425] fc6 <- pool5
I0403 13:07:34.844597 27441 net.cpp:399] fc6 -> fc6
I0403 13:07:36.428939 27441 net.cpp:141] Setting up fc6
I0403 13:07:36.429015 27441 net.cpp:148] Top shape: 100 4096 (409600)
I0403 13:07:36.429031 27441 net.cpp:156] Memory required for data: 823334000
I0403 13:07:36.429054 27441 layer_factory.hpp:77] Creating layer relu6
I0403 13:07:36.429076 27441 net.cpp:91] Creating Layer relu6
I0403 13:07:36.429095 27441 net.cpp:425] relu6 <- fc6
I0403 13:07:36.429116 27441 net.cpp:386] relu6 -> fc6 (in-place)
I0403 13:07:36.429363 27441 net.cpp:141] Setting up relu6
I0403 13:07:36.429389 27441 net.cpp:148] Top shape: 100 4096 (409600)
I0403 13:07:36.429404 27441 net.cpp:156] Memory required for data: 824972400
I0403 13:07:36.429419 27441 layer_factory.hpp:77] Creating layer drop6
I0403 13:07:36.429438 27441 net.cpp:91] Creating Layer drop6
I0403 13:07:36.429455 27441 net.cpp:425] drop6 <- fc6
I0403 13:07:36.429474 27441 net.cpp:386] drop6 -> fc6 (in-place)
I0403 13:07:36.429527 27441 net.cpp:141] Setting up drop6
I0403 13:07:36.429554 27441 net.cpp:148] Top shape: 100 4096 (409600)
I0403 13:07:36.429569 27441 net.cpp:156] Memory required for data: 826610800
I0403 13:07:36.429584 27441 layer_factory.hpp:77] Creating layer fc7
I0403 13:07:36.429603 27441 net.cpp:91] Creating Layer fc7
I0403 13:07:36.429632 27441 net.cpp:425] fc7 <- fc6
I0403 13:07:36.429652 27441 net.cpp:399] fc7 -> fc7
I0403 13:07:37.123677 27441 net.cpp:141] Setting up fc7
I0403 13:07:37.123752 27441 net.cpp:148] Top shape: 100 4096 (409600)
I0403 13:07:37.123769 27441 net.cpp:156] Memory required for data: 828249200
I0403 13:07:37.123791 27441 layer_factory.hpp:77] Creating layer relu7
I0403 13:07:37.123813 27441 net.cpp:91] Creating Layer relu7
I0403 13:07:37.123836 27441 net.cpp:425] relu7 <- fc7
I0403 13:07:37.123857 27441 net.cpp:386] relu7 -> fc7 (in-place)
I0403 13:07:37.124259 27441 net.cpp:141] Setting up relu7
I0403 13:07:37.124291 27441 net.cpp:148] Top shape: 100 4096 (409600)
I0403 13:07:37.124341 27441 net.cpp:156] Memory required for data: 829887600
I0403 13:07:37.124358 27441 layer_factory.hpp:77] Creating layer drop7
I0403 13:07:37.124377 27441 net.cpp:91] Creating Layer drop7
I0403 13:07:37.124392 27441 net.cpp:425] drop7 <- fc7
I0403 13:07:37.124413 27441 net.cpp:386] drop7 -> fc7 (in-place)
I0403 13:07:37.124456 27441 net.cpp:141] Setting up drop7
I0403 13:07:37.124482 27441 net.cpp:148] Top shape: 100 4096 (409600)
I0403 13:07:37.124497 27441 net.cpp:156] Memory required for data: 831526000
I0403 13:07:37.124513 27441 layer_factory.hpp:77] Creating layer fc8_plantvillage
I0403 13:07:37.124531 27441 net.cpp:91] Creating Layer fc8_plantvillage
I0403 13:07:37.124547 27441 net.cpp:425] fc8_plantvillage <- fc7
I0403 13:07:37.124567 27441 net.cpp:399] fc8_plantvillage -> fc8_plantvillage
I0403 13:07:37.131621 27441 net.cpp:141] Setting up fc8_plantvillage
I0403 13:07:37.131651 27441 net.cpp:148] Top shape: 100 38 (3800)
I0403 13:07:37.131669 27441 net.cpp:156] Memory required for data: 831541200
I0403 13:07:37.131686 27441 layer_factory.hpp:77] Creating layer fc8_plantvillage_fc8_plantvillage_0_split
I0403 13:07:37.131707 27441 net.cpp:91] Creating Layer fc8_plantvillage_fc8_plantvillage_0_split
I0403 13:07:37.131727 27441 net.cpp:425] fc8_plantvillage_fc8_plantvillage_0_split <- fc8_plantvillage
I0403 13:07:37.131747 27441 net.cpp:399] fc8_plantvillage_fc8_plantvillage_0_split -> fc8_plantvillage_fc8_plantvillage_0_split_0
I0403 13:07:37.131770 27441 net.cpp:399] fc8_plantvillage_fc8_plantvillage_0_split -> fc8_plantvillage_fc8_plantvillage_0_split_1
I0403 13:07:37.131791 27441 net.cpp:399] fc8_plantvillage_fc8_plantvillage_0_split -> fc8_plantvillage_fc8_plantvillage_0_split_2
I0403 13:07:37.131883 27441 net.cpp:141] Setting up fc8_plantvillage_fc8_plantvillage_0_split
I0403 13:07:37.131909 27441 net.cpp:148] Top shape: 100 38 (3800)
I0403 13:07:37.131928 27441 net.cpp:148] Top shape: 100 38 (3800)
I0403 13:07:37.131944 27441 net.cpp:148] Top shape: 100 38 (3800)
I0403 13:07:37.131959 27441 net.cpp:156] Memory required for data: 831586800
I0403 13:07:37.131975 27441 layer_factory.hpp:77] Creating layer prob
I0403 13:07:37.131994 27441 net.cpp:91] Creating Layer prob
I0403 13:07:37.132010 27441 net.cpp:425] prob <- fc8_plantvillage_fc8_plantvillage_0_split_0
I0403 13:07:37.132033 27441 net.cpp:399] prob -> prob
I0403 13:07:37.132279 27441 net.cpp:141] Setting up prob
I0403 13:07:37.132313 27441 net.cpp:148] Top shape: 100 38 (3800)
I0403 13:07:37.132328 27441 net.cpp:156] Memory required for data: 831602000
I0403 13:07:37.132342 27441 layer_factory.hpp:77] Creating layer hdf5out
I0403 13:07:37.132361 27441 net.cpp:91] Creating Layer hdf5out
I0403 13:07:37.132380 27441 net.cpp:425] hdf5out <- prob
I0403 13:07:37.132397 27441 net.cpp:425] hdf5out <- label_data_1_split_0
I0403 13:07:37.136230 27441 net.cpp:141] Setting up hdf5out
…
