…
I0403 13:21:07.081648 27822 net.cpp:313] The NetState phase (1) differed from the phase (0) specified by a rule in layer data
I0403 13:21:07.081964 27822 net.cpp:49] Initializing net from parameters: 
state {
  phase: TEST
}
layer {
  name: "data"
  type: "Data"
  top: "data"
  top: "label"
  include {
    phase: TEST
  }
  transform_param {
    crop_size: 227
    mean_file: "/home/mohanty/data/final_dataset/lmdb/color-60-40/mean.binaryproto"
  }
  data_param {
    source: "/home/mohanty/data/final_dataset/lmdb/color-60-40/test_db"
    batch_size: 100
    backend: LMDB
  }
}
layer {
  name: "conv1"
  type: "Convolution"
  bottom: "data"
  top: "conv1"
  param {
    lr_mult: 1
    decay_mult: 1
  }
  param {
    lr_mult: 2
    decay_mult: 0
  }
  convolution_param {
    num_output: 96
    kernel_size: 11
    stride: 4
    weight_filler {
      type: "gaussian"
      std: 0.01
    }
    bias_filler {
      type: "constant"
      value: 0
    }
  }
}
layer {
  name: "relu1"
  type: "ReLU"
  bottom: "conv1"
  top: "conv1"
}
layer {
  name: "norm1"
  type: "LRN"
  bottom: "conv1"
  top: "norm1"
  lrn_param {
    local_size: 5
    alpha: 0.0001
    beta: 0.75
  }
}
layer {
  name: "pool1"
  type: "Pooling"
  bottom: "norm1"
  top: "pool1"
  pooling_param {
    pool: MAX
    kernel_size: 3
    stride: 2
  }
}
layer {
  name: "conv2"
  type: "Convolution"
  bottom: "pool1"
  top: "conv2"
  param {
    lr_mult: 1
    decay_mult: 1
  }
  param {
    lr_mult: 2
    decay_mult: 0
  }
  convolution_param {
    num_output: 256
    pad: 2
    kernel_size: 5
    group: 2
    weight_filler {
      type: "gaussian"
      std: 0.01
    }
    bias_filler {
      type: "constant"
      value: 0.1
    }
  }
}
layer {
  name: "relu2"
  type: "ReLU"
  bottom: "conv2"
  top: "conv2"
}
layer {
  name: "norm2"
  type: "LRN"
  bottom: "conv2"
  top: "norm2"
  lrn_param {
    local_size: 5
    alpha: 0.0001
    beta: 0.75
  }
}
layer {
  name: "pool2"
  type: "Pooling"
  bottom: "norm2"
  top: "pool2"
  pooling_param {
    pool: MAX
    kernel_size: 3
    stride: 2
  }
}
layer {
  name: "conv3"
  type: "Convolution"
  bottom: "pool2"
  top: "conv3"
  param {
    lr_mult: 1
    decay_mult: 1
  }
  param {
    lr_mult: 2
    decay_mult: 0
  }
  convolution_param {
    num_output: 384
    pad: 1
    kernel_size: 3
    weight_filler {
      type: "gaussian"
      std: 0.01
    }
    bias_filler {
      type: "constant"
      value: 0
    }
  }
}
layer {
  name: "relu3"
  type: "ReLU"
  bottom: "conv3"
  top: "conv3"
}
layer {
  name: "conv4"
  type: "Convolution"
  bottom: "conv3"
  top: "conv4"
  param {
    lr_mult: 1
    decay_mult: 1
  }
  param {
    lr_mult: 2
    decay_mult: 0
  }
  convolution_param {
    num_output: 384
    pad: 1
    kernel_size: 3
    group: 2
    weight_filler {
      type: "gaussian"
      std: 0.01
    }
    bias_filler {
      type: "constant"
      value: 0.1
    }
  }
}
layer {
  name: "relu4"
  type: "ReLU"
  bottom: "conv4"
  top: "conv4"
}
layer {
  name: "conv5"
  type: "Convolution"
  bottom: "conv4"
  top: "conv5"
  param {
    lr_mult: 1
    decay_mult: 1
  }
  param {
    lr_mult: 2
    decay_mult: 0
  }
  convolution_param {
    num_output: 256
    pad: 1
    kernel_size: 3
    group: 2
    weight_filler {
      type: "gaussian"
      std: 0.01
    }
    bias_filler {
      type: "constant"
      value: 0.1
    }
  }
}
layer {
  name: "relu5"
  type: "ReLU"
  bottom: "conv5"
  top: "conv5"
}
layer {
  name: "pool5"
  type: "Pooling"
  bottom: "conv5"
  top: "pool5"
  pooling_param {
    pool: MAX
    kernel_size: 3
    stride: 2
  }
}
layer {
  name: "fc6"
  type: "InnerProduct"
  bottom: "pool5"
  top: "fc6"
  param {
    lr_mult: 1
    decay_mult: 1
  }
  param {
    lr_mult: 2
    decay_mult: 0
  }
  inner_product_param {
    num_output: 4096
    weight_filler {
      type: "gaussian"
      std: 0.005
    }
    bias_filler {
      type: "constant"
      value: 0.1
    }
  }
}
layer {
  name: "relu6"
  type: "ReLU"
  bottom: "fc6"
  top: "fc6"
}
layer {
  name: "drop6"
  type: "Dropout"
  bottom: "fc6"
  top: "fc6"
  dropout_param {
    dropout_ratio: 0.5
  }
}
layer {
  name: "fc7"
  type: "InnerProduct"
  bottom: "fc6"
  top: "fc7"
  param {
    lr_mult: 1
    decay_mult: 1
  }
  param {
    lr_mult: 2
    decay_mult: 0
  }
  inner_product_param {
    num_output: 4096
    weight_filler {
      type: "gaussian"
      std: 0.005
    }
    bias_filler {
      type: "constant"
      value: 0.1
    }
  }
}
layer {
  name: "relu7"
  type: "ReLU"
  bottom: "fc7"
  top: "fc7"
}
layer {
  name: "drop7"
  type: "Dropout"
  bottom: "fc7"
  top: "fc7"
  dropout_param {
    dropout_ratio: 0.5
  }
}
layer {
  name: "fc8_plantvillage"
  type: "InnerProduct"
  bottom: "fc7"
  top: "fc8_plantvillage"
  param {
    lr_mult: 1
    decay_mult: 1
  }
  param {
    lr_mult: 2
    decay_mult: 0
  }
  inner_product_param {
    num_output: 38
    weight_filler {
      type: "gaussian"
      std: 0.01
    }
    bias_filler {
      type: "constant"
      value: 0
    }
  }
}
layer {
  name: "prob"
  type: "Softmax"
  bottom: "fc8_plantvillage"
  top: "prob"
  include {
    phase: TEST
  }
}
layer {
  name: "hdf5out"
  type: "HDF5Output"
  bottom: "prob"
  bottom: "label"
  include {
    phase: TEST
  }
  hdf5_output_param {
    file_name: "hdf5_dumps/iter_7150.h5"
  }
}
layer {
  name: "loss"
  type: "SoftmaxWithLoss"
  bottom: "fc8_plantvillage"
  bottom: "label"
  top: "loss"
}
layer {
  name: "accuracy"
  type: "Accuracy"
  bottom: "fc8_plantvillage"
  bottom: "label"
  top: "accuracy"
  include {
    phase: TEST
  }
}
I0403 13:21:07.082573 27822 layer_factory.hpp:77] Creating layer data
I0403 13:21:07.083233 27822 net.cpp:91] Creating Layer data
I0403 13:21:07.083266 27822 net.cpp:399] data -> data
I0403 13:21:07.083325 27822 net.cpp:399] data -> label
I0403 13:21:07.083366 27822 data_transformer.cpp:25] Loading mean file from: /home/mohanty/data/final_dataset/lmdb/color-60-40/mean.binaryproto
I0403 13:21:07.085945 27827 db_lmdb.cpp:38] Opened lmdb /home/mohanty/data/final_dataset/lmdb/color-60-40/test_db
I0403 13:21:07.097980 27822 data_layer.cpp:41] output data size: 100,3,227,227
I0403 13:21:07.233727 27822 net.cpp:141] Setting up data
I0403 13:21:07.233820 27822 net.cpp:148] Top shape: 100 3 227 227 (15458700)
I0403 13:21:07.233844 27822 net.cpp:148] Top shape: 100 (100)
I0403 13:21:07.233861 27822 net.cpp:156] Memory required for data: 61835200
I0403 13:21:07.233891 27822 layer_factory.hpp:77] Creating layer label_data_1_split
I0403 13:21:07.233917 27822 net.cpp:91] Creating Layer label_data_1_split
I0403 13:21:07.233937 27822 net.cpp:425] label_data_1_split <- label
I0403 13:21:07.233970 27822 net.cpp:399] label_data_1_split -> label_data_1_split_0
I0403 13:21:07.233999 27822 net.cpp:399] label_data_1_split -> label_data_1_split_1
I0403 13:21:07.234019 27822 net.cpp:399] label_data_1_split -> label_data_1_split_2
I0403 13:21:07.234084 27822 net.cpp:141] Setting up label_data_1_split
I0403 13:21:07.234110 27822 net.cpp:148] Top shape: 100 (100)
I0403 13:21:07.234128 27822 net.cpp:148] Top shape: 100 (100)
I0403 13:21:07.234145 27822 net.cpp:148] Top shape: 100 (100)
I0403 13:21:07.234160 27822 net.cpp:156] Memory required for data: 61836400
I0403 13:21:07.234176 27822 layer_factory.hpp:77] Creating layer conv1
I0403 13:21:07.234208 27822 net.cpp:91] Creating Layer conv1
I0403 13:21:07.234228 27822 net.cpp:425] conv1 <- data
I0403 13:21:07.234248 27822 net.cpp:399] conv1 -> conv1
I0403 13:21:07.385406 27822 net.cpp:141] Setting up conv1
I0403 13:21:07.385481 27822 net.cpp:148] Top shape: 100 96 55 55 (29040000)
I0403 13:21:07.385499 27822 net.cpp:156] Memory required for data: 177996400
I0403 13:21:07.385529 27822 layer_factory.hpp:77] Creating layer relu1
I0403 13:21:07.385558 27822 net.cpp:91] Creating Layer relu1
I0403 13:21:07.385578 27822 net.cpp:425] relu1 <- conv1
I0403 13:21:07.385598 27822 net.cpp:386] relu1 -> conv1 (in-place)
I0403 13:21:07.385886 27822 net.cpp:141] Setting up relu1
I0403 13:21:07.385915 27822 net.cpp:148] Top shape: 100 96 55 55 (29040000)
I0403 13:21:07.385931 27822 net.cpp:156] Memory required for data: 294156400
I0403 13:21:07.385990 27822 layer_factory.hpp:77] Creating layer norm1
I0403 13:21:07.386020 27822 net.cpp:91] Creating Layer norm1
I0403 13:21:07.386039 27822 net.cpp:425] norm1 <- conv1
I0403 13:21:07.386060 27822 net.cpp:399] norm1 -> norm1
I0403 13:21:07.386446 27822 net.cpp:141] Setting up norm1
I0403 13:21:07.386479 27822 net.cpp:148] Top shape: 100 96 55 55 (29040000)
I0403 13:21:07.386497 27822 net.cpp:156] Memory required for data: 410316400
I0403 13:21:07.386513 27822 layer_factory.hpp:77] Creating layer pool1
I0403 13:21:07.386535 27822 net.cpp:91] Creating Layer pool1
I0403 13:21:07.386553 27822 net.cpp:425] pool1 <- norm1
I0403 13:21:07.386572 27822 net.cpp:399] pool1 -> pool1
I0403 13:21:07.386641 27822 net.cpp:141] Setting up pool1
I0403 13:21:07.386667 27822 net.cpp:148] Top shape: 100 96 27 27 (6998400)
I0403 13:21:07.386682 27822 net.cpp:156] Memory required for data: 438310000
I0403 13:21:07.386698 27822 layer_factory.hpp:77] Creating layer conv2
I0403 13:21:07.386723 27822 net.cpp:91] Creating Layer conv2
I0403 13:21:07.386740 27822 net.cpp:425] conv2 <- pool1
I0403 13:21:07.386761 27822 net.cpp:399] conv2 -> conv2
I0403 13:21:07.402015 27822 net.cpp:141] Setting up conv2
I0403 13:21:07.402060 27822 net.cpp:148] Top shape: 100 256 27 27 (18662400)
I0403 13:21:07.402078 27822 net.cpp:156] Memory required for data: 512959600
I0403 13:21:07.402101 27822 layer_factory.hpp:77] Creating layer relu2
I0403 13:21:07.402120 27822 net.cpp:91] Creating Layer relu2
I0403 13:21:07.402135 27822 net.cpp:425] relu2 <- conv2
I0403 13:21:07.402153 27822 net.cpp:386] relu2 -> conv2 (in-place)
I0403 13:21:07.402456 27822 net.cpp:141] Setting up relu2
I0403 13:21:07.402485 27822 net.cpp:148] Top shape: 100 256 27 27 (18662400)
I0403 13:21:07.402500 27822 net.cpp:156] Memory required for data: 587609200
I0403 13:21:07.402516 27822 layer_factory.hpp:77] Creating layer norm2
I0403 13:21:07.402540 27822 net.cpp:91] Creating Layer norm2
I0403 13:21:07.402557 27822 net.cpp:425] norm2 <- conv2
I0403 13:21:07.402576 27822 net.cpp:399] norm2 -> norm2
I0403 13:21:07.402778 27822 net.cpp:141] Setting up norm2
I0403 13:21:07.402808 27822 net.cpp:148] Top shape: 100 256 27 27 (18662400)
I0403 13:21:07.402824 27822 net.cpp:156] Memory required for data: 662258800
I0403 13:21:07.402839 27822 layer_factory.hpp:77] Creating layer pool2
I0403 13:21:07.402858 27822 net.cpp:91] Creating Layer pool2
I0403 13:21:07.402874 27822 net.cpp:425] pool2 <- norm2
I0403 13:21:07.402892 27822 net.cpp:399] pool2 -> pool2
I0403 13:21:07.402947 27822 net.cpp:141] Setting up pool2
I0403 13:21:07.402984 27822 net.cpp:148] Top shape: 100 256 13 13 (4326400)
I0403 13:21:07.403000 27822 net.cpp:156] Memory required for data: 679564400
I0403 13:21:07.403015 27822 layer_factory.hpp:77] Creating layer conv3
I0403 13:21:07.403040 27822 net.cpp:91] Creating Layer conv3
I0403 13:21:07.403059 27822 net.cpp:425] conv3 <- pool2
I0403 13:21:07.403082 27822 net.cpp:399] conv3 -> conv3
I0403 13:21:07.450775 27822 net.cpp:141] Setting up conv3
I0403 13:21:07.450853 27822 net.cpp:148] Top shape: 100 384 13 13 (6489600)
I0403 13:21:07.450871 27822 net.cpp:156] Memory required for data: 705522800
I0403 13:21:07.450898 27822 layer_factory.hpp:77] Creating layer relu3
I0403 13:21:07.450922 27822 net.cpp:91] Creating Layer relu3
I0403 13:21:07.450939 27822 net.cpp:425] relu3 <- conv3
I0403 13:21:07.450961 27822 net.cpp:386] relu3 -> conv3 (in-place)
I0403 13:21:07.451237 27822 net.cpp:141] Setting up relu3
I0403 13:21:07.451267 27822 net.cpp:148] Top shape: 100 384 13 13 (6489600)
I0403 13:21:07.451287 27822 net.cpp:156] Memory required for data: 731481200
I0403 13:21:07.451305 27822 layer_factory.hpp:77] Creating layer conv4
I0403 13:21:07.451333 27822 net.cpp:91] Creating Layer conv4
I0403 13:21:07.451350 27822 net.cpp:425] conv4 <- conv3
I0403 13:21:07.451370 27822 net.cpp:399] conv4 -> conv4
I0403 13:21:07.481984 27822 net.cpp:141] Setting up conv4
I0403 13:21:07.482055 27822 net.cpp:148] Top shape: 100 384 13 13 (6489600)
I0403 13:21:07.482105 27822 net.cpp:156] Memory required for data: 757439600
I0403 13:21:07.482128 27822 layer_factory.hpp:77] Creating layer relu4
I0403 13:21:07.482197 27822 net.cpp:91] Creating Layer relu4
I0403 13:21:07.482221 27822 net.cpp:425] relu4 <- conv4
I0403 13:21:07.482242 27822 net.cpp:386] relu4 -> conv4 (in-place)
I0403 13:21:07.482534 27822 net.cpp:141] Setting up relu4
I0403 13:21:07.482561 27822 net.cpp:148] Top shape: 100 384 13 13 (6489600)
I0403 13:21:07.482578 27822 net.cpp:156] Memory required for data: 783398000
I0403 13:21:07.482594 27822 layer_factory.hpp:77] Creating layer conv5
I0403 13:21:07.482621 27822 net.cpp:91] Creating Layer conv5
I0403 13:21:07.482640 27822 net.cpp:425] conv5 <- conv4
I0403 13:21:07.482658 27822 net.cpp:399] conv5 -> conv5
I0403 13:21:07.503788 27822 net.cpp:141] Setting up conv5
I0403 13:21:07.503844 27822 net.cpp:148] Top shape: 100 256 13 13 (4326400)
I0403 13:21:07.503860 27822 net.cpp:156] Memory required for data: 800703600
I0403 13:21:07.503886 27822 layer_factory.hpp:77] Creating layer relu5
I0403 13:21:07.503908 27822 net.cpp:91] Creating Layer relu5
I0403 13:21:07.503926 27822 net.cpp:425] relu5 <- conv5
I0403 13:21:07.503945 27822 net.cpp:386] relu5 -> conv5 (in-place)
I0403 13:21:07.504226 27822 net.cpp:141] Setting up relu5
I0403 13:21:07.504257 27822 net.cpp:148] Top shape: 100 256 13 13 (4326400)
I0403 13:21:07.504274 27822 net.cpp:156] Memory required for data: 818009200
I0403 13:21:07.504302 27822 layer_factory.hpp:77] Creating layer pool5
I0403 13:21:07.504329 27822 net.cpp:91] Creating Layer pool5
I0403 13:21:07.504346 27822 net.cpp:425] pool5 <- conv5
I0403 13:21:07.504369 27822 net.cpp:399] pool5 -> pool5
I0403 13:21:07.504433 27822 net.cpp:141] Setting up pool5
I0403 13:21:07.504458 27822 net.cpp:148] Top shape: 100 256 6 6 (921600)
I0403 13:21:07.504474 27822 net.cpp:156] Memory required for data: 821695600
I0403 13:21:07.504490 27822 layer_factory.hpp:77] Creating layer fc6
I0403 13:21:07.504523 27822 net.cpp:91] Creating Layer fc6
I0403 13:21:07.504541 27822 net.cpp:425] fc6 <- pool5
I0403 13:21:07.504564 27822 net.cpp:399] fc6 -> fc6
I0403 13:21:09.077791 27822 net.cpp:141] Setting up fc6
I0403 13:21:09.077873 27822 net.cpp:148] Top shape: 100 4096 (409600)
I0403 13:21:09.077891 27822 net.cpp:156] Memory required for data: 823334000
I0403 13:21:09.077913 27822 layer_factory.hpp:77] Creating layer relu6
I0403 13:21:09.077937 27822 net.cpp:91] Creating Layer relu6
I0403 13:21:09.077957 27822 net.cpp:425] relu6 <- fc6
I0403 13:21:09.077978 27822 net.cpp:386] relu6 -> fc6 (in-place)
I0403 13:21:09.078207 27822 net.cpp:141] Setting up relu6
I0403 13:21:09.078234 27822 net.cpp:148] Top shape: 100 4096 (409600)
I0403 13:21:09.078250 27822 net.cpp:156] Memory required for data: 824972400
I0403 13:21:09.078274 27822 layer_factory.hpp:77] Creating layer drop6
I0403 13:21:09.078294 27822 net.cpp:91] Creating Layer drop6
I0403 13:21:09.078310 27822 net.cpp:425] drop6 <- fc6
I0403 13:21:09.078327 27822 net.cpp:386] drop6 -> fc6 (in-place)
I0403 13:21:09.078382 27822 net.cpp:141] Setting up drop6
I0403 13:21:09.078407 27822 net.cpp:148] Top shape: 100 4096 (409600)
I0403 13:21:09.078421 27822 net.cpp:156] Memory required for data: 826610800
I0403 13:21:09.078436 27822 layer_factory.hpp:77] Creating layer fc7
I0403 13:21:09.078459 27822 net.cpp:91] Creating Layer fc7
I0403 13:21:09.078476 27822 net.cpp:425] fc7 <- fc6
I0403 13:21:09.078495 27822 net.cpp:399] fc7 -> fc7
I0403 13:21:09.763159 27822 net.cpp:141] Setting up fc7
I0403 13:21:09.763233 27822 net.cpp:148] Top shape: 100 4096 (409600)
I0403 13:21:09.763249 27822 net.cpp:156] Memory required for data: 828249200
I0403 13:21:09.763286 27822 layer_factory.hpp:77] Creating layer relu7
I0403 13:21:09.763312 27822 net.cpp:91] Creating Layer relu7
I0403 13:21:09.763332 27822 net.cpp:425] relu7 <- fc7
I0403 13:21:09.763352 27822 net.cpp:386] relu7 -> fc7 (in-place)
I0403 13:21:09.763738 27822 net.cpp:141] Setting up relu7
I0403 13:21:09.763768 27822 net.cpp:148] Top shape: 100 4096 (409600)
I0403 13:21:09.763834 27822 net.cpp:156] Memory required for data: 829887600
I0403 13:21:09.763852 27822 layer_factory.hpp:77] Creating layer drop7
I0403 13:21:09.763872 27822 net.cpp:91] Creating Layer drop7
I0403 13:21:09.763888 27822 net.cpp:425] drop7 <- fc7
I0403 13:21:09.763906 27822 net.cpp:386] drop7 -> fc7 (in-place)
I0403 13:21:09.763954 27822 net.cpp:141] Setting up drop7
I0403 13:21:09.763979 27822 net.cpp:148] Top shape: 100 4096 (409600)
I0403 13:21:09.763994 27822 net.cpp:156] Memory required for data: 831526000
I0403 13:21:09.764010 27822 layer_factory.hpp:77] Creating layer fc8_plantvillage
I0403 13:21:09.764034 27822 net.cpp:91] Creating Layer fc8_plantvillage
I0403 13:21:09.764050 27822 net.cpp:425] fc8_plantvillage <- fc7
I0403 13:21:09.764068 27822 net.cpp:399] fc8_plantvillage -> fc8_plantvillage
I0403 13:21:09.770963 27822 net.cpp:141] Setting up fc8_plantvillage
I0403 13:21:09.770993 27822 net.cpp:148] Top shape: 100 38 (3800)
I0403 13:21:09.771009 27822 net.cpp:156] Memory required for data: 831541200
I0403 13:21:09.771028 27822 layer_factory.hpp:77] Creating layer fc8_plantvillage_fc8_plantvillage_0_split
I0403 13:21:09.771046 27822 net.cpp:91] Creating Layer fc8_plantvillage_fc8_plantvillage_0_split
I0403 13:21:09.771062 27822 net.cpp:425] fc8_plantvillage_fc8_plantvillage_0_split <- fc8_plantvillage
I0403 13:21:09.771080 27822 net.cpp:399] fc8_plantvillage_fc8_plantvillage_0_split -> fc8_plantvillage_fc8_plantvillage_0_split_0
I0403 13:21:09.771103 27822 net.cpp:399] fc8_plantvillage_fc8_plantvillage_0_split -> fc8_plantvillage_fc8_plantvillage_0_split_1
I0403 13:21:09.771126 27822 net.cpp:399] fc8_plantvillage_fc8_plantvillage_0_split -> fc8_plantvillage_fc8_plantvillage_0_split_2
I0403 13:21:09.771203 27822 net.cpp:141] Setting up fc8_plantvillage_fc8_plantvillage_0_split
I0403 13:21:09.771227 27822 net.cpp:148] Top shape: 100 38 (3800)
I0403 13:21:09.771245 27822 net.cpp:148] Top shape: 100 38 (3800)
I0403 13:21:09.771266 27822 net.cpp:148] Top shape: 100 38 (3800)
I0403 13:21:09.771281 27822 net.cpp:156] Memory required for data: 831586800
I0403 13:21:09.771296 27822 layer_factory.hpp:77] Creating layer prob
I0403 13:21:09.771316 27822 net.cpp:91] Creating Layer prob
I0403 13:21:09.771332 27822 net.cpp:425] prob <- fc8_plantvillage_fc8_plantvillage_0_split_0
I0403 13:21:09.771350 27822 net.cpp:399] prob -> prob
I0403 13:21:09.771575 27822 net.cpp:141] Setting up prob
I0403 13:21:09.771601 27822 net.cpp:148] Top shape: 100 38 (3800)
I0403 13:21:09.771617 27822 net.cpp:156] Memory required for data: 831602000
I0403 13:21:09.771633 27822 layer_factory.hpp:77] Creating layer hdf5out
I0403 13:21:09.771656 27822 net.cpp:91] Creating Layer hdf5out
I0403 13:21:09.771672 27822 net.cpp:425] hdf5out <- prob
I0403 13:21:09.771689 27822 net.cpp:425] hdf5out <- label_data_1_split_0
I0403 13:21:09.775332 27822 net.cpp:141] Setting up hdf5out
…
