…
I0403 13:09:57.715484 27515 net.cpp:313] The NetState phase (1) differed from the phase (0) specified by a rule in layer data
I0403 13:09:57.715796 27515 net.cpp:49] Initializing net from parameters: 
state {
  phase: TEST
}
layer {
  name: "data"
  type: "Data"
  top: "data"
  top: "label"
  include {
    phase: TEST
  }
  transform_param {
    crop_size: 227
    mean_file: "/home/mohanty/data/final_dataset/lmdb/color-60-40/mean.binaryproto"
  }
  data_param {
    source: "/home/mohanty/data/final_dataset/lmdb/color-60-40/test_db"
    batch_size: 100
    backend: LMDB
  }
}
layer {
  name: "conv1"
  type: "Convolution"
  bottom: "data"
  top: "conv1"
  param {
    lr_mult: 1
    decay_mult: 1
  }
  param {
    lr_mult: 2
    decay_mult: 0
  }
  convolution_param {
    num_output: 96
    kernel_size: 11
    stride: 4
    weight_filler {
      type: "gaussian"
      std: 0.01
    }
    bias_filler {
      type: "constant"
      value: 0
    }
  }
}
layer {
  name: "relu1"
  type: "ReLU"
  bottom: "conv1"
  top: "conv1"
}
layer {
  name: "norm1"
  type: "LRN"
  bottom: "conv1"
  top: "norm1"
  lrn_param {
    local_size: 5
    alpha: 0.0001
    beta: 0.75
  }
}
layer {
  name: "pool1"
  type: "Pooling"
  bottom: "norm1"
  top: "pool1"
  pooling_param {
    pool: MAX
    kernel_size: 3
    stride: 2
  }
}
layer {
  name: "conv2"
  type: "Convolution"
  bottom: "pool1"
  top: "conv2"
  param {
    lr_mult: 1
    decay_mult: 1
  }
  param {
    lr_mult: 2
    decay_mult: 0
  }
  convolution_param {
    num_output: 256
    pad: 2
    kernel_size: 5
    group: 2
    weight_filler {
      type: "gaussian"
      std: 0.01
    }
    bias_filler {
      type: "constant"
      value: 0.1
    }
  }
}
layer {
  name: "relu2"
  type: "ReLU"
  bottom: "conv2"
  top: "conv2"
}
layer {
  name: "norm2"
  type: "LRN"
  bottom: "conv2"
  top: "norm2"
  lrn_param {
    local_size: 5
    alpha: 0.0001
    beta: 0.75
  }
}
layer {
  name: "pool2"
  type: "Pooling"
  bottom: "norm2"
  top: "pool2"
  pooling_param {
    pool: MAX
    kernel_size: 3
    stride: 2
  }
}
layer {
  name: "conv3"
  type: "Convolution"
  bottom: "pool2"
  top: "conv3"
  param {
    lr_mult: 1
    decay_mult: 1
  }
  param {
    lr_mult: 2
    decay_mult: 0
  }
  convolution_param {
    num_output: 384
    pad: 1
    kernel_size: 3
    weight_filler {
      type: "gaussian"
      std: 0.01
    }
    bias_filler {
      type: "constant"
      value: 0
    }
  }
}
layer {
  name: "relu3"
  type: "ReLU"
  bottom: "conv3"
  top: "conv3"
}
layer {
  name: "conv4"
  type: "Convolution"
  bottom: "conv3"
  top: "conv4"
  param {
    lr_mult: 1
    decay_mult: 1
  }
  param {
    lr_mult: 2
    decay_mult: 0
  }
  convolution_param {
    num_output: 384
    pad: 1
    kernel_size: 3
    group: 2
    weight_filler {
      type: "gaussian"
      std: 0.01
    }
    bias_filler {
      type: "constant"
      value: 0.1
    }
  }
}
layer {
  name: "relu4"
  type: "ReLU"
  bottom: "conv4"
  top: "conv4"
}
layer {
  name: "conv5"
  type: "Convolution"
  bottom: "conv4"
  top: "conv5"
  param {
    lr_mult: 1
    decay_mult: 1
  }
  param {
    lr_mult: 2
    decay_mult: 0
  }
  convolution_param {
    num_output: 256
    pad: 1
    kernel_size: 3
    group: 2
    weight_filler {
      type: "gaussian"
      std: 0.01
    }
    bias_filler {
      type: "constant"
      value: 0.1
    }
  }
}
layer {
  name: "relu5"
  type: "ReLU"
  bottom: "conv5"
  top: "conv5"
}
layer {
  name: "pool5"
  type: "Pooling"
  bottom: "conv5"
  top: "pool5"
  pooling_param {
    pool: MAX
    kernel_size: 3
    stride: 2
  }
}
layer {
  name: "fc6"
  type: "InnerProduct"
  bottom: "pool5"
  top: "fc6"
  param {
    lr_mult: 1
    decay_mult: 1
  }
  param {
    lr_mult: 2
    decay_mult: 0
  }
  inner_product_param {
    num_output: 4096
    weight_filler {
      type: "gaussian"
      std: 0.005
    }
    bias_filler {
      type: "constant"
      value: 0.1
    }
  }
}
layer {
  name: "relu6"
  type: "ReLU"
  bottom: "fc6"
  top: "fc6"
}
layer {
  name: "drop6"
  type: "Dropout"
  bottom: "fc6"
  top: "fc6"
  dropout_param {
    dropout_ratio: 0.5
  }
}
layer {
  name: "fc7"
  type: "InnerProduct"
  bottom: "fc6"
  top: "fc7"
  param {
    lr_mult: 1
    decay_mult: 1
  }
  param {
    lr_mult: 2
    decay_mult: 0
  }
  inner_product_param {
    num_output: 4096
    weight_filler {
      type: "gaussian"
      std: 0.005
    }
    bias_filler {
      type: "constant"
      value: 0.1
    }
  }
}
layer {
  name: "relu7"
  type: "ReLU"
  bottom: "fc7"
  top: "fc7"
}
layer {
  name: "drop7"
  type: "Dropout"
  bottom: "fc7"
  top: "fc7"
  dropout_param {
    dropout_ratio: 0.5
  }
}
layer {
  name: "fc8_plantvillage"
  type: "InnerProduct"
  bottom: "fc7"
  top: "fc8_plantvillage"
  param {
    lr_mult: 1
    decay_mult: 1
  }
  param {
    lr_mult: 2
    decay_mult: 0
  }
  inner_product_param {
    num_output: 38
    weight_filler {
      type: "gaussian"
      std: 0.01
    }
    bias_filler {
      type: "constant"
      value: 0
    }
  }
}
layer {
  name: "prob"
  type: "Softmax"
  bottom: "fc8_plantvillage"
  top: "prob"
  include {
    phase: TEST
  }
}
layer {
  name: "hdf5out"
  type: "HDF5Output"
  bottom: "prob"
  bottom: "label"
  include {
    phase: TEST
  }
  hdf5_output_param {
    file_name: "hdf5_dumps/iter_2600.h5"
  }
}
layer {
  name: "loss"
  type: "SoftmaxWithLoss"
  bottom: "fc8_plantvillage"
  bottom: "label"
  top: "loss"
}
layer {
  name: "accuracy"
  type: "Accuracy"
  bottom: "fc8_plantvillage"
  bottom: "label"
  top: "accuracy"
  include {
    phase: TEST
  }
}
I0403 13:09:57.716363 27515 layer_factory.hpp:77] Creating layer data
I0403 13:09:57.717034 27515 net.cpp:91] Creating Layer data
I0403 13:09:57.717067 27515 net.cpp:399] data -> data
I0403 13:09:57.717120 27515 net.cpp:399] data -> label
I0403 13:09:57.717159 27515 data_transformer.cpp:25] Loading mean file from: /home/mohanty/data/final_dataset/lmdb/color-60-40/mean.binaryproto
I0403 13:09:57.720075 27518 db_lmdb.cpp:38] Opened lmdb /home/mohanty/data/final_dataset/lmdb/color-60-40/test_db
I0403 13:09:57.731961 27515 data_layer.cpp:41] output data size: 100,3,227,227
I0403 13:09:57.869819 27515 net.cpp:141] Setting up data
I0403 13:09:57.869916 27515 net.cpp:148] Top shape: 100 3 227 227 (15458700)
I0403 13:09:57.869940 27515 net.cpp:148] Top shape: 100 (100)
I0403 13:09:57.869957 27515 net.cpp:156] Memory required for data: 61835200
I0403 13:09:57.869987 27515 layer_factory.hpp:77] Creating layer label_data_1_split
I0403 13:09:57.870014 27515 net.cpp:91] Creating Layer label_data_1_split
I0403 13:09:57.870034 27515 net.cpp:425] label_data_1_split <- label
I0403 13:09:57.870069 27515 net.cpp:399] label_data_1_split -> label_data_1_split_0
I0403 13:09:57.870097 27515 net.cpp:399] label_data_1_split -> label_data_1_split_1
I0403 13:09:57.870120 27515 net.cpp:399] label_data_1_split -> label_data_1_split_2
I0403 13:09:57.870185 27515 net.cpp:141] Setting up label_data_1_split
I0403 13:09:57.870209 27515 net.cpp:148] Top shape: 100 (100)
I0403 13:09:57.870228 27515 net.cpp:148] Top shape: 100 (100)
I0403 13:09:57.870244 27515 net.cpp:148] Top shape: 100 (100)
I0403 13:09:57.870266 27515 net.cpp:156] Memory required for data: 61836400
I0403 13:09:57.870285 27515 layer_factory.hpp:77] Creating layer conv1
I0403 13:09:57.870318 27515 net.cpp:91] Creating Layer conv1
I0403 13:09:57.870337 27515 net.cpp:425] conv1 <- data
I0403 13:09:57.870357 27515 net.cpp:399] conv1 -> conv1
I0403 13:09:58.017361 27515 net.cpp:141] Setting up conv1
I0403 13:09:58.017437 27515 net.cpp:148] Top shape: 100 96 55 55 (29040000)
I0403 13:09:58.017457 27515 net.cpp:156] Memory required for data: 177996400
I0403 13:09:58.017488 27515 layer_factory.hpp:77] Creating layer relu1
I0403 13:09:58.017518 27515 net.cpp:91] Creating Layer relu1
I0403 13:09:58.017536 27515 net.cpp:425] relu1 <- conv1
I0403 13:09:58.017556 27515 net.cpp:386] relu1 -> conv1 (in-place)
I0403 13:09:58.017807 27515 net.cpp:141] Setting up relu1
I0403 13:09:58.017835 27515 net.cpp:148] Top shape: 100 96 55 55 (29040000)
I0403 13:09:58.017853 27515 net.cpp:156] Memory required for data: 294156400
I0403 13:09:58.017899 27515 layer_factory.hpp:77] Creating layer norm1
I0403 13:09:58.017942 27515 net.cpp:91] Creating Layer norm1
I0403 13:09:58.017963 27515 net.cpp:425] norm1 <- conv1
I0403 13:09:58.017984 27515 net.cpp:399] norm1 -> norm1
I0403 13:09:58.018307 27515 net.cpp:141] Setting up norm1
I0403 13:09:58.018337 27515 net.cpp:148] Top shape: 100 96 55 55 (29040000)
I0403 13:09:58.018353 27515 net.cpp:156] Memory required for data: 410316400
I0403 13:09:58.018369 27515 layer_factory.hpp:77] Creating layer pool1
I0403 13:09:58.018393 27515 net.cpp:91] Creating Layer pool1
I0403 13:09:58.018410 27515 net.cpp:425] pool1 <- norm1
I0403 13:09:58.018429 27515 net.cpp:399] pool1 -> pool1
I0403 13:09:58.018496 27515 net.cpp:141] Setting up pool1
I0403 13:09:58.018523 27515 net.cpp:148] Top shape: 100 96 27 27 (6998400)
I0403 13:09:58.018539 27515 net.cpp:156] Memory required for data: 438310000
I0403 13:09:58.018555 27515 layer_factory.hpp:77] Creating layer conv2
I0403 13:09:58.018579 27515 net.cpp:91] Creating Layer conv2
I0403 13:09:58.018597 27515 net.cpp:425] conv2 <- pool1
I0403 13:09:58.018616 27515 net.cpp:399] conv2 -> conv2
I0403 13:09:58.034020 27515 net.cpp:141] Setting up conv2
I0403 13:09:58.034070 27515 net.cpp:148] Top shape: 100 256 27 27 (18662400)
I0403 13:09:58.034088 27515 net.cpp:156] Memory required for data: 512959600
I0403 13:09:58.034116 27515 layer_factory.hpp:77] Creating layer relu2
I0403 13:09:58.034137 27515 net.cpp:91] Creating Layer relu2
I0403 13:09:58.034155 27515 net.cpp:425] relu2 <- conv2
I0403 13:09:58.034174 27515 net.cpp:386] relu2 -> conv2 (in-place)
I0403 13:09:58.034471 27515 net.cpp:141] Setting up relu2
I0403 13:09:58.034502 27515 net.cpp:148] Top shape: 100 256 27 27 (18662400)
I0403 13:09:58.034521 27515 net.cpp:156] Memory required for data: 587609200
I0403 13:09:58.034538 27515 layer_factory.hpp:77] Creating layer norm2
I0403 13:09:58.034559 27515 net.cpp:91] Creating Layer norm2
I0403 13:09:58.034579 27515 net.cpp:425] norm2 <- conv2
I0403 13:09:58.034600 27515 net.cpp:399] norm2 -> norm2
I0403 13:09:58.034801 27515 net.cpp:141] Setting up norm2
I0403 13:09:58.034827 27515 net.cpp:148] Top shape: 100 256 27 27 (18662400)
I0403 13:09:58.034842 27515 net.cpp:156] Memory required for data: 662258800
I0403 13:09:58.034859 27515 layer_factory.hpp:77] Creating layer pool2
I0403 13:09:58.034921 27515 net.cpp:91] Creating Layer pool2
I0403 13:09:58.034940 27515 net.cpp:425] pool2 <- norm2
I0403 13:09:58.034960 27515 net.cpp:399] pool2 -> pool2
I0403 13:09:58.035017 27515 net.cpp:141] Setting up pool2
I0403 13:09:58.035040 27515 net.cpp:148] Top shape: 100 256 13 13 (4326400)
I0403 13:09:58.035056 27515 net.cpp:156] Memory required for data: 679564400
I0403 13:09:58.035073 27515 layer_factory.hpp:77] Creating layer conv3
I0403 13:09:58.035097 27515 net.cpp:91] Creating Layer conv3
I0403 13:09:58.035116 27515 net.cpp:425] conv3 <- pool2
I0403 13:09:58.035137 27515 net.cpp:399] conv3 -> conv3
I0403 13:09:58.074863 27515 net.cpp:141] Setting up conv3
I0403 13:09:58.074935 27515 net.cpp:148] Top shape: 100 384 13 13 (6489600)
I0403 13:09:58.074952 27515 net.cpp:156] Memory required for data: 705522800
I0403 13:09:58.074980 27515 layer_factory.hpp:77] Creating layer relu3
I0403 13:09:58.075008 27515 net.cpp:91] Creating Layer relu3
I0403 13:09:58.075028 27515 net.cpp:425] relu3 <- conv3
I0403 13:09:58.075048 27515 net.cpp:386] relu3 -> conv3 (in-place)
I0403 13:09:58.075332 27515 net.cpp:141] Setting up relu3
I0403 13:09:58.075361 27515 net.cpp:148] Top shape: 100 384 13 13 (6489600)
I0403 13:09:58.075378 27515 net.cpp:156] Memory required for data: 731481200
I0403 13:09:58.075395 27515 layer_factory.hpp:77] Creating layer conv4
I0403 13:09:58.075424 27515 net.cpp:91] Creating Layer conv4
I0403 13:09:58.075448 27515 net.cpp:425] conv4 <- conv3
I0403 13:09:58.075469 27515 net.cpp:399] conv4 -> conv4
I0403 13:09:58.106098 27515 net.cpp:141] Setting up conv4
I0403 13:09:58.106165 27515 net.cpp:148] Top shape: 100 384 13 13 (6489600)
I0403 13:09:58.106245 27515 net.cpp:156] Memory required for data: 757439600
I0403 13:09:58.106271 27515 layer_factory.hpp:77] Creating layer relu4
I0403 13:09:58.106298 27515 net.cpp:91] Creating Layer relu4
I0403 13:09:58.106318 27515 net.cpp:425] relu4 <- conv4
I0403 13:09:58.106340 27515 net.cpp:386] relu4 -> conv4 (in-place)
I0403 13:09:58.106626 27515 net.cpp:141] Setting up relu4
I0403 13:09:58.106655 27515 net.cpp:148] Top shape: 100 384 13 13 (6489600)
I0403 13:09:58.106673 27515 net.cpp:156] Memory required for data: 783398000
I0403 13:09:58.106688 27515 layer_factory.hpp:77] Creating layer conv5
I0403 13:09:58.106714 27515 net.cpp:91] Creating Layer conv5
I0403 13:09:58.106734 27515 net.cpp:425] conv5 <- conv4
I0403 13:09:58.106756 27515 net.cpp:399] conv5 -> conv5
I0403 13:09:58.127964 27515 net.cpp:141] Setting up conv5
I0403 13:09:58.128021 27515 net.cpp:148] Top shape: 100 256 13 13 (4326400)
I0403 13:09:58.128038 27515 net.cpp:156] Memory required for data: 800703600
I0403 13:09:58.128068 27515 layer_factory.hpp:77] Creating layer relu5
I0403 13:09:58.128093 27515 net.cpp:91] Creating Layer relu5
I0403 13:09:58.128110 27515 net.cpp:425] relu5 <- conv5
I0403 13:09:58.128129 27515 net.cpp:386] relu5 -> conv5 (in-place)
I0403 13:09:58.128413 27515 net.cpp:141] Setting up relu5
I0403 13:09:58.128443 27515 net.cpp:148] Top shape: 100 256 13 13 (4326400)
I0403 13:09:58.128458 27515 net.cpp:156] Memory required for data: 818009200
I0403 13:09:58.128475 27515 layer_factory.hpp:77] Creating layer pool5
I0403 13:09:58.128501 27515 net.cpp:91] Creating Layer pool5
I0403 13:09:58.128520 27515 net.cpp:425] pool5 <- conv5
I0403 13:09:58.128540 27515 net.cpp:399] pool5 -> pool5
I0403 13:09:58.128605 27515 net.cpp:141] Setting up pool5
I0403 13:09:58.128630 27515 net.cpp:148] Top shape: 100 256 6 6 (921600)
I0403 13:09:58.128648 27515 net.cpp:156] Memory required for data: 821695600
I0403 13:09:58.128662 27515 layer_factory.hpp:77] Creating layer fc6
I0403 13:09:58.128693 27515 net.cpp:91] Creating Layer fc6
I0403 13:09:58.128712 27515 net.cpp:425] fc6 <- pool5
I0403 13:09:58.128737 27515 net.cpp:399] fc6 -> fc6
I0403 13:09:59.728353 27515 net.cpp:141] Setting up fc6
I0403 13:09:59.728428 27515 net.cpp:148] Top shape: 100 4096 (409600)
I0403 13:09:59.728446 27515 net.cpp:156] Memory required for data: 823334000
I0403 13:09:59.728468 27515 layer_factory.hpp:77] Creating layer relu6
I0403 13:09:59.728490 27515 net.cpp:91] Creating Layer relu6
I0403 13:09:59.728509 27515 net.cpp:425] relu6 <- fc6
I0403 13:09:59.728533 27515 net.cpp:386] relu6 -> fc6 (in-place)
I0403 13:09:59.728749 27515 net.cpp:141] Setting up relu6
I0403 13:09:59.728776 27515 net.cpp:148] Top shape: 100 4096 (409600)
I0403 13:09:59.728792 27515 net.cpp:156] Memory required for data: 824972400
I0403 13:09:59.728808 27515 layer_factory.hpp:77] Creating layer drop6
I0403 13:09:59.728831 27515 net.cpp:91] Creating Layer drop6
I0403 13:09:59.728847 27515 net.cpp:425] drop6 <- fc6
I0403 13:09:59.728866 27515 net.cpp:386] drop6 -> fc6 (in-place)
I0403 13:09:59.728920 27515 net.cpp:141] Setting up drop6
I0403 13:09:59.728945 27515 net.cpp:148] Top shape: 100 4096 (409600)
I0403 13:09:59.728960 27515 net.cpp:156] Memory required for data: 826610800
I0403 13:09:59.728976 27515 layer_factory.hpp:77] Creating layer fc7
I0403 13:09:59.728997 27515 net.cpp:91] Creating Layer fc7
I0403 13:09:59.729013 27515 net.cpp:425] fc7 <- fc6
I0403 13:09:59.729037 27515 net.cpp:399] fc7 -> fc7
I0403 13:10:00.418956 27515 net.cpp:141] Setting up fc7
I0403 13:10:00.419013 27515 net.cpp:148] Top shape: 100 4096 (409600)
I0403 13:10:00.419030 27515 net.cpp:156] Memory required for data: 828249200
I0403 13:10:00.419052 27515 layer_factory.hpp:77] Creating layer relu7
I0403 13:10:00.419078 27515 net.cpp:91] Creating Layer relu7
I0403 13:10:00.419097 27515 net.cpp:425] relu7 <- fc7
I0403 13:10:00.419116 27515 net.cpp:386] relu7 -> fc7 (in-place)
I0403 13:10:00.419515 27515 net.cpp:141] Setting up relu7
I0403 13:10:00.419543 27515 net.cpp:148] Top shape: 100 4096 (409600)
I0403 13:10:00.419584 27515 net.cpp:156] Memory required for data: 829887600
I0403 13:10:00.419600 27515 layer_factory.hpp:77] Creating layer drop7
I0403 13:10:00.419621 27515 net.cpp:91] Creating Layer drop7
I0403 13:10:00.419638 27515 net.cpp:425] drop7 <- fc7
I0403 13:10:00.419656 27515 net.cpp:386] drop7 -> fc7 (in-place)
I0403 13:10:00.419703 27515 net.cpp:141] Setting up drop7
I0403 13:10:00.419725 27515 net.cpp:148] Top shape: 100 4096 (409600)
I0403 13:10:00.419740 27515 net.cpp:156] Memory required for data: 831526000
I0403 13:10:00.419755 27515 layer_factory.hpp:77] Creating layer fc8_plantvillage
I0403 13:10:00.419775 27515 net.cpp:91] Creating Layer fc8_plantvillage
I0403 13:10:00.419791 27515 net.cpp:425] fc8_plantvillage <- fc7
I0403 13:10:00.419813 27515 net.cpp:399] fc8_plantvillage -> fc8_plantvillage
I0403 13:10:00.426475 27515 net.cpp:141] Setting up fc8_plantvillage
I0403 13:10:00.426506 27515 net.cpp:148] Top shape: 100 38 (3800)
I0403 13:10:00.426523 27515 net.cpp:156] Memory required for data: 831541200
I0403 13:10:00.426542 27515 layer_factory.hpp:77] Creating layer fc8_plantvillage_fc8_plantvillage_0_split
I0403 13:10:00.426563 27515 net.cpp:91] Creating Layer fc8_plantvillage_fc8_plantvillage_0_split
I0403 13:10:00.426578 27515 net.cpp:425] fc8_plantvillage_fc8_plantvillage_0_split <- fc8_plantvillage
I0403 13:10:00.426597 27515 net.cpp:399] fc8_plantvillage_fc8_plantvillage_0_split -> fc8_plantvillage_fc8_plantvillage_0_split_0
I0403 13:10:00.426616 27515 net.cpp:399] fc8_plantvillage_fc8_plantvillage_0_split -> fc8_plantvillage_fc8_plantvillage_0_split_1
I0403 13:10:00.426635 27515 net.cpp:399] fc8_plantvillage_fc8_plantvillage_0_split -> fc8_plantvillage_fc8_plantvillage_0_split_2
I0403 13:10:00.426712 27515 net.cpp:141] Setting up fc8_plantvillage_fc8_plantvillage_0_split
I0403 13:10:00.426735 27515 net.cpp:148] Top shape: 100 38 (3800)
I0403 13:10:00.426753 27515 net.cpp:148] Top shape: 100 38 (3800)
I0403 13:10:00.426769 27515 net.cpp:148] Top shape: 100 38 (3800)
I0403 13:10:00.426782 27515 net.cpp:156] Memory required for data: 831586800
I0403 13:10:00.426796 27515 layer_factory.hpp:77] Creating layer prob
I0403 13:10:00.426817 27515 net.cpp:91] Creating Layer prob
I0403 13:10:00.426832 27515 net.cpp:425] prob <- fc8_plantvillage_fc8_plantvillage_0_split_0
I0403 13:10:00.426851 27515 net.cpp:399] prob -> prob
I0403 13:10:00.427073 27515 net.cpp:141] Setting up prob
I0403 13:10:00.427099 27515 net.cpp:148] Top shape: 100 38 (3800)
I0403 13:10:00.427127 27515 net.cpp:156] Memory required for data: 831602000
I0403 13:10:00.427144 27515 layer_factory.hpp:77] Creating layer hdf5out
I0403 13:10:00.427167 27515 net.cpp:91] Creating Layer hdf5out
I0403 13:10:00.427184 27515 net.cpp:425] hdf5out <- prob
I0403 13:10:00.427202 27515 net.cpp:425] hdf5out <- label_data_1_split_0
I0403 13:10:00.463404 27515 net.cpp:141] Setting up hdf5out
…
