…
I0403 13:17:09.531613 27715 net.cpp:313] The NetState phase (1) differed from the phase (0) specified by a rule in layer data
I0403 13:17:09.531924 27715 net.cpp:49] Initializing net from parameters: 
state {
  phase: TEST
}
layer {
  name: "data"
  type: "Data"
  top: "data"
  top: "label"
  include {
    phase: TEST
  }
  transform_param {
    crop_size: 227
    mean_file: "/home/mohanty/data/final_dataset/lmdb/color-60-40/mean.binaryproto"
  }
  data_param {
    source: "/home/mohanty/data/final_dataset/lmdb/color-60-40/test_db"
    batch_size: 100
    backend: LMDB
  }
}
layer {
  name: "conv1"
  type: "Convolution"
  bottom: "data"
  top: "conv1"
  param {
    lr_mult: 1
    decay_mult: 1
  }
  param {
    lr_mult: 2
    decay_mult: 0
  }
  convolution_param {
    num_output: 96
    kernel_size: 11
    stride: 4
    weight_filler {
      type: "gaussian"
      std: 0.01
    }
    bias_filler {
      type: "constant"
      value: 0
    }
  }
}
layer {
  name: "relu1"
  type: "ReLU"
  bottom: "conv1"
  top: "conv1"
}
layer {
  name: "norm1"
  type: "LRN"
  bottom: "conv1"
  top: "norm1"
  lrn_param {
    local_size: 5
    alpha: 0.0001
    beta: 0.75
  }
}
layer {
  name: "pool1"
  type: "Pooling"
  bottom: "norm1"
  top: "pool1"
  pooling_param {
    pool: MAX
    kernel_size: 3
    stride: 2
  }
}
layer {
  name: "conv2"
  type: "Convolution"
  bottom: "pool1"
  top: "conv2"
  param {
    lr_mult: 1
    decay_mult: 1
  }
  param {
    lr_mult: 2
    decay_mult: 0
  }
  convolution_param {
    num_output: 256
    pad: 2
    kernel_size: 5
    group: 2
    weight_filler {
      type: "gaussian"
      std: 0.01
    }
    bias_filler {
      type: "constant"
      value: 0.1
    }
  }
}
layer {
  name: "relu2"
  type: "ReLU"
  bottom: "conv2"
  top: "conv2"
}
layer {
  name: "norm2"
  type: "LRN"
  bottom: "conv2"
  top: "norm2"
  lrn_param {
    local_size: 5
    alpha: 0.0001
    beta: 0.75
  }
}
layer {
  name: "pool2"
  type: "Pooling"
  bottom: "norm2"
  top: "pool2"
  pooling_param {
    pool: MAX
    kernel_size: 3
    stride: 2
  }
}
layer {
  name: "conv3"
  type: "Convolution"
  bottom: "pool2"
  top: "conv3"
  param {
    lr_mult: 1
    decay_mult: 1
  }
  param {
    lr_mult: 2
    decay_mult: 0
  }
  convolution_param {
    num_output: 384
    pad: 1
    kernel_size: 3
    weight_filler {
      type: "gaussian"
      std: 0.01
    }
    bias_filler {
      type: "constant"
      value: 0
    }
  }
}
layer {
  name: "relu3"
  type: "ReLU"
  bottom: "conv3"
  top: "conv3"
}
layer {
  name: "conv4"
  type: "Convolution"
  bottom: "conv3"
  top: "conv4"
  param {
    lr_mult: 1
    decay_mult: 1
  }
  param {
    lr_mult: 2
    decay_mult: 0
  }
  convolution_param {
    num_output: 384
    pad: 1
    kernel_size: 3
    group: 2
    weight_filler {
      type: "gaussian"
      std: 0.01
    }
    bias_filler {
      type: "constant"
      value: 0.1
    }
  }
}
layer {
  name: "relu4"
  type: "ReLU"
  bottom: "conv4"
  top: "conv4"
}
layer {
  name: "conv5"
  type: "Convolution"
  bottom: "conv4"
  top: "conv5"
  param {
    lr_mult: 1
    decay_mult: 1
  }
  param {
    lr_mult: 2
    decay_mult: 0
  }
  convolution_param {
    num_output: 256
    pad: 1
    kernel_size: 3
    group: 2
    weight_filler {
      type: "gaussian"
      std: 0.01
    }
    bias_filler {
      type: "constant"
      value: 0.1
    }
  }
}
layer {
  name: "relu5"
  type: "ReLU"
  bottom: "conv5"
  top: "conv5"
}
layer {
  name: "pool5"
  type: "Pooling"
  bottom: "conv5"
  top: "pool5"
  pooling_param {
    pool: MAX
    kernel_size: 3
    stride: 2
  }
}
layer {
  name: "fc6"
  type: "InnerProduct"
  bottom: "pool5"
  top: "fc6"
  param {
    lr_mult: 1
    decay_mult: 1
  }
  param {
    lr_mult: 2
    decay_mult: 0
  }
  inner_product_param {
    num_output: 4096
    weight_filler {
      type: "gaussian"
      std: 0.005
    }
    bias_filler {
      type: "constant"
      value: 0.1
    }
  }
}
layer {
  name: "relu6"
  type: "ReLU"
  bottom: "fc6"
  top: "fc6"
}
layer {
  name: "drop6"
  type: "Dropout"
  bottom: "fc6"
  top: "fc6"
  dropout_param {
    dropout_ratio: 0.5
  }
}
layer {
  name: "fc7"
  type: "InnerProduct"
  bottom: "fc6"
  top: "fc7"
  param {
    lr_mult: 1
    decay_mult: 1
  }
  param {
    lr_mult: 2
    decay_mult: 0
  }
  inner_product_param {
    num_output: 4096
    weight_filler {
      type: "gaussian"
      std: 0.005
    }
    bias_filler {
      type: "constant"
      value: 0.1
    }
  }
}
layer {
  name: "relu7"
  type: "ReLU"
  bottom: "fc7"
  top: "fc7"
}
layer {
  name: "drop7"
  type: "Dropout"
  bottom: "fc7"
  top: "fc7"
  dropout_param {
    dropout_ratio: 0.5
  }
}
layer {
  name: "fc8_plantvillage"
  type: "InnerProduct"
  bottom: "fc7"
  top: "fc8_plantvillage"
  param {
    lr_mult: 1
    decay_mult: 1
  }
  param {
    lr_mult: 2
    decay_mult: 0
  }
  inner_product_param {
    num_output: 38
    weight_filler {
      type: "gaussian"
      std: 0.01
    }
    bias_filler {
      type: "constant"
      value: 0
    }
  }
}
layer {
  name: "prob"
  type: "Softmax"
  bottom: "fc8_plantvillage"
  top: "prob"
  include {
    phase: TEST
  }
}
layer {
  name: "hdf5out"
  type: "HDF5Output"
  bottom: "prob"
  bottom: "label"
  include {
    phase: TEST
  }
  hdf5_output_param {
    file_name: "hdf5_dumps/iter_5525.h5"
  }
}
layer {
  name: "loss"
  type: "SoftmaxWithLoss"
  bottom: "fc8_plantvillage"
  bottom: "label"
  top: "loss"
}
layer {
  name: "accuracy"
  type: "Accuracy"
  bottom: "fc8_plantvillage"
  bottom: "label"
  top: "accuracy"
  include {
    phase: TEST
  }
}
I0403 13:17:09.532502 27715 layer_factory.hpp:77] Creating layer data
I0403 13:17:09.533161 27715 net.cpp:91] Creating Layer data
I0403 13:17:09.533196 27715 net.cpp:399] data -> data
I0403 13:17:09.533248 27715 net.cpp:399] data -> label
I0403 13:17:09.533291 27715 data_transformer.cpp:25] Loading mean file from: /home/mohanty/data/final_dataset/lmdb/color-60-40/mean.binaryproto
I0403 13:17:09.535646 27718 db_lmdb.cpp:38] Opened lmdb /home/mohanty/data/final_dataset/lmdb/color-60-40/test_db
I0403 13:17:09.548068 27715 data_layer.cpp:41] output data size: 100,3,227,227
I0403 13:17:09.682051 27715 net.cpp:141] Setting up data
I0403 13:17:09.682145 27715 net.cpp:148] Top shape: 100 3 227 227 (15458700)
I0403 13:17:09.682169 27715 net.cpp:148] Top shape: 100 (100)
I0403 13:17:09.682186 27715 net.cpp:156] Memory required for data: 61835200
I0403 13:17:09.682216 27715 layer_factory.hpp:77] Creating layer label_data_1_split
I0403 13:17:09.682243 27715 net.cpp:91] Creating Layer label_data_1_split
I0403 13:17:09.682262 27715 net.cpp:425] label_data_1_split <- label
I0403 13:17:09.682299 27715 net.cpp:399] label_data_1_split -> label_data_1_split_0
I0403 13:17:09.682329 27715 net.cpp:399] label_data_1_split -> label_data_1_split_1
I0403 13:17:09.682351 27715 net.cpp:399] label_data_1_split -> label_data_1_split_2
I0403 13:17:09.682417 27715 net.cpp:141] Setting up label_data_1_split
I0403 13:17:09.682442 27715 net.cpp:148] Top shape: 100 (100)
I0403 13:17:09.682461 27715 net.cpp:148] Top shape: 100 (100)
I0403 13:17:09.682477 27715 net.cpp:148] Top shape: 100 (100)
I0403 13:17:09.682494 27715 net.cpp:156] Memory required for data: 61836400
I0403 13:17:09.682509 27715 layer_factory.hpp:77] Creating layer conv1
I0403 13:17:09.682543 27715 net.cpp:91] Creating Layer conv1
I0403 13:17:09.682562 27715 net.cpp:425] conv1 <- data
I0403 13:17:09.682582 27715 net.cpp:399] conv1 -> conv1
I0403 13:17:09.829197 27715 net.cpp:141] Setting up conv1
I0403 13:17:09.829272 27715 net.cpp:148] Top shape: 100 96 55 55 (29040000)
I0403 13:17:09.829296 27715 net.cpp:156] Memory required for data: 177996400
I0403 13:17:09.829330 27715 layer_factory.hpp:77] Creating layer relu1
I0403 13:17:09.829360 27715 net.cpp:91] Creating Layer relu1
I0403 13:17:09.829380 27715 net.cpp:425] relu1 <- conv1
I0403 13:17:09.829401 27715 net.cpp:386] relu1 -> conv1 (in-place)
I0403 13:17:09.829658 27715 net.cpp:141] Setting up relu1
I0403 13:17:09.829685 27715 net.cpp:148] Top shape: 100 96 55 55 (29040000)
I0403 13:17:09.829701 27715 net.cpp:156] Memory required for data: 294156400
I0403 13:17:09.829751 27715 layer_factory.hpp:77] Creating layer norm1
I0403 13:17:09.829782 27715 net.cpp:91] Creating Layer norm1
I0403 13:17:09.829802 27715 net.cpp:425] norm1 <- conv1
I0403 13:17:09.829821 27715 net.cpp:399] norm1 -> norm1
I0403 13:17:09.830128 27715 net.cpp:141] Setting up norm1
I0403 13:17:09.830157 27715 net.cpp:148] Top shape: 100 96 55 55 (29040000)
I0403 13:17:09.830173 27715 net.cpp:156] Memory required for data: 410316400
I0403 13:17:09.830189 27715 layer_factory.hpp:77] Creating layer pool1
I0403 13:17:09.830214 27715 net.cpp:91] Creating Layer pool1
I0403 13:17:09.830231 27715 net.cpp:425] pool1 <- norm1
I0403 13:17:09.830250 27715 net.cpp:399] pool1 -> pool1
I0403 13:17:09.830322 27715 net.cpp:141] Setting up pool1
I0403 13:17:09.830346 27715 net.cpp:148] Top shape: 100 96 27 27 (6998400)
I0403 13:17:09.830363 27715 net.cpp:156] Memory required for data: 438310000
I0403 13:17:09.830379 27715 layer_factory.hpp:77] Creating layer conv2
I0403 13:17:09.830404 27715 net.cpp:91] Creating Layer conv2
I0403 13:17:09.830421 27715 net.cpp:425] conv2 <- pool1
I0403 13:17:09.830440 27715 net.cpp:399] conv2 -> conv2
I0403 13:17:09.845464 27715 net.cpp:141] Setting up conv2
I0403 13:17:09.845513 27715 net.cpp:148] Top shape: 100 256 27 27 (18662400)
I0403 13:17:09.845531 27715 net.cpp:156] Memory required for data: 512959600
I0403 13:17:09.845556 27715 layer_factory.hpp:77] Creating layer relu2
I0403 13:17:09.845579 27715 net.cpp:91] Creating Layer relu2
I0403 13:17:09.845608 27715 net.cpp:425] relu2 <- conv2
I0403 13:17:09.845628 27715 net.cpp:386] relu2 -> conv2 (in-place)
I0403 13:17:09.845898 27715 net.cpp:141] Setting up relu2
I0403 13:17:09.845927 27715 net.cpp:148] Top shape: 100 256 27 27 (18662400)
I0403 13:17:09.845944 27715 net.cpp:156] Memory required for data: 587609200
I0403 13:17:09.845959 27715 layer_factory.hpp:77] Creating layer norm2
I0403 13:17:09.845983 27715 net.cpp:91] Creating Layer norm2
I0403 13:17:09.845999 27715 net.cpp:425] norm2 <- conv2
I0403 13:17:09.846020 27715 net.cpp:399] norm2 -> norm2
I0403 13:17:09.846210 27715 net.cpp:141] Setting up norm2
I0403 13:17:09.846238 27715 net.cpp:148] Top shape: 100 256 27 27 (18662400)
I0403 13:17:09.846254 27715 net.cpp:156] Memory required for data: 662258800
I0403 13:17:09.846269 27715 layer_factory.hpp:77] Creating layer pool2
I0403 13:17:09.846292 27715 net.cpp:91] Creating Layer pool2
I0403 13:17:09.846312 27715 net.cpp:425] pool2 <- norm2
I0403 13:17:09.846330 27715 net.cpp:399] pool2 -> pool2
I0403 13:17:09.846384 27715 net.cpp:141] Setting up pool2
I0403 13:17:09.846407 27715 net.cpp:148] Top shape: 100 256 13 13 (4326400)
I0403 13:17:09.846422 27715 net.cpp:156] Memory required for data: 679564400
I0403 13:17:09.846437 27715 layer_factory.hpp:77] Creating layer conv3
I0403 13:17:09.846460 27715 net.cpp:91] Creating Layer conv3
I0403 13:17:09.846477 27715 net.cpp:425] conv3 <- pool2
I0403 13:17:09.846498 27715 net.cpp:399] conv3 -> conv3
I0403 13:17:09.887164 27715 net.cpp:141] Setting up conv3
I0403 13:17:09.887244 27715 net.cpp:148] Top shape: 100 384 13 13 (6489600)
I0403 13:17:09.887262 27715 net.cpp:156] Memory required for data: 705522800
I0403 13:17:09.887295 27715 layer_factory.hpp:77] Creating layer relu3
I0403 13:17:09.887321 27715 net.cpp:91] Creating Layer relu3
I0403 13:17:09.887342 27715 net.cpp:425] relu3 <- conv3
I0403 13:17:09.887362 27715 net.cpp:386] relu3 -> conv3 (in-place)
I0403 13:17:09.887653 27715 net.cpp:141] Setting up relu3
I0403 13:17:09.887682 27715 net.cpp:148] Top shape: 100 384 13 13 (6489600)
I0403 13:17:09.887698 27715 net.cpp:156] Memory required for data: 731481200
I0403 13:17:09.887714 27715 layer_factory.hpp:77] Creating layer conv4
I0403 13:17:09.887742 27715 net.cpp:91] Creating Layer conv4
I0403 13:17:09.887760 27715 net.cpp:425] conv4 <- conv3
I0403 13:17:09.887783 27715 net.cpp:399] conv4 -> conv4
I0403 13:17:09.917680 27715 net.cpp:141] Setting up conv4
I0403 13:17:09.917745 27715 net.cpp:148] Top shape: 100 384 13 13 (6489600)
I0403 13:17:09.917796 27715 net.cpp:156] Memory required for data: 757439600
I0403 13:17:09.917819 27715 layer_factory.hpp:77] Creating layer relu4
I0403 13:17:09.917846 27715 net.cpp:91] Creating Layer relu4
I0403 13:17:09.917866 27715 net.cpp:425] relu4 <- conv4
I0403 13:17:09.917888 27715 net.cpp:386] relu4 -> conv4 (in-place)
I0403 13:17:09.918184 27715 net.cpp:141] Setting up relu4
I0403 13:17:09.918211 27715 net.cpp:148] Top shape: 100 384 13 13 (6489600)
I0403 13:17:09.918227 27715 net.cpp:156] Memory required for data: 783398000
I0403 13:17:09.918246 27715 layer_factory.hpp:77] Creating layer conv5
I0403 13:17:09.918273 27715 net.cpp:91] Creating Layer conv5
I0403 13:17:09.918297 27715 net.cpp:425] conv5 <- conv4
I0403 13:17:09.918320 27715 net.cpp:399] conv5 -> conv5
I0403 13:17:09.938900 27715 net.cpp:141] Setting up conv5
I0403 13:17:09.938936 27715 net.cpp:148] Top shape: 100 256 13 13 (4326400)
I0403 13:17:09.938953 27715 net.cpp:156] Memory required for data: 800703600
I0403 13:17:09.938979 27715 layer_factory.hpp:77] Creating layer relu5
I0403 13:17:09.939004 27715 net.cpp:91] Creating Layer relu5
I0403 13:17:09.939023 27715 net.cpp:425] relu5 <- conv5
I0403 13:17:09.939043 27715 net.cpp:386] relu5 -> conv5 (in-place)
I0403 13:17:09.939335 27715 net.cpp:141] Setting up relu5
I0403 13:17:09.939363 27715 net.cpp:148] Top shape: 100 256 13 13 (4326400)
I0403 13:17:09.939380 27715 net.cpp:156] Memory required for data: 818009200
I0403 13:17:09.939396 27715 layer_factory.hpp:77] Creating layer pool5
I0403 13:17:09.939432 27715 net.cpp:91] Creating Layer pool5
I0403 13:17:09.939452 27715 net.cpp:425] pool5 <- conv5
I0403 13:17:09.939474 27715 net.cpp:399] pool5 -> pool5
I0403 13:17:09.939543 27715 net.cpp:141] Setting up pool5
I0403 13:17:09.939568 27715 net.cpp:148] Top shape: 100 256 6 6 (921600)
I0403 13:17:09.939597 27715 net.cpp:156] Memory required for data: 821695600
I0403 13:17:09.939615 27715 layer_factory.hpp:77] Creating layer fc6
I0403 13:17:09.939645 27715 net.cpp:91] Creating Layer fc6
I0403 13:17:09.939663 27715 net.cpp:425] fc6 <- pool5
I0403 13:17:09.939683 27715 net.cpp:399] fc6 -> fc6
I0403 13:17:11.529194 27715 net.cpp:141] Setting up fc6
I0403 13:17:11.529283 27715 net.cpp:148] Top shape: 100 4096 (409600)
I0403 13:17:11.529302 27715 net.cpp:156] Memory required for data: 823334000
I0403 13:17:11.529325 27715 layer_factory.hpp:77] Creating layer relu6
I0403 13:17:11.529348 27715 net.cpp:91] Creating Layer relu6
I0403 13:17:11.529367 27715 net.cpp:425] relu6 <- fc6
I0403 13:17:11.529392 27715 net.cpp:386] relu6 -> fc6 (in-place)
I0403 13:17:11.529620 27715 net.cpp:141] Setting up relu6
I0403 13:17:11.529646 27715 net.cpp:148] Top shape: 100 4096 (409600)
I0403 13:17:11.529662 27715 net.cpp:156] Memory required for data: 824972400
I0403 13:17:11.529678 27715 layer_factory.hpp:77] Creating layer drop6
I0403 13:17:11.529697 27715 net.cpp:91] Creating Layer drop6
I0403 13:17:11.529713 27715 net.cpp:425] drop6 <- fc6
I0403 13:17:11.529734 27715 net.cpp:386] drop6 -> fc6 (in-place)
I0403 13:17:11.529790 27715 net.cpp:141] Setting up drop6
I0403 13:17:11.529815 27715 net.cpp:148] Top shape: 100 4096 (409600)
I0403 13:17:11.529831 27715 net.cpp:156] Memory required for data: 826610800
I0403 13:17:11.529846 27715 layer_factory.hpp:77] Creating layer fc7
I0403 13:17:11.529867 27715 net.cpp:91] Creating Layer fc7
I0403 13:17:11.529883 27715 net.cpp:425] fc7 <- fc6
I0403 13:17:11.529904 27715 net.cpp:399] fc7 -> fc7
I0403 13:17:12.215481 27715 net.cpp:141] Setting up fc7
I0403 13:17:12.215558 27715 net.cpp:148] Top shape: 100 4096 (409600)
I0403 13:17:12.215575 27715 net.cpp:156] Memory required for data: 828249200
I0403 13:17:12.215597 27715 layer_factory.hpp:77] Creating layer relu7
I0403 13:17:12.215641 27715 net.cpp:91] Creating Layer relu7
I0403 13:17:12.215661 27715 net.cpp:425] relu7 <- fc7
I0403 13:17:12.215679 27715 net.cpp:386] relu7 -> fc7 (in-place)
I0403 13:17:12.216099 27715 net.cpp:141] Setting up relu7
I0403 13:17:12.216126 27715 net.cpp:148] Top shape: 100 4096 (409600)
I0403 13:17:12.216190 27715 net.cpp:156] Memory required for data: 829887600
I0403 13:17:12.216207 27715 layer_factory.hpp:77] Creating layer drop7
I0403 13:17:12.216243 27715 net.cpp:91] Creating Layer drop7
I0403 13:17:12.216269 27715 net.cpp:425] drop7 <- fc7
I0403 13:17:12.216289 27715 net.cpp:386] drop7 -> fc7 (in-place)
I0403 13:17:12.216334 27715 net.cpp:141] Setting up drop7
I0403 13:17:12.216361 27715 net.cpp:148] Top shape: 100 4096 (409600)
I0403 13:17:12.216378 27715 net.cpp:156] Memory required for data: 831526000
I0403 13:17:12.216397 27715 layer_factory.hpp:77] Creating layer fc8_plantvillage
I0403 13:17:12.216418 27715 net.cpp:91] Creating Layer fc8_plantvillage
I0403 13:17:12.216434 27715 net.cpp:425] fc8_plantvillage <- fc7
I0403 13:17:12.216454 27715 net.cpp:399] fc8_plantvillage -> fc8_plantvillage
I0403 13:17:12.223318 27715 net.cpp:141] Setting up fc8_plantvillage
I0403 13:17:12.223354 27715 net.cpp:148] Top shape: 100 38 (3800)
I0403 13:17:12.223371 27715 net.cpp:156] Memory required for data: 831541200
I0403 13:17:12.223392 27715 layer_factory.hpp:77] Creating layer fc8_plantvillage_fc8_plantvillage_0_split
I0403 13:17:12.223412 27715 net.cpp:91] Creating Layer fc8_plantvillage_fc8_plantvillage_0_split
I0403 13:17:12.223429 27715 net.cpp:425] fc8_plantvillage_fc8_plantvillage_0_split <- fc8_plantvillage
I0403 13:17:12.223448 27715 net.cpp:399] fc8_plantvillage_fc8_plantvillage_0_split -> fc8_plantvillage_fc8_plantvillage_0_split_0
I0403 13:17:12.223469 27715 net.cpp:399] fc8_plantvillage_fc8_plantvillage_0_split -> fc8_plantvillage_fc8_plantvillage_0_split_1
I0403 13:17:12.223489 27715 net.cpp:399] fc8_plantvillage_fc8_plantvillage_0_split -> fc8_plantvillage_fc8_plantvillage_0_split_2
I0403 13:17:12.223572 27715 net.cpp:141] Setting up fc8_plantvillage_fc8_plantvillage_0_split
I0403 13:17:12.223598 27715 net.cpp:148] Top shape: 100 38 (3800)
I0403 13:17:12.223615 27715 net.cpp:148] Top shape: 100 38 (3800)
I0403 13:17:12.223633 27715 net.cpp:148] Top shape: 100 38 (3800)
I0403 13:17:12.223647 27715 net.cpp:156] Memory required for data: 831586800
I0403 13:17:12.223662 27715 layer_factory.hpp:77] Creating layer prob
I0403 13:17:12.223682 27715 net.cpp:91] Creating Layer prob
I0403 13:17:12.223698 27715 net.cpp:425] prob <- fc8_plantvillage_fc8_plantvillage_0_split_0
I0403 13:17:12.223721 27715 net.cpp:399] prob -> prob
I0403 13:17:12.223954 27715 net.cpp:141] Setting up prob
I0403 13:17:12.223981 27715 net.cpp:148] Top shape: 100 38 (3800)
I0403 13:17:12.223996 27715 net.cpp:156] Memory required for data: 831602000
I0403 13:17:12.224014 27715 layer_factory.hpp:77] Creating layer hdf5out
I0403 13:17:12.224035 27715 net.cpp:91] Creating Layer hdf5out
I0403 13:17:12.224052 27715 net.cpp:425] hdf5out <- prob
I0403 13:17:12.224069 27715 net.cpp:425] hdf5out <- label_data_1_split_0
I0403 13:17:12.227735 27715 net.cpp:141] Setting up hdf5out
…
