…
I0403 13:10:44.900569 27542 net.cpp:313] The NetState phase (1) differed from the phase (0) specified by a rule in layer data
I0403 13:10:44.900862 27542 net.cpp:49] Initializing net from parameters: 
state {
  phase: TEST
}
layer {
  name: "data"
  type: "Data"
  top: "data"
  top: "label"
  include {
    phase: TEST
  }
  transform_param {
    crop_size: 227
    mean_file: "/home/mohanty/data/final_dataset/lmdb/color-60-40/mean.binaryproto"
  }
  data_param {
    source: "/home/mohanty/data/final_dataset/lmdb/color-60-40/test_db"
    batch_size: 100
    backend: LMDB
  }
}
layer {
  name: "conv1"
  type: "Convolution"
  bottom: "data"
  top: "conv1"
  param {
    lr_mult: 1
    decay_mult: 1
  }
  param {
    lr_mult: 2
    decay_mult: 0
  }
  convolution_param {
    num_output: 96
    kernel_size: 11
    stride: 4
    weight_filler {
      type: "gaussian"
      std: 0.01
    }
    bias_filler {
      type: "constant"
      value: 0
    }
  }
}
layer {
  name: "relu1"
  type: "ReLU"
  bottom: "conv1"
  top: "conv1"
}
layer {
  name: "norm1"
  type: "LRN"
  bottom: "conv1"
  top: "norm1"
  lrn_param {
    local_size: 5
    alpha: 0.0001
    beta: 0.75
  }
}
layer {
  name: "pool1"
  type: "Pooling"
  bottom: "norm1"
  top: "pool1"
  pooling_param {
    pool: MAX
    kernel_size: 3
    stride: 2
  }
}
layer {
  name: "conv2"
  type: "Convolution"
  bottom: "pool1"
  top: "conv2"
  param {
    lr_mult: 1
    decay_mult: 1
  }
  param {
    lr_mult: 2
    decay_mult: 0
  }
  convolution_param {
    num_output: 256
    pad: 2
    kernel_size: 5
    group: 2
    weight_filler {
      type: "gaussian"
      std: 0.01
    }
    bias_filler {
      type: "constant"
      value: 0.1
    }
  }
}
layer {
  name: "relu2"
  type: "ReLU"
  bottom: "conv2"
  top: "conv2"
}
layer {
  name: "norm2"
  type: "LRN"
  bottom: "conv2"
  top: "norm2"
  lrn_param {
    local_size: 5
    alpha: 0.0001
    beta: 0.75
  }
}
layer {
  name: "pool2"
  type: "Pooling"
  bottom: "norm2"
  top: "pool2"
  pooling_param {
    pool: MAX
    kernel_size: 3
    stride: 2
  }
}
layer {
  name: "conv3"
  type: "Convolution"
  bottom: "pool2"
  top: "conv3"
  param {
    lr_mult: 1
    decay_mult: 1
  }
  param {
    lr_mult: 2
    decay_mult: 0
  }
  convolution_param {
    num_output: 384
    pad: 1
    kernel_size: 3
    weight_filler {
      type: "gaussian"
      std: 0.01
    }
    bias_filler {
      type: "constant"
      value: 0
    }
  }
}
layer {
  name: "relu3"
  type: "ReLU"
  bottom: "conv3"
  top: "conv3"
}
layer {
  name: "conv4"
  type: "Convolution"
  bottom: "conv3"
  top: "conv4"
  param {
    lr_mult: 1
    decay_mult: 1
  }
  param {
    lr_mult: 2
    decay_mult: 0
  }
  convolution_param {
    num_output: 384
    pad: 1
    kernel_size: 3
    group: 2
    weight_filler {
      type: "gaussian"
      std: 0.01
    }
    bias_filler {
      type: "constant"
      value: 0.1
    }
  }
}
layer {
  name: "relu4"
  type: "ReLU"
  bottom: "conv4"
  top: "conv4"
}
layer {
  name: "conv5"
  type: "Convolution"
  bottom: "conv4"
  top: "conv5"
  param {
    lr_mult: 1
    decay_mult: 1
  }
  param {
    lr_mult: 2
    decay_mult: 0
  }
  convolution_param {
    num_output: 256
    pad: 1
    kernel_size: 3
    group: 2
    weight_filler {
      type: "gaussian"
      std: 0.01
    }
    bias_filler {
      type: "constant"
      value: 0.1
    }
  }
}
layer {
  name: "relu5"
  type: "ReLU"
  bottom: "conv5"
  top: "conv5"
}
layer {
  name: "pool5"
  type: "Pooling"
  bottom: "conv5"
  top: "pool5"
  pooling_param {
    pool: MAX
    kernel_size: 3
    stride: 2
  }
}
layer {
  name: "fc6"
  type: "InnerProduct"
  bottom: "pool5"
  top: "fc6"
  param {
    lr_mult: 1
    decay_mult: 1
  }
  param {
    lr_mult: 2
    decay_mult: 0
  }
  inner_product_param {
    num_output: 4096
    weight_filler {
      type: "gaussian"
      std: 0.005
    }
    bias_filler {
      type: "constant"
      value: 0.1
    }
  }
}
layer {
  name: "relu6"
  type: "ReLU"
  bottom: "fc6"
  top: "fc6"
}
layer {
  name: "drop6"
  type: "Dropout"
  bottom: "fc6"
  top: "fc6"
  dropout_param {
    dropout_ratio: 0.5
  }
}
layer {
  name: "fc7"
  type: "InnerProduct"
  bottom: "fc6"
  top: "fc7"
  param {
    lr_mult: 1
    decay_mult: 1
  }
  param {
    lr_mult: 2
    decay_mult: 0
  }
  inner_product_param {
    num_output: 4096
    weight_filler {
      type: "gaussian"
      std: 0.005
    }
    bias_filler {
      type: "constant"
      value: 0.1
    }
  }
}
layer {
  name: "relu7"
  type: "ReLU"
  bottom: "fc7"
  top: "fc7"
}
layer {
  name: "drop7"
  type: "Dropout"
  bottom: "fc7"
  top: "fc7"
  dropout_param {
    dropout_ratio: 0.5
  }
}
layer {
  name: "fc8_plantvillage"
  type: "InnerProduct"
  bottom: "fc7"
  top: "fc8_plantvillage"
  param {
    lr_mult: 1
    decay_mult: 1
  }
  param {
    lr_mult: 2
    decay_mult: 0
  }
  inner_product_param {
    num_output: 38
    weight_filler {
      type: "gaussian"
      std: 0.01
    }
    bias_filler {
      type: "constant"
      value: 0
    }
  }
}
layer {
  name: "prob"
  type: "Softmax"
  bottom: "fc8_plantvillage"
  top: "prob"
  include {
    phase: TEST
  }
}
layer {
  name: "hdf5out"
  type: "HDF5Output"
  bottom: "prob"
  bottom: "label"
  include {
    phase: TEST
  }
  hdf5_output_param {
    file_name: "hdf5_dumps/iter_2925.h5"
  }
}
layer {
  name: "loss"
  type: "SoftmaxWithLoss"
  bottom: "fc8_plantvillage"
  bottom: "label"
  top: "loss"
}
layer {
  name: "accuracy"
  type: "Accuracy"
  bottom: "fc8_plantvillage"
  bottom: "label"
  top: "accuracy"
  include {
    phase: TEST
  }
}
I0403 13:10:44.901463 27542 layer_factory.hpp:77] Creating layer data
I0403 13:10:44.902113 27542 net.cpp:91] Creating Layer data
I0403 13:10:44.902146 27542 net.cpp:399] data -> data
I0403 13:10:44.902197 27542 net.cpp:399] data -> label
I0403 13:10:44.902236 27542 data_transformer.cpp:25] Loading mean file from: /home/mohanty/data/final_dataset/lmdb/color-60-40/mean.binaryproto
I0403 13:10:44.905483 27545 db_lmdb.cpp:38] Opened lmdb /home/mohanty/data/final_dataset/lmdb/color-60-40/test_db
I0403 13:10:44.916640 27542 data_layer.cpp:41] output data size: 100,3,227,227
I0403 13:10:45.048374 27542 net.cpp:141] Setting up data
I0403 13:10:45.048470 27542 net.cpp:148] Top shape: 100 3 227 227 (15458700)
I0403 13:10:45.048494 27542 net.cpp:148] Top shape: 100 (100)
I0403 13:10:45.048511 27542 net.cpp:156] Memory required for data: 61835200
I0403 13:10:45.048540 27542 layer_factory.hpp:77] Creating layer label_data_1_split
I0403 13:10:45.048568 27542 net.cpp:91] Creating Layer label_data_1_split
I0403 13:10:45.048588 27542 net.cpp:425] label_data_1_split <- label
I0403 13:10:45.048621 27542 net.cpp:399] label_data_1_split -> label_data_1_split_0
I0403 13:10:45.048650 27542 net.cpp:399] label_data_1_split -> label_data_1_split_1
I0403 13:10:45.048672 27542 net.cpp:399] label_data_1_split -> label_data_1_split_2
I0403 13:10:45.048735 27542 net.cpp:141] Setting up label_data_1_split
I0403 13:10:45.048759 27542 net.cpp:148] Top shape: 100 (100)
I0403 13:10:45.048777 27542 net.cpp:148] Top shape: 100 (100)
I0403 13:10:45.048794 27542 net.cpp:148] Top shape: 100 (100)
I0403 13:10:45.048807 27542 net.cpp:156] Memory required for data: 61836400
I0403 13:10:45.048823 27542 layer_factory.hpp:77] Creating layer conv1
I0403 13:10:45.048856 27542 net.cpp:91] Creating Layer conv1
I0403 13:10:45.048876 27542 net.cpp:425] conv1 <- data
I0403 13:10:45.048895 27542 net.cpp:399] conv1 -> conv1
I0403 13:10:45.195405 27542 net.cpp:141] Setting up conv1
I0403 13:10:45.195483 27542 net.cpp:148] Top shape: 100 96 55 55 (29040000)
I0403 13:10:45.195502 27542 net.cpp:156] Memory required for data: 177996400
I0403 13:10:45.195536 27542 layer_factory.hpp:77] Creating layer relu1
I0403 13:10:45.195565 27542 net.cpp:91] Creating Layer relu1
I0403 13:10:45.195586 27542 net.cpp:425] relu1 <- conv1
I0403 13:10:45.195607 27542 net.cpp:386] relu1 -> conv1 (in-place)
I0403 13:10:45.195888 27542 net.cpp:141] Setting up relu1
I0403 13:10:45.195916 27542 net.cpp:148] Top shape: 100 96 55 55 (29040000)
I0403 13:10:45.195933 27542 net.cpp:156] Memory required for data: 294156400
I0403 13:10:45.195983 27542 layer_factory.hpp:77] Creating layer norm1
I0403 13:10:45.196015 27542 net.cpp:91] Creating Layer norm1
I0403 13:10:45.196036 27542 net.cpp:425] norm1 <- conv1
I0403 13:10:45.196055 27542 net.cpp:399] norm1 -> norm1
I0403 13:10:45.196404 27542 net.cpp:141] Setting up norm1
I0403 13:10:45.196437 27542 net.cpp:148] Top shape: 100 96 55 55 (29040000)
I0403 13:10:45.196455 27542 net.cpp:156] Memory required for data: 410316400
I0403 13:10:45.196472 27542 layer_factory.hpp:77] Creating layer pool1
I0403 13:10:45.196497 27542 net.cpp:91] Creating Layer pool1
I0403 13:10:45.196518 27542 net.cpp:425] pool1 <- norm1
I0403 13:10:45.196537 27542 net.cpp:399] pool1 -> pool1
I0403 13:10:45.196611 27542 net.cpp:141] Setting up pool1
I0403 13:10:45.196637 27542 net.cpp:148] Top shape: 100 96 27 27 (6998400)
I0403 13:10:45.196655 27542 net.cpp:156] Memory required for data: 438310000
I0403 13:10:45.196669 27542 layer_factory.hpp:77] Creating layer conv2
I0403 13:10:45.196697 27542 net.cpp:91] Creating Layer conv2
I0403 13:10:45.196715 27542 net.cpp:425] conv2 <- pool1
I0403 13:10:45.196738 27542 net.cpp:399] conv2 -> conv2
I0403 13:10:45.212241 27542 net.cpp:141] Setting up conv2
I0403 13:10:45.212301 27542 net.cpp:148] Top shape: 100 256 27 27 (18662400)
I0403 13:10:45.212321 27542 net.cpp:156] Memory required for data: 512959600
I0403 13:10:45.212345 27542 layer_factory.hpp:77] Creating layer relu2
I0403 13:10:45.212365 27542 net.cpp:91] Creating Layer relu2
I0403 13:10:45.212383 27542 net.cpp:425] relu2 <- conv2
I0403 13:10:45.212402 27542 net.cpp:386] relu2 -> conv2 (in-place)
I0403 13:10:45.212700 27542 net.cpp:141] Setting up relu2
I0403 13:10:45.212733 27542 net.cpp:148] Top shape: 100 256 27 27 (18662400)
I0403 13:10:45.212750 27542 net.cpp:156] Memory required for data: 587609200
I0403 13:10:45.212767 27542 layer_factory.hpp:77] Creating layer norm2
I0403 13:10:45.212791 27542 net.cpp:91] Creating Layer norm2
I0403 13:10:45.212812 27542 net.cpp:425] norm2 <- conv2
I0403 13:10:45.212832 27542 net.cpp:399] norm2 -> norm2
I0403 13:10:45.213042 27542 net.cpp:141] Setting up norm2
I0403 13:10:45.213068 27542 net.cpp:148] Top shape: 100 256 27 27 (18662400)
I0403 13:10:45.213085 27542 net.cpp:156] Memory required for data: 662258800
I0403 13:10:45.213100 27542 layer_factory.hpp:77] Creating layer pool2
I0403 13:10:45.213124 27542 net.cpp:91] Creating Layer pool2
I0403 13:10:45.213141 27542 net.cpp:425] pool2 <- norm2
I0403 13:10:45.213162 27542 net.cpp:399] pool2 -> pool2
I0403 13:10:45.213218 27542 net.cpp:141] Setting up pool2
I0403 13:10:45.213243 27542 net.cpp:148] Top shape: 100 256 13 13 (4326400)
I0403 13:10:45.213279 27542 net.cpp:156] Memory required for data: 679564400
I0403 13:10:45.213299 27542 layer_factory.hpp:77] Creating layer conv3
I0403 13:10:45.213325 27542 net.cpp:91] Creating Layer conv3
I0403 13:10:45.213345 27542 net.cpp:425] conv3 <- pool2
I0403 13:10:45.213367 27542 net.cpp:399] conv3 -> conv3
I0403 13:10:45.253011 27542 net.cpp:141] Setting up conv3
I0403 13:10:45.253062 27542 net.cpp:148] Top shape: 100 384 13 13 (6489600)
I0403 13:10:45.253080 27542 net.cpp:156] Memory required for data: 705522800
I0403 13:10:45.253108 27542 layer_factory.hpp:77] Creating layer relu3
I0403 13:10:45.253132 27542 net.cpp:91] Creating Layer relu3
I0403 13:10:45.253151 27542 net.cpp:425] relu3 <- conv3
I0403 13:10:45.253171 27542 net.cpp:386] relu3 -> conv3 (in-place)
I0403 13:10:45.253492 27542 net.cpp:141] Setting up relu3
I0403 13:10:45.253525 27542 net.cpp:148] Top shape: 100 384 13 13 (6489600)
I0403 13:10:45.253542 27542 net.cpp:156] Memory required for data: 731481200
I0403 13:10:45.253559 27542 layer_factory.hpp:77] Creating layer conv4
I0403 13:10:45.253587 27542 net.cpp:91] Creating Layer conv4
I0403 13:10:45.253604 27542 net.cpp:425] conv4 <- conv3
I0403 13:10:45.253624 27542 net.cpp:399] conv4 -> conv4
I0403 13:10:45.284150 27542 net.cpp:141] Setting up conv4
I0403 13:10:45.284211 27542 net.cpp:148] Top shape: 100 384 13 13 (6489600)
I0403 13:10:45.284268 27542 net.cpp:156] Memory required for data: 757439600
I0403 13:10:45.284292 27542 layer_factory.hpp:77] Creating layer relu4
I0403 13:10:45.284318 27542 net.cpp:91] Creating Layer relu4
I0403 13:10:45.284338 27542 net.cpp:425] relu4 <- conv4
I0403 13:10:45.284359 27542 net.cpp:386] relu4 -> conv4 (in-place)
I0403 13:10:45.284656 27542 net.cpp:141] Setting up relu4
I0403 13:10:45.284683 27542 net.cpp:148] Top shape: 100 384 13 13 (6489600)
I0403 13:10:45.284700 27542 net.cpp:156] Memory required for data: 783398000
I0403 13:10:45.284718 27542 layer_factory.hpp:77] Creating layer conv5
I0403 13:10:45.284744 27542 net.cpp:91] Creating Layer conv5
I0403 13:10:45.284765 27542 net.cpp:425] conv5 <- conv4
I0403 13:10:45.284786 27542 net.cpp:399] conv5 -> conv5
I0403 13:10:45.305836 27542 net.cpp:141] Setting up conv5
I0403 13:10:45.305893 27542 net.cpp:148] Top shape: 100 256 13 13 (4326400)
I0403 13:10:45.305914 27542 net.cpp:156] Memory required for data: 800703600
I0403 13:10:45.305940 27542 layer_factory.hpp:77] Creating layer relu5
I0403 13:10:45.305968 27542 net.cpp:91] Creating Layer relu5
I0403 13:10:45.305987 27542 net.cpp:425] relu5 <- conv5
I0403 13:10:45.306007 27542 net.cpp:386] relu5 -> conv5 (in-place)
I0403 13:10:45.306327 27542 net.cpp:141] Setting up relu5
I0403 13:10:45.306361 27542 net.cpp:148] Top shape: 100 256 13 13 (4326400)
I0403 13:10:45.306380 27542 net.cpp:156] Memory required for data: 818009200
I0403 13:10:45.306396 27542 layer_factory.hpp:77] Creating layer pool5
I0403 13:10:45.306418 27542 net.cpp:91] Creating Layer pool5
I0403 13:10:45.306435 27542 net.cpp:425] pool5 <- conv5
I0403 13:10:45.306457 27542 net.cpp:399] pool5 -> pool5
I0403 13:10:45.306522 27542 net.cpp:141] Setting up pool5
I0403 13:10:45.306550 27542 net.cpp:148] Top shape: 100 256 6 6 (921600)
I0403 13:10:45.306566 27542 net.cpp:156] Memory required for data: 821695600
I0403 13:10:45.306582 27542 layer_factory.hpp:77] Creating layer fc6
I0403 13:10:45.306622 27542 net.cpp:91] Creating Layer fc6
I0403 13:10:45.306640 27542 net.cpp:425] fc6 <- pool5
I0403 13:10:45.306661 27542 net.cpp:399] fc6 -> fc6
I0403 13:10:46.873045 27542 net.cpp:141] Setting up fc6
I0403 13:10:46.873090 27542 net.cpp:148] Top shape: 100 4096 (409600)
I0403 13:10:46.873107 27542 net.cpp:156] Memory required for data: 823334000
I0403 13:10:46.873131 27542 layer_factory.hpp:77] Creating layer relu6
I0403 13:10:46.873157 27542 net.cpp:91] Creating Layer relu6
I0403 13:10:46.873175 27542 net.cpp:425] relu6 <- fc6
I0403 13:10:46.873196 27542 net.cpp:386] relu6 -> fc6 (in-place)
I0403 13:10:46.873426 27542 net.cpp:141] Setting up relu6
I0403 13:10:46.873456 27542 net.cpp:148] Top shape: 100 4096 (409600)
I0403 13:10:46.873471 27542 net.cpp:156] Memory required for data: 824972400
I0403 13:10:46.873487 27542 layer_factory.hpp:77] Creating layer drop6
I0403 13:10:46.873514 27542 net.cpp:91] Creating Layer drop6
I0403 13:10:46.873538 27542 net.cpp:425] drop6 <- fc6
I0403 13:10:46.873555 27542 net.cpp:386] drop6 -> fc6 (in-place)
I0403 13:10:46.873607 27542 net.cpp:141] Setting up drop6
I0403 13:10:46.873631 27542 net.cpp:148] Top shape: 100 4096 (409600)
I0403 13:10:46.873646 27542 net.cpp:156] Memory required for data: 826610800
I0403 13:10:46.873661 27542 layer_factory.hpp:77] Creating layer fc7
I0403 13:10:46.873683 27542 net.cpp:91] Creating Layer fc7
I0403 13:10:46.873702 27542 net.cpp:425] fc7 <- fc6
I0403 13:10:46.873719 27542 net.cpp:399] fc7 -> fc7
I0403 13:10:47.593893 27542 net.cpp:141] Setting up fc7
I0403 13:10:47.593972 27542 net.cpp:148] Top shape: 100 4096 (409600)
I0403 13:10:47.593991 27542 net.cpp:156] Memory required for data: 828249200
I0403 13:10:47.594014 27542 layer_factory.hpp:77] Creating layer relu7
I0403 13:10:47.594038 27542 net.cpp:91] Creating Layer relu7
I0403 13:10:47.594056 27542 net.cpp:425] relu7 <- fc7
I0403 13:10:47.594077 27542 net.cpp:386] relu7 -> fc7 (in-place)
I0403 13:10:47.594502 27542 net.cpp:141] Setting up relu7
I0403 13:10:47.594532 27542 net.cpp:148] Top shape: 100 4096 (409600)
I0403 13:10:47.594583 27542 net.cpp:156] Memory required for data: 829887600
I0403 13:10:47.594599 27542 layer_factory.hpp:77] Creating layer drop7
I0403 13:10:47.594620 27542 net.cpp:91] Creating Layer drop7
I0403 13:10:47.594637 27542 net.cpp:425] drop7 <- fc7
I0403 13:10:47.594655 27542 net.cpp:386] drop7 -> fc7 (in-place)
I0403 13:10:47.594702 27542 net.cpp:141] Setting up drop7
I0403 13:10:47.594727 27542 net.cpp:148] Top shape: 100 4096 (409600)
I0403 13:10:47.594741 27542 net.cpp:156] Memory required for data: 831526000
I0403 13:10:47.594758 27542 layer_factory.hpp:77] Creating layer fc8_plantvillage
I0403 13:10:47.594781 27542 net.cpp:91] Creating Layer fc8_plantvillage
I0403 13:10:47.594797 27542 net.cpp:425] fc8_plantvillage <- fc7
I0403 13:10:47.594815 27542 net.cpp:399] fc8_plantvillage -> fc8_plantvillage
I0403 13:10:47.601881 27542 net.cpp:141] Setting up fc8_plantvillage
I0403 13:10:47.601912 27542 net.cpp:148] Top shape: 100 38 (3800)
I0403 13:10:47.601928 27542 net.cpp:156] Memory required for data: 831541200
I0403 13:10:47.601949 27542 layer_factory.hpp:77] Creating layer fc8_plantvillage_fc8_plantvillage_0_split
I0403 13:10:47.601971 27542 net.cpp:91] Creating Layer fc8_plantvillage_fc8_plantvillage_0_split
I0403 13:10:47.601989 27542 net.cpp:425] fc8_plantvillage_fc8_plantvillage_0_split <- fc8_plantvillage
I0403 13:10:47.602010 27542 net.cpp:399] fc8_plantvillage_fc8_plantvillage_0_split -> fc8_plantvillage_fc8_plantvillage_0_split_0
I0403 13:10:47.602031 27542 net.cpp:399] fc8_plantvillage_fc8_plantvillage_0_split -> fc8_plantvillage_fc8_plantvillage_0_split_1
I0403 13:10:47.602052 27542 net.cpp:399] fc8_plantvillage_fc8_plantvillage_0_split -> fc8_plantvillage_fc8_plantvillage_0_split_2
I0403 13:10:47.602131 27542 net.cpp:141] Setting up fc8_plantvillage_fc8_plantvillage_0_split
I0403 13:10:47.602157 27542 net.cpp:148] Top shape: 100 38 (3800)
I0403 13:10:47.602174 27542 net.cpp:148] Top shape: 100 38 (3800)
I0403 13:10:47.602190 27542 net.cpp:148] Top shape: 100 38 (3800)
I0403 13:10:47.602203 27542 net.cpp:156] Memory required for data: 831586800
I0403 13:10:47.602218 27542 layer_factory.hpp:77] Creating layer prob
I0403 13:10:47.602241 27542 net.cpp:91] Creating Layer prob
I0403 13:10:47.602267 27542 net.cpp:425] prob <- fc8_plantvillage_fc8_plantvillage_0_split_0
I0403 13:10:47.602288 27542 net.cpp:399] prob -> prob
I0403 13:10:47.602524 27542 net.cpp:141] Setting up prob
I0403 13:10:47.602553 27542 net.cpp:148] Top shape: 100 38 (3800)
I0403 13:10:47.602571 27542 net.cpp:156] Memory required for data: 831602000
I0403 13:10:47.602586 27542 layer_factory.hpp:77] Creating layer hdf5out
I0403 13:10:47.602605 27542 net.cpp:91] Creating Layer hdf5out
I0403 13:10:47.602623 27542 net.cpp:425] hdf5out <- prob
I0403 13:10:47.602641 27542 net.cpp:425] hdf5out <- label_data_1_split_0
I0403 13:10:47.606058 27542 net.cpp:141] Setting up hdf5out
…
