…
I0403 13:27:23.966539 28099 net.cpp:313] The NetState phase (1) differed from the phase (0) specified by a rule in layer data
I0403 13:27:23.966847 28099 net.cpp:49] Initializing net from parameters: 
state {
  phase: TEST
}
layer {
  name: "data"
  type: "Data"
  top: "data"
  top: "label"
  include {
    phase: TEST
  }
  transform_param {
    crop_size: 227
    mean_file: "/home/mohanty/data/final_dataset/lmdb/color-60-40/mean.binaryproto"
  }
  data_param {
    source: "/home/mohanty/data/final_dataset/lmdb/color-60-40/test_db"
    batch_size: 100
    backend: LMDB
  }
}
layer {
  name: "conv1"
  type: "Convolution"
  bottom: "data"
  top: "conv1"
  param {
    lr_mult: 1
    decay_mult: 1
  }
  param {
    lr_mult: 2
    decay_mult: 0
  }
  convolution_param {
    num_output: 96
    kernel_size: 11
    stride: 4
    weight_filler {
      type: "gaussian"
      std: 0.01
    }
    bias_filler {
      type: "constant"
      value: 0
    }
  }
}
layer {
  name: "relu1"
  type: "ReLU"
  bottom: "conv1"
  top: "conv1"
}
layer {
  name: "norm1"
  type: "LRN"
  bottom: "conv1"
  top: "norm1"
  lrn_param {
    local_size: 5
    alpha: 0.0001
    beta: 0.75
  }
}
layer {
  name: "pool1"
  type: "Pooling"
  bottom: "norm1"
  top: "pool1"
  pooling_param {
    pool: MAX
    kernel_size: 3
    stride: 2
  }
}
layer {
  name: "conv2"
  type: "Convolution"
  bottom: "pool1"
  top: "conv2"
  param {
    lr_mult: 1
    decay_mult: 1
  }
  param {
    lr_mult: 2
    decay_mult: 0
  }
  convolution_param {
    num_output: 256
    pad: 2
    kernel_size: 5
    group: 2
    weight_filler {
      type: "gaussian"
      std: 0.01
    }
    bias_filler {
      type: "constant"
      value: 0.1
    }
  }
}
layer {
  name: "relu2"
  type: "ReLU"
  bottom: "conv2"
  top: "conv2"
}
layer {
  name: "norm2"
  type: "LRN"
  bottom: "conv2"
  top: "norm2"
  lrn_param {
    local_size: 5
    alpha: 0.0001
    beta: 0.75
  }
}
layer {
  name: "pool2"
  type: "Pooling"
  bottom: "norm2"
  top: "pool2"
  pooling_param {
    pool: MAX
    kernel_size: 3
    stride: 2
  }
}
layer {
  name: "conv3"
  type: "Convolution"
  bottom: "pool2"
  top: "conv3"
  param {
    lr_mult: 1
    decay_mult: 1
  }
  param {
    lr_mult: 2
    decay_mult: 0
  }
  convolution_param {
    num_output: 384
    pad: 1
    kernel_size: 3
    weight_filler {
      type: "gaussian"
      std: 0.01
    }
    bias_filler {
      type: "constant"
      value: 0
    }
  }
}
layer {
  name: "relu3"
  type: "ReLU"
  bottom: "conv3"
  top: "conv3"
}
layer {
  name: "conv4"
  type: "Convolution"
  bottom: "conv3"
  top: "conv4"
  param {
    lr_mult: 1
    decay_mult: 1
  }
  param {
    lr_mult: 2
    decay_mult: 0
  }
  convolution_param {
    num_output: 384
    pad: 1
    kernel_size: 3
    group: 2
    weight_filler {
      type: "gaussian"
      std: 0.01
    }
    bias_filler {
      type: "constant"
      value: 0.1
    }
  }
}
layer {
  name: "relu4"
  type: "ReLU"
  bottom: "conv4"
  top: "conv4"
}
layer {
  name: "conv5"
  type: "Convolution"
  bottom: "conv4"
  top: "conv5"
  param {
    lr_mult: 1
    decay_mult: 1
  }
  param {
    lr_mult: 2
    decay_mult: 0
  }
  convolution_param {
    num_output: 256
    pad: 1
    kernel_size: 3
    group: 2
    weight_filler {
      type: "gaussian"
      std: 0.01
    }
    bias_filler {
      type: "constant"
      value: 0.1
    }
  }
}
layer {
  name: "relu5"
  type: "ReLU"
  bottom: "conv5"
  top: "conv5"
}
layer {
  name: "pool5"
  type: "Pooling"
  bottom: "conv5"
  top: "pool5"
  pooling_param {
    pool: MAX
    kernel_size: 3
    stride: 2
  }
}
layer {
  name: "fc6"
  type: "InnerProduct"
  bottom: "pool5"
  top: "fc6"
  param {
    lr_mult: 1
    decay_mult: 1
  }
  param {
    lr_mult: 2
    decay_mult: 0
  }
  inner_product_param {
    num_output: 4096
    weight_filler {
      type: "gaussian"
      std: 0.005
    }
    bias_filler {
      type: "constant"
      value: 0.1
    }
  }
}
layer {
  name: "relu6"
  type: "ReLU"
  bottom: "fc6"
  top: "fc6"
}
layer {
  name: "drop6"
  type: "Dropout"
  bottom: "fc6"
  top: "fc6"
  dropout_param {
    dropout_ratio: 0.5
  }
}
layer {
  name: "fc7"
  type: "InnerProduct"
  bottom: "fc6"
  top: "fc7"
  param {
    lr_mult: 1
    decay_mult: 1
  }
  param {
    lr_mult: 2
    decay_mult: 0
  }
  inner_product_param {
    num_output: 4096
    weight_filler {
      type: "gaussian"
      std: 0.005
    }
    bias_filler {
      type: "constant"
      value: 0.1
    }
  }
}
layer {
  name: "relu7"
  type: "ReLU"
  bottom: "fc7"
  top: "fc7"
}
layer {
  name: "drop7"
  type: "Dropout"
  bottom: "fc7"
  top: "fc7"
  dropout_param {
    dropout_ratio: 0.5
  }
}
layer {
  name: "fc8_plantvillage"
  type: "InnerProduct"
  bottom: "fc7"
  top: "fc8_plantvillage"
  param {
    lr_mult: 1
    decay_mult: 1
  }
  param {
    lr_mult: 2
    decay_mult: 0
  }
  inner_product_param {
    num_output: 38
    weight_filler {
      type: "gaussian"
      std: 0.01
    }
    bias_filler {
      type: "constant"
      value: 0
    }
  }
}
layer {
  name: "prob"
  type: "Softmax"
  bottom: "fc8_plantvillage"
  top: "prob"
  include {
    phase: TEST
  }
}
layer {
  name: "hdf5out"
  type: "HDF5Output"
  bottom: "prob"
  bottom: "label"
  include {
    phase: TEST
  }
  hdf5_output_param {
    file_name: "hdf5_dumps/iter_9750.h5"
  }
}
layer {
  name: "loss"
  type: "SoftmaxWithLoss"
  bottom: "fc8_plantvillage"
  bottom: "label"
  top: "loss"
}
layer {
  name: "accuracy"
  type: "Accuracy"
  bottom: "fc8_plantvillage"
  bottom: "label"
  top: "accuracy"
  include {
    phase: TEST
  }
}
I0403 13:27:23.969926 28099 layer_factory.hpp:77] Creating layer data
I0403 13:27:23.970592 28099 net.cpp:91] Creating Layer data
I0403 13:27:23.970626 28099 net.cpp:399] data -> data
I0403 13:27:23.970677 28099 net.cpp:399] data -> label
I0403 13:27:23.970718 28099 data_transformer.cpp:25] Loading mean file from: /home/mohanty/data/final_dataset/lmdb/color-60-40/mean.binaryproto
I0403 13:27:23.974092 28103 db_lmdb.cpp:38] Opened lmdb /home/mohanty/data/final_dataset/lmdb/color-60-40/test_db
I0403 13:27:23.985415 28099 data_layer.cpp:41] output data size: 100,3,227,227
I0403 13:27:24.121547 28099 net.cpp:141] Setting up data
I0403 13:27:24.121610 28099 net.cpp:148] Top shape: 100 3 227 227 (15458700)
I0403 13:27:24.121634 28099 net.cpp:148] Top shape: 100 (100)
I0403 13:27:24.121651 28099 net.cpp:156] Memory required for data: 61835200
I0403 13:27:24.121680 28099 layer_factory.hpp:77] Creating layer label_data_1_split
I0403 13:27:24.121707 28099 net.cpp:91] Creating Layer label_data_1_split
I0403 13:27:24.121726 28099 net.cpp:425] label_data_1_split <- label
I0403 13:27:24.121762 28099 net.cpp:399] label_data_1_split -> label_data_1_split_0
I0403 13:27:24.121789 28099 net.cpp:399] label_data_1_split -> label_data_1_split_1
I0403 13:27:24.121811 28099 net.cpp:399] label_data_1_split -> label_data_1_split_2
I0403 13:27:24.121876 28099 net.cpp:141] Setting up label_data_1_split
I0403 13:27:24.121901 28099 net.cpp:148] Top shape: 100 (100)
I0403 13:27:24.121919 28099 net.cpp:148] Top shape: 100 (100)
I0403 13:27:24.121937 28099 net.cpp:148] Top shape: 100 (100)
I0403 13:27:24.121953 28099 net.cpp:156] Memory required for data: 61836400
I0403 13:27:24.121970 28099 layer_factory.hpp:77] Creating layer conv1
I0403 13:27:24.122004 28099 net.cpp:91] Creating Layer conv1
I0403 13:27:24.122022 28099 net.cpp:425] conv1 <- data
I0403 13:27:24.122043 28099 net.cpp:399] conv1 -> conv1
I0403 13:27:24.272632 28099 net.cpp:141] Setting up conv1
I0403 13:27:24.272711 28099 net.cpp:148] Top shape: 100 96 55 55 (29040000)
I0403 13:27:24.272730 28099 net.cpp:156] Memory required for data: 177996400
I0403 13:27:24.272763 28099 layer_factory.hpp:77] Creating layer relu1
I0403 13:27:24.272794 28099 net.cpp:91] Creating Layer relu1
I0403 13:27:24.272814 28099 net.cpp:425] relu1 <- conv1
I0403 13:27:24.272838 28099 net.cpp:386] relu1 -> conv1 (in-place)
I0403 13:27:24.273140 28099 net.cpp:141] Setting up relu1
I0403 13:27:24.273171 28099 net.cpp:148] Top shape: 100 96 55 55 (29040000)
I0403 13:27:24.273190 28099 net.cpp:156] Memory required for data: 294156400
I0403 13:27:24.273238 28099 layer_factory.hpp:77] Creating layer norm1
I0403 13:27:24.273267 28099 net.cpp:91] Creating Layer norm1
I0403 13:27:24.273300 28099 net.cpp:425] norm1 <- conv1
I0403 13:27:24.273324 28099 net.cpp:399] norm1 -> norm1
I0403 13:27:24.273664 28099 net.cpp:141] Setting up norm1
I0403 13:27:24.273694 28099 net.cpp:148] Top shape: 100 96 55 55 (29040000)
I0403 13:27:24.273711 28099 net.cpp:156] Memory required for data: 410316400
I0403 13:27:24.273728 28099 layer_factory.hpp:77] Creating layer pool1
I0403 13:27:24.273752 28099 net.cpp:91] Creating Layer pool1
I0403 13:27:24.273775 28099 net.cpp:425] pool1 <- norm1
I0403 13:27:24.273793 28099 net.cpp:399] pool1 -> pool1
I0403 13:27:24.273867 28099 net.cpp:141] Setting up pool1
I0403 13:27:24.273893 28099 net.cpp:148] Top shape: 100 96 27 27 (6998400)
I0403 13:27:24.273910 28099 net.cpp:156] Memory required for data: 438310000
I0403 13:27:24.273924 28099 layer_factory.hpp:77] Creating layer conv2
I0403 13:27:24.273953 28099 net.cpp:91] Creating Layer conv2
I0403 13:27:24.273972 28099 net.cpp:425] conv2 <- pool1
I0403 13:27:24.273993 28099 net.cpp:399] conv2 -> conv2
I0403 13:27:24.289518 28099 net.cpp:141] Setting up conv2
I0403 13:27:24.289571 28099 net.cpp:148] Top shape: 100 256 27 27 (18662400)
I0403 13:27:24.289588 28099 net.cpp:156] Memory required for data: 512959600
I0403 13:27:24.289615 28099 layer_factory.hpp:77] Creating layer relu2
I0403 13:27:24.289638 28099 net.cpp:91] Creating Layer relu2
I0403 13:27:24.289660 28099 net.cpp:425] relu2 <- conv2
I0403 13:27:24.289683 28099 net.cpp:386] relu2 -> conv2 (in-place)
I0403 13:27:24.289983 28099 net.cpp:141] Setting up relu2
I0403 13:27:24.290012 28099 net.cpp:148] Top shape: 100 256 27 27 (18662400)
I0403 13:27:24.290029 28099 net.cpp:156] Memory required for data: 587609200
I0403 13:27:24.290045 28099 layer_factory.hpp:77] Creating layer norm2
I0403 13:27:24.290069 28099 net.cpp:91] Creating Layer norm2
I0403 13:27:24.290086 28099 net.cpp:425] norm2 <- conv2
I0403 13:27:24.290108 28099 net.cpp:399] norm2 -> norm2
I0403 13:27:24.290320 28099 net.cpp:141] Setting up norm2
I0403 13:27:24.290349 28099 net.cpp:148] Top shape: 100 256 27 27 (18662400)
I0403 13:27:24.290365 28099 net.cpp:156] Memory required for data: 662258800
I0403 13:27:24.290381 28099 layer_factory.hpp:77] Creating layer pool2
I0403 13:27:24.290400 28099 net.cpp:91] Creating Layer pool2
I0403 13:27:24.290416 28099 net.cpp:425] pool2 <- norm2
I0403 13:27:24.290436 28099 net.cpp:399] pool2 -> pool2
I0403 13:27:24.290498 28099 net.cpp:141] Setting up pool2
I0403 13:27:24.290524 28099 net.cpp:148] Top shape: 100 256 13 13 (4326400)
I0403 13:27:24.290539 28099 net.cpp:156] Memory required for data: 679564400
I0403 13:27:24.290556 28099 layer_factory.hpp:77] Creating layer conv3
I0403 13:27:24.290582 28099 net.cpp:91] Creating Layer conv3
I0403 13:27:24.290601 28099 net.cpp:425] conv3 <- pool2
I0403 13:27:24.290621 28099 net.cpp:399] conv3 -> conv3
I0403 13:27:24.330154 28099 net.cpp:141] Setting up conv3
I0403 13:27:24.330226 28099 net.cpp:148] Top shape: 100 384 13 13 (6489600)
I0403 13:27:24.330245 28099 net.cpp:156] Memory required for data: 705522800
I0403 13:27:24.330274 28099 layer_factory.hpp:77] Creating layer relu3
I0403 13:27:24.330305 28099 net.cpp:91] Creating Layer relu3
I0403 13:27:24.330327 28099 net.cpp:425] relu3 <- conv3
I0403 13:27:24.330348 28099 net.cpp:386] relu3 -> conv3 (in-place)
I0403 13:27:24.330636 28099 net.cpp:141] Setting up relu3
I0403 13:27:24.330664 28099 net.cpp:148] Top shape: 100 384 13 13 (6489600)
I0403 13:27:24.330682 28099 net.cpp:156] Memory required for data: 731481200
I0403 13:27:24.330698 28099 layer_factory.hpp:77] Creating layer conv4
I0403 13:27:24.330725 28099 net.cpp:91] Creating Layer conv4
I0403 13:27:24.330744 28099 net.cpp:425] conv4 <- conv3
I0403 13:27:24.330767 28099 net.cpp:399] conv4 -> conv4
I0403 13:27:24.360812 28099 net.cpp:141] Setting up conv4
I0403 13:27:24.360873 28099 net.cpp:148] Top shape: 100 384 13 13 (6489600)
I0403 13:27:24.360923 28099 net.cpp:156] Memory required for data: 757439600
I0403 13:27:24.360944 28099 layer_factory.hpp:77] Creating layer relu4
I0403 13:27:24.360966 28099 net.cpp:91] Creating Layer relu4
I0403 13:27:24.360986 28099 net.cpp:425] relu4 <- conv4
I0403 13:27:24.361012 28099 net.cpp:386] relu4 -> conv4 (in-place)
I0403 13:27:24.361301 28099 net.cpp:141] Setting up relu4
I0403 13:27:24.361331 28099 net.cpp:148] Top shape: 100 384 13 13 (6489600)
I0403 13:27:24.361349 28099 net.cpp:156] Memory required for data: 783398000
I0403 13:27:24.361366 28099 layer_factory.hpp:77] Creating layer conv5
I0403 13:27:24.361392 28099 net.cpp:91] Creating Layer conv5
I0403 13:27:24.361409 28099 net.cpp:425] conv5 <- conv4
I0403 13:27:24.361433 28099 net.cpp:399] conv5 -> conv5
I0403 13:27:24.382055 28099 net.cpp:141] Setting up conv5
I0403 13:27:24.382104 28099 net.cpp:148] Top shape: 100 256 13 13 (4326400)
I0403 13:27:24.382122 28099 net.cpp:156] Memory required for data: 800703600
I0403 13:27:24.382148 28099 layer_factory.hpp:77] Creating layer relu5
I0403 13:27:24.382169 28099 net.cpp:91] Creating Layer relu5
I0403 13:27:24.382186 28099 net.cpp:425] relu5 <- conv5
I0403 13:27:24.382207 28099 net.cpp:386] relu5 -> conv5 (in-place)
I0403 13:27:24.382493 28099 net.cpp:141] Setting up relu5
I0403 13:27:24.382521 28099 net.cpp:148] Top shape: 100 256 13 13 (4326400)
I0403 13:27:24.382537 28099 net.cpp:156] Memory required for data: 818009200
I0403 13:27:24.382552 28099 layer_factory.hpp:77] Creating layer pool5
I0403 13:27:24.382578 28099 net.cpp:91] Creating Layer pool5
I0403 13:27:24.382596 28099 net.cpp:425] pool5 <- conv5
I0403 13:27:24.382616 28099 net.cpp:399] pool5 -> pool5
I0403 13:27:24.382679 28099 net.cpp:141] Setting up pool5
I0403 13:27:24.382704 28099 net.cpp:148] Top shape: 100 256 6 6 (921600)
I0403 13:27:24.382719 28099 net.cpp:156] Memory required for data: 821695600
I0403 13:27:24.382733 28099 layer_factory.hpp:77] Creating layer fc6
I0403 13:27:24.382762 28099 net.cpp:91] Creating Layer fc6
I0403 13:27:24.382781 28099 net.cpp:425] fc6 <- pool5
I0403 13:27:24.382800 28099 net.cpp:399] fc6 -> fc6
I0403 13:27:25.961460 28099 net.cpp:141] Setting up fc6
I0403 13:27:25.961504 28099 net.cpp:148] Top shape: 100 4096 (409600)
I0403 13:27:25.961521 28099 net.cpp:156] Memory required for data: 823334000
I0403 13:27:25.961544 28099 layer_factory.hpp:77] Creating layer relu6
I0403 13:27:25.961566 28099 net.cpp:91] Creating Layer relu6
I0403 13:27:25.961582 28099 net.cpp:425] relu6 <- fc6
I0403 13:27:25.961606 28099 net.cpp:386] relu6 -> fc6 (in-place)
I0403 13:27:25.961833 28099 net.cpp:141] Setting up relu6
I0403 13:27:25.961858 28099 net.cpp:148] Top shape: 100 4096 (409600)
I0403 13:27:25.961874 28099 net.cpp:156] Memory required for data: 824972400
I0403 13:27:25.961889 28099 layer_factory.hpp:77] Creating layer drop6
I0403 13:27:25.961906 28099 net.cpp:91] Creating Layer drop6
I0403 13:27:25.961920 28099 net.cpp:425] drop6 <- fc6
I0403 13:27:25.961942 28099 net.cpp:386] drop6 -> fc6 (in-place)
I0403 13:27:25.961992 28099 net.cpp:141] Setting up drop6
I0403 13:27:25.962019 28099 net.cpp:148] Top shape: 100 4096 (409600)
I0403 13:27:25.962035 28099 net.cpp:156] Memory required for data: 826610800
I0403 13:27:25.962051 28099 layer_factory.hpp:77] Creating layer fc7
I0403 13:27:25.962071 28099 net.cpp:91] Creating Layer fc7
I0403 13:27:25.962087 28099 net.cpp:425] fc7 <- fc6
I0403 13:27:25.962106 28099 net.cpp:399] fc7 -> fc7
I0403 13:27:26.654348 28099 net.cpp:141] Setting up fc7
I0403 13:27:26.654425 28099 net.cpp:148] Top shape: 100 4096 (409600)
I0403 13:27:26.654443 28099 net.cpp:156] Memory required for data: 828249200
I0403 13:27:26.654464 28099 layer_factory.hpp:77] Creating layer relu7
I0403 13:27:26.654487 28099 net.cpp:91] Creating Layer relu7
I0403 13:27:26.654506 28099 net.cpp:425] relu7 <- fc7
I0403 13:27:26.654528 28099 net.cpp:386] relu7 -> fc7 (in-place)
I0403 13:27:26.654922 28099 net.cpp:141] Setting up relu7
I0403 13:27:26.654948 28099 net.cpp:148] Top shape: 100 4096 (409600)
I0403 13:27:26.654995 28099 net.cpp:156] Memory required for data: 829887600
I0403 13:27:26.655011 28099 layer_factory.hpp:77] Creating layer drop7
I0403 13:27:26.655030 28099 net.cpp:91] Creating Layer drop7
I0403 13:27:26.655045 28099 net.cpp:425] drop7 <- fc7
I0403 13:27:26.655066 28099 net.cpp:386] drop7 -> fc7 (in-place)
I0403 13:27:26.655108 28099 net.cpp:141] Setting up drop7
I0403 13:27:26.655135 28099 net.cpp:148] Top shape: 100 4096 (409600)
I0403 13:27:26.655150 28099 net.cpp:156] Memory required for data: 831526000
I0403 13:27:26.655165 28099 layer_factory.hpp:77] Creating layer fc8_plantvillage
I0403 13:27:26.655185 28099 net.cpp:91] Creating Layer fc8_plantvillage
I0403 13:27:26.655201 28099 net.cpp:425] fc8_plantvillage <- fc7
I0403 13:27:26.655222 28099 net.cpp:399] fc8_plantvillage -> fc8_plantvillage
I0403 13:27:26.662075 28099 net.cpp:141] Setting up fc8_plantvillage
I0403 13:27:26.662106 28099 net.cpp:148] Top shape: 100 38 (3800)
I0403 13:27:26.662122 28099 net.cpp:156] Memory required for data: 831541200
I0403 13:27:26.662142 28099 layer_factory.hpp:77] Creating layer fc8_plantvillage_fc8_plantvillage_0_split
I0403 13:27:26.662161 28099 net.cpp:91] Creating Layer fc8_plantvillage_fc8_plantvillage_0_split
I0403 13:27:26.662178 28099 net.cpp:425] fc8_plantvillage_fc8_plantvillage_0_split <- fc8_plantvillage
I0403 13:27:26.662196 28099 net.cpp:399] fc8_plantvillage_fc8_plantvillage_0_split -> fc8_plantvillage_fc8_plantvillage_0_split_0
I0403 13:27:26.662217 28099 net.cpp:399] fc8_plantvillage_fc8_plantvillage_0_split -> fc8_plantvillage_fc8_plantvillage_0_split_1
I0403 13:27:26.662240 28099 net.cpp:399] fc8_plantvillage_fc8_plantvillage_0_split -> fc8_plantvillage_fc8_plantvillage_0_split_2
I0403 13:27:26.662322 28099 net.cpp:141] Setting up fc8_plantvillage_fc8_plantvillage_0_split
I0403 13:27:26.662348 28099 net.cpp:148] Top shape: 100 38 (3800)
I0403 13:27:26.662364 28099 net.cpp:148] Top shape: 100 38 (3800)
I0403 13:27:26.662379 28099 net.cpp:148] Top shape: 100 38 (3800)
I0403 13:27:26.662394 28099 net.cpp:156] Memory required for data: 831586800
I0403 13:27:26.662408 28099 layer_factory.hpp:77] Creating layer prob
I0403 13:27:26.662428 28099 net.cpp:91] Creating Layer prob
I0403 13:27:26.662443 28099 net.cpp:425] prob <- fc8_plantvillage_fc8_plantvillage_0_split_0
I0403 13:27:26.662463 28099 net.cpp:399] prob -> prob
I0403 13:27:26.662689 28099 net.cpp:141] Setting up prob
I0403 13:27:26.662715 28099 net.cpp:148] Top shape: 100 38 (3800)
I0403 13:27:26.662732 28099 net.cpp:156] Memory required for data: 831602000
I0403 13:27:26.662747 28099 layer_factory.hpp:77] Creating layer hdf5out
I0403 13:27:26.662767 28099 net.cpp:91] Creating Layer hdf5out
I0403 13:27:26.662782 28099 net.cpp:425] hdf5out <- prob
I0403 13:27:26.662799 28099 net.cpp:425] hdf5out <- label_data_1_split_0
I0403 13:27:26.666579 28099 net.cpp:141] Setting up hdf5out
…
