…
I0403 13:05:11.655884 27378 net.cpp:313] The NetState phase (1) differed from the phase (0) specified by a rule in layer data
I0403 13:05:11.656184 27378 net.cpp:49] Initializing net from parameters: 
state {
  phase: TEST
}
layer {
  name: "data"
  type: "Data"
  top: "data"
  top: "label"
  include {
    phase: TEST
  }
  transform_param {
    crop_size: 227
    mean_file: "/home/mohanty/data/final_dataset/lmdb/color-60-40/mean.binaryproto"
  }
  data_param {
    source: "/home/mohanty/data/final_dataset/lmdb/color-60-40/test_db"
    batch_size: 100
    backend: LMDB
  }
}
layer {
  name: "conv1"
  type: "Convolution"
  bottom: "data"
  top: "conv1"
  param {
    lr_mult: 1
    decay_mult: 1
  }
  param {
    lr_mult: 2
    decay_mult: 0
  }
  convolution_param {
    num_output: 96
    kernel_size: 11
    stride: 4
    weight_filler {
      type: "gaussian"
      std: 0.01
    }
    bias_filler {
      type: "constant"
      value: 0
    }
  }
}
layer {
  name: "relu1"
  type: "ReLU"
  bottom: "conv1"
  top: "conv1"
}
layer {
  name: "norm1"
  type: "LRN"
  bottom: "conv1"
  top: "norm1"
  lrn_param {
    local_size: 5
    alpha: 0.0001
    beta: 0.75
  }
}
layer {
  name: "pool1"
  type: "Pooling"
  bottom: "norm1"
  top: "pool1"
  pooling_param {
    pool: MAX
    kernel_size: 3
    stride: 2
  }
}
layer {
  name: "conv2"
  type: "Convolution"
  bottom: "pool1"
  top: "conv2"
  param {
    lr_mult: 1
    decay_mult: 1
  }
  param {
    lr_mult: 2
    decay_mult: 0
  }
  convolution_param {
    num_output: 256
    pad: 2
    kernel_size: 5
    group: 2
    weight_filler {
      type: "gaussian"
      std: 0.01
    }
    bias_filler {
      type: "constant"
      value: 0.1
    }
  }
}
layer {
  name: "relu2"
  type: "ReLU"
  bottom: "conv2"
  top: "conv2"
}
layer {
  name: "norm2"
  type: "LRN"
  bottom: "conv2"
  top: "norm2"
  lrn_param {
    local_size: 5
    alpha: 0.0001
    beta: 0.75
  }
}
layer {
  name: "pool2"
  type: "Pooling"
  bottom: "norm2"
  top: "pool2"
  pooling_param {
    pool: MAX
    kernel_size: 3
    stride: 2
  }
}
layer {
  name: "conv3"
  type: "Convolution"
  bottom: "pool2"
  top: "conv3"
  param {
    lr_mult: 1
    decay_mult: 1
  }
  param {
    lr_mult: 2
    decay_mult: 0
  }
  convolution_param {
    num_output: 384
    pad: 1
    kernel_size: 3
    weight_filler {
      type: "gaussian"
      std: 0.01
    }
    bias_filler {
      type: "constant"
      value: 0
    }
  }
}
layer {
  name: "relu3"
  type: "ReLU"
  bottom: "conv3"
  top: "conv3"
}
layer {
  name: "conv4"
  type: "Convolution"
  bottom: "conv3"
  top: "conv4"
  param {
    lr_mult: 1
    decay_mult: 1
  }
  param {
    lr_mult: 2
    decay_mult: 0
  }
  convolution_param {
    num_output: 384
    pad: 1
    kernel_size: 3
    group: 2
    weight_filler {
      type: "gaussian"
      std: 0.01
    }
    bias_filler {
      type: "constant"
      value: 0.1
    }
  }
}
layer {
  name: "relu4"
  type: "ReLU"
  bottom: "conv4"
  top: "conv4"
}
layer {
  name: "conv5"
  type: "Convolution"
  bottom: "conv4"
  top: "conv5"
  param {
    lr_mult: 1
    decay_mult: 1
  }
  param {
    lr_mult: 2
    decay_mult: 0
  }
  convolution_param {
    num_output: 256
    pad: 1
    kernel_size: 3
    group: 2
    weight_filler {
      type: "gaussian"
      std: 0.01
    }
    bias_filler {
      type: "constant"
      value: 0.1
    }
  }
}
layer {
  name: "relu5"
  type: "ReLU"
  bottom: "conv5"
  top: "conv5"
}
layer {
  name: "pool5"
  type: "Pooling"
  bottom: "conv5"
  top: "pool5"
  pooling_param {
    pool: MAX
    kernel_size: 3
    stride: 2
  }
}
layer {
  name: "fc6"
  type: "InnerProduct"
  bottom: "pool5"
  top: "fc6"
  param {
    lr_mult: 1
    decay_mult: 1
  }
  param {
    lr_mult: 2
    decay_mult: 0
  }
  inner_product_param {
    num_output: 4096
    weight_filler {
      type: "gaussian"
      std: 0.005
    }
    bias_filler {
      type: "constant"
      value: 0.1
    }
  }
}
layer {
  name: "relu6"
  type: "ReLU"
  bottom: "fc6"
  top: "fc6"
}
layer {
  name: "drop6"
  type: "Dropout"
  bottom: "fc6"
  top: "fc6"
  dropout_param {
    dropout_ratio: 0.5
  }
}
layer {
  name: "fc7"
  type: "InnerProduct"
  bottom: "fc6"
  top: "fc7"
  param {
    lr_mult: 1
    decay_mult: 1
  }
  param {
    lr_mult: 2
    decay_mult: 0
  }
  inner_product_param {
    num_output: 4096
    weight_filler {
      type: "gaussian"
      std: 0.005
    }
    bias_filler {
      type: "constant"
      value: 0.1
    }
  }
}
layer {
  name: "relu7"
  type: "ReLU"
  bottom: "fc7"
  top: "fc7"
}
layer {
  name: "drop7"
  type: "Dropout"
  bottom: "fc7"
  top: "fc7"
  dropout_param {
    dropout_ratio: 0.5
  }
}
layer {
  name: "fc8_plantvillage"
  type: "InnerProduct"
  bottom: "fc7"
  top: "fc8_plantvillage"
  param {
    lr_mult: 1
    decay_mult: 1
  }
  param {
    lr_mult: 2
    decay_mult: 0
  }
  inner_product_param {
    num_output: 38
    weight_filler {
      type: "gaussian"
      std: 0.01
    }
    bias_filler {
      type: "constant"
      value: 0
    }
  }
}
layer {
  name: "prob"
  type: "Softmax"
  bottom: "fc8_plantvillage"
  top: "prob"
  include {
    phase: TEST
  }
}
layer {
  name: "hdf5out"
  type: "HDF5Output"
  bottom: "prob"
  bottom: "label"
  include {
    phase: TEST
  }
  hdf5_output_param {
    file_name: "hdf5_dumps/iter_650.h5"
  }
}
layer {
  name: "loss"
  type: "SoftmaxWithLoss"
  bottom: "fc8_plantvillage"
  bottom: "label"
  top: "loss"
}
layer {
  name: "accuracy"
  type: "Accuracy"
  bottom: "fc8_plantvillage"
  bottom: "label"
  top: "accuracy"
  include {
    phase: TEST
  }
}
I0403 13:05:11.656733 27378 layer_factory.hpp:77] Creating layer data
I0403 13:05:11.657371 27378 net.cpp:91] Creating Layer data
I0403 13:05:11.657402 27378 net.cpp:399] data -> data
I0403 13:05:11.657454 27378 net.cpp:399] data -> label
I0403 13:05:11.657495 27378 data_transformer.cpp:25] Loading mean file from: /home/mohanty/data/final_dataset/lmdb/color-60-40/mean.binaryproto
I0403 13:05:11.666951 27381 db_lmdb.cpp:38] Opened lmdb /home/mohanty/data/final_dataset/lmdb/color-60-40/test_db
I0403 13:05:11.671229 27378 data_layer.cpp:41] output data size: 100,3,227,227
I0403 13:05:11.807189 27378 net.cpp:141] Setting up data
I0403 13:05:11.807250 27378 net.cpp:148] Top shape: 100 3 227 227 (15458700)
I0403 13:05:11.807273 27378 net.cpp:148] Top shape: 100 (100)
I0403 13:05:11.807296 27378 net.cpp:156] Memory required for data: 61835200
I0403 13:05:11.807324 27378 layer_factory.hpp:77] Creating layer label_data_1_split
I0403 13:05:11.807354 27378 net.cpp:91] Creating Layer label_data_1_split
I0403 13:05:11.807374 27378 net.cpp:425] label_data_1_split <- label
I0403 13:05:11.807405 27378 net.cpp:399] label_data_1_split -> label_data_1_split_0
I0403 13:05:11.807433 27378 net.cpp:399] label_data_1_split -> label_data_1_split_1
I0403 13:05:11.807456 27378 net.cpp:399] label_data_1_split -> label_data_1_split_2
I0403 13:05:11.807519 27378 net.cpp:141] Setting up label_data_1_split
I0403 13:05:11.807544 27378 net.cpp:148] Top shape: 100 (100)
I0403 13:05:11.807561 27378 net.cpp:148] Top shape: 100 (100)
I0403 13:05:11.807579 27378 net.cpp:148] Top shape: 100 (100)
I0403 13:05:11.807592 27378 net.cpp:156] Memory required for data: 61836400
I0403 13:05:11.807610 27378 layer_factory.hpp:77] Creating layer conv1
I0403 13:05:11.807649 27378 net.cpp:91] Creating Layer conv1
I0403 13:05:11.807668 27378 net.cpp:425] conv1 <- data
I0403 13:05:11.807688 27378 net.cpp:399] conv1 -> conv1
I0403 13:05:11.956902 27378 net.cpp:141] Setting up conv1
I0403 13:05:11.956977 27378 net.cpp:148] Top shape: 100 96 55 55 (29040000)
I0403 13:05:11.956995 27378 net.cpp:156] Memory required for data: 177996400
I0403 13:05:11.957028 27378 layer_factory.hpp:77] Creating layer relu1
I0403 13:05:11.957058 27378 net.cpp:91] Creating Layer relu1
I0403 13:05:11.957077 27378 net.cpp:425] relu1 <- conv1
I0403 13:05:11.957098 27378 net.cpp:386] relu1 -> conv1 (in-place)
I0403 13:05:11.957388 27378 net.cpp:141] Setting up relu1
I0403 13:05:11.957420 27378 net.cpp:148] Top shape: 100 96 55 55 (29040000)
I0403 13:05:11.957437 27378 net.cpp:156] Memory required for data: 294156400
I0403 13:05:11.957486 27378 layer_factory.hpp:77] Creating layer norm1
I0403 13:05:11.957517 27378 net.cpp:91] Creating Layer norm1
I0403 13:05:11.957537 27378 net.cpp:425] norm1 <- conv1
I0403 13:05:11.957557 27378 net.cpp:399] norm1 -> norm1
I0403 13:05:11.957892 27378 net.cpp:141] Setting up norm1
I0403 13:05:11.957921 27378 net.cpp:148] Top shape: 100 96 55 55 (29040000)
I0403 13:05:11.957938 27378 net.cpp:156] Memory required for data: 410316400
I0403 13:05:11.957954 27378 layer_factory.hpp:77] Creating layer pool1
I0403 13:05:11.957981 27378 net.cpp:91] Creating Layer pool1
I0403 13:05:11.958000 27378 net.cpp:425] pool1 <- norm1
I0403 13:05:11.958020 27378 net.cpp:399] pool1 -> pool1
I0403 13:05:11.958094 27378 net.cpp:141] Setting up pool1
I0403 13:05:11.958119 27378 net.cpp:148] Top shape: 100 96 27 27 (6998400)
I0403 13:05:11.958137 27378 net.cpp:156] Memory required for data: 438310000
I0403 13:05:11.958153 27378 layer_factory.hpp:77] Creating layer conv2
I0403 13:05:11.958179 27378 net.cpp:91] Creating Layer conv2
I0403 13:05:11.958199 27378 net.cpp:425] conv2 <- pool1
I0403 13:05:11.958222 27378 net.cpp:399] conv2 -> conv2
I0403 13:05:11.973562 27378 net.cpp:141] Setting up conv2
I0403 13:05:11.973601 27378 net.cpp:148] Top shape: 100 256 27 27 (18662400)
I0403 13:05:11.973621 27378 net.cpp:156] Memory required for data: 512959600
I0403 13:05:11.973645 27378 layer_factory.hpp:77] Creating layer relu2
I0403 13:05:11.973670 27378 net.cpp:91] Creating Layer relu2
I0403 13:05:11.973688 27378 net.cpp:425] relu2 <- conv2
I0403 13:05:11.973708 27378 net.cpp:386] relu2 -> conv2 (in-place)
I0403 13:05:11.974069 27378 net.cpp:141] Setting up relu2
I0403 13:05:11.974097 27378 net.cpp:148] Top shape: 100 256 27 27 (18662400)
I0403 13:05:11.974112 27378 net.cpp:156] Memory required for data: 587609200
I0403 13:05:11.974128 27378 layer_factory.hpp:77] Creating layer norm2
I0403 13:05:11.974151 27378 net.cpp:91] Creating Layer norm2
I0403 13:05:11.974170 27378 net.cpp:425] norm2 <- conv2
I0403 13:05:11.974191 27378 net.cpp:399] norm2 -> norm2
I0403 13:05:11.974402 27378 net.cpp:141] Setting up norm2
I0403 13:05:11.974442 27378 net.cpp:148] Top shape: 100 256 27 27 (18662400)
I0403 13:05:11.974457 27378 net.cpp:156] Memory required for data: 662258800
I0403 13:05:11.974475 27378 layer_factory.hpp:77] Creating layer pool2
I0403 13:05:11.974496 27378 net.cpp:91] Creating Layer pool2
I0403 13:05:11.974514 27378 net.cpp:425] pool2 <- norm2
I0403 13:05:11.974534 27378 net.cpp:399] pool2 -> pool2
I0403 13:05:11.974596 27378 net.cpp:141] Setting up pool2
I0403 13:05:11.974622 27378 net.cpp:148] Top shape: 100 256 13 13 (4326400)
I0403 13:05:11.974637 27378 net.cpp:156] Memory required for data: 679564400
I0403 13:05:11.974653 27378 layer_factory.hpp:77] Creating layer conv3
I0403 13:05:11.974680 27378 net.cpp:91] Creating Layer conv3
I0403 13:05:11.974699 27378 net.cpp:425] conv3 <- pool2
I0403 13:05:11.974719 27378 net.cpp:399] conv3 -> conv3
I0403 13:05:12.022316 27378 net.cpp:141] Setting up conv3
I0403 13:05:12.022390 27378 net.cpp:148] Top shape: 100 384 13 13 (6489600)
I0403 13:05:12.022408 27378 net.cpp:156] Memory required for data: 705522800
I0403 13:05:12.022435 27378 layer_factory.hpp:77] Creating layer relu3
I0403 13:05:12.022462 27378 net.cpp:91] Creating Layer relu3
I0403 13:05:12.022483 27378 net.cpp:425] relu3 <- conv3
I0403 13:05:12.022503 27378 net.cpp:386] relu3 -> conv3 (in-place)
I0403 13:05:12.022784 27378 net.cpp:141] Setting up relu3
I0403 13:05:12.022812 27378 net.cpp:148] Top shape: 100 384 13 13 (6489600)
I0403 13:05:12.022830 27378 net.cpp:156] Memory required for data: 731481200
I0403 13:05:12.022845 27378 layer_factory.hpp:77] Creating layer conv4
I0403 13:05:12.022948 27378 net.cpp:91] Creating Layer conv4
I0403 13:05:12.022971 27378 net.cpp:425] conv4 <- conv3
I0403 13:05:12.022995 27378 net.cpp:399] conv4 -> conv4
I0403 13:05:12.053510 27378 net.cpp:141] Setting up conv4
I0403 13:05:12.053613 27378 net.cpp:148] Top shape: 100 384 13 13 (6489600)
I0403 13:05:12.053670 27378 net.cpp:156] Memory required for data: 757439600
I0403 13:05:12.053694 27378 layer_factory.hpp:77] Creating layer relu4
I0403 13:05:12.053740 27378 net.cpp:91] Creating Layer relu4
I0403 13:05:12.053791 27378 net.cpp:425] relu4 <- conv4
I0403 13:05:12.053843 27378 net.cpp:386] relu4 -> conv4 (in-place)
I0403 13:05:12.054143 27378 net.cpp:141] Setting up relu4
I0403 13:05:12.054172 27378 net.cpp:148] Top shape: 100 384 13 13 (6489600)
I0403 13:05:12.054189 27378 net.cpp:156] Memory required for data: 783398000
I0403 13:05:12.054206 27378 layer_factory.hpp:77] Creating layer conv5
I0403 13:05:12.054234 27378 net.cpp:91] Creating Layer conv5
I0403 13:05:12.054258 27378 net.cpp:425] conv5 <- conv4
I0403 13:05:12.054285 27378 net.cpp:399] conv5 -> conv5
I0403 13:05:12.075901 27378 net.cpp:141] Setting up conv5
I0403 13:05:12.075955 27378 net.cpp:148] Top shape: 100 256 13 13 (4326400)
I0403 13:05:12.075973 27378 net.cpp:156] Memory required for data: 800703600
I0403 13:05:12.075999 27378 layer_factory.hpp:77] Creating layer relu5
I0403 13:05:12.076025 27378 net.cpp:91] Creating Layer relu5
I0403 13:05:12.076045 27378 net.cpp:425] relu5 <- conv5
I0403 13:05:12.076064 27378 net.cpp:386] relu5 -> conv5 (in-place)
I0403 13:05:12.076361 27378 net.cpp:141] Setting up relu5
I0403 13:05:12.076390 27378 net.cpp:148] Top shape: 100 256 13 13 (4326400)
I0403 13:05:12.076406 27378 net.cpp:156] Memory required for data: 818009200
I0403 13:05:12.076423 27378 layer_factory.hpp:77] Creating layer pool5
I0403 13:05:12.076447 27378 net.cpp:91] Creating Layer pool5
I0403 13:05:12.076464 27378 net.cpp:425] pool5 <- conv5
I0403 13:05:12.076483 27378 net.cpp:399] pool5 -> pool5
I0403 13:05:12.076550 27378 net.cpp:141] Setting up pool5
I0403 13:05:12.076576 27378 net.cpp:148] Top shape: 100 256 6 6 (921600)
I0403 13:05:12.076591 27378 net.cpp:156] Memory required for data: 821695600
I0403 13:05:12.076608 27378 layer_factory.hpp:77] Creating layer fc6
I0403 13:05:12.076639 27378 net.cpp:91] Creating Layer fc6
I0403 13:05:12.076659 27378 net.cpp:425] fc6 <- pool5
I0403 13:05:12.076678 27378 net.cpp:399] fc6 -> fc6
I0403 13:05:13.644740 27378 net.cpp:141] Setting up fc6
I0403 13:05:13.644807 27378 net.cpp:148] Top shape: 100 4096 (409600)
I0403 13:05:13.644825 27378 net.cpp:156] Memory required for data: 823334000
I0403 13:05:13.644847 27378 layer_factory.hpp:77] Creating layer relu6
I0403 13:05:13.644870 27378 net.cpp:91] Creating Layer relu6
I0403 13:05:13.644887 27378 net.cpp:425] relu6 <- fc6
I0403 13:05:13.644909 27378 net.cpp:386] relu6 -> fc6 (in-place)
I0403 13:05:13.645133 27378 net.cpp:141] Setting up relu6
I0403 13:05:13.645159 27378 net.cpp:148] Top shape: 100 4096 (409600)
I0403 13:05:13.645174 27378 net.cpp:156] Memory required for data: 824972400
I0403 13:05:13.645190 27378 layer_factory.hpp:77] Creating layer drop6
I0403 13:05:13.645208 27378 net.cpp:91] Creating Layer drop6
I0403 13:05:13.645223 27378 net.cpp:425] drop6 <- fc6
I0403 13:05:13.645243 27378 net.cpp:386] drop6 -> fc6 (in-place)
I0403 13:05:13.645303 27378 net.cpp:141] Setting up drop6
I0403 13:05:13.645326 27378 net.cpp:148] Top shape: 100 4096 (409600)
I0403 13:05:13.645341 27378 net.cpp:156] Memory required for data: 826610800
I0403 13:05:13.645357 27378 layer_factory.hpp:77] Creating layer fc7
I0403 13:05:13.645377 27378 net.cpp:91] Creating Layer fc7
I0403 13:05:13.645392 27378 net.cpp:425] fc7 <- fc6
I0403 13:05:13.645416 27378 net.cpp:399] fc7 -> fc7
I0403 13:05:14.332222 27378 net.cpp:141] Setting up fc7
I0403 13:05:14.332273 27378 net.cpp:148] Top shape: 100 4096 (409600)
I0403 13:05:14.332290 27378 net.cpp:156] Memory required for data: 828249200
I0403 13:05:14.332314 27378 layer_factory.hpp:77] Creating layer relu7
I0403 13:05:14.332339 27378 net.cpp:91] Creating Layer relu7
I0403 13:05:14.332358 27378 net.cpp:425] relu7 <- fc7
I0403 13:05:14.332378 27378 net.cpp:386] relu7 -> fc7 (in-place)
I0403 13:05:14.332774 27378 net.cpp:141] Setting up relu7
I0403 13:05:14.332801 27378 net.cpp:148] Top shape: 100 4096 (409600)
I0403 13:05:14.332849 27378 net.cpp:156] Memory required for data: 829887600
I0403 13:05:14.332866 27378 layer_factory.hpp:77] Creating layer drop7
I0403 13:05:14.332888 27378 net.cpp:91] Creating Layer drop7
I0403 13:05:14.332906 27378 net.cpp:425] drop7 <- fc7
I0403 13:05:14.332924 27378 net.cpp:386] drop7 -> fc7 (in-place)
I0403 13:05:14.332968 27378 net.cpp:141] Setting up drop7
I0403 13:05:14.332994 27378 net.cpp:148] Top shape: 100 4096 (409600)
I0403 13:05:14.333011 27378 net.cpp:156] Memory required for data: 831526000
I0403 13:05:14.333027 27378 layer_factory.hpp:77] Creating layer fc8_plantvillage
I0403 13:05:14.333047 27378 net.cpp:91] Creating Layer fc8_plantvillage
I0403 13:05:14.333065 27378 net.cpp:425] fc8_plantvillage <- fc7
I0403 13:05:14.333084 27378 net.cpp:399] fc8_plantvillage -> fc8_plantvillage
I0403 13:05:14.340013 27378 net.cpp:141] Setting up fc8_plantvillage
I0403 13:05:14.340041 27378 net.cpp:148] Top shape: 100 38 (3800)
I0403 13:05:14.340059 27378 net.cpp:156] Memory required for data: 831541200
I0403 13:05:14.340076 27378 layer_factory.hpp:77] Creating layer fc8_plantvillage_fc8_plantvillage_0_split
I0403 13:05:14.340100 27378 net.cpp:91] Creating Layer fc8_plantvillage_fc8_plantvillage_0_split
I0403 13:05:14.340117 27378 net.cpp:425] fc8_plantvillage_fc8_plantvillage_0_split <- fc8_plantvillage
I0403 13:05:14.340136 27378 net.cpp:399] fc8_plantvillage_fc8_plantvillage_0_split -> fc8_plantvillage_fc8_plantvillage_0_split_0
I0403 13:05:14.340157 27378 net.cpp:399] fc8_plantvillage_fc8_plantvillage_0_split -> fc8_plantvillage_fc8_plantvillage_0_split_1
I0403 13:05:14.340178 27378 net.cpp:399] fc8_plantvillage_fc8_plantvillage_0_split -> fc8_plantvillage_fc8_plantvillage_0_split_2
I0403 13:05:14.340263 27378 net.cpp:141] Setting up fc8_plantvillage_fc8_plantvillage_0_split
I0403 13:05:14.340288 27378 net.cpp:148] Top shape: 100 38 (3800)
I0403 13:05:14.340306 27378 net.cpp:148] Top shape: 100 38 (3800)
I0403 13:05:14.340322 27378 net.cpp:148] Top shape: 100 38 (3800)
I0403 13:05:14.340337 27378 net.cpp:156] Memory required for data: 831586800
I0403 13:05:14.340353 27378 layer_factory.hpp:77] Creating layer prob
I0403 13:05:14.340371 27378 net.cpp:91] Creating Layer prob
I0403 13:05:14.340387 27378 net.cpp:425] prob <- fc8_plantvillage_fc8_plantvillage_0_split_0
I0403 13:05:14.340409 27378 net.cpp:399] prob -> prob
I0403 13:05:14.340641 27378 net.cpp:141] Setting up prob
I0403 13:05:14.340669 27378 net.cpp:148] Top shape: 100 38 (3800)
I0403 13:05:14.340685 27378 net.cpp:156] Memory required for data: 831602000
I0403 13:05:14.340701 27378 layer_factory.hpp:77] Creating layer hdf5out
I0403 13:05:14.340723 27378 net.cpp:91] Creating Layer hdf5out
I0403 13:05:14.340739 27378 net.cpp:425] hdf5out <- prob
I0403 13:05:14.340756 27378 net.cpp:425] hdf5out <- label_data_1_split_0
I0403 13:05:14.344753 27378 net.cpp:141] Setting up hdf5out
…
