…
I0403 13:22:41.369827 27941 net.cpp:313] The NetState phase (1) differed from the phase (0) specified by a rule in layer data
I0403 13:22:41.370579 27941 net.cpp:49] Initializing net from parameters: 
state {
  phase: TEST
}
layer {
  name: "data"
  type: "Data"
  top: "data"
  top: "label"
  include {
    phase: TEST
  }
  transform_param {
    crop_size: 227
    mean_file: "/home/mohanty/data/final_dataset/lmdb/color-60-40/mean.binaryproto"
  }
  data_param {
    source: "/home/mohanty/data/final_dataset/lmdb/color-60-40/test_db"
    batch_size: 100
    backend: LMDB
  }
}
layer {
  name: "conv1"
  type: "Convolution"
  bottom: "data"
  top: "conv1"
  param {
    lr_mult: 1
    decay_mult: 1
  }
  param {
    lr_mult: 2
    decay_mult: 0
  }
  convolution_param {
    num_output: 96
    kernel_size: 11
    stride: 4
    weight_filler {
      type: "gaussian"
      std: 0.01
    }
    bias_filler {
      type: "constant"
      value: 0
    }
  }
}
layer {
  name: "relu1"
  type: "ReLU"
  bottom: "conv1"
  top: "conv1"
}
layer {
  name: "norm1"
  type: "LRN"
  bottom: "conv1"
  top: "norm1"
  lrn_param {
    local_size: 5
    alpha: 0.0001
    beta: 0.75
  }
}
layer {
  name: "pool1"
  type: "Pooling"
  bottom: "norm1"
  top: "pool1"
  pooling_param {
    pool: MAX
    kernel_size: 3
    stride: 2
  }
}
layer {
  name: "conv2"
  type: "Convolution"
  bottom: "pool1"
  top: "conv2"
  param {
    lr_mult: 1
    decay_mult: 1
  }
  param {
    lr_mult: 2
    decay_mult: 0
  }
  convolution_param {
    num_output: 256
    pad: 2
    kernel_size: 5
    group: 2
    weight_filler {
      type: "gaussian"
      std: 0.01
    }
    bias_filler {
      type: "constant"
      value: 0.1
    }
  }
}
layer {
  name: "relu2"
  type: "ReLU"
  bottom: "conv2"
  top: "conv2"
}
layer {
  name: "norm2"
  type: "LRN"
  bottom: "conv2"
  top: "norm2"
  lrn_param {
    local_size: 5
    alpha: 0.0001
    beta: 0.75
  }
}
layer {
  name: "pool2"
  type: "Pooling"
  bottom: "norm2"
  top: "pool2"
  pooling_param {
    pool: MAX
    kernel_size: 3
    stride: 2
  }
}
layer {
  name: "conv3"
  type: "Convolution"
  bottom: "pool2"
  top: "conv3"
  param {
    lr_mult: 1
    decay_mult: 1
  }
  param {
    lr_mult: 2
    decay_mult: 0
  }
  convolution_param {
    num_output: 384
    pad: 1
    kernel_size: 3
    weight_filler {
      type: "gaussian"
      std: 0.01
    }
    bias_filler {
      type: "constant"
      value: 0
    }
  }
}
layer {
  name: "relu3"
  type: "ReLU"
  bottom: "conv3"
  top: "conv3"
}
layer {
  name: "conv4"
  type: "Convolution"
  bottom: "conv3"
  top: "conv4"
  param {
    lr_mult: 1
    decay_mult: 1
  }
  param {
    lr_mult: 2
    decay_mult: 0
  }
  convolution_param {
    num_output: 384
    pad: 1
    kernel_size: 3
    group: 2
    weight_filler {
      type: "gaussian"
      std: 0.01
    }
    bias_filler {
      type: "constant"
      value: 0.1
    }
  }
}
layer {
  name: "relu4"
  type: "ReLU"
  bottom: "conv4"
  top: "conv4"
}
layer {
  name: "conv5"
  type: "Convolution"
  bottom: "conv4"
  top: "conv5"
  param {
    lr_mult: 1
    decay_mult: 1
  }
  param {
    lr_mult: 2
    decay_mult: 0
  }
  convolution_param {
    num_output: 256
    pad: 1
    kernel_size: 3
    group: 2
    weight_filler {
      type: "gaussian"
      std: 0.01
    }
    bias_filler {
      type: "constant"
      value: 0.1
    }
  }
}
layer {
  name: "relu5"
  type: "ReLU"
  bottom: "conv5"
  top: "conv5"
}
layer {
  name: "pool5"
  type: "Pooling"
  bottom: "conv5"
  top: "pool5"
  pooling_param {
    pool: MAX
    kernel_size: 3
    stride: 2
  }
}
layer {
  name: "fc6"
  type: "InnerProduct"
  bottom: "pool5"
  top: "fc6"
  param {
    lr_mult: 1
    decay_mult: 1
  }
  param {
    lr_mult: 2
    decay_mult: 0
  }
  inner_product_param {
    num_output: 4096
    weight_filler {
      type: "gaussian"
      std: 0.005
    }
    bias_filler {
      type: "constant"
      value: 0.1
    }
  }
}
layer {
  name: "relu6"
  type: "ReLU"
  bottom: "fc6"
  top: "fc6"
}
layer {
  name: "drop6"
  type: "Dropout"
  bottom: "fc6"
  top: "fc6"
  dropout_param {
    dropout_ratio: 0.5
  }
}
layer {
  name: "fc7"
  type: "InnerProduct"
  bottom: "fc6"
  top: "fc7"
  param {
    lr_mult: 1
    decay_mult: 1
  }
  param {
    lr_mult: 2
    decay_mult: 0
  }
  inner_product_param {
    num_output: 4096
    weight_filler {
      type: "gaussian"
      std: 0.005
    }
    bias_filler {
      type: "constant"
      value: 0.1
    }
  }
}
layer {
  name: "relu7"
  type: "ReLU"
  bottom: "fc7"
  top: "fc7"
}
layer {
  name: "drop7"
  type: "Dropout"
  bottom: "fc7"
  top: "fc7"
  dropout_param {
    dropout_ratio: 0.5
  }
}
layer {
  name: "fc8_plantvillage"
  type: "InnerProduct"
  bottom: "fc7"
  top: "fc8_plantvillage"
  param {
    lr_mult: 1
    decay_mult: 1
  }
  param {
    lr_mult: 2
    decay_mult: 0
  }
  inner_product_param {
    num_output: 38
    weight_filler {
      type: "gaussian"
      std: 0.01
    }
    bias_filler {
      type: "constant"
      value: 0
    }
  }
}
layer {
  name: "prob"
  type: "Softmax"
  bottom: "fc8_plantvillage"
  top: "prob"
  include {
    phase: TEST
  }
}
layer {
  name: "hdf5out"
  type: "HDF5Output"
  bottom: "prob"
  bottom: "label"
  include {
    phase: TEST
  }
  hdf5_output_param {
    file_name: "hdf5_dumps/iter_7800.h5"
  }
}
layer {
  name: "loss"
  type: "SoftmaxWithLoss"
  bottom: "fc8_plantvillage"
  bottom: "label"
  top: "loss"
}
layer {
  name: "accuracy"
  type: "Accuracy"
  bottom: "fc8_plantvillage"
  bottom: "label"
  top: "accuracy"
  include {
    phase: TEST
  }
}
I0403 13:22:41.371830 27941 layer_factory.hpp:77] Creating layer data
I0403 13:22:41.373459 27941 net.cpp:91] Creating Layer data
I0403 13:22:41.373538 27941 net.cpp:399] data -> data
I0403 13:22:41.373654 27941 net.cpp:399] data -> label
I0403 13:22:41.373749 27941 data_transformer.cpp:25] Loading mean file from: /home/mohanty/data/final_dataset/lmdb/color-60-40/mean.binaryproto
I0403 13:22:41.378546 27945 db_lmdb.cpp:38] Opened lmdb /home/mohanty/data/final_dataset/lmdb/color-60-40/test_db
I0403 13:22:41.396041 27941 data_layer.cpp:41] output data size: 100,3,227,227
I0403 13:22:41.546509 27941 net.cpp:141] Setting up data
I0403 13:22:41.546618 27941 net.cpp:148] Top shape: 100 3 227 227 (15458700)
I0403 13:22:41.546648 27941 net.cpp:148] Top shape: 100 (100)
I0403 13:22:41.546666 27941 net.cpp:156] Memory required for data: 61835200
I0403 13:22:41.546701 27941 layer_factory.hpp:77] Creating layer label_data_1_split
I0403 13:22:41.546733 27941 net.cpp:91] Creating Layer label_data_1_split
I0403 13:22:41.546757 27941 net.cpp:425] label_data_1_split <- label
I0403 13:22:41.546795 27941 net.cpp:399] label_data_1_split -> label_data_1_split_0
I0403 13:22:41.546829 27941 net.cpp:399] label_data_1_split -> label_data_1_split_1
I0403 13:22:41.546857 27941 net.cpp:399] label_data_1_split -> label_data_1_split_2
I0403 13:22:41.546937 27941 net.cpp:141] Setting up label_data_1_split
I0403 13:22:41.546968 27941 net.cpp:148] Top shape: 100 (100)
I0403 13:22:41.546989 27941 net.cpp:148] Top shape: 100 (100)
I0403 13:22:41.547010 27941 net.cpp:148] Top shape: 100 (100)
I0403 13:22:41.547029 27941 net.cpp:156] Memory required for data: 61836400
I0403 13:22:41.547047 27941 layer_factory.hpp:77] Creating layer conv1
I0403 13:22:41.547086 27941 net.cpp:91] Creating Layer conv1
I0403 13:22:41.547109 27941 net.cpp:425] conv1 <- data
I0403 13:22:41.547133 27941 net.cpp:399] conv1 -> conv1
I0403 13:22:41.718227 27941 net.cpp:141] Setting up conv1
I0403 13:22:41.718322 27941 net.cpp:148] Top shape: 100 96 55 55 (29040000)
I0403 13:22:41.718344 27941 net.cpp:156] Memory required for data: 177996400
I0403 13:22:41.718384 27941 layer_factory.hpp:77] Creating layer relu1
I0403 13:22:41.718418 27941 net.cpp:91] Creating Layer relu1
I0403 13:22:41.718442 27941 net.cpp:425] relu1 <- conv1
I0403 13:22:41.718467 27941 net.cpp:386] relu1 -> conv1 (in-place)
I0403 13:22:41.718775 27941 net.cpp:141] Setting up relu1
I0403 13:22:41.718807 27941 net.cpp:148] Top shape: 100 96 55 55 (29040000)
I0403 13:22:41.718827 27941 net.cpp:156] Memory required for data: 294156400
I0403 13:22:41.718884 27941 layer_factory.hpp:77] Creating layer norm1
I0403 13:22:41.718921 27941 net.cpp:91] Creating Layer norm1
I0403 13:22:41.718945 27941 net.cpp:425] norm1 <- conv1
I0403 13:22:41.718967 27941 net.cpp:399] norm1 -> norm1
I0403 13:22:41.719336 27941 net.cpp:141] Setting up norm1
I0403 13:22:41.719370 27941 net.cpp:148] Top shape: 100 96 55 55 (29040000)
I0403 13:22:41.719390 27941 net.cpp:156] Memory required for data: 410316400
I0403 13:22:41.719409 27941 layer_factory.hpp:77] Creating layer pool1
I0403 13:22:41.719439 27941 net.cpp:91] Creating Layer pool1
I0403 13:22:41.719462 27941 net.cpp:425] pool1 <- norm1
I0403 13:22:41.719485 27941 net.cpp:399] pool1 -> pool1
I0403 13:22:41.719565 27941 net.cpp:141] Setting up pool1
I0403 13:22:41.719595 27941 net.cpp:148] Top shape: 100 96 27 27 (6998400)
I0403 13:22:41.719614 27941 net.cpp:156] Memory required for data: 438310000
I0403 13:22:41.719632 27941 layer_factory.hpp:77] Creating layer conv2
I0403 13:22:41.719662 27941 net.cpp:91] Creating Layer conv2
I0403 13:22:41.719681 27941 net.cpp:425] conv2 <- pool1
I0403 13:22:41.719703 27941 net.cpp:399] conv2 -> conv2
I0403 13:22:41.737946 27941 net.cpp:141] Setting up conv2
I0403 13:22:41.737988 27941 net.cpp:148] Top shape: 100 256 27 27 (18662400)
I0403 13:22:41.738014 27941 net.cpp:156] Memory required for data: 512959600
I0403 13:22:41.738042 27941 layer_factory.hpp:77] Creating layer relu2
I0403 13:22:41.738066 27941 net.cpp:91] Creating Layer relu2
I0403 13:22:41.738086 27941 net.cpp:425] relu2 <- conv2
I0403 13:22:41.738109 27941 net.cpp:386] relu2 -> conv2 (in-place)
I0403 13:22:41.738451 27941 net.cpp:141] Setting up relu2
I0403 13:22:41.738487 27941 net.cpp:148] Top shape: 100 256 27 27 (18662400)
I0403 13:22:41.738512 27941 net.cpp:156] Memory required for data: 587609200
I0403 13:22:41.738531 27941 layer_factory.hpp:77] Creating layer norm2
I0403 13:22:41.738600 27941 net.cpp:91] Creating Layer norm2
I0403 13:22:41.738631 27941 net.cpp:425] norm2 <- conv2
I0403 13:22:41.738657 27941 net.cpp:399] norm2 -> norm2
I0403 13:22:41.738898 27941 net.cpp:141] Setting up norm2
I0403 13:22:41.738930 27941 net.cpp:148] Top shape: 100 256 27 27 (18662400)
I0403 13:22:41.738957 27941 net.cpp:156] Memory required for data: 662258800
I0403 13:22:41.738976 27941 layer_factory.hpp:77] Creating layer pool2
I0403 13:22:41.738999 27941 net.cpp:91] Creating Layer pool2
I0403 13:22:41.739018 27941 net.cpp:425] pool2 <- norm2
I0403 13:22:41.739040 27941 net.cpp:399] pool2 -> pool2
I0403 13:22:41.739109 27941 net.cpp:141] Setting up pool2
I0403 13:22:41.739140 27941 net.cpp:148] Top shape: 100 256 13 13 (4326400)
I0403 13:22:41.739159 27941 net.cpp:156] Memory required for data: 679564400
I0403 13:22:41.739177 27941 layer_factory.hpp:77] Creating layer conv3
I0403 13:22:41.739205 27941 net.cpp:91] Creating Layer conv3
I0403 13:22:41.739228 27941 net.cpp:425] conv3 <- pool2
I0403 13:22:41.739259 27941 net.cpp:399] conv3 -> conv3
I0403 13:22:41.795387 27941 net.cpp:141] Setting up conv3
I0403 13:22:41.795446 27941 net.cpp:148] Top shape: 100 384 13 13 (6489600)
I0403 13:22:41.795467 27941 net.cpp:156] Memory required for data: 705522800
I0403 13:22:41.795497 27941 layer_factory.hpp:77] Creating layer relu3
I0403 13:22:41.795526 27941 net.cpp:91] Creating Layer relu3
I0403 13:22:41.795548 27941 net.cpp:425] relu3 <- conv3
I0403 13:22:41.795572 27941 net.cpp:386] relu3 -> conv3 (in-place)
I0403 13:22:41.795905 27941 net.cpp:141] Setting up relu3
I0403 13:22:41.795938 27941 net.cpp:148] Top shape: 100 384 13 13 (6489600)
I0403 13:22:41.795960 27941 net.cpp:156] Memory required for data: 731481200
I0403 13:22:41.795979 27941 layer_factory.hpp:77] Creating layer conv4
I0403 13:22:41.796013 27941 net.cpp:91] Creating Layer conv4
I0403 13:22:41.796036 27941 net.cpp:425] conv4 <- conv3
I0403 13:22:41.796061 27941 net.cpp:399] conv4 -> conv4
I0403 13:22:41.832839 27941 net.cpp:141] Setting up conv4
I0403 13:22:41.832890 27941 net.cpp:148] Top shape: 100 384 13 13 (6489600)
I0403 13:22:41.832945 27941 net.cpp:156] Memory required for data: 757439600
I0403 13:22:41.832973 27941 layer_factory.hpp:77] Creating layer relu4
I0403 13:22:41.833000 27941 net.cpp:91] Creating Layer relu4
I0403 13:22:41.833020 27941 net.cpp:425] relu4 <- conv4
I0403 13:22:41.833042 27941 net.cpp:386] relu4 -> conv4 (in-place)
I0403 13:22:41.833380 27941 net.cpp:141] Setting up relu4
I0403 13:22:41.833412 27941 net.cpp:148] Top shape: 100 384 13 13 (6489600)
I0403 13:22:41.833432 27941 net.cpp:156] Memory required for data: 783398000
I0403 13:22:41.833451 27941 layer_factory.hpp:77] Creating layer conv5
I0403 13:22:41.833480 27941 net.cpp:91] Creating Layer conv5
I0403 13:22:41.833503 27941 net.cpp:425] conv5 <- conv4
I0403 13:22:41.833528 27941 net.cpp:399] conv5 -> conv5
I0403 13:22:41.858492 27941 net.cpp:141] Setting up conv5
I0403 13:22:41.858537 27941 net.cpp:148] Top shape: 100 256 13 13 (4326400)
I0403 13:22:41.858557 27941 net.cpp:156] Memory required for data: 800703600
I0403 13:22:41.858589 27941 layer_factory.hpp:77] Creating layer relu5
I0403 13:22:41.858613 27941 net.cpp:91] Creating Layer relu5
I0403 13:22:41.858633 27941 net.cpp:425] relu5 <- conv5
I0403 13:22:41.858654 27941 net.cpp:386] relu5 -> conv5 (in-place)
I0403 13:22:41.858989 27941 net.cpp:141] Setting up relu5
I0403 13:22:41.859025 27941 net.cpp:148] Top shape: 100 256 13 13 (4326400)
I0403 13:22:41.859045 27941 net.cpp:156] Memory required for data: 818009200
I0403 13:22:41.859066 27941 layer_factory.hpp:77] Creating layer pool5
I0403 13:22:41.859091 27941 net.cpp:91] Creating Layer pool5
I0403 13:22:41.859112 27941 net.cpp:425] pool5 <- conv5
I0403 13:22:41.859136 27941 net.cpp:399] pool5 -> pool5
I0403 13:22:41.859208 27941 net.cpp:141] Setting up pool5
I0403 13:22:41.859237 27941 net.cpp:148] Top shape: 100 256 6 6 (921600)
I0403 13:22:41.859263 27941 net.cpp:156] Memory required for data: 821695600
I0403 13:22:41.859283 27941 layer_factory.hpp:77] Creating layer fc6
I0403 13:22:41.859318 27941 net.cpp:91] Creating Layer fc6
I0403 13:22:41.859341 27941 net.cpp:425] fc6 <- pool5
I0403 13:22:41.859366 27941 net.cpp:399] fc6 -> fc6
I0403 13:22:43.399176 27941 net.cpp:141] Setting up fc6
I0403 13:22:43.399261 27941 net.cpp:148] Top shape: 100 4096 (409600)
I0403 13:22:43.399279 27941 net.cpp:156] Memory required for data: 823334000
I0403 13:22:43.399302 27941 layer_factory.hpp:77] Creating layer relu6
I0403 13:22:43.399324 27941 net.cpp:91] Creating Layer relu6
I0403 13:22:43.399343 27941 net.cpp:425] relu6 <- fc6
I0403 13:22:43.399369 27941 net.cpp:386] relu6 -> fc6 (in-place)
I0403 13:22:43.399600 27941 net.cpp:141] Setting up relu6
I0403 13:22:43.399629 27941 net.cpp:148] Top shape: 100 4096 (409600)
I0403 13:22:43.399646 27941 net.cpp:156] Memory required for data: 824972400
I0403 13:22:43.399662 27941 layer_factory.hpp:77] Creating layer drop6
I0403 13:22:43.399680 27941 net.cpp:91] Creating Layer drop6
I0403 13:22:43.399695 27941 net.cpp:425] drop6 <- fc6
I0403 13:22:43.399713 27941 net.cpp:386] drop6 -> fc6 (in-place)
I0403 13:22:43.399766 27941 net.cpp:141] Setting up drop6
I0403 13:22:43.399790 27941 net.cpp:148] Top shape: 100 4096 (409600)
I0403 13:22:43.399804 27941 net.cpp:156] Memory required for data: 826610800
I0403 13:22:43.399818 27941 layer_factory.hpp:77] Creating layer fc7
I0403 13:22:43.399852 27941 net.cpp:91] Creating Layer fc7
I0403 13:22:43.399869 27941 net.cpp:425] fc7 <- fc6
I0403 13:22:43.399886 27941 net.cpp:399] fc7 -> fc7
I0403 13:22:44.053112 27941 net.cpp:141] Setting up fc7
I0403 13:22:44.053187 27941 net.cpp:148] Top shape: 100 4096 (409600)
I0403 13:22:44.053203 27941 net.cpp:156] Memory required for data: 828249200
I0403 13:22:44.053225 27941 layer_factory.hpp:77] Creating layer relu7
I0403 13:22:44.053249 27941 net.cpp:91] Creating Layer relu7
I0403 13:22:44.053279 27941 net.cpp:425] relu7 <- fc7
I0403 13:22:44.053299 27941 net.cpp:386] relu7 -> fc7 (in-place)
I0403 13:22:44.053699 27941 net.cpp:141] Setting up relu7
I0403 13:22:44.053725 27941 net.cpp:148] Top shape: 100 4096 (409600)
I0403 13:22:44.053771 27941 net.cpp:156] Memory required for data: 829887600
I0403 13:22:44.053787 27941 layer_factory.hpp:77] Creating layer drop7
I0403 13:22:44.053809 27941 net.cpp:91] Creating Layer drop7
I0403 13:22:44.053824 27941 net.cpp:425] drop7 <- fc7
I0403 13:22:44.053843 27941 net.cpp:386] drop7 -> fc7 (in-place)
I0403 13:22:44.053885 27941 net.cpp:141] Setting up drop7
I0403 13:22:44.053908 27941 net.cpp:148] Top shape: 100 4096 (409600)
I0403 13:22:44.053922 27941 net.cpp:156] Memory required for data: 831526000
I0403 13:22:44.053937 27941 layer_factory.hpp:77] Creating layer fc8_plantvillage
I0403 13:22:44.053956 27941 net.cpp:91] Creating Layer fc8_plantvillage
I0403 13:22:44.053971 27941 net.cpp:425] fc8_plantvillage <- fc7
I0403 13:22:44.053990 27941 net.cpp:399] fc8_plantvillage -> fc8_plantvillage
I0403 13:22:44.060333 27941 net.cpp:141] Setting up fc8_plantvillage
I0403 13:22:44.060361 27941 net.cpp:148] Top shape: 100 38 (3800)
I0403 13:22:44.060376 27941 net.cpp:156] Memory required for data: 831541200
I0403 13:22:44.060395 27941 layer_factory.hpp:77] Creating layer fc8_plantvillage_fc8_plantvillage_0_split
I0403 13:22:44.060413 27941 net.cpp:91] Creating Layer fc8_plantvillage_fc8_plantvillage_0_split
I0403 13:22:44.060430 27941 net.cpp:425] fc8_plantvillage_fc8_plantvillage_0_split <- fc8_plantvillage
I0403 13:22:44.060446 27941 net.cpp:399] fc8_plantvillage_fc8_plantvillage_0_split -> fc8_plantvillage_fc8_plantvillage_0_split_0
I0403 13:22:44.060467 27941 net.cpp:399] fc8_plantvillage_fc8_plantvillage_0_split -> fc8_plantvillage_fc8_plantvillage_0_split_1
I0403 13:22:44.060488 27941 net.cpp:399] fc8_plantvillage_fc8_plantvillage_0_split -> fc8_plantvillage_fc8_plantvillage_0_split_2
I0403 13:22:44.060562 27941 net.cpp:141] Setting up fc8_plantvillage_fc8_plantvillage_0_split
I0403 13:22:44.060586 27941 net.cpp:148] Top shape: 100 38 (3800)
I0403 13:22:44.060602 27941 net.cpp:148] Top shape: 100 38 (3800)
I0403 13:22:44.060617 27941 net.cpp:148] Top shape: 100 38 (3800)
I0403 13:22:44.060632 27941 net.cpp:156] Memory required for data: 831586800
I0403 13:22:44.060647 27941 layer_factory.hpp:77] Creating layer prob
I0403 13:22:44.060663 27941 net.cpp:91] Creating Layer prob
I0403 13:22:44.060678 27941 net.cpp:425] prob <- fc8_plantvillage_fc8_plantvillage_0_split_0
I0403 13:22:44.060695 27941 net.cpp:399] prob -> prob
I0403 13:22:44.060907 27941 net.cpp:141] Setting up prob
I0403 13:22:44.060931 27941 net.cpp:148] Top shape: 100 38 (3800)
I0403 13:22:44.060946 27941 net.cpp:156] Memory required for data: 831602000
I0403 13:22:44.060961 27941 layer_factory.hpp:77] Creating layer hdf5out
I0403 13:22:44.060983 27941 net.cpp:91] Creating Layer hdf5out
I0403 13:22:44.061000 27941 net.cpp:425] hdf5out <- prob
I0403 13:22:44.061017 27941 net.cpp:425] hdf5out <- label_data_1_split_0
I0403 13:22:44.068727 27941 net.cpp:141] Setting up hdf5out
…
