…
I0403 13:26:36.809847 28082 net.cpp:313] The NetState phase (1) differed from the phase (0) specified by a rule in layer data
I0403 13:26:36.810181 28082 net.cpp:49] Initializing net from parameters: 
state {
  phase: TEST
}
layer {
  name: "data"
  type: "Data"
  top: "data"
  top: "label"
  include {
    phase: TEST
  }
  transform_param {
    crop_size: 227
    mean_file: "/home/mohanty/data/final_dataset/lmdb/color-60-40/mean.binaryproto"
  }
  data_param {
    source: "/home/mohanty/data/final_dataset/lmdb/color-60-40/test_db"
    batch_size: 100
    backend: LMDB
  }
}
layer {
  name: "conv1"
  type: "Convolution"
  bottom: "data"
  top: "conv1"
  param {
    lr_mult: 1
    decay_mult: 1
  }
  param {
    lr_mult: 2
    decay_mult: 0
  }
  convolution_param {
    num_output: 96
    kernel_size: 11
    stride: 4
    weight_filler {
      type: "gaussian"
      std: 0.01
    }
    bias_filler {
      type: "constant"
      value: 0
    }
  }
}
layer {
  name: "relu1"
  type: "ReLU"
  bottom: "conv1"
  top: "conv1"
}
layer {
  name: "norm1"
  type: "LRN"
  bottom: "conv1"
  top: "norm1"
  lrn_param {
    local_size: 5
    alpha: 0.0001
    beta: 0.75
  }
}
layer {
  name: "pool1"
  type: "Pooling"
  bottom: "norm1"
  top: "pool1"
  pooling_param {
    pool: MAX
    kernel_size: 3
    stride: 2
  }
}
layer {
  name: "conv2"
  type: "Convolution"
  bottom: "pool1"
  top: "conv2"
  param {
    lr_mult: 1
    decay_mult: 1
  }
  param {
    lr_mult: 2
    decay_mult: 0
  }
  convolution_param {
    num_output: 256
    pad: 2
    kernel_size: 5
    group: 2
    weight_filler {
      type: "gaussian"
      std: 0.01
    }
    bias_filler {
      type: "constant"
      value: 0.1
    }
  }
}
layer {
  name: "relu2"
  type: "ReLU"
  bottom: "conv2"
  top: "conv2"
}
layer {
  name: "norm2"
  type: "LRN"
  bottom: "conv2"
  top: "norm2"
  lrn_param {
    local_size: 5
    alpha: 0.0001
    beta: 0.75
  }
}
layer {
  name: "pool2"
  type: "Pooling"
  bottom: "norm2"
  top: "pool2"
  pooling_param {
    pool: MAX
    kernel_size: 3
    stride: 2
  }
}
layer {
  name: "conv3"
  type: "Convolution"
  bottom: "pool2"
  top: "conv3"
  param {
    lr_mult: 1
    decay_mult: 1
  }
  param {
    lr_mult: 2
    decay_mult: 0
  }
  convolution_param {
    num_output: 384
    pad: 1
    kernel_size: 3
    weight_filler {
      type: "gaussian"
      std: 0.01
    }
    bias_filler {
      type: "constant"
      value: 0
    }
  }
}
layer {
  name: "relu3"
  type: "ReLU"
  bottom: "conv3"
  top: "conv3"
}
layer {
  name: "conv4"
  type: "Convolution"
  bottom: "conv3"
  top: "conv4"
  param {
    lr_mult: 1
    decay_mult: 1
  }
  param {
    lr_mult: 2
    decay_mult: 0
  }
  convolution_param {
    num_output: 384
    pad: 1
    kernel_size: 3
    group: 2
    weight_filler {
      type: "gaussian"
      std: 0.01
    }
    bias_filler {
      type: "constant"
      value: 0.1
    }
  }
}
layer {
  name: "relu4"
  type: "ReLU"
  bottom: "conv4"
  top: "conv4"
}
layer {
  name: "conv5"
  type: "Convolution"
  bottom: "conv4"
  top: "conv5"
  param {
    lr_mult: 1
    decay_mult: 1
  }
  param {
    lr_mult: 2
    decay_mult: 0
  }
  convolution_param {
    num_output: 256
    pad: 1
    kernel_size: 3
    group: 2
    weight_filler {
      type: "gaussian"
      std: 0.01
    }
    bias_filler {
      type: "constant"
      value: 0.1
    }
  }
}
layer {
  name: "relu5"
  type: "ReLU"
  bottom: "conv5"
  top: "conv5"
}
layer {
  name: "pool5"
  type: "Pooling"
  bottom: "conv5"
  top: "pool5"
  pooling_param {
    pool: MAX
    kernel_size: 3
    stride: 2
  }
}
layer {
  name: "fc6"
  type: "InnerProduct"
  bottom: "pool5"
  top: "fc6"
  param {
    lr_mult: 1
    decay_mult: 1
  }
  param {
    lr_mult: 2
    decay_mult: 0
  }
  inner_product_param {
    num_output: 4096
    weight_filler {
      type: "gaussian"
      std: 0.005
    }
    bias_filler {
      type: "constant"
      value: 0.1
    }
  }
}
layer {
  name: "relu6"
  type: "ReLU"
  bottom: "fc6"
  top: "fc6"
}
layer {
  name: "drop6"
  type: "Dropout"
  bottom: "fc6"
  top: "fc6"
  dropout_param {
    dropout_ratio: 0.5
  }
}
layer {
  name: "fc7"
  type: "InnerProduct"
  bottom: "fc6"
  top: "fc7"
  param {
    lr_mult: 1
    decay_mult: 1
  }
  param {
    lr_mult: 2
    decay_mult: 0
  }
  inner_product_param {
    num_output: 4096
    weight_filler {
      type: "gaussian"
      std: 0.005
    }
    bias_filler {
      type: "constant"
      value: 0.1
    }
  }
}
layer {
  name: "relu7"
  type: "ReLU"
  bottom: "fc7"
  top: "fc7"
}
layer {
  name: "drop7"
  type: "Dropout"
  bottom: "fc7"
  top: "fc7"
  dropout_param {
    dropout_ratio: 0.5
  }
}
layer {
  name: "fc8_plantvillage"
  type: "InnerProduct"
  bottom: "fc7"
  top: "fc8_plantvillage"
  param {
    lr_mult: 1
    decay_mult: 1
  }
  param {
    lr_mult: 2
    decay_mult: 0
  }
  inner_product_param {
    num_output: 38
    weight_filler {
      type: "gaussian"
      std: 0.01
    }
    bias_filler {
      type: "constant"
      value: 0
    }
  }
}
layer {
  name: "prob"
  type: "Softmax"
  bottom: "fc8_plantvillage"
  top: "prob"
  include {
    phase: TEST
  }
}
layer {
  name: "hdf5out"
  type: "HDF5Output"
  bottom: "prob"
  bottom: "label"
  include {
    phase: TEST
  }
  hdf5_output_param {
    file_name: "hdf5_dumps/iter_9425.h5"
  }
}
layer {
  name: "loss"
  type: "SoftmaxWithLoss"
  bottom: "fc8_plantvillage"
  bottom: "label"
  top: "loss"
}
layer {
  name: "accuracy"
  type: "Accuracy"
  bottom: "fc8_plantvillage"
  bottom: "label"
  top: "accuracy"
  include {
    phase: TEST
  }
}
I0403 13:26:36.810885 28082 layer_factory.hpp:77] Creating layer data
I0403 13:26:36.811540 28082 net.cpp:91] Creating Layer data
I0403 13:26:36.811573 28082 net.cpp:399] data -> data
I0403 13:26:36.811625 28082 net.cpp:399] data -> label
I0403 13:26:36.811663 28082 data_transformer.cpp:25] Loading mean file from: /home/mohanty/data/final_dataset/lmdb/color-60-40/mean.binaryproto
I0403 13:26:36.815101 28086 db_lmdb.cpp:38] Opened lmdb /home/mohanty/data/final_dataset/lmdb/color-60-40/test_db
I0403 13:26:36.826338 28082 data_layer.cpp:41] output data size: 100,3,227,227
I0403 13:26:36.960326 28082 net.cpp:141] Setting up data
I0403 13:26:36.960386 28082 net.cpp:148] Top shape: 100 3 227 227 (15458700)
I0403 13:26:36.960410 28082 net.cpp:148] Top shape: 100 (100)
I0403 13:26:36.960427 28082 net.cpp:156] Memory required for data: 61835200
I0403 13:26:36.960454 28082 layer_factory.hpp:77] Creating layer label_data_1_split
I0403 13:26:36.960481 28082 net.cpp:91] Creating Layer label_data_1_split
I0403 13:26:36.960501 28082 net.cpp:425] label_data_1_split <- label
I0403 13:26:36.960546 28082 net.cpp:399] label_data_1_split -> label_data_1_split_0
I0403 13:26:36.960572 28082 net.cpp:399] label_data_1_split -> label_data_1_split_1
I0403 13:26:36.960594 28082 net.cpp:399] label_data_1_split -> label_data_1_split_2
I0403 13:26:36.960659 28082 net.cpp:141] Setting up label_data_1_split
I0403 13:26:36.960685 28082 net.cpp:148] Top shape: 100 (100)
I0403 13:26:36.960702 28082 net.cpp:148] Top shape: 100 (100)
I0403 13:26:36.960719 28082 net.cpp:148] Top shape: 100 (100)
I0403 13:26:36.960734 28082 net.cpp:156] Memory required for data: 61836400
I0403 13:26:36.960748 28082 layer_factory.hpp:77] Creating layer conv1
I0403 13:26:36.960783 28082 net.cpp:91] Creating Layer conv1
I0403 13:26:36.960803 28082 net.cpp:425] conv1 <- data
I0403 13:26:36.960835 28082 net.cpp:399] conv1 -> conv1
I0403 13:26:37.110903 28082 net.cpp:141] Setting up conv1
I0403 13:26:37.110981 28082 net.cpp:148] Top shape: 100 96 55 55 (29040000)
I0403 13:26:37.111001 28082 net.cpp:156] Memory required for data: 177996400
I0403 13:26:37.111032 28082 layer_factory.hpp:77] Creating layer relu1
I0403 13:26:37.111063 28082 net.cpp:91] Creating Layer relu1
I0403 13:26:37.111083 28082 net.cpp:425] relu1 <- conv1
I0403 13:26:37.111107 28082 net.cpp:386] relu1 -> conv1 (in-place)
I0403 13:26:37.111398 28082 net.cpp:141] Setting up relu1
I0403 13:26:37.111428 28082 net.cpp:148] Top shape: 100 96 55 55 (29040000)
I0403 13:26:37.111445 28082 net.cpp:156] Memory required for data: 294156400
I0403 13:26:37.111496 28082 layer_factory.hpp:77] Creating layer norm1
I0403 13:26:37.111528 28082 net.cpp:91] Creating Layer norm1
I0403 13:26:37.111552 28082 net.cpp:425] norm1 <- conv1
I0403 13:26:37.111574 28082 net.cpp:399] norm1 -> norm1
I0403 13:26:37.111989 28082 net.cpp:141] Setting up norm1
I0403 13:26:37.112021 28082 net.cpp:148] Top shape: 100 96 55 55 (29040000)
I0403 13:26:37.112040 28082 net.cpp:156] Memory required for data: 410316400
I0403 13:26:37.112056 28082 layer_factory.hpp:77] Creating layer pool1
I0403 13:26:37.112079 28082 net.cpp:91] Creating Layer pool1
I0403 13:26:37.112098 28082 net.cpp:425] pool1 <- norm1
I0403 13:26:37.112123 28082 net.cpp:399] pool1 -> pool1
I0403 13:26:37.112195 28082 net.cpp:141] Setting up pool1
I0403 13:26:37.112222 28082 net.cpp:148] Top shape: 100 96 27 27 (6998400)
I0403 13:26:37.112237 28082 net.cpp:156] Memory required for data: 438310000
I0403 13:26:37.112254 28082 layer_factory.hpp:77] Creating layer conv2
I0403 13:26:37.112282 28082 net.cpp:91] Creating Layer conv2
I0403 13:26:37.112305 28082 net.cpp:425] conv2 <- pool1
I0403 13:26:37.112328 28082 net.cpp:399] conv2 -> conv2
I0403 13:26:37.128164 28082 net.cpp:141] Setting up conv2
I0403 13:26:37.128216 28082 net.cpp:148] Top shape: 100 256 27 27 (18662400)
I0403 13:26:37.128235 28082 net.cpp:156] Memory required for data: 512959600
I0403 13:26:37.128262 28082 layer_factory.hpp:77] Creating layer relu2
I0403 13:26:37.128288 28082 net.cpp:91] Creating Layer relu2
I0403 13:26:37.128307 28082 net.cpp:425] relu2 <- conv2
I0403 13:26:37.128326 28082 net.cpp:386] relu2 -> conv2 (in-place)
I0403 13:26:37.128620 28082 net.cpp:141] Setting up relu2
I0403 13:26:37.128649 28082 net.cpp:148] Top shape: 100 256 27 27 (18662400)
I0403 13:26:37.128665 28082 net.cpp:156] Memory required for data: 587609200
I0403 13:26:37.128682 28082 layer_factory.hpp:77] Creating layer norm2
I0403 13:26:37.128708 28082 net.cpp:91] Creating Layer norm2
I0403 13:26:37.128727 28082 net.cpp:425] norm2 <- conv2
I0403 13:26:37.128748 28082 net.cpp:399] norm2 -> norm2
I0403 13:26:37.128953 28082 net.cpp:141] Setting up norm2
I0403 13:26:37.128985 28082 net.cpp:148] Top shape: 100 256 27 27 (18662400)
I0403 13:26:37.129004 28082 net.cpp:156] Memory required for data: 662258800
I0403 13:26:37.129019 28082 layer_factory.hpp:77] Creating layer pool2
I0403 13:26:37.129040 28082 net.cpp:91] Creating Layer pool2
I0403 13:26:37.129056 28082 net.cpp:425] pool2 <- norm2
I0403 13:26:37.129076 28082 net.cpp:399] pool2 -> pool2
I0403 13:26:37.129132 28082 net.cpp:141] Setting up pool2
I0403 13:26:37.129155 28082 net.cpp:148] Top shape: 100 256 13 13 (4326400)
I0403 13:26:37.129173 28082 net.cpp:156] Memory required for data: 679564400
I0403 13:26:37.129189 28082 layer_factory.hpp:77] Creating layer conv3
I0403 13:26:37.129215 28082 net.cpp:91] Creating Layer conv3
I0403 13:26:37.129233 28082 net.cpp:425] conv3 <- pool2
I0403 13:26:37.129256 28082 net.cpp:399] conv3 -> conv3
I0403 13:26:37.178917 28082 net.cpp:141] Setting up conv3
I0403 13:26:37.178992 28082 net.cpp:148] Top shape: 100 384 13 13 (6489600)
I0403 13:26:37.179010 28082 net.cpp:156] Memory required for data: 705522800
I0403 13:26:37.179040 28082 layer_factory.hpp:77] Creating layer relu3
I0403 13:26:37.179066 28082 net.cpp:91] Creating Layer relu3
I0403 13:26:37.179085 28082 net.cpp:425] relu3 <- conv3
I0403 13:26:37.179108 28082 net.cpp:386] relu3 -> conv3 (in-place)
I0403 13:26:37.179415 28082 net.cpp:141] Setting up relu3
I0403 13:26:37.179447 28082 net.cpp:148] Top shape: 100 384 13 13 (6489600)
I0403 13:26:37.179467 28082 net.cpp:156] Memory required for data: 731481200
I0403 13:26:37.179484 28082 layer_factory.hpp:77] Creating layer conv4
I0403 13:26:37.179512 28082 net.cpp:91] Creating Layer conv4
I0403 13:26:37.179530 28082 net.cpp:425] conv4 <- conv3
I0403 13:26:37.179550 28082 net.cpp:399] conv4 -> conv4
I0403 13:26:37.210866 28082 net.cpp:141] Setting up conv4
I0403 13:26:37.210935 28082 net.cpp:148] Top shape: 100 384 13 13 (6489600)
I0403 13:26:37.210986 28082 net.cpp:156] Memory required for data: 757439600
I0403 13:26:37.211011 28082 layer_factory.hpp:77] Creating layer relu4
I0403 13:26:37.211038 28082 net.cpp:91] Creating Layer relu4
I0403 13:26:37.211058 28082 net.cpp:425] relu4 <- conv4
I0403 13:26:37.211078 28082 net.cpp:386] relu4 -> conv4 (in-place)
I0403 13:26:37.211380 28082 net.cpp:141] Setting up relu4
I0403 13:26:37.211408 28082 net.cpp:148] Top shape: 100 384 13 13 (6489600)
I0403 13:26:37.211424 28082 net.cpp:156] Memory required for data: 783398000
I0403 13:26:37.211441 28082 layer_factory.hpp:77] Creating layer conv5
I0403 13:26:37.211467 28082 net.cpp:91] Creating Layer conv5
I0403 13:26:37.211491 28082 net.cpp:425] conv5 <- conv4
I0403 13:26:37.211513 28082 net.cpp:399] conv5 -> conv5
I0403 13:26:37.233207 28082 net.cpp:141] Setting up conv5
I0403 13:26:37.233266 28082 net.cpp:148] Top shape: 100 256 13 13 (4326400)
I0403 13:26:37.233299 28082 net.cpp:156] Memory required for data: 800703600
I0403 13:26:37.233330 28082 layer_factory.hpp:77] Creating layer relu5
I0403 13:26:37.233352 28082 net.cpp:91] Creating Layer relu5
I0403 13:26:37.233371 28082 net.cpp:425] relu5 <- conv5
I0403 13:26:37.233391 28082 net.cpp:386] relu5 -> conv5 (in-place)
I0403 13:26:37.233685 28082 net.cpp:141] Setting up relu5
I0403 13:26:37.233717 28082 net.cpp:148] Top shape: 100 256 13 13 (4326400)
I0403 13:26:37.233734 28082 net.cpp:156] Memory required for data: 818009200
I0403 13:26:37.233752 28082 layer_factory.hpp:77] Creating layer pool5
I0403 13:26:37.233774 28082 net.cpp:91] Creating Layer pool5
I0403 13:26:37.233793 28082 net.cpp:425] pool5 <- conv5
I0403 13:26:37.233815 28082 net.cpp:399] pool5 -> pool5
I0403 13:26:37.233878 28082 net.cpp:141] Setting up pool5
I0403 13:26:37.233902 28082 net.cpp:148] Top shape: 100 256 6 6 (921600)
I0403 13:26:37.233919 28082 net.cpp:156] Memory required for data: 821695600
I0403 13:26:37.233935 28082 layer_factory.hpp:77] Creating layer fc6
I0403 13:26:37.233966 28082 net.cpp:91] Creating Layer fc6
I0403 13:26:37.233988 28082 net.cpp:425] fc6 <- pool5
I0403 13:26:37.234011 28082 net.cpp:399] fc6 -> fc6
I0403 13:26:38.817955 28082 net.cpp:141] Setting up fc6
I0403 13:26:38.818013 28082 net.cpp:148] Top shape: 100 4096 (409600)
I0403 13:26:38.818030 28082 net.cpp:156] Memory required for data: 823334000
I0403 13:26:38.818054 28082 layer_factory.hpp:77] Creating layer relu6
I0403 13:26:38.818080 28082 net.cpp:91] Creating Layer relu6
I0403 13:26:38.818099 28082 net.cpp:425] relu6 <- fc6
I0403 13:26:38.818120 28082 net.cpp:386] relu6 -> fc6 (in-place)
I0403 13:26:38.818351 28082 net.cpp:141] Setting up relu6
I0403 13:26:38.818379 28082 net.cpp:148] Top shape: 100 4096 (409600)
I0403 13:26:38.818395 28082 net.cpp:156] Memory required for data: 824972400
I0403 13:26:38.818410 28082 layer_factory.hpp:77] Creating layer drop6
I0403 13:26:38.818429 28082 net.cpp:91] Creating Layer drop6
I0403 13:26:38.818444 28082 net.cpp:425] drop6 <- fc6
I0403 13:26:38.818475 28082 net.cpp:386] drop6 -> fc6 (in-place)
I0403 13:26:38.818531 28082 net.cpp:141] Setting up drop6
I0403 13:26:38.818567 28082 net.cpp:148] Top shape: 100 4096 (409600)
I0403 13:26:38.818584 28082 net.cpp:156] Memory required for data: 826610800
I0403 13:26:38.818601 28082 layer_factory.hpp:77] Creating layer fc7
I0403 13:26:38.818625 28082 net.cpp:91] Creating Layer fc7
I0403 13:26:38.818642 28082 net.cpp:425] fc7 <- fc6
I0403 13:26:38.818662 28082 net.cpp:399] fc7 -> fc7
I0403 13:26:39.519690 28082 net.cpp:141] Setting up fc7
I0403 13:26:39.519733 28082 net.cpp:148] Top shape: 100 4096 (409600)
I0403 13:26:39.519749 28082 net.cpp:156] Memory required for data: 828249200
I0403 13:26:39.519772 28082 layer_factory.hpp:77] Creating layer relu7
I0403 13:26:39.519796 28082 net.cpp:91] Creating Layer relu7
I0403 13:26:39.519815 28082 net.cpp:425] relu7 <- fc7
I0403 13:26:39.519835 28082 net.cpp:386] relu7 -> fc7 (in-place)
I0403 13:26:39.520229 28082 net.cpp:141] Setting up relu7
I0403 13:26:39.520261 28082 net.cpp:148] Top shape: 100 4096 (409600)
I0403 13:26:39.520313 28082 net.cpp:156] Memory required for data: 829887600
I0403 13:26:39.520329 28082 layer_factory.hpp:77] Creating layer drop7
I0403 13:26:39.520349 28082 net.cpp:91] Creating Layer drop7
I0403 13:26:39.520364 28082 net.cpp:425] drop7 <- fc7
I0403 13:26:39.520381 28082 net.cpp:386] drop7 -> fc7 (in-place)
I0403 13:26:39.520426 28082 net.cpp:141] Setting up drop7
I0403 13:26:39.520448 28082 net.cpp:148] Top shape: 100 4096 (409600)
I0403 13:26:39.520462 28082 net.cpp:156] Memory required for data: 831526000
I0403 13:26:39.520478 28082 layer_factory.hpp:77] Creating layer fc8_plantvillage
I0403 13:26:39.520499 28082 net.cpp:91] Creating Layer fc8_plantvillage
I0403 13:26:39.520515 28082 net.cpp:425] fc8_plantvillage <- fc7
I0403 13:26:39.520532 28082 net.cpp:399] fc8_plantvillage -> fc8_plantvillage
I0403 13:26:39.527333 28082 net.cpp:141] Setting up fc8_plantvillage
I0403 13:26:39.527362 28082 net.cpp:148] Top shape: 100 38 (3800)
I0403 13:26:39.527379 28082 net.cpp:156] Memory required for data: 831541200
I0403 13:26:39.527397 28082 layer_factory.hpp:77] Creating layer fc8_plantvillage_fc8_plantvillage_0_split
I0403 13:26:39.527416 28082 net.cpp:91] Creating Layer fc8_plantvillage_fc8_plantvillage_0_split
I0403 13:26:39.527432 28082 net.cpp:425] fc8_plantvillage_fc8_plantvillage_0_split <- fc8_plantvillage
I0403 13:26:39.527451 28082 net.cpp:399] fc8_plantvillage_fc8_plantvillage_0_split -> fc8_plantvillage_fc8_plantvillage_0_split_0
I0403 13:26:39.527473 28082 net.cpp:399] fc8_plantvillage_fc8_plantvillage_0_split -> fc8_plantvillage_fc8_plantvillage_0_split_1
I0403 13:26:39.527497 28082 net.cpp:399] fc8_plantvillage_fc8_plantvillage_0_split -> fc8_plantvillage_fc8_plantvillage_0_split_2
I0403 13:26:39.527573 28082 net.cpp:141] Setting up fc8_plantvillage_fc8_plantvillage_0_split
I0403 13:26:39.527598 28082 net.cpp:148] Top shape: 100 38 (3800)
I0403 13:26:39.527616 28082 net.cpp:148] Top shape: 100 38 (3800)
I0403 13:26:39.527632 28082 net.cpp:148] Top shape: 100 38 (3800)
I0403 13:26:39.527647 28082 net.cpp:156] Memory required for data: 831586800
I0403 13:26:39.527662 28082 layer_factory.hpp:77] Creating layer prob
I0403 13:26:39.527681 28082 net.cpp:91] Creating Layer prob
I0403 13:26:39.527698 28082 net.cpp:425] prob <- fc8_plantvillage_fc8_plantvillage_0_split_0
I0403 13:26:39.527716 28082 net.cpp:399] prob -> prob
I0403 13:26:39.527943 28082 net.cpp:141] Setting up prob
I0403 13:26:39.527969 28082 net.cpp:148] Top shape: 100 38 (3800)
I0403 13:26:39.527986 28082 net.cpp:156] Memory required for data: 831602000
I0403 13:26:39.528000 28082 layer_factory.hpp:77] Creating layer hdf5out
I0403 13:26:39.528023 28082 net.cpp:91] Creating Layer hdf5out
I0403 13:26:39.528040 28082 net.cpp:425] hdf5out <- prob
I0403 13:26:39.528058 28082 net.cpp:425] hdf5out <- label_data_1_split_0
I0403 13:26:39.540892 28082 net.cpp:141] Setting up hdf5out
…
