…
I0403 13:04:21.469177 27359 net.cpp:313] The NetState phase (1) differed from the phase (0) specified by a rule in layer data
I0403 13:04:21.469504 27359 net.cpp:49] Initializing net from parameters: 
state {
  phase: TEST
}
layer {
  name: "data"
  type: "Data"
  top: "data"
  top: "label"
  include {
    phase: TEST
  }
  transform_param {
    crop_size: 227
    mean_file: "/home/mohanty/data/final_dataset/lmdb/color-60-40/mean.binaryproto"
  }
  data_param {
    source: "/home/mohanty/data/final_dataset/lmdb/color-60-40/test_db"
    batch_size: 100
    backend: LMDB
  }
}
layer {
  name: "conv1"
  type: "Convolution"
  bottom: "data"
  top: "conv1"
  param {
    lr_mult: 1
    decay_mult: 1
  }
  param {
    lr_mult: 2
    decay_mult: 0
  }
  convolution_param {
    num_output: 96
    kernel_size: 11
    stride: 4
    weight_filler {
      type: "gaussian"
      std: 0.01
    }
    bias_filler {
      type: "constant"
      value: 0
    }
  }
}
layer {
  name: "relu1"
  type: "ReLU"
  bottom: "conv1"
  top: "conv1"
}
layer {
  name: "norm1"
  type: "LRN"
  bottom: "conv1"
  top: "norm1"
  lrn_param {
    local_size: 5
    alpha: 0.0001
    beta: 0.75
  }
}
layer {
  name: "pool1"
  type: "Pooling"
  bottom: "norm1"
  top: "pool1"
  pooling_param {
    pool: MAX
    kernel_size: 3
    stride: 2
  }
}
layer {
  name: "conv2"
  type: "Convolution"
  bottom: "pool1"
  top: "conv2"
  param {
    lr_mult: 1
    decay_mult: 1
  }
  param {
    lr_mult: 2
    decay_mult: 0
  }
  convolution_param {
    num_output: 256
    pad: 2
    kernel_size: 5
    group: 2
    weight_filler {
      type: "gaussian"
      std: 0.01
    }
    bias_filler {
      type: "constant"
      value: 0.1
    }
  }
}
layer {
  name: "relu2"
  type: "ReLU"
  bottom: "conv2"
  top: "conv2"
}
layer {
  name: "norm2"
  type: "LRN"
  bottom: "conv2"
  top: "norm2"
  lrn_param {
    local_size: 5
    alpha: 0.0001
    beta: 0.75
  }
}
layer {
  name: "pool2"
  type: "Pooling"
  bottom: "norm2"
  top: "pool2"
  pooling_param {
    pool: MAX
    kernel_size: 3
    stride: 2
  }
}
layer {
  name: "conv3"
  type: "Convolution"
  bottom: "pool2"
  top: "conv3"
  param {
    lr_mult: 1
    decay_mult: 1
  }
  param {
    lr_mult: 2
    decay_mult: 0
  }
  convolution_param {
    num_output: 384
    pad: 1
    kernel_size: 3
    weight_filler {
      type: "gaussian"
      std: 0.01
    }
    bias_filler {
      type: "constant"
      value: 0
    }
  }
}
layer {
  name: "relu3"
  type: "ReLU"
  bottom: "conv3"
  top: "conv3"
}
layer {
  name: "conv4"
  type: "Convolution"
  bottom: "conv3"
  top: "conv4"
  param {
    lr_mult: 1
    decay_mult: 1
  }
  param {
    lr_mult: 2
    decay_mult: 0
  }
  convolution_param {
    num_output: 384
    pad: 1
    kernel_size: 3
    group: 2
    weight_filler {
      type: "gaussian"
      std: 0.01
    }
    bias_filler {
      type: "constant"
      value: 0.1
    }
  }
}
layer {
  name: "relu4"
  type: "ReLU"
  bottom: "conv4"
  top: "conv4"
}
layer {
  name: "conv5"
  type: "Convolution"
  bottom: "conv4"
  top: "conv5"
  param {
    lr_mult: 1
    decay_mult: 1
  }
  param {
    lr_mult: 2
    decay_mult: 0
  }
  convolution_param {
    num_output: 256
    pad: 1
    kernel_size: 3
    group: 2
    weight_filler {
      type: "gaussian"
      std: 0.01
    }
    bias_filler {
      type: "constant"
      value: 0.1
    }
  }
}
layer {
  name: "relu5"
  type: "ReLU"
  bottom: "conv5"
  top: "conv5"
}
layer {
  name: "pool5"
  type: "Pooling"
  bottom: "conv5"
  top: "pool5"
  pooling_param {
    pool: MAX
    kernel_size: 3
    stride: 2
  }
}
layer {
  name: "fc6"
  type: "InnerProduct"
  bottom: "pool5"
  top: "fc6"
  param {
    lr_mult: 1
    decay_mult: 1
  }
  param {
    lr_mult: 2
    decay_mult: 0
  }
  inner_product_param {
    num_output: 4096
    weight_filler {
      type: "gaussian"
      std: 0.005
    }
    bias_filler {
      type: "constant"
      value: 0.1
    }
  }
}
layer {
  name: "relu6"
  type: "ReLU"
  bottom: "fc6"
  top: "fc6"
}
layer {
  name: "drop6"
  type: "Dropout"
  bottom: "fc6"
  top: "fc6"
  dropout_param {
    dropout_ratio: 0.5
  }
}
layer {
  name: "fc7"
  type: "InnerProduct"
  bottom: "fc6"
  top: "fc7"
  param {
    lr_mult: 1
    decay_mult: 1
  }
  param {
    lr_mult: 2
    decay_mult: 0
  }
  inner_product_param {
    num_output: 4096
    weight_filler {
      type: "gaussian"
      std: 0.005
    }
    bias_filler {
      type: "constant"
      value: 0.1
    }
  }
}
layer {
  name: "relu7"
  type: "ReLU"
  bottom: "fc7"
  top: "fc7"
}
layer {
  name: "drop7"
  type: "Dropout"
  bottom: "fc7"
  top: "fc7"
  dropout_param {
    dropout_ratio: 0.5
  }
}
layer {
  name: "fc8_plantvillage"
  type: "InnerProduct"
  bottom: "fc7"
  top: "fc8_plantvillage"
  param {
    lr_mult: 1
    decay_mult: 1
  }
  param {
    lr_mult: 2
    decay_mult: 0
  }
  inner_product_param {
    num_output: 38
    weight_filler {
      type: "gaussian"
      std: 0.01
    }
    bias_filler {
      type: "constant"
      value: 0
    }
  }
}
layer {
  name: "prob"
  type: "Softmax"
  bottom: "fc8_plantvillage"
  top: "prob"
  include {
    phase: TEST
  }
}
layer {
  name: "hdf5out"
  type: "HDF5Output"
  bottom: "prob"
  bottom: "label"
  include {
    phase: TEST
  }
  hdf5_output_param {
    file_name: "hdf5_dumps/iter_325.h5"
  }
}
layer {
  name: "loss"
  type: "SoftmaxWithLoss"
  bottom: "fc8_plantvillage"
  bottom: "label"
  top: "loss"
}
layer {
  name: "accuracy"
  type: "Accuracy"
  bottom: "fc8_plantvillage"
  bottom: "label"
  top: "accuracy"
  include {
    phase: TEST
  }
}
I0403 13:04:21.470075 27359 layer_factory.hpp:77] Creating layer data
I0403 13:04:21.470732 27359 net.cpp:91] Creating Layer data
I0403 13:04:21.470764 27359 net.cpp:399] data -> data
I0403 13:04:21.470819 27359 net.cpp:399] data -> label
I0403 13:04:21.470859 27359 data_transformer.cpp:25] Loading mean file from: /home/mohanty/data/final_dataset/lmdb/color-60-40/mean.binaryproto
I0403 13:04:21.513471 27364 db_lmdb.cpp:38] Opened lmdb /home/mohanty/data/final_dataset/lmdb/color-60-40/test_db
I0403 13:04:21.551676 27359 data_layer.cpp:41] output data size: 100,3,227,227
I0403 13:04:21.750308 27359 net.cpp:141] Setting up data
I0403 13:04:21.750396 27359 net.cpp:148] Top shape: 100 3 227 227 (15458700)
I0403 13:04:21.750422 27359 net.cpp:148] Top shape: 100 (100)
I0403 13:04:21.750437 27359 net.cpp:156] Memory required for data: 61835200
I0403 13:04:21.750465 27359 layer_factory.hpp:77] Creating layer label_data_1_split
I0403 13:04:21.750493 27359 net.cpp:91] Creating Layer label_data_1_split
I0403 13:04:21.750510 27359 net.cpp:425] label_data_1_split <- label
I0403 13:04:21.750542 27359 net.cpp:399] label_data_1_split -> label_data_1_split_0
I0403 13:04:21.750572 27359 net.cpp:399] label_data_1_split -> label_data_1_split_1
I0403 13:04:21.750593 27359 net.cpp:399] label_data_1_split -> label_data_1_split_2
I0403 13:04:21.750661 27359 net.cpp:141] Setting up label_data_1_split
I0403 13:04:21.750687 27359 net.cpp:148] Top shape: 100 (100)
I0403 13:04:21.750704 27359 net.cpp:148] Top shape: 100 (100)
I0403 13:04:21.750720 27359 net.cpp:148] Top shape: 100 (100)
I0403 13:04:21.750735 27359 net.cpp:156] Memory required for data: 61836400
I0403 13:04:21.750751 27359 layer_factory.hpp:77] Creating layer conv1
I0403 13:04:21.750784 27359 net.cpp:91] Creating Layer conv1
I0403 13:04:21.750804 27359 net.cpp:425] conv1 <- data
I0403 13:04:21.750825 27359 net.cpp:399] conv1 -> conv1
I0403 13:04:21.903589 27359 net.cpp:141] Setting up conv1
I0403 13:04:21.903769 27359 net.cpp:148] Top shape: 100 96 55 55 (29040000)
I0403 13:04:21.903790 27359 net.cpp:156] Memory required for data: 177996400
I0403 13:04:21.903823 27359 layer_factory.hpp:77] Creating layer relu1
I0403 13:04:21.903852 27359 net.cpp:91] Creating Layer relu1
I0403 13:04:21.903872 27359 net.cpp:425] relu1 <- conv1
I0403 13:04:21.903892 27359 net.cpp:386] relu1 -> conv1 (in-place)
I0403 13:04:21.904162 27359 net.cpp:141] Setting up relu1
I0403 13:04:21.904191 27359 net.cpp:148] Top shape: 100 96 55 55 (29040000)
I0403 13:04:21.904208 27359 net.cpp:156] Memory required for data: 294156400
I0403 13:04:21.904271 27359 layer_factory.hpp:77] Creating layer norm1
I0403 13:04:21.904304 27359 net.cpp:91] Creating Layer norm1
I0403 13:04:21.904325 27359 net.cpp:425] norm1 <- conv1
I0403 13:04:21.904343 27359 net.cpp:399] norm1 -> norm1
I0403 13:04:21.904680 27359 net.cpp:141] Setting up norm1
I0403 13:04:21.904709 27359 net.cpp:148] Top shape: 100 96 55 55 (29040000)
I0403 13:04:21.904726 27359 net.cpp:156] Memory required for data: 410316400
I0403 13:04:21.904742 27359 layer_factory.hpp:77] Creating layer pool1
I0403 13:04:21.904765 27359 net.cpp:91] Creating Layer pool1
I0403 13:04:21.904784 27359 net.cpp:425] pool1 <- norm1
I0403 13:04:21.904804 27359 net.cpp:399] pool1 -> pool1
I0403 13:04:21.904875 27359 net.cpp:141] Setting up pool1
I0403 13:04:21.904902 27359 net.cpp:148] Top shape: 100 96 27 27 (6998400)
I0403 13:04:21.904917 27359 net.cpp:156] Memory required for data: 438310000
I0403 13:04:21.904933 27359 layer_factory.hpp:77] Creating layer conv2
I0403 13:04:21.904969 27359 net.cpp:91] Creating Layer conv2
I0403 13:04:21.904989 27359 net.cpp:425] conv2 <- pool1
I0403 13:04:21.905009 27359 net.cpp:399] conv2 -> conv2
I0403 13:04:21.921725 27359 net.cpp:141] Setting up conv2
I0403 13:04:21.921774 27359 net.cpp:148] Top shape: 100 256 27 27 (18662400)
I0403 13:04:21.921790 27359 net.cpp:156] Memory required for data: 512959600
I0403 13:04:21.921815 27359 layer_factory.hpp:77] Creating layer relu2
I0403 13:04:21.921836 27359 net.cpp:91] Creating Layer relu2
I0403 13:04:21.921854 27359 net.cpp:425] relu2 <- conv2
I0403 13:04:21.921872 27359 net.cpp:386] relu2 -> conv2 (in-place)
I0403 13:04:21.922274 27359 net.cpp:141] Setting up relu2
I0403 13:04:21.922302 27359 net.cpp:148] Top shape: 100 256 27 27 (18662400)
I0403 13:04:21.922318 27359 net.cpp:156] Memory required for data: 587609200
I0403 13:04:21.922335 27359 layer_factory.hpp:77] Creating layer norm2
I0403 13:04:21.922358 27359 net.cpp:91] Creating Layer norm2
I0403 13:04:21.922374 27359 net.cpp:425] norm2 <- conv2
I0403 13:04:21.922394 27359 net.cpp:399] norm2 -> norm2
I0403 13:04:21.922597 27359 net.cpp:141] Setting up norm2
I0403 13:04:21.922623 27359 net.cpp:148] Top shape: 100 256 27 27 (18662400)
I0403 13:04:21.922639 27359 net.cpp:156] Memory required for data: 662258800
I0403 13:04:21.922654 27359 layer_factory.hpp:77] Creating layer pool2
I0403 13:04:21.922675 27359 net.cpp:91] Creating Layer pool2
I0403 13:04:21.922693 27359 net.cpp:425] pool2 <- norm2
I0403 13:04:21.922713 27359 net.cpp:399] pool2 -> pool2
I0403 13:04:21.922766 27359 net.cpp:141] Setting up pool2
I0403 13:04:21.922791 27359 net.cpp:148] Top shape: 100 256 13 13 (4326400)
I0403 13:04:21.922806 27359 net.cpp:156] Memory required for data: 679564400
I0403 13:04:21.922821 27359 layer_factory.hpp:77] Creating layer conv3
I0403 13:04:21.922845 27359 net.cpp:91] Creating Layer conv3
I0403 13:04:21.922863 27359 net.cpp:425] conv3 <- pool2
I0403 13:04:21.922885 27359 net.cpp:399] conv3 -> conv3
I0403 13:04:21.964468 27359 net.cpp:141] Setting up conv3
I0403 13:04:21.964531 27359 net.cpp:148] Top shape: 100 384 13 13 (6489600)
I0403 13:04:21.964550 27359 net.cpp:156] Memory required for data: 705522800
I0403 13:04:21.964577 27359 layer_factory.hpp:77] Creating layer relu3
I0403 13:04:21.964604 27359 net.cpp:91] Creating Layer relu3
I0403 13:04:21.964625 27359 net.cpp:425] relu3 <- conv3
I0403 13:04:21.964648 27359 net.cpp:386] relu3 -> conv3 (in-place)
I0403 13:04:21.964941 27359 net.cpp:141] Setting up relu3
I0403 13:04:21.964969 27359 net.cpp:148] Top shape: 100 384 13 13 (6489600)
I0403 13:04:21.964987 27359 net.cpp:156] Memory required for data: 731481200
I0403 13:04:21.965005 27359 layer_factory.hpp:77] Creating layer conv4
I0403 13:04:21.965034 27359 net.cpp:91] Creating Layer conv4
I0403 13:04:21.965052 27359 net.cpp:425] conv4 <- conv3
I0403 13:04:21.965075 27359 net.cpp:399] conv4 -> conv4
I0403 13:04:21.996906 27359 net.cpp:141] Setting up conv4
I0403 13:04:21.996961 27359 net.cpp:148] Top shape: 100 384 13 13 (6489600)
I0403 13:04:21.997014 27359 net.cpp:156] Memory required for data: 757439600
I0403 13:04:21.997038 27359 layer_factory.hpp:77] Creating layer relu4
I0403 13:04:21.997061 27359 net.cpp:91] Creating Layer relu4
I0403 13:04:21.997079 27359 net.cpp:425] relu4 <- conv4
I0403 13:04:21.997102 27359 net.cpp:386] relu4 -> conv4 (in-place)
I0403 13:04:21.997422 27359 net.cpp:141] Setting up relu4
I0403 13:04:21.997452 27359 net.cpp:148] Top shape: 100 384 13 13 (6489600)
I0403 13:04:21.997468 27359 net.cpp:156] Memory required for data: 783398000
I0403 13:04:21.997485 27359 layer_factory.hpp:77] Creating layer conv5
I0403 13:04:21.997512 27359 net.cpp:91] Creating Layer conv5
I0403 13:04:21.997530 27359 net.cpp:425] conv5 <- conv4
I0403 13:04:21.997555 27359 net.cpp:399] conv5 -> conv5
I0403 13:04:22.019338 27359 net.cpp:141] Setting up conv5
I0403 13:04:22.019389 27359 net.cpp:148] Top shape: 100 256 13 13 (4326400)
I0403 13:04:22.019407 27359 net.cpp:156] Memory required for data: 800703600
I0403 13:04:22.019433 27359 layer_factory.hpp:77] Creating layer relu5
I0403 13:04:22.019459 27359 net.cpp:91] Creating Layer relu5
I0403 13:04:22.019479 27359 net.cpp:425] relu5 <- conv5
I0403 13:04:22.019500 27359 net.cpp:386] relu5 -> conv5 (in-place)
I0403 13:04:22.019801 27359 net.cpp:141] Setting up relu5
I0403 13:04:22.019829 27359 net.cpp:148] Top shape: 100 256 13 13 (4326400)
I0403 13:04:22.019846 27359 net.cpp:156] Memory required for data: 818009200
I0403 13:04:22.019862 27359 layer_factory.hpp:77] Creating layer pool5
I0403 13:04:22.019887 27359 net.cpp:91] Creating Layer pool5
I0403 13:04:22.019906 27359 net.cpp:425] pool5 <- conv5
I0403 13:04:22.019927 27359 net.cpp:399] pool5 -> pool5
I0403 13:04:22.019994 27359 net.cpp:141] Setting up pool5
I0403 13:04:22.020020 27359 net.cpp:148] Top shape: 100 256 6 6 (921600)
I0403 13:04:22.020035 27359 net.cpp:156] Memory required for data: 821695600
I0403 13:04:22.020051 27359 layer_factory.hpp:77] Creating layer fc6
I0403 13:04:22.020081 27359 net.cpp:91] Creating Layer fc6
I0403 13:04:22.020100 27359 net.cpp:425] fc6 <- pool5
I0403 13:04:22.020120 27359 net.cpp:399] fc6 -> fc6
I0403 13:04:23.613049 27359 net.cpp:141] Setting up fc6
I0403 13:04:23.613126 27359 net.cpp:148] Top shape: 100 4096 (409600)
I0403 13:04:23.613143 27359 net.cpp:156] Memory required for data: 823334000
I0403 13:04:23.613164 27359 layer_factory.hpp:77] Creating layer relu6
I0403 13:04:23.613188 27359 net.cpp:91] Creating Layer relu6
I0403 13:04:23.613204 27359 net.cpp:425] relu6 <- fc6
I0403 13:04:23.613225 27359 net.cpp:386] relu6 -> fc6 (in-place)
I0403 13:04:23.613453 27359 net.cpp:141] Setting up relu6
I0403 13:04:23.613481 27359 net.cpp:148] Top shape: 100 4096 (409600)
I0403 13:04:23.613495 27359 net.cpp:156] Memory required for data: 824972400
I0403 13:04:23.613510 27359 layer_factory.hpp:77] Creating layer drop6
I0403 13:04:23.613533 27359 net.cpp:91] Creating Layer drop6
I0403 13:04:23.613548 27359 net.cpp:425] drop6 <- fc6
I0403 13:04:23.613565 27359 net.cpp:386] drop6 -> fc6 (in-place)
I0403 13:04:23.613618 27359 net.cpp:141] Setting up drop6
I0403 13:04:23.613643 27359 net.cpp:148] Top shape: 100 4096 (409600)
I0403 13:04:23.613657 27359 net.cpp:156] Memory required for data: 826610800
I0403 13:04:23.613672 27359 layer_factory.hpp:77] Creating layer fc7
I0403 13:04:23.613693 27359 net.cpp:91] Creating Layer fc7
I0403 13:04:23.613709 27359 net.cpp:425] fc7 <- fc6
I0403 13:04:23.613729 27359 net.cpp:399] fc7 -> fc7
I0403 13:04:24.301192 27359 net.cpp:141] Setting up fc7
I0403 13:04:24.301267 27359 net.cpp:148] Top shape: 100 4096 (409600)
I0403 13:04:24.301285 27359 net.cpp:156] Memory required for data: 828249200
I0403 13:04:24.301306 27359 layer_factory.hpp:77] Creating layer relu7
I0403 13:04:24.301334 27359 net.cpp:91] Creating Layer relu7
I0403 13:04:24.301353 27359 net.cpp:425] relu7 <- fc7
I0403 13:04:24.301373 27359 net.cpp:386] relu7 -> fc7 (in-place)
I0403 13:04:24.301807 27359 net.cpp:141] Setting up relu7
I0403 13:04:24.301833 27359 net.cpp:148] Top shape: 100 4096 (409600)
I0403 13:04:24.301880 27359 net.cpp:156] Memory required for data: 829887600
I0403 13:04:24.301898 27359 layer_factory.hpp:77] Creating layer drop7
I0403 13:04:24.301915 27359 net.cpp:91] Creating Layer drop7
I0403 13:04:24.301930 27359 net.cpp:425] drop7 <- fc7
I0403 13:04:24.301949 27359 net.cpp:386] drop7 -> fc7 (in-place)
I0403 13:04:24.301995 27359 net.cpp:141] Setting up drop7
I0403 13:04:24.302018 27359 net.cpp:148] Top shape: 100 4096 (409600)
I0403 13:04:24.302032 27359 net.cpp:156] Memory required for data: 831526000
I0403 13:04:24.302047 27359 layer_factory.hpp:77] Creating layer fc8_plantvillage
I0403 13:04:24.302067 27359 net.cpp:91] Creating Layer fc8_plantvillage
I0403 13:04:24.302081 27359 net.cpp:425] fc8_plantvillage <- fc7
I0403 13:04:24.302101 27359 net.cpp:399] fc8_plantvillage -> fc8_plantvillage
I0403 13:04:24.308842 27359 net.cpp:141] Setting up fc8_plantvillage
I0403 13:04:24.308876 27359 net.cpp:148] Top shape: 100 38 (3800)
I0403 13:04:24.308892 27359 net.cpp:156] Memory required for data: 831541200
I0403 13:04:24.308912 27359 layer_factory.hpp:77] Creating layer fc8_plantvillage_fc8_plantvillage_0_split
I0403 13:04:24.308929 27359 net.cpp:91] Creating Layer fc8_plantvillage_fc8_plantvillage_0_split
I0403 13:04:24.308945 27359 net.cpp:425] fc8_plantvillage_fc8_plantvillage_0_split <- fc8_plantvillage
I0403 13:04:24.308962 27359 net.cpp:399] fc8_plantvillage_fc8_plantvillage_0_split -> fc8_plantvillage_fc8_plantvillage_0_split_0
I0403 13:04:24.308982 27359 net.cpp:399] fc8_plantvillage_fc8_plantvillage_0_split -> fc8_plantvillage_fc8_plantvillage_0_split_1
I0403 13:04:24.309003 27359 net.cpp:399] fc8_plantvillage_fc8_plantvillage_0_split -> fc8_plantvillage_fc8_plantvillage_0_split_2
I0403 13:04:24.309085 27359 net.cpp:141] Setting up fc8_plantvillage_fc8_plantvillage_0_split
I0403 13:04:24.309110 27359 net.cpp:148] Top shape: 100 38 (3800)
I0403 13:04:24.309126 27359 net.cpp:148] Top shape: 100 38 (3800)
I0403 13:04:24.309142 27359 net.cpp:148] Top shape: 100 38 (3800)
I0403 13:04:24.309157 27359 net.cpp:156] Memory required for data: 831586800
I0403 13:04:24.309172 27359 layer_factory.hpp:77] Creating layer prob
I0403 13:04:24.309191 27359 net.cpp:91] Creating Layer prob
I0403 13:04:24.309206 27359 net.cpp:425] prob <- fc8_plantvillage_fc8_plantvillage_0_split_0
I0403 13:04:24.309223 27359 net.cpp:399] prob -> prob
I0403 13:04:24.309460 27359 net.cpp:141] Setting up prob
I0403 13:04:24.309486 27359 net.cpp:148] Top shape: 100 38 (3800)
I0403 13:04:24.309502 27359 net.cpp:156] Memory required for data: 831602000
I0403 13:04:24.309527 27359 layer_factory.hpp:77] Creating layer hdf5out
I0403 13:04:24.309550 27359 net.cpp:91] Creating Layer hdf5out
I0403 13:04:24.309566 27359 net.cpp:425] hdf5out <- prob
I0403 13:04:24.309581 27359 net.cpp:425] hdf5out <- label_data_1_split_0
I0403 13:04:24.319746 27359 net.cpp:141] Setting up hdf5out
…
