…
I0403 13:20:19.438467 27801 net.cpp:313] The NetState phase (1) differed from the phase (0) specified by a rule in layer data
I0403 13:20:19.438761 27801 net.cpp:49] Initializing net from parameters: 
state {
  phase: TEST
}
layer {
  name: "data"
  type: "Data"
  top: "data"
  top: "label"
  include {
    phase: TEST
  }
  transform_param {
    crop_size: 227
    mean_file: "/home/mohanty/data/final_dataset/lmdb/color-60-40/mean.binaryproto"
  }
  data_param {
    source: "/home/mohanty/data/final_dataset/lmdb/color-60-40/test_db"
    batch_size: 100
    backend: LMDB
  }
}
layer {
  name: "conv1"
  type: "Convolution"
  bottom: "data"
  top: "conv1"
  param {
    lr_mult: 1
    decay_mult: 1
  }
  param {
    lr_mult: 2
    decay_mult: 0
  }
  convolution_param {
    num_output: 96
    kernel_size: 11
    stride: 4
    weight_filler {
      type: "gaussian"
      std: 0.01
    }
    bias_filler {
      type: "constant"
      value: 0
    }
  }
}
layer {
  name: "relu1"
  type: "ReLU"
  bottom: "conv1"
  top: "conv1"
}
layer {
  name: "norm1"
  type: "LRN"
  bottom: "conv1"
  top: "norm1"
  lrn_param {
    local_size: 5
    alpha: 0.0001
    beta: 0.75
  }
}
layer {
  name: "pool1"
  type: "Pooling"
  bottom: "norm1"
  top: "pool1"
  pooling_param {
    pool: MAX
    kernel_size: 3
    stride: 2
  }
}
layer {
  name: "conv2"
  type: "Convolution"
  bottom: "pool1"
  top: "conv2"
  param {
    lr_mult: 1
    decay_mult: 1
  }
  param {
    lr_mult: 2
    decay_mult: 0
  }
  convolution_param {
    num_output: 256
    pad: 2
    kernel_size: 5
    group: 2
    weight_filler {
      type: "gaussian"
      std: 0.01
    }
    bias_filler {
      type: "constant"
      value: 0.1
    }
  }
}
layer {
  name: "relu2"
  type: "ReLU"
  bottom: "conv2"
  top: "conv2"
}
layer {
  name: "norm2"
  type: "LRN"
  bottom: "conv2"
  top: "norm2"
  lrn_param {
    local_size: 5
    alpha: 0.0001
    beta: 0.75
  }
}
layer {
  name: "pool2"
  type: "Pooling"
  bottom: "norm2"
  top: "pool2"
  pooling_param {
    pool: MAX
    kernel_size: 3
    stride: 2
  }
}
layer {
  name: "conv3"
  type: "Convolution"
  bottom: "pool2"
  top: "conv3"
  param {
    lr_mult: 1
    decay_mult: 1
  }
  param {
    lr_mult: 2
    decay_mult: 0
  }
  convolution_param {
    num_output: 384
    pad: 1
    kernel_size: 3
    weight_filler {
      type: "gaussian"
      std: 0.01
    }
    bias_filler {
      type: "constant"
      value: 0
    }
  }
}
layer {
  name: "relu3"
  type: "ReLU"
  bottom: "conv3"
  top: "conv3"
}
layer {
  name: "conv4"
  type: "Convolution"
  bottom: "conv3"
  top: "conv4"
  param {
    lr_mult: 1
    decay_mult: 1
  }
  param {
    lr_mult: 2
    decay_mult: 0
  }
  convolution_param {
    num_output: 384
    pad: 1
    kernel_size: 3
    group: 2
    weight_filler {
      type: "gaussian"
      std: 0.01
    }
    bias_filler {
      type: "constant"
      value: 0.1
    }
  }
}
layer {
  name: "relu4"
  type: "ReLU"
  bottom: "conv4"
  top: "conv4"
}
layer {
  name: "conv5"
  type: "Convolution"
  bottom: "conv4"
  top: "conv5"
  param {
    lr_mult: 1
    decay_mult: 1
  }
  param {
    lr_mult: 2
    decay_mult: 0
  }
  convolution_param {
    num_output: 256
    pad: 1
    kernel_size: 3
    group: 2
    weight_filler {
      type: "gaussian"
      std: 0.01
    }
    bias_filler {
      type: "constant"
      value: 0.1
    }
  }
}
layer {
  name: "relu5"
  type: "ReLU"
  bottom: "conv5"
  top: "conv5"
}
layer {
  name: "pool5"
  type: "Pooling"
  bottom: "conv5"
  top: "pool5"
  pooling_param {
    pool: MAX
    kernel_size: 3
    stride: 2
  }
}
layer {
  name: "fc6"
  type: "InnerProduct"
  bottom: "pool5"
  top: "fc6"
  param {
    lr_mult: 1
    decay_mult: 1
  }
  param {
    lr_mult: 2
    decay_mult: 0
  }
  inner_product_param {
    num_output: 4096
    weight_filler {
      type: "gaussian"
      std: 0.005
    }
    bias_filler {
      type: "constant"
      value: 0.1
    }
  }
}
layer {
  name: "relu6"
  type: "ReLU"
  bottom: "fc6"
  top: "fc6"
}
layer {
  name: "drop6"
  type: "Dropout"
  bottom: "fc6"
  top: "fc6"
  dropout_param {
    dropout_ratio: 0.5
  }
}
layer {
  name: "fc7"
  type: "InnerProduct"
  bottom: "fc6"
  top: "fc7"
  param {
    lr_mult: 1
    decay_mult: 1
  }
  param {
    lr_mult: 2
    decay_mult: 0
  }
  inner_product_param {
    num_output: 4096
    weight_filler {
      type: "gaussian"
      std: 0.005
    }
    bias_filler {
      type: "constant"
      value: 0.1
    }
  }
}
layer {
  name: "relu7"
  type: "ReLU"
  bottom: "fc7"
  top: "fc7"
}
layer {
  name: "drop7"
  type: "Dropout"
  bottom: "fc7"
  top: "fc7"
  dropout_param {
    dropout_ratio: 0.5
  }
}
layer {
  name: "fc8_plantvillage"
  type: "InnerProduct"
  bottom: "fc7"
  top: "fc8_plantvillage"
  param {
    lr_mult: 1
    decay_mult: 1
  }
  param {
    lr_mult: 2
    decay_mult: 0
  }
  inner_product_param {
    num_output: 38
    weight_filler {
      type: "gaussian"
      std: 0.01
    }
    bias_filler {
      type: "constant"
      value: 0
    }
  }
}
layer {
  name: "prob"
  type: "Softmax"
  bottom: "fc8_plantvillage"
  top: "prob"
  include {
    phase: TEST
  }
}
layer {
  name: "hdf5out"
  type: "HDF5Output"
  bottom: "prob"
  bottom: "label"
  include {
    phase: TEST
  }
  hdf5_output_param {
    file_name: "hdf5_dumps/iter_6825.h5"
  }
}
layer {
  name: "loss"
  type: "SoftmaxWithLoss"
  bottom: "fc8_plantvillage"
  bottom: "label"
  top: "loss"
}
layer {
  name: "accuracy"
  type: "Accuracy"
  bottom: "fc8_plantvillage"
  bottom: "label"
  top: "accuracy"
  include {
    phase: TEST
  }
}
I0403 13:20:19.439282 27801 layer_factory.hpp:77] Creating layer data
I0403 13:20:19.439970 27801 net.cpp:91] Creating Layer data
I0403 13:20:19.440004 27801 net.cpp:399] data -> data
I0403 13:20:19.440057 27801 net.cpp:399] data -> label
I0403 13:20:19.440094 27801 data_transformer.cpp:25] Loading mean file from: /home/mohanty/data/final_dataset/lmdb/color-60-40/mean.binaryproto
I0403 13:20:19.443153 27804 db_lmdb.cpp:38] Opened lmdb /home/mohanty/data/final_dataset/lmdb/color-60-40/test_db
I0403 13:20:19.454905 27801 data_layer.cpp:41] output data size: 100,3,227,227
I0403 13:20:19.589875 27801 net.cpp:141] Setting up data
I0403 13:20:19.589969 27801 net.cpp:148] Top shape: 100 3 227 227 (15458700)
I0403 13:20:19.589993 27801 net.cpp:148] Top shape: 100 (100)
I0403 13:20:19.590009 27801 net.cpp:156] Memory required for data: 61835200
I0403 13:20:19.590039 27801 layer_factory.hpp:77] Creating layer label_data_1_split
I0403 13:20:19.590065 27801 net.cpp:91] Creating Layer label_data_1_split
I0403 13:20:19.590086 27801 net.cpp:425] label_data_1_split <- label
I0403 13:20:19.590119 27801 net.cpp:399] label_data_1_split -> label_data_1_split_0
I0403 13:20:19.590148 27801 net.cpp:399] label_data_1_split -> label_data_1_split_1
I0403 13:20:19.590170 27801 net.cpp:399] label_data_1_split -> label_data_1_split_2
I0403 13:20:19.590237 27801 net.cpp:141] Setting up label_data_1_split
I0403 13:20:19.590262 27801 net.cpp:148] Top shape: 100 (100)
I0403 13:20:19.590279 27801 net.cpp:148] Top shape: 100 (100)
I0403 13:20:19.590303 27801 net.cpp:148] Top shape: 100 (100)
I0403 13:20:19.590319 27801 net.cpp:156] Memory required for data: 61836400
I0403 13:20:19.590334 27801 layer_factory.hpp:77] Creating layer conv1
I0403 13:20:19.590368 27801 net.cpp:91] Creating Layer conv1
I0403 13:20:19.590389 27801 net.cpp:425] conv1 <- data
I0403 13:20:19.590409 27801 net.cpp:399] conv1 -> conv1
I0403 13:20:19.739784 27801 net.cpp:141] Setting up conv1
I0403 13:20:19.739862 27801 net.cpp:148] Top shape: 100 96 55 55 (29040000)
I0403 13:20:19.739881 27801 net.cpp:156] Memory required for data: 177996400
I0403 13:20:19.739915 27801 layer_factory.hpp:77] Creating layer relu1
I0403 13:20:19.739945 27801 net.cpp:91] Creating Layer relu1
I0403 13:20:19.739964 27801 net.cpp:425] relu1 <- conv1
I0403 13:20:19.739984 27801 net.cpp:386] relu1 -> conv1 (in-place)
I0403 13:20:19.740252 27801 net.cpp:141] Setting up relu1
I0403 13:20:19.740285 27801 net.cpp:148] Top shape: 100 96 55 55 (29040000)
I0403 13:20:19.740303 27801 net.cpp:156] Memory required for data: 294156400
I0403 13:20:19.740351 27801 layer_factory.hpp:77] Creating layer norm1
I0403 13:20:19.740382 27801 net.cpp:91] Creating Layer norm1
I0403 13:20:19.740402 27801 net.cpp:425] norm1 <- conv1
I0403 13:20:19.740422 27801 net.cpp:399] norm1 -> norm1
I0403 13:20:19.740742 27801 net.cpp:141] Setting up norm1
I0403 13:20:19.740773 27801 net.cpp:148] Top shape: 100 96 55 55 (29040000)
I0403 13:20:19.740790 27801 net.cpp:156] Memory required for data: 410316400
I0403 13:20:19.740806 27801 layer_factory.hpp:77] Creating layer pool1
I0403 13:20:19.740831 27801 net.cpp:91] Creating Layer pool1
I0403 13:20:19.740850 27801 net.cpp:425] pool1 <- norm1
I0403 13:20:19.740869 27801 net.cpp:399] pool1 -> pool1
I0403 13:20:19.740941 27801 net.cpp:141] Setting up pool1
I0403 13:20:19.740967 27801 net.cpp:148] Top shape: 100 96 27 27 (6998400)
I0403 13:20:19.740983 27801 net.cpp:156] Memory required for data: 438310000
I0403 13:20:19.740998 27801 layer_factory.hpp:77] Creating layer conv2
I0403 13:20:19.741024 27801 net.cpp:91] Creating Layer conv2
I0403 13:20:19.741044 27801 net.cpp:425] conv2 <- pool1
I0403 13:20:19.741063 27801 net.cpp:399] conv2 -> conv2
I0403 13:20:19.756479 27801 net.cpp:141] Setting up conv2
I0403 13:20:19.756530 27801 net.cpp:148] Top shape: 100 256 27 27 (18662400)
I0403 13:20:19.756548 27801 net.cpp:156] Memory required for data: 512959600
I0403 13:20:19.756577 27801 layer_factory.hpp:77] Creating layer relu2
I0403 13:20:19.756599 27801 net.cpp:91] Creating Layer relu2
I0403 13:20:19.756616 27801 net.cpp:425] relu2 <- conv2
I0403 13:20:19.756635 27801 net.cpp:386] relu2 -> conv2 (in-place)
I0403 13:20:19.756927 27801 net.cpp:141] Setting up relu2
I0403 13:20:19.756961 27801 net.cpp:148] Top shape: 100 256 27 27 (18662400)
I0403 13:20:19.756979 27801 net.cpp:156] Memory required for data: 587609200
I0403 13:20:19.756995 27801 layer_factory.hpp:77] Creating layer norm2
I0403 13:20:19.757017 27801 net.cpp:91] Creating Layer norm2
I0403 13:20:19.757038 27801 net.cpp:425] norm2 <- conv2
I0403 13:20:19.757060 27801 net.cpp:399] norm2 -> norm2
I0403 13:20:19.757272 27801 net.cpp:141] Setting up norm2
I0403 13:20:19.757300 27801 net.cpp:148] Top shape: 100 256 27 27 (18662400)
I0403 13:20:19.757316 27801 net.cpp:156] Memory required for data: 662258800
I0403 13:20:19.757331 27801 layer_factory.hpp:77] Creating layer pool2
I0403 13:20:19.757354 27801 net.cpp:91] Creating Layer pool2
I0403 13:20:19.757370 27801 net.cpp:425] pool2 <- norm2
I0403 13:20:19.757390 27801 net.cpp:399] pool2 -> pool2
I0403 13:20:19.757447 27801 net.cpp:141] Setting up pool2
I0403 13:20:19.757472 27801 net.cpp:148] Top shape: 100 256 13 13 (4326400)
I0403 13:20:19.757486 27801 net.cpp:156] Memory required for data: 679564400
I0403 13:20:19.757503 27801 layer_factory.hpp:77] Creating layer conv3
I0403 13:20:19.757527 27801 net.cpp:91] Creating Layer conv3
I0403 13:20:19.757545 27801 net.cpp:425] conv3 <- pool2
I0403 13:20:19.757568 27801 net.cpp:399] conv3 -> conv3
I0403 13:20:19.797273 27801 net.cpp:141] Setting up conv3
I0403 13:20:19.797327 27801 net.cpp:148] Top shape: 100 384 13 13 (6489600)
I0403 13:20:19.797345 27801 net.cpp:156] Memory required for data: 705522800
I0403 13:20:19.797372 27801 layer_factory.hpp:77] Creating layer relu3
I0403 13:20:19.797397 27801 net.cpp:91] Creating Layer relu3
I0403 13:20:19.797417 27801 net.cpp:425] relu3 <- conv3
I0403 13:20:19.797438 27801 net.cpp:386] relu3 -> conv3 (in-place)
I0403 13:20:19.797746 27801 net.cpp:141] Setting up relu3
I0403 13:20:19.797775 27801 net.cpp:148] Top shape: 100 384 13 13 (6489600)
I0403 13:20:19.797791 27801 net.cpp:156] Memory required for data: 731481200
I0403 13:20:19.797806 27801 layer_factory.hpp:77] Creating layer conv4
I0403 13:20:19.797834 27801 net.cpp:91] Creating Layer conv4
I0403 13:20:19.797852 27801 net.cpp:425] conv4 <- conv3
I0403 13:20:19.797873 27801 net.cpp:399] conv4 -> conv4
I0403 13:20:19.828403 27801 net.cpp:141] Setting up conv4
I0403 13:20:19.828464 27801 net.cpp:148] Top shape: 100 384 13 13 (6489600)
I0403 13:20:19.828516 27801 net.cpp:156] Memory required for data: 757439600
I0403 13:20:19.828539 27801 layer_factory.hpp:77] Creating layer relu4
I0403 13:20:19.828564 27801 net.cpp:91] Creating Layer relu4
I0403 13:20:19.828584 27801 net.cpp:425] relu4 <- conv4
I0403 13:20:19.828604 27801 net.cpp:386] relu4 -> conv4 (in-place)
I0403 13:20:19.828899 27801 net.cpp:141] Setting up relu4
I0403 13:20:19.828927 27801 net.cpp:148] Top shape: 100 384 13 13 (6489600)
I0403 13:20:19.828944 27801 net.cpp:156] Memory required for data: 783398000
I0403 13:20:19.828960 27801 layer_factory.hpp:77] Creating layer conv5
I0403 13:20:19.828986 27801 net.cpp:91] Creating Layer conv5
I0403 13:20:19.829005 27801 net.cpp:425] conv5 <- conv4
I0403 13:20:19.829027 27801 net.cpp:399] conv5 -> conv5
I0403 13:20:19.850172 27801 net.cpp:141] Setting up conv5
I0403 13:20:19.850225 27801 net.cpp:148] Top shape: 100 256 13 13 (4326400)
I0403 13:20:19.850244 27801 net.cpp:156] Memory required for data: 800703600
I0403 13:20:19.850278 27801 layer_factory.hpp:77] Creating layer relu5
I0403 13:20:19.850302 27801 net.cpp:91] Creating Layer relu5
I0403 13:20:19.850320 27801 net.cpp:425] relu5 <- conv5
I0403 13:20:19.850339 27801 net.cpp:386] relu5 -> conv5 (in-place)
I0403 13:20:19.850630 27801 net.cpp:141] Setting up relu5
I0403 13:20:19.850661 27801 net.cpp:148] Top shape: 100 256 13 13 (4326400)
I0403 13:20:19.850677 27801 net.cpp:156] Memory required for data: 818009200
I0403 13:20:19.850693 27801 layer_factory.hpp:77] Creating layer pool5
I0403 13:20:19.850719 27801 net.cpp:91] Creating Layer pool5
I0403 13:20:19.850738 27801 net.cpp:425] pool5 <- conv5
I0403 13:20:19.850757 27801 net.cpp:399] pool5 -> pool5
I0403 13:20:19.850824 27801 net.cpp:141] Setting up pool5
I0403 13:20:19.850850 27801 net.cpp:148] Top shape: 100 256 6 6 (921600)
I0403 13:20:19.850867 27801 net.cpp:156] Memory required for data: 821695600
I0403 13:20:19.850883 27801 layer_factory.hpp:77] Creating layer fc6
I0403 13:20:19.850913 27801 net.cpp:91] Creating Layer fc6
I0403 13:20:19.850932 27801 net.cpp:425] fc6 <- pool5
I0403 13:20:19.850955 27801 net.cpp:399] fc6 -> fc6
I0403 13:20:21.421700 27801 net.cpp:141] Setting up fc6
I0403 13:20:21.421778 27801 net.cpp:148] Top shape: 100 4096 (409600)
I0403 13:20:21.421794 27801 net.cpp:156] Memory required for data: 823334000
I0403 13:20:21.421816 27801 layer_factory.hpp:77] Creating layer relu6
I0403 13:20:21.421839 27801 net.cpp:91] Creating Layer relu6
I0403 13:20:21.421857 27801 net.cpp:425] relu6 <- fc6
I0403 13:20:21.421880 27801 net.cpp:386] relu6 -> fc6 (in-place)
I0403 13:20:21.422112 27801 net.cpp:141] Setting up relu6
I0403 13:20:21.422138 27801 net.cpp:148] Top shape: 100 4096 (409600)
I0403 13:20:21.422153 27801 net.cpp:156] Memory required for data: 824972400
I0403 13:20:21.422168 27801 layer_factory.hpp:77] Creating layer drop6
I0403 13:20:21.422193 27801 net.cpp:91] Creating Layer drop6
I0403 13:20:21.422209 27801 net.cpp:425] drop6 <- fc6
I0403 13:20:21.422227 27801 net.cpp:386] drop6 -> fc6 (in-place)
I0403 13:20:21.422287 27801 net.cpp:141] Setting up drop6
I0403 13:20:21.422312 27801 net.cpp:148] Top shape: 100 4096 (409600)
I0403 13:20:21.422327 27801 net.cpp:156] Memory required for data: 826610800
I0403 13:20:21.422343 27801 layer_factory.hpp:77] Creating layer fc7
I0403 13:20:21.422361 27801 net.cpp:91] Creating Layer fc7
I0403 13:20:21.422380 27801 net.cpp:425] fc7 <- fc6
I0403 13:20:21.422399 27801 net.cpp:399] fc7 -> fc7
I0403 13:20:22.111380 27801 net.cpp:141] Setting up fc7
I0403 13:20:22.111460 27801 net.cpp:148] Top shape: 100 4096 (409600)
I0403 13:20:22.111477 27801 net.cpp:156] Memory required for data: 828249200
I0403 13:20:22.111498 27801 layer_factory.hpp:77] Creating layer relu7
I0403 13:20:22.111524 27801 net.cpp:91] Creating Layer relu7
I0403 13:20:22.111543 27801 net.cpp:425] relu7 <- fc7
I0403 13:20:22.111564 27801 net.cpp:386] relu7 -> fc7 (in-place)
I0403 13:20:22.111970 27801 net.cpp:141] Setting up relu7
I0403 13:20:22.111997 27801 net.cpp:148] Top shape: 100 4096 (409600)
I0403 13:20:22.112048 27801 net.cpp:156] Memory required for data: 829887600
I0403 13:20:22.112064 27801 layer_factory.hpp:77] Creating layer drop7
I0403 13:20:22.112087 27801 net.cpp:91] Creating Layer drop7
I0403 13:20:22.112105 27801 net.cpp:425] drop7 <- fc7
I0403 13:20:22.112123 27801 net.cpp:386] drop7 -> fc7 (in-place)
I0403 13:20:22.112169 27801 net.cpp:141] Setting up drop7
I0403 13:20:22.112195 27801 net.cpp:148] Top shape: 100 4096 (409600)
I0403 13:20:22.112210 27801 net.cpp:156] Memory required for data: 831526000
I0403 13:20:22.112224 27801 layer_factory.hpp:77] Creating layer fc8_plantvillage
I0403 13:20:22.112244 27801 net.cpp:91] Creating Layer fc8_plantvillage
I0403 13:20:22.112265 27801 net.cpp:425] fc8_plantvillage <- fc7
I0403 13:20:22.112287 27801 net.cpp:399] fc8_plantvillage -> fc8_plantvillage
I0403 13:20:22.119027 27801 net.cpp:141] Setting up fc8_plantvillage
I0403 13:20:22.119060 27801 net.cpp:148] Top shape: 100 38 (3800)
I0403 13:20:22.119076 27801 net.cpp:156] Memory required for data: 831541200
I0403 13:20:22.119096 27801 layer_factory.hpp:77] Creating layer fc8_plantvillage_fc8_plantvillage_0_split
I0403 13:20:22.119115 27801 net.cpp:91] Creating Layer fc8_plantvillage_fc8_plantvillage_0_split
I0403 13:20:22.119132 27801 net.cpp:425] fc8_plantvillage_fc8_plantvillage_0_split <- fc8_plantvillage
I0403 13:20:22.119148 27801 net.cpp:399] fc8_plantvillage_fc8_plantvillage_0_split -> fc8_plantvillage_fc8_plantvillage_0_split_0
I0403 13:20:22.119169 27801 net.cpp:399] fc8_plantvillage_fc8_plantvillage_0_split -> fc8_plantvillage_fc8_plantvillage_0_split_1
I0403 13:20:22.119190 27801 net.cpp:399] fc8_plantvillage_fc8_plantvillage_0_split -> fc8_plantvillage_fc8_plantvillage_0_split_2
I0403 13:20:22.119273 27801 net.cpp:141] Setting up fc8_plantvillage_fc8_plantvillage_0_split
I0403 13:20:22.119298 27801 net.cpp:148] Top shape: 100 38 (3800)
I0403 13:20:22.119316 27801 net.cpp:148] Top shape: 100 38 (3800)
I0403 13:20:22.119331 27801 net.cpp:148] Top shape: 100 38 (3800)
I0403 13:20:22.119345 27801 net.cpp:156] Memory required for data: 831586800
I0403 13:20:22.119359 27801 layer_factory.hpp:77] Creating layer prob
I0403 13:20:22.119379 27801 net.cpp:91] Creating Layer prob
I0403 13:20:22.119395 27801 net.cpp:425] prob <- fc8_plantvillage_fc8_plantvillage_0_split_0
I0403 13:20:22.119413 27801 net.cpp:399] prob -> prob
I0403 13:20:22.119639 27801 net.cpp:141] Setting up prob
I0403 13:20:22.119666 27801 net.cpp:148] Top shape: 100 38 (3800)
I0403 13:20:22.119681 27801 net.cpp:156] Memory required for data: 831602000
I0403 13:20:22.119696 27801 layer_factory.hpp:77] Creating layer hdf5out
I0403 13:20:22.119719 27801 net.cpp:91] Creating Layer hdf5out
I0403 13:20:22.119736 27801 net.cpp:425] hdf5out <- prob
I0403 13:20:22.119752 27801 net.cpp:425] hdf5out <- label_data_1_split_0
I0403 13:20:22.132594 27801 net.cpp:141] Setting up hdf5out
…
