…
I0403 13:08:21.479799 27456 net.cpp:313] The NetState phase (1) differed from the phase (0) specified by a rule in layer data
I0403 13:08:21.480114 27456 net.cpp:49] Initializing net from parameters: 
state {
  phase: TEST
}
layer {
  name: "data"
  type: "Data"
  top: "data"
  top: "label"
  include {
    phase: TEST
  }
  transform_param {
    crop_size: 227
    mean_file: "/home/mohanty/data/final_dataset/lmdb/color-60-40/mean.binaryproto"
  }
  data_param {
    source: "/home/mohanty/data/final_dataset/lmdb/color-60-40/test_db"
    batch_size: 100
    backend: LMDB
  }
}
layer {
  name: "conv1"
  type: "Convolution"
  bottom: "data"
  top: "conv1"
  param {
    lr_mult: 1
    decay_mult: 1
  }
  param {
    lr_mult: 2
    decay_mult: 0
  }
  convolution_param {
    num_output: 96
    kernel_size: 11
    stride: 4
    weight_filler {
      type: "gaussian"
      std: 0.01
    }
    bias_filler {
      type: "constant"
      value: 0
    }
  }
}
layer {
  name: "relu1"
  type: "ReLU"
  bottom: "conv1"
  top: "conv1"
}
layer {
  name: "norm1"
  type: "LRN"
  bottom: "conv1"
  top: "norm1"
  lrn_param {
    local_size: 5
    alpha: 0.0001
    beta: 0.75
  }
}
layer {
  name: "pool1"
  type: "Pooling"
  bottom: "norm1"
  top: "pool1"
  pooling_param {
    pool: MAX
    kernel_size: 3
    stride: 2
  }
}
layer {
  name: "conv2"
  type: "Convolution"
  bottom: "pool1"
  top: "conv2"
  param {
    lr_mult: 1
    decay_mult: 1
  }
  param {
    lr_mult: 2
    decay_mult: 0
  }
  convolution_param {
    num_output: 256
    pad: 2
    kernel_size: 5
    group: 2
    weight_filler {
      type: "gaussian"
      std: 0.01
    }
    bias_filler {
      type: "constant"
      value: 0.1
    }
  }
}
layer {
  name: "relu2"
  type: "ReLU"
  bottom: "conv2"
  top: "conv2"
}
layer {
  name: "norm2"
  type: "LRN"
  bottom: "conv2"
  top: "norm2"
  lrn_param {
    local_size: 5
    alpha: 0.0001
    beta: 0.75
  }
}
layer {
  name: "pool2"
  type: "Pooling"
  bottom: "norm2"
  top: "pool2"
  pooling_param {
    pool: MAX
    kernel_size: 3
    stride: 2
  }
}
layer {
  name: "conv3"
  type: "Convolution"
  bottom: "pool2"
  top: "conv3"
  param {
    lr_mult: 1
    decay_mult: 1
  }
  param {
    lr_mult: 2
    decay_mult: 0
  }
  convolution_param {
    num_output: 384
    pad: 1
    kernel_size: 3
    weight_filler {
      type: "gaussian"
      std: 0.01
    }
    bias_filler {
      type: "constant"
      value: 0
    }
  }
}
layer {
  name: "relu3"
  type: "ReLU"
  bottom: "conv3"
  top: "conv3"
}
layer {
  name: "conv4"
  type: "Convolution"
  bottom: "conv3"
  top: "conv4"
  param {
    lr_mult: 1
    decay_mult: 1
  }
  param {
    lr_mult: 2
    decay_mult: 0
  }
  convolution_param {
    num_output: 384
    pad: 1
    kernel_size: 3
    group: 2
    weight_filler {
      type: "gaussian"
      std: 0.01
    }
    bias_filler {
      type: "constant"
      value: 0.1
    }
  }
}
layer {
  name: "relu4"
  type: "ReLU"
  bottom: "conv4"
  top: "conv4"
}
layer {
  name: "conv5"
  type: "Convolution"
  bottom: "conv4"
  top: "conv5"
  param {
    lr_mult: 1
    decay_mult: 1
  }
  param {
    lr_mult: 2
    decay_mult: 0
  }
  convolution_param {
    num_output: 256
    pad: 1
    kernel_size: 3
    group: 2
    weight_filler {
      type: "gaussian"
      std: 0.01
    }
    bias_filler {
      type: "constant"
      value: 0.1
    }
  }
}
layer {
  name: "relu5"
  type: "ReLU"
  bottom: "conv5"
  top: "conv5"
}
layer {
  name: "pool5"
  type: "Pooling"
  bottom: "conv5"
  top: "pool5"
  pooling_param {
    pool: MAX
    kernel_size: 3
    stride: 2
  }
}
layer {
  name: "fc6"
  type: "InnerProduct"
  bottom: "pool5"
  top: "fc6"
  param {
    lr_mult: 1
    decay_mult: 1
  }
  param {
    lr_mult: 2
    decay_mult: 0
  }
  inner_product_param {
    num_output: 4096
    weight_filler {
      type: "gaussian"
      std: 0.005
    }
    bias_filler {
      type: "constant"
      value: 0.1
    }
  }
}
layer {
  name: "relu6"
  type: "ReLU"
  bottom: "fc6"
  top: "fc6"
}
layer {
  name: "drop6"
  type: "Dropout"
  bottom: "fc6"
  top: "fc6"
  dropout_param {
    dropout_ratio: 0.5
  }
}
layer {
  name: "fc7"
  type: "InnerProduct"
  bottom: "fc6"
  top: "fc7"
  param {
    lr_mult: 1
    decay_mult: 1
  }
  param {
    lr_mult: 2
    decay_mult: 0
  }
  inner_product_param {
    num_output: 4096
    weight_filler {
      type: "gaussian"
      std: 0.005
    }
    bias_filler {
      type: "constant"
      value: 0.1
    }
  }
}
layer {
  name: "relu7"
  type: "ReLU"
  bottom: "fc7"
  top: "fc7"
}
layer {
  name: "drop7"
  type: "Dropout"
  bottom: "fc7"
  top: "fc7"
  dropout_param {
    dropout_ratio: 0.5
  }
}
layer {
  name: "fc8_plantvillage"
  type: "InnerProduct"
  bottom: "fc7"
  top: "fc8_plantvillage"
  param {
    lr_mult: 1
    decay_mult: 1
  }
  param {
    lr_mult: 2
    decay_mult: 0
  }
  inner_product_param {
    num_output: 38
    weight_filler {
      type: "gaussian"
      std: 0.01
    }
    bias_filler {
      type: "constant"
      value: 0
    }
  }
}
layer {
  name: "prob"
  type: "Softmax"
  bottom: "fc8_plantvillage"
  top: "prob"
  include {
    phase: TEST
  }
}
layer {
  name: "hdf5out"
  type: "HDF5Output"
  bottom: "prob"
  bottom: "label"
  include {
    phase: TEST
  }
  hdf5_output_param {
    file_name: "hdf5_dumps/iter_1950.h5"
  }
}
layer {
  name: "loss"
  type: "SoftmaxWithLoss"
  bottom: "fc8_plantvillage"
  bottom: "label"
  top: "loss"
}
layer {
  name: "accuracy"
  type: "Accuracy"
  bottom: "fc8_plantvillage"
  bottom: "label"
  top: "accuracy"
  include {
    phase: TEST
  }
}
I0403 13:08:21.480692 27456 layer_factory.hpp:77] Creating layer data
I0403 13:08:21.481346 27456 net.cpp:91] Creating Layer data
I0403 13:08:21.481389 27456 net.cpp:399] data -> data
I0403 13:08:21.481443 27456 net.cpp:399] data -> label
I0403 13:08:21.481482 27456 data_transformer.cpp:25] Loading mean file from: /home/mohanty/data/final_dataset/lmdb/color-60-40/mean.binaryproto
I0403 13:08:21.484340 27461 db_lmdb.cpp:38] Opened lmdb /home/mohanty/data/final_dataset/lmdb/color-60-40/test_db
I0403 13:08:21.496052 27456 data_layer.cpp:41] output data size: 100,3,227,227
I0403 13:08:21.629940 27456 net.cpp:141] Setting up data
I0403 13:08:21.630036 27456 net.cpp:148] Top shape: 100 3 227 227 (15458700)
I0403 13:08:21.630059 27456 net.cpp:148] Top shape: 100 (100)
I0403 13:08:21.630076 27456 net.cpp:156] Memory required for data: 61835200
I0403 13:08:21.630105 27456 layer_factory.hpp:77] Creating layer label_data_1_split
I0403 13:08:21.630133 27456 net.cpp:91] Creating Layer label_data_1_split
I0403 13:08:21.630153 27456 net.cpp:425] label_data_1_split <- label
I0403 13:08:21.630185 27456 net.cpp:399] label_data_1_split -> label_data_1_split_0
I0403 13:08:21.630215 27456 net.cpp:399] label_data_1_split -> label_data_1_split_1
I0403 13:08:21.630239 27456 net.cpp:399] label_data_1_split -> label_data_1_split_2
I0403 13:08:21.630309 27456 net.cpp:141] Setting up label_data_1_split
I0403 13:08:21.630336 27456 net.cpp:148] Top shape: 100 (100)
I0403 13:08:21.630353 27456 net.cpp:148] Top shape: 100 (100)
I0403 13:08:21.630376 27456 net.cpp:148] Top shape: 100 (100)
I0403 13:08:21.630393 27456 net.cpp:156] Memory required for data: 61836400
I0403 13:08:21.630409 27456 layer_factory.hpp:77] Creating layer conv1
I0403 13:08:21.630442 27456 net.cpp:91] Creating Layer conv1
I0403 13:08:21.630461 27456 net.cpp:425] conv1 <- data
I0403 13:08:21.630482 27456 net.cpp:399] conv1 -> conv1
I0403 13:08:21.779286 27456 net.cpp:141] Setting up conv1
I0403 13:08:21.779364 27456 net.cpp:148] Top shape: 100 96 55 55 (29040000)
I0403 13:08:21.779383 27456 net.cpp:156] Memory required for data: 177996400
I0403 13:08:21.779415 27456 layer_factory.hpp:77] Creating layer relu1
I0403 13:08:21.779445 27456 net.cpp:91] Creating Layer relu1
I0403 13:08:21.779465 27456 net.cpp:425] relu1 <- conv1
I0403 13:08:21.779485 27456 net.cpp:386] relu1 -> conv1 (in-place)
I0403 13:08:21.779743 27456 net.cpp:141] Setting up relu1
I0403 13:08:21.779772 27456 net.cpp:148] Top shape: 100 96 55 55 (29040000)
I0403 13:08:21.779788 27456 net.cpp:156] Memory required for data: 294156400
I0403 13:08:21.779839 27456 layer_factory.hpp:77] Creating layer norm1
I0403 13:08:21.779868 27456 net.cpp:91] Creating Layer norm1
I0403 13:08:21.779899 27456 net.cpp:425] norm1 <- conv1
I0403 13:08:21.779919 27456 net.cpp:399] norm1 -> norm1
I0403 13:08:21.780247 27456 net.cpp:141] Setting up norm1
I0403 13:08:21.780280 27456 net.cpp:148] Top shape: 100 96 55 55 (29040000)
I0403 13:08:21.780297 27456 net.cpp:156] Memory required for data: 410316400
I0403 13:08:21.780314 27456 layer_factory.hpp:77] Creating layer pool1
I0403 13:08:21.780339 27456 net.cpp:91] Creating Layer pool1
I0403 13:08:21.780356 27456 net.cpp:425] pool1 <- norm1
I0403 13:08:21.780375 27456 net.cpp:399] pool1 -> pool1
I0403 13:08:21.780442 27456 net.cpp:141] Setting up pool1
I0403 13:08:21.780467 27456 net.cpp:148] Top shape: 100 96 27 27 (6998400)
I0403 13:08:21.780483 27456 net.cpp:156] Memory required for data: 438310000
I0403 13:08:21.780498 27456 layer_factory.hpp:77] Creating layer conv2
I0403 13:08:21.780524 27456 net.cpp:91] Creating Layer conv2
I0403 13:08:21.780542 27456 net.cpp:425] conv2 <- pool1
I0403 13:08:21.780561 27456 net.cpp:399] conv2 -> conv2
I0403 13:08:21.795689 27456 net.cpp:141] Setting up conv2
I0403 13:08:21.795733 27456 net.cpp:148] Top shape: 100 256 27 27 (18662400)
I0403 13:08:21.795753 27456 net.cpp:156] Memory required for data: 512959600
I0403 13:08:21.795778 27456 layer_factory.hpp:77] Creating layer relu2
I0403 13:08:21.795799 27456 net.cpp:91] Creating Layer relu2
I0403 13:08:21.795815 27456 net.cpp:425] relu2 <- conv2
I0403 13:08:21.795833 27456 net.cpp:386] relu2 -> conv2 (in-place)
I0403 13:08:21.796106 27456 net.cpp:141] Setting up relu2
I0403 13:08:21.796134 27456 net.cpp:148] Top shape: 100 256 27 27 (18662400)
I0403 13:08:21.796152 27456 net.cpp:156] Memory required for data: 587609200
I0403 13:08:21.796169 27456 layer_factory.hpp:77] Creating layer norm2
I0403 13:08:21.796190 27456 net.cpp:91] Creating Layer norm2
I0403 13:08:21.796207 27456 net.cpp:425] norm2 <- conv2
I0403 13:08:21.796226 27456 net.cpp:399] norm2 -> norm2
I0403 13:08:21.796427 27456 net.cpp:141] Setting up norm2
I0403 13:08:21.796457 27456 net.cpp:148] Top shape: 100 256 27 27 (18662400)
I0403 13:08:21.796473 27456 net.cpp:156] Memory required for data: 662258800
I0403 13:08:21.796489 27456 layer_factory.hpp:77] Creating layer pool2
I0403 13:08:21.796509 27456 net.cpp:91] Creating Layer pool2
I0403 13:08:21.796525 27456 net.cpp:425] pool2 <- norm2
I0403 13:08:21.796545 27456 net.cpp:399] pool2 -> pool2
I0403 13:08:21.796597 27456 net.cpp:141] Setting up pool2
I0403 13:08:21.796622 27456 net.cpp:148] Top shape: 100 256 13 13 (4326400)
I0403 13:08:21.796638 27456 net.cpp:156] Memory required for data: 679564400
I0403 13:08:21.796660 27456 layer_factory.hpp:77] Creating layer conv3
I0403 13:08:21.796684 27456 net.cpp:91] Creating Layer conv3
I0403 13:08:21.796702 27456 net.cpp:425] conv3 <- pool2
I0403 13:08:21.796722 27456 net.cpp:399] conv3 -> conv3
I0403 13:08:21.836338 27456 net.cpp:141] Setting up conv3
I0403 13:08:21.836427 27456 net.cpp:148] Top shape: 100 384 13 13 (6489600)
I0403 13:08:21.836446 27456 net.cpp:156] Memory required for data: 705522800
I0403 13:08:21.836473 27456 layer_factory.hpp:77] Creating layer relu3
I0403 13:08:21.836498 27456 net.cpp:91] Creating Layer relu3
I0403 13:08:21.836516 27456 net.cpp:425] relu3 <- conv3
I0403 13:08:21.836536 27456 net.cpp:386] relu3 -> conv3 (in-place)
I0403 13:08:21.836818 27456 net.cpp:141] Setting up relu3
I0403 13:08:21.836845 27456 net.cpp:148] Top shape: 100 384 13 13 (6489600)
I0403 13:08:21.836863 27456 net.cpp:156] Memory required for data: 731481200
I0403 13:08:21.836879 27456 layer_factory.hpp:77] Creating layer conv4
I0403 13:08:21.836905 27456 net.cpp:91] Creating Layer conv4
I0403 13:08:21.836922 27456 net.cpp:425] conv4 <- conv3
I0403 13:08:21.836942 27456 net.cpp:399] conv4 -> conv4
I0403 13:08:21.867633 27456 net.cpp:141] Setting up conv4
I0403 13:08:21.867703 27456 net.cpp:148] Top shape: 100 384 13 13 (6489600)
I0403 13:08:21.867753 27456 net.cpp:156] Memory required for data: 757439600
I0403 13:08:21.867776 27456 layer_factory.hpp:77] Creating layer relu4
I0403 13:08:21.867801 27456 net.cpp:91] Creating Layer relu4
I0403 13:08:21.867820 27456 net.cpp:425] relu4 <- conv4
I0403 13:08:21.867841 27456 net.cpp:386] relu4 -> conv4 (in-place)
I0403 13:08:21.868129 27456 net.cpp:141] Setting up relu4
I0403 13:08:21.868158 27456 net.cpp:148] Top shape: 100 384 13 13 (6489600)
I0403 13:08:21.868175 27456 net.cpp:156] Memory required for data: 783398000
I0403 13:08:21.868191 27456 layer_factory.hpp:77] Creating layer conv5
I0403 13:08:21.868218 27456 net.cpp:91] Creating Layer conv5
I0403 13:08:21.868238 27456 net.cpp:425] conv5 <- conv4
I0403 13:08:21.868266 27456 net.cpp:399] conv5 -> conv5
I0403 13:08:21.889422 27456 net.cpp:141] Setting up conv5
I0403 13:08:21.889477 27456 net.cpp:148] Top shape: 100 256 13 13 (4326400)
I0403 13:08:21.889495 27456 net.cpp:156] Memory required for data: 800703600
I0403 13:08:21.889523 27456 layer_factory.hpp:77] Creating layer relu5
I0403 13:08:21.889547 27456 net.cpp:91] Creating Layer relu5
I0403 13:08:21.889581 27456 net.cpp:425] relu5 <- conv5
I0403 13:08:21.889603 27456 net.cpp:386] relu5 -> conv5 (in-place)
I0403 13:08:21.889909 27456 net.cpp:141] Setting up relu5
I0403 13:08:21.889940 27456 net.cpp:148] Top shape: 100 256 13 13 (4326400)
I0403 13:08:21.889956 27456 net.cpp:156] Memory required for data: 818009200
I0403 13:08:21.889973 27456 layer_factory.hpp:77] Creating layer pool5
I0403 13:08:21.889996 27456 net.cpp:91] Creating Layer pool5
I0403 13:08:21.890012 27456 net.cpp:425] pool5 <- conv5
I0403 13:08:21.890034 27456 net.cpp:399] pool5 -> pool5
I0403 13:08:21.890095 27456 net.cpp:141] Setting up pool5
I0403 13:08:21.890123 27456 net.cpp:148] Top shape: 100 256 6 6 (921600)
I0403 13:08:21.890139 27456 net.cpp:156] Memory required for data: 821695600
I0403 13:08:21.890156 27456 layer_factory.hpp:77] Creating layer fc6
I0403 13:08:21.890183 27456 net.cpp:91] Creating Layer fc6
I0403 13:08:21.890202 27456 net.cpp:425] fc6 <- pool5
I0403 13:08:21.890223 27456 net.cpp:399] fc6 -> fc6
I0403 13:08:23.587231 27456 net.cpp:141] Setting up fc6
I0403 13:08:23.587321 27456 net.cpp:148] Top shape: 100 4096 (409600)
I0403 13:08:23.587339 27456 net.cpp:156] Memory required for data: 823334000
I0403 13:08:23.587362 27456 layer_factory.hpp:77] Creating layer relu6
I0403 13:08:23.587388 27456 net.cpp:91] Creating Layer relu6
I0403 13:08:23.587405 27456 net.cpp:425] relu6 <- fc6
I0403 13:08:23.587425 27456 net.cpp:386] relu6 -> fc6 (in-place)
I0403 13:08:23.587658 27456 net.cpp:141] Setting up relu6
I0403 13:08:23.587684 27456 net.cpp:148] Top shape: 100 4096 (409600)
I0403 13:08:23.587700 27456 net.cpp:156] Memory required for data: 824972400
I0403 13:08:23.587715 27456 layer_factory.hpp:77] Creating layer drop6
I0403 13:08:23.587735 27456 net.cpp:91] Creating Layer drop6
I0403 13:08:23.587750 27456 net.cpp:425] drop6 <- fc6
I0403 13:08:23.587767 27456 net.cpp:386] drop6 -> fc6 (in-place)
I0403 13:08:23.587821 27456 net.cpp:141] Setting up drop6
I0403 13:08:23.587853 27456 net.cpp:148] Top shape: 100 4096 (409600)
I0403 13:08:23.587868 27456 net.cpp:156] Memory required for data: 826610800
I0403 13:08:23.587882 27456 layer_factory.hpp:77] Creating layer fc7
I0403 13:08:23.587909 27456 net.cpp:91] Creating Layer fc7
I0403 13:08:23.587929 27456 net.cpp:425] fc7 <- fc6
I0403 13:08:23.587947 27456 net.cpp:399] fc7 -> fc7
I0403 13:08:25.280625 27456 net.cpp:141] Setting up fc7
I0403 13:08:25.280709 27456 net.cpp:148] Top shape: 100 4096 (409600)
I0403 13:08:25.280726 27456 net.cpp:156] Memory required for data: 828249200
I0403 13:08:25.280750 27456 layer_factory.hpp:77] Creating layer relu7
I0403 13:08:25.280773 27456 net.cpp:91] Creating Layer relu7
I0403 13:08:25.280791 27456 net.cpp:425] relu7 <- fc7
I0403 13:08:25.280812 27456 net.cpp:386] relu7 -> fc7 (in-place)
I0403 13:08:25.281198 27456 net.cpp:141] Setting up relu7
I0403 13:08:25.281229 27456 net.cpp:148] Top shape: 100 4096 (409600)
I0403 13:08:25.281277 27456 net.cpp:156] Memory required for data: 829887600
I0403 13:08:25.281301 27456 layer_factory.hpp:77] Creating layer drop7
I0403 13:08:25.281322 27456 net.cpp:91] Creating Layer drop7
I0403 13:08:25.281337 27456 net.cpp:425] drop7 <- fc7
I0403 13:08:25.281355 27456 net.cpp:386] drop7 -> fc7 (in-place)
I0403 13:08:25.281401 27456 net.cpp:141] Setting up drop7
I0403 13:08:25.281424 27456 net.cpp:148] Top shape: 100 4096 (409600)
I0403 13:08:25.281440 27456 net.cpp:156] Memory required for data: 831526000
I0403 13:08:25.281453 27456 layer_factory.hpp:77] Creating layer fc8_plantvillage
I0403 13:08:25.281476 27456 net.cpp:91] Creating Layer fc8_plantvillage
I0403 13:08:25.281492 27456 net.cpp:425] fc8_plantvillage <- fc7
I0403 13:08:25.281512 27456 net.cpp:399] fc8_plantvillage -> fc8_plantvillage
I0403 13:08:25.288221 27456 net.cpp:141] Setting up fc8_plantvillage
I0403 13:08:25.288251 27456 net.cpp:148] Top shape: 100 38 (3800)
I0403 13:08:25.288267 27456 net.cpp:156] Memory required for data: 831541200
I0403 13:08:25.288292 27456 layer_factory.hpp:77] Creating layer fc8_plantvillage_fc8_plantvillage_0_split
I0403 13:08:25.288313 27456 net.cpp:91] Creating Layer fc8_plantvillage_fc8_plantvillage_0_split
I0403 13:08:25.288329 27456 net.cpp:425] fc8_plantvillage_fc8_plantvillage_0_split <- fc8_plantvillage
I0403 13:08:25.288350 27456 net.cpp:399] fc8_plantvillage_fc8_plantvillage_0_split -> fc8_plantvillage_fc8_plantvillage_0_split_0
I0403 13:08:25.288372 27456 net.cpp:399] fc8_plantvillage_fc8_plantvillage_0_split -> fc8_plantvillage_fc8_plantvillage_0_split_1
I0403 13:08:25.288391 27456 net.cpp:399] fc8_plantvillage_fc8_plantvillage_0_split -> fc8_plantvillage_fc8_plantvillage_0_split_2
I0403 13:08:25.288470 27456 net.cpp:141] Setting up fc8_plantvillage_fc8_plantvillage_0_split
I0403 13:08:25.288493 27456 net.cpp:148] Top shape: 100 38 (3800)
I0403 13:08:25.288511 27456 net.cpp:148] Top shape: 100 38 (3800)
I0403 13:08:25.288527 27456 net.cpp:148] Top shape: 100 38 (3800)
I0403 13:08:25.288540 27456 net.cpp:156] Memory required for data: 831586800
I0403 13:08:25.288555 27456 layer_factory.hpp:77] Creating layer prob
I0403 13:08:25.288578 27456 net.cpp:91] Creating Layer prob
I0403 13:08:25.288594 27456 net.cpp:425] prob <- fc8_plantvillage_fc8_plantvillage_0_split_0
I0403 13:08:25.288614 27456 net.cpp:399] prob -> prob
I0403 13:08:25.288847 27456 net.cpp:141] Setting up prob
I0403 13:08:25.288877 27456 net.cpp:148] Top shape: 100 38 (3800)
I0403 13:08:25.288893 27456 net.cpp:156] Memory required for data: 831602000
I0403 13:08:25.288908 27456 layer_factory.hpp:77] Creating layer hdf5out
I0403 13:08:25.288928 27456 net.cpp:91] Creating Layer hdf5out
I0403 13:08:25.288944 27456 net.cpp:425] hdf5out <- prob
I0403 13:08:25.288960 27456 net.cpp:425] hdf5out <- label_data_1_split_0
I0403 13:08:25.298741 27456 net.cpp:141] Setting up hdf5out
…
