…
I0403 13:05:59.329748 27399 net.cpp:313] The NetState phase (1) differed from the phase (0) specified by a rule in layer data
I0403 13:05:59.330063 27399 net.cpp:49] Initializing net from parameters: 
state {
  phase: TEST
}
layer {
  name: "data"
  type: "Data"
  top: "data"
  top: "label"
  include {
    phase: TEST
  }
  transform_param {
    crop_size: 227
    mean_file: "/home/mohanty/data/final_dataset/lmdb/color-60-40/mean.binaryproto"
  }
  data_param {
    source: "/home/mohanty/data/final_dataset/lmdb/color-60-40/test_db"
    batch_size: 100
    backend: LMDB
  }
}
layer {
  name: "conv1"
  type: "Convolution"
  bottom: "data"
  top: "conv1"
  param {
    lr_mult: 1
    decay_mult: 1
  }
  param {
    lr_mult: 2
    decay_mult: 0
  }
  convolution_param {
    num_output: 96
    kernel_size: 11
    stride: 4
    weight_filler {
      type: "gaussian"
      std: 0.01
    }
    bias_filler {
      type: "constant"
      value: 0
    }
  }
}
layer {
  name: "relu1"
  type: "ReLU"
  bottom: "conv1"
  top: "conv1"
}
layer {
  name: "norm1"
  type: "LRN"
  bottom: "conv1"
  top: "norm1"
  lrn_param {
    local_size: 5
    alpha: 0.0001
    beta: 0.75
  }
}
layer {
  name: "pool1"
  type: "Pooling"
  bottom: "norm1"
  top: "pool1"
  pooling_param {
    pool: MAX
    kernel_size: 3
    stride: 2
  }
}
layer {
  name: "conv2"
  type: "Convolution"
  bottom: "pool1"
  top: "conv2"
  param {
    lr_mult: 1
    decay_mult: 1
  }
  param {
    lr_mult: 2
    decay_mult: 0
  }
  convolution_param {
    num_output: 256
    pad: 2
    kernel_size: 5
    group: 2
    weight_filler {
      type: "gaussian"
      std: 0.01
    }
    bias_filler {
      type: "constant"
      value: 0.1
    }
  }
}
layer {
  name: "relu2"
  type: "ReLU"
  bottom: "conv2"
  top: "conv2"
}
layer {
  name: "norm2"
  type: "LRN"
  bottom: "conv2"
  top: "norm2"
  lrn_param {
    local_size: 5
    alpha: 0.0001
    beta: 0.75
  }
}
layer {
  name: "pool2"
  type: "Pooling"
  bottom: "norm2"
  top: "pool2"
  pooling_param {
    pool: MAX
    kernel_size: 3
    stride: 2
  }
}
layer {
  name: "conv3"
  type: "Convolution"
  bottom: "pool2"
  top: "conv3"
  param {
    lr_mult: 1
    decay_mult: 1
  }
  param {
    lr_mult: 2
    decay_mult: 0
  }
  convolution_param {
    num_output: 384
    pad: 1
    kernel_size: 3
    weight_filler {
      type: "gaussian"
      std: 0.01
    }
    bias_filler {
      type: "constant"
      value: 0
    }
  }
}
layer {
  name: "relu3"
  type: "ReLU"
  bottom: "conv3"
  top: "conv3"
}
layer {
  name: "conv4"
  type: "Convolution"
  bottom: "conv3"
  top: "conv4"
  param {
    lr_mult: 1
    decay_mult: 1
  }
  param {
    lr_mult: 2
    decay_mult: 0
  }
  convolution_param {
    num_output: 384
    pad: 1
    kernel_size: 3
    group: 2
    weight_filler {
      type: "gaussian"
      std: 0.01
    }
    bias_filler {
      type: "constant"
      value: 0.1
    }
  }
}
layer {
  name: "relu4"
  type: "ReLU"
  bottom: "conv4"
  top: "conv4"
}
layer {
  name: "conv5"
  type: "Convolution"
  bottom: "conv4"
  top: "conv5"
  param {
    lr_mult: 1
    decay_mult: 1
  }
  param {
    lr_mult: 2
    decay_mult: 0
  }
  convolution_param {
    num_output: 256
    pad: 1
    kernel_size: 3
    group: 2
    weight_filler {
      type: "gaussian"
      std: 0.01
    }
    bias_filler {
      type: "constant"
      value: 0.1
    }
  }
}
layer {
  name: "relu5"
  type: "ReLU"
  bottom: "conv5"
  top: "conv5"
}
layer {
  name: "pool5"
  type: "Pooling"
  bottom: "conv5"
  top: "pool5"
  pooling_param {
    pool: MAX
    kernel_size: 3
    stride: 2
  }
}
layer {
  name: "fc6"
  type: "InnerProduct"
  bottom: "pool5"
  top: "fc6"
  param {
    lr_mult: 1
    decay_mult: 1
  }
  param {
    lr_mult: 2
    decay_mult: 0
  }
  inner_product_param {
    num_output: 4096
    weight_filler {
      type: "gaussian"
      std: 0.005
    }
    bias_filler {
      type: "constant"
      value: 0.1
    }
  }
}
layer {
  name: "relu6"
  type: "ReLU"
  bottom: "fc6"
  top: "fc6"
}
layer {
  name: "drop6"
  type: "Dropout"
  bottom: "fc6"
  top: "fc6"
  dropout_param {
    dropout_ratio: 0.5
  }
}
layer {
  name: "fc7"
  type: "InnerProduct"
  bottom: "fc6"
  top: "fc7"
  param {
    lr_mult: 1
    decay_mult: 1
  }
  param {
    lr_mult: 2
    decay_mult: 0
  }
  inner_product_param {
    num_output: 4096
    weight_filler {
      type: "gaussian"
      std: 0.005
    }
    bias_filler {
      type: "constant"
      value: 0.1
    }
  }
}
layer {
  name: "relu7"
  type: "ReLU"
  bottom: "fc7"
  top: "fc7"
}
layer {
  name: "drop7"
  type: "Dropout"
  bottom: "fc7"
  top: "fc7"
  dropout_param {
    dropout_ratio: 0.5
  }
}
layer {
  name: "fc8_plantvillage"
  type: "InnerProduct"
  bottom: "fc7"
  top: "fc8_plantvillage"
  param {
    lr_mult: 1
    decay_mult: 1
  }
  param {
    lr_mult: 2
    decay_mult: 0
  }
  inner_product_param {
    num_output: 38
    weight_filler {
      type: "gaussian"
      std: 0.01
    }
    bias_filler {
      type: "constant"
      value: 0
    }
  }
}
layer {
  name: "prob"
  type: "Softmax"
  bottom: "fc8_plantvillage"
  top: "prob"
  include {
    phase: TEST
  }
}
layer {
  name: "hdf5out"
  type: "HDF5Output"
  bottom: "prob"
  bottom: "label"
  include {
    phase: TEST
  }
  hdf5_output_param {
    file_name: "hdf5_dumps/iter_975.h5"
  }
}
layer {
  name: "loss"
  type: "SoftmaxWithLoss"
  bottom: "fc8_plantvillage"
  bottom: "label"
  top: "loss"
}
layer {
  name: "accuracy"
  type: "Accuracy"
  bottom: "fc8_plantvillage"
  bottom: "label"
  top: "accuracy"
  include {
    phase: TEST
  }
}
I0403 13:05:59.330667 27399 layer_factory.hpp:77] Creating layer data
I0403 13:05:59.331331 27399 net.cpp:91] Creating Layer data
I0403 13:05:59.331362 27399 net.cpp:399] data -> data
I0403 13:05:59.331414 27399 net.cpp:399] data -> label
I0403 13:05:59.331452 27399 data_transformer.cpp:25] Loading mean file from: /home/mohanty/data/final_dataset/lmdb/color-60-40/mean.binaryproto
I0403 13:05:59.333820 27402 db_lmdb.cpp:38] Opened lmdb /home/mohanty/data/final_dataset/lmdb/color-60-40/test_db
I0403 13:05:59.346078 27399 data_layer.cpp:41] output data size: 100,3,227,227
I0403 13:05:59.478869 27399 net.cpp:141] Setting up data
I0403 13:05:59.478965 27399 net.cpp:148] Top shape: 100 3 227 227 (15458700)
I0403 13:05:59.478989 27399 net.cpp:148] Top shape: 100 (100)
I0403 13:05:59.479004 27399 net.cpp:156] Memory required for data: 61835200
I0403 13:05:59.479045 27399 layer_factory.hpp:77] Creating layer label_data_1_split
I0403 13:05:59.479074 27399 net.cpp:91] Creating Layer label_data_1_split
I0403 13:05:59.479094 27399 net.cpp:425] label_data_1_split <- label
I0403 13:05:59.479127 27399 net.cpp:399] label_data_1_split -> label_data_1_split_0
I0403 13:05:59.479156 27399 net.cpp:399] label_data_1_split -> label_data_1_split_1
I0403 13:05:59.479177 27399 net.cpp:399] label_data_1_split -> label_data_1_split_2
I0403 13:05:59.479244 27399 net.cpp:141] Setting up label_data_1_split
I0403 13:05:59.479269 27399 net.cpp:148] Top shape: 100 (100)
I0403 13:05:59.479292 27399 net.cpp:148] Top shape: 100 (100)
I0403 13:05:59.479310 27399 net.cpp:148] Top shape: 100 (100)
I0403 13:05:59.479326 27399 net.cpp:156] Memory required for data: 61836400
I0403 13:05:59.479342 27399 layer_factory.hpp:77] Creating layer conv1
I0403 13:05:59.479387 27399 net.cpp:91] Creating Layer conv1
I0403 13:05:59.479406 27399 net.cpp:425] conv1 <- data
I0403 13:05:59.479425 27399 net.cpp:399] conv1 -> conv1
I0403 13:05:59.627876 27399 net.cpp:141] Setting up conv1
I0403 13:05:59.627944 27399 net.cpp:148] Top shape: 100 96 55 55 (29040000)
I0403 13:05:59.627964 27399 net.cpp:156] Memory required for data: 177996400
I0403 13:05:59.627996 27399 layer_factory.hpp:77] Creating layer relu1
I0403 13:05:59.628026 27399 net.cpp:91] Creating Layer relu1
I0403 13:05:59.628043 27399 net.cpp:425] relu1 <- conv1
I0403 13:05:59.628063 27399 net.cpp:386] relu1 -> conv1 (in-place)
I0403 13:05:59.628340 27399 net.cpp:141] Setting up relu1
I0403 13:05:59.628370 27399 net.cpp:148] Top shape: 100 96 55 55 (29040000)
I0403 13:05:59.628384 27399 net.cpp:156] Memory required for data: 294156400
I0403 13:05:59.628432 27399 layer_factory.hpp:77] Creating layer norm1
I0403 13:05:59.628464 27399 net.cpp:91] Creating Layer norm1
I0403 13:05:59.628484 27399 net.cpp:425] norm1 <- conv1
I0403 13:05:59.628502 27399 net.cpp:399] norm1 -> norm1
I0403 13:05:59.628834 27399 net.cpp:141] Setting up norm1
I0403 13:05:59.628876 27399 net.cpp:148] Top shape: 100 96 55 55 (29040000)
I0403 13:05:59.628895 27399 net.cpp:156] Memory required for data: 410316400
I0403 13:05:59.628911 27399 layer_factory.hpp:77] Creating layer pool1
I0403 13:05:59.628938 27399 net.cpp:91] Creating Layer pool1
I0403 13:05:59.628957 27399 net.cpp:425] pool1 <- norm1
I0403 13:05:59.628976 27399 net.cpp:399] pool1 -> pool1
I0403 13:05:59.629050 27399 net.cpp:141] Setting up pool1
I0403 13:05:59.629076 27399 net.cpp:148] Top shape: 100 96 27 27 (6998400)
I0403 13:05:59.629092 27399 net.cpp:156] Memory required for data: 438310000
I0403 13:05:59.629107 27399 layer_factory.hpp:77] Creating layer conv2
I0403 13:05:59.629137 27399 net.cpp:91] Creating Layer conv2
I0403 13:05:59.629156 27399 net.cpp:425] conv2 <- pool1
I0403 13:05:59.629179 27399 net.cpp:399] conv2 -> conv2
I0403 13:05:59.644585 27399 net.cpp:141] Setting up conv2
I0403 13:05:59.644635 27399 net.cpp:148] Top shape: 100 256 27 27 (18662400)
I0403 13:05:59.644657 27399 net.cpp:156] Memory required for data: 512959600
I0403 13:05:59.644683 27399 layer_factory.hpp:77] Creating layer relu2
I0403 13:05:59.644706 27399 net.cpp:91] Creating Layer relu2
I0403 13:05:59.644723 27399 net.cpp:425] relu2 <- conv2
I0403 13:05:59.644742 27399 net.cpp:386] relu2 -> conv2 (in-place)
I0403 13:05:59.645031 27399 net.cpp:141] Setting up relu2
I0403 13:05:59.645063 27399 net.cpp:148] Top shape: 100 256 27 27 (18662400)
I0403 13:05:59.645081 27399 net.cpp:156] Memory required for data: 587609200
I0403 13:05:59.645098 27399 layer_factory.hpp:77] Creating layer norm2
I0403 13:05:59.645122 27399 net.cpp:91] Creating Layer norm2
I0403 13:05:59.645138 27399 net.cpp:425] norm2 <- conv2
I0403 13:05:59.645160 27399 net.cpp:399] norm2 -> norm2
I0403 13:05:59.645371 27399 net.cpp:141] Setting up norm2
I0403 13:05:59.645400 27399 net.cpp:148] Top shape: 100 256 27 27 (18662400)
I0403 13:05:59.645422 27399 net.cpp:156] Memory required for data: 662258800
I0403 13:05:59.645439 27399 layer_factory.hpp:77] Creating layer pool2
I0403 13:05:59.645457 27399 net.cpp:91] Creating Layer pool2
I0403 13:05:59.645473 27399 net.cpp:425] pool2 <- norm2
I0403 13:05:59.645493 27399 net.cpp:399] pool2 -> pool2
I0403 13:05:59.645550 27399 net.cpp:141] Setting up pool2
I0403 13:05:59.645576 27399 net.cpp:148] Top shape: 100 256 13 13 (4326400)
I0403 13:05:59.645591 27399 net.cpp:156] Memory required for data: 679564400
I0403 13:05:59.645606 27399 layer_factory.hpp:77] Creating layer conv3
I0403 13:05:59.645632 27399 net.cpp:91] Creating Layer conv3
I0403 13:05:59.645651 27399 net.cpp:425] conv3 <- pool2
I0403 13:05:59.645673 27399 net.cpp:399] conv3 -> conv3
I0403 13:05:59.684921 27399 net.cpp:141] Setting up conv3
I0403 13:05:59.684996 27399 net.cpp:148] Top shape: 100 384 13 13 (6489600)
I0403 13:05:59.685014 27399 net.cpp:156] Memory required for data: 705522800
I0403 13:05:59.685042 27399 layer_factory.hpp:77] Creating layer relu3
I0403 13:05:59.685068 27399 net.cpp:91] Creating Layer relu3
I0403 13:05:59.685087 27399 net.cpp:425] relu3 <- conv3
I0403 13:05:59.685107 27399 net.cpp:386] relu3 -> conv3 (in-place)
I0403 13:05:59.685420 27399 net.cpp:141] Setting up relu3
I0403 13:05:59.685448 27399 net.cpp:148] Top shape: 100 384 13 13 (6489600)
I0403 13:05:59.685466 27399 net.cpp:156] Memory required for data: 731481200
I0403 13:05:59.685482 27399 layer_factory.hpp:77] Creating layer conv4
I0403 13:05:59.685515 27399 net.cpp:91] Creating Layer conv4
I0403 13:05:59.685534 27399 net.cpp:425] conv4 <- conv3
I0403 13:05:59.685555 27399 net.cpp:399] conv4 -> conv4
I0403 13:05:59.716008 27399 net.cpp:141] Setting up conv4
I0403 13:05:59.716068 27399 net.cpp:148] Top shape: 100 384 13 13 (6489600)
I0403 13:05:59.716119 27399 net.cpp:156] Memory required for data: 757439600
I0403 13:05:59.716142 27399 layer_factory.hpp:77] Creating layer relu4
I0403 13:05:59.716171 27399 net.cpp:91] Creating Layer relu4
I0403 13:05:59.716190 27399 net.cpp:425] relu4 <- conv4
I0403 13:05:59.716210 27399 net.cpp:386] relu4 -> conv4 (in-place)
I0403 13:05:59.716508 27399 net.cpp:141] Setting up relu4
I0403 13:05:59.716537 27399 net.cpp:148] Top shape: 100 384 13 13 (6489600)
I0403 13:05:59.716554 27399 net.cpp:156] Memory required for data: 783398000
I0403 13:05:59.716572 27399 layer_factory.hpp:77] Creating layer conv5
I0403 13:05:59.716598 27399 net.cpp:91] Creating Layer conv5
I0403 13:05:59.716616 27399 net.cpp:425] conv5 <- conv4
I0403 13:05:59.716639 27399 net.cpp:399] conv5 -> conv5
I0403 13:05:59.737795 27399 net.cpp:141] Setting up conv5
I0403 13:05:59.737850 27399 net.cpp:148] Top shape: 100 256 13 13 (4326400)
I0403 13:05:59.737869 27399 net.cpp:156] Memory required for data: 800703600
I0403 13:05:59.737900 27399 layer_factory.hpp:77] Creating layer relu5
I0403 13:05:59.737922 27399 net.cpp:91] Creating Layer relu5
I0403 13:05:59.737939 27399 net.cpp:425] relu5 <- conv5
I0403 13:05:59.737958 27399 net.cpp:386] relu5 -> conv5 (in-place)
I0403 13:05:59.738258 27399 net.cpp:141] Setting up relu5
I0403 13:05:59.738294 27399 net.cpp:148] Top shape: 100 256 13 13 (4326400)
I0403 13:05:59.738313 27399 net.cpp:156] Memory required for data: 818009200
I0403 13:05:59.738330 27399 layer_factory.hpp:77] Creating layer pool5
I0403 13:05:59.738353 27399 net.cpp:91] Creating Layer pool5
I0403 13:05:59.738370 27399 net.cpp:425] pool5 <- conv5
I0403 13:05:59.738394 27399 net.cpp:399] pool5 -> pool5
I0403 13:05:59.738456 27399 net.cpp:141] Setting up pool5
I0403 13:05:59.738481 27399 net.cpp:148] Top shape: 100 256 6 6 (921600)
I0403 13:05:59.738497 27399 net.cpp:156] Memory required for data: 821695600
I0403 13:05:59.738513 27399 layer_factory.hpp:77] Creating layer fc6
I0403 13:05:59.738544 27399 net.cpp:91] Creating Layer fc6
I0403 13:05:59.738564 27399 net.cpp:425] fc6 <- pool5
I0403 13:05:59.738585 27399 net.cpp:399] fc6 -> fc6
I0403 13:06:01.317826 27399 net.cpp:141] Setting up fc6
I0403 13:06:01.317893 27399 net.cpp:148] Top shape: 100 4096 (409600)
I0403 13:06:01.317910 27399 net.cpp:156] Memory required for data: 823334000
I0403 13:06:01.317932 27399 layer_factory.hpp:77] Creating layer relu6
I0403 13:06:01.317955 27399 net.cpp:91] Creating Layer relu6
I0403 13:06:01.317973 27399 net.cpp:425] relu6 <- fc6
I0403 13:06:01.317996 27399 net.cpp:386] relu6 -> fc6 (in-place)
I0403 13:06:01.318233 27399 net.cpp:141] Setting up relu6
I0403 13:06:01.318260 27399 net.cpp:148] Top shape: 100 4096 (409600)
I0403 13:06:01.318275 27399 net.cpp:156] Memory required for data: 824972400
I0403 13:06:01.318297 27399 layer_factory.hpp:77] Creating layer drop6
I0403 13:06:01.318317 27399 net.cpp:91] Creating Layer drop6
I0403 13:06:01.318333 27399 net.cpp:425] drop6 <- fc6
I0403 13:06:01.318351 27399 net.cpp:386] drop6 -> fc6 (in-place)
I0403 13:06:01.318403 27399 net.cpp:141] Setting up drop6
I0403 13:06:01.318425 27399 net.cpp:148] Top shape: 100 4096 (409600)
I0403 13:06:01.318440 27399 net.cpp:156] Memory required for data: 826610800
I0403 13:06:01.318455 27399 layer_factory.hpp:77] Creating layer fc7
I0403 13:06:01.318477 27399 net.cpp:91] Creating Layer fc7
I0403 13:06:01.318495 27399 net.cpp:425] fc7 <- fc6
I0403 13:06:01.318513 27399 net.cpp:399] fc7 -> fc7
I0403 13:06:02.008352 27399 net.cpp:141] Setting up fc7
I0403 13:06:02.008406 27399 net.cpp:148] Top shape: 100 4096 (409600)
I0403 13:06:02.008424 27399 net.cpp:156] Memory required for data: 828249200
I0403 13:06:02.008446 27399 layer_factory.hpp:77] Creating layer relu7
I0403 13:06:02.008472 27399 net.cpp:91] Creating Layer relu7
I0403 13:06:02.008491 27399 net.cpp:425] relu7 <- fc7
I0403 13:06:02.008512 27399 net.cpp:386] relu7 -> fc7 (in-place)
I0403 13:06:02.008924 27399 net.cpp:141] Setting up relu7
I0403 13:06:02.008951 27399 net.cpp:148] Top shape: 100 4096 (409600)
I0403 13:06:02.009001 27399 net.cpp:156] Memory required for data: 829887600
I0403 13:06:02.009017 27399 layer_factory.hpp:77] Creating layer drop7
I0403 13:06:02.009039 27399 net.cpp:91] Creating Layer drop7
I0403 13:06:02.009055 27399 net.cpp:425] drop7 <- fc7
I0403 13:06:02.009073 27399 net.cpp:386] drop7 -> fc7 (in-place)
I0403 13:06:02.009117 27399 net.cpp:141] Setting up drop7
I0403 13:06:02.009141 27399 net.cpp:148] Top shape: 100 4096 (409600)
I0403 13:06:02.009156 27399 net.cpp:156] Memory required for data: 831526000
I0403 13:06:02.009172 27399 layer_factory.hpp:77] Creating layer fc8_plantvillage
I0403 13:06:02.009191 27399 net.cpp:91] Creating Layer fc8_plantvillage
I0403 13:06:02.009207 27399 net.cpp:425] fc8_plantvillage <- fc7
I0403 13:06:02.009227 27399 net.cpp:399] fc8_plantvillage -> fc8_plantvillage
I0403 13:06:02.016054 27399 net.cpp:141] Setting up fc8_plantvillage
I0403 13:06:02.016085 27399 net.cpp:148] Top shape: 100 38 (3800)
I0403 13:06:02.016101 27399 net.cpp:156] Memory required for data: 831541200
I0403 13:06:02.016121 27399 layer_factory.hpp:77] Creating layer fc8_plantvillage_fc8_plantvillage_0_split
I0403 13:06:02.016139 27399 net.cpp:91] Creating Layer fc8_plantvillage_fc8_plantvillage_0_split
I0403 13:06:02.016155 27399 net.cpp:425] fc8_plantvillage_fc8_plantvillage_0_split <- fc8_plantvillage
I0403 13:06:02.016175 27399 net.cpp:399] fc8_plantvillage_fc8_plantvillage_0_split -> fc8_plantvillage_fc8_plantvillage_0_split_0
I0403 13:06:02.016196 27399 net.cpp:399] fc8_plantvillage_fc8_plantvillage_0_split -> fc8_plantvillage_fc8_plantvillage_0_split_1
I0403 13:06:02.016217 27399 net.cpp:399] fc8_plantvillage_fc8_plantvillage_0_split -> fc8_plantvillage_fc8_plantvillage_0_split_2
I0403 13:06:02.016300 27399 net.cpp:141] Setting up fc8_plantvillage_fc8_plantvillage_0_split
I0403 13:06:02.016325 27399 net.cpp:148] Top shape: 100 38 (3800)
I0403 13:06:02.016342 27399 net.cpp:148] Top shape: 100 38 (3800)
I0403 13:06:02.016369 27399 net.cpp:148] Top shape: 100 38 (3800)
I0403 13:06:02.016383 27399 net.cpp:156] Memory required for data: 831586800
I0403 13:06:02.016398 27399 layer_factory.hpp:77] Creating layer prob
I0403 13:06:02.016418 27399 net.cpp:91] Creating Layer prob
I0403 13:06:02.016434 27399 net.cpp:425] prob <- fc8_plantvillage_fc8_plantvillage_0_split_0
I0403 13:06:02.016453 27399 net.cpp:399] prob -> prob
I0403 13:06:02.016697 27399 net.cpp:141] Setting up prob
I0403 13:06:02.016724 27399 net.cpp:148] Top shape: 100 38 (3800)
I0403 13:06:02.016739 27399 net.cpp:156] Memory required for data: 831602000
I0403 13:06:02.016755 27399 layer_factory.hpp:77] Creating layer hdf5out
I0403 13:06:02.016777 27399 net.cpp:91] Creating Layer hdf5out
I0403 13:06:02.016794 27399 net.cpp:425] hdf5out <- prob
I0403 13:06:02.016813 27399 net.cpp:425] hdf5out <- label_data_1_split_0
I0403 13:06:02.020644 27399 net.cpp:141] Setting up hdf5out
…
