…
I0403 13:25:49.741355 28061 net.cpp:313] The NetState phase (1) differed from the phase (0) specified by a rule in layer data
I0403 13:25:49.741664 28061 net.cpp:49] Initializing net from parameters: 
state {
  phase: TEST
}
layer {
  name: "data"
  type: "Data"
  top: "data"
  top: "label"
  include {
    phase: TEST
  }
  transform_param {
    crop_size: 227
    mean_file: "/home/mohanty/data/final_dataset/lmdb/color-60-40/mean.binaryproto"
  }
  data_param {
    source: "/home/mohanty/data/final_dataset/lmdb/color-60-40/test_db"
    batch_size: 100
    backend: LMDB
  }
}
layer {
  name: "conv1"
  type: "Convolution"
  bottom: "data"
  top: "conv1"
  param {
    lr_mult: 1
    decay_mult: 1
  }
  param {
    lr_mult: 2
    decay_mult: 0
  }
  convolution_param {
    num_output: 96
    kernel_size: 11
    stride: 4
    weight_filler {
      type: "gaussian"
      std: 0.01
    }
    bias_filler {
      type: "constant"
      value: 0
    }
  }
}
layer {
  name: "relu1"
  type: "ReLU"
  bottom: "conv1"
  top: "conv1"
}
layer {
  name: "norm1"
  type: "LRN"
  bottom: "conv1"
  top: "norm1"
  lrn_param {
    local_size: 5
    alpha: 0.0001
    beta: 0.75
  }
}
layer {
  name: "pool1"
  type: "Pooling"
  bottom: "norm1"
  top: "pool1"
  pooling_param {
    pool: MAX
    kernel_size: 3
    stride: 2
  }
}
layer {
  name: "conv2"
  type: "Convolution"
  bottom: "pool1"
  top: "conv2"
  param {
    lr_mult: 1
    decay_mult: 1
  }
  param {
    lr_mult: 2
    decay_mult: 0
  }
  convolution_param {
    num_output: 256
    pad: 2
    kernel_size: 5
    group: 2
    weight_filler {
      type: "gaussian"
      std: 0.01
    }
    bias_filler {
      type: "constant"
      value: 0.1
    }
  }
}
layer {
  name: "relu2"
  type: "ReLU"
  bottom: "conv2"
  top: "conv2"
}
layer {
  name: "norm2"
  type: "LRN"
  bottom: "conv2"
  top: "norm2"
  lrn_param {
    local_size: 5
    alpha: 0.0001
    beta: 0.75
  }
}
layer {
  name: "pool2"
  type: "Pooling"
  bottom: "norm2"
  top: "pool2"
  pooling_param {
    pool: MAX
    kernel_size: 3
    stride: 2
  }
}
layer {
  name: "conv3"
  type: "Convolution"
  bottom: "pool2"
  top: "conv3"
  param {
    lr_mult: 1
    decay_mult: 1
  }
  param {
    lr_mult: 2
    decay_mult: 0
  }
  convolution_param {
    num_output: 384
    pad: 1
    kernel_size: 3
    weight_filler {
      type: "gaussian"
      std: 0.01
    }
    bias_filler {
      type: "constant"
      value: 0
    }
  }
}
layer {
  name: "relu3"
  type: "ReLU"
  bottom: "conv3"
  top: "conv3"
}
layer {
  name: "conv4"
  type: "Convolution"
  bottom: "conv3"
  top: "conv4"
  param {
    lr_mult: 1
    decay_mult: 1
  }
  param {
    lr_mult: 2
    decay_mult: 0
  }
  convolution_param {
    num_output: 384
    pad: 1
    kernel_size: 3
    group: 2
    weight_filler {
      type: "gaussian"
      std: 0.01
    }
    bias_filler {
      type: "constant"
      value: 0.1
    }
  }
}
layer {
  name: "relu4"
  type: "ReLU"
  bottom: "conv4"
  top: "conv4"
}
layer {
  name: "conv5"
  type: "Convolution"
  bottom: "conv4"
  top: "conv5"
  param {
    lr_mult: 1
    decay_mult: 1
  }
  param {
    lr_mult: 2
    decay_mult: 0
  }
  convolution_param {
    num_output: 256
    pad: 1
    kernel_size: 3
    group: 2
    weight_filler {
      type: "gaussian"
      std: 0.01
    }
    bias_filler {
      type: "constant"
      value: 0.1
    }
  }
}
layer {
  name: "relu5"
  type: "ReLU"
  bottom: "conv5"
  top: "conv5"
}
layer {
  name: "pool5"
  type: "Pooling"
  bottom: "conv5"
  top: "pool5"
  pooling_param {
    pool: MAX
    kernel_size: 3
    stride: 2
  }
}
layer {
  name: "fc6"
  type: "InnerProduct"
  bottom: "pool5"
  top: "fc6"
  param {
    lr_mult: 1
    decay_mult: 1
  }
  param {
    lr_mult: 2
    decay_mult: 0
  }
  inner_product_param {
    num_output: 4096
    weight_filler {
      type: "gaussian"
      std: 0.005
    }
    bias_filler {
      type: "constant"
      value: 0.1
    }
  }
}
layer {
  name: "relu6"
  type: "ReLU"
  bottom: "fc6"
  top: "fc6"
}
layer {
  name: "drop6"
  type: "Dropout"
  bottom: "fc6"
  top: "fc6"
  dropout_param {
    dropout_ratio: 0.5
  }
}
layer {
  name: "fc7"
  type: "InnerProduct"
  bottom: "fc6"
  top: "fc7"
  param {
    lr_mult: 1
    decay_mult: 1
  }
  param {
    lr_mult: 2
    decay_mult: 0
  }
  inner_product_param {
    num_output: 4096
    weight_filler {
      type: "gaussian"
      std: 0.005
    }
    bias_filler {
      type: "constant"
      value: 0.1
    }
  }
}
layer {
  name: "relu7"
  type: "ReLU"
  bottom: "fc7"
  top: "fc7"
}
layer {
  name: "drop7"
  type: "Dropout"
  bottom: "fc7"
  top: "fc7"
  dropout_param {
    dropout_ratio: 0.5
  }
}
layer {
  name: "fc8_plantvillage"
  type: "InnerProduct"
  bottom: "fc7"
  top: "fc8_plantvillage"
  param {
    lr_mult: 1
    decay_mult: 1
  }
  param {
    lr_mult: 2
    decay_mult: 0
  }
  inner_product_param {
    num_output: 38
    weight_filler {
      type: "gaussian"
      std: 0.01
    }
    bias_filler {
      type: "constant"
      value: 0
    }
  }
}
layer {
  name: "prob"
  type: "Softmax"
  bottom: "fc8_plantvillage"
  top: "prob"
  include {
    phase: TEST
  }
}
layer {
  name: "hdf5out"
  type: "HDF5Output"
  bottom: "prob"
  bottom: "label"
  include {
    phase: TEST
  }
  hdf5_output_param {
    file_name: "hdf5_dumps/iter_9100.h5"
  }
}
layer {
  name: "loss"
  type: "SoftmaxWithLoss"
  bottom: "fc8_plantvillage"
  bottom: "label"
  top: "loss"
}
layer {
  name: "accuracy"
  type: "Accuracy"
  bottom: "fc8_plantvillage"
  bottom: "label"
  top: "accuracy"
  include {
    phase: TEST
  }
}
I0403 13:25:49.742280 28061 layer_factory.hpp:77] Creating layer data
I0403 13:25:49.742944 28061 net.cpp:91] Creating Layer data
I0403 13:25:49.742980 28061 net.cpp:399] data -> data
I0403 13:25:49.743032 28061 net.cpp:399] data -> label
I0403 13:25:49.743072 28061 data_transformer.cpp:25] Loading mean file from: /home/mohanty/data/final_dataset/lmdb/color-60-40/mean.binaryproto
I0403 13:25:49.745932 28064 db_lmdb.cpp:38] Opened lmdb /home/mohanty/data/final_dataset/lmdb/color-60-40/test_db
I0403 13:25:49.757927 28061 data_layer.cpp:41] output data size: 100,3,227,227
I0403 13:25:49.890578 28061 net.cpp:141] Setting up data
I0403 13:25:49.890676 28061 net.cpp:148] Top shape: 100 3 227 227 (15458700)
I0403 13:25:49.890699 28061 net.cpp:148] Top shape: 100 (100)
I0403 13:25:49.890715 28061 net.cpp:156] Memory required for data: 61835200
I0403 13:25:49.890743 28061 layer_factory.hpp:77] Creating layer label_data_1_split
I0403 13:25:49.890769 28061 net.cpp:91] Creating Layer label_data_1_split
I0403 13:25:49.890787 28061 net.cpp:425] label_data_1_split <- label
I0403 13:25:49.890820 28061 net.cpp:399] label_data_1_split -> label_data_1_split_0
I0403 13:25:49.890847 28061 net.cpp:399] label_data_1_split -> label_data_1_split_1
I0403 13:25:49.890867 28061 net.cpp:399] label_data_1_split -> label_data_1_split_2
I0403 13:25:49.890931 28061 net.cpp:141] Setting up label_data_1_split
I0403 13:25:49.890964 28061 net.cpp:148] Top shape: 100 (100)
I0403 13:25:49.890981 28061 net.cpp:148] Top shape: 100 (100)
I0403 13:25:49.890998 28061 net.cpp:148] Top shape: 100 (100)
I0403 13:25:49.891012 28061 net.cpp:156] Memory required for data: 61836400
I0403 13:25:49.891027 28061 layer_factory.hpp:77] Creating layer conv1
I0403 13:25:49.891059 28061 net.cpp:91] Creating Layer conv1
I0403 13:25:49.891078 28061 net.cpp:425] conv1 <- data
I0403 13:25:49.891098 28061 net.cpp:399] conv1 -> conv1
I0403 13:25:50.040232 28061 net.cpp:141] Setting up conv1
I0403 13:25:50.040323 28061 net.cpp:148] Top shape: 100 96 55 55 (29040000)
I0403 13:25:50.040340 28061 net.cpp:156] Memory required for data: 177996400
I0403 13:25:50.040372 28061 layer_factory.hpp:77] Creating layer relu1
I0403 13:25:50.040400 28061 net.cpp:91] Creating Layer relu1
I0403 13:25:50.040418 28061 net.cpp:425] relu1 <- conv1
I0403 13:25:50.040437 28061 net.cpp:386] relu1 -> conv1 (in-place)
I0403 13:25:50.040698 28061 net.cpp:141] Setting up relu1
I0403 13:25:50.040725 28061 net.cpp:148] Top shape: 100 96 55 55 (29040000)
I0403 13:25:50.040741 28061 net.cpp:156] Memory required for data: 294156400
I0403 13:25:50.040789 28061 layer_factory.hpp:77] Creating layer norm1
I0403 13:25:50.040817 28061 net.cpp:91] Creating Layer norm1
I0403 13:25:50.040837 28061 net.cpp:425] norm1 <- conv1
I0403 13:25:50.040854 28061 net.cpp:399] norm1 -> norm1
I0403 13:25:50.041196 28061 net.cpp:141] Setting up norm1
I0403 13:25:50.041224 28061 net.cpp:148] Top shape: 100 96 55 55 (29040000)
I0403 13:25:50.041240 28061 net.cpp:156] Memory required for data: 410316400
I0403 13:25:50.041262 28061 layer_factory.hpp:77] Creating layer pool1
I0403 13:25:50.041287 28061 net.cpp:91] Creating Layer pool1
I0403 13:25:50.041306 28061 net.cpp:425] pool1 <- norm1
I0403 13:25:50.041324 28061 net.cpp:399] pool1 -> pool1
I0403 13:25:50.041396 28061 net.cpp:141] Setting up pool1
I0403 13:25:50.041422 28061 net.cpp:148] Top shape: 100 96 27 27 (6998400)
I0403 13:25:50.041437 28061 net.cpp:156] Memory required for data: 438310000
I0403 13:25:50.041465 28061 layer_factory.hpp:77] Creating layer conv2
I0403 13:25:50.041492 28061 net.cpp:91] Creating Layer conv2
I0403 13:25:50.041510 28061 net.cpp:425] conv2 <- pool1
I0403 13:25:50.041530 28061 net.cpp:399] conv2 -> conv2
I0403 13:25:50.056825 28061 net.cpp:141] Setting up conv2
I0403 13:25:50.056876 28061 net.cpp:148] Top shape: 100 256 27 27 (18662400)
I0403 13:25:50.056893 28061 net.cpp:156] Memory required for data: 512959600
I0403 13:25:50.056916 28061 layer_factory.hpp:77] Creating layer relu2
I0403 13:25:50.056944 28061 net.cpp:91] Creating Layer relu2
I0403 13:25:50.056964 28061 net.cpp:425] relu2 <- conv2
I0403 13:25:50.056983 28061 net.cpp:386] relu2 -> conv2 (in-place)
I0403 13:25:50.057272 28061 net.cpp:141] Setting up relu2
I0403 13:25:50.057301 28061 net.cpp:148] Top shape: 100 256 27 27 (18662400)
I0403 13:25:50.057329 28061 net.cpp:156] Memory required for data: 587609200
I0403 13:25:50.057344 28061 layer_factory.hpp:77] Creating layer norm2
I0403 13:25:50.057368 28061 net.cpp:91] Creating Layer norm2
I0403 13:25:50.057385 28061 net.cpp:425] norm2 <- conv2
I0403 13:25:50.057406 28061 net.cpp:399] norm2 -> norm2
I0403 13:25:50.057600 28061 net.cpp:141] Setting up norm2
I0403 13:25:50.057626 28061 net.cpp:148] Top shape: 100 256 27 27 (18662400)
I0403 13:25:50.057641 28061 net.cpp:156] Memory required for data: 662258800
I0403 13:25:50.057657 28061 layer_factory.hpp:77] Creating layer pool2
I0403 13:25:50.057674 28061 net.cpp:91] Creating Layer pool2
I0403 13:25:50.057689 28061 net.cpp:425] pool2 <- norm2
I0403 13:25:50.057710 28061 net.cpp:399] pool2 -> pool2
I0403 13:25:50.057829 28061 net.cpp:141] Setting up pool2
I0403 13:25:50.057855 28061 net.cpp:148] Top shape: 100 256 13 13 (4326400)
I0403 13:25:50.057871 28061 net.cpp:156] Memory required for data: 679564400
I0403 13:25:50.057885 28061 layer_factory.hpp:77] Creating layer conv3
I0403 13:25:50.057911 28061 net.cpp:91] Creating Layer conv3
I0403 13:25:50.057929 28061 net.cpp:425] conv3 <- pool2
I0403 13:25:50.057947 28061 net.cpp:399] conv3 -> conv3
I0403 13:25:50.105010 28061 net.cpp:141] Setting up conv3
I0403 13:25:50.105084 28061 net.cpp:148] Top shape: 100 384 13 13 (6489600)
I0403 13:25:50.105101 28061 net.cpp:156] Memory required for data: 705522800
I0403 13:25:50.105129 28061 layer_factory.hpp:77] Creating layer relu3
I0403 13:25:50.105154 28061 net.cpp:91] Creating Layer relu3
I0403 13:25:50.105173 28061 net.cpp:425] relu3 <- conv3
I0403 13:25:50.105195 28061 net.cpp:386] relu3 -> conv3 (in-place)
I0403 13:25:50.105480 28061 net.cpp:141] Setting up relu3
I0403 13:25:50.105507 28061 net.cpp:148] Top shape: 100 384 13 13 (6489600)
I0403 13:25:50.105523 28061 net.cpp:156] Memory required for data: 731481200
I0403 13:25:50.105542 28061 layer_factory.hpp:77] Creating layer conv4
I0403 13:25:50.105569 28061 net.cpp:91] Creating Layer conv4
I0403 13:25:50.105587 28061 net.cpp:425] conv4 <- conv3
I0403 13:25:50.105609 28061 net.cpp:399] conv4 -> conv4
I0403 13:25:50.136294 28061 net.cpp:141] Setting up conv4
I0403 13:25:50.136363 28061 net.cpp:148] Top shape: 100 384 13 13 (6489600)
I0403 13:25:50.136431 28061 net.cpp:156] Memory required for data: 757439600
I0403 13:25:50.136477 28061 layer_factory.hpp:77] Creating layer relu4
I0403 13:25:50.136502 28061 net.cpp:91] Creating Layer relu4
I0403 13:25:50.136520 28061 net.cpp:425] relu4 <- conv4
I0403 13:25:50.136543 28061 net.cpp:386] relu4 -> conv4 (in-place)
I0403 13:25:50.136832 28061 net.cpp:141] Setting up relu4
I0403 13:25:50.136860 28061 net.cpp:148] Top shape: 100 384 13 13 (6489600)
I0403 13:25:50.136875 28061 net.cpp:156] Memory required for data: 783398000
I0403 13:25:50.136891 28061 layer_factory.hpp:77] Creating layer conv5
I0403 13:25:50.136919 28061 net.cpp:91] Creating Layer conv5
I0403 13:25:50.136936 28061 net.cpp:425] conv5 <- conv4
I0403 13:25:50.136958 28061 net.cpp:399] conv5 -> conv5
I0403 13:25:50.158059 28061 net.cpp:141] Setting up conv5
I0403 13:25:50.158113 28061 net.cpp:148] Top shape: 100 256 13 13 (4326400)
I0403 13:25:50.158129 28061 net.cpp:156] Memory required for data: 800703600
I0403 13:25:50.158154 28061 layer_factory.hpp:77] Creating layer relu5
I0403 13:25:50.158177 28061 net.cpp:91] Creating Layer relu5
I0403 13:25:50.158195 28061 net.cpp:425] relu5 <- conv5
I0403 13:25:50.158220 28061 net.cpp:386] relu5 -> conv5 (in-place)
I0403 13:25:50.158511 28061 net.cpp:141] Setting up relu5
I0403 13:25:50.158538 28061 net.cpp:148] Top shape: 100 256 13 13 (4326400)
I0403 13:25:50.158555 28061 net.cpp:156] Memory required for data: 818009200
I0403 13:25:50.158571 28061 layer_factory.hpp:77] Creating layer pool5
I0403 13:25:50.158596 28061 net.cpp:91] Creating Layer pool5
I0403 13:25:50.158615 28061 net.cpp:425] pool5 <- conv5
I0403 13:25:50.158635 28061 net.cpp:399] pool5 -> pool5
I0403 13:25:50.158700 28061 net.cpp:141] Setting up pool5
I0403 13:25:50.158725 28061 net.cpp:148] Top shape: 100 256 6 6 (921600)
I0403 13:25:50.158741 28061 net.cpp:156] Memory required for data: 821695600
I0403 13:25:50.158756 28061 layer_factory.hpp:77] Creating layer fc6
I0403 13:25:50.158785 28061 net.cpp:91] Creating Layer fc6
I0403 13:25:50.158804 28061 net.cpp:425] fc6 <- pool5
I0403 13:25:50.158823 28061 net.cpp:399] fc6 -> fc6
I0403 13:25:51.723158 28061 net.cpp:141] Setting up fc6
I0403 13:25:51.723235 28061 net.cpp:148] Top shape: 100 4096 (409600)
I0403 13:25:51.723260 28061 net.cpp:156] Memory required for data: 823334000
I0403 13:25:51.723285 28061 layer_factory.hpp:77] Creating layer relu6
I0403 13:25:51.723309 28061 net.cpp:91] Creating Layer relu6
I0403 13:25:51.723327 28061 net.cpp:425] relu6 <- fc6
I0403 13:25:51.723350 28061 net.cpp:386] relu6 -> fc6 (in-place)
I0403 13:25:51.723565 28061 net.cpp:141] Setting up relu6
I0403 13:25:51.723592 28061 net.cpp:148] Top shape: 100 4096 (409600)
I0403 13:25:51.723606 28061 net.cpp:156] Memory required for data: 824972400
I0403 13:25:51.723621 28061 layer_factory.hpp:77] Creating layer drop6
I0403 13:25:51.723640 28061 net.cpp:91] Creating Layer drop6
I0403 13:25:51.723656 28061 net.cpp:425] drop6 <- fc6
I0403 13:25:51.723677 28061 net.cpp:386] drop6 -> fc6 (in-place)
I0403 13:25:51.723729 28061 net.cpp:141] Setting up drop6
I0403 13:25:51.723753 28061 net.cpp:148] Top shape: 100 4096 (409600)
I0403 13:25:51.723768 28061 net.cpp:156] Memory required for data: 826610800
I0403 13:25:51.723783 28061 layer_factory.hpp:77] Creating layer fc7
I0403 13:25:51.723804 28061 net.cpp:91] Creating Layer fc7
I0403 13:25:51.723820 28061 net.cpp:425] fc7 <- fc6
I0403 13:25:51.723841 28061 net.cpp:399] fc7 -> fc7
I0403 13:25:52.414116 28061 net.cpp:141] Setting up fc7
I0403 13:25:52.414193 28061 net.cpp:148] Top shape: 100 4096 (409600)
I0403 13:25:52.414211 28061 net.cpp:156] Memory required for data: 828249200
I0403 13:25:52.414232 28061 layer_factory.hpp:77] Creating layer relu7
I0403 13:25:52.414261 28061 net.cpp:91] Creating Layer relu7
I0403 13:25:52.414283 28061 net.cpp:425] relu7 <- fc7
I0403 13:25:52.414301 28061 net.cpp:386] relu7 -> fc7 (in-place)
I0403 13:25:52.414687 28061 net.cpp:141] Setting up relu7
I0403 13:25:52.414715 28061 net.cpp:148] Top shape: 100 4096 (409600)
I0403 13:25:52.414782 28061 net.cpp:156] Memory required for data: 829887600
I0403 13:25:52.414798 28061 layer_factory.hpp:77] Creating layer drop7
I0403 13:25:52.414819 28061 net.cpp:91] Creating Layer drop7
I0403 13:25:52.414839 28061 net.cpp:425] drop7 <- fc7
I0403 13:25:52.414856 28061 net.cpp:386] drop7 -> fc7 (in-place)
I0403 13:25:52.414901 28061 net.cpp:141] Setting up drop7
I0403 13:25:52.414928 28061 net.cpp:148] Top shape: 100 4096 (409600)
I0403 13:25:52.414944 28061 net.cpp:156] Memory required for data: 831526000
I0403 13:25:52.414960 28061 layer_factory.hpp:77] Creating layer fc8_plantvillage
I0403 13:25:52.414980 28061 net.cpp:91] Creating Layer fc8_plantvillage
I0403 13:25:52.414995 28061 net.cpp:425] fc8_plantvillage <- fc7
I0403 13:25:52.415016 28061 net.cpp:399] fc8_plantvillage -> fc8_plantvillage
I0403 13:25:52.421946 28061 net.cpp:141] Setting up fc8_plantvillage
I0403 13:25:52.421977 28061 net.cpp:148] Top shape: 100 38 (3800)
I0403 13:25:52.421993 28061 net.cpp:156] Memory required for data: 831541200
I0403 13:25:52.422011 28061 layer_factory.hpp:77] Creating layer fc8_plantvillage_fc8_plantvillage_0_split
I0403 13:25:52.422032 28061 net.cpp:91] Creating Layer fc8_plantvillage_fc8_plantvillage_0_split
I0403 13:25:52.422049 28061 net.cpp:425] fc8_plantvillage_fc8_plantvillage_0_split <- fc8_plantvillage
I0403 13:25:52.422066 28061 net.cpp:399] fc8_plantvillage_fc8_plantvillage_0_split -> fc8_plantvillage_fc8_plantvillage_0_split_0
I0403 13:25:52.422088 28061 net.cpp:399] fc8_plantvillage_fc8_plantvillage_0_split -> fc8_plantvillage_fc8_plantvillage_0_split_1
I0403 13:25:52.422108 28061 net.cpp:399] fc8_plantvillage_fc8_plantvillage_0_split -> fc8_plantvillage_fc8_plantvillage_0_split_2
I0403 13:25:52.422189 28061 net.cpp:141] Setting up fc8_plantvillage_fc8_plantvillage_0_split
I0403 13:25:52.422214 28061 net.cpp:148] Top shape: 100 38 (3800)
I0403 13:25:52.422230 28061 net.cpp:148] Top shape: 100 38 (3800)
I0403 13:25:52.422246 28061 net.cpp:148] Top shape: 100 38 (3800)
I0403 13:25:52.422266 28061 net.cpp:156] Memory required for data: 831586800
I0403 13:25:52.422283 28061 layer_factory.hpp:77] Creating layer prob
I0403 13:25:52.422302 28061 net.cpp:91] Creating Layer prob
I0403 13:25:52.422318 28061 net.cpp:425] prob <- fc8_plantvillage_fc8_plantvillage_0_split_0
I0403 13:25:52.422338 28061 net.cpp:399] prob -> prob
I0403 13:25:52.422564 28061 net.cpp:141] Setting up prob
I0403 13:25:52.422590 28061 net.cpp:148] Top shape: 100 38 (3800)
I0403 13:25:52.422606 28061 net.cpp:156] Memory required for data: 831602000
I0403 13:25:52.422622 28061 layer_factory.hpp:77] Creating layer hdf5out
I0403 13:25:52.422644 28061 net.cpp:91] Creating Layer hdf5out
I0403 13:25:52.422660 28061 net.cpp:425] hdf5out <- prob
I0403 13:25:52.422677 28061 net.cpp:425] hdf5out <- label_data_1_split_0
I0403 13:25:52.426532 28061 net.cpp:141] Setting up hdf5out
…
