…
I0403 13:16:21.434681 27694 net.cpp:313] The NetState phase (1) differed from the phase (0) specified by a rule in layer data
I0403 13:16:21.434979 27694 net.cpp:49] Initializing net from parameters: 
state {
  phase: TEST
}
layer {
  name: "data"
  type: "Data"
  top: "data"
  top: "label"
  include {
    phase: TEST
  }
  transform_param {
    crop_size: 227
    mean_file: "/home/mohanty/data/final_dataset/lmdb/color-60-40/mean.binaryproto"
  }
  data_param {
    source: "/home/mohanty/data/final_dataset/lmdb/color-60-40/test_db"
    batch_size: 100
    backend: LMDB
  }
}
layer {
  name: "conv1"
  type: "Convolution"
  bottom: "data"
  top: "conv1"
  param {
    lr_mult: 1
    decay_mult: 1
  }
  param {
    lr_mult: 2
    decay_mult: 0
  }
  convolution_param {
    num_output: 96
    kernel_size: 11
    stride: 4
    weight_filler {
      type: "gaussian"
      std: 0.01
    }
    bias_filler {
      type: "constant"
      value: 0
    }
  }
}
layer {
  name: "relu1"
  type: "ReLU"
  bottom: "conv1"
  top: "conv1"
}
layer {
  name: "norm1"
  type: "LRN"
  bottom: "conv1"
  top: "norm1"
  lrn_param {
    local_size: 5
    alpha: 0.0001
    beta: 0.75
  }
}
layer {
  name: "pool1"
  type: "Pooling"
  bottom: "norm1"
  top: "pool1"
  pooling_param {
    pool: MAX
    kernel_size: 3
    stride: 2
  }
}
layer {
  name: "conv2"
  type: "Convolution"
  bottom: "pool1"
  top: "conv2"
  param {
    lr_mult: 1
    decay_mult: 1
  }
  param {
    lr_mult: 2
    decay_mult: 0
  }
  convolution_param {
    num_output: 256
    pad: 2
    kernel_size: 5
    group: 2
    weight_filler {
      type: "gaussian"
      std: 0.01
    }
    bias_filler {
      type: "constant"
      value: 0.1
    }
  }
}
layer {
  name: "relu2"
  type: "ReLU"
  bottom: "conv2"
  top: "conv2"
}
layer {
  name: "norm2"
  type: "LRN"
  bottom: "conv2"
  top: "norm2"
  lrn_param {
    local_size: 5
    alpha: 0.0001
    beta: 0.75
  }
}
layer {
  name: "pool2"
  type: "Pooling"
  bottom: "norm2"
  top: "pool2"
  pooling_param {
    pool: MAX
    kernel_size: 3
    stride: 2
  }
}
layer {
  name: "conv3"
  type: "Convolution"
  bottom: "pool2"
  top: "conv3"
  param {
    lr_mult: 1
    decay_mult: 1
  }
  param {
    lr_mult: 2
    decay_mult: 0
  }
  convolution_param {
    num_output: 384
    pad: 1
    kernel_size: 3
    weight_filler {
      type: "gaussian"
      std: 0.01
    }
    bias_filler {
      type: "constant"
      value: 0
    }
  }
}
layer {
  name: "relu3"
  type: "ReLU"
  bottom: "conv3"
  top: "conv3"
}
layer {
  name: "conv4"
  type: "Convolution"
  bottom: "conv3"
  top: "conv4"
  param {
    lr_mult: 1
    decay_mult: 1
  }
  param {
    lr_mult: 2
    decay_mult: 0
  }
  convolution_param {
    num_output: 384
    pad: 1
    kernel_size: 3
    group: 2
    weight_filler {
      type: "gaussian"
      std: 0.01
    }
    bias_filler {
      type: "constant"
      value: 0.1
    }
  }
}
layer {
  name: "relu4"
  type: "ReLU"
  bottom: "conv4"
  top: "conv4"
}
layer {
  name: "conv5"
  type: "Convolution"
  bottom: "conv4"
  top: "conv5"
  param {
    lr_mult: 1
    decay_mult: 1
  }
  param {
    lr_mult: 2
    decay_mult: 0
  }
  convolution_param {
    num_output: 256
    pad: 1
    kernel_size: 3
    group: 2
    weight_filler {
      type: "gaussian"
      std: 0.01
    }
    bias_filler {
      type: "constant"
      value: 0.1
    }
  }
}
layer {
  name: "relu5"
  type: "ReLU"
  bottom: "conv5"
  top: "conv5"
}
layer {
  name: "pool5"
  type: "Pooling"
  bottom: "conv5"
  top: "pool5"
  pooling_param {
    pool: MAX
    kernel_size: 3
    stride: 2
  }
}
layer {
  name: "fc6"
  type: "InnerProduct"
  bottom: "pool5"
  top: "fc6"
  param {
    lr_mult: 1
    decay_mult: 1
  }
  param {
    lr_mult: 2
    decay_mult: 0
  }
  inner_product_param {
    num_output: 4096
    weight_filler {
      type: "gaussian"
      std: 0.005
    }
    bias_filler {
      type: "constant"
      value: 0.1
    }
  }
}
layer {
  name: "relu6"
  type: "ReLU"
  bottom: "fc6"
  top: "fc6"
}
layer {
  name: "drop6"
  type: "Dropout"
  bottom: "fc6"
  top: "fc6"
  dropout_param {
    dropout_ratio: 0.5
  }
}
layer {
  name: "fc7"
  type: "InnerProduct"
  bottom: "fc6"
  top: "fc7"
  param {
    lr_mult: 1
    decay_mult: 1
  }
  param {
    lr_mult: 2
    decay_mult: 0
  }
  inner_product_param {
    num_output: 4096
    weight_filler {
      type: "gaussian"
      std: 0.005
    }
    bias_filler {
      type: "constant"
      value: 0.1
    }
  }
}
layer {
  name: "relu7"
  type: "ReLU"
  bottom: "fc7"
  top: "fc7"
}
layer {
  name: "drop7"
  type: "Dropout"
  bottom: "fc7"
  top: "fc7"
  dropout_param {
    dropout_ratio: 0.5
  }
}
layer {
  name: "fc8_plantvillage"
  type: "InnerProduct"
  bottom: "fc7"
  top: "fc8_plantvillage"
  param {
    lr_mult: 1
    decay_mult: 1
  }
  param {
    lr_mult: 2
    decay_mult: 0
  }
  inner_product_param {
    num_output: 38
    weight_filler {
      type: "gaussian"
      std: 0.01
    }
    bias_filler {
      type: "constant"
      value: 0
    }
  }
}
layer {
  name: "prob"
  type: "Softmax"
  bottom: "fc8_plantvillage"
  top: "prob"
  include {
    phase: TEST
  }
}
layer {
  name: "hdf5out"
  type: "HDF5Output"
  bottom: "prob"
  bottom: "label"
  include {
    phase: TEST
  }
  hdf5_output_param {
    file_name: "hdf5_dumps/iter_5200.h5"
  }
}
layer {
  name: "loss"
  type: "SoftmaxWithLoss"
  bottom: "fc8_plantvillage"
  bottom: "label"
  top: "loss"
}
layer {
  name: "accuracy"
  type: "Accuracy"
  bottom: "fc8_plantvillage"
  bottom: "label"
  top: "accuracy"
  include {
    phase: TEST
  }
}
I0403 13:16:21.435603 27694 layer_factory.hpp:77] Creating layer data
I0403 13:16:21.436257 27694 net.cpp:91] Creating Layer data
I0403 13:16:21.436295 27694 net.cpp:399] data -> data
I0403 13:16:21.436349 27694 net.cpp:399] data -> label
I0403 13:16:21.436388 27694 data_transformer.cpp:25] Loading mean file from: /home/mohanty/data/final_dataset/lmdb/color-60-40/mean.binaryproto
I0403 13:16:21.438858 27699 db_lmdb.cpp:38] Opened lmdb /home/mohanty/data/final_dataset/lmdb/color-60-40/test_db
I0403 13:16:21.451097 27694 data_layer.cpp:41] output data size: 100,3,227,227
I0403 13:16:21.585104 27694 net.cpp:141] Setting up data
I0403 13:16:21.585197 27694 net.cpp:148] Top shape: 100 3 227 227 (15458700)
I0403 13:16:21.585222 27694 net.cpp:148] Top shape: 100 (100)
I0403 13:16:21.585237 27694 net.cpp:156] Memory required for data: 61835200
I0403 13:16:21.585265 27694 layer_factory.hpp:77] Creating layer label_data_1_split
I0403 13:16:21.585299 27694 net.cpp:91] Creating Layer label_data_1_split
I0403 13:16:21.585333 27694 net.cpp:425] label_data_1_split <- label
I0403 13:16:21.585366 27694 net.cpp:399] label_data_1_split -> label_data_1_split_0
I0403 13:16:21.585394 27694 net.cpp:399] label_data_1_split -> label_data_1_split_1
I0403 13:16:21.585415 27694 net.cpp:399] label_data_1_split -> label_data_1_split_2
I0403 13:16:21.585482 27694 net.cpp:141] Setting up label_data_1_split
I0403 13:16:21.585508 27694 net.cpp:148] Top shape: 100 (100)
I0403 13:16:21.585526 27694 net.cpp:148] Top shape: 100 (100)
I0403 13:16:21.585544 27694 net.cpp:148] Top shape: 100 (100)
I0403 13:16:21.585559 27694 net.cpp:156] Memory required for data: 61836400
I0403 13:16:21.585575 27694 layer_factory.hpp:77] Creating layer conv1
I0403 13:16:21.585620 27694 net.cpp:91] Creating Layer conv1
I0403 13:16:21.585639 27694 net.cpp:425] conv1 <- data
I0403 13:16:21.585660 27694 net.cpp:399] conv1 -> conv1
I0403 13:16:21.730743 27694 net.cpp:141] Setting up conv1
I0403 13:16:21.730823 27694 net.cpp:148] Top shape: 100 96 55 55 (29040000)
I0403 13:16:21.730841 27694 net.cpp:156] Memory required for data: 177996400
I0403 13:16:21.730875 27694 layer_factory.hpp:77] Creating layer relu1
I0403 13:16:21.730903 27694 net.cpp:91] Creating Layer relu1
I0403 13:16:21.730923 27694 net.cpp:425] relu1 <- conv1
I0403 13:16:21.730944 27694 net.cpp:386] relu1 -> conv1 (in-place)
I0403 13:16:21.731202 27694 net.cpp:141] Setting up relu1
I0403 13:16:21.731277 27694 net.cpp:148] Top shape: 100 96 55 55 (29040000)
I0403 13:16:21.731302 27694 net.cpp:156] Memory required for data: 294156400
I0403 13:16:21.731350 27694 layer_factory.hpp:77] Creating layer norm1
I0403 13:16:21.731380 27694 net.cpp:91] Creating Layer norm1
I0403 13:16:21.731400 27694 net.cpp:425] norm1 <- conv1
I0403 13:16:21.731418 27694 net.cpp:399] norm1 -> norm1
I0403 13:16:21.731727 27694 net.cpp:141] Setting up norm1
I0403 13:16:21.731756 27694 net.cpp:148] Top shape: 100 96 55 55 (29040000)
I0403 13:16:21.731773 27694 net.cpp:156] Memory required for data: 410316400
I0403 13:16:21.731789 27694 layer_factory.hpp:77] Creating layer pool1
I0403 13:16:21.731813 27694 net.cpp:91] Creating Layer pool1
I0403 13:16:21.731832 27694 net.cpp:425] pool1 <- norm1
I0403 13:16:21.731851 27694 net.cpp:399] pool1 -> pool1
I0403 13:16:21.731920 27694 net.cpp:141] Setting up pool1
I0403 13:16:21.731945 27694 net.cpp:148] Top shape: 100 96 27 27 (6998400)
I0403 13:16:21.731961 27694 net.cpp:156] Memory required for data: 438310000
I0403 13:16:21.731976 27694 layer_factory.hpp:77] Creating layer conv2
I0403 13:16:21.732002 27694 net.cpp:91] Creating Layer conv2
I0403 13:16:21.732019 27694 net.cpp:425] conv2 <- pool1
I0403 13:16:21.732038 27694 net.cpp:399] conv2 -> conv2
I0403 13:16:21.747479 27694 net.cpp:141] Setting up conv2
I0403 13:16:21.747532 27694 net.cpp:148] Top shape: 100 256 27 27 (18662400)
I0403 13:16:21.747550 27694 net.cpp:156] Memory required for data: 512959600
I0403 13:16:21.747575 27694 layer_factory.hpp:77] Creating layer relu2
I0403 13:16:21.747599 27694 net.cpp:91] Creating Layer relu2
I0403 13:16:21.747617 27694 net.cpp:425] relu2 <- conv2
I0403 13:16:21.747637 27694 net.cpp:386] relu2 -> conv2 (in-place)
I0403 13:16:21.747921 27694 net.cpp:141] Setting up relu2
I0403 13:16:21.747949 27694 net.cpp:148] Top shape: 100 256 27 27 (18662400)
I0403 13:16:21.747966 27694 net.cpp:156] Memory required for data: 587609200
I0403 13:16:21.747982 27694 layer_factory.hpp:77] Creating layer norm2
I0403 13:16:21.748006 27694 net.cpp:91] Creating Layer norm2
I0403 13:16:21.748024 27694 net.cpp:425] norm2 <- conv2
I0403 13:16:21.748045 27694 net.cpp:399] norm2 -> norm2
I0403 13:16:21.748250 27694 net.cpp:141] Setting up norm2
I0403 13:16:21.748296 27694 net.cpp:148] Top shape: 100 256 27 27 (18662400)
I0403 13:16:21.748314 27694 net.cpp:156] Memory required for data: 662258800
I0403 13:16:21.748332 27694 layer_factory.hpp:77] Creating layer pool2
I0403 13:16:21.748352 27694 net.cpp:91] Creating Layer pool2
I0403 13:16:21.748368 27694 net.cpp:425] pool2 <- norm2
I0403 13:16:21.748389 27694 net.cpp:399] pool2 -> pool2
I0403 13:16:21.748445 27694 net.cpp:141] Setting up pool2
I0403 13:16:21.748472 27694 net.cpp:148] Top shape: 100 256 13 13 (4326400)
I0403 13:16:21.748489 27694 net.cpp:156] Memory required for data: 679564400
I0403 13:16:21.748507 27694 layer_factory.hpp:77] Creating layer conv3
I0403 13:16:21.748533 27694 net.cpp:91] Creating Layer conv3
I0403 13:16:21.748563 27694 net.cpp:425] conv3 <- pool2
I0403 13:16:21.748584 27694 net.cpp:399] conv3 -> conv3
I0403 13:16:21.787484 27694 net.cpp:141] Setting up conv3
I0403 13:16:21.787524 27694 net.cpp:148] Top shape: 100 384 13 13 (6489600)
I0403 13:16:21.787541 27694 net.cpp:156] Memory required for data: 705522800
I0403 13:16:21.787566 27694 layer_factory.hpp:77] Creating layer relu3
I0403 13:16:21.787590 27694 net.cpp:91] Creating Layer relu3
I0403 13:16:21.787608 27694 net.cpp:425] relu3 <- conv3
I0403 13:16:21.787631 27694 net.cpp:386] relu3 -> conv3 (in-place)
I0403 13:16:21.787914 27694 net.cpp:141] Setting up relu3
I0403 13:16:21.787940 27694 net.cpp:148] Top shape: 100 384 13 13 (6489600)
I0403 13:16:21.787955 27694 net.cpp:156] Memory required for data: 731481200
I0403 13:16:21.787971 27694 layer_factory.hpp:77] Creating layer conv4
I0403 13:16:21.787997 27694 net.cpp:91] Creating Layer conv4
I0403 13:16:21.788014 27694 net.cpp:425] conv4 <- conv3
I0403 13:16:21.788038 27694 net.cpp:399] conv4 -> conv4
I0403 13:16:21.817944 27694 net.cpp:141] Setting up conv4
I0403 13:16:21.818004 27694 net.cpp:148] Top shape: 100 384 13 13 (6489600)
I0403 13:16:21.818053 27694 net.cpp:156] Memory required for data: 757439600
I0403 13:16:21.818076 27694 layer_factory.hpp:77] Creating layer relu4
I0403 13:16:21.818096 27694 net.cpp:91] Creating Layer relu4
I0403 13:16:21.818114 27694 net.cpp:425] relu4 <- conv4
I0403 13:16:21.818135 27694 net.cpp:386] relu4 -> conv4 (in-place)
I0403 13:16:21.818418 27694 net.cpp:141] Setting up relu4
I0403 13:16:21.818445 27694 net.cpp:148] Top shape: 100 384 13 13 (6489600)
I0403 13:16:21.818461 27694 net.cpp:156] Memory required for data: 783398000
I0403 13:16:21.818477 27694 layer_factory.hpp:77] Creating layer conv5
I0403 13:16:21.818502 27694 net.cpp:91] Creating Layer conv5
I0403 13:16:21.818521 27694 net.cpp:425] conv5 <- conv4
I0403 13:16:21.818542 27694 net.cpp:399] conv5 -> conv5
I0403 13:16:21.839100 27694 net.cpp:141] Setting up conv5
I0403 13:16:21.839156 27694 net.cpp:148] Top shape: 100 256 13 13 (4326400)
I0403 13:16:21.839174 27694 net.cpp:156] Memory required for data: 800703600
I0403 13:16:21.839198 27694 layer_factory.hpp:77] Creating layer relu5
I0403 13:16:21.839224 27694 net.cpp:91] Creating Layer relu5
I0403 13:16:21.839244 27694 net.cpp:425] relu5 <- conv5
I0403 13:16:21.839268 27694 net.cpp:386] relu5 -> conv5 (in-place)
I0403 13:16:21.839571 27694 net.cpp:141] Setting up relu5
I0403 13:16:21.839599 27694 net.cpp:148] Top shape: 100 256 13 13 (4326400)
I0403 13:16:21.839615 27694 net.cpp:156] Memory required for data: 818009200
I0403 13:16:21.839630 27694 layer_factory.hpp:77] Creating layer pool5
I0403 13:16:21.839656 27694 net.cpp:91] Creating Layer pool5
I0403 13:16:21.839674 27694 net.cpp:425] pool5 <- conv5
I0403 13:16:21.839695 27694 net.cpp:399] pool5 -> pool5
I0403 13:16:21.839756 27694 net.cpp:141] Setting up pool5
I0403 13:16:21.839782 27694 net.cpp:148] Top shape: 100 256 6 6 (921600)
I0403 13:16:21.839797 27694 net.cpp:156] Memory required for data: 821695600
I0403 13:16:21.839813 27694 layer_factory.hpp:77] Creating layer fc6
I0403 13:16:21.839841 27694 net.cpp:91] Creating Layer fc6
I0403 13:16:21.839861 27694 net.cpp:425] fc6 <- pool5
I0403 13:16:21.839884 27694 net.cpp:399] fc6 -> fc6
I0403 13:16:23.430555 27694 net.cpp:141] Setting up fc6
I0403 13:16:23.430635 27694 net.cpp:148] Top shape: 100 4096 (409600)
I0403 13:16:23.430652 27694 net.cpp:156] Memory required for data: 823334000
I0403 13:16:23.430675 27694 layer_factory.hpp:77] Creating layer relu6
I0403 13:16:23.430697 27694 net.cpp:91] Creating Layer relu6
I0403 13:16:23.430716 27694 net.cpp:425] relu6 <- fc6
I0403 13:16:23.430737 27694 net.cpp:386] relu6 -> fc6 (in-place)
I0403 13:16:23.430968 27694 net.cpp:141] Setting up relu6
I0403 13:16:23.430994 27694 net.cpp:148] Top shape: 100 4096 (409600)
I0403 13:16:23.431010 27694 net.cpp:156] Memory required for data: 824972400
I0403 13:16:23.431025 27694 layer_factory.hpp:77] Creating layer drop6
I0403 13:16:23.431044 27694 net.cpp:91] Creating Layer drop6
I0403 13:16:23.431061 27694 net.cpp:425] drop6 <- fc6
I0403 13:16:23.431082 27694 net.cpp:386] drop6 -> fc6 (in-place)
I0403 13:16:23.431135 27694 net.cpp:141] Setting up drop6
I0403 13:16:23.431162 27694 net.cpp:148] Top shape: 100 4096 (409600)
I0403 13:16:23.431179 27694 net.cpp:156] Memory required for data: 826610800
I0403 13:16:23.431195 27694 layer_factory.hpp:77] Creating layer fc7
I0403 13:16:23.431216 27694 net.cpp:91] Creating Layer fc7
I0403 13:16:23.431231 27694 net.cpp:425] fc7 <- fc6
I0403 13:16:23.431251 27694 net.cpp:399] fc7 -> fc7
I0403 13:16:24.121013 27694 net.cpp:141] Setting up fc7
I0403 13:16:24.121091 27694 net.cpp:148] Top shape: 100 4096 (409600)
I0403 13:16:24.121109 27694 net.cpp:156] Memory required for data: 828249200
I0403 13:16:24.121130 27694 layer_factory.hpp:77] Creating layer relu7
I0403 13:16:24.121153 27694 net.cpp:91] Creating Layer relu7
I0403 13:16:24.121172 27694 net.cpp:425] relu7 <- fc7
I0403 13:16:24.121196 27694 net.cpp:386] relu7 -> fc7 (in-place)
I0403 13:16:24.121613 27694 net.cpp:141] Setting up relu7
I0403 13:16:24.121640 27694 net.cpp:148] Top shape: 100 4096 (409600)
I0403 13:16:24.121690 27694 net.cpp:156] Memory required for data: 829887600
I0403 13:16:24.121706 27694 layer_factory.hpp:77] Creating layer drop7
I0403 13:16:24.121726 27694 net.cpp:91] Creating Layer drop7
I0403 13:16:24.121742 27694 net.cpp:425] drop7 <- fc7
I0403 13:16:24.121762 27694 net.cpp:386] drop7 -> fc7 (in-place)
I0403 13:16:24.121806 27694 net.cpp:141] Setting up drop7
I0403 13:16:24.121842 27694 net.cpp:148] Top shape: 100 4096 (409600)
I0403 13:16:24.121857 27694 net.cpp:156] Memory required for data: 831526000
I0403 13:16:24.121873 27694 layer_factory.hpp:77] Creating layer fc8_plantvillage
I0403 13:16:24.121893 27694 net.cpp:91] Creating Layer fc8_plantvillage
I0403 13:16:24.121909 27694 net.cpp:425] fc8_plantvillage <- fc7
I0403 13:16:24.121929 27694 net.cpp:399] fc8_plantvillage -> fc8_plantvillage
I0403 13:16:24.128710 27694 net.cpp:141] Setting up fc8_plantvillage
I0403 13:16:24.128739 27694 net.cpp:148] Top shape: 100 38 (3800)
I0403 13:16:24.128756 27694 net.cpp:156] Memory required for data: 831541200
I0403 13:16:24.128777 27694 layer_factory.hpp:77] Creating layer fc8_plantvillage_fc8_plantvillage_0_split
I0403 13:16:24.128800 27694 net.cpp:91] Creating Layer fc8_plantvillage_fc8_plantvillage_0_split
I0403 13:16:24.128818 27694 net.cpp:425] fc8_plantvillage_fc8_plantvillage_0_split <- fc8_plantvillage
I0403 13:16:24.128836 27694 net.cpp:399] fc8_plantvillage_fc8_plantvillage_0_split -> fc8_plantvillage_fc8_plantvillage_0_split_0
I0403 13:16:24.128857 27694 net.cpp:399] fc8_plantvillage_fc8_plantvillage_0_split -> fc8_plantvillage_fc8_plantvillage_0_split_1
I0403 13:16:24.128878 27694 net.cpp:399] fc8_plantvillage_fc8_plantvillage_0_split -> fc8_plantvillage_fc8_plantvillage_0_split_2
I0403 13:16:24.128958 27694 net.cpp:141] Setting up fc8_plantvillage_fc8_plantvillage_0_split
I0403 13:16:24.128983 27694 net.cpp:148] Top shape: 100 38 (3800)
I0403 13:16:24.128998 27694 net.cpp:148] Top shape: 100 38 (3800)
I0403 13:16:24.129014 27694 net.cpp:148] Top shape: 100 38 (3800)
I0403 13:16:24.129029 27694 net.cpp:156] Memory required for data: 831586800
I0403 13:16:24.129043 27694 layer_factory.hpp:77] Creating layer prob
I0403 13:16:24.129062 27694 net.cpp:91] Creating Layer prob
I0403 13:16:24.129078 27694 net.cpp:425] prob <- fc8_plantvillage_fc8_plantvillage_0_split_0
I0403 13:16:24.129096 27694 net.cpp:399] prob -> prob
I0403 13:16:24.129328 27694 net.cpp:141] Setting up prob
I0403 13:16:24.129354 27694 net.cpp:148] Top shape: 100 38 (3800)
I0403 13:16:24.129370 27694 net.cpp:156] Memory required for data: 831602000
I0403 13:16:24.129386 27694 layer_factory.hpp:77] Creating layer hdf5out
I0403 13:16:24.129405 27694 net.cpp:91] Creating Layer hdf5out
I0403 13:16:24.129422 27694 net.cpp:425] hdf5out <- prob
I0403 13:16:24.129439 27694 net.cpp:425] hdf5out <- label_data_1_split_0
I0403 13:16:24.143986 27694 net.cpp:141] Setting up hdf5out
…
