…
I0403 13:06:47.282591 27420 net.cpp:313] The NetState phase (1) differed from the phase (0) specified by a rule in layer data
I0403 13:06:47.282902 27420 net.cpp:49] Initializing net from parameters: 
state {
  phase: TEST
}
layer {
  name: "data"
  type: "Data"
  top: "data"
  top: "label"
  include {
    phase: TEST
  }
  transform_param {
    crop_size: 227
    mean_file: "/home/mohanty/data/final_dataset/lmdb/color-60-40/mean.binaryproto"
  }
  data_param {
    source: "/home/mohanty/data/final_dataset/lmdb/color-60-40/test_db"
    batch_size: 100
    backend: LMDB
  }
}
layer {
  name: "conv1"
  type: "Convolution"
  bottom: "data"
  top: "conv1"
  param {
    lr_mult: 1
    decay_mult: 1
  }
  param {
    lr_mult: 2
    decay_mult: 0
  }
  convolution_param {
    num_output: 96
    kernel_size: 11
    stride: 4
    weight_filler {
      type: "gaussian"
      std: 0.01
    }
    bias_filler {
      type: "constant"
      value: 0
    }
  }
}
layer {
  name: "relu1"
  type: "ReLU"
  bottom: "conv1"
  top: "conv1"
}
layer {
  name: "norm1"
  type: "LRN"
  bottom: "conv1"
  top: "norm1"
  lrn_param {
    local_size: 5
    alpha: 0.0001
    beta: 0.75
  }
}
layer {
  name: "pool1"
  type: "Pooling"
  bottom: "norm1"
  top: "pool1"
  pooling_param {
    pool: MAX
    kernel_size: 3
    stride: 2
  }
}
layer {
  name: "conv2"
  type: "Convolution"
  bottom: "pool1"
  top: "conv2"
  param {
    lr_mult: 1
    decay_mult: 1
  }
  param {
    lr_mult: 2
    decay_mult: 0
  }
  convolution_param {
    num_output: 256
    pad: 2
    kernel_size: 5
    group: 2
    weight_filler {
      type: "gaussian"
      std: 0.01
    }
    bias_filler {
      type: "constant"
      value: 0.1
    }
  }
}
layer {
  name: "relu2"
  type: "ReLU"
  bottom: "conv2"
  top: "conv2"
}
layer {
  name: "norm2"
  type: "LRN"
  bottom: "conv2"
  top: "norm2"
  lrn_param {
    local_size: 5
    alpha: 0.0001
    beta: 0.75
  }
}
layer {
  name: "pool2"
  type: "Pooling"
  bottom: "norm2"
  top: "pool2"
  pooling_param {
    pool: MAX
    kernel_size: 3
    stride: 2
  }
}
layer {
  name: "conv3"
  type: "Convolution"
  bottom: "pool2"
  top: "conv3"
  param {
    lr_mult: 1
    decay_mult: 1
  }
  param {
    lr_mult: 2
    decay_mult: 0
  }
  convolution_param {
    num_output: 384
    pad: 1
    kernel_size: 3
    weight_filler {
      type: "gaussian"
      std: 0.01
    }
    bias_filler {
      type: "constant"
      value: 0
    }
  }
}
layer {
  name: "relu3"
  type: "ReLU"
  bottom: "conv3"
  top: "conv3"
}
layer {
  name: "conv4"
  type: "Convolution"
  bottom: "conv3"
  top: "conv4"
  param {
    lr_mult: 1
    decay_mult: 1
  }
  param {
    lr_mult: 2
    decay_mult: 0
  }
  convolution_param {
    num_output: 384
    pad: 1
    kernel_size: 3
    group: 2
    weight_filler {
      type: "gaussian"
      std: 0.01
    }
    bias_filler {
      type: "constant"
      value: 0.1
    }
  }
}
layer {
  name: "relu4"
  type: "ReLU"
  bottom: "conv4"
  top: "conv4"
}
layer {
  name: "conv5"
  type: "Convolution"
  bottom: "conv4"
  top: "conv5"
  param {
    lr_mult: 1
    decay_mult: 1
  }
  param {
    lr_mult: 2
    decay_mult: 0
  }
  convolution_param {
    num_output: 256
    pad: 1
    kernel_size: 3
    group: 2
    weight_filler {
      type: "gaussian"
      std: 0.01
    }
    bias_filler {
      type: "constant"
      value: 0.1
    }
  }
}
layer {
  name: "relu5"
  type: "ReLU"
  bottom: "conv5"
  top: "conv5"
}
layer {
  name: "pool5"
  type: "Pooling"
  bottom: "conv5"
  top: "pool5"
  pooling_param {
    pool: MAX
    kernel_size: 3
    stride: 2
  }
}
layer {
  name: "fc6"
  type: "InnerProduct"
  bottom: "pool5"
  top: "fc6"
  param {
    lr_mult: 1
    decay_mult: 1
  }
  param {
    lr_mult: 2
    decay_mult: 0
  }
  inner_product_param {
    num_output: 4096
    weight_filler {
      type: "gaussian"
      std: 0.005
    }
    bias_filler {
      type: "constant"
      value: 0.1
    }
  }
}
layer {
  name: "relu6"
  type: "ReLU"
  bottom: "fc6"
  top: "fc6"
}
layer {
  name: "drop6"
  type: "Dropout"
  bottom: "fc6"
  top: "fc6"
  dropout_param {
    dropout_ratio: 0.5
  }
}
layer {
  name: "fc7"
  type: "InnerProduct"
  bottom: "fc6"
  top: "fc7"
  param {
    lr_mult: 1
    decay_mult: 1
  }
  param {
    lr_mult: 2
    decay_mult: 0
  }
  inner_product_param {
    num_output: 4096
    weight_filler {
      type: "gaussian"
      std: 0.005
    }
    bias_filler {
      type: "constant"
      value: 0.1
    }
  }
}
layer {
  name: "relu7"
  type: "ReLU"
  bottom: "fc7"
  top: "fc7"
}
layer {
  name: "drop7"
  type: "Dropout"
  bottom: "fc7"
  top: "fc7"
  dropout_param {
    dropout_ratio: 0.5
  }
}
layer {
  name: "fc8_plantvillage"
  type: "InnerProduct"
  bottom: "fc7"
  top: "fc8_plantvillage"
  param {
    lr_mult: 1
    decay_mult: 1
  }
  param {
    lr_mult: 2
    decay_mult: 0
  }
  inner_product_param {
    num_output: 38
    weight_filler {
      type: "gaussian"
      std: 0.01
    }
    bias_filler {
      type: "constant"
      value: 0
    }
  }
}
layer {
  name: "prob"
  type: "Softmax"
  bottom: "fc8_plantvillage"
  top: "prob"
  include {
    phase: TEST
  }
}
layer {
  name: "hdf5out"
  type: "HDF5Output"
  bottom: "prob"
  bottom: "label"
  include {
    phase: TEST
  }
  hdf5_output_param {
    file_name: "hdf5_dumps/iter_1300.h5"
  }
}
layer {
  name: "loss"
  type: "SoftmaxWithLoss"
  bottom: "fc8_plantvillage"
  bottom: "label"
  top: "loss"
}
layer {
  name: "accuracy"
  type: "Accuracy"
  bottom: "fc8_plantvillage"
  bottom: "label"
  top: "accuracy"
  include {
    phase: TEST
  }
}
I0403 13:06:47.283516 27420 layer_factory.hpp:77] Creating layer data
I0403 13:06:47.284180 27420 net.cpp:91] Creating Layer data
I0403 13:06:47.284215 27420 net.cpp:399] data -> data
I0403 13:06:47.284283 27420 net.cpp:399] data -> label
I0403 13:06:47.284325 27420 data_transformer.cpp:25] Loading mean file from: /home/mohanty/data/final_dataset/lmdb/color-60-40/mean.binaryproto
I0403 13:06:47.287267 27423 db_lmdb.cpp:38] Opened lmdb /home/mohanty/data/final_dataset/lmdb/color-60-40/test_db
I0403 13:06:47.298804 27420 data_layer.cpp:41] output data size: 100,3,227,227
I0403 13:06:47.432121 27420 net.cpp:141] Setting up data
I0403 13:06:47.432215 27420 net.cpp:148] Top shape: 100 3 227 227 (15458700)
I0403 13:06:47.432240 27420 net.cpp:148] Top shape: 100 (100)
I0403 13:06:47.432261 27420 net.cpp:156] Memory required for data: 61835200
I0403 13:06:47.432293 27420 layer_factory.hpp:77] Creating layer label_data_1_split
I0403 13:06:47.432319 27420 net.cpp:91] Creating Layer label_data_1_split
I0403 13:06:47.432339 27420 net.cpp:425] label_data_1_split <- label
I0403 13:06:47.432373 27420 net.cpp:399] label_data_1_split -> label_data_1_split_0
I0403 13:06:47.432401 27420 net.cpp:399] label_data_1_split -> label_data_1_split_1
I0403 13:06:47.432422 27420 net.cpp:399] label_data_1_split -> label_data_1_split_2
I0403 13:06:47.432490 27420 net.cpp:141] Setting up label_data_1_split
I0403 13:06:47.432515 27420 net.cpp:148] Top shape: 100 (100)
I0403 13:06:47.432533 27420 net.cpp:148] Top shape: 100 (100)
I0403 13:06:47.432549 27420 net.cpp:148] Top shape: 100 (100)
I0403 13:06:47.432564 27420 net.cpp:156] Memory required for data: 61836400
I0403 13:06:47.432579 27420 layer_factory.hpp:77] Creating layer conv1
I0403 13:06:47.432611 27420 net.cpp:91] Creating Layer conv1
I0403 13:06:47.432631 27420 net.cpp:425] conv1 <- data
I0403 13:06:47.432652 27420 net.cpp:399] conv1 -> conv1
I0403 13:06:47.582278 27420 net.cpp:141] Setting up conv1
I0403 13:06:47.582360 27420 net.cpp:148] Top shape: 100 96 55 55 (29040000)
I0403 13:06:47.582379 27420 net.cpp:156] Memory required for data: 177996400
I0403 13:06:47.582412 27420 layer_factory.hpp:77] Creating layer relu1
I0403 13:06:47.582440 27420 net.cpp:91] Creating Layer relu1
I0403 13:06:47.582460 27420 net.cpp:425] relu1 <- conv1
I0403 13:06:47.582480 27420 net.cpp:386] relu1 -> conv1 (in-place)
I0403 13:06:47.582746 27420 net.cpp:141] Setting up relu1
I0403 13:06:47.582775 27420 net.cpp:148] Top shape: 100 96 55 55 (29040000)
I0403 13:06:47.582792 27420 net.cpp:156] Memory required for data: 294156400
I0403 13:06:47.582840 27420 layer_factory.hpp:77] Creating layer norm1
I0403 13:06:47.582871 27420 net.cpp:91] Creating Layer norm1
I0403 13:06:47.582890 27420 net.cpp:425] norm1 <- conv1
I0403 13:06:47.582911 27420 net.cpp:399] norm1 -> norm1
I0403 13:06:47.583225 27420 net.cpp:141] Setting up norm1
I0403 13:06:47.583259 27420 net.cpp:148] Top shape: 100 96 55 55 (29040000)
I0403 13:06:47.583277 27420 net.cpp:156] Memory required for data: 410316400
I0403 13:06:47.583297 27420 layer_factory.hpp:77] Creating layer pool1
I0403 13:06:47.583322 27420 net.cpp:91] Creating Layer pool1
I0403 13:06:47.583340 27420 net.cpp:425] pool1 <- norm1
I0403 13:06:47.583359 27420 net.cpp:399] pool1 -> pool1
I0403 13:06:47.583428 27420 net.cpp:141] Setting up pool1
I0403 13:06:47.583456 27420 net.cpp:148] Top shape: 100 96 27 27 (6998400)
I0403 13:06:47.583472 27420 net.cpp:156] Memory required for data: 438310000
I0403 13:06:47.583488 27420 layer_factory.hpp:77] Creating layer conv2
I0403 13:06:47.583514 27420 net.cpp:91] Creating Layer conv2
I0403 13:06:47.583531 27420 net.cpp:425] conv2 <- pool1
I0403 13:06:47.583550 27420 net.cpp:399] conv2 -> conv2
I0403 13:06:47.599190 27420 net.cpp:141] Setting up conv2
I0403 13:06:47.599239 27420 net.cpp:148] Top shape: 100 256 27 27 (18662400)
I0403 13:06:47.599263 27420 net.cpp:156] Memory required for data: 512959600
I0403 13:06:47.599292 27420 layer_factory.hpp:77] Creating layer relu2
I0403 13:06:47.599314 27420 net.cpp:91] Creating Layer relu2
I0403 13:06:47.599333 27420 net.cpp:425] relu2 <- conv2
I0403 13:06:47.599350 27420 net.cpp:386] relu2 -> conv2 (in-place)
I0403 13:06:47.599638 27420 net.cpp:141] Setting up relu2
I0403 13:06:47.599673 27420 net.cpp:148] Top shape: 100 256 27 27 (18662400)
I0403 13:06:47.599690 27420 net.cpp:156] Memory required for data: 587609200
I0403 13:06:47.599706 27420 layer_factory.hpp:77] Creating layer norm2
I0403 13:06:47.599728 27420 net.cpp:91] Creating Layer norm2
I0403 13:06:47.599746 27420 net.cpp:425] norm2 <- conv2
I0403 13:06:47.599767 27420 net.cpp:399] norm2 -> norm2
I0403 13:06:47.599977 27420 net.cpp:141] Setting up norm2
I0403 13:06:47.600005 27420 net.cpp:148] Top shape: 100 256 27 27 (18662400)
I0403 13:06:47.600021 27420 net.cpp:156] Memory required for data: 662258800
I0403 13:06:47.600038 27420 layer_factory.hpp:77] Creating layer pool2
I0403 13:06:47.600059 27420 net.cpp:91] Creating Layer pool2
I0403 13:06:47.600076 27420 net.cpp:425] pool2 <- norm2
I0403 13:06:47.600095 27420 net.cpp:399] pool2 -> pool2
I0403 13:06:47.600153 27420 net.cpp:141] Setting up pool2
I0403 13:06:47.600178 27420 net.cpp:148] Top shape: 100 256 13 13 (4326400)
I0403 13:06:47.600194 27420 net.cpp:156] Memory required for data: 679564400
I0403 13:06:47.600210 27420 layer_factory.hpp:77] Creating layer conv3
I0403 13:06:47.600235 27420 net.cpp:91] Creating Layer conv3
I0403 13:06:47.600260 27420 net.cpp:425] conv3 <- pool2
I0403 13:06:47.600286 27420 net.cpp:399] conv3 -> conv3
I0403 13:06:47.640137 27420 net.cpp:141] Setting up conv3
I0403 13:06:47.640209 27420 net.cpp:148] Top shape: 100 384 13 13 (6489600)
I0403 13:06:47.640228 27420 net.cpp:156] Memory required for data: 705522800
I0403 13:06:47.640261 27420 layer_factory.hpp:77] Creating layer relu3
I0403 13:06:47.640291 27420 net.cpp:91] Creating Layer relu3
I0403 13:06:47.640312 27420 net.cpp:425] relu3 <- conv3
I0403 13:06:47.640334 27420 net.cpp:386] relu3 -> conv3 (in-place)
I0403 13:06:47.640627 27420 net.cpp:141] Setting up relu3
I0403 13:06:47.640656 27420 net.cpp:148] Top shape: 100 384 13 13 (6489600)
I0403 13:06:47.640676 27420 net.cpp:156] Memory required for data: 731481200
I0403 13:06:47.640692 27420 layer_factory.hpp:77] Creating layer conv4
I0403 13:06:47.640722 27420 net.cpp:91] Creating Layer conv4
I0403 13:06:47.640740 27420 net.cpp:425] conv4 <- conv3
I0403 13:06:47.640760 27420 net.cpp:399] conv4 -> conv4
I0403 13:06:47.671550 27420 net.cpp:141] Setting up conv4
I0403 13:06:47.671614 27420 net.cpp:148] Top shape: 100 384 13 13 (6489600)
I0403 13:06:47.671664 27420 net.cpp:156] Memory required for data: 757439600
I0403 13:06:47.671689 27420 layer_factory.hpp:77] Creating layer relu4
I0403 13:06:47.671715 27420 net.cpp:91] Creating Layer relu4
I0403 13:06:47.671735 27420 net.cpp:425] relu4 <- conv4
I0403 13:06:47.671754 27420 net.cpp:386] relu4 -> conv4 (in-place)
I0403 13:06:47.672044 27420 net.cpp:141] Setting up relu4
I0403 13:06:47.672072 27420 net.cpp:148] Top shape: 100 384 13 13 (6489600)
I0403 13:06:47.672089 27420 net.cpp:156] Memory required for data: 783398000
I0403 13:06:47.672104 27420 layer_factory.hpp:77] Creating layer conv5
I0403 13:06:47.672132 27420 net.cpp:91] Creating Layer conv5
I0403 13:06:47.672149 27420 net.cpp:425] conv5 <- conv4
I0403 13:06:47.672173 27420 net.cpp:399] conv5 -> conv5
I0403 13:06:47.693240 27420 net.cpp:141] Setting up conv5
I0403 13:06:47.693284 27420 net.cpp:148] Top shape: 100 256 13 13 (4326400)
I0403 13:06:47.693300 27420 net.cpp:156] Memory required for data: 800703600
I0403 13:06:47.693330 27420 layer_factory.hpp:77] Creating layer relu5
I0403 13:06:47.693352 27420 net.cpp:91] Creating Layer relu5
I0403 13:06:47.693369 27420 net.cpp:425] relu5 <- conv5
I0403 13:06:47.693388 27420 net.cpp:386] relu5 -> conv5 (in-place)
I0403 13:06:47.693675 27420 net.cpp:141] Setting up relu5
I0403 13:06:47.693703 27420 net.cpp:148] Top shape: 100 256 13 13 (4326400)
I0403 13:06:47.693723 27420 net.cpp:156] Memory required for data: 818009200
I0403 13:06:47.693739 27420 layer_factory.hpp:77] Creating layer pool5
I0403 13:06:47.693763 27420 net.cpp:91] Creating Layer pool5
I0403 13:06:47.693780 27420 net.cpp:425] pool5 <- conv5
I0403 13:06:47.693799 27420 net.cpp:399] pool5 -> pool5
I0403 13:06:47.693864 27420 net.cpp:141] Setting up pool5
I0403 13:06:47.693889 27420 net.cpp:148] Top shape: 100 256 6 6 (921600)
I0403 13:06:47.693904 27420 net.cpp:156] Memory required for data: 821695600
I0403 13:06:47.693920 27420 layer_factory.hpp:77] Creating layer fc6
I0403 13:06:47.693949 27420 net.cpp:91] Creating Layer fc6
I0403 13:06:47.693969 27420 net.cpp:425] fc6 <- pool5
I0403 13:06:47.693990 27420 net.cpp:399] fc6 -> fc6
I0403 13:06:49.281365 27420 net.cpp:141] Setting up fc6
I0403 13:06:49.281443 27420 net.cpp:148] Top shape: 100 4096 (409600)
I0403 13:06:49.281461 27420 net.cpp:156] Memory required for data: 823334000
I0403 13:06:49.281486 27420 layer_factory.hpp:77] Creating layer relu6
I0403 13:06:49.281507 27420 net.cpp:91] Creating Layer relu6
I0403 13:06:49.281524 27420 net.cpp:425] relu6 <- fc6
I0403 13:06:49.281548 27420 net.cpp:386] relu6 -> fc6 (in-place)
I0403 13:06:49.281782 27420 net.cpp:141] Setting up relu6
I0403 13:06:49.281810 27420 net.cpp:148] Top shape: 100 4096 (409600)
I0403 13:06:49.281826 27420 net.cpp:156] Memory required for data: 824972400
I0403 13:06:49.281842 27420 layer_factory.hpp:77] Creating layer drop6
I0403 13:06:49.281867 27420 net.cpp:91] Creating Layer drop6
I0403 13:06:49.281885 27420 net.cpp:425] drop6 <- fc6
I0403 13:06:49.281903 27420 net.cpp:386] drop6 -> fc6 (in-place)
I0403 13:06:49.281960 27420 net.cpp:141] Setting up drop6
I0403 13:06:49.281985 27420 net.cpp:148] Top shape: 100 4096 (409600)
I0403 13:06:49.282001 27420 net.cpp:156] Memory required for data: 826610800
I0403 13:06:49.282017 27420 layer_factory.hpp:77] Creating layer fc7
I0403 13:06:49.282039 27420 net.cpp:91] Creating Layer fc7
I0403 13:06:49.282060 27420 net.cpp:425] fc7 <- fc6
I0403 13:06:49.282079 27420 net.cpp:399] fc7 -> fc7
I0403 13:06:49.986400 27420 net.cpp:141] Setting up fc7
I0403 13:06:49.986479 27420 net.cpp:148] Top shape: 100 4096 (409600)
I0403 13:06:49.986495 27420 net.cpp:156] Memory required for data: 828249200
I0403 13:06:49.986518 27420 layer_factory.hpp:77] Creating layer relu7
I0403 13:06:49.986543 27420 net.cpp:91] Creating Layer relu7
I0403 13:06:49.986563 27420 net.cpp:425] relu7 <- fc7
I0403 13:06:49.986582 27420 net.cpp:386] relu7 -> fc7 (in-place)
I0403 13:06:49.986963 27420 net.cpp:141] Setting up relu7
I0403 13:06:49.986990 27420 net.cpp:148] Top shape: 100 4096 (409600)
I0403 13:06:49.987038 27420 net.cpp:156] Memory required for data: 829887600
I0403 13:06:49.987054 27420 layer_factory.hpp:77] Creating layer drop7
I0403 13:06:49.987078 27420 net.cpp:91] Creating Layer drop7
I0403 13:06:49.987095 27420 net.cpp:425] drop7 <- fc7
I0403 13:06:49.987113 27420 net.cpp:386] drop7 -> fc7 (in-place)
I0403 13:06:49.987157 27420 net.cpp:141] Setting up drop7
I0403 13:06:49.987181 27420 net.cpp:148] Top shape: 100 4096 (409600)
I0403 13:06:49.987195 27420 net.cpp:156] Memory required for data: 831526000
I0403 13:06:49.987210 27420 layer_factory.hpp:77] Creating layer fc8_plantvillage
I0403 13:06:49.987229 27420 net.cpp:91] Creating Layer fc8_plantvillage
I0403 13:06:49.987246 27420 net.cpp:425] fc8_plantvillage <- fc7
I0403 13:06:49.987275 27420 net.cpp:399] fc8_plantvillage -> fc8_plantvillage
I0403 13:06:49.993980 27420 net.cpp:141] Setting up fc8_plantvillage
I0403 13:06:49.994011 27420 net.cpp:148] Top shape: 100 38 (3800)
I0403 13:06:49.994029 27420 net.cpp:156] Memory required for data: 831541200
I0403 13:06:49.994047 27420 layer_factory.hpp:77] Creating layer fc8_plantvillage_fc8_plantvillage_0_split
I0403 13:06:49.994066 27420 net.cpp:91] Creating Layer fc8_plantvillage_fc8_plantvillage_0_split
I0403 13:06:49.994082 27420 net.cpp:425] fc8_plantvillage_fc8_plantvillage_0_split <- fc8_plantvillage
I0403 13:06:49.994102 27420 net.cpp:399] fc8_plantvillage_fc8_plantvillage_0_split -> fc8_plantvillage_fc8_plantvillage_0_split_0
I0403 13:06:49.994120 27420 net.cpp:399] fc8_plantvillage_fc8_plantvillage_0_split -> fc8_plantvillage_fc8_plantvillage_0_split_1
I0403 13:06:49.994139 27420 net.cpp:399] fc8_plantvillage_fc8_plantvillage_0_split -> fc8_plantvillage_fc8_plantvillage_0_split_2
I0403 13:06:49.994215 27420 net.cpp:141] Setting up fc8_plantvillage_fc8_plantvillage_0_split
I0403 13:06:49.994240 27420 net.cpp:148] Top shape: 100 38 (3800)
I0403 13:06:49.994277 27420 net.cpp:148] Top shape: 100 38 (3800)
I0403 13:06:49.994297 27420 net.cpp:148] Top shape: 100 38 (3800)
I0403 13:06:49.994313 27420 net.cpp:156] Memory required for data: 831586800
I0403 13:06:49.994338 27420 layer_factory.hpp:77] Creating layer prob
I0403 13:06:49.994359 27420 net.cpp:91] Creating Layer prob
I0403 13:06:49.994374 27420 net.cpp:425] prob <- fc8_plantvillage_fc8_plantvillage_0_split_0
I0403 13:06:49.994393 27420 net.cpp:399] prob -> prob
I0403 13:06:49.994627 27420 net.cpp:141] Setting up prob
I0403 13:06:49.994653 27420 net.cpp:148] Top shape: 100 38 (3800)
I0403 13:06:49.994668 27420 net.cpp:156] Memory required for data: 831602000
I0403 13:06:49.994683 27420 layer_factory.hpp:77] Creating layer hdf5out
I0403 13:06:49.994705 27420 net.cpp:91] Creating Layer hdf5out
I0403 13:06:49.994724 27420 net.cpp:425] hdf5out <- prob
I0403 13:06:49.994742 27420 net.cpp:425] hdf5out <- label_data_1_split_0
I0403 13:06:49.998960 27420 net.cpp:141] Setting up hdf5out
…
