…
I0403 13:19:32.041602 27776 net.cpp:313] The NetState phase (1) differed from the phase (0) specified by a rule in layer data
I0403 13:19:32.041913 27776 net.cpp:49] Initializing net from parameters: 
state {
  phase: TEST
}
layer {
  name: "data"
  type: "Data"
  top: "data"
  top: "label"
  include {
    phase: TEST
  }
  transform_param {
    crop_size: 227
    mean_file: "/home/mohanty/data/final_dataset/lmdb/color-60-40/mean.binaryproto"
  }
  data_param {
    source: "/home/mohanty/data/final_dataset/lmdb/color-60-40/test_db"
    batch_size: 100
    backend: LMDB
  }
}
layer {
  name: "conv1"
  type: "Convolution"
  bottom: "data"
  top: "conv1"
  param {
    lr_mult: 1
    decay_mult: 1
  }
  param {
    lr_mult: 2
    decay_mult: 0
  }
  convolution_param {
    num_output: 96
    kernel_size: 11
    stride: 4
    weight_filler {
      type: "gaussian"
      std: 0.01
    }
    bias_filler {
      type: "constant"
      value: 0
    }
  }
}
layer {
  name: "relu1"
  type: "ReLU"
  bottom: "conv1"
  top: "conv1"
}
layer {
  name: "norm1"
  type: "LRN"
  bottom: "conv1"
  top: "norm1"
  lrn_param {
    local_size: 5
    alpha: 0.0001
    beta: 0.75
  }
}
layer {
  name: "pool1"
  type: "Pooling"
  bottom: "norm1"
  top: "pool1"
  pooling_param {
    pool: MAX
    kernel_size: 3
    stride: 2
  }
}
layer {
  name: "conv2"
  type: "Convolution"
  bottom: "pool1"
  top: "conv2"
  param {
    lr_mult: 1
    decay_mult: 1
  }
  param {
    lr_mult: 2
    decay_mult: 0
  }
  convolution_param {
    num_output: 256
    pad: 2
    kernel_size: 5
    group: 2
    weight_filler {
      type: "gaussian"
      std: 0.01
    }
    bias_filler {
      type: "constant"
      value: 0.1
    }
  }
}
layer {
  name: "relu2"
  type: "ReLU"
  bottom: "conv2"
  top: "conv2"
}
layer {
  name: "norm2"
  type: "LRN"
  bottom: "conv2"
  top: "norm2"
  lrn_param {
    local_size: 5
    alpha: 0.0001
    beta: 0.75
  }
}
layer {
  name: "pool2"
  type: "Pooling"
  bottom: "norm2"
  top: "pool2"
  pooling_param {
    pool: MAX
    kernel_size: 3
    stride: 2
  }
}
layer {
  name: "conv3"
  type: "Convolution"
  bottom: "pool2"
  top: "conv3"
  param {
    lr_mult: 1
    decay_mult: 1
  }
  param {
    lr_mult: 2
    decay_mult: 0
  }
  convolution_param {
    num_output: 384
    pad: 1
    kernel_size: 3
    weight_filler {
      type: "gaussian"
      std: 0.01
    }
    bias_filler {
      type: "constant"
      value: 0
    }
  }
}
layer {
  name: "relu3"
  type: "ReLU"
  bottom: "conv3"
  top: "conv3"
}
layer {
  name: "conv4"
  type: "Convolution"
  bottom: "conv3"
  top: "conv4"
  param {
    lr_mult: 1
    decay_mult: 1
  }
  param {
    lr_mult: 2
    decay_mult: 0
  }
  convolution_param {
    num_output: 384
    pad: 1
    kernel_size: 3
    group: 2
    weight_filler {
      type: "gaussian"
      std: 0.01
    }
    bias_filler {
      type: "constant"
      value: 0.1
    }
  }
}
layer {
  name: "relu4"
  type: "ReLU"
  bottom: "conv4"
  top: "conv4"
}
layer {
  name: "conv5"
  type: "Convolution"
  bottom: "conv4"
  top: "conv5"
  param {
    lr_mult: 1
    decay_mult: 1
  }
  param {
    lr_mult: 2
    decay_mult: 0
  }
  convolution_param {
    num_output: 256
    pad: 1
    kernel_size: 3
    group: 2
    weight_filler {
      type: "gaussian"
      std: 0.01
    }
    bias_filler {
      type: "constant"
      value: 0.1
    }
  }
}
layer {
  name: "relu5"
  type: "ReLU"
  bottom: "conv5"
  top: "conv5"
}
layer {
  name: "pool5"
  type: "Pooling"
  bottom: "conv5"
  top: "pool5"
  pooling_param {
    pool: MAX
    kernel_size: 3
    stride: 2
  }
}
layer {
  name: "fc6"
  type: "InnerProduct"
  bottom: "pool5"
  top: "fc6"
  param {
    lr_mult: 1
    decay_mult: 1
  }
  param {
    lr_mult: 2
    decay_mult: 0
  }
  inner_product_param {
    num_output: 4096
    weight_filler {
      type: "gaussian"
      std: 0.005
    }
    bias_filler {
      type: "constant"
      value: 0.1
    }
  }
}
layer {
  name: "relu6"
  type: "ReLU"
  bottom: "fc6"
  top: "fc6"
}
layer {
  name: "drop6"
  type: "Dropout"
  bottom: "fc6"
  top: "fc6"
  dropout_param {
    dropout_ratio: 0.5
  }
}
layer {
  name: "fc7"
  type: "InnerProduct"
  bottom: "fc6"
  top: "fc7"
  param {
    lr_mult: 1
    decay_mult: 1
  }
  param {
    lr_mult: 2
    decay_mult: 0
  }
  inner_product_param {
    num_output: 4096
    weight_filler {
      type: "gaussian"
      std: 0.005
    }
    bias_filler {
      type: "constant"
      value: 0.1
    }
  }
}
layer {
  name: "relu7"
  type: "ReLU"
  bottom: "fc7"
  top: "fc7"
}
layer {
  name: "drop7"
  type: "Dropout"
  bottom: "fc7"
  top: "fc7"
  dropout_param {
    dropout_ratio: 0.5
  }
}
layer {
  name: "fc8_plantvillage"
  type: "InnerProduct"
  bottom: "fc7"
  top: "fc8_plantvillage"
  param {
    lr_mult: 1
    decay_mult: 1
  }
  param {
    lr_mult: 2
    decay_mult: 0
  }
  inner_product_param {
    num_output: 38
    weight_filler {
      type: "gaussian"
      std: 0.01
    }
    bias_filler {
      type: "constant"
      value: 0
    }
  }
}
layer {
  name: "prob"
  type: "Softmax"
  bottom: "fc8_plantvillage"
  top: "prob"
  include {
    phase: TEST
  }
}
layer {
  name: "hdf5out"
  type: "HDF5Output"
  bottom: "prob"
  bottom: "label"
  include {
    phase: TEST
  }
  hdf5_output_param {
    file_name: "hdf5_dumps/iter_6500.h5"
  }
}
layer {
  name: "loss"
  type: "SoftmaxWithLoss"
  bottom: "fc8_plantvillage"
  bottom: "label"
  top: "loss"
}
layer {
  name: "accuracy"
  type: "Accuracy"
  bottom: "fc8_plantvillage"
  bottom: "label"
  top: "accuracy"
  include {
    phase: TEST
  }
}
I0403 13:19:32.042479 27776 layer_factory.hpp:77] Creating layer data
I0403 13:19:32.043130 27776 net.cpp:91] Creating Layer data
I0403 13:19:32.043165 27776 net.cpp:399] data -> data
I0403 13:19:32.043220 27776 net.cpp:399] data -> label
I0403 13:19:32.043256 27776 data_transformer.cpp:25] Loading mean file from: /home/mohanty/data/final_dataset/lmdb/color-60-40/mean.binaryproto
I0403 13:19:32.045781 27779 db_lmdb.cpp:38] Opened lmdb /home/mohanty/data/final_dataset/lmdb/color-60-40/test_db
I0403 13:19:32.058133 27776 data_layer.cpp:41] output data size: 100,3,227,227
I0403 13:19:32.190301 27776 net.cpp:141] Setting up data
I0403 13:19:32.190393 27776 net.cpp:148] Top shape: 100 3 227 227 (15458700)
I0403 13:19:32.190418 27776 net.cpp:148] Top shape: 100 (100)
I0403 13:19:32.190433 27776 net.cpp:156] Memory required for data: 61835200
I0403 13:19:32.190460 27776 layer_factory.hpp:77] Creating layer label_data_1_split
I0403 13:19:32.190486 27776 net.cpp:91] Creating Layer label_data_1_split
I0403 13:19:32.190505 27776 net.cpp:425] label_data_1_split <- label
I0403 13:19:32.190537 27776 net.cpp:399] label_data_1_split -> label_data_1_split_0
I0403 13:19:32.190578 27776 net.cpp:399] label_data_1_split -> label_data_1_split_1
I0403 13:19:32.190598 27776 net.cpp:399] label_data_1_split -> label_data_1_split_2
I0403 13:19:32.190662 27776 net.cpp:141] Setting up label_data_1_split
I0403 13:19:32.190687 27776 net.cpp:148] Top shape: 100 (100)
I0403 13:19:32.190704 27776 net.cpp:148] Top shape: 100 (100)
I0403 13:19:32.190721 27776 net.cpp:148] Top shape: 100 (100)
I0403 13:19:32.190737 27776 net.cpp:156] Memory required for data: 61836400
I0403 13:19:32.190752 27776 layer_factory.hpp:77] Creating layer conv1
I0403 13:19:32.190785 27776 net.cpp:91] Creating Layer conv1
I0403 13:19:32.190804 27776 net.cpp:425] conv1 <- data
I0403 13:19:32.190824 27776 net.cpp:399] conv1 -> conv1
I0403 13:19:32.338207 27776 net.cpp:141] Setting up conv1
I0403 13:19:32.338301 27776 net.cpp:148] Top shape: 100 96 55 55 (29040000)
I0403 13:19:32.338321 27776 net.cpp:156] Memory required for data: 177996400
I0403 13:19:32.338354 27776 layer_factory.hpp:77] Creating layer relu1
I0403 13:19:32.338384 27776 net.cpp:91] Creating Layer relu1
I0403 13:19:32.338403 27776 net.cpp:425] relu1 <- conv1
I0403 13:19:32.338428 27776 net.cpp:386] relu1 -> conv1 (in-place)
I0403 13:19:32.338719 27776 net.cpp:141] Setting up relu1
I0403 13:19:32.338747 27776 net.cpp:148] Top shape: 100 96 55 55 (29040000)
I0403 13:19:32.338763 27776 net.cpp:156] Memory required for data: 294156400
I0403 13:19:32.338810 27776 layer_factory.hpp:77] Creating layer norm1
I0403 13:19:32.338840 27776 net.cpp:91] Creating Layer norm1
I0403 13:19:32.338860 27776 net.cpp:425] norm1 <- conv1
I0403 13:19:32.338879 27776 net.cpp:399] norm1 -> norm1
I0403 13:19:32.339234 27776 net.cpp:141] Setting up norm1
I0403 13:19:32.339263 27776 net.cpp:148] Top shape: 100 96 55 55 (29040000)
I0403 13:19:32.339279 27776 net.cpp:156] Memory required for data: 410316400
I0403 13:19:32.339300 27776 layer_factory.hpp:77] Creating layer pool1
I0403 13:19:32.339328 27776 net.cpp:91] Creating Layer pool1
I0403 13:19:32.339345 27776 net.cpp:425] pool1 <- norm1
I0403 13:19:32.339365 27776 net.cpp:399] pool1 -> pool1
I0403 13:19:32.339438 27776 net.cpp:141] Setting up pool1
I0403 13:19:32.339463 27776 net.cpp:148] Top shape: 100 96 27 27 (6998400)
I0403 13:19:32.339479 27776 net.cpp:156] Memory required for data: 438310000
I0403 13:19:32.339494 27776 layer_factory.hpp:77] Creating layer conv2
I0403 13:19:32.339614 27776 net.cpp:91] Creating Layer conv2
I0403 13:19:32.339638 27776 net.cpp:425] conv2 <- pool1
I0403 13:19:32.339661 27776 net.cpp:399] conv2 -> conv2
I0403 13:19:32.355368 27776 net.cpp:141] Setting up conv2
I0403 13:19:32.355413 27776 net.cpp:148] Top shape: 100 256 27 27 (18662400)
I0403 13:19:32.355437 27776 net.cpp:156] Memory required for data: 512959600
I0403 13:19:32.355460 27776 layer_factory.hpp:77] Creating layer relu2
I0403 13:19:32.355481 27776 net.cpp:91] Creating Layer relu2
I0403 13:19:32.355499 27776 net.cpp:425] relu2 <- conv2
I0403 13:19:32.355518 27776 net.cpp:386] relu2 -> conv2 (in-place)
I0403 13:19:32.355864 27776 net.cpp:141] Setting up relu2
I0403 13:19:32.355895 27776 net.cpp:148] Top shape: 100 256 27 27 (18662400)
I0403 13:19:32.355911 27776 net.cpp:156] Memory required for data: 587609200
I0403 13:19:32.355928 27776 layer_factory.hpp:77] Creating layer norm2
I0403 13:19:32.355949 27776 net.cpp:91] Creating Layer norm2
I0403 13:19:32.355965 27776 net.cpp:425] norm2 <- conv2
I0403 13:19:32.355986 27776 net.cpp:399] norm2 -> norm2
I0403 13:19:32.356186 27776 net.cpp:141] Setting up norm2
I0403 13:19:32.356215 27776 net.cpp:148] Top shape: 100 256 27 27 (18662400)
I0403 13:19:32.356230 27776 net.cpp:156] Memory required for data: 662258800
I0403 13:19:32.356245 27776 layer_factory.hpp:77] Creating layer pool2
I0403 13:19:32.356267 27776 net.cpp:91] Creating Layer pool2
I0403 13:19:32.356292 27776 net.cpp:425] pool2 <- norm2
I0403 13:19:32.356312 27776 net.cpp:399] pool2 -> pool2
I0403 13:19:32.356369 27776 net.cpp:141] Setting up pool2
I0403 13:19:32.356395 27776 net.cpp:148] Top shape: 100 256 13 13 (4326400)
I0403 13:19:32.356410 27776 net.cpp:156] Memory required for data: 679564400
I0403 13:19:32.356426 27776 layer_factory.hpp:77] Creating layer conv3
I0403 13:19:32.356452 27776 net.cpp:91] Creating Layer conv3
I0403 13:19:32.356470 27776 net.cpp:425] conv3 <- pool2
I0403 13:19:32.356492 27776 net.cpp:399] conv3 -> conv3
I0403 13:19:32.395846 27776 net.cpp:141] Setting up conv3
I0403 13:19:32.395920 27776 net.cpp:148] Top shape: 100 384 13 13 (6489600)
I0403 13:19:32.395936 27776 net.cpp:156] Memory required for data: 705522800
I0403 13:19:32.395962 27776 layer_factory.hpp:77] Creating layer relu3
I0403 13:19:32.395988 27776 net.cpp:91] Creating Layer relu3
I0403 13:19:32.396008 27776 net.cpp:425] relu3 <- conv3
I0403 13:19:32.396028 27776 net.cpp:386] relu3 -> conv3 (in-place)
I0403 13:19:32.396322 27776 net.cpp:141] Setting up relu3
I0403 13:19:32.396349 27776 net.cpp:148] Top shape: 100 384 13 13 (6489600)
I0403 13:19:32.396365 27776 net.cpp:156] Memory required for data: 731481200
I0403 13:19:32.396381 27776 layer_factory.hpp:77] Creating layer conv4
I0403 13:19:32.396409 27776 net.cpp:91] Creating Layer conv4
I0403 13:19:32.396428 27776 net.cpp:425] conv4 <- conv3
I0403 13:19:32.396450 27776 net.cpp:399] conv4 -> conv4
I0403 13:19:32.426126 27776 net.cpp:141] Setting up conv4
I0403 13:19:32.426190 27776 net.cpp:148] Top shape: 100 384 13 13 (6489600)
I0403 13:19:32.426240 27776 net.cpp:156] Memory required for data: 757439600
I0403 13:19:32.426265 27776 layer_factory.hpp:77] Creating layer relu4
I0403 13:19:32.426307 27776 net.cpp:91] Creating Layer relu4
I0403 13:19:32.426327 27776 net.cpp:425] relu4 <- conv4
I0403 13:19:32.426348 27776 net.cpp:386] relu4 -> conv4 (in-place)
I0403 13:19:32.426638 27776 net.cpp:141] Setting up relu4
I0403 13:19:32.426666 27776 net.cpp:148] Top shape: 100 384 13 13 (6489600)
I0403 13:19:32.426682 27776 net.cpp:156] Memory required for data: 783398000
I0403 13:19:32.426697 27776 layer_factory.hpp:77] Creating layer conv5
I0403 13:19:32.426723 27776 net.cpp:91] Creating Layer conv5
I0403 13:19:32.426741 27776 net.cpp:425] conv5 <- conv4
I0403 13:19:32.426764 27776 net.cpp:399] conv5 -> conv5
I0403 13:19:32.447221 27776 net.cpp:141] Setting up conv5
I0403 13:19:32.447273 27776 net.cpp:148] Top shape: 100 256 13 13 (4326400)
I0403 13:19:32.447296 27776 net.cpp:156] Memory required for data: 800703600
I0403 13:19:32.447326 27776 layer_factory.hpp:77] Creating layer relu5
I0403 13:19:32.447350 27776 net.cpp:91] Creating Layer relu5
I0403 13:19:32.447366 27776 net.cpp:425] relu5 <- conv5
I0403 13:19:32.447384 27776 net.cpp:386] relu5 -> conv5 (in-place)
I0403 13:19:32.447662 27776 net.cpp:141] Setting up relu5
I0403 13:19:32.447692 27776 net.cpp:148] Top shape: 100 256 13 13 (4326400)
I0403 13:19:32.447710 27776 net.cpp:156] Memory required for data: 818009200
I0403 13:19:32.447726 27776 layer_factory.hpp:77] Creating layer pool5
I0403 13:19:32.447748 27776 net.cpp:91] Creating Layer pool5
I0403 13:19:32.447765 27776 net.cpp:425] pool5 <- conv5
I0403 13:19:32.447788 27776 net.cpp:399] pool5 -> pool5
I0403 13:19:32.447850 27776 net.cpp:141] Setting up pool5
I0403 13:19:32.447875 27776 net.cpp:148] Top shape: 100 256 6 6 (921600)
I0403 13:19:32.447891 27776 net.cpp:156] Memory required for data: 821695600
I0403 13:19:32.447907 27776 layer_factory.hpp:77] Creating layer fc6
I0403 13:19:32.447937 27776 net.cpp:91] Creating Layer fc6
I0403 13:19:32.447955 27776 net.cpp:425] fc6 <- pool5
I0403 13:19:32.447976 27776 net.cpp:399] fc6 -> fc6
I0403 13:19:34.015058 27776 net.cpp:141] Setting up fc6
I0403 13:19:34.015133 27776 net.cpp:148] Top shape: 100 4096 (409600)
I0403 13:19:34.015151 27776 net.cpp:156] Memory required for data: 823334000
I0403 13:19:34.015172 27776 layer_factory.hpp:77] Creating layer relu6
I0403 13:19:34.015195 27776 net.cpp:91] Creating Layer relu6
I0403 13:19:34.015211 27776 net.cpp:425] relu6 <- fc6
I0403 13:19:34.015233 27776 net.cpp:386] relu6 -> fc6 (in-place)
I0403 13:19:34.015476 27776 net.cpp:141] Setting up relu6
I0403 13:19:34.015502 27776 net.cpp:148] Top shape: 100 4096 (409600)
I0403 13:19:34.015523 27776 net.cpp:156] Memory required for data: 824972400
I0403 13:19:34.015540 27776 layer_factory.hpp:77] Creating layer drop6
I0403 13:19:34.015560 27776 net.cpp:91] Creating Layer drop6
I0403 13:19:34.015576 27776 net.cpp:425] drop6 <- fc6
I0403 13:19:34.015594 27776 net.cpp:386] drop6 -> fc6 (in-place)
I0403 13:19:34.015658 27776 net.cpp:141] Setting up drop6
I0403 13:19:34.015681 27776 net.cpp:148] Top shape: 100 4096 (409600)
I0403 13:19:34.015697 27776 net.cpp:156] Memory required for data: 826610800
I0403 13:19:34.015712 27776 layer_factory.hpp:77] Creating layer fc7
I0403 13:19:34.015733 27776 net.cpp:91] Creating Layer fc7
I0403 13:19:34.015750 27776 net.cpp:425] fc7 <- fc6
I0403 13:19:34.015769 27776 net.cpp:399] fc7 -> fc7
I0403 13:19:34.720571 27776 net.cpp:141] Setting up fc7
I0403 13:19:34.720646 27776 net.cpp:148] Top shape: 100 4096 (409600)
I0403 13:19:34.720664 27776 net.cpp:156] Memory required for data: 828249200
I0403 13:19:34.720685 27776 layer_factory.hpp:77] Creating layer relu7
I0403 13:19:34.720710 27776 net.cpp:91] Creating Layer relu7
I0403 13:19:34.720731 27776 net.cpp:425] relu7 <- fc7
I0403 13:19:34.720751 27776 net.cpp:386] relu7 -> fc7 (in-place)
I0403 13:19:34.721137 27776 net.cpp:141] Setting up relu7
I0403 13:19:34.721163 27776 net.cpp:148] Top shape: 100 4096 (409600)
I0403 13:19:34.721212 27776 net.cpp:156] Memory required for data: 829887600
I0403 13:19:34.721230 27776 layer_factory.hpp:77] Creating layer drop7
I0403 13:19:34.721256 27776 net.cpp:91] Creating Layer drop7
I0403 13:19:34.721272 27776 net.cpp:425] drop7 <- fc7
I0403 13:19:34.721299 27776 net.cpp:386] drop7 -> fc7 (in-place)
I0403 13:19:34.721346 27776 net.cpp:141] Setting up drop7
I0403 13:19:34.721369 27776 net.cpp:148] Top shape: 100 4096 (409600)
I0403 13:19:34.721385 27776 net.cpp:156] Memory required for data: 831526000
I0403 13:19:34.721400 27776 layer_factory.hpp:77] Creating layer fc8_plantvillage
I0403 13:19:34.721420 27776 net.cpp:91] Creating Layer fc8_plantvillage
I0403 13:19:34.721434 27776 net.cpp:425] fc8_plantvillage <- fc7
I0403 13:19:34.721456 27776 net.cpp:399] fc8_plantvillage -> fc8_plantvillage
I0403 13:19:34.728231 27776 net.cpp:141] Setting up fc8_plantvillage
I0403 13:19:34.728263 27776 net.cpp:148] Top shape: 100 38 (3800)
I0403 13:19:34.728279 27776 net.cpp:156] Memory required for data: 831541200
I0403 13:19:34.728304 27776 layer_factory.hpp:77] Creating layer fc8_plantvillage_fc8_plantvillage_0_split
I0403 13:19:34.728324 27776 net.cpp:91] Creating Layer fc8_plantvillage_fc8_plantvillage_0_split
I0403 13:19:34.728340 27776 net.cpp:425] fc8_plantvillage_fc8_plantvillage_0_split <- fc8_plantvillage
I0403 13:19:34.728358 27776 net.cpp:399] fc8_plantvillage_fc8_plantvillage_0_split -> fc8_plantvillage_fc8_plantvillage_0_split_0
I0403 13:19:34.728377 27776 net.cpp:399] fc8_plantvillage_fc8_plantvillage_0_split -> fc8_plantvillage_fc8_plantvillage_0_split_1
I0403 13:19:34.728404 27776 net.cpp:399] fc8_plantvillage_fc8_plantvillage_0_split -> fc8_plantvillage_fc8_plantvillage_0_split_2
I0403 13:19:34.728479 27776 net.cpp:141] Setting up fc8_plantvillage_fc8_plantvillage_0_split
I0403 13:19:34.728503 27776 net.cpp:148] Top shape: 100 38 (3800)
I0403 13:19:34.728520 27776 net.cpp:148] Top shape: 100 38 (3800)
I0403 13:19:34.728536 27776 net.cpp:148] Top shape: 100 38 (3800)
I0403 13:19:34.728550 27776 net.cpp:156] Memory required for data: 831586800
I0403 13:19:34.728565 27776 layer_factory.hpp:77] Creating layer prob
I0403 13:19:34.728585 27776 net.cpp:91] Creating Layer prob
I0403 13:19:34.728600 27776 net.cpp:425] prob <- fc8_plantvillage_fc8_plantvillage_0_split_0
I0403 13:19:34.728618 27776 net.cpp:399] prob -> prob
I0403 13:19:34.728838 27776 net.cpp:141] Setting up prob
I0403 13:19:34.728864 27776 net.cpp:148] Top shape: 100 38 (3800)
I0403 13:19:34.728879 27776 net.cpp:156] Memory required for data: 831602000
I0403 13:19:34.728895 27776 layer_factory.hpp:77] Creating layer hdf5out
I0403 13:19:34.728917 27776 net.cpp:91] Creating Layer hdf5out
I0403 13:19:34.728935 27776 net.cpp:425] hdf5out <- prob
I0403 13:19:34.728951 27776 net.cpp:425] hdf5out <- label_data_1_split_0
I0403 13:19:34.733012 27776 net.cpp:141] Setting up hdf5out
…
