…
I0403 13:25:02.497872 28046 net.cpp:313] The NetState phase (1) differed from the phase (0) specified by a rule in layer data
I0403 13:25:02.498170 28046 net.cpp:49] Initializing net from parameters: 
state {
  phase: TEST
}
layer {
  name: "data"
  type: "Data"
  top: "data"
  top: "label"
  include {
    phase: TEST
  }
  transform_param {
    crop_size: 227
    mean_file: "/home/mohanty/data/final_dataset/lmdb/color-60-40/mean.binaryproto"
  }
  data_param {
    source: "/home/mohanty/data/final_dataset/lmdb/color-60-40/test_db"
    batch_size: 100
    backend: LMDB
  }
}
layer {
  name: "conv1"
  type: "Convolution"
  bottom: "data"
  top: "conv1"
  param {
    lr_mult: 1
    decay_mult: 1
  }
  param {
    lr_mult: 2
    decay_mult: 0
  }
  convolution_param {
    num_output: 96
    kernel_size: 11
    stride: 4
    weight_filler {
      type: "gaussian"
      std: 0.01
    }
    bias_filler {
      type: "constant"
      value: 0
    }
  }
}
layer {
  name: "relu1"
  type: "ReLU"
  bottom: "conv1"
  top: "conv1"
}
layer {
  name: "norm1"
  type: "LRN"
  bottom: "conv1"
  top: "norm1"
  lrn_param {
    local_size: 5
    alpha: 0.0001
    beta: 0.75
  }
}
layer {
  name: "pool1"
  type: "Pooling"
  bottom: "norm1"
  top: "pool1"
  pooling_param {
    pool: MAX
    kernel_size: 3
    stride: 2
  }
}
layer {
  name: "conv2"
  type: "Convolution"
  bottom: "pool1"
  top: "conv2"
  param {
    lr_mult: 1
    decay_mult: 1
  }
  param {
    lr_mult: 2
    decay_mult: 0
  }
  convolution_param {
    num_output: 256
    pad: 2
    kernel_size: 5
    group: 2
    weight_filler {
      type: "gaussian"
      std: 0.01
    }
    bias_filler {
      type: "constant"
      value: 0.1
    }
  }
}
layer {
  name: "relu2"
  type: "ReLU"
  bottom: "conv2"
  top: "conv2"
}
layer {
  name: "norm2"
  type: "LRN"
  bottom: "conv2"
  top: "norm2"
  lrn_param {
    local_size: 5
    alpha: 0.0001
    beta: 0.75
  }
}
layer {
  name: "pool2"
  type: "Pooling"
  bottom: "norm2"
  top: "pool2"
  pooling_param {
    pool: MAX
    kernel_size: 3
    stride: 2
  }
}
layer {
  name: "conv3"
  type: "Convolution"
  bottom: "pool2"
  top: "conv3"
  param {
    lr_mult: 1
    decay_mult: 1
  }
  param {
    lr_mult: 2
    decay_mult: 0
  }
  convolution_param {
    num_output: 384
    pad: 1
    kernel_size: 3
    weight_filler {
      type: "gaussian"
      std: 0.01
    }
    bias_filler {
      type: "constant"
      value: 0
    }
  }
}
layer {
  name: "relu3"
  type: "ReLU"
  bottom: "conv3"
  top: "conv3"
}
layer {
  name: "conv4"
  type: "Convolution"
  bottom: "conv3"
  top: "conv4"
  param {
    lr_mult: 1
    decay_mult: 1
  }
  param {
    lr_mult: 2
    decay_mult: 0
  }
  convolution_param {
    num_output: 384
    pad: 1
    kernel_size: 3
    group: 2
    weight_filler {
      type: "gaussian"
      std: 0.01
    }
    bias_filler {
      type: "constant"
      value: 0.1
    }
  }
}
layer {
  name: "relu4"
  type: "ReLU"
  bottom: "conv4"
  top: "conv4"
}
layer {
  name: "conv5"
  type: "Convolution"
  bottom: "conv4"
  top: "conv5"
  param {
    lr_mult: 1
    decay_mult: 1
  }
  param {
    lr_mult: 2
    decay_mult: 0
  }
  convolution_param {
    num_output: 256
    pad: 1
    kernel_size: 3
    group: 2
    weight_filler {
      type: "gaussian"
      std: 0.01
    }
    bias_filler {
      type: "constant"
      value: 0.1
    }
  }
}
layer {
  name: "relu5"
  type: "ReLU"
  bottom: "conv5"
  top: "conv5"
}
layer {
  name: "pool5"
  type: "Pooling"
  bottom: "conv5"
  top: "pool5"
  pooling_param {
    pool: MAX
    kernel_size: 3
    stride: 2
  }
}
layer {
  name: "fc6"
  type: "InnerProduct"
  bottom: "pool5"
  top: "fc6"
  param {
    lr_mult: 1
    decay_mult: 1
  }
  param {
    lr_mult: 2
    decay_mult: 0
  }
  inner_product_param {
    num_output: 4096
    weight_filler {
      type: "gaussian"
      std: 0.005
    }
    bias_filler {
      type: "constant"
      value: 0.1
    }
  }
}
layer {
  name: "relu6"
  type: "ReLU"
  bottom: "fc6"
  top: "fc6"
}
layer {
  name: "drop6"
  type: "Dropout"
  bottom: "fc6"
  top: "fc6"
  dropout_param {
    dropout_ratio: 0.5
  }
}
layer {
  name: "fc7"
  type: "InnerProduct"
  bottom: "fc6"
  top: "fc7"
  param {
    lr_mult: 1
    decay_mult: 1
  }
  param {
    lr_mult: 2
    decay_mult: 0
  }
  inner_product_param {
    num_output: 4096
    weight_filler {
      type: "gaussian"
      std: 0.005
    }
    bias_filler {
      type: "constant"
      value: 0.1
    }
  }
}
layer {
  name: "relu7"
  type: "ReLU"
  bottom: "fc7"
  top: "fc7"
}
layer {
  name: "drop7"
  type: "Dropout"
  bottom: "fc7"
  top: "fc7"
  dropout_param {
    dropout_ratio: 0.5
  }
}
layer {
  name: "fc8_plantvillage"
  type: "InnerProduct"
  bottom: "fc7"
  top: "fc8_plantvillage"
  param {
    lr_mult: 1
    decay_mult: 1
  }
  param {
    lr_mult: 2
    decay_mult: 0
  }
  inner_product_param {
    num_output: 38
    weight_filler {
      type: "gaussian"
      std: 0.01
    }
    bias_filler {
      type: "constant"
      value: 0
    }
  }
}
layer {
  name: "prob"
  type: "Softmax"
  bottom: "fc8_plantvillage"
  top: "prob"
  include {
    phase: TEST
  }
}
layer {
  name: "hdf5out"
  type: "HDF5Output"
  bottom: "prob"
  bottom: "label"
  include {
    phase: TEST
  }
  hdf5_output_param {
    file_name: "hdf5_dumps/iter_8775.h5"
  }
}
layer {
  name: "loss"
  type: "SoftmaxWithLoss"
  bottom: "fc8_plantvillage"
  bottom: "label"
  top: "loss"
}
layer {
  name: "accuracy"
  type: "Accuracy"
  bottom: "fc8_plantvillage"
  bottom: "label"
  top: "accuracy"
  include {
    phase: TEST
  }
}
I0403 13:25:02.498839 28046 layer_factory.hpp:77] Creating layer data
I0403 13:25:02.499505 28046 net.cpp:91] Creating Layer data
I0403 13:25:02.499536 28046 net.cpp:399] data -> data
I0403 13:25:02.499588 28046 net.cpp:399] data -> label
I0403 13:25:02.499625 28046 data_transformer.cpp:25] Loading mean file from: /home/mohanty/data/final_dataset/lmdb/color-60-40/mean.binaryproto
I0403 13:25:02.502544 28051 db_lmdb.cpp:38] Opened lmdb /home/mohanty/data/final_dataset/lmdb/color-60-40/test_db
I0403 13:25:02.515657 28046 data_layer.cpp:41] output data size: 100,3,227,227
I0403 13:25:02.649639 28046 net.cpp:141] Setting up data
I0403 13:25:02.649701 28046 net.cpp:148] Top shape: 100 3 227 227 (15458700)
I0403 13:25:02.649725 28046 net.cpp:148] Top shape: 100 (100)
I0403 13:25:02.649740 28046 net.cpp:156] Memory required for data: 61835200
I0403 13:25:02.649770 28046 layer_factory.hpp:77] Creating layer label_data_1_split
I0403 13:25:02.649796 28046 net.cpp:91] Creating Layer label_data_1_split
I0403 13:25:02.649814 28046 net.cpp:425] label_data_1_split <- label
I0403 13:25:02.649847 28046 net.cpp:399] label_data_1_split -> label_data_1_split_0
I0403 13:25:02.649873 28046 net.cpp:399] label_data_1_split -> label_data_1_split_1
I0403 13:25:02.649893 28046 net.cpp:399] label_data_1_split -> label_data_1_split_2
I0403 13:25:02.649955 28046 net.cpp:141] Setting up label_data_1_split
I0403 13:25:02.649981 28046 net.cpp:148] Top shape: 100 (100)
I0403 13:25:02.649997 28046 net.cpp:148] Top shape: 100 (100)
I0403 13:25:02.650013 28046 net.cpp:148] Top shape: 100 (100)
I0403 13:25:02.650027 28046 net.cpp:156] Memory required for data: 61836400
I0403 13:25:02.650041 28046 layer_factory.hpp:77] Creating layer conv1
I0403 13:25:02.650074 28046 net.cpp:91] Creating Layer conv1
I0403 13:25:02.650091 28046 net.cpp:425] conv1 <- data
I0403 13:25:02.650111 28046 net.cpp:399] conv1 -> conv1
I0403 13:25:02.797936 28046 net.cpp:141] Setting up conv1
I0403 13:25:02.798013 28046 net.cpp:148] Top shape: 100 96 55 55 (29040000)
I0403 13:25:02.798032 28046 net.cpp:156] Memory required for data: 177996400
I0403 13:25:02.798063 28046 layer_factory.hpp:77] Creating layer relu1
I0403 13:25:02.798091 28046 net.cpp:91] Creating Layer relu1
I0403 13:25:02.798110 28046 net.cpp:425] relu1 <- conv1
I0403 13:25:02.798130 28046 net.cpp:386] relu1 -> conv1 (in-place)
I0403 13:25:02.798389 28046 net.cpp:141] Setting up relu1
I0403 13:25:02.798418 28046 net.cpp:148] Top shape: 100 96 55 55 (29040000)
I0403 13:25:02.798434 28046 net.cpp:156] Memory required for data: 294156400
I0403 13:25:02.798482 28046 layer_factory.hpp:77] Creating layer norm1
I0403 13:25:02.798512 28046 net.cpp:91] Creating Layer norm1
I0403 13:25:02.798532 28046 net.cpp:425] norm1 <- conv1
I0403 13:25:02.798552 28046 net.cpp:399] norm1 -> norm1
I0403 13:25:02.798857 28046 net.cpp:141] Setting up norm1
I0403 13:25:02.798887 28046 net.cpp:148] Top shape: 100 96 55 55 (29040000)
I0403 13:25:02.798903 28046 net.cpp:156] Memory required for data: 410316400
I0403 13:25:02.798918 28046 layer_factory.hpp:77] Creating layer pool1
I0403 13:25:02.798943 28046 net.cpp:91] Creating Layer pool1
I0403 13:25:02.798961 28046 net.cpp:425] pool1 <- norm1
I0403 13:25:02.798979 28046 net.cpp:399] pool1 -> pool1
I0403 13:25:02.799046 28046 net.cpp:141] Setting up pool1
I0403 13:25:02.799070 28046 net.cpp:148] Top shape: 100 96 27 27 (6998400)
I0403 13:25:02.799087 28046 net.cpp:156] Memory required for data: 438310000
I0403 13:25:02.799101 28046 layer_factory.hpp:77] Creating layer conv2
I0403 13:25:02.799126 28046 net.cpp:91] Creating Layer conv2
I0403 13:25:02.799144 28046 net.cpp:425] conv2 <- pool1
I0403 13:25:02.799162 28046 net.cpp:399] conv2 -> conv2
I0403 13:25:02.814112 28046 net.cpp:141] Setting up conv2
I0403 13:25:02.814147 28046 net.cpp:148] Top shape: 100 256 27 27 (18662400)
I0403 13:25:02.814165 28046 net.cpp:156] Memory required for data: 512959600
I0403 13:25:02.814189 28046 layer_factory.hpp:77] Creating layer relu2
I0403 13:25:02.814209 28046 net.cpp:91] Creating Layer relu2
I0403 13:25:02.814225 28046 net.cpp:425] relu2 <- conv2
I0403 13:25:02.814244 28046 net.cpp:386] relu2 -> conv2 (in-place)
I0403 13:25:02.814517 28046 net.cpp:141] Setting up relu2
I0403 13:25:02.814546 28046 net.cpp:148] Top shape: 100 256 27 27 (18662400)
I0403 13:25:02.814563 28046 net.cpp:156] Memory required for data: 587609200
I0403 13:25:02.814579 28046 layer_factory.hpp:77] Creating layer norm2
I0403 13:25:02.814601 28046 net.cpp:91] Creating Layer norm2
I0403 13:25:02.814617 28046 net.cpp:425] norm2 <- conv2
I0403 13:25:02.814635 28046 net.cpp:399] norm2 -> norm2
I0403 13:25:02.814817 28046 net.cpp:141] Setting up norm2
I0403 13:25:02.814846 28046 net.cpp:148] Top shape: 100 256 27 27 (18662400)
I0403 13:25:02.814859 28046 net.cpp:156] Memory required for data: 662258800
I0403 13:25:02.814874 28046 layer_factory.hpp:77] Creating layer pool2
I0403 13:25:02.814894 28046 net.cpp:91] Creating Layer pool2
I0403 13:25:02.814909 28046 net.cpp:425] pool2 <- norm2
I0403 13:25:02.814927 28046 net.cpp:399] pool2 -> pool2
I0403 13:25:02.814978 28046 net.cpp:141] Setting up pool2
I0403 13:25:02.815001 28046 net.cpp:148] Top shape: 100 256 13 13 (4326400)
I0403 13:25:02.815016 28046 net.cpp:156] Memory required for data: 679564400
I0403 13:25:02.815029 28046 layer_factory.hpp:77] Creating layer conv3
I0403 13:25:02.815052 28046 net.cpp:91] Creating Layer conv3
I0403 13:25:02.815068 28046 net.cpp:425] conv3 <- pool2
I0403 13:25:02.815099 28046 net.cpp:399] conv3 -> conv3
I0403 13:25:02.853615 28046 net.cpp:141] Setting up conv3
I0403 13:25:02.853688 28046 net.cpp:148] Top shape: 100 384 13 13 (6489600)
I0403 13:25:02.853703 28046 net.cpp:156] Memory required for data: 705522800
I0403 13:25:02.853729 28046 layer_factory.hpp:77] Creating layer relu3
I0403 13:25:02.853752 28046 net.cpp:91] Creating Layer relu3
I0403 13:25:02.853770 28046 net.cpp:425] relu3 <- conv3
I0403 13:25:02.853790 28046 net.cpp:386] relu3 -> conv3 (in-place)
I0403 13:25:02.854058 28046 net.cpp:141] Setting up relu3
I0403 13:25:02.854085 28046 net.cpp:148] Top shape: 100 384 13 13 (6489600)
I0403 13:25:02.854101 28046 net.cpp:156] Memory required for data: 731481200
I0403 13:25:02.854116 28046 layer_factory.hpp:77] Creating layer conv4
I0403 13:25:02.854141 28046 net.cpp:91] Creating Layer conv4
I0403 13:25:02.854158 28046 net.cpp:425] conv4 <- conv3
I0403 13:25:02.854177 28046 net.cpp:399] conv4 -> conv4
I0403 13:25:02.883513 28046 net.cpp:141] Setting up conv4
I0403 13:25:02.883571 28046 net.cpp:148] Top shape: 100 384 13 13 (6489600)
I0403 13:25:02.883621 28046 net.cpp:156] Memory required for data: 757439600
I0403 13:25:02.883652 28046 layer_factory.hpp:77] Creating layer relu4
I0403 13:25:02.883678 28046 net.cpp:91] Creating Layer relu4
I0403 13:25:02.883708 28046 net.cpp:425] relu4 <- conv4
I0403 13:25:02.883726 28046 net.cpp:386] relu4 -> conv4 (in-place)
I0403 13:25:02.884006 28046 net.cpp:141] Setting up relu4
I0403 13:25:02.884034 28046 net.cpp:148] Top shape: 100 384 13 13 (6489600)
I0403 13:25:02.884053 28046 net.cpp:156] Memory required for data: 783398000
I0403 13:25:02.884073 28046 layer_factory.hpp:77] Creating layer conv5
I0403 13:25:02.884104 28046 net.cpp:91] Creating Layer conv5
I0403 13:25:02.884124 28046 net.cpp:425] conv5 <- conv4
I0403 13:25:02.884145 28046 net.cpp:399] conv5 -> conv5
I0403 13:25:02.904692 28046 net.cpp:141] Setting up conv5
I0403 13:25:02.904747 28046 net.cpp:148] Top shape: 100 256 13 13 (4326400)
I0403 13:25:02.904765 28046 net.cpp:156] Memory required for data: 800703600
I0403 13:25:02.904791 28046 layer_factory.hpp:77] Creating layer relu5
I0403 13:25:02.904814 28046 net.cpp:91] Creating Layer relu5
I0403 13:25:02.904830 28046 net.cpp:425] relu5 <- conv5
I0403 13:25:02.904850 28046 net.cpp:386] relu5 -> conv5 (in-place)
I0403 13:25:02.905136 28046 net.cpp:141] Setting up relu5
I0403 13:25:02.905166 28046 net.cpp:148] Top shape: 100 256 13 13 (4326400)
I0403 13:25:02.905184 28046 net.cpp:156] Memory required for data: 818009200
I0403 13:25:02.905200 28046 layer_factory.hpp:77] Creating layer pool5
I0403 13:25:02.905221 28046 net.cpp:91] Creating Layer pool5
I0403 13:25:02.905239 28046 net.cpp:425] pool5 <- conv5
I0403 13:25:02.905268 28046 net.cpp:399] pool5 -> pool5
I0403 13:25:02.905333 28046 net.cpp:141] Setting up pool5
I0403 13:25:02.905359 28046 net.cpp:148] Top shape: 100 256 6 6 (921600)
I0403 13:25:02.905374 28046 net.cpp:156] Memory required for data: 821695600
I0403 13:25:02.905390 28046 layer_factory.hpp:77] Creating layer fc6
I0403 13:25:02.905421 28046 net.cpp:91] Creating Layer fc6
I0403 13:25:02.905441 28046 net.cpp:425] fc6 <- pool5
I0403 13:25:02.905462 28046 net.cpp:399] fc6 -> fc6
I0403 13:25:04.468534 28046 net.cpp:141] Setting up fc6
I0403 13:25:04.468590 28046 net.cpp:148] Top shape: 100 4096 (409600)
I0403 13:25:04.468606 28046 net.cpp:156] Memory required for data: 823334000
I0403 13:25:04.468627 28046 layer_factory.hpp:77] Creating layer relu6
I0403 13:25:04.468652 28046 net.cpp:91] Creating Layer relu6
I0403 13:25:04.468669 28046 net.cpp:425] relu6 <- fc6
I0403 13:25:04.468689 28046 net.cpp:386] relu6 -> fc6 (in-place)
I0403 13:25:04.468914 28046 net.cpp:141] Setting up relu6
I0403 13:25:04.468941 28046 net.cpp:148] Top shape: 100 4096 (409600)
I0403 13:25:04.468957 28046 net.cpp:156] Memory required for data: 824972400
I0403 13:25:04.468972 28046 layer_factory.hpp:77] Creating layer drop6
I0403 13:25:04.468992 28046 net.cpp:91] Creating Layer drop6
I0403 13:25:04.469007 28046 net.cpp:425] drop6 <- fc6
I0403 13:25:04.469027 28046 net.cpp:386] drop6 -> fc6 (in-place)
I0403 13:25:04.469079 28046 net.cpp:141] Setting up drop6
I0403 13:25:04.469102 28046 net.cpp:148] Top shape: 100 4096 (409600)
I0403 13:25:04.469117 28046 net.cpp:156] Memory required for data: 826610800
I0403 13:25:04.469132 28046 layer_factory.hpp:77] Creating layer fc7
I0403 13:25:04.469154 28046 net.cpp:91] Creating Layer fc7
I0403 13:25:04.469172 28046 net.cpp:425] fc7 <- fc6
I0403 13:25:04.469190 28046 net.cpp:399] fc7 -> fc7
I0403 13:25:05.178805 28046 net.cpp:141] Setting up fc7
I0403 13:25:05.178855 28046 net.cpp:148] Top shape: 100 4096 (409600)
I0403 13:25:05.178874 28046 net.cpp:156] Memory required for data: 828249200
I0403 13:25:05.178897 28046 layer_factory.hpp:77] Creating layer relu7
I0403 13:25:05.178923 28046 net.cpp:91] Creating Layer relu7
I0403 13:25:05.178943 28046 net.cpp:425] relu7 <- fc7
I0403 13:25:05.178966 28046 net.cpp:386] relu7 -> fc7 (in-place)
I0403 13:25:05.179373 28046 net.cpp:141] Setting up relu7
I0403 13:25:05.179404 28046 net.cpp:148] Top shape: 100 4096 (409600)
I0403 13:25:05.179452 28046 net.cpp:156] Memory required for data: 829887600
I0403 13:25:05.179469 28046 layer_factory.hpp:77] Creating layer drop7
I0403 13:25:05.179491 28046 net.cpp:91] Creating Layer drop7
I0403 13:25:05.179507 28046 net.cpp:425] drop7 <- fc7
I0403 13:25:05.179525 28046 net.cpp:386] drop7 -> fc7 (in-place)
I0403 13:25:05.179574 28046 net.cpp:141] Setting up drop7
I0403 13:25:05.179599 28046 net.cpp:148] Top shape: 100 4096 (409600)
I0403 13:25:05.179613 28046 net.cpp:156] Memory required for data: 831526000
I0403 13:25:05.179630 28046 layer_factory.hpp:77] Creating layer fc8_plantvillage
I0403 13:25:05.179652 28046 net.cpp:91] Creating Layer fc8_plantvillage
I0403 13:25:05.179671 28046 net.cpp:425] fc8_plantvillage <- fc7
I0403 13:25:05.179689 28046 net.cpp:399] fc8_plantvillage -> fc8_plantvillage
I0403 13:25:05.186851 28046 net.cpp:141] Setting up fc8_plantvillage
I0403 13:25:05.186882 28046 net.cpp:148] Top shape: 100 38 (3800)
I0403 13:25:05.186899 28046 net.cpp:156] Memory required for data: 831541200
I0403 13:25:05.186919 28046 layer_factory.hpp:77] Creating layer fc8_plantvillage_fc8_plantvillage_0_split
I0403 13:25:05.186939 28046 net.cpp:91] Creating Layer fc8_plantvillage_fc8_plantvillage_0_split
I0403 13:25:05.186956 28046 net.cpp:425] fc8_plantvillage_fc8_plantvillage_0_split <- fc8_plantvillage
I0403 13:25:05.186977 28046 net.cpp:399] fc8_plantvillage_fc8_plantvillage_0_split -> fc8_plantvillage_fc8_plantvillage_0_split_0
I0403 13:25:05.187001 28046 net.cpp:399] fc8_plantvillage_fc8_plantvillage_0_split -> fc8_plantvillage_fc8_plantvillage_0_split_1
I0403 13:25:05.187024 28046 net.cpp:399] fc8_plantvillage_fc8_plantvillage_0_split -> fc8_plantvillage_fc8_plantvillage_0_split_2
I0403 13:25:05.187108 28046 net.cpp:141] Setting up fc8_plantvillage_fc8_plantvillage_0_split
I0403 13:25:05.187134 28046 net.cpp:148] Top shape: 100 38 (3800)
I0403 13:25:05.187152 28046 net.cpp:148] Top shape: 100 38 (3800)
I0403 13:25:05.187170 28046 net.cpp:148] Top shape: 100 38 (3800)
I0403 13:25:05.187186 28046 net.cpp:156] Memory required for data: 831586800
I0403 13:25:05.187202 28046 layer_factory.hpp:77] Creating layer prob
I0403 13:25:05.187222 28046 net.cpp:91] Creating Layer prob
I0403 13:25:05.187238 28046 net.cpp:425] prob <- fc8_plantvillage_fc8_plantvillage_0_split_0
I0403 13:25:05.187263 28046 net.cpp:399] prob -> prob
I0403 13:25:05.187504 28046 net.cpp:141] Setting up prob
I0403 13:25:05.187531 28046 net.cpp:148] Top shape: 100 38 (3800)
I0403 13:25:05.187546 28046 net.cpp:156] Memory required for data: 831602000
I0403 13:25:05.187562 28046 layer_factory.hpp:77] Creating layer hdf5out
I0403 13:25:05.187587 28046 net.cpp:91] Creating Layer hdf5out
I0403 13:25:05.187604 28046 net.cpp:425] hdf5out <- prob
I0403 13:25:05.187623 28046 net.cpp:425] hdf5out <- label_data_1_split_0
I0403 13:25:05.191331 28046 net.cpp:141] Setting up hdf5out
…
