…
I0403 13:14:45.577163 27652 net.cpp:313] The NetState phase (1) differed from the phase (0) specified by a rule in layer data
I0403 13:14:45.577486 27652 net.cpp:49] Initializing net from parameters: 
state {
  phase: TEST
}
layer {
  name: "data"
  type: "Data"
  top: "data"
  top: "label"
  include {
    phase: TEST
  }
  transform_param {
    crop_size: 227
    mean_file: "/home/mohanty/data/final_dataset/lmdb/color-60-40/mean.binaryproto"
  }
  data_param {
    source: "/home/mohanty/data/final_dataset/lmdb/color-60-40/test_db"
    batch_size: 100
    backend: LMDB
  }
}
layer {
  name: "conv1"
  type: "Convolution"
  bottom: "data"
  top: "conv1"
  param {
    lr_mult: 1
    decay_mult: 1
  }
  param {
    lr_mult: 2
    decay_mult: 0
  }
  convolution_param {
    num_output: 96
    kernel_size: 11
    stride: 4
    weight_filler {
      type: "gaussian"
      std: 0.01
    }
    bias_filler {
      type: "constant"
      value: 0
    }
  }
}
layer {
  name: "relu1"
  type: "ReLU"
  bottom: "conv1"
  top: "conv1"
}
layer {
  name: "norm1"
  type: "LRN"
  bottom: "conv1"
  top: "norm1"
  lrn_param {
    local_size: 5
    alpha: 0.0001
    beta: 0.75
  }
}
layer {
  name: "pool1"
  type: "Pooling"
  bottom: "norm1"
  top: "pool1"
  pooling_param {
    pool: MAX
    kernel_size: 3
    stride: 2
  }
}
layer {
  name: "conv2"
  type: "Convolution"
  bottom: "pool1"
  top: "conv2"
  param {
    lr_mult: 1
    decay_mult: 1
  }
  param {
    lr_mult: 2
    decay_mult: 0
  }
  convolution_param {
    num_output: 256
    pad: 2
    kernel_size: 5
    group: 2
    weight_filler {
      type: "gaussian"
      std: 0.01
    }
    bias_filler {
      type: "constant"
      value: 0.1
    }
  }
}
layer {
  name: "relu2"
  type: "ReLU"
  bottom: "conv2"
  top: "conv2"
}
layer {
  name: "norm2"
  type: "LRN"
  bottom: "conv2"
  top: "norm2"
  lrn_param {
    local_size: 5
    alpha: 0.0001
    beta: 0.75
  }
}
layer {
  name: "pool2"
  type: "Pooling"
  bottom: "norm2"
  top: "pool2"
  pooling_param {
    pool: MAX
    kernel_size: 3
    stride: 2
  }
}
layer {
  name: "conv3"
  type: "Convolution"
  bottom: "pool2"
  top: "conv3"
  param {
    lr_mult: 1
    decay_mult: 1
  }
  param {
    lr_mult: 2
    decay_mult: 0
  }
  convolution_param {
    num_output: 384
    pad: 1
    kernel_size: 3
    weight_filler {
      type: "gaussian"
      std: 0.01
    }
    bias_filler {
      type: "constant"
      value: 0
    }
  }
}
layer {
  name: "relu3"
  type: "ReLU"
  bottom: "conv3"
  top: "conv3"
}
layer {
  name: "conv4"
  type: "Convolution"
  bottom: "conv3"
  top: "conv4"
  param {
    lr_mult: 1
    decay_mult: 1
  }
  param {
    lr_mult: 2
    decay_mult: 0
  }
  convolution_param {
    num_output: 384
    pad: 1
    kernel_size: 3
    group: 2
    weight_filler {
      type: "gaussian"
      std: 0.01
    }
    bias_filler {
      type: "constant"
      value: 0.1
    }
  }
}
layer {
  name: "relu4"
  type: "ReLU"
  bottom: "conv4"
  top: "conv4"
}
layer {
  name: "conv5"
  type: "Convolution"
  bottom: "conv4"
  top: "conv5"
  param {
    lr_mult: 1
    decay_mult: 1
  }
  param {
    lr_mult: 2
    decay_mult: 0
  }
  convolution_param {
    num_output: 256
    pad: 1
    kernel_size: 3
    group: 2
    weight_filler {
      type: "gaussian"
      std: 0.01
    }
    bias_filler {
      type: "constant"
      value: 0.1
    }
  }
}
layer {
  name: "relu5"
  type: "ReLU"
  bottom: "conv5"
  top: "conv5"
}
layer {
  name: "pool5"
  type: "Pooling"
  bottom: "conv5"
  top: "pool5"
  pooling_param {
    pool: MAX
    kernel_size: 3
    stride: 2
  }
}
layer {
  name: "fc6"
  type: "InnerProduct"
  bottom: "pool5"
  top: "fc6"
  param {
    lr_mult: 1
    decay_mult: 1
  }
  param {
    lr_mult: 2
    decay_mult: 0
  }
  inner_product_param {
    num_output: 4096
    weight_filler {
      type: "gaussian"
      std: 0.005
    }
    bias_filler {
      type: "constant"
      value: 0.1
    }
  }
}
layer {
  name: "relu6"
  type: "ReLU"
  bottom: "fc6"
  top: "fc6"
}
layer {
  name: "drop6"
  type: "Dropout"
  bottom: "fc6"
  top: "fc6"
  dropout_param {
    dropout_ratio: 0.5
  }
}
layer {
  name: "fc7"
  type: "InnerProduct"
  bottom: "fc6"
  top: "fc7"
  param {
    lr_mult: 1
    decay_mult: 1
  }
  param {
    lr_mult: 2
    decay_mult: 0
  }
  inner_product_param {
    num_output: 4096
    weight_filler {
      type: "gaussian"
      std: 0.005
    }
    bias_filler {
      type: "constant"
      value: 0.1
    }
  }
}
layer {
  name: "relu7"
  type: "ReLU"
  bottom: "fc7"
  top: "fc7"
}
layer {
  name: "drop7"
  type: "Dropout"
  bottom: "fc7"
  top: "fc7"
  dropout_param {
    dropout_ratio: 0.5
  }
}
layer {
  name: "fc8_plantvillage"
  type: "InnerProduct"
  bottom: "fc7"
  top: "fc8_plantvillage"
  param {
    lr_mult: 1
    decay_mult: 1
  }
  param {
    lr_mult: 2
    decay_mult: 0
  }
  inner_product_param {
    num_output: 38
    weight_filler {
      type: "gaussian"
      std: 0.01
    }
    bias_filler {
      type: "constant"
      value: 0
    }
  }
}
layer {
  name: "prob"
  type: "Softmax"
  bottom: "fc8_plantvillage"
  top: "prob"
  include {
    phase: TEST
  }
}
layer {
  name: "hdf5out"
  type: "HDF5Output"
  bottom: "prob"
  bottom: "label"
  include {
    phase: TEST
  }
  hdf5_output_param {
    file_name: "hdf5_dumps/iter_4550.h5"
  }
}
layer {
  name: "loss"
  type: "SoftmaxWithLoss"
  bottom: "fc8_plantvillage"
  bottom: "label"
  top: "loss"
}
layer {
  name: "accuracy"
  type: "Accuracy"
  bottom: "fc8_plantvillage"
  bottom: "label"
  top: "accuracy"
  include {
    phase: TEST
  }
}
I0403 13:14:45.578078 27652 layer_factory.hpp:77] Creating layer data
I0403 13:14:45.578761 27652 net.cpp:91] Creating Layer data
I0403 13:14:45.578795 27652 net.cpp:399] data -> data
I0403 13:14:45.578850 27652 net.cpp:399] data -> label
I0403 13:14:45.578886 27652 data_transformer.cpp:25] Loading mean file from: /home/mohanty/data/final_dataset/lmdb/color-60-40/mean.binaryproto
I0403 13:14:45.581815 27656 db_lmdb.cpp:38] Opened lmdb /home/mohanty/data/final_dataset/lmdb/color-60-40/test_db
I0403 13:14:45.593693 27652 data_layer.cpp:41] output data size: 100,3,227,227
I0403 13:14:45.727687 27652 net.cpp:141] Setting up data
I0403 13:14:45.727782 27652 net.cpp:148] Top shape: 100 3 227 227 (15458700)
I0403 13:14:45.727807 27652 net.cpp:148] Top shape: 100 (100)
I0403 13:14:45.727823 27652 net.cpp:156] Memory required for data: 61835200
I0403 13:14:45.727851 27652 layer_factory.hpp:77] Creating layer label_data_1_split
I0403 13:14:45.727877 27652 net.cpp:91] Creating Layer label_data_1_split
I0403 13:14:45.727897 27652 net.cpp:425] label_data_1_split <- label
I0403 13:14:45.727931 27652 net.cpp:399] label_data_1_split -> label_data_1_split_0
I0403 13:14:45.727958 27652 net.cpp:399] label_data_1_split -> label_data_1_split_1
I0403 13:14:45.727980 27652 net.cpp:399] label_data_1_split -> label_data_1_split_2
I0403 13:14:45.728046 27652 net.cpp:141] Setting up label_data_1_split
I0403 13:14:45.728071 27652 net.cpp:148] Top shape: 100 (100)
I0403 13:14:45.728091 27652 net.cpp:148] Top shape: 100 (100)
I0403 13:14:45.728107 27652 net.cpp:148] Top shape: 100 (100)
I0403 13:14:45.728123 27652 net.cpp:156] Memory required for data: 61836400
I0403 13:14:45.728138 27652 layer_factory.hpp:77] Creating layer conv1
I0403 13:14:45.728171 27652 net.cpp:91] Creating Layer conv1
I0403 13:14:45.728191 27652 net.cpp:425] conv1 <- data
I0403 13:14:45.728212 27652 net.cpp:399] conv1 -> conv1
I0403 13:14:45.875241 27652 net.cpp:141] Setting up conv1
I0403 13:14:45.875334 27652 net.cpp:148] Top shape: 100 96 55 55 (29040000)
I0403 13:14:45.875354 27652 net.cpp:156] Memory required for data: 177996400
I0403 13:14:45.875386 27652 layer_factory.hpp:77] Creating layer relu1
I0403 13:14:45.875416 27652 net.cpp:91] Creating Layer relu1
I0403 13:14:45.875435 27652 net.cpp:425] relu1 <- conv1
I0403 13:14:45.875468 27652 net.cpp:386] relu1 -> conv1 (in-place)
I0403 13:14:45.875736 27652 net.cpp:141] Setting up relu1
I0403 13:14:45.875763 27652 net.cpp:148] Top shape: 100 96 55 55 (29040000)
I0403 13:14:45.875779 27652 net.cpp:156] Memory required for data: 294156400
I0403 13:14:45.875828 27652 layer_factory.hpp:77] Creating layer norm1
I0403 13:14:45.875855 27652 net.cpp:91] Creating Layer norm1
I0403 13:14:45.875874 27652 net.cpp:425] norm1 <- conv1
I0403 13:14:45.875891 27652 net.cpp:399] norm1 -> norm1
I0403 13:14:45.876193 27652 net.cpp:141] Setting up norm1
I0403 13:14:45.876220 27652 net.cpp:148] Top shape: 100 96 55 55 (29040000)
I0403 13:14:45.876236 27652 net.cpp:156] Memory required for data: 410316400
I0403 13:14:45.876253 27652 layer_factory.hpp:77] Creating layer pool1
I0403 13:14:45.876276 27652 net.cpp:91] Creating Layer pool1
I0403 13:14:45.876297 27652 net.cpp:425] pool1 <- norm1
I0403 13:14:45.876317 27652 net.cpp:399] pool1 -> pool1
I0403 13:14:45.876384 27652 net.cpp:141] Setting up pool1
I0403 13:14:45.876408 27652 net.cpp:148] Top shape: 100 96 27 27 (6998400)
I0403 13:14:45.876423 27652 net.cpp:156] Memory required for data: 438310000
I0403 13:14:45.876440 27652 layer_factory.hpp:77] Creating layer conv2
I0403 13:14:45.876464 27652 net.cpp:91] Creating Layer conv2
I0403 13:14:45.876480 27652 net.cpp:425] conv2 <- pool1
I0403 13:14:45.876498 27652 net.cpp:399] conv2 -> conv2
I0403 13:14:45.891492 27652 net.cpp:141] Setting up conv2
I0403 13:14:45.891537 27652 net.cpp:148] Top shape: 100 256 27 27 (18662400)
I0403 13:14:45.891556 27652 net.cpp:156] Memory required for data: 512959600
I0403 13:14:45.891577 27652 layer_factory.hpp:77] Creating layer relu2
I0403 13:14:45.891597 27652 net.cpp:91] Creating Layer relu2
I0403 13:14:45.891614 27652 net.cpp:425] relu2 <- conv2
I0403 13:14:45.891636 27652 net.cpp:386] relu2 -> conv2 (in-place)
I0403 13:14:45.891922 27652 net.cpp:141] Setting up relu2
I0403 13:14:45.891952 27652 net.cpp:148] Top shape: 100 256 27 27 (18662400)
I0403 13:14:45.891966 27652 net.cpp:156] Memory required for data: 587609200
I0403 13:14:45.891983 27652 layer_factory.hpp:77] Creating layer norm2
I0403 13:14:45.892005 27652 net.cpp:91] Creating Layer norm2
I0403 13:14:45.892022 27652 net.cpp:425] norm2 <- conv2
I0403 13:14:45.892041 27652 net.cpp:399] norm2 -> norm2
I0403 13:14:45.892247 27652 net.cpp:141] Setting up norm2
I0403 13:14:45.892277 27652 net.cpp:148] Top shape: 100 256 27 27 (18662400)
I0403 13:14:45.892300 27652 net.cpp:156] Memory required for data: 662258800
I0403 13:14:45.892316 27652 layer_factory.hpp:77] Creating layer pool2
I0403 13:14:45.892335 27652 net.cpp:91] Creating Layer pool2
I0403 13:14:45.892350 27652 net.cpp:425] pool2 <- norm2
I0403 13:14:45.892371 27652 net.cpp:399] pool2 -> pool2
I0403 13:14:45.892426 27652 net.cpp:141] Setting up pool2
I0403 13:14:45.892451 27652 net.cpp:148] Top shape: 100 256 13 13 (4326400)
I0403 13:14:45.892465 27652 net.cpp:156] Memory required for data: 679564400
I0403 13:14:45.892482 27652 layer_factory.hpp:77] Creating layer conv3
I0403 13:14:45.892504 27652 net.cpp:91] Creating Layer conv3
I0403 13:14:45.892523 27652 net.cpp:425] conv3 <- pool2
I0403 13:14:45.892544 27652 net.cpp:399] conv3 -> conv3
I0403 13:14:45.931480 27652 net.cpp:141] Setting up conv3
I0403 13:14:45.931560 27652 net.cpp:148] Top shape: 100 384 13 13 (6489600)
I0403 13:14:45.931578 27652 net.cpp:156] Memory required for data: 705522800
I0403 13:14:45.931617 27652 layer_factory.hpp:77] Creating layer relu3
I0403 13:14:45.931641 27652 net.cpp:91] Creating Layer relu3
I0403 13:14:45.931661 27652 net.cpp:425] relu3 <- conv3
I0403 13:14:45.931684 27652 net.cpp:386] relu3 -> conv3 (in-place)
I0403 13:14:45.931972 27652 net.cpp:141] Setting up relu3
I0403 13:14:45.931999 27652 net.cpp:148] Top shape: 100 384 13 13 (6489600)
I0403 13:14:45.932015 27652 net.cpp:156] Memory required for data: 731481200
I0403 13:14:45.932031 27652 layer_factory.hpp:77] Creating layer conv4
I0403 13:14:45.932057 27652 net.cpp:91] Creating Layer conv4
I0403 13:14:45.932075 27652 net.cpp:425] conv4 <- conv3
I0403 13:14:45.932098 27652 net.cpp:399] conv4 -> conv4
I0403 13:14:45.962595 27652 net.cpp:141] Setting up conv4
I0403 13:14:45.962658 27652 net.cpp:148] Top shape: 100 384 13 13 (6489600)
I0403 13:14:45.962708 27652 net.cpp:156] Memory required for data: 757439600
I0403 13:14:45.962731 27652 layer_factory.hpp:77] Creating layer relu4
I0403 13:14:45.962754 27652 net.cpp:91] Creating Layer relu4
I0403 13:14:45.962772 27652 net.cpp:425] relu4 <- conv4
I0403 13:14:45.962792 27652 net.cpp:386] relu4 -> conv4 (in-place)
I0403 13:14:45.963098 27652 net.cpp:141] Setting up relu4
I0403 13:14:45.963129 27652 net.cpp:148] Top shape: 100 384 13 13 (6489600)
I0403 13:14:45.963145 27652 net.cpp:156] Memory required for data: 783398000
I0403 13:14:45.963162 27652 layer_factory.hpp:77] Creating layer conv5
I0403 13:14:45.963201 27652 net.cpp:91] Creating Layer conv5
I0403 13:14:45.963218 27652 net.cpp:425] conv5 <- conv4
I0403 13:14:45.963238 27652 net.cpp:399] conv5 -> conv5
I0403 13:14:45.984057 27652 net.cpp:141] Setting up conv5
I0403 13:14:45.984113 27652 net.cpp:148] Top shape: 100 256 13 13 (4326400)
I0403 13:14:45.984133 27652 net.cpp:156] Memory required for data: 800703600
I0403 13:14:45.984158 27652 layer_factory.hpp:77] Creating layer relu5
I0403 13:14:45.984179 27652 net.cpp:91] Creating Layer relu5
I0403 13:14:45.984196 27652 net.cpp:425] relu5 <- conv5
I0403 13:14:45.984218 27652 net.cpp:386] relu5 -> conv5 (in-place)
I0403 13:14:45.984524 27652 net.cpp:141] Setting up relu5
I0403 13:14:45.984552 27652 net.cpp:148] Top shape: 100 256 13 13 (4326400)
I0403 13:14:45.984568 27652 net.cpp:156] Memory required for data: 818009200
I0403 13:14:45.984583 27652 layer_factory.hpp:77] Creating layer pool5
I0403 13:14:45.984609 27652 net.cpp:91] Creating Layer pool5
I0403 13:14:45.984627 27652 net.cpp:425] pool5 <- conv5
I0403 13:14:45.984647 27652 net.cpp:399] pool5 -> pool5
I0403 13:14:45.984709 27652 net.cpp:141] Setting up pool5
I0403 13:14:45.984735 27652 net.cpp:148] Top shape: 100 256 6 6 (921600)
I0403 13:14:45.984750 27652 net.cpp:156] Memory required for data: 821695600
I0403 13:14:45.984766 27652 layer_factory.hpp:77] Creating layer fc6
I0403 13:14:45.984792 27652 net.cpp:91] Creating Layer fc6
I0403 13:14:45.984813 27652 net.cpp:425] fc6 <- pool5
I0403 13:14:45.984835 27652 net.cpp:399] fc6 -> fc6
I0403 13:14:47.593092 27652 net.cpp:141] Setting up fc6
I0403 13:14:47.593174 27652 net.cpp:148] Top shape: 100 4096 (409600)
I0403 13:14:47.593192 27652 net.cpp:156] Memory required for data: 823334000
I0403 13:14:47.593217 27652 layer_factory.hpp:77] Creating layer relu6
I0403 13:14:47.593240 27652 net.cpp:91] Creating Layer relu6
I0403 13:14:47.593258 27652 net.cpp:425] relu6 <- fc6
I0403 13:14:47.593281 27652 net.cpp:386] relu6 -> fc6 (in-place)
I0403 13:14:47.593534 27652 net.cpp:141] Setting up relu6
I0403 13:14:47.593564 27652 net.cpp:148] Top shape: 100 4096 (409600)
I0403 13:14:47.593580 27652 net.cpp:156] Memory required for data: 824972400
I0403 13:14:47.593596 27652 layer_factory.hpp:77] Creating layer drop6
I0403 13:14:47.593617 27652 net.cpp:91] Creating Layer drop6
I0403 13:14:47.593633 27652 net.cpp:425] drop6 <- fc6
I0403 13:14:47.593654 27652 net.cpp:386] drop6 -> fc6 (in-place)
I0403 13:14:47.593708 27652 net.cpp:141] Setting up drop6
I0403 13:14:47.593732 27652 net.cpp:148] Top shape: 100 4096 (409600)
I0403 13:14:47.593747 27652 net.cpp:156] Memory required for data: 826610800
I0403 13:14:47.593765 27652 layer_factory.hpp:77] Creating layer fc7
I0403 13:14:47.593791 27652 net.cpp:91] Creating Layer fc7
I0403 13:14:47.593809 27652 net.cpp:425] fc7 <- fc6
I0403 13:14:47.593832 27652 net.cpp:399] fc7 -> fc7
I0403 13:14:48.297957 27652 net.cpp:141] Setting up fc7
I0403 13:14:48.298037 27652 net.cpp:148] Top shape: 100 4096 (409600)
I0403 13:14:48.298054 27652 net.cpp:156] Memory required for data: 828249200
I0403 13:14:48.298076 27652 layer_factory.hpp:77] Creating layer relu7
I0403 13:14:48.298099 27652 net.cpp:91] Creating Layer relu7
I0403 13:14:48.298117 27652 net.cpp:425] relu7 <- fc7
I0403 13:14:48.298141 27652 net.cpp:386] relu7 -> fc7 (in-place)
I0403 13:14:48.298547 27652 net.cpp:141] Setting up relu7
I0403 13:14:48.298575 27652 net.cpp:148] Top shape: 100 4096 (409600)
I0403 13:14:48.298626 27652 net.cpp:156] Memory required for data: 829887600
I0403 13:14:48.298642 27652 layer_factory.hpp:77] Creating layer drop7
I0403 13:14:48.298663 27652 net.cpp:91] Creating Layer drop7
I0403 13:14:48.298681 27652 net.cpp:425] drop7 <- fc7
I0403 13:14:48.298701 27652 net.cpp:386] drop7 -> fc7 (in-place)
I0403 13:14:48.298748 27652 net.cpp:141] Setting up drop7
I0403 13:14:48.298770 27652 net.cpp:148] Top shape: 100 4096 (409600)
I0403 13:14:48.298785 27652 net.cpp:156] Memory required for data: 831526000
I0403 13:14:48.298801 27652 layer_factory.hpp:77] Creating layer fc8_plantvillage
I0403 13:14:48.298825 27652 net.cpp:91] Creating Layer fc8_plantvillage
I0403 13:14:48.298841 27652 net.cpp:425] fc8_plantvillage <- fc7
I0403 13:14:48.298861 27652 net.cpp:399] fc8_plantvillage -> fc8_plantvillage
I0403 13:14:48.305892 27652 net.cpp:141] Setting up fc8_plantvillage
I0403 13:14:48.305923 27652 net.cpp:148] Top shape: 100 38 (3800)
I0403 13:14:48.305940 27652 net.cpp:156] Memory required for data: 831541200
I0403 13:14:48.305959 27652 layer_factory.hpp:77] Creating layer fc8_plantvillage_fc8_plantvillage_0_split
I0403 13:14:48.305979 27652 net.cpp:91] Creating Layer fc8_plantvillage_fc8_plantvillage_0_split
I0403 13:14:48.305994 27652 net.cpp:425] fc8_plantvillage_fc8_plantvillage_0_split <- fc8_plantvillage
I0403 13:14:48.306015 27652 net.cpp:399] fc8_plantvillage_fc8_plantvillage_0_split -> fc8_plantvillage_fc8_plantvillage_0_split_0
I0403 13:14:48.306037 27652 net.cpp:399] fc8_plantvillage_fc8_plantvillage_0_split -> fc8_plantvillage_fc8_plantvillage_0_split_1
I0403 13:14:48.306058 27652 net.cpp:399] fc8_plantvillage_fc8_plantvillage_0_split -> fc8_plantvillage_fc8_plantvillage_0_split_2
I0403 13:14:48.306138 27652 net.cpp:141] Setting up fc8_plantvillage_fc8_plantvillage_0_split
I0403 13:14:48.306164 27652 net.cpp:148] Top shape: 100 38 (3800)
I0403 13:14:48.306182 27652 net.cpp:148] Top shape: 100 38 (3800)
I0403 13:14:48.306198 27652 net.cpp:148] Top shape: 100 38 (3800)
I0403 13:14:48.306212 27652 net.cpp:156] Memory required for data: 831586800
I0403 13:14:48.306228 27652 layer_factory.hpp:77] Creating layer prob
I0403 13:14:48.306247 27652 net.cpp:91] Creating Layer prob
I0403 13:14:48.306262 27652 net.cpp:425] prob <- fc8_plantvillage_fc8_plantvillage_0_split_0
I0403 13:14:48.306280 27652 net.cpp:399] prob -> prob
I0403 13:14:48.306520 27652 net.cpp:141] Setting up prob
I0403 13:14:48.306550 27652 net.cpp:148] Top shape: 100 38 (3800)
I0403 13:14:48.306565 27652 net.cpp:156] Memory required for data: 831602000
I0403 13:14:48.306582 27652 layer_factory.hpp:77] Creating layer hdf5out
I0403 13:14:48.306602 27652 net.cpp:91] Creating Layer hdf5out
I0403 13:14:48.306618 27652 net.cpp:425] hdf5out <- prob
I0403 13:14:48.306635 27652 net.cpp:425] hdf5out <- label_data_1_split_0
I0403 13:14:48.325125 27652 net.cpp:141] Setting up hdf5out
…
