…
I0403 13:13:09.986615 27600 net.cpp:313] The NetState phase (1) differed from the phase (0) specified by a rule in layer data
I0403 13:13:09.986984 27600 net.cpp:49] Initializing net from parameters: 
state {
  phase: TEST
}
layer {
  name: "data"
  type: "Data"
  top: "data"
  top: "label"
  include {
    phase: TEST
  }
  transform_param {
    crop_size: 227
    mean_file: "/home/mohanty/data/final_dataset/lmdb/color-60-40/mean.binaryproto"
  }
  data_param {
    source: "/home/mohanty/data/final_dataset/lmdb/color-60-40/test_db"
    batch_size: 100
    backend: LMDB
  }
}
layer {
  name: "conv1"
  type: "Convolution"
  bottom: "data"
  top: "conv1"
  param {
    lr_mult: 1
    decay_mult: 1
  }
  param {
    lr_mult: 2
    decay_mult: 0
  }
  convolution_param {
    num_output: 96
    kernel_size: 11
    stride: 4
    weight_filler {
      type: "gaussian"
      std: 0.01
    }
    bias_filler {
      type: "constant"
      value: 0
    }
  }
}
layer {
  name: "relu1"
  type: "ReLU"
  bottom: "conv1"
  top: "conv1"
}
layer {
  name: "norm1"
  type: "LRN"
  bottom: "conv1"
  top: "norm1"
  lrn_param {
    local_size: 5
    alpha: 0.0001
    beta: 0.75
  }
}
layer {
  name: "pool1"
  type: "Pooling"
  bottom: "norm1"
  top: "pool1"
  pooling_param {
    pool: MAX
    kernel_size: 3
    stride: 2
  }
}
layer {
  name: "conv2"
  type: "Convolution"
  bottom: "pool1"
  top: "conv2"
  param {
    lr_mult: 1
    decay_mult: 1
  }
  param {
    lr_mult: 2
    decay_mult: 0
  }
  convolution_param {
    num_output: 256
    pad: 2
    kernel_size: 5
    group: 2
    weight_filler {
      type: "gaussian"
      std: 0.01
    }
    bias_filler {
      type: "constant"
      value: 0.1
    }
  }
}
layer {
  name: "relu2"
  type: "ReLU"
  bottom: "conv2"
  top: "conv2"
}
layer {
  name: "norm2"
  type: "LRN"
  bottom: "conv2"
  top: "norm2"
  lrn_param {
    local_size: 5
    alpha: 0.0001
    beta: 0.75
  }
}
layer {
  name: "pool2"
  type: "Pooling"
  bottom: "norm2"
  top: "pool2"
  pooling_param {
    pool: MAX
    kernel_size: 3
    stride: 2
  }
}
layer {
  name: "conv3"
  type: "Convolution"
  bottom: "pool2"
  top: "conv3"
  param {
    lr_mult: 1
    decay_mult: 1
  }
  param {
    lr_mult: 2
    decay_mult: 0
  }
  convolution_param {
    num_output: 384
    pad: 1
    kernel_size: 3
    weight_filler {
      type: "gaussian"
      std: 0.01
    }
    bias_filler {
      type: "constant"
      value: 0
    }
  }
}
layer {
  name: "relu3"
  type: "ReLU"
  bottom: "conv3"
  top: "conv3"
}
layer {
  name: "conv4"
  type: "Convolution"
  bottom: "conv3"
  top: "conv4"
  param {
    lr_mult: 1
    decay_mult: 1
  }
  param {
    lr_mult: 2
    decay_mult: 0
  }
  convolution_param {
    num_output: 384
    pad: 1
    kernel_size: 3
    group: 2
    weight_filler {
      type: "gaussian"
      std: 0.01
    }
    bias_filler {
      type: "constant"
      value: 0.1
    }
  }
}
layer {
  name: "relu4"
  type: "ReLU"
  bottom: "conv4"
  top: "conv4"
}
layer {
  name: "conv5"
  type: "Convolution"
  bottom: "conv4"
  top: "conv5"
  param {
    lr_mult: 1
    decay_mult: 1
  }
  param {
    lr_mult: 2
    decay_mult: 0
  }
  convolution_param {
    num_output: 256
    pad: 1
    kernel_size: 3
    group: 2
    weight_filler {
      type: "gaussian"
      std: 0.01
    }
    bias_filler {
      type: "constant"
      value: 0.1
    }
  }
}
layer {
  name: "relu5"
  type: "ReLU"
  bottom: "conv5"
  top: "conv5"
}
layer {
  name: "pool5"
  type: "Pooling"
  bottom: "conv5"
  top: "pool5"
  pooling_param {
    pool: MAX
    kernel_size: 3
    stride: 2
  }
}
layer {
  name: "fc6"
  type: "InnerProduct"
  bottom: "pool5"
  top: "fc6"
  param {
    lr_mult: 1
    decay_mult: 1
  }
  param {
    lr_mult: 2
    decay_mult: 0
  }
  inner_product_param {
    num_output: 4096
    weight_filler {
      type: "gaussian"
      std: 0.005
    }
    bias_filler {
      type: "constant"
      value: 0.1
    }
  }
}
layer {
  name: "relu6"
  type: "ReLU"
  bottom: "fc6"
  top: "fc6"
}
layer {
  name: "drop6"
  type: "Dropout"
  bottom: "fc6"
  top: "fc6"
  dropout_param {
    dropout_ratio: 0.5
  }
}
layer {
  name: "fc7"
  type: "InnerProduct"
  bottom: "fc6"
  top: "fc7"
  param {
    lr_mult: 1
    decay_mult: 1
  }
  param {
    lr_mult: 2
    decay_mult: 0
  }
  inner_product_param {
    num_output: 4096
    weight_filler {
      type: "gaussian"
      std: 0.005
    }
    bias_filler {
      type: "constant"
      value: 0.1
    }
  }
}
layer {
  name: "relu7"
  type: "ReLU"
  bottom: "fc7"
  top: "fc7"
}
layer {
  name: "drop7"
  type: "Dropout"
  bottom: "fc7"
  top: "fc7"
  dropout_param {
    dropout_ratio: 0.5
  }
}
layer {
  name: "fc8_plantvillage"
  type: "InnerProduct"
  bottom: "fc7"
  top: "fc8_plantvillage"
  param {
    lr_mult: 1
    decay_mult: 1
  }
  param {
    lr_mult: 2
    decay_mult: 0
  }
  inner_product_param {
    num_output: 38
    weight_filler {
      type: "gaussian"
      std: 0.01
    }
    bias_filler {
      type: "constant"
      value: 0
    }
  }
}
layer {
  name: "prob"
  type: "Softmax"
  bottom: "fc8_plantvillage"
  top: "prob"
  include {
    phase: TEST
  }
}
layer {
  name: "hdf5out"
  type: "HDF5Output"
  bottom: "prob"
  bottom: "label"
  include {
    phase: TEST
  }
  hdf5_output_param {
    file_name: "hdf5_dumps/iter_3900.h5"
  }
}
layer {
  name: "loss"
  type: "SoftmaxWithLoss"
  bottom: "fc8_plantvillage"
  bottom: "label"
  top: "loss"
}
layer {
  name: "accuracy"
  type: "Accuracy"
  bottom: "fc8_plantvillage"
  bottom: "label"
  top: "accuracy"
  include {
    phase: TEST
  }
}
I0403 13:13:09.987673 27600 layer_factory.hpp:77] Creating layer data
I0403 13:13:09.988433 27600 net.cpp:91] Creating Layer data
I0403 13:13:09.988471 27600 net.cpp:399] data -> data
I0403 13:13:09.988530 27600 net.cpp:399] data -> label
I0403 13:13:09.988574 27600 data_transformer.cpp:25] Loading mean file from: /home/mohanty/data/final_dataset/lmdb/color-60-40/mean.binaryproto
I0403 13:13:10.002625 27604 db_lmdb.cpp:38] Opened lmdb /home/mohanty/data/final_dataset/lmdb/color-60-40/test_db
I0403 13:13:10.005080 27600 data_layer.cpp:41] output data size: 100,3,227,227
I0403 13:13:10.158579 27600 net.cpp:141] Setting up data
I0403 13:13:10.158648 27600 net.cpp:148] Top shape: 100 3 227 227 (15458700)
I0403 13:13:10.158675 27600 net.cpp:148] Top shape: 100 (100)
I0403 13:13:10.158694 27600 net.cpp:156] Memory required for data: 61835200
I0403 13:13:10.158723 27600 layer_factory.hpp:77] Creating layer label_data_1_split
I0403 13:13:10.158751 27600 net.cpp:91] Creating Layer label_data_1_split
I0403 13:13:10.158771 27600 net.cpp:425] label_data_1_split <- label
I0403 13:13:10.158803 27600 net.cpp:399] label_data_1_split -> label_data_1_split_0
I0403 13:13:10.158833 27600 net.cpp:399] label_data_1_split -> label_data_1_split_1
I0403 13:13:10.158857 27600 net.cpp:399] label_data_1_split -> label_data_1_split_2
I0403 13:13:10.158933 27600 net.cpp:141] Setting up label_data_1_split
I0403 13:13:10.158962 27600 net.cpp:148] Top shape: 100 (100)
I0403 13:13:10.158982 27600 net.cpp:148] Top shape: 100 (100)
I0403 13:13:10.159001 27600 net.cpp:148] Top shape: 100 (100)
I0403 13:13:10.159018 27600 net.cpp:156] Memory required for data: 61836400
I0403 13:13:10.159037 27600 layer_factory.hpp:77] Creating layer conv1
I0403 13:13:10.159071 27600 net.cpp:91] Creating Layer conv1
I0403 13:13:10.159093 27600 net.cpp:425] conv1 <- data
I0403 13:13:10.159117 27600 net.cpp:399] conv1 -> conv1
I0403 13:13:10.337662 27600 net.cpp:141] Setting up conv1
I0403 13:13:10.337716 27600 net.cpp:148] Top shape: 100 96 55 55 (29040000)
I0403 13:13:10.337738 27600 net.cpp:156] Memory required for data: 177996400
I0403 13:13:10.337771 27600 layer_factory.hpp:77] Creating layer relu1
I0403 13:13:10.337802 27600 net.cpp:91] Creating Layer relu1
I0403 13:13:10.337823 27600 net.cpp:425] relu1 <- conv1
I0403 13:13:10.337844 27600 net.cpp:386] relu1 -> conv1 (in-place)
I0403 13:13:10.338141 27600 net.cpp:141] Setting up relu1
I0403 13:13:10.338174 27600 net.cpp:148] Top shape: 100 96 55 55 (29040000)
I0403 13:13:10.338193 27600 net.cpp:156] Memory required for data: 294156400
I0403 13:13:10.338248 27600 layer_factory.hpp:77] Creating layer norm1
I0403 13:13:10.338290 27600 net.cpp:91] Creating Layer norm1
I0403 13:13:10.338313 27600 net.cpp:425] norm1 <- conv1
I0403 13:13:10.338335 27600 net.cpp:399] norm1 -> norm1
I0403 13:13:10.338699 27600 net.cpp:141] Setting up norm1
I0403 13:13:10.338733 27600 net.cpp:148] Top shape: 100 96 55 55 (29040000)
I0403 13:13:10.338752 27600 net.cpp:156] Memory required for data: 410316400
I0403 13:13:10.338769 27600 layer_factory.hpp:77] Creating layer pool1
I0403 13:13:10.338796 27600 net.cpp:91] Creating Layer pool1
I0403 13:13:10.338817 27600 net.cpp:425] pool1 <- norm1
I0403 13:13:10.338840 27600 net.cpp:399] pool1 -> pool1
I0403 13:13:10.338917 27600 net.cpp:141] Setting up pool1
I0403 13:13:10.338945 27600 net.cpp:148] Top shape: 100 96 27 27 (6998400)
I0403 13:13:10.338964 27600 net.cpp:156] Memory required for data: 438310000
I0403 13:13:10.338982 27600 layer_factory.hpp:77] Creating layer conv2
I0403 13:13:10.339010 27600 net.cpp:91] Creating Layer conv2
I0403 13:13:10.339030 27600 net.cpp:425] conv2 <- pool1
I0403 13:13:10.339052 27600 net.cpp:399] conv2 -> conv2
I0403 13:13:10.356784 27600 net.cpp:141] Setting up conv2
I0403 13:13:10.356845 27600 net.cpp:148] Top shape: 100 256 27 27 (18662400)
I0403 13:13:10.356866 27600 net.cpp:156] Memory required for data: 512959600
I0403 13:13:10.356894 27600 layer_factory.hpp:77] Creating layer relu2
I0403 13:13:10.356920 27600 net.cpp:91] Creating Layer relu2
I0403 13:13:10.356940 27600 net.cpp:425] relu2 <- conv2
I0403 13:13:10.356962 27600 net.cpp:386] relu2 -> conv2 (in-place)
I0403 13:13:10.357295 27600 net.cpp:141] Setting up relu2
I0403 13:13:10.357327 27600 net.cpp:148] Top shape: 100 256 27 27 (18662400)
I0403 13:13:10.357347 27600 net.cpp:156] Memory required for data: 587609200
I0403 13:13:10.357365 27600 layer_factory.hpp:77] Creating layer norm2
I0403 13:13:10.357391 27600 net.cpp:91] Creating Layer norm2
I0403 13:13:10.357410 27600 net.cpp:425] norm2 <- conv2
I0403 13:13:10.357434 27600 net.cpp:399] norm2 -> norm2
I0403 13:13:10.357659 27600 net.cpp:141] Setting up norm2
I0403 13:13:10.357692 27600 net.cpp:148] Top shape: 100 256 27 27 (18662400)
I0403 13:13:10.357709 27600 net.cpp:156] Memory required for data: 662258800
I0403 13:13:10.357728 27600 layer_factory.hpp:77] Creating layer pool2
I0403 13:13:10.357753 27600 net.cpp:91] Creating Layer pool2
I0403 13:13:10.357771 27600 net.cpp:425] pool2 <- norm2
I0403 13:13:10.357795 27600 net.cpp:399] pool2 -> pool2
I0403 13:13:10.357859 27600 net.cpp:141] Setting up pool2
I0403 13:13:10.357887 27600 net.cpp:148] Top shape: 100 256 13 13 (4326400)
I0403 13:13:10.357905 27600 net.cpp:156] Memory required for data: 679564400
I0403 13:13:10.357923 27600 layer_factory.hpp:77] Creating layer conv3
I0403 13:13:10.357955 27600 net.cpp:91] Creating Layer conv3
I0403 13:13:10.357976 27600 net.cpp:425] conv3 <- pool2
I0403 13:13:10.357998 27600 net.cpp:399] conv3 -> conv3
I0403 13:13:10.411110 27600 net.cpp:141] Setting up conv3
I0403 13:13:10.411172 27600 net.cpp:148] Top shape: 100 384 13 13 (6489600)
I0403 13:13:10.411193 27600 net.cpp:156] Memory required for data: 705522800
I0403 13:13:10.411223 27600 layer_factory.hpp:77] Creating layer relu3
I0403 13:13:10.411248 27600 net.cpp:91] Creating Layer relu3
I0403 13:13:10.411278 27600 net.cpp:425] relu3 <- conv3
I0403 13:13:10.411308 27600 net.cpp:386] relu3 -> conv3 (in-place)
I0403 13:13:10.411628 27600 net.cpp:141] Setting up relu3
I0403 13:13:10.411660 27600 net.cpp:148] Top shape: 100 384 13 13 (6489600)
I0403 13:13:10.411680 27600 net.cpp:156] Memory required for data: 731481200
I0403 13:13:10.411698 27600 layer_factory.hpp:77] Creating layer conv4
I0403 13:13:10.411730 27600 net.cpp:91] Creating Layer conv4
I0403 13:13:10.411751 27600 net.cpp:425] conv4 <- conv3
I0403 13:13:10.411777 27600 net.cpp:399] conv4 -> conv4
I0403 13:13:10.447378 27600 net.cpp:141] Setting up conv4
I0403 13:13:10.447449 27600 net.cpp:148] Top shape: 100 384 13 13 (6489600)
I0403 13:13:10.447505 27600 net.cpp:156] Memory required for data: 757439600
I0403 13:13:10.447532 27600 layer_factory.hpp:77] Creating layer relu4
I0403 13:13:10.447559 27600 net.cpp:91] Creating Layer relu4
I0403 13:13:10.447581 27600 net.cpp:425] relu4 <- conv4
I0403 13:13:10.447607 27600 net.cpp:386] relu4 -> conv4 (in-place)
I0403 13:13:10.448009 27600 net.cpp:141] Setting up relu4
I0403 13:13:10.448094 27600 net.cpp:148] Top shape: 100 384 13 13 (6489600)
I0403 13:13:10.448182 27600 net.cpp:156] Memory required for data: 783398000
I0403 13:13:10.448246 27600 layer_factory.hpp:77] Creating layer conv5
I0403 13:13:10.448290 27600 net.cpp:91] Creating Layer conv5
I0403 13:13:10.448313 27600 net.cpp:425] conv5 <- conv4
I0403 13:13:10.448338 27600 net.cpp:399] conv5 -> conv5
I0403 13:13:10.473006 27600 net.cpp:141] Setting up conv5
I0403 13:13:10.473093 27600 net.cpp:148] Top shape: 100 256 13 13 (4326400)
I0403 13:13:10.473114 27600 net.cpp:156] Memory required for data: 800703600
I0403 13:13:10.473147 27600 layer_factory.hpp:77] Creating layer relu5
I0403 13:13:10.473175 27600 net.cpp:91] Creating Layer relu5
I0403 13:13:10.473196 27600 net.cpp:425] relu5 <- conv5
I0403 13:13:10.473223 27600 net.cpp:386] relu5 -> conv5 (in-place)
I0403 13:13:10.473575 27600 net.cpp:141] Setting up relu5
I0403 13:13:10.473608 27600 net.cpp:148] Top shape: 100 256 13 13 (4326400)
I0403 13:13:10.473628 27600 net.cpp:156] Memory required for data: 818009200
I0403 13:13:10.473646 27600 layer_factory.hpp:77] Creating layer pool5
I0403 13:13:10.473672 27600 net.cpp:91] Creating Layer pool5
I0403 13:13:10.473692 27600 net.cpp:425] pool5 <- conv5
I0403 13:13:10.473718 27600 net.cpp:399] pool5 -> pool5
I0403 13:13:10.473794 27600 net.cpp:141] Setting up pool5
I0403 13:13:10.473824 27600 net.cpp:148] Top shape: 100 256 6 6 (921600)
I0403 13:13:10.473841 27600 net.cpp:156] Memory required for data: 821695600
I0403 13:13:10.473860 27600 layer_factory.hpp:77] Creating layer fc6
I0403 13:13:10.473894 27600 net.cpp:91] Creating Layer fc6
I0403 13:13:10.473918 27600 net.cpp:425] fc6 <- pool5
I0403 13:13:10.473950 27600 net.cpp:399] fc6 -> fc6
I0403 13:13:12.089468 27600 net.cpp:141] Setting up fc6
I0403 13:13:12.089553 27600 net.cpp:148] Top shape: 100 4096 (409600)
I0403 13:13:12.089571 27600 net.cpp:156] Memory required for data: 823334000
I0403 13:13:12.089592 27600 layer_factory.hpp:77] Creating layer relu6
I0403 13:13:12.089617 27600 net.cpp:91] Creating Layer relu6
I0403 13:13:12.089638 27600 net.cpp:425] relu6 <- fc6
I0403 13:13:12.089658 27600 net.cpp:386] relu6 -> fc6 (in-place)
I0403 13:13:12.089897 27600 net.cpp:141] Setting up relu6
I0403 13:13:12.089923 27600 net.cpp:148] Top shape: 100 4096 (409600)
I0403 13:13:12.089938 27600 net.cpp:156] Memory required for data: 824972400
I0403 13:13:12.089954 27600 layer_factory.hpp:77] Creating layer drop6
I0403 13:13:12.089973 27600 net.cpp:91] Creating Layer drop6
I0403 13:13:12.089989 27600 net.cpp:425] drop6 <- fc6
I0403 13:13:12.090008 27600 net.cpp:386] drop6 -> fc6 (in-place)
I0403 13:13:12.090061 27600 net.cpp:141] Setting up drop6
I0403 13:13:12.090088 27600 net.cpp:148] Top shape: 100 4096 (409600)
I0403 13:13:12.090104 27600 net.cpp:156] Memory required for data: 826610800
I0403 13:13:12.090119 27600 layer_factory.hpp:77] Creating layer fc7
I0403 13:13:12.090138 27600 net.cpp:91] Creating Layer fc7
I0403 13:13:12.090154 27600 net.cpp:425] fc7 <- fc6
I0403 13:13:12.090175 27600 net.cpp:399] fc7 -> fc7
I0403 13:13:12.759618 27600 net.cpp:141] Setting up fc7
I0403 13:13:12.759672 27600 net.cpp:148] Top shape: 100 4096 (409600)
I0403 13:13:12.759690 27600 net.cpp:156] Memory required for data: 828249200
I0403 13:13:12.759711 27600 layer_factory.hpp:77] Creating layer relu7
I0403 13:13:12.759732 27600 net.cpp:91] Creating Layer relu7
I0403 13:13:12.759748 27600 net.cpp:425] relu7 <- fc7
I0403 13:13:12.759769 27600 net.cpp:386] relu7 -> fc7 (in-place)
I0403 13:13:12.760193 27600 net.cpp:141] Setting up relu7
I0403 13:13:12.760227 27600 net.cpp:148] Top shape: 100 4096 (409600)
I0403 13:13:12.760272 27600 net.cpp:156] Memory required for data: 829887600
I0403 13:13:12.760291 27600 layer_factory.hpp:77] Creating layer drop7
I0403 13:13:12.760315 27600 net.cpp:91] Creating Layer drop7
I0403 13:13:12.760337 27600 net.cpp:425] drop7 <- fc7
I0403 13:13:12.760363 27600 net.cpp:386] drop7 -> fc7 (in-place)
I0403 13:13:12.760412 27600 net.cpp:141] Setting up drop7
I0403 13:13:12.760440 27600 net.cpp:148] Top shape: 100 4096 (409600)
I0403 13:13:12.760459 27600 net.cpp:156] Memory required for data: 831526000
I0403 13:13:12.760475 27600 layer_factory.hpp:77] Creating layer fc8_plantvillage
I0403 13:13:12.760501 27600 net.cpp:91] Creating Layer fc8_plantvillage
I0403 13:13:12.760522 27600 net.cpp:425] fc8_plantvillage <- fc7
I0403 13:13:12.760545 27600 net.cpp:399] fc8_plantvillage -> fc8_plantvillage
I0403 13:13:12.767801 27600 net.cpp:141] Setting up fc8_plantvillage
I0403 13:13:12.767850 27600 net.cpp:148] Top shape: 100 38 (3800)
I0403 13:13:12.767880 27600 net.cpp:156] Memory required for data: 831541200
I0403 13:13:12.767925 27600 layer_factory.hpp:77] Creating layer fc8_plantvillage_fc8_plantvillage_0_split
I0403 13:13:12.767956 27600 net.cpp:91] Creating Layer fc8_plantvillage_fc8_plantvillage_0_split
I0403 13:13:12.767979 27600 net.cpp:425] fc8_plantvillage_fc8_plantvillage_0_split <- fc8_plantvillage
I0403 13:13:12.768012 27600 net.cpp:399] fc8_plantvillage_fc8_plantvillage_0_split -> fc8_plantvillage_fc8_plantvillage_0_split_0
I0403 13:13:12.768038 27600 net.cpp:399] fc8_plantvillage_fc8_plantvillage_0_split -> fc8_plantvillage_fc8_plantvillage_0_split_1
I0403 13:13:12.768061 27600 net.cpp:399] fc8_plantvillage_fc8_plantvillage_0_split -> fc8_plantvillage_fc8_plantvillage_0_split_2
I0403 13:13:12.768141 27600 net.cpp:141] Setting up fc8_plantvillage_fc8_plantvillage_0_split
I0403 13:13:12.768167 27600 net.cpp:148] Top shape: 100 38 (3800)
I0403 13:13:12.768183 27600 net.cpp:148] Top shape: 100 38 (3800)
I0403 13:13:12.768200 27600 net.cpp:148] Top shape: 100 38 (3800)
I0403 13:13:12.768218 27600 net.cpp:156] Memory required for data: 831586800
I0403 13:13:12.768234 27600 layer_factory.hpp:77] Creating layer prob
I0403 13:13:12.768260 27600 net.cpp:91] Creating Layer prob
I0403 13:13:12.768280 27600 net.cpp:425] prob <- fc8_plantvillage_fc8_plantvillage_0_split_0
I0403 13:13:12.768309 27600 net.cpp:399] prob -> prob
I0403 13:13:12.768560 27600 net.cpp:141] Setting up prob
I0403 13:13:12.768591 27600 net.cpp:148] Top shape: 100 38 (3800)
I0403 13:13:12.768607 27600 net.cpp:156] Memory required for data: 831602000
I0403 13:13:12.768623 27600 layer_factory.hpp:77] Creating layer hdf5out
I0403 13:13:12.768645 27600 net.cpp:91] Creating Layer hdf5out
I0403 13:13:12.768661 27600 net.cpp:425] hdf5out <- prob
I0403 13:13:12.768678 27600 net.cpp:425] hdf5out <- label_data_1_split_0
I0403 13:13:12.773619 27600 net.cpp:141] Setting up hdf5out
…
