…
I0403 13:18:44.314438 27746 net.cpp:313] The NetState phase (1) differed from the phase (0) specified by a rule in layer data
I0403 13:18:44.314750 27746 net.cpp:49] Initializing net from parameters: 
state {
  phase: TEST
}
layer {
  name: "data"
  type: "Data"
  top: "data"
  top: "label"
  include {
    phase: TEST
  }
  transform_param {
    crop_size: 227
    mean_file: "/home/mohanty/data/final_dataset/lmdb/color-60-40/mean.binaryproto"
  }
  data_param {
    source: "/home/mohanty/data/final_dataset/lmdb/color-60-40/test_db"
    batch_size: 100
    backend: LMDB
  }
}
layer {
  name: "conv1"
  type: "Convolution"
  bottom: "data"
  top: "conv1"
  param {
    lr_mult: 1
    decay_mult: 1
  }
  param {
    lr_mult: 2
    decay_mult: 0
  }
  convolution_param {
    num_output: 96
    kernel_size: 11
    stride: 4
    weight_filler {
      type: "gaussian"
      std: 0.01
    }
    bias_filler {
      type: "constant"
      value: 0
    }
  }
}
layer {
  name: "relu1"
  type: "ReLU"
  bottom: "conv1"
  top: "conv1"
}
layer {
  name: "norm1"
  type: "LRN"
  bottom: "conv1"
  top: "norm1"
  lrn_param {
    local_size: 5
    alpha: 0.0001
    beta: 0.75
  }
}
layer {
  name: "pool1"
  type: "Pooling"
  bottom: "norm1"
  top: "pool1"
  pooling_param {
    pool: MAX
    kernel_size: 3
    stride: 2
  }
}
layer {
  name: "conv2"
  type: "Convolution"
  bottom: "pool1"
  top: "conv2"
  param {
    lr_mult: 1
    decay_mult: 1
  }
  param {
    lr_mult: 2
    decay_mult: 0
  }
  convolution_param {
    num_output: 256
    pad: 2
    kernel_size: 5
    group: 2
    weight_filler {
      type: "gaussian"
      std: 0.01
    }
    bias_filler {
      type: "constant"
      value: 0.1
    }
  }
}
layer {
  name: "relu2"
  type: "ReLU"
  bottom: "conv2"
  top: "conv2"
}
layer {
  name: "norm2"
  type: "LRN"
  bottom: "conv2"
  top: "norm2"
  lrn_param {
    local_size: 5
    alpha: 0.0001
    beta: 0.75
  }
}
layer {
  name: "pool2"
  type: "Pooling"
  bottom: "norm2"
  top: "pool2"
  pooling_param {
    pool: MAX
    kernel_size: 3
    stride: 2
  }
}
layer {
  name: "conv3"
  type: "Convolution"
  bottom: "pool2"
  top: "conv3"
  param {
    lr_mult: 1
    decay_mult: 1
  }
  param {
    lr_mult: 2
    decay_mult: 0
  }
  convolution_param {
    num_output: 384
    pad: 1
    kernel_size: 3
    weight_filler {
      type: "gaussian"
      std: 0.01
    }
    bias_filler {
      type: "constant"
      value: 0
    }
  }
}
layer {
  name: "relu3"
  type: "ReLU"
  bottom: "conv3"
  top: "conv3"
}
layer {
  name: "conv4"
  type: "Convolution"
  bottom: "conv3"
  top: "conv4"
  param {
    lr_mult: 1
    decay_mult: 1
  }
  param {
    lr_mult: 2
    decay_mult: 0
  }
  convolution_param {
    num_output: 384
    pad: 1
    kernel_size: 3
    group: 2
    weight_filler {
      type: "gaussian"
      std: 0.01
    }
    bias_filler {
      type: "constant"
      value: 0.1
    }
  }
}
layer {
  name: "relu4"
  type: "ReLU"
  bottom: "conv4"
  top: "conv4"
}
layer {
  name: "conv5"
  type: "Convolution"
  bottom: "conv4"
  top: "conv5"
  param {
    lr_mult: 1
    decay_mult: 1
  }
  param {
    lr_mult: 2
    decay_mult: 0
  }
  convolution_param {
    num_output: 256
    pad: 1
    kernel_size: 3
    group: 2
    weight_filler {
      type: "gaussian"
      std: 0.01
    }
    bias_filler {
      type: "constant"
      value: 0.1
    }
  }
}
layer {
  name: "relu5"
  type: "ReLU"
  bottom: "conv5"
  top: "conv5"
}
layer {
  name: "pool5"
  type: "Pooling"
  bottom: "conv5"
  top: "pool5"
  pooling_param {
    pool: MAX
    kernel_size: 3
    stride: 2
  }
}
layer {
  name: "fc6"
  type: "InnerProduct"
  bottom: "pool5"
  top: "fc6"
  param {
    lr_mult: 1
    decay_mult: 1
  }
  param {
    lr_mult: 2
    decay_mult: 0
  }
  inner_product_param {
    num_output: 4096
    weight_filler {
      type: "gaussian"
      std: 0.005
    }
    bias_filler {
      type: "constant"
      value: 0.1
    }
  }
}
layer {
  name: "relu6"
  type: "ReLU"
  bottom: "fc6"
  top: "fc6"
}
layer {
  name: "drop6"
  type: "Dropout"
  bottom: "fc6"
  top: "fc6"
  dropout_param {
    dropout_ratio: 0.5
  }
}
layer {
  name: "fc7"
  type: "InnerProduct"
  bottom: "fc6"
  top: "fc7"
  param {
    lr_mult: 1
    decay_mult: 1
  }
  param {
    lr_mult: 2
    decay_mult: 0
  }
  inner_product_param {
    num_output: 4096
    weight_filler {
      type: "gaussian"
      std: 0.005
    }
    bias_filler {
      type: "constant"
      value: 0.1
    }
  }
}
layer {
  name: "relu7"
  type: "ReLU"
  bottom: "fc7"
  top: "fc7"
}
layer {
  name: "drop7"
  type: "Dropout"
  bottom: "fc7"
  top: "fc7"
  dropout_param {
    dropout_ratio: 0.5
  }
}
layer {
  name: "fc8_plantvillage"
  type: "InnerProduct"
  bottom: "fc7"
  top: "fc8_plantvillage"
  param {
    lr_mult: 1
    decay_mult: 1
  }
  param {
    lr_mult: 2
    decay_mult: 0
  }
  inner_product_param {
    num_output: 38
    weight_filler {
      type: "gaussian"
      std: 0.01
    }
    bias_filler {
      type: "constant"
      value: 0
    }
  }
}
layer {
  name: "prob"
  type: "Softmax"
  bottom: "fc8_plantvillage"
  top: "prob"
  include {
    phase: TEST
  }
}
layer {
  name: "hdf5out"
  type: "HDF5Output"
  bottom: "prob"
  bottom: "label"
  include {
    phase: TEST
  }
  hdf5_output_param {
    file_name: "hdf5_dumps/iter_6175.h5"
  }
}
layer {
  name: "loss"
  type: "SoftmaxWithLoss"
  bottom: "fc8_plantvillage"
  bottom: "label"
  top: "loss"
}
layer {
  name: "accuracy"
  type: "Accuracy"
  bottom: "fc8_plantvillage"
  bottom: "label"
  top: "accuracy"
  include {
    phase: TEST
  }
}
I0403 13:18:44.315330 27746 layer_factory.hpp:77] Creating layer data
I0403 13:18:44.315987 27746 net.cpp:91] Creating Layer data
I0403 13:18:44.316020 27746 net.cpp:399] data -> data
I0403 13:18:44.316074 27746 net.cpp:399] data -> label
I0403 13:18:44.316112 27746 data_transformer.cpp:25] Loading mean file from: /home/mohanty/data/final_dataset/lmdb/color-60-40/mean.binaryproto
I0403 13:18:44.318800 27749 db_lmdb.cpp:38] Opened lmdb /home/mohanty/data/final_dataset/lmdb/color-60-40/test_db
I0403 13:18:44.330787 27746 data_layer.cpp:41] output data size: 100,3,227,227
I0403 13:18:44.464509 27746 net.cpp:141] Setting up data
I0403 13:18:44.464604 27746 net.cpp:148] Top shape: 100 3 227 227 (15458700)
I0403 13:18:44.464629 27746 net.cpp:148] Top shape: 100 (100)
I0403 13:18:44.464645 27746 net.cpp:156] Memory required for data: 61835200
I0403 13:18:44.464674 27746 layer_factory.hpp:77] Creating layer label_data_1_split
I0403 13:18:44.464702 27746 net.cpp:91] Creating Layer label_data_1_split
I0403 13:18:44.464721 27746 net.cpp:425] label_data_1_split <- label
I0403 13:18:44.464756 27746 net.cpp:399] label_data_1_split -> label_data_1_split_0
I0403 13:18:44.464784 27746 net.cpp:399] label_data_1_split -> label_data_1_split_1
I0403 13:18:44.464805 27746 net.cpp:399] label_data_1_split -> label_data_1_split_2
I0403 13:18:44.464871 27746 net.cpp:141] Setting up label_data_1_split
I0403 13:18:44.464896 27746 net.cpp:148] Top shape: 100 (100)
I0403 13:18:44.464915 27746 net.cpp:148] Top shape: 100 (100)
I0403 13:18:44.464933 27746 net.cpp:148] Top shape: 100 (100)
I0403 13:18:44.464948 27746 net.cpp:156] Memory required for data: 61836400
I0403 13:18:44.464964 27746 layer_factory.hpp:77] Creating layer conv1
I0403 13:18:44.464998 27746 net.cpp:91] Creating Layer conv1
I0403 13:18:44.465019 27746 net.cpp:425] conv1 <- data
I0403 13:18:44.465040 27746 net.cpp:399] conv1 -> conv1
I0403 13:18:44.612639 27746 net.cpp:141] Setting up conv1
I0403 13:18:44.612717 27746 net.cpp:148] Top shape: 100 96 55 55 (29040000)
I0403 13:18:44.612736 27746 net.cpp:156] Memory required for data: 177996400
I0403 13:18:44.612771 27746 layer_factory.hpp:77] Creating layer relu1
I0403 13:18:44.612798 27746 net.cpp:91] Creating Layer relu1
I0403 13:18:44.612818 27746 net.cpp:425] relu1 <- conv1
I0403 13:18:44.612836 27746 net.cpp:386] relu1 -> conv1 (in-place)
I0403 13:18:44.613184 27746 net.cpp:141] Setting up relu1
I0403 13:18:44.613212 27746 net.cpp:148] Top shape: 100 96 55 55 (29040000)
I0403 13:18:44.613229 27746 net.cpp:156] Memory required for data: 294156400
I0403 13:18:44.613278 27746 layer_factory.hpp:77] Creating layer norm1
I0403 13:18:44.613312 27746 net.cpp:91] Creating Layer norm1
I0403 13:18:44.613333 27746 net.cpp:425] norm1 <- conv1
I0403 13:18:44.613353 27746 net.cpp:399] norm1 -> norm1
I0403 13:18:44.613659 27746 net.cpp:141] Setting up norm1
I0403 13:18:44.613689 27746 net.cpp:148] Top shape: 100 96 55 55 (29040000)
I0403 13:18:44.613706 27746 net.cpp:156] Memory required for data: 410316400
I0403 13:18:44.613723 27746 layer_factory.hpp:77] Creating layer pool1
I0403 13:18:44.613746 27746 net.cpp:91] Creating Layer pool1
I0403 13:18:44.613764 27746 net.cpp:425] pool1 <- norm1
I0403 13:18:44.613783 27746 net.cpp:399] pool1 -> pool1
I0403 13:18:44.613850 27746 net.cpp:141] Setting up pool1
I0403 13:18:44.613875 27746 net.cpp:148] Top shape: 100 96 27 27 (6998400)
I0403 13:18:44.613891 27746 net.cpp:156] Memory required for data: 438310000
I0403 13:18:44.613906 27746 layer_factory.hpp:77] Creating layer conv2
I0403 13:18:44.613931 27746 net.cpp:91] Creating Layer conv2
I0403 13:18:44.613948 27746 net.cpp:425] conv2 <- pool1
I0403 13:18:44.613967 27746 net.cpp:399] conv2 -> conv2
I0403 13:18:44.629159 27746 net.cpp:141] Setting up conv2
I0403 13:18:44.629206 27746 net.cpp:148] Top shape: 100 256 27 27 (18662400)
I0403 13:18:44.629225 27746 net.cpp:156] Memory required for data: 512959600
I0403 13:18:44.629250 27746 layer_factory.hpp:77] Creating layer relu2
I0403 13:18:44.629272 27746 net.cpp:91] Creating Layer relu2
I0403 13:18:44.629294 27746 net.cpp:425] relu2 <- conv2
I0403 13:18:44.629314 27746 net.cpp:386] relu2 -> conv2 (in-place)
I0403 13:18:44.629585 27746 net.cpp:141] Setting up relu2
I0403 13:18:44.629614 27746 net.cpp:148] Top shape: 100 256 27 27 (18662400)
I0403 13:18:44.629631 27746 net.cpp:156] Memory required for data: 587609200
I0403 13:18:44.629645 27746 layer_factory.hpp:77] Creating layer norm2
I0403 13:18:44.629669 27746 net.cpp:91] Creating Layer norm2
I0403 13:18:44.629685 27746 net.cpp:425] norm2 <- conv2
I0403 13:18:44.629705 27746 net.cpp:399] norm2 -> norm2
I0403 13:18:44.629891 27746 net.cpp:141] Setting up norm2
I0403 13:18:44.629920 27746 net.cpp:148] Top shape: 100 256 27 27 (18662400)
I0403 13:18:44.629935 27746 net.cpp:156] Memory required for data: 662258800
I0403 13:18:44.629951 27746 layer_factory.hpp:77] Creating layer pool2
I0403 13:18:44.629971 27746 net.cpp:91] Creating Layer pool2
I0403 13:18:44.629987 27746 net.cpp:425] pool2 <- norm2
I0403 13:18:44.630007 27746 net.cpp:399] pool2 -> pool2
I0403 13:18:44.630056 27746 net.cpp:141] Setting up pool2
I0403 13:18:44.630081 27746 net.cpp:148] Top shape: 100 256 13 13 (4326400)
I0403 13:18:44.630096 27746 net.cpp:156] Memory required for data: 679564400
I0403 13:18:44.630111 27746 layer_factory.hpp:77] Creating layer conv3
I0403 13:18:44.630134 27746 net.cpp:91] Creating Layer conv3
I0403 13:18:44.630151 27746 net.cpp:425] conv3 <- pool2
I0403 13:18:44.630172 27746 net.cpp:399] conv3 -> conv3
I0403 13:18:44.669234 27746 net.cpp:141] Setting up conv3
I0403 13:18:44.669313 27746 net.cpp:148] Top shape: 100 384 13 13 (6489600)
I0403 13:18:44.669332 27746 net.cpp:156] Memory required for data: 705522800
I0403 13:18:44.669359 27746 layer_factory.hpp:77] Creating layer relu3
I0403 13:18:44.669384 27746 net.cpp:91] Creating Layer relu3
I0403 13:18:44.669402 27746 net.cpp:425] relu3 <- conv3
I0403 13:18:44.669425 27746 net.cpp:386] relu3 -> conv3 (in-place)
I0403 13:18:44.669741 27746 net.cpp:141] Setting up relu3
I0403 13:18:44.669770 27746 net.cpp:148] Top shape: 100 384 13 13 (6489600)
I0403 13:18:44.669785 27746 net.cpp:156] Memory required for data: 731481200
I0403 13:18:44.669801 27746 layer_factory.hpp:77] Creating layer conv4
I0403 13:18:44.669828 27746 net.cpp:91] Creating Layer conv4
I0403 13:18:44.669847 27746 net.cpp:425] conv4 <- conv3
I0403 13:18:44.669869 27746 net.cpp:399] conv4 -> conv4
I0403 13:18:44.700089 27746 net.cpp:141] Setting up conv4
I0403 13:18:44.700158 27746 net.cpp:148] Top shape: 100 384 13 13 (6489600)
I0403 13:18:44.700212 27746 net.cpp:156] Memory required for data: 757439600
I0403 13:18:44.700248 27746 layer_factory.hpp:77] Creating layer relu4
I0403 13:18:44.700273 27746 net.cpp:91] Creating Layer relu4
I0403 13:18:44.700297 27746 net.cpp:425] relu4 <- conv4
I0403 13:18:44.700317 27746 net.cpp:386] relu4 -> conv4 (in-place)
I0403 13:18:44.700662 27746 net.cpp:141] Setting up relu4
I0403 13:18:44.700692 27746 net.cpp:148] Top shape: 100 384 13 13 (6489600)
I0403 13:18:44.700709 27746 net.cpp:156] Memory required for data: 783398000
I0403 13:18:44.700726 27746 layer_factory.hpp:77] Creating layer conv5
I0403 13:18:44.700752 27746 net.cpp:91] Creating Layer conv5
I0403 13:18:44.700770 27746 net.cpp:425] conv5 <- conv4
I0403 13:18:44.700791 27746 net.cpp:399] conv5 -> conv5
I0403 13:18:44.721684 27746 net.cpp:141] Setting up conv5
I0403 13:18:44.721724 27746 net.cpp:148] Top shape: 100 256 13 13 (4326400)
I0403 13:18:44.721742 27746 net.cpp:156] Memory required for data: 800703600
I0403 13:18:44.721768 27746 layer_factory.hpp:77] Creating layer relu5
I0403 13:18:44.721791 27746 net.cpp:91] Creating Layer relu5
I0403 13:18:44.721808 27746 net.cpp:425] relu5 <- conv5
I0403 13:18:44.721828 27746 net.cpp:386] relu5 -> conv5 (in-place)
I0403 13:18:44.722138 27746 net.cpp:141] Setting up relu5
I0403 13:18:44.722167 27746 net.cpp:148] Top shape: 100 256 13 13 (4326400)
I0403 13:18:44.722182 27746 net.cpp:156] Memory required for data: 818009200
I0403 13:18:44.722198 27746 layer_factory.hpp:77] Creating layer pool5
I0403 13:18:44.722234 27746 net.cpp:91] Creating Layer pool5
I0403 13:18:44.722259 27746 net.cpp:425] pool5 <- conv5
I0403 13:18:44.722280 27746 net.cpp:399] pool5 -> pool5
I0403 13:18:44.722347 27746 net.cpp:141] Setting up pool5
I0403 13:18:44.722373 27746 net.cpp:148] Top shape: 100 256 6 6 (921600)
I0403 13:18:44.722388 27746 net.cpp:156] Memory required for data: 821695600
I0403 13:18:44.722404 27746 layer_factory.hpp:77] Creating layer fc6
I0403 13:18:44.722430 27746 net.cpp:91] Creating Layer fc6
I0403 13:18:44.722450 27746 net.cpp:425] fc6 <- pool5
I0403 13:18:44.722472 27746 net.cpp:399] fc6 -> fc6
I0403 13:18:46.309305 27746 net.cpp:141] Setting up fc6
I0403 13:18:46.309391 27746 net.cpp:148] Top shape: 100 4096 (409600)
I0403 13:18:46.309411 27746 net.cpp:156] Memory required for data: 823334000
I0403 13:18:46.309433 27746 layer_factory.hpp:77] Creating layer relu6
I0403 13:18:46.309458 27746 net.cpp:91] Creating Layer relu6
I0403 13:18:46.309475 27746 net.cpp:425] relu6 <- fc6
I0403 13:18:46.309495 27746 net.cpp:386] relu6 -> fc6 (in-place)
I0403 13:18:46.309720 27746 net.cpp:141] Setting up relu6
I0403 13:18:46.309749 27746 net.cpp:148] Top shape: 100 4096 (409600)
I0403 13:18:46.309767 27746 net.cpp:156] Memory required for data: 824972400
I0403 13:18:46.309782 27746 layer_factory.hpp:77] Creating layer drop6
I0403 13:18:46.309800 27746 net.cpp:91] Creating Layer drop6
I0403 13:18:46.309816 27746 net.cpp:425] drop6 <- fc6
I0403 13:18:46.309836 27746 net.cpp:386] drop6 -> fc6 (in-place)
I0403 13:18:46.309888 27746 net.cpp:141] Setting up drop6
I0403 13:18:46.309912 27746 net.cpp:148] Top shape: 100 4096 (409600)
I0403 13:18:46.309928 27746 net.cpp:156] Memory required for data: 826610800
I0403 13:18:46.309944 27746 layer_factory.hpp:77] Creating layer fc7
I0403 13:18:46.309967 27746 net.cpp:91] Creating Layer fc7
I0403 13:18:46.309984 27746 net.cpp:425] fc7 <- fc6
I0403 13:18:46.310005 27746 net.cpp:399] fc7 -> fc7
I0403 13:18:47.011114 27746 net.cpp:141] Setting up fc7
I0403 13:18:47.011194 27746 net.cpp:148] Top shape: 100 4096 (409600)
I0403 13:18:47.011214 27746 net.cpp:156] Memory required for data: 828249200
I0403 13:18:47.011236 27746 layer_factory.hpp:77] Creating layer relu7
I0403 13:18:47.011267 27746 net.cpp:91] Creating Layer relu7
I0403 13:18:47.011288 27746 net.cpp:425] relu7 <- fc7
I0403 13:18:47.011312 27746 net.cpp:386] relu7 -> fc7 (in-place)
I0403 13:18:47.011729 27746 net.cpp:141] Setting up relu7
I0403 13:18:47.011759 27746 net.cpp:148] Top shape: 100 4096 (409600)
I0403 13:18:47.011811 27746 net.cpp:156] Memory required for data: 829887600
I0403 13:18:47.011829 27746 layer_factory.hpp:77] Creating layer drop7
I0403 13:18:47.011852 27746 net.cpp:91] Creating Layer drop7
I0403 13:18:47.011868 27746 net.cpp:425] drop7 <- fc7
I0403 13:18:47.011888 27746 net.cpp:386] drop7 -> fc7 (in-place)
I0403 13:18:47.011934 27746 net.cpp:141] Setting up drop7
I0403 13:18:47.011960 27746 net.cpp:148] Top shape: 100 4096 (409600)
I0403 13:18:47.011979 27746 net.cpp:156] Memory required for data: 831526000
I0403 13:18:47.011996 27746 layer_factory.hpp:77] Creating layer fc8_plantvillage
I0403 13:18:47.012017 27746 net.cpp:91] Creating Layer fc8_plantvillage
I0403 13:18:47.012033 27746 net.cpp:425] fc8_plantvillage <- fc7
I0403 13:18:47.012055 27746 net.cpp:399] fc8_plantvillage -> fc8_plantvillage
I0403 13:18:47.019219 27746 net.cpp:141] Setting up fc8_plantvillage
I0403 13:18:47.019250 27746 net.cpp:148] Top shape: 100 38 (3800)
I0403 13:18:47.019275 27746 net.cpp:156] Memory required for data: 831541200
I0403 13:18:47.019296 27746 layer_factory.hpp:77] Creating layer fc8_plantvillage_fc8_plantvillage_0_split
I0403 13:18:47.019316 27746 net.cpp:91] Creating Layer fc8_plantvillage_fc8_plantvillage_0_split
I0403 13:18:47.019332 27746 net.cpp:425] fc8_plantvillage_fc8_plantvillage_0_split <- fc8_plantvillage
I0403 13:18:47.019354 27746 net.cpp:399] fc8_plantvillage_fc8_plantvillage_0_split -> fc8_plantvillage_fc8_plantvillage_0_split_0
I0403 13:18:47.019377 27746 net.cpp:399] fc8_plantvillage_fc8_plantvillage_0_split -> fc8_plantvillage_fc8_plantvillage_0_split_1
I0403 13:18:47.019400 27746 net.cpp:399] fc8_plantvillage_fc8_plantvillage_0_split -> fc8_plantvillage_fc8_plantvillage_0_split_2
I0403 13:18:47.019484 27746 net.cpp:141] Setting up fc8_plantvillage_fc8_plantvillage_0_split
I0403 13:18:47.019512 27746 net.cpp:148] Top shape: 100 38 (3800)
I0403 13:18:47.019531 27746 net.cpp:148] Top shape: 100 38 (3800)
I0403 13:18:47.019547 27746 net.cpp:148] Top shape: 100 38 (3800)
I0403 13:18:47.019562 27746 net.cpp:156] Memory required for data: 831586800
I0403 13:18:47.019578 27746 layer_factory.hpp:77] Creating layer prob
I0403 13:18:47.019598 27746 net.cpp:91] Creating Layer prob
I0403 13:18:47.019615 27746 net.cpp:425] prob <- fc8_plantvillage_fc8_plantvillage_0_split_0
I0403 13:18:47.019636 27746 net.cpp:399] prob -> prob
I0403 13:18:47.019875 27746 net.cpp:141] Setting up prob
I0403 13:18:47.019903 27746 net.cpp:148] Top shape: 100 38 (3800)
I0403 13:18:47.019920 27746 net.cpp:156] Memory required for data: 831602000
I0403 13:18:47.019937 27746 layer_factory.hpp:77] Creating layer hdf5out
I0403 13:18:47.019958 27746 net.cpp:91] Creating Layer hdf5out
I0403 13:18:47.019974 27746 net.cpp:425] hdf5out <- prob
I0403 13:18:47.019994 27746 net.cpp:425] hdf5out <- label_data_1_split_0
I0403 13:18:47.023288 27746 net.cpp:141] Setting up hdf5out
…
