…
I0403 13:21:54.566977 27846 net.cpp:313] The NetState phase (1) differed from the phase (0) specified by a rule in layer data
I0403 13:21:54.567306 27846 net.cpp:49] Initializing net from parameters: 
state {
  phase: TEST
}
layer {
  name: "data"
  type: "Data"
  top: "data"
  top: "label"
  include {
    phase: TEST
  }
  transform_param {
    crop_size: 227
    mean_file: "/home/mohanty/data/final_dataset/lmdb/color-60-40/mean.binaryproto"
  }
  data_param {
    source: "/home/mohanty/data/final_dataset/lmdb/color-60-40/test_db"
    batch_size: 100
    backend: LMDB
  }
}
layer {
  name: "conv1"
  type: "Convolution"
  bottom: "data"
  top: "conv1"
  param {
    lr_mult: 1
    decay_mult: 1
  }
  param {
    lr_mult: 2
    decay_mult: 0
  }
  convolution_param {
    num_output: 96
    kernel_size: 11
    stride: 4
    weight_filler {
      type: "gaussian"
      std: 0.01
    }
    bias_filler {
      type: "constant"
      value: 0
    }
  }
}
layer {
  name: "relu1"
  type: "ReLU"
  bottom: "conv1"
  top: "conv1"
}
layer {
  name: "norm1"
  type: "LRN"
  bottom: "conv1"
  top: "norm1"
  lrn_param {
    local_size: 5
    alpha: 0.0001
    beta: 0.75
  }
}
layer {
  name: "pool1"
  type: "Pooling"
  bottom: "norm1"
  top: "pool1"
  pooling_param {
    pool: MAX
    kernel_size: 3
    stride: 2
  }
}
layer {
  name: "conv2"
  type: "Convolution"
  bottom: "pool1"
  top: "conv2"
  param {
    lr_mult: 1
    decay_mult: 1
  }
  param {
    lr_mult: 2
    decay_mult: 0
  }
  convolution_param {
    num_output: 256
    pad: 2
    kernel_size: 5
    group: 2
    weight_filler {
      type: "gaussian"
      std: 0.01
    }
    bias_filler {
      type: "constant"
      value: 0.1
    }
  }
}
layer {
  name: "relu2"
  type: "ReLU"
  bottom: "conv2"
  top: "conv2"
}
layer {
  name: "norm2"
  type: "LRN"
  bottom: "conv2"
  top: "norm2"
  lrn_param {
    local_size: 5
    alpha: 0.0001
    beta: 0.75
  }
}
layer {
  name: "pool2"
  type: "Pooling"
  bottom: "norm2"
  top: "pool2"
  pooling_param {
    pool: MAX
    kernel_size: 3
    stride: 2
  }
}
layer {
  name: "conv3"
  type: "Convolution"
  bottom: "pool2"
  top: "conv3"
  param {
    lr_mult: 1
    decay_mult: 1
  }
  param {
    lr_mult: 2
    decay_mult: 0
  }
  convolution_param {
    num_output: 384
    pad: 1
    kernel_size: 3
    weight_filler {
      type: "gaussian"
      std: 0.01
    }
    bias_filler {
      type: "constant"
      value: 0
    }
  }
}
layer {
  name: "relu3"
  type: "ReLU"
  bottom: "conv3"
  top: "conv3"
}
layer {
  name: "conv4"
  type: "Convolution"
  bottom: "conv3"
  top: "conv4"
  param {
    lr_mult: 1
    decay_mult: 1
  }
  param {
    lr_mult: 2
    decay_mult: 0
  }
  convolution_param {
    num_output: 384
    pad: 1
    kernel_size: 3
    group: 2
    weight_filler {
      type: "gaussian"
      std: 0.01
    }
    bias_filler {
      type: "constant"
      value: 0.1
    }
  }
}
layer {
  name: "relu4"
  type: "ReLU"
  bottom: "conv4"
  top: "conv4"
}
layer {
  name: "conv5"
  type: "Convolution"
  bottom: "conv4"
  top: "conv5"
  param {
    lr_mult: 1
    decay_mult: 1
  }
  param {
    lr_mult: 2
    decay_mult: 0
  }
  convolution_param {
    num_output: 256
    pad: 1
    kernel_size: 3
    group: 2
    weight_filler {
      type: "gaussian"
      std: 0.01
    }
    bias_filler {
      type: "constant"
      value: 0.1
    }
  }
}
layer {
  name: "relu5"
  type: "ReLU"
  bottom: "conv5"
  top: "conv5"
}
layer {
  name: "pool5"
  type: "Pooling"
  bottom: "conv5"
  top: "pool5"
  pooling_param {
    pool: MAX
    kernel_size: 3
    stride: 2
  }
}
layer {
  name: "fc6"
  type: "InnerProduct"
  bottom: "pool5"
  top: "fc6"
  param {
    lr_mult: 1
    decay_mult: 1
  }
  param {
    lr_mult: 2
    decay_mult: 0
  }
  inner_product_param {
    num_output: 4096
    weight_filler {
      type: "gaussian"
      std: 0.005
    }
    bias_filler {
      type: "constant"
      value: 0.1
    }
  }
}
layer {
  name: "relu6"
  type: "ReLU"
  bottom: "fc6"
  top: "fc6"
}
layer {
  name: "drop6"
  type: "Dropout"
  bottom: "fc6"
  top: "fc6"
  dropout_param {
    dropout_ratio: 0.5
  }
}
layer {
  name: "fc7"
  type: "InnerProduct"
  bottom: "fc6"
  top: "fc7"
  param {
    lr_mult: 1
    decay_mult: 1
  }
  param {
    lr_mult: 2
    decay_mult: 0
  }
  inner_product_param {
    num_output: 4096
    weight_filler {
      type: "gaussian"
      std: 0.005
    }
    bias_filler {
      type: "constant"
      value: 0.1
    }
  }
}
layer {
  name: "relu7"
  type: "ReLU"
  bottom: "fc7"
  top: "fc7"
}
layer {
  name: "drop7"
  type: "Dropout"
  bottom: "fc7"
  top: "fc7"
  dropout_param {
    dropout_ratio: 0.5
  }
}
layer {
  name: "fc8_plantvillage"
  type: "InnerProduct"
  bottom: "fc7"
  top: "fc8_plantvillage"
  param {
    lr_mult: 1
    decay_mult: 1
  }
  param {
    lr_mult: 2
    decay_mult: 0
  }
  inner_product_param {
    num_output: 38
    weight_filler {
      type: "gaussian"
      std: 0.01
    }
    bias_filler {
      type: "constant"
      value: 0
    }
  }
}
layer {
  name: "prob"
  type: "Softmax"
  bottom: "fc8_plantvillage"
  top: "prob"
  include {
    phase: TEST
  }
}
layer {
  name: "hdf5out"
  type: "HDF5Output"
  bottom: "prob"
  bottom: "label"
  include {
    phase: TEST
  }
  hdf5_output_param {
    file_name: "hdf5_dumps/iter_7475.h5"
  }
}
layer {
  name: "loss"
  type: "SoftmaxWithLoss"
  bottom: "fc8_plantvillage"
  bottom: "label"
  top: "loss"
}
layer {
  name: "accuracy"
  type: "Accuracy"
  bottom: "fc8_plantvillage"
  bottom: "label"
  top: "accuracy"
  include {
    phase: TEST
  }
}
I0403 13:21:54.567880 27846 layer_factory.hpp:77] Creating layer data
I0403 13:21:54.568536 27846 net.cpp:91] Creating Layer data
I0403 13:21:54.568568 27846 net.cpp:399] data -> data
I0403 13:21:54.568624 27846 net.cpp:399] data -> label
I0403 13:21:54.568661 27846 data_transformer.cpp:25] Loading mean file from: /home/mohanty/data/final_dataset/lmdb/color-60-40/mean.binaryproto
I0403 13:21:54.571730 27849 db_lmdb.cpp:38] Opened lmdb /home/mohanty/data/final_dataset/lmdb/color-60-40/test_db
I0403 13:21:54.583171 27846 data_layer.cpp:41] output data size: 100,3,227,227
I0403 13:21:54.717432 27846 net.cpp:141] Setting up data
I0403 13:21:54.717528 27846 net.cpp:148] Top shape: 100 3 227 227 (15458700)
I0403 13:21:54.717552 27846 net.cpp:148] Top shape: 100 (100)
I0403 13:21:54.717569 27846 net.cpp:156] Memory required for data: 61835200
I0403 13:21:54.717599 27846 layer_factory.hpp:77] Creating layer label_data_1_split
I0403 13:21:54.717627 27846 net.cpp:91] Creating Layer label_data_1_split
I0403 13:21:54.717646 27846 net.cpp:425] label_data_1_split <- label
I0403 13:21:54.717679 27846 net.cpp:399] label_data_1_split -> label_data_1_split_0
I0403 13:21:54.717708 27846 net.cpp:399] label_data_1_split -> label_data_1_split_1
I0403 13:21:54.717730 27846 net.cpp:399] label_data_1_split -> label_data_1_split_2
I0403 13:21:54.717797 27846 net.cpp:141] Setting up label_data_1_split
I0403 13:21:54.717821 27846 net.cpp:148] Top shape: 100 (100)
I0403 13:21:54.717839 27846 net.cpp:148] Top shape: 100 (100)
I0403 13:21:54.717856 27846 net.cpp:148] Top shape: 100 (100)
I0403 13:21:54.717872 27846 net.cpp:156] Memory required for data: 61836400
I0403 13:21:54.717890 27846 layer_factory.hpp:77] Creating layer conv1
I0403 13:21:54.717923 27846 net.cpp:91] Creating Layer conv1
I0403 13:21:54.717942 27846 net.cpp:425] conv1 <- data
I0403 13:21:54.717962 27846 net.cpp:399] conv1 -> conv1
I0403 13:21:54.865072 27846 net.cpp:141] Setting up conv1
I0403 13:21:54.865149 27846 net.cpp:148] Top shape: 100 96 55 55 (29040000)
I0403 13:21:54.865167 27846 net.cpp:156] Memory required for data: 177996400
I0403 13:21:54.865198 27846 layer_factory.hpp:77] Creating layer relu1
I0403 13:21:54.865226 27846 net.cpp:91] Creating Layer relu1
I0403 13:21:54.865244 27846 net.cpp:425] relu1 <- conv1
I0403 13:21:54.865263 27846 net.cpp:386] relu1 -> conv1 (in-place)
I0403 13:21:54.865533 27846 net.cpp:141] Setting up relu1
I0403 13:21:54.865563 27846 net.cpp:148] Top shape: 100 96 55 55 (29040000)
I0403 13:21:54.865581 27846 net.cpp:156] Memory required for data: 294156400
I0403 13:21:54.865628 27846 layer_factory.hpp:77] Creating layer norm1
I0403 13:21:54.865732 27846 net.cpp:91] Creating Layer norm1
I0403 13:21:54.865756 27846 net.cpp:425] norm1 <- conv1
I0403 13:21:54.865777 27846 net.cpp:399] norm1 -> norm1
I0403 13:21:54.866114 27846 net.cpp:141] Setting up norm1
I0403 13:21:54.866144 27846 net.cpp:148] Top shape: 100 96 55 55 (29040000)
I0403 13:21:54.866160 27846 net.cpp:156] Memory required for data: 410316400
I0403 13:21:54.866175 27846 layer_factory.hpp:77] Creating layer pool1
I0403 13:21:54.866199 27846 net.cpp:91] Creating Layer pool1
I0403 13:21:54.866216 27846 net.cpp:425] pool1 <- norm1
I0403 13:21:54.866237 27846 net.cpp:399] pool1 -> pool1
I0403 13:21:54.866328 27846 net.cpp:141] Setting up pool1
I0403 13:21:54.866354 27846 net.cpp:148] Top shape: 100 96 27 27 (6998400)
I0403 13:21:54.866371 27846 net.cpp:156] Memory required for data: 438310000
I0403 13:21:54.866386 27846 layer_factory.hpp:77] Creating layer conv2
I0403 13:21:54.866415 27846 net.cpp:91] Creating Layer conv2
I0403 13:21:54.866433 27846 net.cpp:425] conv2 <- pool1
I0403 13:21:54.866456 27846 net.cpp:399] conv2 -> conv2
I0403 13:21:54.884055 27846 net.cpp:141] Setting up conv2
I0403 13:21:54.884105 27846 net.cpp:148] Top shape: 100 256 27 27 (18662400)
I0403 13:21:54.884121 27846 net.cpp:156] Memory required for data: 512959600
I0403 13:21:54.884145 27846 layer_factory.hpp:77] Creating layer relu2
I0403 13:21:54.884166 27846 net.cpp:91] Creating Layer relu2
I0403 13:21:54.884196 27846 net.cpp:425] relu2 <- conv2
I0403 13:21:54.884217 27846 net.cpp:386] relu2 -> conv2 (in-place)
I0403 13:21:54.884518 27846 net.cpp:141] Setting up relu2
I0403 13:21:54.884546 27846 net.cpp:148] Top shape: 100 256 27 27 (18662400)
I0403 13:21:54.884562 27846 net.cpp:156] Memory required for data: 587609200
I0403 13:21:54.884577 27846 layer_factory.hpp:77] Creating layer norm2
I0403 13:21:54.884600 27846 net.cpp:91] Creating Layer norm2
I0403 13:21:54.884618 27846 net.cpp:425] norm2 <- conv2
I0403 13:21:54.884639 27846 net.cpp:399] norm2 -> norm2
I0403 13:21:54.884835 27846 net.cpp:141] Setting up norm2
I0403 13:21:54.884860 27846 net.cpp:148] Top shape: 100 256 27 27 (18662400)
I0403 13:21:54.884876 27846 net.cpp:156] Memory required for data: 662258800
I0403 13:21:54.884891 27846 layer_factory.hpp:77] Creating layer pool2
I0403 13:21:54.884909 27846 net.cpp:91] Creating Layer pool2
I0403 13:21:54.884925 27846 net.cpp:425] pool2 <- norm2
I0403 13:21:54.884945 27846 net.cpp:399] pool2 -> pool2
I0403 13:21:54.884999 27846 net.cpp:141] Setting up pool2
I0403 13:21:54.885022 27846 net.cpp:148] Top shape: 100 256 13 13 (4326400)
I0403 13:21:54.885036 27846 net.cpp:156] Memory required for data: 679564400
I0403 13:21:54.885097 27846 layer_factory.hpp:77] Creating layer conv3
I0403 13:21:54.885145 27846 net.cpp:91] Creating Layer conv3
I0403 13:21:54.885164 27846 net.cpp:425] conv3 <- pool2
I0403 13:21:54.885184 27846 net.cpp:399] conv3 -> conv3
I0403 13:21:54.934779 27846 net.cpp:141] Setting up conv3
I0403 13:21:54.934851 27846 net.cpp:148] Top shape: 100 384 13 13 (6489600)
I0403 13:21:54.934869 27846 net.cpp:156] Memory required for data: 705522800
I0403 13:21:54.934895 27846 layer_factory.hpp:77] Creating layer relu3
I0403 13:21:54.934922 27846 net.cpp:91] Creating Layer relu3
I0403 13:21:54.934942 27846 net.cpp:425] relu3 <- conv3
I0403 13:21:54.934963 27846 net.cpp:386] relu3 -> conv3 (in-place)
I0403 13:21:54.935256 27846 net.cpp:141] Setting up relu3
I0403 13:21:54.935288 27846 net.cpp:148] Top shape: 100 384 13 13 (6489600)
I0403 13:21:54.935307 27846 net.cpp:156] Memory required for data: 731481200
I0403 13:21:54.935324 27846 layer_factory.hpp:77] Creating layer conv4
I0403 13:21:54.935353 27846 net.cpp:91] Creating Layer conv4
I0403 13:21:54.935370 27846 net.cpp:425] conv4 <- conv3
I0403 13:21:54.935392 27846 net.cpp:399] conv4 -> conv4
I0403 13:21:54.966202 27846 net.cpp:141] Setting up conv4
I0403 13:21:54.966270 27846 net.cpp:148] Top shape: 100 384 13 13 (6489600)
I0403 13:21:54.966323 27846 net.cpp:156] Memory required for data: 757439600
I0403 13:21:54.966347 27846 layer_factory.hpp:77] Creating layer relu4
I0403 13:21:54.966370 27846 net.cpp:91] Creating Layer relu4
I0403 13:21:54.966387 27846 net.cpp:425] relu4 <- conv4
I0403 13:21:54.966409 27846 net.cpp:386] relu4 -> conv4 (in-place)
I0403 13:21:54.966687 27846 net.cpp:141] Setting up relu4
I0403 13:21:54.966719 27846 net.cpp:148] Top shape: 100 384 13 13 (6489600)
I0403 13:21:54.966738 27846 net.cpp:156] Memory required for data: 783398000
I0403 13:21:54.966754 27846 layer_factory.hpp:77] Creating layer conv5
I0403 13:21:54.966780 27846 net.cpp:91] Creating Layer conv5
I0403 13:21:54.966797 27846 net.cpp:425] conv5 <- conv4
I0403 13:21:54.966817 27846 net.cpp:399] conv5 -> conv5
I0403 13:21:54.988119 27846 net.cpp:141] Setting up conv5
I0403 13:21:54.988179 27846 net.cpp:148] Top shape: 100 256 13 13 (4326400)
I0403 13:21:54.988198 27846 net.cpp:156] Memory required for data: 800703600
I0403 13:21:54.988224 27846 layer_factory.hpp:77] Creating layer relu5
I0403 13:21:54.988245 27846 net.cpp:91] Creating Layer relu5
I0403 13:21:54.988263 27846 net.cpp:425] relu5 <- conv5
I0403 13:21:54.988292 27846 net.cpp:386] relu5 -> conv5 (in-place)
I0403 13:21:54.988595 27846 net.cpp:141] Setting up relu5
I0403 13:21:54.988622 27846 net.cpp:148] Top shape: 100 256 13 13 (4326400)
I0403 13:21:54.988638 27846 net.cpp:156] Memory required for data: 818009200
I0403 13:21:54.988653 27846 layer_factory.hpp:77] Creating layer pool5
I0403 13:21:54.988678 27846 net.cpp:91] Creating Layer pool5
I0403 13:21:54.988695 27846 net.cpp:425] pool5 <- conv5
I0403 13:21:54.988714 27846 net.cpp:399] pool5 -> pool5
I0403 13:21:54.988780 27846 net.cpp:141] Setting up pool5
I0403 13:21:54.988804 27846 net.cpp:148] Top shape: 100 256 6 6 (921600)
I0403 13:21:54.988819 27846 net.cpp:156] Memory required for data: 821695600
I0403 13:21:54.988834 27846 layer_factory.hpp:77] Creating layer fc6
I0403 13:21:54.988865 27846 net.cpp:91] Creating Layer fc6
I0403 13:21:54.988884 27846 net.cpp:425] fc6 <- pool5
I0403 13:21:54.988903 27846 net.cpp:399] fc6 -> fc6
I0403 13:21:56.559777 27846 net.cpp:141] Setting up fc6
I0403 13:21:56.559855 27846 net.cpp:148] Top shape: 100 4096 (409600)
I0403 13:21:56.559872 27846 net.cpp:156] Memory required for data: 823334000
I0403 13:21:56.559895 27846 layer_factory.hpp:77] Creating layer relu6
I0403 13:21:56.559918 27846 net.cpp:91] Creating Layer relu6
I0403 13:21:56.559937 27846 net.cpp:425] relu6 <- fc6
I0403 13:21:56.559959 27846 net.cpp:386] relu6 -> fc6 (in-place)
I0403 13:21:56.560178 27846 net.cpp:141] Setting up relu6
I0403 13:21:56.560204 27846 net.cpp:148] Top shape: 100 4096 (409600)
I0403 13:21:56.560219 27846 net.cpp:156] Memory required for data: 824972400
I0403 13:21:56.560233 27846 layer_factory.hpp:77] Creating layer drop6
I0403 13:21:56.560252 27846 net.cpp:91] Creating Layer drop6
I0403 13:21:56.560268 27846 net.cpp:425] drop6 <- fc6
I0403 13:21:56.560293 27846 net.cpp:386] drop6 -> fc6 (in-place)
I0403 13:21:56.560345 27846 net.cpp:141] Setting up drop6
I0403 13:21:56.560372 27846 net.cpp:148] Top shape: 100 4096 (409600)
I0403 13:21:56.560389 27846 net.cpp:156] Memory required for data: 826610800
I0403 13:21:56.560403 27846 layer_factory.hpp:77] Creating layer fc7
I0403 13:21:56.560436 27846 net.cpp:91] Creating Layer fc7
I0403 13:21:56.560452 27846 net.cpp:425] fc7 <- fc6
I0403 13:21:56.560473 27846 net.cpp:399] fc7 -> fc7
I0403 13:21:57.250214 27846 net.cpp:141] Setting up fc7
I0403 13:21:57.250293 27846 net.cpp:148] Top shape: 100 4096 (409600)
I0403 13:21:57.250313 27846 net.cpp:156] Memory required for data: 828249200
I0403 13:21:57.250334 27846 layer_factory.hpp:77] Creating layer relu7
I0403 13:21:57.250357 27846 net.cpp:91] Creating Layer relu7
I0403 13:21:57.250375 27846 net.cpp:425] relu7 <- fc7
I0403 13:21:57.250397 27846 net.cpp:386] relu7 -> fc7 (in-place)
I0403 13:21:57.250787 27846 net.cpp:141] Setting up relu7
I0403 13:21:57.250813 27846 net.cpp:148] Top shape: 100 4096 (409600)
I0403 13:21:57.250860 27846 net.cpp:156] Memory required for data: 829887600
I0403 13:21:57.250876 27846 layer_factory.hpp:77] Creating layer drop7
I0403 13:21:57.250898 27846 net.cpp:91] Creating Layer drop7
I0403 13:21:57.250915 27846 net.cpp:425] drop7 <- fc7
I0403 13:21:57.250936 27846 net.cpp:386] drop7 -> fc7 (in-place)
I0403 13:21:57.250982 27846 net.cpp:141] Setting up drop7
I0403 13:21:57.251006 27846 net.cpp:148] Top shape: 100 4096 (409600)
I0403 13:21:57.251022 27846 net.cpp:156] Memory required for data: 831526000
I0403 13:21:57.251037 27846 layer_factory.hpp:77] Creating layer fc8_plantvillage
I0403 13:21:57.251058 27846 net.cpp:91] Creating Layer fc8_plantvillage
I0403 13:21:57.251072 27846 net.cpp:425] fc8_plantvillage <- fc7
I0403 13:21:57.251093 27846 net.cpp:399] fc8_plantvillage -> fc8_plantvillage
I0403 13:21:57.258116 27846 net.cpp:141] Setting up fc8_plantvillage
I0403 13:21:57.258147 27846 net.cpp:148] Top shape: 100 38 (3800)
I0403 13:21:57.258162 27846 net.cpp:156] Memory required for data: 831541200
I0403 13:21:57.258182 27846 layer_factory.hpp:77] Creating layer fc8_plantvillage_fc8_plantvillage_0_split
I0403 13:21:57.258201 27846 net.cpp:91] Creating Layer fc8_plantvillage_fc8_plantvillage_0_split
I0403 13:21:57.258218 27846 net.cpp:425] fc8_plantvillage_fc8_plantvillage_0_split <- fc8_plantvillage
I0403 13:21:57.258237 27846 net.cpp:399] fc8_plantvillage_fc8_plantvillage_0_split -> fc8_plantvillage_fc8_plantvillage_0_split_0
I0403 13:21:57.258260 27846 net.cpp:399] fc8_plantvillage_fc8_plantvillage_0_split -> fc8_plantvillage_fc8_plantvillage_0_split_1
I0403 13:21:57.258281 27846 net.cpp:399] fc8_plantvillage_fc8_plantvillage_0_split -> fc8_plantvillage_fc8_plantvillage_0_split_2
I0403 13:21:57.258370 27846 net.cpp:141] Setting up fc8_plantvillage_fc8_plantvillage_0_split
I0403 13:21:57.258394 27846 net.cpp:148] Top shape: 100 38 (3800)
I0403 13:21:57.258411 27846 net.cpp:148] Top shape: 100 38 (3800)
I0403 13:21:57.258427 27846 net.cpp:148] Top shape: 100 38 (3800)
I0403 13:21:57.258441 27846 net.cpp:156] Memory required for data: 831586800
I0403 13:21:57.258457 27846 layer_factory.hpp:77] Creating layer prob
I0403 13:21:57.258477 27846 net.cpp:91] Creating Layer prob
I0403 13:21:57.258496 27846 net.cpp:425] prob <- fc8_plantvillage_fc8_plantvillage_0_split_0
I0403 13:21:57.258517 27846 net.cpp:399] prob -> prob
I0403 13:21:57.258747 27846 net.cpp:141] Setting up prob
I0403 13:21:57.258774 27846 net.cpp:148] Top shape: 100 38 (3800)
I0403 13:21:57.258790 27846 net.cpp:156] Memory required for data: 831602000
I0403 13:21:57.258805 27846 layer_factory.hpp:77] Creating layer hdf5out
I0403 13:21:57.258826 27846 net.cpp:91] Creating Layer hdf5out
I0403 13:21:57.258843 27846 net.cpp:425] hdf5out <- prob
I0403 13:21:57.258860 27846 net.cpp:425] hdf5out <- label_data_1_split_0
I0403 13:21:57.263741 27846 net.cpp:141] Setting up hdf5out
…
