…
I0403 13:12:20.609707 27583 net.cpp:313] The NetState phase (1) differed from the phase (0) specified by a rule in layer data
I0403 13:12:20.610013 27583 net.cpp:49] Initializing net from parameters: 
state {
  phase: TEST
}
layer {
  name: "data"
  type: "Data"
  top: "data"
  top: "label"
  include {
    phase: TEST
  }
  transform_param {
    crop_size: 227
    mean_file: "/home/mohanty/data/final_dataset/lmdb/color-60-40/mean.binaryproto"
  }
  data_param {
    source: "/home/mohanty/data/final_dataset/lmdb/color-60-40/test_db"
    batch_size: 100
    backend: LMDB
  }
}
layer {
  name: "conv1"
  type: "Convolution"
  bottom: "data"
  top: "conv1"
  param {
    lr_mult: 1
    decay_mult: 1
  }
  param {
    lr_mult: 2
    decay_mult: 0
  }
  convolution_param {
    num_output: 96
    kernel_size: 11
    stride: 4
    weight_filler {
      type: "gaussian"
      std: 0.01
    }
    bias_filler {
      type: "constant"
      value: 0
    }
  }
}
layer {
  name: "relu1"
  type: "ReLU"
  bottom: "conv1"
  top: "conv1"
}
layer {
  name: "norm1"
  type: "LRN"
  bottom: "conv1"
  top: "norm1"
  lrn_param {
    local_size: 5
    alpha: 0.0001
    beta: 0.75
  }
}
layer {
  name: "pool1"
  type: "Pooling"
  bottom: "norm1"
  top: "pool1"
  pooling_param {
    pool: MAX
    kernel_size: 3
    stride: 2
  }
}
layer {
  name: "conv2"
  type: "Convolution"
  bottom: "pool1"
  top: "conv2"
  param {
    lr_mult: 1
    decay_mult: 1
  }
  param {
    lr_mult: 2
    decay_mult: 0
  }
  convolution_param {
    num_output: 256
    pad: 2
    kernel_size: 5
    group: 2
    weight_filler {
      type: "gaussian"
      std: 0.01
    }
    bias_filler {
      type: "constant"
      value: 0.1
    }
  }
}
layer {
  name: "relu2"
  type: "ReLU"
  bottom: "conv2"
  top: "conv2"
}
layer {
  name: "norm2"
  type: "LRN"
  bottom: "conv2"
  top: "norm2"
  lrn_param {
    local_size: 5
    alpha: 0.0001
    beta: 0.75
  }
}
layer {
  name: "pool2"
  type: "Pooling"
  bottom: "norm2"
  top: "pool2"
  pooling_param {
    pool: MAX
    kernel_size: 3
    stride: 2
  }
}
layer {
  name: "conv3"
  type: "Convolution"
  bottom: "pool2"
  top: "conv3"
  param {
    lr_mult: 1
    decay_mult: 1
  }
  param {
    lr_mult: 2
    decay_mult: 0
  }
  convolution_param {
    num_output: 384
    pad: 1
    kernel_size: 3
    weight_filler {
      type: "gaussian"
      std: 0.01
    }
    bias_filler {
      type: "constant"
      value: 0
    }
  }
}
layer {
  name: "relu3"
  type: "ReLU"
  bottom: "conv3"
  top: "conv3"
}
layer {
  name: "conv4"
  type: "Convolution"
  bottom: "conv3"
  top: "conv4"
  param {
    lr_mult: 1
    decay_mult: 1
  }
  param {
    lr_mult: 2
    decay_mult: 0
  }
  convolution_param {
    num_output: 384
    pad: 1
    kernel_size: 3
    group: 2
    weight_filler {
      type: "gaussian"
      std: 0.01
    }
    bias_filler {
      type: "constant"
      value: 0.1
    }
  }
}
layer {
  name: "relu4"
  type: "ReLU"
  bottom: "conv4"
  top: "conv4"
}
layer {
  name: "conv5"
  type: "Convolution"
  bottom: "conv4"
  top: "conv5"
  param {
    lr_mult: 1
    decay_mult: 1
  }
  param {
    lr_mult: 2
    decay_mult: 0
  }
  convolution_param {
    num_output: 256
    pad: 1
    kernel_size: 3
    group: 2
    weight_filler {
      type: "gaussian"
      std: 0.01
    }
    bias_filler {
      type: "constant"
      value: 0.1
    }
  }
}
layer {
  name: "relu5"
  type: "ReLU"
  bottom: "conv5"
  top: "conv5"
}
layer {
  name: "pool5"
  type: "Pooling"
  bottom: "conv5"
  top: "pool5"
  pooling_param {
    pool: MAX
    kernel_size: 3
    stride: 2
  }
}
layer {
  name: "fc6"
  type: "InnerProduct"
  bottom: "pool5"
  top: "fc6"
  param {
    lr_mult: 1
    decay_mult: 1
  }
  param {
    lr_mult: 2
    decay_mult: 0
  }
  inner_product_param {
    num_output: 4096
    weight_filler {
      type: "gaussian"
      std: 0.005
    }
    bias_filler {
      type: "constant"
      value: 0.1
    }
  }
}
layer {
  name: "relu6"
  type: "ReLU"
  bottom: "fc6"
  top: "fc6"
}
layer {
  name: "drop6"
  type: "Dropout"
  bottom: "fc6"
  top: "fc6"
  dropout_param {
    dropout_ratio: 0.5
  }
}
layer {
  name: "fc7"
  type: "InnerProduct"
  bottom: "fc6"
  top: "fc7"
  param {
    lr_mult: 1
    decay_mult: 1
  }
  param {
    lr_mult: 2
    decay_mult: 0
  }
  inner_product_param {
    num_output: 4096
    weight_filler {
      type: "gaussian"
      std: 0.005
    }
    bias_filler {
      type: "constant"
      value: 0.1
    }
  }
}
layer {
  name: "relu7"
  type: "ReLU"
  bottom: "fc7"
  top: "fc7"
}
layer {
  name: "drop7"
  type: "Dropout"
  bottom: "fc7"
  top: "fc7"
  dropout_param {
    dropout_ratio: 0.5
  }
}
layer {
  name: "fc8_plantvillage"
  type: "InnerProduct"
  bottom: "fc7"
  top: "fc8_plantvillage"
  param {
    lr_mult: 1
    decay_mult: 1
  }
  param {
    lr_mult: 2
    decay_mult: 0
  }
  inner_product_param {
    num_output: 38
    weight_filler {
      type: "gaussian"
      std: 0.01
    }
    bias_filler {
      type: "constant"
      value: 0
    }
  }
}
layer {
  name: "prob"
  type: "Softmax"
  bottom: "fc8_plantvillage"
  top: "prob"
  include {
    phase: TEST
  }
}
layer {
  name: "hdf5out"
  type: "HDF5Output"
  bottom: "prob"
  bottom: "label"
  include {
    phase: TEST
  }
  hdf5_output_param {
    file_name: "hdf5_dumps/iter_3575.h5"
  }
}
layer {
  name: "loss"
  type: "SoftmaxWithLoss"
  bottom: "fc8_plantvillage"
  bottom: "label"
  top: "loss"
}
layer {
  name: "accuracy"
  type: "Accuracy"
  bottom: "fc8_plantvillage"
  bottom: "label"
  top: "accuracy"
  include {
    phase: TEST
  }
}
I0403 13:12:20.610627 27583 layer_factory.hpp:77] Creating layer data
I0403 13:12:20.611304 27583 net.cpp:91] Creating Layer data
I0403 13:12:20.611338 27583 net.cpp:399] data -> data
I0403 13:12:20.611393 27583 net.cpp:399] data -> label
I0403 13:12:20.611431 27583 data_transformer.cpp:25] Loading mean file from: /home/mohanty/data/final_dataset/lmdb/color-60-40/mean.binaryproto
I0403 13:12:20.614132 27588 db_lmdb.cpp:38] Opened lmdb /home/mohanty/data/final_dataset/lmdb/color-60-40/test_db
I0403 13:12:20.626315 27583 data_layer.cpp:41] output data size: 100,3,227,227
I0403 13:12:20.762972 27583 net.cpp:141] Setting up data
I0403 13:12:20.763067 27583 net.cpp:148] Top shape: 100 3 227 227 (15458700)
I0403 13:12:20.763092 27583 net.cpp:148] Top shape: 100 (100)
I0403 13:12:20.763108 27583 net.cpp:156] Memory required for data: 61835200
I0403 13:12:20.763136 27583 layer_factory.hpp:77] Creating layer label_data_1_split
I0403 13:12:20.763165 27583 net.cpp:91] Creating Layer label_data_1_split
I0403 13:12:20.763185 27583 net.cpp:425] label_data_1_split <- label
I0403 13:12:20.763216 27583 net.cpp:399] label_data_1_split -> label_data_1_split_0
I0403 13:12:20.763248 27583 net.cpp:399] label_data_1_split -> label_data_1_split_1
I0403 13:12:20.763276 27583 net.cpp:399] label_data_1_split -> label_data_1_split_2
I0403 13:12:20.763342 27583 net.cpp:141] Setting up label_data_1_split
I0403 13:12:20.763367 27583 net.cpp:148] Top shape: 100 (100)
I0403 13:12:20.763386 27583 net.cpp:148] Top shape: 100 (100)
I0403 13:12:20.763403 27583 net.cpp:148] Top shape: 100 (100)
I0403 13:12:20.763418 27583 net.cpp:156] Memory required for data: 61836400
I0403 13:12:20.763434 27583 layer_factory.hpp:77] Creating layer conv1
I0403 13:12:20.763468 27583 net.cpp:91] Creating Layer conv1
I0403 13:12:20.763486 27583 net.cpp:425] conv1 <- data
I0403 13:12:20.763507 27583 net.cpp:399] conv1 -> conv1
I0403 13:12:20.908280 27583 net.cpp:141] Setting up conv1
I0403 13:12:20.908378 27583 net.cpp:148] Top shape: 100 96 55 55 (29040000)
I0403 13:12:20.908452 27583 net.cpp:156] Memory required for data: 177996400
I0403 13:12:20.908488 27583 layer_factory.hpp:77] Creating layer relu1
I0403 13:12:20.908516 27583 net.cpp:91] Creating Layer relu1
I0403 13:12:20.908535 27583 net.cpp:425] relu1 <- conv1
I0403 13:12:20.908553 27583 net.cpp:386] relu1 -> conv1 (in-place)
I0403 13:12:20.908814 27583 net.cpp:141] Setting up relu1
I0403 13:12:20.908841 27583 net.cpp:148] Top shape: 100 96 55 55 (29040000)
I0403 13:12:20.908857 27583 net.cpp:156] Memory required for data: 294156400
I0403 13:12:20.908905 27583 layer_factory.hpp:77] Creating layer norm1
I0403 13:12:20.908936 27583 net.cpp:91] Creating Layer norm1
I0403 13:12:20.908954 27583 net.cpp:425] norm1 <- conv1
I0403 13:12:20.908973 27583 net.cpp:399] norm1 -> norm1
I0403 13:12:20.909291 27583 net.cpp:141] Setting up norm1
I0403 13:12:20.909319 27583 net.cpp:148] Top shape: 100 96 55 55 (29040000)
I0403 13:12:20.909337 27583 net.cpp:156] Memory required for data: 410316400
I0403 13:12:20.909351 27583 layer_factory.hpp:77] Creating layer pool1
I0403 13:12:20.909375 27583 net.cpp:91] Creating Layer pool1
I0403 13:12:20.909394 27583 net.cpp:425] pool1 <- norm1
I0403 13:12:20.909412 27583 net.cpp:399] pool1 -> pool1
I0403 13:12:20.909482 27583 net.cpp:141] Setting up pool1
I0403 13:12:20.909507 27583 net.cpp:148] Top shape: 100 96 27 27 (6998400)
I0403 13:12:20.909523 27583 net.cpp:156] Memory required for data: 438310000
I0403 13:12:20.909538 27583 layer_factory.hpp:77] Creating layer conv2
I0403 13:12:20.909564 27583 net.cpp:91] Creating Layer conv2
I0403 13:12:20.909580 27583 net.cpp:425] conv2 <- pool1
I0403 13:12:20.909598 27583 net.cpp:399] conv2 -> conv2
I0403 13:12:20.925300 27583 net.cpp:141] Setting up conv2
I0403 13:12:20.925354 27583 net.cpp:148] Top shape: 100 256 27 27 (18662400)
I0403 13:12:20.925372 27583 net.cpp:156] Memory required for data: 512959600
I0403 13:12:20.925397 27583 layer_factory.hpp:77] Creating layer relu2
I0403 13:12:20.925420 27583 net.cpp:91] Creating Layer relu2
I0403 13:12:20.925437 27583 net.cpp:425] relu2 <- conv2
I0403 13:12:20.925457 27583 net.cpp:386] relu2 -> conv2 (in-place)
I0403 13:12:20.925735 27583 net.cpp:141] Setting up relu2
I0403 13:12:20.925765 27583 net.cpp:148] Top shape: 100 256 27 27 (18662400)
I0403 13:12:20.925781 27583 net.cpp:156] Memory required for data: 587609200
I0403 13:12:20.925797 27583 layer_factory.hpp:77] Creating layer norm2
I0403 13:12:20.925820 27583 net.cpp:91] Creating Layer norm2
I0403 13:12:20.925838 27583 net.cpp:425] norm2 <- conv2
I0403 13:12:20.925858 27583 net.cpp:399] norm2 -> norm2
I0403 13:12:20.926060 27583 net.cpp:141] Setting up norm2
I0403 13:12:20.926087 27583 net.cpp:148] Top shape: 100 256 27 27 (18662400)
I0403 13:12:20.926105 27583 net.cpp:156] Memory required for data: 662258800
I0403 13:12:20.926151 27583 layer_factory.hpp:77] Creating layer pool2
I0403 13:12:20.926177 27583 net.cpp:91] Creating Layer pool2
I0403 13:12:20.926195 27583 net.cpp:425] pool2 <- norm2
I0403 13:12:20.926215 27583 net.cpp:399] pool2 -> pool2
I0403 13:12:20.926280 27583 net.cpp:141] Setting up pool2
I0403 13:12:20.926306 27583 net.cpp:148] Top shape: 100 256 13 13 (4326400)
I0403 13:12:20.926321 27583 net.cpp:156] Memory required for data: 679564400
I0403 13:12:20.926337 27583 layer_factory.hpp:77] Creating layer conv3
I0403 13:12:20.926364 27583 net.cpp:91] Creating Layer conv3
I0403 13:12:20.926383 27583 net.cpp:425] conv3 <- pool2
I0403 13:12:20.926404 27583 net.cpp:399] conv3 -> conv3
I0403 13:12:20.965931 27583 net.cpp:141] Setting up conv3
I0403 13:12:20.966007 27583 net.cpp:148] Top shape: 100 384 13 13 (6489600)
I0403 13:12:20.966028 27583 net.cpp:156] Memory required for data: 705522800
I0403 13:12:20.966055 27583 layer_factory.hpp:77] Creating layer relu3
I0403 13:12:20.966078 27583 net.cpp:91] Creating Layer relu3
I0403 13:12:20.966096 27583 net.cpp:425] relu3 <- conv3
I0403 13:12:20.966116 27583 net.cpp:386] relu3 -> conv3 (in-place)
I0403 13:12:20.966414 27583 net.cpp:141] Setting up relu3
I0403 13:12:20.966444 27583 net.cpp:148] Top shape: 100 384 13 13 (6489600)
I0403 13:12:20.966462 27583 net.cpp:156] Memory required for data: 731481200
I0403 13:12:20.966478 27583 layer_factory.hpp:77] Creating layer conv4
I0403 13:12:20.966505 27583 net.cpp:91] Creating Layer conv4
I0403 13:12:20.966521 27583 net.cpp:425] conv4 <- conv3
I0403 13:12:20.966542 27583 net.cpp:399] conv4 -> conv4
I0403 13:12:20.996733 27583 net.cpp:141] Setting up conv4
I0403 13:12:20.996773 27583 net.cpp:148] Top shape: 100 384 13 13 (6489600)
I0403 13:12:20.996821 27583 net.cpp:156] Memory required for data: 757439600
I0403 13:12:20.996845 27583 layer_factory.hpp:77] Creating layer relu4
I0403 13:12:20.996870 27583 net.cpp:91] Creating Layer relu4
I0403 13:12:20.996889 27583 net.cpp:425] relu4 <- conv4
I0403 13:12:20.996908 27583 net.cpp:386] relu4 -> conv4 (in-place)
I0403 13:12:20.997194 27583 net.cpp:141] Setting up relu4
I0403 13:12:20.997221 27583 net.cpp:148] Top shape: 100 384 13 13 (6489600)
I0403 13:12:20.997237 27583 net.cpp:156] Memory required for data: 783398000
I0403 13:12:20.997257 27583 layer_factory.hpp:77] Creating layer conv5
I0403 13:12:20.997285 27583 net.cpp:91] Creating Layer conv5
I0403 13:12:20.997305 27583 net.cpp:425] conv5 <- conv4
I0403 13:12:20.997326 27583 net.cpp:399] conv5 -> conv5
I0403 13:12:21.018160 27583 net.cpp:141] Setting up conv5
I0403 13:12:21.018215 27583 net.cpp:148] Top shape: 100 256 13 13 (4326400)
I0403 13:12:21.018232 27583 net.cpp:156] Memory required for data: 800703600
I0403 13:12:21.018271 27583 layer_factory.hpp:77] Creating layer relu5
I0403 13:12:21.018299 27583 net.cpp:91] Creating Layer relu5
I0403 13:12:21.018318 27583 net.cpp:425] relu5 <- conv5
I0403 13:12:21.018337 27583 net.cpp:386] relu5 -> conv5 (in-place)
I0403 13:12:21.018609 27583 net.cpp:141] Setting up relu5
I0403 13:12:21.018635 27583 net.cpp:148] Top shape: 100 256 13 13 (4326400)
I0403 13:12:21.018652 27583 net.cpp:156] Memory required for data: 818009200
I0403 13:12:21.018667 27583 layer_factory.hpp:77] Creating layer pool5
I0403 13:12:21.018690 27583 net.cpp:91] Creating Layer pool5
I0403 13:12:21.018709 27583 net.cpp:425] pool5 <- conv5
I0403 13:12:21.018729 27583 net.cpp:399] pool5 -> pool5
I0403 13:12:21.018791 27583 net.cpp:141] Setting up pool5
I0403 13:12:21.018815 27583 net.cpp:148] Top shape: 100 256 6 6 (921600)
I0403 13:12:21.018831 27583 net.cpp:156] Memory required for data: 821695600
I0403 13:12:21.018846 27583 layer_factory.hpp:77] Creating layer fc6
I0403 13:12:21.018875 27583 net.cpp:91] Creating Layer fc6
I0403 13:12:21.018893 27583 net.cpp:425] fc6 <- pool5
I0403 13:12:21.018913 27583 net.cpp:399] fc6 -> fc6
I0403 13:12:22.590457 27583 net.cpp:141] Setting up fc6
I0403 13:12:22.590533 27583 net.cpp:148] Top shape: 100 4096 (409600)
I0403 13:12:22.590550 27583 net.cpp:156] Memory required for data: 823334000
I0403 13:12:22.590574 27583 layer_factory.hpp:77] Creating layer relu6
I0403 13:12:22.590598 27583 net.cpp:91] Creating Layer relu6
I0403 13:12:22.590618 27583 net.cpp:425] relu6 <- fc6
I0403 13:12:22.590637 27583 net.cpp:386] relu6 -> fc6 (in-place)
I0403 13:12:22.590862 27583 net.cpp:141] Setting up relu6
I0403 13:12:22.590888 27583 net.cpp:148] Top shape: 100 4096 (409600)
I0403 13:12:22.590904 27583 net.cpp:156] Memory required for data: 824972400
I0403 13:12:22.590919 27583 layer_factory.hpp:77] Creating layer drop6
I0403 13:12:22.590940 27583 net.cpp:91] Creating Layer drop6
I0403 13:12:22.590956 27583 net.cpp:425] drop6 <- fc6
I0403 13:12:22.590975 27583 net.cpp:386] drop6 -> fc6 (in-place)
I0403 13:12:22.591028 27583 net.cpp:141] Setting up drop6
I0403 13:12:22.591051 27583 net.cpp:148] Top shape: 100 4096 (409600)
I0403 13:12:22.591068 27583 net.cpp:156] Memory required for data: 826610800
I0403 13:12:22.591083 27583 layer_factory.hpp:77] Creating layer fc7
I0403 13:12:22.591105 27583 net.cpp:91] Creating Layer fc7
I0403 13:12:22.591121 27583 net.cpp:425] fc7 <- fc6
I0403 13:12:22.591140 27583 net.cpp:399] fc7 -> fc7
I0403 13:12:23.300647 27583 net.cpp:141] Setting up fc7
I0403 13:12:23.300727 27583 net.cpp:148] Top shape: 100 4096 (409600)
I0403 13:12:23.300746 27583 net.cpp:156] Memory required for data: 828249200
I0403 13:12:23.300767 27583 layer_factory.hpp:77] Creating layer relu7
I0403 13:12:23.300791 27583 net.cpp:91] Creating Layer relu7
I0403 13:12:23.300809 27583 net.cpp:425] relu7 <- fc7
I0403 13:12:23.300829 27583 net.cpp:386] relu7 -> fc7 (in-place)
I0403 13:12:23.301229 27583 net.cpp:141] Setting up relu7
I0403 13:12:23.301280 27583 net.cpp:148] Top shape: 100 4096 (409600)
I0403 13:12:23.301337 27583 net.cpp:156] Memory required for data: 829887600
I0403 13:12:23.301354 27583 layer_factory.hpp:77] Creating layer drop7
I0403 13:12:23.301375 27583 net.cpp:91] Creating Layer drop7
I0403 13:12:23.301393 27583 net.cpp:425] drop7 <- fc7
I0403 13:12:23.301411 27583 net.cpp:386] drop7 -> fc7 (in-place)
I0403 13:12:23.301460 27583 net.cpp:141] Setting up drop7
I0403 13:12:23.301484 27583 net.cpp:148] Top shape: 100 4096 (409600)
I0403 13:12:23.301501 27583 net.cpp:156] Memory required for data: 831526000
I0403 13:12:23.301515 27583 layer_factory.hpp:77] Creating layer fc8_plantvillage
I0403 13:12:23.301539 27583 net.cpp:91] Creating Layer fc8_plantvillage
I0403 13:12:23.301558 27583 net.cpp:425] fc8_plantvillage <- fc7
I0403 13:12:23.301576 27583 net.cpp:399] fc8_plantvillage -> fc8_plantvillage
I0403 13:12:23.308852 27583 net.cpp:141] Setting up fc8_plantvillage
I0403 13:12:23.308886 27583 net.cpp:148] Top shape: 100 38 (3800)
I0403 13:12:23.308902 27583 net.cpp:156] Memory required for data: 831541200
I0403 13:12:23.308923 27583 layer_factory.hpp:77] Creating layer fc8_plantvillage_fc8_plantvillage_0_split
I0403 13:12:23.308945 27583 net.cpp:91] Creating Layer fc8_plantvillage_fc8_plantvillage_0_split
I0403 13:12:23.308964 27583 net.cpp:425] fc8_plantvillage_fc8_plantvillage_0_split <- fc8_plantvillage
I0403 13:12:23.308981 27583 net.cpp:399] fc8_plantvillage_fc8_plantvillage_0_split -> fc8_plantvillage_fc8_plantvillage_0_split_0
I0403 13:12:23.309006 27583 net.cpp:399] fc8_plantvillage_fc8_plantvillage_0_split -> fc8_plantvillage_fc8_plantvillage_0_split_1
I0403 13:12:23.309027 27583 net.cpp:399] fc8_plantvillage_fc8_plantvillage_0_split -> fc8_plantvillage_fc8_plantvillage_0_split_2
I0403 13:12:23.309108 27583 net.cpp:141] Setting up fc8_plantvillage_fc8_plantvillage_0_split
I0403 13:12:23.309134 27583 net.cpp:148] Top shape: 100 38 (3800)
I0403 13:12:23.309152 27583 net.cpp:148] Top shape: 100 38 (3800)
I0403 13:12:23.309170 27583 net.cpp:148] Top shape: 100 38 (3800)
I0403 13:12:23.309185 27583 net.cpp:156] Memory required for data: 831586800
I0403 13:12:23.309200 27583 layer_factory.hpp:77] Creating layer prob
I0403 13:12:23.309221 27583 net.cpp:91] Creating Layer prob
I0403 13:12:23.309238 27583 net.cpp:425] prob <- fc8_plantvillage_fc8_plantvillage_0_split_0
I0403 13:12:23.309265 27583 net.cpp:399] prob -> prob
I0403 13:12:23.309505 27583 net.cpp:141] Setting up prob
I0403 13:12:23.309533 27583 net.cpp:148] Top shape: 100 38 (3800)
I0403 13:12:23.309550 27583 net.cpp:156] Memory required for data: 831602000
I0403 13:12:23.309564 27583 layer_factory.hpp:77] Creating layer hdf5out
I0403 13:12:23.309587 27583 net.cpp:91] Creating Layer hdf5out
I0403 13:12:23.309605 27583 net.cpp:425] hdf5out <- prob
I0403 13:12:23.309623 27583 net.cpp:425] hdf5out <- label_data_1_split_0
I0403 13:12:23.313122 27583 net.cpp:141] Setting up hdf5out
…
