…
I0403 13:24:14.646155 28024 net.cpp:313] The NetState phase (1) differed from the phase (0) specified by a rule in layer data
I0403 13:24:14.646495 28024 net.cpp:49] Initializing net from parameters: 
state {
  phase: TEST
}
layer {
  name: "data"
  type: "Data"
  top: "data"
  top: "label"
  include {
    phase: TEST
  }
  transform_param {
    crop_size: 227
    mean_file: "/home/mohanty/data/final_dataset/lmdb/color-60-40/mean.binaryproto"
  }
  data_param {
    source: "/home/mohanty/data/final_dataset/lmdb/color-60-40/test_db"
    batch_size: 100
    backend: LMDB
  }
}
layer {
  name: "conv1"
  type: "Convolution"
  bottom: "data"
  top: "conv1"
  param {
    lr_mult: 1
    decay_mult: 1
  }
  param {
    lr_mult: 2
    decay_mult: 0
  }
  convolution_param {
    num_output: 96
    kernel_size: 11
    stride: 4
    weight_filler {
      type: "gaussian"
      std: 0.01
    }
    bias_filler {
      type: "constant"
      value: 0
    }
  }
}
layer {
  name: "relu1"
  type: "ReLU"
  bottom: "conv1"
  top: "conv1"
}
layer {
  name: "norm1"
  type: "LRN"
  bottom: "conv1"
  top: "norm1"
  lrn_param {
    local_size: 5
    alpha: 0.0001
    beta: 0.75
  }
}
layer {
  name: "pool1"
  type: "Pooling"
  bottom: "norm1"
  top: "pool1"
  pooling_param {
    pool: MAX
    kernel_size: 3
    stride: 2
  }
}
layer {
  name: "conv2"
  type: "Convolution"
  bottom: "pool1"
  top: "conv2"
  param {
    lr_mult: 1
    decay_mult: 1
  }
  param {
    lr_mult: 2
    decay_mult: 0
  }
  convolution_param {
    num_output: 256
    pad: 2
    kernel_size: 5
    group: 2
    weight_filler {
      type: "gaussian"
      std: 0.01
    }
    bias_filler {
      type: "constant"
      value: 0.1
    }
  }
}
layer {
  name: "relu2"
  type: "ReLU"
  bottom: "conv2"
  top: "conv2"
}
layer {
  name: "norm2"
  type: "LRN"
  bottom: "conv2"
  top: "norm2"
  lrn_param {
    local_size: 5
    alpha: 0.0001
    beta: 0.75
  }
}
layer {
  name: "pool2"
  type: "Pooling"
  bottom: "norm2"
  top: "pool2"
  pooling_param {
    pool: MAX
    kernel_size: 3
    stride: 2
  }
}
layer {
  name: "conv3"
  type: "Convolution"
  bottom: "pool2"
  top: "conv3"
  param {
    lr_mult: 1
    decay_mult: 1
  }
  param {
    lr_mult: 2
    decay_mult: 0
  }
  convolution_param {
    num_output: 384
    pad: 1
    kernel_size: 3
    weight_filler {
      type: "gaussian"
      std: 0.01
    }
    bias_filler {
      type: "constant"
      value: 0
    }
  }
}
layer {
  name: "relu3"
  type: "ReLU"
  bottom: "conv3"
  top: "conv3"
}
layer {
  name: "conv4"
  type: "Convolution"
  bottom: "conv3"
  top: "conv4"
  param {
    lr_mult: 1
    decay_mult: 1
  }
  param {
    lr_mult: 2
    decay_mult: 0
  }
  convolution_param {
    num_output: 384
    pad: 1
    kernel_size: 3
    group: 2
    weight_filler {
      type: "gaussian"
      std: 0.01
    }
    bias_filler {
      type: "constant"
      value: 0.1
    }
  }
}
layer {
  name: "relu4"
  type: "ReLU"
  bottom: "conv4"
  top: "conv4"
}
layer {
  name: "conv5"
  type: "Convolution"
  bottom: "conv4"
  top: "conv5"
  param {
    lr_mult: 1
    decay_mult: 1
  }
  param {
    lr_mult: 2
    decay_mult: 0
  }
  convolution_param {
    num_output: 256
    pad: 1
    kernel_size: 3
    group: 2
    weight_filler {
      type: "gaussian"
      std: 0.01
    }
    bias_filler {
      type: "constant"
      value: 0.1
    }
  }
}
layer {
  name: "relu5"
  type: "ReLU"
  bottom: "conv5"
  top: "conv5"
}
layer {
  name: "pool5"
  type: "Pooling"
  bottom: "conv5"
  top: "pool5"
  pooling_param {
    pool: MAX
    kernel_size: 3
    stride: 2
  }
}
layer {
  name: "fc6"
  type: "InnerProduct"
  bottom: "pool5"
  top: "fc6"
  param {
    lr_mult: 1
    decay_mult: 1
  }
  param {
    lr_mult: 2
    decay_mult: 0
  }
  inner_product_param {
    num_output: 4096
    weight_filler {
      type: "gaussian"
      std: 0.005
    }
    bias_filler {
      type: "constant"
      value: 0.1
    }
  }
}
layer {
  name: "relu6"
  type: "ReLU"
  bottom: "fc6"
  top: "fc6"
}
layer {
  name: "drop6"
  type: "Dropout"
  bottom: "fc6"
  top: "fc6"
  dropout_param {
    dropout_ratio: 0.5
  }
}
layer {
  name: "fc7"
  type: "InnerProduct"
  bottom: "fc6"
  top: "fc7"
  param {
    lr_mult: 1
    decay_mult: 1
  }
  param {
    lr_mult: 2
    decay_mult: 0
  }
  inner_product_param {
    num_output: 4096
    weight_filler {
      type: "gaussian"
      std: 0.005
    }
    bias_filler {
      type: "constant"
      value: 0.1
    }
  }
}
layer {
  name: "relu7"
  type: "ReLU"
  bottom: "fc7"
  top: "fc7"
}
layer {
  name: "drop7"
  type: "Dropout"
  bottom: "fc7"
  top: "fc7"
  dropout_param {
    dropout_ratio: 0.5
  }
}
layer {
  name: "fc8_plantvillage"
  type: "InnerProduct"
  bottom: "fc7"
  top: "fc8_plantvillage"
  param {
    lr_mult: 1
    decay_mult: 1
  }
  param {
    lr_mult: 2
    decay_mult: 0
  }
  inner_product_param {
    num_output: 38
    weight_filler {
      type: "gaussian"
      std: 0.01
    }
    bias_filler {
      type: "constant"
      value: 0
    }
  }
}
layer {
  name: "prob"
  type: "Softmax"
  bottom: "fc8_plantvillage"
  top: "prob"
  include {
    phase: TEST
  }
}
layer {
  name: "hdf5out"
  type: "HDF5Output"
  bottom: "prob"
  bottom: "label"
  include {
    phase: TEST
  }
  hdf5_output_param {
    file_name: "hdf5_dumps/iter_8450.h5"
  }
}
layer {
  name: "loss"
  type: "SoftmaxWithLoss"
  bottom: "fc8_plantvillage"
  bottom: "label"
  top: "loss"
}
layer {
  name: "accuracy"
  type: "Accuracy"
  bottom: "fc8_plantvillage"
  bottom: "label"
  top: "accuracy"
  include {
    phase: TEST
  }
}
I0403 13:24:14.647066 28024 layer_factory.hpp:77] Creating layer data
I0403 13:24:14.647737 28024 net.cpp:91] Creating Layer data
I0403 13:24:14.647771 28024 net.cpp:399] data -> data
I0403 13:24:14.647825 28024 net.cpp:399] data -> label
I0403 13:24:14.647862 28024 data_transformer.cpp:25] Loading mean file from: /home/mohanty/data/final_dataset/lmdb/color-60-40/mean.binaryproto
I0403 13:24:14.650845 28028 db_lmdb.cpp:38] Opened lmdb /home/mohanty/data/final_dataset/lmdb/color-60-40/test_db
I0403 13:24:14.662436 28024 data_layer.cpp:41] output data size: 100,3,227,227
I0403 13:24:14.794651 28024 net.cpp:141] Setting up data
I0403 13:24:14.794746 28024 net.cpp:148] Top shape: 100 3 227 227 (15458700)
I0403 13:24:14.794770 28024 net.cpp:148] Top shape: 100 (100)
I0403 13:24:14.794785 28024 net.cpp:156] Memory required for data: 61835200
I0403 13:24:14.794813 28024 layer_factory.hpp:77] Creating layer label_data_1_split
I0403 13:24:14.794839 28024 net.cpp:91] Creating Layer label_data_1_split
I0403 13:24:14.794858 28024 net.cpp:425] label_data_1_split <- label
I0403 13:24:14.794889 28024 net.cpp:399] label_data_1_split -> label_data_1_split_0
I0403 13:24:14.794917 28024 net.cpp:399] label_data_1_split -> label_data_1_split_1
I0403 13:24:14.794939 28024 net.cpp:399] label_data_1_split -> label_data_1_split_2
I0403 13:24:14.795004 28024 net.cpp:141] Setting up label_data_1_split
I0403 13:24:14.795028 28024 net.cpp:148] Top shape: 100 (100)
I0403 13:24:14.795047 28024 net.cpp:148] Top shape: 100 (100)
I0403 13:24:14.795063 28024 net.cpp:148] Top shape: 100 (100)
I0403 13:24:14.795076 28024 net.cpp:156] Memory required for data: 61836400
I0403 13:24:14.795091 28024 layer_factory.hpp:77] Creating layer conv1
I0403 13:24:14.795122 28024 net.cpp:91] Creating Layer conv1
I0403 13:24:14.795141 28024 net.cpp:425] conv1 <- data
I0403 13:24:14.795161 28024 net.cpp:399] conv1 -> conv1
I0403 13:24:14.942016 28024 net.cpp:141] Setting up conv1
I0403 13:24:14.942178 28024 net.cpp:148] Top shape: 100 96 55 55 (29040000)
I0403 13:24:14.942198 28024 net.cpp:156] Memory required for data: 177996400
I0403 13:24:14.942229 28024 layer_factory.hpp:77] Creating layer relu1
I0403 13:24:14.942258 28024 net.cpp:91] Creating Layer relu1
I0403 13:24:14.942277 28024 net.cpp:425] relu1 <- conv1
I0403 13:24:14.942313 28024 net.cpp:386] relu1 -> conv1 (in-place)
I0403 13:24:14.942574 28024 net.cpp:141] Setting up relu1
I0403 13:24:14.942611 28024 net.cpp:148] Top shape: 100 96 55 55 (29040000)
I0403 13:24:14.942628 28024 net.cpp:156] Memory required for data: 294156400
I0403 13:24:14.942675 28024 layer_factory.hpp:77] Creating layer norm1
I0403 13:24:14.942704 28024 net.cpp:91] Creating Layer norm1
I0403 13:24:14.942723 28024 net.cpp:425] norm1 <- conv1
I0403 13:24:14.942744 28024 net.cpp:399] norm1 -> norm1
I0403 13:24:14.943049 28024 net.cpp:141] Setting up norm1
I0403 13:24:14.943078 28024 net.cpp:148] Top shape: 100 96 55 55 (29040000)
I0403 13:24:14.943094 28024 net.cpp:156] Memory required for data: 410316400
I0403 13:24:14.943109 28024 layer_factory.hpp:77] Creating layer pool1
I0403 13:24:14.943133 28024 net.cpp:91] Creating Layer pool1
I0403 13:24:14.943151 28024 net.cpp:425] pool1 <- norm1
I0403 13:24:14.943171 28024 net.cpp:399] pool1 -> pool1
I0403 13:24:14.943238 28024 net.cpp:141] Setting up pool1
I0403 13:24:14.943264 28024 net.cpp:148] Top shape: 100 96 27 27 (6998400)
I0403 13:24:14.943279 28024 net.cpp:156] Memory required for data: 438310000
I0403 13:24:14.943322 28024 layer_factory.hpp:77] Creating layer conv2
I0403 13:24:14.943349 28024 net.cpp:91] Creating Layer conv2
I0403 13:24:14.943368 28024 net.cpp:425] conv2 <- pool1
I0403 13:24:14.943388 28024 net.cpp:399] conv2 -> conv2
I0403 13:24:14.959095 28024 net.cpp:141] Setting up conv2
I0403 13:24:14.959146 28024 net.cpp:148] Top shape: 100 256 27 27 (18662400)
I0403 13:24:14.959164 28024 net.cpp:156] Memory required for data: 512959600
I0403 13:24:14.959188 28024 layer_factory.hpp:77] Creating layer relu2
I0403 13:24:14.959209 28024 net.cpp:91] Creating Layer relu2
I0403 13:24:14.959228 28024 net.cpp:425] relu2 <- conv2
I0403 13:24:14.959247 28024 net.cpp:386] relu2 -> conv2 (in-place)
I0403 13:24:14.959523 28024 net.cpp:141] Setting up relu2
I0403 13:24:14.959554 28024 net.cpp:148] Top shape: 100 256 27 27 (18662400)
I0403 13:24:14.959571 28024 net.cpp:156] Memory required for data: 587609200
I0403 13:24:14.959588 28024 layer_factory.hpp:77] Creating layer norm2
I0403 13:24:14.959611 28024 net.cpp:91] Creating Layer norm2
I0403 13:24:14.959628 28024 net.cpp:425] norm2 <- conv2
I0403 13:24:14.959650 28024 net.cpp:399] norm2 -> norm2
I0403 13:24:14.959841 28024 net.cpp:141] Setting up norm2
I0403 13:24:14.959867 28024 net.cpp:148] Top shape: 100 256 27 27 (18662400)
I0403 13:24:14.959883 28024 net.cpp:156] Memory required for data: 662258800
I0403 13:24:14.959899 28024 layer_factory.hpp:77] Creating layer pool2
I0403 13:24:14.959919 28024 net.cpp:91] Creating Layer pool2
I0403 13:24:14.959936 28024 net.cpp:425] pool2 <- norm2
I0403 13:24:14.959956 28024 net.cpp:399] pool2 -> pool2
I0403 13:24:14.960011 28024 net.cpp:141] Setting up pool2
I0403 13:24:14.960036 28024 net.cpp:148] Top shape: 100 256 13 13 (4326400)
I0403 13:24:14.960052 28024 net.cpp:156] Memory required for data: 679564400
I0403 13:24:14.960067 28024 layer_factory.hpp:77] Creating layer conv3
I0403 13:24:14.960090 28024 net.cpp:91] Creating Layer conv3
I0403 13:24:14.960108 28024 net.cpp:425] conv3 <- pool2
I0403 13:24:14.960129 28024 net.cpp:399] conv3 -> conv3
I0403 13:24:14.999308 28024 net.cpp:141] Setting up conv3
I0403 13:24:14.999380 28024 net.cpp:148] Top shape: 100 384 13 13 (6489600)
I0403 13:24:14.999397 28024 net.cpp:156] Memory required for data: 705522800
I0403 13:24:14.999423 28024 layer_factory.hpp:77] Creating layer relu3
I0403 13:24:14.999447 28024 net.cpp:91] Creating Layer relu3
I0403 13:24:14.999466 28024 net.cpp:425] relu3 <- conv3
I0403 13:24:14.999487 28024 net.cpp:386] relu3 -> conv3 (in-place)
I0403 13:24:14.999783 28024 net.cpp:141] Setting up relu3
I0403 13:24:14.999811 28024 net.cpp:148] Top shape: 100 384 13 13 (6489600)
I0403 13:24:14.999827 28024 net.cpp:156] Memory required for data: 731481200
I0403 13:24:14.999843 28024 layer_factory.hpp:77] Creating layer conv4
I0403 13:24:14.999867 28024 net.cpp:91] Creating Layer conv4
I0403 13:24:14.999886 28024 net.cpp:425] conv4 <- conv3
I0403 13:24:14.999907 28024 net.cpp:399] conv4 -> conv4
I0403 13:24:15.030133 28024 net.cpp:141] Setting up conv4
I0403 13:24:15.030201 28024 net.cpp:148] Top shape: 100 384 13 13 (6489600)
I0403 13:24:15.030251 28024 net.cpp:156] Memory required for data: 757439600
I0403 13:24:15.030273 28024 layer_factory.hpp:77] Creating layer relu4
I0403 13:24:15.030299 28024 net.cpp:91] Creating Layer relu4
I0403 13:24:15.030318 28024 net.cpp:425] relu4 <- conv4
I0403 13:24:15.030338 28024 net.cpp:386] relu4 -> conv4 (in-place)
I0403 13:24:15.030668 28024 net.cpp:141] Setting up relu4
I0403 13:24:15.030699 28024 net.cpp:148] Top shape: 100 384 13 13 (6489600)
I0403 13:24:15.030716 28024 net.cpp:156] Memory required for data: 783398000
I0403 13:24:15.030732 28024 layer_factory.hpp:77] Creating layer conv5
I0403 13:24:15.030758 28024 net.cpp:91] Creating Layer conv5
I0403 13:24:15.030777 28024 net.cpp:425] conv5 <- conv4
I0403 13:24:15.030797 28024 net.cpp:399] conv5 -> conv5
I0403 13:24:15.051755 28024 net.cpp:141] Setting up conv5
I0403 13:24:15.051805 28024 net.cpp:148] Top shape: 100 256 13 13 (4326400)
I0403 13:24:15.051823 28024 net.cpp:156] Memory required for data: 800703600
I0403 13:24:15.051849 28024 layer_factory.hpp:77] Creating layer relu5
I0403 13:24:15.051870 28024 net.cpp:91] Creating Layer relu5
I0403 13:24:15.051888 28024 net.cpp:425] relu5 <- conv5
I0403 13:24:15.051908 28024 net.cpp:386] relu5 -> conv5 (in-place)
I0403 13:24:15.052217 28024 net.cpp:141] Setting up relu5
I0403 13:24:15.052244 28024 net.cpp:148] Top shape: 100 256 13 13 (4326400)
I0403 13:24:15.052260 28024 net.cpp:156] Memory required for data: 818009200
I0403 13:24:15.052276 28024 layer_factory.hpp:77] Creating layer pool5
I0403 13:24:15.052309 28024 net.cpp:91] Creating Layer pool5
I0403 13:24:15.052327 28024 net.cpp:425] pool5 <- conv5
I0403 13:24:15.052346 28024 net.cpp:399] pool5 -> pool5
I0403 13:24:15.052407 28024 net.cpp:141] Setting up pool5
I0403 13:24:15.052431 28024 net.cpp:148] Top shape: 100 256 6 6 (921600)
I0403 13:24:15.052445 28024 net.cpp:156] Memory required for data: 821695600
I0403 13:24:15.052461 28024 layer_factory.hpp:77] Creating layer fc6
I0403 13:24:15.052489 28024 net.cpp:91] Creating Layer fc6
I0403 13:24:15.052505 28024 net.cpp:425] fc6 <- pool5
I0403 13:24:15.052526 28024 net.cpp:399] fc6 -> fc6
I0403 13:24:16.616472 28024 net.cpp:141] Setting up fc6
I0403 13:24:16.616549 28024 net.cpp:148] Top shape: 100 4096 (409600)
I0403 13:24:16.616565 28024 net.cpp:156] Memory required for data: 823334000
I0403 13:24:16.616587 28024 layer_factory.hpp:77] Creating layer relu6
I0403 13:24:16.616611 28024 net.cpp:91] Creating Layer relu6
I0403 13:24:16.616627 28024 net.cpp:425] relu6 <- fc6
I0403 13:24:16.616647 28024 net.cpp:386] relu6 -> fc6 (in-place)
I0403 13:24:16.616879 28024 net.cpp:141] Setting up relu6
I0403 13:24:16.616904 28024 net.cpp:148] Top shape: 100 4096 (409600)
I0403 13:24:16.616919 28024 net.cpp:156] Memory required for data: 824972400
I0403 13:24:16.616935 28024 layer_factory.hpp:77] Creating layer drop6
I0403 13:24:16.616952 28024 net.cpp:91] Creating Layer drop6
I0403 13:24:16.616968 28024 net.cpp:425] drop6 <- fc6
I0403 13:24:16.616988 28024 net.cpp:386] drop6 -> fc6 (in-place)
I0403 13:24:16.617041 28024 net.cpp:141] Setting up drop6
I0403 13:24:16.617066 28024 net.cpp:148] Top shape: 100 4096 (409600)
I0403 13:24:16.617081 28024 net.cpp:156] Memory required for data: 826610800
I0403 13:24:16.617095 28024 layer_factory.hpp:77] Creating layer fc7
I0403 13:24:16.617120 28024 net.cpp:91] Creating Layer fc7
I0403 13:24:16.617136 28024 net.cpp:425] fc7 <- fc6
I0403 13:24:16.617161 28024 net.cpp:399] fc7 -> fc7
I0403 13:24:17.324702 28024 net.cpp:141] Setting up fc7
I0403 13:24:17.324779 28024 net.cpp:148] Top shape: 100 4096 (409600)
I0403 13:24:17.324795 28024 net.cpp:156] Memory required for data: 828249200
I0403 13:24:17.324817 28024 layer_factory.hpp:77] Creating layer relu7
I0403 13:24:17.324839 28024 net.cpp:91] Creating Layer relu7
I0403 13:24:17.324857 28024 net.cpp:425] relu7 <- fc7
I0403 13:24:17.324879 28024 net.cpp:386] relu7 -> fc7 (in-place)
I0403 13:24:17.325297 28024 net.cpp:141] Setting up relu7
I0403 13:24:17.325325 28024 net.cpp:148] Top shape: 100 4096 (409600)
I0403 13:24:17.325376 28024 net.cpp:156] Memory required for data: 829887600
I0403 13:24:17.325392 28024 layer_factory.hpp:77] Creating layer drop7
I0403 13:24:17.325410 28024 net.cpp:91] Creating Layer drop7
I0403 13:24:17.325428 28024 net.cpp:425] drop7 <- fc7
I0403 13:24:17.325448 28024 net.cpp:386] drop7 -> fc7 (in-place)
I0403 13:24:17.325491 28024 net.cpp:141] Setting up drop7
I0403 13:24:17.325517 28024 net.cpp:148] Top shape: 100 4096 (409600)
I0403 13:24:17.325539 28024 net.cpp:156] Memory required for data: 831526000
I0403 13:24:17.325554 28024 layer_factory.hpp:77] Creating layer fc8_plantvillage
I0403 13:24:17.325575 28024 net.cpp:91] Creating Layer fc8_plantvillage
I0403 13:24:17.325592 28024 net.cpp:425] fc8_plantvillage <- fc7
I0403 13:24:17.325611 28024 net.cpp:399] fc8_plantvillage -> fc8_plantvillage
I0403 13:24:17.332365 28024 net.cpp:141] Setting up fc8_plantvillage
I0403 13:24:17.332396 28024 net.cpp:148] Top shape: 100 38 (3800)
I0403 13:24:17.332412 28024 net.cpp:156] Memory required for data: 831541200
I0403 13:24:17.332430 28024 layer_factory.hpp:77] Creating layer fc8_plantvillage_fc8_plantvillage_0_split
I0403 13:24:17.332449 28024 net.cpp:91] Creating Layer fc8_plantvillage_fc8_plantvillage_0_split
I0403 13:24:17.332466 28024 net.cpp:425] fc8_plantvillage_fc8_plantvillage_0_split <- fc8_plantvillage
I0403 13:24:17.332485 28024 net.cpp:399] fc8_plantvillage_fc8_plantvillage_0_split -> fc8_plantvillage_fc8_plantvillage_0_split_0
I0403 13:24:17.332506 28024 net.cpp:399] fc8_plantvillage_fc8_plantvillage_0_split -> fc8_plantvillage_fc8_plantvillage_0_split_1
I0403 13:24:17.332527 28024 net.cpp:399] fc8_plantvillage_fc8_plantvillage_0_split -> fc8_plantvillage_fc8_plantvillage_0_split_2
I0403 13:24:17.332604 28024 net.cpp:141] Setting up fc8_plantvillage_fc8_plantvillage_0_split
I0403 13:24:17.332630 28024 net.cpp:148] Top shape: 100 38 (3800)
I0403 13:24:17.332648 28024 net.cpp:148] Top shape: 100 38 (3800)
I0403 13:24:17.332664 28024 net.cpp:148] Top shape: 100 38 (3800)
I0403 13:24:17.332677 28024 net.cpp:156] Memory required for data: 831586800
I0403 13:24:17.332692 28024 layer_factory.hpp:77] Creating layer prob
I0403 13:24:17.332711 28024 net.cpp:91] Creating Layer prob
I0403 13:24:17.332727 28024 net.cpp:425] prob <- fc8_plantvillage_fc8_plantvillage_0_split_0
I0403 13:24:17.332746 28024 net.cpp:399] prob -> prob
I0403 13:24:17.332980 28024 net.cpp:141] Setting up prob
I0403 13:24:17.333006 28024 net.cpp:148] Top shape: 100 38 (3800)
I0403 13:24:17.333021 28024 net.cpp:156] Memory required for data: 831602000
I0403 13:24:17.333037 28024 layer_factory.hpp:77] Creating layer hdf5out
I0403 13:24:17.333057 28024 net.cpp:91] Creating Layer hdf5out
I0403 13:24:17.333075 28024 net.cpp:425] hdf5out <- prob
I0403 13:24:17.333091 28024 net.cpp:425] hdf5out <- label_data_1_split_0
I0403 13:24:17.337072 28024 net.cpp:141] Setting up hdf5out
…
