…
I0403 13:09:09.820636 27494 net.cpp:313] The NetState phase (1) differed from the phase (0) specified by a rule in layer data
I0403 13:09:09.820950 27494 net.cpp:49] Initializing net from parameters: 
state {
  phase: TEST
}
layer {
  name: "data"
  type: "Data"
  top: "data"
  top: "label"
  include {
    phase: TEST
  }
  transform_param {
    crop_size: 227
    mean_file: "/home/mohanty/data/final_dataset/lmdb/color-60-40/mean.binaryproto"
  }
  data_param {
    source: "/home/mohanty/data/final_dataset/lmdb/color-60-40/test_db"
    batch_size: 100
    backend: LMDB
  }
}
layer {
  name: "conv1"
  type: "Convolution"
  bottom: "data"
  top: "conv1"
  param {
    lr_mult: 1
    decay_mult: 1
  }
  param {
    lr_mult: 2
    decay_mult: 0
  }
  convolution_param {
    num_output: 96
    kernel_size: 11
    stride: 4
    weight_filler {
      type: "gaussian"
      std: 0.01
    }
    bias_filler {
      type: "constant"
      value: 0
    }
  }
}
layer {
  name: "relu1"
  type: "ReLU"
  bottom: "conv1"
  top: "conv1"
}
layer {
  name: "norm1"
  type: "LRN"
  bottom: "conv1"
  top: "norm1"
  lrn_param {
    local_size: 5
    alpha: 0.0001
    beta: 0.75
  }
}
layer {
  name: "pool1"
  type: "Pooling"
  bottom: "norm1"
  top: "pool1"
  pooling_param {
    pool: MAX
    kernel_size: 3
    stride: 2
  }
}
layer {
  name: "conv2"
  type: "Convolution"
  bottom: "pool1"
  top: "conv2"
  param {
    lr_mult: 1
    decay_mult: 1
  }
  param {
    lr_mult: 2
    decay_mult: 0
  }
  convolution_param {
    num_output: 256
    pad: 2
    kernel_size: 5
    group: 2
    weight_filler {
      type: "gaussian"
      std: 0.01
    }
    bias_filler {
      type: "constant"
      value: 0.1
    }
  }
}
layer {
  name: "relu2"
  type: "ReLU"
  bottom: "conv2"
  top: "conv2"
}
layer {
  name: "norm2"
  type: "LRN"
  bottom: "conv2"
  top: "norm2"
  lrn_param {
    local_size: 5
    alpha: 0.0001
    beta: 0.75
  }
}
layer {
  name: "pool2"
  type: "Pooling"
  bottom: "norm2"
  top: "pool2"
  pooling_param {
    pool: MAX
    kernel_size: 3
    stride: 2
  }
}
layer {
  name: "conv3"
  type: "Convolution"
  bottom: "pool2"
  top: "conv3"
  param {
    lr_mult: 1
    decay_mult: 1
  }
  param {
    lr_mult: 2
    decay_mult: 0
  }
  convolution_param {
    num_output: 384
    pad: 1
    kernel_size: 3
    weight_filler {
      type: "gaussian"
      std: 0.01
    }
    bias_filler {
      type: "constant"
      value: 0
    }
  }
}
layer {
  name: "relu3"
  type: "ReLU"
  bottom: "conv3"
  top: "conv3"
}
layer {
  name: "conv4"
  type: "Convolution"
  bottom: "conv3"
  top: "conv4"
  param {
    lr_mult: 1
    decay_mult: 1
  }
  param {
    lr_mult: 2
    decay_mult: 0
  }
  convolution_param {
    num_output: 384
    pad: 1
    kernel_size: 3
    group: 2
    weight_filler {
      type: "gaussian"
      std: 0.01
    }
    bias_filler {
      type: "constant"
      value: 0.1
    }
  }
}
layer {
  name: "relu4"
  type: "ReLU"
  bottom: "conv4"
  top: "conv4"
}
layer {
  name: "conv5"
  type: "Convolution"
  bottom: "conv4"
  top: "conv5"
  param {
    lr_mult: 1
    decay_mult: 1
  }
  param {
    lr_mult: 2
    decay_mult: 0
  }
  convolution_param {
    num_output: 256
    pad: 1
    kernel_size: 3
    group: 2
    weight_filler {
      type: "gaussian"
      std: 0.01
    }
    bias_filler {
      type: "constant"
      value: 0.1
    }
  }
}
layer {
  name: "relu5"
  type: "ReLU"
  bottom: "conv5"
  top: "conv5"
}
layer {
  name: "pool5"
  type: "Pooling"
  bottom: "conv5"
  top: "pool5"
  pooling_param {
    pool: MAX
    kernel_size: 3
    stride: 2
  }
}
layer {
  name: "fc6"
  type: "InnerProduct"
  bottom: "pool5"
  top: "fc6"
  param {
    lr_mult: 1
    decay_mult: 1
  }
  param {
    lr_mult: 2
    decay_mult: 0
  }
  inner_product_param {
    num_output: 4096
    weight_filler {
      type: "gaussian"
      std: 0.005
    }
    bias_filler {
      type: "constant"
      value: 0.1
    }
  }
}
layer {
  name: "relu6"
  type: "ReLU"
  bottom: "fc6"
  top: "fc6"
}
layer {
  name: "drop6"
  type: "Dropout"
  bottom: "fc6"
  top: "fc6"
  dropout_param {
    dropout_ratio: 0.5
  }
}
layer {
  name: "fc7"
  type: "InnerProduct"
  bottom: "fc6"
  top: "fc7"
  param {
    lr_mult: 1
    decay_mult: 1
  }
  param {
    lr_mult: 2
    decay_mult: 0
  }
  inner_product_param {
    num_output: 4096
    weight_filler {
      type: "gaussian"
      std: 0.005
    }
    bias_filler {
      type: "constant"
      value: 0.1
    }
  }
}
layer {
  name: "relu7"
  type: "ReLU"
  bottom: "fc7"
  top: "fc7"
}
layer {
  name: "drop7"
  type: "Dropout"
  bottom: "fc7"
  top: "fc7"
  dropout_param {
    dropout_ratio: 0.5
  }
}
layer {
  name: "fc8_plantvillage"
  type: "InnerProduct"
  bottom: "fc7"
  top: "fc8_plantvillage"
  param {
    lr_mult: 1
    decay_mult: 1
  }
  param {
    lr_mult: 2
    decay_mult: 0
  }
  inner_product_param {
    num_output: 38
    weight_filler {
      type: "gaussian"
      std: 0.01
    }
    bias_filler {
      type: "constant"
      value: 0
    }
  }
}
layer {
  name: "prob"
  type: "Softmax"
  bottom: "fc8_plantvillage"
  top: "prob"
  include {
    phase: TEST
  }
}
layer {
  name: "hdf5out"
  type: "HDF5Output"
  bottom: "prob"
  bottom: "label"
  include {
    phase: TEST
  }
  hdf5_output_param {
    file_name: "hdf5_dumps/iter_2275.h5"
  }
}
layer {
  name: "loss"
  type: "SoftmaxWithLoss"
  bottom: "fc8_plantvillage"
  bottom: "label"
  top: "loss"
}
layer {
  name: "accuracy"
  type: "Accuracy"
  bottom: "fc8_plantvillage"
  bottom: "label"
  top: "accuracy"
  include {
    phase: TEST
  }
}
I0403 13:09:09.821533 27494 layer_factory.hpp:77] Creating layer data
I0403 13:09:09.822187 27494 net.cpp:91] Creating Layer data
I0403 13:09:09.822219 27494 net.cpp:399] data -> data
I0403 13:09:09.822273 27494 net.cpp:399] data -> label
I0403 13:09:09.822317 27494 data_transformer.cpp:25] Loading mean file from: /home/mohanty/data/final_dataset/lmdb/color-60-40/mean.binaryproto
I0403 13:09:09.825408 27498 db_lmdb.cpp:38] Opened lmdb /home/mohanty/data/final_dataset/lmdb/color-60-40/test_db
I0403 13:09:09.837000 27494 data_layer.cpp:41] output data size: 100,3,227,227
I0403 13:09:09.972688 27494 net.cpp:141] Setting up data
I0403 13:09:09.972795 27494 net.cpp:148] Top shape: 100 3 227 227 (15458700)
I0403 13:09:09.972820 27494 net.cpp:148] Top shape: 100 (100)
I0403 13:09:09.972836 27494 net.cpp:156] Memory required for data: 61835200
I0403 13:09:09.972867 27494 layer_factory.hpp:77] Creating layer label_data_1_split
I0403 13:09:09.972892 27494 net.cpp:91] Creating Layer label_data_1_split
I0403 13:09:09.972911 27494 net.cpp:425] label_data_1_split <- label
I0403 13:09:09.972944 27494 net.cpp:399] label_data_1_split -> label_data_1_split_0
I0403 13:09:09.972972 27494 net.cpp:399] label_data_1_split -> label_data_1_split_1
I0403 13:09:09.972995 27494 net.cpp:399] label_data_1_split -> label_data_1_split_2
I0403 13:09:09.973060 27494 net.cpp:141] Setting up label_data_1_split
I0403 13:09:09.973085 27494 net.cpp:148] Top shape: 100 (100)
I0403 13:09:09.973103 27494 net.cpp:148] Top shape: 100 (100)
I0403 13:09:09.973119 27494 net.cpp:148] Top shape: 100 (100)
I0403 13:09:09.973134 27494 net.cpp:156] Memory required for data: 61836400
I0403 13:09:09.973150 27494 layer_factory.hpp:77] Creating layer conv1
I0403 13:09:09.973182 27494 net.cpp:91] Creating Layer conv1
I0403 13:09:09.973201 27494 net.cpp:425] conv1 <- data
I0403 13:09:09.973220 27494 net.cpp:399] conv1 -> conv1
I0403 13:09:10.124163 27494 net.cpp:141] Setting up conv1
I0403 13:09:10.124241 27494 net.cpp:148] Top shape: 100 96 55 55 (29040000)
I0403 13:09:10.124274 27494 net.cpp:156] Memory required for data: 177996400
I0403 13:09:10.124311 27494 layer_factory.hpp:77] Creating layer relu1
I0403 13:09:10.124342 27494 net.cpp:91] Creating Layer relu1
I0403 13:09:10.124362 27494 net.cpp:425] relu1 <- conv1
I0403 13:09:10.124383 27494 net.cpp:386] relu1 -> conv1 (in-place)
I0403 13:09:10.124748 27494 net.cpp:141] Setting up relu1
I0403 13:09:10.124779 27494 net.cpp:148] Top shape: 100 96 55 55 (29040000)
I0403 13:09:10.124799 27494 net.cpp:156] Memory required for data: 294156400
I0403 13:09:10.124850 27494 layer_factory.hpp:77] Creating layer norm1
I0403 13:09:10.124879 27494 net.cpp:91] Creating Layer norm1
I0403 13:09:10.124898 27494 net.cpp:425] norm1 <- conv1
I0403 13:09:10.124918 27494 net.cpp:399] norm1 -> norm1
I0403 13:09:10.125241 27494 net.cpp:141] Setting up norm1
I0403 13:09:10.125274 27494 net.cpp:148] Top shape: 100 96 55 55 (29040000)
I0403 13:09:10.125293 27494 net.cpp:156] Memory required for data: 410316400
I0403 13:09:10.125308 27494 layer_factory.hpp:77] Creating layer pool1
I0403 13:09:10.125334 27494 net.cpp:91] Creating Layer pool1
I0403 13:09:10.125352 27494 net.cpp:425] pool1 <- norm1
I0403 13:09:10.125372 27494 net.cpp:399] pool1 -> pool1
I0403 13:09:10.125442 27494 net.cpp:141] Setting up pool1
I0403 13:09:10.125468 27494 net.cpp:148] Top shape: 100 96 27 27 (6998400)
I0403 13:09:10.125483 27494 net.cpp:156] Memory required for data: 438310000
I0403 13:09:10.125500 27494 layer_factory.hpp:77] Creating layer conv2
I0403 13:09:10.125525 27494 net.cpp:91] Creating Layer conv2
I0403 13:09:10.125545 27494 net.cpp:425] conv2 <- pool1
I0403 13:09:10.125566 27494 net.cpp:399] conv2 -> conv2
I0403 13:09:10.141191 27494 net.cpp:141] Setting up conv2
I0403 13:09:10.141242 27494 net.cpp:148] Top shape: 100 256 27 27 (18662400)
I0403 13:09:10.141268 27494 net.cpp:156] Memory required for data: 512959600
I0403 13:09:10.141304 27494 layer_factory.hpp:77] Creating layer relu2
I0403 13:09:10.141326 27494 net.cpp:91] Creating Layer relu2
I0403 13:09:10.141355 27494 net.cpp:425] relu2 <- conv2
I0403 13:09:10.141374 27494 net.cpp:386] relu2 -> conv2 (in-place)
I0403 13:09:10.141659 27494 net.cpp:141] Setting up relu2
I0403 13:09:10.141688 27494 net.cpp:148] Top shape: 100 256 27 27 (18662400)
I0403 13:09:10.141705 27494 net.cpp:156] Memory required for data: 587609200
I0403 13:09:10.141721 27494 layer_factory.hpp:77] Creating layer norm2
I0403 13:09:10.141743 27494 net.cpp:91] Creating Layer norm2
I0403 13:09:10.141762 27494 net.cpp:425] norm2 <- conv2
I0403 13:09:10.141780 27494 net.cpp:399] norm2 -> norm2
I0403 13:09:10.141973 27494 net.cpp:141] Setting up norm2
I0403 13:09:10.142001 27494 net.cpp:148] Top shape: 100 256 27 27 (18662400)
I0403 13:09:10.142017 27494 net.cpp:156] Memory required for data: 662258800
I0403 13:09:10.142032 27494 layer_factory.hpp:77] Creating layer pool2
I0403 13:09:10.142052 27494 net.cpp:91] Creating Layer pool2
I0403 13:09:10.142068 27494 net.cpp:425] pool2 <- norm2
I0403 13:09:10.142087 27494 net.cpp:399] pool2 -> pool2
I0403 13:09:10.142138 27494 net.cpp:141] Setting up pool2
I0403 13:09:10.142163 27494 net.cpp:148] Top shape: 100 256 13 13 (4326400)
I0403 13:09:10.142177 27494 net.cpp:156] Memory required for data: 679564400
I0403 13:09:10.142192 27494 layer_factory.hpp:77] Creating layer conv3
I0403 13:09:10.142215 27494 net.cpp:91] Creating Layer conv3
I0403 13:09:10.142232 27494 net.cpp:425] conv3 <- pool2
I0403 13:09:10.142256 27494 net.cpp:399] conv3 -> conv3
I0403 13:09:10.182294 27494 net.cpp:141] Setting up conv3
I0403 13:09:10.182371 27494 net.cpp:148] Top shape: 100 384 13 13 (6489600)
I0403 13:09:10.182390 27494 net.cpp:156] Memory required for data: 705522800
I0403 13:09:10.182417 27494 layer_factory.hpp:77] Creating layer relu3
I0403 13:09:10.182445 27494 net.cpp:91] Creating Layer relu3
I0403 13:09:10.182463 27494 net.cpp:425] relu3 <- conv3
I0403 13:09:10.182484 27494 net.cpp:386] relu3 -> conv3 (in-place)
I0403 13:09:10.182781 27494 net.cpp:141] Setting up relu3
I0403 13:09:10.182811 27494 net.cpp:148] Top shape: 100 384 13 13 (6489600)
I0403 13:09:10.182827 27494 net.cpp:156] Memory required for data: 731481200
I0403 13:09:10.182844 27494 layer_factory.hpp:77] Creating layer conv4
I0403 13:09:10.182873 27494 net.cpp:91] Creating Layer conv4
I0403 13:09:10.182891 27494 net.cpp:425] conv4 <- conv3
I0403 13:09:10.182914 27494 net.cpp:399] conv4 -> conv4
I0403 13:09:10.213928 27494 net.cpp:141] Setting up conv4
I0403 13:09:10.213990 27494 net.cpp:148] Top shape: 100 384 13 13 (6489600)
I0403 13:09:10.214040 27494 net.cpp:156] Memory required for data: 757439600
I0403 13:09:10.214064 27494 layer_factory.hpp:77] Creating layer relu4
I0403 13:09:10.214087 27494 net.cpp:91] Creating Layer relu4
I0403 13:09:10.214144 27494 net.cpp:425] relu4 <- conv4
I0403 13:09:10.214174 27494 net.cpp:386] relu4 -> conv4 (in-place)
I0403 13:09:10.214488 27494 net.cpp:141] Setting up relu4
I0403 13:09:10.214516 27494 net.cpp:148] Top shape: 100 384 13 13 (6489600)
I0403 13:09:10.214534 27494 net.cpp:156] Memory required for data: 783398000
I0403 13:09:10.214561 27494 layer_factory.hpp:77] Creating layer conv5
I0403 13:09:10.214587 27494 net.cpp:91] Creating Layer conv5
I0403 13:09:10.214607 27494 net.cpp:425] conv5 <- conv4
I0403 13:09:10.214629 27494 net.cpp:399] conv5 -> conv5
I0403 13:09:10.236330 27494 net.cpp:141] Setting up conv5
I0403 13:09:10.236419 27494 net.cpp:148] Top shape: 100 256 13 13 (4326400)
I0403 13:09:10.236439 27494 net.cpp:156] Memory required for data: 800703600
I0403 13:09:10.236465 27494 layer_factory.hpp:77] Creating layer relu5
I0403 13:09:10.236493 27494 net.cpp:91] Creating Layer relu5
I0403 13:09:10.236513 27494 net.cpp:425] relu5 <- conv5
I0403 13:09:10.236533 27494 net.cpp:386] relu5 -> conv5 (in-place)
I0403 13:09:10.236842 27494 net.cpp:141] Setting up relu5
I0403 13:09:10.236871 27494 net.cpp:148] Top shape: 100 256 13 13 (4326400)
I0403 13:09:10.236887 27494 net.cpp:156] Memory required for data: 818009200
I0403 13:09:10.236903 27494 layer_factory.hpp:77] Creating layer pool5
I0403 13:09:10.236930 27494 net.cpp:91] Creating Layer pool5
I0403 13:09:10.236948 27494 net.cpp:425] pool5 <- conv5
I0403 13:09:10.236968 27494 net.cpp:399] pool5 -> pool5
I0403 13:09:10.237035 27494 net.cpp:141] Setting up pool5
I0403 13:09:10.237061 27494 net.cpp:148] Top shape: 100 256 6 6 (921600)
I0403 13:09:10.237077 27494 net.cpp:156] Memory required for data: 821695600
I0403 13:09:10.237093 27494 layer_factory.hpp:77] Creating layer fc6
I0403 13:09:10.237124 27494 net.cpp:91] Creating Layer fc6
I0403 13:09:10.237143 27494 net.cpp:425] fc6 <- pool5
I0403 13:09:10.237164 27494 net.cpp:399] fc6 -> fc6
I0403 13:09:11.829532 27494 net.cpp:141] Setting up fc6
I0403 13:09:11.829613 27494 net.cpp:148] Top shape: 100 4096 (409600)
I0403 13:09:11.829632 27494 net.cpp:156] Memory required for data: 823334000
I0403 13:09:11.829653 27494 layer_factory.hpp:77] Creating layer relu6
I0403 13:09:11.829676 27494 net.cpp:91] Creating Layer relu6
I0403 13:09:11.829694 27494 net.cpp:425] relu6 <- fc6
I0403 13:09:11.829716 27494 net.cpp:386] relu6 -> fc6 (in-place)
I0403 13:09:11.829947 27494 net.cpp:141] Setting up relu6
I0403 13:09:11.829973 27494 net.cpp:148] Top shape: 100 4096 (409600)
I0403 13:09:11.829989 27494 net.cpp:156] Memory required for data: 824972400
I0403 13:09:11.830005 27494 layer_factory.hpp:77] Creating layer drop6
I0403 13:09:11.830024 27494 net.cpp:91] Creating Layer drop6
I0403 13:09:11.830041 27494 net.cpp:425] drop6 <- fc6
I0403 13:09:11.830067 27494 net.cpp:386] drop6 -> fc6 (in-place)
I0403 13:09:11.830124 27494 net.cpp:141] Setting up drop6
I0403 13:09:11.830148 27494 net.cpp:148] Top shape: 100 4096 (409600)
I0403 13:09:11.830163 27494 net.cpp:156] Memory required for data: 826610800
I0403 13:09:11.830179 27494 layer_factory.hpp:77] Creating layer fc7
I0403 13:09:11.830199 27494 net.cpp:91] Creating Layer fc7
I0403 13:09:11.830217 27494 net.cpp:425] fc7 <- fc6
I0403 13:09:11.830238 27494 net.cpp:399] fc7 -> fc7
I0403 13:09:12.522738 27494 net.cpp:141] Setting up fc7
I0403 13:09:12.522789 27494 net.cpp:148] Top shape: 100 4096 (409600)
I0403 13:09:12.522806 27494 net.cpp:156] Memory required for data: 828249200
I0403 13:09:12.522828 27494 layer_factory.hpp:77] Creating layer relu7
I0403 13:09:12.522853 27494 net.cpp:91] Creating Layer relu7
I0403 13:09:12.522872 27494 net.cpp:425] relu7 <- fc7
I0403 13:09:12.522892 27494 net.cpp:386] relu7 -> fc7 (in-place)
I0403 13:09:12.523313 27494 net.cpp:141] Setting up relu7
I0403 13:09:12.523339 27494 net.cpp:148] Top shape: 100 4096 (409600)
I0403 13:09:12.523387 27494 net.cpp:156] Memory required for data: 829887600
I0403 13:09:12.523404 27494 layer_factory.hpp:77] Creating layer drop7
I0403 13:09:12.523427 27494 net.cpp:91] Creating Layer drop7
I0403 13:09:12.523444 27494 net.cpp:425] drop7 <- fc7
I0403 13:09:12.523461 27494 net.cpp:386] drop7 -> fc7 (in-place)
I0403 13:09:12.523504 27494 net.cpp:141] Setting up drop7
I0403 13:09:12.523531 27494 net.cpp:148] Top shape: 100 4096 (409600)
I0403 13:09:12.523548 27494 net.cpp:156] Memory required for data: 831526000
I0403 13:09:12.523563 27494 layer_factory.hpp:77] Creating layer fc8_plantvillage
I0403 13:09:12.523583 27494 net.cpp:91] Creating Layer fc8_plantvillage
I0403 13:09:12.523598 27494 net.cpp:425] fc8_plantvillage <- fc7
I0403 13:09:12.523619 27494 net.cpp:399] fc8_plantvillage -> fc8_plantvillage
I0403 13:09:12.530319 27494 net.cpp:141] Setting up fc8_plantvillage
I0403 13:09:12.530349 27494 net.cpp:148] Top shape: 100 38 (3800)
I0403 13:09:12.530366 27494 net.cpp:156] Memory required for data: 831541200
I0403 13:09:12.530385 27494 layer_factory.hpp:77] Creating layer fc8_plantvillage_fc8_plantvillage_0_split
I0403 13:09:12.530407 27494 net.cpp:91] Creating Layer fc8_plantvillage_fc8_plantvillage_0_split
I0403 13:09:12.530424 27494 net.cpp:425] fc8_plantvillage_fc8_plantvillage_0_split <- fc8_plantvillage
I0403 13:09:12.530442 27494 net.cpp:399] fc8_plantvillage_fc8_plantvillage_0_split -> fc8_plantvillage_fc8_plantvillage_0_split_0
I0403 13:09:12.530462 27494 net.cpp:399] fc8_plantvillage_fc8_plantvillage_0_split -> fc8_plantvillage_fc8_plantvillage_0_split_1
I0403 13:09:12.530483 27494 net.cpp:399] fc8_plantvillage_fc8_plantvillage_0_split -> fc8_plantvillage_fc8_plantvillage_0_split_2
I0403 13:09:12.530560 27494 net.cpp:141] Setting up fc8_plantvillage_fc8_plantvillage_0_split
I0403 13:09:12.530586 27494 net.cpp:148] Top shape: 100 38 (3800)
I0403 13:09:12.530602 27494 net.cpp:148] Top shape: 100 38 (3800)
I0403 13:09:12.530621 27494 net.cpp:148] Top shape: 100 38 (3800)
I0403 13:09:12.530634 27494 net.cpp:156] Memory required for data: 831586800
I0403 13:09:12.530649 27494 layer_factory.hpp:77] Creating layer prob
I0403 13:09:12.530668 27494 net.cpp:91] Creating Layer prob
I0403 13:09:12.530683 27494 net.cpp:425] prob <- fc8_plantvillage_fc8_plantvillage_0_split_0
I0403 13:09:12.530704 27494 net.cpp:399] prob -> prob
I0403 13:09:12.530935 27494 net.cpp:141] Setting up prob
I0403 13:09:12.530961 27494 net.cpp:148] Top shape: 100 38 (3800)
I0403 13:09:12.530977 27494 net.cpp:156] Memory required for data: 831602000
I0403 13:09:12.530992 27494 layer_factory.hpp:77] Creating layer hdf5out
I0403 13:09:12.531013 27494 net.cpp:91] Creating Layer hdf5out
I0403 13:09:12.531031 27494 net.cpp:425] hdf5out <- prob
I0403 13:09:12.531049 27494 net.cpp:425] hdf5out <- label_data_1_split_0
I0403 13:09:12.535182 27494 net.cpp:141] Setting up hdf5out
…
