…
I0403 13:28:11.826547 28120 net.cpp:313] The NetState phase (1) differed from the phase (0) specified by a rule in layer data
I0403 13:28:11.826856 28120 net.cpp:49] Initializing net from parameters: 
state {
  phase: TEST
}
layer {
  name: "data"
  type: "Data"
  top: "data"
  top: "label"
  include {
    phase: TEST
  }
  transform_param {
    crop_size: 227
    mean_file: "/home/mohanty/data/final_dataset/lmdb/color-60-40/mean.binaryproto"
  }
  data_param {
    source: "/home/mohanty/data/final_dataset/lmdb/color-60-40/test_db"
    batch_size: 100
    backend: LMDB
  }
}
layer {
  name: "conv1"
  type: "Convolution"
  bottom: "data"
  top: "conv1"
  param {
    lr_mult: 1
    decay_mult: 1
  }
  param {
    lr_mult: 2
    decay_mult: 0
  }
  convolution_param {
    num_output: 96
    kernel_size: 11
    stride: 4
    weight_filler {
      type: "gaussian"
      std: 0.01
    }
    bias_filler {
      type: "constant"
      value: 0
    }
  }
}
layer {
  name: "relu1"
  type: "ReLU"
  bottom: "conv1"
  top: "conv1"
}
layer {
  name: "norm1"
  type: "LRN"
  bottom: "conv1"
  top: "norm1"
  lrn_param {
    local_size: 5
    alpha: 0.0001
    beta: 0.75
  }
}
layer {
  name: "pool1"
  type: "Pooling"
  bottom: "norm1"
  top: "pool1"
  pooling_param {
    pool: MAX
    kernel_size: 3
    stride: 2
  }
}
layer {
  name: "conv2"
  type: "Convolution"
  bottom: "pool1"
  top: "conv2"
  param {
    lr_mult: 1
    decay_mult: 1
  }
  param {
    lr_mult: 2
    decay_mult: 0
  }
  convolution_param {
    num_output: 256
    pad: 2
    kernel_size: 5
    group: 2
    weight_filler {
      type: "gaussian"
      std: 0.01
    }
    bias_filler {
      type: "constant"
      value: 0.1
    }
  }
}
layer {
  name: "relu2"
  type: "ReLU"
  bottom: "conv2"
  top: "conv2"
}
layer {
  name: "norm2"
  type: "LRN"
  bottom: "conv2"
  top: "norm2"
  lrn_param {
    local_size: 5
    alpha: 0.0001
    beta: 0.75
  }
}
layer {
  name: "pool2"
  type: "Pooling"
  bottom: "norm2"
  top: "pool2"
  pooling_param {
    pool: MAX
    kernel_size: 3
    stride: 2
  }
}
layer {
  name: "conv3"
  type: "Convolution"
  bottom: "pool2"
  top: "conv3"
  param {
    lr_mult: 1
    decay_mult: 1
  }
  param {
    lr_mult: 2
    decay_mult: 0
  }
  convolution_param {
    num_output: 384
    pad: 1
    kernel_size: 3
    weight_filler {
      type: "gaussian"
      std: 0.01
    }
    bias_filler {
      type: "constant"
      value: 0
    }
  }
}
layer {
  name: "relu3"
  type: "ReLU"
  bottom: "conv3"
  top: "conv3"
}
layer {
  name: "conv4"
  type: "Convolution"
  bottom: "conv3"
  top: "conv4"
  param {
    lr_mult: 1
    decay_mult: 1
  }
  param {
    lr_mult: 2
    decay_mult: 0
  }
  convolution_param {
    num_output: 384
    pad: 1
    kernel_size: 3
    group: 2
    weight_filler {
      type: "gaussian"
      std: 0.01
    }
    bias_filler {
      type: "constant"
      value: 0.1
    }
  }
}
layer {
  name: "relu4"
  type: "ReLU"
  bottom: "conv4"
  top: "conv4"
}
layer {
  name: "conv5"
  type: "Convolution"
  bottom: "conv4"
  top: "conv5"
  param {
    lr_mult: 1
    decay_mult: 1
  }
  param {
    lr_mult: 2
    decay_mult: 0
  }
  convolution_param {
    num_output: 256
    pad: 1
    kernel_size: 3
    group: 2
    weight_filler {
      type: "gaussian"
      std: 0.01
    }
    bias_filler {
      type: "constant"
      value: 0.1
    }
  }
}
layer {
  name: "relu5"
  type: "ReLU"
  bottom: "conv5"
  top: "conv5"
}
layer {
  name: "pool5"
  type: "Pooling"
  bottom: "conv5"
  top: "pool5"
  pooling_param {
    pool: MAX
    kernel_size: 3
    stride: 2
  }
}
layer {
  name: "fc6"
  type: "InnerProduct"
  bottom: "pool5"
  top: "fc6"
  param {
    lr_mult: 1
    decay_mult: 1
  }
  param {
    lr_mult: 2
    decay_mult: 0
  }
  inner_product_param {
    num_output: 4096
    weight_filler {
      type: "gaussian"
      std: 0.005
    }
    bias_filler {
      type: "constant"
      value: 0.1
    }
  }
}
layer {
  name: "relu6"
  type: "ReLU"
  bottom: "fc6"
  top: "fc6"
}
layer {
  name: "drop6"
  type: "Dropout"
  bottom: "fc6"
  top: "fc6"
  dropout_param {
    dropout_ratio: 0.5
  }
}
layer {
  name: "fc7"
  type: "InnerProduct"
  bottom: "fc6"
  top: "fc7"
  param {
    lr_mult: 1
    decay_mult: 1
  }
  param {
    lr_mult: 2
    decay_mult: 0
  }
  inner_product_param {
    num_output: 4096
    weight_filler {
      type: "gaussian"
      std: 0.005
    }
    bias_filler {
      type: "constant"
      value: 0.1
    }
  }
}
layer {
  name: "relu7"
  type: "ReLU"
  bottom: "fc7"
  top: "fc7"
}
layer {
  name: "drop7"
  type: "Dropout"
  bottom: "fc7"
  top: "fc7"
  dropout_param {
    dropout_ratio: 0.5
  }
}
layer {
  name: "fc8_plantvillage"
  type: "InnerProduct"
  bottom: "fc7"
  top: "fc8_plantvillage"
  param {
    lr_mult: 1
    decay_mult: 1
  }
  param {
    lr_mult: 2
    decay_mult: 0
  }
  inner_product_param {
    num_output: 38
    weight_filler {
      type: "gaussian"
      std: 0.01
    }
    bias_filler {
      type: "constant"
      value: 0
    }
  }
}
layer {
  name: "prob"
  type: "Softmax"
  bottom: "fc8_plantvillage"
  top: "prob"
  include {
    phase: TEST
  }
}
layer {
  name: "hdf5out"
  type: "HDF5Output"
  bottom: "prob"
  bottom: "label"
  include {
    phase: TEST
  }
  hdf5_output_param {
    file_name: "hdf5_dumps/iter_9756.h5"
  }
}
layer {
  name: "loss"
  type: "SoftmaxWithLoss"
  bottom: "fc8_plantvillage"
  bottom: "label"
  top: "loss"
}
layer {
  name: "accuracy"
  type: "Accuracy"
  bottom: "fc8_plantvillage"
  bottom: "label"
  top: "accuracy"
  include {
    phase: TEST
  }
}
I0403 13:28:11.827491 28120 layer_factory.hpp:77] Creating layer data
I0403 13:28:11.828161 28120 net.cpp:91] Creating Layer data
I0403 13:28:11.828194 28120 net.cpp:399] data -> data
I0403 13:28:11.828248 28120 net.cpp:399] data -> label
I0403 13:28:11.828290 28120 data_transformer.cpp:25] Loading mean file from: /home/mohanty/data/final_dataset/lmdb/color-60-40/mean.binaryproto
I0403 13:28:11.830783 28123 db_lmdb.cpp:38] Opened lmdb /home/mohanty/data/final_dataset/lmdb/color-60-40/test_db
I0403 13:28:11.843184 28120 data_layer.cpp:41] output data size: 100,3,227,227
I0403 13:28:11.976025 28120 net.cpp:141] Setting up data
I0403 13:28:11.976089 28120 net.cpp:148] Top shape: 100 3 227 227 (15458700)
I0403 13:28:11.976112 28120 net.cpp:148] Top shape: 100 (100)
I0403 13:28:11.976128 28120 net.cpp:156] Memory required for data: 61835200
I0403 13:28:11.976156 28120 layer_factory.hpp:77] Creating layer label_data_1_split
I0403 13:28:11.976182 28120 net.cpp:91] Creating Layer label_data_1_split
I0403 13:28:11.976202 28120 net.cpp:425] label_data_1_split <- label
I0403 13:28:11.976235 28120 net.cpp:399] label_data_1_split -> label_data_1_split_0
I0403 13:28:11.976264 28120 net.cpp:399] label_data_1_split -> label_data_1_split_1
I0403 13:28:11.976292 28120 net.cpp:399] label_data_1_split -> label_data_1_split_2
I0403 13:28:11.976358 28120 net.cpp:141] Setting up label_data_1_split
I0403 13:28:11.976383 28120 net.cpp:148] Top shape: 100 (100)
I0403 13:28:11.976400 28120 net.cpp:148] Top shape: 100 (100)
I0403 13:28:11.976418 28120 net.cpp:148] Top shape: 100 (100)
I0403 13:28:11.976433 28120 net.cpp:156] Memory required for data: 61836400
I0403 13:28:11.976449 28120 layer_factory.hpp:77] Creating layer conv1
I0403 13:28:11.976480 28120 net.cpp:91] Creating Layer conv1
I0403 13:28:11.976500 28120 net.cpp:425] conv1 <- data
I0403 13:28:11.976519 28120 net.cpp:399] conv1 -> conv1
I0403 13:28:12.123596 28120 net.cpp:141] Setting up conv1
I0403 13:28:12.123673 28120 net.cpp:148] Top shape: 100 96 55 55 (29040000)
I0403 13:28:12.123692 28120 net.cpp:156] Memory required for data: 177996400
I0403 13:28:12.123724 28120 layer_factory.hpp:77] Creating layer relu1
I0403 13:28:12.123754 28120 net.cpp:91] Creating Layer relu1
I0403 13:28:12.123774 28120 net.cpp:425] relu1 <- conv1
I0403 13:28:12.123793 28120 net.cpp:386] relu1 -> conv1 (in-place)
I0403 13:28:12.124058 28120 net.cpp:141] Setting up relu1
I0403 13:28:12.124086 28120 net.cpp:148] Top shape: 100 96 55 55 (29040000)
I0403 13:28:12.124104 28120 net.cpp:156] Memory required for data: 294156400
I0403 13:28:12.124155 28120 layer_factory.hpp:77] Creating layer norm1
I0403 13:28:12.124184 28120 net.cpp:91] Creating Layer norm1
I0403 13:28:12.124204 28120 net.cpp:425] norm1 <- conv1
I0403 13:28:12.124223 28120 net.cpp:399] norm1 -> norm1
I0403 13:28:12.124650 28120 net.cpp:141] Setting up norm1
I0403 13:28:12.124680 28120 net.cpp:148] Top shape: 100 96 55 55 (29040000)
I0403 13:28:12.124711 28120 net.cpp:156] Memory required for data: 410316400
I0403 13:28:12.124732 28120 layer_factory.hpp:77] Creating layer pool1
I0403 13:28:12.124758 28120 net.cpp:91] Creating Layer pool1
I0403 13:28:12.124776 28120 net.cpp:425] pool1 <- norm1
I0403 13:28:12.124795 28120 net.cpp:399] pool1 -> pool1
I0403 13:28:12.124864 28120 net.cpp:141] Setting up pool1
I0403 13:28:12.124889 28120 net.cpp:148] Top shape: 100 96 27 27 (6998400)
I0403 13:28:12.124904 28120 net.cpp:156] Memory required for data: 438310000
I0403 13:28:12.124919 28120 layer_factory.hpp:77] Creating layer conv2
I0403 13:28:12.124945 28120 net.cpp:91] Creating Layer conv2
I0403 13:28:12.124963 28120 net.cpp:425] conv2 <- pool1
I0403 13:28:12.124981 28120 net.cpp:399] conv2 -> conv2
I0403 13:28:12.140692 28120 net.cpp:141] Setting up conv2
I0403 13:28:12.140743 28120 net.cpp:148] Top shape: 100 256 27 27 (18662400)
I0403 13:28:12.140763 28120 net.cpp:156] Memory required for data: 512959600
I0403 13:28:12.140785 28120 layer_factory.hpp:77] Creating layer relu2
I0403 13:28:12.140806 28120 net.cpp:91] Creating Layer relu2
I0403 13:28:12.140822 28120 net.cpp:425] relu2 <- conv2
I0403 13:28:12.140841 28120 net.cpp:386] relu2 -> conv2 (in-place)
I0403 13:28:12.141129 28120 net.cpp:141] Setting up relu2
I0403 13:28:12.141157 28120 net.cpp:148] Top shape: 100 256 27 27 (18662400)
I0403 13:28:12.141175 28120 net.cpp:156] Memory required for data: 587609200
I0403 13:28:12.141191 28120 layer_factory.hpp:77] Creating layer norm2
I0403 13:28:12.141213 28120 net.cpp:91] Creating Layer norm2
I0403 13:28:12.141242 28120 net.cpp:425] norm2 <- conv2
I0403 13:28:12.141261 28120 net.cpp:399] norm2 -> norm2
I0403 13:28:12.141448 28120 net.cpp:141] Setting up norm2
I0403 13:28:12.141475 28120 net.cpp:148] Top shape: 100 256 27 27 (18662400)
I0403 13:28:12.141491 28120 net.cpp:156] Memory required for data: 662258800
I0403 13:28:12.141507 28120 layer_factory.hpp:77] Creating layer pool2
I0403 13:28:12.141527 28120 net.cpp:91] Creating Layer pool2
I0403 13:28:12.141546 28120 net.cpp:425] pool2 <- norm2
I0403 13:28:12.141564 28120 net.cpp:399] pool2 -> pool2
I0403 13:28:12.141614 28120 net.cpp:141] Setting up pool2
I0403 13:28:12.141701 28120 net.cpp:148] Top shape: 100 256 13 13 (4326400)
I0403 13:28:12.141723 28120 net.cpp:156] Memory required for data: 679564400
I0403 13:28:12.141741 28120 layer_factory.hpp:77] Creating layer conv3
I0403 13:28:12.141763 28120 net.cpp:91] Creating Layer conv3
I0403 13:28:12.141779 28120 net.cpp:425] conv3 <- pool2
I0403 13:28:12.141798 28120 net.cpp:399] conv3 -> conv3
I0403 13:28:12.190994 28120 net.cpp:141] Setting up conv3
I0403 13:28:12.191072 28120 net.cpp:148] Top shape: 100 384 13 13 (6489600)
I0403 13:28:12.191090 28120 net.cpp:156] Memory required for data: 705522800
I0403 13:28:12.191118 28120 layer_factory.hpp:77] Creating layer relu3
I0403 13:28:12.191141 28120 net.cpp:91] Creating Layer relu3
I0403 13:28:12.191159 28120 net.cpp:425] relu3 <- conv3
I0403 13:28:12.191180 28120 net.cpp:386] relu3 -> conv3 (in-place)
I0403 13:28:12.191473 28120 net.cpp:141] Setting up relu3
I0403 13:28:12.191499 28120 net.cpp:148] Top shape: 100 384 13 13 (6489600)
I0403 13:28:12.191516 28120 net.cpp:156] Memory required for data: 731481200
I0403 13:28:12.191531 28120 layer_factory.hpp:77] Creating layer conv4
I0403 13:28:12.191567 28120 net.cpp:91] Creating Layer conv4
I0403 13:28:12.191586 28120 net.cpp:425] conv4 <- conv3
I0403 13:28:12.191609 28120 net.cpp:399] conv4 -> conv4
I0403 13:28:12.223590 28120 net.cpp:141] Setting up conv4
I0403 13:28:12.223654 28120 net.cpp:148] Top shape: 100 384 13 13 (6489600)
I0403 13:28:12.223704 28120 net.cpp:156] Memory required for data: 757439600
I0403 13:28:12.223727 28120 layer_factory.hpp:77] Creating layer relu4
I0403 13:28:12.223749 28120 net.cpp:91] Creating Layer relu4
I0403 13:28:12.223767 28120 net.cpp:425] relu4 <- conv4
I0403 13:28:12.223789 28120 net.cpp:386] relu4 -> conv4 (in-place)
I0403 13:28:12.224076 28120 net.cpp:141] Setting up relu4
I0403 13:28:12.224103 28120 net.cpp:148] Top shape: 100 384 13 13 (6489600)
I0403 13:28:12.224119 28120 net.cpp:156] Memory required for data: 783398000
I0403 13:28:12.224135 28120 layer_factory.hpp:77] Creating layer conv5
I0403 13:28:12.224164 28120 net.cpp:91] Creating Layer conv5
I0403 13:28:12.224182 28120 net.cpp:425] conv5 <- conv4
I0403 13:28:12.224205 28120 net.cpp:399] conv5 -> conv5
I0403 13:28:12.246248 28120 net.cpp:141] Setting up conv5
I0403 13:28:12.246309 28120 net.cpp:148] Top shape: 100 256 13 13 (4326400)
I0403 13:28:12.246328 28120 net.cpp:156] Memory required for data: 800703600
I0403 13:28:12.246356 28120 layer_factory.hpp:77] Creating layer relu5
I0403 13:28:12.246381 28120 net.cpp:91] Creating Layer relu5
I0403 13:28:12.246400 28120 net.cpp:425] relu5 <- conv5
I0403 13:28:12.246419 28120 net.cpp:386] relu5 -> conv5 (in-place)
I0403 13:28:12.246707 28120 net.cpp:141] Setting up relu5
I0403 13:28:12.246736 28120 net.cpp:148] Top shape: 100 256 13 13 (4326400)
I0403 13:28:12.246752 28120 net.cpp:156] Memory required for data: 818009200
I0403 13:28:12.246767 28120 layer_factory.hpp:77] Creating layer pool5
I0403 13:28:12.246793 28120 net.cpp:91] Creating Layer pool5
I0403 13:28:12.246810 28120 net.cpp:425] pool5 <- conv5
I0403 13:28:12.246829 28120 net.cpp:399] pool5 -> pool5
I0403 13:28:12.246892 28120 net.cpp:141] Setting up pool5
I0403 13:28:12.246917 28120 net.cpp:148] Top shape: 100 256 6 6 (921600)
I0403 13:28:12.246933 28120 net.cpp:156] Memory required for data: 821695600
I0403 13:28:12.246948 28120 layer_factory.hpp:77] Creating layer fc6
I0403 13:28:12.246976 28120 net.cpp:91] Creating Layer fc6
I0403 13:28:12.246995 28120 net.cpp:425] fc6 <- pool5
I0403 13:28:12.247019 28120 net.cpp:399] fc6 -> fc6
I0403 13:28:13.805793 28120 net.cpp:141] Setting up fc6
I0403 13:28:13.805866 28120 net.cpp:148] Top shape: 100 4096 (409600)
I0403 13:28:13.805882 28120 net.cpp:156] Memory required for data: 823334000
I0403 13:28:13.805904 28120 layer_factory.hpp:77] Creating layer relu6
I0403 13:28:13.805927 28120 net.cpp:91] Creating Layer relu6
I0403 13:28:13.805943 28120 net.cpp:425] relu6 <- fc6
I0403 13:28:13.805963 28120 net.cpp:386] relu6 -> fc6 (in-place)
I0403 13:28:13.806176 28120 net.cpp:141] Setting up relu6
I0403 13:28:13.806215 28120 net.cpp:148] Top shape: 100 4096 (409600)
I0403 13:28:13.806231 28120 net.cpp:156] Memory required for data: 824972400
I0403 13:28:13.806246 28120 layer_factory.hpp:77] Creating layer drop6
I0403 13:28:13.806265 28120 net.cpp:91] Creating Layer drop6
I0403 13:28:13.806282 28120 net.cpp:425] drop6 <- fc6
I0403 13:28:13.806308 28120 net.cpp:386] drop6 -> fc6 (in-place)
I0403 13:28:13.806360 28120 net.cpp:141] Setting up drop6
I0403 13:28:13.806387 28120 net.cpp:148] Top shape: 100 4096 (409600)
I0403 13:28:13.806404 28120 net.cpp:156] Memory required for data: 826610800
I0403 13:28:13.806421 28120 layer_factory.hpp:77] Creating layer fc7
I0403 13:28:13.806440 28120 net.cpp:91] Creating Layer fc7
I0403 13:28:13.806457 28120 net.cpp:425] fc7 <- fc6
I0403 13:28:13.806478 28120 net.cpp:399] fc7 -> fc7
I0403 13:28:14.493607 28120 net.cpp:141] Setting up fc7
I0403 13:28:14.493695 28120 net.cpp:148] Top shape: 100 4096 (409600)
I0403 13:28:14.493712 28120 net.cpp:156] Memory required for data: 828249200
I0403 13:28:14.493733 28120 layer_factory.hpp:77] Creating layer relu7
I0403 13:28:14.493755 28120 net.cpp:91] Creating Layer relu7
I0403 13:28:14.493772 28120 net.cpp:425] relu7 <- fc7
I0403 13:28:14.493794 28120 net.cpp:386] relu7 -> fc7 (in-place)
I0403 13:28:14.494195 28120 net.cpp:141] Setting up relu7
I0403 13:28:14.494221 28120 net.cpp:148] Top shape: 100 4096 (409600)
I0403 13:28:14.494269 28120 net.cpp:156] Memory required for data: 829887600
I0403 13:28:14.494292 28120 layer_factory.hpp:77] Creating layer drop7
I0403 13:28:14.494313 28120 net.cpp:91] Creating Layer drop7
I0403 13:28:14.494328 28120 net.cpp:425] drop7 <- fc7
I0403 13:28:14.494349 28120 net.cpp:386] drop7 -> fc7 (in-place)
I0403 13:28:14.494390 28120 net.cpp:141] Setting up drop7
I0403 13:28:14.494416 28120 net.cpp:148] Top shape: 100 4096 (409600)
I0403 13:28:14.494432 28120 net.cpp:156] Memory required for data: 831526000
I0403 13:28:14.494446 28120 layer_factory.hpp:77] Creating layer fc8_plantvillage
I0403 13:28:14.494467 28120 net.cpp:91] Creating Layer fc8_plantvillage
I0403 13:28:14.494482 28120 net.cpp:425] fc8_plantvillage <- fc7
I0403 13:28:14.494501 28120 net.cpp:399] fc8_plantvillage -> fc8_plantvillage
I0403 13:28:14.501155 28120 net.cpp:141] Setting up fc8_plantvillage
I0403 13:28:14.501184 28120 net.cpp:148] Top shape: 100 38 (3800)
I0403 13:28:14.501201 28120 net.cpp:156] Memory required for data: 831541200
I0403 13:28:14.501220 28120 layer_factory.hpp:77] Creating layer fc8_plantvillage_fc8_plantvillage_0_split
I0403 13:28:14.501242 28120 net.cpp:91] Creating Layer fc8_plantvillage_fc8_plantvillage_0_split
I0403 13:28:14.501258 28120 net.cpp:425] fc8_plantvillage_fc8_plantvillage_0_split <- fc8_plantvillage
I0403 13:28:14.501277 28120 net.cpp:399] fc8_plantvillage_fc8_plantvillage_0_split -> fc8_plantvillage_fc8_plantvillage_0_split_0
I0403 13:28:14.501303 28120 net.cpp:399] fc8_plantvillage_fc8_plantvillage_0_split -> fc8_plantvillage_fc8_plantvillage_0_split_1
I0403 13:28:14.501324 28120 net.cpp:399] fc8_plantvillage_fc8_plantvillage_0_split -> fc8_plantvillage_fc8_plantvillage_0_split_2
I0403 13:28:14.501402 28120 net.cpp:141] Setting up fc8_plantvillage_fc8_plantvillage_0_split
I0403 13:28:14.501426 28120 net.cpp:148] Top shape: 100 38 (3800)
I0403 13:28:14.501443 28120 net.cpp:148] Top shape: 100 38 (3800)
I0403 13:28:14.501458 28120 net.cpp:148] Top shape: 100 38 (3800)
I0403 13:28:14.501472 28120 net.cpp:156] Memory required for data: 831586800
I0403 13:28:14.501488 28120 layer_factory.hpp:77] Creating layer prob
I0403 13:28:14.501507 28120 net.cpp:91] Creating Layer prob
I0403 13:28:14.501521 28120 net.cpp:425] prob <- fc8_plantvillage_fc8_plantvillage_0_split_0
I0403 13:28:14.501540 28120 net.cpp:399] prob -> prob
I0403 13:28:14.501771 28120 net.cpp:141] Setting up prob
I0403 13:28:14.501797 28120 net.cpp:148] Top shape: 100 38 (3800)
I0403 13:28:14.501813 28120 net.cpp:156] Memory required for data: 831602000
I0403 13:28:14.501828 28120 layer_factory.hpp:77] Creating layer hdf5out
I0403 13:28:14.501847 28120 net.cpp:91] Creating Layer hdf5out
I0403 13:28:14.501863 28120 net.cpp:425] hdf5out <- prob
I0403 13:28:14.501878 28120 net.cpp:425] hdf5out <- label_data_1_split_0
I0403 13:28:14.505998 28120 net.cpp:141] Setting up hdf5out
…
