…
I0403 15:39:30.733145 12184 net.cpp:313] The NetState phase (1) differed from the phase (0) specified by a rule in layer data
I0403 15:39:30.734323 12184 net.cpp:49] Initializing net from parameters: 
state {
  phase: TEST
}
layer {
  name: "data"
  type: "Data"
  top: "data"
  top: "label"
  include {
    phase: TEST
  }
  transform_param {
    mirror: false
    crop_size: 224
    mean_file: "/home/mohanty/data/final_dataset/lmdb/segmented-50-50/mean.binaryproto"
  }
  data_param {
    source: "/home/mohanty/data/final_dataset/lmdb/segmented-50-50/test_db"
    batch_size: 24
    backend: LMDB
  }
}
layer {
  name: "conv1/7x7_s2"
  type: "Convolution"
  bottom: "data"
  top: "conv1/7x7_s2"
  param {
    lr_mult: 1
    decay_mult: 1
  }
  param {
    lr_mult: 2
    decay_mult: 0
  }
  convolution_param {
    num_output: 64
    pad: 3
    kernel_size: 7
    stride: 2
    weight_filler {
      type: "xavier"
      std: 0.1
    }
    bias_filler {
      type: "constant"
      value: 0.2
    }
  }
}
layer {
  name: "conv1/relu_7x7"
  type: "ReLU"
  bottom: "conv1/7x7_s2"
  top: "conv1/7x7_s2"
}
layer {
  name: "pool1/3x3_s2"
  type: "Pooling"
  bottom: "conv1/7x7_s2"
  top: "pool1/3x3_s2"
  pooling_param {
    pool: MAX
    kernel_size: 3
    stride: 2
  }
}
layer {
  name: "pool1/norm1"
  type: "LRN"
  bottom: "pool1/3x3_s2"
  top: "pool1/norm1"
  lrn_param {
    local_size: 5
    alpha: 0.0001
    beta: 0.75
  }
}
layer {
  name: "conv2/3x3_reduce"
  type: "Convolution"
  bottom: "pool1/norm1"
  top: "conv2/3x3_reduce"
  param {
    lr_mult: 1
    decay_mult: 1
  }
  param {
    lr_mult: 2
    decay_mult: 0
  }
  convolution_param {
    num_output: 64
    kernel_size: 1
    weight_filler {
      type: "xavier"
      std: 0.1
    }
    bias_filler {
      type: "constant"
      value: 0.2
    }
  }
}
layer {
  name: "conv2/relu_3x3_reduce"
  type: "ReLU"
  bottom: "conv2/3x3_reduce"
  top: "conv2/3x3_reduce"
}
layer {
  name: "conv2/3x3"
  type: "Convolution"
  bottom: "conv2/3x3_reduce"
  top: "conv2/3x3"
  param {
    lr_mult: 1
    decay_mult: 1
  }
  param {
    lr_mult: 2
    decay_mult: 0
  }
  convolution_param {
    num_output: 192
    pad: 1
    kernel_size: 3
    weight_filler {
      type: "xavier"
      std: 0.03
    }
    bias_filler {
      type: "constant"
      value: 0.2
    }
  }
}
layer {
  name: "conv2/relu_3x3"
  type: "ReLU"
  bottom: "conv2/3x3"
  top: "conv2/3x3"
}
layer {
  name: "conv2/norm2"
  type: "LRN"
  bottom: "conv2/3x3"
  top: "conv2/norm2"
  lrn_param {
    local_size: 5
    alpha: 0.0001
    beta: 0.75
  }
}
layer {
  name: "pool2/3x3_s2"
  type: "Pooling"
  bottom: "conv2/norm2"
  top: "pool2/3x3_s2"
  pooling_param {
    pool: MAX
    kernel_size: 3
    stride: 2
  }
}
layer {
  name: "inception_3a/1x1"
  type: "Convolution"
  bottom: "pool2/3x3_s2"
  top: "inception_3a/1x1"
  param {
    lr_mult: 1
    decay_mult: 1
  }
  param {
    lr_mult: 2
    decay_mult: 0
  }
  convolution_param {
    num_output: 64
    kernel_size: 1
    weight_filler {
      type: "xavier"
      std: 0.03
    }
    bias_filler {
      type: "constant"
      value: 0.2
    }
  }
}
layer {
  name: "inception_3a/relu_1x1"
  type: "ReLU"
  bottom: "inception_3a/1x1"
  top: "inception_3a/1x1"
}
layer {
  name: "inception_3a/3x3_reduce"
  type: "Convolution"
  bottom: "pool2/3x3_s2"
  top: "inception_3a/3x3_reduce"
  param {
    lr_mult: 1
    decay_mult: 1
  }
  param {
    lr_mult: 2
    decay_mult: 0
  }
  convolution_param {
    num_output: 96
    kernel_size: 1
    weight_filler {
      type: "xavier"
      std: 0.09
    }
    bias_filler {
      type: "constant"
      value: 0.2
    }
  }
}
layer {
  name: "inception_3a/relu_3x3_reduce"
  type: "ReLU"
  bottom: "inception_3a/3x3_reduce"
  top: "inception_3a/3x3_reduce"
}
layer {
  name: "inception_3a/3x3"
  type: "Convolution"
  bottom: "inception_3a/3x3_reduce"
  top: "inception_3a/3x3"
  param {
    lr_mult: 1
    decay_mult: 1
  }
  param {
    lr_mult: 2
    decay_mult: 0
  }
  convolution_param {
    num_output: 128
    pad: 1
    kernel_size: 3
    weight_filler {
      type: "xavier"
      std: 0.03
    }
    bias_filler {
      type: "constant"
      value: 0.2
    }
  }
}
layer {
  name: "inception_3a/relu_3x3"
  type: "ReLU"
  bottom: "inception_3a/3x3"
  top: "inception_3a/3x3"
}
layer {
  name: "inception_3a/5x5_reduce"
  type: "Convolution"
  bottom: "pool2/3x3_s2"
  top: "inception_3a/5x5_reduce"
  param {
    lr_mult: 1
    decay_mult: 1
  }
  param {
    lr_mult: 2
    decay_mult: 0
  }
  convolution_param {
    num_output: 16
    kernel_size: 1
    weight_filler {
      type: "xavier"
      std: 0.2
    }
    bias_filler {
      type: "constant"
      value: 0.2
    }
  }
}
layer {
  name: "inception_3a/relu_5x5_reduce"
  type: "ReLU"
  bottom: "inception_3a/5x5_reduce"
  top: "inception_3a/5x5_reduce"
}
layer {
  name: "inception_3a/5x5"
  type: "Convolution"
  bottom: "inception_3a/5x5_reduce"
  top: "inception_3a/5x5"
  param {
    lr_mult: 1
    decay_mult: 1
  }
  param {
    lr_mult: 2
    decay_mult: 0
  }
  convolution_param {
    num_output: 32
    pad: 2
    kernel_size: 5
    weight_filler {
      type: "xavier"
      std: 0.03
    }
    bias_filler {
      type: "constant"
      value: 0.2
    }
  }
}
layer {
  name: "inception_3a/relu_5x5"
  type: "ReLU"
  bottom: "inception_3a/5x5"
  top: "inception_3a/5x5"
}
layer {
  name: "inception_3a/pool"
  type: "Pooling"
  bottom: "pool2/3x3_s2"
  top: "inception_3a/pool"
  pooling_param {
    pool: MAX
    kernel_size: 3
    stride: 1
    pad: 1
  }
}
layer {
  name: "inception_3a/pool_proj"
  type: "Convolution"
  bottom: "inception_3a/pool"
  top: "inception_3a/pool_proj"
  param {
    lr_mult: 1
    decay_mult: 1
  }
  param {
    lr_mult: 2
    decay_mult: 0
  }
  convolution_param {
    num_output: 32
    kernel_size: 1
    weight_filler {
      type: "xavier"
      std: 0.1
    }
    bias_filler {
      type: "constant"
      value: 0.2
    }
  }
}
layer {
  name: "inception_3a/relu_pool_proj"
  type: "ReLU"
  bottom: "inception_3a/pool_proj"
  top: "inception_3a/pool_proj"
}
layer {
  name: "inception_3a/output"
  type: "Concat"
  bottom: "inception_3a/1x1"
  bottom: "inception_3a/3x3"
  bottom: "inception_3a/5x5"
  bottom: "inception_3a/pool_proj"
  top: "inception_3a/output"
}
layer {
  name: "inception_3b/1x1"
  type: "Convolution"
  bottom: "inception_3a/output"
  top: "inception_3b/1x1"
  param {
    lr_mult: 1
    decay_mult: 1
  }
  param {
    lr_mult: 2
    decay_mult: 0
  }
  convolution_param {
    num_output: 128
    kernel_size: 1
    weight_filler {
      type: "xavier"
      std: 0.03
    }
    bias_filler {
      type: "constant"
      value: 0.2
    }
  }
}
layer {
  name: "inception_3b/relu_1x1"
  type: "ReLU"
  bottom: "inception_3b/1x1"
  top: "inception_3b/1x1"
}
layer {
  name: "inception_3b/3x3_reduce"
  type: "Convolution"
  bottom: "inception_3a/output"
  top: "inception_3b/3x3_reduce"
  param {
    lr_mult: 1
    decay_mult: 1
  }
  param {
    lr_mult: 2
    decay_mult: 0
  }
  convolution_param {
    num_output: 128
    kernel_size: 1
    weight_filler {
      type: "xavier"
      std: 0.09
    }
    bias_filler {
      type: "constant"
      value: 0.2
    }
  }
}
layer {
  name: "inception_3b/relu_3x3_reduce"
  type: "ReLU"
  bottom: "inception_3b/3x3_reduce"
  top: "inception_3b/3x3_reduce"
}
layer {
  name: "inception_3b/3x3"
  type: "Convolution"
  bottom: "inception_3b/3x3_reduce"
  top: "inception_3b/3x3"
  param {
    lr_mult: 1
    decay_mult: 1
  }
  param {
    lr_mult: 2
    decay_mult: 0
  }
  convolution_param {
    num_output: 192
    pad: 1
    kernel_size: 3
    weight_filler {
      type: "xavier"
      std: 0.03
    }
    bias_filler {
      type: "constant"
      value: 0.2
    }
  }
}
layer {
  name: "inception_3b/relu_3x3"
  type: "ReLU"
  bottom: "inception_3b/3x3"
  top: "inception_3b/3x3"
}
layer {
  name: "inception_3b/5x5_reduce"
  type: "Convolution"
  bottom: "inception_3a/output"
  top: "inception_3b/5x5_reduce"
  param {
    lr_mult: 1
    decay_mult: 1
  }
  param {
    lr_mult: 2
    decay_mult: 0
  }
  convolution_param {
    num_output: 32
    kernel_size: 1
    weight_filler {
      type: "xavier"
      std: 0.2
    }
    bias_filler {
      type: "constant"
      value: 0.2
    }
  }
}
layer {
  name: "inception_3b/relu_5x5_reduce"
  type: "ReLU"
  bottom: "inception_3b/5x5_reduce"
  top: "inception_3b/5x5_reduce"
}
layer {
  name: "inception_3b/5x5"
  type: "Convolution"
  bottom: "inception_3b/5x5_reduce"
  top: "inception_3b/5x5"
  param {
    lr_mult: 1
    decay_mult: 1
  }
  param {
    lr_mult: 2
    decay_mult: 0
  }
  convolution_param {
    num_output: 96
    pad: 2
    kernel_size: 5
    weight_filler {
      type: "xavier"
      std: 0.03
    }
    bias_filler {
      type: "constant"
      value: 0.2
    }
  }
}
layer {
  name: "inception_3b/relu_5x5"
  type: "ReLU"
  bottom: "inception_3b/5x5"
  top: "inception_3b/5x5"
}
layer {
  name: "inception_3b/pool"
  type: "Pooling"
  bottom: "inception_3a/output"
  top: "inception_3b/pool"
  pooling_param {
    pool: MAX
    kernel_size: 3
    stride: 1
    pad: 1
  }
}
layer {
  name: "inception_3b/pool_proj"
  type: "Convolution"
  bottom: "inception_3b/pool"
  top: "inception_3b/pool_proj"
  param {
    lr_mult: 1
    decay_mult: 1
  }
  param {
    lr_mult: 2
    decay_mult: 0
  }
  convolution_param {
    num_output: 64
    kernel_size: 1
    weight_filler {
      type: "xavier"
      std: 0.1
    }
    bias_filler {
      type: "constant"
      value: 0.2
    }
  }
}
layer {
  name: "inception_3b/relu_pool_proj"
  type: "ReLU"
  bottom: "inception_3b/pool_proj"
  top: "inception_3b/pool_proj"
}
layer {
  name: "inception_3b/output"
  type: "Concat"
  bottom: "inception_3b/1x1"
  bottom: "inception_3b/3x3"
  bottom: "inception_3b/5x5"
  bottom: "inception_3b/pool_proj"
  top: "inception_3b/output"
}
layer {
  name: "pool3/3x3_s2"
  type: "Pooling"
  bottom: "inception_3b/output"
  top: "pool3/3x3_s2"
  pooling_param {
    pool: MAX
    kernel_size: 3
    stride: 2
  }
}
layer {
  name: "inception_4a/1x1"
  type: "Convolution"
  bottom: "pool3/3x3_s2"
  top: "inception_4a/1x1"
  param {
    lr_mult: 1
    decay_mult: 1
  }
  param {
    lr_mult: 2
    decay_mult: 0
  }
  convolution_param {
    num_output: 192
    kernel_size: 1
    weight_filler {
      type: "xavier"
      std: 0.03
    }
    bias_filler {
      type: "constant"
      value: 0.2
    }
  }
}
layer {
  name: "inception_4a/relu_1x1"
  type: "ReLU"
  bottom: "inception_4a/1x1"
  top: "inception_4a/1x1"
}
layer {
  name: "inception_4a/3x3_reduce"
  type: "Convolution"
  bottom: "pool3/3x3_s2"
  top: "inception_4a/3x3_reduce"
  param {
    lr_mult: 1
    decay_mult: 1
  }
  param {
    lr_mult: 2
    decay_mult: 0
  }
  convolution_param {
    num_output: 96
    kernel_size: 1
    weight_filler {
      type: "xavier"
      std: 0.09
    }
    bias_filler {
      type: "constant"
      value: 0.2
    }
  }
}
layer {
  name: "inception_4a/relu_3x3_reduce"
  type: "ReLU"
  bottom: "inception_4a/3x3_reduce"
  top: "inception_4a/3x3_reduce"
}
layer {
  name: "inception_4a/3x3"
  type: "Convolution"
  bottom: "inception_4a/3x3_reduce"
  top: "inception_4a/3x3"
  param {
    lr_mult: 1
    decay_mult: 1
  }
  param {
    lr_mult: 2
    decay_mult: 0
  }
  convolution_param {
    num_output: 208
    pad: 1
    kernel_size: 3
    weight_filler {
      type: "xavier"
      std: 0.03
    }
    bias_filler {
      type: "constant"
      value: 0.2
    }
  }
}
layer {
  name: "inception_4a/relu_3x3"
  type: "ReLU"
  bottom: "inception_4a/3x3"
  top: "inception_4a/3x3"
}
layer {
  name: "inception_4a/5x5_reduce"
  type: "Convolution"
  bottom: "pool3/3x3_s2"
  top: "inception_4a/5x5_reduce"
  param {
    lr_mult: 1
    decay_mult: 1
  }
  param {
    lr_mult: 2
    decay_mult: 0
  }
  convolution_param {
    num_output: 16
    kernel_size: 1
    weight_filler {
      type: "xavier"
      std: 0.2
    }
    bias_filler {
      type: "constant"
      value: 0.2
    }
  }
}
layer {
  name: "inception_4a/relu_5x5_reduce"
  type: "ReLU"
  bottom: "inception_4a/5x5_reduce"
  top: "inception_4a/5x5_reduce"
}
layer {
  name: "inception_4a/5x5"
  type: "Convolution"
  bottom: "inception_4a/5x5_reduce"
  top: "inception_4a/5x5"
  param {
    lr_mult: 1
    decay_mult: 1
  }
  param {
    lr_mult: 2
    decay_mult: 0
  }
  convolution_param {
    num_output: 48
    pad: 2
    kernel_size: 5
    weight_filler {
      type: "xavier"
      std: 0.03
    }
    bias_filler {
      type: "constant"
      value: 0.2
    }
  }
}
layer {
  name: "inception_4a/relu_5x5"
  type: "ReLU"
  bottom: "inception_4a/5x5"
  top: "inception_4a/5x5"
}
layer {
  name: "inception_4a/pool"
  type: "Pooling"
  bottom: "pool3/3x3_s2"
  top: "inception_4a/pool"
  pooling_param {
    pool: MAX
    kernel_size: 3
    stride: 1
    pad: 1
  }
}
layer {
  name: "inception_4a/pool_proj"
  type: "Convolution"
  bottom: "inception_4a/pool"
  top: "inception_4a/pool_proj"
  param {
    lr_mult: 1
    decay_mult: 1
  }
  param {
    lr_mult: 2
    decay_mult: 0
  }
  convolution_param {
    num_output: 64
    kernel_size: 1
    weight_filler {
      type: "xavier"
      std: 0.1
    }
    bias_filler {
      type: "constant"
      value: 0.2
    }
  }
}
layer {
  name: "inception_4a/relu_pool_proj"
  type: "ReLU"
  bottom: "inception_4a/pool_proj"
  top: "inception_4a/pool_proj"
}
layer {
  name: "inception_4a/output"
  type: "Concat"
  bottom: "inception_4a/1x1"
  bottom: "inception_4a/3x3"
  bottom: "inception_4a/5x5"
  bottom: "inception_4a/pool_proj"
  top: "inception_4a/output"
}
layer {
  name: "loss1/ave_pool"
  type: "Pooling"
  bottom: "inception_4a/output"
  top: "loss1/ave_pool"
  pooling_param {
    pool: AVE
    kernel_size: 5
    stride: 3
  }
}
layer {
  name: "loss1/conv"
  type: "Convolution"
  bottom: "loss1/ave_pool"
  top: "loss1/conv"
  param {
    lr_mult: 1
    decay_mult: 1
  }
  param {
    lr_mult: 2
    decay_mult: 0
  }
  convolution_param {
    num_output: 128
    kernel_size: 1
    weight_filler {
      type: "xavier"
      std: 0.08
    }
    bias_filler {
      type: "constant"
      value: 0.2
    }
  }
}
layer {
  name: "loss1/relu_conv"
  type: "ReLU"
  bottom: "loss1/conv"
  top: "loss1/conv"
}
layer {
  name: "loss1/fc"
  type: "InnerProduct"
  bottom: "loss1/conv"
  top: "loss1/fc"
  param {
    lr_mult: 1
    decay_mult: 1
  }
  param {
    lr_mult: 2
    decay_mult: 0
  }
  inner_product_param {
    num_output: 1024
    weight_filler {
      type: "xavier"
      std: 0.02
    }
    bias_filler {
      type: "constant"
      value: 0.2
    }
  }
}
layer {
  name: "loss1/relu_fc"
  type: "ReLU"
  bottom: "loss1/fc"
  top: "loss1/fc"
}
layer {
  name: "loss1/drop_fc"
  type: "Dropout"
  bottom: "loss1/fc"
  top: "loss1/fc"
  dropout_param {
    dropout_ratio: 0.7
  }
}
layer {
  name: "loss1/classifier_plantvillage"
  type: "InnerProduct"
  bottom: "loss1/fc"
  top: "loss1/classifier_plantvillage"
  param {
    lr_mult: 1
    decay_mult: 1
  }
  param {
    lr_mult: 2
    decay_mult: 0
  }
  inner_product_param {
    num_output: 38
    weight_filler {
      type: "xavier"
      std: 0.0009765625
    }
    bias_filler {
      type: "constant"
      value: 0
    }
  }
}
layer {
  name: "inception_4b/1x1"
  type: "Convolution"
  bottom: "inception_4a/output"
  top: "inception_4b/1x1"
  param {
    lr_mult: 1
    decay_mult: 1
  }
  param {
    lr_mult: 2
    decay_mult: 0
  }
  convolution_param {
    num_output: 160
    kernel_size: 1
    weight_filler {
      type: "xavier"
      std: 0.03
    }
    bias_filler {
      type: "constant"
      value: 0.2
    }
  }
}
layer {
  name: "inception_4b/relu_1x1"
  type: "ReLU"
  bottom: "inception_4b/1x1"
  top: "inception_4b/1x1"
}
layer {
  name: "inception_4b/3x3_reduce"
  type: "Convolution"
  bottom: "inception_4a/output"
  top: "inception_4b/3x3_reduce"
  param {
    lr_mult: 1
    decay_mult: 1
  }
  param {
    lr_mult: 2
    decay_mult: 0
  }
  convolution_param {
    num_output: 112
    kernel_size: 1
    weight_filler {
      type: "xavier"
      std: 0.09
    }
    bias_filler {
      type: "constant"
      value: 0.2
    }
  }
}
layer {
  name: "inception_4b/relu_3x3_reduce"
  type: "ReLU"
  bottom: "inception_4b/3x3_reduce"
  top: "inception_4b/3x3_reduce"
}
layer {
  name: "inception_4b/3x3"
  type: "Convolution"
  bottom: "inception_4b/3x3_reduce"
  top: "inception_4b/3x3"
  param {
    lr_mult: 1
    decay_mult: 1
  }
  param {
    lr_mult: 2
    decay_mult: 0
  }
  convolution_param {
    num_output: 224
    pad: 1
    kernel_size: 3
    weight_filler {
      type: "xavier"
      std: 0.03
    }
    bias_filler {
      type: "constant"
      value: 0.2
    }
  }
}
layer {
  name: "inception_4b/relu_3x3"
  type: "ReLU"
  bottom: "inception_4b/3x3"
  top: "inception_4b/3x3"
}
layer {
  name: "inception_4b/5x5_reduce"
  type: "Convolution"
  bottom: "inception_4a/output"
  top: "inception_4b/5x5_reduce"
  param {
    lr_mult: 1
    decay_mult: 1
  }
  param {
    lr_mult: 2
    decay_mult: 0
  }
  convolution_param {
    num_output: 24
    kernel_size: 1
    weight_filler {
      type: "xavier"
      std: 0.2
    }
    bias_filler {
      type: "constant"
      value: 0.2
    }
  }
}
layer {
  name: "inception_4b/relu_5x5_reduce"
  type: "ReLU"
  bottom: "inception_4b/5x5_reduce"
  top: "inception_4b/5x5_reduce"
}
layer {
  name: "inception_4b/5x5"
  type: "Convolution"
  bottom: "inception_4b/5x5_reduce"
  top: "inception_4b/5x5"
  param {
    lr_mult: 1
    decay_mult: 1
  }
  param {
    lr_mult: 2
    decay_mult: 0
  }
  convolution_param {
    num_output: 64
    pad: 2
    kernel_size: 5
    weight_filler {
      type: "xavier"
      std: 0.03
    }
    bias_filler {
      type: "constant"
      value: 0.2
    }
  }
}
layer {
  name: "inception_4b/relu_5x5"
  type: "ReLU"
  bottom: "inception_4b/5x5"
  top: "inception_4b/5x5"
}
layer {
  name: "inception_4b/pool"
  type: "Pooling"
  bottom: "inception_4a/output"
  top: "inception_4b/pool"
  pooling_param {
    pool: MAX
    kernel_size: 3
    stride: 1
    pad: 1
  }
}
layer {
  name: "inception_4b/pool_proj"
  type: "Convolution"
  bottom: "inception_4b/pool"
  top: "inception_4b/pool_proj"
  param {
    lr_mult: 1
    decay_mult: 1
  }
  param {
    lr_mult: 2
    decay_mult: 0
  }
  convolution_param {
    num_output: 64
    kernel_size: 1
    weight_filler {
      type: "xavier"
      std: 0.1
    }
    bias_filler {
      type: "constant"
      value: 0.2
    }
  }
}
layer {
  name: "inception_4b/relu_pool_proj"
  type: "ReLU"
  bottom: "inception_4b/pool_proj"
  top: "inception_4b/pool_proj"
}
layer {
  name: "inception_4b/output"
  type: "Concat"
  bottom: "inception_4b/1x1"
  bottom: "inception_4b/3x3"
  bottom: "inception_4b/5x5"
  bottom: "inception_4b/pool_proj"
  top: "inception_4b/output"
}
layer {
  name: "inception_4c/1x1"
  type: "Convolution"
  bottom: "inception_4b/output"
  top: "inception_4c/1x1"
  param {
    lr_mult: 1
    decay_mult: 1
  }
  param {
    lr_mult: 2
    decay_mult: 0
  }
  convolution_param {
    num_output: 128
    kernel_size: 1
    weight_filler {
      type: "xavier"
      std: 0.03
    }
    bias_filler {
      type: "constant"
      value: 0.2
    }
  }
}
layer {
  name: "inception_4c/relu_1x1"
  type: "ReLU"
  bottom: "inception_4c/1x1"
  top: "inception_4c/1x1"
}
layer {
  name: "inception_4c/3x3_reduce"
  type: "Convolution"
  bottom: "inception_4b/output"
  top: "inception_4c/3x3_reduce"
  param {
    lr_mult: 1
    decay_mult: 1
  }
  param {
    lr_mult: 2
    decay_mult: 0
  }
  convolution_param {
    num_output: 128
    kernel_size: 1
    weight_filler {
      type: "xavier"
      std: 0.09
    }
    bias_filler {
      type: "constant"
      value: 0.2
    }
  }
}
layer {
  name: "inception_4c/relu_3x3_reduce"
  type: "ReLU"
  bottom: "inception_4c/3x3_reduce"
  top: "inception_4c/3x3_reduce"
}
layer {
  name: "inception_4c/3x3"
  type: "Convolution"
  bottom: "inception_4c/3x3_reduce"
  top: "inception_4c/3x3"
  param {
    lr_mult: 1
    decay_mult: 1
  }
  param {
    lr_mult: 2
    decay_mult: 0
  }
  convolution_param {
    num_output: 256
    pad: 1
    kernel_size: 3
    weight_filler {
      type: "xavier"
      std: 0.03
    }
    bias_filler {
      type: "constant"
      value: 0.2
    }
  }
}
layer {
  name: "inception_4c/relu_3x3"
  type: "ReLU"
  bottom: "inception_4c/3x3"
  top: "inception_4c/3x3"
}
layer {
  name: "inception_4c/5x5_reduce"
  type: "Convolution"
  bottom: "inception_4b/output"
  top: "inception_4c/5x5_reduce"
  param {
    lr_mult: 1
    decay_mult: 1
  }
  param {
    lr_mult: 2
    decay_mult: 0
  }
  convolution_param {
    num_output: 24
    kernel_size: 1
    weight_filler {
      type: "xavier"
      std: 0.2
    }
    bias_filler {
      type: "constant"
      value: 0.2
    }
  }
}
layer {
  name: "inception_4c/relu_5x5_reduce"
  type: "ReLU"
  bottom: "inception_4c/5x5_reduce"
  top: "inception_4c/5x5_reduce"
}
layer {
  name: "inception_4c/5x5"
  type: "Convolution"
  bottom: "inception_4c/5x5_reduce"
  top: "inception_4c/5x5"
  param {
    lr_mult: 1
    decay_mult: 1
  }
  param {
    lr_mult: 2
    decay_mult: 0
  }
  convolution_param {
    num_output: 64
    pad: 2
    kernel_size: 5
    weight_filler {
      type: "xavier"
      std: 0.03
    }
    bias_filler {
      type: "constant"
      value: 0.2
    }
  }
}
layer {
  name: "inception_4c/relu_5x5"
  type: "ReLU"
  bottom: "inception_4c/5x5"
  top: "inception_4c/5x5"
}
layer {
  name: "inception_4c/pool"
  type: "Pooling"
  bottom: "inception_4b/output"
  top: "inception_4c/pool"
  pooling_param {
    pool: MAX
    kernel_size: 3
    stride: 1
    pad: 1
  }
}
layer {
  name: "inception_4c/pool_proj"
  type: "Convolution"
  bottom: "inception_4c/pool"
  top: "inception_4c/pool_proj"
  param {
    lr_mult: 1
    decay_mult: 1
  }
  param {
    lr_mult: 2
    decay_mult: 0
  }
  convolution_param {
    num_output: 64
    kernel_size: 1
    weight_filler {
      type: "xavier"
      std: 0.1
    }
    bias_filler {
      type: "constant"
      value: 0.2
    }
  }
}
layer {
  name: "inception_4c/relu_pool_proj"
  type: "ReLU"
  bottom: "inception_4c/pool_proj"
  top: "inception_4c/pool_proj"
}
layer {
  name: "inception_4c/output"
  type: "Concat"
  bottom: "inception_4c/1x1"
  bottom: "inception_4c/3x3"
  bottom: "inception_4c/5x5"
  bottom: "inception_4c/pool_proj"
  top: "inception_4c/output"
}
layer {
  name: "inception_4d/1x1"
  type: "Convolution"
  bottom: "inception_4c/output"
  top: "inception_4d/1x1"
  param {
    lr_mult: 1
    decay_mult: 1
  }
  param {
    lr_mult: 2
    decay_mult: 0
  }
  convolution_param {
    num_output: 112
    kernel_size: 1
    weight_filler {
      type: "xavier"
      std: 0.03
    }
    bias_filler {
      type: "constant"
      value: 0.2
    }
  }
}
layer {
  name: "inception_4d/relu_1x1"
  type: "ReLU"
  bottom: "inception_4d/1x1"
  top: "inception_4d/1x1"
}
layer {
  name: "inception_4d/3x3_reduce"
  type: "Convolution"
  bottom: "inception_4c/output"
  top: "inception_4d/3x3_reduce"
  param {
    lr_mult: 1
    decay_mult: 1
  }
  param {
    lr_mult: 2
    decay_mult: 0
  }
  convolution_param {
    num_output: 144
    kernel_size: 1
    weight_filler {
      type: "xavier"
      std: 0.09
    }
    bias_filler {
      type: "constant"
      value: 0.2
    }
  }
}
layer {
  name: "inception_4d/relu_3x3_reduce"
  type: "ReLU"
  bottom: "inception_4d/3x3_reduce"
  top: "inception_4d/3x3_reduce"
}
layer {
  name: "inception_4d/3x3"
  type: "Convolution"
  bottom: "inception_4d/3x3_reduce"
  top: "inception_4d/3x3"
  param {
    lr_mult: 1
    decay_mult: 1
  }
  param {
    lr_mult: 2
    decay_mult: 0
  }
  convolution_param {
    num_output: 288
    pad: 1
    kernel_size: 3
    weight_filler {
      type: "xavier"
      std: 0.03
    }
    bias_filler {
      type: "constant"
      value: 0.2
    }
  }
}
layer {
  name: "inception_4d/relu_3x3"
  type: "ReLU"
  bottom: "inception_4d/3x3"
  top: "inception_4d/3x3"
}
layer {
  name: "inception_4d/5x5_reduce"
  type: "Convolution"
  bottom: "inception_4c/output"
  top: "inception_4d/5x5_reduce"
  param {
    lr_mult: 1
    decay_mult: 1
  }
  param {
    lr_mult: 2
    decay_mult: 0
  }
  convolution_param {
    num_output: 32
    kernel_size: 1
    weight_filler {
      type: "xavier"
      std: 0.2
    }
    bias_filler {
      type: "constant"
      value: 0.2
    }
  }
}
layer {
  name: "inception_4d/relu_5x5_reduce"
  type: "ReLU"
  bottom: "inception_4d/5x5_reduce"
  top: "inception_4d/5x5_reduce"
}
layer {
  name: "inception_4d/5x5"
  type: "Convolution"
  bottom: "inception_4d/5x5_reduce"
  top: "inception_4d/5x5"
  param {
    lr_mult: 1
    decay_mult: 1
  }
  param {
    lr_mult: 2
    decay_mult: 0
  }
  convolution_param {
    num_output: 64
    pad: 2
    kernel_size: 5
    weight_filler {
      type: "xavier"
      std: 0.03
    }
    bias_filler {
      type: "constant"
      value: 0.2
    }
  }
}
layer {
  name: "inception_4d/relu_5x5"
  type: "ReLU"
  bottom: "inception_4d/5x5"
  top: "inception_4d/5x5"
}
layer {
  name: "inception_4d/pool"
  type: "Pooling"
  bottom: "inception_4c/output"
  top: "inception_4d/pool"
  pooling_param {
    pool: MAX
    kernel_size: 3
    stride: 1
    pad: 1
  }
}
layer {
  name: "inception_4d/pool_proj"
  type: "Convolution"
  bottom: "inception_4d/pool"
  top: "inception_4d/pool_proj"
  param {
    lr_mult: 1
    decay_mult: 1
  }
  param {
    lr_mult: 2
    decay_mult: 0
  }
  convolution_param {
    num_output: 64
    kernel_size: 1
    weight_filler {
      type: "xavier"
      std: 0.1
    }
    bias_filler {
      type: "constant"
      value: 0.2
    }
  }
}
layer {
  name: "inception_4d/relu_pool_proj"
  type: "ReLU"
  bottom: "inception_4d/pool_proj"
  top: "inception_4d/pool_proj"
}
layer {
  name: "inception_4d/output"
  type: "Concat"
  bottom: "inception_4d/1x1"
  bottom: "inception_4d/3x3"
  bottom: "inception_4d/5x5"
  bottom: "inception_4d/pool_proj"
  top: "inception_4d/output"
}
layer {
  name: "loss2/ave_pool"
  type: "Pooling"
  bottom: "inception_4d/output"
  top: "loss2/ave_pool"
  pooling_param {
    pool: AVE
    kernel_size: 5
    stride: 3
  }
}
layer {
  name: "loss2/conv"
  type: "Convolution"
  bottom: "loss2/ave_pool"
  top: "loss2/conv"
  param {
    lr_mult: 1
    decay_mult: 1
  }
  param {
    lr_mult: 2
    decay_mult: 0
  }
  convolution_param {
    num_output: 128
    kernel_size: 1
    weight_filler {
      type: "xavier"
      std: 0.08
    }
    bias_filler {
      type: "constant"
      value: 0.2
    }
  }
}
layer {
  name: "loss2/relu_conv"
  type: "ReLU"
  bottom: "loss2/conv"
  top: "loss2/conv"
}
layer {
  name: "loss2/fc"
  type: "InnerProduct"
  bottom: "loss2/conv"
  top: "loss2/fc"
  param {
    lr_mult: 1
    decay_mult: 1
  }
  param {
    lr_mult: 2
    decay_mult: 0
  }
  inner_product_param {
    num_output: 1024
    weight_filler {
      type: "xavier"
      std: 0.02
    }
    bias_filler {
      type: "constant"
      value: 0.2
    }
  }
}
layer {
  name: "loss2/relu_fc"
  type: "ReLU"
  bottom: "loss2/fc"
  top: "loss2/fc"
}
layer {
  name: "loss2/drop_fc"
  type: "Dropout"
  bottom: "loss2/fc"
  top: "loss2/fc"
  dropout_param {
    dropout_ratio: 0.7
  }
}
layer {
  name: "loss2/classifier_plantvillage"
  type: "InnerProduct"
  bottom: "loss2/fc"
  top: "loss2/classifier_plantvillage"
  param {
    lr_mult: 1
    decay_mult: 1
  }
  param {
    lr_mult: 2
    decay_mult: 0
  }
  inner_product_param {
    num_output: 38
    weight_filler {
      type: "xavier"
      std: 0.0009765625
    }
    bias_filler {
      type: "constant"
      value: 0
    }
  }
}
layer {
  name: "inception_4e/1x1"
  type: "Convolution"
  bottom: "inception_4d/output"
  top: "inception_4e/1x1"
  param {
    lr_mult: 1
    decay_mult: 1
  }
  param {
    lr_mult: 2
    decay_mult: 0
  }
  convolution_param {
    num_output: 256
    kernel_size: 1
    weight_filler {
      type: "xavier"
      std: 0.03
    }
    bias_filler {
      type: "constant"
      value: 0.2
    }
  }
}
layer {
  name: "inception_4e/relu_1x1"
  type: "ReLU"
  bottom: "inception_4e/1x1"
  top: "inception_4e/1x1"
}
layer {
  name: "inception_4e/3x3_reduce"
  type: "Convolution"
  bottom: "inception_4d/output"
  top: "inception_4e/3x3_reduce"
  param {
    lr_mult: 1
    decay_mult: 1
  }
  param {
    lr_mult: 2
    decay_mult: 0
  }
  convolution_param {
    num_output: 160
    kernel_size: 1
    weight_filler {
      type: "xavier"
      std: 0.09
    }
    bias_filler {
      type: "constant"
      value: 0.2
    }
  }
}
layer {
  name: "inception_4e/relu_3x3_reduce"
  type: "ReLU"
  bottom: "inception_4e/3x3_reduce"
  top: "inception_4e/3x3_reduce"
}
layer {
  name: "inception_4e/3x3"
  type: "Convolution"
  bottom: "inception_4e/3x3_reduce"
  top: "inception_4e/3x3"
  param {
    lr_mult: 1
    decay_mult: 1
  }
  param {
    lr_mult: 2
    decay_mult: 0
  }
  convolution_param {
    num_output: 320
    pad: 1
    kernel_size: 3
    weight_filler {
      type: "xavier"
      std: 0.03
    }
    bias_filler {
      type: "constant"
      value: 0.2
    }
  }
}
layer {
  name: "inception_4e/relu_3x3"
  type: "ReLU"
  bottom: "inception_4e/3x3"
  top: "inception_4e/3x3"
}
layer {
  name: "inception_4e/5x5_reduce"
  type: "Convolution"
  bottom: "inception_4d/output"
  top: "inception_4e/5x5_reduce"
  param {
    lr_mult: 1
    decay_mult: 1
  }
  param {
    lr_mult: 2
    decay_mult: 0
  }
  convolution_param {
    num_output: 32
    kernel_size: 1
    weight_filler {
      type: "xavier"
      std: 0.2
    }
    bias_filler {
      type: "constant"
      value: 0.2
    }
  }
}
layer {
  name: "inception_4e/relu_5x5_reduce"
  type: "ReLU"
  bottom: "inception_4e/5x5_reduce"
  top: "inception_4e/5x5_reduce"
}
layer {
  name: "inception_4e/5x5"
  type: "Convolution"
  bottom: "inception_4e/5x5_reduce"
  top: "inception_4e/
I0403 15:39:30.735605 12184 layer_factory.hpp:77] Creating layer data
I0403 15:39:30.736243 12184 net.cpp:91] Creating Layer data
I0403 15:39:30.736274 12184 net.cpp:399] data -> data
I0403 15:39:30.736325 12184 net.cpp:399] data -> label
I0403 15:39:30.736361 12184 data_transformer.cpp:25] Loading mean file from: /home/mohanty/data/final_dataset/lmdb/segmented-50-50/mean.binaryproto
I0403 15:39:30.738973 12186 db_lmdb.cpp:38] Opened lmdb /home/mohanty/data/final_dataset/lmdb/segmented-50-50/test_db
I0403 15:39:30.749178 12184 data_layer.cpp:41] output data size: 24,3,224,224
I0403 15:39:30.776283 12184 net.cpp:141] Setting up data
I0403 15:39:30.776362 12184 net.cpp:148] Top shape: 24 3 224 224 (3612672)
I0403 15:39:30.776389 12184 net.cpp:148] Top shape: 24 (24)
I0403 15:39:30.776406 12184 net.cpp:156] Memory required for data: 14450784
I0403 15:39:30.776433 12184 layer_factory.hpp:77] Creating layer label_data_1_split
I0403 15:39:30.776459 12184 net.cpp:91] Creating Layer label_data_1_split
I0403 15:39:30.776478 12184 net.cpp:425] label_data_1_split <- label
I0403 15:39:30.776509 12184 net.cpp:399] label_data_1_split -> label_data_1_split_0
I0403 15:39:30.776537 12184 net.cpp:399] label_data_1_split -> label_data_1_split_1
I0403 15:39:30.776558 12184 net.cpp:399] label_data_1_split -> label_data_1_split_2
I0403 15:39:30.776581 12184 net.cpp:399] label_data_1_split -> label_data_1_split_3
I0403 15:39:30.776599 12184 net.cpp:399] label_data_1_split -> label_data_1_split_4
I0403 15:39:30.776619 12184 net.cpp:399] label_data_1_split -> label_data_1_split_5
I0403 15:39:30.776639 12184 net.cpp:399] label_data_1_split -> label_data_1_split_6
I0403 15:39:30.776660 12184 net.cpp:399] label_data_1_split -> label_data_1_split_7
I0403 15:39:30.776679 12184 net.cpp:399] label_data_1_split -> label_data_1_split_8
I0403 15:39:30.776700 12184 net.cpp:399] label_data_1_split -> label_data_1_split_9
I0403 15:39:30.776814 12184 net.cpp:141] Setting up label_data_1_split
I0403 15:39:30.776839 12184 net.cpp:148] Top shape: 24 (24)
I0403 15:39:30.776855 12184 net.cpp:148] Top shape: 24 (24)
I0403 15:39:30.776871 12184 net.cpp:148] Top shape: 24 (24)
I0403 15:39:30.776887 12184 net.cpp:148] Top shape: 24 (24)
I0403 15:39:30.776903 12184 net.cpp:148] Top shape: 24 (24)
I0403 15:39:30.776918 12184 net.cpp:148] Top shape: 24 (24)
I0403 15:39:30.776934 12184 net.cpp:148] Top shape: 24 (24)
I0403 15:39:30.776950 12184 net.cpp:148] Top shape: 24 (24)
I0403 15:39:30.776965 12184 net.cpp:148] Top shape: 24 (24)
I0403 15:39:30.776983 12184 net.cpp:148] Top shape: 24 (24)
I0403 15:39:30.777027 12184 net.cpp:156] Memory required for data: 14451744
I0403 15:39:30.777043 12184 layer_factory.hpp:77] Creating layer conv1/7x7_s2
I0403 15:39:30.777075 12184 net.cpp:91] Creating Layer conv1/7x7_s2
I0403 15:39:30.777093 12184 net.cpp:425] conv1/7x7_s2 <- data
I0403 15:39:30.777112 12184 net.cpp:399] conv1/7x7_s2 -> conv1/7x7_s2
I0403 15:39:30.920513 12184 net.cpp:141] Setting up conv1/7x7_s2
I0403 15:39:30.920589 12184 net.cpp:148] Top shape: 24 64 112 112 (19267584)
I0403 15:39:30.920606 12184 net.cpp:156] Memory required for data: 91522080
I0403 15:39:30.920637 12184 layer_factory.hpp:77] Creating layer conv1/relu_7x7
I0403 15:39:30.920665 12184 net.cpp:91] Creating Layer conv1/relu_7x7
I0403 15:39:30.920685 12184 net.cpp:425] conv1/relu_7x7 <- conv1/7x7_s2
I0403 15:39:30.920702 12184 net.cpp:386] conv1/relu_7x7 -> conv1/7x7_s2 (in-place)
I0403 15:39:30.920969 12184 net.cpp:141] Setting up conv1/relu_7x7
I0403 15:39:30.920994 12184 net.cpp:148] Top shape: 24 64 112 112 (19267584)
I0403 15:39:30.921010 12184 net.cpp:156] Memory required for data: 168592416
I0403 15:39:30.921025 12184 layer_factory.hpp:77] Creating layer pool1/3x3_s2
I0403 15:39:30.921051 12184 net.cpp:91] Creating Layer pool1/3x3_s2
I0403 15:39:30.921068 12184 net.cpp:425] pool1/3x3_s2 <- conv1/7x7_s2
I0403 15:39:30.921087 12184 net.cpp:399] pool1/3x3_s2 -> pool1/3x3_s2
I0403 15:39:30.921161 12184 net.cpp:141] Setting up pool1/3x3_s2
I0403 15:39:30.921185 12184 net.cpp:148] Top shape: 24 64 56 56 (4816896)
I0403 15:39:30.921200 12184 net.cpp:156] Memory required for data: 187860000
I0403 15:39:30.921214 12184 layer_factory.hpp:77] Creating layer pool1/norm1
I0403 15:39:30.921239 12184 net.cpp:91] Creating Layer pool1/norm1
I0403 15:39:30.921257 12184 net.cpp:425] pool1/norm1 <- pool1/3x3_s2
I0403 15:39:30.921274 12184 net.cpp:399] pool1/norm1 -> pool1/norm1
I0403 15:39:30.921571 12184 net.cpp:141] Setting up pool1/norm1
I0403 15:39:30.921597 12184 net.cpp:148] Top shape: 24 64 56 56 (4816896)
I0403 15:39:30.921612 12184 net.cpp:156] Memory required for data: 207127584
I0403 15:39:30.921627 12184 layer_factory.hpp:77] Creating layer conv2/3x3_reduce
I0403 15:39:30.921654 12184 net.cpp:91] Creating Layer conv2/3x3_reduce
I0403 15:39:30.921672 12184 net.cpp:425] conv2/3x3_reduce <- pool1/norm1
I0403 15:39:30.921690 12184 net.cpp:399] conv2/3x3_reduce -> conv2/3x3_reduce
I0403 15:39:30.923053 12184 net.cpp:141] Setting up conv2/3x3_reduce
I0403 15:39:30.923080 12184 net.cpp:148] Top shape: 24 64 56 56 (4816896)
I0403 15:39:30.923095 12184 net.cpp:156] Memory required for data: 226395168
I0403 15:39:30.923115 12184 layer_factory.hpp:77] Creating layer conv2/relu_3x3_reduce
I0403 15:39:30.923135 12184 net.cpp:91] Creating Layer conv2/relu_3x3_reduce
I0403 15:39:30.923156 12184 net.cpp:425] conv2/relu_3x3_reduce <- conv2/3x3_reduce
I0403 15:39:30.923171 12184 net.cpp:386] conv2/relu_3x3_reduce -> conv2/3x3_reduce (in-place)
I0403 15:39:30.923439 12184 net.cpp:141] Setting up conv2/relu_3x3_reduce
I0403 15:39:30.923465 12184 net.cpp:148] Top shape: 24 64 56 56 (4816896)
I0403 15:39:30.923478 12184 net.cpp:156] Memory required for data: 245662752
I0403 15:39:30.923493 12184 layer_factory.hpp:77] Creating layer conv2/3x3
I0403 15:39:30.923516 12184 net.cpp:91] Creating Layer conv2/3x3
I0403 15:39:30.923533 12184 net.cpp:425] conv2/3x3 <- conv2/3x3_reduce
I0403 15:39:30.923554 12184 net.cpp:399] conv2/3x3 -> conv2/3x3
I0403 15:39:30.925806 12184 net.cpp:141] Setting up conv2/3x3
I0403 15:39:30.925835 12184 net.cpp:148] Top shape: 24 192 56 56 (14450688)
I0403 15:39:30.925851 12184 net.cpp:156] Memory required for data: 303465504
I0403 15:39:30.925871 12184 layer_factory.hpp:77] Creating layer conv2/relu_3x3
I0403 15:39:30.925892 12184 net.cpp:91] Creating Layer conv2/relu_3x3
I0403 15:39:30.925909 12184 net.cpp:425] conv2/relu_3x3 <- conv2/3x3
I0403 15:39:30.925925 12184 net.cpp:386] conv2/relu_3x3 -> conv2/3x3 (in-place)
I0403 15:39:30.926095 12184 net.cpp:141] Setting up conv2/relu_3x3
I0403 15:39:30.926118 12184 net.cpp:148] Top shape: 24 192 56 56 (14450688)
I0403 15:39:30.926156 12184 net.cpp:156] Memory required for data: 361268256
I0403 15:39:30.926170 12184 layer_factory.hpp:77] Creating layer conv2/norm2
I0403 15:39:30.926190 12184 net.cpp:91] Creating Layer conv2/norm2
I0403 15:39:30.926206 12184 net.cpp:425] conv2/norm2 <- conv2/3x3
I0403 15:39:30.926229 12184 net.cpp:399] conv2/norm2 -> conv2/norm2
I0403 15:39:30.926527 12184 net.cpp:141] Setting up conv2/norm2
I0403 15:39:30.926554 12184 net.cpp:148] Top shape: 24 192 56 56 (14450688)
I0403 15:39:30.926570 12184 net.cpp:156] Memory required for data: 419071008
I0403 15:39:30.926585 12184 layer_factory.hpp:77] Creating layer pool2/3x3_s2
I0403 15:39:30.926602 12184 net.cpp:91] Creating Layer pool2/3x3_s2
I0403 15:39:30.926617 12184 net.cpp:425] pool2/3x3_s2 <- conv2/norm2
I0403 15:39:30.926636 12184 net.cpp:399] pool2/3x3_s2 -> pool2/3x3_s2
I0403 15:39:30.926688 12184 net.cpp:141] Setting up pool2/3x3_s2
I0403 15:39:30.926713 12184 net.cpp:148] Top shape: 24 192 28 28 (3612672)
I0403 15:39:30.926729 12184 net.cpp:156] Memory required for data: 433521696
I0403 15:39:30.926743 12184 layer_factory.hpp:77] Creating layer pool2/3x3_s2_pool2/3x3_s2_0_split
I0403 15:39:30.926760 12184 net.cpp:91] Creating Layer pool2/3x3_s2_pool2/3x3_s2_0_split
I0403 15:39:30.926775 12184 net.cpp:425] pool2/3x3_s2_pool2/3x3_s2_0_split <- pool2/3x3_s2
I0403 15:39:30.926791 12184 net.cpp:399] pool2/3x3_s2_pool2/3x3_s2_0_split -> pool2/3x3_s2_pool2/3x3_s2_0_split_0
I0403 15:39:30.926810 12184 net.cpp:399] pool2/3x3_s2_pool2/3x3_s2_0_split -> pool2/3x3_s2_pool2/3x3_s2_0_split_1
I0403 15:39:30.926829 12184 net.cpp:399] pool2/3x3_s2_pool2/3x3_s2_0_split -> pool2/3x3_s2_pool2/3x3_s2_0_split_2
I0403 15:39:30.926851 12184 net.cpp:399] pool2/3x3_s2_pool2/3x3_s2_0_split -> pool2/3x3_s2_pool2/3x3_s2_0_split_3
I0403 15:39:30.926919 12184 net.cpp:141] Setting up pool2/3x3_s2_pool2/3x3_s2_0_split
I0403 15:39:30.926940 12184 net.cpp:148] Top shape: 24 192 28 28 (3612672)
I0403 15:39:30.926956 12184 net.cpp:148] Top shape: 24 192 28 28 (3612672)
I0403 15:39:30.926971 12184 net.cpp:148] Top shape: 24 192 28 28 (3612672)
I0403 15:39:30.926986 12184 net.cpp:148] Top shape: 24 192 28 28 (3612672)
I0403 15:39:30.927000 12184 net.cpp:156] Memory required for data: 491324448
I0403 15:39:30.927014 12184 layer_factory.hpp:77] Creating layer inception_3a/1x1
I0403 15:39:30.927037 12184 net.cpp:91] Creating Layer inception_3a/1x1
I0403 15:39:30.927052 12184 net.cpp:425] inception_3a/1x1 <- pool2/3x3_s2_pool2/3x3_s2_0_split_0
I0403 15:39:30.927073 12184 net.cpp:399] inception_3a/1x1 -> inception_3a/1x1
I0403 15:39:30.928570 12184 net.cpp:141] Setting up inception_3a/1x1
I0403 15:39:30.928597 12184 net.cpp:148] Top shape: 24 64 28 28 (1204224)
I0403 15:39:30.928613 12184 net.cpp:156] Memory required for data: 496141344
I0403 15:39:30.928632 12184 layer_factory.hpp:77] Creating layer inception_3a/relu_1x1
I0403 15:39:30.928649 12184 net.cpp:91] Creating Layer inception_3a/relu_1x1
I0403 15:39:30.928665 12184 net.cpp:425] inception_3a/relu_1x1 <- inception_3a/1x1
I0403 15:39:30.928683 12184 net.cpp:386] inception_3a/relu_1x1 -> inception_3a/1x1 (in-place)
I0403 15:39:30.928855 12184 net.cpp:141] Setting up inception_3a/relu_1x1
I0403 15:39:30.928880 12184 net.cpp:148] Top shape: 24 64 28 28 (1204224)
I0403 15:39:30.928894 12184 net.cpp:156] Memory required for data: 500958240
I0403 15:39:30.928908 12184 layer_factory.hpp:77] Creating layer inception_3a/3x3_reduce
I0403 15:39:30.928930 12184 net.cpp:91] Creating Layer inception_3a/3x3_reduce
I0403 15:39:30.928946 12184 net.cpp:425] inception_3a/3x3_reduce <- pool2/3x3_s2_pool2/3x3_s2_0_split_1
I0403 15:39:30.928966 12184 net.cpp:399] inception_3a/3x3_reduce -> inception_3a/3x3_reduce
I0403 15:39:30.930665 12184 net.cpp:141] Setting up inception_3a/3x3_reduce
I0403 15:39:30.930692 12184 net.cpp:148] Top shape: 24 96 28 28 (1806336)
I0403 15:39:30.930708 12184 net.cpp:156] Memory required for data: 508183584
I0403 15:39:30.930728 12184 layer_factory.hpp:77] Creating layer inception_3a/relu_3x3_reduce
I0403 15:39:30.930765 12184 net.cpp:91] Creating Layer inception_3a/relu_3x3_reduce
I0403 15:39:30.930783 12184 net.cpp:425] inception_3a/relu_3x3_reduce <- inception_3a/3x3_reduce
I0403 15:39:30.930799 12184 net.cpp:386] inception_3a/relu_3x3_reduce -> inception_3a/3x3_reduce (in-place)
I0403 15:39:30.930974 12184 net.cpp:141] Setting up inception_3a/relu_3x3_reduce
I0403 15:39:30.930999 12184 net.cpp:148] Top shape: 24 96 28 28 (1806336)
I0403 15:39:30.931015 12184 net.cpp:156] Memory required for data: 515408928
I0403 15:39:30.931030 12184 layer_factory.hpp:77] Creating layer inception_3a/3x3
I0403 15:39:30.931051 12184 net.cpp:91] Creating Layer inception_3a/3x3
I0403 15:39:30.931069 12184 net.cpp:425] inception_3a/3x3 <- inception_3a/3x3_reduce
I0403 15:39:30.931087 12184 net.cpp:399] inception_3a/3x3 -> inception_3a/3x3
I0403 15:39:30.932726 12184 net.cpp:141] Setting up inception_3a/3x3
I0403 15:39:30.932754 12184 net.cpp:148] Top shape: 24 128 28 28 (2408448)
I0403 15:39:30.932768 12184 net.cpp:156] Memory required for data: 525042720
I0403 15:39:30.932786 12184 layer_factory.hpp:77] Creating layer inception_3a/relu_3x3
I0403 15:39:30.932808 12184 net.cpp:91] Creating Layer inception_3a/relu_3x3
I0403 15:39:30.932826 12184 net.cpp:425] inception_3a/relu_3x3 <- inception_3a/3x3
I0403 15:39:30.932842 12184 net.cpp:386] inception_3a/relu_3x3 -> inception_3a/3x3 (in-place)
I0403 15:39:30.933106 12184 net.cpp:141] Setting up inception_3a/relu_3x3
I0403 15:39:30.933131 12184 net.cpp:148] Top shape: 24 128 28 28 (2408448)
I0403 15:39:30.933146 12184 net.cpp:156] Memory required for data: 534676512
I0403 15:39:30.933161 12184 layer_factory.hpp:77] Creating layer inception_3a/5x5_reduce
I0403 15:39:30.933182 12184 net.cpp:91] Creating Layer inception_3a/5x5_reduce
I0403 15:39:30.933199 12184 net.cpp:425] inception_3a/5x5_reduce <- pool2/3x3_s2_pool2/3x3_s2_0_split_2
I0403 15:39:30.933219 12184 net.cpp:399] inception_3a/5x5_reduce -> inception_3a/5x5_reduce
I0403 15:39:30.934157 12184 net.cpp:141] Setting up inception_3a/5x5_reduce
I0403 15:39:30.934183 12184 net.cpp:148] Top shape: 24 16 28 28 (301056)
I0403 15:39:30.934200 12184 net.cpp:156] Memory required for data: 535880736
I0403 15:39:30.934216 12184 layer_factory.hpp:77] Creating layer inception_3a/relu_5x5_reduce
I0403 15:39:30.934237 12184 net.cpp:91] Creating Layer inception_3a/relu_5x5_reduce
I0403 15:39:30.934252 12184 net.cpp:425] inception_3a/relu_5x5_reduce <- inception_3a/5x5_reduce
I0403 15:39:30.934270 12184 net.cpp:386] inception_3a/relu_5x5_reduce -> inception_3a/5x5_reduce (in-place)
I0403 15:39:30.934561 12184 net.cpp:141] Setting up inception_3a/relu_5x5_reduce
I0403 15:39:30.934586 12184 net.cpp:148] Top shape: 24 16 28 28 (301056)
I0403 15:39:30.934600 12184 net.cpp:156] Memory required for data: 537084960
I0403 15:39:30.934615 12184 layer_factory.hpp:77] Creating layer inception_3a/5x5
I0403 15:39:30.934638 12184 net.cpp:91] Creating Layer inception_3a/5x5
I0403 15:39:30.934655 12184 net.cpp:425] inception_3a/5x5 <- inception_3a/5x5_reduce
I0403 15:39:30.934674 12184 net.cpp:399] inception_3a/5x5 -> inception_3a/5x5
I0403 15:39:30.935654 12184 net.cpp:141] Setting up inception_3a/5x5
I0403 15:39:30.935681 12184 net.cpp:148] Top shape: 24 32 28 28 (602112)
I0403 15:39:30.935696 12184 net.cpp:156] Memory required for data: 539493408
I0403 15:39:30.935714 12184 layer_factory.hpp:77] Creating layer inception_3a/relu_5x5
I0403 15:39:30.935731 12184 net.cpp:91] Creating Layer inception_3a/relu_5x5
I0403 15:39:30.935746 12184 net.cpp:425] inception_3a/relu_5x5 <- inception_3a/5x5
I0403 15:39:30.935765 12184 net.cpp:386] inception_3a/relu_5x5 -> inception_3a/5x5 (in-place)
I0403 15:39:30.935935 12184 net.cpp:141] Setting up inception_3a/relu_5x5
I0403 15:39:30.935958 12184 net.cpp:148] Top shape: 24 32 28 28 (602112)
I0403 15:39:30.935972 12184 net.cpp:156] Memory required for data: 541901856
I0403 15:39:30.935986 12184 layer_factory.hpp:77] Creating layer inception_3a/pool
I0403 15:39:30.936005 12184 net.cpp:91] Creating Layer inception_3a/pool
I0403 15:39:30.936035 12184 net.cpp:425] inception_3a/pool <- pool2/3x3_s2_pool2/3x3_s2_0_split_3
I0403 15:39:30.936053 12184 net.cpp:399] inception_3a/pool -> inception_3a/pool
I0403 15:39:30.936110 12184 net.cpp:141] Setting up inception_3a/pool
I0403 15:39:30.936132 12184 net.cpp:148] Top shape: 24 192 28 28 (3612672)
I0403 15:39:30.936146 12184 net.cpp:156] Memory required for data: 556352544
I0403 15:39:30.936161 12184 layer_factory.hpp:77] Creating layer inception_3a/pool_proj
I0403 15:39:30.936182 12184 net.cpp:91] Creating Layer inception_3a/pool_proj
I0403 15:39:30.936199 12184 net.cpp:425] inception_3a/pool_proj <- inception_3a/pool
I0403 15:39:30.936220 12184 net.cpp:399] inception_3a/pool_proj -> inception_3a/pool_proj
I0403 15:39:30.937153 12184 net.cpp:141] Setting up inception_3a/pool_proj
I0403 15:39:30.937182 12184 net.cpp:148] Top shape: 24 32 28 28 (602112)
I0403 15:39:30.937198 12184 net.cpp:156] Memory required for data: 558760992
I0403 15:39:30.937219 12184 layer_factory.hpp:77] Creating layer inception_3a/relu_pool_proj
I0403 15:39:30.937239 12184 net.cpp:91] Creating Layer inception_3a/relu_pool_proj
I0403 15:39:30.937255 12184 net.cpp:425] inception_3a/relu_pool_proj <- inception_3a/pool_proj
I0403 15:39:30.937273 12184 net.cpp:386] inception_3a/relu_pool_proj -> inception_3a/pool_proj (in-place)
I0403 15:39:30.937542 12184 net.cpp:141] Setting up inception_3a/relu_pool_proj
I0403 15:39:30.937567 12184 net.cpp:148] Top shape: 24 32 28 28 (602112)
I0403 15:39:30.937582 12184 net.cpp:156] Memory required for data: 561169440
I0403 15:39:30.937597 12184 layer_factory.hpp:77] Creating layer inception_3a/output
I0403 15:39:30.937613 12184 net.cpp:91] Creating Layer inception_3a/output
I0403 15:39:30.937628 12184 net.cpp:425] inception_3a/output <- inception_3a/1x1
I0403 15:39:30.937644 12184 net.cpp:425] inception_3a/output <- inception_3a/3x3
I0403 15:39:30.937660 12184 net.cpp:425] inception_3a/output <- inception_3a/5x5
I0403 15:39:30.937675 12184 net.cpp:425] inception_3a/output <- inception_3a/pool_proj
I0403 15:39:30.937695 12184 net.cpp:399] inception_3a/output -> inception_3a/output
I0403 15:39:30.937741 12184 net.cpp:141] Setting up inception_3a/output
I0403 15:39:30.937764 12184 net.cpp:148] Top shape: 24 256 28 28 (4816896)
I0403 15:39:30.937778 12184 net.cpp:156] Memory required for data: 580437024
I0403 15:39:30.937793 12184 layer_factory.hpp:77] Creating layer inception_3a/output_inception_3a/output_0_split
I0403 15:39:30.937808 12184 net.cpp:91] Creating Layer inception_3a/output_inception_3a/output_0_split
I0403 15:39:30.937822 12184 net.cpp:425] inception_3a/output_inception_3a/output_0_split <- inception_3a/output
I0403 15:39:30.937845 12184 net.cpp:399] inception_3a/output_inception_3a/output_0_split -> inception_3a/output_inception_3a/output_0_split_0
I0403 15:39:30.937865 12184 net.cpp:399] inception_3a/output_inception_3a/output_0_split -> inception_3a/output_inception_3a/output_0_split_1
I0403 15:39:30.937886 12184 net.cpp:399] inception_3a/output_inception_3a/output_0_split -> inception_3a/output_inception_3a/output_0_split_2
I0403 15:39:30.937907 12184 net.cpp:399] inception_3a/output_inception_3a/output_0_split -> inception_3a/output_inception_3a/output_0_split_3
I0403 15:39:30.937980 12184 net.cpp:141] Setting up inception_3a/output_inception_3a/output_0_split
I0403 15:39:30.938002 12184 net.cpp:148] Top shape: 24 256 28 28 (4816896)
I0403 15:39:30.938019 12184 net.cpp:148] Top shape: 24 256 28 28 (4816896)
I0403 15:39:30.938035 12184 net.cpp:148] Top shape: 24 256 28 28 (4816896)
I0403 15:39:30.938050 12184 net.cpp:148] Top shape: 24 256 28 28 (4816896)
I0403 15:39:30.938062 12184 net.cpp:156] Memory required for data: 657507360
I0403 15:39:30.938076 12184 layer_factory.hpp:77] Creating layer inception_3b/1x1
I0403 15:39:30.938098 12184 net.cpp:91] Creating Layer inception_3b/1x1
I0403 15:39:30.938115 12184 net.cpp:425] inception_3b/1x1 <- inception_3a/output_inception_3a/output_0_split_0
I0403 15:39:30.938135 12184 net.cpp:399] inception_3b/1x1 -> inception_3b/1x1
I0403 15:39:30.939230 12184 net.cpp:141] Setting up inception_3b/1x1
I0403 15:39:30.939271 12184 net.cpp:148] Top shape: 24 128 28 28 (2408448)
I0403 15:39:30.939287 12184 net.cpp:156] Memory required for data: 667141152
I0403 15:39:30.939306 12184 layer_factory.hpp:77] Creating layer inception_3b/relu_1x1
I0403 15:39:30.939324 12184 net.cpp:91] Creating Layer inception_3b/relu_1x1
I0403 15:39:30.939339 12184 net.cpp:425] inception_3b/relu_1x1 <- inception_3b/1x1
I0403 15:39:30.939359 12184 net.cpp:386] inception_3b/relu_1x1 -> inception_3b/1x1 (in-place)
I0403 15:39:30.939532 12184 net.cpp:141] Setting up inception_3b/relu_1x1
I0403 15:39:30.939556 12184 net.cpp:148] Top shape: 24 128 28 28 (2408448)
I0403 15:39:30.939571 12184 net.cpp:156] Memory required for data: 676774944
I0403 15:39:30.939585 12184 layer_factory.hpp:77] Creating layer inception_3b/3x3_reduce
I0403 15:39:30.939607 12184 net.cpp:91] Creating Layer inception_3b/3x3_reduce
I0403 15:39:30.939625 12184 net.cpp:425] inception_3b/3x3_reduce <- inception_3a/output_inception_3a/output_0_split_1
I0403 15:39:30.939646 12184 net.cpp:399] inception_3b/3x3_reduce -> inception_3b/3x3_reduce
I0403 15:39:30.940742 12184 net.cpp:141] Setting up inception_3b/3x3_reduce
I0403 15:39:30.940768 12184 net.cpp:148] Top shape: 24 128 28 28 (2408448)
I0403 15:39:30.940783 12184 net.cpp:156] Memory required for data: 686408736
I0403 15:39:30.940801 12184 layer_factory.hpp:77] Creating layer inception_3b/relu_3x3_reduce
I0403 15:39:30.940819 12184 net.cpp:91] Creating Layer inception_3b/relu_3x3_reduce
I0403 15:39:30.940834 12184 net.cpp:425] inception_3b/relu_3x3_reduce <- inception_3b/3x3_reduce
I0403 15:39:30.940853 12184 net.cpp:386] inception_3b/relu_3x3_reduce -> inception_3b/3x3_reduce (in-place)
I0403 15:39:30.941023 12184 net.cpp:141] Setting up inception_3b/relu_3x3_reduce
I0403 15:39:30.941047 12184 net.cpp:148] Top shape: 24 128 28 28 (2408448)
I0403 15:39:30.941061 12184 net.cpp:156] Memory required for data: 696042528
I0403 15:39:30.941076 12184 layer_factory.hpp:77] Creating layer inception_3b/3x3
I0403 15:39:30.941100 12184 net.cpp:91] Creating Layer inception_3b/3x3
I0403 15:39:30.941118 12184 net.cpp:425] inception_3b/3x3 <- inception_3b/3x3_reduce
I0403 15:39:30.941136 12184 net.cpp:399] inception_3b/3x3 -> inception_3b/3x3
I0403 15:39:30.944103 12184 net.cpp:141] Setting up inception_3b/3x3
I0403 15:39:30.944130 12184 net.cpp:148] Top shape: 24 192 28 28 (3612672)
I0403 15:39:30.944145 12184 net.cpp:156] Memory required for data: 710493216
I0403 15:39:30.944164 12184 layer_factory.hpp:77] Creating layer inception_3b/relu_3x3
I0403 15:39:30.944183 12184 net.cpp:91] Creating Layer inception_3b/relu_3x3
I0403 15:39:30.944200 12184 net.cpp:425] inception_3b/relu_3x3 <- inception_3b/3x3
I0403 15:39:30.944216 12184 net.cpp:386] inception_3b/relu_3x3 -> inception_3b/3x3 (in-place)
I0403 15:39:30.944492 12184 net.cpp:141] Setting up inception_3b/relu_3x3
I0403 15:39:30.944519 12184 net.cpp:148] Top shape: 24 192 28 28 (3612672)
I0403 15:39:30.944532 12184 net.cpp:156] Memory required for data: 724943904
I0403 15:39:30.944547 12184 layer_factory.hpp:77] Creating layer inception_3b/5x5_reduce
I0403 15:39:30.944571 12184 net.cpp:91] Creating Layer inception_3b/5x5_reduce
I0403 15:39:30.944587 12184 net.cpp:425] inception_3b/5x5_reduce <- inception_3a/output_inception_3a/output_0_split_2
I0403 15:39:30.944608 12184 net.cpp:399] inception_3b/5x5_reduce -> inception_3b/5x5_reduce
I0403 15:39:30.945569 12184 net.cpp:141] Setting up inception_3b/5x5_reduce
I0403 15:39:30.945595 12184 net.cpp:148] Top shape: 24 32 28 28 (602112)
I0403 15:39:30.945611 12184 net.cpp:156] Memory required for data: 727352352
I0403 15:39:30.945628 12184 layer_factory.hpp:77] Creating layer inception_3b/relu_5x5_reduce
I0403 15:39:30.945646 12184 net.cpp:91] Creating Layer inception_3b/relu_5x5_reduce
I0403 15:39:30.945662 12184 net.cpp:425] inception_3b/relu_5x5_reduce <- inception_3b/5x5_reduce
I0403 15:39:30.945679 12184 net.cpp:386] inception_3b/relu_5x5_reduce -> inception_3b/5x5_reduce (in-place)
I0403 15:39:30.945868 12184 net.cpp:141] Setting up inception_3b/relu_5x5_reduce
I0403 15:39:30.945893 12184 net.cpp:148] Top shape: 24 32 28 28 (602112)
I0403 15:39:30.945907 12184 net.cpp:156] Memory required for data: 729760800
I0403 15:39:30.945921 12184 layer_factory.hpp:77] Creating layer inception_3b/5x5
I0403 15:39:30.945943 12184 net.cpp:91] Creating Layer inception_3b/5x5
I0403 15:39:30.945960 12184 net.cpp:425] inception_3b/5x5 <- inception_3b/5x5_reduce
I0403 15:39:30.945981 12184 net.cpp:399] inception_3b/5x5 -> inception_3b/5x5
I0403 15:39:30.947923 12184 net.cpp:141] Setting up inception_3b/5x5
I0403 15:39:30.947950 12184 net.cpp:148] Top shape: 24 96 28 28 (1806336)
I0403 15:39:30.947965 12184 net.cpp:156] Memory required for data: 736986144
I0403 15:39:30.947983 12184 layer_factory.hpp:77] Creating layer inception_3b/relu_5x5
I0403 15:39:30.948000 12184 net.cpp:91] Creating Layer inception_3b/relu_5x5
I0403 15:39:30.948016 12184 net.cpp:425] inception_3b/relu_5x5 <- inception_3b/5x5
I0403 15:39:30.948036 12184 net.cpp:386] inception_3b/relu_5x5 -> inception_3b/5x5 (in-place)
I0403 15:39:30.948226 12184 net.cpp:141] Setting up inception_3b/relu_5x5
I0403 15:39:30.948251 12184 net.cpp:148] Top shape: 24 96 28 28 (1806336)
I0403 15:39:30.948266 12184 net.cpp:156] Memory required for data: 744211488
I0403 15:39:30.948279 12184 layer_factory.hpp:77] Creating layer inception_3b/pool
I0403 15:39:30.948297 12184 net.cpp:91] Creating Layer inception_3b/pool
I0403 15:39:30.948312 12184 net.cpp:425] inception_3b/pool <- inception_3a/output_inception_3a/output_0_split_3
I0403 15:39:30.948329 12184 net.cpp:399] inception_3b/pool -> inception_3b/pool
I0403 15:39:30.948405 12184 net.cpp:141] Setting up inception_3b/pool
I0403 15:39:30.948428 12184 net.cpp:148] Top shape: 24 256 28 28 (4816896)
I0403 15:39:30.948443 12184 net.cpp:156] Memory required for data: 763479072
I0403 15:39:30.948469 12184 layer_factory.hpp:77] Creating layer inception_3b/pool_proj
I0403 15:39:30.948493 12184 net.cpp:91] Creating Layer inception_3b/pool_proj
I0403 15:39:30.948510 12184 net.cpp:425] inception_3b/pool_proj <- inception_3b/pool
I0403 15:39:30.948532 12184 net.cpp:399] inception_3b/pool_proj -> inception_3b/pool_proj
I0403 15:39:30.949597 12184 net.cpp:141] Setting up inception_3b/pool_proj
I0403 15:39:30.949625 12184 net.cpp:148] Top shape: 24 64 28 28 (1204224)
I0403 15:39:30.949645 12184 net.cpp:156] Memory required for data: 768295968
I0403 15:39:30.949662 12184 layer_factory.hpp:77] Creating layer inception_3b/relu_pool_proj
I0403 15:39:30.949681 12184 net.cpp:91] Creating Layer inception_3b/relu_pool_proj
I0403 15:39:30.949697 12184 net.cpp:425] inception_3b/relu_pool_proj <- inception_3b/pool_proj
I0403 15:39:30.949713 12184 net.cpp:386] inception_3b/relu_pool_proj -> inception_3b/pool_proj (in-place)
I0403 15:39:30.950106 12184 net.cpp:141] Setting up inception_3b/relu_pool_proj
I0403 15:39:30.950134 12184 net.cpp:148] Top shape: 24 64 28 28 (1204224)
I0403 15:39:30.950148 12184 net.cpp:156] Memory required for data: 773112864
I0403 15:39:30.950163 12184 layer_factory.hpp:77] Creating layer inception_3b/output
I0403 15:39:30.950182 12184 net.cpp:91] Creating Layer inception_3b/output
I0403 15:39:30.950198 12184 net.cpp:425] inception_3b/output <- inception_3b/1x1
I0403 15:39:30.950215 12184 net.cpp:425] inception_3b/output <- inception_3b/3x3
I0403 15:39:30.950232 12184 net.cpp:425] inception_3b/output <- inception_3b/5x5
I0403 15:39:30.950247 12184 net.cpp:425] inception_3b/output <- inception_3b/pool_proj
I0403 15:39:30.950263 12184 net.cpp:399] inception_3b/output -> inception_3b/output
I0403 15:39:30.950309 12184 net.cpp:141] Setting up inception_3b/output
I0403 15:39:30.950332 12184 net.cpp:148] Top shape: 24 480 28 28 (9031680)
I0403 15:39:30.950346 12184 net.cpp:156] Memory required for data: 809239584
I0403 15:39:30.950361 12184 layer_factory.hpp:77] Creating layer pool3/3x3_s2
I0403 15:39:30.950382 12184 net.cpp:91] Creating Layer pool3/3x3_s2
I0403 15:39:30.950399 12184 net.cpp:425] pool3/3x3_s2 <- inception_3b/output
I0403 15:39:30.950434 12184 net.cpp:399] pool3/3x3_s2 -> pool3/3x3_s2
I0403 15:39:30.950494 12184 net.cpp:141] Setting up pool3/3x3_s2
I0403 15:39:30.950516 12184 net.cpp:148] Top shape: 24 480 14 14 (2257920)
I0403 15:39:30.950531 12184 net.cpp:156] Memory required for data: 818271264
I0403 15:39:30.950546 12184 layer_factory.hpp:77] Creating layer pool3/3x3_s2_pool3/3x3_s2_0_split
I0403 15:39:30.950564 12184 net.cpp:91] Creating Layer pool3/3x3_s2_pool3/3x3_s2_0_split
I0403 15:39:30.950580 12184 net.cpp:425] pool3/3x3_s2_pool3/3x3_s2_0_split <- pool3/3x3_s2
I0403 15:39:30.950600 12184 net.cpp:399] pool3/3x3_s2_pool3/3x3_s2_0_split -> pool3/3x3_s2_pool3/3x3_s2_0_split_0
I0403 15:39:30.950620 12184 net.cpp:399] pool3/3x3_s2_pool3/3x3_s2_0_split -> pool3/3x3_s2_pool3/3x3_s2_0_split_1
I0403 15:39:30.950640 12184 net.cpp:399] pool3/3x3_s2_pool3/3x3_s2_0_split -> pool3/3x3_s2_pool3/3x3_s2_0_split_2
I0403 15:39:30.950659 12184 net.cpp:399] pool3/3x3_s2_pool3/3x3_s2_0_split -> pool3/3x3_s2_pool3/3x3_s2_0_split_3
I0403 15:39:30.950734 12184 net.cpp:141] Setting up pool3/3x3_s2_pool3/3x3_s2_0_split
I0403 15:39:30.950758 12184 net.cpp:148] Top shape: 24 480 14 14 (2257920)
I0403 15:39:30.950774 12184 net.cpp:148] Top shape: 24 480 14 14 (2257920)
I0403 15:39:30.950789 12184 net.cpp:148] Top shape: 24 480 14 14 (2257920)
I0403 15:39:30.950804 12184 net.cpp:148] Top shape: 24 480 14 14 (2257920)
I0403 15:39:30.950819 12184 net.cpp:156] Memory required for data: 854397984
I0403 15:39:30.950832 12184 layer_factory.hpp:77] Creating layer inception_4a/1x1
I0403 15:39:30.950855 12184 net.cpp:91] Creating Layer inception_4a/1x1
I0403 15:39:30.950871 12184 net.cpp:425] inception_4a/1x1 <- pool3/3x3_s2_pool3/3x3_s2_0_split_0
I0403 15:39:30.950892 12184 net.cpp:399] inception_4a/1x1 -> inception_4a/1x1
I0403 15:39:30.952483 12184 net.cpp:141] Setting up inception_4a/1x1
I0403 15:39:30.952514 12184 net.cpp:148] Top shape: 24 192 14 14 (903168)
I0403 15:39:30.952532 12184 net.cpp:156] Memory required for data: 858010656
I0403 15:39:30.952550 12184 layer_factory.hpp:77] Creating layer inception_4a/relu_1x1
I0403 15:39:30.952569 12184 net.cpp:91] Creating Layer inception_4a/relu_1x1
I0403 15:39:30.952585 12184 net.cpp:425] inception_4a/relu_1x1 <- inception_4a/1x1
I0403 15:39:30.952615 12184 net.cpp:386] inception_4a/relu_1x1 -> inception_4a/1x1 (in-place)
I0403 15:39:30.952800 12184 net.cpp:141] Setting up inception_4a/relu_1x1
I0403 15:39:30.952826 12184 net.cpp:148] Top shape: 24 192 14 14 (903168)
I0403 15:39:30.952839 12184 net.cpp:156] Memory required for data: 861623328
I0403 15:39:30.952854 12184 layer_factory.hpp:77] Creating layer inception_4a/3x3_reduce
I0403 15:39:30.952877 12184 net.cpp:91] Creating Layer inception_4a/3x3_reduce
I0403 15:39:30.952894 12184 net.cpp:425] inception_4a/3x3_reduce <- pool3/3x3_s2_pool3/3x3_s2_0_split_1
I0403 15:39:30.952915 12184 net.cpp:399] inception_4a/3x3_reduce -> inception_4a/3x3_reduce
I0403 15:39:30.954180 12184 net.cpp:141] Setting up inception_4a/3x3_reduce
I0403 15:39:30.954207 12184 net.cpp:148] Top shape: 24 96 14 14 (451584)
I0403 15:39:30.954223 12184 net.cpp:156] Memory required for data: 863429664
I0403 15:39:30.954248 12184 layer_factory.hpp:77] Creating layer inception_4a/relu_3x3_reduce
I0403 15:39:30.954269 12184 net.cpp:91] Creating Layer inception_4a/relu_3x3_reduce
I0403 15:39:30.954285 12184 net.cpp:425] inception_4a/relu_3x3_reduce <- inception_4a/3x3_reduce
I0403 15:39:30.954303 12184 net.cpp:386] inception_4a/relu_3x3_reduce -> inception_4a/3x3_reduce (in-place)
I0403 15:39:30.954485 12184 net.cpp:141] Setting up inception_4a/relu_3x3_reduce
I0403 15:39:30.954512 12184 net.cpp:148] Top shape: 24 96 14 14 (451584)
I0403 15:39:30.954529 12184 net.cpp:156] Memory required for data: 865236000
I0403 15:39:30.954543 12184 layer_factory.hpp:77] Creating layer inception_4a/3x3
I0403 15:39:30.954566 12184 net.cpp:91] Creating Layer inception_4a/3x3
I0403 15:39:30.954583 12184 net.cpp:425] inception_4a/3x3 <- inception_4a/3x3_reduce
I0403 15:39:30.954602 12184 net.cpp:399] inception_4a/3x3 -> inception_4a/3x3
I0403 15:39:30.957337 12184 net.cpp:141] Setting up inception_4a/3x3
I0403 15:39:30.957367 12184 net.cpp:148] Top shape: 24 208 14 14 (978432)
I0403 15:39:30.957388 12184 net.cpp:156] Memory required for data: 869149728
I0403 15:39:30.957407 12184 layer_factory.hpp:77] Creating layer inception_4a/relu_3x3
I0403 15:39:30.957427 12184 net.cpp:91] Creating Layer inception_4a/relu_3x3
I0403 15:39:30.957442 12184 net.cpp:425] inception_4a/relu_3x3 <- inception_4a/3x3
I0403 15:39:30.957463 12184 net.cpp:386] inception_4a/relu_3x3 -> inception_4a/3x3 (in-place)
I0403 15:39:30.957752 12184 net.cpp:141] Setting up inception_4a/relu_3x3
I0403 15:39:30.957779 12184 net.cpp:148] Top shape: 24 208 14 14 (978432)
I0403 15:39:30.957795 12184 net.cpp:156] Memory required for data: 873063456
I0403 15:39:30.957810 12184 layer_factory.hpp:77] Creating layer inception_4a/5x5_reduce
I0403 15:39:30.957834 12184 net.cpp:91] Creating Layer inception_4a/5x5_reduce
I0403 15:39:30.957851 12184 net.cpp:425] inception_4a/5x5_reduce <- pool3/3x3_s2_pool3/3x3_s2_0_split_2
I0403 15:39:30.957875 12184 net.cpp:399] inception_4a/5x5_reduce -> inception_4a/5x5_reduce
I0403 15:39:30.958925 12184 net.cpp:141] Setting up inception_4a/5x5_reduce
I0403 15:39:30.958952 12184 net.cpp:148] Top shape: 24 16 14 14 (75264)
I0403 15:39:30.958967 12184 net.cpp:156] Memory required for data: 873364512
I0403 15:39:30.958986 12184 layer_factory.hpp:77] Creating layer inception_4a/relu_5x5_reduce
I0403 15:39:30.959005 12184 net.cpp:91] Creating Layer inception_4a/relu_5x5_reduce
I0403 15:39:30.959022 12184 net.cpp:425] inception_4a/relu_5x5_reduce <- inception_4a/5x5_reduce
I0403 15:39:30.959043 12184 net.cpp:386] inception_4a/relu_5x5_reduce -> inception_4a/5x5_reduce (in-place)
I0403 15:39:30.959223 12184 net.cpp:141] Setting up inception_4a/relu_5x5_reduce
I0403 15:39:30.959249 12184 net.cpp:148] Top shape: 24 16 14 14 (75264)
I0403 15:39:30.959264 12184 net.cpp:156] Memory required for data: 873665568
I0403 15:39:30.959280 12184 layer_factory.hpp:77] Creating layer inception_4a/5x5
I0403 15:39:30.959302 12184 net.cpp:91] Creating Layer inception_4a/5x5
I0403 15:39:30.959321 12184 net.cpp:425] inception_4a/5x5 <- inception_4a/5x5_reduce
I0403 15:39:30.959342 12184 net.cpp:399] inception_4a/5x5 -> inception_4a/5x5
I0403 15:39:30.960479 12184 net.cpp:141] Setting up inception_4a/5x5
I0403 15:39:30.960507 12184 net.cpp:148] Top shape: 24 48 14 14 (225792)
I0403 15:39:30.960523 12184 net.cpp:156] Memory required for data: 874568736
I0403 15:39:30.960541 12184 layer_factory.hpp:77] Creating layer inception_4a/relu_5x5
I0403 15:39:30.960562 12184 net.cpp:91] Creating Layer inception_4a/relu_5x5
I0403 15:39:30.960579 12184 net.cpp:425] inception_4a/relu_5x5 <- inception_4a/5x5
I0403 15:39:30.960597 12184 net.cpp:386] inception_4a/relu_5x5 -> inception_4a/5x5 (in-place)
I0403 15:39:30.960782 12184 net.cpp:141] Setting up inception_4a/relu_5x5
I0403 15:39:30.960809 12184 net.cpp:148] Top shape: 24 48 14 14 (225792)
I0403 15:39:30.960825 12184 net.cpp:156] Memory required for data: 875471904
I0403 15:39:30.960841 12184 layer_factory.hpp:77] Creating layer inception_4a/pool
I0403 15:39:30.960860 12184 net.cpp:91] Creating Layer inception_4a/pool
I0403 15:39:30.960875 12184 net.cpp:425] inception_4a/pool <- pool3/3x3_s2_pool3/3x3_s2_0_split_3
I0403 15:39:30.960896 12184 net.cpp:399] inception_4a/pool -> inception_4a/pool
I0403 15:39:30.960958 12184 net.cpp:141] Setting up inception_4a/pool
I0403 15:39:30.960983 12184 net.cpp:148] Top shape: 24 480 14 14 (2257920)
I0403 15:39:30.960997 12184 net.cpp:156] Memory required for data: 884503584
I0403 15:39:30.961012 12184 layer_factory.hpp:77] Creating layer inception_4a/pool_proj
I0403 15:39:30.961035 12184 net.cpp:91] Creating Layer inception_4a/pool_proj
I0403 15:39:30.961056 12184 net.cpp:425] inception_4a/pool_proj <- inception_4a/pool
I0403 15:39:30.961077 12184 net.cpp:399] inception_4a/pool_proj -> inception_4a/pool_proj
I0403 15:39:30.962283 12184 net.cpp:141] Setting up inception_4a/pool_proj
I0403 15:39:30.962314 12184 net.cpp:148] Top shape: 24 64 14 14 (301056)
I0403 15:39:30.962347 12184 net.cpp:156] Memory required for data: 885707808
I0403 15:39:30.962368 12184 layer_factory.hpp:77] Creating layer inception_4a/relu_pool_proj
I0403 15:39:30.962401 12184 net.cpp:91] Creating Layer inception_4a/relu_pool_proj
I0403 15:39:30.962422 12184 net.cpp:425] inception_4a/relu_pool_proj <- inception_4a/pool_proj
I0403 15:39:30.962440 12184 net.cpp:386] inception_4a/relu_pool_proj -> inception_4a/pool_proj (in-place)
I0403 15:39:30.962734 12184 net.cpp:141] Setting up inception_4a/relu_pool_proj
I0403 15:39:30.962761 12184 net.cpp:148] Top shape: 24 64 14 14 (301056)
I0403 15:39:30.962777 12184 net.cpp:156] Memory required for data: 886912032
I0403 15:39:30.962792 12184 layer_factory.hpp:77] Creating layer inception_4a/output
I0403 15:39:30.962812 12184 net.cpp:91] Creating Layer inception_4a/output
I0403 15:39:30.962829 12184 net.cpp:425] inception_4a/output <- inception_4a/1x1
I0403 15:39:30.962846 12184 net.cpp:425] inception_4a/output <- inception_4a/3x3
I0403 15:39:30.962863 12184 net.cpp:425] inception_4a/output <- inception_4a/5x5
I0403 15:39:30.962879 12184 net.cpp:425] inception_4a/output <- inception_4a/pool_proj
I0403 15:39:30.962898 12184 net.cpp:399] inception_4a/output -> inception_4a/output
I0403 15:39:30.962944 12184 net.cpp:141] Setting up inception_4a/output
I0403 15:39:30.962967 12184 net.cpp:148] Top shape: 24 512 14 14 (2408448)
I0403 15:39:30.962983 12184 net.cpp:156] Memory required for data: 896545824
I0403 15:39:30.962997 12184 layer_factory.hpp:77] Creating layer inception_4a/output_inception_4a/output_0_split
I0403 15:39:30.963016 12184 net.cpp:91] Creating Layer inception_4a/output_inception_4a/output_0_split
I0403 15:39:30.963030 12184 net.cpp:425] inception_4a/output_inception_4a/output_0_split <- inception_4a/output
I0403 15:39:30.963050 12184 net.cpp:399] inception_4a/output_inception_4a/output_0_split -> inception_4a/output_inception_4a/output_0_split_0
I0403 15:39:30.963073 12184 net.cpp:399] inception_4a/output_inception_4a/output_0_split -> inception_4a/output_inception_4a/output_0_split_1
I0403 15:39:30.963094 12184 net.cpp:399] inception_4a/output_inception_4a/output_0_split -> inception_4a/output_inception_4a/output_0_split_2
I0403 15:39:30.963119 12184 net.cpp:399] inception_4a/output_inception_4a/output_0_split -> inception_4a/output_inception_4a/output_0_split_3
I0403 15:39:30.963140 12184 net.cpp:399] inception_4a/output_inception_4a/output_0_split -> inception_4a/output_inception_4a/output_0_split_4
I0403 15:39:30.963240 12184 net.cpp:141] Setting up inception_4a/output_inception_4a/output_0_split
I0403 15:39:30.963264 12184 net.cpp:148] Top shape: 24 512 14 14 (2408448)
I0403 15:39:30.963281 12184 net.cpp:148] Top shape: 24 512 14 14 (2408448)
I0403 15:39:30.963299 12184 net.cpp:148] Top shape: 24 512 14 14 (2408448)
I0403 15:39:30.963315 12184 net.cpp:148] Top shape: 24 512 14 14 (2408448)
I0403 15:39:30.963330 12184 net.cpp:148] Top shape: 24 512 14 14 (2408448)
I0403 15:39:30.963343 12184 net.cpp:156] Memory required for data: 944714784
I0403 15:39:30.963358 12184 layer_factory.hpp:77] Creating layer loss1/ave_pool
I0403 15:39:30.963376 12184 net.cpp:91] Creating Layer loss1/ave_pool
I0403 15:39:30.963397 12184 net.cpp:425] loss1/ave_pool <- inception_4a/output_inception_4a/output_0_split_0
I0403 15:39:30.963418 12184 net.cpp:399] loss1/ave_pool -> loss1/ave_pool
I0403 15:39:30.963631 12184 net.cpp:141] Setting up loss1/ave_pool
I0403 15:39:30.963660 12184 net.cpp:148] Top shape: 24 512 4 4 (196608)
I0403 15:39:30.963677 12184 net.cpp:156] Memory required for data: 945501216
I0403 15:39:30.963693 12184 layer_factory.hpp:77] Creating layer loss1/conv
I0403 15:39:30.963716 12184 net.cpp:91] Creating Layer loss1/conv
I0403 15:39:30.963734 12184 net.cpp:425] loss1/conv <- loss1/ave_pool
I0403 15:39:30.963753 12184 net.cpp:399] loss1/conv -> loss1/conv
I0403 15:39:30.965203 12184 net.cpp:141] Setting up loss1/conv
I0403 15:39:30.965231 12184 net.cpp:148] Top shape: 24 128 4 4 (49152)
I0403 15:39:30.965263 12184 net.cpp:156] Memory required for data: 945697824
I0403 15:39:30.965283 12184 layer_factory.hpp:77] Creating layer loss1/relu_conv
I0403 15:39:30.965303 12184 net.cpp:91] Creating Layer loss1/relu_conv
I0403 15:39:30.965319 12184 net.cpp:425] loss1/relu_conv <- loss1/conv
I0403 15:39:30.965339 12184 net.cpp:386] loss1/relu_conv -> loss1/conv (in-place)
I0403 15:39:30.965639 12184 net.cpp:141] Setting up loss1/relu_conv
I0403 15:39:30.965667 12184 net.cpp:148] Top shape: 24 128 4 4 (49152)
I0403 15:39:30.965682 12184 net.cpp:156] Memory required for data: 945894432
I0403 15:39:30.965698 12184 layer_factory.hpp:77] Creating layer loss1/fc
I0403 15:39:30.965723 12184 net.cpp:91] Creating Layer loss1/fc
I0403 15:39:30.965739 12184 net.cpp:425] loss1/fc <- loss1/conv
I0403 15:39:30.965761 12184 net.cpp:399] loss1/fc -> loss1/fc
I0403 15:39:30.983695 12184 net.cpp:141] Setting up loss1/fc
I0403 15:39:30.983759 12184 net.cpp:148] Top shape: 24 1024 (24576)
I0403 15:39:30.983775 12184 net.cpp:156] Memory required for data: 945992736
I0403 15:39:30.983795 12184 layer_factory.hpp:77] Creating layer loss1/relu_fc
I0403 15:39:30.983815 12184 net.cpp:91] Creating Layer loss1/relu_fc
I0403 15:39:30.983834 12184 net.cpp:425] loss1/relu_fc <- loss1/fc
I0403 15:39:30.983851 12184 net.cpp:386] loss1/relu_fc -> loss1/fc (in-place)
I0403 15:39:30.984067 12184 net.cpp:141] Setting up loss1/relu_fc
I0403 15:39:30.984093 12184 net.cpp:148] Top shape: 24 1024 (24576)
I0403 15:39:30.984108 12184 net.cpp:156] Memory required for data: 946091040
I0403 15:39:30.984123 12184 layer_factory.hpp:77] Creating layer loss1/drop_fc
I0403 15:39:30.984153 12184 net.cpp:91] Creating Layer loss1/drop_fc
I0403 15:39:30.984169 12184 net.cpp:425] loss1/drop_fc <- loss1/fc
I0403 15:39:30.984189 12184 net.cpp:386] loss1/drop_fc -> loss1/fc (in-place)
I0403 15:39:30.984241 12184 net.cpp:141] Setting up loss1/drop_fc
I0403 15:39:30.984266 12184 net.cpp:148] Top shape: 24 1024 (24576)
I0403 15:39:30.984279 12184 net.cpp:156] Memory required for data: 946189344
I0403 15:39:30.984294 12184 layer_factory.hpp:77] Creating layer loss1/classifier_plantvillage
I0403 15:39:30.984318 12184 net.cpp:91] Creating Layer loss1/classifier_plantvillage
I0403 15:39:30.984334 12184 net.cpp:425] loss1/classifier_plantvillage <- loss1/fc
I0403 15:39:30.984352 12184 net.cpp:399] loss1/classifier_plantvillage -> loss1/classifier_plantvillage
I0403 15:39:30.985278 12184 net.cpp:141] Setting up loss1/classifier_plantvillage
I0403 15:39:30.985308 12184 net.cpp:148] Top shape: 24 38 (912)
I0403 15:39:30.985324 12184 net.cpp:156] Memory required for data: 946192992
I0403 15:39:30.985343 12184 layer_factory.hpp:77] Creating layer loss1/classifier_plantvillage_loss1/classifier_plantvillage_0_split
I0403 15:39:30.985363 12184 net.cpp:91] Creating Layer loss1/classifier_plantvillage_loss1/classifier_plantvillage_0_split
I0403 15:39:30.985381 12184 net.cpp:425] loss1/classifier_plantvillage_loss1/classifier_plantvillage_0_split <- loss1/classifier_plantvillage
I0403 15:39:30.985400 12184 net.cpp:399] loss1/classifier_plantvillage_loss1/classifier_plantvillage_0_split -> loss1/classifier_plantvillage_loss1/classifier_plantvillage_0_split_0
I0403 15:39:30.985424 12184 net.cpp:399] loss1/classifier_plantvillage_loss1/classifier_plantvillage_0_split -> loss1/classifier_plantvillage_loss1/classifier_plantvillage_0_split_1
I0403 15:39:30.985446 12184 net.cpp:399] loss1/classifier_plantvillage_loss1/classifier_plantvillage_0_split -> loss1/classifier_plantvillage_loss1/classifier_plantvillage_0_split_2
I0403 15:39:30.985512 12184 net.cpp:141] Setting up loss1/classifier_plantvillage_loss1/classifier_plantvillage_0_split
I0403 15:39:30.985537 12184 net.cpp:148] Top shape: 24 38 (912)
I0403 15:39:30.985551 12184 net.cpp:148] Top shape: 24 38 (912)
I0403 15:39:30.985568 12184 net.cpp:148] Top shape: 24 38 (912)
I0403 15:39:30.985582 12184 net.cpp:156] Memory required for data: 946203936
I0403 15:39:30.985596 12184 layer_factory.hpp:77] Creating layer inception_4b/1x1
I0403 15:39:30.985617 12184 net.cpp:91] Creating Layer inception_4b/1x1
I0403 15:39:30.985657 12184 net.cpp:425] inception_4b/1x1 <- inception_4a/output_inception_4a/output_0_split_1
I0403 15:39:30.985680 12184 net.cpp:399] inception_4b/1x1 -> inception_4b/1x1
I0403 15:39:30.987359 12184 net.cpp:141] Setting up inception_4b/1x1
I0403 15:39:30.987390 12184 net.cpp:148] Top shape: 24 160 14 14 (752640)
I0403 15:39:30.987406 12184 net.cpp:156] Memory required for data: 949214496
I0403 15:39:30.987424 12184 layer_factory.hpp:77] Creating layer inception_4b/relu_1x1
I0403 15:39:30.987442 12184 net.cpp:91] Creating Layer inception_4b/relu_1x1
I0403 15:39:30.987458 12184 net.cpp:425] inception_4b/relu_1x1 <- inception_4b/1x1
I0403 15:39:30.987478 12184 net.cpp:386] inception_4b/relu_1x1 -> inception_4b/1x1 (in-place)
I0403 15:39:30.987663 12184 net.cpp:141] Setting up inception_4b/relu_1x1
I0403 15:39:30.987687 12184 net.cpp:148] Top shape: 24 160 14 14 (752640)
I0403 15:39:30.987702 12184 net.cpp:156] Memory required for data: 952225056
I0403 15:39:30.987717 12184 layer_factory.hpp:77] Creating layer inception_4b/3x3_reduce
I0403 15:39:30.987740 12184 net.cpp:91] Creating Layer inception_4b/3x3_reduce
I0403 15:39:30.987757 12184 net.cpp:425] inception_4b/3x3_reduce <- inception_4a/output_inception_4a/output_0_split_2
I0403 15:39:30.987781 12184 net.cpp:399] inception_4b/3x3_reduce -> inception_4b/3x3_reduce
I0403 15:39:30.989138 12184 net.cpp:141] Setting up inception_4b/3x3_reduce
I0403 15:39:30.989166 12184 net.cpp:148] Top shape: 24 112 14 14 (526848)
I0403 15:39:30.989181 12184 net.cpp:156] Memory required for data: 954332448
I0403 15:39:30.989199 12184 layer_factory.hpp:77] Creating layer inception_4b/relu_3x3_reduce
I0403 15:39:30.989222 12184 net.cpp:91] Creating Layer inception_4b/relu_3x3_reduce
I0403 15:39:30.989239 12184 net.cpp:425] inception_4b/relu_3x3_reduce <- inception_4b/3x3_reduce
I0403 15:39:30.989256 12184 net.cpp:386] inception_4b/relu_3x3_reduce -> inception_4b/3x3_reduce (in-place)
I0403 15:39:30.989549 12184 net.cpp:141] Setting up inception_4b/relu_3x3_reduce
I0403 15:39:30.989575 12184 net.cpp:148] Top shape: 24 112 14 14 (526848)
I0403 15:39:30.989590 12184 net.cpp:156] Memory required for data: 956439840
I0403 15:39:30.989605 12184 layer_factory.hpp:77] Creating layer inception_4b/3x3
I0403 15:39:30.989627 12184 net.cpp:91] Creating Layer inception_4b/3x3
I0403 15:39:30.989645 12184 net.cpp:425] inception_4b/3x3 <- inception_4b/3x3_reduce
I0403 15:39:30.989667 12184 net.cpp:399] inception_4b/3x3 -> inception_4b/3x3
I0403 15:39:30.992669 12184 net.cpp:141] Setting up inception_4b/3x3
I0403 15:39:30.992702 12184 net.cpp:148] Top shape: 24 224 14 14 (1053696)
I0403 15:39:30.992718 12184 net.cpp:156] Memory required for data: 960654624
I0403 15:39:30.992736 12184 layer_factory.hpp:77] Creating layer inception_4b/relu_3x3
I0403 15:39:30.992754 12184 net.cpp:91] Creating Layer inception_4b/relu_3x3
I0403 15:39:30.992771 12184 net.cpp:425] inception_4b/relu_3x3 <- inception_4b/3x3
I0403 15:39:30.992789 12184 net.cpp:386] inception_4b/relu_3x3 -> inception_4b/3x3 (in-place)
I0403 15:39:30.992974 12184 net.cpp:141] Setting up inception_4b/relu_3x3
I0403 15:39:30.992998 12184 net.cpp:148] Top shape: 24 224 14 14 (1053696)
I0403 15:39:30.993012 12184 net.cpp:156] Memory required for data: 964869408
I0403 15:39:30.993027 12184 layer_factory.hpp:77] Creating layer inception_4b/5x5_reduce
I0403 15:39:30.993051 12184 net.cpp:91] Creating Layer inception_4b/5x5_reduce
I0403 15:39:30.993068 12184 net.cpp:425] inception_4b/5x5_reduce <- inception_4a/output_inception_4a/output_0_split_3
I0403 15:39:30.993089 12184 net.cpp:399] inception_4b/5x5_reduce -> inception_4b/5x5_reduce
I0403 15:39:30.994176 12184 net.cpp:141] Setting up inception_4b/5x5_reduce
I0403 15:39:30.994204 12184 net.cpp:148] Top shape: 24 24 14 14 (112896)
I0403 15:39:30.994220 12184 net.cpp:156] Memory required for data: 965320992
I0403 15:39:30.994237 12184 layer_factory.hpp:77] Creating layer inception_4b/relu_5x5_reduce
I0403 15:39:30.994258 12184 net.cpp:91] Creating Layer inception_4b/relu_5x5_reduce
I0403 15:39:30.994289 12184 net.cpp:425] inception_4b/relu_5x5_reduce <- inception_4b/5x5_reduce
I0403 15:39:30.994307 12184 net.cpp:386] inception_4b/relu_5x5_reduce -> inception_4b/5x5_reduce (in-place)
I0403 15:39:30.994496 12184 net.cpp:141] Setting up inception_4b/relu_5x5_reduce
I0403 15:39:30.994523 12184 net.cpp:148] Top shape: 24 24 14 14 (112896)
I0403 15:39:30.994540 12184 net.cpp:156] Memory required for data: 965772576
I0403 15:39:30.994555 12184 layer_factory.hpp:77] Creating layer inception_4b/5x5
I0403 15:39:30.994580 12184 net.cpp:91] Creating Layer inception_4b/5x5
I0403 15:39:30.994599 12184 net.cpp:425] inception_4b/5x5 <- inception_4b/5x5_reduce
I0403 15:39:30.994618 12184 net.cpp:399] inception_4b/5x5 -> inception_4b/5x5
I0403 15:39:30.995857 12184 net.cpp:141] Setting up inception_4b/5x5
I0403 15:39:30.995883 12184 net.cpp:148] Top shape: 24 64 14 14 (301056)
I0403 15:39:30.995899 12184 net.cpp:156] Memory required for data: 966976800
I0403 15:39:30.995918 12184 layer_factory.hpp:77] Creating layer inception_4b/relu_5x5
I0403 15:39:30.995936 12184 net.cpp:91] Creating Layer inception_4b/relu_5x5
I0403 15:39:30.995952 12184 net.cpp:425] inception_4b/relu_5x5 <- inception_4b/5x5
I0403 15:39:30.995972 12184 net.cpp:386] inception_4b/relu_5x5 -> inception_4b/5x5 (in-place)
I0403 15:39:30.996263 12184 net.cpp:141] Setting up inception_4b/relu_5x5
I0403 15:39:30.996289 12184 net.cpp:148] Top shape: 24 64 14 14 (301056)
I0403 15:39:30.996304 12184 net.cpp:156] Memory required for data: 968181024
I0403 15:39:30.996320 12184 layer_factory.hpp:77] Creating layer inception_4b/pool
I0403 15:39:30.996338 12184 net.cpp:91] Creating Layer inception_4b/pool
I0403 15:39:30.996356 12184 net.cpp:425] inception_4b/pool <- inception_4a/output_inception_4a/output_0_split_4
I0403 15:39:30.996376 12184 net.cpp:399] inception_4b/pool -> inception_4b/pool
I0403 15:39:30.996444 12184 net.cpp:141] Setting up inception_4b/pool
I0403 15:39:30.996469 12184 net.cpp:148] Top shape: 24 512 14 14 (2408448)
I0403 15:39:30.996484 12184 net.cpp:156] Memory required for data: 977814816
I0403 15:39:30.996498 12184 layer_factory.hpp:77] Creating layer inception_4b/pool_proj
I0403 15:39:30.996521 12184 net.cpp:91] Creating Layer inception_4b/pool_proj
I0403 15:39:30.996539 12184 net.cpp:425] inception_4b/pool_proj <- inception_4b/pool
I0403 15:39:30.996558 12184 net.cpp:399] inception_4b/pool_proj -> inception_4b/pool_proj
I0403 15:39:30.997756 12184 net.cpp:141] Setting up inception_4b/pool_proj
I0403 15:39:30.997784 12184 net.cpp:148] Top shape: 24 64 14 14 (301056)
I0403 15:39:30.997800 12184 net.cpp:156] Memory required for data: 979019040
I0403 15:39:30.997819 12184 layer_factory.hpp:77] Creating layer inception_4b/relu_pool_proj
I0403 15:39:30.997840 12184 net.cpp:91] Creating Layer inception_4b/relu_pool_proj
I0403 15:39:30.997859 12184 net.cpp:425] inception_4b/relu_pool_proj <- inception_4b/pool_proj
I0403 15:39:30.997876 12184 net.cpp:386] inception_4b/relu_pool_proj -> inception_4b/pool_proj (in-place)
I0403 15:39:30.998059 12184 net.cpp:141] Setting up inception_4b/relu_pool_proj
I0403 15:39:30.998083 12184 net.cpp:148] Top shape: 24 64 14 14 (301056)
I0403 15:39:30.998101 12184 net.cpp:156] Memory required for data: 980223264
I0403 15:39:30.998116 12184 layer_factory.hpp:77] Creating layer inception_4b/output
I0403 15:39:30.998133 12184 net.cpp:91] Creating Layer inception_4b/output
I0403 15:39:30.998148 12184 net.cpp:425] inception_4b/output <- inception_4b/1x1
I0403 15:39:30.998165 12184 net.cpp:425] inception_4b/output <- inception_4b/3x3
I0403 15:39:30.998181 12184 net.cpp:425] inception_4b/output <- inception_4b/5x5
I0403 15:39:30.998196 12184 net.cpp:425] inception_4b/output <- inception_4b/pool_proj
I0403 15:39:30.998214 12184 net.cpp:399] inception_4b/output -> inception_4b/output
I0403 15:39:30.998260 12184 net.cpp:141] Setting up inception_4b/output
I0403 15:39:30.998283 12184 net.cpp:148] Top shape: 24 512 14 14 (2408448)
I0403 15:39:30.998298 12184 net.cpp:156] Memory required for data: 989857056
I0403 15:39:30.998327 12184 layer_factory.hpp:77] Creating layer inception_4b/output_inception_4b/output_0_split
I0403 15:39:30.998345 12184 net.cpp:91] Creating Layer inception_4b/output_inception_4b/output_0_split
I0403 15:39:30.998361 12184 net.cpp:425] inception_4b/output_inception_4b/output_0_split <- inception_4b/output
I0403 15:39:30.998385 12184 net.cpp:399] inception_4b/output_inception_4b/output_0_split -> inception_4b/output_inception_4b/output_0_split_0
I0403 15:39:30.998407 12184 net.cpp:399] inception_4b/output_inception_4b/output_0_split -> inception_4b/output_inception_4b/output_0_split_1
I0403 15:39:30.998428 12184 net.cpp:399] inception_4b/output_inception_4b/output_0_split -> inception_4b/output_inception_4b/output_0_split_2
I0403 15:39:30.998448 12184 net.cpp:399] inception_4b/output_inception_4b/output_0_split -> inception_4b/output_inception_4b/output_0_split_3
I0403 15:39:30.998535 12184 net.cpp:141] Setting up inception_4b/output_inception_4b/output_0_split
I0403 15:39:30.998558 12184 net.cpp:148] Top shape: 24 512 14 14 (2408448)
I0403 15:39:30.998574 12184 net.cpp:148] Top shape: 24 512 14 14 (2408448)
I0403 15:39:30.998590 12184 net.cpp:148] Top shape: 24 512 14 14 (2408448)
I0403 15:39:30.998606 12184 net.cpp:148] Top shape: 24 512 14 14 (2408448)
I0403 15:39:30.998620 12184 net.cpp:156] Memory required for data: 1028392224
I0403 15:39:30.998633 12184 layer_factory.hpp:77] Creating layer inception_4c/1x1
I0403 15:39:30.998656 12184 net.cpp:91] Creating Layer inception_4c/1x1
I0403 15:39:30.998673 12184 net.cpp:425] inception_4c/1x1 <- inception_4b/output_inception_4b/output_0_split_0
I0403 15:39:30.998694 12184 net.cpp:399] inception_4c/1x1 -> inception_4c/1x1
I0403 15:39:31.000121 12184 net.cpp:141] Setting up inception_4c/1x1
I0403 15:39:31.000152 12184 net.cpp:148] Top shape: 24 128 14 14 (602112)
I0403 15:39:31.000169 12184 net.cpp:156] Memory required for data: 1030800672
I0403 15:39:31.000187 12184 layer_factory.hpp:77] Creating layer inception_4c/relu_1x1
I0403 15:39:31.000206 12184 net.cpp:91] Creating Layer inception_4c/relu_1x1
I0403 15:39:31.000222 12184 net.cpp:425] inception_4c/relu_1x1 <- inception_4c/1x1
I0403 15:39:31.000239 12184 net.cpp:386] inception_4c/relu_1x1 -> inception_4c/1x1 (in-place)
I0403 15:39:31.000428 12184 net.cpp:141] Setting up inception_4c/relu_1x1
I0403 15:39:31.000455 12184 net.cpp:148] Top shape: 24 128 14 14 (602112)
I0403 15:39:31.000471 12184 net.cpp:156] Memory required for data: 1033209120
I0403 15:39:31.000486 12184 layer_factory.hpp:77] Creating layer inception_4c/3x3_reduce
I0403 15:39:31.000509 12184 net.cpp:91] Creating Layer inception_4c/3x3_reduce
I0403 15:39:31.000525 12184 net.cpp:425] inception_4c/3x3_reduce <- inception_4b/output_inception_4b/output_0_split_1
I0403 15:39:31.000545 12184 net.cpp:399] inception_4c/3x3_reduce -> inception_4c/3x3_reduce
I0403 15:39:31.002501 12184 net.cpp:141] Setting up inception_4c/3x3_reduce
I0403 15:39:31.002529 12184 net.cpp:148] Top shape: 24 128 14 14 (602112)
I0403 15:39:31.002545 12184 net.cpp:156] Memory required for data: 1035617568
I0403 15:39:31.002563 12184 layer_factory.hpp:77] Creating layer inception_4c/relu_3x3_reduce
I0403 15:39:31.002583 12184 net.cpp:91] Creating Layer inception_4c/relu_3x3_reduce
I0403 15:39:31.002599 12184 net.cpp:425] inception_4c/relu_3x3_reduce <- inception_4c/3x3_reduce
I0403 15:39:31.002619 12184 net.cpp:386] inception_4c/relu_3x3_reduce -> inception_4c/3x3_reduce (in-place)
I0403 15:39:31.002905 12184 net.cpp:141] Setting up inception_4c/relu_3x3_reduce
I0403 15:39:31.002931 12184 net.cpp:148] Top shape: 24 128 14 14 (602112)
I0403 15:39:31.002946 12184 net.cpp:156] Memory required for data: 1038026016
I0403 15:39:31.002961 12184 layer_factory.hpp:77] Creating layer inception_4c/3x3
I0403 15:39:31.002985 12184 net.cpp:91] Creating Layer inception_4c/3x3
I0403 15:39:31.003002 12184 net.cpp:425] inception_4c/3x3 <- inception_4c/3x3_reduce
I0403 15:39:31.003023 12184 net.cpp:399] inception_4c/3x3 -> inception_4c/3x3
I0403 15:39:31.006654 12184 net.cpp:141] Setting up inception_4c/3x3
I0403 15:39:31.006695 12184 net.cpp:148] Top shape: 24 256 14 14 (1204224)
I0403 15:39:31.006711 12184 net.cpp:156] Memory required for data: 1042842912
I0403 15:39:31.006743 12184 layer_factory.hpp:77] Creating layer inception_4c/relu_3x3
I0403 15:39:31.006763 12184 net.cpp:91] Creating Layer inception_4c/relu_3x3
I0403 15:39:31.006780 12184 net.cpp:425] inception_4c/relu_3x3 <- inception_4c/3x3
I0403 15:39:31.006800 12184 net.cpp:386] inception_4c/relu_3x3 -> inception_4c/3x3 (in-place)
I0403 15:39:31.006989 12184 net.cpp:141] Setting up inception_4c/relu_3x3
I0403 15:39:31.007014 12184 net.cpp:148] Top shape: 24 256 14 14 (1204224)
I0403 15:39:31.007030 12184 net.cpp:156] Memory required for data: 1047659808
I0403 15:39:31.007045 12184 layer_factory.hpp:77] Creating layer inception_4c/5x5_reduce
I0403 15:39:31.007066 12184 net.cpp:91] Creating Layer inception_4c/5x5_reduce
I0403 15:39:31.007083 12184 net.cpp:425] inception_4c/5x5_reduce <- inception_4b/output_inception_4b/output_0_split_2
I0403 15:39:31.007104 12184 net.cpp:399] inception_4c/5x5_reduce -> inception_4c/5x5_reduce
I0403 15:39:31.008214 12184 net.cpp:141] Setting up inception_4c/5x5_reduce
I0403 15:39:31.008241 12184 net.cpp:148] Top shape: 24 24 14 14 (112896)
I0403 15:39:31.008257 12184 net.cpp:156] Memory required for data: 1048111392
I0403 15:39:31.008275 12184 layer_factory.hpp:77] Creating layer inception_4c/relu_5x5_reduce
I0403 15:39:31.008296 12184 net.cpp:91] Creating Layer inception_4c/relu_5x5_reduce
I0403 15:39:31.008312 12184 net.cpp:425] inception_4c/relu_5x5_reduce <- inception_4c/5x5_reduce
I0403 15:39:31.008332 12184 net.cpp:386] inception_4c/relu_5x5_reduce -> inception_4c/5x5_reduce (in-place)
I0403 15:39:31.008522 12184 net.cpp:141] Setting up inception_4c/relu_5x5_reduce
I0403 15:39:31.008546 12184 net.cpp:148] Top shape: 24 24 14 14 (112896)
I0403 15:39:31.008561 12184 net.cpp:156] Memory required for data: 1048562976
I0403 15:39:31.008575 12184 layer_factory.hpp:77] Creating layer inception_4c/5x5
I0403 15:39:31.008597 12184 net.cpp:91] Creating Layer inception_4c/5x5
I0403 15:39:31.008616 12184 net.cpp:425] inception_4c/5x5 <- inception_4c/5x5_reduce
I0403 15:39:31.008635 12184 net.cpp:399] inception_4c/5x5 -> inception_4c/5x5
I0403 15:39:31.009887 12184 net.cpp:141] Setting up inception_4c/5x5
I0403 15:39:31.009914 12184 net.cpp:148] Top shape: 24 64 14 14 (301056)
I0403 15:39:31.009930 12184 net.cpp:156] Memory required for data: 1049767200
I0403 15:39:31.009948 12184 layer_factory.hpp:77] Creating layer inception_4c/relu_5x5
I0403 15:39:31.009969 12184 net.cpp:91] Creating Layer inception_4c/relu_5x5
I0403 15:39:31.009985 12184 net.cpp:425] inception_4c/relu_5x5 <- inception_4c/5x5
I0403 15:39:31.010004 12184 net.cpp:386] inception_4c/relu_5x5 -> inception_4c/5x5 (in-place)
I0403 15:39:31.010296 12184 net.cpp:141] Setting up inception_4c/relu_5x5
I0403 15:39:31.010335 12184 net.cpp:148] Top shape: 24 64 14 14 (301056)
I0403 15:39:31.010351 12184 net.cpp:156] Memory required for data: 1050971424
I0403 15:39:31.010382 12184 layer_factory.hpp:77] Creating layer inception_4c/pool
I0403 15:39:31.010406 12184 net.cpp:91] Creating Layer inception_4c/pool
I0403 15:39:31.010423 12184 net.cpp:425] inception_4c/pool <- inception_4b/output_inception_4b/output_0_split_3
I0403 15:39:31.010442 12184 net.cpp:399] inception_4c/pool -> inception_4c/pool
I0403 15:39:31.010514 12184 net.cpp:141] Setting up inception_4c/pool
I0403 15:39:31.010538 12184 net.cpp:148] Top shape: 24 512 14 14 (2408448)
I0403 15:39:31.010555 12184 net.cpp:156] Memory required for data: 1060605216
I0403 15:39:31.010570 12184 layer_factory.hpp:77] Creating layer inception_4c/pool_proj
I0403 15:39:31.010592 12184 net.cpp:91] Creating Layer inception_4c/pool_proj
I0403 15:39:31.010622 12184 net.cpp:425] inception_4c/pool_proj <- inception_4c/pool
I0403 15:39:31.010644 12184 net.cpp:399] inception_4c/pool_proj -> inception_4c/pool_proj
I0403 15:39:31.011886 12184 net.cpp:141] Setting up inception_4c/pool_proj
I0403 15:39:31.011914 12184 net.cpp:148] Top shape: 24 64 14 14 (301056)
I0403 15:39:31.011942 12184 net.cpp:156] Memory required for data: 1061809440
I0403 15:39:31.011961 12184 layer_factory.hpp:77] Creating layer inception_4c/relu_pool_proj
I0403 15:39:31.011981 12184 net.cpp:91] Creating Layer inception_4c/relu_pool_proj
I0403 15:39:31.011996 12184 net.cpp:425] inception_4c/relu_pool_proj <- inception_4c/pool_proj
I0403 15:39:31.012017 12184 net.cpp:386] inception_4c/relu_pool_proj -> inception_4c/pool_proj (in-place)
I0403 15:39:31.012204 12184 net.cpp:141] Setting up inception_4c/relu_pool_proj
I0403 15:39:31.012229 12184 net.cpp:148] Top shape: 24 64 14 14 (301056)
I0403 15:39:31.012244 12184 net.cpp:156] Memory required for data: 1063013664
I0403 15:39:31.012259 12184 layer_factory.hpp:77] Creating layer inception_4c/output
I0403 15:39:31.012277 12184 net.cpp:91] Creating Layer inception_4c/output
I0403 15:39:31.012295 12184 net.cpp:425] inception_4c/output <- inception_4c/1x1
I0403 15:39:31.012310 12184 net.cpp:425] inception_4c/output <- inception_4c/3x3
I0403 15:39:31.012327 12184 net.cpp:425] inception_4c/output <- inception_4c/5x5
I0403 15:39:31.012343 12184 net.cpp:425] inception_4c/output <- inception_4c/pool_proj
I0403 15:39:31.012361 12184 net.cpp:399] inception_4c/output -> inception_4c/output
I0403 15:39:31.012418 12184 net.cpp:141] Setting up inception_4c/output
I0403 15:39:31.012441 12184 net.cpp:148] Top shape: 24 512 14 14 (2408448)
I0403 15:39:31.012456 12184 net.cpp:156] Memory required for data: 1072647456
I0403 15:39:31.012471 12184 layer_factory.hpp:77] Creating layer inception_4c/output_inception_4c/output_0_split
I0403 15:39:31.012488 12184 net.cpp:91] Creating Layer inception_4c/output_inception_4c/output_0_split
I0403 15:39:31.012503 12184 net.cpp:425] inception_4c/output_inception_4c/output_0_split <- inception_4c/output
I0403 15:39:31.012523 12184 net.cpp:399] inception_4c/output_inception_4c/output_0_split -> inception_4c/output_inception_4c/output_0_split_0
I0403 15:39:31.012543 12184 net.cpp:399] inception_4c/output_inception_4c/output_0_split -> inception_4c/output_inception_4c/output_0_split_1
I0403 15:39:31.012563 12184 net.cpp:399] inception_4c/output_inception_4c/output_0_split -> inception_4c/output_inception_4c/output_0_split_2
I0403 15:39:31.012583 12184 net.cpp:399] inception_4c/output_inception_4c/output_0_split -> inception_4c/output_inception_4c/output_0_split_3
I0403 15:39:31.012670 12184 net.cpp:141] Setting up inception_4c/output_inception_4c/output_0_split
I0403 15:39:31.012692 12184 net.cpp:148] Top shape: 24 512 14 14 (2408448)
I0403 15:39:31.012708 12184 net.cpp:148] Top shape: 24 512 14 14 (2408448)
I0403 15:39:31.012724 12184 net.cpp:148] Top shape: 24 512 14 14 (2408448)
I0403 15:39:31.012739 12184 net.cpp:148] Top shape: 24 512 14 14 (2408448)
I0403 15:39:31.012753 12184 net.cpp:156] Memory required for data: 1111182624
I0403 15:39:31.012768 12184 layer_factory.hpp:77] Creating layer inception_4d/1x1
I0403 15:39:31.012790 12184 net.cpp:91] Creating Layer inception_4d/1x1
I0403 15:39:31.012809 12184 net.cpp:425] inception_4d/1x1 <- inception_4c/output_inception_4c/output_0_split_0
I0403 15:39:31.012830 12184 net.cpp:399] inception_4d/1x1 -> inception_4d/1x1
I0403 15:39:31.014248 12184 net.cpp:141] Setting up inception_4d/1x1
I0403 15:39:31.014278 12184 net.cpp:148] Top shape: 24 112 14 14 (526848)
I0403 15:39:31.014294 12184 net.cpp:156] Memory required for data: 1113290016
I0403 15:39:31.014312 12184 layer_factory.hpp:77] Creating layer inception_4d/relu_1x1
I0403 15:39:31.014330 12184 net.cpp:91] Creating Layer inception_4d/relu_1x1
I0403 15:39:31.014345 12184 net.cpp:425] inception_4d/relu_1x1 <- inception_4d/1x1
I0403 15:39:31.014364 12184 net.cpp:386] inception_4d/relu_1x1 -> inception_4d/1x1 (in-place)
I0403 15:39:31.014552 12184 net.cpp:141] Setting up inception_4d/relu_1x1
I0403 15:39:31.014576 12184 net.cpp:148] Top shape: 24 112 14 14 (526848)
I0403 15:39:31.014591 12184 net.cpp:156] Memory required for data: 1115397408
I0403 15:39:31.014605 12184 layer_factory.hpp:77] Creating layer inception_4d/3x3_reduce
I0403 15:39:31.014641 12184 net.cpp:91] Creating Layer inception_4d/3x3_reduce
I0403 15:39:31.014658 12184 net.cpp:425] inception_4d/3x3_reduce <- inception_4c/output_inception_4c/output_0_split_1
I0403 15:39:31.014679 12184 net.cpp:399] inception_4d/3x3_reduce -> inception_4d/3x3_reduce
I0403 15:39:31.016149 12184 net.cpp:141] Setting up inception_4d/3x3_reduce
I0403 15:39:31.016175 12184 net.cpp:148] Top shape: 24 144 14 14 (677376)
I0403 15:39:31.016191 12184 net.cpp:156] Memory required for data: 1118106912
I0403 15:39:31.016208 12184 layer_factory.hpp:77] Creating layer inception_4d/relu_3x3_reduce
I0403 15:39:31.016227 12184 net.cpp:91] Creating Layer inception_4d/relu_3x3_reduce
I0403 15:39:31.016243 12184 net.cpp:425] inception_4d/relu_3x3_reduce <- inception_4d/3x3_reduce
I0403 15:39:31.016260 12184 net.cpp:386] inception_4d/relu_3x3_reduce -> inception_4d/3x3_reduce (in-place)
I0403 15:39:31.016546 12184 net.cpp:141] Setting up inception_4d/relu_3x3_reduce
I0403 15:39:31.016571 12184 net.cpp:148] Top shape: 24 144 14 14 (677376)
I0403 15:39:31.016585 12184 net.cpp:156] Memory required for data: 1120816416
I0403 15:39:31.016600 12184 layer_factory.hpp:77] Creating layer inception_4d/3x3
I0403 15:39:31.016623 12184 net.cpp:91] Creating Layer inception_4d/3x3
I0403 15:39:31.016640 12184 net.cpp:425] inception_4d/3x3 <- inception_4d/3x3_reduce
I0403 15:39:31.016659 12184 net.cpp:399] inception_4d/3x3 -> inception_4d/3x3
I0403 15:39:31.020813 12184 net.cpp:141] Setting up inception_4d/3x3
I0403 15:39:31.020843 12184 net.cpp:148] Top shape: 24 288 14 14 (1354752)
I0403 15:39:31.020859 12184 net.cpp:156] Memory required for data: 1126235424
I0403 15:39:31.020877 12184 layer_factory.hpp:77] Creating layer inception_4d/relu_3x3
I0403 15:39:31.020895 12184 net.cpp:91] Creating Layer inception_4d/relu_3x3
I0403 15:39:31.020911 12184 net.cpp:425] inception_4d/relu_3x3 <- inception_4d/3x3
I0403 15:39:31.020931 12184 net.cpp:386] inception_4d/relu_3x3 -> inception_4d/3x3 (in-place)
I0403 15:39:31.021111 12184 net.cpp:141] Setting up inception_4d/relu_3x3
I0403 15:39:31.021134 12184 net.cpp:148] Top shape: 24 288 14 14 (1354752)
I0403 15:39:31.021149 12184 net.cpp:156] Memory required for data: 1131654432
I0403 15:39:31.021163 12184 layer_factory.hpp:77] Creating layer inception_4d/5x5_reduce
I0403 15:39:31.021184 12184 net.cpp:91] Creating Layer inception_4d/5x5_reduce
I0403 15:39:31.021203 12184 net.cpp:425] inception_4d/5x5_reduce <- inception_4c/output_inception_4c/output_0_split_2
I0403 15:39:31.021222 12184 net.cpp:399] inception_4d/5x5_reduce -> inception_4d/5x5_reduce
I0403 15:39:31.022354 12184 net.cpp:141] Setting up inception_4d/5x5_reduce
I0403 15:39:31.022389 12184 net.cpp:148] Top shape: 24 32 14 14 (150528)
I0403 15:39:31.022408 12184 net.cpp:156] Memory required for data: 1132256544
I0403 15:39:31.022425 12184 layer_factory.hpp:77] Creating layer inception_4d/relu_5x5_reduce
I0403 15:39:31.022442 12184 net.cpp:91] Creating Layer inception_4d/relu_5x5_reduce
I0403 15:39:31.022459 12184 net.cpp:425] inception_4d/relu_5x5_reduce <- inception_4d/5x5_reduce
I0403 15:39:31.022477 12184 net.cpp:386] inception_4d/relu_5x5_reduce -> inception_4d/5x5_reduce (in-place)
I0403 15:39:31.022662 12184 net.cpp:141] Setting up inception_4d/relu_5x5_reduce
I0403 15:39:31.022686 12184 net.cpp:148] Top shape: 24 32 14 14 (150528)
I0403 15:39:31.022701 12184 net.cpp:156] Memory required for data: 1132858656
I0403 15:39:31.022716 12184 layer_factory.hpp:77] Creating layer inception_4d/5x5
I0403 15:39:31.022737 12184 net.cpp:91] Creating Layer inception_4d/5x5
I0403 15:39:31.022754 12184 net.cpp:425] inception_4d/5x5 <- inception_4d/5x5_reduce
I0403 15:39:31.022775 12184 net.cpp:399] inception_4d/5x5 -> inception_4d/5x5
I0403 15:39:31.024219 12184 net.cpp:141] Setting up inception_4d/5x5
I0403 15:39:31.024246 12184 net.cpp:148] Top shape: 24 64 14 14 (301056)
I0403 15:39:31.024261 12184 net.cpp:156] Memory required for data: 1134062880
I0403 15:39:31.024279 12184 layer_factory.hpp:77] Creating layer inception_4d/relu_5x5
I0403 15:39:31.024313 12184 net.cpp:91] Creating Layer inception_4d/relu_5x5
I0403 15:39:31.024333 12184 net.cpp:425] inception_4d/relu_5x5 <- inception_4d/5x5
I0403 15:39:31.024349 12184 net.cpp:386] inception_4d/relu_5x5 -> inception_4d/5x5 (in-place)
I0403 15:39:31.024669 12184 net.cpp:141] Setting up inception_4d/relu_5x5
I0403 15:39:31.024695 12184 net.cpp:148] Top shape: 24 64 14 14 (301056)
I0403 15:39:31.024710 12184 net.cpp:156] Memory required for data: 1135267104
I0403 15:39:31.024724 12184 layer_factory.hpp:77] Creating layer inception_4d/pool
I0403 15:39:31.024744 12184 net.cpp:91] Creating Layer inception_4d/pool
I0403 15:39:31.024761 12184 net.cpp:425] inception_4d/pool <- inception_4c/output_inception_4c/output_0_split_3
I0403 15:39:31.024780 12184 net.cpp:399] inception_4d/pool -> inception_4d/pool
I0403 15:39:31.024843 12184 net.cpp:141] Setting up inception_4d/pool
I0403 15:39:31.024868 12184 net.cpp:148] Top shape: 24 512 14 14 (2408448)
I0403 15:39:31.024881 12184 net.cpp:156] Memory required for data: 1144900896
I0403 15:39:31.024895 12184 layer_factory.hpp:77] Creating layer inception_4d/pool_proj
I0403 15:39:31.024916 12184 net.cpp:91] Creating Layer inception_4d/pool_proj
I0403 15:39:31.024933 12184 net.cpp:425] inception_4d/pool_proj <- inception_4d/pool
I0403 15:39:31.024953 12184 net.cpp:399] inception_4d/pool_proj -> inception_4d/pool_proj
I0403 15:39:31.026670 12184 net.cpp:141] Setting up inception_4d/pool_proj
I0403 15:39:31.026700 12184 net.cpp:148] Top shape: 24 64 14 14 (301056)
I0403 15:39:31.026716 12184 net.cpp:156] Memory required for data: 1146105120
I0403 15:39:31.026736 12184 layer_factory.hpp:77] Creating layer inception_4d/relu_pool_proj
I0403 15:39:31.026753 12184 net.cpp:91] Creating Layer inception_4d/relu_pool_proj
I0403 15:39:31.026769 12184 net.cpp:425] inception_4d/relu_pool_proj <- inception_4d/pool_proj
I0403 15:39:31.026788 12184 net.cpp:386] inception_4d/relu_pool_proj -> inception_4d/pool_proj (in-place)
I0403 15:39:31.026969 12184 net.cpp:141] Setting up inception_4d/relu_pool_proj
I0403 15:39:31.026994 12184 net.cpp:148] Top shape: 24 64 14 14 (301056)
I0403 15:39:31.027009 12184 net.cpp:156] Memory required for data: 1147309344
I0403 15:39:31.027022 12184 layer_factory.hpp:77] Creating layer inception_4d/output
I0403 15:39:31.027039 12184 net.cpp:91] Creating Layer inception_4d/output
I0403 15:39:31.027053 12184 net.cpp:425] inception_4d/output <- inception_4d/1x1
I0403 15:39:31.027070 12184 net.cpp:425] inception_4d/output <- inception_4d/3x3
I0403 15:39:31.027086 12184 net.cpp:425] inception_4d/output <- inception_4d/5x5
I0403 15:39:31.027101 12184 net.cpp:425] inception_4d/output <- inception_4d/pool_proj
I0403 15:39:31.027120 12184 net.cpp:399] inception_4d/output -> inception_4d/output
I0403 15:39:31.027169 12184 net.cpp:141] Setting up inception_4d/output
I0403 15:39:31.027191 12184 net.cpp:148] Top shape: 24 528 14 14 (2483712)
I0403 15:39:31.027206 12184 net.cpp:156] Memory required for data: 1157244192
I0403 15:39:31.027220 12184 layer_factory.hpp:77] Creating layer inception_4d/output_inception_4d/output_0_split
I0403 15:39:31.027237 12184 net.cpp:91] Creating Layer inception_4d/output_inception_4d/output_0_split
I0403 15:39:31.027252 12184 net.cpp:425] inception_4d/output_inception_4d/output_0_split <- inception_4d/output
I0403 15:39:31.027272 12184 net.cpp:399] inception_4d/output_inception_4d/output_0_split -> inception_4d/output_inception_4d/output_0_split_0
I0403 15:39:31.027293 12184 net.cpp:399] inception_4d/output_inception_4d/output_0_split -> inception_4d/output_inception_4d/output_0_split_1
I0403 15:39:31.027313 12184 net.cpp:399] inception_4d/output_inception_4d/output_0_split -> inception_4d/output_inception_4d/output_0_split_2
I0403 15:39:31.027335 12184 net.cpp:399] inception_4d/output_inception_4d/output_0_split -> inception_4d/output_inception_4d/output_0_split_3
I0403 15:39:31.027355 12184 net.cpp:399] inception_4d/output_inception_4d/output_0_split -> inception_4d/output_inception_4d/output_0_split_4
I0403 15:39:31.027458 12184 net.cpp:141] Setting up inception_4d/output_inception_4d/output_0_split
I0403 15:39:31.027495 12184 net.cpp:148] Top shape: 24 528 14 14 (2483712)
I0403 15:39:31.027513 12184 net.cpp:148] Top shape: 24 528 14 14 (2483712)
I0403 15:39:31.027529 12184 net.cpp:148] Top shape: 24 528 14 14 (2483712)
I0403 15:39:31.027544 12184 net.cpp:148] Top shape: 24 528 14 14 (2483712)
I0403 15:39:31.027559 12184 net.cpp:148] Top shape: 24 528 14 14 (2483712)
I0403 15:39:31.027571 12184 net.cpp:156] Memory required for data: 1206918432
I0403 15:39:31.027585 12184 layer_factory.hpp:77] Creating layer loss2/ave_pool
I0403 15:39:31.027603 12184 net.cpp:91] Creating Layer loss2/ave_pool
I0403 15:39:31.027618 12184 net.cpp:425] loss2/ave_pool <- inception_4d/output_inception_4d/output_0_split_0
I0403 15:39:31.027639 12184 net.cpp:399] loss2/ave_pool -> loss2/ave_pool
I0403 15:39:31.027947 12184 net.cpp:141] Setting up loss2/ave_pool
I0403 15:39:31.027976 12184 net.cpp:148] Top shape: 24 528 4 4 (202752)
I0403 15:39:31.027992 12184 net.cpp:156] Memory required for data: 1207729440
I0403 15:39:31.028005 12184 layer_factory.hpp:77] Creating layer loss2/conv
I0403 15:39:31.028026 12184 net.cpp:91] Creating Layer loss2/conv
I0403 15:39:31.028043 12184 net.cpp:425] loss2/conv <- loss2/ave_pool
I0403 15:39:31.028061 12184 net.cpp:399] loss2/conv -> loss2/conv
I0403 15:39:31.029906 12184 net.cpp:141] Setting up loss2/conv
I0403 15:39:31.029933 12184 net.cpp:148] Top shape: 24 128 4 4 (49152)
I0403 15:39:31.029948 12184 net.cpp:156] Memory required for data: 1207926048
I0403 15:39:31.029965 12184 layer_factory.hpp:77] Creating layer loss2/relu_conv
I0403 15:39:31.029985 12184 net.cpp:91] Creating Layer loss2/relu_conv
I0403 15:39:31.030004 12184 net.cpp:425] loss2/relu_conv <- loss2/conv
I0403 15:39:31.030020 12184 net.cpp:386] loss2/relu_conv -> loss2/conv (in-place)
I0403 15:39:31.030313 12184 net.cpp:141] Setting up loss2/relu_conv
I0403 15:39:31.030339 12184 net.cpp:148] Top shape: 24 128 4 4 (49152)
I0403 15:39:31.030354 12184 net.cpp:156] Memory required for data: 1208122656
I0403 15:39:31.030369 12184 layer_factory.hpp:77] Creating layer loss2/fc
I0403 15:39:31.030407 12184 net.cpp:91] Creating Layer loss2/fc
I0403 15:39:31.030426 12184 net.cpp:425] loss2/fc <- loss2/conv
I0403 15:39:31.030449 12184 net.cpp:399] loss2/fc -> loss2/fc
I0403 15:39:31.048387 12184 net.cpp:141] Setting up loss2/fc
I0403 15:39:31.048434 12184 net.cpp:148] Top shape: 24 1024 (24576)
I0403 15:39:31.048451 12184 net.cpp:156] Memory required for data: 1208220960
I0403 15:39:31.048470 12184 layer_factory.hpp:77] Creating layer loss2/relu_fc
I0403 15:39:31.048491 12184 net.cpp:91] Creating Layer loss2/relu_fc
I0403 15:39:31.048509 12184 net.cpp:425] loss2/relu_fc <- loss2/fc
I0403 15:39:31.048530 12184 net.cpp:386] loss2/relu_fc -> loss2/fc (in-place)
I0403 15:39:31.048863 12184 net.cpp:141] Setting up loss2/relu_fc
I0403 15:39:31.048889 12184 net.cpp:148] Top shape: 24 1024 (24576)
I0403 15:39:31.048905 12184 net.cpp:156] Memory required for data: 1208319264
I0403 15:39:31.048930 12184 layer_factory.hpp:77] Creating layer loss2/drop_fc
I0403 15:39:31.048949 12184 net.cpp:91] Creating Layer loss2/drop_fc
I0403 15:39:31.048964 12184 net.cpp:425] loss2/drop_fc <- loss2/fc
I0403 15:39:31.048985 12184 net.cpp:386] loss2/drop_fc -> loss2/fc (in-place)
I0403 15:39:31.049033 12184 net.cpp:141] Setting up loss2/drop_fc
I0403 15:39:31.049059 12184 net.cpp:148] Top shape: 24 1024 (24576)
I0403 15:39:31.049075 12184 net.cpp:156] Memory required for data: 1208417568
I0403 15:39:31.049090 12184 layer_factory.hpp:77] Creating layer loss2/classifier_plantvillage
I0403 15:39:31.049108 12184 net.cpp:91] Creating Layer loss2/classifier_plantvillage
I0403 15:39:31.049124 12184 net.cpp:425] loss2/classifier_plantvillage <- loss2/fc
I0403 15:39:31.049146 12184 net.cpp:399] loss2/classifier_plantvillage -> loss2/classifier_plantvillage
I0403 15:39:31.049561 12184 net.cpp:141] Setting up loss2/classifier_plantvillage
I0403 15:39:31.049587 12184 net.cpp:148] Top shape: 24 38 (912)
I0403 15:39:31.049618 12184 net.cpp:156] Memory required for data: 1208421216
I0403 15:39:31.049636 12184 layer_factory.hpp:77] Creating layer loss2/classifier_plantvillage_loss2/classifier_plantvillage_0_split
I0403 15:39:31.049657 12184 net.cpp:91] Creating Layer loss2/classifier_plantvillage_loss2/classifier_plantvillage_0_split
I0403 15:39:31.049674 12184 net.cpp:425] loss2/classifier_plantvillage_loss2/classifier_plantvillage_0_split <- loss2/classifier_plantvillage
I0403 15:39:31.049692 12184 net.cpp:399] loss2/classifier_plantvillage_loss2/classifier_plantvillage_0_split -> loss2/classifier_plantvillage_loss2/classifier_plantvillage_0_split_0
I0403 15:39:31.049712 12184 net.cpp:399] loss2/classifier_plantvillage_loss2/classifier_plantvillage_0_split -> loss2/classifier_plantvillage_loss2/classifier_plantvillage_0_split_1
I0403 15:39:31.049736 12184 net.cpp:399] loss2/classifier_plantvillage_loss2/classifier_plantvillage_0_split -> loss2/classifier_plantvillage_loss2/classifier_plantvillage_0_split_2
I0403 15:39:31.049813 12184 net.cpp:141] Setting up loss2/classifier_plantvillage_loss2/classifier_plantvillage_0_split
I0403 15:39:31.049836 12184 net.cpp:148] Top shape: 24 38 (912)
I0403 15:39:31.049852 12184 net.cpp:148] Top shape: 24 38 (912)
I0403 15:39:31.049868 12184 net.cpp:148] Top shape: 24 38 (912)
I0403 15:39:31.049882 12184 net.cpp:156] Memory required for data: 1208432160
I0403 15:39:31.049896 12184 layer_factory.hpp:77] Creating layer inception_4e/1x1
I0403 15:39:31.049918 12184 net.cpp:91] Creating Layer inception_4e/1x1
I0403 15:39:31.049937 12184 net.cpp:425] inception_4e/1x1 <- inception_4d/output_inception_4d/output_0_split_1
I0403 15:39:31.049955 12184 net.cpp:399] inception_4e/1x1 -> inception_4e/1x1
I0403 15:39:31.051800 12184 net.cpp:141] Setting up inception_4e/1x1
I0403 15:39:31.051827 12184 net.cpp:148] Top shape: 24 256 14 14 (1204224)
I0403 15:39:31.051843 12184 net.cpp:156] Memory required for data: 1213249056
I0403 15:39:31.051862 12184 layer_factory.hpp:77] Creating layer inception_4e/relu_1x1
I0403 15:39:31.051882 12184 net.cpp:91] Creating Layer inception_4e/relu_1x1
I0403 15:39:31.051899 12184 net.cpp:425] inception_4e/relu_1x1 <- inception_4e/1x1
I0403 15:39:31.051916 12184 net.cpp:386] inception_4e/relu_1x1 -> inception_4e/1x1 (in-place)
I0403 15:39:31.052220 12184 net.cpp:141] Setting up inception_4e/relu_1x1
I0403 15:39:31.052247 12184 net.cpp:148] Top shape: 24 256 14 14 (1204224)
I0403 15:39:31.052263 12184 net.cpp:156] Memory required for data: 1218065952
I0403 15:39:31.052278 12184 layer_factory.hpp:77] Creating layer inception_4e/3x3_reduce
I0403 15:39:31.052299 12184 net.cpp:91] Creating Layer inception_4e/3x3_reduce
I0403 15:39:31.052316 12184 net.cpp:425] inception_4e/3x3_reduce <- inception_4d/output_inception_4d/output_0_split_2
I0403 15:39:31.052340 12184 net.cpp:399] inception_4e/3x3_reduce -> inception_4e/3x3_reduce
I0403 15:39:31.054507 12184 net.cpp:141] Setting up inception_4e/3x3_reduce
I0403 15:39:31.054535 12184 net.cpp:148] Top shape: 24 160 14 14 (752640)
I0403 15:39:31.054551 12184 net.cpp:156] Memory required for data: 1221076512
I0403 15:39:31.054569 12184 layer_factory.hpp:77] Creating layer inception_4e/relu_3x3_reduce
I0403 15:39:31.054590 12184 net.cpp:91] Creating Layer inception_4e/relu_3x3_reduce
I0403 15:39:31.054607 12184 net.cpp:425] inception_4e/relu_3x3_reduce <- inception_4e/3x3_reduce
I0403 15:39:31.054625 12184 net.cpp:386] inception_4e/relu_3x3_reduce -> inception_4e/3x3_reduce (in-place)
I0403 15:39:31.054811 12184 net.cpp:141] Setting up inception_4e/relu_3x3_reduce
I0403 15:39:31.054838 12184 net.cpp:148] Top shape: 24 160 14 14 (752640)
I0403 15:39:31.054854 12184 net.cpp:156] Memory required for data: 1224087072
I0403 15:39:31.054869 12184 layer_factory.hpp:77] Creating layer inception_4e/3x3
I0403 15:39:31.054889 12184 net.cpp:91] Creating Layer inception_4e/3x3
I0403 15:39:31.054905 12184 net.cpp:425] inception_4e/3x3 <- inception_4e/3x3_reduce
I0403 15:39:31.054926 12184 net.cpp:399] inception_4e/3x3 -> inception_4e/3x3
I0403 15:39:31.059939 12184 net.cpp:141] Setting up inception_4e/3x3
I0403 15:39:31.059985 12184 net.cpp:148] Top shape: 24 320 14 14 (1505280)
I0403 15:39:31.060003 12184 net.cpp:156] Memory required for data: 1230108192
I0403 15:39:31.060021 12184 layer_factory.hpp:77] Creating layer inception_4e/relu_3x3
I0403 15:39:31.060039 12184 net.cpp:91] Creating Layer inception_4e/relu_3x3
I0403 15:39:31.060056 12184 net.cpp:425] inception_4e/relu_3x3 <- inception_4e/3x3
I0403 15:39:31.060073 12184 net.cpp:386] inception_4e/relu_3x3 -> inception_4e/3x3 (in-place)
I0403 15:39:31.060375 12184 net.cpp:141] Setting up inception_4e/relu_3x3
I0403 15:39:31.060406 12184 net.cpp:148] Top shape: 24 320 14 14 (1505280)
I0403 15:39:31.060422 12184 net.cpp:156] Memory required for data: 1236129312
I0403 15:39:31.060437 12184 layer_factory.hpp:77] Creating layer inception_4e/5x5_reduce
I0403 15:39:31.060461 12184 net.cpp:91] Creating Layer inception_4e/5x5_reduce
I0403 15:39:31.060479 12184 net.cpp:425] inception_4e/5x5_reduce <- inception_4d/output_inception_4d/output_0_split_3
I0403 15:39:31.060502 12184 net.cpp:399] inception_4e/5x5_reduce -> inception_4e/5x5_reduce
I0403 15:39:31.061588 12184 net.cpp:141] Setting up inception_4e/5x5_reduce
I0403 15:39:31.061614 12184 net.cpp:148] Top shape: 24 32 14 14 (150528)
I0403 15:39:31.061630 12184 net.cpp:156] Memory required for data: 1236731424
I0403 15:39:31.061648 12184 layer_factory.hpp:77] Creating layer inception_4e/relu_5x5_reduce
I0403 15:39:31.061668 12184 net.cpp:91] Creating Layer inception_4e/relu_5x5_reduce
I0403 15:39:31.061686 12184 net.cpp:425] inception_4e/relu_5x5_reduce <- inception_4e/5x5_reduce
I0403 15:39:31.061703 12184 net.cpp:386] inception_4e/relu_5x5_reduce -> inception_4e/5x5_reduce (in-place)
I0403 15:39:31.062006 12184 net.cpp:141] Setting up inception_4e/relu_5x5_reduce
I0403 15:39:31.062032 12184 net.cpp:148] Top shape: 24 32 14 14 (150528)
I0403 15:39:31.062047 12184 net.cpp:156] Memory required for data: 1237333536
I0403 15:39:31.062062 12184 layer_factory.hpp:77] Creating layer inception_4e/5x5
I0403 15:39:31.062101 12184 net.cpp:91] Creating Layer inception_4e/5x5
I0403 15:39:31.062120 12184 net.cpp:425] inception_4e/5x5 <- inception_4e/5x5_reduce
I0403 15:39:31.062140 12184 net.cpp:399] inception_4e/5x5 -> inception_4e/5x5
I0403 15:39:31.064007 12184 net.cpp:141] Setting up inception_4e/5x5
I0403 15:39:31.064035 12184 net.cpp:148] Top shape: 24 128 14 14 (602112)
I0403 15:39:31.064051 12184 net.cpp:156] Memory required for data: 1239741984
I0403 15:39:31.064069 12184 layer_factory.hpp:77] Creating layer inception_4e/relu_5x5
I0403 15:39:31.064087 12184 net.cpp:91] Creating Layer inception_4e/relu_5x5
I0403 15:39:31.064107 12184 net.cpp:425] inception_4e/relu_5x5 <- inception_4e/5x5
I0403 15:39:31.064126 12184 net.cpp:386] inception_4e/relu_5x5 -> inception_4e/5x5 (in-place)
I0403 15:39:31.064322 12184 net.cpp:141] Setting up inception_4e/relu_5x5
I0403 15:39:31.064347 12184 net.cpp:148] Top shape: 24 128 14 14 (602112)
I0403 15:39:31.064362 12184 net.cpp:156] Memory required for data: 1242150432
I0403 15:39:31.064376 12184 layer_factory.hpp:77] Creating layer inception_4e/pool
I0403 15:39:31.064401 12184 net.cpp:91] Creating Layer inception_4e/pool
I0403 15:39:31.064419 12184 net.cpp:425] inception_4e/pool <- inception_4d/output_inception_4d/output_0_split_4
I0403 15:39:31.064437 12184 net.cpp:399] inception_4e/pool -> inception_4e/pool
I0403 15:39:31.064507 12184 net.cpp:141] Setting up inception_4e/pool
I0403 15:39:31.064532 12184 net.cpp:148] Top shape: 24 528 14 14 (2483712)
I0403 15:39:31.064546 12184 net.cpp:156] Memory required for data: 1252085280
I0403 15:39:31.064560 12184 layer_factory.hpp:77] Creating layer inception_4e/pool_proj
I0403 15:39:31.064584 12184 net.cpp:91] Creating Layer inception_4e/pool_proj
I0403 15:39:31.064600 12184 net.cpp:425] inception_4e/pool_proj <- inception_4e/pool
I0403 15:39:31.064621 12184 net.cpp:399] inception_4e/pool_proj -> inception_4e/pool_proj
I0403 15:39:31.066143 12184 net.cpp:141] Setting up inception_4e/pool_proj
I0403 15:39:31.066184 12184 net.cpp:148] Top shape: 24 128 14 14 (602112)
I0403 15:39:31.066201 12184 net.cpp:156] Memory required for data: 1254493728
I0403 15:39:31.066220 12184 layer_factory.hpp:77] Creating layer inception_4e/relu_pool_proj
I0403 15:39:31.066237 12184 net.cpp:91] Creating Layer inception_4e/relu_pool_proj
I0403 15:39:31.066254 12184 net.cpp:425] inception_4e/relu_pool_proj <- inception_4e/pool_proj
I0403 15:39:31.066273 12184 net.cpp:386] inception_4e/relu_pool_proj -> inception_4e/pool_proj (in-place)
I0403 15:39:31.066579 12184 net.cpp:141] Setting up inception_4e/relu_pool_proj
I0403 15:39:31.066608 12184 net.cpp:148] Top shape: 24 128 14 14 (602112)
I0403 15:39:31.066623 12184 net.cpp:156] Memory required for data: 1256902176
I0403 15:39:31.066638 12184 layer_factory.hpp:77] Creating layer inception_4e/output
I0403 15:39:31.066656 12184 net.cpp:91] Creating Layer inception_4e/output
I0403 15:39:31.066673 12184 net.cpp:425] inception_4e/output <- inception_4e/1x1
I0403 15:39:31.066689 12184 net.cpp:425] inception_4e/output <- inception_4e/3x3
I0403 15:39:31.066704 12184 net.cpp:425] inception_4e/output <- inception_4e/5x5
I0403 15:39:31.066720 12184 net.cpp:425] inception_4e/output <- inception_4e/pool_proj
I0403 15:39:31.066740 12184 net.cpp:399] inception_4e/output -> inception_4e/output
I0403 15:39:31.066789 12184 net.cpp:141] Setting up inception_4e/output
I0403 15:39:31.066812 12184 net.cpp:148] Top shape: 24 832 14 14 (3913728)
I0403 15:39:31.066828 12184 net.cpp:156] Memory required for data: 1272557088
I0403 15:39:31.066843 12184 layer_factory.hpp:77] Creating layer pool4/3x3_s2
I0403 15:39:31.066861 12184 net.cpp:91] Creating Layer pool4/3x3_s2
I0403 15:39:31.066879 12184 net.cpp:425] pool4/3x3_s2 <- inception_4e/output
I0403 15:39:31.066898 12184 net.cpp:399] pool4/3x3_s2 -> pool4/3x3_s2
I0403 15:39:31.066967 12184 net.cpp:141] Setting up pool4/3x3_s2
I0403 15:39:31.066990 12184 net.cpp:148] Top shape: 24 832 7 7 (978432)
I0403 15:39:31.067005 12184 net.cpp:156] Memory required for data: 1276470816
I0403 15:39:31.067019 12184 layer_factory.hpp:77] Creating layer pool4/3x3_s2_pool4/3x3_s2_0_split
I0403 15:39:31.067039 12184 net.cpp:91] Creating Layer pool4/3x3_s2_pool4/3x3_s2_0_split
I0403 15:39:31.067055 12184 net.cpp:425] pool4/3x3_s2_pool4/3x3_s2_0_split <- pool4/3x3_s2
I0403 15:39:31.067073 12184 net.cpp:399] pool4/3x3_s2_pool4/3x3_s2_0_split -> pool4/3x3_s2_pool4/3x3_s2_0_split_0
I0403 15:39:31.067093 12184 net.cpp:399] pool4/3x3_s2_pool4/3x3_s2_0_split -> pool4/3x3_s2_pool4/3x3_s2_0_split_1
I0403 15:39:31.067113 12184 net.cpp:399] pool4/3x3_s2_pool4/3x3_s2_0_split -> pool4/3x3_s2_pool4/3x3_s2_0_split_2
I0403 15:39:31.067133 12184 net.cpp:399] pool4/3x3_s2_pool4/3x3_s2_0_split -> pool4/3x3_s2_pool4/3x3_s2_0_split_3
I0403 15:39:31.067225 12184 net.cpp:141] Setting up pool4/3x3_s2_pool4/3x3_s2_0_split
I0403 15:39:31.067248 12184 net.cpp:148] Top shape: 24 832 7 7 (978432)
I0403 15:39:31.067265 12184 net.cpp:148] Top shape: 24 832 7 7 (978432)
I0403 15:39:31.067281 12184 net.cpp:148] Top shape: 24 832 7 7 (978432)
I0403 15:39:31.067296 12184 net.cpp:148] Top shape: 24 832 7 7 (978432)
I0403 15:39:31.067311 12184 net.cpp:156] Memory required for data: 1292125728
I0403 15:39:31.067327 12184 layer_factory.hpp:77] Creating layer inception_5a/1x1
I0403 15:39:31.067349 12184 net.cpp:91] Creating Layer inception_5a/1x1
I0403 15:39:31.067368 12184 net.cpp:425] inception_5a/1x1 <- pool4/3x3_s2_pool4/3x3_s2_0_split_0
I0403 15:39:31.067394 12184 net.cpp:399] inception_5a/1x1 -> inception_5a/1x1
I0403 15:39:31.070307 12184 net.cpp:141] Setting up inception_5a/1x1
I0403 15:39:31.070338 12184 net.cpp:148] Top shape: 24 256 7 7 (301056)
I0403 15:39:31.070353 12184 net.cpp:156] Memory required for data: 1293329952
I0403 15:39:31.070371 12184 layer_factory.hpp:77] Creating layer inception_5a/relu_1x1
I0403 15:39:31.070396 12184 net.cpp:91] Creating Layer inception_5a/relu_1x1
I0403 15:39:31.070413 12184 net.cpp:425] inception_5a/relu_1x1 <- inception_5a/1x1
I0403 15:39:31.070430 12184 net.cpp:386] inception_5a/relu_1x1 -> inception_5a/1x1 (in-place)
I0403 15:39:31.070750 12184 net.cpp:141] Setting up inception_5a/relu_1x1
I0403 15:39:31.070776 12184 net.cpp:148] Top shape: 24 256 7 7 (301056)
I0403 15:39:31.070791 12184 net.cpp:156] Memory required for data: 1294534176
I0403 15:39:31.070806 12184 layer_factory.hpp:77] Creating layer inception_5a/3x3_reduce
I0403 15:39:31.070828 12184 net.cpp:91] Creating Layer inception_5a/3x3_reduce
I0403 15:39:31.070845 12184 net.cpp:425] inception_5a/3x3_reduce <- pool4/3x3_s2_pool4/3x3_s2_0_split_1
I0403 15:39:31.070868 12184 net.cpp:399] inception_5a/3x3_reduce -> inception_5a/3x3_reduce
I0403 15:39:31.073388 12184 net.cpp:141] Setting up inception_5a/3x3_reduce
I0403 15:39:31.073426 12184 net.cpp:148] Top shape: 24 160 7 7 (188160)
I0403 15:39:31.073443 12184 net.cpp:156] Memory required for data: 1295286816
I0403 15:39:31.073462 12184 layer_factory.hpp:77] Creating layer inception_5a/relu_3x3_reduce
I0403 15:39:31.073482 12184 net.cpp:91] Creating Layer inception_5a/relu_3x3_reduce
I0403 15:39:31.073498 12184 net.cpp:425] inception_5a/relu_3x3_reduce <- inception_5a/3x3_reduce
I0403 15:39:31.073518 12184 net.cpp:386] inception_5a/relu_3x3_reduce -> inception_5a/3x3_reduce (in-place)
I0403 15:39:31.073720 12184 net.cpp:141] Setting up inception_5a/relu_3x3_reduce
I0403 15:39:31.073745 12184 net.cpp:148] Top shape: 24 160 7 7 (188160)
I0403 15:39:31.073760 12184 net.cpp:156] Memory required for data: 1296039456
I0403 15:39:31.073775 12184 layer_factory.hpp:77] Creating layer inception_5a/3x3
I0403 15:39:31.073796 12184 net.cpp:91] Creating Layer inception_5a/3x3
I0403 15:39:31.073814 12184 net.cpp:425] inception_5a/3x3 <- inception_5a/3x3_reduce
I0403 15:39:31.073837 12184 net.cpp:399] inception_5a/3x3 -> inception_5a/3x3
I0403 15:39:31.078948 12184 net.cpp:141] Setting up inception_5a/3x3
I0403 15:39:31.078979 12184 net.cpp:148] Top shape: 24 320 7 7 (376320)
I0403 15:39:31.078995 12184 net.cpp:156] Memory required for data: 1297544736
I0403 15:39:31.079013 12184 layer_factory.hpp:77] Creating layer inception_5a/relu_3x3
I0403 15:39:31.079035 12184 net.cpp:91] Creating Layer inception_5a/relu_3x3
I0403 15:39:31.079054 12184 net.cpp:425] inception_5a/relu_3x3 <- inception_5a/3x3
I0403 15:39:31.079072 12184 net.cpp:386] inception_5a/relu_3x3 -> inception_5a/3x3 (in-place)
I0403 15:39:31.079370 12184 net.cpp:141] Setting up inception_5a/relu_3x3
I0403 15:39:31.079401 12184 net.cpp:148] Top shape: 24 320 7 7 (376320)
I0403 15:39:31.079416 12184 net.cpp:156] Memory required for data: 1299050016
I0403 15:39:31.079432 12184 layer_factory.hpp:77] Creating layer inception_5a/5x5_reduce
I0403 15:39:31.079454 12184 net.cpp:91] Creating Layer inception_5a/5x5_reduce
I0403 15:39:31.079471 12184 net.cpp:425] inception_5a/5x5_reduce <- pool4/3x3_s2_pool4/3x3_s2_0_split_2
I0403 15:39:31.079495 12184 net.cpp:399] inception_5a/5x5_reduce -> inception_5a/5x5_reduce
I0403 15:39:31.080684 12184 net.cpp:141] Setting up inception_5a/5x5_reduce
I0403 15:39:31.080713 12184 net.cpp:148] Top shape: 24 32 7 7 (37632)
I0403 15:39:31.080729 12184 net.cpp:156] Memory required for data: 1299200544
I0403 15:39:31.080747 12184 layer_factory.hpp:77] Creating layer inception_5a/relu_5x5_reduce
I0403 15:39:31.080768 12184 net.cpp:91] Creating Layer inception_5a/relu_5x5_reduce
I0403 15:39:31.080785 12184 net.cpp:425] inception_5a/relu_5x5_reduce <- inception_5a/5x5_reduce
I0403 15:39:31.080803 12184 net.cpp:386] inception_5a/relu_5x5_reduce -> inception_5a/5x5_reduce (in-place)
I0403 15:39:31.081112 12184 net.cpp:141] Setting up inception_5a/relu_5x5_reduce
I0403 15:39:31.081137 12184 net.cpp:148] Top shape: 24 32 7 7 (37632)
I0403 15:39:31.081152 12184 net.cpp:156] Memory required for data: 1299351072
I0403 15:39:31.081167 12184 layer_factory.hpp:77] Creating layer inception_5a/5x5
I0403 15:39:31.081189 12184 net.cpp:91] Creating Layer inception_5a/5x5
I0403 15:39:31.081207 12184 net.cpp:425] inception_5a/5x5 <- inception_5a/5x5_reduce
I0403 15:39:31.081229 12184 net.cpp:399] inception_5a/5x5 -> inception_5a/5x5
I0403 15:39:31.082976 12184 net.cpp:141] Setting up inception_5a/5x5
I0403 15:39:31.083016 12184 net.cpp:148] Top shape: 24 128 7 7 (150528)
I0403 15:39:31.083032 12184 net.cpp:156] Memory required for data: 1299953184
I0403 15:39:31.083050 12184 layer_factory.hpp:77] Creating layer inception_5a/relu_5x5
I0403 15:39:31.083070 12184 net.cpp:91] Creating Layer inception_5a/relu_5x5
I0403 15:39:31.083086 12184 net.cpp:425] inception_5a/relu_5x5 <- inception_5a/5x5
I0403 15:39:31.083103 12184 net.cpp:386] inception_5a/relu_5x5 -> inception_5a/5x5 (in-place)
I0403 15:39:31.083292 12184 net.cpp:141] Setting up inception_5a/relu_5x5
I0403 15:39:31.083315 12184 net.cpp:148] Top shape: 24 128 7 7 (150528)
I0403 15:39:31.083329 12184 net.cpp:156] Memory required for data: 1300555296
I0403 15:39:31.083344 12184 layer_factory.hpp:77] Creating layer inception_5a/pool
I0403 15:39:31.083364 12184 net.cpp:91] Creating Layer inception_5a/pool
I0403 15:39:31.083384 12184 net.cpp:425] inception_5a/pool <- pool4/3x3_s2_pool4/3x3_s2_0_split_3
I0403 15:39:31.083402 12184 net.cpp:399] inception_5a/pool -> inception_5a/pool
I0403 15:39:31.083473 12184 net.cpp:141] Setting up inception_5a/pool
I0403 15:39:31.083497 12184 net.cpp:148] Top shape: 24 832 7 7 (978432)
I0403 15:39:31.083510 12184 net.cpp:156] Memory required for data: 1304469024
I0403 15:39:31.083525 12184 layer_factory.hpp:77] Creating layer inception_5a/pool_proj
I0403 15:39:31.083546 12184 net.cpp:91] Creating Layer inception_5a/pool_proj
I0403 15:39:31.083564 12184 net.cpp:425] inception_5a/pool_proj <- inception_5a/pool
I0403 15:39:31.083585 12184 net.cpp:399] inception_5a/pool_proj -> inception_5a/pool_proj
I0403 15:39:31.085836 12184 net.cpp:141] Setting up inception_5a/pool_proj
I0403 15:39:31.085865 12184 net.cpp:148] Top shape: 24 128 7 7 (150528)
I0403 15:39:31.085880 12184 net.cpp:156] Memory required for data: 1305071136
I0403 15:39:31.085898 12184 layer_factory.hpp:77] Creating layer inception_5a/relu_pool_proj
I0403 15:39:31.085916 12184 net.cpp:91] Creating Layer inception_5a/relu_pool_proj
I0403 15:39:31.085932 12184 net.cpp:425] inception_5a/relu_pool_proj <- inception_5a/pool_proj
I0403 15:39:31.085950 12184 net.cpp:386] inception_5a/relu_pool_proj -> inception_5a/pool_proj (in-place)
I0403 15:39:31.086246 12184 net.cpp:141] Setting up inception_5a/relu_pool_proj
I0403 15:39:31.086271 12184 net.cpp:148] Top shape: 24 128 7 7 (150528)
I0403 15:39:31.086285 12184 net.cpp:156] Memory required for data: 1305673248
I0403 15:39:31.086300 12184 layer_factory.hpp:77] Creating layer inception_5a/output
I0403 15:39:31.086316 12184 net.cpp:91] Creating Layer inception_5a/output
I0403 15:39:31.086333 12184 net.cpp:425] inception_5a/output <- inception_5a/1x1
I0403 15:39:31.086349 12184 net.cpp:425] inception_5a/output <- inception_5a/3x3
I0403 15:39:31.086365 12184 net.cpp:425] inception_5a/output <- inception_5a/5x5
I0403 15:39:31.086385 12184 net.cpp:425] inception_5a/output <- inception_5a/pool_proj
I0403 15:39:31.086405 12184 net.cpp:399] inception_5a/output -> inception_5a/output
I0403 15:39:31.086453 12184 net.cpp:141] Setting up inception_5a/output
I0403 15:39:31.086479 12184 net.cpp:148] Top shape: 24 832 7 7 (978432)
I0403 15:39:31.086494 12184 net.cpp:156] Memory required for data: 1309586976
I0403 15:39:31.086508 12184 layer_factory.hpp:77] Creating layer inception_5a/output_inception_5a/output_0_split
I0403 15:39:31.086525 12184 net.cpp:91] Creating Layer inception_5a/output_inception_5a/output_0_split
I0403 15:39:31.086540 12184 net.cpp:425] inception_5a/output_inception_5a/output_0_split <- inception_5a/output
I0403 15:39:31.086557 12184 net.cpp:399] inception_5a/output_inception_5a/output_0_split -> inception_5a/output_inception_5a/output_0_split_0
I0403 15:39:31.086576 12184 net.cpp:399] inception_5a/output_inception_5a/output_0_split -> inception_5a/output_inception_5a/output_0_split_1
I0403 15:39:31.086599 12184 net.cpp:399] inception_5a/output_inception_5a/output_0_split -> inception_5a/output_inception_5a/output_0_split_2
I0403 15:39:31.086621 12184 net.cpp:399] inception_5a/output_inception_5a/output_0_split -> inception_5a/output_inception_5a/output_0_split_3
I0403 15:39:31.086732 12184 net.cpp:141] Setting up inception_5a/output_inception_5a/output_0_split
I0403 15:39:31.086755 12184 net.cpp:148] Top shape: 24 832 7 7 (978432)
I0403 15:39:31.086771 12184 net.cpp:148] Top shape: 24 832 7 7 (978432)
I0403 15:39:31.086786 12184 net.cpp:148] Top shape: 24 832 7 7 (978432)
I0403 15:39:31.086802 12184 net.cpp:148] Top shape: 24 832 7 7 (978432)
I0403 15:39:31.086815 12184 net.cpp:156] Memory required for data: 1325241888
I0403 15:39:31.086829 12184 layer_factory.hpp:77] Creating layer inception_5b/1x1
I0403 15:39:31.086850 12184 net.cpp:91] Creating Layer inception_5b/1x1
I0403 15:39:31.086869 12184 net.cpp:425] inception_5b/1x1 <- inception_5a/output_inception_5a/output_0_split_0
I0403 15:39:31.086889 12184 net.cpp:399] inception_5b/1x1 -> inception_5b/1x1
I0403 15:39:31.090565 12184 net.cpp:141] Setting up inception_5b/1x1
I0403 15:39:31.090596 12184 net.cpp:148] Top shape: 24 384 7 7 (451584)
I0403 15:39:31.090611 12184 net.cpp:156] Memory required for data: 1327048224
I0403 15:39:31.090631 12184 layer_factory.hpp:77] Creating layer inception_5b/relu_1x1
I0403 15:39:31.090649 12184 net.cpp:91] Creating Layer inception_5b/relu_1x1
I0403 15:39:31.090664 12184 net.cpp:425] inception_5b/relu_1x1 <- inception_5b/1x1
I0403 15:39:31.090683 12184 net.cpp:386] inception_5b/relu_1x1 -> inception_5b/1x1 (in-place)
I0403 15:39:31.090986 12184 net.cpp:141] Setting up inception_5b/relu_1x1
I0403 15:39:31.091013 12184 net.cpp:148] Top shape: 24 384 7 7 (451584)
I0403 15:39:31.091028 12184 net.cpp:156] Memory required for data: 1328854560
I0403 15:39:31.091042 12184 layer_factory.hpp:77] Creating layer inception_5b/3x3_reduce
I0403 15:39:31.091064 12184 net.cpp:91] Creating Layer inception_5b/3x3_reduce
I0403 15:39:31.091081 12184 net.cpp:425] inception_5b/3x3_reduce <- inception_5a/output_inception_5a/output_0_split_1
I0403 15:39:31.091099 12184 net.cpp:399] inception_5b/3x3_reduce -> inception_5b/3x3_reduce
I0403 15:39:31.093801 12184 net.cpp:141] Setting up inception_5b/3x3_reduce
I0403 15:39:31.093829 12184 net.cpp:148] Top shape: 24 192 7 7 (225792)
I0403 15:39:31.093845 12184 net.cpp:156] Memory required for data: 1329757728
I0403 15:39:31.093864 12184 layer_factory.hpp:77] Creating layer inception_5b/relu_3x3_reduce
I0403 15:39:31.093883 12184 net.cpp:91] Creating Layer inception_5b/relu_3x3_reduce
I0403 15:39:31.093899 12184 net.cpp:425] inception_5b/relu_3x3_reduce <- inception_5b/3x3_reduce
I0403 15:39:31.093919 12184 net.cpp:386] inception_5b/relu_3x3_reduce -> inception_5b/3x3_reduce (in-place)
I0403 15:39:31.094113 12184 net.cpp:141] Setting up inception_5b/relu_3x3_reduce
I0403 15:39:31.094138 12184 net.cpp:148] Top shape: 24 192 7 7 (225792)
I0403 15:39:31.094153 12184 net.cpp:156] Memory required for data: 1330660896
I0403 15:39:31.094167 12184 layer_factory.hpp:77] Creating layer inception_5b/3x3
I0403 15:39:31.094189 12184 net.cpp:91] Creating Layer inception_5b/3x3
I0403 15:39:31.094208 12184 net.cpp:425] inception_5b/3x3 <- inception_5b/3x3_reduce
I0403 15:39:31.094229 12184 net.cpp:399] inception_5b/3x3 -> inception_5b/3x3
I0403 15:39:31.100958 12184 net.cpp:141] Setting up inception_5b/3x3
I0403 15:39:31.100987 12184 net.cpp:148] Top shape: 24 384 7 7 (451584)
I0403 15:39:31.101002 12184 net.cpp:156] Memory required for data: 1332467232
I0403 15:39:31.101022 12184 layer_factory.hpp:77] Creating layer inception_5b/relu_3x3
I0403 15:39:31.101039 12184 net.cpp:91] Creating Layer inception_5b/relu_3x3
I0403 15:39:31.101055 12184 net.cpp:425] inception_5b/relu_3x3 <- inception_5b/3x3
I0403 15:39:31.101078 12184 net.cpp:386] inception_5b/relu_3x3 -> inception_5b/3x3 (in-place)
I0403 15:39:31.101384 12184 net.cpp:141] Setting up inception_5b/relu_3x3
I0403 15:39:31.101410 12184 net.cpp:148] Top shape: 24 384 7 7 (451584)
I0403 15:39:31.101426 12184 net.cpp:156] Memory required for data: 1334273568
I0403 15:39:31.101441 12184 layer_factory.hpp:77] Creating layer inception_5b/5x5_reduce
I0403 15:39:31.101480 12184 net.cpp:91] Creating Layer inception_5b/5x5_reduce
I0403 15:39:31.101498 12184 net.cpp:425] inception_5b/5x5_reduce <- inception_5a/output_inception_5a/output_0_split_2
I0403 15:39:31.101521 12184 net.cpp:399] inception_5b/5x5_reduce -> inception_5b/5x5_reduce
I0403 15:39:31.102823 12184 net.cpp:141] Setting up inception_5b/5x5_reduce
I0403 15:39:31.102852 12184 net.cpp:148] Top shape: 24 48 7 7 (56448)
I0403 15:39:31.102869 12184 net.cpp:156] Memory required for data: 1334499360
I0403 15:39:31.102887 12184 layer_factory.hpp:77] Creating layer inception_5b/relu_5x5_reduce
I0403 15:39:31.102905 12184 net.cpp:91] Creating Layer inception_5b/relu_5x5_reduce
I0403 15:39:31.102921 12184 net.cpp:425] inception_5b/relu_5x5_reduce <- inception_5b/5x5_reduce
I0403 15:39:31.102941 12184 net.cpp:386] inception_5b/relu_5x5_reduce -> inception_5b/5x5_reduce (in-place)
I0403 15:39:31.103317 12184 net.cpp:141] Setting up inception_5b/relu_5x5_reduce
I0403 15:39:31.103343 12184 net.cpp:148] Top shape: 24 48 7 7 (56448)
I0403 15:39:31.103359 12184 net.cpp:156] Memory required for data: 1334725152
I0403 15:39:31.103374 12184 layer_factory.hpp:77] Creating layer inception_5b/5x5
I0403 15:39:31.103399 12184 net.cpp:91] Creating Layer inception_5b/5x5
I0403 15:39:31.103416 12184 net.cpp:425] inception_5b/5x5 <- inception_5b/5x5_reduce
I0403 15:39:31.103435 12184 net.cpp:399] inception_5b/5x5 -> inception_5b/5x5
I0403 15:39:31.105510 12184 net.cpp:141] Setting up inception_5b/5x5
I0403 15:39:31.105537 12184 net.cpp:148] Top shape: 24 128 7 7 (150528)
I0403 15:39:31.105552 12184 net.cpp:156] Memory required for data: 1335327264
I0403 15:39:31.105571 12184 layer_factory.hpp:77] Creating layer inception_5b/relu_5x5
I0403 15:39:31.105588 12184 net.cpp:91] Creating Layer inception_5b/relu_5x5
I0403 15:39:31.105605 12184 net.cpp:425] inception_5b/relu_5x5 <- inception_5b/5x5
I0403 15:39:31.105624 12184 net.cpp:386] inception_5b/relu_5x5 -> inception_5b/5x5 (in-place)
I0403 15:39:31.105823 12184 net.cpp:141] Setting up inception_5b/relu_5x5
I0403 15:39:31.105847 12184 net.cpp:148] Top shape: 24 128 7 7 (150528)
I0403 15:39:31.105861 12184 net.cpp:156] Memory required for data: 1335929376
I0403 15:39:31.105876 12184 layer_factory.hpp:77] Creating layer inception_5b/pool
I0403 15:39:31.105896 12184 net.cpp:91] Creating Layer inception_5b/pool
I0403 15:39:31.105913 12184 net.cpp:425] inception_5b/pool <- inception_5a/output_inception_5a/output_0_split_3
I0403 15:39:31.105932 12184 net.cpp:399] inception_5b/pool -> inception_5b/pool
I0403 15:39:31.106006 12184 net.cpp:141] Setting up inception_5b/pool
I0403 15:39:31.106030 12184 net.cpp:148] Top shape: 24 832 7 7 (978432)
I0403 15:39:31.106045 12184 net.cpp:156] Memory required for data: 1339843104
I0403 15:39:31.106060 12184 layer_factory.hpp:77] Creating layer inception_5b/pool_proj
I0403 15:39:31.106081 12184 net.cpp:91] Creating Layer inception_5b/pool_proj
I0403 15:39:31.106099 12184 net.cpp:425] inception_5b/pool_proj <- inception_5b/pool
I0403 15:39:31.106122 12184 net.cpp:399] inception_5b/pool_proj -> inception_5b/pool_proj
I0403 15:39:31.108451 12184 net.cpp:141] Setting up inception_5b/pool_proj
I0403 15:39:31.108481 12184 net.cpp:148] Top shape: 24 128 7 7 (150528)
I0403 15:39:31.108496 12184 net.cpp:156] Memory required for data: 1340445216
I0403 15:39:31.108515 12184 layer_factory.hpp:77] Creating layer inception_5b/relu_pool_proj
I0403 15:39:31.108533 12184 net.cpp:91] Creating Layer inception_5b/relu_pool_proj
I0403 15:39:31.108549 12184 net.cpp:425] inception_5b/relu_pool_proj <- inception_5b/pool_proj
I0403 15:39:31.108571 12184 net.cpp:386] inception_5b/relu_pool_proj -> inception_5b/pool_proj (in-place)
I0403 15:39:31.108873 12184 net.cpp:141] Setting up inception_5b/relu_pool_proj
I0403 15:39:31.108899 12184 net.cpp:148] Top shape: 24 128 7 7 (150528)
I0403 15:39:31.108914 12184 net.cpp:156] Memory required for data: 1341047328
I0403 15:39:31.108929 12184 layer_factory.hpp:77] Creating layer inception_5b/output
I0403 15:39:31.108947 12184 net.cpp:91] Creating Layer inception_5b/output
I0403 15:39:31.108978 12184 net.cpp:425] inception_5b/output <- inception_5b/1x1
I0403 15:39:31.108995 12184 net.cpp:425] inception_5b/output <- inception_5b/3x3
I0403 15:39:31.109011 12184 net.cpp:425] inception_5b/output <- inception_5b/5x5
I0403 15:39:31.109028 12184 net.cpp:425] inception_5b/output <- inception_5b/pool_proj
I0403 15:39:31.109048 12184 net.cpp:399] inception_5b/output -> inception_5b/output
I0403 15:39:31.109100 12184 net.cpp:141] Setting up inception_5b/output
I0403 15:39:31.109127 12184 net.cpp:148] Top shape: 24 1024 7 7 (1204224)
I0403 15:39:31.109143 12184 net.cpp:156] Memory required for data: 1345864224
I0403 15:39:31.109158 12184 layer_factory.hpp:77] Creating layer pool5/7x7_s1
I0403 15:39:31.109174 12184 net.cpp:91] Creating Layer pool5/7x7_s1
I0403 15:39:31.109190 12184 net.cpp:425] pool5/7x7_s1 <- inception_5b/output
I0403 15:39:31.109211 12184 net.cpp:399] pool5/7x7_s1 -> pool5/7x7_s1
I0403 15:39:31.109436 12184 net.cpp:141] Setting up pool5/7x7_s1
I0403 15:39:31.109462 12184 net.cpp:148] Top shape: 24 1024 1 1 (24576)
I0403 15:39:31.109477 12184 net.cpp:156] Memory required for data: 1345962528
I0403 15:39:31.109493 12184 layer_factory.hpp:77] Creating layer pool5/drop_7x7_s1
I0403 15:39:31.109509 12184 net.cpp:91] Creating Layer pool5/drop_7x7_s1
I0403 15:39:31.109525 12184 net.cpp:425] pool5/drop_7x7_s1 <- pool5/7x7_s1
I0403 15:39:31.109545 12184 net.cpp:386] pool5/drop_7x7_s1 -> pool5/7x7_s1 (in-place)
I0403 15:39:31.109596 12184 net.cpp:141] Setting up pool5/drop_7x7_s1
I0403 15:39:31.109622 12184 net.cpp:148] Top shape: 24 1024 1 1 (24576)
I0403 15:39:31.109637 12184 net.cpp:156] Memory required for data: 1346060832
I0403 15:39:31.109652 12184 layer_factory.hpp:77] Creating layer loss3/classifier_plantvillage
I0403 15:39:31.109683 12184 net.cpp:91] Creating Layer loss3/classifier_plantvillage
I0403 15:39:31.109699 12184 net.cpp:425] loss3/classifier_plantvillage <- pool5/7x7_s1
I0403 15:39:31.109721 12184 net.cpp:399] loss3/classifier_plantvillage -> loss3/classifier_plantvillage
I0403 15:39:31.110170 12184 net.cpp:141] Setting up loss3/classifier_plantvillage
I0403 15:39:31.110198 12184 net.cpp:148] Top shape: 24 38 (912)
I0403 15:39:31.110214 12184 net.cpp:156] Memory required for data: 1346064480
I0403 15:39:31.110232 12184 layer_factory.hpp:77] Creating layer loss3/classifier_plantvillage_loss3/classifier_plantvillage_0_split
I0403 15:39:31.110262 12184 net.cpp:91] Creating Layer loss3/classifier_plantvillage_loss3/classifier_plantvillage_0_split
I0403 15:39:31.110278 12184 net.cpp:425] loss3/classifier_plantvillage_loss3/classifier_plantvillage_0_split <- loss3/classifier_plantvillage
I0403 15:39:31.110296 12184 net.cpp:399] loss3/classifier_plantvillage_loss3/classifier_plantvillage_0_split -> loss3/classifier_plantvillage_loss3/classifier_plantvillage_0_split_0
I0403 15:39:31.110314 12184 net.cpp:399] loss3/classifier_plantvillage_loss3/classifier_plantvillage_0_split -> loss3/classifier_plantvillage_loss3/classifier_plantvillage_0_split_1
I0403 15:39:31.110337 12184 net.cpp:399] loss3/classifier_plantvillage_loss3/classifier_plantvillage_0_split -> loss3/classifier_plantvillage_loss3/classifier_plantvillage_0_split_2
I0403 15:39:31.110358 12184 net.cpp:399] loss3/classifier_plantvillage_loss3/classifier_plantvillage_0_split -> loss3/classifier_plantvillage_loss3/classifier_plantvillage_0_split_3
I0403 15:39:31.110460 12184 net.cpp:141] Setting up loss3/classifier_plantvillage_loss3/classifier_plantvillage_0_split
I0403 15:39:31.110483 12184 net.cpp:148] Top shape: 24 38 (912)
I0403 15:39:31.110499 12184 net.cpp:148] Top shape: 24 38 (912)
I0403 15:39:31.110514 12184 net.cpp:148] Top shape: 24 38 (912)
I0403 15:39:31.110529 12184 net.cpp:148] Top shape: 24 38 (912)
I0403 15:39:31.110543 12184 net.cpp:156] Memory required for data: 1346079072
I0403 15:39:31.110558 12184 layer_factory.hpp:77] Creating layer loss1/loss
I0403 15:39:31.110581 12184 net.cpp:91] Creating Layer loss1/loss
I0403 15:39:31.110599 12184 net.cpp:425] loss1/loss <- loss1/classifier_plantvillage_loss1/classifier_plantvillage_0_split_0
I0403 15:39:31.110630 12184 net.cpp:425] loss1/loss <- label_data_1_split_0
…
