…
I0403 15:37:46.001540 12156 net.cpp:313] The NetState phase (1) differed from the phase (0) specified by a rule in layer data
I0403 15:37:46.002710 12156 net.cpp:49] Initializing net from parameters: 
state {
  phase: TEST
}
layer {
  name: "data"
  type: "Data"
  top: "data"
  top: "label"
  include {
    phase: TEST
  }
  transform_param {
    mirror: false
    crop_size: 224
    mean_file: "/home/mohanty/data/final_dataset/lmdb/segmented-50-50/mean.binaryproto"
  }
  data_param {
    source: "/home/mohanty/data/final_dataset/lmdb/segmented-50-50/test_db"
    batch_size: 24
    backend: LMDB
  }
}
layer {
  name: "conv1/7x7_s2"
  type: "Convolution"
  bottom: "data"
  top: "conv1/7x7_s2"
  param {
    lr_mult: 1
    decay_mult: 1
  }
  param {
    lr_mult: 2
    decay_mult: 0
  }
  convolution_param {
    num_output: 64
    pad: 3
    kernel_size: 7
    stride: 2
    weight_filler {
      type: "xavier"
      std: 0.1
    }
    bias_filler {
      type: "constant"
      value: 0.2
    }
  }
}
layer {
  name: "conv1/relu_7x7"
  type: "ReLU"
  bottom: "conv1/7x7_s2"
  top: "conv1/7x7_s2"
}
layer {
  name: "pool1/3x3_s2"
  type: "Pooling"
  bottom: "conv1/7x7_s2"
  top: "pool1/3x3_s2"
  pooling_param {
    pool: MAX
    kernel_size: 3
    stride: 2
  }
}
layer {
  name: "pool1/norm1"
  type: "LRN"
  bottom: "pool1/3x3_s2"
  top: "pool1/norm1"
  lrn_param {
    local_size: 5
    alpha: 0.0001
    beta: 0.75
  }
}
layer {
  name: "conv2/3x3_reduce"
  type: "Convolution"
  bottom: "pool1/norm1"
  top: "conv2/3x3_reduce"
  param {
    lr_mult: 1
    decay_mult: 1
  }
  param {
    lr_mult: 2
    decay_mult: 0
  }
  convolution_param {
    num_output: 64
    kernel_size: 1
    weight_filler {
      type: "xavier"
      std: 0.1
    }
    bias_filler {
      type: "constant"
      value: 0.2
    }
  }
}
layer {
  name: "conv2/relu_3x3_reduce"
  type: "ReLU"
  bottom: "conv2/3x3_reduce"
  top: "conv2/3x3_reduce"
}
layer {
  name: "conv2/3x3"
  type: "Convolution"
  bottom: "conv2/3x3_reduce"
  top: "conv2/3x3"
  param {
    lr_mult: 1
    decay_mult: 1
  }
  param {
    lr_mult: 2
    decay_mult: 0
  }
  convolution_param {
    num_output: 192
    pad: 1
    kernel_size: 3
    weight_filler {
      type: "xavier"
      std: 0.03
    }
    bias_filler {
      type: "constant"
      value: 0.2
    }
  }
}
layer {
  name: "conv2/relu_3x3"
  type: "ReLU"
  bottom: "conv2/3x3"
  top: "conv2/3x3"
}
layer {
  name: "conv2/norm2"
  type: "LRN"
  bottom: "conv2/3x3"
  top: "conv2/norm2"
  lrn_param {
    local_size: 5
    alpha: 0.0001
    beta: 0.75
  }
}
layer {
  name: "pool2/3x3_s2"
  type: "Pooling"
  bottom: "conv2/norm2"
  top: "pool2/3x3_s2"
  pooling_param {
    pool: MAX
    kernel_size: 3
    stride: 2
  }
}
layer {
  name: "inception_3a/1x1"
  type: "Convolution"
  bottom: "pool2/3x3_s2"
  top: "inception_3a/1x1"
  param {
    lr_mult: 1
    decay_mult: 1
  }
  param {
    lr_mult: 2
    decay_mult: 0
  }
  convolution_param {
    num_output: 64
    kernel_size: 1
    weight_filler {
      type: "xavier"
      std: 0.03
    }
    bias_filler {
      type: "constant"
      value: 0.2
    }
  }
}
layer {
  name: "inception_3a/relu_1x1"
  type: "ReLU"
  bottom: "inception_3a/1x1"
  top: "inception_3a/1x1"
}
layer {
  name: "inception_3a/3x3_reduce"
  type: "Convolution"
  bottom: "pool2/3x3_s2"
  top: "inception_3a/3x3_reduce"
  param {
    lr_mult: 1
    decay_mult: 1
  }
  param {
    lr_mult: 2
    decay_mult: 0
  }
  convolution_param {
    num_output: 96
    kernel_size: 1
    weight_filler {
      type: "xavier"
      std: 0.09
    }
    bias_filler {
      type: "constant"
      value: 0.2
    }
  }
}
layer {
  name: "inception_3a/relu_3x3_reduce"
  type: "ReLU"
  bottom: "inception_3a/3x3_reduce"
  top: "inception_3a/3x3_reduce"
}
layer {
  name: "inception_3a/3x3"
  type: "Convolution"
  bottom: "inception_3a/3x3_reduce"
  top: "inception_3a/3x3"
  param {
    lr_mult: 1
    decay_mult: 1
  }
  param {
    lr_mult: 2
    decay_mult: 0
  }
  convolution_param {
    num_output: 128
    pad: 1
    kernel_size: 3
    weight_filler {
      type: "xavier"
      std: 0.03
    }
    bias_filler {
      type: "constant"
      value: 0.2
    }
  }
}
layer {
  name: "inception_3a/relu_3x3"
  type: "ReLU"
  bottom: "inception_3a/3x3"
  top: "inception_3a/3x3"
}
layer {
  name: "inception_3a/5x5_reduce"
  type: "Convolution"
  bottom: "pool2/3x3_s2"
  top: "inception_3a/5x5_reduce"
  param {
    lr_mult: 1
    decay_mult: 1
  }
  param {
    lr_mult: 2
    decay_mult: 0
  }
  convolution_param {
    num_output: 16
    kernel_size: 1
    weight_filler {
      type: "xavier"
      std: 0.2
    }
    bias_filler {
      type: "constant"
      value: 0.2
    }
  }
}
layer {
  name: "inception_3a/relu_5x5_reduce"
  type: "ReLU"
  bottom: "inception_3a/5x5_reduce"
  top: "inception_3a/5x5_reduce"
}
layer {
  name: "inception_3a/5x5"
  type: "Convolution"
  bottom: "inception_3a/5x5_reduce"
  top: "inception_3a/5x5"
  param {
    lr_mult: 1
    decay_mult: 1
  }
  param {
    lr_mult: 2
    decay_mult: 0
  }
  convolution_param {
    num_output: 32
    pad: 2
    kernel_size: 5
    weight_filler {
      type: "xavier"
      std: 0.03
    }
    bias_filler {
      type: "constant"
      value: 0.2
    }
  }
}
layer {
  name: "inception_3a/relu_5x5"
  type: "ReLU"
  bottom: "inception_3a/5x5"
  top: "inception_3a/5x5"
}
layer {
  name: "inception_3a/pool"
  type: "Pooling"
  bottom: "pool2/3x3_s2"
  top: "inception_3a/pool"
  pooling_param {
    pool: MAX
    kernel_size: 3
    stride: 1
    pad: 1
  }
}
layer {
  name: "inception_3a/pool_proj"
  type: "Convolution"
  bottom: "inception_3a/pool"
  top: "inception_3a/pool_proj"
  param {
    lr_mult: 1
    decay_mult: 1
  }
  param {
    lr_mult: 2
    decay_mult: 0
  }
  convolution_param {
    num_output: 32
    kernel_size: 1
    weight_filler {
      type: "xavier"
      std: 0.1
    }
    bias_filler {
      type: "constant"
      value: 0.2
    }
  }
}
layer {
  name: "inception_3a/relu_pool_proj"
  type: "ReLU"
  bottom: "inception_3a/pool_proj"
  top: "inception_3a/pool_proj"
}
layer {
  name: "inception_3a/output"
  type: "Concat"
  bottom: "inception_3a/1x1"
  bottom: "inception_3a/3x3"
  bottom: "inception_3a/5x5"
  bottom: "inception_3a/pool_proj"
  top: "inception_3a/output"
}
layer {
  name: "inception_3b/1x1"
  type: "Convolution"
  bottom: "inception_3a/output"
  top: "inception_3b/1x1"
  param {
    lr_mult: 1
    decay_mult: 1
  }
  param {
    lr_mult: 2
    decay_mult: 0
  }
  convolution_param {
    num_output: 128
    kernel_size: 1
    weight_filler {
      type: "xavier"
      std: 0.03
    }
    bias_filler {
      type: "constant"
      value: 0.2
    }
  }
}
layer {
  name: "inception_3b/relu_1x1"
  type: "ReLU"
  bottom: "inception_3b/1x1"
  top: "inception_3b/1x1"
}
layer {
  name: "inception_3b/3x3_reduce"
  type: "Convolution"
  bottom: "inception_3a/output"
  top: "inception_3b/3x3_reduce"
  param {
    lr_mult: 1
    decay_mult: 1
  }
  param {
    lr_mult: 2
    decay_mult: 0
  }
  convolution_param {
    num_output: 128
    kernel_size: 1
    weight_filler {
      type: "xavier"
      std: 0.09
    }
    bias_filler {
      type: "constant"
      value: 0.2
    }
  }
}
layer {
  name: "inception_3b/relu_3x3_reduce"
  type: "ReLU"
  bottom: "inception_3b/3x3_reduce"
  top: "inception_3b/3x3_reduce"
}
layer {
  name: "inception_3b/3x3"
  type: "Convolution"
  bottom: "inception_3b/3x3_reduce"
  top: "inception_3b/3x3"
  param {
    lr_mult: 1
    decay_mult: 1
  }
  param {
    lr_mult: 2
    decay_mult: 0
  }
  convolution_param {
    num_output: 192
    pad: 1
    kernel_size: 3
    weight_filler {
      type: "xavier"
      std: 0.03
    }
    bias_filler {
      type: "constant"
      value: 0.2
    }
  }
}
layer {
  name: "inception_3b/relu_3x3"
  type: "ReLU"
  bottom: "inception_3b/3x3"
  top: "inception_3b/3x3"
}
layer {
  name: "inception_3b/5x5_reduce"
  type: "Convolution"
  bottom: "inception_3a/output"
  top: "inception_3b/5x5_reduce"
  param {
    lr_mult: 1
    decay_mult: 1
  }
  param {
    lr_mult: 2
    decay_mult: 0
  }
  convolution_param {
    num_output: 32
    kernel_size: 1
    weight_filler {
      type: "xavier"
      std: 0.2
    }
    bias_filler {
      type: "constant"
      value: 0.2
    }
  }
}
layer {
  name: "inception_3b/relu_5x5_reduce"
  type: "ReLU"
  bottom: "inception_3b/5x5_reduce"
  top: "inception_3b/5x5_reduce"
}
layer {
  name: "inception_3b/5x5"
  type: "Convolution"
  bottom: "inception_3b/5x5_reduce"
  top: "inception_3b/5x5"
  param {
    lr_mult: 1
    decay_mult: 1
  }
  param {
    lr_mult: 2
    decay_mult: 0
  }
  convolution_param {
    num_output: 96
    pad: 2
    kernel_size: 5
    weight_filler {
      type: "xavier"
      std: 0.03
    }
    bias_filler {
      type: "constant"
      value: 0.2
    }
  }
}
layer {
  name: "inception_3b/relu_5x5"
  type: "ReLU"
  bottom: "inception_3b/5x5"
  top: "inception_3b/5x5"
}
layer {
  name: "inception_3b/pool"
  type: "Pooling"
  bottom: "inception_3a/output"
  top: "inception_3b/pool"
  pooling_param {
    pool: MAX
    kernel_size: 3
    stride: 1
    pad: 1
  }
}
layer {
  name: "inception_3b/pool_proj"
  type: "Convolution"
  bottom: "inception_3b/pool"
  top: "inception_3b/pool_proj"
  param {
    lr_mult: 1
    decay_mult: 1
  }
  param {
    lr_mult: 2
    decay_mult: 0
  }
  convolution_param {
    num_output: 64
    kernel_size: 1
    weight_filler {
      type: "xavier"
      std: 0.1
    }
    bias_filler {
      type: "constant"
      value: 0.2
    }
  }
}
layer {
  name: "inception_3b/relu_pool_proj"
  type: "ReLU"
  bottom: "inception_3b/pool_proj"
  top: "inception_3b/pool_proj"
}
layer {
  name: "inception_3b/output"
  type: "Concat"
  bottom: "inception_3b/1x1"
  bottom: "inception_3b/3x3"
  bottom: "inception_3b/5x5"
  bottom: "inception_3b/pool_proj"
  top: "inception_3b/output"
}
layer {
  name: "pool3/3x3_s2"
  type: "Pooling"
  bottom: "inception_3b/output"
  top: "pool3/3x3_s2"
  pooling_param {
    pool: MAX
    kernel_size: 3
    stride: 2
  }
}
layer {
  name: "inception_4a/1x1"
  type: "Convolution"
  bottom: "pool3/3x3_s2"
  top: "inception_4a/1x1"
  param {
    lr_mult: 1
    decay_mult: 1
  }
  param {
    lr_mult: 2
    decay_mult: 0
  }
  convolution_param {
    num_output: 192
    kernel_size: 1
    weight_filler {
      type: "xavier"
      std: 0.03
    }
    bias_filler {
      type: "constant"
      value: 0.2
    }
  }
}
layer {
  name: "inception_4a/relu_1x1"
  type: "ReLU"
  bottom: "inception_4a/1x1"
  top: "inception_4a/1x1"
}
layer {
  name: "inception_4a/3x3_reduce"
  type: "Convolution"
  bottom: "pool3/3x3_s2"
  top: "inception_4a/3x3_reduce"
  param {
    lr_mult: 1
    decay_mult: 1
  }
  param {
    lr_mult: 2
    decay_mult: 0
  }
  convolution_param {
    num_output: 96
    kernel_size: 1
    weight_filler {
      type: "xavier"
      std: 0.09
    }
    bias_filler {
      type: "constant"
      value: 0.2
    }
  }
}
layer {
  name: "inception_4a/relu_3x3_reduce"
  type: "ReLU"
  bottom: "inception_4a/3x3_reduce"
  top: "inception_4a/3x3_reduce"
}
layer {
  name: "inception_4a/3x3"
  type: "Convolution"
  bottom: "inception_4a/3x3_reduce"
  top: "inception_4a/3x3"
  param {
    lr_mult: 1
    decay_mult: 1
  }
  param {
    lr_mult: 2
    decay_mult: 0
  }
  convolution_param {
    num_output: 208
    pad: 1
    kernel_size: 3
    weight_filler {
      type: "xavier"
      std: 0.03
    }
    bias_filler {
      type: "constant"
      value: 0.2
    }
  }
}
layer {
  name: "inception_4a/relu_3x3"
  type: "ReLU"
  bottom: "inception_4a/3x3"
  top: "inception_4a/3x3"
}
layer {
  name: "inception_4a/5x5_reduce"
  type: "Convolution"
  bottom: "pool3/3x3_s2"
  top: "inception_4a/5x5_reduce"
  param {
    lr_mult: 1
    decay_mult: 1
  }
  param {
    lr_mult: 2
    decay_mult: 0
  }
  convolution_param {
    num_output: 16
    kernel_size: 1
    weight_filler {
      type: "xavier"
      std: 0.2
    }
    bias_filler {
      type: "constant"
      value: 0.2
    }
  }
}
layer {
  name: "inception_4a/relu_5x5_reduce"
  type: "ReLU"
  bottom: "inception_4a/5x5_reduce"
  top: "inception_4a/5x5_reduce"
}
layer {
  name: "inception_4a/5x5"
  type: "Convolution"
  bottom: "inception_4a/5x5_reduce"
  top: "inception_4a/5x5"
  param {
    lr_mult: 1
    decay_mult: 1
  }
  param {
    lr_mult: 2
    decay_mult: 0
  }
  convolution_param {
    num_output: 48
    pad: 2
    kernel_size: 5
    weight_filler {
      type: "xavier"
      std: 0.03
    }
    bias_filler {
      type: "constant"
      value: 0.2
    }
  }
}
layer {
  name: "inception_4a/relu_5x5"
  type: "ReLU"
  bottom: "inception_4a/5x5"
  top: "inception_4a/5x5"
}
layer {
  name: "inception_4a/pool"
  type: "Pooling"
  bottom: "pool3/3x3_s2"
  top: "inception_4a/pool"
  pooling_param {
    pool: MAX
    kernel_size: 3
    stride: 1
    pad: 1
  }
}
layer {
  name: "inception_4a/pool_proj"
  type: "Convolution"
  bottom: "inception_4a/pool"
  top: "inception_4a/pool_proj"
  param {
    lr_mult: 1
    decay_mult: 1
  }
  param {
    lr_mult: 2
    decay_mult: 0
  }
  convolution_param {
    num_output: 64
    kernel_size: 1
    weight_filler {
      type: "xavier"
      std: 0.1
    }
    bias_filler {
      type: "constant"
      value: 0.2
    }
  }
}
layer {
  name: "inception_4a/relu_pool_proj"
  type: "ReLU"
  bottom: "inception_4a/pool_proj"
  top: "inception_4a/pool_proj"
}
layer {
  name: "inception_4a/output"
  type: "Concat"
  bottom: "inception_4a/1x1"
  bottom: "inception_4a/3x3"
  bottom: "inception_4a/5x5"
  bottom: "inception_4a/pool_proj"
  top: "inception_4a/output"
}
layer {
  name: "loss1/ave_pool"
  type: "Pooling"
  bottom: "inception_4a/output"
  top: "loss1/ave_pool"
  pooling_param {
    pool: AVE
    kernel_size: 5
    stride: 3
  }
}
layer {
  name: "loss1/conv"
  type: "Convolution"
  bottom: "loss1/ave_pool"
  top: "loss1/conv"
  param {
    lr_mult: 1
    decay_mult: 1
  }
  param {
    lr_mult: 2
    decay_mult: 0
  }
  convolution_param {
    num_output: 128
    kernel_size: 1
    weight_filler {
      type: "xavier"
      std: 0.08
    }
    bias_filler {
      type: "constant"
      value: 0.2
    }
  }
}
layer {
  name: "loss1/relu_conv"
  type: "ReLU"
  bottom: "loss1/conv"
  top: "loss1/conv"
}
layer {
  name: "loss1/fc"
  type: "InnerProduct"
  bottom: "loss1/conv"
  top: "loss1/fc"
  param {
    lr_mult: 1
    decay_mult: 1
  }
  param {
    lr_mult: 2
    decay_mult: 0
  }
  inner_product_param {
    num_output: 1024
    weight_filler {
      type: "xavier"
      std: 0.02
    }
    bias_filler {
      type: "constant"
      value: 0.2
    }
  }
}
layer {
  name: "loss1/relu_fc"
  type: "ReLU"
  bottom: "loss1/fc"
  top: "loss1/fc"
}
layer {
  name: "loss1/drop_fc"
  type: "Dropout"
  bottom: "loss1/fc"
  top: "loss1/fc"
  dropout_param {
    dropout_ratio: 0.7
  }
}
layer {
  name: "loss1/classifier_plantvillage"
  type: "InnerProduct"
  bottom: "loss1/fc"
  top: "loss1/classifier_plantvillage"
  param {
    lr_mult: 1
    decay_mult: 1
  }
  param {
    lr_mult: 2
    decay_mult: 0
  }
  inner_product_param {
    num_output: 38
    weight_filler {
      type: "xavier"
      std: 0.0009765625
    }
    bias_filler {
      type: "constant"
      value: 0
    }
  }
}
layer {
  name: "inception_4b/1x1"
  type: "Convolution"
  bottom: "inception_4a/output"
  top: "inception_4b/1x1"
  param {
    lr_mult: 1
    decay_mult: 1
  }
  param {
    lr_mult: 2
    decay_mult: 0
  }
  convolution_param {
    num_output: 160
    kernel_size: 1
    weight_filler {
      type: "xavier"
      std: 0.03
    }
    bias_filler {
      type: "constant"
      value: 0.2
    }
  }
}
layer {
  name: "inception_4b/relu_1x1"
  type: "ReLU"
  bottom: "inception_4b/1x1"
  top: "inception_4b/1x1"
}
layer {
  name: "inception_4b/3x3_reduce"
  type: "Convolution"
  bottom: "inception_4a/output"
  top: "inception_4b/3x3_reduce"
  param {
    lr_mult: 1
    decay_mult: 1
  }
  param {
    lr_mult: 2
    decay_mult: 0
  }
  convolution_param {
    num_output: 112
    kernel_size: 1
    weight_filler {
      type: "xavier"
      std: 0.09
    }
    bias_filler {
      type: "constant"
      value: 0.2
    }
  }
}
layer {
  name: "inception_4b/relu_3x3_reduce"
  type: "ReLU"
  bottom: "inception_4b/3x3_reduce"
  top: "inception_4b/3x3_reduce"
}
layer {
  name: "inception_4b/3x3"
  type: "Convolution"
  bottom: "inception_4b/3x3_reduce"
  top: "inception_4b/3x3"
  param {
    lr_mult: 1
    decay_mult: 1
  }
  param {
    lr_mult: 2
    decay_mult: 0
  }
  convolution_param {
    num_output: 224
    pad: 1
    kernel_size: 3
    weight_filler {
      type: "xavier"
      std: 0.03
    }
    bias_filler {
      type: "constant"
      value: 0.2
    }
  }
}
layer {
  name: "inception_4b/relu_3x3"
  type: "ReLU"
  bottom: "inception_4b/3x3"
  top: "inception_4b/3x3"
}
layer {
  name: "inception_4b/5x5_reduce"
  type: "Convolution"
  bottom: "inception_4a/output"
  top: "inception_4b/5x5_reduce"
  param {
    lr_mult: 1
    decay_mult: 1
  }
  param {
    lr_mult: 2
    decay_mult: 0
  }
  convolution_param {
    num_output: 24
    kernel_size: 1
    weight_filler {
      type: "xavier"
      std: 0.2
    }
    bias_filler {
      type: "constant"
      value: 0.2
    }
  }
}
layer {
  name: "inception_4b/relu_5x5_reduce"
  type: "ReLU"
  bottom: "inception_4b/5x5_reduce"
  top: "inception_4b/5x5_reduce"
}
layer {
  name: "inception_4b/5x5"
  type: "Convolution"
  bottom: "inception_4b/5x5_reduce"
  top: "inception_4b/5x5"
  param {
    lr_mult: 1
    decay_mult: 1
  }
  param {
    lr_mult: 2
    decay_mult: 0
  }
  convolution_param {
    num_output: 64
    pad: 2
    kernel_size: 5
    weight_filler {
      type: "xavier"
      std: 0.03
    }
    bias_filler {
      type: "constant"
      value: 0.2
    }
  }
}
layer {
  name: "inception_4b/relu_5x5"
  type: "ReLU"
  bottom: "inception_4b/5x5"
  top: "inception_4b/5x5"
}
layer {
  name: "inception_4b/pool"
  type: "Pooling"
  bottom: "inception_4a/output"
  top: "inception_4b/pool"
  pooling_param {
    pool: MAX
    kernel_size: 3
    stride: 1
    pad: 1
  }
}
layer {
  name: "inception_4b/pool_proj"
  type: "Convolution"
  bottom: "inception_4b/pool"
  top: "inception_4b/pool_proj"
  param {
    lr_mult: 1
    decay_mult: 1
  }
  param {
    lr_mult: 2
    decay_mult: 0
  }
  convolution_param {
    num_output: 64
    kernel_size: 1
    weight_filler {
      type: "xavier"
      std: 0.1
    }
    bias_filler {
      type: "constant"
      value: 0.2
    }
  }
}
layer {
  name: "inception_4b/relu_pool_proj"
  type: "ReLU"
  bottom: "inception_4b/pool_proj"
  top: "inception_4b/pool_proj"
}
layer {
  name: "inception_4b/output"
  type: "Concat"
  bottom: "inception_4b/1x1"
  bottom: "inception_4b/3x3"
  bottom: "inception_4b/5x5"
  bottom: "inception_4b/pool_proj"
  top: "inception_4b/output"
}
layer {
  name: "inception_4c/1x1"
  type: "Convolution"
  bottom: "inception_4b/output"
  top: "inception_4c/1x1"
  param {
    lr_mult: 1
    decay_mult: 1
  }
  param {
    lr_mult: 2
    decay_mult: 0
  }
  convolution_param {
    num_output: 128
    kernel_size: 1
    weight_filler {
      type: "xavier"
      std: 0.03
    }
    bias_filler {
      type: "constant"
      value: 0.2
    }
  }
}
layer {
  name: "inception_4c/relu_1x1"
  type: "ReLU"
  bottom: "inception_4c/1x1"
  top: "inception_4c/1x1"
}
layer {
  name: "inception_4c/3x3_reduce"
  type: "Convolution"
  bottom: "inception_4b/output"
  top: "inception_4c/3x3_reduce"
  param {
    lr_mult: 1
    decay_mult: 1
  }
  param {
    lr_mult: 2
    decay_mult: 0
  }
  convolution_param {
    num_output: 128
    kernel_size: 1
    weight_filler {
      type: "xavier"
      std: 0.09
    }
    bias_filler {
      type: "constant"
      value: 0.2
    }
  }
}
layer {
  name: "inception_4c/relu_3x3_reduce"
  type: "ReLU"
  bottom: "inception_4c/3x3_reduce"
  top: "inception_4c/3x3_reduce"
}
layer {
  name: "inception_4c/3x3"
  type: "Convolution"
  bottom: "inception_4c/3x3_reduce"
  top: "inception_4c/3x3"
  param {
    lr_mult: 1
    decay_mult: 1
  }
  param {
    lr_mult: 2
    decay_mult: 0
  }
  convolution_param {
    num_output: 256
    pad: 1
    kernel_size: 3
    weight_filler {
      type: "xavier"
      std: 0.03
    }
    bias_filler {
      type: "constant"
      value: 0.2
    }
  }
}
layer {
  name: "inception_4c/relu_3x3"
  type: "ReLU"
  bottom: "inception_4c/3x3"
  top: "inception_4c/3x3"
}
layer {
  name: "inception_4c/5x5_reduce"
  type: "Convolution"
  bottom: "inception_4b/output"
  top: "inception_4c/5x5_reduce"
  param {
    lr_mult: 1
    decay_mult: 1
  }
  param {
    lr_mult: 2
    decay_mult: 0
  }
  convolution_param {
    num_output: 24
    kernel_size: 1
    weight_filler {
      type: "xavier"
      std: 0.2
    }
    bias_filler {
      type: "constant"
      value: 0.2
    }
  }
}
layer {
  name: "inception_4c/relu_5x5_reduce"
  type: "ReLU"
  bottom: "inception_4c/5x5_reduce"
  top: "inception_4c/5x5_reduce"
}
layer {
  name: "inception_4c/5x5"
  type: "Convolution"
  bottom: "inception_4c/5x5_reduce"
  top: "inception_4c/5x5"
  param {
    lr_mult: 1
    decay_mult: 1
  }
  param {
    lr_mult: 2
    decay_mult: 0
  }
  convolution_param {
    num_output: 64
    pad: 2
    kernel_size: 5
    weight_filler {
      type: "xavier"
      std: 0.03
    }
    bias_filler {
      type: "constant"
      value: 0.2
    }
  }
}
layer {
  name: "inception_4c/relu_5x5"
  type: "ReLU"
  bottom: "inception_4c/5x5"
  top: "inception_4c/5x5"
}
layer {
  name: "inception_4c/pool"
  type: "Pooling"
  bottom: "inception_4b/output"
  top: "inception_4c/pool"
  pooling_param {
    pool: MAX
    kernel_size: 3
    stride: 1
    pad: 1
  }
}
layer {
  name: "inception_4c/pool_proj"
  type: "Convolution"
  bottom: "inception_4c/pool"
  top: "inception_4c/pool_proj"
  param {
    lr_mult: 1
    decay_mult: 1
  }
  param {
    lr_mult: 2
    decay_mult: 0
  }
  convolution_param {
    num_output: 64
    kernel_size: 1
    weight_filler {
      type: "xavier"
      std: 0.1
    }
    bias_filler {
      type: "constant"
      value: 0.2
    }
  }
}
layer {
  name: "inception_4c/relu_pool_proj"
  type: "ReLU"
  bottom: "inception_4c/pool_proj"
  top: "inception_4c/pool_proj"
}
layer {
  name: "inception_4c/output"
  type: "Concat"
  bottom: "inception_4c/1x1"
  bottom: "inception_4c/3x3"
  bottom: "inception_4c/5x5"
  bottom: "inception_4c/pool_proj"
  top: "inception_4c/output"
}
layer {
  name: "inception_4d/1x1"
  type: "Convolution"
  bottom: "inception_4c/output"
  top: "inception_4d/1x1"
  param {
    lr_mult: 1
    decay_mult: 1
  }
  param {
    lr_mult: 2
    decay_mult: 0
  }
  convolution_param {
    num_output: 112
    kernel_size: 1
    weight_filler {
      type: "xavier"
      std: 0.03
    }
    bias_filler {
      type: "constant"
      value: 0.2
    }
  }
}
layer {
  name: "inception_4d/relu_1x1"
  type: "ReLU"
  bottom: "inception_4d/1x1"
  top: "inception_4d/1x1"
}
layer {
  name: "inception_4d/3x3_reduce"
  type: "Convolution"
  bottom: "inception_4c/output"
  top: "inception_4d/3x3_reduce"
  param {
    lr_mult: 1
    decay_mult: 1
  }
  param {
    lr_mult: 2
    decay_mult: 0
  }
  convolution_param {
    num_output: 144
    kernel_size: 1
    weight_filler {
      type: "xavier"
      std: 0.09
    }
    bias_filler {
      type: "constant"
      value: 0.2
    }
  }
}
layer {
  name: "inception_4d/relu_3x3_reduce"
  type: "ReLU"
  bottom: "inception_4d/3x3_reduce"
  top: "inception_4d/3x3_reduce"
}
layer {
  name: "inception_4d/3x3"
  type: "Convolution"
  bottom: "inception_4d/3x3_reduce"
  top: "inception_4d/3x3"
  param {
    lr_mult: 1
    decay_mult: 1
  }
  param {
    lr_mult: 2
    decay_mult: 0
  }
  convolution_param {
    num_output: 288
    pad: 1
    kernel_size: 3
    weight_filler {
      type: "xavier"
      std: 0.03
    }
    bias_filler {
      type: "constant"
      value: 0.2
    }
  }
}
layer {
  name: "inception_4d/relu_3x3"
  type: "ReLU"
  bottom: "inception_4d/3x3"
  top: "inception_4d/3x3"
}
layer {
  name: "inception_4d/5x5_reduce"
  type: "Convolution"
  bottom: "inception_4c/output"
  top: "inception_4d/5x5_reduce"
  param {
    lr_mult: 1
    decay_mult: 1
  }
  param {
    lr_mult: 2
    decay_mult: 0
  }
  convolution_param {
    num_output: 32
    kernel_size: 1
    weight_filler {
      type: "xavier"
      std: 0.2
    }
    bias_filler {
      type: "constant"
      value: 0.2
    }
  }
}
layer {
  name: "inception_4d/relu_5x5_reduce"
  type: "ReLU"
  bottom: "inception_4d/5x5_reduce"
  top: "inception_4d/5x5_reduce"
}
layer {
  name: "inception_4d/5x5"
  type: "Convolution"
  bottom: "inception_4d/5x5_reduce"
  top: "inception_4d/5x5"
  param {
    lr_mult: 1
    decay_mult: 1
  }
  param {
    lr_mult: 2
    decay_mult: 0
  }
  convolution_param {
    num_output: 64
    pad: 2
    kernel_size: 5
    weight_filler {
      type: "xavier"
      std: 0.03
    }
    bias_filler {
      type: "constant"
      value: 0.2
    }
  }
}
layer {
  name: "inception_4d/relu_5x5"
  type: "ReLU"
  bottom: "inception_4d/5x5"
  top: "inception_4d/5x5"
}
layer {
  name: "inception_4d/pool"
  type: "Pooling"
  bottom: "inception_4c/output"
  top: "inception_4d/pool"
  pooling_param {
    pool: MAX
    kernel_size: 3
    stride: 1
    pad: 1
  }
}
layer {
  name: "inception_4d/pool_proj"
  type: "Convolution"
  bottom: "inception_4d/pool"
  top: "inception_4d/pool_proj"
  param {
    lr_mult: 1
    decay_mult: 1
  }
  param {
    lr_mult: 2
    decay_mult: 0
  }
  convolution_param {
    num_output: 64
    kernel_size: 1
    weight_filler {
      type: "xavier"
      std: 0.1
    }
    bias_filler {
      type: "constant"
      value: 0.2
    }
  }
}
layer {
  name: "inception_4d/relu_pool_proj"
  type: "ReLU"
  bottom: "inception_4d/pool_proj"
  top: "inception_4d/pool_proj"
}
layer {
  name: "inception_4d/output"
  type: "Concat"
  bottom: "inception_4d/1x1"
  bottom: "inception_4d/3x3"
  bottom: "inception_4d/5x5"
  bottom: "inception_4d/pool_proj"
  top: "inception_4d/output"
}
layer {
  name: "loss2/ave_pool"
  type: "Pooling"
  bottom: "inception_4d/output"
  top: "loss2/ave_pool"
  pooling_param {
    pool: AVE
    kernel_size: 5
    stride: 3
  }
}
layer {
  name: "loss2/conv"
  type: "Convolution"
  bottom: "loss2/ave_pool"
  top: "loss2/conv"
  param {
    lr_mult: 1
    decay_mult: 1
  }
  param {
    lr_mult: 2
    decay_mult: 0
  }
  convolution_param {
    num_output: 128
    kernel_size: 1
    weight_filler {
      type: "xavier"
      std: 0.08
    }
    bias_filler {
      type: "constant"
      value: 0.2
    }
  }
}
layer {
  name: "loss2/relu_conv"
  type: "ReLU"
  bottom: "loss2/conv"
  top: "loss2/conv"
}
layer {
  name: "loss2/fc"
  type: "InnerProduct"
  bottom: "loss2/conv"
  top: "loss2/fc"
  param {
    lr_mult: 1
    decay_mult: 1
  }
  param {
    lr_mult: 2
    decay_mult: 0
  }
  inner_product_param {
    num_output: 1024
    weight_filler {
      type: "xavier"
      std: 0.02
    }
    bias_filler {
      type: "constant"
      value: 0.2
    }
  }
}
layer {
  name: "loss2/relu_fc"
  type: "ReLU"
  bottom: "loss2/fc"
  top: "loss2/fc"
}
layer {
  name: "loss2/drop_fc"
  type: "Dropout"
  bottom: "loss2/fc"
  top: "loss2/fc"
  dropout_param {
    dropout_ratio: 0.7
  }
}
layer {
  name: "loss2/classifier_plantvillage"
  type: "InnerProduct"
  bottom: "loss2/fc"
  top: "loss2/classifier_plantvillage"
  param {
    lr_mult: 1
    decay_mult: 1
  }
  param {
    lr_mult: 2
    decay_mult: 0
  }
  inner_product_param {
    num_output: 38
    weight_filler {
      type: "xavier"
      std: 0.0009765625
    }
    bias_filler {
      type: "constant"
      value: 0
    }
  }
}
layer {
  name: "inception_4e/1x1"
  type: "Convolution"
  bottom: "inception_4d/output"
  top: "inception_4e/1x1"
  param {
    lr_mult: 1
    decay_mult: 1
  }
  param {
    lr_mult: 2
    decay_mult: 0
  }
  convolution_param {
    num_output: 256
    kernel_size: 1
    weight_filler {
      type: "xavier"
      std: 0.03
    }
    bias_filler {
      type: "constant"
      value: 0.2
    }
  }
}
layer {
  name: "inception_4e/relu_1x1"
  type: "ReLU"
  bottom: "inception_4e/1x1"
  top: "inception_4e/1x1"
}
layer {
  name: "inception_4e/3x3_reduce"
  type: "Convolution"
  bottom: "inception_4d/output"
  top: "inception_4e/3x3_reduce"
  param {
    lr_mult: 1
    decay_mult: 1
  }
  param {
    lr_mult: 2
    decay_mult: 0
  }
  convolution_param {
    num_output: 160
    kernel_size: 1
    weight_filler {
      type: "xavier"
      std: 0.09
    }
    bias_filler {
      type: "constant"
      value: 0.2
    }
  }
}
layer {
  name: "inception_4e/relu_3x3_reduce"
  type: "ReLU"
  bottom: "inception_4e/3x3_reduce"
  top: "inception_4e/3x3_reduce"
}
layer {
  name: "inception_4e/3x3"
  type: "Convolution"
  bottom: "inception_4e/3x3_reduce"
  top: "inception_4e/3x3"
  param {
    lr_mult: 1
    decay_mult: 1
  }
  param {
    lr_mult: 2
    decay_mult: 0
  }
  convolution_param {
    num_output: 320
    pad: 1
    kernel_size: 3
    weight_filler {
      type: "xavier"
      std: 0.03
    }
    bias_filler {
      type: "constant"
      value: 0.2
    }
  }
}
layer {
  name: "inception_4e/relu_3x3"
  type: "ReLU"
  bottom: "inception_4e/3x3"
  top: "inception_4e/3x3"
}
layer {
  name: "inception_4e/5x5_reduce"
  type: "Convolution"
  bottom: "inception_4d/output"
  top: "inception_4e/5x5_reduce"
  param {
    lr_mult: 1
    decay_mult: 1
  }
  param {
    lr_mult: 2
    decay_mult: 0
  }
  convolution_param {
    num_output: 32
    kernel_size: 1
    weight_filler {
      type: "xavier"
      std: 0.2
    }
    bias_filler {
      type: "constant"
      value: 0.2
    }
  }
}
layer {
  name: "inception_4e/relu_5x5_reduce"
  type: "ReLU"
  bottom: "inception_4e/5x5_reduce"
  top: "inception_4e/5x5_reduce"
}
layer {
  name: "inception_4e/5x5"
  type: "Convolution"
  bottom: "inception_4e/5x5_reduce"
  top: "inception_4e/
I0403 15:37:46.003932 12156 layer_factory.hpp:77] Creating layer data
I0403 15:37:46.004510 12156 net.cpp:91] Creating Layer data
I0403 15:37:46.004544 12156 net.cpp:399] data -> data
I0403 15:37:46.004602 12156 net.cpp:399] data -> label
I0403 15:37:46.004637 12156 data_transformer.cpp:25] Loading mean file from: /home/mohanty/data/final_dataset/lmdb/segmented-50-50/mean.binaryproto
I0403 15:37:46.008035 12160 db_lmdb.cpp:38] Opened lmdb /home/mohanty/data/final_dataset/lmdb/segmented-50-50/test_db
I0403 15:37:46.017874 12156 data_layer.cpp:41] output data size: 24,3,224,224
I0403 15:37:46.048225 12156 net.cpp:141] Setting up data
I0403 15:37:46.048352 12156 net.cpp:148] Top shape: 24 3 224 224 (3612672)
I0403 15:37:46.048388 12156 net.cpp:148] Top shape: 24 (24)
I0403 15:37:46.048403 12156 net.cpp:156] Memory required for data: 14450784
I0403 15:37:46.048437 12156 layer_factory.hpp:77] Creating layer label_data_1_split
I0403 15:37:46.048465 12156 net.cpp:91] Creating Layer label_data_1_split
I0403 15:37:46.048485 12156 net.cpp:425] label_data_1_split <- label
I0403 15:37:46.048518 12156 net.cpp:399] label_data_1_split -> label_data_1_split_0
I0403 15:37:46.048547 12156 net.cpp:399] label_data_1_split -> label_data_1_split_1
I0403 15:37:46.048570 12156 net.cpp:399] label_data_1_split -> label_data_1_split_2
I0403 15:37:46.048593 12156 net.cpp:399] label_data_1_split -> label_data_1_split_3
I0403 15:37:46.048624 12156 net.cpp:399] label_data_1_split -> label_data_1_split_4
I0403 15:37:46.048645 12156 net.cpp:399] label_data_1_split -> label_data_1_split_5
I0403 15:37:46.048676 12156 net.cpp:399] label_data_1_split -> label_data_1_split_6
I0403 15:37:46.048696 12156 net.cpp:399] label_data_1_split -> label_data_1_split_7
I0403 15:37:46.048714 12156 net.cpp:399] label_data_1_split -> label_data_1_split_8
I0403 15:37:46.048734 12156 net.cpp:399] label_data_1_split -> label_data_1_split_9
I0403 15:37:46.048847 12156 net.cpp:141] Setting up label_data_1_split
I0403 15:37:46.048869 12156 net.cpp:148] Top shape: 24 (24)
I0403 15:37:46.048887 12156 net.cpp:148] Top shape: 24 (24)
I0403 15:37:46.048902 12156 net.cpp:148] Top shape: 24 (24)
I0403 15:37:46.048918 12156 net.cpp:148] Top shape: 24 (24)
I0403 15:37:46.048933 12156 net.cpp:148] Top shape: 24 (24)
I0403 15:37:46.048949 12156 net.cpp:148] Top shape: 24 (24)
I0403 15:37:46.048964 12156 net.cpp:148] Top shape: 24 (24)
I0403 15:37:46.048979 12156 net.cpp:148] Top shape: 24 (24)
I0403 15:37:46.048993 12156 net.cpp:148] Top shape: 24 (24)
I0403 15:37:46.049010 12156 net.cpp:148] Top shape: 24 (24)
I0403 15:37:46.049054 12156 net.cpp:156] Memory required for data: 14451744
I0403 15:37:46.049070 12156 layer_factory.hpp:77] Creating layer conv1/7x7_s2
I0403 15:37:46.049101 12156 net.cpp:91] Creating Layer conv1/7x7_s2
I0403 15:37:46.049120 12156 net.cpp:425] conv1/7x7_s2 <- data
I0403 15:37:46.049139 12156 net.cpp:399] conv1/7x7_s2 -> conv1/7x7_s2
I0403 15:37:46.189368 12156 net.cpp:141] Setting up conv1/7x7_s2
I0403 15:37:46.189421 12156 net.cpp:148] Top shape: 24 64 112 112 (19267584)
I0403 15:37:46.189440 12156 net.cpp:156] Memory required for data: 91522080
I0403 15:37:46.189470 12156 layer_factory.hpp:77] Creating layer conv1/relu_7x7
I0403 15:37:46.189496 12156 net.cpp:91] Creating Layer conv1/relu_7x7
I0403 15:37:46.189515 12156 net.cpp:425] conv1/relu_7x7 <- conv1/7x7_s2
I0403 15:37:46.189534 12156 net.cpp:386] conv1/relu_7x7 -> conv1/7x7_s2 (in-place)
I0403 15:37:46.189786 12156 net.cpp:141] Setting up conv1/relu_7x7
I0403 15:37:46.189813 12156 net.cpp:148] Top shape: 24 64 112 112 (19267584)
I0403 15:37:46.189828 12156 net.cpp:156] Memory required for data: 168592416
I0403 15:37:46.189842 12156 layer_factory.hpp:77] Creating layer pool1/3x3_s2
I0403 15:37:46.189867 12156 net.cpp:91] Creating Layer pool1/3x3_s2
I0403 15:37:46.189884 12156 net.cpp:425] pool1/3x3_s2 <- conv1/7x7_s2
I0403 15:37:46.189903 12156 net.cpp:399] pool1/3x3_s2 -> pool1/3x3_s2
I0403 15:37:46.189975 12156 net.cpp:141] Setting up pool1/3x3_s2
I0403 15:37:46.189998 12156 net.cpp:148] Top shape: 24 64 56 56 (4816896)
I0403 15:37:46.190013 12156 net.cpp:156] Memory required for data: 187860000
I0403 15:37:46.190028 12156 layer_factory.hpp:77] Creating layer pool1/norm1
I0403 15:37:46.190052 12156 net.cpp:91] Creating Layer pool1/norm1
I0403 15:37:46.190069 12156 net.cpp:425] pool1/norm1 <- pool1/3x3_s2
I0403 15:37:46.190086 12156 net.cpp:399] pool1/norm1 -> pool1/norm1
I0403 15:37:46.190364 12156 net.cpp:141] Setting up pool1/norm1
I0403 15:37:46.190392 12156 net.cpp:148] Top shape: 24 64 56 56 (4816896)
I0403 15:37:46.190407 12156 net.cpp:156] Memory required for data: 207127584
I0403 15:37:46.190426 12156 layer_factory.hpp:77] Creating layer conv2/3x3_reduce
I0403 15:37:46.190450 12156 net.cpp:91] Creating Layer conv2/3x3_reduce
I0403 15:37:46.190467 12156 net.cpp:425] conv2/3x3_reduce <- pool1/norm1
I0403 15:37:46.190486 12156 net.cpp:399] conv2/3x3_reduce -> conv2/3x3_reduce
I0403 15:37:46.191792 12156 net.cpp:141] Setting up conv2/3x3_reduce
I0403 15:37:46.191822 12156 net.cpp:148] Top shape: 24 64 56 56 (4816896)
I0403 15:37:46.191836 12156 net.cpp:156] Memory required for data: 226395168
I0403 15:37:46.191857 12156 layer_factory.hpp:77] Creating layer conv2/relu_3x3_reduce
I0403 15:37:46.191876 12156 net.cpp:91] Creating Layer conv2/relu_3x3_reduce
I0403 15:37:46.191891 12156 net.cpp:425] conv2/relu_3x3_reduce <- conv2/3x3_reduce
I0403 15:37:46.191910 12156 net.cpp:386] conv2/relu_3x3_reduce -> conv2/3x3_reduce (in-place)
I0403 15:37:46.192157 12156 net.cpp:141] Setting up conv2/relu_3x3_reduce
I0403 15:37:46.192183 12156 net.cpp:148] Top shape: 24 64 56 56 (4816896)
I0403 15:37:46.192198 12156 net.cpp:156] Memory required for data: 245662752
I0403 15:37:46.192212 12156 layer_factory.hpp:77] Creating layer conv2/3x3
I0403 15:37:46.192234 12156 net.cpp:91] Creating Layer conv2/3x3
I0403 15:37:46.192250 12156 net.cpp:425] conv2/3x3 <- conv2/3x3_reduce
I0403 15:37:46.192270 12156 net.cpp:399] conv2/3x3 -> conv2/3x3
I0403 15:37:46.194506 12156 net.cpp:141] Setting up conv2/3x3
I0403 15:37:46.194535 12156 net.cpp:148] Top shape: 24 192 56 56 (14450688)
I0403 15:37:46.194551 12156 net.cpp:156] Memory required for data: 303465504
I0403 15:37:46.194572 12156 layer_factory.hpp:77] Creating layer conv2/relu_3x3
I0403 15:37:46.194591 12156 net.cpp:91] Creating Layer conv2/relu_3x3
I0403 15:37:46.194607 12156 net.cpp:425] conv2/relu_3x3 <- conv2/3x3
I0403 15:37:46.194625 12156 net.cpp:386] conv2/relu_3x3 -> conv2/3x3 (in-place)
I0403 15:37:46.194802 12156 net.cpp:141] Setting up conv2/relu_3x3
I0403 15:37:46.194829 12156 net.cpp:148] Top shape: 24 192 56 56 (14450688)
I0403 15:37:46.194866 12156 net.cpp:156] Memory required for data: 361268256
I0403 15:37:46.194882 12156 layer_factory.hpp:77] Creating layer conv2/norm2
I0403 15:37:46.194900 12156 net.cpp:91] Creating Layer conv2/norm2
I0403 15:37:46.194916 12156 net.cpp:425] conv2/norm2 <- conv2/3x3
I0403 15:37:46.194936 12156 net.cpp:399] conv2/norm2 -> conv2/norm2
I0403 15:37:46.195241 12156 net.cpp:141] Setting up conv2/norm2
I0403 15:37:46.195267 12156 net.cpp:148] Top shape: 24 192 56 56 (14450688)
I0403 15:37:46.195282 12156 net.cpp:156] Memory required for data: 419071008
I0403 15:37:46.195297 12156 layer_factory.hpp:77] Creating layer pool2/3x3_s2
I0403 15:37:46.195314 12156 net.cpp:91] Creating Layer pool2/3x3_s2
I0403 15:37:46.195329 12156 net.cpp:425] pool2/3x3_s2 <- conv2/norm2
I0403 15:37:46.195350 12156 net.cpp:399] pool2/3x3_s2 -> pool2/3x3_s2
I0403 15:37:46.195402 12156 net.cpp:141] Setting up pool2/3x3_s2
I0403 15:37:46.195431 12156 net.cpp:148] Top shape: 24 192 28 28 (3612672)
I0403 15:37:46.195448 12156 net.cpp:156] Memory required for data: 433521696
I0403 15:37:46.195463 12156 layer_factory.hpp:77] Creating layer pool2/3x3_s2_pool2/3x3_s2_0_split
I0403 15:37:46.195480 12156 net.cpp:91] Creating Layer pool2/3x3_s2_pool2/3x3_s2_0_split
I0403 15:37:46.195497 12156 net.cpp:425] pool2/3x3_s2_pool2/3x3_s2_0_split <- pool2/3x3_s2
I0403 15:37:46.195513 12156 net.cpp:399] pool2/3x3_s2_pool2/3x3_s2_0_split -> pool2/3x3_s2_pool2/3x3_s2_0_split_0
I0403 15:37:46.195533 12156 net.cpp:399] pool2/3x3_s2_pool2/3x3_s2_0_split -> pool2/3x3_s2_pool2/3x3_s2_0_split_1
I0403 15:37:46.195554 12156 net.cpp:399] pool2/3x3_s2_pool2/3x3_s2_0_split -> pool2/3x3_s2_pool2/3x3_s2_0_split_2
I0403 15:37:46.195576 12156 net.cpp:399] pool2/3x3_s2_pool2/3x3_s2_0_split -> pool2/3x3_s2_pool2/3x3_s2_0_split_3
I0403 15:37:46.195646 12156 net.cpp:141] Setting up pool2/3x3_s2_pool2/3x3_s2_0_split
I0403 15:37:46.195667 12156 net.cpp:148] Top shape: 24 192 28 28 (3612672)
I0403 15:37:46.195683 12156 net.cpp:148] Top shape: 24 192 28 28 (3612672)
I0403 15:37:46.195698 12156 net.cpp:148] Top shape: 24 192 28 28 (3612672)
I0403 15:37:46.195714 12156 net.cpp:148] Top shape: 24 192 28 28 (3612672)
I0403 15:37:46.195729 12156 net.cpp:156] Memory required for data: 491324448
I0403 15:37:46.195742 12156 layer_factory.hpp:77] Creating layer inception_3a/1x1
I0403 15:37:46.195765 12156 net.cpp:91] Creating Layer inception_3a/1x1
I0403 15:37:46.195783 12156 net.cpp:425] inception_3a/1x1 <- pool2/3x3_s2_pool2/3x3_s2_0_split_0
I0403 15:37:46.195806 12156 net.cpp:399] inception_3a/1x1 -> inception_3a/1x1
I0403 15:37:46.197347 12156 net.cpp:141] Setting up inception_3a/1x1
I0403 15:37:46.197376 12156 net.cpp:148] Top shape: 24 64 28 28 (1204224)
I0403 15:37:46.197391 12156 net.cpp:156] Memory required for data: 496141344
I0403 15:37:46.197413 12156 layer_factory.hpp:77] Creating layer inception_3a/relu_1x1
I0403 15:37:46.197434 12156 net.cpp:91] Creating Layer inception_3a/relu_1x1
I0403 15:37:46.197450 12156 net.cpp:425] inception_3a/relu_1x1 <- inception_3a/1x1
I0403 15:37:46.197470 12156 net.cpp:386] inception_3a/relu_1x1 -> inception_3a/1x1 (in-place)
I0403 15:37:46.197643 12156 net.cpp:141] Setting up inception_3a/relu_1x1
I0403 15:37:46.197669 12156 net.cpp:148] Top shape: 24 64 28 28 (1204224)
I0403 15:37:46.197684 12156 net.cpp:156] Memory required for data: 500958240
I0403 15:37:46.197698 12156 layer_factory.hpp:77] Creating layer inception_3a/3x3_reduce
I0403 15:37:46.197721 12156 net.cpp:91] Creating Layer inception_3a/3x3_reduce
I0403 15:37:46.197738 12156 net.cpp:425] inception_3a/3x3_reduce <- pool2/3x3_s2_pool2/3x3_s2_0_split_1
I0403 15:37:46.197759 12156 net.cpp:399] inception_3a/3x3_reduce -> inception_3a/3x3_reduce
I0403 15:37:46.199473 12156 net.cpp:141] Setting up inception_3a/3x3_reduce
I0403 15:37:46.199502 12156 net.cpp:148] Top shape: 24 96 28 28 (1806336)
I0403 15:37:46.199518 12156 net.cpp:156] Memory required for data: 508183584
I0403 15:37:46.199539 12156 layer_factory.hpp:77] Creating layer inception_3a/relu_3x3_reduce
I0403 15:37:46.199581 12156 net.cpp:91] Creating Layer inception_3a/relu_3x3_reduce
I0403 15:37:46.199600 12156 net.cpp:425] inception_3a/relu_3x3_reduce <- inception_3a/3x3_reduce
I0403 15:37:46.199617 12156 net.cpp:386] inception_3a/relu_3x3_reduce -> inception_3a/3x3_reduce (in-place)
I0403 15:37:46.199797 12156 net.cpp:141] Setting up inception_3a/relu_3x3_reduce
I0403 15:37:46.199822 12156 net.cpp:148] Top shape: 24 96 28 28 (1806336)
I0403 15:37:46.199837 12156 net.cpp:156] Memory required for data: 515408928
I0403 15:37:46.199851 12156 layer_factory.hpp:77] Creating layer inception_3a/3x3
I0403 15:37:46.199875 12156 net.cpp:91] Creating Layer inception_3a/3x3
I0403 15:37:46.199893 12156 net.cpp:425] inception_3a/3x3 <- inception_3a/3x3_reduce
I0403 15:37:46.199914 12156 net.cpp:399] inception_3a/3x3 -> inception_3a/3x3
I0403 15:37:46.201594 12156 net.cpp:141] Setting up inception_3a/3x3
I0403 15:37:46.201622 12156 net.cpp:148] Top shape: 24 128 28 28 (2408448)
I0403 15:37:46.201637 12156 net.cpp:156] Memory required for data: 525042720
I0403 15:37:46.201654 12156 layer_factory.hpp:77] Creating layer inception_3a/relu_3x3
I0403 15:37:46.201675 12156 net.cpp:91] Creating Layer inception_3a/relu_3x3
I0403 15:37:46.201692 12156 net.cpp:425] inception_3a/relu_3x3 <- inception_3a/3x3
I0403 15:37:46.201710 12156 net.cpp:386] inception_3a/relu_3x3 -> inception_3a/3x3 (in-place)
I0403 15:37:46.201982 12156 net.cpp:141] Setting up inception_3a/relu_3x3
I0403 15:37:46.202008 12156 net.cpp:148] Top shape: 24 128 28 28 (2408448)
I0403 15:37:46.202023 12156 net.cpp:156] Memory required for data: 534676512
I0403 15:37:46.202038 12156 layer_factory.hpp:77] Creating layer inception_3a/5x5_reduce
I0403 15:37:46.202060 12156 net.cpp:91] Creating Layer inception_3a/5x5_reduce
I0403 15:37:46.202078 12156 net.cpp:425] inception_3a/5x5_reduce <- pool2/3x3_s2_pool2/3x3_s2_0_split_2
I0403 15:37:46.202100 12156 net.cpp:399] inception_3a/5x5_reduce -> inception_3a/5x5_reduce
I0403 15:37:46.203060 12156 net.cpp:141] Setting up inception_3a/5x5_reduce
I0403 15:37:46.203088 12156 net.cpp:148] Top shape: 24 16 28 28 (301056)
I0403 15:37:46.203104 12156 net.cpp:156] Memory required for data: 535880736
I0403 15:37:46.203121 12156 layer_factory.hpp:77] Creating layer inception_3a/relu_5x5_reduce
I0403 15:37:46.203148 12156 net.cpp:91] Creating Layer inception_3a/relu_5x5_reduce
I0403 15:37:46.203166 12156 net.cpp:425] inception_3a/relu_5x5_reduce <- inception_3a/5x5_reduce
I0403 15:37:46.203183 12156 net.cpp:386] inception_3a/relu_5x5_reduce -> inception_3a/5x5_reduce (in-place)
I0403 15:37:46.203506 12156 net.cpp:141] Setting up inception_3a/relu_5x5_reduce
I0403 15:37:46.203536 12156 net.cpp:148] Top shape: 24 16 28 28 (301056)
I0403 15:37:46.203553 12156 net.cpp:156] Memory required for data: 537084960
I0403 15:37:46.203568 12156 layer_factory.hpp:77] Creating layer inception_3a/5x5
I0403 15:37:46.203593 12156 net.cpp:91] Creating Layer inception_3a/5x5
I0403 15:37:46.203610 12156 net.cpp:425] inception_3a/5x5 <- inception_3a/5x5_reduce
I0403 15:37:46.203630 12156 net.cpp:399] inception_3a/5x5 -> inception_3a/5x5
I0403 15:37:46.204677 12156 net.cpp:141] Setting up inception_3a/5x5
I0403 15:37:46.204705 12156 net.cpp:148] Top shape: 24 32 28 28 (602112)
I0403 15:37:46.204720 12156 net.cpp:156] Memory required for data: 539493408
I0403 15:37:46.204738 12156 layer_factory.hpp:77] Creating layer inception_3a/relu_5x5
I0403 15:37:46.204759 12156 net.cpp:91] Creating Layer inception_3a/relu_5x5
I0403 15:37:46.204777 12156 net.cpp:425] inception_3a/relu_5x5 <- inception_3a/5x5
I0403 15:37:46.204794 12156 net.cpp:386] inception_3a/relu_5x5 -> inception_3a/5x5 (in-place)
I0403 15:37:46.204965 12156 net.cpp:141] Setting up inception_3a/relu_5x5
I0403 15:37:46.204993 12156 net.cpp:148] Top shape: 24 32 28 28 (602112)
I0403 15:37:46.205008 12156 net.cpp:156] Memory required for data: 541901856
I0403 15:37:46.205023 12156 layer_factory.hpp:77] Creating layer inception_3a/pool
I0403 15:37:46.205040 12156 net.cpp:91] Creating Layer inception_3a/pool
I0403 15:37:46.205070 12156 net.cpp:425] inception_3a/pool <- pool2/3x3_s2_pool2/3x3_s2_0_split_3
I0403 15:37:46.205090 12156 net.cpp:399] inception_3a/pool -> inception_3a/pool
I0403 15:37:46.205147 12156 net.cpp:141] Setting up inception_3a/pool
I0403 15:37:46.205170 12156 net.cpp:148] Top shape: 24 192 28 28 (3612672)
I0403 15:37:46.205185 12156 net.cpp:156] Memory required for data: 556352544
I0403 15:37:46.205199 12156 layer_factory.hpp:77] Creating layer inception_3a/pool_proj
I0403 15:37:46.205222 12156 net.cpp:91] Creating Layer inception_3a/pool_proj
I0403 15:37:46.205240 12156 net.cpp:425] inception_3a/pool_proj <- inception_3a/pool
I0403 15:37:46.205261 12156 net.cpp:399] inception_3a/pool_proj -> inception_3a/pool_proj
I0403 15:37:46.206218 12156 net.cpp:141] Setting up inception_3a/pool_proj
I0403 15:37:46.206246 12156 net.cpp:148] Top shape: 24 32 28 28 (602112)
I0403 15:37:46.206261 12156 net.cpp:156] Memory required for data: 558760992
I0403 15:37:46.206284 12156 layer_factory.hpp:77] Creating layer inception_3a/relu_pool_proj
I0403 15:37:46.206310 12156 net.cpp:91] Creating Layer inception_3a/relu_pool_proj
I0403 15:37:46.206326 12156 net.cpp:425] inception_3a/relu_pool_proj <- inception_3a/pool_proj
I0403 15:37:46.206344 12156 net.cpp:386] inception_3a/relu_pool_proj -> inception_3a/pool_proj (in-place)
I0403 15:37:46.206619 12156 net.cpp:141] Setting up inception_3a/relu_pool_proj
I0403 15:37:46.206646 12156 net.cpp:148] Top shape: 24 32 28 28 (602112)
I0403 15:37:46.206661 12156 net.cpp:156] Memory required for data: 561169440
I0403 15:37:46.206676 12156 layer_factory.hpp:77] Creating layer inception_3a/output
I0403 15:37:46.206693 12156 net.cpp:91] Creating Layer inception_3a/output
I0403 15:37:46.206708 12156 net.cpp:425] inception_3a/output <- inception_3a/1x1
I0403 15:37:46.206727 12156 net.cpp:425] inception_3a/output <- inception_3a/3x3
I0403 15:37:46.206744 12156 net.cpp:425] inception_3a/output <- inception_3a/5x5
I0403 15:37:46.206759 12156 net.cpp:425] inception_3a/output <- inception_3a/pool_proj
I0403 15:37:46.206776 12156 net.cpp:399] inception_3a/output -> inception_3a/output
I0403 15:37:46.206823 12156 net.cpp:141] Setting up inception_3a/output
I0403 15:37:46.206846 12156 net.cpp:148] Top shape: 24 256 28 28 (4816896)
I0403 15:37:46.206861 12156 net.cpp:156] Memory required for data: 580437024
I0403 15:37:46.206874 12156 layer_factory.hpp:77] Creating layer inception_3a/output_inception_3a/output_0_split
I0403 15:37:46.206892 12156 net.cpp:91] Creating Layer inception_3a/output_inception_3a/output_0_split
I0403 15:37:46.206907 12156 net.cpp:425] inception_3a/output_inception_3a/output_0_split <- inception_3a/output
I0403 15:37:46.206928 12156 net.cpp:399] inception_3a/output_inception_3a/output_0_split -> inception_3a/output_inception_3a/output_0_split_0
I0403 15:37:46.206948 12156 net.cpp:399] inception_3a/output_inception_3a/output_0_split -> inception_3a/output_inception_3a/output_0_split_1
I0403 15:37:46.206971 12156 net.cpp:399] inception_3a/output_inception_3a/output_0_split -> inception_3a/output_inception_3a/output_0_split_2
I0403 15:37:46.206995 12156 net.cpp:399] inception_3a/output_inception_3a/output_0_split -> inception_3a/output_inception_3a/output_0_split_3
I0403 15:37:46.207069 12156 net.cpp:141] Setting up inception_3a/output_inception_3a/output_0_split
I0403 15:37:46.207093 12156 net.cpp:148] Top shape: 24 256 28 28 (4816896)
I0403 15:37:46.207108 12156 net.cpp:148] Top shape: 24 256 28 28 (4816896)
I0403 15:37:46.207124 12156 net.cpp:148] Top shape: 24 256 28 28 (4816896)
I0403 15:37:46.207139 12156 net.cpp:148] Top shape: 24 256 28 28 (4816896)
I0403 15:37:46.207154 12156 net.cpp:156] Memory required for data: 657507360
I0403 15:37:46.207168 12156 layer_factory.hpp:77] Creating layer inception_3b/1x1
I0403 15:37:46.207191 12156 net.cpp:91] Creating Layer inception_3b/1x1
I0403 15:37:46.207208 12156 net.cpp:425] inception_3b/1x1 <- inception_3a/output_inception_3a/output_0_split_0
I0403 15:37:46.207229 12156 net.cpp:399] inception_3b/1x1 -> inception_3b/1x1
I0403 15:37:46.208360 12156 net.cpp:141] Setting up inception_3b/1x1
I0403 15:37:46.208400 12156 net.cpp:148] Top shape: 24 128 28 28 (2408448)
I0403 15:37:46.208420 12156 net.cpp:156] Memory required for data: 667141152
I0403 15:37:46.208438 12156 layer_factory.hpp:77] Creating layer inception_3b/relu_1x1
I0403 15:37:46.208456 12156 net.cpp:91] Creating Layer inception_3b/relu_1x1
I0403 15:37:46.208477 12156 net.cpp:425] inception_3b/relu_1x1 <- inception_3b/1x1
I0403 15:37:46.208495 12156 net.cpp:386] inception_3b/relu_1x1 -> inception_3b/1x1 (in-place)
I0403 15:37:46.208667 12156 net.cpp:141] Setting up inception_3b/relu_1x1
I0403 15:37:46.208693 12156 net.cpp:148] Top shape: 24 128 28 28 (2408448)
I0403 15:37:46.208706 12156 net.cpp:156] Memory required for data: 676774944
I0403 15:37:46.208720 12156 layer_factory.hpp:77] Creating layer inception_3b/3x3_reduce
I0403 15:37:46.208742 12156 net.cpp:91] Creating Layer inception_3b/3x3_reduce
I0403 15:37:46.208760 12156 net.cpp:425] inception_3b/3x3_reduce <- inception_3a/output_inception_3a/output_0_split_1
I0403 15:37:46.208781 12156 net.cpp:399] inception_3b/3x3_reduce -> inception_3b/3x3_reduce
I0403 15:37:46.209916 12156 net.cpp:141] Setting up inception_3b/3x3_reduce
I0403 15:37:46.209945 12156 net.cpp:148] Top shape: 24 128 28 28 (2408448)
I0403 15:37:46.209960 12156 net.cpp:156] Memory required for data: 686408736
I0403 15:37:46.209978 12156 layer_factory.hpp:77] Creating layer inception_3b/relu_3x3_reduce
I0403 15:37:46.209996 12156 net.cpp:91] Creating Layer inception_3b/relu_3x3_reduce
I0403 15:37:46.210013 12156 net.cpp:425] inception_3b/relu_3x3_reduce <- inception_3b/3x3_reduce
I0403 15:37:46.210032 12156 net.cpp:386] inception_3b/relu_3x3_reduce -> inception_3b/3x3_reduce (in-place)
I0403 15:37:46.210207 12156 net.cpp:141] Setting up inception_3b/relu_3x3_reduce
I0403 15:37:46.210232 12156 net.cpp:148] Top shape: 24 128 28 28 (2408448)
I0403 15:37:46.210247 12156 net.cpp:156] Memory required for data: 696042528
I0403 15:37:46.210261 12156 layer_factory.hpp:77] Creating layer inception_3b/3x3
I0403 15:37:46.210289 12156 net.cpp:91] Creating Layer inception_3b/3x3
I0403 15:37:46.210306 12156 net.cpp:425] inception_3b/3x3 <- inception_3b/3x3_reduce
I0403 15:37:46.210325 12156 net.cpp:399] inception_3b/3x3 -> inception_3b/3x3
I0403 15:37:46.213315 12156 net.cpp:141] Setting up inception_3b/3x3
I0403 15:37:46.213343 12156 net.cpp:148] Top shape: 24 192 28 28 (3612672)
I0403 15:37:46.213359 12156 net.cpp:156] Memory required for data: 710493216
I0403 15:37:46.213377 12156 layer_factory.hpp:77] Creating layer inception_3b/relu_3x3
I0403 15:37:46.213399 12156 net.cpp:91] Creating Layer inception_3b/relu_3x3
I0403 15:37:46.213428 12156 net.cpp:425] inception_3b/relu_3x3 <- inception_3b/3x3
I0403 15:37:46.213449 12156 net.cpp:386] inception_3b/relu_3x3 -> inception_3b/3x3 (in-place)
I0403 15:37:46.213740 12156 net.cpp:141] Setting up inception_3b/relu_3x3
I0403 15:37:46.213768 12156 net.cpp:148] Top shape: 24 192 28 28 (3612672)
I0403 15:37:46.213783 12156 net.cpp:156] Memory required for data: 724943904
I0403 15:37:46.213798 12156 layer_factory.hpp:77] Creating layer inception_3b/5x5_reduce
I0403 15:37:46.213821 12156 net.cpp:91] Creating Layer inception_3b/5x5_reduce
I0403 15:37:46.213840 12156 net.cpp:425] inception_3b/5x5_reduce <- inception_3a/output_inception_3a/output_0_split_2
I0403 15:37:46.213862 12156 net.cpp:399] inception_3b/5x5_reduce -> inception_3b/5x5_reduce
I0403 15:37:46.214879 12156 net.cpp:141] Setting up inception_3b/5x5_reduce
I0403 15:37:46.214907 12156 net.cpp:148] Top shape: 24 32 28 28 (602112)
I0403 15:37:46.214923 12156 net.cpp:156] Memory required for data: 727352352
I0403 15:37:46.214942 12156 layer_factory.hpp:77] Creating layer inception_3b/relu_5x5_reduce
I0403 15:37:46.214963 12156 net.cpp:91] Creating Layer inception_3b/relu_5x5_reduce
I0403 15:37:46.214980 12156 net.cpp:425] inception_3b/relu_5x5_reduce <- inception_3b/5x5_reduce
I0403 15:37:46.214998 12156 net.cpp:386] inception_3b/relu_5x5_reduce -> inception_3b/5x5_reduce (in-place)
I0403 15:37:46.215193 12156 net.cpp:141] Setting up inception_3b/relu_5x5_reduce
I0403 15:37:46.215220 12156 net.cpp:148] Top shape: 24 32 28 28 (602112)
I0403 15:37:46.215236 12156 net.cpp:156] Memory required for data: 729760800
I0403 15:37:46.215251 12156 layer_factory.hpp:77] Creating layer inception_3b/5x5
I0403 15:37:46.215276 12156 net.cpp:91] Creating Layer inception_3b/5x5
I0403 15:37:46.215294 12156 net.cpp:425] inception_3b/5x5 <- inception_3b/5x5_reduce
I0403 15:37:46.215313 12156 net.cpp:399] inception_3b/5x5 -> inception_3b/5x5
I0403 15:37:46.217358 12156 net.cpp:141] Setting up inception_3b/5x5
I0403 15:37:46.217388 12156 net.cpp:148] Top shape: 24 96 28 28 (1806336)
I0403 15:37:46.217406 12156 net.cpp:156] Memory required for data: 736986144
I0403 15:37:46.217430 12156 layer_factory.hpp:77] Creating layer inception_3b/relu_5x5
I0403 15:37:46.217449 12156 net.cpp:91] Creating Layer inception_3b/relu_5x5
I0403 15:37:46.217465 12156 net.cpp:425] inception_3b/relu_5x5 <- inception_3b/5x5
I0403 15:37:46.217491 12156 net.cpp:386] inception_3b/relu_5x5 -> inception_3b/5x5 (in-place)
I0403 15:37:46.217691 12156 net.cpp:141] Setting up inception_3b/relu_5x5
I0403 15:37:46.217720 12156 net.cpp:148] Top shape: 24 96 28 28 (1806336)
I0403 15:37:46.217735 12156 net.cpp:156] Memory required for data: 744211488
I0403 15:37:46.217749 12156 layer_factory.hpp:77] Creating layer inception_3b/pool
I0403 15:37:46.217768 12156 net.cpp:91] Creating Layer inception_3b/pool
I0403 15:37:46.217785 12156 net.cpp:425] inception_3b/pool <- inception_3a/output_inception_3a/output_0_split_3
I0403 15:37:46.217804 12156 net.cpp:399] inception_3b/pool -> inception_3b/pool
I0403 15:37:46.217860 12156 net.cpp:141] Setting up inception_3b/pool
I0403 15:37:46.217885 12156 net.cpp:148] Top shape: 24 256 28 28 (4816896)
I0403 15:37:46.217900 12156 net.cpp:156] Memory required for data: 763479072
I0403 15:37:46.217914 12156 layer_factory.hpp:77] Creating layer inception_3b/pool_proj
I0403 15:37:46.217936 12156 net.cpp:91] Creating Layer inception_3b/pool_proj
I0403 15:37:46.217954 12156 net.cpp:425] inception_3b/pool_proj <- inception_3b/pool
I0403 15:37:46.217975 12156 net.cpp:399] inception_3b/pool_proj -> inception_3b/pool_proj
I0403 15:37:46.219051 12156 net.cpp:141] Setting up inception_3b/pool_proj
I0403 15:37:46.219082 12156 net.cpp:148] Top shape: 24 64 28 28 (1204224)
I0403 15:37:46.219099 12156 net.cpp:156] Memory required for data: 768295968
I0403 15:37:46.219118 12156 layer_factory.hpp:77] Creating layer inception_3b/relu_pool_proj
I0403 15:37:46.219137 12156 net.cpp:91] Creating Layer inception_3b/relu_pool_proj
I0403 15:37:46.219153 12156 net.cpp:425] inception_3b/relu_pool_proj <- inception_3b/pool_proj
I0403 15:37:46.219172 12156 net.cpp:386] inception_3b/relu_pool_proj -> inception_3b/pool_proj (in-place)
I0403 15:37:46.219579 12156 net.cpp:141] Setting up inception_3b/relu_pool_proj
I0403 15:37:46.219606 12156 net.cpp:148] Top shape: 24 64 28 28 (1204224)
I0403 15:37:46.219622 12156 net.cpp:156] Memory required for data: 773112864
I0403 15:37:46.219637 12156 layer_factory.hpp:77] Creating layer inception_3b/output
I0403 15:37:46.219657 12156 net.cpp:91] Creating Layer inception_3b/output
I0403 15:37:46.219676 12156 net.cpp:425] inception_3b/output <- inception_3b/1x1
I0403 15:37:46.219692 12156 net.cpp:425] inception_3b/output <- inception_3b/3x3
I0403 15:37:46.219709 12156 net.cpp:425] inception_3b/output <- inception_3b/5x5
I0403 15:37:46.219725 12156 net.cpp:425] inception_3b/output <- inception_3b/pool_proj
I0403 15:37:46.219743 12156 net.cpp:399] inception_3b/output -> inception_3b/output
I0403 15:37:46.219789 12156 net.cpp:141] Setting up inception_3b/output
I0403 15:37:46.219813 12156 net.cpp:148] Top shape: 24 480 28 28 (9031680)
I0403 15:37:46.219828 12156 net.cpp:156] Memory required for data: 809239584
I0403 15:37:46.219843 12156 layer_factory.hpp:77] Creating layer pool3/3x3_s2
I0403 15:37:46.219861 12156 net.cpp:91] Creating Layer pool3/3x3_s2
I0403 15:37:46.219877 12156 net.cpp:425] pool3/3x3_s2 <- inception_3b/output
I0403 15:37:46.219919 12156 net.cpp:399] pool3/3x3_s2 -> pool3/3x3_s2
I0403 15:37:46.219980 12156 net.cpp:141] Setting up pool3/3x3_s2
I0403 15:37:46.220003 12156 net.cpp:148] Top shape: 24 480 14 14 (2257920)
I0403 15:37:46.220018 12156 net.cpp:156] Memory required for data: 818271264
I0403 15:37:46.220033 12156 layer_factory.hpp:77] Creating layer pool3/3x3_s2_pool3/3x3_s2_0_split
I0403 15:37:46.220053 12156 net.cpp:91] Creating Layer pool3/3x3_s2_pool3/3x3_s2_0_split
I0403 15:37:46.220070 12156 net.cpp:425] pool3/3x3_s2_pool3/3x3_s2_0_split <- pool3/3x3_s2
I0403 15:37:46.220090 12156 net.cpp:399] pool3/3x3_s2_pool3/3x3_s2_0_split -> pool3/3x3_s2_pool3/3x3_s2_0_split_0
I0403 15:37:46.220111 12156 net.cpp:399] pool3/3x3_s2_pool3/3x3_s2_0_split -> pool3/3x3_s2_pool3/3x3_s2_0_split_1
I0403 15:37:46.220131 12156 net.cpp:399] pool3/3x3_s2_pool3/3x3_s2_0_split -> pool3/3x3_s2_pool3/3x3_s2_0_split_2
I0403 15:37:46.220150 12156 net.cpp:399] pool3/3x3_s2_pool3/3x3_s2_0_split -> pool3/3x3_s2_pool3/3x3_s2_0_split_3
I0403 15:37:46.220227 12156 net.cpp:141] Setting up pool3/3x3_s2_pool3/3x3_s2_0_split
I0403 15:37:46.220253 12156 net.cpp:148] Top shape: 24 480 14 14 (2257920)
I0403 15:37:46.220271 12156 net.cpp:148] Top shape: 24 480 14 14 (2257920)
I0403 15:37:46.220288 12156 net.cpp:148] Top shape: 24 480 14 14 (2257920)
I0403 15:37:46.220304 12156 net.cpp:148] Top shape: 24 480 14 14 (2257920)
I0403 15:37:46.220319 12156 net.cpp:156] Memory required for data: 854397984
I0403 15:37:46.220332 12156 layer_factory.hpp:77] Creating layer inception_4a/1x1
I0403 15:37:46.220355 12156 net.cpp:91] Creating Layer inception_4a/1x1
I0403 15:37:46.220373 12156 net.cpp:425] inception_4a/1x1 <- pool3/3x3_s2_pool3/3x3_s2_0_split_0
I0403 15:37:46.220394 12156 net.cpp:399] inception_4a/1x1 -> inception_4a/1x1
I0403 15:37:46.222033 12156 net.cpp:141] Setting up inception_4a/1x1
I0403 15:37:46.222064 12156 net.cpp:148] Top shape: 24 192 14 14 (903168)
I0403 15:37:46.222081 12156 net.cpp:156] Memory required for data: 858010656
I0403 15:37:46.222100 12156 layer_factory.hpp:77] Creating layer inception_4a/relu_1x1
I0403 15:37:46.222118 12156 net.cpp:91] Creating Layer inception_4a/relu_1x1
I0403 15:37:46.222134 12156 net.cpp:425] inception_4a/relu_1x1 <- inception_4a/1x1
I0403 15:37:46.222154 12156 net.cpp:386] inception_4a/relu_1x1 -> inception_4a/1x1 (in-place)
I0403 15:37:46.222344 12156 net.cpp:141] Setting up inception_4a/relu_1x1
I0403 15:37:46.222369 12156 net.cpp:148] Top shape: 24 192 14 14 (903168)
I0403 15:37:46.222383 12156 net.cpp:156] Memory required for data: 861623328
I0403 15:37:46.222398 12156 layer_factory.hpp:77] Creating layer inception_4a/3x3_reduce
I0403 15:37:46.222424 12156 net.cpp:91] Creating Layer inception_4a/3x3_reduce
I0403 15:37:46.222443 12156 net.cpp:425] inception_4a/3x3_reduce <- pool3/3x3_s2_pool3/3x3_s2_0_split_1
I0403 15:37:46.222465 12156 net.cpp:399] inception_4a/3x3_reduce -> inception_4a/3x3_reduce
I0403 15:37:46.223732 12156 net.cpp:141] Setting up inception_4a/3x3_reduce
I0403 15:37:46.223762 12156 net.cpp:148] Top shape: 24 96 14 14 (451584)
I0403 15:37:46.223778 12156 net.cpp:156] Memory required for data: 863429664
I0403 15:37:46.223803 12156 layer_factory.hpp:77] Creating layer inception_4a/relu_3x3_reduce
I0403 15:37:46.223822 12156 net.cpp:91] Creating Layer inception_4a/relu_3x3_reduce
I0403 15:37:46.223839 12156 net.cpp:425] inception_4a/relu_3x3_reduce <- inception_4a/3x3_reduce
I0403 15:37:46.223856 12156 net.cpp:386] inception_4a/relu_3x3_reduce -> inception_4a/3x3_reduce (in-place)
I0403 15:37:46.224037 12156 net.cpp:141] Setting up inception_4a/relu_3x3_reduce
I0403 15:37:46.224061 12156 net.cpp:148] Top shape: 24 96 14 14 (451584)
I0403 15:37:46.224076 12156 net.cpp:156] Memory required for data: 865236000
I0403 15:37:46.224092 12156 layer_factory.hpp:77] Creating layer inception_4a/3x3
I0403 15:37:46.224114 12156 net.cpp:91] Creating Layer inception_4a/3x3
I0403 15:37:46.224131 12156 net.cpp:425] inception_4a/3x3 <- inception_4a/3x3_reduce
I0403 15:37:46.224153 12156 net.cpp:399] inception_4a/3x3 -> inception_4a/3x3
I0403 15:37:46.226845 12156 net.cpp:141] Setting up inception_4a/3x3
I0403 15:37:46.226872 12156 net.cpp:148] Top shape: 24 208 14 14 (978432)
I0403 15:37:46.226888 12156 net.cpp:156] Memory required for data: 869149728
I0403 15:37:46.226907 12156 layer_factory.hpp:77] Creating layer inception_4a/relu_3x3
I0403 15:37:46.226925 12156 net.cpp:91] Creating Layer inception_4a/relu_3x3
I0403 15:37:46.226943 12156 net.cpp:425] inception_4a/relu_3x3 <- inception_4a/3x3
I0403 15:37:46.226963 12156 net.cpp:386] inception_4a/relu_3x3 -> inception_4a/3x3 (in-place)
I0403 15:37:46.227246 12156 net.cpp:141] Setting up inception_4a/relu_3x3
I0403 15:37:46.227272 12156 net.cpp:148] Top shape: 24 208 14 14 (978432)
I0403 15:37:46.227288 12156 net.cpp:156] Memory required for data: 873063456
I0403 15:37:46.227301 12156 layer_factory.hpp:77] Creating layer inception_4a/5x5_reduce
I0403 15:37:46.227324 12156 net.cpp:91] Creating Layer inception_4a/5x5_reduce
I0403 15:37:46.227342 12156 net.cpp:425] inception_4a/5x5_reduce <- pool3/3x3_s2_pool3/3x3_s2_0_split_2
I0403 15:37:46.227363 12156 net.cpp:399] inception_4a/5x5_reduce -> inception_4a/5x5_reduce
I0403 15:37:46.228391 12156 net.cpp:141] Setting up inception_4a/5x5_reduce
I0403 15:37:46.228422 12156 net.cpp:148] Top shape: 24 16 14 14 (75264)
I0403 15:37:46.228440 12156 net.cpp:156] Memory required for data: 873364512
I0403 15:37:46.228457 12156 layer_factory.hpp:77] Creating layer inception_4a/relu_5x5_reduce
I0403 15:37:46.228478 12156 net.cpp:91] Creating Layer inception_4a/relu_5x5_reduce
I0403 15:37:46.228495 12156 net.cpp:425] inception_4a/relu_5x5_reduce <- inception_4a/5x5_reduce
I0403 15:37:46.228513 12156 net.cpp:386] inception_4a/relu_5x5_reduce -> inception_4a/5x5_reduce (in-place)
I0403 15:37:46.228696 12156 net.cpp:141] Setting up inception_4a/relu_5x5_reduce
I0403 15:37:46.228724 12156 net.cpp:148] Top shape: 24 16 14 14 (75264)
I0403 15:37:46.228739 12156 net.cpp:156] Memory required for data: 873665568
I0403 15:37:46.228754 12156 layer_factory.hpp:77] Creating layer inception_4a/5x5
I0403 15:37:46.228775 12156 net.cpp:91] Creating Layer inception_4a/5x5
I0403 15:37:46.228792 12156 net.cpp:425] inception_4a/5x5 <- inception_4a/5x5_reduce
I0403 15:37:46.228813 12156 net.cpp:399] inception_4a/5x5 -> inception_4a/5x5
I0403 15:37:46.229934 12156 net.cpp:141] Setting up inception_4a/5x5
I0403 15:37:46.229962 12156 net.cpp:148] Top shape: 24 48 14 14 (225792)
I0403 15:37:46.229979 12156 net.cpp:156] Memory required for data: 874568736
I0403 15:37:46.229996 12156 layer_factory.hpp:77] Creating layer inception_4a/relu_5x5
I0403 15:37:46.230018 12156 net.cpp:91] Creating Layer inception_4a/relu_5x5
I0403 15:37:46.230036 12156 net.cpp:425] inception_4a/relu_5x5 <- inception_4a/5x5
I0403 15:37:46.230053 12156 net.cpp:386] inception_4a/relu_5x5 -> inception_4a/5x5 (in-place)
I0403 15:37:46.230238 12156 net.cpp:141] Setting up inception_4a/relu_5x5
I0403 15:37:46.230263 12156 net.cpp:148] Top shape: 24 48 14 14 (225792)
I0403 15:37:46.230279 12156 net.cpp:156] Memory required for data: 875471904
I0403 15:37:46.230295 12156 layer_factory.hpp:77] Creating layer inception_4a/pool
I0403 15:37:46.230320 12156 net.cpp:91] Creating Layer inception_4a/pool
I0403 15:37:46.230336 12156 net.cpp:425] inception_4a/pool <- pool3/3x3_s2_pool3/3x3_s2_0_split_3
I0403 15:37:46.230357 12156 net.cpp:399] inception_4a/pool -> inception_4a/pool
I0403 15:37:46.230425 12156 net.cpp:141] Setting up inception_4a/pool
I0403 15:37:46.230450 12156 net.cpp:148] Top shape: 24 480 14 14 (2257920)
I0403 15:37:46.230465 12156 net.cpp:156] Memory required for data: 884503584
I0403 15:37:46.230480 12156 layer_factory.hpp:77] Creating layer inception_4a/pool_proj
I0403 15:37:46.230504 12156 net.cpp:91] Creating Layer inception_4a/pool_proj
I0403 15:37:46.230522 12156 net.cpp:425] inception_4a/pool_proj <- inception_4a/pool
I0403 15:37:46.230541 12156 net.cpp:399] inception_4a/pool_proj -> inception_4a/pool_proj
I0403 15:37:46.231714 12156 net.cpp:141] Setting up inception_4a/pool_proj
I0403 15:37:46.231742 12156 net.cpp:148] Top shape: 24 64 14 14 (301056)
I0403 15:37:46.231772 12156 net.cpp:156] Memory required for data: 885707808
I0403 15:37:46.231791 12156 layer_factory.hpp:77] Creating layer inception_4a/relu_pool_proj
I0403 15:37:46.231808 12156 net.cpp:91] Creating Layer inception_4a/relu_pool_proj
I0403 15:37:46.231824 12156 net.cpp:425] inception_4a/relu_pool_proj <- inception_4a/pool_proj
I0403 15:37:46.231845 12156 net.cpp:386] inception_4a/relu_pool_proj -> inception_4a/pool_proj (in-place)
I0403 15:37:46.232122 12156 net.cpp:141] Setting up inception_4a/relu_pool_proj
I0403 15:37:46.232149 12156 net.cpp:148] Top shape: 24 64 14 14 (301056)
I0403 15:37:46.232166 12156 net.cpp:156] Memory required for data: 886912032
I0403 15:37:46.232179 12156 layer_factory.hpp:77] Creating layer inception_4a/output
I0403 15:37:46.232197 12156 net.cpp:91] Creating Layer inception_4a/output
I0403 15:37:46.232213 12156 net.cpp:425] inception_4a/output <- inception_4a/1x1
I0403 15:37:46.232228 12156 net.cpp:425] inception_4a/output <- inception_4a/3x3
I0403 15:37:46.232244 12156 net.cpp:425] inception_4a/output <- inception_4a/5x5
I0403 15:37:46.232259 12156 net.cpp:425] inception_4a/output <- inception_4a/pool_proj
I0403 15:37:46.232275 12156 net.cpp:399] inception_4a/output -> inception_4a/output
I0403 15:37:46.232321 12156 net.cpp:141] Setting up inception_4a/output
I0403 15:37:46.232343 12156 net.cpp:148] Top shape: 24 512 14 14 (2408448)
I0403 15:37:46.232357 12156 net.cpp:156] Memory required for data: 896545824
I0403 15:37:46.232372 12156 layer_factory.hpp:77] Creating layer inception_4a/output_inception_4a/output_0_split
I0403 15:37:46.232390 12156 net.cpp:91] Creating Layer inception_4a/output_inception_4a/output_0_split
I0403 15:37:46.232406 12156 net.cpp:425] inception_4a/output_inception_4a/output_0_split <- inception_4a/output
I0403 15:37:46.232429 12156 net.cpp:399] inception_4a/output_inception_4a/output_0_split -> inception_4a/output_inception_4a/output_0_split_0
I0403 15:37:46.232448 12156 net.cpp:399] inception_4a/output_inception_4a/output_0_split -> inception_4a/output_inception_4a/output_0_split_1
I0403 15:37:46.232471 12156 net.cpp:399] inception_4a/output_inception_4a/output_0_split -> inception_4a/output_inception_4a/output_0_split_2
I0403 15:37:46.232492 12156 net.cpp:399] inception_4a/output_inception_4a/output_0_split -> inception_4a/output_inception_4a/output_0_split_3
I0403 15:37:46.232511 12156 net.cpp:399] inception_4a/output_inception_4a/output_0_split -> inception_4a/output_inception_4a/output_0_split_4
I0403 15:37:46.232599 12156 net.cpp:141] Setting up inception_4a/output_inception_4a/output_0_split
I0403 15:37:46.232621 12156 net.cpp:148] Top shape: 24 512 14 14 (2408448)
I0403 15:37:46.232636 12156 net.cpp:148] Top shape: 24 512 14 14 (2408448)
I0403 15:37:46.232651 12156 net.cpp:148] Top shape: 24 512 14 14 (2408448)
I0403 15:37:46.232666 12156 net.cpp:148] Top shape: 24 512 14 14 (2408448)
I0403 15:37:46.232681 12156 net.cpp:148] Top shape: 24 512 14 14 (2408448)
I0403 15:37:46.232694 12156 net.cpp:156] Memory required for data: 944714784
I0403 15:37:46.232708 12156 layer_factory.hpp:77] Creating layer loss1/ave_pool
I0403 15:37:46.232725 12156 net.cpp:91] Creating Layer loss1/ave_pool
I0403 15:37:46.232740 12156 net.cpp:425] loss1/ave_pool <- inception_4a/output_inception_4a/output_0_split_0
I0403 15:37:46.232760 12156 net.cpp:399] loss1/ave_pool -> loss1/ave_pool
I0403 15:37:46.232962 12156 net.cpp:141] Setting up loss1/ave_pool
I0403 15:37:46.232990 12156 net.cpp:148] Top shape: 24 512 4 4 (196608)
I0403 15:37:46.233005 12156 net.cpp:156] Memory required for data: 945501216
I0403 15:37:46.233019 12156 layer_factory.hpp:77] Creating layer loss1/conv
I0403 15:37:46.233042 12156 net.cpp:91] Creating Layer loss1/conv
I0403 15:37:46.233058 12156 net.cpp:425] loss1/conv <- loss1/ave_pool
I0403 15:37:46.233078 12156 net.cpp:399] loss1/conv -> loss1/conv
I0403 15:37:46.234463 12156 net.cpp:141] Setting up loss1/conv
I0403 15:37:46.234490 12156 net.cpp:148] Top shape: 24 128 4 4 (49152)
I0403 15:37:46.234519 12156 net.cpp:156] Memory required for data: 945697824
I0403 15:37:46.234537 12156 layer_factory.hpp:77] Creating layer loss1/relu_conv
I0403 15:37:46.234556 12156 net.cpp:91] Creating Layer loss1/relu_conv
I0403 15:37:46.234573 12156 net.cpp:425] loss1/relu_conv <- loss1/conv
I0403 15:37:46.234592 12156 net.cpp:386] loss1/relu_conv -> loss1/conv (in-place)
I0403 15:37:46.234874 12156 net.cpp:141] Setting up loss1/relu_conv
I0403 15:37:46.234899 12156 net.cpp:148] Top shape: 24 128 4 4 (49152)
I0403 15:37:46.234913 12156 net.cpp:156] Memory required for data: 945894432
I0403 15:37:46.234928 12156 layer_factory.hpp:77] Creating layer loss1/fc
I0403 15:37:46.234951 12156 net.cpp:91] Creating Layer loss1/fc
I0403 15:37:46.234967 12156 net.cpp:425] loss1/fc <- loss1/conv
I0403 15:37:46.234988 12156 net.cpp:399] loss1/fc -> loss1/fc
I0403 15:37:46.252476 12156 net.cpp:141] Setting up loss1/fc
I0403 15:37:46.252509 12156 net.cpp:148] Top shape: 24 1024 (24576)
I0403 15:37:46.252524 12156 net.cpp:156] Memory required for data: 945992736
I0403 15:37:46.252542 12156 layer_factory.hpp:77] Creating layer loss1/relu_fc
I0403 15:37:46.252559 12156 net.cpp:91] Creating Layer loss1/relu_fc
I0403 15:37:46.252578 12156 net.cpp:425] loss1/relu_fc <- loss1/fc
I0403 15:37:46.252593 12156 net.cpp:386] loss1/relu_fc -> loss1/fc (in-place)
I0403 15:37:46.252775 12156 net.cpp:141] Setting up loss1/relu_fc
I0403 15:37:46.252799 12156 net.cpp:148] Top shape: 24 1024 (24576)
I0403 15:37:46.252813 12156 net.cpp:156] Memory required for data: 946091040
I0403 15:37:46.252827 12156 layer_factory.hpp:77] Creating layer loss1/drop_fc
I0403 15:37:46.252853 12156 net.cpp:91] Creating Layer loss1/drop_fc
I0403 15:37:46.252871 12156 net.cpp:425] loss1/drop_fc <- loss1/fc
I0403 15:37:46.252890 12156 net.cpp:386] loss1/drop_fc -> loss1/fc (in-place)
I0403 15:37:46.252939 12156 net.cpp:141] Setting up loss1/drop_fc
I0403 15:37:46.252961 12156 net.cpp:148] Top shape: 24 1024 (24576)
I0403 15:37:46.252981 12156 net.cpp:156] Memory required for data: 946189344
I0403 15:37:46.252996 12156 layer_factory.hpp:77] Creating layer loss1/classifier_plantvillage
I0403 15:37:46.253013 12156 net.cpp:91] Creating Layer loss1/classifier_plantvillage
I0403 15:37:46.253028 12156 net.cpp:425] loss1/classifier_plantvillage <- loss1/fc
I0403 15:37:46.253048 12156 net.cpp:399] loss1/classifier_plantvillage -> loss1/classifier_plantvillage
I0403 15:37:46.253957 12156 net.cpp:141] Setting up loss1/classifier_plantvillage
I0403 15:37:46.253983 12156 net.cpp:148] Top shape: 24 38 (912)
I0403 15:37:46.253999 12156 net.cpp:156] Memory required for data: 946192992
I0403 15:37:46.254016 12156 layer_factory.hpp:77] Creating layer loss1/classifier_plantvillage_loss1/classifier_plantvillage_0_split
I0403 15:37:46.254034 12156 net.cpp:91] Creating Layer loss1/classifier_plantvillage_loss1/classifier_plantvillage_0_split
I0403 15:37:46.254048 12156 net.cpp:425] loss1/classifier_plantvillage_loss1/classifier_plantvillage_0_split <- loss1/classifier_plantvillage
I0403 15:37:46.254067 12156 net.cpp:399] loss1/classifier_plantvillage_loss1/classifier_plantvillage_0_split -> loss1/classifier_plantvillage_loss1/classifier_plantvillage_0_split_0
I0403 15:37:46.254088 12156 net.cpp:399] loss1/classifier_plantvillage_loss1/classifier_plantvillage_0_split -> loss1/classifier_plantvillage_loss1/classifier_plantvillage_0_split_1
I0403 15:37:46.254108 12156 net.cpp:399] loss1/classifier_plantvillage_loss1/classifier_plantvillage_0_split -> loss1/classifier_plantvillage_loss1/classifier_plantvillage_0_split_2
I0403 15:37:46.254171 12156 net.cpp:141] Setting up loss1/classifier_plantvillage_loss1/classifier_plantvillage_0_split
I0403 15:37:46.254192 12156 net.cpp:148] Top shape: 24 38 (912)
I0403 15:37:46.254209 12156 net.cpp:148] Top shape: 24 38 (912)
I0403 15:37:46.254223 12156 net.cpp:148] Top shape: 24 38 (912)
I0403 15:37:46.254236 12156 net.cpp:156] Memory required for data: 946203936
I0403 15:37:46.254251 12156 layer_factory.hpp:77] Creating layer inception_4b/1x1
I0403 15:37:46.254271 12156 net.cpp:91] Creating Layer inception_4b/1x1
I0403 15:37:46.254303 12156 net.cpp:425] inception_4b/1x1 <- inception_4a/output_inception_4a/output_0_split_1
I0403 15:37:46.254323 12156 net.cpp:399] inception_4b/1x1 -> inception_4b/1x1
I0403 15:37:46.255919 12156 net.cpp:141] Setting up inception_4b/1x1
I0403 15:37:46.255946 12156 net.cpp:148] Top shape: 24 160 14 14 (752640)
I0403 15:37:46.255961 12156 net.cpp:156] Memory required for data: 949214496
I0403 15:37:46.255980 12156 layer_factory.hpp:77] Creating layer inception_4b/relu_1x1
I0403 15:37:46.256000 12156 net.cpp:91] Creating Layer inception_4b/relu_1x1
I0403 15:37:46.256014 12156 net.cpp:425] inception_4b/relu_1x1 <- inception_4b/1x1
I0403 15:37:46.256031 12156 net.cpp:386] inception_4b/relu_1x1 -> inception_4b/1x1 (in-place)
I0403 15:37:46.256206 12156 net.cpp:141] Setting up inception_4b/relu_1x1
I0403 15:37:46.256229 12156 net.cpp:148] Top shape: 24 160 14 14 (752640)
I0403 15:37:46.256247 12156 net.cpp:156] Memory required for data: 952225056
I0403 15:37:46.256261 12156 layer_factory.hpp:77] Creating layer inception_4b/3x3_reduce
I0403 15:37:46.256281 12156 net.cpp:91] Creating Layer inception_4b/3x3_reduce
I0403 15:37:46.256297 12156 net.cpp:425] inception_4b/3x3_reduce <- inception_4a/output_inception_4a/output_0_split_2
I0403 15:37:46.256319 12156 net.cpp:399] inception_4b/3x3_reduce -> inception_4b/3x3_reduce
I0403 15:37:46.257637 12156 net.cpp:141] Setting up inception_4b/3x3_reduce
I0403 15:37:46.257663 12156 net.cpp:148] Top shape: 24 112 14 14 (526848)
I0403 15:37:46.257678 12156 net.cpp:156] Memory required for data: 954332448
I0403 15:37:46.257695 12156 layer_factory.hpp:77] Creating layer inception_4b/relu_3x3_reduce
I0403 15:37:46.257715 12156 net.cpp:91] Creating Layer inception_4b/relu_3x3_reduce
I0403 15:37:46.257732 12156 net.cpp:425] inception_4b/relu_3x3_reduce <- inception_4b/3x3_reduce
I0403 15:37:46.257750 12156 net.cpp:386] inception_4b/relu_3x3_reduce -> inception_4b/3x3_reduce (in-place)
I0403 15:37:46.258030 12156 net.cpp:141] Setting up inception_4b/relu_3x3_reduce
I0403 15:37:46.258055 12156 net.cpp:148] Top shape: 24 112 14 14 (526848)
I0403 15:37:46.258070 12156 net.cpp:156] Memory required for data: 956439840
I0403 15:37:46.258085 12156 layer_factory.hpp:77] Creating layer inception_4b/3x3
I0403 15:37:46.258108 12156 net.cpp:91] Creating Layer inception_4b/3x3
I0403 15:37:46.258126 12156 net.cpp:425] inception_4b/3x3 <- inception_4b/3x3_reduce
I0403 15:37:46.258147 12156 net.cpp:399] inception_4b/3x3 -> inception_4b/3x3
I0403 15:37:46.261112 12156 net.cpp:141] Setting up inception_4b/3x3
I0403 15:37:46.261142 12156 net.cpp:148] Top shape: 24 224 14 14 (1053696)
I0403 15:37:46.261158 12156 net.cpp:156] Memory required for data: 960654624
I0403 15:37:46.261176 12156 layer_factory.hpp:77] Creating layer inception_4b/relu_3x3
I0403 15:37:46.261194 12156 net.cpp:91] Creating Layer inception_4b/relu_3x3
I0403 15:37:46.261210 12156 net.cpp:425] inception_4b/relu_3x3 <- inception_4b/3x3
I0403 15:37:46.261229 12156 net.cpp:386] inception_4b/relu_3x3 -> inception_4b/3x3 (in-place)
I0403 15:37:46.261415 12156 net.cpp:141] Setting up inception_4b/relu_3x3
I0403 15:37:46.261440 12156 net.cpp:148] Top shape: 24 224 14 14 (1053696)
I0403 15:37:46.261456 12156 net.cpp:156] Memory required for data: 964869408
I0403 15:37:46.261471 12156 layer_factory.hpp:77] Creating layer inception_4b/5x5_reduce
I0403 15:37:46.261494 12156 net.cpp:91] Creating Layer inception_4b/5x5_reduce
I0403 15:37:46.261512 12156 net.cpp:425] inception_4b/5x5_reduce <- inception_4a/output_inception_4a/output_0_split_3
I0403 15:37:46.261533 12156 net.cpp:399] inception_4b/5x5_reduce -> inception_4b/5x5_reduce
I0403 15:37:46.262609 12156 net.cpp:141] Setting up inception_4b/5x5_reduce
I0403 15:37:46.262636 12156 net.cpp:148] Top shape: 24 24 14 14 (112896)
I0403 15:37:46.262651 12156 net.cpp:156] Memory required for data: 965320992
I0403 15:37:46.262670 12156 layer_factory.hpp:77] Creating layer inception_4b/relu_5x5_reduce
I0403 15:37:46.262691 12156 net.cpp:91] Creating Layer inception_4b/relu_5x5_reduce
I0403 15:37:46.262722 12156 net.cpp:425] inception_4b/relu_5x5_reduce <- inception_4b/5x5_reduce
I0403 15:37:46.262740 12156 net.cpp:386] inception_4b/relu_5x5_reduce -> inception_4b/5x5_reduce (in-place)
I0403 15:37:46.262928 12156 net.cpp:141] Setting up inception_4b/relu_5x5_reduce
I0403 15:37:46.262951 12156 net.cpp:148] Top shape: 24 24 14 14 (112896)
I0403 15:37:46.262966 12156 net.cpp:156] Memory required for data: 965772576
I0403 15:37:46.262980 12156 layer_factory.hpp:77] Creating layer inception_4b/5x5
I0403 15:37:46.263003 12156 net.cpp:91] Creating Layer inception_4b/5x5
I0403 15:37:46.263021 12156 net.cpp:425] inception_4b/5x5 <- inception_4b/5x5_reduce
I0403 15:37:46.263041 12156 net.cpp:399] inception_4b/5x5 -> inception_4b/5x5
I0403 15:37:46.264267 12156 net.cpp:141] Setting up inception_4b/5x5
I0403 15:37:46.264294 12156 net.cpp:148] Top shape: 24 64 14 14 (301056)
I0403 15:37:46.264310 12156 net.cpp:156] Memory required for data: 966976800
I0403 15:37:46.264328 12156 layer_factory.hpp:77] Creating layer inception_4b/relu_5x5
I0403 15:37:46.264348 12156 net.cpp:91] Creating Layer inception_4b/relu_5x5
I0403 15:37:46.264365 12156 net.cpp:425] inception_4b/relu_5x5 <- inception_4b/5x5
I0403 15:37:46.264384 12156 net.cpp:386] inception_4b/relu_5x5 -> inception_4b/5x5 (in-place)
I0403 15:37:46.264670 12156 net.cpp:141] Setting up inception_4b/relu_5x5
I0403 15:37:46.264696 12156 net.cpp:148] Top shape: 24 64 14 14 (301056)
I0403 15:37:46.264711 12156 net.cpp:156] Memory required for data: 968181024
I0403 15:37:46.264726 12156 layer_factory.hpp:77] Creating layer inception_4b/pool
I0403 15:37:46.264744 12156 net.cpp:91] Creating Layer inception_4b/pool
I0403 15:37:46.264760 12156 net.cpp:425] inception_4b/pool <- inception_4a/output_inception_4a/output_0_split_4
I0403 15:37:46.264781 12156 net.cpp:399] inception_4b/pool -> inception_4b/pool
I0403 15:37:46.264844 12156 net.cpp:141] Setting up inception_4b/pool
I0403 15:37:46.264868 12156 net.cpp:148] Top shape: 24 512 14 14 (2408448)
I0403 15:37:46.264883 12156 net.cpp:156] Memory required for data: 977814816
I0403 15:37:46.264897 12156 layer_factory.hpp:77] Creating layer inception_4b/pool_proj
I0403 15:37:46.264920 12156 net.cpp:91] Creating Layer inception_4b/pool_proj
I0403 15:37:46.264937 12156 net.cpp:425] inception_4b/pool_proj <- inception_4b/pool
I0403 15:37:46.264956 12156 net.cpp:399] inception_4b/pool_proj -> inception_4b/pool_proj
I0403 15:37:46.266155 12156 net.cpp:141] Setting up inception_4b/pool_proj
I0403 15:37:46.266182 12156 net.cpp:148] Top shape: 24 64 14 14 (301056)
I0403 15:37:46.266197 12156 net.cpp:156] Memory required for data: 979019040
I0403 15:37:46.266216 12156 layer_factory.hpp:77] Creating layer inception_4b/relu_pool_proj
I0403 15:37:46.266235 12156 net.cpp:91] Creating Layer inception_4b/relu_pool_proj
I0403 15:37:46.266252 12156 net.cpp:425] inception_4b/relu_pool_proj <- inception_4b/pool_proj
I0403 15:37:46.266270 12156 net.cpp:386] inception_4b/relu_pool_proj -> inception_4b/pool_proj (in-place)
I0403 15:37:46.266456 12156 net.cpp:141] Setting up inception_4b/relu_pool_proj
I0403 15:37:46.266484 12156 net.cpp:148] Top shape: 24 64 14 14 (301056)
I0403 15:37:46.266499 12156 net.cpp:156] Memory required for data: 980223264
I0403 15:37:46.266515 12156 layer_factory.hpp:77] Creating layer inception_4b/output
I0403 15:37:46.266531 12156 net.cpp:91] Creating Layer inception_4b/output
I0403 15:37:46.266547 12156 net.cpp:425] inception_4b/output <- inception_4b/1x1
I0403 15:37:46.266563 12156 net.cpp:425] inception_4b/output <- inception_4b/3x3
I0403 15:37:46.266580 12156 net.cpp:425] inception_4b/output <- inception_4b/5x5
I0403 15:37:46.266597 12156 net.cpp:425] inception_4b/output <- inception_4b/pool_proj
I0403 15:37:46.266613 12156 net.cpp:399] inception_4b/output -> inception_4b/output
I0403 15:37:46.266660 12156 net.cpp:141] Setting up inception_4b/output
I0403 15:37:46.266683 12156 net.cpp:148] Top shape: 24 512 14 14 (2408448)
I0403 15:37:46.266697 12156 net.cpp:156] Memory required for data: 989857056
I0403 15:37:46.266726 12156 layer_factory.hpp:77] Creating layer inception_4b/output_inception_4b/output_0_split
I0403 15:37:46.266747 12156 net.cpp:91] Creating Layer inception_4b/output_inception_4b/output_0_split
I0403 15:37:46.266763 12156 net.cpp:425] inception_4b/output_inception_4b/output_0_split <- inception_4b/output
I0403 15:37:46.266780 12156 net.cpp:399] inception_4b/output_inception_4b/output_0_split -> inception_4b/output_inception_4b/output_0_split_0
I0403 15:37:46.266800 12156 net.cpp:399] inception_4b/output_inception_4b/output_0_split -> inception_4b/output_inception_4b/output_0_split_1
I0403 15:37:46.266820 12156 net.cpp:399] inception_4b/output_inception_4b/output_0_split -> inception_4b/output_inception_4b/output_0_split_2
I0403 15:37:46.266840 12156 net.cpp:399] inception_4b/output_inception_4b/output_0_split -> inception_4b/output_inception_4b/output_0_split_3
I0403 15:37:46.266923 12156 net.cpp:141] Setting up inception_4b/output_inception_4b/output_0_split
I0403 15:37:46.266947 12156 net.cpp:148] Top shape: 24 512 14 14 (2408448)
I0403 15:37:46.266963 12156 net.cpp:148] Top shape: 24 512 14 14 (2408448)
I0403 15:37:46.266978 12156 net.cpp:148] Top shape: 24 512 14 14 (2408448)
I0403 15:37:46.266993 12156 net.cpp:148] Top shape: 24 512 14 14 (2408448)
I0403 15:37:46.267006 12156 net.cpp:156] Memory required for data: 1028392224
I0403 15:37:46.267020 12156 layer_factory.hpp:77] Creating layer inception_4c/1x1
I0403 15:37:46.267042 12156 net.cpp:91] Creating Layer inception_4c/1x1
I0403 15:37:46.267060 12156 net.cpp:425] inception_4c/1x1 <- inception_4b/output_inception_4b/output_0_split_0
I0403 15:37:46.267081 12156 net.cpp:399] inception_4c/1x1 -> inception_4c/1x1
I0403 15:37:46.268510 12156 net.cpp:141] Setting up inception_4c/1x1
I0403 15:37:46.268542 12156 net.cpp:148] Top shape: 24 128 14 14 (602112)
I0403 15:37:46.268558 12156 net.cpp:156] Memory required for data: 1030800672
I0403 15:37:46.268578 12156 layer_factory.hpp:77] Creating layer inception_4c/relu_1x1
I0403 15:37:46.268596 12156 net.cpp:91] Creating Layer inception_4c/relu_1x1
I0403 15:37:46.268612 12156 net.cpp:425] inception_4c/relu_1x1 <- inception_4c/1x1
I0403 15:37:46.268628 12156 net.cpp:386] inception_4c/relu_1x1 -> inception_4c/1x1 (in-place)
I0403 15:37:46.268816 12156 net.cpp:141] Setting up inception_4c/relu_1x1
I0403 15:37:46.268841 12156 net.cpp:148] Top shape: 24 128 14 14 (602112)
I0403 15:37:46.268856 12156 net.cpp:156] Memory required for data: 1033209120
I0403 15:37:46.268869 12156 layer_factory.hpp:77] Creating layer inception_4c/3x3_reduce
I0403 15:37:46.268892 12156 net.cpp:91] Creating Layer inception_4c/3x3_reduce
I0403 15:37:46.268909 12156 net.cpp:425] inception_4c/3x3_reduce <- inception_4b/output_inception_4b/output_0_split_1
I0403 15:37:46.268931 12156 net.cpp:399] inception_4c/3x3_reduce -> inception_4c/3x3_reduce
I0403 15:37:46.270933 12156 net.cpp:141] Setting up inception_4c/3x3_reduce
I0403 15:37:46.270961 12156 net.cpp:148] Top shape: 24 128 14 14 (602112)
I0403 15:37:46.270977 12156 net.cpp:156] Memory required for data: 1035617568
I0403 15:37:46.270997 12156 layer_factory.hpp:77] Creating layer inception_4c/relu_3x3_reduce
I0403 15:37:46.271018 12156 net.cpp:91] Creating Layer inception_4c/relu_3x3_reduce
I0403 15:37:46.271034 12156 net.cpp:425] inception_4c/relu_3x3_reduce <- inception_4c/3x3_reduce
I0403 15:37:46.271059 12156 net.cpp:386] inception_4c/relu_3x3_reduce -> inception_4c/3x3_reduce (in-place)
I0403 15:37:46.271352 12156 net.cpp:141] Setting up inception_4c/relu_3x3_reduce
I0403 15:37:46.271378 12156 net.cpp:148] Top shape: 24 128 14 14 (602112)
I0403 15:37:46.271394 12156 net.cpp:156] Memory required for data: 1038026016
I0403 15:37:46.271426 12156 layer_factory.hpp:77] Creating layer inception_4c/3x3
I0403 15:37:46.271450 12156 net.cpp:91] Creating Layer inception_4c/3x3
I0403 15:37:46.271469 12156 net.cpp:425] inception_4c/3x3 <- inception_4c/3x3_reduce
I0403 15:37:46.271493 12156 net.cpp:399] inception_4c/3x3 -> inception_4c/3x3
I0403 15:37:46.275238 12156 net.cpp:141] Setting up inception_4c/3x3
I0403 15:37:46.275280 12156 net.cpp:148] Top shape: 24 256 14 14 (1204224)
I0403 15:37:46.275297 12156 net.cpp:156] Memory required for data: 1042842912
I0403 15:37:46.275331 12156 layer_factory.hpp:77] Creating layer inception_4c/relu_3x3
I0403 15:37:46.275354 12156 net.cpp:91] Creating Layer inception_4c/relu_3x3
I0403 15:37:46.275374 12156 net.cpp:425] inception_4c/relu_3x3 <- inception_4c/3x3
I0403 15:37:46.275393 12156 net.cpp:386] inception_4c/relu_3x3 -> inception_4c/3x3 (in-place)
I0403 15:37:46.275585 12156 net.cpp:141] Setting up inception_4c/relu_3x3
I0403 15:37:46.275611 12156 net.cpp:148] Top shape: 24 256 14 14 (1204224)
I0403 15:37:46.275626 12156 net.cpp:156] Memory required for data: 1047659808
I0403 15:37:46.275642 12156 layer_factory.hpp:77] Creating layer inception_4c/5x5_reduce
I0403 15:37:46.275666 12156 net.cpp:91] Creating Layer inception_4c/5x5_reduce
I0403 15:37:46.275683 12156 net.cpp:425] inception_4c/5x5_reduce <- inception_4b/output_inception_4b/output_0_split_2
I0403 15:37:46.275707 12156 net.cpp:399] inception_4c/5x5_reduce -> inception_4c/5x5_reduce
I0403 15:37:46.276837 12156 net.cpp:141] Setting up inception_4c/5x5_reduce
I0403 15:37:46.276866 12156 net.cpp:148] Top shape: 24 24 14 14 (112896)
I0403 15:37:46.276882 12156 net.cpp:156] Memory required for data: 1048111392
I0403 15:37:46.276901 12156 layer_factory.hpp:77] Creating layer inception_4c/relu_5x5_reduce
I0403 15:37:46.276922 12156 net.cpp:91] Creating Layer inception_4c/relu_5x5_reduce
I0403 15:37:46.276942 12156 net.cpp:425] inception_4c/relu_5x5_reduce <- inception_4c/5x5_reduce
I0403 15:37:46.276959 12156 net.cpp:386] inception_4c/relu_5x5_reduce -> inception_4c/5x5_reduce (in-place)
I0403 15:37:46.277151 12156 net.cpp:141] Setting up inception_4c/relu_5x5_reduce
I0403 15:37:46.277178 12156 net.cpp:148] Top shape: 24 24 14 14 (112896)
I0403 15:37:46.277192 12156 net.cpp:156] Memory required for data: 1048562976
I0403 15:37:46.277209 12156 layer_factory.hpp:77] Creating layer inception_4c/5x5
I0403 15:37:46.277235 12156 net.cpp:91] Creating Layer inception_4c/5x5
I0403 15:37:46.277253 12156 net.cpp:425] inception_4c/5x5 <- inception_4c/5x5_reduce
I0403 15:37:46.277273 12156 net.cpp:399] inception_4c/5x5 -> inception_4c/5x5
I0403 15:37:46.278537 12156 net.cpp:141] Setting up inception_4c/5x5
I0403 15:37:46.278566 12156 net.cpp:148] Top shape: 24 64 14 14 (301056)
I0403 15:37:46.278584 12156 net.cpp:156] Memory required for data: 1049767200
I0403 15:37:46.278601 12156 layer_factory.hpp:77] Creating layer inception_4c/relu_5x5
I0403 15:37:46.278620 12156 net.cpp:91] Creating Layer inception_4c/relu_5x5
I0403 15:37:46.278636 12156 net.cpp:425] inception_4c/relu_5x5 <- inception_4c/5x5
I0403 15:37:46.278653 12156 net.cpp:386] inception_4c/relu_5x5 -> inception_4c/5x5 (in-place)
I0403 15:37:46.278942 12156 net.cpp:141] Setting up inception_4c/relu_5x5
I0403 15:37:46.278971 12156 net.cpp:148] Top shape: 24 64 14 14 (301056)
I0403 15:37:46.278987 12156 net.cpp:156] Memory required for data: 1050971424
I0403 15:37:46.279001 12156 layer_factory.hpp:77] Creating layer inception_4c/pool
I0403 15:37:46.279019 12156 net.cpp:91] Creating Layer inception_4c/pool
I0403 15:37:46.279036 12156 net.cpp:425] inception_4c/pool <- inception_4b/output_inception_4b/output_0_split_3
I0403 15:37:46.279054 12156 net.cpp:399] inception_4c/pool -> inception_4c/pool
I0403 15:37:46.279119 12156 net.cpp:141] Setting up inception_4c/pool
I0403 15:37:46.279144 12156 net.cpp:148] Top shape: 24 512 14 14 (2408448)
I0403 15:37:46.279157 12156 net.cpp:156] Memory required for data: 1060605216
I0403 15:37:46.279172 12156 layer_factory.hpp:77] Creating layer inception_4c/pool_proj
I0403 15:37:46.279194 12156 net.cpp:91] Creating Layer inception_4c/pool_proj
I0403 15:37:46.279211 12156 net.cpp:425] inception_4c/pool_proj <- inception_4c/pool
I0403 15:37:46.279232 12156 net.cpp:399] inception_4c/pool_proj -> inception_4c/pool_proj
I0403 15:37:46.280457 12156 net.cpp:141] Setting up inception_4c/pool_proj
I0403 15:37:46.280484 12156 net.cpp:148] Top shape: 24 64 14 14 (301056)
I0403 15:37:46.280514 12156 net.cpp:156] Memory required for data: 1061809440
I0403 15:37:46.280534 12156 layer_factory.hpp:77] Creating layer inception_4c/relu_pool_proj
I0403 15:37:46.280555 12156 net.cpp:91] Creating Layer inception_4c/relu_pool_proj
I0403 15:37:46.280575 12156 net.cpp:425] inception_4c/relu_pool_proj <- inception_4c/pool_proj
I0403 15:37:46.280592 12156 net.cpp:386] inception_4c/relu_pool_proj -> inception_4c/pool_proj (in-place)
I0403 15:37:46.280774 12156 net.cpp:141] Setting up inception_4c/relu_pool_proj
I0403 15:37:46.280802 12156 net.cpp:148] Top shape: 24 64 14 14 (301056)
I0403 15:37:46.280817 12156 net.cpp:156] Memory required for data: 1063013664
I0403 15:37:46.280832 12156 layer_factory.hpp:77] Creating layer inception_4c/output
I0403 15:37:46.280848 12156 net.cpp:91] Creating Layer inception_4c/output
I0403 15:37:46.280864 12156 net.cpp:425] inception_4c/output <- inception_4c/1x1
I0403 15:37:46.280879 12156 net.cpp:425] inception_4c/output <- inception_4c/3x3
I0403 15:37:46.280895 12156 net.cpp:425] inception_4c/output <- inception_4c/5x5
I0403 15:37:46.280910 12156 net.cpp:425] inception_4c/output <- inception_4c/pool_proj
I0403 15:37:46.280927 12156 net.cpp:399] inception_4c/output -> inception_4c/output
I0403 15:37:46.280978 12156 net.cpp:141] Setting up inception_4c/output
I0403 15:37:46.281002 12156 net.cpp:148] Top shape: 24 512 14 14 (2408448)
I0403 15:37:46.281018 12156 net.cpp:156] Memory required for data: 1072647456
I0403 15:37:46.281031 12156 layer_factory.hpp:77] Creating layer inception_4c/output_inception_4c/output_0_split
I0403 15:37:46.281049 12156 net.cpp:91] Creating Layer inception_4c/output_inception_4c/output_0_split
I0403 15:37:46.281069 12156 net.cpp:425] inception_4c/output_inception_4c/output_0_split <- inception_4c/output
I0403 15:37:46.281086 12156 net.cpp:399] inception_4c/output_inception_4c/output_0_split -> inception_4c/output_inception_4c/output_0_split_0
I0403 15:37:46.281106 12156 net.cpp:399] inception_4c/output_inception_4c/output_0_split -> inception_4c/output_inception_4c/output_0_split_1
I0403 15:37:46.281126 12156 net.cpp:399] inception_4c/output_inception_4c/output_0_split -> inception_4c/output_inception_4c/output_0_split_2
I0403 15:37:46.281147 12156 net.cpp:399] inception_4c/output_inception_4c/output_0_split -> inception_4c/output_inception_4c/output_0_split_3
I0403 15:37:46.281230 12156 net.cpp:141] Setting up inception_4c/output_inception_4c/output_0_split
I0403 15:37:46.281252 12156 net.cpp:148] Top shape: 24 512 14 14 (2408448)
I0403 15:37:46.281268 12156 net.cpp:148] Top shape: 24 512 14 14 (2408448)
I0403 15:37:46.281283 12156 net.cpp:148] Top shape: 24 512 14 14 (2408448)
I0403 15:37:46.281299 12156 net.cpp:148] Top shape: 24 512 14 14 (2408448)
I0403 15:37:46.281312 12156 net.cpp:156] Memory required for data: 1111182624
I0403 15:37:46.281327 12156 layer_factory.hpp:77] Creating layer inception_4d/1x1
I0403 15:37:46.281350 12156 net.cpp:91] Creating Layer inception_4d/1x1
I0403 15:37:46.281368 12156 net.cpp:425] inception_4d/1x1 <- inception_4c/output_inception_4c/output_0_split_0
I0403 15:37:46.281389 12156 net.cpp:399] inception_4d/1x1 -> inception_4d/1x1
I0403 15:37:46.282778 12156 net.cpp:141] Setting up inception_4d/1x1
I0403 15:37:46.282805 12156 net.cpp:148] Top shape: 24 112 14 14 (526848)
I0403 15:37:46.282821 12156 net.cpp:156] Memory required for data: 1113290016
I0403 15:37:46.282840 12156 layer_factory.hpp:77] Creating layer inception_4d/relu_1x1
I0403 15:37:46.282857 12156 net.cpp:91] Creating Layer inception_4d/relu_1x1
I0403 15:37:46.282874 12156 net.cpp:425] inception_4d/relu_1x1 <- inception_4d/1x1
I0403 15:37:46.282894 12156 net.cpp:386] inception_4d/relu_1x1 -> inception_4d/1x1 (in-place)
I0403 15:37:46.283082 12156 net.cpp:141] Setting up inception_4d/relu_1x1
I0403 15:37:46.283105 12156 net.cpp:148] Top shape: 24 112 14 14 (526848)
I0403 15:37:46.283120 12156 net.cpp:156] Memory required for data: 1115397408
I0403 15:37:46.283135 12156 layer_factory.hpp:77] Creating layer inception_4d/3x3_reduce
I0403 15:37:46.283172 12156 net.cpp:91] Creating Layer inception_4d/3x3_reduce
I0403 15:37:46.283191 12156 net.cpp:425] inception_4d/3x3_reduce <- inception_4c/output_inception_4c/output_0_split_1
I0403 15:37:46.283212 12156 net.cpp:399] inception_4d/3x3_reduce -> inception_4d/3x3_reduce
I0403 15:37:46.284735 12156 net.cpp:141] Setting up inception_4d/3x3_reduce
I0403 15:37:46.284765 12156 net.cpp:148] Top shape: 24 144 14 14 (677376)
I0403 15:37:46.284781 12156 net.cpp:156] Memory required for data: 1118106912
I0403 15:37:46.284800 12156 layer_factory.hpp:77] Creating layer inception_4d/relu_3x3_reduce
I0403 15:37:46.284818 12156 net.cpp:91] Creating Layer inception_4d/relu_3x3_reduce
I0403 15:37:46.284835 12156 net.cpp:425] inception_4d/relu_3x3_reduce <- inception_4d/3x3_reduce
I0403 15:37:46.284855 12156 net.cpp:386] inception_4d/relu_3x3_reduce -> inception_4d/3x3_reduce (in-place)
I0403 15:37:46.285145 12156 net.cpp:141] Setting up inception_4d/relu_3x3_reduce
I0403 15:37:46.285174 12156 net.cpp:148] Top shape: 24 144 14 14 (677376)
I0403 15:37:46.285190 12156 net.cpp:156] Memory required for data: 1120816416
I0403 15:37:46.285205 12156 layer_factory.hpp:77] Creating layer inception_4d/3x3
I0403 15:37:46.285228 12156 net.cpp:91] Creating Layer inception_4d/3x3
I0403 15:37:46.285245 12156 net.cpp:425] inception_4d/3x3 <- inception_4d/3x3_reduce
I0403 15:37:46.285264 12156 net.cpp:399] inception_4d/3x3 -> inception_4d/3x3
I0403 15:37:46.289556 12156 net.cpp:141] Setting up inception_4d/3x3
I0403 15:37:46.289585 12156 net.cpp:148] Top shape: 24 288 14 14 (1354752)
I0403 15:37:46.289602 12156 net.cpp:156] Memory required for data: 1126235424
I0403 15:37:46.289619 12156 layer_factory.hpp:77] Creating layer inception_4d/relu_3x3
I0403 15:37:46.289636 12156 net.cpp:91] Creating Layer inception_4d/relu_3x3
I0403 15:37:46.289652 12156 net.cpp:425] inception_4d/relu_3x3 <- inception_4d/3x3
I0403 15:37:46.289675 12156 net.cpp:386] inception_4d/relu_3x3 -> inception_4d/3x3 (in-place)
I0403 15:37:46.289861 12156 net.cpp:141] Setting up inception_4d/relu_3x3
I0403 15:37:46.289886 12156 net.cpp:148] Top shape: 24 288 14 14 (1354752)
I0403 15:37:46.289901 12156 net.cpp:156] Memory required for data: 1131654432
I0403 15:37:46.289916 12156 layer_factory.hpp:77] Creating layer inception_4d/5x5_reduce
I0403 15:37:46.289937 12156 net.cpp:91] Creating Layer inception_4d/5x5_reduce
I0403 15:37:46.289955 12156 net.cpp:425] inception_4d/5x5_reduce <- inception_4c/output_inception_4c/output_0_split_2
I0403 15:37:46.289978 12156 net.cpp:399] inception_4d/5x5_reduce -> inception_4d/5x5_reduce
I0403 15:37:46.291137 12156 net.cpp:141] Setting up inception_4d/5x5_reduce
I0403 15:37:46.291164 12156 net.cpp:148] Top shape: 24 32 14 14 (150528)
I0403 15:37:46.291179 12156 net.cpp:156] Memory required for data: 1132256544
I0403 15:37:46.291198 12156 layer_factory.hpp:77] Creating layer inception_4d/relu_5x5_reduce
I0403 15:37:46.291215 12156 net.cpp:91] Creating Layer inception_4d/relu_5x5_reduce
I0403 15:37:46.291232 12156 net.cpp:425] inception_4d/relu_5x5_reduce <- inception_4d/5x5_reduce
I0403 15:37:46.291252 12156 net.cpp:386] inception_4d/relu_5x5_reduce -> inception_4d/5x5_reduce (in-place)
I0403 15:37:46.291447 12156 net.cpp:141] Setting up inception_4d/relu_5x5_reduce
I0403 15:37:46.291472 12156 net.cpp:148] Top shape: 24 32 14 14 (150528)
I0403 15:37:46.291487 12156 net.cpp:156] Memory required for data: 1132858656
I0403 15:37:46.291502 12156 layer_factory.hpp:77] Creating layer inception_4d/5x5
I0403 15:37:46.291524 12156 net.cpp:91] Creating Layer inception_4d/5x5
I0403 15:37:46.291543 12156 net.cpp:425] inception_4d/5x5 <- inception_4d/5x5_reduce
I0403 15:37:46.291564 12156 net.cpp:399] inception_4d/5x5 -> inception_4d/5x5
I0403 15:37:46.293043 12156 net.cpp:141] Setting up inception_4d/5x5
I0403 15:37:46.293071 12156 net.cpp:148] Top shape: 24 64 14 14 (301056)
I0403 15:37:46.293087 12156 net.cpp:156] Memory required for data: 1134062880
I0403 15:37:46.293105 12156 layer_factory.hpp:77] Creating layer inception_4d/relu_5x5
I0403 15:37:46.293141 12156 net.cpp:91] Creating Layer inception_4d/relu_5x5
I0403 15:37:46.293159 12156 net.cpp:425] inception_4d/relu_5x5 <- inception_4d/5x5
I0403 15:37:46.293177 12156 net.cpp:386] inception_4d/relu_5x5 -> inception_4d/5x5 (in-place)
I0403 15:37:46.293494 12156 net.cpp:141] Setting up inception_4d/relu_5x5
I0403 15:37:46.293520 12156 net.cpp:148] Top shape: 24 64 14 14 (301056)
I0403 15:37:46.293535 12156 net.cpp:156] Memory required for data: 1135267104
I0403 15:37:46.293550 12156 layer_factory.hpp:77] Creating layer inception_4d/pool
I0403 15:37:46.293571 12156 net.cpp:91] Creating Layer inception_4d/pool
I0403 15:37:46.293589 12156 net.cpp:425] inception_4d/pool <- inception_4c/output_inception_4c/output_0_split_3
I0403 15:37:46.293607 12156 net.cpp:399] inception_4d/pool -> inception_4d/pool
I0403 15:37:46.293673 12156 net.cpp:141] Setting up inception_4d/pool
I0403 15:37:46.293697 12156 net.cpp:148] Top shape: 24 512 14 14 (2408448)
I0403 15:37:46.293711 12156 net.cpp:156] Memory required for data: 1144900896
I0403 15:37:46.293726 12156 layer_factory.hpp:77] Creating layer inception_4d/pool_proj
I0403 15:37:46.293748 12156 net.cpp:91] Creating Layer inception_4d/pool_proj
I0403 15:37:46.293766 12156 net.cpp:425] inception_4d/pool_proj <- inception_4d/pool
I0403 15:37:46.293787 12156 net.cpp:399] inception_4d/pool_proj -> inception_4d/pool_proj
I0403 15:37:46.295553 12156 net.cpp:141] Setting up inception_4d/pool_proj
I0403 15:37:46.295584 12156 net.cpp:148] Top shape: 24 64 14 14 (301056)
I0403 15:37:46.295599 12156 net.cpp:156] Memory required for data: 1146105120
I0403 15:37:46.295617 12156 layer_factory.hpp:77] Creating layer inception_4d/relu_pool_proj
I0403 15:37:46.295635 12156 net.cpp:91] Creating Layer inception_4d/relu_pool_proj
I0403 15:37:46.295652 12156 net.cpp:425] inception_4d/relu_pool_proj <- inception_4d/pool_proj
I0403 15:37:46.295672 12156 net.cpp:386] inception_4d/relu_pool_proj -> inception_4d/pool_proj (in-place)
I0403 15:37:46.295858 12156 net.cpp:141] Setting up inception_4d/relu_pool_proj
I0403 15:37:46.295882 12156 net.cpp:148] Top shape: 24 64 14 14 (301056)
I0403 15:37:46.295897 12156 net.cpp:156] Memory required for data: 1147309344
I0403 15:37:46.295912 12156 layer_factory.hpp:77] Creating layer inception_4d/output
I0403 15:37:46.295931 12156 net.cpp:91] Creating Layer inception_4d/output
I0403 15:37:46.295948 12156 net.cpp:425] inception_4d/output <- inception_4d/1x1
I0403 15:37:46.295966 12156 net.cpp:425] inception_4d/output <- inception_4d/3x3
I0403 15:37:46.295984 12156 net.cpp:425] inception_4d/output <- inception_4d/5x5
I0403 15:37:46.296000 12156 net.cpp:425] inception_4d/output <- inception_4d/pool_proj
I0403 15:37:46.296017 12156 net.cpp:399] inception_4d/output -> inception_4d/output
I0403 15:37:46.296069 12156 net.cpp:141] Setting up inception_4d/output
I0403 15:37:46.296092 12156 net.cpp:148] Top shape: 24 528 14 14 (2483712)
I0403 15:37:46.296108 12156 net.cpp:156] Memory required for data: 1157244192
I0403 15:37:46.296121 12156 layer_factory.hpp:77] Creating layer inception_4d/output_inception_4d/output_0_split
I0403 15:37:46.296139 12156 net.cpp:91] Creating Layer inception_4d/output_inception_4d/output_0_split
I0403 15:37:46.296155 12156 net.cpp:425] inception_4d/output_inception_4d/output_0_split <- inception_4d/output
I0403 15:37:46.296175 12156 net.cpp:399] inception_4d/output_inception_4d/output_0_split -> inception_4d/output_inception_4d/output_0_split_0
I0403 15:37:46.296198 12156 net.cpp:399] inception_4d/output_inception_4d/output_0_split -> inception_4d/output_inception_4d/output_0_split_1
I0403 15:37:46.296219 12156 net.cpp:399] inception_4d/output_inception_4d/output_0_split -> inception_4d/output_inception_4d/output_0_split_2
I0403 15:37:46.296241 12156 net.cpp:399] inception_4d/output_inception_4d/output_0_split -> inception_4d/output_inception_4d/output_0_split_3
I0403 15:37:46.296260 12156 net.cpp:399] inception_4d/output_inception_4d/output_0_split -> inception_4d/output_inception_4d/output_0_split_4
I0403 15:37:46.296362 12156 net.cpp:141] Setting up inception_4d/output_inception_4d/output_0_split
I0403 15:37:46.296398 12156 net.cpp:148] Top shape: 24 528 14 14 (2483712)
I0403 15:37:46.296419 12156 net.cpp:148] Top shape: 24 528 14 14 (2483712)
I0403 15:37:46.296437 12156 net.cpp:148] Top shape: 24 528 14 14 (2483712)
I0403 15:37:46.296452 12156 net.cpp:148] Top shape: 24 528 14 14 (2483712)
I0403 15:37:46.296468 12156 net.cpp:148] Top shape: 24 528 14 14 (2483712)
I0403 15:37:46.296480 12156 net.cpp:156] Memory required for data: 1206918432
I0403 15:37:46.296495 12156 layer_factory.hpp:77] Creating layer loss2/ave_pool
I0403 15:37:46.296512 12156 net.cpp:91] Creating Layer loss2/ave_pool
I0403 15:37:46.296530 12156 net.cpp:425] loss2/ave_pool <- inception_4d/output_inception_4d/output_0_split_0
I0403 15:37:46.296550 12156 net.cpp:399] loss2/ave_pool -> loss2/ave_pool
I0403 15:37:46.296865 12156 net.cpp:141] Setting up loss2/ave_pool
I0403 15:37:46.296892 12156 net.cpp:148] Top shape: 24 528 4 4 (202752)
I0403 15:37:46.296907 12156 net.cpp:156] Memory required for data: 1207729440
I0403 15:37:46.296922 12156 layer_factory.hpp:77] Creating layer loss2/conv
I0403 15:37:46.296944 12156 net.cpp:91] Creating Layer loss2/conv
I0403 15:37:46.296962 12156 net.cpp:425] loss2/conv <- loss2/ave_pool
I0403 15:37:46.296983 12156 net.cpp:399] loss2/conv -> loss2/conv
I0403 15:37:46.298943 12156 net.cpp:141] Setting up loss2/conv
I0403 15:37:46.298972 12156 net.cpp:148] Top shape: 24 128 4 4 (49152)
I0403 15:37:46.298988 12156 net.cpp:156] Memory required for data: 1207926048
I0403 15:37:46.299007 12156 layer_factory.hpp:77] Creating layer loss2/relu_conv
I0403 15:37:46.299028 12156 net.cpp:91] Creating Layer loss2/relu_conv
I0403 15:37:46.299046 12156 net.cpp:425] loss2/relu_conv <- loss2/conv
I0403 15:37:46.299064 12156 net.cpp:386] loss2/relu_conv -> loss2/conv (in-place)
I0403 15:37:46.299361 12156 net.cpp:141] Setting up loss2/relu_conv
I0403 15:37:46.299388 12156 net.cpp:148] Top shape: 24 128 4 4 (49152)
I0403 15:37:46.299403 12156 net.cpp:156] Memory required for data: 1208122656
I0403 15:37:46.299424 12156 layer_factory.hpp:77] Creating layer loss2/fc
I0403 15:37:46.299448 12156 net.cpp:91] Creating Layer loss2/fc
I0403 15:37:46.299465 12156 net.cpp:425] loss2/fc <- loss2/conv
I0403 15:37:46.299487 12156 net.cpp:399] loss2/fc -> loss2/fc
I0403 15:37:46.317456 12156 net.cpp:141] Setting up loss2/fc
I0403 15:37:46.317508 12156 net.cpp:148] Top shape: 24 1024 (24576)
I0403 15:37:46.317523 12156 net.cpp:156] Memory required for data: 1208220960
I0403 15:37:46.317540 12156 layer_factory.hpp:77] Creating layer loss2/relu_fc
I0403 15:37:46.317559 12156 net.cpp:91] Creating Layer loss2/relu_fc
I0403 15:37:46.317579 12156 net.cpp:425] loss2/relu_fc <- loss2/fc
I0403 15:37:46.317598 12156 net.cpp:386] loss2/relu_fc -> loss2/fc (in-place)
I0403 15:37:46.317929 12156 net.cpp:141] Setting up loss2/relu_fc
I0403 15:37:46.317955 12156 net.cpp:148] Top shape: 24 1024 (24576)
I0403 15:37:46.317970 12156 net.cpp:156] Memory required for data: 1208319264
I0403 15:37:46.317983 12156 layer_factory.hpp:77] Creating layer loss2/drop_fc
I0403 15:37:46.318001 12156 net.cpp:91] Creating Layer loss2/drop_fc
I0403 15:37:46.318017 12156 net.cpp:425] loss2/drop_fc <- loss2/fc
I0403 15:37:46.318035 12156 net.cpp:386] loss2/drop_fc -> loss2/fc (in-place)
I0403 15:37:46.318085 12156 net.cpp:141] Setting up loss2/drop_fc
I0403 15:37:46.318109 12156 net.cpp:148] Top shape: 24 1024 (24576)
I0403 15:37:46.318125 12156 net.cpp:156] Memory required for data: 1208417568
I0403 15:37:46.318138 12156 layer_factory.hpp:77] Creating layer loss2/classifier_plantvillage
I0403 15:37:46.318156 12156 net.cpp:91] Creating Layer loss2/classifier_plantvillage
I0403 15:37:46.318171 12156 net.cpp:425] loss2/classifier_plantvillage <- loss2/fc
I0403 15:37:46.318192 12156 net.cpp:399] loss2/classifier_plantvillage -> loss2/classifier_plantvillage
I0403 15:37:46.318600 12156 net.cpp:141] Setting up loss2/classifier_plantvillage
I0403 15:37:46.318624 12156 net.cpp:148] Top shape: 24 38 (912)
I0403 15:37:46.318660 12156 net.cpp:156] Memory required for data: 1208421216
I0403 15:37:46.318680 12156 layer_factory.hpp:77] Creating layer loss2/classifier_plantvillage_loss2/classifier_plantvillage_0_split
I0403 15:37:46.318701 12156 net.cpp:91] Creating Layer loss2/classifier_plantvillage_loss2/classifier_plantvillage_0_split
I0403 15:37:46.318717 12156 net.cpp:425] loss2/classifier_plantvillage_loss2/classifier_plantvillage_0_split <- loss2/classifier_plantvillage
I0403 15:37:46.318733 12156 net.cpp:399] loss2/classifier_plantvillage_loss2/classifier_plantvillage_0_split -> loss2/classifier_plantvillage_loss2/classifier_plantvillage_0_split_0
I0403 15:37:46.318755 12156 net.cpp:399] loss2/classifier_plantvillage_loss2/classifier_plantvillage_0_split -> loss2/classifier_plantvillage_loss2/classifier_plantvillage_0_split_1
I0403 15:37:46.318776 12156 net.cpp:399] loss2/classifier_plantvillage_loss2/classifier_plantvillage_0_split -> loss2/classifier_plantvillage_loss2/classifier_plantvillage_0_split_2
I0403 15:37:46.318851 12156 net.cpp:141] Setting up loss2/classifier_plantvillage_loss2/classifier_plantvillage_0_split
I0403 15:37:46.318874 12156 net.cpp:148] Top shape: 24 38 (912)
I0403 15:37:46.318889 12156 net.cpp:148] Top shape: 24 38 (912)
I0403 15:37:46.318904 12156 net.cpp:148] Top shape: 24 38 (912)
I0403 15:37:46.318917 12156 net.cpp:156] Memory required for data: 1208432160
I0403 15:37:46.318931 12156 layer_factory.hpp:77] Creating layer inception_4e/1x1
I0403 15:37:46.318953 12156 net.cpp:91] Creating Layer inception_4e/1x1
I0403 15:37:46.318982 12156 net.cpp:425] inception_4e/1x1 <- inception_4d/output_inception_4d/output_0_split_1
I0403 15:37:46.319001 12156 net.cpp:399] inception_4e/1x1 -> inception_4e/1x1
I0403 15:37:46.320811 12156 net.cpp:141] Setting up inception_4e/1x1
I0403 15:37:46.320842 12156 net.cpp:148] Top shape: 24 256 14 14 (1204224)
I0403 15:37:46.320859 12156 net.cpp:156] Memory required for data: 1213249056
I0403 15:37:46.320878 12156 layer_factory.hpp:77] Creating layer inception_4e/relu_1x1
I0403 15:37:46.320895 12156 net.cpp:91] Creating Layer inception_4e/relu_1x1
I0403 15:37:46.320910 12156 net.cpp:425] inception_4e/relu_1x1 <- inception_4e/1x1
I0403 15:37:46.320927 12156 net.cpp:386] inception_4e/relu_1x1 -> inception_4e/1x1 (in-place)
I0403 15:37:46.321223 12156 net.cpp:141] Setting up inception_4e/relu_1x1
I0403 15:37:46.321250 12156 net.cpp:148] Top shape: 24 256 14 14 (1204224)
I0403 15:37:46.321266 12156 net.cpp:156] Memory required for data: 1218065952
I0403 15:37:46.321281 12156 layer_factory.hpp:77] Creating layer inception_4e/3x3_reduce
I0403 15:37:46.321300 12156 net.cpp:91] Creating Layer inception_4e/3x3_reduce
I0403 15:37:46.321329 12156 net.cpp:425] inception_4e/3x3_reduce <- inception_4d/output_inception_4d/output_0_split_2
I0403 15:37:46.321352 12156 net.cpp:399] inception_4e/3x3_reduce -> inception_4e/3x3_reduce
I0403 15:37:46.323551 12156 net.cpp:141] Setting up inception_4e/3x3_reduce
I0403 15:37:46.323582 12156 net.cpp:148] Top shape: 24 160 14 14 (752640)
I0403 15:37:46.323598 12156 net.cpp:156] Memory required for data: 1221076512
I0403 15:37:46.323616 12156 layer_factory.hpp:77] Creating layer inception_4e/relu_3x3_reduce
I0403 15:37:46.323638 12156 net.cpp:91] Creating Layer inception_4e/relu_3x3_reduce
I0403 15:37:46.323657 12156 net.cpp:425] inception_4e/relu_3x3_reduce <- inception_4e/3x3_reduce
I0403 15:37:46.323674 12156 net.cpp:386] inception_4e/relu_3x3_reduce -> inception_4e/3x3_reduce (in-place)
I0403 15:37:46.323868 12156 net.cpp:141] Setting up inception_4e/relu_3x3_reduce
I0403 15:37:46.323897 12156 net.cpp:148] Top shape: 24 160 14 14 (752640)
I0403 15:37:46.323914 12156 net.cpp:156] Memory required for data: 1224087072
I0403 15:37:46.323930 12156 layer_factory.hpp:77] Creating layer inception_4e/3x3
I0403 15:37:46.323951 12156 net.cpp:91] Creating Layer inception_4e/3x3
I0403 15:37:46.323969 12156 net.cpp:425] inception_4e/3x3 <- inception_4e/3x3_reduce
I0403 15:37:46.323989 12156 net.cpp:399] inception_4e/3x3 -> inception_4e/3x3
I0403 15:37:46.329017 12156 net.cpp:141] Setting up inception_4e/3x3
I0403 15:37:46.329061 12156 net.cpp:148] Top shape: 24 320 14 14 (1505280)
I0403 15:37:46.329079 12156 net.cpp:156] Memory required for data: 1230108192
I0403 15:37:46.329097 12156 layer_factory.hpp:77] Creating layer inception_4e/relu_3x3
I0403 15:37:46.329115 12156 net.cpp:91] Creating Layer inception_4e/relu_3x3
I0403 15:37:46.329133 12156 net.cpp:425] inception_4e/relu_3x3 <- inception_4e/3x3
I0403 15:37:46.329150 12156 net.cpp:386] inception_4e/relu_3x3 -> inception_4e/3x3 (in-place)
I0403 15:37:46.329460 12156 net.cpp:141] Setting up inception_4e/relu_3x3
I0403 15:37:46.329486 12156 net.cpp:148] Top shape: 24 320 14 14 (1505280)
I0403 15:37:46.329502 12156 net.cpp:156] Memory required for data: 1236129312
I0403 15:37:46.329517 12156 layer_factory.hpp:77] Creating layer inception_4e/5x5_reduce
I0403 15:37:46.329553 12156 net.cpp:91] Creating Layer inception_4e/5x5_reduce
I0403 15:37:46.329573 12156 net.cpp:425] inception_4e/5x5_reduce <- inception_4d/output_inception_4d/output_0_split_3
I0403 15:37:46.329596 12156 net.cpp:399] inception_4e/5x5_reduce -> inception_4e/5x5_reduce
I0403 15:37:46.330693 12156 net.cpp:141] Setting up inception_4e/5x5_reduce
I0403 15:37:46.330720 12156 net.cpp:148] Top shape: 24 32 14 14 (150528)
I0403 15:37:46.330735 12156 net.cpp:156] Memory required for data: 1236731424
I0403 15:37:46.330754 12156 layer_factory.hpp:77] Creating layer inception_4e/relu_5x5_reduce
I0403 15:37:46.330775 12156 net.cpp:91] Creating Layer inception_4e/relu_5x5_reduce
I0403 15:37:46.330792 12156 net.cpp:425] inception_4e/relu_5x5_reduce <- inception_4e/5x5_reduce
I0403 15:37:46.330811 12156 net.cpp:386] inception_4e/relu_5x5_reduce -> inception_4e/5x5_reduce (in-place)
I0403 15:37:46.331110 12156 net.cpp:141] Setting up inception_4e/relu_5x5_reduce
I0403 15:37:46.331135 12156 net.cpp:148] Top shape: 24 32 14 14 (150528)
I0403 15:37:46.331151 12156 net.cpp:156] Memory required for data: 1237333536
I0403 15:37:46.331176 12156 layer_factory.hpp:77] Creating layer inception_4e/5x5
I0403 15:37:46.331213 12156 net.cpp:91] Creating Layer inception_4e/5x5
I0403 15:37:46.331233 12156 net.cpp:425] inception_4e/5x5 <- inception_4e/5x5_reduce
I0403 15:37:46.331254 12156 net.cpp:399] inception_4e/5x5 -> inception_4e/5x5
I0403 15:37:46.333070 12156 net.cpp:141] Setting up inception_4e/5x5
I0403 15:37:46.333096 12156 net.cpp:148] Top shape: 24 128 14 14 (602112)
I0403 15:37:46.333111 12156 net.cpp:156] Memory required for data: 1239741984
I0403 15:37:46.333129 12156 layer_factory.hpp:77] Creating layer inception_4e/relu_5x5
I0403 15:37:46.333149 12156 net.cpp:91] Creating Layer inception_4e/relu_5x5
I0403 15:37:46.333166 12156 net.cpp:425] inception_4e/relu_5x5 <- inception_4e/5x5
I0403 15:37:46.333184 12156 net.cpp:386] inception_4e/relu_5x5 -> inception_4e/5x5 (in-place)
I0403 15:37:46.333374 12156 net.cpp:141] Setting up inception_4e/relu_5x5
I0403 15:37:46.333398 12156 net.cpp:148] Top shape: 24 128 14 14 (602112)
I0403 15:37:46.333422 12156 net.cpp:156] Memory required for data: 1242150432
I0403 15:37:46.333441 12156 layer_factory.hpp:77] Creating layer inception_4e/pool
I0403 15:37:46.333463 12156 net.cpp:91] Creating Layer inception_4e/pool
I0403 15:37:46.333480 12156 net.cpp:425] inception_4e/pool <- inception_4d/output_inception_4d/output_0_split_4
I0403 15:37:46.333498 12156 net.cpp:399] inception_4e/pool -> inception_4e/pool
I0403 15:37:46.333569 12156 net.cpp:141] Setting up inception_4e/pool
I0403 15:37:46.333591 12156 net.cpp:148] Top shape: 24 528 14 14 (2483712)
I0403 15:37:46.333606 12156 net.cpp:156] Memory required for data: 1252085280
I0403 15:37:46.333626 12156 layer_factory.hpp:77] Creating layer inception_4e/pool_proj
I0403 15:37:46.333647 12156 net.cpp:91] Creating Layer inception_4e/pool_proj
I0403 15:37:46.333663 12156 net.cpp:425] inception_4e/pool_proj <- inception_4e/pool
I0403 15:37:46.333683 12156 net.cpp:399] inception_4e/pool_proj -> inception_4e/pool_proj
I0403 15:37:46.335156 12156 net.cpp:141] Setting up inception_4e/pool_proj
I0403 15:37:46.335194 12156 net.cpp:148] Top shape: 24 128 14 14 (602112)
I0403 15:37:46.335211 12156 net.cpp:156] Memory required for data: 1254493728
I0403 15:37:46.335228 12156 layer_factory.hpp:77] Creating layer inception_4e/relu_pool_proj
I0403 15:37:46.335245 12156 net.cpp:91] Creating Layer inception_4e/relu_pool_proj
I0403 15:37:46.335265 12156 net.cpp:425] inception_4e/relu_pool_proj <- inception_4e/pool_proj
I0403 15:37:46.335281 12156 net.cpp:386] inception_4e/relu_pool_proj -> inception_4e/pool_proj (in-place)
I0403 15:37:46.335575 12156 net.cpp:141] Setting up inception_4e/relu_pool_proj
I0403 15:37:46.335600 12156 net.cpp:148] Top shape: 24 128 14 14 (602112)
I0403 15:37:46.335615 12156 net.cpp:156] Memory required for data: 1256902176
I0403 15:37:46.335629 12156 layer_factory.hpp:77] Creating layer inception_4e/output
I0403 15:37:46.335646 12156 net.cpp:91] Creating Layer inception_4e/output
I0403 15:37:46.335662 12156 net.cpp:425] inception_4e/output <- inception_4e/1x1
I0403 15:37:46.335680 12156 net.cpp:425] inception_4e/output <- inception_4e/3x3
I0403 15:37:46.335695 12156 net.cpp:425] inception_4e/output <- inception_4e/5x5
I0403 15:37:46.335711 12156 net.cpp:425] inception_4e/output <- inception_4e/pool_proj
I0403 15:37:46.335729 12156 net.cpp:399] inception_4e/output -> inception_4e/output
I0403 15:37:46.335777 12156 net.cpp:141] Setting up inception_4e/output
I0403 15:37:46.335803 12156 net.cpp:148] Top shape: 24 832 14 14 (3913728)
I0403 15:37:46.335818 12156 net.cpp:156] Memory required for data: 1272557088
I0403 15:37:46.335831 12156 layer_factory.hpp:77] Creating layer pool4/3x3_s2
I0403 15:37:46.335849 12156 net.cpp:91] Creating Layer pool4/3x3_s2
I0403 15:37:46.335863 12156 net.cpp:425] pool4/3x3_s2 <- inception_4e/output
I0403 15:37:46.335885 12156 net.cpp:399] pool4/3x3_s2 -> pool4/3x3_s2
I0403 15:37:46.335949 12156 net.cpp:141] Setting up pool4/3x3_s2
I0403 15:37:46.335971 12156 net.cpp:148] Top shape: 24 832 7 7 (978432)
I0403 15:37:46.335985 12156 net.cpp:156] Memory required for data: 1276470816
I0403 15:37:46.335999 12156 layer_factory.hpp:77] Creating layer pool4/3x3_s2_pool4/3x3_s2_0_split
I0403 15:37:46.336019 12156 net.cpp:91] Creating Layer pool4/3x3_s2_pool4/3x3_s2_0_split
I0403 15:37:46.336035 12156 net.cpp:425] pool4/3x3_s2_pool4/3x3_s2_0_split <- pool4/3x3_s2
I0403 15:37:46.336051 12156 net.cpp:399] pool4/3x3_s2_pool4/3x3_s2_0_split -> pool4/3x3_s2_pool4/3x3_s2_0_split_0
I0403 15:37:46.336071 12156 net.cpp:399] pool4/3x3_s2_pool4/3x3_s2_0_split -> pool4/3x3_s2_pool4/3x3_s2_0_split_1
I0403 15:37:46.336089 12156 net.cpp:399] pool4/3x3_s2_pool4/3x3_s2_0_split -> pool4/3x3_s2_pool4/3x3_s2_0_split_2
I0403 15:37:46.336108 12156 net.cpp:399] pool4/3x3_s2_pool4/3x3_s2_0_split -> pool4/3x3_s2_pool4/3x3_s2_0_split_3
I0403 15:37:46.336195 12156 net.cpp:141] Setting up pool4/3x3_s2_pool4/3x3_s2_0_split
I0403 15:37:46.336218 12156 net.cpp:148] Top shape: 24 832 7 7 (978432)
I0403 15:37:46.336235 12156 net.cpp:148] Top shape: 24 832 7 7 (978432)
I0403 15:37:46.336249 12156 net.cpp:148] Top shape: 24 832 7 7 (978432)
I0403 15:37:46.336264 12156 net.cpp:148] Top shape: 24 832 7 7 (978432)
I0403 15:37:46.336277 12156 net.cpp:156] Memory required for data: 1292125728
I0403 15:37:46.336292 12156 layer_factory.hpp:77] Creating layer inception_5a/1x1
I0403 15:37:46.336313 12156 net.cpp:91] Creating Layer inception_5a/1x1
I0403 15:37:46.336329 12156 net.cpp:425] inception_5a/1x1 <- pool4/3x3_s2_pool4/3x3_s2_0_split_0
I0403 15:37:46.336350 12156 net.cpp:399] inception_5a/1x1 -> inception_5a/1x1
I0403 15:37:46.339133 12156 net.cpp:141] Setting up inception_5a/1x1
I0403 15:37:46.339161 12156 net.cpp:148] Top shape: 24 256 7 7 (301056)
I0403 15:37:46.339177 12156 net.cpp:156] Memory required for data: 1293329952
I0403 15:37:46.339195 12156 layer_factory.hpp:77] Creating layer inception_5a/relu_1x1
I0403 15:37:46.339215 12156 net.cpp:91] Creating Layer inception_5a/relu_1x1
I0403 15:37:46.339231 12156 net.cpp:425] inception_5a/relu_1x1 <- inception_5a/1x1
I0403 15:37:46.339248 12156 net.cpp:386] inception_5a/relu_1x1 -> inception_5a/1x1 (in-place)
I0403 15:37:46.339557 12156 net.cpp:141] Setting up inception_5a/relu_1x1
I0403 15:37:46.339583 12156 net.cpp:148] Top shape: 24 256 7 7 (301056)
I0403 15:37:46.339598 12156 net.cpp:156] Memory required for data: 1294534176
I0403 15:37:46.339612 12156 layer_factory.hpp:77] Creating layer inception_5a/3x3_reduce
I0403 15:37:46.339634 12156 net.cpp:91] Creating Layer inception_5a/3x3_reduce
I0403 15:37:46.339653 12156 net.cpp:425] inception_5a/3x3_reduce <- pool4/3x3_s2_pool4/3x3_s2_0_split_1
I0403 15:37:46.339673 12156 net.cpp:399] inception_5a/3x3_reduce -> inception_5a/3x3_reduce
I0403 15:37:46.342067 12156 net.cpp:141] Setting up inception_5a/3x3_reduce
I0403 15:37:46.342097 12156 net.cpp:148] Top shape: 24 160 7 7 (188160)
I0403 15:37:46.342113 12156 net.cpp:156] Memory required for data: 1295286816
I0403 15:37:46.342130 12156 layer_factory.hpp:77] Creating layer inception_5a/relu_3x3_reduce
I0403 15:37:46.342149 12156 net.cpp:91] Creating Layer inception_5a/relu_3x3_reduce
I0403 15:37:46.342164 12156 net.cpp:425] inception_5a/relu_3x3_reduce <- inception_5a/3x3_reduce
I0403 15:37:46.342183 12156 net.cpp:386] inception_5a/relu_3x3_reduce -> inception_5a/3x3_reduce (in-place)
I0403 15:37:46.342370 12156 net.cpp:141] Setting up inception_5a/relu_3x3_reduce
I0403 15:37:46.342393 12156 net.cpp:148] Top shape: 24 160 7 7 (188160)
I0403 15:37:46.342408 12156 net.cpp:156] Memory required for data: 1296039456
I0403 15:37:46.342427 12156 layer_factory.hpp:77] Creating layer inception_5a/3x3
I0403 15:37:46.342448 12156 net.cpp:91] Creating Layer inception_5a/3x3
I0403 15:37:46.342465 12156 net.cpp:425] inception_5a/3x3 <- inception_5a/3x3_reduce
I0403 15:37:46.342488 12156 net.cpp:399] inception_5a/3x3 -> inception_5a/3x3
I0403 15:37:46.347406 12156 net.cpp:141] Setting up inception_5a/3x3
I0403 15:37:46.347439 12156 net.cpp:148] Top shape: 24 320 7 7 (376320)
I0403 15:37:46.347455 12156 net.cpp:156] Memory required for data: 1297544736
I0403 15:37:46.347471 12156 layer_factory.hpp:77] Creating layer inception_5a/relu_3x3
I0403 15:37:46.347491 12156 net.cpp:91] Creating Layer inception_5a/relu_3x3
I0403 15:37:46.347508 12156 net.cpp:425] inception_5a/relu_3x3 <- inception_5a/3x3
I0403 15:37:46.347525 12156 net.cpp:386] inception_5a/relu_3x3 -> inception_5a/3x3 (in-place)
I0403 15:37:46.347818 12156 net.cpp:141] Setting up inception_5a/relu_3x3
I0403 15:37:46.347843 12156 net.cpp:148] Top shape: 24 320 7 7 (376320)
I0403 15:37:46.347858 12156 net.cpp:156] Memory required for data: 1299050016
I0403 15:37:46.347872 12156 layer_factory.hpp:77] Creating layer inception_5a/5x5_reduce
I0403 15:37:46.347893 12156 net.cpp:91] Creating Layer inception_5a/5x5_reduce
I0403 15:37:46.347911 12156 net.cpp:425] inception_5a/5x5_reduce <- pool4/3x3_s2_pool4/3x3_s2_0_split_2
I0403 15:37:46.347932 12156 net.cpp:399] inception_5a/5x5_reduce -> inception_5a/5x5_reduce
I0403 15:37:46.349086 12156 net.cpp:141] Setting up inception_5a/5x5_reduce
I0403 15:37:46.349113 12156 net.cpp:148] Top shape: 24 32 7 7 (37632)
I0403 15:37:46.349128 12156 net.cpp:156] Memory required for data: 1299200544
I0403 15:37:46.349145 12156 layer_factory.hpp:77] Creating layer inception_5a/relu_5x5_reduce
I0403 15:37:46.349165 12156 net.cpp:91] Creating Layer inception_5a/relu_5x5_reduce
I0403 15:37:46.349182 12156 net.cpp:425] inception_5a/relu_5x5_reduce <- inception_5a/5x5_reduce
I0403 15:37:46.349200 12156 net.cpp:386] inception_5a/relu_5x5_reduce -> inception_5a/5x5_reduce (in-place)
I0403 15:37:46.349503 12156 net.cpp:141] Setting up inception_5a/relu_5x5_reduce
I0403 15:37:46.349529 12156 net.cpp:148] Top shape: 24 32 7 7 (37632)
I0403 15:37:46.349544 12156 net.cpp:156] Memory required for data: 1299351072
I0403 15:37:46.349557 12156 layer_factory.hpp:77] Creating layer inception_5a/5x5
I0403 15:37:46.349581 12156 net.cpp:91] Creating Layer inception_5a/5x5
I0403 15:37:46.349599 12156 net.cpp:425] inception_5a/5x5 <- inception_5a/5x5_reduce
I0403 15:37:46.349618 12156 net.cpp:399] inception_5a/5x5 -> inception_5a/5x5
I0403 15:37:46.351306 12156 net.cpp:141] Setting up inception_5a/5x5
I0403 15:37:46.351344 12156 net.cpp:148] Top shape: 24 128 7 7 (150528)
I0403 15:37:46.351361 12156 net.cpp:156] Memory required for data: 1299953184
I0403 15:37:46.351378 12156 layer_factory.hpp:77] Creating layer inception_5a/relu_5x5
I0403 15:37:46.351398 12156 net.cpp:91] Creating Layer inception_5a/relu_5x5
I0403 15:37:46.351419 12156 net.cpp:425] inception_5a/relu_5x5 <- inception_5a/5x5
I0403 15:37:46.351438 12156 net.cpp:386] inception_5a/relu_5x5 -> inception_5a/5x5 (in-place)
I0403 15:37:46.351629 12156 net.cpp:141] Setting up inception_5a/relu_5x5
I0403 15:37:46.351654 12156 net.cpp:148] Top shape: 24 128 7 7 (150528)
I0403 15:37:46.351667 12156 net.cpp:156] Memory required for data: 1300555296
I0403 15:37:46.351682 12156 layer_factory.hpp:77] Creating layer inception_5a/pool
I0403 15:37:46.351701 12156 net.cpp:91] Creating Layer inception_5a/pool
I0403 15:37:46.351718 12156 net.cpp:425] inception_5a/pool <- pool4/3x3_s2_pool4/3x3_s2_0_split_3
I0403 15:37:46.351737 12156 net.cpp:399] inception_5a/pool -> inception_5a/pool
I0403 15:37:46.351805 12156 net.cpp:141] Setting up inception_5a/pool
I0403 15:37:46.351829 12156 net.cpp:148] Top shape: 24 832 7 7 (978432)
I0403 15:37:46.351842 12156 net.cpp:156] Memory required for data: 1304469024
I0403 15:37:46.351856 12156 layer_factory.hpp:77] Creating layer inception_5a/pool_proj
I0403 15:37:46.351877 12156 net.cpp:91] Creating Layer inception_5a/pool_proj
I0403 15:37:46.351894 12156 net.cpp:425] inception_5a/pool_proj <- inception_5a/pool
I0403 15:37:46.351915 12156 net.cpp:399] inception_5a/pool_proj -> inception_5a/pool_proj
I0403 15:37:46.354148 12156 net.cpp:141] Setting up inception_5a/pool_proj
I0403 15:37:46.354177 12156 net.cpp:148] Top shape: 24 128 7 7 (150528)
I0403 15:37:46.354192 12156 net.cpp:156] Memory required for data: 1305071136
I0403 15:37:46.354210 12156 layer_factory.hpp:77] Creating layer inception_5a/relu_pool_proj
I0403 15:37:46.354228 12156 net.cpp:91] Creating Layer inception_5a/relu_pool_proj
I0403 15:37:46.354243 12156 net.cpp:425] inception_5a/relu_pool_proj <- inception_5a/pool_proj
I0403 15:37:46.354262 12156 net.cpp:386] inception_5a/relu_pool_proj -> inception_5a/pool_proj (in-place)
I0403 15:37:46.354558 12156 net.cpp:141] Setting up inception_5a/relu_pool_proj
I0403 15:37:46.354585 12156 net.cpp:148] Top shape: 24 128 7 7 (150528)
I0403 15:37:46.354600 12156 net.cpp:156] Memory required for data: 1305673248
I0403 15:37:46.354614 12156 layer_factory.hpp:77] Creating layer inception_5a/output
I0403 15:37:46.354631 12156 net.cpp:91] Creating Layer inception_5a/output
I0403 15:37:46.354647 12156 net.cpp:425] inception_5a/output <- inception_5a/1x1
I0403 15:37:46.354663 12156 net.cpp:425] inception_5a/output <- inception_5a/3x3
I0403 15:37:46.354678 12156 net.cpp:425] inception_5a/output <- inception_5a/5x5
I0403 15:37:46.354693 12156 net.cpp:425] inception_5a/output <- inception_5a/pool_proj
I0403 15:37:46.354712 12156 net.cpp:399] inception_5a/output -> inception_5a/output
I0403 15:37:46.354763 12156 net.cpp:141] Setting up inception_5a/output
I0403 15:37:46.354789 12156 net.cpp:148] Top shape: 24 832 7 7 (978432)
I0403 15:37:46.354804 12156 net.cpp:156] Memory required for data: 1309586976
I0403 15:37:46.354817 12156 layer_factory.hpp:77] Creating layer inception_5a/output_inception_5a/output_0_split
I0403 15:37:46.354835 12156 net.cpp:91] Creating Layer inception_5a/output_inception_5a/output_0_split
I0403 15:37:46.354849 12156 net.cpp:425] inception_5a/output_inception_5a/output_0_split <- inception_5a/output
I0403 15:37:46.354866 12156 net.cpp:399] inception_5a/output_inception_5a/output_0_split -> inception_5a/output_inception_5a/output_0_split_0
I0403 15:37:46.354888 12156 net.cpp:399] inception_5a/output_inception_5a/output_0_split -> inception_5a/output_inception_5a/output_0_split_1
I0403 15:37:46.354909 12156 net.cpp:399] inception_5a/output_inception_5a/output_0_split -> inception_5a/output_inception_5a/output_0_split_2
I0403 15:37:46.354929 12156 net.cpp:399] inception_5a/output_inception_5a/output_0_split -> inception_5a/output_inception_5a/output_0_split_3
I0403 15:37:46.355041 12156 net.cpp:141] Setting up inception_5a/output_inception_5a/output_0_split
I0403 15:37:46.355064 12156 net.cpp:148] Top shape: 24 832 7 7 (978432)
I0403 15:37:46.355080 12156 net.cpp:148] Top shape: 24 832 7 7 (978432)
I0403 15:37:46.355095 12156 net.cpp:148] Top shape: 24 832 7 7 (978432)
I0403 15:37:46.355110 12156 net.cpp:148] Top shape: 24 832 7 7 (978432)
I0403 15:37:46.355124 12156 net.cpp:156] Memory required for data: 1325241888
I0403 15:37:46.355139 12156 layer_factory.hpp:77] Creating layer inception_5b/1x1
I0403 15:37:46.355159 12156 net.cpp:91] Creating Layer inception_5b/1x1
I0403 15:37:46.355176 12156 net.cpp:425] inception_5b/1x1 <- inception_5a/output_inception_5a/output_0_split_0
I0403 15:37:46.355197 12156 net.cpp:399] inception_5b/1x1 -> inception_5b/1x1
I0403 15:37:46.358973 12156 net.cpp:141] Setting up inception_5b/1x1
I0403 15:37:46.359007 12156 net.cpp:148] Top shape: 24 384 7 7 (451584)
I0403 15:37:46.359025 12156 net.cpp:156] Memory required for data: 1327048224
I0403 15:37:46.359043 12156 layer_factory.hpp:77] Creating layer inception_5b/relu_1x1
I0403 15:37:46.359062 12156 net.cpp:91] Creating Layer inception_5b/relu_1x1
I0403 15:37:46.359079 12156 net.cpp:425] inception_5b/relu_1x1 <- inception_5b/1x1
I0403 15:37:46.359100 12156 net.cpp:386] inception_5b/relu_1x1 -> inception_5b/1x1 (in-place)
I0403 15:37:46.359421 12156 net.cpp:141] Setting up inception_5b/relu_1x1
I0403 15:37:46.359450 12156 net.cpp:148] Top shape: 24 384 7 7 (451584)
I0403 15:37:46.359467 12156 net.cpp:156] Memory required for data: 1328854560
I0403 15:37:46.359483 12156 layer_factory.hpp:77] Creating layer inception_5b/3x3_reduce
I0403 15:37:46.359505 12156 net.cpp:91] Creating Layer inception_5b/3x3_reduce
I0403 15:37:46.359524 12156 net.cpp:425] inception_5b/3x3_reduce <- inception_5a/output_inception_5a/output_0_split_1
I0403 15:37:46.359544 12156 net.cpp:399] inception_5b/3x3_reduce -> inception_5b/3x3_reduce
I0403 15:37:46.362295 12156 net.cpp:141] Setting up inception_5b/3x3_reduce
I0403 15:37:46.362326 12156 net.cpp:148] Top shape: 24 192 7 7 (225792)
I0403 15:37:46.362342 12156 net.cpp:156] Memory required for data: 1329757728
I0403 15:37:46.362361 12156 layer_factory.hpp:77] Creating layer inception_5b/relu_3x3_reduce
I0403 15:37:46.362380 12156 net.cpp:91] Creating Layer inception_5b/relu_3x3_reduce
I0403 15:37:46.362396 12156 net.cpp:425] inception_5b/relu_3x3_reduce <- inception_5b/3x3_reduce
I0403 15:37:46.362424 12156 net.cpp:386] inception_5b/relu_3x3_reduce -> inception_5b/3x3_reduce (in-place)
I0403 15:37:46.362625 12156 net.cpp:141] Setting up inception_5b/relu_3x3_reduce
I0403 15:37:46.362650 12156 net.cpp:148] Top shape: 24 192 7 7 (225792)
I0403 15:37:46.362665 12156 net.cpp:156] Memory required for data: 1330660896
I0403 15:37:46.362680 12156 layer_factory.hpp:77] Creating layer inception_5b/3x3
I0403 15:37:46.362704 12156 net.cpp:91] Creating Layer inception_5b/3x3
I0403 15:37:46.362721 12156 net.cpp:425] inception_5b/3x3 <- inception_5b/3x3_reduce
I0403 15:37:46.362745 12156 net.cpp:399] inception_5b/3x3 -> inception_5b/3x3
I0403 15:37:46.369781 12156 net.cpp:141] Setting up inception_5b/3x3
I0403 15:37:46.369812 12156 net.cpp:148] Top shape: 24 384 7 7 (451584)
I0403 15:37:46.369827 12156 net.cpp:156] Memory required for data: 1332467232
I0403 15:37:46.369846 12156 layer_factory.hpp:77] Creating layer inception_5b/relu_3x3
I0403 15:37:46.369864 12156 net.cpp:91] Creating Layer inception_5b/relu_3x3
I0403 15:37:46.369881 12156 net.cpp:425] inception_5b/relu_3x3 <- inception_5b/3x3
I0403 15:37:46.369902 12156 net.cpp:386] inception_5b/relu_3x3 -> inception_5b/3x3 (in-place)
I0403 15:37:46.370213 12156 net.cpp:141] Setting up inception_5b/relu_3x3
I0403 15:37:46.370240 12156 net.cpp:148] Top shape: 24 384 7 7 (451584)
I0403 15:37:46.370255 12156 net.cpp:156] Memory required for data: 1334273568
I0403 15:37:46.370270 12156 layer_factory.hpp:77] Creating layer inception_5b/5x5_reduce
I0403 15:37:46.370313 12156 net.cpp:91] Creating Layer inception_5b/5x5_reduce
I0403 15:37:46.370333 12156 net.cpp:425] inception_5b/5x5_reduce <- inception_5a/output_inception_5a/output_0_split_2
I0403 15:37:46.370357 12156 net.cpp:399] inception_5b/5x5_reduce -> inception_5b/5x5_reduce
I0403 15:37:46.371682 12156 net.cpp:141] Setting up inception_5b/5x5_reduce
I0403 15:37:46.371711 12156 net.cpp:148] Top shape: 24 48 7 7 (56448)
I0403 15:37:46.371727 12156 net.cpp:156] Memory required for data: 1334499360
I0403 15:37:46.371747 12156 layer_factory.hpp:77] Creating layer inception_5b/relu_5x5_reduce
I0403 15:37:46.371765 12156 net.cpp:91] Creating Layer inception_5b/relu_5x5_reduce
I0403 15:37:46.371785 12156 net.cpp:425] inception_5b/relu_5x5_reduce <- inception_5b/5x5_reduce
I0403 15:37:46.371803 12156 net.cpp:386] inception_5b/relu_5x5_reduce -> inception_5b/5x5_reduce (in-place)
I0403 15:37:46.372189 12156 net.cpp:141] Setting up inception_5b/relu_5x5_reduce
I0403 15:37:46.372216 12156 net.cpp:148] Top shape: 24 48 7 7 (56448)
I0403 15:37:46.372232 12156 net.cpp:156] Memory required for data: 1334725152
I0403 15:37:46.372247 12156 layer_factory.hpp:77] Creating layer inception_5b/5x5
I0403 15:37:46.372267 12156 net.cpp:91] Creating Layer inception_5b/5x5
I0403 15:37:46.372285 12156 net.cpp:425] inception_5b/5x5 <- inception_5b/5x5_reduce
I0403 15:37:46.372304 12156 net.cpp:399] inception_5b/5x5 -> inception_5b/5x5
I0403 15:37:46.374466 12156 net.cpp:141] Setting up inception_5b/5x5
I0403 15:37:46.374510 12156 net.cpp:148] Top shape: 24 128 7 7 (150528)
I0403 15:37:46.374524 12156 net.cpp:156] Memory required for data: 1335327264
I0403 15:37:46.374543 12156 layer_factory.hpp:77] Creating layer inception_5b/relu_5x5
I0403 15:37:46.374563 12156 net.cpp:91] Creating Layer inception_5b/relu_5x5
I0403 15:37:46.374580 12156 net.cpp:425] inception_5b/relu_5x5 <- inception_5b/5x5
I0403 15:37:46.374598 12156 net.cpp:386] inception_5b/relu_5x5 -> inception_5b/5x5 (in-place)
I0403 15:37:46.374800 12156 net.cpp:141] Setting up inception_5b/relu_5x5
I0403 15:37:46.374827 12156 net.cpp:148] Top shape: 24 128 7 7 (150528)
I0403 15:37:46.374845 12156 net.cpp:156] Memory required for data: 1335929376
I0403 15:37:46.374858 12156 layer_factory.hpp:77] Creating layer inception_5b/pool
I0403 15:37:46.374876 12156 net.cpp:91] Creating Layer inception_5b/pool
I0403 15:37:46.374892 12156 net.cpp:425] inception_5b/pool <- inception_5a/output_inception_5a/output_0_split_3
I0403 15:37:46.374912 12156 net.cpp:399] inception_5b/pool -> inception_5b/pool
I0403 15:37:46.374985 12156 net.cpp:141] Setting up inception_5b/pool
I0403 15:37:46.375010 12156 net.cpp:148] Top shape: 24 832 7 7 (978432)
I0403 15:37:46.375023 12156 net.cpp:156] Memory required for data: 1339843104
I0403 15:37:46.375038 12156 layer_factory.hpp:77] Creating layer inception_5b/pool_proj
I0403 15:37:46.375061 12156 net.cpp:91] Creating Layer inception_5b/pool_proj
I0403 15:37:46.375078 12156 net.cpp:425] inception_5b/pool_proj <- inception_5b/pool
I0403 15:37:46.375100 12156 net.cpp:399] inception_5b/pool_proj -> inception_5b/pool_proj
I0403 15:37:46.377425 12156 net.cpp:141] Setting up inception_5b/pool_proj
I0403 15:37:46.377454 12156 net.cpp:148] Top shape: 24 128 7 7 (150528)
I0403 15:37:46.377470 12156 net.cpp:156] Memory required for data: 1340445216
I0403 15:37:46.377488 12156 layer_factory.hpp:77] Creating layer inception_5b/relu_pool_proj
I0403 15:37:46.377509 12156 net.cpp:91] Creating Layer inception_5b/relu_pool_proj
I0403 15:37:46.377527 12156 net.cpp:425] inception_5b/relu_pool_proj <- inception_5b/pool_proj
I0403 15:37:46.377544 12156 net.cpp:386] inception_5b/relu_pool_proj -> inception_5b/pool_proj (in-place)
I0403 15:37:46.377848 12156 net.cpp:141] Setting up inception_5b/relu_pool_proj
I0403 15:37:46.377874 12156 net.cpp:148] Top shape: 24 128 7 7 (150528)
I0403 15:37:46.377890 12156 net.cpp:156] Memory required for data: 1341047328
I0403 15:37:46.377904 12156 layer_factory.hpp:77] Creating layer inception_5b/output
I0403 15:37:46.377923 12156 net.cpp:91] Creating Layer inception_5b/output
I0403 15:37:46.377955 12156 net.cpp:425] inception_5b/output <- inception_5b/1x1
I0403 15:37:46.377974 12156 net.cpp:425] inception_5b/output <- inception_5b/3x3
I0403 15:37:46.377990 12156 net.cpp:425] inception_5b/output <- inception_5b/5x5
I0403 15:37:46.378006 12156 net.cpp:425] inception_5b/output <- inception_5b/pool_proj
I0403 15:37:46.378026 12156 net.cpp:399] inception_5b/output -> inception_5b/output
I0403 15:37:46.378078 12156 net.cpp:141] Setting up inception_5b/output
I0403 15:37:46.378104 12156 net.cpp:148] Top shape: 24 1024 7 7 (1204224)
I0403 15:37:46.378119 12156 net.cpp:156] Memory required for data: 1345864224
I0403 15:37:46.378134 12156 layer_factory.hpp:77] Creating layer pool5/7x7_s1
I0403 15:37:46.378152 12156 net.cpp:91] Creating Layer pool5/7x7_s1
I0403 15:37:46.378168 12156 net.cpp:425] pool5/7x7_s1 <- inception_5b/output
I0403 15:37:46.378190 12156 net.cpp:399] pool5/7x7_s1 -> pool5/7x7_s1
I0403 15:37:46.378414 12156 net.cpp:141] Setting up pool5/7x7_s1
I0403 15:37:46.378440 12156 net.cpp:148] Top shape: 24 1024 1 1 (24576)
I0403 15:37:46.378455 12156 net.cpp:156] Memory required for data: 1345962528
I0403 15:37:46.378469 12156 layer_factory.hpp:77] Creating layer pool5/drop_7x7_s1
I0403 15:37:46.378490 12156 net.cpp:91] Creating Layer pool5/drop_7x7_s1
I0403 15:37:46.378507 12156 net.cpp:425] pool5/drop_7x7_s1 <- pool5/7x7_s1
I0403 15:37:46.378527 12156 net.cpp:386] pool5/drop_7x7_s1 -> pool5/7x7_s1 (in-place)
I0403 15:37:46.378577 12156 net.cpp:141] Setting up pool5/drop_7x7_s1
I0403 15:37:46.378602 12156 net.cpp:148] Top shape: 24 1024 1 1 (24576)
I0403 15:37:46.378618 12156 net.cpp:156] Memory required for data: 1346060832
I0403 15:37:46.378633 12156 layer_factory.hpp:77] Creating layer loss3/classifier_plantvillage
I0403 15:37:46.378651 12156 net.cpp:91] Creating Layer loss3/classifier_plantvillage
I0403 15:37:46.378667 12156 net.cpp:425] loss3/classifier_plantvillage <- pool5/7x7_s1
I0403 15:37:46.378689 12156 net.cpp:399] loss3/classifier_plantvillage -> loss3/classifier_plantvillage
I0403 15:37:46.379117 12156 net.cpp:141] Setting up loss3/classifier_plantvillage
I0403 15:37:46.379142 12156 net.cpp:148] Top shape: 24 38 (912)
I0403 15:37:46.379158 12156 net.cpp:156] Memory required for data: 1346064480
I0403 15:37:46.379175 12156 layer_factory.hpp:77] Creating layer loss3/classifier_plantvillage_loss3/classifier_plantvillage_0_split
I0403 15:37:46.379194 12156 net.cpp:91] Creating Layer loss3/classifier_plantvillage_loss3/classifier_plantvillage_0_split
I0403 15:37:46.379210 12156 net.cpp:425] loss3/classifier_plantvillage_loss3/classifier_plantvillage_0_split <- loss3/classifier_plantvillage
I0403 15:37:46.379227 12156 net.cpp:399] loss3/classifier_plantvillage_loss3/classifier_plantvillage_0_split -> loss3/classifier_plantvillage_loss3/classifier_plantvillage_0_split_0
I0403 15:37:46.379251 12156 net.cpp:399] loss3/classifier_plantvillage_loss3/classifier_plantvillage_0_split -> loss3/classifier_plantvillage_loss3/classifier_plantvillage_0_split_1
I0403 15:37:46.379273 12156 net.cpp:399] loss3/classifier_plantvillage_loss3/classifier_plantvillage_0_split -> loss3/classifier_plantvillage_loss3/classifier_plantvillage_0_split_2
I0403 15:37:46.379293 12156 net.cpp:399] loss3/classifier_plantvillage_loss3/classifier_plantvillage_0_split -> loss3/classifier_plantvillage_loss3/classifier_plantvillage_0_split_3
I0403 15:37:46.379396 12156 net.cpp:141] Setting up loss3/classifier_plantvillage_loss3/classifier_plantvillage_0_split
I0403 15:37:46.379423 12156 net.cpp:148] Top shape: 24 38 (912)
I0403 15:37:46.379441 12156 net.cpp:148] Top shape: 24 38 (912)
I0403 15:37:46.379456 12156 net.cpp:148] Top shape: 24 38 (912)
I0403 15:37:46.379472 12156 net.cpp:148] Top shape: 24 38 (912)
I0403 15:37:46.379485 12156 net.cpp:156] Memory required for data: 1346079072
I0403 15:37:46.379499 12156 layer_factory.hpp:77] Creating layer loss1/loss
I0403 15:37:46.379523 12156 net.cpp:91] Creating Layer loss1/loss
I0403 15:37:46.379541 12156 net.cpp:425] loss1/loss <- loss1/classifier_plantvillage_loss1/classifier_plantvillage_0_split_0
I0403 15:37:46.379571 12156 net.cpp:425] loss1/loss <- label_data_1_split_0
…
