…
I0403 15:06:38.467350 11606 net.cpp:313] The NetState phase (1) differed from the phase (0) specified by a rule in layer data
I0403 15:06:38.468508 11606 net.cpp:49] Initializing net from parameters: 
state {
  phase: TEST
}
layer {
  name: "data"
  type: "Data"
  top: "data"
  top: "label"
  include {
    phase: TEST
  }
  transform_param {
    mirror: false
    crop_size: 224
    mean_file: "/home/mohanty/data/final_dataset/lmdb/segmented-50-50/mean.binaryproto"
  }
  data_param {
    source: "/home/mohanty/data/final_dataset/lmdb/segmented-50-50/test_db"
    batch_size: 24
    backend: LMDB
  }
}
layer {
  name: "conv1/7x7_s2"
  type: "Convolution"
  bottom: "data"
  top: "conv1/7x7_s2"
  param {
    lr_mult: 1
    decay_mult: 1
  }
  param {
    lr_mult: 2
    decay_mult: 0
  }
  convolution_param {
    num_output: 64
    pad: 3
    kernel_size: 7
    stride: 2
    weight_filler {
      type: "xavier"
      std: 0.1
    }
    bias_filler {
      type: "constant"
      value: 0.2
    }
  }
}
layer {
  name: "conv1/relu_7x7"
  type: "ReLU"
  bottom: "conv1/7x7_s2"
  top: "conv1/7x7_s2"
}
layer {
  name: "pool1/3x3_s2"
  type: "Pooling"
  bottom: "conv1/7x7_s2"
  top: "pool1/3x3_s2"
  pooling_param {
    pool: MAX
    kernel_size: 3
    stride: 2
  }
}
layer {
  name: "pool1/norm1"
  type: "LRN"
  bottom: "pool1/3x3_s2"
  top: "pool1/norm1"
  lrn_param {
    local_size: 5
    alpha: 0.0001
    beta: 0.75
  }
}
layer {
  name: "conv2/3x3_reduce"
  type: "Convolution"
  bottom: "pool1/norm1"
  top: "conv2/3x3_reduce"
  param {
    lr_mult: 1
    decay_mult: 1
  }
  param {
    lr_mult: 2
    decay_mult: 0
  }
  convolution_param {
    num_output: 64
    kernel_size: 1
    weight_filler {
      type: "xavier"
      std: 0.1
    }
    bias_filler {
      type: "constant"
      value: 0.2
    }
  }
}
layer {
  name: "conv2/relu_3x3_reduce"
  type: "ReLU"
  bottom: "conv2/3x3_reduce"
  top: "conv2/3x3_reduce"
}
layer {
  name: "conv2/3x3"
  type: "Convolution"
  bottom: "conv2/3x3_reduce"
  top: "conv2/3x3"
  param {
    lr_mult: 1
    decay_mult: 1
  }
  param {
    lr_mult: 2
    decay_mult: 0
  }
  convolution_param {
    num_output: 192
    pad: 1
    kernel_size: 3
    weight_filler {
      type: "xavier"
      std: 0.03
    }
    bias_filler {
      type: "constant"
      value: 0.2
    }
  }
}
layer {
  name: "conv2/relu_3x3"
  type: "ReLU"
  bottom: "conv2/3x3"
  top: "conv2/3x3"
}
layer {
  name: "conv2/norm2"
  type: "LRN"
  bottom: "conv2/3x3"
  top: "conv2/norm2"
  lrn_param {
    local_size: 5
    alpha: 0.0001
    beta: 0.75
  }
}
layer {
  name: "pool2/3x3_s2"
  type: "Pooling"
  bottom: "conv2/norm2"
  top: "pool2/3x3_s2"
  pooling_param {
    pool: MAX
    kernel_size: 3
    stride: 2
  }
}
layer {
  name: "inception_3a/1x1"
  type: "Convolution"
  bottom: "pool2/3x3_s2"
  top: "inception_3a/1x1"
  param {
    lr_mult: 1
    decay_mult: 1
  }
  param {
    lr_mult: 2
    decay_mult: 0
  }
  convolution_param {
    num_output: 64
    kernel_size: 1
    weight_filler {
      type: "xavier"
      std: 0.03
    }
    bias_filler {
      type: "constant"
      value: 0.2
    }
  }
}
layer {
  name: "inception_3a/relu_1x1"
  type: "ReLU"
  bottom: "inception_3a/1x1"
  top: "inception_3a/1x1"
}
layer {
  name: "inception_3a/3x3_reduce"
  type: "Convolution"
  bottom: "pool2/3x3_s2"
  top: "inception_3a/3x3_reduce"
  param {
    lr_mult: 1
    decay_mult: 1
  }
  param {
    lr_mult: 2
    decay_mult: 0
  }
  convolution_param {
    num_output: 96
    kernel_size: 1
    weight_filler {
      type: "xavier"
      std: 0.09
    }
    bias_filler {
      type: "constant"
      value: 0.2
    }
  }
}
layer {
  name: "inception_3a/relu_3x3_reduce"
  type: "ReLU"
  bottom: "inception_3a/3x3_reduce"
  top: "inception_3a/3x3_reduce"
}
layer {
  name: "inception_3a/3x3"
  type: "Convolution"
  bottom: "inception_3a/3x3_reduce"
  top: "inception_3a/3x3"
  param {
    lr_mult: 1
    decay_mult: 1
  }
  param {
    lr_mult: 2
    decay_mult: 0
  }
  convolution_param {
    num_output: 128
    pad: 1
    kernel_size: 3
    weight_filler {
      type: "xavier"
      std: 0.03
    }
    bias_filler {
      type: "constant"
      value: 0.2
    }
  }
}
layer {
  name: "inception_3a/relu_3x3"
  type: "ReLU"
  bottom: "inception_3a/3x3"
  top: "inception_3a/3x3"
}
layer {
  name: "inception_3a/5x5_reduce"
  type: "Convolution"
  bottom: "pool2/3x3_s2"
  top: "inception_3a/5x5_reduce"
  param {
    lr_mult: 1
    decay_mult: 1
  }
  param {
    lr_mult: 2
    decay_mult: 0
  }
  convolution_param {
    num_output: 16
    kernel_size: 1
    weight_filler {
      type: "xavier"
      std: 0.2
    }
    bias_filler {
      type: "constant"
      value: 0.2
    }
  }
}
layer {
  name: "inception_3a/relu_5x5_reduce"
  type: "ReLU"
  bottom: "inception_3a/5x5_reduce"
  top: "inception_3a/5x5_reduce"
}
layer {
  name: "inception_3a/5x5"
  type: "Convolution"
  bottom: "inception_3a/5x5_reduce"
  top: "inception_3a/5x5"
  param {
    lr_mult: 1
    decay_mult: 1
  }
  param {
    lr_mult: 2
    decay_mult: 0
  }
  convolution_param {
    num_output: 32
    pad: 2
    kernel_size: 5
    weight_filler {
      type: "xavier"
      std: 0.03
    }
    bias_filler {
      type: "constant"
      value: 0.2
    }
  }
}
layer {
  name: "inception_3a/relu_5x5"
  type: "ReLU"
  bottom: "inception_3a/5x5"
  top: "inception_3a/5x5"
}
layer {
  name: "inception_3a/pool"
  type: "Pooling"
  bottom: "pool2/3x3_s2"
  top: "inception_3a/pool"
  pooling_param {
    pool: MAX
    kernel_size: 3
    stride: 1
    pad: 1
  }
}
layer {
  name: "inception_3a/pool_proj"
  type: "Convolution"
  bottom: "inception_3a/pool"
  top: "inception_3a/pool_proj"
  param {
    lr_mult: 1
    decay_mult: 1
  }
  param {
    lr_mult: 2
    decay_mult: 0
  }
  convolution_param {
    num_output: 32
    kernel_size: 1
    weight_filler {
      type: "xavier"
      std: 0.1
    }
    bias_filler {
      type: "constant"
      value: 0.2
    }
  }
}
layer {
  name: "inception_3a/relu_pool_proj"
  type: "ReLU"
  bottom: "inception_3a/pool_proj"
  top: "inception_3a/pool_proj"
}
layer {
  name: "inception_3a/output"
  type: "Concat"
  bottom: "inception_3a/1x1"
  bottom: "inception_3a/3x3"
  bottom: "inception_3a/5x5"
  bottom: "inception_3a/pool_proj"
  top: "inception_3a/output"
}
layer {
  name: "inception_3b/1x1"
  type: "Convolution"
  bottom: "inception_3a/output"
  top: "inception_3b/1x1"
  param {
    lr_mult: 1
    decay_mult: 1
  }
  param {
    lr_mult: 2
    decay_mult: 0
  }
  convolution_param {
    num_output: 128
    kernel_size: 1
    weight_filler {
      type: "xavier"
      std: 0.03
    }
    bias_filler {
      type: "constant"
      value: 0.2
    }
  }
}
layer {
  name: "inception_3b/relu_1x1"
  type: "ReLU"
  bottom: "inception_3b/1x1"
  top: "inception_3b/1x1"
}
layer {
  name: "inception_3b/3x3_reduce"
  type: "Convolution"
  bottom: "inception_3a/output"
  top: "inception_3b/3x3_reduce"
  param {
    lr_mult: 1
    decay_mult: 1
  }
  param {
    lr_mult: 2
    decay_mult: 0
  }
  convolution_param {
    num_output: 128
    kernel_size: 1
    weight_filler {
      type: "xavier"
      std: 0.09
    }
    bias_filler {
      type: "constant"
      value: 0.2
    }
  }
}
layer {
  name: "inception_3b/relu_3x3_reduce"
  type: "ReLU"
  bottom: "inception_3b/3x3_reduce"
  top: "inception_3b/3x3_reduce"
}
layer {
  name: "inception_3b/3x3"
  type: "Convolution"
  bottom: "inception_3b/3x3_reduce"
  top: "inception_3b/3x3"
  param {
    lr_mult: 1
    decay_mult: 1
  }
  param {
    lr_mult: 2
    decay_mult: 0
  }
  convolution_param {
    num_output: 192
    pad: 1
    kernel_size: 3
    weight_filler {
      type: "xavier"
      std: 0.03
    }
    bias_filler {
      type: "constant"
      value: 0.2
    }
  }
}
layer {
  name: "inception_3b/relu_3x3"
  type: "ReLU"
  bottom: "inception_3b/3x3"
  top: "inception_3b/3x3"
}
layer {
  name: "inception_3b/5x5_reduce"
  type: "Convolution"
  bottom: "inception_3a/output"
  top: "inception_3b/5x5_reduce"
  param {
    lr_mult: 1
    decay_mult: 1
  }
  param {
    lr_mult: 2
    decay_mult: 0
  }
  convolution_param {
    num_output: 32
    kernel_size: 1
    weight_filler {
      type: "xavier"
      std: 0.2
    }
    bias_filler {
      type: "constant"
      value: 0.2
    }
  }
}
layer {
  name: "inception_3b/relu_5x5_reduce"
  type: "ReLU"
  bottom: "inception_3b/5x5_reduce"
  top: "inception_3b/5x5_reduce"
}
layer {
  name: "inception_3b/5x5"
  type: "Convolution"
  bottom: "inception_3b/5x5_reduce"
  top: "inception_3b/5x5"
  param {
    lr_mult: 1
    decay_mult: 1
  }
  param {
    lr_mult: 2
    decay_mult: 0
  }
  convolution_param {
    num_output: 96
    pad: 2
    kernel_size: 5
    weight_filler {
      type: "xavier"
      std: 0.03
    }
    bias_filler {
      type: "constant"
      value: 0.2
    }
  }
}
layer {
  name: "inception_3b/relu_5x5"
  type: "ReLU"
  bottom: "inception_3b/5x5"
  top: "inception_3b/5x5"
}
layer {
  name: "inception_3b/pool"
  type: "Pooling"
  bottom: "inception_3a/output"
  top: "inception_3b/pool"
  pooling_param {
    pool: MAX
    kernel_size: 3
    stride: 1
    pad: 1
  }
}
layer {
  name: "inception_3b/pool_proj"
  type: "Convolution"
  bottom: "inception_3b/pool"
  top: "inception_3b/pool_proj"
  param {
    lr_mult: 1
    decay_mult: 1
  }
  param {
    lr_mult: 2
    decay_mult: 0
  }
  convolution_param {
    num_output: 64
    kernel_size: 1
    weight_filler {
      type: "xavier"
      std: 0.1
    }
    bias_filler {
      type: "constant"
      value: 0.2
    }
  }
}
layer {
  name: "inception_3b/relu_pool_proj"
  type: "ReLU"
  bottom: "inception_3b/pool_proj"
  top: "inception_3b/pool_proj"
}
layer {
  name: "inception_3b/output"
  type: "Concat"
  bottom: "inception_3b/1x1"
  bottom: "inception_3b/3x3"
  bottom: "inception_3b/5x5"
  bottom: "inception_3b/pool_proj"
  top: "inception_3b/output"
}
layer {
  name: "pool3/3x3_s2"
  type: "Pooling"
  bottom: "inception_3b/output"
  top: "pool3/3x3_s2"
  pooling_param {
    pool: MAX
    kernel_size: 3
    stride: 2
  }
}
layer {
  name: "inception_4a/1x1"
  type: "Convolution"
  bottom: "pool3/3x3_s2"
  top: "inception_4a/1x1"
  param {
    lr_mult: 1
    decay_mult: 1
  }
  param {
    lr_mult: 2
    decay_mult: 0
  }
  convolution_param {
    num_output: 192
    kernel_size: 1
    weight_filler {
      type: "xavier"
      std: 0.03
    }
    bias_filler {
      type: "constant"
      value: 0.2
    }
  }
}
layer {
  name: "inception_4a/relu_1x1"
  type: "ReLU"
  bottom: "inception_4a/1x1"
  top: "inception_4a/1x1"
}
layer {
  name: "inception_4a/3x3_reduce"
  type: "Convolution"
  bottom: "pool3/3x3_s2"
  top: "inception_4a/3x3_reduce"
  param {
    lr_mult: 1
    decay_mult: 1
  }
  param {
    lr_mult: 2
    decay_mult: 0
  }
  convolution_param {
    num_output: 96
    kernel_size: 1
    weight_filler {
      type: "xavier"
      std: 0.09
    }
    bias_filler {
      type: "constant"
      value: 0.2
    }
  }
}
layer {
  name: "inception_4a/relu_3x3_reduce"
  type: "ReLU"
  bottom: "inception_4a/3x3_reduce"
  top: "inception_4a/3x3_reduce"
}
layer {
  name: "inception_4a/3x3"
  type: "Convolution"
  bottom: "inception_4a/3x3_reduce"
  top: "inception_4a/3x3"
  param {
    lr_mult: 1
    decay_mult: 1
  }
  param {
    lr_mult: 2
    decay_mult: 0
  }
  convolution_param {
    num_output: 208
    pad: 1
    kernel_size: 3
    weight_filler {
      type: "xavier"
      std: 0.03
    }
    bias_filler {
      type: "constant"
      value: 0.2
    }
  }
}
layer {
  name: "inception_4a/relu_3x3"
  type: "ReLU"
  bottom: "inception_4a/3x3"
  top: "inception_4a/3x3"
}
layer {
  name: "inception_4a/5x5_reduce"
  type: "Convolution"
  bottom: "pool3/3x3_s2"
  top: "inception_4a/5x5_reduce"
  param {
    lr_mult: 1
    decay_mult: 1
  }
  param {
    lr_mult: 2
    decay_mult: 0
  }
  convolution_param {
    num_output: 16
    kernel_size: 1
    weight_filler {
      type: "xavier"
      std: 0.2
    }
    bias_filler {
      type: "constant"
      value: 0.2
    }
  }
}
layer {
  name: "inception_4a/relu_5x5_reduce"
  type: "ReLU"
  bottom: "inception_4a/5x5_reduce"
  top: "inception_4a/5x5_reduce"
}
layer {
  name: "inception_4a/5x5"
  type: "Convolution"
  bottom: "inception_4a/5x5_reduce"
  top: "inception_4a/5x5"
  param {
    lr_mult: 1
    decay_mult: 1
  }
  param {
    lr_mult: 2
    decay_mult: 0
  }
  convolution_param {
    num_output: 48
    pad: 2
    kernel_size: 5
    weight_filler {
      type: "xavier"
      std: 0.03
    }
    bias_filler {
      type: "constant"
      value: 0.2
    }
  }
}
layer {
  name: "inception_4a/relu_5x5"
  type: "ReLU"
  bottom: "inception_4a/5x5"
  top: "inception_4a/5x5"
}
layer {
  name: "inception_4a/pool"
  type: "Pooling"
  bottom: "pool3/3x3_s2"
  top: "inception_4a/pool"
  pooling_param {
    pool: MAX
    kernel_size: 3
    stride: 1
    pad: 1
  }
}
layer {
  name: "inception_4a/pool_proj"
  type: "Convolution"
  bottom: "inception_4a/pool"
  top: "inception_4a/pool_proj"
  param {
    lr_mult: 1
    decay_mult: 1
  }
  param {
    lr_mult: 2
    decay_mult: 0
  }
  convolution_param {
    num_output: 64
    kernel_size: 1
    weight_filler {
      type: "xavier"
      std: 0.1
    }
    bias_filler {
      type: "constant"
      value: 0.2
    }
  }
}
layer {
  name: "inception_4a/relu_pool_proj"
  type: "ReLU"
  bottom: "inception_4a/pool_proj"
  top: "inception_4a/pool_proj"
}
layer {
  name: "inception_4a/output"
  type: "Concat"
  bottom: "inception_4a/1x1"
  bottom: "inception_4a/3x3"
  bottom: "inception_4a/5x5"
  bottom: "inception_4a/pool_proj"
  top: "inception_4a/output"
}
layer {
  name: "loss1/ave_pool"
  type: "Pooling"
  bottom: "inception_4a/output"
  top: "loss1/ave_pool"
  pooling_param {
    pool: AVE
    kernel_size: 5
    stride: 3
  }
}
layer {
  name: "loss1/conv"
  type: "Convolution"
  bottom: "loss1/ave_pool"
  top: "loss1/conv"
  param {
    lr_mult: 1
    decay_mult: 1
  }
  param {
    lr_mult: 2
    decay_mult: 0
  }
  convolution_param {
    num_output: 128
    kernel_size: 1
    weight_filler {
      type: "xavier"
      std: 0.08
    }
    bias_filler {
      type: "constant"
      value: 0.2
    }
  }
}
layer {
  name: "loss1/relu_conv"
  type: "ReLU"
  bottom: "loss1/conv"
  top: "loss1/conv"
}
layer {
  name: "loss1/fc"
  type: "InnerProduct"
  bottom: "loss1/conv"
  top: "loss1/fc"
  param {
    lr_mult: 1
    decay_mult: 1
  }
  param {
    lr_mult: 2
    decay_mult: 0
  }
  inner_product_param {
    num_output: 1024
    weight_filler {
      type: "xavier"
      std: 0.02
    }
    bias_filler {
      type: "constant"
      value: 0.2
    }
  }
}
layer {
  name: "loss1/relu_fc"
  type: "ReLU"
  bottom: "loss1/fc"
  top: "loss1/fc"
}
layer {
  name: "loss1/drop_fc"
  type: "Dropout"
  bottom: "loss1/fc"
  top: "loss1/fc"
  dropout_param {
    dropout_ratio: 0.7
  }
}
layer {
  name: "loss1/classifier_plantvillage"
  type: "InnerProduct"
  bottom: "loss1/fc"
  top: "loss1/classifier_plantvillage"
  param {
    lr_mult: 1
    decay_mult: 1
  }
  param {
    lr_mult: 2
    decay_mult: 0
  }
  inner_product_param {
    num_output: 38
    weight_filler {
      type: "xavier"
      std: 0.0009765625
    }
    bias_filler {
      type: "constant"
      value: 0
    }
  }
}
layer {
  name: "inception_4b/1x1"
  type: "Convolution"
  bottom: "inception_4a/output"
  top: "inception_4b/1x1"
  param {
    lr_mult: 1
    decay_mult: 1
  }
  param {
    lr_mult: 2
    decay_mult: 0
  }
  convolution_param {
    num_output: 160
    kernel_size: 1
    weight_filler {
      type: "xavier"
      std: 0.03
    }
    bias_filler {
      type: "constant"
      value: 0.2
    }
  }
}
layer {
  name: "inception_4b/relu_1x1"
  type: "ReLU"
  bottom: "inception_4b/1x1"
  top: "inception_4b/1x1"
}
layer {
  name: "inception_4b/3x3_reduce"
  type: "Convolution"
  bottom: "inception_4a/output"
  top: "inception_4b/3x3_reduce"
  param {
    lr_mult: 1
    decay_mult: 1
  }
  param {
    lr_mult: 2
    decay_mult: 0
  }
  convolution_param {
    num_output: 112
    kernel_size: 1
    weight_filler {
      type: "xavier"
      std: 0.09
    }
    bias_filler {
      type: "constant"
      value: 0.2
    }
  }
}
layer {
  name: "inception_4b/relu_3x3_reduce"
  type: "ReLU"
  bottom: "inception_4b/3x3_reduce"
  top: "inception_4b/3x3_reduce"
}
layer {
  name: "inception_4b/3x3"
  type: "Convolution"
  bottom: "inception_4b/3x3_reduce"
  top: "inception_4b/3x3"
  param {
    lr_mult: 1
    decay_mult: 1
  }
  param {
    lr_mult: 2
    decay_mult: 0
  }
  convolution_param {
    num_output: 224
    pad: 1
    kernel_size: 3
    weight_filler {
      type: "xavier"
      std: 0.03
    }
    bias_filler {
      type: "constant"
      value: 0.2
    }
  }
}
layer {
  name: "inception_4b/relu_3x3"
  type: "ReLU"
  bottom: "inception_4b/3x3"
  top: "inception_4b/3x3"
}
layer {
  name: "inception_4b/5x5_reduce"
  type: "Convolution"
  bottom: "inception_4a/output"
  top: "inception_4b/5x5_reduce"
  param {
    lr_mult: 1
    decay_mult: 1
  }
  param {
    lr_mult: 2
    decay_mult: 0
  }
  convolution_param {
    num_output: 24
    kernel_size: 1
    weight_filler {
      type: "xavier"
      std: 0.2
    }
    bias_filler {
      type: "constant"
      value: 0.2
    }
  }
}
layer {
  name: "inception_4b/relu_5x5_reduce"
  type: "ReLU"
  bottom: "inception_4b/5x5_reduce"
  top: "inception_4b/5x5_reduce"
}
layer {
  name: "inception_4b/5x5"
  type: "Convolution"
  bottom: "inception_4b/5x5_reduce"
  top: "inception_4b/5x5"
  param {
    lr_mult: 1
    decay_mult: 1
  }
  param {
    lr_mult: 2
    decay_mult: 0
  }
  convolution_param {
    num_output: 64
    pad: 2
    kernel_size: 5
    weight_filler {
      type: "xavier"
      std: 0.03
    }
    bias_filler {
      type: "constant"
      value: 0.2
    }
  }
}
layer {
  name: "inception_4b/relu_5x5"
  type: "ReLU"
  bottom: "inception_4b/5x5"
  top: "inception_4b/5x5"
}
layer {
  name: "inception_4b/pool"
  type: "Pooling"
  bottom: "inception_4a/output"
  top: "inception_4b/pool"
  pooling_param {
    pool: MAX
    kernel_size: 3
    stride: 1
    pad: 1
  }
}
layer {
  name: "inception_4b/pool_proj"
  type: "Convolution"
  bottom: "inception_4b/pool"
  top: "inception_4b/pool_proj"
  param {
    lr_mult: 1
    decay_mult: 1
  }
  param {
    lr_mult: 2
    decay_mult: 0
  }
  convolution_param {
    num_output: 64
    kernel_size: 1
    weight_filler {
      type: "xavier"
      std: 0.1
    }
    bias_filler {
      type: "constant"
      value: 0.2
    }
  }
}
layer {
  name: "inception_4b/relu_pool_proj"
  type: "ReLU"
  bottom: "inception_4b/pool_proj"
  top: "inception_4b/pool_proj"
}
layer {
  name: "inception_4b/output"
  type: "Concat"
  bottom: "inception_4b/1x1"
  bottom: "inception_4b/3x3"
  bottom: "inception_4b/5x5"
  bottom: "inception_4b/pool_proj"
  top: "inception_4b/output"
}
layer {
  name: "inception_4c/1x1"
  type: "Convolution"
  bottom: "inception_4b/output"
  top: "inception_4c/1x1"
  param {
    lr_mult: 1
    decay_mult: 1
  }
  param {
    lr_mult: 2
    decay_mult: 0
  }
  convolution_param {
    num_output: 128
    kernel_size: 1
    weight_filler {
      type: "xavier"
      std: 0.03
    }
    bias_filler {
      type: "constant"
      value: 0.2
    }
  }
}
layer {
  name: "inception_4c/relu_1x1"
  type: "ReLU"
  bottom: "inception_4c/1x1"
  top: "inception_4c/1x1"
}
layer {
  name: "inception_4c/3x3_reduce"
  type: "Convolution"
  bottom: "inception_4b/output"
  top: "inception_4c/3x3_reduce"
  param {
    lr_mult: 1
    decay_mult: 1
  }
  param {
    lr_mult: 2
    decay_mult: 0
  }
  convolution_param {
    num_output: 128
    kernel_size: 1
    weight_filler {
      type: "xavier"
      std: 0.09
    }
    bias_filler {
      type: "constant"
      value: 0.2
    }
  }
}
layer {
  name: "inception_4c/relu_3x3_reduce"
  type: "ReLU"
  bottom: "inception_4c/3x3_reduce"
  top: "inception_4c/3x3_reduce"
}
layer {
  name: "inception_4c/3x3"
  type: "Convolution"
  bottom: "inception_4c/3x3_reduce"
  top: "inception_4c/3x3"
  param {
    lr_mult: 1
    decay_mult: 1
  }
  param {
    lr_mult: 2
    decay_mult: 0
  }
  convolution_param {
    num_output: 256
    pad: 1
    kernel_size: 3
    weight_filler {
      type: "xavier"
      std: 0.03
    }
    bias_filler {
      type: "constant"
      value: 0.2
    }
  }
}
layer {
  name: "inception_4c/relu_3x3"
  type: "ReLU"
  bottom: "inception_4c/3x3"
  top: "inception_4c/3x3"
}
layer {
  name: "inception_4c/5x5_reduce"
  type: "Convolution"
  bottom: "inception_4b/output"
  top: "inception_4c/5x5_reduce"
  param {
    lr_mult: 1
    decay_mult: 1
  }
  param {
    lr_mult: 2
    decay_mult: 0
  }
  convolution_param {
    num_output: 24
    kernel_size: 1
    weight_filler {
      type: "xavier"
      std: 0.2
    }
    bias_filler {
      type: "constant"
      value: 0.2
    }
  }
}
layer {
  name: "inception_4c/relu_5x5_reduce"
  type: "ReLU"
  bottom: "inception_4c/5x5_reduce"
  top: "inception_4c/5x5_reduce"
}
layer {
  name: "inception_4c/5x5"
  type: "Convolution"
  bottom: "inception_4c/5x5_reduce"
  top: "inception_4c/5x5"
  param {
    lr_mult: 1
    decay_mult: 1
  }
  param {
    lr_mult: 2
    decay_mult: 0
  }
  convolution_param {
    num_output: 64
    pad: 2
    kernel_size: 5
    weight_filler {
      type: "xavier"
      std: 0.03
    }
    bias_filler {
      type: "constant"
      value: 0.2
    }
  }
}
layer {
  name: "inception_4c/relu_5x5"
  type: "ReLU"
  bottom: "inception_4c/5x5"
  top: "inception_4c/5x5"
}
layer {
  name: "inception_4c/pool"
  type: "Pooling"
  bottom: "inception_4b/output"
  top: "inception_4c/pool"
  pooling_param {
    pool: MAX
    kernel_size: 3
    stride: 1
    pad: 1
  }
}
layer {
  name: "inception_4c/pool_proj"
  type: "Convolution"
  bottom: "inception_4c/pool"
  top: "inception_4c/pool_proj"
  param {
    lr_mult: 1
    decay_mult: 1
  }
  param {
    lr_mult: 2
    decay_mult: 0
  }
  convolution_param {
    num_output: 64
    kernel_size: 1
    weight_filler {
      type: "xavier"
      std: 0.1
    }
    bias_filler {
      type: "constant"
      value: 0.2
    }
  }
}
layer {
  name: "inception_4c/relu_pool_proj"
  type: "ReLU"
  bottom: "inception_4c/pool_proj"
  top: "inception_4c/pool_proj"
}
layer {
  name: "inception_4c/output"
  type: "Concat"
  bottom: "inception_4c/1x1"
  bottom: "inception_4c/3x3"
  bottom: "inception_4c/5x5"
  bottom: "inception_4c/pool_proj"
  top: "inception_4c/output"
}
layer {
  name: "inception_4d/1x1"
  type: "Convolution"
  bottom: "inception_4c/output"
  top: "inception_4d/1x1"
  param {
    lr_mult: 1
    decay_mult: 1
  }
  param {
    lr_mult: 2
    decay_mult: 0
  }
  convolution_param {
    num_output: 112
    kernel_size: 1
    weight_filler {
      type: "xavier"
      std: 0.03
    }
    bias_filler {
      type: "constant"
      value: 0.2
    }
  }
}
layer {
  name: "inception_4d/relu_1x1"
  type: "ReLU"
  bottom: "inception_4d/1x1"
  top: "inception_4d/1x1"
}
layer {
  name: "inception_4d/3x3_reduce"
  type: "Convolution"
  bottom: "inception_4c/output"
  top: "inception_4d/3x3_reduce"
  param {
    lr_mult: 1
    decay_mult: 1
  }
  param {
    lr_mult: 2
    decay_mult: 0
  }
  convolution_param {
    num_output: 144
    kernel_size: 1
    weight_filler {
      type: "xavier"
      std: 0.09
    }
    bias_filler {
      type: "constant"
      value: 0.2
    }
  }
}
layer {
  name: "inception_4d/relu_3x3_reduce"
  type: "ReLU"
  bottom: "inception_4d/3x3_reduce"
  top: "inception_4d/3x3_reduce"
}
layer {
  name: "inception_4d/3x3"
  type: "Convolution"
  bottom: "inception_4d/3x3_reduce"
  top: "inception_4d/3x3"
  param {
    lr_mult: 1
    decay_mult: 1
  }
  param {
    lr_mult: 2
    decay_mult: 0
  }
  convolution_param {
    num_output: 288
    pad: 1
    kernel_size: 3
    weight_filler {
      type: "xavier"
      std: 0.03
    }
    bias_filler {
      type: "constant"
      value: 0.2
    }
  }
}
layer {
  name: "inception_4d/relu_3x3"
  type: "ReLU"
  bottom: "inception_4d/3x3"
  top: "inception_4d/3x3"
}
layer {
  name: "inception_4d/5x5_reduce"
  type: "Convolution"
  bottom: "inception_4c/output"
  top: "inception_4d/5x5_reduce"
  param {
    lr_mult: 1
    decay_mult: 1
  }
  param {
    lr_mult: 2
    decay_mult: 0
  }
  convolution_param {
    num_output: 32
    kernel_size: 1
    weight_filler {
      type: "xavier"
      std: 0.2
    }
    bias_filler {
      type: "constant"
      value: 0.2
    }
  }
}
layer {
  name: "inception_4d/relu_5x5_reduce"
  type: "ReLU"
  bottom: "inception_4d/5x5_reduce"
  top: "inception_4d/5x5_reduce"
}
layer {
  name: "inception_4d/5x5"
  type: "Convolution"
  bottom: "inception_4d/5x5_reduce"
  top: "inception_4d/5x5"
  param {
    lr_mult: 1
    decay_mult: 1
  }
  param {
    lr_mult: 2
    decay_mult: 0
  }
  convolution_param {
    num_output: 64
    pad: 2
    kernel_size: 5
    weight_filler {
      type: "xavier"
      std: 0.03
    }
    bias_filler {
      type: "constant"
      value: 0.2
    }
  }
}
layer {
  name: "inception_4d/relu_5x5"
  type: "ReLU"
  bottom: "inception_4d/5x5"
  top: "inception_4d/5x5"
}
layer {
  name: "inception_4d/pool"
  type: "Pooling"
  bottom: "inception_4c/output"
  top: "inception_4d/pool"
  pooling_param {
    pool: MAX
    kernel_size: 3
    stride: 1
    pad: 1
  }
}
layer {
  name: "inception_4d/pool_proj"
  type: "Convolution"
  bottom: "inception_4d/pool"
  top: "inception_4d/pool_proj"
  param {
    lr_mult: 1
    decay_mult: 1
  }
  param {
    lr_mult: 2
    decay_mult: 0
  }
  convolution_param {
    num_output: 64
    kernel_size: 1
    weight_filler {
      type: "xavier"
      std: 0.1
    }
    bias_filler {
      type: "constant"
      value: 0.2
    }
  }
}
layer {
  name: "inception_4d/relu_pool_proj"
  type: "ReLU"
  bottom: "inception_4d/pool_proj"
  top: "inception_4d/pool_proj"
}
layer {
  name: "inception_4d/output"
  type: "Concat"
  bottom: "inception_4d/1x1"
  bottom: "inception_4d/3x3"
  bottom: "inception_4d/5x5"
  bottom: "inception_4d/pool_proj"
  top: "inception_4d/output"
}
layer {
  name: "loss2/ave_pool"
  type: "Pooling"
  bottom: "inception_4d/output"
  top: "loss2/ave_pool"
  pooling_param {
    pool: AVE
    kernel_size: 5
    stride: 3
  }
}
layer {
  name: "loss2/conv"
  type: "Convolution"
  bottom: "loss2/ave_pool"
  top: "loss2/conv"
  param {
    lr_mult: 1
    decay_mult: 1
  }
  param {
    lr_mult: 2
    decay_mult: 0
  }
  convolution_param {
    num_output: 128
    kernel_size: 1
    weight_filler {
      type: "xavier"
      std: 0.08
    }
    bias_filler {
      type: "constant"
      value: 0.2
    }
  }
}
layer {
  name: "loss2/relu_conv"
  type: "ReLU"
  bottom: "loss2/conv"
  top: "loss2/conv"
}
layer {
  name: "loss2/fc"
  type: "InnerProduct"
  bottom: "loss2/conv"
  top: "loss2/fc"
  param {
    lr_mult: 1
    decay_mult: 1
  }
  param {
    lr_mult: 2
    decay_mult: 0
  }
  inner_product_param {
    num_output: 1024
    weight_filler {
      type: "xavier"
      std: 0.02
    }
    bias_filler {
      type: "constant"
      value: 0.2
    }
  }
}
layer {
  name: "loss2/relu_fc"
  type: "ReLU"
  bottom: "loss2/fc"
  top: "loss2/fc"
}
layer {
  name: "loss2/drop_fc"
  type: "Dropout"
  bottom: "loss2/fc"
  top: "loss2/fc"
  dropout_param {
    dropout_ratio: 0.7
  }
}
layer {
  name: "loss2/classifier_plantvillage"
  type: "InnerProduct"
  bottom: "loss2/fc"
  top: "loss2/classifier_plantvillage"
  param {
    lr_mult: 1
    decay_mult: 1
  }
  param {
    lr_mult: 2
    decay_mult: 0
  }
  inner_product_param {
    num_output: 38
    weight_filler {
      type: "xavier"
      std: 0.0009765625
    }
    bias_filler {
      type: "constant"
      value: 0
    }
  }
}
layer {
  name: "inception_4e/1x1"
  type: "Convolution"
  bottom: "inception_4d/output"
  top: "inception_4e/1x1"
  param {
    lr_mult: 1
    decay_mult: 1
  }
  param {
    lr_mult: 2
    decay_mult: 0
  }
  convolution_param {
    num_output: 256
    kernel_size: 1
    weight_filler {
      type: "xavier"
      std: 0.03
    }
    bias_filler {
      type: "constant"
      value: 0.2
    }
  }
}
layer {
  name: "inception_4e/relu_1x1"
  type: "ReLU"
  bottom: "inception_4e/1x1"
  top: "inception_4e/1x1"
}
layer {
  name: "inception_4e/3x3_reduce"
  type: "Convolution"
  bottom: "inception_4d/output"
  top: "inception_4e/3x3_reduce"
  param {
    lr_mult: 1
    decay_mult: 1
  }
  param {
    lr_mult: 2
    decay_mult: 0
  }
  convolution_param {
    num_output: 160
    kernel_size: 1
    weight_filler {
      type: "xavier"
      std: 0.09
    }
    bias_filler {
      type: "constant"
      value: 0.2
    }
  }
}
layer {
  name: "inception_4e/relu_3x3_reduce"
  type: "ReLU"
  bottom: "inception_4e/3x3_reduce"
  top: "inception_4e/3x3_reduce"
}
layer {
  name: "inception_4e/3x3"
  type: "Convolution"
  bottom: "inception_4e/3x3_reduce"
  top: "inception_4e/3x3"
  param {
    lr_mult: 1
    decay_mult: 1
  }
  param {
    lr_mult: 2
    decay_mult: 0
  }
  convolution_param {
    num_output: 320
    pad: 1
    kernel_size: 3
    weight_filler {
      type: "xavier"
      std: 0.03
    }
    bias_filler {
      type: "constant"
      value: 0.2
    }
  }
}
layer {
  name: "inception_4e/relu_3x3"
  type: "ReLU"
  bottom: "inception_4e/3x3"
  top: "inception_4e/3x3"
}
layer {
  name: "inception_4e/5x5_reduce"
  type: "Convolution"
  bottom: "inception_4d/output"
  top: "inception_4e/5x5_reduce"
  param {
    lr_mult: 1
    decay_mult: 1
  }
  param {
    lr_mult: 2
    decay_mult: 0
  }
  convolution_param {
    num_output: 32
    kernel_size: 1
    weight_filler {
      type: "xavier"
      std: 0.2
    }
    bias_filler {
      type: "constant"
      value: 0.2
    }
  }
}
layer {
  name: "inception_4e/relu_5x5_reduce"
  type: "ReLU"
  bottom: "inception_4e/5x5_reduce"
  top: "inception_4e/5x5_reduce"
}
layer {
  name: "inception_4e/5x5"
  type: "Convolution"
  bottom: "inception_4e/5x5_reduce"
  top: "inception_4e/
I0403 15:06:38.469794 11606 layer_factory.hpp:77] Creating layer data
I0403 15:06:38.470427 11606 net.cpp:91] Creating Layer data
I0403 15:06:38.470458 11606 net.cpp:399] data -> data
I0403 15:06:38.470509 11606 net.cpp:399] data -> label
I0403 15:06:38.470548 11606 data_transformer.cpp:25] Loading mean file from: /home/mohanty/data/final_dataset/lmdb/segmented-50-50/mean.binaryproto
I0403 15:06:38.473239 11608 db_lmdb.cpp:38] Opened lmdb /home/mohanty/data/final_dataset/lmdb/segmented-50-50/test_db
I0403 15:06:38.483767 11606 data_layer.cpp:41] output data size: 24,3,224,224
I0403 15:06:38.512377 11606 net.cpp:141] Setting up data
I0403 15:06:38.512454 11606 net.cpp:148] Top shape: 24 3 224 224 (3612672)
I0403 15:06:38.512478 11606 net.cpp:148] Top shape: 24 (24)
I0403 15:06:38.512496 11606 net.cpp:156] Memory required for data: 14450784
I0403 15:06:38.512526 11606 layer_factory.hpp:77] Creating layer label_data_1_split
I0403 15:06:38.512552 11606 net.cpp:91] Creating Layer label_data_1_split
I0403 15:06:38.512572 11606 net.cpp:425] label_data_1_split <- label
I0403 15:06:38.512605 11606 net.cpp:399] label_data_1_split -> label_data_1_split_0
I0403 15:06:38.512634 11606 net.cpp:399] label_data_1_split -> label_data_1_split_1
I0403 15:06:38.512656 11606 net.cpp:399] label_data_1_split -> label_data_1_split_2
I0403 15:06:38.512678 11606 net.cpp:399] label_data_1_split -> label_data_1_split_3
I0403 15:06:38.512699 11606 net.cpp:399] label_data_1_split -> label_data_1_split_4
I0403 15:06:38.512722 11606 net.cpp:399] label_data_1_split -> label_data_1_split_5
I0403 15:06:38.512742 11606 net.cpp:399] label_data_1_split -> label_data_1_split_6
I0403 15:06:38.512764 11606 net.cpp:399] label_data_1_split -> label_data_1_split_7
I0403 15:06:38.512785 11606 net.cpp:399] label_data_1_split -> label_data_1_split_8
I0403 15:06:38.512806 11606 net.cpp:399] label_data_1_split -> label_data_1_split_9
I0403 15:06:38.512925 11606 net.cpp:141] Setting up label_data_1_split
I0403 15:06:38.512950 11606 net.cpp:148] Top shape: 24 (24)
I0403 15:06:38.512967 11606 net.cpp:148] Top shape: 24 (24)
I0403 15:06:38.512984 11606 net.cpp:148] Top shape: 24 (24)
I0403 15:06:38.513000 11606 net.cpp:148] Top shape: 24 (24)
I0403 15:06:38.513015 11606 net.cpp:148] Top shape: 24 (24)
I0403 15:06:38.513031 11606 net.cpp:148] Top shape: 24 (24)
I0403 15:06:38.513046 11606 net.cpp:148] Top shape: 24 (24)
I0403 15:06:38.513062 11606 net.cpp:148] Top shape: 24 (24)
I0403 15:06:38.513077 11606 net.cpp:148] Top shape: 24 (24)
I0403 15:06:38.513093 11606 net.cpp:148] Top shape: 24 (24)
I0403 15:06:38.513139 11606 net.cpp:156] Memory required for data: 14451744
I0403 15:06:38.513154 11606 layer_factory.hpp:77] Creating layer conv1/7x7_s2
I0403 15:06:38.513186 11606 net.cpp:91] Creating Layer conv1/7x7_s2
I0403 15:06:38.513206 11606 net.cpp:425] conv1/7x7_s2 <- data
I0403 15:06:38.513226 11606 net.cpp:399] conv1/7x7_s2 -> conv1/7x7_s2
I0403 15:06:38.657980 11606 net.cpp:141] Setting up conv1/7x7_s2
I0403 15:06:38.658064 11606 net.cpp:148] Top shape: 24 64 112 112 (19267584)
I0403 15:06:38.658083 11606 net.cpp:156] Memory required for data: 91522080
I0403 15:06:38.658116 11606 layer_factory.hpp:77] Creating layer conv1/relu_7x7
I0403 15:06:38.658145 11606 net.cpp:91] Creating Layer conv1/relu_7x7
I0403 15:06:38.658164 11606 net.cpp:425] conv1/relu_7x7 <- conv1/7x7_s2
I0403 15:06:38.658185 11606 net.cpp:386] conv1/relu_7x7 -> conv1/7x7_s2 (in-place)
I0403 15:06:38.658452 11606 net.cpp:141] Setting up conv1/relu_7x7
I0403 15:06:38.658481 11606 net.cpp:148] Top shape: 24 64 112 112 (19267584)
I0403 15:06:38.658526 11606 net.cpp:156] Memory required for data: 168592416
I0403 15:06:38.658565 11606 layer_factory.hpp:77] Creating layer pool1/3x3_s2
I0403 15:06:38.658628 11606 net.cpp:91] Creating Layer pool1/3x3_s2
I0403 15:06:38.658648 11606 net.cpp:425] pool1/3x3_s2 <- conv1/7x7_s2
I0403 15:06:38.658668 11606 net.cpp:399] pool1/3x3_s2 -> pool1/3x3_s2
I0403 15:06:38.658742 11606 net.cpp:141] Setting up pool1/3x3_s2
I0403 15:06:38.658768 11606 net.cpp:148] Top shape: 24 64 56 56 (4816896)
I0403 15:06:38.658784 11606 net.cpp:156] Memory required for data: 187860000
I0403 15:06:38.658800 11606 layer_factory.hpp:77] Creating layer pool1/norm1
I0403 15:06:38.658824 11606 net.cpp:91] Creating Layer pool1/norm1
I0403 15:06:38.658843 11606 net.cpp:425] pool1/norm1 <- pool1/3x3_s2
I0403 15:06:38.658861 11606 net.cpp:399] pool1/norm1 -> pool1/norm1
I0403 15:06:38.659155 11606 net.cpp:141] Setting up pool1/norm1
I0403 15:06:38.659183 11606 net.cpp:148] Top shape: 24 64 56 56 (4816896)
I0403 15:06:38.659200 11606 net.cpp:156] Memory required for data: 207127584
I0403 15:06:38.659216 11606 layer_factory.hpp:77] Creating layer conv2/3x3_reduce
I0403 15:06:38.659240 11606 net.cpp:91] Creating Layer conv2/3x3_reduce
I0403 15:06:38.659258 11606 net.cpp:425] conv2/3x3_reduce <- pool1/norm1
I0403 15:06:38.659277 11606 net.cpp:399] conv2/3x3_reduce -> conv2/3x3_reduce
I0403 15:06:38.660655 11606 net.cpp:141] Setting up conv2/3x3_reduce
I0403 15:06:38.660684 11606 net.cpp:148] Top shape: 24 64 56 56 (4816896)
I0403 15:06:38.660701 11606 net.cpp:156] Memory required for data: 226395168
I0403 15:06:38.660722 11606 layer_factory.hpp:77] Creating layer conv2/relu_3x3_reduce
I0403 15:06:38.660742 11606 net.cpp:91] Creating Layer conv2/relu_3x3_reduce
I0403 15:06:38.660759 11606 net.cpp:425] conv2/relu_3x3_reduce <- conv2/3x3_reduce
I0403 15:06:38.660776 11606 net.cpp:386] conv2/relu_3x3_reduce -> conv2/3x3_reduce (in-place)
I0403 15:06:38.661041 11606 net.cpp:141] Setting up conv2/relu_3x3_reduce
I0403 15:06:38.661068 11606 net.cpp:148] Top shape: 24 64 56 56 (4816896)
I0403 15:06:38.661083 11606 net.cpp:156] Memory required for data: 245662752
I0403 15:06:38.661099 11606 layer_factory.hpp:77] Creating layer conv2/3x3
I0403 15:06:38.661121 11606 net.cpp:91] Creating Layer conv2/3x3
I0403 15:06:38.661139 11606 net.cpp:425] conv2/3x3 <- conv2/3x3_reduce
I0403 15:06:38.661159 11606 net.cpp:399] conv2/3x3 -> conv2/3x3
I0403 15:06:38.663537 11606 net.cpp:141] Setting up conv2/3x3
I0403 15:06:38.663569 11606 net.cpp:148] Top shape: 24 192 56 56 (14450688)
I0403 15:06:38.663585 11606 net.cpp:156] Memory required for data: 303465504
I0403 15:06:38.663609 11606 layer_factory.hpp:77] Creating layer conv2/relu_3x3
I0403 15:06:38.663632 11606 net.cpp:91] Creating Layer conv2/relu_3x3
I0403 15:06:38.663650 11606 net.cpp:425] conv2/relu_3x3 <- conv2/3x3
I0403 15:06:38.663668 11606 net.cpp:386] conv2/relu_3x3 -> conv2/3x3 (in-place)
I0403 15:06:38.663856 11606 net.cpp:141] Setting up conv2/relu_3x3
I0403 15:06:38.663935 11606 net.cpp:148] Top shape: 24 192 56 56 (14450688)
I0403 15:06:38.664031 11606 net.cpp:156] Memory required for data: 361268256
I0403 15:06:38.664049 11606 layer_factory.hpp:77] Creating layer conv2/norm2
I0403 15:06:38.664072 11606 net.cpp:91] Creating Layer conv2/norm2
I0403 15:06:38.664090 11606 net.cpp:425] conv2/norm2 <- conv2/3x3
I0403 15:06:38.664110 11606 net.cpp:399] conv2/norm2 -> conv2/norm2
I0403 15:06:38.664448 11606 net.cpp:141] Setting up conv2/norm2
I0403 15:06:38.664479 11606 net.cpp:148] Top shape: 24 192 56 56 (14450688)
I0403 15:06:38.664495 11606 net.cpp:156] Memory required for data: 419071008
I0403 15:06:38.664510 11606 layer_factory.hpp:77] Creating layer pool2/3x3_s2
I0403 15:06:38.664530 11606 net.cpp:91] Creating Layer pool2/3x3_s2
I0403 15:06:38.664546 11606 net.cpp:425] pool2/3x3_s2 <- conv2/norm2
I0403 15:06:38.664566 11606 net.cpp:399] pool2/3x3_s2 -> pool2/3x3_s2
I0403 15:06:38.664621 11606 net.cpp:141] Setting up pool2/3x3_s2
I0403 15:06:38.664649 11606 net.cpp:148] Top shape: 24 192 28 28 (3612672)
I0403 15:06:38.664665 11606 net.cpp:156] Memory required for data: 433521696
I0403 15:06:38.664680 11606 layer_factory.hpp:77] Creating layer pool2/3x3_s2_pool2/3x3_s2_0_split
I0403 15:06:38.664698 11606 net.cpp:91] Creating Layer pool2/3x3_s2_pool2/3x3_s2_0_split
I0403 15:06:38.664715 11606 net.cpp:425] pool2/3x3_s2_pool2/3x3_s2_0_split <- pool2/3x3_s2
I0403 15:06:38.664731 11606 net.cpp:399] pool2/3x3_s2_pool2/3x3_s2_0_split -> pool2/3x3_s2_pool2/3x3_s2_0_split_0
I0403 15:06:38.664752 11606 net.cpp:399] pool2/3x3_s2_pool2/3x3_s2_0_split -> pool2/3x3_s2_pool2/3x3_s2_0_split_1
I0403 15:06:38.664774 11606 net.cpp:399] pool2/3x3_s2_pool2/3x3_s2_0_split -> pool2/3x3_s2_pool2/3x3_s2_0_split_2
I0403 15:06:38.664796 11606 net.cpp:399] pool2/3x3_s2_pool2/3x3_s2_0_split -> pool2/3x3_s2_pool2/3x3_s2_0_split_3
I0403 15:06:38.664870 11606 net.cpp:141] Setting up pool2/3x3_s2_pool2/3x3_s2_0_split
I0403 15:06:38.664894 11606 net.cpp:148] Top shape: 24 192 28 28 (3612672)
I0403 15:06:38.664911 11606 net.cpp:148] Top shape: 24 192 28 28 (3612672)
I0403 15:06:38.664928 11606 net.cpp:148] Top shape: 24 192 28 28 (3612672)
I0403 15:06:38.664944 11606 net.cpp:148] Top shape: 24 192 28 28 (3612672)
I0403 15:06:38.664958 11606 net.cpp:156] Memory required for data: 491324448
I0403 15:06:38.664974 11606 layer_factory.hpp:77] Creating layer inception_3a/1x1
I0403 15:06:38.664997 11606 net.cpp:91] Creating Layer inception_3a/1x1
I0403 15:06:38.665016 11606 net.cpp:425] inception_3a/1x1 <- pool2/3x3_s2_pool2/3x3_s2_0_split_0
I0403 15:06:38.665038 11606 net.cpp:399] inception_3a/1x1 -> inception_3a/1x1
I0403 15:06:38.666647 11606 net.cpp:141] Setting up inception_3a/1x1
I0403 15:06:38.666678 11606 net.cpp:148] Top shape: 24 64 28 28 (1204224)
I0403 15:06:38.666693 11606 net.cpp:156] Memory required for data: 496141344
I0403 15:06:38.666712 11606 layer_factory.hpp:77] Creating layer inception_3a/relu_1x1
I0403 15:06:38.666729 11606 net.cpp:91] Creating Layer inception_3a/relu_1x1
I0403 15:06:38.666746 11606 net.cpp:425] inception_3a/relu_1x1 <- inception_3a/1x1
I0403 15:06:38.666765 11606 net.cpp:386] inception_3a/relu_1x1 -> inception_3a/1x1 (in-place)
I0403 15:06:38.666944 11606 net.cpp:141] Setting up inception_3a/relu_1x1
I0403 15:06:38.666970 11606 net.cpp:148] Top shape: 24 64 28 28 (1204224)
I0403 15:06:38.666985 11606 net.cpp:156] Memory required for data: 500958240
I0403 15:06:38.666998 11606 layer_factory.hpp:77] Creating layer inception_3a/3x3_reduce
I0403 15:06:38.667021 11606 net.cpp:91] Creating Layer inception_3a/3x3_reduce
I0403 15:06:38.667038 11606 net.cpp:425] inception_3a/3x3_reduce <- pool2/3x3_s2_pool2/3x3_s2_0_split_1
I0403 15:06:38.667059 11606 net.cpp:399] inception_3a/3x3_reduce -> inception_3a/3x3_reduce
I0403 15:06:38.668771 11606 net.cpp:141] Setting up inception_3a/3x3_reduce
I0403 15:06:38.668800 11606 net.cpp:148] Top shape: 24 96 28 28 (1806336)
I0403 15:06:38.668817 11606 net.cpp:156] Memory required for data: 508183584
I0403 15:06:38.668838 11606 layer_factory.hpp:77] Creating layer inception_3a/relu_3x3_reduce
I0403 15:06:38.668876 11606 net.cpp:91] Creating Layer inception_3a/relu_3x3_reduce
I0403 15:06:38.668895 11606 net.cpp:425] inception_3a/relu_3x3_reduce <- inception_3a/3x3_reduce
I0403 15:06:38.668913 11606 net.cpp:386] inception_3a/relu_3x3_reduce -> inception_3a/3x3_reduce (in-place)
I0403 15:06:38.669097 11606 net.cpp:141] Setting up inception_3a/relu_3x3_reduce
I0403 15:06:38.669126 11606 net.cpp:148] Top shape: 24 96 28 28 (1806336)
I0403 15:06:38.669142 11606 net.cpp:156] Memory required for data: 515408928
I0403 15:06:38.669157 11606 layer_factory.hpp:77] Creating layer inception_3a/3x3
I0403 15:06:38.669181 11606 net.cpp:91] Creating Layer inception_3a/3x3
I0403 15:06:38.669200 11606 net.cpp:425] inception_3a/3x3 <- inception_3a/3x3_reduce
I0403 15:06:38.669219 11606 net.cpp:399] inception_3a/3x3 -> inception_3a/3x3
I0403 15:06:38.670912 11606 net.cpp:141] Setting up inception_3a/3x3
I0403 15:06:38.670979 11606 net.cpp:148] Top shape: 24 128 28 28 (2408448)
I0403 15:06:38.671021 11606 net.cpp:156] Memory required for data: 525042720
I0403 15:06:38.671066 11606 layer_factory.hpp:77] Creating layer inception_3a/relu_3x3
I0403 15:06:38.671087 11606 net.cpp:91] Creating Layer inception_3a/relu_3x3
I0403 15:06:38.671103 11606 net.cpp:425] inception_3a/relu_3x3 <- inception_3a/3x3
I0403 15:06:38.671121 11606 net.cpp:386] inception_3a/relu_3x3 -> inception_3a/3x3 (in-place)
I0403 15:06:38.671401 11606 net.cpp:141] Setting up inception_3a/relu_3x3
I0403 15:06:38.671427 11606 net.cpp:148] Top shape: 24 128 28 28 (2408448)
I0403 15:06:38.671442 11606 net.cpp:156] Memory required for data: 534676512
I0403 15:06:38.671458 11606 layer_factory.hpp:77] Creating layer inception_3a/5x5_reduce
I0403 15:06:38.671480 11606 net.cpp:91] Creating Layer inception_3a/5x5_reduce
I0403 15:06:38.671497 11606 net.cpp:425] inception_3a/5x5_reduce <- pool2/3x3_s2_pool2/3x3_s2_0_split_2
I0403 15:06:38.671519 11606 net.cpp:399] inception_3a/5x5_reduce -> inception_3a/5x5_reduce
I0403 15:06:38.672487 11606 net.cpp:141] Setting up inception_3a/5x5_reduce
I0403 15:06:38.672516 11606 net.cpp:148] Top shape: 24 16 28 28 (301056)
I0403 15:06:38.672533 11606 net.cpp:156] Memory required for data: 535880736
I0403 15:06:38.672554 11606 layer_factory.hpp:77] Creating layer inception_3a/relu_5x5_reduce
I0403 15:06:38.672579 11606 net.cpp:91] Creating Layer inception_3a/relu_5x5_reduce
I0403 15:06:38.672595 11606 net.cpp:425] inception_3a/relu_5x5_reduce <- inception_3a/5x5_reduce
I0403 15:06:38.672613 11606 net.cpp:386] inception_3a/relu_5x5_reduce -> inception_3a/5x5_reduce (in-place)
I0403 15:06:38.672920 11606 net.cpp:141] Setting up inception_3a/relu_5x5_reduce
I0403 15:06:38.672951 11606 net.cpp:148] Top shape: 24 16 28 28 (301056)
I0403 15:06:38.672969 11606 net.cpp:156] Memory required for data: 537084960
I0403 15:06:38.672986 11606 layer_factory.hpp:77] Creating layer inception_3a/5x5
I0403 15:06:38.673012 11606 net.cpp:91] Creating Layer inception_3a/5x5
I0403 15:06:38.673040 11606 net.cpp:425] inception_3a/5x5 <- inception_3a/5x5_reduce
I0403 15:06:38.673069 11606 net.cpp:399] inception_3a/5x5 -> inception_3a/5x5
I0403 15:06:38.674104 11606 net.cpp:141] Setting up inception_3a/5x5
I0403 15:06:38.674132 11606 net.cpp:148] Top shape: 24 32 28 28 (602112)
I0403 15:06:38.674149 11606 net.cpp:156] Memory required for data: 539493408
I0403 15:06:38.674166 11606 layer_factory.hpp:77] Creating layer inception_3a/relu_5x5
I0403 15:06:38.674185 11606 net.cpp:91] Creating Layer inception_3a/relu_5x5
I0403 15:06:38.674201 11606 net.cpp:425] inception_3a/relu_5x5 <- inception_3a/5x5
I0403 15:06:38.674221 11606 net.cpp:386] inception_3a/relu_5x5 -> inception_3a/5x5 (in-place)
I0403 15:06:38.674401 11606 net.cpp:141] Setting up inception_3a/relu_5x5
I0403 15:06:38.674427 11606 net.cpp:148] Top shape: 24 32 28 28 (602112)
I0403 15:06:38.674442 11606 net.cpp:156] Memory required for data: 541901856
I0403 15:06:38.674456 11606 layer_factory.hpp:77] Creating layer inception_3a/pool
I0403 15:06:38.674476 11606 net.cpp:91] Creating Layer inception_3a/pool
I0403 15:06:38.674506 11606 net.cpp:425] inception_3a/pool <- pool2/3x3_s2_pool2/3x3_s2_0_split_3
I0403 15:06:38.674526 11606 net.cpp:399] inception_3a/pool -> inception_3a/pool
I0403 15:06:38.674584 11606 net.cpp:141] Setting up inception_3a/pool
I0403 15:06:38.674608 11606 net.cpp:148] Top shape: 24 192 28 28 (3612672)
I0403 15:06:38.674623 11606 net.cpp:156] Memory required for data: 556352544
I0403 15:06:38.674638 11606 layer_factory.hpp:77] Creating layer inception_3a/pool_proj
I0403 15:06:38.674659 11606 net.cpp:91] Creating Layer inception_3a/pool_proj
I0403 15:06:38.674676 11606 net.cpp:425] inception_3a/pool_proj <- inception_3a/pool
I0403 15:06:38.674698 11606 net.cpp:399] inception_3a/pool_proj -> inception_3a/pool_proj
I0403 15:06:38.675676 11606 net.cpp:141] Setting up inception_3a/pool_proj
I0403 15:06:38.675707 11606 net.cpp:148] Top shape: 24 32 28 28 (602112)
I0403 15:06:38.675725 11606 net.cpp:156] Memory required for data: 558760992
I0403 15:06:38.675747 11606 layer_factory.hpp:77] Creating layer inception_3a/relu_pool_proj
I0403 15:06:38.675768 11606 net.cpp:91] Creating Layer inception_3a/relu_pool_proj
I0403 15:06:38.675786 11606 net.cpp:425] inception_3a/relu_pool_proj <- inception_3a/pool_proj
I0403 15:06:38.675803 11606 net.cpp:386] inception_3a/relu_pool_proj -> inception_3a/pool_proj (in-place)
I0403 15:06:38.676084 11606 net.cpp:141] Setting up inception_3a/relu_pool_proj
I0403 15:06:38.676110 11606 net.cpp:148] Top shape: 24 32 28 28 (602112)
I0403 15:06:38.676126 11606 net.cpp:156] Memory required for data: 561169440
I0403 15:06:38.676141 11606 layer_factory.hpp:77] Creating layer inception_3a/output
I0403 15:06:38.676158 11606 net.cpp:91] Creating Layer inception_3a/output
I0403 15:06:38.676174 11606 net.cpp:425] inception_3a/output <- inception_3a/1x1
I0403 15:06:38.676192 11606 net.cpp:425] inception_3a/output <- inception_3a/3x3
I0403 15:06:38.676208 11606 net.cpp:425] inception_3a/output <- inception_3a/5x5
I0403 15:06:38.676223 11606 net.cpp:425] inception_3a/output <- inception_3a/pool_proj
I0403 15:06:38.676242 11606 net.cpp:399] inception_3a/output -> inception_3a/output
I0403 15:06:38.676292 11606 net.cpp:141] Setting up inception_3a/output
I0403 15:06:38.676316 11606 net.cpp:148] Top shape: 24 256 28 28 (4816896)
I0403 15:06:38.676331 11606 net.cpp:156] Memory required for data: 580437024
I0403 15:06:38.676345 11606 layer_factory.hpp:77] Creating layer inception_3a/output_inception_3a/output_0_split
I0403 15:06:38.676362 11606 net.cpp:91] Creating Layer inception_3a/output_inception_3a/output_0_split
I0403 15:06:38.676378 11606 net.cpp:425] inception_3a/output_inception_3a/output_0_split <- inception_3a/output
I0403 15:06:38.676403 11606 net.cpp:399] inception_3a/output_inception_3a/output_0_split -> inception_3a/output_inception_3a/output_0_split_0
I0403 15:06:38.676424 11606 net.cpp:399] inception_3a/output_inception_3a/output_0_split -> inception_3a/output_inception_3a/output_0_split_1
I0403 15:06:38.676446 11606 net.cpp:399] inception_3a/output_inception_3a/output_0_split -> inception_3a/output_inception_3a/output_0_split_2
I0403 15:06:38.676466 11606 net.cpp:399] inception_3a/output_inception_3a/output_0_split -> inception_3a/output_inception_3a/output_0_split_3
I0403 15:06:38.676548 11606 net.cpp:141] Setting up inception_3a/output_inception_3a/output_0_split
I0403 15:06:38.676570 11606 net.cpp:148] Top shape: 24 256 28 28 (4816896)
I0403 15:06:38.676586 11606 net.cpp:148] Top shape: 24 256 28 28 (4816896)
I0403 15:06:38.676602 11606 net.cpp:148] Top shape: 24 256 28 28 (4816896)
I0403 15:06:38.676617 11606 net.cpp:148] Top shape: 24 256 28 28 (4816896)
I0403 15:06:38.676631 11606 net.cpp:156] Memory required for data: 657507360
I0403 15:06:38.676645 11606 layer_factory.hpp:77] Creating layer inception_3b/1x1
I0403 15:06:38.676668 11606 net.cpp:91] Creating Layer inception_3b/1x1
I0403 15:06:38.676687 11606 net.cpp:425] inception_3b/1x1 <- inception_3a/output_inception_3a/output_0_split_0
I0403 15:06:38.676708 11606 net.cpp:399] inception_3b/1x1 -> inception_3b/1x1
I0403 15:06:38.677912 11606 net.cpp:141] Setting up inception_3b/1x1
I0403 15:06:38.677954 11606 net.cpp:148] Top shape: 24 128 28 28 (2408448)
I0403 15:06:38.677973 11606 net.cpp:156] Memory required for data: 667141152
I0403 15:06:38.677990 11606 layer_factory.hpp:77] Creating layer inception_3b/relu_1x1
I0403 15:06:38.678009 11606 net.cpp:91] Creating Layer inception_3b/relu_1x1
I0403 15:06:38.678025 11606 net.cpp:425] inception_3b/relu_1x1 <- inception_3b/1x1
I0403 15:06:38.678045 11606 net.cpp:386] inception_3b/relu_1x1 -> inception_3b/1x1 (in-place)
I0403 15:06:38.678223 11606 net.cpp:141] Setting up inception_3b/relu_1x1
I0403 15:06:38.678249 11606 net.cpp:148] Top shape: 24 128 28 28 (2408448)
I0403 15:06:38.678264 11606 net.cpp:156] Memory required for data: 676774944
I0403 15:06:38.678279 11606 layer_factory.hpp:77] Creating layer inception_3b/3x3_reduce
I0403 15:06:38.678302 11606 net.cpp:91] Creating Layer inception_3b/3x3_reduce
I0403 15:06:38.678318 11606 net.cpp:425] inception_3b/3x3_reduce <- inception_3a/output_inception_3a/output_0_split_1
I0403 15:06:38.678340 11606 net.cpp:399] inception_3b/3x3_reduce -> inception_3b/3x3_reduce
I0403 15:06:38.679508 11606 net.cpp:141] Setting up inception_3b/3x3_reduce
I0403 15:06:38.679536 11606 net.cpp:148] Top shape: 24 128 28 28 (2408448)
I0403 15:06:38.679551 11606 net.cpp:156] Memory required for data: 686408736
I0403 15:06:38.679569 11606 layer_factory.hpp:77] Creating layer inception_3b/relu_3x3_reduce
I0403 15:06:38.679589 11606 net.cpp:91] Creating Layer inception_3b/relu_3x3_reduce
I0403 15:06:38.679603 11606 net.cpp:425] inception_3b/relu_3x3_reduce <- inception_3b/3x3_reduce
I0403 15:06:38.679622 11606 net.cpp:386] inception_3b/relu_3x3_reduce -> inception_3b/3x3_reduce (in-place)
I0403 15:06:38.679798 11606 net.cpp:141] Setting up inception_3b/relu_3x3_reduce
I0403 15:06:38.679824 11606 net.cpp:148] Top shape: 24 128 28 28 (2408448)
I0403 15:06:38.679839 11606 net.cpp:156] Memory required for data: 696042528
I0403 15:06:38.679854 11606 layer_factory.hpp:77] Creating layer inception_3b/3x3
I0403 15:06:38.679880 11606 net.cpp:91] Creating Layer inception_3b/3x3
I0403 15:06:38.679898 11606 net.cpp:425] inception_3b/3x3 <- inception_3b/3x3_reduce
I0403 15:06:38.679918 11606 net.cpp:399] inception_3b/3x3 -> inception_3b/3x3
I0403 15:06:38.682888 11606 net.cpp:141] Setting up inception_3b/3x3
I0403 15:06:38.682919 11606 net.cpp:148] Top shape: 24 192 28 28 (3612672)
I0403 15:06:38.682934 11606 net.cpp:156] Memory required for data: 710493216
I0403 15:06:38.682952 11606 layer_factory.hpp:77] Creating layer inception_3b/relu_3x3
I0403 15:06:38.682973 11606 net.cpp:91] Creating Layer inception_3b/relu_3x3
I0403 15:06:38.682989 11606 net.cpp:425] inception_3b/relu_3x3 <- inception_3b/3x3
I0403 15:06:38.683007 11606 net.cpp:386] inception_3b/relu_3x3 -> inception_3b/3x3 (in-place)
I0403 15:06:38.683285 11606 net.cpp:141] Setting up inception_3b/relu_3x3
I0403 15:06:38.683312 11606 net.cpp:148] Top shape: 24 192 28 28 (3612672)
I0403 15:06:38.683341 11606 net.cpp:156] Memory required for data: 724943904
I0403 15:06:38.683357 11606 layer_factory.hpp:77] Creating layer inception_3b/5x5_reduce
I0403 15:06:38.683385 11606 net.cpp:91] Creating Layer inception_3b/5x5_reduce
I0403 15:06:38.683406 11606 net.cpp:425] inception_3b/5x5_reduce <- inception_3a/output_inception_3a/output_0_split_2
I0403 15:06:38.683430 11606 net.cpp:399] inception_3b/5x5_reduce -> inception_3b/5x5_reduce
I0403 15:06:38.684464 11606 net.cpp:141] Setting up inception_3b/5x5_reduce
I0403 15:06:38.684494 11606 net.cpp:148] Top shape: 24 32 28 28 (602112)
I0403 15:06:38.684510 11606 net.cpp:156] Memory required for data: 727352352
I0403 15:06:38.684530 11606 layer_factory.hpp:77] Creating layer inception_3b/relu_5x5_reduce
I0403 15:06:38.684551 11606 net.cpp:91] Creating Layer inception_3b/relu_5x5_reduce
I0403 15:06:38.684568 11606 net.cpp:425] inception_3b/relu_5x5_reduce <- inception_3b/5x5_reduce
I0403 15:06:38.684586 11606 net.cpp:386] inception_3b/relu_5x5_reduce -> inception_3b/5x5_reduce (in-place)
I0403 15:06:38.684792 11606 net.cpp:141] Setting up inception_3b/relu_5x5_reduce
I0403 15:06:38.684820 11606 net.cpp:148] Top shape: 24 32 28 28 (602112)
I0403 15:06:38.684839 11606 net.cpp:156] Memory required for data: 729760800
I0403 15:06:38.684854 11606 layer_factory.hpp:77] Creating layer inception_3b/5x5
I0403 15:06:38.684875 11606 net.cpp:91] Creating Layer inception_3b/5x5
I0403 15:06:38.684893 11606 net.cpp:425] inception_3b/5x5 <- inception_3b/5x5_reduce
I0403 15:06:38.684916 11606 net.cpp:399] inception_3b/5x5 -> inception_3b/5x5
I0403 15:06:38.686992 11606 net.cpp:141] Setting up inception_3b/5x5
I0403 15:06:38.687026 11606 net.cpp:148] Top shape: 24 96 28 28 (1806336)
I0403 15:06:38.687042 11606 net.cpp:156] Memory required for data: 736986144
I0403 15:06:38.687063 11606 layer_factory.hpp:77] Creating layer inception_3b/relu_5x5
I0403 15:06:38.687083 11606 net.cpp:91] Creating Layer inception_3b/relu_5x5
I0403 15:06:38.687098 11606 net.cpp:425] inception_3b/relu_5x5 <- inception_3b/5x5
I0403 15:06:38.687119 11606 net.cpp:386] inception_3b/relu_5x5 -> inception_3b/5x5 (in-place)
I0403 15:06:38.687322 11606 net.cpp:141] Setting up inception_3b/relu_5x5
I0403 15:06:38.687350 11606 net.cpp:148] Top shape: 24 96 28 28 (1806336)
I0403 15:06:38.687366 11606 net.cpp:156] Memory required for data: 744211488
I0403 15:06:38.687387 11606 layer_factory.hpp:77] Creating layer inception_3b/pool
I0403 15:06:38.687408 11606 net.cpp:91] Creating Layer inception_3b/pool
I0403 15:06:38.687428 11606 net.cpp:425] inception_3b/pool <- inception_3a/output_inception_3a/output_0_split_3
I0403 15:06:38.687448 11606 net.cpp:399] inception_3b/pool -> inception_3b/pool
I0403 15:06:38.687508 11606 net.cpp:141] Setting up inception_3b/pool
I0403 15:06:38.687532 11606 net.cpp:148] Top shape: 24 256 28 28 (4816896)
I0403 15:06:38.687548 11606 net.cpp:156] Memory required for data: 763479072
I0403 15:06:38.687563 11606 layer_factory.hpp:77] Creating layer inception_3b/pool_proj
I0403 15:06:38.687587 11606 net.cpp:91] Creating Layer inception_3b/pool_proj
I0403 15:06:38.687605 11606 net.cpp:425] inception_3b/pool_proj <- inception_3b/pool
I0403 15:06:38.687626 11606 net.cpp:399] inception_3b/pool_proj -> inception_3b/pool_proj
I0403 15:06:38.688730 11606 net.cpp:141] Setting up inception_3b/pool_proj
I0403 15:06:38.688763 11606 net.cpp:148] Top shape: 24 64 28 28 (1204224)
I0403 15:06:38.688782 11606 net.cpp:156] Memory required for data: 768295968
I0403 15:06:38.688802 11606 layer_factory.hpp:77] Creating layer inception_3b/relu_pool_proj
I0403 15:06:38.688822 11606 net.cpp:91] Creating Layer inception_3b/relu_pool_proj
I0403 15:06:38.688839 11606 net.cpp:425] inception_3b/relu_pool_proj <- inception_3b/pool_proj
I0403 15:06:38.688858 11606 net.cpp:386] inception_3b/relu_pool_proj -> inception_3b/pool_proj (in-place)
I0403 15:06:38.689273 11606 net.cpp:141] Setting up inception_3b/relu_pool_proj
I0403 15:06:38.689303 11606 net.cpp:148] Top shape: 24 64 28 28 (1204224)
I0403 15:06:38.689319 11606 net.cpp:156] Memory required for data: 773112864
I0403 15:06:38.689335 11606 layer_factory.hpp:77] Creating layer inception_3b/output
I0403 15:06:38.689357 11606 net.cpp:91] Creating Layer inception_3b/output
I0403 15:06:38.689373 11606 net.cpp:425] inception_3b/output <- inception_3b/1x1
I0403 15:06:38.689399 11606 net.cpp:425] inception_3b/output <- inception_3b/3x3
I0403 15:06:38.689417 11606 net.cpp:425] inception_3b/output <- inception_3b/5x5
I0403 15:06:38.689435 11606 net.cpp:425] inception_3b/output <- inception_3b/pool_proj
I0403 15:06:38.689452 11606 net.cpp:399] inception_3b/output -> inception_3b/output
I0403 15:06:38.689501 11606 net.cpp:141] Setting up inception_3b/output
I0403 15:06:38.689525 11606 net.cpp:148] Top shape: 24 480 28 28 (9031680)
I0403 15:06:38.689540 11606 net.cpp:156] Memory required for data: 809239584
I0403 15:06:38.689556 11606 layer_factory.hpp:77] Creating layer pool3/3x3_s2
I0403 15:06:38.689574 11606 net.cpp:91] Creating Layer pool3/3x3_s2
I0403 15:06:38.689589 11606 net.cpp:425] pool3/3x3_s2 <- inception_3b/output
I0403 15:06:38.689627 11606 net.cpp:399] pool3/3x3_s2 -> pool3/3x3_s2
I0403 15:06:38.689690 11606 net.cpp:141] Setting up pool3/3x3_s2
I0403 15:06:38.689715 11606 net.cpp:148] Top shape: 24 480 14 14 (2257920)
I0403 15:06:38.689730 11606 net.cpp:156] Memory required for data: 818271264
I0403 15:06:38.689745 11606 layer_factory.hpp:77] Creating layer pool3/3x3_s2_pool3/3x3_s2_0_split
I0403 15:06:38.689765 11606 net.cpp:91] Creating Layer pool3/3x3_s2_pool3/3x3_s2_0_split
I0403 15:06:38.689782 11606 net.cpp:425] pool3/3x3_s2_pool3/3x3_s2_0_split <- pool3/3x3_s2
I0403 15:06:38.689802 11606 net.cpp:399] pool3/3x3_s2_pool3/3x3_s2_0_split -> pool3/3x3_s2_pool3/3x3_s2_0_split_0
I0403 15:06:38.689824 11606 net.cpp:399] pool3/3x3_s2_pool3/3x3_s2_0_split -> pool3/3x3_s2_pool3/3x3_s2_0_split_1
I0403 15:06:38.689844 11606 net.cpp:399] pool3/3x3_s2_pool3/3x3_s2_0_split -> pool3/3x3_s2_pool3/3x3_s2_0_split_2
I0403 15:06:38.689863 11606 net.cpp:399] pool3/3x3_s2_pool3/3x3_s2_0_split -> pool3/3x3_s2_pool3/3x3_s2_0_split_3
I0403 15:06:38.689941 11606 net.cpp:141] Setting up pool3/3x3_s2_pool3/3x3_s2_0_split
I0403 15:06:38.689968 11606 net.cpp:148] Top shape: 24 480 14 14 (2257920)
I0403 15:06:38.689986 11606 net.cpp:148] Top shape: 24 480 14 14 (2257920)
I0403 15:06:38.690002 11606 net.cpp:148] Top shape: 24 480 14 14 (2257920)
I0403 15:06:38.690018 11606 net.cpp:148] Top shape: 24 480 14 14 (2257920)
I0403 15:06:38.690032 11606 net.cpp:156] Memory required for data: 854397984
I0403 15:06:38.690047 11606 layer_factory.hpp:77] Creating layer inception_4a/1x1
I0403 15:06:38.690068 11606 net.cpp:91] Creating Layer inception_4a/1x1
I0403 15:06:38.690085 11606 net.cpp:425] inception_4a/1x1 <- pool3/3x3_s2_pool3/3x3_s2_0_split_0
I0403 15:06:38.690107 11606 net.cpp:399] inception_4a/1x1 -> inception_4a/1x1
I0403 15:06:38.691783 11606 net.cpp:141] Setting up inception_4a/1x1
I0403 15:06:38.691817 11606 net.cpp:148] Top shape: 24 192 14 14 (903168)
I0403 15:06:38.691834 11606 net.cpp:156] Memory required for data: 858010656
I0403 15:06:38.691854 11606 layer_factory.hpp:77] Creating layer inception_4a/relu_1x1
I0403 15:06:38.691874 11606 net.cpp:91] Creating Layer inception_4a/relu_1x1
I0403 15:06:38.691892 11606 net.cpp:425] inception_4a/relu_1x1 <- inception_4a/1x1
I0403 15:06:38.691911 11606 net.cpp:386] inception_4a/relu_1x1 -> inception_4a/1x1 (in-place)
I0403 15:06:38.692100 11606 net.cpp:141] Setting up inception_4a/relu_1x1
I0403 15:06:38.692126 11606 net.cpp:148] Top shape: 24 192 14 14 (903168)
I0403 15:06:38.692143 11606 net.cpp:156] Memory required for data: 861623328
I0403 15:06:38.692159 11606 layer_factory.hpp:77] Creating layer inception_4a/3x3_reduce
I0403 15:06:38.692185 11606 net.cpp:91] Creating Layer inception_4a/3x3_reduce
I0403 15:06:38.692206 11606 net.cpp:425] inception_4a/3x3_reduce <- pool3/3x3_s2_pool3/3x3_s2_0_split_1
I0403 15:06:38.692229 11606 net.cpp:399] inception_4a/3x3_reduce -> inception_4a/3x3_reduce
I0403 15:06:38.693595 11606 net.cpp:141] Setting up inception_4a/3x3_reduce
I0403 15:06:38.693629 11606 net.cpp:148] Top shape: 24 96 14 14 (451584)
I0403 15:06:38.693646 11606 net.cpp:156] Memory required for data: 863429664
I0403 15:06:38.693673 11606 layer_factory.hpp:77] Creating layer inception_4a/relu_3x3_reduce
I0403 15:06:38.693694 11606 net.cpp:91] Creating Layer inception_4a/relu_3x3_reduce
I0403 15:06:38.693711 11606 net.cpp:425] inception_4a/relu_3x3_reduce <- inception_4a/3x3_reduce
I0403 15:06:38.693730 11606 net.cpp:386] inception_4a/relu_3x3_reduce -> inception_4a/3x3_reduce (in-place)
I0403 15:06:38.693913 11606 net.cpp:141] Setting up inception_4a/relu_3x3_reduce
I0403 15:06:38.693943 11606 net.cpp:148] Top shape: 24 96 14 14 (451584)
I0403 15:06:38.693959 11606 net.cpp:156] Memory required for data: 865236000
I0403 15:06:38.693974 11606 layer_factory.hpp:77] Creating layer inception_4a/3x3
I0403 15:06:38.693997 11606 net.cpp:91] Creating Layer inception_4a/3x3
I0403 15:06:38.694015 11606 net.cpp:425] inception_4a/3x3 <- inception_4a/3x3_reduce
I0403 15:06:38.694036 11606 net.cpp:399] inception_4a/3x3 -> inception_4a/3x3
I0403 15:06:38.696790 11606 net.cpp:141] Setting up inception_4a/3x3
I0403 15:06:38.696821 11606 net.cpp:148] Top shape: 24 208 14 14 (978432)
I0403 15:06:38.696838 11606 net.cpp:156] Memory required for data: 869149728
I0403 15:06:38.696858 11606 layer_factory.hpp:77] Creating layer inception_4a/relu_3x3
I0403 15:06:38.696876 11606 net.cpp:91] Creating Layer inception_4a/relu_3x3
I0403 15:06:38.696892 11606 net.cpp:425] inception_4a/relu_3x3 <- inception_4a/3x3
I0403 15:06:38.696913 11606 net.cpp:386] inception_4a/relu_3x3 -> inception_4a/3x3 (in-place)
I0403 15:06:38.697199 11606 net.cpp:141] Setting up inception_4a/relu_3x3
I0403 15:06:38.697227 11606 net.cpp:148] Top shape: 24 208 14 14 (978432)
I0403 15:06:38.697243 11606 net.cpp:156] Memory required for data: 873063456
I0403 15:06:38.697260 11606 layer_factory.hpp:77] Creating layer inception_4a/5x5_reduce
I0403 15:06:38.697283 11606 net.cpp:91] Creating Layer inception_4a/5x5_reduce
I0403 15:06:38.697300 11606 net.cpp:425] inception_4a/5x5_reduce <- pool3/3x3_s2_pool3/3x3_s2_0_split_2
I0403 15:06:38.697324 11606 net.cpp:399] inception_4a/5x5_reduce -> inception_4a/5x5_reduce
I0403 15:06:38.698365 11606 net.cpp:141] Setting up inception_4a/5x5_reduce
I0403 15:06:38.698402 11606 net.cpp:148] Top shape: 24 16 14 14 (75264)
I0403 15:06:38.698420 11606 net.cpp:156] Memory required for data: 873364512
I0403 15:06:38.698438 11606 layer_factory.hpp:77] Creating layer inception_4a/relu_5x5_reduce
I0403 15:06:38.698457 11606 net.cpp:91] Creating Layer inception_4a/relu_5x5_reduce
I0403 15:06:38.698473 11606 net.cpp:425] inception_4a/relu_5x5_reduce <- inception_4a/5x5_reduce
I0403 15:06:38.698494 11606 net.cpp:386] inception_4a/relu_5x5_reduce -> inception_4a/5x5_reduce (in-place)
I0403 15:06:38.698680 11606 net.cpp:141] Setting up inception_4a/relu_5x5_reduce
I0403 15:06:38.698715 11606 net.cpp:148] Top shape: 24 16 14 14 (75264)
I0403 15:06:38.698730 11606 net.cpp:156] Memory required for data: 873665568
I0403 15:06:38.698745 11606 layer_factory.hpp:77] Creating layer inception_4a/5x5
I0403 15:06:38.698767 11606 net.cpp:91] Creating Layer inception_4a/5x5
I0403 15:06:38.698786 11606 net.cpp:425] inception_4a/5x5 <- inception_4a/5x5_reduce
I0403 15:06:38.698807 11606 net.cpp:399] inception_4a/5x5 -> inception_4a/5x5
I0403 15:06:38.699945 11606 net.cpp:141] Setting up inception_4a/5x5
I0403 15:06:38.699973 11606 net.cpp:148] Top shape: 24 48 14 14 (225792)
I0403 15:06:38.699990 11606 net.cpp:156] Memory required for data: 874568736
I0403 15:06:38.700008 11606 layer_factory.hpp:77] Creating layer inception_4a/relu_5x5
I0403 15:06:38.700031 11606 net.cpp:91] Creating Layer inception_4a/relu_5x5
I0403 15:06:38.700049 11606 net.cpp:425] inception_4a/relu_5x5 <- inception_4a/5x5
I0403 15:06:38.700068 11606 net.cpp:386] inception_4a/relu_5x5 -> inception_4a/5x5 (in-place)
I0403 15:06:38.700242 11606 net.cpp:141] Setting up inception_4a/relu_5x5
I0403 15:06:38.700270 11606 net.cpp:148] Top shape: 24 48 14 14 (225792)
I0403 15:06:38.700285 11606 net.cpp:156] Memory required for data: 875471904
I0403 15:06:38.700299 11606 layer_factory.hpp:77] Creating layer inception_4a/pool
I0403 15:06:38.700316 11606 net.cpp:91] Creating Layer inception_4a/pool
I0403 15:06:38.700332 11606 net.cpp:425] inception_4a/pool <- pool3/3x3_s2_pool3/3x3_s2_0_split_3
I0403 15:06:38.700351 11606 net.cpp:399] inception_4a/pool -> inception_4a/pool
I0403 15:06:38.700418 11606 net.cpp:141] Setting up inception_4a/pool
I0403 15:06:38.700443 11606 net.cpp:148] Top shape: 24 480 14 14 (2257920)
I0403 15:06:38.700456 11606 net.cpp:156] Memory required for data: 884503584
I0403 15:06:38.700470 11606 layer_factory.hpp:77] Creating layer inception_4a/pool_proj
I0403 15:06:38.700492 11606 net.cpp:91] Creating Layer inception_4a/pool_proj
I0403 15:06:38.700510 11606 net.cpp:425] inception_4a/pool_proj <- inception_4a/pool
I0403 15:06:38.700528 11606 net.cpp:399] inception_4a/pool_proj -> inception_4a/pool_proj
I0403 15:06:38.701689 11606 net.cpp:141] Setting up inception_4a/pool_proj
I0403 15:06:38.701720 11606 net.cpp:148] Top shape: 24 64 14 14 (301056)
I0403 15:06:38.701751 11606 net.cpp:156] Memory required for data: 885707808
I0403 15:06:38.701771 11606 layer_factory.hpp:77] Creating layer inception_4a/relu_pool_proj
I0403 15:06:38.701791 11606 net.cpp:91] Creating Layer inception_4a/relu_pool_proj
I0403 15:06:38.701807 11606 net.cpp:425] inception_4a/relu_pool_proj <- inception_4a/pool_proj
I0403 15:06:38.701827 11606 net.cpp:386] inception_4a/relu_pool_proj -> inception_4a/pool_proj (in-place)
I0403 15:06:38.702106 11606 net.cpp:141] Setting up inception_4a/relu_pool_proj
I0403 15:06:38.702134 11606 net.cpp:148] Top shape: 24 64 14 14 (301056)
I0403 15:06:38.702150 11606 net.cpp:156] Memory required for data: 886912032
I0403 15:06:38.702164 11606 layer_factory.hpp:77] Creating layer inception_4a/output
I0403 15:06:38.702181 11606 net.cpp:91] Creating Layer inception_4a/output
I0403 15:06:38.702196 11606 net.cpp:425] inception_4a/output <- inception_4a/1x1
I0403 15:06:38.702213 11606 net.cpp:425] inception_4a/output <- inception_4a/3x3
I0403 15:06:38.702229 11606 net.cpp:425] inception_4a/output <- inception_4a/5x5
I0403 15:06:38.702244 11606 net.cpp:425] inception_4a/output <- inception_4a/pool_proj
I0403 15:06:38.702260 11606 net.cpp:399] inception_4a/output -> inception_4a/output
I0403 15:06:38.702306 11606 net.cpp:141] Setting up inception_4a/output
I0403 15:06:38.702328 11606 net.cpp:148] Top shape: 24 512 14 14 (2408448)
I0403 15:06:38.702342 11606 net.cpp:156] Memory required for data: 896545824
I0403 15:06:38.702356 11606 layer_factory.hpp:77] Creating layer inception_4a/output_inception_4a/output_0_split
I0403 15:06:38.702374 11606 net.cpp:91] Creating Layer inception_4a/output_inception_4a/output_0_split
I0403 15:06:38.702402 11606 net.cpp:425] inception_4a/output_inception_4a/output_0_split <- inception_4a/output
I0403 15:06:38.702425 11606 net.cpp:399] inception_4a/output_inception_4a/output_0_split -> inception_4a/output_inception_4a/output_0_split_0
I0403 15:06:38.702447 11606 net.cpp:399] inception_4a/output_inception_4a/output_0_split -> inception_4a/output_inception_4a/output_0_split_1
I0403 15:06:38.702467 11606 net.cpp:399] inception_4a/output_inception_4a/output_0_split -> inception_4a/output_inception_4a/output_0_split_2
I0403 15:06:38.702491 11606 net.cpp:399] inception_4a/output_inception_4a/output_0_split -> inception_4a/output_inception_4a/output_0_split_3
I0403 15:06:38.702509 11606 net.cpp:399] inception_4a/output_inception_4a/output_0_split -> inception_4a/output_inception_4a/output_0_split_4
I0403 15:06:38.702603 11606 net.cpp:141] Setting up inception_4a/output_inception_4a/output_0_split
I0403 15:06:38.702627 11606 net.cpp:148] Top shape: 24 512 14 14 (2408448)
I0403 15:06:38.702642 11606 net.cpp:148] Top shape: 24 512 14 14 (2408448)
I0403 15:06:38.702657 11606 net.cpp:148] Top shape: 24 512 14 14 (2408448)
I0403 15:06:38.702672 11606 net.cpp:148] Top shape: 24 512 14 14 (2408448)
I0403 15:06:38.702687 11606 net.cpp:148] Top shape: 24 512 14 14 (2408448)
I0403 15:06:38.702699 11606 net.cpp:156] Memory required for data: 944714784
I0403 15:06:38.702713 11606 layer_factory.hpp:77] Creating layer loss1/ave_pool
I0403 15:06:38.702730 11606 net.cpp:91] Creating Layer loss1/ave_pool
I0403 15:06:38.702745 11606 net.cpp:425] loss1/ave_pool <- inception_4a/output_inception_4a/output_0_split_0
I0403 15:06:38.702764 11606 net.cpp:399] loss1/ave_pool -> loss1/ave_pool
I0403 15:06:38.702968 11606 net.cpp:141] Setting up loss1/ave_pool
I0403 15:06:38.702996 11606 net.cpp:148] Top shape: 24 512 4 4 (196608)
I0403 15:06:38.703012 11606 net.cpp:156] Memory required for data: 945501216
I0403 15:06:38.703027 11606 layer_factory.hpp:77] Creating layer loss1/conv
I0403 15:06:38.703048 11606 net.cpp:91] Creating Layer loss1/conv
I0403 15:06:38.703065 11606 net.cpp:425] loss1/conv <- loss1/ave_pool
I0403 15:06:38.703083 11606 net.cpp:399] loss1/conv -> loss1/conv
I0403 15:06:38.704488 11606 net.cpp:141] Setting up loss1/conv
I0403 15:06:38.704515 11606 net.cpp:148] Top shape: 24 128 4 4 (49152)
I0403 15:06:38.704545 11606 net.cpp:156] Memory required for data: 945697824
I0403 15:06:38.704563 11606 layer_factory.hpp:77] Creating layer loss1/relu_conv
I0403 15:06:38.704581 11606 net.cpp:91] Creating Layer loss1/relu_conv
I0403 15:06:38.704596 11606 net.cpp:425] loss1/relu_conv <- loss1/conv
I0403 15:06:38.704615 11606 net.cpp:386] loss1/relu_conv -> loss1/conv (in-place)
I0403 15:06:38.704897 11606 net.cpp:141] Setting up loss1/relu_conv
I0403 15:06:38.704923 11606 net.cpp:148] Top shape: 24 128 4 4 (49152)
I0403 15:06:38.704938 11606 net.cpp:156] Memory required for data: 945894432
I0403 15:06:38.704952 11606 layer_factory.hpp:77] Creating layer loss1/fc
I0403 15:06:38.704975 11606 net.cpp:91] Creating Layer loss1/fc
I0403 15:06:38.704993 11606 net.cpp:425] loss1/fc <- loss1/conv
I0403 15:06:38.705013 11606 net.cpp:399] loss1/fc -> loss1/fc
I0403 15:06:38.722821 11606 net.cpp:141] Setting up loss1/fc
I0403 15:06:38.722854 11606 net.cpp:148] Top shape: 24 1024 (24576)
I0403 15:06:38.722870 11606 net.cpp:156] Memory required for data: 945992736
I0403 15:06:38.722888 11606 layer_factory.hpp:77] Creating layer loss1/relu_fc
I0403 15:06:38.722906 11606 net.cpp:91] Creating Layer loss1/relu_fc
I0403 15:06:38.722923 11606 net.cpp:425] loss1/relu_fc <- loss1/fc
I0403 15:06:38.722939 11606 net.cpp:386] loss1/relu_fc -> loss1/fc (in-place)
I0403 15:06:38.723142 11606 net.cpp:141] Setting up loss1/relu_fc
I0403 15:06:38.723167 11606 net.cpp:148] Top shape: 24 1024 (24576)
I0403 15:06:38.723181 11606 net.cpp:156] Memory required for data: 946091040
I0403 15:06:38.723196 11606 layer_factory.hpp:77] Creating layer loss1/drop_fc
I0403 15:06:38.723222 11606 net.cpp:91] Creating Layer loss1/drop_fc
I0403 15:06:38.723239 11606 net.cpp:425] loss1/drop_fc <- loss1/fc
I0403 15:06:38.723258 11606 net.cpp:386] loss1/drop_fc -> loss1/fc (in-place)
I0403 15:06:38.723309 11606 net.cpp:141] Setting up loss1/drop_fc
I0403 15:06:38.723332 11606 net.cpp:148] Top shape: 24 1024 (24576)
I0403 15:06:38.723346 11606 net.cpp:156] Memory required for data: 946189344
I0403 15:06:38.723361 11606 layer_factory.hpp:77] Creating layer loss1/classifier_plantvillage
I0403 15:06:38.723387 11606 net.cpp:91] Creating Layer loss1/classifier_plantvillage
I0403 15:06:38.723405 11606 net.cpp:425] loss1/classifier_plantvillage <- loss1/fc
I0403 15:06:38.723423 11606 net.cpp:399] loss1/classifier_plantvillage -> loss1/classifier_plantvillage
I0403 15:06:38.724323 11606 net.cpp:141] Setting up loss1/classifier_plantvillage
I0403 15:06:38.724361 11606 net.cpp:148] Top shape: 24 38 (912)
I0403 15:06:38.724382 11606 net.cpp:156] Memory required for data: 946192992
I0403 15:06:38.724403 11606 layer_factory.hpp:77] Creating layer loss1/classifier_plantvillage_loss1/classifier_plantvillage_0_split
I0403 15:06:38.724421 11606 net.cpp:91] Creating Layer loss1/classifier_plantvillage_loss1/classifier_plantvillage_0_split
I0403 15:06:38.724438 11606 net.cpp:425] loss1/classifier_plantvillage_loss1/classifier_plantvillage_0_split <- loss1/classifier_plantvillage
I0403 15:06:38.724458 11606 net.cpp:399] loss1/classifier_plantvillage_loss1/classifier_plantvillage_0_split -> loss1/classifier_plantvillage_loss1/classifier_plantvillage_0_split_0
I0403 15:06:38.724480 11606 net.cpp:399] loss1/classifier_plantvillage_loss1/classifier_plantvillage_0_split -> loss1/classifier_plantvillage_loss1/classifier_plantvillage_0_split_1
I0403 15:06:38.724500 11606 net.cpp:399] loss1/classifier_plantvillage_loss1/classifier_plantvillage_0_split -> loss1/classifier_plantvillage_loss1/classifier_plantvillage_0_split_2
I0403 15:06:38.724567 11606 net.cpp:141] Setting up loss1/classifier_plantvillage_loss1/classifier_plantvillage_0_split
I0403 15:06:38.724591 11606 net.cpp:148] Top shape: 24 38 (912)
I0403 15:06:38.724607 11606 net.cpp:148] Top shape: 24 38 (912)
I0403 15:06:38.724623 11606 net.cpp:148] Top shape: 24 38 (912)
I0403 15:06:38.724637 11606 net.cpp:156] Memory required for data: 946203936
I0403 15:06:38.724653 11606 layer_factory.hpp:77] Creating layer inception_4b/1x1
I0403 15:06:38.724673 11606 net.cpp:91] Creating Layer inception_4b/1x1
I0403 15:06:38.724706 11606 net.cpp:425] inception_4b/1x1 <- inception_4a/output_inception_4a/output_0_split_1
I0403 15:06:38.724730 11606 net.cpp:399] inception_4b/1x1 -> inception_4b/1x1
I0403 15:06:38.726426 11606 net.cpp:141] Setting up inception_4b/1x1
I0403 15:06:38.726456 11606 net.cpp:148] Top shape: 24 160 14 14 (752640)
I0403 15:06:38.726472 11606 net.cpp:156] Memory required for data: 949214496
I0403 15:06:38.726490 11606 layer_factory.hpp:77] Creating layer inception_4b/relu_1x1
I0403 15:06:38.726508 11606 net.cpp:91] Creating Layer inception_4b/relu_1x1
I0403 15:06:38.726524 11606 net.cpp:425] inception_4b/relu_1x1 <- inception_4b/1x1
I0403 15:06:38.726544 11606 net.cpp:386] inception_4b/relu_1x1 -> inception_4b/1x1 (in-place)
I0403 15:06:38.726732 11606 net.cpp:141] Setting up inception_4b/relu_1x1
I0403 15:06:38.726757 11606 net.cpp:148] Top shape: 24 160 14 14 (752640)
I0403 15:06:38.726771 11606 net.cpp:156] Memory required for data: 952225056
I0403 15:06:38.726786 11606 layer_factory.hpp:77] Creating layer inception_4b/3x3_reduce
I0403 15:06:38.726809 11606 net.cpp:91] Creating Layer inception_4b/3x3_reduce
I0403 15:06:38.726826 11606 net.cpp:425] inception_4b/3x3_reduce <- inception_4a/output_inception_4a/output_0_split_2
I0403 15:06:38.726847 11606 net.cpp:399] inception_4b/3x3_reduce -> inception_4b/3x3_reduce
I0403 15:06:38.728283 11606 net.cpp:141] Setting up inception_4b/3x3_reduce
I0403 15:06:38.728312 11606 net.cpp:148] Top shape: 24 112 14 14 (526848)
I0403 15:06:38.728328 11606 net.cpp:156] Memory required for data: 954332448
I0403 15:06:38.728348 11606 layer_factory.hpp:77] Creating layer inception_4b/relu_3x3_reduce
I0403 15:06:38.728370 11606 net.cpp:91] Creating Layer inception_4b/relu_3x3_reduce
I0403 15:06:38.728395 11606 net.cpp:425] inception_4b/relu_3x3_reduce <- inception_4b/3x3_reduce
I0403 15:06:38.728415 11606 net.cpp:386] inception_4b/relu_3x3_reduce -> inception_4b/3x3_reduce (in-place)
I0403 15:06:38.728716 11606 net.cpp:141] Setting up inception_4b/relu_3x3_reduce
I0403 15:06:38.728744 11606 net.cpp:148] Top shape: 24 112 14 14 (526848)
I0403 15:06:38.728760 11606 net.cpp:156] Memory required for data: 956439840
I0403 15:06:38.728775 11606 layer_factory.hpp:77] Creating layer inception_4b/3x3
I0403 15:06:38.728798 11606 net.cpp:91] Creating Layer inception_4b/3x3
I0403 15:06:38.728816 11606 net.cpp:425] inception_4b/3x3 <- inception_4b/3x3_reduce
I0403 15:06:38.728838 11606 net.cpp:399] inception_4b/3x3 -> inception_4b/3x3
I0403 15:06:38.731998 11606 net.cpp:141] Setting up inception_4b/3x3
I0403 15:06:38.732031 11606 net.cpp:148] Top shape: 24 224 14 14 (1053696)
I0403 15:06:38.732048 11606 net.cpp:156] Memory required for data: 960654624
I0403 15:06:38.732067 11606 layer_factory.hpp:77] Creating layer inception_4b/relu_3x3
I0403 15:06:38.732086 11606 net.cpp:91] Creating Layer inception_4b/relu_3x3
I0403 15:06:38.732103 11606 net.cpp:425] inception_4b/relu_3x3 <- inception_4b/3x3
I0403 15:06:38.732121 11606 net.cpp:386] inception_4b/relu_3x3 -> inception_4b/3x3 (in-place)
I0403 15:06:38.732312 11606 net.cpp:141] Setting up inception_4b/relu_3x3
I0403 15:06:38.732338 11606 net.cpp:148] Top shape: 24 224 14 14 (1053696)
I0403 15:06:38.732353 11606 net.cpp:156] Memory required for data: 964869408
I0403 15:06:38.732368 11606 layer_factory.hpp:77] Creating layer inception_4b/5x5_reduce
I0403 15:06:38.732406 11606 net.cpp:91] Creating Layer inception_4b/5x5_reduce
I0403 15:06:38.732427 11606 net.cpp:425] inception_4b/5x5_reduce <- inception_4a/output_inception_4a/output_0_split_3
I0403 15:06:38.732450 11606 net.cpp:399] inception_4b/5x5_reduce -> inception_4b/5x5_reduce
I0403 15:06:38.733595 11606 net.cpp:141] Setting up inception_4b/5x5_reduce
I0403 15:06:38.733624 11606 net.cpp:148] Top shape: 24 24 14 14 (112896)
I0403 15:06:38.733641 11606 net.cpp:156] Memory required for data: 965320992
I0403 15:06:38.733659 11606 layer_factory.hpp:77] Creating layer inception_4b/relu_5x5_reduce
I0403 15:06:38.733681 11606 net.cpp:91] Creating Layer inception_4b/relu_5x5_reduce
I0403 15:06:38.733713 11606 net.cpp:425] inception_4b/relu_5x5_reduce <- inception_4b/5x5_reduce
I0403 15:06:38.733733 11606 net.cpp:386] inception_4b/relu_5x5_reduce -> inception_4b/5x5_reduce (in-place)
I0403 15:06:38.733928 11606 net.cpp:141] Setting up inception_4b/relu_5x5_reduce
I0403 15:06:38.733955 11606 net.cpp:148] Top shape: 24 24 14 14 (112896)
I0403 15:06:38.733970 11606 net.cpp:156] Memory required for data: 965772576
I0403 15:06:38.733985 11606 layer_factory.hpp:77] Creating layer inception_4b/5x5
I0403 15:06:38.734010 11606 net.cpp:91] Creating Layer inception_4b/5x5
I0403 15:06:38.734027 11606 net.cpp:425] inception_4b/5x5 <- inception_4b/5x5_reduce
I0403 15:06:38.734046 11606 net.cpp:399] inception_4b/5x5 -> inception_4b/5x5
I0403 15:06:38.735350 11606 net.cpp:141] Setting up inception_4b/5x5
I0403 15:06:38.735385 11606 net.cpp:148] Top shape: 24 64 14 14 (301056)
I0403 15:06:38.735404 11606 net.cpp:156] Memory required for data: 966976800
I0403 15:06:38.735422 11606 layer_factory.hpp:77] Creating layer inception_4b/relu_5x5
I0403 15:06:38.735441 11606 net.cpp:91] Creating Layer inception_4b/relu_5x5
I0403 15:06:38.735458 11606 net.cpp:425] inception_4b/relu_5x5 <- inception_4b/5x5
I0403 15:06:38.735481 11606 net.cpp:386] inception_4b/relu_5x5 -> inception_4b/5x5 (in-place)
I0403 15:06:38.735785 11606 net.cpp:141] Setting up inception_4b/relu_5x5
I0403 15:06:38.735812 11606 net.cpp:148] Top shape: 24 64 14 14 (301056)
I0403 15:06:38.735828 11606 net.cpp:156] Memory required for data: 968181024
I0403 15:06:38.735843 11606 layer_factory.hpp:77] Creating layer inception_4b/pool
I0403 15:06:38.735862 11606 net.cpp:91] Creating Layer inception_4b/pool
I0403 15:06:38.735879 11606 net.cpp:425] inception_4b/pool <- inception_4a/output_inception_4a/output_0_split_4
I0403 15:06:38.735903 11606 net.cpp:399] inception_4b/pool -> inception_4b/pool
I0403 15:06:38.735971 11606 net.cpp:141] Setting up inception_4b/pool
I0403 15:06:38.735996 11606 net.cpp:148] Top shape: 24 512 14 14 (2408448)
I0403 15:06:38.736011 11606 net.cpp:156] Memory required for data: 977814816
I0403 15:06:38.736027 11606 layer_factory.hpp:77] Creating layer inception_4b/pool_proj
I0403 15:06:38.736052 11606 net.cpp:91] Creating Layer inception_4b/pool_proj
I0403 15:06:38.736070 11606 net.cpp:425] inception_4b/pool_proj <- inception_4b/pool
I0403 15:06:38.736089 11606 net.cpp:399] inception_4b/pool_proj -> inception_4b/pool_proj
I0403 15:06:38.737390 11606 net.cpp:141] Setting up inception_4b/pool_proj
I0403 15:06:38.737419 11606 net.cpp:148] Top shape: 24 64 14 14 (301056)
I0403 15:06:38.737435 11606 net.cpp:156] Memory required for data: 979019040
I0403 15:06:38.737454 11606 layer_factory.hpp:77] Creating layer inception_4b/relu_pool_proj
I0403 15:06:38.737475 11606 net.cpp:91] Creating Layer inception_4b/relu_pool_proj
I0403 15:06:38.737494 11606 net.cpp:425] inception_4b/relu_pool_proj <- inception_4b/pool_proj
I0403 15:06:38.737512 11606 net.cpp:386] inception_4b/relu_pool_proj -> inception_4b/pool_proj (in-place)
I0403 15:06:38.737704 11606 net.cpp:141] Setting up inception_4b/relu_pool_proj
I0403 15:06:38.737733 11606 net.cpp:148] Top shape: 24 64 14 14 (301056)
I0403 15:06:38.737751 11606 net.cpp:156] Memory required for data: 980223264
I0403 15:06:38.737766 11606 layer_factory.hpp:77] Creating layer inception_4b/output
I0403 15:06:38.737785 11606 net.cpp:91] Creating Layer inception_4b/output
I0403 15:06:38.737802 11606 net.cpp:425] inception_4b/output <- inception_4b/1x1
I0403 15:06:38.737819 11606 net.cpp:425] inception_4b/output <- inception_4b/3x3
I0403 15:06:38.737836 11606 net.cpp:425] inception_4b/output <- inception_4b/5x5
I0403 15:06:38.737853 11606 net.cpp:425] inception_4b/output <- inception_4b/pool_proj
I0403 15:06:38.737870 11606 net.cpp:399] inception_4b/output -> inception_4b/output
I0403 15:06:38.737920 11606 net.cpp:141] Setting up inception_4b/output
I0403 15:06:38.737943 11606 net.cpp:148] Top shape: 24 512 14 14 (2408448)
I0403 15:06:38.737958 11606 net.cpp:156] Memory required for data: 989857056
I0403 15:06:38.737988 11606 layer_factory.hpp:77] Creating layer inception_4b/output_inception_4b/output_0_split
I0403 15:06:38.738008 11606 net.cpp:91] Creating Layer inception_4b/output_inception_4b/output_0_split
I0403 15:06:38.738028 11606 net.cpp:425] inception_4b/output_inception_4b/output_0_split <- inception_4b/output
I0403 15:06:38.738045 11606 net.cpp:399] inception_4b/output_inception_4b/output_0_split -> inception_4b/output_inception_4b/output_0_split_0
I0403 15:06:38.738066 11606 net.cpp:399] inception_4b/output_inception_4b/output_0_split -> inception_4b/output_inception_4b/output_0_split_1
I0403 15:06:38.738087 11606 net.cpp:399] inception_4b/output_inception_4b/output_0_split -> inception_4b/output_inception_4b/output_0_split_2
I0403 15:06:38.738107 11606 net.cpp:399] inception_4b/output_inception_4b/output_0_split -> inception_4b/output_inception_4b/output_0_split_3
I0403 15:06:38.738196 11606 net.cpp:141] Setting up inception_4b/output_inception_4b/output_0_split
I0403 15:06:38.738220 11606 net.cpp:148] Top shape: 24 512 14 14 (2408448)
I0403 15:06:38.738237 11606 net.cpp:148] Top shape: 24 512 14 14 (2408448)
I0403 15:06:38.738253 11606 net.cpp:148] Top shape: 24 512 14 14 (2408448)
I0403 15:06:38.738270 11606 net.cpp:148] Top shape: 24 512 14 14 (2408448)
I0403 15:06:38.738284 11606 net.cpp:156] Memory required for data: 1028392224
I0403 15:06:38.738299 11606 layer_factory.hpp:77] Creating layer inception_4c/1x1
I0403 15:06:38.738324 11606 net.cpp:91] Creating Layer inception_4c/1x1
I0403 15:06:38.738343 11606 net.cpp:425] inception_4c/1x1 <- inception_4b/output_inception_4b/output_0_split_0
I0403 15:06:38.738364 11606 net.cpp:399] inception_4c/1x1 -> inception_4c/1x1
I0403 15:06:38.739907 11606 net.cpp:141] Setting up inception_4c/1x1
I0403 15:06:38.739940 11606 net.cpp:148] Top shape: 24 128 14 14 (602112)
I0403 15:06:38.739958 11606 net.cpp:156] Memory required for data: 1030800672
I0403 15:06:38.739976 11606 layer_factory.hpp:77] Creating layer inception_4c/relu_1x1
I0403 15:06:38.739995 11606 net.cpp:91] Creating Layer inception_4c/relu_1x1
I0403 15:06:38.740012 11606 net.cpp:425] inception_4c/relu_1x1 <- inception_4c/1x1
I0403 15:06:38.740031 11606 net.cpp:386] inception_4c/relu_1x1 -> inception_4c/1x1 (in-place)
I0403 15:06:38.740226 11606 net.cpp:141] Setting up inception_4c/relu_1x1
I0403 15:06:38.740252 11606 net.cpp:148] Top shape: 24 128 14 14 (602112)
I0403 15:06:38.740267 11606 net.cpp:156] Memory required for data: 1033209120
I0403 15:06:38.740283 11606 layer_factory.hpp:77] Creating layer inception_4c/3x3_reduce
I0403 15:06:38.740305 11606 net.cpp:91] Creating Layer inception_4c/3x3_reduce
I0403 15:06:38.740324 11606 net.cpp:425] inception_4c/3x3_reduce <- inception_4b/output_inception_4b/output_0_split_1
I0403 15:06:38.740348 11606 net.cpp:399] inception_4c/3x3_reduce -> inception_4c/3x3_reduce
I0403 15:06:38.742419 11606 net.cpp:141] Setting up inception_4c/3x3_reduce
I0403 15:06:38.742449 11606 net.cpp:148] Top shape: 24 128 14 14 (602112)
I0403 15:06:38.742465 11606 net.cpp:156] Memory required for data: 1035617568
I0403 15:06:38.742485 11606 layer_factory.hpp:77] Creating layer inception_4c/relu_3x3_reduce
I0403 15:06:38.742507 11606 net.cpp:91] Creating Layer inception_4c/relu_3x3_reduce
I0403 15:06:38.742525 11606 net.cpp:425] inception_4c/relu_3x3_reduce <- inception_4c/3x3_reduce
I0403 15:06:38.742543 11606 net.cpp:386] inception_4c/relu_3x3_reduce -> inception_4c/3x3_reduce (in-place)
I0403 15:06:38.742846 11606 net.cpp:141] Setting up inception_4c/relu_3x3_reduce
I0403 15:06:38.742873 11606 net.cpp:148] Top shape: 24 128 14 14 (602112)
I0403 15:06:38.742889 11606 net.cpp:156] Memory required for data: 1038026016
I0403 15:06:38.742904 11606 layer_factory.hpp:77] Creating layer inception_4c/3x3
I0403 15:06:38.742928 11606 net.cpp:91] Creating Layer inception_4c/3x3
I0403 15:06:38.742947 11606 net.cpp:425] inception_4c/3x3 <- inception_4c/3x3_reduce
I0403 15:06:38.742970 11606 net.cpp:399] inception_4c/3x3 -> inception_4c/3x3
I0403 15:06:38.746814 11606 net.cpp:141] Setting up inception_4c/3x3
I0403 15:06:38.746857 11606 net.cpp:148] Top shape: 24 256 14 14 (1204224)
I0403 15:06:38.746876 11606 net.cpp:156] Memory required for data: 1042842912
I0403 15:06:38.746909 11606 layer_factory.hpp:77] Creating layer inception_4c/relu_3x3
I0403 15:06:38.746933 11606 net.cpp:91] Creating Layer inception_4c/relu_3x3
I0403 15:06:38.746951 11606 net.cpp:425] inception_4c/relu_3x3 <- inception_4c/3x3
I0403 15:06:38.746969 11606 net.cpp:386] inception_4c/relu_3x3 -> inception_4c/3x3 (in-place)
I0403 15:06:38.747174 11606 net.cpp:141] Setting up inception_4c/relu_3x3
I0403 15:06:38.747200 11606 net.cpp:148] Top shape: 24 256 14 14 (1204224)
I0403 15:06:38.747215 11606 net.cpp:156] Memory required for data: 1047659808
I0403 15:06:38.747230 11606 layer_factory.hpp:77] Creating layer inception_4c/5x5_reduce
I0403 15:06:38.747251 11606 net.cpp:91] Creating Layer inception_4c/5x5_reduce
I0403 15:06:38.747269 11606 net.cpp:425] inception_4c/5x5_reduce <- inception_4b/output_inception_4b/output_0_split_2
I0403 15:06:38.747299 11606 net.cpp:399] inception_4c/5x5_reduce -> inception_4c/5x5_reduce
I0403 15:06:38.748430 11606 net.cpp:141] Setting up inception_4c/5x5_reduce
I0403 15:06:38.748459 11606 net.cpp:148] Top shape: 24 24 14 14 (112896)
I0403 15:06:38.748474 11606 net.cpp:156] Memory required for data: 1048111392
I0403 15:06:38.748493 11606 layer_factory.hpp:77] Creating layer inception_4c/relu_5x5_reduce
I0403 15:06:38.748513 11606 net.cpp:91] Creating Layer inception_4c/relu_5x5_reduce
I0403 15:06:38.748531 11606 net.cpp:425] inception_4c/relu_5x5_reduce <- inception_4c/5x5_reduce
I0403 15:06:38.748549 11606 net.cpp:386] inception_4c/relu_5x5_reduce -> inception_4c/5x5_reduce (in-place)
I0403 15:06:38.748749 11606 net.cpp:141] Setting up inception_4c/relu_5x5_reduce
I0403 15:06:38.748774 11606 net.cpp:148] Top shape: 24 24 14 14 (112896)
I0403 15:06:38.748788 11606 net.cpp:156] Memory required for data: 1048562976
I0403 15:06:38.748802 11606 layer_factory.hpp:77] Creating layer inception_4c/5x5
I0403 15:06:38.748826 11606 net.cpp:91] Creating Layer inception_4c/5x5
I0403 15:06:38.748842 11606 net.cpp:425] inception_4c/5x5 <- inception_4c/5x5_reduce
I0403 15:06:38.748862 11606 net.cpp:399] inception_4c/5x5 -> inception_4c/5x5
I0403 15:06:38.750109 11606 net.cpp:141] Setting up inception_4c/5x5
I0403 15:06:38.750138 11606 net.cpp:148] Top shape: 24 64 14 14 (301056)
I0403 15:06:38.750154 11606 net.cpp:156] Memory required for data: 1049767200
I0403 15:06:38.750172 11606 layer_factory.hpp:77] Creating layer inception_4c/relu_5x5
I0403 15:06:38.750190 11606 net.cpp:91] Creating Layer inception_4c/relu_5x5
I0403 15:06:38.750205 11606 net.cpp:425] inception_4c/relu_5x5 <- inception_4c/5x5
I0403 15:06:38.750222 11606 net.cpp:386] inception_4c/relu_5x5 -> inception_4c/5x5 (in-place)
I0403 15:06:38.750519 11606 net.cpp:141] Setting up inception_4c/relu_5x5
I0403 15:06:38.750546 11606 net.cpp:148] Top shape: 24 64 14 14 (301056)
I0403 15:06:38.750562 11606 net.cpp:156] Memory required for data: 1050971424
I0403 15:06:38.750577 11606 layer_factory.hpp:77] Creating layer inception_4c/pool
I0403 15:06:38.750594 11606 net.cpp:91] Creating Layer inception_4c/pool
I0403 15:06:38.750610 11606 net.cpp:425] inception_4c/pool <- inception_4b/output_inception_4b/output_0_split_3
I0403 15:06:38.750628 11606 net.cpp:399] inception_4c/pool -> inception_4c/pool
I0403 15:06:38.750694 11606 net.cpp:141] Setting up inception_4c/pool
I0403 15:06:38.750717 11606 net.cpp:148] Top shape: 24 512 14 14 (2408448)
I0403 15:06:38.750731 11606 net.cpp:156] Memory required for data: 1060605216
I0403 15:06:38.750746 11606 layer_factory.hpp:77] Creating layer inception_4c/pool_proj
I0403 15:06:38.750767 11606 net.cpp:91] Creating Layer inception_4c/pool_proj
I0403 15:06:38.750784 11606 net.cpp:425] inception_4c/pool_proj <- inception_4c/pool
I0403 15:06:38.750804 11606 net.cpp:399] inception_4c/pool_proj -> inception_4c/pool_proj
I0403 15:06:38.752039 11606 net.cpp:141] Setting up inception_4c/pool_proj
I0403 15:06:38.752066 11606 net.cpp:148] Top shape: 24 64 14 14 (301056)
I0403 15:06:38.752095 11606 net.cpp:156] Memory required for data: 1061809440
I0403 15:06:38.752115 11606 layer_factory.hpp:77] Creating layer inception_4c/relu_pool_proj
I0403 15:06:38.752136 11606 net.cpp:91] Creating Layer inception_4c/relu_pool_proj
I0403 15:06:38.752153 11606 net.cpp:425] inception_4c/relu_pool_proj <- inception_4c/pool_proj
I0403 15:06:38.752169 11606 net.cpp:386] inception_4c/relu_pool_proj -> inception_4c/pool_proj (in-place)
I0403 15:06:38.752351 11606 net.cpp:141] Setting up inception_4c/relu_pool_proj
I0403 15:06:38.752377 11606 net.cpp:148] Top shape: 24 64 14 14 (301056)
I0403 15:06:38.752409 11606 net.cpp:156] Memory required for data: 1063013664
I0403 15:06:38.752424 11606 layer_factory.hpp:77] Creating layer inception_4c/output
I0403 15:06:38.752441 11606 net.cpp:91] Creating Layer inception_4c/output
I0403 15:06:38.752456 11606 net.cpp:425] inception_4c/output <- inception_4c/1x1
I0403 15:06:38.752472 11606 net.cpp:425] inception_4c/output <- inception_4c/3x3
I0403 15:06:38.752487 11606 net.cpp:425] inception_4c/output <- inception_4c/5x5
I0403 15:06:38.752502 11606 net.cpp:425] inception_4c/output <- inception_4c/pool_proj
I0403 15:06:38.752518 11606 net.cpp:399] inception_4c/output -> inception_4c/output
I0403 15:06:38.752565 11606 net.cpp:141] Setting up inception_4c/output
I0403 15:06:38.752588 11606 net.cpp:148] Top shape: 24 512 14 14 (2408448)
I0403 15:06:38.752604 11606 net.cpp:156] Memory required for data: 1072647456
I0403 15:06:38.752619 11606 layer_factory.hpp:77] Creating layer inception_4c/output_inception_4c/output_0_split
I0403 15:06:38.752635 11606 net.cpp:91] Creating Layer inception_4c/output_inception_4c/output_0_split
I0403 15:06:38.752650 11606 net.cpp:425] inception_4c/output_inception_4c/output_0_split <- inception_4c/output
I0403 15:06:38.752668 11606 net.cpp:399] inception_4c/output_inception_4c/output_0_split -> inception_4c/output_inception_4c/output_0_split_0
I0403 15:06:38.752688 11606 net.cpp:399] inception_4c/output_inception_4c/output_0_split -> inception_4c/output_inception_4c/output_0_split_1
I0403 15:06:38.752708 11606 net.cpp:399] inception_4c/output_inception_4c/output_0_split -> inception_4c/output_inception_4c/output_0_split_2
I0403 15:06:38.752727 11606 net.cpp:399] inception_4c/output_inception_4c/output_0_split -> inception_4c/output_inception_4c/output_0_split_3
I0403 15:06:38.752811 11606 net.cpp:141] Setting up inception_4c/output_inception_4c/output_0_split
I0403 15:06:38.752835 11606 net.cpp:148] Top shape: 24 512 14 14 (2408448)
I0403 15:06:38.752851 11606 net.cpp:148] Top shape: 24 512 14 14 (2408448)
I0403 15:06:38.752866 11606 net.cpp:148] Top shape: 24 512 14 14 (2408448)
I0403 15:06:38.752882 11606 net.cpp:148] Top shape: 24 512 14 14 (2408448)
I0403 15:06:38.752894 11606 net.cpp:156] Memory required for data: 1111182624
I0403 15:06:38.752908 11606 layer_factory.hpp:77] Creating layer inception_4d/1x1
I0403 15:06:38.752930 11606 net.cpp:91] Creating Layer inception_4d/1x1
I0403 15:06:38.752948 11606 net.cpp:425] inception_4d/1x1 <- inception_4c/output_inception_4c/output_0_split_0
I0403 15:06:38.752969 11606 net.cpp:399] inception_4d/1x1 -> inception_4d/1x1
I0403 15:06:38.754359 11606 net.cpp:141] Setting up inception_4d/1x1
I0403 15:06:38.754391 11606 net.cpp:148] Top shape: 24 112 14 14 (526848)
I0403 15:06:38.754407 11606 net.cpp:156] Memory required for data: 1113290016
I0403 15:06:38.754426 11606 layer_factory.hpp:77] Creating layer inception_4d/relu_1x1
I0403 15:06:38.754443 11606 net.cpp:91] Creating Layer inception_4d/relu_1x1
I0403 15:06:38.754461 11606 net.cpp:425] inception_4d/relu_1x1 <- inception_4d/1x1
I0403 15:06:38.754479 11606 net.cpp:386] inception_4d/relu_1x1 -> inception_4d/1x1 (in-place)
I0403 15:06:38.754668 11606 net.cpp:141] Setting up inception_4d/relu_1x1
I0403 15:06:38.754693 11606 net.cpp:148] Top shape: 24 112 14 14 (526848)
I0403 15:06:38.754709 11606 net.cpp:156] Memory required for data: 1115397408
I0403 15:06:38.754722 11606 layer_factory.hpp:77] Creating layer inception_4d/3x3_reduce
I0403 15:06:38.754760 11606 net.cpp:91] Creating Layer inception_4d/3x3_reduce
I0403 15:06:38.754777 11606 net.cpp:425] inception_4d/3x3_reduce <- inception_4c/output_inception_4c/output_0_split_1
I0403 15:06:38.754798 11606 net.cpp:399] inception_4d/3x3_reduce -> inception_4d/3x3_reduce
I0403 15:06:38.756305 11606 net.cpp:141] Setting up inception_4d/3x3_reduce
I0403 15:06:38.756332 11606 net.cpp:148] Top shape: 24 144 14 14 (677376)
I0403 15:06:38.756347 11606 net.cpp:156] Memory required for data: 1118106912
I0403 15:06:38.756366 11606 layer_factory.hpp:77] Creating layer inception_4d/relu_3x3_reduce
I0403 15:06:38.756391 11606 net.cpp:91] Creating Layer inception_4d/relu_3x3_reduce
I0403 15:06:38.756408 11606 net.cpp:425] inception_4d/relu_3x3_reduce <- inception_4d/3x3_reduce
I0403 15:06:38.756427 11606 net.cpp:386] inception_4d/relu_3x3_reduce -> inception_4d/3x3_reduce (in-place)
I0403 15:06:38.756717 11606 net.cpp:141] Setting up inception_4d/relu_3x3_reduce
I0403 15:06:38.756743 11606 net.cpp:148] Top shape: 24 144 14 14 (677376)
I0403 15:06:38.756758 11606 net.cpp:156] Memory required for data: 1120816416
I0403 15:06:38.756772 11606 layer_factory.hpp:77] Creating layer inception_4d/3x3
I0403 15:06:38.756795 11606 net.cpp:91] Creating Layer inception_4d/3x3
I0403 15:06:38.756814 11606 net.cpp:425] inception_4d/3x3 <- inception_4d/3x3_reduce
I0403 15:06:38.756831 11606 net.cpp:399] inception_4d/3x3 -> inception_4d/3x3
I0403 15:06:38.761091 11606 net.cpp:141] Setting up inception_4d/3x3
I0403 15:06:38.761121 11606 net.cpp:148] Top shape: 24 288 14 14 (1354752)
I0403 15:06:38.761137 11606 net.cpp:156] Memory required for data: 1126235424
I0403 15:06:38.761155 11606 layer_factory.hpp:77] Creating layer inception_4d/relu_3x3
I0403 15:06:38.761173 11606 net.cpp:91] Creating Layer inception_4d/relu_3x3
I0403 15:06:38.761188 11606 net.cpp:425] inception_4d/relu_3x3 <- inception_4d/3x3
I0403 15:06:38.761209 11606 net.cpp:386] inception_4d/relu_3x3 -> inception_4d/3x3 (in-place)
I0403 15:06:38.761400 11606 net.cpp:141] Setting up inception_4d/relu_3x3
I0403 15:06:38.761425 11606 net.cpp:148] Top shape: 24 288 14 14 (1354752)
I0403 15:06:38.761440 11606 net.cpp:156] Memory required for data: 1131654432
I0403 15:06:38.761454 11606 layer_factory.hpp:77] Creating layer inception_4d/5x5_reduce
I0403 15:06:38.761476 11606 net.cpp:91] Creating Layer inception_4d/5x5_reduce
I0403 15:06:38.761494 11606 net.cpp:425] inception_4d/5x5_reduce <- inception_4c/output_inception_4c/output_0_split_2
I0403 15:06:38.761515 11606 net.cpp:399] inception_4d/5x5_reduce -> inception_4d/5x5_reduce
I0403 15:06:38.762672 11606 net.cpp:141] Setting up inception_4d/5x5_reduce
I0403 15:06:38.762701 11606 net.cpp:148] Top shape: 24 32 14 14 (150528)
I0403 15:06:38.762717 11606 net.cpp:156] Memory required for data: 1132256544
I0403 15:06:38.762734 11606 layer_factory.hpp:77] Creating layer inception_4d/relu_5x5_reduce
I0403 15:06:38.762753 11606 net.cpp:91] Creating Layer inception_4d/relu_5x5_reduce
I0403 15:06:38.762768 11606 net.cpp:425] inception_4d/relu_5x5_reduce <- inception_4d/5x5_reduce
I0403 15:06:38.762786 11606 net.cpp:386] inception_4d/relu_5x5_reduce -> inception_4d/5x5_reduce (in-place)
I0403 15:06:38.762975 11606 net.cpp:141] Setting up inception_4d/relu_5x5_reduce
I0403 15:06:38.763000 11606 net.cpp:148] Top shape: 24 32 14 14 (150528)
I0403 15:06:38.763013 11606 net.cpp:156] Memory required for data: 1132858656
I0403 15:06:38.763027 11606 layer_factory.hpp:77] Creating layer inception_4d/5x5
I0403 15:06:38.763049 11606 net.cpp:91] Creating Layer inception_4d/5x5
I0403 15:06:38.763067 11606 net.cpp:425] inception_4d/5x5 <- inception_4d/5x5_reduce
I0403 15:06:38.763087 11606 net.cpp:399] inception_4d/5x5 -> inception_4d/5x5
I0403 15:06:38.764547 11606 net.cpp:141] Setting up inception_4d/5x5
I0403 15:06:38.764575 11606 net.cpp:148] Top shape: 24 64 14 14 (301056)
I0403 15:06:38.764590 11606 net.cpp:156] Memory required for data: 1134062880
I0403 15:06:38.764606 11606 layer_factory.hpp:77] Creating layer inception_4d/relu_5x5
I0403 15:06:38.764641 11606 net.cpp:91] Creating Layer inception_4d/relu_5x5
I0403 15:06:38.764659 11606 net.cpp:425] inception_4d/relu_5x5 <- inception_4d/5x5
I0403 15:06:38.764677 11606 net.cpp:386] inception_4d/relu_5x5 -> inception_4d/5x5 (in-place)
I0403 15:06:38.764966 11606 net.cpp:141] Setting up inception_4d/relu_5x5
I0403 15:06:38.764991 11606 net.cpp:148] Top shape: 24 64 14 14 (301056)
I0403 15:06:38.765007 11606 net.cpp:156] Memory required for data: 1135267104
I0403 15:06:38.765019 11606 layer_factory.hpp:77] Creating layer inception_4d/pool
I0403 15:06:38.765039 11606 net.cpp:91] Creating Layer inception_4d/pool
I0403 15:06:38.765055 11606 net.cpp:425] inception_4d/pool <- inception_4c/output_inception_4c/output_0_split_3
I0403 15:06:38.765074 11606 net.cpp:399] inception_4d/pool -> inception_4d/pool
I0403 15:06:38.765138 11606 net.cpp:141] Setting up inception_4d/pool
I0403 15:06:38.765161 11606 net.cpp:148] Top shape: 24 512 14 14 (2408448)
I0403 15:06:38.765175 11606 net.cpp:156] Memory required for data: 1144900896
I0403 15:06:38.765189 11606 layer_factory.hpp:77] Creating layer inception_4d/pool_proj
I0403 15:06:38.765211 11606 net.cpp:91] Creating Layer inception_4d/pool_proj
I0403 15:06:38.765228 11606 net.cpp:425] inception_4d/pool_proj <- inception_4d/pool
I0403 15:06:38.765249 11606 net.cpp:399] inception_4d/pool_proj -> inception_4d/pool_proj
I0403 15:06:38.767102 11606 net.cpp:141] Setting up inception_4d/pool_proj
I0403 15:06:38.767133 11606 net.cpp:148] Top shape: 24 64 14 14 (301056)
I0403 15:06:38.767149 11606 net.cpp:156] Memory required for data: 1146105120
I0403 15:06:38.767168 11606 layer_factory.hpp:77] Creating layer inception_4d/relu_pool_proj
I0403 15:06:38.767185 11606 net.cpp:91] Creating Layer inception_4d/relu_pool_proj
I0403 15:06:38.767202 11606 net.cpp:425] inception_4d/relu_pool_proj <- inception_4d/pool_proj
I0403 15:06:38.767222 11606 net.cpp:386] inception_4d/relu_pool_proj -> inception_4d/pool_proj (in-place)
I0403 15:06:38.767415 11606 net.cpp:141] Setting up inception_4d/relu_pool_proj
I0403 15:06:38.767441 11606 net.cpp:148] Top shape: 24 64 14 14 (301056)
I0403 15:06:38.767454 11606 net.cpp:156] Memory required for data: 1147309344
I0403 15:06:38.767468 11606 layer_factory.hpp:77] Creating layer inception_4d/output
I0403 15:06:38.767485 11606 net.cpp:91] Creating Layer inception_4d/output
I0403 15:06:38.767499 11606 net.cpp:425] inception_4d/output <- inception_4d/1x1
I0403 15:06:38.767515 11606 net.cpp:425] inception_4d/output <- inception_4d/3x3
I0403 15:06:38.767530 11606 net.cpp:425] inception_4d/output <- inception_4d/5x5
I0403 15:06:38.767546 11606 net.cpp:425] inception_4d/output <- inception_4d/pool_proj
I0403 15:06:38.767565 11606 net.cpp:399] inception_4d/output -> inception_4d/output
I0403 15:06:38.767616 11606 net.cpp:141] Setting up inception_4d/output
I0403 15:06:38.767639 11606 net.cpp:148] Top shape: 24 528 14 14 (2483712)
I0403 15:06:38.767653 11606 net.cpp:156] Memory required for data: 1157244192
I0403 15:06:38.767668 11606 layer_factory.hpp:77] Creating layer inception_4d/output_inception_4d/output_0_split
I0403 15:06:38.767684 11606 net.cpp:91] Creating Layer inception_4d/output_inception_4d/output_0_split
I0403 15:06:38.767700 11606 net.cpp:425] inception_4d/output_inception_4d/output_0_split <- inception_4d/output
I0403 15:06:38.767721 11606 net.cpp:399] inception_4d/output_inception_4d/output_0_split -> inception_4d/output_inception_4d/output_0_split_0
I0403 15:06:38.767742 11606 net.cpp:399] inception_4d/output_inception_4d/output_0_split -> inception_4d/output_inception_4d/output_0_split_1
I0403 15:06:38.767763 11606 net.cpp:399] inception_4d/output_inception_4d/output_0_split -> inception_4d/output_inception_4d/output_0_split_2
I0403 15:06:38.767783 11606 net.cpp:399] inception_4d/output_inception_4d/output_0_split -> inception_4d/output_inception_4d/output_0_split_3
I0403 15:06:38.767802 11606 net.cpp:399] inception_4d/output_inception_4d/output_0_split -> inception_4d/output_inception_4d/output_0_split_4
I0403 15:06:38.767901 11606 net.cpp:141] Setting up inception_4d/output_inception_4d/output_0_split
I0403 15:06:38.767938 11606 net.cpp:148] Top shape: 24 528 14 14 (2483712)
I0403 15:06:38.767956 11606 net.cpp:148] Top shape: 24 528 14 14 (2483712)
I0403 15:06:38.767971 11606 net.cpp:148] Top shape: 24 528 14 14 (2483712)
I0403 15:06:38.767985 11606 net.cpp:148] Top shape: 24 528 14 14 (2483712)
I0403 15:06:38.767999 11606 net.cpp:148] Top shape: 24 528 14 14 (2483712)
I0403 15:06:38.768013 11606 net.cpp:156] Memory required for data: 1206918432
I0403 15:06:38.768028 11606 layer_factory.hpp:77] Creating layer loss2/ave_pool
I0403 15:06:38.768044 11606 net.cpp:91] Creating Layer loss2/ave_pool
I0403 15:06:38.768059 11606 net.cpp:425] loss2/ave_pool <- inception_4d/output_inception_4d/output_0_split_0
I0403 15:06:38.768079 11606 net.cpp:399] loss2/ave_pool -> loss2/ave_pool
I0403 15:06:38.768404 11606 net.cpp:141] Setting up loss2/ave_pool
I0403 15:06:38.768429 11606 net.cpp:148] Top shape: 24 528 4 4 (202752)
I0403 15:06:38.768445 11606 net.cpp:156] Memory required for data: 1207729440
I0403 15:06:38.768458 11606 layer_factory.hpp:77] Creating layer loss2/conv
I0403 15:06:38.768481 11606 net.cpp:91] Creating Layer loss2/conv
I0403 15:06:38.768498 11606 net.cpp:425] loss2/conv <- loss2/ave_pool
I0403 15:06:38.768519 11606 net.cpp:399] loss2/conv -> loss2/conv
I0403 15:06:38.770423 11606 net.cpp:141] Setting up loss2/conv
I0403 15:06:38.770452 11606 net.cpp:148] Top shape: 24 128 4 4 (49152)
I0403 15:06:38.770468 11606 net.cpp:156] Memory required for data: 1207926048
I0403 15:06:38.770486 11606 layer_factory.hpp:77] Creating layer loss2/relu_conv
I0403 15:06:38.770506 11606 net.cpp:91] Creating Layer loss2/relu_conv
I0403 15:06:38.770522 11606 net.cpp:425] loss2/relu_conv <- loss2/conv
I0403 15:06:38.770539 11606 net.cpp:386] loss2/relu_conv -> loss2/conv (in-place)
I0403 15:06:38.770876 11606 net.cpp:141] Setting up loss2/relu_conv
I0403 15:06:38.770903 11606 net.cpp:148] Top shape: 24 128 4 4 (49152)
I0403 15:06:38.770920 11606 net.cpp:156] Memory required for data: 1208122656
I0403 15:06:38.770946 11606 layer_factory.hpp:77] Creating layer loss2/fc
I0403 15:06:38.770967 11606 net.cpp:91] Creating Layer loss2/fc
I0403 15:06:38.770984 11606 net.cpp:425] loss2/fc <- loss2/conv
I0403 15:06:38.771004 11606 net.cpp:399] loss2/fc -> loss2/fc
I0403 15:06:38.788550 11606 net.cpp:141] Setting up loss2/fc
I0403 15:06:38.788584 11606 net.cpp:148] Top shape: 24 1024 (24576)
I0403 15:06:38.788599 11606 net.cpp:156] Memory required for data: 1208220960
I0403 15:06:38.788617 11606 layer_factory.hpp:77] Creating layer loss2/relu_fc
I0403 15:06:38.788635 11606 net.cpp:91] Creating Layer loss2/relu_fc
I0403 15:06:38.788650 11606 net.cpp:425] loss2/relu_fc <- loss2/fc
I0403 15:06:38.788668 11606 net.cpp:386] loss2/relu_fc -> loss2/fc (in-place)
I0403 15:06:38.788959 11606 net.cpp:141] Setting up loss2/relu_fc
I0403 15:06:38.788985 11606 net.cpp:148] Top shape: 24 1024 (24576)
I0403 15:06:38.788998 11606 net.cpp:156] Memory required for data: 1208319264
I0403 15:06:38.789011 11606 layer_factory.hpp:77] Creating layer loss2/drop_fc
I0403 15:06:38.789028 11606 net.cpp:91] Creating Layer loss2/drop_fc
I0403 15:06:38.789044 11606 net.cpp:425] loss2/drop_fc <- loss2/fc
I0403 15:06:38.789063 11606 net.cpp:386] loss2/drop_fc -> loss2/fc (in-place)
I0403 15:06:38.789113 11606 net.cpp:141] Setting up loss2/drop_fc
I0403 15:06:38.789136 11606 net.cpp:148] Top shape: 24 1024 (24576)
I0403 15:06:38.789151 11606 net.cpp:156] Memory required for data: 1208417568
I0403 15:06:38.789165 11606 layer_factory.hpp:77] Creating layer loss2/classifier_plantvillage
I0403 15:06:38.789182 11606 net.cpp:91] Creating Layer loss2/classifier_plantvillage
I0403 15:06:38.789197 11606 net.cpp:425] loss2/classifier_plantvillage <- loss2/fc
I0403 15:06:38.789219 11606 net.cpp:399] loss2/classifier_plantvillage -> loss2/classifier_plantvillage
I0403 15:06:38.789618 11606 net.cpp:141] Setting up loss2/classifier_plantvillage
I0403 15:06:38.789641 11606 net.cpp:148] Top shape: 24 38 (912)
I0403 15:06:38.789672 11606 net.cpp:156] Memory required for data: 1208421216
I0403 15:06:38.789690 11606 layer_factory.hpp:77] Creating layer loss2/classifier_plantvillage_loss2/classifier_plantvillage_0_split
I0403 15:06:38.789710 11606 net.cpp:91] Creating Layer loss2/classifier_plantvillage_loss2/classifier_plantvillage_0_split
I0403 15:06:38.789727 11606 net.cpp:425] loss2/classifier_plantvillage_loss2/classifier_plantvillage_0_split <- loss2/classifier_plantvillage
I0403 15:06:38.789743 11606 net.cpp:399] loss2/classifier_plantvillage_loss2/classifier_plantvillage_0_split -> loss2/classifier_plantvillage_loss2/classifier_plantvillage_0_split_0
I0403 15:06:38.789762 11606 net.cpp:399] loss2/classifier_plantvillage_loss2/classifier_plantvillage_0_split -> loss2/classifier_plantvillage_loss2/classifier_plantvillage_0_split_1
I0403 15:06:38.789784 11606 net.cpp:399] loss2/classifier_plantvillage_loss2/classifier_plantvillage_0_split -> loss2/classifier_plantvillage_loss2/classifier_plantvillage_0_split_2
I0403 15:06:38.789857 11606 net.cpp:141] Setting up loss2/classifier_plantvillage_loss2/classifier_plantvillage_0_split
I0403 15:06:38.789880 11606 net.cpp:148] Top shape: 24 38 (912)
I0403 15:06:38.789894 11606 net.cpp:148] Top shape: 24 38 (912)
I0403 15:06:38.789909 11606 net.cpp:148] Top shape: 24 38 (912)
I0403 15:06:38.789922 11606 net.cpp:156] Memory required for data: 1208432160
I0403 15:06:38.789937 11606 layer_factory.hpp:77] Creating layer inception_4e/1x1
I0403 15:06:38.789958 11606 net.cpp:91] Creating Layer inception_4e/1x1
I0403 15:06:38.789974 11606 net.cpp:425] inception_4e/1x1 <- inception_4d/output_inception_4d/output_0_split_1
I0403 15:06:38.789993 11606 net.cpp:399] inception_4e/1x1 -> inception_4e/1x1
I0403 15:06:38.791750 11606 net.cpp:141] Setting up inception_4e/1x1
I0403 15:06:38.791777 11606 net.cpp:148] Top shape: 24 256 14 14 (1204224)
I0403 15:06:38.791792 11606 net.cpp:156] Memory required for data: 1213249056
I0403 15:06:38.791810 11606 layer_factory.hpp:77] Creating layer inception_4e/relu_1x1
I0403 15:06:38.791831 11606 net.cpp:91] Creating Layer inception_4e/relu_1x1
I0403 15:06:38.791846 11606 net.cpp:425] inception_4e/relu_1x1 <- inception_4e/1x1
I0403 15:06:38.791862 11606 net.cpp:386] inception_4e/relu_1x1 -> inception_4e/1x1 (in-place)
I0403 15:06:38.792147 11606 net.cpp:141] Setting up inception_4e/relu_1x1
I0403 15:06:38.792172 11606 net.cpp:148] Top shape: 24 256 14 14 (1204224)
I0403 15:06:38.792186 11606 net.cpp:156] Memory required for data: 1218065952
I0403 15:06:38.792201 11606 layer_factory.hpp:77] Creating layer inception_4e/3x3_reduce
I0403 15:06:38.792222 11606 net.cpp:91] Creating Layer inception_4e/3x3_reduce
I0403 15:06:38.792238 11606 net.cpp:425] inception_4e/3x3_reduce <- inception_4d/output_inception_4d/output_0_split_2
I0403 15:06:38.792258 11606 net.cpp:399] inception_4e/3x3_reduce -> inception_4e/3x3_reduce
I0403 15:06:38.794359 11606 net.cpp:141] Setting up inception_4e/3x3_reduce
I0403 15:06:38.794390 11606 net.cpp:148] Top shape: 24 160 14 14 (752640)
I0403 15:06:38.794406 11606 net.cpp:156] Memory required for data: 1221076512
I0403 15:06:38.794425 11606 layer_factory.hpp:77] Creating layer inception_4e/relu_3x3_reduce
I0403 15:06:38.794445 11606 net.cpp:91] Creating Layer inception_4e/relu_3x3_reduce
I0403 15:06:38.794461 11606 net.cpp:425] inception_4e/relu_3x3_reduce <- inception_4e/3x3_reduce
I0403 15:06:38.794477 11606 net.cpp:386] inception_4e/relu_3x3_reduce -> inception_4e/3x3_reduce (in-place)
I0403 15:06:38.794656 11606 net.cpp:141] Setting up inception_4e/relu_3x3_reduce
I0403 15:06:38.794682 11606 net.cpp:148] Top shape: 24 160 14 14 (752640)
I0403 15:06:38.794697 11606 net.cpp:156] Memory required for data: 1224087072
I0403 15:06:38.794710 11606 layer_factory.hpp:77] Creating layer inception_4e/3x3
I0403 15:06:38.794733 11606 net.cpp:91] Creating Layer inception_4e/3x3
I0403 15:06:38.794749 11606 net.cpp:425] inception_4e/3x3 <- inception_4e/3x3_reduce
I0403 15:06:38.794766 11606 net.cpp:399] inception_4e/3x3 -> inception_4e/3x3
I0403 15:06:38.799649 11606 net.cpp:141] Setting up inception_4e/3x3
I0403 15:06:38.799691 11606 net.cpp:148] Top shape: 24 320 14 14 (1505280)
I0403 15:06:38.799708 11606 net.cpp:156] Memory required for data: 1230108192
I0403 15:06:38.799726 11606 layer_factory.hpp:77] Creating layer inception_4e/relu_3x3
I0403 15:06:38.799744 11606 net.cpp:91] Creating Layer inception_4e/relu_3x3
I0403 15:06:38.799759 11606 net.cpp:425] inception_4e/relu_3x3 <- inception_4e/3x3
I0403 15:06:38.799777 11606 net.cpp:386] inception_4e/relu_3x3 -> inception_4e/3x3 (in-place)
I0403 15:06:38.800094 11606 net.cpp:141] Setting up inception_4e/relu_3x3
I0403 15:06:38.800119 11606 net.cpp:148] Top shape: 24 320 14 14 (1505280)
I0403 15:06:38.800134 11606 net.cpp:156] Memory required for data: 1236129312
I0403 15:06:38.800148 11606 layer_factory.hpp:77] Creating layer inception_4e/5x5_reduce
I0403 15:06:38.800170 11606 net.cpp:91] Creating Layer inception_4e/5x5_reduce
I0403 15:06:38.800189 11606 net.cpp:425] inception_4e/5x5_reduce <- inception_4d/output_inception_4d/output_0_split_3
I0403 15:06:38.800209 11606 net.cpp:399] inception_4e/5x5_reduce -> inception_4e/5x5_reduce
I0403 15:06:38.801244 11606 net.cpp:141] Setting up inception_4e/5x5_reduce
I0403 15:06:38.801270 11606 net.cpp:148] Top shape: 24 32 14 14 (150528)
I0403 15:06:38.801285 11606 net.cpp:156] Memory required for data: 1236731424
I0403 15:06:38.801301 11606 layer_factory.hpp:77] Creating layer inception_4e/relu_5x5_reduce
I0403 15:06:38.801321 11606 net.cpp:91] Creating Layer inception_4e/relu_5x5_reduce
I0403 15:06:38.801337 11606 net.cpp:425] inception_4e/relu_5x5_reduce <- inception_4e/5x5_reduce
I0403 15:06:38.801352 11606 net.cpp:386] inception_4e/relu_5x5_reduce -> inception_4e/5x5_reduce (in-place)
I0403 15:06:38.801647 11606 net.cpp:141] Setting up inception_4e/relu_5x5_reduce
I0403 15:06:38.801672 11606 net.cpp:148] Top shape: 24 32 14 14 (150528)
I0403 15:06:38.801687 11606 net.cpp:156] Memory required for data: 1237333536
I0403 15:06:38.801702 11606 layer_factory.hpp:77] Creating layer inception_4e/5x5
I0403 15:06:38.801738 11606 net.cpp:91] Creating Layer inception_4e/5x5
I0403 15:06:38.801756 11606 net.cpp:425] inception_4e/5x5 <- inception_4e/5x5_reduce
I0403 15:06:38.801774 11606 net.cpp:399] inception_4e/5x5 -> inception_4e/5x5
I0403 15:06:38.803575 11606 net.cpp:141] Setting up inception_4e/5x5
I0403 15:06:38.803602 11606 net.cpp:148] Top shape: 24 128 14 14 (602112)
I0403 15:06:38.803617 11606 net.cpp:156] Memory required for data: 1239741984
I0403 15:06:38.803635 11606 layer_factory.hpp:77] Creating layer inception_4e/relu_5x5
I0403 15:06:38.803655 11606 net.cpp:91] Creating Layer inception_4e/relu_5x5
I0403 15:06:38.803673 11606 net.cpp:425] inception_4e/relu_5x5 <- inception_4e/5x5
I0403 15:06:38.803689 11606 net.cpp:386] inception_4e/relu_5x5 -> inception_4e/5x5 (in-place)
I0403 15:06:38.803879 11606 net.cpp:141] Setting up inception_4e/relu_5x5
I0403 15:06:38.803905 11606 net.cpp:148] Top shape: 24 128 14 14 (602112)
I0403 15:06:38.803918 11606 net.cpp:156] Memory required for data: 1242150432
I0403 15:06:38.803931 11606 layer_factory.hpp:77] Creating layer inception_4e/pool
I0403 15:06:38.803951 11606 net.cpp:91] Creating Layer inception_4e/pool
I0403 15:06:38.803967 11606 net.cpp:425] inception_4e/pool <- inception_4d/output_inception_4d/output_0_split_4
I0403 15:06:38.803984 11606 net.cpp:399] inception_4e/pool -> inception_4e/pool
I0403 15:06:38.804054 11606 net.cpp:141] Setting up inception_4e/pool
I0403 15:06:38.804076 11606 net.cpp:148] Top shape: 24 528 14 14 (2483712)
I0403 15:06:38.804090 11606 net.cpp:156] Memory required for data: 1252085280
I0403 15:06:38.804103 11606 layer_factory.hpp:77] Creating layer inception_4e/pool_proj
I0403 15:06:38.804124 11606 net.cpp:91] Creating Layer inception_4e/pool_proj
I0403 15:06:38.804141 11606 net.cpp:425] inception_4e/pool_proj <- inception_4e/pool
I0403 15:06:38.804162 11606 net.cpp:399] inception_4e/pool_proj -> inception_4e/pool_proj
I0403 15:06:38.805620 11606 net.cpp:141] Setting up inception_4e/pool_proj
I0403 15:06:38.805658 11606 net.cpp:148] Top shape: 24 128 14 14 (602112)
I0403 15:06:38.805675 11606 net.cpp:156] Memory required for data: 1254493728
I0403 15:06:38.805691 11606 layer_factory.hpp:77] Creating layer inception_4e/relu_pool_proj
I0403 15:06:38.805709 11606 net.cpp:91] Creating Layer inception_4e/relu_pool_proj
I0403 15:06:38.805724 11606 net.cpp:425] inception_4e/relu_pool_proj <- inception_4e/pool_proj
I0403 15:06:38.805743 11606 net.cpp:386] inception_4e/relu_pool_proj -> inception_4e/pool_proj (in-place)
I0403 15:06:38.806028 11606 net.cpp:141] Setting up inception_4e/relu_pool_proj
I0403 15:06:38.806054 11606 net.cpp:148] Top shape: 24 128 14 14 (602112)
I0403 15:06:38.806068 11606 net.cpp:156] Memory required for data: 1256902176
I0403 15:06:38.806082 11606 layer_factory.hpp:77] Creating layer inception_4e/output
I0403 15:06:38.806099 11606 net.cpp:91] Creating Layer inception_4e/output
I0403 15:06:38.806114 11606 net.cpp:425] inception_4e/output <- inception_4e/1x1
I0403 15:06:38.806130 11606 net.cpp:425] inception_4e/output <- inception_4e/3x3
I0403 15:06:38.806145 11606 net.cpp:425] inception_4e/output <- inception_4e/5x5
I0403 15:06:38.806159 11606 net.cpp:425] inception_4e/output <- inception_4e/pool_proj
I0403 15:06:38.806179 11606 net.cpp:399] inception_4e/output -> inception_4e/output
I0403 15:06:38.806226 11606 net.cpp:141] Setting up inception_4e/output
I0403 15:06:38.806251 11606 net.cpp:148] Top shape: 24 832 14 14 (3913728)
I0403 15:06:38.806265 11606 net.cpp:156] Memory required for data: 1272557088
I0403 15:06:38.806279 11606 layer_factory.hpp:77] Creating layer pool4/3x3_s2
I0403 15:06:38.806296 11606 net.cpp:91] Creating Layer pool4/3x3_s2
I0403 15:06:38.806311 11606 net.cpp:425] pool4/3x3_s2 <- inception_4e/output
I0403 15:06:38.806332 11606 net.cpp:399] pool4/3x3_s2 -> pool4/3x3_s2
I0403 15:06:38.806402 11606 net.cpp:141] Setting up pool4/3x3_s2
I0403 15:06:38.806426 11606 net.cpp:148] Top shape: 24 832 7 7 (978432)
I0403 15:06:38.806439 11606 net.cpp:156] Memory required for data: 1276470816
I0403 15:06:38.806453 11606 layer_factory.hpp:77] Creating layer pool4/3x3_s2_pool4/3x3_s2_0_split
I0403 15:06:38.806471 11606 net.cpp:91] Creating Layer pool4/3x3_s2_pool4/3x3_s2_0_split
I0403 15:06:38.806488 11606 net.cpp:425] pool4/3x3_s2_pool4/3x3_s2_0_split <- pool4/3x3_s2
I0403 15:06:38.806505 11606 net.cpp:399] pool4/3x3_s2_pool4/3x3_s2_0_split -> pool4/3x3_s2_pool4/3x3_s2_0_split_0
I0403 15:06:38.806524 11606 net.cpp:399] pool4/3x3_s2_pool4/3x3_s2_0_split -> pool4/3x3_s2_pool4/3x3_s2_0_split_1
I0403 15:06:38.806542 11606 net.cpp:399] pool4/3x3_s2_pool4/3x3_s2_0_split -> pool4/3x3_s2_pool4/3x3_s2_0_split_2
I0403 15:06:38.806560 11606 net.cpp:399] pool4/3x3_s2_pool4/3x3_s2_0_split -> pool4/3x3_s2_pool4/3x3_s2_0_split_3
I0403 15:06:38.806648 11606 net.cpp:141] Setting up pool4/3x3_s2_pool4/3x3_s2_0_split
I0403 15:06:38.806671 11606 net.cpp:148] Top shape: 24 832 7 7 (978432)
I0403 15:06:38.806686 11606 net.cpp:148] Top shape: 24 832 7 7 (978432)
I0403 15:06:38.806701 11606 net.cpp:148] Top shape: 24 832 7 7 (978432)
I0403 15:06:38.806715 11606 net.cpp:148] Top shape: 24 832 7 7 (978432)
I0403 15:06:38.806728 11606 net.cpp:156] Memory required for data: 1292125728
I0403 15:06:38.806742 11606 layer_factory.hpp:77] Creating layer inception_5a/1x1
I0403 15:06:38.806763 11606 net.cpp:91] Creating Layer inception_5a/1x1
I0403 15:06:38.806780 11606 net.cpp:425] inception_5a/1x1 <- pool4/3x3_s2_pool4/3x3_s2_0_split_0
I0403 15:06:38.806800 11606 net.cpp:399] inception_5a/1x1 -> inception_5a/1x1
I0403 15:06:38.809581 11606 net.cpp:141] Setting up inception_5a/1x1
I0403 15:06:38.809608 11606 net.cpp:148] Top shape: 24 256 7 7 (301056)
I0403 15:06:38.809623 11606 net.cpp:156] Memory required for data: 1293329952
I0403 15:06:38.809641 11606 layer_factory.hpp:77] Creating layer inception_5a/relu_1x1
I0403 15:06:38.809660 11606 net.cpp:91] Creating Layer inception_5a/relu_1x1
I0403 15:06:38.809676 11606 net.cpp:425] inception_5a/relu_1x1 <- inception_5a/1x1
I0403 15:06:38.809694 11606 net.cpp:386] inception_5a/relu_1x1 -> inception_5a/1x1 (in-place)
I0403 15:06:38.809999 11606 net.cpp:141] Setting up inception_5a/relu_1x1
I0403 15:06:38.810025 11606 net.cpp:148] Top shape: 24 256 7 7 (301056)
I0403 15:06:38.810039 11606 net.cpp:156] Memory required for data: 1294534176
I0403 15:06:38.810053 11606 layer_factory.hpp:77] Creating layer inception_5a/3x3_reduce
I0403 15:06:38.810075 11606 net.cpp:91] Creating Layer inception_5a/3x3_reduce
I0403 15:06:38.810093 11606 net.cpp:425] inception_5a/3x3_reduce <- pool4/3x3_s2_pool4/3x3_s2_0_split_1
I0403 15:06:38.810114 11606 net.cpp:399] inception_5a/3x3_reduce -> inception_5a/3x3_reduce
I0403 15:06:38.812584 11606 net.cpp:141] Setting up inception_5a/3x3_reduce
I0403 15:06:38.812615 11606 net.cpp:148] Top shape: 24 160 7 7 (188160)
I0403 15:06:38.812633 11606 net.cpp:156] Memory required for data: 1295286816
I0403 15:06:38.812651 11606 layer_factory.hpp:77] Creating layer inception_5a/relu_3x3_reduce
I0403 15:06:38.812669 11606 net.cpp:91] Creating Layer inception_5a/relu_3x3_reduce
I0403 15:06:38.812685 11606 net.cpp:425] inception_5a/relu_3x3_reduce <- inception_5a/3x3_reduce
I0403 15:06:38.812705 11606 net.cpp:386] inception_5a/relu_3x3_reduce -> inception_5a/3x3_reduce (in-place)
I0403 15:06:38.812892 11606 net.cpp:141] Setting up inception_5a/relu_3x3_reduce
I0403 15:06:38.812917 11606 net.cpp:148] Top shape: 24 160 7 7 (188160)
I0403 15:06:38.812932 11606 net.cpp:156] Memory required for data: 1296039456
I0403 15:06:38.812947 11606 layer_factory.hpp:77] Creating layer inception_5a/3x3
I0403 15:06:38.812968 11606 net.cpp:91] Creating Layer inception_5a/3x3
I0403 15:06:38.812986 11606 net.cpp:425] inception_5a/3x3 <- inception_5a/3x3_reduce
I0403 15:06:38.813007 11606 net.cpp:399] inception_5a/3x3 -> inception_5a/3x3
I0403 15:06:38.818089 11606 net.cpp:141] Setting up inception_5a/3x3
I0403 15:06:38.818119 11606 net.cpp:148] Top shape: 24 320 7 7 (376320)
I0403 15:06:38.818135 11606 net.cpp:156] Memory required for data: 1297544736
I0403 15:06:38.818152 11606 layer_factory.hpp:77] Creating layer inception_5a/relu_3x3
I0403 15:06:38.818172 11606 net.cpp:91] Creating Layer inception_5a/relu_3x3
I0403 15:06:38.818188 11606 net.cpp:425] inception_5a/relu_3x3 <- inception_5a/3x3
I0403 15:06:38.818205 11606 net.cpp:386] inception_5a/relu_3x3 -> inception_5a/3x3 (in-place)
I0403 15:06:38.818503 11606 net.cpp:141] Setting up inception_5a/relu_3x3
I0403 15:06:38.818529 11606 net.cpp:148] Top shape: 24 320 7 7 (376320)
I0403 15:06:38.818544 11606 net.cpp:156] Memory required for data: 1299050016
I0403 15:06:38.818559 11606 layer_factory.hpp:77] Creating layer inception_5a/5x5_reduce
I0403 15:06:38.818581 11606 net.cpp:91] Creating Layer inception_5a/5x5_reduce
I0403 15:06:38.818599 11606 net.cpp:425] inception_5a/5x5_reduce <- pool4/3x3_s2_pool4/3x3_s2_0_split_2
I0403 15:06:38.818648 11606 net.cpp:399] inception_5a/5x5_reduce -> inception_5a/5x5_reduce
I0403 15:06:38.819886 11606 net.cpp:141] Setting up inception_5a/5x5_reduce
I0403 15:06:38.819916 11606 net.cpp:148] Top shape: 24 32 7 7 (37632)
I0403 15:06:38.819931 11606 net.cpp:156] Memory required for data: 1299200544
I0403 15:06:38.819949 11606 layer_factory.hpp:77] Creating layer inception_5a/relu_5x5_reduce
I0403 15:06:38.819968 11606 net.cpp:91] Creating Layer inception_5a/relu_5x5_reduce
I0403 15:06:38.819986 11606 net.cpp:425] inception_5a/relu_5x5_reduce <- inception_5a/5x5_reduce
I0403 15:06:38.820004 11606 net.cpp:386] inception_5a/relu_5x5_reduce -> inception_5a/5x5_reduce (in-place)
I0403 15:06:38.820307 11606 net.cpp:141] Setting up inception_5a/relu_5x5_reduce
I0403 15:06:38.820333 11606 net.cpp:148] Top shape: 24 32 7 7 (37632)
I0403 15:06:38.820346 11606 net.cpp:156] Memory required for data: 1299351072
I0403 15:06:38.820361 11606 layer_factory.hpp:77] Creating layer inception_5a/5x5
I0403 15:06:38.820390 11606 net.cpp:91] Creating Layer inception_5a/5x5
I0403 15:06:38.820410 11606 net.cpp:425] inception_5a/5x5 <- inception_5a/5x5_reduce
I0403 15:06:38.820435 11606 net.cpp:399] inception_5a/5x5 -> inception_5a/5x5
I0403 15:06:38.822199 11606 net.cpp:141] Setting up inception_5a/5x5
I0403 15:06:38.822242 11606 net.cpp:148] Top shape: 24 128 7 7 (150528)
I0403 15:06:38.822257 11606 net.cpp:156] Memory required for data: 1299953184
I0403 15:06:38.822298 11606 layer_factory.hpp:77] Creating layer inception_5a/relu_5x5
I0403 15:06:38.822346 11606 net.cpp:91] Creating Layer inception_5a/relu_5x5
I0403 15:06:38.822366 11606 net.cpp:425] inception_5a/relu_5x5 <- inception_5a/5x5
I0403 15:06:38.822397 11606 net.cpp:386] inception_5a/relu_5x5 -> inception_5a/5x5 (in-place)
I0403 15:06:38.822597 11606 net.cpp:141] Setting up inception_5a/relu_5x5
I0403 15:06:38.822621 11606 net.cpp:148] Top shape: 24 128 7 7 (150528)
I0403 15:06:38.822636 11606 net.cpp:156] Memory required for data: 1300555296
I0403 15:06:38.822651 11606 layer_factory.hpp:77] Creating layer inception_5a/pool
I0403 15:06:38.822671 11606 net.cpp:91] Creating Layer inception_5a/pool
I0403 15:06:38.822690 11606 net.cpp:425] inception_5a/pool <- pool4/3x3_s2_pool4/3x3_s2_0_split_3
I0403 15:06:38.822708 11606 net.cpp:399] inception_5a/pool -> inception_5a/pool
I0403 15:06:38.822782 11606 net.cpp:141] Setting up inception_5a/pool
I0403 15:06:38.822805 11606 net.cpp:148] Top shape: 24 832 7 7 (978432)
I0403 15:06:38.822820 11606 net.cpp:156] Memory required for data: 1304469024
I0403 15:06:38.822835 11606 layer_factory.hpp:77] Creating layer inception_5a/pool_proj
I0403 15:06:38.822870 11606 net.cpp:91] Creating Layer inception_5a/pool_proj
I0403 15:06:38.822888 11606 net.cpp:425] inception_5a/pool_proj <- inception_5a/pool
I0403 15:06:38.822909 11606 net.cpp:399] inception_5a/pool_proj -> inception_5a/pool_proj
I0403 15:06:38.825284 11606 net.cpp:141] Setting up inception_5a/pool_proj
I0403 15:06:38.825314 11606 net.cpp:148] Top shape: 24 128 7 7 (150528)
I0403 15:06:38.825330 11606 net.cpp:156] Memory required for data: 1305071136
I0403 15:06:38.825347 11606 layer_factory.hpp:77] Creating layer inception_5a/relu_pool_proj
I0403 15:06:38.825366 11606 net.cpp:91] Creating Layer inception_5a/relu_pool_proj
I0403 15:06:38.825387 11606 net.cpp:425] inception_5a/relu_pool_proj <- inception_5a/pool_proj
I0403 15:06:38.825409 11606 net.cpp:386] inception_5a/relu_pool_proj -> inception_5a/pool_proj (in-place)
I0403 15:06:38.825716 11606 net.cpp:141] Setting up inception_5a/relu_pool_proj
I0403 15:06:38.825743 11606 net.cpp:148] Top shape: 24 128 7 7 (150528)
I0403 15:06:38.825759 11606 net.cpp:156] Memory required for data: 1305673248
I0403 15:06:38.825774 11606 layer_factory.hpp:77] Creating layer inception_5a/output
I0403 15:06:38.825791 11606 net.cpp:91] Creating Layer inception_5a/output
I0403 15:06:38.825808 11606 net.cpp:425] inception_5a/output <- inception_5a/1x1
I0403 15:06:38.825824 11606 net.cpp:425] inception_5a/output <- inception_5a/3x3
I0403 15:06:38.825840 11606 net.cpp:425] inception_5a/output <- inception_5a/5x5
I0403 15:06:38.825856 11606 net.cpp:425] inception_5a/output <- inception_5a/pool_proj
I0403 15:06:38.825876 11606 net.cpp:399] inception_5a/output -> inception_5a/output
I0403 15:06:38.825927 11606 net.cpp:141] Setting up inception_5a/output
I0403 15:06:38.825956 11606 net.cpp:148] Top shape: 24 832 7 7 (978432)
I0403 15:06:38.825973 11606 net.cpp:156] Memory required for data: 1309586976
I0403 15:06:38.825989 11606 layer_factory.hpp:77] Creating layer inception_5a/output_inception_5a/output_0_split
I0403 15:06:38.826005 11606 net.cpp:91] Creating Layer inception_5a/output_inception_5a/output_0_split
I0403 15:06:38.826020 11606 net.cpp:425] inception_5a/output_inception_5a/output_0_split <- inception_5a/output
I0403 15:06:38.826038 11606 net.cpp:399] inception_5a/output_inception_5a/output_0_split -> inception_5a/output_inception_5a/output_0_split_0
I0403 15:06:38.826058 11606 net.cpp:399] inception_5a/output_inception_5a/output_0_split -> inception_5a/output_inception_5a/output_0_split_1
I0403 15:06:38.826081 11606 net.cpp:399] inception_5a/output_inception_5a/output_0_split -> inception_5a/output_inception_5a/output_0_split_2
I0403 15:06:38.826104 11606 net.cpp:399] inception_5a/output_inception_5a/output_0_split -> inception_5a/output_inception_5a/output_0_split_3
I0403 15:06:38.826220 11606 net.cpp:141] Setting up inception_5a/output_inception_5a/output_0_split
I0403 15:06:38.826244 11606 net.cpp:148] Top shape: 24 832 7 7 (978432)
I0403 15:06:38.826261 11606 net.cpp:148] Top shape: 24 832 7 7 (978432)
I0403 15:06:38.826277 11606 net.cpp:148] Top shape: 24 832 7 7 (978432)
I0403 15:06:38.826293 11606 net.cpp:148] Top shape: 24 832 7 7 (978432)
I0403 15:06:38.826306 11606 net.cpp:156] Memory required for data: 1325241888
I0403 15:06:38.826321 11606 layer_factory.hpp:77] Creating layer inception_5b/1x1
I0403 15:06:38.826344 11606 net.cpp:91] Creating Layer inception_5b/1x1
I0403 15:06:38.826361 11606 net.cpp:425] inception_5b/1x1 <- inception_5a/output_inception_5a/output_0_split_0
I0403 15:06:38.826388 11606 net.cpp:399] inception_5b/1x1 -> inception_5b/1x1
I0403 15:06:38.830301 11606 net.cpp:141] Setting up inception_5b/1x1
I0403 15:06:38.830333 11606 net.cpp:148] Top shape: 24 384 7 7 (451584)
I0403 15:06:38.830349 11606 net.cpp:156] Memory required for data: 1327048224
I0403 15:06:38.830368 11606 layer_factory.hpp:77] Creating layer inception_5b/relu_1x1
I0403 15:06:38.830392 11606 net.cpp:91] Creating Layer inception_5b/relu_1x1
I0403 15:06:38.830410 11606 net.cpp:425] inception_5b/relu_1x1 <- inception_5b/1x1
I0403 15:06:38.830430 11606 net.cpp:386] inception_5b/relu_1x1 -> inception_5b/1x1 (in-place)
I0403 15:06:38.830744 11606 net.cpp:141] Setting up inception_5b/relu_1x1
I0403 15:06:38.830773 11606 net.cpp:148] Top shape: 24 384 7 7 (451584)
I0403 15:06:38.830790 11606 net.cpp:156] Memory required for data: 1328854560
I0403 15:06:38.830806 11606 layer_factory.hpp:77] Creating layer inception_5b/3x3_reduce
I0403 15:06:38.830828 11606 net.cpp:91] Creating Layer inception_5b/3x3_reduce
I0403 15:06:38.830870 11606 net.cpp:425] inception_5b/3x3_reduce <- inception_5a/output_inception_5a/output_0_split_1
I0403 15:06:38.830917 11606 net.cpp:399] inception_5b/3x3_reduce -> inception_5b/3x3_reduce
I0403 15:06:38.833744 11606 net.cpp:141] Setting up inception_5b/3x3_reduce
I0403 15:06:38.833773 11606 net.cpp:148] Top shape: 24 192 7 7 (225792)
I0403 15:06:38.833789 11606 net.cpp:156] Memory required for data: 1329757728
I0403 15:06:38.833808 11606 layer_factory.hpp:77] Creating layer inception_5b/relu_3x3_reduce
I0403 15:06:38.833827 11606 net.cpp:91] Creating Layer inception_5b/relu_3x3_reduce
I0403 15:06:38.833843 11606 net.cpp:425] inception_5b/relu_3x3_reduce <- inception_5b/3x3_reduce
I0403 15:06:38.833863 11606 net.cpp:386] inception_5b/relu_3x3_reduce -> inception_5b/3x3_reduce (in-place)
I0403 15:06:38.834063 11606 net.cpp:141] Setting up inception_5b/relu_3x3_reduce
I0403 15:06:38.834089 11606 net.cpp:148] Top shape: 24 192 7 7 (225792)
I0403 15:06:38.834103 11606 net.cpp:156] Memory required for data: 1330660896
I0403 15:06:38.834118 11606 layer_factory.hpp:77] Creating layer inception_5b/3x3
I0403 15:06:38.834141 11606 net.cpp:91] Creating Layer inception_5b/3x3
I0403 15:06:38.834159 11606 net.cpp:425] inception_5b/3x3 <- inception_5b/3x3_reduce
I0403 15:06:38.834182 11606 net.cpp:399] inception_5b/3x3 -> inception_5b/3x3
I0403 15:06:38.841256 11606 net.cpp:141] Setting up inception_5b/3x3
I0403 15:06:38.841289 11606 net.cpp:148] Top shape: 24 384 7 7 (451584)
I0403 15:06:38.841303 11606 net.cpp:156] Memory required for data: 1332467232
I0403 15:06:38.841321 11606 layer_factory.hpp:77] Creating layer inception_5b/relu_3x3
I0403 15:06:38.841341 11606 net.cpp:91] Creating Layer inception_5b/relu_3x3
I0403 15:06:38.841356 11606 net.cpp:425] inception_5b/relu_3x3 <- inception_5b/3x3
I0403 15:06:38.841375 11606 net.cpp:386] inception_5b/relu_3x3 -> inception_5b/3x3 (in-place)
I0403 15:06:38.841689 11606 net.cpp:141] Setting up inception_5b/relu_3x3
I0403 15:06:38.841717 11606 net.cpp:148] Top shape: 24 384 7 7 (451584)
I0403 15:06:38.841732 11606 net.cpp:156] Memory required for data: 1334273568
I0403 15:06:38.841747 11606 layer_factory.hpp:77] Creating layer inception_5b/5x5_reduce
I0403 15:06:38.841789 11606 net.cpp:91] Creating Layer inception_5b/5x5_reduce
I0403 15:06:38.841807 11606 net.cpp:425] inception_5b/5x5_reduce <- inception_5a/output_inception_5a/output_0_split_2
I0403 15:06:38.841830 11606 net.cpp:399] inception_5b/5x5_reduce -> inception_5b/5x5_reduce
I0403 15:06:38.843123 11606 net.cpp:141] Setting up inception_5b/5x5_reduce
I0403 15:06:38.843183 11606 net.cpp:148] Top shape: 24 48 7 7 (56448)
I0403 15:06:38.843225 11606 net.cpp:156] Memory required for data: 1334499360
I0403 15:06:38.843251 11606 layer_factory.hpp:77] Creating layer inception_5b/relu_5x5_reduce
I0403 15:06:38.843268 11606 net.cpp:91] Creating Layer inception_5b/relu_5x5_reduce
I0403 15:06:38.843284 11606 net.cpp:425] inception_5b/relu_5x5_reduce <- inception_5b/5x5_reduce
I0403 15:06:38.843312 11606 net.cpp:386] inception_5b/relu_5x5_reduce -> inception_5b/5x5_reduce (in-place)
I0403 15:06:38.843704 11606 net.cpp:141] Setting up inception_5b/relu_5x5_reduce
I0403 15:06:38.843730 11606 net.cpp:148] Top shape: 24 48 7 7 (56448)
I0403 15:06:38.843745 11606 net.cpp:156] Memory required for data: 1334725152
I0403 15:06:38.843760 11606 layer_factory.hpp:77] Creating layer inception_5b/5x5
I0403 15:06:38.843780 11606 net.cpp:91] Creating Layer inception_5b/5x5
I0403 15:06:38.843796 11606 net.cpp:425] inception_5b/5x5 <- inception_5b/5x5_reduce
I0403 15:06:38.843814 11606 net.cpp:399] inception_5b/5x5 -> inception_5b/5x5
I0403 15:06:38.845932 11606 net.cpp:141] Setting up inception_5b/5x5
I0403 15:06:38.845960 11606 net.cpp:148] Top shape: 24 128 7 7 (150528)
I0403 15:06:38.845976 11606 net.cpp:156] Memory required for data: 1335327264
I0403 15:06:38.845994 11606 layer_factory.hpp:77] Creating layer inception_5b/relu_5x5
I0403 15:06:38.846014 11606 net.cpp:91] Creating Layer inception_5b/relu_5x5
I0403 15:06:38.846031 11606 net.cpp:425] inception_5b/relu_5x5 <- inception_5b/5x5
I0403 15:06:38.846048 11606 net.cpp:386] inception_5b/relu_5x5 -> inception_5b/5x5 (in-place)
I0403 15:06:38.846241 11606 net.cpp:141] Setting up inception_5b/relu_5x5
I0403 15:06:38.846267 11606 net.cpp:148] Top shape: 24 128 7 7 (150528)
I0403 15:06:38.846283 11606 net.cpp:156] Memory required for data: 1335929376
I0403 15:06:38.846298 11606 layer_factory.hpp:77] Creating layer inception_5b/pool
I0403 15:06:38.846317 11606 net.cpp:91] Creating Layer inception_5b/pool
I0403 15:06:38.846333 11606 net.cpp:425] inception_5b/pool <- inception_5a/output_inception_5a/output_0_split_3
I0403 15:06:38.846350 11606 net.cpp:399] inception_5b/pool -> inception_5b/pool
I0403 15:06:38.846462 11606 net.cpp:141] Setting up inception_5b/pool
I0403 15:06:38.846487 11606 net.cpp:148] Top shape: 24 832 7 7 (978432)
I0403 15:06:38.846500 11606 net.cpp:156] Memory required for data: 1339843104
I0403 15:06:38.846515 11606 layer_factory.hpp:77] Creating layer inception_5b/pool_proj
I0403 15:06:38.846537 11606 net.cpp:91] Creating Layer inception_5b/pool_proj
I0403 15:06:38.846554 11606 net.cpp:425] inception_5b/pool_proj <- inception_5b/pool
I0403 15:06:38.846575 11606 net.cpp:399] inception_5b/pool_proj -> inception_5b/pool_proj
I0403 15:06:38.848932 11606 net.cpp:141] Setting up inception_5b/pool_proj
I0403 15:06:38.848961 11606 net.cpp:148] Top shape: 24 128 7 7 (150528)
I0403 15:06:38.848976 11606 net.cpp:156] Memory required for data: 1340445216
I0403 15:06:38.848994 11606 layer_factory.hpp:77] Creating layer inception_5b/relu_pool_proj
I0403 15:06:38.849014 11606 net.cpp:91] Creating Layer inception_5b/relu_pool_proj
I0403 15:06:38.849031 11606 net.cpp:425] inception_5b/relu_pool_proj <- inception_5b/pool_proj
I0403 15:06:38.849048 11606 net.cpp:386] inception_5b/relu_pool_proj -> inception_5b/pool_proj (in-place)
I0403 15:06:38.849346 11606 net.cpp:141] Setting up inception_5b/relu_pool_proj
I0403 15:06:38.849372 11606 net.cpp:148] Top shape: 24 128 7 7 (150528)
I0403 15:06:38.849393 11606 net.cpp:156] Memory required for data: 1341047328
I0403 15:06:38.849409 11606 layer_factory.hpp:77] Creating layer inception_5b/output
I0403 15:06:38.849427 11606 net.cpp:91] Creating Layer inception_5b/output
I0403 15:06:38.849457 11606 net.cpp:425] inception_5b/output <- inception_5b/1x1
I0403 15:06:38.849477 11606 net.cpp:425] inception_5b/output <- inception_5b/3x3
I0403 15:06:38.849493 11606 net.cpp:425] inception_5b/output <- inception_5b/5x5
I0403 15:06:38.849508 11606 net.cpp:425] inception_5b/output <- inception_5b/pool_proj
I0403 15:06:38.849526 11606 net.cpp:399] inception_5b/output -> inception_5b/output
I0403 15:06:38.849578 11606 net.cpp:141] Setting up inception_5b/output
I0403 15:06:38.849604 11606 net.cpp:148] Top shape: 24 1024 7 7 (1204224)
I0403 15:06:38.849620 11606 net.cpp:156] Memory required for data: 1345864224
I0403 15:06:38.849635 11606 layer_factory.hpp:77] Creating layer pool5/7x7_s1
I0403 15:06:38.849653 11606 net.cpp:91] Creating Layer pool5/7x7_s1
I0403 15:06:38.849668 11606 net.cpp:425] pool5/7x7_s1 <- inception_5b/output
I0403 15:06:38.849689 11606 net.cpp:399] pool5/7x7_s1 -> pool5/7x7_s1
I0403 15:06:38.849905 11606 net.cpp:141] Setting up pool5/7x7_s1
I0403 15:06:38.849931 11606 net.cpp:148] Top shape: 24 1024 1 1 (24576)
I0403 15:06:38.849946 11606 net.cpp:156] Memory required for data: 1345962528
I0403 15:06:38.849961 11606 layer_factory.hpp:77] Creating layer pool5/drop_7x7_s1
I0403 15:06:38.849977 11606 net.cpp:91] Creating Layer pool5/drop_7x7_s1
I0403 15:06:38.849995 11606 net.cpp:425] pool5/drop_7x7_s1 <- pool5/7x7_s1
I0403 15:06:38.850013 11606 net.cpp:386] pool5/drop_7x7_s1 -> pool5/7x7_s1 (in-place)
I0403 15:06:38.850062 11606 net.cpp:141] Setting up pool5/drop_7x7_s1
I0403 15:06:38.850087 11606 net.cpp:148] Top shape: 24 1024 1 1 (24576)
I0403 15:06:38.850102 11606 net.cpp:156] Memory required for data: 1346060832
I0403 15:06:38.850117 11606 layer_factory.hpp:77] Creating layer loss3/classifier_plantvillage
I0403 15:06:38.850136 11606 net.cpp:91] Creating Layer loss3/classifier_plantvillage
I0403 15:06:38.850152 11606 net.cpp:425] loss3/classifier_plantvillage <- pool5/7x7_s1
I0403 15:06:38.850172 11606 net.cpp:399] loss3/classifier_plantvillage -> loss3/classifier_plantvillage
I0403 15:06:38.850605 11606 net.cpp:141] Setting up loss3/classifier_plantvillage
I0403 15:06:38.850636 11606 net.cpp:148] Top shape: 24 38 (912)
I0403 15:06:38.850649 11606 net.cpp:156] Memory required for data: 1346064480
I0403 15:06:38.850666 11606 layer_factory.hpp:77] Creating layer loss3/classifier_plantvillage_loss3/classifier_plantvillage_0_split
I0403 15:06:38.850684 11606 net.cpp:91] Creating Layer loss3/classifier_plantvillage_loss3/classifier_plantvillage_0_split
I0403 15:06:38.850700 11606 net.cpp:425] loss3/classifier_plantvillage_loss3/classifier_plantvillage_0_split <- loss3/classifier_plantvillage
I0403 15:06:38.850718 11606 net.cpp:399] loss3/classifier_plantvillage_loss3/classifier_plantvillage_0_split -> loss3/classifier_plantvillage_loss3/classifier_plantvillage_0_split_0
I0403 15:06:38.850740 11606 net.cpp:399] loss3/classifier_plantvillage_loss3/classifier_plantvillage_0_split -> loss3/classifier_plantvillage_loss3/classifier_plantvillage_0_split_1
I0403 15:06:38.850761 11606 net.cpp:399] loss3/classifier_plantvillage_loss3/classifier_plantvillage_0_split -> loss3/classifier_plantvillage_loss3/classifier_plantvillage_0_split_2
I0403 15:06:38.850781 11606 net.cpp:399] loss3/classifier_plantvillage_loss3/classifier_plantvillage_0_split -> loss3/classifier_plantvillage_loss3/classifier_plantvillage_0_split_3
I0403 15:06:38.850883 11606 net.cpp:141] Setting up loss3/classifier_plantvillage_loss3/classifier_plantvillage_0_split
I0403 15:06:38.850906 11606 net.cpp:148] Top shape: 24 38 (912)
I0403 15:06:38.850921 11606 net.cpp:148] Top shape: 24 38 (912)
I0403 15:06:38.850937 11606 net.cpp:148] Top shape: 24 38 (912)
I0403 15:06:38.850952 11606 net.cpp:148] Top shape: 24 38 (912)
I0403 15:06:38.850965 11606 net.cpp:156] Memory required for data: 1346079072
I0403 15:06:38.850980 11606 layer_factory.hpp:77] Creating layer loss1/loss
I0403 15:06:38.851002 11606 net.cpp:91] Creating Layer loss1/loss
I0403 15:06:38.851021 11606 net.cpp:425] loss1/loss <- loss1/classifier_plantvillage_loss1/classifier_plantvillage_0_split_0
I0403 15:06:38.851050 11606 net.cpp:425] loss1/loss <- label_data_1_split_0
…
