…
I0403 15:13:33.413183 11726 net.cpp:313] The NetState phase (1) differed from the phase (0) specified by a rule in layer data
I0403 15:13:33.414324 11726 net.cpp:49] Initializing net from parameters: 
state {
  phase: TEST
}
layer {
  name: "data"
  type: "Data"
  top: "data"
  top: "label"
  include {
    phase: TEST
  }
  transform_param {
    mirror: false
    crop_size: 224
    mean_file: "/home/mohanty/data/final_dataset/lmdb/segmented-50-50/mean.binaryproto"
  }
  data_param {
    source: "/home/mohanty/data/final_dataset/lmdb/segmented-50-50/test_db"
    batch_size: 24
    backend: LMDB
  }
}
layer {
  name: "conv1/7x7_s2"
  type: "Convolution"
  bottom: "data"
  top: "conv1/7x7_s2"
  param {
    lr_mult: 1
    decay_mult: 1
  }
  param {
    lr_mult: 2
    decay_mult: 0
  }
  convolution_param {
    num_output: 64
    pad: 3
    kernel_size: 7
    stride: 2
    weight_filler {
      type: "xavier"
      std: 0.1
    }
    bias_filler {
      type: "constant"
      value: 0.2
    }
  }
}
layer {
  name: "conv1/relu_7x7"
  type: "ReLU"
  bottom: "conv1/7x7_s2"
  top: "conv1/7x7_s2"
}
layer {
  name: "pool1/3x3_s2"
  type: "Pooling"
  bottom: "conv1/7x7_s2"
  top: "pool1/3x3_s2"
  pooling_param {
    pool: MAX
    kernel_size: 3
    stride: 2
  }
}
layer {
  name: "pool1/norm1"
  type: "LRN"
  bottom: "pool1/3x3_s2"
  top: "pool1/norm1"
  lrn_param {
    local_size: 5
    alpha: 0.0001
    beta: 0.75
  }
}
layer {
  name: "conv2/3x3_reduce"
  type: "Convolution"
  bottom: "pool1/norm1"
  top: "conv2/3x3_reduce"
  param {
    lr_mult: 1
    decay_mult: 1
  }
  param {
    lr_mult: 2
    decay_mult: 0
  }
  convolution_param {
    num_output: 64
    kernel_size: 1
    weight_filler {
      type: "xavier"
      std: 0.1
    }
    bias_filler {
      type: "constant"
      value: 0.2
    }
  }
}
layer {
  name: "conv2/relu_3x3_reduce"
  type: "ReLU"
  bottom: "conv2/3x3_reduce"
  top: "conv2/3x3_reduce"
}
layer {
  name: "conv2/3x3"
  type: "Convolution"
  bottom: "conv2/3x3_reduce"
  top: "conv2/3x3"
  param {
    lr_mult: 1
    decay_mult: 1
  }
  param {
    lr_mult: 2
    decay_mult: 0
  }
  convolution_param {
    num_output: 192
    pad: 1
    kernel_size: 3
    weight_filler {
      type: "xavier"
      std: 0.03
    }
    bias_filler {
      type: "constant"
      value: 0.2
    }
  }
}
layer {
  name: "conv2/relu_3x3"
  type: "ReLU"
  bottom: "conv2/3x3"
  top: "conv2/3x3"
}
layer {
  name: "conv2/norm2"
  type: "LRN"
  bottom: "conv2/3x3"
  top: "conv2/norm2"
  lrn_param {
    local_size: 5
    alpha: 0.0001
    beta: 0.75
  }
}
layer {
  name: "pool2/3x3_s2"
  type: "Pooling"
  bottom: "conv2/norm2"
  top: "pool2/3x3_s2"
  pooling_param {
    pool: MAX
    kernel_size: 3
    stride: 2
  }
}
layer {
  name: "inception_3a/1x1"
  type: "Convolution"
  bottom: "pool2/3x3_s2"
  top: "inception_3a/1x1"
  param {
    lr_mult: 1
    decay_mult: 1
  }
  param {
    lr_mult: 2
    decay_mult: 0
  }
  convolution_param {
    num_output: 64
    kernel_size: 1
    weight_filler {
      type: "xavier"
      std: 0.03
    }
    bias_filler {
      type: "constant"
      value: 0.2
    }
  }
}
layer {
  name: "inception_3a/relu_1x1"
  type: "ReLU"
  bottom: "inception_3a/1x1"
  top: "inception_3a/1x1"
}
layer {
  name: "inception_3a/3x3_reduce"
  type: "Convolution"
  bottom: "pool2/3x3_s2"
  top: "inception_3a/3x3_reduce"
  param {
    lr_mult: 1
    decay_mult: 1
  }
  param {
    lr_mult: 2
    decay_mult: 0
  }
  convolution_param {
    num_output: 96
    kernel_size: 1
    weight_filler {
      type: "xavier"
      std: 0.09
    }
    bias_filler {
      type: "constant"
      value: 0.2
    }
  }
}
layer {
  name: "inception_3a/relu_3x3_reduce"
  type: "ReLU"
  bottom: "inception_3a/3x3_reduce"
  top: "inception_3a/3x3_reduce"
}
layer {
  name: "inception_3a/3x3"
  type: "Convolution"
  bottom: "inception_3a/3x3_reduce"
  top: "inception_3a/3x3"
  param {
    lr_mult: 1
    decay_mult: 1
  }
  param {
    lr_mult: 2
    decay_mult: 0
  }
  convolution_param {
    num_output: 128
    pad: 1
    kernel_size: 3
    weight_filler {
      type: "xavier"
      std: 0.03
    }
    bias_filler {
      type: "constant"
      value: 0.2
    }
  }
}
layer {
  name: "inception_3a/relu_3x3"
  type: "ReLU"
  bottom: "inception_3a/3x3"
  top: "inception_3a/3x3"
}
layer {
  name: "inception_3a/5x5_reduce"
  type: "Convolution"
  bottom: "pool2/3x3_s2"
  top: "inception_3a/5x5_reduce"
  param {
    lr_mult: 1
    decay_mult: 1
  }
  param {
    lr_mult: 2
    decay_mult: 0
  }
  convolution_param {
    num_output: 16
    kernel_size: 1
    weight_filler {
      type: "xavier"
      std: 0.2
    }
    bias_filler {
      type: "constant"
      value: 0.2
    }
  }
}
layer {
  name: "inception_3a/relu_5x5_reduce"
  type: "ReLU"
  bottom: "inception_3a/5x5_reduce"
  top: "inception_3a/5x5_reduce"
}
layer {
  name: "inception_3a/5x5"
  type: "Convolution"
  bottom: "inception_3a/5x5_reduce"
  top: "inception_3a/5x5"
  param {
    lr_mult: 1
    decay_mult: 1
  }
  param {
    lr_mult: 2
    decay_mult: 0
  }
  convolution_param {
    num_output: 32
    pad: 2
    kernel_size: 5
    weight_filler {
      type: "xavier"
      std: 0.03
    }
    bias_filler {
      type: "constant"
      value: 0.2
    }
  }
}
layer {
  name: "inception_3a/relu_5x5"
  type: "ReLU"
  bottom: "inception_3a/5x5"
  top: "inception_3a/5x5"
}
layer {
  name: "inception_3a/pool"
  type: "Pooling"
  bottom: "pool2/3x3_s2"
  top: "inception_3a/pool"
  pooling_param {
    pool: MAX
    kernel_size: 3
    stride: 1
    pad: 1
  }
}
layer {
  name: "inception_3a/pool_proj"
  type: "Convolution"
  bottom: "inception_3a/pool"
  top: "inception_3a/pool_proj"
  param {
    lr_mult: 1
    decay_mult: 1
  }
  param {
    lr_mult: 2
    decay_mult: 0
  }
  convolution_param {
    num_output: 32
    kernel_size: 1
    weight_filler {
      type: "xavier"
      std: 0.1
    }
    bias_filler {
      type: "constant"
      value: 0.2
    }
  }
}
layer {
  name: "inception_3a/relu_pool_proj"
  type: "ReLU"
  bottom: "inception_3a/pool_proj"
  top: "inception_3a/pool_proj"
}
layer {
  name: "inception_3a/output"
  type: "Concat"
  bottom: "inception_3a/1x1"
  bottom: "inception_3a/3x3"
  bottom: "inception_3a/5x5"
  bottom: "inception_3a/pool_proj"
  top: "inception_3a/output"
}
layer {
  name: "inception_3b/1x1"
  type: "Convolution"
  bottom: "inception_3a/output"
  top: "inception_3b/1x1"
  param {
    lr_mult: 1
    decay_mult: 1
  }
  param {
    lr_mult: 2
    decay_mult: 0
  }
  convolution_param {
    num_output: 128
    kernel_size: 1
    weight_filler {
      type: "xavier"
      std: 0.03
    }
    bias_filler {
      type: "constant"
      value: 0.2
    }
  }
}
layer {
  name: "inception_3b/relu_1x1"
  type: "ReLU"
  bottom: "inception_3b/1x1"
  top: "inception_3b/1x1"
}
layer {
  name: "inception_3b/3x3_reduce"
  type: "Convolution"
  bottom: "inception_3a/output"
  top: "inception_3b/3x3_reduce"
  param {
    lr_mult: 1
    decay_mult: 1
  }
  param {
    lr_mult: 2
    decay_mult: 0
  }
  convolution_param {
    num_output: 128
    kernel_size: 1
    weight_filler {
      type: "xavier"
      std: 0.09
    }
    bias_filler {
      type: "constant"
      value: 0.2
    }
  }
}
layer {
  name: "inception_3b/relu_3x3_reduce"
  type: "ReLU"
  bottom: "inception_3b/3x3_reduce"
  top: "inception_3b/3x3_reduce"
}
layer {
  name: "inception_3b/3x3"
  type: "Convolution"
  bottom: "inception_3b/3x3_reduce"
  top: "inception_3b/3x3"
  param {
    lr_mult: 1
    decay_mult: 1
  }
  param {
    lr_mult: 2
    decay_mult: 0
  }
  convolution_param {
    num_output: 192
    pad: 1
    kernel_size: 3
    weight_filler {
      type: "xavier"
      std: 0.03
    }
    bias_filler {
      type: "constant"
      value: 0.2
    }
  }
}
layer {
  name: "inception_3b/relu_3x3"
  type: "ReLU"
  bottom: "inception_3b/3x3"
  top: "inception_3b/3x3"
}
layer {
  name: "inception_3b/5x5_reduce"
  type: "Convolution"
  bottom: "inception_3a/output"
  top: "inception_3b/5x5_reduce"
  param {
    lr_mult: 1
    decay_mult: 1
  }
  param {
    lr_mult: 2
    decay_mult: 0
  }
  convolution_param {
    num_output: 32
    kernel_size: 1
    weight_filler {
      type: "xavier"
      std: 0.2
    }
    bias_filler {
      type: "constant"
      value: 0.2
    }
  }
}
layer {
  name: "inception_3b/relu_5x5_reduce"
  type: "ReLU"
  bottom: "inception_3b/5x5_reduce"
  top: "inception_3b/5x5_reduce"
}
layer {
  name: "inception_3b/5x5"
  type: "Convolution"
  bottom: "inception_3b/5x5_reduce"
  top: "inception_3b/5x5"
  param {
    lr_mult: 1
    decay_mult: 1
  }
  param {
    lr_mult: 2
    decay_mult: 0
  }
  convolution_param {
    num_output: 96
    pad: 2
    kernel_size: 5
    weight_filler {
      type: "xavier"
      std: 0.03
    }
    bias_filler {
      type: "constant"
      value: 0.2
    }
  }
}
layer {
  name: "inception_3b/relu_5x5"
  type: "ReLU"
  bottom: "inception_3b/5x5"
  top: "inception_3b/5x5"
}
layer {
  name: "inception_3b/pool"
  type: "Pooling"
  bottom: "inception_3a/output"
  top: "inception_3b/pool"
  pooling_param {
    pool: MAX
    kernel_size: 3
    stride: 1
    pad: 1
  }
}
layer {
  name: "inception_3b/pool_proj"
  type: "Convolution"
  bottom: "inception_3b/pool"
  top: "inception_3b/pool_proj"
  param {
    lr_mult: 1
    decay_mult: 1
  }
  param {
    lr_mult: 2
    decay_mult: 0
  }
  convolution_param {
    num_output: 64
    kernel_size: 1
    weight_filler {
      type: "xavier"
      std: 0.1
    }
    bias_filler {
      type: "constant"
      value: 0.2
    }
  }
}
layer {
  name: "inception_3b/relu_pool_proj"
  type: "ReLU"
  bottom: "inception_3b/pool_proj"
  top: "inception_3b/pool_proj"
}
layer {
  name: "inception_3b/output"
  type: "Concat"
  bottom: "inception_3b/1x1"
  bottom: "inception_3b/3x3"
  bottom: "inception_3b/5x5"
  bottom: "inception_3b/pool_proj"
  top: "inception_3b/output"
}
layer {
  name: "pool3/3x3_s2"
  type: "Pooling"
  bottom: "inception_3b/output"
  top: "pool3/3x3_s2"
  pooling_param {
    pool: MAX
    kernel_size: 3
    stride: 2
  }
}
layer {
  name: "inception_4a/1x1"
  type: "Convolution"
  bottom: "pool3/3x3_s2"
  top: "inception_4a/1x1"
  param {
    lr_mult: 1
    decay_mult: 1
  }
  param {
    lr_mult: 2
    decay_mult: 0
  }
  convolution_param {
    num_output: 192
    kernel_size: 1
    weight_filler {
      type: "xavier"
      std: 0.03
    }
    bias_filler {
      type: "constant"
      value: 0.2
    }
  }
}
layer {
  name: "inception_4a/relu_1x1"
  type: "ReLU"
  bottom: "inception_4a/1x1"
  top: "inception_4a/1x1"
}
layer {
  name: "inception_4a/3x3_reduce"
  type: "Convolution"
  bottom: "pool3/3x3_s2"
  top: "inception_4a/3x3_reduce"
  param {
    lr_mult: 1
    decay_mult: 1
  }
  param {
    lr_mult: 2
    decay_mult: 0
  }
  convolution_param {
    num_output: 96
    kernel_size: 1
    weight_filler {
      type: "xavier"
      std: 0.09
    }
    bias_filler {
      type: "constant"
      value: 0.2
    }
  }
}
layer {
  name: "inception_4a/relu_3x3_reduce"
  type: "ReLU"
  bottom: "inception_4a/3x3_reduce"
  top: "inception_4a/3x3_reduce"
}
layer {
  name: "inception_4a/3x3"
  type: "Convolution"
  bottom: "inception_4a/3x3_reduce"
  top: "inception_4a/3x3"
  param {
    lr_mult: 1
    decay_mult: 1
  }
  param {
    lr_mult: 2
    decay_mult: 0
  }
  convolution_param {
    num_output: 208
    pad: 1
    kernel_size: 3
    weight_filler {
      type: "xavier"
      std: 0.03
    }
    bias_filler {
      type: "constant"
      value: 0.2
    }
  }
}
layer {
  name: "inception_4a/relu_3x3"
  type: "ReLU"
  bottom: "inception_4a/3x3"
  top: "inception_4a/3x3"
}
layer {
  name: "inception_4a/5x5_reduce"
  type: "Convolution"
  bottom: "pool3/3x3_s2"
  top: "inception_4a/5x5_reduce"
  param {
    lr_mult: 1
    decay_mult: 1
  }
  param {
    lr_mult: 2
    decay_mult: 0
  }
  convolution_param {
    num_output: 16
    kernel_size: 1
    weight_filler {
      type: "xavier"
      std: 0.2
    }
    bias_filler {
      type: "constant"
      value: 0.2
    }
  }
}
layer {
  name: "inception_4a/relu_5x5_reduce"
  type: "ReLU"
  bottom: "inception_4a/5x5_reduce"
  top: "inception_4a/5x5_reduce"
}
layer {
  name: "inception_4a/5x5"
  type: "Convolution"
  bottom: "inception_4a/5x5_reduce"
  top: "inception_4a/5x5"
  param {
    lr_mult: 1
    decay_mult: 1
  }
  param {
    lr_mult: 2
    decay_mult: 0
  }
  convolution_param {
    num_output: 48
    pad: 2
    kernel_size: 5
    weight_filler {
      type: "xavier"
      std: 0.03
    }
    bias_filler {
      type: "constant"
      value: 0.2
    }
  }
}
layer {
  name: "inception_4a/relu_5x5"
  type: "ReLU"
  bottom: "inception_4a/5x5"
  top: "inception_4a/5x5"
}
layer {
  name: "inception_4a/pool"
  type: "Pooling"
  bottom: "pool3/3x3_s2"
  top: "inception_4a/pool"
  pooling_param {
    pool: MAX
    kernel_size: 3
    stride: 1
    pad: 1
  }
}
layer {
  name: "inception_4a/pool_proj"
  type: "Convolution"
  bottom: "inception_4a/pool"
  top: "inception_4a/pool_proj"
  param {
    lr_mult: 1
    decay_mult: 1
  }
  param {
    lr_mult: 2
    decay_mult: 0
  }
  convolution_param {
    num_output: 64
    kernel_size: 1
    weight_filler {
      type: "xavier"
      std: 0.1
    }
    bias_filler {
      type: "constant"
      value: 0.2
    }
  }
}
layer {
  name: "inception_4a/relu_pool_proj"
  type: "ReLU"
  bottom: "inception_4a/pool_proj"
  top: "inception_4a/pool_proj"
}
layer {
  name: "inception_4a/output"
  type: "Concat"
  bottom: "inception_4a/1x1"
  bottom: "inception_4a/3x3"
  bottom: "inception_4a/5x5"
  bottom: "inception_4a/pool_proj"
  top: "inception_4a/output"
}
layer {
  name: "loss1/ave_pool"
  type: "Pooling"
  bottom: "inception_4a/output"
  top: "loss1/ave_pool"
  pooling_param {
    pool: AVE
    kernel_size: 5
    stride: 3
  }
}
layer {
  name: "loss1/conv"
  type: "Convolution"
  bottom: "loss1/ave_pool"
  top: "loss1/conv"
  param {
    lr_mult: 1
    decay_mult: 1
  }
  param {
    lr_mult: 2
    decay_mult: 0
  }
  convolution_param {
    num_output: 128
    kernel_size: 1
    weight_filler {
      type: "xavier"
      std: 0.08
    }
    bias_filler {
      type: "constant"
      value: 0.2
    }
  }
}
layer {
  name: "loss1/relu_conv"
  type: "ReLU"
  bottom: "loss1/conv"
  top: "loss1/conv"
}
layer {
  name: "loss1/fc"
  type: "InnerProduct"
  bottom: "loss1/conv"
  top: "loss1/fc"
  param {
    lr_mult: 1
    decay_mult: 1
  }
  param {
    lr_mult: 2
    decay_mult: 0
  }
  inner_product_param {
    num_output: 1024
    weight_filler {
      type: "xavier"
      std: 0.02
    }
    bias_filler {
      type: "constant"
      value: 0.2
    }
  }
}
layer {
  name: "loss1/relu_fc"
  type: "ReLU"
  bottom: "loss1/fc"
  top: "loss1/fc"
}
layer {
  name: "loss1/drop_fc"
  type: "Dropout"
  bottom: "loss1/fc"
  top: "loss1/fc"
  dropout_param {
    dropout_ratio: 0.7
  }
}
layer {
  name: "loss1/classifier_plantvillage"
  type: "InnerProduct"
  bottom: "loss1/fc"
  top: "loss1/classifier_plantvillage"
  param {
    lr_mult: 1
    decay_mult: 1
  }
  param {
    lr_mult: 2
    decay_mult: 0
  }
  inner_product_param {
    num_output: 38
    weight_filler {
      type: "xavier"
      std: 0.0009765625
    }
    bias_filler {
      type: "constant"
      value: 0
    }
  }
}
layer {
  name: "inception_4b/1x1"
  type: "Convolution"
  bottom: "inception_4a/output"
  top: "inception_4b/1x1"
  param {
    lr_mult: 1
    decay_mult: 1
  }
  param {
    lr_mult: 2
    decay_mult: 0
  }
  convolution_param {
    num_output: 160
    kernel_size: 1
    weight_filler {
      type: "xavier"
      std: 0.03
    }
    bias_filler {
      type: "constant"
      value: 0.2
    }
  }
}
layer {
  name: "inception_4b/relu_1x1"
  type: "ReLU"
  bottom: "inception_4b/1x1"
  top: "inception_4b/1x1"
}
layer {
  name: "inception_4b/3x3_reduce"
  type: "Convolution"
  bottom: "inception_4a/output"
  top: "inception_4b/3x3_reduce"
  param {
    lr_mult: 1
    decay_mult: 1
  }
  param {
    lr_mult: 2
    decay_mult: 0
  }
  convolution_param {
    num_output: 112
    kernel_size: 1
    weight_filler {
      type: "xavier"
      std: 0.09
    }
    bias_filler {
      type: "constant"
      value: 0.2
    }
  }
}
layer {
  name: "inception_4b/relu_3x3_reduce"
  type: "ReLU"
  bottom: "inception_4b/3x3_reduce"
  top: "inception_4b/3x3_reduce"
}
layer {
  name: "inception_4b/3x3"
  type: "Convolution"
  bottom: "inception_4b/3x3_reduce"
  top: "inception_4b/3x3"
  param {
    lr_mult: 1
    decay_mult: 1
  }
  param {
    lr_mult: 2
    decay_mult: 0
  }
  convolution_param {
    num_output: 224
    pad: 1
    kernel_size: 3
    weight_filler {
      type: "xavier"
      std: 0.03
    }
    bias_filler {
      type: "constant"
      value: 0.2
    }
  }
}
layer {
  name: "inception_4b/relu_3x3"
  type: "ReLU"
  bottom: "inception_4b/3x3"
  top: "inception_4b/3x3"
}
layer {
  name: "inception_4b/5x5_reduce"
  type: "Convolution"
  bottom: "inception_4a/output"
  top: "inception_4b/5x5_reduce"
  param {
    lr_mult: 1
    decay_mult: 1
  }
  param {
    lr_mult: 2
    decay_mult: 0
  }
  convolution_param {
    num_output: 24
    kernel_size: 1
    weight_filler {
      type: "xavier"
      std: 0.2
    }
    bias_filler {
      type: "constant"
      value: 0.2
    }
  }
}
layer {
  name: "inception_4b/relu_5x5_reduce"
  type: "ReLU"
  bottom: "inception_4b/5x5_reduce"
  top: "inception_4b/5x5_reduce"
}
layer {
  name: "inception_4b/5x5"
  type: "Convolution"
  bottom: "inception_4b/5x5_reduce"
  top: "inception_4b/5x5"
  param {
    lr_mult: 1
    decay_mult: 1
  }
  param {
    lr_mult: 2
    decay_mult: 0
  }
  convolution_param {
    num_output: 64
    pad: 2
    kernel_size: 5
    weight_filler {
      type: "xavier"
      std: 0.03
    }
    bias_filler {
      type: "constant"
      value: 0.2
    }
  }
}
layer {
  name: "inception_4b/relu_5x5"
  type: "ReLU"
  bottom: "inception_4b/5x5"
  top: "inception_4b/5x5"
}
layer {
  name: "inception_4b/pool"
  type: "Pooling"
  bottom: "inception_4a/output"
  top: "inception_4b/pool"
  pooling_param {
    pool: MAX
    kernel_size: 3
    stride: 1
    pad: 1
  }
}
layer {
  name: "inception_4b/pool_proj"
  type: "Convolution"
  bottom: "inception_4b/pool"
  top: "inception_4b/pool_proj"
  param {
    lr_mult: 1
    decay_mult: 1
  }
  param {
    lr_mult: 2
    decay_mult: 0
  }
  convolution_param {
    num_output: 64
    kernel_size: 1
    weight_filler {
      type: "xavier"
      std: 0.1
    }
    bias_filler {
      type: "constant"
      value: 0.2
    }
  }
}
layer {
  name: "inception_4b/relu_pool_proj"
  type: "ReLU"
  bottom: "inception_4b/pool_proj"
  top: "inception_4b/pool_proj"
}
layer {
  name: "inception_4b/output"
  type: "Concat"
  bottom: "inception_4b/1x1"
  bottom: "inception_4b/3x3"
  bottom: "inception_4b/5x5"
  bottom: "inception_4b/pool_proj"
  top: "inception_4b/output"
}
layer {
  name: "inception_4c/1x1"
  type: "Convolution"
  bottom: "inception_4b/output"
  top: "inception_4c/1x1"
  param {
    lr_mult: 1
    decay_mult: 1
  }
  param {
    lr_mult: 2
    decay_mult: 0
  }
  convolution_param {
    num_output: 128
    kernel_size: 1
    weight_filler {
      type: "xavier"
      std: 0.03
    }
    bias_filler {
      type: "constant"
      value: 0.2
    }
  }
}
layer {
  name: "inception_4c/relu_1x1"
  type: "ReLU"
  bottom: "inception_4c/1x1"
  top: "inception_4c/1x1"
}
layer {
  name: "inception_4c/3x3_reduce"
  type: "Convolution"
  bottom: "inception_4b/output"
  top: "inception_4c/3x3_reduce"
  param {
    lr_mult: 1
    decay_mult: 1
  }
  param {
    lr_mult: 2
    decay_mult: 0
  }
  convolution_param {
    num_output: 128
    kernel_size: 1
    weight_filler {
      type: "xavier"
      std: 0.09
    }
    bias_filler {
      type: "constant"
      value: 0.2
    }
  }
}
layer {
  name: "inception_4c/relu_3x3_reduce"
  type: "ReLU"
  bottom: "inception_4c/3x3_reduce"
  top: "inception_4c/3x3_reduce"
}
layer {
  name: "inception_4c/3x3"
  type: "Convolution"
  bottom: "inception_4c/3x3_reduce"
  top: "inception_4c/3x3"
  param {
    lr_mult: 1
    decay_mult: 1
  }
  param {
    lr_mult: 2
    decay_mult: 0
  }
  convolution_param {
    num_output: 256
    pad: 1
    kernel_size: 3
    weight_filler {
      type: "xavier"
      std: 0.03
    }
    bias_filler {
      type: "constant"
      value: 0.2
    }
  }
}
layer {
  name: "inception_4c/relu_3x3"
  type: "ReLU"
  bottom: "inception_4c/3x3"
  top: "inception_4c/3x3"
}
layer {
  name: "inception_4c/5x5_reduce"
  type: "Convolution"
  bottom: "inception_4b/output"
  top: "inception_4c/5x5_reduce"
  param {
    lr_mult: 1
    decay_mult: 1
  }
  param {
    lr_mult: 2
    decay_mult: 0
  }
  convolution_param {
    num_output: 24
    kernel_size: 1
    weight_filler {
      type: "xavier"
      std: 0.2
    }
    bias_filler {
      type: "constant"
      value: 0.2
    }
  }
}
layer {
  name: "inception_4c/relu_5x5_reduce"
  type: "ReLU"
  bottom: "inception_4c/5x5_reduce"
  top: "inception_4c/5x5_reduce"
}
layer {
  name: "inception_4c/5x5"
  type: "Convolution"
  bottom: "inception_4c/5x5_reduce"
  top: "inception_4c/5x5"
  param {
    lr_mult: 1
    decay_mult: 1
  }
  param {
    lr_mult: 2
    decay_mult: 0
  }
  convolution_param {
    num_output: 64
    pad: 2
    kernel_size: 5
    weight_filler {
      type: "xavier"
      std: 0.03
    }
    bias_filler {
      type: "constant"
      value: 0.2
    }
  }
}
layer {
  name: "inception_4c/relu_5x5"
  type: "ReLU"
  bottom: "inception_4c/5x5"
  top: "inception_4c/5x5"
}
layer {
  name: "inception_4c/pool"
  type: "Pooling"
  bottom: "inception_4b/output"
  top: "inception_4c/pool"
  pooling_param {
    pool: MAX
    kernel_size: 3
    stride: 1
    pad: 1
  }
}
layer {
  name: "inception_4c/pool_proj"
  type: "Convolution"
  bottom: "inception_4c/pool"
  top: "inception_4c/pool_proj"
  param {
    lr_mult: 1
    decay_mult: 1
  }
  param {
    lr_mult: 2
    decay_mult: 0
  }
  convolution_param {
    num_output: 64
    kernel_size: 1
    weight_filler {
      type: "xavier"
      std: 0.1
    }
    bias_filler {
      type: "constant"
      value: 0.2
    }
  }
}
layer {
  name: "inception_4c/relu_pool_proj"
  type: "ReLU"
  bottom: "inception_4c/pool_proj"
  top: "inception_4c/pool_proj"
}
layer {
  name: "inception_4c/output"
  type: "Concat"
  bottom: "inception_4c/1x1"
  bottom: "inception_4c/3x3"
  bottom: "inception_4c/5x5"
  bottom: "inception_4c/pool_proj"
  top: "inception_4c/output"
}
layer {
  name: "inception_4d/1x1"
  type: "Convolution"
  bottom: "inception_4c/output"
  top: "inception_4d/1x1"
  param {
    lr_mult: 1
    decay_mult: 1
  }
  param {
    lr_mult: 2
    decay_mult: 0
  }
  convolution_param {
    num_output: 112
    kernel_size: 1
    weight_filler {
      type: "xavier"
      std: 0.03
    }
    bias_filler {
      type: "constant"
      value: 0.2
    }
  }
}
layer {
  name: "inception_4d/relu_1x1"
  type: "ReLU"
  bottom: "inception_4d/1x1"
  top: "inception_4d/1x1"
}
layer {
  name: "inception_4d/3x3_reduce"
  type: "Convolution"
  bottom: "inception_4c/output"
  top: "inception_4d/3x3_reduce"
  param {
    lr_mult: 1
    decay_mult: 1
  }
  param {
    lr_mult: 2
    decay_mult: 0
  }
  convolution_param {
    num_output: 144
    kernel_size: 1
    weight_filler {
      type: "xavier"
      std: 0.09
    }
    bias_filler {
      type: "constant"
      value: 0.2
    }
  }
}
layer {
  name: "inception_4d/relu_3x3_reduce"
  type: "ReLU"
  bottom: "inception_4d/3x3_reduce"
  top: "inception_4d/3x3_reduce"
}
layer {
  name: "inception_4d/3x3"
  type: "Convolution"
  bottom: "inception_4d/3x3_reduce"
  top: "inception_4d/3x3"
  param {
    lr_mult: 1
    decay_mult: 1
  }
  param {
    lr_mult: 2
    decay_mult: 0
  }
  convolution_param {
    num_output: 288
    pad: 1
    kernel_size: 3
    weight_filler {
      type: "xavier"
      std: 0.03
    }
    bias_filler {
      type: "constant"
      value: 0.2
    }
  }
}
layer {
  name: "inception_4d/relu_3x3"
  type: "ReLU"
  bottom: "inception_4d/3x3"
  top: "inception_4d/3x3"
}
layer {
  name: "inception_4d/5x5_reduce"
  type: "Convolution"
  bottom: "inception_4c/output"
  top: "inception_4d/5x5_reduce"
  param {
    lr_mult: 1
    decay_mult: 1
  }
  param {
    lr_mult: 2
    decay_mult: 0
  }
  convolution_param {
    num_output: 32
    kernel_size: 1
    weight_filler {
      type: "xavier"
      std: 0.2
    }
    bias_filler {
      type: "constant"
      value: 0.2
    }
  }
}
layer {
  name: "inception_4d/relu_5x5_reduce"
  type: "ReLU"
  bottom: "inception_4d/5x5_reduce"
  top: "inception_4d/5x5_reduce"
}
layer {
  name: "inception_4d/5x5"
  type: "Convolution"
  bottom: "inception_4d/5x5_reduce"
  top: "inception_4d/5x5"
  param {
    lr_mult: 1
    decay_mult: 1
  }
  param {
    lr_mult: 2
    decay_mult: 0
  }
  convolution_param {
    num_output: 64
    pad: 2
    kernel_size: 5
    weight_filler {
      type: "xavier"
      std: 0.03
    }
    bias_filler {
      type: "constant"
      value: 0.2
    }
  }
}
layer {
  name: "inception_4d/relu_5x5"
  type: "ReLU"
  bottom: "inception_4d/5x5"
  top: "inception_4d/5x5"
}
layer {
  name: "inception_4d/pool"
  type: "Pooling"
  bottom: "inception_4c/output"
  top: "inception_4d/pool"
  pooling_param {
    pool: MAX
    kernel_size: 3
    stride: 1
    pad: 1
  }
}
layer {
  name: "inception_4d/pool_proj"
  type: "Convolution"
  bottom: "inception_4d/pool"
  top: "inception_4d/pool_proj"
  param {
    lr_mult: 1
    decay_mult: 1
  }
  param {
    lr_mult: 2
    decay_mult: 0
  }
  convolution_param {
    num_output: 64
    kernel_size: 1
    weight_filler {
      type: "xavier"
      std: 0.1
    }
    bias_filler {
      type: "constant"
      value: 0.2
    }
  }
}
layer {
  name: "inception_4d/relu_pool_proj"
  type: "ReLU"
  bottom: "inception_4d/pool_proj"
  top: "inception_4d/pool_proj"
}
layer {
  name: "inception_4d/output"
  type: "Concat"
  bottom: "inception_4d/1x1"
  bottom: "inception_4d/3x3"
  bottom: "inception_4d/5x5"
  bottom: "inception_4d/pool_proj"
  top: "inception_4d/output"
}
layer {
  name: "loss2/ave_pool"
  type: "Pooling"
  bottom: "inception_4d/output"
  top: "loss2/ave_pool"
  pooling_param {
    pool: AVE
    kernel_size: 5
    stride: 3
  }
}
layer {
  name: "loss2/conv"
  type: "Convolution"
  bottom: "loss2/ave_pool"
  top: "loss2/conv"
  param {
    lr_mult: 1
    decay_mult: 1
  }
  param {
    lr_mult: 2
    decay_mult: 0
  }
  convolution_param {
    num_output: 128
    kernel_size: 1
    weight_filler {
      type: "xavier"
      std: 0.08
    }
    bias_filler {
      type: "constant"
      value: 0.2
    }
  }
}
layer {
  name: "loss2/relu_conv"
  type: "ReLU"
  bottom: "loss2/conv"
  top: "loss2/conv"
}
layer {
  name: "loss2/fc"
  type: "InnerProduct"
  bottom: "loss2/conv"
  top: "loss2/fc"
  param {
    lr_mult: 1
    decay_mult: 1
  }
  param {
    lr_mult: 2
    decay_mult: 0
  }
  inner_product_param {
    num_output: 1024
    weight_filler {
      type: "xavier"
      std: 0.02
    }
    bias_filler {
      type: "constant"
      value: 0.2
    }
  }
}
layer {
  name: "loss2/relu_fc"
  type: "ReLU"
  bottom: "loss2/fc"
  top: "loss2/fc"
}
layer {
  name: "loss2/drop_fc"
  type: "Dropout"
  bottom: "loss2/fc"
  top: "loss2/fc"
  dropout_param {
    dropout_ratio: 0.7
  }
}
layer {
  name: "loss2/classifier_plantvillage"
  type: "InnerProduct"
  bottom: "loss2/fc"
  top: "loss2/classifier_plantvillage"
  param {
    lr_mult: 1
    decay_mult: 1
  }
  param {
    lr_mult: 2
    decay_mult: 0
  }
  inner_product_param {
    num_output: 38
    weight_filler {
      type: "xavier"
      std: 0.0009765625
    }
    bias_filler {
      type: "constant"
      value: 0
    }
  }
}
layer {
  name: "inception_4e/1x1"
  type: "Convolution"
  bottom: "inception_4d/output"
  top: "inception_4e/1x1"
  param {
    lr_mult: 1
    decay_mult: 1
  }
  param {
    lr_mult: 2
    decay_mult: 0
  }
  convolution_param {
    num_output: 256
    kernel_size: 1
    weight_filler {
      type: "xavier"
      std: 0.03
    }
    bias_filler {
      type: "constant"
      value: 0.2
    }
  }
}
layer {
  name: "inception_4e/relu_1x1"
  type: "ReLU"
  bottom: "inception_4e/1x1"
  top: "inception_4e/1x1"
}
layer {
  name: "inception_4e/3x3_reduce"
  type: "Convolution"
  bottom: "inception_4d/output"
  top: "inception_4e/3x3_reduce"
  param {
    lr_mult: 1
    decay_mult: 1
  }
  param {
    lr_mult: 2
    decay_mult: 0
  }
  convolution_param {
    num_output: 160
    kernel_size: 1
    weight_filler {
      type: "xavier"
      std: 0.09
    }
    bias_filler {
      type: "constant"
      value: 0.2
    }
  }
}
layer {
  name: "inception_4e/relu_3x3_reduce"
  type: "ReLU"
  bottom: "inception_4e/3x3_reduce"
  top: "inception_4e/3x3_reduce"
}
layer {
  name: "inception_4e/3x3"
  type: "Convolution"
  bottom: "inception_4e/3x3_reduce"
  top: "inception_4e/3x3"
  param {
    lr_mult: 1
    decay_mult: 1
  }
  param {
    lr_mult: 2
    decay_mult: 0
  }
  convolution_param {
    num_output: 320
    pad: 1
    kernel_size: 3
    weight_filler {
      type: "xavier"
      std: 0.03
    }
    bias_filler {
      type: "constant"
      value: 0.2
    }
  }
}
layer {
  name: "inception_4e/relu_3x3"
  type: "ReLU"
  bottom: "inception_4e/3x3"
  top: "inception_4e/3x3"
}
layer {
  name: "inception_4e/5x5_reduce"
  type: "Convolution"
  bottom: "inception_4d/output"
  top: "inception_4e/5x5_reduce"
  param {
    lr_mult: 1
    decay_mult: 1
  }
  param {
    lr_mult: 2
    decay_mult: 0
  }
  convolution_param {
    num_output: 32
    kernel_size: 1
    weight_filler {
      type: "xavier"
      std: 0.2
    }
    bias_filler {
      type: "constant"
      value: 0.2
    }
  }
}
layer {
  name: "inception_4e/relu_5x5_reduce"
  type: "ReLU"
  bottom: "inception_4e/5x5_reduce"
  top: "inception_4e/5x5_reduce"
}
layer {
  name: "inception_4e/5x5"
  type: "Convolution"
  bottom: "inception_4e/5x5_reduce"
  top: "inception_4e/
I0403 15:13:33.415551 11726 layer_factory.hpp:77] Creating layer data
I0403 15:13:33.416148 11726 net.cpp:91] Creating Layer data
I0403 15:13:33.416182 11726 net.cpp:399] data -> data
I0403 15:13:33.416231 11726 net.cpp:399] data -> label
I0403 15:13:33.416267 11726 data_transformer.cpp:25] Loading mean file from: /home/mohanty/data/final_dataset/lmdb/segmented-50-50/mean.binaryproto
I0403 15:13:33.418752 11729 db_lmdb.cpp:38] Opened lmdb /home/mohanty/data/final_dataset/lmdb/segmented-50-50/test_db
I0403 15:13:33.429342 11726 data_layer.cpp:41] output data size: 24,3,224,224
I0403 15:13:33.456962 11726 net.cpp:141] Setting up data
I0403 15:13:33.457031 11726 net.cpp:148] Top shape: 24 3 224 224 (3612672)
I0403 15:13:33.457056 11726 net.cpp:148] Top shape: 24 (24)
I0403 15:13:33.457073 11726 net.cpp:156] Memory required for data: 14450784
I0403 15:13:33.457101 11726 layer_factory.hpp:77] Creating layer label_data_1_split
I0403 15:13:33.457129 11726 net.cpp:91] Creating Layer label_data_1_split
I0403 15:13:33.457149 11726 net.cpp:425] label_data_1_split <- label
I0403 15:13:33.457181 11726 net.cpp:399] label_data_1_split -> label_data_1_split_0
I0403 15:13:33.457211 11726 net.cpp:399] label_data_1_split -> label_data_1_split_1
I0403 15:13:33.457233 11726 net.cpp:399] label_data_1_split -> label_data_1_split_2
I0403 15:13:33.457255 11726 net.cpp:399] label_data_1_split -> label_data_1_split_3
I0403 15:13:33.457275 11726 net.cpp:399] label_data_1_split -> label_data_1_split_4
I0403 15:13:33.457295 11726 net.cpp:399] label_data_1_split -> label_data_1_split_5
I0403 15:13:33.457316 11726 net.cpp:399] label_data_1_split -> label_data_1_split_6
I0403 15:13:33.457337 11726 net.cpp:399] label_data_1_split -> label_data_1_split_7
I0403 15:13:33.457358 11726 net.cpp:399] label_data_1_split -> label_data_1_split_8
I0403 15:13:33.457379 11726 net.cpp:399] label_data_1_split -> label_data_1_split_9
I0403 15:13:33.457499 11726 net.cpp:141] Setting up label_data_1_split
I0403 15:13:33.457525 11726 net.cpp:148] Top shape: 24 (24)
I0403 15:13:33.457545 11726 net.cpp:148] Top shape: 24 (24)
I0403 15:13:33.457562 11726 net.cpp:148] Top shape: 24 (24)
I0403 15:13:33.457581 11726 net.cpp:148] Top shape: 24 (24)
I0403 15:13:33.457597 11726 net.cpp:148] Top shape: 24 (24)
I0403 15:13:33.457613 11726 net.cpp:148] Top shape: 24 (24)
I0403 15:13:33.457630 11726 net.cpp:148] Top shape: 24 (24)
I0403 15:13:33.457646 11726 net.cpp:148] Top shape: 24 (24)
I0403 15:13:33.457664 11726 net.cpp:148] Top shape: 24 (24)
I0403 15:13:33.457679 11726 net.cpp:148] Top shape: 24 (24)
I0403 15:13:33.457716 11726 net.cpp:156] Memory required for data: 14451744
I0403 15:13:33.457733 11726 layer_factory.hpp:77] Creating layer conv1/7x7_s2
I0403 15:13:33.457767 11726 net.cpp:91] Creating Layer conv1/7x7_s2
I0403 15:13:33.457787 11726 net.cpp:425] conv1/7x7_s2 <- data
I0403 15:13:33.457809 11726 net.cpp:399] conv1/7x7_s2 -> conv1/7x7_s2
I0403 15:13:33.600538 11726 net.cpp:141] Setting up conv1/7x7_s2
I0403 15:13:33.600608 11726 net.cpp:148] Top shape: 24 64 112 112 (19267584)
I0403 15:13:33.600626 11726 net.cpp:156] Memory required for data: 91522080
I0403 15:13:33.600658 11726 layer_factory.hpp:77] Creating layer conv1/relu_7x7
I0403 15:13:33.600685 11726 net.cpp:91] Creating Layer conv1/relu_7x7
I0403 15:13:33.600704 11726 net.cpp:425] conv1/relu_7x7 <- conv1/7x7_s2
I0403 15:13:33.600725 11726 net.cpp:386] conv1/relu_7x7 -> conv1/7x7_s2 (in-place)
I0403 15:13:33.601003 11726 net.cpp:141] Setting up conv1/relu_7x7
I0403 15:13:33.601030 11726 net.cpp:148] Top shape: 24 64 112 112 (19267584)
I0403 15:13:33.601047 11726 net.cpp:156] Memory required for data: 168592416
I0403 15:13:33.601063 11726 layer_factory.hpp:77] Creating layer pool1/3x3_s2
I0403 15:13:33.601088 11726 net.cpp:91] Creating Layer pool1/3x3_s2
I0403 15:13:33.601105 11726 net.cpp:425] pool1/3x3_s2 <- conv1/7x7_s2
I0403 15:13:33.601126 11726 net.cpp:399] pool1/3x3_s2 -> pool1/3x3_s2
I0403 15:13:33.601204 11726 net.cpp:141] Setting up pool1/3x3_s2
I0403 15:13:33.601229 11726 net.cpp:148] Top shape: 24 64 56 56 (4816896)
I0403 15:13:33.601244 11726 net.cpp:156] Memory required for data: 187860000
I0403 15:13:33.601259 11726 layer_factory.hpp:77] Creating layer pool1/norm1
I0403 15:13:33.601286 11726 net.cpp:91] Creating Layer pool1/norm1
I0403 15:13:33.601305 11726 net.cpp:425] pool1/norm1 <- pool1/3x3_s2
I0403 15:13:33.601325 11726 net.cpp:399] pool1/norm1 -> pool1/norm1
I0403 15:13:33.601636 11726 net.cpp:141] Setting up pool1/norm1
I0403 15:13:33.601665 11726 net.cpp:148] Top shape: 24 64 56 56 (4816896)
I0403 15:13:33.601680 11726 net.cpp:156] Memory required for data: 207127584
I0403 15:13:33.601696 11726 layer_factory.hpp:77] Creating layer conv2/3x3_reduce
I0403 15:13:33.601727 11726 net.cpp:91] Creating Layer conv2/3x3_reduce
I0403 15:13:33.601744 11726 net.cpp:425] conv2/3x3_reduce <- pool1/norm1
I0403 15:13:33.601766 11726 net.cpp:399] conv2/3x3_reduce -> conv2/3x3_reduce
I0403 15:13:33.603180 11726 net.cpp:141] Setting up conv2/3x3_reduce
I0403 15:13:33.603212 11726 net.cpp:148] Top shape: 24 64 56 56 (4816896)
I0403 15:13:33.603230 11726 net.cpp:156] Memory required for data: 226395168
I0403 15:13:33.603252 11726 layer_factory.hpp:77] Creating layer conv2/relu_3x3_reduce
I0403 15:13:33.603271 11726 net.cpp:91] Creating Layer conv2/relu_3x3_reduce
I0403 15:13:33.603287 11726 net.cpp:425] conv2/relu_3x3_reduce <- conv2/3x3_reduce
I0403 15:13:33.603304 11726 net.cpp:386] conv2/relu_3x3_reduce -> conv2/3x3_reduce (in-place)
I0403 15:13:33.603590 11726 net.cpp:141] Setting up conv2/relu_3x3_reduce
I0403 15:13:33.603631 11726 net.cpp:148] Top shape: 24 64 56 56 (4816896)
I0403 15:13:33.603647 11726 net.cpp:156] Memory required for data: 245662752
I0403 15:13:33.603662 11726 layer_factory.hpp:77] Creating layer conv2/3x3
I0403 15:13:33.603685 11726 net.cpp:91] Creating Layer conv2/3x3
I0403 15:13:33.603703 11726 net.cpp:425] conv2/3x3 <- conv2/3x3_reduce
I0403 15:13:33.603724 11726 net.cpp:399] conv2/3x3 -> conv2/3x3
I0403 15:13:33.606005 11726 net.cpp:141] Setting up conv2/3x3
I0403 15:13:33.606040 11726 net.cpp:148] Top shape: 24 192 56 56 (14450688)
I0403 15:13:33.606056 11726 net.cpp:156] Memory required for data: 303465504
I0403 15:13:33.606079 11726 layer_factory.hpp:77] Creating layer conv2/relu_3x3
I0403 15:13:33.606099 11726 net.cpp:91] Creating Layer conv2/relu_3x3
I0403 15:13:33.606114 11726 net.cpp:425] conv2/relu_3x3 <- conv2/3x3
I0403 15:13:33.606134 11726 net.cpp:386] conv2/relu_3x3 -> conv2/3x3 (in-place)
I0403 15:13:33.606307 11726 net.cpp:141] Setting up conv2/relu_3x3
I0403 15:13:33.606331 11726 net.cpp:148] Top shape: 24 192 56 56 (14450688)
I0403 15:13:33.606391 11726 net.cpp:156] Memory required for data: 361268256
I0403 15:13:33.606407 11726 layer_factory.hpp:77] Creating layer conv2/norm2
I0403 15:13:33.606436 11726 net.cpp:91] Creating Layer conv2/norm2
I0403 15:13:33.606453 11726 net.cpp:425] conv2/norm2 <- conv2/3x3
I0403 15:13:33.606472 11726 net.cpp:399] conv2/norm2 -> conv2/norm2
I0403 15:13:33.606791 11726 net.cpp:141] Setting up conv2/norm2
I0403 15:13:33.606817 11726 net.cpp:148] Top shape: 24 192 56 56 (14450688)
I0403 15:13:33.606837 11726 net.cpp:156] Memory required for data: 419071008
I0403 15:13:33.606851 11726 layer_factory.hpp:77] Creating layer pool2/3x3_s2
I0403 15:13:33.606869 11726 net.cpp:91] Creating Layer pool2/3x3_s2
I0403 15:13:33.606884 11726 net.cpp:425] pool2/3x3_s2 <- conv2/norm2
I0403 15:13:33.606901 11726 net.cpp:399] pool2/3x3_s2 -> pool2/3x3_s2
I0403 15:13:33.606955 11726 net.cpp:141] Setting up pool2/3x3_s2
I0403 15:13:33.606978 11726 net.cpp:148] Top shape: 24 192 28 28 (3612672)
I0403 15:13:33.606992 11726 net.cpp:156] Memory required for data: 433521696
I0403 15:13:33.607007 11726 layer_factory.hpp:77] Creating layer pool2/3x3_s2_pool2/3x3_s2_0_split
I0403 15:13:33.607023 11726 net.cpp:91] Creating Layer pool2/3x3_s2_pool2/3x3_s2_0_split
I0403 15:13:33.607038 11726 net.cpp:425] pool2/3x3_s2_pool2/3x3_s2_0_split <- pool2/3x3_s2
I0403 15:13:33.607058 11726 net.cpp:399] pool2/3x3_s2_pool2/3x3_s2_0_split -> pool2/3x3_s2_pool2/3x3_s2_0_split_0
I0403 15:13:33.607079 11726 net.cpp:399] pool2/3x3_s2_pool2/3x3_s2_0_split -> pool2/3x3_s2_pool2/3x3_s2_0_split_1
I0403 15:13:33.607097 11726 net.cpp:399] pool2/3x3_s2_pool2/3x3_s2_0_split -> pool2/3x3_s2_pool2/3x3_s2_0_split_2
I0403 15:13:33.607115 11726 net.cpp:399] pool2/3x3_s2_pool2/3x3_s2_0_split -> pool2/3x3_s2_pool2/3x3_s2_0_split_3
I0403 15:13:33.607187 11726 net.cpp:141] Setting up pool2/3x3_s2_pool2/3x3_s2_0_split
I0403 15:13:33.607215 11726 net.cpp:148] Top shape: 24 192 28 28 (3612672)
I0403 15:13:33.607233 11726 net.cpp:148] Top shape: 24 192 28 28 (3612672)
I0403 15:13:33.607249 11726 net.cpp:148] Top shape: 24 192 28 28 (3612672)
I0403 15:13:33.607264 11726 net.cpp:148] Top shape: 24 192 28 28 (3612672)
I0403 15:13:33.607277 11726 net.cpp:156] Memory required for data: 491324448
I0403 15:13:33.607291 11726 layer_factory.hpp:77] Creating layer inception_3a/1x1
I0403 15:13:33.607314 11726 net.cpp:91] Creating Layer inception_3a/1x1
I0403 15:13:33.607331 11726 net.cpp:425] inception_3a/1x1 <- pool2/3x3_s2_pool2/3x3_s2_0_split_0
I0403 15:13:33.607353 11726 net.cpp:399] inception_3a/1x1 -> inception_3a/1x1
I0403 15:13:33.608876 11726 net.cpp:141] Setting up inception_3a/1x1
I0403 15:13:33.608906 11726 net.cpp:148] Top shape: 24 64 28 28 (1204224)
I0403 15:13:33.608922 11726 net.cpp:156] Memory required for data: 496141344
I0403 15:13:33.608942 11726 layer_factory.hpp:77] Creating layer inception_3a/relu_1x1
I0403 15:13:33.608961 11726 net.cpp:91] Creating Layer inception_3a/relu_1x1
I0403 15:13:33.608978 11726 net.cpp:425] inception_3a/relu_1x1 <- inception_3a/1x1
I0403 15:13:33.608995 11726 net.cpp:386] inception_3a/relu_1x1 -> inception_3a/1x1 (in-place)
I0403 15:13:33.609170 11726 net.cpp:141] Setting up inception_3a/relu_1x1
I0403 15:13:33.609195 11726 net.cpp:148] Top shape: 24 64 28 28 (1204224)
I0403 15:13:33.609210 11726 net.cpp:156] Memory required for data: 500958240
I0403 15:13:33.609225 11726 layer_factory.hpp:77] Creating layer inception_3a/3x3_reduce
I0403 15:13:33.609247 11726 net.cpp:91] Creating Layer inception_3a/3x3_reduce
I0403 15:13:33.609264 11726 net.cpp:425] inception_3a/3x3_reduce <- pool2/3x3_s2_pool2/3x3_s2_0_split_1
I0403 15:13:33.609284 11726 net.cpp:399] inception_3a/3x3_reduce -> inception_3a/3x3_reduce
I0403 15:13:33.610980 11726 net.cpp:141] Setting up inception_3a/3x3_reduce
I0403 15:13:33.611012 11726 net.cpp:148] Top shape: 24 96 28 28 (1806336)
I0403 15:13:33.611032 11726 net.cpp:156] Memory required for data: 508183584
I0403 15:13:33.611053 11726 layer_factory.hpp:77] Creating layer inception_3a/relu_3x3_reduce
I0403 15:13:33.611093 11726 net.cpp:91] Creating Layer inception_3a/relu_3x3_reduce
I0403 15:13:33.611111 11726 net.cpp:425] inception_3a/relu_3x3_reduce <- inception_3a/3x3_reduce
I0403 15:13:33.611132 11726 net.cpp:386] inception_3a/relu_3x3_reduce -> inception_3a/3x3_reduce (in-place)
I0403 15:13:33.611325 11726 net.cpp:141] Setting up inception_3a/relu_3x3_reduce
I0403 15:13:33.611352 11726 net.cpp:148] Top shape: 24 96 28 28 (1806336)
I0403 15:13:33.611367 11726 net.cpp:156] Memory required for data: 515408928
I0403 15:13:33.611382 11726 layer_factory.hpp:77] Creating layer inception_3a/3x3
I0403 15:13:33.611407 11726 net.cpp:91] Creating Layer inception_3a/3x3
I0403 15:13:33.611429 11726 net.cpp:425] inception_3a/3x3 <- inception_3a/3x3_reduce
I0403 15:13:33.611454 11726 net.cpp:399] inception_3a/3x3 -> inception_3a/3x3
I0403 15:13:33.613097 11726 net.cpp:141] Setting up inception_3a/3x3
I0403 15:13:33.613128 11726 net.cpp:148] Top shape: 24 128 28 28 (2408448)
I0403 15:13:33.613147 11726 net.cpp:156] Memory required for data: 525042720
I0403 15:13:33.613164 11726 layer_factory.hpp:77] Creating layer inception_3a/relu_3x3
I0403 15:13:33.613181 11726 net.cpp:91] Creating Layer inception_3a/relu_3x3
I0403 15:13:33.613198 11726 net.cpp:425] inception_3a/relu_3x3 <- inception_3a/3x3
I0403 15:13:33.613219 11726 net.cpp:386] inception_3a/relu_3x3 -> inception_3a/3x3 (in-place)
I0403 15:13:33.613502 11726 net.cpp:141] Setting up inception_3a/relu_3x3
I0403 15:13:33.613530 11726 net.cpp:148] Top shape: 24 128 28 28 (2408448)
I0403 15:13:33.613548 11726 net.cpp:156] Memory required for data: 534676512
I0403 15:13:33.613562 11726 layer_factory.hpp:77] Creating layer inception_3a/5x5_reduce
I0403 15:13:33.613586 11726 net.cpp:91] Creating Layer inception_3a/5x5_reduce
I0403 15:13:33.613603 11726 net.cpp:425] inception_3a/5x5_reduce <- pool2/3x3_s2_pool2/3x3_s2_0_split_2
I0403 15:13:33.613621 11726 net.cpp:399] inception_3a/5x5_reduce -> inception_3a/5x5_reduce
I0403 15:13:33.614574 11726 net.cpp:141] Setting up inception_3a/5x5_reduce
I0403 15:13:33.614603 11726 net.cpp:148] Top shape: 24 16 28 28 (301056)
I0403 15:13:33.614619 11726 net.cpp:156] Memory required for data: 535880736
I0403 15:13:33.614639 11726 layer_factory.hpp:77] Creating layer inception_3a/relu_5x5_reduce
I0403 15:13:33.614657 11726 net.cpp:91] Creating Layer inception_3a/relu_5x5_reduce
I0403 15:13:33.614675 11726 net.cpp:425] inception_3a/relu_5x5_reduce <- inception_3a/5x5_reduce
I0403 15:13:33.614697 11726 net.cpp:386] inception_3a/relu_5x5_reduce -> inception_3a/5x5_reduce (in-place)
I0403 15:13:33.614990 11726 net.cpp:141] Setting up inception_3a/relu_5x5_reduce
I0403 15:13:33.615017 11726 net.cpp:148] Top shape: 24 16 28 28 (301056)
I0403 15:13:33.615033 11726 net.cpp:156] Memory required for data: 537084960
I0403 15:13:33.615049 11726 layer_factory.hpp:77] Creating layer inception_3a/5x5
I0403 15:13:33.615072 11726 net.cpp:91] Creating Layer inception_3a/5x5
I0403 15:13:33.615090 11726 net.cpp:425] inception_3a/5x5 <- inception_3a/5x5_reduce
I0403 15:13:33.615111 11726 net.cpp:399] inception_3a/5x5 -> inception_3a/5x5
I0403 15:13:33.616103 11726 net.cpp:141] Setting up inception_3a/5x5
I0403 15:13:33.616134 11726 net.cpp:148] Top shape: 24 32 28 28 (602112)
I0403 15:13:33.616152 11726 net.cpp:156] Memory required for data: 539493408
I0403 15:13:33.616171 11726 layer_factory.hpp:77] Creating layer inception_3a/relu_5x5
I0403 15:13:33.616189 11726 net.cpp:91] Creating Layer inception_3a/relu_5x5
I0403 15:13:33.616205 11726 net.cpp:425] inception_3a/relu_5x5 <- inception_3a/5x5
I0403 15:13:33.616225 11726 net.cpp:386] inception_3a/relu_5x5 -> inception_3a/5x5 (in-place)
I0403 15:13:33.616394 11726 net.cpp:141] Setting up inception_3a/relu_5x5
I0403 15:13:33.616423 11726 net.cpp:148] Top shape: 24 32 28 28 (602112)
I0403 15:13:33.616441 11726 net.cpp:156] Memory required for data: 541901856
I0403 15:13:33.616456 11726 layer_factory.hpp:77] Creating layer inception_3a/pool
I0403 15:13:33.616472 11726 net.cpp:91] Creating Layer inception_3a/pool
I0403 15:13:33.616503 11726 net.cpp:425] inception_3a/pool <- pool2/3x3_s2_pool2/3x3_s2_0_split_3
I0403 15:13:33.616524 11726 net.cpp:399] inception_3a/pool -> inception_3a/pool
I0403 15:13:33.616582 11726 net.cpp:141] Setting up inception_3a/pool
I0403 15:13:33.616605 11726 net.cpp:148] Top shape: 24 192 28 28 (3612672)
I0403 15:13:33.616621 11726 net.cpp:156] Memory required for data: 556352544
I0403 15:13:33.616636 11726 layer_factory.hpp:77] Creating layer inception_3a/pool_proj
I0403 15:13:33.616663 11726 net.cpp:91] Creating Layer inception_3a/pool_proj
I0403 15:13:33.616682 11726 net.cpp:425] inception_3a/pool_proj <- inception_3a/pool
I0403 15:13:33.616700 11726 net.cpp:399] inception_3a/pool_proj -> inception_3a/pool_proj
I0403 15:13:33.617648 11726 net.cpp:141] Setting up inception_3a/pool_proj
I0403 15:13:33.617676 11726 net.cpp:148] Top shape: 24 32 28 28 (602112)
I0403 15:13:33.617692 11726 net.cpp:156] Memory required for data: 558760992
I0403 15:13:33.617717 11726 layer_factory.hpp:77] Creating layer inception_3a/relu_pool_proj
I0403 15:13:33.617735 11726 net.cpp:91] Creating Layer inception_3a/relu_pool_proj
I0403 15:13:33.617754 11726 net.cpp:425] inception_3a/relu_pool_proj <- inception_3a/pool_proj
I0403 15:13:33.617772 11726 net.cpp:386] inception_3a/relu_pool_proj -> inception_3a/pool_proj (in-place)
I0403 15:13:33.618041 11726 net.cpp:141] Setting up inception_3a/relu_pool_proj
I0403 15:13:33.618069 11726 net.cpp:148] Top shape: 24 32 28 28 (602112)
I0403 15:13:33.618085 11726 net.cpp:156] Memory required for data: 561169440
I0403 15:13:33.618100 11726 layer_factory.hpp:77] Creating layer inception_3a/output
I0403 15:13:33.618119 11726 net.cpp:91] Creating Layer inception_3a/output
I0403 15:13:33.618134 11726 net.cpp:425] inception_3a/output <- inception_3a/1x1
I0403 15:13:33.618151 11726 net.cpp:425] inception_3a/output <- inception_3a/3x3
I0403 15:13:33.618167 11726 net.cpp:425] inception_3a/output <- inception_3a/5x5
I0403 15:13:33.618182 11726 net.cpp:425] inception_3a/output <- inception_3a/pool_proj
I0403 15:13:33.618201 11726 net.cpp:399] inception_3a/output -> inception_3a/output
I0403 15:13:33.618247 11726 net.cpp:141] Setting up inception_3a/output
I0403 15:13:33.618269 11726 net.cpp:148] Top shape: 24 256 28 28 (4816896)
I0403 15:13:33.618284 11726 net.cpp:156] Memory required for data: 580437024
I0403 15:13:33.618300 11726 layer_factory.hpp:77] Creating layer inception_3a/output_inception_3a/output_0_split
I0403 15:13:33.618320 11726 net.cpp:91] Creating Layer inception_3a/output_inception_3a/output_0_split
I0403 15:13:33.618336 11726 net.cpp:425] inception_3a/output_inception_3a/output_0_split <- inception_3a/output
I0403 15:13:33.618355 11726 net.cpp:399] inception_3a/output_inception_3a/output_0_split -> inception_3a/output_inception_3a/output_0_split_0
I0403 15:13:33.618373 11726 net.cpp:399] inception_3a/output_inception_3a/output_0_split -> inception_3a/output_inception_3a/output_0_split_1
I0403 15:13:33.618398 11726 net.cpp:399] inception_3a/output_inception_3a/output_0_split -> inception_3a/output_inception_3a/output_0_split_2
I0403 15:13:33.618425 11726 net.cpp:399] inception_3a/output_inception_3a/output_0_split -> inception_3a/output_inception_3a/output_0_split_3
I0403 15:13:33.618499 11726 net.cpp:141] Setting up inception_3a/output_inception_3a/output_0_split
I0403 15:13:33.618525 11726 net.cpp:148] Top shape: 24 256 28 28 (4816896)
I0403 15:13:33.618541 11726 net.cpp:148] Top shape: 24 256 28 28 (4816896)
I0403 15:13:33.618557 11726 net.cpp:148] Top shape: 24 256 28 28 (4816896)
I0403 15:13:33.618573 11726 net.cpp:148] Top shape: 24 256 28 28 (4816896)
I0403 15:13:33.618587 11726 net.cpp:156] Memory required for data: 657507360
I0403 15:13:33.618602 11726 layer_factory.hpp:77] Creating layer inception_3b/1x1
I0403 15:13:33.618623 11726 net.cpp:91] Creating Layer inception_3b/1x1
I0403 15:13:33.618640 11726 net.cpp:425] inception_3b/1x1 <- inception_3a/output_inception_3a/output_0_split_0
I0403 15:13:33.618659 11726 net.cpp:399] inception_3b/1x1 -> inception_3b/1x1
I0403 15:13:33.619786 11726 net.cpp:141] Setting up inception_3b/1x1
I0403 15:13:33.619827 11726 net.cpp:148] Top shape: 24 128 28 28 (2408448)
I0403 15:13:33.619845 11726 net.cpp:156] Memory required for data: 667141152
I0403 15:13:33.619863 11726 layer_factory.hpp:77] Creating layer inception_3b/relu_1x1
I0403 15:13:33.619881 11726 net.cpp:91] Creating Layer inception_3b/relu_1x1
I0403 15:13:33.619897 11726 net.cpp:425] inception_3b/relu_1x1 <- inception_3b/1x1
I0403 15:13:33.619915 11726 net.cpp:386] inception_3b/relu_1x1 -> inception_3b/1x1 (in-place)
I0403 15:13:33.620090 11726 net.cpp:141] Setting up inception_3b/relu_1x1
I0403 15:13:33.620120 11726 net.cpp:148] Top shape: 24 128 28 28 (2408448)
I0403 15:13:33.620136 11726 net.cpp:156] Memory required for data: 676774944
I0403 15:13:33.620151 11726 layer_factory.hpp:77] Creating layer inception_3b/3x3_reduce
I0403 15:13:33.620172 11726 net.cpp:91] Creating Layer inception_3b/3x3_reduce
I0403 15:13:33.620189 11726 net.cpp:425] inception_3b/3x3_reduce <- inception_3a/output_inception_3a/output_0_split_1
I0403 15:13:33.620208 11726 net.cpp:399] inception_3b/3x3_reduce -> inception_3b/3x3_reduce
I0403 15:13:33.621390 11726 net.cpp:141] Setting up inception_3b/3x3_reduce
I0403 15:13:33.621423 11726 net.cpp:148] Top shape: 24 128 28 28 (2408448)
I0403 15:13:33.621443 11726 net.cpp:156] Memory required for data: 686408736
I0403 15:13:33.621461 11726 layer_factory.hpp:77] Creating layer inception_3b/relu_3x3_reduce
I0403 15:13:33.621484 11726 net.cpp:91] Creating Layer inception_3b/relu_3x3_reduce
I0403 15:13:33.621501 11726 net.cpp:425] inception_3b/relu_3x3_reduce <- inception_3b/3x3_reduce
I0403 15:13:33.621520 11726 net.cpp:386] inception_3b/relu_3x3_reduce -> inception_3b/3x3_reduce (in-place)
I0403 15:13:33.621706 11726 net.cpp:141] Setting up inception_3b/relu_3x3_reduce
I0403 15:13:33.621732 11726 net.cpp:148] Top shape: 24 128 28 28 (2408448)
I0403 15:13:33.621747 11726 net.cpp:156] Memory required for data: 696042528
I0403 15:13:33.621763 11726 layer_factory.hpp:77] Creating layer inception_3b/3x3
I0403 15:13:33.621788 11726 net.cpp:91] Creating Layer inception_3b/3x3
I0403 15:13:33.621806 11726 net.cpp:425] inception_3b/3x3 <- inception_3b/3x3_reduce
I0403 15:13:33.621829 11726 net.cpp:399] inception_3b/3x3 -> inception_3b/3x3
I0403 15:13:33.624832 11726 net.cpp:141] Setting up inception_3b/3x3
I0403 15:13:33.624864 11726 net.cpp:148] Top shape: 24 192 28 28 (3612672)
I0403 15:13:33.624881 11726 net.cpp:156] Memory required for data: 710493216
I0403 15:13:33.624899 11726 layer_factory.hpp:77] Creating layer inception_3b/relu_3x3
I0403 15:13:33.624917 11726 net.cpp:91] Creating Layer inception_3b/relu_3x3
I0403 15:13:33.624933 11726 net.cpp:425] inception_3b/relu_3x3 <- inception_3b/3x3
I0403 15:13:33.624953 11726 net.cpp:386] inception_3b/relu_3x3 -> inception_3b/3x3 (in-place)
I0403 15:13:33.625229 11726 net.cpp:141] Setting up inception_3b/relu_3x3
I0403 15:13:33.625257 11726 net.cpp:148] Top shape: 24 192 28 28 (3612672)
I0403 15:13:33.625273 11726 net.cpp:156] Memory required for data: 724943904
I0403 15:13:33.625288 11726 layer_factory.hpp:77] Creating layer inception_3b/5x5_reduce
I0403 15:13:33.625313 11726 net.cpp:91] Creating Layer inception_3b/5x5_reduce
I0403 15:13:33.625330 11726 net.cpp:425] inception_3b/5x5_reduce <- inception_3a/output_inception_3a/output_0_split_2
I0403 15:13:33.625350 11726 net.cpp:399] inception_3b/5x5_reduce -> inception_3b/5x5_reduce
I0403 15:13:33.626381 11726 net.cpp:141] Setting up inception_3b/5x5_reduce
I0403 15:13:33.626417 11726 net.cpp:148] Top shape: 24 32 28 28 (602112)
I0403 15:13:33.626438 11726 net.cpp:156] Memory required for data: 727352352
I0403 15:13:33.626457 11726 layer_factory.hpp:77] Creating layer inception_3b/relu_5x5_reduce
I0403 15:13:33.626477 11726 net.cpp:91] Creating Layer inception_3b/relu_5x5_reduce
I0403 15:13:33.626493 11726 net.cpp:425] inception_3b/relu_5x5_reduce <- inception_3b/5x5_reduce
I0403 15:13:33.626513 11726 net.cpp:386] inception_3b/relu_5x5_reduce -> inception_3b/5x5_reduce (in-place)
I0403 15:13:33.626719 11726 net.cpp:141] Setting up inception_3b/relu_5x5_reduce
I0403 15:13:33.626744 11726 net.cpp:148] Top shape: 24 32 28 28 (602112)
I0403 15:13:33.626760 11726 net.cpp:156] Memory required for data: 729760800
I0403 15:13:33.626775 11726 layer_factory.hpp:77] Creating layer inception_3b/5x5
I0403 15:13:33.626797 11726 net.cpp:91] Creating Layer inception_3b/5x5
I0403 15:13:33.626814 11726 net.cpp:425] inception_3b/5x5 <- inception_3b/5x5_reduce
I0403 15:13:33.626837 11726 net.cpp:399] inception_3b/5x5 -> inception_3b/5x5
I0403 15:13:33.628868 11726 net.cpp:141] Setting up inception_3b/5x5
I0403 15:13:33.628898 11726 net.cpp:148] Top shape: 24 96 28 28 (1806336)
I0403 15:13:33.628914 11726 net.cpp:156] Memory required for data: 736986144
I0403 15:13:33.628933 11726 layer_factory.hpp:77] Creating layer inception_3b/relu_5x5
I0403 15:13:33.628953 11726 net.cpp:91] Creating Layer inception_3b/relu_5x5
I0403 15:13:33.628971 11726 net.cpp:425] inception_3b/relu_5x5 <- inception_3b/5x5
I0403 15:13:33.628988 11726 net.cpp:386] inception_3b/relu_5x5 -> inception_3b/5x5 (in-place)
I0403 15:13:33.629178 11726 net.cpp:141] Setting up inception_3b/relu_5x5
I0403 15:13:33.629202 11726 net.cpp:148] Top shape: 24 96 28 28 (1806336)
I0403 15:13:33.629216 11726 net.cpp:156] Memory required for data: 744211488
I0403 15:13:33.629231 11726 layer_factory.hpp:77] Creating layer inception_3b/pool
I0403 15:13:33.629250 11726 net.cpp:91] Creating Layer inception_3b/pool
I0403 15:13:33.629264 11726 net.cpp:425] inception_3b/pool <- inception_3a/output_inception_3a/output_0_split_3
I0403 15:13:33.629282 11726 net.cpp:399] inception_3b/pool -> inception_3b/pool
I0403 15:13:33.629338 11726 net.cpp:141] Setting up inception_3b/pool
I0403 15:13:33.629372 11726 net.cpp:148] Top shape: 24 256 28 28 (4816896)
I0403 15:13:33.629395 11726 net.cpp:156] Memory required for data: 763479072
I0403 15:13:33.629415 11726 layer_factory.hpp:77] Creating layer inception_3b/pool_proj
I0403 15:13:33.629442 11726 net.cpp:91] Creating Layer inception_3b/pool_proj
I0403 15:13:33.629461 11726 net.cpp:425] inception_3b/pool_proj <- inception_3b/pool
I0403 15:13:33.629480 11726 net.cpp:399] inception_3b/pool_proj -> inception_3b/pool_proj
I0403 15:13:33.630553 11726 net.cpp:141] Setting up inception_3b/pool_proj
I0403 15:13:33.630585 11726 net.cpp:148] Top shape: 24 64 28 28 (1204224)
I0403 15:13:33.630601 11726 net.cpp:156] Memory required for data: 768295968
I0403 15:13:33.630620 11726 layer_factory.hpp:77] Creating layer inception_3b/relu_pool_proj
I0403 15:13:33.630640 11726 net.cpp:91] Creating Layer inception_3b/relu_pool_proj
I0403 15:13:33.630671 11726 net.cpp:425] inception_3b/relu_pool_proj <- inception_3b/pool_proj
I0403 15:13:33.630689 11726 net.cpp:386] inception_3b/relu_pool_proj -> inception_3b/pool_proj (in-place)
I0403 15:13:33.631084 11726 net.cpp:141] Setting up inception_3b/relu_pool_proj
I0403 15:13:33.631113 11726 net.cpp:148] Top shape: 24 64 28 28 (1204224)
I0403 15:13:33.631129 11726 net.cpp:156] Memory required for data: 773112864
I0403 15:13:33.631144 11726 layer_factory.hpp:77] Creating layer inception_3b/output
I0403 15:13:33.631160 11726 net.cpp:91] Creating Layer inception_3b/output
I0403 15:13:33.631177 11726 net.cpp:425] inception_3b/output <- inception_3b/1x1
I0403 15:13:33.631194 11726 net.cpp:425] inception_3b/output <- inception_3b/3x3
I0403 15:13:33.631211 11726 net.cpp:425] inception_3b/output <- inception_3b/5x5
I0403 15:13:33.631227 11726 net.cpp:425] inception_3b/output <- inception_3b/pool_proj
I0403 15:13:33.631247 11726 net.cpp:399] inception_3b/output -> inception_3b/output
I0403 15:13:33.631291 11726 net.cpp:141] Setting up inception_3b/output
I0403 15:13:33.631319 11726 net.cpp:148] Top shape: 24 480 28 28 (9031680)
I0403 15:13:33.631333 11726 net.cpp:156] Memory required for data: 809239584
I0403 15:13:33.631348 11726 layer_factory.hpp:77] Creating layer pool3/3x3_s2
I0403 15:13:33.631366 11726 net.cpp:91] Creating Layer pool3/3x3_s2
I0403 15:13:33.631382 11726 net.cpp:425] pool3/3x3_s2 <- inception_3b/output
I0403 15:13:33.631422 11726 net.cpp:399] pool3/3x3_s2 -> pool3/3x3_s2
I0403 15:13:33.631481 11726 net.cpp:141] Setting up pool3/3x3_s2
I0403 15:13:33.631505 11726 net.cpp:148] Top shape: 24 480 14 14 (2257920)
I0403 15:13:33.631520 11726 net.cpp:156] Memory required for data: 818271264
I0403 15:13:33.631534 11726 layer_factory.hpp:77] Creating layer pool3/3x3_s2_pool3/3x3_s2_0_split
I0403 15:13:33.631553 11726 net.cpp:91] Creating Layer pool3/3x3_s2_pool3/3x3_s2_0_split
I0403 15:13:33.631572 11726 net.cpp:425] pool3/3x3_s2_pool3/3x3_s2_0_split <- pool3/3x3_s2
I0403 15:13:33.631588 11726 net.cpp:399] pool3/3x3_s2_pool3/3x3_s2_0_split -> pool3/3x3_s2_pool3/3x3_s2_0_split_0
I0403 15:13:33.631608 11726 net.cpp:399] pool3/3x3_s2_pool3/3x3_s2_0_split -> pool3/3x3_s2_pool3/3x3_s2_0_split_1
I0403 15:13:33.631628 11726 net.cpp:399] pool3/3x3_s2_pool3/3x3_s2_0_split -> pool3/3x3_s2_pool3/3x3_s2_0_split_2
I0403 15:13:33.631646 11726 net.cpp:399] pool3/3x3_s2_pool3/3x3_s2_0_split -> pool3/3x3_s2_pool3/3x3_s2_0_split_3
I0403 15:13:33.631721 11726 net.cpp:141] Setting up pool3/3x3_s2_pool3/3x3_s2_0_split
I0403 15:13:33.631743 11726 net.cpp:148] Top shape: 24 480 14 14 (2257920)
I0403 15:13:33.631759 11726 net.cpp:148] Top shape: 24 480 14 14 (2257920)
I0403 15:13:33.631774 11726 net.cpp:148] Top shape: 24 480 14 14 (2257920)
I0403 15:13:33.631791 11726 net.cpp:148] Top shape: 24 480 14 14 (2257920)
I0403 15:13:33.631805 11726 net.cpp:156] Memory required for data: 854397984
I0403 15:13:33.631819 11726 layer_factory.hpp:77] Creating layer inception_4a/1x1
I0403 15:13:33.631841 11726 net.cpp:91] Creating Layer inception_4a/1x1
I0403 15:13:33.631858 11726 net.cpp:425] inception_4a/1x1 <- pool3/3x3_s2_pool3/3x3_s2_0_split_0
I0403 15:13:33.631880 11726 net.cpp:399] inception_4a/1x1 -> inception_4a/1x1
I0403 15:13:33.633430 11726 net.cpp:141] Setting up inception_4a/1x1
I0403 15:13:33.633460 11726 net.cpp:148] Top shape: 24 192 14 14 (903168)
I0403 15:13:33.633476 11726 net.cpp:156] Memory required for data: 858010656
I0403 15:13:33.633496 11726 layer_factory.hpp:77] Creating layer inception_4a/relu_1x1
I0403 15:13:33.633517 11726 net.cpp:91] Creating Layer inception_4a/relu_1x1
I0403 15:13:33.633533 11726 net.cpp:425] inception_4a/relu_1x1 <- inception_4a/1x1
I0403 15:13:33.633551 11726 net.cpp:386] inception_4a/relu_1x1 -> inception_4a/1x1 (in-place)
I0403 15:13:33.633724 11726 net.cpp:141] Setting up inception_4a/relu_1x1
I0403 15:13:33.633754 11726 net.cpp:148] Top shape: 24 192 14 14 (903168)
I0403 15:13:33.633770 11726 net.cpp:156] Memory required for data: 861623328
I0403 15:13:33.633786 11726 layer_factory.hpp:77] Creating layer inception_4a/3x3_reduce
I0403 15:13:33.633810 11726 net.cpp:91] Creating Layer inception_4a/3x3_reduce
I0403 15:13:33.633827 11726 net.cpp:425] inception_4a/3x3_reduce <- pool3/3x3_s2_pool3/3x3_s2_0_split_1
I0403 15:13:33.633848 11726 net.cpp:399] inception_4a/3x3_reduce -> inception_4a/3x3_reduce
I0403 15:13:33.635107 11726 net.cpp:141] Setting up inception_4a/3x3_reduce
I0403 15:13:33.635135 11726 net.cpp:148] Top shape: 24 96 14 14 (451584)
I0403 15:13:33.635151 11726 net.cpp:156] Memory required for data: 863429664
I0403 15:13:33.635179 11726 layer_factory.hpp:77] Creating layer inception_4a/relu_3x3_reduce
I0403 15:13:33.635200 11726 net.cpp:91] Creating Layer inception_4a/relu_3x3_reduce
I0403 15:13:33.635216 11726 net.cpp:425] inception_4a/relu_3x3_reduce <- inception_4a/3x3_reduce
I0403 15:13:33.635236 11726 net.cpp:386] inception_4a/relu_3x3_reduce -> inception_4a/3x3_reduce (in-place)
I0403 15:13:33.635417 11726 net.cpp:141] Setting up inception_4a/relu_3x3_reduce
I0403 15:13:33.635442 11726 net.cpp:148] Top shape: 24 96 14 14 (451584)
I0403 15:13:33.635457 11726 net.cpp:156] Memory required for data: 865236000
I0403 15:13:33.635471 11726 layer_factory.hpp:77] Creating layer inception_4a/3x3
I0403 15:13:33.635494 11726 net.cpp:91] Creating Layer inception_4a/3x3
I0403 15:13:33.635511 11726 net.cpp:425] inception_4a/3x3 <- inception_4a/3x3_reduce
I0403 15:13:33.635532 11726 net.cpp:399] inception_4a/3x3 -> inception_4a/3x3
I0403 15:13:33.638200 11726 net.cpp:141] Setting up inception_4a/3x3
I0403 15:13:33.638229 11726 net.cpp:148] Top shape: 24 208 14 14 (978432)
I0403 15:13:33.638245 11726 net.cpp:156] Memory required for data: 869149728
I0403 15:13:33.638264 11726 layer_factory.hpp:77] Creating layer inception_4a/relu_3x3
I0403 15:13:33.638285 11726 net.cpp:91] Creating Layer inception_4a/relu_3x3
I0403 15:13:33.638303 11726 net.cpp:425] inception_4a/relu_3x3 <- inception_4a/3x3
I0403 15:13:33.638320 11726 net.cpp:386] inception_4a/relu_3x3 -> inception_4a/3x3 (in-place)
I0403 15:13:33.638607 11726 net.cpp:141] Setting up inception_4a/relu_3x3
I0403 15:13:33.638633 11726 net.cpp:148] Top shape: 24 208 14 14 (978432)
I0403 15:13:33.638648 11726 net.cpp:156] Memory required for data: 873063456
I0403 15:13:33.638664 11726 layer_factory.hpp:77] Creating layer inception_4a/5x5_reduce
I0403 15:13:33.638689 11726 net.cpp:91] Creating Layer inception_4a/5x5_reduce
I0403 15:13:33.638706 11726 net.cpp:425] inception_4a/5x5_reduce <- pool3/3x3_s2_pool3/3x3_s2_0_split_2
I0403 15:13:33.638733 11726 net.cpp:399] inception_4a/5x5_reduce -> inception_4a/5x5_reduce
I0403 15:13:33.639745 11726 net.cpp:141] Setting up inception_4a/5x5_reduce
I0403 15:13:33.639775 11726 net.cpp:148] Top shape: 24 16 14 14 (75264)
I0403 15:13:33.639793 11726 net.cpp:156] Memory required for data: 873364512
I0403 15:13:33.639812 11726 layer_factory.hpp:77] Creating layer inception_4a/relu_5x5_reduce
I0403 15:13:33.639832 11726 net.cpp:91] Creating Layer inception_4a/relu_5x5_reduce
I0403 15:13:33.639847 11726 net.cpp:425] inception_4a/relu_5x5_reduce <- inception_4a/5x5_reduce
I0403 15:13:33.639866 11726 net.cpp:386] inception_4a/relu_5x5_reduce -> inception_4a/5x5_reduce (in-place)
I0403 15:13:33.640046 11726 net.cpp:141] Setting up inception_4a/relu_5x5_reduce
I0403 15:13:33.640072 11726 net.cpp:148] Top shape: 24 16 14 14 (75264)
I0403 15:13:33.640087 11726 net.cpp:156] Memory required for data: 873665568
I0403 15:13:33.640102 11726 layer_factory.hpp:77] Creating layer inception_4a/5x5
I0403 15:13:33.640125 11726 net.cpp:91] Creating Layer inception_4a/5x5
I0403 15:13:33.640141 11726 net.cpp:425] inception_4a/5x5 <- inception_4a/5x5_reduce
I0403 15:13:33.640162 11726 net.cpp:399] inception_4a/5x5 -> inception_4a/5x5
I0403 15:13:33.641247 11726 net.cpp:141] Setting up inception_4a/5x5
I0403 15:13:33.641275 11726 net.cpp:148] Top shape: 24 48 14 14 (225792)
I0403 15:13:33.641291 11726 net.cpp:156] Memory required for data: 874568736
I0403 15:13:33.641310 11726 layer_factory.hpp:77] Creating layer inception_4a/relu_5x5
I0403 15:13:33.641331 11726 net.cpp:91] Creating Layer inception_4a/relu_5x5
I0403 15:13:33.641348 11726 net.cpp:425] inception_4a/relu_5x5 <- inception_4a/5x5
I0403 15:13:33.641366 11726 net.cpp:386] inception_4a/relu_5x5 -> inception_4a/5x5 (in-place)
I0403 15:13:33.641546 11726 net.cpp:141] Setting up inception_4a/relu_5x5
I0403 15:13:33.641573 11726 net.cpp:148] Top shape: 24 48 14 14 (225792)
I0403 15:13:33.641589 11726 net.cpp:156] Memory required for data: 875471904
I0403 15:13:33.641607 11726 layer_factory.hpp:77] Creating layer inception_4a/pool
I0403 15:13:33.641628 11726 net.cpp:91] Creating Layer inception_4a/pool
I0403 15:13:33.641644 11726 net.cpp:425] inception_4a/pool <- pool3/3x3_s2_pool3/3x3_s2_0_split_3
I0403 15:13:33.641661 11726 net.cpp:399] inception_4a/pool -> inception_4a/pool
I0403 15:13:33.641734 11726 net.cpp:141] Setting up inception_4a/pool
I0403 15:13:33.641760 11726 net.cpp:148] Top shape: 24 480 14 14 (2257920)
I0403 15:13:33.641775 11726 net.cpp:156] Memory required for data: 884503584
I0403 15:13:33.641790 11726 layer_factory.hpp:77] Creating layer inception_4a/pool_proj
I0403 15:13:33.641813 11726 net.cpp:91] Creating Layer inception_4a/pool_proj
I0403 15:13:33.641830 11726 net.cpp:425] inception_4a/pool_proj <- inception_4a/pool
I0403 15:13:33.641850 11726 net.cpp:399] inception_4a/pool_proj -> inception_4a/pool_proj
I0403 15:13:33.643116 11726 net.cpp:141] Setting up inception_4a/pool_proj
I0403 15:13:33.643146 11726 net.cpp:148] Top shape: 24 64 14 14 (301056)
I0403 15:13:33.643179 11726 net.cpp:156] Memory required for data: 885707808
I0403 15:13:33.643199 11726 layer_factory.hpp:77] Creating layer inception_4a/relu_pool_proj
I0403 15:13:33.643221 11726 net.cpp:91] Creating Layer inception_4a/relu_pool_proj
I0403 15:13:33.643237 11726 net.cpp:425] inception_4a/relu_pool_proj <- inception_4a/pool_proj
I0403 15:13:33.643255 11726 net.cpp:386] inception_4a/relu_pool_proj -> inception_4a/pool_proj (in-place)
I0403 15:13:33.643558 11726 net.cpp:141] Setting up inception_4a/relu_pool_proj
I0403 15:13:33.643585 11726 net.cpp:148] Top shape: 24 64 14 14 (301056)
I0403 15:13:33.643604 11726 net.cpp:156] Memory required for data: 886912032
I0403 15:13:33.643620 11726 layer_factory.hpp:77] Creating layer inception_4a/output
I0403 15:13:33.643640 11726 net.cpp:91] Creating Layer inception_4a/output
I0403 15:13:33.643657 11726 net.cpp:425] inception_4a/output <- inception_4a/1x1
I0403 15:13:33.643674 11726 net.cpp:425] inception_4a/output <- inception_4a/3x3
I0403 15:13:33.643690 11726 net.cpp:425] inception_4a/output <- inception_4a/5x5
I0403 15:13:33.643707 11726 net.cpp:425] inception_4a/output <- inception_4a/pool_proj
I0403 15:13:33.643723 11726 net.cpp:399] inception_4a/output -> inception_4a/output
I0403 15:13:33.643779 11726 net.cpp:141] Setting up inception_4a/output
I0403 15:13:33.643805 11726 net.cpp:148] Top shape: 24 512 14 14 (2408448)
I0403 15:13:33.643822 11726 net.cpp:156] Memory required for data: 896545824
I0403 15:13:33.643836 11726 layer_factory.hpp:77] Creating layer inception_4a/output_inception_4a/output_0_split
I0403 15:13:33.643854 11726 net.cpp:91] Creating Layer inception_4a/output_inception_4a/output_0_split
I0403 15:13:33.643869 11726 net.cpp:425] inception_4a/output_inception_4a/output_0_split <- inception_4a/output
I0403 15:13:33.643889 11726 net.cpp:399] inception_4a/output_inception_4a/output_0_split -> inception_4a/output_inception_4a/output_0_split_0
I0403 15:13:33.643910 11726 net.cpp:399] inception_4a/output_inception_4a/output_0_split -> inception_4a/output_inception_4a/output_0_split_1
I0403 15:13:33.643931 11726 net.cpp:399] inception_4a/output_inception_4a/output_0_split -> inception_4a/output_inception_4a/output_0_split_2
I0403 15:13:33.643951 11726 net.cpp:399] inception_4a/output_inception_4a/output_0_split -> inception_4a/output_inception_4a/output_0_split_3
I0403 15:13:33.643971 11726 net.cpp:399] inception_4a/output_inception_4a/output_0_split -> inception_4a/output_inception_4a/output_0_split_4
I0403 15:13:33.644062 11726 net.cpp:141] Setting up inception_4a/output_inception_4a/output_0_split
I0403 15:13:33.644086 11726 net.cpp:148] Top shape: 24 512 14 14 (2408448)
I0403 15:13:33.644104 11726 net.cpp:148] Top shape: 24 512 14 14 (2408448)
I0403 15:13:33.644121 11726 net.cpp:148] Top shape: 24 512 14 14 (2408448)
I0403 15:13:33.644137 11726 net.cpp:148] Top shape: 24 512 14 14 (2408448)
I0403 15:13:33.644152 11726 net.cpp:148] Top shape: 24 512 14 14 (2408448)
I0403 15:13:33.644166 11726 net.cpp:156] Memory required for data: 944714784
I0403 15:13:33.644181 11726 layer_factory.hpp:77] Creating layer loss1/ave_pool
I0403 15:13:33.644198 11726 net.cpp:91] Creating Layer loss1/ave_pool
I0403 15:13:33.644213 11726 net.cpp:425] loss1/ave_pool <- inception_4a/output_inception_4a/output_0_split_0
I0403 15:13:33.644233 11726 net.cpp:399] loss1/ave_pool -> loss1/ave_pool
I0403 15:13:33.644445 11726 net.cpp:141] Setting up loss1/ave_pool
I0403 15:13:33.644484 11726 net.cpp:148] Top shape: 24 512 4 4 (196608)
I0403 15:13:33.644500 11726 net.cpp:156] Memory required for data: 945501216
I0403 15:13:33.644515 11726 layer_factory.hpp:77] Creating layer loss1/conv
I0403 15:13:33.644538 11726 net.cpp:91] Creating Layer loss1/conv
I0403 15:13:33.644556 11726 net.cpp:425] loss1/conv <- loss1/ave_pool
I0403 15:13:33.644578 11726 net.cpp:399] loss1/conv -> loss1/conv
I0403 15:13:33.646026 11726 net.cpp:141] Setting up loss1/conv
I0403 15:13:33.646055 11726 net.cpp:148] Top shape: 24 128 4 4 (49152)
I0403 15:13:33.646087 11726 net.cpp:156] Memory required for data: 945697824
I0403 15:13:33.646111 11726 layer_factory.hpp:77] Creating layer loss1/relu_conv
I0403 15:13:33.646129 11726 net.cpp:91] Creating Layer loss1/relu_conv
I0403 15:13:33.646147 11726 net.cpp:425] loss1/relu_conv <- loss1/conv
I0403 15:13:33.646165 11726 net.cpp:386] loss1/relu_conv -> loss1/conv (in-place)
I0403 15:13:33.646466 11726 net.cpp:141] Setting up loss1/relu_conv
I0403 15:13:33.646494 11726 net.cpp:148] Top shape: 24 128 4 4 (49152)
I0403 15:13:33.646510 11726 net.cpp:156] Memory required for data: 945894432
I0403 15:13:33.646527 11726 layer_factory.hpp:77] Creating layer loss1/fc
I0403 15:13:33.646553 11726 net.cpp:91] Creating Layer loss1/fc
I0403 15:13:33.646571 11726 net.cpp:425] loss1/fc <- loss1/conv
I0403 15:13:33.646594 11726 net.cpp:399] loss1/fc -> loss1/fc
I0403 15:13:33.664422 11726 net.cpp:141] Setting up loss1/fc
I0403 15:13:33.664463 11726 net.cpp:148] Top shape: 24 1024 (24576)
I0403 15:13:33.664479 11726 net.cpp:156] Memory required for data: 945992736
I0403 15:13:33.664497 11726 layer_factory.hpp:77] Creating layer loss1/relu_fc
I0403 15:13:33.664520 11726 net.cpp:91] Creating Layer loss1/relu_fc
I0403 15:13:33.664536 11726 net.cpp:425] loss1/relu_fc <- loss1/fc
I0403 15:13:33.664553 11726 net.cpp:386] loss1/relu_fc -> loss1/fc (in-place)
I0403 15:13:33.664743 11726 net.cpp:141] Setting up loss1/relu_fc
I0403 15:13:33.664770 11726 net.cpp:148] Top shape: 24 1024 (24576)
I0403 15:13:33.664785 11726 net.cpp:156] Memory required for data: 946091040
I0403 15:13:33.664800 11726 layer_factory.hpp:77] Creating layer loss1/drop_fc
I0403 15:13:33.664827 11726 net.cpp:91] Creating Layer loss1/drop_fc
I0403 15:13:33.664845 11726 net.cpp:425] loss1/drop_fc <- loss1/fc
I0403 15:13:33.664862 11726 net.cpp:386] loss1/drop_fc -> loss1/fc (in-place)
I0403 15:13:33.664914 11726 net.cpp:141] Setting up loss1/drop_fc
I0403 15:13:33.664937 11726 net.cpp:148] Top shape: 24 1024 (24576)
I0403 15:13:33.664950 11726 net.cpp:156] Memory required for data: 946189344
I0403 15:13:33.664965 11726 layer_factory.hpp:77] Creating layer loss1/classifier_plantvillage
I0403 15:13:33.664983 11726 net.cpp:91] Creating Layer loss1/classifier_plantvillage
I0403 15:13:33.664999 11726 net.cpp:425] loss1/classifier_plantvillage <- loss1/fc
I0403 15:13:33.665020 11726 net.cpp:399] loss1/classifier_plantvillage -> loss1/classifier_plantvillage
I0403 15:13:33.665910 11726 net.cpp:141] Setting up loss1/classifier_plantvillage
I0403 15:13:33.665938 11726 net.cpp:148] Top shape: 24 38 (912)
I0403 15:13:33.665954 11726 net.cpp:156] Memory required for data: 946192992
I0403 15:13:33.665972 11726 layer_factory.hpp:77] Creating layer loss1/classifier_plantvillage_loss1/classifier_plantvillage_0_split
I0403 15:13:33.665994 11726 net.cpp:91] Creating Layer loss1/classifier_plantvillage_loss1/classifier_plantvillage_0_split
I0403 15:13:33.666010 11726 net.cpp:425] loss1/classifier_plantvillage_loss1/classifier_plantvillage_0_split <- loss1/classifier_plantvillage
I0403 15:13:33.666028 11726 net.cpp:399] loss1/classifier_plantvillage_loss1/classifier_plantvillage_0_split -> loss1/classifier_plantvillage_loss1/classifier_plantvillage_0_split_0
I0403 15:13:33.666048 11726 net.cpp:399] loss1/classifier_plantvillage_loss1/classifier_plantvillage_0_split -> loss1/classifier_plantvillage_loss1/classifier_plantvillage_0_split_1
I0403 15:13:33.666066 11726 net.cpp:399] loss1/classifier_plantvillage_loss1/classifier_plantvillage_0_split -> loss1/classifier_plantvillage_loss1/classifier_plantvillage_0_split_2
I0403 15:13:33.666133 11726 net.cpp:141] Setting up loss1/classifier_plantvillage_loss1/classifier_plantvillage_0_split
I0403 15:13:33.666155 11726 net.cpp:148] Top shape: 24 38 (912)
I0403 15:13:33.666172 11726 net.cpp:148] Top shape: 24 38 (912)
I0403 15:13:33.666187 11726 net.cpp:148] Top shape: 24 38 (912)
I0403 15:13:33.666198 11726 net.cpp:156] Memory required for data: 946203936
I0403 15:13:33.666213 11726 layer_factory.hpp:77] Creating layer inception_4b/1x1
I0403 15:13:33.666235 11726 net.cpp:91] Creating Layer inception_4b/1x1
I0403 15:13:33.666270 11726 net.cpp:425] inception_4b/1x1 <- inception_4a/output_inception_4a/output_0_split_1
I0403 15:13:33.666290 11726 net.cpp:399] inception_4b/1x1 -> inception_4b/1x1
I0403 15:13:33.667915 11726 net.cpp:141] Setting up inception_4b/1x1
I0403 15:13:33.667946 11726 net.cpp:148] Top shape: 24 160 14 14 (752640)
I0403 15:13:33.667963 11726 net.cpp:156] Memory required for data: 949214496
I0403 15:13:33.667982 11726 layer_factory.hpp:77] Creating layer inception_4b/relu_1x1
I0403 15:13:33.668000 11726 net.cpp:91] Creating Layer inception_4b/relu_1x1
I0403 15:13:33.668016 11726 net.cpp:425] inception_4b/relu_1x1 <- inception_4b/1x1
I0403 15:13:33.668035 11726 net.cpp:386] inception_4b/relu_1x1 -> inception_4b/1x1 (in-place)
I0403 15:13:33.668208 11726 net.cpp:141] Setting up inception_4b/relu_1x1
I0403 15:13:33.668232 11726 net.cpp:148] Top shape: 24 160 14 14 (752640)
I0403 15:13:33.668247 11726 net.cpp:156] Memory required for data: 952225056
I0403 15:13:33.668262 11726 layer_factory.hpp:77] Creating layer inception_4b/3x3_reduce
I0403 15:13:33.668282 11726 net.cpp:91] Creating Layer inception_4b/3x3_reduce
I0403 15:13:33.668300 11726 net.cpp:425] inception_4b/3x3_reduce <- inception_4a/output_inception_4a/output_0_split_2
I0403 15:13:33.668320 11726 net.cpp:399] inception_4b/3x3_reduce -> inception_4b/3x3_reduce
I0403 15:13:33.669651 11726 net.cpp:141] Setting up inception_4b/3x3_reduce
I0403 15:13:33.669679 11726 net.cpp:148] Top shape: 24 112 14 14 (526848)
I0403 15:13:33.669695 11726 net.cpp:156] Memory required for data: 954332448
I0403 15:13:33.669714 11726 layer_factory.hpp:77] Creating layer inception_4b/relu_3x3_reduce
I0403 15:13:33.669734 11726 net.cpp:91] Creating Layer inception_4b/relu_3x3_reduce
I0403 15:13:33.669749 11726 net.cpp:425] inception_4b/relu_3x3_reduce <- inception_4b/3x3_reduce
I0403 15:13:33.669769 11726 net.cpp:386] inception_4b/relu_3x3_reduce -> inception_4b/3x3_reduce (in-place)
I0403 15:13:33.670053 11726 net.cpp:141] Setting up inception_4b/relu_3x3_reduce
I0403 15:13:33.670080 11726 net.cpp:148] Top shape: 24 112 14 14 (526848)
I0403 15:13:33.670096 11726 net.cpp:156] Memory required for data: 956439840
I0403 15:13:33.670112 11726 layer_factory.hpp:77] Creating layer inception_4b/3x3
I0403 15:13:33.670135 11726 net.cpp:91] Creating Layer inception_4b/3x3
I0403 15:13:33.670153 11726 net.cpp:425] inception_4b/3x3 <- inception_4b/3x3_reduce
I0403 15:13:33.670176 11726 net.cpp:399] inception_4b/3x3 -> inception_4b/3x3
I0403 15:13:33.673107 11726 net.cpp:141] Setting up inception_4b/3x3
I0403 15:13:33.673137 11726 net.cpp:148] Top shape: 24 224 14 14 (1053696)
I0403 15:13:33.673153 11726 net.cpp:156] Memory required for data: 960654624
I0403 15:13:33.673172 11726 layer_factory.hpp:77] Creating layer inception_4b/relu_3x3
I0403 15:13:33.673192 11726 net.cpp:91] Creating Layer inception_4b/relu_3x3
I0403 15:13:33.673207 11726 net.cpp:425] inception_4b/relu_3x3 <- inception_4b/3x3
I0403 15:13:33.673224 11726 net.cpp:386] inception_4b/relu_3x3 -> inception_4b/3x3 (in-place)
I0403 15:13:33.673398 11726 net.cpp:141] Setting up inception_4b/relu_3x3
I0403 15:13:33.673435 11726 net.cpp:148] Top shape: 24 224 14 14 (1053696)
I0403 15:13:33.673452 11726 net.cpp:156] Memory required for data: 964869408
I0403 15:13:33.673466 11726 layer_factory.hpp:77] Creating layer inception_4b/5x5_reduce
I0403 15:13:33.673490 11726 net.cpp:91] Creating Layer inception_4b/5x5_reduce
I0403 15:13:33.673506 11726 net.cpp:425] inception_4b/5x5_reduce <- inception_4a/output_inception_4a/output_0_split_3
I0403 15:13:33.673526 11726 net.cpp:399] inception_4b/5x5_reduce -> inception_4b/5x5_reduce
I0403 15:13:33.674583 11726 net.cpp:141] Setting up inception_4b/5x5_reduce
I0403 15:13:33.674615 11726 net.cpp:148] Top shape: 24 24 14 14 (112896)
I0403 15:13:33.674631 11726 net.cpp:156] Memory required for data: 965320992
I0403 15:13:33.674649 11726 layer_factory.hpp:77] Creating layer inception_4b/relu_5x5_reduce
I0403 15:13:33.674667 11726 net.cpp:91] Creating Layer inception_4b/relu_5x5_reduce
I0403 15:13:33.674698 11726 net.cpp:425] inception_4b/relu_5x5_reduce <- inception_4b/5x5_reduce
I0403 15:13:33.674718 11726 net.cpp:386] inception_4b/relu_5x5_reduce -> inception_4b/5x5_reduce (in-place)
I0403 15:13:33.674895 11726 net.cpp:141] Setting up inception_4b/relu_5x5_reduce
I0403 15:13:33.674919 11726 net.cpp:148] Top shape: 24 24 14 14 (112896)
I0403 15:13:33.674933 11726 net.cpp:156] Memory required for data: 965772576
I0403 15:13:33.674947 11726 layer_factory.hpp:77] Creating layer inception_4b/5x5
I0403 15:13:33.674969 11726 net.cpp:91] Creating Layer inception_4b/5x5
I0403 15:13:33.674986 11726 net.cpp:425] inception_4b/5x5 <- inception_4b/5x5_reduce
I0403 15:13:33.675006 11726 net.cpp:399] inception_4b/5x5 -> inception_4b/5x5
I0403 15:13:33.676187 11726 net.cpp:141] Setting up inception_4b/5x5
I0403 15:13:33.676218 11726 net.cpp:148] Top shape: 24 64 14 14 (301056)
I0403 15:13:33.676235 11726 net.cpp:156] Memory required for data: 966976800
I0403 15:13:33.676254 11726 layer_factory.hpp:77] Creating layer inception_4b/relu_5x5
I0403 15:13:33.676275 11726 net.cpp:91] Creating Layer inception_4b/relu_5x5
I0403 15:13:33.676292 11726 net.cpp:425] inception_4b/relu_5x5 <- inception_4b/5x5
I0403 15:13:33.676313 11726 net.cpp:386] inception_4b/relu_5x5 -> inception_4b/5x5 (in-place)
I0403 15:13:33.676592 11726 net.cpp:141] Setting up inception_4b/relu_5x5
I0403 15:13:33.676625 11726 net.cpp:148] Top shape: 24 64 14 14 (301056)
I0403 15:13:33.676642 11726 net.cpp:156] Memory required for data: 968181024
I0403 15:13:33.676657 11726 layer_factory.hpp:77] Creating layer inception_4b/pool
I0403 15:13:33.676676 11726 net.cpp:91] Creating Layer inception_4b/pool
I0403 15:13:33.676694 11726 net.cpp:425] inception_4b/pool <- inception_4a/output_inception_4a/output_0_split_4
I0403 15:13:33.676715 11726 net.cpp:399] inception_4b/pool -> inception_4b/pool
I0403 15:13:33.676779 11726 net.cpp:141] Setting up inception_4b/pool
I0403 15:13:33.676802 11726 net.cpp:148] Top shape: 24 512 14 14 (2408448)
I0403 15:13:33.676817 11726 net.cpp:156] Memory required for data: 977814816
I0403 15:13:33.676832 11726 layer_factory.hpp:77] Creating layer inception_4b/pool_proj
I0403 15:13:33.676854 11726 net.cpp:91] Creating Layer inception_4b/pool_proj
I0403 15:13:33.676873 11726 net.cpp:425] inception_4b/pool_proj <- inception_4b/pool
I0403 15:13:33.676894 11726 net.cpp:399] inception_4b/pool_proj -> inception_4b/pool_proj
I0403 15:13:33.678053 11726 net.cpp:141] Setting up inception_4b/pool_proj
I0403 15:13:33.678082 11726 net.cpp:148] Top shape: 24 64 14 14 (301056)
I0403 15:13:33.678098 11726 net.cpp:156] Memory required for data: 979019040
I0403 15:13:33.678117 11726 layer_factory.hpp:77] Creating layer inception_4b/relu_pool_proj
I0403 15:13:33.678133 11726 net.cpp:91] Creating Layer inception_4b/relu_pool_proj
I0403 15:13:33.678149 11726 net.cpp:425] inception_4b/relu_pool_proj <- inception_4b/pool_proj
I0403 15:13:33.678167 11726 net.cpp:386] inception_4b/relu_pool_proj -> inception_4b/pool_proj (in-place)
I0403 15:13:33.678342 11726 net.cpp:141] Setting up inception_4b/relu_pool_proj
I0403 15:13:33.678366 11726 net.cpp:148] Top shape: 24 64 14 14 (301056)
I0403 15:13:33.678380 11726 net.cpp:156] Memory required for data: 980223264
I0403 15:13:33.678395 11726 layer_factory.hpp:77] Creating layer inception_4b/output
I0403 15:13:33.678416 11726 net.cpp:91] Creating Layer inception_4b/output
I0403 15:13:33.678433 11726 net.cpp:425] inception_4b/output <- inception_4b/1x1
I0403 15:13:33.678449 11726 net.cpp:425] inception_4b/output <- inception_4b/3x3
I0403 15:13:33.678464 11726 net.cpp:425] inception_4b/output <- inception_4b/5x5
I0403 15:13:33.678479 11726 net.cpp:425] inception_4b/output <- inception_4b/pool_proj
I0403 15:13:33.678498 11726 net.cpp:399] inception_4b/output -> inception_4b/output
I0403 15:13:33.678542 11726 net.cpp:141] Setting up inception_4b/output
I0403 15:13:33.678567 11726 net.cpp:148] Top shape: 24 512 14 14 (2408448)
I0403 15:13:33.678582 11726 net.cpp:156] Memory required for data: 989857056
I0403 15:13:33.678611 11726 layer_factory.hpp:77] Creating layer inception_4b/output_inception_4b/output_0_split
I0403 15:13:33.678629 11726 net.cpp:91] Creating Layer inception_4b/output_inception_4b/output_0_split
I0403 15:13:33.678645 11726 net.cpp:425] inception_4b/output_inception_4b/output_0_split <- inception_4b/output
I0403 15:13:33.678665 11726 net.cpp:399] inception_4b/output_inception_4b/output_0_split -> inception_4b/output_inception_4b/output_0_split_0
I0403 15:13:33.678685 11726 net.cpp:399] inception_4b/output_inception_4b/output_0_split -> inception_4b/output_inception_4b/output_0_split_1
I0403 15:13:33.678705 11726 net.cpp:399] inception_4b/output_inception_4b/output_0_split -> inception_4b/output_inception_4b/output_0_split_2
I0403 15:13:33.678725 11726 net.cpp:399] inception_4b/output_inception_4b/output_0_split -> inception_4b/output_inception_4b/output_0_split_3
I0403 15:13:33.678804 11726 net.cpp:141] Setting up inception_4b/output_inception_4b/output_0_split
I0403 15:13:33.678828 11726 net.cpp:148] Top shape: 24 512 14 14 (2408448)
I0403 15:13:33.678843 11726 net.cpp:148] Top shape: 24 512 14 14 (2408448)
I0403 15:13:33.678858 11726 net.cpp:148] Top shape: 24 512 14 14 (2408448)
I0403 15:13:33.678874 11726 net.cpp:148] Top shape: 24 512 14 14 (2408448)
I0403 15:13:33.678886 11726 net.cpp:156] Memory required for data: 1028392224
I0403 15:13:33.678900 11726 layer_factory.hpp:77] Creating layer inception_4c/1x1
I0403 15:13:33.678923 11726 net.cpp:91] Creating Layer inception_4c/1x1
I0403 15:13:33.678941 11726 net.cpp:425] inception_4c/1x1 <- inception_4b/output_inception_4b/output_0_split_0
I0403 15:13:33.678958 11726 net.cpp:399] inception_4c/1x1 -> inception_4c/1x1
I0403 15:13:33.680341 11726 net.cpp:141] Setting up inception_4c/1x1
I0403 15:13:33.680368 11726 net.cpp:148] Top shape: 24 128 14 14 (602112)
I0403 15:13:33.680383 11726 net.cpp:156] Memory required for data: 1030800672
I0403 15:13:33.680402 11726 layer_factory.hpp:77] Creating layer inception_4c/relu_1x1
I0403 15:13:33.680428 11726 net.cpp:91] Creating Layer inception_4c/relu_1x1
I0403 15:13:33.680447 11726 net.cpp:425] inception_4c/relu_1x1 <- inception_4c/1x1
I0403 15:13:33.680464 11726 net.cpp:386] inception_4c/relu_1x1 -> inception_4c/1x1 (in-place)
I0403 15:13:33.680639 11726 net.cpp:141] Setting up inception_4c/relu_1x1
I0403 15:13:33.680667 11726 net.cpp:148] Top shape: 24 128 14 14 (602112)
I0403 15:13:33.680683 11726 net.cpp:156] Memory required for data: 1033209120
I0403 15:13:33.680699 11726 layer_factory.hpp:77] Creating layer inception_4c/3x3_reduce
I0403 15:13:33.680719 11726 net.cpp:91] Creating Layer inception_4c/3x3_reduce
I0403 15:13:33.680737 11726 net.cpp:425] inception_4c/3x3_reduce <- inception_4b/output_inception_4b/output_0_split_1
I0403 15:13:33.680758 11726 net.cpp:399] inception_4c/3x3_reduce -> inception_4c/3x3_reduce
I0403 15:13:33.682631 11726 net.cpp:141] Setting up inception_4c/3x3_reduce
I0403 15:13:33.682662 11726 net.cpp:148] Top shape: 24 128 14 14 (602112)
I0403 15:13:33.682679 11726 net.cpp:156] Memory required for data: 1035617568
I0403 15:13:33.682698 11726 layer_factory.hpp:77] Creating layer inception_4c/relu_3x3_reduce
I0403 15:13:33.682716 11726 net.cpp:91] Creating Layer inception_4c/relu_3x3_reduce
I0403 15:13:33.682731 11726 net.cpp:425] inception_4c/relu_3x3_reduce <- inception_4c/3x3_reduce
I0403 15:13:33.682749 11726 net.cpp:386] inception_4c/relu_3x3_reduce -> inception_4c/3x3_reduce (in-place)
I0403 15:13:33.683023 11726 net.cpp:141] Setting up inception_4c/relu_3x3_reduce
I0403 15:13:33.683051 11726 net.cpp:148] Top shape: 24 128 14 14 (602112)
I0403 15:13:33.683066 11726 net.cpp:156] Memory required for data: 1038026016
I0403 15:13:33.683081 11726 layer_factory.hpp:77] Creating layer inception_4c/3x3
I0403 15:13:33.683104 11726 net.cpp:91] Creating Layer inception_4c/3x3
I0403 15:13:33.683121 11726 net.cpp:425] inception_4c/3x3 <- inception_4c/3x3_reduce
I0403 15:13:33.683140 11726 net.cpp:399] inception_4c/3x3 -> inception_4c/3x3
I0403 15:13:33.686710 11726 net.cpp:141] Setting up inception_4c/3x3
I0403 15:13:33.686755 11726 net.cpp:148] Top shape: 24 256 14 14 (1204224)
I0403 15:13:33.686774 11726 net.cpp:156] Memory required for data: 1042842912
I0403 15:13:33.686807 11726 layer_factory.hpp:77] Creating layer inception_4c/relu_3x3
I0403 15:13:33.686830 11726 net.cpp:91] Creating Layer inception_4c/relu_3x3
I0403 15:13:33.686847 11726 net.cpp:425] inception_4c/relu_3x3 <- inception_4c/3x3
I0403 15:13:33.686867 11726 net.cpp:386] inception_4c/relu_3x3 -> inception_4c/3x3 (in-place)
I0403 15:13:33.687052 11726 net.cpp:141] Setting up inception_4c/relu_3x3
I0403 15:13:33.687078 11726 net.cpp:148] Top shape: 24 256 14 14 (1204224)
I0403 15:13:33.687093 11726 net.cpp:156] Memory required for data: 1047659808
I0403 15:13:33.687108 11726 layer_factory.hpp:77] Creating layer inception_4c/5x5_reduce
I0403 15:13:33.687131 11726 net.cpp:91] Creating Layer inception_4c/5x5_reduce
I0403 15:13:33.687150 11726 net.cpp:425] inception_4c/5x5_reduce <- inception_4b/output_inception_4b/output_0_split_2
I0403 15:13:33.687171 11726 net.cpp:399] inception_4c/5x5_reduce -> inception_4c/5x5_reduce
I0403 15:13:33.688290 11726 net.cpp:141] Setting up inception_4c/5x5_reduce
I0403 15:13:33.688319 11726 net.cpp:148] Top shape: 24 24 14 14 (112896)
I0403 15:13:33.688335 11726 net.cpp:156] Memory required for data: 1048111392
I0403 15:13:33.688354 11726 layer_factory.hpp:77] Creating layer inception_4c/relu_5x5_reduce
I0403 15:13:33.688370 11726 net.cpp:91] Creating Layer inception_4c/relu_5x5_reduce
I0403 15:13:33.688386 11726 net.cpp:425] inception_4c/relu_5x5_reduce <- inception_4c/5x5_reduce
I0403 15:13:33.688405 11726 net.cpp:386] inception_4c/relu_5x5_reduce -> inception_4c/5x5_reduce (in-place)
I0403 15:13:33.688591 11726 net.cpp:141] Setting up inception_4c/relu_5x5_reduce
I0403 15:13:33.688614 11726 net.cpp:148] Top shape: 24 24 14 14 (112896)
I0403 15:13:33.688629 11726 net.cpp:156] Memory required for data: 1048562976
I0403 15:13:33.688643 11726 layer_factory.hpp:77] Creating layer inception_4c/5x5
I0403 15:13:33.688665 11726 net.cpp:91] Creating Layer inception_4c/5x5
I0403 15:13:33.688683 11726 net.cpp:425] inception_4c/5x5 <- inception_4c/5x5_reduce
I0403 15:13:33.688702 11726 net.cpp:399] inception_4c/5x5 -> inception_4c/5x5
I0403 15:13:33.689911 11726 net.cpp:141] Setting up inception_4c/5x5
I0403 15:13:33.689939 11726 net.cpp:148] Top shape: 24 64 14 14 (301056)
I0403 15:13:33.689954 11726 net.cpp:156] Memory required for data: 1049767200
I0403 15:13:33.689972 11726 layer_factory.hpp:77] Creating layer inception_4c/relu_5x5
I0403 15:13:33.689990 11726 net.cpp:91] Creating Layer inception_4c/relu_5x5
I0403 15:13:33.690006 11726 net.cpp:425] inception_4c/relu_5x5 <- inception_4c/5x5
I0403 15:13:33.690026 11726 net.cpp:386] inception_4c/relu_5x5 -> inception_4c/5x5 (in-place)
I0403 15:13:33.690311 11726 net.cpp:141] Setting up inception_4c/relu_5x5
I0403 15:13:33.690337 11726 net.cpp:148] Top shape: 24 64 14 14 (301056)
I0403 15:13:33.690351 11726 net.cpp:156] Memory required for data: 1050971424
I0403 15:13:33.690366 11726 layer_factory.hpp:77] Creating layer inception_4c/pool
I0403 15:13:33.690382 11726 net.cpp:91] Creating Layer inception_4c/pool
I0403 15:13:33.690398 11726 net.cpp:425] inception_4c/pool <- inception_4b/output_inception_4b/output_0_split_3
I0403 15:13:33.690423 11726 net.cpp:399] inception_4c/pool -> inception_4c/pool
I0403 15:13:33.690487 11726 net.cpp:141] Setting up inception_4c/pool
I0403 15:13:33.690510 11726 net.cpp:148] Top shape: 24 512 14 14 (2408448)
I0403 15:13:33.690523 11726 net.cpp:156] Memory required for data: 1060605216
I0403 15:13:33.690538 11726 layer_factory.hpp:77] Creating layer inception_4c/pool_proj
I0403 15:13:33.690560 11726 net.cpp:91] Creating Layer inception_4c/pool_proj
I0403 15:13:33.690577 11726 net.cpp:425] inception_4c/pool_proj <- inception_4c/pool
I0403 15:13:33.690595 11726 net.cpp:399] inception_4c/pool_proj -> inception_4c/pool_proj
I0403 15:13:33.691776 11726 net.cpp:141] Setting up inception_4c/pool_proj
I0403 15:13:33.691804 11726 net.cpp:148] Top shape: 24 64 14 14 (301056)
I0403 15:13:33.691835 11726 net.cpp:156] Memory required for data: 1061809440
I0403 15:13:33.691855 11726 layer_factory.hpp:77] Creating layer inception_4c/relu_pool_proj
I0403 15:13:33.691874 11726 net.cpp:91] Creating Layer inception_4c/relu_pool_proj
I0403 15:13:33.691890 11726 net.cpp:425] inception_4c/relu_pool_proj <- inception_4c/pool_proj
I0403 15:13:33.691910 11726 net.cpp:386] inception_4c/relu_pool_proj -> inception_4c/pool_proj (in-place)
I0403 15:13:33.692088 11726 net.cpp:141] Setting up inception_4c/relu_pool_proj
I0403 15:13:33.692114 11726 net.cpp:148] Top shape: 24 64 14 14 (301056)
I0403 15:13:33.692129 11726 net.cpp:156] Memory required for data: 1063013664
I0403 15:13:33.692145 11726 layer_factory.hpp:77] Creating layer inception_4c/output
I0403 15:13:33.692162 11726 net.cpp:91] Creating Layer inception_4c/output
I0403 15:13:33.692178 11726 net.cpp:425] inception_4c/output <- inception_4c/1x1
I0403 15:13:33.692194 11726 net.cpp:425] inception_4c/output <- inception_4c/3x3
I0403 15:13:33.692210 11726 net.cpp:425] inception_4c/output <- inception_4c/5x5
I0403 15:13:33.692227 11726 net.cpp:425] inception_4c/output <- inception_4c/pool_proj
I0403 15:13:33.692246 11726 net.cpp:399] inception_4c/output -> inception_4c/output
I0403 15:13:33.692291 11726 net.cpp:141] Setting up inception_4c/output
I0403 15:13:33.692317 11726 net.cpp:148] Top shape: 24 512 14 14 (2408448)
I0403 15:13:33.692332 11726 net.cpp:156] Memory required for data: 1072647456
I0403 15:13:33.692345 11726 layer_factory.hpp:77] Creating layer inception_4c/output_inception_4c/output_0_split
I0403 15:13:33.692363 11726 net.cpp:91] Creating Layer inception_4c/output_inception_4c/output_0_split
I0403 15:13:33.692378 11726 net.cpp:425] inception_4c/output_inception_4c/output_0_split <- inception_4c/output
I0403 15:13:33.692394 11726 net.cpp:399] inception_4c/output_inception_4c/output_0_split -> inception_4c/output_inception_4c/output_0_split_0
I0403 15:13:33.692419 11726 net.cpp:399] inception_4c/output_inception_4c/output_0_split -> inception_4c/output_inception_4c/output_0_split_1
I0403 15:13:33.692440 11726 net.cpp:399] inception_4c/output_inception_4c/output_0_split -> inception_4c/output_inception_4c/output_0_split_2
I0403 15:13:33.692461 11726 net.cpp:399] inception_4c/output_inception_4c/output_0_split -> inception_4c/output_inception_4c/output_0_split_3
I0403 15:13:33.692544 11726 net.cpp:141] Setting up inception_4c/output_inception_4c/output_0_split
I0403 15:13:33.692566 11726 net.cpp:148] Top shape: 24 512 14 14 (2408448)
I0403 15:13:33.692582 11726 net.cpp:148] Top shape: 24 512 14 14 (2408448)
I0403 15:13:33.692596 11726 net.cpp:148] Top shape: 24 512 14 14 (2408448)
I0403 15:13:33.692612 11726 net.cpp:148] Top shape: 24 512 14 14 (2408448)
I0403 15:13:33.692625 11726 net.cpp:156] Memory required for data: 1111182624
I0403 15:13:33.692638 11726 layer_factory.hpp:77] Creating layer inception_4d/1x1
I0403 15:13:33.692662 11726 net.cpp:91] Creating Layer inception_4d/1x1
I0403 15:13:33.692678 11726 net.cpp:425] inception_4d/1x1 <- inception_4c/output_inception_4c/output_0_split_0
I0403 15:13:33.692697 11726 net.cpp:399] inception_4d/1x1 -> inception_4d/1x1
I0403 15:13:33.694033 11726 net.cpp:141] Setting up inception_4d/1x1
I0403 15:13:33.694061 11726 net.cpp:148] Top shape: 24 112 14 14 (526848)
I0403 15:13:33.694077 11726 net.cpp:156] Memory required for data: 1113290016
I0403 15:13:33.694097 11726 layer_factory.hpp:77] Creating layer inception_4d/relu_1x1
I0403 15:13:33.694115 11726 net.cpp:91] Creating Layer inception_4d/relu_1x1
I0403 15:13:33.694131 11726 net.cpp:425] inception_4d/relu_1x1 <- inception_4d/1x1
I0403 15:13:33.694149 11726 net.cpp:386] inception_4d/relu_1x1 -> inception_4d/1x1 (in-place)
I0403 15:13:33.694327 11726 net.cpp:141] Setting up inception_4d/relu_1x1
I0403 15:13:33.694355 11726 net.cpp:148] Top shape: 24 112 14 14 (526848)
I0403 15:13:33.694370 11726 net.cpp:156] Memory required for data: 1115397408
I0403 15:13:33.694386 11726 layer_factory.hpp:77] Creating layer inception_4d/3x3_reduce
I0403 15:13:33.694424 11726 net.cpp:91] Creating Layer inception_4d/3x3_reduce
I0403 15:13:33.694443 11726 net.cpp:425] inception_4d/3x3_reduce <- inception_4c/output_inception_4c/output_0_split_1
I0403 15:13:33.694461 11726 net.cpp:399] inception_4d/3x3_reduce -> inception_4d/3x3_reduce
I0403 15:13:33.695927 11726 net.cpp:141] Setting up inception_4d/3x3_reduce
I0403 15:13:33.695956 11726 net.cpp:148] Top shape: 24 144 14 14 (677376)
I0403 15:13:33.695971 11726 net.cpp:156] Memory required for data: 1118106912
I0403 15:13:33.695991 11726 layer_factory.hpp:77] Creating layer inception_4d/relu_3x3_reduce
I0403 15:13:33.696010 11726 net.cpp:91] Creating Layer inception_4d/relu_3x3_reduce
I0403 15:13:33.696028 11726 net.cpp:425] inception_4d/relu_3x3_reduce <- inception_4d/3x3_reduce
I0403 15:13:33.696046 11726 net.cpp:386] inception_4d/relu_3x3_reduce -> inception_4d/3x3_reduce (in-place)
I0403 15:13:33.696328 11726 net.cpp:141] Setting up inception_4d/relu_3x3_reduce
I0403 15:13:33.696354 11726 net.cpp:148] Top shape: 24 144 14 14 (677376)
I0403 15:13:33.696368 11726 net.cpp:156] Memory required for data: 1120816416
I0403 15:13:33.696382 11726 layer_factory.hpp:77] Creating layer inception_4d/3x3
I0403 15:13:33.696404 11726 net.cpp:91] Creating Layer inception_4d/3x3
I0403 15:13:33.696426 11726 net.cpp:425] inception_4d/3x3 <- inception_4d/3x3_reduce
I0403 15:13:33.696447 11726 net.cpp:399] inception_4d/3x3 -> inception_4d/3x3
I0403 15:13:33.700563 11726 net.cpp:141] Setting up inception_4d/3x3
I0403 15:13:33.700592 11726 net.cpp:148] Top shape: 24 288 14 14 (1354752)
I0403 15:13:33.700613 11726 net.cpp:156] Memory required for data: 1126235424
I0403 15:13:33.700633 11726 layer_factory.hpp:77] Creating layer inception_4d/relu_3x3
I0403 15:13:33.700650 11726 net.cpp:91] Creating Layer inception_4d/relu_3x3
I0403 15:13:33.700667 11726 net.cpp:425] inception_4d/relu_3x3 <- inception_4d/3x3
I0403 15:13:33.700685 11726 net.cpp:386] inception_4d/relu_3x3 -> inception_4d/3x3 (in-place)
I0403 15:13:33.700865 11726 net.cpp:141] Setting up inception_4d/relu_3x3
I0403 15:13:33.700891 11726 net.cpp:148] Top shape: 24 288 14 14 (1354752)
I0403 15:13:33.700906 11726 net.cpp:156] Memory required for data: 1131654432
I0403 15:13:33.700922 11726 layer_factory.hpp:77] Creating layer inception_4d/5x5_reduce
I0403 15:13:33.700942 11726 net.cpp:91] Creating Layer inception_4d/5x5_reduce
I0403 15:13:33.700959 11726 net.cpp:425] inception_4d/5x5_reduce <- inception_4c/output_inception_4c/output_0_split_2
I0403 15:13:33.700978 11726 net.cpp:399] inception_4d/5x5_reduce -> inception_4d/5x5_reduce
I0403 15:13:33.702100 11726 net.cpp:141] Setting up inception_4d/5x5_reduce
I0403 15:13:33.702126 11726 net.cpp:148] Top shape: 24 32 14 14 (150528)
I0403 15:13:33.702141 11726 net.cpp:156] Memory required for data: 1132256544
I0403 15:13:33.702158 11726 layer_factory.hpp:77] Creating layer inception_4d/relu_5x5_reduce
I0403 15:13:33.702178 11726 net.cpp:91] Creating Layer inception_4d/relu_5x5_reduce
I0403 15:13:33.702194 11726 net.cpp:425] inception_4d/relu_5x5_reduce <- inception_4d/5x5_reduce
I0403 15:13:33.702211 11726 net.cpp:386] inception_4d/relu_5x5_reduce -> inception_4d/5x5_reduce (in-place)
I0403 15:13:33.702394 11726 net.cpp:141] Setting up inception_4d/relu_5x5_reduce
I0403 15:13:33.702421 11726 net.cpp:148] Top shape: 24 32 14 14 (150528)
I0403 15:13:33.702437 11726 net.cpp:156] Memory required for data: 1132858656
I0403 15:13:33.702451 11726 layer_factory.hpp:77] Creating layer inception_4d/5x5
I0403 15:13:33.702473 11726 net.cpp:91] Creating Layer inception_4d/5x5
I0403 15:13:33.702491 11726 net.cpp:425] inception_4d/5x5 <- inception_4d/5x5_reduce
I0403 15:13:33.702510 11726 net.cpp:399] inception_4d/5x5 -> inception_4d/5x5
I0403 15:13:33.703989 11726 net.cpp:141] Setting up inception_4d/5x5
I0403 15:13:33.704016 11726 net.cpp:148] Top shape: 24 64 14 14 (301056)
I0403 15:13:33.704031 11726 net.cpp:156] Memory required for data: 1134062880
I0403 15:13:33.704051 11726 layer_factory.hpp:77] Creating layer inception_4d/relu_5x5
I0403 15:13:33.704082 11726 net.cpp:91] Creating Layer inception_4d/relu_5x5
I0403 15:13:33.704099 11726 net.cpp:425] inception_4d/relu_5x5 <- inception_4d/5x5
I0403 15:13:33.704118 11726 net.cpp:386] inception_4d/relu_5x5 -> inception_4d/5x5 (in-place)
I0403 15:13:33.704418 11726 net.cpp:141] Setting up inception_4d/relu_5x5
I0403 15:13:33.704444 11726 net.cpp:148] Top shape: 24 64 14 14 (301056)
I0403 15:13:33.704458 11726 net.cpp:156] Memory required for data: 1135267104
I0403 15:13:33.704473 11726 layer_factory.hpp:77] Creating layer inception_4d/pool
I0403 15:13:33.704490 11726 net.cpp:91] Creating Layer inception_4d/pool
I0403 15:13:33.704505 11726 net.cpp:425] inception_4d/pool <- inception_4c/output_inception_4c/output_0_split_3
I0403 15:13:33.704525 11726 net.cpp:399] inception_4d/pool -> inception_4d/pool
I0403 15:13:33.704591 11726 net.cpp:141] Setting up inception_4d/pool
I0403 15:13:33.704613 11726 net.cpp:148] Top shape: 24 512 14 14 (2408448)
I0403 15:13:33.704627 11726 net.cpp:156] Memory required for data: 1144900896
I0403 15:13:33.704641 11726 layer_factory.hpp:77] Creating layer inception_4d/pool_proj
I0403 15:13:33.704664 11726 net.cpp:91] Creating Layer inception_4d/pool_proj
I0403 15:13:33.704680 11726 net.cpp:425] inception_4d/pool_proj <- inception_4d/pool
I0403 15:13:33.704699 11726 net.cpp:399] inception_4d/pool_proj -> inception_4d/pool_proj
I0403 15:13:33.706446 11726 net.cpp:141] Setting up inception_4d/pool_proj
I0403 15:13:33.706478 11726 net.cpp:148] Top shape: 24 64 14 14 (301056)
I0403 15:13:33.706497 11726 net.cpp:156] Memory required for data: 1146105120
I0403 15:13:33.706516 11726 layer_factory.hpp:77] Creating layer inception_4d/relu_pool_proj
I0403 15:13:33.706534 11726 net.cpp:91] Creating Layer inception_4d/relu_pool_proj
I0403 15:13:33.706550 11726 net.cpp:425] inception_4d/relu_pool_proj <- inception_4d/pool_proj
I0403 15:13:33.706568 11726 net.cpp:386] inception_4d/relu_pool_proj -> inception_4d/pool_proj (in-place)
I0403 15:13:33.706755 11726 net.cpp:141] Setting up inception_4d/relu_pool_proj
I0403 15:13:33.706784 11726 net.cpp:148] Top shape: 24 64 14 14 (301056)
I0403 15:13:33.706799 11726 net.cpp:156] Memory required for data: 1147309344
I0403 15:13:33.706814 11726 layer_factory.hpp:77] Creating layer inception_4d/output
I0403 15:13:33.706831 11726 net.cpp:91] Creating Layer inception_4d/output
I0403 15:13:33.706847 11726 net.cpp:425] inception_4d/output <- inception_4d/1x1
I0403 15:13:33.706864 11726 net.cpp:425] inception_4d/output <- inception_4d/3x3
I0403 15:13:33.706881 11726 net.cpp:425] inception_4d/output <- inception_4d/5x5
I0403 15:13:33.706897 11726 net.cpp:425] inception_4d/output <- inception_4d/pool_proj
I0403 15:13:33.706915 11726 net.cpp:399] inception_4d/output -> inception_4d/output
I0403 15:13:33.706962 11726 net.cpp:141] Setting up inception_4d/output
I0403 15:13:33.706986 11726 net.cpp:148] Top shape: 24 528 14 14 (2483712)
I0403 15:13:33.707000 11726 net.cpp:156] Memory required for data: 1157244192
I0403 15:13:33.707015 11726 layer_factory.hpp:77] Creating layer inception_4d/output_inception_4d/output_0_split
I0403 15:13:33.707036 11726 net.cpp:91] Creating Layer inception_4d/output_inception_4d/output_0_split
I0403 15:13:33.707053 11726 net.cpp:425] inception_4d/output_inception_4d/output_0_split <- inception_4d/output
I0403 15:13:33.707072 11726 net.cpp:399] inception_4d/output_inception_4d/output_0_split -> inception_4d/output_inception_4d/output_0_split_0
I0403 15:13:33.707096 11726 net.cpp:399] inception_4d/output_inception_4d/output_0_split -> inception_4d/output_inception_4d/output_0_split_1
I0403 15:13:33.707116 11726 net.cpp:399] inception_4d/output_inception_4d/output_0_split -> inception_4d/output_inception_4d/output_0_split_2
I0403 15:13:33.707137 11726 net.cpp:399] inception_4d/output_inception_4d/output_0_split -> inception_4d/output_inception_4d/output_0_split_3
I0403 15:13:33.707157 11726 net.cpp:399] inception_4d/output_inception_4d/output_0_split -> inception_4d/output_inception_4d/output_0_split_4
I0403 15:13:33.707257 11726 net.cpp:141] Setting up inception_4d/output_inception_4d/output_0_split
I0403 15:13:33.707293 11726 net.cpp:148] Top shape: 24 528 14 14 (2483712)
I0403 15:13:33.707309 11726 net.cpp:148] Top shape: 24 528 14 14 (2483712)
I0403 15:13:33.707324 11726 net.cpp:148] Top shape: 24 528 14 14 (2483712)
I0403 15:13:33.707340 11726 net.cpp:148] Top shape: 24 528 14 14 (2483712)
I0403 15:13:33.707355 11726 net.cpp:148] Top shape: 24 528 14 14 (2483712)
I0403 15:13:33.707370 11726 net.cpp:156] Memory required for data: 1206918432
I0403 15:13:33.707383 11726 layer_factory.hpp:77] Creating layer loss2/ave_pool
I0403 15:13:33.707403 11726 net.cpp:91] Creating Layer loss2/ave_pool
I0403 15:13:33.707425 11726 net.cpp:425] loss2/ave_pool <- inception_4d/output_inception_4d/output_0_split_0
I0403 15:13:33.707444 11726 net.cpp:399] loss2/ave_pool -> loss2/ave_pool
I0403 15:13:33.707754 11726 net.cpp:141] Setting up loss2/ave_pool
I0403 15:13:33.707783 11726 net.cpp:148] Top shape: 24 528 4 4 (202752)
I0403 15:13:33.707799 11726 net.cpp:156] Memory required for data: 1207729440
I0403 15:13:33.707814 11726 layer_factory.hpp:77] Creating layer loss2/conv
I0403 15:13:33.707834 11726 net.cpp:91] Creating Layer loss2/conv
I0403 15:13:33.707851 11726 net.cpp:425] loss2/conv <- loss2/ave_pool
I0403 15:13:33.707872 11726 net.cpp:399] loss2/conv -> loss2/conv
I0403 15:13:33.709770 11726 net.cpp:141] Setting up loss2/conv
I0403 15:13:33.709800 11726 net.cpp:148] Top shape: 24 128 4 4 (49152)
I0403 15:13:33.709817 11726 net.cpp:156] Memory required for data: 1207926048
I0403 15:13:33.709837 11726 layer_factory.hpp:77] Creating layer loss2/relu_conv
I0403 15:13:33.709856 11726 net.cpp:91] Creating Layer loss2/relu_conv
I0403 15:13:33.709873 11726 net.cpp:425] loss2/relu_conv <- loss2/conv
I0403 15:13:33.709895 11726 net.cpp:386] loss2/relu_conv -> loss2/conv (in-place)
I0403 15:13:33.710180 11726 net.cpp:141] Setting up loss2/relu_conv
I0403 15:13:33.710207 11726 net.cpp:148] Top shape: 24 128 4 4 (49152)
I0403 15:13:33.710224 11726 net.cpp:156] Memory required for data: 1208122656
I0403 15:13:33.710238 11726 layer_factory.hpp:77] Creating layer loss2/fc
I0403 15:13:33.710258 11726 net.cpp:91] Creating Layer loss2/fc
I0403 15:13:33.710274 11726 net.cpp:425] loss2/fc <- loss2/conv
I0403 15:13:33.710296 11726 net.cpp:399] loss2/fc -> loss2/fc
I0403 15:13:33.728011 11726 net.cpp:141] Setting up loss2/fc
I0403 15:13:33.728072 11726 net.cpp:148] Top shape: 24 1024 (24576)
I0403 15:13:33.728090 11726 net.cpp:156] Memory required for data: 1208220960
I0403 15:13:33.728111 11726 layer_factory.hpp:77] Creating layer loss2/relu_fc
I0403 15:13:33.728132 11726 net.cpp:91] Creating Layer loss2/relu_fc
I0403 15:13:33.728153 11726 net.cpp:425] loss2/relu_fc <- loss2/fc
I0403 15:13:33.728173 11726 net.cpp:386] loss2/relu_fc -> loss2/fc (in-place)
I0403 15:13:33.728515 11726 net.cpp:141] Setting up loss2/relu_fc
I0403 15:13:33.728546 11726 net.cpp:148] Top shape: 24 1024 (24576)
I0403 15:13:33.728564 11726 net.cpp:156] Memory required for data: 1208319264
I0403 15:13:33.728579 11726 layer_factory.hpp:77] Creating layer loss2/drop_fc
I0403 15:13:33.728597 11726 net.cpp:91] Creating Layer loss2/drop_fc
I0403 15:13:33.728615 11726 net.cpp:425] loss2/drop_fc <- loss2/fc
I0403 15:13:33.728631 11726 net.cpp:386] loss2/drop_fc -> loss2/fc (in-place)
I0403 15:13:33.728683 11726 net.cpp:141] Setting up loss2/drop_fc
I0403 15:13:33.728706 11726 net.cpp:148] Top shape: 24 1024 (24576)
I0403 15:13:33.728720 11726 net.cpp:156] Memory required for data: 1208417568
I0403 15:13:33.728734 11726 layer_factory.hpp:77] Creating layer loss2/classifier_plantvillage
I0403 15:13:33.728757 11726 net.cpp:91] Creating Layer loss2/classifier_plantvillage
I0403 15:13:33.728775 11726 net.cpp:425] loss2/classifier_plantvillage <- loss2/fc
I0403 15:13:33.728792 11726 net.cpp:399] loss2/classifier_plantvillage -> loss2/classifier_plantvillage
I0403 15:13:33.729204 11726 net.cpp:141] Setting up loss2/classifier_plantvillage
I0403 15:13:33.729229 11726 net.cpp:148] Top shape: 24 38 (912)
I0403 15:13:33.729272 11726 net.cpp:156] Memory required for data: 1208421216
I0403 15:13:33.729292 11726 layer_factory.hpp:77] Creating layer loss2/classifier_plantvillage_loss2/classifier_plantvillage_0_split
I0403 15:13:33.729311 11726 net.cpp:91] Creating Layer loss2/classifier_plantvillage_loss2/classifier_plantvillage_0_split
I0403 15:13:33.729327 11726 net.cpp:425] loss2/classifier_plantvillage_loss2/classifier_plantvillage_0_split <- loss2/classifier_plantvillage
I0403 15:13:33.729347 11726 net.cpp:399] loss2/classifier_plantvillage_loss2/classifier_plantvillage_0_split -> loss2/classifier_plantvillage_loss2/classifier_plantvillage_0_split_0
I0403 15:13:33.729368 11726 net.cpp:399] loss2/classifier_plantvillage_loss2/classifier_plantvillage_0_split -> loss2/classifier_plantvillage_loss2/classifier_plantvillage_0_split_1
I0403 15:13:33.729389 11726 net.cpp:399] loss2/classifier_plantvillage_loss2/classifier_plantvillage_0_split -> loss2/classifier_plantvillage_loss2/classifier_plantvillage_0_split_2
I0403 15:13:33.729470 11726 net.cpp:141] Setting up loss2/classifier_plantvillage_loss2/classifier_plantvillage_0_split
I0403 15:13:33.729496 11726 net.cpp:148] Top shape: 24 38 (912)
I0403 15:13:33.729513 11726 net.cpp:148] Top shape: 24 38 (912)
I0403 15:13:33.729528 11726 net.cpp:148] Top shape: 24 38 (912)
I0403 15:13:33.729542 11726 net.cpp:156] Memory required for data: 1208432160
I0403 15:13:33.729557 11726 layer_factory.hpp:77] Creating layer inception_4e/1x1
I0403 15:13:33.729578 11726 net.cpp:91] Creating Layer inception_4e/1x1
I0403 15:13:33.729595 11726 net.cpp:425] inception_4e/1x1 <- inception_4d/output_inception_4d/output_0_split_1
I0403 15:13:33.729614 11726 net.cpp:399] inception_4e/1x1 -> inception_4e/1x1
I0403 15:13:33.731492 11726 net.cpp:141] Setting up inception_4e/1x1
I0403 15:13:33.731523 11726 net.cpp:148] Top shape: 24 256 14 14 (1204224)
I0403 15:13:33.731539 11726 net.cpp:156] Memory required for data: 1213249056
I0403 15:13:33.731559 11726 layer_factory.hpp:77] Creating layer inception_4e/relu_1x1
I0403 15:13:33.731580 11726 net.cpp:91] Creating Layer inception_4e/relu_1x1
I0403 15:13:33.731597 11726 net.cpp:425] inception_4e/relu_1x1 <- inception_4e/1x1
I0403 15:13:33.731617 11726 net.cpp:386] inception_4e/relu_1x1 -> inception_4e/1x1 (in-place)
I0403 15:13:33.731931 11726 net.cpp:141] Setting up inception_4e/relu_1x1
I0403 15:13:33.731958 11726 net.cpp:148] Top shape: 24 256 14 14 (1204224)
I0403 15:13:33.731973 11726 net.cpp:156] Memory required for data: 1218065952
I0403 15:13:33.731987 11726 layer_factory.hpp:77] Creating layer inception_4e/3x3_reduce
I0403 15:13:33.732010 11726 net.cpp:91] Creating Layer inception_4e/3x3_reduce
I0403 15:13:33.732028 11726 net.cpp:425] inception_4e/3x3_reduce <- inception_4d/output_inception_4d/output_0_split_2
I0403 15:13:33.732049 11726 net.cpp:399] inception_4e/3x3_reduce -> inception_4e/3x3_reduce
I0403 15:13:33.734200 11726 net.cpp:141] Setting up inception_4e/3x3_reduce
I0403 15:13:33.734231 11726 net.cpp:148] Top shape: 24 160 14 14 (752640)
I0403 15:13:33.734249 11726 net.cpp:156] Memory required for data: 1221076512
I0403 15:13:33.734269 11726 layer_factory.hpp:77] Creating layer inception_4e/relu_3x3_reduce
I0403 15:13:33.734288 11726 net.cpp:91] Creating Layer inception_4e/relu_3x3_reduce
I0403 15:13:33.734305 11726 net.cpp:425] inception_4e/relu_3x3_reduce <- inception_4e/3x3_reduce
I0403 15:13:33.734326 11726 net.cpp:386] inception_4e/relu_3x3_reduce -> inception_4e/3x3_reduce (in-place)
I0403 15:13:33.734520 11726 net.cpp:141] Setting up inception_4e/relu_3x3_reduce
I0403 15:13:33.734546 11726 net.cpp:148] Top shape: 24 160 14 14 (752640)
I0403 15:13:33.734563 11726 net.cpp:156] Memory required for data: 1224087072
I0403 15:13:33.734580 11726 layer_factory.hpp:77] Creating layer inception_4e/3x3
I0403 15:13:33.734601 11726 net.cpp:91] Creating Layer inception_4e/3x3
I0403 15:13:33.734621 11726 net.cpp:425] inception_4e/3x3 <- inception_4e/3x3_reduce
I0403 15:13:33.734643 11726 net.cpp:399] inception_4e/3x3 -> inception_4e/3x3
I0403 15:13:33.739650 11726 net.cpp:141] Setting up inception_4e/3x3
I0403 15:13:33.739693 11726 net.cpp:148] Top shape: 24 320 14 14 (1505280)
I0403 15:13:33.739709 11726 net.cpp:156] Memory required for data: 1230108192
I0403 15:13:33.739728 11726 layer_factory.hpp:77] Creating layer inception_4e/relu_3x3
I0403 15:13:33.739749 11726 net.cpp:91] Creating Layer inception_4e/relu_3x3
I0403 15:13:33.739768 11726 net.cpp:425] inception_4e/relu_3x3 <- inception_4e/3x3
I0403 15:13:33.739785 11726 net.cpp:386] inception_4e/relu_3x3 -> inception_4e/3x3 (in-place)
I0403 15:13:33.740090 11726 net.cpp:141] Setting up inception_4e/relu_3x3
I0403 15:13:33.740118 11726 net.cpp:148] Top shape: 24 320 14 14 (1505280)
I0403 15:13:33.740135 11726 net.cpp:156] Memory required for data: 1236129312
I0403 15:13:33.740151 11726 layer_factory.hpp:77] Creating layer inception_4e/5x5_reduce
I0403 15:13:33.740176 11726 net.cpp:91] Creating Layer inception_4e/5x5_reduce
I0403 15:13:33.740196 11726 net.cpp:425] inception_4e/5x5_reduce <- inception_4d/output_inception_4d/output_0_split_3
I0403 15:13:33.740216 11726 net.cpp:399] inception_4e/5x5_reduce -> inception_4e/5x5_reduce
I0403 15:13:33.741325 11726 net.cpp:141] Setting up inception_4e/5x5_reduce
I0403 15:13:33.741354 11726 net.cpp:148] Top shape: 24 32 14 14 (150528)
I0403 15:13:33.741371 11726 net.cpp:156] Memory required for data: 1236731424
I0403 15:13:33.741391 11726 layer_factory.hpp:77] Creating layer inception_4e/relu_5x5_reduce
I0403 15:13:33.741412 11726 net.cpp:91] Creating Layer inception_4e/relu_5x5_reduce
I0403 15:13:33.741431 11726 net.cpp:425] inception_4e/relu_5x5_reduce <- inception_4e/5x5_reduce
I0403 15:13:33.741452 11726 net.cpp:386] inception_4e/relu_5x5_reduce -> inception_4e/5x5_reduce (in-place)
I0403 15:13:33.741753 11726 net.cpp:141] Setting up inception_4e/relu_5x5_reduce
I0403 15:13:33.741780 11726 net.cpp:148] Top shape: 24 32 14 14 (150528)
I0403 15:13:33.741794 11726 net.cpp:156] Memory required for data: 1237333536
I0403 15:13:33.741809 11726 layer_factory.hpp:77] Creating layer inception_4e/5x5
I0403 15:13:33.741848 11726 net.cpp:91] Creating Layer inception_4e/5x5
I0403 15:13:33.741868 11726 net.cpp:425] inception_4e/5x5 <- inception_4e/5x5_reduce
I0403 15:13:33.741888 11726 net.cpp:399] inception_4e/5x5 -> inception_4e/5x5
I0403 15:13:33.743742 11726 net.cpp:141] Setting up inception_4e/5x5
I0403 15:13:33.743773 11726 net.cpp:148] Top shape: 24 128 14 14 (602112)
I0403 15:13:33.743790 11726 net.cpp:156] Memory required for data: 1239741984
I0403 15:13:33.743810 11726 layer_factory.hpp:77] Creating layer inception_4e/relu_5x5
I0403 15:13:33.743829 11726 net.cpp:91] Creating Layer inception_4e/relu_5x5
I0403 15:13:33.743845 11726 net.cpp:425] inception_4e/relu_5x5 <- inception_4e/5x5
I0403 15:13:33.743863 11726 net.cpp:386] inception_4e/relu_5x5 -> inception_4e/5x5 (in-place)
I0403 15:13:33.744077 11726 net.cpp:141] Setting up inception_4e/relu_5x5
I0403 15:13:33.744103 11726 net.cpp:148] Top shape: 24 128 14 14 (602112)
I0403 15:13:33.744118 11726 net.cpp:156] Memory required for data: 1242150432
I0403 15:13:33.744132 11726 layer_factory.hpp:77] Creating layer inception_4e/pool
I0403 15:13:33.744151 11726 net.cpp:91] Creating Layer inception_4e/pool
I0403 15:13:33.744168 11726 net.cpp:425] inception_4e/pool <- inception_4d/output_inception_4d/output_0_split_4
I0403 15:13:33.744189 11726 net.cpp:399] inception_4e/pool -> inception_4e/pool
I0403 15:13:33.744258 11726 net.cpp:141] Setting up inception_4e/pool
I0403 15:13:33.744284 11726 net.cpp:148] Top shape: 24 528 14 14 (2483712)
I0403 15:13:33.744302 11726 net.cpp:156] Memory required for data: 1252085280
I0403 15:13:33.744318 11726 layer_factory.hpp:77] Creating layer inception_4e/pool_proj
I0403 15:13:33.744339 11726 net.cpp:91] Creating Layer inception_4e/pool_proj
I0403 15:13:33.744356 11726 net.cpp:425] inception_4e/pool_proj <- inception_4e/pool
I0403 15:13:33.744374 11726 net.cpp:399] inception_4e/pool_proj -> inception_4e/pool_proj
I0403 15:13:33.745836 11726 net.cpp:141] Setting up inception_4e/pool_proj
I0403 15:13:33.745878 11726 net.cpp:148] Top shape: 24 128 14 14 (602112)
I0403 15:13:33.745895 11726 net.cpp:156] Memory required for data: 1254493728
I0403 15:13:33.745914 11726 layer_factory.hpp:77] Creating layer inception_4e/relu_pool_proj
I0403 15:13:33.745932 11726 net.cpp:91] Creating Layer inception_4e/relu_pool_proj
I0403 15:13:33.745949 11726 net.cpp:425] inception_4e/relu_pool_proj <- inception_4e/pool_proj
I0403 15:13:33.745965 11726 net.cpp:386] inception_4e/relu_pool_proj -> inception_4e/pool_proj (in-place)
I0403 15:13:33.746258 11726 net.cpp:141] Setting up inception_4e/relu_pool_proj
I0403 15:13:33.746284 11726 net.cpp:148] Top shape: 24 128 14 14 (602112)
I0403 15:13:33.746299 11726 net.cpp:156] Memory required for data: 1256902176
I0403 15:13:33.746315 11726 layer_factory.hpp:77] Creating layer inception_4e/output
I0403 15:13:33.746331 11726 net.cpp:91] Creating Layer inception_4e/output
I0403 15:13:33.746347 11726 net.cpp:425] inception_4e/output <- inception_4e/1x1
I0403 15:13:33.746363 11726 net.cpp:425] inception_4e/output <- inception_4e/3x3
I0403 15:13:33.746378 11726 net.cpp:425] inception_4e/output <- inception_4e/5x5
I0403 15:13:33.746393 11726 net.cpp:425] inception_4e/output <- inception_4e/pool_proj
I0403 15:13:33.746412 11726 net.cpp:399] inception_4e/output -> inception_4e/output
I0403 15:13:33.746464 11726 net.cpp:141] Setting up inception_4e/output
I0403 15:13:33.746487 11726 net.cpp:148] Top shape: 24 832 14 14 (3913728)
I0403 15:13:33.746502 11726 net.cpp:156] Memory required for data: 1272557088
I0403 15:13:33.746516 11726 layer_factory.hpp:77] Creating layer pool4/3x3_s2
I0403 15:13:33.746536 11726 net.cpp:91] Creating Layer pool4/3x3_s2
I0403 15:13:33.746551 11726 net.cpp:425] pool4/3x3_s2 <- inception_4e/output
I0403 15:13:33.746569 11726 net.cpp:399] pool4/3x3_s2 -> pool4/3x3_s2
I0403 15:13:33.746636 11726 net.cpp:141] Setting up pool4/3x3_s2
I0403 15:13:33.746659 11726 net.cpp:148] Top shape: 24 832 7 7 (978432)
I0403 15:13:33.746673 11726 net.cpp:156] Memory required for data: 1276470816
I0403 15:13:33.746686 11726 layer_factory.hpp:77] Creating layer pool4/3x3_s2_pool4/3x3_s2_0_split
I0403 15:13:33.746703 11726 net.cpp:91] Creating Layer pool4/3x3_s2_pool4/3x3_s2_0_split
I0403 15:13:33.746718 11726 net.cpp:425] pool4/3x3_s2_pool4/3x3_s2_0_split <- pool4/3x3_s2
I0403 15:13:33.746737 11726 net.cpp:399] pool4/3x3_s2_pool4/3x3_s2_0_split -> pool4/3x3_s2_pool4/3x3_s2_0_split_0
I0403 15:13:33.746757 11726 net.cpp:399] pool4/3x3_s2_pool4/3x3_s2_0_split -> pool4/3x3_s2_pool4/3x3_s2_0_split_1
I0403 15:13:33.746776 11726 net.cpp:399] pool4/3x3_s2_pool4/3x3_s2_0_split -> pool4/3x3_s2_pool4/3x3_s2_0_split_2
I0403 15:13:33.746794 11726 net.cpp:399] pool4/3x3_s2_pool4/3x3_s2_0_split -> pool4/3x3_s2_pool4/3x3_s2_0_split_3
I0403 15:13:33.746882 11726 net.cpp:141] Setting up pool4/3x3_s2_pool4/3x3_s2_0_split
I0403 15:13:33.746907 11726 net.cpp:148] Top shape: 24 832 7 7 (978432)
I0403 15:13:33.746924 11726 net.cpp:148] Top shape: 24 832 7 7 (978432)
I0403 15:13:33.746939 11726 net.cpp:148] Top shape: 24 832 7 7 (978432)
I0403 15:13:33.746954 11726 net.cpp:148] Top shape: 24 832 7 7 (978432)
I0403 15:13:33.746968 11726 net.cpp:156] Memory required for data: 1292125728
I0403 15:13:33.746981 11726 layer_factory.hpp:77] Creating layer inception_5a/1x1
I0403 15:13:33.747002 11726 net.cpp:91] Creating Layer inception_5a/1x1
I0403 15:13:33.747020 11726 net.cpp:425] inception_5a/1x1 <- pool4/3x3_s2_pool4/3x3_s2_0_split_0
I0403 15:13:33.747038 11726 net.cpp:399] inception_5a/1x1 -> inception_5a/1x1
I0403 15:13:33.749862 11726 net.cpp:141] Setting up inception_5a/1x1
I0403 15:13:33.749894 11726 net.cpp:148] Top shape: 24 256 7 7 (301056)
I0403 15:13:33.749910 11726 net.cpp:156] Memory required for data: 1293329952
I0403 15:13:33.749929 11726 layer_factory.hpp:77] Creating layer inception_5a/relu_1x1
I0403 15:13:33.749948 11726 net.cpp:91] Creating Layer inception_5a/relu_1x1
I0403 15:13:33.749964 11726 net.cpp:425] inception_5a/relu_1x1 <- inception_5a/1x1
I0403 15:13:33.749984 11726 net.cpp:386] inception_5a/relu_1x1 -> inception_5a/1x1 (in-place)
I0403 15:13:33.750288 11726 net.cpp:141] Setting up inception_5a/relu_1x1
I0403 15:13:33.750315 11726 net.cpp:148] Top shape: 24 256 7 7 (301056)
I0403 15:13:33.750331 11726 net.cpp:156] Memory required for data: 1294534176
I0403 15:13:33.750345 11726 layer_factory.hpp:77] Creating layer inception_5a/3x3_reduce
I0403 15:13:33.750367 11726 net.cpp:91] Creating Layer inception_5a/3x3_reduce
I0403 15:13:33.750385 11726 net.cpp:425] inception_5a/3x3_reduce <- pool4/3x3_s2_pool4/3x3_s2_0_split_1
I0403 15:13:33.750403 11726 net.cpp:399] inception_5a/3x3_reduce -> inception_5a/3x3_reduce
I0403 15:13:33.752797 11726 net.cpp:141] Setting up inception_5a/3x3_reduce
I0403 15:13:33.752826 11726 net.cpp:148] Top shape: 24 160 7 7 (188160)
I0403 15:13:33.752842 11726 net.cpp:156] Memory required for data: 1295286816
I0403 15:13:33.752861 11726 layer_factory.hpp:77] Creating layer inception_5a/relu_3x3_reduce
I0403 15:13:33.752884 11726 net.cpp:91] Creating Layer inception_5a/relu_3x3_reduce
I0403 15:13:33.752902 11726 net.cpp:425] inception_5a/relu_3x3_reduce <- inception_5a/3x3_reduce
I0403 15:13:33.752919 11726 net.cpp:386] inception_5a/relu_3x3_reduce -> inception_5a/3x3_reduce (in-place)
I0403 15:13:33.753101 11726 net.cpp:141] Setting up inception_5a/relu_3x3_reduce
I0403 15:13:33.753129 11726 net.cpp:148] Top shape: 24 160 7 7 (188160)
I0403 15:13:33.753145 11726 net.cpp:156] Memory required for data: 1296039456
I0403 15:13:33.753161 11726 layer_factory.hpp:77] Creating layer inception_5a/3x3
I0403 15:13:33.753185 11726 net.cpp:91] Creating Layer inception_5a/3x3
I0403 15:13:33.753204 11726 net.cpp:425] inception_5a/3x3 <- inception_5a/3x3_reduce
I0403 15:13:33.753224 11726 net.cpp:399] inception_5a/3x3 -> inception_5a/3x3
I0403 15:13:33.758177 11726 net.cpp:141] Setting up inception_5a/3x3
I0403 15:13:33.758210 11726 net.cpp:148] Top shape: 24 320 7 7 (376320)
I0403 15:13:33.758229 11726 net.cpp:156] Memory required for data: 1297544736
I0403 15:13:33.758247 11726 layer_factory.hpp:77] Creating layer inception_5a/relu_3x3
I0403 15:13:33.758267 11726 net.cpp:91] Creating Layer inception_5a/relu_3x3
I0403 15:13:33.758285 11726 net.cpp:425] inception_5a/relu_3x3 <- inception_5a/3x3
I0403 15:13:33.758308 11726 net.cpp:386] inception_5a/relu_3x3 -> inception_5a/3x3 (in-place)
I0403 15:13:33.758628 11726 net.cpp:141] Setting up inception_5a/relu_3x3
I0403 15:13:33.758669 11726 net.cpp:148] Top shape: 24 320 7 7 (376320)
I0403 15:13:33.758685 11726 net.cpp:156] Memory required for data: 1299050016
I0403 15:13:33.758700 11726 layer_factory.hpp:77] Creating layer inception_5a/5x5_reduce
I0403 15:13:33.758733 11726 net.cpp:91] Creating Layer inception_5a/5x5_reduce
I0403 15:13:33.758751 11726 net.cpp:425] inception_5a/5x5_reduce <- pool4/3x3_s2_pool4/3x3_s2_0_split_2
I0403 15:13:33.758769 11726 net.cpp:399] inception_5a/5x5_reduce -> inception_5a/5x5_reduce
I0403 15:13:33.759912 11726 net.cpp:141] Setting up inception_5a/5x5_reduce
I0403 15:13:33.759943 11726 net.cpp:148] Top shape: 24 32 7 7 (37632)
I0403 15:13:33.759959 11726 net.cpp:156] Memory required for data: 1299200544
I0403 15:13:33.759977 11726 layer_factory.hpp:77] Creating layer inception_5a/relu_5x5_reduce
I0403 15:13:33.759994 11726 net.cpp:91] Creating Layer inception_5a/relu_5x5_reduce
I0403 15:13:33.760010 11726 net.cpp:425] inception_5a/relu_5x5_reduce <- inception_5a/5x5_reduce
I0403 15:13:33.760030 11726 net.cpp:386] inception_5a/relu_5x5_reduce -> inception_5a/5x5_reduce (in-place)
I0403 15:13:33.760323 11726 net.cpp:141] Setting up inception_5a/relu_5x5_reduce
I0403 15:13:33.760347 11726 net.cpp:148] Top shape: 24 32 7 7 (37632)
I0403 15:13:33.760362 11726 net.cpp:156] Memory required for data: 1299351072
I0403 15:13:33.760377 11726 layer_factory.hpp:77] Creating layer inception_5a/5x5
I0403 15:13:33.760401 11726 net.cpp:91] Creating Layer inception_5a/5x5
I0403 15:13:33.760422 11726 net.cpp:425] inception_5a/5x5 <- inception_5a/5x5_reduce
I0403 15:13:33.760443 11726 net.cpp:399] inception_5a/5x5 -> inception_5a/5x5
I0403 15:13:33.762168 11726 net.cpp:141] Setting up inception_5a/5x5
I0403 15:13:33.762212 11726 net.cpp:148] Top shape: 24 128 7 7 (150528)
I0403 15:13:33.762228 11726 net.cpp:156] Memory required for data: 1299953184
I0403 15:13:33.762248 11726 layer_factory.hpp:77] Creating layer inception_5a/relu_5x5
I0403 15:13:33.762264 11726 net.cpp:91] Creating Layer inception_5a/relu_5x5
I0403 15:13:33.762280 11726 net.cpp:425] inception_5a/relu_5x5 <- inception_5a/5x5
I0403 15:13:33.762297 11726 net.cpp:386] inception_5a/relu_5x5 -> inception_5a/5x5 (in-place)
I0403 15:13:33.762493 11726 net.cpp:141] Setting up inception_5a/relu_5x5
I0403 15:13:33.762518 11726 net.cpp:148] Top shape: 24 128 7 7 (150528)
I0403 15:13:33.762532 11726 net.cpp:156] Memory required for data: 1300555296
I0403 15:13:33.762547 11726 layer_factory.hpp:77] Creating layer inception_5a/pool
I0403 15:13:33.762565 11726 net.cpp:91] Creating Layer inception_5a/pool
I0403 15:13:33.762580 11726 net.cpp:425] inception_5a/pool <- pool4/3x3_s2_pool4/3x3_s2_0_split_3
I0403 15:13:33.762601 11726 net.cpp:399] inception_5a/pool -> inception_5a/pool
I0403 15:13:33.762670 11726 net.cpp:141] Setting up inception_5a/pool
I0403 15:13:33.762694 11726 net.cpp:148] Top shape: 24 832 7 7 (978432)
I0403 15:13:33.762708 11726 net.cpp:156] Memory required for data: 1304469024
I0403 15:13:33.762722 11726 layer_factory.hpp:77] Creating layer inception_5a/pool_proj
I0403 15:13:33.762743 11726 net.cpp:91] Creating Layer inception_5a/pool_proj
I0403 15:13:33.762761 11726 net.cpp:425] inception_5a/pool_proj <- inception_5a/pool
I0403 15:13:33.762779 11726 net.cpp:399] inception_5a/pool_proj -> inception_5a/pool_proj
I0403 15:13:33.765054 11726 net.cpp:141] Setting up inception_5a/pool_proj
I0403 15:13:33.765084 11726 net.cpp:148] Top shape: 24 128 7 7 (150528)
I0403 15:13:33.765100 11726 net.cpp:156] Memory required for data: 1305071136
I0403 15:13:33.765120 11726 layer_factory.hpp:77] Creating layer inception_5a/relu_pool_proj
I0403 15:13:33.765139 11726 net.cpp:91] Creating Layer inception_5a/relu_pool_proj
I0403 15:13:33.765158 11726 net.cpp:425] inception_5a/relu_pool_proj <- inception_5a/pool_proj
I0403 15:13:33.765175 11726 net.cpp:386] inception_5a/relu_pool_proj -> inception_5a/pool_proj (in-place)
I0403 15:13:33.765472 11726 net.cpp:141] Setting up inception_5a/relu_pool_proj
I0403 15:13:33.765498 11726 net.cpp:148] Top shape: 24 128 7 7 (150528)
I0403 15:13:33.765513 11726 net.cpp:156] Memory required for data: 1305673248
I0403 15:13:33.765527 11726 layer_factory.hpp:77] Creating layer inception_5a/output
I0403 15:13:33.765549 11726 net.cpp:91] Creating Layer inception_5a/output
I0403 15:13:33.765565 11726 net.cpp:425] inception_5a/output <- inception_5a/1x1
I0403 15:13:33.765583 11726 net.cpp:425] inception_5a/output <- inception_5a/3x3
I0403 15:13:33.765599 11726 net.cpp:425] inception_5a/output <- inception_5a/5x5
I0403 15:13:33.765614 11726 net.cpp:425] inception_5a/output <- inception_5a/pool_proj
I0403 15:13:33.765631 11726 net.cpp:399] inception_5a/output -> inception_5a/output
I0403 15:13:33.765681 11726 net.cpp:141] Setting up inception_5a/output
I0403 15:13:33.765704 11726 net.cpp:148] Top shape: 24 832 7 7 (978432)
I0403 15:13:33.765718 11726 net.cpp:156] Memory required for data: 1309586976
I0403 15:13:33.765733 11726 layer_factory.hpp:77] Creating layer inception_5a/output_inception_5a/output_0_split
I0403 15:13:33.765749 11726 net.cpp:91] Creating Layer inception_5a/output_inception_5a/output_0_split
I0403 15:13:33.765765 11726 net.cpp:425] inception_5a/output_inception_5a/output_0_split <- inception_5a/output
I0403 15:13:33.765785 11726 net.cpp:399] inception_5a/output_inception_5a/output_0_split -> inception_5a/output_inception_5a/output_0_split_0
I0403 15:13:33.765805 11726 net.cpp:399] inception_5a/output_inception_5a/output_0_split -> inception_5a/output_inception_5a/output_0_split_1
I0403 15:13:33.765825 11726 net.cpp:399] inception_5a/output_inception_5a/output_0_split -> inception_5a/output_inception_5a/output_0_split_2
I0403 15:13:33.765846 11726 net.cpp:399] inception_5a/output_inception_5a/output_0_split -> inception_5a/output_inception_5a/output_0_split_3
I0403 15:13:33.765957 11726 net.cpp:141] Setting up inception_5a/output_inception_5a/output_0_split
I0403 15:13:33.765980 11726 net.cpp:148] Top shape: 24 832 7 7 (978432)
I0403 15:13:33.765996 11726 net.cpp:148] Top shape: 24 832 7 7 (978432)
I0403 15:13:33.766011 11726 net.cpp:148] Top shape: 24 832 7 7 (978432)
I0403 15:13:33.766026 11726 net.cpp:148] Top shape: 24 832 7 7 (978432)
I0403 15:13:33.766039 11726 net.cpp:156] Memory required for data: 1325241888
I0403 15:13:33.766052 11726 layer_factory.hpp:77] Creating layer inception_5b/1x1
I0403 15:13:33.766074 11726 net.cpp:91] Creating Layer inception_5b/1x1
I0403 15:13:33.766091 11726 net.cpp:425] inception_5b/1x1 <- inception_5a/output_inception_5a/output_0_split_0
I0403 15:13:33.766111 11726 net.cpp:399] inception_5b/1x1 -> inception_5b/1x1
I0403 15:13:33.771241 11726 net.cpp:141] Setting up inception_5b/1x1
I0403 15:13:33.771271 11726 net.cpp:148] Top shape: 24 384 7 7 (451584)
I0403 15:13:33.771287 11726 net.cpp:156] Memory required for data: 1327048224
I0403 15:13:33.771306 11726 layer_factory.hpp:77] Creating layer inception_5b/relu_1x1
I0403 15:13:33.771327 11726 net.cpp:91] Creating Layer inception_5b/relu_1x1
I0403 15:13:33.771344 11726 net.cpp:425] inception_5b/relu_1x1 <- inception_5b/1x1
I0403 15:13:33.771363 11726 net.cpp:386] inception_5b/relu_1x1 -> inception_5b/1x1 (in-place)
I0403 15:13:33.771663 11726 net.cpp:141] Setting up inception_5b/relu_1x1
I0403 15:13:33.771689 11726 net.cpp:148] Top shape: 24 384 7 7 (451584)
I0403 15:13:33.771703 11726 net.cpp:156] Memory required for data: 1328854560
I0403 15:13:33.771718 11726 layer_factory.hpp:77] Creating layer inception_5b/3x3_reduce
I0403 15:13:33.771740 11726 net.cpp:91] Creating Layer inception_5b/3x3_reduce
I0403 15:13:33.771759 11726 net.cpp:425] inception_5b/3x3_reduce <- inception_5a/output_inception_5a/output_0_split_1
I0403 15:13:33.771778 11726 net.cpp:399] inception_5b/3x3_reduce -> inception_5b/3x3_reduce
I0403 15:13:33.774385 11726 net.cpp:141] Setting up inception_5b/3x3_reduce
I0403 15:13:33.774431 11726 net.cpp:148] Top shape: 24 192 7 7 (225792)
I0403 15:13:33.774451 11726 net.cpp:156] Memory required for data: 1329757728
I0403 15:13:33.774471 11726 layer_factory.hpp:77] Creating layer inception_5b/relu_3x3_reduce
I0403 15:13:33.774492 11726 net.cpp:91] Creating Layer inception_5b/relu_3x3_reduce
I0403 15:13:33.774509 11726 net.cpp:425] inception_5b/relu_3x3_reduce <- inception_5b/3x3_reduce
I0403 15:13:33.774528 11726 net.cpp:386] inception_5b/relu_3x3_reduce -> inception_5b/3x3_reduce (in-place)
I0403 15:13:33.774731 11726 net.cpp:141] Setting up inception_5b/relu_3x3_reduce
I0403 15:13:33.774757 11726 net.cpp:148] Top shape: 24 192 7 7 (225792)
I0403 15:13:33.774772 11726 net.cpp:156] Memory required for data: 1330660896
I0403 15:13:33.774787 11726 layer_factory.hpp:77] Creating layer inception_5b/3x3
I0403 15:13:33.774811 11726 net.cpp:91] Creating Layer inception_5b/3x3
I0403 15:13:33.774829 11726 net.cpp:425] inception_5b/3x3 <- inception_5b/3x3_reduce
I0403 15:13:33.774852 11726 net.cpp:399] inception_5b/3x3 -> inception_5b/3x3
I0403 15:13:33.782968 11726 net.cpp:141] Setting up inception_5b/3x3
I0403 15:13:33.782997 11726 net.cpp:148] Top shape: 24 384 7 7 (451584)
I0403 15:13:33.783013 11726 net.cpp:156] Memory required for data: 1332467232
I0403 15:13:33.783031 11726 layer_factory.hpp:77] Creating layer inception_5b/relu_3x3
I0403 15:13:33.783051 11726 net.cpp:91] Creating Layer inception_5b/relu_3x3
I0403 15:13:33.783069 11726 net.cpp:425] inception_5b/relu_3x3 <- inception_5b/3x3
I0403 15:13:33.783087 11726 net.cpp:386] inception_5b/relu_3x3 -> inception_5b/3x3 (in-place)
I0403 15:13:33.783378 11726 net.cpp:141] Setting up inception_5b/relu_3x3
I0403 15:13:33.783404 11726 net.cpp:148] Top shape: 24 384 7 7 (451584)
I0403 15:13:33.783424 11726 net.cpp:156] Memory required for data: 1334273568
I0403 15:13:33.783439 11726 layer_factory.hpp:77] Creating layer inception_5b/5x5_reduce
I0403 15:13:33.783479 11726 net.cpp:91] Creating Layer inception_5b/5x5_reduce
I0403 15:13:33.783498 11726 net.cpp:425] inception_5b/5x5_reduce <- inception_5a/output_inception_5a/output_0_split_2
I0403 15:13:33.783517 11726 net.cpp:399] inception_5b/5x5_reduce -> inception_5b/5x5_reduce
I0403 15:13:33.784755 11726 net.cpp:141] Setting up inception_5b/5x5_reduce
I0403 15:13:33.784785 11726 net.cpp:148] Top shape: 24 48 7 7 (56448)
I0403 15:13:33.784803 11726 net.cpp:156] Memory required for data: 1334499360
I0403 15:13:33.784821 11726 layer_factory.hpp:77] Creating layer inception_5b/relu_5x5_reduce
I0403 15:13:33.784839 11726 net.cpp:91] Creating Layer inception_5b/relu_5x5_reduce
I0403 15:13:33.784857 11726 net.cpp:425] inception_5b/relu_5x5_reduce <- inception_5b/5x5_reduce
I0403 15:13:33.784875 11726 net.cpp:386] inception_5b/relu_5x5_reduce -> inception_5b/5x5_reduce (in-place)
I0403 15:13:33.785246 11726 net.cpp:141] Setting up inception_5b/relu_5x5_reduce
I0403 15:13:33.785274 11726 net.cpp:148] Top shape: 24 48 7 7 (56448)
I0403 15:13:33.785290 11726 net.cpp:156] Memory required for data: 1334725152
I0403 15:13:33.785305 11726 layer_factory.hpp:77] Creating layer inception_5b/5x5
I0403 15:13:33.785325 11726 net.cpp:91] Creating Layer inception_5b/5x5
I0403 15:13:33.785341 11726 net.cpp:425] inception_5b/5x5 <- inception_5b/5x5_reduce
I0403 15:13:33.785361 11726 net.cpp:399] inception_5b/5x5 -> inception_5b/5x5
I0403 15:13:33.787353 11726 net.cpp:141] Setting up inception_5b/5x5
I0403 15:13:33.787384 11726 net.cpp:148] Top shape: 24 128 7 7 (150528)
I0403 15:13:33.787400 11726 net.cpp:156] Memory required for data: 1335327264
I0403 15:13:33.787425 11726 layer_factory.hpp:77] Creating layer inception_5b/relu_5x5
I0403 15:13:33.787446 11726 net.cpp:91] Creating Layer inception_5b/relu_5x5
I0403 15:13:33.787463 11726 net.cpp:425] inception_5b/relu_5x5 <- inception_5b/5x5
I0403 15:13:33.787484 11726 net.cpp:386] inception_5b/relu_5x5 -> inception_5b/5x5 (in-place)
I0403 15:13:33.787678 11726 net.cpp:141] Setting up inception_5b/relu_5x5
I0403 15:13:33.787703 11726 net.cpp:148] Top shape: 24 128 7 7 (150528)
I0403 15:13:33.787719 11726 net.cpp:156] Memory required for data: 1335929376
I0403 15:13:33.787734 11726 layer_factory.hpp:77] Creating layer inception_5b/pool
I0403 15:13:33.787753 11726 net.cpp:91] Creating Layer inception_5b/pool
I0403 15:13:33.787770 11726 net.cpp:425] inception_5b/pool <- inception_5a/output_inception_5a/output_0_split_3
I0403 15:13:33.787791 11726 net.cpp:399] inception_5b/pool -> inception_5b/pool
I0403 15:13:33.787863 11726 net.cpp:141] Setting up inception_5b/pool
I0403 15:13:33.787886 11726 net.cpp:148] Top shape: 24 832 7 7 (978432)
I0403 15:13:33.787900 11726 net.cpp:156] Memory required for data: 1339843104
I0403 15:13:33.787914 11726 layer_factory.hpp:77] Creating layer inception_5b/pool_proj
I0403 15:13:33.787937 11726 net.cpp:91] Creating Layer inception_5b/pool_proj
I0403 15:13:33.787955 11726 net.cpp:425] inception_5b/pool_proj <- inception_5b/pool
I0403 15:13:33.787973 11726 net.cpp:399] inception_5b/pool_proj -> inception_5b/pool_proj
I0403 15:13:33.790256 11726 net.cpp:141] Setting up inception_5b/pool_proj
I0403 15:13:33.790288 11726 net.cpp:148] Top shape: 24 128 7 7 (150528)
I0403 15:13:33.790307 11726 net.cpp:156] Memory required for data: 1340445216
I0403 15:13:33.790324 11726 layer_factory.hpp:77] Creating layer inception_5b/relu_pool_proj
I0403 15:13:33.790343 11726 net.cpp:91] Creating Layer inception_5b/relu_pool_proj
I0403 15:13:33.790359 11726 net.cpp:425] inception_5b/relu_pool_proj <- inception_5b/pool_proj
I0403 15:13:33.790375 11726 net.cpp:386] inception_5b/relu_pool_proj -> inception_5b/pool_proj (in-place)
I0403 15:13:33.790675 11726 net.cpp:141] Setting up inception_5b/relu_pool_proj
I0403 15:13:33.790704 11726 net.cpp:148] Top shape: 24 128 7 7 (150528)
I0403 15:13:33.790719 11726 net.cpp:156] Memory required for data: 1341047328
I0403 15:13:33.790734 11726 layer_factory.hpp:77] Creating layer inception_5b/output
I0403 15:13:33.790750 11726 net.cpp:91] Creating Layer inception_5b/output
I0403 15:13:33.790782 11726 net.cpp:425] inception_5b/output <- inception_5b/1x1
I0403 15:13:33.790799 11726 net.cpp:425] inception_5b/output <- inception_5b/3x3
I0403 15:13:33.790815 11726 net.cpp:425] inception_5b/output <- inception_5b/5x5
I0403 15:13:33.790832 11726 net.cpp:425] inception_5b/output <- inception_5b/pool_proj
I0403 15:13:33.790848 11726 net.cpp:399] inception_5b/output -> inception_5b/output
I0403 15:13:33.790900 11726 net.cpp:141] Setting up inception_5b/output
I0403 15:13:33.790923 11726 net.cpp:148] Top shape: 24 1024 7 7 (1204224)
I0403 15:13:33.790937 11726 net.cpp:156] Memory required for data: 1345864224
I0403 15:13:33.790951 11726 layer_factory.hpp:77] Creating layer pool5/7x7_s1
I0403 15:13:33.790971 11726 net.cpp:91] Creating Layer pool5/7x7_s1
I0403 15:13:33.790987 11726 net.cpp:425] pool5/7x7_s1 <- inception_5b/output
I0403 15:13:33.791004 11726 net.cpp:399] pool5/7x7_s1 -> pool5/7x7_s1
I0403 15:13:33.791216 11726 net.cpp:141] Setting up pool5/7x7_s1
I0403 15:13:33.791242 11726 net.cpp:148] Top shape: 24 1024 1 1 (24576)
I0403 15:13:33.791257 11726 net.cpp:156] Memory required for data: 1345962528
I0403 15:13:33.791271 11726 layer_factory.hpp:77] Creating layer pool5/drop_7x7_s1
I0403 15:13:33.791290 11726 net.cpp:91] Creating Layer pool5/drop_7x7_s1
I0403 15:13:33.791304 11726 net.cpp:425] pool5/drop_7x7_s1 <- pool5/7x7_s1
I0403 15:13:33.791321 11726 net.cpp:386] pool5/drop_7x7_s1 -> pool5/7x7_s1 (in-place)
I0403 15:13:33.791373 11726 net.cpp:141] Setting up pool5/drop_7x7_s1
I0403 15:13:33.791394 11726 net.cpp:148] Top shape: 24 1024 1 1 (24576)
I0403 15:13:33.791409 11726 net.cpp:156] Memory required for data: 1346060832
I0403 15:13:33.791429 11726 layer_factory.hpp:77] Creating layer loss3/classifier_plantvillage
I0403 15:13:33.791450 11726 net.cpp:91] Creating Layer loss3/classifier_plantvillage
I0403 15:13:33.791467 11726 net.cpp:425] loss3/classifier_plantvillage <- pool5/7x7_s1
I0403 15:13:33.791486 11726 net.cpp:399] loss3/classifier_plantvillage -> loss3/classifier_plantvillage
I0403 15:13:33.791903 11726 net.cpp:141] Setting up loss3/classifier_plantvillage
I0403 15:13:33.791926 11726 net.cpp:148] Top shape: 24 38 (912)
I0403 15:13:33.791940 11726 net.cpp:156] Memory required for data: 1346064480
I0403 15:13:33.791957 11726 layer_factory.hpp:77] Creating layer loss3/classifier_plantvillage_loss3/classifier_plantvillage_0_split
I0403 15:13:33.791975 11726 net.cpp:91] Creating Layer loss3/classifier_plantvillage_loss3/classifier_plantvillage_0_split
I0403 15:13:33.791990 11726 net.cpp:425] loss3/classifier_plantvillage_loss3/classifier_plantvillage_0_split <- loss3/classifier_plantvillage
I0403 15:13:33.792009 11726 net.cpp:399] loss3/classifier_plantvillage_loss3/classifier_plantvillage_0_split -> loss3/classifier_plantvillage_loss3/classifier_plantvillage_0_split_0
I0403 15:13:33.792031 11726 net.cpp:399] loss3/classifier_plantvillage_loss3/classifier_plantvillage_0_split -> loss3/classifier_plantvillage_loss3/classifier_plantvillage_0_split_1
I0403 15:13:33.792050 11726 net.cpp:399] loss3/classifier_plantvillage_loss3/classifier_plantvillage_0_split -> loss3/classifier_plantvillage_loss3/classifier_plantvillage_0_split_2
I0403 15:13:33.792069 11726 net.cpp:399] loss3/classifier_plantvillage_loss3/classifier_plantvillage_0_split -> loss3/classifier_plantvillage_loss3/classifier_plantvillage_0_split_3
I0403 15:13:33.792171 11726 net.cpp:141] Setting up loss3/classifier_plantvillage_loss3/classifier_plantvillage_0_split
I0403 15:13:33.792193 11726 net.cpp:148] Top shape: 24 38 (912)
I0403 15:13:33.792209 11726 net.cpp:148] Top shape: 24 38 (912)
I0403 15:13:33.792224 11726 net.cpp:148] Top shape: 24 38 (912)
I0403 15:13:33.792239 11726 net.cpp:148] Top shape: 24 38 (912)
I0403 15:13:33.792253 11726 net.cpp:156] Memory required for data: 1346079072
I0403 15:13:33.792265 11726 layer_factory.hpp:77] Creating layer loss1/loss
I0403 15:13:33.792286 11726 net.cpp:91] Creating Layer loss1/loss
I0403 15:13:33.792304 11726 net.cpp:425] loss1/loss <- loss1/classifier_plantvillage_loss1/classifier_plantvillage_0_split_0
I0403 15:13:33.792333 11726 net.cpp:425] loss1/loss <- label_data_1_split_0
…
