…
I0403 15:01:28.020108 11515 net.cpp:313] The NetState phase (1) differed from the phase (0) specified by a rule in layer data
I0403 15:01:28.021236 11515 net.cpp:49] Initializing net from parameters: 
state {
  phase: TEST
}
layer {
  name: "data"
  type: "Data"
  top: "data"
  top: "label"
  include {
    phase: TEST
  }
  transform_param {
    mirror: false
    crop_size: 224
    mean_file: "/home/mohanty/data/final_dataset/lmdb/segmented-50-50/mean.binaryproto"
  }
  data_param {
    source: "/home/mohanty/data/final_dataset/lmdb/segmented-50-50/test_db"
    batch_size: 24
    backend: LMDB
  }
}
layer {
  name: "conv1/7x7_s2"
  type: "Convolution"
  bottom: "data"
  top: "conv1/7x7_s2"
  param {
    lr_mult: 1
    decay_mult: 1
  }
  param {
    lr_mult: 2
    decay_mult: 0
  }
  convolution_param {
    num_output: 64
    pad: 3
    kernel_size: 7
    stride: 2
    weight_filler {
      type: "xavier"
      std: 0.1
    }
    bias_filler {
      type: "constant"
      value: 0.2
    }
  }
}
layer {
  name: "conv1/relu_7x7"
  type: "ReLU"
  bottom: "conv1/7x7_s2"
  top: "conv1/7x7_s2"
}
layer {
  name: "pool1/3x3_s2"
  type: "Pooling"
  bottom: "conv1/7x7_s2"
  top: "pool1/3x3_s2"
  pooling_param {
    pool: MAX
    kernel_size: 3
    stride: 2
  }
}
layer {
  name: "pool1/norm1"
  type: "LRN"
  bottom: "pool1/3x3_s2"
  top: "pool1/norm1"
  lrn_param {
    local_size: 5
    alpha: 0.0001
    beta: 0.75
  }
}
layer {
  name: "conv2/3x3_reduce"
  type: "Convolution"
  bottom: "pool1/norm1"
  top: "conv2/3x3_reduce"
  param {
    lr_mult: 1
    decay_mult: 1
  }
  param {
    lr_mult: 2
    decay_mult: 0
  }
  convolution_param {
    num_output: 64
    kernel_size: 1
    weight_filler {
      type: "xavier"
      std: 0.1
    }
    bias_filler {
      type: "constant"
      value: 0.2
    }
  }
}
layer {
  name: "conv2/relu_3x3_reduce"
  type: "ReLU"
  bottom: "conv2/3x3_reduce"
  top: "conv2/3x3_reduce"
}
layer {
  name: "conv2/3x3"
  type: "Convolution"
  bottom: "conv2/3x3_reduce"
  top: "conv2/3x3"
  param {
    lr_mult: 1
    decay_mult: 1
  }
  param {
    lr_mult: 2
    decay_mult: 0
  }
  convolution_param {
    num_output: 192
    pad: 1
    kernel_size: 3
    weight_filler {
      type: "xavier"
      std: 0.03
    }
    bias_filler {
      type: "constant"
      value: 0.2
    }
  }
}
layer {
  name: "conv2/relu_3x3"
  type: "ReLU"
  bottom: "conv2/3x3"
  top: "conv2/3x3"
}
layer {
  name: "conv2/norm2"
  type: "LRN"
  bottom: "conv2/3x3"
  top: "conv2/norm2"
  lrn_param {
    local_size: 5
    alpha: 0.0001
    beta: 0.75
  }
}
layer {
  name: "pool2/3x3_s2"
  type: "Pooling"
  bottom: "conv2/norm2"
  top: "pool2/3x3_s2"
  pooling_param {
    pool: MAX
    kernel_size: 3
    stride: 2
  }
}
layer {
  name: "inception_3a/1x1"
  type: "Convolution"
  bottom: "pool2/3x3_s2"
  top: "inception_3a/1x1"
  param {
    lr_mult: 1
    decay_mult: 1
  }
  param {
    lr_mult: 2
    decay_mult: 0
  }
  convolution_param {
    num_output: 64
    kernel_size: 1
    weight_filler {
      type: "xavier"
      std: 0.03
    }
    bias_filler {
      type: "constant"
      value: 0.2
    }
  }
}
layer {
  name: "inception_3a/relu_1x1"
  type: "ReLU"
  bottom: "inception_3a/1x1"
  top: "inception_3a/1x1"
}
layer {
  name: "inception_3a/3x3_reduce"
  type: "Convolution"
  bottom: "pool2/3x3_s2"
  top: "inception_3a/3x3_reduce"
  param {
    lr_mult: 1
    decay_mult: 1
  }
  param {
    lr_mult: 2
    decay_mult: 0
  }
  convolution_param {
    num_output: 96
    kernel_size: 1
    weight_filler {
      type: "xavier"
      std: 0.09
    }
    bias_filler {
      type: "constant"
      value: 0.2
    }
  }
}
layer {
  name: "inception_3a/relu_3x3_reduce"
  type: "ReLU"
  bottom: "inception_3a/3x3_reduce"
  top: "inception_3a/3x3_reduce"
}
layer {
  name: "inception_3a/3x3"
  type: "Convolution"
  bottom: "inception_3a/3x3_reduce"
  top: "inception_3a/3x3"
  param {
    lr_mult: 1
    decay_mult: 1
  }
  param {
    lr_mult: 2
    decay_mult: 0
  }
  convolution_param {
    num_output: 128
    pad: 1
    kernel_size: 3
    weight_filler {
      type: "xavier"
      std: 0.03
    }
    bias_filler {
      type: "constant"
      value: 0.2
    }
  }
}
layer {
  name: "inception_3a/relu_3x3"
  type: "ReLU"
  bottom: "inception_3a/3x3"
  top: "inception_3a/3x3"
}
layer {
  name: "inception_3a/5x5_reduce"
  type: "Convolution"
  bottom: "pool2/3x3_s2"
  top: "inception_3a/5x5_reduce"
  param {
    lr_mult: 1
    decay_mult: 1
  }
  param {
    lr_mult: 2
    decay_mult: 0
  }
  convolution_param {
    num_output: 16
    kernel_size: 1
    weight_filler {
      type: "xavier"
      std: 0.2
    }
    bias_filler {
      type: "constant"
      value: 0.2
    }
  }
}
layer {
  name: "inception_3a/relu_5x5_reduce"
  type: "ReLU"
  bottom: "inception_3a/5x5_reduce"
  top: "inception_3a/5x5_reduce"
}
layer {
  name: "inception_3a/5x5"
  type: "Convolution"
  bottom: "inception_3a/5x5_reduce"
  top: "inception_3a/5x5"
  param {
    lr_mult: 1
    decay_mult: 1
  }
  param {
    lr_mult: 2
    decay_mult: 0
  }
  convolution_param {
    num_output: 32
    pad: 2
    kernel_size: 5
    weight_filler {
      type: "xavier"
      std: 0.03
    }
    bias_filler {
      type: "constant"
      value: 0.2
    }
  }
}
layer {
  name: "inception_3a/relu_5x5"
  type: "ReLU"
  bottom: "inception_3a/5x5"
  top: "inception_3a/5x5"
}
layer {
  name: "inception_3a/pool"
  type: "Pooling"
  bottom: "pool2/3x3_s2"
  top: "inception_3a/pool"
  pooling_param {
    pool: MAX
    kernel_size: 3
    stride: 1
    pad: 1
  }
}
layer {
  name: "inception_3a/pool_proj"
  type: "Convolution"
  bottom: "inception_3a/pool"
  top: "inception_3a/pool_proj"
  param {
    lr_mult: 1
    decay_mult: 1
  }
  param {
    lr_mult: 2
    decay_mult: 0
  }
  convolution_param {
    num_output: 32
    kernel_size: 1
    weight_filler {
      type: "xavier"
      std: 0.1
    }
    bias_filler {
      type: "constant"
      value: 0.2
    }
  }
}
layer {
  name: "inception_3a/relu_pool_proj"
  type: "ReLU"
  bottom: "inception_3a/pool_proj"
  top: "inception_3a/pool_proj"
}
layer {
  name: "inception_3a/output"
  type: "Concat"
  bottom: "inception_3a/1x1"
  bottom: "inception_3a/3x3"
  bottom: "inception_3a/5x5"
  bottom: "inception_3a/pool_proj"
  top: "inception_3a/output"
}
layer {
  name: "inception_3b/1x1"
  type: "Convolution"
  bottom: "inception_3a/output"
  top: "inception_3b/1x1"
  param {
    lr_mult: 1
    decay_mult: 1
  }
  param {
    lr_mult: 2
    decay_mult: 0
  }
  convolution_param {
    num_output: 128
    kernel_size: 1
    weight_filler {
      type: "xavier"
      std: 0.03
    }
    bias_filler {
      type: "constant"
      value: 0.2
    }
  }
}
layer {
  name: "inception_3b/relu_1x1"
  type: "ReLU"
  bottom: "inception_3b/1x1"
  top: "inception_3b/1x1"
}
layer {
  name: "inception_3b/3x3_reduce"
  type: "Convolution"
  bottom: "inception_3a/output"
  top: "inception_3b/3x3_reduce"
  param {
    lr_mult: 1
    decay_mult: 1
  }
  param {
    lr_mult: 2
    decay_mult: 0
  }
  convolution_param {
    num_output: 128
    kernel_size: 1
    weight_filler {
      type: "xavier"
      std: 0.09
    }
    bias_filler {
      type: "constant"
      value: 0.2
    }
  }
}
layer {
  name: "inception_3b/relu_3x3_reduce"
  type: "ReLU"
  bottom: "inception_3b/3x3_reduce"
  top: "inception_3b/3x3_reduce"
}
layer {
  name: "inception_3b/3x3"
  type: "Convolution"
  bottom: "inception_3b/3x3_reduce"
  top: "inception_3b/3x3"
  param {
    lr_mult: 1
    decay_mult: 1
  }
  param {
    lr_mult: 2
    decay_mult: 0
  }
  convolution_param {
    num_output: 192
    pad: 1
    kernel_size: 3
    weight_filler {
      type: "xavier"
      std: 0.03
    }
    bias_filler {
      type: "constant"
      value: 0.2
    }
  }
}
layer {
  name: "inception_3b/relu_3x3"
  type: "ReLU"
  bottom: "inception_3b/3x3"
  top: "inception_3b/3x3"
}
layer {
  name: "inception_3b/5x5_reduce"
  type: "Convolution"
  bottom: "inception_3a/output"
  top: "inception_3b/5x5_reduce"
  param {
    lr_mult: 1
    decay_mult: 1
  }
  param {
    lr_mult: 2
    decay_mult: 0
  }
  convolution_param {
    num_output: 32
    kernel_size: 1
    weight_filler {
      type: "xavier"
      std: 0.2
    }
    bias_filler {
      type: "constant"
      value: 0.2
    }
  }
}
layer {
  name: "inception_3b/relu_5x5_reduce"
  type: "ReLU"
  bottom: "inception_3b/5x5_reduce"
  top: "inception_3b/5x5_reduce"
}
layer {
  name: "inception_3b/5x5"
  type: "Convolution"
  bottom: "inception_3b/5x5_reduce"
  top: "inception_3b/5x5"
  param {
    lr_mult: 1
    decay_mult: 1
  }
  param {
    lr_mult: 2
    decay_mult: 0
  }
  convolution_param {
    num_output: 96
    pad: 2
    kernel_size: 5
    weight_filler {
      type: "xavier"
      std: 0.03
    }
    bias_filler {
      type: "constant"
      value: 0.2
    }
  }
}
layer {
  name: "inception_3b/relu_5x5"
  type: "ReLU"
  bottom: "inception_3b/5x5"
  top: "inception_3b/5x5"
}
layer {
  name: "inception_3b/pool"
  type: "Pooling"
  bottom: "inception_3a/output"
  top: "inception_3b/pool"
  pooling_param {
    pool: MAX
    kernel_size: 3
    stride: 1
    pad: 1
  }
}
layer {
  name: "inception_3b/pool_proj"
  type: "Convolution"
  bottom: "inception_3b/pool"
  top: "inception_3b/pool_proj"
  param {
    lr_mult: 1
    decay_mult: 1
  }
  param {
    lr_mult: 2
    decay_mult: 0
  }
  convolution_param {
    num_output: 64
    kernel_size: 1
    weight_filler {
      type: "xavier"
      std: 0.1
    }
    bias_filler {
      type: "constant"
      value: 0.2
    }
  }
}
layer {
  name: "inception_3b/relu_pool_proj"
  type: "ReLU"
  bottom: "inception_3b/pool_proj"
  top: "inception_3b/pool_proj"
}
layer {
  name: "inception_3b/output"
  type: "Concat"
  bottom: "inception_3b/1x1"
  bottom: "inception_3b/3x3"
  bottom: "inception_3b/5x5"
  bottom: "inception_3b/pool_proj"
  top: "inception_3b/output"
}
layer {
  name: "pool3/3x3_s2"
  type: "Pooling"
  bottom: "inception_3b/output"
  top: "pool3/3x3_s2"
  pooling_param {
    pool: MAX
    kernel_size: 3
    stride: 2
  }
}
layer {
  name: "inception_4a/1x1"
  type: "Convolution"
  bottom: "pool3/3x3_s2"
  top: "inception_4a/1x1"
  param {
    lr_mult: 1
    decay_mult: 1
  }
  param {
    lr_mult: 2
    decay_mult: 0
  }
  convolution_param {
    num_output: 192
    kernel_size: 1
    weight_filler {
      type: "xavier"
      std: 0.03
    }
    bias_filler {
      type: "constant"
      value: 0.2
    }
  }
}
layer {
  name: "inception_4a/relu_1x1"
  type: "ReLU"
  bottom: "inception_4a/1x1"
  top: "inception_4a/1x1"
}
layer {
  name: "inception_4a/3x3_reduce"
  type: "Convolution"
  bottom: "pool3/3x3_s2"
  top: "inception_4a/3x3_reduce"
  param {
    lr_mult: 1
    decay_mult: 1
  }
  param {
    lr_mult: 2
    decay_mult: 0
  }
  convolution_param {
    num_output: 96
    kernel_size: 1
    weight_filler {
      type: "xavier"
      std: 0.09
    }
    bias_filler {
      type: "constant"
      value: 0.2
    }
  }
}
layer {
  name: "inception_4a/relu_3x3_reduce"
  type: "ReLU"
  bottom: "inception_4a/3x3_reduce"
  top: "inception_4a/3x3_reduce"
}
layer {
  name: "inception_4a/3x3"
  type: "Convolution"
  bottom: "inception_4a/3x3_reduce"
  top: "inception_4a/3x3"
  param {
    lr_mult: 1
    decay_mult: 1
  }
  param {
    lr_mult: 2
    decay_mult: 0
  }
  convolution_param {
    num_output: 208
    pad: 1
    kernel_size: 3
    weight_filler {
      type: "xavier"
      std: 0.03
    }
    bias_filler {
      type: "constant"
      value: 0.2
    }
  }
}
layer {
  name: "inception_4a/relu_3x3"
  type: "ReLU"
  bottom: "inception_4a/3x3"
  top: "inception_4a/3x3"
}
layer {
  name: "inception_4a/5x5_reduce"
  type: "Convolution"
  bottom: "pool3/3x3_s2"
  top: "inception_4a/5x5_reduce"
  param {
    lr_mult: 1
    decay_mult: 1
  }
  param {
    lr_mult: 2
    decay_mult: 0
  }
  convolution_param {
    num_output: 16
    kernel_size: 1
    weight_filler {
      type: "xavier"
      std: 0.2
    }
    bias_filler {
      type: "constant"
      value: 0.2
    }
  }
}
layer {
  name: "inception_4a/relu_5x5_reduce"
  type: "ReLU"
  bottom: "inception_4a/5x5_reduce"
  top: "inception_4a/5x5_reduce"
}
layer {
  name: "inception_4a/5x5"
  type: "Convolution"
  bottom: "inception_4a/5x5_reduce"
  top: "inception_4a/5x5"
  param {
    lr_mult: 1
    decay_mult: 1
  }
  param {
    lr_mult: 2
    decay_mult: 0
  }
  convolution_param {
    num_output: 48
    pad: 2
    kernel_size: 5
    weight_filler {
      type: "xavier"
      std: 0.03
    }
    bias_filler {
      type: "constant"
      value: 0.2
    }
  }
}
layer {
  name: "inception_4a/relu_5x5"
  type: "ReLU"
  bottom: "inception_4a/5x5"
  top: "inception_4a/5x5"
}
layer {
  name: "inception_4a/pool"
  type: "Pooling"
  bottom: "pool3/3x3_s2"
  top: "inception_4a/pool"
  pooling_param {
    pool: MAX
    kernel_size: 3
    stride: 1
    pad: 1
  }
}
layer {
  name: "inception_4a/pool_proj"
  type: "Convolution"
  bottom: "inception_4a/pool"
  top: "inception_4a/pool_proj"
  param {
    lr_mult: 1
    decay_mult: 1
  }
  param {
    lr_mult: 2
    decay_mult: 0
  }
  convolution_param {
    num_output: 64
    kernel_size: 1
    weight_filler {
      type: "xavier"
      std: 0.1
    }
    bias_filler {
      type: "constant"
      value: 0.2
    }
  }
}
layer {
  name: "inception_4a/relu_pool_proj"
  type: "ReLU"
  bottom: "inception_4a/pool_proj"
  top: "inception_4a/pool_proj"
}
layer {
  name: "inception_4a/output"
  type: "Concat"
  bottom: "inception_4a/1x1"
  bottom: "inception_4a/3x3"
  bottom: "inception_4a/5x5"
  bottom: "inception_4a/pool_proj"
  top: "inception_4a/output"
}
layer {
  name: "loss1/ave_pool"
  type: "Pooling"
  bottom: "inception_4a/output"
  top: "loss1/ave_pool"
  pooling_param {
    pool: AVE
    kernel_size: 5
    stride: 3
  }
}
layer {
  name: "loss1/conv"
  type: "Convolution"
  bottom: "loss1/ave_pool"
  top: "loss1/conv"
  param {
    lr_mult: 1
    decay_mult: 1
  }
  param {
    lr_mult: 2
    decay_mult: 0
  }
  convolution_param {
    num_output: 128
    kernel_size: 1
    weight_filler {
      type: "xavier"
      std: 0.08
    }
    bias_filler {
      type: "constant"
      value: 0.2
    }
  }
}
layer {
  name: "loss1/relu_conv"
  type: "ReLU"
  bottom: "loss1/conv"
  top: "loss1/conv"
}
layer {
  name: "loss1/fc"
  type: "InnerProduct"
  bottom: "loss1/conv"
  top: "loss1/fc"
  param {
    lr_mult: 1
    decay_mult: 1
  }
  param {
    lr_mult: 2
    decay_mult: 0
  }
  inner_product_param {
    num_output: 1024
    weight_filler {
      type: "xavier"
      std: 0.02
    }
    bias_filler {
      type: "constant"
      value: 0.2
    }
  }
}
layer {
  name: "loss1/relu_fc"
  type: "ReLU"
  bottom: "loss1/fc"
  top: "loss1/fc"
}
layer {
  name: "loss1/drop_fc"
  type: "Dropout"
  bottom: "loss1/fc"
  top: "loss1/fc"
  dropout_param {
    dropout_ratio: 0.7
  }
}
layer {
  name: "loss1/classifier_plantvillage"
  type: "InnerProduct"
  bottom: "loss1/fc"
  top: "loss1/classifier_plantvillage"
  param {
    lr_mult: 1
    decay_mult: 1
  }
  param {
    lr_mult: 2
    decay_mult: 0
  }
  inner_product_param {
    num_output: 38
    weight_filler {
      type: "xavier"
      std: 0.0009765625
    }
    bias_filler {
      type: "constant"
      value: 0
    }
  }
}
layer {
  name: "inception_4b/1x1"
  type: "Convolution"
  bottom: "inception_4a/output"
  top: "inception_4b/1x1"
  param {
    lr_mult: 1
    decay_mult: 1
  }
  param {
    lr_mult: 2
    decay_mult: 0
  }
  convolution_param {
    num_output: 160
    kernel_size: 1
    weight_filler {
      type: "xavier"
      std: 0.03
    }
    bias_filler {
      type: "constant"
      value: 0.2
    }
  }
}
layer {
  name: "inception_4b/relu_1x1"
  type: "ReLU"
  bottom: "inception_4b/1x1"
  top: "inception_4b/1x1"
}
layer {
  name: "inception_4b/3x3_reduce"
  type: "Convolution"
  bottom: "inception_4a/output"
  top: "inception_4b/3x3_reduce"
  param {
    lr_mult: 1
    decay_mult: 1
  }
  param {
    lr_mult: 2
    decay_mult: 0
  }
  convolution_param {
    num_output: 112
    kernel_size: 1
    weight_filler {
      type: "xavier"
      std: 0.09
    }
    bias_filler {
      type: "constant"
      value: 0.2
    }
  }
}
layer {
  name: "inception_4b/relu_3x3_reduce"
  type: "ReLU"
  bottom: "inception_4b/3x3_reduce"
  top: "inception_4b/3x3_reduce"
}
layer {
  name: "inception_4b/3x3"
  type: "Convolution"
  bottom: "inception_4b/3x3_reduce"
  top: "inception_4b/3x3"
  param {
    lr_mult: 1
    decay_mult: 1
  }
  param {
    lr_mult: 2
    decay_mult: 0
  }
  convolution_param {
    num_output: 224
    pad: 1
    kernel_size: 3
    weight_filler {
      type: "xavier"
      std: 0.03
    }
    bias_filler {
      type: "constant"
      value: 0.2
    }
  }
}
layer {
  name: "inception_4b/relu_3x3"
  type: "ReLU"
  bottom: "inception_4b/3x3"
  top: "inception_4b/3x3"
}
layer {
  name: "inception_4b/5x5_reduce"
  type: "Convolution"
  bottom: "inception_4a/output"
  top: "inception_4b/5x5_reduce"
  param {
    lr_mult: 1
    decay_mult: 1
  }
  param {
    lr_mult: 2
    decay_mult: 0
  }
  convolution_param {
    num_output: 24
    kernel_size: 1
    weight_filler {
      type: "xavier"
      std: 0.2
    }
    bias_filler {
      type: "constant"
      value: 0.2
    }
  }
}
layer {
  name: "inception_4b/relu_5x5_reduce"
  type: "ReLU"
  bottom: "inception_4b/5x5_reduce"
  top: "inception_4b/5x5_reduce"
}
layer {
  name: "inception_4b/5x5"
  type: "Convolution"
  bottom: "inception_4b/5x5_reduce"
  top: "inception_4b/5x5"
  param {
    lr_mult: 1
    decay_mult: 1
  }
  param {
    lr_mult: 2
    decay_mult: 0
  }
  convolution_param {
    num_output: 64
    pad: 2
    kernel_size: 5
    weight_filler {
      type: "xavier"
      std: 0.03
    }
    bias_filler {
      type: "constant"
      value: 0.2
    }
  }
}
layer {
  name: "inception_4b/relu_5x5"
  type: "ReLU"
  bottom: "inception_4b/5x5"
  top: "inception_4b/5x5"
}
layer {
  name: "inception_4b/pool"
  type: "Pooling"
  bottom: "inception_4a/output"
  top: "inception_4b/pool"
  pooling_param {
    pool: MAX
    kernel_size: 3
    stride: 1
    pad: 1
  }
}
layer {
  name: "inception_4b/pool_proj"
  type: "Convolution"
  bottom: "inception_4b/pool"
  top: "inception_4b/pool_proj"
  param {
    lr_mult: 1
    decay_mult: 1
  }
  param {
    lr_mult: 2
    decay_mult: 0
  }
  convolution_param {
    num_output: 64
    kernel_size: 1
    weight_filler {
      type: "xavier"
      std: 0.1
    }
    bias_filler {
      type: "constant"
      value: 0.2
    }
  }
}
layer {
  name: "inception_4b/relu_pool_proj"
  type: "ReLU"
  bottom: "inception_4b/pool_proj"
  top: "inception_4b/pool_proj"
}
layer {
  name: "inception_4b/output"
  type: "Concat"
  bottom: "inception_4b/1x1"
  bottom: "inception_4b/3x3"
  bottom: "inception_4b/5x5"
  bottom: "inception_4b/pool_proj"
  top: "inception_4b/output"
}
layer {
  name: "inception_4c/1x1"
  type: "Convolution"
  bottom: "inception_4b/output"
  top: "inception_4c/1x1"
  param {
    lr_mult: 1
    decay_mult: 1
  }
  param {
    lr_mult: 2
    decay_mult: 0
  }
  convolution_param {
    num_output: 128
    kernel_size: 1
    weight_filler {
      type: "xavier"
      std: 0.03
    }
    bias_filler {
      type: "constant"
      value: 0.2
    }
  }
}
layer {
  name: "inception_4c/relu_1x1"
  type: "ReLU"
  bottom: "inception_4c/1x1"
  top: "inception_4c/1x1"
}
layer {
  name: "inception_4c/3x3_reduce"
  type: "Convolution"
  bottom: "inception_4b/output"
  top: "inception_4c/3x3_reduce"
  param {
    lr_mult: 1
    decay_mult: 1
  }
  param {
    lr_mult: 2
    decay_mult: 0
  }
  convolution_param {
    num_output: 128
    kernel_size: 1
    weight_filler {
      type: "xavier"
      std: 0.09
    }
    bias_filler {
      type: "constant"
      value: 0.2
    }
  }
}
layer {
  name: "inception_4c/relu_3x3_reduce"
  type: "ReLU"
  bottom: "inception_4c/3x3_reduce"
  top: "inception_4c/3x3_reduce"
}
layer {
  name: "inception_4c/3x3"
  type: "Convolution"
  bottom: "inception_4c/3x3_reduce"
  top: "inception_4c/3x3"
  param {
    lr_mult: 1
    decay_mult: 1
  }
  param {
    lr_mult: 2
    decay_mult: 0
  }
  convolution_param {
    num_output: 256
    pad: 1
    kernel_size: 3
    weight_filler {
      type: "xavier"
      std: 0.03
    }
    bias_filler {
      type: "constant"
      value: 0.2
    }
  }
}
layer {
  name: "inception_4c/relu_3x3"
  type: "ReLU"
  bottom: "inception_4c/3x3"
  top: "inception_4c/3x3"
}
layer {
  name: "inception_4c/5x5_reduce"
  type: "Convolution"
  bottom: "inception_4b/output"
  top: "inception_4c/5x5_reduce"
  param {
    lr_mult: 1
    decay_mult: 1
  }
  param {
    lr_mult: 2
    decay_mult: 0
  }
  convolution_param {
    num_output: 24
    kernel_size: 1
    weight_filler {
      type: "xavier"
      std: 0.2
    }
    bias_filler {
      type: "constant"
      value: 0.2
    }
  }
}
layer {
  name: "inception_4c/relu_5x5_reduce"
  type: "ReLU"
  bottom: "inception_4c/5x5_reduce"
  top: "inception_4c/5x5_reduce"
}
layer {
  name: "inception_4c/5x5"
  type: "Convolution"
  bottom: "inception_4c/5x5_reduce"
  top: "inception_4c/5x5"
  param {
    lr_mult: 1
    decay_mult: 1
  }
  param {
    lr_mult: 2
    decay_mult: 0
  }
  convolution_param {
    num_output: 64
    pad: 2
    kernel_size: 5
    weight_filler {
      type: "xavier"
      std: 0.03
    }
    bias_filler {
      type: "constant"
      value: 0.2
    }
  }
}
layer {
  name: "inception_4c/relu_5x5"
  type: "ReLU"
  bottom: "inception_4c/5x5"
  top: "inception_4c/5x5"
}
layer {
  name: "inception_4c/pool"
  type: "Pooling"
  bottom: "inception_4b/output"
  top: "inception_4c/pool"
  pooling_param {
    pool: MAX
    kernel_size: 3
    stride: 1
    pad: 1
  }
}
layer {
  name: "inception_4c/pool_proj"
  type: "Convolution"
  bottom: "inception_4c/pool"
  top: "inception_4c/pool_proj"
  param {
    lr_mult: 1
    decay_mult: 1
  }
  param {
    lr_mult: 2
    decay_mult: 0
  }
  convolution_param {
    num_output: 64
    kernel_size: 1
    weight_filler {
      type: "xavier"
      std: 0.1
    }
    bias_filler {
      type: "constant"
      value: 0.2
    }
  }
}
layer {
  name: "inception_4c/relu_pool_proj"
  type: "ReLU"
  bottom: "inception_4c/pool_proj"
  top: "inception_4c/pool_proj"
}
layer {
  name: "inception_4c/output"
  type: "Concat"
  bottom: "inception_4c/1x1"
  bottom: "inception_4c/3x3"
  bottom: "inception_4c/5x5"
  bottom: "inception_4c/pool_proj"
  top: "inception_4c/output"
}
layer {
  name: "inception_4d/1x1"
  type: "Convolution"
  bottom: "inception_4c/output"
  top: "inception_4d/1x1"
  param {
    lr_mult: 1
    decay_mult: 1
  }
  param {
    lr_mult: 2
    decay_mult: 0
  }
  convolution_param {
    num_output: 112
    kernel_size: 1
    weight_filler {
      type: "xavier"
      std: 0.03
    }
    bias_filler {
      type: "constant"
      value: 0.2
    }
  }
}
layer {
  name: "inception_4d/relu_1x1"
  type: "ReLU"
  bottom: "inception_4d/1x1"
  top: "inception_4d/1x1"
}
layer {
  name: "inception_4d/3x3_reduce"
  type: "Convolution"
  bottom: "inception_4c/output"
  top: "inception_4d/3x3_reduce"
  param {
    lr_mult: 1
    decay_mult: 1
  }
  param {
    lr_mult: 2
    decay_mult: 0
  }
  convolution_param {
    num_output: 144
    kernel_size: 1
    weight_filler {
      type: "xavier"
      std: 0.09
    }
    bias_filler {
      type: "constant"
      value: 0.2
    }
  }
}
layer {
  name: "inception_4d/relu_3x3_reduce"
  type: "ReLU"
  bottom: "inception_4d/3x3_reduce"
  top: "inception_4d/3x3_reduce"
}
layer {
  name: "inception_4d/3x3"
  type: "Convolution"
  bottom: "inception_4d/3x3_reduce"
  top: "inception_4d/3x3"
  param {
    lr_mult: 1
    decay_mult: 1
  }
  param {
    lr_mult: 2
    decay_mult: 0
  }
  convolution_param {
    num_output: 288
    pad: 1
    kernel_size: 3
    weight_filler {
      type: "xavier"
      std: 0.03
    }
    bias_filler {
      type: "constant"
      value: 0.2
    }
  }
}
layer {
  name: "inception_4d/relu_3x3"
  type: "ReLU"
  bottom: "inception_4d/3x3"
  top: "inception_4d/3x3"
}
layer {
  name: "inception_4d/5x5_reduce"
  type: "Convolution"
  bottom: "inception_4c/output"
  top: "inception_4d/5x5_reduce"
  param {
    lr_mult: 1
    decay_mult: 1
  }
  param {
    lr_mult: 2
    decay_mult: 0
  }
  convolution_param {
    num_output: 32
    kernel_size: 1
    weight_filler {
      type: "xavier"
      std: 0.2
    }
    bias_filler {
      type: "constant"
      value: 0.2
    }
  }
}
layer {
  name: "inception_4d/relu_5x5_reduce"
  type: "ReLU"
  bottom: "inception_4d/5x5_reduce"
  top: "inception_4d/5x5_reduce"
}
layer {
  name: "inception_4d/5x5"
  type: "Convolution"
  bottom: "inception_4d/5x5_reduce"
  top: "inception_4d/5x5"
  param {
    lr_mult: 1
    decay_mult: 1
  }
  param {
    lr_mult: 2
    decay_mult: 0
  }
  convolution_param {
    num_output: 64
    pad: 2
    kernel_size: 5
    weight_filler {
      type: "xavier"
      std: 0.03
    }
    bias_filler {
      type: "constant"
      value: 0.2
    }
  }
}
layer {
  name: "inception_4d/relu_5x5"
  type: "ReLU"
  bottom: "inception_4d/5x5"
  top: "inception_4d/5x5"
}
layer {
  name: "inception_4d/pool"
  type: "Pooling"
  bottom: "inception_4c/output"
  top: "inception_4d/pool"
  pooling_param {
    pool: MAX
    kernel_size: 3
    stride: 1
    pad: 1
  }
}
layer {
  name: "inception_4d/pool_proj"
  type: "Convolution"
  bottom: "inception_4d/pool"
  top: "inception_4d/pool_proj"
  param {
    lr_mult: 1
    decay_mult: 1
  }
  param {
    lr_mult: 2
    decay_mult: 0
  }
  convolution_param {
    num_output: 64
    kernel_size: 1
    weight_filler {
      type: "xavier"
      std: 0.1
    }
    bias_filler {
      type: "constant"
      value: 0.2
    }
  }
}
layer {
  name: "inception_4d/relu_pool_proj"
  type: "ReLU"
  bottom: "inception_4d/pool_proj"
  top: "inception_4d/pool_proj"
}
layer {
  name: "inception_4d/output"
  type: "Concat"
  bottom: "inception_4d/1x1"
  bottom: "inception_4d/3x3"
  bottom: "inception_4d/5x5"
  bottom: "inception_4d/pool_proj"
  top: "inception_4d/output"
}
layer {
  name: "loss2/ave_pool"
  type: "Pooling"
  bottom: "inception_4d/output"
  top: "loss2/ave_pool"
  pooling_param {
    pool: AVE
    kernel_size: 5
    stride: 3
  }
}
layer {
  name: "loss2/conv"
  type: "Convolution"
  bottom: "loss2/ave_pool"
  top: "loss2/conv"
  param {
    lr_mult: 1
    decay_mult: 1
  }
  param {
    lr_mult: 2
    decay_mult: 0
  }
  convolution_param {
    num_output: 128
    kernel_size: 1
    weight_filler {
      type: "xavier"
      std: 0.08
    }
    bias_filler {
      type: "constant"
      value: 0.2
    }
  }
}
layer {
  name: "loss2/relu_conv"
  type: "ReLU"
  bottom: "loss2/conv"
  top: "loss2/conv"
}
layer {
  name: "loss2/fc"
  type: "InnerProduct"
  bottom: "loss2/conv"
  top: "loss2/fc"
  param {
    lr_mult: 1
    decay_mult: 1
  }
  param {
    lr_mult: 2
    decay_mult: 0
  }
  inner_product_param {
    num_output: 1024
    weight_filler {
      type: "xavier"
      std: 0.02
    }
    bias_filler {
      type: "constant"
      value: 0.2
    }
  }
}
layer {
  name: "loss2/relu_fc"
  type: "ReLU"
  bottom: "loss2/fc"
  top: "loss2/fc"
}
layer {
  name: "loss2/drop_fc"
  type: "Dropout"
  bottom: "loss2/fc"
  top: "loss2/fc"
  dropout_param {
    dropout_ratio: 0.7
  }
}
layer {
  name: "loss2/classifier_plantvillage"
  type: "InnerProduct"
  bottom: "loss2/fc"
  top: "loss2/classifier_plantvillage"
  param {
    lr_mult: 1
    decay_mult: 1
  }
  param {
    lr_mult: 2
    decay_mult: 0
  }
  inner_product_param {
    num_output: 38
    weight_filler {
      type: "xavier"
      std: 0.0009765625
    }
    bias_filler {
      type: "constant"
      value: 0
    }
  }
}
layer {
  name: "inception_4e/1x1"
  type: "Convolution"
  bottom: "inception_4d/output"
  top: "inception_4e/1x1"
  param {
    lr_mult: 1
    decay_mult: 1
  }
  param {
    lr_mult: 2
    decay_mult: 0
  }
  convolution_param {
    num_output: 256
    kernel_size: 1
    weight_filler {
      type: "xavier"
      std: 0.03
    }
    bias_filler {
      type: "constant"
      value: 0.2
    }
  }
}
layer {
  name: "inception_4e/relu_1x1"
  type: "ReLU"
  bottom: "inception_4e/1x1"
  top: "inception_4e/1x1"
}
layer {
  name: "inception_4e/3x3_reduce"
  type: "Convolution"
  bottom: "inception_4d/output"
  top: "inception_4e/3x3_reduce"
  param {
    lr_mult: 1
    decay_mult: 1
  }
  param {
    lr_mult: 2
    decay_mult: 0
  }
  convolution_param {
    num_output: 160
    kernel_size: 1
    weight_filler {
      type: "xavier"
      std: 0.09
    }
    bias_filler {
      type: "constant"
      value: 0.2
    }
  }
}
layer {
  name: "inception_4e/relu_3x3_reduce"
  type: "ReLU"
  bottom: "inception_4e/3x3_reduce"
  top: "inception_4e/3x3_reduce"
}
layer {
  name: "inception_4e/3x3"
  type: "Convolution"
  bottom: "inception_4e/3x3_reduce"
  top: "inception_4e/3x3"
  param {
    lr_mult: 1
    decay_mult: 1
  }
  param {
    lr_mult: 2
    decay_mult: 0
  }
  convolution_param {
    num_output: 320
    pad: 1
    kernel_size: 3
    weight_filler {
      type: "xavier"
      std: 0.03
    }
    bias_filler {
      type: "constant"
      value: 0.2
    }
  }
}
layer {
  name: "inception_4e/relu_3x3"
  type: "ReLU"
  bottom: "inception_4e/3x3"
  top: "inception_4e/3x3"
}
layer {
  name: "inception_4e/5x5_reduce"
  type: "Convolution"
  bottom: "inception_4d/output"
  top: "inception_4e/5x5_reduce"
  param {
    lr_mult: 1
    decay_mult: 1
  }
  param {
    lr_mult: 2
    decay_mult: 0
  }
  convolution_param {
    num_output: 32
    kernel_size: 1
    weight_filler {
      type: "xavier"
      std: 0.2
    }
    bias_filler {
      type: "constant"
      value: 0.2
    }
  }
}
layer {
  name: "inception_4e/relu_5x5_reduce"
  type: "ReLU"
  bottom: "inception_4e/5x5_reduce"
  top: "inception_4e/5x5_reduce"
}
layer {
  name: "inception_4e/5x5"
  type: "Convolution"
  bottom: "inception_4e/5x5_reduce"
  top: "inception_4e/
I0403 15:01:28.022526 11515 layer_factory.hpp:77] Creating layer data
I0403 15:01:28.023114 11515 net.cpp:91] Creating Layer data
I0403 15:01:28.023145 11515 net.cpp:399] data -> data
I0403 15:01:28.023195 11515 net.cpp:399] data -> label
I0403 15:01:28.023232 11515 data_transformer.cpp:25] Loading mean file from: /home/mohanty/data/final_dataset/lmdb/segmented-50-50/mean.binaryproto
I0403 15:01:28.026373 11518 db_lmdb.cpp:38] Opened lmdb /home/mohanty/data/final_dataset/lmdb/segmented-50-50/test_db
I0403 15:01:28.036492 11515 data_layer.cpp:41] output data size: 24,3,224,224
I0403 15:01:28.064700 11515 net.cpp:141] Setting up data
I0403 15:01:28.064756 11515 net.cpp:148] Top shape: 24 3 224 224 (3612672)
I0403 15:01:28.064780 11515 net.cpp:148] Top shape: 24 (24)
I0403 15:01:28.064796 11515 net.cpp:156] Memory required for data: 14450784
I0403 15:01:28.064824 11515 layer_factory.hpp:77] Creating layer label_data_1_split
I0403 15:01:28.064851 11515 net.cpp:91] Creating Layer label_data_1_split
I0403 15:01:28.064872 11515 net.cpp:425] label_data_1_split <- label
I0403 15:01:28.064903 11515 net.cpp:399] label_data_1_split -> label_data_1_split_0
I0403 15:01:28.064934 11515 net.cpp:399] label_data_1_split -> label_data_1_split_1
I0403 15:01:28.064956 11515 net.cpp:399] label_data_1_split -> label_data_1_split_2
I0403 15:01:28.064977 11515 net.cpp:399] label_data_1_split -> label_data_1_split_3
I0403 15:01:28.064997 11515 net.cpp:399] label_data_1_split -> label_data_1_split_4
I0403 15:01:28.065017 11515 net.cpp:399] label_data_1_split -> label_data_1_split_5
I0403 15:01:28.065037 11515 net.cpp:399] label_data_1_split -> label_data_1_split_6
I0403 15:01:28.065059 11515 net.cpp:399] label_data_1_split -> label_data_1_split_7
I0403 15:01:28.065079 11515 net.cpp:399] label_data_1_split -> label_data_1_split_8
I0403 15:01:28.065099 11515 net.cpp:399] label_data_1_split -> label_data_1_split_9
I0403 15:01:28.065214 11515 net.cpp:141] Setting up label_data_1_split
I0403 15:01:28.065237 11515 net.cpp:148] Top shape: 24 (24)
I0403 15:01:28.065255 11515 net.cpp:148] Top shape: 24 (24)
I0403 15:01:28.065271 11515 net.cpp:148] Top shape: 24 (24)
I0403 15:01:28.065286 11515 net.cpp:148] Top shape: 24 (24)
I0403 15:01:28.065301 11515 net.cpp:148] Top shape: 24 (24)
I0403 15:01:28.065317 11515 net.cpp:148] Top shape: 24 (24)
I0403 15:01:28.065333 11515 net.cpp:148] Top shape: 24 (24)
I0403 15:01:28.065348 11515 net.cpp:148] Top shape: 24 (24)
I0403 15:01:28.065364 11515 net.cpp:148] Top shape: 24 (24)
I0403 15:01:28.065382 11515 net.cpp:148] Top shape: 24 (24)
I0403 15:01:28.065430 11515 net.cpp:156] Memory required for data: 14451744
I0403 15:01:28.065448 11515 layer_factory.hpp:77] Creating layer conv1/7x7_s2
I0403 15:01:28.065490 11515 net.cpp:91] Creating Layer conv1/7x7_s2
I0403 15:01:28.065510 11515 net.cpp:425] conv1/7x7_s2 <- data
I0403 15:01:28.065531 11515 net.cpp:399] conv1/7x7_s2 -> conv1/7x7_s2
I0403 15:01:28.206537 11515 net.cpp:141] Setting up conv1/7x7_s2
I0403 15:01:28.206609 11515 net.cpp:148] Top shape: 24 64 112 112 (19267584)
I0403 15:01:28.206635 11515 net.cpp:156] Memory required for data: 91522080
I0403 15:01:28.206665 11515 layer_factory.hpp:77] Creating layer conv1/relu_7x7
I0403 15:01:28.206692 11515 net.cpp:91] Creating Layer conv1/relu_7x7
I0403 15:01:28.206710 11515 net.cpp:425] conv1/relu_7x7 <- conv1/7x7_s2
I0403 15:01:28.206728 11515 net.cpp:386] conv1/relu_7x7 -> conv1/7x7_s2 (in-place)
I0403 15:01:28.206979 11515 net.cpp:141] Setting up conv1/relu_7x7
I0403 15:01:28.207005 11515 net.cpp:148] Top shape: 24 64 112 112 (19267584)
I0403 15:01:28.207020 11515 net.cpp:156] Memory required for data: 168592416
I0403 15:01:28.207036 11515 layer_factory.hpp:77] Creating layer pool1/3x3_s2
I0403 15:01:28.207059 11515 net.cpp:91] Creating Layer pool1/3x3_s2
I0403 15:01:28.207077 11515 net.cpp:425] pool1/3x3_s2 <- conv1/7x7_s2
I0403 15:01:28.207095 11515 net.cpp:399] pool1/3x3_s2 -> pool1/3x3_s2
I0403 15:01:28.207166 11515 net.cpp:141] Setting up pool1/3x3_s2
I0403 15:01:28.207190 11515 net.cpp:148] Top shape: 24 64 56 56 (4816896)
I0403 15:01:28.207206 11515 net.cpp:156] Memory required for data: 187860000
I0403 15:01:28.207221 11515 layer_factory.hpp:77] Creating layer pool1/norm1
I0403 15:01:28.207243 11515 net.cpp:91] Creating Layer pool1/norm1
I0403 15:01:28.207260 11515 net.cpp:425] pool1/norm1 <- pool1/3x3_s2
I0403 15:01:28.207278 11515 net.cpp:399] pool1/norm1 -> pool1/norm1
I0403 15:01:28.207563 11515 net.cpp:141] Setting up pool1/norm1
I0403 15:01:28.207590 11515 net.cpp:148] Top shape: 24 64 56 56 (4816896)
I0403 15:01:28.207607 11515 net.cpp:156] Memory required for data: 207127584
I0403 15:01:28.207623 11515 layer_factory.hpp:77] Creating layer conv2/3x3_reduce
I0403 15:01:28.207645 11515 net.cpp:91] Creating Layer conv2/3x3_reduce
I0403 15:01:28.207662 11515 net.cpp:425] conv2/3x3_reduce <- pool1/norm1
I0403 15:01:28.207680 11515 net.cpp:399] conv2/3x3_reduce -> conv2/3x3_reduce
I0403 15:01:28.208979 11515 net.cpp:141] Setting up conv2/3x3_reduce
I0403 15:01:28.209008 11515 net.cpp:148] Top shape: 24 64 56 56 (4816896)
I0403 15:01:28.209024 11515 net.cpp:156] Memory required for data: 226395168
I0403 15:01:28.209045 11515 layer_factory.hpp:77] Creating layer conv2/relu_3x3_reduce
I0403 15:01:28.209064 11515 net.cpp:91] Creating Layer conv2/relu_3x3_reduce
I0403 15:01:28.209079 11515 net.cpp:425] conv2/relu_3x3_reduce <- conv2/3x3_reduce
I0403 15:01:28.209095 11515 net.cpp:386] conv2/relu_3x3_reduce -> conv2/3x3_reduce (in-place)
I0403 15:01:28.209378 11515 net.cpp:141] Setting up conv2/relu_3x3_reduce
I0403 15:01:28.209405 11515 net.cpp:148] Top shape: 24 64 56 56 (4816896)
I0403 15:01:28.209425 11515 net.cpp:156] Memory required for data: 245662752
I0403 15:01:28.209442 11515 layer_factory.hpp:77] Creating layer conv2/3x3
I0403 15:01:28.209466 11515 net.cpp:91] Creating Layer conv2/3x3
I0403 15:01:28.209483 11515 net.cpp:425] conv2/3x3 <- conv2/3x3_reduce
I0403 15:01:28.209506 11515 net.cpp:399] conv2/3x3 -> conv2/3x3
I0403 15:01:28.211796 11515 net.cpp:141] Setting up conv2/3x3
I0403 15:01:28.211825 11515 net.cpp:148] Top shape: 24 192 56 56 (14450688)
I0403 15:01:28.211843 11515 net.cpp:156] Memory required for data: 303465504
I0403 15:01:28.211865 11515 layer_factory.hpp:77] Creating layer conv2/relu_3x3
I0403 15:01:28.211884 11515 net.cpp:91] Creating Layer conv2/relu_3x3
I0403 15:01:28.211900 11515 net.cpp:425] conv2/relu_3x3 <- conv2/3x3
I0403 15:01:28.211918 11515 net.cpp:386] conv2/relu_3x3 -> conv2/3x3 (in-place)
I0403 15:01:28.212091 11515 net.cpp:141] Setting up conv2/relu_3x3
I0403 15:01:28.212118 11515 net.cpp:148] Top shape: 24 192 56 56 (14450688)
I0403 15:01:28.212163 11515 net.cpp:156] Memory required for data: 361268256
I0403 15:01:28.212179 11515 layer_factory.hpp:77] Creating layer conv2/norm2
I0403 15:01:28.212200 11515 net.cpp:91] Creating Layer conv2/norm2
I0403 15:01:28.212218 11515 net.cpp:425] conv2/norm2 <- conv2/3x3
I0403 15:01:28.212235 11515 net.cpp:399] conv2/norm2 -> conv2/norm2
I0403 15:01:28.212539 11515 net.cpp:141] Setting up conv2/norm2
I0403 15:01:28.212566 11515 net.cpp:148] Top shape: 24 192 56 56 (14450688)
I0403 15:01:28.212581 11515 net.cpp:156] Memory required for data: 419071008
I0403 15:01:28.212596 11515 layer_factory.hpp:77] Creating layer pool2/3x3_s2
I0403 15:01:28.212616 11515 net.cpp:91] Creating Layer pool2/3x3_s2
I0403 15:01:28.212633 11515 net.cpp:425] pool2/3x3_s2 <- conv2/norm2
I0403 15:01:28.212651 11515 net.cpp:399] pool2/3x3_s2 -> pool2/3x3_s2
I0403 15:01:28.212703 11515 net.cpp:141] Setting up pool2/3x3_s2
I0403 15:01:28.212728 11515 net.cpp:148] Top shape: 24 192 28 28 (3612672)
I0403 15:01:28.212741 11515 net.cpp:156] Memory required for data: 433521696
I0403 15:01:28.212755 11515 layer_factory.hpp:77] Creating layer pool2/3x3_s2_pool2/3x3_s2_0_split
I0403 15:01:28.212774 11515 net.cpp:91] Creating Layer pool2/3x3_s2_pool2/3x3_s2_0_split
I0403 15:01:28.212788 11515 net.cpp:425] pool2/3x3_s2_pool2/3x3_s2_0_split <- pool2/3x3_s2
I0403 15:01:28.212807 11515 net.cpp:399] pool2/3x3_s2_pool2/3x3_s2_0_split -> pool2/3x3_s2_pool2/3x3_s2_0_split_0
I0403 15:01:28.212827 11515 net.cpp:399] pool2/3x3_s2_pool2/3x3_s2_0_split -> pool2/3x3_s2_pool2/3x3_s2_0_split_1
I0403 15:01:28.212847 11515 net.cpp:399] pool2/3x3_s2_pool2/3x3_s2_0_split -> pool2/3x3_s2_pool2/3x3_s2_0_split_2
I0403 15:01:28.212867 11515 net.cpp:399] pool2/3x3_s2_pool2/3x3_s2_0_split -> pool2/3x3_s2_pool2/3x3_s2_0_split_3
I0403 15:01:28.212935 11515 net.cpp:141] Setting up pool2/3x3_s2_pool2/3x3_s2_0_split
I0403 15:01:28.212960 11515 net.cpp:148] Top shape: 24 192 28 28 (3612672)
I0403 15:01:28.212977 11515 net.cpp:148] Top shape: 24 192 28 28 (3612672)
I0403 15:01:28.212992 11515 net.cpp:148] Top shape: 24 192 28 28 (3612672)
I0403 15:01:28.213007 11515 net.cpp:148] Top shape: 24 192 28 28 (3612672)
I0403 15:01:28.213021 11515 net.cpp:156] Memory required for data: 491324448
I0403 15:01:28.213034 11515 layer_factory.hpp:77] Creating layer inception_3a/1x1
I0403 15:01:28.213057 11515 net.cpp:91] Creating Layer inception_3a/1x1
I0403 15:01:28.213074 11515 net.cpp:425] inception_3a/1x1 <- pool2/3x3_s2_pool2/3x3_s2_0_split_0
I0403 15:01:28.213093 11515 net.cpp:399] inception_3a/1x1 -> inception_3a/1x1
I0403 15:01:28.214615 11515 net.cpp:141] Setting up inception_3a/1x1
I0403 15:01:28.214646 11515 net.cpp:148] Top shape: 24 64 28 28 (1204224)
I0403 15:01:28.214663 11515 net.cpp:156] Memory required for data: 496141344
I0403 15:01:28.214682 11515 layer_factory.hpp:77] Creating layer inception_3a/relu_1x1
I0403 15:01:28.214704 11515 net.cpp:91] Creating Layer inception_3a/relu_1x1
I0403 15:01:28.214720 11515 net.cpp:425] inception_3a/relu_1x1 <- inception_3a/1x1
I0403 15:01:28.214738 11515 net.cpp:386] inception_3a/relu_1x1 -> inception_3a/1x1 (in-place)
I0403 15:01:28.214910 11515 net.cpp:141] Setting up inception_3a/relu_1x1
I0403 15:01:28.214937 11515 net.cpp:148] Top shape: 24 64 28 28 (1204224)
I0403 15:01:28.214952 11515 net.cpp:156] Memory required for data: 500958240
I0403 15:01:28.214967 11515 layer_factory.hpp:77] Creating layer inception_3a/3x3_reduce
I0403 15:01:28.214989 11515 net.cpp:91] Creating Layer inception_3a/3x3_reduce
I0403 15:01:28.215006 11515 net.cpp:425] inception_3a/3x3_reduce <- pool2/3x3_s2_pool2/3x3_s2_0_split_1
I0403 15:01:28.215025 11515 net.cpp:399] inception_3a/3x3_reduce -> inception_3a/3x3_reduce
I0403 15:01:28.216687 11515 net.cpp:141] Setting up inception_3a/3x3_reduce
I0403 15:01:28.216717 11515 net.cpp:148] Top shape: 24 96 28 28 (1806336)
I0403 15:01:28.216733 11515 net.cpp:156] Memory required for data: 508183584
I0403 15:01:28.216758 11515 layer_factory.hpp:77] Creating layer inception_3a/relu_3x3_reduce
I0403 15:01:28.216795 11515 net.cpp:91] Creating Layer inception_3a/relu_3x3_reduce
I0403 15:01:28.216814 11515 net.cpp:425] inception_3a/relu_3x3_reduce <- inception_3a/3x3_reduce
I0403 15:01:28.216835 11515 net.cpp:386] inception_3a/relu_3x3_reduce -> inception_3a/3x3_reduce (in-place)
I0403 15:01:28.217015 11515 net.cpp:141] Setting up inception_3a/relu_3x3_reduce
I0403 15:01:28.217041 11515 net.cpp:148] Top shape: 24 96 28 28 (1806336)
I0403 15:01:28.217056 11515 net.cpp:156] Memory required for data: 515408928
I0403 15:01:28.217070 11515 layer_factory.hpp:77] Creating layer inception_3a/3x3
I0403 15:01:28.217092 11515 net.cpp:91] Creating Layer inception_3a/3x3
I0403 15:01:28.217109 11515 net.cpp:425] inception_3a/3x3 <- inception_3a/3x3_reduce
I0403 15:01:28.217131 11515 net.cpp:399] inception_3a/3x3 -> inception_3a/3x3
I0403 15:01:28.218832 11515 net.cpp:141] Setting up inception_3a/3x3
I0403 15:01:28.218863 11515 net.cpp:148] Top shape: 24 128 28 28 (2408448)
I0403 15:01:28.218878 11515 net.cpp:156] Memory required for data: 525042720
I0403 15:01:28.218896 11515 layer_factory.hpp:77] Creating layer inception_3a/relu_3x3
I0403 15:01:28.218917 11515 net.cpp:91] Creating Layer inception_3a/relu_3x3
I0403 15:01:28.218936 11515 net.cpp:425] inception_3a/relu_3x3 <- inception_3a/3x3
I0403 15:01:28.218955 11515 net.cpp:386] inception_3a/relu_3x3 -> inception_3a/3x3 (in-place)
I0403 15:01:28.219226 11515 net.cpp:141] Setting up inception_3a/relu_3x3
I0403 15:01:28.219254 11515 net.cpp:148] Top shape: 24 128 28 28 (2408448)
I0403 15:01:28.219269 11515 net.cpp:156] Memory required for data: 534676512
I0403 15:01:28.219285 11515 layer_factory.hpp:77] Creating layer inception_3a/5x5_reduce
I0403 15:01:28.219310 11515 net.cpp:91] Creating Layer inception_3a/5x5_reduce
I0403 15:01:28.219328 11515 net.cpp:425] inception_3a/5x5_reduce <- pool2/3x3_s2_pool2/3x3_s2_0_split_2
I0403 15:01:28.219349 11515 net.cpp:399] inception_3a/5x5_reduce -> inception_3a/5x5_reduce
I0403 15:01:28.220324 11515 net.cpp:141] Setting up inception_3a/5x5_reduce
I0403 15:01:28.220355 11515 net.cpp:148] Top shape: 24 16 28 28 (301056)
I0403 15:01:28.220373 11515 net.cpp:156] Memory required for data: 535880736
I0403 15:01:28.220392 11515 layer_factory.hpp:77] Creating layer inception_3a/relu_5x5_reduce
I0403 15:01:28.220415 11515 net.cpp:91] Creating Layer inception_3a/relu_5x5_reduce
I0403 15:01:28.220435 11515 net.cpp:425] inception_3a/relu_5x5_reduce <- inception_3a/5x5_reduce
I0403 15:01:28.220458 11515 net.cpp:386] inception_3a/relu_5x5_reduce -> inception_3a/5x5_reduce (in-place)
I0403 15:01:28.220752 11515 net.cpp:141] Setting up inception_3a/relu_5x5_reduce
I0403 15:01:28.220782 11515 net.cpp:148] Top shape: 24 16 28 28 (301056)
I0403 15:01:28.220798 11515 net.cpp:156] Memory required for data: 537084960
I0403 15:01:28.220814 11515 layer_factory.hpp:77] Creating layer inception_3a/5x5
I0403 15:01:28.220837 11515 net.cpp:91] Creating Layer inception_3a/5x5
I0403 15:01:28.220856 11515 net.cpp:425] inception_3a/5x5 <- inception_3a/5x5_reduce
I0403 15:01:28.220880 11515 net.cpp:399] inception_3a/5x5 -> inception_3a/5x5
I0403 15:01:28.221879 11515 net.cpp:141] Setting up inception_3a/5x5
I0403 15:01:28.221909 11515 net.cpp:148] Top shape: 24 32 28 28 (602112)
I0403 15:01:28.221923 11515 net.cpp:156] Memory required for data: 539493408
I0403 15:01:28.221942 11515 layer_factory.hpp:77] Creating layer inception_3a/relu_5x5
I0403 15:01:28.221962 11515 net.cpp:91] Creating Layer inception_3a/relu_5x5
I0403 15:01:28.221981 11515 net.cpp:425] inception_3a/relu_5x5 <- inception_3a/5x5
I0403 15:01:28.221999 11515 net.cpp:386] inception_3a/relu_5x5 -> inception_3a/5x5 (in-place)
I0403 15:01:28.222172 11515 net.cpp:141] Setting up inception_3a/relu_5x5
I0403 15:01:28.222199 11515 net.cpp:148] Top shape: 24 32 28 28 (602112)
I0403 15:01:28.222215 11515 net.cpp:156] Memory required for data: 541901856
I0403 15:01:28.222231 11515 layer_factory.hpp:77] Creating layer inception_3a/pool
I0403 15:01:28.222249 11515 net.cpp:91] Creating Layer inception_3a/pool
I0403 15:01:28.222280 11515 net.cpp:425] inception_3a/pool <- pool2/3x3_s2_pool2/3x3_s2_0_split_3
I0403 15:01:28.222306 11515 net.cpp:399] inception_3a/pool -> inception_3a/pool
I0403 15:01:28.222364 11515 net.cpp:141] Setting up inception_3a/pool
I0403 15:01:28.222390 11515 net.cpp:148] Top shape: 24 192 28 28 (3612672)
I0403 15:01:28.222404 11515 net.cpp:156] Memory required for data: 556352544
I0403 15:01:28.222431 11515 layer_factory.hpp:77] Creating layer inception_3a/pool_proj
I0403 15:01:28.222458 11515 net.cpp:91] Creating Layer inception_3a/pool_proj
I0403 15:01:28.222476 11515 net.cpp:425] inception_3a/pool_proj <- inception_3a/pool
I0403 15:01:28.222494 11515 net.cpp:399] inception_3a/pool_proj -> inception_3a/pool_proj
I0403 15:01:28.223453 11515 net.cpp:141] Setting up inception_3a/pool_proj
I0403 15:01:28.223479 11515 net.cpp:148] Top shape: 24 32 28 28 (602112)
I0403 15:01:28.223495 11515 net.cpp:156] Memory required for data: 558760992
I0403 15:01:28.223518 11515 layer_factory.hpp:77] Creating layer inception_3a/relu_pool_proj
I0403 15:01:28.223537 11515 net.cpp:91] Creating Layer inception_3a/relu_pool_proj
I0403 15:01:28.223553 11515 net.cpp:425] inception_3a/relu_pool_proj <- inception_3a/pool_proj
I0403 15:01:28.223573 11515 net.cpp:386] inception_3a/relu_pool_proj -> inception_3a/pool_proj (in-place)
I0403 15:01:28.223847 11515 net.cpp:141] Setting up inception_3a/relu_pool_proj
I0403 15:01:28.223873 11515 net.cpp:148] Top shape: 24 32 28 28 (602112)
I0403 15:01:28.223888 11515 net.cpp:156] Memory required for data: 561169440
I0403 15:01:28.223903 11515 layer_factory.hpp:77] Creating layer inception_3a/output
I0403 15:01:28.223923 11515 net.cpp:91] Creating Layer inception_3a/output
I0403 15:01:28.223940 11515 net.cpp:425] inception_3a/output <- inception_3a/1x1
I0403 15:01:28.223958 11515 net.cpp:425] inception_3a/output <- inception_3a/3x3
I0403 15:01:28.223973 11515 net.cpp:425] inception_3a/output <- inception_3a/5x5
I0403 15:01:28.223987 11515 net.cpp:425] inception_3a/output <- inception_3a/pool_proj
I0403 15:01:28.224004 11515 net.cpp:399] inception_3a/output -> inception_3a/output
I0403 15:01:28.224051 11515 net.cpp:141] Setting up inception_3a/output
I0403 15:01:28.224076 11515 net.cpp:148] Top shape: 24 256 28 28 (4816896)
I0403 15:01:28.224089 11515 net.cpp:156] Memory required for data: 580437024
I0403 15:01:28.224104 11515 layer_factory.hpp:77] Creating layer inception_3a/output_inception_3a/output_0_split
I0403 15:01:28.224122 11515 net.cpp:91] Creating Layer inception_3a/output_inception_3a/output_0_split
I0403 15:01:28.224136 11515 net.cpp:425] inception_3a/output_inception_3a/output_0_split <- inception_3a/output
I0403 15:01:28.224155 11515 net.cpp:399] inception_3a/output_inception_3a/output_0_split -> inception_3a/output_inception_3a/output_0_split_0
I0403 15:01:28.224175 11515 net.cpp:399] inception_3a/output_inception_3a/output_0_split -> inception_3a/output_inception_3a/output_0_split_1
I0403 15:01:28.224203 11515 net.cpp:399] inception_3a/output_inception_3a/output_0_split -> inception_3a/output_inception_3a/output_0_split_2
I0403 15:01:28.224225 11515 net.cpp:399] inception_3a/output_inception_3a/output_0_split -> inception_3a/output_inception_3a/output_0_split_3
I0403 15:01:28.224297 11515 net.cpp:141] Setting up inception_3a/output_inception_3a/output_0_split
I0403 15:01:28.224319 11515 net.cpp:148] Top shape: 24 256 28 28 (4816896)
I0403 15:01:28.224339 11515 net.cpp:148] Top shape: 24 256 28 28 (4816896)
I0403 15:01:28.224354 11515 net.cpp:148] Top shape: 24 256 28 28 (4816896)
I0403 15:01:28.224370 11515 net.cpp:148] Top shape: 24 256 28 28 (4816896)
I0403 15:01:28.224385 11515 net.cpp:156] Memory required for data: 657507360
I0403 15:01:28.224398 11515 layer_factory.hpp:77] Creating layer inception_3b/1x1
I0403 15:01:28.224422 11515 net.cpp:91] Creating Layer inception_3b/1x1
I0403 15:01:28.224441 11515 net.cpp:425] inception_3b/1x1 <- inception_3a/output_inception_3a/output_0_split_0
I0403 15:01:28.224460 11515 net.cpp:399] inception_3b/1x1 -> inception_3b/1x1
I0403 15:01:28.225595 11515 net.cpp:141] Setting up inception_3b/1x1
I0403 15:01:28.225636 11515 net.cpp:148] Top shape: 24 128 28 28 (2408448)
I0403 15:01:28.225653 11515 net.cpp:156] Memory required for data: 667141152
I0403 15:01:28.225673 11515 layer_factory.hpp:77] Creating layer inception_3b/relu_1x1
I0403 15:01:28.225694 11515 net.cpp:91] Creating Layer inception_3b/relu_1x1
I0403 15:01:28.225713 11515 net.cpp:425] inception_3b/relu_1x1 <- inception_3b/1x1
I0403 15:01:28.225730 11515 net.cpp:386] inception_3b/relu_1x1 -> inception_3b/1x1 (in-place)
I0403 15:01:28.225905 11515 net.cpp:141] Setting up inception_3b/relu_1x1
I0403 15:01:28.225932 11515 net.cpp:148] Top shape: 24 128 28 28 (2408448)
I0403 15:01:28.225947 11515 net.cpp:156] Memory required for data: 676774944
I0403 15:01:28.225962 11515 layer_factory.hpp:77] Creating layer inception_3b/3x3_reduce
I0403 15:01:28.225987 11515 net.cpp:91] Creating Layer inception_3b/3x3_reduce
I0403 15:01:28.226006 11515 net.cpp:425] inception_3b/3x3_reduce <- inception_3a/output_inception_3a/output_0_split_1
I0403 15:01:28.226027 11515 net.cpp:399] inception_3b/3x3_reduce -> inception_3b/3x3_reduce
I0403 15:01:28.227154 11515 net.cpp:141] Setting up inception_3b/3x3_reduce
I0403 15:01:28.227183 11515 net.cpp:148] Top shape: 24 128 28 28 (2408448)
I0403 15:01:28.227200 11515 net.cpp:156] Memory required for data: 686408736
I0403 15:01:28.227218 11515 layer_factory.hpp:77] Creating layer inception_3b/relu_3x3_reduce
I0403 15:01:28.227241 11515 net.cpp:91] Creating Layer inception_3b/relu_3x3_reduce
I0403 15:01:28.227258 11515 net.cpp:425] inception_3b/relu_3x3_reduce <- inception_3b/3x3_reduce
I0403 15:01:28.227277 11515 net.cpp:386] inception_3b/relu_3x3_reduce -> inception_3b/3x3_reduce (in-place)
I0403 15:01:28.227454 11515 net.cpp:141] Setting up inception_3b/relu_3x3_reduce
I0403 15:01:28.227483 11515 net.cpp:148] Top shape: 24 128 28 28 (2408448)
I0403 15:01:28.227500 11515 net.cpp:156] Memory required for data: 696042528
I0403 15:01:28.227515 11515 layer_factory.hpp:77] Creating layer inception_3b/3x3
I0403 15:01:28.227540 11515 net.cpp:91] Creating Layer inception_3b/3x3
I0403 15:01:28.227560 11515 net.cpp:425] inception_3b/3x3 <- inception_3b/3x3_reduce
I0403 15:01:28.227583 11515 net.cpp:399] inception_3b/3x3 -> inception_3b/3x3
I0403 15:01:28.230473 11515 net.cpp:141] Setting up inception_3b/3x3
I0403 15:01:28.230502 11515 net.cpp:148] Top shape: 24 192 28 28 (3612672)
I0403 15:01:28.230520 11515 net.cpp:156] Memory required for data: 710493216
I0403 15:01:28.230538 11515 layer_factory.hpp:77] Creating layer inception_3b/relu_3x3
I0403 15:01:28.230559 11515 net.cpp:91] Creating Layer inception_3b/relu_3x3
I0403 15:01:28.230578 11515 net.cpp:425] inception_3b/relu_3x3 <- inception_3b/3x3
I0403 15:01:28.230595 11515 net.cpp:386] inception_3b/relu_3x3 -> inception_3b/3x3 (in-place)
I0403 15:01:28.230871 11515 net.cpp:141] Setting up inception_3b/relu_3x3
I0403 15:01:28.230898 11515 net.cpp:148] Top shape: 24 192 28 28 (3612672)
I0403 15:01:28.230916 11515 net.cpp:156] Memory required for data: 724943904
I0403 15:01:28.230931 11515 layer_factory.hpp:77] Creating layer inception_3b/5x5_reduce
I0403 15:01:28.230957 11515 net.cpp:91] Creating Layer inception_3b/5x5_reduce
I0403 15:01:28.230974 11515 net.cpp:425] inception_3b/5x5_reduce <- inception_3a/output_inception_3a/output_0_split_2
I0403 15:01:28.230994 11515 net.cpp:399] inception_3b/5x5_reduce -> inception_3b/5x5_reduce
I0403 15:01:28.231976 11515 net.cpp:141] Setting up inception_3b/5x5_reduce
I0403 15:01:28.232004 11515 net.cpp:148] Top shape: 24 32 28 28 (602112)
I0403 15:01:28.232019 11515 net.cpp:156] Memory required for data: 727352352
I0403 15:01:28.232038 11515 layer_factory.hpp:77] Creating layer inception_3b/relu_5x5_reduce
I0403 15:01:28.232058 11515 net.cpp:91] Creating Layer inception_3b/relu_5x5_reduce
I0403 15:01:28.232074 11515 net.cpp:425] inception_3b/relu_5x5_reduce <- inception_3b/5x5_reduce
I0403 15:01:28.232092 11515 net.cpp:386] inception_3b/relu_5x5_reduce -> inception_3b/5x5_reduce (in-place)
I0403 15:01:28.232285 11515 net.cpp:141] Setting up inception_3b/relu_5x5_reduce
I0403 15:01:28.232311 11515 net.cpp:148] Top shape: 24 32 28 28 (602112)
I0403 15:01:28.232326 11515 net.cpp:156] Memory required for data: 729760800
I0403 15:01:28.232339 11515 layer_factory.hpp:77] Creating layer inception_3b/5x5
I0403 15:01:28.232362 11515 net.cpp:91] Creating Layer inception_3b/5x5
I0403 15:01:28.232381 11515 net.cpp:425] inception_3b/5x5 <- inception_3b/5x5_reduce
I0403 15:01:28.232408 11515 net.cpp:399] inception_3b/5x5 -> inception_3b/5x5
I0403 15:01:28.234407 11515 net.cpp:141] Setting up inception_3b/5x5
I0403 15:01:28.234441 11515 net.cpp:148] Top shape: 24 96 28 28 (1806336)
I0403 15:01:28.234457 11515 net.cpp:156] Memory required for data: 736986144
I0403 15:01:28.234475 11515 layer_factory.hpp:77] Creating layer inception_3b/relu_5x5
I0403 15:01:28.234496 11515 net.cpp:91] Creating Layer inception_3b/relu_5x5
I0403 15:01:28.234514 11515 net.cpp:425] inception_3b/relu_5x5 <- inception_3b/5x5
I0403 15:01:28.234532 11515 net.cpp:386] inception_3b/relu_5x5 -> inception_3b/5x5 (in-place)
I0403 15:01:28.234727 11515 net.cpp:141] Setting up inception_3b/relu_5x5
I0403 15:01:28.234752 11515 net.cpp:148] Top shape: 24 96 28 28 (1806336)
I0403 15:01:28.234766 11515 net.cpp:156] Memory required for data: 744211488
I0403 15:01:28.234781 11515 layer_factory.hpp:77] Creating layer inception_3b/pool
I0403 15:01:28.234798 11515 net.cpp:91] Creating Layer inception_3b/pool
I0403 15:01:28.234814 11515 net.cpp:425] inception_3b/pool <- inception_3a/output_inception_3a/output_0_split_3
I0403 15:01:28.234833 11515 net.cpp:399] inception_3b/pool -> inception_3b/pool
I0403 15:01:28.234889 11515 net.cpp:141] Setting up inception_3b/pool
I0403 15:01:28.234912 11515 net.cpp:148] Top shape: 24 256 28 28 (4816896)
I0403 15:01:28.234926 11515 net.cpp:156] Memory required for data: 763479072
I0403 15:01:28.234941 11515 layer_factory.hpp:77] Creating layer inception_3b/pool_proj
I0403 15:01:28.234962 11515 net.cpp:91] Creating Layer inception_3b/pool_proj
I0403 15:01:28.234980 11515 net.cpp:425] inception_3b/pool_proj <- inception_3b/pool
I0403 15:01:28.235002 11515 net.cpp:399] inception_3b/pool_proj -> inception_3b/pool_proj
I0403 15:01:28.236047 11515 net.cpp:141] Setting up inception_3b/pool_proj
I0403 15:01:28.236075 11515 net.cpp:148] Top shape: 24 64 28 28 (1204224)
I0403 15:01:28.236093 11515 net.cpp:156] Memory required for data: 768295968
I0403 15:01:28.236110 11515 layer_factory.hpp:77] Creating layer inception_3b/relu_pool_proj
I0403 15:01:28.236129 11515 net.cpp:91] Creating Layer inception_3b/relu_pool_proj
I0403 15:01:28.236143 11515 net.cpp:425] inception_3b/relu_pool_proj <- inception_3b/pool_proj
I0403 15:01:28.236163 11515 net.cpp:386] inception_3b/relu_pool_proj -> inception_3b/pool_proj (in-place)
I0403 15:01:28.236548 11515 net.cpp:141] Setting up inception_3b/relu_pool_proj
I0403 15:01:28.236577 11515 net.cpp:148] Top shape: 24 64 28 28 (1204224)
I0403 15:01:28.236591 11515 net.cpp:156] Memory required for data: 773112864
I0403 15:01:28.236608 11515 layer_factory.hpp:77] Creating layer inception_3b/output
I0403 15:01:28.236624 11515 net.cpp:91] Creating Layer inception_3b/output
I0403 15:01:28.236639 11515 net.cpp:425] inception_3b/output <- inception_3b/1x1
I0403 15:01:28.236655 11515 net.cpp:425] inception_3b/output <- inception_3b/3x3
I0403 15:01:28.236670 11515 net.cpp:425] inception_3b/output <- inception_3b/5x5
I0403 15:01:28.236685 11515 net.cpp:425] inception_3b/output <- inception_3b/pool_proj
I0403 15:01:28.236703 11515 net.cpp:399] inception_3b/output -> inception_3b/output
I0403 15:01:28.236747 11515 net.cpp:141] Setting up inception_3b/output
I0403 15:01:28.236768 11515 net.cpp:148] Top shape: 24 480 28 28 (9031680)
I0403 15:01:28.236783 11515 net.cpp:156] Memory required for data: 809239584
I0403 15:01:28.236798 11515 layer_factory.hpp:77] Creating layer pool3/3x3_s2
I0403 15:01:28.236815 11515 net.cpp:91] Creating Layer pool3/3x3_s2
I0403 15:01:28.236832 11515 net.cpp:425] pool3/3x3_s2 <- inception_3b/output
I0403 15:01:28.236863 11515 net.cpp:399] pool3/3x3_s2 -> pool3/3x3_s2
I0403 15:01:28.236920 11515 net.cpp:141] Setting up pool3/3x3_s2
I0403 15:01:28.236943 11515 net.cpp:148] Top shape: 24 480 14 14 (2257920)
I0403 15:01:28.236958 11515 net.cpp:156] Memory required for data: 818271264
I0403 15:01:28.236970 11515 layer_factory.hpp:77] Creating layer pool3/3x3_s2_pool3/3x3_s2_0_split
I0403 15:01:28.236986 11515 net.cpp:91] Creating Layer pool3/3x3_s2_pool3/3x3_s2_0_split
I0403 15:01:28.237000 11515 net.cpp:425] pool3/3x3_s2_pool3/3x3_s2_0_split <- pool3/3x3_s2
I0403 15:01:28.237018 11515 net.cpp:399] pool3/3x3_s2_pool3/3x3_s2_0_split -> pool3/3x3_s2_pool3/3x3_s2_0_split_0
I0403 15:01:28.237038 11515 net.cpp:399] pool3/3x3_s2_pool3/3x3_s2_0_split -> pool3/3x3_s2_pool3/3x3_s2_0_split_1
I0403 15:01:28.237057 11515 net.cpp:399] pool3/3x3_s2_pool3/3x3_s2_0_split -> pool3/3x3_s2_pool3/3x3_s2_0_split_2
I0403 15:01:28.237076 11515 net.cpp:399] pool3/3x3_s2_pool3/3x3_s2_0_split -> pool3/3x3_s2_pool3/3x3_s2_0_split_3
I0403 15:01:28.237148 11515 net.cpp:141] Setting up pool3/3x3_s2_pool3/3x3_s2_0_split
I0403 15:01:28.237170 11515 net.cpp:148] Top shape: 24 480 14 14 (2257920)
I0403 15:01:28.237185 11515 net.cpp:148] Top shape: 24 480 14 14 (2257920)
I0403 15:01:28.237200 11515 net.cpp:148] Top shape: 24 480 14 14 (2257920)
I0403 15:01:28.237215 11515 net.cpp:148] Top shape: 24 480 14 14 (2257920)
I0403 15:01:28.237228 11515 net.cpp:156] Memory required for data: 854397984
I0403 15:01:28.237242 11515 layer_factory.hpp:77] Creating layer inception_4a/1x1
I0403 15:01:28.237263 11515 net.cpp:91] Creating Layer inception_4a/1x1
I0403 15:01:28.237279 11515 net.cpp:425] inception_4a/1x1 <- pool3/3x3_s2_pool3/3x3_s2_0_split_0
I0403 15:01:28.237300 11515 net.cpp:399] inception_4a/1x1 -> inception_4a/1x1
I0403 15:01:28.238817 11515 net.cpp:141] Setting up inception_4a/1x1
I0403 15:01:28.238845 11515 net.cpp:148] Top shape: 24 192 14 14 (903168)
I0403 15:01:28.238860 11515 net.cpp:156] Memory required for data: 858010656
I0403 15:01:28.238878 11515 layer_factory.hpp:77] Creating layer inception_4a/relu_1x1
I0403 15:01:28.238896 11515 net.cpp:91] Creating Layer inception_4a/relu_1x1
I0403 15:01:28.238912 11515 net.cpp:425] inception_4a/relu_1x1 <- inception_4a/1x1
I0403 15:01:28.238930 11515 net.cpp:386] inception_4a/relu_1x1 -> inception_4a/1x1 (in-place)
I0403 15:01:28.239101 11515 net.cpp:141] Setting up inception_4a/relu_1x1
I0403 15:01:28.239125 11515 net.cpp:148] Top shape: 24 192 14 14 (903168)
I0403 15:01:28.239140 11515 net.cpp:156] Memory required for data: 861623328
I0403 15:01:28.239153 11515 layer_factory.hpp:77] Creating layer inception_4a/3x3_reduce
I0403 15:01:28.239174 11515 net.cpp:91] Creating Layer inception_4a/3x3_reduce
I0403 15:01:28.239190 11515 net.cpp:425] inception_4a/3x3_reduce <- pool3/3x3_s2_pool3/3x3_s2_0_split_1
I0403 15:01:28.239212 11515 net.cpp:399] inception_4a/3x3_reduce -> inception_4a/3x3_reduce
I0403 15:01:28.240481 11515 net.cpp:141] Setting up inception_4a/3x3_reduce
I0403 15:01:28.240509 11515 net.cpp:148] Top shape: 24 96 14 14 (451584)
I0403 15:01:28.240523 11515 net.cpp:156] Memory required for data: 863429664
I0403 15:01:28.240548 11515 layer_factory.hpp:77] Creating layer inception_4a/relu_3x3_reduce
I0403 15:01:28.240567 11515 net.cpp:91] Creating Layer inception_4a/relu_3x3_reduce
I0403 15:01:28.240583 11515 net.cpp:425] inception_4a/relu_3x3_reduce <- inception_4a/3x3_reduce
I0403 15:01:28.240602 11515 net.cpp:386] inception_4a/relu_3x3_reduce -> inception_4a/3x3_reduce (in-place)
I0403 15:01:28.240772 11515 net.cpp:141] Setting up inception_4a/relu_3x3_reduce
I0403 15:01:28.240797 11515 net.cpp:148] Top shape: 24 96 14 14 (451584)
I0403 15:01:28.240810 11515 net.cpp:156] Memory required for data: 865236000
I0403 15:01:28.240824 11515 layer_factory.hpp:77] Creating layer inception_4a/3x3
I0403 15:01:28.240846 11515 net.cpp:91] Creating Layer inception_4a/3x3
I0403 15:01:28.240864 11515 net.cpp:425] inception_4a/3x3 <- inception_4a/3x3_reduce
I0403 15:01:28.240883 11515 net.cpp:399] inception_4a/3x3 -> inception_4a/3x3
I0403 15:01:28.243505 11515 net.cpp:141] Setting up inception_4a/3x3
I0403 15:01:28.243533 11515 net.cpp:148] Top shape: 24 208 14 14 (978432)
I0403 15:01:28.243549 11515 net.cpp:156] Memory required for data: 869149728
I0403 15:01:28.243567 11515 layer_factory.hpp:77] Creating layer inception_4a/relu_3x3
I0403 15:01:28.243587 11515 net.cpp:91] Creating Layer inception_4a/relu_3x3
I0403 15:01:28.243604 11515 net.cpp:425] inception_4a/relu_3x3 <- inception_4a/3x3
I0403 15:01:28.243623 11515 net.cpp:386] inception_4a/relu_3x3 -> inception_4a/3x3 (in-place)
I0403 15:01:28.243888 11515 net.cpp:141] Setting up inception_4a/relu_3x3
I0403 15:01:28.243913 11515 net.cpp:148] Top shape: 24 208 14 14 (978432)
I0403 15:01:28.243927 11515 net.cpp:156] Memory required for data: 873063456
I0403 15:01:28.243942 11515 layer_factory.hpp:77] Creating layer inception_4a/5x5_reduce
I0403 15:01:28.243964 11515 net.cpp:91] Creating Layer inception_4a/5x5_reduce
I0403 15:01:28.243981 11515 net.cpp:425] inception_4a/5x5_reduce <- pool3/3x3_s2_pool3/3x3_s2_0_split_2
I0403 15:01:28.244002 11515 net.cpp:399] inception_4a/5x5_reduce -> inception_4a/5x5_reduce
I0403 15:01:28.244977 11515 net.cpp:141] Setting up inception_4a/5x5_reduce
I0403 15:01:28.245004 11515 net.cpp:148] Top shape: 24 16 14 14 (75264)
I0403 15:01:28.245020 11515 net.cpp:156] Memory required for data: 873364512
I0403 15:01:28.245039 11515 layer_factory.hpp:77] Creating layer inception_4a/relu_5x5_reduce
I0403 15:01:28.245059 11515 net.cpp:91] Creating Layer inception_4a/relu_5x5_reduce
I0403 15:01:28.245075 11515 net.cpp:425] inception_4a/relu_5x5_reduce <- inception_4a/5x5_reduce
I0403 15:01:28.245092 11515 net.cpp:386] inception_4a/relu_5x5_reduce -> inception_4a/5x5_reduce (in-place)
I0403 15:01:28.245262 11515 net.cpp:141] Setting up inception_4a/relu_5x5_reduce
I0403 15:01:28.245290 11515 net.cpp:148] Top shape: 24 16 14 14 (75264)
I0403 15:01:28.245306 11515 net.cpp:156] Memory required for data: 873665568
I0403 15:01:28.245319 11515 layer_factory.hpp:77] Creating layer inception_4a/5x5
I0403 15:01:28.245340 11515 net.cpp:91] Creating Layer inception_4a/5x5
I0403 15:01:28.245357 11515 net.cpp:425] inception_4a/5x5 <- inception_4a/5x5_reduce
I0403 15:01:28.245375 11515 net.cpp:399] inception_4a/5x5 -> inception_4a/5x5
I0403 15:01:28.246438 11515 net.cpp:141] Setting up inception_4a/5x5
I0403 15:01:28.246470 11515 net.cpp:148] Top shape: 24 48 14 14 (225792)
I0403 15:01:28.246487 11515 net.cpp:156] Memory required for data: 874568736
I0403 15:01:28.246507 11515 layer_factory.hpp:77] Creating layer inception_4a/relu_5x5
I0403 15:01:28.246526 11515 net.cpp:91] Creating Layer inception_4a/relu_5x5
I0403 15:01:28.246543 11515 net.cpp:425] inception_4a/relu_5x5 <- inception_4a/5x5
I0403 15:01:28.246562 11515 net.cpp:386] inception_4a/relu_5x5 -> inception_4a/5x5 (in-place)
I0403 15:01:28.246750 11515 net.cpp:141] Setting up inception_4a/relu_5x5
I0403 15:01:28.246776 11515 net.cpp:148] Top shape: 24 48 14 14 (225792)
I0403 15:01:28.246791 11515 net.cpp:156] Memory required for data: 875471904
I0403 15:01:28.246806 11515 layer_factory.hpp:77] Creating layer inception_4a/pool
I0403 15:01:28.246824 11515 net.cpp:91] Creating Layer inception_4a/pool
I0403 15:01:28.246840 11515 net.cpp:425] inception_4a/pool <- pool3/3x3_s2_pool3/3x3_s2_0_split_3
I0403 15:01:28.246860 11515 net.cpp:399] inception_4a/pool -> inception_4a/pool
I0403 15:01:28.246919 11515 net.cpp:141] Setting up inception_4a/pool
I0403 15:01:28.246943 11515 net.cpp:148] Top shape: 24 480 14 14 (2257920)
I0403 15:01:28.246958 11515 net.cpp:156] Memory required for data: 884503584
I0403 15:01:28.246973 11515 layer_factory.hpp:77] Creating layer inception_4a/pool_proj
I0403 15:01:28.246996 11515 net.cpp:91] Creating Layer inception_4a/pool_proj
I0403 15:01:28.247014 11515 net.cpp:425] inception_4a/pool_proj <- inception_4a/pool
I0403 15:01:28.247032 11515 net.cpp:399] inception_4a/pool_proj -> inception_4a/pool_proj
I0403 15:01:28.248150 11515 net.cpp:141] Setting up inception_4a/pool_proj
I0403 15:01:28.248178 11515 net.cpp:148] Top shape: 24 64 14 14 (301056)
I0403 15:01:28.248208 11515 net.cpp:156] Memory required for data: 885707808
I0403 15:01:28.248229 11515 layer_factory.hpp:77] Creating layer inception_4a/relu_pool_proj
I0403 15:01:28.248248 11515 net.cpp:91] Creating Layer inception_4a/relu_pool_proj
I0403 15:01:28.248265 11515 net.cpp:425] inception_4a/relu_pool_proj <- inception_4a/pool_proj
I0403 15:01:28.248286 11515 net.cpp:386] inception_4a/relu_pool_proj -> inception_4a/pool_proj (in-place)
I0403 15:01:28.248563 11515 net.cpp:141] Setting up inception_4a/relu_pool_proj
I0403 15:01:28.248590 11515 net.cpp:148] Top shape: 24 64 14 14 (301056)
I0403 15:01:28.248606 11515 net.cpp:156] Memory required for data: 886912032
I0403 15:01:28.248620 11515 layer_factory.hpp:77] Creating layer inception_4a/output
I0403 15:01:28.248637 11515 net.cpp:91] Creating Layer inception_4a/output
I0403 15:01:28.248653 11515 net.cpp:425] inception_4a/output <- inception_4a/1x1
I0403 15:01:28.248669 11515 net.cpp:425] inception_4a/output <- inception_4a/3x3
I0403 15:01:28.248684 11515 net.cpp:425] inception_4a/output <- inception_4a/5x5
I0403 15:01:28.248699 11515 net.cpp:425] inception_4a/output <- inception_4a/pool_proj
I0403 15:01:28.248718 11515 net.cpp:399] inception_4a/output -> inception_4a/output
I0403 15:01:28.248760 11515 net.cpp:141] Setting up inception_4a/output
I0403 15:01:28.248783 11515 net.cpp:148] Top shape: 24 512 14 14 (2408448)
I0403 15:01:28.248797 11515 net.cpp:156] Memory required for data: 896545824
I0403 15:01:28.248811 11515 layer_factory.hpp:77] Creating layer inception_4a/output_inception_4a/output_0_split
I0403 15:01:28.248831 11515 net.cpp:91] Creating Layer inception_4a/output_inception_4a/output_0_split
I0403 15:01:28.248847 11515 net.cpp:425] inception_4a/output_inception_4a/output_0_split <- inception_4a/output
I0403 15:01:28.248867 11515 net.cpp:399] inception_4a/output_inception_4a/output_0_split -> inception_4a/output_inception_4a/output_0_split_0
I0403 15:01:28.248886 11515 net.cpp:399] inception_4a/output_inception_4a/output_0_split -> inception_4a/output_inception_4a/output_0_split_1
I0403 15:01:28.248908 11515 net.cpp:399] inception_4a/output_inception_4a/output_0_split -> inception_4a/output_inception_4a/output_0_split_2
I0403 15:01:28.248926 11515 net.cpp:399] inception_4a/output_inception_4a/output_0_split -> inception_4a/output_inception_4a/output_0_split_3
I0403 15:01:28.248945 11515 net.cpp:399] inception_4a/output_inception_4a/output_0_split -> inception_4a/output_inception_4a/output_0_split_4
I0403 15:01:28.249033 11515 net.cpp:141] Setting up inception_4a/output_inception_4a/output_0_split
I0403 15:01:28.249056 11515 net.cpp:148] Top shape: 24 512 14 14 (2408448)
I0403 15:01:28.249071 11515 net.cpp:148] Top shape: 24 512 14 14 (2408448)
I0403 15:01:28.249088 11515 net.cpp:148] Top shape: 24 512 14 14 (2408448)
I0403 15:01:28.249101 11515 net.cpp:148] Top shape: 24 512 14 14 (2408448)
I0403 15:01:28.249116 11515 net.cpp:148] Top shape: 24 512 14 14 (2408448)
I0403 15:01:28.249128 11515 net.cpp:156] Memory required for data: 944714784
I0403 15:01:28.249142 11515 layer_factory.hpp:77] Creating layer loss1/ave_pool
I0403 15:01:28.249161 11515 net.cpp:91] Creating Layer loss1/ave_pool
I0403 15:01:28.249177 11515 net.cpp:425] loss1/ave_pool <- inception_4a/output_inception_4a/output_0_split_0
I0403 15:01:28.249194 11515 net.cpp:399] loss1/ave_pool -> loss1/ave_pool
I0403 15:01:28.249397 11515 net.cpp:141] Setting up loss1/ave_pool
I0403 15:01:28.249425 11515 net.cpp:148] Top shape: 24 512 4 4 (196608)
I0403 15:01:28.249440 11515 net.cpp:156] Memory required for data: 945501216
I0403 15:01:28.249454 11515 layer_factory.hpp:77] Creating layer loss1/conv
I0403 15:01:28.249476 11515 net.cpp:91] Creating Layer loss1/conv
I0403 15:01:28.249493 11515 net.cpp:425] loss1/conv <- loss1/ave_pool
I0403 15:01:28.249513 11515 net.cpp:399] loss1/conv -> loss1/conv
I0403 15:01:28.250872 11515 net.cpp:141] Setting up loss1/conv
I0403 15:01:28.250901 11515 net.cpp:148] Top shape: 24 128 4 4 (49152)
I0403 15:01:28.250931 11515 net.cpp:156] Memory required for data: 945697824
I0403 15:01:28.250952 11515 layer_factory.hpp:77] Creating layer loss1/relu_conv
I0403 15:01:28.250972 11515 net.cpp:91] Creating Layer loss1/relu_conv
I0403 15:01:28.250989 11515 net.cpp:425] loss1/relu_conv <- loss1/conv
I0403 15:01:28.251005 11515 net.cpp:386] loss1/relu_conv -> loss1/conv (in-place)
I0403 15:01:28.251276 11515 net.cpp:141] Setting up loss1/relu_conv
I0403 15:01:28.251302 11515 net.cpp:148] Top shape: 24 128 4 4 (49152)
I0403 15:01:28.251317 11515 net.cpp:156] Memory required for data: 945894432
I0403 15:01:28.251332 11515 layer_factory.hpp:77] Creating layer loss1/fc
I0403 15:01:28.251371 11515 net.cpp:91] Creating Layer loss1/fc
I0403 15:01:28.251390 11515 net.cpp:425] loss1/fc <- loss1/conv
I0403 15:01:28.251415 11515 net.cpp:399] loss1/fc -> loss1/fc
I0403 15:01:28.268738 11515 net.cpp:141] Setting up loss1/fc
I0403 15:01:28.268769 11515 net.cpp:148] Top shape: 24 1024 (24576)
I0403 15:01:28.268785 11515 net.cpp:156] Memory required for data: 945992736
I0403 15:01:28.268805 11515 layer_factory.hpp:77] Creating layer loss1/relu_fc
I0403 15:01:28.268822 11515 net.cpp:91] Creating Layer loss1/relu_fc
I0403 15:01:28.268837 11515 net.cpp:425] loss1/relu_fc <- loss1/fc
I0403 15:01:28.268858 11515 net.cpp:386] loss1/relu_fc -> loss1/fc (in-place)
I0403 15:01:28.269033 11515 net.cpp:141] Setting up loss1/relu_fc
I0403 15:01:28.269057 11515 net.cpp:148] Top shape: 24 1024 (24576)
I0403 15:01:28.269073 11515 net.cpp:156] Memory required for data: 946091040
I0403 15:01:28.269086 11515 layer_factory.hpp:77] Creating layer loss1/drop_fc
I0403 15:01:28.269112 11515 net.cpp:91] Creating Layer loss1/drop_fc
I0403 15:01:28.269129 11515 net.cpp:425] loss1/drop_fc <- loss1/fc
I0403 15:01:28.269146 11515 net.cpp:386] loss1/drop_fc -> loss1/fc (in-place)
I0403 15:01:28.269193 11515 net.cpp:141] Setting up loss1/drop_fc
I0403 15:01:28.269219 11515 net.cpp:148] Top shape: 24 1024 (24576)
I0403 15:01:28.269234 11515 net.cpp:156] Memory required for data: 946189344
I0403 15:01:28.269248 11515 layer_factory.hpp:77] Creating layer loss1/classifier_plantvillage
I0403 15:01:28.269265 11515 net.cpp:91] Creating Layer loss1/classifier_plantvillage
I0403 15:01:28.269280 11515 net.cpp:425] loss1/classifier_plantvillage <- loss1/fc
I0403 15:01:28.269301 11515 net.cpp:399] loss1/classifier_plantvillage -> loss1/classifier_plantvillage
I0403 15:01:28.270184 11515 net.cpp:141] Setting up loss1/classifier_plantvillage
I0403 15:01:28.270212 11515 net.cpp:148] Top shape: 24 38 (912)
I0403 15:01:28.270226 11515 net.cpp:156] Memory required for data: 946192992
I0403 15:01:28.270243 11515 layer_factory.hpp:77] Creating layer loss1/classifier_plantvillage_loss1/classifier_plantvillage_0_split
I0403 15:01:28.270262 11515 net.cpp:91] Creating Layer loss1/classifier_plantvillage_loss1/classifier_plantvillage_0_split
I0403 15:01:28.270277 11515 net.cpp:425] loss1/classifier_plantvillage_loss1/classifier_plantvillage_0_split <- loss1/classifier_plantvillage
I0403 15:01:28.270294 11515 net.cpp:399] loss1/classifier_plantvillage_loss1/classifier_plantvillage_0_split -> loss1/classifier_plantvillage_loss1/classifier_plantvillage_0_split_0
I0403 15:01:28.270315 11515 net.cpp:399] loss1/classifier_plantvillage_loss1/classifier_plantvillage_0_split -> loss1/classifier_plantvillage_loss1/classifier_plantvillage_0_split_1
I0403 15:01:28.270334 11515 net.cpp:399] loss1/classifier_plantvillage_loss1/classifier_plantvillage_0_split -> loss1/classifier_plantvillage_loss1/classifier_plantvillage_0_split_2
I0403 15:01:28.270400 11515 net.cpp:141] Setting up loss1/classifier_plantvillage_loss1/classifier_plantvillage_0_split
I0403 15:01:28.270426 11515 net.cpp:148] Top shape: 24 38 (912)
I0403 15:01:28.270442 11515 net.cpp:148] Top shape: 24 38 (912)
I0403 15:01:28.270457 11515 net.cpp:148] Top shape: 24 38 (912)
I0403 15:01:28.270470 11515 net.cpp:156] Memory required for data: 946203936
I0403 15:01:28.270484 11515 layer_factory.hpp:77] Creating layer inception_4b/1x1
I0403 15:01:28.270505 11515 net.cpp:91] Creating Layer inception_4b/1x1
I0403 15:01:28.270536 11515 net.cpp:425] inception_4b/1x1 <- inception_4a/output_inception_4a/output_0_split_1
I0403 15:01:28.270555 11515 net.cpp:399] inception_4b/1x1 -> inception_4b/1x1
I0403 15:01:28.272150 11515 net.cpp:141] Setting up inception_4b/1x1
I0403 15:01:28.272178 11515 net.cpp:148] Top shape: 24 160 14 14 (752640)
I0403 15:01:28.272194 11515 net.cpp:156] Memory required for data: 949214496
I0403 15:01:28.272213 11515 layer_factory.hpp:77] Creating layer inception_4b/relu_1x1
I0403 15:01:28.272233 11515 net.cpp:91] Creating Layer inception_4b/relu_1x1
I0403 15:01:28.272251 11515 net.cpp:425] inception_4b/relu_1x1 <- inception_4b/1x1
I0403 15:01:28.272267 11515 net.cpp:386] inception_4b/relu_1x1 -> inception_4b/1x1 (in-place)
I0403 15:01:28.272447 11515 net.cpp:141] Setting up inception_4b/relu_1x1
I0403 15:01:28.272476 11515 net.cpp:148] Top shape: 24 160 14 14 (752640)
I0403 15:01:28.272491 11515 net.cpp:156] Memory required for data: 952225056
I0403 15:01:28.272506 11515 layer_factory.hpp:77] Creating layer inception_4b/3x3_reduce
I0403 15:01:28.272529 11515 net.cpp:91] Creating Layer inception_4b/3x3_reduce
I0403 15:01:28.272547 11515 net.cpp:425] inception_4b/3x3_reduce <- inception_4a/output_inception_4a/output_0_split_2
I0403 15:01:28.272565 11515 net.cpp:399] inception_4b/3x3_reduce -> inception_4b/3x3_reduce
I0403 15:01:28.273872 11515 net.cpp:141] Setting up inception_4b/3x3_reduce
I0403 15:01:28.273903 11515 net.cpp:148] Top shape: 24 112 14 14 (526848)
I0403 15:01:28.273921 11515 net.cpp:156] Memory required for data: 954332448
I0403 15:01:28.273938 11515 layer_factory.hpp:77] Creating layer inception_4b/relu_3x3_reduce
I0403 15:01:28.273955 11515 net.cpp:91] Creating Layer inception_4b/relu_3x3_reduce
I0403 15:01:28.273972 11515 net.cpp:425] inception_4b/relu_3x3_reduce <- inception_4b/3x3_reduce
I0403 15:01:28.273988 11515 net.cpp:386] inception_4b/relu_3x3_reduce -> inception_4b/3x3_reduce (in-place)
I0403 15:01:28.274263 11515 net.cpp:141] Setting up inception_4b/relu_3x3_reduce
I0403 15:01:28.274291 11515 net.cpp:148] Top shape: 24 112 14 14 (526848)
I0403 15:01:28.274307 11515 net.cpp:156] Memory required for data: 956439840
I0403 15:01:28.274322 11515 layer_factory.hpp:77] Creating layer inception_4b/3x3
I0403 15:01:28.274343 11515 net.cpp:91] Creating Layer inception_4b/3x3
I0403 15:01:28.274360 11515 net.cpp:425] inception_4b/3x3 <- inception_4b/3x3_reduce
I0403 15:01:28.274379 11515 net.cpp:399] inception_4b/3x3 -> inception_4b/3x3
I0403 15:01:28.277259 11515 net.cpp:141] Setting up inception_4b/3x3
I0403 15:01:28.277288 11515 net.cpp:148] Top shape: 24 224 14 14 (1053696)
I0403 15:01:28.277304 11515 net.cpp:156] Memory required for data: 960654624
I0403 15:01:28.277323 11515 layer_factory.hpp:77] Creating layer inception_4b/relu_3x3
I0403 15:01:28.277340 11515 net.cpp:91] Creating Layer inception_4b/relu_3x3
I0403 15:01:28.277359 11515 net.cpp:425] inception_4b/relu_3x3 <- inception_4b/3x3
I0403 15:01:28.277377 11515 net.cpp:386] inception_4b/relu_3x3 -> inception_4b/3x3 (in-place)
I0403 15:01:28.277556 11515 net.cpp:141] Setting up inception_4b/relu_3x3
I0403 15:01:28.277583 11515 net.cpp:148] Top shape: 24 224 14 14 (1053696)
I0403 15:01:28.277597 11515 net.cpp:156] Memory required for data: 964869408
I0403 15:01:28.277613 11515 layer_factory.hpp:77] Creating layer inception_4b/5x5_reduce
I0403 15:01:28.277636 11515 net.cpp:91] Creating Layer inception_4b/5x5_reduce
I0403 15:01:28.277652 11515 net.cpp:425] inception_4b/5x5_reduce <- inception_4a/output_inception_4a/output_0_split_3
I0403 15:01:28.277674 11515 net.cpp:399] inception_4b/5x5_reduce -> inception_4b/5x5_reduce
I0403 15:01:28.278719 11515 net.cpp:141] Setting up inception_4b/5x5_reduce
I0403 15:01:28.278748 11515 net.cpp:148] Top shape: 24 24 14 14 (112896)
I0403 15:01:28.278764 11515 net.cpp:156] Memory required for data: 965320992
I0403 15:01:28.278780 11515 layer_factory.hpp:77] Creating layer inception_4b/relu_5x5_reduce
I0403 15:01:28.278797 11515 net.cpp:91] Creating Layer inception_4b/relu_5x5_reduce
I0403 15:01:28.278827 11515 net.cpp:425] inception_4b/relu_5x5_reduce <- inception_4b/5x5_reduce
I0403 15:01:28.278846 11515 net.cpp:386] inception_4b/relu_5x5_reduce -> inception_4b/5x5_reduce (in-place)
I0403 15:01:28.279023 11515 net.cpp:141] Setting up inception_4b/relu_5x5_reduce
I0403 15:01:28.279049 11515 net.cpp:148] Top shape: 24 24 14 14 (112896)
I0403 15:01:28.279064 11515 net.cpp:156] Memory required for data: 965772576
I0403 15:01:28.279079 11515 layer_factory.hpp:77] Creating layer inception_4b/5x5
I0403 15:01:28.279101 11515 net.cpp:91] Creating Layer inception_4b/5x5
I0403 15:01:28.279119 11515 net.cpp:425] inception_4b/5x5 <- inception_4b/5x5_reduce
I0403 15:01:28.279135 11515 net.cpp:399] inception_4b/5x5 -> inception_4b/5x5
I0403 15:01:28.280319 11515 net.cpp:141] Setting up inception_4b/5x5
I0403 15:01:28.280347 11515 net.cpp:148] Top shape: 24 64 14 14 (301056)
I0403 15:01:28.280364 11515 net.cpp:156] Memory required for data: 966976800
I0403 15:01:28.280382 11515 layer_factory.hpp:77] Creating layer inception_4b/relu_5x5
I0403 15:01:28.280405 11515 net.cpp:91] Creating Layer inception_4b/relu_5x5
I0403 15:01:28.280426 11515 net.cpp:425] inception_4b/relu_5x5 <- inception_4b/5x5
I0403 15:01:28.280442 11515 net.cpp:386] inception_4b/relu_5x5 -> inception_4b/5x5 (in-place)
I0403 15:01:28.280719 11515 net.cpp:141] Setting up inception_4b/relu_5x5
I0403 15:01:28.280745 11515 net.cpp:148] Top shape: 24 64 14 14 (301056)
I0403 15:01:28.280760 11515 net.cpp:156] Memory required for data: 968181024
I0403 15:01:28.280773 11515 layer_factory.hpp:77] Creating layer inception_4b/pool
I0403 15:01:28.280793 11515 net.cpp:91] Creating Layer inception_4b/pool
I0403 15:01:28.280810 11515 net.cpp:425] inception_4b/pool <- inception_4a/output_inception_4a/output_0_split_4
I0403 15:01:28.280828 11515 net.cpp:399] inception_4b/pool -> inception_4b/pool
I0403 15:01:28.280889 11515 net.cpp:141] Setting up inception_4b/pool
I0403 15:01:28.280913 11515 net.cpp:148] Top shape: 24 512 14 14 (2408448)
I0403 15:01:28.280927 11515 net.cpp:156] Memory required for data: 977814816
I0403 15:01:28.280941 11515 layer_factory.hpp:77] Creating layer inception_4b/pool_proj
I0403 15:01:28.280962 11515 net.cpp:91] Creating Layer inception_4b/pool_proj
I0403 15:01:28.280979 11515 net.cpp:425] inception_4b/pool_proj <- inception_4b/pool
I0403 15:01:28.280999 11515 net.cpp:399] inception_4b/pool_proj -> inception_4b/pool_proj
I0403 15:01:28.282160 11515 net.cpp:141] Setting up inception_4b/pool_proj
I0403 15:01:28.282187 11515 net.cpp:148] Top shape: 24 64 14 14 (301056)
I0403 15:01:28.282203 11515 net.cpp:156] Memory required for data: 979019040
I0403 15:01:28.282222 11515 layer_factory.hpp:77] Creating layer inception_4b/relu_pool_proj
I0403 15:01:28.282241 11515 net.cpp:91] Creating Layer inception_4b/relu_pool_proj
I0403 15:01:28.282258 11515 net.cpp:425] inception_4b/relu_pool_proj <- inception_4b/pool_proj
I0403 15:01:28.282276 11515 net.cpp:386] inception_4b/relu_pool_proj -> inception_4b/pool_proj (in-place)
I0403 15:01:28.282464 11515 net.cpp:141] Setting up inception_4b/relu_pool_proj
I0403 15:01:28.282498 11515 net.cpp:148] Top shape: 24 64 14 14 (301056)
I0403 15:01:28.282526 11515 net.cpp:156] Memory required for data: 980223264
I0403 15:01:28.282542 11515 layer_factory.hpp:77] Creating layer inception_4b/output
I0403 15:01:28.282559 11515 net.cpp:91] Creating Layer inception_4b/output
I0403 15:01:28.282577 11515 net.cpp:425] inception_4b/output <- inception_4b/1x1
I0403 15:01:28.282594 11515 net.cpp:425] inception_4b/output <- inception_4b/3x3
I0403 15:01:28.282610 11515 net.cpp:425] inception_4b/output <- inception_4b/5x5
I0403 15:01:28.282625 11515 net.cpp:425] inception_4b/output <- inception_4b/pool_proj
I0403 15:01:28.282644 11515 net.cpp:399] inception_4b/output -> inception_4b/output
I0403 15:01:28.282690 11515 net.cpp:141] Setting up inception_4b/output
I0403 15:01:28.282717 11515 net.cpp:148] Top shape: 24 512 14 14 (2408448)
I0403 15:01:28.282733 11515 net.cpp:156] Memory required for data: 989857056
I0403 15:01:28.282763 11515 layer_factory.hpp:77] Creating layer inception_4b/output_inception_4b/output_0_split
I0403 15:01:28.282788 11515 net.cpp:91] Creating Layer inception_4b/output_inception_4b/output_0_split
I0403 15:01:28.282815 11515 net.cpp:425] inception_4b/output_inception_4b/output_0_split <- inception_4b/output
I0403 15:01:28.282832 11515 net.cpp:399] inception_4b/output_inception_4b/output_0_split -> inception_4b/output_inception_4b/output_0_split_0
I0403 15:01:28.282851 11515 net.cpp:399] inception_4b/output_inception_4b/output_0_split -> inception_4b/output_inception_4b/output_0_split_1
I0403 15:01:28.282871 11515 net.cpp:399] inception_4b/output_inception_4b/output_0_split -> inception_4b/output_inception_4b/output_0_split_2
I0403 15:01:28.282893 11515 net.cpp:399] inception_4b/output_inception_4b/output_0_split -> inception_4b/output_inception_4b/output_0_split_3
I0403 15:01:28.282989 11515 net.cpp:141] Setting up inception_4b/output_inception_4b/output_0_split
I0403 15:01:28.283012 11515 net.cpp:148] Top shape: 24 512 14 14 (2408448)
I0403 15:01:28.283028 11515 net.cpp:148] Top shape: 24 512 14 14 (2408448)
I0403 15:01:28.283044 11515 net.cpp:148] Top shape: 24 512 14 14 (2408448)
I0403 15:01:28.283059 11515 net.cpp:148] Top shape: 24 512 14 14 (2408448)
I0403 15:01:28.283073 11515 net.cpp:156] Memory required for data: 1028392224
I0403 15:01:28.283087 11515 layer_factory.hpp:77] Creating layer inception_4c/1x1
I0403 15:01:28.283109 11515 net.cpp:91] Creating Layer inception_4c/1x1
I0403 15:01:28.283128 11515 net.cpp:425] inception_4c/1x1 <- inception_4b/output_inception_4b/output_0_split_0
I0403 15:01:28.283148 11515 net.cpp:399] inception_4c/1x1 -> inception_4c/1x1
I0403 15:01:28.284612 11515 net.cpp:141] Setting up inception_4c/1x1
I0403 15:01:28.284654 11515 net.cpp:148] Top shape: 24 128 14 14 (602112)
I0403 15:01:28.284672 11515 net.cpp:156] Memory required for data: 1030800672
I0403 15:01:28.284690 11515 layer_factory.hpp:77] Creating layer inception_4c/relu_1x1
I0403 15:01:28.284708 11515 net.cpp:91] Creating Layer inception_4c/relu_1x1
I0403 15:01:28.284725 11515 net.cpp:425] inception_4c/relu_1x1 <- inception_4c/1x1
I0403 15:01:28.284744 11515 net.cpp:386] inception_4c/relu_1x1 -> inception_4c/1x1 (in-place)
I0403 15:01:28.284927 11515 net.cpp:141] Setting up inception_4c/relu_1x1
I0403 15:01:28.284953 11515 net.cpp:148] Top shape: 24 128 14 14 (602112)
I0403 15:01:28.284970 11515 net.cpp:156] Memory required for data: 1033209120
I0403 15:01:28.284986 11515 layer_factory.hpp:77] Creating layer inception_4c/3x3_reduce
I0403 15:01:28.285009 11515 net.cpp:91] Creating Layer inception_4c/3x3_reduce
I0403 15:01:28.285028 11515 net.cpp:425] inception_4c/3x3_reduce <- inception_4b/output_inception_4b/output_0_split_1
I0403 15:01:28.285051 11515 net.cpp:399] inception_4c/3x3_reduce -> inception_4c/3x3_reduce
I0403 15:01:28.287003 11515 net.cpp:141] Setting up inception_4c/3x3_reduce
I0403 15:01:28.287032 11515 net.cpp:148] Top shape: 24 128 14 14 (602112)
I0403 15:01:28.287047 11515 net.cpp:156] Memory required for data: 1035617568
I0403 15:01:28.287065 11515 layer_factory.hpp:77] Creating layer inception_4c/relu_3x3_reduce
I0403 15:01:28.287086 11515 net.cpp:91] Creating Layer inception_4c/relu_3x3_reduce
I0403 15:01:28.287103 11515 net.cpp:425] inception_4c/relu_3x3_reduce <- inception_4c/3x3_reduce
I0403 15:01:28.287122 11515 net.cpp:386] inception_4c/relu_3x3_reduce -> inception_4c/3x3_reduce (in-place)
I0403 15:01:28.287405 11515 net.cpp:141] Setting up inception_4c/relu_3x3_reduce
I0403 15:01:28.287436 11515 net.cpp:148] Top shape: 24 128 14 14 (602112)
I0403 15:01:28.287451 11515 net.cpp:156] Memory required for data: 1038026016
I0403 15:01:28.287466 11515 layer_factory.hpp:77] Creating layer inception_4c/3x3
I0403 15:01:28.287488 11515 net.cpp:91] Creating Layer inception_4c/3x3
I0403 15:01:28.287506 11515 net.cpp:425] inception_4c/3x3 <- inception_4c/3x3_reduce
I0403 15:01:28.287528 11515 net.cpp:399] inception_4c/3x3 -> inception_4c/3x3
I0403 15:01:28.291123 11515 net.cpp:141] Setting up inception_4c/3x3
I0403 15:01:28.291167 11515 net.cpp:148] Top shape: 24 256 14 14 (1204224)
I0403 15:01:28.291184 11515 net.cpp:156] Memory required for data: 1042842912
I0403 15:01:28.291218 11515 layer_factory.hpp:77] Creating layer inception_4c/relu_3x3
I0403 15:01:28.291241 11515 net.cpp:91] Creating Layer inception_4c/relu_3x3
I0403 15:01:28.291259 11515 net.cpp:425] inception_4c/relu_3x3 <- inception_4c/3x3
I0403 15:01:28.291276 11515 net.cpp:386] inception_4c/relu_3x3 -> inception_4c/3x3 (in-place)
I0403 15:01:28.291463 11515 net.cpp:141] Setting up inception_4c/relu_3x3
I0403 15:01:28.291491 11515 net.cpp:148] Top shape: 24 256 14 14 (1204224)
I0403 15:01:28.291508 11515 net.cpp:156] Memory required for data: 1047659808
I0403 15:01:28.291524 11515 layer_factory.hpp:77] Creating layer inception_4c/5x5_reduce
I0403 15:01:28.291544 11515 net.cpp:91] Creating Layer inception_4c/5x5_reduce
I0403 15:01:28.291563 11515 net.cpp:425] inception_4c/5x5_reduce <- inception_4b/output_inception_4b/output_0_split_2
I0403 15:01:28.291586 11515 net.cpp:399] inception_4c/5x5_reduce -> inception_4c/5x5_reduce
I0403 15:01:28.292673 11515 net.cpp:141] Setting up inception_4c/5x5_reduce
I0403 15:01:28.292702 11515 net.cpp:148] Top shape: 24 24 14 14 (112896)
I0403 15:01:28.292717 11515 net.cpp:156] Memory required for data: 1048111392
I0403 15:01:28.292735 11515 layer_factory.hpp:77] Creating layer inception_4c/relu_5x5_reduce
I0403 15:01:28.292757 11515 net.cpp:91] Creating Layer inception_4c/relu_5x5_reduce
I0403 15:01:28.292775 11515 net.cpp:425] inception_4c/relu_5x5_reduce <- inception_4c/5x5_reduce
I0403 15:01:28.292793 11515 net.cpp:386] inception_4c/relu_5x5_reduce -> inception_4c/5x5_reduce (in-place)
I0403 15:01:28.292994 11515 net.cpp:141] Setting up inception_4c/relu_5x5_reduce
I0403 15:01:28.293022 11515 net.cpp:148] Top shape: 24 24 14 14 (112896)
I0403 15:01:28.293040 11515 net.cpp:156] Memory required for data: 1048562976
I0403 15:01:28.293054 11515 layer_factory.hpp:77] Creating layer inception_4c/5x5
I0403 15:01:28.293078 11515 net.cpp:91] Creating Layer inception_4c/5x5
I0403 15:01:28.293109 11515 net.cpp:425] inception_4c/5x5 <- inception_4c/5x5_reduce
I0403 15:01:28.293128 11515 net.cpp:399] inception_4c/5x5 -> inception_4c/5x5
I0403 15:01:28.294373 11515 net.cpp:141] Setting up inception_4c/5x5
I0403 15:01:28.294404 11515 net.cpp:148] Top shape: 24 64 14 14 (301056)
I0403 15:01:28.294425 11515 net.cpp:156] Memory required for data: 1049767200
I0403 15:01:28.294443 11515 layer_factory.hpp:77] Creating layer inception_4c/relu_5x5
I0403 15:01:28.294462 11515 net.cpp:91] Creating Layer inception_4c/relu_5x5
I0403 15:01:28.294479 11515 net.cpp:425] inception_4c/relu_5x5 <- inception_4c/5x5
I0403 15:01:28.294500 11515 net.cpp:386] inception_4c/relu_5x5 -> inception_4c/5x5 (in-place)
I0403 15:01:28.294792 11515 net.cpp:141] Setting up inception_4c/relu_5x5
I0403 15:01:28.294818 11515 net.cpp:148] Top shape: 24 64 14 14 (301056)
I0403 15:01:28.294833 11515 net.cpp:156] Memory required for data: 1050971424
I0403 15:01:28.294848 11515 layer_factory.hpp:77] Creating layer inception_4c/pool
I0403 15:01:28.294865 11515 net.cpp:91] Creating Layer inception_4c/pool
I0403 15:01:28.294881 11515 net.cpp:425] inception_4c/pool <- inception_4b/output_inception_4b/output_0_split_3
I0403 15:01:28.294901 11515 net.cpp:399] inception_4c/pool -> inception_4c/pool
I0403 15:01:28.294966 11515 net.cpp:141] Setting up inception_4c/pool
I0403 15:01:28.294991 11515 net.cpp:148] Top shape: 24 512 14 14 (2408448)
I0403 15:01:28.295004 11515 net.cpp:156] Memory required for data: 1060605216
I0403 15:01:28.295018 11515 layer_factory.hpp:77] Creating layer inception_4c/pool_proj
I0403 15:01:28.295042 11515 net.cpp:91] Creating Layer inception_4c/pool_proj
I0403 15:01:28.295059 11515 net.cpp:425] inception_4c/pool_proj <- inception_4c/pool
I0403 15:01:28.295078 11515 net.cpp:399] inception_4c/pool_proj -> inception_4c/pool_proj
I0403 15:01:28.296327 11515 net.cpp:141] Setting up inception_4c/pool_proj
I0403 15:01:28.296356 11515 net.cpp:148] Top shape: 24 64 14 14 (301056)
I0403 15:01:28.296387 11515 net.cpp:156] Memory required for data: 1061809440
I0403 15:01:28.296407 11515 layer_factory.hpp:77] Creating layer inception_4c/relu_pool_proj
I0403 15:01:28.296434 11515 net.cpp:91] Creating Layer inception_4c/relu_pool_proj
I0403 15:01:28.296452 11515 net.cpp:425] inception_4c/relu_pool_proj <- inception_4c/pool_proj
I0403 15:01:28.296469 11515 net.cpp:386] inception_4c/relu_pool_proj -> inception_4c/pool_proj (in-place)
I0403 15:01:28.296653 11515 net.cpp:141] Setting up inception_4c/relu_pool_proj
I0403 15:01:28.296680 11515 net.cpp:148] Top shape: 24 64 14 14 (301056)
I0403 15:01:28.296695 11515 net.cpp:156] Memory required for data: 1063013664
I0403 15:01:28.296711 11515 layer_factory.hpp:77] Creating layer inception_4c/output
I0403 15:01:28.296728 11515 net.cpp:91] Creating Layer inception_4c/output
I0403 15:01:28.296743 11515 net.cpp:425] inception_4c/output <- inception_4c/1x1
I0403 15:01:28.296759 11515 net.cpp:425] inception_4c/output <- inception_4c/3x3
I0403 15:01:28.296774 11515 net.cpp:425] inception_4c/output <- inception_4c/5x5
I0403 15:01:28.296790 11515 net.cpp:425] inception_4c/output <- inception_4c/pool_proj
I0403 15:01:28.296807 11515 net.cpp:399] inception_4c/output -> inception_4c/output
I0403 15:01:28.296854 11515 net.cpp:141] Setting up inception_4c/output
I0403 15:01:28.296877 11515 net.cpp:148] Top shape: 24 512 14 14 (2408448)
I0403 15:01:28.296891 11515 net.cpp:156] Memory required for data: 1072647456
I0403 15:01:28.296905 11515 layer_factory.hpp:77] Creating layer inception_4c/output_inception_4c/output_0_split
I0403 15:01:28.296924 11515 net.cpp:91] Creating Layer inception_4c/output_inception_4c/output_0_split
I0403 15:01:28.296941 11515 net.cpp:425] inception_4c/output_inception_4c/output_0_split <- inception_4c/output
I0403 15:01:28.296958 11515 net.cpp:399] inception_4c/output_inception_4c/output_0_split -> inception_4c/output_inception_4c/output_0_split_0
I0403 15:01:28.296978 11515 net.cpp:399] inception_4c/output_inception_4c/output_0_split -> inception_4c/output_inception_4c/output_0_split_1
I0403 15:01:28.296998 11515 net.cpp:399] inception_4c/output_inception_4c/output_0_split -> inception_4c/output_inception_4c/output_0_split_2
I0403 15:01:28.297019 11515 net.cpp:399] inception_4c/output_inception_4c/output_0_split -> inception_4c/output_inception_4c/output_0_split_3
I0403 15:01:28.297106 11515 net.cpp:141] Setting up inception_4c/output_inception_4c/output_0_split
I0403 15:01:28.297129 11515 net.cpp:148] Top shape: 24 512 14 14 (2408448)
I0403 15:01:28.297145 11515 net.cpp:148] Top shape: 24 512 14 14 (2408448)
I0403 15:01:28.297160 11515 net.cpp:148] Top shape: 24 512 14 14 (2408448)
I0403 15:01:28.297174 11515 net.cpp:148] Top shape: 24 512 14 14 (2408448)
I0403 15:01:28.297188 11515 net.cpp:156] Memory required for data: 1111182624
I0403 15:01:28.297202 11515 layer_factory.hpp:77] Creating layer inception_4d/1x1
I0403 15:01:28.297225 11515 net.cpp:91] Creating Layer inception_4d/1x1
I0403 15:01:28.297243 11515 net.cpp:425] inception_4d/1x1 <- inception_4c/output_inception_4c/output_0_split_0
I0403 15:01:28.297263 11515 net.cpp:399] inception_4d/1x1 -> inception_4d/1x1
I0403 15:01:28.298660 11515 net.cpp:141] Setting up inception_4d/1x1
I0403 15:01:28.298689 11515 net.cpp:148] Top shape: 24 112 14 14 (526848)
I0403 15:01:28.298705 11515 net.cpp:156] Memory required for data: 1113290016
I0403 15:01:28.298723 11515 layer_factory.hpp:77] Creating layer inception_4d/relu_1x1
I0403 15:01:28.298741 11515 net.cpp:91] Creating Layer inception_4d/relu_1x1
I0403 15:01:28.298759 11515 net.cpp:425] inception_4d/relu_1x1 <- inception_4d/1x1
I0403 15:01:28.298780 11515 net.cpp:386] inception_4d/relu_1x1 -> inception_4d/1x1 (in-place)
I0403 15:01:28.298965 11515 net.cpp:141] Setting up inception_4d/relu_1x1
I0403 15:01:28.298992 11515 net.cpp:148] Top shape: 24 112 14 14 (526848)
I0403 15:01:28.299007 11515 net.cpp:156] Memory required for data: 1115397408
I0403 15:01:28.299021 11515 layer_factory.hpp:77] Creating layer inception_4d/3x3_reduce
I0403 15:01:28.299059 11515 net.cpp:91] Creating Layer inception_4d/3x3_reduce
I0403 15:01:28.299077 11515 net.cpp:425] inception_4d/3x3_reduce <- inception_4c/output_inception_4c/output_0_split_1
I0403 15:01:28.299099 11515 net.cpp:399] inception_4d/3x3_reduce -> inception_4d/3x3_reduce
I0403 15:01:28.300637 11515 net.cpp:141] Setting up inception_4d/3x3_reduce
I0403 15:01:28.300668 11515 net.cpp:148] Top shape: 24 144 14 14 (677376)
I0403 15:01:28.300684 11515 net.cpp:156] Memory required for data: 1118106912
I0403 15:01:28.300703 11515 layer_factory.hpp:77] Creating layer inception_4d/relu_3x3_reduce
I0403 15:01:28.300720 11515 net.cpp:91] Creating Layer inception_4d/relu_3x3_reduce
I0403 15:01:28.300736 11515 net.cpp:425] inception_4d/relu_3x3_reduce <- inception_4d/3x3_reduce
I0403 15:01:28.300756 11515 net.cpp:386] inception_4d/relu_3x3_reduce -> inception_4d/3x3_reduce (in-place)
I0403 15:01:28.301048 11515 net.cpp:141] Setting up inception_4d/relu_3x3_reduce
I0403 15:01:28.301076 11515 net.cpp:148] Top shape: 24 144 14 14 (677376)
I0403 15:01:28.301092 11515 net.cpp:156] Memory required for data: 1120816416
I0403 15:01:28.301107 11515 layer_factory.hpp:77] Creating layer inception_4d/3x3
I0403 15:01:28.301129 11515 net.cpp:91] Creating Layer inception_4d/3x3
I0403 15:01:28.301147 11515 net.cpp:425] inception_4d/3x3 <- inception_4d/3x3_reduce
I0403 15:01:28.301168 11515 net.cpp:399] inception_4d/3x3 -> inception_4d/3x3
I0403 15:01:28.305445 11515 net.cpp:141] Setting up inception_4d/3x3
I0403 15:01:28.305476 11515 net.cpp:148] Top shape: 24 288 14 14 (1354752)
I0403 15:01:28.305493 11515 net.cpp:156] Memory required for data: 1126235424
I0403 15:01:28.305512 11515 layer_factory.hpp:77] Creating layer inception_4d/relu_3x3
I0403 15:01:28.305533 11515 net.cpp:91] Creating Layer inception_4d/relu_3x3
I0403 15:01:28.305552 11515 net.cpp:425] inception_4d/relu_3x3 <- inception_4d/3x3
I0403 15:01:28.305570 11515 net.cpp:386] inception_4d/relu_3x3 -> inception_4d/3x3 (in-place)
I0403 15:01:28.305757 11515 net.cpp:141] Setting up inception_4d/relu_3x3
I0403 15:01:28.305783 11515 net.cpp:148] Top shape: 24 288 14 14 (1354752)
I0403 15:01:28.305799 11515 net.cpp:156] Memory required for data: 1131654432
I0403 15:01:28.305814 11515 layer_factory.hpp:77] Creating layer inception_4d/5x5_reduce
I0403 15:01:28.305837 11515 net.cpp:91] Creating Layer inception_4d/5x5_reduce
I0403 15:01:28.305855 11515 net.cpp:425] inception_4d/5x5_reduce <- inception_4c/output_inception_4c/output_0_split_2
I0403 15:01:28.305874 11515 net.cpp:399] inception_4d/5x5_reduce -> inception_4d/5x5_reduce
I0403 15:01:28.307025 11515 net.cpp:141] Setting up inception_4d/5x5_reduce
I0403 15:01:28.307054 11515 net.cpp:148] Top shape: 24 32 14 14 (150528)
I0403 15:01:28.307071 11515 net.cpp:156] Memory required for data: 1132256544
I0403 15:01:28.307090 11515 layer_factory.hpp:77] Creating layer inception_4d/relu_5x5_reduce
I0403 15:01:28.307111 11515 net.cpp:91] Creating Layer inception_4d/relu_5x5_reduce
I0403 15:01:28.307131 11515 net.cpp:425] inception_4d/relu_5x5_reduce <- inception_4d/5x5_reduce
I0403 15:01:28.307147 11515 net.cpp:386] inception_4d/relu_5x5_reduce -> inception_4d/5x5_reduce (in-place)
I0403 15:01:28.307337 11515 net.cpp:141] Setting up inception_4d/relu_5x5_reduce
I0403 15:01:28.307366 11515 net.cpp:148] Top shape: 24 32 14 14 (150528)
I0403 15:01:28.307384 11515 net.cpp:156] Memory required for data: 1132858656
I0403 15:01:28.307399 11515 layer_factory.hpp:77] Creating layer inception_4d/5x5
I0403 15:01:28.307423 11515 net.cpp:91] Creating Layer inception_4d/5x5
I0403 15:01:28.307443 11515 net.cpp:425] inception_4d/5x5 <- inception_4d/5x5_reduce
I0403 15:01:28.307464 11515 net.cpp:399] inception_4d/5x5 -> inception_4d/5x5
I0403 15:01:28.309108 11515 net.cpp:141] Setting up inception_4d/5x5
I0403 15:01:28.309139 11515 net.cpp:148] Top shape: 24 64 14 14 (301056)
I0403 15:01:28.309156 11515 net.cpp:156] Memory required for data: 1134062880
I0403 15:01:28.309176 11515 layer_factory.hpp:77] Creating layer inception_4d/relu_5x5
I0403 15:01:28.309211 11515 net.cpp:91] Creating Layer inception_4d/relu_5x5
I0403 15:01:28.309231 11515 net.cpp:425] inception_4d/relu_5x5 <- inception_4d/5x5
I0403 15:01:28.309248 11515 net.cpp:386] inception_4d/relu_5x5 -> inception_4d/5x5 (in-place)
I0403 15:01:28.309558 11515 net.cpp:141] Setting up inception_4d/relu_5x5
I0403 15:01:28.309588 11515 net.cpp:148] Top shape: 24 64 14 14 (301056)
I0403 15:01:28.309607 11515 net.cpp:156] Memory required for data: 1135267104
I0403 15:01:28.309623 11515 layer_factory.hpp:77] Creating layer inception_4d/pool
I0403 15:01:28.309640 11515 net.cpp:91] Creating Layer inception_4d/pool
I0403 15:01:28.309656 11515 net.cpp:425] inception_4d/pool <- inception_4c/output_inception_4c/output_0_split_3
I0403 15:01:28.309674 11515 net.cpp:399] inception_4d/pool -> inception_4d/pool
I0403 15:01:28.309741 11515 net.cpp:141] Setting up inception_4d/pool
I0403 15:01:28.309765 11515 net.cpp:148] Top shape: 24 512 14 14 (2408448)
I0403 15:01:28.309779 11515 net.cpp:156] Memory required for data: 1144900896
I0403 15:01:28.309793 11515 layer_factory.hpp:77] Creating layer inception_4d/pool_proj
I0403 15:01:28.309815 11515 net.cpp:91] Creating Layer inception_4d/pool_proj
I0403 15:01:28.309834 11515 net.cpp:425] inception_4d/pool_proj <- inception_4d/pool
I0403 15:01:28.309854 11515 net.cpp:399] inception_4d/pool_proj -> inception_4d/pool_proj
I0403 15:01:28.311658 11515 net.cpp:141] Setting up inception_4d/pool_proj
I0403 15:01:28.311688 11515 net.cpp:148] Top shape: 24 64 14 14 (301056)
I0403 15:01:28.311703 11515 net.cpp:156] Memory required for data: 1146105120
I0403 15:01:28.311722 11515 layer_factory.hpp:77] Creating layer inception_4d/relu_pool_proj
I0403 15:01:28.311741 11515 net.cpp:91] Creating Layer inception_4d/relu_pool_proj
I0403 15:01:28.311759 11515 net.cpp:425] inception_4d/relu_pool_proj <- inception_4d/pool_proj
I0403 15:01:28.311776 11515 net.cpp:386] inception_4d/relu_pool_proj -> inception_4d/pool_proj (in-place)
I0403 15:01:28.311964 11515 net.cpp:141] Setting up inception_4d/relu_pool_proj
I0403 15:01:28.311988 11515 net.cpp:148] Top shape: 24 64 14 14 (301056)
I0403 15:01:28.312003 11515 net.cpp:156] Memory required for data: 1147309344
I0403 15:01:28.312017 11515 layer_factory.hpp:77] Creating layer inception_4d/output
I0403 15:01:28.312038 11515 net.cpp:91] Creating Layer inception_4d/output
I0403 15:01:28.312055 11515 net.cpp:425] inception_4d/output <- inception_4d/1x1
I0403 15:01:28.312072 11515 net.cpp:425] inception_4d/output <- inception_4d/3x3
I0403 15:01:28.312088 11515 net.cpp:425] inception_4d/output <- inception_4d/5x5
I0403 15:01:28.312104 11515 net.cpp:425] inception_4d/output <- inception_4d/pool_proj
I0403 15:01:28.312120 11515 net.cpp:399] inception_4d/output -> inception_4d/output
I0403 15:01:28.312171 11515 net.cpp:141] Setting up inception_4d/output
I0403 15:01:28.312194 11515 net.cpp:148] Top shape: 24 528 14 14 (2483712)
I0403 15:01:28.312209 11515 net.cpp:156] Memory required for data: 1157244192
I0403 15:01:28.312224 11515 layer_factory.hpp:77] Creating layer inception_4d/output_inception_4d/output_0_split
I0403 15:01:28.312242 11515 net.cpp:91] Creating Layer inception_4d/output_inception_4d/output_0_split
I0403 15:01:28.312258 11515 net.cpp:425] inception_4d/output_inception_4d/output_0_split <- inception_4d/output
I0403 15:01:28.312278 11515 net.cpp:399] inception_4d/output_inception_4d/output_0_split -> inception_4d/output_inception_4d/output_0_split_0
I0403 15:01:28.312299 11515 net.cpp:399] inception_4d/output_inception_4d/output_0_split -> inception_4d/output_inception_4d/output_0_split_1
I0403 15:01:28.312320 11515 net.cpp:399] inception_4d/output_inception_4d/output_0_split -> inception_4d/output_inception_4d/output_0_split_2
I0403 15:01:28.312345 11515 net.cpp:399] inception_4d/output_inception_4d/output_0_split -> inception_4d/output_inception_4d/output_0_split_3
I0403 15:01:28.312367 11515 net.cpp:399] inception_4d/output_inception_4d/output_0_split -> inception_4d/output_inception_4d/output_0_split_4
I0403 15:01:28.312474 11515 net.cpp:141] Setting up inception_4d/output_inception_4d/output_0_split
I0403 15:01:28.312510 11515 net.cpp:148] Top shape: 24 528 14 14 (2483712)
I0403 15:01:28.312527 11515 net.cpp:148] Top shape: 24 528 14 14 (2483712)
I0403 15:01:28.312543 11515 net.cpp:148] Top shape: 24 528 14 14 (2483712)
I0403 15:01:28.312558 11515 net.cpp:148] Top shape: 24 528 14 14 (2483712)
I0403 15:01:28.312573 11515 net.cpp:148] Top shape: 24 528 14 14 (2483712)
I0403 15:01:28.312587 11515 net.cpp:156] Memory required for data: 1206918432
I0403 15:01:28.312600 11515 layer_factory.hpp:77] Creating layer loss2/ave_pool
I0403 15:01:28.312618 11515 net.cpp:91] Creating Layer loss2/ave_pool
I0403 15:01:28.312634 11515 net.cpp:425] loss2/ave_pool <- inception_4d/output_inception_4d/output_0_split_0
I0403 15:01:28.312655 11515 net.cpp:399] loss2/ave_pool -> loss2/ave_pool
I0403 15:01:28.312994 11515 net.cpp:141] Setting up loss2/ave_pool
I0403 15:01:28.313031 11515 net.cpp:148] Top shape: 24 528 4 4 (202752)
I0403 15:01:28.313046 11515 net.cpp:156] Memory required for data: 1207729440
I0403 15:01:28.313061 11515 layer_factory.hpp:77] Creating layer loss2/conv
I0403 15:01:28.313084 11515 net.cpp:91] Creating Layer loss2/conv
I0403 15:01:28.313102 11515 net.cpp:425] loss2/conv <- loss2/ave_pool
I0403 15:01:28.313123 11515 net.cpp:399] loss2/conv -> loss2/conv
I0403 15:01:28.315047 11515 net.cpp:141] Setting up loss2/conv
I0403 15:01:28.315079 11515 net.cpp:148] Top shape: 24 128 4 4 (49152)
I0403 15:01:28.315099 11515 net.cpp:156] Memory required for data: 1207926048
I0403 15:01:28.315119 11515 layer_factory.hpp:77] Creating layer loss2/relu_conv
I0403 15:01:28.315136 11515 net.cpp:91] Creating Layer loss2/relu_conv
I0403 15:01:28.315155 11515 net.cpp:425] loss2/relu_conv <- loss2/conv
I0403 15:01:28.315176 11515 net.cpp:386] loss2/relu_conv -> loss2/conv (in-place)
I0403 15:01:28.315472 11515 net.cpp:141] Setting up loss2/relu_conv
I0403 15:01:28.315502 11515 net.cpp:148] Top shape: 24 128 4 4 (49152)
I0403 15:01:28.315520 11515 net.cpp:156] Memory required for data: 1208122656
I0403 15:01:28.315536 11515 layer_factory.hpp:77] Creating layer loss2/fc
I0403 15:01:28.315556 11515 net.cpp:91] Creating Layer loss2/fc
I0403 15:01:28.315572 11515 net.cpp:425] loss2/fc <- loss2/conv
I0403 15:01:28.315594 11515 net.cpp:399] loss2/fc -> loss2/fc
I0403 15:01:28.333060 11515 net.cpp:141] Setting up loss2/fc
I0403 15:01:28.333091 11515 net.cpp:148] Top shape: 24 1024 (24576)
I0403 15:01:28.333107 11515 net.cpp:156] Memory required for data: 1208220960
I0403 15:01:28.333127 11515 layer_factory.hpp:77] Creating layer loss2/relu_fc
I0403 15:01:28.333150 11515 net.cpp:91] Creating Layer loss2/relu_fc
I0403 15:01:28.333168 11515 net.cpp:425] loss2/relu_fc <- loss2/fc
I0403 15:01:28.333187 11515 net.cpp:386] loss2/relu_fc -> loss2/fc (in-place)
I0403 15:01:28.333506 11515 net.cpp:141] Setting up loss2/relu_fc
I0403 15:01:28.333534 11515 net.cpp:148] Top shape: 24 1024 (24576)
I0403 15:01:28.333549 11515 net.cpp:156] Memory required for data: 1208319264
I0403 15:01:28.333565 11515 layer_factory.hpp:77] Creating layer loss2/drop_fc
I0403 15:01:28.333586 11515 net.cpp:91] Creating Layer loss2/drop_fc
I0403 15:01:28.333605 11515 net.cpp:425] loss2/drop_fc <- loss2/fc
I0403 15:01:28.333622 11515 net.cpp:386] loss2/drop_fc -> loss2/fc (in-place)
I0403 15:01:28.333673 11515 net.cpp:141] Setting up loss2/drop_fc
I0403 15:01:28.333695 11515 net.cpp:148] Top shape: 24 1024 (24576)
I0403 15:01:28.333709 11515 net.cpp:156] Memory required for data: 1208417568
I0403 15:01:28.333724 11515 layer_factory.hpp:77] Creating layer loss2/classifier_plantvillage
I0403 15:01:28.333742 11515 net.cpp:91] Creating Layer loss2/classifier_plantvillage
I0403 15:01:28.333757 11515 net.cpp:425] loss2/classifier_plantvillage <- loss2/fc
I0403 15:01:28.333780 11515 net.cpp:399] loss2/classifier_plantvillage -> loss2/classifier_plantvillage
I0403 15:01:28.334178 11515 net.cpp:141] Setting up loss2/classifier_plantvillage
I0403 15:01:28.334203 11515 net.cpp:148] Top shape: 24 38 (912)
I0403 15:01:28.334233 11515 net.cpp:156] Memory required for data: 1208421216
I0403 15:01:28.334251 11515 layer_factory.hpp:77] Creating layer loss2/classifier_plantvillage_loss2/classifier_plantvillage_0_split
I0403 15:01:28.334269 11515 net.cpp:91] Creating Layer loss2/classifier_plantvillage_loss2/classifier_plantvillage_0_split
I0403 15:01:28.334285 11515 net.cpp:425] loss2/classifier_plantvillage_loss2/classifier_plantvillage_0_split <- loss2/classifier_plantvillage
I0403 15:01:28.334303 11515 net.cpp:399] loss2/classifier_plantvillage_loss2/classifier_plantvillage_0_split -> loss2/classifier_plantvillage_loss2/classifier_plantvillage_0_split_0
I0403 15:01:28.334324 11515 net.cpp:399] loss2/classifier_plantvillage_loss2/classifier_plantvillage_0_split -> loss2/classifier_plantvillage_loss2/classifier_plantvillage_0_split_1
I0403 15:01:28.334344 11515 net.cpp:399] loss2/classifier_plantvillage_loss2/classifier_plantvillage_0_split -> loss2/classifier_plantvillage_loss2/classifier_plantvillage_0_split_2
I0403 15:01:28.334424 11515 net.cpp:141] Setting up loss2/classifier_plantvillage_loss2/classifier_plantvillage_0_split
I0403 15:01:28.334449 11515 net.cpp:148] Top shape: 24 38 (912)
I0403 15:01:28.334463 11515 net.cpp:148] Top shape: 24 38 (912)
I0403 15:01:28.334478 11515 net.cpp:148] Top shape: 24 38 (912)
I0403 15:01:28.334491 11515 net.cpp:156] Memory required for data: 1208432160
I0403 15:01:28.334506 11515 layer_factory.hpp:77] Creating layer inception_4e/1x1
I0403 15:01:28.334527 11515 net.cpp:91] Creating Layer inception_4e/1x1
I0403 15:01:28.334545 11515 net.cpp:425] inception_4e/1x1 <- inception_4d/output_inception_4d/output_0_split_1
I0403 15:01:28.334563 11515 net.cpp:399] inception_4e/1x1 -> inception_4e/1x1
I0403 15:01:28.336349 11515 net.cpp:141] Setting up inception_4e/1x1
I0403 15:01:28.336380 11515 net.cpp:148] Top shape: 24 256 14 14 (1204224)
I0403 15:01:28.336396 11515 net.cpp:156] Memory required for data: 1213249056
I0403 15:01:28.336418 11515 layer_factory.hpp:77] Creating layer inception_4e/relu_1x1
I0403 15:01:28.336438 11515 net.cpp:91] Creating Layer inception_4e/relu_1x1
I0403 15:01:28.336454 11515 net.cpp:425] inception_4e/relu_1x1 <- inception_4e/1x1
I0403 15:01:28.336473 11515 net.cpp:386] inception_4e/relu_1x1 -> inception_4e/1x1 (in-place)
I0403 15:01:28.336763 11515 net.cpp:141] Setting up inception_4e/relu_1x1
I0403 15:01:28.336792 11515 net.cpp:148] Top shape: 24 256 14 14 (1204224)
I0403 15:01:28.336808 11515 net.cpp:156] Memory required for data: 1218065952
I0403 15:01:28.336824 11515 layer_factory.hpp:77] Creating layer inception_4e/3x3_reduce
I0403 15:01:28.336846 11515 net.cpp:91] Creating Layer inception_4e/3x3_reduce
I0403 15:01:28.336864 11515 net.cpp:425] inception_4e/3x3_reduce <- inception_4d/output_inception_4d/output_0_split_2
I0403 15:01:28.336884 11515 net.cpp:399] inception_4e/3x3_reduce -> inception_4e/3x3_reduce
I0403 15:01:28.338959 11515 net.cpp:141] Setting up inception_4e/3x3_reduce
I0403 15:01:28.338987 11515 net.cpp:148] Top shape: 24 160 14 14 (752640)
I0403 15:01:28.339001 11515 net.cpp:156] Memory required for data: 1221076512
I0403 15:01:28.339020 11515 layer_factory.hpp:77] Creating layer inception_4e/relu_3x3_reduce
I0403 15:01:28.339040 11515 net.cpp:91] Creating Layer inception_4e/relu_3x3_reduce
I0403 15:01:28.339056 11515 net.cpp:425] inception_4e/relu_3x3_reduce <- inception_4e/3x3_reduce
I0403 15:01:28.339085 11515 net.cpp:386] inception_4e/relu_3x3_reduce -> inception_4e/3x3_reduce (in-place)
I0403 15:01:28.339277 11515 net.cpp:141] Setting up inception_4e/relu_3x3_reduce
I0403 15:01:28.339301 11515 net.cpp:148] Top shape: 24 160 14 14 (752640)
I0403 15:01:28.339316 11515 net.cpp:156] Memory required for data: 1224087072
I0403 15:01:28.339330 11515 layer_factory.hpp:77] Creating layer inception_4e/3x3
I0403 15:01:28.339352 11515 net.cpp:91] Creating Layer inception_4e/3x3
I0403 15:01:28.339381 11515 net.cpp:425] inception_4e/3x3 <- inception_4e/3x3_reduce
I0403 15:01:28.339416 11515 net.cpp:399] inception_4e/3x3 -> inception_4e/3x3
I0403 15:01:28.344403 11515 net.cpp:141] Setting up inception_4e/3x3
I0403 15:01:28.344449 11515 net.cpp:148] Top shape: 24 320 14 14 (1505280)
I0403 15:01:28.344465 11515 net.cpp:156] Memory required for data: 1230108192
I0403 15:01:28.344483 11515 layer_factory.hpp:77] Creating layer inception_4e/relu_3x3
I0403 15:01:28.344502 11515 net.cpp:91] Creating Layer inception_4e/relu_3x3
I0403 15:01:28.344518 11515 net.cpp:425] inception_4e/relu_3x3 <- inception_4e/3x3
I0403 15:01:28.344538 11515 net.cpp:386] inception_4e/relu_3x3 -> inception_4e/3x3 (in-place)
I0403 15:01:28.344838 11515 net.cpp:141] Setting up inception_4e/relu_3x3
I0403 15:01:28.344864 11515 net.cpp:148] Top shape: 24 320 14 14 (1505280)
I0403 15:01:28.344879 11515 net.cpp:156] Memory required for data: 1236129312
I0403 15:01:28.344894 11515 layer_factory.hpp:77] Creating layer inception_4e/5x5_reduce
I0403 15:01:28.344918 11515 net.cpp:91] Creating Layer inception_4e/5x5_reduce
I0403 15:01:28.344936 11515 net.cpp:425] inception_4e/5x5_reduce <- inception_4d/output_inception_4d/output_0_split_3
I0403 15:01:28.344959 11515 net.cpp:399] inception_4e/5x5_reduce -> inception_4e/5x5_reduce
I0403 15:01:28.346009 11515 net.cpp:141] Setting up inception_4e/5x5_reduce
I0403 15:01:28.346040 11515 net.cpp:148] Top shape: 24 32 14 14 (150528)
I0403 15:01:28.346056 11515 net.cpp:156] Memory required for data: 1236731424
I0403 15:01:28.346076 11515 layer_factory.hpp:77] Creating layer inception_4e/relu_5x5_reduce
I0403 15:01:28.346094 11515 net.cpp:91] Creating Layer inception_4e/relu_5x5_reduce
I0403 15:01:28.346112 11515 net.cpp:425] inception_4e/relu_5x5_reduce <- inception_4e/5x5_reduce
I0403 15:01:28.346129 11515 net.cpp:386] inception_4e/relu_5x5_reduce -> inception_4e/5x5_reduce (in-place)
I0403 15:01:28.346431 11515 net.cpp:141] Setting up inception_4e/relu_5x5_reduce
I0403 15:01:28.346460 11515 net.cpp:148] Top shape: 24 32 14 14 (150528)
I0403 15:01:28.346477 11515 net.cpp:156] Memory required for data: 1237333536
I0403 15:01:28.346490 11515 layer_factory.hpp:77] Creating layer inception_4e/5x5
I0403 15:01:28.346529 11515 net.cpp:91] Creating Layer inception_4e/5x5
I0403 15:01:28.346547 11515 net.cpp:425] inception_4e/5x5 <- inception_4e/5x5_reduce
I0403 15:01:28.346566 11515 net.cpp:399] inception_4e/5x5 -> inception_4e/5x5
I0403 15:01:28.348361 11515 net.cpp:141] Setting up inception_4e/5x5
I0403 15:01:28.348389 11515 net.cpp:148] Top shape: 24 128 14 14 (602112)
I0403 15:01:28.348404 11515 net.cpp:156] Memory required for data: 1239741984
I0403 15:01:28.348429 11515 layer_factory.hpp:77] Creating layer inception_4e/relu_5x5
I0403 15:01:28.348450 11515 net.cpp:91] Creating Layer inception_4e/relu_5x5
I0403 15:01:28.348469 11515 net.cpp:425] inception_4e/relu_5x5 <- inception_4e/5x5
I0403 15:01:28.348486 11515 net.cpp:386] inception_4e/relu_5x5 -> inception_4e/5x5 (in-place)
I0403 15:01:28.348680 11515 net.cpp:141] Setting up inception_4e/relu_5x5
I0403 15:01:28.348708 11515 net.cpp:148] Top shape: 24 128 14 14 (602112)
I0403 15:01:28.348723 11515 net.cpp:156] Memory required for data: 1242150432
I0403 15:01:28.348738 11515 layer_factory.hpp:77] Creating layer inception_4e/pool
I0403 15:01:28.348757 11515 net.cpp:91] Creating Layer inception_4e/pool
I0403 15:01:28.348773 11515 net.cpp:425] inception_4e/pool <- inception_4d/output_inception_4d/output_0_split_4
I0403 15:01:28.348794 11515 net.cpp:399] inception_4e/pool -> inception_4e/pool
I0403 15:01:28.348863 11515 net.cpp:141] Setting up inception_4e/pool
I0403 15:01:28.348888 11515 net.cpp:148] Top shape: 24 528 14 14 (2483712)
I0403 15:01:28.348903 11515 net.cpp:156] Memory required for data: 1252085280
I0403 15:01:28.348918 11515 layer_factory.hpp:77] Creating layer inception_4e/pool_proj
I0403 15:01:28.348939 11515 net.cpp:91] Creating Layer inception_4e/pool_proj
I0403 15:01:28.348958 11515 net.cpp:425] inception_4e/pool_proj <- inception_4e/pool
I0403 15:01:28.348978 11515 net.cpp:399] inception_4e/pool_proj -> inception_4e/pool_proj
I0403 15:01:28.350460 11515 net.cpp:141] Setting up inception_4e/pool_proj
I0403 15:01:28.350500 11515 net.cpp:148] Top shape: 24 128 14 14 (602112)
I0403 15:01:28.350517 11515 net.cpp:156] Memory required for data: 1254493728
I0403 15:01:28.350536 11515 layer_factory.hpp:77] Creating layer inception_4e/relu_pool_proj
I0403 15:01:28.350558 11515 net.cpp:91] Creating Layer inception_4e/relu_pool_proj
I0403 15:01:28.350575 11515 net.cpp:425] inception_4e/relu_pool_proj <- inception_4e/pool_proj
I0403 15:01:28.350592 11515 net.cpp:386] inception_4e/relu_pool_proj -> inception_4e/pool_proj (in-place)
I0403 15:01:28.350898 11515 net.cpp:141] Setting up inception_4e/relu_pool_proj
I0403 15:01:28.350925 11515 net.cpp:148] Top shape: 24 128 14 14 (602112)
I0403 15:01:28.350939 11515 net.cpp:156] Memory required for data: 1256902176
I0403 15:01:28.350953 11515 layer_factory.hpp:77] Creating layer inception_4e/output
I0403 15:01:28.350972 11515 net.cpp:91] Creating Layer inception_4e/output
I0403 15:01:28.350988 11515 net.cpp:425] inception_4e/output <- inception_4e/1x1
I0403 15:01:28.351006 11515 net.cpp:425] inception_4e/output <- inception_4e/3x3
I0403 15:01:28.351022 11515 net.cpp:425] inception_4e/output <- inception_4e/5x5
I0403 15:01:28.351037 11515 net.cpp:425] inception_4e/output <- inception_4e/pool_proj
I0403 15:01:28.351052 11515 net.cpp:399] inception_4e/output -> inception_4e/output
I0403 15:01:28.351101 11515 net.cpp:141] Setting up inception_4e/output
I0403 15:01:28.351125 11515 net.cpp:148] Top shape: 24 832 14 14 (3913728)
I0403 15:01:28.351138 11515 net.cpp:156] Memory required for data: 1272557088
I0403 15:01:28.351153 11515 layer_factory.hpp:77] Creating layer pool4/3x3_s2
I0403 15:01:28.351169 11515 net.cpp:91] Creating Layer pool4/3x3_s2
I0403 15:01:28.351184 11515 net.cpp:425] pool4/3x3_s2 <- inception_4e/output
I0403 15:01:28.351204 11515 net.cpp:399] pool4/3x3_s2 -> pool4/3x3_s2
I0403 15:01:28.351270 11515 net.cpp:141] Setting up pool4/3x3_s2
I0403 15:01:28.351295 11515 net.cpp:148] Top shape: 24 832 7 7 (978432)
I0403 15:01:28.351310 11515 net.cpp:156] Memory required for data: 1276470816
I0403 15:01:28.351325 11515 layer_factory.hpp:77] Creating layer pool4/3x3_s2_pool4/3x3_s2_0_split
I0403 15:01:28.351341 11515 net.cpp:91] Creating Layer pool4/3x3_s2_pool4/3x3_s2_0_split
I0403 15:01:28.351354 11515 net.cpp:425] pool4/3x3_s2_pool4/3x3_s2_0_split <- pool4/3x3_s2
I0403 15:01:28.351372 11515 net.cpp:399] pool4/3x3_s2_pool4/3x3_s2_0_split -> pool4/3x3_s2_pool4/3x3_s2_0_split_0
I0403 15:01:28.351390 11515 net.cpp:399] pool4/3x3_s2_pool4/3x3_s2_0_split -> pool4/3x3_s2_pool4/3x3_s2_0_split_1
I0403 15:01:28.351415 11515 net.cpp:399] pool4/3x3_s2_pool4/3x3_s2_0_split -> pool4/3x3_s2_pool4/3x3_s2_0_split_2
I0403 15:01:28.351438 11515 net.cpp:399] pool4/3x3_s2_pool4/3x3_s2_0_split -> pool4/3x3_s2_pool4/3x3_s2_0_split_3
I0403 15:01:28.351526 11515 net.cpp:141] Setting up pool4/3x3_s2_pool4/3x3_s2_0_split
I0403 15:01:28.351547 11515 net.cpp:148] Top shape: 24 832 7 7 (978432)
I0403 15:01:28.351563 11515 net.cpp:148] Top shape: 24 832 7 7 (978432)
I0403 15:01:28.351578 11515 net.cpp:148] Top shape: 24 832 7 7 (978432)
I0403 15:01:28.351593 11515 net.cpp:148] Top shape: 24 832 7 7 (978432)
I0403 15:01:28.351608 11515 net.cpp:156] Memory required for data: 1292125728
I0403 15:01:28.351621 11515 layer_factory.hpp:77] Creating layer inception_5a/1x1
I0403 15:01:28.351642 11515 net.cpp:91] Creating Layer inception_5a/1x1
I0403 15:01:28.351660 11515 net.cpp:425] inception_5a/1x1 <- pool4/3x3_s2_pool4/3x3_s2_0_split_0
I0403 15:01:28.351680 11515 net.cpp:399] inception_5a/1x1 -> inception_5a/1x1
I0403 15:01:28.354468 11515 net.cpp:141] Setting up inception_5a/1x1
I0403 15:01:28.354498 11515 net.cpp:148] Top shape: 24 256 7 7 (301056)
I0403 15:01:28.354514 11515 net.cpp:156] Memory required for data: 1293329952
I0403 15:01:28.354533 11515 layer_factory.hpp:77] Creating layer inception_5a/relu_1x1
I0403 15:01:28.354553 11515 net.cpp:91] Creating Layer inception_5a/relu_1x1
I0403 15:01:28.354571 11515 net.cpp:425] inception_5a/relu_1x1 <- inception_5a/1x1
I0403 15:01:28.354589 11515 net.cpp:386] inception_5a/relu_1x1 -> inception_5a/1x1 (in-place)
I0403 15:01:28.354897 11515 net.cpp:141] Setting up inception_5a/relu_1x1
I0403 15:01:28.354923 11515 net.cpp:148] Top shape: 24 256 7 7 (301056)
I0403 15:01:28.354938 11515 net.cpp:156] Memory required for data: 1294534176
I0403 15:01:28.354951 11515 layer_factory.hpp:77] Creating layer inception_5a/3x3_reduce
I0403 15:01:28.354974 11515 net.cpp:91] Creating Layer inception_5a/3x3_reduce
I0403 15:01:28.354991 11515 net.cpp:425] inception_5a/3x3_reduce <- pool4/3x3_s2_pool4/3x3_s2_0_split_1
I0403 15:01:28.355010 11515 net.cpp:399] inception_5a/3x3_reduce -> inception_5a/3x3_reduce
I0403 15:01:28.357412 11515 net.cpp:141] Setting up inception_5a/3x3_reduce
I0403 15:01:28.357441 11515 net.cpp:148] Top shape: 24 160 7 7 (188160)
I0403 15:01:28.357457 11515 net.cpp:156] Memory required for data: 1295286816
I0403 15:01:28.357475 11515 layer_factory.hpp:77] Creating layer inception_5a/relu_3x3_reduce
I0403 15:01:28.357497 11515 net.cpp:91] Creating Layer inception_5a/relu_3x3_reduce
I0403 15:01:28.357514 11515 net.cpp:425] inception_5a/relu_3x3_reduce <- inception_5a/3x3_reduce
I0403 15:01:28.357534 11515 net.cpp:386] inception_5a/relu_3x3_reduce -> inception_5a/3x3_reduce (in-place)
I0403 15:01:28.357719 11515 net.cpp:141] Setting up inception_5a/relu_3x3_reduce
I0403 15:01:28.357745 11515 net.cpp:148] Top shape: 24 160 7 7 (188160)
I0403 15:01:28.357761 11515 net.cpp:156] Memory required for data: 1296039456
I0403 15:01:28.357776 11515 layer_factory.hpp:77] Creating layer inception_5a/3x3
I0403 15:01:28.357798 11515 net.cpp:91] Creating Layer inception_5a/3x3
I0403 15:01:28.357820 11515 net.cpp:425] inception_5a/3x3 <- inception_5a/3x3_reduce
I0403 15:01:28.357839 11515 net.cpp:399] inception_5a/3x3 -> inception_5a/3x3
I0403 15:01:28.362751 11515 net.cpp:141] Setting up inception_5a/3x3
I0403 15:01:28.362781 11515 net.cpp:148] Top shape: 24 320 7 7 (376320)
I0403 15:01:28.362797 11515 net.cpp:156] Memory required for data: 1297544736
I0403 15:01:28.362815 11515 layer_factory.hpp:77] Creating layer inception_5a/relu_3x3
I0403 15:01:28.362836 11515 net.cpp:91] Creating Layer inception_5a/relu_3x3
I0403 15:01:28.362854 11515 net.cpp:425] inception_5a/relu_3x3 <- inception_5a/3x3
I0403 15:01:28.362872 11515 net.cpp:386] inception_5a/relu_3x3 -> inception_5a/3x3 (in-place)
I0403 15:01:28.363163 11515 net.cpp:141] Setting up inception_5a/relu_3x3
I0403 15:01:28.363188 11515 net.cpp:148] Top shape: 24 320 7 7 (376320)
I0403 15:01:28.363203 11515 net.cpp:156] Memory required for data: 1299050016
I0403 15:01:28.363216 11515 layer_factory.hpp:77] Creating layer inception_5a/5x5_reduce
I0403 15:01:28.363239 11515 net.cpp:91] Creating Layer inception_5a/5x5_reduce
I0403 15:01:28.363255 11515 net.cpp:425] inception_5a/5x5_reduce <- pool4/3x3_s2_pool4/3x3_s2_0_split_2
I0403 15:01:28.363276 11515 net.cpp:399] inception_5a/5x5_reduce -> inception_5a/5x5_reduce
I0403 15:01:28.364436 11515 net.cpp:141] Setting up inception_5a/5x5_reduce
I0403 15:01:28.364467 11515 net.cpp:148] Top shape: 24 32 7 7 (37632)
I0403 15:01:28.364483 11515 net.cpp:156] Memory required for data: 1299200544
I0403 15:01:28.364502 11515 layer_factory.hpp:77] Creating layer inception_5a/relu_5x5_reduce
I0403 15:01:28.364521 11515 net.cpp:91] Creating Layer inception_5a/relu_5x5_reduce
I0403 15:01:28.364537 11515 net.cpp:425] inception_5a/relu_5x5_reduce <- inception_5a/5x5_reduce
I0403 15:01:28.364555 11515 net.cpp:386] inception_5a/relu_5x5_reduce -> inception_5a/5x5_reduce (in-place)
I0403 15:01:28.364853 11515 net.cpp:141] Setting up inception_5a/relu_5x5_reduce
I0403 15:01:28.364881 11515 net.cpp:148] Top shape: 24 32 7 7 (37632)
I0403 15:01:28.364895 11515 net.cpp:156] Memory required for data: 1299351072
I0403 15:01:28.364910 11515 layer_factory.hpp:77] Creating layer inception_5a/5x5
I0403 15:01:28.364931 11515 net.cpp:91] Creating Layer inception_5a/5x5
I0403 15:01:28.364948 11515 net.cpp:425] inception_5a/5x5 <- inception_5a/5x5_reduce
I0403 15:01:28.364967 11515 net.cpp:399] inception_5a/5x5 -> inception_5a/5x5
I0403 15:01:28.366690 11515 net.cpp:141] Setting up inception_5a/5x5
I0403 15:01:28.366729 11515 net.cpp:148] Top shape: 24 128 7 7 (150528)
I0403 15:01:28.366745 11515 net.cpp:156] Memory required for data: 1299953184
I0403 15:01:28.366765 11515 layer_factory.hpp:77] Creating layer inception_5a/relu_5x5
I0403 15:01:28.366785 11515 net.cpp:91] Creating Layer inception_5a/relu_5x5
I0403 15:01:28.366802 11515 net.cpp:425] inception_5a/relu_5x5 <- inception_5a/5x5
I0403 15:01:28.366818 11515 net.cpp:386] inception_5a/relu_5x5 -> inception_5a/5x5 (in-place)
I0403 15:01:28.367010 11515 net.cpp:141] Setting up inception_5a/relu_5x5
I0403 15:01:28.367036 11515 net.cpp:148] Top shape: 24 128 7 7 (150528)
I0403 15:01:28.367051 11515 net.cpp:156] Memory required for data: 1300555296
I0403 15:01:28.367065 11515 layer_factory.hpp:77] Creating layer inception_5a/pool
I0403 15:01:28.367081 11515 net.cpp:91] Creating Layer inception_5a/pool
I0403 15:01:28.367097 11515 net.cpp:425] inception_5a/pool <- pool4/3x3_s2_pool4/3x3_s2_0_split_3
I0403 15:01:28.367117 11515 net.cpp:399] inception_5a/pool -> inception_5a/pool
I0403 15:01:28.367187 11515 net.cpp:141] Setting up inception_5a/pool
I0403 15:01:28.367208 11515 net.cpp:148] Top shape: 24 832 7 7 (978432)
I0403 15:01:28.367223 11515 net.cpp:156] Memory required for data: 1304469024
I0403 15:01:28.367238 11515 layer_factory.hpp:77] Creating layer inception_5a/pool_proj
I0403 15:01:28.367259 11515 net.cpp:91] Creating Layer inception_5a/pool_proj
I0403 15:01:28.367275 11515 net.cpp:425] inception_5a/pool_proj <- inception_5a/pool
I0403 15:01:28.367295 11515 net.cpp:399] inception_5a/pool_proj -> inception_5a/pool_proj
I0403 15:01:28.369544 11515 net.cpp:141] Setting up inception_5a/pool_proj
I0403 15:01:28.369573 11515 net.cpp:148] Top shape: 24 128 7 7 (150528)
I0403 15:01:28.369590 11515 net.cpp:156] Memory required for data: 1305071136
I0403 15:01:28.369611 11515 layer_factory.hpp:77] Creating layer inception_5a/relu_pool_proj
I0403 15:01:28.369631 11515 net.cpp:91] Creating Layer inception_5a/relu_pool_proj
I0403 15:01:28.369647 11515 net.cpp:425] inception_5a/relu_pool_proj <- inception_5a/pool_proj
I0403 15:01:28.369664 11515 net.cpp:386] inception_5a/relu_pool_proj -> inception_5a/pool_proj (in-place)
I0403 15:01:28.369954 11515 net.cpp:141] Setting up inception_5a/relu_pool_proj
I0403 15:01:28.369979 11515 net.cpp:148] Top shape: 24 128 7 7 (150528)
I0403 15:01:28.369994 11515 net.cpp:156] Memory required for data: 1305673248
I0403 15:01:28.370008 11515 layer_factory.hpp:77] Creating layer inception_5a/output
I0403 15:01:28.370025 11515 net.cpp:91] Creating Layer inception_5a/output
I0403 15:01:28.370040 11515 net.cpp:425] inception_5a/output <- inception_5a/1x1
I0403 15:01:28.370057 11515 net.cpp:425] inception_5a/output <- inception_5a/3x3
I0403 15:01:28.370074 11515 net.cpp:425] inception_5a/output <- inception_5a/5x5
I0403 15:01:28.370090 11515 net.cpp:425] inception_5a/output <- inception_5a/pool_proj
I0403 15:01:28.370108 11515 net.cpp:399] inception_5a/output -> inception_5a/output
I0403 15:01:28.370159 11515 net.cpp:141] Setting up inception_5a/output
I0403 15:01:28.370182 11515 net.cpp:148] Top shape: 24 832 7 7 (978432)
I0403 15:01:28.370196 11515 net.cpp:156] Memory required for data: 1309586976
I0403 15:01:28.370210 11515 layer_factory.hpp:77] Creating layer inception_5a/output_inception_5a/output_0_split
I0403 15:01:28.370228 11515 net.cpp:91] Creating Layer inception_5a/output_inception_5a/output_0_split
I0403 15:01:28.370242 11515 net.cpp:425] inception_5a/output_inception_5a/output_0_split <- inception_5a/output
I0403 15:01:28.370262 11515 net.cpp:399] inception_5a/output_inception_5a/output_0_split -> inception_5a/output_inception_5a/output_0_split_0
I0403 15:01:28.370282 11515 net.cpp:399] inception_5a/output_inception_5a/output_0_split -> inception_5a/output_inception_5a/output_0_split_1
I0403 15:01:28.370303 11515 net.cpp:399] inception_5a/output_inception_5a/output_0_split -> inception_5a/output_inception_5a/output_0_split_2
I0403 15:01:28.370322 11515 net.cpp:399] inception_5a/output_inception_5a/output_0_split -> inception_5a/output_inception_5a/output_0_split_3
I0403 15:01:28.370440 11515 net.cpp:141] Setting up inception_5a/output_inception_5a/output_0_split
I0403 15:01:28.370465 11515 net.cpp:148] Top shape: 24 832 7 7 (978432)
I0403 15:01:28.370481 11515 net.cpp:148] Top shape: 24 832 7 7 (978432)
I0403 15:01:28.370496 11515 net.cpp:148] Top shape: 24 832 7 7 (978432)
I0403 15:01:28.370512 11515 net.cpp:148] Top shape: 24 832 7 7 (978432)
I0403 15:01:28.370524 11515 net.cpp:156] Memory required for data: 1325241888
I0403 15:01:28.370538 11515 layer_factory.hpp:77] Creating layer inception_5b/1x1
I0403 15:01:28.370560 11515 net.cpp:91] Creating Layer inception_5b/1x1
I0403 15:01:28.370576 11515 net.cpp:425] inception_5b/1x1 <- inception_5a/output_inception_5a/output_0_split_0
I0403 15:01:28.370595 11515 net.cpp:399] inception_5b/1x1 -> inception_5b/1x1
I0403 15:01:28.374372 11515 net.cpp:141] Setting up inception_5b/1x1
I0403 15:01:28.374403 11515 net.cpp:148] Top shape: 24 384 7 7 (451584)
I0403 15:01:28.374425 11515 net.cpp:156] Memory required for data: 1327048224
I0403 15:01:28.374445 11515 layer_factory.hpp:77] Creating layer inception_5b/relu_1x1
I0403 15:01:28.374467 11515 net.cpp:91] Creating Layer inception_5b/relu_1x1
I0403 15:01:28.374486 11515 net.cpp:425] inception_5b/relu_1x1 <- inception_5b/1x1
I0403 15:01:28.374505 11515 net.cpp:386] inception_5b/relu_1x1 -> inception_5b/1x1 (in-place)
I0403 15:01:28.374831 11515 net.cpp:141] Setting up inception_5b/relu_1x1
I0403 15:01:28.374857 11515 net.cpp:148] Top shape: 24 384 7 7 (451584)
I0403 15:01:28.374872 11515 net.cpp:156] Memory required for data: 1328854560
I0403 15:01:28.374886 11515 layer_factory.hpp:77] Creating layer inception_5b/3x3_reduce
I0403 15:01:28.374909 11515 net.cpp:91] Creating Layer inception_5b/3x3_reduce
I0403 15:01:28.374928 11515 net.cpp:425] inception_5b/3x3_reduce <- inception_5a/output_inception_5a/output_0_split_1
I0403 15:01:28.374950 11515 net.cpp:399] inception_5b/3x3_reduce -> inception_5b/3x3_reduce
I0403 15:01:28.377686 11515 net.cpp:141] Setting up inception_5b/3x3_reduce
I0403 15:01:28.377717 11515 net.cpp:148] Top shape: 24 192 7 7 (225792)
I0403 15:01:28.377734 11515 net.cpp:156] Memory required for data: 1329757728
I0403 15:01:28.377753 11515 layer_factory.hpp:77] Creating layer inception_5b/relu_3x3_reduce
I0403 15:01:28.377774 11515 net.cpp:91] Creating Layer inception_5b/relu_3x3_reduce
I0403 15:01:28.377791 11515 net.cpp:425] inception_5b/relu_3x3_reduce <- inception_5b/3x3_reduce
I0403 15:01:28.377812 11515 net.cpp:386] inception_5b/relu_3x3_reduce -> inception_5b/3x3_reduce (in-place)
I0403 15:01:28.378005 11515 net.cpp:141] Setting up inception_5b/relu_3x3_reduce
I0403 15:01:28.378034 11515 net.cpp:148] Top shape: 24 192 7 7 (225792)
I0403 15:01:28.378051 11515 net.cpp:156] Memory required for data: 1330660896
I0403 15:01:28.378065 11515 layer_factory.hpp:77] Creating layer inception_5b/3x3
I0403 15:01:28.378085 11515 net.cpp:91] Creating Layer inception_5b/3x3
I0403 15:01:28.378104 11515 net.cpp:425] inception_5b/3x3 <- inception_5b/3x3_reduce
I0403 15:01:28.378126 11515 net.cpp:399] inception_5b/3x3 -> inception_5b/3x3
I0403 15:01:28.384927 11515 net.cpp:141] Setting up inception_5b/3x3
I0403 15:01:28.384959 11515 net.cpp:148] Top shape: 24 384 7 7 (451584)
I0403 15:01:28.384977 11515 net.cpp:156] Memory required for data: 1332467232
I0403 15:01:28.384996 11515 layer_factory.hpp:77] Creating layer inception_5b/relu_3x3
I0403 15:01:28.385017 11515 net.cpp:91] Creating Layer inception_5b/relu_3x3
I0403 15:01:28.385035 11515 net.cpp:425] inception_5b/relu_3x3 <- inception_5b/3x3
I0403 15:01:28.385053 11515 net.cpp:386] inception_5b/relu_3x3 -> inception_5b/3x3 (in-place)
I0403 15:01:28.385362 11515 net.cpp:141] Setting up inception_5b/relu_3x3
I0403 15:01:28.385392 11515 net.cpp:148] Top shape: 24 384 7 7 (451584)
I0403 15:01:28.385408 11515 net.cpp:156] Memory required for data: 1334273568
I0403 15:01:28.385427 11515 layer_factory.hpp:77] Creating layer inception_5b/5x5_reduce
I0403 15:01:28.385468 11515 net.cpp:91] Creating Layer inception_5b/5x5_reduce
I0403 15:01:28.385486 11515 net.cpp:425] inception_5b/5x5_reduce <- inception_5a/output_inception_5a/output_0_split_2
I0403 15:01:28.385509 11515 net.cpp:399] inception_5b/5x5_reduce -> inception_5b/5x5_reduce
I0403 15:01:28.386808 11515 net.cpp:141] Setting up inception_5b/5x5_reduce
I0403 15:01:28.386838 11515 net.cpp:148] Top shape: 24 48 7 7 (56448)
I0403 15:01:28.386857 11515 net.cpp:156] Memory required for data: 1334499360
I0403 15:01:28.386875 11515 layer_factory.hpp:77] Creating layer inception_5b/relu_5x5_reduce
I0403 15:01:28.386896 11515 net.cpp:91] Creating Layer inception_5b/relu_5x5_reduce
I0403 15:01:28.386915 11515 net.cpp:425] inception_5b/relu_5x5_reduce <- inception_5b/5x5_reduce
I0403 15:01:28.386934 11515 net.cpp:386] inception_5b/relu_5x5_reduce -> inception_5b/5x5_reduce (in-place)
I0403 15:01:28.387313 11515 net.cpp:141] Setting up inception_5b/relu_5x5_reduce
I0403 15:01:28.387342 11515 net.cpp:148] Top shape: 24 48 7 7 (56448)
I0403 15:01:28.387358 11515 net.cpp:156] Memory required for data: 1334725152
I0403 15:01:28.387375 11515 layer_factory.hpp:77] Creating layer inception_5b/5x5
I0403 15:01:28.387397 11515 net.cpp:91] Creating Layer inception_5b/5x5
I0403 15:01:28.387418 11515 net.cpp:425] inception_5b/5x5 <- inception_5b/5x5_reduce
I0403 15:01:28.387441 11515 net.cpp:399] inception_5b/5x5 -> inception_5b/5x5
I0403 15:01:28.389540 11515 net.cpp:141] Setting up inception_5b/5x5
I0403 15:01:28.389570 11515 net.cpp:148] Top shape: 24 128 7 7 (150528)
I0403 15:01:28.389587 11515 net.cpp:156] Memory required for data: 1335327264
I0403 15:01:28.389608 11515 layer_factory.hpp:77] Creating layer inception_5b/relu_5x5
I0403 15:01:28.389628 11515 net.cpp:91] Creating Layer inception_5b/relu_5x5
I0403 15:01:28.389647 11515 net.cpp:425] inception_5b/relu_5x5 <- inception_5b/5x5
I0403 15:01:28.389665 11515 net.cpp:386] inception_5b/relu_5x5 -> inception_5b/5x5 (in-place)
I0403 15:01:28.389868 11515 net.cpp:141] Setting up inception_5b/relu_5x5
I0403 15:01:28.389894 11515 net.cpp:148] Top shape: 24 128 7 7 (150528)
I0403 15:01:28.389910 11515 net.cpp:156] Memory required for data: 1335929376
I0403 15:01:28.389925 11515 layer_factory.hpp:77] Creating layer inception_5b/pool
I0403 15:01:28.389943 11515 net.cpp:91] Creating Layer inception_5b/pool
I0403 15:01:28.389960 11515 net.cpp:425] inception_5b/pool <- inception_5a/output_inception_5a/output_0_split_3
I0403 15:01:28.389981 11515 net.cpp:399] inception_5b/pool -> inception_5b/pool
I0403 15:01:28.390056 11515 net.cpp:141] Setting up inception_5b/pool
I0403 15:01:28.390082 11515 net.cpp:148] Top shape: 24 832 7 7 (978432)
I0403 15:01:28.390099 11515 net.cpp:156] Memory required for data: 1339843104
I0403 15:01:28.390112 11515 layer_factory.hpp:77] Creating layer inception_5b/pool_proj
I0403 15:01:28.390136 11515 net.cpp:91] Creating Layer inception_5b/pool_proj
I0403 15:01:28.390156 11515 net.cpp:425] inception_5b/pool_proj <- inception_5b/pool
I0403 15:01:28.390175 11515 net.cpp:399] inception_5b/pool_proj -> inception_5b/pool_proj
I0403 15:01:28.392537 11515 net.cpp:141] Setting up inception_5b/pool_proj
I0403 15:01:28.392568 11515 net.cpp:148] Top shape: 24 128 7 7 (150528)
I0403 15:01:28.392585 11515 net.cpp:156] Memory required for data: 1340445216
I0403 15:01:28.392603 11515 layer_factory.hpp:77] Creating layer inception_5b/relu_pool_proj
I0403 15:01:28.392624 11515 net.cpp:91] Creating Layer inception_5b/relu_pool_proj
I0403 15:01:28.392642 11515 net.cpp:425] inception_5b/relu_pool_proj <- inception_5b/pool_proj
I0403 15:01:28.392662 11515 net.cpp:386] inception_5b/relu_pool_proj -> inception_5b/pool_proj (in-place)
I0403 15:01:28.392971 11515 net.cpp:141] Setting up inception_5b/relu_pool_proj
I0403 15:01:28.392998 11515 net.cpp:148] Top shape: 24 128 7 7 (150528)
I0403 15:01:28.393013 11515 net.cpp:156] Memory required for data: 1341047328
I0403 15:01:28.393028 11515 layer_factory.hpp:77] Creating layer inception_5b/output
I0403 15:01:28.393049 11515 net.cpp:91] Creating Layer inception_5b/output
I0403 15:01:28.393079 11515 net.cpp:425] inception_5b/output <- inception_5b/1x1
I0403 15:01:28.393097 11515 net.cpp:425] inception_5b/output <- inception_5b/3x3
I0403 15:01:28.393113 11515 net.cpp:425] inception_5b/output <- inception_5b/5x5
I0403 15:01:28.393129 11515 net.cpp:425] inception_5b/output <- inception_5b/pool_proj
I0403 15:01:28.393146 11515 net.cpp:399] inception_5b/output -> inception_5b/output
I0403 15:01:28.393199 11515 net.cpp:141] Setting up inception_5b/output
I0403 15:01:28.393224 11515 net.cpp:148] Top shape: 24 1024 7 7 (1204224)
I0403 15:01:28.393237 11515 net.cpp:156] Memory required for data: 1345864224
I0403 15:01:28.393252 11515 layer_factory.hpp:77] Creating layer pool5/7x7_s1
I0403 15:01:28.393270 11515 net.cpp:91] Creating Layer pool5/7x7_s1
I0403 15:01:28.393285 11515 net.cpp:425] pool5/7x7_s1 <- inception_5b/output
I0403 15:01:28.393306 11515 net.cpp:399] pool5/7x7_s1 -> pool5/7x7_s1
I0403 15:01:28.393542 11515 net.cpp:141] Setting up pool5/7x7_s1
I0403 15:01:28.393568 11515 net.cpp:148] Top shape: 24 1024 1 1 (24576)
I0403 15:01:28.393585 11515 net.cpp:156] Memory required for data: 1345962528
I0403 15:01:28.393600 11515 layer_factory.hpp:77] Creating layer pool5/drop_7x7_s1
I0403 15:01:28.393617 11515 net.cpp:91] Creating Layer pool5/drop_7x7_s1
I0403 15:01:28.393633 11515 net.cpp:425] pool5/drop_7x7_s1 <- pool5/7x7_s1
I0403 15:01:28.393651 11515 net.cpp:386] pool5/drop_7x7_s1 -> pool5/7x7_s1 (in-place)
I0403 15:01:28.393702 11515 net.cpp:141] Setting up pool5/drop_7x7_s1
I0403 15:01:28.393725 11515 net.cpp:148] Top shape: 24 1024 1 1 (24576)
I0403 15:01:28.393739 11515 net.cpp:156] Memory required for data: 1346060832
I0403 15:01:28.393754 11515 layer_factory.hpp:77] Creating layer loss3/classifier_plantvillage
I0403 15:01:28.393775 11515 net.cpp:91] Creating Layer loss3/classifier_plantvillage
I0403 15:01:28.393792 11515 net.cpp:425] loss3/classifier_plantvillage <- pool5/7x7_s1
I0403 15:01:28.393810 11515 net.cpp:399] loss3/classifier_plantvillage -> loss3/classifier_plantvillage
I0403 15:01:28.394243 11515 net.cpp:141] Setting up loss3/classifier_plantvillage
I0403 15:01:28.394269 11515 net.cpp:148] Top shape: 24 38 (912)
I0403 15:01:28.394286 11515 net.cpp:156] Memory required for data: 1346064480
I0403 15:01:28.394305 11515 layer_factory.hpp:77] Creating layer loss3/classifier_plantvillage_loss3/classifier_plantvillage_0_split
I0403 15:01:28.394325 11515 net.cpp:91] Creating Layer loss3/classifier_plantvillage_loss3/classifier_plantvillage_0_split
I0403 15:01:28.394341 11515 net.cpp:425] loss3/classifier_plantvillage_loss3/classifier_plantvillage_0_split <- loss3/classifier_plantvillage
I0403 15:01:28.394362 11515 net.cpp:399] loss3/classifier_plantvillage_loss3/classifier_plantvillage_0_split -> loss3/classifier_plantvillage_loss3/classifier_plantvillage_0_split_0
I0403 15:01:28.394387 11515 net.cpp:399] loss3/classifier_plantvillage_loss3/classifier_plantvillage_0_split -> loss3/classifier_plantvillage_loss3/classifier_plantvillage_0_split_1
I0403 15:01:28.394407 11515 net.cpp:399] loss3/classifier_plantvillage_loss3/classifier_plantvillage_0_split -> loss3/classifier_plantvillage_loss3/classifier_plantvillage_0_split_2
I0403 15:01:28.394435 11515 net.cpp:399] loss3/classifier_plantvillage_loss3/classifier_plantvillage_0_split -> loss3/classifier_plantvillage_loss3/classifier_plantvillage_0_split_3
I0403 15:01:28.394541 11515 net.cpp:141] Setting up loss3/classifier_plantvillage_loss3/classifier_plantvillage_0_split
I0403 15:01:28.394567 11515 net.cpp:148] Top shape: 24 38 (912)
I0403 15:01:28.394585 11515 net.cpp:148] Top shape: 24 38 (912)
I0403 15:01:28.394601 11515 net.cpp:148] Top shape: 24 38 (912)
I0403 15:01:28.394616 11515 net.cpp:148] Top shape: 24 38 (912)
I0403 15:01:28.394629 11515 net.cpp:156] Memory required for data: 1346079072
I0403 15:01:28.394644 11515 layer_factory.hpp:77] Creating layer loss1/loss
I0403 15:01:28.394665 11515 net.cpp:91] Creating Layer loss1/loss
I0403 15:01:28.394681 11515 net.cpp:425] loss1/loss <- loss1/classifier_plantvillage_loss1/classifier_plantvillage_0_split_0
I0403 15:01:28.394712 11515 net.cpp:425] loss1/loss <- label_data_1_split_0
…
