…
I0403 14:52:49.978045 11349 net.cpp:313] The NetState phase (1) differed from the phase (0) specified by a rule in layer data
I0403 14:52:49.979286 11349 net.cpp:49] Initializing net from parameters: 
state {
  phase: TEST
}
layer {
  name: "data"
  type: "Data"
  top: "data"
  top: "label"
  include {
    phase: TEST
  }
  transform_param {
    mirror: false
    crop_size: 224
    mean_file: "/home/mohanty/data/final_dataset/lmdb/segmented-50-50/mean.binaryproto"
  }
  data_param {
    source: "/home/mohanty/data/final_dataset/lmdb/segmented-50-50/test_db"
    batch_size: 24
    backend: LMDB
  }
}
layer {
  name: "conv1/7x7_s2"
  type: "Convolution"
  bottom: "data"
  top: "conv1/7x7_s2"
  param {
    lr_mult: 1
    decay_mult: 1
  }
  param {
    lr_mult: 2
    decay_mult: 0
  }
  convolution_param {
    num_output: 64
    pad: 3
    kernel_size: 7
    stride: 2
    weight_filler {
      type: "xavier"
      std: 0.1
    }
    bias_filler {
      type: "constant"
      value: 0.2
    }
  }
}
layer {
  name: "conv1/relu_7x7"
  type: "ReLU"
  bottom: "conv1/7x7_s2"
  top: "conv1/7x7_s2"
}
layer {
  name: "pool1/3x3_s2"
  type: "Pooling"
  bottom: "conv1/7x7_s2"
  top: "pool1/3x3_s2"
  pooling_param {
    pool: MAX
    kernel_size: 3
    stride: 2
  }
}
layer {
  name: "pool1/norm1"
  type: "LRN"
  bottom: "pool1/3x3_s2"
  top: "pool1/norm1"
  lrn_param {
    local_size: 5
    alpha: 0.0001
    beta: 0.75
  }
}
layer {
  name: "conv2/3x3_reduce"
  type: "Convolution"
  bottom: "pool1/norm1"
  top: "conv2/3x3_reduce"
  param {
    lr_mult: 1
    decay_mult: 1
  }
  param {
    lr_mult: 2
    decay_mult: 0
  }
  convolution_param {
    num_output: 64
    kernel_size: 1
    weight_filler {
      type: "xavier"
      std: 0.1
    }
    bias_filler {
      type: "constant"
      value: 0.2
    }
  }
}
layer {
  name: "conv2/relu_3x3_reduce"
  type: "ReLU"
  bottom: "conv2/3x3_reduce"
  top: "conv2/3x3_reduce"
}
layer {
  name: "conv2/3x3"
  type: "Convolution"
  bottom: "conv2/3x3_reduce"
  top: "conv2/3x3"
  param {
    lr_mult: 1
    decay_mult: 1
  }
  param {
    lr_mult: 2
    decay_mult: 0
  }
  convolution_param {
    num_output: 192
    pad: 1
    kernel_size: 3
    weight_filler {
      type: "xavier"
      std: 0.03
    }
    bias_filler {
      type: "constant"
      value: 0.2
    }
  }
}
layer {
  name: "conv2/relu_3x3"
  type: "ReLU"
  bottom: "conv2/3x3"
  top: "conv2/3x3"
}
layer {
  name: "conv2/norm2"
  type: "LRN"
  bottom: "conv2/3x3"
  top: "conv2/norm2"
  lrn_param {
    local_size: 5
    alpha: 0.0001
    beta: 0.75
  }
}
layer {
  name: "pool2/3x3_s2"
  type: "Pooling"
  bottom: "conv2/norm2"
  top: "pool2/3x3_s2"
  pooling_param {
    pool: MAX
    kernel_size: 3
    stride: 2
  }
}
layer {
  name: "inception_3a/1x1"
  type: "Convolution"
  bottom: "pool2/3x3_s2"
  top: "inception_3a/1x1"
  param {
    lr_mult: 1
    decay_mult: 1
  }
  param {
    lr_mult: 2
    decay_mult: 0
  }
  convolution_param {
    num_output: 64
    kernel_size: 1
    weight_filler {
      type: "xavier"
      std: 0.03
    }
    bias_filler {
      type: "constant"
      value: 0.2
    }
  }
}
layer {
  name: "inception_3a/relu_1x1"
  type: "ReLU"
  bottom: "inception_3a/1x1"
  top: "inception_3a/1x1"
}
layer {
  name: "inception_3a/3x3_reduce"
  type: "Convolution"
  bottom: "pool2/3x3_s2"
  top: "inception_3a/3x3_reduce"
  param {
    lr_mult: 1
    decay_mult: 1
  }
  param {
    lr_mult: 2
    decay_mult: 0
  }
  convolution_param {
    num_output: 96
    kernel_size: 1
    weight_filler {
      type: "xavier"
      std: 0.09
    }
    bias_filler {
      type: "constant"
      value: 0.2
    }
  }
}
layer {
  name: "inception_3a/relu_3x3_reduce"
  type: "ReLU"
  bottom: "inception_3a/3x3_reduce"
  top: "inception_3a/3x3_reduce"
}
layer {
  name: "inception_3a/3x3"
  type: "Convolution"
  bottom: "inception_3a/3x3_reduce"
  top: "inception_3a/3x3"
  param {
    lr_mult: 1
    decay_mult: 1
  }
  param {
    lr_mult: 2
    decay_mult: 0
  }
  convolution_param {
    num_output: 128
    pad: 1
    kernel_size: 3
    weight_filler {
      type: "xavier"
      std: 0.03
    }
    bias_filler {
      type: "constant"
      value: 0.2
    }
  }
}
layer {
  name: "inception_3a/relu_3x3"
  type: "ReLU"
  bottom: "inception_3a/3x3"
  top: "inception_3a/3x3"
}
layer {
  name: "inception_3a/5x5_reduce"
  type: "Convolution"
  bottom: "pool2/3x3_s2"
  top: "inception_3a/5x5_reduce"
  param {
    lr_mult: 1
    decay_mult: 1
  }
  param {
    lr_mult: 2
    decay_mult: 0
  }
  convolution_param {
    num_output: 16
    kernel_size: 1
    weight_filler {
      type: "xavier"
      std: 0.2
    }
    bias_filler {
      type: "constant"
      value: 0.2
    }
  }
}
layer {
  name: "inception_3a/relu_5x5_reduce"
  type: "ReLU"
  bottom: "inception_3a/5x5_reduce"
  top: "inception_3a/5x5_reduce"
}
layer {
  name: "inception_3a/5x5"
  type: "Convolution"
  bottom: "inception_3a/5x5_reduce"
  top: "inception_3a/5x5"
  param {
    lr_mult: 1
    decay_mult: 1
  }
  param {
    lr_mult: 2
    decay_mult: 0
  }
  convolution_param {
    num_output: 32
    pad: 2
    kernel_size: 5
    weight_filler {
      type: "xavier"
      std: 0.03
    }
    bias_filler {
      type: "constant"
      value: 0.2
    }
  }
}
layer {
  name: "inception_3a/relu_5x5"
  type: "ReLU"
  bottom: "inception_3a/5x5"
  top: "inception_3a/5x5"
}
layer {
  name: "inception_3a/pool"
  type: "Pooling"
  bottom: "pool2/3x3_s2"
  top: "inception_3a/pool"
  pooling_param {
    pool: MAX
    kernel_size: 3
    stride: 1
    pad: 1
  }
}
layer {
  name: "inception_3a/pool_proj"
  type: "Convolution"
  bottom: "inception_3a/pool"
  top: "inception_3a/pool_proj"
  param {
    lr_mult: 1
    decay_mult: 1
  }
  param {
    lr_mult: 2
    decay_mult: 0
  }
  convolution_param {
    num_output: 32
    kernel_size: 1
    weight_filler {
      type: "xavier"
      std: 0.1
    }
    bias_filler {
      type: "constant"
      value: 0.2
    }
  }
}
layer {
  name: "inception_3a/relu_pool_proj"
  type: "ReLU"
  bottom: "inception_3a/pool_proj"
  top: "inception_3a/pool_proj"
}
layer {
  name: "inception_3a/output"
  type: "Concat"
  bottom: "inception_3a/1x1"
  bottom: "inception_3a/3x3"
  bottom: "inception_3a/5x5"
  bottom: "inception_3a/pool_proj"
  top: "inception_3a/output"
}
layer {
  name: "inception_3b/1x1"
  type: "Convolution"
  bottom: "inception_3a/output"
  top: "inception_3b/1x1"
  param {
    lr_mult: 1
    decay_mult: 1
  }
  param {
    lr_mult: 2
    decay_mult: 0
  }
  convolution_param {
    num_output: 128
    kernel_size: 1
    weight_filler {
      type: "xavier"
      std: 0.03
    }
    bias_filler {
      type: "constant"
      value: 0.2
    }
  }
}
layer {
  name: "inception_3b/relu_1x1"
  type: "ReLU"
  bottom: "inception_3b/1x1"
  top: "inception_3b/1x1"
}
layer {
  name: "inception_3b/3x3_reduce"
  type: "Convolution"
  bottom: "inception_3a/output"
  top: "inception_3b/3x3_reduce"
  param {
    lr_mult: 1
    decay_mult: 1
  }
  param {
    lr_mult: 2
    decay_mult: 0
  }
  convolution_param {
    num_output: 128
    kernel_size: 1
    weight_filler {
      type: "xavier"
      std: 0.09
    }
    bias_filler {
      type: "constant"
      value: 0.2
    }
  }
}
layer {
  name: "inception_3b/relu_3x3_reduce"
  type: "ReLU"
  bottom: "inception_3b/3x3_reduce"
  top: "inception_3b/3x3_reduce"
}
layer {
  name: "inception_3b/3x3"
  type: "Convolution"
  bottom: "inception_3b/3x3_reduce"
  top: "inception_3b/3x3"
  param {
    lr_mult: 1
    decay_mult: 1
  }
  param {
    lr_mult: 2
    decay_mult: 0
  }
  convolution_param {
    num_output: 192
    pad: 1
    kernel_size: 3
    weight_filler {
      type: "xavier"
      std: 0.03
    }
    bias_filler {
      type: "constant"
      value: 0.2
    }
  }
}
layer {
  name: "inception_3b/relu_3x3"
  type: "ReLU"
  bottom: "inception_3b/3x3"
  top: "inception_3b/3x3"
}
layer {
  name: "inception_3b/5x5_reduce"
  type: "Convolution"
  bottom: "inception_3a/output"
  top: "inception_3b/5x5_reduce"
  param {
    lr_mult: 1
    decay_mult: 1
  }
  param {
    lr_mult: 2
    decay_mult: 0
  }
  convolution_param {
    num_output: 32
    kernel_size: 1
    weight_filler {
      type: "xavier"
      std: 0.2
    }
    bias_filler {
      type: "constant"
      value: 0.2
    }
  }
}
layer {
  name: "inception_3b/relu_5x5_reduce"
  type: "ReLU"
  bottom: "inception_3b/5x5_reduce"
  top: "inception_3b/5x5_reduce"
}
layer {
  name: "inception_3b/5x5"
  type: "Convolution"
  bottom: "inception_3b/5x5_reduce"
  top: "inception_3b/5x5"
  param {
    lr_mult: 1
    decay_mult: 1
  }
  param {
    lr_mult: 2
    decay_mult: 0
  }
  convolution_param {
    num_output: 96
    pad: 2
    kernel_size: 5
    weight_filler {
      type: "xavier"
      std: 0.03
    }
    bias_filler {
      type: "constant"
      value: 0.2
    }
  }
}
layer {
  name: "inception_3b/relu_5x5"
  type: "ReLU"
  bottom: "inception_3b/5x5"
  top: "inception_3b/5x5"
}
layer {
  name: "inception_3b/pool"
  type: "Pooling"
  bottom: "inception_3a/output"
  top: "inception_3b/pool"
  pooling_param {
    pool: MAX
    kernel_size: 3
    stride: 1
    pad: 1
  }
}
layer {
  name: "inception_3b/pool_proj"
  type: "Convolution"
  bottom: "inception_3b/pool"
  top: "inception_3b/pool_proj"
  param {
    lr_mult: 1
    decay_mult: 1
  }
  param {
    lr_mult: 2
    decay_mult: 0
  }
  convolution_param {
    num_output: 64
    kernel_size: 1
    weight_filler {
      type: "xavier"
      std: 0.1
    }
    bias_filler {
      type: "constant"
      value: 0.2
    }
  }
}
layer {
  name: "inception_3b/relu_pool_proj"
  type: "ReLU"
  bottom: "inception_3b/pool_proj"
  top: "inception_3b/pool_proj"
}
layer {
  name: "inception_3b/output"
  type: "Concat"
  bottom: "inception_3b/1x1"
  bottom: "inception_3b/3x3"
  bottom: "inception_3b/5x5"
  bottom: "inception_3b/pool_proj"
  top: "inception_3b/output"
}
layer {
  name: "pool3/3x3_s2"
  type: "Pooling"
  bottom: "inception_3b/output"
  top: "pool3/3x3_s2"
  pooling_param {
    pool: MAX
    kernel_size: 3
    stride: 2
  }
}
layer {
  name: "inception_4a/1x1"
  type: "Convolution"
  bottom: "pool3/3x3_s2"
  top: "inception_4a/1x1"
  param {
    lr_mult: 1
    decay_mult: 1
  }
  param {
    lr_mult: 2
    decay_mult: 0
  }
  convolution_param {
    num_output: 192
    kernel_size: 1
    weight_filler {
      type: "xavier"
      std: 0.03
    }
    bias_filler {
      type: "constant"
      value: 0.2
    }
  }
}
layer {
  name: "inception_4a/relu_1x1"
  type: "ReLU"
  bottom: "inception_4a/1x1"
  top: "inception_4a/1x1"
}
layer {
  name: "inception_4a/3x3_reduce"
  type: "Convolution"
  bottom: "pool3/3x3_s2"
  top: "inception_4a/3x3_reduce"
  param {
    lr_mult: 1
    decay_mult: 1
  }
  param {
    lr_mult: 2
    decay_mult: 0
  }
  convolution_param {
    num_output: 96
    kernel_size: 1
    weight_filler {
      type: "xavier"
      std: 0.09
    }
    bias_filler {
      type: "constant"
      value: 0.2
    }
  }
}
layer {
  name: "inception_4a/relu_3x3_reduce"
  type: "ReLU"
  bottom: "inception_4a/3x3_reduce"
  top: "inception_4a/3x3_reduce"
}
layer {
  name: "inception_4a/3x3"
  type: "Convolution"
  bottom: "inception_4a/3x3_reduce"
  top: "inception_4a/3x3"
  param {
    lr_mult: 1
    decay_mult: 1
  }
  param {
    lr_mult: 2
    decay_mult: 0
  }
  convolution_param {
    num_output: 208
    pad: 1
    kernel_size: 3
    weight_filler {
      type: "xavier"
      std: 0.03
    }
    bias_filler {
      type: "constant"
      value: 0.2
    }
  }
}
layer {
  name: "inception_4a/relu_3x3"
  type: "ReLU"
  bottom: "inception_4a/3x3"
  top: "inception_4a/3x3"
}
layer {
  name: "inception_4a/5x5_reduce"
  type: "Convolution"
  bottom: "pool3/3x3_s2"
  top: "inception_4a/5x5_reduce"
  param {
    lr_mult: 1
    decay_mult: 1
  }
  param {
    lr_mult: 2
    decay_mult: 0
  }
  convolution_param {
    num_output: 16
    kernel_size: 1
    weight_filler {
      type: "xavier"
      std: 0.2
    }
    bias_filler {
      type: "constant"
      value: 0.2
    }
  }
}
layer {
  name: "inception_4a/relu_5x5_reduce"
  type: "ReLU"
  bottom: "inception_4a/5x5_reduce"
  top: "inception_4a/5x5_reduce"
}
layer {
  name: "inception_4a/5x5"
  type: "Convolution"
  bottom: "inception_4a/5x5_reduce"
  top: "inception_4a/5x5"
  param {
    lr_mult: 1
    decay_mult: 1
  }
  param {
    lr_mult: 2
    decay_mult: 0
  }
  convolution_param {
    num_output: 48
    pad: 2
    kernel_size: 5
    weight_filler {
      type: "xavier"
      std: 0.03
    }
    bias_filler {
      type: "constant"
      value: 0.2
    }
  }
}
layer {
  name: "inception_4a/relu_5x5"
  type: "ReLU"
  bottom: "inception_4a/5x5"
  top: "inception_4a/5x5"
}
layer {
  name: "inception_4a/pool"
  type: "Pooling"
  bottom: "pool3/3x3_s2"
  top: "inception_4a/pool"
  pooling_param {
    pool: MAX
    kernel_size: 3
    stride: 1
    pad: 1
  }
}
layer {
  name: "inception_4a/pool_proj"
  type: "Convolution"
  bottom: "inception_4a/pool"
  top: "inception_4a/pool_proj"
  param {
    lr_mult: 1
    decay_mult: 1
  }
  param {
    lr_mult: 2
    decay_mult: 0
  }
  convolution_param {
    num_output: 64
    kernel_size: 1
    weight_filler {
      type: "xavier"
      std: 0.1
    }
    bias_filler {
      type: "constant"
      value: 0.2
    }
  }
}
layer {
  name: "inception_4a/relu_pool_proj"
  type: "ReLU"
  bottom: "inception_4a/pool_proj"
  top: "inception_4a/pool_proj"
}
layer {
  name: "inception_4a/output"
  type: "Concat"
  bottom: "inception_4a/1x1"
  bottom: "inception_4a/3x3"
  bottom: "inception_4a/5x5"
  bottom: "inception_4a/pool_proj"
  top: "inception_4a/output"
}
layer {
  name: "loss1/ave_pool"
  type: "Pooling"
  bottom: "inception_4a/output"
  top: "loss1/ave_pool"
  pooling_param {
    pool: AVE
    kernel_size: 5
    stride: 3
  }
}
layer {
  name: "loss1/conv"
  type: "Convolution"
  bottom: "loss1/ave_pool"
  top: "loss1/conv"
  param {
    lr_mult: 1
    decay_mult: 1
  }
  param {
    lr_mult: 2
    decay_mult: 0
  }
  convolution_param {
    num_output: 128
    kernel_size: 1
    weight_filler {
      type: "xavier"
      std: 0.08
    }
    bias_filler {
      type: "constant"
      value: 0.2
    }
  }
}
layer {
  name: "loss1/relu_conv"
  type: "ReLU"
  bottom: "loss1/conv"
  top: "loss1/conv"
}
layer {
  name: "loss1/fc"
  type: "InnerProduct"
  bottom: "loss1/conv"
  top: "loss1/fc"
  param {
    lr_mult: 1
    decay_mult: 1
  }
  param {
    lr_mult: 2
    decay_mult: 0
  }
  inner_product_param {
    num_output: 1024
    weight_filler {
      type: "xavier"
      std: 0.02
    }
    bias_filler {
      type: "constant"
      value: 0.2
    }
  }
}
layer {
  name: "loss1/relu_fc"
  type: "ReLU"
  bottom: "loss1/fc"
  top: "loss1/fc"
}
layer {
  name: "loss1/drop_fc"
  type: "Dropout"
  bottom: "loss1/fc"
  top: "loss1/fc"
  dropout_param {
    dropout_ratio: 0.7
  }
}
layer {
  name: "loss1/classifier_plantvillage"
  type: "InnerProduct"
  bottom: "loss1/fc"
  top: "loss1/classifier_plantvillage"
  param {
    lr_mult: 1
    decay_mult: 1
  }
  param {
    lr_mult: 2
    decay_mult: 0
  }
  inner_product_param {
    num_output: 38
    weight_filler {
      type: "xavier"
      std: 0.0009765625
    }
    bias_filler {
      type: "constant"
      value: 0
    }
  }
}
layer {
  name: "inception_4b/1x1"
  type: "Convolution"
  bottom: "inception_4a/output"
  top: "inception_4b/1x1"
  param {
    lr_mult: 1
    decay_mult: 1
  }
  param {
    lr_mult: 2
    decay_mult: 0
  }
  convolution_param {
    num_output: 160
    kernel_size: 1
    weight_filler {
      type: "xavier"
      std: 0.03
    }
    bias_filler {
      type: "constant"
      value: 0.2
    }
  }
}
layer {
  name: "inception_4b/relu_1x1"
  type: "ReLU"
  bottom: "inception_4b/1x1"
  top: "inception_4b/1x1"
}
layer {
  name: "inception_4b/3x3_reduce"
  type: "Convolution"
  bottom: "inception_4a/output"
  top: "inception_4b/3x3_reduce"
  param {
    lr_mult: 1
    decay_mult: 1
  }
  param {
    lr_mult: 2
    decay_mult: 0
  }
  convolution_param {
    num_output: 112
    kernel_size: 1
    weight_filler {
      type: "xavier"
      std: 0.09
    }
    bias_filler {
      type: "constant"
      value: 0.2
    }
  }
}
layer {
  name: "inception_4b/relu_3x3_reduce"
  type: "ReLU"
  bottom: "inception_4b/3x3_reduce"
  top: "inception_4b/3x3_reduce"
}
layer {
  name: "inception_4b/3x3"
  type: "Convolution"
  bottom: "inception_4b/3x3_reduce"
  top: "inception_4b/3x3"
  param {
    lr_mult: 1
    decay_mult: 1
  }
  param {
    lr_mult: 2
    decay_mult: 0
  }
  convolution_param {
    num_output: 224
    pad: 1
    kernel_size: 3
    weight_filler {
      type: "xavier"
      std: 0.03
    }
    bias_filler {
      type: "constant"
      value: 0.2
    }
  }
}
layer {
  name: "inception_4b/relu_3x3"
  type: "ReLU"
  bottom: "inception_4b/3x3"
  top: "inception_4b/3x3"
}
layer {
  name: "inception_4b/5x5_reduce"
  type: "Convolution"
  bottom: "inception_4a/output"
  top: "inception_4b/5x5_reduce"
  param {
    lr_mult: 1
    decay_mult: 1
  }
  param {
    lr_mult: 2
    decay_mult: 0
  }
  convolution_param {
    num_output: 24
    kernel_size: 1
    weight_filler {
      type: "xavier"
      std: 0.2
    }
    bias_filler {
      type: "constant"
      value: 0.2
    }
  }
}
layer {
  name: "inception_4b/relu_5x5_reduce"
  type: "ReLU"
  bottom: "inception_4b/5x5_reduce"
  top: "inception_4b/5x5_reduce"
}
layer {
  name: "inception_4b/5x5"
  type: "Convolution"
  bottom: "inception_4b/5x5_reduce"
  top: "inception_4b/5x5"
  param {
    lr_mult: 1
    decay_mult: 1
  }
  param {
    lr_mult: 2
    decay_mult: 0
  }
  convolution_param {
    num_output: 64
    pad: 2
    kernel_size: 5
    weight_filler {
      type: "xavier"
      std: 0.03
    }
    bias_filler {
      type: "constant"
      value: 0.2
    }
  }
}
layer {
  name: "inception_4b/relu_5x5"
  type: "ReLU"
  bottom: "inception_4b/5x5"
  top: "inception_4b/5x5"
}
layer {
  name: "inception_4b/pool"
  type: "Pooling"
  bottom: "inception_4a/output"
  top: "inception_4b/pool"
  pooling_param {
    pool: MAX
    kernel_size: 3
    stride: 1
    pad: 1
  }
}
layer {
  name: "inception_4b/pool_proj"
  type: "Convolution"
  bottom: "inception_4b/pool"
  top: "inception_4b/pool_proj"
  param {
    lr_mult: 1
    decay_mult: 1
  }
  param {
    lr_mult: 2
    decay_mult: 0
  }
  convolution_param {
    num_output: 64
    kernel_size: 1
    weight_filler {
      type: "xavier"
      std: 0.1
    }
    bias_filler {
      type: "constant"
      value: 0.2
    }
  }
}
layer {
  name: "inception_4b/relu_pool_proj"
  type: "ReLU"
  bottom: "inception_4b/pool_proj"
  top: "inception_4b/pool_proj"
}
layer {
  name: "inception_4b/output"
  type: "Concat"
  bottom: "inception_4b/1x1"
  bottom: "inception_4b/3x3"
  bottom: "inception_4b/5x5"
  bottom: "inception_4b/pool_proj"
  top: "inception_4b/output"
}
layer {
  name: "inception_4c/1x1"
  type: "Convolution"
  bottom: "inception_4b/output"
  top: "inception_4c/1x1"
  param {
    lr_mult: 1
    decay_mult: 1
  }
  param {
    lr_mult: 2
    decay_mult: 0
  }
  convolution_param {
    num_output: 128
    kernel_size: 1
    weight_filler {
      type: "xavier"
      std: 0.03
    }
    bias_filler {
      type: "constant"
      value: 0.2
    }
  }
}
layer {
  name: "inception_4c/relu_1x1"
  type: "ReLU"
  bottom: "inception_4c/1x1"
  top: "inception_4c/1x1"
}
layer {
  name: "inception_4c/3x3_reduce"
  type: "Convolution"
  bottom: "inception_4b/output"
  top: "inception_4c/3x3_reduce"
  param {
    lr_mult: 1
    decay_mult: 1
  }
  param {
    lr_mult: 2
    decay_mult: 0
  }
  convolution_param {
    num_output: 128
    kernel_size: 1
    weight_filler {
      type: "xavier"
      std: 0.09
    }
    bias_filler {
      type: "constant"
      value: 0.2
    }
  }
}
layer {
  name: "inception_4c/relu_3x3_reduce"
  type: "ReLU"
  bottom: "inception_4c/3x3_reduce"
  top: "inception_4c/3x3_reduce"
}
layer {
  name: "inception_4c/3x3"
  type: "Convolution"
  bottom: "inception_4c/3x3_reduce"
  top: "inception_4c/3x3"
  param {
    lr_mult: 1
    decay_mult: 1
  }
  param {
    lr_mult: 2
    decay_mult: 0
  }
  convolution_param {
    num_output: 256
    pad: 1
    kernel_size: 3
    weight_filler {
      type: "xavier"
      std: 0.03
    }
    bias_filler {
      type: "constant"
      value: 0.2
    }
  }
}
layer {
  name: "inception_4c/relu_3x3"
  type: "ReLU"
  bottom: "inception_4c/3x3"
  top: "inception_4c/3x3"
}
layer {
  name: "inception_4c/5x5_reduce"
  type: "Convolution"
  bottom: "inception_4b/output"
  top: "inception_4c/5x5_reduce"
  param {
    lr_mult: 1
    decay_mult: 1
  }
  param {
    lr_mult: 2
    decay_mult: 0
  }
  convolution_param {
    num_output: 24
    kernel_size: 1
    weight_filler {
      type: "xavier"
      std: 0.2
    }
    bias_filler {
      type: "constant"
      value: 0.2
    }
  }
}
layer {
  name: "inception_4c/relu_5x5_reduce"
  type: "ReLU"
  bottom: "inception_4c/5x5_reduce"
  top: "inception_4c/5x5_reduce"
}
layer {
  name: "inception_4c/5x5"
  type: "Convolution"
  bottom: "inception_4c/5x5_reduce"
  top: "inception_4c/5x5"
  param {
    lr_mult: 1
    decay_mult: 1
  }
  param {
    lr_mult: 2
    decay_mult: 0
  }
  convolution_param {
    num_output: 64
    pad: 2
    kernel_size: 5
    weight_filler {
      type: "xavier"
      std: 0.03
    }
    bias_filler {
      type: "constant"
      value: 0.2
    }
  }
}
layer {
  name: "inception_4c/relu_5x5"
  type: "ReLU"
  bottom: "inception_4c/5x5"
  top: "inception_4c/5x5"
}
layer {
  name: "inception_4c/pool"
  type: "Pooling"
  bottom: "inception_4b/output"
  top: "inception_4c/pool"
  pooling_param {
    pool: MAX
    kernel_size: 3
    stride: 1
    pad: 1
  }
}
layer {
  name: "inception_4c/pool_proj"
  type: "Convolution"
  bottom: "inception_4c/pool"
  top: "inception_4c/pool_proj"
  param {
    lr_mult: 1
    decay_mult: 1
  }
  param {
    lr_mult: 2
    decay_mult: 0
  }
  convolution_param {
    num_output: 64
    kernel_size: 1
    weight_filler {
      type: "xavier"
      std: 0.1
    }
    bias_filler {
      type: "constant"
      value: 0.2
    }
  }
}
layer {
  name: "inception_4c/relu_pool_proj"
  type: "ReLU"
  bottom: "inception_4c/pool_proj"
  top: "inception_4c/pool_proj"
}
layer {
  name: "inception_4c/output"
  type: "Concat"
  bottom: "inception_4c/1x1"
  bottom: "inception_4c/3x3"
  bottom: "inception_4c/5x5"
  bottom: "inception_4c/pool_proj"
  top: "inception_4c/output"
}
layer {
  name: "inception_4d/1x1"
  type: "Convolution"
  bottom: "inception_4c/output"
  top: "inception_4d/1x1"
  param {
    lr_mult: 1
    decay_mult: 1
  }
  param {
    lr_mult: 2
    decay_mult: 0
  }
  convolution_param {
    num_output: 112
    kernel_size: 1
    weight_filler {
      type: "xavier"
      std: 0.03
    }
    bias_filler {
      type: "constant"
      value: 0.2
    }
  }
}
layer {
  name: "inception_4d/relu_1x1"
  type: "ReLU"
  bottom: "inception_4d/1x1"
  top: "inception_4d/1x1"
}
layer {
  name: "inception_4d/3x3_reduce"
  type: "Convolution"
  bottom: "inception_4c/output"
  top: "inception_4d/3x3_reduce"
  param {
    lr_mult: 1
    decay_mult: 1
  }
  param {
    lr_mult: 2
    decay_mult: 0
  }
  convolution_param {
    num_output: 144
    kernel_size: 1
    weight_filler {
      type: "xavier"
      std: 0.09
    }
    bias_filler {
      type: "constant"
      value: 0.2
    }
  }
}
layer {
  name: "inception_4d/relu_3x3_reduce"
  type: "ReLU"
  bottom: "inception_4d/3x3_reduce"
  top: "inception_4d/3x3_reduce"
}
layer {
  name: "inception_4d/3x3"
  type: "Convolution"
  bottom: "inception_4d/3x3_reduce"
  top: "inception_4d/3x3"
  param {
    lr_mult: 1
    decay_mult: 1
  }
  param {
    lr_mult: 2
    decay_mult: 0
  }
  convolution_param {
    num_output: 288
    pad: 1
    kernel_size: 3
    weight_filler {
      type: "xavier"
      std: 0.03
    }
    bias_filler {
      type: "constant"
      value: 0.2
    }
  }
}
layer {
  name: "inception_4d/relu_3x3"
  type: "ReLU"
  bottom: "inception_4d/3x3"
  top: "inception_4d/3x3"
}
layer {
  name: "inception_4d/5x5_reduce"
  type: "Convolution"
  bottom: "inception_4c/output"
  top: "inception_4d/5x5_reduce"
  param {
    lr_mult: 1
    decay_mult: 1
  }
  param {
    lr_mult: 2
    decay_mult: 0
  }
  convolution_param {
    num_output: 32
    kernel_size: 1
    weight_filler {
      type: "xavier"
      std: 0.2
    }
    bias_filler {
      type: "constant"
      value: 0.2
    }
  }
}
layer {
  name: "inception_4d/relu_5x5_reduce"
  type: "ReLU"
  bottom: "inception_4d/5x5_reduce"
  top: "inception_4d/5x5_reduce"
}
layer {
  name: "inception_4d/5x5"
  type: "Convolution"
  bottom: "inception_4d/5x5_reduce"
  top: "inception_4d/5x5"
  param {
    lr_mult: 1
    decay_mult: 1
  }
  param {
    lr_mult: 2
    decay_mult: 0
  }
  convolution_param {
    num_output: 64
    pad: 2
    kernel_size: 5
    weight_filler {
      type: "xavier"
      std: 0.03
    }
    bias_filler {
      type: "constant"
      value: 0.2
    }
  }
}
layer {
  name: "inception_4d/relu_5x5"
  type: "ReLU"
  bottom: "inception_4d/5x5"
  top: "inception_4d/5x5"
}
layer {
  name: "inception_4d/pool"
  type: "Pooling"
  bottom: "inception_4c/output"
  top: "inception_4d/pool"
  pooling_param {
    pool: MAX
    kernel_size: 3
    stride: 1
    pad: 1
  }
}
layer {
  name: "inception_4d/pool_proj"
  type: "Convolution"
  bottom: "inception_4d/pool"
  top: "inception_4d/pool_proj"
  param {
    lr_mult: 1
    decay_mult: 1
  }
  param {
    lr_mult: 2
    decay_mult: 0
  }
  convolution_param {
    num_output: 64
    kernel_size: 1
    weight_filler {
      type: "xavier"
      std: 0.1
    }
    bias_filler {
      type: "constant"
      value: 0.2
    }
  }
}
layer {
  name: "inception_4d/relu_pool_proj"
  type: "ReLU"
  bottom: "inception_4d/pool_proj"
  top: "inception_4d/pool_proj"
}
layer {
  name: "inception_4d/output"
  type: "Concat"
  bottom: "inception_4d/1x1"
  bottom: "inception_4d/3x3"
  bottom: "inception_4d/5x5"
  bottom: "inception_4d/pool_proj"
  top: "inception_4d/output"
}
layer {
  name: "loss2/ave_pool"
  type: "Pooling"
  bottom: "inception_4d/output"
  top: "loss2/ave_pool"
  pooling_param {
    pool: AVE
    kernel_size: 5
    stride: 3
  }
}
layer {
  name: "loss2/conv"
  type: "Convolution"
  bottom: "loss2/ave_pool"
  top: "loss2/conv"
  param {
    lr_mult: 1
    decay_mult: 1
  }
  param {
    lr_mult: 2
    decay_mult: 0
  }
  convolution_param {
    num_output: 128
    kernel_size: 1
    weight_filler {
      type: "xavier"
      std: 0.08
    }
    bias_filler {
      type: "constant"
      value: 0.2
    }
  }
}
layer {
  name: "loss2/relu_conv"
  type: "ReLU"
  bottom: "loss2/conv"
  top: "loss2/conv"
}
layer {
  name: "loss2/fc"
  type: "InnerProduct"
  bottom: "loss2/conv"
  top: "loss2/fc"
  param {
    lr_mult: 1
    decay_mult: 1
  }
  param {
    lr_mult: 2
    decay_mult: 0
  }
  inner_product_param {
    num_output: 1024
    weight_filler {
      type: "xavier"
      std: 0.02
    }
    bias_filler {
      type: "constant"
      value: 0.2
    }
  }
}
layer {
  name: "loss2/relu_fc"
  type: "ReLU"
  bottom: "loss2/fc"
  top: "loss2/fc"
}
layer {
  name: "loss2/drop_fc"
  type: "Dropout"
  bottom: "loss2/fc"
  top: "loss2/fc"
  dropout_param {
    dropout_ratio: 0.7
  }
}
layer {
  name: "loss2/classifier_plantvillage"
  type: "InnerProduct"
  bottom: "loss2/fc"
  top: "loss2/classifier_plantvillage"
  param {
    lr_mult: 1
    decay_mult: 1
  }
  param {
    lr_mult: 2
    decay_mult: 0
  }
  inner_product_param {
    num_output: 38
    weight_filler {
      type: "xavier"
      std: 0.0009765625
    }
    bias_filler {
      type: "constant"
      value: 0
    }
  }
}
layer {
  name: "inception_4e/1x1"
  type: "Convolution"
  bottom: "inception_4d/output"
  top: "inception_4e/1x1"
  param {
    lr_mult: 1
    decay_mult: 1
  }
  param {
    lr_mult: 2
    decay_mult: 0
  }
  convolution_param {
    num_output: 256
    kernel_size: 1
    weight_filler {
      type: "xavier"
      std: 0.03
    }
    bias_filler {
      type: "constant"
      value: 0.2
    }
  }
}
layer {
  name: "inception_4e/relu_1x1"
  type: "ReLU"
  bottom: "inception_4e/1x1"
  top: "inception_4e/1x1"
}
layer {
  name: "inception_4e/3x3_reduce"
  type: "Convolution"
  bottom: "inception_4d/output"
  top: "inception_4e/3x3_reduce"
  param {
    lr_mult: 1
    decay_mult: 1
  }
  param {
    lr_mult: 2
    decay_mult: 0
  }
  convolution_param {
    num_output: 160
    kernel_size: 1
    weight_filler {
      type: "xavier"
      std: 0.09
    }
    bias_filler {
      type: "constant"
      value: 0.2
    }
  }
}
layer {
  name: "inception_4e/relu_3x3_reduce"
  type: "ReLU"
  bottom: "inception_4e/3x3_reduce"
  top: "inception_4e/3x3_reduce"
}
layer {
  name: "inception_4e/3x3"
  type: "Convolution"
  bottom: "inception_4e/3x3_reduce"
  top: "inception_4e/3x3"
  param {
    lr_mult: 1
    decay_mult: 1
  }
  param {
    lr_mult: 2
    decay_mult: 0
  }
  convolution_param {
    num_output: 320
    pad: 1
    kernel_size: 3
    weight_filler {
      type: "xavier"
      std: 0.03
    }
    bias_filler {
      type: "constant"
      value: 0.2
    }
  }
}
layer {
  name: "inception_4e/relu_3x3"
  type: "ReLU"
  bottom: "inception_4e/3x3"
  top: "inception_4e/3x3"
}
layer {
  name: "inception_4e/5x5_reduce"
  type: "Convolution"
  bottom: "inception_4d/output"
  top: "inception_4e/5x5_reduce"
  param {
    lr_mult: 1
    decay_mult: 1
  }
  param {
    lr_mult: 2
    decay_mult: 0
  }
  convolution_param {
    num_output: 32
    kernel_size: 1
    weight_filler {
      type: "xavier"
      std: 0.2
    }
    bias_filler {
      type: "constant"
      value: 0.2
    }
  }
}
layer {
  name: "inception_4e/relu_5x5_reduce"
  type: "ReLU"
  bottom: "inception_4e/5x5_reduce"
  top: "inception_4e/5x5_reduce"
}
layer {
  name: "inception_4e/5x5"
  type: "Convolution"
  bottom: "inception_4e/5x5_reduce"
  top: "inception_4e/
I0403 14:52:49.980614 11349 layer_factory.hpp:77] Creating layer data
I0403 14:52:49.981245 11349 net.cpp:91] Creating Layer data
I0403 14:52:49.981276 11349 net.cpp:399] data -> data
I0403 14:52:49.981330 11349 net.cpp:399] data -> label
I0403 14:52:49.981367 11349 data_transformer.cpp:25] Loading mean file from: /home/mohanty/data/final_dataset/lmdb/segmented-50-50/mean.binaryproto
I0403 14:52:49.984678 11351 db_lmdb.cpp:38] Opened lmdb /home/mohanty/data/final_dataset/lmdb/segmented-50-50/test_db
I0403 14:52:49.994237 11349 data_layer.cpp:41] output data size: 24,3,224,224
I0403 14:52:50.020983 11349 net.cpp:141] Setting up data
I0403 14:52:50.021062 11349 net.cpp:148] Top shape: 24 3 224 224 (3612672)
I0403 14:52:50.021085 11349 net.cpp:148] Top shape: 24 (24)
I0403 14:52:50.021100 11349 net.cpp:156] Memory required for data: 14450784
I0403 14:52:50.021124 11349 layer_factory.hpp:77] Creating layer label_data_1_split
I0403 14:52:50.021152 11349 net.cpp:91] Creating Layer label_data_1_split
I0403 14:52:50.021168 11349 net.cpp:425] label_data_1_split <- label
I0403 14:52:50.021199 11349 net.cpp:399] label_data_1_split -> label_data_1_split_0
I0403 14:52:50.021225 11349 net.cpp:399] label_data_1_split -> label_data_1_split_1
I0403 14:52:50.021245 11349 net.cpp:399] label_data_1_split -> label_data_1_split_2
I0403 14:52:50.021265 11349 net.cpp:399] label_data_1_split -> label_data_1_split_3
I0403 14:52:50.021284 11349 net.cpp:399] label_data_1_split -> label_data_1_split_4
I0403 14:52:50.021303 11349 net.cpp:399] label_data_1_split -> label_data_1_split_5
I0403 14:52:50.021322 11349 net.cpp:399] label_data_1_split -> label_data_1_split_6
I0403 14:52:50.021342 11349 net.cpp:399] label_data_1_split -> label_data_1_split_7
I0403 14:52:50.021363 11349 net.cpp:399] label_data_1_split -> label_data_1_split_8
I0403 14:52:50.021399 11349 net.cpp:399] label_data_1_split -> label_data_1_split_9
I0403 14:52:50.021512 11349 net.cpp:141] Setting up label_data_1_split
I0403 14:52:50.021536 11349 net.cpp:148] Top shape: 24 (24)
I0403 14:52:50.021553 11349 net.cpp:148] Top shape: 24 (24)
I0403 14:52:50.021570 11349 net.cpp:148] Top shape: 24 (24)
I0403 14:52:50.021585 11349 net.cpp:148] Top shape: 24 (24)
I0403 14:52:50.021600 11349 net.cpp:148] Top shape: 24 (24)
I0403 14:52:50.021616 11349 net.cpp:148] Top shape: 24 (24)
I0403 14:52:50.021631 11349 net.cpp:148] Top shape: 24 (24)
I0403 14:52:50.021647 11349 net.cpp:148] Top shape: 24 (24)
I0403 14:52:50.021662 11349 net.cpp:148] Top shape: 24 (24)
I0403 14:52:50.021692 11349 net.cpp:148] Top shape: 24 (24)
I0403 14:52:50.021734 11349 net.cpp:156] Memory required for data: 14451744
I0403 14:52:50.021749 11349 layer_factory.hpp:77] Creating layer conv1/7x7_s2
I0403 14:52:50.021780 11349 net.cpp:91] Creating Layer conv1/7x7_s2
I0403 14:52:50.021798 11349 net.cpp:425] conv1/7x7_s2 <- data
I0403 14:52:50.021817 11349 net.cpp:399] conv1/7x7_s2 -> conv1/7x7_s2
I0403 14:52:50.160063 11349 net.cpp:141] Setting up conv1/7x7_s2
I0403 14:52:50.160154 11349 net.cpp:148] Top shape: 24 64 112 112 (19267584)
I0403 14:52:50.160171 11349 net.cpp:156] Memory required for data: 91522080
I0403 14:52:50.160202 11349 layer_factory.hpp:77] Creating layer conv1/relu_7x7
I0403 14:52:50.160229 11349 net.cpp:91] Creating Layer conv1/relu_7x7
I0403 14:52:50.160248 11349 net.cpp:425] conv1/relu_7x7 <- conv1/7x7_s2
I0403 14:52:50.160267 11349 net.cpp:386] conv1/relu_7x7 -> conv1/7x7_s2 (in-place)
I0403 14:52:50.160537 11349 net.cpp:141] Setting up conv1/relu_7x7
I0403 14:52:50.160564 11349 net.cpp:148] Top shape: 24 64 112 112 (19267584)
I0403 14:52:50.160580 11349 net.cpp:156] Memory required for data: 168592416
I0403 14:52:50.160598 11349 layer_factory.hpp:77] Creating layer pool1/3x3_s2
I0403 14:52:50.160627 11349 net.cpp:91] Creating Layer pool1/3x3_s2
I0403 14:52:50.160645 11349 net.cpp:425] pool1/3x3_s2 <- conv1/7x7_s2
I0403 14:52:50.160665 11349 net.cpp:399] pool1/3x3_s2 -> pool1/3x3_s2
I0403 14:52:50.160743 11349 net.cpp:141] Setting up pool1/3x3_s2
I0403 14:52:50.160768 11349 net.cpp:148] Top shape: 24 64 56 56 (4816896)
I0403 14:52:50.160784 11349 net.cpp:156] Memory required for data: 187860000
I0403 14:52:50.160799 11349 layer_factory.hpp:77] Creating layer pool1/norm1
I0403 14:52:50.160822 11349 net.cpp:91] Creating Layer pool1/norm1
I0403 14:52:50.160840 11349 net.cpp:425] pool1/norm1 <- pool1/3x3_s2
I0403 14:52:50.160857 11349 net.cpp:399] pool1/norm1 -> pool1/norm1
I0403 14:52:50.161149 11349 net.cpp:141] Setting up pool1/norm1
I0403 14:52:50.161177 11349 net.cpp:148] Top shape: 24 64 56 56 (4816896)
I0403 14:52:50.161192 11349 net.cpp:156] Memory required for data: 207127584
I0403 14:52:50.161208 11349 layer_factory.hpp:77] Creating layer conv2/3x3_reduce
I0403 14:52:50.161233 11349 net.cpp:91] Creating Layer conv2/3x3_reduce
I0403 14:52:50.161250 11349 net.cpp:425] conv2/3x3_reduce <- pool1/norm1
I0403 14:52:50.161268 11349 net.cpp:399] conv2/3x3_reduce -> conv2/3x3_reduce
I0403 14:52:50.162621 11349 net.cpp:141] Setting up conv2/3x3_reduce
I0403 14:52:50.162652 11349 net.cpp:148] Top shape: 24 64 56 56 (4816896)
I0403 14:52:50.162667 11349 net.cpp:156] Memory required for data: 226395168
I0403 14:52:50.162689 11349 layer_factory.hpp:77] Creating layer conv2/relu_3x3_reduce
I0403 14:52:50.162708 11349 net.cpp:91] Creating Layer conv2/relu_3x3_reduce
I0403 14:52:50.162724 11349 net.cpp:425] conv2/relu_3x3_reduce <- conv2/3x3_reduce
I0403 14:52:50.162742 11349 net.cpp:386] conv2/relu_3x3_reduce -> conv2/3x3_reduce (in-place)
I0403 14:52:50.163000 11349 net.cpp:141] Setting up conv2/relu_3x3_reduce
I0403 14:52:50.163027 11349 net.cpp:148] Top shape: 24 64 56 56 (4816896)
I0403 14:52:50.163043 11349 net.cpp:156] Memory required for data: 245662752
I0403 14:52:50.163058 11349 layer_factory.hpp:77] Creating layer conv2/3x3
I0403 14:52:50.163079 11349 net.cpp:91] Creating Layer conv2/3x3
I0403 14:52:50.163096 11349 net.cpp:425] conv2/3x3 <- conv2/3x3_reduce
I0403 14:52:50.163115 11349 net.cpp:399] conv2/3x3 -> conv2/3x3
I0403 14:52:50.165377 11349 net.cpp:141] Setting up conv2/3x3
I0403 14:52:50.165426 11349 net.cpp:148] Top shape: 24 192 56 56 (14450688)
I0403 14:52:50.165442 11349 net.cpp:156] Memory required for data: 303465504
I0403 14:52:50.165465 11349 layer_factory.hpp:77] Creating layer conv2/relu_3x3
I0403 14:52:50.165484 11349 net.cpp:91] Creating Layer conv2/relu_3x3
I0403 14:52:50.165501 11349 net.cpp:425] conv2/relu_3x3 <- conv2/3x3
I0403 14:52:50.165519 11349 net.cpp:386] conv2/relu_3x3 -> conv2/3x3 (in-place)
I0403 14:52:50.165716 11349 net.cpp:141] Setting up conv2/relu_3x3
I0403 14:52:50.165741 11349 net.cpp:148] Top shape: 24 192 56 56 (14450688)
I0403 14:52:50.165786 11349 net.cpp:156] Memory required for data: 361268256
I0403 14:52:50.165802 11349 layer_factory.hpp:77] Creating layer conv2/norm2
I0403 14:52:50.165822 11349 net.cpp:91] Creating Layer conv2/norm2
I0403 14:52:50.165838 11349 net.cpp:425] conv2/norm2 <- conv2/3x3
I0403 14:52:50.165856 11349 net.cpp:399] conv2/norm2 -> conv2/norm2
I0403 14:52:50.166154 11349 net.cpp:141] Setting up conv2/norm2
I0403 14:52:50.166182 11349 net.cpp:148] Top shape: 24 192 56 56 (14450688)
I0403 14:52:50.166196 11349 net.cpp:156] Memory required for data: 419071008
I0403 14:52:50.166210 11349 layer_factory.hpp:77] Creating layer pool2/3x3_s2
I0403 14:52:50.166231 11349 net.cpp:91] Creating Layer pool2/3x3_s2
I0403 14:52:50.166247 11349 net.cpp:425] pool2/3x3_s2 <- conv2/norm2
I0403 14:52:50.166265 11349 net.cpp:399] pool2/3x3_s2 -> pool2/3x3_s2
I0403 14:52:50.166321 11349 net.cpp:141] Setting up pool2/3x3_s2
I0403 14:52:50.166343 11349 net.cpp:148] Top shape: 24 192 28 28 (3612672)
I0403 14:52:50.166358 11349 net.cpp:156] Memory required for data: 433521696
I0403 14:52:50.166373 11349 layer_factory.hpp:77] Creating layer pool2/3x3_s2_pool2/3x3_s2_0_split
I0403 14:52:50.166395 11349 net.cpp:91] Creating Layer pool2/3x3_s2_pool2/3x3_s2_0_split
I0403 14:52:50.166411 11349 net.cpp:425] pool2/3x3_s2_pool2/3x3_s2_0_split <- pool2/3x3_s2
I0403 14:52:50.166430 11349 net.cpp:399] pool2/3x3_s2_pool2/3x3_s2_0_split -> pool2/3x3_s2_pool2/3x3_s2_0_split_0
I0403 14:52:50.166450 11349 net.cpp:399] pool2/3x3_s2_pool2/3x3_s2_0_split -> pool2/3x3_s2_pool2/3x3_s2_0_split_1
I0403 14:52:50.166470 11349 net.cpp:399] pool2/3x3_s2_pool2/3x3_s2_0_split -> pool2/3x3_s2_pool2/3x3_s2_0_split_2
I0403 14:52:50.166488 11349 net.cpp:399] pool2/3x3_s2_pool2/3x3_s2_0_split -> pool2/3x3_s2_pool2/3x3_s2_0_split_3
I0403 14:52:50.166558 11349 net.cpp:141] Setting up pool2/3x3_s2_pool2/3x3_s2_0_split
I0403 14:52:50.166582 11349 net.cpp:148] Top shape: 24 192 28 28 (3612672)
I0403 14:52:50.166599 11349 net.cpp:148] Top shape: 24 192 28 28 (3612672)
I0403 14:52:50.166615 11349 net.cpp:148] Top shape: 24 192 28 28 (3612672)
I0403 14:52:50.166630 11349 net.cpp:148] Top shape: 24 192 28 28 (3612672)
I0403 14:52:50.166642 11349 net.cpp:156] Memory required for data: 491324448
I0403 14:52:50.166657 11349 layer_factory.hpp:77] Creating layer inception_3a/1x1
I0403 14:52:50.166679 11349 net.cpp:91] Creating Layer inception_3a/1x1
I0403 14:52:50.166697 11349 net.cpp:425] inception_3a/1x1 <- pool2/3x3_s2_pool2/3x3_s2_0_split_0
I0403 14:52:50.166714 11349 net.cpp:399] inception_3a/1x1 -> inception_3a/1x1
I0403 14:52:50.168220 11349 net.cpp:141] Setting up inception_3a/1x1
I0403 14:52:50.168249 11349 net.cpp:148] Top shape: 24 64 28 28 (1204224)
I0403 14:52:50.168264 11349 net.cpp:156] Memory required for data: 496141344
I0403 14:52:50.168283 11349 layer_factory.hpp:77] Creating layer inception_3a/relu_1x1
I0403 14:52:50.168303 11349 net.cpp:91] Creating Layer inception_3a/relu_1x1
I0403 14:52:50.168320 11349 net.cpp:425] inception_3a/relu_1x1 <- inception_3a/1x1
I0403 14:52:50.168339 11349 net.cpp:386] inception_3a/relu_1x1 -> inception_3a/1x1 (in-place)
I0403 14:52:50.168551 11349 net.cpp:141] Setting up inception_3a/relu_1x1
I0403 14:52:50.168576 11349 net.cpp:148] Top shape: 24 64 28 28 (1204224)
I0403 14:52:50.168591 11349 net.cpp:156] Memory required for data: 500958240
I0403 14:52:50.168606 11349 layer_factory.hpp:77] Creating layer inception_3a/3x3_reduce
I0403 14:52:50.168627 11349 net.cpp:91] Creating Layer inception_3a/3x3_reduce
I0403 14:52:50.168644 11349 net.cpp:425] inception_3a/3x3_reduce <- pool2/3x3_s2_pool2/3x3_s2_0_split_1
I0403 14:52:50.168665 11349 net.cpp:399] inception_3a/3x3_reduce -> inception_3a/3x3_reduce
I0403 14:52:50.170303 11349 net.cpp:141] Setting up inception_3a/3x3_reduce
I0403 14:52:50.170333 11349 net.cpp:148] Top shape: 24 96 28 28 (1806336)
I0403 14:52:50.170349 11349 net.cpp:156] Memory required for data: 508183584
I0403 14:52:50.170370 11349 layer_factory.hpp:77] Creating layer inception_3a/relu_3x3_reduce
I0403 14:52:50.170410 11349 net.cpp:91] Creating Layer inception_3a/relu_3x3_reduce
I0403 14:52:50.170428 11349 net.cpp:425] inception_3a/relu_3x3_reduce <- inception_3a/3x3_reduce
I0403 14:52:50.170446 11349 net.cpp:386] inception_3a/relu_3x3_reduce -> inception_3a/3x3_reduce (in-place)
I0403 14:52:50.170621 11349 net.cpp:141] Setting up inception_3a/relu_3x3_reduce
I0403 14:52:50.170644 11349 net.cpp:148] Top shape: 24 96 28 28 (1806336)
I0403 14:52:50.170658 11349 net.cpp:156] Memory required for data: 515408928
I0403 14:52:50.170673 11349 layer_factory.hpp:77] Creating layer inception_3a/3x3
I0403 14:52:50.170694 11349 net.cpp:91] Creating Layer inception_3a/3x3
I0403 14:52:50.170711 11349 net.cpp:425] inception_3a/3x3 <- inception_3a/3x3_reduce
I0403 14:52:50.170732 11349 net.cpp:399] inception_3a/3x3 -> inception_3a/3x3
I0403 14:52:50.172312 11349 net.cpp:141] Setting up inception_3a/3x3
I0403 14:52:50.172340 11349 net.cpp:148] Top shape: 24 128 28 28 (2408448)
I0403 14:52:50.172358 11349 net.cpp:156] Memory required for data: 525042720
I0403 14:52:50.172375 11349 layer_factory.hpp:77] Creating layer inception_3a/relu_3x3
I0403 14:52:50.172405 11349 net.cpp:91] Creating Layer inception_3a/relu_3x3
I0403 14:52:50.172421 11349 net.cpp:425] inception_3a/relu_3x3 <- inception_3a/3x3
I0403 14:52:50.172440 11349 net.cpp:386] inception_3a/relu_3x3 -> inception_3a/3x3 (in-place)
I0403 14:52:50.172704 11349 net.cpp:141] Setting up inception_3a/relu_3x3
I0403 14:52:50.172732 11349 net.cpp:148] Top shape: 24 128 28 28 (2408448)
I0403 14:52:50.172749 11349 net.cpp:156] Memory required for data: 534676512
I0403 14:52:50.172762 11349 layer_factory.hpp:77] Creating layer inception_3a/5x5_reduce
I0403 14:52:50.172783 11349 net.cpp:91] Creating Layer inception_3a/5x5_reduce
I0403 14:52:50.172799 11349 net.cpp:425] inception_3a/5x5_reduce <- pool2/3x3_s2_pool2/3x3_s2_0_split_2
I0403 14:52:50.172817 11349 net.cpp:399] inception_3a/5x5_reduce -> inception_3a/5x5_reduce
I0403 14:52:50.173737 11349 net.cpp:141] Setting up inception_3a/5x5_reduce
I0403 14:52:50.173764 11349 net.cpp:148] Top shape: 24 16 28 28 (301056)
I0403 14:52:50.173780 11349 net.cpp:156] Memory required for data: 535880736
I0403 14:52:50.173799 11349 layer_factory.hpp:77] Creating layer inception_3a/relu_5x5_reduce
I0403 14:52:50.173815 11349 net.cpp:91] Creating Layer inception_3a/relu_5x5_reduce
I0403 14:52:50.173830 11349 net.cpp:425] inception_3a/relu_5x5_reduce <- inception_3a/5x5_reduce
I0403 14:52:50.173851 11349 net.cpp:386] inception_3a/relu_5x5_reduce -> inception_3a/5x5_reduce (in-place)
I0403 14:52:50.174139 11349 net.cpp:141] Setting up inception_3a/relu_5x5_reduce
I0403 14:52:50.174163 11349 net.cpp:148] Top shape: 24 16 28 28 (301056)
I0403 14:52:50.174177 11349 net.cpp:156] Memory required for data: 537084960
I0403 14:52:50.174191 11349 layer_factory.hpp:77] Creating layer inception_3a/5x5
I0403 14:52:50.174212 11349 net.cpp:91] Creating Layer inception_3a/5x5
I0403 14:52:50.174229 11349 net.cpp:425] inception_3a/5x5 <- inception_3a/5x5_reduce
I0403 14:52:50.174249 11349 net.cpp:399] inception_3a/5x5 -> inception_3a/5x5
I0403 14:52:50.175256 11349 net.cpp:141] Setting up inception_3a/5x5
I0403 14:52:50.175282 11349 net.cpp:148] Top shape: 24 32 28 28 (602112)
I0403 14:52:50.175297 11349 net.cpp:156] Memory required for data: 539493408
I0403 14:52:50.175318 11349 layer_factory.hpp:77] Creating layer inception_3a/relu_5x5
I0403 14:52:50.175334 11349 net.cpp:91] Creating Layer inception_3a/relu_5x5
I0403 14:52:50.175350 11349 net.cpp:425] inception_3a/relu_5x5 <- inception_3a/5x5
I0403 14:52:50.175366 11349 net.cpp:386] inception_3a/relu_5x5 -> inception_3a/5x5 (in-place)
I0403 14:52:50.175541 11349 net.cpp:141] Setting up inception_3a/relu_5x5
I0403 14:52:50.175565 11349 net.cpp:148] Top shape: 24 32 28 28 (602112)
I0403 14:52:50.175580 11349 net.cpp:156] Memory required for data: 541901856
I0403 14:52:50.175593 11349 layer_factory.hpp:77] Creating layer inception_3a/pool
I0403 14:52:50.175609 11349 net.cpp:91] Creating Layer inception_3a/pool
I0403 14:52:50.175638 11349 net.cpp:425] inception_3a/pool <- pool2/3x3_s2_pool2/3x3_s2_0_split_3
I0403 14:52:50.175659 11349 net.cpp:399] inception_3a/pool -> inception_3a/pool
I0403 14:52:50.175715 11349 net.cpp:141] Setting up inception_3a/pool
I0403 14:52:50.175737 11349 net.cpp:148] Top shape: 24 192 28 28 (3612672)
I0403 14:52:50.175751 11349 net.cpp:156] Memory required for data: 556352544
I0403 14:52:50.175765 11349 layer_factory.hpp:77] Creating layer inception_3a/pool_proj
I0403 14:52:50.175788 11349 net.cpp:91] Creating Layer inception_3a/pool_proj
I0403 14:52:50.175806 11349 net.cpp:425] inception_3a/pool_proj <- inception_3a/pool
I0403 14:52:50.175823 11349 net.cpp:399] inception_3a/pool_proj -> inception_3a/pool_proj
I0403 14:52:50.176753 11349 net.cpp:141] Setting up inception_3a/pool_proj
I0403 14:52:50.176779 11349 net.cpp:148] Top shape: 24 32 28 28 (602112)
I0403 14:52:50.176794 11349 net.cpp:156] Memory required for data: 558760992
I0403 14:52:50.176816 11349 layer_factory.hpp:77] Creating layer inception_3a/relu_pool_proj
I0403 14:52:50.176836 11349 net.cpp:91] Creating Layer inception_3a/relu_pool_proj
I0403 14:52:50.176851 11349 net.cpp:425] inception_3a/relu_pool_proj <- inception_3a/pool_proj
I0403 14:52:50.176870 11349 net.cpp:386] inception_3a/relu_pool_proj -> inception_3a/pool_proj (in-place)
I0403 14:52:50.177141 11349 net.cpp:141] Setting up inception_3a/relu_pool_proj
I0403 14:52:50.177168 11349 net.cpp:148] Top shape: 24 32 28 28 (602112)
I0403 14:52:50.177183 11349 net.cpp:156] Memory required for data: 561169440
I0403 14:52:50.177197 11349 layer_factory.hpp:77] Creating layer inception_3a/output
I0403 14:52:50.177214 11349 net.cpp:91] Creating Layer inception_3a/output
I0403 14:52:50.177229 11349 net.cpp:425] inception_3a/output <- inception_3a/1x1
I0403 14:52:50.177244 11349 net.cpp:425] inception_3a/output <- inception_3a/3x3
I0403 14:52:50.177259 11349 net.cpp:425] inception_3a/output <- inception_3a/5x5
I0403 14:52:50.177274 11349 net.cpp:425] inception_3a/output <- inception_3a/pool_proj
I0403 14:52:50.177292 11349 net.cpp:399] inception_3a/output -> inception_3a/output
I0403 14:52:50.177335 11349 net.cpp:141] Setting up inception_3a/output
I0403 14:52:50.177361 11349 net.cpp:148] Top shape: 24 256 28 28 (4816896)
I0403 14:52:50.177374 11349 net.cpp:156] Memory required for data: 580437024
I0403 14:52:50.177392 11349 layer_factory.hpp:77] Creating layer inception_3a/output_inception_3a/output_0_split
I0403 14:52:50.177412 11349 net.cpp:91] Creating Layer inception_3a/output_inception_3a/output_0_split
I0403 14:52:50.177428 11349 net.cpp:425] inception_3a/output_inception_3a/output_0_split <- inception_3a/output
I0403 14:52:50.177445 11349 net.cpp:399] inception_3a/output_inception_3a/output_0_split -> inception_3a/output_inception_3a/output_0_split_0
I0403 14:52:50.177464 11349 net.cpp:399] inception_3a/output_inception_3a/output_0_split -> inception_3a/output_inception_3a/output_0_split_1
I0403 14:52:50.177487 11349 net.cpp:399] inception_3a/output_inception_3a/output_0_split -> inception_3a/output_inception_3a/output_0_split_2
I0403 14:52:50.177507 11349 net.cpp:399] inception_3a/output_inception_3a/output_0_split -> inception_3a/output_inception_3a/output_0_split_3
I0403 14:52:50.177577 11349 net.cpp:141] Setting up inception_3a/output_inception_3a/output_0_split
I0403 14:52:50.177598 11349 net.cpp:148] Top shape: 24 256 28 28 (4816896)
I0403 14:52:50.177618 11349 net.cpp:148] Top shape: 24 256 28 28 (4816896)
I0403 14:52:50.177633 11349 net.cpp:148] Top shape: 24 256 28 28 (4816896)
I0403 14:52:50.177647 11349 net.cpp:148] Top shape: 24 256 28 28 (4816896)
I0403 14:52:50.177660 11349 net.cpp:156] Memory required for data: 657507360
I0403 14:52:50.177673 11349 layer_factory.hpp:77] Creating layer inception_3b/1x1
I0403 14:52:50.177695 11349 net.cpp:91] Creating Layer inception_3b/1x1
I0403 14:52:50.177711 11349 net.cpp:425] inception_3b/1x1 <- inception_3a/output_inception_3a/output_0_split_0
I0403 14:52:50.177729 11349 net.cpp:399] inception_3b/1x1 -> inception_3b/1x1
I0403 14:52:50.178819 11349 net.cpp:141] Setting up inception_3b/1x1
I0403 14:52:50.178858 11349 net.cpp:148] Top shape: 24 128 28 28 (2408448)
I0403 14:52:50.178872 11349 net.cpp:156] Memory required for data: 667141152
I0403 14:52:50.178889 11349 layer_factory.hpp:77] Creating layer inception_3b/relu_1x1
I0403 14:52:50.178908 11349 net.cpp:91] Creating Layer inception_3b/relu_1x1
I0403 14:52:50.178925 11349 net.cpp:425] inception_3b/relu_1x1 <- inception_3b/1x1
I0403 14:52:50.178942 11349 net.cpp:386] inception_3b/relu_1x1 -> inception_3b/1x1 (in-place)
I0403 14:52:50.179114 11349 net.cpp:141] Setting up inception_3b/relu_1x1
I0403 14:52:50.179141 11349 net.cpp:148] Top shape: 24 128 28 28 (2408448)
I0403 14:52:50.179154 11349 net.cpp:156] Memory required for data: 676774944
I0403 14:52:50.179168 11349 layer_factory.hpp:77] Creating layer inception_3b/3x3_reduce
I0403 14:52:50.179190 11349 net.cpp:91] Creating Layer inception_3b/3x3_reduce
I0403 14:52:50.179208 11349 net.cpp:425] inception_3b/3x3_reduce <- inception_3a/output_inception_3a/output_0_split_1
I0403 14:52:50.179226 11349 net.cpp:399] inception_3b/3x3_reduce -> inception_3b/3x3_reduce
I0403 14:52:50.180316 11349 net.cpp:141] Setting up inception_3b/3x3_reduce
I0403 14:52:50.180342 11349 net.cpp:148] Top shape: 24 128 28 28 (2408448)
I0403 14:52:50.180359 11349 net.cpp:156] Memory required for data: 686408736
I0403 14:52:50.180377 11349 layer_factory.hpp:77] Creating layer inception_3b/relu_3x3_reduce
I0403 14:52:50.180402 11349 net.cpp:91] Creating Layer inception_3b/relu_3x3_reduce
I0403 14:52:50.180418 11349 net.cpp:425] inception_3b/relu_3x3_reduce <- inception_3b/3x3_reduce
I0403 14:52:50.180435 11349 net.cpp:386] inception_3b/relu_3x3_reduce -> inception_3b/3x3_reduce (in-place)
I0403 14:52:50.180600 11349 net.cpp:141] Setting up inception_3b/relu_3x3_reduce
I0403 14:52:50.180627 11349 net.cpp:148] Top shape: 24 128 28 28 (2408448)
I0403 14:52:50.180641 11349 net.cpp:156] Memory required for data: 696042528
I0403 14:52:50.180656 11349 layer_factory.hpp:77] Creating layer inception_3b/3x3
I0403 14:52:50.180680 11349 net.cpp:91] Creating Layer inception_3b/3x3
I0403 14:52:50.180696 11349 net.cpp:425] inception_3b/3x3 <- inception_3b/3x3_reduce
I0403 14:52:50.180717 11349 net.cpp:399] inception_3b/3x3 -> inception_3b/3x3
I0403 14:52:50.183553 11349 net.cpp:141] Setting up inception_3b/3x3
I0403 14:52:50.183583 11349 net.cpp:148] Top shape: 24 192 28 28 (3612672)
I0403 14:52:50.183599 11349 net.cpp:156] Memory required for data: 710493216
I0403 14:52:50.183617 11349 layer_factory.hpp:77] Creating layer inception_3b/relu_3x3
I0403 14:52:50.183634 11349 net.cpp:91] Creating Layer inception_3b/relu_3x3
I0403 14:52:50.183650 11349 net.cpp:425] inception_3b/relu_3x3 <- inception_3b/3x3
I0403 14:52:50.183668 11349 net.cpp:386] inception_3b/relu_3x3 -> inception_3b/3x3 (in-place)
I0403 14:52:50.183933 11349 net.cpp:141] Setting up inception_3b/relu_3x3
I0403 14:52:50.183960 11349 net.cpp:148] Top shape: 24 192 28 28 (3612672)
I0403 14:52:50.183975 11349 net.cpp:156] Memory required for data: 724943904
I0403 14:52:50.183990 11349 layer_factory.hpp:77] Creating layer inception_3b/5x5_reduce
I0403 14:52:50.184012 11349 net.cpp:91] Creating Layer inception_3b/5x5_reduce
I0403 14:52:50.184029 11349 net.cpp:425] inception_3b/5x5_reduce <- inception_3a/output_inception_3a/output_0_split_2
I0403 14:52:50.184048 11349 net.cpp:399] inception_3b/5x5_reduce -> inception_3b/5x5_reduce
I0403 14:52:50.184996 11349 net.cpp:141] Setting up inception_3b/5x5_reduce
I0403 14:52:50.185024 11349 net.cpp:148] Top shape: 24 32 28 28 (602112)
I0403 14:52:50.185040 11349 net.cpp:156] Memory required for data: 727352352
I0403 14:52:50.185057 11349 layer_factory.hpp:77] Creating layer inception_3b/relu_5x5_reduce
I0403 14:52:50.185075 11349 net.cpp:91] Creating Layer inception_3b/relu_5x5_reduce
I0403 14:52:50.185091 11349 net.cpp:425] inception_3b/relu_5x5_reduce <- inception_3b/5x5_reduce
I0403 14:52:50.185109 11349 net.cpp:386] inception_3b/relu_5x5_reduce -> inception_3b/5x5_reduce (in-place)
I0403 14:52:50.185294 11349 net.cpp:141] Setting up inception_3b/relu_5x5_reduce
I0403 14:52:50.185320 11349 net.cpp:148] Top shape: 24 32 28 28 (602112)
I0403 14:52:50.185336 11349 net.cpp:156] Memory required for data: 729760800
I0403 14:52:50.185350 11349 layer_factory.hpp:77] Creating layer inception_3b/5x5
I0403 14:52:50.185371 11349 net.cpp:91] Creating Layer inception_3b/5x5
I0403 14:52:50.185394 11349 net.cpp:425] inception_3b/5x5 <- inception_3b/5x5_reduce
I0403 14:52:50.185415 11349 net.cpp:399] inception_3b/5x5 -> inception_3b/5x5
I0403 14:52:50.187304 11349 net.cpp:141] Setting up inception_3b/5x5
I0403 14:52:50.187332 11349 net.cpp:148] Top shape: 24 96 28 28 (1806336)
I0403 14:52:50.187347 11349 net.cpp:156] Memory required for data: 736986144
I0403 14:52:50.187366 11349 layer_factory.hpp:77] Creating layer inception_3b/relu_5x5
I0403 14:52:50.187389 11349 net.cpp:91] Creating Layer inception_3b/relu_5x5
I0403 14:52:50.187407 11349 net.cpp:425] inception_3b/relu_5x5 <- inception_3b/5x5
I0403 14:52:50.187424 11349 net.cpp:386] inception_3b/relu_5x5 -> inception_3b/5x5 (in-place)
I0403 14:52:50.187609 11349 net.cpp:141] Setting up inception_3b/relu_5x5
I0403 14:52:50.187633 11349 net.cpp:148] Top shape: 24 96 28 28 (1806336)
I0403 14:52:50.187647 11349 net.cpp:156] Memory required for data: 744211488
I0403 14:52:50.187662 11349 layer_factory.hpp:77] Creating layer inception_3b/pool
I0403 14:52:50.187680 11349 net.cpp:91] Creating Layer inception_3b/pool
I0403 14:52:50.187695 11349 net.cpp:425] inception_3b/pool <- inception_3a/output_inception_3a/output_0_split_3
I0403 14:52:50.187712 11349 net.cpp:399] inception_3b/pool -> inception_3b/pool
I0403 14:52:50.187765 11349 net.cpp:141] Setting up inception_3b/pool
I0403 14:52:50.187788 11349 net.cpp:148] Top shape: 24 256 28 28 (4816896)
I0403 14:52:50.187801 11349 net.cpp:156] Memory required for data: 763479072
I0403 14:52:50.187815 11349 layer_factory.hpp:77] Creating layer inception_3b/pool_proj
I0403 14:52:50.187837 11349 net.cpp:91] Creating Layer inception_3b/pool_proj
I0403 14:52:50.187854 11349 net.cpp:425] inception_3b/pool_proj <- inception_3b/pool
I0403 14:52:50.187873 11349 net.cpp:399] inception_3b/pool_proj -> inception_3b/pool_proj
I0403 14:52:50.188889 11349 net.cpp:141] Setting up inception_3b/pool_proj
I0403 14:52:50.188915 11349 net.cpp:148] Top shape: 24 64 28 28 (1204224)
I0403 14:52:50.188930 11349 net.cpp:156] Memory required for data: 768295968
I0403 14:52:50.188949 11349 layer_factory.hpp:77] Creating layer inception_3b/relu_pool_proj
I0403 14:52:50.188967 11349 net.cpp:91] Creating Layer inception_3b/relu_pool_proj
I0403 14:52:50.188982 11349 net.cpp:425] inception_3b/relu_pool_proj <- inception_3b/pool_proj
I0403 14:52:50.189002 11349 net.cpp:386] inception_3b/relu_pool_proj -> inception_3b/pool_proj (in-place)
I0403 14:52:50.189404 11349 net.cpp:141] Setting up inception_3b/relu_pool_proj
I0403 14:52:50.189430 11349 net.cpp:148] Top shape: 24 64 28 28 (1204224)
I0403 14:52:50.189445 11349 net.cpp:156] Memory required for data: 773112864
I0403 14:52:50.189461 11349 layer_factory.hpp:77] Creating layer inception_3b/output
I0403 14:52:50.189478 11349 net.cpp:91] Creating Layer inception_3b/output
I0403 14:52:50.189494 11349 net.cpp:425] inception_3b/output <- inception_3b/1x1
I0403 14:52:50.189510 11349 net.cpp:425] inception_3b/output <- inception_3b/3x3
I0403 14:52:50.189527 11349 net.cpp:425] inception_3b/output <- inception_3b/5x5
I0403 14:52:50.189541 11349 net.cpp:425] inception_3b/output <- inception_3b/pool_proj
I0403 14:52:50.189561 11349 net.cpp:399] inception_3b/output -> inception_3b/output
I0403 14:52:50.189604 11349 net.cpp:141] Setting up inception_3b/output
I0403 14:52:50.189626 11349 net.cpp:148] Top shape: 24 480 28 28 (9031680)
I0403 14:52:50.189640 11349 net.cpp:156] Memory required for data: 809239584
I0403 14:52:50.189656 11349 layer_factory.hpp:77] Creating layer pool3/3x3_s2
I0403 14:52:50.189676 11349 net.cpp:91] Creating Layer pool3/3x3_s2
I0403 14:52:50.189692 11349 net.cpp:425] pool3/3x3_s2 <- inception_3b/output
I0403 14:52:50.189733 11349 net.cpp:399] pool3/3x3_s2 -> pool3/3x3_s2
I0403 14:52:50.189793 11349 net.cpp:141] Setting up pool3/3x3_s2
I0403 14:52:50.189816 11349 net.cpp:148] Top shape: 24 480 14 14 (2257920)
I0403 14:52:50.189831 11349 net.cpp:156] Memory required for data: 818271264
I0403 14:52:50.189846 11349 layer_factory.hpp:77] Creating layer pool3/3x3_s2_pool3/3x3_s2_0_split
I0403 14:52:50.189865 11349 net.cpp:91] Creating Layer pool3/3x3_s2_pool3/3x3_s2_0_split
I0403 14:52:50.189882 11349 net.cpp:425] pool3/3x3_s2_pool3/3x3_s2_0_split <- pool3/3x3_s2
I0403 14:52:50.189898 11349 net.cpp:399] pool3/3x3_s2_pool3/3x3_s2_0_split -> pool3/3x3_s2_pool3/3x3_s2_0_split_0
I0403 14:52:50.189918 11349 net.cpp:399] pool3/3x3_s2_pool3/3x3_s2_0_split -> pool3/3x3_s2_pool3/3x3_s2_0_split_1
I0403 14:52:50.189936 11349 net.cpp:399] pool3/3x3_s2_pool3/3x3_s2_0_split -> pool3/3x3_s2_pool3/3x3_s2_0_split_2
I0403 14:52:50.189955 11349 net.cpp:399] pool3/3x3_s2_pool3/3x3_s2_0_split -> pool3/3x3_s2_pool3/3x3_s2_0_split_3
I0403 14:52:50.190031 11349 net.cpp:141] Setting up pool3/3x3_s2_pool3/3x3_s2_0_split
I0403 14:52:50.190053 11349 net.cpp:148] Top shape: 24 480 14 14 (2257920)
I0403 14:52:50.190070 11349 net.cpp:148] Top shape: 24 480 14 14 (2257920)
I0403 14:52:50.190086 11349 net.cpp:148] Top shape: 24 480 14 14 (2257920)
I0403 14:52:50.190101 11349 net.cpp:148] Top shape: 24 480 14 14 (2257920)
I0403 14:52:50.190114 11349 net.cpp:156] Memory required for data: 854397984
I0403 14:52:50.190129 11349 layer_factory.hpp:77] Creating layer inception_4a/1x1
I0403 14:52:50.190150 11349 net.cpp:91] Creating Layer inception_4a/1x1
I0403 14:52:50.190167 11349 net.cpp:425] inception_4a/1x1 <- pool3/3x3_s2_pool3/3x3_s2_0_split_0
I0403 14:52:50.190189 11349 net.cpp:399] inception_4a/1x1 -> inception_4a/1x1
I0403 14:52:50.191761 11349 net.cpp:141] Setting up inception_4a/1x1
I0403 14:52:50.191790 11349 net.cpp:148] Top shape: 24 192 14 14 (903168)
I0403 14:52:50.191807 11349 net.cpp:156] Memory required for data: 858010656
I0403 14:52:50.191823 11349 layer_factory.hpp:77] Creating layer inception_4a/relu_1x1
I0403 14:52:50.191843 11349 net.cpp:91] Creating Layer inception_4a/relu_1x1
I0403 14:52:50.191860 11349 net.cpp:425] inception_4a/relu_1x1 <- inception_4a/1x1
I0403 14:52:50.191879 11349 net.cpp:386] inception_4a/relu_1x1 -> inception_4a/1x1 (in-place)
I0403 14:52:50.192052 11349 net.cpp:141] Setting up inception_4a/relu_1x1
I0403 14:52:50.192080 11349 net.cpp:148] Top shape: 24 192 14 14 (903168)
I0403 14:52:50.192095 11349 net.cpp:156] Memory required for data: 861623328
I0403 14:52:50.192108 11349 layer_factory.hpp:77] Creating layer inception_4a/3x3_reduce
I0403 14:52:50.192128 11349 net.cpp:91] Creating Layer inception_4a/3x3_reduce
I0403 14:52:50.192145 11349 net.cpp:425] inception_4a/3x3_reduce <- pool3/3x3_s2_pool3/3x3_s2_0_split_1
I0403 14:52:50.192167 11349 net.cpp:399] inception_4a/3x3_reduce -> inception_4a/3x3_reduce
I0403 14:52:50.193447 11349 net.cpp:141] Setting up inception_4a/3x3_reduce
I0403 14:52:50.193475 11349 net.cpp:148] Top shape: 24 96 14 14 (451584)
I0403 14:52:50.193490 11349 net.cpp:156] Memory required for data: 863429664
I0403 14:52:50.193516 11349 layer_factory.hpp:77] Creating layer inception_4a/relu_3x3_reduce
I0403 14:52:50.193534 11349 net.cpp:91] Creating Layer inception_4a/relu_3x3_reduce
I0403 14:52:50.193550 11349 net.cpp:425] inception_4a/relu_3x3_reduce <- inception_4a/3x3_reduce
I0403 14:52:50.193569 11349 net.cpp:386] inception_4a/relu_3x3_reduce -> inception_4a/3x3_reduce (in-place)
I0403 14:52:50.193743 11349 net.cpp:141] Setting up inception_4a/relu_3x3_reduce
I0403 14:52:50.193769 11349 net.cpp:148] Top shape: 24 96 14 14 (451584)
I0403 14:52:50.193784 11349 net.cpp:156] Memory required for data: 865236000
I0403 14:52:50.193799 11349 layer_factory.hpp:77] Creating layer inception_4a/3x3
I0403 14:52:50.193820 11349 net.cpp:91] Creating Layer inception_4a/3x3
I0403 14:52:50.193838 11349 net.cpp:425] inception_4a/3x3 <- inception_4a/3x3_reduce
I0403 14:52:50.193861 11349 net.cpp:399] inception_4a/3x3 -> inception_4a/3x3
I0403 14:52:50.196538 11349 net.cpp:141] Setting up inception_4a/3x3
I0403 14:52:50.196568 11349 net.cpp:148] Top shape: 24 208 14 14 (978432)
I0403 14:52:50.196583 11349 net.cpp:156] Memory required for data: 869149728
I0403 14:52:50.196602 11349 layer_factory.hpp:77] Creating layer inception_4a/relu_3x3
I0403 14:52:50.196622 11349 net.cpp:91] Creating Layer inception_4a/relu_3x3
I0403 14:52:50.196640 11349 net.cpp:425] inception_4a/relu_3x3 <- inception_4a/3x3
I0403 14:52:50.196656 11349 net.cpp:386] inception_4a/relu_3x3 -> inception_4a/3x3 (in-place)
I0403 14:52:50.196938 11349 net.cpp:141] Setting up inception_4a/relu_3x3
I0403 14:52:50.196964 11349 net.cpp:148] Top shape: 24 208 14 14 (978432)
I0403 14:52:50.196979 11349 net.cpp:156] Memory required for data: 873063456
I0403 14:52:50.196995 11349 layer_factory.hpp:77] Creating layer inception_4a/5x5_reduce
I0403 14:52:50.197019 11349 net.cpp:91] Creating Layer inception_4a/5x5_reduce
I0403 14:52:50.197036 11349 net.cpp:425] inception_4a/5x5_reduce <- pool3/3x3_s2_pool3/3x3_s2_0_split_2
I0403 14:52:50.197055 11349 net.cpp:399] inception_4a/5x5_reduce -> inception_4a/5x5_reduce
I0403 14:52:50.198099 11349 net.cpp:141] Setting up inception_4a/5x5_reduce
I0403 14:52:50.198127 11349 net.cpp:148] Top shape: 24 16 14 14 (75264)
I0403 14:52:50.198143 11349 net.cpp:156] Memory required for data: 873364512
I0403 14:52:50.198160 11349 layer_factory.hpp:77] Creating layer inception_4a/relu_5x5_reduce
I0403 14:52:50.198180 11349 net.cpp:91] Creating Layer inception_4a/relu_5x5_reduce
I0403 14:52:50.198197 11349 net.cpp:425] inception_4a/relu_5x5_reduce <- inception_4a/5x5_reduce
I0403 14:52:50.198216 11349 net.cpp:386] inception_4a/relu_5x5_reduce -> inception_4a/5x5_reduce (in-place)
I0403 14:52:50.198410 11349 net.cpp:141] Setting up inception_4a/relu_5x5_reduce
I0403 14:52:50.198433 11349 net.cpp:148] Top shape: 24 16 14 14 (75264)
I0403 14:52:50.198448 11349 net.cpp:156] Memory required for data: 873665568
I0403 14:52:50.198463 11349 layer_factory.hpp:77] Creating layer inception_4a/5x5
I0403 14:52:50.198484 11349 net.cpp:91] Creating Layer inception_4a/5x5
I0403 14:52:50.198503 11349 net.cpp:425] inception_4a/5x5 <- inception_4a/5x5_reduce
I0403 14:52:50.198523 11349 net.cpp:399] inception_4a/5x5 -> inception_4a/5x5
I0403 14:52:50.199599 11349 net.cpp:141] Setting up inception_4a/5x5
I0403 14:52:50.199628 11349 net.cpp:148] Top shape: 24 48 14 14 (225792)
I0403 14:52:50.199645 11349 net.cpp:156] Memory required for data: 874568736
I0403 14:52:50.199662 11349 layer_factory.hpp:77] Creating layer inception_4a/relu_5x5
I0403 14:52:50.199681 11349 net.cpp:91] Creating Layer inception_4a/relu_5x5
I0403 14:52:50.199697 11349 net.cpp:425] inception_4a/relu_5x5 <- inception_4a/5x5
I0403 14:52:50.199717 11349 net.cpp:386] inception_4a/relu_5x5 -> inception_4a/5x5 (in-place)
I0403 14:52:50.199898 11349 net.cpp:141] Setting up inception_4a/relu_5x5
I0403 14:52:50.199925 11349 net.cpp:148] Top shape: 24 48 14 14 (225792)
I0403 14:52:50.199940 11349 net.cpp:156] Memory required for data: 875471904
I0403 14:52:50.199954 11349 layer_factory.hpp:77] Creating layer inception_4a/pool
I0403 14:52:50.199975 11349 net.cpp:91] Creating Layer inception_4a/pool
I0403 14:52:50.199991 11349 net.cpp:425] inception_4a/pool <- pool3/3x3_s2_pool3/3x3_s2_0_split_3
I0403 14:52:50.200011 11349 net.cpp:399] inception_4a/pool -> inception_4a/pool
I0403 14:52:50.200073 11349 net.cpp:141] Setting up inception_4a/pool
I0403 14:52:50.200095 11349 net.cpp:148] Top shape: 24 480 14 14 (2257920)
I0403 14:52:50.200109 11349 net.cpp:156] Memory required for data: 884503584
I0403 14:52:50.200124 11349 layer_factory.hpp:77] Creating layer inception_4a/pool_proj
I0403 14:52:50.200146 11349 net.cpp:91] Creating Layer inception_4a/pool_proj
I0403 14:52:50.200165 11349 net.cpp:425] inception_4a/pool_proj <- inception_4a/pool
I0403 14:52:50.200186 11349 net.cpp:399] inception_4a/pool_proj -> inception_4a/pool_proj
I0403 14:52:50.201342 11349 net.cpp:141] Setting up inception_4a/pool_proj
I0403 14:52:50.201371 11349 net.cpp:148] Top shape: 24 64 14 14 (301056)
I0403 14:52:50.201406 11349 net.cpp:156] Memory required for data: 885707808
I0403 14:52:50.201424 11349 layer_factory.hpp:77] Creating layer inception_4a/relu_pool_proj
I0403 14:52:50.201447 11349 net.cpp:91] Creating Layer inception_4a/relu_pool_proj
I0403 14:52:50.201462 11349 net.cpp:425] inception_4a/relu_pool_proj <- inception_4a/pool_proj
I0403 14:52:50.201480 11349 net.cpp:386] inception_4a/relu_pool_proj -> inception_4a/pool_proj (in-place)
I0403 14:52:50.201761 11349 net.cpp:141] Setting up inception_4a/relu_pool_proj
I0403 14:52:50.201787 11349 net.cpp:148] Top shape: 24 64 14 14 (301056)
I0403 14:52:50.201803 11349 net.cpp:156] Memory required for data: 886912032
I0403 14:52:50.201818 11349 layer_factory.hpp:77] Creating layer inception_4a/output
I0403 14:52:50.201835 11349 net.cpp:91] Creating Layer inception_4a/output
I0403 14:52:50.201851 11349 net.cpp:425] inception_4a/output <- inception_4a/1x1
I0403 14:52:50.201866 11349 net.cpp:425] inception_4a/output <- inception_4a/3x3
I0403 14:52:50.201885 11349 net.cpp:425] inception_4a/output <- inception_4a/5x5
I0403 14:52:50.201901 11349 net.cpp:425] inception_4a/output <- inception_4a/pool_proj
I0403 14:52:50.201920 11349 net.cpp:399] inception_4a/output -> inception_4a/output
I0403 14:52:50.201963 11349 net.cpp:141] Setting up inception_4a/output
I0403 14:52:50.201989 11349 net.cpp:148] Top shape: 24 512 14 14 (2408448)
I0403 14:52:50.202005 11349 net.cpp:156] Memory required for data: 896545824
I0403 14:52:50.202020 11349 layer_factory.hpp:77] Creating layer inception_4a/output_inception_4a/output_0_split
I0403 14:52:50.202039 11349 net.cpp:91] Creating Layer inception_4a/output_inception_4a/output_0_split
I0403 14:52:50.202054 11349 net.cpp:425] inception_4a/output_inception_4a/output_0_split <- inception_4a/output
I0403 14:52:50.202074 11349 net.cpp:399] inception_4a/output_inception_4a/output_0_split -> inception_4a/output_inception_4a/output_0_split_0
I0403 14:52:50.202093 11349 net.cpp:399] inception_4a/output_inception_4a/output_0_split -> inception_4a/output_inception_4a/output_0_split_1
I0403 14:52:50.202113 11349 net.cpp:399] inception_4a/output_inception_4a/output_0_split -> inception_4a/output_inception_4a/output_0_split_2
I0403 14:52:50.202133 11349 net.cpp:399] inception_4a/output_inception_4a/output_0_split -> inception_4a/output_inception_4a/output_0_split_3
I0403 14:52:50.202152 11349 net.cpp:399] inception_4a/output_inception_4a/output_0_split -> inception_4a/output_inception_4a/output_0_split_4
I0403 14:52:50.202242 11349 net.cpp:141] Setting up inception_4a/output_inception_4a/output_0_split
I0403 14:52:50.202266 11349 net.cpp:148] Top shape: 24 512 14 14 (2408448)
I0403 14:52:50.202285 11349 net.cpp:148] Top shape: 24 512 14 14 (2408448)
I0403 14:52:50.202301 11349 net.cpp:148] Top shape: 24 512 14 14 (2408448)
I0403 14:52:50.202316 11349 net.cpp:148] Top shape: 24 512 14 14 (2408448)
I0403 14:52:50.202332 11349 net.cpp:148] Top shape: 24 512 14 14 (2408448)
I0403 14:52:50.202345 11349 net.cpp:156] Memory required for data: 944714784
I0403 14:52:50.202361 11349 layer_factory.hpp:77] Creating layer loss1/ave_pool
I0403 14:52:50.202388 11349 net.cpp:91] Creating Layer loss1/ave_pool
I0403 14:52:50.202407 11349 net.cpp:425] loss1/ave_pool <- inception_4a/output_inception_4a/output_0_split_0
I0403 14:52:50.202427 11349 net.cpp:399] loss1/ave_pool -> loss1/ave_pool
I0403 14:52:50.202631 11349 net.cpp:141] Setting up loss1/ave_pool
I0403 14:52:50.202657 11349 net.cpp:148] Top shape: 24 512 4 4 (196608)
I0403 14:52:50.202672 11349 net.cpp:156] Memory required for data: 945501216
I0403 14:52:50.202688 11349 layer_factory.hpp:77] Creating layer loss1/conv
I0403 14:52:50.202710 11349 net.cpp:91] Creating Layer loss1/conv
I0403 14:52:50.202728 11349 net.cpp:425] loss1/conv <- loss1/ave_pool
I0403 14:52:50.202747 11349 net.cpp:399] loss1/conv -> loss1/conv
I0403 14:52:50.204144 11349 net.cpp:141] Setting up loss1/conv
I0403 14:52:50.204171 11349 net.cpp:148] Top shape: 24 128 4 4 (49152)
I0403 14:52:50.204200 11349 net.cpp:156] Memory required for data: 945697824
I0403 14:52:50.204219 11349 layer_factory.hpp:77] Creating layer loss1/relu_conv
I0403 14:52:50.204239 11349 net.cpp:91] Creating Layer loss1/relu_conv
I0403 14:52:50.204257 11349 net.cpp:425] loss1/relu_conv <- loss1/conv
I0403 14:52:50.204273 11349 net.cpp:386] loss1/relu_conv -> loss1/conv (in-place)
I0403 14:52:50.204555 11349 net.cpp:141] Setting up loss1/relu_conv
I0403 14:52:50.204581 11349 net.cpp:148] Top shape: 24 128 4 4 (49152)
I0403 14:52:50.204596 11349 net.cpp:156] Memory required for data: 945894432
I0403 14:52:50.204610 11349 layer_factory.hpp:77] Creating layer loss1/fc
I0403 14:52:50.204635 11349 net.cpp:91] Creating Layer loss1/fc
I0403 14:52:50.204653 11349 net.cpp:425] loss1/fc <- loss1/conv
I0403 14:52:50.204674 11349 net.cpp:399] loss1/fc -> loss1/fc
I0403 14:52:50.222249 11349 net.cpp:141] Setting up loss1/fc
I0403 14:52:50.222297 11349 net.cpp:148] Top shape: 24 1024 (24576)
I0403 14:52:50.222312 11349 net.cpp:156] Memory required for data: 945992736
I0403 14:52:50.222332 11349 layer_factory.hpp:77] Creating layer loss1/relu_fc
I0403 14:52:50.222350 11349 net.cpp:91] Creating Layer loss1/relu_fc
I0403 14:52:50.222368 11349 net.cpp:425] loss1/relu_fc <- loss1/fc
I0403 14:52:50.222398 11349 net.cpp:386] loss1/relu_fc -> loss1/fc (in-place)
I0403 14:52:50.222596 11349 net.cpp:141] Setting up loss1/relu_fc
I0403 14:52:50.222623 11349 net.cpp:148] Top shape: 24 1024 (24576)
I0403 14:52:50.222638 11349 net.cpp:156] Memory required for data: 946091040
I0403 14:52:50.222653 11349 layer_factory.hpp:77] Creating layer loss1/drop_fc
I0403 14:52:50.222681 11349 net.cpp:91] Creating Layer loss1/drop_fc
I0403 14:52:50.222697 11349 net.cpp:425] loss1/drop_fc <- loss1/fc
I0403 14:52:50.222715 11349 net.cpp:386] loss1/drop_fc -> loss1/fc (in-place)
I0403 14:52:50.222769 11349 net.cpp:141] Setting up loss1/drop_fc
I0403 14:52:50.222791 11349 net.cpp:148] Top shape: 24 1024 (24576)
I0403 14:52:50.222805 11349 net.cpp:156] Memory required for data: 946189344
I0403 14:52:50.222821 11349 layer_factory.hpp:77] Creating layer loss1/classifier_plantvillage
I0403 14:52:50.222841 11349 net.cpp:91] Creating Layer loss1/classifier_plantvillage
I0403 14:52:50.222856 11349 net.cpp:425] loss1/classifier_plantvillage <- loss1/fc
I0403 14:52:50.222877 11349 net.cpp:399] loss1/classifier_plantvillage -> loss1/classifier_plantvillage
I0403 14:52:50.223799 11349 net.cpp:141] Setting up loss1/classifier_plantvillage
I0403 14:52:50.223826 11349 net.cpp:148] Top shape: 24 38 (912)
I0403 14:52:50.223841 11349 net.cpp:156] Memory required for data: 946192992
I0403 14:52:50.223860 11349 layer_factory.hpp:77] Creating layer loss1/classifier_plantvillage_loss1/classifier_plantvillage_0_split
I0403 14:52:50.223880 11349 net.cpp:91] Creating Layer loss1/classifier_plantvillage_loss1/classifier_plantvillage_0_split
I0403 14:52:50.223896 11349 net.cpp:425] loss1/classifier_plantvillage_loss1/classifier_plantvillage_0_split <- loss1/classifier_plantvillage
I0403 14:52:50.223914 11349 net.cpp:399] loss1/classifier_plantvillage_loss1/classifier_plantvillage_0_split -> loss1/classifier_plantvillage_loss1/classifier_plantvillage_0_split_0
I0403 14:52:50.223934 11349 net.cpp:399] loss1/classifier_plantvillage_loss1/classifier_plantvillage_0_split -> loss1/classifier_plantvillage_loss1/classifier_plantvillage_0_split_1
I0403 14:52:50.223954 11349 net.cpp:399] loss1/classifier_plantvillage_loss1/classifier_plantvillage_0_split -> loss1/classifier_plantvillage_loss1/classifier_plantvillage_0_split_2
I0403 14:52:50.224021 11349 net.cpp:141] Setting up loss1/classifier_plantvillage_loss1/classifier_plantvillage_0_split
I0403 14:52:50.224045 11349 net.cpp:148] Top shape: 24 38 (912)
I0403 14:52:50.224061 11349 net.cpp:148] Top shape: 24 38 (912)
I0403 14:52:50.224076 11349 net.cpp:148] Top shape: 24 38 (912)
I0403 14:52:50.224089 11349 net.cpp:156] Memory required for data: 946203936
I0403 14:52:50.224103 11349 layer_factory.hpp:77] Creating layer inception_4b/1x1
I0403 14:52:50.224126 11349 net.cpp:91] Creating Layer inception_4b/1x1
I0403 14:52:50.224165 11349 net.cpp:425] inception_4b/1x1 <- inception_4a/output_inception_4a/output_0_split_1
I0403 14:52:50.224186 11349 net.cpp:399] inception_4b/1x1 -> inception_4b/1x1
I0403 14:52:50.225841 11349 net.cpp:141] Setting up inception_4b/1x1
I0403 14:52:50.225868 11349 net.cpp:148] Top shape: 24 160 14 14 (752640)
I0403 14:52:50.225884 11349 net.cpp:156] Memory required for data: 949214496
I0403 14:52:50.225903 11349 layer_factory.hpp:77] Creating layer inception_4b/relu_1x1
I0403 14:52:50.225922 11349 net.cpp:91] Creating Layer inception_4b/relu_1x1
I0403 14:52:50.225939 11349 net.cpp:425] inception_4b/relu_1x1 <- inception_4b/1x1
I0403 14:52:50.225956 11349 net.cpp:386] inception_4b/relu_1x1 -> inception_4b/1x1 (in-place)
I0403 14:52:50.226138 11349 net.cpp:141] Setting up inception_4b/relu_1x1
I0403 14:52:50.226163 11349 net.cpp:148] Top shape: 24 160 14 14 (752640)
I0403 14:52:50.226177 11349 net.cpp:156] Memory required for data: 952225056
I0403 14:52:50.226191 11349 layer_factory.hpp:77] Creating layer inception_4b/3x3_reduce
I0403 14:52:50.226213 11349 net.cpp:91] Creating Layer inception_4b/3x3_reduce
I0403 14:52:50.226232 11349 net.cpp:425] inception_4b/3x3_reduce <- inception_4a/output_inception_4a/output_0_split_2
I0403 14:52:50.226253 11349 net.cpp:399] inception_4b/3x3_reduce -> inception_4b/3x3_reduce
I0403 14:52:50.227605 11349 net.cpp:141] Setting up inception_4b/3x3_reduce
I0403 14:52:50.227633 11349 net.cpp:148] Top shape: 24 112 14 14 (526848)
I0403 14:52:50.227648 11349 net.cpp:156] Memory required for data: 954332448
I0403 14:52:50.227666 11349 layer_factory.hpp:77] Creating layer inception_4b/relu_3x3_reduce
I0403 14:52:50.227684 11349 net.cpp:91] Creating Layer inception_4b/relu_3x3_reduce
I0403 14:52:50.227700 11349 net.cpp:425] inception_4b/relu_3x3_reduce <- inception_4b/3x3_reduce
I0403 14:52:50.227720 11349 net.cpp:386] inception_4b/relu_3x3_reduce -> inception_4b/3x3_reduce (in-place)
I0403 14:52:50.228005 11349 net.cpp:141] Setting up inception_4b/relu_3x3_reduce
I0403 14:52:50.228031 11349 net.cpp:148] Top shape: 24 112 14 14 (526848)
I0403 14:52:50.228046 11349 net.cpp:156] Memory required for data: 956439840
I0403 14:52:50.228060 11349 layer_factory.hpp:77] Creating layer inception_4b/3x3
I0403 14:52:50.228082 11349 net.cpp:91] Creating Layer inception_4b/3x3
I0403 14:52:50.228099 11349 net.cpp:425] inception_4b/3x3 <- inception_4b/3x3_reduce
I0403 14:52:50.228121 11349 net.cpp:399] inception_4b/3x3 -> inception_4b/3x3
I0403 14:52:50.231160 11349 net.cpp:141] Setting up inception_4b/3x3
I0403 14:52:50.231189 11349 net.cpp:148] Top shape: 24 224 14 14 (1053696)
I0403 14:52:50.231204 11349 net.cpp:156] Memory required for data: 960654624
I0403 14:52:50.231222 11349 layer_factory.hpp:77] Creating layer inception_4b/relu_3x3
I0403 14:52:50.231242 11349 net.cpp:91] Creating Layer inception_4b/relu_3x3
I0403 14:52:50.231259 11349 net.cpp:425] inception_4b/relu_3x3 <- inception_4b/3x3
I0403 14:52:50.231276 11349 net.cpp:386] inception_4b/relu_3x3 -> inception_4b/3x3 (in-place)
I0403 14:52:50.231464 11349 net.cpp:141] Setting up inception_4b/relu_3x3
I0403 14:52:50.231492 11349 net.cpp:148] Top shape: 24 224 14 14 (1053696)
I0403 14:52:50.231508 11349 net.cpp:156] Memory required for data: 964869408
I0403 14:52:50.231521 11349 layer_factory.hpp:77] Creating layer inception_4b/5x5_reduce
I0403 14:52:50.231544 11349 net.cpp:91] Creating Layer inception_4b/5x5_reduce
I0403 14:52:50.231562 11349 net.cpp:425] inception_4b/5x5_reduce <- inception_4a/output_inception_4a/output_0_split_3
I0403 14:52:50.231582 11349 net.cpp:399] inception_4b/5x5_reduce -> inception_4b/5x5_reduce
I0403 14:52:50.232676 11349 net.cpp:141] Setting up inception_4b/5x5_reduce
I0403 14:52:50.232707 11349 net.cpp:148] Top shape: 24 24 14 14 (112896)
I0403 14:52:50.232722 11349 net.cpp:156] Memory required for data: 965320992
I0403 14:52:50.232740 11349 layer_factory.hpp:77] Creating layer inception_4b/relu_5x5_reduce
I0403 14:52:50.232758 11349 net.cpp:91] Creating Layer inception_4b/relu_5x5_reduce
I0403 14:52:50.232789 11349 net.cpp:425] inception_4b/relu_5x5_reduce <- inception_4b/5x5_reduce
I0403 14:52:50.232807 11349 net.cpp:386] inception_4b/relu_5x5_reduce -> inception_4b/5x5_reduce (in-place)
I0403 14:52:50.232993 11349 net.cpp:141] Setting up inception_4b/relu_5x5_reduce
I0403 14:52:50.233017 11349 net.cpp:148] Top shape: 24 24 14 14 (112896)
I0403 14:52:50.233032 11349 net.cpp:156] Memory required for data: 965772576
I0403 14:52:50.233047 11349 layer_factory.hpp:77] Creating layer inception_4b/5x5
I0403 14:52:50.233068 11349 net.cpp:91] Creating Layer inception_4b/5x5
I0403 14:52:50.233086 11349 net.cpp:425] inception_4b/5x5 <- inception_4b/5x5_reduce
I0403 14:52:50.233108 11349 net.cpp:399] inception_4b/5x5 -> inception_4b/5x5
I0403 14:52:50.234338 11349 net.cpp:141] Setting up inception_4b/5x5
I0403 14:52:50.234366 11349 net.cpp:148] Top shape: 24 64 14 14 (301056)
I0403 14:52:50.234386 11349 net.cpp:156] Memory required for data: 966976800
I0403 14:52:50.234406 11349 layer_factory.hpp:77] Creating layer inception_4b/relu_5x5
I0403 14:52:50.234426 11349 net.cpp:91] Creating Layer inception_4b/relu_5x5
I0403 14:52:50.234443 11349 net.cpp:425] inception_4b/relu_5x5 <- inception_4b/5x5
I0403 14:52:50.234462 11349 net.cpp:386] inception_4b/relu_5x5 -> inception_4b/5x5 (in-place)
I0403 14:52:50.234748 11349 net.cpp:141] Setting up inception_4b/relu_5x5
I0403 14:52:50.234773 11349 net.cpp:148] Top shape: 24 64 14 14 (301056)
I0403 14:52:50.234788 11349 net.cpp:156] Memory required for data: 968181024
I0403 14:52:50.234803 11349 layer_factory.hpp:77] Creating layer inception_4b/pool
I0403 14:52:50.234827 11349 net.cpp:91] Creating Layer inception_4b/pool
I0403 14:52:50.234843 11349 net.cpp:425] inception_4b/pool <- inception_4a/output_inception_4a/output_0_split_4
I0403 14:52:50.234863 11349 net.cpp:399] inception_4b/pool -> inception_4b/pool
I0403 14:52:50.234931 11349 net.cpp:141] Setting up inception_4b/pool
I0403 14:52:50.234954 11349 net.cpp:148] Top shape: 24 512 14 14 (2408448)
I0403 14:52:50.234968 11349 net.cpp:156] Memory required for data: 977814816
I0403 14:52:50.234982 11349 layer_factory.hpp:77] Creating layer inception_4b/pool_proj
I0403 14:52:50.235004 11349 net.cpp:91] Creating Layer inception_4b/pool_proj
I0403 14:52:50.235021 11349 net.cpp:425] inception_4b/pool_proj <- inception_4b/pool
I0403 14:52:50.235043 11349 net.cpp:399] inception_4b/pool_proj -> inception_4b/pool_proj
I0403 14:52:50.236249 11349 net.cpp:141] Setting up inception_4b/pool_proj
I0403 14:52:50.236279 11349 net.cpp:148] Top shape: 24 64 14 14 (301056)
I0403 14:52:50.236295 11349 net.cpp:156] Memory required for data: 979019040
I0403 14:52:50.236313 11349 layer_factory.hpp:77] Creating layer inception_4b/relu_pool_proj
I0403 14:52:50.236331 11349 net.cpp:91] Creating Layer inception_4b/relu_pool_proj
I0403 14:52:50.236348 11349 net.cpp:425] inception_4b/relu_pool_proj <- inception_4b/pool_proj
I0403 14:52:50.236368 11349 net.cpp:386] inception_4b/relu_pool_proj -> inception_4b/pool_proj (in-place)
I0403 14:52:50.236560 11349 net.cpp:141] Setting up inception_4b/relu_pool_proj
I0403 14:52:50.236584 11349 net.cpp:148] Top shape: 24 64 14 14 (301056)
I0403 14:52:50.236599 11349 net.cpp:156] Memory required for data: 980223264
I0403 14:52:50.236613 11349 layer_factory.hpp:77] Creating layer inception_4b/output
I0403 14:52:50.236631 11349 net.cpp:91] Creating Layer inception_4b/output
I0403 14:52:50.236646 11349 net.cpp:425] inception_4b/output <- inception_4b/1x1
I0403 14:52:50.236663 11349 net.cpp:425] inception_4b/output <- inception_4b/3x3
I0403 14:52:50.236680 11349 net.cpp:425] inception_4b/output <- inception_4b/5x5
I0403 14:52:50.236695 11349 net.cpp:425] inception_4b/output <- inception_4b/pool_proj
I0403 14:52:50.236713 11349 net.cpp:399] inception_4b/output -> inception_4b/output
I0403 14:52:50.236758 11349 net.cpp:141] Setting up inception_4b/output
I0403 14:52:50.236783 11349 net.cpp:148] Top shape: 24 512 14 14 (2408448)
I0403 14:52:50.236799 11349 net.cpp:156] Memory required for data: 989857056
I0403 14:52:50.236827 11349 layer_factory.hpp:77] Creating layer inception_4b/output_inception_4b/output_0_split
I0403 14:52:50.236845 11349 net.cpp:91] Creating Layer inception_4b/output_inception_4b/output_0_split
I0403 14:52:50.236860 11349 net.cpp:425] inception_4b/output_inception_4b/output_0_split <- inception_4b/output
I0403 14:52:50.236877 11349 net.cpp:399] inception_4b/output_inception_4b/output_0_split -> inception_4b/output_inception_4b/output_0_split_0
I0403 14:52:50.236901 11349 net.cpp:399] inception_4b/output_inception_4b/output_0_split -> inception_4b/output_inception_4b/output_0_split_1
I0403 14:52:50.236922 11349 net.cpp:399] inception_4b/output_inception_4b/output_0_split -> inception_4b/output_inception_4b/output_0_split_2
I0403 14:52:50.236943 11349 net.cpp:399] inception_4b/output_inception_4b/output_0_split -> inception_4b/output_inception_4b/output_0_split_3
I0403 14:52:50.237025 11349 net.cpp:141] Setting up inception_4b/output_inception_4b/output_0_split
I0403 14:52:50.237048 11349 net.cpp:148] Top shape: 24 512 14 14 (2408448)
I0403 14:52:50.237063 11349 net.cpp:148] Top shape: 24 512 14 14 (2408448)
I0403 14:52:50.237078 11349 net.cpp:148] Top shape: 24 512 14 14 (2408448)
I0403 14:52:50.237094 11349 net.cpp:148] Top shape: 24 512 14 14 (2408448)
I0403 14:52:50.237108 11349 net.cpp:156] Memory required for data: 1028392224
I0403 14:52:50.237123 11349 layer_factory.hpp:77] Creating layer inception_4c/1x1
I0403 14:52:50.237144 11349 net.cpp:91] Creating Layer inception_4c/1x1
I0403 14:52:50.237162 11349 net.cpp:425] inception_4c/1x1 <- inception_4b/output_inception_4b/output_0_split_0
I0403 14:52:50.237181 11349 net.cpp:399] inception_4c/1x1 -> inception_4c/1x1
I0403 14:52:50.238718 11349 net.cpp:141] Setting up inception_4c/1x1
I0403 14:52:50.238746 11349 net.cpp:148] Top shape: 24 128 14 14 (602112)
I0403 14:52:50.238762 11349 net.cpp:156] Memory required for data: 1030800672
I0403 14:52:50.238780 11349 layer_factory.hpp:77] Creating layer inception_4c/relu_1x1
I0403 14:52:50.238800 11349 net.cpp:91] Creating Layer inception_4c/relu_1x1
I0403 14:52:50.238816 11349 net.cpp:425] inception_4c/relu_1x1 <- inception_4c/1x1
I0403 14:52:50.238836 11349 net.cpp:386] inception_4c/relu_1x1 -> inception_4c/1x1 (in-place)
I0403 14:52:50.239024 11349 net.cpp:141] Setting up inception_4c/relu_1x1
I0403 14:52:50.239049 11349 net.cpp:148] Top shape: 24 128 14 14 (602112)
I0403 14:52:50.239065 11349 net.cpp:156] Memory required for data: 1033209120
I0403 14:52:50.239080 11349 layer_factory.hpp:77] Creating layer inception_4c/3x3_reduce
I0403 14:52:50.239104 11349 net.cpp:91] Creating Layer inception_4c/3x3_reduce
I0403 14:52:50.239120 11349 net.cpp:425] inception_4c/3x3_reduce <- inception_4b/output_inception_4b/output_0_split_1
I0403 14:52:50.239145 11349 net.cpp:399] inception_4c/3x3_reduce -> inception_4c/3x3_reduce
I0403 14:52:50.241138 11349 net.cpp:141] Setting up inception_4c/3x3_reduce
I0403 14:52:50.241169 11349 net.cpp:148] Top shape: 24 128 14 14 (602112)
I0403 14:52:50.241186 11349 net.cpp:156] Memory required for data: 1035617568
I0403 14:52:50.241206 11349 layer_factory.hpp:77] Creating layer inception_4c/relu_3x3_reduce
I0403 14:52:50.241225 11349 net.cpp:91] Creating Layer inception_4c/relu_3x3_reduce
I0403 14:52:50.241240 11349 net.cpp:425] inception_4c/relu_3x3_reduce <- inception_4c/3x3_reduce
I0403 14:52:50.241257 11349 net.cpp:386] inception_4c/relu_3x3_reduce -> inception_4c/3x3_reduce (in-place)
I0403 14:52:50.241564 11349 net.cpp:141] Setting up inception_4c/relu_3x3_reduce
I0403 14:52:50.241592 11349 net.cpp:148] Top shape: 24 128 14 14 (602112)
I0403 14:52:50.241610 11349 net.cpp:156] Memory required for data: 1038026016
I0403 14:52:50.241624 11349 layer_factory.hpp:77] Creating layer inception_4c/3x3
I0403 14:52:50.241644 11349 net.cpp:91] Creating Layer inception_4c/3x3
I0403 14:52:50.241662 11349 net.cpp:425] inception_4c/3x3 <- inception_4c/3x3_reduce
I0403 14:52:50.241684 11349 net.cpp:399] inception_4c/3x3 -> inception_4c/3x3
I0403 14:52:50.245450 11349 net.cpp:141] Setting up inception_4c/3x3
I0403 14:52:50.245496 11349 net.cpp:148] Top shape: 24 256 14 14 (1204224)
I0403 14:52:50.245514 11349 net.cpp:156] Memory required for data: 1042842912
I0403 14:52:50.245549 11349 layer_factory.hpp:77] Creating layer inception_4c/relu_3x3
I0403 14:52:50.245571 11349 net.cpp:91] Creating Layer inception_4c/relu_3x3
I0403 14:52:50.245589 11349 net.cpp:425] inception_4c/relu_3x3 <- inception_4c/3x3
I0403 14:52:50.245609 11349 net.cpp:386] inception_4c/relu_3x3 -> inception_4c/3x3 (in-place)
I0403 14:52:50.245811 11349 net.cpp:141] Setting up inception_4c/relu_3x3
I0403 14:52:50.245839 11349 net.cpp:148] Top shape: 24 256 14 14 (1204224)
I0403 14:52:50.245854 11349 net.cpp:156] Memory required for data: 1047659808
I0403 14:52:50.245869 11349 layer_factory.hpp:77] Creating layer inception_4c/5x5_reduce
I0403 14:52:50.245893 11349 net.cpp:91] Creating Layer inception_4c/5x5_reduce
I0403 14:52:50.245911 11349 net.cpp:425] inception_4c/5x5_reduce <- inception_4b/output_inception_4b/output_0_split_2
I0403 14:52:50.245930 11349 net.cpp:399] inception_4c/5x5_reduce -> inception_4c/5x5_reduce
I0403 14:52:50.247058 11349 net.cpp:141] Setting up inception_4c/5x5_reduce
I0403 14:52:50.247092 11349 net.cpp:148] Top shape: 24 24 14 14 (112896)
I0403 14:52:50.247108 11349 net.cpp:156] Memory required for data: 1048111392
I0403 14:52:50.247128 11349 layer_factory.hpp:77] Creating layer inception_4c/relu_5x5_reduce
I0403 14:52:50.247146 11349 net.cpp:91] Creating Layer inception_4c/relu_5x5_reduce
I0403 14:52:50.247164 11349 net.cpp:425] inception_4c/relu_5x5_reduce <- inception_4c/5x5_reduce
I0403 14:52:50.247182 11349 net.cpp:386] inception_4c/relu_5x5_reduce -> inception_4c/5x5_reduce (in-place)
I0403 14:52:50.247375 11349 net.cpp:141] Setting up inception_4c/relu_5x5_reduce
I0403 14:52:50.247403 11349 net.cpp:148] Top shape: 24 24 14 14 (112896)
I0403 14:52:50.247419 11349 net.cpp:156] Memory required for data: 1048562976
I0403 14:52:50.247434 11349 layer_factory.hpp:77] Creating layer inception_4c/5x5
I0403 14:52:50.247457 11349 net.cpp:91] Creating Layer inception_4c/5x5
I0403 14:52:50.247474 11349 net.cpp:425] inception_4c/5x5 <- inception_4c/5x5_reduce
I0403 14:52:50.247496 11349 net.cpp:399] inception_4c/5x5 -> inception_4c/5x5
I0403 14:52:50.248774 11349 net.cpp:141] Setting up inception_4c/5x5
I0403 14:52:50.248801 11349 net.cpp:148] Top shape: 24 64 14 14 (301056)
I0403 14:52:50.248817 11349 net.cpp:156] Memory required for data: 1049767200
I0403 14:52:50.248836 11349 layer_factory.hpp:77] Creating layer inception_4c/relu_5x5
I0403 14:52:50.248855 11349 net.cpp:91] Creating Layer inception_4c/relu_5x5
I0403 14:52:50.248872 11349 net.cpp:425] inception_4c/relu_5x5 <- inception_4c/5x5
I0403 14:52:50.248891 11349 net.cpp:386] inception_4c/relu_5x5 -> inception_4c/5x5 (in-place)
I0403 14:52:50.249189 11349 net.cpp:141] Setting up inception_4c/relu_5x5
I0403 14:52:50.249217 11349 net.cpp:148] Top shape: 24 64 14 14 (301056)
I0403 14:52:50.249233 11349 net.cpp:156] Memory required for data: 1050971424
I0403 14:52:50.249248 11349 layer_factory.hpp:77] Creating layer inception_4c/pool
I0403 14:52:50.249266 11349 net.cpp:91] Creating Layer inception_4c/pool
I0403 14:52:50.249282 11349 net.cpp:425] inception_4c/pool <- inception_4b/output_inception_4b/output_0_split_3
I0403 14:52:50.249303 11349 net.cpp:399] inception_4c/pool -> inception_4c/pool
I0403 14:52:50.249372 11349 net.cpp:141] Setting up inception_4c/pool
I0403 14:52:50.249402 11349 net.cpp:148] Top shape: 24 512 14 14 (2408448)
I0403 14:52:50.249416 11349 net.cpp:156] Memory required for data: 1060605216
I0403 14:52:50.249431 11349 layer_factory.hpp:77] Creating layer inception_4c/pool_proj
I0403 14:52:50.249455 11349 net.cpp:91] Creating Layer inception_4c/pool_proj
I0403 14:52:50.249474 11349 net.cpp:425] inception_4c/pool_proj <- inception_4c/pool
I0403 14:52:50.249492 11349 net.cpp:399] inception_4c/pool_proj -> inception_4c/pool_proj
I0403 14:52:50.250768 11349 net.cpp:141] Setting up inception_4c/pool_proj
I0403 14:52:50.250799 11349 net.cpp:148] Top shape: 24 64 14 14 (301056)
I0403 14:52:50.250830 11349 net.cpp:156] Memory required for data: 1061809440
I0403 14:52:50.250850 11349 layer_factory.hpp:77] Creating layer inception_4c/relu_pool_proj
I0403 14:52:50.250869 11349 net.cpp:91] Creating Layer inception_4c/relu_pool_proj
I0403 14:52:50.250885 11349 net.cpp:425] inception_4c/relu_pool_proj <- inception_4c/pool_proj
I0403 14:52:50.250906 11349 net.cpp:386] inception_4c/relu_pool_proj -> inception_4c/pool_proj (in-place)
I0403 14:52:50.251096 11349 net.cpp:141] Setting up inception_4c/relu_pool_proj
I0403 14:52:50.251122 11349 net.cpp:148] Top shape: 24 64 14 14 (301056)
I0403 14:52:50.251138 11349 net.cpp:156] Memory required for data: 1063013664
I0403 14:52:50.251153 11349 layer_factory.hpp:77] Creating layer inception_4c/output
I0403 14:52:50.251170 11349 net.cpp:91] Creating Layer inception_4c/output
I0403 14:52:50.251186 11349 net.cpp:425] inception_4c/output <- inception_4c/1x1
I0403 14:52:50.251204 11349 net.cpp:425] inception_4c/output <- inception_4c/3x3
I0403 14:52:50.251220 11349 net.cpp:425] inception_4c/output <- inception_4c/5x5
I0403 14:52:50.251235 11349 net.cpp:425] inception_4c/output <- inception_4c/pool_proj
I0403 14:52:50.251255 11349 net.cpp:399] inception_4c/output -> inception_4c/output
I0403 14:52:50.251302 11349 net.cpp:141] Setting up inception_4c/output
I0403 14:52:50.251329 11349 net.cpp:148] Top shape: 24 512 14 14 (2408448)
I0403 14:52:50.251344 11349 net.cpp:156] Memory required for data: 1072647456
I0403 14:52:50.251361 11349 layer_factory.hpp:77] Creating layer inception_4c/output_inception_4c/output_0_split
I0403 14:52:50.251382 11349 net.cpp:91] Creating Layer inception_4c/output_inception_4c/output_0_split
I0403 14:52:50.251400 11349 net.cpp:425] inception_4c/output_inception_4c/output_0_split <- inception_4c/output
I0403 14:52:50.251418 11349 net.cpp:399] inception_4c/output_inception_4c/output_0_split -> inception_4c/output_inception_4c/output_0_split_0
I0403 14:52:50.251440 11349 net.cpp:399] inception_4c/output_inception_4c/output_0_split -> inception_4c/output_inception_4c/output_0_split_1
I0403 14:52:50.251461 11349 net.cpp:399] inception_4c/output_inception_4c/output_0_split -> inception_4c/output_inception_4c/output_0_split_2
I0403 14:52:50.251484 11349 net.cpp:399] inception_4c/output_inception_4c/output_0_split -> inception_4c/output_inception_4c/output_0_split_3
I0403 14:52:50.251574 11349 net.cpp:141] Setting up inception_4c/output_inception_4c/output_0_split
I0403 14:52:50.251597 11349 net.cpp:148] Top shape: 24 512 14 14 (2408448)
I0403 14:52:50.251613 11349 net.cpp:148] Top shape: 24 512 14 14 (2408448)
I0403 14:52:50.251629 11349 net.cpp:148] Top shape: 24 512 14 14 (2408448)
I0403 14:52:50.251646 11349 net.cpp:148] Top shape: 24 512 14 14 (2408448)
I0403 14:52:50.251659 11349 net.cpp:156] Memory required for data: 1111182624
I0403 14:52:50.251673 11349 layer_factory.hpp:77] Creating layer inception_4d/1x1
I0403 14:52:50.251696 11349 net.cpp:91] Creating Layer inception_4d/1x1
I0403 14:52:50.251714 11349 net.cpp:425] inception_4d/1x1 <- inception_4c/output_inception_4c/output_0_split_0
I0403 14:52:50.251736 11349 net.cpp:399] inception_4d/1x1 -> inception_4d/1x1
I0403 14:52:50.253159 11349 net.cpp:141] Setting up inception_4d/1x1
I0403 14:52:50.253186 11349 net.cpp:148] Top shape: 24 112 14 14 (526848)
I0403 14:52:50.253201 11349 net.cpp:156] Memory required for data: 1113290016
I0403 14:52:50.253219 11349 layer_factory.hpp:77] Creating layer inception_4d/relu_1x1
I0403 14:52:50.253239 11349 net.cpp:91] Creating Layer inception_4d/relu_1x1
I0403 14:52:50.253257 11349 net.cpp:425] inception_4d/relu_1x1 <- inception_4d/1x1
I0403 14:52:50.253273 11349 net.cpp:386] inception_4d/relu_1x1 -> inception_4d/1x1 (in-place)
I0403 14:52:50.253468 11349 net.cpp:141] Setting up inception_4d/relu_1x1
I0403 14:52:50.253494 11349 net.cpp:148] Top shape: 24 112 14 14 (526848)
I0403 14:52:50.253509 11349 net.cpp:156] Memory required for data: 1115397408
I0403 14:52:50.253525 11349 layer_factory.hpp:77] Creating layer inception_4d/3x3_reduce
I0403 14:52:50.253561 11349 net.cpp:91] Creating Layer inception_4d/3x3_reduce
I0403 14:52:50.253578 11349 net.cpp:425] inception_4d/3x3_reduce <- inception_4c/output_inception_4c/output_0_split_1
I0403 14:52:50.253598 11349 net.cpp:399] inception_4d/3x3_reduce -> inception_4d/3x3_reduce
I0403 14:52:50.255112 11349 net.cpp:141] Setting up inception_4d/3x3_reduce
I0403 14:52:50.255139 11349 net.cpp:148] Top shape: 24 144 14 14 (677376)
I0403 14:52:50.255156 11349 net.cpp:156] Memory required for data: 1118106912
I0403 14:52:50.255173 11349 layer_factory.hpp:77] Creating layer inception_4d/relu_3x3_reduce
I0403 14:52:50.255193 11349 net.cpp:91] Creating Layer inception_4d/relu_3x3_reduce
I0403 14:52:50.255210 11349 net.cpp:425] inception_4d/relu_3x3_reduce <- inception_4d/3x3_reduce
I0403 14:52:50.255228 11349 net.cpp:386] inception_4d/relu_3x3_reduce -> inception_4d/3x3_reduce (in-place)
I0403 14:52:50.255523 11349 net.cpp:141] Setting up inception_4d/relu_3x3_reduce
I0403 14:52:50.255549 11349 net.cpp:148] Top shape: 24 144 14 14 (677376)
I0403 14:52:50.255564 11349 net.cpp:156] Memory required for data: 1120816416
I0403 14:52:50.255579 11349 layer_factory.hpp:77] Creating layer inception_4d/3x3
I0403 14:52:50.255601 11349 net.cpp:91] Creating Layer inception_4d/3x3
I0403 14:52:50.255620 11349 net.cpp:425] inception_4d/3x3 <- inception_4d/3x3_reduce
I0403 14:52:50.255640 11349 net.cpp:399] inception_4d/3x3 -> inception_4d/3x3
I0403 14:52:50.259852 11349 net.cpp:141] Setting up inception_4d/3x3
I0403 14:52:50.259881 11349 net.cpp:148] Top shape: 24 288 14 14 (1354752)
I0403 14:52:50.259896 11349 net.cpp:156] Memory required for data: 1126235424
I0403 14:52:50.259912 11349 layer_factory.hpp:77] Creating layer inception_4d/relu_3x3
I0403 14:52:50.259932 11349 net.cpp:91] Creating Layer inception_4d/relu_3x3
I0403 14:52:50.259948 11349 net.cpp:425] inception_4d/relu_3x3 <- inception_4d/3x3
I0403 14:52:50.259965 11349 net.cpp:386] inception_4d/relu_3x3 -> inception_4d/3x3 (in-place)
I0403 14:52:50.260146 11349 net.cpp:141] Setting up inception_4d/relu_3x3
I0403 14:52:50.260171 11349 net.cpp:148] Top shape: 24 288 14 14 (1354752)
I0403 14:52:50.260186 11349 net.cpp:156] Memory required for data: 1131654432
I0403 14:52:50.260201 11349 layer_factory.hpp:77] Creating layer inception_4d/5x5_reduce
I0403 14:52:50.260222 11349 net.cpp:91] Creating Layer inception_4d/5x5_reduce
I0403 14:52:50.260238 11349 net.cpp:425] inception_4d/5x5_reduce <- inception_4c/output_inception_4c/output_0_split_2
I0403 14:52:50.260257 11349 net.cpp:399] inception_4d/5x5_reduce -> inception_4d/5x5_reduce
I0403 14:52:50.261382 11349 net.cpp:141] Setting up inception_4d/5x5_reduce
I0403 14:52:50.261422 11349 net.cpp:148] Top shape: 24 32 14 14 (150528)
I0403 14:52:50.261438 11349 net.cpp:156] Memory required for data: 1132256544
I0403 14:52:50.261456 11349 layer_factory.hpp:77] Creating layer inception_4d/relu_5x5_reduce
I0403 14:52:50.261476 11349 net.cpp:91] Creating Layer inception_4d/relu_5x5_reduce
I0403 14:52:50.261493 11349 net.cpp:425] inception_4d/relu_5x5_reduce <- inception_4d/5x5_reduce
I0403 14:52:50.261510 11349 net.cpp:386] inception_4d/relu_5x5_reduce -> inception_4d/5x5_reduce (in-place)
I0403 14:52:50.261709 11349 net.cpp:141] Setting up inception_4d/relu_5x5_reduce
I0403 14:52:50.261739 11349 net.cpp:148] Top shape: 24 32 14 14 (150528)
I0403 14:52:50.261754 11349 net.cpp:156] Memory required for data: 1132858656
I0403 14:52:50.261768 11349 layer_factory.hpp:77] Creating layer inception_4d/5x5
I0403 14:52:50.261788 11349 net.cpp:91] Creating Layer inception_4d/5x5
I0403 14:52:50.261806 11349 net.cpp:425] inception_4d/5x5 <- inception_4d/5x5_reduce
I0403 14:52:50.261824 11349 net.cpp:399] inception_4d/5x5 -> inception_4d/5x5
I0403 14:52:50.263273 11349 net.cpp:141] Setting up inception_4d/5x5
I0403 14:52:50.263299 11349 net.cpp:148] Top shape: 24 64 14 14 (301056)
I0403 14:52:50.263315 11349 net.cpp:156] Memory required for data: 1134062880
I0403 14:52:50.263334 11349 layer_factory.hpp:77] Creating layer inception_4d/relu_5x5
I0403 14:52:50.263366 11349 net.cpp:91] Creating Layer inception_4d/relu_5x5
I0403 14:52:50.263387 11349 net.cpp:425] inception_4d/relu_5x5 <- inception_4d/5x5
I0403 14:52:50.263407 11349 net.cpp:386] inception_4d/relu_5x5 -> inception_4d/5x5 (in-place)
I0403 14:52:50.263703 11349 net.cpp:141] Setting up inception_4d/relu_5x5
I0403 14:52:50.263728 11349 net.cpp:148] Top shape: 24 64 14 14 (301056)
I0403 14:52:50.263743 11349 net.cpp:156] Memory required for data: 1135267104
I0403 14:52:50.263757 11349 layer_factory.hpp:77] Creating layer inception_4d/pool
I0403 14:52:50.263774 11349 net.cpp:91] Creating Layer inception_4d/pool
I0403 14:52:50.263789 11349 net.cpp:425] inception_4d/pool <- inception_4c/output_inception_4c/output_0_split_3
I0403 14:52:50.263809 11349 net.cpp:399] inception_4d/pool -> inception_4d/pool
I0403 14:52:50.263875 11349 net.cpp:141] Setting up inception_4d/pool
I0403 14:52:50.263897 11349 net.cpp:148] Top shape: 24 512 14 14 (2408448)
I0403 14:52:50.263911 11349 net.cpp:156] Memory required for data: 1144900896
I0403 14:52:50.263924 11349 layer_factory.hpp:77] Creating layer inception_4d/pool_proj
I0403 14:52:50.263947 11349 net.cpp:91] Creating Layer inception_4d/pool_proj
I0403 14:52:50.263964 11349 net.cpp:425] inception_4d/pool_proj <- inception_4d/pool
I0403 14:52:50.263983 11349 net.cpp:399] inception_4d/pool_proj -> inception_4d/pool_proj
I0403 14:52:50.265736 11349 net.cpp:141] Setting up inception_4d/pool_proj
I0403 14:52:50.265764 11349 net.cpp:148] Top shape: 24 64 14 14 (301056)
I0403 14:52:50.265779 11349 net.cpp:156] Memory required for data: 1146105120
I0403 14:52:50.265797 11349 layer_factory.hpp:77] Creating layer inception_4d/relu_pool_proj
I0403 14:52:50.265816 11349 net.cpp:91] Creating Layer inception_4d/relu_pool_proj
I0403 14:52:50.265833 11349 net.cpp:425] inception_4d/relu_pool_proj <- inception_4d/pool_proj
I0403 14:52:50.265851 11349 net.cpp:386] inception_4d/relu_pool_proj -> inception_4d/pool_proj (in-place)
I0403 14:52:50.266036 11349 net.cpp:141] Setting up inception_4d/relu_pool_proj
I0403 14:52:50.266062 11349 net.cpp:148] Top shape: 24 64 14 14 (301056)
I0403 14:52:50.266077 11349 net.cpp:156] Memory required for data: 1147309344
I0403 14:52:50.266090 11349 layer_factory.hpp:77] Creating layer inception_4d/output
I0403 14:52:50.266108 11349 net.cpp:91] Creating Layer inception_4d/output
I0403 14:52:50.266122 11349 net.cpp:425] inception_4d/output <- inception_4d/1x1
I0403 14:52:50.266139 11349 net.cpp:425] inception_4d/output <- inception_4d/3x3
I0403 14:52:50.266154 11349 net.cpp:425] inception_4d/output <- inception_4d/5x5
I0403 14:52:50.266168 11349 net.cpp:425] inception_4d/output <- inception_4d/pool_proj
I0403 14:52:50.266187 11349 net.cpp:399] inception_4d/output -> inception_4d/output
I0403 14:52:50.266232 11349 net.cpp:141] Setting up inception_4d/output
I0403 14:52:50.266254 11349 net.cpp:148] Top shape: 24 528 14 14 (2483712)
I0403 14:52:50.266268 11349 net.cpp:156] Memory required for data: 1157244192
I0403 14:52:50.266283 11349 layer_factory.hpp:77] Creating layer inception_4d/output_inception_4d/output_0_split
I0403 14:52:50.266301 11349 net.cpp:91] Creating Layer inception_4d/output_inception_4d/output_0_split
I0403 14:52:50.266317 11349 net.cpp:425] inception_4d/output_inception_4d/output_0_split <- inception_4d/output
I0403 14:52:50.266335 11349 net.cpp:399] inception_4d/output_inception_4d/output_0_split -> inception_4d/output_inception_4d/output_0_split_0
I0403 14:52:50.266355 11349 net.cpp:399] inception_4d/output_inception_4d/output_0_split -> inception_4d/output_inception_4d/output_0_split_1
I0403 14:52:50.266381 11349 net.cpp:399] inception_4d/output_inception_4d/output_0_split -> inception_4d/output_inception_4d/output_0_split_2
I0403 14:52:50.266403 11349 net.cpp:399] inception_4d/output_inception_4d/output_0_split -> inception_4d/output_inception_4d/output_0_split_3
I0403 14:52:50.266423 11349 net.cpp:399] inception_4d/output_inception_4d/output_0_split -> inception_4d/output_inception_4d/output_0_split_4
I0403 14:52:50.266520 11349 net.cpp:141] Setting up inception_4d/output_inception_4d/output_0_split
I0403 14:52:50.266554 11349 net.cpp:148] Top shape: 24 528 14 14 (2483712)
I0403 14:52:50.266571 11349 net.cpp:148] Top shape: 24 528 14 14 (2483712)
I0403 14:52:50.266587 11349 net.cpp:148] Top shape: 24 528 14 14 (2483712)
I0403 14:52:50.266602 11349 net.cpp:148] Top shape: 24 528 14 14 (2483712)
I0403 14:52:50.266615 11349 net.cpp:148] Top shape: 24 528 14 14 (2483712)
I0403 14:52:50.266628 11349 net.cpp:156] Memory required for data: 1206918432
I0403 14:52:50.266643 11349 layer_factory.hpp:77] Creating layer loss2/ave_pool
I0403 14:52:50.266661 11349 net.cpp:91] Creating Layer loss2/ave_pool
I0403 14:52:50.266679 11349 net.cpp:425] loss2/ave_pool <- inception_4d/output_inception_4d/output_0_split_0
I0403 14:52:50.266696 11349 net.cpp:399] loss2/ave_pool -> loss2/ave_pool
I0403 14:52:50.267001 11349 net.cpp:141] Setting up loss2/ave_pool
I0403 14:52:50.267027 11349 net.cpp:148] Top shape: 24 528 4 4 (202752)
I0403 14:52:50.267042 11349 net.cpp:156] Memory required for data: 1207729440
I0403 14:52:50.267056 11349 layer_factory.hpp:77] Creating layer loss2/conv
I0403 14:52:50.267077 11349 net.cpp:91] Creating Layer loss2/conv
I0403 14:52:50.267094 11349 net.cpp:425] loss2/conv <- loss2/ave_pool
I0403 14:52:50.267115 11349 net.cpp:399] loss2/conv -> loss2/conv
I0403 14:52:50.268975 11349 net.cpp:141] Setting up loss2/conv
I0403 14:52:50.269003 11349 net.cpp:148] Top shape: 24 128 4 4 (49152)
I0403 14:52:50.269021 11349 net.cpp:156] Memory required for data: 1207926048
I0403 14:52:50.269037 11349 layer_factory.hpp:77] Creating layer loss2/relu_conv
I0403 14:52:50.269055 11349 net.cpp:91] Creating Layer loss2/relu_conv
I0403 14:52:50.269071 11349 net.cpp:425] loss2/relu_conv <- loss2/conv
I0403 14:52:50.269089 11349 net.cpp:386] loss2/relu_conv -> loss2/conv (in-place)
I0403 14:52:50.269373 11349 net.cpp:141] Setting up loss2/relu_conv
I0403 14:52:50.269404 11349 net.cpp:148] Top shape: 24 128 4 4 (49152)
I0403 14:52:50.269420 11349 net.cpp:156] Memory required for data: 1208122656
I0403 14:52:50.269434 11349 layer_factory.hpp:77] Creating layer loss2/fc
I0403 14:52:50.269454 11349 net.cpp:91] Creating Layer loss2/fc
I0403 14:52:50.269469 11349 net.cpp:425] loss2/fc <- loss2/conv
I0403 14:52:50.269490 11349 net.cpp:399] loss2/fc -> loss2/fc
I0403 14:52:50.286619 11349 net.cpp:141] Setting up loss2/fc
I0403 14:52:50.286653 11349 net.cpp:148] Top shape: 24 1024 (24576)
I0403 14:52:50.286667 11349 net.cpp:156] Memory required for data: 1208220960
I0403 14:52:50.286685 11349 layer_factory.hpp:77] Creating layer loss2/relu_fc
I0403 14:52:50.286705 11349 net.cpp:91] Creating Layer loss2/relu_fc
I0403 14:52:50.286721 11349 net.cpp:425] loss2/relu_fc <- loss2/fc
I0403 14:52:50.286738 11349 net.cpp:386] loss2/relu_fc -> loss2/fc (in-place)
I0403 14:52:50.287037 11349 net.cpp:141] Setting up loss2/relu_fc
I0403 14:52:50.287062 11349 net.cpp:148] Top shape: 24 1024 (24576)
I0403 14:52:50.287077 11349 net.cpp:156] Memory required for data: 1208319264
I0403 14:52:50.287092 11349 layer_factory.hpp:77] Creating layer loss2/drop_fc
I0403 14:52:50.287111 11349 net.cpp:91] Creating Layer loss2/drop_fc
I0403 14:52:50.287127 11349 net.cpp:425] loss2/drop_fc <- loss2/fc
I0403 14:52:50.287144 11349 net.cpp:386] loss2/drop_fc -> loss2/fc (in-place)
I0403 14:52:50.287195 11349 net.cpp:141] Setting up loss2/drop_fc
I0403 14:52:50.287219 11349 net.cpp:148] Top shape: 24 1024 (24576)
I0403 14:52:50.287233 11349 net.cpp:156] Memory required for data: 1208417568
I0403 14:52:50.287246 11349 layer_factory.hpp:77] Creating layer loss2/classifier_plantvillage
I0403 14:52:50.287269 11349 net.cpp:91] Creating Layer loss2/classifier_plantvillage
I0403 14:52:50.287286 11349 net.cpp:425] loss2/classifier_plantvillage <- loss2/fc
I0403 14:52:50.287303 11349 net.cpp:399] loss2/classifier_plantvillage -> loss2/classifier_plantvillage
I0403 14:52:50.287729 11349 net.cpp:141] Setting up loss2/classifier_plantvillage
I0403 14:52:50.287753 11349 net.cpp:148] Top shape: 24 38 (912)
I0403 14:52:50.287784 11349 net.cpp:156] Memory required for data: 1208421216
I0403 14:52:50.287802 11349 layer_factory.hpp:77] Creating layer loss2/classifier_plantvillage_loss2/classifier_plantvillage_0_split
I0403 14:52:50.287820 11349 net.cpp:91] Creating Layer loss2/classifier_plantvillage_loss2/classifier_plantvillage_0_split
I0403 14:52:50.287835 11349 net.cpp:425] loss2/classifier_plantvillage_loss2/classifier_plantvillage_0_split <- loss2/classifier_plantvillage
I0403 14:52:50.287856 11349 net.cpp:399] loss2/classifier_plantvillage_loss2/classifier_plantvillage_0_split -> loss2/classifier_plantvillage_loss2/classifier_plantvillage_0_split_0
I0403 14:52:50.287878 11349 net.cpp:399] loss2/classifier_plantvillage_loss2/classifier_plantvillage_0_split -> loss2/classifier_plantvillage_loss2/classifier_plantvillage_0_split_1
I0403 14:52:50.287897 11349 net.cpp:399] loss2/classifier_plantvillage_loss2/classifier_plantvillage_0_split -> loss2/classifier_plantvillage_loss2/classifier_plantvillage_0_split_2
I0403 14:52:50.287974 11349 net.cpp:141] Setting up loss2/classifier_plantvillage_loss2/classifier_plantvillage_0_split
I0403 14:52:50.287999 11349 net.cpp:148] Top shape: 24 38 (912)
I0403 14:52:50.288015 11349 net.cpp:148] Top shape: 24 38 (912)
I0403 14:52:50.288031 11349 net.cpp:148] Top shape: 24 38 (912)
I0403 14:52:50.288045 11349 net.cpp:156] Memory required for data: 1208432160
I0403 14:52:50.288059 11349 layer_factory.hpp:77] Creating layer inception_4e/1x1
I0403 14:52:50.288079 11349 net.cpp:91] Creating Layer inception_4e/1x1
I0403 14:52:50.288095 11349 net.cpp:425] inception_4e/1x1 <- inception_4d/output_inception_4d/output_0_split_1
I0403 14:52:50.288115 11349 net.cpp:399] inception_4e/1x1 -> inception_4e/1x1
I0403 14:52:50.289963 11349 net.cpp:141] Setting up inception_4e/1x1
I0403 14:52:50.289991 11349 net.cpp:148] Top shape: 24 256 14 14 (1204224)
I0403 14:52:50.290009 11349 net.cpp:156] Memory required for data: 1213249056
I0403 14:52:50.290026 11349 layer_factory.hpp:77] Creating layer inception_4e/relu_1x1
I0403 14:52:50.290045 11349 net.cpp:91] Creating Layer inception_4e/relu_1x1
I0403 14:52:50.290060 11349 net.cpp:425] inception_4e/relu_1x1 <- inception_4e/1x1
I0403 14:52:50.290081 11349 net.cpp:386] inception_4e/relu_1x1 -> inception_4e/1x1 (in-place)
I0403 14:52:50.290400 11349 net.cpp:141] Setting up inception_4e/relu_1x1
I0403 14:52:50.290426 11349 net.cpp:148] Top shape: 24 256 14 14 (1204224)
I0403 14:52:50.290441 11349 net.cpp:156] Memory required for data: 1218065952
I0403 14:52:50.290455 11349 layer_factory.hpp:77] Creating layer inception_4e/3x3_reduce
I0403 14:52:50.290477 11349 net.cpp:91] Creating Layer inception_4e/3x3_reduce
I0403 14:52:50.290494 11349 net.cpp:425] inception_4e/3x3_reduce <- inception_4d/output_inception_4d/output_0_split_2
I0403 14:52:50.290515 11349 net.cpp:399] inception_4e/3x3_reduce -> inception_4e/3x3_reduce
I0403 14:52:50.292646 11349 net.cpp:141] Setting up inception_4e/3x3_reduce
I0403 14:52:50.292677 11349 net.cpp:148] Top shape: 24 160 14 14 (752640)
I0403 14:52:50.292693 11349 net.cpp:156] Memory required for data: 1221076512
I0403 14:52:50.292712 11349 layer_factory.hpp:77] Creating layer inception_4e/relu_3x3_reduce
I0403 14:52:50.292729 11349 net.cpp:91] Creating Layer inception_4e/relu_3x3_reduce
I0403 14:52:50.292747 11349 net.cpp:425] inception_4e/relu_3x3_reduce <- inception_4e/3x3_reduce
I0403 14:52:50.292767 11349 net.cpp:386] inception_4e/relu_3x3_reduce -> inception_4e/3x3_reduce (in-place)
I0403 14:52:50.292955 11349 net.cpp:141] Setting up inception_4e/relu_3x3_reduce
I0403 14:52:50.292981 11349 net.cpp:148] Top shape: 24 160 14 14 (752640)
I0403 14:52:50.292995 11349 net.cpp:156] Memory required for data: 1224087072
I0403 14:52:50.293009 11349 layer_factory.hpp:77] Creating layer inception_4e/3x3
I0403 14:52:50.293032 11349 net.cpp:91] Creating Layer inception_4e/3x3
I0403 14:52:50.293050 11349 net.cpp:425] inception_4e/3x3 <- inception_4e/3x3_reduce
I0403 14:52:50.293072 11349 net.cpp:399] inception_4e/3x3 -> inception_4e/3x3
I0403 14:52:50.298166 11349 net.cpp:141] Setting up inception_4e/3x3
I0403 14:52:50.298207 11349 net.cpp:148] Top shape: 24 320 14 14 (1505280)
I0403 14:52:50.298223 11349 net.cpp:156] Memory required for data: 1230108192
I0403 14:52:50.298241 11349 layer_factory.hpp:77] Creating layer inception_4e/relu_3x3
I0403 14:52:50.298261 11349 net.cpp:91] Creating Layer inception_4e/relu_3x3
I0403 14:52:50.298279 11349 net.cpp:425] inception_4e/relu_3x3 <- inception_4e/3x3
I0403 14:52:50.298295 11349 net.cpp:386] inception_4e/relu_3x3 -> inception_4e/3x3 (in-place)
I0403 14:52:50.298605 11349 net.cpp:141] Setting up inception_4e/relu_3x3
I0403 14:52:50.298631 11349 net.cpp:148] Top shape: 24 320 14 14 (1505280)
I0403 14:52:50.298646 11349 net.cpp:156] Memory required for data: 1236129312
I0403 14:52:50.298660 11349 layer_factory.hpp:77] Creating layer inception_4e/5x5_reduce
I0403 14:52:50.298686 11349 net.cpp:91] Creating Layer inception_4e/5x5_reduce
I0403 14:52:50.298703 11349 net.cpp:425] inception_4e/5x5_reduce <- inception_4d/output_inception_4d/output_0_split_3
I0403 14:52:50.298725 11349 net.cpp:399] inception_4e/5x5_reduce -> inception_4e/5x5_reduce
I0403 14:52:50.299808 11349 net.cpp:141] Setting up inception_4e/5x5_reduce
I0403 14:52:50.299835 11349 net.cpp:148] Top shape: 24 32 14 14 (150528)
I0403 14:52:50.299850 11349 net.cpp:156] Memory required for data: 1236731424
I0403 14:52:50.299870 11349 layer_factory.hpp:77] Creating layer inception_4e/relu_5x5_reduce
I0403 14:52:50.299886 11349 net.cpp:91] Creating Layer inception_4e/relu_5x5_reduce
I0403 14:52:50.299902 11349 net.cpp:425] inception_4e/relu_5x5_reduce <- inception_4e/5x5_reduce
I0403 14:52:50.299921 11349 net.cpp:386] inception_4e/relu_5x5_reduce -> inception_4e/5x5_reduce (in-place)
I0403 14:52:50.300246 11349 net.cpp:141] Setting up inception_4e/relu_5x5_reduce
I0403 14:52:50.300272 11349 net.cpp:148] Top shape: 24 32 14 14 (150528)
I0403 14:52:50.300288 11349 net.cpp:156] Memory required for data: 1237333536
I0403 14:52:50.300303 11349 layer_factory.hpp:77] Creating layer inception_4e/5x5
I0403 14:52:50.300341 11349 net.cpp:91] Creating Layer inception_4e/5x5
I0403 14:52:50.300364 11349 net.cpp:425] inception_4e/5x5 <- inception_4e/5x5_reduce
I0403 14:52:50.300386 11349 net.cpp:399] inception_4e/5x5 -> inception_4e/5x5
I0403 14:52:50.302300 11349 net.cpp:141] Setting up inception_4e/5x5
I0403 14:52:50.302335 11349 net.cpp:148] Top shape: 24 128 14 14 (602112)
I0403 14:52:50.302352 11349 net.cpp:156] Memory required for data: 1239741984
I0403 14:52:50.302371 11349 layer_factory.hpp:77] Creating layer inception_4e/relu_5x5
I0403 14:52:50.302415 11349 net.cpp:91] Creating Layer inception_4e/relu_5x5
I0403 14:52:50.302434 11349 net.cpp:425] inception_4e/relu_5x5 <- inception_4e/5x5
I0403 14:52:50.302453 11349 net.cpp:386] inception_4e/relu_5x5 -> inception_4e/5x5 (in-place)
I0403 14:52:50.302667 11349 net.cpp:141] Setting up inception_4e/relu_5x5
I0403 14:52:50.302707 11349 net.cpp:148] Top shape: 24 128 14 14 (602112)
I0403 14:52:50.302723 11349 net.cpp:156] Memory required for data: 1242150432
I0403 14:52:50.302738 11349 layer_factory.hpp:77] Creating layer inception_4e/pool
I0403 14:52:50.302757 11349 net.cpp:91] Creating Layer inception_4e/pool
I0403 14:52:50.302773 11349 net.cpp:425] inception_4e/pool <- inception_4d/output_inception_4d/output_0_split_4
I0403 14:52:50.302794 11349 net.cpp:399] inception_4e/pool -> inception_4e/pool
I0403 14:52:50.302865 11349 net.cpp:141] Setting up inception_4e/pool
I0403 14:52:50.302891 11349 net.cpp:148] Top shape: 24 528 14 14 (2483712)
I0403 14:52:50.302907 11349 net.cpp:156] Memory required for data: 1252085280
I0403 14:52:50.302922 11349 layer_factory.hpp:77] Creating layer inception_4e/pool_proj
I0403 14:52:50.302944 11349 net.cpp:91] Creating Layer inception_4e/pool_proj
I0403 14:52:50.302961 11349 net.cpp:425] inception_4e/pool_proj <- inception_4e/pool
I0403 14:52:50.302980 11349 net.cpp:399] inception_4e/pool_proj -> inception_4e/pool_proj
I0403 14:52:50.304555 11349 net.cpp:141] Setting up inception_4e/pool_proj
I0403 14:52:50.304595 11349 net.cpp:148] Top shape: 24 128 14 14 (602112)
I0403 14:52:50.304612 11349 net.cpp:156] Memory required for data: 1254493728
I0403 14:52:50.304630 11349 layer_factory.hpp:77] Creating layer inception_4e/relu_pool_proj
I0403 14:52:50.304651 11349 net.cpp:91] Creating Layer inception_4e/relu_pool_proj
I0403 14:52:50.304668 11349 net.cpp:425] inception_4e/relu_pool_proj <- inception_4e/pool_proj
I0403 14:52:50.304685 11349 net.cpp:386] inception_4e/relu_pool_proj -> inception_4e/pool_proj (in-place)
I0403 14:52:50.304996 11349 net.cpp:141] Setting up inception_4e/relu_pool_proj
I0403 14:52:50.305022 11349 net.cpp:148] Top shape: 24 128 14 14 (602112)
I0403 14:52:50.305038 11349 net.cpp:156] Memory required for data: 1256902176
I0403 14:52:50.305053 11349 layer_factory.hpp:77] Creating layer inception_4e/output
I0403 14:52:50.305073 11349 net.cpp:91] Creating Layer inception_4e/output
I0403 14:52:50.305090 11349 net.cpp:425] inception_4e/output <- inception_4e/1x1
I0403 14:52:50.305107 11349 net.cpp:425] inception_4e/output <- inception_4e/3x3
I0403 14:52:50.305124 11349 net.cpp:425] inception_4e/output <- inception_4e/5x5
I0403 14:52:50.305140 11349 net.cpp:425] inception_4e/output <- inception_4e/pool_proj
I0403 14:52:50.305157 11349 net.cpp:399] inception_4e/output -> inception_4e/output
I0403 14:52:50.305208 11349 net.cpp:141] Setting up inception_4e/output
I0403 14:52:50.305233 11349 net.cpp:148] Top shape: 24 832 14 14 (3913728)
I0403 14:52:50.305248 11349 net.cpp:156] Memory required for data: 1272557088
I0403 14:52:50.305263 11349 layer_factory.hpp:77] Creating layer pool4/3x3_s2
I0403 14:52:50.305281 11349 net.cpp:91] Creating Layer pool4/3x3_s2
I0403 14:52:50.305300 11349 net.cpp:425] pool4/3x3_s2 <- inception_4e/output
I0403 14:52:50.305318 11349 net.cpp:399] pool4/3x3_s2 -> pool4/3x3_s2
I0403 14:52:50.305397 11349 net.cpp:141] Setting up pool4/3x3_s2
I0403 14:52:50.305420 11349 net.cpp:148] Top shape: 24 832 7 7 (978432)
I0403 14:52:50.305436 11349 net.cpp:156] Memory required for data: 1276470816
I0403 14:52:50.305450 11349 layer_factory.hpp:77] Creating layer pool4/3x3_s2_pool4/3x3_s2_0_split
I0403 14:52:50.305467 11349 net.cpp:91] Creating Layer pool4/3x3_s2_pool4/3x3_s2_0_split
I0403 14:52:50.305483 11349 net.cpp:425] pool4/3x3_s2_pool4/3x3_s2_0_split <- pool4/3x3_s2
I0403 14:52:50.305506 11349 net.cpp:399] pool4/3x3_s2_pool4/3x3_s2_0_split -> pool4/3x3_s2_pool4/3x3_s2_0_split_0
I0403 14:52:50.305528 11349 net.cpp:399] pool4/3x3_s2_pool4/3x3_s2_0_split -> pool4/3x3_s2_pool4/3x3_s2_0_split_1
I0403 14:52:50.305548 11349 net.cpp:399] pool4/3x3_s2_pool4/3x3_s2_0_split -> pool4/3x3_s2_pool4/3x3_s2_0_split_2
I0403 14:52:50.305568 11349 net.cpp:399] pool4/3x3_s2_pool4/3x3_s2_0_split -> pool4/3x3_s2_pool4/3x3_s2_0_split_3
I0403 14:52:50.305675 11349 net.cpp:141] Setting up pool4/3x3_s2_pool4/3x3_s2_0_split
I0403 14:52:50.305698 11349 net.cpp:148] Top shape: 24 832 7 7 (978432)
I0403 14:52:50.305716 11349 net.cpp:148] Top shape: 24 832 7 7 (978432)
I0403 14:52:50.305730 11349 net.cpp:148] Top shape: 24 832 7 7 (978432)
I0403 14:52:50.305745 11349 net.cpp:148] Top shape: 24 832 7 7 (978432)
I0403 14:52:50.305759 11349 net.cpp:156] Memory required for data: 1292125728
I0403 14:52:50.305773 11349 layer_factory.hpp:77] Creating layer inception_5a/1x1
I0403 14:52:50.305797 11349 net.cpp:91] Creating Layer inception_5a/1x1
I0403 14:52:50.305814 11349 net.cpp:425] inception_5a/1x1 <- pool4/3x3_s2_pool4/3x3_s2_0_split_0
I0403 14:52:50.305832 11349 net.cpp:399] inception_5a/1x1 -> inception_5a/1x1
I0403 14:52:50.308765 11349 net.cpp:141] Setting up inception_5a/1x1
I0403 14:52:50.308796 11349 net.cpp:148] Top shape: 24 256 7 7 (301056)
I0403 14:52:50.308814 11349 net.cpp:156] Memory required for data: 1293329952
I0403 14:52:50.308831 11349 layer_factory.hpp:77] Creating layer inception_5a/relu_1x1
I0403 14:52:50.308848 11349 net.cpp:91] Creating Layer inception_5a/relu_1x1
I0403 14:52:50.308864 11349 net.cpp:425] inception_5a/relu_1x1 <- inception_5a/1x1
I0403 14:52:50.308884 11349 net.cpp:386] inception_5a/relu_1x1 -> inception_5a/1x1 (in-place)
I0403 14:52:50.309198 11349 net.cpp:141] Setting up inception_5a/relu_1x1
I0403 14:52:50.309226 11349 net.cpp:148] Top shape: 24 256 7 7 (301056)
I0403 14:52:50.309242 11349 net.cpp:156] Memory required for data: 1294534176
I0403 14:52:50.309257 11349 layer_factory.hpp:77] Creating layer inception_5a/3x3_reduce
I0403 14:52:50.309279 11349 net.cpp:91] Creating Layer inception_5a/3x3_reduce
I0403 14:52:50.309296 11349 net.cpp:425] inception_5a/3x3_reduce <- pool4/3x3_s2_pool4/3x3_s2_0_split_1
I0403 14:52:50.309316 11349 net.cpp:399] inception_5a/3x3_reduce -> inception_5a/3x3_reduce
I0403 14:52:50.311857 11349 net.cpp:141] Setting up inception_5a/3x3_reduce
I0403 14:52:50.311887 11349 net.cpp:148] Top shape: 24 160 7 7 (188160)
I0403 14:52:50.311902 11349 net.cpp:156] Memory required for data: 1295286816
I0403 14:52:50.311919 11349 layer_factory.hpp:77] Creating layer inception_5a/relu_3x3_reduce
I0403 14:52:50.311939 11349 net.cpp:91] Creating Layer inception_5a/relu_3x3_reduce
I0403 14:52:50.311957 11349 net.cpp:425] inception_5a/relu_3x3_reduce <- inception_5a/3x3_reduce
I0403 14:52:50.311975 11349 net.cpp:386] inception_5a/relu_3x3_reduce -> inception_5a/3x3_reduce (in-place)
I0403 14:52:50.312166 11349 net.cpp:141] Setting up inception_5a/relu_3x3_reduce
I0403 14:52:50.312193 11349 net.cpp:148] Top shape: 24 160 7 7 (188160)
I0403 14:52:50.312209 11349 net.cpp:156] Memory required for data: 1296039456
I0403 14:52:50.312223 11349 layer_factory.hpp:77] Creating layer inception_5a/3x3
I0403 14:52:50.312247 11349 net.cpp:91] Creating Layer inception_5a/3x3
I0403 14:52:50.312264 11349 net.cpp:425] inception_5a/3x3 <- inception_5a/3x3_reduce
I0403 14:52:50.312283 11349 net.cpp:399] inception_5a/3x3 -> inception_5a/3x3
I0403 14:52:50.317333 11349 net.cpp:141] Setting up inception_5a/3x3
I0403 14:52:50.317366 11349 net.cpp:148] Top shape: 24 320 7 7 (376320)
I0403 14:52:50.317386 11349 net.cpp:156] Memory required for data: 1297544736
I0403 14:52:50.317405 11349 layer_factory.hpp:77] Creating layer inception_5a/relu_3x3
I0403 14:52:50.317425 11349 net.cpp:91] Creating Layer inception_5a/relu_3x3
I0403 14:52:50.317441 11349 net.cpp:425] inception_5a/relu_3x3 <- inception_5a/3x3
I0403 14:52:50.317457 11349 net.cpp:386] inception_5a/relu_3x3 -> inception_5a/3x3 (in-place)
I0403 14:52:50.317754 11349 net.cpp:141] Setting up inception_5a/relu_3x3
I0403 14:52:50.317782 11349 net.cpp:148] Top shape: 24 320 7 7 (376320)
I0403 14:52:50.317798 11349 net.cpp:156] Memory required for data: 1299050016
I0403 14:52:50.317813 11349 layer_factory.hpp:77] Creating layer inception_5a/5x5_reduce
I0403 14:52:50.317836 11349 net.cpp:91] Creating Layer inception_5a/5x5_reduce
I0403 14:52:50.317854 11349 net.cpp:425] inception_5a/5x5_reduce <- pool4/3x3_s2_pool4/3x3_s2_0_split_2
I0403 14:52:50.317873 11349 net.cpp:399] inception_5a/5x5_reduce -> inception_5a/5x5_reduce
I0403 14:52:50.319063 11349 net.cpp:141] Setting up inception_5a/5x5_reduce
I0403 14:52:50.319093 11349 net.cpp:148] Top shape: 24 32 7 7 (37632)
I0403 14:52:50.319110 11349 net.cpp:156] Memory required for data: 1299200544
I0403 14:52:50.319128 11349 layer_factory.hpp:77] Creating layer inception_5a/relu_5x5_reduce
I0403 14:52:50.319145 11349 net.cpp:91] Creating Layer inception_5a/relu_5x5_reduce
I0403 14:52:50.319161 11349 net.cpp:425] inception_5a/relu_5x5_reduce <- inception_5a/5x5_reduce
I0403 14:52:50.319180 11349 net.cpp:386] inception_5a/relu_5x5_reduce -> inception_5a/5x5_reduce (in-place)
I0403 14:52:50.319485 11349 net.cpp:141] Setting up inception_5a/relu_5x5_reduce
I0403 14:52:50.319514 11349 net.cpp:148] Top shape: 24 32 7 7 (37632)
I0403 14:52:50.319530 11349 net.cpp:156] Memory required for data: 1299351072
I0403 14:52:50.319545 11349 layer_factory.hpp:77] Creating layer inception_5a/5x5
I0403 14:52:50.319566 11349 net.cpp:91] Creating Layer inception_5a/5x5
I0403 14:52:50.319583 11349 net.cpp:425] inception_5a/5x5 <- inception_5a/5x5_reduce
I0403 14:52:50.319605 11349 net.cpp:399] inception_5a/5x5 -> inception_5a/5x5
I0403 14:52:50.321343 11349 net.cpp:141] Setting up inception_5a/5x5
I0403 14:52:50.321390 11349 net.cpp:148] Top shape: 24 128 7 7 (150528)
I0403 14:52:50.321408 11349 net.cpp:156] Memory required for data: 1299953184
I0403 14:52:50.321427 11349 layer_factory.hpp:77] Creating layer inception_5a/relu_5x5
I0403 14:52:50.321445 11349 net.cpp:91] Creating Layer inception_5a/relu_5x5
I0403 14:52:50.321461 11349 net.cpp:425] inception_5a/relu_5x5 <- inception_5a/5x5
I0403 14:52:50.321480 11349 net.cpp:386] inception_5a/relu_5x5 -> inception_5a/5x5 (in-place)
I0403 14:52:50.321678 11349 net.cpp:141] Setting up inception_5a/relu_5x5
I0403 14:52:50.321703 11349 net.cpp:148] Top shape: 24 128 7 7 (150528)
I0403 14:52:50.321717 11349 net.cpp:156] Memory required for data: 1300555296
I0403 14:52:50.321732 11349 layer_factory.hpp:77] Creating layer inception_5a/pool
I0403 14:52:50.321749 11349 net.cpp:91] Creating Layer inception_5a/pool
I0403 14:52:50.321765 11349 net.cpp:425] inception_5a/pool <- pool4/3x3_s2_pool4/3x3_s2_0_split_3
I0403 14:52:50.321786 11349 net.cpp:399] inception_5a/pool -> inception_5a/pool
I0403 14:52:50.321856 11349 net.cpp:141] Setting up inception_5a/pool
I0403 14:52:50.321884 11349 net.cpp:148] Top shape: 24 832 7 7 (978432)
I0403 14:52:50.321899 11349 net.cpp:156] Memory required for data: 1304469024
I0403 14:52:50.321913 11349 layer_factory.hpp:77] Creating layer inception_5a/pool_proj
I0403 14:52:50.321934 11349 net.cpp:91] Creating Layer inception_5a/pool_proj
I0403 14:52:50.321951 11349 net.cpp:425] inception_5a/pool_proj <- inception_5a/pool
I0403 14:52:50.321971 11349 net.cpp:399] inception_5a/pool_proj -> inception_5a/pool_proj
I0403 14:52:50.324273 11349 net.cpp:141] Setting up inception_5a/pool_proj
I0403 14:52:50.324301 11349 net.cpp:148] Top shape: 24 128 7 7 (150528)
I0403 14:52:50.324317 11349 net.cpp:156] Memory required for data: 1305071136
I0403 14:52:50.324336 11349 layer_factory.hpp:77] Creating layer inception_5a/relu_pool_proj
I0403 14:52:50.324357 11349 net.cpp:91] Creating Layer inception_5a/relu_pool_proj
I0403 14:52:50.324374 11349 net.cpp:425] inception_5a/relu_pool_proj <- inception_5a/pool_proj
I0403 14:52:50.324398 11349 net.cpp:386] inception_5a/relu_pool_proj -> inception_5a/pool_proj (in-place)
I0403 14:52:50.324702 11349 net.cpp:141] Setting up inception_5a/relu_pool_proj
I0403 14:52:50.324728 11349 net.cpp:148] Top shape: 24 128 7 7 (150528)
I0403 14:52:50.324743 11349 net.cpp:156] Memory required for data: 1305673248
I0403 14:52:50.324759 11349 layer_factory.hpp:77] Creating layer inception_5a/output
I0403 14:52:50.324777 11349 net.cpp:91] Creating Layer inception_5a/output
I0403 14:52:50.324795 11349 net.cpp:425] inception_5a/output <- inception_5a/1x1
I0403 14:52:50.324812 11349 net.cpp:425] inception_5a/output <- inception_5a/3x3
I0403 14:52:50.324828 11349 net.cpp:425] inception_5a/output <- inception_5a/5x5
I0403 14:52:50.324843 11349 net.cpp:425] inception_5a/output <- inception_5a/pool_proj
I0403 14:52:50.324861 11349 net.cpp:399] inception_5a/output -> inception_5a/output
I0403 14:52:50.324911 11349 net.cpp:141] Setting up inception_5a/output
I0403 14:52:50.324934 11349 net.cpp:148] Top shape: 24 832 7 7 (978432)
I0403 14:52:50.324949 11349 net.cpp:156] Memory required for data: 1309586976
I0403 14:52:50.324964 11349 layer_factory.hpp:77] Creating layer inception_5a/output_inception_5a/output_0_split
I0403 14:52:50.324980 11349 net.cpp:91] Creating Layer inception_5a/output_inception_5a/output_0_split
I0403 14:52:50.324996 11349 net.cpp:425] inception_5a/output_inception_5a/output_0_split <- inception_5a/output
I0403 14:52:50.325016 11349 net.cpp:399] inception_5a/output_inception_5a/output_0_split -> inception_5a/output_inception_5a/output_0_split_0
I0403 14:52:50.325037 11349 net.cpp:399] inception_5a/output_inception_5a/output_0_split -> inception_5a/output_inception_5a/output_0_split_1
I0403 14:52:50.325058 11349 net.cpp:399] inception_5a/output_inception_5a/output_0_split -> inception_5a/output_inception_5a/output_0_split_2
I0403 14:52:50.325079 11349 net.cpp:399] inception_5a/output_inception_5a/output_0_split -> inception_5a/output_inception_5a/output_0_split_3
I0403 14:52:50.325192 11349 net.cpp:141] Setting up inception_5a/output_inception_5a/output_0_split
I0403 14:52:50.325218 11349 net.cpp:148] Top shape: 24 832 7 7 (978432)
I0403 14:52:50.325237 11349 net.cpp:148] Top shape: 24 832 7 7 (978432)
I0403 14:52:50.325253 11349 net.cpp:148] Top shape: 24 832 7 7 (978432)
I0403 14:52:50.325268 11349 net.cpp:148] Top shape: 24 832 7 7 (978432)
I0403 14:52:50.325281 11349 net.cpp:156] Memory required for data: 1325241888
I0403 14:52:50.325295 11349 layer_factory.hpp:77] Creating layer inception_5b/1x1
I0403 14:52:50.325317 11349 net.cpp:91] Creating Layer inception_5b/1x1
I0403 14:52:50.325335 11349 net.cpp:425] inception_5b/1x1 <- inception_5a/output_inception_5a/output_0_split_0
I0403 14:52:50.325353 11349 net.cpp:399] inception_5b/1x1 -> inception_5b/1x1
I0403 14:52:50.329182 11349 net.cpp:141] Setting up inception_5b/1x1
I0403 14:52:50.329211 11349 net.cpp:148] Top shape: 24 384 7 7 (451584)
I0403 14:52:50.329227 11349 net.cpp:156] Memory required for data: 1327048224
I0403 14:52:50.329246 11349 layer_factory.hpp:77] Creating layer inception_5b/relu_1x1
I0403 14:52:50.329267 11349 net.cpp:91] Creating Layer inception_5b/relu_1x1
I0403 14:52:50.329284 11349 net.cpp:425] inception_5b/relu_1x1 <- inception_5b/1x1
I0403 14:52:50.329300 11349 net.cpp:386] inception_5b/relu_1x1 -> inception_5b/1x1 (in-place)
I0403 14:52:50.329610 11349 net.cpp:141] Setting up inception_5b/relu_1x1
I0403 14:52:50.329637 11349 net.cpp:148] Top shape: 24 384 7 7 (451584)
I0403 14:52:50.329651 11349 net.cpp:156] Memory required for data: 1328854560
I0403 14:52:50.329666 11349 layer_factory.hpp:77] Creating layer inception_5b/3x3_reduce
I0403 14:52:50.329689 11349 net.cpp:91] Creating Layer inception_5b/3x3_reduce
I0403 14:52:50.329706 11349 net.cpp:425] inception_5b/3x3_reduce <- inception_5a/output_inception_5a/output_0_split_1
I0403 14:52:50.329728 11349 net.cpp:399] inception_5b/3x3_reduce -> inception_5b/3x3_reduce
I0403 14:52:50.332458 11349 net.cpp:141] Setting up inception_5b/3x3_reduce
I0403 14:52:50.332487 11349 net.cpp:148] Top shape: 24 192 7 7 (225792)
I0403 14:52:50.332504 11349 net.cpp:156] Memory required for data: 1329757728
I0403 14:52:50.332521 11349 layer_factory.hpp:77] Creating layer inception_5b/relu_3x3_reduce
I0403 14:52:50.332542 11349 net.cpp:91] Creating Layer inception_5b/relu_3x3_reduce
I0403 14:52:50.332559 11349 net.cpp:425] inception_5b/relu_3x3_reduce <- inception_5b/3x3_reduce
I0403 14:52:50.332577 11349 net.cpp:386] inception_5b/relu_3x3_reduce -> inception_5b/3x3_reduce (in-place)
I0403 14:52:50.332773 11349 net.cpp:141] Setting up inception_5b/relu_3x3_reduce
I0403 14:52:50.332799 11349 net.cpp:148] Top shape: 24 192 7 7 (225792)
I0403 14:52:50.332814 11349 net.cpp:156] Memory required for data: 1330660896
I0403 14:52:50.332829 11349 layer_factory.hpp:77] Creating layer inception_5b/3x3
I0403 14:52:50.332851 11349 net.cpp:91] Creating Layer inception_5b/3x3
I0403 14:52:50.332870 11349 net.cpp:425] inception_5b/3x3 <- inception_5b/3x3_reduce
I0403 14:52:50.332887 11349 net.cpp:399] inception_5b/3x3 -> inception_5b/3x3
I0403 14:52:50.339735 11349 net.cpp:141] Setting up inception_5b/3x3
I0403 14:52:50.339763 11349 net.cpp:148] Top shape: 24 384 7 7 (451584)
I0403 14:52:50.339779 11349 net.cpp:156] Memory required for data: 1332467232
I0403 14:52:50.339797 11349 layer_factory.hpp:77] Creating layer inception_5b/relu_3x3
I0403 14:52:50.339818 11349 net.cpp:91] Creating Layer inception_5b/relu_3x3
I0403 14:52:50.339836 11349 net.cpp:425] inception_5b/relu_3x3 <- inception_5b/3x3
I0403 14:52:50.339854 11349 net.cpp:386] inception_5b/relu_3x3 -> inception_5b/3x3 (in-place)
I0403 14:52:50.340157 11349 net.cpp:141] Setting up inception_5b/relu_3x3
I0403 14:52:50.340183 11349 net.cpp:148] Top shape: 24 384 7 7 (451584)
I0403 14:52:50.340198 11349 net.cpp:156] Memory required for data: 1334273568
I0403 14:52:50.340212 11349 layer_factory.hpp:77] Creating layer inception_5b/5x5_reduce
I0403 14:52:50.340255 11349 net.cpp:91] Creating Layer inception_5b/5x5_reduce
I0403 14:52:50.340275 11349 net.cpp:425] inception_5b/5x5_reduce <- inception_5a/output_inception_5a/output_0_split_2
I0403 14:52:50.340293 11349 net.cpp:399] inception_5b/5x5_reduce -> inception_5b/5x5_reduce
I0403 14:52:50.341639 11349 net.cpp:141] Setting up inception_5b/5x5_reduce
I0403 14:52:50.341666 11349 net.cpp:148] Top shape: 24 48 7 7 (56448)
I0403 14:52:50.341693 11349 net.cpp:156] Memory required for data: 1334499360
I0403 14:52:50.341712 11349 layer_factory.hpp:77] Creating layer inception_5b/relu_5x5_reduce
I0403 14:52:50.341733 11349 net.cpp:91] Creating Layer inception_5b/relu_5x5_reduce
I0403 14:52:50.341749 11349 net.cpp:425] inception_5b/relu_5x5_reduce <- inception_5b/5x5_reduce
I0403 14:52:50.341766 11349 net.cpp:386] inception_5b/relu_5x5_reduce -> inception_5b/5x5_reduce (in-place)
I0403 14:52:50.342149 11349 net.cpp:141] Setting up inception_5b/relu_5x5_reduce
I0403 14:52:50.342175 11349 net.cpp:148] Top shape: 24 48 7 7 (56448)
I0403 14:52:50.342190 11349 net.cpp:156] Memory required for data: 1334725152
I0403 14:52:50.342206 11349 layer_factory.hpp:77] Creating layer inception_5b/5x5
I0403 14:52:50.342226 11349 net.cpp:91] Creating Layer inception_5b/5x5
I0403 14:52:50.342242 11349 net.cpp:425] inception_5b/5x5 <- inception_5b/5x5_reduce
I0403 14:52:50.342262 11349 net.cpp:399] inception_5b/5x5 -> inception_5b/5x5
I0403 14:52:50.344413 11349 net.cpp:141] Setting up inception_5b/5x5
I0403 14:52:50.344444 11349 net.cpp:148] Top shape: 24 128 7 7 (150528)
I0403 14:52:50.344460 11349 net.cpp:156] Memory required for data: 1335327264
I0403 14:52:50.344478 11349 layer_factory.hpp:77] Creating layer inception_5b/relu_5x5
I0403 14:52:50.344496 11349 net.cpp:91] Creating Layer inception_5b/relu_5x5
I0403 14:52:50.344513 11349 net.cpp:425] inception_5b/relu_5x5 <- inception_5b/5x5
I0403 14:52:50.344533 11349 net.cpp:386] inception_5b/relu_5x5 -> inception_5b/5x5 (in-place)
I0403 14:52:50.344730 11349 net.cpp:141] Setting up inception_5b/relu_5x5
I0403 14:52:50.344755 11349 net.cpp:148] Top shape: 24 128 7 7 (150528)
I0403 14:52:50.344770 11349 net.cpp:156] Memory required for data: 1335929376
I0403 14:52:50.344784 11349 layer_factory.hpp:77] Creating layer inception_5b/pool
I0403 14:52:50.344802 11349 net.cpp:91] Creating Layer inception_5b/pool
I0403 14:52:50.344818 11349 net.cpp:425] inception_5b/pool <- inception_5a/output_inception_5a/output_0_split_3
I0403 14:52:50.344838 11349 net.cpp:399] inception_5b/pool -> inception_5b/pool
I0403 14:52:50.344913 11349 net.cpp:141] Setting up inception_5b/pool
I0403 14:52:50.344936 11349 net.cpp:148] Top shape: 24 832 7 7 (978432)
I0403 14:52:50.344951 11349 net.cpp:156] Memory required for data: 1339843104
I0403 14:52:50.344965 11349 layer_factory.hpp:77] Creating layer inception_5b/pool_proj
I0403 14:52:50.344990 11349 net.cpp:91] Creating Layer inception_5b/pool_proj
I0403 14:52:50.345006 11349 net.cpp:425] inception_5b/pool_proj <- inception_5b/pool
I0403 14:52:50.345026 11349 net.cpp:399] inception_5b/pool_proj -> inception_5b/pool_proj
I0403 14:52:50.347352 11349 net.cpp:141] Setting up inception_5b/pool_proj
I0403 14:52:50.347388 11349 net.cpp:148] Top shape: 24 128 7 7 (150528)
I0403 14:52:50.347404 11349 net.cpp:156] Memory required for data: 1340445216
I0403 14:52:50.347424 11349 layer_factory.hpp:77] Creating layer inception_5b/relu_pool_proj
I0403 14:52:50.347441 11349 net.cpp:91] Creating Layer inception_5b/relu_pool_proj
I0403 14:52:50.347457 11349 net.cpp:425] inception_5b/relu_pool_proj <- inception_5b/pool_proj
I0403 14:52:50.347476 11349 net.cpp:386] inception_5b/relu_pool_proj -> inception_5b/pool_proj (in-place)
I0403 14:52:50.347780 11349 net.cpp:141] Setting up inception_5b/relu_pool_proj
I0403 14:52:50.347808 11349 net.cpp:148] Top shape: 24 128 7 7 (150528)
I0403 14:52:50.347825 11349 net.cpp:156] Memory required for data: 1341047328
I0403 14:52:50.347839 11349 layer_factory.hpp:77] Creating layer inception_5b/output
I0403 14:52:50.347856 11349 net.cpp:91] Creating Layer inception_5b/output
I0403 14:52:50.347887 11349 net.cpp:425] inception_5b/output <- inception_5b/1x1
I0403 14:52:50.347904 11349 net.cpp:425] inception_5b/output <- inception_5b/3x3
I0403 14:52:50.347921 11349 net.cpp:425] inception_5b/output <- inception_5b/5x5
I0403 14:52:50.347937 11349 net.cpp:425] inception_5b/output <- inception_5b/pool_proj
I0403 14:52:50.347954 11349 net.cpp:399] inception_5b/output -> inception_5b/output
I0403 14:52:50.348007 11349 net.cpp:141] Setting up inception_5b/output
I0403 14:52:50.348031 11349 net.cpp:148] Top shape: 24 1024 7 7 (1204224)
I0403 14:52:50.348045 11349 net.cpp:156] Memory required for data: 1345864224
I0403 14:52:50.348059 11349 layer_factory.hpp:77] Creating layer pool5/7x7_s1
I0403 14:52:50.348078 11349 net.cpp:91] Creating Layer pool5/7x7_s1
I0403 14:52:50.348095 11349 net.cpp:425] pool5/7x7_s1 <- inception_5b/output
I0403 14:52:50.348114 11349 net.cpp:399] pool5/7x7_s1 -> pool5/7x7_s1
I0403 14:52:50.348333 11349 net.cpp:141] Setting up pool5/7x7_s1
I0403 14:52:50.348363 11349 net.cpp:148] Top shape: 24 1024 1 1 (24576)
I0403 14:52:50.348382 11349 net.cpp:156] Memory required for data: 1345962528
I0403 14:52:50.348398 11349 layer_factory.hpp:77] Creating layer pool5/drop_7x7_s1
I0403 14:52:50.348417 11349 net.cpp:91] Creating Layer pool5/drop_7x7_s1
I0403 14:52:50.348433 11349 net.cpp:425] pool5/drop_7x7_s1 <- pool5/7x7_s1
I0403 14:52:50.348449 11349 net.cpp:386] pool5/drop_7x7_s1 -> pool5/7x7_s1 (in-place)
I0403 14:52:50.348501 11349 net.cpp:141] Setting up pool5/drop_7x7_s1
I0403 14:52:50.348526 11349 net.cpp:148] Top shape: 24 1024 1 1 (24576)
I0403 14:52:50.348539 11349 net.cpp:156] Memory required for data: 1346060832
I0403 14:52:50.348554 11349 layer_factory.hpp:77] Creating layer loss3/classifier_plantvillage
I0403 14:52:50.348575 11349 net.cpp:91] Creating Layer loss3/classifier_plantvillage
I0403 14:52:50.348593 11349 net.cpp:425] loss3/classifier_plantvillage <- pool5/7x7_s1
I0403 14:52:50.348611 11349 net.cpp:399] loss3/classifier_plantvillage -> loss3/classifier_plantvillage
I0403 14:52:50.349040 11349 net.cpp:141] Setting up loss3/classifier_plantvillage
I0403 14:52:50.349063 11349 net.cpp:148] Top shape: 24 38 (912)
I0403 14:52:50.349078 11349 net.cpp:156] Memory required for data: 1346064480
I0403 14:52:50.349095 11349 layer_factory.hpp:77] Creating layer loss3/classifier_plantvillage_loss3/classifier_plantvillage_0_split
I0403 14:52:50.349113 11349 net.cpp:91] Creating Layer loss3/classifier_plantvillage_loss3/classifier_plantvillage_0_split
I0403 14:52:50.349129 11349 net.cpp:425] loss3/classifier_plantvillage_loss3/classifier_plantvillage_0_split <- loss3/classifier_plantvillage
I0403 14:52:50.349150 11349 net.cpp:399] loss3/classifier_plantvillage_loss3/classifier_plantvillage_0_split -> loss3/classifier_plantvillage_loss3/classifier_plantvillage_0_split_0
I0403 14:52:50.349171 11349 net.cpp:399] loss3/classifier_plantvillage_loss3/classifier_plantvillage_0_split -> loss3/classifier_plantvillage_loss3/classifier_plantvillage_0_split_1
I0403 14:52:50.349191 11349 net.cpp:399] loss3/classifier_plantvillage_loss3/classifier_plantvillage_0_split -> loss3/classifier_plantvillage_loss3/classifier_plantvillage_0_split_2
I0403 14:52:50.349211 11349 net.cpp:399] loss3/classifier_plantvillage_loss3/classifier_plantvillage_0_split -> loss3/classifier_plantvillage_loss3/classifier_plantvillage_0_split_3
I0403 14:52:50.349315 11349 net.cpp:141] Setting up loss3/classifier_plantvillage_loss3/classifier_plantvillage_0_split
I0403 14:52:50.349339 11349 net.cpp:148] Top shape: 24 38 (912)
I0403 14:52:50.349356 11349 net.cpp:148] Top shape: 24 38 (912)
I0403 14:52:50.349372 11349 net.cpp:148] Top shape: 24 38 (912)
I0403 14:52:50.349405 11349 net.cpp:148] Top shape: 24 38 (912)
I0403 14:52:50.349419 11349 net.cpp:156] Memory required for data: 1346079072
I0403 14:52:50.349434 11349 layer_factory.hpp:77] Creating layer loss1/loss
I0403 14:52:50.349457 11349 net.cpp:91] Creating Layer loss1/loss
I0403 14:52:50.349474 11349 net.cpp:425] loss1/loss <- loss1/classifier_plantvillage_loss1/classifier_plantvillage_0_split_0
I0403 14:52:50.349505 11349 net.cpp:425] loss1/loss <- label_data_1_split_0
…
