…
I0403 15:34:18.100462 12097 net.cpp:313] The NetState phase (1) differed from the phase (0) specified by a rule in layer data
I0403 15:34:18.101658 12097 net.cpp:49] Initializing net from parameters: 
state {
  phase: TEST
}
layer {
  name: "data"
  type: "Data"
  top: "data"
  top: "label"
  include {
    phase: TEST
  }
  transform_param {
    mirror: false
    crop_size: 224
    mean_file: "/home/mohanty/data/final_dataset/lmdb/segmented-50-50/mean.binaryproto"
  }
  data_param {
    source: "/home/mohanty/data/final_dataset/lmdb/segmented-50-50/test_db"
    batch_size: 24
    backend: LMDB
  }
}
layer {
  name: "conv1/7x7_s2"
  type: "Convolution"
  bottom: "data"
  top: "conv1/7x7_s2"
  param {
    lr_mult: 1
    decay_mult: 1
  }
  param {
    lr_mult: 2
    decay_mult: 0
  }
  convolution_param {
    num_output: 64
    pad: 3
    kernel_size: 7
    stride: 2
    weight_filler {
      type: "xavier"
      std: 0.1
    }
    bias_filler {
      type: "constant"
      value: 0.2
    }
  }
}
layer {
  name: "conv1/relu_7x7"
  type: "ReLU"
  bottom: "conv1/7x7_s2"
  top: "conv1/7x7_s2"
}
layer {
  name: "pool1/3x3_s2"
  type: "Pooling"
  bottom: "conv1/7x7_s2"
  top: "pool1/3x3_s2"
  pooling_param {
    pool: MAX
    kernel_size: 3
    stride: 2
  }
}
layer {
  name: "pool1/norm1"
  type: "LRN"
  bottom: "pool1/3x3_s2"
  top: "pool1/norm1"
  lrn_param {
    local_size: 5
    alpha: 0.0001
    beta: 0.75
  }
}
layer {
  name: "conv2/3x3_reduce"
  type: "Convolution"
  bottom: "pool1/norm1"
  top: "conv2/3x3_reduce"
  param {
    lr_mult: 1
    decay_mult: 1
  }
  param {
    lr_mult: 2
    decay_mult: 0
  }
  convolution_param {
    num_output: 64
    kernel_size: 1
    weight_filler {
      type: "xavier"
      std: 0.1
    }
    bias_filler {
      type: "constant"
      value: 0.2
    }
  }
}
layer {
  name: "conv2/relu_3x3_reduce"
  type: "ReLU"
  bottom: "conv2/3x3_reduce"
  top: "conv2/3x3_reduce"
}
layer {
  name: "conv2/3x3"
  type: "Convolution"
  bottom: "conv2/3x3_reduce"
  top: "conv2/3x3"
  param {
    lr_mult: 1
    decay_mult: 1
  }
  param {
    lr_mult: 2
    decay_mult: 0
  }
  convolution_param {
    num_output: 192
    pad: 1
    kernel_size: 3
    weight_filler {
      type: "xavier"
      std: 0.03
    }
    bias_filler {
      type: "constant"
      value: 0.2
    }
  }
}
layer {
  name: "conv2/relu_3x3"
  type: "ReLU"
  bottom: "conv2/3x3"
  top: "conv2/3x3"
}
layer {
  name: "conv2/norm2"
  type: "LRN"
  bottom: "conv2/3x3"
  top: "conv2/norm2"
  lrn_param {
    local_size: 5
    alpha: 0.0001
    beta: 0.75
  }
}
layer {
  name: "pool2/3x3_s2"
  type: "Pooling"
  bottom: "conv2/norm2"
  top: "pool2/3x3_s2"
  pooling_param {
    pool: MAX
    kernel_size: 3
    stride: 2
  }
}
layer {
  name: "inception_3a/1x1"
  type: "Convolution"
  bottom: "pool2/3x3_s2"
  top: "inception_3a/1x1"
  param {
    lr_mult: 1
    decay_mult: 1
  }
  param {
    lr_mult: 2
    decay_mult: 0
  }
  convolution_param {
    num_output: 64
    kernel_size: 1
    weight_filler {
      type: "xavier"
      std: 0.03
    }
    bias_filler {
      type: "constant"
      value: 0.2
    }
  }
}
layer {
  name: "inception_3a/relu_1x1"
  type: "ReLU"
  bottom: "inception_3a/1x1"
  top: "inception_3a/1x1"
}
layer {
  name: "inception_3a/3x3_reduce"
  type: "Convolution"
  bottom: "pool2/3x3_s2"
  top: "inception_3a/3x3_reduce"
  param {
    lr_mult: 1
    decay_mult: 1
  }
  param {
    lr_mult: 2
    decay_mult: 0
  }
  convolution_param {
    num_output: 96
    kernel_size: 1
    weight_filler {
      type: "xavier"
      std: 0.09
    }
    bias_filler {
      type: "constant"
      value: 0.2
    }
  }
}
layer {
  name: "inception_3a/relu_3x3_reduce"
  type: "ReLU"
  bottom: "inception_3a/3x3_reduce"
  top: "inception_3a/3x3_reduce"
}
layer {
  name: "inception_3a/3x3"
  type: "Convolution"
  bottom: "inception_3a/3x3_reduce"
  top: "inception_3a/3x3"
  param {
    lr_mult: 1
    decay_mult: 1
  }
  param {
    lr_mult: 2
    decay_mult: 0
  }
  convolution_param {
    num_output: 128
    pad: 1
    kernel_size: 3
    weight_filler {
      type: "xavier"
      std: 0.03
    }
    bias_filler {
      type: "constant"
      value: 0.2
    }
  }
}
layer {
  name: "inception_3a/relu_3x3"
  type: "ReLU"
  bottom: "inception_3a/3x3"
  top: "inception_3a/3x3"
}
layer {
  name: "inception_3a/5x5_reduce"
  type: "Convolution"
  bottom: "pool2/3x3_s2"
  top: "inception_3a/5x5_reduce"
  param {
    lr_mult: 1
    decay_mult: 1
  }
  param {
    lr_mult: 2
    decay_mult: 0
  }
  convolution_param {
    num_output: 16
    kernel_size: 1
    weight_filler {
      type: "xavier"
      std: 0.2
    }
    bias_filler {
      type: "constant"
      value: 0.2
    }
  }
}
layer {
  name: "inception_3a/relu_5x5_reduce"
  type: "ReLU"
  bottom: "inception_3a/5x5_reduce"
  top: "inception_3a/5x5_reduce"
}
layer {
  name: "inception_3a/5x5"
  type: "Convolution"
  bottom: "inception_3a/5x5_reduce"
  top: "inception_3a/5x5"
  param {
    lr_mult: 1
    decay_mult: 1
  }
  param {
    lr_mult: 2
    decay_mult: 0
  }
  convolution_param {
    num_output: 32
    pad: 2
    kernel_size: 5
    weight_filler {
      type: "xavier"
      std: 0.03
    }
    bias_filler {
      type: "constant"
      value: 0.2
    }
  }
}
layer {
  name: "inception_3a/relu_5x5"
  type: "ReLU"
  bottom: "inception_3a/5x5"
  top: "inception_3a/5x5"
}
layer {
  name: "inception_3a/pool"
  type: "Pooling"
  bottom: "pool2/3x3_s2"
  top: "inception_3a/pool"
  pooling_param {
    pool: MAX
    kernel_size: 3
    stride: 1
    pad: 1
  }
}
layer {
  name: "inception_3a/pool_proj"
  type: "Convolution"
  bottom: "inception_3a/pool"
  top: "inception_3a/pool_proj"
  param {
    lr_mult: 1
    decay_mult: 1
  }
  param {
    lr_mult: 2
    decay_mult: 0
  }
  convolution_param {
    num_output: 32
    kernel_size: 1
    weight_filler {
      type: "xavier"
      std: 0.1
    }
    bias_filler {
      type: "constant"
      value: 0.2
    }
  }
}
layer {
  name: "inception_3a/relu_pool_proj"
  type: "ReLU"
  bottom: "inception_3a/pool_proj"
  top: "inception_3a/pool_proj"
}
layer {
  name: "inception_3a/output"
  type: "Concat"
  bottom: "inception_3a/1x1"
  bottom: "inception_3a/3x3"
  bottom: "inception_3a/5x5"
  bottom: "inception_3a/pool_proj"
  top: "inception_3a/output"
}
layer {
  name: "inception_3b/1x1"
  type: "Convolution"
  bottom: "inception_3a/output"
  top: "inception_3b/1x1"
  param {
    lr_mult: 1
    decay_mult: 1
  }
  param {
    lr_mult: 2
    decay_mult: 0
  }
  convolution_param {
    num_output: 128
    kernel_size: 1
    weight_filler {
      type: "xavier"
      std: 0.03
    }
    bias_filler {
      type: "constant"
      value: 0.2
    }
  }
}
layer {
  name: "inception_3b/relu_1x1"
  type: "ReLU"
  bottom: "inception_3b/1x1"
  top: "inception_3b/1x1"
}
layer {
  name: "inception_3b/3x3_reduce"
  type: "Convolution"
  bottom: "inception_3a/output"
  top: "inception_3b/3x3_reduce"
  param {
    lr_mult: 1
    decay_mult: 1
  }
  param {
    lr_mult: 2
    decay_mult: 0
  }
  convolution_param {
    num_output: 128
    kernel_size: 1
    weight_filler {
      type: "xavier"
      std: 0.09
    }
    bias_filler {
      type: "constant"
      value: 0.2
    }
  }
}
layer {
  name: "inception_3b/relu_3x3_reduce"
  type: "ReLU"
  bottom: "inception_3b/3x3_reduce"
  top: "inception_3b/3x3_reduce"
}
layer {
  name: "inception_3b/3x3"
  type: "Convolution"
  bottom: "inception_3b/3x3_reduce"
  top: "inception_3b/3x3"
  param {
    lr_mult: 1
    decay_mult: 1
  }
  param {
    lr_mult: 2
    decay_mult: 0
  }
  convolution_param {
    num_output: 192
    pad: 1
    kernel_size: 3
    weight_filler {
      type: "xavier"
      std: 0.03
    }
    bias_filler {
      type: "constant"
      value: 0.2
    }
  }
}
layer {
  name: "inception_3b/relu_3x3"
  type: "ReLU"
  bottom: "inception_3b/3x3"
  top: "inception_3b/3x3"
}
layer {
  name: "inception_3b/5x5_reduce"
  type: "Convolution"
  bottom: "inception_3a/output"
  top: "inception_3b/5x5_reduce"
  param {
    lr_mult: 1
    decay_mult: 1
  }
  param {
    lr_mult: 2
    decay_mult: 0
  }
  convolution_param {
    num_output: 32
    kernel_size: 1
    weight_filler {
      type: "xavier"
      std: 0.2
    }
    bias_filler {
      type: "constant"
      value: 0.2
    }
  }
}
layer {
  name: "inception_3b/relu_5x5_reduce"
  type: "ReLU"
  bottom: "inception_3b/5x5_reduce"
  top: "inception_3b/5x5_reduce"
}
layer {
  name: "inception_3b/5x5"
  type: "Convolution"
  bottom: "inception_3b/5x5_reduce"
  top: "inception_3b/5x5"
  param {
    lr_mult: 1
    decay_mult: 1
  }
  param {
    lr_mult: 2
    decay_mult: 0
  }
  convolution_param {
    num_output: 96
    pad: 2
    kernel_size: 5
    weight_filler {
      type: "xavier"
      std: 0.03
    }
    bias_filler {
      type: "constant"
      value: 0.2
    }
  }
}
layer {
  name: "inception_3b/relu_5x5"
  type: "ReLU"
  bottom: "inception_3b/5x5"
  top: "inception_3b/5x5"
}
layer {
  name: "inception_3b/pool"
  type: "Pooling"
  bottom: "inception_3a/output"
  top: "inception_3b/pool"
  pooling_param {
    pool: MAX
    kernel_size: 3
    stride: 1
    pad: 1
  }
}
layer {
  name: "inception_3b/pool_proj"
  type: "Convolution"
  bottom: "inception_3b/pool"
  top: "inception_3b/pool_proj"
  param {
    lr_mult: 1
    decay_mult: 1
  }
  param {
    lr_mult: 2
    decay_mult: 0
  }
  convolution_param {
    num_output: 64
    kernel_size: 1
    weight_filler {
      type: "xavier"
      std: 0.1
    }
    bias_filler {
      type: "constant"
      value: 0.2
    }
  }
}
layer {
  name: "inception_3b/relu_pool_proj"
  type: "ReLU"
  bottom: "inception_3b/pool_proj"
  top: "inception_3b/pool_proj"
}
layer {
  name: "inception_3b/output"
  type: "Concat"
  bottom: "inception_3b/1x1"
  bottom: "inception_3b/3x3"
  bottom: "inception_3b/5x5"
  bottom: "inception_3b/pool_proj"
  top: "inception_3b/output"
}
layer {
  name: "pool3/3x3_s2"
  type: "Pooling"
  bottom: "inception_3b/output"
  top: "pool3/3x3_s2"
  pooling_param {
    pool: MAX
    kernel_size: 3
    stride: 2
  }
}
layer {
  name: "inception_4a/1x1"
  type: "Convolution"
  bottom: "pool3/3x3_s2"
  top: "inception_4a/1x1"
  param {
    lr_mult: 1
    decay_mult: 1
  }
  param {
    lr_mult: 2
    decay_mult: 0
  }
  convolution_param {
    num_output: 192
    kernel_size: 1
    weight_filler {
      type: "xavier"
      std: 0.03
    }
    bias_filler {
      type: "constant"
      value: 0.2
    }
  }
}
layer {
  name: "inception_4a/relu_1x1"
  type: "ReLU"
  bottom: "inception_4a/1x1"
  top: "inception_4a/1x1"
}
layer {
  name: "inception_4a/3x3_reduce"
  type: "Convolution"
  bottom: "pool3/3x3_s2"
  top: "inception_4a/3x3_reduce"
  param {
    lr_mult: 1
    decay_mult: 1
  }
  param {
    lr_mult: 2
    decay_mult: 0
  }
  convolution_param {
    num_output: 96
    kernel_size: 1
    weight_filler {
      type: "xavier"
      std: 0.09
    }
    bias_filler {
      type: "constant"
      value: 0.2
    }
  }
}
layer {
  name: "inception_4a/relu_3x3_reduce"
  type: "ReLU"
  bottom: "inception_4a/3x3_reduce"
  top: "inception_4a/3x3_reduce"
}
layer {
  name: "inception_4a/3x3"
  type: "Convolution"
  bottom: "inception_4a/3x3_reduce"
  top: "inception_4a/3x3"
  param {
    lr_mult: 1
    decay_mult: 1
  }
  param {
    lr_mult: 2
    decay_mult: 0
  }
  convolution_param {
    num_output: 208
    pad: 1
    kernel_size: 3
    weight_filler {
      type: "xavier"
      std: 0.03
    }
    bias_filler {
      type: "constant"
      value: 0.2
    }
  }
}
layer {
  name: "inception_4a/relu_3x3"
  type: "ReLU"
  bottom: "inception_4a/3x3"
  top: "inception_4a/3x3"
}
layer {
  name: "inception_4a/5x5_reduce"
  type: "Convolution"
  bottom: "pool3/3x3_s2"
  top: "inception_4a/5x5_reduce"
  param {
    lr_mult: 1
    decay_mult: 1
  }
  param {
    lr_mult: 2
    decay_mult: 0
  }
  convolution_param {
    num_output: 16
    kernel_size: 1
    weight_filler {
      type: "xavier"
      std: 0.2
    }
    bias_filler {
      type: "constant"
      value: 0.2
    }
  }
}
layer {
  name: "inception_4a/relu_5x5_reduce"
  type: "ReLU"
  bottom: "inception_4a/5x5_reduce"
  top: "inception_4a/5x5_reduce"
}
layer {
  name: "inception_4a/5x5"
  type: "Convolution"
  bottom: "inception_4a/5x5_reduce"
  top: "inception_4a/5x5"
  param {
    lr_mult: 1
    decay_mult: 1
  }
  param {
    lr_mult: 2
    decay_mult: 0
  }
  convolution_param {
    num_output: 48
    pad: 2
    kernel_size: 5
    weight_filler {
      type: "xavier"
      std: 0.03
    }
    bias_filler {
      type: "constant"
      value: 0.2
    }
  }
}
layer {
  name: "inception_4a/relu_5x5"
  type: "ReLU"
  bottom: "inception_4a/5x5"
  top: "inception_4a/5x5"
}
layer {
  name: "inception_4a/pool"
  type: "Pooling"
  bottom: "pool3/3x3_s2"
  top: "inception_4a/pool"
  pooling_param {
    pool: MAX
    kernel_size: 3
    stride: 1
    pad: 1
  }
}
layer {
  name: "inception_4a/pool_proj"
  type: "Convolution"
  bottom: "inception_4a/pool"
  top: "inception_4a/pool_proj"
  param {
    lr_mult: 1
    decay_mult: 1
  }
  param {
    lr_mult: 2
    decay_mult: 0
  }
  convolution_param {
    num_output: 64
    kernel_size: 1
    weight_filler {
      type: "xavier"
      std: 0.1
    }
    bias_filler {
      type: "constant"
      value: 0.2
    }
  }
}
layer {
  name: "inception_4a/relu_pool_proj"
  type: "ReLU"
  bottom: "inception_4a/pool_proj"
  top: "inception_4a/pool_proj"
}
layer {
  name: "inception_4a/output"
  type: "Concat"
  bottom: "inception_4a/1x1"
  bottom: "inception_4a/3x3"
  bottom: "inception_4a/5x5"
  bottom: "inception_4a/pool_proj"
  top: "inception_4a/output"
}
layer {
  name: "loss1/ave_pool"
  type: "Pooling"
  bottom: "inception_4a/output"
  top: "loss1/ave_pool"
  pooling_param {
    pool: AVE
    kernel_size: 5
    stride: 3
  }
}
layer {
  name: "loss1/conv"
  type: "Convolution"
  bottom: "loss1/ave_pool"
  top: "loss1/conv"
  param {
    lr_mult: 1
    decay_mult: 1
  }
  param {
    lr_mult: 2
    decay_mult: 0
  }
  convolution_param {
    num_output: 128
    kernel_size: 1
    weight_filler {
      type: "xavier"
      std: 0.08
    }
    bias_filler {
      type: "constant"
      value: 0.2
    }
  }
}
layer {
  name: "loss1/relu_conv"
  type: "ReLU"
  bottom: "loss1/conv"
  top: "loss1/conv"
}
layer {
  name: "loss1/fc"
  type: "InnerProduct"
  bottom: "loss1/conv"
  top: "loss1/fc"
  param {
    lr_mult: 1
    decay_mult: 1
  }
  param {
    lr_mult: 2
    decay_mult: 0
  }
  inner_product_param {
    num_output: 1024
    weight_filler {
      type: "xavier"
      std: 0.02
    }
    bias_filler {
      type: "constant"
      value: 0.2
    }
  }
}
layer {
  name: "loss1/relu_fc"
  type: "ReLU"
  bottom: "loss1/fc"
  top: "loss1/fc"
}
layer {
  name: "loss1/drop_fc"
  type: "Dropout"
  bottom: "loss1/fc"
  top: "loss1/fc"
  dropout_param {
    dropout_ratio: 0.7
  }
}
layer {
  name: "loss1/classifier_plantvillage"
  type: "InnerProduct"
  bottom: "loss1/fc"
  top: "loss1/classifier_plantvillage"
  param {
    lr_mult: 1
    decay_mult: 1
  }
  param {
    lr_mult: 2
    decay_mult: 0
  }
  inner_product_param {
    num_output: 38
    weight_filler {
      type: "xavier"
      std: 0.0009765625
    }
    bias_filler {
      type: "constant"
      value: 0
    }
  }
}
layer {
  name: "inception_4b/1x1"
  type: "Convolution"
  bottom: "inception_4a/output"
  top: "inception_4b/1x1"
  param {
    lr_mult: 1
    decay_mult: 1
  }
  param {
    lr_mult: 2
    decay_mult: 0
  }
  convolution_param {
    num_output: 160
    kernel_size: 1
    weight_filler {
      type: "xavier"
      std: 0.03
    }
    bias_filler {
      type: "constant"
      value: 0.2
    }
  }
}
layer {
  name: "inception_4b/relu_1x1"
  type: "ReLU"
  bottom: "inception_4b/1x1"
  top: "inception_4b/1x1"
}
layer {
  name: "inception_4b/3x3_reduce"
  type: "Convolution"
  bottom: "inception_4a/output"
  top: "inception_4b/3x3_reduce"
  param {
    lr_mult: 1
    decay_mult: 1
  }
  param {
    lr_mult: 2
    decay_mult: 0
  }
  convolution_param {
    num_output: 112
    kernel_size: 1
    weight_filler {
      type: "xavier"
      std: 0.09
    }
    bias_filler {
      type: "constant"
      value: 0.2
    }
  }
}
layer {
  name: "inception_4b/relu_3x3_reduce"
  type: "ReLU"
  bottom: "inception_4b/3x3_reduce"
  top: "inception_4b/3x3_reduce"
}
layer {
  name: "inception_4b/3x3"
  type: "Convolution"
  bottom: "inception_4b/3x3_reduce"
  top: "inception_4b/3x3"
  param {
    lr_mult: 1
    decay_mult: 1
  }
  param {
    lr_mult: 2
    decay_mult: 0
  }
  convolution_param {
    num_output: 224
    pad: 1
    kernel_size: 3
    weight_filler {
      type: "xavier"
      std: 0.03
    }
    bias_filler {
      type: "constant"
      value: 0.2
    }
  }
}
layer {
  name: "inception_4b/relu_3x3"
  type: "ReLU"
  bottom: "inception_4b/3x3"
  top: "inception_4b/3x3"
}
layer {
  name: "inception_4b/5x5_reduce"
  type: "Convolution"
  bottom: "inception_4a/output"
  top: "inception_4b/5x5_reduce"
  param {
    lr_mult: 1
    decay_mult: 1
  }
  param {
    lr_mult: 2
    decay_mult: 0
  }
  convolution_param {
    num_output: 24
    kernel_size: 1
    weight_filler {
      type: "xavier"
      std: 0.2
    }
    bias_filler {
      type: "constant"
      value: 0.2
    }
  }
}
layer {
  name: "inception_4b/relu_5x5_reduce"
  type: "ReLU"
  bottom: "inception_4b/5x5_reduce"
  top: "inception_4b/5x5_reduce"
}
layer {
  name: "inception_4b/5x5"
  type: "Convolution"
  bottom: "inception_4b/5x5_reduce"
  top: "inception_4b/5x5"
  param {
    lr_mult: 1
    decay_mult: 1
  }
  param {
    lr_mult: 2
    decay_mult: 0
  }
  convolution_param {
    num_output: 64
    pad: 2
    kernel_size: 5
    weight_filler {
      type: "xavier"
      std: 0.03
    }
    bias_filler {
      type: "constant"
      value: 0.2
    }
  }
}
layer {
  name: "inception_4b/relu_5x5"
  type: "ReLU"
  bottom: "inception_4b/5x5"
  top: "inception_4b/5x5"
}
layer {
  name: "inception_4b/pool"
  type: "Pooling"
  bottom: "inception_4a/output"
  top: "inception_4b/pool"
  pooling_param {
    pool: MAX
    kernel_size: 3
    stride: 1
    pad: 1
  }
}
layer {
  name: "inception_4b/pool_proj"
  type: "Convolution"
  bottom: "inception_4b/pool"
  top: "inception_4b/pool_proj"
  param {
    lr_mult: 1
    decay_mult: 1
  }
  param {
    lr_mult: 2
    decay_mult: 0
  }
  convolution_param {
    num_output: 64
    kernel_size: 1
    weight_filler {
      type: "xavier"
      std: 0.1
    }
    bias_filler {
      type: "constant"
      value: 0.2
    }
  }
}
layer {
  name: "inception_4b/relu_pool_proj"
  type: "ReLU"
  bottom: "inception_4b/pool_proj"
  top: "inception_4b/pool_proj"
}
layer {
  name: "inception_4b/output"
  type: "Concat"
  bottom: "inception_4b/1x1"
  bottom: "inception_4b/3x3"
  bottom: "inception_4b/5x5"
  bottom: "inception_4b/pool_proj"
  top: "inception_4b/output"
}
layer {
  name: "inception_4c/1x1"
  type: "Convolution"
  bottom: "inception_4b/output"
  top: "inception_4c/1x1"
  param {
    lr_mult: 1
    decay_mult: 1
  }
  param {
    lr_mult: 2
    decay_mult: 0
  }
  convolution_param {
    num_output: 128
    kernel_size: 1
    weight_filler {
      type: "xavier"
      std: 0.03
    }
    bias_filler {
      type: "constant"
      value: 0.2
    }
  }
}
layer {
  name: "inception_4c/relu_1x1"
  type: "ReLU"
  bottom: "inception_4c/1x1"
  top: "inception_4c/1x1"
}
layer {
  name: "inception_4c/3x3_reduce"
  type: "Convolution"
  bottom: "inception_4b/output"
  top: "inception_4c/3x3_reduce"
  param {
    lr_mult: 1
    decay_mult: 1
  }
  param {
    lr_mult: 2
    decay_mult: 0
  }
  convolution_param {
    num_output: 128
    kernel_size: 1
    weight_filler {
      type: "xavier"
      std: 0.09
    }
    bias_filler {
      type: "constant"
      value: 0.2
    }
  }
}
layer {
  name: "inception_4c/relu_3x3_reduce"
  type: "ReLU"
  bottom: "inception_4c/3x3_reduce"
  top: "inception_4c/3x3_reduce"
}
layer {
  name: "inception_4c/3x3"
  type: "Convolution"
  bottom: "inception_4c/3x3_reduce"
  top: "inception_4c/3x3"
  param {
    lr_mult: 1
    decay_mult: 1
  }
  param {
    lr_mult: 2
    decay_mult: 0
  }
  convolution_param {
    num_output: 256
    pad: 1
    kernel_size: 3
    weight_filler {
      type: "xavier"
      std: 0.03
    }
    bias_filler {
      type: "constant"
      value: 0.2
    }
  }
}
layer {
  name: "inception_4c/relu_3x3"
  type: "ReLU"
  bottom: "inception_4c/3x3"
  top: "inception_4c/3x3"
}
layer {
  name: "inception_4c/5x5_reduce"
  type: "Convolution"
  bottom: "inception_4b/output"
  top: "inception_4c/5x5_reduce"
  param {
    lr_mult: 1
    decay_mult: 1
  }
  param {
    lr_mult: 2
    decay_mult: 0
  }
  convolution_param {
    num_output: 24
    kernel_size: 1
    weight_filler {
      type: "xavier"
      std: 0.2
    }
    bias_filler {
      type: "constant"
      value: 0.2
    }
  }
}
layer {
  name: "inception_4c/relu_5x5_reduce"
  type: "ReLU"
  bottom: "inception_4c/5x5_reduce"
  top: "inception_4c/5x5_reduce"
}
layer {
  name: "inception_4c/5x5"
  type: "Convolution"
  bottom: "inception_4c/5x5_reduce"
  top: "inception_4c/5x5"
  param {
    lr_mult: 1
    decay_mult: 1
  }
  param {
    lr_mult: 2
    decay_mult: 0
  }
  convolution_param {
    num_output: 64
    pad: 2
    kernel_size: 5
    weight_filler {
      type: "xavier"
      std: 0.03
    }
    bias_filler {
      type: "constant"
      value: 0.2
    }
  }
}
layer {
  name: "inception_4c/relu_5x5"
  type: "ReLU"
  bottom: "inception_4c/5x5"
  top: "inception_4c/5x5"
}
layer {
  name: "inception_4c/pool"
  type: "Pooling"
  bottom: "inception_4b/output"
  top: "inception_4c/pool"
  pooling_param {
    pool: MAX
    kernel_size: 3
    stride: 1
    pad: 1
  }
}
layer {
  name: "inception_4c/pool_proj"
  type: "Convolution"
  bottom: "inception_4c/pool"
  top: "inception_4c/pool_proj"
  param {
    lr_mult: 1
    decay_mult: 1
  }
  param {
    lr_mult: 2
    decay_mult: 0
  }
  convolution_param {
    num_output: 64
    kernel_size: 1
    weight_filler {
      type: "xavier"
      std: 0.1
    }
    bias_filler {
      type: "constant"
      value: 0.2
    }
  }
}
layer {
  name: "inception_4c/relu_pool_proj"
  type: "ReLU"
  bottom: "inception_4c/pool_proj"
  top: "inception_4c/pool_proj"
}
layer {
  name: "inception_4c/output"
  type: "Concat"
  bottom: "inception_4c/1x1"
  bottom: "inception_4c/3x3"
  bottom: "inception_4c/5x5"
  bottom: "inception_4c/pool_proj"
  top: "inception_4c/output"
}
layer {
  name: "inception_4d/1x1"
  type: "Convolution"
  bottom: "inception_4c/output"
  top: "inception_4d/1x1"
  param {
    lr_mult: 1
    decay_mult: 1
  }
  param {
    lr_mult: 2
    decay_mult: 0
  }
  convolution_param {
    num_output: 112
    kernel_size: 1
    weight_filler {
      type: "xavier"
      std: 0.03
    }
    bias_filler {
      type: "constant"
      value: 0.2
    }
  }
}
layer {
  name: "inception_4d/relu_1x1"
  type: "ReLU"
  bottom: "inception_4d/1x1"
  top: "inception_4d/1x1"
}
layer {
  name: "inception_4d/3x3_reduce"
  type: "Convolution"
  bottom: "inception_4c/output"
  top: "inception_4d/3x3_reduce"
  param {
    lr_mult: 1
    decay_mult: 1
  }
  param {
    lr_mult: 2
    decay_mult: 0
  }
  convolution_param {
    num_output: 144
    kernel_size: 1
    weight_filler {
      type: "xavier"
      std: 0.09
    }
    bias_filler {
      type: "constant"
      value: 0.2
    }
  }
}
layer {
  name: "inception_4d/relu_3x3_reduce"
  type: "ReLU"
  bottom: "inception_4d/3x3_reduce"
  top: "inception_4d/3x3_reduce"
}
layer {
  name: "inception_4d/3x3"
  type: "Convolution"
  bottom: "inception_4d/3x3_reduce"
  top: "inception_4d/3x3"
  param {
    lr_mult: 1
    decay_mult: 1
  }
  param {
    lr_mult: 2
    decay_mult: 0
  }
  convolution_param {
    num_output: 288
    pad: 1
    kernel_size: 3
    weight_filler {
      type: "xavier"
      std: 0.03
    }
    bias_filler {
      type: "constant"
      value: 0.2
    }
  }
}
layer {
  name: "inception_4d/relu_3x3"
  type: "ReLU"
  bottom: "inception_4d/3x3"
  top: "inception_4d/3x3"
}
layer {
  name: "inception_4d/5x5_reduce"
  type: "Convolution"
  bottom: "inception_4c/output"
  top: "inception_4d/5x5_reduce"
  param {
    lr_mult: 1
    decay_mult: 1
  }
  param {
    lr_mult: 2
    decay_mult: 0
  }
  convolution_param {
    num_output: 32
    kernel_size: 1
    weight_filler {
      type: "xavier"
      std: 0.2
    }
    bias_filler {
      type: "constant"
      value: 0.2
    }
  }
}
layer {
  name: "inception_4d/relu_5x5_reduce"
  type: "ReLU"
  bottom: "inception_4d/5x5_reduce"
  top: "inception_4d/5x5_reduce"
}
layer {
  name: "inception_4d/5x5"
  type: "Convolution"
  bottom: "inception_4d/5x5_reduce"
  top: "inception_4d/5x5"
  param {
    lr_mult: 1
    decay_mult: 1
  }
  param {
    lr_mult: 2
    decay_mult: 0
  }
  convolution_param {
    num_output: 64
    pad: 2
    kernel_size: 5
    weight_filler {
      type: "xavier"
      std: 0.03
    }
    bias_filler {
      type: "constant"
      value: 0.2
    }
  }
}
layer {
  name: "inception_4d/relu_5x5"
  type: "ReLU"
  bottom: "inception_4d/5x5"
  top: "inception_4d/5x5"
}
layer {
  name: "inception_4d/pool"
  type: "Pooling"
  bottom: "inception_4c/output"
  top: "inception_4d/pool"
  pooling_param {
    pool: MAX
    kernel_size: 3
    stride: 1
    pad: 1
  }
}
layer {
  name: "inception_4d/pool_proj"
  type: "Convolution"
  bottom: "inception_4d/pool"
  top: "inception_4d/pool_proj"
  param {
    lr_mult: 1
    decay_mult: 1
  }
  param {
    lr_mult: 2
    decay_mult: 0
  }
  convolution_param {
    num_output: 64
    kernel_size: 1
    weight_filler {
      type: "xavier"
      std: 0.1
    }
    bias_filler {
      type: "constant"
      value: 0.2
    }
  }
}
layer {
  name: "inception_4d/relu_pool_proj"
  type: "ReLU"
  bottom: "inception_4d/pool_proj"
  top: "inception_4d/pool_proj"
}
layer {
  name: "inception_4d/output"
  type: "Concat"
  bottom: "inception_4d/1x1"
  bottom: "inception_4d/3x3"
  bottom: "inception_4d/5x5"
  bottom: "inception_4d/pool_proj"
  top: "inception_4d/output"
}
layer {
  name: "loss2/ave_pool"
  type: "Pooling"
  bottom: "inception_4d/output"
  top: "loss2/ave_pool"
  pooling_param {
    pool: AVE
    kernel_size: 5
    stride: 3
  }
}
layer {
  name: "loss2/conv"
  type: "Convolution"
  bottom: "loss2/ave_pool"
  top: "loss2/conv"
  param {
    lr_mult: 1
    decay_mult: 1
  }
  param {
    lr_mult: 2
    decay_mult: 0
  }
  convolution_param {
    num_output: 128
    kernel_size: 1
    weight_filler {
      type: "xavier"
      std: 0.08
    }
    bias_filler {
      type: "constant"
      value: 0.2
    }
  }
}
layer {
  name: "loss2/relu_conv"
  type: "ReLU"
  bottom: "loss2/conv"
  top: "loss2/conv"
}
layer {
  name: "loss2/fc"
  type: "InnerProduct"
  bottom: "loss2/conv"
  top: "loss2/fc"
  param {
    lr_mult: 1
    decay_mult: 1
  }
  param {
    lr_mult: 2
    decay_mult: 0
  }
  inner_product_param {
    num_output: 1024
    weight_filler {
      type: "xavier"
      std: 0.02
    }
    bias_filler {
      type: "constant"
      value: 0.2
    }
  }
}
layer {
  name: "loss2/relu_fc"
  type: "ReLU"
  bottom: "loss2/fc"
  top: "loss2/fc"
}
layer {
  name: "loss2/drop_fc"
  type: "Dropout"
  bottom: "loss2/fc"
  top: "loss2/fc"
  dropout_param {
    dropout_ratio: 0.7
  }
}
layer {
  name: "loss2/classifier_plantvillage"
  type: "InnerProduct"
  bottom: "loss2/fc"
  top: "loss2/classifier_plantvillage"
  param {
    lr_mult: 1
    decay_mult: 1
  }
  param {
    lr_mult: 2
    decay_mult: 0
  }
  inner_product_param {
    num_output: 38
    weight_filler {
      type: "xavier"
      std: 0.0009765625
    }
    bias_filler {
      type: "constant"
      value: 0
    }
  }
}
layer {
  name: "inception_4e/1x1"
  type: "Convolution"
  bottom: "inception_4d/output"
  top: "inception_4e/1x1"
  param {
    lr_mult: 1
    decay_mult: 1
  }
  param {
    lr_mult: 2
    decay_mult: 0
  }
  convolution_param {
    num_output: 256
    kernel_size: 1
    weight_filler {
      type: "xavier"
      std: 0.03
    }
    bias_filler {
      type: "constant"
      value: 0.2
    }
  }
}
layer {
  name: "inception_4e/relu_1x1"
  type: "ReLU"
  bottom: "inception_4e/1x1"
  top: "inception_4e/1x1"
}
layer {
  name: "inception_4e/3x3_reduce"
  type: "Convolution"
  bottom: "inception_4d/output"
  top: "inception_4e/3x3_reduce"
  param {
    lr_mult: 1
    decay_mult: 1
  }
  param {
    lr_mult: 2
    decay_mult: 0
  }
  convolution_param {
    num_output: 160
    kernel_size: 1
    weight_filler {
      type: "xavier"
      std: 0.09
    }
    bias_filler {
      type: "constant"
      value: 0.2
    }
  }
}
layer {
  name: "inception_4e/relu_3x3_reduce"
  type: "ReLU"
  bottom: "inception_4e/3x3_reduce"
  top: "inception_4e/3x3_reduce"
}
layer {
  name: "inception_4e/3x3"
  type: "Convolution"
  bottom: "inception_4e/3x3_reduce"
  top: "inception_4e/3x3"
  param {
    lr_mult: 1
    decay_mult: 1
  }
  param {
    lr_mult: 2
    decay_mult: 0
  }
  convolution_param {
    num_output: 320
    pad: 1
    kernel_size: 3
    weight_filler {
      type: "xavier"
      std: 0.03
    }
    bias_filler {
      type: "constant"
      value: 0.2
    }
  }
}
layer {
  name: "inception_4e/relu_3x3"
  type: "ReLU"
  bottom: "inception_4e/3x3"
  top: "inception_4e/3x3"
}
layer {
  name: "inception_4e/5x5_reduce"
  type: "Convolution"
  bottom: "inception_4d/output"
  top: "inception_4e/5x5_reduce"
  param {
    lr_mult: 1
    decay_mult: 1
  }
  param {
    lr_mult: 2
    decay_mult: 0
  }
  convolution_param {
    num_output: 32
    kernel_size: 1
    weight_filler {
      type: "xavier"
      std: 0.2
    }
    bias_filler {
      type: "constant"
      value: 0.2
    }
  }
}
layer {
  name: "inception_4e/relu_5x5_reduce"
  type: "ReLU"
  bottom: "inception_4e/5x5_reduce"
  top: "inception_4e/5x5_reduce"
}
layer {
  name: "inception_4e/5x5"
  type: "Convolution"
  bottom: "inception_4e/5x5_reduce"
  top: "inception_4e/
I0403 15:34:18.102948 12097 layer_factory.hpp:77] Creating layer data
I0403 15:34:18.103607 12097 net.cpp:91] Creating Layer data
I0403 15:34:18.103641 12097 net.cpp:399] data -> data
I0403 15:34:18.103693 12097 net.cpp:399] data -> label
I0403 15:34:18.103730 12097 data_transformer.cpp:25] Loading mean file from: /home/mohanty/data/final_dataset/lmdb/segmented-50-50/mean.binaryproto
I0403 15:34:18.106750 12102 db_lmdb.cpp:38] Opened lmdb /home/mohanty/data/final_dataset/lmdb/segmented-50-50/test_db
I0403 15:34:18.116951 12097 data_layer.cpp:41] output data size: 24,3,224,224
I0403 15:34:18.145527 12097 net.cpp:141] Setting up data
I0403 15:34:18.145625 12097 net.cpp:148] Top shape: 24 3 224 224 (3612672)
I0403 15:34:18.145655 12097 net.cpp:148] Top shape: 24 (24)
I0403 15:34:18.145678 12097 net.cpp:156] Memory required for data: 14450784
I0403 15:34:18.145719 12097 layer_factory.hpp:77] Creating layer label_data_1_split
I0403 15:34:18.145746 12097 net.cpp:91] Creating Layer label_data_1_split
I0403 15:34:18.145767 12097 net.cpp:425] label_data_1_split <- label
I0403 15:34:18.145799 12097 net.cpp:399] label_data_1_split -> label_data_1_split_0
I0403 15:34:18.145846 12097 net.cpp:399] label_data_1_split -> label_data_1_split_1
I0403 15:34:18.145871 12097 net.cpp:399] label_data_1_split -> label_data_1_split_2
I0403 15:34:18.145892 12097 net.cpp:399] label_data_1_split -> label_data_1_split_3
I0403 15:34:18.145913 12097 net.cpp:399] label_data_1_split -> label_data_1_split_4
I0403 15:34:18.145938 12097 net.cpp:399] label_data_1_split -> label_data_1_split_5
I0403 15:34:18.145983 12097 net.cpp:399] label_data_1_split -> label_data_1_split_6
I0403 15:34:18.146005 12097 net.cpp:399] label_data_1_split -> label_data_1_split_7
I0403 15:34:18.146036 12097 net.cpp:399] label_data_1_split -> label_data_1_split_8
I0403 15:34:18.146085 12097 net.cpp:399] label_data_1_split -> label_data_1_split_9
I0403 15:34:18.146234 12097 net.cpp:141] Setting up label_data_1_split
I0403 15:34:18.146286 12097 net.cpp:148] Top shape: 24 (24)
I0403 15:34:18.146318 12097 net.cpp:148] Top shape: 24 (24)
I0403 15:34:18.146348 12097 net.cpp:148] Top shape: 24 (24)
I0403 15:34:18.146373 12097 net.cpp:148] Top shape: 24 (24)
I0403 15:34:18.146406 12097 net.cpp:148] Top shape: 24 (24)
I0403 15:34:18.146425 12097 net.cpp:148] Top shape: 24 (24)
I0403 15:34:18.146440 12097 net.cpp:148] Top shape: 24 (24)
I0403 15:34:18.146457 12097 net.cpp:148] Top shape: 24 (24)
I0403 15:34:18.146492 12097 net.cpp:148] Top shape: 24 (24)
I0403 15:34:18.146512 12097 net.cpp:148] Top shape: 24 (24)
I0403 15:34:18.146605 12097 net.cpp:156] Memory required for data: 14451744
I0403 15:34:18.146628 12097 layer_factory.hpp:77] Creating layer conv1/7x7_s2
I0403 15:34:18.146673 12097 net.cpp:91] Creating Layer conv1/7x7_s2
I0403 15:34:18.146694 12097 net.cpp:425] conv1/7x7_s2 <- data
I0403 15:34:18.146714 12097 net.cpp:399] conv1/7x7_s2 -> conv1/7x7_s2
I0403 15:34:18.288009 12097 net.cpp:141] Setting up conv1/7x7_s2
I0403 15:34:18.288099 12097 net.cpp:148] Top shape: 24 64 112 112 (19267584)
I0403 15:34:18.288115 12097 net.cpp:156] Memory required for data: 91522080
I0403 15:34:18.288146 12097 layer_factory.hpp:77] Creating layer conv1/relu_7x7
I0403 15:34:18.288172 12097 net.cpp:91] Creating Layer conv1/relu_7x7
I0403 15:34:18.288190 12097 net.cpp:425] conv1/relu_7x7 <- conv1/7x7_s2
I0403 15:34:18.288209 12097 net.cpp:386] conv1/relu_7x7 -> conv1/7x7_s2 (in-place)
I0403 15:34:18.288470 12097 net.cpp:141] Setting up conv1/relu_7x7
I0403 15:34:18.288496 12097 net.cpp:148] Top shape: 24 64 112 112 (19267584)
I0403 15:34:18.288511 12097 net.cpp:156] Memory required for data: 168592416
I0403 15:34:18.288527 12097 layer_factory.hpp:77] Creating layer pool1/3x3_s2
I0403 15:34:18.288550 12097 net.cpp:91] Creating Layer pool1/3x3_s2
I0403 15:34:18.288568 12097 net.cpp:425] pool1/3x3_s2 <- conv1/7x7_s2
I0403 15:34:18.288585 12097 net.cpp:399] pool1/3x3_s2 -> pool1/3x3_s2
I0403 15:34:18.288658 12097 net.cpp:141] Setting up pool1/3x3_s2
I0403 15:34:18.288689 12097 net.cpp:148] Top shape: 24 64 56 56 (4816896)
I0403 15:34:18.288704 12097 net.cpp:156] Memory required for data: 187860000
I0403 15:34:18.288719 12097 layer_factory.hpp:77] Creating layer pool1/norm1
I0403 15:34:18.288743 12097 net.cpp:91] Creating Layer pool1/norm1
I0403 15:34:18.288760 12097 net.cpp:425] pool1/norm1 <- pool1/3x3_s2
I0403 15:34:18.288777 12097 net.cpp:399] pool1/norm1 -> pool1/norm1
I0403 15:34:18.289082 12097 net.cpp:141] Setting up pool1/norm1
I0403 15:34:18.289124 12097 net.cpp:148] Top shape: 24 64 56 56 (4816896)
I0403 15:34:18.289140 12097 net.cpp:156] Memory required for data: 207127584
I0403 15:34:18.289155 12097 layer_factory.hpp:77] Creating layer conv2/3x3_reduce
I0403 15:34:18.289181 12097 net.cpp:91] Creating Layer conv2/3x3_reduce
I0403 15:34:18.289198 12097 net.cpp:425] conv2/3x3_reduce <- pool1/norm1
I0403 15:34:18.289216 12097 net.cpp:399] conv2/3x3_reduce -> conv2/3x3_reduce
I0403 15:34:18.290607 12097 net.cpp:141] Setting up conv2/3x3_reduce
I0403 15:34:18.290637 12097 net.cpp:148] Top shape: 24 64 56 56 (4816896)
I0403 15:34:18.290652 12097 net.cpp:156] Memory required for data: 226395168
I0403 15:34:18.290673 12097 layer_factory.hpp:77] Creating layer conv2/relu_3x3_reduce
I0403 15:34:18.290691 12097 net.cpp:91] Creating Layer conv2/relu_3x3_reduce
I0403 15:34:18.290707 12097 net.cpp:425] conv2/relu_3x3_reduce <- conv2/3x3_reduce
I0403 15:34:18.290727 12097 net.cpp:386] conv2/relu_3x3_reduce -> conv2/3x3_reduce (in-place)
I0403 15:34:18.290992 12097 net.cpp:141] Setting up conv2/relu_3x3_reduce
I0403 15:34:18.291018 12097 net.cpp:148] Top shape: 24 64 56 56 (4816896)
I0403 15:34:18.291033 12097 net.cpp:156] Memory required for data: 245662752
I0403 15:34:18.291048 12097 layer_factory.hpp:77] Creating layer conv2/3x3
I0403 15:34:18.291072 12097 net.cpp:91] Creating Layer conv2/3x3
I0403 15:34:18.291103 12097 net.cpp:425] conv2/3x3 <- conv2/3x3_reduce
I0403 15:34:18.291126 12097 net.cpp:399] conv2/3x3 -> conv2/3x3
I0403 15:34:18.293478 12097 net.cpp:141] Setting up conv2/3x3
I0403 15:34:18.293509 12097 net.cpp:148] Top shape: 24 192 56 56 (14450688)
I0403 15:34:18.293524 12097 net.cpp:156] Memory required for data: 303465504
I0403 15:34:18.293545 12097 layer_factory.hpp:77] Creating layer conv2/relu_3x3
I0403 15:34:18.293567 12097 net.cpp:91] Creating Layer conv2/relu_3x3
I0403 15:34:18.293584 12097 net.cpp:425] conv2/relu_3x3 <- conv2/3x3
I0403 15:34:18.293602 12097 net.cpp:386] conv2/relu_3x3 -> conv2/3x3 (in-place)
I0403 15:34:18.293774 12097 net.cpp:141] Setting up conv2/relu_3x3
I0403 15:34:18.293803 12097 net.cpp:148] Top shape: 24 192 56 56 (14450688)
I0403 15:34:18.293849 12097 net.cpp:156] Memory required for data: 361268256
I0403 15:34:18.293865 12097 layer_factory.hpp:77] Creating layer conv2/norm2
I0403 15:34:18.293884 12097 net.cpp:91] Creating Layer conv2/norm2
I0403 15:34:18.293900 12097 net.cpp:425] conv2/norm2 <- conv2/3x3
I0403 15:34:18.293920 12097 net.cpp:399] conv2/norm2 -> conv2/norm2
I0403 15:34:18.294221 12097 net.cpp:141] Setting up conv2/norm2
I0403 15:34:18.294248 12097 net.cpp:148] Top shape: 24 192 56 56 (14450688)
I0403 15:34:18.294262 12097 net.cpp:156] Memory required for data: 419071008
I0403 15:34:18.294277 12097 layer_factory.hpp:77] Creating layer pool2/3x3_s2
I0403 15:34:18.294296 12097 net.cpp:91] Creating Layer pool2/3x3_s2
I0403 15:34:18.294311 12097 net.cpp:425] pool2/3x3_s2 <- conv2/norm2
I0403 15:34:18.294332 12097 net.cpp:399] pool2/3x3_s2 -> pool2/3x3_s2
I0403 15:34:18.294389 12097 net.cpp:141] Setting up pool2/3x3_s2
I0403 15:34:18.294410 12097 net.cpp:148] Top shape: 24 192 28 28 (3612672)
I0403 15:34:18.294425 12097 net.cpp:156] Memory required for data: 433521696
I0403 15:34:18.294440 12097 layer_factory.hpp:77] Creating layer pool2/3x3_s2_pool2/3x3_s2_0_split
I0403 15:34:18.294457 12097 net.cpp:91] Creating Layer pool2/3x3_s2_pool2/3x3_s2_0_split
I0403 15:34:18.294474 12097 net.cpp:425] pool2/3x3_s2_pool2/3x3_s2_0_split <- pool2/3x3_s2
I0403 15:34:18.294491 12097 net.cpp:399] pool2/3x3_s2_pool2/3x3_s2_0_split -> pool2/3x3_s2_pool2/3x3_s2_0_split_0
I0403 15:34:18.294513 12097 net.cpp:399] pool2/3x3_s2_pool2/3x3_s2_0_split -> pool2/3x3_s2_pool2/3x3_s2_0_split_1
I0403 15:34:18.294533 12097 net.cpp:399] pool2/3x3_s2_pool2/3x3_s2_0_split -> pool2/3x3_s2_pool2/3x3_s2_0_split_2
I0403 15:34:18.294553 12097 net.cpp:399] pool2/3x3_s2_pool2/3x3_s2_0_split -> pool2/3x3_s2_pool2/3x3_s2_0_split_3
I0403 15:34:18.294620 12097 net.cpp:141] Setting up pool2/3x3_s2_pool2/3x3_s2_0_split
I0403 15:34:18.294641 12097 net.cpp:148] Top shape: 24 192 28 28 (3612672)
I0403 15:34:18.294657 12097 net.cpp:148] Top shape: 24 192 28 28 (3612672)
I0403 15:34:18.294672 12097 net.cpp:148] Top shape: 24 192 28 28 (3612672)
I0403 15:34:18.294687 12097 net.cpp:148] Top shape: 24 192 28 28 (3612672)
I0403 15:34:18.294700 12097 net.cpp:156] Memory required for data: 491324448
I0403 15:34:18.294714 12097 layer_factory.hpp:77] Creating layer inception_3a/1x1
I0403 15:34:18.294737 12097 net.cpp:91] Creating Layer inception_3a/1x1
I0403 15:34:18.294754 12097 net.cpp:425] inception_3a/1x1 <- pool2/3x3_s2_pool2/3x3_s2_0_split_0
I0403 15:34:18.294775 12097 net.cpp:399] inception_3a/1x1 -> inception_3a/1x1
I0403 15:34:18.296295 12097 net.cpp:141] Setting up inception_3a/1x1
I0403 15:34:18.296327 12097 net.cpp:148] Top shape: 24 64 28 28 (1204224)
I0403 15:34:18.296344 12097 net.cpp:156] Memory required for data: 496141344
I0403 15:34:18.296362 12097 layer_factory.hpp:77] Creating layer inception_3a/relu_1x1
I0403 15:34:18.296386 12097 net.cpp:91] Creating Layer inception_3a/relu_1x1
I0403 15:34:18.296404 12097 net.cpp:425] inception_3a/relu_1x1 <- inception_3a/1x1
I0403 15:34:18.296421 12097 net.cpp:386] inception_3a/relu_1x1 -> inception_3a/1x1 (in-place)
I0403 15:34:18.296597 12097 net.cpp:141] Setting up inception_3a/relu_1x1
I0403 15:34:18.296620 12097 net.cpp:148] Top shape: 24 64 28 28 (1204224)
I0403 15:34:18.296635 12097 net.cpp:156] Memory required for data: 500958240
I0403 15:34:18.296650 12097 layer_factory.hpp:77] Creating layer inception_3a/3x3_reduce
I0403 15:34:18.296672 12097 net.cpp:91] Creating Layer inception_3a/3x3_reduce
I0403 15:34:18.296689 12097 net.cpp:425] inception_3a/3x3_reduce <- pool2/3x3_s2_pool2/3x3_s2_0_split_1
I0403 15:34:18.296710 12097 net.cpp:399] inception_3a/3x3_reduce -> inception_3a/3x3_reduce
I0403 15:34:18.298400 12097 net.cpp:141] Setting up inception_3a/3x3_reduce
I0403 15:34:18.298429 12097 net.cpp:148] Top shape: 24 96 28 28 (1806336)
I0403 15:34:18.298444 12097 net.cpp:156] Memory required for data: 508183584
I0403 15:34:18.298466 12097 layer_factory.hpp:77] Creating layer inception_3a/relu_3x3_reduce
I0403 15:34:18.298503 12097 net.cpp:91] Creating Layer inception_3a/relu_3x3_reduce
I0403 15:34:18.298522 12097 net.cpp:425] inception_3a/relu_3x3_reduce <- inception_3a/3x3_reduce
I0403 15:34:18.298540 12097 net.cpp:386] inception_3a/relu_3x3_reduce -> inception_3a/3x3_reduce (in-place)
I0403 15:34:18.298720 12097 net.cpp:141] Setting up inception_3a/relu_3x3_reduce
I0403 15:34:18.298744 12097 net.cpp:148] Top shape: 24 96 28 28 (1806336)
I0403 15:34:18.298760 12097 net.cpp:156] Memory required for data: 515408928
I0403 15:34:18.298774 12097 layer_factory.hpp:77] Creating layer inception_3a/3x3
I0403 15:34:18.298796 12097 net.cpp:91] Creating Layer inception_3a/3x3
I0403 15:34:18.298815 12097 net.cpp:425] inception_3a/3x3 <- inception_3a/3x3_reduce
I0403 15:34:18.298836 12097 net.cpp:399] inception_3a/3x3 -> inception_3a/3x3
I0403 15:34:18.300482 12097 net.cpp:141] Setting up inception_3a/3x3
I0403 15:34:18.300508 12097 net.cpp:148] Top shape: 24 128 28 28 (2408448)
I0403 15:34:18.300524 12097 net.cpp:156] Memory required for data: 525042720
I0403 15:34:18.300544 12097 layer_factory.hpp:77] Creating layer inception_3a/relu_3x3
I0403 15:34:18.300564 12097 net.cpp:91] Creating Layer inception_3a/relu_3x3
I0403 15:34:18.300581 12097 net.cpp:425] inception_3a/relu_3x3 <- inception_3a/3x3
I0403 15:34:18.300598 12097 net.cpp:386] inception_3a/relu_3x3 -> inception_3a/3x3 (in-place)
I0403 15:34:18.300873 12097 net.cpp:141] Setting up inception_3a/relu_3x3
I0403 15:34:18.300900 12097 net.cpp:148] Top shape: 24 128 28 28 (2408448)
I0403 15:34:18.300915 12097 net.cpp:156] Memory required for data: 534676512
I0403 15:34:18.300930 12097 layer_factory.hpp:77] Creating layer inception_3a/5x5_reduce
I0403 15:34:18.300952 12097 net.cpp:91] Creating Layer inception_3a/5x5_reduce
I0403 15:34:18.300969 12097 net.cpp:425] inception_3a/5x5_reduce <- pool2/3x3_s2_pool2/3x3_s2_0_split_2
I0403 15:34:18.300989 12097 net.cpp:399] inception_3a/5x5_reduce -> inception_3a/5x5_reduce
I0403 15:34:18.301947 12097 net.cpp:141] Setting up inception_3a/5x5_reduce
I0403 15:34:18.301976 12097 net.cpp:148] Top shape: 24 16 28 28 (301056)
I0403 15:34:18.301991 12097 net.cpp:156] Memory required for data: 535880736
I0403 15:34:18.302011 12097 layer_factory.hpp:77] Creating layer inception_3a/relu_5x5_reduce
I0403 15:34:18.302031 12097 net.cpp:91] Creating Layer inception_3a/relu_5x5_reduce
I0403 15:34:18.302047 12097 net.cpp:425] inception_3a/relu_5x5_reduce <- inception_3a/5x5_reduce
I0403 15:34:18.302065 12097 net.cpp:386] inception_3a/relu_5x5_reduce -> inception_3a/5x5_reduce (in-place)
I0403 15:34:18.302358 12097 net.cpp:141] Setting up inception_3a/relu_5x5_reduce
I0403 15:34:18.302397 12097 net.cpp:148] Top shape: 24 16 28 28 (301056)
I0403 15:34:18.302415 12097 net.cpp:156] Memory required for data: 537084960
I0403 15:34:18.302430 12097 layer_factory.hpp:77] Creating layer inception_3a/5x5
I0403 15:34:18.302453 12097 net.cpp:91] Creating Layer inception_3a/5x5
I0403 15:34:18.302471 12097 net.cpp:425] inception_3a/5x5 <- inception_3a/5x5_reduce
I0403 15:34:18.302489 12097 net.cpp:399] inception_3a/5x5 -> inception_3a/5x5
I0403 15:34:18.303493 12097 net.cpp:141] Setting up inception_3a/5x5
I0403 15:34:18.303521 12097 net.cpp:148] Top shape: 24 32 28 28 (602112)
I0403 15:34:18.303536 12097 net.cpp:156] Memory required for data: 539493408
I0403 15:34:18.303555 12097 layer_factory.hpp:77] Creating layer inception_3a/relu_5x5
I0403 15:34:18.303575 12097 net.cpp:91] Creating Layer inception_3a/relu_5x5
I0403 15:34:18.303592 12097 net.cpp:425] inception_3a/relu_5x5 <- inception_3a/5x5
I0403 15:34:18.303611 12097 net.cpp:386] inception_3a/relu_5x5 -> inception_3a/5x5 (in-place)
I0403 15:34:18.303781 12097 net.cpp:141] Setting up inception_3a/relu_5x5
I0403 15:34:18.303805 12097 net.cpp:148] Top shape: 24 32 28 28 (602112)
I0403 15:34:18.303820 12097 net.cpp:156] Memory required for data: 541901856
I0403 15:34:18.303834 12097 layer_factory.hpp:77] Creating layer inception_3a/pool
I0403 15:34:18.303854 12097 net.cpp:91] Creating Layer inception_3a/pool
I0403 15:34:18.303886 12097 net.cpp:425] inception_3a/pool <- pool2/3x3_s2_pool2/3x3_s2_0_split_3
I0403 15:34:18.303905 12097 net.cpp:399] inception_3a/pool -> inception_3a/pool
I0403 15:34:18.303963 12097 net.cpp:141] Setting up inception_3a/pool
I0403 15:34:18.303987 12097 net.cpp:148] Top shape: 24 192 28 28 (3612672)
I0403 15:34:18.304000 12097 net.cpp:156] Memory required for data: 556352544
I0403 15:34:18.304016 12097 layer_factory.hpp:77] Creating layer inception_3a/pool_proj
I0403 15:34:18.304038 12097 net.cpp:91] Creating Layer inception_3a/pool_proj
I0403 15:34:18.304054 12097 net.cpp:425] inception_3a/pool_proj <- inception_3a/pool
I0403 15:34:18.304075 12097 net.cpp:399] inception_3a/pool_proj -> inception_3a/pool_proj
I0403 15:34:18.305027 12097 net.cpp:141] Setting up inception_3a/pool_proj
I0403 15:34:18.305058 12097 net.cpp:148] Top shape: 24 32 28 28 (602112)
I0403 15:34:18.305074 12097 net.cpp:156] Memory required for data: 558760992
I0403 15:34:18.305095 12097 layer_factory.hpp:77] Creating layer inception_3a/relu_pool_proj
I0403 15:34:18.305117 12097 net.cpp:91] Creating Layer inception_3a/relu_pool_proj
I0403 15:34:18.305133 12097 net.cpp:425] inception_3a/relu_pool_proj <- inception_3a/pool_proj
I0403 15:34:18.305151 12097 net.cpp:386] inception_3a/relu_pool_proj -> inception_3a/pool_proj (in-place)
I0403 15:34:18.305425 12097 net.cpp:141] Setting up inception_3a/relu_pool_proj
I0403 15:34:18.305452 12097 net.cpp:148] Top shape: 24 32 28 28 (602112)
I0403 15:34:18.305469 12097 net.cpp:156] Memory required for data: 561169440
I0403 15:34:18.305483 12097 layer_factory.hpp:77] Creating layer inception_3a/output
I0403 15:34:18.305505 12097 net.cpp:91] Creating Layer inception_3a/output
I0403 15:34:18.305521 12097 net.cpp:425] inception_3a/output <- inception_3a/1x1
I0403 15:34:18.305537 12097 net.cpp:425] inception_3a/output <- inception_3a/3x3
I0403 15:34:18.305554 12097 net.cpp:425] inception_3a/output <- inception_3a/5x5
I0403 15:34:18.305570 12097 net.cpp:425] inception_3a/output <- inception_3a/pool_proj
I0403 15:34:18.305586 12097 net.cpp:399] inception_3a/output -> inception_3a/output
I0403 15:34:18.305634 12097 net.cpp:141] Setting up inception_3a/output
I0403 15:34:18.305656 12097 net.cpp:148] Top shape: 24 256 28 28 (4816896)
I0403 15:34:18.305671 12097 net.cpp:156] Memory required for data: 580437024
I0403 15:34:18.305686 12097 layer_factory.hpp:77] Creating layer inception_3a/output_inception_3a/output_0_split
I0403 15:34:18.305702 12097 net.cpp:91] Creating Layer inception_3a/output_inception_3a/output_0_split
I0403 15:34:18.305718 12097 net.cpp:425] inception_3a/output_inception_3a/output_0_split <- inception_3a/output
I0403 15:34:18.305737 12097 net.cpp:399] inception_3a/output_inception_3a/output_0_split -> inception_3a/output_inception_3a/output_0_split_0
I0403 15:34:18.305758 12097 net.cpp:399] inception_3a/output_inception_3a/output_0_split -> inception_3a/output_inception_3a/output_0_split_1
I0403 15:34:18.305779 12097 net.cpp:399] inception_3a/output_inception_3a/output_0_split -> inception_3a/output_inception_3a/output_0_split_2
I0403 15:34:18.305799 12097 net.cpp:399] inception_3a/output_inception_3a/output_0_split -> inception_3a/output_inception_3a/output_0_split_3
I0403 15:34:18.305876 12097 net.cpp:141] Setting up inception_3a/output_inception_3a/output_0_split
I0403 15:34:18.305898 12097 net.cpp:148] Top shape: 24 256 28 28 (4816896)
I0403 15:34:18.305915 12097 net.cpp:148] Top shape: 24 256 28 28 (4816896)
I0403 15:34:18.305930 12097 net.cpp:148] Top shape: 24 256 28 28 (4816896)
I0403 15:34:18.305945 12097 net.cpp:148] Top shape: 24 256 28 28 (4816896)
I0403 15:34:18.305958 12097 net.cpp:156] Memory required for data: 657507360
I0403 15:34:18.305973 12097 layer_factory.hpp:77] Creating layer inception_3b/1x1
I0403 15:34:18.305994 12097 net.cpp:91] Creating Layer inception_3b/1x1
I0403 15:34:18.306011 12097 net.cpp:425] inception_3b/1x1 <- inception_3a/output_inception_3a/output_0_split_0
I0403 15:34:18.306032 12097 net.cpp:399] inception_3b/1x1 -> inception_3b/1x1
I0403 15:34:18.307159 12097 net.cpp:141] Setting up inception_3b/1x1
I0403 15:34:18.307199 12097 net.cpp:148] Top shape: 24 128 28 28 (2408448)
I0403 15:34:18.307215 12097 net.cpp:156] Memory required for data: 667141152
I0403 15:34:18.307234 12097 layer_factory.hpp:77] Creating layer inception_3b/relu_1x1
I0403 15:34:18.307250 12097 net.cpp:91] Creating Layer inception_3b/relu_1x1
I0403 15:34:18.307266 12097 net.cpp:425] inception_3b/relu_1x1 <- inception_3b/1x1
I0403 15:34:18.307286 12097 net.cpp:386] inception_3b/relu_1x1 -> inception_3b/1x1 (in-place)
I0403 15:34:18.307466 12097 net.cpp:141] Setting up inception_3b/relu_1x1
I0403 15:34:18.307492 12097 net.cpp:148] Top shape: 24 128 28 28 (2408448)
I0403 15:34:18.307507 12097 net.cpp:156] Memory required for data: 676774944
I0403 15:34:18.307520 12097 layer_factory.hpp:77] Creating layer inception_3b/3x3_reduce
I0403 15:34:18.307543 12097 net.cpp:91] Creating Layer inception_3b/3x3_reduce
I0403 15:34:18.307559 12097 net.cpp:425] inception_3b/3x3_reduce <- inception_3a/output_inception_3a/output_0_split_1
I0403 15:34:18.307580 12097 net.cpp:399] inception_3b/3x3_reduce -> inception_3b/3x3_reduce
I0403 15:34:18.308703 12097 net.cpp:141] Setting up inception_3b/3x3_reduce
I0403 15:34:18.308732 12097 net.cpp:148] Top shape: 24 128 28 28 (2408448)
I0403 15:34:18.308748 12097 net.cpp:156] Memory required for data: 686408736
I0403 15:34:18.308766 12097 layer_factory.hpp:77] Creating layer inception_3b/relu_3x3_reduce
I0403 15:34:18.308784 12097 net.cpp:91] Creating Layer inception_3b/relu_3x3_reduce
I0403 15:34:18.308799 12097 net.cpp:425] inception_3b/relu_3x3_reduce <- inception_3b/3x3_reduce
I0403 15:34:18.308818 12097 net.cpp:386] inception_3b/relu_3x3_reduce -> inception_3b/3x3_reduce (in-place)
I0403 15:34:18.308990 12097 net.cpp:141] Setting up inception_3b/relu_3x3_reduce
I0403 15:34:18.309013 12097 net.cpp:148] Top shape: 24 128 28 28 (2408448)
I0403 15:34:18.309028 12097 net.cpp:156] Memory required for data: 696042528
I0403 15:34:18.309043 12097 layer_factory.hpp:77] Creating layer inception_3b/3x3
I0403 15:34:18.309069 12097 net.cpp:91] Creating Layer inception_3b/3x3
I0403 15:34:18.309087 12097 net.cpp:425] inception_3b/3x3 <- inception_3b/3x3_reduce
I0403 15:34:18.309108 12097 net.cpp:399] inception_3b/3x3 -> inception_3b/3x3
I0403 15:34:18.312017 12097 net.cpp:141] Setting up inception_3b/3x3
I0403 15:34:18.312047 12097 net.cpp:148] Top shape: 24 192 28 28 (3612672)
I0403 15:34:18.312062 12097 net.cpp:156] Memory required for data: 710493216
I0403 15:34:18.312080 12097 layer_factory.hpp:77] Creating layer inception_3b/relu_3x3
I0403 15:34:18.312100 12097 net.cpp:91] Creating Layer inception_3b/relu_3x3
I0403 15:34:18.312117 12097 net.cpp:425] inception_3b/relu_3x3 <- inception_3b/3x3
I0403 15:34:18.312135 12097 net.cpp:386] inception_3b/relu_3x3 -> inception_3b/3x3 (in-place)
I0403 15:34:18.312419 12097 net.cpp:141] Setting up inception_3b/relu_3x3
I0403 15:34:18.312448 12097 net.cpp:148] Top shape: 24 192 28 28 (3612672)
I0403 15:34:18.312463 12097 net.cpp:156] Memory required for data: 724943904
I0403 15:34:18.312479 12097 layer_factory.hpp:77] Creating layer inception_3b/5x5_reduce
I0403 15:34:18.312500 12097 net.cpp:91] Creating Layer inception_3b/5x5_reduce
I0403 15:34:18.312520 12097 net.cpp:425] inception_3b/5x5_reduce <- inception_3a/output_inception_3a/output_0_split_2
I0403 15:34:18.312541 12097 net.cpp:399] inception_3b/5x5_reduce -> inception_3b/5x5_reduce
I0403 15:34:18.313530 12097 net.cpp:141] Setting up inception_3b/5x5_reduce
I0403 15:34:18.313557 12097 net.cpp:148] Top shape: 24 32 28 28 (602112)
I0403 15:34:18.313575 12097 net.cpp:156] Memory required for data: 727352352
I0403 15:34:18.313592 12097 layer_factory.hpp:77] Creating layer inception_3b/relu_5x5_reduce
I0403 15:34:18.313612 12097 net.cpp:91] Creating Layer inception_3b/relu_5x5_reduce
I0403 15:34:18.313628 12097 net.cpp:425] inception_3b/relu_5x5_reduce <- inception_3b/5x5_reduce
I0403 15:34:18.313647 12097 net.cpp:386] inception_3b/relu_5x5_reduce -> inception_3b/5x5_reduce (in-place)
I0403 15:34:18.313843 12097 net.cpp:141] Setting up inception_3b/relu_5x5_reduce
I0403 15:34:18.313868 12097 net.cpp:148] Top shape: 24 32 28 28 (602112)
I0403 15:34:18.313884 12097 net.cpp:156] Memory required for data: 729760800
I0403 15:34:18.313897 12097 layer_factory.hpp:77] Creating layer inception_3b/5x5
I0403 15:34:18.313921 12097 net.cpp:91] Creating Layer inception_3b/5x5
I0403 15:34:18.313938 12097 net.cpp:425] inception_3b/5x5 <- inception_3b/5x5_reduce
I0403 15:34:18.313959 12097 net.cpp:399] inception_3b/5x5 -> inception_3b/5x5
I0403 15:34:18.315932 12097 net.cpp:141] Setting up inception_3b/5x5
I0403 15:34:18.315963 12097 net.cpp:148] Top shape: 24 96 28 28 (1806336)
I0403 15:34:18.315979 12097 net.cpp:156] Memory required for data: 736986144
I0403 15:34:18.315997 12097 layer_factory.hpp:77] Creating layer inception_3b/relu_5x5
I0403 15:34:18.316015 12097 net.cpp:91] Creating Layer inception_3b/relu_5x5
I0403 15:34:18.316032 12097 net.cpp:425] inception_3b/relu_5x5 <- inception_3b/5x5
I0403 15:34:18.316052 12097 net.cpp:386] inception_3b/relu_5x5 -> inception_3b/5x5 (in-place)
I0403 15:34:18.316243 12097 net.cpp:141] Setting up inception_3b/relu_5x5
I0403 15:34:18.316267 12097 net.cpp:148] Top shape: 24 96 28 28 (1806336)
I0403 15:34:18.316282 12097 net.cpp:156] Memory required for data: 744211488
I0403 15:34:18.316298 12097 layer_factory.hpp:77] Creating layer inception_3b/pool
I0403 15:34:18.316314 12097 net.cpp:91] Creating Layer inception_3b/pool
I0403 15:34:18.316330 12097 net.cpp:425] inception_3b/pool <- inception_3a/output_inception_3a/output_0_split_3
I0403 15:34:18.316349 12097 net.cpp:399] inception_3b/pool -> inception_3b/pool
I0403 15:34:18.316411 12097 net.cpp:141] Setting up inception_3b/pool
I0403 15:34:18.316436 12097 net.cpp:148] Top shape: 24 256 28 28 (4816896)
I0403 15:34:18.316449 12097 net.cpp:156] Memory required for data: 763479072
I0403 15:34:18.316463 12097 layer_factory.hpp:77] Creating layer inception_3b/pool_proj
I0403 15:34:18.316486 12097 net.cpp:91] Creating Layer inception_3b/pool_proj
I0403 15:34:18.316504 12097 net.cpp:425] inception_3b/pool_proj <- inception_3b/pool
I0403 15:34:18.316524 12097 net.cpp:399] inception_3b/pool_proj -> inception_3b/pool_proj
I0403 15:34:18.317594 12097 net.cpp:141] Setting up inception_3b/pool_proj
I0403 15:34:18.317622 12097 net.cpp:148] Top shape: 24 64 28 28 (1204224)
I0403 15:34:18.317638 12097 net.cpp:156] Memory required for data: 768295968
I0403 15:34:18.317659 12097 layer_factory.hpp:77] Creating layer inception_3b/relu_pool_proj
I0403 15:34:18.317678 12097 net.cpp:91] Creating Layer inception_3b/relu_pool_proj
I0403 15:34:18.317695 12097 net.cpp:425] inception_3b/relu_pool_proj <- inception_3b/pool_proj
I0403 15:34:18.317713 12097 net.cpp:386] inception_3b/relu_pool_proj -> inception_3b/pool_proj (in-place)
I0403 15:34:18.318121 12097 net.cpp:141] Setting up inception_3b/relu_pool_proj
I0403 15:34:18.318148 12097 net.cpp:148] Top shape: 24 64 28 28 (1204224)
I0403 15:34:18.318167 12097 net.cpp:156] Memory required for data: 773112864
I0403 15:34:18.318182 12097 layer_factory.hpp:77] Creating layer inception_3b/output
I0403 15:34:18.318200 12097 net.cpp:91] Creating Layer inception_3b/output
I0403 15:34:18.318217 12097 net.cpp:425] inception_3b/output <- inception_3b/1x1
I0403 15:34:18.318233 12097 net.cpp:425] inception_3b/output <- inception_3b/3x3
I0403 15:34:18.318249 12097 net.cpp:425] inception_3b/output <- inception_3b/5x5
I0403 15:34:18.318265 12097 net.cpp:425] inception_3b/output <- inception_3b/pool_proj
I0403 15:34:18.318282 12097 net.cpp:399] inception_3b/output -> inception_3b/output
I0403 15:34:18.318330 12097 net.cpp:141] Setting up inception_3b/output
I0403 15:34:18.318352 12097 net.cpp:148] Top shape: 24 480 28 28 (9031680)
I0403 15:34:18.318367 12097 net.cpp:156] Memory required for data: 809239584
I0403 15:34:18.318385 12097 layer_factory.hpp:77] Creating layer pool3/3x3_s2
I0403 15:34:18.318404 12097 net.cpp:91] Creating Layer pool3/3x3_s2
I0403 15:34:18.318423 12097 net.cpp:425] pool3/3x3_s2 <- inception_3b/output
I0403 15:34:18.318457 12097 net.cpp:399] pool3/3x3_s2 -> pool3/3x3_s2
I0403 15:34:18.318518 12097 net.cpp:141] Setting up pool3/3x3_s2
I0403 15:34:18.318542 12097 net.cpp:148] Top shape: 24 480 14 14 (2257920)
I0403 15:34:18.318557 12097 net.cpp:156] Memory required for data: 818271264
I0403 15:34:18.318570 12097 layer_factory.hpp:77] Creating layer pool3/3x3_s2_pool3/3x3_s2_0_split
I0403 15:34:18.318588 12097 net.cpp:91] Creating Layer pool3/3x3_s2_pool3/3x3_s2_0_split
I0403 15:34:18.318603 12097 net.cpp:425] pool3/3x3_s2_pool3/3x3_s2_0_split <- pool3/3x3_s2
I0403 15:34:18.318622 12097 net.cpp:399] pool3/3x3_s2_pool3/3x3_s2_0_split -> pool3/3x3_s2_pool3/3x3_s2_0_split_0
I0403 15:34:18.318642 12097 net.cpp:399] pool3/3x3_s2_pool3/3x3_s2_0_split -> pool3/3x3_s2_pool3/3x3_s2_0_split_1
I0403 15:34:18.318661 12097 net.cpp:399] pool3/3x3_s2_pool3/3x3_s2_0_split -> pool3/3x3_s2_pool3/3x3_s2_0_split_2
I0403 15:34:18.318681 12097 net.cpp:399] pool3/3x3_s2_pool3/3x3_s2_0_split -> pool3/3x3_s2_pool3/3x3_s2_0_split_3
I0403 15:34:18.318758 12097 net.cpp:141] Setting up pool3/3x3_s2_pool3/3x3_s2_0_split
I0403 15:34:18.318781 12097 net.cpp:148] Top shape: 24 480 14 14 (2257920)
I0403 15:34:18.318797 12097 net.cpp:148] Top shape: 24 480 14 14 (2257920)
I0403 15:34:18.318814 12097 net.cpp:148] Top shape: 24 480 14 14 (2257920)
I0403 15:34:18.318828 12097 net.cpp:148] Top shape: 24 480 14 14 (2257920)
I0403 15:34:18.318841 12097 net.cpp:156] Memory required for data: 854397984
I0403 15:34:18.318856 12097 layer_factory.hpp:77] Creating layer inception_4a/1x1
I0403 15:34:18.318879 12097 net.cpp:91] Creating Layer inception_4a/1x1
I0403 15:34:18.318897 12097 net.cpp:425] inception_4a/1x1 <- pool3/3x3_s2_pool3/3x3_s2_0_split_0
I0403 15:34:18.318915 12097 net.cpp:399] inception_4a/1x1 -> inception_4a/1x1
I0403 15:34:18.320535 12097 net.cpp:141] Setting up inception_4a/1x1
I0403 15:34:18.320566 12097 net.cpp:148] Top shape: 24 192 14 14 (903168)
I0403 15:34:18.320585 12097 net.cpp:156] Memory required for data: 858010656
I0403 15:34:18.320603 12097 layer_factory.hpp:77] Creating layer inception_4a/relu_1x1
I0403 15:34:18.320631 12097 net.cpp:91] Creating Layer inception_4a/relu_1x1
I0403 15:34:18.320648 12097 net.cpp:425] inception_4a/relu_1x1 <- inception_4a/1x1
I0403 15:34:18.320668 12097 net.cpp:386] inception_4a/relu_1x1 -> inception_4a/1x1 (in-place)
I0403 15:34:18.320857 12097 net.cpp:141] Setting up inception_4a/relu_1x1
I0403 15:34:18.320883 12097 net.cpp:148] Top shape: 24 192 14 14 (903168)
I0403 15:34:18.320897 12097 net.cpp:156] Memory required for data: 861623328
I0403 15:34:18.320914 12097 layer_factory.hpp:77] Creating layer inception_4a/3x3_reduce
I0403 15:34:18.320936 12097 net.cpp:91] Creating Layer inception_4a/3x3_reduce
I0403 15:34:18.320955 12097 net.cpp:425] inception_4a/3x3_reduce <- pool3/3x3_s2_pool3/3x3_s2_0_split_1
I0403 15:34:18.320976 12097 net.cpp:399] inception_4a/3x3_reduce -> inception_4a/3x3_reduce
I0403 15:34:18.322309 12097 net.cpp:141] Setting up inception_4a/3x3_reduce
I0403 15:34:18.322340 12097 net.cpp:148] Top shape: 24 96 14 14 (451584)
I0403 15:34:18.322357 12097 net.cpp:156] Memory required for data: 863429664
I0403 15:34:18.322391 12097 layer_factory.hpp:77] Creating layer inception_4a/relu_3x3_reduce
I0403 15:34:18.322417 12097 net.cpp:91] Creating Layer inception_4a/relu_3x3_reduce
I0403 15:34:18.322435 12097 net.cpp:425] inception_4a/relu_3x3_reduce <- inception_4a/3x3_reduce
I0403 15:34:18.322453 12097 net.cpp:386] inception_4a/relu_3x3_reduce -> inception_4a/3x3_reduce (in-place)
I0403 15:34:18.322643 12097 net.cpp:141] Setting up inception_4a/relu_3x3_reduce
I0403 15:34:18.322669 12097 net.cpp:148] Top shape: 24 96 14 14 (451584)
I0403 15:34:18.322684 12097 net.cpp:156] Memory required for data: 865236000
I0403 15:34:18.322698 12097 layer_factory.hpp:77] Creating layer inception_4a/3x3
I0403 15:34:18.322721 12097 net.cpp:91] Creating Layer inception_4a/3x3
I0403 15:34:18.322741 12097 net.cpp:425] inception_4a/3x3 <- inception_4a/3x3_reduce
I0403 15:34:18.322762 12097 net.cpp:399] inception_4a/3x3 -> inception_4a/3x3
I0403 15:34:18.325598 12097 net.cpp:141] Setting up inception_4a/3x3
I0403 15:34:18.325628 12097 net.cpp:148] Top shape: 24 208 14 14 (978432)
I0403 15:34:18.325644 12097 net.cpp:156] Memory required for data: 869149728
I0403 15:34:18.325664 12097 layer_factory.hpp:77] Creating layer inception_4a/relu_3x3
I0403 15:34:18.325682 12097 net.cpp:91] Creating Layer inception_4a/relu_3x3
I0403 15:34:18.325703 12097 net.cpp:425] inception_4a/relu_3x3 <- inception_4a/3x3
I0403 15:34:18.325722 12097 net.cpp:386] inception_4a/relu_3x3 -> inception_4a/3x3 (in-place)
I0403 15:34:18.326015 12097 net.cpp:141] Setting up inception_4a/relu_3x3
I0403 15:34:18.326042 12097 net.cpp:148] Top shape: 24 208 14 14 (978432)
I0403 15:34:18.326058 12097 net.cpp:156] Memory required for data: 873063456
I0403 15:34:18.326074 12097 layer_factory.hpp:77] Creating layer inception_4a/5x5_reduce
I0403 15:34:18.326098 12097 net.cpp:91] Creating Layer inception_4a/5x5_reduce
I0403 15:34:18.326117 12097 net.cpp:425] inception_4a/5x5_reduce <- pool3/3x3_s2_pool3/3x3_s2_0_split_2
I0403 15:34:18.326140 12097 net.cpp:399] inception_4a/5x5_reduce -> inception_4a/5x5_reduce
I0403 15:34:18.327215 12097 net.cpp:141] Setting up inception_4a/5x5_reduce
I0403 15:34:18.327244 12097 net.cpp:148] Top shape: 24 16 14 14 (75264)
I0403 15:34:18.327260 12097 net.cpp:156] Memory required for data: 873364512
I0403 15:34:18.327280 12097 layer_factory.hpp:77] Creating layer inception_4a/relu_5x5_reduce
I0403 15:34:18.327301 12097 net.cpp:91] Creating Layer inception_4a/relu_5x5_reduce
I0403 15:34:18.327318 12097 net.cpp:425] inception_4a/relu_5x5_reduce <- inception_4a/5x5_reduce
I0403 15:34:18.327337 12097 net.cpp:386] inception_4a/relu_5x5_reduce -> inception_4a/5x5_reduce (in-place)
I0403 15:34:18.327532 12097 net.cpp:141] Setting up inception_4a/relu_5x5_reduce
I0403 15:34:18.327558 12097 net.cpp:148] Top shape: 24 16 14 14 (75264)
I0403 15:34:18.327574 12097 net.cpp:156] Memory required for data: 873665568
I0403 15:34:18.327590 12097 layer_factory.hpp:77] Creating layer inception_4a/5x5
I0403 15:34:18.327615 12097 net.cpp:91] Creating Layer inception_4a/5x5
I0403 15:34:18.327632 12097 net.cpp:425] inception_4a/5x5 <- inception_4a/5x5_reduce
I0403 15:34:18.327653 12097 net.cpp:399] inception_4a/5x5 -> inception_4a/5x5
I0403 15:34:18.328814 12097 net.cpp:141] Setting up inception_4a/5x5
I0403 15:34:18.328842 12097 net.cpp:148] Top shape: 24 48 14 14 (225792)
I0403 15:34:18.328866 12097 net.cpp:156] Memory required for data: 874568736
I0403 15:34:18.328886 12097 layer_factory.hpp:77] Creating layer inception_4a/relu_5x5
I0403 15:34:18.328903 12097 net.cpp:91] Creating Layer inception_4a/relu_5x5
I0403 15:34:18.328920 12097 net.cpp:425] inception_4a/relu_5x5 <- inception_4a/5x5
I0403 15:34:18.328938 12097 net.cpp:386] inception_4a/relu_5x5 -> inception_4a/5x5 (in-place)
I0403 15:34:18.329125 12097 net.cpp:141] Setting up inception_4a/relu_5x5
I0403 15:34:18.329154 12097 net.cpp:148] Top shape: 24 48 14 14 (225792)
I0403 15:34:18.329170 12097 net.cpp:156] Memory required for data: 875471904
I0403 15:34:18.329185 12097 layer_factory.hpp:77] Creating layer inception_4a/pool
I0403 15:34:18.329203 12097 net.cpp:91] Creating Layer inception_4a/pool
I0403 15:34:18.329219 12097 net.cpp:425] inception_4a/pool <- pool3/3x3_s2_pool3/3x3_s2_0_split_3
I0403 15:34:18.329241 12097 net.cpp:399] inception_4a/pool -> inception_4a/pool
I0403 15:34:18.329305 12097 net.cpp:141] Setting up inception_4a/pool
I0403 15:34:18.329334 12097 net.cpp:148] Top shape: 24 480 14 14 (2257920)
I0403 15:34:18.329350 12097 net.cpp:156] Memory required for data: 884503584
I0403 15:34:18.329365 12097 layer_factory.hpp:77] Creating layer inception_4a/pool_proj
I0403 15:34:18.329391 12097 net.cpp:91] Creating Layer inception_4a/pool_proj
I0403 15:34:18.329409 12097 net.cpp:425] inception_4a/pool_proj <- inception_4a/pool
I0403 15:34:18.329432 12097 net.cpp:399] inception_4a/pool_proj -> inception_4a/pool_proj
I0403 15:34:18.330662 12097 net.cpp:141] Setting up inception_4a/pool_proj
I0403 15:34:18.330695 12097 net.cpp:148] Top shape: 24 64 14 14 (301056)
I0403 15:34:18.330726 12097 net.cpp:156] Memory required for data: 885707808
I0403 15:34:18.330746 12097 layer_factory.hpp:77] Creating layer inception_4a/relu_pool_proj
I0403 15:34:18.330765 12097 net.cpp:91] Creating Layer inception_4a/relu_pool_proj
I0403 15:34:18.330782 12097 net.cpp:425] inception_4a/relu_pool_proj <- inception_4a/pool_proj
I0403 15:34:18.330801 12097 net.cpp:386] inception_4a/relu_pool_proj -> inception_4a/pool_proj (in-place)
I0403 15:34:18.331104 12097 net.cpp:141] Setting up inception_4a/relu_pool_proj
I0403 15:34:18.331133 12097 net.cpp:148] Top shape: 24 64 14 14 (301056)
I0403 15:34:18.331149 12097 net.cpp:156] Memory required for data: 886912032
I0403 15:34:18.331166 12097 layer_factory.hpp:77] Creating layer inception_4a/output
I0403 15:34:18.331183 12097 net.cpp:91] Creating Layer inception_4a/output
I0403 15:34:18.331199 12097 net.cpp:425] inception_4a/output <- inception_4a/1x1
I0403 15:34:18.331218 12097 net.cpp:425] inception_4a/output <- inception_4a/3x3
I0403 15:34:18.331234 12097 net.cpp:425] inception_4a/output <- inception_4a/5x5
I0403 15:34:18.331250 12097 net.cpp:425] inception_4a/output <- inception_4a/pool_proj
I0403 15:34:18.331267 12097 net.cpp:399] inception_4a/output -> inception_4a/output
I0403 15:34:18.331317 12097 net.cpp:141] Setting up inception_4a/output
I0403 15:34:18.331341 12097 net.cpp:148] Top shape: 24 512 14 14 (2408448)
I0403 15:34:18.331357 12097 net.cpp:156] Memory required for data: 896545824
I0403 15:34:18.331372 12097 layer_factory.hpp:77] Creating layer inception_4a/output_inception_4a/output_0_split
I0403 15:34:18.331399 12097 net.cpp:91] Creating Layer inception_4a/output_inception_4a/output_0_split
I0403 15:34:18.331418 12097 net.cpp:425] inception_4a/output_inception_4a/output_0_split <- inception_4a/output
I0403 15:34:18.331436 12097 net.cpp:399] inception_4a/output_inception_4a/output_0_split -> inception_4a/output_inception_4a/output_0_split_0
I0403 15:34:18.331459 12097 net.cpp:399] inception_4a/output_inception_4a/output_0_split -> inception_4a/output_inception_4a/output_0_split_1
I0403 15:34:18.331480 12097 net.cpp:399] inception_4a/output_inception_4a/output_0_split -> inception_4a/output_inception_4a/output_0_split_2
I0403 15:34:18.331503 12097 net.cpp:399] inception_4a/output_inception_4a/output_0_split -> inception_4a/output_inception_4a/output_0_split_3
I0403 15:34:18.331526 12097 net.cpp:399] inception_4a/output_inception_4a/output_0_split -> inception_4a/output_inception_4a/output_0_split_4
I0403 15:34:18.331627 12097 net.cpp:141] Setting up inception_4a/output_inception_4a/output_0_split
I0403 15:34:18.331651 12097 net.cpp:148] Top shape: 24 512 14 14 (2408448)
I0403 15:34:18.331670 12097 net.cpp:148] Top shape: 24 512 14 14 (2408448)
I0403 15:34:18.331686 12097 net.cpp:148] Top shape: 24 512 14 14 (2408448)
I0403 15:34:18.331702 12097 net.cpp:148] Top shape: 24 512 14 14 (2408448)
I0403 15:34:18.331717 12097 net.cpp:148] Top shape: 24 512 14 14 (2408448)
I0403 15:34:18.331732 12097 net.cpp:156] Memory required for data: 944714784
I0403 15:34:18.331746 12097 layer_factory.hpp:77] Creating layer loss1/ave_pool
I0403 15:34:18.331768 12097 net.cpp:91] Creating Layer loss1/ave_pool
I0403 15:34:18.331786 12097 net.cpp:425] loss1/ave_pool <- inception_4a/output_inception_4a/output_0_split_0
I0403 15:34:18.331805 12097 net.cpp:399] loss1/ave_pool -> loss1/ave_pool
I0403 15:34:18.332021 12097 net.cpp:141] Setting up loss1/ave_pool
I0403 15:34:18.332051 12097 net.cpp:148] Top shape: 24 512 4 4 (196608)
I0403 15:34:18.332067 12097 net.cpp:156] Memory required for data: 945501216
I0403 15:34:18.332082 12097 layer_factory.hpp:77] Creating layer loss1/conv
I0403 15:34:18.332106 12097 net.cpp:91] Creating Layer loss1/conv
I0403 15:34:18.332124 12097 net.cpp:425] loss1/conv <- loss1/ave_pool
I0403 15:34:18.332144 12097 net.cpp:399] loss1/conv -> loss1/conv
I0403 15:34:18.333654 12097 net.cpp:141] Setting up loss1/conv
I0403 15:34:18.333684 12097 net.cpp:148] Top shape: 24 128 4 4 (49152)
I0403 15:34:18.333714 12097 net.cpp:156] Memory required for data: 945697824
I0403 15:34:18.333735 12097 layer_factory.hpp:77] Creating layer loss1/relu_conv
I0403 15:34:18.333756 12097 net.cpp:91] Creating Layer loss1/relu_conv
I0403 15:34:18.333775 12097 net.cpp:425] loss1/relu_conv <- loss1/conv
I0403 15:34:18.333792 12097 net.cpp:386] loss1/relu_conv -> loss1/conv (in-place)
I0403 15:34:18.334090 12097 net.cpp:141] Setting up loss1/relu_conv
I0403 15:34:18.334118 12097 net.cpp:148] Top shape: 24 128 4 4 (49152)
I0403 15:34:18.334133 12097 net.cpp:156] Memory required for data: 945894432
I0403 15:34:18.334149 12097 layer_factory.hpp:77] Creating layer loss1/fc
I0403 15:34:18.334175 12097 net.cpp:91] Creating Layer loss1/fc
I0403 15:34:18.334195 12097 net.cpp:425] loss1/fc <- loss1/conv
I0403 15:34:18.334214 12097 net.cpp:399] loss1/fc -> loss1/fc
I0403 15:34:18.352845 12097 net.cpp:141] Setting up loss1/fc
I0403 15:34:18.352908 12097 net.cpp:148] Top shape: 24 1024 (24576)
I0403 15:34:18.352926 12097 net.cpp:156] Memory required for data: 945992736
I0403 15:34:18.352944 12097 layer_factory.hpp:77] Creating layer loss1/relu_fc
I0403 15:34:18.352972 12097 net.cpp:91] Creating Layer loss1/relu_fc
I0403 15:34:18.352989 12097 net.cpp:425] loss1/relu_fc <- loss1/fc
I0403 15:34:18.353011 12097 net.cpp:386] loss1/relu_fc -> loss1/fc (in-place)
I0403 15:34:18.353232 12097 net.cpp:141] Setting up loss1/relu_fc
I0403 15:34:18.353257 12097 net.cpp:148] Top shape: 24 1024 (24576)
I0403 15:34:18.353272 12097 net.cpp:156] Memory required for data: 946091040
I0403 15:34:18.353287 12097 layer_factory.hpp:77] Creating layer loss1/drop_fc
I0403 15:34:18.353317 12097 net.cpp:91] Creating Layer loss1/drop_fc
I0403 15:34:18.353335 12097 net.cpp:425] loss1/drop_fc <- loss1/fc
I0403 15:34:18.353355 12097 net.cpp:386] loss1/drop_fc -> loss1/fc (in-place)
I0403 15:34:18.353412 12097 net.cpp:141] Setting up loss1/drop_fc
I0403 15:34:18.353436 12097 net.cpp:148] Top shape: 24 1024 (24576)
I0403 15:34:18.353451 12097 net.cpp:156] Memory required for data: 946189344
I0403 15:34:18.353466 12097 layer_factory.hpp:77] Creating layer loss1/classifier_plantvillage
I0403 15:34:18.353489 12097 net.cpp:91] Creating Layer loss1/classifier_plantvillage
I0403 15:34:18.353507 12097 net.cpp:425] loss1/classifier_plantvillage <- loss1/fc
I0403 15:34:18.353528 12097 net.cpp:399] loss1/classifier_plantvillage -> loss1/classifier_plantvillage
I0403 15:34:18.354492 12097 net.cpp:141] Setting up loss1/classifier_plantvillage
I0403 15:34:18.354522 12097 net.cpp:148] Top shape: 24 38 (912)
I0403 15:34:18.354539 12097 net.cpp:156] Memory required for data: 946192992
I0403 15:34:18.354557 12097 layer_factory.hpp:77] Creating layer loss1/classifier_plantvillage_loss1/classifier_plantvillage_0_split
I0403 15:34:18.354578 12097 net.cpp:91] Creating Layer loss1/classifier_plantvillage_loss1/classifier_plantvillage_0_split
I0403 15:34:18.354593 12097 net.cpp:425] loss1/classifier_plantvillage_loss1/classifier_plantvillage_0_split <- loss1/classifier_plantvillage
I0403 15:34:18.354614 12097 net.cpp:399] loss1/classifier_plantvillage_loss1/classifier_plantvillage_0_split -> loss1/classifier_plantvillage_loss1/classifier_plantvillage_0_split_0
I0403 15:34:18.354635 12097 net.cpp:399] loss1/classifier_plantvillage_loss1/classifier_plantvillage_0_split -> loss1/classifier_plantvillage_loss1/classifier_plantvillage_0_split_1
I0403 15:34:18.354655 12097 net.cpp:399] loss1/classifier_plantvillage_loss1/classifier_plantvillage_0_split -> loss1/classifier_plantvillage_loss1/classifier_plantvillage_0_split_2
I0403 15:34:18.354722 12097 net.cpp:141] Setting up loss1/classifier_plantvillage_loss1/classifier_plantvillage_0_split
I0403 15:34:18.354745 12097 net.cpp:148] Top shape: 24 38 (912)
I0403 15:34:18.354761 12097 net.cpp:148] Top shape: 24 38 (912)
I0403 15:34:18.354778 12097 net.cpp:148] Top shape: 24 38 (912)
I0403 15:34:18.354791 12097 net.cpp:156] Memory required for data: 946203936
I0403 15:34:18.354805 12097 layer_factory.hpp:77] Creating layer inception_4b/1x1
I0403 15:34:18.354830 12097 net.cpp:91] Creating Layer inception_4b/1x1
I0403 15:34:18.354871 12097 net.cpp:425] inception_4b/1x1 <- inception_4a/output_inception_4a/output_0_split_1
I0403 15:34:18.354893 12097 net.cpp:399] inception_4b/1x1 -> inception_4b/1x1
I0403 15:34:18.356626 12097 net.cpp:141] Setting up inception_4b/1x1
I0403 15:34:18.356654 12097 net.cpp:148] Top shape: 24 160 14 14 (752640)
I0403 15:34:18.356670 12097 net.cpp:156] Memory required for data: 949214496
I0403 15:34:18.356688 12097 layer_factory.hpp:77] Creating layer inception_4b/relu_1x1
I0403 15:34:18.356710 12097 net.cpp:91] Creating Layer inception_4b/relu_1x1
I0403 15:34:18.356727 12097 net.cpp:425] inception_4b/relu_1x1 <- inception_4b/1x1
I0403 15:34:18.356745 12097 net.cpp:386] inception_4b/relu_1x1 -> inception_4b/1x1 (in-place)
I0403 15:34:18.356933 12097 net.cpp:141] Setting up inception_4b/relu_1x1
I0403 15:34:18.356959 12097 net.cpp:148] Top shape: 24 160 14 14 (752640)
I0403 15:34:18.356974 12097 net.cpp:156] Memory required for data: 952225056
I0403 15:34:18.356989 12097 layer_factory.hpp:77] Creating layer inception_4b/3x3_reduce
I0403 15:34:18.357013 12097 net.cpp:91] Creating Layer inception_4b/3x3_reduce
I0403 15:34:18.357030 12097 net.cpp:425] inception_4b/3x3_reduce <- inception_4a/output_inception_4a/output_0_split_2
I0403 15:34:18.357050 12097 net.cpp:399] inception_4b/3x3_reduce -> inception_4b/3x3_reduce
I0403 15:34:18.358450 12097 net.cpp:141] Setting up inception_4b/3x3_reduce
I0403 15:34:18.358479 12097 net.cpp:148] Top shape: 24 112 14 14 (526848)
I0403 15:34:18.358494 12097 net.cpp:156] Memory required for data: 954332448
I0403 15:34:18.358512 12097 layer_factory.hpp:77] Creating layer inception_4b/relu_3x3_reduce
I0403 15:34:18.358533 12097 net.cpp:91] Creating Layer inception_4b/relu_3x3_reduce
I0403 15:34:18.358551 12097 net.cpp:425] inception_4b/relu_3x3_reduce <- inception_4b/3x3_reduce
I0403 15:34:18.358569 12097 net.cpp:386] inception_4b/relu_3x3_reduce -> inception_4b/3x3_reduce (in-place)
I0403 15:34:18.358862 12097 net.cpp:141] Setting up inception_4b/relu_3x3_reduce
I0403 15:34:18.358888 12097 net.cpp:148] Top shape: 24 112 14 14 (526848)
I0403 15:34:18.358903 12097 net.cpp:156] Memory required for data: 956439840
I0403 15:34:18.358918 12097 layer_factory.hpp:77] Creating layer inception_4b/3x3
I0403 15:34:18.358942 12097 net.cpp:91] Creating Layer inception_4b/3x3
I0403 15:34:18.358960 12097 net.cpp:425] inception_4b/3x3 <- inception_4b/3x3_reduce
I0403 15:34:18.358981 12097 net.cpp:399] inception_4b/3x3 -> inception_4b/3x3
I0403 15:34:18.362074 12097 net.cpp:141] Setting up inception_4b/3x3
I0403 15:34:18.362105 12097 net.cpp:148] Top shape: 24 224 14 14 (1053696)
I0403 15:34:18.362123 12097 net.cpp:156] Memory required for data: 960654624
I0403 15:34:18.362141 12097 layer_factory.hpp:77] Creating layer inception_4b/relu_3x3
I0403 15:34:18.362160 12097 net.cpp:91] Creating Layer inception_4b/relu_3x3
I0403 15:34:18.362176 12097 net.cpp:425] inception_4b/relu_3x3 <- inception_4b/3x3
I0403 15:34:18.362196 12097 net.cpp:386] inception_4b/relu_3x3 -> inception_4b/3x3 (in-place)
I0403 15:34:18.362392 12097 net.cpp:141] Setting up inception_4b/relu_3x3
I0403 15:34:18.362417 12097 net.cpp:148] Top shape: 24 224 14 14 (1053696)
I0403 15:34:18.362432 12097 net.cpp:156] Memory required for data: 964869408
I0403 15:34:18.362447 12097 layer_factory.hpp:77] Creating layer inception_4b/5x5_reduce
I0403 15:34:18.362469 12097 net.cpp:91] Creating Layer inception_4b/5x5_reduce
I0403 15:34:18.362488 12097 net.cpp:425] inception_4b/5x5_reduce <- inception_4a/output_inception_4a/output_0_split_3
I0403 15:34:18.362509 12097 net.cpp:399] inception_4b/5x5_reduce -> inception_4b/5x5_reduce
I0403 15:34:18.363625 12097 net.cpp:141] Setting up inception_4b/5x5_reduce
I0403 15:34:18.363652 12097 net.cpp:148] Top shape: 24 24 14 14 (112896)
I0403 15:34:18.363668 12097 net.cpp:156] Memory required for data: 965320992
I0403 15:34:18.363688 12097 layer_factory.hpp:77] Creating layer inception_4b/relu_5x5_reduce
I0403 15:34:18.363709 12097 net.cpp:91] Creating Layer inception_4b/relu_5x5_reduce
I0403 15:34:18.363740 12097 net.cpp:425] inception_4b/relu_5x5_reduce <- inception_4b/5x5_reduce
I0403 15:34:18.363759 12097 net.cpp:386] inception_4b/relu_5x5_reduce -> inception_4b/5x5_reduce (in-place)
I0403 15:34:18.363946 12097 net.cpp:141] Setting up inception_4b/relu_5x5_reduce
I0403 15:34:18.363975 12097 net.cpp:148] Top shape: 24 24 14 14 (112896)
I0403 15:34:18.363989 12097 net.cpp:156] Memory required for data: 965772576
I0403 15:34:18.364006 12097 layer_factory.hpp:77] Creating layer inception_4b/5x5
I0403 15:34:18.364027 12097 net.cpp:91] Creating Layer inception_4b/5x5
I0403 15:34:18.364045 12097 net.cpp:425] inception_4b/5x5 <- inception_4b/5x5_reduce
I0403 15:34:18.364064 12097 net.cpp:399] inception_4b/5x5 -> inception_4b/5x5
I0403 15:34:18.365336 12097 net.cpp:141] Setting up inception_4b/5x5
I0403 15:34:18.365365 12097 net.cpp:148] Top shape: 24 64 14 14 (301056)
I0403 15:34:18.365384 12097 net.cpp:156] Memory required for data: 966976800
I0403 15:34:18.365404 12097 layer_factory.hpp:77] Creating layer inception_4b/relu_5x5
I0403 15:34:18.365424 12097 net.cpp:91] Creating Layer inception_4b/relu_5x5
I0403 15:34:18.365443 12097 net.cpp:425] inception_4b/relu_5x5 <- inception_4b/5x5
I0403 15:34:18.365461 12097 net.cpp:386] inception_4b/relu_5x5 -> inception_4b/5x5 (in-place)
I0403 15:34:18.365761 12097 net.cpp:141] Setting up inception_4b/relu_5x5
I0403 15:34:18.365787 12097 net.cpp:148] Top shape: 24 64 14 14 (301056)
I0403 15:34:18.365803 12097 net.cpp:156] Memory required for data: 968181024
I0403 15:34:18.365818 12097 layer_factory.hpp:77] Creating layer inception_4b/pool
I0403 15:34:18.365836 12097 net.cpp:91] Creating Layer inception_4b/pool
I0403 15:34:18.365856 12097 net.cpp:425] inception_4b/pool <- inception_4a/output_inception_4a/output_0_split_4
I0403 15:34:18.365875 12097 net.cpp:399] inception_4b/pool -> inception_4b/pool
I0403 15:34:18.365942 12097 net.cpp:141] Setting up inception_4b/pool
I0403 15:34:18.365967 12097 net.cpp:148] Top shape: 24 512 14 14 (2408448)
I0403 15:34:18.365981 12097 net.cpp:156] Memory required for data: 977814816
I0403 15:34:18.365995 12097 layer_factory.hpp:77] Creating layer inception_4b/pool_proj
I0403 15:34:18.366019 12097 net.cpp:91] Creating Layer inception_4b/pool_proj
I0403 15:34:18.366036 12097 net.cpp:425] inception_4b/pool_proj <- inception_4b/pool
I0403 15:34:18.366057 12097 net.cpp:399] inception_4b/pool_proj -> inception_4b/pool_proj
I0403 15:34:18.367341 12097 net.cpp:141] Setting up inception_4b/pool_proj
I0403 15:34:18.367369 12097 net.cpp:148] Top shape: 24 64 14 14 (301056)
I0403 15:34:18.367390 12097 net.cpp:156] Memory required for data: 979019040
I0403 15:34:18.367410 12097 layer_factory.hpp:77] Creating layer inception_4b/relu_pool_proj
I0403 15:34:18.367434 12097 net.cpp:91] Creating Layer inception_4b/relu_pool_proj
I0403 15:34:18.367451 12097 net.cpp:425] inception_4b/relu_pool_proj <- inception_4b/pool_proj
I0403 15:34:18.367470 12097 net.cpp:386] inception_4b/relu_pool_proj -> inception_4b/pool_proj (in-place)
I0403 15:34:18.367662 12097 net.cpp:141] Setting up inception_4b/relu_pool_proj
I0403 15:34:18.367687 12097 net.cpp:148] Top shape: 24 64 14 14 (301056)
I0403 15:34:18.367703 12097 net.cpp:156] Memory required for data: 980223264
I0403 15:34:18.367718 12097 layer_factory.hpp:77] Creating layer inception_4b/output
I0403 15:34:18.367739 12097 net.cpp:91] Creating Layer inception_4b/output
I0403 15:34:18.367758 12097 net.cpp:425] inception_4b/output <- inception_4b/1x1
I0403 15:34:18.367774 12097 net.cpp:425] inception_4b/output <- inception_4b/3x3
I0403 15:34:18.367791 12097 net.cpp:425] inception_4b/output <- inception_4b/5x5
I0403 15:34:18.367807 12097 net.cpp:425] inception_4b/output <- inception_4b/pool_proj
I0403 15:34:18.367825 12097 net.cpp:399] inception_4b/output -> inception_4b/output
I0403 15:34:18.367874 12097 net.cpp:141] Setting up inception_4b/output
I0403 15:34:18.367899 12097 net.cpp:148] Top shape: 24 512 14 14 (2408448)
I0403 15:34:18.367914 12097 net.cpp:156] Memory required for data: 989857056
I0403 15:34:18.367944 12097 layer_factory.hpp:77] Creating layer inception_4b/output_inception_4b/output_0_split
I0403 15:34:18.367962 12097 net.cpp:91] Creating Layer inception_4b/output_inception_4b/output_0_split
I0403 15:34:18.367980 12097 net.cpp:425] inception_4b/output_inception_4b/output_0_split <- inception_4b/output
I0403 15:34:18.368000 12097 net.cpp:399] inception_4b/output_inception_4b/output_0_split -> inception_4b/output_inception_4b/output_0_split_0
I0403 15:34:18.368023 12097 net.cpp:399] inception_4b/output_inception_4b/output_0_split -> inception_4b/output_inception_4b/output_0_split_1
I0403 15:34:18.368044 12097 net.cpp:399] inception_4b/output_inception_4b/output_0_split -> inception_4b/output_inception_4b/output_0_split_2
I0403 15:34:18.368065 12097 net.cpp:399] inception_4b/output_inception_4b/output_0_split -> inception_4b/output_inception_4b/output_0_split_3
I0403 15:34:18.368161 12097 net.cpp:141] Setting up inception_4b/output_inception_4b/output_0_split
I0403 15:34:18.368185 12097 net.cpp:148] Top shape: 24 512 14 14 (2408448)
I0403 15:34:18.368202 12097 net.cpp:148] Top shape: 24 512 14 14 (2408448)
I0403 15:34:18.368219 12097 net.cpp:148] Top shape: 24 512 14 14 (2408448)
I0403 15:34:18.368235 12097 net.cpp:148] Top shape: 24 512 14 14 (2408448)
I0403 15:34:18.368249 12097 net.cpp:156] Memory required for data: 1028392224
I0403 15:34:18.368264 12097 layer_factory.hpp:77] Creating layer inception_4c/1x1
I0403 15:34:18.368288 12097 net.cpp:91] Creating Layer inception_4c/1x1
I0403 15:34:18.368306 12097 net.cpp:425] inception_4c/1x1 <- inception_4b/output_inception_4b/output_0_split_0
I0403 15:34:18.368330 12097 net.cpp:399] inception_4c/1x1 -> inception_4c/1x1
I0403 15:34:18.369858 12097 net.cpp:141] Setting up inception_4c/1x1
I0403 15:34:18.369890 12097 net.cpp:148] Top shape: 24 128 14 14 (602112)
I0403 15:34:18.369907 12097 net.cpp:156] Memory required for data: 1030800672
I0403 15:34:18.369926 12097 layer_factory.hpp:77] Creating layer inception_4c/relu_1x1
I0403 15:34:18.369946 12097 net.cpp:91] Creating Layer inception_4c/relu_1x1
I0403 15:34:18.369962 12097 net.cpp:425] inception_4c/relu_1x1 <- inception_4c/1x1
I0403 15:34:18.369982 12097 net.cpp:386] inception_4c/relu_1x1 -> inception_4c/1x1 (in-place)
I0403 15:34:18.370175 12097 net.cpp:141] Setting up inception_4c/relu_1x1
I0403 15:34:18.370200 12097 net.cpp:148] Top shape: 24 128 14 14 (602112)
I0403 15:34:18.370216 12097 net.cpp:156] Memory required for data: 1033209120
I0403 15:34:18.370231 12097 layer_factory.hpp:77] Creating layer inception_4c/3x3_reduce
I0403 15:34:18.370254 12097 net.cpp:91] Creating Layer inception_4c/3x3_reduce
I0403 15:34:18.370273 12097 net.cpp:425] inception_4c/3x3_reduce <- inception_4b/output_inception_4b/output_0_split_1
I0403 15:34:18.370296 12097 net.cpp:399] inception_4c/3x3_reduce -> inception_4c/3x3_reduce
I0403 15:34:18.372392 12097 net.cpp:141] Setting up inception_4c/3x3_reduce
I0403 15:34:18.372422 12097 net.cpp:148] Top shape: 24 128 14 14 (602112)
I0403 15:34:18.372439 12097 net.cpp:156] Memory required for data: 1035617568
I0403 15:34:18.372458 12097 layer_factory.hpp:77] Creating layer inception_4c/relu_3x3_reduce
I0403 15:34:18.372478 12097 net.cpp:91] Creating Layer inception_4c/relu_3x3_reduce
I0403 15:34:18.372494 12097 net.cpp:425] inception_4c/relu_3x3_reduce <- inception_4c/3x3_reduce
I0403 15:34:18.372514 12097 net.cpp:386] inception_4c/relu_3x3_reduce -> inception_4c/3x3_reduce (in-place)
I0403 15:34:18.372819 12097 net.cpp:141] Setting up inception_4c/relu_3x3_reduce
I0403 15:34:18.372848 12097 net.cpp:148] Top shape: 24 128 14 14 (602112)
I0403 15:34:18.372864 12097 net.cpp:156] Memory required for data: 1038026016
I0403 15:34:18.372879 12097 layer_factory.hpp:77] Creating layer inception_4c/3x3
I0403 15:34:18.372903 12097 net.cpp:91] Creating Layer inception_4c/3x3
I0403 15:34:18.372922 12097 net.cpp:425] inception_4c/3x3 <- inception_4c/3x3_reduce
I0403 15:34:18.372944 12097 net.cpp:399] inception_4c/3x3 -> inception_4c/3x3
I0403 15:34:18.376749 12097 net.cpp:141] Setting up inception_4c/3x3
I0403 15:34:18.376791 12097 net.cpp:148] Top shape: 24 256 14 14 (1204224)
I0403 15:34:18.376807 12097 net.cpp:156] Memory required for data: 1042842912
I0403 15:34:18.376840 12097 layer_factory.hpp:77] Creating layer inception_4c/relu_3x3
I0403 15:34:18.376864 12097 net.cpp:91] Creating Layer inception_4c/relu_3x3
I0403 15:34:18.376881 12097 net.cpp:425] inception_4c/relu_3x3 <- inception_4c/3x3
I0403 15:34:18.376899 12097 net.cpp:386] inception_4c/relu_3x3 -> inception_4c/3x3 (in-place)
I0403 15:34:18.377090 12097 net.cpp:141] Setting up inception_4c/relu_3x3
I0403 15:34:18.377115 12097 net.cpp:148] Top shape: 24 256 14 14 (1204224)
I0403 15:34:18.377130 12097 net.cpp:156] Memory required for data: 1047659808
I0403 15:34:18.377146 12097 layer_factory.hpp:77] Creating layer inception_4c/5x5_reduce
I0403 15:34:18.377168 12097 net.cpp:91] Creating Layer inception_4c/5x5_reduce
I0403 15:34:18.377187 12097 net.cpp:425] inception_4c/5x5_reduce <- inception_4b/output_inception_4b/output_0_split_2
I0403 15:34:18.377208 12097 net.cpp:399] inception_4c/5x5_reduce -> inception_4c/5x5_reduce
I0403 15:34:18.378329 12097 net.cpp:141] Setting up inception_4c/5x5_reduce
I0403 15:34:18.378357 12097 net.cpp:148] Top shape: 24 24 14 14 (112896)
I0403 15:34:18.378373 12097 net.cpp:156] Memory required for data: 1048111392
I0403 15:34:18.378396 12097 layer_factory.hpp:77] Creating layer inception_4c/relu_5x5_reduce
I0403 15:34:18.378417 12097 net.cpp:91] Creating Layer inception_4c/relu_5x5_reduce
I0403 15:34:18.378435 12097 net.cpp:425] inception_4c/relu_5x5_reduce <- inception_4c/5x5_reduce
I0403 15:34:18.378453 12097 net.cpp:386] inception_4c/relu_5x5_reduce -> inception_4c/5x5_reduce (in-place)
I0403 15:34:18.378655 12097 net.cpp:141] Setting up inception_4c/relu_5x5_reduce
I0403 15:34:18.378684 12097 net.cpp:148] Top shape: 24 24 14 14 (112896)
I0403 15:34:18.378701 12097 net.cpp:156] Memory required for data: 1048562976
I0403 15:34:18.378716 12097 layer_factory.hpp:77] Creating layer inception_4c/5x5
I0403 15:34:18.378739 12097 net.cpp:91] Creating Layer inception_4c/5x5
I0403 15:34:18.378758 12097 net.cpp:425] inception_4c/5x5 <- inception_4c/5x5_reduce
I0403 15:34:18.378778 12097 net.cpp:399] inception_4c/5x5 -> inception_4c/5x5
I0403 15:34:18.380100 12097 net.cpp:141] Setting up inception_4c/5x5
I0403 15:34:18.380130 12097 net.cpp:148] Top shape: 24 64 14 14 (301056)
I0403 15:34:18.380146 12097 net.cpp:156] Memory required for data: 1049767200
I0403 15:34:18.380164 12097 layer_factory.hpp:77] Creating layer inception_4c/relu_5x5
I0403 15:34:18.380185 12097 net.cpp:91] Creating Layer inception_4c/relu_5x5
I0403 15:34:18.380203 12097 net.cpp:425] inception_4c/relu_5x5 <- inception_4c/5x5
I0403 15:34:18.380223 12097 net.cpp:386] inception_4c/relu_5x5 -> inception_4c/5x5 (in-place)
I0403 15:34:18.380540 12097 net.cpp:141] Setting up inception_4c/relu_5x5
I0403 15:34:18.380566 12097 net.cpp:148] Top shape: 24 64 14 14 (301056)
I0403 15:34:18.380583 12097 net.cpp:156] Memory required for data: 1050971424
I0403 15:34:18.380597 12097 layer_factory.hpp:77] Creating layer inception_4c/pool
I0403 15:34:18.380619 12097 net.cpp:91] Creating Layer inception_4c/pool
I0403 15:34:18.380635 12097 net.cpp:425] inception_4c/pool <- inception_4b/output_inception_4b/output_0_split_3
I0403 15:34:18.380656 12097 net.cpp:399] inception_4c/pool -> inception_4c/pool
I0403 15:34:18.380724 12097 net.cpp:141] Setting up inception_4c/pool
I0403 15:34:18.380748 12097 net.cpp:148] Top shape: 24 512 14 14 (2408448)
I0403 15:34:18.380762 12097 net.cpp:156] Memory required for data: 1060605216
I0403 15:34:18.380777 12097 layer_factory.hpp:77] Creating layer inception_4c/pool_proj
I0403 15:34:18.380800 12097 net.cpp:91] Creating Layer inception_4c/pool_proj
I0403 15:34:18.380818 12097 net.cpp:425] inception_4c/pool_proj <- inception_4c/pool
I0403 15:34:18.380838 12097 net.cpp:399] inception_4c/pool_proj -> inception_4c/pool_proj
I0403 15:34:18.382086 12097 net.cpp:141] Setting up inception_4c/pool_proj
I0403 15:34:18.382114 12097 net.cpp:148] Top shape: 24 64 14 14 (301056)
I0403 15:34:18.382144 12097 net.cpp:156] Memory required for data: 1061809440
I0403 15:34:18.382164 12097 layer_factory.hpp:77] Creating layer inception_4c/relu_pool_proj
I0403 15:34:18.382186 12097 net.cpp:91] Creating Layer inception_4c/relu_pool_proj
I0403 15:34:18.382205 12097 net.cpp:425] inception_4c/relu_pool_proj <- inception_4c/pool_proj
I0403 15:34:18.382222 12097 net.cpp:386] inception_4c/relu_pool_proj -> inception_4c/pool_proj (in-place)
I0403 15:34:18.382421 12097 net.cpp:141] Setting up inception_4c/relu_pool_proj
I0403 15:34:18.382447 12097 net.cpp:148] Top shape: 24 64 14 14 (301056)
I0403 15:34:18.382463 12097 net.cpp:156] Memory required for data: 1063013664
I0403 15:34:18.382478 12097 layer_factory.hpp:77] Creating layer inception_4c/output
I0403 15:34:18.382498 12097 net.cpp:91] Creating Layer inception_4c/output
I0403 15:34:18.382513 12097 net.cpp:425] inception_4c/output <- inception_4c/1x1
I0403 15:34:18.382531 12097 net.cpp:425] inception_4c/output <- inception_4c/3x3
I0403 15:34:18.382547 12097 net.cpp:425] inception_4c/output <- inception_4c/5x5
I0403 15:34:18.382562 12097 net.cpp:425] inception_4c/output <- inception_4c/pool_proj
I0403 15:34:18.382580 12097 net.cpp:399] inception_4c/output -> inception_4c/output
I0403 15:34:18.382629 12097 net.cpp:141] Setting up inception_4c/output
I0403 15:34:18.382652 12097 net.cpp:148] Top shape: 24 512 14 14 (2408448)
I0403 15:34:18.382668 12097 net.cpp:156] Memory required for data: 1072647456
I0403 15:34:18.382681 12097 layer_factory.hpp:77] Creating layer inception_4c/output_inception_4c/output_0_split
I0403 15:34:18.382699 12097 net.cpp:91] Creating Layer inception_4c/output_inception_4c/output_0_split
I0403 15:34:18.382715 12097 net.cpp:425] inception_4c/output_inception_4c/output_0_split <- inception_4c/output
I0403 15:34:18.382736 12097 net.cpp:399] inception_4c/output_inception_4c/output_0_split -> inception_4c/output_inception_4c/output_0_split_0
I0403 15:34:18.382756 12097 net.cpp:399] inception_4c/output_inception_4c/output_0_split -> inception_4c/output_inception_4c/output_0_split_1
I0403 15:34:18.382776 12097 net.cpp:399] inception_4c/output_inception_4c/output_0_split -> inception_4c/output_inception_4c/output_0_split_2
I0403 15:34:18.382797 12097 net.cpp:399] inception_4c/output_inception_4c/output_0_split -> inception_4c/output_inception_4c/output_0_split_3
I0403 15:34:18.382889 12097 net.cpp:141] Setting up inception_4c/output_inception_4c/output_0_split
I0403 15:34:18.382912 12097 net.cpp:148] Top shape: 24 512 14 14 (2408448)
I0403 15:34:18.382930 12097 net.cpp:148] Top shape: 24 512 14 14 (2408448)
I0403 15:34:18.382946 12097 net.cpp:148] Top shape: 24 512 14 14 (2408448)
I0403 15:34:18.382961 12097 net.cpp:148] Top shape: 24 512 14 14 (2408448)
I0403 15:34:18.382974 12097 net.cpp:156] Memory required for data: 1111182624
I0403 15:34:18.382988 12097 layer_factory.hpp:77] Creating layer inception_4d/1x1
I0403 15:34:18.383010 12097 net.cpp:91] Creating Layer inception_4d/1x1
I0403 15:34:18.383028 12097 net.cpp:425] inception_4d/1x1 <- inception_4c/output_inception_4c/output_0_split_0
I0403 15:34:18.383050 12097 net.cpp:399] inception_4d/1x1 -> inception_4d/1x1
I0403 15:34:18.384471 12097 net.cpp:141] Setting up inception_4d/1x1
I0403 15:34:18.384502 12097 net.cpp:148] Top shape: 24 112 14 14 (526848)
I0403 15:34:18.384519 12097 net.cpp:156] Memory required for data: 1113290016
I0403 15:34:18.384537 12097 layer_factory.hpp:77] Creating layer inception_4d/relu_1x1
I0403 15:34:18.384555 12097 net.cpp:91] Creating Layer inception_4d/relu_1x1
I0403 15:34:18.384572 12097 net.cpp:425] inception_4d/relu_1x1 <- inception_4d/1x1
I0403 15:34:18.384591 12097 net.cpp:386] inception_4d/relu_1x1 -> inception_4d/1x1 (in-place)
I0403 15:34:18.384783 12097 net.cpp:141] Setting up inception_4d/relu_1x1
I0403 15:34:18.384807 12097 net.cpp:148] Top shape: 24 112 14 14 (526848)
I0403 15:34:18.384822 12097 net.cpp:156] Memory required for data: 1115397408
I0403 15:34:18.384837 12097 layer_factory.hpp:77] Creating layer inception_4d/3x3_reduce
I0403 15:34:18.384874 12097 net.cpp:91] Creating Layer inception_4d/3x3_reduce
I0403 15:34:18.384892 12097 net.cpp:425] inception_4d/3x3_reduce <- inception_4c/output_inception_4c/output_0_split_1
I0403 15:34:18.384915 12097 net.cpp:399] inception_4d/3x3_reduce -> inception_4d/3x3_reduce
I0403 15:34:18.386452 12097 net.cpp:141] Setting up inception_4d/3x3_reduce
I0403 15:34:18.386482 12097 net.cpp:148] Top shape: 24 144 14 14 (677376)
I0403 15:34:18.386498 12097 net.cpp:156] Memory required for data: 1118106912
I0403 15:34:18.386517 12097 layer_factory.hpp:77] Creating layer inception_4d/relu_3x3_reduce
I0403 15:34:18.386534 12097 net.cpp:91] Creating Layer inception_4d/relu_3x3_reduce
I0403 15:34:18.386550 12097 net.cpp:425] inception_4d/relu_3x3_reduce <- inception_4d/3x3_reduce
I0403 15:34:18.386567 12097 net.cpp:386] inception_4d/relu_3x3_reduce -> inception_4d/3x3_reduce (in-place)
I0403 15:34:18.386857 12097 net.cpp:141] Setting up inception_4d/relu_3x3_reduce
I0403 15:34:18.386884 12097 net.cpp:148] Top shape: 24 144 14 14 (677376)
I0403 15:34:18.386900 12097 net.cpp:156] Memory required for data: 1120816416
I0403 15:34:18.386915 12097 layer_factory.hpp:77] Creating layer inception_4d/3x3
I0403 15:34:18.386937 12097 net.cpp:91] Creating Layer inception_4d/3x3
I0403 15:34:18.386955 12097 net.cpp:425] inception_4d/3x3 <- inception_4d/3x3_reduce
I0403 15:34:18.386972 12097 net.cpp:399] inception_4d/3x3 -> inception_4d/3x3
I0403 15:34:18.391311 12097 net.cpp:141] Setting up inception_4d/3x3
I0403 15:34:18.391341 12097 net.cpp:148] Top shape: 24 288 14 14 (1354752)
I0403 15:34:18.391357 12097 net.cpp:156] Memory required for data: 1126235424
I0403 15:34:18.391376 12097 layer_factory.hpp:77] Creating layer inception_4d/relu_3x3
I0403 15:34:18.391399 12097 net.cpp:91] Creating Layer inception_4d/relu_3x3
I0403 15:34:18.391417 12097 net.cpp:425] inception_4d/relu_3x3 <- inception_4d/3x3
I0403 15:34:18.391436 12097 net.cpp:386] inception_4d/relu_3x3 -> inception_4d/3x3 (in-place)
I0403 15:34:18.391626 12097 net.cpp:141] Setting up inception_4d/relu_3x3
I0403 15:34:18.391651 12097 net.cpp:148] Top shape: 24 288 14 14 (1354752)
I0403 15:34:18.391667 12097 net.cpp:156] Memory required for data: 1131654432
I0403 15:34:18.391681 12097 layer_factory.hpp:77] Creating layer inception_4d/5x5_reduce
I0403 15:34:18.391705 12097 net.cpp:91] Creating Layer inception_4d/5x5_reduce
I0403 15:34:18.391722 12097 net.cpp:425] inception_4d/5x5_reduce <- inception_4c/output_inception_4c/output_0_split_2
I0403 15:34:18.391744 12097 net.cpp:399] inception_4d/5x5_reduce -> inception_4d/5x5_reduce
I0403 15:34:18.392947 12097 net.cpp:141] Setting up inception_4d/5x5_reduce
I0403 15:34:18.392976 12097 net.cpp:148] Top shape: 24 32 14 14 (150528)
I0403 15:34:18.392992 12097 net.cpp:156] Memory required for data: 1132256544
I0403 15:34:18.393009 12097 layer_factory.hpp:77] Creating layer inception_4d/relu_5x5_reduce
I0403 15:34:18.393028 12097 net.cpp:91] Creating Layer inception_4d/relu_5x5_reduce
I0403 15:34:18.393043 12097 net.cpp:425] inception_4d/relu_5x5_reduce <- inception_4d/5x5_reduce
I0403 15:34:18.393064 12097 net.cpp:386] inception_4d/relu_5x5_reduce -> inception_4d/5x5_reduce (in-place)
I0403 15:34:18.393259 12097 net.cpp:141] Setting up inception_4d/relu_5x5_reduce
I0403 15:34:18.393283 12097 net.cpp:148] Top shape: 24 32 14 14 (150528)
I0403 15:34:18.393298 12097 net.cpp:156] Memory required for data: 1132858656
I0403 15:34:18.393313 12097 layer_factory.hpp:77] Creating layer inception_4d/5x5
I0403 15:34:18.393338 12097 net.cpp:91] Creating Layer inception_4d/5x5
I0403 15:34:18.393357 12097 net.cpp:425] inception_4d/5x5 <- inception_4d/5x5_reduce
I0403 15:34:18.393383 12097 net.cpp:399] inception_4d/5x5 -> inception_4d/5x5
I0403 15:34:18.394896 12097 net.cpp:141] Setting up inception_4d/5x5
I0403 15:34:18.394925 12097 net.cpp:148] Top shape: 24 64 14 14 (301056)
I0403 15:34:18.394940 12097 net.cpp:156] Memory required for data: 1134062880
I0403 15:34:18.394959 12097 layer_factory.hpp:77] Creating layer inception_4d/relu_5x5
I0403 15:34:18.394995 12097 net.cpp:91] Creating Layer inception_4d/relu_5x5
I0403 15:34:18.395015 12097 net.cpp:425] inception_4d/relu_5x5 <- inception_4d/5x5
I0403 15:34:18.395032 12097 net.cpp:386] inception_4d/relu_5x5 -> inception_4d/5x5 (in-place)
I0403 15:34:18.395339 12097 net.cpp:141] Setting up inception_4d/relu_5x5
I0403 15:34:18.395366 12097 net.cpp:148] Top shape: 24 64 14 14 (301056)
I0403 15:34:18.395386 12097 net.cpp:156] Memory required for data: 1135267104
I0403 15:34:18.395403 12097 layer_factory.hpp:77] Creating layer inception_4d/pool
I0403 15:34:18.395424 12097 net.cpp:91] Creating Layer inception_4d/pool
I0403 15:34:18.395442 12097 net.cpp:425] inception_4d/pool <- inception_4c/output_inception_4c/output_0_split_3
I0403 15:34:18.395460 12097 net.cpp:399] inception_4d/pool -> inception_4d/pool
I0403 15:34:18.395530 12097 net.cpp:141] Setting up inception_4d/pool
I0403 15:34:18.395555 12097 net.cpp:148] Top shape: 24 512 14 14 (2408448)
I0403 15:34:18.395570 12097 net.cpp:156] Memory required for data: 1144900896
I0403 15:34:18.395584 12097 layer_factory.hpp:77] Creating layer inception_4d/pool_proj
I0403 15:34:18.395606 12097 net.cpp:91] Creating Layer inception_4d/pool_proj
I0403 15:34:18.395623 12097 net.cpp:425] inception_4d/pool_proj <- inception_4d/pool
I0403 15:34:18.395644 12097 net.cpp:399] inception_4d/pool_proj -> inception_4d/pool_proj
I0403 15:34:18.397462 12097 net.cpp:141] Setting up inception_4d/pool_proj
I0403 15:34:18.397491 12097 net.cpp:148] Top shape: 24 64 14 14 (301056)
I0403 15:34:18.397507 12097 net.cpp:156] Memory required for data: 1146105120
I0403 15:34:18.397526 12097 layer_factory.hpp:77] Creating layer inception_4d/relu_pool_proj
I0403 15:34:18.397544 12097 net.cpp:91] Creating Layer inception_4d/relu_pool_proj
I0403 15:34:18.397560 12097 net.cpp:425] inception_4d/relu_pool_proj <- inception_4d/pool_proj
I0403 15:34:18.397580 12097 net.cpp:386] inception_4d/relu_pool_proj -> inception_4d/pool_proj (in-place)
I0403 15:34:18.397773 12097 net.cpp:141] Setting up inception_4d/relu_pool_proj
I0403 15:34:18.397799 12097 net.cpp:148] Top shape: 24 64 14 14 (301056)
I0403 15:34:18.397814 12097 net.cpp:156] Memory required for data: 1147309344
I0403 15:34:18.397830 12097 layer_factory.hpp:77] Creating layer inception_4d/output
I0403 15:34:18.397850 12097 net.cpp:91] Creating Layer inception_4d/output
I0403 15:34:18.397866 12097 net.cpp:425] inception_4d/output <- inception_4d/1x1
I0403 15:34:18.397883 12097 net.cpp:425] inception_4d/output <- inception_4d/3x3
I0403 15:34:18.397899 12097 net.cpp:425] inception_4d/output <- inception_4d/5x5
I0403 15:34:18.397917 12097 net.cpp:425] inception_4d/output <- inception_4d/pool_proj
I0403 15:34:18.397933 12097 net.cpp:399] inception_4d/output -> inception_4d/output
I0403 15:34:18.397984 12097 net.cpp:141] Setting up inception_4d/output
I0403 15:34:18.398007 12097 net.cpp:148] Top shape: 24 528 14 14 (2483712)
I0403 15:34:18.398022 12097 net.cpp:156] Memory required for data: 1157244192
I0403 15:34:18.398037 12097 layer_factory.hpp:77] Creating layer inception_4d/output_inception_4d/output_0_split
I0403 15:34:18.398056 12097 net.cpp:91] Creating Layer inception_4d/output_inception_4d/output_0_split
I0403 15:34:18.398071 12097 net.cpp:425] inception_4d/output_inception_4d/output_0_split <- inception_4d/output
I0403 15:34:18.398092 12097 net.cpp:399] inception_4d/output_inception_4d/output_0_split -> inception_4d/output_inception_4d/output_0_split_0
I0403 15:34:18.398113 12097 net.cpp:399] inception_4d/output_inception_4d/output_0_split -> inception_4d/output_inception_4d/output_0_split_1
I0403 15:34:18.398133 12097 net.cpp:399] inception_4d/output_inception_4d/output_0_split -> inception_4d/output_inception_4d/output_0_split_2
I0403 15:34:18.398155 12097 net.cpp:399] inception_4d/output_inception_4d/output_0_split -> inception_4d/output_inception_4d/output_0_split_3
I0403 15:34:18.398175 12097 net.cpp:399] inception_4d/output_inception_4d/output_0_split -> inception_4d/output_inception_4d/output_0_split_4
I0403 15:34:18.398279 12097 net.cpp:141] Setting up inception_4d/output_inception_4d/output_0_split
I0403 15:34:18.398316 12097 net.cpp:148] Top shape: 24 528 14 14 (2483712)
I0403 15:34:18.398339 12097 net.cpp:148] Top shape: 24 528 14 14 (2483712)
I0403 15:34:18.398356 12097 net.cpp:148] Top shape: 24 528 14 14 (2483712)
I0403 15:34:18.398372 12097 net.cpp:148] Top shape: 24 528 14 14 (2483712)
I0403 15:34:18.398393 12097 net.cpp:148] Top shape: 24 528 14 14 (2483712)
I0403 15:34:18.398408 12097 net.cpp:156] Memory required for data: 1206918432
I0403 15:34:18.398422 12097 layer_factory.hpp:77] Creating layer loss2/ave_pool
I0403 15:34:18.398440 12097 net.cpp:91] Creating Layer loss2/ave_pool
I0403 15:34:18.398458 12097 net.cpp:425] loss2/ave_pool <- inception_4d/output_inception_4d/output_0_split_0
I0403 15:34:18.398478 12097 net.cpp:399] loss2/ave_pool -> loss2/ave_pool
I0403 15:34:18.398803 12097 net.cpp:141] Setting up loss2/ave_pool
I0403 15:34:18.398830 12097 net.cpp:148] Top shape: 24 528 4 4 (202752)
I0403 15:34:18.398845 12097 net.cpp:156] Memory required for data: 1207729440
I0403 15:34:18.398860 12097 layer_factory.hpp:77] Creating layer loss2/conv
I0403 15:34:18.398885 12097 net.cpp:91] Creating Layer loss2/conv
I0403 15:34:18.398902 12097 net.cpp:425] loss2/conv <- loss2/ave_pool
I0403 15:34:18.398923 12097 net.cpp:399] loss2/conv -> loss2/conv
I0403 15:34:18.400862 12097 net.cpp:141] Setting up loss2/conv
I0403 15:34:18.400892 12097 net.cpp:148] Top shape: 24 128 4 4 (49152)
I0403 15:34:18.400907 12097 net.cpp:156] Memory required for data: 1207926048
I0403 15:34:18.400925 12097 layer_factory.hpp:77] Creating layer loss2/relu_conv
I0403 15:34:18.400946 12097 net.cpp:91] Creating Layer loss2/relu_conv
I0403 15:34:18.400964 12097 net.cpp:425] loss2/relu_conv <- loss2/conv
I0403 15:34:18.400982 12097 net.cpp:386] loss2/relu_conv -> loss2/conv (in-place)
I0403 15:34:18.401275 12097 net.cpp:141] Setting up loss2/relu_conv
I0403 15:34:18.401303 12097 net.cpp:148] Top shape: 24 128 4 4 (49152)
I0403 15:34:18.401317 12097 net.cpp:156] Memory required for data: 1208122656
I0403 15:34:18.401332 12097 layer_factory.hpp:77] Creating layer loss2/fc
I0403 15:34:18.401355 12097 net.cpp:91] Creating Layer loss2/fc
I0403 15:34:18.401372 12097 net.cpp:425] loss2/fc <- loss2/conv
I0403 15:34:18.401399 12097 net.cpp:399] loss2/fc -> loss2/fc
I0403 15:34:18.419929 12097 net.cpp:141] Setting up loss2/fc
I0403 15:34:18.419963 12097 net.cpp:148] Top shape: 24 1024 (24576)
I0403 15:34:18.419981 12097 net.cpp:156] Memory required for data: 1208220960
I0403 15:34:18.420001 12097 layer_factory.hpp:77] Creating layer loss2/relu_fc
I0403 15:34:18.420019 12097 net.cpp:91] Creating Layer loss2/relu_fc
I0403 15:34:18.420037 12097 net.cpp:425] loss2/relu_fc <- loss2/fc
I0403 15:34:18.420058 12097 net.cpp:386] loss2/relu_fc -> loss2/fc (in-place)
I0403 15:34:18.420419 12097 net.cpp:141] Setting up loss2/relu_fc
I0403 15:34:18.420447 12097 net.cpp:148] Top shape: 24 1024 (24576)
I0403 15:34:18.420464 12097 net.cpp:156] Memory required for data: 1208319264
I0403 15:34:18.420478 12097 layer_factory.hpp:77] Creating layer loss2/drop_fc
I0403 15:34:18.420497 12097 net.cpp:91] Creating Layer loss2/drop_fc
I0403 15:34:18.420514 12097 net.cpp:425] loss2/drop_fc <- loss2/fc
I0403 15:34:18.420534 12097 net.cpp:386] loss2/drop_fc -> loss2/fc (in-place)
I0403 15:34:18.420588 12097 net.cpp:141] Setting up loss2/drop_fc
I0403 15:34:18.420614 12097 net.cpp:148] Top shape: 24 1024 (24576)
I0403 15:34:18.420642 12097 net.cpp:156] Memory required for data: 1208417568
I0403 15:34:18.420658 12097 layer_factory.hpp:77] Creating layer loss2/classifier_plantvillage
I0403 15:34:18.420676 12097 net.cpp:91] Creating Layer loss2/classifier_plantvillage
I0403 15:34:18.420692 12097 net.cpp:425] loss2/classifier_plantvillage <- loss2/fc
I0403 15:34:18.420719 12097 net.cpp:399] loss2/classifier_plantvillage -> loss2/classifier_plantvillage
I0403 15:34:18.421140 12097 net.cpp:141] Setting up loss2/classifier_plantvillage
I0403 15:34:18.421167 12097 net.cpp:148] Top shape: 24 38 (912)
I0403 15:34:18.421205 12097 net.cpp:156] Memory required for data: 1208421216
I0403 15:34:18.421224 12097 layer_factory.hpp:77] Creating layer loss2/classifier_plantvillage_loss2/classifier_plantvillage_0_split
I0403 15:34:18.421242 12097 net.cpp:91] Creating Layer loss2/classifier_plantvillage_loss2/classifier_plantvillage_0_split
I0403 15:34:18.421258 12097 net.cpp:425] loss2/classifier_plantvillage_loss2/classifier_plantvillage_0_split <- loss2/classifier_plantvillage
I0403 15:34:18.421275 12097 net.cpp:399] loss2/classifier_plantvillage_loss2/classifier_plantvillage_0_split -> loss2/classifier_plantvillage_loss2/classifier_plantvillage_0_split_0
I0403 15:34:18.421295 12097 net.cpp:399] loss2/classifier_plantvillage_loss2/classifier_plantvillage_0_split -> loss2/classifier_plantvillage_loss2/classifier_plantvillage_0_split_1
I0403 15:34:18.421319 12097 net.cpp:399] loss2/classifier_plantvillage_loss2/classifier_plantvillage_0_split -> loss2/classifier_plantvillage_loss2/classifier_plantvillage_0_split_2
I0403 15:34:18.421403 12097 net.cpp:141] Setting up loss2/classifier_plantvillage_loss2/classifier_plantvillage_0_split
I0403 15:34:18.421427 12097 net.cpp:148] Top shape: 24 38 (912)
I0403 15:34:18.421444 12097 net.cpp:148] Top shape: 24 38 (912)
I0403 15:34:18.421459 12097 net.cpp:148] Top shape: 24 38 (912)
I0403 15:34:18.421473 12097 net.cpp:156] Memory required for data: 1208432160
I0403 15:34:18.421488 12097 layer_factory.hpp:77] Creating layer inception_4e/1x1
I0403 15:34:18.421509 12097 net.cpp:91] Creating Layer inception_4e/1x1
I0403 15:34:18.421525 12097 net.cpp:425] inception_4e/1x1 <- inception_4d/output_inception_4d/output_0_split_1
I0403 15:34:18.421547 12097 net.cpp:399] inception_4e/1x1 -> inception_4e/1x1
I0403 15:34:18.423490 12097 net.cpp:141] Setting up inception_4e/1x1
I0403 15:34:18.423518 12097 net.cpp:148] Top shape: 24 256 14 14 (1204224)
I0403 15:34:18.423537 12097 net.cpp:156] Memory required for data: 1213249056
I0403 15:34:18.423557 12097 layer_factory.hpp:77] Creating layer inception_4e/relu_1x1
I0403 15:34:18.423579 12097 net.cpp:91] Creating Layer inception_4e/relu_1x1
I0403 15:34:18.423599 12097 net.cpp:425] inception_4e/relu_1x1 <- inception_4e/1x1
I0403 15:34:18.423616 12097 net.cpp:386] inception_4e/relu_1x1 -> inception_4e/1x1 (in-place)
I0403 15:34:18.423920 12097 net.cpp:141] Setting up inception_4e/relu_1x1
I0403 15:34:18.423949 12097 net.cpp:148] Top shape: 24 256 14 14 (1204224)
I0403 15:34:18.423964 12097 net.cpp:156] Memory required for data: 1218065952
I0403 15:34:18.423980 12097 layer_factory.hpp:77] Creating layer inception_4e/3x3_reduce
I0403 15:34:18.424006 12097 net.cpp:91] Creating Layer inception_4e/3x3_reduce
I0403 15:34:18.424024 12097 net.cpp:425] inception_4e/3x3_reduce <- inception_4d/output_inception_4d/output_0_split_2
I0403 15:34:18.424043 12097 net.cpp:399] inception_4e/3x3_reduce -> inception_4e/3x3_reduce
I0403 15:34:18.426239 12097 net.cpp:141] Setting up inception_4e/3x3_reduce
I0403 15:34:18.426270 12097 net.cpp:148] Top shape: 24 160 14 14 (752640)
I0403 15:34:18.426286 12097 net.cpp:156] Memory required for data: 1221076512
I0403 15:34:18.426304 12097 layer_factory.hpp:77] Creating layer inception_4e/relu_3x3_reduce
I0403 15:34:18.426327 12097 net.cpp:91] Creating Layer inception_4e/relu_3x3_reduce
I0403 15:34:18.426345 12097 net.cpp:425] inception_4e/relu_3x3_reduce <- inception_4e/3x3_reduce
I0403 15:34:18.426363 12097 net.cpp:386] inception_4e/relu_3x3_reduce -> inception_4e/3x3_reduce (in-place)
I0403 15:34:18.426563 12097 net.cpp:141] Setting up inception_4e/relu_3x3_reduce
I0403 15:34:18.426591 12097 net.cpp:148] Top shape: 24 160 14 14 (752640)
I0403 15:34:18.426607 12097 net.cpp:156] Memory required for data: 1224087072
I0403 15:34:18.426622 12097 layer_factory.hpp:77] Creating layer inception_4e/3x3
I0403 15:34:18.426646 12097 net.cpp:91] Creating Layer inception_4e/3x3
I0403 15:34:18.426664 12097 net.cpp:425] inception_4e/3x3 <- inception_4e/3x3_reduce
I0403 15:34:18.426683 12097 net.cpp:399] inception_4e/3x3 -> inception_4e/3x3
I0403 15:34:18.431861 12097 net.cpp:141] Setting up inception_4e/3x3
I0403 15:34:18.431907 12097 net.cpp:148] Top shape: 24 320 14 14 (1505280)
I0403 15:34:18.431926 12097 net.cpp:156] Memory required for data: 1230108192
I0403 15:34:18.431946 12097 layer_factory.hpp:77] Creating layer inception_4e/relu_3x3
I0403 15:34:18.431964 12097 net.cpp:91] Creating Layer inception_4e/relu_3x3
I0403 15:34:18.431980 12097 net.cpp:425] inception_4e/relu_3x3 <- inception_4e/3x3
I0403 15:34:18.432001 12097 net.cpp:386] inception_4e/relu_3x3 -> inception_4e/3x3 (in-place)
I0403 15:34:18.432312 12097 net.cpp:141] Setting up inception_4e/relu_3x3
I0403 15:34:18.432342 12097 net.cpp:148] Top shape: 24 320 14 14 (1505280)
I0403 15:34:18.432358 12097 net.cpp:156] Memory required for data: 1236129312
I0403 15:34:18.432374 12097 layer_factory.hpp:77] Creating layer inception_4e/5x5_reduce
I0403 15:34:18.432412 12097 net.cpp:91] Creating Layer inception_4e/5x5_reduce
I0403 15:34:18.432431 12097 net.cpp:425] inception_4e/5x5_reduce <- inception_4d/output_inception_4d/output_0_split_3
I0403 15:34:18.432454 12097 net.cpp:399] inception_4e/5x5_reduce -> inception_4e/5x5_reduce
I0403 15:34:18.433563 12097 net.cpp:141] Setting up inception_4e/5x5_reduce
I0403 15:34:18.433593 12097 net.cpp:148] Top shape: 24 32 14 14 (150528)
I0403 15:34:18.433609 12097 net.cpp:156] Memory required for data: 1236731424
I0403 15:34:18.433627 12097 layer_factory.hpp:77] Creating layer inception_4e/relu_5x5_reduce
I0403 15:34:18.433650 12097 net.cpp:91] Creating Layer inception_4e/relu_5x5_reduce
I0403 15:34:18.433667 12097 net.cpp:425] inception_4e/relu_5x5_reduce <- inception_4e/5x5_reduce
I0403 15:34:18.433687 12097 net.cpp:386] inception_4e/relu_5x5_reduce -> inception_4e/5x5_reduce (in-place)
I0403 15:34:18.434005 12097 net.cpp:141] Setting up inception_4e/relu_5x5_reduce
I0403 15:34:18.434032 12097 net.cpp:148] Top shape: 24 32 14 14 (150528)
I0403 15:34:18.434048 12097 net.cpp:156] Memory required for data: 1237333536
I0403 15:34:18.434063 12097 layer_factory.hpp:77] Creating layer inception_4e/5x5
I0403 15:34:18.434103 12097 net.cpp:91] Creating Layer inception_4e/5x5
I0403 15:34:18.434123 12097 net.cpp:425] inception_4e/5x5 <- inception_4e/5x5_reduce
I0403 15:34:18.434146 12097 net.cpp:399] inception_4e/5x5 -> inception_4e/5x5
I0403 15:34:18.436079 12097 net.cpp:141] Setting up inception_4e/5x5
I0403 15:34:18.436108 12097 net.cpp:148] Top shape: 24 128 14 14 (602112)
I0403 15:34:18.436125 12097 net.cpp:156] Memory required for data: 1239741984
I0403 15:34:18.436143 12097 layer_factory.hpp:77] Creating layer inception_4e/relu_5x5
I0403 15:34:18.436162 12097 net.cpp:91] Creating Layer inception_4e/relu_5x5
I0403 15:34:18.436179 12097 net.cpp:425] inception_4e/relu_5x5 <- inception_4e/5x5
I0403 15:34:18.436199 12097 net.cpp:386] inception_4e/relu_5x5 -> inception_4e/5x5 (in-place)
I0403 15:34:18.436426 12097 net.cpp:141] Setting up inception_4e/relu_5x5
I0403 15:34:18.436453 12097 net.cpp:148] Top shape: 24 128 14 14 (602112)
I0403 15:34:18.436468 12097 net.cpp:156] Memory required for data: 1242150432
I0403 15:34:18.436485 12097 layer_factory.hpp:77] Creating layer inception_4e/pool
I0403 15:34:18.436506 12097 net.cpp:91] Creating Layer inception_4e/pool
I0403 15:34:18.436524 12097 net.cpp:425] inception_4e/pool <- inception_4d/output_inception_4d/output_0_split_4
I0403 15:34:18.436543 12097 net.cpp:399] inception_4e/pool -> inception_4e/pool
I0403 15:34:18.436631 12097 net.cpp:141] Setting up inception_4e/pool
I0403 15:34:18.436655 12097 net.cpp:148] Top shape: 24 528 14 14 (2483712)
I0403 15:34:18.436671 12097 net.cpp:156] Memory required for data: 1252085280
I0403 15:34:18.436686 12097 layer_factory.hpp:77] Creating layer inception_4e/pool_proj
I0403 15:34:18.436708 12097 net.cpp:91] Creating Layer inception_4e/pool_proj
I0403 15:34:18.436725 12097 net.cpp:425] inception_4e/pool_proj <- inception_4e/pool
I0403 15:34:18.436748 12097 net.cpp:399] inception_4e/pool_proj -> inception_4e/pool_proj
I0403 15:34:18.438336 12097 net.cpp:141] Setting up inception_4e/pool_proj
I0403 15:34:18.438377 12097 net.cpp:148] Top shape: 24 128 14 14 (602112)
I0403 15:34:18.438400 12097 net.cpp:156] Memory required for data: 1254493728
I0403 15:34:18.438419 12097 layer_factory.hpp:77] Creating layer inception_4e/relu_pool_proj
I0403 15:34:18.438437 12097 net.cpp:91] Creating Layer inception_4e/relu_pool_proj
I0403 15:34:18.438454 12097 net.cpp:425] inception_4e/relu_pool_proj <- inception_4e/pool_proj
I0403 15:34:18.438475 12097 net.cpp:386] inception_4e/relu_pool_proj -> inception_4e/pool_proj (in-place)
I0403 15:34:18.438781 12097 net.cpp:141] Setting up inception_4e/relu_pool_proj
I0403 15:34:18.438807 12097 net.cpp:148] Top shape: 24 128 14 14 (602112)
I0403 15:34:18.438823 12097 net.cpp:156] Memory required for data: 1256902176
I0403 15:34:18.438838 12097 layer_factory.hpp:77] Creating layer inception_4e/output
I0403 15:34:18.438855 12097 net.cpp:91] Creating Layer inception_4e/output
I0403 15:34:18.438873 12097 net.cpp:425] inception_4e/output <- inception_4e/1x1
I0403 15:34:18.438889 12097 net.cpp:425] inception_4e/output <- inception_4e/3x3
I0403 15:34:18.438905 12097 net.cpp:425] inception_4e/output <- inception_4e/5x5
I0403 15:34:18.438921 12097 net.cpp:425] inception_4e/output <- inception_4e/pool_proj
I0403 15:34:18.438941 12097 net.cpp:399] inception_4e/output -> inception_4e/output
I0403 15:34:18.438993 12097 net.cpp:141] Setting up inception_4e/output
I0403 15:34:18.439020 12097 net.cpp:148] Top shape: 24 832 14 14 (3913728)
I0403 15:34:18.439036 12097 net.cpp:156] Memory required for data: 1272557088
I0403 15:34:18.439050 12097 layer_factory.hpp:77] Creating layer pool4/3x3_s2
I0403 15:34:18.439067 12097 net.cpp:91] Creating Layer pool4/3x3_s2
I0403 15:34:18.439085 12097 net.cpp:425] pool4/3x3_s2 <- inception_4e/output
I0403 15:34:18.439103 12097 net.cpp:399] pool4/3x3_s2 -> pool4/3x3_s2
I0403 15:34:18.439174 12097 net.cpp:141] Setting up pool4/3x3_s2
I0403 15:34:18.439198 12097 net.cpp:148] Top shape: 24 832 7 7 (978432)
I0403 15:34:18.439213 12097 net.cpp:156] Memory required for data: 1276470816
I0403 15:34:18.439229 12097 layer_factory.hpp:77] Creating layer pool4/3x3_s2_pool4/3x3_s2_0_split
I0403 15:34:18.439249 12097 net.cpp:91] Creating Layer pool4/3x3_s2_pool4/3x3_s2_0_split
I0403 15:34:18.439266 12097 net.cpp:425] pool4/3x3_s2_pool4/3x3_s2_0_split <- pool4/3x3_s2
I0403 15:34:18.439285 12097 net.cpp:399] pool4/3x3_s2_pool4/3x3_s2_0_split -> pool4/3x3_s2_pool4/3x3_s2_0_split_0
I0403 15:34:18.439304 12097 net.cpp:399] pool4/3x3_s2_pool4/3x3_s2_0_split -> pool4/3x3_s2_pool4/3x3_s2_0_split_1
I0403 15:34:18.439326 12097 net.cpp:399] pool4/3x3_s2_pool4/3x3_s2_0_split -> pool4/3x3_s2_pool4/3x3_s2_0_split_2
I0403 15:34:18.439348 12097 net.cpp:399] pool4/3x3_s2_pool4/3x3_s2_0_split -> pool4/3x3_s2_pool4/3x3_s2_0_split_3
I0403 15:34:18.439447 12097 net.cpp:141] Setting up pool4/3x3_s2_pool4/3x3_s2_0_split
I0403 15:34:18.439472 12097 net.cpp:148] Top shape: 24 832 7 7 (978432)
I0403 15:34:18.439489 12097 net.cpp:148] Top shape: 24 832 7 7 (978432)
I0403 15:34:18.439505 12097 net.cpp:148] Top shape: 24 832 7 7 (978432)
I0403 15:34:18.439522 12097 net.cpp:148] Top shape: 24 832 7 7 (978432)
I0403 15:34:18.439535 12097 net.cpp:156] Memory required for data: 1292125728
I0403 15:34:18.439549 12097 layer_factory.hpp:77] Creating layer inception_5a/1x1
I0403 15:34:18.439573 12097 net.cpp:91] Creating Layer inception_5a/1x1
I0403 15:34:18.439590 12097 net.cpp:425] inception_5a/1x1 <- pool4/3x3_s2_pool4/3x3_s2_0_split_0
I0403 15:34:18.439611 12097 net.cpp:399] inception_5a/1x1 -> inception_5a/1x1
I0403 15:34:18.442564 12097 net.cpp:141] Setting up inception_5a/1x1
I0403 15:34:18.442594 12097 net.cpp:148] Top shape: 24 256 7 7 (301056)
I0403 15:34:18.442608 12097 net.cpp:156] Memory required for data: 1293329952
I0403 15:34:18.442627 12097 layer_factory.hpp:77] Creating layer inception_5a/relu_1x1
I0403 15:34:18.442648 12097 net.cpp:91] Creating Layer inception_5a/relu_1x1
I0403 15:34:18.442665 12097 net.cpp:425] inception_5a/relu_1x1 <- inception_5a/1x1
I0403 15:34:18.442683 12097 net.cpp:386] inception_5a/relu_1x1 -> inception_5a/1x1 (in-place)
I0403 15:34:18.443011 12097 net.cpp:141] Setting up inception_5a/relu_1x1
I0403 15:34:18.443037 12097 net.cpp:148] Top shape: 24 256 7 7 (301056)
I0403 15:34:18.443053 12097 net.cpp:156] Memory required for data: 1294534176
I0403 15:34:18.443068 12097 layer_factory.hpp:77] Creating layer inception_5a/3x3_reduce
I0403 15:34:18.443091 12097 net.cpp:91] Creating Layer inception_5a/3x3_reduce
I0403 15:34:18.443109 12097 net.cpp:425] inception_5a/3x3_reduce <- pool4/3x3_s2_pool4/3x3_s2_0_split_1
I0403 15:34:18.443130 12097 net.cpp:399] inception_5a/3x3_reduce -> inception_5a/3x3_reduce
I0403 15:34:18.445668 12097 net.cpp:141] Setting up inception_5a/3x3_reduce
I0403 15:34:18.445698 12097 net.cpp:148] Top shape: 24 160 7 7 (188160)
I0403 15:34:18.445714 12097 net.cpp:156] Memory required for data: 1295286816
I0403 15:34:18.445732 12097 layer_factory.hpp:77] Creating layer inception_5a/relu_3x3_reduce
I0403 15:34:18.445751 12097 net.cpp:91] Creating Layer inception_5a/relu_3x3_reduce
I0403 15:34:18.445767 12097 net.cpp:425] inception_5a/relu_3x3_reduce <- inception_5a/3x3_reduce
I0403 15:34:18.445788 12097 net.cpp:386] inception_5a/relu_3x3_reduce -> inception_5a/3x3_reduce (in-place)
I0403 15:34:18.445983 12097 net.cpp:141] Setting up inception_5a/relu_3x3_reduce
I0403 15:34:18.446009 12097 net.cpp:148] Top shape: 24 160 7 7 (188160)
I0403 15:34:18.446024 12097 net.cpp:156] Memory required for data: 1296039456
I0403 15:34:18.446038 12097 layer_factory.hpp:77] Creating layer inception_5a/3x3
I0403 15:34:18.446061 12097 net.cpp:91] Creating Layer inception_5a/3x3
I0403 15:34:18.446079 12097 net.cpp:425] inception_5a/3x3 <- inception_5a/3x3_reduce
I0403 15:34:18.446101 12097 net.cpp:399] inception_5a/3x3 -> inception_5a/3x3
I0403 15:34:18.451309 12097 net.cpp:141] Setting up inception_5a/3x3
I0403 15:34:18.451339 12097 net.cpp:148] Top shape: 24 320 7 7 (376320)
I0403 15:34:18.451354 12097 net.cpp:156] Memory required for data: 1297544736
I0403 15:34:18.451373 12097 layer_factory.hpp:77] Creating layer inception_5a/relu_3x3
I0403 15:34:18.451398 12097 net.cpp:91] Creating Layer inception_5a/relu_3x3
I0403 15:34:18.451416 12097 net.cpp:425] inception_5a/relu_3x3 <- inception_5a/3x3
I0403 15:34:18.451434 12097 net.cpp:386] inception_5a/relu_3x3 -> inception_5a/3x3 (in-place)
I0403 15:34:18.451737 12097 net.cpp:141] Setting up inception_5a/relu_3x3
I0403 15:34:18.451764 12097 net.cpp:148] Top shape: 24 320 7 7 (376320)
I0403 15:34:18.451781 12097 net.cpp:156] Memory required for data: 1299050016
I0403 15:34:18.451795 12097 layer_factory.hpp:77] Creating layer inception_5a/5x5_reduce
I0403 15:34:18.451818 12097 net.cpp:91] Creating Layer inception_5a/5x5_reduce
I0403 15:34:18.451836 12097 net.cpp:425] inception_5a/5x5_reduce <- pool4/3x3_s2_pool4/3x3_s2_0_split_2
I0403 15:34:18.451859 12097 net.cpp:399] inception_5a/5x5_reduce -> inception_5a/5x5_reduce
I0403 15:34:18.453094 12097 net.cpp:141] Setting up inception_5a/5x5_reduce
I0403 15:34:18.453126 12097 net.cpp:148] Top shape: 24 32 7 7 (37632)
I0403 15:34:18.453142 12097 net.cpp:156] Memory required for data: 1299200544
I0403 15:34:18.453161 12097 layer_factory.hpp:77] Creating layer inception_5a/relu_5x5_reduce
I0403 15:34:18.453181 12097 net.cpp:91] Creating Layer inception_5a/relu_5x5_reduce
I0403 15:34:18.453197 12097 net.cpp:425] inception_5a/relu_5x5_reduce <- inception_5a/5x5_reduce
I0403 15:34:18.453213 12097 net.cpp:386] inception_5a/relu_5x5_reduce -> inception_5a/5x5_reduce (in-place)
I0403 15:34:18.453531 12097 net.cpp:141] Setting up inception_5a/relu_5x5_reduce
I0403 15:34:18.453557 12097 net.cpp:148] Top shape: 24 32 7 7 (37632)
I0403 15:34:18.453572 12097 net.cpp:156] Memory required for data: 1299351072
I0403 15:34:18.453588 12097 layer_factory.hpp:77] Creating layer inception_5a/5x5
I0403 15:34:18.453611 12097 net.cpp:91] Creating Layer inception_5a/5x5
I0403 15:34:18.453629 12097 net.cpp:425] inception_5a/5x5 <- inception_5a/5x5_reduce
I0403 15:34:18.453651 12097 net.cpp:399] inception_5a/5x5 -> inception_5a/5x5
I0403 15:34:18.455423 12097 net.cpp:141] Setting up inception_5a/5x5
I0403 15:34:18.455463 12097 net.cpp:148] Top shape: 24 128 7 7 (150528)
I0403 15:34:18.455479 12097 net.cpp:156] Memory required for data: 1299953184
I0403 15:34:18.455497 12097 layer_factory.hpp:77] Creating layer inception_5a/relu_5x5
I0403 15:34:18.455518 12097 net.cpp:91] Creating Layer inception_5a/relu_5x5
I0403 15:34:18.455534 12097 net.cpp:425] inception_5a/relu_5x5 <- inception_5a/5x5
I0403 15:34:18.455551 12097 net.cpp:386] inception_5a/relu_5x5 -> inception_5a/5x5 (in-place)
I0403 15:34:18.455752 12097 net.cpp:141] Setting up inception_5a/relu_5x5
I0403 15:34:18.455780 12097 net.cpp:148] Top shape: 24 128 7 7 (150528)
I0403 15:34:18.455795 12097 net.cpp:156] Memory required for data: 1300555296
I0403 15:34:18.455809 12097 layer_factory.hpp:77] Creating layer inception_5a/pool
I0403 15:34:18.455826 12097 net.cpp:91] Creating Layer inception_5a/pool
I0403 15:34:18.455842 12097 net.cpp:425] inception_5a/pool <- pool4/3x3_s2_pool4/3x3_s2_0_split_3
I0403 15:34:18.455859 12097 net.cpp:399] inception_5a/pool -> inception_5a/pool
I0403 15:34:18.455931 12097 net.cpp:141] Setting up inception_5a/pool
I0403 15:34:18.455955 12097 net.cpp:148] Top shape: 24 832 7 7 (978432)
I0403 15:34:18.455970 12097 net.cpp:156] Memory required for data: 1304469024
I0403 15:34:18.455984 12097 layer_factory.hpp:77] Creating layer inception_5a/pool_proj
I0403 15:34:18.456006 12097 net.cpp:91] Creating Layer inception_5a/pool_proj
I0403 15:34:18.456023 12097 net.cpp:425] inception_5a/pool_proj <- inception_5a/pool
I0403 15:34:18.456043 12097 net.cpp:399] inception_5a/pool_proj -> inception_5a/pool_proj
I0403 15:34:18.458349 12097 net.cpp:141] Setting up inception_5a/pool_proj
I0403 15:34:18.458382 12097 net.cpp:148] Top shape: 24 128 7 7 (150528)
I0403 15:34:18.458400 12097 net.cpp:156] Memory required for data: 1305071136
I0403 15:34:18.458417 12097 layer_factory.hpp:77] Creating layer inception_5a/relu_pool_proj
I0403 15:34:18.458438 12097 net.cpp:91] Creating Layer inception_5a/relu_pool_proj
I0403 15:34:18.458456 12097 net.cpp:425] inception_5a/relu_pool_proj <- inception_5a/pool_proj
I0403 15:34:18.458472 12097 net.cpp:386] inception_5a/relu_pool_proj -> inception_5a/pool_proj (in-place)
I0403 15:34:18.458770 12097 net.cpp:141] Setting up inception_5a/relu_pool_proj
I0403 15:34:18.458796 12097 net.cpp:148] Top shape: 24 128 7 7 (150528)
I0403 15:34:18.458811 12097 net.cpp:156] Memory required for data: 1305673248
I0403 15:34:18.458825 12097 layer_factory.hpp:77] Creating layer inception_5a/output
I0403 15:34:18.458842 12097 net.cpp:91] Creating Layer inception_5a/output
I0403 15:34:18.458858 12097 net.cpp:425] inception_5a/output <- inception_5a/1x1
I0403 15:34:18.458875 12097 net.cpp:425] inception_5a/output <- inception_5a/3x3
I0403 15:34:18.458891 12097 net.cpp:425] inception_5a/output <- inception_5a/5x5
I0403 15:34:18.458907 12097 net.cpp:425] inception_5a/output <- inception_5a/pool_proj
I0403 15:34:18.458926 12097 net.cpp:399] inception_5a/output -> inception_5a/output
I0403 15:34:18.458976 12097 net.cpp:141] Setting up inception_5a/output
I0403 15:34:18.459002 12097 net.cpp:148] Top shape: 24 832 7 7 (978432)
I0403 15:34:18.459017 12097 net.cpp:156] Memory required for data: 1309586976
I0403 15:34:18.459033 12097 layer_factory.hpp:77] Creating layer inception_5a/output_inception_5a/output_0_split
I0403 15:34:18.459049 12097 net.cpp:91] Creating Layer inception_5a/output_inception_5a/output_0_split
I0403 15:34:18.459064 12097 net.cpp:425] inception_5a/output_inception_5a/output_0_split <- inception_5a/output
I0403 15:34:18.459081 12097 net.cpp:399] inception_5a/output_inception_5a/output_0_split -> inception_5a/output_inception_5a/output_0_split_0
I0403 15:34:18.459105 12097 net.cpp:399] inception_5a/output_inception_5a/output_0_split -> inception_5a/output_inception_5a/output_0_split_1
I0403 15:34:18.459126 12097 net.cpp:399] inception_5a/output_inception_5a/output_0_split -> inception_5a/output_inception_5a/output_0_split_2
I0403 15:34:18.459146 12097 net.cpp:399] inception_5a/output_inception_5a/output_0_split -> inception_5a/output_inception_5a/output_0_split_3
I0403 15:34:18.459257 12097 net.cpp:141] Setting up inception_5a/output_inception_5a/output_0_split
I0403 15:34:18.459280 12097 net.cpp:148] Top shape: 24 832 7 7 (978432)
I0403 15:34:18.459296 12097 net.cpp:148] Top shape: 24 832 7 7 (978432)
I0403 15:34:18.459311 12097 net.cpp:148] Top shape: 24 832 7 7 (978432)
I0403 15:34:18.459327 12097 net.cpp:148] Top shape: 24 832 7 7 (978432)
I0403 15:34:18.459342 12097 net.cpp:156] Memory required for data: 1325241888
I0403 15:34:18.459355 12097 layer_factory.hpp:77] Creating layer inception_5b/1x1
I0403 15:34:18.459377 12097 net.cpp:91] Creating Layer inception_5b/1x1
I0403 15:34:18.459399 12097 net.cpp:425] inception_5b/1x1 <- inception_5a/output_inception_5a/output_0_split_0
I0403 15:34:18.459421 12097 net.cpp:399] inception_5b/1x1 -> inception_5b/1x1
I0403 15:34:18.463230 12097 net.cpp:141] Setting up inception_5b/1x1
I0403 15:34:18.463259 12097 net.cpp:148] Top shape: 24 384 7 7 (451584)
I0403 15:34:18.463274 12097 net.cpp:156] Memory required for data: 1327048224
I0403 15:34:18.463294 12097 layer_factory.hpp:77] Creating layer inception_5b/relu_1x1
I0403 15:34:18.463310 12097 net.cpp:91] Creating Layer inception_5b/relu_1x1
I0403 15:34:18.463327 12097 net.cpp:425] inception_5b/relu_1x1 <- inception_5b/1x1
I0403 15:34:18.463347 12097 net.cpp:386] inception_5b/relu_1x1 -> inception_5b/1x1 (in-place)
I0403 15:34:18.463665 12097 net.cpp:141] Setting up inception_5b/relu_1x1
I0403 15:34:18.463690 12097 net.cpp:148] Top shape: 24 384 7 7 (451584)
I0403 15:34:18.463706 12097 net.cpp:156] Memory required for data: 1328854560
I0403 15:34:18.463721 12097 layer_factory.hpp:77] Creating layer inception_5b/3x3_reduce
I0403 15:34:18.463742 12097 net.cpp:91] Creating Layer inception_5b/3x3_reduce
I0403 15:34:18.463759 12097 net.cpp:425] inception_5b/3x3_reduce <- inception_5a/output_inception_5a/output_0_split_1
I0403 15:34:18.463783 12097 net.cpp:399] inception_5b/3x3_reduce -> inception_5b/3x3_reduce
I0403 15:34:18.466570 12097 net.cpp:141] Setting up inception_5b/3x3_reduce
I0403 15:34:18.466603 12097 net.cpp:148] Top shape: 24 192 7 7 (225792)
I0403 15:34:18.466619 12097 net.cpp:156] Memory required for data: 1329757728
I0403 15:34:18.466637 12097 layer_factory.hpp:77] Creating layer inception_5b/relu_3x3_reduce
I0403 15:34:18.466656 12097 net.cpp:91] Creating Layer inception_5b/relu_3x3_reduce
I0403 15:34:18.466675 12097 net.cpp:425] inception_5b/relu_3x3_reduce <- inception_5b/3x3_reduce
I0403 15:34:18.466696 12097 net.cpp:386] inception_5b/relu_3x3_reduce -> inception_5b/3x3_reduce (in-place)
I0403 15:34:18.466900 12097 net.cpp:141] Setting up inception_5b/relu_3x3_reduce
I0403 15:34:18.466927 12097 net.cpp:148] Top shape: 24 192 7 7 (225792)
I0403 15:34:18.466943 12097 net.cpp:156] Memory required for data: 1330660896
I0403 15:34:18.466958 12097 layer_factory.hpp:77] Creating layer inception_5b/3x3
I0403 15:34:18.466981 12097 net.cpp:91] Creating Layer inception_5b/3x3
I0403 15:34:18.467000 12097 net.cpp:425] inception_5b/3x3 <- inception_5b/3x3_reduce
I0403 15:34:18.467022 12097 net.cpp:399] inception_5b/3x3 -> inception_5b/3x3
I0403 15:34:18.474010 12097 net.cpp:141] Setting up inception_5b/3x3
I0403 15:34:18.474040 12097 net.cpp:148] Top shape: 24 384 7 7 (451584)
I0403 15:34:18.474056 12097 net.cpp:156] Memory required for data: 1332467232
I0403 15:34:18.474076 12097 layer_factory.hpp:77] Creating layer inception_5b/relu_3x3
I0403 15:34:18.474098 12097 net.cpp:91] Creating Layer inception_5b/relu_3x3
I0403 15:34:18.474117 12097 net.cpp:425] inception_5b/relu_3x3 <- inception_5b/3x3
I0403 15:34:18.474135 12097 net.cpp:386] inception_5b/relu_3x3 -> inception_5b/3x3 (in-place)
I0403 15:34:18.474447 12097 net.cpp:141] Setting up inception_5b/relu_3x3
I0403 15:34:18.474472 12097 net.cpp:148] Top shape: 24 384 7 7 (451584)
I0403 15:34:18.474488 12097 net.cpp:156] Memory required for data: 1334273568
I0403 15:34:18.474503 12097 layer_factory.hpp:77] Creating layer inception_5b/5x5_reduce
I0403 15:34:18.474541 12097 net.cpp:91] Creating Layer inception_5b/5x5_reduce
I0403 15:34:18.474561 12097 net.cpp:425] inception_5b/5x5_reduce <- inception_5a/output_inception_5a/output_0_split_2
I0403 15:34:18.474584 12097 net.cpp:399] inception_5b/5x5_reduce -> inception_5b/5x5_reduce
I0403 15:34:18.475909 12097 net.cpp:141] Setting up inception_5b/5x5_reduce
I0403 15:34:18.475939 12097 net.cpp:148] Top shape: 24 48 7 7 (56448)
I0403 15:34:18.475955 12097 net.cpp:156] Memory required for data: 1334499360
I0403 15:34:18.475972 12097 layer_factory.hpp:77] Creating layer inception_5b/relu_5x5_reduce
I0403 15:34:18.475991 12097 net.cpp:91] Creating Layer inception_5b/relu_5x5_reduce
I0403 15:34:18.476007 12097 net.cpp:425] inception_5b/relu_5x5_reduce <- inception_5b/5x5_reduce
I0403 15:34:18.476027 12097 net.cpp:386] inception_5b/relu_5x5_reduce -> inception_5b/5x5_reduce (in-place)
I0403 15:34:18.476421 12097 net.cpp:141] Setting up inception_5b/relu_5x5_reduce
I0403 15:34:18.476449 12097 net.cpp:148] Top shape: 24 48 7 7 (56448)
I0403 15:34:18.476464 12097 net.cpp:156] Memory required for data: 1334725152
I0403 15:34:18.476480 12097 layer_factory.hpp:77] Creating layer inception_5b/5x5
I0403 15:34:18.476500 12097 net.cpp:91] Creating Layer inception_5b/5x5
I0403 15:34:18.476517 12097 net.cpp:425] inception_5b/5x5 <- inception_5b/5x5_reduce
I0403 15:34:18.476537 12097 net.cpp:399] inception_5b/5x5 -> inception_5b/5x5
I0403 15:34:18.478679 12097 net.cpp:141] Setting up inception_5b/5x5
I0403 15:34:18.478708 12097 net.cpp:148] Top shape: 24 128 7 7 (150528)
I0403 15:34:18.478724 12097 net.cpp:156] Memory required for data: 1335327264
I0403 15:34:18.478742 12097 layer_factory.hpp:77] Creating layer inception_5b/relu_5x5
I0403 15:34:18.478762 12097 net.cpp:91] Creating Layer inception_5b/relu_5x5
I0403 15:34:18.478780 12097 net.cpp:425] inception_5b/relu_5x5 <- inception_5b/5x5
I0403 15:34:18.478797 12097 net.cpp:386] inception_5b/relu_5x5 -> inception_5b/5x5 (in-place)
I0403 15:34:18.479001 12097 net.cpp:141] Setting up inception_5b/relu_5x5
I0403 15:34:18.479027 12097 net.cpp:148] Top shape: 24 128 7 7 (150528)
I0403 15:34:18.479043 12097 net.cpp:156] Memory required for data: 1335929376
I0403 15:34:18.479058 12097 layer_factory.hpp:77] Creating layer inception_5b/pool
I0403 15:34:18.479077 12097 net.cpp:91] Creating Layer inception_5b/pool
I0403 15:34:18.479095 12097 net.cpp:425] inception_5b/pool <- inception_5a/output_inception_5a/output_0_split_3
I0403 15:34:18.479113 12097 net.cpp:399] inception_5b/pool -> inception_5b/pool
I0403 15:34:18.479190 12097 net.cpp:141] Setting up inception_5b/pool
I0403 15:34:18.479215 12097 net.cpp:148] Top shape: 24 832 7 7 (978432)
I0403 15:34:18.479230 12097 net.cpp:156] Memory required for data: 1339843104
I0403 15:34:18.479244 12097 layer_factory.hpp:77] Creating layer inception_5b/pool_proj
I0403 15:34:18.479266 12097 net.cpp:91] Creating Layer inception_5b/pool_proj
I0403 15:34:18.479285 12097 net.cpp:425] inception_5b/pool_proj <- inception_5b/pool
I0403 15:34:18.479307 12097 net.cpp:399] inception_5b/pool_proj -> inception_5b/pool_proj
I0403 15:34:18.481726 12097 net.cpp:141] Setting up inception_5b/pool_proj
I0403 15:34:18.481756 12097 net.cpp:148] Top shape: 24 128 7 7 (150528)
I0403 15:34:18.481772 12097 net.cpp:156] Memory required for data: 1340445216
I0403 15:34:18.481791 12097 layer_factory.hpp:77] Creating layer inception_5b/relu_pool_proj
I0403 15:34:18.481809 12097 net.cpp:91] Creating Layer inception_5b/relu_pool_proj
I0403 15:34:18.481827 12097 net.cpp:425] inception_5b/relu_pool_proj <- inception_5b/pool_proj
I0403 15:34:18.481847 12097 net.cpp:386] inception_5b/relu_pool_proj -> inception_5b/pool_proj (in-place)
I0403 15:34:18.482163 12097 net.cpp:141] Setting up inception_5b/relu_pool_proj
I0403 15:34:18.482190 12097 net.cpp:148] Top shape: 24 128 7 7 (150528)
I0403 15:34:18.482206 12097 net.cpp:156] Memory required for data: 1341047328
I0403 15:34:18.482221 12097 layer_factory.hpp:77] Creating layer inception_5b/output
I0403 15:34:18.482239 12097 net.cpp:91] Creating Layer inception_5b/output
I0403 15:34:18.482270 12097 net.cpp:425] inception_5b/output <- inception_5b/1x1
I0403 15:34:18.482287 12097 net.cpp:425] inception_5b/output <- inception_5b/3x3
I0403 15:34:18.482305 12097 net.cpp:425] inception_5b/output <- inception_5b/5x5
I0403 15:34:18.482321 12097 net.cpp:425] inception_5b/output <- inception_5b/pool_proj
I0403 15:34:18.482342 12097 net.cpp:399] inception_5b/output -> inception_5b/output
I0403 15:34:18.482406 12097 net.cpp:141] Setting up inception_5b/output
I0403 15:34:18.482434 12097 net.cpp:148] Top shape: 24 1024 7 7 (1204224)
I0403 15:34:18.482450 12097 net.cpp:156] Memory required for data: 1345864224
I0403 15:34:18.482465 12097 layer_factory.hpp:77] Creating layer pool5/7x7_s1
I0403 15:34:18.482482 12097 net.cpp:91] Creating Layer pool5/7x7_s1
I0403 15:34:18.482498 12097 net.cpp:425] pool5/7x7_s1 <- inception_5b/output
I0403 15:34:18.482519 12097 net.cpp:399] pool5/7x7_s1 -> pool5/7x7_s1
I0403 15:34:18.482745 12097 net.cpp:141] Setting up pool5/7x7_s1
I0403 15:34:18.482784 12097 net.cpp:148] Top shape: 24 1024 1 1 (24576)
I0403 15:34:18.482797 12097 net.cpp:156] Memory required for data: 1345962528
I0403 15:34:18.482812 12097 layer_factory.hpp:77] Creating layer pool5/drop_7x7_s1
I0403 15:34:18.482830 12097 net.cpp:91] Creating Layer pool5/drop_7x7_s1
I0403 15:34:18.482846 12097 net.cpp:425] pool5/drop_7x7_s1 <- pool5/7x7_s1
I0403 15:34:18.482866 12097 net.cpp:386] pool5/drop_7x7_s1 -> pool5/7x7_s1 (in-place)
I0403 15:34:18.482918 12097 net.cpp:141] Setting up pool5/drop_7x7_s1
I0403 15:34:18.482941 12097 net.cpp:148] Top shape: 24 1024 1 1 (24576)
I0403 15:34:18.482955 12097 net.cpp:156] Memory required for data: 1346060832
I0403 15:34:18.482969 12097 layer_factory.hpp:77] Creating layer loss3/classifier_plantvillage
I0403 15:34:18.482988 12097 net.cpp:91] Creating Layer loss3/classifier_plantvillage
I0403 15:34:18.483006 12097 net.cpp:425] loss3/classifier_plantvillage <- pool5/7x7_s1
I0403 15:34:18.483034 12097 net.cpp:399] loss3/classifier_plantvillage -> loss3/classifier_plantvillage
I0403 15:34:18.483472 12097 net.cpp:141] Setting up loss3/classifier_plantvillage
I0403 15:34:18.483496 12097 net.cpp:148] Top shape: 24 38 (912)
I0403 15:34:18.483511 12097 net.cpp:156] Memory required for data: 1346064480
I0403 15:34:18.483530 12097 layer_factory.hpp:77] Creating layer loss3/classifier_plantvillage_loss3/classifier_plantvillage_0_split
I0403 15:34:18.483551 12097 net.cpp:91] Creating Layer loss3/classifier_plantvillage_loss3/classifier_plantvillage_0_split
I0403 15:34:18.483566 12097 net.cpp:425] loss3/classifier_plantvillage_loss3/classifier_plantvillage_0_split <- loss3/classifier_plantvillage
I0403 15:34:18.483585 12097 net.cpp:399] loss3/classifier_plantvillage_loss3/classifier_plantvillage_0_split -> loss3/classifier_plantvillage_loss3/classifier_plantvillage_0_split_0
I0403 15:34:18.483605 12097 net.cpp:399] loss3/classifier_plantvillage_loss3/classifier_plantvillage_0_split -> loss3/classifier_plantvillage_loss3/classifier_plantvillage_0_split_1
I0403 15:34:18.483625 12097 net.cpp:399] loss3/classifier_plantvillage_loss3/classifier_plantvillage_0_split -> loss3/classifier_plantvillage_loss3/classifier_plantvillage_0_split_2
I0403 15:34:18.483645 12097 net.cpp:399] loss3/classifier_plantvillage_loss3/classifier_plantvillage_0_split -> loss3/classifier_plantvillage_loss3/classifier_plantvillage_0_split_3
I0403 15:34:18.483746 12097 net.cpp:141] Setting up loss3/classifier_plantvillage_loss3/classifier_plantvillage_0_split
I0403 15:34:18.483768 12097 net.cpp:148] Top shape: 24 38 (912)
I0403 15:34:18.483784 12097 net.cpp:148] Top shape: 24 38 (912)
I0403 15:34:18.483799 12097 net.cpp:148] Top shape: 24 38 (912)
I0403 15:34:18.483814 12097 net.cpp:148] Top shape: 24 38 (912)
I0403 15:34:18.483829 12097 net.cpp:156] Memory required for data: 1346079072
I0403 15:34:18.483842 12097 layer_factory.hpp:77] Creating layer loss1/loss
I0403 15:34:18.483863 12097 net.cpp:91] Creating Layer loss1/loss
I0403 15:34:18.483880 12097 net.cpp:425] loss1/loss <- loss1/classifier_plantvillage_loss1/classifier_plantvillage_0_split_0
I0403 15:34:18.483911 12097 net.cpp:425] loss1/loss <- label_data_1_split_0
…
