…
I0403 14:51:05.397052 11321 net.cpp:313] The NetState phase (1) differed from the phase (0) specified by a rule in layer data
I0403 14:51:05.398253 11321 net.cpp:49] Initializing net from parameters: 
state {
  phase: TEST
}
layer {
  name: "data"
  type: "Data"
  top: "data"
  top: "label"
  include {
    phase: TEST
  }
  transform_param {
    mirror: false
    crop_size: 224
    mean_file: "/home/mohanty/data/final_dataset/lmdb/segmented-50-50/mean.binaryproto"
  }
  data_param {
    source: "/home/mohanty/data/final_dataset/lmdb/segmented-50-50/test_db"
    batch_size: 24
    backend: LMDB
  }
}
layer {
  name: "conv1/7x7_s2"
  type: "Convolution"
  bottom: "data"
  top: "conv1/7x7_s2"
  param {
    lr_mult: 1
    decay_mult: 1
  }
  param {
    lr_mult: 2
    decay_mult: 0
  }
  convolution_param {
    num_output: 64
    pad: 3
    kernel_size: 7
    stride: 2
    weight_filler {
      type: "xavier"
      std: 0.1
    }
    bias_filler {
      type: "constant"
      value: 0.2
    }
  }
}
layer {
  name: "conv1/relu_7x7"
  type: "ReLU"
  bottom: "conv1/7x7_s2"
  top: "conv1/7x7_s2"
}
layer {
  name: "pool1/3x3_s2"
  type: "Pooling"
  bottom: "conv1/7x7_s2"
  top: "pool1/3x3_s2"
  pooling_param {
    pool: MAX
    kernel_size: 3
    stride: 2
  }
}
layer {
  name: "pool1/norm1"
  type: "LRN"
  bottom: "pool1/3x3_s2"
  top: "pool1/norm1"
  lrn_param {
    local_size: 5
    alpha: 0.0001
    beta: 0.75
  }
}
layer {
  name: "conv2/3x3_reduce"
  type: "Convolution"
  bottom: "pool1/norm1"
  top: "conv2/3x3_reduce"
  param {
    lr_mult: 1
    decay_mult: 1
  }
  param {
    lr_mult: 2
    decay_mult: 0
  }
  convolution_param {
    num_output: 64
    kernel_size: 1
    weight_filler {
      type: "xavier"
      std: 0.1
    }
    bias_filler {
      type: "constant"
      value: 0.2
    }
  }
}
layer {
  name: "conv2/relu_3x3_reduce"
  type: "ReLU"
  bottom: "conv2/3x3_reduce"
  top: "conv2/3x3_reduce"
}
layer {
  name: "conv2/3x3"
  type: "Convolution"
  bottom: "conv2/3x3_reduce"
  top: "conv2/3x3"
  param {
    lr_mult: 1
    decay_mult: 1
  }
  param {
    lr_mult: 2
    decay_mult: 0
  }
  convolution_param {
    num_output: 192
    pad: 1
    kernel_size: 3
    weight_filler {
      type: "xavier"
      std: 0.03
    }
    bias_filler {
      type: "constant"
      value: 0.2
    }
  }
}
layer {
  name: "conv2/relu_3x3"
  type: "ReLU"
  bottom: "conv2/3x3"
  top: "conv2/3x3"
}
layer {
  name: "conv2/norm2"
  type: "LRN"
  bottom: "conv2/3x3"
  top: "conv2/norm2"
  lrn_param {
    local_size: 5
    alpha: 0.0001
    beta: 0.75
  }
}
layer {
  name: "pool2/3x3_s2"
  type: "Pooling"
  bottom: "conv2/norm2"
  top: "pool2/3x3_s2"
  pooling_param {
    pool: MAX
    kernel_size: 3
    stride: 2
  }
}
layer {
  name: "inception_3a/1x1"
  type: "Convolution"
  bottom: "pool2/3x3_s2"
  top: "inception_3a/1x1"
  param {
    lr_mult: 1
    decay_mult: 1
  }
  param {
    lr_mult: 2
    decay_mult: 0
  }
  convolution_param {
    num_output: 64
    kernel_size: 1
    weight_filler {
      type: "xavier"
      std: 0.03
    }
    bias_filler {
      type: "constant"
      value: 0.2
    }
  }
}
layer {
  name: "inception_3a/relu_1x1"
  type: "ReLU"
  bottom: "inception_3a/1x1"
  top: "inception_3a/1x1"
}
layer {
  name: "inception_3a/3x3_reduce"
  type: "Convolution"
  bottom: "pool2/3x3_s2"
  top: "inception_3a/3x3_reduce"
  param {
    lr_mult: 1
    decay_mult: 1
  }
  param {
    lr_mult: 2
    decay_mult: 0
  }
  convolution_param {
    num_output: 96
    kernel_size: 1
    weight_filler {
      type: "xavier"
      std: 0.09
    }
    bias_filler {
      type: "constant"
      value: 0.2
    }
  }
}
layer {
  name: "inception_3a/relu_3x3_reduce"
  type: "ReLU"
  bottom: "inception_3a/3x3_reduce"
  top: "inception_3a/3x3_reduce"
}
layer {
  name: "inception_3a/3x3"
  type: "Convolution"
  bottom: "inception_3a/3x3_reduce"
  top: "inception_3a/3x3"
  param {
    lr_mult: 1
    decay_mult: 1
  }
  param {
    lr_mult: 2
    decay_mult: 0
  }
  convolution_param {
    num_output: 128
    pad: 1
    kernel_size: 3
    weight_filler {
      type: "xavier"
      std: 0.03
    }
    bias_filler {
      type: "constant"
      value: 0.2
    }
  }
}
layer {
  name: "inception_3a/relu_3x3"
  type: "ReLU"
  bottom: "inception_3a/3x3"
  top: "inception_3a/3x3"
}
layer {
  name: "inception_3a/5x5_reduce"
  type: "Convolution"
  bottom: "pool2/3x3_s2"
  top: "inception_3a/5x5_reduce"
  param {
    lr_mult: 1
    decay_mult: 1
  }
  param {
    lr_mult: 2
    decay_mult: 0
  }
  convolution_param {
    num_output: 16
    kernel_size: 1
    weight_filler {
      type: "xavier"
      std: 0.2
    }
    bias_filler {
      type: "constant"
      value: 0.2
    }
  }
}
layer {
  name: "inception_3a/relu_5x5_reduce"
  type: "ReLU"
  bottom: "inception_3a/5x5_reduce"
  top: "inception_3a/5x5_reduce"
}
layer {
  name: "inception_3a/5x5"
  type: "Convolution"
  bottom: "inception_3a/5x5_reduce"
  top: "inception_3a/5x5"
  param {
    lr_mult: 1
    decay_mult: 1
  }
  param {
    lr_mult: 2
    decay_mult: 0
  }
  convolution_param {
    num_output: 32
    pad: 2
    kernel_size: 5
    weight_filler {
      type: "xavier"
      std: 0.03
    }
    bias_filler {
      type: "constant"
      value: 0.2
    }
  }
}
layer {
  name: "inception_3a/relu_5x5"
  type: "ReLU"
  bottom: "inception_3a/5x5"
  top: "inception_3a/5x5"
}
layer {
  name: "inception_3a/pool"
  type: "Pooling"
  bottom: "pool2/3x3_s2"
  top: "inception_3a/pool"
  pooling_param {
    pool: MAX
    kernel_size: 3
    stride: 1
    pad: 1
  }
}
layer {
  name: "inception_3a/pool_proj"
  type: "Convolution"
  bottom: "inception_3a/pool"
  top: "inception_3a/pool_proj"
  param {
    lr_mult: 1
    decay_mult: 1
  }
  param {
    lr_mult: 2
    decay_mult: 0
  }
  convolution_param {
    num_output: 32
    kernel_size: 1
    weight_filler {
      type: "xavier"
      std: 0.1
    }
    bias_filler {
      type: "constant"
      value: 0.2
    }
  }
}
layer {
  name: "inception_3a/relu_pool_proj"
  type: "ReLU"
  bottom: "inception_3a/pool_proj"
  top: "inception_3a/pool_proj"
}
layer {
  name: "inception_3a/output"
  type: "Concat"
  bottom: "inception_3a/1x1"
  bottom: "inception_3a/3x3"
  bottom: "inception_3a/5x5"
  bottom: "inception_3a/pool_proj"
  top: "inception_3a/output"
}
layer {
  name: "inception_3b/1x1"
  type: "Convolution"
  bottom: "inception_3a/output"
  top: "inception_3b/1x1"
  param {
    lr_mult: 1
    decay_mult: 1
  }
  param {
    lr_mult: 2
    decay_mult: 0
  }
  convolution_param {
    num_output: 128
    kernel_size: 1
    weight_filler {
      type: "xavier"
      std: 0.03
    }
    bias_filler {
      type: "constant"
      value: 0.2
    }
  }
}
layer {
  name: "inception_3b/relu_1x1"
  type: "ReLU"
  bottom: "inception_3b/1x1"
  top: "inception_3b/1x1"
}
layer {
  name: "inception_3b/3x3_reduce"
  type: "Convolution"
  bottom: "inception_3a/output"
  top: "inception_3b/3x3_reduce"
  param {
    lr_mult: 1
    decay_mult: 1
  }
  param {
    lr_mult: 2
    decay_mult: 0
  }
  convolution_param {
    num_output: 128
    kernel_size: 1
    weight_filler {
      type: "xavier"
      std: 0.09
    }
    bias_filler {
      type: "constant"
      value: 0.2
    }
  }
}
layer {
  name: "inception_3b/relu_3x3_reduce"
  type: "ReLU"
  bottom: "inception_3b/3x3_reduce"
  top: "inception_3b/3x3_reduce"
}
layer {
  name: "inception_3b/3x3"
  type: "Convolution"
  bottom: "inception_3b/3x3_reduce"
  top: "inception_3b/3x3"
  param {
    lr_mult: 1
    decay_mult: 1
  }
  param {
    lr_mult: 2
    decay_mult: 0
  }
  convolution_param {
    num_output: 192
    pad: 1
    kernel_size: 3
    weight_filler {
      type: "xavier"
      std: 0.03
    }
    bias_filler {
      type: "constant"
      value: 0.2
    }
  }
}
layer {
  name: "inception_3b/relu_3x3"
  type: "ReLU"
  bottom: "inception_3b/3x3"
  top: "inception_3b/3x3"
}
layer {
  name: "inception_3b/5x5_reduce"
  type: "Convolution"
  bottom: "inception_3a/output"
  top: "inception_3b/5x5_reduce"
  param {
    lr_mult: 1
    decay_mult: 1
  }
  param {
    lr_mult: 2
    decay_mult: 0
  }
  convolution_param {
    num_output: 32
    kernel_size: 1
    weight_filler {
      type: "xavier"
      std: 0.2
    }
    bias_filler {
      type: "constant"
      value: 0.2
    }
  }
}
layer {
  name: "inception_3b/relu_5x5_reduce"
  type: "ReLU"
  bottom: "inception_3b/5x5_reduce"
  top: "inception_3b/5x5_reduce"
}
layer {
  name: "inception_3b/5x5"
  type: "Convolution"
  bottom: "inception_3b/5x5_reduce"
  top: "inception_3b/5x5"
  param {
    lr_mult: 1
    decay_mult: 1
  }
  param {
    lr_mult: 2
    decay_mult: 0
  }
  convolution_param {
    num_output: 96
    pad: 2
    kernel_size: 5
    weight_filler {
      type: "xavier"
      std: 0.03
    }
    bias_filler {
      type: "constant"
      value: 0.2
    }
  }
}
layer {
  name: "inception_3b/relu_5x5"
  type: "ReLU"
  bottom: "inception_3b/5x5"
  top: "inception_3b/5x5"
}
layer {
  name: "inception_3b/pool"
  type: "Pooling"
  bottom: "inception_3a/output"
  top: "inception_3b/pool"
  pooling_param {
    pool: MAX
    kernel_size: 3
    stride: 1
    pad: 1
  }
}
layer {
  name: "inception_3b/pool_proj"
  type: "Convolution"
  bottom: "inception_3b/pool"
  top: "inception_3b/pool_proj"
  param {
    lr_mult: 1
    decay_mult: 1
  }
  param {
    lr_mult: 2
    decay_mult: 0
  }
  convolution_param {
    num_output: 64
    kernel_size: 1
    weight_filler {
      type: "xavier"
      std: 0.1
    }
    bias_filler {
      type: "constant"
      value: 0.2
    }
  }
}
layer {
  name: "inception_3b/relu_pool_proj"
  type: "ReLU"
  bottom: "inception_3b/pool_proj"
  top: "inception_3b/pool_proj"
}
layer {
  name: "inception_3b/output"
  type: "Concat"
  bottom: "inception_3b/1x1"
  bottom: "inception_3b/3x3"
  bottom: "inception_3b/5x5"
  bottom: "inception_3b/pool_proj"
  top: "inception_3b/output"
}
layer {
  name: "pool3/3x3_s2"
  type: "Pooling"
  bottom: "inception_3b/output"
  top: "pool3/3x3_s2"
  pooling_param {
    pool: MAX
    kernel_size: 3
    stride: 2
  }
}
layer {
  name: "inception_4a/1x1"
  type: "Convolution"
  bottom: "pool3/3x3_s2"
  top: "inception_4a/1x1"
  param {
    lr_mult: 1
    decay_mult: 1
  }
  param {
    lr_mult: 2
    decay_mult: 0
  }
  convolution_param {
    num_output: 192
    kernel_size: 1
    weight_filler {
      type: "xavier"
      std: 0.03
    }
    bias_filler {
      type: "constant"
      value: 0.2
    }
  }
}
layer {
  name: "inception_4a/relu_1x1"
  type: "ReLU"
  bottom: "inception_4a/1x1"
  top: "inception_4a/1x1"
}
layer {
  name: "inception_4a/3x3_reduce"
  type: "Convolution"
  bottom: "pool3/3x3_s2"
  top: "inception_4a/3x3_reduce"
  param {
    lr_mult: 1
    decay_mult: 1
  }
  param {
    lr_mult: 2
    decay_mult: 0
  }
  convolution_param {
    num_output: 96
    kernel_size: 1
    weight_filler {
      type: "xavier"
      std: 0.09
    }
    bias_filler {
      type: "constant"
      value: 0.2
    }
  }
}
layer {
  name: "inception_4a/relu_3x3_reduce"
  type: "ReLU"
  bottom: "inception_4a/3x3_reduce"
  top: "inception_4a/3x3_reduce"
}
layer {
  name: "inception_4a/3x3"
  type: "Convolution"
  bottom: "inception_4a/3x3_reduce"
  top: "inception_4a/3x3"
  param {
    lr_mult: 1
    decay_mult: 1
  }
  param {
    lr_mult: 2
    decay_mult: 0
  }
  convolution_param {
    num_output: 208
    pad: 1
    kernel_size: 3
    weight_filler {
      type: "xavier"
      std: 0.03
    }
    bias_filler {
      type: "constant"
      value: 0.2
    }
  }
}
layer {
  name: "inception_4a/relu_3x3"
  type: "ReLU"
  bottom: "inception_4a/3x3"
  top: "inception_4a/3x3"
}
layer {
  name: "inception_4a/5x5_reduce"
  type: "Convolution"
  bottom: "pool3/3x3_s2"
  top: "inception_4a/5x5_reduce"
  param {
    lr_mult: 1
    decay_mult: 1
  }
  param {
    lr_mult: 2
    decay_mult: 0
  }
  convolution_param {
    num_output: 16
    kernel_size: 1
    weight_filler {
      type: "xavier"
      std: 0.2
    }
    bias_filler {
      type: "constant"
      value: 0.2
    }
  }
}
layer {
  name: "inception_4a/relu_5x5_reduce"
  type: "ReLU"
  bottom: "inception_4a/5x5_reduce"
  top: "inception_4a/5x5_reduce"
}
layer {
  name: "inception_4a/5x5"
  type: "Convolution"
  bottom: "inception_4a/5x5_reduce"
  top: "inception_4a/5x5"
  param {
    lr_mult: 1
    decay_mult: 1
  }
  param {
    lr_mult: 2
    decay_mult: 0
  }
  convolution_param {
    num_output: 48
    pad: 2
    kernel_size: 5
    weight_filler {
      type: "xavier"
      std: 0.03
    }
    bias_filler {
      type: "constant"
      value: 0.2
    }
  }
}
layer {
  name: "inception_4a/relu_5x5"
  type: "ReLU"
  bottom: "inception_4a/5x5"
  top: "inception_4a/5x5"
}
layer {
  name: "inception_4a/pool"
  type: "Pooling"
  bottom: "pool3/3x3_s2"
  top: "inception_4a/pool"
  pooling_param {
    pool: MAX
    kernel_size: 3
    stride: 1
    pad: 1
  }
}
layer {
  name: "inception_4a/pool_proj"
  type: "Convolution"
  bottom: "inception_4a/pool"
  top: "inception_4a/pool_proj"
  param {
    lr_mult: 1
    decay_mult: 1
  }
  param {
    lr_mult: 2
    decay_mult: 0
  }
  convolution_param {
    num_output: 64
    kernel_size: 1
    weight_filler {
      type: "xavier"
      std: 0.1
    }
    bias_filler {
      type: "constant"
      value: 0.2
    }
  }
}
layer {
  name: "inception_4a/relu_pool_proj"
  type: "ReLU"
  bottom: "inception_4a/pool_proj"
  top: "inception_4a/pool_proj"
}
layer {
  name: "inception_4a/output"
  type: "Concat"
  bottom: "inception_4a/1x1"
  bottom: "inception_4a/3x3"
  bottom: "inception_4a/5x5"
  bottom: "inception_4a/pool_proj"
  top: "inception_4a/output"
}
layer {
  name: "loss1/ave_pool"
  type: "Pooling"
  bottom: "inception_4a/output"
  top: "loss1/ave_pool"
  pooling_param {
    pool: AVE
    kernel_size: 5
    stride: 3
  }
}
layer {
  name: "loss1/conv"
  type: "Convolution"
  bottom: "loss1/ave_pool"
  top: "loss1/conv"
  param {
    lr_mult: 1
    decay_mult: 1
  }
  param {
    lr_mult: 2
    decay_mult: 0
  }
  convolution_param {
    num_output: 128
    kernel_size: 1
    weight_filler {
      type: "xavier"
      std: 0.08
    }
    bias_filler {
      type: "constant"
      value: 0.2
    }
  }
}
layer {
  name: "loss1/relu_conv"
  type: "ReLU"
  bottom: "loss1/conv"
  top: "loss1/conv"
}
layer {
  name: "loss1/fc"
  type: "InnerProduct"
  bottom: "loss1/conv"
  top: "loss1/fc"
  param {
    lr_mult: 1
    decay_mult: 1
  }
  param {
    lr_mult: 2
    decay_mult: 0
  }
  inner_product_param {
    num_output: 1024
    weight_filler {
      type: "xavier"
      std: 0.02
    }
    bias_filler {
      type: "constant"
      value: 0.2
    }
  }
}
layer {
  name: "loss1/relu_fc"
  type: "ReLU"
  bottom: "loss1/fc"
  top: "loss1/fc"
}
layer {
  name: "loss1/drop_fc"
  type: "Dropout"
  bottom: "loss1/fc"
  top: "loss1/fc"
  dropout_param {
    dropout_ratio: 0.7
  }
}
layer {
  name: "loss1/classifier_plantvillage"
  type: "InnerProduct"
  bottom: "loss1/fc"
  top: "loss1/classifier_plantvillage"
  param {
    lr_mult: 1
    decay_mult: 1
  }
  param {
    lr_mult: 2
    decay_mult: 0
  }
  inner_product_param {
    num_output: 38
    weight_filler {
      type: "xavier"
      std: 0.0009765625
    }
    bias_filler {
      type: "constant"
      value: 0
    }
  }
}
layer {
  name: "inception_4b/1x1"
  type: "Convolution"
  bottom: "inception_4a/output"
  top: "inception_4b/1x1"
  param {
    lr_mult: 1
    decay_mult: 1
  }
  param {
    lr_mult: 2
    decay_mult: 0
  }
  convolution_param {
    num_output: 160
    kernel_size: 1
    weight_filler {
      type: "xavier"
      std: 0.03
    }
    bias_filler {
      type: "constant"
      value: 0.2
    }
  }
}
layer {
  name: "inception_4b/relu_1x1"
  type: "ReLU"
  bottom: "inception_4b/1x1"
  top: "inception_4b/1x1"
}
layer {
  name: "inception_4b/3x3_reduce"
  type: "Convolution"
  bottom: "inception_4a/output"
  top: "inception_4b/3x3_reduce"
  param {
    lr_mult: 1
    decay_mult: 1
  }
  param {
    lr_mult: 2
    decay_mult: 0
  }
  convolution_param {
    num_output: 112
    kernel_size: 1
    weight_filler {
      type: "xavier"
      std: 0.09
    }
    bias_filler {
      type: "constant"
      value: 0.2
    }
  }
}
layer {
  name: "inception_4b/relu_3x3_reduce"
  type: "ReLU"
  bottom: "inception_4b/3x3_reduce"
  top: "inception_4b/3x3_reduce"
}
layer {
  name: "inception_4b/3x3"
  type: "Convolution"
  bottom: "inception_4b/3x3_reduce"
  top: "inception_4b/3x3"
  param {
    lr_mult: 1
    decay_mult: 1
  }
  param {
    lr_mult: 2
    decay_mult: 0
  }
  convolution_param {
    num_output: 224
    pad: 1
    kernel_size: 3
    weight_filler {
      type: "xavier"
      std: 0.03
    }
    bias_filler {
      type: "constant"
      value: 0.2
    }
  }
}
layer {
  name: "inception_4b/relu_3x3"
  type: "ReLU"
  bottom: "inception_4b/3x3"
  top: "inception_4b/3x3"
}
layer {
  name: "inception_4b/5x5_reduce"
  type: "Convolution"
  bottom: "inception_4a/output"
  top: "inception_4b/5x5_reduce"
  param {
    lr_mult: 1
    decay_mult: 1
  }
  param {
    lr_mult: 2
    decay_mult: 0
  }
  convolution_param {
    num_output: 24
    kernel_size: 1
    weight_filler {
      type: "xavier"
      std: 0.2
    }
    bias_filler {
      type: "constant"
      value: 0.2
    }
  }
}
layer {
  name: "inception_4b/relu_5x5_reduce"
  type: "ReLU"
  bottom: "inception_4b/5x5_reduce"
  top: "inception_4b/5x5_reduce"
}
layer {
  name: "inception_4b/5x5"
  type: "Convolution"
  bottom: "inception_4b/5x5_reduce"
  top: "inception_4b/5x5"
  param {
    lr_mult: 1
    decay_mult: 1
  }
  param {
    lr_mult: 2
    decay_mult: 0
  }
  convolution_param {
    num_output: 64
    pad: 2
    kernel_size: 5
    weight_filler {
      type: "xavier"
      std: 0.03
    }
    bias_filler {
      type: "constant"
      value: 0.2
    }
  }
}
layer {
  name: "inception_4b/relu_5x5"
  type: "ReLU"
  bottom: "inception_4b/5x5"
  top: "inception_4b/5x5"
}
layer {
  name: "inception_4b/pool"
  type: "Pooling"
  bottom: "inception_4a/output"
  top: "inception_4b/pool"
  pooling_param {
    pool: MAX
    kernel_size: 3
    stride: 1
    pad: 1
  }
}
layer {
  name: "inception_4b/pool_proj"
  type: "Convolution"
  bottom: "inception_4b/pool"
  top: "inception_4b/pool_proj"
  param {
    lr_mult: 1
    decay_mult: 1
  }
  param {
    lr_mult: 2
    decay_mult: 0
  }
  convolution_param {
    num_output: 64
    kernel_size: 1
    weight_filler {
      type: "xavier"
      std: 0.1
    }
    bias_filler {
      type: "constant"
      value: 0.2
    }
  }
}
layer {
  name: "inception_4b/relu_pool_proj"
  type: "ReLU"
  bottom: "inception_4b/pool_proj"
  top: "inception_4b/pool_proj"
}
layer {
  name: "inception_4b/output"
  type: "Concat"
  bottom: "inception_4b/1x1"
  bottom: "inception_4b/3x3"
  bottom: "inception_4b/5x5"
  bottom: "inception_4b/pool_proj"
  top: "inception_4b/output"
}
layer {
  name: "inception_4c/1x1"
  type: "Convolution"
  bottom: "inception_4b/output"
  top: "inception_4c/1x1"
  param {
    lr_mult: 1
    decay_mult: 1
  }
  param {
    lr_mult: 2
    decay_mult: 0
  }
  convolution_param {
    num_output: 128
    kernel_size: 1
    weight_filler {
      type: "xavier"
      std: 0.03
    }
    bias_filler {
      type: "constant"
      value: 0.2
    }
  }
}
layer {
  name: "inception_4c/relu_1x1"
  type: "ReLU"
  bottom: "inception_4c/1x1"
  top: "inception_4c/1x1"
}
layer {
  name: "inception_4c/3x3_reduce"
  type: "Convolution"
  bottom: "inception_4b/output"
  top: "inception_4c/3x3_reduce"
  param {
    lr_mult: 1
    decay_mult: 1
  }
  param {
    lr_mult: 2
    decay_mult: 0
  }
  convolution_param {
    num_output: 128
    kernel_size: 1
    weight_filler {
      type: "xavier"
      std: 0.09
    }
    bias_filler {
      type: "constant"
      value: 0.2
    }
  }
}
layer {
  name: "inception_4c/relu_3x3_reduce"
  type: "ReLU"
  bottom: "inception_4c/3x3_reduce"
  top: "inception_4c/3x3_reduce"
}
layer {
  name: "inception_4c/3x3"
  type: "Convolution"
  bottom: "inception_4c/3x3_reduce"
  top: "inception_4c/3x3"
  param {
    lr_mult: 1
    decay_mult: 1
  }
  param {
    lr_mult: 2
    decay_mult: 0
  }
  convolution_param {
    num_output: 256
    pad: 1
    kernel_size: 3
    weight_filler {
      type: "xavier"
      std: 0.03
    }
    bias_filler {
      type: "constant"
      value: 0.2
    }
  }
}
layer {
  name: "inception_4c/relu_3x3"
  type: "ReLU"
  bottom: "inception_4c/3x3"
  top: "inception_4c/3x3"
}
layer {
  name: "inception_4c/5x5_reduce"
  type: "Convolution"
  bottom: "inception_4b/output"
  top: "inception_4c/5x5_reduce"
  param {
    lr_mult: 1
    decay_mult: 1
  }
  param {
    lr_mult: 2
    decay_mult: 0
  }
  convolution_param {
    num_output: 24
    kernel_size: 1
    weight_filler {
      type: "xavier"
      std: 0.2
    }
    bias_filler {
      type: "constant"
      value: 0.2
    }
  }
}
layer {
  name: "inception_4c/relu_5x5_reduce"
  type: "ReLU"
  bottom: "inception_4c/5x5_reduce"
  top: "inception_4c/5x5_reduce"
}
layer {
  name: "inception_4c/5x5"
  type: "Convolution"
  bottom: "inception_4c/5x5_reduce"
  top: "inception_4c/5x5"
  param {
    lr_mult: 1
    decay_mult: 1
  }
  param {
    lr_mult: 2
    decay_mult: 0
  }
  convolution_param {
    num_output: 64
    pad: 2
    kernel_size: 5
    weight_filler {
      type: "xavier"
      std: 0.03
    }
    bias_filler {
      type: "constant"
      value: 0.2
    }
  }
}
layer {
  name: "inception_4c/relu_5x5"
  type: "ReLU"
  bottom: "inception_4c/5x5"
  top: "inception_4c/5x5"
}
layer {
  name: "inception_4c/pool"
  type: "Pooling"
  bottom: "inception_4b/output"
  top: "inception_4c/pool"
  pooling_param {
    pool: MAX
    kernel_size: 3
    stride: 1
    pad: 1
  }
}
layer {
  name: "inception_4c/pool_proj"
  type: "Convolution"
  bottom: "inception_4c/pool"
  top: "inception_4c/pool_proj"
  param {
    lr_mult: 1
    decay_mult: 1
  }
  param {
    lr_mult: 2
    decay_mult: 0
  }
  convolution_param {
    num_output: 64
    kernel_size: 1
    weight_filler {
      type: "xavier"
      std: 0.1
    }
    bias_filler {
      type: "constant"
      value: 0.2
    }
  }
}
layer {
  name: "inception_4c/relu_pool_proj"
  type: "ReLU"
  bottom: "inception_4c/pool_proj"
  top: "inception_4c/pool_proj"
}
layer {
  name: "inception_4c/output"
  type: "Concat"
  bottom: "inception_4c/1x1"
  bottom: "inception_4c/3x3"
  bottom: "inception_4c/5x5"
  bottom: "inception_4c/pool_proj"
  top: "inception_4c/output"
}
layer {
  name: "inception_4d/1x1"
  type: "Convolution"
  bottom: "inception_4c/output"
  top: "inception_4d/1x1"
  param {
    lr_mult: 1
    decay_mult: 1
  }
  param {
    lr_mult: 2
    decay_mult: 0
  }
  convolution_param {
    num_output: 112
    kernel_size: 1
    weight_filler {
      type: "xavier"
      std: 0.03
    }
    bias_filler {
      type: "constant"
      value: 0.2
    }
  }
}
layer {
  name: "inception_4d/relu_1x1"
  type: "ReLU"
  bottom: "inception_4d/1x1"
  top: "inception_4d/1x1"
}
layer {
  name: "inception_4d/3x3_reduce"
  type: "Convolution"
  bottom: "inception_4c/output"
  top: "inception_4d/3x3_reduce"
  param {
    lr_mult: 1
    decay_mult: 1
  }
  param {
    lr_mult: 2
    decay_mult: 0
  }
  convolution_param {
    num_output: 144
    kernel_size: 1
    weight_filler {
      type: "xavier"
      std: 0.09
    }
    bias_filler {
      type: "constant"
      value: 0.2
    }
  }
}
layer {
  name: "inception_4d/relu_3x3_reduce"
  type: "ReLU"
  bottom: "inception_4d/3x3_reduce"
  top: "inception_4d/3x3_reduce"
}
layer {
  name: "inception_4d/3x3"
  type: "Convolution"
  bottom: "inception_4d/3x3_reduce"
  top: "inception_4d/3x3"
  param {
    lr_mult: 1
    decay_mult: 1
  }
  param {
    lr_mult: 2
    decay_mult: 0
  }
  convolution_param {
    num_output: 288
    pad: 1
    kernel_size: 3
    weight_filler {
      type: "xavier"
      std: 0.03
    }
    bias_filler {
      type: "constant"
      value: 0.2
    }
  }
}
layer {
  name: "inception_4d/relu_3x3"
  type: "ReLU"
  bottom: "inception_4d/3x3"
  top: "inception_4d/3x3"
}
layer {
  name: "inception_4d/5x5_reduce"
  type: "Convolution"
  bottom: "inception_4c/output"
  top: "inception_4d/5x5_reduce"
  param {
    lr_mult: 1
    decay_mult: 1
  }
  param {
    lr_mult: 2
    decay_mult: 0
  }
  convolution_param {
    num_output: 32
    kernel_size: 1
    weight_filler {
      type: "xavier"
      std: 0.2
    }
    bias_filler {
      type: "constant"
      value: 0.2
    }
  }
}
layer {
  name: "inception_4d/relu_5x5_reduce"
  type: "ReLU"
  bottom: "inception_4d/5x5_reduce"
  top: "inception_4d/5x5_reduce"
}
layer {
  name: "inception_4d/5x5"
  type: "Convolution"
  bottom: "inception_4d/5x5_reduce"
  top: "inception_4d/5x5"
  param {
    lr_mult: 1
    decay_mult: 1
  }
  param {
    lr_mult: 2
    decay_mult: 0
  }
  convolution_param {
    num_output: 64
    pad: 2
    kernel_size: 5
    weight_filler {
      type: "xavier"
      std: 0.03
    }
    bias_filler {
      type: "constant"
      value: 0.2
    }
  }
}
layer {
  name: "inception_4d/relu_5x5"
  type: "ReLU"
  bottom: "inception_4d/5x5"
  top: "inception_4d/5x5"
}
layer {
  name: "inception_4d/pool"
  type: "Pooling"
  bottom: "inception_4c/output"
  top: "inception_4d/pool"
  pooling_param {
    pool: MAX
    kernel_size: 3
    stride: 1
    pad: 1
  }
}
layer {
  name: "inception_4d/pool_proj"
  type: "Convolution"
  bottom: "inception_4d/pool"
  top: "inception_4d/pool_proj"
  param {
    lr_mult: 1
    decay_mult: 1
  }
  param {
    lr_mult: 2
    decay_mult: 0
  }
  convolution_param {
    num_output: 64
    kernel_size: 1
    weight_filler {
      type: "xavier"
      std: 0.1
    }
    bias_filler {
      type: "constant"
      value: 0.2
    }
  }
}
layer {
  name: "inception_4d/relu_pool_proj"
  type: "ReLU"
  bottom: "inception_4d/pool_proj"
  top: "inception_4d/pool_proj"
}
layer {
  name: "inception_4d/output"
  type: "Concat"
  bottom: "inception_4d/1x1"
  bottom: "inception_4d/3x3"
  bottom: "inception_4d/5x5"
  bottom: "inception_4d/pool_proj"
  top: "inception_4d/output"
}
layer {
  name: "loss2/ave_pool"
  type: "Pooling"
  bottom: "inception_4d/output"
  top: "loss2/ave_pool"
  pooling_param {
    pool: AVE
    kernel_size: 5
    stride: 3
  }
}
layer {
  name: "loss2/conv"
  type: "Convolution"
  bottom: "loss2/ave_pool"
  top: "loss2/conv"
  param {
    lr_mult: 1
    decay_mult: 1
  }
  param {
    lr_mult: 2
    decay_mult: 0
  }
  convolution_param {
    num_output: 128
    kernel_size: 1
    weight_filler {
      type: "xavier"
      std: 0.08
    }
    bias_filler {
      type: "constant"
      value: 0.2
    }
  }
}
layer {
  name: "loss2/relu_conv"
  type: "ReLU"
  bottom: "loss2/conv"
  top: "loss2/conv"
}
layer {
  name: "loss2/fc"
  type: "InnerProduct"
  bottom: "loss2/conv"
  top: "loss2/fc"
  param {
    lr_mult: 1
    decay_mult: 1
  }
  param {
    lr_mult: 2
    decay_mult: 0
  }
  inner_product_param {
    num_output: 1024
    weight_filler {
      type: "xavier"
      std: 0.02
    }
    bias_filler {
      type: "constant"
      value: 0.2
    }
  }
}
layer {
  name: "loss2/relu_fc"
  type: "ReLU"
  bottom: "loss2/fc"
  top: "loss2/fc"
}
layer {
  name: "loss2/drop_fc"
  type: "Dropout"
  bottom: "loss2/fc"
  top: "loss2/fc"
  dropout_param {
    dropout_ratio: 0.7
  }
}
layer {
  name: "loss2/classifier_plantvillage"
  type: "InnerProduct"
  bottom: "loss2/fc"
  top: "loss2/classifier_plantvillage"
  param {
    lr_mult: 1
    decay_mult: 1
  }
  param {
    lr_mult: 2
    decay_mult: 0
  }
  inner_product_param {
    num_output: 38
    weight_filler {
      type: "xavier"
      std: 0.0009765625
    }
    bias_filler {
      type: "constant"
      value: 0
    }
  }
}
layer {
  name: "inception_4e/1x1"
  type: "Convolution"
  bottom: "inception_4d/output"
  top: "inception_4e/1x1"
  param {
    lr_mult: 1
    decay_mult: 1
  }
  param {
    lr_mult: 2
    decay_mult: 0
  }
  convolution_param {
    num_output: 256
    kernel_size: 1
    weight_filler {
      type: "xavier"
      std: 0.03
    }
    bias_filler {
      type: "constant"
      value: 0.2
    }
  }
}
layer {
  name: "inception_4e/relu_1x1"
  type: "ReLU"
  bottom: "inception_4e/1x1"
  top: "inception_4e/1x1"
}
layer {
  name: "inception_4e/3x3_reduce"
  type: "Convolution"
  bottom: "inception_4d/output"
  top: "inception_4e/3x3_reduce"
  param {
    lr_mult: 1
    decay_mult: 1
  }
  param {
    lr_mult: 2
    decay_mult: 0
  }
  convolution_param {
    num_output: 160
    kernel_size: 1
    weight_filler {
      type: "xavier"
      std: 0.09
    }
    bias_filler {
      type: "constant"
      value: 0.2
    }
  }
}
layer {
  name: "inception_4e/relu_3x3_reduce"
  type: "ReLU"
  bottom: "inception_4e/3x3_reduce"
  top: "inception_4e/3x3_reduce"
}
layer {
  name: "inception_4e/3x3"
  type: "Convolution"
  bottom: "inception_4e/3x3_reduce"
  top: "inception_4e/3x3"
  param {
    lr_mult: 1
    decay_mult: 1
  }
  param {
    lr_mult: 2
    decay_mult: 0
  }
  convolution_param {
    num_output: 320
    pad: 1
    kernel_size: 3
    weight_filler {
      type: "xavier"
      std: 0.03
    }
    bias_filler {
      type: "constant"
      value: 0.2
    }
  }
}
layer {
  name: "inception_4e/relu_3x3"
  type: "ReLU"
  bottom: "inception_4e/3x3"
  top: "inception_4e/3x3"
}
layer {
  name: "inception_4e/5x5_reduce"
  type: "Convolution"
  bottom: "inception_4d/output"
  top: "inception_4e/5x5_reduce"
  param {
    lr_mult: 1
    decay_mult: 1
  }
  param {
    lr_mult: 2
    decay_mult: 0
  }
  convolution_param {
    num_output: 32
    kernel_size: 1
    weight_filler {
      type: "xavier"
      std: 0.2
    }
    bias_filler {
      type: "constant"
      value: 0.2
    }
  }
}
layer {
  name: "inception_4e/relu_5x5_reduce"
  type: "ReLU"
  bottom: "inception_4e/5x5_reduce"
  top: "inception_4e/5x5_reduce"
}
layer {
  name: "inception_4e/5x5"
  type: "Convolution"
  bottom: "inception_4e/5x5_reduce"
  top: "inception_4e/
I0403 14:51:05.399497 11321 layer_factory.hpp:77] Creating layer data
I0403 14:51:05.400163 11321 net.cpp:91] Creating Layer data
I0403 14:51:05.400197 11321 net.cpp:399] data -> data
I0403 14:51:05.400246 11321 net.cpp:399] data -> label
I0403 14:51:05.400282 11321 data_transformer.cpp:25] Loading mean file from: /home/mohanty/data/final_dataset/lmdb/segmented-50-50/mean.binaryproto
I0403 14:51:05.402922 11324 db_lmdb.cpp:38] Opened lmdb /home/mohanty/data/final_dataset/lmdb/segmented-50-50/test_db
I0403 14:51:05.413583 11321 data_layer.cpp:41] output data size: 24,3,224,224
I0403 14:51:05.441303 11321 net.cpp:141] Setting up data
I0403 14:51:05.441404 11321 net.cpp:148] Top shape: 24 3 224 224 (3612672)
I0403 14:51:05.441434 11321 net.cpp:148] Top shape: 24 (24)
I0403 14:51:05.441449 11321 net.cpp:156] Memory required for data: 14450784
I0403 14:51:05.441478 11321 layer_factory.hpp:77] Creating layer label_data_1_split
I0403 14:51:05.441505 11321 net.cpp:91] Creating Layer label_data_1_split
I0403 14:51:05.441524 11321 net.cpp:425] label_data_1_split <- label
I0403 14:51:05.441555 11321 net.cpp:399] label_data_1_split -> label_data_1_split_0
I0403 14:51:05.441584 11321 net.cpp:399] label_data_1_split -> label_data_1_split_1
I0403 14:51:05.441606 11321 net.cpp:399] label_data_1_split -> label_data_1_split_2
I0403 14:51:05.441625 11321 net.cpp:399] label_data_1_split -> label_data_1_split_3
I0403 14:51:05.441656 11321 net.cpp:399] label_data_1_split -> label_data_1_split_4
I0403 14:51:05.441675 11321 net.cpp:399] label_data_1_split -> label_data_1_split_5
I0403 14:51:05.441694 11321 net.cpp:399] label_data_1_split -> label_data_1_split_6
I0403 14:51:05.441727 11321 net.cpp:399] label_data_1_split -> label_data_1_split_7
I0403 14:51:05.441746 11321 net.cpp:399] label_data_1_split -> label_data_1_split_8
I0403 14:51:05.441766 11321 net.cpp:399] label_data_1_split -> label_data_1_split_9
I0403 14:51:05.441884 11321 net.cpp:141] Setting up label_data_1_split
I0403 14:51:05.441917 11321 net.cpp:148] Top shape: 24 (24)
I0403 14:51:05.441934 11321 net.cpp:148] Top shape: 24 (24)
I0403 14:51:05.441951 11321 net.cpp:148] Top shape: 24 (24)
I0403 14:51:05.441967 11321 net.cpp:148] Top shape: 24 (24)
I0403 14:51:05.441983 11321 net.cpp:148] Top shape: 24 (24)
I0403 14:51:05.441998 11321 net.cpp:148] Top shape: 24 (24)
I0403 14:51:05.442026 11321 net.cpp:148] Top shape: 24 (24)
I0403 14:51:05.442041 11321 net.cpp:148] Top shape: 24 (24)
I0403 14:51:05.442056 11321 net.cpp:148] Top shape: 24 (24)
I0403 14:51:05.442072 11321 net.cpp:148] Top shape: 24 (24)
I0403 14:51:05.442109 11321 net.cpp:156] Memory required for data: 14451744
I0403 14:51:05.442126 11321 layer_factory.hpp:77] Creating layer conv1/7x7_s2
I0403 14:51:05.442155 11321 net.cpp:91] Creating Layer conv1/7x7_s2
I0403 14:51:05.442173 11321 net.cpp:425] conv1/7x7_s2 <- data
I0403 14:51:05.442193 11321 net.cpp:399] conv1/7x7_s2 -> conv1/7x7_s2
I0403 14:51:05.584664 11321 net.cpp:141] Setting up conv1/7x7_s2
I0403 14:51:05.584750 11321 net.cpp:148] Top shape: 24 64 112 112 (19267584)
I0403 14:51:05.584766 11321 net.cpp:156] Memory required for data: 91522080
I0403 14:51:05.584796 11321 layer_factory.hpp:77] Creating layer conv1/relu_7x7
I0403 14:51:05.584822 11321 net.cpp:91] Creating Layer conv1/relu_7x7
I0403 14:51:05.584841 11321 net.cpp:425] conv1/relu_7x7 <- conv1/7x7_s2
I0403 14:51:05.584858 11321 net.cpp:386] conv1/relu_7x7 -> conv1/7x7_s2 (in-place)
I0403 14:51:05.585109 11321 net.cpp:141] Setting up conv1/relu_7x7
I0403 14:51:05.585136 11321 net.cpp:148] Top shape: 24 64 112 112 (19267584)
I0403 14:51:05.585151 11321 net.cpp:156] Memory required for data: 168592416
I0403 14:51:05.585166 11321 layer_factory.hpp:77] Creating layer pool1/3x3_s2
I0403 14:51:05.585191 11321 net.cpp:91] Creating Layer pool1/3x3_s2
I0403 14:51:05.585207 11321 net.cpp:425] pool1/3x3_s2 <- conv1/7x7_s2
I0403 14:51:05.585225 11321 net.cpp:399] pool1/3x3_s2 -> pool1/3x3_s2
I0403 14:51:05.585296 11321 net.cpp:141] Setting up pool1/3x3_s2
I0403 14:51:05.585320 11321 net.cpp:148] Top shape: 24 64 56 56 (4816896)
I0403 14:51:05.585335 11321 net.cpp:156] Memory required for data: 187860000
I0403 14:51:05.585350 11321 layer_factory.hpp:77] Creating layer pool1/norm1
I0403 14:51:05.585373 11321 net.cpp:91] Creating Layer pool1/norm1
I0403 14:51:05.585391 11321 net.cpp:425] pool1/norm1 <- pool1/3x3_s2
I0403 14:51:05.585407 11321 net.cpp:399] pool1/norm1 -> pool1/norm1
I0403 14:51:05.585691 11321 net.cpp:141] Setting up pool1/norm1
I0403 14:51:05.585718 11321 net.cpp:148] Top shape: 24 64 56 56 (4816896)
I0403 14:51:05.585734 11321 net.cpp:156] Memory required for data: 207127584
I0403 14:51:05.585748 11321 layer_factory.hpp:77] Creating layer conv2/3x3_reduce
I0403 14:51:05.585772 11321 net.cpp:91] Creating Layer conv2/3x3_reduce
I0403 14:51:05.585788 11321 net.cpp:425] conv2/3x3_reduce <- pool1/norm1
I0403 14:51:05.585805 11321 net.cpp:399] conv2/3x3_reduce -> conv2/3x3_reduce
I0403 14:51:05.587095 11321 net.cpp:141] Setting up conv2/3x3_reduce
I0403 14:51:05.587123 11321 net.cpp:148] Top shape: 24 64 56 56 (4816896)
I0403 14:51:05.587138 11321 net.cpp:156] Memory required for data: 226395168
I0403 14:51:05.587158 11321 layer_factory.hpp:77] Creating layer conv2/relu_3x3_reduce
I0403 14:51:05.587177 11321 net.cpp:91] Creating Layer conv2/relu_3x3_reduce
I0403 14:51:05.587191 11321 net.cpp:425] conv2/relu_3x3_reduce <- conv2/3x3_reduce
I0403 14:51:05.587208 11321 net.cpp:386] conv2/relu_3x3_reduce -> conv2/3x3_reduce (in-place)
I0403 14:51:05.587460 11321 net.cpp:141] Setting up conv2/relu_3x3_reduce
I0403 14:51:05.587486 11321 net.cpp:148] Top shape: 24 64 56 56 (4816896)
I0403 14:51:05.587501 11321 net.cpp:156] Memory required for data: 245662752
I0403 14:51:05.587515 11321 layer_factory.hpp:77] Creating layer conv2/3x3
I0403 14:51:05.587537 11321 net.cpp:91] Creating Layer conv2/3x3
I0403 14:51:05.587553 11321 net.cpp:425] conv2/3x3 <- conv2/3x3_reduce
I0403 14:51:05.587570 11321 net.cpp:399] conv2/3x3 -> conv2/3x3
I0403 14:51:05.589702 11321 net.cpp:141] Setting up conv2/3x3
I0403 14:51:05.589731 11321 net.cpp:148] Top shape: 24 192 56 56 (14450688)
I0403 14:51:05.589746 11321 net.cpp:156] Memory required for data: 303465504
I0403 14:51:05.589766 11321 layer_factory.hpp:77] Creating layer conv2/relu_3x3
I0403 14:51:05.589783 11321 net.cpp:91] Creating Layer conv2/relu_3x3
I0403 14:51:05.589798 11321 net.cpp:425] conv2/relu_3x3 <- conv2/3x3
I0403 14:51:05.589814 11321 net.cpp:386] conv2/relu_3x3 -> conv2/3x3 (in-place)
I0403 14:51:05.589967 11321 net.cpp:141] Setting up conv2/relu_3x3
I0403 14:51:05.589990 11321 net.cpp:148] Top shape: 24 192 56 56 (14450688)
I0403 14:51:05.590034 11321 net.cpp:156] Memory required for data: 361268256
I0403 14:51:05.590049 11321 layer_factory.hpp:77] Creating layer conv2/norm2
I0403 14:51:05.590067 11321 net.cpp:91] Creating Layer conv2/norm2
I0403 14:51:05.590083 11321 net.cpp:425] conv2/norm2 <- conv2/3x3
I0403 14:51:05.590100 11321 net.cpp:399] conv2/norm2 -> conv2/norm2
I0403 14:51:05.590373 11321 net.cpp:141] Setting up conv2/norm2
I0403 14:51:05.590399 11321 net.cpp:148] Top shape: 24 192 56 56 (14450688)
I0403 14:51:05.590416 11321 net.cpp:156] Memory required for data: 419071008
I0403 14:51:05.590431 11321 layer_factory.hpp:77] Creating layer pool2/3x3_s2
I0403 14:51:05.590448 11321 net.cpp:91] Creating Layer pool2/3x3_s2
I0403 14:51:05.590463 11321 net.cpp:425] pool2/3x3_s2 <- conv2/norm2
I0403 14:51:05.590481 11321 net.cpp:399] pool2/3x3_s2 -> pool2/3x3_s2
I0403 14:51:05.590528 11321 net.cpp:141] Setting up pool2/3x3_s2
I0403 14:51:05.590549 11321 net.cpp:148] Top shape: 24 192 28 28 (3612672)
I0403 14:51:05.590562 11321 net.cpp:156] Memory required for data: 433521696
I0403 14:51:05.590576 11321 layer_factory.hpp:77] Creating layer pool2/3x3_s2_pool2/3x3_s2_0_split
I0403 14:51:05.590593 11321 net.cpp:91] Creating Layer pool2/3x3_s2_pool2/3x3_s2_0_split
I0403 14:51:05.590607 11321 net.cpp:425] pool2/3x3_s2_pool2/3x3_s2_0_split <- pool2/3x3_s2
I0403 14:51:05.590625 11321 net.cpp:399] pool2/3x3_s2_pool2/3x3_s2_0_split -> pool2/3x3_s2_pool2/3x3_s2_0_split_0
I0403 14:51:05.590641 11321 net.cpp:399] pool2/3x3_s2_pool2/3x3_s2_0_split -> pool2/3x3_s2_pool2/3x3_s2_0_split_1
I0403 14:51:05.590659 11321 net.cpp:399] pool2/3x3_s2_pool2/3x3_s2_0_split -> pool2/3x3_s2_pool2/3x3_s2_0_split_2
I0403 14:51:05.590677 11321 net.cpp:399] pool2/3x3_s2_pool2/3x3_s2_0_split -> pool2/3x3_s2_pool2/3x3_s2_0_split_3
I0403 14:51:05.590737 11321 net.cpp:141] Setting up pool2/3x3_s2_pool2/3x3_s2_0_split
I0403 14:51:05.590759 11321 net.cpp:148] Top shape: 24 192 28 28 (3612672)
I0403 14:51:05.590773 11321 net.cpp:148] Top shape: 24 192 28 28 (3612672)
I0403 14:51:05.590788 11321 net.cpp:148] Top shape: 24 192 28 28 (3612672)
I0403 14:51:05.590804 11321 net.cpp:148] Top shape: 24 192 28 28 (3612672)
I0403 14:51:05.590817 11321 net.cpp:156] Memory required for data: 491324448
I0403 14:51:05.590831 11321 layer_factory.hpp:77] Creating layer inception_3a/1x1
I0403 14:51:05.590849 11321 net.cpp:91] Creating Layer inception_3a/1x1
I0403 14:51:05.590865 11321 net.cpp:425] inception_3a/1x1 <- pool2/3x3_s2_pool2/3x3_s2_0_split_0
I0403 14:51:05.590883 11321 net.cpp:399] inception_3a/1x1 -> inception_3a/1x1
I0403 14:51:05.592335 11321 net.cpp:141] Setting up inception_3a/1x1
I0403 14:51:05.592367 11321 net.cpp:148] Top shape: 24 64 28 28 (1204224)
I0403 14:51:05.592383 11321 net.cpp:156] Memory required for data: 496141344
I0403 14:51:05.592401 11321 layer_factory.hpp:77] Creating layer inception_3a/relu_1x1
I0403 14:51:05.592432 11321 net.cpp:91] Creating Layer inception_3a/relu_1x1
I0403 14:51:05.592448 11321 net.cpp:425] inception_3a/relu_1x1 <- inception_3a/1x1
I0403 14:51:05.592465 11321 net.cpp:386] inception_3a/relu_1x1 -> inception_3a/1x1 (in-place)
I0403 14:51:05.592638 11321 net.cpp:141] Setting up inception_3a/relu_1x1
I0403 14:51:05.592664 11321 net.cpp:148] Top shape: 24 64 28 28 (1204224)
I0403 14:51:05.592680 11321 net.cpp:156] Memory required for data: 500958240
I0403 14:51:05.592694 11321 layer_factory.hpp:77] Creating layer inception_3a/3x3_reduce
I0403 14:51:05.592716 11321 net.cpp:91] Creating Layer inception_3a/3x3_reduce
I0403 14:51:05.592733 11321 net.cpp:425] inception_3a/3x3_reduce <- pool2/3x3_s2_pool2/3x3_s2_0_split_1
I0403 14:51:05.592754 11321 net.cpp:399] inception_3a/3x3_reduce -> inception_3a/3x3_reduce
I0403 14:51:05.594408 11321 net.cpp:141] Setting up inception_3a/3x3_reduce
I0403 14:51:05.594444 11321 net.cpp:148] Top shape: 24 96 28 28 (1806336)
I0403 14:51:05.594460 11321 net.cpp:156] Memory required for data: 508183584
I0403 14:51:05.594480 11321 layer_factory.hpp:77] Creating layer inception_3a/relu_3x3_reduce
I0403 14:51:05.594516 11321 net.cpp:91] Creating Layer inception_3a/relu_3x3_reduce
I0403 14:51:05.594533 11321 net.cpp:425] inception_3a/relu_3x3_reduce <- inception_3a/3x3_reduce
I0403 14:51:05.594552 11321 net.cpp:386] inception_3a/relu_3x3_reduce -> inception_3a/3x3_reduce (in-place)
I0403 14:51:05.594732 11321 net.cpp:141] Setting up inception_3a/relu_3x3_reduce
I0403 14:51:05.594758 11321 net.cpp:148] Top shape: 24 96 28 28 (1806336)
I0403 14:51:05.594771 11321 net.cpp:156] Memory required for data: 515408928
I0403 14:51:05.594785 11321 layer_factory.hpp:77] Creating layer inception_3a/3x3
I0403 14:51:05.594807 11321 net.cpp:91] Creating Layer inception_3a/3x3
I0403 14:51:05.594826 11321 net.cpp:425] inception_3a/3x3 <- inception_3a/3x3_reduce
I0403 14:51:05.594844 11321 net.cpp:399] inception_3a/3x3 -> inception_3a/3x3
I0403 14:51:05.596473 11321 net.cpp:141] Setting up inception_3a/3x3
I0403 14:51:05.596503 11321 net.cpp:148] Top shape: 24 128 28 28 (2408448)
I0403 14:51:05.596518 11321 net.cpp:156] Memory required for data: 525042720
I0403 14:51:05.596534 11321 layer_factory.hpp:77] Creating layer inception_3a/relu_3x3
I0403 14:51:05.596552 11321 net.cpp:91] Creating Layer inception_3a/relu_3x3
I0403 14:51:05.596568 11321 net.cpp:425] inception_3a/relu_3x3 <- inception_3a/3x3
I0403 14:51:05.596587 11321 net.cpp:386] inception_3a/relu_3x3 -> inception_3a/3x3 (in-place)
I0403 14:51:05.596860 11321 net.cpp:141] Setting up inception_3a/relu_3x3
I0403 14:51:05.596889 11321 net.cpp:148] Top shape: 24 128 28 28 (2408448)
I0403 14:51:05.596904 11321 net.cpp:156] Memory required for data: 534676512
I0403 14:51:05.596918 11321 layer_factory.hpp:77] Creating layer inception_3a/5x5_reduce
I0403 14:51:05.596940 11321 net.cpp:91] Creating Layer inception_3a/5x5_reduce
I0403 14:51:05.596958 11321 net.cpp:425] inception_3a/5x5_reduce <- pool2/3x3_s2_pool2/3x3_s2_0_split_2
I0403 14:51:05.596978 11321 net.cpp:399] inception_3a/5x5_reduce -> inception_3a/5x5_reduce
I0403 14:51:05.597926 11321 net.cpp:141] Setting up inception_3a/5x5_reduce
I0403 14:51:05.597954 11321 net.cpp:148] Top shape: 24 16 28 28 (301056)
I0403 14:51:05.597968 11321 net.cpp:156] Memory required for data: 535880736
I0403 14:51:05.597986 11321 layer_factory.hpp:77] Creating layer inception_3a/relu_5x5_reduce
I0403 14:51:05.598004 11321 net.cpp:91] Creating Layer inception_3a/relu_5x5_reduce
I0403 14:51:05.598019 11321 net.cpp:425] inception_3a/relu_5x5_reduce <- inception_3a/5x5_reduce
I0403 14:51:05.598039 11321 net.cpp:386] inception_3a/relu_5x5_reduce -> inception_3a/5x5_reduce (in-place)
I0403 14:51:05.598337 11321 net.cpp:141] Setting up inception_3a/relu_5x5_reduce
I0403 14:51:05.598366 11321 net.cpp:148] Top shape: 24 16 28 28 (301056)
I0403 14:51:05.598381 11321 net.cpp:156] Memory required for data: 537084960
I0403 14:51:05.598394 11321 layer_factory.hpp:77] Creating layer inception_3a/5x5
I0403 14:51:05.598420 11321 net.cpp:91] Creating Layer inception_3a/5x5
I0403 14:51:05.598438 11321 net.cpp:425] inception_3a/5x5 <- inception_3a/5x5_reduce
I0403 14:51:05.598459 11321 net.cpp:399] inception_3a/5x5 -> inception_3a/5x5
I0403 14:51:05.599458 11321 net.cpp:141] Setting up inception_3a/5x5
I0403 14:51:05.599488 11321 net.cpp:148] Top shape: 24 32 28 28 (602112)
I0403 14:51:05.599504 11321 net.cpp:156] Memory required for data: 539493408
I0403 14:51:05.599522 11321 layer_factory.hpp:77] Creating layer inception_3a/relu_5x5
I0403 14:51:05.599539 11321 net.cpp:91] Creating Layer inception_3a/relu_5x5
I0403 14:51:05.599555 11321 net.cpp:425] inception_3a/relu_5x5 <- inception_3a/5x5
I0403 14:51:05.599572 11321 net.cpp:386] inception_3a/relu_5x5 -> inception_3a/5x5 (in-place)
I0403 14:51:05.599762 11321 net.cpp:141] Setting up inception_3a/relu_5x5
I0403 14:51:05.599786 11321 net.cpp:148] Top shape: 24 32 28 28 (602112)
I0403 14:51:05.599802 11321 net.cpp:156] Memory required for data: 541901856
I0403 14:51:05.599817 11321 layer_factory.hpp:77] Creating layer inception_3a/pool
I0403 14:51:05.599834 11321 net.cpp:91] Creating Layer inception_3a/pool
I0403 14:51:05.599865 11321 net.cpp:425] inception_3a/pool <- pool2/3x3_s2_pool2/3x3_s2_0_split_3
I0403 14:51:05.599887 11321 net.cpp:399] inception_3a/pool -> inception_3a/pool
I0403 14:51:05.599946 11321 net.cpp:141] Setting up inception_3a/pool
I0403 14:51:05.599972 11321 net.cpp:148] Top shape: 24 192 28 28 (3612672)
I0403 14:51:05.599987 11321 net.cpp:156] Memory required for data: 556352544
I0403 14:51:05.600003 11321 layer_factory.hpp:77] Creating layer inception_3a/pool_proj
I0403 14:51:05.600025 11321 net.cpp:91] Creating Layer inception_3a/pool_proj
I0403 14:51:05.600044 11321 net.cpp:425] inception_3a/pool_proj <- inception_3a/pool
I0403 14:51:05.600061 11321 net.cpp:399] inception_3a/pool_proj -> inception_3a/pool_proj
I0403 14:51:05.601034 11321 net.cpp:141] Setting up inception_3a/pool_proj
I0403 14:51:05.601063 11321 net.cpp:148] Top shape: 24 32 28 28 (602112)
I0403 14:51:05.601078 11321 net.cpp:156] Memory required for data: 558760992
I0403 14:51:05.601101 11321 layer_factory.hpp:77] Creating layer inception_3a/relu_pool_proj
I0403 14:51:05.601121 11321 net.cpp:91] Creating Layer inception_3a/relu_pool_proj
I0403 14:51:05.601138 11321 net.cpp:425] inception_3a/relu_pool_proj <- inception_3a/pool_proj
I0403 14:51:05.601158 11321 net.cpp:386] inception_3a/relu_pool_proj -> inception_3a/pool_proj (in-place)
I0403 14:51:05.601447 11321 net.cpp:141] Setting up inception_3a/relu_pool_proj
I0403 14:51:05.601475 11321 net.cpp:148] Top shape: 24 32 28 28 (602112)
I0403 14:51:05.601490 11321 net.cpp:156] Memory required for data: 561169440
I0403 14:51:05.601505 11321 layer_factory.hpp:77] Creating layer inception_3a/output
I0403 14:51:05.601522 11321 net.cpp:91] Creating Layer inception_3a/output
I0403 14:51:05.601537 11321 net.cpp:425] inception_3a/output <- inception_3a/1x1
I0403 14:51:05.601553 11321 net.cpp:425] inception_3a/output <- inception_3a/3x3
I0403 14:51:05.601568 11321 net.cpp:425] inception_3a/output <- inception_3a/5x5
I0403 14:51:05.601583 11321 net.cpp:425] inception_3a/output <- inception_3a/pool_proj
I0403 14:51:05.601600 11321 net.cpp:399] inception_3a/output -> inception_3a/output
I0403 14:51:05.601646 11321 net.cpp:141] Setting up inception_3a/output
I0403 14:51:05.601668 11321 net.cpp:148] Top shape: 24 256 28 28 (4816896)
I0403 14:51:05.601682 11321 net.cpp:156] Memory required for data: 580437024
I0403 14:51:05.601696 11321 layer_factory.hpp:77] Creating layer inception_3a/output_inception_3a/output_0_split
I0403 14:51:05.601716 11321 net.cpp:91] Creating Layer inception_3a/output_inception_3a/output_0_split
I0403 14:51:05.601732 11321 net.cpp:425] inception_3a/output_inception_3a/output_0_split <- inception_3a/output
I0403 14:51:05.601748 11321 net.cpp:399] inception_3a/output_inception_3a/output_0_split -> inception_3a/output_inception_3a/output_0_split_0
I0403 14:51:05.601768 11321 net.cpp:399] inception_3a/output_inception_3a/output_0_split -> inception_3a/output_inception_3a/output_0_split_1
I0403 14:51:05.601790 11321 net.cpp:399] inception_3a/output_inception_3a/output_0_split -> inception_3a/output_inception_3a/output_0_split_2
I0403 14:51:05.601811 11321 net.cpp:399] inception_3a/output_inception_3a/output_0_split -> inception_3a/output_inception_3a/output_0_split_3
I0403 14:51:05.601883 11321 net.cpp:141] Setting up inception_3a/output_inception_3a/output_0_split
I0403 14:51:05.601905 11321 net.cpp:148] Top shape: 24 256 28 28 (4816896)
I0403 14:51:05.601922 11321 net.cpp:148] Top shape: 24 256 28 28 (4816896)
I0403 14:51:05.601936 11321 net.cpp:148] Top shape: 24 256 28 28 (4816896)
I0403 14:51:05.601951 11321 net.cpp:148] Top shape: 24 256 28 28 (4816896)
I0403 14:51:05.601965 11321 net.cpp:156] Memory required for data: 657507360
I0403 14:51:05.601979 11321 layer_factory.hpp:77] Creating layer inception_3b/1x1
I0403 14:51:05.602002 11321 net.cpp:91] Creating Layer inception_3b/1x1
I0403 14:51:05.602020 11321 net.cpp:425] inception_3b/1x1 <- inception_3a/output_inception_3a/output_0_split_0
I0403 14:51:05.602038 11321 net.cpp:399] inception_3b/1x1 -> inception_3b/1x1
I0403 14:51:05.603158 11321 net.cpp:141] Setting up inception_3b/1x1
I0403 14:51:05.603198 11321 net.cpp:148] Top shape: 24 128 28 28 (2408448)
I0403 14:51:05.603214 11321 net.cpp:156] Memory required for data: 667141152
I0403 14:51:05.603230 11321 layer_factory.hpp:77] Creating layer inception_3b/relu_1x1
I0403 14:51:05.603250 11321 net.cpp:91] Creating Layer inception_3b/relu_1x1
I0403 14:51:05.603266 11321 net.cpp:425] inception_3b/relu_1x1 <- inception_3b/1x1
I0403 14:51:05.603284 11321 net.cpp:386] inception_3b/relu_1x1 -> inception_3b/1x1 (in-place)
I0403 14:51:05.603461 11321 net.cpp:141] Setting up inception_3b/relu_1x1
I0403 14:51:05.603485 11321 net.cpp:148] Top shape: 24 128 28 28 (2408448)
I0403 14:51:05.603499 11321 net.cpp:156] Memory required for data: 676774944
I0403 14:51:05.603514 11321 layer_factory.hpp:77] Creating layer inception_3b/3x3_reduce
I0403 14:51:05.603535 11321 net.cpp:91] Creating Layer inception_3b/3x3_reduce
I0403 14:51:05.603554 11321 net.cpp:425] inception_3b/3x3_reduce <- inception_3a/output_inception_3a/output_0_split_1
I0403 14:51:05.603574 11321 net.cpp:399] inception_3b/3x3_reduce -> inception_3b/3x3_reduce
I0403 14:51:05.604686 11321 net.cpp:141] Setting up inception_3b/3x3_reduce
I0403 14:51:05.604713 11321 net.cpp:148] Top shape: 24 128 28 28 (2408448)
I0403 14:51:05.604732 11321 net.cpp:156] Memory required for data: 686408736
I0403 14:51:05.604749 11321 layer_factory.hpp:77] Creating layer inception_3b/relu_3x3_reduce
I0403 14:51:05.604768 11321 net.cpp:91] Creating Layer inception_3b/relu_3x3_reduce
I0403 14:51:05.604784 11321 net.cpp:425] inception_3b/relu_3x3_reduce <- inception_3b/3x3_reduce
I0403 14:51:05.604800 11321 net.cpp:386] inception_3b/relu_3x3_reduce -> inception_3b/3x3_reduce (in-place)
I0403 14:51:05.604970 11321 net.cpp:141] Setting up inception_3b/relu_3x3_reduce
I0403 14:51:05.604996 11321 net.cpp:148] Top shape: 24 128 28 28 (2408448)
I0403 14:51:05.605011 11321 net.cpp:156] Memory required for data: 696042528
I0403 14:51:05.605026 11321 layer_factory.hpp:77] Creating layer inception_3b/3x3
I0403 14:51:05.605051 11321 net.cpp:91] Creating Layer inception_3b/3x3
I0403 14:51:05.605068 11321 net.cpp:425] inception_3b/3x3 <- inception_3b/3x3_reduce
I0403 14:51:05.605088 11321 net.cpp:399] inception_3b/3x3 -> inception_3b/3x3
I0403 14:51:05.607951 11321 net.cpp:141] Setting up inception_3b/3x3
I0403 14:51:05.607980 11321 net.cpp:148] Top shape: 24 192 28 28 (3612672)
I0403 14:51:05.607995 11321 net.cpp:156] Memory required for data: 710493216
I0403 14:51:05.608013 11321 layer_factory.hpp:77] Creating layer inception_3b/relu_3x3
I0403 14:51:05.608031 11321 net.cpp:91] Creating Layer inception_3b/relu_3x3
I0403 14:51:05.608047 11321 net.cpp:425] inception_3b/relu_3x3 <- inception_3b/3x3
I0403 14:51:05.608065 11321 net.cpp:386] inception_3b/relu_3x3 -> inception_3b/3x3 (in-place)
I0403 14:51:05.608336 11321 net.cpp:141] Setting up inception_3b/relu_3x3
I0403 14:51:05.608366 11321 net.cpp:148] Top shape: 24 192 28 28 (3612672)
I0403 14:51:05.608381 11321 net.cpp:156] Memory required for data: 724943904
I0403 14:51:05.608397 11321 layer_factory.hpp:77] Creating layer inception_3b/5x5_reduce
I0403 14:51:05.608422 11321 net.cpp:91] Creating Layer inception_3b/5x5_reduce
I0403 14:51:05.608440 11321 net.cpp:425] inception_3b/5x5_reduce <- inception_3a/output_inception_3a/output_0_split_2
I0403 14:51:05.608463 11321 net.cpp:399] inception_3b/5x5_reduce -> inception_3b/5x5_reduce
I0403 14:51:05.609431 11321 net.cpp:141] Setting up inception_3b/5x5_reduce
I0403 14:51:05.609460 11321 net.cpp:148] Top shape: 24 32 28 28 (602112)
I0403 14:51:05.609475 11321 net.cpp:156] Memory required for data: 727352352
I0403 14:51:05.609493 11321 layer_factory.hpp:77] Creating layer inception_3b/relu_5x5_reduce
I0403 14:51:05.609511 11321 net.cpp:91] Creating Layer inception_3b/relu_5x5_reduce
I0403 14:51:05.609526 11321 net.cpp:425] inception_3b/relu_5x5_reduce <- inception_3b/5x5_reduce
I0403 14:51:05.609544 11321 net.cpp:386] inception_3b/relu_5x5_reduce -> inception_3b/5x5_reduce (in-place)
I0403 14:51:05.609731 11321 net.cpp:141] Setting up inception_3b/relu_5x5_reduce
I0403 14:51:05.609768 11321 net.cpp:148] Top shape: 24 32 28 28 (602112)
I0403 14:51:05.609783 11321 net.cpp:156] Memory required for data: 729760800
I0403 14:51:05.609798 11321 layer_factory.hpp:77] Creating layer inception_3b/5x5
I0403 14:51:05.609822 11321 net.cpp:91] Creating Layer inception_3b/5x5
I0403 14:51:05.609838 11321 net.cpp:425] inception_3b/5x5 <- inception_3b/5x5_reduce
I0403 14:51:05.609859 11321 net.cpp:399] inception_3b/5x5 -> inception_3b/5x5
I0403 14:51:05.611793 11321 net.cpp:141] Setting up inception_3b/5x5
I0403 14:51:05.611820 11321 net.cpp:148] Top shape: 24 96 28 28 (1806336)
I0403 14:51:05.611835 11321 net.cpp:156] Memory required for data: 736986144
I0403 14:51:05.611852 11321 layer_factory.hpp:77] Creating layer inception_3b/relu_5x5
I0403 14:51:05.611872 11321 net.cpp:91] Creating Layer inception_3b/relu_5x5
I0403 14:51:05.611887 11321 net.cpp:425] inception_3b/relu_5x5 <- inception_3b/5x5
I0403 14:51:05.611904 11321 net.cpp:386] inception_3b/relu_5x5 -> inception_3b/5x5 (in-place)
I0403 14:51:05.612087 11321 net.cpp:141] Setting up inception_3b/relu_5x5
I0403 14:51:05.612109 11321 net.cpp:148] Top shape: 24 96 28 28 (1806336)
I0403 14:51:05.612123 11321 net.cpp:156] Memory required for data: 744211488
I0403 14:51:05.612138 11321 layer_factory.hpp:77] Creating layer inception_3b/pool
I0403 14:51:05.612154 11321 net.cpp:91] Creating Layer inception_3b/pool
I0403 14:51:05.612169 11321 net.cpp:425] inception_3b/pool <- inception_3a/output_inception_3a/output_0_split_3
I0403 14:51:05.612186 11321 net.cpp:399] inception_3b/pool -> inception_3b/pool
I0403 14:51:05.612239 11321 net.cpp:141] Setting up inception_3b/pool
I0403 14:51:05.612260 11321 net.cpp:148] Top shape: 24 256 28 28 (4816896)
I0403 14:51:05.612274 11321 net.cpp:156] Memory required for data: 763479072
I0403 14:51:05.612287 11321 layer_factory.hpp:77] Creating layer inception_3b/pool_proj
I0403 14:51:05.612309 11321 net.cpp:91] Creating Layer inception_3b/pool_proj
I0403 14:51:05.612326 11321 net.cpp:425] inception_3b/pool_proj <- inception_3b/pool
I0403 14:51:05.612346 11321 net.cpp:399] inception_3b/pool_proj -> inception_3b/pool_proj
I0403 14:51:05.613368 11321 net.cpp:141] Setting up inception_3b/pool_proj
I0403 14:51:05.613395 11321 net.cpp:148] Top shape: 24 64 28 28 (1204224)
I0403 14:51:05.613414 11321 net.cpp:156] Memory required for data: 768295968
I0403 14:51:05.613432 11321 layer_factory.hpp:77] Creating layer inception_3b/relu_pool_proj
I0403 14:51:05.613452 11321 net.cpp:91] Creating Layer inception_3b/relu_pool_proj
I0403 14:51:05.613468 11321 net.cpp:425] inception_3b/relu_pool_proj <- inception_3b/pool_proj
I0403 14:51:05.613486 11321 net.cpp:386] inception_3b/relu_pool_proj -> inception_3b/pool_proj (in-place)
I0403 14:51:05.613874 11321 net.cpp:141] Setting up inception_3b/relu_pool_proj
I0403 14:51:05.613899 11321 net.cpp:148] Top shape: 24 64 28 28 (1204224)
I0403 14:51:05.613914 11321 net.cpp:156] Memory required for data: 773112864
I0403 14:51:05.613927 11321 layer_factory.hpp:77] Creating layer inception_3b/output
I0403 14:51:05.613945 11321 net.cpp:91] Creating Layer inception_3b/output
I0403 14:51:05.613958 11321 net.cpp:425] inception_3b/output <- inception_3b/1x1
I0403 14:51:05.613973 11321 net.cpp:425] inception_3b/output <- inception_3b/3x3
I0403 14:51:05.613988 11321 net.cpp:425] inception_3b/output <- inception_3b/5x5
I0403 14:51:05.614003 11321 net.cpp:425] inception_3b/output <- inception_3b/pool_proj
I0403 14:51:05.614022 11321 net.cpp:399] inception_3b/output -> inception_3b/output
I0403 14:51:05.614064 11321 net.cpp:141] Setting up inception_3b/output
I0403 14:51:05.614090 11321 net.cpp:148] Top shape: 24 480 28 28 (9031680)
I0403 14:51:05.614105 11321 net.cpp:156] Memory required for data: 809239584
I0403 14:51:05.614120 11321 layer_factory.hpp:77] Creating layer pool3/3x3_s2
I0403 14:51:05.614136 11321 net.cpp:91] Creating Layer pool3/3x3_s2
I0403 14:51:05.614151 11321 net.cpp:425] pool3/3x3_s2 <- inception_3b/output
I0403 14:51:05.614182 11321 net.cpp:399] pool3/3x3_s2 -> pool3/3x3_s2
I0403 14:51:05.614239 11321 net.cpp:141] Setting up pool3/3x3_s2
I0403 14:51:05.614261 11321 net.cpp:148] Top shape: 24 480 14 14 (2257920)
I0403 14:51:05.614275 11321 net.cpp:156] Memory required for data: 818271264
I0403 14:51:05.614289 11321 layer_factory.hpp:77] Creating layer pool3/3x3_s2_pool3/3x3_s2_0_split
I0403 14:51:05.614307 11321 net.cpp:91] Creating Layer pool3/3x3_s2_pool3/3x3_s2_0_split
I0403 14:51:05.614322 11321 net.cpp:425] pool3/3x3_s2_pool3/3x3_s2_0_split <- pool3/3x3_s2
I0403 14:51:05.614339 11321 net.cpp:399] pool3/3x3_s2_pool3/3x3_s2_0_split -> pool3/3x3_s2_pool3/3x3_s2_0_split_0
I0403 14:51:05.614358 11321 net.cpp:399] pool3/3x3_s2_pool3/3x3_s2_0_split -> pool3/3x3_s2_pool3/3x3_s2_0_split_1
I0403 14:51:05.614375 11321 net.cpp:399] pool3/3x3_s2_pool3/3x3_s2_0_split -> pool3/3x3_s2_pool3/3x3_s2_0_split_2
I0403 14:51:05.614397 11321 net.cpp:399] pool3/3x3_s2_pool3/3x3_s2_0_split -> pool3/3x3_s2_pool3/3x3_s2_0_split_3
I0403 14:51:05.614472 11321 net.cpp:141] Setting up pool3/3x3_s2_pool3/3x3_s2_0_split
I0403 14:51:05.614495 11321 net.cpp:148] Top shape: 24 480 14 14 (2257920)
I0403 14:51:05.614511 11321 net.cpp:148] Top shape: 24 480 14 14 (2257920)
I0403 14:51:05.614524 11321 net.cpp:148] Top shape: 24 480 14 14 (2257920)
I0403 14:51:05.614538 11321 net.cpp:148] Top shape: 24 480 14 14 (2257920)
I0403 14:51:05.614552 11321 net.cpp:156] Memory required for data: 854397984
I0403 14:51:05.614565 11321 layer_factory.hpp:77] Creating layer inception_4a/1x1
I0403 14:51:05.614586 11321 net.cpp:91] Creating Layer inception_4a/1x1
I0403 14:51:05.614603 11321 net.cpp:425] inception_4a/1x1 <- pool3/3x3_s2_pool3/3x3_s2_0_split_0
I0403 14:51:05.614622 11321 net.cpp:399] inception_4a/1x1 -> inception_4a/1x1
I0403 14:51:05.616117 11321 net.cpp:141] Setting up inception_4a/1x1
I0403 14:51:05.616142 11321 net.cpp:148] Top shape: 24 192 14 14 (903168)
I0403 14:51:05.616158 11321 net.cpp:156] Memory required for data: 858010656
I0403 14:51:05.616174 11321 layer_factory.hpp:77] Creating layer inception_4a/relu_1x1
I0403 14:51:05.616194 11321 net.cpp:91] Creating Layer inception_4a/relu_1x1
I0403 14:51:05.616209 11321 net.cpp:425] inception_4a/relu_1x1 <- inception_4a/1x1
I0403 14:51:05.616226 11321 net.cpp:386] inception_4a/relu_1x1 -> inception_4a/1x1 (in-place)
I0403 14:51:05.616396 11321 net.cpp:141] Setting up inception_4a/relu_1x1
I0403 14:51:05.616423 11321 net.cpp:148] Top shape: 24 192 14 14 (903168)
I0403 14:51:05.616438 11321 net.cpp:156] Memory required for data: 861623328
I0403 14:51:05.616452 11321 layer_factory.hpp:77] Creating layer inception_4a/3x3_reduce
I0403 14:51:05.616477 11321 net.cpp:91] Creating Layer inception_4a/3x3_reduce
I0403 14:51:05.616494 11321 net.cpp:425] inception_4a/3x3_reduce <- pool3/3x3_s2_pool3/3x3_s2_0_split_1
I0403 14:51:05.616513 11321 net.cpp:399] inception_4a/3x3_reduce -> inception_4a/3x3_reduce
I0403 14:51:05.617730 11321 net.cpp:141] Setting up inception_4a/3x3_reduce
I0403 14:51:05.617756 11321 net.cpp:148] Top shape: 24 96 14 14 (451584)
I0403 14:51:05.617770 11321 net.cpp:156] Memory required for data: 863429664
I0403 14:51:05.617794 11321 layer_factory.hpp:77] Creating layer inception_4a/relu_3x3_reduce
I0403 14:51:05.617813 11321 net.cpp:91] Creating Layer inception_4a/relu_3x3_reduce
I0403 14:51:05.617828 11321 net.cpp:425] inception_4a/relu_3x3_reduce <- inception_4a/3x3_reduce
I0403 14:51:05.617847 11321 net.cpp:386] inception_4a/relu_3x3_reduce -> inception_4a/3x3_reduce (in-place)
I0403 14:51:05.618018 11321 net.cpp:141] Setting up inception_4a/relu_3x3_reduce
I0403 14:51:05.618041 11321 net.cpp:148] Top shape: 24 96 14 14 (451584)
I0403 14:51:05.618054 11321 net.cpp:156] Memory required for data: 865236000
I0403 14:51:05.618069 11321 layer_factory.hpp:77] Creating layer inception_4a/3x3
I0403 14:51:05.618090 11321 net.cpp:91] Creating Layer inception_4a/3x3
I0403 14:51:05.618108 11321 net.cpp:425] inception_4a/3x3 <- inception_4a/3x3_reduce
I0403 14:51:05.618127 11321 net.cpp:399] inception_4a/3x3 -> inception_4a/3x3
I0403 14:51:05.620690 11321 net.cpp:141] Setting up inception_4a/3x3
I0403 14:51:05.620719 11321 net.cpp:148] Top shape: 24 208 14 14 (978432)
I0403 14:51:05.620736 11321 net.cpp:156] Memory required for data: 869149728
I0403 14:51:05.620754 11321 layer_factory.hpp:77] Creating layer inception_4a/relu_3x3
I0403 14:51:05.620770 11321 net.cpp:91] Creating Layer inception_4a/relu_3x3
I0403 14:51:05.620785 11321 net.cpp:425] inception_4a/relu_3x3 <- inception_4a/3x3
I0403 14:51:05.620801 11321 net.cpp:386] inception_4a/relu_3x3 -> inception_4a/3x3 (in-place)
I0403 14:51:05.621069 11321 net.cpp:141] Setting up inception_4a/relu_3x3
I0403 14:51:05.621096 11321 net.cpp:148] Top shape: 24 208 14 14 (978432)
I0403 14:51:05.621112 11321 net.cpp:156] Memory required for data: 873063456
I0403 14:51:05.621126 11321 layer_factory.hpp:77] Creating layer inception_4a/5x5_reduce
I0403 14:51:05.621146 11321 net.cpp:91] Creating Layer inception_4a/5x5_reduce
I0403 14:51:05.621162 11321 net.cpp:425] inception_4a/5x5_reduce <- pool3/3x3_s2_pool3/3x3_s2_0_split_2
I0403 14:51:05.621182 11321 net.cpp:399] inception_4a/5x5_reduce -> inception_4a/5x5_reduce
I0403 14:51:05.622161 11321 net.cpp:141] Setting up inception_4a/5x5_reduce
I0403 14:51:05.622190 11321 net.cpp:148] Top shape: 24 16 14 14 (75264)
I0403 14:51:05.622206 11321 net.cpp:156] Memory required for data: 873364512
I0403 14:51:05.622225 11321 layer_factory.hpp:77] Creating layer inception_4a/relu_5x5_reduce
I0403 14:51:05.622241 11321 net.cpp:91] Creating Layer inception_4a/relu_5x5_reduce
I0403 14:51:05.622257 11321 net.cpp:425] inception_4a/relu_5x5_reduce <- inception_4a/5x5_reduce
I0403 14:51:05.622273 11321 net.cpp:386] inception_4a/relu_5x5_reduce -> inception_4a/5x5_reduce (in-place)
I0403 14:51:05.622462 11321 net.cpp:141] Setting up inception_4a/relu_5x5_reduce
I0403 14:51:05.622486 11321 net.cpp:148] Top shape: 24 16 14 14 (75264)
I0403 14:51:05.622500 11321 net.cpp:156] Memory required for data: 873665568
I0403 14:51:05.622514 11321 layer_factory.hpp:77] Creating layer inception_4a/5x5
I0403 14:51:05.622535 11321 net.cpp:91] Creating Layer inception_4a/5x5
I0403 14:51:05.622552 11321 net.cpp:425] inception_4a/5x5 <- inception_4a/5x5_reduce
I0403 14:51:05.622572 11321 net.cpp:399] inception_4a/5x5 -> inception_4a/5x5
I0403 14:51:05.623615 11321 net.cpp:141] Setting up inception_4a/5x5
I0403 14:51:05.623642 11321 net.cpp:148] Top shape: 24 48 14 14 (225792)
I0403 14:51:05.623656 11321 net.cpp:156] Memory required for data: 874568736
I0403 14:51:05.623673 11321 layer_factory.hpp:77] Creating layer inception_4a/relu_5x5
I0403 14:51:05.623690 11321 net.cpp:91] Creating Layer inception_4a/relu_5x5
I0403 14:51:05.623705 11321 net.cpp:425] inception_4a/relu_5x5 <- inception_4a/5x5
I0403 14:51:05.623723 11321 net.cpp:386] inception_4a/relu_5x5 -> inception_4a/5x5 (in-place)
I0403 14:51:05.623899 11321 net.cpp:141] Setting up inception_4a/relu_5x5
I0403 14:51:05.623924 11321 net.cpp:148] Top shape: 24 48 14 14 (225792)
I0403 14:51:05.623937 11321 net.cpp:156] Memory required for data: 875471904
I0403 14:51:05.623951 11321 layer_factory.hpp:77] Creating layer inception_4a/pool
I0403 14:51:05.623970 11321 net.cpp:91] Creating Layer inception_4a/pool
I0403 14:51:05.623987 11321 net.cpp:425] inception_4a/pool <- pool3/3x3_s2_pool3/3x3_s2_0_split_3
I0403 14:51:05.624003 11321 net.cpp:399] inception_4a/pool -> inception_4a/pool
I0403 14:51:05.624063 11321 net.cpp:141] Setting up inception_4a/pool
I0403 14:51:05.624085 11321 net.cpp:148] Top shape: 24 480 14 14 (2257920)
I0403 14:51:05.624099 11321 net.cpp:156] Memory required for data: 884503584
I0403 14:51:05.624112 11321 layer_factory.hpp:77] Creating layer inception_4a/pool_proj
I0403 14:51:05.624133 11321 net.cpp:91] Creating Layer inception_4a/pool_proj
I0403 14:51:05.624150 11321 net.cpp:425] inception_4a/pool_proj <- inception_4a/pool
I0403 14:51:05.624171 11321 net.cpp:399] inception_4a/pool_proj -> inception_4a/pool_proj
I0403 14:51:05.625367 11321 net.cpp:141] Setting up inception_4a/pool_proj
I0403 14:51:05.625396 11321 net.cpp:148] Top shape: 24 64 14 14 (301056)
I0403 14:51:05.625432 11321 net.cpp:156] Memory required for data: 885707808
I0403 14:51:05.625450 11321 layer_factory.hpp:77] Creating layer inception_4a/relu_pool_proj
I0403 14:51:05.625473 11321 net.cpp:91] Creating Layer inception_4a/relu_pool_proj
I0403 14:51:05.625488 11321 net.cpp:425] inception_4a/relu_pool_proj <- inception_4a/pool_proj
I0403 14:51:05.625505 11321 net.cpp:386] inception_4a/relu_pool_proj -> inception_4a/pool_proj (in-place)
I0403 14:51:05.625788 11321 net.cpp:141] Setting up inception_4a/relu_pool_proj
I0403 14:51:05.625814 11321 net.cpp:148] Top shape: 24 64 14 14 (301056)
I0403 14:51:05.625829 11321 net.cpp:156] Memory required for data: 886912032
I0403 14:51:05.625844 11321 layer_factory.hpp:77] Creating layer inception_4a/output
I0403 14:51:05.625861 11321 net.cpp:91] Creating Layer inception_4a/output
I0403 14:51:05.625876 11321 net.cpp:425] inception_4a/output <- inception_4a/1x1
I0403 14:51:05.625892 11321 net.cpp:425] inception_4a/output <- inception_4a/3x3
I0403 14:51:05.625907 11321 net.cpp:425] inception_4a/output <- inception_4a/5x5
I0403 14:51:05.625922 11321 net.cpp:425] inception_4a/output <- inception_4a/pool_proj
I0403 14:51:05.625941 11321 net.cpp:399] inception_4a/output -> inception_4a/output
I0403 14:51:05.625988 11321 net.cpp:141] Setting up inception_4a/output
I0403 14:51:05.626010 11321 net.cpp:148] Top shape: 24 512 14 14 (2408448)
I0403 14:51:05.626024 11321 net.cpp:156] Memory required for data: 896545824
I0403 14:51:05.626039 11321 layer_factory.hpp:77] Creating layer inception_4a/output_inception_4a/output_0_split
I0403 14:51:05.626056 11321 net.cpp:91] Creating Layer inception_4a/output_inception_4a/output_0_split
I0403 14:51:05.626071 11321 net.cpp:425] inception_4a/output_inception_4a/output_0_split <- inception_4a/output
I0403 14:51:05.626091 11321 net.cpp:399] inception_4a/output_inception_4a/output_0_split -> inception_4a/output_inception_4a/output_0_split_0
I0403 14:51:05.626112 11321 net.cpp:399] inception_4a/output_inception_4a/output_0_split -> inception_4a/output_inception_4a/output_0_split_1
I0403 14:51:05.626132 11321 net.cpp:399] inception_4a/output_inception_4a/output_0_split -> inception_4a/output_inception_4a/output_0_split_2
I0403 14:51:05.626152 11321 net.cpp:399] inception_4a/output_inception_4a/output_0_split -> inception_4a/output_inception_4a/output_0_split_3
I0403 14:51:05.626170 11321 net.cpp:399] inception_4a/output_inception_4a/output_0_split -> inception_4a/output_inception_4a/output_0_split_4
I0403 14:51:05.626260 11321 net.cpp:141] Setting up inception_4a/output_inception_4a/output_0_split
I0403 14:51:05.626284 11321 net.cpp:148] Top shape: 24 512 14 14 (2408448)
I0403 14:51:05.626302 11321 net.cpp:148] Top shape: 24 512 14 14 (2408448)
I0403 14:51:05.626317 11321 net.cpp:148] Top shape: 24 512 14 14 (2408448)
I0403 14:51:05.626330 11321 net.cpp:148] Top shape: 24 512 14 14 (2408448)
I0403 14:51:05.626345 11321 net.cpp:148] Top shape: 24 512 14 14 (2408448)
I0403 14:51:05.626359 11321 net.cpp:156] Memory required for data: 944714784
I0403 14:51:05.626374 11321 layer_factory.hpp:77] Creating layer loss1/ave_pool
I0403 14:51:05.626391 11321 net.cpp:91] Creating Layer loss1/ave_pool
I0403 14:51:05.626406 11321 net.cpp:425] loss1/ave_pool <- inception_4a/output_inception_4a/output_0_split_0
I0403 14:51:05.626431 11321 net.cpp:399] loss1/ave_pool -> loss1/ave_pool
I0403 14:51:05.626636 11321 net.cpp:141] Setting up loss1/ave_pool
I0403 14:51:05.626660 11321 net.cpp:148] Top shape: 24 512 4 4 (196608)
I0403 14:51:05.626675 11321 net.cpp:156] Memory required for data: 945501216
I0403 14:51:05.626690 11321 layer_factory.hpp:77] Creating layer loss1/conv
I0403 14:51:05.626711 11321 net.cpp:91] Creating Layer loss1/conv
I0403 14:51:05.626729 11321 net.cpp:425] loss1/conv <- loss1/ave_pool
I0403 14:51:05.626749 11321 net.cpp:399] loss1/conv -> loss1/conv
I0403 14:51:05.628149 11321 net.cpp:141] Setting up loss1/conv
I0403 14:51:05.628177 11321 net.cpp:148] Top shape: 24 128 4 4 (49152)
I0403 14:51:05.628206 11321 net.cpp:156] Memory required for data: 945697824
I0403 14:51:05.628226 11321 layer_factory.hpp:77] Creating layer loss1/relu_conv
I0403 14:51:05.628243 11321 net.cpp:91] Creating Layer loss1/relu_conv
I0403 14:51:05.628258 11321 net.cpp:425] loss1/relu_conv <- loss1/conv
I0403 14:51:05.628274 11321 net.cpp:386] loss1/relu_conv -> loss1/conv (in-place)
I0403 14:51:05.628566 11321 net.cpp:141] Setting up loss1/relu_conv
I0403 14:51:05.628594 11321 net.cpp:148] Top shape: 24 128 4 4 (49152)
I0403 14:51:05.628609 11321 net.cpp:156] Memory required for data: 945894432
I0403 14:51:05.628625 11321 layer_factory.hpp:77] Creating layer loss1/fc
I0403 14:51:05.628648 11321 net.cpp:91] Creating Layer loss1/fc
I0403 14:51:05.628665 11321 net.cpp:425] loss1/fc <- loss1/conv
I0403 14:51:05.628686 11321 net.cpp:399] loss1/fc -> loss1/fc
I0403 14:51:05.646628 11321 net.cpp:141] Setting up loss1/fc
I0403 14:51:05.646667 11321 net.cpp:148] Top shape: 24 1024 (24576)
I0403 14:51:05.646682 11321 net.cpp:156] Memory required for data: 945992736
I0403 14:51:05.646702 11321 layer_factory.hpp:77] Creating layer loss1/relu_fc
I0403 14:51:05.646723 11321 net.cpp:91] Creating Layer loss1/relu_fc
I0403 14:51:05.646739 11321 net.cpp:425] loss1/relu_fc <- loss1/fc
I0403 14:51:05.646757 11321 net.cpp:386] loss1/relu_fc -> loss1/fc (in-place)
I0403 14:51:05.646965 11321 net.cpp:141] Setting up loss1/relu_fc
I0403 14:51:05.646989 11321 net.cpp:148] Top shape: 24 1024 (24576)
I0403 14:51:05.647003 11321 net.cpp:156] Memory required for data: 946091040
I0403 14:51:05.647017 11321 layer_factory.hpp:77] Creating layer loss1/drop_fc
I0403 14:51:05.647047 11321 net.cpp:91] Creating Layer loss1/drop_fc
I0403 14:51:05.647063 11321 net.cpp:425] loss1/drop_fc <- loss1/fc
I0403 14:51:05.647080 11321 net.cpp:386] loss1/drop_fc -> loss1/fc (in-place)
I0403 14:51:05.647135 11321 net.cpp:141] Setting up loss1/drop_fc
I0403 14:51:05.647157 11321 net.cpp:148] Top shape: 24 1024 (24576)
I0403 14:51:05.647171 11321 net.cpp:156] Memory required for data: 946189344
I0403 14:51:05.647186 11321 layer_factory.hpp:77] Creating layer loss1/classifier_plantvillage
I0403 14:51:05.647205 11321 net.cpp:91] Creating Layer loss1/classifier_plantvillage
I0403 14:51:05.647220 11321 net.cpp:425] loss1/classifier_plantvillage <- loss1/fc
I0403 14:51:05.647243 11321 net.cpp:399] loss1/classifier_plantvillage -> loss1/classifier_plantvillage
I0403 14:51:05.648155 11321 net.cpp:141] Setting up loss1/classifier_plantvillage
I0403 14:51:05.648185 11321 net.cpp:148] Top shape: 24 38 (912)
I0403 14:51:05.648201 11321 net.cpp:156] Memory required for data: 946192992
I0403 14:51:05.648218 11321 layer_factory.hpp:77] Creating layer loss1/classifier_plantvillage_loss1/classifier_plantvillage_0_split
I0403 14:51:05.648236 11321 net.cpp:91] Creating Layer loss1/classifier_plantvillage_loss1/classifier_plantvillage_0_split
I0403 14:51:05.648252 11321 net.cpp:425] loss1/classifier_plantvillage_loss1/classifier_plantvillage_0_split <- loss1/classifier_plantvillage
I0403 14:51:05.648270 11321 net.cpp:399] loss1/classifier_plantvillage_loss1/classifier_plantvillage_0_split -> loss1/classifier_plantvillage_loss1/classifier_plantvillage_0_split_0
I0403 14:51:05.648289 11321 net.cpp:399] loss1/classifier_plantvillage_loss1/classifier_plantvillage_0_split -> loss1/classifier_plantvillage_loss1/classifier_plantvillage_0_split_1
I0403 14:51:05.648310 11321 net.cpp:399] loss1/classifier_plantvillage_loss1/classifier_plantvillage_0_split -> loss1/classifier_plantvillage_loss1/classifier_plantvillage_0_split_2
I0403 14:51:05.648378 11321 net.cpp:141] Setting up loss1/classifier_plantvillage_loss1/classifier_plantvillage_0_split
I0403 14:51:05.648401 11321 net.cpp:148] Top shape: 24 38 (912)
I0403 14:51:05.648422 11321 net.cpp:148] Top shape: 24 38 (912)
I0403 14:51:05.648438 11321 net.cpp:148] Top shape: 24 38 (912)
I0403 14:51:05.648452 11321 net.cpp:156] Memory required for data: 946203936
I0403 14:51:05.648465 11321 layer_factory.hpp:77] Creating layer inception_4b/1x1
I0403 14:51:05.648486 11321 net.cpp:91] Creating Layer inception_4b/1x1
I0403 14:51:05.648519 11321 net.cpp:425] inception_4b/1x1 <- inception_4a/output_inception_4a/output_0_split_1
I0403 14:51:05.648542 11321 net.cpp:399] inception_4b/1x1 -> inception_4b/1x1
I0403 14:51:05.650199 11321 net.cpp:141] Setting up inception_4b/1x1
I0403 14:51:05.650228 11321 net.cpp:148] Top shape: 24 160 14 14 (752640)
I0403 14:51:05.650244 11321 net.cpp:156] Memory required for data: 949214496
I0403 14:51:05.650264 11321 layer_factory.hpp:77] Creating layer inception_4b/relu_1x1
I0403 14:51:05.650280 11321 net.cpp:91] Creating Layer inception_4b/relu_1x1
I0403 14:51:05.650295 11321 net.cpp:425] inception_4b/relu_1x1 <- inception_4b/1x1
I0403 14:51:05.650313 11321 net.cpp:386] inception_4b/relu_1x1 -> inception_4b/1x1 (in-place)
I0403 14:51:05.650501 11321 net.cpp:141] Setting up inception_4b/relu_1x1
I0403 14:51:05.650526 11321 net.cpp:148] Top shape: 24 160 14 14 (752640)
I0403 14:51:05.650539 11321 net.cpp:156] Memory required for data: 952225056
I0403 14:51:05.650554 11321 layer_factory.hpp:77] Creating layer inception_4b/3x3_reduce
I0403 14:51:05.650576 11321 net.cpp:91] Creating Layer inception_4b/3x3_reduce
I0403 14:51:05.650593 11321 net.cpp:425] inception_4b/3x3_reduce <- inception_4a/output_inception_4a/output_0_split_2
I0403 14:51:05.650615 11321 net.cpp:399] inception_4b/3x3_reduce -> inception_4b/3x3_reduce
I0403 14:51:05.651991 11321 net.cpp:141] Setting up inception_4b/3x3_reduce
I0403 14:51:05.652022 11321 net.cpp:148] Top shape: 24 112 14 14 (526848)
I0403 14:51:05.652039 11321 net.cpp:156] Memory required for data: 954332448
I0403 14:51:05.652056 11321 layer_factory.hpp:77] Creating layer inception_4b/relu_3x3_reduce
I0403 14:51:05.652075 11321 net.cpp:91] Creating Layer inception_4b/relu_3x3_reduce
I0403 14:51:05.652089 11321 net.cpp:425] inception_4b/relu_3x3_reduce <- inception_4b/3x3_reduce
I0403 14:51:05.652108 11321 net.cpp:386] inception_4b/relu_3x3_reduce -> inception_4b/3x3_reduce (in-place)
I0403 14:51:05.652390 11321 net.cpp:141] Setting up inception_4b/relu_3x3_reduce
I0403 14:51:05.652428 11321 net.cpp:148] Top shape: 24 112 14 14 (526848)
I0403 14:51:05.652446 11321 net.cpp:156] Memory required for data: 956439840
I0403 14:51:05.652461 11321 layer_factory.hpp:77] Creating layer inception_4b/3x3
I0403 14:51:05.652483 11321 net.cpp:91] Creating Layer inception_4b/3x3
I0403 14:51:05.652501 11321 net.cpp:425] inception_4b/3x3 <- inception_4b/3x3_reduce
I0403 14:51:05.652523 11321 net.cpp:399] inception_4b/3x3 -> inception_4b/3x3
I0403 14:51:05.655483 11321 net.cpp:141] Setting up inception_4b/3x3
I0403 14:51:05.655513 11321 net.cpp:148] Top shape: 24 224 14 14 (1053696)
I0403 14:51:05.655527 11321 net.cpp:156] Memory required for data: 960654624
I0403 14:51:05.655545 11321 layer_factory.hpp:77] Creating layer inception_4b/relu_3x3
I0403 14:51:05.655565 11321 net.cpp:91] Creating Layer inception_4b/relu_3x3
I0403 14:51:05.655581 11321 net.cpp:425] inception_4b/relu_3x3 <- inception_4b/3x3
I0403 14:51:05.655598 11321 net.cpp:386] inception_4b/relu_3x3 -> inception_4b/3x3 (in-place)
I0403 14:51:05.655781 11321 net.cpp:141] Setting up inception_4b/relu_3x3
I0403 14:51:05.655807 11321 net.cpp:148] Top shape: 24 224 14 14 (1053696)
I0403 14:51:05.655822 11321 net.cpp:156] Memory required for data: 964869408
I0403 14:51:05.655838 11321 layer_factory.hpp:77] Creating layer inception_4b/5x5_reduce
I0403 14:51:05.655858 11321 net.cpp:91] Creating Layer inception_4b/5x5_reduce
I0403 14:51:05.655875 11321 net.cpp:425] inception_4b/5x5_reduce <- inception_4a/output_inception_4a/output_0_split_3
I0403 14:51:05.655894 11321 net.cpp:399] inception_4b/5x5_reduce -> inception_4b/5x5_reduce
I0403 14:51:05.656987 11321 net.cpp:141] Setting up inception_4b/5x5_reduce
I0403 14:51:05.657017 11321 net.cpp:148] Top shape: 24 24 14 14 (112896)
I0403 14:51:05.657034 11321 net.cpp:156] Memory required for data: 965320992
I0403 14:51:05.657052 11321 layer_factory.hpp:77] Creating layer inception_4b/relu_5x5_reduce
I0403 14:51:05.657070 11321 net.cpp:91] Creating Layer inception_4b/relu_5x5_reduce
I0403 14:51:05.657102 11321 net.cpp:425] inception_4b/relu_5x5_reduce <- inception_4b/5x5_reduce
I0403 14:51:05.657124 11321 net.cpp:386] inception_4b/relu_5x5_reduce -> inception_4b/5x5_reduce (in-place)
I0403 14:51:05.657306 11321 net.cpp:141] Setting up inception_4b/relu_5x5_reduce
I0403 14:51:05.657332 11321 net.cpp:148] Top shape: 24 24 14 14 (112896)
I0403 14:51:05.657347 11321 net.cpp:156] Memory required for data: 965772576
I0403 14:51:05.657361 11321 layer_factory.hpp:77] Creating layer inception_4b/5x5
I0403 14:51:05.657382 11321 net.cpp:91] Creating Layer inception_4b/5x5
I0403 14:51:05.657399 11321 net.cpp:425] inception_4b/5x5 <- inception_4b/5x5_reduce
I0403 14:51:05.657425 11321 net.cpp:399] inception_4b/5x5 -> inception_4b/5x5
I0403 14:51:05.658653 11321 net.cpp:141] Setting up inception_4b/5x5
I0403 14:51:05.658682 11321 net.cpp:148] Top shape: 24 64 14 14 (301056)
I0403 14:51:05.658699 11321 net.cpp:156] Memory required for data: 966976800
I0403 14:51:05.658716 11321 layer_factory.hpp:77] Creating layer inception_4b/relu_5x5
I0403 14:51:05.658735 11321 net.cpp:91] Creating Layer inception_4b/relu_5x5
I0403 14:51:05.658751 11321 net.cpp:425] inception_4b/relu_5x5 <- inception_4b/5x5
I0403 14:51:05.658767 11321 net.cpp:386] inception_4b/relu_5x5 -> inception_4b/5x5 (in-place)
I0403 14:51:05.659054 11321 net.cpp:141] Setting up inception_4b/relu_5x5
I0403 14:51:05.659082 11321 net.cpp:148] Top shape: 24 64 14 14 (301056)
I0403 14:51:05.659097 11321 net.cpp:156] Memory required for data: 968181024
I0403 14:51:05.659111 11321 layer_factory.hpp:77] Creating layer inception_4b/pool
I0403 14:51:05.659131 11321 net.cpp:91] Creating Layer inception_4b/pool
I0403 14:51:05.659147 11321 net.cpp:425] inception_4b/pool <- inception_4a/output_inception_4a/output_0_split_4
I0403 14:51:05.659164 11321 net.cpp:399] inception_4b/pool -> inception_4b/pool
I0403 14:51:05.659229 11321 net.cpp:141] Setting up inception_4b/pool
I0403 14:51:05.659251 11321 net.cpp:148] Top shape: 24 512 14 14 (2408448)
I0403 14:51:05.659265 11321 net.cpp:156] Memory required for data: 977814816
I0403 14:51:05.659279 11321 layer_factory.hpp:77] Creating layer inception_4b/pool_proj
I0403 14:51:05.659301 11321 net.cpp:91] Creating Layer inception_4b/pool_proj
I0403 14:51:05.659319 11321 net.cpp:425] inception_4b/pool_proj <- inception_4b/pool
I0403 14:51:05.659339 11321 net.cpp:399] inception_4b/pool_proj -> inception_4b/pool_proj
I0403 14:51:05.660542 11321 net.cpp:141] Setting up inception_4b/pool_proj
I0403 14:51:05.660572 11321 net.cpp:148] Top shape: 24 64 14 14 (301056)
I0403 14:51:05.660588 11321 net.cpp:156] Memory required for data: 979019040
I0403 14:51:05.660605 11321 layer_factory.hpp:77] Creating layer inception_4b/relu_pool_proj
I0403 14:51:05.660624 11321 net.cpp:91] Creating Layer inception_4b/relu_pool_proj
I0403 14:51:05.660640 11321 net.cpp:425] inception_4b/relu_pool_proj <- inception_4b/pool_proj
I0403 14:51:05.660660 11321 net.cpp:386] inception_4b/relu_pool_proj -> inception_4b/pool_proj (in-place)
I0403 14:51:05.660843 11321 net.cpp:141] Setting up inception_4b/relu_pool_proj
I0403 14:51:05.660868 11321 net.cpp:148] Top shape: 24 64 14 14 (301056)
I0403 14:51:05.660882 11321 net.cpp:156] Memory required for data: 980223264
I0403 14:51:05.660897 11321 layer_factory.hpp:77] Creating layer inception_4b/output
I0403 14:51:05.660913 11321 net.cpp:91] Creating Layer inception_4b/output
I0403 14:51:05.660928 11321 net.cpp:425] inception_4b/output <- inception_4b/1x1
I0403 14:51:05.660945 11321 net.cpp:425] inception_4b/output <- inception_4b/3x3
I0403 14:51:05.660960 11321 net.cpp:425] inception_4b/output <- inception_4b/5x5
I0403 14:51:05.660975 11321 net.cpp:425] inception_4b/output <- inception_4b/pool_proj
I0403 14:51:05.660995 11321 net.cpp:399] inception_4b/output -> inception_4b/output
I0403 14:51:05.661041 11321 net.cpp:141] Setting up inception_4b/output
I0403 14:51:05.661064 11321 net.cpp:148] Top shape: 24 512 14 14 (2408448)
I0403 14:51:05.661080 11321 net.cpp:156] Memory required for data: 989857056
I0403 14:51:05.661108 11321 layer_factory.hpp:77] Creating layer inception_4b/output_inception_4b/output_0_split
I0403 14:51:05.661126 11321 net.cpp:91] Creating Layer inception_4b/output_inception_4b/output_0_split
I0403 14:51:05.661141 11321 net.cpp:425] inception_4b/output_inception_4b/output_0_split <- inception_4b/output
I0403 14:51:05.661160 11321 net.cpp:399] inception_4b/output_inception_4b/output_0_split -> inception_4b/output_inception_4b/output_0_split_0
I0403 14:51:05.661180 11321 net.cpp:399] inception_4b/output_inception_4b/output_0_split -> inception_4b/output_inception_4b/output_0_split_1
I0403 14:51:05.661201 11321 net.cpp:399] inception_4b/output_inception_4b/output_0_split -> inception_4b/output_inception_4b/output_0_split_2
I0403 14:51:05.661221 11321 net.cpp:399] inception_4b/output_inception_4b/output_0_split -> inception_4b/output_inception_4b/output_0_split_3
I0403 14:51:05.661299 11321 net.cpp:141] Setting up inception_4b/output_inception_4b/output_0_split
I0403 14:51:05.661324 11321 net.cpp:148] Top shape: 24 512 14 14 (2408448)
I0403 14:51:05.661344 11321 net.cpp:148] Top shape: 24 512 14 14 (2408448)
I0403 14:51:05.661358 11321 net.cpp:148] Top shape: 24 512 14 14 (2408448)
I0403 14:51:05.661373 11321 net.cpp:148] Top shape: 24 512 14 14 (2408448)
I0403 14:51:05.661386 11321 net.cpp:156] Memory required for data: 1028392224
I0403 14:51:05.661401 11321 layer_factory.hpp:77] Creating layer inception_4c/1x1
I0403 14:51:05.661423 11321 net.cpp:91] Creating Layer inception_4c/1x1
I0403 14:51:05.661442 11321 net.cpp:425] inception_4c/1x1 <- inception_4b/output_inception_4b/output_0_split_0
I0403 14:51:05.661461 11321 net.cpp:399] inception_4c/1x1 -> inception_4c/1x1
I0403 14:51:05.662901 11321 net.cpp:141] Setting up inception_4c/1x1
I0403 14:51:05.662930 11321 net.cpp:148] Top shape: 24 128 14 14 (602112)
I0403 14:51:05.662945 11321 net.cpp:156] Memory required for data: 1030800672
I0403 14:51:05.662963 11321 layer_factory.hpp:77] Creating layer inception_4c/relu_1x1
I0403 14:51:05.662986 11321 net.cpp:91] Creating Layer inception_4c/relu_1x1
I0403 14:51:05.663002 11321 net.cpp:425] inception_4c/relu_1x1 <- inception_4c/1x1
I0403 14:51:05.663019 11321 net.cpp:386] inception_4c/relu_1x1 -> inception_4c/1x1 (in-place)
I0403 14:51:05.663203 11321 net.cpp:141] Setting up inception_4c/relu_1x1
I0403 14:51:05.663226 11321 net.cpp:148] Top shape: 24 128 14 14 (602112)
I0403 14:51:05.663240 11321 net.cpp:156] Memory required for data: 1033209120
I0403 14:51:05.663254 11321 layer_factory.hpp:77] Creating layer inception_4c/3x3_reduce
I0403 14:51:05.663280 11321 net.cpp:91] Creating Layer inception_4c/3x3_reduce
I0403 14:51:05.663296 11321 net.cpp:425] inception_4c/3x3_reduce <- inception_4b/output_inception_4b/output_0_split_1
I0403 14:51:05.663316 11321 net.cpp:399] inception_4c/3x3_reduce -> inception_4c/3x3_reduce
I0403 14:51:05.665252 11321 net.cpp:141] Setting up inception_4c/3x3_reduce
I0403 14:51:05.665280 11321 net.cpp:148] Top shape: 24 128 14 14 (602112)
I0403 14:51:05.665297 11321 net.cpp:156] Memory required for data: 1035617568
I0403 14:51:05.665315 11321 layer_factory.hpp:77] Creating layer inception_4c/relu_3x3_reduce
I0403 14:51:05.665335 11321 net.cpp:91] Creating Layer inception_4c/relu_3x3_reduce
I0403 14:51:05.665351 11321 net.cpp:425] inception_4c/relu_3x3_reduce <- inception_4c/3x3_reduce
I0403 14:51:05.665369 11321 net.cpp:386] inception_4c/relu_3x3_reduce -> inception_4c/3x3_reduce (in-place)
I0403 14:51:05.665657 11321 net.cpp:141] Setting up inception_4c/relu_3x3_reduce
I0403 14:51:05.665683 11321 net.cpp:148] Top shape: 24 128 14 14 (602112)
I0403 14:51:05.665699 11321 net.cpp:156] Memory required for data: 1038026016
I0403 14:51:05.665712 11321 layer_factory.hpp:77] Creating layer inception_4c/3x3
I0403 14:51:05.665737 11321 net.cpp:91] Creating Layer inception_4c/3x3
I0403 14:51:05.665755 11321 net.cpp:425] inception_4c/3x3 <- inception_4c/3x3_reduce
I0403 14:51:05.665773 11321 net.cpp:399] inception_4c/3x3 -> inception_4c/3x3
I0403 14:51:05.669368 11321 net.cpp:141] Setting up inception_4c/3x3
I0403 14:51:05.669416 11321 net.cpp:148] Top shape: 24 256 14 14 (1204224)
I0403 14:51:05.669435 11321 net.cpp:156] Memory required for data: 1042842912
I0403 14:51:05.669466 11321 layer_factory.hpp:77] Creating layer inception_4c/relu_3x3
I0403 14:51:05.669486 11321 net.cpp:91] Creating Layer inception_4c/relu_3x3
I0403 14:51:05.669502 11321 net.cpp:425] inception_4c/relu_3x3 <- inception_4c/3x3
I0403 14:51:05.669519 11321 net.cpp:386] inception_4c/relu_3x3 -> inception_4c/3x3 (in-place)
I0403 14:51:05.669704 11321 net.cpp:141] Setting up inception_4c/relu_3x3
I0403 14:51:05.669731 11321 net.cpp:148] Top shape: 24 256 14 14 (1204224)
I0403 14:51:05.669746 11321 net.cpp:156] Memory required for data: 1047659808
I0403 14:51:05.669761 11321 layer_factory.hpp:77] Creating layer inception_4c/5x5_reduce
I0403 14:51:05.669785 11321 net.cpp:91] Creating Layer inception_4c/5x5_reduce
I0403 14:51:05.669801 11321 net.cpp:425] inception_4c/5x5_reduce <- inception_4b/output_inception_4b/output_0_split_2
I0403 14:51:05.669821 11321 net.cpp:399] inception_4c/5x5_reduce -> inception_4c/5x5_reduce
I0403 14:51:05.670910 11321 net.cpp:141] Setting up inception_4c/5x5_reduce
I0403 14:51:05.670940 11321 net.cpp:148] Top shape: 24 24 14 14 (112896)
I0403 14:51:05.670958 11321 net.cpp:156] Memory required for data: 1048111392
I0403 14:51:05.670974 11321 layer_factory.hpp:77] Creating layer inception_4c/relu_5x5_reduce
I0403 14:51:05.670992 11321 net.cpp:91] Creating Layer inception_4c/relu_5x5_reduce
I0403 14:51:05.671008 11321 net.cpp:425] inception_4c/relu_5x5_reduce <- inception_4c/5x5_reduce
I0403 14:51:05.671028 11321 net.cpp:386] inception_4c/relu_5x5_reduce -> inception_4c/5x5_reduce (in-place)
I0403 14:51:05.671214 11321 net.cpp:141] Setting up inception_4c/relu_5x5_reduce
I0403 14:51:05.671239 11321 net.cpp:148] Top shape: 24 24 14 14 (112896)
I0403 14:51:05.671253 11321 net.cpp:156] Memory required for data: 1048562976
I0403 14:51:05.671268 11321 layer_factory.hpp:77] Creating layer inception_4c/5x5
I0403 14:51:05.671289 11321 net.cpp:91] Creating Layer inception_4c/5x5
I0403 14:51:05.671306 11321 net.cpp:425] inception_4c/5x5 <- inception_4c/5x5_reduce
I0403 14:51:05.671330 11321 net.cpp:399] inception_4c/5x5 -> inception_4c/5x5
I0403 14:51:05.672605 11321 net.cpp:141] Setting up inception_4c/5x5
I0403 14:51:05.672631 11321 net.cpp:148] Top shape: 24 64 14 14 (301056)
I0403 14:51:05.672646 11321 net.cpp:156] Memory required for data: 1049767200
I0403 14:51:05.672664 11321 layer_factory.hpp:77] Creating layer inception_4c/relu_5x5
I0403 14:51:05.672684 11321 net.cpp:91] Creating Layer inception_4c/relu_5x5
I0403 14:51:05.672703 11321 net.cpp:425] inception_4c/relu_5x5 <- inception_4c/5x5
I0403 14:51:05.672720 11321 net.cpp:386] inception_4c/relu_5x5 -> inception_4c/5x5 (in-place)
I0403 14:51:05.673015 11321 net.cpp:141] Setting up inception_4c/relu_5x5
I0403 14:51:05.673040 11321 net.cpp:148] Top shape: 24 64 14 14 (301056)
I0403 14:51:05.673055 11321 net.cpp:156] Memory required for data: 1050971424
I0403 14:51:05.673069 11321 layer_factory.hpp:77] Creating layer inception_4c/pool
I0403 14:51:05.673086 11321 net.cpp:91] Creating Layer inception_4c/pool
I0403 14:51:05.673102 11321 net.cpp:425] inception_4c/pool <- inception_4b/output_inception_4b/output_0_split_3
I0403 14:51:05.673122 11321 net.cpp:399] inception_4c/pool -> inception_4c/pool
I0403 14:51:05.673187 11321 net.cpp:141] Setting up inception_4c/pool
I0403 14:51:05.673212 11321 net.cpp:148] Top shape: 24 512 14 14 (2408448)
I0403 14:51:05.673226 11321 net.cpp:156] Memory required for data: 1060605216
I0403 14:51:05.673240 11321 layer_factory.hpp:77] Creating layer inception_4c/pool_proj
I0403 14:51:05.673261 11321 net.cpp:91] Creating Layer inception_4c/pool_proj
I0403 14:51:05.673280 11321 net.cpp:425] inception_4c/pool_proj <- inception_4c/pool
I0403 14:51:05.673300 11321 net.cpp:399] inception_4c/pool_proj -> inception_4c/pool_proj
I0403 14:51:05.674590 11321 net.cpp:141] Setting up inception_4c/pool_proj
I0403 14:51:05.674623 11321 net.cpp:148] Top shape: 24 64 14 14 (301056)
I0403 14:51:05.674651 11321 net.cpp:156] Memory required for data: 1061809440
I0403 14:51:05.674669 11321 layer_factory.hpp:77] Creating layer inception_4c/relu_pool_proj
I0403 14:51:05.674687 11321 net.cpp:91] Creating Layer inception_4c/relu_pool_proj
I0403 14:51:05.674703 11321 net.cpp:425] inception_4c/relu_pool_proj <- inception_4c/pool_proj
I0403 14:51:05.674721 11321 net.cpp:386] inception_4c/relu_pool_proj -> inception_4c/pool_proj (in-place)
I0403 14:51:05.674908 11321 net.cpp:141] Setting up inception_4c/relu_pool_proj
I0403 14:51:05.674932 11321 net.cpp:148] Top shape: 24 64 14 14 (301056)
I0403 14:51:05.674947 11321 net.cpp:156] Memory required for data: 1063013664
I0403 14:51:05.674960 11321 layer_factory.hpp:77] Creating layer inception_4c/output
I0403 14:51:05.674976 11321 net.cpp:91] Creating Layer inception_4c/output
I0403 14:51:05.674993 11321 net.cpp:425] inception_4c/output <- inception_4c/1x1
I0403 14:51:05.675009 11321 net.cpp:425] inception_4c/output <- inception_4c/3x3
I0403 14:51:05.675024 11321 net.cpp:425] inception_4c/output <- inception_4c/5x5
I0403 14:51:05.675039 11321 net.cpp:425] inception_4c/output <- inception_4c/pool_proj
I0403 14:51:05.675057 11321 net.cpp:399] inception_4c/output -> inception_4c/output
I0403 14:51:05.675103 11321 net.cpp:141] Setting up inception_4c/output
I0403 14:51:05.675128 11321 net.cpp:148] Top shape: 24 512 14 14 (2408448)
I0403 14:51:05.675143 11321 net.cpp:156] Memory required for data: 1072647456
I0403 14:51:05.675158 11321 layer_factory.hpp:77] Creating layer inception_4c/output_inception_4c/output_0_split
I0403 14:51:05.675174 11321 net.cpp:91] Creating Layer inception_4c/output_inception_4c/output_0_split
I0403 14:51:05.675189 11321 net.cpp:425] inception_4c/output_inception_4c/output_0_split <- inception_4c/output
I0403 14:51:05.675207 11321 net.cpp:399] inception_4c/output_inception_4c/output_0_split -> inception_4c/output_inception_4c/output_0_split_0
I0403 14:51:05.675227 11321 net.cpp:399] inception_4c/output_inception_4c/output_0_split -> inception_4c/output_inception_4c/output_0_split_1
I0403 14:51:05.675246 11321 net.cpp:399] inception_4c/output_inception_4c/output_0_split -> inception_4c/output_inception_4c/output_0_split_2
I0403 14:51:05.675266 11321 net.cpp:399] inception_4c/output_inception_4c/output_0_split -> inception_4c/output_inception_4c/output_0_split_3
I0403 14:51:05.675348 11321 net.cpp:141] Setting up inception_4c/output_inception_4c/output_0_split
I0403 14:51:05.675370 11321 net.cpp:148] Top shape: 24 512 14 14 (2408448)
I0403 14:51:05.675386 11321 net.cpp:148] Top shape: 24 512 14 14 (2408448)
I0403 14:51:05.675401 11321 net.cpp:148] Top shape: 24 512 14 14 (2408448)
I0403 14:51:05.675421 11321 net.cpp:148] Top shape: 24 512 14 14 (2408448)
I0403 14:51:05.675436 11321 net.cpp:156] Memory required for data: 1111182624
I0403 14:51:05.675449 11321 layer_factory.hpp:77] Creating layer inception_4d/1x1
I0403 14:51:05.675470 11321 net.cpp:91] Creating Layer inception_4d/1x1
I0403 14:51:05.675488 11321 net.cpp:425] inception_4d/1x1 <- inception_4c/output_inception_4c/output_0_split_0
I0403 14:51:05.675508 11321 net.cpp:399] inception_4d/1x1 -> inception_4d/1x1
I0403 14:51:05.676888 11321 net.cpp:141] Setting up inception_4d/1x1
I0403 14:51:05.676916 11321 net.cpp:148] Top shape: 24 112 14 14 (526848)
I0403 14:51:05.676931 11321 net.cpp:156] Memory required for data: 1113290016
I0403 14:51:05.676949 11321 layer_factory.hpp:77] Creating layer inception_4d/relu_1x1
I0403 14:51:05.676970 11321 net.cpp:91] Creating Layer inception_4d/relu_1x1
I0403 14:51:05.676985 11321 net.cpp:425] inception_4d/relu_1x1 <- inception_4d/1x1
I0403 14:51:05.677002 11321 net.cpp:386] inception_4d/relu_1x1 -> inception_4d/1x1 (in-place)
I0403 14:51:05.677187 11321 net.cpp:141] Setting up inception_4d/relu_1x1
I0403 14:51:05.677213 11321 net.cpp:148] Top shape: 24 112 14 14 (526848)
I0403 14:51:05.677228 11321 net.cpp:156] Memory required for data: 1115397408
I0403 14:51:05.677243 11321 layer_factory.hpp:77] Creating layer inception_4d/3x3_reduce
I0403 14:51:05.677279 11321 net.cpp:91] Creating Layer inception_4d/3x3_reduce
I0403 14:51:05.677297 11321 net.cpp:425] inception_4d/3x3_reduce <- inception_4c/output_inception_4c/output_0_split_1
I0403 14:51:05.677317 11321 net.cpp:399] inception_4d/3x3_reduce -> inception_4d/3x3_reduce
I0403 14:51:05.678854 11321 net.cpp:141] Setting up inception_4d/3x3_reduce
I0403 14:51:05.678881 11321 net.cpp:148] Top shape: 24 144 14 14 (677376)
I0403 14:51:05.678897 11321 net.cpp:156] Memory required for data: 1118106912
I0403 14:51:05.678915 11321 layer_factory.hpp:77] Creating layer inception_4d/relu_3x3_reduce
I0403 14:51:05.678932 11321 net.cpp:91] Creating Layer inception_4d/relu_3x3_reduce
I0403 14:51:05.678948 11321 net.cpp:425] inception_4d/relu_3x3_reduce <- inception_4d/3x3_reduce
I0403 14:51:05.678967 11321 net.cpp:386] inception_4d/relu_3x3_reduce -> inception_4d/3x3_reduce (in-place)
I0403 14:51:05.679261 11321 net.cpp:141] Setting up inception_4d/relu_3x3_reduce
I0403 14:51:05.679286 11321 net.cpp:148] Top shape: 24 144 14 14 (677376)
I0403 14:51:05.679301 11321 net.cpp:156] Memory required for data: 1120816416
I0403 14:51:05.679316 11321 layer_factory.hpp:77] Creating layer inception_4d/3x3
I0403 14:51:05.679338 11321 net.cpp:91] Creating Layer inception_4d/3x3
I0403 14:51:05.679358 11321 net.cpp:425] inception_4d/3x3 <- inception_4d/3x3_reduce
I0403 14:51:05.679378 11321 net.cpp:399] inception_4d/3x3 -> inception_4d/3x3
I0403 14:51:05.683634 11321 net.cpp:141] Setting up inception_4d/3x3
I0403 14:51:05.683661 11321 net.cpp:148] Top shape: 24 288 14 14 (1354752)
I0403 14:51:05.683677 11321 net.cpp:156] Memory required for data: 1126235424
I0403 14:51:05.683694 11321 layer_factory.hpp:77] Creating layer inception_4d/relu_3x3
I0403 14:51:05.683715 11321 net.cpp:91] Creating Layer inception_4d/relu_3x3
I0403 14:51:05.683732 11321 net.cpp:425] inception_4d/relu_3x3 <- inception_4d/3x3
I0403 14:51:05.683748 11321 net.cpp:386] inception_4d/relu_3x3 -> inception_4d/3x3 (in-place)
I0403 14:51:05.683931 11321 net.cpp:141] Setting up inception_4d/relu_3x3
I0403 14:51:05.683957 11321 net.cpp:148] Top shape: 24 288 14 14 (1354752)
I0403 14:51:05.683971 11321 net.cpp:156] Memory required for data: 1131654432
I0403 14:51:05.683986 11321 layer_factory.hpp:77] Creating layer inception_4d/5x5_reduce
I0403 14:51:05.684007 11321 net.cpp:91] Creating Layer inception_4d/5x5_reduce
I0403 14:51:05.684026 11321 net.cpp:425] inception_4d/5x5_reduce <- inception_4c/output_inception_4c/output_0_split_2
I0403 14:51:05.684046 11321 net.cpp:399] inception_4d/5x5_reduce -> inception_4d/5x5_reduce
I0403 14:51:05.685190 11321 net.cpp:141] Setting up inception_4d/5x5_reduce
I0403 14:51:05.685219 11321 net.cpp:148] Top shape: 24 32 14 14 (150528)
I0403 14:51:05.685233 11321 net.cpp:156] Memory required for data: 1132256544
I0403 14:51:05.685251 11321 layer_factory.hpp:77] Creating layer inception_4d/relu_5x5_reduce
I0403 14:51:05.685271 11321 net.cpp:91] Creating Layer inception_4d/relu_5x5_reduce
I0403 14:51:05.685287 11321 net.cpp:425] inception_4d/relu_5x5_reduce <- inception_4d/5x5_reduce
I0403 14:51:05.685304 11321 net.cpp:386] inception_4d/relu_5x5_reduce -> inception_4d/5x5_reduce (in-place)
I0403 14:51:05.685500 11321 net.cpp:141] Setting up inception_4d/relu_5x5_reduce
I0403 14:51:05.685526 11321 net.cpp:148] Top shape: 24 32 14 14 (150528)
I0403 14:51:05.685542 11321 net.cpp:156] Memory required for data: 1132858656
I0403 14:51:05.685556 11321 layer_factory.hpp:77] Creating layer inception_4d/5x5
I0403 14:51:05.685578 11321 net.cpp:91] Creating Layer inception_4d/5x5
I0403 14:51:05.685595 11321 net.cpp:425] inception_4d/5x5 <- inception_4d/5x5_reduce
I0403 14:51:05.685614 11321 net.cpp:399] inception_4d/5x5 -> inception_4d/5x5
I0403 14:51:05.687093 11321 net.cpp:141] Setting up inception_4d/5x5
I0403 14:51:05.687122 11321 net.cpp:148] Top shape: 24 64 14 14 (301056)
I0403 14:51:05.687139 11321 net.cpp:156] Memory required for data: 1134062880
I0403 14:51:05.687156 11321 layer_factory.hpp:77] Creating layer inception_4d/relu_5x5
I0403 14:51:05.687189 11321 net.cpp:91] Creating Layer inception_4d/relu_5x5
I0403 14:51:05.687206 11321 net.cpp:425] inception_4d/relu_5x5 <- inception_4d/5x5
I0403 14:51:05.687227 11321 net.cpp:386] inception_4d/relu_5x5 -> inception_4d/5x5 (in-place)
I0403 14:51:05.687556 11321 net.cpp:141] Setting up inception_4d/relu_5x5
I0403 14:51:05.687585 11321 net.cpp:148] Top shape: 24 64 14 14 (301056)
I0403 14:51:05.687613 11321 net.cpp:156] Memory required for data: 1135267104
I0403 14:51:05.687628 11321 layer_factory.hpp:77] Creating layer inception_4d/pool
I0403 14:51:05.687645 11321 net.cpp:91] Creating Layer inception_4d/pool
I0403 14:51:05.687674 11321 net.cpp:425] inception_4d/pool <- inception_4c/output_inception_4c/output_0_split_3
I0403 14:51:05.687695 11321 net.cpp:399] inception_4d/pool -> inception_4d/pool
I0403 14:51:05.687762 11321 net.cpp:141] Setting up inception_4d/pool
I0403 14:51:05.687789 11321 net.cpp:148] Top shape: 24 512 14 14 (2408448)
I0403 14:51:05.687805 11321 net.cpp:156] Memory required for data: 1144900896
I0403 14:51:05.687820 11321 layer_factory.hpp:77] Creating layer inception_4d/pool_proj
I0403 14:51:05.687842 11321 net.cpp:91] Creating Layer inception_4d/pool_proj
I0403 14:51:05.687860 11321 net.cpp:425] inception_4d/pool_proj <- inception_4d/pool
I0403 14:51:05.687880 11321 net.cpp:399] inception_4d/pool_proj -> inception_4d/pool_proj
I0403 14:51:05.689710 11321 net.cpp:141] Setting up inception_4d/pool_proj
I0403 14:51:05.689739 11321 net.cpp:148] Top shape: 24 64 14 14 (301056)
I0403 14:51:05.689754 11321 net.cpp:156] Memory required for data: 1146105120
I0403 14:51:05.689772 11321 layer_factory.hpp:77] Creating layer inception_4d/relu_pool_proj
I0403 14:51:05.689792 11321 net.cpp:91] Creating Layer inception_4d/relu_pool_proj
I0403 14:51:05.689810 11321 net.cpp:425] inception_4d/relu_pool_proj <- inception_4d/pool_proj
I0403 14:51:05.689827 11321 net.cpp:386] inception_4d/relu_pool_proj -> inception_4d/pool_proj (in-place)
I0403 14:51:05.690022 11321 net.cpp:141] Setting up inception_4d/relu_pool_proj
I0403 14:51:05.690049 11321 net.cpp:148] Top shape: 24 64 14 14 (301056)
I0403 14:51:05.690064 11321 net.cpp:156] Memory required for data: 1147309344
I0403 14:51:05.690078 11321 layer_factory.hpp:77] Creating layer inception_4d/output
I0403 14:51:05.690095 11321 net.cpp:91] Creating Layer inception_4d/output
I0403 14:51:05.690110 11321 net.cpp:425] inception_4d/output <- inception_4d/1x1
I0403 14:51:05.690126 11321 net.cpp:425] inception_4d/output <- inception_4d/3x3
I0403 14:51:05.690142 11321 net.cpp:425] inception_4d/output <- inception_4d/5x5
I0403 14:51:05.690157 11321 net.cpp:425] inception_4d/output <- inception_4d/pool_proj
I0403 14:51:05.690174 11321 net.cpp:399] inception_4d/output -> inception_4d/output
I0403 14:51:05.690222 11321 net.cpp:141] Setting up inception_4d/output
I0403 14:51:05.690245 11321 net.cpp:148] Top shape: 24 528 14 14 (2483712)
I0403 14:51:05.690259 11321 net.cpp:156] Memory required for data: 1157244192
I0403 14:51:05.690274 11321 layer_factory.hpp:77] Creating layer inception_4d/output_inception_4d/output_0_split
I0403 14:51:05.690292 11321 net.cpp:91] Creating Layer inception_4d/output_inception_4d/output_0_split
I0403 14:51:05.690309 11321 net.cpp:425] inception_4d/output_inception_4d/output_0_split <- inception_4d/output
I0403 14:51:05.690325 11321 net.cpp:399] inception_4d/output_inception_4d/output_0_split -> inception_4d/output_inception_4d/output_0_split_0
I0403 14:51:05.690346 11321 net.cpp:399] inception_4d/output_inception_4d/output_0_split -> inception_4d/output_inception_4d/output_0_split_1
I0403 14:51:05.690369 11321 net.cpp:399] inception_4d/output_inception_4d/output_0_split -> inception_4d/output_inception_4d/output_0_split_2
I0403 14:51:05.690390 11321 net.cpp:399] inception_4d/output_inception_4d/output_0_split -> inception_4d/output_inception_4d/output_0_split_3
I0403 14:51:05.690413 11321 net.cpp:399] inception_4d/output_inception_4d/output_0_split -> inception_4d/output_inception_4d/output_0_split_4
I0403 14:51:05.690516 11321 net.cpp:141] Setting up inception_4d/output_inception_4d/output_0_split
I0403 14:51:05.690551 11321 net.cpp:148] Top shape: 24 528 14 14 (2483712)
I0403 14:51:05.690568 11321 net.cpp:148] Top shape: 24 528 14 14 (2483712)
I0403 14:51:05.690583 11321 net.cpp:148] Top shape: 24 528 14 14 (2483712)
I0403 14:51:05.690598 11321 net.cpp:148] Top shape: 24 528 14 14 (2483712)
I0403 14:51:05.690613 11321 net.cpp:148] Top shape: 24 528 14 14 (2483712)
I0403 14:51:05.690625 11321 net.cpp:156] Memory required for data: 1206918432
I0403 14:51:05.690640 11321 layer_factory.hpp:77] Creating layer loss2/ave_pool
I0403 14:51:05.690660 11321 net.cpp:91] Creating Layer loss2/ave_pool
I0403 14:51:05.690676 11321 net.cpp:425] loss2/ave_pool <- inception_4d/output_inception_4d/output_0_split_0
I0403 14:51:05.690696 11321 net.cpp:399] loss2/ave_pool -> loss2/ave_pool
I0403 14:51:05.691009 11321 net.cpp:141] Setting up loss2/ave_pool
I0403 14:51:05.691035 11321 net.cpp:148] Top shape: 24 528 4 4 (202752)
I0403 14:51:05.691050 11321 net.cpp:156] Memory required for data: 1207729440
I0403 14:51:05.691063 11321 layer_factory.hpp:77] Creating layer loss2/conv
I0403 14:51:05.691087 11321 net.cpp:91] Creating Layer loss2/conv
I0403 14:51:05.691104 11321 net.cpp:425] loss2/conv <- loss2/ave_pool
I0403 14:51:05.691123 11321 net.cpp:399] loss2/conv -> loss2/conv
I0403 14:51:05.693022 11321 net.cpp:141] Setting up loss2/conv
I0403 14:51:05.693049 11321 net.cpp:148] Top shape: 24 128 4 4 (49152)
I0403 14:51:05.693064 11321 net.cpp:156] Memory required for data: 1207926048
I0403 14:51:05.693083 11321 layer_factory.hpp:77] Creating layer loss2/relu_conv
I0403 14:51:05.693099 11321 net.cpp:91] Creating Layer loss2/relu_conv
I0403 14:51:05.693114 11321 net.cpp:425] loss2/relu_conv <- loss2/conv
I0403 14:51:05.693133 11321 net.cpp:386] loss2/relu_conv -> loss2/conv (in-place)
I0403 14:51:05.693416 11321 net.cpp:141] Setting up loss2/relu_conv
I0403 14:51:05.693442 11321 net.cpp:148] Top shape: 24 128 4 4 (49152)
I0403 14:51:05.693457 11321 net.cpp:156] Memory required for data: 1208122656
I0403 14:51:05.693472 11321 layer_factory.hpp:77] Creating layer loss2/fc
I0403 14:51:05.693491 11321 net.cpp:91] Creating Layer loss2/fc
I0403 14:51:05.693506 11321 net.cpp:425] loss2/fc <- loss2/conv
I0403 14:51:05.693526 11321 net.cpp:399] loss2/fc -> loss2/fc
I0403 14:51:05.710602 11321 net.cpp:141] Setting up loss2/fc
I0403 14:51:05.710633 11321 net.cpp:148] Top shape: 24 1024 (24576)
I0403 14:51:05.710661 11321 net.cpp:156] Memory required for data: 1208220960
I0403 14:51:05.710680 11321 layer_factory.hpp:77] Creating layer loss2/relu_fc
I0403 14:51:05.710696 11321 net.cpp:91] Creating Layer loss2/relu_fc
I0403 14:51:05.710713 11321 net.cpp:425] loss2/relu_fc <- loss2/fc
I0403 14:51:05.710729 11321 net.cpp:386] loss2/relu_fc -> loss2/fc (in-place)
I0403 14:51:05.711033 11321 net.cpp:141] Setting up loss2/relu_fc
I0403 14:51:05.711061 11321 net.cpp:148] Top shape: 24 1024 (24576)
I0403 14:51:05.711076 11321 net.cpp:156] Memory required for data: 1208319264
I0403 14:51:05.711091 11321 layer_factory.hpp:77] Creating layer loss2/drop_fc
I0403 14:51:05.711108 11321 net.cpp:91] Creating Layer loss2/drop_fc
I0403 14:51:05.711124 11321 net.cpp:425] loss2/drop_fc <- loss2/fc
I0403 14:51:05.711141 11321 net.cpp:386] loss2/drop_fc -> loss2/fc (in-place)
I0403 14:51:05.711189 11321 net.cpp:141] Setting up loss2/drop_fc
I0403 14:51:05.711211 11321 net.cpp:148] Top shape: 24 1024 (24576)
I0403 14:51:05.711225 11321 net.cpp:156] Memory required for data: 1208417568
I0403 14:51:05.711237 11321 layer_factory.hpp:77] Creating layer loss2/classifier_plantvillage
I0403 14:51:05.711256 11321 net.cpp:91] Creating Layer loss2/classifier_plantvillage
I0403 14:51:05.711272 11321 net.cpp:425] loss2/classifier_plantvillage <- loss2/fc
I0403 14:51:05.711290 11321 net.cpp:399] loss2/classifier_plantvillage -> loss2/classifier_plantvillage
I0403 14:51:05.711681 11321 net.cpp:141] Setting up loss2/classifier_plantvillage
I0403 14:51:05.711706 11321 net.cpp:148] Top shape: 24 38 (912)
I0403 14:51:05.711735 11321 net.cpp:156] Memory required for data: 1208421216
I0403 14:51:05.711753 11321 layer_factory.hpp:77] Creating layer loss2/classifier_plantvillage_loss2/classifier_plantvillage_0_split
I0403 14:51:05.711771 11321 net.cpp:91] Creating Layer loss2/classifier_plantvillage_loss2/classifier_plantvillage_0_split
I0403 14:51:05.711786 11321 net.cpp:425] loss2/classifier_plantvillage_loss2/classifier_plantvillage_0_split <- loss2/classifier_plantvillage
I0403 14:51:05.711805 11321 net.cpp:399] loss2/classifier_plantvillage_loss2/classifier_plantvillage_0_split -> loss2/classifier_plantvillage_loss2/classifier_plantvillage_0_split_0
I0403 14:51:05.711825 11321 net.cpp:399] loss2/classifier_plantvillage_loss2/classifier_plantvillage_0_split -> loss2/classifier_plantvillage_loss2/classifier_plantvillage_0_split_1
I0403 14:51:05.711844 11321 net.cpp:399] loss2/classifier_plantvillage_loss2/classifier_plantvillage_0_split -> loss2/classifier_plantvillage_loss2/classifier_plantvillage_0_split_2
I0403 14:51:05.711920 11321 net.cpp:141] Setting up loss2/classifier_plantvillage_loss2/classifier_plantvillage_0_split
I0403 14:51:05.711944 11321 net.cpp:148] Top shape: 24 38 (912)
I0403 14:51:05.711959 11321 net.cpp:148] Top shape: 24 38 (912)
I0403 14:51:05.711974 11321 net.cpp:148] Top shape: 24 38 (912)
I0403 14:51:05.711987 11321 net.cpp:156] Memory required for data: 1208432160
I0403 14:51:05.712000 11321 layer_factory.hpp:77] Creating layer inception_4e/1x1
I0403 14:51:05.712021 11321 net.cpp:91] Creating Layer inception_4e/1x1
I0403 14:51:05.712038 11321 net.cpp:425] inception_4e/1x1 <- inception_4d/output_inception_4d/output_0_split_1
I0403 14:51:05.712055 11321 net.cpp:399] inception_4e/1x1 -> inception_4e/1x1
I0403 14:51:05.713824 11321 net.cpp:141] Setting up inception_4e/1x1
I0403 14:51:05.713851 11321 net.cpp:148] Top shape: 24 256 14 14 (1204224)
I0403 14:51:05.713866 11321 net.cpp:156] Memory required for data: 1213249056
I0403 14:51:05.713884 11321 layer_factory.hpp:77] Creating layer inception_4e/relu_1x1
I0403 14:51:05.713901 11321 net.cpp:91] Creating Layer inception_4e/relu_1x1
I0403 14:51:05.713919 11321 net.cpp:425] inception_4e/relu_1x1 <- inception_4e/1x1
I0403 14:51:05.713935 11321 net.cpp:386] inception_4e/relu_1x1 -> inception_4e/1x1 (in-place)
I0403 14:51:05.714223 11321 net.cpp:141] Setting up inception_4e/relu_1x1
I0403 14:51:05.714248 11321 net.cpp:148] Top shape: 24 256 14 14 (1204224)
I0403 14:51:05.714263 11321 net.cpp:156] Memory required for data: 1218065952
I0403 14:51:05.714277 11321 layer_factory.hpp:77] Creating layer inception_4e/3x3_reduce
I0403 14:51:05.714299 11321 net.cpp:91] Creating Layer inception_4e/3x3_reduce
I0403 14:51:05.714315 11321 net.cpp:425] inception_4e/3x3_reduce <- inception_4d/output_inception_4d/output_0_split_2
I0403 14:51:05.714336 11321 net.cpp:399] inception_4e/3x3_reduce -> inception_4e/3x3_reduce
I0403 14:51:05.716387 11321 net.cpp:141] Setting up inception_4e/3x3_reduce
I0403 14:51:05.716420 11321 net.cpp:148] Top shape: 24 160 14 14 (752640)
I0403 14:51:05.716436 11321 net.cpp:156] Memory required for data: 1221076512
I0403 14:51:05.716454 11321 layer_factory.hpp:77] Creating layer inception_4e/relu_3x3_reduce
I0403 14:51:05.716471 11321 net.cpp:91] Creating Layer inception_4e/relu_3x3_reduce
I0403 14:51:05.716486 11321 net.cpp:425] inception_4e/relu_3x3_reduce <- inception_4e/3x3_reduce
I0403 14:51:05.716505 11321 net.cpp:386] inception_4e/relu_3x3_reduce -> inception_4e/3x3_reduce (in-place)
I0403 14:51:05.716688 11321 net.cpp:141] Setting up inception_4e/relu_3x3_reduce
I0403 14:51:05.716712 11321 net.cpp:148] Top shape: 24 160 14 14 (752640)
I0403 14:51:05.716725 11321 net.cpp:156] Memory required for data: 1224087072
I0403 14:51:05.716739 11321 layer_factory.hpp:77] Creating layer inception_4e/3x3
I0403 14:51:05.716760 11321 net.cpp:91] Creating Layer inception_4e/3x3
I0403 14:51:05.716778 11321 net.cpp:425] inception_4e/3x3 <- inception_4e/3x3_reduce
I0403 14:51:05.716797 11321 net.cpp:399] inception_4e/3x3 -> inception_4e/3x3
I0403 14:51:05.721647 11321 net.cpp:141] Setting up inception_4e/3x3
I0403 14:51:05.721688 11321 net.cpp:148] Top shape: 24 320 14 14 (1505280)
I0403 14:51:05.721703 11321 net.cpp:156] Memory required for data: 1230108192
I0403 14:51:05.721720 11321 layer_factory.hpp:77] Creating layer inception_4e/relu_3x3
I0403 14:51:05.721740 11321 net.cpp:91] Creating Layer inception_4e/relu_3x3
I0403 14:51:05.721756 11321 net.cpp:425] inception_4e/relu_3x3 <- inception_4e/3x3
I0403 14:51:05.721772 11321 net.cpp:386] inception_4e/relu_3x3 -> inception_4e/3x3 (in-place)
I0403 14:51:05.722066 11321 net.cpp:141] Setting up inception_4e/relu_3x3
I0403 14:51:05.722091 11321 net.cpp:148] Top shape: 24 320 14 14 (1505280)
I0403 14:51:05.722105 11321 net.cpp:156] Memory required for data: 1236129312
I0403 14:51:05.722120 11321 layer_factory.hpp:77] Creating layer inception_4e/5x5_reduce
I0403 14:51:05.722141 11321 net.cpp:91] Creating Layer inception_4e/5x5_reduce
I0403 14:51:05.722157 11321 net.cpp:425] inception_4e/5x5_reduce <- inception_4d/output_inception_4d/output_0_split_3
I0403 14:51:05.722177 11321 net.cpp:399] inception_4e/5x5_reduce -> inception_4e/5x5_reduce
I0403 14:51:05.723222 11321 net.cpp:141] Setting up inception_4e/5x5_reduce
I0403 14:51:05.723250 11321 net.cpp:148] Top shape: 24 32 14 14 (150528)
I0403 14:51:05.723266 11321 net.cpp:156] Memory required for data: 1236731424
I0403 14:51:05.723284 11321 layer_factory.hpp:77] Creating layer inception_4e/relu_5x5_reduce
I0403 14:51:05.723300 11321 net.cpp:91] Creating Layer inception_4e/relu_5x5_reduce
I0403 14:51:05.723315 11321 net.cpp:425] inception_4e/relu_5x5_reduce <- inception_4e/5x5_reduce
I0403 14:51:05.723335 11321 net.cpp:386] inception_4e/relu_5x5_reduce -> inception_4e/5x5_reduce (in-place)
I0403 14:51:05.723626 11321 net.cpp:141] Setting up inception_4e/relu_5x5_reduce
I0403 14:51:05.723654 11321 net.cpp:148] Top shape: 24 32 14 14 (150528)
I0403 14:51:05.723669 11321 net.cpp:156] Memory required for data: 1237333536
I0403 14:51:05.723682 11321 layer_factory.hpp:77] Creating layer inception_4e/5x5
I0403 14:51:05.723721 11321 net.cpp:91] Creating Layer inception_4e/5x5
I0403 14:51:05.723739 11321 net.cpp:425] inception_4e/5x5 <- inception_4e/5x5_reduce
I0403 14:51:05.723757 11321 net.cpp:399] inception_4e/5x5 -> inception_4e/5x5
I0403 14:51:05.725601 11321 net.cpp:141] Setting up inception_4e/5x5
I0403 14:51:05.725628 11321 net.cpp:148] Top shape: 24 128 14 14 (602112)
I0403 14:51:05.725643 11321 net.cpp:156] Memory required for data: 1239741984
I0403 14:51:05.725661 11321 layer_factory.hpp:77] Creating layer inception_4e/relu_5x5
I0403 14:51:05.725682 11321 net.cpp:91] Creating Layer inception_4e/relu_5x5
I0403 14:51:05.725698 11321 net.cpp:425] inception_4e/relu_5x5 <- inception_4e/5x5
I0403 14:51:05.725716 11321 net.cpp:386] inception_4e/relu_5x5 -> inception_4e/5x5 (in-place)
I0403 14:51:05.725917 11321 net.cpp:141] Setting up inception_4e/relu_5x5
I0403 14:51:05.725942 11321 net.cpp:148] Top shape: 24 128 14 14 (602112)
I0403 14:51:05.725956 11321 net.cpp:156] Memory required for data: 1242150432
I0403 14:51:05.725970 11321 layer_factory.hpp:77] Creating layer inception_4e/pool
I0403 14:51:05.725988 11321 net.cpp:91] Creating Layer inception_4e/pool
I0403 14:51:05.726003 11321 net.cpp:425] inception_4e/pool <- inception_4d/output_inception_4d/output_0_split_4
I0403 14:51:05.726023 11321 net.cpp:399] inception_4e/pool -> inception_4e/pool
I0403 14:51:05.726094 11321 net.cpp:141] Setting up inception_4e/pool
I0403 14:51:05.726117 11321 net.cpp:148] Top shape: 24 528 14 14 (2483712)
I0403 14:51:05.726131 11321 net.cpp:156] Memory required for data: 1252085280
I0403 14:51:05.726145 11321 layer_factory.hpp:77] Creating layer inception_4e/pool_proj
I0403 14:51:05.726169 11321 net.cpp:91] Creating Layer inception_4e/pool_proj
I0403 14:51:05.726186 11321 net.cpp:425] inception_4e/pool_proj <- inception_4e/pool
I0403 14:51:05.726205 11321 net.cpp:399] inception_4e/pool_proj -> inception_4e/pool_proj
I0403 14:51:05.727794 11321 net.cpp:141] Setting up inception_4e/pool_proj
I0403 14:51:05.727835 11321 net.cpp:148] Top shape: 24 128 14 14 (602112)
I0403 14:51:05.727851 11321 net.cpp:156] Memory required for data: 1254493728
I0403 14:51:05.727869 11321 layer_factory.hpp:77] Creating layer inception_4e/relu_pool_proj
I0403 14:51:05.727890 11321 net.cpp:91] Creating Layer inception_4e/relu_pool_proj
I0403 14:51:05.727907 11321 net.cpp:425] inception_4e/relu_pool_proj <- inception_4e/pool_proj
I0403 14:51:05.727926 11321 net.cpp:386] inception_4e/relu_pool_proj -> inception_4e/pool_proj (in-place)
I0403 14:51:05.728225 11321 net.cpp:141] Setting up inception_4e/relu_pool_proj
I0403 14:51:05.728252 11321 net.cpp:148] Top shape: 24 128 14 14 (602112)
I0403 14:51:05.728268 11321 net.cpp:156] Memory required for data: 1256902176
I0403 14:51:05.728282 11321 layer_factory.hpp:77] Creating layer inception_4e/output
I0403 14:51:05.728302 11321 net.cpp:91] Creating Layer inception_4e/output
I0403 14:51:05.728323 11321 net.cpp:425] inception_4e/output <- inception_4e/1x1
I0403 14:51:05.728339 11321 net.cpp:425] inception_4e/output <- inception_4e/3x3
I0403 14:51:05.728355 11321 net.cpp:425] inception_4e/output <- inception_4e/5x5
I0403 14:51:05.728371 11321 net.cpp:425] inception_4e/output <- inception_4e/pool_proj
I0403 14:51:05.728389 11321 net.cpp:399] inception_4e/output -> inception_4e/output
I0403 14:51:05.728445 11321 net.cpp:141] Setting up inception_4e/output
I0403 14:51:05.728468 11321 net.cpp:148] Top shape: 24 832 14 14 (3913728)
I0403 14:51:05.728483 11321 net.cpp:156] Memory required for data: 1272557088
I0403 14:51:05.728498 11321 layer_factory.hpp:77] Creating layer pool4/3x3_s2
I0403 14:51:05.728515 11321 net.cpp:91] Creating Layer pool4/3x3_s2
I0403 14:51:05.728533 11321 net.cpp:425] pool4/3x3_s2 <- inception_4e/output
I0403 14:51:05.728554 11321 net.cpp:399] pool4/3x3_s2 -> pool4/3x3_s2
I0403 14:51:05.728621 11321 net.cpp:141] Setting up pool4/3x3_s2
I0403 14:51:05.728646 11321 net.cpp:148] Top shape: 24 832 7 7 (978432)
I0403 14:51:05.728660 11321 net.cpp:156] Memory required for data: 1276470816
I0403 14:51:05.728675 11321 layer_factory.hpp:77] Creating layer pool4/3x3_s2_pool4/3x3_s2_0_split
I0403 14:51:05.728695 11321 net.cpp:91] Creating Layer pool4/3x3_s2_pool4/3x3_s2_0_split
I0403 14:51:05.728713 11321 net.cpp:425] pool4/3x3_s2_pool4/3x3_s2_0_split <- pool4/3x3_s2
I0403 14:51:05.728732 11321 net.cpp:399] pool4/3x3_s2_pool4/3x3_s2_0_split -> pool4/3x3_s2_pool4/3x3_s2_0_split_0
I0403 14:51:05.728754 11321 net.cpp:399] pool4/3x3_s2_pool4/3x3_s2_0_split -> pool4/3x3_s2_pool4/3x3_s2_0_split_1
I0403 14:51:05.728775 11321 net.cpp:399] pool4/3x3_s2_pool4/3x3_s2_0_split -> pool4/3x3_s2_pool4/3x3_s2_0_split_2
I0403 14:51:05.728793 11321 net.cpp:399] pool4/3x3_s2_pool4/3x3_s2_0_split -> pool4/3x3_s2_pool4/3x3_s2_0_split_3
I0403 14:51:05.728883 11321 net.cpp:141] Setting up pool4/3x3_s2_pool4/3x3_s2_0_split
I0403 14:51:05.728909 11321 net.cpp:148] Top shape: 24 832 7 7 (978432)
I0403 14:51:05.728926 11321 net.cpp:148] Top shape: 24 832 7 7 (978432)
I0403 14:51:05.728942 11321 net.cpp:148] Top shape: 24 832 7 7 (978432)
I0403 14:51:05.728958 11321 net.cpp:148] Top shape: 24 832 7 7 (978432)
I0403 14:51:05.728971 11321 net.cpp:156] Memory required for data: 1292125728
I0403 14:51:05.728986 11321 layer_factory.hpp:77] Creating layer inception_5a/1x1
I0403 14:51:05.729008 11321 net.cpp:91] Creating Layer inception_5a/1x1
I0403 14:51:05.729025 11321 net.cpp:425] inception_5a/1x1 <- pool4/3x3_s2_pool4/3x3_s2_0_split_0
I0403 14:51:05.729045 11321 net.cpp:399] inception_5a/1x1 -> inception_5a/1x1
I0403 14:51:05.732007 11321 net.cpp:141] Setting up inception_5a/1x1
I0403 14:51:05.732039 11321 net.cpp:148] Top shape: 24 256 7 7 (301056)
I0403 14:51:05.732058 11321 net.cpp:156] Memory required for data: 1293329952
I0403 14:51:05.732075 11321 layer_factory.hpp:77] Creating layer inception_5a/relu_1x1
I0403 14:51:05.732094 11321 net.cpp:91] Creating Layer inception_5a/relu_1x1
I0403 14:51:05.732110 11321 net.cpp:425] inception_5a/relu_1x1 <- inception_5a/1x1
I0403 14:51:05.732130 11321 net.cpp:386] inception_5a/relu_1x1 -> inception_5a/1x1 (in-place)
I0403 14:51:05.732468 11321 net.cpp:141] Setting up inception_5a/relu_1x1
I0403 14:51:05.732498 11321 net.cpp:148] Top shape: 24 256 7 7 (301056)
I0403 14:51:05.732514 11321 net.cpp:156] Memory required for data: 1294534176
I0403 14:51:05.732530 11321 layer_factory.hpp:77] Creating layer inception_5a/3x3_reduce
I0403 14:51:05.732553 11321 net.cpp:91] Creating Layer inception_5a/3x3_reduce
I0403 14:51:05.732571 11321 net.cpp:425] inception_5a/3x3_reduce <- pool4/3x3_s2_pool4/3x3_s2_0_split_1
I0403 14:51:05.732590 11321 net.cpp:399] inception_5a/3x3_reduce -> inception_5a/3x3_reduce
I0403 14:51:05.735128 11321 net.cpp:141] Setting up inception_5a/3x3_reduce
I0403 14:51:05.735158 11321 net.cpp:148] Top shape: 24 160 7 7 (188160)
I0403 14:51:05.735174 11321 net.cpp:156] Memory required for data: 1295286816
I0403 14:51:05.735193 11321 layer_factory.hpp:77] Creating layer inception_5a/relu_3x3_reduce
I0403 14:51:05.735213 11321 net.cpp:91] Creating Layer inception_5a/relu_3x3_reduce
I0403 14:51:05.735230 11321 net.cpp:425] inception_5a/relu_3x3_reduce <- inception_5a/3x3_reduce
I0403 14:51:05.735247 11321 net.cpp:386] inception_5a/relu_3x3_reduce -> inception_5a/3x3_reduce (in-place)
I0403 14:51:05.735451 11321 net.cpp:141] Setting up inception_5a/relu_3x3_reduce
I0403 14:51:05.735479 11321 net.cpp:148] Top shape: 24 160 7 7 (188160)
I0403 14:51:05.735496 11321 net.cpp:156] Memory required for data: 1296039456
I0403 14:51:05.735512 11321 layer_factory.hpp:77] Creating layer inception_5a/3x3
I0403 14:51:05.735534 11321 net.cpp:91] Creating Layer inception_5a/3x3
I0403 14:51:05.735553 11321 net.cpp:425] inception_5a/3x3 <- inception_5a/3x3_reduce
I0403 14:51:05.735572 11321 net.cpp:399] inception_5a/3x3 -> inception_5a/3x3
I0403 14:51:05.740758 11321 net.cpp:141] Setting up inception_5a/3x3
I0403 14:51:05.740792 11321 net.cpp:148] Top shape: 24 320 7 7 (376320)
I0403 14:51:05.740808 11321 net.cpp:156] Memory required for data: 1297544736
I0403 14:51:05.740826 11321 layer_factory.hpp:77] Creating layer inception_5a/relu_3x3
I0403 14:51:05.740844 11321 net.cpp:91] Creating Layer inception_5a/relu_3x3
I0403 14:51:05.740861 11321 net.cpp:425] inception_5a/relu_3x3 <- inception_5a/3x3
I0403 14:51:05.740882 11321 net.cpp:386] inception_5a/relu_3x3 -> inception_5a/3x3 (in-place)
I0403 14:51:05.741188 11321 net.cpp:141] Setting up inception_5a/relu_3x3
I0403 14:51:05.741216 11321 net.cpp:148] Top shape: 24 320 7 7 (376320)
I0403 14:51:05.741232 11321 net.cpp:156] Memory required for data: 1299050016
I0403 14:51:05.741247 11321 layer_factory.hpp:77] Creating layer inception_5a/5x5_reduce
I0403 14:51:05.741271 11321 net.cpp:91] Creating Layer inception_5a/5x5_reduce
I0403 14:51:05.741291 11321 net.cpp:425] inception_5a/5x5_reduce <- pool4/3x3_s2_pool4/3x3_s2_0_split_2
I0403 14:51:05.741309 11321 net.cpp:399] inception_5a/5x5_reduce -> inception_5a/5x5_reduce
I0403 14:51:05.742573 11321 net.cpp:141] Setting up inception_5a/5x5_reduce
I0403 14:51:05.742604 11321 net.cpp:148] Top shape: 24 32 7 7 (37632)
I0403 14:51:05.742621 11321 net.cpp:156] Memory required for data: 1299200544
I0403 14:51:05.742640 11321 layer_factory.hpp:77] Creating layer inception_5a/relu_5x5_reduce
I0403 14:51:05.742658 11321 net.cpp:91] Creating Layer inception_5a/relu_5x5_reduce
I0403 14:51:05.742674 11321 net.cpp:425] inception_5a/relu_5x5_reduce <- inception_5a/5x5_reduce
I0403 14:51:05.742694 11321 net.cpp:386] inception_5a/relu_5x5_reduce -> inception_5a/5x5_reduce (in-place)
I0403 14:51:05.743006 11321 net.cpp:141] Setting up inception_5a/relu_5x5_reduce
I0403 14:51:05.743032 11321 net.cpp:148] Top shape: 24 32 7 7 (37632)
I0403 14:51:05.743048 11321 net.cpp:156] Memory required for data: 1299351072
I0403 14:51:05.743063 11321 layer_factory.hpp:77] Creating layer inception_5a/5x5
I0403 14:51:05.743086 11321 net.cpp:91] Creating Layer inception_5a/5x5
I0403 14:51:05.743104 11321 net.cpp:425] inception_5a/5x5 <- inception_5a/5x5_reduce
I0403 14:51:05.743125 11321 net.cpp:399] inception_5a/5x5 -> inception_5a/5x5
I0403 14:51:05.744946 11321 net.cpp:141] Setting up inception_5a/5x5
I0403 14:51:05.744989 11321 net.cpp:148] Top shape: 24 128 7 7 (150528)
I0403 14:51:05.745007 11321 net.cpp:156] Memory required for data: 1299953184
I0403 14:51:05.745036 11321 layer_factory.hpp:77] Creating layer inception_5a/relu_5x5
I0403 14:51:05.745054 11321 net.cpp:91] Creating Layer inception_5a/relu_5x5
I0403 14:51:05.745070 11321 net.cpp:425] inception_5a/relu_5x5 <- inception_5a/5x5
I0403 14:51:05.745090 11321 net.cpp:386] inception_5a/relu_5x5 -> inception_5a/5x5 (in-place)
I0403 14:51:05.745282 11321 net.cpp:141] Setting up inception_5a/relu_5x5
I0403 14:51:05.745306 11321 net.cpp:148] Top shape: 24 128 7 7 (150528)
I0403 14:51:05.745323 11321 net.cpp:156] Memory required for data: 1300555296
I0403 14:51:05.745337 11321 layer_factory.hpp:77] Creating layer inception_5a/pool
I0403 14:51:05.745355 11321 net.cpp:91] Creating Layer inception_5a/pool
I0403 14:51:05.745370 11321 net.cpp:425] inception_5a/pool <- pool4/3x3_s2_pool4/3x3_s2_0_split_3
I0403 14:51:05.745390 11321 net.cpp:399] inception_5a/pool -> inception_5a/pool
I0403 14:51:05.745465 11321 net.cpp:141] Setting up inception_5a/pool
I0403 14:51:05.745488 11321 net.cpp:148] Top shape: 24 832 7 7 (978432)
I0403 14:51:05.745504 11321 net.cpp:156] Memory required for data: 1304469024
I0403 14:51:05.745518 11321 layer_factory.hpp:77] Creating layer inception_5a/pool_proj
I0403 14:51:05.745543 11321 net.cpp:91] Creating Layer inception_5a/pool_proj
I0403 14:51:05.745559 11321 net.cpp:425] inception_5a/pool_proj <- inception_5a/pool
I0403 14:51:05.745579 11321 net.cpp:399] inception_5a/pool_proj -> inception_5a/pool_proj
I0403 14:51:05.747872 11321 net.cpp:141] Setting up inception_5a/pool_proj
I0403 14:51:05.747901 11321 net.cpp:148] Top shape: 24 128 7 7 (150528)
I0403 14:51:05.747920 11321 net.cpp:156] Memory required for data: 1305071136
I0403 14:51:05.747938 11321 layer_factory.hpp:77] Creating layer inception_5a/relu_pool_proj
I0403 14:51:05.747956 11321 net.cpp:91] Creating Layer inception_5a/relu_pool_proj
I0403 14:51:05.747972 11321 net.cpp:425] inception_5a/relu_pool_proj <- inception_5a/pool_proj
I0403 14:51:05.747988 11321 net.cpp:386] inception_5a/relu_pool_proj -> inception_5a/pool_proj (in-place)
I0403 14:51:05.748291 11321 net.cpp:141] Setting up inception_5a/relu_pool_proj
I0403 14:51:05.748317 11321 net.cpp:148] Top shape: 24 128 7 7 (150528)
I0403 14:51:05.748337 11321 net.cpp:156] Memory required for data: 1305673248
I0403 14:51:05.748352 11321 layer_factory.hpp:77] Creating layer inception_5a/output
I0403 14:51:05.748368 11321 net.cpp:91] Creating Layer inception_5a/output
I0403 14:51:05.748384 11321 net.cpp:425] inception_5a/output <- inception_5a/1x1
I0403 14:51:05.748401 11321 net.cpp:425] inception_5a/output <- inception_5a/3x3
I0403 14:51:05.748421 11321 net.cpp:425] inception_5a/output <- inception_5a/5x5
I0403 14:51:05.748438 11321 net.cpp:425] inception_5a/output <- inception_5a/pool_proj
I0403 14:51:05.748456 11321 net.cpp:399] inception_5a/output -> inception_5a/output
I0403 14:51:05.748507 11321 net.cpp:141] Setting up inception_5a/output
I0403 14:51:05.748529 11321 net.cpp:148] Top shape: 24 832 7 7 (978432)
I0403 14:51:05.748544 11321 net.cpp:156] Memory required for data: 1309586976
I0403 14:51:05.748558 11321 layer_factory.hpp:77] Creating layer inception_5a/output_inception_5a/output_0_split
I0403 14:51:05.748575 11321 net.cpp:91] Creating Layer inception_5a/output_inception_5a/output_0_split
I0403 14:51:05.748591 11321 net.cpp:425] inception_5a/output_inception_5a/output_0_split <- inception_5a/output
I0403 14:51:05.748611 11321 net.cpp:399] inception_5a/output_inception_5a/output_0_split -> inception_5a/output_inception_5a/output_0_split_0
I0403 14:51:05.748631 11321 net.cpp:399] inception_5a/output_inception_5a/output_0_split -> inception_5a/output_inception_5a/output_0_split_1
I0403 14:51:05.748651 11321 net.cpp:399] inception_5a/output_inception_5a/output_0_split -> inception_5a/output_inception_5a/output_0_split_2
I0403 14:51:05.748670 11321 net.cpp:399] inception_5a/output_inception_5a/output_0_split -> inception_5a/output_inception_5a/output_0_split_3
I0403 14:51:05.748785 11321 net.cpp:141] Setting up inception_5a/output_inception_5a/output_0_split
I0403 14:51:05.748807 11321 net.cpp:148] Top shape: 24 832 7 7 (978432)
I0403 14:51:05.748823 11321 net.cpp:148] Top shape: 24 832 7 7 (978432)
I0403 14:51:05.748839 11321 net.cpp:148] Top shape: 24 832 7 7 (978432)
I0403 14:51:05.748853 11321 net.cpp:148] Top shape: 24 832 7 7 (978432)
I0403 14:51:05.748867 11321 net.cpp:156] Memory required for data: 1325241888
I0403 14:51:05.748880 11321 layer_factory.hpp:77] Creating layer inception_5b/1x1
I0403 14:51:05.748903 11321 net.cpp:91] Creating Layer inception_5b/1x1
I0403 14:51:05.748919 11321 net.cpp:425] inception_5b/1x1 <- inception_5a/output_inception_5a/output_0_split_0
I0403 14:51:05.748941 11321 net.cpp:399] inception_5b/1x1 -> inception_5b/1x1
I0403 14:51:05.752754 11321 net.cpp:141] Setting up inception_5b/1x1
I0403 14:51:05.752784 11321 net.cpp:148] Top shape: 24 384 7 7 (451584)
I0403 14:51:05.752799 11321 net.cpp:156] Memory required for data: 1327048224
I0403 14:51:05.752817 11321 layer_factory.hpp:77] Creating layer inception_5b/relu_1x1
I0403 14:51:05.752837 11321 net.cpp:91] Creating Layer inception_5b/relu_1x1
I0403 14:51:05.752853 11321 net.cpp:425] inception_5b/relu_1x1 <- inception_5b/1x1
I0403 14:51:05.752871 11321 net.cpp:386] inception_5b/relu_1x1 -> inception_5b/1x1 (in-place)
I0403 14:51:05.753177 11321 net.cpp:141] Setting up inception_5b/relu_1x1
I0403 14:51:05.753203 11321 net.cpp:148] Top shape: 24 384 7 7 (451584)
I0403 14:51:05.753218 11321 net.cpp:156] Memory required for data: 1328854560
I0403 14:51:05.753233 11321 layer_factory.hpp:77] Creating layer inception_5b/3x3_reduce
I0403 14:51:05.753255 11321 net.cpp:91] Creating Layer inception_5b/3x3_reduce
I0403 14:51:05.753273 11321 net.cpp:425] inception_5b/3x3_reduce <- inception_5a/output_inception_5a/output_0_split_1
I0403 14:51:05.753295 11321 net.cpp:399] inception_5b/3x3_reduce -> inception_5b/3x3_reduce
I0403 14:51:05.755967 11321 net.cpp:141] Setting up inception_5b/3x3_reduce
I0403 14:51:05.755996 11321 net.cpp:148] Top shape: 24 192 7 7 (225792)
I0403 14:51:05.756011 11321 net.cpp:156] Memory required for data: 1329757728
I0403 14:51:05.756029 11321 layer_factory.hpp:77] Creating layer inception_5b/relu_3x3_reduce
I0403 14:51:05.756049 11321 net.cpp:91] Creating Layer inception_5b/relu_3x3_reduce
I0403 14:51:05.756067 11321 net.cpp:425] inception_5b/relu_3x3_reduce <- inception_5b/3x3_reduce
I0403 14:51:05.756084 11321 net.cpp:386] inception_5b/relu_3x3_reduce -> inception_5b/3x3_reduce (in-place)
I0403 14:51:05.756278 11321 net.cpp:141] Setting up inception_5b/relu_3x3_reduce
I0403 14:51:05.756304 11321 net.cpp:148] Top shape: 24 192 7 7 (225792)
I0403 14:51:05.756319 11321 net.cpp:156] Memory required for data: 1330660896
I0403 14:51:05.756333 11321 layer_factory.hpp:77] Creating layer inception_5b/3x3
I0403 14:51:05.756356 11321 net.cpp:91] Creating Layer inception_5b/3x3
I0403 14:51:05.756372 11321 net.cpp:425] inception_5b/3x3 <- inception_5b/3x3_reduce
I0403 14:51:05.756392 11321 net.cpp:399] inception_5b/3x3 -> inception_5b/3x3
I0403 14:51:05.763118 11321 net.cpp:141] Setting up inception_5b/3x3
I0403 14:51:05.763146 11321 net.cpp:148] Top shape: 24 384 7 7 (451584)
I0403 14:51:05.763164 11321 net.cpp:156] Memory required for data: 1332467232
I0403 14:51:05.763182 11321 layer_factory.hpp:77] Creating layer inception_5b/relu_3x3
I0403 14:51:05.763200 11321 net.cpp:91] Creating Layer inception_5b/relu_3x3
I0403 14:51:05.763216 11321 net.cpp:425] inception_5b/relu_3x3 <- inception_5b/3x3
I0403 14:51:05.763231 11321 net.cpp:386] inception_5b/relu_3x3 -> inception_5b/3x3 (in-place)
I0403 14:51:05.763531 11321 net.cpp:141] Setting up inception_5b/relu_3x3
I0403 14:51:05.763559 11321 net.cpp:148] Top shape: 24 384 7 7 (451584)
I0403 14:51:05.763574 11321 net.cpp:156] Memory required for data: 1334273568
I0403 14:51:05.763588 11321 layer_factory.hpp:77] Creating layer inception_5b/5x5_reduce
I0403 14:51:05.763625 11321 net.cpp:91] Creating Layer inception_5b/5x5_reduce
I0403 14:51:05.763643 11321 net.cpp:425] inception_5b/5x5_reduce <- inception_5a/output_inception_5a/output_0_split_2
I0403 14:51:05.763664 11321 net.cpp:399] inception_5b/5x5_reduce -> inception_5b/5x5_reduce
I0403 14:51:05.764909 11321 net.cpp:141] Setting up inception_5b/5x5_reduce
I0403 14:51:05.764935 11321 net.cpp:148] Top shape: 24 48 7 7 (56448)
I0403 14:51:05.764950 11321 net.cpp:156] Memory required for data: 1334499360
I0403 14:51:05.764968 11321 layer_factory.hpp:77] Creating layer inception_5b/relu_5x5_reduce
I0403 14:51:05.764987 11321 net.cpp:91] Creating Layer inception_5b/relu_5x5_reduce
I0403 14:51:05.765004 11321 net.cpp:425] inception_5b/relu_5x5_reduce <- inception_5b/5x5_reduce
I0403 14:51:05.765022 11321 net.cpp:386] inception_5b/relu_5x5_reduce -> inception_5b/5x5_reduce (in-place)
I0403 14:51:05.765393 11321 net.cpp:141] Setting up inception_5b/relu_5x5_reduce
I0403 14:51:05.765422 11321 net.cpp:148] Top shape: 24 48 7 7 (56448)
I0403 14:51:05.765437 11321 net.cpp:156] Memory required for data: 1334725152
I0403 14:51:05.765452 11321 layer_factory.hpp:77] Creating layer inception_5b/5x5
I0403 14:51:05.765471 11321 net.cpp:91] Creating Layer inception_5b/5x5
I0403 14:51:05.765487 11321 net.cpp:425] inception_5b/5x5 <- inception_5b/5x5_reduce
I0403 14:51:05.765506 11321 net.cpp:399] inception_5b/5x5 -> inception_5b/5x5
I0403 14:51:05.767518 11321 net.cpp:141] Setting up inception_5b/5x5
I0403 14:51:05.767547 11321 net.cpp:148] Top shape: 24 128 7 7 (150528)
I0403 14:51:05.767563 11321 net.cpp:156] Memory required for data: 1335327264
I0403 14:51:05.767581 11321 layer_factory.hpp:77] Creating layer inception_5b/relu_5x5
I0403 14:51:05.767598 11321 net.cpp:91] Creating Layer inception_5b/relu_5x5
I0403 14:51:05.767613 11321 net.cpp:425] inception_5b/relu_5x5 <- inception_5b/5x5
I0403 14:51:05.767630 11321 net.cpp:386] inception_5b/relu_5x5 -> inception_5b/5x5 (in-place)
I0403 14:51:05.767823 11321 net.cpp:141] Setting up inception_5b/relu_5x5
I0403 14:51:05.767848 11321 net.cpp:148] Top shape: 24 128 7 7 (150528)
I0403 14:51:05.767861 11321 net.cpp:156] Memory required for data: 1335929376
I0403 14:51:05.767874 11321 layer_factory.hpp:77] Creating layer inception_5b/pool
I0403 14:51:05.767892 11321 net.cpp:91] Creating Layer inception_5b/pool
I0403 14:51:05.767907 11321 net.cpp:425] inception_5b/pool <- inception_5a/output_inception_5a/output_0_split_3
I0403 14:51:05.767927 11321 net.cpp:399] inception_5b/pool -> inception_5b/pool
I0403 14:51:05.767997 11321 net.cpp:141] Setting up inception_5b/pool
I0403 14:51:05.768023 11321 net.cpp:148] Top shape: 24 832 7 7 (978432)
I0403 14:51:05.768036 11321 net.cpp:156] Memory required for data: 1339843104
I0403 14:51:05.768050 11321 layer_factory.hpp:77] Creating layer inception_5b/pool_proj
I0403 14:51:05.768071 11321 net.cpp:91] Creating Layer inception_5b/pool_proj
I0403 14:51:05.768087 11321 net.cpp:425] inception_5b/pool_proj <- inception_5b/pool
I0403 14:51:05.768106 11321 net.cpp:399] inception_5b/pool_proj -> inception_5b/pool_proj
I0403 14:51:05.770357 11321 net.cpp:141] Setting up inception_5b/pool_proj
I0403 14:51:05.770385 11321 net.cpp:148] Top shape: 24 128 7 7 (150528)
I0403 14:51:05.770401 11321 net.cpp:156] Memory required for data: 1340445216
I0403 14:51:05.770422 11321 layer_factory.hpp:77] Creating layer inception_5b/relu_pool_proj
I0403 14:51:05.770444 11321 net.cpp:91] Creating Layer inception_5b/relu_pool_proj
I0403 14:51:05.770460 11321 net.cpp:425] inception_5b/relu_pool_proj <- inception_5b/pool_proj
I0403 14:51:05.770478 11321 net.cpp:386] inception_5b/relu_pool_proj -> inception_5b/pool_proj (in-place)
I0403 14:51:05.770767 11321 net.cpp:141] Setting up inception_5b/relu_pool_proj
I0403 14:51:05.770792 11321 net.cpp:148] Top shape: 24 128 7 7 (150528)
I0403 14:51:05.770807 11321 net.cpp:156] Memory required for data: 1341047328
I0403 14:51:05.770823 11321 layer_factory.hpp:77] Creating layer inception_5b/output
I0403 14:51:05.770841 11321 net.cpp:91] Creating Layer inception_5b/output
I0403 14:51:05.770871 11321 net.cpp:425] inception_5b/output <- inception_5b/1x1
I0403 14:51:05.770889 11321 net.cpp:425] inception_5b/output <- inception_5b/3x3
I0403 14:51:05.770905 11321 net.cpp:425] inception_5b/output <- inception_5b/5x5
I0403 14:51:05.770920 11321 net.cpp:425] inception_5b/output <- inception_5b/pool_proj
I0403 14:51:05.770936 11321 net.cpp:399] inception_5b/output -> inception_5b/output
I0403 14:51:05.770989 11321 net.cpp:141] Setting up inception_5b/output
I0403 14:51:05.771013 11321 net.cpp:148] Top shape: 24 1024 7 7 (1204224)
I0403 14:51:05.771025 11321 net.cpp:156] Memory required for data: 1345864224
I0403 14:51:05.771039 11321 layer_factory.hpp:77] Creating layer pool5/7x7_s1
I0403 14:51:05.771055 11321 net.cpp:91] Creating Layer pool5/7x7_s1
I0403 14:51:05.771070 11321 net.cpp:425] pool5/7x7_s1 <- inception_5b/output
I0403 14:51:05.771092 11321 net.cpp:399] pool5/7x7_s1 -> pool5/7x7_s1
I0403 14:51:05.771303 11321 net.cpp:141] Setting up pool5/7x7_s1
I0403 14:51:05.771330 11321 net.cpp:148] Top shape: 24 1024 1 1 (24576)
I0403 14:51:05.771345 11321 net.cpp:156] Memory required for data: 1345962528
I0403 14:51:05.771359 11321 layer_factory.hpp:77] Creating layer pool5/drop_7x7_s1
I0403 14:51:05.771378 11321 net.cpp:91] Creating Layer pool5/drop_7x7_s1
I0403 14:51:05.771392 11321 net.cpp:425] pool5/drop_7x7_s1 <- pool5/7x7_s1
I0403 14:51:05.771416 11321 net.cpp:386] pool5/drop_7x7_s1 -> pool5/7x7_s1 (in-place)
I0403 14:51:05.771467 11321 net.cpp:141] Setting up pool5/drop_7x7_s1
I0403 14:51:05.771489 11321 net.cpp:148] Top shape: 24 1024 1 1 (24576)
I0403 14:51:05.771503 11321 net.cpp:156] Memory required for data: 1346060832
I0403 14:51:05.771517 11321 layer_factory.hpp:77] Creating layer loss3/classifier_plantvillage
I0403 14:51:05.771538 11321 net.cpp:91] Creating Layer loss3/classifier_plantvillage
I0403 14:51:05.771555 11321 net.cpp:425] loss3/classifier_plantvillage <- pool5/7x7_s1
I0403 14:51:05.771575 11321 net.cpp:399] loss3/classifier_plantvillage -> loss3/classifier_plantvillage
I0403 14:51:05.771989 11321 net.cpp:141] Setting up loss3/classifier_plantvillage
I0403 14:51:05.772012 11321 net.cpp:148] Top shape: 24 38 (912)
I0403 14:51:05.772027 11321 net.cpp:156] Memory required for data: 1346064480
I0403 14:51:05.772043 11321 layer_factory.hpp:77] Creating layer loss3/classifier_plantvillage_loss3/classifier_plantvillage_0_split
I0403 14:51:05.772060 11321 net.cpp:91] Creating Layer loss3/classifier_plantvillage_loss3/classifier_plantvillage_0_split
I0403 14:51:05.772081 11321 net.cpp:425] loss3/classifier_plantvillage_loss3/classifier_plantvillage_0_split <- loss3/classifier_plantvillage
I0403 14:51:05.772099 11321 net.cpp:399] loss3/classifier_plantvillage_loss3/classifier_plantvillage_0_split -> loss3/classifier_plantvillage_loss3/classifier_plantvillage_0_split_0
I0403 14:51:05.772116 11321 net.cpp:399] loss3/classifier_plantvillage_loss3/classifier_plantvillage_0_split -> loss3/classifier_plantvillage_loss3/classifier_plantvillage_0_split_1
I0403 14:51:05.772135 11321 net.cpp:399] loss3/classifier_plantvillage_loss3/classifier_plantvillage_0_split -> loss3/classifier_plantvillage_loss3/classifier_plantvillage_0_split_2
I0403 14:51:05.772155 11321 net.cpp:399] loss3/classifier_plantvillage_loss3/classifier_plantvillage_0_split -> loss3/classifier_plantvillage_loss3/classifier_plantvillage_0_split_3
I0403 14:51:05.772251 11321 net.cpp:141] Setting up loss3/classifier_plantvillage_loss3/classifier_plantvillage_0_split
I0403 14:51:05.772274 11321 net.cpp:148] Top shape: 24 38 (912)
I0403 14:51:05.772291 11321 net.cpp:148] Top shape: 24 38 (912)
I0403 14:51:05.772306 11321 net.cpp:148] Top shape: 24 38 (912)
I0403 14:51:05.772320 11321 net.cpp:148] Top shape: 24 38 (912)
I0403 14:51:05.772333 11321 net.cpp:156] Memory required for data: 1346079072
I0403 14:51:05.772347 11321 layer_factory.hpp:77] Creating layer loss1/loss
I0403 14:51:05.772367 11321 net.cpp:91] Creating Layer loss1/loss
I0403 14:51:05.772384 11321 net.cpp:425] loss1/loss <- loss1/classifier_plantvillage_loss1/classifier_plantvillage_0_split_0
I0403 14:51:05.772416 11321 net.cpp:425] loss1/loss <- label_data_1_split_0
…
