…
I0403 15:30:51.105094 12043 net.cpp:313] The NetState phase (1) differed from the phase (0) specified by a rule in layer data
I0403 15:30:51.106225 12043 net.cpp:49] Initializing net from parameters: 
state {
  phase: TEST
}
layer {
  name: "data"
  type: "Data"
  top: "data"
  top: "label"
  include {
    phase: TEST
  }
  transform_param {
    mirror: false
    crop_size: 224
    mean_file: "/home/mohanty/data/final_dataset/lmdb/segmented-50-50/mean.binaryproto"
  }
  data_param {
    source: "/home/mohanty/data/final_dataset/lmdb/segmented-50-50/test_db"
    batch_size: 24
    backend: LMDB
  }
}
layer {
  name: "conv1/7x7_s2"
  type: "Convolution"
  bottom: "data"
  top: "conv1/7x7_s2"
  param {
    lr_mult: 1
    decay_mult: 1
  }
  param {
    lr_mult: 2
    decay_mult: 0
  }
  convolution_param {
    num_output: 64
    pad: 3
    kernel_size: 7
    stride: 2
    weight_filler {
      type: "xavier"
      std: 0.1
    }
    bias_filler {
      type: "constant"
      value: 0.2
    }
  }
}
layer {
  name: "conv1/relu_7x7"
  type: "ReLU"
  bottom: "conv1/7x7_s2"
  top: "conv1/7x7_s2"
}
layer {
  name: "pool1/3x3_s2"
  type: "Pooling"
  bottom: "conv1/7x7_s2"
  top: "pool1/3x3_s2"
  pooling_param {
    pool: MAX
    kernel_size: 3
    stride: 2
  }
}
layer {
  name: "pool1/norm1"
  type: "LRN"
  bottom: "pool1/3x3_s2"
  top: "pool1/norm1"
  lrn_param {
    local_size: 5
    alpha: 0.0001
    beta: 0.75
  }
}
layer {
  name: "conv2/3x3_reduce"
  type: "Convolution"
  bottom: "pool1/norm1"
  top: "conv2/3x3_reduce"
  param {
    lr_mult: 1
    decay_mult: 1
  }
  param {
    lr_mult: 2
    decay_mult: 0
  }
  convolution_param {
    num_output: 64
    kernel_size: 1
    weight_filler {
      type: "xavier"
      std: 0.1
    }
    bias_filler {
      type: "constant"
      value: 0.2
    }
  }
}
layer {
  name: "conv2/relu_3x3_reduce"
  type: "ReLU"
  bottom: "conv2/3x3_reduce"
  top: "conv2/3x3_reduce"
}
layer {
  name: "conv2/3x3"
  type: "Convolution"
  bottom: "conv2/3x3_reduce"
  top: "conv2/3x3"
  param {
    lr_mult: 1
    decay_mult: 1
  }
  param {
    lr_mult: 2
    decay_mult: 0
  }
  convolution_param {
    num_output: 192
    pad: 1
    kernel_size: 3
    weight_filler {
      type: "xavier"
      std: 0.03
    }
    bias_filler {
      type: "constant"
      value: 0.2
    }
  }
}
layer {
  name: "conv2/relu_3x3"
  type: "ReLU"
  bottom: "conv2/3x3"
  top: "conv2/3x3"
}
layer {
  name: "conv2/norm2"
  type: "LRN"
  bottom: "conv2/3x3"
  top: "conv2/norm2"
  lrn_param {
    local_size: 5
    alpha: 0.0001
    beta: 0.75
  }
}
layer {
  name: "pool2/3x3_s2"
  type: "Pooling"
  bottom: "conv2/norm2"
  top: "pool2/3x3_s2"
  pooling_param {
    pool: MAX
    kernel_size: 3
    stride: 2
  }
}
layer {
  name: "inception_3a/1x1"
  type: "Convolution"
  bottom: "pool2/3x3_s2"
  top: "inception_3a/1x1"
  param {
    lr_mult: 1
    decay_mult: 1
  }
  param {
    lr_mult: 2
    decay_mult: 0
  }
  convolution_param {
    num_output: 64
    kernel_size: 1
    weight_filler {
      type: "xavier"
      std: 0.03
    }
    bias_filler {
      type: "constant"
      value: 0.2
    }
  }
}
layer {
  name: "inception_3a/relu_1x1"
  type: "ReLU"
  bottom: "inception_3a/1x1"
  top: "inception_3a/1x1"
}
layer {
  name: "inception_3a/3x3_reduce"
  type: "Convolution"
  bottom: "pool2/3x3_s2"
  top: "inception_3a/3x3_reduce"
  param {
    lr_mult: 1
    decay_mult: 1
  }
  param {
    lr_mult: 2
    decay_mult: 0
  }
  convolution_param {
    num_output: 96
    kernel_size: 1
    weight_filler {
      type: "xavier"
      std: 0.09
    }
    bias_filler {
      type: "constant"
      value: 0.2
    }
  }
}
layer {
  name: "inception_3a/relu_3x3_reduce"
  type: "ReLU"
  bottom: "inception_3a/3x3_reduce"
  top: "inception_3a/3x3_reduce"
}
layer {
  name: "inception_3a/3x3"
  type: "Convolution"
  bottom: "inception_3a/3x3_reduce"
  top: "inception_3a/3x3"
  param {
    lr_mult: 1
    decay_mult: 1
  }
  param {
    lr_mult: 2
    decay_mult: 0
  }
  convolution_param {
    num_output: 128
    pad: 1
    kernel_size: 3
    weight_filler {
      type: "xavier"
      std: 0.03
    }
    bias_filler {
      type: "constant"
      value: 0.2
    }
  }
}
layer {
  name: "inception_3a/relu_3x3"
  type: "ReLU"
  bottom: "inception_3a/3x3"
  top: "inception_3a/3x3"
}
layer {
  name: "inception_3a/5x5_reduce"
  type: "Convolution"
  bottom: "pool2/3x3_s2"
  top: "inception_3a/5x5_reduce"
  param {
    lr_mult: 1
    decay_mult: 1
  }
  param {
    lr_mult: 2
    decay_mult: 0
  }
  convolution_param {
    num_output: 16
    kernel_size: 1
    weight_filler {
      type: "xavier"
      std: 0.2
    }
    bias_filler {
      type: "constant"
      value: 0.2
    }
  }
}
layer {
  name: "inception_3a/relu_5x5_reduce"
  type: "ReLU"
  bottom: "inception_3a/5x5_reduce"
  top: "inception_3a/5x5_reduce"
}
layer {
  name: "inception_3a/5x5"
  type: "Convolution"
  bottom: "inception_3a/5x5_reduce"
  top: "inception_3a/5x5"
  param {
    lr_mult: 1
    decay_mult: 1
  }
  param {
    lr_mult: 2
    decay_mult: 0
  }
  convolution_param {
    num_output: 32
    pad: 2
    kernel_size: 5
    weight_filler {
      type: "xavier"
      std: 0.03
    }
    bias_filler {
      type: "constant"
      value: 0.2
    }
  }
}
layer {
  name: "inception_3a/relu_5x5"
  type: "ReLU"
  bottom: "inception_3a/5x5"
  top: "inception_3a/5x5"
}
layer {
  name: "inception_3a/pool"
  type: "Pooling"
  bottom: "pool2/3x3_s2"
  top: "inception_3a/pool"
  pooling_param {
    pool: MAX
    kernel_size: 3
    stride: 1
    pad: 1
  }
}
layer {
  name: "inception_3a/pool_proj"
  type: "Convolution"
  bottom: "inception_3a/pool"
  top: "inception_3a/pool_proj"
  param {
    lr_mult: 1
    decay_mult: 1
  }
  param {
    lr_mult: 2
    decay_mult: 0
  }
  convolution_param {
    num_output: 32
    kernel_size: 1
    weight_filler {
      type: "xavier"
      std: 0.1
    }
    bias_filler {
      type: "constant"
      value: 0.2
    }
  }
}
layer {
  name: "inception_3a/relu_pool_proj"
  type: "ReLU"
  bottom: "inception_3a/pool_proj"
  top: "inception_3a/pool_proj"
}
layer {
  name: "inception_3a/output"
  type: "Concat"
  bottom: "inception_3a/1x1"
  bottom: "inception_3a/3x3"
  bottom: "inception_3a/5x5"
  bottom: "inception_3a/pool_proj"
  top: "inception_3a/output"
}
layer {
  name: "inception_3b/1x1"
  type: "Convolution"
  bottom: "inception_3a/output"
  top: "inception_3b/1x1"
  param {
    lr_mult: 1
    decay_mult: 1
  }
  param {
    lr_mult: 2
    decay_mult: 0
  }
  convolution_param {
    num_output: 128
    kernel_size: 1
    weight_filler {
      type: "xavier"
      std: 0.03
    }
    bias_filler {
      type: "constant"
      value: 0.2
    }
  }
}
layer {
  name: "inception_3b/relu_1x1"
  type: "ReLU"
  bottom: "inception_3b/1x1"
  top: "inception_3b/1x1"
}
layer {
  name: "inception_3b/3x3_reduce"
  type: "Convolution"
  bottom: "inception_3a/output"
  top: "inception_3b/3x3_reduce"
  param {
    lr_mult: 1
    decay_mult: 1
  }
  param {
    lr_mult: 2
    decay_mult: 0
  }
  convolution_param {
    num_output: 128
    kernel_size: 1
    weight_filler {
      type: "xavier"
      std: 0.09
    }
    bias_filler {
      type: "constant"
      value: 0.2
    }
  }
}
layer {
  name: "inception_3b/relu_3x3_reduce"
  type: "ReLU"
  bottom: "inception_3b/3x3_reduce"
  top: "inception_3b/3x3_reduce"
}
layer {
  name: "inception_3b/3x3"
  type: "Convolution"
  bottom: "inception_3b/3x3_reduce"
  top: "inception_3b/3x3"
  param {
    lr_mult: 1
    decay_mult: 1
  }
  param {
    lr_mult: 2
    decay_mult: 0
  }
  convolution_param {
    num_output: 192
    pad: 1
    kernel_size: 3
    weight_filler {
      type: "xavier"
      std: 0.03
    }
    bias_filler {
      type: "constant"
      value: 0.2
    }
  }
}
layer {
  name: "inception_3b/relu_3x3"
  type: "ReLU"
  bottom: "inception_3b/3x3"
  top: "inception_3b/3x3"
}
layer {
  name: "inception_3b/5x5_reduce"
  type: "Convolution"
  bottom: "inception_3a/output"
  top: "inception_3b/5x5_reduce"
  param {
    lr_mult: 1
    decay_mult: 1
  }
  param {
    lr_mult: 2
    decay_mult: 0
  }
  convolution_param {
    num_output: 32
    kernel_size: 1
    weight_filler {
      type: "xavier"
      std: 0.2
    }
    bias_filler {
      type: "constant"
      value: 0.2
    }
  }
}
layer {
  name: "inception_3b/relu_5x5_reduce"
  type: "ReLU"
  bottom: "inception_3b/5x5_reduce"
  top: "inception_3b/5x5_reduce"
}
layer {
  name: "inception_3b/5x5"
  type: "Convolution"
  bottom: "inception_3b/5x5_reduce"
  top: "inception_3b/5x5"
  param {
    lr_mult: 1
    decay_mult: 1
  }
  param {
    lr_mult: 2
    decay_mult: 0
  }
  convolution_param {
    num_output: 96
    pad: 2
    kernel_size: 5
    weight_filler {
      type: "xavier"
      std: 0.03
    }
    bias_filler {
      type: "constant"
      value: 0.2
    }
  }
}
layer {
  name: "inception_3b/relu_5x5"
  type: "ReLU"
  bottom: "inception_3b/5x5"
  top: "inception_3b/5x5"
}
layer {
  name: "inception_3b/pool"
  type: "Pooling"
  bottom: "inception_3a/output"
  top: "inception_3b/pool"
  pooling_param {
    pool: MAX
    kernel_size: 3
    stride: 1
    pad: 1
  }
}
layer {
  name: "inception_3b/pool_proj"
  type: "Convolution"
  bottom: "inception_3b/pool"
  top: "inception_3b/pool_proj"
  param {
    lr_mult: 1
    decay_mult: 1
  }
  param {
    lr_mult: 2
    decay_mult: 0
  }
  convolution_param {
    num_output: 64
    kernel_size: 1
    weight_filler {
      type: "xavier"
      std: 0.1
    }
    bias_filler {
      type: "constant"
      value: 0.2
    }
  }
}
layer {
  name: "inception_3b/relu_pool_proj"
  type: "ReLU"
  bottom: "inception_3b/pool_proj"
  top: "inception_3b/pool_proj"
}
layer {
  name: "inception_3b/output"
  type: "Concat"
  bottom: "inception_3b/1x1"
  bottom: "inception_3b/3x3"
  bottom: "inception_3b/5x5"
  bottom: "inception_3b/pool_proj"
  top: "inception_3b/output"
}
layer {
  name: "pool3/3x3_s2"
  type: "Pooling"
  bottom: "inception_3b/output"
  top: "pool3/3x3_s2"
  pooling_param {
    pool: MAX
    kernel_size: 3
    stride: 2
  }
}
layer {
  name: "inception_4a/1x1"
  type: "Convolution"
  bottom: "pool3/3x3_s2"
  top: "inception_4a/1x1"
  param {
    lr_mult: 1
    decay_mult: 1
  }
  param {
    lr_mult: 2
    decay_mult: 0
  }
  convolution_param {
    num_output: 192
    kernel_size: 1
    weight_filler {
      type: "xavier"
      std: 0.03
    }
    bias_filler {
      type: "constant"
      value: 0.2
    }
  }
}
layer {
  name: "inception_4a/relu_1x1"
  type: "ReLU"
  bottom: "inception_4a/1x1"
  top: "inception_4a/1x1"
}
layer {
  name: "inception_4a/3x3_reduce"
  type: "Convolution"
  bottom: "pool3/3x3_s2"
  top: "inception_4a/3x3_reduce"
  param {
    lr_mult: 1
    decay_mult: 1
  }
  param {
    lr_mult: 2
    decay_mult: 0
  }
  convolution_param {
    num_output: 96
    kernel_size: 1
    weight_filler {
      type: "xavier"
      std: 0.09
    }
    bias_filler {
      type: "constant"
      value: 0.2
    }
  }
}
layer {
  name: "inception_4a/relu_3x3_reduce"
  type: "ReLU"
  bottom: "inception_4a/3x3_reduce"
  top: "inception_4a/3x3_reduce"
}
layer {
  name: "inception_4a/3x3"
  type: "Convolution"
  bottom: "inception_4a/3x3_reduce"
  top: "inception_4a/3x3"
  param {
    lr_mult: 1
    decay_mult: 1
  }
  param {
    lr_mult: 2
    decay_mult: 0
  }
  convolution_param {
    num_output: 208
    pad: 1
    kernel_size: 3
    weight_filler {
      type: "xavier"
      std: 0.03
    }
    bias_filler {
      type: "constant"
      value: 0.2
    }
  }
}
layer {
  name: "inception_4a/relu_3x3"
  type: "ReLU"
  bottom: "inception_4a/3x3"
  top: "inception_4a/3x3"
}
layer {
  name: "inception_4a/5x5_reduce"
  type: "Convolution"
  bottom: "pool3/3x3_s2"
  top: "inception_4a/5x5_reduce"
  param {
    lr_mult: 1
    decay_mult: 1
  }
  param {
    lr_mult: 2
    decay_mult: 0
  }
  convolution_param {
    num_output: 16
    kernel_size: 1
    weight_filler {
      type: "xavier"
      std: 0.2
    }
    bias_filler {
      type: "constant"
      value: 0.2
    }
  }
}
layer {
  name: "inception_4a/relu_5x5_reduce"
  type: "ReLU"
  bottom: "inception_4a/5x5_reduce"
  top: "inception_4a/5x5_reduce"
}
layer {
  name: "inception_4a/5x5"
  type: "Convolution"
  bottom: "inception_4a/5x5_reduce"
  top: "inception_4a/5x5"
  param {
    lr_mult: 1
    decay_mult: 1
  }
  param {
    lr_mult: 2
    decay_mult: 0
  }
  convolution_param {
    num_output: 48
    pad: 2
    kernel_size: 5
    weight_filler {
      type: "xavier"
      std: 0.03
    }
    bias_filler {
      type: "constant"
      value: 0.2
    }
  }
}
layer {
  name: "inception_4a/relu_5x5"
  type: "ReLU"
  bottom: "inception_4a/5x5"
  top: "inception_4a/5x5"
}
layer {
  name: "inception_4a/pool"
  type: "Pooling"
  bottom: "pool3/3x3_s2"
  top: "inception_4a/pool"
  pooling_param {
    pool: MAX
    kernel_size: 3
    stride: 1
    pad: 1
  }
}
layer {
  name: "inception_4a/pool_proj"
  type: "Convolution"
  bottom: "inception_4a/pool"
  top: "inception_4a/pool_proj"
  param {
    lr_mult: 1
    decay_mult: 1
  }
  param {
    lr_mult: 2
    decay_mult: 0
  }
  convolution_param {
    num_output: 64
    kernel_size: 1
    weight_filler {
      type: "xavier"
      std: 0.1
    }
    bias_filler {
      type: "constant"
      value: 0.2
    }
  }
}
layer {
  name: "inception_4a/relu_pool_proj"
  type: "ReLU"
  bottom: "inception_4a/pool_proj"
  top: "inception_4a/pool_proj"
}
layer {
  name: "inception_4a/output"
  type: "Concat"
  bottom: "inception_4a/1x1"
  bottom: "inception_4a/3x3"
  bottom: "inception_4a/5x5"
  bottom: "inception_4a/pool_proj"
  top: "inception_4a/output"
}
layer {
  name: "loss1/ave_pool"
  type: "Pooling"
  bottom: "inception_4a/output"
  top: "loss1/ave_pool"
  pooling_param {
    pool: AVE
    kernel_size: 5
    stride: 3
  }
}
layer {
  name: "loss1/conv"
  type: "Convolution"
  bottom: "loss1/ave_pool"
  top: "loss1/conv"
  param {
    lr_mult: 1
    decay_mult: 1
  }
  param {
    lr_mult: 2
    decay_mult: 0
  }
  convolution_param {
    num_output: 128
    kernel_size: 1
    weight_filler {
      type: "xavier"
      std: 0.08
    }
    bias_filler {
      type: "constant"
      value: 0.2
    }
  }
}
layer {
  name: "loss1/relu_conv"
  type: "ReLU"
  bottom: "loss1/conv"
  top: "loss1/conv"
}
layer {
  name: "loss1/fc"
  type: "InnerProduct"
  bottom: "loss1/conv"
  top: "loss1/fc"
  param {
    lr_mult: 1
    decay_mult: 1
  }
  param {
    lr_mult: 2
    decay_mult: 0
  }
  inner_product_param {
    num_output: 1024
    weight_filler {
      type: "xavier"
      std: 0.02
    }
    bias_filler {
      type: "constant"
      value: 0.2
    }
  }
}
layer {
  name: "loss1/relu_fc"
  type: "ReLU"
  bottom: "loss1/fc"
  top: "loss1/fc"
}
layer {
  name: "loss1/drop_fc"
  type: "Dropout"
  bottom: "loss1/fc"
  top: "loss1/fc"
  dropout_param {
    dropout_ratio: 0.7
  }
}
layer {
  name: "loss1/classifier_plantvillage"
  type: "InnerProduct"
  bottom: "loss1/fc"
  top: "loss1/classifier_plantvillage"
  param {
    lr_mult: 1
    decay_mult: 1
  }
  param {
    lr_mult: 2
    decay_mult: 0
  }
  inner_product_param {
    num_output: 38
    weight_filler {
      type: "xavier"
      std: 0.0009765625
    }
    bias_filler {
      type: "constant"
      value: 0
    }
  }
}
layer {
  name: "inception_4b/1x1"
  type: "Convolution"
  bottom: "inception_4a/output"
  top: "inception_4b/1x1"
  param {
    lr_mult: 1
    decay_mult: 1
  }
  param {
    lr_mult: 2
    decay_mult: 0
  }
  convolution_param {
    num_output: 160
    kernel_size: 1
    weight_filler {
      type: "xavier"
      std: 0.03
    }
    bias_filler {
      type: "constant"
      value: 0.2
    }
  }
}
layer {
  name: "inception_4b/relu_1x1"
  type: "ReLU"
  bottom: "inception_4b/1x1"
  top: "inception_4b/1x1"
}
layer {
  name: "inception_4b/3x3_reduce"
  type: "Convolution"
  bottom: "inception_4a/output"
  top: "inception_4b/3x3_reduce"
  param {
    lr_mult: 1
    decay_mult: 1
  }
  param {
    lr_mult: 2
    decay_mult: 0
  }
  convolution_param {
    num_output: 112
    kernel_size: 1
    weight_filler {
      type: "xavier"
      std: 0.09
    }
    bias_filler {
      type: "constant"
      value: 0.2
    }
  }
}
layer {
  name: "inception_4b/relu_3x3_reduce"
  type: "ReLU"
  bottom: "inception_4b/3x3_reduce"
  top: "inception_4b/3x3_reduce"
}
layer {
  name: "inception_4b/3x3"
  type: "Convolution"
  bottom: "inception_4b/3x3_reduce"
  top: "inception_4b/3x3"
  param {
    lr_mult: 1
    decay_mult: 1
  }
  param {
    lr_mult: 2
    decay_mult: 0
  }
  convolution_param {
    num_output: 224
    pad: 1
    kernel_size: 3
    weight_filler {
      type: "xavier"
      std: 0.03
    }
    bias_filler {
      type: "constant"
      value: 0.2
    }
  }
}
layer {
  name: "inception_4b/relu_3x3"
  type: "ReLU"
  bottom: "inception_4b/3x3"
  top: "inception_4b/3x3"
}
layer {
  name: "inception_4b/5x5_reduce"
  type: "Convolution"
  bottom: "inception_4a/output"
  top: "inception_4b/5x5_reduce"
  param {
    lr_mult: 1
    decay_mult: 1
  }
  param {
    lr_mult: 2
    decay_mult: 0
  }
  convolution_param {
    num_output: 24
    kernel_size: 1
    weight_filler {
      type: "xavier"
      std: 0.2
    }
    bias_filler {
      type: "constant"
      value: 0.2
    }
  }
}
layer {
  name: "inception_4b/relu_5x5_reduce"
  type: "ReLU"
  bottom: "inception_4b/5x5_reduce"
  top: "inception_4b/5x5_reduce"
}
layer {
  name: "inception_4b/5x5"
  type: "Convolution"
  bottom: "inception_4b/5x5_reduce"
  top: "inception_4b/5x5"
  param {
    lr_mult: 1
    decay_mult: 1
  }
  param {
    lr_mult: 2
    decay_mult: 0
  }
  convolution_param {
    num_output: 64
    pad: 2
    kernel_size: 5
    weight_filler {
      type: "xavier"
      std: 0.03
    }
    bias_filler {
      type: "constant"
      value: 0.2
    }
  }
}
layer {
  name: "inception_4b/relu_5x5"
  type: "ReLU"
  bottom: "inception_4b/5x5"
  top: "inception_4b/5x5"
}
layer {
  name: "inception_4b/pool"
  type: "Pooling"
  bottom: "inception_4a/output"
  top: "inception_4b/pool"
  pooling_param {
    pool: MAX
    kernel_size: 3
    stride: 1
    pad: 1
  }
}
layer {
  name: "inception_4b/pool_proj"
  type: "Convolution"
  bottom: "inception_4b/pool"
  top: "inception_4b/pool_proj"
  param {
    lr_mult: 1
    decay_mult: 1
  }
  param {
    lr_mult: 2
    decay_mult: 0
  }
  convolution_param {
    num_output: 64
    kernel_size: 1
    weight_filler {
      type: "xavier"
      std: 0.1
    }
    bias_filler {
      type: "constant"
      value: 0.2
    }
  }
}
layer {
  name: "inception_4b/relu_pool_proj"
  type: "ReLU"
  bottom: "inception_4b/pool_proj"
  top: "inception_4b/pool_proj"
}
layer {
  name: "inception_4b/output"
  type: "Concat"
  bottom: "inception_4b/1x1"
  bottom: "inception_4b/3x3"
  bottom: "inception_4b/5x5"
  bottom: "inception_4b/pool_proj"
  top: "inception_4b/output"
}
layer {
  name: "inception_4c/1x1"
  type: "Convolution"
  bottom: "inception_4b/output"
  top: "inception_4c/1x1"
  param {
    lr_mult: 1
    decay_mult: 1
  }
  param {
    lr_mult: 2
    decay_mult: 0
  }
  convolution_param {
    num_output: 128
    kernel_size: 1
    weight_filler {
      type: "xavier"
      std: 0.03
    }
    bias_filler {
      type: "constant"
      value: 0.2
    }
  }
}
layer {
  name: "inception_4c/relu_1x1"
  type: "ReLU"
  bottom: "inception_4c/1x1"
  top: "inception_4c/1x1"
}
layer {
  name: "inception_4c/3x3_reduce"
  type: "Convolution"
  bottom: "inception_4b/output"
  top: "inception_4c/3x3_reduce"
  param {
    lr_mult: 1
    decay_mult: 1
  }
  param {
    lr_mult: 2
    decay_mult: 0
  }
  convolution_param {
    num_output: 128
    kernel_size: 1
    weight_filler {
      type: "xavier"
      std: 0.09
    }
    bias_filler {
      type: "constant"
      value: 0.2
    }
  }
}
layer {
  name: "inception_4c/relu_3x3_reduce"
  type: "ReLU"
  bottom: "inception_4c/3x3_reduce"
  top: "inception_4c/3x3_reduce"
}
layer {
  name: "inception_4c/3x3"
  type: "Convolution"
  bottom: "inception_4c/3x3_reduce"
  top: "inception_4c/3x3"
  param {
    lr_mult: 1
    decay_mult: 1
  }
  param {
    lr_mult: 2
    decay_mult: 0
  }
  convolution_param {
    num_output: 256
    pad: 1
    kernel_size: 3
    weight_filler {
      type: "xavier"
      std: 0.03
    }
    bias_filler {
      type: "constant"
      value: 0.2
    }
  }
}
layer {
  name: "inception_4c/relu_3x3"
  type: "ReLU"
  bottom: "inception_4c/3x3"
  top: "inception_4c/3x3"
}
layer {
  name: "inception_4c/5x5_reduce"
  type: "Convolution"
  bottom: "inception_4b/output"
  top: "inception_4c/5x5_reduce"
  param {
    lr_mult: 1
    decay_mult: 1
  }
  param {
    lr_mult: 2
    decay_mult: 0
  }
  convolution_param {
    num_output: 24
    kernel_size: 1
    weight_filler {
      type: "xavier"
      std: 0.2
    }
    bias_filler {
      type: "constant"
      value: 0.2
    }
  }
}
layer {
  name: "inception_4c/relu_5x5_reduce"
  type: "ReLU"
  bottom: "inception_4c/5x5_reduce"
  top: "inception_4c/5x5_reduce"
}
layer {
  name: "inception_4c/5x5"
  type: "Convolution"
  bottom: "inception_4c/5x5_reduce"
  top: "inception_4c/5x5"
  param {
    lr_mult: 1
    decay_mult: 1
  }
  param {
    lr_mult: 2
    decay_mult: 0
  }
  convolution_param {
    num_output: 64
    pad: 2
    kernel_size: 5
    weight_filler {
      type: "xavier"
      std: 0.03
    }
    bias_filler {
      type: "constant"
      value: 0.2
    }
  }
}
layer {
  name: "inception_4c/relu_5x5"
  type: "ReLU"
  bottom: "inception_4c/5x5"
  top: "inception_4c/5x5"
}
layer {
  name: "inception_4c/pool"
  type: "Pooling"
  bottom: "inception_4b/output"
  top: "inception_4c/pool"
  pooling_param {
    pool: MAX
    kernel_size: 3
    stride: 1
    pad: 1
  }
}
layer {
  name: "inception_4c/pool_proj"
  type: "Convolution"
  bottom: "inception_4c/pool"
  top: "inception_4c/pool_proj"
  param {
    lr_mult: 1
    decay_mult: 1
  }
  param {
    lr_mult: 2
    decay_mult: 0
  }
  convolution_param {
    num_output: 64
    kernel_size: 1
    weight_filler {
      type: "xavier"
      std: 0.1
    }
    bias_filler {
      type: "constant"
      value: 0.2
    }
  }
}
layer {
  name: "inception_4c/relu_pool_proj"
  type: "ReLU"
  bottom: "inception_4c/pool_proj"
  top: "inception_4c/pool_proj"
}
layer {
  name: "inception_4c/output"
  type: "Concat"
  bottom: "inception_4c/1x1"
  bottom: "inception_4c/3x3"
  bottom: "inception_4c/5x5"
  bottom: "inception_4c/pool_proj"
  top: "inception_4c/output"
}
layer {
  name: "inception_4d/1x1"
  type: "Convolution"
  bottom: "inception_4c/output"
  top: "inception_4d/1x1"
  param {
    lr_mult: 1
    decay_mult: 1
  }
  param {
    lr_mult: 2
    decay_mult: 0
  }
  convolution_param {
    num_output: 112
    kernel_size: 1
    weight_filler {
      type: "xavier"
      std: 0.03
    }
    bias_filler {
      type: "constant"
      value: 0.2
    }
  }
}
layer {
  name: "inception_4d/relu_1x1"
  type: "ReLU"
  bottom: "inception_4d/1x1"
  top: "inception_4d/1x1"
}
layer {
  name: "inception_4d/3x3_reduce"
  type: "Convolution"
  bottom: "inception_4c/output"
  top: "inception_4d/3x3_reduce"
  param {
    lr_mult: 1
    decay_mult: 1
  }
  param {
    lr_mult: 2
    decay_mult: 0
  }
  convolution_param {
    num_output: 144
    kernel_size: 1
    weight_filler {
      type: "xavier"
      std: 0.09
    }
    bias_filler {
      type: "constant"
      value: 0.2
    }
  }
}
layer {
  name: "inception_4d/relu_3x3_reduce"
  type: "ReLU"
  bottom: "inception_4d/3x3_reduce"
  top: "inception_4d/3x3_reduce"
}
layer {
  name: "inception_4d/3x3"
  type: "Convolution"
  bottom: "inception_4d/3x3_reduce"
  top: "inception_4d/3x3"
  param {
    lr_mult: 1
    decay_mult: 1
  }
  param {
    lr_mult: 2
    decay_mult: 0
  }
  convolution_param {
    num_output: 288
    pad: 1
    kernel_size: 3
    weight_filler {
      type: "xavier"
      std: 0.03
    }
    bias_filler {
      type: "constant"
      value: 0.2
    }
  }
}
layer {
  name: "inception_4d/relu_3x3"
  type: "ReLU"
  bottom: "inception_4d/3x3"
  top: "inception_4d/3x3"
}
layer {
  name: "inception_4d/5x5_reduce"
  type: "Convolution"
  bottom: "inception_4c/output"
  top: "inception_4d/5x5_reduce"
  param {
    lr_mult: 1
    decay_mult: 1
  }
  param {
    lr_mult: 2
    decay_mult: 0
  }
  convolution_param {
    num_output: 32
    kernel_size: 1
    weight_filler {
      type: "xavier"
      std: 0.2
    }
    bias_filler {
      type: "constant"
      value: 0.2
    }
  }
}
layer {
  name: "inception_4d/relu_5x5_reduce"
  type: "ReLU"
  bottom: "inception_4d/5x5_reduce"
  top: "inception_4d/5x5_reduce"
}
layer {
  name: "inception_4d/5x5"
  type: "Convolution"
  bottom: "inception_4d/5x5_reduce"
  top: "inception_4d/5x5"
  param {
    lr_mult: 1
    decay_mult: 1
  }
  param {
    lr_mult: 2
    decay_mult: 0
  }
  convolution_param {
    num_output: 64
    pad: 2
    kernel_size: 5
    weight_filler {
      type: "xavier"
      std: 0.03
    }
    bias_filler {
      type: "constant"
      value: 0.2
    }
  }
}
layer {
  name: "inception_4d/relu_5x5"
  type: "ReLU"
  bottom: "inception_4d/5x5"
  top: "inception_4d/5x5"
}
layer {
  name: "inception_4d/pool"
  type: "Pooling"
  bottom: "inception_4c/output"
  top: "inception_4d/pool"
  pooling_param {
    pool: MAX
    kernel_size: 3
    stride: 1
    pad: 1
  }
}
layer {
  name: "inception_4d/pool_proj"
  type: "Convolution"
  bottom: "inception_4d/pool"
  top: "inception_4d/pool_proj"
  param {
    lr_mult: 1
    decay_mult: 1
  }
  param {
    lr_mult: 2
    decay_mult: 0
  }
  convolution_param {
    num_output: 64
    kernel_size: 1
    weight_filler {
      type: "xavier"
      std: 0.1
    }
    bias_filler {
      type: "constant"
      value: 0.2
    }
  }
}
layer {
  name: "inception_4d/relu_pool_proj"
  type: "ReLU"
  bottom: "inception_4d/pool_proj"
  top: "inception_4d/pool_proj"
}
layer {
  name: "inception_4d/output"
  type: "Concat"
  bottom: "inception_4d/1x1"
  bottom: "inception_4d/3x3"
  bottom: "inception_4d/5x5"
  bottom: "inception_4d/pool_proj"
  top: "inception_4d/output"
}
layer {
  name: "loss2/ave_pool"
  type: "Pooling"
  bottom: "inception_4d/output"
  top: "loss2/ave_pool"
  pooling_param {
    pool: AVE
    kernel_size: 5
    stride: 3
  }
}
layer {
  name: "loss2/conv"
  type: "Convolution"
  bottom: "loss2/ave_pool"
  top: "loss2/conv"
  param {
    lr_mult: 1
    decay_mult: 1
  }
  param {
    lr_mult: 2
    decay_mult: 0
  }
  convolution_param {
    num_output: 128
    kernel_size: 1
    weight_filler {
      type: "xavier"
      std: 0.08
    }
    bias_filler {
      type: "constant"
      value: 0.2
    }
  }
}
layer {
  name: "loss2/relu_conv"
  type: "ReLU"
  bottom: "loss2/conv"
  top: "loss2/conv"
}
layer {
  name: "loss2/fc"
  type: "InnerProduct"
  bottom: "loss2/conv"
  top: "loss2/fc"
  param {
    lr_mult: 1
    decay_mult: 1
  }
  param {
    lr_mult: 2
    decay_mult: 0
  }
  inner_product_param {
    num_output: 1024
    weight_filler {
      type: "xavier"
      std: 0.02
    }
    bias_filler {
      type: "constant"
      value: 0.2
    }
  }
}
layer {
  name: "loss2/relu_fc"
  type: "ReLU"
  bottom: "loss2/fc"
  top: "loss2/fc"
}
layer {
  name: "loss2/drop_fc"
  type: "Dropout"
  bottom: "loss2/fc"
  top: "loss2/fc"
  dropout_param {
    dropout_ratio: 0.7
  }
}
layer {
  name: "loss2/classifier_plantvillage"
  type: "InnerProduct"
  bottom: "loss2/fc"
  top: "loss2/classifier_plantvillage"
  param {
    lr_mult: 1
    decay_mult: 1
  }
  param {
    lr_mult: 2
    decay_mult: 0
  }
  inner_product_param {
    num_output: 38
    weight_filler {
      type: "xavier"
      std: 0.0009765625
    }
    bias_filler {
      type: "constant"
      value: 0
    }
  }
}
layer {
  name: "inception_4e/1x1"
  type: "Convolution"
  bottom: "inception_4d/output"
  top: "inception_4e/1x1"
  param {
    lr_mult: 1
    decay_mult: 1
  }
  param {
    lr_mult: 2
    decay_mult: 0
  }
  convolution_param {
    num_output: 256
    kernel_size: 1
    weight_filler {
      type: "xavier"
      std: 0.03
    }
    bias_filler {
      type: "constant"
      value: 0.2
    }
  }
}
layer {
  name: "inception_4e/relu_1x1"
  type: "ReLU"
  bottom: "inception_4e/1x1"
  top: "inception_4e/1x1"
}
layer {
  name: "inception_4e/3x3_reduce"
  type: "Convolution"
  bottom: "inception_4d/output"
  top: "inception_4e/3x3_reduce"
  param {
    lr_mult: 1
    decay_mult: 1
  }
  param {
    lr_mult: 2
    decay_mult: 0
  }
  convolution_param {
    num_output: 160
    kernel_size: 1
    weight_filler {
      type: "xavier"
      std: 0.09
    }
    bias_filler {
      type: "constant"
      value: 0.2
    }
  }
}
layer {
  name: "inception_4e/relu_3x3_reduce"
  type: "ReLU"
  bottom: "inception_4e/3x3_reduce"
  top: "inception_4e/3x3_reduce"
}
layer {
  name: "inception_4e/3x3"
  type: "Convolution"
  bottom: "inception_4e/3x3_reduce"
  top: "inception_4e/3x3"
  param {
    lr_mult: 1
    decay_mult: 1
  }
  param {
    lr_mult: 2
    decay_mult: 0
  }
  convolution_param {
    num_output: 320
    pad: 1
    kernel_size: 3
    weight_filler {
      type: "xavier"
      std: 0.03
    }
    bias_filler {
      type: "constant"
      value: 0.2
    }
  }
}
layer {
  name: "inception_4e/relu_3x3"
  type: "ReLU"
  bottom: "inception_4e/3x3"
  top: "inception_4e/3x3"
}
layer {
  name: "inception_4e/5x5_reduce"
  type: "Convolution"
  bottom: "inception_4d/output"
  top: "inception_4e/5x5_reduce"
  param {
    lr_mult: 1
    decay_mult: 1
  }
  param {
    lr_mult: 2
    decay_mult: 0
  }
  convolution_param {
    num_output: 32
    kernel_size: 1
    weight_filler {
      type: "xavier"
      std: 0.2
    }
    bias_filler {
      type: "constant"
      value: 0.2
    }
  }
}
layer {
  name: "inception_4e/relu_5x5_reduce"
  type: "ReLU"
  bottom: "inception_4e/5x5_reduce"
  top: "inception_4e/5x5_reduce"
}
layer {
  name: "inception_4e/5x5"
  type: "Convolution"
  bottom: "inception_4e/5x5_reduce"
  top: "inception_4e/
I0403 15:30:51.107476 12043 layer_factory.hpp:77] Creating layer data
I0403 15:30:51.108083 12043 net.cpp:91] Creating Layer data
I0403 15:30:51.108114 12043 net.cpp:399] data -> data
I0403 15:30:51.108166 12043 net.cpp:399] data -> label
I0403 15:30:51.108202 12043 data_transformer.cpp:25] Loading mean file from: /home/mohanty/data/final_dataset/lmdb/segmented-50-50/mean.binaryproto
I0403 15:30:51.111161 12046 db_lmdb.cpp:38] Opened lmdb /home/mohanty/data/final_dataset/lmdb/segmented-50-50/test_db
I0403 15:30:51.121019 12043 data_layer.cpp:41] output data size: 24,3,224,224
I0403 15:30:51.148718 12043 net.cpp:141] Setting up data
I0403 15:30:51.148818 12043 net.cpp:148] Top shape: 24 3 224 224 (3612672)
I0403 15:30:51.148844 12043 net.cpp:148] Top shape: 24 (24)
I0403 15:30:51.148859 12043 net.cpp:156] Memory required for data: 14450784
I0403 15:30:51.148886 12043 layer_factory.hpp:77] Creating layer label_data_1_split
I0403 15:30:51.148915 12043 net.cpp:91] Creating Layer label_data_1_split
I0403 15:30:51.148933 12043 net.cpp:425] label_data_1_split <- label
I0403 15:30:51.148965 12043 net.cpp:399] label_data_1_split -> label_data_1_split_0
I0403 15:30:51.148996 12043 net.cpp:399] label_data_1_split -> label_data_1_split_1
I0403 15:30:51.149019 12043 net.cpp:399] label_data_1_split -> label_data_1_split_2
I0403 15:30:51.149041 12043 net.cpp:399] label_data_1_split -> label_data_1_split_3
I0403 15:30:51.149062 12043 net.cpp:399] label_data_1_split -> label_data_1_split_4
I0403 15:30:51.149083 12043 net.cpp:399] label_data_1_split -> label_data_1_split_5
I0403 15:30:51.149103 12043 net.cpp:399] label_data_1_split -> label_data_1_split_6
I0403 15:30:51.149126 12043 net.cpp:399] label_data_1_split -> label_data_1_split_7
I0403 15:30:51.149145 12043 net.cpp:399] label_data_1_split -> label_data_1_split_8
I0403 15:30:51.149165 12043 net.cpp:399] label_data_1_split -> label_data_1_split_9
I0403 15:30:51.149283 12043 net.cpp:141] Setting up label_data_1_split
I0403 15:30:51.149307 12043 net.cpp:148] Top shape: 24 (24)
I0403 15:30:51.149324 12043 net.cpp:148] Top shape: 24 (24)
I0403 15:30:51.149341 12043 net.cpp:148] Top shape: 24 (24)
I0403 15:30:51.149359 12043 net.cpp:148] Top shape: 24 (24)
I0403 15:30:51.149375 12043 net.cpp:148] Top shape: 24 (24)
I0403 15:30:51.149391 12043 net.cpp:148] Top shape: 24 (24)
I0403 15:30:51.149406 12043 net.cpp:148] Top shape: 24 (24)
I0403 15:30:51.149428 12043 net.cpp:148] Top shape: 24 (24)
I0403 15:30:51.149446 12043 net.cpp:148] Top shape: 24 (24)
I0403 15:30:51.149461 12043 net.cpp:148] Top shape: 24 (24)
I0403 15:30:51.149507 12043 net.cpp:156] Memory required for data: 14451744
I0403 15:30:51.149523 12043 layer_factory.hpp:77] Creating layer conv1/7x7_s2
I0403 15:30:51.149555 12043 net.cpp:91] Creating Layer conv1/7x7_s2
I0403 15:30:51.149575 12043 net.cpp:425] conv1/7x7_s2 <- data
I0403 15:30:51.149595 12043 net.cpp:399] conv1/7x7_s2 -> conv1/7x7_s2
I0403 15:30:51.291153 12043 net.cpp:141] Setting up conv1/7x7_s2
I0403 15:30:51.291219 12043 net.cpp:148] Top shape: 24 64 112 112 (19267584)
I0403 15:30:51.291237 12043 net.cpp:156] Memory required for data: 91522080
I0403 15:30:51.291268 12043 layer_factory.hpp:77] Creating layer conv1/relu_7x7
I0403 15:30:51.291295 12043 net.cpp:91] Creating Layer conv1/relu_7x7
I0403 15:30:51.291313 12043 net.cpp:425] conv1/relu_7x7 <- conv1/7x7_s2
I0403 15:30:51.291332 12043 net.cpp:386] conv1/relu_7x7 -> conv1/7x7_s2 (in-place)
I0403 15:30:51.291597 12043 net.cpp:141] Setting up conv1/relu_7x7
I0403 15:30:51.291625 12043 net.cpp:148] Top shape: 24 64 112 112 (19267584)
I0403 15:30:51.291640 12043 net.cpp:156] Memory required for data: 168592416
I0403 15:30:51.291656 12043 layer_factory.hpp:77] Creating layer pool1/3x3_s2
I0403 15:30:51.291679 12043 net.cpp:91] Creating Layer pool1/3x3_s2
I0403 15:30:51.291697 12043 net.cpp:425] pool1/3x3_s2 <- conv1/7x7_s2
I0403 15:30:51.291725 12043 net.cpp:399] pool1/3x3_s2 -> pool1/3x3_s2
I0403 15:30:51.291798 12043 net.cpp:141] Setting up pool1/3x3_s2
I0403 15:30:51.291822 12043 net.cpp:148] Top shape: 24 64 56 56 (4816896)
I0403 15:30:51.291837 12043 net.cpp:156] Memory required for data: 187860000
I0403 15:30:51.291851 12043 layer_factory.hpp:77] Creating layer pool1/norm1
I0403 15:30:51.291875 12043 net.cpp:91] Creating Layer pool1/norm1
I0403 15:30:51.291893 12043 net.cpp:425] pool1/norm1 <- pool1/3x3_s2
I0403 15:30:51.291910 12043 net.cpp:399] pool1/norm1 -> pool1/norm1
I0403 15:30:51.292189 12043 net.cpp:141] Setting up pool1/norm1
I0403 15:30:51.292217 12043 net.cpp:148] Top shape: 24 64 56 56 (4816896)
I0403 15:30:51.292232 12043 net.cpp:156] Memory required for data: 207127584
I0403 15:30:51.292245 12043 layer_factory.hpp:77] Creating layer conv2/3x3_reduce
I0403 15:30:51.292269 12043 net.cpp:91] Creating Layer conv2/3x3_reduce
I0403 15:30:51.292286 12043 net.cpp:425] conv2/3x3_reduce <- pool1/norm1
I0403 15:30:51.292304 12043 net.cpp:399] conv2/3x3_reduce -> conv2/3x3_reduce
I0403 15:30:51.293642 12043 net.cpp:141] Setting up conv2/3x3_reduce
I0403 15:30:51.293671 12043 net.cpp:148] Top shape: 24 64 56 56 (4816896)
I0403 15:30:51.293687 12043 net.cpp:156] Memory required for data: 226395168
I0403 15:30:51.293707 12043 layer_factory.hpp:77] Creating layer conv2/relu_3x3_reduce
I0403 15:30:51.293725 12043 net.cpp:91] Creating Layer conv2/relu_3x3_reduce
I0403 15:30:51.293741 12043 net.cpp:425] conv2/relu_3x3_reduce <- conv2/3x3_reduce
I0403 15:30:51.293758 12043 net.cpp:386] conv2/relu_3x3_reduce -> conv2/3x3_reduce (in-place)
I0403 15:30:51.294008 12043 net.cpp:141] Setting up conv2/relu_3x3_reduce
I0403 15:30:51.294034 12043 net.cpp:148] Top shape: 24 64 56 56 (4816896)
I0403 15:30:51.294049 12043 net.cpp:156] Memory required for data: 245662752
I0403 15:30:51.294064 12043 layer_factory.hpp:77] Creating layer conv2/3x3
I0403 15:30:51.294085 12043 net.cpp:91] Creating Layer conv2/3x3
I0403 15:30:51.294102 12043 net.cpp:425] conv2/3x3 <- conv2/3x3_reduce
I0403 15:30:51.294121 12043 net.cpp:399] conv2/3x3 -> conv2/3x3
I0403 15:30:51.296387 12043 net.cpp:141] Setting up conv2/3x3
I0403 15:30:51.296422 12043 net.cpp:148] Top shape: 24 192 56 56 (14450688)
I0403 15:30:51.296442 12043 net.cpp:156] Memory required for data: 303465504
I0403 15:30:51.296464 12043 layer_factory.hpp:77] Creating layer conv2/relu_3x3
I0403 15:30:51.296486 12043 net.cpp:91] Creating Layer conv2/relu_3x3
I0403 15:30:51.296504 12043 net.cpp:425] conv2/relu_3x3 <- conv2/3x3
I0403 15:30:51.296520 12043 net.cpp:386] conv2/relu_3x3 -> conv2/3x3 (in-place)
I0403 15:30:51.296700 12043 net.cpp:141] Setting up conv2/relu_3x3
I0403 15:30:51.296725 12043 net.cpp:148] Top shape: 24 192 56 56 (14450688)
I0403 15:30:51.296768 12043 net.cpp:156] Memory required for data: 361268256
I0403 15:30:51.296784 12043 layer_factory.hpp:77] Creating layer conv2/norm2
I0403 15:30:51.296805 12043 net.cpp:91] Creating Layer conv2/norm2
I0403 15:30:51.296821 12043 net.cpp:425] conv2/norm2 <- conv2/3x3
I0403 15:30:51.296840 12043 net.cpp:399] conv2/norm2 -> conv2/norm2
I0403 15:30:51.297142 12043 net.cpp:141] Setting up conv2/norm2
I0403 15:30:51.297171 12043 net.cpp:148] Top shape: 24 192 56 56 (14450688)
I0403 15:30:51.297188 12043 net.cpp:156] Memory required for data: 419071008
I0403 15:30:51.297204 12043 layer_factory.hpp:77] Creating layer pool2/3x3_s2
I0403 15:30:51.297220 12043 net.cpp:91] Creating Layer pool2/3x3_s2
I0403 15:30:51.297236 12043 net.cpp:425] pool2/3x3_s2 <- conv2/norm2
I0403 15:30:51.297256 12043 net.cpp:399] pool2/3x3_s2 -> pool2/3x3_s2
I0403 15:30:51.297308 12043 net.cpp:141] Setting up pool2/3x3_s2
I0403 15:30:51.297332 12043 net.cpp:148] Top shape: 24 192 28 28 (3612672)
I0403 15:30:51.297346 12043 net.cpp:156] Memory required for data: 433521696
I0403 15:30:51.297360 12043 layer_factory.hpp:77] Creating layer pool2/3x3_s2_pool2/3x3_s2_0_split
I0403 15:30:51.297380 12043 net.cpp:91] Creating Layer pool2/3x3_s2_pool2/3x3_s2_0_split
I0403 15:30:51.297397 12043 net.cpp:425] pool2/3x3_s2_pool2/3x3_s2_0_split <- pool2/3x3_s2
I0403 15:30:51.297420 12043 net.cpp:399] pool2/3x3_s2_pool2/3x3_s2_0_split -> pool2/3x3_s2_pool2/3x3_s2_0_split_0
I0403 15:30:51.297448 12043 net.cpp:399] pool2/3x3_s2_pool2/3x3_s2_0_split -> pool2/3x3_s2_pool2/3x3_s2_0_split_1
I0403 15:30:51.297468 12043 net.cpp:399] pool2/3x3_s2_pool2/3x3_s2_0_split -> pool2/3x3_s2_pool2/3x3_s2_0_split_2
I0403 15:30:51.297490 12043 net.cpp:399] pool2/3x3_s2_pool2/3x3_s2_0_split -> pool2/3x3_s2_pool2/3x3_s2_0_split_3
I0403 15:30:51.297564 12043 net.cpp:141] Setting up pool2/3x3_s2_pool2/3x3_s2_0_split
I0403 15:30:51.297586 12043 net.cpp:148] Top shape: 24 192 28 28 (3612672)
I0403 15:30:51.297603 12043 net.cpp:148] Top shape: 24 192 28 28 (3612672)
I0403 15:30:51.297618 12043 net.cpp:148] Top shape: 24 192 28 28 (3612672)
I0403 15:30:51.297632 12043 net.cpp:148] Top shape: 24 192 28 28 (3612672)
I0403 15:30:51.297646 12043 net.cpp:156] Memory required for data: 491324448
I0403 15:30:51.297660 12043 layer_factory.hpp:77] Creating layer inception_3a/1x1
I0403 15:30:51.297683 12043 net.cpp:91] Creating Layer inception_3a/1x1
I0403 15:30:51.297699 12043 net.cpp:425] inception_3a/1x1 <- pool2/3x3_s2_pool2/3x3_s2_0_split_0
I0403 15:30:51.297729 12043 net.cpp:399] inception_3a/1x1 -> inception_3a/1x1
I0403 15:30:51.299276 12043 net.cpp:141] Setting up inception_3a/1x1
I0403 15:30:51.299305 12043 net.cpp:148] Top shape: 24 64 28 28 (1204224)
I0403 15:30:51.299321 12043 net.cpp:156] Memory required for data: 496141344
I0403 15:30:51.299340 12043 layer_factory.hpp:77] Creating layer inception_3a/relu_1x1
I0403 15:30:51.299360 12043 net.cpp:91] Creating Layer inception_3a/relu_1x1
I0403 15:30:51.299376 12043 net.cpp:425] inception_3a/relu_1x1 <- inception_3a/1x1
I0403 15:30:51.299396 12043 net.cpp:386] inception_3a/relu_1x1 -> inception_3a/1x1 (in-place)
I0403 15:30:51.299574 12043 net.cpp:141] Setting up inception_3a/relu_1x1
I0403 15:30:51.299599 12043 net.cpp:148] Top shape: 24 64 28 28 (1204224)
I0403 15:30:51.299614 12043 net.cpp:156] Memory required for data: 500958240
I0403 15:30:51.299628 12043 layer_factory.hpp:77] Creating layer inception_3a/3x3_reduce
I0403 15:30:51.299651 12043 net.cpp:91] Creating Layer inception_3a/3x3_reduce
I0403 15:30:51.299669 12043 net.cpp:425] inception_3a/3x3_reduce <- pool2/3x3_s2_pool2/3x3_s2_0_split_1
I0403 15:30:51.299690 12043 net.cpp:399] inception_3a/3x3_reduce -> inception_3a/3x3_reduce
I0403 15:30:51.301383 12043 net.cpp:141] Setting up inception_3a/3x3_reduce
I0403 15:30:51.301416 12043 net.cpp:148] Top shape: 24 96 28 28 (1806336)
I0403 15:30:51.301435 12043 net.cpp:156] Memory required for data: 508183584
I0403 15:30:51.301457 12043 layer_factory.hpp:77] Creating layer inception_3a/relu_3x3_reduce
I0403 15:30:51.301494 12043 net.cpp:91] Creating Layer inception_3a/relu_3x3_reduce
I0403 15:30:51.301513 12043 net.cpp:425] inception_3a/relu_3x3_reduce <- inception_3a/3x3_reduce
I0403 15:30:51.301530 12043 net.cpp:386] inception_3a/relu_3x3_reduce -> inception_3a/3x3_reduce (in-place)
I0403 15:30:51.301708 12043 net.cpp:141] Setting up inception_3a/relu_3x3_reduce
I0403 15:30:51.301736 12043 net.cpp:148] Top shape: 24 96 28 28 (1806336)
I0403 15:30:51.301753 12043 net.cpp:156] Memory required for data: 515408928
I0403 15:30:51.301767 12043 layer_factory.hpp:77] Creating layer inception_3a/3x3
I0403 15:30:51.301790 12043 net.cpp:91] Creating Layer inception_3a/3x3
I0403 15:30:51.301808 12043 net.cpp:425] inception_3a/3x3 <- inception_3a/3x3_reduce
I0403 15:30:51.301826 12043 net.cpp:399] inception_3a/3x3 -> inception_3a/3x3
I0403 15:30:51.303479 12043 net.cpp:141] Setting up inception_3a/3x3
I0403 15:30:51.303508 12043 net.cpp:148] Top shape: 24 128 28 28 (2408448)
I0403 15:30:51.303524 12043 net.cpp:156] Memory required for data: 525042720
I0403 15:30:51.303541 12043 layer_factory.hpp:77] Creating layer inception_3a/relu_3x3
I0403 15:30:51.303560 12043 net.cpp:91] Creating Layer inception_3a/relu_3x3
I0403 15:30:51.303575 12043 net.cpp:425] inception_3a/relu_3x3 <- inception_3a/3x3
I0403 15:30:51.303593 12043 net.cpp:386] inception_3a/relu_3x3 -> inception_3a/3x3 (in-place)
I0403 15:30:51.303871 12043 net.cpp:141] Setting up inception_3a/relu_3x3
I0403 15:30:51.303897 12043 net.cpp:148] Top shape: 24 128 28 28 (2408448)
I0403 15:30:51.303912 12043 net.cpp:156] Memory required for data: 534676512
I0403 15:30:51.303927 12043 layer_factory.hpp:77] Creating layer inception_3a/5x5_reduce
I0403 15:30:51.303951 12043 net.cpp:91] Creating Layer inception_3a/5x5_reduce
I0403 15:30:51.303969 12043 net.cpp:425] inception_3a/5x5_reduce <- pool2/3x3_s2_pool2/3x3_s2_0_split_2
I0403 15:30:51.303990 12043 net.cpp:399] inception_3a/5x5_reduce -> inception_3a/5x5_reduce
I0403 15:30:51.304952 12043 net.cpp:141] Setting up inception_3a/5x5_reduce
I0403 15:30:51.304980 12043 net.cpp:148] Top shape: 24 16 28 28 (301056)
I0403 15:30:51.304998 12043 net.cpp:156] Memory required for data: 535880736
I0403 15:30:51.305016 12043 layer_factory.hpp:77] Creating layer inception_3a/relu_5x5_reduce
I0403 15:30:51.305037 12043 net.cpp:91] Creating Layer inception_3a/relu_5x5_reduce
I0403 15:30:51.305053 12043 net.cpp:425] inception_3a/relu_5x5_reduce <- inception_3a/5x5_reduce
I0403 15:30:51.305070 12043 net.cpp:386] inception_3a/relu_5x5_reduce -> inception_3a/5x5_reduce (in-place)
I0403 15:30:51.305373 12043 net.cpp:141] Setting up inception_3a/relu_5x5_reduce
I0403 15:30:51.305399 12043 net.cpp:148] Top shape: 24 16 28 28 (301056)
I0403 15:30:51.305419 12043 net.cpp:156] Memory required for data: 537084960
I0403 15:30:51.305435 12043 layer_factory.hpp:77] Creating layer inception_3a/5x5
I0403 15:30:51.305459 12043 net.cpp:91] Creating Layer inception_3a/5x5
I0403 15:30:51.305477 12043 net.cpp:425] inception_3a/5x5 <- inception_3a/5x5_reduce
I0403 15:30:51.305496 12043 net.cpp:399] inception_3a/5x5 -> inception_3a/5x5
I0403 15:30:51.306522 12043 net.cpp:141] Setting up inception_3a/5x5
I0403 15:30:51.306551 12043 net.cpp:148] Top shape: 24 32 28 28 (602112)
I0403 15:30:51.306567 12043 net.cpp:156] Memory required for data: 539493408
I0403 15:30:51.306586 12043 layer_factory.hpp:77] Creating layer inception_3a/relu_5x5
I0403 15:30:51.306604 12043 net.cpp:91] Creating Layer inception_3a/relu_5x5
I0403 15:30:51.306622 12043 net.cpp:425] inception_3a/relu_5x5 <- inception_3a/5x5
I0403 15:30:51.306641 12043 net.cpp:386] inception_3a/relu_5x5 -> inception_3a/5x5 (in-place)
I0403 15:30:51.306818 12043 net.cpp:141] Setting up inception_3a/relu_5x5
I0403 15:30:51.306844 12043 net.cpp:148] Top shape: 24 32 28 28 (602112)
I0403 15:30:51.306860 12043 net.cpp:156] Memory required for data: 541901856
I0403 15:30:51.306876 12043 layer_factory.hpp:77] Creating layer inception_3a/pool
I0403 15:30:51.306898 12043 net.cpp:91] Creating Layer inception_3a/pool
I0403 15:30:51.306931 12043 net.cpp:425] inception_3a/pool <- pool2/3x3_s2_pool2/3x3_s2_0_split_3
I0403 15:30:51.306951 12043 net.cpp:399] inception_3a/pool -> inception_3a/pool
I0403 15:30:51.307011 12043 net.cpp:141] Setting up inception_3a/pool
I0403 15:30:51.307039 12043 net.cpp:148] Top shape: 24 192 28 28 (3612672)
I0403 15:30:51.307054 12043 net.cpp:156] Memory required for data: 556352544
I0403 15:30:51.307070 12043 layer_factory.hpp:77] Creating layer inception_3a/pool_proj
I0403 15:30:51.307092 12043 net.cpp:91] Creating Layer inception_3a/pool_proj
I0403 15:30:51.307111 12043 net.cpp:425] inception_3a/pool_proj <- inception_3a/pool
I0403 15:30:51.307142 12043 net.cpp:399] inception_3a/pool_proj -> inception_3a/pool_proj
I0403 15:30:51.308140 12043 net.cpp:141] Setting up inception_3a/pool_proj
I0403 15:30:51.308174 12043 net.cpp:148] Top shape: 24 32 28 28 (602112)
I0403 15:30:51.308192 12043 net.cpp:156] Memory required for data: 558760992
I0403 15:30:51.308214 12043 layer_factory.hpp:77] Creating layer inception_3a/relu_pool_proj
I0403 15:30:51.308238 12043 net.cpp:91] Creating Layer inception_3a/relu_pool_proj
I0403 15:30:51.308257 12043 net.cpp:425] inception_3a/relu_pool_proj <- inception_3a/pool_proj
I0403 15:30:51.308275 12043 net.cpp:386] inception_3a/relu_pool_proj -> inception_3a/pool_proj (in-place)
I0403 15:30:51.308559 12043 net.cpp:141] Setting up inception_3a/relu_pool_proj
I0403 15:30:51.308588 12043 net.cpp:148] Top shape: 24 32 28 28 (602112)
I0403 15:30:51.308604 12043 net.cpp:156] Memory required for data: 561169440
I0403 15:30:51.308619 12043 layer_factory.hpp:77] Creating layer inception_3a/output
I0403 15:30:51.308640 12043 net.cpp:91] Creating Layer inception_3a/output
I0403 15:30:51.308656 12043 net.cpp:425] inception_3a/output <- inception_3a/1x1
I0403 15:30:51.308672 12043 net.cpp:425] inception_3a/output <- inception_3a/3x3
I0403 15:30:51.308688 12043 net.cpp:425] inception_3a/output <- inception_3a/5x5
I0403 15:30:51.308704 12043 net.cpp:425] inception_3a/output <- inception_3a/pool_proj
I0403 15:30:51.308724 12043 net.cpp:399] inception_3a/output -> inception_3a/output
I0403 15:30:51.308771 12043 net.cpp:141] Setting up inception_3a/output
I0403 15:30:51.308799 12043 net.cpp:148] Top shape: 24 256 28 28 (4816896)
I0403 15:30:51.308815 12043 net.cpp:156] Memory required for data: 580437024
I0403 15:30:51.308830 12043 layer_factory.hpp:77] Creating layer inception_3a/output_inception_3a/output_0_split
I0403 15:30:51.308846 12043 net.cpp:91] Creating Layer inception_3a/output_inception_3a/output_0_split
I0403 15:30:51.308861 12043 net.cpp:425] inception_3a/output_inception_3a/output_0_split <- inception_3a/output
I0403 15:30:51.308879 12043 net.cpp:399] inception_3a/output_inception_3a/output_0_split -> inception_3a/output_inception_3a/output_0_split_0
I0403 15:30:51.308902 12043 net.cpp:399] inception_3a/output_inception_3a/output_0_split -> inception_3a/output_inception_3a/output_0_split_1
I0403 15:30:51.308926 12043 net.cpp:399] inception_3a/output_inception_3a/output_0_split -> inception_3a/output_inception_3a/output_0_split_2
I0403 15:30:51.308948 12043 net.cpp:399] inception_3a/output_inception_3a/output_0_split -> inception_3a/output_inception_3a/output_0_split_3
I0403 15:30:51.309023 12043 net.cpp:141] Setting up inception_3a/output_inception_3a/output_0_split
I0403 15:30:51.309048 12043 net.cpp:148] Top shape: 24 256 28 28 (4816896)
I0403 15:30:51.309067 12043 net.cpp:148] Top shape: 24 256 28 28 (4816896)
I0403 15:30:51.309083 12043 net.cpp:148] Top shape: 24 256 28 28 (4816896)
I0403 15:30:51.309099 12043 net.cpp:148] Top shape: 24 256 28 28 (4816896)
I0403 15:30:51.309113 12043 net.cpp:156] Memory required for data: 657507360
I0403 15:30:51.309128 12043 layer_factory.hpp:77] Creating layer inception_3b/1x1
I0403 15:30:51.309150 12043 net.cpp:91] Creating Layer inception_3b/1x1
I0403 15:30:51.309168 12043 net.cpp:425] inception_3b/1x1 <- inception_3a/output_inception_3a/output_0_split_0
I0403 15:30:51.309190 12043 net.cpp:399] inception_3b/1x1 -> inception_3b/1x1
I0403 15:30:51.310346 12043 net.cpp:141] Setting up inception_3b/1x1
I0403 15:30:51.310389 12043 net.cpp:148] Top shape: 24 128 28 28 (2408448)
I0403 15:30:51.310413 12043 net.cpp:156] Memory required for data: 667141152
I0403 15:30:51.310434 12043 layer_factory.hpp:77] Creating layer inception_3b/relu_1x1
I0403 15:30:51.310453 12043 net.cpp:91] Creating Layer inception_3b/relu_1x1
I0403 15:30:51.310472 12043 net.cpp:425] inception_3b/relu_1x1 <- inception_3b/1x1
I0403 15:30:51.310493 12043 net.cpp:386] inception_3b/relu_1x1 -> inception_3b/1x1 (in-place)
I0403 15:30:51.310679 12043 net.cpp:141] Setting up inception_3b/relu_1x1
I0403 15:30:51.310706 12043 net.cpp:148] Top shape: 24 128 28 28 (2408448)
I0403 15:30:51.310722 12043 net.cpp:156] Memory required for data: 676774944
I0403 15:30:51.310737 12043 layer_factory.hpp:77] Creating layer inception_3b/3x3_reduce
I0403 15:30:51.310765 12043 net.cpp:91] Creating Layer inception_3b/3x3_reduce
I0403 15:30:51.310783 12043 net.cpp:425] inception_3b/3x3_reduce <- inception_3a/output_inception_3a/output_0_split_1
I0403 15:30:51.310806 12043 net.cpp:399] inception_3b/3x3_reduce -> inception_3b/3x3_reduce
I0403 15:30:51.311965 12043 net.cpp:141] Setting up inception_3b/3x3_reduce
I0403 15:30:51.311995 12043 net.cpp:148] Top shape: 24 128 28 28 (2408448)
I0403 15:30:51.312011 12043 net.cpp:156] Memory required for data: 686408736
I0403 15:30:51.312029 12043 layer_factory.hpp:77] Creating layer inception_3b/relu_3x3_reduce
I0403 15:30:51.312048 12043 net.cpp:91] Creating Layer inception_3b/relu_3x3_reduce
I0403 15:30:51.312064 12043 net.cpp:425] inception_3b/relu_3x3_reduce <- inception_3b/3x3_reduce
I0403 15:30:51.312084 12043 net.cpp:386] inception_3b/relu_3x3_reduce -> inception_3b/3x3_reduce (in-place)
I0403 15:30:51.312263 12043 net.cpp:141] Setting up inception_3b/relu_3x3_reduce
I0403 15:30:51.312289 12043 net.cpp:148] Top shape: 24 128 28 28 (2408448)
I0403 15:30:51.312304 12043 net.cpp:156] Memory required for data: 696042528
I0403 15:30:51.312319 12043 layer_factory.hpp:77] Creating layer inception_3b/3x3
I0403 15:30:51.312345 12043 net.cpp:91] Creating Layer inception_3b/3x3
I0403 15:30:51.312363 12043 net.cpp:425] inception_3b/3x3 <- inception_3b/3x3_reduce
I0403 15:30:51.312383 12043 net.cpp:399] inception_3b/3x3 -> inception_3b/3x3
I0403 15:30:51.315372 12043 net.cpp:141] Setting up inception_3b/3x3
I0403 15:30:51.315403 12043 net.cpp:148] Top shape: 24 192 28 28 (3612672)
I0403 15:30:51.315426 12043 net.cpp:156] Memory required for data: 710493216
I0403 15:30:51.315445 12043 layer_factory.hpp:77] Creating layer inception_3b/relu_3x3
I0403 15:30:51.315465 12043 net.cpp:91] Creating Layer inception_3b/relu_3x3
I0403 15:30:51.315484 12043 net.cpp:425] inception_3b/relu_3x3 <- inception_3b/3x3
I0403 15:30:51.315503 12043 net.cpp:386] inception_3b/relu_3x3 -> inception_3b/3x3 (in-place)
I0403 15:30:51.315793 12043 net.cpp:141] Setting up inception_3b/relu_3x3
I0403 15:30:51.315820 12043 net.cpp:148] Top shape: 24 192 28 28 (3612672)
I0403 15:30:51.315835 12043 net.cpp:156] Memory required for data: 724943904
I0403 15:30:51.315850 12043 layer_factory.hpp:77] Creating layer inception_3b/5x5_reduce
I0403 15:30:51.315873 12043 net.cpp:91] Creating Layer inception_3b/5x5_reduce
I0403 15:30:51.315891 12043 net.cpp:425] inception_3b/5x5_reduce <- inception_3a/output_inception_3a/output_0_split_2
I0403 15:30:51.315914 12043 net.cpp:399] inception_3b/5x5_reduce -> inception_3b/5x5_reduce
I0403 15:30:51.316926 12043 net.cpp:141] Setting up inception_3b/5x5_reduce
I0403 15:30:51.316956 12043 net.cpp:148] Top shape: 24 32 28 28 (602112)
I0403 15:30:51.316970 12043 net.cpp:156] Memory required for data: 727352352
I0403 15:30:51.316989 12043 layer_factory.hpp:77] Creating layer inception_3b/relu_5x5_reduce
I0403 15:30:51.317008 12043 net.cpp:91] Creating Layer inception_3b/relu_5x5_reduce
I0403 15:30:51.317023 12043 net.cpp:425] inception_3b/relu_5x5_reduce <- inception_3b/5x5_reduce
I0403 15:30:51.317044 12043 net.cpp:386] inception_3b/relu_5x5_reduce -> inception_3b/5x5_reduce (in-place)
I0403 15:30:51.317242 12043 net.cpp:141] Setting up inception_3b/relu_5x5_reduce
I0403 15:30:51.317268 12043 net.cpp:148] Top shape: 24 32 28 28 (602112)
I0403 15:30:51.317284 12043 net.cpp:156] Memory required for data: 729760800
I0403 15:30:51.317299 12043 layer_factory.hpp:77] Creating layer inception_3b/5x5
I0403 15:30:51.317322 12043 net.cpp:91] Creating Layer inception_3b/5x5
I0403 15:30:51.317340 12043 net.cpp:425] inception_3b/5x5 <- inception_3b/5x5_reduce
I0403 15:30:51.317364 12043 net.cpp:399] inception_3b/5x5 -> inception_3b/5x5
I0403 15:30:51.319419 12043 net.cpp:141] Setting up inception_3b/5x5
I0403 15:30:51.319453 12043 net.cpp:148] Top shape: 24 96 28 28 (1806336)
I0403 15:30:51.319471 12043 net.cpp:156] Memory required for data: 736986144
I0403 15:30:51.319491 12043 layer_factory.hpp:77] Creating layer inception_3b/relu_5x5
I0403 15:30:51.319510 12043 net.cpp:91] Creating Layer inception_3b/relu_5x5
I0403 15:30:51.319527 12043 net.cpp:425] inception_3b/relu_5x5 <- inception_3b/5x5
I0403 15:30:51.319548 12043 net.cpp:386] inception_3b/relu_5x5 -> inception_3b/5x5 (in-place)
I0403 15:30:51.319746 12043 net.cpp:141] Setting up inception_3b/relu_5x5
I0403 15:30:51.319772 12043 net.cpp:148] Top shape: 24 96 28 28 (1806336)
I0403 15:30:51.319787 12043 net.cpp:156] Memory required for data: 744211488
I0403 15:30:51.319802 12043 layer_factory.hpp:77] Creating layer inception_3b/pool
I0403 15:30:51.319819 12043 net.cpp:91] Creating Layer inception_3b/pool
I0403 15:30:51.319835 12043 net.cpp:425] inception_3b/pool <- inception_3a/output_inception_3a/output_0_split_3
I0403 15:30:51.319854 12043 net.cpp:399] inception_3b/pool -> inception_3b/pool
I0403 15:30:51.319913 12043 net.cpp:141] Setting up inception_3b/pool
I0403 15:30:51.319936 12043 net.cpp:148] Top shape: 24 256 28 28 (4816896)
I0403 15:30:51.319952 12043 net.cpp:156] Memory required for data: 763479072
I0403 15:30:51.319967 12043 layer_factory.hpp:77] Creating layer inception_3b/pool_proj
I0403 15:30:51.319988 12043 net.cpp:91] Creating Layer inception_3b/pool_proj
I0403 15:30:51.320006 12043 net.cpp:425] inception_3b/pool_proj <- inception_3b/pool
I0403 15:30:51.320027 12043 net.cpp:399] inception_3b/pool_proj -> inception_3b/pool_proj
I0403 15:30:51.321115 12043 net.cpp:141] Setting up inception_3b/pool_proj
I0403 15:30:51.321144 12043 net.cpp:148] Top shape: 24 64 28 28 (1204224)
I0403 15:30:51.321161 12043 net.cpp:156] Memory required for data: 768295968
I0403 15:30:51.321179 12043 layer_factory.hpp:77] Creating layer inception_3b/relu_pool_proj
I0403 15:30:51.321231 12043 net.cpp:91] Creating Layer inception_3b/relu_pool_proj
I0403 15:30:51.321250 12043 net.cpp:425] inception_3b/relu_pool_proj <- inception_3b/pool_proj
I0403 15:30:51.321269 12043 net.cpp:386] inception_3b/relu_pool_proj -> inception_3b/pool_proj (in-place)
I0403 15:30:51.321704 12043 net.cpp:141] Setting up inception_3b/relu_pool_proj
I0403 15:30:51.321732 12043 net.cpp:148] Top shape: 24 64 28 28 (1204224)
I0403 15:30:51.321748 12043 net.cpp:156] Memory required for data: 773112864
I0403 15:30:51.321763 12043 layer_factory.hpp:77] Creating layer inception_3b/output
I0403 15:30:51.321782 12043 net.cpp:91] Creating Layer inception_3b/output
I0403 15:30:51.321800 12043 net.cpp:425] inception_3b/output <- inception_3b/1x1
I0403 15:30:51.321817 12043 net.cpp:425] inception_3b/output <- inception_3b/3x3
I0403 15:30:51.321833 12043 net.cpp:425] inception_3b/output <- inception_3b/5x5
I0403 15:30:51.321849 12043 net.cpp:425] inception_3b/output <- inception_3b/pool_proj
I0403 15:30:51.321866 12043 net.cpp:399] inception_3b/output -> inception_3b/output
I0403 15:30:51.321913 12043 net.cpp:141] Setting up inception_3b/output
I0403 15:30:51.321938 12043 net.cpp:148] Top shape: 24 480 28 28 (9031680)
I0403 15:30:51.321952 12043 net.cpp:156] Memory required for data: 809239584
I0403 15:30:51.321967 12043 layer_factory.hpp:77] Creating layer pool3/3x3_s2
I0403 15:30:51.321985 12043 net.cpp:91] Creating Layer pool3/3x3_s2
I0403 15:30:51.322001 12043 net.cpp:425] pool3/3x3_s2 <- inception_3b/output
I0403 15:30:51.322036 12043 net.cpp:399] pool3/3x3_s2 -> pool3/3x3_s2
I0403 15:30:51.322098 12043 net.cpp:141] Setting up pool3/3x3_s2
I0403 15:30:51.322121 12043 net.cpp:148] Top shape: 24 480 14 14 (2257920)
I0403 15:30:51.322136 12043 net.cpp:156] Memory required for data: 818271264
I0403 15:30:51.322151 12043 layer_factory.hpp:77] Creating layer pool3/3x3_s2_pool3/3x3_s2_0_split
I0403 15:30:51.322171 12043 net.cpp:91] Creating Layer pool3/3x3_s2_pool3/3x3_s2_0_split
I0403 15:30:51.322190 12043 net.cpp:425] pool3/3x3_s2_pool3/3x3_s2_0_split <- pool3/3x3_s2
I0403 15:30:51.322206 12043 net.cpp:399] pool3/3x3_s2_pool3/3x3_s2_0_split -> pool3/3x3_s2_pool3/3x3_s2_0_split_0
I0403 15:30:51.322230 12043 net.cpp:399] pool3/3x3_s2_pool3/3x3_s2_0_split -> pool3/3x3_s2_pool3/3x3_s2_0_split_1
I0403 15:30:51.322252 12043 net.cpp:399] pool3/3x3_s2_pool3/3x3_s2_0_split -> pool3/3x3_s2_pool3/3x3_s2_0_split_2
I0403 15:30:51.322270 12043 net.cpp:399] pool3/3x3_s2_pool3/3x3_s2_0_split -> pool3/3x3_s2_pool3/3x3_s2_0_split_3
I0403 15:30:51.322346 12043 net.cpp:141] Setting up pool3/3x3_s2_pool3/3x3_s2_0_split
I0403 15:30:51.322371 12043 net.cpp:148] Top shape: 24 480 14 14 (2257920)
I0403 15:30:51.322387 12043 net.cpp:148] Top shape: 24 480 14 14 (2257920)
I0403 15:30:51.322403 12043 net.cpp:148] Top shape: 24 480 14 14 (2257920)
I0403 15:30:51.322443 12043 net.cpp:148] Top shape: 24 480 14 14 (2257920)
I0403 15:30:51.322458 12043 net.cpp:156] Memory required for data: 854397984
I0403 15:30:51.322474 12043 layer_factory.hpp:77] Creating layer inception_4a/1x1
I0403 15:30:51.322496 12043 net.cpp:91] Creating Layer inception_4a/1x1
I0403 15:30:51.322515 12043 net.cpp:425] inception_4a/1x1 <- pool3/3x3_s2_pool3/3x3_s2_0_split_0
I0403 15:30:51.322536 12043 net.cpp:399] inception_4a/1x1 -> inception_4a/1x1
I0403 15:30:51.324151 12043 net.cpp:141] Setting up inception_4a/1x1
I0403 15:30:51.324184 12043 net.cpp:148] Top shape: 24 192 14 14 (903168)
I0403 15:30:51.324203 12043 net.cpp:156] Memory required for data: 858010656
I0403 15:30:51.324223 12043 layer_factory.hpp:77] Creating layer inception_4a/relu_1x1
I0403 15:30:51.324241 12043 net.cpp:91] Creating Layer inception_4a/relu_1x1
I0403 15:30:51.324257 12043 net.cpp:425] inception_4a/relu_1x1 <- inception_4a/1x1
I0403 15:30:51.324275 12043 net.cpp:386] inception_4a/relu_1x1 -> inception_4a/1x1 (in-place)
I0403 15:30:51.324465 12043 net.cpp:141] Setting up inception_4a/relu_1x1
I0403 15:30:51.324496 12043 net.cpp:148] Top shape: 24 192 14 14 (903168)
I0403 15:30:51.324512 12043 net.cpp:156] Memory required for data: 861623328
I0403 15:30:51.324527 12043 layer_factory.hpp:77] Creating layer inception_4a/3x3_reduce
I0403 15:30:51.324549 12043 net.cpp:91] Creating Layer inception_4a/3x3_reduce
I0403 15:30:51.324568 12043 net.cpp:425] inception_4a/3x3_reduce <- pool3/3x3_s2_pool3/3x3_s2_0_split_1
I0403 15:30:51.324589 12043 net.cpp:399] inception_4a/3x3_reduce -> inception_4a/3x3_reduce
I0403 15:30:51.325894 12043 net.cpp:141] Setting up inception_4a/3x3_reduce
I0403 15:30:51.325924 12043 net.cpp:148] Top shape: 24 96 14 14 (451584)
I0403 15:30:51.325942 12043 net.cpp:156] Memory required for data: 863429664
I0403 15:30:51.325969 12043 layer_factory.hpp:77] Creating layer inception_4a/relu_3x3_reduce
I0403 15:30:51.325992 12043 net.cpp:91] Creating Layer inception_4a/relu_3x3_reduce
I0403 15:30:51.326010 12043 net.cpp:425] inception_4a/relu_3x3_reduce <- inception_4a/3x3_reduce
I0403 15:30:51.326028 12043 net.cpp:386] inception_4a/relu_3x3_reduce -> inception_4a/3x3_reduce (in-place)
I0403 15:30:51.326215 12043 net.cpp:141] Setting up inception_4a/relu_3x3_reduce
I0403 15:30:51.326244 12043 net.cpp:148] Top shape: 24 96 14 14 (451584)
I0403 15:30:51.326261 12043 net.cpp:156] Memory required for data: 865236000
I0403 15:30:51.326277 12043 layer_factory.hpp:77] Creating layer inception_4a/3x3
I0403 15:30:51.326302 12043 net.cpp:91] Creating Layer inception_4a/3x3
I0403 15:30:51.326319 12043 net.cpp:425] inception_4a/3x3 <- inception_4a/3x3_reduce
I0403 15:30:51.326339 12043 net.cpp:399] inception_4a/3x3 -> inception_4a/3x3
I0403 15:30:51.329103 12043 net.cpp:141] Setting up inception_4a/3x3
I0403 15:30:51.329135 12043 net.cpp:148] Top shape: 24 208 14 14 (978432)
I0403 15:30:51.329154 12043 net.cpp:156] Memory required for data: 869149728
I0403 15:30:51.329172 12043 layer_factory.hpp:77] Creating layer inception_4a/relu_3x3
I0403 15:30:51.329192 12043 net.cpp:91] Creating Layer inception_4a/relu_3x3
I0403 15:30:51.329210 12043 net.cpp:425] inception_4a/relu_3x3 <- inception_4a/3x3
I0403 15:30:51.329229 12043 net.cpp:386] inception_4a/relu_3x3 -> inception_4a/3x3 (in-place)
I0403 15:30:51.329519 12043 net.cpp:141] Setting up inception_4a/relu_3x3
I0403 15:30:51.329547 12043 net.cpp:148] Top shape: 24 208 14 14 (978432)
I0403 15:30:51.329563 12043 net.cpp:156] Memory required for data: 873063456
I0403 15:30:51.329578 12043 layer_factory.hpp:77] Creating layer inception_4a/5x5_reduce
I0403 15:30:51.329602 12043 net.cpp:91] Creating Layer inception_4a/5x5_reduce
I0403 15:30:51.329620 12043 net.cpp:425] inception_4a/5x5_reduce <- pool3/3x3_s2_pool3/3x3_s2_0_split_2
I0403 15:30:51.329643 12043 net.cpp:399] inception_4a/5x5_reduce -> inception_4a/5x5_reduce
I0403 15:30:51.330698 12043 net.cpp:141] Setting up inception_4a/5x5_reduce
I0403 15:30:51.330729 12043 net.cpp:148] Top shape: 24 16 14 14 (75264)
I0403 15:30:51.330745 12043 net.cpp:156] Memory required for data: 873364512
I0403 15:30:51.330765 12043 layer_factory.hpp:77] Creating layer inception_4a/relu_5x5_reduce
I0403 15:30:51.330783 12043 net.cpp:91] Creating Layer inception_4a/relu_5x5_reduce
I0403 15:30:51.330801 12043 net.cpp:425] inception_4a/relu_5x5_reduce <- inception_4a/5x5_reduce
I0403 15:30:51.330821 12043 net.cpp:386] inception_4a/relu_5x5_reduce -> inception_4a/5x5_reduce (in-place)
I0403 15:30:51.331007 12043 net.cpp:141] Setting up inception_4a/relu_5x5_reduce
I0403 15:30:51.331033 12043 net.cpp:148] Top shape: 24 16 14 14 (75264)
I0403 15:30:51.331049 12043 net.cpp:156] Memory required for data: 873665568
I0403 15:30:51.331065 12043 layer_factory.hpp:77] Creating layer inception_4a/5x5
I0403 15:30:51.331089 12043 net.cpp:91] Creating Layer inception_4a/5x5
I0403 15:30:51.331107 12043 net.cpp:425] inception_4a/5x5 <- inception_4a/5x5_reduce
I0403 15:30:51.331130 12043 net.cpp:399] inception_4a/5x5 -> inception_4a/5x5
I0403 15:30:51.332255 12043 net.cpp:141] Setting up inception_4a/5x5
I0403 15:30:51.332284 12043 net.cpp:148] Top shape: 24 48 14 14 (225792)
I0403 15:30:51.332300 12043 net.cpp:156] Memory required for data: 874568736
I0403 15:30:51.332319 12043 layer_factory.hpp:77] Creating layer inception_4a/relu_5x5
I0403 15:30:51.332340 12043 net.cpp:91] Creating Layer inception_4a/relu_5x5
I0403 15:30:51.332360 12043 net.cpp:425] inception_4a/relu_5x5 <- inception_4a/5x5
I0403 15:30:51.332379 12043 net.cpp:386] inception_4a/relu_5x5 -> inception_4a/5x5 (in-place)
I0403 15:30:51.332574 12043 net.cpp:141] Setting up inception_4a/relu_5x5
I0403 15:30:51.332605 12043 net.cpp:148] Top shape: 24 48 14 14 (225792)
I0403 15:30:51.332623 12043 net.cpp:156] Memory required for data: 875471904
I0403 15:30:51.332638 12043 layer_factory.hpp:77] Creating layer inception_4a/pool
I0403 15:30:51.332656 12043 net.cpp:91] Creating Layer inception_4a/pool
I0403 15:30:51.332674 12043 net.cpp:425] inception_4a/pool <- pool3/3x3_s2_pool3/3x3_s2_0_split_3
I0403 15:30:51.332693 12043 net.cpp:399] inception_4a/pool -> inception_4a/pool
I0403 15:30:51.332758 12043 net.cpp:141] Setting up inception_4a/pool
I0403 15:30:51.332784 12043 net.cpp:148] Top shape: 24 480 14 14 (2257920)
I0403 15:30:51.332799 12043 net.cpp:156] Memory required for data: 884503584
I0403 15:30:51.332814 12043 layer_factory.hpp:77] Creating layer inception_4a/pool_proj
I0403 15:30:51.332837 12043 net.cpp:91] Creating Layer inception_4a/pool_proj
I0403 15:30:51.332855 12043 net.cpp:425] inception_4a/pool_proj <- inception_4a/pool
I0403 15:30:51.332878 12043 net.cpp:399] inception_4a/pool_proj -> inception_4a/pool_proj
I0403 15:30:51.334084 12043 net.cpp:141] Setting up inception_4a/pool_proj
I0403 15:30:51.334115 12043 net.cpp:148] Top shape: 24 64 14 14 (301056)
I0403 15:30:51.334151 12043 net.cpp:156] Memory required for data: 885707808
I0403 15:30:51.334170 12043 layer_factory.hpp:77] Creating layer inception_4a/relu_pool_proj
I0403 15:30:51.334193 12043 net.cpp:91] Creating Layer inception_4a/relu_pool_proj
I0403 15:30:51.334213 12043 net.cpp:425] inception_4a/relu_pool_proj <- inception_4a/pool_proj
I0403 15:30:51.334231 12043 net.cpp:386] inception_4a/relu_pool_proj -> inception_4a/pool_proj (in-place)
I0403 15:30:51.334532 12043 net.cpp:141] Setting up inception_4a/relu_pool_proj
I0403 15:30:51.334558 12043 net.cpp:148] Top shape: 24 64 14 14 (301056)
I0403 15:30:51.334574 12043 net.cpp:156] Memory required for data: 886912032
I0403 15:30:51.334589 12043 layer_factory.hpp:77] Creating layer inception_4a/output
I0403 15:30:51.334609 12043 net.cpp:91] Creating Layer inception_4a/output
I0403 15:30:51.334627 12043 net.cpp:425] inception_4a/output <- inception_4a/1x1
I0403 15:30:51.334645 12043 net.cpp:425] inception_4a/output <- inception_4a/3x3
I0403 15:30:51.334661 12043 net.cpp:425] inception_4a/output <- inception_4a/5x5
I0403 15:30:51.334676 12043 net.cpp:425] inception_4a/output <- inception_4a/pool_proj
I0403 15:30:51.334692 12043 net.cpp:399] inception_4a/output -> inception_4a/output
I0403 15:30:51.334746 12043 net.cpp:141] Setting up inception_4a/output
I0403 15:30:51.334770 12043 net.cpp:148] Top shape: 24 512 14 14 (2408448)
I0403 15:30:51.334785 12043 net.cpp:156] Memory required for data: 896545824
I0403 15:30:51.334800 12043 layer_factory.hpp:77] Creating layer inception_4a/output_inception_4a/output_0_split
I0403 15:30:51.334818 12043 net.cpp:91] Creating Layer inception_4a/output_inception_4a/output_0_split
I0403 15:30:51.334833 12043 net.cpp:425] inception_4a/output_inception_4a/output_0_split <- inception_4a/output
I0403 15:30:51.334854 12043 net.cpp:399] inception_4a/output_inception_4a/output_0_split -> inception_4a/output_inception_4a/output_0_split_0
I0403 15:30:51.334877 12043 net.cpp:399] inception_4a/output_inception_4a/output_0_split -> inception_4a/output_inception_4a/output_0_split_1
I0403 15:30:51.334897 12043 net.cpp:399] inception_4a/output_inception_4a/output_0_split -> inception_4a/output_inception_4a/output_0_split_2
I0403 15:30:51.334920 12043 net.cpp:399] inception_4a/output_inception_4a/output_0_split -> inception_4a/output_inception_4a/output_0_split_3
I0403 15:30:51.334942 12043 net.cpp:399] inception_4a/output_inception_4a/output_0_split -> inception_4a/output_inception_4a/output_0_split_4
I0403 15:30:51.335037 12043 net.cpp:141] Setting up inception_4a/output_inception_4a/output_0_split
I0403 15:30:51.335062 12043 net.cpp:148] Top shape: 24 512 14 14 (2408448)
I0403 15:30:51.335078 12043 net.cpp:148] Top shape: 24 512 14 14 (2408448)
I0403 15:30:51.335093 12043 net.cpp:148] Top shape: 24 512 14 14 (2408448)
I0403 15:30:51.335110 12043 net.cpp:148] Top shape: 24 512 14 14 (2408448)
I0403 15:30:51.335126 12043 net.cpp:148] Top shape: 24 512 14 14 (2408448)
I0403 15:30:51.335140 12043 net.cpp:156] Memory required for data: 944714784
I0403 15:30:51.335155 12043 layer_factory.hpp:77] Creating layer loss1/ave_pool
I0403 15:30:51.335171 12043 net.cpp:91] Creating Layer loss1/ave_pool
I0403 15:30:51.335188 12043 net.cpp:425] loss1/ave_pool <- inception_4a/output_inception_4a/output_0_split_0
I0403 15:30:51.335208 12043 net.cpp:399] loss1/ave_pool -> loss1/ave_pool
I0403 15:30:51.335429 12043 net.cpp:141] Setting up loss1/ave_pool
I0403 15:30:51.335456 12043 net.cpp:148] Top shape: 24 512 4 4 (196608)
I0403 15:30:51.335472 12043 net.cpp:156] Memory required for data: 945501216
I0403 15:30:51.335487 12043 layer_factory.hpp:77] Creating layer loss1/conv
I0403 15:30:51.335511 12043 net.cpp:91] Creating Layer loss1/conv
I0403 15:30:51.335530 12043 net.cpp:425] loss1/conv <- loss1/ave_pool
I0403 15:30:51.335548 12043 net.cpp:399] loss1/conv -> loss1/conv
I0403 15:30:51.337015 12043 net.cpp:141] Setting up loss1/conv
I0403 15:30:51.337045 12043 net.cpp:148] Top shape: 24 128 4 4 (49152)
I0403 15:30:51.337076 12043 net.cpp:156] Memory required for data: 945697824
I0403 15:30:51.337097 12043 layer_factory.hpp:77] Creating layer loss1/relu_conv
I0403 15:30:51.337116 12043 net.cpp:91] Creating Layer loss1/relu_conv
I0403 15:30:51.337133 12043 net.cpp:425] loss1/relu_conv <- loss1/conv
I0403 15:30:51.337154 12043 net.cpp:386] loss1/relu_conv -> loss1/conv (in-place)
I0403 15:30:51.337458 12043 net.cpp:141] Setting up loss1/relu_conv
I0403 15:30:51.337486 12043 net.cpp:148] Top shape: 24 128 4 4 (49152)
I0403 15:30:51.337502 12043 net.cpp:156] Memory required for data: 945894432
I0403 15:30:51.337515 12043 layer_factory.hpp:77] Creating layer loss1/fc
I0403 15:30:51.337539 12043 net.cpp:91] Creating Layer loss1/fc
I0403 15:30:51.337558 12043 net.cpp:425] loss1/fc <- loss1/conv
I0403 15:30:51.337579 12043 net.cpp:399] loss1/fc -> loss1/fc
I0403 15:30:51.355722 12043 net.cpp:141] Setting up loss1/fc
I0403 15:30:51.355761 12043 net.cpp:148] Top shape: 24 1024 (24576)
I0403 15:30:51.355777 12043 net.cpp:156] Memory required for data: 945992736
I0403 15:30:51.355798 12043 layer_factory.hpp:77] Creating layer loss1/relu_fc
I0403 15:30:51.355816 12043 net.cpp:91] Creating Layer loss1/relu_fc
I0403 15:30:51.355834 12043 net.cpp:425] loss1/relu_fc <- loss1/fc
I0403 15:30:51.355849 12043 net.cpp:386] loss1/relu_fc -> loss1/fc (in-place)
I0403 15:30:51.356055 12043 net.cpp:141] Setting up loss1/relu_fc
I0403 15:30:51.356079 12043 net.cpp:148] Top shape: 24 1024 (24576)
I0403 15:30:51.356093 12043 net.cpp:156] Memory required for data: 946091040
I0403 15:30:51.356108 12043 layer_factory.hpp:77] Creating layer loss1/drop_fc
I0403 15:30:51.356137 12043 net.cpp:91] Creating Layer loss1/drop_fc
I0403 15:30:51.356154 12043 net.cpp:425] loss1/drop_fc <- loss1/fc
I0403 15:30:51.356173 12043 net.cpp:386] loss1/drop_fc -> loss1/fc (in-place)
I0403 15:30:51.356226 12043 net.cpp:141] Setting up loss1/drop_fc
I0403 15:30:51.356250 12043 net.cpp:148] Top shape: 24 1024 (24576)
I0403 15:30:51.356263 12043 net.cpp:156] Memory required for data: 946189344
I0403 15:30:51.356278 12043 layer_factory.hpp:77] Creating layer loss1/classifier_plantvillage
I0403 15:30:51.356309 12043 net.cpp:91] Creating Layer loss1/classifier_plantvillage
I0403 15:30:51.356328 12043 net.cpp:425] loss1/classifier_plantvillage <- loss1/fc
I0403 15:30:51.356345 12043 net.cpp:399] loss1/classifier_plantvillage -> loss1/classifier_plantvillage
I0403 15:30:51.357275 12043 net.cpp:141] Setting up loss1/classifier_plantvillage
I0403 15:30:51.357306 12043 net.cpp:148] Top shape: 24 38 (912)
I0403 15:30:51.357323 12043 net.cpp:156] Memory required for data: 946192992
I0403 15:30:51.357342 12043 layer_factory.hpp:77] Creating layer loss1/classifier_plantvillage_loss1/classifier_plantvillage_0_split
I0403 15:30:51.357363 12043 net.cpp:91] Creating Layer loss1/classifier_plantvillage_loss1/classifier_plantvillage_0_split
I0403 15:30:51.357379 12043 net.cpp:425] loss1/classifier_plantvillage_loss1/classifier_plantvillage_0_split <- loss1/classifier_plantvillage
I0403 15:30:51.357396 12043 net.cpp:399] loss1/classifier_plantvillage_loss1/classifier_plantvillage_0_split -> loss1/classifier_plantvillage_loss1/classifier_plantvillage_0_split_0
I0403 15:30:51.357422 12043 net.cpp:399] loss1/classifier_plantvillage_loss1/classifier_plantvillage_0_split -> loss1/classifier_plantvillage_loss1/classifier_plantvillage_0_split_1
I0403 15:30:51.357445 12043 net.cpp:399] loss1/classifier_plantvillage_loss1/classifier_plantvillage_0_split -> loss1/classifier_plantvillage_loss1/classifier_plantvillage_0_split_2
I0403 15:30:51.357511 12043 net.cpp:141] Setting up loss1/classifier_plantvillage_loss1/classifier_plantvillage_0_split
I0403 15:30:51.357533 12043 net.cpp:148] Top shape: 24 38 (912)
I0403 15:30:51.357549 12043 net.cpp:148] Top shape: 24 38 (912)
I0403 15:30:51.357565 12043 net.cpp:148] Top shape: 24 38 (912)
I0403 15:30:51.357579 12043 net.cpp:156] Memory required for data: 946203936
I0403 15:30:51.357594 12043 layer_factory.hpp:77] Creating layer inception_4b/1x1
I0403 15:30:51.357615 12043 net.cpp:91] Creating Layer inception_4b/1x1
I0403 15:30:51.357653 12043 net.cpp:425] inception_4b/1x1 <- inception_4a/output_inception_4a/output_0_split_1
I0403 15:30:51.357676 12043 net.cpp:399] inception_4b/1x1 -> inception_4b/1x1
I0403 15:30:51.359381 12043 net.cpp:141] Setting up inception_4b/1x1
I0403 15:30:51.359427 12043 net.cpp:148] Top shape: 24 160 14 14 (752640)
I0403 15:30:51.359447 12043 net.cpp:156] Memory required for data: 949214496
I0403 15:30:51.359467 12043 layer_factory.hpp:77] Creating layer inception_4b/relu_1x1
I0403 15:30:51.359485 12043 net.cpp:91] Creating Layer inception_4b/relu_1x1
I0403 15:30:51.359503 12043 net.cpp:425] inception_4b/relu_1x1 <- inception_4b/1x1
I0403 15:30:51.359524 12043 net.cpp:386] inception_4b/relu_1x1 -> inception_4b/1x1 (in-place)
I0403 15:30:51.359724 12043 net.cpp:141] Setting up inception_4b/relu_1x1
I0403 15:30:51.359750 12043 net.cpp:148] Top shape: 24 160 14 14 (752640)
I0403 15:30:51.359766 12043 net.cpp:156] Memory required for data: 952225056
I0403 15:30:51.359781 12043 layer_factory.hpp:77] Creating layer inception_4b/3x3_reduce
I0403 15:30:51.359803 12043 net.cpp:91] Creating Layer inception_4b/3x3_reduce
I0403 15:30:51.359822 12043 net.cpp:425] inception_4b/3x3_reduce <- inception_4a/output_inception_4a/output_0_split_2
I0403 15:30:51.359843 12043 net.cpp:399] inception_4b/3x3_reduce -> inception_4b/3x3_reduce
I0403 15:30:51.361196 12043 net.cpp:141] Setting up inception_4b/3x3_reduce
I0403 15:30:51.361225 12043 net.cpp:148] Top shape: 24 112 14 14 (526848)
I0403 15:30:51.361243 12043 net.cpp:156] Memory required for data: 954332448
I0403 15:30:51.361261 12043 layer_factory.hpp:77] Creating layer inception_4b/relu_3x3_reduce
I0403 15:30:51.361284 12043 net.cpp:91] Creating Layer inception_4b/relu_3x3_reduce
I0403 15:30:51.361302 12043 net.cpp:425] inception_4b/relu_3x3_reduce <- inception_4b/3x3_reduce
I0403 15:30:51.361320 12043 net.cpp:386] inception_4b/relu_3x3_reduce -> inception_4b/3x3_reduce (in-place)
I0403 15:30:51.361613 12043 net.cpp:141] Setting up inception_4b/relu_3x3_reduce
I0403 15:30:51.361639 12043 net.cpp:148] Top shape: 24 112 14 14 (526848)
I0403 15:30:51.361656 12043 net.cpp:156] Memory required for data: 956439840
I0403 15:30:51.361671 12043 layer_factory.hpp:77] Creating layer inception_4b/3x3
I0403 15:30:51.361695 12043 net.cpp:91] Creating Layer inception_4b/3x3
I0403 15:30:51.361721 12043 net.cpp:425] inception_4b/3x3 <- inception_4b/3x3_reduce
I0403 15:30:51.361742 12043 net.cpp:399] inception_4b/3x3 -> inception_4b/3x3
I0403 15:30:51.364732 12043 net.cpp:141] Setting up inception_4b/3x3
I0403 15:30:51.364764 12043 net.cpp:148] Top shape: 24 224 14 14 (1053696)
I0403 15:30:51.364783 12043 net.cpp:156] Memory required for data: 960654624
I0403 15:30:51.364801 12043 layer_factory.hpp:77] Creating layer inception_4b/relu_3x3
I0403 15:30:51.364820 12043 net.cpp:91] Creating Layer inception_4b/relu_3x3
I0403 15:30:51.364836 12043 net.cpp:425] inception_4b/relu_3x3 <- inception_4b/3x3
I0403 15:30:51.364856 12043 net.cpp:386] inception_4b/relu_3x3 -> inception_4b/3x3 (in-place)
I0403 15:30:51.365041 12043 net.cpp:141] Setting up inception_4b/relu_3x3
I0403 15:30:51.365066 12043 net.cpp:148] Top shape: 24 224 14 14 (1053696)
I0403 15:30:51.365080 12043 net.cpp:156] Memory required for data: 964869408
I0403 15:30:51.365094 12043 layer_factory.hpp:77] Creating layer inception_4b/5x5_reduce
I0403 15:30:51.365118 12043 net.cpp:91] Creating Layer inception_4b/5x5_reduce
I0403 15:30:51.365136 12043 net.cpp:425] inception_4b/5x5_reduce <- inception_4a/output_inception_4a/output_0_split_3
I0403 15:30:51.365157 12043 net.cpp:399] inception_4b/5x5_reduce -> inception_4b/5x5_reduce
I0403 15:30:51.366257 12043 net.cpp:141] Setting up inception_4b/5x5_reduce
I0403 15:30:51.366286 12043 net.cpp:148] Top shape: 24 24 14 14 (112896)
I0403 15:30:51.366312 12043 net.cpp:156] Memory required for data: 965320992
I0403 15:30:51.366333 12043 layer_factory.hpp:77] Creating layer inception_4b/relu_5x5_reduce
I0403 15:30:51.366354 12043 net.cpp:91] Creating Layer inception_4b/relu_5x5_reduce
I0403 15:30:51.366385 12043 net.cpp:425] inception_4b/relu_5x5_reduce <- inception_4b/5x5_reduce
I0403 15:30:51.366403 12043 net.cpp:386] inception_4b/relu_5x5_reduce -> inception_4b/5x5_reduce (in-place)
I0403 15:30:51.366619 12043 net.cpp:141] Setting up inception_4b/relu_5x5_reduce
I0403 15:30:51.366644 12043 net.cpp:148] Top shape: 24 24 14 14 (112896)
I0403 15:30:51.366659 12043 net.cpp:156] Memory required for data: 965772576
I0403 15:30:51.366674 12043 layer_factory.hpp:77] Creating layer inception_4b/5x5
I0403 15:30:51.366698 12043 net.cpp:91] Creating Layer inception_4b/5x5
I0403 15:30:51.366724 12043 net.cpp:425] inception_4b/5x5 <- inception_4b/5x5_reduce
I0403 15:30:51.366744 12043 net.cpp:399] inception_4b/5x5 -> inception_4b/5x5
I0403 15:30:51.367985 12043 net.cpp:141] Setting up inception_4b/5x5
I0403 15:30:51.368015 12043 net.cpp:148] Top shape: 24 64 14 14 (301056)
I0403 15:30:51.368031 12043 net.cpp:156] Memory required for data: 966976800
I0403 15:30:51.368049 12043 layer_factory.hpp:77] Creating layer inception_4b/relu_5x5
I0403 15:30:51.368067 12043 net.cpp:91] Creating Layer inception_4b/relu_5x5
I0403 15:30:51.368083 12043 net.cpp:425] inception_4b/relu_5x5 <- inception_4b/5x5
I0403 15:30:51.368103 12043 net.cpp:386] inception_4b/relu_5x5 -> inception_4b/5x5 (in-place)
I0403 15:30:51.368397 12043 net.cpp:141] Setting up inception_4b/relu_5x5
I0403 15:30:51.368429 12043 net.cpp:148] Top shape: 24 64 14 14 (301056)
I0403 15:30:51.368445 12043 net.cpp:156] Memory required for data: 968181024
I0403 15:30:51.368461 12043 layer_factory.hpp:77] Creating layer inception_4b/pool
I0403 15:30:51.368479 12043 net.cpp:91] Creating Layer inception_4b/pool
I0403 15:30:51.368495 12043 net.cpp:425] inception_4b/pool <- inception_4a/output_inception_4a/output_0_split_4
I0403 15:30:51.368518 12043 net.cpp:399] inception_4b/pool -> inception_4b/pool
I0403 15:30:51.368584 12043 net.cpp:141] Setting up inception_4b/pool
I0403 15:30:51.368608 12043 net.cpp:148] Top shape: 24 512 14 14 (2408448)
I0403 15:30:51.368623 12043 net.cpp:156] Memory required for data: 977814816
I0403 15:30:51.368638 12043 layer_factory.hpp:77] Creating layer inception_4b/pool_proj
I0403 15:30:51.368661 12043 net.cpp:91] Creating Layer inception_4b/pool_proj
I0403 15:30:51.368679 12043 net.cpp:425] inception_4b/pool_proj <- inception_4b/pool
I0403 15:30:51.368696 12043 net.cpp:399] inception_4b/pool_proj -> inception_4b/pool_proj
I0403 15:30:51.369904 12043 net.cpp:141] Setting up inception_4b/pool_proj
I0403 15:30:51.369935 12043 net.cpp:148] Top shape: 24 64 14 14 (301056)
I0403 15:30:51.369951 12043 net.cpp:156] Memory required for data: 979019040
I0403 15:30:51.369969 12043 layer_factory.hpp:77] Creating layer inception_4b/relu_pool_proj
I0403 15:30:51.369987 12043 net.cpp:91] Creating Layer inception_4b/relu_pool_proj
I0403 15:30:51.370004 12043 net.cpp:425] inception_4b/relu_pool_proj <- inception_4b/pool_proj
I0403 15:30:51.370023 12043 net.cpp:386] inception_4b/relu_pool_proj -> inception_4b/pool_proj (in-place)
I0403 15:30:51.370208 12043 net.cpp:141] Setting up inception_4b/relu_pool_proj
I0403 15:30:51.370234 12043 net.cpp:148] Top shape: 24 64 14 14 (301056)
I0403 15:30:51.370250 12043 net.cpp:156] Memory required for data: 980223264
I0403 15:30:51.370266 12043 layer_factory.hpp:77] Creating layer inception_4b/output
I0403 15:30:51.370286 12043 net.cpp:91] Creating Layer inception_4b/output
I0403 15:30:51.370303 12043 net.cpp:425] inception_4b/output <- inception_4b/1x1
I0403 15:30:51.370321 12043 net.cpp:425] inception_4b/output <- inception_4b/3x3
I0403 15:30:51.370337 12043 net.cpp:425] inception_4b/output <- inception_4b/5x5
I0403 15:30:51.370353 12043 net.cpp:425] inception_4b/output <- inception_4b/pool_proj
I0403 15:30:51.370369 12043 net.cpp:399] inception_4b/output -> inception_4b/output
I0403 15:30:51.370420 12043 net.cpp:141] Setting up inception_4b/output
I0403 15:30:51.370452 12043 net.cpp:148] Top shape: 24 512 14 14 (2408448)
I0403 15:30:51.370468 12043 net.cpp:156] Memory required for data: 989857056
I0403 15:30:51.370497 12043 layer_factory.hpp:77] Creating layer inception_4b/output_inception_4b/output_0_split
I0403 15:30:51.370515 12043 net.cpp:91] Creating Layer inception_4b/output_inception_4b/output_0_split
I0403 15:30:51.370532 12043 net.cpp:425] inception_4b/output_inception_4b/output_0_split <- inception_4b/output
I0403 15:30:51.370551 12043 net.cpp:399] inception_4b/output_inception_4b/output_0_split -> inception_4b/output_inception_4b/output_0_split_0
I0403 15:30:51.370573 12043 net.cpp:399] inception_4b/output_inception_4b/output_0_split -> inception_4b/output_inception_4b/output_0_split_1
I0403 15:30:51.370592 12043 net.cpp:399] inception_4b/output_inception_4b/output_0_split -> inception_4b/output_inception_4b/output_0_split_2
I0403 15:30:51.370612 12043 net.cpp:399] inception_4b/output_inception_4b/output_0_split -> inception_4b/output_inception_4b/output_0_split_3
I0403 15:30:51.370697 12043 net.cpp:141] Setting up inception_4b/output_inception_4b/output_0_split
I0403 15:30:51.370728 12043 net.cpp:148] Top shape: 24 512 14 14 (2408448)
I0403 15:30:51.370744 12043 net.cpp:148] Top shape: 24 512 14 14 (2408448)
I0403 15:30:51.370759 12043 net.cpp:148] Top shape: 24 512 14 14 (2408448)
I0403 15:30:51.370774 12043 net.cpp:148] Top shape: 24 512 14 14 (2408448)
I0403 15:30:51.370789 12043 net.cpp:156] Memory required for data: 1028392224
I0403 15:30:51.370803 12043 layer_factory.hpp:77] Creating layer inception_4c/1x1
I0403 15:30:51.370826 12043 net.cpp:91] Creating Layer inception_4c/1x1
I0403 15:30:51.370842 12043 net.cpp:425] inception_4c/1x1 <- inception_4b/output_inception_4b/output_0_split_0
I0403 15:30:51.370863 12043 net.cpp:399] inception_4c/1x1 -> inception_4c/1x1
I0403 15:30:51.372311 12043 net.cpp:141] Setting up inception_4c/1x1
I0403 15:30:51.372341 12043 net.cpp:148] Top shape: 24 128 14 14 (602112)
I0403 15:30:51.372364 12043 net.cpp:156] Memory required for data: 1030800672
I0403 15:30:51.372383 12043 layer_factory.hpp:77] Creating layer inception_4c/relu_1x1
I0403 15:30:51.372400 12043 net.cpp:91] Creating Layer inception_4c/relu_1x1
I0403 15:30:51.372428 12043 net.cpp:425] inception_4c/relu_1x1 <- inception_4c/1x1
I0403 15:30:51.372448 12043 net.cpp:386] inception_4c/relu_1x1 -> inception_4c/1x1 (in-place)
I0403 15:30:51.372638 12043 net.cpp:141] Setting up inception_4c/relu_1x1
I0403 15:30:51.372668 12043 net.cpp:148] Top shape: 24 128 14 14 (602112)
I0403 15:30:51.372685 12043 net.cpp:156] Memory required for data: 1033209120
I0403 15:30:51.372700 12043 layer_factory.hpp:77] Creating layer inception_4c/3x3_reduce
I0403 15:30:51.372723 12043 net.cpp:91] Creating Layer inception_4c/3x3_reduce
I0403 15:30:51.372742 12043 net.cpp:425] inception_4c/3x3_reduce <- inception_4b/output_inception_4b/output_0_split_1
I0403 15:30:51.372762 12043 net.cpp:399] inception_4c/3x3_reduce -> inception_4c/3x3_reduce
I0403 15:30:51.374722 12043 net.cpp:141] Setting up inception_4c/3x3_reduce
I0403 15:30:51.374752 12043 net.cpp:148] Top shape: 24 128 14 14 (602112)
I0403 15:30:51.374768 12043 net.cpp:156] Memory required for data: 1035617568
I0403 15:30:51.374788 12043 layer_factory.hpp:77] Creating layer inception_4c/relu_3x3_reduce
I0403 15:30:51.374806 12043 net.cpp:91] Creating Layer inception_4c/relu_3x3_reduce
I0403 15:30:51.374824 12043 net.cpp:425] inception_4c/relu_3x3_reduce <- inception_4c/3x3_reduce
I0403 15:30:51.374843 12043 net.cpp:386] inception_4c/relu_3x3_reduce -> inception_4c/3x3_reduce (in-place)
I0403 15:30:51.375135 12043 net.cpp:141] Setting up inception_4c/relu_3x3_reduce
I0403 15:30:51.375164 12043 net.cpp:148] Top shape: 24 128 14 14 (602112)
I0403 15:30:51.375180 12043 net.cpp:156] Memory required for data: 1038026016
I0403 15:30:51.375195 12043 layer_factory.hpp:77] Creating layer inception_4c/3x3
I0403 15:30:51.375219 12043 net.cpp:91] Creating Layer inception_4c/3x3
I0403 15:30:51.375238 12043 net.cpp:425] inception_4c/3x3 <- inception_4c/3x3_reduce
I0403 15:30:51.375260 12043 net.cpp:399] inception_4c/3x3 -> inception_4c/3x3
I0403 15:30:51.378878 12043 net.cpp:141] Setting up inception_4c/3x3
I0403 15:30:51.378923 12043 net.cpp:148] Top shape: 24 256 14 14 (1204224)
I0403 15:30:51.378940 12043 net.cpp:156] Memory required for data: 1042842912
I0403 15:30:51.378973 12043 layer_factory.hpp:77] Creating layer inception_4c/relu_3x3
I0403 15:30:51.378994 12043 net.cpp:91] Creating Layer inception_4c/relu_3x3
I0403 15:30:51.379012 12043 net.cpp:425] inception_4c/relu_3x3 <- inception_4c/3x3
I0403 15:30:51.379032 12043 net.cpp:386] inception_4c/relu_3x3 -> inception_4c/3x3 (in-place)
I0403 15:30:51.379221 12043 net.cpp:141] Setting up inception_4c/relu_3x3
I0403 15:30:51.379248 12043 net.cpp:148] Top shape: 24 256 14 14 (1204224)
I0403 15:30:51.379263 12043 net.cpp:156] Memory required for data: 1047659808
I0403 15:30:51.379279 12043 layer_factory.hpp:77] Creating layer inception_4c/5x5_reduce
I0403 15:30:51.379302 12043 net.cpp:91] Creating Layer inception_4c/5x5_reduce
I0403 15:30:51.379328 12043 net.cpp:425] inception_4c/5x5_reduce <- inception_4b/output_inception_4b/output_0_split_2
I0403 15:30:51.379354 12043 net.cpp:399] inception_4c/5x5_reduce -> inception_4c/5x5_reduce
I0403 15:30:51.380473 12043 net.cpp:141] Setting up inception_4c/5x5_reduce
I0403 15:30:51.380502 12043 net.cpp:148] Top shape: 24 24 14 14 (112896)
I0403 15:30:51.380519 12043 net.cpp:156] Memory required for data: 1048111392
I0403 15:30:51.380538 12043 layer_factory.hpp:77] Creating layer inception_4c/relu_5x5_reduce
I0403 15:30:51.380558 12043 net.cpp:91] Creating Layer inception_4c/relu_5x5_reduce
I0403 15:30:51.380576 12043 net.cpp:425] inception_4c/relu_5x5_reduce <- inception_4c/5x5_reduce
I0403 15:30:51.380594 12043 net.cpp:386] inception_4c/relu_5x5_reduce -> inception_4c/5x5_reduce (in-place)
I0403 15:30:51.380786 12043 net.cpp:141] Setting up inception_4c/relu_5x5_reduce
I0403 15:30:51.380810 12043 net.cpp:148] Top shape: 24 24 14 14 (112896)
I0403 15:30:51.380825 12043 net.cpp:156] Memory required for data: 1048562976
I0403 15:30:51.380841 12043 layer_factory.hpp:77] Creating layer inception_4c/5x5
I0403 15:30:51.380863 12043 net.cpp:91] Creating Layer inception_4c/5x5
I0403 15:30:51.380880 12043 net.cpp:425] inception_4c/5x5 <- inception_4c/5x5_reduce
I0403 15:30:51.380903 12043 net.cpp:399] inception_4c/5x5 -> inception_4c/5x5
I0403 15:30:51.382153 12043 net.cpp:141] Setting up inception_4c/5x5
I0403 15:30:51.382182 12043 net.cpp:148] Top shape: 24 64 14 14 (301056)
I0403 15:30:51.382200 12043 net.cpp:156] Memory required for data: 1049767200
I0403 15:30:51.382217 12043 layer_factory.hpp:77] Creating layer inception_4c/relu_5x5
I0403 15:30:51.382237 12043 net.cpp:91] Creating Layer inception_4c/relu_5x5
I0403 15:30:51.382256 12043 net.cpp:425] inception_4c/relu_5x5 <- inception_4c/5x5
I0403 15:30:51.382272 12043 net.cpp:386] inception_4c/relu_5x5 -> inception_4c/5x5 (in-place)
I0403 15:30:51.382586 12043 net.cpp:141] Setting up inception_4c/relu_5x5
I0403 15:30:51.382611 12043 net.cpp:148] Top shape: 24 64 14 14 (301056)
I0403 15:30:51.382627 12043 net.cpp:156] Memory required for data: 1050971424
I0403 15:30:51.382642 12043 layer_factory.hpp:77] Creating layer inception_4c/pool
I0403 15:30:51.382661 12043 net.cpp:91] Creating Layer inception_4c/pool
I0403 15:30:51.382679 12043 net.cpp:425] inception_4c/pool <- inception_4b/output_inception_4b/output_0_split_3
I0403 15:30:51.382697 12043 net.cpp:399] inception_4c/pool -> inception_4c/pool
I0403 15:30:51.382772 12043 net.cpp:141] Setting up inception_4c/pool
I0403 15:30:51.382796 12043 net.cpp:148] Top shape: 24 512 14 14 (2408448)
I0403 15:30:51.382809 12043 net.cpp:156] Memory required for data: 1060605216
I0403 15:30:51.382824 12043 layer_factory.hpp:77] Creating layer inception_4c/pool_proj
I0403 15:30:51.382846 12043 net.cpp:91] Creating Layer inception_4c/pool_proj
I0403 15:30:51.382863 12043 net.cpp:425] inception_4c/pool_proj <- inception_4c/pool
I0403 15:30:51.382884 12043 net.cpp:399] inception_4c/pool_proj -> inception_4c/pool_proj
I0403 15:30:51.384106 12043 net.cpp:141] Setting up inception_4c/pool_proj
I0403 15:30:51.384135 12043 net.cpp:148] Top shape: 24 64 14 14 (301056)
I0403 15:30:51.384166 12043 net.cpp:156] Memory required for data: 1061809440
I0403 15:30:51.384186 12043 layer_factory.hpp:77] Creating layer inception_4c/relu_pool_proj
I0403 15:30:51.384205 12043 net.cpp:91] Creating Layer inception_4c/relu_pool_proj
I0403 15:30:51.384222 12043 net.cpp:425] inception_4c/relu_pool_proj <- inception_4c/pool_proj
I0403 15:30:51.384245 12043 net.cpp:386] inception_4c/relu_pool_proj -> inception_4c/pool_proj (in-place)
I0403 15:30:51.384439 12043 net.cpp:141] Setting up inception_4c/relu_pool_proj
I0403 15:30:51.384466 12043 net.cpp:148] Top shape: 24 64 14 14 (301056)
I0403 15:30:51.384482 12043 net.cpp:156] Memory required for data: 1063013664
I0403 15:30:51.384497 12043 layer_factory.hpp:77] Creating layer inception_4c/output
I0403 15:30:51.384517 12043 net.cpp:91] Creating Layer inception_4c/output
I0403 15:30:51.384536 12043 net.cpp:425] inception_4c/output <- inception_4c/1x1
I0403 15:30:51.384553 12043 net.cpp:425] inception_4c/output <- inception_4c/3x3
I0403 15:30:51.384570 12043 net.cpp:425] inception_4c/output <- inception_4c/5x5
I0403 15:30:51.384585 12043 net.cpp:425] inception_4c/output <- inception_4c/pool_proj
I0403 15:30:51.384603 12043 net.cpp:399] inception_4c/output -> inception_4c/output
I0403 15:30:51.384651 12043 net.cpp:141] Setting up inception_4c/output
I0403 15:30:51.384676 12043 net.cpp:148] Top shape: 24 512 14 14 (2408448)
I0403 15:30:51.384691 12043 net.cpp:156] Memory required for data: 1072647456
I0403 15:30:51.384706 12043 layer_factory.hpp:77] Creating layer inception_4c/output_inception_4c/output_0_split
I0403 15:30:51.384722 12043 net.cpp:91] Creating Layer inception_4c/output_inception_4c/output_0_split
I0403 15:30:51.384737 12043 net.cpp:425] inception_4c/output_inception_4c/output_0_split <- inception_4c/output
I0403 15:30:51.384757 12043 net.cpp:399] inception_4c/output_inception_4c/output_0_split -> inception_4c/output_inception_4c/output_0_split_0
I0403 15:30:51.384778 12043 net.cpp:399] inception_4c/output_inception_4c/output_0_split -> inception_4c/output_inception_4c/output_0_split_1
I0403 15:30:51.384798 12043 net.cpp:399] inception_4c/output_inception_4c/output_0_split -> inception_4c/output_inception_4c/output_0_split_2
I0403 15:30:51.384817 12043 net.cpp:399] inception_4c/output_inception_4c/output_0_split -> inception_4c/output_inception_4c/output_0_split_3
I0403 15:30:51.384901 12043 net.cpp:141] Setting up inception_4c/output_inception_4c/output_0_split
I0403 15:30:51.384925 12043 net.cpp:148] Top shape: 24 512 14 14 (2408448)
I0403 15:30:51.384943 12043 net.cpp:148] Top shape: 24 512 14 14 (2408448)
I0403 15:30:51.384958 12043 net.cpp:148] Top shape: 24 512 14 14 (2408448)
I0403 15:30:51.384974 12043 net.cpp:148] Top shape: 24 512 14 14 (2408448)
I0403 15:30:51.384987 12043 net.cpp:156] Memory required for data: 1111182624
I0403 15:30:51.385001 12043 layer_factory.hpp:77] Creating layer inception_4d/1x1
I0403 15:30:51.385025 12043 net.cpp:91] Creating Layer inception_4d/1x1
I0403 15:30:51.385042 12043 net.cpp:425] inception_4d/1x1 <- inception_4c/output_inception_4c/output_0_split_0
I0403 15:30:51.385063 12043 net.cpp:399] inception_4d/1x1 -> inception_4d/1x1
I0403 15:30:51.386454 12043 net.cpp:141] Setting up inception_4d/1x1
I0403 15:30:51.386485 12043 net.cpp:148] Top shape: 24 112 14 14 (526848)
I0403 15:30:51.386503 12043 net.cpp:156] Memory required for data: 1113290016
I0403 15:30:51.386523 12043 layer_factory.hpp:77] Creating layer inception_4d/relu_1x1
I0403 15:30:51.386543 12043 net.cpp:91] Creating Layer inception_4d/relu_1x1
I0403 15:30:51.386559 12043 net.cpp:425] inception_4d/relu_1x1 <- inception_4d/1x1
I0403 15:30:51.386577 12043 net.cpp:386] inception_4d/relu_1x1 -> inception_4d/1x1 (in-place)
I0403 15:30:51.386767 12043 net.cpp:141] Setting up inception_4d/relu_1x1
I0403 15:30:51.386793 12043 net.cpp:148] Top shape: 24 112 14 14 (526848)
I0403 15:30:51.386809 12043 net.cpp:156] Memory required for data: 1115397408
I0403 15:30:51.386824 12043 layer_factory.hpp:77] Creating layer inception_4d/3x3_reduce
I0403 15:30:51.386860 12043 net.cpp:91] Creating Layer inception_4d/3x3_reduce
I0403 15:30:51.386879 12043 net.cpp:425] inception_4d/3x3_reduce <- inception_4c/output_inception_4c/output_0_split_1
I0403 15:30:51.386901 12043 net.cpp:399] inception_4d/3x3_reduce -> inception_4d/3x3_reduce
I0403 15:30:51.388417 12043 net.cpp:141] Setting up inception_4d/3x3_reduce
I0403 15:30:51.388445 12043 net.cpp:148] Top shape: 24 144 14 14 (677376)
I0403 15:30:51.388463 12043 net.cpp:156] Memory required for data: 1118106912
I0403 15:30:51.388480 12043 layer_factory.hpp:77] Creating layer inception_4d/relu_3x3_reduce
I0403 15:30:51.388502 12043 net.cpp:91] Creating Layer inception_4d/relu_3x3_reduce
I0403 15:30:51.388521 12043 net.cpp:425] inception_4d/relu_3x3_reduce <- inception_4d/3x3_reduce
I0403 15:30:51.388540 12043 net.cpp:386] inception_4d/relu_3x3_reduce -> inception_4d/3x3_reduce (in-place)
I0403 15:30:51.388830 12043 net.cpp:141] Setting up inception_4d/relu_3x3_reduce
I0403 15:30:51.388857 12043 net.cpp:148] Top shape: 24 144 14 14 (677376)
I0403 15:30:51.388872 12043 net.cpp:156] Memory required for data: 1120816416
I0403 15:30:51.388895 12043 layer_factory.hpp:77] Creating layer inception_4d/3x3
I0403 15:30:51.388919 12043 net.cpp:91] Creating Layer inception_4d/3x3
I0403 15:30:51.388937 12043 net.cpp:425] inception_4d/3x3 <- inception_4d/3x3_reduce
I0403 15:30:51.388957 12043 net.cpp:399] inception_4d/3x3 -> inception_4d/3x3
I0403 15:30:51.393265 12043 net.cpp:141] Setting up inception_4d/3x3
I0403 15:30:51.393297 12043 net.cpp:148] Top shape: 24 288 14 14 (1354752)
I0403 15:30:51.393316 12043 net.cpp:156] Memory required for data: 1126235424
I0403 15:30:51.393334 12043 layer_factory.hpp:77] Creating layer inception_4d/relu_3x3
I0403 15:30:51.393355 12043 net.cpp:91] Creating Layer inception_4d/relu_3x3
I0403 15:30:51.393373 12043 net.cpp:425] inception_4d/relu_3x3 <- inception_4d/3x3
I0403 15:30:51.393393 12043 net.cpp:386] inception_4d/relu_3x3 -> inception_4d/3x3 (in-place)
I0403 15:30:51.393584 12043 net.cpp:141] Setting up inception_4d/relu_3x3
I0403 15:30:51.393610 12043 net.cpp:148] Top shape: 24 288 14 14 (1354752)
I0403 15:30:51.393625 12043 net.cpp:156] Memory required for data: 1131654432
I0403 15:30:51.393641 12043 layer_factory.hpp:77] Creating layer inception_4d/5x5_reduce
I0403 15:30:51.393664 12043 net.cpp:91] Creating Layer inception_4d/5x5_reduce
I0403 15:30:51.393682 12043 net.cpp:425] inception_4d/5x5_reduce <- inception_4c/output_inception_4c/output_0_split_2
I0403 15:30:51.393704 12043 net.cpp:399] inception_4d/5x5_reduce -> inception_4d/5x5_reduce
I0403 15:30:51.394906 12043 net.cpp:141] Setting up inception_4d/5x5_reduce
I0403 15:30:51.394937 12043 net.cpp:148] Top shape: 24 32 14 14 (150528)
I0403 15:30:51.394953 12043 net.cpp:156] Memory required for data: 1132256544
I0403 15:30:51.394973 12043 layer_factory.hpp:77] Creating layer inception_4d/relu_5x5_reduce
I0403 15:30:51.394992 12043 net.cpp:91] Creating Layer inception_4d/relu_5x5_reduce
I0403 15:30:51.395009 12043 net.cpp:425] inception_4d/relu_5x5_reduce <- inception_4d/5x5_reduce
I0403 15:30:51.395030 12043 net.cpp:386] inception_4d/relu_5x5_reduce -> inception_4d/5x5_reduce (in-place)
I0403 15:30:51.395228 12043 net.cpp:141] Setting up inception_4d/relu_5x5_reduce
I0403 15:30:51.395256 12043 net.cpp:148] Top shape: 24 32 14 14 (150528)
I0403 15:30:51.395272 12043 net.cpp:156] Memory required for data: 1132858656
I0403 15:30:51.395289 12043 layer_factory.hpp:77] Creating layer inception_4d/5x5
I0403 15:30:51.395313 12043 net.cpp:91] Creating Layer inception_4d/5x5
I0403 15:30:51.395333 12043 net.cpp:425] inception_4d/5x5 <- inception_4d/5x5_reduce
I0403 15:30:51.395354 12043 net.cpp:399] inception_4d/5x5 -> inception_4d/5x5
I0403 15:30:51.396889 12043 net.cpp:141] Setting up inception_4d/5x5
I0403 15:30:51.396919 12043 net.cpp:148] Top shape: 24 64 14 14 (301056)
I0403 15:30:51.396934 12043 net.cpp:156] Memory required for data: 1134062880
I0403 15:30:51.396955 12043 layer_factory.hpp:77] Creating layer inception_4d/relu_5x5
I0403 15:30:51.396993 12043 net.cpp:91] Creating Layer inception_4d/relu_5x5
I0403 15:30:51.397011 12043 net.cpp:425] inception_4d/relu_5x5 <- inception_4d/5x5
I0403 15:30:51.397029 12043 net.cpp:386] inception_4d/relu_5x5 -> inception_4d/5x5 (in-place)
I0403 15:30:51.397344 12043 net.cpp:141] Setting up inception_4d/relu_5x5
I0403 15:30:51.397372 12043 net.cpp:148] Top shape: 24 64 14 14 (301056)
I0403 15:30:51.397387 12043 net.cpp:156] Memory required for data: 1135267104
I0403 15:30:51.397402 12043 layer_factory.hpp:77] Creating layer inception_4d/pool
I0403 15:30:51.397428 12043 net.cpp:91] Creating Layer inception_4d/pool
I0403 15:30:51.397446 12043 net.cpp:425] inception_4d/pool <- inception_4c/output_inception_4c/output_0_split_3
I0403 15:30:51.397465 12043 net.cpp:399] inception_4d/pool -> inception_4d/pool
I0403 15:30:51.397534 12043 net.cpp:141] Setting up inception_4d/pool
I0403 15:30:51.397559 12043 net.cpp:148] Top shape: 24 512 14 14 (2408448)
I0403 15:30:51.397574 12043 net.cpp:156] Memory required for data: 1144900896
I0403 15:30:51.397588 12043 layer_factory.hpp:77] Creating layer inception_4d/pool_proj
I0403 15:30:51.397611 12043 net.cpp:91] Creating Layer inception_4d/pool_proj
I0403 15:30:51.397629 12043 net.cpp:425] inception_4d/pool_proj <- inception_4d/pool
I0403 15:30:51.397651 12043 net.cpp:399] inception_4d/pool_proj -> inception_4d/pool_proj
I0403 15:30:51.399471 12043 net.cpp:141] Setting up inception_4d/pool_proj
I0403 15:30:51.399505 12043 net.cpp:148] Top shape: 24 64 14 14 (301056)
I0403 15:30:51.399524 12043 net.cpp:156] Memory required for data: 1146105120
I0403 15:30:51.399544 12043 layer_factory.hpp:77] Creating layer inception_4d/relu_pool_proj
I0403 15:30:51.399564 12043 net.cpp:91] Creating Layer inception_4d/relu_pool_proj
I0403 15:30:51.399582 12043 net.cpp:425] inception_4d/relu_pool_proj <- inception_4d/pool_proj
I0403 15:30:51.399605 12043 net.cpp:386] inception_4d/relu_pool_proj -> inception_4d/pool_proj (in-place)
I0403 15:30:51.399801 12043 net.cpp:141] Setting up inception_4d/relu_pool_proj
I0403 15:30:51.399827 12043 net.cpp:148] Top shape: 24 64 14 14 (301056)
I0403 15:30:51.399843 12043 net.cpp:156] Memory required for data: 1147309344
I0403 15:30:51.399859 12043 layer_factory.hpp:77] Creating layer inception_4d/output
I0403 15:30:51.399878 12043 net.cpp:91] Creating Layer inception_4d/output
I0403 15:30:51.399895 12043 net.cpp:425] inception_4d/output <- inception_4d/1x1
I0403 15:30:51.399914 12043 net.cpp:425] inception_4d/output <- inception_4d/3x3
I0403 15:30:51.399930 12043 net.cpp:425] inception_4d/output <- inception_4d/5x5
I0403 15:30:51.399945 12043 net.cpp:425] inception_4d/output <- inception_4d/pool_proj
I0403 15:30:51.399966 12043 net.cpp:399] inception_4d/output -> inception_4d/output
I0403 15:30:51.400017 12043 net.cpp:141] Setting up inception_4d/output
I0403 15:30:51.400043 12043 net.cpp:148] Top shape: 24 528 14 14 (2483712)
I0403 15:30:51.400058 12043 net.cpp:156] Memory required for data: 1157244192
I0403 15:30:51.400073 12043 layer_factory.hpp:77] Creating layer inception_4d/output_inception_4d/output_0_split
I0403 15:30:51.400090 12043 net.cpp:91] Creating Layer inception_4d/output_inception_4d/output_0_split
I0403 15:30:51.400106 12043 net.cpp:425] inception_4d/output_inception_4d/output_0_split <- inception_4d/output
I0403 15:30:51.400127 12043 net.cpp:399] inception_4d/output_inception_4d/output_0_split -> inception_4d/output_inception_4d/output_0_split_0
I0403 15:30:51.400151 12043 net.cpp:399] inception_4d/output_inception_4d/output_0_split -> inception_4d/output_inception_4d/output_0_split_1
I0403 15:30:51.400171 12043 net.cpp:399] inception_4d/output_inception_4d/output_0_split -> inception_4d/output_inception_4d/output_0_split_2
I0403 15:30:51.400192 12043 net.cpp:399] inception_4d/output_inception_4d/output_0_split -> inception_4d/output_inception_4d/output_0_split_3
I0403 15:30:51.400213 12043 net.cpp:399] inception_4d/output_inception_4d/output_0_split -> inception_4d/output_inception_4d/output_0_split_4
I0403 15:30:51.400317 12043 net.cpp:141] Setting up inception_4d/output_inception_4d/output_0_split
I0403 15:30:51.400357 12043 net.cpp:148] Top shape: 24 528 14 14 (2483712)
I0403 15:30:51.400374 12043 net.cpp:148] Top shape: 24 528 14 14 (2483712)
I0403 15:30:51.400390 12043 net.cpp:148] Top shape: 24 528 14 14 (2483712)
I0403 15:30:51.400406 12043 net.cpp:148] Top shape: 24 528 14 14 (2483712)
I0403 15:30:51.400427 12043 net.cpp:148] Top shape: 24 528 14 14 (2483712)
I0403 15:30:51.400441 12043 net.cpp:156] Memory required for data: 1206918432
I0403 15:30:51.400456 12043 layer_factory.hpp:77] Creating layer loss2/ave_pool
I0403 15:30:51.400475 12043 net.cpp:91] Creating Layer loss2/ave_pool
I0403 15:30:51.400491 12043 net.cpp:425] loss2/ave_pool <- inception_4d/output_inception_4d/output_0_split_0
I0403 15:30:51.400511 12043 net.cpp:399] loss2/ave_pool -> loss2/ave_pool
I0403 15:30:51.400835 12043 net.cpp:141] Setting up loss2/ave_pool
I0403 15:30:51.400863 12043 net.cpp:148] Top shape: 24 528 4 4 (202752)
I0403 15:30:51.400881 12043 net.cpp:156] Memory required for data: 1207729440
I0403 15:30:51.400895 12043 layer_factory.hpp:77] Creating layer loss2/conv
I0403 15:30:51.400918 12043 net.cpp:91] Creating Layer loss2/conv
I0403 15:30:51.400938 12043 net.cpp:425] loss2/conv <- loss2/ave_pool
I0403 15:30:51.400956 12043 net.cpp:399] loss2/conv -> loss2/conv
I0403 15:30:51.402921 12043 net.cpp:141] Setting up loss2/conv
I0403 15:30:51.402952 12043 net.cpp:148] Top shape: 24 128 4 4 (49152)
I0403 15:30:51.402969 12043 net.cpp:156] Memory required for data: 1207926048
I0403 15:30:51.402989 12043 layer_factory.hpp:77] Creating layer loss2/relu_conv
I0403 15:30:51.403014 12043 net.cpp:91] Creating Layer loss2/relu_conv
I0403 15:30:51.403034 12043 net.cpp:425] loss2/relu_conv <- loss2/conv
I0403 15:30:51.403053 12043 net.cpp:386] loss2/relu_conv -> loss2/conv (in-place)
I0403 15:30:51.403352 12043 net.cpp:141] Setting up loss2/relu_conv
I0403 15:30:51.403378 12043 net.cpp:148] Top shape: 24 128 4 4 (49152)
I0403 15:30:51.403393 12043 net.cpp:156] Memory required for data: 1208122656
I0403 15:30:51.403409 12043 layer_factory.hpp:77] Creating layer loss2/fc
I0403 15:30:51.403436 12043 net.cpp:91] Creating Layer loss2/fc
I0403 15:30:51.403455 12043 net.cpp:425] loss2/fc <- loss2/conv
I0403 15:30:51.403475 12043 net.cpp:399] loss2/fc -> loss2/fc
I0403 15:30:51.421703 12043 net.cpp:141] Setting up loss2/fc
I0403 15:30:51.421762 12043 net.cpp:148] Top shape: 24 1024 (24576)
I0403 15:30:51.421780 12043 net.cpp:156] Memory required for data: 1208220960
I0403 15:30:51.421802 12043 layer_factory.hpp:77] Creating layer loss2/relu_fc
I0403 15:30:51.421823 12043 net.cpp:91] Creating Layer loss2/relu_fc
I0403 15:30:51.421841 12043 net.cpp:425] loss2/relu_fc <- loss2/fc
I0403 15:30:51.421864 12043 net.cpp:386] loss2/relu_fc -> loss2/fc (in-place)
I0403 15:30:51.422211 12043 net.cpp:141] Setting up loss2/relu_fc
I0403 15:30:51.422240 12043 net.cpp:148] Top shape: 24 1024 (24576)
I0403 15:30:51.422255 12043 net.cpp:156] Memory required for data: 1208319264
I0403 15:30:51.422269 12043 layer_factory.hpp:77] Creating layer loss2/drop_fc
I0403 15:30:51.422289 12043 net.cpp:91] Creating Layer loss2/drop_fc
I0403 15:30:51.422305 12043 net.cpp:425] loss2/drop_fc <- loss2/fc
I0403 15:30:51.422325 12043 net.cpp:386] loss2/drop_fc -> loss2/fc (in-place)
I0403 15:30:51.422377 12043 net.cpp:141] Setting up loss2/drop_fc
I0403 15:30:51.422404 12043 net.cpp:148] Top shape: 24 1024 (24576)
I0403 15:30:51.422441 12043 net.cpp:156] Memory required for data: 1208417568
I0403 15:30:51.422458 12043 layer_factory.hpp:77] Creating layer loss2/classifier_plantvillage
I0403 15:30:51.422478 12043 net.cpp:91] Creating Layer loss2/classifier_plantvillage
I0403 15:30:51.422494 12043 net.cpp:425] loss2/classifier_plantvillage <- loss2/fc
I0403 15:30:51.422516 12043 net.cpp:399] loss2/classifier_plantvillage -> loss2/classifier_plantvillage
I0403 15:30:51.422945 12043 net.cpp:141] Setting up loss2/classifier_plantvillage
I0403 15:30:51.422971 12043 net.cpp:148] Top shape: 24 38 (912)
I0403 15:30:51.423014 12043 net.cpp:156] Memory required for data: 1208421216
I0403 15:30:51.423034 12043 layer_factory.hpp:77] Creating layer loss2/classifier_plantvillage_loss2/classifier_plantvillage_0_split
I0403 15:30:51.423056 12043 net.cpp:91] Creating Layer loss2/classifier_plantvillage_loss2/classifier_plantvillage_0_split
I0403 15:30:51.423074 12043 net.cpp:425] loss2/classifier_plantvillage_loss2/classifier_plantvillage_0_split <- loss2/classifier_plantvillage
I0403 15:30:51.423091 12043 net.cpp:399] loss2/classifier_plantvillage_loss2/classifier_plantvillage_0_split -> loss2/classifier_plantvillage_loss2/classifier_plantvillage_0_split_0
I0403 15:30:51.423111 12043 net.cpp:399] loss2/classifier_plantvillage_loss2/classifier_plantvillage_0_split -> loss2/classifier_plantvillage_loss2/classifier_plantvillage_0_split_1
I0403 15:30:51.423135 12043 net.cpp:399] loss2/classifier_plantvillage_loss2/classifier_plantvillage_0_split -> loss2/classifier_plantvillage_loss2/classifier_plantvillage_0_split_2
I0403 15:30:51.423215 12043 net.cpp:141] Setting up loss2/classifier_plantvillage_loss2/classifier_plantvillage_0_split
I0403 15:30:51.423240 12043 net.cpp:148] Top shape: 24 38 (912)
I0403 15:30:51.423256 12043 net.cpp:148] Top shape: 24 38 (912)
I0403 15:30:51.423272 12043 net.cpp:148] Top shape: 24 38 (912)
I0403 15:30:51.423286 12043 net.cpp:156] Memory required for data: 1208432160
I0403 15:30:51.423301 12043 layer_factory.hpp:77] Creating layer inception_4e/1x1
I0403 15:30:51.423326 12043 net.cpp:91] Creating Layer inception_4e/1x1
I0403 15:30:51.423346 12043 net.cpp:425] inception_4e/1x1 <- inception_4d/output_inception_4d/output_0_split_1
I0403 15:30:51.423365 12043 net.cpp:399] inception_4e/1x1 -> inception_4e/1x1
I0403 15:30:51.425295 12043 net.cpp:141] Setting up inception_4e/1x1
I0403 15:30:51.425326 12043 net.cpp:148] Top shape: 24 256 14 14 (1204224)
I0403 15:30:51.425343 12043 net.cpp:156] Memory required for data: 1213249056
I0403 15:30:51.425364 12043 layer_factory.hpp:77] Creating layer inception_4e/relu_1x1
I0403 15:30:51.425386 12043 net.cpp:91] Creating Layer inception_4e/relu_1x1
I0403 15:30:51.425405 12043 net.cpp:425] inception_4e/relu_1x1 <- inception_4e/1x1
I0403 15:30:51.425441 12043 net.cpp:386] inception_4e/relu_1x1 -> inception_4e/1x1 (in-place)
I0403 15:30:51.425757 12043 net.cpp:141] Setting up inception_4e/relu_1x1
I0403 15:30:51.425786 12043 net.cpp:148] Top shape: 24 256 14 14 (1204224)
I0403 15:30:51.425801 12043 net.cpp:156] Memory required for data: 1218065952
I0403 15:30:51.425817 12043 layer_factory.hpp:77] Creating layer inception_4e/3x3_reduce
I0403 15:30:51.425842 12043 net.cpp:91] Creating Layer inception_4e/3x3_reduce
I0403 15:30:51.425859 12043 net.cpp:425] inception_4e/3x3_reduce <- inception_4d/output_inception_4d/output_0_split_2
I0403 15:30:51.425882 12043 net.cpp:399] inception_4e/3x3_reduce -> inception_4e/3x3_reduce
I0403 15:30:51.428103 12043 net.cpp:141] Setting up inception_4e/3x3_reduce
I0403 15:30:51.428136 12043 net.cpp:148] Top shape: 24 160 14 14 (752640)
I0403 15:30:51.428153 12043 net.cpp:156] Memory required for data: 1221076512
I0403 15:30:51.428171 12043 layer_factory.hpp:77] Creating layer inception_4e/relu_3x3_reduce
I0403 15:30:51.428194 12043 net.cpp:91] Creating Layer inception_4e/relu_3x3_reduce
I0403 15:30:51.428213 12043 net.cpp:425] inception_4e/relu_3x3_reduce <- inception_4e/3x3_reduce
I0403 15:30:51.428232 12043 net.cpp:386] inception_4e/relu_3x3_reduce -> inception_4e/3x3_reduce (in-place)
I0403 15:30:51.428432 12043 net.cpp:141] Setting up inception_4e/relu_3x3_reduce
I0403 15:30:51.428462 12043 net.cpp:148] Top shape: 24 160 14 14 (752640)
I0403 15:30:51.428480 12043 net.cpp:156] Memory required for data: 1224087072
I0403 15:30:51.428496 12043 layer_factory.hpp:77] Creating layer inception_4e/3x3
I0403 15:30:51.428517 12043 net.cpp:91] Creating Layer inception_4e/3x3
I0403 15:30:51.428536 12043 net.cpp:425] inception_4e/3x3 <- inception_4e/3x3_reduce
I0403 15:30:51.428560 12043 net.cpp:399] inception_4e/3x3 -> inception_4e/3x3
I0403 15:30:51.433766 12043 net.cpp:141] Setting up inception_4e/3x3
I0403 15:30:51.433817 12043 net.cpp:148] Top shape: 24 320 14 14 (1505280)
I0403 15:30:51.433837 12043 net.cpp:156] Memory required for data: 1230108192
I0403 15:30:51.433857 12043 layer_factory.hpp:77] Creating layer inception_4e/relu_3x3
I0403 15:30:51.433876 12043 net.cpp:91] Creating Layer inception_4e/relu_3x3
I0403 15:30:51.433894 12043 net.cpp:425] inception_4e/relu_3x3 <- inception_4e/3x3
I0403 15:30:51.433912 12043 net.cpp:386] inception_4e/relu_3x3 -> inception_4e/3x3 (in-place)
I0403 15:30:51.434226 12043 net.cpp:141] Setting up inception_4e/relu_3x3
I0403 15:30:51.434257 12043 net.cpp:148] Top shape: 24 320 14 14 (1505280)
I0403 15:30:51.434276 12043 net.cpp:156] Memory required for data: 1236129312
I0403 15:30:51.434293 12043 layer_factory.hpp:77] Creating layer inception_4e/5x5_reduce
I0403 15:30:51.434316 12043 net.cpp:91] Creating Layer inception_4e/5x5_reduce
I0403 15:30:51.434336 12043 net.cpp:425] inception_4e/5x5_reduce <- inception_4d/output_inception_4d/output_0_split_3
I0403 15:30:51.434360 12043 net.cpp:399] inception_4e/5x5_reduce -> inception_4e/5x5_reduce
I0403 15:30:51.435485 12043 net.cpp:141] Setting up inception_4e/5x5_reduce
I0403 15:30:51.435513 12043 net.cpp:148] Top shape: 24 32 14 14 (150528)
I0403 15:30:51.435529 12043 net.cpp:156] Memory required for data: 1236731424
I0403 15:30:51.435547 12043 layer_factory.hpp:77] Creating layer inception_4e/relu_5x5_reduce
I0403 15:30:51.435566 12043 net.cpp:91] Creating Layer inception_4e/relu_5x5_reduce
I0403 15:30:51.435585 12043 net.cpp:425] inception_4e/relu_5x5_reduce <- inception_4e/5x5_reduce
I0403 15:30:51.435601 12043 net.cpp:386] inception_4e/relu_5x5_reduce -> inception_4e/5x5_reduce (in-place)
I0403 15:30:51.435922 12043 net.cpp:141] Setting up inception_4e/relu_5x5_reduce
I0403 15:30:51.435950 12043 net.cpp:148] Top shape: 24 32 14 14 (150528)
I0403 15:30:51.435964 12043 net.cpp:156] Memory required for data: 1237333536
I0403 15:30:51.435979 12043 layer_factory.hpp:77] Creating layer inception_4e/5x5
I0403 15:30:51.436022 12043 net.cpp:91] Creating Layer inception_4e/5x5
I0403 15:30:51.436041 12043 net.cpp:425] inception_4e/5x5 <- inception_4e/5x5_reduce
I0403 15:30:51.436060 12043 net.cpp:399] inception_4e/5x5 -> inception_4e/5x5
I0403 15:30:51.437950 12043 net.cpp:141] Setting up inception_4e/5x5
I0403 15:30:51.437979 12043 net.cpp:148] Top shape: 24 128 14 14 (602112)
I0403 15:30:51.437995 12043 net.cpp:156] Memory required for data: 1239741984
I0403 15:30:51.438014 12043 layer_factory.hpp:77] Creating layer inception_4e/relu_5x5
I0403 15:30:51.438032 12043 net.cpp:91] Creating Layer inception_4e/relu_5x5
I0403 15:30:51.438048 12043 net.cpp:425] inception_4e/relu_5x5 <- inception_4e/5x5
I0403 15:30:51.438068 12043 net.cpp:386] inception_4e/relu_5x5 -> inception_4e/5x5 (in-place)
I0403 15:30:51.438271 12043 net.cpp:141] Setting up inception_4e/relu_5x5
I0403 15:30:51.438295 12043 net.cpp:148] Top shape: 24 128 14 14 (602112)
I0403 15:30:51.438310 12043 net.cpp:156] Memory required for data: 1242150432
I0403 15:30:51.438324 12043 layer_factory.hpp:77] Creating layer inception_4e/pool
I0403 15:30:51.438345 12043 net.cpp:91] Creating Layer inception_4e/pool
I0403 15:30:51.438364 12043 net.cpp:425] inception_4e/pool <- inception_4d/output_inception_4d/output_0_split_4
I0403 15:30:51.438381 12043 net.cpp:399] inception_4e/pool -> inception_4e/pool
I0403 15:30:51.438459 12043 net.cpp:141] Setting up inception_4e/pool
I0403 15:30:51.438483 12043 net.cpp:148] Top shape: 24 528 14 14 (2483712)
I0403 15:30:51.438498 12043 net.cpp:156] Memory required for data: 1252085280
I0403 15:30:51.438513 12043 layer_factory.hpp:77] Creating layer inception_4e/pool_proj
I0403 15:30:51.438535 12043 net.cpp:91] Creating Layer inception_4e/pool_proj
I0403 15:30:51.438554 12043 net.cpp:425] inception_4e/pool_proj <- inception_4e/pool
I0403 15:30:51.438575 12043 net.cpp:399] inception_4e/pool_proj -> inception_4e/pool_proj
I0403 15:30:51.440095 12043 net.cpp:141] Setting up inception_4e/pool_proj
I0403 15:30:51.440137 12043 net.cpp:148] Top shape: 24 128 14 14 (602112)
I0403 15:30:51.440155 12043 net.cpp:156] Memory required for data: 1254493728
I0403 15:30:51.440174 12043 layer_factory.hpp:77] Creating layer inception_4e/relu_pool_proj
I0403 15:30:51.440192 12043 net.cpp:91] Creating Layer inception_4e/relu_pool_proj
I0403 15:30:51.440209 12043 net.cpp:425] inception_4e/relu_pool_proj <- inception_4e/pool_proj
I0403 15:30:51.440228 12043 net.cpp:386] inception_4e/relu_pool_proj -> inception_4e/pool_proj (in-place)
I0403 15:30:51.440539 12043 net.cpp:141] Setting up inception_4e/relu_pool_proj
I0403 15:30:51.440567 12043 net.cpp:148] Top shape: 24 128 14 14 (602112)
I0403 15:30:51.440584 12043 net.cpp:156] Memory required for data: 1256902176
I0403 15:30:51.440599 12043 layer_factory.hpp:77] Creating layer inception_4e/output
I0403 15:30:51.440618 12043 net.cpp:91] Creating Layer inception_4e/output
I0403 15:30:51.440632 12043 net.cpp:425] inception_4e/output <- inception_4e/1x1
I0403 15:30:51.440649 12043 net.cpp:425] inception_4e/output <- inception_4e/3x3
I0403 15:30:51.440665 12043 net.cpp:425] inception_4e/output <- inception_4e/5x5
I0403 15:30:51.440680 12043 net.cpp:425] inception_4e/output <- inception_4e/pool_proj
I0403 15:30:51.440701 12043 net.cpp:399] inception_4e/output -> inception_4e/output
I0403 15:30:51.440750 12043 net.cpp:141] Setting up inception_4e/output
I0403 15:30:51.440774 12043 net.cpp:148] Top shape: 24 832 14 14 (3913728)
I0403 15:30:51.440803 12043 net.cpp:156] Memory required for data: 1272557088
I0403 15:30:51.440820 12043 layer_factory.hpp:77] Creating layer pool4/3x3_s2
I0403 15:30:51.440841 12043 net.cpp:91] Creating Layer pool4/3x3_s2
I0403 15:30:51.440858 12043 net.cpp:425] pool4/3x3_s2 <- inception_4e/output
I0403 15:30:51.440877 12043 net.cpp:399] pool4/3x3_s2 -> pool4/3x3_s2
I0403 15:30:51.440948 12043 net.cpp:141] Setting up pool4/3x3_s2
I0403 15:30:51.440973 12043 net.cpp:148] Top shape: 24 832 7 7 (978432)
I0403 15:30:51.440987 12043 net.cpp:156] Memory required for data: 1276470816
I0403 15:30:51.441004 12043 layer_factory.hpp:77] Creating layer pool4/3x3_s2_pool4/3x3_s2_0_split
I0403 15:30:51.441020 12043 net.cpp:91] Creating Layer pool4/3x3_s2_pool4/3x3_s2_0_split
I0403 15:30:51.441040 12043 net.cpp:425] pool4/3x3_s2_pool4/3x3_s2_0_split <- pool4/3x3_s2
I0403 15:30:51.441058 12043 net.cpp:399] pool4/3x3_s2_pool4/3x3_s2_0_split -> pool4/3x3_s2_pool4/3x3_s2_0_split_0
I0403 15:30:51.441078 12043 net.cpp:399] pool4/3x3_s2_pool4/3x3_s2_0_split -> pool4/3x3_s2_pool4/3x3_s2_0_split_1
I0403 15:30:51.441120 12043 net.cpp:399] pool4/3x3_s2_pool4/3x3_s2_0_split -> pool4/3x3_s2_pool4/3x3_s2_0_split_2
I0403 15:30:51.441139 12043 net.cpp:399] pool4/3x3_s2_pool4/3x3_s2_0_split -> pool4/3x3_s2_pool4/3x3_s2_0_split_3
I0403 15:30:51.441231 12043 net.cpp:141] Setting up pool4/3x3_s2_pool4/3x3_s2_0_split
I0403 15:30:51.441254 12043 net.cpp:148] Top shape: 24 832 7 7 (978432)
I0403 15:30:51.441270 12043 net.cpp:148] Top shape: 24 832 7 7 (978432)
I0403 15:30:51.441285 12043 net.cpp:148] Top shape: 24 832 7 7 (978432)
I0403 15:30:51.441300 12043 net.cpp:148] Top shape: 24 832 7 7 (978432)
I0403 15:30:51.441323 12043 net.cpp:156] Memory required for data: 1292125728
I0403 15:30:51.441339 12043 layer_factory.hpp:77] Creating layer inception_5a/1x1
I0403 15:30:51.441362 12043 net.cpp:91] Creating Layer inception_5a/1x1
I0403 15:30:51.441380 12043 net.cpp:425] inception_5a/1x1 <- pool4/3x3_s2_pool4/3x3_s2_0_split_0
I0403 15:30:51.441402 12043 net.cpp:399] inception_5a/1x1 -> inception_5a/1x1
I0403 15:30:51.444294 12043 net.cpp:141] Setting up inception_5a/1x1
I0403 15:30:51.444325 12043 net.cpp:148] Top shape: 24 256 7 7 (301056)
I0403 15:30:51.444341 12043 net.cpp:156] Memory required for data: 1293329952
I0403 15:30:51.444362 12043 layer_factory.hpp:77] Creating layer inception_5a/relu_1x1
I0403 15:30:51.444382 12043 net.cpp:91] Creating Layer inception_5a/relu_1x1
I0403 15:30:51.444398 12043 net.cpp:425] inception_5a/relu_1x1 <- inception_5a/1x1
I0403 15:30:51.444422 12043 net.cpp:386] inception_5a/relu_1x1 -> inception_5a/1x1 (in-place)
I0403 15:30:51.444741 12043 net.cpp:141] Setting up inception_5a/relu_1x1
I0403 15:30:51.444769 12043 net.cpp:148] Top shape: 24 256 7 7 (301056)
I0403 15:30:51.444785 12043 net.cpp:156] Memory required for data: 1294534176
I0403 15:30:51.444800 12043 layer_factory.hpp:77] Creating layer inception_5a/3x3_reduce
I0403 15:30:51.444823 12043 net.cpp:91] Creating Layer inception_5a/3x3_reduce
I0403 15:30:51.444842 12043 net.cpp:425] inception_5a/3x3_reduce <- pool4/3x3_s2_pool4/3x3_s2_0_split_1
I0403 15:30:51.444865 12043 net.cpp:399] inception_5a/3x3_reduce -> inception_5a/3x3_reduce
I0403 15:30:51.447337 12043 net.cpp:141] Setting up inception_5a/3x3_reduce
I0403 15:30:51.447374 12043 net.cpp:148] Top shape: 24 160 7 7 (188160)
I0403 15:30:51.447394 12043 net.cpp:156] Memory required for data: 1295286816
I0403 15:30:51.447417 12043 layer_factory.hpp:77] Creating layer inception_5a/relu_3x3_reduce
I0403 15:30:51.447438 12043 net.cpp:91] Creating Layer inception_5a/relu_3x3_reduce
I0403 15:30:51.447455 12043 net.cpp:425] inception_5a/relu_3x3_reduce <- inception_5a/3x3_reduce
I0403 15:30:51.447474 12043 net.cpp:386] inception_5a/relu_3x3_reduce -> inception_5a/3x3_reduce (in-place)
I0403 15:30:51.447669 12043 net.cpp:141] Setting up inception_5a/relu_3x3_reduce
I0403 15:30:51.447693 12043 net.cpp:148] Top shape: 24 160 7 7 (188160)
I0403 15:30:51.447708 12043 net.cpp:156] Memory required for data: 1296039456
I0403 15:30:51.447723 12043 layer_factory.hpp:77] Creating layer inception_5a/3x3
I0403 15:30:51.447746 12043 net.cpp:91] Creating Layer inception_5a/3x3
I0403 15:30:51.447763 12043 net.cpp:425] inception_5a/3x3 <- inception_5a/3x3_reduce
I0403 15:30:51.447784 12043 net.cpp:399] inception_5a/3x3 -> inception_5a/3x3
I0403 15:30:51.452850 12043 net.cpp:141] Setting up inception_5a/3x3
I0403 15:30:51.452882 12043 net.cpp:148] Top shape: 24 320 7 7 (376320)
I0403 15:30:51.452898 12043 net.cpp:156] Memory required for data: 1297544736
I0403 15:30:51.452915 12043 layer_factory.hpp:77] Creating layer inception_5a/relu_3x3
I0403 15:30:51.452937 12043 net.cpp:91] Creating Layer inception_5a/relu_3x3
I0403 15:30:51.452955 12043 net.cpp:425] inception_5a/relu_3x3 <- inception_5a/3x3
I0403 15:30:51.452972 12043 net.cpp:386] inception_5a/relu_3x3 -> inception_5a/3x3 (in-place)
I0403 15:30:51.453268 12043 net.cpp:141] Setting up inception_5a/relu_3x3
I0403 15:30:51.453294 12043 net.cpp:148] Top shape: 24 320 7 7 (376320)
I0403 15:30:51.453307 12043 net.cpp:156] Memory required for data: 1299050016
I0403 15:30:51.453322 12043 layer_factory.hpp:77] Creating layer inception_5a/5x5_reduce
I0403 15:30:51.453346 12043 net.cpp:91] Creating Layer inception_5a/5x5_reduce
I0403 15:30:51.453366 12043 net.cpp:425] inception_5a/5x5_reduce <- pool4/3x3_s2_pool4/3x3_s2_0_split_2
I0403 15:30:51.453387 12043 net.cpp:399] inception_5a/5x5_reduce -> inception_5a/5x5_reduce
I0403 15:30:51.454576 12043 net.cpp:141] Setting up inception_5a/5x5_reduce
I0403 15:30:51.454605 12043 net.cpp:148] Top shape: 24 32 7 7 (37632)
I0403 15:30:51.454622 12043 net.cpp:156] Memory required for data: 1299200544
I0403 15:30:51.454641 12043 layer_factory.hpp:77] Creating layer inception_5a/relu_5x5_reduce
I0403 15:30:51.454663 12043 net.cpp:91] Creating Layer inception_5a/relu_5x5_reduce
I0403 15:30:51.454681 12043 net.cpp:425] inception_5a/relu_5x5_reduce <- inception_5a/5x5_reduce
I0403 15:30:51.454699 12043 net.cpp:386] inception_5a/relu_5x5_reduce -> inception_5a/5x5_reduce (in-place)
I0403 15:30:51.455013 12043 net.cpp:141] Setting up inception_5a/relu_5x5_reduce
I0403 15:30:51.455040 12043 net.cpp:148] Top shape: 24 32 7 7 (37632)
I0403 15:30:51.455055 12043 net.cpp:156] Memory required for data: 1299351072
I0403 15:30:51.455071 12043 layer_factory.hpp:77] Creating layer inception_5a/5x5
I0403 15:30:51.455093 12043 net.cpp:91] Creating Layer inception_5a/5x5
I0403 15:30:51.455111 12043 net.cpp:425] inception_5a/5x5 <- inception_5a/5x5_reduce
I0403 15:30:51.455132 12043 net.cpp:399] inception_5a/5x5 -> inception_5a/5x5
I0403 15:30:51.456886 12043 net.cpp:141] Setting up inception_5a/5x5
I0403 15:30:51.456925 12043 net.cpp:148] Top shape: 24 128 7 7 (150528)
I0403 15:30:51.456943 12043 net.cpp:156] Memory required for data: 1299953184
I0403 15:30:51.456961 12043 layer_factory.hpp:77] Creating layer inception_5a/relu_5x5
I0403 15:30:51.456982 12043 net.cpp:91] Creating Layer inception_5a/relu_5x5
I0403 15:30:51.457000 12043 net.cpp:425] inception_5a/relu_5x5 <- inception_5a/5x5
I0403 15:30:51.457018 12043 net.cpp:386] inception_5a/relu_5x5 -> inception_5a/5x5 (in-place)
I0403 15:30:51.457214 12043 net.cpp:141] Setting up inception_5a/relu_5x5
I0403 15:30:51.457239 12043 net.cpp:148] Top shape: 24 128 7 7 (150528)
I0403 15:30:51.457253 12043 net.cpp:156] Memory required for data: 1300555296
I0403 15:30:51.457268 12043 layer_factory.hpp:77] Creating layer inception_5a/pool
I0403 15:30:51.457288 12043 net.cpp:91] Creating Layer inception_5a/pool
I0403 15:30:51.457305 12043 net.cpp:425] inception_5a/pool <- pool4/3x3_s2_pool4/3x3_s2_0_split_3
I0403 15:30:51.457324 12043 net.cpp:399] inception_5a/pool -> inception_5a/pool
I0403 15:30:51.457396 12043 net.cpp:141] Setting up inception_5a/pool
I0403 15:30:51.457423 12043 net.cpp:148] Top shape: 24 832 7 7 (978432)
I0403 15:30:51.457438 12043 net.cpp:156] Memory required for data: 1304469024
I0403 15:30:51.457454 12043 layer_factory.hpp:77] Creating layer inception_5a/pool_proj
I0403 15:30:51.457475 12043 net.cpp:91] Creating Layer inception_5a/pool_proj
I0403 15:30:51.457494 12043 net.cpp:425] inception_5a/pool_proj <- inception_5a/pool
I0403 15:30:51.457515 12043 net.cpp:399] inception_5a/pool_proj -> inception_5a/pool_proj
I0403 15:30:51.459851 12043 net.cpp:141] Setting up inception_5a/pool_proj
I0403 15:30:51.459882 12043 net.cpp:148] Top shape: 24 128 7 7 (150528)
I0403 15:30:51.459899 12043 net.cpp:156] Memory required for data: 1305071136
I0403 15:30:51.459919 12043 layer_factory.hpp:77] Creating layer inception_5a/relu_pool_proj
I0403 15:30:51.459938 12043 net.cpp:91] Creating Layer inception_5a/relu_pool_proj
I0403 15:30:51.459954 12043 net.cpp:425] inception_5a/relu_pool_proj <- inception_5a/pool_proj
I0403 15:30:51.459974 12043 net.cpp:386] inception_5a/relu_pool_proj -> inception_5a/pool_proj (in-place)
I0403 15:30:51.460273 12043 net.cpp:141] Setting up inception_5a/relu_pool_proj
I0403 15:30:51.460301 12043 net.cpp:148] Top shape: 24 128 7 7 (150528)
I0403 15:30:51.460317 12043 net.cpp:156] Memory required for data: 1305673248
I0403 15:30:51.460332 12043 layer_factory.hpp:77] Creating layer inception_5a/output
I0403 15:30:51.460350 12043 net.cpp:91] Creating Layer inception_5a/output
I0403 15:30:51.460366 12043 net.cpp:425] inception_5a/output <- inception_5a/1x1
I0403 15:30:51.460381 12043 net.cpp:425] inception_5a/output <- inception_5a/3x3
I0403 15:30:51.460398 12043 net.cpp:425] inception_5a/output <- inception_5a/5x5
I0403 15:30:51.460418 12043 net.cpp:425] inception_5a/output <- inception_5a/pool_proj
I0403 15:30:51.460443 12043 net.cpp:399] inception_5a/output -> inception_5a/output
I0403 15:30:51.460494 12043 net.cpp:141] Setting up inception_5a/output
I0403 15:30:51.460520 12043 net.cpp:148] Top shape: 24 832 7 7 (978432)
I0403 15:30:51.460536 12043 net.cpp:156] Memory required for data: 1309586976
I0403 15:30:51.460551 12043 layer_factory.hpp:77] Creating layer inception_5a/output_inception_5a/output_0_split
I0403 15:30:51.460567 12043 net.cpp:91] Creating Layer inception_5a/output_inception_5a/output_0_split
I0403 15:30:51.460582 12043 net.cpp:425] inception_5a/output_inception_5a/output_0_split <- inception_5a/output
I0403 15:30:51.460599 12043 net.cpp:399] inception_5a/output_inception_5a/output_0_split -> inception_5a/output_inception_5a/output_0_split_0
I0403 15:30:51.460620 12043 net.cpp:399] inception_5a/output_inception_5a/output_0_split -> inception_5a/output_inception_5a/output_0_split_1
I0403 15:30:51.460639 12043 net.cpp:399] inception_5a/output_inception_5a/output_0_split -> inception_5a/output_inception_5a/output_0_split_2
I0403 15:30:51.460662 12043 net.cpp:399] inception_5a/output_inception_5a/output_0_split -> inception_5a/output_inception_5a/output_0_split_3
I0403 15:30:51.460777 12043 net.cpp:141] Setting up inception_5a/output_inception_5a/output_0_split
I0403 15:30:51.460801 12043 net.cpp:148] Top shape: 24 832 7 7 (978432)
I0403 15:30:51.460819 12043 net.cpp:148] Top shape: 24 832 7 7 (978432)
I0403 15:30:51.460834 12043 net.cpp:148] Top shape: 24 832 7 7 (978432)
I0403 15:30:51.460850 12043 net.cpp:148] Top shape: 24 832 7 7 (978432)
I0403 15:30:51.460863 12043 net.cpp:156] Memory required for data: 1325241888
I0403 15:30:51.460877 12043 layer_factory.hpp:77] Creating layer inception_5b/1x1
I0403 15:30:51.460899 12043 net.cpp:91] Creating Layer inception_5b/1x1
I0403 15:30:51.460917 12043 net.cpp:425] inception_5b/1x1 <- inception_5a/output_inception_5a/output_0_split_0
I0403 15:30:51.460938 12043 net.cpp:399] inception_5b/1x1 -> inception_5b/1x1
I0403 15:30:51.464735 12043 net.cpp:141] Setting up inception_5b/1x1
I0403 15:30:51.464771 12043 net.cpp:148] Top shape: 24 384 7 7 (451584)
I0403 15:30:51.464790 12043 net.cpp:156] Memory required for data: 1327048224
I0403 15:30:51.464809 12043 layer_factory.hpp:77] Creating layer inception_5b/relu_1x1
I0403 15:30:51.464828 12043 net.cpp:91] Creating Layer inception_5b/relu_1x1
I0403 15:30:51.464843 12043 net.cpp:425] inception_5b/relu_1x1 <- inception_5b/1x1
I0403 15:30:51.464862 12043 net.cpp:386] inception_5b/relu_1x1 -> inception_5b/1x1 (in-place)
I0403 15:30:51.465173 12043 net.cpp:141] Setting up inception_5b/relu_1x1
I0403 15:30:51.465200 12043 net.cpp:148] Top shape: 24 384 7 7 (451584)
I0403 15:30:51.465217 12043 net.cpp:156] Memory required for data: 1328854560
I0403 15:30:51.465231 12043 layer_factory.hpp:77] Creating layer inception_5b/3x3_reduce
I0403 15:30:51.465255 12043 net.cpp:91] Creating Layer inception_5b/3x3_reduce
I0403 15:30:51.465272 12043 net.cpp:425] inception_5b/3x3_reduce <- inception_5a/output_inception_5a/output_0_split_1
I0403 15:30:51.465291 12043 net.cpp:399] inception_5b/3x3_reduce -> inception_5b/3x3_reduce
I0403 15:30:51.467983 12043 net.cpp:141] Setting up inception_5b/3x3_reduce
I0403 15:30:51.468015 12043 net.cpp:148] Top shape: 24 192 7 7 (225792)
I0403 15:30:51.468034 12043 net.cpp:156] Memory required for data: 1329757728
I0403 15:30:51.468052 12043 layer_factory.hpp:77] Creating layer inception_5b/relu_3x3_reduce
I0403 15:30:51.468070 12043 net.cpp:91] Creating Layer inception_5b/relu_3x3_reduce
I0403 15:30:51.468087 12043 net.cpp:425] inception_5b/relu_3x3_reduce <- inception_5b/3x3_reduce
I0403 15:30:51.468108 12043 net.cpp:386] inception_5b/relu_3x3_reduce -> inception_5b/3x3_reduce (in-place)
I0403 15:30:51.468304 12043 net.cpp:141] Setting up inception_5b/relu_3x3_reduce
I0403 15:30:51.468332 12043 net.cpp:148] Top shape: 24 192 7 7 (225792)
I0403 15:30:51.468348 12043 net.cpp:156] Memory required for data: 1330660896
I0403 15:30:51.468364 12043 layer_factory.hpp:77] Creating layer inception_5b/3x3
I0403 15:30:51.468386 12043 net.cpp:91] Creating Layer inception_5b/3x3
I0403 15:30:51.468405 12043 net.cpp:425] inception_5b/3x3 <- inception_5b/3x3_reduce
I0403 15:30:51.468435 12043 net.cpp:399] inception_5b/3x3 -> inception_5b/3x3
I0403 15:30:51.475181 12043 net.cpp:141] Setting up inception_5b/3x3
I0403 15:30:51.475213 12043 net.cpp:148] Top shape: 24 384 7 7 (451584)
I0403 15:30:51.475229 12043 net.cpp:156] Memory required for data: 1332467232
I0403 15:30:51.475247 12043 layer_factory.hpp:77] Creating layer inception_5b/relu_3x3
I0403 15:30:51.475265 12043 net.cpp:91] Creating Layer inception_5b/relu_3x3
I0403 15:30:51.475281 12043 net.cpp:425] inception_5b/relu_3x3 <- inception_5b/3x3
I0403 15:30:51.475301 12043 net.cpp:386] inception_5b/relu_3x3 -> inception_5b/3x3 (in-place)
I0403 15:30:51.475607 12043 net.cpp:141] Setting up inception_5b/relu_3x3
I0403 15:30:51.475635 12043 net.cpp:148] Top shape: 24 384 7 7 (451584)
I0403 15:30:51.475649 12043 net.cpp:156] Memory required for data: 1334273568
I0403 15:30:51.475664 12043 layer_factory.hpp:77] Creating layer inception_5b/5x5_reduce
I0403 15:30:51.475703 12043 net.cpp:91] Creating Layer inception_5b/5x5_reduce
I0403 15:30:51.475721 12043 net.cpp:425] inception_5b/5x5_reduce <- inception_5a/output_inception_5a/output_0_split_2
I0403 15:30:51.475744 12043 net.cpp:399] inception_5b/5x5_reduce -> inception_5b/5x5_reduce
I0403 15:30:51.477026 12043 net.cpp:141] Setting up inception_5b/5x5_reduce
I0403 15:30:51.477057 12043 net.cpp:148] Top shape: 24 48 7 7 (56448)
I0403 15:30:51.477075 12043 net.cpp:156] Memory required for data: 1334499360
I0403 15:30:51.477093 12043 layer_factory.hpp:77] Creating layer inception_5b/relu_5x5_reduce
I0403 15:30:51.477113 12043 net.cpp:91] Creating Layer inception_5b/relu_5x5_reduce
I0403 15:30:51.477130 12043 net.cpp:425] inception_5b/relu_5x5_reduce <- inception_5b/5x5_reduce
I0403 15:30:51.477152 12043 net.cpp:386] inception_5b/relu_5x5_reduce -> inception_5b/5x5_reduce (in-place)
I0403 15:30:51.477546 12043 net.cpp:141] Setting up inception_5b/relu_5x5_reduce
I0403 15:30:51.477573 12043 net.cpp:148] Top shape: 24 48 7 7 (56448)
I0403 15:30:51.477588 12043 net.cpp:156] Memory required for data: 1334725152
I0403 15:30:51.477603 12043 layer_factory.hpp:77] Creating layer inception_5b/5x5
I0403 15:30:51.477624 12043 net.cpp:91] Creating Layer inception_5b/5x5
I0403 15:30:51.477641 12043 net.cpp:425] inception_5b/5x5 <- inception_5b/5x5_reduce
I0403 15:30:51.477659 12043 net.cpp:399] inception_5b/5x5 -> inception_5b/5x5
I0403 15:30:51.479727 12043 net.cpp:141] Setting up inception_5b/5x5
I0403 15:30:51.479756 12043 net.cpp:148] Top shape: 24 128 7 7 (150528)
I0403 15:30:51.479774 12043 net.cpp:156] Memory required for data: 1335327264
I0403 15:30:51.479794 12043 layer_factory.hpp:77] Creating layer inception_5b/relu_5x5
I0403 15:30:51.479810 12043 net.cpp:91] Creating Layer inception_5b/relu_5x5
I0403 15:30:51.479826 12043 net.cpp:425] inception_5b/relu_5x5 <- inception_5b/5x5
I0403 15:30:51.479847 12043 net.cpp:386] inception_5b/relu_5x5 -> inception_5b/5x5 (in-place)
I0403 15:30:51.480049 12043 net.cpp:141] Setting up inception_5b/relu_5x5
I0403 15:30:51.480075 12043 net.cpp:148] Top shape: 24 128 7 7 (150528)
I0403 15:30:51.480090 12043 net.cpp:156] Memory required for data: 1335929376
I0403 15:30:51.480105 12043 layer_factory.hpp:77] Creating layer inception_5b/pool
I0403 15:30:51.480125 12043 net.cpp:91] Creating Layer inception_5b/pool
I0403 15:30:51.480142 12043 net.cpp:425] inception_5b/pool <- inception_5a/output_inception_5a/output_0_split_3
I0403 15:30:51.480160 12043 net.cpp:399] inception_5b/pool -> inception_5b/pool
I0403 15:30:51.480233 12043 net.cpp:141] Setting up inception_5b/pool
I0403 15:30:51.480258 12043 net.cpp:148] Top shape: 24 832 7 7 (978432)
I0403 15:30:51.480273 12043 net.cpp:156] Memory required for data: 1339843104
I0403 15:30:51.480288 12043 layer_factory.hpp:77] Creating layer inception_5b/pool_proj
I0403 15:30:51.480309 12043 net.cpp:91] Creating Layer inception_5b/pool_proj
I0403 15:30:51.480326 12043 net.cpp:425] inception_5b/pool_proj <- inception_5b/pool
I0403 15:30:51.480347 12043 net.cpp:399] inception_5b/pool_proj -> inception_5b/pool_proj
I0403 15:30:51.482728 12043 net.cpp:141] Setting up inception_5b/pool_proj
I0403 15:30:51.482760 12043 net.cpp:148] Top shape: 24 128 7 7 (150528)
I0403 15:30:51.482779 12043 net.cpp:156] Memory required for data: 1340445216
I0403 15:30:51.482797 12043 layer_factory.hpp:77] Creating layer inception_5b/relu_pool_proj
I0403 15:30:51.482817 12043 net.cpp:91] Creating Layer inception_5b/relu_pool_proj
I0403 15:30:51.482834 12043 net.cpp:425] inception_5b/relu_pool_proj <- inception_5b/pool_proj
I0403 15:30:51.482856 12043 net.cpp:386] inception_5b/relu_pool_proj -> inception_5b/pool_proj (in-place)
I0403 15:30:51.483173 12043 net.cpp:141] Setting up inception_5b/relu_pool_proj
I0403 15:30:51.483202 12043 net.cpp:148] Top shape: 24 128 7 7 (150528)
I0403 15:30:51.483218 12043 net.cpp:156] Memory required for data: 1341047328
I0403 15:30:51.483234 12043 layer_factory.hpp:77] Creating layer inception_5b/output
I0403 15:30:51.483253 12043 net.cpp:91] Creating Layer inception_5b/output
I0403 15:30:51.483289 12043 net.cpp:425] inception_5b/output <- inception_5b/1x1
I0403 15:30:51.483310 12043 net.cpp:425] inception_5b/output <- inception_5b/3x3
I0403 15:30:51.483327 12043 net.cpp:425] inception_5b/output <- inception_5b/5x5
I0403 15:30:51.483343 12043 net.cpp:425] inception_5b/output <- inception_5b/pool_proj
I0403 15:30:51.483366 12043 net.cpp:399] inception_5b/output -> inception_5b/output
I0403 15:30:51.483427 12043 net.cpp:141] Setting up inception_5b/output
I0403 15:30:51.483453 12043 net.cpp:148] Top shape: 24 1024 7 7 (1204224)
I0403 15:30:51.483470 12043 net.cpp:156] Memory required for data: 1345864224
I0403 15:30:51.483486 12043 layer_factory.hpp:77] Creating layer pool5/7x7_s1
I0403 15:30:51.483507 12043 net.cpp:91] Creating Layer pool5/7x7_s1
I0403 15:30:51.483525 12043 net.cpp:425] pool5/7x7_s1 <- inception_5b/output
I0403 15:30:51.483547 12043 net.cpp:399] pool5/7x7_s1 -> pool5/7x7_s1
I0403 15:30:51.483775 12043 net.cpp:141] Setting up pool5/7x7_s1
I0403 15:30:51.483803 12043 net.cpp:148] Top shape: 24 1024 1 1 (24576)
I0403 15:30:51.483819 12043 net.cpp:156] Memory required for data: 1345962528
I0403 15:30:51.483834 12043 layer_factory.hpp:77] Creating layer pool5/drop_7x7_s1
I0403 15:30:51.483853 12043 net.cpp:91] Creating Layer pool5/drop_7x7_s1
I0403 15:30:51.483870 12043 net.cpp:425] pool5/drop_7x7_s1 <- pool5/7x7_s1
I0403 15:30:51.483891 12043 net.cpp:386] pool5/drop_7x7_s1 -> pool5/7x7_s1 (in-place)
I0403 15:30:51.483945 12043 net.cpp:141] Setting up pool5/drop_7x7_s1
I0403 15:30:51.483973 12043 net.cpp:148] Top shape: 24 1024 1 1 (24576)
I0403 15:30:51.483990 12043 net.cpp:156] Memory required for data: 1346060832
I0403 15:30:51.484006 12043 layer_factory.hpp:77] Creating layer loss3/classifier_plantvillage
I0403 15:30:51.484025 12043 net.cpp:91] Creating Layer loss3/classifier_plantvillage
I0403 15:30:51.484041 12043 net.cpp:425] loss3/classifier_plantvillage <- pool5/7x7_s1
I0403 15:30:51.484063 12043 net.cpp:399] loss3/classifier_plantvillage -> loss3/classifier_plantvillage
I0403 15:30:51.484509 12043 net.cpp:141] Setting up loss3/classifier_plantvillage
I0403 15:30:51.484540 12043 net.cpp:148] Top shape: 24 38 (912)
I0403 15:30:51.484557 12043 net.cpp:156] Memory required for data: 1346064480
I0403 15:30:51.484575 12043 layer_factory.hpp:77] Creating layer loss3/classifier_plantvillage_loss3/classifier_plantvillage_0_split
I0403 15:30:51.484593 12043 net.cpp:91] Creating Layer loss3/classifier_plantvillage_loss3/classifier_plantvillage_0_split
I0403 15:30:51.484611 12043 net.cpp:425] loss3/classifier_plantvillage_loss3/classifier_plantvillage_0_split <- loss3/classifier_plantvillage
I0403 15:30:51.484628 12043 net.cpp:399] loss3/classifier_plantvillage_loss3/classifier_plantvillage_0_split -> loss3/classifier_plantvillage_loss3/classifier_plantvillage_0_split_0
I0403 15:30:51.484648 12043 net.cpp:399] loss3/classifier_plantvillage_loss3/classifier_plantvillage_0_split -> loss3/classifier_plantvillage_loss3/classifier_plantvillage_0_split_1
I0403 15:30:51.484670 12043 net.cpp:399] loss3/classifier_plantvillage_loss3/classifier_plantvillage_0_split -> loss3/classifier_plantvillage_loss3/classifier_plantvillage_0_split_2
I0403 15:30:51.484693 12043 net.cpp:399] loss3/classifier_plantvillage_loss3/classifier_plantvillage_0_split -> loss3/classifier_plantvillage_loss3/classifier_plantvillage_0_split_3
I0403 15:30:51.484798 12043 net.cpp:141] Setting up loss3/classifier_plantvillage_loss3/classifier_plantvillage_0_split
I0403 15:30:51.484822 12043 net.cpp:148] Top shape: 24 38 (912)
I0403 15:30:51.484838 12043 net.cpp:148] Top shape: 24 38 (912)
I0403 15:30:51.484854 12043 net.cpp:148] Top shape: 24 38 (912)
I0403 15:30:51.484870 12043 net.cpp:148] Top shape: 24 38 (912)
I0403 15:30:51.484884 12043 net.cpp:156] Memory required for data: 1346079072
I0403 15:30:51.484897 12043 layer_factory.hpp:77] Creating layer loss1/loss
I0403 15:30:51.484921 12043 net.cpp:91] Creating Layer loss1/loss
I0403 15:30:51.484941 12043 net.cpp:425] loss1/loss <- loss1/classifier_plantvillage_loss1/classifier_plantvillage_0_split_0
I0403 15:30:51.484972 12043 net.cpp:425] loss1/loss <- label_data_1_split_0
…
