…
I0403 14:56:16.660238 11412 net.cpp:313] The NetState phase (1) differed from the phase (0) specified by a rule in layer data
I0403 14:56:16.661378 11412 net.cpp:49] Initializing net from parameters: 
state {
  phase: TEST
}
layer {
  name: "data"
  type: "Data"
  top: "data"
  top: "label"
  include {
    phase: TEST
  }
  transform_param {
    mirror: false
    crop_size: 224
    mean_file: "/home/mohanty/data/final_dataset/lmdb/segmented-50-50/mean.binaryproto"
  }
  data_param {
    source: "/home/mohanty/data/final_dataset/lmdb/segmented-50-50/test_db"
    batch_size: 24
    backend: LMDB
  }
}
layer {
  name: "conv1/7x7_s2"
  type: "Convolution"
  bottom: "data"
  top: "conv1/7x7_s2"
  param {
    lr_mult: 1
    decay_mult: 1
  }
  param {
    lr_mult: 2
    decay_mult: 0
  }
  convolution_param {
    num_output: 64
    pad: 3
    kernel_size: 7
    stride: 2
    weight_filler {
      type: "xavier"
      std: 0.1
    }
    bias_filler {
      type: "constant"
      value: 0.2
    }
  }
}
layer {
  name: "conv1/relu_7x7"
  type: "ReLU"
  bottom: "conv1/7x7_s2"
  top: "conv1/7x7_s2"
}
layer {
  name: "pool1/3x3_s2"
  type: "Pooling"
  bottom: "conv1/7x7_s2"
  top: "pool1/3x3_s2"
  pooling_param {
    pool: MAX
    kernel_size: 3
    stride: 2
  }
}
layer {
  name: "pool1/norm1"
  type: "LRN"
  bottom: "pool1/3x3_s2"
  top: "pool1/norm1"
  lrn_param {
    local_size: 5
    alpha: 0.0001
    beta: 0.75
  }
}
layer {
  name: "conv2/3x3_reduce"
  type: "Convolution"
  bottom: "pool1/norm1"
  top: "conv2/3x3_reduce"
  param {
    lr_mult: 1
    decay_mult: 1
  }
  param {
    lr_mult: 2
    decay_mult: 0
  }
  convolution_param {
    num_output: 64
    kernel_size: 1
    weight_filler {
      type: "xavier"
      std: 0.1
    }
    bias_filler {
      type: "constant"
      value: 0.2
    }
  }
}
layer {
  name: "conv2/relu_3x3_reduce"
  type: "ReLU"
  bottom: "conv2/3x3_reduce"
  top: "conv2/3x3_reduce"
}
layer {
  name: "conv2/3x3"
  type: "Convolution"
  bottom: "conv2/3x3_reduce"
  top: "conv2/3x3"
  param {
    lr_mult: 1
    decay_mult: 1
  }
  param {
    lr_mult: 2
    decay_mult: 0
  }
  convolution_param {
    num_output: 192
    pad: 1
    kernel_size: 3
    weight_filler {
      type: "xavier"
      std: 0.03
    }
    bias_filler {
      type: "constant"
      value: 0.2
    }
  }
}
layer {
  name: "conv2/relu_3x3"
  type: "ReLU"
  bottom: "conv2/3x3"
  top: "conv2/3x3"
}
layer {
  name: "conv2/norm2"
  type: "LRN"
  bottom: "conv2/3x3"
  top: "conv2/norm2"
  lrn_param {
    local_size: 5
    alpha: 0.0001
    beta: 0.75
  }
}
layer {
  name: "pool2/3x3_s2"
  type: "Pooling"
  bottom: "conv2/norm2"
  top: "pool2/3x3_s2"
  pooling_param {
    pool: MAX
    kernel_size: 3
    stride: 2
  }
}
layer {
  name: "inception_3a/1x1"
  type: "Convolution"
  bottom: "pool2/3x3_s2"
  top: "inception_3a/1x1"
  param {
    lr_mult: 1
    decay_mult: 1
  }
  param {
    lr_mult: 2
    decay_mult: 0
  }
  convolution_param {
    num_output: 64
    kernel_size: 1
    weight_filler {
      type: "xavier"
      std: 0.03
    }
    bias_filler {
      type: "constant"
      value: 0.2
    }
  }
}
layer {
  name: "inception_3a/relu_1x1"
  type: "ReLU"
  bottom: "inception_3a/1x1"
  top: "inception_3a/1x1"
}
layer {
  name: "inception_3a/3x3_reduce"
  type: "Convolution"
  bottom: "pool2/3x3_s2"
  top: "inception_3a/3x3_reduce"
  param {
    lr_mult: 1
    decay_mult: 1
  }
  param {
    lr_mult: 2
    decay_mult: 0
  }
  convolution_param {
    num_output: 96
    kernel_size: 1
    weight_filler {
      type: "xavier"
      std: 0.09
    }
    bias_filler {
      type: "constant"
      value: 0.2
    }
  }
}
layer {
  name: "inception_3a/relu_3x3_reduce"
  type: "ReLU"
  bottom: "inception_3a/3x3_reduce"
  top: "inception_3a/3x3_reduce"
}
layer {
  name: "inception_3a/3x3"
  type: "Convolution"
  bottom: "inception_3a/3x3_reduce"
  top: "inception_3a/3x3"
  param {
    lr_mult: 1
    decay_mult: 1
  }
  param {
    lr_mult: 2
    decay_mult: 0
  }
  convolution_param {
    num_output: 128
    pad: 1
    kernel_size: 3
    weight_filler {
      type: "xavier"
      std: 0.03
    }
    bias_filler {
      type: "constant"
      value: 0.2
    }
  }
}
layer {
  name: "inception_3a/relu_3x3"
  type: "ReLU"
  bottom: "inception_3a/3x3"
  top: "inception_3a/3x3"
}
layer {
  name: "inception_3a/5x5_reduce"
  type: "Convolution"
  bottom: "pool2/3x3_s2"
  top: "inception_3a/5x5_reduce"
  param {
    lr_mult: 1
    decay_mult: 1
  }
  param {
    lr_mult: 2
    decay_mult: 0
  }
  convolution_param {
    num_output: 16
    kernel_size: 1
    weight_filler {
      type: "xavier"
      std: 0.2
    }
    bias_filler {
      type: "constant"
      value: 0.2
    }
  }
}
layer {
  name: "inception_3a/relu_5x5_reduce"
  type: "ReLU"
  bottom: "inception_3a/5x5_reduce"
  top: "inception_3a/5x5_reduce"
}
layer {
  name: "inception_3a/5x5"
  type: "Convolution"
  bottom: "inception_3a/5x5_reduce"
  top: "inception_3a/5x5"
  param {
    lr_mult: 1
    decay_mult: 1
  }
  param {
    lr_mult: 2
    decay_mult: 0
  }
  convolution_param {
    num_output: 32
    pad: 2
    kernel_size: 5
    weight_filler {
      type: "xavier"
      std: 0.03
    }
    bias_filler {
      type: "constant"
      value: 0.2
    }
  }
}
layer {
  name: "inception_3a/relu_5x5"
  type: "ReLU"
  bottom: "inception_3a/5x5"
  top: "inception_3a/5x5"
}
layer {
  name: "inception_3a/pool"
  type: "Pooling"
  bottom: "pool2/3x3_s2"
  top: "inception_3a/pool"
  pooling_param {
    pool: MAX
    kernel_size: 3
    stride: 1
    pad: 1
  }
}
layer {
  name: "inception_3a/pool_proj"
  type: "Convolution"
  bottom: "inception_3a/pool"
  top: "inception_3a/pool_proj"
  param {
    lr_mult: 1
    decay_mult: 1
  }
  param {
    lr_mult: 2
    decay_mult: 0
  }
  convolution_param {
    num_output: 32
    kernel_size: 1
    weight_filler {
      type: "xavier"
      std: 0.1
    }
    bias_filler {
      type: "constant"
      value: 0.2
    }
  }
}
layer {
  name: "inception_3a/relu_pool_proj"
  type: "ReLU"
  bottom: "inception_3a/pool_proj"
  top: "inception_3a/pool_proj"
}
layer {
  name: "inception_3a/output"
  type: "Concat"
  bottom: "inception_3a/1x1"
  bottom: "inception_3a/3x3"
  bottom: "inception_3a/5x5"
  bottom: "inception_3a/pool_proj"
  top: "inception_3a/output"
}
layer {
  name: "inception_3b/1x1"
  type: "Convolution"
  bottom: "inception_3a/output"
  top: "inception_3b/1x1"
  param {
    lr_mult: 1
    decay_mult: 1
  }
  param {
    lr_mult: 2
    decay_mult: 0
  }
  convolution_param {
    num_output: 128
    kernel_size: 1
    weight_filler {
      type: "xavier"
      std: 0.03
    }
    bias_filler {
      type: "constant"
      value: 0.2
    }
  }
}
layer {
  name: "inception_3b/relu_1x1"
  type: "ReLU"
  bottom: "inception_3b/1x1"
  top: "inception_3b/1x1"
}
layer {
  name: "inception_3b/3x3_reduce"
  type: "Convolution"
  bottom: "inception_3a/output"
  top: "inception_3b/3x3_reduce"
  param {
    lr_mult: 1
    decay_mult: 1
  }
  param {
    lr_mult: 2
    decay_mult: 0
  }
  convolution_param {
    num_output: 128
    kernel_size: 1
    weight_filler {
      type: "xavier"
      std: 0.09
    }
    bias_filler {
      type: "constant"
      value: 0.2
    }
  }
}
layer {
  name: "inception_3b/relu_3x3_reduce"
  type: "ReLU"
  bottom: "inception_3b/3x3_reduce"
  top: "inception_3b/3x3_reduce"
}
layer {
  name: "inception_3b/3x3"
  type: "Convolution"
  bottom: "inception_3b/3x3_reduce"
  top: "inception_3b/3x3"
  param {
    lr_mult: 1
    decay_mult: 1
  }
  param {
    lr_mult: 2
    decay_mult: 0
  }
  convolution_param {
    num_output: 192
    pad: 1
    kernel_size: 3
    weight_filler {
      type: "xavier"
      std: 0.03
    }
    bias_filler {
      type: "constant"
      value: 0.2
    }
  }
}
layer {
  name: "inception_3b/relu_3x3"
  type: "ReLU"
  bottom: "inception_3b/3x3"
  top: "inception_3b/3x3"
}
layer {
  name: "inception_3b/5x5_reduce"
  type: "Convolution"
  bottom: "inception_3a/output"
  top: "inception_3b/5x5_reduce"
  param {
    lr_mult: 1
    decay_mult: 1
  }
  param {
    lr_mult: 2
    decay_mult: 0
  }
  convolution_param {
    num_output: 32
    kernel_size: 1
    weight_filler {
      type: "xavier"
      std: 0.2
    }
    bias_filler {
      type: "constant"
      value: 0.2
    }
  }
}
layer {
  name: "inception_3b/relu_5x5_reduce"
  type: "ReLU"
  bottom: "inception_3b/5x5_reduce"
  top: "inception_3b/5x5_reduce"
}
layer {
  name: "inception_3b/5x5"
  type: "Convolution"
  bottom: "inception_3b/5x5_reduce"
  top: "inception_3b/5x5"
  param {
    lr_mult: 1
    decay_mult: 1
  }
  param {
    lr_mult: 2
    decay_mult: 0
  }
  convolution_param {
    num_output: 96
    pad: 2
    kernel_size: 5
    weight_filler {
      type: "xavier"
      std: 0.03
    }
    bias_filler {
      type: "constant"
      value: 0.2
    }
  }
}
layer {
  name: "inception_3b/relu_5x5"
  type: "ReLU"
  bottom: "inception_3b/5x5"
  top: "inception_3b/5x5"
}
layer {
  name: "inception_3b/pool"
  type: "Pooling"
  bottom: "inception_3a/output"
  top: "inception_3b/pool"
  pooling_param {
    pool: MAX
    kernel_size: 3
    stride: 1
    pad: 1
  }
}
layer {
  name: "inception_3b/pool_proj"
  type: "Convolution"
  bottom: "inception_3b/pool"
  top: "inception_3b/pool_proj"
  param {
    lr_mult: 1
    decay_mult: 1
  }
  param {
    lr_mult: 2
    decay_mult: 0
  }
  convolution_param {
    num_output: 64
    kernel_size: 1
    weight_filler {
      type: "xavier"
      std: 0.1
    }
    bias_filler {
      type: "constant"
      value: 0.2
    }
  }
}
layer {
  name: "inception_3b/relu_pool_proj"
  type: "ReLU"
  bottom: "inception_3b/pool_proj"
  top: "inception_3b/pool_proj"
}
layer {
  name: "inception_3b/output"
  type: "Concat"
  bottom: "inception_3b/1x1"
  bottom: "inception_3b/3x3"
  bottom: "inception_3b/5x5"
  bottom: "inception_3b/pool_proj"
  top: "inception_3b/output"
}
layer {
  name: "pool3/3x3_s2"
  type: "Pooling"
  bottom: "inception_3b/output"
  top: "pool3/3x3_s2"
  pooling_param {
    pool: MAX
    kernel_size: 3
    stride: 2
  }
}
layer {
  name: "inception_4a/1x1"
  type: "Convolution"
  bottom: "pool3/3x3_s2"
  top: "inception_4a/1x1"
  param {
    lr_mult: 1
    decay_mult: 1
  }
  param {
    lr_mult: 2
    decay_mult: 0
  }
  convolution_param {
    num_output: 192
    kernel_size: 1
    weight_filler {
      type: "xavier"
      std: 0.03
    }
    bias_filler {
      type: "constant"
      value: 0.2
    }
  }
}
layer {
  name: "inception_4a/relu_1x1"
  type: "ReLU"
  bottom: "inception_4a/1x1"
  top: "inception_4a/1x1"
}
layer {
  name: "inception_4a/3x3_reduce"
  type: "Convolution"
  bottom: "pool3/3x3_s2"
  top: "inception_4a/3x3_reduce"
  param {
    lr_mult: 1
    decay_mult: 1
  }
  param {
    lr_mult: 2
    decay_mult: 0
  }
  convolution_param {
    num_output: 96
    kernel_size: 1
    weight_filler {
      type: "xavier"
      std: 0.09
    }
    bias_filler {
      type: "constant"
      value: 0.2
    }
  }
}
layer {
  name: "inception_4a/relu_3x3_reduce"
  type: "ReLU"
  bottom: "inception_4a/3x3_reduce"
  top: "inception_4a/3x3_reduce"
}
layer {
  name: "inception_4a/3x3"
  type: "Convolution"
  bottom: "inception_4a/3x3_reduce"
  top: "inception_4a/3x3"
  param {
    lr_mult: 1
    decay_mult: 1
  }
  param {
    lr_mult: 2
    decay_mult: 0
  }
  convolution_param {
    num_output: 208
    pad: 1
    kernel_size: 3
    weight_filler {
      type: "xavier"
      std: 0.03
    }
    bias_filler {
      type: "constant"
      value: 0.2
    }
  }
}
layer {
  name: "inception_4a/relu_3x3"
  type: "ReLU"
  bottom: "inception_4a/3x3"
  top: "inception_4a/3x3"
}
layer {
  name: "inception_4a/5x5_reduce"
  type: "Convolution"
  bottom: "pool3/3x3_s2"
  top: "inception_4a/5x5_reduce"
  param {
    lr_mult: 1
    decay_mult: 1
  }
  param {
    lr_mult: 2
    decay_mult: 0
  }
  convolution_param {
    num_output: 16
    kernel_size: 1
    weight_filler {
      type: "xavier"
      std: 0.2
    }
    bias_filler {
      type: "constant"
      value: 0.2
    }
  }
}
layer {
  name: "inception_4a/relu_5x5_reduce"
  type: "ReLU"
  bottom: "inception_4a/5x5_reduce"
  top: "inception_4a/5x5_reduce"
}
layer {
  name: "inception_4a/5x5"
  type: "Convolution"
  bottom: "inception_4a/5x5_reduce"
  top: "inception_4a/5x5"
  param {
    lr_mult: 1
    decay_mult: 1
  }
  param {
    lr_mult: 2
    decay_mult: 0
  }
  convolution_param {
    num_output: 48
    pad: 2
    kernel_size: 5
    weight_filler {
      type: "xavier"
      std: 0.03
    }
    bias_filler {
      type: "constant"
      value: 0.2
    }
  }
}
layer {
  name: "inception_4a/relu_5x5"
  type: "ReLU"
  bottom: "inception_4a/5x5"
  top: "inception_4a/5x5"
}
layer {
  name: "inception_4a/pool"
  type: "Pooling"
  bottom: "pool3/3x3_s2"
  top: "inception_4a/pool"
  pooling_param {
    pool: MAX
    kernel_size: 3
    stride: 1
    pad: 1
  }
}
layer {
  name: "inception_4a/pool_proj"
  type: "Convolution"
  bottom: "inception_4a/pool"
  top: "inception_4a/pool_proj"
  param {
    lr_mult: 1
    decay_mult: 1
  }
  param {
    lr_mult: 2
    decay_mult: 0
  }
  convolution_param {
    num_output: 64
    kernel_size: 1
    weight_filler {
      type: "xavier"
      std: 0.1
    }
    bias_filler {
      type: "constant"
      value: 0.2
    }
  }
}
layer {
  name: "inception_4a/relu_pool_proj"
  type: "ReLU"
  bottom: "inception_4a/pool_proj"
  top: "inception_4a/pool_proj"
}
layer {
  name: "inception_4a/output"
  type: "Concat"
  bottom: "inception_4a/1x1"
  bottom: "inception_4a/3x3"
  bottom: "inception_4a/5x5"
  bottom: "inception_4a/pool_proj"
  top: "inception_4a/output"
}
layer {
  name: "loss1/ave_pool"
  type: "Pooling"
  bottom: "inception_4a/output"
  top: "loss1/ave_pool"
  pooling_param {
    pool: AVE
    kernel_size: 5
    stride: 3
  }
}
layer {
  name: "loss1/conv"
  type: "Convolution"
  bottom: "loss1/ave_pool"
  top: "loss1/conv"
  param {
    lr_mult: 1
    decay_mult: 1
  }
  param {
    lr_mult: 2
    decay_mult: 0
  }
  convolution_param {
    num_output: 128
    kernel_size: 1
    weight_filler {
      type: "xavier"
      std: 0.08
    }
    bias_filler {
      type: "constant"
      value: 0.2
    }
  }
}
layer {
  name: "loss1/relu_conv"
  type: "ReLU"
  bottom: "loss1/conv"
  top: "loss1/conv"
}
layer {
  name: "loss1/fc"
  type: "InnerProduct"
  bottom: "loss1/conv"
  top: "loss1/fc"
  param {
    lr_mult: 1
    decay_mult: 1
  }
  param {
    lr_mult: 2
    decay_mult: 0
  }
  inner_product_param {
    num_output: 1024
    weight_filler {
      type: "xavier"
      std: 0.02
    }
    bias_filler {
      type: "constant"
      value: 0.2
    }
  }
}
layer {
  name: "loss1/relu_fc"
  type: "ReLU"
  bottom: "loss1/fc"
  top: "loss1/fc"
}
layer {
  name: "loss1/drop_fc"
  type: "Dropout"
  bottom: "loss1/fc"
  top: "loss1/fc"
  dropout_param {
    dropout_ratio: 0.7
  }
}
layer {
  name: "loss1/classifier_plantvillage"
  type: "InnerProduct"
  bottom: "loss1/fc"
  top: "loss1/classifier_plantvillage"
  param {
    lr_mult: 1
    decay_mult: 1
  }
  param {
    lr_mult: 2
    decay_mult: 0
  }
  inner_product_param {
    num_output: 38
    weight_filler {
      type: "xavier"
      std: 0.0009765625
    }
    bias_filler {
      type: "constant"
      value: 0
    }
  }
}
layer {
  name: "inception_4b/1x1"
  type: "Convolution"
  bottom: "inception_4a/output"
  top: "inception_4b/1x1"
  param {
    lr_mult: 1
    decay_mult: 1
  }
  param {
    lr_mult: 2
    decay_mult: 0
  }
  convolution_param {
    num_output: 160
    kernel_size: 1
    weight_filler {
      type: "xavier"
      std: 0.03
    }
    bias_filler {
      type: "constant"
      value: 0.2
    }
  }
}
layer {
  name: "inception_4b/relu_1x1"
  type: "ReLU"
  bottom: "inception_4b/1x1"
  top: "inception_4b/1x1"
}
layer {
  name: "inception_4b/3x3_reduce"
  type: "Convolution"
  bottom: "inception_4a/output"
  top: "inception_4b/3x3_reduce"
  param {
    lr_mult: 1
    decay_mult: 1
  }
  param {
    lr_mult: 2
    decay_mult: 0
  }
  convolution_param {
    num_output: 112
    kernel_size: 1
    weight_filler {
      type: "xavier"
      std: 0.09
    }
    bias_filler {
      type: "constant"
      value: 0.2
    }
  }
}
layer {
  name: "inception_4b/relu_3x3_reduce"
  type: "ReLU"
  bottom: "inception_4b/3x3_reduce"
  top: "inception_4b/3x3_reduce"
}
layer {
  name: "inception_4b/3x3"
  type: "Convolution"
  bottom: "inception_4b/3x3_reduce"
  top: "inception_4b/3x3"
  param {
    lr_mult: 1
    decay_mult: 1
  }
  param {
    lr_mult: 2
    decay_mult: 0
  }
  convolution_param {
    num_output: 224
    pad: 1
    kernel_size: 3
    weight_filler {
      type: "xavier"
      std: 0.03
    }
    bias_filler {
      type: "constant"
      value: 0.2
    }
  }
}
layer {
  name: "inception_4b/relu_3x3"
  type: "ReLU"
  bottom: "inception_4b/3x3"
  top: "inception_4b/3x3"
}
layer {
  name: "inception_4b/5x5_reduce"
  type: "Convolution"
  bottom: "inception_4a/output"
  top: "inception_4b/5x5_reduce"
  param {
    lr_mult: 1
    decay_mult: 1
  }
  param {
    lr_mult: 2
    decay_mult: 0
  }
  convolution_param {
    num_output: 24
    kernel_size: 1
    weight_filler {
      type: "xavier"
      std: 0.2
    }
    bias_filler {
      type: "constant"
      value: 0.2
    }
  }
}
layer {
  name: "inception_4b/relu_5x5_reduce"
  type: "ReLU"
  bottom: "inception_4b/5x5_reduce"
  top: "inception_4b/5x5_reduce"
}
layer {
  name: "inception_4b/5x5"
  type: "Convolution"
  bottom: "inception_4b/5x5_reduce"
  top: "inception_4b/5x5"
  param {
    lr_mult: 1
    decay_mult: 1
  }
  param {
    lr_mult: 2
    decay_mult: 0
  }
  convolution_param {
    num_output: 64
    pad: 2
    kernel_size: 5
    weight_filler {
      type: "xavier"
      std: 0.03
    }
    bias_filler {
      type: "constant"
      value: 0.2
    }
  }
}
layer {
  name: "inception_4b/relu_5x5"
  type: "ReLU"
  bottom: "inception_4b/5x5"
  top: "inception_4b/5x5"
}
layer {
  name: "inception_4b/pool"
  type: "Pooling"
  bottom: "inception_4a/output"
  top: "inception_4b/pool"
  pooling_param {
    pool: MAX
    kernel_size: 3
    stride: 1
    pad: 1
  }
}
layer {
  name: "inception_4b/pool_proj"
  type: "Convolution"
  bottom: "inception_4b/pool"
  top: "inception_4b/pool_proj"
  param {
    lr_mult: 1
    decay_mult: 1
  }
  param {
    lr_mult: 2
    decay_mult: 0
  }
  convolution_param {
    num_output: 64
    kernel_size: 1
    weight_filler {
      type: "xavier"
      std: 0.1
    }
    bias_filler {
      type: "constant"
      value: 0.2
    }
  }
}
layer {
  name: "inception_4b/relu_pool_proj"
  type: "ReLU"
  bottom: "inception_4b/pool_proj"
  top: "inception_4b/pool_proj"
}
layer {
  name: "inception_4b/output"
  type: "Concat"
  bottom: "inception_4b/1x1"
  bottom: "inception_4b/3x3"
  bottom: "inception_4b/5x5"
  bottom: "inception_4b/pool_proj"
  top: "inception_4b/output"
}
layer {
  name: "inception_4c/1x1"
  type: "Convolution"
  bottom: "inception_4b/output"
  top: "inception_4c/1x1"
  param {
    lr_mult: 1
    decay_mult: 1
  }
  param {
    lr_mult: 2
    decay_mult: 0
  }
  convolution_param {
    num_output: 128
    kernel_size: 1
    weight_filler {
      type: "xavier"
      std: 0.03
    }
    bias_filler {
      type: "constant"
      value: 0.2
    }
  }
}
layer {
  name: "inception_4c/relu_1x1"
  type: "ReLU"
  bottom: "inception_4c/1x1"
  top: "inception_4c/1x1"
}
layer {
  name: "inception_4c/3x3_reduce"
  type: "Convolution"
  bottom: "inception_4b/output"
  top: "inception_4c/3x3_reduce"
  param {
    lr_mult: 1
    decay_mult: 1
  }
  param {
    lr_mult: 2
    decay_mult: 0
  }
  convolution_param {
    num_output: 128
    kernel_size: 1
    weight_filler {
      type: "xavier"
      std: 0.09
    }
    bias_filler {
      type: "constant"
      value: 0.2
    }
  }
}
layer {
  name: "inception_4c/relu_3x3_reduce"
  type: "ReLU"
  bottom: "inception_4c/3x3_reduce"
  top: "inception_4c/3x3_reduce"
}
layer {
  name: "inception_4c/3x3"
  type: "Convolution"
  bottom: "inception_4c/3x3_reduce"
  top: "inception_4c/3x3"
  param {
    lr_mult: 1
    decay_mult: 1
  }
  param {
    lr_mult: 2
    decay_mult: 0
  }
  convolution_param {
    num_output: 256
    pad: 1
    kernel_size: 3
    weight_filler {
      type: "xavier"
      std: 0.03
    }
    bias_filler {
      type: "constant"
      value: 0.2
    }
  }
}
layer {
  name: "inception_4c/relu_3x3"
  type: "ReLU"
  bottom: "inception_4c/3x3"
  top: "inception_4c/3x3"
}
layer {
  name: "inception_4c/5x5_reduce"
  type: "Convolution"
  bottom: "inception_4b/output"
  top: "inception_4c/5x5_reduce"
  param {
    lr_mult: 1
    decay_mult: 1
  }
  param {
    lr_mult: 2
    decay_mult: 0
  }
  convolution_param {
    num_output: 24
    kernel_size: 1
    weight_filler {
      type: "xavier"
      std: 0.2
    }
    bias_filler {
      type: "constant"
      value: 0.2
    }
  }
}
layer {
  name: "inception_4c/relu_5x5_reduce"
  type: "ReLU"
  bottom: "inception_4c/5x5_reduce"
  top: "inception_4c/5x5_reduce"
}
layer {
  name: "inception_4c/5x5"
  type: "Convolution"
  bottom: "inception_4c/5x5_reduce"
  top: "inception_4c/5x5"
  param {
    lr_mult: 1
    decay_mult: 1
  }
  param {
    lr_mult: 2
    decay_mult: 0
  }
  convolution_param {
    num_output: 64
    pad: 2
    kernel_size: 5
    weight_filler {
      type: "xavier"
      std: 0.03
    }
    bias_filler {
      type: "constant"
      value: 0.2
    }
  }
}
layer {
  name: "inception_4c/relu_5x5"
  type: "ReLU"
  bottom: "inception_4c/5x5"
  top: "inception_4c/5x5"
}
layer {
  name: "inception_4c/pool"
  type: "Pooling"
  bottom: "inception_4b/output"
  top: "inception_4c/pool"
  pooling_param {
    pool: MAX
    kernel_size: 3
    stride: 1
    pad: 1
  }
}
layer {
  name: "inception_4c/pool_proj"
  type: "Convolution"
  bottom: "inception_4c/pool"
  top: "inception_4c/pool_proj"
  param {
    lr_mult: 1
    decay_mult: 1
  }
  param {
    lr_mult: 2
    decay_mult: 0
  }
  convolution_param {
    num_output: 64
    kernel_size: 1
    weight_filler {
      type: "xavier"
      std: 0.1
    }
    bias_filler {
      type: "constant"
      value: 0.2
    }
  }
}
layer {
  name: "inception_4c/relu_pool_proj"
  type: "ReLU"
  bottom: "inception_4c/pool_proj"
  top: "inception_4c/pool_proj"
}
layer {
  name: "inception_4c/output"
  type: "Concat"
  bottom: "inception_4c/1x1"
  bottom: "inception_4c/3x3"
  bottom: "inception_4c/5x5"
  bottom: "inception_4c/pool_proj"
  top: "inception_4c/output"
}
layer {
  name: "inception_4d/1x1"
  type: "Convolution"
  bottom: "inception_4c/output"
  top: "inception_4d/1x1"
  param {
    lr_mult: 1
    decay_mult: 1
  }
  param {
    lr_mult: 2
    decay_mult: 0
  }
  convolution_param {
    num_output: 112
    kernel_size: 1
    weight_filler {
      type: "xavier"
      std: 0.03
    }
    bias_filler {
      type: "constant"
      value: 0.2
    }
  }
}
layer {
  name: "inception_4d/relu_1x1"
  type: "ReLU"
  bottom: "inception_4d/1x1"
  top: "inception_4d/1x1"
}
layer {
  name: "inception_4d/3x3_reduce"
  type: "Convolution"
  bottom: "inception_4c/output"
  top: "inception_4d/3x3_reduce"
  param {
    lr_mult: 1
    decay_mult: 1
  }
  param {
    lr_mult: 2
    decay_mult: 0
  }
  convolution_param {
    num_output: 144
    kernel_size: 1
    weight_filler {
      type: "xavier"
      std: 0.09
    }
    bias_filler {
      type: "constant"
      value: 0.2
    }
  }
}
layer {
  name: "inception_4d/relu_3x3_reduce"
  type: "ReLU"
  bottom: "inception_4d/3x3_reduce"
  top: "inception_4d/3x3_reduce"
}
layer {
  name: "inception_4d/3x3"
  type: "Convolution"
  bottom: "inception_4d/3x3_reduce"
  top: "inception_4d/3x3"
  param {
    lr_mult: 1
    decay_mult: 1
  }
  param {
    lr_mult: 2
    decay_mult: 0
  }
  convolution_param {
    num_output: 288
    pad: 1
    kernel_size: 3
    weight_filler {
      type: "xavier"
      std: 0.03
    }
    bias_filler {
      type: "constant"
      value: 0.2
    }
  }
}
layer {
  name: "inception_4d/relu_3x3"
  type: "ReLU"
  bottom: "inception_4d/3x3"
  top: "inception_4d/3x3"
}
layer {
  name: "inception_4d/5x5_reduce"
  type: "Convolution"
  bottom: "inception_4c/output"
  top: "inception_4d/5x5_reduce"
  param {
    lr_mult: 1
    decay_mult: 1
  }
  param {
    lr_mult: 2
    decay_mult: 0
  }
  convolution_param {
    num_output: 32
    kernel_size: 1
    weight_filler {
      type: "xavier"
      std: 0.2
    }
    bias_filler {
      type: "constant"
      value: 0.2
    }
  }
}
layer {
  name: "inception_4d/relu_5x5_reduce"
  type: "ReLU"
  bottom: "inception_4d/5x5_reduce"
  top: "inception_4d/5x5_reduce"
}
layer {
  name: "inception_4d/5x5"
  type: "Convolution"
  bottom: "inception_4d/5x5_reduce"
  top: "inception_4d/5x5"
  param {
    lr_mult: 1
    decay_mult: 1
  }
  param {
    lr_mult: 2
    decay_mult: 0
  }
  convolution_param {
    num_output: 64
    pad: 2
    kernel_size: 5
    weight_filler {
      type: "xavier"
      std: 0.03
    }
    bias_filler {
      type: "constant"
      value: 0.2
    }
  }
}
layer {
  name: "inception_4d/relu_5x5"
  type: "ReLU"
  bottom: "inception_4d/5x5"
  top: "inception_4d/5x5"
}
layer {
  name: "inception_4d/pool"
  type: "Pooling"
  bottom: "inception_4c/output"
  top: "inception_4d/pool"
  pooling_param {
    pool: MAX
    kernel_size: 3
    stride: 1
    pad: 1
  }
}
layer {
  name: "inception_4d/pool_proj"
  type: "Convolution"
  bottom: "inception_4d/pool"
  top: "inception_4d/pool_proj"
  param {
    lr_mult: 1
    decay_mult: 1
  }
  param {
    lr_mult: 2
    decay_mult: 0
  }
  convolution_param {
    num_output: 64
    kernel_size: 1
    weight_filler {
      type: "xavier"
      std: 0.1
    }
    bias_filler {
      type: "constant"
      value: 0.2
    }
  }
}
layer {
  name: "inception_4d/relu_pool_proj"
  type: "ReLU"
  bottom: "inception_4d/pool_proj"
  top: "inception_4d/pool_proj"
}
layer {
  name: "inception_4d/output"
  type: "Concat"
  bottom: "inception_4d/1x1"
  bottom: "inception_4d/3x3"
  bottom: "inception_4d/5x5"
  bottom: "inception_4d/pool_proj"
  top: "inception_4d/output"
}
layer {
  name: "loss2/ave_pool"
  type: "Pooling"
  bottom: "inception_4d/output"
  top: "loss2/ave_pool"
  pooling_param {
    pool: AVE
    kernel_size: 5
    stride: 3
  }
}
layer {
  name: "loss2/conv"
  type: "Convolution"
  bottom: "loss2/ave_pool"
  top: "loss2/conv"
  param {
    lr_mult: 1
    decay_mult: 1
  }
  param {
    lr_mult: 2
    decay_mult: 0
  }
  convolution_param {
    num_output: 128
    kernel_size: 1
    weight_filler {
      type: "xavier"
      std: 0.08
    }
    bias_filler {
      type: "constant"
      value: 0.2
    }
  }
}
layer {
  name: "loss2/relu_conv"
  type: "ReLU"
  bottom: "loss2/conv"
  top: "loss2/conv"
}
layer {
  name: "loss2/fc"
  type: "InnerProduct"
  bottom: "loss2/conv"
  top: "loss2/fc"
  param {
    lr_mult: 1
    decay_mult: 1
  }
  param {
    lr_mult: 2
    decay_mult: 0
  }
  inner_product_param {
    num_output: 1024
    weight_filler {
      type: "xavier"
      std: 0.02
    }
    bias_filler {
      type: "constant"
      value: 0.2
    }
  }
}
layer {
  name: "loss2/relu_fc"
  type: "ReLU"
  bottom: "loss2/fc"
  top: "loss2/fc"
}
layer {
  name: "loss2/drop_fc"
  type: "Dropout"
  bottom: "loss2/fc"
  top: "loss2/fc"
  dropout_param {
    dropout_ratio: 0.7
  }
}
layer {
  name: "loss2/classifier_plantvillage"
  type: "InnerProduct"
  bottom: "loss2/fc"
  top: "loss2/classifier_plantvillage"
  param {
    lr_mult: 1
    decay_mult: 1
  }
  param {
    lr_mult: 2
    decay_mult: 0
  }
  inner_product_param {
    num_output: 38
    weight_filler {
      type: "xavier"
      std: 0.0009765625
    }
    bias_filler {
      type: "constant"
      value: 0
    }
  }
}
layer {
  name: "inception_4e/1x1"
  type: "Convolution"
  bottom: "inception_4d/output"
  top: "inception_4e/1x1"
  param {
    lr_mult: 1
    decay_mult: 1
  }
  param {
    lr_mult: 2
    decay_mult: 0
  }
  convolution_param {
    num_output: 256
    kernel_size: 1
    weight_filler {
      type: "xavier"
      std: 0.03
    }
    bias_filler {
      type: "constant"
      value: 0.2
    }
  }
}
layer {
  name: "inception_4e/relu_1x1"
  type: "ReLU"
  bottom: "inception_4e/1x1"
  top: "inception_4e/1x1"
}
layer {
  name: "inception_4e/3x3_reduce"
  type: "Convolution"
  bottom: "inception_4d/output"
  top: "inception_4e/3x3_reduce"
  param {
    lr_mult: 1
    decay_mult: 1
  }
  param {
    lr_mult: 2
    decay_mult: 0
  }
  convolution_param {
    num_output: 160
    kernel_size: 1
    weight_filler {
      type: "xavier"
      std: 0.09
    }
    bias_filler {
      type: "constant"
      value: 0.2
    }
  }
}
layer {
  name: "inception_4e/relu_3x3_reduce"
  type: "ReLU"
  bottom: "inception_4e/3x3_reduce"
  top: "inception_4e/3x3_reduce"
}
layer {
  name: "inception_4e/3x3"
  type: "Convolution"
  bottom: "inception_4e/3x3_reduce"
  top: "inception_4e/3x3"
  param {
    lr_mult: 1
    decay_mult: 1
  }
  param {
    lr_mult: 2
    decay_mult: 0
  }
  convolution_param {
    num_output: 320
    pad: 1
    kernel_size: 3
    weight_filler {
      type: "xavier"
      std: 0.03
    }
    bias_filler {
      type: "constant"
      value: 0.2
    }
  }
}
layer {
  name: "inception_4e/relu_3x3"
  type: "ReLU"
  bottom: "inception_4e/3x3"
  top: "inception_4e/3x3"
}
layer {
  name: "inception_4e/5x5_reduce"
  type: "Convolution"
  bottom: "inception_4d/output"
  top: "inception_4e/5x5_reduce"
  param {
    lr_mult: 1
    decay_mult: 1
  }
  param {
    lr_mult: 2
    decay_mult: 0
  }
  convolution_param {
    num_output: 32
    kernel_size: 1
    weight_filler {
      type: "xavier"
      std: 0.2
    }
    bias_filler {
      type: "constant"
      value: 0.2
    }
  }
}
layer {
  name: "inception_4e/relu_5x5_reduce"
  type: "ReLU"
  bottom: "inception_4e/5x5_reduce"
  top: "inception_4e/5x5_reduce"
}
layer {
  name: "inception_4e/5x5"
  type: "Convolution"
  bottom: "inception_4e/5x5_reduce"
  top: "inception_4e/
I0403 14:56:16.662636 11412 layer_factory.hpp:77] Creating layer data
I0403 14:56:16.663233 11412 net.cpp:91] Creating Layer data
I0403 14:56:16.663266 11412 net.cpp:399] data -> data
I0403 14:56:16.663317 11412 net.cpp:399] data -> label
I0403 14:56:16.663353 11412 data_transformer.cpp:25] Loading mean file from: /home/mohanty/data/final_dataset/lmdb/segmented-50-50/mean.binaryproto
I0403 14:56:16.665830 11417 db_lmdb.cpp:38] Opened lmdb /home/mohanty/data/final_dataset/lmdb/segmented-50-50/test_db
I0403 14:56:16.676676 11412 data_layer.cpp:41] output data size: 24,3,224,224
I0403 14:56:16.705085 11412 net.cpp:141] Setting up data
I0403 14:56:16.705189 11412 net.cpp:148] Top shape: 24 3 224 224 (3612672)
I0403 14:56:16.705211 11412 net.cpp:148] Top shape: 24 (24)
I0403 14:56:16.705226 11412 net.cpp:156] Memory required for data: 14450784
I0403 14:56:16.705253 11412 layer_factory.hpp:77] Creating layer label_data_1_split
I0403 14:56:16.705281 11412 net.cpp:91] Creating Layer label_data_1_split
I0403 14:56:16.705298 11412 net.cpp:425] label_data_1_split <- label
I0403 14:56:16.705329 11412 net.cpp:399] label_data_1_split -> label_data_1_split_0
I0403 14:56:16.705356 11412 net.cpp:399] label_data_1_split -> label_data_1_split_1
I0403 14:56:16.705377 11412 net.cpp:399] label_data_1_split -> label_data_1_split_2
I0403 14:56:16.705397 11412 net.cpp:399] label_data_1_split -> label_data_1_split_3
I0403 14:56:16.705435 11412 net.cpp:399] label_data_1_split -> label_data_1_split_4
I0403 14:56:16.705471 11412 net.cpp:399] label_data_1_split -> label_data_1_split_5
I0403 14:56:16.705490 11412 net.cpp:399] label_data_1_split -> label_data_1_split_6
I0403 14:56:16.705510 11412 net.cpp:399] label_data_1_split -> label_data_1_split_7
I0403 14:56:16.705530 11412 net.cpp:399] label_data_1_split -> label_data_1_split_8
I0403 14:56:16.705551 11412 net.cpp:399] label_data_1_split -> label_data_1_split_9
I0403 14:56:16.705672 11412 net.cpp:141] Setting up label_data_1_split
I0403 14:56:16.705695 11412 net.cpp:148] Top shape: 24 (24)
I0403 14:56:16.705713 11412 net.cpp:148] Top shape: 24 (24)
I0403 14:56:16.705740 11412 net.cpp:148] Top shape: 24 (24)
I0403 14:56:16.705755 11412 net.cpp:148] Top shape: 24 (24)
I0403 14:56:16.705770 11412 net.cpp:148] Top shape: 24 (24)
I0403 14:56:16.705786 11412 net.cpp:148] Top shape: 24 (24)
I0403 14:56:16.705802 11412 net.cpp:148] Top shape: 24 (24)
I0403 14:56:16.705817 11412 net.cpp:148] Top shape: 24 (24)
I0403 14:56:16.705832 11412 net.cpp:148] Top shape: 24 (24)
I0403 14:56:16.705848 11412 net.cpp:148] Top shape: 24 (24)
I0403 14:56:16.705893 11412 net.cpp:156] Memory required for data: 14451744
I0403 14:56:16.705909 11412 layer_factory.hpp:77] Creating layer conv1/7x7_s2
I0403 14:56:16.705940 11412 net.cpp:91] Creating Layer conv1/7x7_s2
I0403 14:56:16.705960 11412 net.cpp:425] conv1/7x7_s2 <- data
I0403 14:56:16.705978 11412 net.cpp:399] conv1/7x7_s2 -> conv1/7x7_s2
I0403 14:56:16.845840 11412 net.cpp:141] Setting up conv1/7x7_s2
I0403 14:56:16.845911 11412 net.cpp:148] Top shape: 24 64 112 112 (19267584)
I0403 14:56:16.845930 11412 net.cpp:156] Memory required for data: 91522080
I0403 14:56:16.845959 11412 layer_factory.hpp:77] Creating layer conv1/relu_7x7
I0403 14:56:16.845985 11412 net.cpp:91] Creating Layer conv1/relu_7x7
I0403 14:56:16.846004 11412 net.cpp:425] conv1/relu_7x7 <- conv1/7x7_s2
I0403 14:56:16.846022 11412 net.cpp:386] conv1/relu_7x7 -> conv1/7x7_s2 (in-place)
I0403 14:56:16.846288 11412 net.cpp:141] Setting up conv1/relu_7x7
I0403 14:56:16.846329 11412 net.cpp:148] Top shape: 24 64 112 112 (19267584)
I0403 14:56:16.846346 11412 net.cpp:156] Memory required for data: 168592416
I0403 14:56:16.846361 11412 layer_factory.hpp:77] Creating layer pool1/3x3_s2
I0403 14:56:16.846386 11412 net.cpp:91] Creating Layer pool1/3x3_s2
I0403 14:56:16.846403 11412 net.cpp:425] pool1/3x3_s2 <- conv1/7x7_s2
I0403 14:56:16.846431 11412 net.cpp:399] pool1/3x3_s2 -> pool1/3x3_s2
I0403 14:56:16.846523 11412 net.cpp:141] Setting up pool1/3x3_s2
I0403 14:56:16.846547 11412 net.cpp:148] Top shape: 24 64 56 56 (4816896)
I0403 14:56:16.846563 11412 net.cpp:156] Memory required for data: 187860000
I0403 14:56:16.846577 11412 layer_factory.hpp:77] Creating layer pool1/norm1
I0403 14:56:16.846604 11412 net.cpp:91] Creating Layer pool1/norm1
I0403 14:56:16.846622 11412 net.cpp:425] pool1/norm1 <- pool1/3x3_s2
I0403 14:56:16.846654 11412 net.cpp:399] pool1/norm1 -> pool1/norm1
I0403 14:56:16.846947 11412 net.cpp:141] Setting up pool1/norm1
I0403 14:56:16.846976 11412 net.cpp:148] Top shape: 24 64 56 56 (4816896)
I0403 14:56:16.846992 11412 net.cpp:156] Memory required for data: 207127584
I0403 14:56:16.847007 11412 layer_factory.hpp:77] Creating layer conv2/3x3_reduce
I0403 14:56:16.847033 11412 net.cpp:91] Creating Layer conv2/3x3_reduce
I0403 14:56:16.847050 11412 net.cpp:425] conv2/3x3_reduce <- pool1/norm1
I0403 14:56:16.847069 11412 net.cpp:399] conv2/3x3_reduce -> conv2/3x3_reduce
I0403 14:56:16.848304 11412 net.cpp:141] Setting up conv2/3x3_reduce
I0403 14:56:16.848332 11412 net.cpp:148] Top shape: 24 64 56 56 (4816896)
I0403 14:56:16.848347 11412 net.cpp:156] Memory required for data: 226395168
I0403 14:56:16.848371 11412 layer_factory.hpp:77] Creating layer conv2/relu_3x3_reduce
I0403 14:56:16.848389 11412 net.cpp:91] Creating Layer conv2/relu_3x3_reduce
I0403 14:56:16.848404 11412 net.cpp:425] conv2/relu_3x3_reduce <- conv2/3x3_reduce
I0403 14:56:16.848426 11412 net.cpp:386] conv2/relu_3x3_reduce -> conv2/3x3_reduce (in-place)
I0403 14:56:16.848691 11412 net.cpp:141] Setting up conv2/relu_3x3_reduce
I0403 14:56:16.848717 11412 net.cpp:148] Top shape: 24 64 56 56 (4816896)
I0403 14:56:16.848732 11412 net.cpp:156] Memory required for data: 245662752
I0403 14:56:16.848747 11412 layer_factory.hpp:77] Creating layer conv2/3x3
I0403 14:56:16.848770 11412 net.cpp:91] Creating Layer conv2/3x3
I0403 14:56:16.848788 11412 net.cpp:425] conv2/3x3 <- conv2/3x3_reduce
I0403 14:56:16.848809 11412 net.cpp:399] conv2/3x3 -> conv2/3x3
I0403 14:56:16.851066 11412 net.cpp:141] Setting up conv2/3x3
I0403 14:56:16.851096 11412 net.cpp:148] Top shape: 24 192 56 56 (14450688)
I0403 14:56:16.851112 11412 net.cpp:156] Memory required for data: 303465504
I0403 14:56:16.851136 11412 layer_factory.hpp:77] Creating layer conv2/relu_3x3
I0403 14:56:16.851156 11412 net.cpp:91] Creating Layer conv2/relu_3x3
I0403 14:56:16.851171 11412 net.cpp:425] conv2/relu_3x3 <- conv2/3x3
I0403 14:56:16.851188 11412 net.cpp:386] conv2/relu_3x3 -> conv2/3x3 (in-place)
I0403 14:56:16.851361 11412 net.cpp:141] Setting up conv2/relu_3x3
I0403 14:56:16.851388 11412 net.cpp:148] Top shape: 24 192 56 56 (14450688)
I0403 14:56:16.851436 11412 net.cpp:156] Memory required for data: 361268256
I0403 14:56:16.851452 11412 layer_factory.hpp:77] Creating layer conv2/norm2
I0403 14:56:16.851474 11412 net.cpp:91] Creating Layer conv2/norm2
I0403 14:56:16.851490 11412 net.cpp:425] conv2/norm2 <- conv2/3x3
I0403 14:56:16.851506 11412 net.cpp:399] conv2/norm2 -> conv2/norm2
I0403 14:56:16.851804 11412 net.cpp:141] Setting up conv2/norm2
I0403 14:56:16.851830 11412 net.cpp:148] Top shape: 24 192 56 56 (14450688)
I0403 14:56:16.851845 11412 net.cpp:156] Memory required for data: 419071008
I0403 14:56:16.851861 11412 layer_factory.hpp:77] Creating layer pool2/3x3_s2
I0403 14:56:16.851881 11412 net.cpp:91] Creating Layer pool2/3x3_s2
I0403 14:56:16.851897 11412 net.cpp:425] pool2/3x3_s2 <- conv2/norm2
I0403 14:56:16.851914 11412 net.cpp:399] pool2/3x3_s2 -> pool2/3x3_s2
I0403 14:56:16.851969 11412 net.cpp:141] Setting up pool2/3x3_s2
I0403 14:56:16.851991 11412 net.cpp:148] Top shape: 24 192 28 28 (3612672)
I0403 14:56:16.852005 11412 net.cpp:156] Memory required for data: 433521696
I0403 14:56:16.852020 11412 layer_factory.hpp:77] Creating layer pool2/3x3_s2_pool2/3x3_s2_0_split
I0403 14:56:16.852037 11412 net.cpp:91] Creating Layer pool2/3x3_s2_pool2/3x3_s2_0_split
I0403 14:56:16.852052 11412 net.cpp:425] pool2/3x3_s2_pool2/3x3_s2_0_split <- pool2/3x3_s2
I0403 14:56:16.852072 11412 net.cpp:399] pool2/3x3_s2_pool2/3x3_s2_0_split -> pool2/3x3_s2_pool2/3x3_s2_0_split_0
I0403 14:56:16.852092 11412 net.cpp:399] pool2/3x3_s2_pool2/3x3_s2_0_split -> pool2/3x3_s2_pool2/3x3_s2_0_split_1
I0403 14:56:16.852111 11412 net.cpp:399] pool2/3x3_s2_pool2/3x3_s2_0_split -> pool2/3x3_s2_pool2/3x3_s2_0_split_2
I0403 14:56:16.852130 11412 net.cpp:399] pool2/3x3_s2_pool2/3x3_s2_0_split -> pool2/3x3_s2_pool2/3x3_s2_0_split_3
I0403 14:56:16.852200 11412 net.cpp:141] Setting up pool2/3x3_s2_pool2/3x3_s2_0_split
I0403 14:56:16.852222 11412 net.cpp:148] Top shape: 24 192 28 28 (3612672)
I0403 14:56:16.852239 11412 net.cpp:148] Top shape: 24 192 28 28 (3612672)
I0403 14:56:16.852255 11412 net.cpp:148] Top shape: 24 192 28 28 (3612672)
I0403 14:56:16.852269 11412 net.cpp:148] Top shape: 24 192 28 28 (3612672)
I0403 14:56:16.852283 11412 net.cpp:156] Memory required for data: 491324448
I0403 14:56:16.852298 11412 layer_factory.hpp:77] Creating layer inception_3a/1x1
I0403 14:56:16.852319 11412 net.cpp:91] Creating Layer inception_3a/1x1
I0403 14:56:16.852336 11412 net.cpp:425] inception_3a/1x1 <- pool2/3x3_s2_pool2/3x3_s2_0_split_0
I0403 14:56:16.852355 11412 net.cpp:399] inception_3a/1x1 -> inception_3a/1x1
I0403 14:56:16.854006 11412 net.cpp:141] Setting up inception_3a/1x1
I0403 14:56:16.854037 11412 net.cpp:148] Top shape: 24 64 28 28 (1204224)
I0403 14:56:16.854053 11412 net.cpp:156] Memory required for data: 496141344
I0403 14:56:16.854071 11412 layer_factory.hpp:77] Creating layer inception_3a/relu_1x1
I0403 14:56:16.854092 11412 net.cpp:91] Creating Layer inception_3a/relu_1x1
I0403 14:56:16.854110 11412 net.cpp:425] inception_3a/relu_1x1 <- inception_3a/1x1
I0403 14:56:16.854126 11412 net.cpp:386] inception_3a/relu_1x1 -> inception_3a/1x1 (in-place)
I0403 14:56:16.854302 11412 net.cpp:141] Setting up inception_3a/relu_1x1
I0403 14:56:16.854331 11412 net.cpp:148] Top shape: 24 64 28 28 (1204224)
I0403 14:56:16.854346 11412 net.cpp:156] Memory required for data: 500958240
I0403 14:56:16.854362 11412 layer_factory.hpp:77] Creating layer inception_3a/3x3_reduce
I0403 14:56:16.854383 11412 net.cpp:91] Creating Layer inception_3a/3x3_reduce
I0403 14:56:16.854401 11412 net.cpp:425] inception_3a/3x3_reduce <- pool2/3x3_s2_pool2/3x3_s2_0_split_1
I0403 14:56:16.854425 11412 net.cpp:399] inception_3a/3x3_reduce -> inception_3a/3x3_reduce
I0403 14:56:16.856158 11412 net.cpp:141] Setting up inception_3a/3x3_reduce
I0403 14:56:16.856189 11412 net.cpp:148] Top shape: 24 96 28 28 (1806336)
I0403 14:56:16.856204 11412 net.cpp:156] Memory required for data: 508183584
I0403 14:56:16.856228 11412 layer_factory.hpp:77] Creating layer inception_3a/relu_3x3_reduce
I0403 14:56:16.856264 11412 net.cpp:91] Creating Layer inception_3a/relu_3x3_reduce
I0403 14:56:16.856282 11412 net.cpp:425] inception_3a/relu_3x3_reduce <- inception_3a/3x3_reduce
I0403 14:56:16.856302 11412 net.cpp:386] inception_3a/relu_3x3_reduce -> inception_3a/3x3_reduce (in-place)
I0403 14:56:16.856492 11412 net.cpp:141] Setting up inception_3a/relu_3x3_reduce
I0403 14:56:16.856518 11412 net.cpp:148] Top shape: 24 96 28 28 (1806336)
I0403 14:56:16.856533 11412 net.cpp:156] Memory required for data: 515408928
I0403 14:56:16.856547 11412 layer_factory.hpp:77] Creating layer inception_3a/3x3
I0403 14:56:16.856570 11412 net.cpp:91] Creating Layer inception_3a/3x3
I0403 14:56:16.856600 11412 net.cpp:425] inception_3a/3x3 <- inception_3a/3x3_reduce
I0403 14:56:16.856622 11412 net.cpp:399] inception_3a/3x3 -> inception_3a/3x3
I0403 14:56:16.858324 11412 net.cpp:141] Setting up inception_3a/3x3
I0403 14:56:16.858352 11412 net.cpp:148] Top shape: 24 128 28 28 (2408448)
I0403 14:56:16.858367 11412 net.cpp:156] Memory required for data: 525042720
I0403 14:56:16.858386 11412 layer_factory.hpp:77] Creating layer inception_3a/relu_3x3
I0403 14:56:16.858409 11412 net.cpp:91] Creating Layer inception_3a/relu_3x3
I0403 14:56:16.858433 11412 net.cpp:425] inception_3a/relu_3x3 <- inception_3a/3x3
I0403 14:56:16.858449 11412 net.cpp:386] inception_3a/relu_3x3 -> inception_3a/3x3 (in-place)
I0403 14:56:16.858731 11412 net.cpp:141] Setting up inception_3a/relu_3x3
I0403 14:56:16.858757 11412 net.cpp:148] Top shape: 24 128 28 28 (2408448)
I0403 14:56:16.858772 11412 net.cpp:156] Memory required for data: 534676512
I0403 14:56:16.858788 11412 layer_factory.hpp:77] Creating layer inception_3a/5x5_reduce
I0403 14:56:16.858813 11412 net.cpp:91] Creating Layer inception_3a/5x5_reduce
I0403 14:56:16.858830 11412 net.cpp:425] inception_3a/5x5_reduce <- pool2/3x3_s2_pool2/3x3_s2_0_split_2
I0403 14:56:16.858850 11412 net.cpp:399] inception_3a/5x5_reduce -> inception_3a/5x5_reduce
I0403 14:56:16.859824 11412 net.cpp:141] Setting up inception_3a/5x5_reduce
I0403 14:56:16.859855 11412 net.cpp:148] Top shape: 24 16 28 28 (301056)
I0403 14:56:16.859872 11412 net.cpp:156] Memory required for data: 535880736
I0403 14:56:16.859891 11412 layer_factory.hpp:77] Creating layer inception_3a/relu_5x5_reduce
I0403 14:56:16.859910 11412 net.cpp:91] Creating Layer inception_3a/relu_5x5_reduce
I0403 14:56:16.859925 11412 net.cpp:425] inception_3a/relu_5x5_reduce <- inception_3a/5x5_reduce
I0403 14:56:16.859946 11412 net.cpp:386] inception_3a/relu_5x5_reduce -> inception_3a/5x5_reduce (in-place)
I0403 14:56:16.860246 11412 net.cpp:141] Setting up inception_3a/relu_5x5_reduce
I0403 14:56:16.860275 11412 net.cpp:148] Top shape: 24 16 28 28 (301056)
I0403 14:56:16.860291 11412 net.cpp:156] Memory required for data: 537084960
I0403 14:56:16.860306 11412 layer_factory.hpp:77] Creating layer inception_3a/5x5
I0403 14:56:16.860328 11412 net.cpp:91] Creating Layer inception_3a/5x5
I0403 14:56:16.860347 11412 net.cpp:425] inception_3a/5x5 <- inception_3a/5x5_reduce
I0403 14:56:16.860369 11412 net.cpp:399] inception_3a/5x5 -> inception_3a/5x5
I0403 14:56:16.861474 11412 net.cpp:141] Setting up inception_3a/5x5
I0403 14:56:16.861503 11412 net.cpp:148] Top shape: 24 32 28 28 (602112)
I0403 14:56:16.861520 11412 net.cpp:156] Memory required for data: 539493408
I0403 14:56:16.861537 11412 layer_factory.hpp:77] Creating layer inception_3a/relu_5x5
I0403 14:56:16.861558 11412 net.cpp:91] Creating Layer inception_3a/relu_5x5
I0403 14:56:16.861577 11412 net.cpp:425] inception_3a/relu_5x5 <- inception_3a/5x5
I0403 14:56:16.861594 11412 net.cpp:386] inception_3a/relu_5x5 -> inception_3a/5x5 (in-place)
I0403 14:56:16.861774 11412 net.cpp:141] Setting up inception_3a/relu_5x5
I0403 14:56:16.861801 11412 net.cpp:148] Top shape: 24 32 28 28 (602112)
I0403 14:56:16.861817 11412 net.cpp:156] Memory required for data: 541901856
I0403 14:56:16.861832 11412 layer_factory.hpp:77] Creating layer inception_3a/pool
I0403 14:56:16.861850 11412 net.cpp:91] Creating Layer inception_3a/pool
I0403 14:56:16.861881 11412 net.cpp:425] inception_3a/pool <- pool2/3x3_s2_pool2/3x3_s2_0_split_3
I0403 14:56:16.861902 11412 net.cpp:399] inception_3a/pool -> inception_3a/pool
I0403 14:56:16.861961 11412 net.cpp:141] Setting up inception_3a/pool
I0403 14:56:16.861985 11412 net.cpp:148] Top shape: 24 192 28 28 (3612672)
I0403 14:56:16.862000 11412 net.cpp:156] Memory required for data: 556352544
I0403 14:56:16.862015 11412 layer_factory.hpp:77] Creating layer inception_3a/pool_proj
I0403 14:56:16.862038 11412 net.cpp:91] Creating Layer inception_3a/pool_proj
I0403 14:56:16.862058 11412 net.cpp:425] inception_3a/pool_proj <- inception_3a/pool
I0403 14:56:16.862077 11412 net.cpp:399] inception_3a/pool_proj -> inception_3a/pool_proj
I0403 14:56:16.863066 11412 net.cpp:141] Setting up inception_3a/pool_proj
I0403 14:56:16.863095 11412 net.cpp:148] Top shape: 24 32 28 28 (602112)
I0403 14:56:16.863111 11412 net.cpp:156] Memory required for data: 558760992
I0403 14:56:16.863136 11412 layer_factory.hpp:77] Creating layer inception_3a/relu_pool_proj
I0403 14:56:16.863154 11412 net.cpp:91] Creating Layer inception_3a/relu_pool_proj
I0403 14:56:16.863171 11412 net.cpp:425] inception_3a/relu_pool_proj <- inception_3a/pool_proj
I0403 14:56:16.863190 11412 net.cpp:386] inception_3a/relu_pool_proj -> inception_3a/pool_proj (in-place)
I0403 14:56:16.863472 11412 net.cpp:141] Setting up inception_3a/relu_pool_proj
I0403 14:56:16.863499 11412 net.cpp:148] Top shape: 24 32 28 28 (602112)
I0403 14:56:16.863514 11412 net.cpp:156] Memory required for data: 561169440
I0403 14:56:16.863529 11412 layer_factory.hpp:77] Creating layer inception_3a/output
I0403 14:56:16.863550 11412 net.cpp:91] Creating Layer inception_3a/output
I0403 14:56:16.863567 11412 net.cpp:425] inception_3a/output <- inception_3a/1x1
I0403 14:56:16.863584 11412 net.cpp:425] inception_3a/output <- inception_3a/3x3
I0403 14:56:16.863600 11412 net.cpp:425] inception_3a/output <- inception_3a/5x5
I0403 14:56:16.863616 11412 net.cpp:425] inception_3a/output <- inception_3a/pool_proj
I0403 14:56:16.863633 11412 net.cpp:399] inception_3a/output -> inception_3a/output
I0403 14:56:16.863682 11412 net.cpp:141] Setting up inception_3a/output
I0403 14:56:16.863705 11412 net.cpp:148] Top shape: 24 256 28 28 (4816896)
I0403 14:56:16.863720 11412 net.cpp:156] Memory required for data: 580437024
I0403 14:56:16.863734 11412 layer_factory.hpp:77] Creating layer inception_3a/output_inception_3a/output_0_split
I0403 14:56:16.863751 11412 net.cpp:91] Creating Layer inception_3a/output_inception_3a/output_0_split
I0403 14:56:16.863767 11412 net.cpp:425] inception_3a/output_inception_3a/output_0_split <- inception_3a/output
I0403 14:56:16.863786 11412 net.cpp:399] inception_3a/output_inception_3a/output_0_split -> inception_3a/output_inception_3a/output_0_split_0
I0403 14:56:16.863807 11412 net.cpp:399] inception_3a/output_inception_3a/output_0_split -> inception_3a/output_inception_3a/output_0_split_1
I0403 14:56:16.863833 11412 net.cpp:399] inception_3a/output_inception_3a/output_0_split -> inception_3a/output_inception_3a/output_0_split_2
I0403 14:56:16.863855 11412 net.cpp:399] inception_3a/output_inception_3a/output_0_split -> inception_3a/output_inception_3a/output_0_split_3
I0403 14:56:16.863930 11412 net.cpp:141] Setting up inception_3a/output_inception_3a/output_0_split
I0403 14:56:16.863953 11412 net.cpp:148] Top shape: 24 256 28 28 (4816896)
I0403 14:56:16.863973 11412 net.cpp:148] Top shape: 24 256 28 28 (4816896)
I0403 14:56:16.863989 11412 net.cpp:148] Top shape: 24 256 28 28 (4816896)
I0403 14:56:16.864006 11412 net.cpp:148] Top shape: 24 256 28 28 (4816896)
I0403 14:56:16.864018 11412 net.cpp:156] Memory required for data: 657507360
I0403 14:56:16.864032 11412 layer_factory.hpp:77] Creating layer inception_3b/1x1
I0403 14:56:16.864053 11412 net.cpp:91] Creating Layer inception_3b/1x1
I0403 14:56:16.864070 11412 net.cpp:425] inception_3b/1x1 <- inception_3a/output_inception_3a/output_0_split_0
I0403 14:56:16.864091 11412 net.cpp:399] inception_3b/1x1 -> inception_3b/1x1
I0403 14:56:16.865244 11412 net.cpp:141] Setting up inception_3b/1x1
I0403 14:56:16.865285 11412 net.cpp:148] Top shape: 24 128 28 28 (2408448)
I0403 14:56:16.865301 11412 net.cpp:156] Memory required for data: 667141152
I0403 14:56:16.865320 11412 layer_factory.hpp:77] Creating layer inception_3b/relu_1x1
I0403 14:56:16.865341 11412 net.cpp:91] Creating Layer inception_3b/relu_1x1
I0403 14:56:16.865360 11412 net.cpp:425] inception_3b/relu_1x1 <- inception_3b/1x1
I0403 14:56:16.865376 11412 net.cpp:386] inception_3b/relu_1x1 -> inception_3b/1x1 (in-place)
I0403 14:56:16.865561 11412 net.cpp:141] Setting up inception_3b/relu_1x1
I0403 14:56:16.865587 11412 net.cpp:148] Top shape: 24 128 28 28 (2408448)
I0403 14:56:16.865602 11412 net.cpp:156] Memory required for data: 676774944
I0403 14:56:16.865617 11412 layer_factory.hpp:77] Creating layer inception_3b/3x3_reduce
I0403 14:56:16.865640 11412 net.cpp:91] Creating Layer inception_3b/3x3_reduce
I0403 14:56:16.865659 11412 net.cpp:425] inception_3b/3x3_reduce <- inception_3a/output_inception_3a/output_0_split_1
I0403 14:56:16.865679 11412 net.cpp:399] inception_3b/3x3_reduce -> inception_3b/3x3_reduce
I0403 14:56:16.866834 11412 net.cpp:141] Setting up inception_3b/3x3_reduce
I0403 14:56:16.866863 11412 net.cpp:148] Top shape: 24 128 28 28 (2408448)
I0403 14:56:16.866879 11412 net.cpp:156] Memory required for data: 686408736
I0403 14:56:16.866897 11412 layer_factory.hpp:77] Creating layer inception_3b/relu_3x3_reduce
I0403 14:56:16.866917 11412 net.cpp:91] Creating Layer inception_3b/relu_3x3_reduce
I0403 14:56:16.866935 11412 net.cpp:425] inception_3b/relu_3x3_reduce <- inception_3b/3x3_reduce
I0403 14:56:16.866952 11412 net.cpp:386] inception_3b/relu_3x3_reduce -> inception_3b/3x3_reduce (in-place)
I0403 14:56:16.867127 11412 net.cpp:141] Setting up inception_3b/relu_3x3_reduce
I0403 14:56:16.867154 11412 net.cpp:148] Top shape: 24 128 28 28 (2408448)
I0403 14:56:16.867171 11412 net.cpp:156] Memory required for data: 696042528
I0403 14:56:16.867185 11412 layer_factory.hpp:77] Creating layer inception_3b/3x3
I0403 14:56:16.867210 11412 net.cpp:91] Creating Layer inception_3b/3x3
I0403 14:56:16.867228 11412 net.cpp:425] inception_3b/3x3 <- inception_3b/3x3_reduce
I0403 14:56:16.867250 11412 net.cpp:399] inception_3b/3x3 -> inception_3b/3x3
I0403 14:56:16.870213 11412 net.cpp:141] Setting up inception_3b/3x3
I0403 14:56:16.870241 11412 net.cpp:148] Top shape: 24 192 28 28 (3612672)
I0403 14:56:16.870256 11412 net.cpp:156] Memory required for data: 710493216
I0403 14:56:16.870275 11412 layer_factory.hpp:77] Creating layer inception_3b/relu_3x3
I0403 14:56:16.870296 11412 net.cpp:91] Creating Layer inception_3b/relu_3x3
I0403 14:56:16.870313 11412 net.cpp:425] inception_3b/relu_3x3 <- inception_3b/3x3
I0403 14:56:16.870331 11412 net.cpp:386] inception_3b/relu_3x3 -> inception_3b/3x3 (in-place)
I0403 14:56:16.870615 11412 net.cpp:141] Setting up inception_3b/relu_3x3
I0403 14:56:16.870642 11412 net.cpp:148] Top shape: 24 192 28 28 (3612672)
I0403 14:56:16.870657 11412 net.cpp:156] Memory required for data: 724943904
I0403 14:56:16.870671 11412 layer_factory.hpp:77] Creating layer inception_3b/5x5_reduce
I0403 14:56:16.870697 11412 net.cpp:91] Creating Layer inception_3b/5x5_reduce
I0403 14:56:16.870714 11412 net.cpp:425] inception_3b/5x5_reduce <- inception_3a/output_inception_3a/output_0_split_2
I0403 14:56:16.870734 11412 net.cpp:399] inception_3b/5x5_reduce -> inception_3b/5x5_reduce
I0403 14:56:16.871752 11412 net.cpp:141] Setting up inception_3b/5x5_reduce
I0403 14:56:16.871779 11412 net.cpp:148] Top shape: 24 32 28 28 (602112)
I0403 14:56:16.871794 11412 net.cpp:156] Memory required for data: 727352352
I0403 14:56:16.871811 11412 layer_factory.hpp:77] Creating layer inception_3b/relu_5x5_reduce
I0403 14:56:16.871832 11412 net.cpp:91] Creating Layer inception_3b/relu_5x5_reduce
I0403 14:56:16.871850 11412 net.cpp:425] inception_3b/relu_5x5_reduce <- inception_3b/5x5_reduce
I0403 14:56:16.871866 11412 net.cpp:386] inception_3b/relu_5x5_reduce -> inception_3b/5x5_reduce (in-place)
I0403 14:56:16.872054 11412 net.cpp:141] Setting up inception_3b/relu_5x5_reduce
I0403 14:56:16.872081 11412 net.cpp:148] Top shape: 24 32 28 28 (602112)
I0403 14:56:16.872094 11412 net.cpp:156] Memory required for data: 729760800
I0403 14:56:16.872108 11412 layer_factory.hpp:77] Creating layer inception_3b/5x5
I0403 14:56:16.872130 11412 net.cpp:91] Creating Layer inception_3b/5x5
I0403 14:56:16.872148 11412 net.cpp:425] inception_3b/5x5 <- inception_3b/5x5_reduce
I0403 14:56:16.872169 11412 net.cpp:399] inception_3b/5x5 -> inception_3b/5x5
I0403 14:56:16.874135 11412 net.cpp:141] Setting up inception_3b/5x5
I0403 14:56:16.874162 11412 net.cpp:148] Top shape: 24 96 28 28 (1806336)
I0403 14:56:16.874177 11412 net.cpp:156] Memory required for data: 736986144
I0403 14:56:16.874194 11412 layer_factory.hpp:77] Creating layer inception_3b/relu_5x5
I0403 14:56:16.874214 11412 net.cpp:91] Creating Layer inception_3b/relu_5x5
I0403 14:56:16.874230 11412 net.cpp:425] inception_3b/relu_5x5 <- inception_3b/5x5
I0403 14:56:16.874248 11412 net.cpp:386] inception_3b/relu_5x5 -> inception_3b/5x5 (in-place)
I0403 14:56:16.874436 11412 net.cpp:141] Setting up inception_3b/relu_5x5
I0403 14:56:16.874459 11412 net.cpp:148] Top shape: 24 96 28 28 (1806336)
I0403 14:56:16.874474 11412 net.cpp:156] Memory required for data: 744211488
I0403 14:56:16.874487 11412 layer_factory.hpp:77] Creating layer inception_3b/pool
I0403 14:56:16.874505 11412 net.cpp:91] Creating Layer inception_3b/pool
I0403 14:56:16.874519 11412 net.cpp:425] inception_3b/pool <- inception_3a/output_inception_3a/output_0_split_3
I0403 14:56:16.874536 11412 net.cpp:399] inception_3b/pool -> inception_3b/pool
I0403 14:56:16.874589 11412 net.cpp:141] Setting up inception_3b/pool
I0403 14:56:16.874611 11412 net.cpp:148] Top shape: 24 256 28 28 (4816896)
I0403 14:56:16.874625 11412 net.cpp:156] Memory required for data: 763479072
I0403 14:56:16.874639 11412 layer_factory.hpp:77] Creating layer inception_3b/pool_proj
I0403 14:56:16.874660 11412 net.cpp:91] Creating Layer inception_3b/pool_proj
I0403 14:56:16.874676 11412 net.cpp:425] inception_3b/pool_proj <- inception_3b/pool
I0403 14:56:16.874696 11412 net.cpp:399] inception_3b/pool_proj -> inception_3b/pool_proj
I0403 14:56:16.875707 11412 net.cpp:141] Setting up inception_3b/pool_proj
I0403 14:56:16.875735 11412 net.cpp:148] Top shape: 24 64 28 28 (1204224)
I0403 14:56:16.875748 11412 net.cpp:156] Memory required for data: 768295968
I0403 14:56:16.875766 11412 layer_factory.hpp:77] Creating layer inception_3b/relu_pool_proj
I0403 14:56:16.875783 11412 net.cpp:91] Creating Layer inception_3b/relu_pool_proj
I0403 14:56:16.875798 11412 net.cpp:425] inception_3b/relu_pool_proj <- inception_3b/pool_proj
I0403 14:56:16.875820 11412 net.cpp:386] inception_3b/relu_pool_proj -> inception_3b/pool_proj (in-place)
I0403 14:56:16.876199 11412 net.cpp:141] Setting up inception_3b/relu_pool_proj
I0403 14:56:16.876227 11412 net.cpp:148] Top shape: 24 64 28 28 (1204224)
I0403 14:56:16.876242 11412 net.cpp:156] Memory required for data: 773112864
I0403 14:56:16.876256 11412 layer_factory.hpp:77] Creating layer inception_3b/output
I0403 14:56:16.876273 11412 net.cpp:91] Creating Layer inception_3b/output
I0403 14:56:16.876288 11412 net.cpp:425] inception_3b/output <- inception_3b/1x1
I0403 14:56:16.876304 11412 net.cpp:425] inception_3b/output <- inception_3b/3x3
I0403 14:56:16.876319 11412 net.cpp:425] inception_3b/output <- inception_3b/5x5
I0403 14:56:16.876334 11412 net.cpp:425] inception_3b/output <- inception_3b/pool_proj
I0403 14:56:16.876353 11412 net.cpp:399] inception_3b/output -> inception_3b/output
I0403 14:56:16.876395 11412 net.cpp:141] Setting up inception_3b/output
I0403 14:56:16.876421 11412 net.cpp:148] Top shape: 24 480 28 28 (9031680)
I0403 14:56:16.876436 11412 net.cpp:156] Memory required for data: 809239584
I0403 14:56:16.876451 11412 layer_factory.hpp:77] Creating layer pool3/3x3_s2
I0403 14:56:16.876469 11412 net.cpp:91] Creating Layer pool3/3x3_s2
I0403 14:56:16.876485 11412 net.cpp:425] pool3/3x3_s2 <- inception_3b/output
I0403 14:56:16.876518 11412 net.cpp:399] pool3/3x3_s2 -> pool3/3x3_s2
I0403 14:56:16.876574 11412 net.cpp:141] Setting up pool3/3x3_s2
I0403 14:56:16.876597 11412 net.cpp:148] Top shape: 24 480 14 14 (2257920)
I0403 14:56:16.876611 11412 net.cpp:156] Memory required for data: 818271264
I0403 14:56:16.876626 11412 layer_factory.hpp:77] Creating layer pool3/3x3_s2_pool3/3x3_s2_0_split
I0403 14:56:16.876642 11412 net.cpp:91] Creating Layer pool3/3x3_s2_pool3/3x3_s2_0_split
I0403 14:56:16.876657 11412 net.cpp:425] pool3/3x3_s2_pool3/3x3_s2_0_split <- pool3/3x3_s2
I0403 14:56:16.876675 11412 net.cpp:399] pool3/3x3_s2_pool3/3x3_s2_0_split -> pool3/3x3_s2_pool3/3x3_s2_0_split_0
I0403 14:56:16.876695 11412 net.cpp:399] pool3/3x3_s2_pool3/3x3_s2_0_split -> pool3/3x3_s2_pool3/3x3_s2_0_split_1
I0403 14:56:16.876714 11412 net.cpp:399] pool3/3x3_s2_pool3/3x3_s2_0_split -> pool3/3x3_s2_pool3/3x3_s2_0_split_2
I0403 14:56:16.876732 11412 net.cpp:399] pool3/3x3_s2_pool3/3x3_s2_0_split -> pool3/3x3_s2_pool3/3x3_s2_0_split_3
I0403 14:56:16.876806 11412 net.cpp:141] Setting up pool3/3x3_s2_pool3/3x3_s2_0_split
I0403 14:56:16.876827 11412 net.cpp:148] Top shape: 24 480 14 14 (2257920)
I0403 14:56:16.876842 11412 net.cpp:148] Top shape: 24 480 14 14 (2257920)
I0403 14:56:16.876857 11412 net.cpp:148] Top shape: 24 480 14 14 (2257920)
I0403 14:56:16.876871 11412 net.cpp:148] Top shape: 24 480 14 14 (2257920)
I0403 14:56:16.876884 11412 net.cpp:156] Memory required for data: 854397984
I0403 14:56:16.876898 11412 layer_factory.hpp:77] Creating layer inception_4a/1x1
I0403 14:56:16.876919 11412 net.cpp:91] Creating Layer inception_4a/1x1
I0403 14:56:16.876935 11412 net.cpp:425] inception_4a/1x1 <- pool3/3x3_s2_pool3/3x3_s2_0_split_0
I0403 14:56:16.876955 11412 net.cpp:399] inception_4a/1x1 -> inception_4a/1x1
I0403 14:56:16.878461 11412 net.cpp:141] Setting up inception_4a/1x1
I0403 14:56:16.878489 11412 net.cpp:148] Top shape: 24 192 14 14 (903168)
I0403 14:56:16.878504 11412 net.cpp:156] Memory required for data: 858010656
I0403 14:56:16.878520 11412 layer_factory.hpp:77] Creating layer inception_4a/relu_1x1
I0403 14:56:16.878537 11412 net.cpp:91] Creating Layer inception_4a/relu_1x1
I0403 14:56:16.878553 11412 net.cpp:425] inception_4a/relu_1x1 <- inception_4a/1x1
I0403 14:56:16.878572 11412 net.cpp:386] inception_4a/relu_1x1 -> inception_4a/1x1 (in-place)
I0403 14:56:16.878741 11412 net.cpp:141] Setting up inception_4a/relu_1x1
I0403 14:56:16.878764 11412 net.cpp:148] Top shape: 24 192 14 14 (903168)
I0403 14:56:16.878778 11412 net.cpp:156] Memory required for data: 861623328
I0403 14:56:16.878793 11412 layer_factory.hpp:77] Creating layer inception_4a/3x3_reduce
I0403 14:56:16.878813 11412 net.cpp:91] Creating Layer inception_4a/3x3_reduce
I0403 14:56:16.878829 11412 net.cpp:425] inception_4a/3x3_reduce <- pool3/3x3_s2_pool3/3x3_s2_0_split_1
I0403 14:56:16.878849 11412 net.cpp:399] inception_4a/3x3_reduce -> inception_4a/3x3_reduce
I0403 14:56:16.880172 11412 net.cpp:141] Setting up inception_4a/3x3_reduce
I0403 14:56:16.880203 11412 net.cpp:148] Top shape: 24 96 14 14 (451584)
I0403 14:56:16.880218 11412 net.cpp:156] Memory required for data: 863429664
I0403 14:56:16.880244 11412 layer_factory.hpp:77] Creating layer inception_4a/relu_3x3_reduce
I0403 14:56:16.880265 11412 net.cpp:91] Creating Layer inception_4a/relu_3x3_reduce
I0403 14:56:16.880281 11412 net.cpp:425] inception_4a/relu_3x3_reduce <- inception_4a/3x3_reduce
I0403 14:56:16.880302 11412 net.cpp:386] inception_4a/relu_3x3_reduce -> inception_4a/3x3_reduce (in-place)
I0403 14:56:16.880513 11412 net.cpp:141] Setting up inception_4a/relu_3x3_reduce
I0403 14:56:16.880540 11412 net.cpp:148] Top shape: 24 96 14 14 (451584)
I0403 14:56:16.880556 11412 net.cpp:156] Memory required for data: 865236000
I0403 14:56:16.880571 11412 layer_factory.hpp:77] Creating layer inception_4a/3x3
I0403 14:56:16.880594 11412 net.cpp:91] Creating Layer inception_4a/3x3
I0403 14:56:16.880614 11412 net.cpp:425] inception_4a/3x3 <- inception_4a/3x3_reduce
I0403 14:56:16.880635 11412 net.cpp:399] inception_4a/3x3 -> inception_4a/3x3
I0403 14:56:16.883518 11412 net.cpp:141] Setting up inception_4a/3x3
I0403 14:56:16.883548 11412 net.cpp:148] Top shape: 24 208 14 14 (978432)
I0403 14:56:16.883563 11412 net.cpp:156] Memory required for data: 869149728
I0403 14:56:16.883580 11412 layer_factory.hpp:77] Creating layer inception_4a/relu_3x3
I0403 14:56:16.883600 11412 net.cpp:91] Creating Layer inception_4a/relu_3x3
I0403 14:56:16.883617 11412 net.cpp:425] inception_4a/relu_3x3 <- inception_4a/3x3
I0403 14:56:16.883635 11412 net.cpp:386] inception_4a/relu_3x3 -> inception_4a/3x3 (in-place)
I0403 14:56:16.883934 11412 net.cpp:141] Setting up inception_4a/relu_3x3
I0403 14:56:16.883961 11412 net.cpp:148] Top shape: 24 208 14 14 (978432)
I0403 14:56:16.883976 11412 net.cpp:156] Memory required for data: 873063456
I0403 14:56:16.883991 11412 layer_factory.hpp:77] Creating layer inception_4a/5x5_reduce
I0403 14:56:16.884014 11412 net.cpp:91] Creating Layer inception_4a/5x5_reduce
I0403 14:56:16.884032 11412 net.cpp:425] inception_4a/5x5_reduce <- pool3/3x3_s2_pool3/3x3_s2_0_split_2
I0403 14:56:16.884054 11412 net.cpp:399] inception_4a/5x5_reduce -> inception_4a/5x5_reduce
I0403 14:56:16.885174 11412 net.cpp:141] Setting up inception_4a/5x5_reduce
I0403 14:56:16.885202 11412 net.cpp:148] Top shape: 24 16 14 14 (75264)
I0403 14:56:16.885217 11412 net.cpp:156] Memory required for data: 873364512
I0403 14:56:16.885236 11412 layer_factory.hpp:77] Creating layer inception_4a/relu_5x5_reduce
I0403 14:56:16.885256 11412 net.cpp:91] Creating Layer inception_4a/relu_5x5_reduce
I0403 14:56:16.885272 11412 net.cpp:425] inception_4a/relu_5x5_reduce <- inception_4a/5x5_reduce
I0403 14:56:16.885289 11412 net.cpp:386] inception_4a/relu_5x5_reduce -> inception_4a/5x5_reduce (in-place)
I0403 14:56:16.885471 11412 net.cpp:141] Setting up inception_4a/relu_5x5_reduce
I0403 14:56:16.885499 11412 net.cpp:148] Top shape: 24 16 14 14 (75264)
I0403 14:56:16.885514 11412 net.cpp:156] Memory required for data: 873665568
I0403 14:56:16.885527 11412 layer_factory.hpp:77] Creating layer inception_4a/5x5
I0403 14:56:16.885550 11412 net.cpp:91] Creating Layer inception_4a/5x5
I0403 14:56:16.885567 11412 net.cpp:425] inception_4a/5x5 <- inception_4a/5x5_reduce
I0403 14:56:16.885599 11412 net.cpp:399] inception_4a/5x5 -> inception_4a/5x5
I0403 14:56:16.886773 11412 net.cpp:141] Setting up inception_4a/5x5
I0403 14:56:16.886816 11412 net.cpp:148] Top shape: 24 48 14 14 (225792)
I0403 14:56:16.886832 11412 net.cpp:156] Memory required for data: 874568736
I0403 14:56:16.886852 11412 layer_factory.hpp:77] Creating layer inception_4a/relu_5x5
I0403 14:56:16.886872 11412 net.cpp:91] Creating Layer inception_4a/relu_5x5
I0403 14:56:16.886899 11412 net.cpp:425] inception_4a/relu_5x5 <- inception_4a/5x5
I0403 14:56:16.886919 11412 net.cpp:386] inception_4a/relu_5x5 -> inception_4a/5x5 (in-place)
I0403 14:56:16.887115 11412 net.cpp:141] Setting up inception_4a/relu_5x5
I0403 14:56:16.887140 11412 net.cpp:148] Top shape: 24 48 14 14 (225792)
I0403 14:56:16.887153 11412 net.cpp:156] Memory required for data: 875471904
I0403 14:56:16.887168 11412 layer_factory.hpp:77] Creating layer inception_4a/pool
I0403 14:56:16.887186 11412 net.cpp:91] Creating Layer inception_4a/pool
I0403 14:56:16.887202 11412 net.cpp:425] inception_4a/pool <- pool3/3x3_s2_pool3/3x3_s2_0_split_3
I0403 14:56:16.887233 11412 net.cpp:399] inception_4a/pool -> inception_4a/pool
I0403 14:56:16.887295 11412 net.cpp:141] Setting up inception_4a/pool
I0403 14:56:16.887318 11412 net.cpp:148] Top shape: 24 480 14 14 (2257920)
I0403 14:56:16.887332 11412 net.cpp:156] Memory required for data: 884503584
I0403 14:56:16.887347 11412 layer_factory.hpp:77] Creating layer inception_4a/pool_proj
I0403 14:56:16.887372 11412 net.cpp:91] Creating Layer inception_4a/pool_proj
I0403 14:56:16.887389 11412 net.cpp:425] inception_4a/pool_proj <- inception_4a/pool
I0403 14:56:16.887408 11412 net.cpp:399] inception_4a/pool_proj -> inception_4a/pool_proj
I0403 14:56:16.888679 11412 net.cpp:141] Setting up inception_4a/pool_proj
I0403 14:56:16.888707 11412 net.cpp:148] Top shape: 24 64 14 14 (301056)
I0403 14:56:16.888739 11412 net.cpp:156] Memory required for data: 885707808
I0403 14:56:16.888759 11412 layer_factory.hpp:77] Creating layer inception_4a/relu_pool_proj
I0403 14:56:16.888778 11412 net.cpp:91] Creating Layer inception_4a/relu_pool_proj
I0403 14:56:16.888794 11412 net.cpp:425] inception_4a/relu_pool_proj <- inception_4a/pool_proj
I0403 14:56:16.888814 11412 net.cpp:386] inception_4a/relu_pool_proj -> inception_4a/pool_proj (in-place)
I0403 14:56:16.889116 11412 net.cpp:141] Setting up inception_4a/relu_pool_proj
I0403 14:56:16.889143 11412 net.cpp:148] Top shape: 24 64 14 14 (301056)
I0403 14:56:16.889158 11412 net.cpp:156] Memory required for data: 886912032
I0403 14:56:16.889174 11412 layer_factory.hpp:77] Creating layer inception_4a/output
I0403 14:56:16.889194 11412 net.cpp:91] Creating Layer inception_4a/output
I0403 14:56:16.889209 11412 net.cpp:425] inception_4a/output <- inception_4a/1x1
I0403 14:56:16.889237 11412 net.cpp:425] inception_4a/output <- inception_4a/3x3
I0403 14:56:16.889252 11412 net.cpp:425] inception_4a/output <- inception_4a/5x5
I0403 14:56:16.889268 11412 net.cpp:425] inception_4a/output <- inception_4a/pool_proj
I0403 14:56:16.889288 11412 net.cpp:399] inception_4a/output -> inception_4a/output
I0403 14:56:16.889334 11412 net.cpp:141] Setting up inception_4a/output
I0403 14:56:16.889369 11412 net.cpp:148] Top shape: 24 512 14 14 (2408448)
I0403 14:56:16.889384 11412 net.cpp:156] Memory required for data: 896545824
I0403 14:56:16.889397 11412 layer_factory.hpp:77] Creating layer inception_4a/output_inception_4a/output_0_split
I0403 14:56:16.889421 11412 net.cpp:91] Creating Layer inception_4a/output_inception_4a/output_0_split
I0403 14:56:16.889438 11412 net.cpp:425] inception_4a/output_inception_4a/output_0_split <- inception_4a/output
I0403 14:56:16.889458 11412 net.cpp:399] inception_4a/output_inception_4a/output_0_split -> inception_4a/output_inception_4a/output_0_split_0
I0403 14:56:16.889479 11412 net.cpp:399] inception_4a/output_inception_4a/output_0_split -> inception_4a/output_inception_4a/output_0_split_1
I0403 14:56:16.889515 11412 net.cpp:399] inception_4a/output_inception_4a/output_0_split -> inception_4a/output_inception_4a/output_0_split_2
I0403 14:56:16.889539 11412 net.cpp:399] inception_4a/output_inception_4a/output_0_split -> inception_4a/output_inception_4a/output_0_split_3
I0403 14:56:16.889557 11412 net.cpp:399] inception_4a/output_inception_4a/output_0_split -> inception_4a/output_inception_4a/output_0_split_4
I0403 14:56:16.889665 11412 net.cpp:141] Setting up inception_4a/output_inception_4a/output_0_split
I0403 14:56:16.889689 11412 net.cpp:148] Top shape: 24 512 14 14 (2408448)
I0403 14:56:16.889705 11412 net.cpp:148] Top shape: 24 512 14 14 (2408448)
I0403 14:56:16.889720 11412 net.cpp:148] Top shape: 24 512 14 14 (2408448)
I0403 14:56:16.889735 11412 net.cpp:148] Top shape: 24 512 14 14 (2408448)
I0403 14:56:16.889750 11412 net.cpp:148] Top shape: 24 512 14 14 (2408448)
I0403 14:56:16.889765 11412 net.cpp:156] Memory required for data: 944714784
I0403 14:56:16.889778 11412 layer_factory.hpp:77] Creating layer loss1/ave_pool
I0403 14:56:16.889798 11412 net.cpp:91] Creating Layer loss1/ave_pool
I0403 14:56:16.889816 11412 net.cpp:425] loss1/ave_pool <- inception_4a/output_inception_4a/output_0_split_0
I0403 14:56:16.889833 11412 net.cpp:399] loss1/ave_pool -> loss1/ave_pool
I0403 14:56:16.890055 11412 net.cpp:141] Setting up loss1/ave_pool
I0403 14:56:16.890080 11412 net.cpp:148] Top shape: 24 512 4 4 (196608)
I0403 14:56:16.890095 11412 net.cpp:156] Memory required for data: 945501216
I0403 14:56:16.890110 11412 layer_factory.hpp:77] Creating layer loss1/conv
I0403 14:56:16.890131 11412 net.cpp:91] Creating Layer loss1/conv
I0403 14:56:16.890148 11412 net.cpp:425] loss1/conv <- loss1/ave_pool
I0403 14:56:16.890169 11412 net.cpp:399] loss1/conv -> loss1/conv
I0403 14:56:16.891695 11412 net.cpp:141] Setting up loss1/conv
I0403 14:56:16.891728 11412 net.cpp:148] Top shape: 24 128 4 4 (49152)
I0403 14:56:16.891758 11412 net.cpp:156] Memory required for data: 945697824
I0403 14:56:16.891778 11412 layer_factory.hpp:77] Creating layer loss1/relu_conv
I0403 14:56:16.891799 11412 net.cpp:91] Creating Layer loss1/relu_conv
I0403 14:56:16.891816 11412 net.cpp:425] loss1/relu_conv <- loss1/conv
I0403 14:56:16.891834 11412 net.cpp:386] loss1/relu_conv -> loss1/conv (in-place)
I0403 14:56:16.892129 11412 net.cpp:141] Setting up loss1/relu_conv
I0403 14:56:16.892155 11412 net.cpp:148] Top shape: 24 128 4 4 (49152)
I0403 14:56:16.892170 11412 net.cpp:156] Memory required for data: 945894432
I0403 14:56:16.892185 11412 layer_factory.hpp:77] Creating layer loss1/fc
I0403 14:56:16.892210 11412 net.cpp:91] Creating Layer loss1/fc
I0403 14:56:16.892228 11412 net.cpp:425] loss1/fc <- loss1/conv
I0403 14:56:16.892246 11412 net.cpp:399] loss1/fc -> loss1/fc
I0403 14:56:16.910660 11412 net.cpp:141] Setting up loss1/fc
I0403 14:56:16.910696 11412 net.cpp:148] Top shape: 24 1024 (24576)
I0403 14:56:16.910712 11412 net.cpp:156] Memory required for data: 945992736
I0403 14:56:16.910728 11412 layer_factory.hpp:77] Creating layer loss1/relu_fc
I0403 14:56:16.910747 11412 net.cpp:91] Creating Layer loss1/relu_fc
I0403 14:56:16.910761 11412 net.cpp:425] loss1/relu_fc <- loss1/fc
I0403 14:56:16.910780 11412 net.cpp:386] loss1/relu_fc -> loss1/fc (in-place)
I0403 14:56:16.910962 11412 net.cpp:141] Setting up loss1/relu_fc
I0403 14:56:16.910986 11412 net.cpp:148] Top shape: 24 1024 (24576)
I0403 14:56:16.911000 11412 net.cpp:156] Memory required for data: 946091040
I0403 14:56:16.911013 11412 layer_factory.hpp:77] Creating layer loss1/drop_fc
I0403 14:56:16.911042 11412 net.cpp:91] Creating Layer loss1/drop_fc
I0403 14:56:16.911059 11412 net.cpp:425] loss1/drop_fc <- loss1/fc
I0403 14:56:16.911075 11412 net.cpp:386] loss1/drop_fc -> loss1/fc (in-place)
I0403 14:56:16.911124 11412 net.cpp:141] Setting up loss1/drop_fc
I0403 14:56:16.911149 11412 net.cpp:148] Top shape: 24 1024 (24576)
I0403 14:56:16.911164 11412 net.cpp:156] Memory required for data: 946189344
I0403 14:56:16.911178 11412 layer_factory.hpp:77] Creating layer loss1/classifier_plantvillage
I0403 14:56:16.911196 11412 net.cpp:91] Creating Layer loss1/classifier_plantvillage
I0403 14:56:16.911211 11412 net.cpp:425] loss1/classifier_plantvillage <- loss1/fc
I0403 14:56:16.911231 11412 net.cpp:399] loss1/classifier_plantvillage -> loss1/classifier_plantvillage
I0403 14:56:16.912143 11412 net.cpp:141] Setting up loss1/classifier_plantvillage
I0403 14:56:16.912170 11412 net.cpp:148] Top shape: 24 38 (912)
I0403 14:56:16.912185 11412 net.cpp:156] Memory required for data: 946192992
I0403 14:56:16.912202 11412 layer_factory.hpp:77] Creating layer loss1/classifier_plantvillage_loss1/classifier_plantvillage_0_split
I0403 14:56:16.912220 11412 net.cpp:91] Creating Layer loss1/classifier_plantvillage_loss1/classifier_plantvillage_0_split
I0403 14:56:16.912235 11412 net.cpp:425] loss1/classifier_plantvillage_loss1/classifier_plantvillage_0_split <- loss1/classifier_plantvillage
I0403 14:56:16.912255 11412 net.cpp:399] loss1/classifier_plantvillage_loss1/classifier_plantvillage_0_split -> loss1/classifier_plantvillage_loss1/classifier_plantvillage_0_split_0
I0403 14:56:16.912274 11412 net.cpp:399] loss1/classifier_plantvillage_loss1/classifier_plantvillage_0_split -> loss1/classifier_plantvillage_loss1/classifier_plantvillage_0_split_1
I0403 14:56:16.912293 11412 net.cpp:399] loss1/classifier_plantvillage_loss1/classifier_plantvillage_0_split -> loss1/classifier_plantvillage_loss1/classifier_plantvillage_0_split_2
I0403 14:56:16.912359 11412 net.cpp:141] Setting up loss1/classifier_plantvillage_loss1/classifier_plantvillage_0_split
I0403 14:56:16.912381 11412 net.cpp:148] Top shape: 24 38 (912)
I0403 14:56:16.912396 11412 net.cpp:148] Top shape: 24 38 (912)
I0403 14:56:16.912421 11412 net.cpp:148] Top shape: 24 38 (912)
I0403 14:56:16.912437 11412 net.cpp:156] Memory required for data: 946203936
I0403 14:56:16.912452 11412 layer_factory.hpp:77] Creating layer inception_4b/1x1
I0403 14:56:16.912474 11412 net.cpp:91] Creating Layer inception_4b/1x1
I0403 14:56:16.912519 11412 net.cpp:425] inception_4b/1x1 <- inception_4a/output_inception_4a/output_0_split_1
I0403 14:56:16.912539 11412 net.cpp:399] inception_4b/1x1 -> inception_4b/1x1
I0403 14:56:16.914229 11412 net.cpp:141] Setting up inception_4b/1x1
I0403 14:56:16.914258 11412 net.cpp:148] Top shape: 24 160 14 14 (752640)
I0403 14:56:16.914273 11412 net.cpp:156] Memory required for data: 949214496
I0403 14:56:16.914291 11412 layer_factory.hpp:77] Creating layer inception_4b/relu_1x1
I0403 14:56:16.914324 11412 net.cpp:91] Creating Layer inception_4b/relu_1x1
I0403 14:56:16.914340 11412 net.cpp:425] inception_4b/relu_1x1 <- inception_4b/1x1
I0403 14:56:16.914358 11412 net.cpp:386] inception_4b/relu_1x1 -> inception_4b/1x1 (in-place)
I0403 14:56:16.914578 11412 net.cpp:141] Setting up inception_4b/relu_1x1
I0403 14:56:16.914618 11412 net.cpp:148] Top shape: 24 160 14 14 (752640)
I0403 14:56:16.914633 11412 net.cpp:156] Memory required for data: 952225056
I0403 14:56:16.914647 11412 layer_factory.hpp:77] Creating layer inception_4b/3x3_reduce
I0403 14:56:16.914682 11412 net.cpp:91] Creating Layer inception_4b/3x3_reduce
I0403 14:56:16.914700 11412 net.cpp:425] inception_4b/3x3_reduce <- inception_4a/output_inception_4a/output_0_split_2
I0403 14:56:16.914718 11412 net.cpp:399] inception_4b/3x3_reduce -> inception_4b/3x3_reduce
I0403 14:56:16.916129 11412 net.cpp:141] Setting up inception_4b/3x3_reduce
I0403 14:56:16.916159 11412 net.cpp:148] Top shape: 24 112 14 14 (526848)
I0403 14:56:16.916175 11412 net.cpp:156] Memory required for data: 954332448
I0403 14:56:16.916193 11412 layer_factory.hpp:77] Creating layer inception_4b/relu_3x3_reduce
I0403 14:56:16.916211 11412 net.cpp:91] Creating Layer inception_4b/relu_3x3_reduce
I0403 14:56:16.916226 11412 net.cpp:425] inception_4b/relu_3x3_reduce <- inception_4b/3x3_reduce
I0403 14:56:16.916244 11412 net.cpp:386] inception_4b/relu_3x3_reduce -> inception_4b/3x3_reduce (in-place)
I0403 14:56:16.916525 11412 net.cpp:141] Setting up inception_4b/relu_3x3_reduce
I0403 14:56:16.916553 11412 net.cpp:148] Top shape: 24 112 14 14 (526848)
I0403 14:56:16.916568 11412 net.cpp:156] Memory required for data: 956439840
I0403 14:56:16.916584 11412 layer_factory.hpp:77] Creating layer inception_4b/3x3
I0403 14:56:16.916605 11412 net.cpp:91] Creating Layer inception_4b/3x3
I0403 14:56:16.916621 11412 net.cpp:425] inception_4b/3x3 <- inception_4b/3x3_reduce
I0403 14:56:16.916640 11412 net.cpp:399] inception_4b/3x3 -> inception_4b/3x3
I0403 14:56:16.919654 11412 net.cpp:141] Setting up inception_4b/3x3
I0403 14:56:16.919683 11412 net.cpp:148] Top shape: 24 224 14 14 (1053696)
I0403 14:56:16.919698 11412 net.cpp:156] Memory required for data: 960654624
I0403 14:56:16.919715 11412 layer_factory.hpp:77] Creating layer inception_4b/relu_3x3
I0403 14:56:16.919733 11412 net.cpp:91] Creating Layer inception_4b/relu_3x3
I0403 14:56:16.919747 11412 net.cpp:425] inception_4b/relu_3x3 <- inception_4b/3x3
I0403 14:56:16.919765 11412 net.cpp:386] inception_4b/relu_3x3 -> inception_4b/3x3 (in-place)
I0403 14:56:16.919945 11412 net.cpp:141] Setting up inception_4b/relu_3x3
I0403 14:56:16.919968 11412 net.cpp:148] Top shape: 24 224 14 14 (1053696)
I0403 14:56:16.919982 11412 net.cpp:156] Memory required for data: 964869408
I0403 14:56:16.919996 11412 layer_factory.hpp:77] Creating layer inception_4b/5x5_reduce
I0403 14:56:16.920018 11412 net.cpp:91] Creating Layer inception_4b/5x5_reduce
I0403 14:56:16.920034 11412 net.cpp:425] inception_4b/5x5_reduce <- inception_4a/output_inception_4a/output_0_split_3
I0403 14:56:16.920056 11412 net.cpp:399] inception_4b/5x5_reduce -> inception_4b/5x5_reduce
I0403 14:56:16.921139 11412 net.cpp:141] Setting up inception_4b/5x5_reduce
I0403 14:56:16.921167 11412 net.cpp:148] Top shape: 24 24 14 14 (112896)
I0403 14:56:16.921187 11412 net.cpp:156] Memory required for data: 965320992
I0403 14:56:16.921206 11412 layer_factory.hpp:77] Creating layer inception_4b/relu_5x5_reduce
I0403 14:56:16.921226 11412 net.cpp:91] Creating Layer inception_4b/relu_5x5_reduce
I0403 14:56:16.921267 11412 net.cpp:425] inception_4b/relu_5x5_reduce <- inception_4b/5x5_reduce
I0403 14:56:16.921285 11412 net.cpp:386] inception_4b/relu_5x5_reduce -> inception_4b/5x5_reduce (in-place)
I0403 14:56:16.921488 11412 net.cpp:141] Setting up inception_4b/relu_5x5_reduce
I0403 14:56:16.921514 11412 net.cpp:148] Top shape: 24 24 14 14 (112896)
I0403 14:56:16.921528 11412 net.cpp:156] Memory required for data: 965772576
I0403 14:56:16.921542 11412 layer_factory.hpp:77] Creating layer inception_4b/5x5
I0403 14:56:16.921563 11412 net.cpp:91] Creating Layer inception_4b/5x5
I0403 14:56:16.921591 11412 net.cpp:425] inception_4b/5x5 <- inception_4b/5x5_reduce
I0403 14:56:16.921612 11412 net.cpp:399] inception_4b/5x5 -> inception_4b/5x5
I0403 14:56:16.922827 11412 net.cpp:141] Setting up inception_4b/5x5
I0403 14:56:16.922853 11412 net.cpp:148] Top shape: 24 64 14 14 (301056)
I0403 14:56:16.922868 11412 net.cpp:156] Memory required for data: 966976800
I0403 14:56:16.922885 11412 layer_factory.hpp:77] Creating layer inception_4b/relu_5x5
I0403 14:56:16.922905 11412 net.cpp:91] Creating Layer inception_4b/relu_5x5
I0403 14:56:16.922921 11412 net.cpp:425] inception_4b/relu_5x5 <- inception_4b/5x5
I0403 14:56:16.922938 11412 net.cpp:386] inception_4b/relu_5x5 -> inception_4b/5x5 (in-place)
I0403 14:56:16.923218 11412 net.cpp:141] Setting up inception_4b/relu_5x5
I0403 14:56:16.923243 11412 net.cpp:148] Top shape: 24 64 14 14 (301056)
I0403 14:56:16.923256 11412 net.cpp:156] Memory required for data: 968181024
I0403 14:56:16.923270 11412 layer_factory.hpp:77] Creating layer inception_4b/pool
I0403 14:56:16.923290 11412 net.cpp:91] Creating Layer inception_4b/pool
I0403 14:56:16.923306 11412 net.cpp:425] inception_4b/pool <- inception_4a/output_inception_4a/output_0_split_4
I0403 14:56:16.923324 11412 net.cpp:399] inception_4b/pool -> inception_4b/pool
I0403 14:56:16.923388 11412 net.cpp:141] Setting up inception_4b/pool
I0403 14:56:16.923415 11412 net.cpp:148] Top shape: 24 512 14 14 (2408448)
I0403 14:56:16.923431 11412 net.cpp:156] Memory required for data: 977814816
I0403 14:56:16.923445 11412 layer_factory.hpp:77] Creating layer inception_4b/pool_proj
I0403 14:56:16.923467 11412 net.cpp:91] Creating Layer inception_4b/pool_proj
I0403 14:56:16.923490 11412 net.cpp:425] inception_4b/pool_proj <- inception_4b/pool
I0403 14:56:16.923511 11412 net.cpp:399] inception_4b/pool_proj -> inception_4b/pool_proj
I0403 14:56:16.924706 11412 net.cpp:141] Setting up inception_4b/pool_proj
I0403 14:56:16.924734 11412 net.cpp:148] Top shape: 24 64 14 14 (301056)
I0403 14:56:16.924749 11412 net.cpp:156] Memory required for data: 979019040
I0403 14:56:16.924767 11412 layer_factory.hpp:77] Creating layer inception_4b/relu_pool_proj
I0403 14:56:16.924787 11412 net.cpp:91] Creating Layer inception_4b/relu_pool_proj
I0403 14:56:16.924803 11412 net.cpp:425] inception_4b/relu_pool_proj <- inception_4b/pool_proj
I0403 14:56:16.924821 11412 net.cpp:386] inception_4b/relu_pool_proj -> inception_4b/pool_proj (in-place)
I0403 14:56:16.925003 11412 net.cpp:141] Setting up inception_4b/relu_pool_proj
I0403 14:56:16.925027 11412 net.cpp:148] Top shape: 24 64 14 14 (301056)
I0403 14:56:16.925041 11412 net.cpp:156] Memory required for data: 980223264
I0403 14:56:16.925055 11412 layer_factory.hpp:77] Creating layer inception_4b/output
I0403 14:56:16.925072 11412 net.cpp:91] Creating Layer inception_4b/output
I0403 14:56:16.925087 11412 net.cpp:425] inception_4b/output <- inception_4b/1x1
I0403 14:56:16.925103 11412 net.cpp:425] inception_4b/output <- inception_4b/3x3
I0403 14:56:16.925118 11412 net.cpp:425] inception_4b/output <- inception_4b/5x5
I0403 14:56:16.925133 11412 net.cpp:425] inception_4b/output <- inception_4b/pool_proj
I0403 14:56:16.925151 11412 net.cpp:399] inception_4b/output -> inception_4b/output
I0403 14:56:16.925196 11412 net.cpp:141] Setting up inception_4b/output
I0403 14:56:16.925220 11412 net.cpp:148] Top shape: 24 512 14 14 (2408448)
I0403 14:56:16.925237 11412 net.cpp:156] Memory required for data: 989857056
I0403 14:56:16.925266 11412 layer_factory.hpp:77] Creating layer inception_4b/output_inception_4b/output_0_split
I0403 14:56:16.925284 11412 net.cpp:91] Creating Layer inception_4b/output_inception_4b/output_0_split
I0403 14:56:16.925299 11412 net.cpp:425] inception_4b/output_inception_4b/output_0_split <- inception_4b/output
I0403 14:56:16.925318 11412 net.cpp:399] inception_4b/output_inception_4b/output_0_split -> inception_4b/output_inception_4b/output_0_split_0
I0403 14:56:16.925336 11412 net.cpp:399] inception_4b/output_inception_4b/output_0_split -> inception_4b/output_inception_4b/output_0_split_1
I0403 14:56:16.925357 11412 net.cpp:399] inception_4b/output_inception_4b/output_0_split -> inception_4b/output_inception_4b/output_0_split_2
I0403 14:56:16.925379 11412 net.cpp:399] inception_4b/output_inception_4b/output_0_split -> inception_4b/output_inception_4b/output_0_split_3
I0403 14:56:16.925468 11412 net.cpp:141] Setting up inception_4b/output_inception_4b/output_0_split
I0403 14:56:16.925492 11412 net.cpp:148] Top shape: 24 512 14 14 (2408448)
I0403 14:56:16.925508 11412 net.cpp:148] Top shape: 24 512 14 14 (2408448)
I0403 14:56:16.925523 11412 net.cpp:148] Top shape: 24 512 14 14 (2408448)
I0403 14:56:16.925537 11412 net.cpp:148] Top shape: 24 512 14 14 (2408448)
I0403 14:56:16.925550 11412 net.cpp:156] Memory required for data: 1028392224
I0403 14:56:16.925565 11412 layer_factory.hpp:77] Creating layer inception_4c/1x1
I0403 14:56:16.925598 11412 net.cpp:91] Creating Layer inception_4c/1x1
I0403 14:56:16.925616 11412 net.cpp:425] inception_4c/1x1 <- inception_4b/output_inception_4b/output_0_split_0
I0403 14:56:16.925637 11412 net.cpp:399] inception_4c/1x1 -> inception_4c/1x1
I0403 14:56:16.927126 11412 net.cpp:141] Setting up inception_4c/1x1
I0403 14:56:16.927155 11412 net.cpp:148] Top shape: 24 128 14 14 (602112)
I0403 14:56:16.927170 11412 net.cpp:156] Memory required for data: 1030800672
I0403 14:56:16.927187 11412 layer_factory.hpp:77] Creating layer inception_4c/relu_1x1
I0403 14:56:16.927206 11412 net.cpp:91] Creating Layer inception_4c/relu_1x1
I0403 14:56:16.927220 11412 net.cpp:425] inception_4c/relu_1x1 <- inception_4c/1x1
I0403 14:56:16.927240 11412 net.cpp:386] inception_4c/relu_1x1 -> inception_4c/1x1 (in-place)
I0403 14:56:16.927428 11412 net.cpp:141] Setting up inception_4c/relu_1x1
I0403 14:56:16.927453 11412 net.cpp:148] Top shape: 24 128 14 14 (602112)
I0403 14:56:16.927466 11412 net.cpp:156] Memory required for data: 1033209120
I0403 14:56:16.927480 11412 layer_factory.hpp:77] Creating layer inception_4c/3x3_reduce
I0403 14:56:16.927502 11412 net.cpp:91] Creating Layer inception_4c/3x3_reduce
I0403 14:56:16.927520 11412 net.cpp:425] inception_4c/3x3_reduce <- inception_4b/output_inception_4b/output_0_split_1
I0403 14:56:16.927541 11412 net.cpp:399] inception_4c/3x3_reduce -> inception_4c/3x3_reduce
I0403 14:56:16.929569 11412 net.cpp:141] Setting up inception_4c/3x3_reduce
I0403 14:56:16.929599 11412 net.cpp:148] Top shape: 24 128 14 14 (602112)
I0403 14:56:16.929615 11412 net.cpp:156] Memory required for data: 1035617568
I0403 14:56:16.929633 11412 layer_factory.hpp:77] Creating layer inception_4c/relu_3x3_reduce
I0403 14:56:16.929654 11412 net.cpp:91] Creating Layer inception_4c/relu_3x3_reduce
I0403 14:56:16.929672 11412 net.cpp:425] inception_4c/relu_3x3_reduce <- inception_4c/3x3_reduce
I0403 14:56:16.929689 11412 net.cpp:386] inception_4c/relu_3x3_reduce -> inception_4c/3x3_reduce (in-place)
I0403 14:56:16.929998 11412 net.cpp:141] Setting up inception_4c/relu_3x3_reduce
I0403 14:56:16.930025 11412 net.cpp:148] Top shape: 24 128 14 14 (602112)
I0403 14:56:16.930039 11412 net.cpp:156] Memory required for data: 1038026016
I0403 14:56:16.930054 11412 layer_factory.hpp:77] Creating layer inception_4c/3x3
I0403 14:56:16.930076 11412 net.cpp:91] Creating Layer inception_4c/3x3
I0403 14:56:16.930094 11412 net.cpp:425] inception_4c/3x3 <- inception_4c/3x3_reduce
I0403 14:56:16.930130 11412 net.cpp:399] inception_4c/3x3 -> inception_4c/3x3
I0403 14:56:16.933899 11412 net.cpp:141] Setting up inception_4c/3x3
I0403 14:56:16.933943 11412 net.cpp:148] Top shape: 24 256 14 14 (1204224)
I0403 14:56:16.933959 11412 net.cpp:156] Memory required for data: 1042842912
I0403 14:56:16.933990 11412 layer_factory.hpp:77] Creating layer inception_4c/relu_3x3
I0403 14:56:16.934013 11412 net.cpp:91] Creating Layer inception_4c/relu_3x3
I0403 14:56:16.934032 11412 net.cpp:425] inception_4c/relu_3x3 <- inception_4c/3x3
I0403 14:56:16.934049 11412 net.cpp:386] inception_4c/relu_3x3 -> inception_4c/3x3 (in-place)
I0403 14:56:16.934244 11412 net.cpp:141] Setting up inception_4c/relu_3x3
I0403 14:56:16.934273 11412 net.cpp:148] Top shape: 24 256 14 14 (1204224)
I0403 14:56:16.934288 11412 net.cpp:156] Memory required for data: 1047659808
I0403 14:56:16.934303 11412 layer_factory.hpp:77] Creating layer inception_4c/5x5_reduce
I0403 14:56:16.934322 11412 net.cpp:91] Creating Layer inception_4c/5x5_reduce
I0403 14:56:16.934340 11412 net.cpp:425] inception_4c/5x5_reduce <- inception_4b/output_inception_4b/output_0_split_2
I0403 14:56:16.934365 11412 net.cpp:399] inception_4c/5x5_reduce -> inception_4c/5x5_reduce
I0403 14:56:16.935560 11412 net.cpp:141] Setting up inception_4c/5x5_reduce
I0403 14:56:16.935590 11412 net.cpp:148] Top shape: 24 24 14 14 (112896)
I0403 14:56:16.935606 11412 net.cpp:156] Memory required for data: 1048111392
I0403 14:56:16.935626 11412 layer_factory.hpp:77] Creating layer inception_4c/relu_5x5_reduce
I0403 14:56:16.935648 11412 net.cpp:91] Creating Layer inception_4c/relu_5x5_reduce
I0403 14:56:16.935665 11412 net.cpp:425] inception_4c/relu_5x5_reduce <- inception_4c/5x5_reduce
I0403 14:56:16.935684 11412 net.cpp:386] inception_4c/relu_5x5_reduce -> inception_4c/5x5_reduce (in-place)
I0403 14:56:16.935904 11412 net.cpp:141] Setting up inception_4c/relu_5x5_reduce
I0403 14:56:16.935933 11412 net.cpp:148] Top shape: 24 24 14 14 (112896)
I0403 14:56:16.935950 11412 net.cpp:156] Memory required for data: 1048562976
I0403 14:56:16.935966 11412 layer_factory.hpp:77] Creating layer inception_4c/5x5
I0403 14:56:16.935988 11412 net.cpp:91] Creating Layer inception_4c/5x5
I0403 14:56:16.936007 11412 net.cpp:425] inception_4c/5x5 <- inception_4c/5x5_reduce
I0403 14:56:16.936028 11412 net.cpp:399] inception_4c/5x5 -> inception_4c/5x5
I0403 14:56:16.937373 11412 net.cpp:141] Setting up inception_4c/5x5
I0403 14:56:16.937403 11412 net.cpp:148] Top shape: 24 64 14 14 (301056)
I0403 14:56:16.937423 11412 net.cpp:156] Memory required for data: 1049767200
I0403 14:56:16.937443 11412 layer_factory.hpp:77] Creating layer inception_4c/relu_5x5
I0403 14:56:16.937461 11412 net.cpp:91] Creating Layer inception_4c/relu_5x5
I0403 14:56:16.937477 11412 net.cpp:425] inception_4c/relu_5x5 <- inception_4c/5x5
I0403 14:56:16.937499 11412 net.cpp:386] inception_4c/relu_5x5 -> inception_4c/5x5 (in-place)
I0403 14:56:16.937794 11412 net.cpp:141] Setting up inception_4c/relu_5x5
I0403 14:56:16.937822 11412 net.cpp:148] Top shape: 24 64 14 14 (301056)
I0403 14:56:16.937837 11412 net.cpp:156] Memory required for data: 1050971424
I0403 14:56:16.937854 11412 layer_factory.hpp:77] Creating layer inception_4c/pool
I0403 14:56:16.937871 11412 net.cpp:91] Creating Layer inception_4c/pool
I0403 14:56:16.937888 11412 net.cpp:425] inception_4c/pool <- inception_4b/output_inception_4b/output_0_split_3
I0403 14:56:16.937909 11412 net.cpp:399] inception_4c/pool -> inception_4c/pool
I0403 14:56:16.937978 11412 net.cpp:141] Setting up inception_4c/pool
I0403 14:56:16.938001 11412 net.cpp:148] Top shape: 24 512 14 14 (2408448)
I0403 14:56:16.938016 11412 net.cpp:156] Memory required for data: 1060605216
I0403 14:56:16.938030 11412 layer_factory.hpp:77] Creating layer inception_4c/pool_proj
I0403 14:56:16.938055 11412 net.cpp:91] Creating Layer inception_4c/pool_proj
I0403 14:56:16.938073 11412 net.cpp:425] inception_4c/pool_proj <- inception_4c/pool
I0403 14:56:16.938092 11412 net.cpp:399] inception_4c/pool_proj -> inception_4c/pool_proj
I0403 14:56:16.939388 11412 net.cpp:141] Setting up inception_4c/pool_proj
I0403 14:56:16.939421 11412 net.cpp:148] Top shape: 24 64 14 14 (301056)
I0403 14:56:16.939452 11412 net.cpp:156] Memory required for data: 1061809440
I0403 14:56:16.939472 11412 layer_factory.hpp:77] Creating layer inception_4c/relu_pool_proj
I0403 14:56:16.939493 11412 net.cpp:91] Creating Layer inception_4c/relu_pool_proj
I0403 14:56:16.939510 11412 net.cpp:425] inception_4c/relu_pool_proj <- inception_4c/pool_proj
I0403 14:56:16.939528 11412 net.cpp:386] inception_4c/relu_pool_proj -> inception_4c/pool_proj (in-place)
I0403 14:56:16.939730 11412 net.cpp:141] Setting up inception_4c/relu_pool_proj
I0403 14:56:16.939759 11412 net.cpp:148] Top shape: 24 64 14 14 (301056)
I0403 14:56:16.939774 11412 net.cpp:156] Memory required for data: 1063013664
I0403 14:56:16.939790 11412 layer_factory.hpp:77] Creating layer inception_4c/output
I0403 14:56:16.939807 11412 net.cpp:91] Creating Layer inception_4c/output
I0403 14:56:16.939824 11412 net.cpp:425] inception_4c/output <- inception_4c/1x1
I0403 14:56:16.939841 11412 net.cpp:425] inception_4c/output <- inception_4c/3x3
I0403 14:56:16.939857 11412 net.cpp:425] inception_4c/output <- inception_4c/5x5
I0403 14:56:16.939874 11412 net.cpp:425] inception_4c/output <- inception_4c/pool_proj
I0403 14:56:16.939891 11412 net.cpp:399] inception_4c/output -> inception_4c/output
I0403 14:56:16.939942 11412 net.cpp:141] Setting up inception_4c/output
I0403 14:56:16.939967 11412 net.cpp:148] Top shape: 24 512 14 14 (2408448)
I0403 14:56:16.939982 11412 net.cpp:156] Memory required for data: 1072647456
I0403 14:56:16.939996 11412 layer_factory.hpp:77] Creating layer inception_4c/output_inception_4c/output_0_split
I0403 14:56:16.940027 11412 net.cpp:91] Creating Layer inception_4c/output_inception_4c/output_0_split
I0403 14:56:16.940044 11412 net.cpp:425] inception_4c/output_inception_4c/output_0_split <- inception_4c/output
I0403 14:56:16.940062 11412 net.cpp:399] inception_4c/output_inception_4c/output_0_split -> inception_4c/output_inception_4c/output_0_split_0
I0403 14:56:16.940083 11412 net.cpp:399] inception_4c/output_inception_4c/output_0_split -> inception_4c/output_inception_4c/output_0_split_1
I0403 14:56:16.940104 11412 net.cpp:399] inception_4c/output_inception_4c/output_0_split -> inception_4c/output_inception_4c/output_0_split_2
I0403 14:56:16.940125 11412 net.cpp:399] inception_4c/output_inception_4c/output_0_split -> inception_4c/output_inception_4c/output_0_split_3
I0403 14:56:16.940217 11412 net.cpp:141] Setting up inception_4c/output_inception_4c/output_0_split
I0403 14:56:16.940240 11412 net.cpp:148] Top shape: 24 512 14 14 (2408448)
I0403 14:56:16.940256 11412 net.cpp:148] Top shape: 24 512 14 14 (2408448)
I0403 14:56:16.940271 11412 net.cpp:148] Top shape: 24 512 14 14 (2408448)
I0403 14:56:16.940287 11412 net.cpp:148] Top shape: 24 512 14 14 (2408448)
I0403 14:56:16.940300 11412 net.cpp:156] Memory required for data: 1111182624
I0403 14:56:16.940315 11412 layer_factory.hpp:77] Creating layer inception_4d/1x1
I0403 14:56:16.940337 11412 net.cpp:91] Creating Layer inception_4d/1x1
I0403 14:56:16.940357 11412 net.cpp:425] inception_4d/1x1 <- inception_4c/output_inception_4c/output_0_split_0
I0403 14:56:16.940378 11412 net.cpp:399] inception_4d/1x1 -> inception_4d/1x1
I0403 14:56:16.941829 11412 net.cpp:141] Setting up inception_4d/1x1
I0403 14:56:16.941859 11412 net.cpp:148] Top shape: 24 112 14 14 (526848)
I0403 14:56:16.941875 11412 net.cpp:156] Memory required for data: 1113290016
I0403 14:56:16.941906 11412 layer_factory.hpp:77] Creating layer inception_4d/relu_1x1
I0403 14:56:16.941925 11412 net.cpp:91] Creating Layer inception_4d/relu_1x1
I0403 14:56:16.941941 11412 net.cpp:425] inception_4d/relu_1x1 <- inception_4d/1x1
I0403 14:56:16.941962 11412 net.cpp:386] inception_4d/relu_1x1 -> inception_4d/1x1 (in-place)
I0403 14:56:16.942153 11412 net.cpp:141] Setting up inception_4d/relu_1x1
I0403 14:56:16.942178 11412 net.cpp:148] Top shape: 24 112 14 14 (526848)
I0403 14:56:16.942193 11412 net.cpp:156] Memory required for data: 1115397408
I0403 14:56:16.942208 11412 layer_factory.hpp:77] Creating layer inception_4d/3x3_reduce
I0403 14:56:16.942245 11412 net.cpp:91] Creating Layer inception_4d/3x3_reduce
I0403 14:56:16.942263 11412 net.cpp:425] inception_4d/3x3_reduce <- inception_4c/output_inception_4c/output_0_split_1
I0403 14:56:16.942286 11412 net.cpp:399] inception_4d/3x3_reduce -> inception_4d/3x3_reduce
I0403 14:56:16.943895 11412 net.cpp:141] Setting up inception_4d/3x3_reduce
I0403 14:56:16.943925 11412 net.cpp:148] Top shape: 24 144 14 14 (677376)
I0403 14:56:16.943943 11412 net.cpp:156] Memory required for data: 1118106912
I0403 14:56:16.943961 11412 layer_factory.hpp:77] Creating layer inception_4d/relu_3x3_reduce
I0403 14:56:16.943980 11412 net.cpp:91] Creating Layer inception_4d/relu_3x3_reduce
I0403 14:56:16.943996 11412 net.cpp:425] inception_4d/relu_3x3_reduce <- inception_4d/3x3_reduce
I0403 14:56:16.944016 11412 net.cpp:386] inception_4d/relu_3x3_reduce -> inception_4d/3x3_reduce (in-place)
I0403 14:56:16.944335 11412 net.cpp:141] Setting up inception_4d/relu_3x3_reduce
I0403 14:56:16.944367 11412 net.cpp:148] Top shape: 24 144 14 14 (677376)
I0403 14:56:16.944396 11412 net.cpp:156] Memory required for data: 1120816416
I0403 14:56:16.944416 11412 layer_factory.hpp:77] Creating layer inception_4d/3x3
I0403 14:56:16.944439 11412 net.cpp:91] Creating Layer inception_4d/3x3
I0403 14:56:16.944458 11412 net.cpp:425] inception_4d/3x3 <- inception_4d/3x3_reduce
I0403 14:56:16.944476 11412 net.cpp:399] inception_4d/3x3 -> inception_4d/3x3
I0403 14:56:16.949007 11412 net.cpp:141] Setting up inception_4d/3x3
I0403 14:56:16.949051 11412 net.cpp:148] Top shape: 24 288 14 14 (1354752)
I0403 14:56:16.949067 11412 net.cpp:156] Memory required for data: 1126235424
I0403 14:56:16.949087 11412 layer_factory.hpp:77] Creating layer inception_4d/relu_3x3
I0403 14:56:16.949108 11412 net.cpp:91] Creating Layer inception_4d/relu_3x3
I0403 14:56:16.949126 11412 net.cpp:425] inception_4d/relu_3x3 <- inception_4d/3x3
I0403 14:56:16.949144 11412 net.cpp:386] inception_4d/relu_3x3 -> inception_4d/3x3 (in-place)
I0403 14:56:16.949352 11412 net.cpp:141] Setting up inception_4d/relu_3x3
I0403 14:56:16.949378 11412 net.cpp:148] Top shape: 24 288 14 14 (1354752)
I0403 14:56:16.949393 11412 net.cpp:156] Memory required for data: 1131654432
I0403 14:56:16.949407 11412 layer_factory.hpp:77] Creating layer inception_4d/5x5_reduce
I0403 14:56:16.949436 11412 net.cpp:91] Creating Layer inception_4d/5x5_reduce
I0403 14:56:16.949455 11412 net.cpp:425] inception_4d/5x5_reduce <- inception_4c/output_inception_4c/output_0_split_2
I0403 14:56:16.949475 11412 net.cpp:399] inception_4d/5x5_reduce -> inception_4d/5x5_reduce
I0403 14:56:16.950691 11412 net.cpp:141] Setting up inception_4d/5x5_reduce
I0403 14:56:16.950721 11412 net.cpp:148] Top shape: 24 32 14 14 (150528)
I0403 14:56:16.950736 11412 net.cpp:156] Memory required for data: 1132256544
I0403 14:56:16.950754 11412 layer_factory.hpp:77] Creating layer inception_4d/relu_5x5_reduce
I0403 14:56:16.950775 11412 net.cpp:91] Creating Layer inception_4d/relu_5x5_reduce
I0403 14:56:16.950793 11412 net.cpp:425] inception_4d/relu_5x5_reduce <- inception_4d/5x5_reduce
I0403 14:56:16.950809 11412 net.cpp:386] inception_4d/relu_5x5_reduce -> inception_4d/5x5_reduce (in-place)
I0403 14:56:16.951004 11412 net.cpp:141] Setting up inception_4d/relu_5x5_reduce
I0403 14:56:16.951030 11412 net.cpp:148] Top shape: 24 32 14 14 (150528)
I0403 14:56:16.951046 11412 net.cpp:156] Memory required for data: 1132858656
I0403 14:56:16.951061 11412 layer_factory.hpp:77] Creating layer inception_4d/5x5
I0403 14:56:16.951082 11412 net.cpp:91] Creating Layer inception_4d/5x5
I0403 14:56:16.951099 11412 net.cpp:425] inception_4d/5x5 <- inception_4d/5x5_reduce
I0403 14:56:16.951120 11412 net.cpp:399] inception_4d/5x5 -> inception_4d/5x5
I0403 14:56:16.952733 11412 net.cpp:141] Setting up inception_4d/5x5
I0403 14:56:16.952764 11412 net.cpp:148] Top shape: 24 64 14 14 (301056)
I0403 14:56:16.952780 11412 net.cpp:156] Memory required for data: 1134062880
I0403 14:56:16.952800 11412 layer_factory.hpp:77] Creating layer inception_4d/relu_5x5
I0403 14:56:16.952833 11412 net.cpp:91] Creating Layer inception_4d/relu_5x5
I0403 14:56:16.952850 11412 net.cpp:425] inception_4d/relu_5x5 <- inception_4d/5x5
I0403 14:56:16.952868 11412 net.cpp:386] inception_4d/relu_5x5 -> inception_4d/5x5 (in-place)
I0403 14:56:16.953181 11412 net.cpp:141] Setting up inception_4d/relu_5x5
I0403 14:56:16.953209 11412 net.cpp:148] Top shape: 24 64 14 14 (301056)
I0403 14:56:16.953228 11412 net.cpp:156] Memory required for data: 1135267104
I0403 14:56:16.953243 11412 layer_factory.hpp:77] Creating layer inception_4d/pool
I0403 14:56:16.953261 11412 net.cpp:91] Creating Layer inception_4d/pool
I0403 14:56:16.953277 11412 net.cpp:425] inception_4d/pool <- inception_4c/output_inception_4c/output_0_split_3
I0403 14:56:16.953295 11412 net.cpp:399] inception_4d/pool -> inception_4d/pool
I0403 14:56:16.953366 11412 net.cpp:141] Setting up inception_4d/pool
I0403 14:56:16.953389 11412 net.cpp:148] Top shape: 24 512 14 14 (2408448)
I0403 14:56:16.953404 11412 net.cpp:156] Memory required for data: 1144900896
I0403 14:56:16.953435 11412 layer_factory.hpp:77] Creating layer inception_4d/pool_proj
I0403 14:56:16.953457 11412 net.cpp:91] Creating Layer inception_4d/pool_proj
I0403 14:56:16.953475 11412 net.cpp:425] inception_4d/pool_proj <- inception_4d/pool
I0403 14:56:16.953495 11412 net.cpp:399] inception_4d/pool_proj -> inception_4d/pool_proj
I0403 14:56:16.955332 11412 net.cpp:141] Setting up inception_4d/pool_proj
I0403 14:56:16.955364 11412 net.cpp:148] Top shape: 24 64 14 14 (301056)
I0403 14:56:16.955381 11412 net.cpp:156] Memory required for data: 1146105120
I0403 14:56:16.955399 11412 layer_factory.hpp:77] Creating layer inception_4d/relu_pool_proj
I0403 14:56:16.955437 11412 net.cpp:91] Creating Layer inception_4d/relu_pool_proj
I0403 14:56:16.955456 11412 net.cpp:425] inception_4d/relu_pool_proj <- inception_4d/pool_proj
I0403 14:56:16.955473 11412 net.cpp:386] inception_4d/relu_pool_proj -> inception_4d/pool_proj (in-place)
I0403 14:56:16.955673 11412 net.cpp:141] Setting up inception_4d/relu_pool_proj
I0403 14:56:16.955698 11412 net.cpp:148] Top shape: 24 64 14 14 (301056)
I0403 14:56:16.955711 11412 net.cpp:156] Memory required for data: 1147309344
I0403 14:56:16.955726 11412 layer_factory.hpp:77] Creating layer inception_4d/output
I0403 14:56:16.955745 11412 net.cpp:91] Creating Layer inception_4d/output
I0403 14:56:16.955761 11412 net.cpp:425] inception_4d/output <- inception_4d/1x1
I0403 14:56:16.955777 11412 net.cpp:425] inception_4d/output <- inception_4d/3x3
I0403 14:56:16.955793 11412 net.cpp:425] inception_4d/output <- inception_4d/5x5
I0403 14:56:16.955808 11412 net.cpp:425] inception_4d/output <- inception_4d/pool_proj
I0403 14:56:16.955826 11412 net.cpp:399] inception_4d/output -> inception_4d/output
I0403 14:56:16.955874 11412 net.cpp:141] Setting up inception_4d/output
I0403 14:56:16.955898 11412 net.cpp:148] Top shape: 24 528 14 14 (2483712)
I0403 14:56:16.955911 11412 net.cpp:156] Memory required for data: 1157244192
I0403 14:56:16.955926 11412 layer_factory.hpp:77] Creating layer inception_4d/output_inception_4d/output_0_split
I0403 14:56:16.955945 11412 net.cpp:91] Creating Layer inception_4d/output_inception_4d/output_0_split
I0403 14:56:16.955960 11412 net.cpp:425] inception_4d/output_inception_4d/output_0_split <- inception_4d/output
I0403 14:56:16.955979 11412 net.cpp:399] inception_4d/output_inception_4d/output_0_split -> inception_4d/output_inception_4d/output_0_split_0
I0403 14:56:16.955999 11412 net.cpp:399] inception_4d/output_inception_4d/output_0_split -> inception_4d/output_inception_4d/output_0_split_1
I0403 14:56:16.956020 11412 net.cpp:399] inception_4d/output_inception_4d/output_0_split -> inception_4d/output_inception_4d/output_0_split_2
I0403 14:56:16.956044 11412 net.cpp:399] inception_4d/output_inception_4d/output_0_split -> inception_4d/output_inception_4d/output_0_split_3
I0403 14:56:16.956066 11412 net.cpp:399] inception_4d/output_inception_4d/output_0_split -> inception_4d/output_inception_4d/output_0_split_4
I0403 14:56:16.956166 11412 net.cpp:141] Setting up inception_4d/output_inception_4d/output_0_split
I0403 14:56:16.956203 11412 net.cpp:148] Top shape: 24 528 14 14 (2483712)
I0403 14:56:16.956219 11412 net.cpp:148] Top shape: 24 528 14 14 (2483712)
I0403 14:56:16.956234 11412 net.cpp:148] Top shape: 24 528 14 14 (2483712)
I0403 14:56:16.956249 11412 net.cpp:148] Top shape: 24 528 14 14 (2483712)
I0403 14:56:16.956264 11412 net.cpp:148] Top shape: 24 528 14 14 (2483712)
I0403 14:56:16.956279 11412 net.cpp:156] Memory required for data: 1206918432
I0403 14:56:16.956292 11412 layer_factory.hpp:77] Creating layer loss2/ave_pool
I0403 14:56:16.956310 11412 net.cpp:91] Creating Layer loss2/ave_pool
I0403 14:56:16.956324 11412 net.cpp:425] loss2/ave_pool <- inception_4d/output_inception_4d/output_0_split_0
I0403 14:56:16.956346 11412 net.cpp:399] loss2/ave_pool -> loss2/ave_pool
I0403 14:56:16.956662 11412 net.cpp:141] Setting up loss2/ave_pool
I0403 14:56:16.956688 11412 net.cpp:148] Top shape: 24 528 4 4 (202752)
I0403 14:56:16.956703 11412 net.cpp:156] Memory required for data: 1207729440
I0403 14:56:16.956718 11412 layer_factory.hpp:77] Creating layer loss2/conv
I0403 14:56:16.956740 11412 net.cpp:91] Creating Layer loss2/conv
I0403 14:56:16.956758 11412 net.cpp:425] loss2/conv <- loss2/ave_pool
I0403 14:56:16.956779 11412 net.cpp:399] loss2/conv -> loss2/conv
I0403 14:56:16.958710 11412 net.cpp:141] Setting up loss2/conv
I0403 14:56:16.958740 11412 net.cpp:148] Top shape: 24 128 4 4 (49152)
I0403 14:56:16.958756 11412 net.cpp:156] Memory required for data: 1207926048
I0403 14:56:16.958775 11412 layer_factory.hpp:77] Creating layer loss2/relu_conv
I0403 14:56:16.958793 11412 net.cpp:91] Creating Layer loss2/relu_conv
I0403 14:56:16.958808 11412 net.cpp:425] loss2/relu_conv <- loss2/conv
I0403 14:56:16.958828 11412 net.cpp:386] loss2/relu_conv -> loss2/conv (in-place)
I0403 14:56:16.959113 11412 net.cpp:141] Setting up loss2/relu_conv
I0403 14:56:16.959141 11412 net.cpp:148] Top shape: 24 128 4 4 (49152)
I0403 14:56:16.959157 11412 net.cpp:156] Memory required for data: 1208122656
I0403 14:56:16.959172 11412 layer_factory.hpp:77] Creating layer loss2/fc
I0403 14:56:16.959190 11412 net.cpp:91] Creating Layer loss2/fc
I0403 14:56:16.959208 11412 net.cpp:425] loss2/fc <- loss2/conv
I0403 14:56:16.959229 11412 net.cpp:399] loss2/fc -> loss2/fc
I0403 14:56:16.977331 11412 net.cpp:141] Setting up loss2/fc
I0403 14:56:16.977370 11412 net.cpp:148] Top shape: 24 1024 (24576)
I0403 14:56:16.977397 11412 net.cpp:156] Memory required for data: 1208220960
I0403 14:56:16.977419 11412 layer_factory.hpp:77] Creating layer loss2/relu_fc
I0403 14:56:16.977442 11412 net.cpp:91] Creating Layer loss2/relu_fc
I0403 14:56:16.977460 11412 net.cpp:425] loss2/relu_fc <- loss2/fc
I0403 14:56:16.977478 11412 net.cpp:386] loss2/relu_fc -> loss2/fc (in-place)
I0403 14:56:16.977795 11412 net.cpp:141] Setting up loss2/relu_fc
I0403 14:56:16.977823 11412 net.cpp:148] Top shape: 24 1024 (24576)
I0403 14:56:16.977838 11412 net.cpp:156] Memory required for data: 1208319264
I0403 14:56:16.977864 11412 layer_factory.hpp:77] Creating layer loss2/drop_fc
I0403 14:56:16.977885 11412 net.cpp:91] Creating Layer loss2/drop_fc
I0403 14:56:16.977912 11412 net.cpp:425] loss2/drop_fc <- loss2/fc
I0403 14:56:16.977929 11412 net.cpp:386] loss2/drop_fc -> loss2/fc (in-place)
I0403 14:56:16.977982 11412 net.cpp:141] Setting up loss2/drop_fc
I0403 14:56:16.978006 11412 net.cpp:148] Top shape: 24 1024 (24576)
I0403 14:56:16.978020 11412 net.cpp:156] Memory required for data: 1208417568
I0403 14:56:16.978035 11412 layer_factory.hpp:77] Creating layer loss2/classifier_plantvillage
I0403 14:56:16.978054 11412 net.cpp:91] Creating Layer loss2/classifier_plantvillage
I0403 14:56:16.978070 11412 net.cpp:425] loss2/classifier_plantvillage <- loss2/fc
I0403 14:56:16.978092 11412 net.cpp:399] loss2/classifier_plantvillage -> loss2/classifier_plantvillage
I0403 14:56:16.978534 11412 net.cpp:141] Setting up loss2/classifier_plantvillage
I0403 14:56:16.978560 11412 net.cpp:148] Top shape: 24 38 (912)
I0403 14:56:16.978592 11412 net.cpp:156] Memory required for data: 1208421216
I0403 14:56:16.978611 11412 layer_factory.hpp:77] Creating layer loss2/classifier_plantvillage_loss2/classifier_plantvillage_0_split
I0403 14:56:16.978629 11412 net.cpp:91] Creating Layer loss2/classifier_plantvillage_loss2/classifier_plantvillage_0_split
I0403 14:56:16.978657 11412 net.cpp:425] loss2/classifier_plantvillage_loss2/classifier_plantvillage_0_split <- loss2/classifier_plantvillage
I0403 14:56:16.978678 11412 net.cpp:399] loss2/classifier_plantvillage_loss2/classifier_plantvillage_0_split -> loss2/classifier_plantvillage_loss2/classifier_plantvillage_0_split_0
I0403 14:56:16.978699 11412 net.cpp:399] loss2/classifier_plantvillage_loss2/classifier_plantvillage_0_split -> loss2/classifier_plantvillage_loss2/classifier_plantvillage_0_split_1
I0403 14:56:16.978720 11412 net.cpp:399] loss2/classifier_plantvillage_loss2/classifier_plantvillage_0_split -> loss2/classifier_plantvillage_loss2/classifier_plantvillage_0_split_2
I0403 14:56:16.978814 11412 net.cpp:141] Setting up loss2/classifier_plantvillage_loss2/classifier_plantvillage_0_split
I0403 14:56:16.978839 11412 net.cpp:148] Top shape: 24 38 (912)
I0403 14:56:16.978855 11412 net.cpp:148] Top shape: 24 38 (912)
I0403 14:56:16.978871 11412 net.cpp:148] Top shape: 24 38 (912)
I0403 14:56:16.978885 11412 net.cpp:156] Memory required for data: 1208432160
I0403 14:56:16.978900 11412 layer_factory.hpp:77] Creating layer inception_4e/1x1
I0403 14:56:16.978924 11412 net.cpp:91] Creating Layer inception_4e/1x1
I0403 14:56:16.978955 11412 net.cpp:425] inception_4e/1x1 <- inception_4d/output_inception_4d/output_0_split_1
I0403 14:56:16.978972 11412 net.cpp:399] inception_4e/1x1 -> inception_4e/1x1
I0403 14:56:16.980885 11412 net.cpp:141] Setting up inception_4e/1x1
I0403 14:56:16.980914 11412 net.cpp:148] Top shape: 24 256 14 14 (1204224)
I0403 14:56:16.980931 11412 net.cpp:156] Memory required for data: 1213249056
I0403 14:56:16.980949 11412 layer_factory.hpp:77] Creating layer inception_4e/relu_1x1
I0403 14:56:16.980967 11412 net.cpp:91] Creating Layer inception_4e/relu_1x1
I0403 14:56:16.980983 11412 net.cpp:425] inception_4e/relu_1x1 <- inception_4e/1x1
I0403 14:56:16.981001 11412 net.cpp:386] inception_4e/relu_1x1 -> inception_4e/1x1 (in-place)
I0403 14:56:16.981300 11412 net.cpp:141] Setting up inception_4e/relu_1x1
I0403 14:56:16.981328 11412 net.cpp:148] Top shape: 24 256 14 14 (1204224)
I0403 14:56:16.981344 11412 net.cpp:156] Memory required for data: 1218065952
I0403 14:56:16.981359 11412 layer_factory.hpp:77] Creating layer inception_4e/3x3_reduce
I0403 14:56:16.981381 11412 net.cpp:91] Creating Layer inception_4e/3x3_reduce
I0403 14:56:16.981400 11412 net.cpp:425] inception_4e/3x3_reduce <- inception_4d/output_inception_4d/output_0_split_2
I0403 14:56:16.981426 11412 net.cpp:399] inception_4e/3x3_reduce -> inception_4e/3x3_reduce
I0403 14:56:16.983721 11412 net.cpp:141] Setting up inception_4e/3x3_reduce
I0403 14:56:16.983749 11412 net.cpp:148] Top shape: 24 160 14 14 (752640)
I0403 14:56:16.983764 11412 net.cpp:156] Memory required for data: 1221076512
I0403 14:56:16.983783 11412 layer_factory.hpp:77] Creating layer inception_4e/relu_3x3_reduce
I0403 14:56:16.983803 11412 net.cpp:91] Creating Layer inception_4e/relu_3x3_reduce
I0403 14:56:16.983821 11412 net.cpp:425] inception_4e/relu_3x3_reduce <- inception_4e/3x3_reduce
I0403 14:56:16.983839 11412 net.cpp:386] inception_4e/relu_3x3_reduce -> inception_4e/3x3_reduce (in-place)
I0403 14:56:16.984024 11412 net.cpp:141] Setting up inception_4e/relu_3x3_reduce
I0403 14:56:16.984048 11412 net.cpp:148] Top shape: 24 160 14 14 (752640)
I0403 14:56:16.984062 11412 net.cpp:156] Memory required for data: 1224087072
I0403 14:56:16.984076 11412 layer_factory.hpp:77] Creating layer inception_4e/3x3
I0403 14:56:16.984097 11412 net.cpp:91] Creating Layer inception_4e/3x3
I0403 14:56:16.984115 11412 net.cpp:425] inception_4e/3x3 <- inception_4e/3x3_reduce
I0403 14:56:16.984136 11412 net.cpp:399] inception_4e/3x3 -> inception_4e/3x3
I0403 14:56:16.989362 11412 net.cpp:141] Setting up inception_4e/3x3
I0403 14:56:16.989403 11412 net.cpp:148] Top shape: 24 320 14 14 (1505280)
I0403 14:56:16.989425 11412 net.cpp:156] Memory required for data: 1230108192
I0403 14:56:16.989455 11412 layer_factory.hpp:77] Creating layer inception_4e/relu_3x3
I0403 14:56:16.989473 11412 net.cpp:91] Creating Layer inception_4e/relu_3x3
I0403 14:56:16.989488 11412 net.cpp:425] inception_4e/relu_3x3 <- inception_4e/3x3
I0403 14:56:16.989506 11412 net.cpp:386] inception_4e/relu_3x3 -> inception_4e/3x3 (in-place)
I0403 14:56:16.989819 11412 net.cpp:141] Setting up inception_4e/relu_3x3
I0403 14:56:16.989857 11412 net.cpp:148] Top shape: 24 320 14 14 (1505280)
I0403 14:56:16.989872 11412 net.cpp:156] Memory required for data: 1236129312
I0403 14:56:16.989899 11412 layer_factory.hpp:77] Creating layer inception_4e/5x5_reduce
I0403 14:56:16.989923 11412 net.cpp:91] Creating Layer inception_4e/5x5_reduce
I0403 14:56:16.989940 11412 net.cpp:425] inception_4e/5x5_reduce <- inception_4d/output_inception_4d/output_0_split_3
I0403 14:56:16.989961 11412 net.cpp:399] inception_4e/5x5_reduce -> inception_4e/5x5_reduce
I0403 14:56:16.991031 11412 net.cpp:141] Setting up inception_4e/5x5_reduce
I0403 14:56:16.991060 11412 net.cpp:148] Top shape: 24 32 14 14 (150528)
I0403 14:56:16.991077 11412 net.cpp:156] Memory required for data: 1236731424
I0403 14:56:16.991096 11412 layer_factory.hpp:77] Creating layer inception_4e/relu_5x5_reduce
I0403 14:56:16.991113 11412 net.cpp:91] Creating Layer inception_4e/relu_5x5_reduce
I0403 14:56:16.991128 11412 net.cpp:425] inception_4e/relu_5x5_reduce <- inception_4e/5x5_reduce
I0403 14:56:16.991144 11412 net.cpp:386] inception_4e/relu_5x5_reduce -> inception_4e/5x5_reduce (in-place)
I0403 14:56:16.991461 11412 net.cpp:141] Setting up inception_4e/relu_5x5_reduce
I0403 14:56:16.991498 11412 net.cpp:148] Top shape: 24 32 14 14 (150528)
I0403 14:56:16.991514 11412 net.cpp:156] Memory required for data: 1237333536
I0403 14:56:16.991528 11412 layer_factory.hpp:77] Creating layer inception_4e/5x5
I0403 14:56:16.991569 11412 net.cpp:91] Creating Layer inception_4e/5x5
I0403 14:56:16.991590 11412 net.cpp:425] inception_4e/5x5 <- inception_4e/5x5_reduce
I0403 14:56:16.991610 11412 net.cpp:399] inception_4e/5x5 -> inception_4e/5x5
I0403 14:56:16.993513 11412 net.cpp:141] Setting up inception_4e/5x5
I0403 14:56:16.993541 11412 net.cpp:148] Top shape: 24 128 14 14 (602112)
I0403 14:56:16.993557 11412 net.cpp:156] Memory required for data: 1239741984
I0403 14:56:16.993589 11412 layer_factory.hpp:77] Creating layer inception_4e/relu_5x5
I0403 14:56:16.993610 11412 net.cpp:91] Creating Layer inception_4e/relu_5x5
I0403 14:56:16.993628 11412 net.cpp:425] inception_4e/relu_5x5 <- inception_4e/5x5
I0403 14:56:16.993645 11412 net.cpp:386] inception_4e/relu_5x5 -> inception_4e/5x5 (in-place)
I0403 14:56:16.993880 11412 net.cpp:141] Setting up inception_4e/relu_5x5
I0403 14:56:16.993908 11412 net.cpp:148] Top shape: 24 128 14 14 (602112)
I0403 14:56:16.993924 11412 net.cpp:156] Memory required for data: 1242150432
I0403 14:56:16.993939 11412 layer_factory.hpp:77] Creating layer inception_4e/pool
I0403 14:56:16.993957 11412 net.cpp:91] Creating Layer inception_4e/pool
I0403 14:56:16.993974 11412 net.cpp:425] inception_4e/pool <- inception_4d/output_inception_4d/output_0_split_4
I0403 14:56:16.993994 11412 net.cpp:399] inception_4e/pool -> inception_4e/pool
I0403 14:56:16.994076 11412 net.cpp:141] Setting up inception_4e/pool
I0403 14:56:16.994099 11412 net.cpp:148] Top shape: 24 528 14 14 (2483712)
I0403 14:56:16.994114 11412 net.cpp:156] Memory required for data: 1252085280
I0403 14:56:16.994128 11412 layer_factory.hpp:77] Creating layer inception_4e/pool_proj
I0403 14:56:16.994150 11412 net.cpp:91] Creating Layer inception_4e/pool_proj
I0403 14:56:16.994168 11412 net.cpp:425] inception_4e/pool_proj <- inception_4e/pool
I0403 14:56:16.994189 11412 net.cpp:399] inception_4e/pool_proj -> inception_4e/pool_proj
I0403 14:56:16.995798 11412 net.cpp:141] Setting up inception_4e/pool_proj
I0403 14:56:16.995838 11412 net.cpp:148] Top shape: 24 128 14 14 (602112)
I0403 14:56:16.995853 11412 net.cpp:156] Memory required for data: 1254493728
I0403 14:56:16.995872 11412 layer_factory.hpp:77] Creating layer inception_4e/relu_pool_proj
I0403 14:56:16.995893 11412 net.cpp:91] Creating Layer inception_4e/relu_pool_proj
I0403 14:56:16.995910 11412 net.cpp:425] inception_4e/relu_pool_proj <- inception_4e/pool_proj
I0403 14:56:16.995926 11412 net.cpp:386] inception_4e/relu_pool_proj -> inception_4e/pool_proj (in-place)
I0403 14:56:16.996219 11412 net.cpp:141] Setting up inception_4e/relu_pool_proj
I0403 14:56:16.996245 11412 net.cpp:148] Top shape: 24 128 14 14 (602112)
I0403 14:56:16.996260 11412 net.cpp:156] Memory required for data: 1256902176
I0403 14:56:16.996274 11412 layer_factory.hpp:77] Creating layer inception_4e/output
I0403 14:56:16.996294 11412 net.cpp:91] Creating Layer inception_4e/output
I0403 14:56:16.996310 11412 net.cpp:425] inception_4e/output <- inception_4e/1x1
I0403 14:56:16.996326 11412 net.cpp:425] inception_4e/output <- inception_4e/3x3
I0403 14:56:16.996342 11412 net.cpp:425] inception_4e/output <- inception_4e/5x5
I0403 14:56:16.996358 11412 net.cpp:425] inception_4e/output <- inception_4e/pool_proj
I0403 14:56:16.996376 11412 net.cpp:399] inception_4e/output -> inception_4e/output
I0403 14:56:16.996429 11412 net.cpp:141] Setting up inception_4e/output
I0403 14:56:16.996455 11412 net.cpp:148] Top shape: 24 832 14 14 (3913728)
I0403 14:56:16.996470 11412 net.cpp:156] Memory required for data: 1272557088
I0403 14:56:16.996485 11412 layer_factory.hpp:77] Creating layer pool4/3x3_s2
I0403 14:56:16.996502 11412 net.cpp:91] Creating Layer pool4/3x3_s2
I0403 14:56:16.996517 11412 net.cpp:425] pool4/3x3_s2 <- inception_4e/output
I0403 14:56:16.996537 11412 net.cpp:399] pool4/3x3_s2 -> pool4/3x3_s2
I0403 14:56:16.996606 11412 net.cpp:141] Setting up pool4/3x3_s2
I0403 14:56:16.996633 11412 net.cpp:148] Top shape: 24 832 7 7 (978432)
I0403 14:56:16.996647 11412 net.cpp:156] Memory required for data: 1276470816
I0403 14:56:16.996675 11412 layer_factory.hpp:77] Creating layer pool4/3x3_s2_pool4/3x3_s2_0_split
I0403 14:56:16.996691 11412 net.cpp:91] Creating Layer pool4/3x3_s2_pool4/3x3_s2_0_split
I0403 14:56:16.996707 11412 net.cpp:425] pool4/3x3_s2_pool4/3x3_s2_0_split <- pool4/3x3_s2
I0403 14:56:16.996726 11412 net.cpp:399] pool4/3x3_s2_pool4/3x3_s2_0_split -> pool4/3x3_s2_pool4/3x3_s2_0_split_0
I0403 14:56:16.996745 11412 net.cpp:399] pool4/3x3_s2_pool4/3x3_s2_0_split -> pool4/3x3_s2_pool4/3x3_s2_0_split_1
I0403 14:56:16.996767 11412 net.cpp:399] pool4/3x3_s2_pool4/3x3_s2_0_split -> pool4/3x3_s2_pool4/3x3_s2_0_split_2
I0403 14:56:16.996789 11412 net.cpp:399] pool4/3x3_s2_pool4/3x3_s2_0_split -> pool4/3x3_s2_pool4/3x3_s2_0_split_3
I0403 14:56:16.996883 11412 net.cpp:141] Setting up pool4/3x3_s2_pool4/3x3_s2_0_split
I0403 14:56:16.996907 11412 net.cpp:148] Top shape: 24 832 7 7 (978432)
I0403 14:56:16.996923 11412 net.cpp:148] Top shape: 24 832 7 7 (978432)
I0403 14:56:16.996939 11412 net.cpp:148] Top shape: 24 832 7 7 (978432)
I0403 14:56:16.996954 11412 net.cpp:148] Top shape: 24 832 7 7 (978432)
I0403 14:56:16.996968 11412 net.cpp:156] Memory required for data: 1292125728
I0403 14:56:16.996994 11412 layer_factory.hpp:77] Creating layer inception_5a/1x1
I0403 14:56:16.997015 11412 net.cpp:91] Creating Layer inception_5a/1x1
I0403 14:56:16.997035 11412 net.cpp:425] inception_5a/1x1 <- pool4/3x3_s2_pool4/3x3_s2_0_split_0
I0403 14:56:16.997054 11412 net.cpp:399] inception_5a/1x1 -> inception_5a/1x1
I0403 14:56:17.000039 11412 net.cpp:141] Setting up inception_5a/1x1
I0403 14:56:17.000071 11412 net.cpp:148] Top shape: 24 256 7 7 (301056)
I0403 14:56:17.000087 11412 net.cpp:156] Memory required for data: 1293329952
I0403 14:56:17.000118 11412 layer_factory.hpp:77] Creating layer inception_5a/relu_1x1
I0403 14:56:17.000138 11412 net.cpp:91] Creating Layer inception_5a/relu_1x1
I0403 14:56:17.000156 11412 net.cpp:425] inception_5a/relu_1x1 <- inception_5a/1x1
I0403 14:56:17.000174 11412 net.cpp:386] inception_5a/relu_1x1 -> inception_5a/1x1 (in-place)
I0403 14:56:17.000504 11412 net.cpp:141] Setting up inception_5a/relu_1x1
I0403 14:56:17.000530 11412 net.cpp:148] Top shape: 24 256 7 7 (301056)
I0403 14:56:17.000545 11412 net.cpp:156] Memory required for data: 1294534176
I0403 14:56:17.000560 11412 layer_factory.hpp:77] Creating layer inception_5a/3x3_reduce
I0403 14:56:17.000586 11412 net.cpp:91] Creating Layer inception_5a/3x3_reduce
I0403 14:56:17.000604 11412 net.cpp:425] inception_5a/3x3_reduce <- pool4/3x3_s2_pool4/3x3_s2_0_split_1
I0403 14:56:17.000624 11412 net.cpp:399] inception_5a/3x3_reduce -> inception_5a/3x3_reduce
I0403 14:56:17.003245 11412 net.cpp:141] Setting up inception_5a/3x3_reduce
I0403 14:56:17.003275 11412 net.cpp:148] Top shape: 24 160 7 7 (188160)
I0403 14:56:17.003291 11412 net.cpp:156] Memory required for data: 1295286816
I0403 14:56:17.003310 11412 layer_factory.hpp:77] Creating layer inception_5a/relu_3x3_reduce
I0403 14:56:17.003330 11412 net.cpp:91] Creating Layer inception_5a/relu_3x3_reduce
I0403 14:56:17.003347 11412 net.cpp:425] inception_5a/relu_3x3_reduce <- inception_5a/3x3_reduce
I0403 14:56:17.003365 11412 net.cpp:386] inception_5a/relu_3x3_reduce -> inception_5a/3x3_reduce (in-place)
I0403 14:56:17.003571 11412 net.cpp:141] Setting up inception_5a/relu_3x3_reduce
I0403 14:56:17.003597 11412 net.cpp:148] Top shape: 24 160 7 7 (188160)
I0403 14:56:17.003610 11412 net.cpp:156] Memory required for data: 1296039456
I0403 14:56:17.003624 11412 layer_factory.hpp:77] Creating layer inception_5a/3x3
I0403 14:56:17.003646 11412 net.cpp:91] Creating Layer inception_5a/3x3
I0403 14:56:17.003664 11412 net.cpp:425] inception_5a/3x3 <- inception_5a/3x3_reduce
I0403 14:56:17.003685 11412 net.cpp:399] inception_5a/3x3 -> inception_5a/3x3
I0403 14:56:17.008863 11412 net.cpp:141] Setting up inception_5a/3x3
I0403 14:56:17.008893 11412 net.cpp:148] Top shape: 24 320 7 7 (376320)
I0403 14:56:17.008908 11412 net.cpp:156] Memory required for data: 1297544736
I0403 14:56:17.008926 11412 layer_factory.hpp:77] Creating layer inception_5a/relu_3x3
I0403 14:56:17.008946 11412 net.cpp:91] Creating Layer inception_5a/relu_3x3
I0403 14:56:17.008963 11412 net.cpp:425] inception_5a/relu_3x3 <- inception_5a/3x3
I0403 14:56:17.008980 11412 net.cpp:386] inception_5a/relu_3x3 -> inception_5a/3x3 (in-place)
I0403 14:56:17.009279 11412 net.cpp:141] Setting up inception_5a/relu_3x3
I0403 14:56:17.009305 11412 net.cpp:148] Top shape: 24 320 7 7 (376320)
I0403 14:56:17.009320 11412 net.cpp:156] Memory required for data: 1299050016
I0403 14:56:17.009333 11412 layer_factory.hpp:77] Creating layer inception_5a/5x5_reduce
I0403 14:56:17.009356 11412 net.cpp:91] Creating Layer inception_5a/5x5_reduce
I0403 14:56:17.009373 11412 net.cpp:425] inception_5a/5x5_reduce <- pool4/3x3_s2_pool4/3x3_s2_0_split_2
I0403 14:56:17.009394 11412 net.cpp:399] inception_5a/5x5_reduce -> inception_5a/5x5_reduce
I0403 14:56:17.010676 11412 net.cpp:141] Setting up inception_5a/5x5_reduce
I0403 14:56:17.010705 11412 net.cpp:148] Top shape: 24 32 7 7 (37632)
I0403 14:56:17.010721 11412 net.cpp:156] Memory required for data: 1299200544
I0403 14:56:17.010740 11412 layer_factory.hpp:77] Creating layer inception_5a/relu_5x5_reduce
I0403 14:56:17.010756 11412 net.cpp:91] Creating Layer inception_5a/relu_5x5_reduce
I0403 14:56:17.010785 11412 net.cpp:425] inception_5a/relu_5x5_reduce <- inception_5a/5x5_reduce
I0403 14:56:17.010802 11412 net.cpp:386] inception_5a/relu_5x5_reduce -> inception_5a/5x5_reduce (in-place)
I0403 14:56:17.011116 11412 net.cpp:141] Setting up inception_5a/relu_5x5_reduce
I0403 14:56:17.011147 11412 net.cpp:148] Top shape: 24 32 7 7 (37632)
I0403 14:56:17.011162 11412 net.cpp:156] Memory required for data: 1299351072
I0403 14:56:17.011188 11412 layer_factory.hpp:77] Creating layer inception_5a/5x5
I0403 14:56:17.011209 11412 net.cpp:91] Creating Layer inception_5a/5x5
I0403 14:56:17.011226 11412 net.cpp:425] inception_5a/5x5 <- inception_5a/5x5_reduce
I0403 14:56:17.011245 11412 net.cpp:399] inception_5a/5x5 -> inception_5a/5x5
I0403 14:56:17.013113 11412 net.cpp:141] Setting up inception_5a/5x5
I0403 14:56:17.013154 11412 net.cpp:148] Top shape: 24 128 7 7 (150528)
I0403 14:56:17.013170 11412 net.cpp:156] Memory required for data: 1299953184
I0403 14:56:17.013190 11412 layer_factory.hpp:77] Creating layer inception_5a/relu_5x5
I0403 14:56:17.013211 11412 net.cpp:91] Creating Layer inception_5a/relu_5x5
I0403 14:56:17.013228 11412 net.cpp:425] inception_5a/relu_5x5 <- inception_5a/5x5
I0403 14:56:17.013245 11412 net.cpp:386] inception_5a/relu_5x5 -> inception_5a/5x5 (in-place)
I0403 14:56:17.013452 11412 net.cpp:141] Setting up inception_5a/relu_5x5
I0403 14:56:17.013479 11412 net.cpp:148] Top shape: 24 128 7 7 (150528)
I0403 14:56:17.013495 11412 net.cpp:156] Memory required for data: 1300555296
I0403 14:56:17.013510 11412 layer_factory.hpp:77] Creating layer inception_5a/pool
I0403 14:56:17.013528 11412 net.cpp:91] Creating Layer inception_5a/pool
I0403 14:56:17.013545 11412 net.cpp:425] inception_5a/pool <- pool4/3x3_s2_pool4/3x3_s2_0_split_3
I0403 14:56:17.013577 11412 net.cpp:399] inception_5a/pool -> inception_5a/pool
I0403 14:56:17.013651 11412 net.cpp:141] Setting up inception_5a/pool
I0403 14:56:17.013677 11412 net.cpp:148] Top shape: 24 832 7 7 (978432)
I0403 14:56:17.013692 11412 net.cpp:156] Memory required for data: 1304469024
I0403 14:56:17.013707 11412 layer_factory.hpp:77] Creating layer inception_5a/pool_proj
I0403 14:56:17.013731 11412 net.cpp:91] Creating Layer inception_5a/pool_proj
I0403 14:56:17.013749 11412 net.cpp:425] inception_5a/pool_proj <- inception_5a/pool
I0403 14:56:17.013770 11412 net.cpp:399] inception_5a/pool_proj -> inception_5a/pool_proj
I0403 14:56:17.016177 11412 net.cpp:141] Setting up inception_5a/pool_proj
I0403 14:56:17.016208 11412 net.cpp:148] Top shape: 24 128 7 7 (150528)
I0403 14:56:17.016225 11412 net.cpp:156] Memory required for data: 1305071136
I0403 14:56:17.016244 11412 layer_factory.hpp:77] Creating layer inception_5a/relu_pool_proj
I0403 14:56:17.016264 11412 net.cpp:91] Creating Layer inception_5a/relu_pool_proj
I0403 14:56:17.016281 11412 net.cpp:425] inception_5a/relu_pool_proj <- inception_5a/pool_proj
I0403 14:56:17.016300 11412 net.cpp:386] inception_5a/relu_pool_proj -> inception_5a/pool_proj (in-place)
I0403 14:56:17.016614 11412 net.cpp:141] Setting up inception_5a/relu_pool_proj
I0403 14:56:17.016654 11412 net.cpp:148] Top shape: 24 128 7 7 (150528)
I0403 14:56:17.016669 11412 net.cpp:156] Memory required for data: 1305673248
I0403 14:56:17.016685 11412 layer_factory.hpp:77] Creating layer inception_5a/output
I0403 14:56:17.016702 11412 net.cpp:91] Creating Layer inception_5a/output
I0403 14:56:17.016718 11412 net.cpp:425] inception_5a/output <- inception_5a/1x1
I0403 14:56:17.016736 11412 net.cpp:425] inception_5a/output <- inception_5a/3x3
I0403 14:56:17.016752 11412 net.cpp:425] inception_5a/output <- inception_5a/5x5
I0403 14:56:17.016769 11412 net.cpp:425] inception_5a/output <- inception_5a/pool_proj
I0403 14:56:17.016789 11412 net.cpp:399] inception_5a/output -> inception_5a/output
I0403 14:56:17.016846 11412 net.cpp:141] Setting up inception_5a/output
I0403 14:56:17.016870 11412 net.cpp:148] Top shape: 24 832 7 7 (978432)
I0403 14:56:17.016885 11412 net.cpp:156] Memory required for data: 1309586976
I0403 14:56:17.016901 11412 layer_factory.hpp:77] Creating layer inception_5a/output_inception_5a/output_0_split
I0403 14:56:17.016929 11412 net.cpp:91] Creating Layer inception_5a/output_inception_5a/output_0_split
I0403 14:56:17.016945 11412 net.cpp:425] inception_5a/output_inception_5a/output_0_split <- inception_5a/output
I0403 14:56:17.016965 11412 net.cpp:399] inception_5a/output_inception_5a/output_0_split -> inception_5a/output_inception_5a/output_0_split_0
I0403 14:56:17.016986 11412 net.cpp:399] inception_5a/output_inception_5a/output_0_split -> inception_5a/output_inception_5a/output_0_split_1
I0403 14:56:17.017009 11412 net.cpp:399] inception_5a/output_inception_5a/output_0_split -> inception_5a/output_inception_5a/output_0_split_2
I0403 14:56:17.017029 11412 net.cpp:399] inception_5a/output_inception_5a/output_0_split -> inception_5a/output_inception_5a/output_0_split_3
I0403 14:56:17.017144 11412 net.cpp:141] Setting up inception_5a/output_inception_5a/output_0_split
I0403 14:56:17.017171 11412 net.cpp:148] Top shape: 24 832 7 7 (978432)
I0403 14:56:17.017189 11412 net.cpp:148] Top shape: 24 832 7 7 (978432)
I0403 14:56:17.017204 11412 net.cpp:148] Top shape: 24 832 7 7 (978432)
I0403 14:56:17.017220 11412 net.cpp:148] Top shape: 24 832 7 7 (978432)
I0403 14:56:17.017233 11412 net.cpp:156] Memory required for data: 1325241888
I0403 14:56:17.017248 11412 layer_factory.hpp:77] Creating layer inception_5b/1x1
I0403 14:56:17.017271 11412 net.cpp:91] Creating Layer inception_5b/1x1
I0403 14:56:17.017288 11412 net.cpp:425] inception_5b/1x1 <- inception_5a/output_inception_5a/output_0_split_0
I0403 14:56:17.017308 11412 net.cpp:399] inception_5b/1x1 -> inception_5b/1x1
I0403 14:56:17.021363 11412 net.cpp:141] Setting up inception_5b/1x1
I0403 14:56:17.021394 11412 net.cpp:148] Top shape: 24 384 7 7 (451584)
I0403 14:56:17.021409 11412 net.cpp:156] Memory required for data: 1327048224
I0403 14:56:17.021435 11412 layer_factory.hpp:77] Creating layer inception_5b/relu_1x1
I0403 14:56:17.021456 11412 net.cpp:91] Creating Layer inception_5b/relu_1x1
I0403 14:56:17.021471 11412 net.cpp:425] inception_5b/relu_1x1 <- inception_5b/1x1
I0403 14:56:17.021489 11412 net.cpp:386] inception_5b/relu_1x1 -> inception_5b/1x1 (in-place)
I0403 14:56:17.021837 11412 net.cpp:141] Setting up inception_5b/relu_1x1
I0403 14:56:17.021878 11412 net.cpp:148] Top shape: 24 384 7 7 (451584)
I0403 14:56:17.021893 11412 net.cpp:156] Memory required for data: 1328854560
I0403 14:56:17.021908 11412 layer_factory.hpp:77] Creating layer inception_5b/3x3_reduce
I0403 14:56:17.021942 11412 net.cpp:91] Creating Layer inception_5b/3x3_reduce
I0403 14:56:17.021960 11412 net.cpp:425] inception_5b/3x3_reduce <- inception_5a/output_inception_5a/output_0_split_1
I0403 14:56:17.021984 11412 net.cpp:399] inception_5b/3x3_reduce -> inception_5b/3x3_reduce
I0403 14:56:17.024798 11412 net.cpp:141] Setting up inception_5b/3x3_reduce
I0403 14:56:17.024829 11412 net.cpp:148] Top shape: 24 192 7 7 (225792)
I0403 14:56:17.024845 11412 net.cpp:156] Memory required for data: 1329757728
I0403 14:56:17.024864 11412 layer_factory.hpp:77] Creating layer inception_5b/relu_3x3_reduce
I0403 14:56:17.024896 11412 net.cpp:91] Creating Layer inception_5b/relu_3x3_reduce
I0403 14:56:17.024914 11412 net.cpp:425] inception_5b/relu_3x3_reduce <- inception_5b/3x3_reduce
I0403 14:56:17.024930 11412 net.cpp:386] inception_5b/relu_3x3_reduce -> inception_5b/3x3_reduce (in-place)
I0403 14:56:17.025122 11412 net.cpp:141] Setting up inception_5b/relu_3x3_reduce
I0403 14:56:17.025149 11412 net.cpp:148] Top shape: 24 192 7 7 (225792)
I0403 14:56:17.025164 11412 net.cpp:156] Memory required for data: 1330660896
I0403 14:56:17.025178 11412 layer_factory.hpp:77] Creating layer inception_5b/3x3
I0403 14:56:17.025198 11412 net.cpp:91] Creating Layer inception_5b/3x3
I0403 14:56:17.025215 11412 net.cpp:425] inception_5b/3x3 <- inception_5b/3x3_reduce
I0403 14:56:17.025235 11412 net.cpp:399] inception_5b/3x3 -> inception_5b/3x3
I0403 14:56:17.032261 11412 net.cpp:141] Setting up inception_5b/3x3
I0403 14:56:17.032291 11412 net.cpp:148] Top shape: 24 384 7 7 (451584)
I0403 14:56:17.032306 11412 net.cpp:156] Memory required for data: 1332467232
I0403 14:56:17.032325 11412 layer_factory.hpp:77] Creating layer inception_5b/relu_3x3
I0403 14:56:17.032344 11412 net.cpp:91] Creating Layer inception_5b/relu_3x3
I0403 14:56:17.032361 11412 net.cpp:425] inception_5b/relu_3x3 <- inception_5b/3x3
I0403 14:56:17.032378 11412 net.cpp:386] inception_5b/relu_3x3 -> inception_5b/3x3 (in-place)
I0403 14:56:17.032693 11412 net.cpp:141] Setting up inception_5b/relu_3x3
I0403 14:56:17.032719 11412 net.cpp:148] Top shape: 24 384 7 7 (451584)
I0403 14:56:17.032735 11412 net.cpp:156] Memory required for data: 1334273568
I0403 14:56:17.032749 11412 layer_factory.hpp:77] Creating layer inception_5b/5x5_reduce
I0403 14:56:17.032789 11412 net.cpp:91] Creating Layer inception_5b/5x5_reduce
I0403 14:56:17.032809 11412 net.cpp:425] inception_5b/5x5_reduce <- inception_5a/output_inception_5a/output_0_split_2
I0403 14:56:17.032830 11412 net.cpp:399] inception_5b/5x5_reduce -> inception_5b/5x5_reduce
I0403 14:56:17.034149 11412 net.cpp:141] Setting up inception_5b/5x5_reduce
I0403 14:56:17.034178 11412 net.cpp:148] Top shape: 24 48 7 7 (56448)
I0403 14:56:17.034193 11412 net.cpp:156] Memory required for data: 1334499360
I0403 14:56:17.034210 11412 layer_factory.hpp:77] Creating layer inception_5b/relu_5x5_reduce
I0403 14:56:17.034231 11412 net.cpp:91] Creating Layer inception_5b/relu_5x5_reduce
I0403 14:56:17.034248 11412 net.cpp:425] inception_5b/relu_5x5_reduce <- inception_5b/5x5_reduce
I0403 14:56:17.034265 11412 net.cpp:386] inception_5b/relu_5x5_reduce -> inception_5b/5x5_reduce (in-place)
I0403 14:56:17.034648 11412 net.cpp:141] Setting up inception_5b/relu_5x5_reduce
I0403 14:56:17.034675 11412 net.cpp:148] Top shape: 24 48 7 7 (56448)
I0403 14:56:17.034690 11412 net.cpp:156] Memory required for data: 1334725152
I0403 14:56:17.034705 11412 layer_factory.hpp:77] Creating layer inception_5b/5x5
I0403 14:56:17.034734 11412 net.cpp:91] Creating Layer inception_5b/5x5
I0403 14:56:17.034760 11412 net.cpp:425] inception_5b/5x5 <- inception_5b/5x5_reduce
I0403 14:56:17.034791 11412 net.cpp:399] inception_5b/5x5 -> inception_5b/5x5
I0403 14:56:17.036968 11412 net.cpp:141] Setting up inception_5b/5x5
I0403 14:56:17.036995 11412 net.cpp:148] Top shape: 24 128 7 7 (150528)
I0403 14:56:17.037010 11412 net.cpp:156] Memory required for data: 1335327264
I0403 14:56:17.037029 11412 layer_factory.hpp:77] Creating layer inception_5b/relu_5x5
I0403 14:56:17.037048 11412 net.cpp:91] Creating Layer inception_5b/relu_5x5
I0403 14:56:17.037066 11412 net.cpp:425] inception_5b/relu_5x5 <- inception_5b/5x5
I0403 14:56:17.037083 11412 net.cpp:386] inception_5b/relu_5x5 -> inception_5b/5x5 (in-place)
I0403 14:56:17.037278 11412 net.cpp:141] Setting up inception_5b/relu_5x5
I0403 14:56:17.037304 11412 net.cpp:148] Top shape: 24 128 7 7 (150528)
I0403 14:56:17.037319 11412 net.cpp:156] Memory required for data: 1335929376
I0403 14:56:17.037333 11412 layer_factory.hpp:77] Creating layer inception_5b/pool
I0403 14:56:17.037350 11412 net.cpp:91] Creating Layer inception_5b/pool
I0403 14:56:17.037366 11412 net.cpp:425] inception_5b/pool <- inception_5a/output_inception_5a/output_0_split_3
I0403 14:56:17.037385 11412 net.cpp:399] inception_5b/pool -> inception_5b/pool
I0403 14:56:17.037466 11412 net.cpp:141] Setting up inception_5b/pool
I0403 14:56:17.037489 11412 net.cpp:148] Top shape: 24 832 7 7 (978432)
I0403 14:56:17.037503 11412 net.cpp:156] Memory required for data: 1339843104
I0403 14:56:17.037518 11412 layer_factory.hpp:77] Creating layer inception_5b/pool_proj
I0403 14:56:17.037541 11412 net.cpp:91] Creating Layer inception_5b/pool_proj
I0403 14:56:17.037559 11412 net.cpp:425] inception_5b/pool_proj <- inception_5b/pool
I0403 14:56:17.037577 11412 net.cpp:399] inception_5b/pool_proj -> inception_5b/pool_proj
I0403 14:56:17.039943 11412 net.cpp:141] Setting up inception_5b/pool_proj
I0403 14:56:17.039973 11412 net.cpp:148] Top shape: 24 128 7 7 (150528)
I0403 14:56:17.039988 11412 net.cpp:156] Memory required for data: 1340445216
I0403 14:56:17.040006 11412 layer_factory.hpp:77] Creating layer inception_5b/relu_pool_proj
I0403 14:56:17.040027 11412 net.cpp:91] Creating Layer inception_5b/relu_pool_proj
I0403 14:56:17.040045 11412 net.cpp:425] inception_5b/relu_pool_proj <- inception_5b/pool_proj
I0403 14:56:17.040061 11412 net.cpp:386] inception_5b/relu_pool_proj -> inception_5b/pool_proj (in-place)
I0403 14:56:17.040380 11412 net.cpp:141] Setting up inception_5b/relu_pool_proj
I0403 14:56:17.040406 11412 net.cpp:148] Top shape: 24 128 7 7 (150528)
I0403 14:56:17.040428 11412 net.cpp:156] Memory required for data: 1341047328
I0403 14:56:17.040443 11412 layer_factory.hpp:77] Creating layer inception_5b/output
I0403 14:56:17.040464 11412 net.cpp:91] Creating Layer inception_5b/output
I0403 14:56:17.040508 11412 net.cpp:425] inception_5b/output <- inception_5b/1x1
I0403 14:56:17.040524 11412 net.cpp:425] inception_5b/output <- inception_5b/3x3
I0403 14:56:17.040541 11412 net.cpp:425] inception_5b/output <- inception_5b/5x5
I0403 14:56:17.040557 11412 net.cpp:425] inception_5b/output <- inception_5b/pool_proj
I0403 14:56:17.040575 11412 net.cpp:399] inception_5b/output -> inception_5b/output
I0403 14:56:17.040628 11412 net.cpp:141] Setting up inception_5b/output
I0403 14:56:17.040652 11412 net.cpp:148] Top shape: 24 1024 7 7 (1204224)
I0403 14:56:17.040668 11412 net.cpp:156] Memory required for data: 1345864224
I0403 14:56:17.040681 11412 layer_factory.hpp:77] Creating layer pool5/7x7_s1
I0403 14:56:17.040699 11412 net.cpp:91] Creating Layer pool5/7x7_s1
I0403 14:56:17.040715 11412 net.cpp:425] pool5/7x7_s1 <- inception_5b/output
I0403 14:56:17.040737 11412 net.cpp:399] pool5/7x7_s1 -> pool5/7x7_s1
I0403 14:56:17.040957 11412 net.cpp:141] Setting up pool5/7x7_s1
I0403 14:56:17.040982 11412 net.cpp:148] Top shape: 24 1024 1 1 (24576)
I0403 14:56:17.040999 11412 net.cpp:156] Memory required for data: 1345962528
I0403 14:56:17.041015 11412 layer_factory.hpp:77] Creating layer pool5/drop_7x7_s1
I0403 14:56:17.041033 11412 net.cpp:91] Creating Layer pool5/drop_7x7_s1
I0403 14:56:17.041050 11412 net.cpp:425] pool5/drop_7x7_s1 <- pool5/7x7_s1
I0403 14:56:17.041067 11412 net.cpp:386] pool5/drop_7x7_s1 -> pool5/7x7_s1 (in-place)
I0403 14:56:17.041120 11412 net.cpp:141] Setting up pool5/drop_7x7_s1
I0403 14:56:17.041165 11412 net.cpp:148] Top shape: 24 1024 1 1 (24576)
I0403 14:56:17.041182 11412 net.cpp:156] Memory required for data: 1346060832
I0403 14:56:17.041198 11412 layer_factory.hpp:77] Creating layer loss3/classifier_plantvillage
I0403 14:56:17.041218 11412 net.cpp:91] Creating Layer loss3/classifier_plantvillage
I0403 14:56:17.041235 11412 net.cpp:425] loss3/classifier_plantvillage <- pool5/7x7_s1
I0403 14:56:17.041254 11412 net.cpp:399] loss3/classifier_plantvillage -> loss3/classifier_plantvillage
I0403 14:56:17.041728 11412 net.cpp:141] Setting up loss3/classifier_plantvillage
I0403 14:56:17.041754 11412 net.cpp:148] Top shape: 24 38 (912)
I0403 14:56:17.041769 11412 net.cpp:156] Memory required for data: 1346064480
I0403 14:56:17.041786 11412 layer_factory.hpp:77] Creating layer loss3/classifier_plantvillage_loss3/classifier_plantvillage_0_split
I0403 14:56:17.041805 11412 net.cpp:91] Creating Layer loss3/classifier_plantvillage_loss3/classifier_plantvillage_0_split
I0403 14:56:17.041822 11412 net.cpp:425] loss3/classifier_plantvillage_loss3/classifier_plantvillage_0_split <- loss3/classifier_plantvillage
I0403 14:56:17.041844 11412 net.cpp:399] loss3/classifier_plantvillage_loss3/classifier_plantvillage_0_split -> loss3/classifier_plantvillage_loss3/classifier_plantvillage_0_split_0
I0403 14:56:17.041867 11412 net.cpp:399] loss3/classifier_plantvillage_loss3/classifier_plantvillage_0_split -> loss3/classifier_plantvillage_loss3/classifier_plantvillage_0_split_1
I0403 14:56:17.041888 11412 net.cpp:399] loss3/classifier_plantvillage_loss3/classifier_plantvillage_0_split -> loss3/classifier_plantvillage_loss3/classifier_plantvillage_0_split_2
I0403 14:56:17.041909 11412 net.cpp:399] loss3/classifier_plantvillage_loss3/classifier_plantvillage_0_split -> loss3/classifier_plantvillage_loss3/classifier_plantvillage_0_split_3
I0403 14:56:17.042021 11412 net.cpp:141] Setting up loss3/classifier_plantvillage_loss3/classifier_plantvillage_0_split
I0403 14:56:17.042047 11412 net.cpp:148] Top shape: 24 38 (912)
I0403 14:56:17.042065 11412 net.cpp:148] Top shape: 24 38 (912)
I0403 14:56:17.042081 11412 net.cpp:148] Top shape: 24 38 (912)
I0403 14:56:17.042110 11412 net.cpp:148] Top shape: 24 38 (912)
I0403 14:56:17.042124 11412 net.cpp:156] Memory required for data: 1346079072
I0403 14:56:17.042140 11412 layer_factory.hpp:77] Creating layer loss1/loss
I0403 14:56:17.042161 11412 net.cpp:91] Creating Layer loss1/loss
I0403 14:56:17.042179 11412 net.cpp:425] loss1/loss <- loss1/classifier_plantvillage_loss1/classifier_plantvillage_0_split_0
I0403 14:56:17.042210 11412 net.cpp:425] loss1/loss <- label_data_1_split_0
…
