…
I0403 14:54:33.289849 11386 net.cpp:313] The NetState phase (1) differed from the phase (0) specified by a rule in layer data
I0403 14:54:33.290989 11386 net.cpp:49] Initializing net from parameters: 
state {
  phase: TEST
}
layer {
  name: "data"
  type: "Data"
  top: "data"
  top: "label"
  include {
    phase: TEST
  }
  transform_param {
    mirror: false
    crop_size: 224
    mean_file: "/home/mohanty/data/final_dataset/lmdb/segmented-50-50/mean.binaryproto"
  }
  data_param {
    source: "/home/mohanty/data/final_dataset/lmdb/segmented-50-50/test_db"
    batch_size: 24
    backend: LMDB
  }
}
layer {
  name: "conv1/7x7_s2"
  type: "Convolution"
  bottom: "data"
  top: "conv1/7x7_s2"
  param {
    lr_mult: 1
    decay_mult: 1
  }
  param {
    lr_mult: 2
    decay_mult: 0
  }
  convolution_param {
    num_output: 64
    pad: 3
    kernel_size: 7
    stride: 2
    weight_filler {
      type: "xavier"
      std: 0.1
    }
    bias_filler {
      type: "constant"
      value: 0.2
    }
  }
}
layer {
  name: "conv1/relu_7x7"
  type: "ReLU"
  bottom: "conv1/7x7_s2"
  top: "conv1/7x7_s2"
}
layer {
  name: "pool1/3x3_s2"
  type: "Pooling"
  bottom: "conv1/7x7_s2"
  top: "pool1/3x3_s2"
  pooling_param {
    pool: MAX
    kernel_size: 3
    stride: 2
  }
}
layer {
  name: "pool1/norm1"
  type: "LRN"
  bottom: "pool1/3x3_s2"
  top: "pool1/norm1"
  lrn_param {
    local_size: 5
    alpha: 0.0001
    beta: 0.75
  }
}
layer {
  name: "conv2/3x3_reduce"
  type: "Convolution"
  bottom: "pool1/norm1"
  top: "conv2/3x3_reduce"
  param {
    lr_mult: 1
    decay_mult: 1
  }
  param {
    lr_mult: 2
    decay_mult: 0
  }
  convolution_param {
    num_output: 64
    kernel_size: 1
    weight_filler {
      type: "xavier"
      std: 0.1
    }
    bias_filler {
      type: "constant"
      value: 0.2
    }
  }
}
layer {
  name: "conv2/relu_3x3_reduce"
  type: "ReLU"
  bottom: "conv2/3x3_reduce"
  top: "conv2/3x3_reduce"
}
layer {
  name: "conv2/3x3"
  type: "Convolution"
  bottom: "conv2/3x3_reduce"
  top: "conv2/3x3"
  param {
    lr_mult: 1
    decay_mult: 1
  }
  param {
    lr_mult: 2
    decay_mult: 0
  }
  convolution_param {
    num_output: 192
    pad: 1
    kernel_size: 3
    weight_filler {
      type: "xavier"
      std: 0.03
    }
    bias_filler {
      type: "constant"
      value: 0.2
    }
  }
}
layer {
  name: "conv2/relu_3x3"
  type: "ReLU"
  bottom: "conv2/3x3"
  top: "conv2/3x3"
}
layer {
  name: "conv2/norm2"
  type: "LRN"
  bottom: "conv2/3x3"
  top: "conv2/norm2"
  lrn_param {
    local_size: 5
    alpha: 0.0001
    beta: 0.75
  }
}
layer {
  name: "pool2/3x3_s2"
  type: "Pooling"
  bottom: "conv2/norm2"
  top: "pool2/3x3_s2"
  pooling_param {
    pool: MAX
    kernel_size: 3
    stride: 2
  }
}
layer {
  name: "inception_3a/1x1"
  type: "Convolution"
  bottom: "pool2/3x3_s2"
  top: "inception_3a/1x1"
  param {
    lr_mult: 1
    decay_mult: 1
  }
  param {
    lr_mult: 2
    decay_mult: 0
  }
  convolution_param {
    num_output: 64
    kernel_size: 1
    weight_filler {
      type: "xavier"
      std: 0.03
    }
    bias_filler {
      type: "constant"
      value: 0.2
    }
  }
}
layer {
  name: "inception_3a/relu_1x1"
  type: "ReLU"
  bottom: "inception_3a/1x1"
  top: "inception_3a/1x1"
}
layer {
  name: "inception_3a/3x3_reduce"
  type: "Convolution"
  bottom: "pool2/3x3_s2"
  top: "inception_3a/3x3_reduce"
  param {
    lr_mult: 1
    decay_mult: 1
  }
  param {
    lr_mult: 2
    decay_mult: 0
  }
  convolution_param {
    num_output: 96
    kernel_size: 1
    weight_filler {
      type: "xavier"
      std: 0.09
    }
    bias_filler {
      type: "constant"
      value: 0.2
    }
  }
}
layer {
  name: "inception_3a/relu_3x3_reduce"
  type: "ReLU"
  bottom: "inception_3a/3x3_reduce"
  top: "inception_3a/3x3_reduce"
}
layer {
  name: "inception_3a/3x3"
  type: "Convolution"
  bottom: "inception_3a/3x3_reduce"
  top: "inception_3a/3x3"
  param {
    lr_mult: 1
    decay_mult: 1
  }
  param {
    lr_mult: 2
    decay_mult: 0
  }
  convolution_param {
    num_output: 128
    pad: 1
    kernel_size: 3
    weight_filler {
      type: "xavier"
      std: 0.03
    }
    bias_filler {
      type: "constant"
      value: 0.2
    }
  }
}
layer {
  name: "inception_3a/relu_3x3"
  type: "ReLU"
  bottom: "inception_3a/3x3"
  top: "inception_3a/3x3"
}
layer {
  name: "inception_3a/5x5_reduce"
  type: "Convolution"
  bottom: "pool2/3x3_s2"
  top: "inception_3a/5x5_reduce"
  param {
    lr_mult: 1
    decay_mult: 1
  }
  param {
    lr_mult: 2
    decay_mult: 0
  }
  convolution_param {
    num_output: 16
    kernel_size: 1
    weight_filler {
      type: "xavier"
      std: 0.2
    }
    bias_filler {
      type: "constant"
      value: 0.2
    }
  }
}
layer {
  name: "inception_3a/relu_5x5_reduce"
  type: "ReLU"
  bottom: "inception_3a/5x5_reduce"
  top: "inception_3a/5x5_reduce"
}
layer {
  name: "inception_3a/5x5"
  type: "Convolution"
  bottom: "inception_3a/5x5_reduce"
  top: "inception_3a/5x5"
  param {
    lr_mult: 1
    decay_mult: 1
  }
  param {
    lr_mult: 2
    decay_mult: 0
  }
  convolution_param {
    num_output: 32
    pad: 2
    kernel_size: 5
    weight_filler {
      type: "xavier"
      std: 0.03
    }
    bias_filler {
      type: "constant"
      value: 0.2
    }
  }
}
layer {
  name: "inception_3a/relu_5x5"
  type: "ReLU"
  bottom: "inception_3a/5x5"
  top: "inception_3a/5x5"
}
layer {
  name: "inception_3a/pool"
  type: "Pooling"
  bottom: "pool2/3x3_s2"
  top: "inception_3a/pool"
  pooling_param {
    pool: MAX
    kernel_size: 3
    stride: 1
    pad: 1
  }
}
layer {
  name: "inception_3a/pool_proj"
  type: "Convolution"
  bottom: "inception_3a/pool"
  top: "inception_3a/pool_proj"
  param {
    lr_mult: 1
    decay_mult: 1
  }
  param {
    lr_mult: 2
    decay_mult: 0
  }
  convolution_param {
    num_output: 32
    kernel_size: 1
    weight_filler {
      type: "xavier"
      std: 0.1
    }
    bias_filler {
      type: "constant"
      value: 0.2
    }
  }
}
layer {
  name: "inception_3a/relu_pool_proj"
  type: "ReLU"
  bottom: "inception_3a/pool_proj"
  top: "inception_3a/pool_proj"
}
layer {
  name: "inception_3a/output"
  type: "Concat"
  bottom: "inception_3a/1x1"
  bottom: "inception_3a/3x3"
  bottom: "inception_3a/5x5"
  bottom: "inception_3a/pool_proj"
  top: "inception_3a/output"
}
layer {
  name: "inception_3b/1x1"
  type: "Convolution"
  bottom: "inception_3a/output"
  top: "inception_3b/1x1"
  param {
    lr_mult: 1
    decay_mult: 1
  }
  param {
    lr_mult: 2
    decay_mult: 0
  }
  convolution_param {
    num_output: 128
    kernel_size: 1
    weight_filler {
      type: "xavier"
      std: 0.03
    }
    bias_filler {
      type: "constant"
      value: 0.2
    }
  }
}
layer {
  name: "inception_3b/relu_1x1"
  type: "ReLU"
  bottom: "inception_3b/1x1"
  top: "inception_3b/1x1"
}
layer {
  name: "inception_3b/3x3_reduce"
  type: "Convolution"
  bottom: "inception_3a/output"
  top: "inception_3b/3x3_reduce"
  param {
    lr_mult: 1
    decay_mult: 1
  }
  param {
    lr_mult: 2
    decay_mult: 0
  }
  convolution_param {
    num_output: 128
    kernel_size: 1
    weight_filler {
      type: "xavier"
      std: 0.09
    }
    bias_filler {
      type: "constant"
      value: 0.2
    }
  }
}
layer {
  name: "inception_3b/relu_3x3_reduce"
  type: "ReLU"
  bottom: "inception_3b/3x3_reduce"
  top: "inception_3b/3x3_reduce"
}
layer {
  name: "inception_3b/3x3"
  type: "Convolution"
  bottom: "inception_3b/3x3_reduce"
  top: "inception_3b/3x3"
  param {
    lr_mult: 1
    decay_mult: 1
  }
  param {
    lr_mult: 2
    decay_mult: 0
  }
  convolution_param {
    num_output: 192
    pad: 1
    kernel_size: 3
    weight_filler {
      type: "xavier"
      std: 0.03
    }
    bias_filler {
      type: "constant"
      value: 0.2
    }
  }
}
layer {
  name: "inception_3b/relu_3x3"
  type: "ReLU"
  bottom: "inception_3b/3x3"
  top: "inception_3b/3x3"
}
layer {
  name: "inception_3b/5x5_reduce"
  type: "Convolution"
  bottom: "inception_3a/output"
  top: "inception_3b/5x5_reduce"
  param {
    lr_mult: 1
    decay_mult: 1
  }
  param {
    lr_mult: 2
    decay_mult: 0
  }
  convolution_param {
    num_output: 32
    kernel_size: 1
    weight_filler {
      type: "xavier"
      std: 0.2
    }
    bias_filler {
      type: "constant"
      value: 0.2
    }
  }
}
layer {
  name: "inception_3b/relu_5x5_reduce"
  type: "ReLU"
  bottom: "inception_3b/5x5_reduce"
  top: "inception_3b/5x5_reduce"
}
layer {
  name: "inception_3b/5x5"
  type: "Convolution"
  bottom: "inception_3b/5x5_reduce"
  top: "inception_3b/5x5"
  param {
    lr_mult: 1
    decay_mult: 1
  }
  param {
    lr_mult: 2
    decay_mult: 0
  }
  convolution_param {
    num_output: 96
    pad: 2
    kernel_size: 5
    weight_filler {
      type: "xavier"
      std: 0.03
    }
    bias_filler {
      type: "constant"
      value: 0.2
    }
  }
}
layer {
  name: "inception_3b/relu_5x5"
  type: "ReLU"
  bottom: "inception_3b/5x5"
  top: "inception_3b/5x5"
}
layer {
  name: "inception_3b/pool"
  type: "Pooling"
  bottom: "inception_3a/output"
  top: "inception_3b/pool"
  pooling_param {
    pool: MAX
    kernel_size: 3
    stride: 1
    pad: 1
  }
}
layer {
  name: "inception_3b/pool_proj"
  type: "Convolution"
  bottom: "inception_3b/pool"
  top: "inception_3b/pool_proj"
  param {
    lr_mult: 1
    decay_mult: 1
  }
  param {
    lr_mult: 2
    decay_mult: 0
  }
  convolution_param {
    num_output: 64
    kernel_size: 1
    weight_filler {
      type: "xavier"
      std: 0.1
    }
    bias_filler {
      type: "constant"
      value: 0.2
    }
  }
}
layer {
  name: "inception_3b/relu_pool_proj"
  type: "ReLU"
  bottom: "inception_3b/pool_proj"
  top: "inception_3b/pool_proj"
}
layer {
  name: "inception_3b/output"
  type: "Concat"
  bottom: "inception_3b/1x1"
  bottom: "inception_3b/3x3"
  bottom: "inception_3b/5x5"
  bottom: "inception_3b/pool_proj"
  top: "inception_3b/output"
}
layer {
  name: "pool3/3x3_s2"
  type: "Pooling"
  bottom: "inception_3b/output"
  top: "pool3/3x3_s2"
  pooling_param {
    pool: MAX
    kernel_size: 3
    stride: 2
  }
}
layer {
  name: "inception_4a/1x1"
  type: "Convolution"
  bottom: "pool3/3x3_s2"
  top: "inception_4a/1x1"
  param {
    lr_mult: 1
    decay_mult: 1
  }
  param {
    lr_mult: 2
    decay_mult: 0
  }
  convolution_param {
    num_output: 192
    kernel_size: 1
    weight_filler {
      type: "xavier"
      std: 0.03
    }
    bias_filler {
      type: "constant"
      value: 0.2
    }
  }
}
layer {
  name: "inception_4a/relu_1x1"
  type: "ReLU"
  bottom: "inception_4a/1x1"
  top: "inception_4a/1x1"
}
layer {
  name: "inception_4a/3x3_reduce"
  type: "Convolution"
  bottom: "pool3/3x3_s2"
  top: "inception_4a/3x3_reduce"
  param {
    lr_mult: 1
    decay_mult: 1
  }
  param {
    lr_mult: 2
    decay_mult: 0
  }
  convolution_param {
    num_output: 96
    kernel_size: 1
    weight_filler {
      type: "xavier"
      std: 0.09
    }
    bias_filler {
      type: "constant"
      value: 0.2
    }
  }
}
layer {
  name: "inception_4a/relu_3x3_reduce"
  type: "ReLU"
  bottom: "inception_4a/3x3_reduce"
  top: "inception_4a/3x3_reduce"
}
layer {
  name: "inception_4a/3x3"
  type: "Convolution"
  bottom: "inception_4a/3x3_reduce"
  top: "inception_4a/3x3"
  param {
    lr_mult: 1
    decay_mult: 1
  }
  param {
    lr_mult: 2
    decay_mult: 0
  }
  convolution_param {
    num_output: 208
    pad: 1
    kernel_size: 3
    weight_filler {
      type: "xavier"
      std: 0.03
    }
    bias_filler {
      type: "constant"
      value: 0.2
    }
  }
}
layer {
  name: "inception_4a/relu_3x3"
  type: "ReLU"
  bottom: "inception_4a/3x3"
  top: "inception_4a/3x3"
}
layer {
  name: "inception_4a/5x5_reduce"
  type: "Convolution"
  bottom: "pool3/3x3_s2"
  top: "inception_4a/5x5_reduce"
  param {
    lr_mult: 1
    decay_mult: 1
  }
  param {
    lr_mult: 2
    decay_mult: 0
  }
  convolution_param {
    num_output: 16
    kernel_size: 1
    weight_filler {
      type: "xavier"
      std: 0.2
    }
    bias_filler {
      type: "constant"
      value: 0.2
    }
  }
}
layer {
  name: "inception_4a/relu_5x5_reduce"
  type: "ReLU"
  bottom: "inception_4a/5x5_reduce"
  top: "inception_4a/5x5_reduce"
}
layer {
  name: "inception_4a/5x5"
  type: "Convolution"
  bottom: "inception_4a/5x5_reduce"
  top: "inception_4a/5x5"
  param {
    lr_mult: 1
    decay_mult: 1
  }
  param {
    lr_mult: 2
    decay_mult: 0
  }
  convolution_param {
    num_output: 48
    pad: 2
    kernel_size: 5
    weight_filler {
      type: "xavier"
      std: 0.03
    }
    bias_filler {
      type: "constant"
      value: 0.2
    }
  }
}
layer {
  name: "inception_4a/relu_5x5"
  type: "ReLU"
  bottom: "inception_4a/5x5"
  top: "inception_4a/5x5"
}
layer {
  name: "inception_4a/pool"
  type: "Pooling"
  bottom: "pool3/3x3_s2"
  top: "inception_4a/pool"
  pooling_param {
    pool: MAX
    kernel_size: 3
    stride: 1
    pad: 1
  }
}
layer {
  name: "inception_4a/pool_proj"
  type: "Convolution"
  bottom: "inception_4a/pool"
  top: "inception_4a/pool_proj"
  param {
    lr_mult: 1
    decay_mult: 1
  }
  param {
    lr_mult: 2
    decay_mult: 0
  }
  convolution_param {
    num_output: 64
    kernel_size: 1
    weight_filler {
      type: "xavier"
      std: 0.1
    }
    bias_filler {
      type: "constant"
      value: 0.2
    }
  }
}
layer {
  name: "inception_4a/relu_pool_proj"
  type: "ReLU"
  bottom: "inception_4a/pool_proj"
  top: "inception_4a/pool_proj"
}
layer {
  name: "inception_4a/output"
  type: "Concat"
  bottom: "inception_4a/1x1"
  bottom: "inception_4a/3x3"
  bottom: "inception_4a/5x5"
  bottom: "inception_4a/pool_proj"
  top: "inception_4a/output"
}
layer {
  name: "loss1/ave_pool"
  type: "Pooling"
  bottom: "inception_4a/output"
  top: "loss1/ave_pool"
  pooling_param {
    pool: AVE
    kernel_size: 5
    stride: 3
  }
}
layer {
  name: "loss1/conv"
  type: "Convolution"
  bottom: "loss1/ave_pool"
  top: "loss1/conv"
  param {
    lr_mult: 1
    decay_mult: 1
  }
  param {
    lr_mult: 2
    decay_mult: 0
  }
  convolution_param {
    num_output: 128
    kernel_size: 1
    weight_filler {
      type: "xavier"
      std: 0.08
    }
    bias_filler {
      type: "constant"
      value: 0.2
    }
  }
}
layer {
  name: "loss1/relu_conv"
  type: "ReLU"
  bottom: "loss1/conv"
  top: "loss1/conv"
}
layer {
  name: "loss1/fc"
  type: "InnerProduct"
  bottom: "loss1/conv"
  top: "loss1/fc"
  param {
    lr_mult: 1
    decay_mult: 1
  }
  param {
    lr_mult: 2
    decay_mult: 0
  }
  inner_product_param {
    num_output: 1024
    weight_filler {
      type: "xavier"
      std: 0.02
    }
    bias_filler {
      type: "constant"
      value: 0.2
    }
  }
}
layer {
  name: "loss1/relu_fc"
  type: "ReLU"
  bottom: "loss1/fc"
  top: "loss1/fc"
}
layer {
  name: "loss1/drop_fc"
  type: "Dropout"
  bottom: "loss1/fc"
  top: "loss1/fc"
  dropout_param {
    dropout_ratio: 0.7
  }
}
layer {
  name: "loss1/classifier_plantvillage"
  type: "InnerProduct"
  bottom: "loss1/fc"
  top: "loss1/classifier_plantvillage"
  param {
    lr_mult: 1
    decay_mult: 1
  }
  param {
    lr_mult: 2
    decay_mult: 0
  }
  inner_product_param {
    num_output: 38
    weight_filler {
      type: "xavier"
      std: 0.0009765625
    }
    bias_filler {
      type: "constant"
      value: 0
    }
  }
}
layer {
  name: "inception_4b/1x1"
  type: "Convolution"
  bottom: "inception_4a/output"
  top: "inception_4b/1x1"
  param {
    lr_mult: 1
    decay_mult: 1
  }
  param {
    lr_mult: 2
    decay_mult: 0
  }
  convolution_param {
    num_output: 160
    kernel_size: 1
    weight_filler {
      type: "xavier"
      std: 0.03
    }
    bias_filler {
      type: "constant"
      value: 0.2
    }
  }
}
layer {
  name: "inception_4b/relu_1x1"
  type: "ReLU"
  bottom: "inception_4b/1x1"
  top: "inception_4b/1x1"
}
layer {
  name: "inception_4b/3x3_reduce"
  type: "Convolution"
  bottom: "inception_4a/output"
  top: "inception_4b/3x3_reduce"
  param {
    lr_mult: 1
    decay_mult: 1
  }
  param {
    lr_mult: 2
    decay_mult: 0
  }
  convolution_param {
    num_output: 112
    kernel_size: 1
    weight_filler {
      type: "xavier"
      std: 0.09
    }
    bias_filler {
      type: "constant"
      value: 0.2
    }
  }
}
layer {
  name: "inception_4b/relu_3x3_reduce"
  type: "ReLU"
  bottom: "inception_4b/3x3_reduce"
  top: "inception_4b/3x3_reduce"
}
layer {
  name: "inception_4b/3x3"
  type: "Convolution"
  bottom: "inception_4b/3x3_reduce"
  top: "inception_4b/3x3"
  param {
    lr_mult: 1
    decay_mult: 1
  }
  param {
    lr_mult: 2
    decay_mult: 0
  }
  convolution_param {
    num_output: 224
    pad: 1
    kernel_size: 3
    weight_filler {
      type: "xavier"
      std: 0.03
    }
    bias_filler {
      type: "constant"
      value: 0.2
    }
  }
}
layer {
  name: "inception_4b/relu_3x3"
  type: "ReLU"
  bottom: "inception_4b/3x3"
  top: "inception_4b/3x3"
}
layer {
  name: "inception_4b/5x5_reduce"
  type: "Convolution"
  bottom: "inception_4a/output"
  top: "inception_4b/5x5_reduce"
  param {
    lr_mult: 1
    decay_mult: 1
  }
  param {
    lr_mult: 2
    decay_mult: 0
  }
  convolution_param {
    num_output: 24
    kernel_size: 1
    weight_filler {
      type: "xavier"
      std: 0.2
    }
    bias_filler {
      type: "constant"
      value: 0.2
    }
  }
}
layer {
  name: "inception_4b/relu_5x5_reduce"
  type: "ReLU"
  bottom: "inception_4b/5x5_reduce"
  top: "inception_4b/5x5_reduce"
}
layer {
  name: "inception_4b/5x5"
  type: "Convolution"
  bottom: "inception_4b/5x5_reduce"
  top: "inception_4b/5x5"
  param {
    lr_mult: 1
    decay_mult: 1
  }
  param {
    lr_mult: 2
    decay_mult: 0
  }
  convolution_param {
    num_output: 64
    pad: 2
    kernel_size: 5
    weight_filler {
      type: "xavier"
      std: 0.03
    }
    bias_filler {
      type: "constant"
      value: 0.2
    }
  }
}
layer {
  name: "inception_4b/relu_5x5"
  type: "ReLU"
  bottom: "inception_4b/5x5"
  top: "inception_4b/5x5"
}
layer {
  name: "inception_4b/pool"
  type: "Pooling"
  bottom: "inception_4a/output"
  top: "inception_4b/pool"
  pooling_param {
    pool: MAX
    kernel_size: 3
    stride: 1
    pad: 1
  }
}
layer {
  name: "inception_4b/pool_proj"
  type: "Convolution"
  bottom: "inception_4b/pool"
  top: "inception_4b/pool_proj"
  param {
    lr_mult: 1
    decay_mult: 1
  }
  param {
    lr_mult: 2
    decay_mult: 0
  }
  convolution_param {
    num_output: 64
    kernel_size: 1
    weight_filler {
      type: "xavier"
      std: 0.1
    }
    bias_filler {
      type: "constant"
      value: 0.2
    }
  }
}
layer {
  name: "inception_4b/relu_pool_proj"
  type: "ReLU"
  bottom: "inception_4b/pool_proj"
  top: "inception_4b/pool_proj"
}
layer {
  name: "inception_4b/output"
  type: "Concat"
  bottom: "inception_4b/1x1"
  bottom: "inception_4b/3x3"
  bottom: "inception_4b/5x5"
  bottom: "inception_4b/pool_proj"
  top: "inception_4b/output"
}
layer {
  name: "inception_4c/1x1"
  type: "Convolution"
  bottom: "inception_4b/output"
  top: "inception_4c/1x1"
  param {
    lr_mult: 1
    decay_mult: 1
  }
  param {
    lr_mult: 2
    decay_mult: 0
  }
  convolution_param {
    num_output: 128
    kernel_size: 1
    weight_filler {
      type: "xavier"
      std: 0.03
    }
    bias_filler {
      type: "constant"
      value: 0.2
    }
  }
}
layer {
  name: "inception_4c/relu_1x1"
  type: "ReLU"
  bottom: "inception_4c/1x1"
  top: "inception_4c/1x1"
}
layer {
  name: "inception_4c/3x3_reduce"
  type: "Convolution"
  bottom: "inception_4b/output"
  top: "inception_4c/3x3_reduce"
  param {
    lr_mult: 1
    decay_mult: 1
  }
  param {
    lr_mult: 2
    decay_mult: 0
  }
  convolution_param {
    num_output: 128
    kernel_size: 1
    weight_filler {
      type: "xavier"
      std: 0.09
    }
    bias_filler {
      type: "constant"
      value: 0.2
    }
  }
}
layer {
  name: "inception_4c/relu_3x3_reduce"
  type: "ReLU"
  bottom: "inception_4c/3x3_reduce"
  top: "inception_4c/3x3_reduce"
}
layer {
  name: "inception_4c/3x3"
  type: "Convolution"
  bottom: "inception_4c/3x3_reduce"
  top: "inception_4c/3x3"
  param {
    lr_mult: 1
    decay_mult: 1
  }
  param {
    lr_mult: 2
    decay_mult: 0
  }
  convolution_param {
    num_output: 256
    pad: 1
    kernel_size: 3
    weight_filler {
      type: "xavier"
      std: 0.03
    }
    bias_filler {
      type: "constant"
      value: 0.2
    }
  }
}
layer {
  name: "inception_4c/relu_3x3"
  type: "ReLU"
  bottom: "inception_4c/3x3"
  top: "inception_4c/3x3"
}
layer {
  name: "inception_4c/5x5_reduce"
  type: "Convolution"
  bottom: "inception_4b/output"
  top: "inception_4c/5x5_reduce"
  param {
    lr_mult: 1
    decay_mult: 1
  }
  param {
    lr_mult: 2
    decay_mult: 0
  }
  convolution_param {
    num_output: 24
    kernel_size: 1
    weight_filler {
      type: "xavier"
      std: 0.2
    }
    bias_filler {
      type: "constant"
      value: 0.2
    }
  }
}
layer {
  name: "inception_4c/relu_5x5_reduce"
  type: "ReLU"
  bottom: "inception_4c/5x5_reduce"
  top: "inception_4c/5x5_reduce"
}
layer {
  name: "inception_4c/5x5"
  type: "Convolution"
  bottom: "inception_4c/5x5_reduce"
  top: "inception_4c/5x5"
  param {
    lr_mult: 1
    decay_mult: 1
  }
  param {
    lr_mult: 2
    decay_mult: 0
  }
  convolution_param {
    num_output: 64
    pad: 2
    kernel_size: 5
    weight_filler {
      type: "xavier"
      std: 0.03
    }
    bias_filler {
      type: "constant"
      value: 0.2
    }
  }
}
layer {
  name: "inception_4c/relu_5x5"
  type: "ReLU"
  bottom: "inception_4c/5x5"
  top: "inception_4c/5x5"
}
layer {
  name: "inception_4c/pool"
  type: "Pooling"
  bottom: "inception_4b/output"
  top: "inception_4c/pool"
  pooling_param {
    pool: MAX
    kernel_size: 3
    stride: 1
    pad: 1
  }
}
layer {
  name: "inception_4c/pool_proj"
  type: "Convolution"
  bottom: "inception_4c/pool"
  top: "inception_4c/pool_proj"
  param {
    lr_mult: 1
    decay_mult: 1
  }
  param {
    lr_mult: 2
    decay_mult: 0
  }
  convolution_param {
    num_output: 64
    kernel_size: 1
    weight_filler {
      type: "xavier"
      std: 0.1
    }
    bias_filler {
      type: "constant"
      value: 0.2
    }
  }
}
layer {
  name: "inception_4c/relu_pool_proj"
  type: "ReLU"
  bottom: "inception_4c/pool_proj"
  top: "inception_4c/pool_proj"
}
layer {
  name: "inception_4c/output"
  type: "Concat"
  bottom: "inception_4c/1x1"
  bottom: "inception_4c/3x3"
  bottom: "inception_4c/5x5"
  bottom: "inception_4c/pool_proj"
  top: "inception_4c/output"
}
layer {
  name: "inception_4d/1x1"
  type: "Convolution"
  bottom: "inception_4c/output"
  top: "inception_4d/1x1"
  param {
    lr_mult: 1
    decay_mult: 1
  }
  param {
    lr_mult: 2
    decay_mult: 0
  }
  convolution_param {
    num_output: 112
    kernel_size: 1
    weight_filler {
      type: "xavier"
      std: 0.03
    }
    bias_filler {
      type: "constant"
      value: 0.2
    }
  }
}
layer {
  name: "inception_4d/relu_1x1"
  type: "ReLU"
  bottom: "inception_4d/1x1"
  top: "inception_4d/1x1"
}
layer {
  name: "inception_4d/3x3_reduce"
  type: "Convolution"
  bottom: "inception_4c/output"
  top: "inception_4d/3x3_reduce"
  param {
    lr_mult: 1
    decay_mult: 1
  }
  param {
    lr_mult: 2
    decay_mult: 0
  }
  convolution_param {
    num_output: 144
    kernel_size: 1
    weight_filler {
      type: "xavier"
      std: 0.09
    }
    bias_filler {
      type: "constant"
      value: 0.2
    }
  }
}
layer {
  name: "inception_4d/relu_3x3_reduce"
  type: "ReLU"
  bottom: "inception_4d/3x3_reduce"
  top: "inception_4d/3x3_reduce"
}
layer {
  name: "inception_4d/3x3"
  type: "Convolution"
  bottom: "inception_4d/3x3_reduce"
  top: "inception_4d/3x3"
  param {
    lr_mult: 1
    decay_mult: 1
  }
  param {
    lr_mult: 2
    decay_mult: 0
  }
  convolution_param {
    num_output: 288
    pad: 1
    kernel_size: 3
    weight_filler {
      type: "xavier"
      std: 0.03
    }
    bias_filler {
      type: "constant"
      value: 0.2
    }
  }
}
layer {
  name: "inception_4d/relu_3x3"
  type: "ReLU"
  bottom: "inception_4d/3x3"
  top: "inception_4d/3x3"
}
layer {
  name: "inception_4d/5x5_reduce"
  type: "Convolution"
  bottom: "inception_4c/output"
  top: "inception_4d/5x5_reduce"
  param {
    lr_mult: 1
    decay_mult: 1
  }
  param {
    lr_mult: 2
    decay_mult: 0
  }
  convolution_param {
    num_output: 32
    kernel_size: 1
    weight_filler {
      type: "xavier"
      std: 0.2
    }
    bias_filler {
      type: "constant"
      value: 0.2
    }
  }
}
layer {
  name: "inception_4d/relu_5x5_reduce"
  type: "ReLU"
  bottom: "inception_4d/5x5_reduce"
  top: "inception_4d/5x5_reduce"
}
layer {
  name: "inception_4d/5x5"
  type: "Convolution"
  bottom: "inception_4d/5x5_reduce"
  top: "inception_4d/5x5"
  param {
    lr_mult: 1
    decay_mult: 1
  }
  param {
    lr_mult: 2
    decay_mult: 0
  }
  convolution_param {
    num_output: 64
    pad: 2
    kernel_size: 5
    weight_filler {
      type: "xavier"
      std: 0.03
    }
    bias_filler {
      type: "constant"
      value: 0.2
    }
  }
}
layer {
  name: "inception_4d/relu_5x5"
  type: "ReLU"
  bottom: "inception_4d/5x5"
  top: "inception_4d/5x5"
}
layer {
  name: "inception_4d/pool"
  type: "Pooling"
  bottom: "inception_4c/output"
  top: "inception_4d/pool"
  pooling_param {
    pool: MAX
    kernel_size: 3
    stride: 1
    pad: 1
  }
}
layer {
  name: "inception_4d/pool_proj"
  type: "Convolution"
  bottom: "inception_4d/pool"
  top: "inception_4d/pool_proj"
  param {
    lr_mult: 1
    decay_mult: 1
  }
  param {
    lr_mult: 2
    decay_mult: 0
  }
  convolution_param {
    num_output: 64
    kernel_size: 1
    weight_filler {
      type: "xavier"
      std: 0.1
    }
    bias_filler {
      type: "constant"
      value: 0.2
    }
  }
}
layer {
  name: "inception_4d/relu_pool_proj"
  type: "ReLU"
  bottom: "inception_4d/pool_proj"
  top: "inception_4d/pool_proj"
}
layer {
  name: "inception_4d/output"
  type: "Concat"
  bottom: "inception_4d/1x1"
  bottom: "inception_4d/3x3"
  bottom: "inception_4d/5x5"
  bottom: "inception_4d/pool_proj"
  top: "inception_4d/output"
}
layer {
  name: "loss2/ave_pool"
  type: "Pooling"
  bottom: "inception_4d/output"
  top: "loss2/ave_pool"
  pooling_param {
    pool: AVE
    kernel_size: 5
    stride: 3
  }
}
layer {
  name: "loss2/conv"
  type: "Convolution"
  bottom: "loss2/ave_pool"
  top: "loss2/conv"
  param {
    lr_mult: 1
    decay_mult: 1
  }
  param {
    lr_mult: 2
    decay_mult: 0
  }
  convolution_param {
    num_output: 128
    kernel_size: 1
    weight_filler {
      type: "xavier"
      std: 0.08
    }
    bias_filler {
      type: "constant"
      value: 0.2
    }
  }
}
layer {
  name: "loss2/relu_conv"
  type: "ReLU"
  bottom: "loss2/conv"
  top: "loss2/conv"
}
layer {
  name: "loss2/fc"
  type: "InnerProduct"
  bottom: "loss2/conv"
  top: "loss2/fc"
  param {
    lr_mult: 1
    decay_mult: 1
  }
  param {
    lr_mult: 2
    decay_mult: 0
  }
  inner_product_param {
    num_output: 1024
    weight_filler {
      type: "xavier"
      std: 0.02
    }
    bias_filler {
      type: "constant"
      value: 0.2
    }
  }
}
layer {
  name: "loss2/relu_fc"
  type: "ReLU"
  bottom: "loss2/fc"
  top: "loss2/fc"
}
layer {
  name: "loss2/drop_fc"
  type: "Dropout"
  bottom: "loss2/fc"
  top: "loss2/fc"
  dropout_param {
    dropout_ratio: 0.7
  }
}
layer {
  name: "loss2/classifier_plantvillage"
  type: "InnerProduct"
  bottom: "loss2/fc"
  top: "loss2/classifier_plantvillage"
  param {
    lr_mult: 1
    decay_mult: 1
  }
  param {
    lr_mult: 2
    decay_mult: 0
  }
  inner_product_param {
    num_output: 38
    weight_filler {
      type: "xavier"
      std: 0.0009765625
    }
    bias_filler {
      type: "constant"
      value: 0
    }
  }
}
layer {
  name: "inception_4e/1x1"
  type: "Convolution"
  bottom: "inception_4d/output"
  top: "inception_4e/1x1"
  param {
    lr_mult: 1
    decay_mult: 1
  }
  param {
    lr_mult: 2
    decay_mult: 0
  }
  convolution_param {
    num_output: 256
    kernel_size: 1
    weight_filler {
      type: "xavier"
      std: 0.03
    }
    bias_filler {
      type: "constant"
      value: 0.2
    }
  }
}
layer {
  name: "inception_4e/relu_1x1"
  type: "ReLU"
  bottom: "inception_4e/1x1"
  top: "inception_4e/1x1"
}
layer {
  name: "inception_4e/3x3_reduce"
  type: "Convolution"
  bottom: "inception_4d/output"
  top: "inception_4e/3x3_reduce"
  param {
    lr_mult: 1
    decay_mult: 1
  }
  param {
    lr_mult: 2
    decay_mult: 0
  }
  convolution_param {
    num_output: 160
    kernel_size: 1
    weight_filler {
      type: "xavier"
      std: 0.09
    }
    bias_filler {
      type: "constant"
      value: 0.2
    }
  }
}
layer {
  name: "inception_4e/relu_3x3_reduce"
  type: "ReLU"
  bottom: "inception_4e/3x3_reduce"
  top: "inception_4e/3x3_reduce"
}
layer {
  name: "inception_4e/3x3"
  type: "Convolution"
  bottom: "inception_4e/3x3_reduce"
  top: "inception_4e/3x3"
  param {
    lr_mult: 1
    decay_mult: 1
  }
  param {
    lr_mult: 2
    decay_mult: 0
  }
  convolution_param {
    num_output: 320
    pad: 1
    kernel_size: 3
    weight_filler {
      type: "xavier"
      std: 0.03
    }
    bias_filler {
      type: "constant"
      value: 0.2
    }
  }
}
layer {
  name: "inception_4e/relu_3x3"
  type: "ReLU"
  bottom: "inception_4e/3x3"
  top: "inception_4e/3x3"
}
layer {
  name: "inception_4e/5x5_reduce"
  type: "Convolution"
  bottom: "inception_4d/output"
  top: "inception_4e/5x5_reduce"
  param {
    lr_mult: 1
    decay_mult: 1
  }
  param {
    lr_mult: 2
    decay_mult: 0
  }
  convolution_param {
    num_output: 32
    kernel_size: 1
    weight_filler {
      type: "xavier"
      std: 0.2
    }
    bias_filler {
      type: "constant"
      value: 0.2
    }
  }
}
layer {
  name: "inception_4e/relu_5x5_reduce"
  type: "ReLU"
  bottom: "inception_4e/5x5_reduce"
  top: "inception_4e/5x5_reduce"
}
layer {
  name: "inception_4e/5x5"
  type: "Convolution"
  bottom: "inception_4e/5x5_reduce"
  top: "inception_4e/
I0403 14:54:33.292222 11386 layer_factory.hpp:77] Creating layer data
I0403 14:54:33.292825 11386 net.cpp:91] Creating Layer data
I0403 14:54:33.292860 11386 net.cpp:399] data -> data
I0403 14:54:33.292909 11386 net.cpp:399] data -> label
I0403 14:54:33.292944 11386 data_transformer.cpp:25] Loading mean file from: /home/mohanty/data/final_dataset/lmdb/segmented-50-50/mean.binaryproto
I0403 14:54:33.295088 11390 db_lmdb.cpp:38] Opened lmdb /home/mohanty/data/final_dataset/lmdb/segmented-50-50/test_db
I0403 14:54:33.305811 11386 data_layer.cpp:41] output data size: 24,3,224,224
I0403 14:54:33.333381 11386 net.cpp:141] Setting up data
I0403 14:54:33.333442 11386 net.cpp:148] Top shape: 24 3 224 224 (3612672)
I0403 14:54:33.333466 11386 net.cpp:148] Top shape: 24 (24)
I0403 14:54:33.333479 11386 net.cpp:156] Memory required for data: 14450784
I0403 14:54:33.333506 11386 layer_factory.hpp:77] Creating layer label_data_1_split
I0403 14:54:33.333534 11386 net.cpp:91] Creating Layer label_data_1_split
I0403 14:54:33.333551 11386 net.cpp:425] label_data_1_split <- label
I0403 14:54:33.333581 11386 net.cpp:399] label_data_1_split -> label_data_1_split_0
I0403 14:54:33.333609 11386 net.cpp:399] label_data_1_split -> label_data_1_split_1
I0403 14:54:33.333631 11386 net.cpp:399] label_data_1_split -> label_data_1_split_2
I0403 14:54:33.333650 11386 net.cpp:399] label_data_1_split -> label_data_1_split_3
I0403 14:54:33.333670 11386 net.cpp:399] label_data_1_split -> label_data_1_split_4
I0403 14:54:33.333690 11386 net.cpp:399] label_data_1_split -> label_data_1_split_5
I0403 14:54:33.333709 11386 net.cpp:399] label_data_1_split -> label_data_1_split_6
I0403 14:54:33.333729 11386 net.cpp:399] label_data_1_split -> label_data_1_split_7
I0403 14:54:33.333748 11386 net.cpp:399] label_data_1_split -> label_data_1_split_8
I0403 14:54:33.333768 11386 net.cpp:399] label_data_1_split -> label_data_1_split_9
I0403 14:54:33.333884 11386 net.cpp:141] Setting up label_data_1_split
I0403 14:54:33.333907 11386 net.cpp:148] Top shape: 24 (24)
I0403 14:54:33.333923 11386 net.cpp:148] Top shape: 24 (24)
I0403 14:54:33.333940 11386 net.cpp:148] Top shape: 24 (24)
I0403 14:54:33.333955 11386 net.cpp:148] Top shape: 24 (24)
I0403 14:54:33.333969 11386 net.cpp:148] Top shape: 24 (24)
I0403 14:54:33.333984 11386 net.cpp:148] Top shape: 24 (24)
I0403 14:54:33.333999 11386 net.cpp:148] Top shape: 24 (24)
I0403 14:54:33.334014 11386 net.cpp:148] Top shape: 24 (24)
I0403 14:54:33.334029 11386 net.cpp:148] Top shape: 24 (24)
I0403 14:54:33.334045 11386 net.cpp:148] Top shape: 24 (24)
I0403 14:54:33.334087 11386 net.cpp:156] Memory required for data: 14451744
I0403 14:54:33.334103 11386 layer_factory.hpp:77] Creating layer conv1/7x7_s2
I0403 14:54:33.334136 11386 net.cpp:91] Creating Layer conv1/7x7_s2
I0403 14:54:33.334153 11386 net.cpp:425] conv1/7x7_s2 <- data
I0403 14:54:33.334173 11386 net.cpp:399] conv1/7x7_s2 -> conv1/7x7_s2
I0403 14:54:33.471783 11386 net.cpp:141] Setting up conv1/7x7_s2
I0403 14:54:33.471873 11386 net.cpp:148] Top shape: 24 64 112 112 (19267584)
I0403 14:54:33.471889 11386 net.cpp:156] Memory required for data: 91522080
I0403 14:54:33.471920 11386 layer_factory.hpp:77] Creating layer conv1/relu_7x7
I0403 14:54:33.471946 11386 net.cpp:91] Creating Layer conv1/relu_7x7
I0403 14:54:33.471963 11386 net.cpp:425] conv1/relu_7x7 <- conv1/7x7_s2
I0403 14:54:33.471982 11386 net.cpp:386] conv1/relu_7x7 -> conv1/7x7_s2 (in-place)
I0403 14:54:33.472239 11386 net.cpp:141] Setting up conv1/relu_7x7
I0403 14:54:33.472265 11386 net.cpp:148] Top shape: 24 64 112 112 (19267584)
I0403 14:54:33.472280 11386 net.cpp:156] Memory required for data: 168592416
I0403 14:54:33.472295 11386 layer_factory.hpp:77] Creating layer pool1/3x3_s2
I0403 14:54:33.472318 11386 net.cpp:91] Creating Layer pool1/3x3_s2
I0403 14:54:33.472335 11386 net.cpp:425] pool1/3x3_s2 <- conv1/7x7_s2
I0403 14:54:33.472353 11386 net.cpp:399] pool1/3x3_s2 -> pool1/3x3_s2
I0403 14:54:33.472439 11386 net.cpp:141] Setting up pool1/3x3_s2
I0403 14:54:33.472461 11386 net.cpp:148] Top shape: 24 64 56 56 (4816896)
I0403 14:54:33.472477 11386 net.cpp:156] Memory required for data: 187860000
I0403 14:54:33.472491 11386 layer_factory.hpp:77] Creating layer pool1/norm1
I0403 14:54:33.472514 11386 net.cpp:91] Creating Layer pool1/norm1
I0403 14:54:33.472530 11386 net.cpp:425] pool1/norm1 <- pool1/3x3_s2
I0403 14:54:33.472548 11386 net.cpp:399] pool1/norm1 -> pool1/norm1
I0403 14:54:33.472846 11386 net.cpp:141] Setting up pool1/norm1
I0403 14:54:33.472872 11386 net.cpp:148] Top shape: 24 64 56 56 (4816896)
I0403 14:54:33.472887 11386 net.cpp:156] Memory required for data: 207127584
I0403 14:54:33.472903 11386 layer_factory.hpp:77] Creating layer conv2/3x3_reduce
I0403 14:54:33.472929 11386 net.cpp:91] Creating Layer conv2/3x3_reduce
I0403 14:54:33.472945 11386 net.cpp:425] conv2/3x3_reduce <- pool1/norm1
I0403 14:54:33.472965 11386 net.cpp:399] conv2/3x3_reduce -> conv2/3x3_reduce
I0403 14:54:33.474324 11386 net.cpp:141] Setting up conv2/3x3_reduce
I0403 14:54:33.474352 11386 net.cpp:148] Top shape: 24 64 56 56 (4816896)
I0403 14:54:33.474369 11386 net.cpp:156] Memory required for data: 226395168
I0403 14:54:33.474388 11386 layer_factory.hpp:77] Creating layer conv2/relu_3x3_reduce
I0403 14:54:33.474409 11386 net.cpp:91] Creating Layer conv2/relu_3x3_reduce
I0403 14:54:33.474431 11386 net.cpp:425] conv2/relu_3x3_reduce <- conv2/3x3_reduce
I0403 14:54:33.474447 11386 net.cpp:386] conv2/relu_3x3_reduce -> conv2/3x3_reduce (in-place)
I0403 14:54:33.474707 11386 net.cpp:141] Setting up conv2/relu_3x3_reduce
I0403 14:54:33.474733 11386 net.cpp:148] Top shape: 24 64 56 56 (4816896)
I0403 14:54:33.474748 11386 net.cpp:156] Memory required for data: 245662752
I0403 14:54:33.474762 11386 layer_factory.hpp:77] Creating layer conv2/3x3
I0403 14:54:33.474787 11386 net.cpp:91] Creating Layer conv2/3x3
I0403 14:54:33.474805 11386 net.cpp:425] conv2/3x3 <- conv2/3x3_reduce
I0403 14:54:33.474823 11386 net.cpp:399] conv2/3x3 -> conv2/3x3
I0403 14:54:33.477103 11386 net.cpp:141] Setting up conv2/3x3
I0403 14:54:33.477133 11386 net.cpp:148] Top shape: 24 192 56 56 (14450688)
I0403 14:54:33.477149 11386 net.cpp:156] Memory required for data: 303465504
I0403 14:54:33.477169 11386 layer_factory.hpp:77] Creating layer conv2/relu_3x3
I0403 14:54:33.477190 11386 net.cpp:91] Creating Layer conv2/relu_3x3
I0403 14:54:33.477205 11386 net.cpp:425] conv2/relu_3x3 <- conv2/3x3
I0403 14:54:33.477222 11386 net.cpp:386] conv2/relu_3x3 -> conv2/3x3 (in-place)
I0403 14:54:33.477396 11386 net.cpp:141] Setting up conv2/relu_3x3
I0403 14:54:33.477424 11386 net.cpp:148] Top shape: 24 192 56 56 (14450688)
I0403 14:54:33.477469 11386 net.cpp:156] Memory required for data: 361268256
I0403 14:54:33.477485 11386 layer_factory.hpp:77] Creating layer conv2/norm2
I0403 14:54:33.477502 11386 net.cpp:91] Creating Layer conv2/norm2
I0403 14:54:33.477517 11386 net.cpp:425] conv2/norm2 <- conv2/3x3
I0403 14:54:33.477537 11386 net.cpp:399] conv2/norm2 -> conv2/norm2
I0403 14:54:33.477838 11386 net.cpp:141] Setting up conv2/norm2
I0403 14:54:33.477864 11386 net.cpp:148] Top shape: 24 192 56 56 (14450688)
I0403 14:54:33.477880 11386 net.cpp:156] Memory required for data: 419071008
I0403 14:54:33.477893 11386 layer_factory.hpp:77] Creating layer pool2/3x3_s2
I0403 14:54:33.477910 11386 net.cpp:91] Creating Layer pool2/3x3_s2
I0403 14:54:33.477926 11386 net.cpp:425] pool2/3x3_s2 <- conv2/norm2
I0403 14:54:33.477944 11386 net.cpp:399] pool2/3x3_s2 -> pool2/3x3_s2
I0403 14:54:33.477998 11386 net.cpp:141] Setting up pool2/3x3_s2
I0403 14:54:33.478020 11386 net.cpp:148] Top shape: 24 192 28 28 (3612672)
I0403 14:54:33.478034 11386 net.cpp:156] Memory required for data: 433521696
I0403 14:54:33.478049 11386 layer_factory.hpp:77] Creating layer pool2/3x3_s2_pool2/3x3_s2_0_split
I0403 14:54:33.478065 11386 net.cpp:91] Creating Layer pool2/3x3_s2_pool2/3x3_s2_0_split
I0403 14:54:33.478080 11386 net.cpp:425] pool2/3x3_s2_pool2/3x3_s2_0_split <- pool2/3x3_s2
I0403 14:54:33.478098 11386 net.cpp:399] pool2/3x3_s2_pool2/3x3_s2_0_split -> pool2/3x3_s2_pool2/3x3_s2_0_split_0
I0403 14:54:33.478118 11386 net.cpp:399] pool2/3x3_s2_pool2/3x3_s2_0_split -> pool2/3x3_s2_pool2/3x3_s2_0_split_1
I0403 14:54:33.478139 11386 net.cpp:399] pool2/3x3_s2_pool2/3x3_s2_0_split -> pool2/3x3_s2_pool2/3x3_s2_0_split_2
I0403 14:54:33.478157 11386 net.cpp:399] pool2/3x3_s2_pool2/3x3_s2_0_split -> pool2/3x3_s2_pool2/3x3_s2_0_split_3
I0403 14:54:33.478224 11386 net.cpp:141] Setting up pool2/3x3_s2_pool2/3x3_s2_0_split
I0403 14:54:33.478248 11386 net.cpp:148] Top shape: 24 192 28 28 (3612672)
I0403 14:54:33.478266 11386 net.cpp:148] Top shape: 24 192 28 28 (3612672)
I0403 14:54:33.478281 11386 net.cpp:148] Top shape: 24 192 28 28 (3612672)
I0403 14:54:33.478296 11386 net.cpp:148] Top shape: 24 192 28 28 (3612672)
I0403 14:54:33.478322 11386 net.cpp:156] Memory required for data: 491324448
I0403 14:54:33.478335 11386 layer_factory.hpp:77] Creating layer inception_3a/1x1
I0403 14:54:33.478358 11386 net.cpp:91] Creating Layer inception_3a/1x1
I0403 14:54:33.478375 11386 net.cpp:425] inception_3a/1x1 <- pool2/3x3_s2_pool2/3x3_s2_0_split_0
I0403 14:54:33.478394 11386 net.cpp:399] inception_3a/1x1 -> inception_3a/1x1
I0403 14:54:33.479929 11386 net.cpp:141] Setting up inception_3a/1x1
I0403 14:54:33.479959 11386 net.cpp:148] Top shape: 24 64 28 28 (1204224)
I0403 14:54:33.479975 11386 net.cpp:156] Memory required for data: 496141344
I0403 14:54:33.479993 11386 layer_factory.hpp:77] Creating layer inception_3a/relu_1x1
I0403 14:54:33.480013 11386 net.cpp:91] Creating Layer inception_3a/relu_1x1
I0403 14:54:33.480029 11386 net.cpp:425] inception_3a/relu_1x1 <- inception_3a/1x1
I0403 14:54:33.480046 11386 net.cpp:386] inception_3a/relu_1x1 -> inception_3a/1x1 (in-place)
I0403 14:54:33.480217 11386 net.cpp:141] Setting up inception_3a/relu_1x1
I0403 14:54:33.480243 11386 net.cpp:148] Top shape: 24 64 28 28 (1204224)
I0403 14:54:33.480258 11386 net.cpp:156] Memory required for data: 500958240
I0403 14:54:33.480273 11386 layer_factory.hpp:77] Creating layer inception_3a/3x3_reduce
I0403 14:54:33.480293 11386 net.cpp:91] Creating Layer inception_3a/3x3_reduce
I0403 14:54:33.480310 11386 net.cpp:425] inception_3a/3x3_reduce <- pool2/3x3_s2_pool2/3x3_s2_0_split_1
I0403 14:54:33.480329 11386 net.cpp:399] inception_3a/3x3_reduce -> inception_3a/3x3_reduce
I0403 14:54:33.482086 11386 net.cpp:141] Setting up inception_3a/3x3_reduce
I0403 14:54:33.482116 11386 net.cpp:148] Top shape: 24 96 28 28 (1806336)
I0403 14:54:33.482132 11386 net.cpp:156] Memory required for data: 508183584
I0403 14:54:33.482153 11386 layer_factory.hpp:77] Creating layer inception_3a/relu_3x3_reduce
I0403 14:54:33.482192 11386 net.cpp:91] Creating Layer inception_3a/relu_3x3_reduce
I0403 14:54:33.482210 11386 net.cpp:425] inception_3a/relu_3x3_reduce <- inception_3a/3x3_reduce
I0403 14:54:33.482233 11386 net.cpp:386] inception_3a/relu_3x3_reduce -> inception_3a/3x3_reduce (in-place)
I0403 14:54:33.482430 11386 net.cpp:141] Setting up inception_3a/relu_3x3_reduce
I0403 14:54:33.482456 11386 net.cpp:148] Top shape: 24 96 28 28 (1806336)
I0403 14:54:33.482471 11386 net.cpp:156] Memory required for data: 515408928
I0403 14:54:33.482486 11386 layer_factory.hpp:77] Creating layer inception_3a/3x3
I0403 14:54:33.482508 11386 net.cpp:91] Creating Layer inception_3a/3x3
I0403 14:54:33.482525 11386 net.cpp:425] inception_3a/3x3 <- inception_3a/3x3_reduce
I0403 14:54:33.482547 11386 net.cpp:399] inception_3a/3x3 -> inception_3a/3x3
I0403 14:54:33.484244 11386 net.cpp:141] Setting up inception_3a/3x3
I0403 14:54:33.484275 11386 net.cpp:148] Top shape: 24 128 28 28 (2408448)
I0403 14:54:33.484292 11386 net.cpp:156] Memory required for data: 525042720
I0403 14:54:33.484309 11386 layer_factory.hpp:77] Creating layer inception_3a/relu_3x3
I0403 14:54:33.484328 11386 net.cpp:91] Creating Layer inception_3a/relu_3x3
I0403 14:54:33.484344 11386 net.cpp:425] inception_3a/relu_3x3 <- inception_3a/3x3
I0403 14:54:33.484361 11386 net.cpp:386] inception_3a/relu_3x3 -> inception_3a/3x3 (in-place)
I0403 14:54:33.484645 11386 net.cpp:141] Setting up inception_3a/relu_3x3
I0403 14:54:33.484674 11386 net.cpp:148] Top shape: 24 128 28 28 (2408448)
I0403 14:54:33.484690 11386 net.cpp:156] Memory required for data: 534676512
I0403 14:54:33.484705 11386 layer_factory.hpp:77] Creating layer inception_3a/5x5_reduce
I0403 14:54:33.484727 11386 net.cpp:91] Creating Layer inception_3a/5x5_reduce
I0403 14:54:33.484745 11386 net.cpp:425] inception_3a/5x5_reduce <- pool2/3x3_s2_pool2/3x3_s2_0_split_2
I0403 14:54:33.484763 11386 net.cpp:399] inception_3a/5x5_reduce -> inception_3a/5x5_reduce
I0403 14:54:33.485734 11386 net.cpp:141] Setting up inception_3a/5x5_reduce
I0403 14:54:33.485765 11386 net.cpp:148] Top shape: 24 16 28 28 (301056)
I0403 14:54:33.485781 11386 net.cpp:156] Memory required for data: 535880736
I0403 14:54:33.485800 11386 layer_factory.hpp:77] Creating layer inception_3a/relu_5x5_reduce
I0403 14:54:33.485818 11386 net.cpp:91] Creating Layer inception_3a/relu_5x5_reduce
I0403 14:54:33.485836 11386 net.cpp:425] inception_3a/relu_5x5_reduce <- inception_3a/5x5_reduce
I0403 14:54:33.485855 11386 net.cpp:386] inception_3a/relu_5x5_reduce -> inception_3a/5x5_reduce (in-place)
I0403 14:54:33.486160 11386 net.cpp:141] Setting up inception_3a/relu_5x5_reduce
I0403 14:54:33.486186 11386 net.cpp:148] Top shape: 24 16 28 28 (301056)
I0403 14:54:33.486202 11386 net.cpp:156] Memory required for data: 537084960
I0403 14:54:33.486217 11386 layer_factory.hpp:77] Creating layer inception_3a/5x5
I0403 14:54:33.486239 11386 net.cpp:91] Creating Layer inception_3a/5x5
I0403 14:54:33.486256 11386 net.cpp:425] inception_3a/5x5 <- inception_3a/5x5_reduce
I0403 14:54:33.486277 11386 net.cpp:399] inception_3a/5x5 -> inception_3a/5x5
I0403 14:54:33.487298 11386 net.cpp:141] Setting up inception_3a/5x5
I0403 14:54:33.487324 11386 net.cpp:148] Top shape: 24 32 28 28 (602112)
I0403 14:54:33.487340 11386 net.cpp:156] Memory required for data: 539493408
I0403 14:54:33.487360 11386 layer_factory.hpp:77] Creating layer inception_3a/relu_5x5
I0403 14:54:33.487380 11386 net.cpp:91] Creating Layer inception_3a/relu_5x5
I0403 14:54:33.487396 11386 net.cpp:425] inception_3a/relu_5x5 <- inception_3a/5x5
I0403 14:54:33.487417 11386 net.cpp:386] inception_3a/relu_5x5 -> inception_3a/5x5 (in-place)
I0403 14:54:33.487594 11386 net.cpp:141] Setting up inception_3a/relu_5x5
I0403 14:54:33.487622 11386 net.cpp:148] Top shape: 24 32 28 28 (602112)
I0403 14:54:33.487638 11386 net.cpp:156] Memory required for data: 541901856
I0403 14:54:33.487653 11386 layer_factory.hpp:77] Creating layer inception_3a/pool
I0403 14:54:33.487670 11386 net.cpp:91] Creating Layer inception_3a/pool
I0403 14:54:33.487700 11386 net.cpp:425] inception_3a/pool <- pool2/3x3_s2_pool2/3x3_s2_0_split_3
I0403 14:54:33.487721 11386 net.cpp:399] inception_3a/pool -> inception_3a/pool
I0403 14:54:33.487781 11386 net.cpp:141] Setting up inception_3a/pool
I0403 14:54:33.487805 11386 net.cpp:148] Top shape: 24 192 28 28 (3612672)
I0403 14:54:33.487821 11386 net.cpp:156] Memory required for data: 556352544
I0403 14:54:33.487835 11386 layer_factory.hpp:77] Creating layer inception_3a/pool_proj
I0403 14:54:33.487855 11386 net.cpp:91] Creating Layer inception_3a/pool_proj
I0403 14:54:33.487871 11386 net.cpp:425] inception_3a/pool_proj <- inception_3a/pool
I0403 14:54:33.487893 11386 net.cpp:399] inception_3a/pool_proj -> inception_3a/pool_proj
I0403 14:54:33.488865 11386 net.cpp:141] Setting up inception_3a/pool_proj
I0403 14:54:33.488894 11386 net.cpp:148] Top shape: 24 32 28 28 (602112)
I0403 14:54:33.488909 11386 net.cpp:156] Memory required for data: 558760992
I0403 14:54:33.488934 11386 layer_factory.hpp:77] Creating layer inception_3a/relu_pool_proj
I0403 14:54:33.488953 11386 net.cpp:91] Creating Layer inception_3a/relu_pool_proj
I0403 14:54:33.488970 11386 net.cpp:425] inception_3a/relu_pool_proj <- inception_3a/pool_proj
I0403 14:54:33.488991 11386 net.cpp:386] inception_3a/relu_pool_proj -> inception_3a/pool_proj (in-place)
I0403 14:54:33.489269 11386 net.cpp:141] Setting up inception_3a/relu_pool_proj
I0403 14:54:33.489297 11386 net.cpp:148] Top shape: 24 32 28 28 (602112)
I0403 14:54:33.489313 11386 net.cpp:156] Memory required for data: 561169440
I0403 14:54:33.489328 11386 layer_factory.hpp:77] Creating layer inception_3a/output
I0403 14:54:33.489346 11386 net.cpp:91] Creating Layer inception_3a/output
I0403 14:54:33.489362 11386 net.cpp:425] inception_3a/output <- inception_3a/1x1
I0403 14:54:33.489378 11386 net.cpp:425] inception_3a/output <- inception_3a/3x3
I0403 14:54:33.489394 11386 net.cpp:425] inception_3a/output <- inception_3a/5x5
I0403 14:54:33.489414 11386 net.cpp:425] inception_3a/output <- inception_3a/pool_proj
I0403 14:54:33.489433 11386 net.cpp:399] inception_3a/output -> inception_3a/output
I0403 14:54:33.489481 11386 net.cpp:141] Setting up inception_3a/output
I0403 14:54:33.489505 11386 net.cpp:148] Top shape: 24 256 28 28 (4816896)
I0403 14:54:33.489519 11386 net.cpp:156] Memory required for data: 580437024
I0403 14:54:33.489533 11386 layer_factory.hpp:77] Creating layer inception_3a/output_inception_3a/output_0_split
I0403 14:54:33.489553 11386 net.cpp:91] Creating Layer inception_3a/output_inception_3a/output_0_split
I0403 14:54:33.489569 11386 net.cpp:425] inception_3a/output_inception_3a/output_0_split <- inception_3a/output
I0403 14:54:33.489588 11386 net.cpp:399] inception_3a/output_inception_3a/output_0_split -> inception_3a/output_inception_3a/output_0_split_0
I0403 14:54:33.489606 11386 net.cpp:399] inception_3a/output_inception_3a/output_0_split -> inception_3a/output_inception_3a/output_0_split_1
I0403 14:54:33.489631 11386 net.cpp:399] inception_3a/output_inception_3a/output_0_split -> inception_3a/output_inception_3a/output_0_split_2
I0403 14:54:33.489652 11386 net.cpp:399] inception_3a/output_inception_3a/output_0_split -> inception_3a/output_inception_3a/output_0_split_3
I0403 14:54:33.489727 11386 net.cpp:141] Setting up inception_3a/output_inception_3a/output_0_split
I0403 14:54:33.489749 11386 net.cpp:148] Top shape: 24 256 28 28 (4816896)
I0403 14:54:33.489765 11386 net.cpp:148] Top shape: 24 256 28 28 (4816896)
I0403 14:54:33.489781 11386 net.cpp:148] Top shape: 24 256 28 28 (4816896)
I0403 14:54:33.489796 11386 net.cpp:148] Top shape: 24 256 28 28 (4816896)
I0403 14:54:33.489809 11386 net.cpp:156] Memory required for data: 657507360
I0403 14:54:33.489823 11386 layer_factory.hpp:77] Creating layer inception_3b/1x1
I0403 14:54:33.489846 11386 net.cpp:91] Creating Layer inception_3b/1x1
I0403 14:54:33.489864 11386 net.cpp:425] inception_3b/1x1 <- inception_3a/output_inception_3a/output_0_split_0
I0403 14:54:33.489883 11386 net.cpp:399] inception_3b/1x1 -> inception_3b/1x1
I0403 14:54:33.491070 11386 net.cpp:141] Setting up inception_3b/1x1
I0403 14:54:33.491109 11386 net.cpp:148] Top shape: 24 128 28 28 (2408448)
I0403 14:54:33.491125 11386 net.cpp:156] Memory required for data: 667141152
I0403 14:54:33.491144 11386 layer_factory.hpp:77] Creating layer inception_3b/relu_1x1
I0403 14:54:33.491164 11386 net.cpp:91] Creating Layer inception_3b/relu_1x1
I0403 14:54:33.491180 11386 net.cpp:425] inception_3b/relu_1x1 <- inception_3b/1x1
I0403 14:54:33.491197 11386 net.cpp:386] inception_3b/relu_1x1 -> inception_3b/1x1 (in-place)
I0403 14:54:33.491374 11386 net.cpp:141] Setting up inception_3b/relu_1x1
I0403 14:54:33.491402 11386 net.cpp:148] Top shape: 24 128 28 28 (2408448)
I0403 14:54:33.491422 11386 net.cpp:156] Memory required for data: 676774944
I0403 14:54:33.491438 11386 layer_factory.hpp:77] Creating layer inception_3b/3x3_reduce
I0403 14:54:33.491461 11386 net.cpp:91] Creating Layer inception_3b/3x3_reduce
I0403 14:54:33.491478 11386 net.cpp:425] inception_3b/3x3_reduce <- inception_3a/output_inception_3a/output_0_split_1
I0403 14:54:33.491497 11386 net.cpp:399] inception_3b/3x3_reduce -> inception_3b/3x3_reduce
I0403 14:54:33.492671 11386 net.cpp:141] Setting up inception_3b/3x3_reduce
I0403 14:54:33.492699 11386 net.cpp:148] Top shape: 24 128 28 28 (2408448)
I0403 14:54:33.492715 11386 net.cpp:156] Memory required for data: 686408736
I0403 14:54:33.492734 11386 layer_factory.hpp:77] Creating layer inception_3b/relu_3x3_reduce
I0403 14:54:33.492755 11386 net.cpp:91] Creating Layer inception_3b/relu_3x3_reduce
I0403 14:54:33.492772 11386 net.cpp:425] inception_3b/relu_3x3_reduce <- inception_3b/3x3_reduce
I0403 14:54:33.492789 11386 net.cpp:386] inception_3b/relu_3x3_reduce -> inception_3b/3x3_reduce (in-place)
I0403 14:54:33.492981 11386 net.cpp:141] Setting up inception_3b/relu_3x3_reduce
I0403 14:54:33.493010 11386 net.cpp:148] Top shape: 24 128 28 28 (2408448)
I0403 14:54:33.493026 11386 net.cpp:156] Memory required for data: 696042528
I0403 14:54:33.493039 11386 layer_factory.hpp:77] Creating layer inception_3b/3x3
I0403 14:54:33.493064 11386 net.cpp:91] Creating Layer inception_3b/3x3
I0403 14:54:33.493083 11386 net.cpp:425] inception_3b/3x3 <- inception_3b/3x3_reduce
I0403 14:54:33.493103 11386 net.cpp:399] inception_3b/3x3 -> inception_3b/3x3
I0403 14:54:33.496076 11386 net.cpp:141] Setting up inception_3b/3x3
I0403 14:54:33.496109 11386 net.cpp:148] Top shape: 24 192 28 28 (3612672)
I0403 14:54:33.496124 11386 net.cpp:156] Memory required for data: 710493216
I0403 14:54:33.496143 11386 layer_factory.hpp:77] Creating layer inception_3b/relu_3x3
I0403 14:54:33.496161 11386 net.cpp:91] Creating Layer inception_3b/relu_3x3
I0403 14:54:33.496176 11386 net.cpp:425] inception_3b/relu_3x3 <- inception_3b/3x3
I0403 14:54:33.496193 11386 net.cpp:386] inception_3b/relu_3x3 -> inception_3b/3x3 (in-place)
I0403 14:54:33.496484 11386 net.cpp:141] Setting up inception_3b/relu_3x3
I0403 14:54:33.496515 11386 net.cpp:148] Top shape: 24 192 28 28 (3612672)
I0403 14:54:33.496531 11386 net.cpp:156] Memory required for data: 724943904
I0403 14:54:33.496546 11386 layer_factory.hpp:77] Creating layer inception_3b/5x5_reduce
I0403 14:54:33.496568 11386 net.cpp:91] Creating Layer inception_3b/5x5_reduce
I0403 14:54:33.496585 11386 net.cpp:425] inception_3b/5x5_reduce <- inception_3a/output_inception_3a/output_0_split_2
I0403 14:54:33.496605 11386 net.cpp:399] inception_3b/5x5_reduce -> inception_3b/5x5_reduce
I0403 14:54:33.497606 11386 net.cpp:141] Setting up inception_3b/5x5_reduce
I0403 14:54:33.497637 11386 net.cpp:148] Top shape: 24 32 28 28 (602112)
I0403 14:54:33.497654 11386 net.cpp:156] Memory required for data: 727352352
I0403 14:54:33.497673 11386 layer_factory.hpp:77] Creating layer inception_3b/relu_5x5_reduce
I0403 14:54:33.497689 11386 net.cpp:91] Creating Layer inception_3b/relu_5x5_reduce
I0403 14:54:33.497705 11386 net.cpp:425] inception_3b/relu_5x5_reduce <- inception_3b/5x5_reduce
I0403 14:54:33.497722 11386 net.cpp:386] inception_3b/relu_5x5_reduce -> inception_3b/5x5_reduce (in-place)
I0403 14:54:33.497916 11386 net.cpp:141] Setting up inception_3b/relu_5x5_reduce
I0403 14:54:33.497944 11386 net.cpp:148] Top shape: 24 32 28 28 (602112)
I0403 14:54:33.497959 11386 net.cpp:156] Memory required for data: 729760800
I0403 14:54:33.497974 11386 layer_factory.hpp:77] Creating layer inception_3b/5x5
I0403 14:54:33.497997 11386 net.cpp:91] Creating Layer inception_3b/5x5
I0403 14:54:33.498014 11386 net.cpp:425] inception_3b/5x5 <- inception_3b/5x5_reduce
I0403 14:54:33.498033 11386 net.cpp:399] inception_3b/5x5 -> inception_3b/5x5
I0403 14:54:33.500037 11386 net.cpp:141] Setting up inception_3b/5x5
I0403 14:54:33.500068 11386 net.cpp:148] Top shape: 24 96 28 28 (1806336)
I0403 14:54:33.500093 11386 net.cpp:156] Memory required for data: 736986144
I0403 14:54:33.500118 11386 layer_factory.hpp:77] Creating layer inception_3b/relu_5x5
I0403 14:54:33.500149 11386 net.cpp:91] Creating Layer inception_3b/relu_5x5
I0403 14:54:33.500169 11386 net.cpp:425] inception_3b/relu_5x5 <- inception_3b/5x5
I0403 14:54:33.500185 11386 net.cpp:386] inception_3b/relu_5x5 -> inception_3b/5x5 (in-place)
I0403 14:54:33.500377 11386 net.cpp:141] Setting up inception_3b/relu_5x5
I0403 14:54:33.500401 11386 net.cpp:148] Top shape: 24 96 28 28 (1806336)
I0403 14:54:33.500422 11386 net.cpp:156] Memory required for data: 744211488
I0403 14:54:33.500437 11386 layer_factory.hpp:77] Creating layer inception_3b/pool
I0403 14:54:33.500454 11386 net.cpp:91] Creating Layer inception_3b/pool
I0403 14:54:33.500469 11386 net.cpp:425] inception_3b/pool <- inception_3a/output_inception_3a/output_0_split_3
I0403 14:54:33.500486 11386 net.cpp:399] inception_3b/pool -> inception_3b/pool
I0403 14:54:33.500542 11386 net.cpp:141] Setting up inception_3b/pool
I0403 14:54:33.500566 11386 net.cpp:148] Top shape: 24 256 28 28 (4816896)
I0403 14:54:33.500581 11386 net.cpp:156] Memory required for data: 763479072
I0403 14:54:33.500593 11386 layer_factory.hpp:77] Creating layer inception_3b/pool_proj
I0403 14:54:33.500615 11386 net.cpp:91] Creating Layer inception_3b/pool_proj
I0403 14:54:33.500633 11386 net.cpp:425] inception_3b/pool_proj <- inception_3b/pool
I0403 14:54:33.500653 11386 net.cpp:399] inception_3b/pool_proj -> inception_3b/pool_proj
I0403 14:54:33.501694 11386 net.cpp:141] Setting up inception_3b/pool_proj
I0403 14:54:33.501721 11386 net.cpp:148] Top shape: 24 64 28 28 (1204224)
I0403 14:54:33.501736 11386 net.cpp:156] Memory required for data: 768295968
I0403 14:54:33.501754 11386 layer_factory.hpp:77] Creating layer inception_3b/relu_pool_proj
I0403 14:54:33.501771 11386 net.cpp:91] Creating Layer inception_3b/relu_pool_proj
I0403 14:54:33.501787 11386 net.cpp:425] inception_3b/relu_pool_proj <- inception_3b/pool_proj
I0403 14:54:33.501806 11386 net.cpp:386] inception_3b/relu_pool_proj -> inception_3b/pool_proj (in-place)
I0403 14:54:33.502192 11386 net.cpp:141] Setting up inception_3b/relu_pool_proj
I0403 14:54:33.502219 11386 net.cpp:148] Top shape: 24 64 28 28 (1204224)
I0403 14:54:33.502233 11386 net.cpp:156] Memory required for data: 773112864
I0403 14:54:33.502249 11386 layer_factory.hpp:77] Creating layer inception_3b/output
I0403 14:54:33.502265 11386 net.cpp:91] Creating Layer inception_3b/output
I0403 14:54:33.502280 11386 net.cpp:425] inception_3b/output <- inception_3b/1x1
I0403 14:54:33.502296 11386 net.cpp:425] inception_3b/output <- inception_3b/3x3
I0403 14:54:33.502312 11386 net.cpp:425] inception_3b/output <- inception_3b/5x5
I0403 14:54:33.502327 11386 net.cpp:425] inception_3b/output <- inception_3b/pool_proj
I0403 14:54:33.502344 11386 net.cpp:399] inception_3b/output -> inception_3b/output
I0403 14:54:33.502389 11386 net.cpp:141] Setting up inception_3b/output
I0403 14:54:33.502423 11386 net.cpp:148] Top shape: 24 480 28 28 (9031680)
I0403 14:54:33.502439 11386 net.cpp:156] Memory required for data: 809239584
I0403 14:54:33.502454 11386 layer_factory.hpp:77] Creating layer pool3/3x3_s2
I0403 14:54:33.502473 11386 net.cpp:91] Creating Layer pool3/3x3_s2
I0403 14:54:33.502488 11386 net.cpp:425] pool3/3x3_s2 <- inception_3b/output
I0403 14:54:33.502521 11386 net.cpp:399] pool3/3x3_s2 -> pool3/3x3_s2
I0403 14:54:33.502583 11386 net.cpp:141] Setting up pool3/3x3_s2
I0403 14:54:33.502606 11386 net.cpp:148] Top shape: 24 480 14 14 (2257920)
I0403 14:54:33.502620 11386 net.cpp:156] Memory required for data: 818271264
I0403 14:54:33.502635 11386 layer_factory.hpp:77] Creating layer pool3/3x3_s2_pool3/3x3_s2_0_split
I0403 14:54:33.502650 11386 net.cpp:91] Creating Layer pool3/3x3_s2_pool3/3x3_s2_0_split
I0403 14:54:33.502665 11386 net.cpp:425] pool3/3x3_s2_pool3/3x3_s2_0_split <- pool3/3x3_s2
I0403 14:54:33.502683 11386 net.cpp:399] pool3/3x3_s2_pool3/3x3_s2_0_split -> pool3/3x3_s2_pool3/3x3_s2_0_split_0
I0403 14:54:33.502703 11386 net.cpp:399] pool3/3x3_s2_pool3/3x3_s2_0_split -> pool3/3x3_s2_pool3/3x3_s2_0_split_1
I0403 14:54:33.502722 11386 net.cpp:399] pool3/3x3_s2_pool3/3x3_s2_0_split -> pool3/3x3_s2_pool3/3x3_s2_0_split_2
I0403 14:54:33.502742 11386 net.cpp:399] pool3/3x3_s2_pool3/3x3_s2_0_split -> pool3/3x3_s2_pool3/3x3_s2_0_split_3
I0403 14:54:33.502816 11386 net.cpp:141] Setting up pool3/3x3_s2_pool3/3x3_s2_0_split
I0403 14:54:33.502840 11386 net.cpp:148] Top shape: 24 480 14 14 (2257920)
I0403 14:54:33.502857 11386 net.cpp:148] Top shape: 24 480 14 14 (2257920)
I0403 14:54:33.502873 11386 net.cpp:148] Top shape: 24 480 14 14 (2257920)
I0403 14:54:33.502887 11386 net.cpp:148] Top shape: 24 480 14 14 (2257920)
I0403 14:54:33.502902 11386 net.cpp:156] Memory required for data: 854397984
I0403 14:54:33.502915 11386 layer_factory.hpp:77] Creating layer inception_4a/1x1
I0403 14:54:33.502936 11386 net.cpp:91] Creating Layer inception_4a/1x1
I0403 14:54:33.502953 11386 net.cpp:425] inception_4a/1x1 <- pool3/3x3_s2_pool3/3x3_s2_0_split_0
I0403 14:54:33.502974 11386 net.cpp:399] inception_4a/1x1 -> inception_4a/1x1
I0403 14:54:33.504497 11386 net.cpp:141] Setting up inception_4a/1x1
I0403 14:54:33.504523 11386 net.cpp:148] Top shape: 24 192 14 14 (903168)
I0403 14:54:33.504539 11386 net.cpp:156] Memory required for data: 858010656
I0403 14:54:33.504555 11386 layer_factory.hpp:77] Creating layer inception_4a/relu_1x1
I0403 14:54:33.504575 11386 net.cpp:91] Creating Layer inception_4a/relu_1x1
I0403 14:54:33.504590 11386 net.cpp:425] inception_4a/relu_1x1 <- inception_4a/1x1
I0403 14:54:33.504606 11386 net.cpp:386] inception_4a/relu_1x1 -> inception_4a/1x1 (in-place)
I0403 14:54:33.504775 11386 net.cpp:141] Setting up inception_4a/relu_1x1
I0403 14:54:33.504797 11386 net.cpp:148] Top shape: 24 192 14 14 (903168)
I0403 14:54:33.504812 11386 net.cpp:156] Memory required for data: 861623328
I0403 14:54:33.504825 11386 layer_factory.hpp:77] Creating layer inception_4a/3x3_reduce
I0403 14:54:33.504847 11386 net.cpp:91] Creating Layer inception_4a/3x3_reduce
I0403 14:54:33.504861 11386 net.cpp:425] inception_4a/3x3_reduce <- pool3/3x3_s2_pool3/3x3_s2_0_split_1
I0403 14:54:33.504881 11386 net.cpp:399] inception_4a/3x3_reduce -> inception_4a/3x3_reduce
I0403 14:54:33.506103 11386 net.cpp:141] Setting up inception_4a/3x3_reduce
I0403 14:54:33.506130 11386 net.cpp:148] Top shape: 24 96 14 14 (451584)
I0403 14:54:33.506145 11386 net.cpp:156] Memory required for data: 863429664
I0403 14:54:33.506170 11386 layer_factory.hpp:77] Creating layer inception_4a/relu_3x3_reduce
I0403 14:54:33.506188 11386 net.cpp:91] Creating Layer inception_4a/relu_3x3_reduce
I0403 14:54:33.506203 11386 net.cpp:425] inception_4a/relu_3x3_reduce <- inception_4a/3x3_reduce
I0403 14:54:33.506222 11386 net.cpp:386] inception_4a/relu_3x3_reduce -> inception_4a/3x3_reduce (in-place)
I0403 14:54:33.506402 11386 net.cpp:141] Setting up inception_4a/relu_3x3_reduce
I0403 14:54:33.506430 11386 net.cpp:148] Top shape: 24 96 14 14 (451584)
I0403 14:54:33.506445 11386 net.cpp:156] Memory required for data: 865236000
I0403 14:54:33.506459 11386 layer_factory.hpp:77] Creating layer inception_4a/3x3
I0403 14:54:33.506480 11386 net.cpp:91] Creating Layer inception_4a/3x3
I0403 14:54:33.506497 11386 net.cpp:425] inception_4a/3x3 <- inception_4a/3x3_reduce
I0403 14:54:33.506520 11386 net.cpp:399] inception_4a/3x3 -> inception_4a/3x3
I0403 14:54:33.509119 11386 net.cpp:141] Setting up inception_4a/3x3
I0403 14:54:33.509146 11386 net.cpp:148] Top shape: 24 208 14 14 (978432)
I0403 14:54:33.509161 11386 net.cpp:156] Memory required for data: 869149728
I0403 14:54:33.509178 11386 layer_factory.hpp:77] Creating layer inception_4a/relu_3x3
I0403 14:54:33.509197 11386 net.cpp:91] Creating Layer inception_4a/relu_3x3
I0403 14:54:33.509212 11386 net.cpp:425] inception_4a/relu_3x3 <- inception_4a/3x3
I0403 14:54:33.509228 11386 net.cpp:386] inception_4a/relu_3x3 -> inception_4a/3x3 (in-place)
I0403 14:54:33.509505 11386 net.cpp:141] Setting up inception_4a/relu_3x3
I0403 14:54:33.509531 11386 net.cpp:148] Top shape: 24 208 14 14 (978432)
I0403 14:54:33.509546 11386 net.cpp:156] Memory required for data: 873063456
I0403 14:54:33.509559 11386 layer_factory.hpp:77] Creating layer inception_4a/5x5_reduce
I0403 14:54:33.509580 11386 net.cpp:91] Creating Layer inception_4a/5x5_reduce
I0403 14:54:33.509596 11386 net.cpp:425] inception_4a/5x5_reduce <- pool3/3x3_s2_pool3/3x3_s2_0_split_2
I0403 14:54:33.509618 11386 net.cpp:399] inception_4a/5x5_reduce -> inception_4a/5x5_reduce
I0403 14:54:33.510632 11386 net.cpp:141] Setting up inception_4a/5x5_reduce
I0403 14:54:33.510658 11386 net.cpp:148] Top shape: 24 16 14 14 (75264)
I0403 14:54:33.510673 11386 net.cpp:156] Memory required for data: 873364512
I0403 14:54:33.510690 11386 layer_factory.hpp:77] Creating layer inception_4a/relu_5x5_reduce
I0403 14:54:33.510710 11386 net.cpp:91] Creating Layer inception_4a/relu_5x5_reduce
I0403 14:54:33.510725 11386 net.cpp:425] inception_4a/relu_5x5_reduce <- inception_4a/5x5_reduce
I0403 14:54:33.510742 11386 net.cpp:386] inception_4a/relu_5x5_reduce -> inception_4a/5x5_reduce (in-place)
I0403 14:54:33.510916 11386 net.cpp:141] Setting up inception_4a/relu_5x5_reduce
I0403 14:54:33.510941 11386 net.cpp:148] Top shape: 24 16 14 14 (75264)
I0403 14:54:33.510957 11386 net.cpp:156] Memory required for data: 873665568
I0403 14:54:33.510970 11386 layer_factory.hpp:77] Creating layer inception_4a/5x5
I0403 14:54:33.510992 11386 net.cpp:91] Creating Layer inception_4a/5x5
I0403 14:54:33.511008 11386 net.cpp:425] inception_4a/5x5 <- inception_4a/5x5_reduce
I0403 14:54:33.511025 11386 net.cpp:399] inception_4a/5x5 -> inception_4a/5x5
I0403 14:54:33.512074 11386 net.cpp:141] Setting up inception_4a/5x5
I0403 14:54:33.512100 11386 net.cpp:148] Top shape: 24 48 14 14 (225792)
I0403 14:54:33.512115 11386 net.cpp:156] Memory required for data: 874568736
I0403 14:54:33.512131 11386 layer_factory.hpp:77] Creating layer inception_4a/relu_5x5
I0403 14:54:33.512148 11386 net.cpp:91] Creating Layer inception_4a/relu_5x5
I0403 14:54:33.512163 11386 net.cpp:425] inception_4a/relu_5x5 <- inception_4a/5x5
I0403 14:54:33.512181 11386 net.cpp:386] inception_4a/relu_5x5 -> inception_4a/5x5 (in-place)
I0403 14:54:33.512352 11386 net.cpp:141] Setting up inception_4a/relu_5x5
I0403 14:54:33.512375 11386 net.cpp:148] Top shape: 24 48 14 14 (225792)
I0403 14:54:33.512389 11386 net.cpp:156] Memory required for data: 875471904
I0403 14:54:33.512404 11386 layer_factory.hpp:77] Creating layer inception_4a/pool
I0403 14:54:33.512434 11386 net.cpp:91] Creating Layer inception_4a/pool
I0403 14:54:33.512451 11386 net.cpp:425] inception_4a/pool <- pool3/3x3_s2_pool3/3x3_s2_0_split_3
I0403 14:54:33.512468 11386 net.cpp:399] inception_4a/pool -> inception_4a/pool
I0403 14:54:33.512527 11386 net.cpp:141] Setting up inception_4a/pool
I0403 14:54:33.512550 11386 net.cpp:148] Top shape: 24 480 14 14 (2257920)
I0403 14:54:33.512564 11386 net.cpp:156] Memory required for data: 884503584
I0403 14:54:33.512578 11386 layer_factory.hpp:77] Creating layer inception_4a/pool_proj
I0403 14:54:33.512598 11386 net.cpp:91] Creating Layer inception_4a/pool_proj
I0403 14:54:33.512614 11386 net.cpp:425] inception_4a/pool_proj <- inception_4a/pool
I0403 14:54:33.512634 11386 net.cpp:399] inception_4a/pool_proj -> inception_4a/pool_proj
I0403 14:54:33.513792 11386 net.cpp:141] Setting up inception_4a/pool_proj
I0403 14:54:33.513820 11386 net.cpp:148] Top shape: 24 64 14 14 (301056)
I0403 14:54:33.513849 11386 net.cpp:156] Memory required for data: 885707808
I0403 14:54:33.513869 11386 layer_factory.hpp:77] Creating layer inception_4a/relu_pool_proj
I0403 14:54:33.513886 11386 net.cpp:91] Creating Layer inception_4a/relu_pool_proj
I0403 14:54:33.513901 11386 net.cpp:425] inception_4a/relu_pool_proj <- inception_4a/pool_proj
I0403 14:54:33.513921 11386 net.cpp:386] inception_4a/relu_pool_proj -> inception_4a/pool_proj (in-place)
I0403 14:54:33.514206 11386 net.cpp:141] Setting up inception_4a/relu_pool_proj
I0403 14:54:33.514231 11386 net.cpp:148] Top shape: 24 64 14 14 (301056)
I0403 14:54:33.514246 11386 net.cpp:156] Memory required for data: 886912032
I0403 14:54:33.514261 11386 layer_factory.hpp:77] Creating layer inception_4a/output
I0403 14:54:33.514277 11386 net.cpp:91] Creating Layer inception_4a/output
I0403 14:54:33.514292 11386 net.cpp:425] inception_4a/output <- inception_4a/1x1
I0403 14:54:33.514308 11386 net.cpp:425] inception_4a/output <- inception_4a/3x3
I0403 14:54:33.514324 11386 net.cpp:425] inception_4a/output <- inception_4a/5x5
I0403 14:54:33.514339 11386 net.cpp:425] inception_4a/output <- inception_4a/pool_proj
I0403 14:54:33.514358 11386 net.cpp:399] inception_4a/output -> inception_4a/output
I0403 14:54:33.514402 11386 net.cpp:141] Setting up inception_4a/output
I0403 14:54:33.514432 11386 net.cpp:148] Top shape: 24 512 14 14 (2408448)
I0403 14:54:33.514447 11386 net.cpp:156] Memory required for data: 896545824
I0403 14:54:33.514462 11386 layer_factory.hpp:77] Creating layer inception_4a/output_inception_4a/output_0_split
I0403 14:54:33.514479 11386 net.cpp:91] Creating Layer inception_4a/output_inception_4a/output_0_split
I0403 14:54:33.514494 11386 net.cpp:425] inception_4a/output_inception_4a/output_0_split <- inception_4a/output
I0403 14:54:33.514510 11386 net.cpp:399] inception_4a/output_inception_4a/output_0_split -> inception_4a/output_inception_4a/output_0_split_0
I0403 14:54:33.514533 11386 net.cpp:399] inception_4a/output_inception_4a/output_0_split -> inception_4a/output_inception_4a/output_0_split_1
I0403 14:54:33.514554 11386 net.cpp:399] inception_4a/output_inception_4a/output_0_split -> inception_4a/output_inception_4a/output_0_split_2
I0403 14:54:33.514574 11386 net.cpp:399] inception_4a/output_inception_4a/output_0_split -> inception_4a/output_inception_4a/output_0_split_3
I0403 14:54:33.514593 11386 net.cpp:399] inception_4a/output_inception_4a/output_0_split -> inception_4a/output_inception_4a/output_0_split_4
I0403 14:54:33.514683 11386 net.cpp:141] Setting up inception_4a/output_inception_4a/output_0_split
I0403 14:54:33.514706 11386 net.cpp:148] Top shape: 24 512 14 14 (2408448)
I0403 14:54:33.514724 11386 net.cpp:148] Top shape: 24 512 14 14 (2408448)
I0403 14:54:33.514740 11386 net.cpp:148] Top shape: 24 512 14 14 (2408448)
I0403 14:54:33.514755 11386 net.cpp:148] Top shape: 24 512 14 14 (2408448)
I0403 14:54:33.514770 11386 net.cpp:148] Top shape: 24 512 14 14 (2408448)
I0403 14:54:33.514783 11386 net.cpp:156] Memory required for data: 944714784
I0403 14:54:33.514797 11386 layer_factory.hpp:77] Creating layer loss1/ave_pool
I0403 14:54:33.514814 11386 net.cpp:91] Creating Layer loss1/ave_pool
I0403 14:54:33.514829 11386 net.cpp:425] loss1/ave_pool <- inception_4a/output_inception_4a/output_0_split_0
I0403 14:54:33.514847 11386 net.cpp:399] loss1/ave_pool -> loss1/ave_pool
I0403 14:54:33.515053 11386 net.cpp:141] Setting up loss1/ave_pool
I0403 14:54:33.515079 11386 net.cpp:148] Top shape: 24 512 4 4 (196608)
I0403 14:54:33.515094 11386 net.cpp:156] Memory required for data: 945501216
I0403 14:54:33.515107 11386 layer_factory.hpp:77] Creating layer loss1/conv
I0403 14:54:33.515128 11386 net.cpp:91] Creating Layer loss1/conv
I0403 14:54:33.515146 11386 net.cpp:425] loss1/conv <- loss1/ave_pool
I0403 14:54:33.515166 11386 net.cpp:399] loss1/conv -> loss1/conv
I0403 14:54:33.516568 11386 net.cpp:141] Setting up loss1/conv
I0403 14:54:33.516595 11386 net.cpp:148] Top shape: 24 128 4 4 (49152)
I0403 14:54:33.516624 11386 net.cpp:156] Memory required for data: 945697824
I0403 14:54:33.516644 11386 layer_factory.hpp:77] Creating layer loss1/relu_conv
I0403 14:54:33.516664 11386 net.cpp:91] Creating Layer loss1/relu_conv
I0403 14:54:33.516680 11386 net.cpp:425] loss1/relu_conv <- loss1/conv
I0403 14:54:33.516697 11386 net.cpp:386] loss1/relu_conv -> loss1/conv (in-place)
I0403 14:54:33.516978 11386 net.cpp:141] Setting up loss1/relu_conv
I0403 14:54:33.517004 11386 net.cpp:148] Top shape: 24 128 4 4 (49152)
I0403 14:54:33.517019 11386 net.cpp:156] Memory required for data: 945894432
I0403 14:54:33.517032 11386 layer_factory.hpp:77] Creating layer loss1/fc
I0403 14:54:33.517057 11386 net.cpp:91] Creating Layer loss1/fc
I0403 14:54:33.517076 11386 net.cpp:425] loss1/fc <- loss1/conv
I0403 14:54:33.517093 11386 net.cpp:399] loss1/fc -> loss1/fc
I0403 14:54:33.534970 11386 net.cpp:141] Setting up loss1/fc
I0403 14:54:33.535008 11386 net.cpp:148] Top shape: 24 1024 (24576)
I0403 14:54:33.535022 11386 net.cpp:156] Memory required for data: 945992736
I0403 14:54:33.535039 11386 layer_factory.hpp:77] Creating layer loss1/relu_fc
I0403 14:54:33.535056 11386 net.cpp:91] Creating Layer loss1/relu_fc
I0403 14:54:33.535071 11386 net.cpp:425] loss1/relu_fc <- loss1/fc
I0403 14:54:33.535090 11386 net.cpp:386] loss1/relu_fc -> loss1/fc (in-place)
I0403 14:54:33.535274 11386 net.cpp:141] Setting up loss1/relu_fc
I0403 14:54:33.535297 11386 net.cpp:148] Top shape: 24 1024 (24576)
I0403 14:54:33.535311 11386 net.cpp:156] Memory required for data: 946091040
I0403 14:54:33.535326 11386 layer_factory.hpp:77] Creating layer loss1/drop_fc
I0403 14:54:33.535351 11386 net.cpp:91] Creating Layer loss1/drop_fc
I0403 14:54:33.535368 11386 net.cpp:425] loss1/drop_fc <- loss1/fc
I0403 14:54:33.535384 11386 net.cpp:386] loss1/drop_fc -> loss1/fc (in-place)
I0403 14:54:33.535436 11386 net.cpp:141] Setting up loss1/drop_fc
I0403 14:54:33.535462 11386 net.cpp:148] Top shape: 24 1024 (24576)
I0403 14:54:33.535477 11386 net.cpp:156] Memory required for data: 946189344
I0403 14:54:33.535492 11386 layer_factory.hpp:77] Creating layer loss1/classifier_plantvillage
I0403 14:54:33.535509 11386 net.cpp:91] Creating Layer loss1/classifier_plantvillage
I0403 14:54:33.535524 11386 net.cpp:425] loss1/classifier_plantvillage <- loss1/fc
I0403 14:54:33.535543 11386 net.cpp:399] loss1/classifier_plantvillage -> loss1/classifier_plantvillage
I0403 14:54:33.536417 11386 net.cpp:141] Setting up loss1/classifier_plantvillage
I0403 14:54:33.536442 11386 net.cpp:148] Top shape: 24 38 (912)
I0403 14:54:33.536456 11386 net.cpp:156] Memory required for data: 946192992
I0403 14:54:33.536474 11386 layer_factory.hpp:77] Creating layer loss1/classifier_plantvillage_loss1/classifier_plantvillage_0_split
I0403 14:54:33.536494 11386 net.cpp:91] Creating Layer loss1/classifier_plantvillage_loss1/classifier_plantvillage_0_split
I0403 14:54:33.536509 11386 net.cpp:425] loss1/classifier_plantvillage_loss1/classifier_plantvillage_0_split <- loss1/classifier_plantvillage
I0403 14:54:33.536525 11386 net.cpp:399] loss1/classifier_plantvillage_loss1/classifier_plantvillage_0_split -> loss1/classifier_plantvillage_loss1/classifier_plantvillage_0_split_0
I0403 14:54:33.536545 11386 net.cpp:399] loss1/classifier_plantvillage_loss1/classifier_plantvillage_0_split -> loss1/classifier_plantvillage_loss1/classifier_plantvillage_0_split_1
I0403 14:54:33.536564 11386 net.cpp:399] loss1/classifier_plantvillage_loss1/classifier_plantvillage_0_split -> loss1/classifier_plantvillage_loss1/classifier_plantvillage_0_split_2
I0403 14:54:33.536628 11386 net.cpp:141] Setting up loss1/classifier_plantvillage_loss1/classifier_plantvillage_0_split
I0403 14:54:33.536651 11386 net.cpp:148] Top shape: 24 38 (912)
I0403 14:54:33.536666 11386 net.cpp:148] Top shape: 24 38 (912)
I0403 14:54:33.536681 11386 net.cpp:148] Top shape: 24 38 (912)
I0403 14:54:33.536694 11386 net.cpp:156] Memory required for data: 946203936
I0403 14:54:33.536706 11386 layer_factory.hpp:77] Creating layer inception_4b/1x1
I0403 14:54:33.536726 11386 net.cpp:91] Creating Layer inception_4b/1x1
I0403 14:54:33.536758 11386 net.cpp:425] inception_4b/1x1 <- inception_4a/output_inception_4a/output_0_split_1
I0403 14:54:33.536779 11386 net.cpp:399] inception_4b/1x1 -> inception_4b/1x1
I0403 14:54:33.538364 11386 net.cpp:141] Setting up inception_4b/1x1
I0403 14:54:33.538391 11386 net.cpp:148] Top shape: 24 160 14 14 (752640)
I0403 14:54:33.538406 11386 net.cpp:156] Memory required for data: 949214496
I0403 14:54:33.538429 11386 layer_factory.hpp:77] Creating layer inception_4b/relu_1x1
I0403 14:54:33.538450 11386 net.cpp:91] Creating Layer inception_4b/relu_1x1
I0403 14:54:33.538465 11386 net.cpp:425] inception_4b/relu_1x1 <- inception_4b/1x1
I0403 14:54:33.538493 11386 net.cpp:386] inception_4b/relu_1x1 -> inception_4b/1x1 (in-place)
I0403 14:54:33.538669 11386 net.cpp:141] Setting up inception_4b/relu_1x1
I0403 14:54:33.538697 11386 net.cpp:148] Top shape: 24 160 14 14 (752640)
I0403 14:54:33.538712 11386 net.cpp:156] Memory required for data: 952225056
I0403 14:54:33.538725 11386 layer_factory.hpp:77] Creating layer inception_4b/3x3_reduce
I0403 14:54:33.538748 11386 net.cpp:91] Creating Layer inception_4b/3x3_reduce
I0403 14:54:33.538764 11386 net.cpp:425] inception_4b/3x3_reduce <- inception_4a/output_inception_4a/output_0_split_2
I0403 14:54:33.538784 11386 net.cpp:399] inception_4b/3x3_reduce -> inception_4b/3x3_reduce
I0403 14:54:33.540105 11386 net.cpp:141] Setting up inception_4b/3x3_reduce
I0403 14:54:33.540134 11386 net.cpp:148] Top shape: 24 112 14 14 (526848)
I0403 14:54:33.540150 11386 net.cpp:156] Memory required for data: 954332448
I0403 14:54:33.540168 11386 layer_factory.hpp:77] Creating layer inception_4b/relu_3x3_reduce
I0403 14:54:33.540184 11386 net.cpp:91] Creating Layer inception_4b/relu_3x3_reduce
I0403 14:54:33.540199 11386 net.cpp:425] inception_4b/relu_3x3_reduce <- inception_4b/3x3_reduce
I0403 14:54:33.540216 11386 net.cpp:386] inception_4b/relu_3x3_reduce -> inception_4b/3x3_reduce (in-place)
I0403 14:54:33.540498 11386 net.cpp:141] Setting up inception_4b/relu_3x3_reduce
I0403 14:54:33.540524 11386 net.cpp:148] Top shape: 24 112 14 14 (526848)
I0403 14:54:33.540539 11386 net.cpp:156] Memory required for data: 956439840
I0403 14:54:33.540554 11386 layer_factory.hpp:77] Creating layer inception_4b/3x3
I0403 14:54:33.540576 11386 net.cpp:91] Creating Layer inception_4b/3x3
I0403 14:54:33.540593 11386 net.cpp:425] inception_4b/3x3 <- inception_4b/3x3_reduce
I0403 14:54:33.540611 11386 net.cpp:399] inception_4b/3x3 -> inception_4b/3x3
I0403 14:54:33.543498 11386 net.cpp:141] Setting up inception_4b/3x3
I0403 14:54:33.543526 11386 net.cpp:148] Top shape: 24 224 14 14 (1053696)
I0403 14:54:33.543541 11386 net.cpp:156] Memory required for data: 960654624
I0403 14:54:33.543558 11386 layer_factory.hpp:77] Creating layer inception_4b/relu_3x3
I0403 14:54:33.543578 11386 net.cpp:91] Creating Layer inception_4b/relu_3x3
I0403 14:54:33.543594 11386 net.cpp:425] inception_4b/relu_3x3 <- inception_4b/3x3
I0403 14:54:33.543611 11386 net.cpp:386] inception_4b/relu_3x3 -> inception_4b/3x3 (in-place)
I0403 14:54:33.543786 11386 net.cpp:141] Setting up inception_4b/relu_3x3
I0403 14:54:33.543809 11386 net.cpp:148] Top shape: 24 224 14 14 (1053696)
I0403 14:54:33.543823 11386 net.cpp:156] Memory required for data: 964869408
I0403 14:54:33.543836 11386 layer_factory.hpp:77] Creating layer inception_4b/5x5_reduce
I0403 14:54:33.543860 11386 net.cpp:91] Creating Layer inception_4b/5x5_reduce
I0403 14:54:33.543879 11386 net.cpp:425] inception_4b/5x5_reduce <- inception_4a/output_inception_4a/output_0_split_3
I0403 14:54:33.543896 11386 net.cpp:399] inception_4b/5x5_reduce -> inception_4b/5x5_reduce
I0403 14:54:33.544945 11386 net.cpp:141] Setting up inception_4b/5x5_reduce
I0403 14:54:33.544971 11386 net.cpp:148] Top shape: 24 24 14 14 (112896)
I0403 14:54:33.544986 11386 net.cpp:156] Memory required for data: 965320992
I0403 14:54:33.545003 11386 layer_factory.hpp:77] Creating layer inception_4b/relu_5x5_reduce
I0403 14:54:33.545022 11386 net.cpp:91] Creating Layer inception_4b/relu_5x5_reduce
I0403 14:54:33.545052 11386 net.cpp:425] inception_4b/relu_5x5_reduce <- inception_4b/5x5_reduce
I0403 14:54:33.545069 11386 net.cpp:386] inception_4b/relu_5x5_reduce -> inception_4b/5x5_reduce (in-place)
I0403 14:54:33.545249 11386 net.cpp:141] Setting up inception_4b/relu_5x5_reduce
I0403 14:54:33.545272 11386 net.cpp:148] Top shape: 24 24 14 14 (112896)
I0403 14:54:33.545287 11386 net.cpp:156] Memory required for data: 965772576
I0403 14:54:33.545300 11386 layer_factory.hpp:77] Creating layer inception_4b/5x5
I0403 14:54:33.545322 11386 net.cpp:91] Creating Layer inception_4b/5x5
I0403 14:54:33.545338 11386 net.cpp:425] inception_4b/5x5 <- inception_4b/5x5_reduce
I0403 14:54:33.545359 11386 net.cpp:399] inception_4b/5x5 -> inception_4b/5x5
I0403 14:54:33.546552 11386 net.cpp:141] Setting up inception_4b/5x5
I0403 14:54:33.546578 11386 net.cpp:148] Top shape: 24 64 14 14 (301056)
I0403 14:54:33.546593 11386 net.cpp:156] Memory required for data: 966976800
I0403 14:54:33.546610 11386 layer_factory.hpp:77] Creating layer inception_4b/relu_5x5
I0403 14:54:33.546629 11386 net.cpp:91] Creating Layer inception_4b/relu_5x5
I0403 14:54:33.546645 11386 net.cpp:425] inception_4b/relu_5x5 <- inception_4b/5x5
I0403 14:54:33.546661 11386 net.cpp:386] inception_4b/relu_5x5 -> inception_4b/5x5 (in-place)
I0403 14:54:33.546938 11386 net.cpp:141] Setting up inception_4b/relu_5x5
I0403 14:54:33.546963 11386 net.cpp:148] Top shape: 24 64 14 14 (301056)
I0403 14:54:33.546977 11386 net.cpp:156] Memory required for data: 968181024
I0403 14:54:33.546991 11386 layer_factory.hpp:77] Creating layer inception_4b/pool
I0403 14:54:33.547010 11386 net.cpp:91] Creating Layer inception_4b/pool
I0403 14:54:33.547026 11386 net.cpp:425] inception_4b/pool <- inception_4a/output_inception_4a/output_0_split_4
I0403 14:54:33.547044 11386 net.cpp:399] inception_4b/pool -> inception_4b/pool
I0403 14:54:33.547108 11386 net.cpp:141] Setting up inception_4b/pool
I0403 14:54:33.547132 11386 net.cpp:148] Top shape: 24 512 14 14 (2408448)
I0403 14:54:33.547144 11386 net.cpp:156] Memory required for data: 977814816
I0403 14:54:33.547158 11386 layer_factory.hpp:77] Creating layer inception_4b/pool_proj
I0403 14:54:33.547179 11386 net.cpp:91] Creating Layer inception_4b/pool_proj
I0403 14:54:33.547196 11386 net.cpp:425] inception_4b/pool_proj <- inception_4b/pool
I0403 14:54:33.547215 11386 net.cpp:399] inception_4b/pool_proj -> inception_4b/pool_proj
I0403 14:54:33.548378 11386 net.cpp:141] Setting up inception_4b/pool_proj
I0403 14:54:33.548408 11386 net.cpp:148] Top shape: 24 64 14 14 (301056)
I0403 14:54:33.548427 11386 net.cpp:156] Memory required for data: 979019040
I0403 14:54:33.548445 11386 layer_factory.hpp:77] Creating layer inception_4b/relu_pool_proj
I0403 14:54:33.548462 11386 net.cpp:91] Creating Layer inception_4b/relu_pool_proj
I0403 14:54:33.548476 11386 net.cpp:425] inception_4b/relu_pool_proj <- inception_4b/pool_proj
I0403 14:54:33.548493 11386 net.cpp:386] inception_4b/relu_pool_proj -> inception_4b/pool_proj (in-place)
I0403 14:54:33.548671 11386 net.cpp:141] Setting up inception_4b/relu_pool_proj
I0403 14:54:33.548694 11386 net.cpp:148] Top shape: 24 64 14 14 (301056)
I0403 14:54:33.548708 11386 net.cpp:156] Memory required for data: 980223264
I0403 14:54:33.548722 11386 layer_factory.hpp:77] Creating layer inception_4b/output
I0403 14:54:33.548738 11386 net.cpp:91] Creating Layer inception_4b/output
I0403 14:54:33.548753 11386 net.cpp:425] inception_4b/output <- inception_4b/1x1
I0403 14:54:33.548768 11386 net.cpp:425] inception_4b/output <- inception_4b/3x3
I0403 14:54:33.548782 11386 net.cpp:425] inception_4b/output <- inception_4b/5x5
I0403 14:54:33.548797 11386 net.cpp:425] inception_4b/output <- inception_4b/pool_proj
I0403 14:54:33.548816 11386 net.cpp:399] inception_4b/output -> inception_4b/output
I0403 14:54:33.548861 11386 net.cpp:141] Setting up inception_4b/output
I0403 14:54:33.548882 11386 net.cpp:148] Top shape: 24 512 14 14 (2408448)
I0403 14:54:33.548897 11386 net.cpp:156] Memory required for data: 989857056
I0403 14:54:33.548923 11386 layer_factory.hpp:77] Creating layer inception_4b/output_inception_4b/output_0_split
I0403 14:54:33.548943 11386 net.cpp:91] Creating Layer inception_4b/output_inception_4b/output_0_split
I0403 14:54:33.548959 11386 net.cpp:425] inception_4b/output_inception_4b/output_0_split <- inception_4b/output
I0403 14:54:33.548975 11386 net.cpp:399] inception_4b/output_inception_4b/output_0_split -> inception_4b/output_inception_4b/output_0_split_0
I0403 14:54:33.548996 11386 net.cpp:399] inception_4b/output_inception_4b/output_0_split -> inception_4b/output_inception_4b/output_0_split_1
I0403 14:54:33.549016 11386 net.cpp:399] inception_4b/output_inception_4b/output_0_split -> inception_4b/output_inception_4b/output_0_split_2
I0403 14:54:33.549036 11386 net.cpp:399] inception_4b/output_inception_4b/output_0_split -> inception_4b/output_inception_4b/output_0_split_3
I0403 14:54:33.549116 11386 net.cpp:141] Setting up inception_4b/output_inception_4b/output_0_split
I0403 14:54:33.549139 11386 net.cpp:148] Top shape: 24 512 14 14 (2408448)
I0403 14:54:33.549154 11386 net.cpp:148] Top shape: 24 512 14 14 (2408448)
I0403 14:54:33.549167 11386 net.cpp:148] Top shape: 24 512 14 14 (2408448)
I0403 14:54:33.549181 11386 net.cpp:148] Top shape: 24 512 14 14 (2408448)
I0403 14:54:33.549193 11386 net.cpp:156] Memory required for data: 1028392224
I0403 14:54:33.549207 11386 layer_factory.hpp:77] Creating layer inception_4c/1x1
I0403 14:54:33.549228 11386 net.cpp:91] Creating Layer inception_4c/1x1
I0403 14:54:33.549244 11386 net.cpp:425] inception_4c/1x1 <- inception_4b/output_inception_4b/output_0_split_0
I0403 14:54:33.549264 11386 net.cpp:399] inception_4c/1x1 -> inception_4c/1x1
I0403 14:54:33.550658 11386 net.cpp:141] Setting up inception_4c/1x1
I0403 14:54:33.550686 11386 net.cpp:148] Top shape: 24 128 14 14 (602112)
I0403 14:54:33.550700 11386 net.cpp:156] Memory required for data: 1030800672
I0403 14:54:33.550717 11386 layer_factory.hpp:77] Creating layer inception_4c/relu_1x1
I0403 14:54:33.550734 11386 net.cpp:91] Creating Layer inception_4c/relu_1x1
I0403 14:54:33.550750 11386 net.cpp:425] inception_4c/relu_1x1 <- inception_4c/1x1
I0403 14:54:33.550768 11386 net.cpp:386] inception_4c/relu_1x1 -> inception_4c/1x1 (in-place)
I0403 14:54:33.550941 11386 net.cpp:141] Setting up inception_4c/relu_1x1
I0403 14:54:33.550964 11386 net.cpp:148] Top shape: 24 128 14 14 (602112)
I0403 14:54:33.550978 11386 net.cpp:156] Memory required for data: 1033209120
I0403 14:54:33.550992 11386 layer_factory.hpp:77] Creating layer inception_4c/3x3_reduce
I0403 14:54:33.551013 11386 net.cpp:91] Creating Layer inception_4c/3x3_reduce
I0403 14:54:33.551030 11386 net.cpp:425] inception_4c/3x3_reduce <- inception_4b/output_inception_4b/output_0_split_1
I0403 14:54:33.551053 11386 net.cpp:399] inception_4c/3x3_reduce -> inception_4c/3x3_reduce
I0403 14:54:33.553017 11386 net.cpp:141] Setting up inception_4c/3x3_reduce
I0403 14:54:33.553046 11386 net.cpp:148] Top shape: 24 128 14 14 (602112)
I0403 14:54:33.553062 11386 net.cpp:156] Memory required for data: 1035617568
I0403 14:54:33.553079 11386 layer_factory.hpp:77] Creating layer inception_4c/relu_3x3_reduce
I0403 14:54:33.553099 11386 net.cpp:91] Creating Layer inception_4c/relu_3x3_reduce
I0403 14:54:33.553117 11386 net.cpp:425] inception_4c/relu_3x3_reduce <- inception_4c/3x3_reduce
I0403 14:54:33.553133 11386 net.cpp:386] inception_4c/relu_3x3_reduce -> inception_4c/3x3_reduce (in-place)
I0403 14:54:33.553421 11386 net.cpp:141] Setting up inception_4c/relu_3x3_reduce
I0403 14:54:33.553447 11386 net.cpp:148] Top shape: 24 128 14 14 (602112)
I0403 14:54:33.553462 11386 net.cpp:156] Memory required for data: 1038026016
I0403 14:54:33.553477 11386 layer_factory.hpp:77] Creating layer inception_4c/3x3
I0403 14:54:33.553498 11386 net.cpp:91] Creating Layer inception_4c/3x3
I0403 14:54:33.553519 11386 net.cpp:425] inception_4c/3x3 <- inception_4c/3x3_reduce
I0403 14:54:33.553537 11386 net.cpp:399] inception_4c/3x3 -> inception_4c/3x3
I0403 14:54:33.557157 11386 net.cpp:141] Setting up inception_4c/3x3
I0403 14:54:33.557200 11386 net.cpp:148] Top shape: 24 256 14 14 (1204224)
I0403 14:54:33.557217 11386 net.cpp:156] Memory required for data: 1042842912
I0403 14:54:33.557247 11386 layer_factory.hpp:77] Creating layer inception_4c/relu_3x3
I0403 14:54:33.557267 11386 net.cpp:91] Creating Layer inception_4c/relu_3x3
I0403 14:54:33.557283 11386 net.cpp:425] inception_4c/relu_3x3 <- inception_4c/3x3
I0403 14:54:33.557312 11386 net.cpp:386] inception_4c/relu_3x3 -> inception_4c/3x3 (in-place)
I0403 14:54:33.557507 11386 net.cpp:141] Setting up inception_4c/relu_3x3
I0403 14:54:33.557534 11386 net.cpp:148] Top shape: 24 256 14 14 (1204224)
I0403 14:54:33.557550 11386 net.cpp:156] Memory required for data: 1047659808
I0403 14:54:33.557565 11386 layer_factory.hpp:77] Creating layer inception_4c/5x5_reduce
I0403 14:54:33.557588 11386 net.cpp:91] Creating Layer inception_4c/5x5_reduce
I0403 14:54:33.557618 11386 net.cpp:425] inception_4c/5x5_reduce <- inception_4b/output_inception_4b/output_0_split_2
I0403 14:54:33.557636 11386 net.cpp:399] inception_4c/5x5_reduce -> inception_4c/5x5_reduce
I0403 14:54:33.558722 11386 net.cpp:141] Setting up inception_4c/5x5_reduce
I0403 14:54:33.558749 11386 net.cpp:148] Top shape: 24 24 14 14 (112896)
I0403 14:54:33.558765 11386 net.cpp:156] Memory required for data: 1048111392
I0403 14:54:33.558782 11386 layer_factory.hpp:77] Creating layer inception_4c/relu_5x5_reduce
I0403 14:54:33.558802 11386 net.cpp:91] Creating Layer inception_4c/relu_5x5_reduce
I0403 14:54:33.558818 11386 net.cpp:425] inception_4c/relu_5x5_reduce <- inception_4c/5x5_reduce
I0403 14:54:33.558835 11386 net.cpp:386] inception_4c/relu_5x5_reduce -> inception_4c/5x5_reduce (in-place)
I0403 14:54:33.559017 11386 net.cpp:141] Setting up inception_4c/relu_5x5_reduce
I0403 14:54:33.559042 11386 net.cpp:148] Top shape: 24 24 14 14 (112896)
I0403 14:54:33.559056 11386 net.cpp:156] Memory required for data: 1048562976
I0403 14:54:33.559070 11386 layer_factory.hpp:77] Creating layer inception_4c/5x5
I0403 14:54:33.559092 11386 net.cpp:91] Creating Layer inception_4c/5x5
I0403 14:54:33.559108 11386 net.cpp:425] inception_4c/5x5 <- inception_4c/5x5_reduce
I0403 14:54:33.559131 11386 net.cpp:399] inception_4c/5x5 -> inception_4c/5x5
I0403 14:54:33.560372 11386 net.cpp:141] Setting up inception_4c/5x5
I0403 14:54:33.560401 11386 net.cpp:148] Top shape: 24 64 14 14 (301056)
I0403 14:54:33.560422 11386 net.cpp:156] Memory required for data: 1049767200
I0403 14:54:33.560441 11386 layer_factory.hpp:77] Creating layer inception_4c/relu_5x5
I0403 14:54:33.560458 11386 net.cpp:91] Creating Layer inception_4c/relu_5x5
I0403 14:54:33.560474 11386 net.cpp:425] inception_4c/relu_5x5 <- inception_4c/5x5
I0403 14:54:33.560493 11386 net.cpp:386] inception_4c/relu_5x5 -> inception_4c/5x5 (in-place)
I0403 14:54:33.560780 11386 net.cpp:141] Setting up inception_4c/relu_5x5
I0403 14:54:33.560807 11386 net.cpp:148] Top shape: 24 64 14 14 (301056)
I0403 14:54:33.560823 11386 net.cpp:156] Memory required for data: 1050971424
I0403 14:54:33.560837 11386 layer_factory.hpp:77] Creating layer inception_4c/pool
I0403 14:54:33.560855 11386 net.cpp:91] Creating Layer inception_4c/pool
I0403 14:54:33.560870 11386 net.cpp:425] inception_4c/pool <- inception_4b/output_inception_4b/output_0_split_3
I0403 14:54:33.560890 11386 net.cpp:399] inception_4c/pool -> inception_4c/pool
I0403 14:54:33.560956 11386 net.cpp:141] Setting up inception_4c/pool
I0403 14:54:33.560981 11386 net.cpp:148] Top shape: 24 512 14 14 (2408448)
I0403 14:54:33.560997 11386 net.cpp:156] Memory required for data: 1060605216
I0403 14:54:33.561009 11386 layer_factory.hpp:77] Creating layer inception_4c/pool_proj
I0403 14:54:33.561031 11386 net.cpp:91] Creating Layer inception_4c/pool_proj
I0403 14:54:33.561048 11386 net.cpp:425] inception_4c/pool_proj <- inception_4c/pool
I0403 14:54:33.561066 11386 net.cpp:399] inception_4c/pool_proj -> inception_4c/pool_proj
I0403 14:54:33.562283 11386 net.cpp:141] Setting up inception_4c/pool_proj
I0403 14:54:33.562314 11386 net.cpp:148] Top shape: 24 64 14 14 (301056)
I0403 14:54:33.562345 11386 net.cpp:156] Memory required for data: 1061809440
I0403 14:54:33.562363 11386 layer_factory.hpp:77] Creating layer inception_4c/relu_pool_proj
I0403 14:54:33.562381 11386 net.cpp:91] Creating Layer inception_4c/relu_pool_proj
I0403 14:54:33.562397 11386 net.cpp:425] inception_4c/relu_pool_proj <- inception_4c/pool_proj
I0403 14:54:33.562436 11386 net.cpp:386] inception_4c/relu_pool_proj -> inception_4c/pool_proj (in-place)
I0403 14:54:33.562628 11386 net.cpp:141] Setting up inception_4c/relu_pool_proj
I0403 14:54:33.562655 11386 net.cpp:148] Top shape: 24 64 14 14 (301056)
I0403 14:54:33.562670 11386 net.cpp:156] Memory required for data: 1063013664
I0403 14:54:33.562685 11386 layer_factory.hpp:77] Creating layer inception_4c/output
I0403 14:54:33.562702 11386 net.cpp:91] Creating Layer inception_4c/output
I0403 14:54:33.562717 11386 net.cpp:425] inception_4c/output <- inception_4c/1x1
I0403 14:54:33.562734 11386 net.cpp:425] inception_4c/output <- inception_4c/3x3
I0403 14:54:33.562760 11386 net.cpp:425] inception_4c/output <- inception_4c/5x5
I0403 14:54:33.562777 11386 net.cpp:425] inception_4c/output <- inception_4c/pool_proj
I0403 14:54:33.562795 11386 net.cpp:399] inception_4c/output -> inception_4c/output
I0403 14:54:33.562844 11386 net.cpp:141] Setting up inception_4c/output
I0403 14:54:33.562867 11386 net.cpp:148] Top shape: 24 512 14 14 (2408448)
I0403 14:54:33.562882 11386 net.cpp:156] Memory required for data: 1072647456
I0403 14:54:33.562896 11386 layer_factory.hpp:77] Creating layer inception_4c/output_inception_4c/output_0_split
I0403 14:54:33.562918 11386 net.cpp:91] Creating Layer inception_4c/output_inception_4c/output_0_split
I0403 14:54:33.562934 11386 net.cpp:425] inception_4c/output_inception_4c/output_0_split <- inception_4c/output
I0403 14:54:33.562952 11386 net.cpp:399] inception_4c/output_inception_4c/output_0_split -> inception_4c/output_inception_4c/output_0_split_0
I0403 14:54:33.562973 11386 net.cpp:399] inception_4c/output_inception_4c/output_0_split -> inception_4c/output_inception_4c/output_0_split_1
I0403 14:54:33.562995 11386 net.cpp:399] inception_4c/output_inception_4c/output_0_split -> inception_4c/output_inception_4c/output_0_split_2
I0403 14:54:33.563016 11386 net.cpp:399] inception_4c/output_inception_4c/output_0_split -> inception_4c/output_inception_4c/output_0_split_3
I0403 14:54:33.563104 11386 net.cpp:141] Setting up inception_4c/output_inception_4c/output_0_split
I0403 14:54:33.563127 11386 net.cpp:148] Top shape: 24 512 14 14 (2408448)
I0403 14:54:33.563143 11386 net.cpp:148] Top shape: 24 512 14 14 (2408448)
I0403 14:54:33.563158 11386 net.cpp:148] Top shape: 24 512 14 14 (2408448)
I0403 14:54:33.563174 11386 net.cpp:148] Top shape: 24 512 14 14 (2408448)
I0403 14:54:33.563186 11386 net.cpp:156] Memory required for data: 1111182624
I0403 14:54:33.563200 11386 layer_factory.hpp:77] Creating layer inception_4d/1x1
I0403 14:54:33.563222 11386 net.cpp:91] Creating Layer inception_4d/1x1
I0403 14:54:33.563241 11386 net.cpp:425] inception_4d/1x1 <- inception_4c/output_inception_4c/output_0_split_0
I0403 14:54:33.563261 11386 net.cpp:399] inception_4d/1x1 -> inception_4d/1x1
I0403 14:54:33.564682 11386 net.cpp:141] Setting up inception_4d/1x1
I0403 14:54:33.564710 11386 net.cpp:148] Top shape: 24 112 14 14 (526848)
I0403 14:54:33.564725 11386 net.cpp:156] Memory required for data: 1113290016
I0403 14:54:33.564744 11386 layer_factory.hpp:77] Creating layer inception_4d/relu_1x1
I0403 14:54:33.564764 11386 net.cpp:91] Creating Layer inception_4d/relu_1x1
I0403 14:54:33.564780 11386 net.cpp:425] inception_4d/relu_1x1 <- inception_4d/1x1
I0403 14:54:33.564798 11386 net.cpp:386] inception_4d/relu_1x1 -> inception_4d/1x1 (in-place)
I0403 14:54:33.564988 11386 net.cpp:141] Setting up inception_4d/relu_1x1
I0403 14:54:33.565013 11386 net.cpp:148] Top shape: 24 112 14 14 (526848)
I0403 14:54:33.565028 11386 net.cpp:156] Memory required for data: 1115397408
I0403 14:54:33.565043 11386 layer_factory.hpp:77] Creating layer inception_4d/3x3_reduce
I0403 14:54:33.565081 11386 net.cpp:91] Creating Layer inception_4d/3x3_reduce
I0403 14:54:33.565100 11386 net.cpp:425] inception_4d/3x3_reduce <- inception_4c/output_inception_4c/output_0_split_1
I0403 14:54:33.565119 11386 net.cpp:399] inception_4d/3x3_reduce -> inception_4d/3x3_reduce
I0403 14:54:33.566680 11386 net.cpp:141] Setting up inception_4d/3x3_reduce
I0403 14:54:33.566709 11386 net.cpp:148] Top shape: 24 144 14 14 (677376)
I0403 14:54:33.566723 11386 net.cpp:156] Memory required for data: 1118106912
I0403 14:54:33.566741 11386 layer_factory.hpp:77] Creating layer inception_4d/relu_3x3_reduce
I0403 14:54:33.566759 11386 net.cpp:91] Creating Layer inception_4d/relu_3x3_reduce
I0403 14:54:33.566774 11386 net.cpp:425] inception_4d/relu_3x3_reduce <- inception_4d/3x3_reduce
I0403 14:54:33.566793 11386 net.cpp:386] inception_4d/relu_3x3_reduce -> inception_4d/3x3_reduce (in-place)
I0403 14:54:33.567088 11386 net.cpp:141] Setting up inception_4d/relu_3x3_reduce
I0403 14:54:33.567116 11386 net.cpp:148] Top shape: 24 144 14 14 (677376)
I0403 14:54:33.567131 11386 net.cpp:156] Memory required for data: 1120816416
I0403 14:54:33.567145 11386 layer_factory.hpp:77] Creating layer inception_4d/3x3
I0403 14:54:33.567169 11386 net.cpp:91] Creating Layer inception_4d/3x3
I0403 14:54:33.567188 11386 net.cpp:425] inception_4d/3x3 <- inception_4d/3x3_reduce
I0403 14:54:33.567209 11386 net.cpp:399] inception_4d/3x3 -> inception_4d/3x3
I0403 14:54:33.571710 11386 net.cpp:141] Setting up inception_4d/3x3
I0403 14:54:33.571740 11386 net.cpp:148] Top shape: 24 288 14 14 (1354752)
I0403 14:54:33.571756 11386 net.cpp:156] Memory required for data: 1126235424
I0403 14:54:33.571774 11386 layer_factory.hpp:77] Creating layer inception_4d/relu_3x3
I0403 14:54:33.571795 11386 net.cpp:91] Creating Layer inception_4d/relu_3x3
I0403 14:54:33.571812 11386 net.cpp:425] inception_4d/relu_3x3 <- inception_4d/3x3
I0403 14:54:33.571830 11386 net.cpp:386] inception_4d/relu_3x3 -> inception_4d/3x3 (in-place)
I0403 14:54:33.572021 11386 net.cpp:141] Setting up inception_4d/relu_3x3
I0403 14:54:33.572047 11386 net.cpp:148] Top shape: 24 288 14 14 (1354752)
I0403 14:54:33.572062 11386 net.cpp:156] Memory required for data: 1131654432
I0403 14:54:33.572077 11386 layer_factory.hpp:77] Creating layer inception_4d/5x5_reduce
I0403 14:54:33.572100 11386 net.cpp:91] Creating Layer inception_4d/5x5_reduce
I0403 14:54:33.572118 11386 net.cpp:425] inception_4d/5x5_reduce <- inception_4c/output_inception_4c/output_0_split_2
I0403 14:54:33.572137 11386 net.cpp:399] inception_4d/5x5_reduce -> inception_4d/5x5_reduce
I0403 14:54:33.573379 11386 net.cpp:141] Setting up inception_4d/5x5_reduce
I0403 14:54:33.573407 11386 net.cpp:148] Top shape: 24 32 14 14 (150528)
I0403 14:54:33.573429 11386 net.cpp:156] Memory required for data: 1132256544
I0403 14:54:33.573447 11386 layer_factory.hpp:77] Creating layer inception_4d/relu_5x5_reduce
I0403 14:54:33.573469 11386 net.cpp:91] Creating Layer inception_4d/relu_5x5_reduce
I0403 14:54:33.573487 11386 net.cpp:425] inception_4d/relu_5x5_reduce <- inception_4d/5x5_reduce
I0403 14:54:33.573504 11386 net.cpp:386] inception_4d/relu_5x5_reduce -> inception_4d/5x5_reduce (in-place)
I0403 14:54:33.573714 11386 net.cpp:141] Setting up inception_4d/relu_5x5_reduce
I0403 14:54:33.573739 11386 net.cpp:148] Top shape: 24 32 14 14 (150528)
I0403 14:54:33.573752 11386 net.cpp:156] Memory required for data: 1132858656
I0403 14:54:33.573766 11386 layer_factory.hpp:77] Creating layer inception_4d/5x5
I0403 14:54:33.573791 11386 net.cpp:91] Creating Layer inception_4d/5x5
I0403 14:54:33.573807 11386 net.cpp:425] inception_4d/5x5 <- inception_4d/5x5_reduce
I0403 14:54:33.573827 11386 net.cpp:399] inception_4d/5x5 -> inception_4d/5x5
I0403 14:54:33.575402 11386 net.cpp:141] Setting up inception_4d/5x5
I0403 14:54:33.575438 11386 net.cpp:148] Top shape: 24 64 14 14 (301056)
I0403 14:54:33.575456 11386 net.cpp:156] Memory required for data: 1134062880
I0403 14:54:33.575476 11386 layer_factory.hpp:77] Creating layer inception_4d/relu_5x5
I0403 14:54:33.575512 11386 net.cpp:91] Creating Layer inception_4d/relu_5x5
I0403 14:54:33.575530 11386 net.cpp:425] inception_4d/relu_5x5 <- inception_4d/5x5
I0403 14:54:33.575551 11386 net.cpp:386] inception_4d/relu_5x5 -> inception_4d/5x5 (in-place)
I0403 14:54:33.575881 11386 net.cpp:141] Setting up inception_4d/relu_5x5
I0403 14:54:33.575908 11386 net.cpp:148] Top shape: 24 64 14 14 (301056)
I0403 14:54:33.575924 11386 net.cpp:156] Memory required for data: 1135267104
I0403 14:54:33.575939 11386 layer_factory.hpp:77] Creating layer inception_4d/pool
I0403 14:54:33.575958 11386 net.cpp:91] Creating Layer inception_4d/pool
I0403 14:54:33.575973 11386 net.cpp:425] inception_4d/pool <- inception_4c/output_inception_4c/output_0_split_3
I0403 14:54:33.575994 11386 net.cpp:399] inception_4d/pool -> inception_4d/pool
I0403 14:54:33.576062 11386 net.cpp:141] Setting up inception_4d/pool
I0403 14:54:33.576086 11386 net.cpp:148] Top shape: 24 512 14 14 (2408448)
I0403 14:54:33.576102 11386 net.cpp:156] Memory required for data: 1144900896
I0403 14:54:33.576117 11386 layer_factory.hpp:77] Creating layer inception_4d/pool_proj
I0403 14:54:33.576138 11386 net.cpp:91] Creating Layer inception_4d/pool_proj
I0403 14:54:33.576156 11386 net.cpp:425] inception_4d/pool_proj <- inception_4d/pool
I0403 14:54:33.576177 11386 net.cpp:399] inception_4d/pool_proj -> inception_4d/pool_proj
I0403 14:54:33.578059 11386 net.cpp:141] Setting up inception_4d/pool_proj
I0403 14:54:33.578089 11386 net.cpp:148] Top shape: 24 64 14 14 (301056)
I0403 14:54:33.578105 11386 net.cpp:156] Memory required for data: 1146105120
I0403 14:54:33.578124 11386 layer_factory.hpp:77] Creating layer inception_4d/relu_pool_proj
I0403 14:54:33.578145 11386 net.cpp:91] Creating Layer inception_4d/relu_pool_proj
I0403 14:54:33.578161 11386 net.cpp:425] inception_4d/relu_pool_proj <- inception_4d/pool_proj
I0403 14:54:33.578179 11386 net.cpp:386] inception_4d/relu_pool_proj -> inception_4d/pool_proj (in-place)
I0403 14:54:33.578371 11386 net.cpp:141] Setting up inception_4d/relu_pool_proj
I0403 14:54:33.578397 11386 net.cpp:148] Top shape: 24 64 14 14 (301056)
I0403 14:54:33.578416 11386 net.cpp:156] Memory required for data: 1147309344
I0403 14:54:33.578433 11386 layer_factory.hpp:77] Creating layer inception_4d/output
I0403 14:54:33.578451 11386 net.cpp:91] Creating Layer inception_4d/output
I0403 14:54:33.578467 11386 net.cpp:425] inception_4d/output <- inception_4d/1x1
I0403 14:54:33.578485 11386 net.cpp:425] inception_4d/output <- inception_4d/3x3
I0403 14:54:33.578500 11386 net.cpp:425] inception_4d/output <- inception_4d/5x5
I0403 14:54:33.578517 11386 net.cpp:425] inception_4d/output <- inception_4d/pool_proj
I0403 14:54:33.578534 11386 net.cpp:399] inception_4d/output -> inception_4d/output
I0403 14:54:33.578584 11386 net.cpp:141] Setting up inception_4d/output
I0403 14:54:33.578608 11386 net.cpp:148] Top shape: 24 528 14 14 (2483712)
I0403 14:54:33.578622 11386 net.cpp:156] Memory required for data: 1157244192
I0403 14:54:33.578637 11386 layer_factory.hpp:77] Creating layer inception_4d/output_inception_4d/output_0_split
I0403 14:54:33.578657 11386 net.cpp:91] Creating Layer inception_4d/output_inception_4d/output_0_split
I0403 14:54:33.578675 11386 net.cpp:425] inception_4d/output_inception_4d/output_0_split <- inception_4d/output
I0403 14:54:33.578692 11386 net.cpp:399] inception_4d/output_inception_4d/output_0_split -> inception_4d/output_inception_4d/output_0_split_0
I0403 14:54:33.578713 11386 net.cpp:399] inception_4d/output_inception_4d/output_0_split -> inception_4d/output_inception_4d/output_0_split_1
I0403 14:54:33.578733 11386 net.cpp:399] inception_4d/output_inception_4d/output_0_split -> inception_4d/output_inception_4d/output_0_split_2
I0403 14:54:33.578758 11386 net.cpp:399] inception_4d/output_inception_4d/output_0_split -> inception_4d/output_inception_4d/output_0_split_3
I0403 14:54:33.578779 11386 net.cpp:399] inception_4d/output_inception_4d/output_0_split -> inception_4d/output_inception_4d/output_0_split_4
I0403 14:54:33.578887 11386 net.cpp:141] Setting up inception_4d/output_inception_4d/output_0_split
I0403 14:54:33.578923 11386 net.cpp:148] Top shape: 24 528 14 14 (2483712)
I0403 14:54:33.578940 11386 net.cpp:148] Top shape: 24 528 14 14 (2483712)
I0403 14:54:33.578956 11386 net.cpp:148] Top shape: 24 528 14 14 (2483712)
I0403 14:54:33.578971 11386 net.cpp:148] Top shape: 24 528 14 14 (2483712)
I0403 14:54:33.578985 11386 net.cpp:148] Top shape: 24 528 14 14 (2483712)
I0403 14:54:33.578999 11386 net.cpp:156] Memory required for data: 1206918432
I0403 14:54:33.579015 11386 layer_factory.hpp:77] Creating layer loss2/ave_pool
I0403 14:54:33.579037 11386 net.cpp:91] Creating Layer loss2/ave_pool
I0403 14:54:33.579053 11386 net.cpp:425] loss2/ave_pool <- inception_4d/output_inception_4d/output_0_split_0
I0403 14:54:33.579072 11386 net.cpp:399] loss2/ave_pool -> loss2/ave_pool
I0403 14:54:33.579396 11386 net.cpp:141] Setting up loss2/ave_pool
I0403 14:54:33.579427 11386 net.cpp:148] Top shape: 24 528 4 4 (202752)
I0403 14:54:33.579443 11386 net.cpp:156] Memory required for data: 1207729440
I0403 14:54:33.579458 11386 layer_factory.hpp:77] Creating layer loss2/conv
I0403 14:54:33.579480 11386 net.cpp:91] Creating Layer loss2/conv
I0403 14:54:33.579499 11386 net.cpp:425] loss2/conv <- loss2/ave_pool
I0403 14:54:33.579519 11386 net.cpp:399] loss2/conv -> loss2/conv
I0403 14:54:33.581475 11386 net.cpp:141] Setting up loss2/conv
I0403 14:54:33.581506 11386 net.cpp:148] Top shape: 24 128 4 4 (49152)
I0403 14:54:33.581521 11386 net.cpp:156] Memory required for data: 1207926048
I0403 14:54:33.581538 11386 layer_factory.hpp:77] Creating layer loss2/relu_conv
I0403 14:54:33.581557 11386 net.cpp:91] Creating Layer loss2/relu_conv
I0403 14:54:33.581573 11386 net.cpp:425] loss2/relu_conv <- loss2/conv
I0403 14:54:33.581590 11386 net.cpp:386] loss2/relu_conv -> loss2/conv (in-place)
I0403 14:54:33.581878 11386 net.cpp:141] Setting up loss2/relu_conv
I0403 14:54:33.581907 11386 net.cpp:148] Top shape: 24 128 4 4 (49152)
I0403 14:54:33.581923 11386 net.cpp:156] Memory required for data: 1208122656
I0403 14:54:33.581938 11386 layer_factory.hpp:77] Creating layer loss2/fc
I0403 14:54:33.581956 11386 net.cpp:91] Creating Layer loss2/fc
I0403 14:54:33.581972 11386 net.cpp:425] loss2/fc <- loss2/conv
I0403 14:54:33.581991 11386 net.cpp:399] loss2/fc -> loss2/fc
I0403 14:54:33.599522 11386 net.cpp:141] Setting up loss2/fc
I0403 14:54:33.599557 11386 net.cpp:148] Top shape: 24 1024 (24576)
I0403 14:54:33.599573 11386 net.cpp:156] Memory required for data: 1208220960
I0403 14:54:33.599591 11386 layer_factory.hpp:77] Creating layer loss2/relu_fc
I0403 14:54:33.599609 11386 net.cpp:91] Creating Layer loss2/relu_fc
I0403 14:54:33.599625 11386 net.cpp:425] loss2/relu_fc <- loss2/fc
I0403 14:54:33.599642 11386 net.cpp:386] loss2/relu_fc -> loss2/fc (in-place)
I0403 14:54:33.599961 11386 net.cpp:141] Setting up loss2/relu_fc
I0403 14:54:33.599985 11386 net.cpp:148] Top shape: 24 1024 (24576)
I0403 14:54:33.599999 11386 net.cpp:156] Memory required for data: 1208319264
I0403 14:54:33.600013 11386 layer_factory.hpp:77] Creating layer loss2/drop_fc
I0403 14:54:33.600033 11386 net.cpp:91] Creating Layer loss2/drop_fc
I0403 14:54:33.600049 11386 net.cpp:425] loss2/drop_fc <- loss2/fc
I0403 14:54:33.600065 11386 net.cpp:386] loss2/drop_fc -> loss2/fc (in-place)
I0403 14:54:33.600117 11386 net.cpp:141] Setting up loss2/drop_fc
I0403 14:54:33.600141 11386 net.cpp:148] Top shape: 24 1024 (24576)
I0403 14:54:33.600154 11386 net.cpp:156] Memory required for data: 1208417568
I0403 14:54:33.600167 11386 layer_factory.hpp:77] Creating layer loss2/classifier_plantvillage
I0403 14:54:33.600188 11386 net.cpp:91] Creating Layer loss2/classifier_plantvillage
I0403 14:54:33.600203 11386 net.cpp:425] loss2/classifier_plantvillage <- loss2/fc
I0403 14:54:33.600220 11386 net.cpp:399] loss2/classifier_plantvillage -> loss2/classifier_plantvillage
I0403 14:54:33.600626 11386 net.cpp:141] Setting up loss2/classifier_plantvillage
I0403 14:54:33.600649 11386 net.cpp:148] Top shape: 24 38 (912)
I0403 14:54:33.600685 11386 net.cpp:156] Memory required for data: 1208421216
I0403 14:54:33.600704 11386 layer_factory.hpp:77] Creating layer loss2/classifier_plantvillage_loss2/classifier_plantvillage_0_split
I0403 14:54:33.600721 11386 net.cpp:91] Creating Layer loss2/classifier_plantvillage_loss2/classifier_plantvillage_0_split
I0403 14:54:33.600736 11386 net.cpp:425] loss2/classifier_plantvillage_loss2/classifier_plantvillage_0_split <- loss2/classifier_plantvillage
I0403 14:54:33.600755 11386 net.cpp:399] loss2/classifier_plantvillage_loss2/classifier_plantvillage_0_split -> loss2/classifier_plantvillage_loss2/classifier_plantvillage_0_split_0
I0403 14:54:33.600776 11386 net.cpp:399] loss2/classifier_plantvillage_loss2/classifier_plantvillage_0_split -> loss2/classifier_plantvillage_loss2/classifier_plantvillage_0_split_1
I0403 14:54:33.600795 11386 net.cpp:399] loss2/classifier_plantvillage_loss2/classifier_plantvillage_0_split -> loss2/classifier_plantvillage_loss2/classifier_plantvillage_0_split_2
I0403 14:54:33.600869 11386 net.cpp:141] Setting up loss2/classifier_plantvillage_loss2/classifier_plantvillage_0_split
I0403 14:54:33.600893 11386 net.cpp:148] Top shape: 24 38 (912)
I0403 14:54:33.600909 11386 net.cpp:148] Top shape: 24 38 (912)
I0403 14:54:33.600924 11386 net.cpp:148] Top shape: 24 38 (912)
I0403 14:54:33.600936 11386 net.cpp:156] Memory required for data: 1208432160
I0403 14:54:33.600950 11386 layer_factory.hpp:77] Creating layer inception_4e/1x1
I0403 14:54:33.600971 11386 net.cpp:91] Creating Layer inception_4e/1x1
I0403 14:54:33.600988 11386 net.cpp:425] inception_4e/1x1 <- inception_4d/output_inception_4d/output_0_split_1
I0403 14:54:33.601006 11386 net.cpp:399] inception_4e/1x1 -> inception_4e/1x1
I0403 14:54:33.602813 11386 net.cpp:141] Setting up inception_4e/1x1
I0403 14:54:33.602843 11386 net.cpp:148] Top shape: 24 256 14 14 (1204224)
I0403 14:54:33.602859 11386 net.cpp:156] Memory required for data: 1213249056
I0403 14:54:33.602876 11386 layer_factory.hpp:77] Creating layer inception_4e/relu_1x1
I0403 14:54:33.602893 11386 net.cpp:91] Creating Layer inception_4e/relu_1x1
I0403 14:54:33.602908 11386 net.cpp:425] inception_4e/relu_1x1 <- inception_4e/1x1
I0403 14:54:33.602929 11386 net.cpp:386] inception_4e/relu_1x1 -> inception_4e/1x1 (in-place)
I0403 14:54:33.603224 11386 net.cpp:141] Setting up inception_4e/relu_1x1
I0403 14:54:33.603252 11386 net.cpp:148] Top shape: 24 256 14 14 (1204224)
I0403 14:54:33.603267 11386 net.cpp:156] Memory required for data: 1218065952
I0403 14:54:33.603281 11386 layer_factory.hpp:77] Creating layer inception_4e/3x3_reduce
I0403 14:54:33.603302 11386 net.cpp:91] Creating Layer inception_4e/3x3_reduce
I0403 14:54:33.603318 11386 net.cpp:425] inception_4e/3x3_reduce <- inception_4d/output_inception_4d/output_0_split_2
I0403 14:54:33.603337 11386 net.cpp:399] inception_4e/3x3_reduce -> inception_4e/3x3_reduce
I0403 14:54:33.605407 11386 net.cpp:141] Setting up inception_4e/3x3_reduce
I0403 14:54:33.605442 11386 net.cpp:148] Top shape: 24 160 14 14 (752640)
I0403 14:54:33.605458 11386 net.cpp:156] Memory required for data: 1221076512
I0403 14:54:33.605474 11386 layer_factory.hpp:77] Creating layer inception_4e/relu_3x3_reduce
I0403 14:54:33.605491 11386 net.cpp:91] Creating Layer inception_4e/relu_3x3_reduce
I0403 14:54:33.605506 11386 net.cpp:425] inception_4e/relu_3x3_reduce <- inception_4e/3x3_reduce
I0403 14:54:33.605523 11386 net.cpp:386] inception_4e/relu_3x3_reduce -> inception_4e/3x3_reduce (in-place)
I0403 14:54:33.605708 11386 net.cpp:141] Setting up inception_4e/relu_3x3_reduce
I0403 14:54:33.605732 11386 net.cpp:148] Top shape: 24 160 14 14 (752640)
I0403 14:54:33.605746 11386 net.cpp:156] Memory required for data: 1224087072
I0403 14:54:33.605761 11386 layer_factory.hpp:77] Creating layer inception_4e/3x3
I0403 14:54:33.605783 11386 net.cpp:91] Creating Layer inception_4e/3x3
I0403 14:54:33.605799 11386 net.cpp:425] inception_4e/3x3 <- inception_4e/3x3_reduce
I0403 14:54:33.605820 11386 net.cpp:399] inception_4e/3x3 -> inception_4e/3x3
I0403 14:54:33.610709 11386 net.cpp:141] Setting up inception_4e/3x3
I0403 14:54:33.610749 11386 net.cpp:148] Top shape: 24 320 14 14 (1505280)
I0403 14:54:33.610764 11386 net.cpp:156] Memory required for data: 1230108192
I0403 14:54:33.610780 11386 layer_factory.hpp:77] Creating layer inception_4e/relu_3x3
I0403 14:54:33.610800 11386 net.cpp:91] Creating Layer inception_4e/relu_3x3
I0403 14:54:33.610816 11386 net.cpp:425] inception_4e/relu_3x3 <- inception_4e/3x3
I0403 14:54:33.610833 11386 net.cpp:386] inception_4e/relu_3x3 -> inception_4e/3x3 (in-place)
I0403 14:54:33.611121 11386 net.cpp:141] Setting up inception_4e/relu_3x3
I0403 14:54:33.611146 11386 net.cpp:148] Top shape: 24 320 14 14 (1505280)
I0403 14:54:33.611160 11386 net.cpp:156] Memory required for data: 1236129312
I0403 14:54:33.611174 11386 layer_factory.hpp:77] Creating layer inception_4e/5x5_reduce
I0403 14:54:33.611197 11386 net.cpp:91] Creating Layer inception_4e/5x5_reduce
I0403 14:54:33.611214 11386 net.cpp:425] inception_4e/5x5_reduce <- inception_4d/output_inception_4d/output_0_split_3
I0403 14:54:33.611234 11386 net.cpp:399] inception_4e/5x5_reduce -> inception_4e/5x5_reduce
I0403 14:54:33.612283 11386 net.cpp:141] Setting up inception_4e/5x5_reduce
I0403 14:54:33.612313 11386 net.cpp:148] Top shape: 24 32 14 14 (150528)
I0403 14:54:33.612328 11386 net.cpp:156] Memory required for data: 1236731424
I0403 14:54:33.612344 11386 layer_factory.hpp:77] Creating layer inception_4e/relu_5x5_reduce
I0403 14:54:33.612362 11386 net.cpp:91] Creating Layer inception_4e/relu_5x5_reduce
I0403 14:54:33.612377 11386 net.cpp:425] inception_4e/relu_5x5_reduce <- inception_4e/5x5_reduce
I0403 14:54:33.612396 11386 net.cpp:386] inception_4e/relu_5x5_reduce -> inception_4e/5x5_reduce (in-place)
I0403 14:54:33.612714 11386 net.cpp:141] Setting up inception_4e/relu_5x5_reduce
I0403 14:54:33.612741 11386 net.cpp:148] Top shape: 24 32 14 14 (150528)
I0403 14:54:33.612757 11386 net.cpp:156] Memory required for data: 1237333536
I0403 14:54:33.612772 11386 layer_factory.hpp:77] Creating layer inception_4e/5x5
I0403 14:54:33.612812 11386 net.cpp:91] Creating Layer inception_4e/5x5
I0403 14:54:33.612829 11386 net.cpp:425] inception_4e/5x5 <- inception_4e/5x5_reduce
I0403 14:54:33.612848 11386 net.cpp:399] inception_4e/5x5 -> inception_4e/5x5
I0403 14:54:33.614681 11386 net.cpp:141] Setting up inception_4e/5x5
I0403 14:54:33.614708 11386 net.cpp:148] Top shape: 24 128 14 14 (602112)
I0403 14:54:33.614723 11386 net.cpp:156] Memory required for data: 1239741984
I0403 14:54:33.614740 11386 layer_factory.hpp:77] Creating layer inception_4e/relu_5x5
I0403 14:54:33.614760 11386 net.cpp:91] Creating Layer inception_4e/relu_5x5
I0403 14:54:33.614776 11386 net.cpp:425] inception_4e/relu_5x5 <- inception_4e/5x5
I0403 14:54:33.614792 11386 net.cpp:386] inception_4e/relu_5x5 -> inception_4e/5x5 (in-place)
I0403 14:54:33.614982 11386 net.cpp:141] Setting up inception_4e/relu_5x5
I0403 14:54:33.615007 11386 net.cpp:148] Top shape: 24 128 14 14 (602112)
I0403 14:54:33.615021 11386 net.cpp:156] Memory required for data: 1242150432
I0403 14:54:33.615036 11386 layer_factory.hpp:77] Creating layer inception_4e/pool
I0403 14:54:33.615052 11386 net.cpp:91] Creating Layer inception_4e/pool
I0403 14:54:33.615067 11386 net.cpp:425] inception_4e/pool <- inception_4d/output_inception_4d/output_0_split_4
I0403 14:54:33.615087 11386 net.cpp:399] inception_4e/pool -> inception_4e/pool
I0403 14:54:33.615156 11386 net.cpp:141] Setting up inception_4e/pool
I0403 14:54:33.615180 11386 net.cpp:148] Top shape: 24 528 14 14 (2483712)
I0403 14:54:33.615193 11386 net.cpp:156] Memory required for data: 1252085280
I0403 14:54:33.615206 11386 layer_factory.hpp:77] Creating layer inception_4e/pool_proj
I0403 14:54:33.615228 11386 net.cpp:91] Creating Layer inception_4e/pool_proj
I0403 14:54:33.615244 11386 net.cpp:425] inception_4e/pool_proj <- inception_4e/pool
I0403 14:54:33.615262 11386 net.cpp:399] inception_4e/pool_proj -> inception_4e/pool_proj
I0403 14:54:33.616798 11386 net.cpp:141] Setting up inception_4e/pool_proj
I0403 14:54:33.616837 11386 net.cpp:148] Top shape: 24 128 14 14 (602112)
I0403 14:54:33.616852 11386 net.cpp:156] Memory required for data: 1254493728
I0403 14:54:33.616869 11386 layer_factory.hpp:77] Creating layer inception_4e/relu_pool_proj
I0403 14:54:33.616889 11386 net.cpp:91] Creating Layer inception_4e/relu_pool_proj
I0403 14:54:33.616905 11386 net.cpp:425] inception_4e/relu_pool_proj <- inception_4e/pool_proj
I0403 14:54:33.616922 11386 net.cpp:386] inception_4e/relu_pool_proj -> inception_4e/pool_proj (in-place)
I0403 14:54:33.617223 11386 net.cpp:141] Setting up inception_4e/relu_pool_proj
I0403 14:54:33.617247 11386 net.cpp:148] Top shape: 24 128 14 14 (602112)
I0403 14:54:33.617262 11386 net.cpp:156] Memory required for data: 1256902176
I0403 14:54:33.617277 11386 layer_factory.hpp:77] Creating layer inception_4e/output
I0403 14:54:33.617296 11386 net.cpp:91] Creating Layer inception_4e/output
I0403 14:54:33.617312 11386 net.cpp:425] inception_4e/output <- inception_4e/1x1
I0403 14:54:33.617329 11386 net.cpp:425] inception_4e/output <- inception_4e/3x3
I0403 14:54:33.617344 11386 net.cpp:425] inception_4e/output <- inception_4e/5x5
I0403 14:54:33.617360 11386 net.cpp:425] inception_4e/output <- inception_4e/pool_proj
I0403 14:54:33.617377 11386 net.cpp:399] inception_4e/output -> inception_4e/output
I0403 14:54:33.617431 11386 net.cpp:141] Setting up inception_4e/output
I0403 14:54:33.617455 11386 net.cpp:148] Top shape: 24 832 14 14 (3913728)
I0403 14:54:33.617470 11386 net.cpp:156] Memory required for data: 1272557088
I0403 14:54:33.617483 11386 layer_factory.hpp:77] Creating layer pool4/3x3_s2
I0403 14:54:33.617499 11386 net.cpp:91] Creating Layer pool4/3x3_s2
I0403 14:54:33.617514 11386 net.cpp:425] pool4/3x3_s2 <- inception_4e/output
I0403 14:54:33.617534 11386 net.cpp:399] pool4/3x3_s2 -> pool4/3x3_s2
I0403 14:54:33.617601 11386 net.cpp:141] Setting up pool4/3x3_s2
I0403 14:54:33.617624 11386 net.cpp:148] Top shape: 24 832 7 7 (978432)
I0403 14:54:33.617638 11386 net.cpp:156] Memory required for data: 1276470816
I0403 14:54:33.617651 11386 layer_factory.hpp:77] Creating layer pool4/3x3_s2_pool4/3x3_s2_0_split
I0403 14:54:33.617671 11386 net.cpp:91] Creating Layer pool4/3x3_s2_pool4/3x3_s2_0_split
I0403 14:54:33.617688 11386 net.cpp:425] pool4/3x3_s2_pool4/3x3_s2_0_split <- pool4/3x3_s2
I0403 14:54:33.617707 11386 net.cpp:399] pool4/3x3_s2_pool4/3x3_s2_0_split -> pool4/3x3_s2_pool4/3x3_s2_0_split_0
I0403 14:54:33.617728 11386 net.cpp:399] pool4/3x3_s2_pool4/3x3_s2_0_split -> pool4/3x3_s2_pool4/3x3_s2_0_split_1
I0403 14:54:33.617748 11386 net.cpp:399] pool4/3x3_s2_pool4/3x3_s2_0_split -> pool4/3x3_s2_pool4/3x3_s2_0_split_2
I0403 14:54:33.617769 11386 net.cpp:399] pool4/3x3_s2_pool4/3x3_s2_0_split -> pool4/3x3_s2_pool4/3x3_s2_0_split_3
I0403 14:54:33.617858 11386 net.cpp:141] Setting up pool4/3x3_s2_pool4/3x3_s2_0_split
I0403 14:54:33.617882 11386 net.cpp:148] Top shape: 24 832 7 7 (978432)
I0403 14:54:33.617897 11386 net.cpp:148] Top shape: 24 832 7 7 (978432)
I0403 14:54:33.617911 11386 net.cpp:148] Top shape: 24 832 7 7 (978432)
I0403 14:54:33.617926 11386 net.cpp:148] Top shape: 24 832 7 7 (978432)
I0403 14:54:33.617939 11386 net.cpp:156] Memory required for data: 1292125728
I0403 14:54:33.617954 11386 layer_factory.hpp:77] Creating layer inception_5a/1x1
I0403 14:54:33.617974 11386 net.cpp:91] Creating Layer inception_5a/1x1
I0403 14:54:33.617991 11386 net.cpp:425] inception_5a/1x1 <- pool4/3x3_s2_pool4/3x3_s2_0_split_0
I0403 14:54:33.618012 11386 net.cpp:399] inception_5a/1x1 -> inception_5a/1x1
I0403 14:54:33.620913 11386 net.cpp:141] Setting up inception_5a/1x1
I0403 14:54:33.620944 11386 net.cpp:148] Top shape: 24 256 7 7 (301056)
I0403 14:54:33.620959 11386 net.cpp:156] Memory required for data: 1293329952
I0403 14:54:33.620977 11386 layer_factory.hpp:77] Creating layer inception_5a/relu_1x1
I0403 14:54:33.620995 11386 net.cpp:91] Creating Layer inception_5a/relu_1x1
I0403 14:54:33.621011 11386 net.cpp:425] inception_5a/relu_1x1 <- inception_5a/1x1
I0403 14:54:33.621026 11386 net.cpp:386] inception_5a/relu_1x1 -> inception_5a/1x1 (in-place)
I0403 14:54:33.621340 11386 net.cpp:141] Setting up inception_5a/relu_1x1
I0403 14:54:33.621369 11386 net.cpp:148] Top shape: 24 256 7 7 (301056)
I0403 14:54:33.621384 11386 net.cpp:156] Memory required for data: 1294534176
I0403 14:54:33.621399 11386 layer_factory.hpp:77] Creating layer inception_5a/3x3_reduce
I0403 14:54:33.621425 11386 net.cpp:91] Creating Layer inception_5a/3x3_reduce
I0403 14:54:33.621444 11386 net.cpp:425] inception_5a/3x3_reduce <- pool4/3x3_s2_pool4/3x3_s2_0_split_1
I0403 14:54:33.621464 11386 net.cpp:399] inception_5a/3x3_reduce -> inception_5a/3x3_reduce
I0403 14:54:33.623929 11386 net.cpp:141] Setting up inception_5a/3x3_reduce
I0403 14:54:33.623958 11386 net.cpp:148] Top shape: 24 160 7 7 (188160)
I0403 14:54:33.623973 11386 net.cpp:156] Memory required for data: 1295286816
I0403 14:54:33.623991 11386 layer_factory.hpp:77] Creating layer inception_5a/relu_3x3_reduce
I0403 14:54:33.624011 11386 net.cpp:91] Creating Layer inception_5a/relu_3x3_reduce
I0403 14:54:33.624028 11386 net.cpp:425] inception_5a/relu_3x3_reduce <- inception_5a/3x3_reduce
I0403 14:54:33.624045 11386 net.cpp:386] inception_5a/relu_3x3_reduce -> inception_5a/3x3_reduce (in-place)
I0403 14:54:33.624234 11386 net.cpp:141] Setting up inception_5a/relu_3x3_reduce
I0403 14:54:33.624261 11386 net.cpp:148] Top shape: 24 160 7 7 (188160)
I0403 14:54:33.624276 11386 net.cpp:156] Memory required for data: 1296039456
I0403 14:54:33.624290 11386 layer_factory.hpp:77] Creating layer inception_5a/3x3
I0403 14:54:33.624310 11386 net.cpp:91] Creating Layer inception_5a/3x3
I0403 14:54:33.624326 11386 net.cpp:425] inception_5a/3x3 <- inception_5a/3x3_reduce
I0403 14:54:33.624349 11386 net.cpp:399] inception_5a/3x3 -> inception_5a/3x3
I0403 14:54:33.629406 11386 net.cpp:141] Setting up inception_5a/3x3
I0403 14:54:33.629441 11386 net.cpp:148] Top shape: 24 320 7 7 (376320)
I0403 14:54:33.629456 11386 net.cpp:156] Memory required for data: 1297544736
I0403 14:54:33.629474 11386 layer_factory.hpp:77] Creating layer inception_5a/relu_3x3
I0403 14:54:33.629495 11386 net.cpp:91] Creating Layer inception_5a/relu_3x3
I0403 14:54:33.629513 11386 net.cpp:425] inception_5a/relu_3x3 <- inception_5a/3x3
I0403 14:54:33.629529 11386 net.cpp:386] inception_5a/relu_3x3 -> inception_5a/3x3 (in-place)
I0403 14:54:33.629850 11386 net.cpp:141] Setting up inception_5a/relu_3x3
I0403 14:54:33.629876 11386 net.cpp:148] Top shape: 24 320 7 7 (376320)
I0403 14:54:33.629890 11386 net.cpp:156] Memory required for data: 1299050016
I0403 14:54:33.629904 11386 layer_factory.hpp:77] Creating layer inception_5a/5x5_reduce
I0403 14:54:33.629930 11386 net.cpp:91] Creating Layer inception_5a/5x5_reduce
I0403 14:54:33.629947 11386 net.cpp:425] inception_5a/5x5_reduce <- pool4/3x3_s2_pool4/3x3_s2_0_split_2
I0403 14:54:33.629966 11386 net.cpp:399] inception_5a/5x5_reduce -> inception_5a/5x5_reduce
I0403 14:54:33.631148 11386 net.cpp:141] Setting up inception_5a/5x5_reduce
I0403 14:54:33.631180 11386 net.cpp:148] Top shape: 24 32 7 7 (37632)
I0403 14:54:33.631196 11386 net.cpp:156] Memory required for data: 1299200544
I0403 14:54:33.631213 11386 layer_factory.hpp:77] Creating layer inception_5a/relu_5x5_reduce
I0403 14:54:33.631232 11386 net.cpp:91] Creating Layer inception_5a/relu_5x5_reduce
I0403 14:54:33.631247 11386 net.cpp:425] inception_5a/relu_5x5_reduce <- inception_5a/5x5_reduce
I0403 14:54:33.631263 11386 net.cpp:386] inception_5a/relu_5x5_reduce -> inception_5a/5x5_reduce (in-place)
I0403 14:54:33.631575 11386 net.cpp:141] Setting up inception_5a/relu_5x5_reduce
I0403 14:54:33.631603 11386 net.cpp:148] Top shape: 24 32 7 7 (37632)
I0403 14:54:33.631619 11386 net.cpp:156] Memory required for data: 1299351072
I0403 14:54:33.631634 11386 layer_factory.hpp:77] Creating layer inception_5a/5x5
I0403 14:54:33.631655 11386 net.cpp:91] Creating Layer inception_5a/5x5
I0403 14:54:33.631672 11386 net.cpp:425] inception_5a/5x5 <- inception_5a/5x5_reduce
I0403 14:54:33.631693 11386 net.cpp:399] inception_5a/5x5 -> inception_5a/5x5
I0403 14:54:33.633447 11386 net.cpp:141] Setting up inception_5a/5x5
I0403 14:54:33.633486 11386 net.cpp:148] Top shape: 24 128 7 7 (150528)
I0403 14:54:33.633502 11386 net.cpp:156] Memory required for data: 1299953184
I0403 14:54:33.633519 11386 layer_factory.hpp:77] Creating layer inception_5a/relu_5x5
I0403 14:54:33.633539 11386 net.cpp:91] Creating Layer inception_5a/relu_5x5
I0403 14:54:33.633555 11386 net.cpp:425] inception_5a/relu_5x5 <- inception_5a/5x5
I0403 14:54:33.633574 11386 net.cpp:386] inception_5a/relu_5x5 -> inception_5a/5x5 (in-place)
I0403 14:54:33.633780 11386 net.cpp:141] Setting up inception_5a/relu_5x5
I0403 14:54:33.633803 11386 net.cpp:148] Top shape: 24 128 7 7 (150528)
I0403 14:54:33.633817 11386 net.cpp:156] Memory required for data: 1300555296
I0403 14:54:33.633831 11386 layer_factory.hpp:77] Creating layer inception_5a/pool
I0403 14:54:33.633847 11386 net.cpp:91] Creating Layer inception_5a/pool
I0403 14:54:33.633863 11386 net.cpp:425] inception_5a/pool <- pool4/3x3_s2_pool4/3x3_s2_0_split_3
I0403 14:54:33.633883 11386 net.cpp:399] inception_5a/pool -> inception_5a/pool
I0403 14:54:33.633950 11386 net.cpp:141] Setting up inception_5a/pool
I0403 14:54:33.633973 11386 net.cpp:148] Top shape: 24 832 7 7 (978432)
I0403 14:54:33.633987 11386 net.cpp:156] Memory required for data: 1304469024
I0403 14:54:33.634001 11386 layer_factory.hpp:77] Creating layer inception_5a/pool_proj
I0403 14:54:33.634023 11386 net.cpp:91] Creating Layer inception_5a/pool_proj
I0403 14:54:33.634040 11386 net.cpp:425] inception_5a/pool_proj <- inception_5a/pool
I0403 14:54:33.634058 11386 net.cpp:399] inception_5a/pool_proj -> inception_5a/pool_proj
I0403 14:54:33.636281 11386 net.cpp:141] Setting up inception_5a/pool_proj
I0403 14:54:33.636307 11386 net.cpp:148] Top shape: 24 128 7 7 (150528)
I0403 14:54:33.636323 11386 net.cpp:156] Memory required for data: 1305071136
I0403 14:54:33.636340 11386 layer_factory.hpp:77] Creating layer inception_5a/relu_pool_proj
I0403 14:54:33.636360 11386 net.cpp:91] Creating Layer inception_5a/relu_pool_proj
I0403 14:54:33.636376 11386 net.cpp:425] inception_5a/relu_pool_proj <- inception_5a/pool_proj
I0403 14:54:33.636392 11386 net.cpp:386] inception_5a/relu_pool_proj -> inception_5a/pool_proj (in-place)
I0403 14:54:33.636685 11386 net.cpp:141] Setting up inception_5a/relu_pool_proj
I0403 14:54:33.636711 11386 net.cpp:148] Top shape: 24 128 7 7 (150528)
I0403 14:54:33.636725 11386 net.cpp:156] Memory required for data: 1305673248
I0403 14:54:33.636739 11386 layer_factory.hpp:77] Creating layer inception_5a/output
I0403 14:54:33.636757 11386 net.cpp:91] Creating Layer inception_5a/output
I0403 14:54:33.636773 11386 net.cpp:425] inception_5a/output <- inception_5a/1x1
I0403 14:54:33.636788 11386 net.cpp:425] inception_5a/output <- inception_5a/3x3
I0403 14:54:33.636804 11386 net.cpp:425] inception_5a/output <- inception_5a/5x5
I0403 14:54:33.636819 11386 net.cpp:425] inception_5a/output <- inception_5a/pool_proj
I0403 14:54:33.636836 11386 net.cpp:399] inception_5a/output -> inception_5a/output
I0403 14:54:33.636885 11386 net.cpp:141] Setting up inception_5a/output
I0403 14:54:33.636909 11386 net.cpp:148] Top shape: 24 832 7 7 (978432)
I0403 14:54:33.636922 11386 net.cpp:156] Memory required for data: 1309586976
I0403 14:54:33.636935 11386 layer_factory.hpp:77] Creating layer inception_5a/output_inception_5a/output_0_split
I0403 14:54:33.636951 11386 net.cpp:91] Creating Layer inception_5a/output_inception_5a/output_0_split
I0403 14:54:33.636966 11386 net.cpp:425] inception_5a/output_inception_5a/output_0_split <- inception_5a/output
I0403 14:54:33.636986 11386 net.cpp:399] inception_5a/output_inception_5a/output_0_split -> inception_5a/output_inception_5a/output_0_split_0
I0403 14:54:33.637006 11386 net.cpp:399] inception_5a/output_inception_5a/output_0_split -> inception_5a/output_inception_5a/output_0_split_1
I0403 14:54:33.637024 11386 net.cpp:399] inception_5a/output_inception_5a/output_0_split -> inception_5a/output_inception_5a/output_0_split_2
I0403 14:54:33.637043 11386 net.cpp:399] inception_5a/output_inception_5a/output_0_split -> inception_5a/output_inception_5a/output_0_split_3
I0403 14:54:33.637152 11386 net.cpp:141] Setting up inception_5a/output_inception_5a/output_0_split
I0403 14:54:33.637178 11386 net.cpp:148] Top shape: 24 832 7 7 (978432)
I0403 14:54:33.637194 11386 net.cpp:148] Top shape: 24 832 7 7 (978432)
I0403 14:54:33.637209 11386 net.cpp:148] Top shape: 24 832 7 7 (978432)
I0403 14:54:33.637223 11386 net.cpp:148] Top shape: 24 832 7 7 (978432)
I0403 14:54:33.637236 11386 net.cpp:156] Memory required for data: 1325241888
I0403 14:54:33.637250 11386 layer_factory.hpp:77] Creating layer inception_5b/1x1
I0403 14:54:33.637271 11386 net.cpp:91] Creating Layer inception_5b/1x1
I0403 14:54:33.637289 11386 net.cpp:425] inception_5b/1x1 <- inception_5a/output_inception_5a/output_0_split_0
I0403 14:54:33.637306 11386 net.cpp:399] inception_5b/1x1 -> inception_5b/1x1
I0403 14:54:33.641139 11386 net.cpp:141] Setting up inception_5b/1x1
I0403 14:54:33.641167 11386 net.cpp:148] Top shape: 24 384 7 7 (451584)
I0403 14:54:33.641183 11386 net.cpp:156] Memory required for data: 1327048224
I0403 14:54:33.641201 11386 layer_factory.hpp:77] Creating layer inception_5b/relu_1x1
I0403 14:54:33.641222 11386 net.cpp:91] Creating Layer inception_5b/relu_1x1
I0403 14:54:33.641237 11386 net.cpp:425] inception_5b/relu_1x1 <- inception_5b/1x1
I0403 14:54:33.641255 11386 net.cpp:386] inception_5b/relu_1x1 -> inception_5b/1x1 (in-place)
I0403 14:54:33.641566 11386 net.cpp:141] Setting up inception_5b/relu_1x1
I0403 14:54:33.641592 11386 net.cpp:148] Top shape: 24 384 7 7 (451584)
I0403 14:54:33.641607 11386 net.cpp:156] Memory required for data: 1328854560
I0403 14:54:33.641620 11386 layer_factory.hpp:77] Creating layer inception_5b/3x3_reduce
I0403 14:54:33.641643 11386 net.cpp:91] Creating Layer inception_5b/3x3_reduce
I0403 14:54:33.641659 11386 net.cpp:425] inception_5b/3x3_reduce <- inception_5a/output_inception_5a/output_0_split_1
I0403 14:54:33.641681 11386 net.cpp:399] inception_5b/3x3_reduce -> inception_5b/3x3_reduce
I0403 14:54:33.644351 11386 net.cpp:141] Setting up inception_5b/3x3_reduce
I0403 14:54:33.644381 11386 net.cpp:148] Top shape: 24 192 7 7 (225792)
I0403 14:54:33.644397 11386 net.cpp:156] Memory required for data: 1329757728
I0403 14:54:33.644418 11386 layer_factory.hpp:77] Creating layer inception_5b/relu_3x3_reduce
I0403 14:54:33.644439 11386 net.cpp:91] Creating Layer inception_5b/relu_3x3_reduce
I0403 14:54:33.644455 11386 net.cpp:425] inception_5b/relu_3x3_reduce <- inception_5b/3x3_reduce
I0403 14:54:33.644472 11386 net.cpp:386] inception_5b/relu_3x3_reduce -> inception_5b/3x3_reduce (in-place)
I0403 14:54:33.644666 11386 net.cpp:141] Setting up inception_5b/relu_3x3_reduce
I0403 14:54:33.644693 11386 net.cpp:148] Top shape: 24 192 7 7 (225792)
I0403 14:54:33.644708 11386 net.cpp:156] Memory required for data: 1330660896
I0403 14:54:33.644722 11386 layer_factory.hpp:77] Creating layer inception_5b/3x3
I0403 14:54:33.644744 11386 net.cpp:91] Creating Layer inception_5b/3x3
I0403 14:54:33.644762 11386 net.cpp:425] inception_5b/3x3 <- inception_5b/3x3_reduce
I0403 14:54:33.644779 11386 net.cpp:399] inception_5b/3x3 -> inception_5b/3x3
I0403 14:54:33.651615 11386 net.cpp:141] Setting up inception_5b/3x3
I0403 14:54:33.651644 11386 net.cpp:148] Top shape: 24 384 7 7 (451584)
I0403 14:54:33.651660 11386 net.cpp:156] Memory required for data: 1332467232
I0403 14:54:33.651677 11386 layer_factory.hpp:77] Creating layer inception_5b/relu_3x3
I0403 14:54:33.651697 11386 net.cpp:91] Creating Layer inception_5b/relu_3x3
I0403 14:54:33.651715 11386 net.cpp:425] inception_5b/relu_3x3 <- inception_5b/3x3
I0403 14:54:33.651731 11386 net.cpp:386] inception_5b/relu_3x3 -> inception_5b/3x3 (in-place)
I0403 14:54:33.652032 11386 net.cpp:141] Setting up inception_5b/relu_3x3
I0403 14:54:33.652058 11386 net.cpp:148] Top shape: 24 384 7 7 (451584)
I0403 14:54:33.652072 11386 net.cpp:156] Memory required for data: 1334273568
I0403 14:54:33.652087 11386 layer_factory.hpp:77] Creating layer inception_5b/5x5_reduce
I0403 14:54:33.652127 11386 net.cpp:91] Creating Layer inception_5b/5x5_reduce
I0403 14:54:33.652144 11386 net.cpp:425] inception_5b/5x5_reduce <- inception_5a/output_inception_5a/output_0_split_2
I0403 14:54:33.652166 11386 net.cpp:399] inception_5b/5x5_reduce -> inception_5b/5x5_reduce
I0403 14:54:33.653502 11386 net.cpp:141] Setting up inception_5b/5x5_reduce
I0403 14:54:33.653530 11386 net.cpp:148] Top shape: 24 48 7 7 (56448)
I0403 14:54:33.653545 11386 net.cpp:156] Memory required for data: 1334499360
I0403 14:54:33.653563 11386 layer_factory.hpp:77] Creating layer inception_5b/relu_5x5_reduce
I0403 14:54:33.653583 11386 net.cpp:91] Creating Layer inception_5b/relu_5x5_reduce
I0403 14:54:33.653599 11386 net.cpp:425] inception_5b/relu_5x5_reduce <- inception_5b/5x5_reduce
I0403 14:54:33.653616 11386 net.cpp:386] inception_5b/relu_5x5_reduce -> inception_5b/5x5_reduce (in-place)
I0403 14:54:33.653993 11386 net.cpp:141] Setting up inception_5b/relu_5x5_reduce
I0403 14:54:33.654021 11386 net.cpp:148] Top shape: 24 48 7 7 (56448)
I0403 14:54:33.654034 11386 net.cpp:156] Memory required for data: 1334725152
I0403 14:54:33.654049 11386 layer_factory.hpp:77] Creating layer inception_5b/5x5
I0403 14:54:33.654068 11386 net.cpp:91] Creating Layer inception_5b/5x5
I0403 14:54:33.654085 11386 net.cpp:425] inception_5b/5x5 <- inception_5b/5x5_reduce
I0403 14:54:33.654104 11386 net.cpp:399] inception_5b/5x5 -> inception_5b/5x5
I0403 14:54:33.656188 11386 net.cpp:141] Setting up inception_5b/5x5
I0403 14:54:33.656219 11386 net.cpp:148] Top shape: 24 128 7 7 (150528)
I0403 14:54:33.656234 11386 net.cpp:156] Memory required for data: 1335327264
I0403 14:54:33.656252 11386 layer_factory.hpp:77] Creating layer inception_5b/relu_5x5
I0403 14:54:33.656270 11386 net.cpp:91] Creating Layer inception_5b/relu_5x5
I0403 14:54:33.656286 11386 net.cpp:425] inception_5b/relu_5x5 <- inception_5b/5x5
I0403 14:54:33.656302 11386 net.cpp:386] inception_5b/relu_5x5 -> inception_5b/5x5 (in-place)
I0403 14:54:33.656505 11386 net.cpp:141] Setting up inception_5b/relu_5x5
I0403 14:54:33.656533 11386 net.cpp:148] Top shape: 24 128 7 7 (150528)
I0403 14:54:33.656548 11386 net.cpp:156] Memory required for data: 1335929376
I0403 14:54:33.656563 11386 layer_factory.hpp:77] Creating layer inception_5b/pool
I0403 14:54:33.656580 11386 net.cpp:91] Creating Layer inception_5b/pool
I0403 14:54:33.656596 11386 net.cpp:425] inception_5b/pool <- inception_5a/output_inception_5a/output_0_split_3
I0403 14:54:33.656616 11386 net.cpp:399] inception_5b/pool -> inception_5b/pool
I0403 14:54:33.656689 11386 net.cpp:141] Setting up inception_5b/pool
I0403 14:54:33.656715 11386 net.cpp:148] Top shape: 24 832 7 7 (978432)
I0403 14:54:33.656730 11386 net.cpp:156] Memory required for data: 1339843104
I0403 14:54:33.656744 11386 layer_factory.hpp:77] Creating layer inception_5b/pool_proj
I0403 14:54:33.656765 11386 net.cpp:91] Creating Layer inception_5b/pool_proj
I0403 14:54:33.656783 11386 net.cpp:425] inception_5b/pool_proj <- inception_5b/pool
I0403 14:54:33.656802 11386 net.cpp:399] inception_5b/pool_proj -> inception_5b/pool_proj
I0403 14:54:33.659132 11386 net.cpp:141] Setting up inception_5b/pool_proj
I0403 14:54:33.659160 11386 net.cpp:148] Top shape: 24 128 7 7 (150528)
I0403 14:54:33.659175 11386 net.cpp:156] Memory required for data: 1340445216
I0403 14:54:33.659193 11386 layer_factory.hpp:77] Creating layer inception_5b/relu_pool_proj
I0403 14:54:33.659214 11386 net.cpp:91] Creating Layer inception_5b/relu_pool_proj
I0403 14:54:33.659229 11386 net.cpp:425] inception_5b/relu_pool_proj <- inception_5b/pool_proj
I0403 14:54:33.659246 11386 net.cpp:386] inception_5b/relu_pool_proj -> inception_5b/pool_proj (in-place)
I0403 14:54:33.659554 11386 net.cpp:141] Setting up inception_5b/relu_pool_proj
I0403 14:54:33.659581 11386 net.cpp:148] Top shape: 24 128 7 7 (150528)
I0403 14:54:33.659595 11386 net.cpp:156] Memory required for data: 1341047328
I0403 14:54:33.659610 11386 layer_factory.hpp:77] Creating layer inception_5b/output
I0403 14:54:33.659629 11386 net.cpp:91] Creating Layer inception_5b/output
I0403 14:54:33.659659 11386 net.cpp:425] inception_5b/output <- inception_5b/1x1
I0403 14:54:33.659677 11386 net.cpp:425] inception_5b/output <- inception_5b/3x3
I0403 14:54:33.659693 11386 net.cpp:425] inception_5b/output <- inception_5b/5x5
I0403 14:54:33.659710 11386 net.cpp:425] inception_5b/output <- inception_5b/pool_proj
I0403 14:54:33.659728 11386 net.cpp:399] inception_5b/output -> inception_5b/output
I0403 14:54:33.659781 11386 net.cpp:141] Setting up inception_5b/output
I0403 14:54:33.659804 11386 net.cpp:148] Top shape: 24 1024 7 7 (1204224)
I0403 14:54:33.659818 11386 net.cpp:156] Memory required for data: 1345864224
I0403 14:54:33.659832 11386 layer_factory.hpp:77] Creating layer pool5/7x7_s1
I0403 14:54:33.659849 11386 net.cpp:91] Creating Layer pool5/7x7_s1
I0403 14:54:33.659864 11386 net.cpp:425] pool5/7x7_s1 <- inception_5b/output
I0403 14:54:33.659885 11386 net.cpp:399] pool5/7x7_s1 -> pool5/7x7_s1
I0403 14:54:33.660106 11386 net.cpp:141] Setting up pool5/7x7_s1
I0403 14:54:33.660131 11386 net.cpp:148] Top shape: 24 1024 1 1 (24576)
I0403 14:54:33.660145 11386 net.cpp:156] Memory required for data: 1345962528
I0403 14:54:33.660159 11386 layer_factory.hpp:77] Creating layer pool5/drop_7x7_s1
I0403 14:54:33.660179 11386 net.cpp:91] Creating Layer pool5/drop_7x7_s1
I0403 14:54:33.660195 11386 net.cpp:425] pool5/drop_7x7_s1 <- pool5/7x7_s1
I0403 14:54:33.660212 11386 net.cpp:386] pool5/drop_7x7_s1 -> pool5/7x7_s1 (in-place)
I0403 14:54:33.660264 11386 net.cpp:141] Setting up pool5/drop_7x7_s1
I0403 14:54:33.660287 11386 net.cpp:148] Top shape: 24 1024 1 1 (24576)
I0403 14:54:33.660301 11386 net.cpp:156] Memory required for data: 1346060832
I0403 14:54:33.660315 11386 layer_factory.hpp:77] Creating layer loss3/classifier_plantvillage
I0403 14:54:33.660336 11386 net.cpp:91] Creating Layer loss3/classifier_plantvillage
I0403 14:54:33.660354 11386 net.cpp:425] loss3/classifier_plantvillage <- pool5/7x7_s1
I0403 14:54:33.660373 11386 net.cpp:399] loss3/classifier_plantvillage -> loss3/classifier_plantvillage
I0403 14:54:33.660806 11386 net.cpp:141] Setting up loss3/classifier_plantvillage
I0403 14:54:33.660831 11386 net.cpp:148] Top shape: 24 38 (912)
I0403 14:54:33.660845 11386 net.cpp:156] Memory required for data: 1346064480
I0403 14:54:33.660863 11386 layer_factory.hpp:77] Creating layer loss3/classifier_plantvillage_loss3/classifier_plantvillage_0_split
I0403 14:54:33.660881 11386 net.cpp:91] Creating Layer loss3/classifier_plantvillage_loss3/classifier_plantvillage_0_split
I0403 14:54:33.660895 11386 net.cpp:425] loss3/classifier_plantvillage_loss3/classifier_plantvillage_0_split <- loss3/classifier_plantvillage
I0403 14:54:33.660917 11386 net.cpp:399] loss3/classifier_plantvillage_loss3/classifier_plantvillage_0_split -> loss3/classifier_plantvillage_loss3/classifier_plantvillage_0_split_0
I0403 14:54:33.660938 11386 net.cpp:399] loss3/classifier_plantvillage_loss3/classifier_plantvillage_0_split -> loss3/classifier_plantvillage_loss3/classifier_plantvillage_0_split_1
I0403 14:54:33.660956 11386 net.cpp:399] loss3/classifier_plantvillage_loss3/classifier_plantvillage_0_split -> loss3/classifier_plantvillage_loss3/classifier_plantvillage_0_split_2
I0403 14:54:33.660976 11386 net.cpp:399] loss3/classifier_plantvillage_loss3/classifier_plantvillage_0_split -> loss3/classifier_plantvillage_loss3/classifier_plantvillage_0_split_3
I0403 14:54:33.661077 11386 net.cpp:141] Setting up loss3/classifier_plantvillage_loss3/classifier_plantvillage_0_split
I0403 14:54:33.661099 11386 net.cpp:148] Top shape: 24 38 (912)
I0403 14:54:33.661115 11386 net.cpp:148] Top shape: 24 38 (912)
I0403 14:54:33.661130 11386 net.cpp:148] Top shape: 24 38 (912)
I0403 14:54:33.661144 11386 net.cpp:148] Top shape: 24 38 (912)
I0403 14:54:33.661159 11386 net.cpp:156] Memory required for data: 1346079072
I0403 14:54:33.661172 11386 layer_factory.hpp:77] Creating layer loss1/loss
I0403 14:54:33.661192 11386 net.cpp:91] Creating Layer loss1/loss
I0403 14:54:33.661208 11386 net.cpp:425] loss1/loss <- loss1/classifier_plantvillage_loss1/classifier_plantvillage_0_split_0
I0403 14:54:33.661239 11386 net.cpp:425] loss1/loss <- label_data_1_split_0
…
