…
I0403 15:25:39.403553 11947 net.cpp:313] The NetState phase (1) differed from the phase (0) specified by a rule in layer data
I0403 15:25:39.404673 11947 net.cpp:49] Initializing net from parameters: 
state {
  phase: TEST
}
layer {
  name: "data"
  type: "Data"
  top: "data"
  top: "label"
  include {
    phase: TEST
  }
  transform_param {
    mirror: false
    crop_size: 224
    mean_file: "/home/mohanty/data/final_dataset/lmdb/segmented-50-50/mean.binaryproto"
  }
  data_param {
    source: "/home/mohanty/data/final_dataset/lmdb/segmented-50-50/test_db"
    batch_size: 24
    backend: LMDB
  }
}
layer {
  name: "conv1/7x7_s2"
  type: "Convolution"
  bottom: "data"
  top: "conv1/7x7_s2"
  param {
    lr_mult: 1
    decay_mult: 1
  }
  param {
    lr_mult: 2
    decay_mult: 0
  }
  convolution_param {
    num_output: 64
    pad: 3
    kernel_size: 7
    stride: 2
    weight_filler {
      type: "xavier"
      std: 0.1
    }
    bias_filler {
      type: "constant"
      value: 0.2
    }
  }
}
layer {
  name: "conv1/relu_7x7"
  type: "ReLU"
  bottom: "conv1/7x7_s2"
  top: "conv1/7x7_s2"
}
layer {
  name: "pool1/3x3_s2"
  type: "Pooling"
  bottom: "conv1/7x7_s2"
  top: "pool1/3x3_s2"
  pooling_param {
    pool: MAX
    kernel_size: 3
    stride: 2
  }
}
layer {
  name: "pool1/norm1"
  type: "LRN"
  bottom: "pool1/3x3_s2"
  top: "pool1/norm1"
  lrn_param {
    local_size: 5
    alpha: 0.0001
    beta: 0.75
  }
}
layer {
  name: "conv2/3x3_reduce"
  type: "Convolution"
  bottom: "pool1/norm1"
  top: "conv2/3x3_reduce"
  param {
    lr_mult: 1
    decay_mult: 1
  }
  param {
    lr_mult: 2
    decay_mult: 0
  }
  convolution_param {
    num_output: 64
    kernel_size: 1
    weight_filler {
      type: "xavier"
      std: 0.1
    }
    bias_filler {
      type: "constant"
      value: 0.2
    }
  }
}
layer {
  name: "conv2/relu_3x3_reduce"
  type: "ReLU"
  bottom: "conv2/3x3_reduce"
  top: "conv2/3x3_reduce"
}
layer {
  name: "conv2/3x3"
  type: "Convolution"
  bottom: "conv2/3x3_reduce"
  top: "conv2/3x3"
  param {
    lr_mult: 1
    decay_mult: 1
  }
  param {
    lr_mult: 2
    decay_mult: 0
  }
  convolution_param {
    num_output: 192
    pad: 1
    kernel_size: 3
    weight_filler {
      type: "xavier"
      std: 0.03
    }
    bias_filler {
      type: "constant"
      value: 0.2
    }
  }
}
layer {
  name: "conv2/relu_3x3"
  type: "ReLU"
  bottom: "conv2/3x3"
  top: "conv2/3x3"
}
layer {
  name: "conv2/norm2"
  type: "LRN"
  bottom: "conv2/3x3"
  top: "conv2/norm2"
  lrn_param {
    local_size: 5
    alpha: 0.0001
    beta: 0.75
  }
}
layer {
  name: "pool2/3x3_s2"
  type: "Pooling"
  bottom: "conv2/norm2"
  top: "pool2/3x3_s2"
  pooling_param {
    pool: MAX
    kernel_size: 3
    stride: 2
  }
}
layer {
  name: "inception_3a/1x1"
  type: "Convolution"
  bottom: "pool2/3x3_s2"
  top: "inception_3a/1x1"
  param {
    lr_mult: 1
    decay_mult: 1
  }
  param {
    lr_mult: 2
    decay_mult: 0
  }
  convolution_param {
    num_output: 64
    kernel_size: 1
    weight_filler {
      type: "xavier"
      std: 0.03
    }
    bias_filler {
      type: "constant"
      value: 0.2
    }
  }
}
layer {
  name: "inception_3a/relu_1x1"
  type: "ReLU"
  bottom: "inception_3a/1x1"
  top: "inception_3a/1x1"
}
layer {
  name: "inception_3a/3x3_reduce"
  type: "Convolution"
  bottom: "pool2/3x3_s2"
  top: "inception_3a/3x3_reduce"
  param {
    lr_mult: 1
    decay_mult: 1
  }
  param {
    lr_mult: 2
    decay_mult: 0
  }
  convolution_param {
    num_output: 96
    kernel_size: 1
    weight_filler {
      type: "xavier"
      std: 0.09
    }
    bias_filler {
      type: "constant"
      value: 0.2
    }
  }
}
layer {
  name: "inception_3a/relu_3x3_reduce"
  type: "ReLU"
  bottom: "inception_3a/3x3_reduce"
  top: "inception_3a/3x3_reduce"
}
layer {
  name: "inception_3a/3x3"
  type: "Convolution"
  bottom: "inception_3a/3x3_reduce"
  top: "inception_3a/3x3"
  param {
    lr_mult: 1
    decay_mult: 1
  }
  param {
    lr_mult: 2
    decay_mult: 0
  }
  convolution_param {
    num_output: 128
    pad: 1
    kernel_size: 3
    weight_filler {
      type: "xavier"
      std: 0.03
    }
    bias_filler {
      type: "constant"
      value: 0.2
    }
  }
}
layer {
  name: "inception_3a/relu_3x3"
  type: "ReLU"
  bottom: "inception_3a/3x3"
  top: "inception_3a/3x3"
}
layer {
  name: "inception_3a/5x5_reduce"
  type: "Convolution"
  bottom: "pool2/3x3_s2"
  top: "inception_3a/5x5_reduce"
  param {
    lr_mult: 1
    decay_mult: 1
  }
  param {
    lr_mult: 2
    decay_mult: 0
  }
  convolution_param {
    num_output: 16
    kernel_size: 1
    weight_filler {
      type: "xavier"
      std: 0.2
    }
    bias_filler {
      type: "constant"
      value: 0.2
    }
  }
}
layer {
  name: "inception_3a/relu_5x5_reduce"
  type: "ReLU"
  bottom: "inception_3a/5x5_reduce"
  top: "inception_3a/5x5_reduce"
}
layer {
  name: "inception_3a/5x5"
  type: "Convolution"
  bottom: "inception_3a/5x5_reduce"
  top: "inception_3a/5x5"
  param {
    lr_mult: 1
    decay_mult: 1
  }
  param {
    lr_mult: 2
    decay_mult: 0
  }
  convolution_param {
    num_output: 32
    pad: 2
    kernel_size: 5
    weight_filler {
      type: "xavier"
      std: 0.03
    }
    bias_filler {
      type: "constant"
      value: 0.2
    }
  }
}
layer {
  name: "inception_3a/relu_5x5"
  type: "ReLU"
  bottom: "inception_3a/5x5"
  top: "inception_3a/5x5"
}
layer {
  name: "inception_3a/pool"
  type: "Pooling"
  bottom: "pool2/3x3_s2"
  top: "inception_3a/pool"
  pooling_param {
    pool: MAX
    kernel_size: 3
    stride: 1
    pad: 1
  }
}
layer {
  name: "inception_3a/pool_proj"
  type: "Convolution"
  bottom: "inception_3a/pool"
  top: "inception_3a/pool_proj"
  param {
    lr_mult: 1
    decay_mult: 1
  }
  param {
    lr_mult: 2
    decay_mult: 0
  }
  convolution_param {
    num_output: 32
    kernel_size: 1
    weight_filler {
      type: "xavier"
      std: 0.1
    }
    bias_filler {
      type: "constant"
      value: 0.2
    }
  }
}
layer {
  name: "inception_3a/relu_pool_proj"
  type: "ReLU"
  bottom: "inception_3a/pool_proj"
  top: "inception_3a/pool_proj"
}
layer {
  name: "inception_3a/output"
  type: "Concat"
  bottom: "inception_3a/1x1"
  bottom: "inception_3a/3x3"
  bottom: "inception_3a/5x5"
  bottom: "inception_3a/pool_proj"
  top: "inception_3a/output"
}
layer {
  name: "inception_3b/1x1"
  type: "Convolution"
  bottom: "inception_3a/output"
  top: "inception_3b/1x1"
  param {
    lr_mult: 1
    decay_mult: 1
  }
  param {
    lr_mult: 2
    decay_mult: 0
  }
  convolution_param {
    num_output: 128
    kernel_size: 1
    weight_filler {
      type: "xavier"
      std: 0.03
    }
    bias_filler {
      type: "constant"
      value: 0.2
    }
  }
}
layer {
  name: "inception_3b/relu_1x1"
  type: "ReLU"
  bottom: "inception_3b/1x1"
  top: "inception_3b/1x1"
}
layer {
  name: "inception_3b/3x3_reduce"
  type: "Convolution"
  bottom: "inception_3a/output"
  top: "inception_3b/3x3_reduce"
  param {
    lr_mult: 1
    decay_mult: 1
  }
  param {
    lr_mult: 2
    decay_mult: 0
  }
  convolution_param {
    num_output: 128
    kernel_size: 1
    weight_filler {
      type: "xavier"
      std: 0.09
    }
    bias_filler {
      type: "constant"
      value: 0.2
    }
  }
}
layer {
  name: "inception_3b/relu_3x3_reduce"
  type: "ReLU"
  bottom: "inception_3b/3x3_reduce"
  top: "inception_3b/3x3_reduce"
}
layer {
  name: "inception_3b/3x3"
  type: "Convolution"
  bottom: "inception_3b/3x3_reduce"
  top: "inception_3b/3x3"
  param {
    lr_mult: 1
    decay_mult: 1
  }
  param {
    lr_mult: 2
    decay_mult: 0
  }
  convolution_param {
    num_output: 192
    pad: 1
    kernel_size: 3
    weight_filler {
      type: "xavier"
      std: 0.03
    }
    bias_filler {
      type: "constant"
      value: 0.2
    }
  }
}
layer {
  name: "inception_3b/relu_3x3"
  type: "ReLU"
  bottom: "inception_3b/3x3"
  top: "inception_3b/3x3"
}
layer {
  name: "inception_3b/5x5_reduce"
  type: "Convolution"
  bottom: "inception_3a/output"
  top: "inception_3b/5x5_reduce"
  param {
    lr_mult: 1
    decay_mult: 1
  }
  param {
    lr_mult: 2
    decay_mult: 0
  }
  convolution_param {
    num_output: 32
    kernel_size: 1
    weight_filler {
      type: "xavier"
      std: 0.2
    }
    bias_filler {
      type: "constant"
      value: 0.2
    }
  }
}
layer {
  name: "inception_3b/relu_5x5_reduce"
  type: "ReLU"
  bottom: "inception_3b/5x5_reduce"
  top: "inception_3b/5x5_reduce"
}
layer {
  name: "inception_3b/5x5"
  type: "Convolution"
  bottom: "inception_3b/5x5_reduce"
  top: "inception_3b/5x5"
  param {
    lr_mult: 1
    decay_mult: 1
  }
  param {
    lr_mult: 2
    decay_mult: 0
  }
  convolution_param {
    num_output: 96
    pad: 2
    kernel_size: 5
    weight_filler {
      type: "xavier"
      std: 0.03
    }
    bias_filler {
      type: "constant"
      value: 0.2
    }
  }
}
layer {
  name: "inception_3b/relu_5x5"
  type: "ReLU"
  bottom: "inception_3b/5x5"
  top: "inception_3b/5x5"
}
layer {
  name: "inception_3b/pool"
  type: "Pooling"
  bottom: "inception_3a/output"
  top: "inception_3b/pool"
  pooling_param {
    pool: MAX
    kernel_size: 3
    stride: 1
    pad: 1
  }
}
layer {
  name: "inception_3b/pool_proj"
  type: "Convolution"
  bottom: "inception_3b/pool"
  top: "inception_3b/pool_proj"
  param {
    lr_mult: 1
    decay_mult: 1
  }
  param {
    lr_mult: 2
    decay_mult: 0
  }
  convolution_param {
    num_output: 64
    kernel_size: 1
    weight_filler {
      type: "xavier"
      std: 0.1
    }
    bias_filler {
      type: "constant"
      value: 0.2
    }
  }
}
layer {
  name: "inception_3b/relu_pool_proj"
  type: "ReLU"
  bottom: "inception_3b/pool_proj"
  top: "inception_3b/pool_proj"
}
layer {
  name: "inception_3b/output"
  type: "Concat"
  bottom: "inception_3b/1x1"
  bottom: "inception_3b/3x3"
  bottom: "inception_3b/5x5"
  bottom: "inception_3b/pool_proj"
  top: "inception_3b/output"
}
layer {
  name: "pool3/3x3_s2"
  type: "Pooling"
  bottom: "inception_3b/output"
  top: "pool3/3x3_s2"
  pooling_param {
    pool: MAX
    kernel_size: 3
    stride: 2
  }
}
layer {
  name: "inception_4a/1x1"
  type: "Convolution"
  bottom: "pool3/3x3_s2"
  top: "inception_4a/1x1"
  param {
    lr_mult: 1
    decay_mult: 1
  }
  param {
    lr_mult: 2
    decay_mult: 0
  }
  convolution_param {
    num_output: 192
    kernel_size: 1
    weight_filler {
      type: "xavier"
      std: 0.03
    }
    bias_filler {
      type: "constant"
      value: 0.2
    }
  }
}
layer {
  name: "inception_4a/relu_1x1"
  type: "ReLU"
  bottom: "inception_4a/1x1"
  top: "inception_4a/1x1"
}
layer {
  name: "inception_4a/3x3_reduce"
  type: "Convolution"
  bottom: "pool3/3x3_s2"
  top: "inception_4a/3x3_reduce"
  param {
    lr_mult: 1
    decay_mult: 1
  }
  param {
    lr_mult: 2
    decay_mult: 0
  }
  convolution_param {
    num_output: 96
    kernel_size: 1
    weight_filler {
      type: "xavier"
      std: 0.09
    }
    bias_filler {
      type: "constant"
      value: 0.2
    }
  }
}
layer {
  name: "inception_4a/relu_3x3_reduce"
  type: "ReLU"
  bottom: "inception_4a/3x3_reduce"
  top: "inception_4a/3x3_reduce"
}
layer {
  name: "inception_4a/3x3"
  type: "Convolution"
  bottom: "inception_4a/3x3_reduce"
  top: "inception_4a/3x3"
  param {
    lr_mult: 1
    decay_mult: 1
  }
  param {
    lr_mult: 2
    decay_mult: 0
  }
  convolution_param {
    num_output: 208
    pad: 1
    kernel_size: 3
    weight_filler {
      type: "xavier"
      std: 0.03
    }
    bias_filler {
      type: "constant"
      value: 0.2
    }
  }
}
layer {
  name: "inception_4a/relu_3x3"
  type: "ReLU"
  bottom: "inception_4a/3x3"
  top: "inception_4a/3x3"
}
layer {
  name: "inception_4a/5x5_reduce"
  type: "Convolution"
  bottom: "pool3/3x3_s2"
  top: "inception_4a/5x5_reduce"
  param {
    lr_mult: 1
    decay_mult: 1
  }
  param {
    lr_mult: 2
    decay_mult: 0
  }
  convolution_param {
    num_output: 16
    kernel_size: 1
    weight_filler {
      type: "xavier"
      std: 0.2
    }
    bias_filler {
      type: "constant"
      value: 0.2
    }
  }
}
layer {
  name: "inception_4a/relu_5x5_reduce"
  type: "ReLU"
  bottom: "inception_4a/5x5_reduce"
  top: "inception_4a/5x5_reduce"
}
layer {
  name: "inception_4a/5x5"
  type: "Convolution"
  bottom: "inception_4a/5x5_reduce"
  top: "inception_4a/5x5"
  param {
    lr_mult: 1
    decay_mult: 1
  }
  param {
    lr_mult: 2
    decay_mult: 0
  }
  convolution_param {
    num_output: 48
    pad: 2
    kernel_size: 5
    weight_filler {
      type: "xavier"
      std: 0.03
    }
    bias_filler {
      type: "constant"
      value: 0.2
    }
  }
}
layer {
  name: "inception_4a/relu_5x5"
  type: "ReLU"
  bottom: "inception_4a/5x5"
  top: "inception_4a/5x5"
}
layer {
  name: "inception_4a/pool"
  type: "Pooling"
  bottom: "pool3/3x3_s2"
  top: "inception_4a/pool"
  pooling_param {
    pool: MAX
    kernel_size: 3
    stride: 1
    pad: 1
  }
}
layer {
  name: "inception_4a/pool_proj"
  type: "Convolution"
  bottom: "inception_4a/pool"
  top: "inception_4a/pool_proj"
  param {
    lr_mult: 1
    decay_mult: 1
  }
  param {
    lr_mult: 2
    decay_mult: 0
  }
  convolution_param {
    num_output: 64
    kernel_size: 1
    weight_filler {
      type: "xavier"
      std: 0.1
    }
    bias_filler {
      type: "constant"
      value: 0.2
    }
  }
}
layer {
  name: "inception_4a/relu_pool_proj"
  type: "ReLU"
  bottom: "inception_4a/pool_proj"
  top: "inception_4a/pool_proj"
}
layer {
  name: "inception_4a/output"
  type: "Concat"
  bottom: "inception_4a/1x1"
  bottom: "inception_4a/3x3"
  bottom: "inception_4a/5x5"
  bottom: "inception_4a/pool_proj"
  top: "inception_4a/output"
}
layer {
  name: "loss1/ave_pool"
  type: "Pooling"
  bottom: "inception_4a/output"
  top: "loss1/ave_pool"
  pooling_param {
    pool: AVE
    kernel_size: 5
    stride: 3
  }
}
layer {
  name: "loss1/conv"
  type: "Convolution"
  bottom: "loss1/ave_pool"
  top: "loss1/conv"
  param {
    lr_mult: 1
    decay_mult: 1
  }
  param {
    lr_mult: 2
    decay_mult: 0
  }
  convolution_param {
    num_output: 128
    kernel_size: 1
    weight_filler {
      type: "xavier"
      std: 0.08
    }
    bias_filler {
      type: "constant"
      value: 0.2
    }
  }
}
layer {
  name: "loss1/relu_conv"
  type: "ReLU"
  bottom: "loss1/conv"
  top: "loss1/conv"
}
layer {
  name: "loss1/fc"
  type: "InnerProduct"
  bottom: "loss1/conv"
  top: "loss1/fc"
  param {
    lr_mult: 1
    decay_mult: 1
  }
  param {
    lr_mult: 2
    decay_mult: 0
  }
  inner_product_param {
    num_output: 1024
    weight_filler {
      type: "xavier"
      std: 0.02
    }
    bias_filler {
      type: "constant"
      value: 0.2
    }
  }
}
layer {
  name: "loss1/relu_fc"
  type: "ReLU"
  bottom: "loss1/fc"
  top: "loss1/fc"
}
layer {
  name: "loss1/drop_fc"
  type: "Dropout"
  bottom: "loss1/fc"
  top: "loss1/fc"
  dropout_param {
    dropout_ratio: 0.7
  }
}
layer {
  name: "loss1/classifier_plantvillage"
  type: "InnerProduct"
  bottom: "loss1/fc"
  top: "loss1/classifier_plantvillage"
  param {
    lr_mult: 1
    decay_mult: 1
  }
  param {
    lr_mult: 2
    decay_mult: 0
  }
  inner_product_param {
    num_output: 38
    weight_filler {
      type: "xavier"
      std: 0.0009765625
    }
    bias_filler {
      type: "constant"
      value: 0
    }
  }
}
layer {
  name: "inception_4b/1x1"
  type: "Convolution"
  bottom: "inception_4a/output"
  top: "inception_4b/1x1"
  param {
    lr_mult: 1
    decay_mult: 1
  }
  param {
    lr_mult: 2
    decay_mult: 0
  }
  convolution_param {
    num_output: 160
    kernel_size: 1
    weight_filler {
      type: "xavier"
      std: 0.03
    }
    bias_filler {
      type: "constant"
      value: 0.2
    }
  }
}
layer {
  name: "inception_4b/relu_1x1"
  type: "ReLU"
  bottom: "inception_4b/1x1"
  top: "inception_4b/1x1"
}
layer {
  name: "inception_4b/3x3_reduce"
  type: "Convolution"
  bottom: "inception_4a/output"
  top: "inception_4b/3x3_reduce"
  param {
    lr_mult: 1
    decay_mult: 1
  }
  param {
    lr_mult: 2
    decay_mult: 0
  }
  convolution_param {
    num_output: 112
    kernel_size: 1
    weight_filler {
      type: "xavier"
      std: 0.09
    }
    bias_filler {
      type: "constant"
      value: 0.2
    }
  }
}
layer {
  name: "inception_4b/relu_3x3_reduce"
  type: "ReLU"
  bottom: "inception_4b/3x3_reduce"
  top: "inception_4b/3x3_reduce"
}
layer {
  name: "inception_4b/3x3"
  type: "Convolution"
  bottom: "inception_4b/3x3_reduce"
  top: "inception_4b/3x3"
  param {
    lr_mult: 1
    decay_mult: 1
  }
  param {
    lr_mult: 2
    decay_mult: 0
  }
  convolution_param {
    num_output: 224
    pad: 1
    kernel_size: 3
    weight_filler {
      type: "xavier"
      std: 0.03
    }
    bias_filler {
      type: "constant"
      value: 0.2
    }
  }
}
layer {
  name: "inception_4b/relu_3x3"
  type: "ReLU"
  bottom: "inception_4b/3x3"
  top: "inception_4b/3x3"
}
layer {
  name: "inception_4b/5x5_reduce"
  type: "Convolution"
  bottom: "inception_4a/output"
  top: "inception_4b/5x5_reduce"
  param {
    lr_mult: 1
    decay_mult: 1
  }
  param {
    lr_mult: 2
    decay_mult: 0
  }
  convolution_param {
    num_output: 24
    kernel_size: 1
    weight_filler {
      type: "xavier"
      std: 0.2
    }
    bias_filler {
      type: "constant"
      value: 0.2
    }
  }
}
layer {
  name: "inception_4b/relu_5x5_reduce"
  type: "ReLU"
  bottom: "inception_4b/5x5_reduce"
  top: "inception_4b/5x5_reduce"
}
layer {
  name: "inception_4b/5x5"
  type: "Convolution"
  bottom: "inception_4b/5x5_reduce"
  top: "inception_4b/5x5"
  param {
    lr_mult: 1
    decay_mult: 1
  }
  param {
    lr_mult: 2
    decay_mult: 0
  }
  convolution_param {
    num_output: 64
    pad: 2
    kernel_size: 5
    weight_filler {
      type: "xavier"
      std: 0.03
    }
    bias_filler {
      type: "constant"
      value: 0.2
    }
  }
}
layer {
  name: "inception_4b/relu_5x5"
  type: "ReLU"
  bottom: "inception_4b/5x5"
  top: "inception_4b/5x5"
}
layer {
  name: "inception_4b/pool"
  type: "Pooling"
  bottom: "inception_4a/output"
  top: "inception_4b/pool"
  pooling_param {
    pool: MAX
    kernel_size: 3
    stride: 1
    pad: 1
  }
}
layer {
  name: "inception_4b/pool_proj"
  type: "Convolution"
  bottom: "inception_4b/pool"
  top: "inception_4b/pool_proj"
  param {
    lr_mult: 1
    decay_mult: 1
  }
  param {
    lr_mult: 2
    decay_mult: 0
  }
  convolution_param {
    num_output: 64
    kernel_size: 1
    weight_filler {
      type: "xavier"
      std: 0.1
    }
    bias_filler {
      type: "constant"
      value: 0.2
    }
  }
}
layer {
  name: "inception_4b/relu_pool_proj"
  type: "ReLU"
  bottom: "inception_4b/pool_proj"
  top: "inception_4b/pool_proj"
}
layer {
  name: "inception_4b/output"
  type: "Concat"
  bottom: "inception_4b/1x1"
  bottom: "inception_4b/3x3"
  bottom: "inception_4b/5x5"
  bottom: "inception_4b/pool_proj"
  top: "inception_4b/output"
}
layer {
  name: "inception_4c/1x1"
  type: "Convolution"
  bottom: "inception_4b/output"
  top: "inception_4c/1x1"
  param {
    lr_mult: 1
    decay_mult: 1
  }
  param {
    lr_mult: 2
    decay_mult: 0
  }
  convolution_param {
    num_output: 128
    kernel_size: 1
    weight_filler {
      type: "xavier"
      std: 0.03
    }
    bias_filler {
      type: "constant"
      value: 0.2
    }
  }
}
layer {
  name: "inception_4c/relu_1x1"
  type: "ReLU"
  bottom: "inception_4c/1x1"
  top: "inception_4c/1x1"
}
layer {
  name: "inception_4c/3x3_reduce"
  type: "Convolution"
  bottom: "inception_4b/output"
  top: "inception_4c/3x3_reduce"
  param {
    lr_mult: 1
    decay_mult: 1
  }
  param {
    lr_mult: 2
    decay_mult: 0
  }
  convolution_param {
    num_output: 128
    kernel_size: 1
    weight_filler {
      type: "xavier"
      std: 0.09
    }
    bias_filler {
      type: "constant"
      value: 0.2
    }
  }
}
layer {
  name: "inception_4c/relu_3x3_reduce"
  type: "ReLU"
  bottom: "inception_4c/3x3_reduce"
  top: "inception_4c/3x3_reduce"
}
layer {
  name: "inception_4c/3x3"
  type: "Convolution"
  bottom: "inception_4c/3x3_reduce"
  top: "inception_4c/3x3"
  param {
    lr_mult: 1
    decay_mult: 1
  }
  param {
    lr_mult: 2
    decay_mult: 0
  }
  convolution_param {
    num_output: 256
    pad: 1
    kernel_size: 3
    weight_filler {
      type: "xavier"
      std: 0.03
    }
    bias_filler {
      type: "constant"
      value: 0.2
    }
  }
}
layer {
  name: "inception_4c/relu_3x3"
  type: "ReLU"
  bottom: "inception_4c/3x3"
  top: "inception_4c/3x3"
}
layer {
  name: "inception_4c/5x5_reduce"
  type: "Convolution"
  bottom: "inception_4b/output"
  top: "inception_4c/5x5_reduce"
  param {
    lr_mult: 1
    decay_mult: 1
  }
  param {
    lr_mult: 2
    decay_mult: 0
  }
  convolution_param {
    num_output: 24
    kernel_size: 1
    weight_filler {
      type: "xavier"
      std: 0.2
    }
    bias_filler {
      type: "constant"
      value: 0.2
    }
  }
}
layer {
  name: "inception_4c/relu_5x5_reduce"
  type: "ReLU"
  bottom: "inception_4c/5x5_reduce"
  top: "inception_4c/5x5_reduce"
}
layer {
  name: "inception_4c/5x5"
  type: "Convolution"
  bottom: "inception_4c/5x5_reduce"
  top: "inception_4c/5x5"
  param {
    lr_mult: 1
    decay_mult: 1
  }
  param {
    lr_mult: 2
    decay_mult: 0
  }
  convolution_param {
    num_output: 64
    pad: 2
    kernel_size: 5
    weight_filler {
      type: "xavier"
      std: 0.03
    }
    bias_filler {
      type: "constant"
      value: 0.2
    }
  }
}
layer {
  name: "inception_4c/relu_5x5"
  type: "ReLU"
  bottom: "inception_4c/5x5"
  top: "inception_4c/5x5"
}
layer {
  name: "inception_4c/pool"
  type: "Pooling"
  bottom: "inception_4b/output"
  top: "inception_4c/pool"
  pooling_param {
    pool: MAX
    kernel_size: 3
    stride: 1
    pad: 1
  }
}
layer {
  name: "inception_4c/pool_proj"
  type: "Convolution"
  bottom: "inception_4c/pool"
  top: "inception_4c/pool_proj"
  param {
    lr_mult: 1
    decay_mult: 1
  }
  param {
    lr_mult: 2
    decay_mult: 0
  }
  convolution_param {
    num_output: 64
    kernel_size: 1
    weight_filler {
      type: "xavier"
      std: 0.1
    }
    bias_filler {
      type: "constant"
      value: 0.2
    }
  }
}
layer {
  name: "inception_4c/relu_pool_proj"
  type: "ReLU"
  bottom: "inception_4c/pool_proj"
  top: "inception_4c/pool_proj"
}
layer {
  name: "inception_4c/output"
  type: "Concat"
  bottom: "inception_4c/1x1"
  bottom: "inception_4c/3x3"
  bottom: "inception_4c/5x5"
  bottom: "inception_4c/pool_proj"
  top: "inception_4c/output"
}
layer {
  name: "inception_4d/1x1"
  type: "Convolution"
  bottom: "inception_4c/output"
  top: "inception_4d/1x1"
  param {
    lr_mult: 1
    decay_mult: 1
  }
  param {
    lr_mult: 2
    decay_mult: 0
  }
  convolution_param {
    num_output: 112
    kernel_size: 1
    weight_filler {
      type: "xavier"
      std: 0.03
    }
    bias_filler {
      type: "constant"
      value: 0.2
    }
  }
}
layer {
  name: "inception_4d/relu_1x1"
  type: "ReLU"
  bottom: "inception_4d/1x1"
  top: "inception_4d/1x1"
}
layer {
  name: "inception_4d/3x3_reduce"
  type: "Convolution"
  bottom: "inception_4c/output"
  top: "inception_4d/3x3_reduce"
  param {
    lr_mult: 1
    decay_mult: 1
  }
  param {
    lr_mult: 2
    decay_mult: 0
  }
  convolution_param {
    num_output: 144
    kernel_size: 1
    weight_filler {
      type: "xavier"
      std: 0.09
    }
    bias_filler {
      type: "constant"
      value: 0.2
    }
  }
}
layer {
  name: "inception_4d/relu_3x3_reduce"
  type: "ReLU"
  bottom: "inception_4d/3x3_reduce"
  top: "inception_4d/3x3_reduce"
}
layer {
  name: "inception_4d/3x3"
  type: "Convolution"
  bottom: "inception_4d/3x3_reduce"
  top: "inception_4d/3x3"
  param {
    lr_mult: 1
    decay_mult: 1
  }
  param {
    lr_mult: 2
    decay_mult: 0
  }
  convolution_param {
    num_output: 288
    pad: 1
    kernel_size: 3
    weight_filler {
      type: "xavier"
      std: 0.03
    }
    bias_filler {
      type: "constant"
      value: 0.2
    }
  }
}
layer {
  name: "inception_4d/relu_3x3"
  type: "ReLU"
  bottom: "inception_4d/3x3"
  top: "inception_4d/3x3"
}
layer {
  name: "inception_4d/5x5_reduce"
  type: "Convolution"
  bottom: "inception_4c/output"
  top: "inception_4d/5x5_reduce"
  param {
    lr_mult: 1
    decay_mult: 1
  }
  param {
    lr_mult: 2
    decay_mult: 0
  }
  convolution_param {
    num_output: 32
    kernel_size: 1
    weight_filler {
      type: "xavier"
      std: 0.2
    }
    bias_filler {
      type: "constant"
      value: 0.2
    }
  }
}
layer {
  name: "inception_4d/relu_5x5_reduce"
  type: "ReLU"
  bottom: "inception_4d/5x5_reduce"
  top: "inception_4d/5x5_reduce"
}
layer {
  name: "inception_4d/5x5"
  type: "Convolution"
  bottom: "inception_4d/5x5_reduce"
  top: "inception_4d/5x5"
  param {
    lr_mult: 1
    decay_mult: 1
  }
  param {
    lr_mult: 2
    decay_mult: 0
  }
  convolution_param {
    num_output: 64
    pad: 2
    kernel_size: 5
    weight_filler {
      type: "xavier"
      std: 0.03
    }
    bias_filler {
      type: "constant"
      value: 0.2
    }
  }
}
layer {
  name: "inception_4d/relu_5x5"
  type: "ReLU"
  bottom: "inception_4d/5x5"
  top: "inception_4d/5x5"
}
layer {
  name: "inception_4d/pool"
  type: "Pooling"
  bottom: "inception_4c/output"
  top: "inception_4d/pool"
  pooling_param {
    pool: MAX
    kernel_size: 3
    stride: 1
    pad: 1
  }
}
layer {
  name: "inception_4d/pool_proj"
  type: "Convolution"
  bottom: "inception_4d/pool"
  top: "inception_4d/pool_proj"
  param {
    lr_mult: 1
    decay_mult: 1
  }
  param {
    lr_mult: 2
    decay_mult: 0
  }
  convolution_param {
    num_output: 64
    kernel_size: 1
    weight_filler {
      type: "xavier"
      std: 0.1
    }
    bias_filler {
      type: "constant"
      value: 0.2
    }
  }
}
layer {
  name: "inception_4d/relu_pool_proj"
  type: "ReLU"
  bottom: "inception_4d/pool_proj"
  top: "inception_4d/pool_proj"
}
layer {
  name: "inception_4d/output"
  type: "Concat"
  bottom: "inception_4d/1x1"
  bottom: "inception_4d/3x3"
  bottom: "inception_4d/5x5"
  bottom: "inception_4d/pool_proj"
  top: "inception_4d/output"
}
layer {
  name: "loss2/ave_pool"
  type: "Pooling"
  bottom: "inception_4d/output"
  top: "loss2/ave_pool"
  pooling_param {
    pool: AVE
    kernel_size: 5
    stride: 3
  }
}
layer {
  name: "loss2/conv"
  type: "Convolution"
  bottom: "loss2/ave_pool"
  top: "loss2/conv"
  param {
    lr_mult: 1
    decay_mult: 1
  }
  param {
    lr_mult: 2
    decay_mult: 0
  }
  convolution_param {
    num_output: 128
    kernel_size: 1
    weight_filler {
      type: "xavier"
      std: 0.08
    }
    bias_filler {
      type: "constant"
      value: 0.2
    }
  }
}
layer {
  name: "loss2/relu_conv"
  type: "ReLU"
  bottom: "loss2/conv"
  top: "loss2/conv"
}
layer {
  name: "loss2/fc"
  type: "InnerProduct"
  bottom: "loss2/conv"
  top: "loss2/fc"
  param {
    lr_mult: 1
    decay_mult: 1
  }
  param {
    lr_mult: 2
    decay_mult: 0
  }
  inner_product_param {
    num_output: 1024
    weight_filler {
      type: "xavier"
      std: 0.02
    }
    bias_filler {
      type: "constant"
      value: 0.2
    }
  }
}
layer {
  name: "loss2/relu_fc"
  type: "ReLU"
  bottom: "loss2/fc"
  top: "loss2/fc"
}
layer {
  name: "loss2/drop_fc"
  type: "Dropout"
  bottom: "loss2/fc"
  top: "loss2/fc"
  dropout_param {
    dropout_ratio: 0.7
  }
}
layer {
  name: "loss2/classifier_plantvillage"
  type: "InnerProduct"
  bottom: "loss2/fc"
  top: "loss2/classifier_plantvillage"
  param {
    lr_mult: 1
    decay_mult: 1
  }
  param {
    lr_mult: 2
    decay_mult: 0
  }
  inner_product_param {
    num_output: 38
    weight_filler {
      type: "xavier"
      std: 0.0009765625
    }
    bias_filler {
      type: "constant"
      value: 0
    }
  }
}
layer {
  name: "inception_4e/1x1"
  type: "Convolution"
  bottom: "inception_4d/output"
  top: "inception_4e/1x1"
  param {
    lr_mult: 1
    decay_mult: 1
  }
  param {
    lr_mult: 2
    decay_mult: 0
  }
  convolution_param {
    num_output: 256
    kernel_size: 1
    weight_filler {
      type: "xavier"
      std: 0.03
    }
    bias_filler {
      type: "constant"
      value: 0.2
    }
  }
}
layer {
  name: "inception_4e/relu_1x1"
  type: "ReLU"
  bottom: "inception_4e/1x1"
  top: "inception_4e/1x1"
}
layer {
  name: "inception_4e/3x3_reduce"
  type: "Convolution"
  bottom: "inception_4d/output"
  top: "inception_4e/3x3_reduce"
  param {
    lr_mult: 1
    decay_mult: 1
  }
  param {
    lr_mult: 2
    decay_mult: 0
  }
  convolution_param {
    num_output: 160
    kernel_size: 1
    weight_filler {
      type: "xavier"
      std: 0.09
    }
    bias_filler {
      type: "constant"
      value: 0.2
    }
  }
}
layer {
  name: "inception_4e/relu_3x3_reduce"
  type: "ReLU"
  bottom: "inception_4e/3x3_reduce"
  top: "inception_4e/3x3_reduce"
}
layer {
  name: "inception_4e/3x3"
  type: "Convolution"
  bottom: "inception_4e/3x3_reduce"
  top: "inception_4e/3x3"
  param {
    lr_mult: 1
    decay_mult: 1
  }
  param {
    lr_mult: 2
    decay_mult: 0
  }
  convolution_param {
    num_output: 320
    pad: 1
    kernel_size: 3
    weight_filler {
      type: "xavier"
      std: 0.03
    }
    bias_filler {
      type: "constant"
      value: 0.2
    }
  }
}
layer {
  name: "inception_4e/relu_3x3"
  type: "ReLU"
  bottom: "inception_4e/3x3"
  top: "inception_4e/3x3"
}
layer {
  name: "inception_4e/5x5_reduce"
  type: "Convolution"
  bottom: "inception_4d/output"
  top: "inception_4e/5x5_reduce"
  param {
    lr_mult: 1
    decay_mult: 1
  }
  param {
    lr_mult: 2
    decay_mult: 0
  }
  convolution_param {
    num_output: 32
    kernel_size: 1
    weight_filler {
      type: "xavier"
      std: 0.2
    }
    bias_filler {
      type: "constant"
      value: 0.2
    }
  }
}
layer {
  name: "inception_4e/relu_5x5_reduce"
  type: "ReLU"
  bottom: "inception_4e/5x5_reduce"
  top: "inception_4e/5x5_reduce"
}
layer {
  name: "inception_4e/5x5"
  type: "Convolution"
  bottom: "inception_4e/5x5_reduce"
  top: "inception_4e/
I0403 15:25:39.405905 11947 layer_factory.hpp:77] Creating layer data
I0403 15:25:39.406472 11947 net.cpp:91] Creating Layer data
I0403 15:25:39.406502 11947 net.cpp:399] data -> data
I0403 15:25:39.406550 11947 net.cpp:399] data -> label
I0403 15:25:39.406590 11947 data_transformer.cpp:25] Loading mean file from: /home/mohanty/data/final_dataset/lmdb/segmented-50-50/mean.binaryproto
I0403 15:25:39.409159 11950 db_lmdb.cpp:38] Opened lmdb /home/mohanty/data/final_dataset/lmdb/segmented-50-50/test_db
I0403 15:25:39.419579 11947 data_layer.cpp:41] output data size: 24,3,224,224
I0403 15:25:39.447736 11947 net.cpp:141] Setting up data
I0403 15:25:39.447839 11947 net.cpp:148] Top shape: 24 3 224 224 (3612672)
I0403 15:25:39.447861 11947 net.cpp:148] Top shape: 24 (24)
I0403 15:25:39.447878 11947 net.cpp:156] Memory required for data: 14450784
I0403 15:25:39.447906 11947 layer_factory.hpp:77] Creating layer label_data_1_split
I0403 15:25:39.447933 11947 net.cpp:91] Creating Layer label_data_1_split
I0403 15:25:39.447952 11947 net.cpp:425] label_data_1_split <- label
I0403 15:25:39.447985 11947 net.cpp:399] label_data_1_split -> label_data_1_split_0
I0403 15:25:39.448014 11947 net.cpp:399] label_data_1_split -> label_data_1_split_1
I0403 15:25:39.448035 11947 net.cpp:399] label_data_1_split -> label_data_1_split_2
I0403 15:25:39.448056 11947 net.cpp:399] label_data_1_split -> label_data_1_split_3
I0403 15:25:39.448077 11947 net.cpp:399] label_data_1_split -> label_data_1_split_4
I0403 15:25:39.448097 11947 net.cpp:399] label_data_1_split -> label_data_1_split_5
I0403 15:25:39.448118 11947 net.cpp:399] label_data_1_split -> label_data_1_split_6
I0403 15:25:39.448139 11947 net.cpp:399] label_data_1_split -> label_data_1_split_7
I0403 15:25:39.448171 11947 net.cpp:399] label_data_1_split -> label_data_1_split_8
I0403 15:25:39.448191 11947 net.cpp:399] label_data_1_split -> label_data_1_split_9
I0403 15:25:39.448307 11947 net.cpp:141] Setting up label_data_1_split
I0403 15:25:39.448329 11947 net.cpp:148] Top shape: 24 (24)
I0403 15:25:39.448346 11947 net.cpp:148] Top shape: 24 (24)
I0403 15:25:39.448362 11947 net.cpp:148] Top shape: 24 (24)
I0403 15:25:39.448379 11947 net.cpp:148] Top shape: 24 (24)
I0403 15:25:39.448395 11947 net.cpp:148] Top shape: 24 (24)
I0403 15:25:39.448413 11947 net.cpp:148] Top shape: 24 (24)
I0403 15:25:39.448431 11947 net.cpp:148] Top shape: 24 (24)
I0403 15:25:39.448447 11947 net.cpp:148] Top shape: 24 (24)
I0403 15:25:39.448462 11947 net.cpp:148] Top shape: 24 (24)
I0403 15:25:39.448478 11947 net.cpp:148] Top shape: 24 (24)
I0403 15:25:39.448523 11947 net.cpp:156] Memory required for data: 14451744
I0403 15:25:39.448539 11947 layer_factory.hpp:77] Creating layer conv1/7x7_s2
I0403 15:25:39.448571 11947 net.cpp:91] Creating Layer conv1/7x7_s2
I0403 15:25:39.448590 11947 net.cpp:425] conv1/7x7_s2 <- data
I0403 15:25:39.448608 11947 net.cpp:399] conv1/7x7_s2 -> conv1/7x7_s2
I0403 15:25:39.587496 11947 net.cpp:141] Setting up conv1/7x7_s2
I0403 15:25:39.587587 11947 net.cpp:148] Top shape: 24 64 112 112 (19267584)
I0403 15:25:39.587604 11947 net.cpp:156] Memory required for data: 91522080
I0403 15:25:39.587635 11947 layer_factory.hpp:77] Creating layer conv1/relu_7x7
I0403 15:25:39.587662 11947 net.cpp:91] Creating Layer conv1/relu_7x7
I0403 15:25:39.587679 11947 net.cpp:425] conv1/relu_7x7 <- conv1/7x7_s2
I0403 15:25:39.587698 11947 net.cpp:386] conv1/relu_7x7 -> conv1/7x7_s2 (in-place)
I0403 15:25:39.587954 11947 net.cpp:141] Setting up conv1/relu_7x7
I0403 15:25:39.587980 11947 net.cpp:148] Top shape: 24 64 112 112 (19267584)
I0403 15:25:39.587996 11947 net.cpp:156] Memory required for data: 168592416
I0403 15:25:39.588011 11947 layer_factory.hpp:77] Creating layer pool1/3x3_s2
I0403 15:25:39.588035 11947 net.cpp:91] Creating Layer pool1/3x3_s2
I0403 15:25:39.588052 11947 net.cpp:425] pool1/3x3_s2 <- conv1/7x7_s2
I0403 15:25:39.588070 11947 net.cpp:399] pool1/3x3_s2 -> pool1/3x3_s2
I0403 15:25:39.588141 11947 net.cpp:141] Setting up pool1/3x3_s2
I0403 15:25:39.588165 11947 net.cpp:148] Top shape: 24 64 56 56 (4816896)
I0403 15:25:39.588179 11947 net.cpp:156] Memory required for data: 187860000
I0403 15:25:39.588193 11947 layer_factory.hpp:77] Creating layer pool1/norm1
I0403 15:25:39.588217 11947 net.cpp:91] Creating Layer pool1/norm1
I0403 15:25:39.588237 11947 net.cpp:425] pool1/norm1 <- pool1/3x3_s2
I0403 15:25:39.588253 11947 net.cpp:399] pool1/norm1 -> pool1/norm1
I0403 15:25:39.588541 11947 net.cpp:141] Setting up pool1/norm1
I0403 15:25:39.588567 11947 net.cpp:148] Top shape: 24 64 56 56 (4816896)
I0403 15:25:39.588582 11947 net.cpp:156] Memory required for data: 207127584
I0403 15:25:39.588598 11947 layer_factory.hpp:77] Creating layer conv2/3x3_reduce
I0403 15:25:39.588621 11947 net.cpp:91] Creating Layer conv2/3x3_reduce
I0403 15:25:39.588639 11947 net.cpp:425] conv2/3x3_reduce <- pool1/norm1
I0403 15:25:39.588656 11947 net.cpp:399] conv2/3x3_reduce -> conv2/3x3_reduce
I0403 15:25:39.590018 11947 net.cpp:141] Setting up conv2/3x3_reduce
I0403 15:25:39.590047 11947 net.cpp:148] Top shape: 24 64 56 56 (4816896)
I0403 15:25:39.590065 11947 net.cpp:156] Memory required for data: 226395168
I0403 15:25:39.590088 11947 layer_factory.hpp:77] Creating layer conv2/relu_3x3_reduce
I0403 15:25:39.590108 11947 net.cpp:91] Creating Layer conv2/relu_3x3_reduce
I0403 15:25:39.590124 11947 net.cpp:425] conv2/relu_3x3_reduce <- conv2/3x3_reduce
I0403 15:25:39.590142 11947 net.cpp:386] conv2/relu_3x3_reduce -> conv2/3x3_reduce (in-place)
I0403 15:25:39.590423 11947 net.cpp:141] Setting up conv2/relu_3x3_reduce
I0403 15:25:39.590451 11947 net.cpp:148] Top shape: 24 64 56 56 (4816896)
I0403 15:25:39.590466 11947 net.cpp:156] Memory required for data: 245662752
I0403 15:25:39.590481 11947 layer_factory.hpp:77] Creating layer conv2/3x3
I0403 15:25:39.590507 11947 net.cpp:91] Creating Layer conv2/3x3
I0403 15:25:39.590525 11947 net.cpp:425] conv2/3x3 <- conv2/3x3_reduce
I0403 15:25:39.590545 11947 net.cpp:399] conv2/3x3 -> conv2/3x3
I0403 15:25:39.592936 11947 net.cpp:141] Setting up conv2/3x3
I0403 15:25:39.592968 11947 net.cpp:148] Top shape: 24 192 56 56 (14450688)
I0403 15:25:39.592985 11947 net.cpp:156] Memory required for data: 303465504
I0403 15:25:39.593006 11947 layer_factory.hpp:77] Creating layer conv2/relu_3x3
I0403 15:25:39.593025 11947 net.cpp:91] Creating Layer conv2/relu_3x3
I0403 15:25:39.593041 11947 net.cpp:425] conv2/relu_3x3 <- conv2/3x3
I0403 15:25:39.593060 11947 net.cpp:386] conv2/relu_3x3 -> conv2/3x3 (in-place)
I0403 15:25:39.593246 11947 net.cpp:141] Setting up conv2/relu_3x3
I0403 15:25:39.593271 11947 net.cpp:148] Top shape: 24 192 56 56 (14450688)
I0403 15:25:39.593315 11947 net.cpp:156] Memory required for data: 361268256
I0403 15:25:39.593332 11947 layer_factory.hpp:77] Creating layer conv2/norm2
I0403 15:25:39.593353 11947 net.cpp:91] Creating Layer conv2/norm2
I0403 15:25:39.593371 11947 net.cpp:425] conv2/norm2 <- conv2/3x3
I0403 15:25:39.593389 11947 net.cpp:399] conv2/norm2 -> conv2/norm2
I0403 15:25:39.593705 11947 net.cpp:141] Setting up conv2/norm2
I0403 15:25:39.593734 11947 net.cpp:148] Top shape: 24 192 56 56 (14450688)
I0403 15:25:39.593749 11947 net.cpp:156] Memory required for data: 419071008
I0403 15:25:39.593765 11947 layer_factory.hpp:77] Creating layer pool2/3x3_s2
I0403 15:25:39.593785 11947 net.cpp:91] Creating Layer pool2/3x3_s2
I0403 15:25:39.593801 11947 net.cpp:425] pool2/3x3_s2 <- conv2/norm2
I0403 15:25:39.593818 11947 net.cpp:399] pool2/3x3_s2 -> pool2/3x3_s2
I0403 15:25:39.593873 11947 net.cpp:141] Setting up pool2/3x3_s2
I0403 15:25:39.593896 11947 net.cpp:148] Top shape: 24 192 28 28 (3612672)
I0403 15:25:39.593910 11947 net.cpp:156] Memory required for data: 433521696
I0403 15:25:39.593925 11947 layer_factory.hpp:77] Creating layer pool2/3x3_s2_pool2/3x3_s2_0_split
I0403 15:25:39.593942 11947 net.cpp:91] Creating Layer pool2/3x3_s2_pool2/3x3_s2_0_split
I0403 15:25:39.593957 11947 net.cpp:425] pool2/3x3_s2_pool2/3x3_s2_0_split <- pool2/3x3_s2
I0403 15:25:39.593977 11947 net.cpp:399] pool2/3x3_s2_pool2/3x3_s2_0_split -> pool2/3x3_s2_pool2/3x3_s2_0_split_0
I0403 15:25:39.593998 11947 net.cpp:399] pool2/3x3_s2_pool2/3x3_s2_0_split -> pool2/3x3_s2_pool2/3x3_s2_0_split_1
I0403 15:25:39.594018 11947 net.cpp:399] pool2/3x3_s2_pool2/3x3_s2_0_split -> pool2/3x3_s2_pool2/3x3_s2_0_split_2
I0403 15:25:39.594038 11947 net.cpp:399] pool2/3x3_s2_pool2/3x3_s2_0_split -> pool2/3x3_s2_pool2/3x3_s2_0_split_3
I0403 15:25:39.594110 11947 net.cpp:141] Setting up pool2/3x3_s2_pool2/3x3_s2_0_split
I0403 15:25:39.594135 11947 net.cpp:148] Top shape: 24 192 28 28 (3612672)
I0403 15:25:39.594151 11947 net.cpp:148] Top shape: 24 192 28 28 (3612672)
I0403 15:25:39.594167 11947 net.cpp:148] Top shape: 24 192 28 28 (3612672)
I0403 15:25:39.594183 11947 net.cpp:148] Top shape: 24 192 28 28 (3612672)
I0403 15:25:39.594197 11947 net.cpp:156] Memory required for data: 491324448
I0403 15:25:39.594211 11947 layer_factory.hpp:77] Creating layer inception_3a/1x1
I0403 15:25:39.594234 11947 net.cpp:91] Creating Layer inception_3a/1x1
I0403 15:25:39.594251 11947 net.cpp:425] inception_3a/1x1 <- pool2/3x3_s2_pool2/3x3_s2_0_split_0
I0403 15:25:39.594269 11947 net.cpp:399] inception_3a/1x1 -> inception_3a/1x1
I0403 15:25:39.595831 11947 net.cpp:141] Setting up inception_3a/1x1
I0403 15:25:39.595861 11947 net.cpp:148] Top shape: 24 64 28 28 (1204224)
I0403 15:25:39.595877 11947 net.cpp:156] Memory required for data: 496141344
I0403 15:25:39.595896 11947 layer_factory.hpp:77] Creating layer inception_3a/relu_1x1
I0403 15:25:39.595917 11947 net.cpp:91] Creating Layer inception_3a/relu_1x1
I0403 15:25:39.595934 11947 net.cpp:425] inception_3a/relu_1x1 <- inception_3a/1x1
I0403 15:25:39.595952 11947 net.cpp:386] inception_3a/relu_1x1 -> inception_3a/1x1 (in-place)
I0403 15:25:39.596129 11947 net.cpp:141] Setting up inception_3a/relu_1x1
I0403 15:25:39.596158 11947 net.cpp:148] Top shape: 24 64 28 28 (1204224)
I0403 15:25:39.596174 11947 net.cpp:156] Memory required for data: 500958240
I0403 15:25:39.596189 11947 layer_factory.hpp:77] Creating layer inception_3a/3x3_reduce
I0403 15:25:39.596211 11947 net.cpp:91] Creating Layer inception_3a/3x3_reduce
I0403 15:25:39.596228 11947 net.cpp:425] inception_3a/3x3_reduce <- pool2/3x3_s2_pool2/3x3_s2_0_split_1
I0403 15:25:39.596248 11947 net.cpp:399] inception_3a/3x3_reduce -> inception_3a/3x3_reduce
I0403 15:25:39.597967 11947 net.cpp:141] Setting up inception_3a/3x3_reduce
I0403 15:25:39.597997 11947 net.cpp:148] Top shape: 24 96 28 28 (1806336)
I0403 15:25:39.598013 11947 net.cpp:156] Memory required for data: 508183584
I0403 15:25:39.598037 11947 layer_factory.hpp:77] Creating layer inception_3a/relu_3x3_reduce
I0403 15:25:39.598073 11947 net.cpp:91] Creating Layer inception_3a/relu_3x3_reduce
I0403 15:25:39.598090 11947 net.cpp:425] inception_3a/relu_3x3_reduce <- inception_3a/3x3_reduce
I0403 15:25:39.598114 11947 net.cpp:386] inception_3a/relu_3x3_reduce -> inception_3a/3x3_reduce (in-place)
I0403 15:25:39.598301 11947 net.cpp:141] Setting up inception_3a/relu_3x3_reduce
I0403 15:25:39.598327 11947 net.cpp:148] Top shape: 24 96 28 28 (1806336)
I0403 15:25:39.598342 11947 net.cpp:156] Memory required for data: 515408928
I0403 15:25:39.598358 11947 layer_factory.hpp:77] Creating layer inception_3a/3x3
I0403 15:25:39.598381 11947 net.cpp:91] Creating Layer inception_3a/3x3
I0403 15:25:39.598398 11947 net.cpp:425] inception_3a/3x3 <- inception_3a/3x3_reduce
I0403 15:25:39.598424 11947 net.cpp:399] inception_3a/3x3 -> inception_3a/3x3
I0403 15:25:39.600122 11947 net.cpp:141] Setting up inception_3a/3x3
I0403 15:25:39.600155 11947 net.cpp:148] Top shape: 24 128 28 28 (2408448)
I0403 15:25:39.600172 11947 net.cpp:156] Memory required for data: 525042720
I0403 15:25:39.600193 11947 layer_factory.hpp:77] Creating layer inception_3a/relu_3x3
I0403 15:25:39.600211 11947 net.cpp:91] Creating Layer inception_3a/relu_3x3
I0403 15:25:39.600229 11947 net.cpp:425] inception_3a/relu_3x3 <- inception_3a/3x3
I0403 15:25:39.600249 11947 net.cpp:386] inception_3a/relu_3x3 -> inception_3a/3x3 (in-place)
I0403 15:25:39.600539 11947 net.cpp:141] Setting up inception_3a/relu_3x3
I0403 15:25:39.600570 11947 net.cpp:148] Top shape: 24 128 28 28 (2408448)
I0403 15:25:39.600587 11947 net.cpp:156] Memory required for data: 534676512
I0403 15:25:39.600602 11947 layer_factory.hpp:77] Creating layer inception_3a/5x5_reduce
I0403 15:25:39.600626 11947 net.cpp:91] Creating Layer inception_3a/5x5_reduce
I0403 15:25:39.600646 11947 net.cpp:425] inception_3a/5x5_reduce <- pool2/3x3_s2_pool2/3x3_s2_0_split_2
I0403 15:25:39.600666 11947 net.cpp:399] inception_3a/5x5_reduce -> inception_3a/5x5_reduce
I0403 15:25:39.601675 11947 net.cpp:141] Setting up inception_3a/5x5_reduce
I0403 15:25:39.601706 11947 net.cpp:148] Top shape: 24 16 28 28 (301056)
I0403 15:25:39.601724 11947 net.cpp:156] Memory required for data: 535880736
I0403 15:25:39.601744 11947 layer_factory.hpp:77] Creating layer inception_3a/relu_5x5_reduce
I0403 15:25:39.601763 11947 net.cpp:91] Creating Layer inception_3a/relu_5x5_reduce
I0403 15:25:39.601780 11947 net.cpp:425] inception_3a/relu_5x5_reduce <- inception_3a/5x5_reduce
I0403 15:25:39.601805 11947 net.cpp:386] inception_3a/relu_5x5_reduce -> inception_3a/5x5_reduce (in-place)
I0403 15:25:39.602119 11947 net.cpp:141] Setting up inception_3a/relu_5x5_reduce
I0403 15:25:39.602146 11947 net.cpp:148] Top shape: 24 16 28 28 (301056)
I0403 15:25:39.602162 11947 net.cpp:156] Memory required for data: 537084960
I0403 15:25:39.602179 11947 layer_factory.hpp:77] Creating layer inception_3a/5x5
I0403 15:25:39.602202 11947 net.cpp:91] Creating Layer inception_3a/5x5
I0403 15:25:39.602221 11947 net.cpp:425] inception_3a/5x5 <- inception_3a/5x5_reduce
I0403 15:25:39.602242 11947 net.cpp:399] inception_3a/5x5 -> inception_3a/5x5
I0403 15:25:39.603307 11947 net.cpp:141] Setting up inception_3a/5x5
I0403 15:25:39.603335 11947 net.cpp:148] Top shape: 24 32 28 28 (602112)
I0403 15:25:39.603351 11947 net.cpp:156] Memory required for data: 539493408
I0403 15:25:39.603371 11947 layer_factory.hpp:77] Creating layer inception_3a/relu_5x5
I0403 15:25:39.603392 11947 net.cpp:91] Creating Layer inception_3a/relu_5x5
I0403 15:25:39.603420 11947 net.cpp:425] inception_3a/relu_5x5 <- inception_3a/5x5
I0403 15:25:39.603442 11947 net.cpp:386] inception_3a/relu_5x5 -> inception_3a/5x5 (in-place)
I0403 15:25:39.603627 11947 net.cpp:141] Setting up inception_3a/relu_5x5
I0403 15:25:39.603654 11947 net.cpp:148] Top shape: 24 32 28 28 (602112)
I0403 15:25:39.603669 11947 net.cpp:156] Memory required for data: 541901856
I0403 15:25:39.603685 11947 layer_factory.hpp:77] Creating layer inception_3a/pool
I0403 15:25:39.603703 11947 net.cpp:91] Creating Layer inception_3a/pool
I0403 15:25:39.603735 11947 net.cpp:425] inception_3a/pool <- pool2/3x3_s2_pool2/3x3_s2_0_split_3
I0403 15:25:39.603759 11947 net.cpp:399] inception_3a/pool -> inception_3a/pool
I0403 15:25:39.603819 11947 net.cpp:141] Setting up inception_3a/pool
I0403 15:25:39.603843 11947 net.cpp:148] Top shape: 24 192 28 28 (3612672)
I0403 15:25:39.603858 11947 net.cpp:156] Memory required for data: 556352544
I0403 15:25:39.603874 11947 layer_factory.hpp:77] Creating layer inception_3a/pool_proj
I0403 15:25:39.603900 11947 net.cpp:91] Creating Layer inception_3a/pool_proj
I0403 15:25:39.603919 11947 net.cpp:425] inception_3a/pool_proj <- inception_3a/pool
I0403 15:25:39.603940 11947 net.cpp:399] inception_3a/pool_proj -> inception_3a/pool_proj
I0403 15:25:39.604964 11947 net.cpp:141] Setting up inception_3a/pool_proj
I0403 15:25:39.604993 11947 net.cpp:148] Top shape: 24 32 28 28 (602112)
I0403 15:25:39.605010 11947 net.cpp:156] Memory required for data: 558760992
I0403 15:25:39.605036 11947 layer_factory.hpp:77] Creating layer inception_3a/relu_pool_proj
I0403 15:25:39.605057 11947 net.cpp:91] Creating Layer inception_3a/relu_pool_proj
I0403 15:25:39.605073 11947 net.cpp:425] inception_3a/relu_pool_proj <- inception_3a/pool_proj
I0403 15:25:39.605096 11947 net.cpp:386] inception_3a/relu_pool_proj -> inception_3a/pool_proj (in-place)
I0403 15:25:39.605394 11947 net.cpp:141] Setting up inception_3a/relu_pool_proj
I0403 15:25:39.605429 11947 net.cpp:148] Top shape: 24 32 28 28 (602112)
I0403 15:25:39.605448 11947 net.cpp:156] Memory required for data: 561169440
I0403 15:25:39.605463 11947 layer_factory.hpp:77] Creating layer inception_3a/output
I0403 15:25:39.605482 11947 net.cpp:91] Creating Layer inception_3a/output
I0403 15:25:39.605499 11947 net.cpp:425] inception_3a/output <- inception_3a/1x1
I0403 15:25:39.605516 11947 net.cpp:425] inception_3a/output <- inception_3a/3x3
I0403 15:25:39.605532 11947 net.cpp:425] inception_3a/output <- inception_3a/5x5
I0403 15:25:39.605548 11947 net.cpp:425] inception_3a/output <- inception_3a/pool_proj
I0403 15:25:39.605566 11947 net.cpp:399] inception_3a/output -> inception_3a/output
I0403 15:25:39.605617 11947 net.cpp:141] Setting up inception_3a/output
I0403 15:25:39.605640 11947 net.cpp:148] Top shape: 24 256 28 28 (4816896)
I0403 15:25:39.605656 11947 net.cpp:156] Memory required for data: 580437024
I0403 15:25:39.605671 11947 layer_factory.hpp:77] Creating layer inception_3a/output_inception_3a/output_0_split
I0403 15:25:39.605690 11947 net.cpp:91] Creating Layer inception_3a/output_inception_3a/output_0_split
I0403 15:25:39.605705 11947 net.cpp:425] inception_3a/output_inception_3a/output_0_split <- inception_3a/output
I0403 15:25:39.605726 11947 net.cpp:399] inception_3a/output_inception_3a/output_0_split -> inception_3a/output_inception_3a/output_0_split_0
I0403 15:25:39.605748 11947 net.cpp:399] inception_3a/output_inception_3a/output_0_split -> inception_3a/output_inception_3a/output_0_split_1
I0403 15:25:39.605774 11947 net.cpp:399] inception_3a/output_inception_3a/output_0_split -> inception_3a/output_inception_3a/output_0_split_2
I0403 15:25:39.605798 11947 net.cpp:399] inception_3a/output_inception_3a/output_0_split -> inception_3a/output_inception_3a/output_0_split_3
I0403 15:25:39.605873 11947 net.cpp:141] Setting up inception_3a/output_inception_3a/output_0_split
I0403 15:25:39.605896 11947 net.cpp:148] Top shape: 24 256 28 28 (4816896)
I0403 15:25:39.605916 11947 net.cpp:148] Top shape: 24 256 28 28 (4816896)
I0403 15:25:39.605934 11947 net.cpp:148] Top shape: 24 256 28 28 (4816896)
I0403 15:25:39.605952 11947 net.cpp:148] Top shape: 24 256 28 28 (4816896)
I0403 15:25:39.605967 11947 net.cpp:156] Memory required for data: 657507360
I0403 15:25:39.605983 11947 layer_factory.hpp:77] Creating layer inception_3b/1x1
I0403 15:25:39.606003 11947 net.cpp:91] Creating Layer inception_3b/1x1
I0403 15:25:39.606020 11947 net.cpp:425] inception_3b/1x1 <- inception_3a/output_inception_3a/output_0_split_0
I0403 15:25:39.606042 11947 net.cpp:399] inception_3b/1x1 -> inception_3b/1x1
I0403 15:25:39.607244 11947 net.cpp:141] Setting up inception_3b/1x1
I0403 15:25:39.607285 11947 net.cpp:148] Top shape: 24 128 28 28 (2408448)
I0403 15:25:39.607302 11947 net.cpp:156] Memory required for data: 667141152
I0403 15:25:39.607321 11947 layer_factory.hpp:77] Creating layer inception_3b/relu_1x1
I0403 15:25:39.607343 11947 net.cpp:91] Creating Layer inception_3b/relu_1x1
I0403 15:25:39.607360 11947 net.cpp:425] inception_3b/relu_1x1 <- inception_3b/1x1
I0403 15:25:39.607378 11947 net.cpp:386] inception_3b/relu_1x1 -> inception_3b/1x1 (in-place)
I0403 15:25:39.607573 11947 net.cpp:141] Setting up inception_3b/relu_1x1
I0403 15:25:39.607601 11947 net.cpp:148] Top shape: 24 128 28 28 (2408448)
I0403 15:25:39.607617 11947 net.cpp:156] Memory required for data: 676774944
I0403 15:25:39.607635 11947 layer_factory.hpp:77] Creating layer inception_3b/3x3_reduce
I0403 15:25:39.607657 11947 net.cpp:91] Creating Layer inception_3b/3x3_reduce
I0403 15:25:39.607677 11947 net.cpp:425] inception_3b/3x3_reduce <- inception_3a/output_inception_3a/output_0_split_1
I0403 15:25:39.607697 11947 net.cpp:399] inception_3b/3x3_reduce -> inception_3b/3x3_reduce
I0403 15:25:39.608889 11947 net.cpp:141] Setting up inception_3b/3x3_reduce
I0403 15:25:39.608918 11947 net.cpp:148] Top shape: 24 128 28 28 (2408448)
I0403 15:25:39.608934 11947 net.cpp:156] Memory required for data: 686408736
I0403 15:25:39.608953 11947 layer_factory.hpp:77] Creating layer inception_3b/relu_3x3_reduce
I0403 15:25:39.608978 11947 net.cpp:91] Creating Layer inception_3b/relu_3x3_reduce
I0403 15:25:39.608996 11947 net.cpp:425] inception_3b/relu_3x3_reduce <- inception_3b/3x3_reduce
I0403 15:25:39.609014 11947 net.cpp:386] inception_3b/relu_3x3_reduce -> inception_3b/3x3_reduce (in-place)
I0403 15:25:39.609197 11947 net.cpp:141] Setting up inception_3b/relu_3x3_reduce
I0403 15:25:39.609225 11947 net.cpp:148] Top shape: 24 128 28 28 (2408448)
I0403 15:25:39.609242 11947 net.cpp:156] Memory required for data: 696042528
I0403 15:25:39.609258 11947 layer_factory.hpp:77] Creating layer inception_3b/3x3
I0403 15:25:39.609283 11947 net.cpp:91] Creating Layer inception_3b/3x3
I0403 15:25:39.609302 11947 net.cpp:425] inception_3b/3x3 <- inception_3b/3x3_reduce
I0403 15:25:39.609324 11947 net.cpp:399] inception_3b/3x3 -> inception_3b/3x3
I0403 15:25:39.612336 11947 net.cpp:141] Setting up inception_3b/3x3
I0403 15:25:39.612370 11947 net.cpp:148] Top shape: 24 192 28 28 (3612672)
I0403 15:25:39.612386 11947 net.cpp:156] Memory required for data: 710493216
I0403 15:25:39.612406 11947 layer_factory.hpp:77] Creating layer inception_3b/relu_3x3
I0403 15:25:39.612428 11947 net.cpp:91] Creating Layer inception_3b/relu_3x3
I0403 15:25:39.612445 11947 net.cpp:425] inception_3b/relu_3x3 <- inception_3b/3x3
I0403 15:25:39.612464 11947 net.cpp:386] inception_3b/relu_3x3 -> inception_3b/3x3 (in-place)
I0403 15:25:39.612748 11947 net.cpp:141] Setting up inception_3b/relu_3x3
I0403 15:25:39.612779 11947 net.cpp:148] Top shape: 24 192 28 28 (3612672)
I0403 15:25:39.612795 11947 net.cpp:156] Memory required for data: 724943904
I0403 15:25:39.612812 11947 layer_factory.hpp:77] Creating layer inception_3b/5x5_reduce
I0403 15:25:39.612834 11947 net.cpp:91] Creating Layer inception_3b/5x5_reduce
I0403 15:25:39.612851 11947 net.cpp:425] inception_3b/5x5_reduce <- inception_3a/output_inception_3a/output_0_split_2
I0403 15:25:39.612871 11947 net.cpp:399] inception_3b/5x5_reduce -> inception_3b/5x5_reduce
I0403 15:25:39.613895 11947 net.cpp:141] Setting up inception_3b/5x5_reduce
I0403 15:25:39.613924 11947 net.cpp:148] Top shape: 24 32 28 28 (602112)
I0403 15:25:39.613940 11947 net.cpp:156] Memory required for data: 727352352
I0403 15:25:39.613958 11947 layer_factory.hpp:77] Creating layer inception_3b/relu_5x5_reduce
I0403 15:25:39.613981 11947 net.cpp:91] Creating Layer inception_3b/relu_5x5_reduce
I0403 15:25:39.613997 11947 net.cpp:425] inception_3b/relu_5x5_reduce <- inception_3b/5x5_reduce
I0403 15:25:39.614015 11947 net.cpp:386] inception_3b/relu_5x5_reduce -> inception_3b/5x5_reduce (in-place)
I0403 15:25:39.614217 11947 net.cpp:141] Setting up inception_3b/relu_5x5_reduce
I0403 15:25:39.614243 11947 net.cpp:148] Top shape: 24 32 28 28 (602112)
I0403 15:25:39.614258 11947 net.cpp:156] Memory required for data: 729760800
I0403 15:25:39.614272 11947 layer_factory.hpp:77] Creating layer inception_3b/5x5
I0403 15:25:39.614295 11947 net.cpp:91] Creating Layer inception_3b/5x5
I0403 15:25:39.614312 11947 net.cpp:425] inception_3b/5x5 <- inception_3b/5x5_reduce
I0403 15:25:39.614333 11947 net.cpp:399] inception_3b/5x5 -> inception_3b/5x5
I0403 15:25:39.616355 11947 net.cpp:141] Setting up inception_3b/5x5
I0403 15:25:39.616384 11947 net.cpp:148] Top shape: 24 96 28 28 (1806336)
I0403 15:25:39.616401 11947 net.cpp:156] Memory required for data: 736986144
I0403 15:25:39.616425 11947 layer_factory.hpp:77] Creating layer inception_3b/relu_5x5
I0403 15:25:39.616447 11947 net.cpp:91] Creating Layer inception_3b/relu_5x5
I0403 15:25:39.616464 11947 net.cpp:425] inception_3b/relu_5x5 <- inception_3b/5x5
I0403 15:25:39.616482 11947 net.cpp:386] inception_3b/relu_5x5 -> inception_3b/5x5 (in-place)
I0403 15:25:39.616682 11947 net.cpp:141] Setting up inception_3b/relu_5x5
I0403 15:25:39.616706 11947 net.cpp:148] Top shape: 24 96 28 28 (1806336)
I0403 15:25:39.616722 11947 net.cpp:156] Memory required for data: 744211488
I0403 15:25:39.616737 11947 layer_factory.hpp:77] Creating layer inception_3b/pool
I0403 15:25:39.616756 11947 net.cpp:91] Creating Layer inception_3b/pool
I0403 15:25:39.616772 11947 net.cpp:425] inception_3b/pool <- inception_3a/output_inception_3a/output_0_split_3
I0403 15:25:39.616791 11947 net.cpp:399] inception_3b/pool -> inception_3b/pool
I0403 15:25:39.616847 11947 net.cpp:141] Setting up inception_3b/pool
I0403 15:25:39.616870 11947 net.cpp:148] Top shape: 24 256 28 28 (4816896)
I0403 15:25:39.616885 11947 net.cpp:156] Memory required for data: 763479072
I0403 15:25:39.616900 11947 layer_factory.hpp:77] Creating layer inception_3b/pool_proj
I0403 15:25:39.616924 11947 net.cpp:91] Creating Layer inception_3b/pool_proj
I0403 15:25:39.616941 11947 net.cpp:425] inception_3b/pool_proj <- inception_3b/pool
I0403 15:25:39.616962 11947 net.cpp:399] inception_3b/pool_proj -> inception_3b/pool_proj
I0403 15:25:39.618070 11947 net.cpp:141] Setting up inception_3b/pool_proj
I0403 15:25:39.618098 11947 net.cpp:148] Top shape: 24 64 28 28 (1204224)
I0403 15:25:39.618114 11947 net.cpp:156] Memory required for data: 768295968
I0403 15:25:39.618132 11947 layer_factory.hpp:77] Creating layer inception_3b/relu_pool_proj
I0403 15:25:39.618151 11947 net.cpp:91] Creating Layer inception_3b/relu_pool_proj
I0403 15:25:39.618167 11947 net.cpp:425] inception_3b/relu_pool_proj <- inception_3b/pool_proj
I0403 15:25:39.618190 11947 net.cpp:386] inception_3b/relu_pool_proj -> inception_3b/pool_proj (in-place)
I0403 15:25:39.618604 11947 net.cpp:141] Setting up inception_3b/relu_pool_proj
I0403 15:25:39.618633 11947 net.cpp:148] Top shape: 24 64 28 28 (1204224)
I0403 15:25:39.618649 11947 net.cpp:156] Memory required for data: 773112864
I0403 15:25:39.618665 11947 layer_factory.hpp:77] Creating layer inception_3b/output
I0403 15:25:39.618685 11947 net.cpp:91] Creating Layer inception_3b/output
I0403 15:25:39.618700 11947 net.cpp:425] inception_3b/output <- inception_3b/1x1
I0403 15:25:39.618717 11947 net.cpp:425] inception_3b/output <- inception_3b/3x3
I0403 15:25:39.618733 11947 net.cpp:425] inception_3b/output <- inception_3b/5x5
I0403 15:25:39.618749 11947 net.cpp:425] inception_3b/output <- inception_3b/pool_proj
I0403 15:25:39.618769 11947 net.cpp:399] inception_3b/output -> inception_3b/output
I0403 15:25:39.618813 11947 net.cpp:141] Setting up inception_3b/output
I0403 15:25:39.618837 11947 net.cpp:148] Top shape: 24 480 28 28 (9031680)
I0403 15:25:39.618851 11947 net.cpp:156] Memory required for data: 809239584
I0403 15:25:39.618866 11947 layer_factory.hpp:77] Creating layer pool3/3x3_s2
I0403 15:25:39.618886 11947 net.cpp:91] Creating Layer pool3/3x3_s2
I0403 15:25:39.618903 11947 net.cpp:425] pool3/3x3_s2 <- inception_3b/output
I0403 15:25:39.618937 11947 net.cpp:399] pool3/3x3_s2 -> pool3/3x3_s2
I0403 15:25:39.619000 11947 net.cpp:141] Setting up pool3/3x3_s2
I0403 15:25:39.619024 11947 net.cpp:148] Top shape: 24 480 14 14 (2257920)
I0403 15:25:39.619040 11947 net.cpp:156] Memory required for data: 818271264
I0403 15:25:39.619055 11947 layer_factory.hpp:77] Creating layer pool3/3x3_s2_pool3/3x3_s2_0_split
I0403 15:25:39.619071 11947 net.cpp:91] Creating Layer pool3/3x3_s2_pool3/3x3_s2_0_split
I0403 15:25:39.619086 11947 net.cpp:425] pool3/3x3_s2_pool3/3x3_s2_0_split <- pool3/3x3_s2
I0403 15:25:39.619107 11947 net.cpp:399] pool3/3x3_s2_pool3/3x3_s2_0_split -> pool3/3x3_s2_pool3/3x3_s2_0_split_0
I0403 15:25:39.619127 11947 net.cpp:399] pool3/3x3_s2_pool3/3x3_s2_0_split -> pool3/3x3_s2_pool3/3x3_s2_0_split_1
I0403 15:25:39.619148 11947 net.cpp:399] pool3/3x3_s2_pool3/3x3_s2_0_split -> pool3/3x3_s2_pool3/3x3_s2_0_split_2
I0403 15:25:39.619169 11947 net.cpp:399] pool3/3x3_s2_pool3/3x3_s2_0_split -> pool3/3x3_s2_pool3/3x3_s2_0_split_3
I0403 15:25:39.619246 11947 net.cpp:141] Setting up pool3/3x3_s2_pool3/3x3_s2_0_split
I0403 15:25:39.619269 11947 net.cpp:148] Top shape: 24 480 14 14 (2257920)
I0403 15:25:39.619287 11947 net.cpp:148] Top shape: 24 480 14 14 (2257920)
I0403 15:25:39.619302 11947 net.cpp:148] Top shape: 24 480 14 14 (2257920)
I0403 15:25:39.619318 11947 net.cpp:148] Top shape: 24 480 14 14 (2257920)
I0403 15:25:39.619333 11947 net.cpp:156] Memory required for data: 854397984
I0403 15:25:39.619348 11947 layer_factory.hpp:77] Creating layer inception_4a/1x1
I0403 15:25:39.619370 11947 net.cpp:91] Creating Layer inception_4a/1x1
I0403 15:25:39.619387 11947 net.cpp:425] inception_4a/1x1 <- pool3/3x3_s2_pool3/3x3_s2_0_split_0
I0403 15:25:39.619410 11947 net.cpp:399] inception_4a/1x1 -> inception_4a/1x1
I0403 15:25:39.621057 11947 net.cpp:141] Setting up inception_4a/1x1
I0403 15:25:39.621086 11947 net.cpp:148] Top shape: 24 192 14 14 (903168)
I0403 15:25:39.621104 11947 net.cpp:156] Memory required for data: 858010656
I0403 15:25:39.621122 11947 layer_factory.hpp:77] Creating layer inception_4a/relu_1x1
I0403 15:25:39.621141 11947 net.cpp:91] Creating Layer inception_4a/relu_1x1
I0403 15:25:39.621157 11947 net.cpp:425] inception_4a/relu_1x1 <- inception_4a/1x1
I0403 15:25:39.621177 11947 net.cpp:386] inception_4a/relu_1x1 -> inception_4a/1x1 (in-place)
I0403 15:25:39.621366 11947 net.cpp:141] Setting up inception_4a/relu_1x1
I0403 15:25:39.621392 11947 net.cpp:148] Top shape: 24 192 14 14 (903168)
I0403 15:25:39.621407 11947 net.cpp:156] Memory required for data: 861623328
I0403 15:25:39.621428 11947 layer_factory.hpp:77] Creating layer inception_4a/3x3_reduce
I0403 15:25:39.621451 11947 net.cpp:91] Creating Layer inception_4a/3x3_reduce
I0403 15:25:39.621470 11947 net.cpp:425] inception_4a/3x3_reduce <- pool3/3x3_s2_pool3/3x3_s2_0_split_1
I0403 15:25:39.621493 11947 net.cpp:399] inception_4a/3x3_reduce -> inception_4a/3x3_reduce
I0403 15:25:39.622859 11947 net.cpp:141] Setting up inception_4a/3x3_reduce
I0403 15:25:39.622889 11947 net.cpp:148] Top shape: 24 96 14 14 (451584)
I0403 15:25:39.622905 11947 net.cpp:156] Memory required for data: 863429664
I0403 15:25:39.622931 11947 layer_factory.hpp:77] Creating layer inception_4a/relu_3x3_reduce
I0403 15:25:39.622952 11947 net.cpp:91] Creating Layer inception_4a/relu_3x3_reduce
I0403 15:25:39.622968 11947 net.cpp:425] inception_4a/relu_3x3_reduce <- inception_4a/3x3_reduce
I0403 15:25:39.622989 11947 net.cpp:386] inception_4a/relu_3x3_reduce -> inception_4a/3x3_reduce (in-place)
I0403 15:25:39.623175 11947 net.cpp:141] Setting up inception_4a/relu_3x3_reduce
I0403 15:25:39.623201 11947 net.cpp:148] Top shape: 24 96 14 14 (451584)
I0403 15:25:39.623217 11947 net.cpp:156] Memory required for data: 865236000
I0403 15:25:39.623234 11947 layer_factory.hpp:77] Creating layer inception_4a/3x3
I0403 15:25:39.623256 11947 net.cpp:91] Creating Layer inception_4a/3x3
I0403 15:25:39.623275 11947 net.cpp:425] inception_4a/3x3 <- inception_4a/3x3_reduce
I0403 15:25:39.623301 11947 net.cpp:399] inception_4a/3x3 -> inception_4a/3x3
I0403 15:25:39.626132 11947 net.cpp:141] Setting up inception_4a/3x3
I0403 15:25:39.626162 11947 net.cpp:148] Top shape: 24 208 14 14 (978432)
I0403 15:25:39.626178 11947 net.cpp:156] Memory required for data: 869149728
I0403 15:25:39.626197 11947 layer_factory.hpp:77] Creating layer inception_4a/relu_3x3
I0403 15:25:39.626219 11947 net.cpp:91] Creating Layer inception_4a/relu_3x3
I0403 15:25:39.626236 11947 net.cpp:425] inception_4a/relu_3x3 <- inception_4a/3x3
I0403 15:25:39.626255 11947 net.cpp:386] inception_4a/relu_3x3 -> inception_4a/3x3 (in-place)
I0403 15:25:39.626552 11947 net.cpp:141] Setting up inception_4a/relu_3x3
I0403 15:25:39.626582 11947 net.cpp:148] Top shape: 24 208 14 14 (978432)
I0403 15:25:39.626600 11947 net.cpp:156] Memory required for data: 873063456
I0403 15:25:39.626615 11947 layer_factory.hpp:77] Creating layer inception_4a/5x5_reduce
I0403 15:25:39.626638 11947 net.cpp:91] Creating Layer inception_4a/5x5_reduce
I0403 15:25:39.626657 11947 net.cpp:425] inception_4a/5x5_reduce <- pool3/3x3_s2_pool3/3x3_s2_0_split_2
I0403 15:25:39.626679 11947 net.cpp:399] inception_4a/5x5_reduce -> inception_4a/5x5_reduce
I0403 15:25:39.627754 11947 net.cpp:141] Setting up inception_4a/5x5_reduce
I0403 15:25:39.627784 11947 net.cpp:148] Top shape: 24 16 14 14 (75264)
I0403 15:25:39.627799 11947 net.cpp:156] Memory required for data: 873364512
I0403 15:25:39.627820 11947 layer_factory.hpp:77] Creating layer inception_4a/relu_5x5_reduce
I0403 15:25:39.627841 11947 net.cpp:91] Creating Layer inception_4a/relu_5x5_reduce
I0403 15:25:39.627858 11947 net.cpp:425] inception_4a/relu_5x5_reduce <- inception_4a/5x5_reduce
I0403 15:25:39.627876 11947 net.cpp:386] inception_4a/relu_5x5_reduce -> inception_4a/5x5_reduce (in-place)
I0403 15:25:39.628070 11947 net.cpp:141] Setting up inception_4a/relu_5x5_reduce
I0403 15:25:39.628096 11947 net.cpp:148] Top shape: 24 16 14 14 (75264)
I0403 15:25:39.628113 11947 net.cpp:156] Memory required for data: 873665568
I0403 15:25:39.628128 11947 layer_factory.hpp:77] Creating layer inception_4a/5x5
I0403 15:25:39.628154 11947 net.cpp:91] Creating Layer inception_4a/5x5
I0403 15:25:39.628171 11947 net.cpp:425] inception_4a/5x5 <- inception_4a/5x5_reduce
I0403 15:25:39.628193 11947 net.cpp:399] inception_4a/5x5 -> inception_4a/5x5
I0403 15:25:39.629333 11947 net.cpp:141] Setting up inception_4a/5x5
I0403 15:25:39.629364 11947 net.cpp:148] Top shape: 24 48 14 14 (225792)
I0403 15:25:39.629381 11947 net.cpp:156] Memory required for data: 874568736
I0403 15:25:39.629401 11947 layer_factory.hpp:77] Creating layer inception_4a/relu_5x5
I0403 15:25:39.629426 11947 net.cpp:91] Creating Layer inception_4a/relu_5x5
I0403 15:25:39.629443 11947 net.cpp:425] inception_4a/relu_5x5 <- inception_4a/5x5
I0403 15:25:39.629464 11947 net.cpp:386] inception_4a/relu_5x5 -> inception_4a/5x5 (in-place)
I0403 15:25:39.629652 11947 net.cpp:141] Setting up inception_4a/relu_5x5
I0403 15:25:39.629678 11947 net.cpp:148] Top shape: 24 48 14 14 (225792)
I0403 15:25:39.629694 11947 net.cpp:156] Memory required for data: 875471904
I0403 15:25:39.629710 11947 layer_factory.hpp:77] Creating layer inception_4a/pool
I0403 15:25:39.629729 11947 net.cpp:91] Creating Layer inception_4a/pool
I0403 15:25:39.629745 11947 net.cpp:425] inception_4a/pool <- pool3/3x3_s2_pool3/3x3_s2_0_split_3
I0403 15:25:39.629766 11947 net.cpp:399] inception_4a/pool -> inception_4a/pool
I0403 15:25:39.629832 11947 net.cpp:141] Setting up inception_4a/pool
I0403 15:25:39.629856 11947 net.cpp:148] Top shape: 24 480 14 14 (2257920)
I0403 15:25:39.629871 11947 net.cpp:156] Memory required for data: 884503584
I0403 15:25:39.629886 11947 layer_factory.hpp:77] Creating layer inception_4a/pool_proj
I0403 15:25:39.629909 11947 net.cpp:91] Creating Layer inception_4a/pool_proj
I0403 15:25:39.629927 11947 net.cpp:425] inception_4a/pool_proj <- inception_4a/pool
I0403 15:25:39.629950 11947 net.cpp:399] inception_4a/pool_proj -> inception_4a/pool_proj
I0403 15:25:39.631176 11947 net.cpp:141] Setting up inception_4a/pool_proj
I0403 15:25:39.631206 11947 net.cpp:148] Top shape: 24 64 14 14 (301056)
I0403 15:25:39.631238 11947 net.cpp:156] Memory required for data: 885707808
I0403 15:25:39.631258 11947 layer_factory.hpp:77] Creating layer inception_4a/relu_pool_proj
I0403 15:25:39.631280 11947 net.cpp:91] Creating Layer inception_4a/relu_pool_proj
I0403 15:25:39.631299 11947 net.cpp:425] inception_4a/relu_pool_proj <- inception_4a/pool_proj
I0403 15:25:39.631317 11947 net.cpp:386] inception_4a/relu_pool_proj -> inception_4a/pool_proj (in-place)
I0403 15:25:39.631621 11947 net.cpp:141] Setting up inception_4a/relu_pool_proj
I0403 15:25:39.631649 11947 net.cpp:148] Top shape: 24 64 14 14 (301056)
I0403 15:25:39.631665 11947 net.cpp:156] Memory required for data: 886912032
I0403 15:25:39.631681 11947 layer_factory.hpp:77] Creating layer inception_4a/output
I0403 15:25:39.631700 11947 net.cpp:91] Creating Layer inception_4a/output
I0403 15:25:39.631716 11947 net.cpp:425] inception_4a/output <- inception_4a/1x1
I0403 15:25:39.631732 11947 net.cpp:425] inception_4a/output <- inception_4a/3x3
I0403 15:25:39.631749 11947 net.cpp:425] inception_4a/output <- inception_4a/5x5
I0403 15:25:39.631767 11947 net.cpp:425] inception_4a/output <- inception_4a/pool_proj
I0403 15:25:39.631786 11947 net.cpp:399] inception_4a/output -> inception_4a/output
I0403 15:25:39.631834 11947 net.cpp:141] Setting up inception_4a/output
I0403 15:25:39.631860 11947 net.cpp:148] Top shape: 24 512 14 14 (2408448)
I0403 15:25:39.631876 11947 net.cpp:156] Memory required for data: 896545824
I0403 15:25:39.631892 11947 layer_factory.hpp:77] Creating layer inception_4a/output_inception_4a/output_0_split
I0403 15:25:39.631911 11947 net.cpp:91] Creating Layer inception_4a/output_inception_4a/output_0_split
I0403 15:25:39.631927 11947 net.cpp:425] inception_4a/output_inception_4a/output_0_split <- inception_4a/output
I0403 15:25:39.631948 11947 net.cpp:399] inception_4a/output_inception_4a/output_0_split -> inception_4a/output_inception_4a/output_0_split_0
I0403 15:25:39.631970 11947 net.cpp:399] inception_4a/output_inception_4a/output_0_split -> inception_4a/output_inception_4a/output_0_split_1
I0403 15:25:39.631992 11947 net.cpp:399] inception_4a/output_inception_4a/output_0_split -> inception_4a/output_inception_4a/output_0_split_2
I0403 15:25:39.632014 11947 net.cpp:399] inception_4a/output_inception_4a/output_0_split -> inception_4a/output_inception_4a/output_0_split_3
I0403 15:25:39.632035 11947 net.cpp:399] inception_4a/output_inception_4a/output_0_split -> inception_4a/output_inception_4a/output_0_split_4
I0403 15:25:39.632129 11947 net.cpp:141] Setting up inception_4a/output_inception_4a/output_0_split
I0403 15:25:39.632153 11947 net.cpp:148] Top shape: 24 512 14 14 (2408448)
I0403 15:25:39.632170 11947 net.cpp:148] Top shape: 24 512 14 14 (2408448)
I0403 15:25:39.632186 11947 net.cpp:148] Top shape: 24 512 14 14 (2408448)
I0403 15:25:39.632202 11947 net.cpp:148] Top shape: 24 512 14 14 (2408448)
I0403 15:25:39.632218 11947 net.cpp:148] Top shape: 24 512 14 14 (2408448)
I0403 15:25:39.632232 11947 net.cpp:156] Memory required for data: 944714784
I0403 15:25:39.632248 11947 layer_factory.hpp:77] Creating layer loss1/ave_pool
I0403 15:25:39.632268 11947 net.cpp:91] Creating Layer loss1/ave_pool
I0403 15:25:39.632287 11947 net.cpp:425] loss1/ave_pool <- inception_4a/output_inception_4a/output_0_split_0
I0403 15:25:39.632304 11947 net.cpp:399] loss1/ave_pool -> loss1/ave_pool
I0403 15:25:39.632527 11947 net.cpp:141] Setting up loss1/ave_pool
I0403 15:25:39.632555 11947 net.cpp:148] Top shape: 24 512 4 4 (196608)
I0403 15:25:39.632573 11947 net.cpp:156] Memory required for data: 945501216
I0403 15:25:39.632589 11947 layer_factory.hpp:77] Creating layer loss1/conv
I0403 15:25:39.632612 11947 net.cpp:91] Creating Layer loss1/conv
I0403 15:25:39.632630 11947 net.cpp:425] loss1/conv <- loss1/ave_pool
I0403 15:25:39.632652 11947 net.cpp:399] loss1/conv -> loss1/conv
I0403 15:25:39.634150 11947 net.cpp:141] Setting up loss1/conv
I0403 15:25:39.634181 11947 net.cpp:148] Top shape: 24 128 4 4 (49152)
I0403 15:25:39.634212 11947 net.cpp:156] Memory required for data: 945697824
I0403 15:25:39.634232 11947 layer_factory.hpp:77] Creating layer loss1/relu_conv
I0403 15:25:39.634253 11947 net.cpp:91] Creating Layer loss1/relu_conv
I0403 15:25:39.634273 11947 net.cpp:425] loss1/relu_conv <- loss1/conv
I0403 15:25:39.634290 11947 net.cpp:386] loss1/relu_conv -> loss1/conv (in-place)
I0403 15:25:39.634596 11947 net.cpp:141] Setting up loss1/relu_conv
I0403 15:25:39.634624 11947 net.cpp:148] Top shape: 24 128 4 4 (49152)
I0403 15:25:39.634639 11947 net.cpp:156] Memory required for data: 945894432
I0403 15:25:39.634657 11947 layer_factory.hpp:77] Creating layer loss1/fc
I0403 15:25:39.634685 11947 net.cpp:91] Creating Layer loss1/fc
I0403 15:25:39.634704 11947 net.cpp:425] loss1/fc <- loss1/conv
I0403 15:25:39.634726 11947 net.cpp:399] loss1/fc -> loss1/fc
I0403 15:25:39.652871 11947 net.cpp:141] Setting up loss1/fc
I0403 15:25:39.652915 11947 net.cpp:148] Top shape: 24 1024 (24576)
I0403 15:25:39.652930 11947 net.cpp:156] Memory required for data: 945992736
I0403 15:25:39.652948 11947 layer_factory.hpp:77] Creating layer loss1/relu_fc
I0403 15:25:39.652967 11947 net.cpp:91] Creating Layer loss1/relu_fc
I0403 15:25:39.652984 11947 net.cpp:425] loss1/relu_fc <- loss1/fc
I0403 15:25:39.653004 11947 net.cpp:386] loss1/relu_fc -> loss1/fc (in-place)
I0403 15:25:39.653193 11947 net.cpp:141] Setting up loss1/relu_fc
I0403 15:25:39.653218 11947 net.cpp:148] Top shape: 24 1024 (24576)
I0403 15:25:39.653233 11947 net.cpp:156] Memory required for data: 946091040
I0403 15:25:39.653249 11947 layer_factory.hpp:77] Creating layer loss1/drop_fc
I0403 15:25:39.653277 11947 net.cpp:91] Creating Layer loss1/drop_fc
I0403 15:25:39.653295 11947 net.cpp:425] loss1/drop_fc <- loss1/fc
I0403 15:25:39.653311 11947 net.cpp:386] loss1/drop_fc -> loss1/fc (in-place)
I0403 15:25:39.653364 11947 net.cpp:141] Setting up loss1/drop_fc
I0403 15:25:39.653388 11947 net.cpp:148] Top shape: 24 1024 (24576)
I0403 15:25:39.653403 11947 net.cpp:156] Memory required for data: 946189344
I0403 15:25:39.653427 11947 layer_factory.hpp:77] Creating layer loss1/classifier_plantvillage
I0403 15:25:39.653448 11947 net.cpp:91] Creating Layer loss1/classifier_plantvillage
I0403 15:25:39.653465 11947 net.cpp:425] loss1/classifier_plantvillage <- loss1/fc
I0403 15:25:39.653486 11947 net.cpp:399] loss1/classifier_plantvillage -> loss1/classifier_plantvillage
I0403 15:25:39.654395 11947 net.cpp:141] Setting up loss1/classifier_plantvillage
I0403 15:25:39.654428 11947 net.cpp:148] Top shape: 24 38 (912)
I0403 15:25:39.654443 11947 net.cpp:156] Memory required for data: 946192992
I0403 15:25:39.654461 11947 layer_factory.hpp:77] Creating layer loss1/classifier_plantvillage_loss1/classifier_plantvillage_0_split
I0403 15:25:39.654482 11947 net.cpp:91] Creating Layer loss1/classifier_plantvillage_loss1/classifier_plantvillage_0_split
I0403 15:25:39.654498 11947 net.cpp:425] loss1/classifier_plantvillage_loss1/classifier_plantvillage_0_split <- loss1/classifier_plantvillage
I0403 15:25:39.654516 11947 net.cpp:399] loss1/classifier_plantvillage_loss1/classifier_plantvillage_0_split -> loss1/classifier_plantvillage_loss1/classifier_plantvillage_0_split_0
I0403 15:25:39.654536 11947 net.cpp:399] loss1/classifier_plantvillage_loss1/classifier_plantvillage_0_split -> loss1/classifier_plantvillage_loss1/classifier_plantvillage_0_split_1
I0403 15:25:39.654557 11947 net.cpp:399] loss1/classifier_plantvillage_loss1/classifier_plantvillage_0_split -> loss1/classifier_plantvillage_loss1/classifier_plantvillage_0_split_2
I0403 15:25:39.654626 11947 net.cpp:141] Setting up loss1/classifier_plantvillage_loss1/classifier_plantvillage_0_split
I0403 15:25:39.654649 11947 net.cpp:148] Top shape: 24 38 (912)
I0403 15:25:39.654665 11947 net.cpp:148] Top shape: 24 38 (912)
I0403 15:25:39.654680 11947 net.cpp:148] Top shape: 24 38 (912)
I0403 15:25:39.654695 11947 net.cpp:156] Memory required for data: 946203936
I0403 15:25:39.654709 11947 layer_factory.hpp:77] Creating layer inception_4b/1x1
I0403 15:25:39.654732 11947 net.cpp:91] Creating Layer inception_4b/1x1
I0403 15:25:39.654768 11947 net.cpp:425] inception_4b/1x1 <- inception_4a/output_inception_4a/output_0_split_1
I0403 15:25:39.654788 11947 net.cpp:399] inception_4b/1x1 -> inception_4b/1x1
I0403 15:25:39.656435 11947 net.cpp:141] Setting up inception_4b/1x1
I0403 15:25:39.656462 11947 net.cpp:148] Top shape: 24 160 14 14 (752640)
I0403 15:25:39.656478 11947 net.cpp:156] Memory required for data: 949214496
I0403 15:25:39.656497 11947 layer_factory.hpp:77] Creating layer inception_4b/relu_1x1
I0403 15:25:39.656517 11947 net.cpp:91] Creating Layer inception_4b/relu_1x1
I0403 15:25:39.656533 11947 net.cpp:425] inception_4b/relu_1x1 <- inception_4b/1x1
I0403 15:25:39.656550 11947 net.cpp:386] inception_4b/relu_1x1 -> inception_4b/1x1 (in-place)
I0403 15:25:39.656729 11947 net.cpp:141] Setting up inception_4b/relu_1x1
I0403 15:25:39.656754 11947 net.cpp:148] Top shape: 24 160 14 14 (752640)
I0403 15:25:39.656769 11947 net.cpp:156] Memory required for data: 952225056
I0403 15:25:39.656783 11947 layer_factory.hpp:77] Creating layer inception_4b/3x3_reduce
I0403 15:25:39.656805 11947 net.cpp:91] Creating Layer inception_4b/3x3_reduce
I0403 15:25:39.656822 11947 net.cpp:425] inception_4b/3x3_reduce <- inception_4a/output_inception_4a/output_0_split_2
I0403 15:25:39.656843 11947 net.cpp:399] inception_4b/3x3_reduce -> inception_4b/3x3_reduce
I0403 15:25:39.658181 11947 net.cpp:141] Setting up inception_4b/3x3_reduce
I0403 15:25:39.658212 11947 net.cpp:148] Top shape: 24 112 14 14 (526848)
I0403 15:25:39.658229 11947 net.cpp:156] Memory required for data: 954332448
I0403 15:25:39.658247 11947 layer_factory.hpp:77] Creating layer inception_4b/relu_3x3_reduce
I0403 15:25:39.658265 11947 net.cpp:91] Creating Layer inception_4b/relu_3x3_reduce
I0403 15:25:39.658282 11947 net.cpp:425] inception_4b/relu_3x3_reduce <- inception_4b/3x3_reduce
I0403 15:25:39.658300 11947 net.cpp:386] inception_4b/relu_3x3_reduce -> inception_4b/3x3_reduce (in-place)
I0403 15:25:39.658584 11947 net.cpp:141] Setting up inception_4b/relu_3x3_reduce
I0403 15:25:39.658613 11947 net.cpp:148] Top shape: 24 112 14 14 (526848)
I0403 15:25:39.658628 11947 net.cpp:156] Memory required for data: 956439840
I0403 15:25:39.658643 11947 layer_factory.hpp:77] Creating layer inception_4b/3x3
I0403 15:25:39.658668 11947 net.cpp:91] Creating Layer inception_4b/3x3
I0403 15:25:39.658685 11947 net.cpp:425] inception_4b/3x3 <- inception_4b/3x3_reduce
I0403 15:25:39.658704 11947 net.cpp:399] inception_4b/3x3 -> inception_4b/3x3
I0403 15:25:39.661689 11947 net.cpp:141] Setting up inception_4b/3x3
I0403 15:25:39.661717 11947 net.cpp:148] Top shape: 24 224 14 14 (1053696)
I0403 15:25:39.661734 11947 net.cpp:156] Memory required for data: 960654624
I0403 15:25:39.661753 11947 layer_factory.hpp:77] Creating layer inception_4b/relu_3x3
I0403 15:25:39.661774 11947 net.cpp:91] Creating Layer inception_4b/relu_3x3
I0403 15:25:39.661803 11947 net.cpp:425] inception_4b/relu_3x3 <- inception_4b/3x3
I0403 15:25:39.661820 11947 net.cpp:386] inception_4b/relu_3x3 -> inception_4b/3x3 (in-place)
I0403 15:25:39.662000 11947 net.cpp:141] Setting up inception_4b/relu_3x3
I0403 15:25:39.662025 11947 net.cpp:148] Top shape: 24 224 14 14 (1053696)
I0403 15:25:39.662040 11947 net.cpp:156] Memory required for data: 964869408
I0403 15:25:39.662055 11947 layer_factory.hpp:77] Creating layer inception_4b/5x5_reduce
I0403 15:25:39.662076 11947 net.cpp:91] Creating Layer inception_4b/5x5_reduce
I0403 15:25:39.662094 11947 net.cpp:425] inception_4b/5x5_reduce <- inception_4a/output_inception_4a/output_0_split_3
I0403 15:25:39.662117 11947 net.cpp:399] inception_4b/5x5_reduce -> inception_4b/5x5_reduce
I0403 15:25:39.663192 11947 net.cpp:141] Setting up inception_4b/5x5_reduce
I0403 15:25:39.663223 11947 net.cpp:148] Top shape: 24 24 14 14 (112896)
I0403 15:25:39.663239 11947 net.cpp:156] Memory required for data: 965320992
I0403 15:25:39.663257 11947 layer_factory.hpp:77] Creating layer inception_4b/relu_5x5_reduce
I0403 15:25:39.663275 11947 net.cpp:91] Creating Layer inception_4b/relu_5x5_reduce
I0403 15:25:39.663305 11947 net.cpp:425] inception_4b/relu_5x5_reduce <- inception_4b/5x5_reduce
I0403 15:25:39.663323 11947 net.cpp:386] inception_4b/relu_5x5_reduce -> inception_4b/5x5_reduce (in-place)
I0403 15:25:39.663522 11947 net.cpp:141] Setting up inception_4b/relu_5x5_reduce
I0403 15:25:39.663548 11947 net.cpp:148] Top shape: 24 24 14 14 (112896)
I0403 15:25:39.663563 11947 net.cpp:156] Memory required for data: 965772576
I0403 15:25:39.663578 11947 layer_factory.hpp:77] Creating layer inception_4b/5x5
I0403 15:25:39.663601 11947 net.cpp:91] Creating Layer inception_4b/5x5
I0403 15:25:39.663619 11947 net.cpp:425] inception_4b/5x5 <- inception_4b/5x5_reduce
I0403 15:25:39.663640 11947 net.cpp:399] inception_4b/5x5 -> inception_4b/5x5
I0403 15:25:39.664860 11947 net.cpp:141] Setting up inception_4b/5x5
I0403 15:25:39.664888 11947 net.cpp:148] Top shape: 24 64 14 14 (301056)
I0403 15:25:39.664903 11947 net.cpp:156] Memory required for data: 966976800
I0403 15:25:39.664921 11947 layer_factory.hpp:77] Creating layer inception_4b/relu_5x5
I0403 15:25:39.664942 11947 net.cpp:91] Creating Layer inception_4b/relu_5x5
I0403 15:25:39.664958 11947 net.cpp:425] inception_4b/relu_5x5 <- inception_4b/5x5
I0403 15:25:39.664975 11947 net.cpp:386] inception_4b/relu_5x5 -> inception_4b/5x5 (in-place)
I0403 15:25:39.665264 11947 net.cpp:141] Setting up inception_4b/relu_5x5
I0403 15:25:39.665290 11947 net.cpp:148] Top shape: 24 64 14 14 (301056)
I0403 15:25:39.665305 11947 net.cpp:156] Memory required for data: 968181024
I0403 15:25:39.665320 11947 layer_factory.hpp:77] Creating layer inception_4b/pool
I0403 15:25:39.665343 11947 net.cpp:91] Creating Layer inception_4b/pool
I0403 15:25:39.665360 11947 net.cpp:425] inception_4b/pool <- inception_4a/output_inception_4a/output_0_split_4
I0403 15:25:39.665380 11947 net.cpp:399] inception_4b/pool -> inception_4b/pool
I0403 15:25:39.665446 11947 net.cpp:141] Setting up inception_4b/pool
I0403 15:25:39.665470 11947 net.cpp:148] Top shape: 24 512 14 14 (2408448)
I0403 15:25:39.665485 11947 net.cpp:156] Memory required for data: 977814816
I0403 15:25:39.665500 11947 layer_factory.hpp:77] Creating layer inception_4b/pool_proj
I0403 15:25:39.665523 11947 net.cpp:91] Creating Layer inception_4b/pool_proj
I0403 15:25:39.665539 11947 net.cpp:425] inception_4b/pool_proj <- inception_4b/pool
I0403 15:25:39.665560 11947 net.cpp:399] inception_4b/pool_proj -> inception_4b/pool_proj
I0403 15:25:39.666769 11947 net.cpp:141] Setting up inception_4b/pool_proj
I0403 15:25:39.666796 11947 net.cpp:148] Top shape: 24 64 14 14 (301056)
I0403 15:25:39.666812 11947 net.cpp:156] Memory required for data: 979019040
I0403 15:25:39.666832 11947 layer_factory.hpp:77] Creating layer inception_4b/relu_pool_proj
I0403 15:25:39.666852 11947 net.cpp:91] Creating Layer inception_4b/relu_pool_proj
I0403 15:25:39.666867 11947 net.cpp:425] inception_4b/relu_pool_proj <- inception_4b/pool_proj
I0403 15:25:39.666884 11947 net.cpp:386] inception_4b/relu_pool_proj -> inception_4b/pool_proj (in-place)
I0403 15:25:39.667070 11947 net.cpp:141] Setting up inception_4b/relu_pool_proj
I0403 15:25:39.667095 11947 net.cpp:148] Top shape: 24 64 14 14 (301056)
I0403 15:25:39.667110 11947 net.cpp:156] Memory required for data: 980223264
I0403 15:25:39.667124 11947 layer_factory.hpp:77] Creating layer inception_4b/output
I0403 15:25:39.667141 11947 net.cpp:91] Creating Layer inception_4b/output
I0403 15:25:39.667157 11947 net.cpp:425] inception_4b/output <- inception_4b/1x1
I0403 15:25:39.667173 11947 net.cpp:425] inception_4b/output <- inception_4b/3x3
I0403 15:25:39.667189 11947 net.cpp:425] inception_4b/output <- inception_4b/5x5
I0403 15:25:39.667206 11947 net.cpp:425] inception_4b/output <- inception_4b/pool_proj
I0403 15:25:39.667224 11947 net.cpp:399] inception_4b/output -> inception_4b/output
I0403 15:25:39.667269 11947 net.cpp:141] Setting up inception_4b/output
I0403 15:25:39.667294 11947 net.cpp:148] Top shape: 24 512 14 14 (2408448)
I0403 15:25:39.667309 11947 net.cpp:156] Memory required for data: 989857056
I0403 15:25:39.667338 11947 layer_factory.hpp:77] Creating layer inception_4b/output_inception_4b/output_0_split
I0403 15:25:39.667357 11947 net.cpp:91] Creating Layer inception_4b/output_inception_4b/output_0_split
I0403 15:25:39.667373 11947 net.cpp:425] inception_4b/output_inception_4b/output_0_split <- inception_4b/output
I0403 15:25:39.667389 11947 net.cpp:399] inception_4b/output_inception_4b/output_0_split -> inception_4b/output_inception_4b/output_0_split_0
I0403 15:25:39.667413 11947 net.cpp:399] inception_4b/output_inception_4b/output_0_split -> inception_4b/output_inception_4b/output_0_split_1
I0403 15:25:39.667438 11947 net.cpp:399] inception_4b/output_inception_4b/output_0_split -> inception_4b/output_inception_4b/output_0_split_2
I0403 15:25:39.667459 11947 net.cpp:399] inception_4b/output_inception_4b/output_0_split -> inception_4b/output_inception_4b/output_0_split_3
I0403 15:25:39.667541 11947 net.cpp:141] Setting up inception_4b/output_inception_4b/output_0_split
I0403 15:25:39.667565 11947 net.cpp:148] Top shape: 24 512 14 14 (2408448)
I0403 15:25:39.667582 11947 net.cpp:148] Top shape: 24 512 14 14 (2408448)
I0403 15:25:39.667598 11947 net.cpp:148] Top shape: 24 512 14 14 (2408448)
I0403 15:25:39.667613 11947 net.cpp:148] Top shape: 24 512 14 14 (2408448)
I0403 15:25:39.667626 11947 net.cpp:156] Memory required for data: 1028392224
I0403 15:25:39.667640 11947 layer_factory.hpp:77] Creating layer inception_4c/1x1
I0403 15:25:39.667662 11947 net.cpp:91] Creating Layer inception_4c/1x1
I0403 15:25:39.667680 11947 net.cpp:425] inception_4c/1x1 <- inception_4b/output_inception_4b/output_0_split_0
I0403 15:25:39.667701 11947 net.cpp:399] inception_4c/1x1 -> inception_4c/1x1
I0403 15:25:39.669131 11947 net.cpp:141] Setting up inception_4c/1x1
I0403 15:25:39.669159 11947 net.cpp:148] Top shape: 24 128 14 14 (602112)
I0403 15:25:39.669175 11947 net.cpp:156] Memory required for data: 1030800672
I0403 15:25:39.669193 11947 layer_factory.hpp:77] Creating layer inception_4c/relu_1x1
I0403 15:25:39.669211 11947 net.cpp:91] Creating Layer inception_4c/relu_1x1
I0403 15:25:39.669227 11947 net.cpp:425] inception_4c/relu_1x1 <- inception_4c/1x1
I0403 15:25:39.669246 11947 net.cpp:386] inception_4c/relu_1x1 -> inception_4c/1x1 (in-place)
I0403 15:25:39.669428 11947 net.cpp:141] Setting up inception_4c/relu_1x1
I0403 15:25:39.669453 11947 net.cpp:148] Top shape: 24 128 14 14 (602112)
I0403 15:25:39.669468 11947 net.cpp:156] Memory required for data: 1033209120
I0403 15:25:39.669482 11947 layer_factory.hpp:77] Creating layer inception_4c/3x3_reduce
I0403 15:25:39.669504 11947 net.cpp:91] Creating Layer inception_4c/3x3_reduce
I0403 15:25:39.669522 11947 net.cpp:425] inception_4c/3x3_reduce <- inception_4b/output_inception_4b/output_0_split_1
I0403 15:25:39.669546 11947 net.cpp:399] inception_4c/3x3_reduce -> inception_4c/3x3_reduce
I0403 15:25:39.671540 11947 net.cpp:141] Setting up inception_4c/3x3_reduce
I0403 15:25:39.671569 11947 net.cpp:148] Top shape: 24 128 14 14 (602112)
I0403 15:25:39.671586 11947 net.cpp:156] Memory required for data: 1035617568
I0403 15:25:39.671604 11947 layer_factory.hpp:77] Creating layer inception_4c/relu_3x3_reduce
I0403 15:25:39.671625 11947 net.cpp:91] Creating Layer inception_4c/relu_3x3_reduce
I0403 15:25:39.671643 11947 net.cpp:425] inception_4c/relu_3x3_reduce <- inception_4c/3x3_reduce
I0403 15:25:39.671660 11947 net.cpp:386] inception_4c/relu_3x3_reduce -> inception_4c/3x3_reduce (in-place)
I0403 15:25:39.671957 11947 net.cpp:141] Setting up inception_4c/relu_3x3_reduce
I0403 15:25:39.671983 11947 net.cpp:148] Top shape: 24 128 14 14 (602112)
I0403 15:25:39.671998 11947 net.cpp:156] Memory required for data: 1038026016
I0403 15:25:39.672013 11947 layer_factory.hpp:77] Creating layer inception_4c/3x3
I0403 15:25:39.672036 11947 net.cpp:91] Creating Layer inception_4c/3x3
I0403 15:25:39.672055 11947 net.cpp:425] inception_4c/3x3 <- inception_4c/3x3_reduce
I0403 15:25:39.672076 11947 net.cpp:399] inception_4c/3x3 -> inception_4c/3x3
I0403 15:25:39.675796 11947 net.cpp:141] Setting up inception_4c/3x3
I0403 15:25:39.675837 11947 net.cpp:148] Top shape: 24 256 14 14 (1204224)
I0403 15:25:39.675854 11947 net.cpp:156] Memory required for data: 1042842912
I0403 15:25:39.675886 11947 layer_factory.hpp:77] Creating layer inception_4c/relu_3x3
I0403 15:25:39.675909 11947 net.cpp:91] Creating Layer inception_4c/relu_3x3
I0403 15:25:39.675927 11947 net.cpp:425] inception_4c/relu_3x3 <- inception_4c/3x3
I0403 15:25:39.675945 11947 net.cpp:386] inception_4c/relu_3x3 -> inception_4c/3x3 (in-place)
I0403 15:25:39.676132 11947 net.cpp:141] Setting up inception_4c/relu_3x3
I0403 15:25:39.676161 11947 net.cpp:148] Top shape: 24 256 14 14 (1204224)
I0403 15:25:39.676177 11947 net.cpp:156] Memory required for data: 1047659808
I0403 15:25:39.676192 11947 layer_factory.hpp:77] Creating layer inception_4c/5x5_reduce
I0403 15:25:39.676215 11947 net.cpp:91] Creating Layer inception_4c/5x5_reduce
I0403 15:25:39.676234 11947 net.cpp:425] inception_4c/5x5_reduce <- inception_4b/output_inception_4b/output_0_split_2
I0403 15:25:39.676252 11947 net.cpp:399] inception_4c/5x5_reduce -> inception_4c/5x5_reduce
I0403 15:25:39.677368 11947 net.cpp:141] Setting up inception_4c/5x5_reduce
I0403 15:25:39.677399 11947 net.cpp:148] Top shape: 24 24 14 14 (112896)
I0403 15:25:39.677422 11947 net.cpp:156] Memory required for data: 1048111392
I0403 15:25:39.677440 11947 layer_factory.hpp:77] Creating layer inception_4c/relu_5x5_reduce
I0403 15:25:39.677459 11947 net.cpp:91] Creating Layer inception_4c/relu_5x5_reduce
I0403 15:25:39.677476 11947 net.cpp:425] inception_4c/relu_5x5_reduce <- inception_4c/5x5_reduce
I0403 15:25:39.677494 11947 net.cpp:386] inception_4c/relu_5x5_reduce -> inception_4c/5x5_reduce (in-place)
I0403 15:25:39.677685 11947 net.cpp:141] Setting up inception_4c/relu_5x5_reduce
I0403 15:25:39.677712 11947 net.cpp:148] Top shape: 24 24 14 14 (112896)
I0403 15:25:39.677728 11947 net.cpp:156] Memory required for data: 1048562976
I0403 15:25:39.677744 11947 layer_factory.hpp:77] Creating layer inception_4c/5x5
I0403 15:25:39.677769 11947 net.cpp:91] Creating Layer inception_4c/5x5
I0403 15:25:39.677786 11947 net.cpp:425] inception_4c/5x5 <- inception_4c/5x5_reduce
I0403 15:25:39.677809 11947 net.cpp:399] inception_4c/5x5 -> inception_4c/5x5
I0403 15:25:39.679088 11947 net.cpp:141] Setting up inception_4c/5x5
I0403 15:25:39.679116 11947 net.cpp:148] Top shape: 24 64 14 14 (301056)
I0403 15:25:39.679132 11947 net.cpp:156] Memory required for data: 1049767200
I0403 15:25:39.679152 11947 layer_factory.hpp:77] Creating layer inception_4c/relu_5x5
I0403 15:25:39.679169 11947 net.cpp:91] Creating Layer inception_4c/relu_5x5
I0403 15:25:39.679185 11947 net.cpp:425] inception_4c/relu_5x5 <- inception_4c/5x5
I0403 15:25:39.679205 11947 net.cpp:386] inception_4c/relu_5x5 -> inception_4c/5x5 (in-place)
I0403 15:25:39.679514 11947 net.cpp:141] Setting up inception_4c/relu_5x5
I0403 15:25:39.679541 11947 net.cpp:148] Top shape: 24 64 14 14 (301056)
I0403 15:25:39.679556 11947 net.cpp:156] Memory required for data: 1050971424
I0403 15:25:39.679574 11947 layer_factory.hpp:77] Creating layer inception_4c/pool
I0403 15:25:39.679591 11947 net.cpp:91] Creating Layer inception_4c/pool
I0403 15:25:39.679607 11947 net.cpp:425] inception_4c/pool <- inception_4b/output_inception_4b/output_0_split_3
I0403 15:25:39.679628 11947 net.cpp:399] inception_4c/pool -> inception_4c/pool
I0403 15:25:39.679695 11947 net.cpp:141] Setting up inception_4c/pool
I0403 15:25:39.679719 11947 net.cpp:148] Top shape: 24 512 14 14 (2408448)
I0403 15:25:39.679734 11947 net.cpp:156] Memory required for data: 1060605216
I0403 15:25:39.679749 11947 layer_factory.hpp:77] Creating layer inception_4c/pool_proj
I0403 15:25:39.679772 11947 net.cpp:91] Creating Layer inception_4c/pool_proj
I0403 15:25:39.679790 11947 net.cpp:425] inception_4c/pool_proj <- inception_4c/pool
I0403 15:25:39.679810 11947 net.cpp:399] inception_4c/pool_proj -> inception_4c/pool_proj
I0403 15:25:39.681076 11947 net.cpp:141] Setting up inception_4c/pool_proj
I0403 15:25:39.681103 11947 net.cpp:148] Top shape: 24 64 14 14 (301056)
I0403 15:25:39.681134 11947 net.cpp:156] Memory required for data: 1061809440
I0403 15:25:39.681154 11947 layer_factory.hpp:77] Creating layer inception_4c/relu_pool_proj
I0403 15:25:39.681175 11947 net.cpp:91] Creating Layer inception_4c/relu_pool_proj
I0403 15:25:39.681192 11947 net.cpp:425] inception_4c/relu_pool_proj <- inception_4c/pool_proj
I0403 15:25:39.681210 11947 net.cpp:386] inception_4c/relu_pool_proj -> inception_4c/pool_proj (in-place)
I0403 15:25:39.681402 11947 net.cpp:141] Setting up inception_4c/relu_pool_proj
I0403 15:25:39.681432 11947 net.cpp:148] Top shape: 24 64 14 14 (301056)
I0403 15:25:39.681447 11947 net.cpp:156] Memory required for data: 1063013664
I0403 15:25:39.681463 11947 layer_factory.hpp:77] Creating layer inception_4c/output
I0403 15:25:39.681480 11947 net.cpp:91] Creating Layer inception_4c/output
I0403 15:25:39.681496 11947 net.cpp:425] inception_4c/output <- inception_4c/1x1
I0403 15:25:39.681514 11947 net.cpp:425] inception_4c/output <- inception_4c/3x3
I0403 15:25:39.681529 11947 net.cpp:425] inception_4c/output <- inception_4c/5x5
I0403 15:25:39.681545 11947 net.cpp:425] inception_4c/output <- inception_4c/pool_proj
I0403 15:25:39.681565 11947 net.cpp:399] inception_4c/output -> inception_4c/output
I0403 15:25:39.681612 11947 net.cpp:141] Setting up inception_4c/output
I0403 15:25:39.681641 11947 net.cpp:148] Top shape: 24 512 14 14 (2408448)
I0403 15:25:39.681658 11947 net.cpp:156] Memory required for data: 1072647456
I0403 15:25:39.681673 11947 layer_factory.hpp:77] Creating layer inception_4c/output_inception_4c/output_0_split
I0403 15:25:39.681689 11947 net.cpp:91] Creating Layer inception_4c/output_inception_4c/output_0_split
I0403 15:25:39.681705 11947 net.cpp:425] inception_4c/output_inception_4c/output_0_split <- inception_4c/output
I0403 15:25:39.681723 11947 net.cpp:399] inception_4c/output_inception_4c/output_0_split -> inception_4c/output_inception_4c/output_0_split_0
I0403 15:25:39.681745 11947 net.cpp:399] inception_4c/output_inception_4c/output_0_split -> inception_4c/output_inception_4c/output_0_split_1
I0403 15:25:39.681767 11947 net.cpp:399] inception_4c/output_inception_4c/output_0_split -> inception_4c/output_inception_4c/output_0_split_2
I0403 15:25:39.681792 11947 net.cpp:399] inception_4c/output_inception_4c/output_0_split -> inception_4c/output_inception_4c/output_0_split_3
I0403 15:25:39.681880 11947 net.cpp:141] Setting up inception_4c/output_inception_4c/output_0_split
I0403 15:25:39.681912 11947 net.cpp:148] Top shape: 24 512 14 14 (2408448)
I0403 15:25:39.681929 11947 net.cpp:148] Top shape: 24 512 14 14 (2408448)
I0403 15:25:39.681946 11947 net.cpp:148] Top shape: 24 512 14 14 (2408448)
I0403 15:25:39.681962 11947 net.cpp:148] Top shape: 24 512 14 14 (2408448)
I0403 15:25:39.681975 11947 net.cpp:156] Memory required for data: 1111182624
I0403 15:25:39.681990 11947 layer_factory.hpp:77] Creating layer inception_4d/1x1
I0403 15:25:39.682013 11947 net.cpp:91] Creating Layer inception_4d/1x1
I0403 15:25:39.682031 11947 net.cpp:425] inception_4d/1x1 <- inception_4c/output_inception_4c/output_0_split_0
I0403 15:25:39.682052 11947 net.cpp:399] inception_4d/1x1 -> inception_4d/1x1
I0403 15:25:39.683487 11947 net.cpp:141] Setting up inception_4d/1x1
I0403 15:25:39.683516 11947 net.cpp:148] Top shape: 24 112 14 14 (526848)
I0403 15:25:39.683532 11947 net.cpp:156] Memory required for data: 1113290016
I0403 15:25:39.683550 11947 layer_factory.hpp:77] Creating layer inception_4d/relu_1x1
I0403 15:25:39.683571 11947 net.cpp:91] Creating Layer inception_4d/relu_1x1
I0403 15:25:39.683588 11947 net.cpp:425] inception_4d/relu_1x1 <- inception_4d/1x1
I0403 15:25:39.683606 11947 net.cpp:386] inception_4d/relu_1x1 -> inception_4d/1x1 (in-place)
I0403 15:25:39.683797 11947 net.cpp:141] Setting up inception_4d/relu_1x1
I0403 15:25:39.683825 11947 net.cpp:148] Top shape: 24 112 14 14 (526848)
I0403 15:25:39.683840 11947 net.cpp:156] Memory required for data: 1115397408
I0403 15:25:39.683856 11947 layer_factory.hpp:77] Creating layer inception_4d/3x3_reduce
I0403 15:25:39.683892 11947 net.cpp:91] Creating Layer inception_4d/3x3_reduce
I0403 15:25:39.683912 11947 net.cpp:425] inception_4d/3x3_reduce <- inception_4c/output_inception_4c/output_0_split_1
I0403 15:25:39.683933 11947 net.cpp:399] inception_4d/3x3_reduce -> inception_4d/3x3_reduce
I0403 15:25:39.685494 11947 net.cpp:141] Setting up inception_4d/3x3_reduce
I0403 15:25:39.685523 11947 net.cpp:148] Top shape: 24 144 14 14 (677376)
I0403 15:25:39.685539 11947 net.cpp:156] Memory required for data: 1118106912
I0403 15:25:39.685556 11947 layer_factory.hpp:77] Creating layer inception_4d/relu_3x3_reduce
I0403 15:25:39.685577 11947 net.cpp:91] Creating Layer inception_4d/relu_3x3_reduce
I0403 15:25:39.685597 11947 net.cpp:425] inception_4d/relu_3x3_reduce <- inception_4d/3x3_reduce
I0403 15:25:39.685621 11947 net.cpp:386] inception_4d/relu_3x3_reduce -> inception_4d/3x3_reduce (in-place)
I0403 15:25:39.685923 11947 net.cpp:141] Setting up inception_4d/relu_3x3_reduce
I0403 15:25:39.685950 11947 net.cpp:148] Top shape: 24 144 14 14 (677376)
I0403 15:25:39.685966 11947 net.cpp:156] Memory required for data: 1120816416
I0403 15:25:39.685982 11947 layer_factory.hpp:77] Creating layer inception_4d/3x3
I0403 15:25:39.686005 11947 net.cpp:91] Creating Layer inception_4d/3x3
I0403 15:25:39.686025 11947 net.cpp:425] inception_4d/3x3 <- inception_4d/3x3_reduce
I0403 15:25:39.686046 11947 net.cpp:399] inception_4d/3x3 -> inception_4d/3x3
I0403 15:25:39.690527 11947 net.cpp:141] Setting up inception_4d/3x3
I0403 15:25:39.690557 11947 net.cpp:148] Top shape: 24 288 14 14 (1354752)
I0403 15:25:39.690574 11947 net.cpp:156] Memory required for data: 1126235424
I0403 15:25:39.690593 11947 layer_factory.hpp:77] Creating layer inception_4d/relu_3x3
I0403 15:25:39.690614 11947 net.cpp:91] Creating Layer inception_4d/relu_3x3
I0403 15:25:39.690632 11947 net.cpp:425] inception_4d/relu_3x3 <- inception_4d/3x3
I0403 15:25:39.690650 11947 net.cpp:386] inception_4d/relu_3x3 -> inception_4d/3x3 (in-place)
I0403 15:25:39.690845 11947 net.cpp:141] Setting up inception_4d/relu_3x3
I0403 15:25:39.690872 11947 net.cpp:148] Top shape: 24 288 14 14 (1354752)
I0403 15:25:39.690888 11947 net.cpp:156] Memory required for data: 1131654432
I0403 15:25:39.690903 11947 layer_factory.hpp:77] Creating layer inception_4d/5x5_reduce
I0403 15:25:39.690927 11947 net.cpp:91] Creating Layer inception_4d/5x5_reduce
I0403 15:25:39.690944 11947 net.cpp:425] inception_4d/5x5_reduce <- inception_4c/output_inception_4c/output_0_split_2
I0403 15:25:39.690963 11947 net.cpp:399] inception_4d/5x5_reduce -> inception_4d/5x5_reduce
I0403 15:25:39.692185 11947 net.cpp:141] Setting up inception_4d/5x5_reduce
I0403 15:25:39.692214 11947 net.cpp:148] Top shape: 24 32 14 14 (150528)
I0403 15:25:39.692229 11947 net.cpp:156] Memory required for data: 1132256544
I0403 15:25:39.692247 11947 layer_factory.hpp:77] Creating layer inception_4d/relu_5x5_reduce
I0403 15:25:39.692268 11947 net.cpp:91] Creating Layer inception_4d/relu_5x5_reduce
I0403 15:25:39.692286 11947 net.cpp:425] inception_4d/relu_5x5_reduce <- inception_4d/5x5_reduce
I0403 15:25:39.692303 11947 net.cpp:386] inception_4d/relu_5x5_reduce -> inception_4d/5x5_reduce (in-place)
I0403 15:25:39.692500 11947 net.cpp:141] Setting up inception_4d/relu_5x5_reduce
I0403 15:25:39.692529 11947 net.cpp:148] Top shape: 24 32 14 14 (150528)
I0403 15:25:39.692545 11947 net.cpp:156] Memory required for data: 1132858656
I0403 15:25:39.692561 11947 layer_factory.hpp:77] Creating layer inception_4d/5x5
I0403 15:25:39.692585 11947 net.cpp:91] Creating Layer inception_4d/5x5
I0403 15:25:39.692603 11947 net.cpp:425] inception_4d/5x5 <- inception_4d/5x5_reduce
I0403 15:25:39.692622 11947 net.cpp:399] inception_4d/5x5 -> inception_4d/5x5
I0403 15:25:39.694195 11947 net.cpp:141] Setting up inception_4d/5x5
I0403 15:25:39.694226 11947 net.cpp:148] Top shape: 24 64 14 14 (301056)
I0403 15:25:39.694243 11947 net.cpp:156] Memory required for data: 1134062880
I0403 15:25:39.694263 11947 layer_factory.hpp:77] Creating layer inception_4d/relu_5x5
I0403 15:25:39.694298 11947 net.cpp:91] Creating Layer inception_4d/relu_5x5
I0403 15:25:39.694315 11947 net.cpp:425] inception_4d/relu_5x5 <- inception_4d/5x5
I0403 15:25:39.694336 11947 net.cpp:386] inception_4d/relu_5x5 -> inception_4d/5x5 (in-place)
I0403 15:25:39.694659 11947 net.cpp:141] Setting up inception_4d/relu_5x5
I0403 15:25:39.694689 11947 net.cpp:148] Top shape: 24 64 14 14 (301056)
I0403 15:25:39.694705 11947 net.cpp:156] Memory required for data: 1135267104
I0403 15:25:39.694721 11947 layer_factory.hpp:77] Creating layer inception_4d/pool
I0403 15:25:39.694741 11947 net.cpp:91] Creating Layer inception_4d/pool
I0403 15:25:39.694756 11947 net.cpp:425] inception_4d/pool <- inception_4c/output_inception_4c/output_0_split_3
I0403 15:25:39.694777 11947 net.cpp:399] inception_4d/pool -> inception_4d/pool
I0403 15:25:39.694846 11947 net.cpp:141] Setting up inception_4d/pool
I0403 15:25:39.694871 11947 net.cpp:148] Top shape: 24 512 14 14 (2408448)
I0403 15:25:39.694887 11947 net.cpp:156] Memory required for data: 1144900896
I0403 15:25:39.694902 11947 layer_factory.hpp:77] Creating layer inception_4d/pool_proj
I0403 15:25:39.694926 11947 net.cpp:91] Creating Layer inception_4d/pool_proj
I0403 15:25:39.694943 11947 net.cpp:425] inception_4d/pool_proj <- inception_4d/pool
I0403 15:25:39.694963 11947 net.cpp:399] inception_4d/pool_proj -> inception_4d/pool_proj
I0403 15:25:39.696841 11947 net.cpp:141] Setting up inception_4d/pool_proj
I0403 15:25:39.696871 11947 net.cpp:148] Top shape: 24 64 14 14 (301056)
I0403 15:25:39.696887 11947 net.cpp:156] Memory required for data: 1146105120
I0403 15:25:39.696905 11947 layer_factory.hpp:77] Creating layer inception_4d/relu_pool_proj
I0403 15:25:39.696928 11947 net.cpp:91] Creating Layer inception_4d/relu_pool_proj
I0403 15:25:39.696944 11947 net.cpp:425] inception_4d/relu_pool_proj <- inception_4d/pool_proj
I0403 15:25:39.696962 11947 net.cpp:386] inception_4d/relu_pool_proj -> inception_4d/pool_proj (in-place)
I0403 15:25:39.697157 11947 net.cpp:141] Setting up inception_4d/relu_pool_proj
I0403 15:25:39.697185 11947 net.cpp:148] Top shape: 24 64 14 14 (301056)
I0403 15:25:39.697201 11947 net.cpp:156] Memory required for data: 1147309344
I0403 15:25:39.697217 11947 layer_factory.hpp:77] Creating layer inception_4d/output
I0403 15:25:39.697234 11947 net.cpp:91] Creating Layer inception_4d/output
I0403 15:25:39.697250 11947 net.cpp:425] inception_4d/output <- inception_4d/1x1
I0403 15:25:39.697268 11947 net.cpp:425] inception_4d/output <- inception_4d/3x3
I0403 15:25:39.697283 11947 net.cpp:425] inception_4d/output <- inception_4d/5x5
I0403 15:25:39.697300 11947 net.cpp:425] inception_4d/output <- inception_4d/pool_proj
I0403 15:25:39.697319 11947 net.cpp:399] inception_4d/output -> inception_4d/output
I0403 15:25:39.697368 11947 net.cpp:141] Setting up inception_4d/output
I0403 15:25:39.697392 11947 net.cpp:148] Top shape: 24 528 14 14 (2483712)
I0403 15:25:39.697407 11947 net.cpp:156] Memory required for data: 1157244192
I0403 15:25:39.697427 11947 layer_factory.hpp:77] Creating layer inception_4d/output_inception_4d/output_0_split
I0403 15:25:39.697451 11947 net.cpp:91] Creating Layer inception_4d/output_inception_4d/output_0_split
I0403 15:25:39.697468 11947 net.cpp:425] inception_4d/output_inception_4d/output_0_split <- inception_4d/output
I0403 15:25:39.697487 11947 net.cpp:399] inception_4d/output_inception_4d/output_0_split -> inception_4d/output_inception_4d/output_0_split_0
I0403 15:25:39.697509 11947 net.cpp:399] inception_4d/output_inception_4d/output_0_split -> inception_4d/output_inception_4d/output_0_split_1
I0403 15:25:39.697532 11947 net.cpp:399] inception_4d/output_inception_4d/output_0_split -> inception_4d/output_inception_4d/output_0_split_2
I0403 15:25:39.697556 11947 net.cpp:399] inception_4d/output_inception_4d/output_0_split -> inception_4d/output_inception_4d/output_0_split_3
I0403 15:25:39.697576 11947 net.cpp:399] inception_4d/output_inception_4d/output_0_split -> inception_4d/output_inception_4d/output_0_split_4
I0403 15:25:39.697679 11947 net.cpp:141] Setting up inception_4d/output_inception_4d/output_0_split
I0403 15:25:39.697715 11947 net.cpp:148] Top shape: 24 528 14 14 (2483712)
I0403 15:25:39.697733 11947 net.cpp:148] Top shape: 24 528 14 14 (2483712)
I0403 15:25:39.697749 11947 net.cpp:148] Top shape: 24 528 14 14 (2483712)
I0403 15:25:39.697765 11947 net.cpp:148] Top shape: 24 528 14 14 (2483712)
I0403 15:25:39.697780 11947 net.cpp:148] Top shape: 24 528 14 14 (2483712)
I0403 15:25:39.697795 11947 net.cpp:156] Memory required for data: 1206918432
I0403 15:25:39.697810 11947 layer_factory.hpp:77] Creating layer loss2/ave_pool
I0403 15:25:39.697829 11947 net.cpp:91] Creating Layer loss2/ave_pool
I0403 15:25:39.697844 11947 net.cpp:425] loss2/ave_pool <- inception_4d/output_inception_4d/output_0_split_0
I0403 15:25:39.697866 11947 net.cpp:399] loss2/ave_pool -> loss2/ave_pool
I0403 15:25:39.698189 11947 net.cpp:141] Setting up loss2/ave_pool
I0403 15:25:39.698216 11947 net.cpp:148] Top shape: 24 528 4 4 (202752)
I0403 15:25:39.698232 11947 net.cpp:156] Memory required for data: 1207729440
I0403 15:25:39.698247 11947 layer_factory.hpp:77] Creating layer loss2/conv
I0403 15:25:39.698271 11947 net.cpp:91] Creating Layer loss2/conv
I0403 15:25:39.698288 11947 net.cpp:425] loss2/conv <- loss2/ave_pool
I0403 15:25:39.698310 11947 net.cpp:399] loss2/conv -> loss2/conv
I0403 15:25:39.700264 11947 net.cpp:141] Setting up loss2/conv
I0403 15:25:39.700295 11947 net.cpp:148] Top shape: 24 128 4 4 (49152)
I0403 15:25:39.700312 11947 net.cpp:156] Memory required for data: 1207926048
I0403 15:25:39.700331 11947 layer_factory.hpp:77] Creating layer loss2/relu_conv
I0403 15:25:39.700350 11947 net.cpp:91] Creating Layer loss2/relu_conv
I0403 15:25:39.700366 11947 net.cpp:425] loss2/relu_conv <- loss2/conv
I0403 15:25:39.700386 11947 net.cpp:386] loss2/relu_conv -> loss2/conv (in-place)
I0403 15:25:39.700686 11947 net.cpp:141] Setting up loss2/relu_conv
I0403 15:25:39.700717 11947 net.cpp:148] Top shape: 24 128 4 4 (49152)
I0403 15:25:39.700733 11947 net.cpp:156] Memory required for data: 1208122656
I0403 15:25:39.700749 11947 layer_factory.hpp:77] Creating layer loss2/fc
I0403 15:25:39.700769 11947 net.cpp:91] Creating Layer loss2/fc
I0403 15:25:39.700786 11947 net.cpp:425] loss2/fc <- loss2/conv
I0403 15:25:39.700809 11947 net.cpp:399] loss2/fc -> loss2/fc
I0403 15:25:39.719017 11947 net.cpp:141] Setting up loss2/fc
I0403 15:25:39.719080 11947 net.cpp:148] Top shape: 24 1024 (24576)
I0403 15:25:39.719096 11947 net.cpp:156] Memory required for data: 1208220960
I0403 15:25:39.719117 11947 layer_factory.hpp:77] Creating layer loss2/relu_fc
I0403 15:25:39.719141 11947 net.cpp:91] Creating Layer loss2/relu_fc
I0403 15:25:39.719158 11947 net.cpp:425] loss2/relu_fc <- loss2/fc
I0403 15:25:39.719177 11947 net.cpp:386] loss2/relu_fc -> loss2/fc (in-place)
I0403 15:25:39.719529 11947 net.cpp:141] Setting up loss2/relu_fc
I0403 15:25:39.719555 11947 net.cpp:148] Top shape: 24 1024 (24576)
I0403 15:25:39.719573 11947 net.cpp:156] Memory required for data: 1208319264
I0403 15:25:39.719588 11947 layer_factory.hpp:77] Creating layer loss2/drop_fc
I0403 15:25:39.719609 11947 net.cpp:91] Creating Layer loss2/drop_fc
I0403 15:25:39.719626 11947 net.cpp:425] loss2/drop_fc <- loss2/fc
I0403 15:25:39.719645 11947 net.cpp:386] loss2/drop_fc -> loss2/fc (in-place)
I0403 15:25:39.719698 11947 net.cpp:141] Setting up loss2/drop_fc
I0403 15:25:39.719722 11947 net.cpp:148] Top shape: 24 1024 (24576)
I0403 15:25:39.719738 11947 net.cpp:156] Memory required for data: 1208417568
I0403 15:25:39.719753 11947 layer_factory.hpp:77] Creating layer loss2/classifier_plantvillage
I0403 15:25:39.719771 11947 net.cpp:91] Creating Layer loss2/classifier_plantvillage
I0403 15:25:39.719787 11947 net.cpp:425] loss2/classifier_plantvillage <- loss2/fc
I0403 15:25:39.719810 11947 net.cpp:399] loss2/classifier_plantvillage -> loss2/classifier_plantvillage
I0403 15:25:39.720233 11947 net.cpp:141] Setting up loss2/classifier_plantvillage
I0403 15:25:39.720259 11947 net.cpp:148] Top shape: 24 38 (912)
I0403 15:25:39.720299 11947 net.cpp:156] Memory required for data: 1208421216
I0403 15:25:39.720319 11947 layer_factory.hpp:77] Creating layer loss2/classifier_plantvillage_loss2/classifier_plantvillage_0_split
I0403 15:25:39.720337 11947 net.cpp:91] Creating Layer loss2/classifier_plantvillage_loss2/classifier_plantvillage_0_split
I0403 15:25:39.720355 11947 net.cpp:425] loss2/classifier_plantvillage_loss2/classifier_plantvillage_0_split <- loss2/classifier_plantvillage
I0403 15:25:39.720374 11947 net.cpp:399] loss2/classifier_plantvillage_loss2/classifier_plantvillage_0_split -> loss2/classifier_plantvillage_loss2/classifier_plantvillage_0_split_0
I0403 15:25:39.720396 11947 net.cpp:399] loss2/classifier_plantvillage_loss2/classifier_plantvillage_0_split -> loss2/classifier_plantvillage_loss2/classifier_plantvillage_0_split_1
I0403 15:25:39.720422 11947 net.cpp:399] loss2/classifier_plantvillage_loss2/classifier_plantvillage_0_split -> loss2/classifier_plantvillage_loss2/classifier_plantvillage_0_split_2
I0403 15:25:39.720500 11947 net.cpp:141] Setting up loss2/classifier_plantvillage_loss2/classifier_plantvillage_0_split
I0403 15:25:39.720530 11947 net.cpp:148] Top shape: 24 38 (912)
I0403 15:25:39.720546 11947 net.cpp:148] Top shape: 24 38 (912)
I0403 15:25:39.720563 11947 net.cpp:148] Top shape: 24 38 (912)
I0403 15:25:39.720579 11947 net.cpp:156] Memory required for data: 1208432160
I0403 15:25:39.720593 11947 layer_factory.hpp:77] Creating layer inception_4e/1x1
I0403 15:25:39.720614 11947 net.cpp:91] Creating Layer inception_4e/1x1
I0403 15:25:39.720633 11947 net.cpp:425] inception_4e/1x1 <- inception_4d/output_inception_4d/output_0_split_1
I0403 15:25:39.720654 11947 net.cpp:399] inception_4e/1x1 -> inception_4e/1x1
I0403 15:25:39.722589 11947 net.cpp:141] Setting up inception_4e/1x1
I0403 15:25:39.722620 11947 net.cpp:148] Top shape: 24 256 14 14 (1204224)
I0403 15:25:39.722637 11947 net.cpp:156] Memory required for data: 1213249056
I0403 15:25:39.722656 11947 layer_factory.hpp:77] Creating layer inception_4e/relu_1x1
I0403 15:25:39.722676 11947 net.cpp:91] Creating Layer inception_4e/relu_1x1
I0403 15:25:39.722692 11947 net.cpp:425] inception_4e/relu_1x1 <- inception_4e/1x1
I0403 15:25:39.722714 11947 net.cpp:386] inception_4e/relu_1x1 -> inception_4e/1x1 (in-place)
I0403 15:25:39.723042 11947 net.cpp:141] Setting up inception_4e/relu_1x1
I0403 15:25:39.723069 11947 net.cpp:148] Top shape: 24 256 14 14 (1204224)
I0403 15:25:39.723086 11947 net.cpp:156] Memory required for data: 1218065952
I0403 15:25:39.723103 11947 layer_factory.hpp:77] Creating layer inception_4e/3x3_reduce
I0403 15:25:39.723125 11947 net.cpp:91] Creating Layer inception_4e/3x3_reduce
I0403 15:25:39.723145 11947 net.cpp:425] inception_4e/3x3_reduce <- inception_4d/output_inception_4d/output_0_split_2
I0403 15:25:39.723166 11947 net.cpp:399] inception_4e/3x3_reduce -> inception_4e/3x3_reduce
I0403 15:25:39.725466 11947 net.cpp:141] Setting up inception_4e/3x3_reduce
I0403 15:25:39.725499 11947 net.cpp:148] Top shape: 24 160 14 14 (752640)
I0403 15:25:39.725517 11947 net.cpp:156] Memory required for data: 1221076512
I0403 15:25:39.725538 11947 layer_factory.hpp:77] Creating layer inception_4e/relu_3x3_reduce
I0403 15:25:39.725558 11947 net.cpp:91] Creating Layer inception_4e/relu_3x3_reduce
I0403 15:25:39.725574 11947 net.cpp:425] inception_4e/relu_3x3_reduce <- inception_4e/3x3_reduce
I0403 15:25:39.725595 11947 net.cpp:386] inception_4e/relu_3x3_reduce -> inception_4e/3x3_reduce (in-place)
I0403 15:25:39.725797 11947 net.cpp:141] Setting up inception_4e/relu_3x3_reduce
I0403 15:25:39.725823 11947 net.cpp:148] Top shape: 24 160 14 14 (752640)
I0403 15:25:39.725839 11947 net.cpp:156] Memory required for data: 1224087072
I0403 15:25:39.725855 11947 layer_factory.hpp:77] Creating layer inception_4e/3x3
I0403 15:25:39.725880 11947 net.cpp:91] Creating Layer inception_4e/3x3
I0403 15:25:39.725898 11947 net.cpp:425] inception_4e/3x3 <- inception_4e/3x3_reduce
I0403 15:25:39.725922 11947 net.cpp:399] inception_4e/3x3 -> inception_4e/3x3
I0403 15:25:39.731118 11947 net.cpp:141] Setting up inception_4e/3x3
I0403 15:25:39.731161 11947 net.cpp:148] Top shape: 24 320 14 14 (1505280)
I0403 15:25:39.731178 11947 net.cpp:156] Memory required for data: 1230108192
I0403 15:25:39.731199 11947 layer_factory.hpp:77] Creating layer inception_4e/relu_3x3
I0403 15:25:39.731216 11947 net.cpp:91] Creating Layer inception_4e/relu_3x3
I0403 15:25:39.731232 11947 net.cpp:425] inception_4e/relu_3x3 <- inception_4e/3x3
I0403 15:25:39.731252 11947 net.cpp:386] inception_4e/relu_3x3 -> inception_4e/3x3 (in-place)
I0403 15:25:39.731572 11947 net.cpp:141] Setting up inception_4e/relu_3x3
I0403 15:25:39.731600 11947 net.cpp:148] Top shape: 24 320 14 14 (1505280)
I0403 15:25:39.731614 11947 net.cpp:156] Memory required for data: 1236129312
I0403 15:25:39.731631 11947 layer_factory.hpp:77] Creating layer inception_4e/5x5_reduce
I0403 15:25:39.731657 11947 net.cpp:91] Creating Layer inception_4e/5x5_reduce
I0403 15:25:39.731675 11947 net.cpp:425] inception_4e/5x5_reduce <- inception_4d/output_inception_4d/output_0_split_3
I0403 15:25:39.731698 11947 net.cpp:399] inception_4e/5x5_reduce -> inception_4e/5x5_reduce
I0403 15:25:39.732846 11947 net.cpp:141] Setting up inception_4e/5x5_reduce
I0403 15:25:39.732877 11947 net.cpp:148] Top shape: 24 32 14 14 (150528)
I0403 15:25:39.732893 11947 net.cpp:156] Memory required for data: 1236731424
I0403 15:25:39.732913 11947 layer_factory.hpp:77] Creating layer inception_4e/relu_5x5_reduce
I0403 15:25:39.732930 11947 net.cpp:91] Creating Layer inception_4e/relu_5x5_reduce
I0403 15:25:39.732946 11947 net.cpp:425] inception_4e/relu_5x5_reduce <- inception_4e/5x5_reduce
I0403 15:25:39.732967 11947 net.cpp:386] inception_4e/relu_5x5_reduce -> inception_4e/5x5_reduce (in-place)
I0403 15:25:39.733273 11947 net.cpp:141] Setting up inception_4e/relu_5x5_reduce
I0403 15:25:39.733304 11947 net.cpp:148] Top shape: 24 32 14 14 (150528)
I0403 15:25:39.733319 11947 net.cpp:156] Memory required for data: 1237333536
I0403 15:25:39.733335 11947 layer_factory.hpp:77] Creating layer inception_4e/5x5
I0403 15:25:39.733376 11947 net.cpp:91] Creating Layer inception_4e/5x5
I0403 15:25:39.733395 11947 net.cpp:425] inception_4e/5x5 <- inception_4e/5x5_reduce
I0403 15:25:39.733424 11947 net.cpp:399] inception_4e/5x5 -> inception_4e/5x5
I0403 15:25:39.735337 11947 net.cpp:141] Setting up inception_4e/5x5
I0403 15:25:39.735366 11947 net.cpp:148] Top shape: 24 128 14 14 (602112)
I0403 15:25:39.735383 11947 net.cpp:156] Memory required for data: 1239741984
I0403 15:25:39.735401 11947 layer_factory.hpp:77] Creating layer inception_4e/relu_5x5
I0403 15:25:39.735429 11947 net.cpp:91] Creating Layer inception_4e/relu_5x5
I0403 15:25:39.735445 11947 net.cpp:425] inception_4e/relu_5x5 <- inception_4e/5x5
I0403 15:25:39.735463 11947 net.cpp:386] inception_4e/relu_5x5 -> inception_4e/5x5 (in-place)
I0403 15:25:39.735669 11947 net.cpp:141] Setting up inception_4e/relu_5x5
I0403 15:25:39.735697 11947 net.cpp:148] Top shape: 24 128 14 14 (602112)
I0403 15:25:39.735713 11947 net.cpp:156] Memory required for data: 1242150432
I0403 15:25:39.735729 11947 layer_factory.hpp:77] Creating layer inception_4e/pool
I0403 15:25:39.735749 11947 net.cpp:91] Creating Layer inception_4e/pool
I0403 15:25:39.735765 11947 net.cpp:425] inception_4e/pool <- inception_4d/output_inception_4d/output_0_split_4
I0403 15:25:39.735790 11947 net.cpp:399] inception_4e/pool -> inception_4e/pool
I0403 15:25:39.735862 11947 net.cpp:141] Setting up inception_4e/pool
I0403 15:25:39.735889 11947 net.cpp:148] Top shape: 24 528 14 14 (2483712)
I0403 15:25:39.735905 11947 net.cpp:156] Memory required for data: 1252085280
I0403 15:25:39.735920 11947 layer_factory.hpp:77] Creating layer inception_4e/pool_proj
I0403 15:25:39.735940 11947 net.cpp:91] Creating Layer inception_4e/pool_proj
I0403 15:25:39.735959 11947 net.cpp:425] inception_4e/pool_proj <- inception_4e/pool
I0403 15:25:39.735980 11947 net.cpp:399] inception_4e/pool_proj -> inception_4e/pool_proj
I0403 15:25:39.737535 11947 net.cpp:141] Setting up inception_4e/pool_proj
I0403 15:25:39.737576 11947 net.cpp:148] Top shape: 24 128 14 14 (602112)
I0403 15:25:39.737592 11947 net.cpp:156] Memory required for data: 1254493728
I0403 15:25:39.737612 11947 layer_factory.hpp:77] Creating layer inception_4e/relu_pool_proj
I0403 15:25:39.737632 11947 net.cpp:91] Creating Layer inception_4e/relu_pool_proj
I0403 15:25:39.737650 11947 net.cpp:425] inception_4e/relu_pool_proj <- inception_4e/pool_proj
I0403 15:25:39.737668 11947 net.cpp:386] inception_4e/relu_pool_proj -> inception_4e/pool_proj (in-place)
I0403 15:25:39.737974 11947 net.cpp:141] Setting up inception_4e/relu_pool_proj
I0403 15:25:39.738001 11947 net.cpp:148] Top shape: 24 128 14 14 (602112)
I0403 15:25:39.738016 11947 net.cpp:156] Memory required for data: 1256902176
I0403 15:25:39.738032 11947 layer_factory.hpp:77] Creating layer inception_4e/output
I0403 15:25:39.738054 11947 net.cpp:91] Creating Layer inception_4e/output
I0403 15:25:39.738070 11947 net.cpp:425] inception_4e/output <- inception_4e/1x1
I0403 15:25:39.738087 11947 net.cpp:425] inception_4e/output <- inception_4e/3x3
I0403 15:25:39.738103 11947 net.cpp:425] inception_4e/output <- inception_4e/5x5
I0403 15:25:39.738119 11947 net.cpp:425] inception_4e/output <- inception_4e/pool_proj
I0403 15:25:39.738137 11947 net.cpp:399] inception_4e/output -> inception_4e/output
I0403 15:25:39.738190 11947 net.cpp:141] Setting up inception_4e/output
I0403 15:25:39.738215 11947 net.cpp:148] Top shape: 24 832 14 14 (3913728)
I0403 15:25:39.738230 11947 net.cpp:156] Memory required for data: 1272557088
I0403 15:25:39.738245 11947 layer_factory.hpp:77] Creating layer pool4/3x3_s2
I0403 15:25:39.738263 11947 net.cpp:91] Creating Layer pool4/3x3_s2
I0403 15:25:39.738281 11947 net.cpp:425] pool4/3x3_s2 <- inception_4e/output
I0403 15:25:39.738301 11947 net.cpp:399] pool4/3x3_s2 -> pool4/3x3_s2
I0403 15:25:39.738370 11947 net.cpp:141] Setting up pool4/3x3_s2
I0403 15:25:39.738396 11947 net.cpp:148] Top shape: 24 832 7 7 (978432)
I0403 15:25:39.738416 11947 net.cpp:156] Memory required for data: 1276470816
I0403 15:25:39.738433 11947 layer_factory.hpp:77] Creating layer pool4/3x3_s2_pool4/3x3_s2_0_split
I0403 15:25:39.738451 11947 net.cpp:91] Creating Layer pool4/3x3_s2_pool4/3x3_s2_0_split
I0403 15:25:39.738467 11947 net.cpp:425] pool4/3x3_s2_pool4/3x3_s2_0_split <- pool4/3x3_s2
I0403 15:25:39.738486 11947 net.cpp:399] pool4/3x3_s2_pool4/3x3_s2_0_split -> pool4/3x3_s2_pool4/3x3_s2_0_split_0
I0403 15:25:39.738507 11947 net.cpp:399] pool4/3x3_s2_pool4/3x3_s2_0_split -> pool4/3x3_s2_pool4/3x3_s2_0_split_1
I0403 15:25:39.738529 11947 net.cpp:399] pool4/3x3_s2_pool4/3x3_s2_0_split -> pool4/3x3_s2_pool4/3x3_s2_0_split_2
I0403 15:25:39.738549 11947 net.cpp:399] pool4/3x3_s2_pool4/3x3_s2_0_split -> pool4/3x3_s2_pool4/3x3_s2_0_split_3
I0403 15:25:39.738642 11947 net.cpp:141] Setting up pool4/3x3_s2_pool4/3x3_s2_0_split
I0403 15:25:39.738667 11947 net.cpp:148] Top shape: 24 832 7 7 (978432)
I0403 15:25:39.738683 11947 net.cpp:148] Top shape: 24 832 7 7 (978432)
I0403 15:25:39.738699 11947 net.cpp:148] Top shape: 24 832 7 7 (978432)
I0403 15:25:39.738714 11947 net.cpp:148] Top shape: 24 832 7 7 (978432)
I0403 15:25:39.738729 11947 net.cpp:156] Memory required for data: 1292125728
I0403 15:25:39.738754 11947 layer_factory.hpp:77] Creating layer inception_5a/1x1
I0403 15:25:39.738780 11947 net.cpp:91] Creating Layer inception_5a/1x1
I0403 15:25:39.738798 11947 net.cpp:425] inception_5a/1x1 <- pool4/3x3_s2_pool4/3x3_s2_0_split_0
I0403 15:25:39.738818 11947 net.cpp:399] inception_5a/1x1 -> inception_5a/1x1
I0403 15:25:39.741910 11947 net.cpp:141] Setting up inception_5a/1x1
I0403 15:25:39.741940 11947 net.cpp:148] Top shape: 24 256 7 7 (301056)
I0403 15:25:39.741955 11947 net.cpp:156] Memory required for data: 1293329952
I0403 15:25:39.741973 11947 layer_factory.hpp:77] Creating layer inception_5a/relu_1x1
I0403 15:25:39.741994 11947 net.cpp:91] Creating Layer inception_5a/relu_1x1
I0403 15:25:39.742012 11947 net.cpp:425] inception_5a/relu_1x1 <- inception_5a/1x1
I0403 15:25:39.742029 11947 net.cpp:386] inception_5a/relu_1x1 -> inception_5a/1x1 (in-place)
I0403 15:25:39.742348 11947 net.cpp:141] Setting up inception_5a/relu_1x1
I0403 15:25:39.742374 11947 net.cpp:148] Top shape: 24 256 7 7 (301056)
I0403 15:25:39.742390 11947 net.cpp:156] Memory required for data: 1294534176
I0403 15:25:39.742405 11947 layer_factory.hpp:77] Creating layer inception_5a/3x3_reduce
I0403 15:25:39.742434 11947 net.cpp:91] Creating Layer inception_5a/3x3_reduce
I0403 15:25:39.742451 11947 net.cpp:425] inception_5a/3x3_reduce <- pool4/3x3_s2_pool4/3x3_s2_0_split_1
I0403 15:25:39.742471 11947 net.cpp:399] inception_5a/3x3_reduce -> inception_5a/3x3_reduce
I0403 15:25:39.744952 11947 net.cpp:141] Setting up inception_5a/3x3_reduce
I0403 15:25:39.744982 11947 net.cpp:148] Top shape: 24 160 7 7 (188160)
I0403 15:25:39.744998 11947 net.cpp:156] Memory required for data: 1295286816
I0403 15:25:39.745018 11947 layer_factory.hpp:77] Creating layer inception_5a/relu_3x3_reduce
I0403 15:25:39.745038 11947 net.cpp:91] Creating Layer inception_5a/relu_3x3_reduce
I0403 15:25:39.745055 11947 net.cpp:425] inception_5a/relu_3x3_reduce <- inception_5a/3x3_reduce
I0403 15:25:39.745072 11947 net.cpp:386] inception_5a/relu_3x3_reduce -> inception_5a/3x3_reduce (in-place)
I0403 15:25:39.745266 11947 net.cpp:141] Setting up inception_5a/relu_3x3_reduce
I0403 15:25:39.745292 11947 net.cpp:148] Top shape: 24 160 7 7 (188160)
I0403 15:25:39.745318 11947 net.cpp:156] Memory required for data: 1296039456
I0403 15:25:39.745333 11947 layer_factory.hpp:77] Creating layer inception_5a/3x3
I0403 15:25:39.745359 11947 net.cpp:91] Creating Layer inception_5a/3x3
I0403 15:25:39.745378 11947 net.cpp:425] inception_5a/3x3 <- inception_5a/3x3_reduce
I0403 15:25:39.745396 11947 net.cpp:399] inception_5a/3x3 -> inception_5a/3x3
I0403 15:25:39.750542 11947 net.cpp:141] Setting up inception_5a/3x3
I0403 15:25:39.750574 11947 net.cpp:148] Top shape: 24 320 7 7 (376320)
I0403 15:25:39.750591 11947 net.cpp:156] Memory required for data: 1297544736
I0403 15:25:39.750609 11947 layer_factory.hpp:77] Creating layer inception_5a/relu_3x3
I0403 15:25:39.750627 11947 net.cpp:91] Creating Layer inception_5a/relu_3x3
I0403 15:25:39.750643 11947 net.cpp:425] inception_5a/relu_3x3 <- inception_5a/3x3
I0403 15:25:39.750660 11947 net.cpp:386] inception_5a/relu_3x3 -> inception_5a/3x3 (in-place)
I0403 15:25:39.750962 11947 net.cpp:141] Setting up inception_5a/relu_3x3
I0403 15:25:39.750989 11947 net.cpp:148] Top shape: 24 320 7 7 (376320)
I0403 15:25:39.751005 11947 net.cpp:156] Memory required for data: 1299050016
I0403 15:25:39.751020 11947 layer_factory.hpp:77] Creating layer inception_5a/5x5_reduce
I0403 15:25:39.751042 11947 net.cpp:91] Creating Layer inception_5a/5x5_reduce
I0403 15:25:39.751060 11947 net.cpp:425] inception_5a/5x5_reduce <- pool4/3x3_s2_pool4/3x3_s2_0_split_2
I0403 15:25:39.751080 11947 net.cpp:399] inception_5a/5x5_reduce -> inception_5a/5x5_reduce
I0403 15:25:39.752259 11947 net.cpp:141] Setting up inception_5a/5x5_reduce
I0403 15:25:39.752288 11947 net.cpp:148] Top shape: 24 32 7 7 (37632)
I0403 15:25:39.752305 11947 net.cpp:156] Memory required for data: 1299200544
I0403 15:25:39.752323 11947 layer_factory.hpp:77] Creating layer inception_5a/relu_5x5_reduce
I0403 15:25:39.752341 11947 net.cpp:91] Creating Layer inception_5a/relu_5x5_reduce
I0403 15:25:39.752357 11947 net.cpp:425] inception_5a/relu_5x5_reduce <- inception_5a/5x5_reduce
I0403 15:25:39.752377 11947 net.cpp:386] inception_5a/relu_5x5_reduce -> inception_5a/5x5_reduce (in-place)
I0403 15:25:39.752681 11947 net.cpp:141] Setting up inception_5a/relu_5x5_reduce
I0403 15:25:39.752709 11947 net.cpp:148] Top shape: 24 32 7 7 (37632)
I0403 15:25:39.752727 11947 net.cpp:156] Memory required for data: 1299351072
I0403 15:25:39.752740 11947 layer_factory.hpp:77] Creating layer inception_5a/5x5
I0403 15:25:39.752763 11947 net.cpp:91] Creating Layer inception_5a/5x5
I0403 15:25:39.752780 11947 net.cpp:425] inception_5a/5x5 <- inception_5a/5x5_reduce
I0403 15:25:39.752799 11947 net.cpp:399] inception_5a/5x5 -> inception_5a/5x5
I0403 15:25:39.754549 11947 net.cpp:141] Setting up inception_5a/5x5
I0403 15:25:39.754591 11947 net.cpp:148] Top shape: 24 128 7 7 (150528)
I0403 15:25:39.754608 11947 net.cpp:156] Memory required for data: 1299953184
I0403 15:25:39.754626 11947 layer_factory.hpp:77] Creating layer inception_5a/relu_5x5
I0403 15:25:39.754645 11947 net.cpp:91] Creating Layer inception_5a/relu_5x5
I0403 15:25:39.754662 11947 net.cpp:425] inception_5a/relu_5x5 <- inception_5a/5x5
I0403 15:25:39.754678 11947 net.cpp:386] inception_5a/relu_5x5 -> inception_5a/5x5 (in-place)
I0403 15:25:39.754878 11947 net.cpp:141] Setting up inception_5a/relu_5x5
I0403 15:25:39.754904 11947 net.cpp:148] Top shape: 24 128 7 7 (150528)
I0403 15:25:39.754920 11947 net.cpp:156] Memory required for data: 1300555296
I0403 15:25:39.754935 11947 layer_factory.hpp:77] Creating layer inception_5a/pool
I0403 15:25:39.754951 11947 net.cpp:91] Creating Layer inception_5a/pool
I0403 15:25:39.754967 11947 net.cpp:425] inception_5a/pool <- pool4/3x3_s2_pool4/3x3_s2_0_split_3
I0403 15:25:39.754987 11947 net.cpp:399] inception_5a/pool -> inception_5a/pool
I0403 15:25:39.755059 11947 net.cpp:141] Setting up inception_5a/pool
I0403 15:25:39.755084 11947 net.cpp:148] Top shape: 24 832 7 7 (978432)
I0403 15:25:39.755100 11947 net.cpp:156] Memory required for data: 1304469024
I0403 15:25:39.755115 11947 layer_factory.hpp:77] Creating layer inception_5a/pool_proj
I0403 15:25:39.755136 11947 net.cpp:91] Creating Layer inception_5a/pool_proj
I0403 15:25:39.755154 11947 net.cpp:425] inception_5a/pool_proj <- inception_5a/pool
I0403 15:25:39.755172 11947 net.cpp:399] inception_5a/pool_proj -> inception_5a/pool_proj
I0403 15:25:39.757479 11947 net.cpp:141] Setting up inception_5a/pool_proj
I0403 15:25:39.757508 11947 net.cpp:148] Top shape: 24 128 7 7 (150528)
I0403 15:25:39.757525 11947 net.cpp:156] Memory required for data: 1305071136
I0403 15:25:39.757544 11947 layer_factory.hpp:77] Creating layer inception_5a/relu_pool_proj
I0403 15:25:39.757563 11947 net.cpp:91] Creating Layer inception_5a/relu_pool_proj
I0403 15:25:39.757580 11947 net.cpp:425] inception_5a/relu_pool_proj <- inception_5a/pool_proj
I0403 15:25:39.757597 11947 net.cpp:386] inception_5a/relu_pool_proj -> inception_5a/pool_proj (in-place)
I0403 15:25:39.757911 11947 net.cpp:141] Setting up inception_5a/relu_pool_proj
I0403 15:25:39.757938 11947 net.cpp:148] Top shape: 24 128 7 7 (150528)
I0403 15:25:39.757952 11947 net.cpp:156] Memory required for data: 1305673248
I0403 15:25:39.757967 11947 layer_factory.hpp:77] Creating layer inception_5a/output
I0403 15:25:39.757987 11947 net.cpp:91] Creating Layer inception_5a/output
I0403 15:25:39.758004 11947 net.cpp:425] inception_5a/output <- inception_5a/1x1
I0403 15:25:39.758020 11947 net.cpp:425] inception_5a/output <- inception_5a/3x3
I0403 15:25:39.758038 11947 net.cpp:425] inception_5a/output <- inception_5a/5x5
I0403 15:25:39.758054 11947 net.cpp:425] inception_5a/output <- inception_5a/pool_proj
I0403 15:25:39.758070 11947 net.cpp:399] inception_5a/output -> inception_5a/output
I0403 15:25:39.758121 11947 net.cpp:141] Setting up inception_5a/output
I0403 15:25:39.758146 11947 net.cpp:148] Top shape: 24 832 7 7 (978432)
I0403 15:25:39.758159 11947 net.cpp:156] Memory required for data: 1309586976
I0403 15:25:39.758174 11947 layer_factory.hpp:77] Creating layer inception_5a/output_inception_5a/output_0_split
I0403 15:25:39.758190 11947 net.cpp:91] Creating Layer inception_5a/output_inception_5a/output_0_split
I0403 15:25:39.758206 11947 net.cpp:425] inception_5a/output_inception_5a/output_0_split <- inception_5a/output
I0403 15:25:39.758225 11947 net.cpp:399] inception_5a/output_inception_5a/output_0_split -> inception_5a/output_inception_5a/output_0_split_0
I0403 15:25:39.758247 11947 net.cpp:399] inception_5a/output_inception_5a/output_0_split -> inception_5a/output_inception_5a/output_0_split_1
I0403 15:25:39.758267 11947 net.cpp:399] inception_5a/output_inception_5a/output_0_split -> inception_5a/output_inception_5a/output_0_split_2
I0403 15:25:39.758287 11947 net.cpp:399] inception_5a/output_inception_5a/output_0_split -> inception_5a/output_inception_5a/output_0_split_3
I0403 15:25:39.758404 11947 net.cpp:141] Setting up inception_5a/output_inception_5a/output_0_split
I0403 15:25:39.758433 11947 net.cpp:148] Top shape: 24 832 7 7 (978432)
I0403 15:25:39.758451 11947 net.cpp:148] Top shape: 24 832 7 7 (978432)
I0403 15:25:39.758466 11947 net.cpp:148] Top shape: 24 832 7 7 (978432)
I0403 15:25:39.758481 11947 net.cpp:148] Top shape: 24 832 7 7 (978432)
I0403 15:25:39.758496 11947 net.cpp:156] Memory required for data: 1325241888
I0403 15:25:39.758510 11947 layer_factory.hpp:77] Creating layer inception_5b/1x1
I0403 15:25:39.758533 11947 net.cpp:91] Creating Layer inception_5b/1x1
I0403 15:25:39.758550 11947 net.cpp:425] inception_5b/1x1 <- inception_5a/output_inception_5a/output_0_split_0
I0403 15:25:39.758569 11947 net.cpp:399] inception_5b/1x1 -> inception_5b/1x1
I0403 15:25:39.762385 11947 net.cpp:141] Setting up inception_5b/1x1
I0403 15:25:39.762419 11947 net.cpp:148] Top shape: 24 384 7 7 (451584)
I0403 15:25:39.762436 11947 net.cpp:156] Memory required for data: 1327048224
I0403 15:25:39.762454 11947 layer_factory.hpp:77] Creating layer inception_5b/relu_1x1
I0403 15:25:39.762475 11947 net.cpp:91] Creating Layer inception_5b/relu_1x1
I0403 15:25:39.762492 11947 net.cpp:425] inception_5b/relu_1x1 <- inception_5b/1x1
I0403 15:25:39.762509 11947 net.cpp:386] inception_5b/relu_1x1 -> inception_5b/1x1 (in-place)
I0403 15:25:39.762817 11947 net.cpp:141] Setting up inception_5b/relu_1x1
I0403 15:25:39.762843 11947 net.cpp:148] Top shape: 24 384 7 7 (451584)
I0403 15:25:39.762858 11947 net.cpp:156] Memory required for data: 1328854560
I0403 15:25:39.762874 11947 layer_factory.hpp:77] Creating layer inception_5b/3x3_reduce
I0403 15:25:39.762897 11947 net.cpp:91] Creating Layer inception_5b/3x3_reduce
I0403 15:25:39.762914 11947 net.cpp:425] inception_5b/3x3_reduce <- inception_5a/output_inception_5a/output_0_split_1
I0403 15:25:39.762935 11947 net.cpp:399] inception_5b/3x3_reduce -> inception_5b/3x3_reduce
I0403 15:25:39.765638 11947 net.cpp:141] Setting up inception_5b/3x3_reduce
I0403 15:25:39.765669 11947 net.cpp:148] Top shape: 24 192 7 7 (225792)
I0403 15:25:39.765684 11947 net.cpp:156] Memory required for data: 1329757728
I0403 15:25:39.765703 11947 layer_factory.hpp:77] Creating layer inception_5b/relu_3x3_reduce
I0403 15:25:39.765727 11947 net.cpp:91] Creating Layer inception_5b/relu_3x3_reduce
I0403 15:25:39.765744 11947 net.cpp:425] inception_5b/relu_3x3_reduce <- inception_5b/3x3_reduce
I0403 15:25:39.765761 11947 net.cpp:386] inception_5b/relu_3x3_reduce -> inception_5b/3x3_reduce (in-place)
I0403 15:25:39.765959 11947 net.cpp:141] Setting up inception_5b/relu_3x3_reduce
I0403 15:25:39.765985 11947 net.cpp:148] Top shape: 24 192 7 7 (225792)
I0403 15:25:39.766000 11947 net.cpp:156] Memory required for data: 1330660896
I0403 15:25:39.766016 11947 layer_factory.hpp:77] Creating layer inception_5b/3x3
I0403 15:25:39.766037 11947 net.cpp:91] Creating Layer inception_5b/3x3
I0403 15:25:39.766054 11947 net.cpp:425] inception_5b/3x3 <- inception_5b/3x3_reduce
I0403 15:25:39.766073 11947 net.cpp:399] inception_5b/3x3 -> inception_5b/3x3
I0403 15:25:39.772824 11947 net.cpp:141] Setting up inception_5b/3x3
I0403 15:25:39.772853 11947 net.cpp:148] Top shape: 24 384 7 7 (451584)
I0403 15:25:39.772869 11947 net.cpp:156] Memory required for data: 1332467232
I0403 15:25:39.772888 11947 layer_factory.hpp:77] Creating layer inception_5b/relu_3x3
I0403 15:25:39.772908 11947 net.cpp:91] Creating Layer inception_5b/relu_3x3
I0403 15:25:39.772927 11947 net.cpp:425] inception_5b/relu_3x3 <- inception_5b/3x3
I0403 15:25:39.772943 11947 net.cpp:386] inception_5b/relu_3x3 -> inception_5b/3x3 (in-place)
I0403 15:25:39.773253 11947 net.cpp:141] Setting up inception_5b/relu_3x3
I0403 15:25:39.773278 11947 net.cpp:148] Top shape: 24 384 7 7 (451584)
I0403 15:25:39.773293 11947 net.cpp:156] Memory required for data: 1334273568
I0403 15:25:39.773308 11947 layer_factory.hpp:77] Creating layer inception_5b/5x5_reduce
I0403 15:25:39.773346 11947 net.cpp:91] Creating Layer inception_5b/5x5_reduce
I0403 15:25:39.773365 11947 net.cpp:425] inception_5b/5x5_reduce <- inception_5a/output_inception_5a/output_0_split_2
I0403 15:25:39.773389 11947 net.cpp:399] inception_5b/5x5_reduce -> inception_5b/5x5_reduce
I0403 15:25:39.774680 11947 net.cpp:141] Setting up inception_5b/5x5_reduce
I0403 15:25:39.774711 11947 net.cpp:148] Top shape: 24 48 7 7 (56448)
I0403 15:25:39.774732 11947 net.cpp:156] Memory required for data: 1334499360
I0403 15:25:39.774754 11947 layer_factory.hpp:77] Creating layer inception_5b/relu_5x5_reduce
I0403 15:25:39.774782 11947 net.cpp:91] Creating Layer inception_5b/relu_5x5_reduce
I0403 15:25:39.774806 11947 net.cpp:425] inception_5b/relu_5x5_reduce <- inception_5b/5x5_reduce
I0403 15:25:39.774832 11947 net.cpp:386] inception_5b/relu_5x5_reduce -> inception_5b/5x5_reduce (in-place)
I0403 15:25:39.775228 11947 net.cpp:141] Setting up inception_5b/relu_5x5_reduce
I0403 15:25:39.775255 11947 net.cpp:148] Top shape: 24 48 7 7 (56448)
I0403 15:25:39.775271 11947 net.cpp:156] Memory required for data: 1334725152
I0403 15:25:39.775287 11947 layer_factory.hpp:77] Creating layer inception_5b/5x5
I0403 15:25:39.775307 11947 net.cpp:91] Creating Layer inception_5b/5x5
I0403 15:25:39.775328 11947 net.cpp:425] inception_5b/5x5 <- inception_5b/5x5_reduce
I0403 15:25:39.775348 11947 net.cpp:399] inception_5b/5x5 -> inception_5b/5x5
I0403 15:25:39.777545 11947 net.cpp:141] Setting up inception_5b/5x5
I0403 15:25:39.777575 11947 net.cpp:148] Top shape: 24 128 7 7 (150528)
I0403 15:25:39.777591 11947 net.cpp:156] Memory required for data: 1335327264
I0403 15:25:39.777613 11947 layer_factory.hpp:77] Creating layer inception_5b/relu_5x5
I0403 15:25:39.777634 11947 net.cpp:91] Creating Layer inception_5b/relu_5x5
I0403 15:25:39.777652 11947 net.cpp:425] inception_5b/relu_5x5 <- inception_5b/5x5
I0403 15:25:39.777670 11947 net.cpp:386] inception_5b/relu_5x5 -> inception_5b/5x5 (in-place)
I0403 15:25:39.777889 11947 net.cpp:141] Setting up inception_5b/relu_5x5
I0403 15:25:39.777915 11947 net.cpp:148] Top shape: 24 128 7 7 (150528)
I0403 15:25:39.777930 11947 net.cpp:156] Memory required for data: 1335929376
I0403 15:25:39.777946 11947 layer_factory.hpp:77] Creating layer inception_5b/pool
I0403 15:25:39.777966 11947 net.cpp:91] Creating Layer inception_5b/pool
I0403 15:25:39.777982 11947 net.cpp:425] inception_5b/pool <- inception_5a/output_inception_5a/output_0_split_3
I0403 15:25:39.778004 11947 net.cpp:399] inception_5b/pool -> inception_5b/pool
I0403 15:25:39.778082 11947 net.cpp:141] Setting up inception_5b/pool
I0403 15:25:39.778107 11947 net.cpp:148] Top shape: 24 832 7 7 (978432)
I0403 15:25:39.778123 11947 net.cpp:156] Memory required for data: 1339843104
I0403 15:25:39.778138 11947 layer_factory.hpp:77] Creating layer inception_5b/pool_proj
I0403 15:25:39.778163 11947 net.cpp:91] Creating Layer inception_5b/pool_proj
I0403 15:25:39.778182 11947 net.cpp:425] inception_5b/pool_proj <- inception_5b/pool
I0403 15:25:39.778203 11947 net.cpp:399] inception_5b/pool_proj -> inception_5b/pool_proj
I0403 15:25:39.780681 11947 net.cpp:141] Setting up inception_5b/pool_proj
I0403 15:25:39.780714 11947 net.cpp:148] Top shape: 24 128 7 7 (150528)
I0403 15:25:39.780731 11947 net.cpp:156] Memory required for data: 1340445216
I0403 15:25:39.780751 11947 layer_factory.hpp:77] Creating layer inception_5b/relu_pool_proj
I0403 15:25:39.780772 11947 net.cpp:91] Creating Layer inception_5b/relu_pool_proj
I0403 15:25:39.780791 11947 net.cpp:425] inception_5b/relu_pool_proj <- inception_5b/pool_proj
I0403 15:25:39.780808 11947 net.cpp:386] inception_5b/relu_pool_proj -> inception_5b/pool_proj (in-place)
I0403 15:25:39.781131 11947 net.cpp:141] Setting up inception_5b/relu_pool_proj
I0403 15:25:39.781159 11947 net.cpp:148] Top shape: 24 128 7 7 (150528)
I0403 15:25:39.781175 11947 net.cpp:156] Memory required for data: 1341047328
I0403 15:25:39.781191 11947 layer_factory.hpp:77] Creating layer inception_5b/output
I0403 15:25:39.781213 11947 net.cpp:91] Creating Layer inception_5b/output
I0403 15:25:39.781245 11947 net.cpp:425] inception_5b/output <- inception_5b/1x1
I0403 15:25:39.781265 11947 net.cpp:425] inception_5b/output <- inception_5b/3x3
I0403 15:25:39.781281 11947 net.cpp:425] inception_5b/output <- inception_5b/5x5
I0403 15:25:39.781298 11947 net.cpp:425] inception_5b/output <- inception_5b/pool_proj
I0403 15:25:39.781316 11947 net.cpp:399] inception_5b/output -> inception_5b/output
I0403 15:25:39.781374 11947 net.cpp:141] Setting up inception_5b/output
I0403 15:25:39.781399 11947 net.cpp:148] Top shape: 24 1024 7 7 (1204224)
I0403 15:25:39.781420 11947 net.cpp:156] Memory required for data: 1345864224
I0403 15:25:39.781442 11947 layer_factory.hpp:77] Creating layer pool5/7x7_s1
I0403 15:25:39.781461 11947 net.cpp:91] Creating Layer pool5/7x7_s1
I0403 15:25:39.781483 11947 net.cpp:425] pool5/7x7_s1 <- inception_5b/output
I0403 15:25:39.781502 11947 net.cpp:399] pool5/7x7_s1 -> pool5/7x7_s1
I0403 15:25:39.781750 11947 net.cpp:141] Setting up pool5/7x7_s1
I0403 15:25:39.781780 11947 net.cpp:148] Top shape: 24 1024 1 1 (24576)
I0403 15:25:39.781795 11947 net.cpp:156] Memory required for data: 1345962528
I0403 15:25:39.781812 11947 layer_factory.hpp:77] Creating layer pool5/drop_7x7_s1
I0403 15:25:39.781831 11947 net.cpp:91] Creating Layer pool5/drop_7x7_s1
I0403 15:25:39.781848 11947 net.cpp:425] pool5/drop_7x7_s1 <- pool5/7x7_s1
I0403 15:25:39.781867 11947 net.cpp:386] pool5/drop_7x7_s1 -> pool5/7x7_s1 (in-place)
I0403 15:25:39.781921 11947 net.cpp:141] Setting up pool5/drop_7x7_s1
I0403 15:25:39.781946 11947 net.cpp:148] Top shape: 24 1024 1 1 (24576)
I0403 15:25:39.781961 11947 net.cpp:156] Memory required for data: 1346060832
I0403 15:25:39.781977 11947 layer_factory.hpp:77] Creating layer loss3/classifier_plantvillage
I0403 15:25:39.781999 11947 net.cpp:91] Creating Layer loss3/classifier_plantvillage
I0403 15:25:39.782018 11947 net.cpp:425] loss3/classifier_plantvillage <- pool5/7x7_s1
I0403 15:25:39.782037 11947 net.cpp:399] loss3/classifier_plantvillage -> loss3/classifier_plantvillage
I0403 15:25:39.782510 11947 net.cpp:141] Setting up loss3/classifier_plantvillage
I0403 15:25:39.782536 11947 net.cpp:148] Top shape: 24 38 (912)
I0403 15:25:39.782552 11947 net.cpp:156] Memory required for data: 1346064480
I0403 15:25:39.782572 11947 layer_factory.hpp:77] Creating layer loss3/classifier_plantvillage_loss3/classifier_plantvillage_0_split
I0403 15:25:39.782590 11947 net.cpp:91] Creating Layer loss3/classifier_plantvillage_loss3/classifier_plantvillage_0_split
I0403 15:25:39.782606 11947 net.cpp:425] loss3/classifier_plantvillage_loss3/classifier_plantvillage_0_split <- loss3/classifier_plantvillage
I0403 15:25:39.782629 11947 net.cpp:399] loss3/classifier_plantvillage_loss3/classifier_plantvillage_0_split -> loss3/classifier_plantvillage_loss3/classifier_plantvillage_0_split_0
I0403 15:25:39.782652 11947 net.cpp:399] loss3/classifier_plantvillage_loss3/classifier_plantvillage_0_split -> loss3/classifier_plantvillage_loss3/classifier_plantvillage_0_split_1
I0403 15:25:39.782673 11947 net.cpp:399] loss3/classifier_plantvillage_loss3/classifier_plantvillage_0_split -> loss3/classifier_plantvillage_loss3/classifier_plantvillage_0_split_2
I0403 15:25:39.782694 11947 net.cpp:399] loss3/classifier_plantvillage_loss3/classifier_plantvillage_0_split -> loss3/classifier_plantvillage_loss3/classifier_plantvillage_0_split_3
I0403 15:25:39.782804 11947 net.cpp:141] Setting up loss3/classifier_plantvillage_loss3/classifier_plantvillage_0_split
I0403 15:25:39.782831 11947 net.cpp:148] Top shape: 24 38 (912)
I0403 15:25:39.782850 11947 net.cpp:148] Top shape: 24 38 (912)
I0403 15:25:39.782866 11947 net.cpp:148] Top shape: 24 38 (912)
I0403 15:25:39.782882 11947 net.cpp:148] Top shape: 24 38 (912)
I0403 15:25:39.782896 11947 net.cpp:156] Memory required for data: 1346079072
I0403 15:25:39.782912 11947 layer_factory.hpp:77] Creating layer loss1/loss
I0403 15:25:39.782934 11947 net.cpp:91] Creating Layer loss1/loss
I0403 15:25:39.782953 11947 net.cpp:425] loss1/loss <- loss1/classifier_plantvillage_loss1/classifier_plantvillage_0_split_0
I0403 15:25:39.782985 11947 net.cpp:425] loss1/loss <- label_data_1_split_0
…
