…
I0403 15:03:11.442802 11542 net.cpp:313] The NetState phase (1) differed from the phase (0) specified by a rule in layer data
I0403 15:03:11.444005 11542 net.cpp:49] Initializing net from parameters: 
state {
  phase: TEST
}
layer {
  name: "data"
  type: "Data"
  top: "data"
  top: "label"
  include {
    phase: TEST
  }
  transform_param {
    mirror: false
    crop_size: 224
    mean_file: "/home/mohanty/data/final_dataset/lmdb/segmented-50-50/mean.binaryproto"
  }
  data_param {
    source: "/home/mohanty/data/final_dataset/lmdb/segmented-50-50/test_db"
    batch_size: 24
    backend: LMDB
  }
}
layer {
  name: "conv1/7x7_s2"
  type: "Convolution"
  bottom: "data"
  top: "conv1/7x7_s2"
  param {
    lr_mult: 1
    decay_mult: 1
  }
  param {
    lr_mult: 2
    decay_mult: 0
  }
  convolution_param {
    num_output: 64
    pad: 3
    kernel_size: 7
    stride: 2
    weight_filler {
      type: "xavier"
      std: 0.1
    }
    bias_filler {
      type: "constant"
      value: 0.2
    }
  }
}
layer {
  name: "conv1/relu_7x7"
  type: "ReLU"
  bottom: "conv1/7x7_s2"
  top: "conv1/7x7_s2"
}
layer {
  name: "pool1/3x3_s2"
  type: "Pooling"
  bottom: "conv1/7x7_s2"
  top: "pool1/3x3_s2"
  pooling_param {
    pool: MAX
    kernel_size: 3
    stride: 2
  }
}
layer {
  name: "pool1/norm1"
  type: "LRN"
  bottom: "pool1/3x3_s2"
  top: "pool1/norm1"
  lrn_param {
    local_size: 5
    alpha: 0.0001
    beta: 0.75
  }
}
layer {
  name: "conv2/3x3_reduce"
  type: "Convolution"
  bottom: "pool1/norm1"
  top: "conv2/3x3_reduce"
  param {
    lr_mult: 1
    decay_mult: 1
  }
  param {
    lr_mult: 2
    decay_mult: 0
  }
  convolution_param {
    num_output: 64
    kernel_size: 1
    weight_filler {
      type: "xavier"
      std: 0.1
    }
    bias_filler {
      type: "constant"
      value: 0.2
    }
  }
}
layer {
  name: "conv2/relu_3x3_reduce"
  type: "ReLU"
  bottom: "conv2/3x3_reduce"
  top: "conv2/3x3_reduce"
}
layer {
  name: "conv2/3x3"
  type: "Convolution"
  bottom: "conv2/3x3_reduce"
  top: "conv2/3x3"
  param {
    lr_mult: 1
    decay_mult: 1
  }
  param {
    lr_mult: 2
    decay_mult: 0
  }
  convolution_param {
    num_output: 192
    pad: 1
    kernel_size: 3
    weight_filler {
      type: "xavier"
      std: 0.03
    }
    bias_filler {
      type: "constant"
      value: 0.2
    }
  }
}
layer {
  name: "conv2/relu_3x3"
  type: "ReLU"
  bottom: "conv2/3x3"
  top: "conv2/3x3"
}
layer {
  name: "conv2/norm2"
  type: "LRN"
  bottom: "conv2/3x3"
  top: "conv2/norm2"
  lrn_param {
    local_size: 5
    alpha: 0.0001
    beta: 0.75
  }
}
layer {
  name: "pool2/3x3_s2"
  type: "Pooling"
  bottom: "conv2/norm2"
  top: "pool2/3x3_s2"
  pooling_param {
    pool: MAX
    kernel_size: 3
    stride: 2
  }
}
layer {
  name: "inception_3a/1x1"
  type: "Convolution"
  bottom: "pool2/3x3_s2"
  top: "inception_3a/1x1"
  param {
    lr_mult: 1
    decay_mult: 1
  }
  param {
    lr_mult: 2
    decay_mult: 0
  }
  convolution_param {
    num_output: 64
    kernel_size: 1
    weight_filler {
      type: "xavier"
      std: 0.03
    }
    bias_filler {
      type: "constant"
      value: 0.2
    }
  }
}
layer {
  name: "inception_3a/relu_1x1"
  type: "ReLU"
  bottom: "inception_3a/1x1"
  top: "inception_3a/1x1"
}
layer {
  name: "inception_3a/3x3_reduce"
  type: "Convolution"
  bottom: "pool2/3x3_s2"
  top: "inception_3a/3x3_reduce"
  param {
    lr_mult: 1
    decay_mult: 1
  }
  param {
    lr_mult: 2
    decay_mult: 0
  }
  convolution_param {
    num_output: 96
    kernel_size: 1
    weight_filler {
      type: "xavier"
      std: 0.09
    }
    bias_filler {
      type: "constant"
      value: 0.2
    }
  }
}
layer {
  name: "inception_3a/relu_3x3_reduce"
  type: "ReLU"
  bottom: "inception_3a/3x3_reduce"
  top: "inception_3a/3x3_reduce"
}
layer {
  name: "inception_3a/3x3"
  type: "Convolution"
  bottom: "inception_3a/3x3_reduce"
  top: "inception_3a/3x3"
  param {
    lr_mult: 1
    decay_mult: 1
  }
  param {
    lr_mult: 2
    decay_mult: 0
  }
  convolution_param {
    num_output: 128
    pad: 1
    kernel_size: 3
    weight_filler {
      type: "xavier"
      std: 0.03
    }
    bias_filler {
      type: "constant"
      value: 0.2
    }
  }
}
layer {
  name: "inception_3a/relu_3x3"
  type: "ReLU"
  bottom: "inception_3a/3x3"
  top: "inception_3a/3x3"
}
layer {
  name: "inception_3a/5x5_reduce"
  type: "Convolution"
  bottom: "pool2/3x3_s2"
  top: "inception_3a/5x5_reduce"
  param {
    lr_mult: 1
    decay_mult: 1
  }
  param {
    lr_mult: 2
    decay_mult: 0
  }
  convolution_param {
    num_output: 16
    kernel_size: 1
    weight_filler {
      type: "xavier"
      std: 0.2
    }
    bias_filler {
      type: "constant"
      value: 0.2
    }
  }
}
layer {
  name: "inception_3a/relu_5x5_reduce"
  type: "ReLU"
  bottom: "inception_3a/5x5_reduce"
  top: "inception_3a/5x5_reduce"
}
layer {
  name: "inception_3a/5x5"
  type: "Convolution"
  bottom: "inception_3a/5x5_reduce"
  top: "inception_3a/5x5"
  param {
    lr_mult: 1
    decay_mult: 1
  }
  param {
    lr_mult: 2
    decay_mult: 0
  }
  convolution_param {
    num_output: 32
    pad: 2
    kernel_size: 5
    weight_filler {
      type: "xavier"
      std: 0.03
    }
    bias_filler {
      type: "constant"
      value: 0.2
    }
  }
}
layer {
  name: "inception_3a/relu_5x5"
  type: "ReLU"
  bottom: "inception_3a/5x5"
  top: "inception_3a/5x5"
}
layer {
  name: "inception_3a/pool"
  type: "Pooling"
  bottom: "pool2/3x3_s2"
  top: "inception_3a/pool"
  pooling_param {
    pool: MAX
    kernel_size: 3
    stride: 1
    pad: 1
  }
}
layer {
  name: "inception_3a/pool_proj"
  type: "Convolution"
  bottom: "inception_3a/pool"
  top: "inception_3a/pool_proj"
  param {
    lr_mult: 1
    decay_mult: 1
  }
  param {
    lr_mult: 2
    decay_mult: 0
  }
  convolution_param {
    num_output: 32
    kernel_size: 1
    weight_filler {
      type: "xavier"
      std: 0.1
    }
    bias_filler {
      type: "constant"
      value: 0.2
    }
  }
}
layer {
  name: "inception_3a/relu_pool_proj"
  type: "ReLU"
  bottom: "inception_3a/pool_proj"
  top: "inception_3a/pool_proj"
}
layer {
  name: "inception_3a/output"
  type: "Concat"
  bottom: "inception_3a/1x1"
  bottom: "inception_3a/3x3"
  bottom: "inception_3a/5x5"
  bottom: "inception_3a/pool_proj"
  top: "inception_3a/output"
}
layer {
  name: "inception_3b/1x1"
  type: "Convolution"
  bottom: "inception_3a/output"
  top: "inception_3b/1x1"
  param {
    lr_mult: 1
    decay_mult: 1
  }
  param {
    lr_mult: 2
    decay_mult: 0
  }
  convolution_param {
    num_output: 128
    kernel_size: 1
    weight_filler {
      type: "xavier"
      std: 0.03
    }
    bias_filler {
      type: "constant"
      value: 0.2
    }
  }
}
layer {
  name: "inception_3b/relu_1x1"
  type: "ReLU"
  bottom: "inception_3b/1x1"
  top: "inception_3b/1x1"
}
layer {
  name: "inception_3b/3x3_reduce"
  type: "Convolution"
  bottom: "inception_3a/output"
  top: "inception_3b/3x3_reduce"
  param {
    lr_mult: 1
    decay_mult: 1
  }
  param {
    lr_mult: 2
    decay_mult: 0
  }
  convolution_param {
    num_output: 128
    kernel_size: 1
    weight_filler {
      type: "xavier"
      std: 0.09
    }
    bias_filler {
      type: "constant"
      value: 0.2
    }
  }
}
layer {
  name: "inception_3b/relu_3x3_reduce"
  type: "ReLU"
  bottom: "inception_3b/3x3_reduce"
  top: "inception_3b/3x3_reduce"
}
layer {
  name: "inception_3b/3x3"
  type: "Convolution"
  bottom: "inception_3b/3x3_reduce"
  top: "inception_3b/3x3"
  param {
    lr_mult: 1
    decay_mult: 1
  }
  param {
    lr_mult: 2
    decay_mult: 0
  }
  convolution_param {
    num_output: 192
    pad: 1
    kernel_size: 3
    weight_filler {
      type: "xavier"
      std: 0.03
    }
    bias_filler {
      type: "constant"
      value: 0.2
    }
  }
}
layer {
  name: "inception_3b/relu_3x3"
  type: "ReLU"
  bottom: "inception_3b/3x3"
  top: "inception_3b/3x3"
}
layer {
  name: "inception_3b/5x5_reduce"
  type: "Convolution"
  bottom: "inception_3a/output"
  top: "inception_3b/5x5_reduce"
  param {
    lr_mult: 1
    decay_mult: 1
  }
  param {
    lr_mult: 2
    decay_mult: 0
  }
  convolution_param {
    num_output: 32
    kernel_size: 1
    weight_filler {
      type: "xavier"
      std: 0.2
    }
    bias_filler {
      type: "constant"
      value: 0.2
    }
  }
}
layer {
  name: "inception_3b/relu_5x5_reduce"
  type: "ReLU"
  bottom: "inception_3b/5x5_reduce"
  top: "inception_3b/5x5_reduce"
}
layer {
  name: "inception_3b/5x5"
  type: "Convolution"
  bottom: "inception_3b/5x5_reduce"
  top: "inception_3b/5x5"
  param {
    lr_mult: 1
    decay_mult: 1
  }
  param {
    lr_mult: 2
    decay_mult: 0
  }
  convolution_param {
    num_output: 96
    pad: 2
    kernel_size: 5
    weight_filler {
      type: "xavier"
      std: 0.03
    }
    bias_filler {
      type: "constant"
      value: 0.2
    }
  }
}
layer {
  name: "inception_3b/relu_5x5"
  type: "ReLU"
  bottom: "inception_3b/5x5"
  top: "inception_3b/5x5"
}
layer {
  name: "inception_3b/pool"
  type: "Pooling"
  bottom: "inception_3a/output"
  top: "inception_3b/pool"
  pooling_param {
    pool: MAX
    kernel_size: 3
    stride: 1
    pad: 1
  }
}
layer {
  name: "inception_3b/pool_proj"
  type: "Convolution"
  bottom: "inception_3b/pool"
  top: "inception_3b/pool_proj"
  param {
    lr_mult: 1
    decay_mult: 1
  }
  param {
    lr_mult: 2
    decay_mult: 0
  }
  convolution_param {
    num_output: 64
    kernel_size: 1
    weight_filler {
      type: "xavier"
      std: 0.1
    }
    bias_filler {
      type: "constant"
      value: 0.2
    }
  }
}
layer {
  name: "inception_3b/relu_pool_proj"
  type: "ReLU"
  bottom: "inception_3b/pool_proj"
  top: "inception_3b/pool_proj"
}
layer {
  name: "inception_3b/output"
  type: "Concat"
  bottom: "inception_3b/1x1"
  bottom: "inception_3b/3x3"
  bottom: "inception_3b/5x5"
  bottom: "inception_3b/pool_proj"
  top: "inception_3b/output"
}
layer {
  name: "pool3/3x3_s2"
  type: "Pooling"
  bottom: "inception_3b/output"
  top: "pool3/3x3_s2"
  pooling_param {
    pool: MAX
    kernel_size: 3
    stride: 2
  }
}
layer {
  name: "inception_4a/1x1"
  type: "Convolution"
  bottom: "pool3/3x3_s2"
  top: "inception_4a/1x1"
  param {
    lr_mult: 1
    decay_mult: 1
  }
  param {
    lr_mult: 2
    decay_mult: 0
  }
  convolution_param {
    num_output: 192
    kernel_size: 1
    weight_filler {
      type: "xavier"
      std: 0.03
    }
    bias_filler {
      type: "constant"
      value: 0.2
    }
  }
}
layer {
  name: "inception_4a/relu_1x1"
  type: "ReLU"
  bottom: "inception_4a/1x1"
  top: "inception_4a/1x1"
}
layer {
  name: "inception_4a/3x3_reduce"
  type: "Convolution"
  bottom: "pool3/3x3_s2"
  top: "inception_4a/3x3_reduce"
  param {
    lr_mult: 1
    decay_mult: 1
  }
  param {
    lr_mult: 2
    decay_mult: 0
  }
  convolution_param {
    num_output: 96
    kernel_size: 1
    weight_filler {
      type: "xavier"
      std: 0.09
    }
    bias_filler {
      type: "constant"
      value: 0.2
    }
  }
}
layer {
  name: "inception_4a/relu_3x3_reduce"
  type: "ReLU"
  bottom: "inception_4a/3x3_reduce"
  top: "inception_4a/3x3_reduce"
}
layer {
  name: "inception_4a/3x3"
  type: "Convolution"
  bottom: "inception_4a/3x3_reduce"
  top: "inception_4a/3x3"
  param {
    lr_mult: 1
    decay_mult: 1
  }
  param {
    lr_mult: 2
    decay_mult: 0
  }
  convolution_param {
    num_output: 208
    pad: 1
    kernel_size: 3
    weight_filler {
      type: "xavier"
      std: 0.03
    }
    bias_filler {
      type: "constant"
      value: 0.2
    }
  }
}
layer {
  name: "inception_4a/relu_3x3"
  type: "ReLU"
  bottom: "inception_4a/3x3"
  top: "inception_4a/3x3"
}
layer {
  name: "inception_4a/5x5_reduce"
  type: "Convolution"
  bottom: "pool3/3x3_s2"
  top: "inception_4a/5x5_reduce"
  param {
    lr_mult: 1
    decay_mult: 1
  }
  param {
    lr_mult: 2
    decay_mult: 0
  }
  convolution_param {
    num_output: 16
    kernel_size: 1
    weight_filler {
      type: "xavier"
      std: 0.2
    }
    bias_filler {
      type: "constant"
      value: 0.2
    }
  }
}
layer {
  name: "inception_4a/relu_5x5_reduce"
  type: "ReLU"
  bottom: "inception_4a/5x5_reduce"
  top: "inception_4a/5x5_reduce"
}
layer {
  name: "inception_4a/5x5"
  type: "Convolution"
  bottom: "inception_4a/5x5_reduce"
  top: "inception_4a/5x5"
  param {
    lr_mult: 1
    decay_mult: 1
  }
  param {
    lr_mult: 2
    decay_mult: 0
  }
  convolution_param {
    num_output: 48
    pad: 2
    kernel_size: 5
    weight_filler {
      type: "xavier"
      std: 0.03
    }
    bias_filler {
      type: "constant"
      value: 0.2
    }
  }
}
layer {
  name: "inception_4a/relu_5x5"
  type: "ReLU"
  bottom: "inception_4a/5x5"
  top: "inception_4a/5x5"
}
layer {
  name: "inception_4a/pool"
  type: "Pooling"
  bottom: "pool3/3x3_s2"
  top: "inception_4a/pool"
  pooling_param {
    pool: MAX
    kernel_size: 3
    stride: 1
    pad: 1
  }
}
layer {
  name: "inception_4a/pool_proj"
  type: "Convolution"
  bottom: "inception_4a/pool"
  top: "inception_4a/pool_proj"
  param {
    lr_mult: 1
    decay_mult: 1
  }
  param {
    lr_mult: 2
    decay_mult: 0
  }
  convolution_param {
    num_output: 64
    kernel_size: 1
    weight_filler {
      type: "xavier"
      std: 0.1
    }
    bias_filler {
      type: "constant"
      value: 0.2
    }
  }
}
layer {
  name: "inception_4a/relu_pool_proj"
  type: "ReLU"
  bottom: "inception_4a/pool_proj"
  top: "inception_4a/pool_proj"
}
layer {
  name: "inception_4a/output"
  type: "Concat"
  bottom: "inception_4a/1x1"
  bottom: "inception_4a/3x3"
  bottom: "inception_4a/5x5"
  bottom: "inception_4a/pool_proj"
  top: "inception_4a/output"
}
layer {
  name: "loss1/ave_pool"
  type: "Pooling"
  bottom: "inception_4a/output"
  top: "loss1/ave_pool"
  pooling_param {
    pool: AVE
    kernel_size: 5
    stride: 3
  }
}
layer {
  name: "loss1/conv"
  type: "Convolution"
  bottom: "loss1/ave_pool"
  top: "loss1/conv"
  param {
    lr_mult: 1
    decay_mult: 1
  }
  param {
    lr_mult: 2
    decay_mult: 0
  }
  convolution_param {
    num_output: 128
    kernel_size: 1
    weight_filler {
      type: "xavier"
      std: 0.08
    }
    bias_filler {
      type: "constant"
      value: 0.2
    }
  }
}
layer {
  name: "loss1/relu_conv"
  type: "ReLU"
  bottom: "loss1/conv"
  top: "loss1/conv"
}
layer {
  name: "loss1/fc"
  type: "InnerProduct"
  bottom: "loss1/conv"
  top: "loss1/fc"
  param {
    lr_mult: 1
    decay_mult: 1
  }
  param {
    lr_mult: 2
    decay_mult: 0
  }
  inner_product_param {
    num_output: 1024
    weight_filler {
      type: "xavier"
      std: 0.02
    }
    bias_filler {
      type: "constant"
      value: 0.2
    }
  }
}
layer {
  name: "loss1/relu_fc"
  type: "ReLU"
  bottom: "loss1/fc"
  top: "loss1/fc"
}
layer {
  name: "loss1/drop_fc"
  type: "Dropout"
  bottom: "loss1/fc"
  top: "loss1/fc"
  dropout_param {
    dropout_ratio: 0.7
  }
}
layer {
  name: "loss1/classifier_plantvillage"
  type: "InnerProduct"
  bottom: "loss1/fc"
  top: "loss1/classifier_plantvillage"
  param {
    lr_mult: 1
    decay_mult: 1
  }
  param {
    lr_mult: 2
    decay_mult: 0
  }
  inner_product_param {
    num_output: 38
    weight_filler {
      type: "xavier"
      std: 0.0009765625
    }
    bias_filler {
      type: "constant"
      value: 0
    }
  }
}
layer {
  name: "inception_4b/1x1"
  type: "Convolution"
  bottom: "inception_4a/output"
  top: "inception_4b/1x1"
  param {
    lr_mult: 1
    decay_mult: 1
  }
  param {
    lr_mult: 2
    decay_mult: 0
  }
  convolution_param {
    num_output: 160
    kernel_size: 1
    weight_filler {
      type: "xavier"
      std: 0.03
    }
    bias_filler {
      type: "constant"
      value: 0.2
    }
  }
}
layer {
  name: "inception_4b/relu_1x1"
  type: "ReLU"
  bottom: "inception_4b/1x1"
  top: "inception_4b/1x1"
}
layer {
  name: "inception_4b/3x3_reduce"
  type: "Convolution"
  bottom: "inception_4a/output"
  top: "inception_4b/3x3_reduce"
  param {
    lr_mult: 1
    decay_mult: 1
  }
  param {
    lr_mult: 2
    decay_mult: 0
  }
  convolution_param {
    num_output: 112
    kernel_size: 1
    weight_filler {
      type: "xavier"
      std: 0.09
    }
    bias_filler {
      type: "constant"
      value: 0.2
    }
  }
}
layer {
  name: "inception_4b/relu_3x3_reduce"
  type: "ReLU"
  bottom: "inception_4b/3x3_reduce"
  top: "inception_4b/3x3_reduce"
}
layer {
  name: "inception_4b/3x3"
  type: "Convolution"
  bottom: "inception_4b/3x3_reduce"
  top: "inception_4b/3x3"
  param {
    lr_mult: 1
    decay_mult: 1
  }
  param {
    lr_mult: 2
    decay_mult: 0
  }
  convolution_param {
    num_output: 224
    pad: 1
    kernel_size: 3
    weight_filler {
      type: "xavier"
      std: 0.03
    }
    bias_filler {
      type: "constant"
      value: 0.2
    }
  }
}
layer {
  name: "inception_4b/relu_3x3"
  type: "ReLU"
  bottom: "inception_4b/3x3"
  top: "inception_4b/3x3"
}
layer {
  name: "inception_4b/5x5_reduce"
  type: "Convolution"
  bottom: "inception_4a/output"
  top: "inception_4b/5x5_reduce"
  param {
    lr_mult: 1
    decay_mult: 1
  }
  param {
    lr_mult: 2
    decay_mult: 0
  }
  convolution_param {
    num_output: 24
    kernel_size: 1
    weight_filler {
      type: "xavier"
      std: 0.2
    }
    bias_filler {
      type: "constant"
      value: 0.2
    }
  }
}
layer {
  name: "inception_4b/relu_5x5_reduce"
  type: "ReLU"
  bottom: "inception_4b/5x5_reduce"
  top: "inception_4b/5x5_reduce"
}
layer {
  name: "inception_4b/5x5"
  type: "Convolution"
  bottom: "inception_4b/5x5_reduce"
  top: "inception_4b/5x5"
  param {
    lr_mult: 1
    decay_mult: 1
  }
  param {
    lr_mult: 2
    decay_mult: 0
  }
  convolution_param {
    num_output: 64
    pad: 2
    kernel_size: 5
    weight_filler {
      type: "xavier"
      std: 0.03
    }
    bias_filler {
      type: "constant"
      value: 0.2
    }
  }
}
layer {
  name: "inception_4b/relu_5x5"
  type: "ReLU"
  bottom: "inception_4b/5x5"
  top: "inception_4b/5x5"
}
layer {
  name: "inception_4b/pool"
  type: "Pooling"
  bottom: "inception_4a/output"
  top: "inception_4b/pool"
  pooling_param {
    pool: MAX
    kernel_size: 3
    stride: 1
    pad: 1
  }
}
layer {
  name: "inception_4b/pool_proj"
  type: "Convolution"
  bottom: "inception_4b/pool"
  top: "inception_4b/pool_proj"
  param {
    lr_mult: 1
    decay_mult: 1
  }
  param {
    lr_mult: 2
    decay_mult: 0
  }
  convolution_param {
    num_output: 64
    kernel_size: 1
    weight_filler {
      type: "xavier"
      std: 0.1
    }
    bias_filler {
      type: "constant"
      value: 0.2
    }
  }
}
layer {
  name: "inception_4b/relu_pool_proj"
  type: "ReLU"
  bottom: "inception_4b/pool_proj"
  top: "inception_4b/pool_proj"
}
layer {
  name: "inception_4b/output"
  type: "Concat"
  bottom: "inception_4b/1x1"
  bottom: "inception_4b/3x3"
  bottom: "inception_4b/5x5"
  bottom: "inception_4b/pool_proj"
  top: "inception_4b/output"
}
layer {
  name: "inception_4c/1x1"
  type: "Convolution"
  bottom: "inception_4b/output"
  top: "inception_4c/1x1"
  param {
    lr_mult: 1
    decay_mult: 1
  }
  param {
    lr_mult: 2
    decay_mult: 0
  }
  convolution_param {
    num_output: 128
    kernel_size: 1
    weight_filler {
      type: "xavier"
      std: 0.03
    }
    bias_filler {
      type: "constant"
      value: 0.2
    }
  }
}
layer {
  name: "inception_4c/relu_1x1"
  type: "ReLU"
  bottom: "inception_4c/1x1"
  top: "inception_4c/1x1"
}
layer {
  name: "inception_4c/3x3_reduce"
  type: "Convolution"
  bottom: "inception_4b/output"
  top: "inception_4c/3x3_reduce"
  param {
    lr_mult: 1
    decay_mult: 1
  }
  param {
    lr_mult: 2
    decay_mult: 0
  }
  convolution_param {
    num_output: 128
    kernel_size: 1
    weight_filler {
      type: "xavier"
      std: 0.09
    }
    bias_filler {
      type: "constant"
      value: 0.2
    }
  }
}
layer {
  name: "inception_4c/relu_3x3_reduce"
  type: "ReLU"
  bottom: "inception_4c/3x3_reduce"
  top: "inception_4c/3x3_reduce"
}
layer {
  name: "inception_4c/3x3"
  type: "Convolution"
  bottom: "inception_4c/3x3_reduce"
  top: "inception_4c/3x3"
  param {
    lr_mult: 1
    decay_mult: 1
  }
  param {
    lr_mult: 2
    decay_mult: 0
  }
  convolution_param {
    num_output: 256
    pad: 1
    kernel_size: 3
    weight_filler {
      type: "xavier"
      std: 0.03
    }
    bias_filler {
      type: "constant"
      value: 0.2
    }
  }
}
layer {
  name: "inception_4c/relu_3x3"
  type: "ReLU"
  bottom: "inception_4c/3x3"
  top: "inception_4c/3x3"
}
layer {
  name: "inception_4c/5x5_reduce"
  type: "Convolution"
  bottom: "inception_4b/output"
  top: "inception_4c/5x5_reduce"
  param {
    lr_mult: 1
    decay_mult: 1
  }
  param {
    lr_mult: 2
    decay_mult: 0
  }
  convolution_param {
    num_output: 24
    kernel_size: 1
    weight_filler {
      type: "xavier"
      std: 0.2
    }
    bias_filler {
      type: "constant"
      value: 0.2
    }
  }
}
layer {
  name: "inception_4c/relu_5x5_reduce"
  type: "ReLU"
  bottom: "inception_4c/5x5_reduce"
  top: "inception_4c/5x5_reduce"
}
layer {
  name: "inception_4c/5x5"
  type: "Convolution"
  bottom: "inception_4c/5x5_reduce"
  top: "inception_4c/5x5"
  param {
    lr_mult: 1
    decay_mult: 1
  }
  param {
    lr_mult: 2
    decay_mult: 0
  }
  convolution_param {
    num_output: 64
    pad: 2
    kernel_size: 5
    weight_filler {
      type: "xavier"
      std: 0.03
    }
    bias_filler {
      type: "constant"
      value: 0.2
    }
  }
}
layer {
  name: "inception_4c/relu_5x5"
  type: "ReLU"
  bottom: "inception_4c/5x5"
  top: "inception_4c/5x5"
}
layer {
  name: "inception_4c/pool"
  type: "Pooling"
  bottom: "inception_4b/output"
  top: "inception_4c/pool"
  pooling_param {
    pool: MAX
    kernel_size: 3
    stride: 1
    pad: 1
  }
}
layer {
  name: "inception_4c/pool_proj"
  type: "Convolution"
  bottom: "inception_4c/pool"
  top: "inception_4c/pool_proj"
  param {
    lr_mult: 1
    decay_mult: 1
  }
  param {
    lr_mult: 2
    decay_mult: 0
  }
  convolution_param {
    num_output: 64
    kernel_size: 1
    weight_filler {
      type: "xavier"
      std: 0.1
    }
    bias_filler {
      type: "constant"
      value: 0.2
    }
  }
}
layer {
  name: "inception_4c/relu_pool_proj"
  type: "ReLU"
  bottom: "inception_4c/pool_proj"
  top: "inception_4c/pool_proj"
}
layer {
  name: "inception_4c/output"
  type: "Concat"
  bottom: "inception_4c/1x1"
  bottom: "inception_4c/3x3"
  bottom: "inception_4c/5x5"
  bottom: "inception_4c/pool_proj"
  top: "inception_4c/output"
}
layer {
  name: "inception_4d/1x1"
  type: "Convolution"
  bottom: "inception_4c/output"
  top: "inception_4d/1x1"
  param {
    lr_mult: 1
    decay_mult: 1
  }
  param {
    lr_mult: 2
    decay_mult: 0
  }
  convolution_param {
    num_output: 112
    kernel_size: 1
    weight_filler {
      type: "xavier"
      std: 0.03
    }
    bias_filler {
      type: "constant"
      value: 0.2
    }
  }
}
layer {
  name: "inception_4d/relu_1x1"
  type: "ReLU"
  bottom: "inception_4d/1x1"
  top: "inception_4d/1x1"
}
layer {
  name: "inception_4d/3x3_reduce"
  type: "Convolution"
  bottom: "inception_4c/output"
  top: "inception_4d/3x3_reduce"
  param {
    lr_mult: 1
    decay_mult: 1
  }
  param {
    lr_mult: 2
    decay_mult: 0
  }
  convolution_param {
    num_output: 144
    kernel_size: 1
    weight_filler {
      type: "xavier"
      std: 0.09
    }
    bias_filler {
      type: "constant"
      value: 0.2
    }
  }
}
layer {
  name: "inception_4d/relu_3x3_reduce"
  type: "ReLU"
  bottom: "inception_4d/3x3_reduce"
  top: "inception_4d/3x3_reduce"
}
layer {
  name: "inception_4d/3x3"
  type: "Convolution"
  bottom: "inception_4d/3x3_reduce"
  top: "inception_4d/3x3"
  param {
    lr_mult: 1
    decay_mult: 1
  }
  param {
    lr_mult: 2
    decay_mult: 0
  }
  convolution_param {
    num_output: 288
    pad: 1
    kernel_size: 3
    weight_filler {
      type: "xavier"
      std: 0.03
    }
    bias_filler {
      type: "constant"
      value: 0.2
    }
  }
}
layer {
  name: "inception_4d/relu_3x3"
  type: "ReLU"
  bottom: "inception_4d/3x3"
  top: "inception_4d/3x3"
}
layer {
  name: "inception_4d/5x5_reduce"
  type: "Convolution"
  bottom: "inception_4c/output"
  top: "inception_4d/5x5_reduce"
  param {
    lr_mult: 1
    decay_mult: 1
  }
  param {
    lr_mult: 2
    decay_mult: 0
  }
  convolution_param {
    num_output: 32
    kernel_size: 1
    weight_filler {
      type: "xavier"
      std: 0.2
    }
    bias_filler {
      type: "constant"
      value: 0.2
    }
  }
}
layer {
  name: "inception_4d/relu_5x5_reduce"
  type: "ReLU"
  bottom: "inception_4d/5x5_reduce"
  top: "inception_4d/5x5_reduce"
}
layer {
  name: "inception_4d/5x5"
  type: "Convolution"
  bottom: "inception_4d/5x5_reduce"
  top: "inception_4d/5x5"
  param {
    lr_mult: 1
    decay_mult: 1
  }
  param {
    lr_mult: 2
    decay_mult: 0
  }
  convolution_param {
    num_output: 64
    pad: 2
    kernel_size: 5
    weight_filler {
      type: "xavier"
      std: 0.03
    }
    bias_filler {
      type: "constant"
      value: 0.2
    }
  }
}
layer {
  name: "inception_4d/relu_5x5"
  type: "ReLU"
  bottom: "inception_4d/5x5"
  top: "inception_4d/5x5"
}
layer {
  name: "inception_4d/pool"
  type: "Pooling"
  bottom: "inception_4c/output"
  top: "inception_4d/pool"
  pooling_param {
    pool: MAX
    kernel_size: 3
    stride: 1
    pad: 1
  }
}
layer {
  name: "inception_4d/pool_proj"
  type: "Convolution"
  bottom: "inception_4d/pool"
  top: "inception_4d/pool_proj"
  param {
    lr_mult: 1
    decay_mult: 1
  }
  param {
    lr_mult: 2
    decay_mult: 0
  }
  convolution_param {
    num_output: 64
    kernel_size: 1
    weight_filler {
      type: "xavier"
      std: 0.1
    }
    bias_filler {
      type: "constant"
      value: 0.2
    }
  }
}
layer {
  name: "inception_4d/relu_pool_proj"
  type: "ReLU"
  bottom: "inception_4d/pool_proj"
  top: "inception_4d/pool_proj"
}
layer {
  name: "inception_4d/output"
  type: "Concat"
  bottom: "inception_4d/1x1"
  bottom: "inception_4d/3x3"
  bottom: "inception_4d/5x5"
  bottom: "inception_4d/pool_proj"
  top: "inception_4d/output"
}
layer {
  name: "loss2/ave_pool"
  type: "Pooling"
  bottom: "inception_4d/output"
  top: "loss2/ave_pool"
  pooling_param {
    pool: AVE
    kernel_size: 5
    stride: 3
  }
}
layer {
  name: "loss2/conv"
  type: "Convolution"
  bottom: "loss2/ave_pool"
  top: "loss2/conv"
  param {
    lr_mult: 1
    decay_mult: 1
  }
  param {
    lr_mult: 2
    decay_mult: 0
  }
  convolution_param {
    num_output: 128
    kernel_size: 1
    weight_filler {
      type: "xavier"
      std: 0.08
    }
    bias_filler {
      type: "constant"
      value: 0.2
    }
  }
}
layer {
  name: "loss2/relu_conv"
  type: "ReLU"
  bottom: "loss2/conv"
  top: "loss2/conv"
}
layer {
  name: "loss2/fc"
  type: "InnerProduct"
  bottom: "loss2/conv"
  top: "loss2/fc"
  param {
    lr_mult: 1
    decay_mult: 1
  }
  param {
    lr_mult: 2
    decay_mult: 0
  }
  inner_product_param {
    num_output: 1024
    weight_filler {
      type: "xavier"
      std: 0.02
    }
    bias_filler {
      type: "constant"
      value: 0.2
    }
  }
}
layer {
  name: "loss2/relu_fc"
  type: "ReLU"
  bottom: "loss2/fc"
  top: "loss2/fc"
}
layer {
  name: "loss2/drop_fc"
  type: "Dropout"
  bottom: "loss2/fc"
  top: "loss2/fc"
  dropout_param {
    dropout_ratio: 0.7
  }
}
layer {
  name: "loss2/classifier_plantvillage"
  type: "InnerProduct"
  bottom: "loss2/fc"
  top: "loss2/classifier_plantvillage"
  param {
    lr_mult: 1
    decay_mult: 1
  }
  param {
    lr_mult: 2
    decay_mult: 0
  }
  inner_product_param {
    num_output: 38
    weight_filler {
      type: "xavier"
      std: 0.0009765625
    }
    bias_filler {
      type: "constant"
      value: 0
    }
  }
}
layer {
  name: "inception_4e/1x1"
  type: "Convolution"
  bottom: "inception_4d/output"
  top: "inception_4e/1x1"
  param {
    lr_mult: 1
    decay_mult: 1
  }
  param {
    lr_mult: 2
    decay_mult: 0
  }
  convolution_param {
    num_output: 256
    kernel_size: 1
    weight_filler {
      type: "xavier"
      std: 0.03
    }
    bias_filler {
      type: "constant"
      value: 0.2
    }
  }
}
layer {
  name: "inception_4e/relu_1x1"
  type: "ReLU"
  bottom: "inception_4e/1x1"
  top: "inception_4e/1x1"
}
layer {
  name: "inception_4e/3x3_reduce"
  type: "Convolution"
  bottom: "inception_4d/output"
  top: "inception_4e/3x3_reduce"
  param {
    lr_mult: 1
    decay_mult: 1
  }
  param {
    lr_mult: 2
    decay_mult: 0
  }
  convolution_param {
    num_output: 160
    kernel_size: 1
    weight_filler {
      type: "xavier"
      std: 0.09
    }
    bias_filler {
      type: "constant"
      value: 0.2
    }
  }
}
layer {
  name: "inception_4e/relu_3x3_reduce"
  type: "ReLU"
  bottom: "inception_4e/3x3_reduce"
  top: "inception_4e/3x3_reduce"
}
layer {
  name: "inception_4e/3x3"
  type: "Convolution"
  bottom: "inception_4e/3x3_reduce"
  top: "inception_4e/3x3"
  param {
    lr_mult: 1
    decay_mult: 1
  }
  param {
    lr_mult: 2
    decay_mult: 0
  }
  convolution_param {
    num_output: 320
    pad: 1
    kernel_size: 3
    weight_filler {
      type: "xavier"
      std: 0.03
    }
    bias_filler {
      type: "constant"
      value: 0.2
    }
  }
}
layer {
  name: "inception_4e/relu_3x3"
  type: "ReLU"
  bottom: "inception_4e/3x3"
  top: "inception_4e/3x3"
}
layer {
  name: "inception_4e/5x5_reduce"
  type: "Convolution"
  bottom: "inception_4d/output"
  top: "inception_4e/5x5_reduce"
  param {
    lr_mult: 1
    decay_mult: 1
  }
  param {
    lr_mult: 2
    decay_mult: 0
  }
  convolution_param {
    num_output: 32
    kernel_size: 1
    weight_filler {
      type: "xavier"
      std: 0.2
    }
    bias_filler {
      type: "constant"
      value: 0.2
    }
  }
}
layer {
  name: "inception_4e/relu_5x5_reduce"
  type: "ReLU"
  bottom: "inception_4e/5x5_reduce"
  top: "inception_4e/5x5_reduce"
}
layer {
  name: "inception_4e/5x5"
  type: "Convolution"
  bottom: "inception_4e/5x5_reduce"
  top: "inception_4e/
I0403 15:03:11.445273 11542 layer_factory.hpp:77] Creating layer data
I0403 15:03:11.445896 11542 net.cpp:91] Creating Layer data
I0403 15:03:11.445926 11542 net.cpp:399] data -> data
I0403 15:03:11.445976 11542 net.cpp:399] data -> label
I0403 15:03:11.446015 11542 data_transformer.cpp:25] Loading mean file from: /home/mohanty/data/final_dataset/lmdb/segmented-50-50/mean.binaryproto
I0403 15:03:11.460315 11544 db_lmdb.cpp:38] Opened lmdb /home/mohanty/data/final_dataset/lmdb/segmented-50-50/test_db
I0403 15:03:11.463598 11542 data_layer.cpp:41] output data size: 24,3,224,224
I0403 15:03:11.490833 11542 net.cpp:141] Setting up data
I0403 15:03:11.490912 11542 net.cpp:148] Top shape: 24 3 224 224 (3612672)
I0403 15:03:11.490936 11542 net.cpp:148] Top shape: 24 (24)
I0403 15:03:11.490952 11542 net.cpp:156] Memory required for data: 14450784
I0403 15:03:11.490979 11542 layer_factory.hpp:77] Creating layer label_data_1_split
I0403 15:03:11.491008 11542 net.cpp:91] Creating Layer label_data_1_split
I0403 15:03:11.491026 11542 net.cpp:425] label_data_1_split <- label
I0403 15:03:11.491058 11542 net.cpp:399] label_data_1_split -> label_data_1_split_0
I0403 15:03:11.491086 11542 net.cpp:399] label_data_1_split -> label_data_1_split_1
I0403 15:03:11.491107 11542 net.cpp:399] label_data_1_split -> label_data_1_split_2
I0403 15:03:11.491128 11542 net.cpp:399] label_data_1_split -> label_data_1_split_3
I0403 15:03:11.491149 11542 net.cpp:399] label_data_1_split -> label_data_1_split_4
I0403 15:03:11.491170 11542 net.cpp:399] label_data_1_split -> label_data_1_split_5
I0403 15:03:11.491190 11542 net.cpp:399] label_data_1_split -> label_data_1_split_6
I0403 15:03:11.491211 11542 net.cpp:399] label_data_1_split -> label_data_1_split_7
I0403 15:03:11.491231 11542 net.cpp:399] label_data_1_split -> label_data_1_split_8
I0403 15:03:11.491251 11542 net.cpp:399] label_data_1_split -> label_data_1_split_9
I0403 15:03:11.491369 11542 net.cpp:141] Setting up label_data_1_split
I0403 15:03:11.491400 11542 net.cpp:148] Top shape: 24 (24)
I0403 15:03:11.491418 11542 net.cpp:148] Top shape: 24 (24)
I0403 15:03:11.491435 11542 net.cpp:148] Top shape: 24 (24)
I0403 15:03:11.491451 11542 net.cpp:148] Top shape: 24 (24)
I0403 15:03:11.491466 11542 net.cpp:148] Top shape: 24 (24)
I0403 15:03:11.491482 11542 net.cpp:148] Top shape: 24 (24)
I0403 15:03:11.491498 11542 net.cpp:148] Top shape: 24 (24)
I0403 15:03:11.491514 11542 net.cpp:148] Top shape: 24 (24)
I0403 15:03:11.491530 11542 net.cpp:148] Top shape: 24 (24)
I0403 15:03:11.491546 11542 net.cpp:148] Top shape: 24 (24)
I0403 15:03:11.491591 11542 net.cpp:156] Memory required for data: 14451744
I0403 15:03:11.491607 11542 layer_factory.hpp:77] Creating layer conv1/7x7_s2
I0403 15:03:11.491639 11542 net.cpp:91] Creating Layer conv1/7x7_s2
I0403 15:03:11.491658 11542 net.cpp:425] conv1/7x7_s2 <- data
I0403 15:03:11.491678 11542 net.cpp:399] conv1/7x7_s2 -> conv1/7x7_s2
I0403 15:03:11.632509 11542 net.cpp:141] Setting up conv1/7x7_s2
I0403 15:03:11.632555 11542 net.cpp:148] Top shape: 24 64 112 112 (19267584)
I0403 15:03:11.632573 11542 net.cpp:156] Memory required for data: 91522080
I0403 15:03:11.632603 11542 layer_factory.hpp:77] Creating layer conv1/relu_7x7
I0403 15:03:11.632632 11542 net.cpp:91] Creating Layer conv1/relu_7x7
I0403 15:03:11.632650 11542 net.cpp:425] conv1/relu_7x7 <- conv1/7x7_s2
I0403 15:03:11.632669 11542 net.cpp:386] conv1/relu_7x7 -> conv1/7x7_s2 (in-place)
I0403 15:03:11.632930 11542 net.cpp:141] Setting up conv1/relu_7x7
I0403 15:03:11.632957 11542 net.cpp:148] Top shape: 24 64 112 112 (19267584)
I0403 15:03:11.632973 11542 net.cpp:156] Memory required for data: 168592416
I0403 15:03:11.632992 11542 layer_factory.hpp:77] Creating layer pool1/3x3_s2
I0403 15:03:11.633016 11542 net.cpp:91] Creating Layer pool1/3x3_s2
I0403 15:03:11.633035 11542 net.cpp:425] pool1/3x3_s2 <- conv1/7x7_s2
I0403 15:03:11.633054 11542 net.cpp:399] pool1/3x3_s2 -> pool1/3x3_s2
I0403 15:03:11.633128 11542 net.cpp:141] Setting up pool1/3x3_s2
I0403 15:03:11.633154 11542 net.cpp:148] Top shape: 24 64 56 56 (4816896)
I0403 15:03:11.633169 11542 net.cpp:156] Memory required for data: 187860000
I0403 15:03:11.633184 11542 layer_factory.hpp:77] Creating layer pool1/norm1
I0403 15:03:11.633208 11542 net.cpp:91] Creating Layer pool1/norm1
I0403 15:03:11.633225 11542 net.cpp:425] pool1/norm1 <- pool1/3x3_s2
I0403 15:03:11.633244 11542 net.cpp:399] pool1/norm1 -> pool1/norm1
I0403 15:03:11.633535 11542 net.cpp:141] Setting up pool1/norm1
I0403 15:03:11.633563 11542 net.cpp:148] Top shape: 24 64 56 56 (4816896)
I0403 15:03:11.633579 11542 net.cpp:156] Memory required for data: 207127584
I0403 15:03:11.633595 11542 layer_factory.hpp:77] Creating layer conv2/3x3_reduce
I0403 15:03:11.633620 11542 net.cpp:91] Creating Layer conv2/3x3_reduce
I0403 15:03:11.633636 11542 net.cpp:425] conv2/3x3_reduce <- pool1/norm1
I0403 15:03:11.633656 11542 net.cpp:399] conv2/3x3_reduce -> conv2/3x3_reduce
I0403 15:03:11.634986 11542 net.cpp:141] Setting up conv2/3x3_reduce
I0403 15:03:11.635017 11542 net.cpp:148] Top shape: 24 64 56 56 (4816896)
I0403 15:03:11.635035 11542 net.cpp:156] Memory required for data: 226395168
I0403 15:03:11.635056 11542 layer_factory.hpp:77] Creating layer conv2/relu_3x3_reduce
I0403 15:03:11.635077 11542 net.cpp:91] Creating Layer conv2/relu_3x3_reduce
I0403 15:03:11.635094 11542 net.cpp:425] conv2/relu_3x3_reduce <- conv2/3x3_reduce
I0403 15:03:11.635112 11542 net.cpp:386] conv2/relu_3x3_reduce -> conv2/3x3_reduce (in-place)
I0403 15:03:11.635365 11542 net.cpp:141] Setting up conv2/relu_3x3_reduce
I0403 15:03:11.635397 11542 net.cpp:148] Top shape: 24 64 56 56 (4816896)
I0403 15:03:11.635416 11542 net.cpp:156] Memory required for data: 245662752
I0403 15:03:11.635432 11542 layer_factory.hpp:77] Creating layer conv2/3x3
I0403 15:03:11.635455 11542 net.cpp:91] Creating Layer conv2/3x3
I0403 15:03:11.635473 11542 net.cpp:425] conv2/3x3 <- conv2/3x3_reduce
I0403 15:03:11.635493 11542 net.cpp:399] conv2/3x3 -> conv2/3x3
I0403 15:03:11.637738 11542 net.cpp:141] Setting up conv2/3x3
I0403 15:03:11.637768 11542 net.cpp:148] Top shape: 24 192 56 56 (14450688)
I0403 15:03:11.637785 11542 net.cpp:156] Memory required for data: 303465504
I0403 15:03:11.637806 11542 layer_factory.hpp:77] Creating layer conv2/relu_3x3
I0403 15:03:11.637825 11542 net.cpp:91] Creating Layer conv2/relu_3x3
I0403 15:03:11.637842 11542 net.cpp:425] conv2/relu_3x3 <- conv2/3x3
I0403 15:03:11.637861 11542 net.cpp:386] conv2/relu_3x3 -> conv2/3x3 (in-place)
I0403 15:03:11.638023 11542 net.cpp:141] Setting up conv2/relu_3x3
I0403 15:03:11.638051 11542 net.cpp:148] Top shape: 24 192 56 56 (14450688)
I0403 15:03:11.638089 11542 net.cpp:156] Memory required for data: 361268256
I0403 15:03:11.638106 11542 layer_factory.hpp:77] Creating layer conv2/norm2
I0403 15:03:11.638125 11542 net.cpp:91] Creating Layer conv2/norm2
I0403 15:03:11.638141 11542 net.cpp:425] conv2/norm2 <- conv2/3x3
I0403 15:03:11.638159 11542 net.cpp:399] conv2/norm2 -> conv2/norm2
I0403 15:03:11.638452 11542 net.cpp:141] Setting up conv2/norm2
I0403 15:03:11.638479 11542 net.cpp:148] Top shape: 24 192 56 56 (14450688)
I0403 15:03:11.638494 11542 net.cpp:156] Memory required for data: 419071008
I0403 15:03:11.638510 11542 layer_factory.hpp:77] Creating layer pool2/3x3_s2
I0403 15:03:11.638530 11542 net.cpp:91] Creating Layer pool2/3x3_s2
I0403 15:03:11.638546 11542 net.cpp:425] pool2/3x3_s2 <- conv2/norm2
I0403 15:03:11.638566 11542 net.cpp:399] pool2/3x3_s2 -> pool2/3x3_s2
I0403 15:03:11.638615 11542 net.cpp:141] Setting up pool2/3x3_s2
I0403 15:03:11.638638 11542 net.cpp:148] Top shape: 24 192 28 28 (3612672)
I0403 15:03:11.638653 11542 net.cpp:156] Memory required for data: 433521696
I0403 15:03:11.638669 11542 layer_factory.hpp:77] Creating layer pool2/3x3_s2_pool2/3x3_s2_0_split
I0403 15:03:11.638687 11542 net.cpp:91] Creating Layer pool2/3x3_s2_pool2/3x3_s2_0_split
I0403 15:03:11.638702 11542 net.cpp:425] pool2/3x3_s2_pool2/3x3_s2_0_split <- pool2/3x3_s2
I0403 15:03:11.638720 11542 net.cpp:399] pool2/3x3_s2_pool2/3x3_s2_0_split -> pool2/3x3_s2_pool2/3x3_s2_0_split_0
I0403 15:03:11.638738 11542 net.cpp:399] pool2/3x3_s2_pool2/3x3_s2_0_split -> pool2/3x3_s2_pool2/3x3_s2_0_split_1
I0403 15:03:11.638758 11542 net.cpp:399] pool2/3x3_s2_pool2/3x3_s2_0_split -> pool2/3x3_s2_pool2/3x3_s2_0_split_2
I0403 15:03:11.638777 11542 net.cpp:399] pool2/3x3_s2_pool2/3x3_s2_0_split -> pool2/3x3_s2_pool2/3x3_s2_0_split_3
I0403 15:03:11.638842 11542 net.cpp:141] Setting up pool2/3x3_s2_pool2/3x3_s2_0_split
I0403 15:03:11.638865 11542 net.cpp:148] Top shape: 24 192 28 28 (3612672)
I0403 15:03:11.638881 11542 net.cpp:148] Top shape: 24 192 28 28 (3612672)
I0403 15:03:11.638897 11542 net.cpp:148] Top shape: 24 192 28 28 (3612672)
I0403 15:03:11.638913 11542 net.cpp:148] Top shape: 24 192 28 28 (3612672)
I0403 15:03:11.638927 11542 net.cpp:156] Memory required for data: 491324448
I0403 15:03:11.638942 11542 layer_factory.hpp:77] Creating layer inception_3a/1x1
I0403 15:03:11.638963 11542 net.cpp:91] Creating Layer inception_3a/1x1
I0403 15:03:11.638980 11542 net.cpp:425] inception_3a/1x1 <- pool2/3x3_s2_pool2/3x3_s2_0_split_0
I0403 15:03:11.638999 11542 net.cpp:399] inception_3a/1x1 -> inception_3a/1x1
I0403 15:03:11.640478 11542 net.cpp:141] Setting up inception_3a/1x1
I0403 15:03:11.640508 11542 net.cpp:148] Top shape: 24 64 28 28 (1204224)
I0403 15:03:11.640524 11542 net.cpp:156] Memory required for data: 496141344
I0403 15:03:11.640543 11542 layer_factory.hpp:77] Creating layer inception_3a/relu_1x1
I0403 15:03:11.640561 11542 net.cpp:91] Creating Layer inception_3a/relu_1x1
I0403 15:03:11.640578 11542 net.cpp:425] inception_3a/relu_1x1 <- inception_3a/1x1
I0403 15:03:11.640599 11542 net.cpp:386] inception_3a/relu_1x1 -> inception_3a/1x1 (in-place)
I0403 15:03:11.640776 11542 net.cpp:141] Setting up inception_3a/relu_1x1
I0403 15:03:11.640805 11542 net.cpp:148] Top shape: 24 64 28 28 (1204224)
I0403 15:03:11.640821 11542 net.cpp:156] Memory required for data: 500958240
I0403 15:03:11.640836 11542 layer_factory.hpp:77] Creating layer inception_3a/3x3_reduce
I0403 15:03:11.640857 11542 net.cpp:91] Creating Layer inception_3a/3x3_reduce
I0403 15:03:11.640874 11542 net.cpp:425] inception_3a/3x3_reduce <- pool2/3x3_s2_pool2/3x3_s2_0_split_1
I0403 15:03:11.640897 11542 net.cpp:399] inception_3a/3x3_reduce -> inception_3a/3x3_reduce
I0403 15:03:11.642642 11542 net.cpp:141] Setting up inception_3a/3x3_reduce
I0403 15:03:11.642671 11542 net.cpp:148] Top shape: 24 96 28 28 (1806336)
I0403 15:03:11.642688 11542 net.cpp:156] Memory required for data: 508183584
I0403 15:03:11.642714 11542 layer_factory.hpp:77] Creating layer inception_3a/relu_3x3_reduce
I0403 15:03:11.642750 11542 net.cpp:91] Creating Layer inception_3a/relu_3x3_reduce
I0403 15:03:11.642767 11542 net.cpp:425] inception_3a/relu_3x3_reduce <- inception_3a/3x3_reduce
I0403 15:03:11.642786 11542 net.cpp:386] inception_3a/relu_3x3_reduce -> inception_3a/3x3_reduce (in-place)
I0403 15:03:11.642976 11542 net.cpp:141] Setting up inception_3a/relu_3x3_reduce
I0403 15:03:11.643002 11542 net.cpp:148] Top shape: 24 96 28 28 (1806336)
I0403 15:03:11.643018 11542 net.cpp:156] Memory required for data: 515408928
I0403 15:03:11.643033 11542 layer_factory.hpp:77] Creating layer inception_3a/3x3
I0403 15:03:11.643057 11542 net.cpp:91] Creating Layer inception_3a/3x3
I0403 15:03:11.643074 11542 net.cpp:425] inception_3a/3x3 <- inception_3a/3x3_reduce
I0403 15:03:11.643097 11542 net.cpp:399] inception_3a/3x3 -> inception_3a/3x3
I0403 15:03:11.644786 11542 net.cpp:141] Setting up inception_3a/3x3
I0403 15:03:11.644814 11542 net.cpp:148] Top shape: 24 128 28 28 (2408448)
I0403 15:03:11.644830 11542 net.cpp:156] Memory required for data: 525042720
I0403 15:03:11.644850 11542 layer_factory.hpp:77] Creating layer inception_3a/relu_3x3
I0403 15:03:11.644870 11542 net.cpp:91] Creating Layer inception_3a/relu_3x3
I0403 15:03:11.644888 11542 net.cpp:425] inception_3a/relu_3x3 <- inception_3a/3x3
I0403 15:03:11.644906 11542 net.cpp:386] inception_3a/relu_3x3 -> inception_3a/3x3 (in-place)
I0403 15:03:11.645184 11542 net.cpp:141] Setting up inception_3a/relu_3x3
I0403 15:03:11.645210 11542 net.cpp:148] Top shape: 24 128 28 28 (2408448)
I0403 15:03:11.645226 11542 net.cpp:156] Memory required for data: 534676512
I0403 15:03:11.645241 11542 layer_factory.hpp:77] Creating layer inception_3a/5x5_reduce
I0403 15:03:11.645264 11542 net.cpp:91] Creating Layer inception_3a/5x5_reduce
I0403 15:03:11.645282 11542 net.cpp:425] inception_3a/5x5_reduce <- pool2/3x3_s2_pool2/3x3_s2_0_split_2
I0403 15:03:11.645306 11542 net.cpp:399] inception_3a/5x5_reduce -> inception_3a/5x5_reduce
I0403 15:03:11.646282 11542 net.cpp:141] Setting up inception_3a/5x5_reduce
I0403 15:03:11.646311 11542 net.cpp:148] Top shape: 24 16 28 28 (301056)
I0403 15:03:11.646328 11542 net.cpp:156] Memory required for data: 535880736
I0403 15:03:11.646347 11542 layer_factory.hpp:77] Creating layer inception_3a/relu_5x5_reduce
I0403 15:03:11.646368 11542 net.cpp:91] Creating Layer inception_3a/relu_5x5_reduce
I0403 15:03:11.646390 11542 net.cpp:425] inception_3a/relu_5x5_reduce <- inception_3a/5x5_reduce
I0403 15:03:11.646409 11542 net.cpp:386] inception_3a/relu_5x5_reduce -> inception_3a/5x5_reduce (in-place)
I0403 15:03:11.646711 11542 net.cpp:141] Setting up inception_3a/relu_5x5_reduce
I0403 15:03:11.646741 11542 net.cpp:148] Top shape: 24 16 28 28 (301056)
I0403 15:03:11.646757 11542 net.cpp:156] Memory required for data: 537084960
I0403 15:03:11.646773 11542 layer_factory.hpp:77] Creating layer inception_3a/5x5
I0403 15:03:11.646796 11542 net.cpp:91] Creating Layer inception_3a/5x5
I0403 15:03:11.646814 11542 net.cpp:425] inception_3a/5x5 <- inception_3a/5x5_reduce
I0403 15:03:11.646836 11542 net.cpp:399] inception_3a/5x5 -> inception_3a/5x5
I0403 15:03:11.647866 11542 net.cpp:141] Setting up inception_3a/5x5
I0403 15:03:11.647894 11542 net.cpp:148] Top shape: 24 32 28 28 (602112)
I0403 15:03:11.647910 11542 net.cpp:156] Memory required for data: 539493408
I0403 15:03:11.647929 11542 layer_factory.hpp:77] Creating layer inception_3a/relu_5x5
I0403 15:03:11.647950 11542 net.cpp:91] Creating Layer inception_3a/relu_5x5
I0403 15:03:11.647967 11542 net.cpp:425] inception_3a/relu_5x5 <- inception_3a/5x5
I0403 15:03:11.647987 11542 net.cpp:386] inception_3a/relu_5x5 -> inception_3a/5x5 (in-place)
I0403 15:03:11.648164 11542 net.cpp:141] Setting up inception_3a/relu_5x5
I0403 15:03:11.648191 11542 net.cpp:148] Top shape: 24 32 28 28 (602112)
I0403 15:03:11.648210 11542 net.cpp:156] Memory required for data: 541901856
I0403 15:03:11.648226 11542 layer_factory.hpp:77] Creating layer inception_3a/pool
I0403 15:03:11.648244 11542 net.cpp:91] Creating Layer inception_3a/pool
I0403 15:03:11.648275 11542 net.cpp:425] inception_3a/pool <- pool2/3x3_s2_pool2/3x3_s2_0_split_3
I0403 15:03:11.648295 11542 net.cpp:399] inception_3a/pool -> inception_3a/pool
I0403 15:03:11.648355 11542 net.cpp:141] Setting up inception_3a/pool
I0403 15:03:11.648386 11542 net.cpp:148] Top shape: 24 192 28 28 (3612672)
I0403 15:03:11.648417 11542 net.cpp:156] Memory required for data: 556352544
I0403 15:03:11.648433 11542 layer_factory.hpp:77] Creating layer inception_3a/pool_proj
I0403 15:03:11.648468 11542 net.cpp:91] Creating Layer inception_3a/pool_proj
I0403 15:03:11.648486 11542 net.cpp:425] inception_3a/pool_proj <- inception_3a/pool
I0403 15:03:11.648509 11542 net.cpp:399] inception_3a/pool_proj -> inception_3a/pool_proj
I0403 15:03:11.649530 11542 net.cpp:141] Setting up inception_3a/pool_proj
I0403 15:03:11.649559 11542 net.cpp:148] Top shape: 24 32 28 28 (602112)
I0403 15:03:11.649576 11542 net.cpp:156] Memory required for data: 558760992
I0403 15:03:11.649600 11542 layer_factory.hpp:77] Creating layer inception_3a/relu_pool_proj
I0403 15:03:11.649623 11542 net.cpp:91] Creating Layer inception_3a/relu_pool_proj
I0403 15:03:11.649641 11542 net.cpp:425] inception_3a/relu_pool_proj <- inception_3a/pool_proj
I0403 15:03:11.649660 11542 net.cpp:386] inception_3a/relu_pool_proj -> inception_3a/pool_proj (in-place)
I0403 15:03:11.649950 11542 net.cpp:141] Setting up inception_3a/relu_pool_proj
I0403 15:03:11.649977 11542 net.cpp:148] Top shape: 24 32 28 28 (602112)
I0403 15:03:11.649993 11542 net.cpp:156] Memory required for data: 561169440
I0403 15:03:11.650009 11542 layer_factory.hpp:77] Creating layer inception_3a/output
I0403 15:03:11.650032 11542 net.cpp:91] Creating Layer inception_3a/output
I0403 15:03:11.650048 11542 net.cpp:425] inception_3a/output <- inception_3a/1x1
I0403 15:03:11.650066 11542 net.cpp:425] inception_3a/output <- inception_3a/3x3
I0403 15:03:11.650084 11542 net.cpp:425] inception_3a/output <- inception_3a/5x5
I0403 15:03:11.650102 11542 net.cpp:425] inception_3a/output <- inception_3a/pool_proj
I0403 15:03:11.650120 11542 net.cpp:399] inception_3a/output -> inception_3a/output
I0403 15:03:11.650171 11542 net.cpp:141] Setting up inception_3a/output
I0403 15:03:11.650197 11542 net.cpp:148] Top shape: 24 256 28 28 (4816896)
I0403 15:03:11.650213 11542 net.cpp:156] Memory required for data: 580437024
I0403 15:03:11.650228 11542 layer_factory.hpp:77] Creating layer inception_3a/output_inception_3a/output_0_split
I0403 15:03:11.650246 11542 net.cpp:91] Creating Layer inception_3a/output_inception_3a/output_0_split
I0403 15:03:11.650262 11542 net.cpp:425] inception_3a/output_inception_3a/output_0_split <- inception_3a/output
I0403 15:03:11.650284 11542 net.cpp:399] inception_3a/output_inception_3a/output_0_split -> inception_3a/output_inception_3a/output_0_split_0
I0403 15:03:11.650305 11542 net.cpp:399] inception_3a/output_inception_3a/output_0_split -> inception_3a/output_inception_3a/output_0_split_1
I0403 15:03:11.650333 11542 net.cpp:399] inception_3a/output_inception_3a/output_0_split -> inception_3a/output_inception_3a/output_0_split_2
I0403 15:03:11.650357 11542 net.cpp:399] inception_3a/output_inception_3a/output_0_split -> inception_3a/output_inception_3a/output_0_split_3
I0403 15:03:11.650439 11542 net.cpp:141] Setting up inception_3a/output_inception_3a/output_0_split
I0403 15:03:11.650465 11542 net.cpp:148] Top shape: 24 256 28 28 (4816896)
I0403 15:03:11.650482 11542 net.cpp:148] Top shape: 24 256 28 28 (4816896)
I0403 15:03:11.650498 11542 net.cpp:148] Top shape: 24 256 28 28 (4816896)
I0403 15:03:11.650516 11542 net.cpp:148] Top shape: 24 256 28 28 (4816896)
I0403 15:03:11.650532 11542 net.cpp:156] Memory required for data: 657507360
I0403 15:03:11.650547 11542 layer_factory.hpp:77] Creating layer inception_3b/1x1
I0403 15:03:11.650570 11542 net.cpp:91] Creating Layer inception_3b/1x1
I0403 15:03:11.650589 11542 net.cpp:425] inception_3b/1x1 <- inception_3a/output_inception_3a/output_0_split_0
I0403 15:03:11.650611 11542 net.cpp:399] inception_3b/1x1 -> inception_3b/1x1
I0403 15:03:11.651808 11542 net.cpp:141] Setting up inception_3b/1x1
I0403 15:03:11.651850 11542 net.cpp:148] Top shape: 24 128 28 28 (2408448)
I0403 15:03:11.651868 11542 net.cpp:156] Memory required for data: 667141152
I0403 15:03:11.651887 11542 layer_factory.hpp:77] Creating layer inception_3b/relu_1x1
I0403 15:03:11.651911 11542 net.cpp:91] Creating Layer inception_3b/relu_1x1
I0403 15:03:11.651929 11542 net.cpp:425] inception_3b/relu_1x1 <- inception_3b/1x1
I0403 15:03:11.651947 11542 net.cpp:386] inception_3b/relu_1x1 -> inception_3b/1x1 (in-place)
I0403 15:03:11.652128 11542 net.cpp:141] Setting up inception_3b/relu_1x1
I0403 15:03:11.652155 11542 net.cpp:148] Top shape: 24 128 28 28 (2408448)
I0403 15:03:11.652171 11542 net.cpp:156] Memory required for data: 676774944
I0403 15:03:11.652186 11542 layer_factory.hpp:77] Creating layer inception_3b/3x3_reduce
I0403 15:03:11.652210 11542 net.cpp:91] Creating Layer inception_3b/3x3_reduce
I0403 15:03:11.652231 11542 net.cpp:425] inception_3b/3x3_reduce <- inception_3a/output_inception_3a/output_0_split_1
I0403 15:03:11.652251 11542 net.cpp:399] inception_3b/3x3_reduce -> inception_3b/3x3_reduce
I0403 15:03:11.653470 11542 net.cpp:141] Setting up inception_3b/3x3_reduce
I0403 15:03:11.653499 11542 net.cpp:148] Top shape: 24 128 28 28 (2408448)
I0403 15:03:11.653517 11542 net.cpp:156] Memory required for data: 686408736
I0403 15:03:11.653535 11542 layer_factory.hpp:77] Creating layer inception_3b/relu_3x3_reduce
I0403 15:03:11.653554 11542 net.cpp:91] Creating Layer inception_3b/relu_3x3_reduce
I0403 15:03:11.653571 11542 net.cpp:425] inception_3b/relu_3x3_reduce <- inception_3b/3x3_reduce
I0403 15:03:11.653592 11542 net.cpp:386] inception_3b/relu_3x3_reduce -> inception_3b/3x3_reduce (in-place)
I0403 15:03:11.653781 11542 net.cpp:141] Setting up inception_3b/relu_3x3_reduce
I0403 15:03:11.653808 11542 net.cpp:148] Top shape: 24 128 28 28 (2408448)
I0403 15:03:11.653825 11542 net.cpp:156] Memory required for data: 696042528
I0403 15:03:11.653841 11542 layer_factory.hpp:77] Creating layer inception_3b/3x3
I0403 15:03:11.653868 11542 net.cpp:91] Creating Layer inception_3b/3x3
I0403 15:03:11.653887 11542 net.cpp:425] inception_3b/3x3 <- inception_3b/3x3_reduce
I0403 15:03:11.653910 11542 net.cpp:399] inception_3b/3x3 -> inception_3b/3x3
I0403 15:03:11.656981 11542 net.cpp:141] Setting up inception_3b/3x3
I0403 15:03:11.657013 11542 net.cpp:148] Top shape: 24 192 28 28 (3612672)
I0403 15:03:11.657032 11542 net.cpp:156] Memory required for data: 710493216
I0403 15:03:11.657052 11542 layer_factory.hpp:77] Creating layer inception_3b/relu_3x3
I0403 15:03:11.657075 11542 net.cpp:91] Creating Layer inception_3b/relu_3x3
I0403 15:03:11.657094 11542 net.cpp:425] inception_3b/relu_3x3 <- inception_3b/3x3
I0403 15:03:11.657114 11542 net.cpp:386] inception_3b/relu_3x3 -> inception_3b/3x3 (in-place)
I0403 15:03:11.657414 11542 net.cpp:141] Setting up inception_3b/relu_3x3
I0403 15:03:11.657444 11542 net.cpp:148] Top shape: 24 192 28 28 (3612672)
I0403 15:03:11.657460 11542 net.cpp:156] Memory required for data: 724943904
I0403 15:03:11.657477 11542 layer_factory.hpp:77] Creating layer inception_3b/5x5_reduce
I0403 15:03:11.657503 11542 net.cpp:91] Creating Layer inception_3b/5x5_reduce
I0403 15:03:11.657523 11542 net.cpp:425] inception_3b/5x5_reduce <- inception_3a/output_inception_3a/output_0_split_2
I0403 15:03:11.657547 11542 net.cpp:399] inception_3b/5x5_reduce -> inception_3b/5x5_reduce
I0403 15:03:11.658613 11542 net.cpp:141] Setting up inception_3b/5x5_reduce
I0403 15:03:11.658645 11542 net.cpp:148] Top shape: 24 32 28 28 (602112)
I0403 15:03:11.658663 11542 net.cpp:156] Memory required for data: 727352352
I0403 15:03:11.658682 11542 layer_factory.hpp:77] Creating layer inception_3b/relu_5x5_reduce
I0403 15:03:11.658706 11542 net.cpp:91] Creating Layer inception_3b/relu_5x5_reduce
I0403 15:03:11.658726 11542 net.cpp:425] inception_3b/relu_5x5_reduce <- inception_3b/5x5_reduce
I0403 15:03:11.658746 11542 net.cpp:386] inception_3b/relu_5x5_reduce -> inception_3b/5x5_reduce (in-place)
I0403 15:03:11.658947 11542 net.cpp:141] Setting up inception_3b/relu_5x5_reduce
I0403 15:03:11.658978 11542 net.cpp:148] Top shape: 24 32 28 28 (602112)
I0403 15:03:11.658996 11542 net.cpp:156] Memory required for data: 729760800
I0403 15:03:11.659013 11542 layer_factory.hpp:77] Creating layer inception_3b/5x5
I0403 15:03:11.659037 11542 net.cpp:91] Creating Layer inception_3b/5x5
I0403 15:03:11.659055 11542 net.cpp:425] inception_3b/5x5 <- inception_3b/5x5_reduce
I0403 15:03:11.659076 11542 net.cpp:399] inception_3b/5x5 -> inception_3b/5x5
I0403 15:03:11.661149 11542 net.cpp:141] Setting up inception_3b/5x5
I0403 15:03:11.661180 11542 net.cpp:148] Top shape: 24 96 28 28 (1806336)
I0403 15:03:11.661195 11542 net.cpp:156] Memory required for data: 736986144
I0403 15:03:11.661216 11542 layer_factory.hpp:77] Creating layer inception_3b/relu_5x5
I0403 15:03:11.661233 11542 net.cpp:91] Creating Layer inception_3b/relu_5x5
I0403 15:03:11.661250 11542 net.cpp:425] inception_3b/relu_5x5 <- inception_3b/5x5
I0403 15:03:11.661272 11542 net.cpp:386] inception_3b/relu_5x5 -> inception_3b/5x5 (in-place)
I0403 15:03:11.661483 11542 net.cpp:141] Setting up inception_3b/relu_5x5
I0403 15:03:11.661509 11542 net.cpp:148] Top shape: 24 96 28 28 (1806336)
I0403 15:03:11.661525 11542 net.cpp:156] Memory required for data: 744211488
I0403 15:03:11.661540 11542 layer_factory.hpp:77] Creating layer inception_3b/pool
I0403 15:03:11.661559 11542 net.cpp:91] Creating Layer inception_3b/pool
I0403 15:03:11.661576 11542 net.cpp:425] inception_3b/pool <- inception_3a/output_inception_3a/output_0_split_3
I0403 15:03:11.661597 11542 net.cpp:399] inception_3b/pool -> inception_3b/pool
I0403 15:03:11.661656 11542 net.cpp:141] Setting up inception_3b/pool
I0403 15:03:11.661680 11542 net.cpp:148] Top shape: 24 256 28 28 (4816896)
I0403 15:03:11.661696 11542 net.cpp:156] Memory required for data: 763479072
I0403 15:03:11.661712 11542 layer_factory.hpp:77] Creating layer inception_3b/pool_proj
I0403 15:03:11.661736 11542 net.cpp:91] Creating Layer inception_3b/pool_proj
I0403 15:03:11.661753 11542 net.cpp:425] inception_3b/pool_proj <- inception_3b/pool
I0403 15:03:11.661775 11542 net.cpp:399] inception_3b/pool_proj -> inception_3b/pool_proj
I0403 15:03:11.662892 11542 net.cpp:141] Setting up inception_3b/pool_proj
I0403 15:03:11.662925 11542 net.cpp:148] Top shape: 24 64 28 28 (1204224)
I0403 15:03:11.662942 11542 net.cpp:156] Memory required for data: 768295968
I0403 15:03:11.662962 11542 layer_factory.hpp:77] Creating layer inception_3b/relu_pool_proj
I0403 15:03:11.662981 11542 net.cpp:91] Creating Layer inception_3b/relu_pool_proj
I0403 15:03:11.662998 11542 net.cpp:425] inception_3b/relu_pool_proj <- inception_3b/pool_proj
I0403 15:03:11.663017 11542 net.cpp:386] inception_3b/relu_pool_proj -> inception_3b/pool_proj (in-place)
I0403 15:03:11.663435 11542 net.cpp:141] Setting up inception_3b/relu_pool_proj
I0403 15:03:11.663463 11542 net.cpp:148] Top shape: 24 64 28 28 (1204224)
I0403 15:03:11.663480 11542 net.cpp:156] Memory required for data: 773112864
I0403 15:03:11.663496 11542 layer_factory.hpp:77] Creating layer inception_3b/output
I0403 15:03:11.663518 11542 net.cpp:91] Creating Layer inception_3b/output
I0403 15:03:11.663537 11542 net.cpp:425] inception_3b/output <- inception_3b/1x1
I0403 15:03:11.663555 11542 net.cpp:425] inception_3b/output <- inception_3b/3x3
I0403 15:03:11.663573 11542 net.cpp:425] inception_3b/output <- inception_3b/5x5
I0403 15:03:11.663590 11542 net.cpp:425] inception_3b/output <- inception_3b/pool_proj
I0403 15:03:11.663609 11542 net.cpp:399] inception_3b/output -> inception_3b/output
I0403 15:03:11.663657 11542 net.cpp:141] Setting up inception_3b/output
I0403 15:03:11.663682 11542 net.cpp:148] Top shape: 24 480 28 28 (9031680)
I0403 15:03:11.663697 11542 net.cpp:156] Memory required for data: 809239584
I0403 15:03:11.663713 11542 layer_factory.hpp:77] Creating layer pool3/3x3_s2
I0403 15:03:11.663734 11542 net.cpp:91] Creating Layer pool3/3x3_s2
I0403 15:03:11.663753 11542 net.cpp:425] pool3/3x3_s2 <- inception_3b/output
I0403 15:03:11.663787 11542 net.cpp:399] pool3/3x3_s2 -> pool3/3x3_s2
I0403 15:03:11.663853 11542 net.cpp:141] Setting up pool3/3x3_s2
I0403 15:03:11.663877 11542 net.cpp:148] Top shape: 24 480 14 14 (2257920)
I0403 15:03:11.663893 11542 net.cpp:156] Memory required for data: 818271264
I0403 15:03:11.663908 11542 layer_factory.hpp:77] Creating layer pool3/3x3_s2_pool3/3x3_s2_0_split
I0403 15:03:11.663928 11542 net.cpp:91] Creating Layer pool3/3x3_s2_pool3/3x3_s2_0_split
I0403 15:03:11.663944 11542 net.cpp:425] pool3/3x3_s2_pool3/3x3_s2_0_split <- pool3/3x3_s2
I0403 15:03:11.663964 11542 net.cpp:399] pool3/3x3_s2_pool3/3x3_s2_0_split -> pool3/3x3_s2_pool3/3x3_s2_0_split_0
I0403 15:03:11.663985 11542 net.cpp:399] pool3/3x3_s2_pool3/3x3_s2_0_split -> pool3/3x3_s2_pool3/3x3_s2_0_split_1
I0403 15:03:11.664006 11542 net.cpp:399] pool3/3x3_s2_pool3/3x3_s2_0_split -> pool3/3x3_s2_pool3/3x3_s2_0_split_2
I0403 15:03:11.664027 11542 net.cpp:399] pool3/3x3_s2_pool3/3x3_s2_0_split -> pool3/3x3_s2_pool3/3x3_s2_0_split_3
I0403 15:03:11.664110 11542 net.cpp:141] Setting up pool3/3x3_s2_pool3/3x3_s2_0_split
I0403 15:03:11.664137 11542 net.cpp:148] Top shape: 24 480 14 14 (2257920)
I0403 15:03:11.664156 11542 net.cpp:148] Top shape: 24 480 14 14 (2257920)
I0403 15:03:11.664173 11542 net.cpp:148] Top shape: 24 480 14 14 (2257920)
I0403 15:03:11.664189 11542 net.cpp:148] Top shape: 24 480 14 14 (2257920)
I0403 15:03:11.664204 11542 net.cpp:156] Memory required for data: 854397984
I0403 15:03:11.664219 11542 layer_factory.hpp:77] Creating layer inception_4a/1x1
I0403 15:03:11.664243 11542 net.cpp:91] Creating Layer inception_4a/1x1
I0403 15:03:11.664261 11542 net.cpp:425] inception_4a/1x1 <- pool3/3x3_s2_pool3/3x3_s2_0_split_0
I0403 15:03:11.664283 11542 net.cpp:399] inception_4a/1x1 -> inception_4a/1x1
I0403 15:03:11.665942 11542 net.cpp:141] Setting up inception_4a/1x1
I0403 15:03:11.665971 11542 net.cpp:148] Top shape: 24 192 14 14 (903168)
I0403 15:03:11.665987 11542 net.cpp:156] Memory required for data: 858010656
I0403 15:03:11.666007 11542 layer_factory.hpp:77] Creating layer inception_4a/relu_1x1
I0403 15:03:11.666024 11542 net.cpp:91] Creating Layer inception_4a/relu_1x1
I0403 15:03:11.666040 11542 net.cpp:425] inception_4a/relu_1x1 <- inception_4a/1x1
I0403 15:03:11.666061 11542 net.cpp:386] inception_4a/relu_1x1 -> inception_4a/1x1 (in-place)
I0403 15:03:11.666241 11542 net.cpp:141] Setting up inception_4a/relu_1x1
I0403 15:03:11.666267 11542 net.cpp:148] Top shape: 24 192 14 14 (903168)
I0403 15:03:11.666282 11542 net.cpp:156] Memory required for data: 861623328
I0403 15:03:11.666311 11542 layer_factory.hpp:77] Creating layer inception_4a/3x3_reduce
I0403 15:03:11.666337 11542 net.cpp:91] Creating Layer inception_4a/3x3_reduce
I0403 15:03:11.666354 11542 net.cpp:425] inception_4a/3x3_reduce <- pool3/3x3_s2_pool3/3x3_s2_0_split_1
I0403 15:03:11.666378 11542 net.cpp:399] inception_4a/3x3_reduce -> inception_4a/3x3_reduce
I0403 15:03:11.667711 11542 net.cpp:141] Setting up inception_4a/3x3_reduce
I0403 15:03:11.667743 11542 net.cpp:148] Top shape: 24 96 14 14 (451584)
I0403 15:03:11.667760 11542 net.cpp:156] Memory required for data: 863429664
I0403 15:03:11.667788 11542 layer_factory.hpp:77] Creating layer inception_4a/relu_3x3_reduce
I0403 15:03:11.667809 11542 net.cpp:91] Creating Layer inception_4a/relu_3x3_reduce
I0403 15:03:11.667825 11542 net.cpp:425] inception_4a/relu_3x3_reduce <- inception_4a/3x3_reduce
I0403 15:03:11.667843 11542 net.cpp:386] inception_4a/relu_3x3_reduce -> inception_4a/3x3_reduce (in-place)
I0403 15:03:11.668027 11542 net.cpp:141] Setting up inception_4a/relu_3x3_reduce
I0403 15:03:11.668052 11542 net.cpp:148] Top shape: 24 96 14 14 (451584)
I0403 15:03:11.668067 11542 net.cpp:156] Memory required for data: 865236000
I0403 15:03:11.668082 11542 layer_factory.hpp:77] Creating layer inception_4a/3x3
I0403 15:03:11.668105 11542 net.cpp:91] Creating Layer inception_4a/3x3
I0403 15:03:11.668124 11542 net.cpp:425] inception_4a/3x3 <- inception_4a/3x3_reduce
I0403 15:03:11.668145 11542 net.cpp:399] inception_4a/3x3 -> inception_4a/3x3
I0403 15:03:11.670891 11542 net.cpp:141] Setting up inception_4a/3x3
I0403 15:03:11.670920 11542 net.cpp:148] Top shape: 24 208 14 14 (978432)
I0403 15:03:11.670938 11542 net.cpp:156] Memory required for data: 869149728
I0403 15:03:11.670958 11542 layer_factory.hpp:77] Creating layer inception_4a/relu_3x3
I0403 15:03:11.670976 11542 net.cpp:91] Creating Layer inception_4a/relu_3x3
I0403 15:03:11.670994 11542 net.cpp:425] inception_4a/relu_3x3 <- inception_4a/3x3
I0403 15:03:11.671015 11542 net.cpp:386] inception_4a/relu_3x3 -> inception_4a/3x3 (in-place)
I0403 15:03:11.671298 11542 net.cpp:141] Setting up inception_4a/relu_3x3
I0403 15:03:11.671325 11542 net.cpp:148] Top shape: 24 208 14 14 (978432)
I0403 15:03:11.671340 11542 net.cpp:156] Memory required for data: 873063456
I0403 15:03:11.671357 11542 layer_factory.hpp:77] Creating layer inception_4a/5x5_reduce
I0403 15:03:11.671383 11542 net.cpp:91] Creating Layer inception_4a/5x5_reduce
I0403 15:03:11.671401 11542 net.cpp:425] inception_4a/5x5_reduce <- pool3/3x3_s2_pool3/3x3_s2_0_split_2
I0403 15:03:11.671423 11542 net.cpp:399] inception_4a/5x5_reduce -> inception_4a/5x5_reduce
I0403 15:03:11.672451 11542 net.cpp:141] Setting up inception_4a/5x5_reduce
I0403 15:03:11.672479 11542 net.cpp:148] Top shape: 24 16 14 14 (75264)
I0403 15:03:11.672497 11542 net.cpp:156] Memory required for data: 873364512
I0403 15:03:11.672515 11542 layer_factory.hpp:77] Creating layer inception_4a/relu_5x5_reduce
I0403 15:03:11.672536 11542 net.cpp:91] Creating Layer inception_4a/relu_5x5_reduce
I0403 15:03:11.672554 11542 net.cpp:425] inception_4a/relu_5x5_reduce <- inception_4a/5x5_reduce
I0403 15:03:11.672571 11542 net.cpp:386] inception_4a/relu_5x5_reduce -> inception_4a/5x5_reduce (in-place)
I0403 15:03:11.672750 11542 net.cpp:141] Setting up inception_4a/relu_5x5_reduce
I0403 15:03:11.672781 11542 net.cpp:148] Top shape: 24 16 14 14 (75264)
I0403 15:03:11.672798 11542 net.cpp:156] Memory required for data: 873665568
I0403 15:03:11.672816 11542 layer_factory.hpp:77] Creating layer inception_4a/5x5
I0403 15:03:11.672838 11542 net.cpp:91] Creating Layer inception_4a/5x5
I0403 15:03:11.672858 11542 net.cpp:425] inception_4a/5x5 <- inception_4a/5x5_reduce
I0403 15:03:11.672878 11542 net.cpp:399] inception_4a/5x5 -> inception_4a/5x5
I0403 15:03:11.673961 11542 net.cpp:141] Setting up inception_4a/5x5
I0403 15:03:11.673992 11542 net.cpp:148] Top shape: 24 48 14 14 (225792)
I0403 15:03:11.674008 11542 net.cpp:156] Memory required for data: 874568736
I0403 15:03:11.674027 11542 layer_factory.hpp:77] Creating layer inception_4a/relu_5x5
I0403 15:03:11.674046 11542 net.cpp:91] Creating Layer inception_4a/relu_5x5
I0403 15:03:11.674062 11542 net.cpp:425] inception_4a/relu_5x5 <- inception_4a/5x5
I0403 15:03:11.674082 11542 net.cpp:386] inception_4a/relu_5x5 -> inception_4a/5x5 (in-place)
I0403 15:03:11.674258 11542 net.cpp:141] Setting up inception_4a/relu_5x5
I0403 15:03:11.674283 11542 net.cpp:148] Top shape: 24 48 14 14 (225792)
I0403 15:03:11.674311 11542 net.cpp:156] Memory required for data: 875471904
I0403 15:03:11.674327 11542 layer_factory.hpp:77] Creating layer inception_4a/pool
I0403 15:03:11.674346 11542 net.cpp:91] Creating Layer inception_4a/pool
I0403 15:03:11.674363 11542 net.cpp:425] inception_4a/pool <- pool3/3x3_s2_pool3/3x3_s2_0_split_3
I0403 15:03:11.674388 11542 net.cpp:399] inception_4a/pool -> inception_4a/pool
I0403 15:03:11.674453 11542 net.cpp:141] Setting up inception_4a/pool
I0403 15:03:11.674479 11542 net.cpp:148] Top shape: 24 480 14 14 (2257920)
I0403 15:03:11.674494 11542 net.cpp:156] Memory required for data: 884503584
I0403 15:03:11.674509 11542 layer_factory.hpp:77] Creating layer inception_4a/pool_proj
I0403 15:03:11.674532 11542 net.cpp:91] Creating Layer inception_4a/pool_proj
I0403 15:03:11.674551 11542 net.cpp:425] inception_4a/pool_proj <- inception_4a/pool
I0403 15:03:11.674569 11542 net.cpp:399] inception_4a/pool_proj -> inception_4a/pool_proj
I0403 15:03:11.675742 11542 net.cpp:141] Setting up inception_4a/pool_proj
I0403 15:03:11.675773 11542 net.cpp:148] Top shape: 24 64 14 14 (301056)
I0403 15:03:11.675806 11542 net.cpp:156] Memory required for data: 885707808
I0403 15:03:11.675827 11542 layer_factory.hpp:77] Creating layer inception_4a/relu_pool_proj
I0403 15:03:11.675846 11542 net.cpp:91] Creating Layer inception_4a/relu_pool_proj
I0403 15:03:11.675863 11542 net.cpp:425] inception_4a/relu_pool_proj <- inception_4a/pool_proj
I0403 15:03:11.675884 11542 net.cpp:386] inception_4a/relu_pool_proj -> inception_4a/pool_proj (in-place)
I0403 15:03:11.676164 11542 net.cpp:141] Setting up inception_4a/relu_pool_proj
I0403 15:03:11.676193 11542 net.cpp:148] Top shape: 24 64 14 14 (301056)
I0403 15:03:11.676209 11542 net.cpp:156] Memory required for data: 886912032
I0403 15:03:11.676224 11542 layer_factory.hpp:77] Creating layer inception_4a/output
I0403 15:03:11.676242 11542 net.cpp:91] Creating Layer inception_4a/output
I0403 15:03:11.676259 11542 net.cpp:425] inception_4a/output <- inception_4a/1x1
I0403 15:03:11.676275 11542 net.cpp:425] inception_4a/output <- inception_4a/3x3
I0403 15:03:11.676291 11542 net.cpp:425] inception_4a/output <- inception_4a/5x5
I0403 15:03:11.676307 11542 net.cpp:425] inception_4a/output <- inception_4a/pool_proj
I0403 15:03:11.676326 11542 net.cpp:399] inception_4a/output -> inception_4a/output
I0403 15:03:11.676370 11542 net.cpp:141] Setting up inception_4a/output
I0403 15:03:11.676398 11542 net.cpp:148] Top shape: 24 512 14 14 (2408448)
I0403 15:03:11.676414 11542 net.cpp:156] Memory required for data: 896545824
I0403 15:03:11.676429 11542 layer_factory.hpp:77] Creating layer inception_4a/output_inception_4a/output_0_split
I0403 15:03:11.676450 11542 net.cpp:91] Creating Layer inception_4a/output_inception_4a/output_0_split
I0403 15:03:11.676466 11542 net.cpp:425] inception_4a/output_inception_4a/output_0_split <- inception_4a/output
I0403 15:03:11.676484 11542 net.cpp:399] inception_4a/output_inception_4a/output_0_split -> inception_4a/output_inception_4a/output_0_split_0
I0403 15:03:11.676506 11542 net.cpp:399] inception_4a/output_inception_4a/output_0_split -> inception_4a/output_inception_4a/output_0_split_1
I0403 15:03:11.676527 11542 net.cpp:399] inception_4a/output_inception_4a/output_0_split -> inception_4a/output_inception_4a/output_0_split_2
I0403 15:03:11.676548 11542 net.cpp:399] inception_4a/output_inception_4a/output_0_split -> inception_4a/output_inception_4a/output_0_split_3
I0403 15:03:11.676568 11542 net.cpp:399] inception_4a/output_inception_4a/output_0_split -> inception_4a/output_inception_4a/output_0_split_4
I0403 15:03:11.676658 11542 net.cpp:141] Setting up inception_4a/output_inception_4a/output_0_split
I0403 15:03:11.676681 11542 net.cpp:148] Top shape: 24 512 14 14 (2408448)
I0403 15:03:11.676697 11542 net.cpp:148] Top shape: 24 512 14 14 (2408448)
I0403 15:03:11.676713 11542 net.cpp:148] Top shape: 24 512 14 14 (2408448)
I0403 15:03:11.676728 11542 net.cpp:148] Top shape: 24 512 14 14 (2408448)
I0403 15:03:11.676743 11542 net.cpp:148] Top shape: 24 512 14 14 (2408448)
I0403 15:03:11.676758 11542 net.cpp:156] Memory required for data: 944714784
I0403 15:03:11.676771 11542 layer_factory.hpp:77] Creating layer loss1/ave_pool
I0403 15:03:11.676791 11542 net.cpp:91] Creating Layer loss1/ave_pool
I0403 15:03:11.676808 11542 net.cpp:425] loss1/ave_pool <- inception_4a/output_inception_4a/output_0_split_0
I0403 15:03:11.676826 11542 net.cpp:399] loss1/ave_pool -> loss1/ave_pool
I0403 15:03:11.677031 11542 net.cpp:141] Setting up loss1/ave_pool
I0403 15:03:11.677059 11542 net.cpp:148] Top shape: 24 512 4 4 (196608)
I0403 15:03:11.677076 11542 net.cpp:156] Memory required for data: 945501216
I0403 15:03:11.677091 11542 layer_factory.hpp:77] Creating layer loss1/conv
I0403 15:03:11.677114 11542 net.cpp:91] Creating Layer loss1/conv
I0403 15:03:11.677132 11542 net.cpp:425] loss1/conv <- loss1/ave_pool
I0403 15:03:11.677150 11542 net.cpp:399] loss1/conv -> loss1/conv
I0403 15:03:11.678612 11542 net.cpp:141] Setting up loss1/conv
I0403 15:03:11.678642 11542 net.cpp:148] Top shape: 24 128 4 4 (49152)
I0403 15:03:11.678674 11542 net.cpp:156] Memory required for data: 945697824
I0403 15:03:11.678695 11542 layer_factory.hpp:77] Creating layer loss1/relu_conv
I0403 15:03:11.678719 11542 net.cpp:91] Creating Layer loss1/relu_conv
I0403 15:03:11.678736 11542 net.cpp:425] loss1/relu_conv <- loss1/conv
I0403 15:03:11.678756 11542 net.cpp:386] loss1/relu_conv -> loss1/conv (in-place)
I0403 15:03:11.679044 11542 net.cpp:141] Setting up loss1/relu_conv
I0403 15:03:11.679070 11542 net.cpp:148] Top shape: 24 128 4 4 (49152)
I0403 15:03:11.679086 11542 net.cpp:156] Memory required for data: 945894432
I0403 15:03:11.679102 11542 layer_factory.hpp:77] Creating layer loss1/fc
I0403 15:03:11.679128 11542 net.cpp:91] Creating Layer loss1/fc
I0403 15:03:11.679147 11542 net.cpp:425] loss1/fc <- loss1/conv
I0403 15:03:11.679167 11542 net.cpp:399] loss1/fc -> loss1/fc
I0403 15:03:11.698009 11542 net.cpp:141] Setting up loss1/fc
I0403 15:03:11.698074 11542 net.cpp:148] Top shape: 24 1024 (24576)
I0403 15:03:11.698091 11542 net.cpp:156] Memory required for data: 945992736
I0403 15:03:11.698112 11542 layer_factory.hpp:77] Creating layer loss1/relu_fc
I0403 15:03:11.698133 11542 net.cpp:91] Creating Layer loss1/relu_fc
I0403 15:03:11.698151 11542 net.cpp:425] loss1/relu_fc <- loss1/fc
I0403 15:03:11.698173 11542 net.cpp:386] loss1/relu_fc -> loss1/fc (in-place)
I0403 15:03:11.698397 11542 net.cpp:141] Setting up loss1/relu_fc
I0403 15:03:11.698424 11542 net.cpp:148] Top shape: 24 1024 (24576)
I0403 15:03:11.698441 11542 net.cpp:156] Memory required for data: 946091040
I0403 15:03:11.698457 11542 layer_factory.hpp:77] Creating layer loss1/drop_fc
I0403 15:03:11.698487 11542 net.cpp:91] Creating Layer loss1/drop_fc
I0403 15:03:11.698505 11542 net.cpp:425] loss1/drop_fc <- loss1/fc
I0403 15:03:11.698535 11542 net.cpp:386] loss1/drop_fc -> loss1/fc (in-place)
I0403 15:03:11.698592 11542 net.cpp:141] Setting up loss1/drop_fc
I0403 15:03:11.698619 11542 net.cpp:148] Top shape: 24 1024 (24576)
I0403 15:03:11.698635 11542 net.cpp:156] Memory required for data: 946189344
I0403 15:03:11.698652 11542 layer_factory.hpp:77] Creating layer loss1/classifier_plantvillage
I0403 15:03:11.698673 11542 net.cpp:91] Creating Layer loss1/classifier_plantvillage
I0403 15:03:11.698689 11542 net.cpp:425] loss1/classifier_plantvillage <- loss1/fc
I0403 15:03:11.698712 11542 net.cpp:399] loss1/classifier_plantvillage -> loss1/classifier_plantvillage
I0403 15:03:11.699702 11542 net.cpp:141] Setting up loss1/classifier_plantvillage
I0403 15:03:11.699729 11542 net.cpp:148] Top shape: 24 38 (912)
I0403 15:03:11.699745 11542 net.cpp:156] Memory required for data: 946192992
I0403 15:03:11.699764 11542 layer_factory.hpp:77] Creating layer loss1/classifier_plantvillage_loss1/classifier_plantvillage_0_split
I0403 15:03:11.699784 11542 net.cpp:91] Creating Layer loss1/classifier_plantvillage_loss1/classifier_plantvillage_0_split
I0403 15:03:11.699800 11542 net.cpp:425] loss1/classifier_plantvillage_loss1/classifier_plantvillage_0_split <- loss1/classifier_plantvillage
I0403 15:03:11.699821 11542 net.cpp:399] loss1/classifier_plantvillage_loss1/classifier_plantvillage_0_split -> loss1/classifier_plantvillage_loss1/classifier_plantvillage_0_split_0
I0403 15:03:11.699842 11542 net.cpp:399] loss1/classifier_plantvillage_loss1/classifier_plantvillage_0_split -> loss1/classifier_plantvillage_loss1/classifier_plantvillage_0_split_1
I0403 15:03:11.699863 11542 net.cpp:399] loss1/classifier_plantvillage_loss1/classifier_plantvillage_0_split -> loss1/classifier_plantvillage_loss1/classifier_plantvillage_0_split_2
I0403 15:03:11.699937 11542 net.cpp:141] Setting up loss1/classifier_plantvillage_loss1/classifier_plantvillage_0_split
I0403 15:03:11.699960 11542 net.cpp:148] Top shape: 24 38 (912)
I0403 15:03:11.699976 11542 net.cpp:148] Top shape: 24 38 (912)
I0403 15:03:11.699992 11542 net.cpp:148] Top shape: 24 38 (912)
I0403 15:03:11.700007 11542 net.cpp:156] Memory required for data: 946203936
I0403 15:03:11.700022 11542 layer_factory.hpp:77] Creating layer inception_4b/1x1
I0403 15:03:11.700047 11542 net.cpp:91] Creating Layer inception_4b/1x1
I0403 15:03:11.700090 11542 net.cpp:425] inception_4b/1x1 <- inception_4a/output_inception_4a/output_0_split_1
I0403 15:03:11.700112 11542 net.cpp:399] inception_4b/1x1 -> inception_4b/1x1
I0403 15:03:11.701853 11542 net.cpp:141] Setting up inception_4b/1x1
I0403 15:03:11.701881 11542 net.cpp:148] Top shape: 24 160 14 14 (752640)
I0403 15:03:11.701897 11542 net.cpp:156] Memory required for data: 949214496
I0403 15:03:11.701916 11542 layer_factory.hpp:77] Creating layer inception_4b/relu_1x1
I0403 15:03:11.701937 11542 net.cpp:91] Creating Layer inception_4b/relu_1x1
I0403 15:03:11.701956 11542 net.cpp:425] inception_4b/relu_1x1 <- inception_4b/1x1
I0403 15:03:11.701973 11542 net.cpp:386] inception_4b/relu_1x1 -> inception_4b/1x1 (in-place)
I0403 15:03:11.702157 11542 net.cpp:141] Setting up inception_4b/relu_1x1
I0403 15:03:11.702186 11542 net.cpp:148] Top shape: 24 160 14 14 (752640)
I0403 15:03:11.702201 11542 net.cpp:156] Memory required for data: 952225056
I0403 15:03:11.702217 11542 layer_factory.hpp:77] Creating layer inception_4b/3x3_reduce
I0403 15:03:11.702244 11542 net.cpp:91] Creating Layer inception_4b/3x3_reduce
I0403 15:03:11.702261 11542 net.cpp:425] inception_4b/3x3_reduce <- inception_4a/output_inception_4a/output_0_split_2
I0403 15:03:11.702282 11542 net.cpp:399] inception_4b/3x3_reduce -> inception_4b/3x3_reduce
I0403 15:03:11.703694 11542 net.cpp:141] Setting up inception_4b/3x3_reduce
I0403 15:03:11.703727 11542 net.cpp:148] Top shape: 24 112 14 14 (526848)
I0403 15:03:11.703743 11542 net.cpp:156] Memory required for data: 954332448
I0403 15:03:11.703763 11542 layer_factory.hpp:77] Creating layer inception_4b/relu_3x3_reduce
I0403 15:03:11.703781 11542 net.cpp:91] Creating Layer inception_4b/relu_3x3_reduce
I0403 15:03:11.703799 11542 net.cpp:425] inception_4b/relu_3x3_reduce <- inception_4b/3x3_reduce
I0403 15:03:11.703816 11542 net.cpp:386] inception_4b/relu_3x3_reduce -> inception_4b/3x3_reduce (in-place)
I0403 15:03:11.704110 11542 net.cpp:141] Setting up inception_4b/relu_3x3_reduce
I0403 15:03:11.704139 11542 net.cpp:148] Top shape: 24 112 14 14 (526848)
I0403 15:03:11.704155 11542 net.cpp:156] Memory required for data: 956439840
I0403 15:03:11.704171 11542 layer_factory.hpp:77] Creating layer inception_4b/3x3
I0403 15:03:11.704191 11542 net.cpp:91] Creating Layer inception_4b/3x3
I0403 15:03:11.704208 11542 net.cpp:425] inception_4b/3x3 <- inception_4b/3x3_reduce
I0403 15:03:11.704231 11542 net.cpp:399] inception_4b/3x3 -> inception_4b/3x3
I0403 15:03:11.707298 11542 net.cpp:141] Setting up inception_4b/3x3
I0403 15:03:11.707329 11542 net.cpp:148] Top shape: 24 224 14 14 (1053696)
I0403 15:03:11.707345 11542 net.cpp:156] Memory required for data: 960654624
I0403 15:03:11.707365 11542 layer_factory.hpp:77] Creating layer inception_4b/relu_3x3
I0403 15:03:11.707387 11542 net.cpp:91] Creating Layer inception_4b/relu_3x3
I0403 15:03:11.707406 11542 net.cpp:425] inception_4b/relu_3x3 <- inception_4b/3x3
I0403 15:03:11.707427 11542 net.cpp:386] inception_4b/relu_3x3 -> inception_4b/3x3 (in-place)
I0403 15:03:11.707614 11542 net.cpp:141] Setting up inception_4b/relu_3x3
I0403 15:03:11.707641 11542 net.cpp:148] Top shape: 24 224 14 14 (1053696)
I0403 15:03:11.707656 11542 net.cpp:156] Memory required for data: 964869408
I0403 15:03:11.707672 11542 layer_factory.hpp:77] Creating layer inception_4b/5x5_reduce
I0403 15:03:11.707695 11542 net.cpp:91] Creating Layer inception_4b/5x5_reduce
I0403 15:03:11.707713 11542 net.cpp:425] inception_4b/5x5_reduce <- inception_4a/output_inception_4a/output_0_split_3
I0403 15:03:11.707737 11542 net.cpp:399] inception_4b/5x5_reduce -> inception_4b/5x5_reduce
I0403 15:03:11.708856 11542 net.cpp:141] Setting up inception_4b/5x5_reduce
I0403 15:03:11.708884 11542 net.cpp:148] Top shape: 24 24 14 14 (112896)
I0403 15:03:11.708900 11542 net.cpp:156] Memory required for data: 965320992
I0403 15:03:11.708920 11542 layer_factory.hpp:77] Creating layer inception_4b/relu_5x5_reduce
I0403 15:03:11.708940 11542 net.cpp:91] Creating Layer inception_4b/relu_5x5_reduce
I0403 15:03:11.708972 11542 net.cpp:425] inception_4b/relu_5x5_reduce <- inception_4b/5x5_reduce
I0403 15:03:11.708992 11542 net.cpp:386] inception_4b/relu_5x5_reduce -> inception_4b/5x5_reduce (in-place)
I0403 15:03:11.709187 11542 net.cpp:141] Setting up inception_4b/relu_5x5_reduce
I0403 15:03:11.709214 11542 net.cpp:148] Top shape: 24 24 14 14 (112896)
I0403 15:03:11.709230 11542 net.cpp:156] Memory required for data: 965772576
I0403 15:03:11.709247 11542 layer_factory.hpp:77] Creating layer inception_4b/5x5
I0403 15:03:11.709270 11542 net.cpp:91] Creating Layer inception_4b/5x5
I0403 15:03:11.709288 11542 net.cpp:425] inception_4b/5x5 <- inception_4b/5x5_reduce
I0403 15:03:11.709308 11542 net.cpp:399] inception_4b/5x5 -> inception_4b/5x5
I0403 15:03:11.710578 11542 net.cpp:141] Setting up inception_4b/5x5
I0403 15:03:11.710608 11542 net.cpp:148] Top shape: 24 64 14 14 (301056)
I0403 15:03:11.710624 11542 net.cpp:156] Memory required for data: 966976800
I0403 15:03:11.710644 11542 layer_factory.hpp:77] Creating layer inception_4b/relu_5x5
I0403 15:03:11.710664 11542 net.cpp:91] Creating Layer inception_4b/relu_5x5
I0403 15:03:11.710682 11542 net.cpp:425] inception_4b/relu_5x5 <- inception_4b/5x5
I0403 15:03:11.710700 11542 net.cpp:386] inception_4b/relu_5x5 -> inception_4b/5x5 (in-place)
I0403 15:03:11.710996 11542 net.cpp:141] Setting up inception_4b/relu_5x5
I0403 15:03:11.711024 11542 net.cpp:148] Top shape: 24 64 14 14 (301056)
I0403 15:03:11.711040 11542 net.cpp:156] Memory required for data: 968181024
I0403 15:03:11.711055 11542 layer_factory.hpp:77] Creating layer inception_4b/pool
I0403 15:03:11.711073 11542 net.cpp:91] Creating Layer inception_4b/pool
I0403 15:03:11.711091 11542 net.cpp:425] inception_4b/pool <- inception_4a/output_inception_4a/output_0_split_4
I0403 15:03:11.711112 11542 net.cpp:399] inception_4b/pool -> inception_4b/pool
I0403 15:03:11.711180 11542 net.cpp:141] Setting up inception_4b/pool
I0403 15:03:11.711205 11542 net.cpp:148] Top shape: 24 512 14 14 (2408448)
I0403 15:03:11.711220 11542 net.cpp:156] Memory required for data: 977814816
I0403 15:03:11.711235 11542 layer_factory.hpp:77] Creating layer inception_4b/pool_proj
I0403 15:03:11.711257 11542 net.cpp:91] Creating Layer inception_4b/pool_proj
I0403 15:03:11.711275 11542 net.cpp:425] inception_4b/pool_proj <- inception_4b/pool
I0403 15:03:11.711297 11542 net.cpp:399] inception_4b/pool_proj -> inception_4b/pool_proj
I0403 15:03:11.712545 11542 net.cpp:141] Setting up inception_4b/pool_proj
I0403 15:03:11.712574 11542 net.cpp:148] Top shape: 24 64 14 14 (301056)
I0403 15:03:11.712590 11542 net.cpp:156] Memory required for data: 979019040
I0403 15:03:11.712610 11542 layer_factory.hpp:77] Creating layer inception_4b/relu_pool_proj
I0403 15:03:11.712630 11542 net.cpp:91] Creating Layer inception_4b/relu_pool_proj
I0403 15:03:11.712647 11542 net.cpp:425] inception_4b/relu_pool_proj <- inception_4b/pool_proj
I0403 15:03:11.712666 11542 net.cpp:386] inception_4b/relu_pool_proj -> inception_4b/pool_proj (in-place)
I0403 15:03:11.712852 11542 net.cpp:141] Setting up inception_4b/relu_pool_proj
I0403 15:03:11.712882 11542 net.cpp:148] Top shape: 24 64 14 14 (301056)
I0403 15:03:11.712898 11542 net.cpp:156] Memory required for data: 980223264
I0403 15:03:11.712914 11542 layer_factory.hpp:77] Creating layer inception_4b/output
I0403 15:03:11.712932 11542 net.cpp:91] Creating Layer inception_4b/output
I0403 15:03:11.712949 11542 net.cpp:425] inception_4b/output <- inception_4b/1x1
I0403 15:03:11.712965 11542 net.cpp:425] inception_4b/output <- inception_4b/3x3
I0403 15:03:11.712982 11542 net.cpp:425] inception_4b/output <- inception_4b/5x5
I0403 15:03:11.712999 11542 net.cpp:425] inception_4b/output <- inception_4b/pool_proj
I0403 15:03:11.713016 11542 net.cpp:399] inception_4b/output -> inception_4b/output
I0403 15:03:11.713065 11542 net.cpp:141] Setting up inception_4b/output
I0403 15:03:11.713093 11542 net.cpp:148] Top shape: 24 512 14 14 (2408448)
I0403 15:03:11.713109 11542 net.cpp:156] Memory required for data: 989857056
I0403 15:03:11.713140 11542 layer_factory.hpp:77] Creating layer inception_4b/output_inception_4b/output_0_split
I0403 15:03:11.713161 11542 net.cpp:91] Creating Layer inception_4b/output_inception_4b/output_0_split
I0403 15:03:11.713178 11542 net.cpp:425] inception_4b/output_inception_4b/output_0_split <- inception_4b/output
I0403 15:03:11.713197 11542 net.cpp:399] inception_4b/output_inception_4b/output_0_split -> inception_4b/output_inception_4b/output_0_split_0
I0403 15:03:11.713222 11542 net.cpp:399] inception_4b/output_inception_4b/output_0_split -> inception_4b/output_inception_4b/output_0_split_1
I0403 15:03:11.713243 11542 net.cpp:399] inception_4b/output_inception_4b/output_0_split -> inception_4b/output_inception_4b/output_0_split_2
I0403 15:03:11.713264 11542 net.cpp:399] inception_4b/output_inception_4b/output_0_split -> inception_4b/output_inception_4b/output_0_split_3
I0403 15:03:11.713352 11542 net.cpp:141] Setting up inception_4b/output_inception_4b/output_0_split
I0403 15:03:11.713376 11542 net.cpp:148] Top shape: 24 512 14 14 (2408448)
I0403 15:03:11.713399 11542 net.cpp:148] Top shape: 24 512 14 14 (2408448)
I0403 15:03:11.713415 11542 net.cpp:148] Top shape: 24 512 14 14 (2408448)
I0403 15:03:11.713431 11542 net.cpp:148] Top shape: 24 512 14 14 (2408448)
I0403 15:03:11.713445 11542 net.cpp:156] Memory required for data: 1028392224
I0403 15:03:11.713461 11542 layer_factory.hpp:77] Creating layer inception_4c/1x1
I0403 15:03:11.713485 11542 net.cpp:91] Creating Layer inception_4c/1x1
I0403 15:03:11.713502 11542 net.cpp:425] inception_4c/1x1 <- inception_4b/output_inception_4b/output_0_split_0
I0403 15:03:11.713524 11542 net.cpp:399] inception_4c/1x1 -> inception_4c/1x1
I0403 15:03:11.715003 11542 net.cpp:141] Setting up inception_4c/1x1
I0403 15:03:11.715035 11542 net.cpp:148] Top shape: 24 128 14 14 (602112)
I0403 15:03:11.715054 11542 net.cpp:156] Memory required for data: 1030800672
I0403 15:03:11.715073 11542 layer_factory.hpp:77] Creating layer inception_4c/relu_1x1
I0403 15:03:11.715091 11542 net.cpp:91] Creating Layer inception_4c/relu_1x1
I0403 15:03:11.715108 11542 net.cpp:425] inception_4c/relu_1x1 <- inception_4c/1x1
I0403 15:03:11.715128 11542 net.cpp:386] inception_4c/relu_1x1 -> inception_4c/1x1 (in-place)
I0403 15:03:11.715320 11542 net.cpp:141] Setting up inception_4c/relu_1x1
I0403 15:03:11.715347 11542 net.cpp:148] Top shape: 24 128 14 14 (602112)
I0403 15:03:11.715361 11542 net.cpp:156] Memory required for data: 1033209120
I0403 15:03:11.715378 11542 layer_factory.hpp:77] Creating layer inception_4c/3x3_reduce
I0403 15:03:11.715407 11542 net.cpp:91] Creating Layer inception_4c/3x3_reduce
I0403 15:03:11.715426 11542 net.cpp:425] inception_4c/3x3_reduce <- inception_4b/output_inception_4b/output_0_split_1
I0403 15:03:11.715448 11542 net.cpp:399] inception_4c/3x3_reduce -> inception_4c/3x3_reduce
I0403 15:03:11.717459 11542 net.cpp:141] Setting up inception_4c/3x3_reduce
I0403 15:03:11.717488 11542 net.cpp:148] Top shape: 24 128 14 14 (602112)
I0403 15:03:11.717504 11542 net.cpp:156] Memory required for data: 1035617568
I0403 15:03:11.717522 11542 layer_factory.hpp:77] Creating layer inception_4c/relu_3x3_reduce
I0403 15:03:11.717543 11542 net.cpp:91] Creating Layer inception_4c/relu_3x3_reduce
I0403 15:03:11.717561 11542 net.cpp:425] inception_4c/relu_3x3_reduce <- inception_4c/3x3_reduce
I0403 15:03:11.717577 11542 net.cpp:386] inception_4c/relu_3x3_reduce -> inception_4c/3x3_reduce (in-place)
I0403 15:03:11.717864 11542 net.cpp:141] Setting up inception_4c/relu_3x3_reduce
I0403 15:03:11.717891 11542 net.cpp:148] Top shape: 24 128 14 14 (602112)
I0403 15:03:11.717906 11542 net.cpp:156] Memory required for data: 1038026016
I0403 15:03:11.717921 11542 layer_factory.hpp:77] Creating layer inception_4c/3x3
I0403 15:03:11.717944 11542 net.cpp:91] Creating Layer inception_4c/3x3
I0403 15:03:11.717962 11542 net.cpp:425] inception_4c/3x3 <- inception_4c/3x3_reduce
I0403 15:03:11.717983 11542 net.cpp:399] inception_4c/3x3 -> inception_4c/3x3
I0403 15:03:11.721591 11542 net.cpp:141] Setting up inception_4c/3x3
I0403 15:03:11.721633 11542 net.cpp:148] Top shape: 24 256 14 14 (1204224)
I0403 15:03:11.721649 11542 net.cpp:156] Memory required for data: 1042842912
I0403 15:03:11.721681 11542 layer_factory.hpp:77] Creating layer inception_4c/relu_3x3
I0403 15:03:11.721704 11542 net.cpp:91] Creating Layer inception_4c/relu_3x3
I0403 15:03:11.721721 11542 net.cpp:425] inception_4c/relu_3x3 <- inception_4c/3x3
I0403 15:03:11.721738 11542 net.cpp:386] inception_4c/relu_3x3 -> inception_4c/3x3 (in-place)
I0403 15:03:11.721921 11542 net.cpp:141] Setting up inception_4c/relu_3x3
I0403 15:03:11.721946 11542 net.cpp:148] Top shape: 24 256 14 14 (1204224)
I0403 15:03:11.721961 11542 net.cpp:156] Memory required for data: 1047659808
I0403 15:03:11.721976 11542 layer_factory.hpp:77] Creating layer inception_4c/5x5_reduce
I0403 15:03:11.721998 11542 net.cpp:91] Creating Layer inception_4c/5x5_reduce
I0403 15:03:11.722015 11542 net.cpp:425] inception_4c/5x5_reduce <- inception_4b/output_inception_4b/output_0_split_2
I0403 15:03:11.722038 11542 net.cpp:399] inception_4c/5x5_reduce -> inception_4c/5x5_reduce
I0403 15:03:11.723140 11542 net.cpp:141] Setting up inception_4c/5x5_reduce
I0403 15:03:11.723167 11542 net.cpp:148] Top shape: 24 24 14 14 (112896)
I0403 15:03:11.723182 11542 net.cpp:156] Memory required for data: 1048111392
I0403 15:03:11.723201 11542 layer_factory.hpp:77] Creating layer inception_4c/relu_5x5_reduce
I0403 15:03:11.723222 11542 net.cpp:91] Creating Layer inception_4c/relu_5x5_reduce
I0403 15:03:11.723238 11542 net.cpp:425] inception_4c/relu_5x5_reduce <- inception_4c/5x5_reduce
I0403 15:03:11.723255 11542 net.cpp:386] inception_4c/relu_5x5_reduce -> inception_4c/5x5_reduce (in-place)
I0403 15:03:11.723445 11542 net.cpp:141] Setting up inception_4c/relu_5x5_reduce
I0403 15:03:11.723474 11542 net.cpp:148] Top shape: 24 24 14 14 (112896)
I0403 15:03:11.723489 11542 net.cpp:156] Memory required for data: 1048562976
I0403 15:03:11.723503 11542 layer_factory.hpp:77] Creating layer inception_4c/5x5
I0403 15:03:11.723526 11542 net.cpp:91] Creating Layer inception_4c/5x5
I0403 15:03:11.723543 11542 net.cpp:425] inception_4c/5x5 <- inception_4c/5x5_reduce
I0403 15:03:11.723562 11542 net.cpp:399] inception_4c/5x5 -> inception_4c/5x5
I0403 15:03:11.724799 11542 net.cpp:141] Setting up inception_4c/5x5
I0403 15:03:11.724830 11542 net.cpp:148] Top shape: 24 64 14 14 (301056)
I0403 15:03:11.724846 11542 net.cpp:156] Memory required for data: 1049767200
I0403 15:03:11.724865 11542 layer_factory.hpp:77] Creating layer inception_4c/relu_5x5
I0403 15:03:11.724884 11542 net.cpp:91] Creating Layer inception_4c/relu_5x5
I0403 15:03:11.724900 11542 net.cpp:425] inception_4c/relu_5x5 <- inception_4c/5x5
I0403 15:03:11.724916 11542 net.cpp:386] inception_4c/relu_5x5 -> inception_4c/5x5 (in-place)
I0403 15:03:11.725205 11542 net.cpp:141] Setting up inception_4c/relu_5x5
I0403 15:03:11.725234 11542 net.cpp:148] Top shape: 24 64 14 14 (301056)
I0403 15:03:11.725250 11542 net.cpp:156] Memory required for data: 1050971424
I0403 15:03:11.725265 11542 layer_factory.hpp:77] Creating layer inception_4c/pool
I0403 15:03:11.725282 11542 net.cpp:91] Creating Layer inception_4c/pool
I0403 15:03:11.725298 11542 net.cpp:425] inception_4c/pool <- inception_4b/output_inception_4b/output_0_split_3
I0403 15:03:11.725316 11542 net.cpp:399] inception_4c/pool -> inception_4c/pool
I0403 15:03:11.725385 11542 net.cpp:141] Setting up inception_4c/pool
I0403 15:03:11.725409 11542 net.cpp:148] Top shape: 24 512 14 14 (2408448)
I0403 15:03:11.725425 11542 net.cpp:156] Memory required for data: 1060605216
I0403 15:03:11.725440 11542 layer_factory.hpp:77] Creating layer inception_4c/pool_proj
I0403 15:03:11.725461 11542 net.cpp:91] Creating Layer inception_4c/pool_proj
I0403 15:03:11.725478 11542 net.cpp:425] inception_4c/pool_proj <- inception_4c/pool
I0403 15:03:11.725498 11542 net.cpp:399] inception_4c/pool_proj -> inception_4c/pool_proj
I0403 15:03:11.726717 11542 net.cpp:141] Setting up inception_4c/pool_proj
I0403 15:03:11.726745 11542 net.cpp:148] Top shape: 24 64 14 14 (301056)
I0403 15:03:11.726775 11542 net.cpp:156] Memory required for data: 1061809440
I0403 15:03:11.726795 11542 layer_factory.hpp:77] Creating layer inception_4c/relu_pool_proj
I0403 15:03:11.726816 11542 net.cpp:91] Creating Layer inception_4c/relu_pool_proj
I0403 15:03:11.726833 11542 net.cpp:425] inception_4c/relu_pool_proj <- inception_4c/pool_proj
I0403 15:03:11.726850 11542 net.cpp:386] inception_4c/relu_pool_proj -> inception_4c/pool_proj (in-place)
I0403 15:03:11.727031 11542 net.cpp:141] Setting up inception_4c/relu_pool_proj
I0403 15:03:11.727058 11542 net.cpp:148] Top shape: 24 64 14 14 (301056)
I0403 15:03:11.727073 11542 net.cpp:156] Memory required for data: 1063013664
I0403 15:03:11.727088 11542 layer_factory.hpp:77] Creating layer inception_4c/output
I0403 15:03:11.727105 11542 net.cpp:91] Creating Layer inception_4c/output
I0403 15:03:11.727121 11542 net.cpp:425] inception_4c/output <- inception_4c/1x1
I0403 15:03:11.727138 11542 net.cpp:425] inception_4c/output <- inception_4c/3x3
I0403 15:03:11.727154 11542 net.cpp:425] inception_4c/output <- inception_4c/5x5
I0403 15:03:11.727170 11542 net.cpp:425] inception_4c/output <- inception_4c/pool_proj
I0403 15:03:11.727187 11542 net.cpp:399] inception_4c/output -> inception_4c/output
I0403 15:03:11.727236 11542 net.cpp:141] Setting up inception_4c/output
I0403 15:03:11.727258 11542 net.cpp:148] Top shape: 24 512 14 14 (2408448)
I0403 15:03:11.727272 11542 net.cpp:156] Memory required for data: 1072647456
I0403 15:03:11.727288 11542 layer_factory.hpp:77] Creating layer inception_4c/output_inception_4c/output_0_split
I0403 15:03:11.727306 11542 net.cpp:91] Creating Layer inception_4c/output_inception_4c/output_0_split
I0403 15:03:11.727322 11542 net.cpp:425] inception_4c/output_inception_4c/output_0_split <- inception_4c/output
I0403 15:03:11.727339 11542 net.cpp:399] inception_4c/output_inception_4c/output_0_split -> inception_4c/output_inception_4c/output_0_split_0
I0403 15:03:11.727361 11542 net.cpp:399] inception_4c/output_inception_4c/output_0_split -> inception_4c/output_inception_4c/output_0_split_1
I0403 15:03:11.727385 11542 net.cpp:399] inception_4c/output_inception_4c/output_0_split -> inception_4c/output_inception_4c/output_0_split_2
I0403 15:03:11.727407 11542 net.cpp:399] inception_4c/output_inception_4c/output_0_split -> inception_4c/output_inception_4c/output_0_split_3
I0403 15:03:11.727496 11542 net.cpp:141] Setting up inception_4c/output_inception_4c/output_0_split
I0403 15:03:11.727519 11542 net.cpp:148] Top shape: 24 512 14 14 (2408448)
I0403 15:03:11.727535 11542 net.cpp:148] Top shape: 24 512 14 14 (2408448)
I0403 15:03:11.727550 11542 net.cpp:148] Top shape: 24 512 14 14 (2408448)
I0403 15:03:11.727566 11542 net.cpp:148] Top shape: 24 512 14 14 (2408448)
I0403 15:03:11.727579 11542 net.cpp:156] Memory required for data: 1111182624
I0403 15:03:11.727593 11542 layer_factory.hpp:77] Creating layer inception_4d/1x1
I0403 15:03:11.727618 11542 net.cpp:91] Creating Layer inception_4d/1x1
I0403 15:03:11.727635 11542 net.cpp:425] inception_4d/1x1 <- inception_4c/output_inception_4c/output_0_split_0
I0403 15:03:11.727655 11542 net.cpp:399] inception_4d/1x1 -> inception_4d/1x1
I0403 15:03:11.729038 11542 net.cpp:141] Setting up inception_4d/1x1
I0403 15:03:11.729064 11542 net.cpp:148] Top shape: 24 112 14 14 (526848)
I0403 15:03:11.729080 11542 net.cpp:156] Memory required for data: 1113290016
I0403 15:03:11.729099 11542 layer_factory.hpp:77] Creating layer inception_4d/relu_1x1
I0403 15:03:11.729116 11542 net.cpp:91] Creating Layer inception_4d/relu_1x1
I0403 15:03:11.729132 11542 net.cpp:425] inception_4d/relu_1x1 <- inception_4d/1x1
I0403 15:03:11.729152 11542 net.cpp:386] inception_4d/relu_1x1 -> inception_4d/1x1 (in-place)
I0403 15:03:11.729337 11542 net.cpp:141] Setting up inception_4d/relu_1x1
I0403 15:03:11.729363 11542 net.cpp:148] Top shape: 24 112 14 14 (526848)
I0403 15:03:11.729382 11542 net.cpp:156] Memory required for data: 1115397408
I0403 15:03:11.729398 11542 layer_factory.hpp:77] Creating layer inception_4d/3x3_reduce
I0403 15:03:11.729435 11542 net.cpp:91] Creating Layer inception_4d/3x3_reduce
I0403 15:03:11.729454 11542 net.cpp:425] inception_4d/3x3_reduce <- inception_4c/output_inception_4c/output_0_split_1
I0403 15:03:11.729476 11542 net.cpp:399] inception_4d/3x3_reduce -> inception_4d/3x3_reduce
I0403 15:03:11.731019 11542 net.cpp:141] Setting up inception_4d/3x3_reduce
I0403 15:03:11.731050 11542 net.cpp:148] Top shape: 24 144 14 14 (677376)
I0403 15:03:11.731066 11542 net.cpp:156] Memory required for data: 1118106912
I0403 15:03:11.731086 11542 layer_factory.hpp:77] Creating layer inception_4d/relu_3x3_reduce
I0403 15:03:11.731104 11542 net.cpp:91] Creating Layer inception_4d/relu_3x3_reduce
I0403 15:03:11.731122 11542 net.cpp:425] inception_4d/relu_3x3_reduce <- inception_4d/3x3_reduce
I0403 15:03:11.731142 11542 net.cpp:386] inception_4d/relu_3x3_reduce -> inception_4d/3x3_reduce (in-place)
I0403 15:03:11.731449 11542 net.cpp:141] Setting up inception_4d/relu_3x3_reduce
I0403 15:03:11.731478 11542 net.cpp:148] Top shape: 24 144 14 14 (677376)
I0403 15:03:11.731495 11542 net.cpp:156] Memory required for data: 1120816416
I0403 15:03:11.731510 11542 layer_factory.hpp:77] Creating layer inception_4d/3x3
I0403 15:03:11.731534 11542 net.cpp:91] Creating Layer inception_4d/3x3
I0403 15:03:11.731551 11542 net.cpp:425] inception_4d/3x3 <- inception_4d/3x3_reduce
I0403 15:03:11.731571 11542 net.cpp:399] inception_4d/3x3 -> inception_4d/3x3
I0403 15:03:11.735957 11542 net.cpp:141] Setting up inception_4d/3x3
I0403 15:03:11.735987 11542 net.cpp:148] Top shape: 24 288 14 14 (1354752)
I0403 15:03:11.736003 11542 net.cpp:156] Memory required for data: 1126235424
I0403 15:03:11.736023 11542 layer_factory.hpp:77] Creating layer inception_4d/relu_3x3
I0403 15:03:11.736044 11542 net.cpp:91] Creating Layer inception_4d/relu_3x3
I0403 15:03:11.736063 11542 net.cpp:425] inception_4d/relu_3x3 <- inception_4d/3x3
I0403 15:03:11.736080 11542 net.cpp:386] inception_4d/relu_3x3 -> inception_4d/3x3 (in-place)
I0403 15:03:11.736271 11542 net.cpp:141] Setting up inception_4d/relu_3x3
I0403 15:03:11.736296 11542 net.cpp:148] Top shape: 24 288 14 14 (1354752)
I0403 15:03:11.736312 11542 net.cpp:156] Memory required for data: 1131654432
I0403 15:03:11.736327 11542 layer_factory.hpp:77] Creating layer inception_4d/5x5_reduce
I0403 15:03:11.736351 11542 net.cpp:91] Creating Layer inception_4d/5x5_reduce
I0403 15:03:11.736368 11542 net.cpp:425] inception_4d/5x5_reduce <- inception_4c/output_inception_4c/output_0_split_2
I0403 15:03:11.736397 11542 net.cpp:399] inception_4d/5x5_reduce -> inception_4d/5x5_reduce
I0403 15:03:11.737578 11542 net.cpp:141] Setting up inception_4d/5x5_reduce
I0403 15:03:11.737609 11542 net.cpp:148] Top shape: 24 32 14 14 (150528)
I0403 15:03:11.737625 11542 net.cpp:156] Memory required for data: 1132256544
I0403 15:03:11.737643 11542 layer_factory.hpp:77] Creating layer inception_4d/relu_5x5_reduce
I0403 15:03:11.737661 11542 net.cpp:91] Creating Layer inception_4d/relu_5x5_reduce
I0403 15:03:11.737679 11542 net.cpp:425] inception_4d/relu_5x5_reduce <- inception_4d/5x5_reduce
I0403 15:03:11.737699 11542 net.cpp:386] inception_4d/relu_5x5_reduce -> inception_4d/5x5_reduce (in-place)
I0403 15:03:11.737892 11542 net.cpp:141] Setting up inception_4d/relu_5x5_reduce
I0403 15:03:11.737918 11542 net.cpp:148] Top shape: 24 32 14 14 (150528)
I0403 15:03:11.737934 11542 net.cpp:156] Memory required for data: 1132858656
I0403 15:03:11.737951 11542 layer_factory.hpp:77] Creating layer inception_4d/5x5
I0403 15:03:11.737973 11542 net.cpp:91] Creating Layer inception_4d/5x5
I0403 15:03:11.737992 11542 net.cpp:425] inception_4d/5x5 <- inception_4d/5x5_reduce
I0403 15:03:11.738013 11542 net.cpp:399] inception_4d/5x5 -> inception_4d/5x5
I0403 15:03:11.739531 11542 net.cpp:141] Setting up inception_4d/5x5
I0403 15:03:11.739560 11542 net.cpp:148] Top shape: 24 64 14 14 (301056)
I0403 15:03:11.739579 11542 net.cpp:156] Memory required for data: 1134062880
I0403 15:03:11.739599 11542 layer_factory.hpp:77] Creating layer inception_4d/relu_5x5
I0403 15:03:11.739634 11542 net.cpp:91] Creating Layer inception_4d/relu_5x5
I0403 15:03:11.739651 11542 net.cpp:425] inception_4d/relu_5x5 <- inception_4d/5x5
I0403 15:03:11.739670 11542 net.cpp:386] inception_4d/relu_5x5 -> inception_4d/5x5 (in-place)
I0403 15:03:11.739980 11542 net.cpp:141] Setting up inception_4d/relu_5x5
I0403 15:03:11.740007 11542 net.cpp:148] Top shape: 24 64 14 14 (301056)
I0403 15:03:11.740026 11542 net.cpp:156] Memory required for data: 1135267104
I0403 15:03:11.740041 11542 layer_factory.hpp:77] Creating layer inception_4d/pool
I0403 15:03:11.740059 11542 net.cpp:91] Creating Layer inception_4d/pool
I0403 15:03:11.740077 11542 net.cpp:425] inception_4d/pool <- inception_4c/output_inception_4c/output_0_split_3
I0403 15:03:11.740095 11542 net.cpp:399] inception_4d/pool -> inception_4d/pool
I0403 15:03:11.740166 11542 net.cpp:141] Setting up inception_4d/pool
I0403 15:03:11.740190 11542 net.cpp:148] Top shape: 24 512 14 14 (2408448)
I0403 15:03:11.740206 11542 net.cpp:156] Memory required for data: 1144900896
I0403 15:03:11.740221 11542 layer_factory.hpp:77] Creating layer inception_4d/pool_proj
I0403 15:03:11.740244 11542 net.cpp:91] Creating Layer inception_4d/pool_proj
I0403 15:03:11.740263 11542 net.cpp:425] inception_4d/pool_proj <- inception_4d/pool
I0403 15:03:11.740284 11542 net.cpp:399] inception_4d/pool_proj -> inception_4d/pool_proj
I0403 15:03:11.742090 11542 net.cpp:141] Setting up inception_4d/pool_proj
I0403 15:03:11.742121 11542 net.cpp:148] Top shape: 24 64 14 14 (301056)
I0403 15:03:11.742137 11542 net.cpp:156] Memory required for data: 1146105120
I0403 15:03:11.742156 11542 layer_factory.hpp:77] Creating layer inception_4d/relu_pool_proj
I0403 15:03:11.742177 11542 net.cpp:91] Creating Layer inception_4d/relu_pool_proj
I0403 15:03:11.742195 11542 net.cpp:425] inception_4d/relu_pool_proj <- inception_4d/pool_proj
I0403 15:03:11.742213 11542 net.cpp:386] inception_4d/relu_pool_proj -> inception_4d/pool_proj (in-place)
I0403 15:03:11.742413 11542 net.cpp:141] Setting up inception_4d/relu_pool_proj
I0403 15:03:11.742439 11542 net.cpp:148] Top shape: 24 64 14 14 (301056)
I0403 15:03:11.742454 11542 net.cpp:156] Memory required for data: 1147309344
I0403 15:03:11.742468 11542 layer_factory.hpp:77] Creating layer inception_4d/output
I0403 15:03:11.742488 11542 net.cpp:91] Creating Layer inception_4d/output
I0403 15:03:11.742506 11542 net.cpp:425] inception_4d/output <- inception_4d/1x1
I0403 15:03:11.742547 11542 net.cpp:425] inception_4d/output <- inception_4d/3x3
I0403 15:03:11.742595 11542 net.cpp:425] inception_4d/output <- inception_4d/5x5
I0403 15:03:11.742624 11542 net.cpp:425] inception_4d/output <- inception_4d/pool_proj
I0403 15:03:11.742641 11542 net.cpp:399] inception_4d/output -> inception_4d/output
I0403 15:03:11.742694 11542 net.cpp:141] Setting up inception_4d/output
I0403 15:03:11.742717 11542 net.cpp:148] Top shape: 24 528 14 14 (2483712)
I0403 15:03:11.742733 11542 net.cpp:156] Memory required for data: 1157244192
I0403 15:03:11.742748 11542 layer_factory.hpp:77] Creating layer inception_4d/output_inception_4d/output_0_split
I0403 15:03:11.742765 11542 net.cpp:91] Creating Layer inception_4d/output_inception_4d/output_0_split
I0403 15:03:11.742781 11542 net.cpp:425] inception_4d/output_inception_4d/output_0_split <- inception_4d/output
I0403 15:03:11.742802 11542 net.cpp:399] inception_4d/output_inception_4d/output_0_split -> inception_4d/output_inception_4d/output_0_split_0
I0403 15:03:11.742825 11542 net.cpp:399] inception_4d/output_inception_4d/output_0_split -> inception_4d/output_inception_4d/output_0_split_1
I0403 15:03:11.742846 11542 net.cpp:399] inception_4d/output_inception_4d/output_0_split -> inception_4d/output_inception_4d/output_0_split_2
I0403 15:03:11.742867 11542 net.cpp:399] inception_4d/output_inception_4d/output_0_split -> inception_4d/output_inception_4d/output_0_split_3
I0403 15:03:11.742887 11542 net.cpp:399] inception_4d/output_inception_4d/output_0_split -> inception_4d/output_inception_4d/output_0_split_4
I0403 15:03:11.743000 11542 net.cpp:141] Setting up inception_4d/output_inception_4d/output_0_split
I0403 15:03:11.743036 11542 net.cpp:148] Top shape: 24 528 14 14 (2483712)
I0403 15:03:11.743054 11542 net.cpp:148] Top shape: 24 528 14 14 (2483712)
I0403 15:03:11.743070 11542 net.cpp:148] Top shape: 24 528 14 14 (2483712)
I0403 15:03:11.743086 11542 net.cpp:148] Top shape: 24 528 14 14 (2483712)
I0403 15:03:11.743103 11542 net.cpp:148] Top shape: 24 528 14 14 (2483712)
I0403 15:03:11.743116 11542 net.cpp:156] Memory required for data: 1206918432
I0403 15:03:11.743131 11542 layer_factory.hpp:77] Creating layer loss2/ave_pool
I0403 15:03:11.743149 11542 net.cpp:91] Creating Layer loss2/ave_pool
I0403 15:03:11.743165 11542 net.cpp:425] loss2/ave_pool <- inception_4d/output_inception_4d/output_0_split_0
I0403 15:03:11.743187 11542 net.cpp:399] loss2/ave_pool -> loss2/ave_pool
I0403 15:03:11.743516 11542 net.cpp:141] Setting up loss2/ave_pool
I0403 15:03:11.743544 11542 net.cpp:148] Top shape: 24 528 4 4 (202752)
I0403 15:03:11.743561 11542 net.cpp:156] Memory required for data: 1207729440
I0403 15:03:11.743576 11542 layer_factory.hpp:77] Creating layer loss2/conv
I0403 15:03:11.743598 11542 net.cpp:91] Creating Layer loss2/conv
I0403 15:03:11.743618 11542 net.cpp:425] loss2/conv <- loss2/ave_pool
I0403 15:03:11.743638 11542 net.cpp:399] loss2/conv -> loss2/conv
I0403 15:03:11.745587 11542 net.cpp:141] Setting up loss2/conv
I0403 15:03:11.745617 11542 net.cpp:148] Top shape: 24 128 4 4 (49152)
I0403 15:03:11.745635 11542 net.cpp:156] Memory required for data: 1207926048
I0403 15:03:11.745654 11542 layer_factory.hpp:77] Creating layer loss2/relu_conv
I0403 15:03:11.745676 11542 net.cpp:91] Creating Layer loss2/relu_conv
I0403 15:03:11.745694 11542 net.cpp:425] loss2/relu_conv <- loss2/conv
I0403 15:03:11.745712 11542 net.cpp:386] loss2/relu_conv -> loss2/conv (in-place)
I0403 15:03:11.746006 11542 net.cpp:141] Setting up loss2/relu_conv
I0403 15:03:11.746033 11542 net.cpp:148] Top shape: 24 128 4 4 (49152)
I0403 15:03:11.746049 11542 net.cpp:156] Memory required for data: 1208122656
I0403 15:03:11.746064 11542 layer_factory.hpp:77] Creating layer loss2/fc
I0403 15:03:11.746088 11542 net.cpp:91] Creating Layer loss2/fc
I0403 15:03:11.746140 11542 net.cpp:425] loss2/fc <- loss2/conv
I0403 15:03:11.746163 11542 net.cpp:399] loss2/fc -> loss2/fc
I0403 15:03:11.763994 11542 net.cpp:141] Setting up loss2/fc
I0403 15:03:11.764032 11542 net.cpp:148] Top shape: 24 1024 (24576)
I0403 15:03:11.764048 11542 net.cpp:156] Memory required for data: 1208220960
I0403 15:03:11.764067 11542 layer_factory.hpp:77] Creating layer loss2/relu_fc
I0403 15:03:11.764086 11542 net.cpp:91] Creating Layer loss2/relu_fc
I0403 15:03:11.764101 11542 net.cpp:425] loss2/relu_fc <- loss2/fc
I0403 15:03:11.764122 11542 net.cpp:386] loss2/relu_fc -> loss2/fc (in-place)
I0403 15:03:11.764427 11542 net.cpp:141] Setting up loss2/relu_fc
I0403 15:03:11.764453 11542 net.cpp:148] Top shape: 24 1024 (24576)
I0403 15:03:11.764469 11542 net.cpp:156] Memory required for data: 1208319264
I0403 15:03:11.764483 11542 layer_factory.hpp:77] Creating layer loss2/drop_fc
I0403 15:03:11.764503 11542 net.cpp:91] Creating Layer loss2/drop_fc
I0403 15:03:11.764519 11542 net.cpp:425] loss2/drop_fc <- loss2/fc
I0403 15:03:11.764540 11542 net.cpp:386] loss2/drop_fc -> loss2/fc (in-place)
I0403 15:03:11.764593 11542 net.cpp:141] Setting up loss2/drop_fc
I0403 15:03:11.764617 11542 net.cpp:148] Top shape: 24 1024 (24576)
I0403 15:03:11.764632 11542 net.cpp:156] Memory required for data: 1208417568
I0403 15:03:11.764647 11542 layer_factory.hpp:77] Creating layer loss2/classifier_plantvillage
I0403 15:03:11.764667 11542 net.cpp:91] Creating Layer loss2/classifier_plantvillage
I0403 15:03:11.764683 11542 net.cpp:425] loss2/classifier_plantvillage <- loss2/fc
I0403 15:03:11.764703 11542 net.cpp:399] loss2/classifier_plantvillage -> loss2/classifier_plantvillage
I0403 15:03:11.765127 11542 net.cpp:141] Setting up loss2/classifier_plantvillage
I0403 15:03:11.765153 11542 net.cpp:148] Top shape: 24 38 (912)
I0403 15:03:11.765187 11542 net.cpp:156] Memory required for data: 1208421216
I0403 15:03:11.765208 11542 layer_factory.hpp:77] Creating layer loss2/classifier_plantvillage_loss2/classifier_plantvillage_0_split
I0403 15:03:11.765229 11542 net.cpp:91] Creating Layer loss2/classifier_plantvillage_loss2/classifier_plantvillage_0_split
I0403 15:03:11.765246 11542 net.cpp:425] loss2/classifier_plantvillage_loss2/classifier_plantvillage_0_split <- loss2/classifier_plantvillage
I0403 15:03:11.765265 11542 net.cpp:399] loss2/classifier_plantvillage_loss2/classifier_plantvillage_0_split -> loss2/classifier_plantvillage_loss2/classifier_plantvillage_0_split_0
I0403 15:03:11.765290 11542 net.cpp:399] loss2/classifier_plantvillage_loss2/classifier_plantvillage_0_split -> loss2/classifier_plantvillage_loss2/classifier_plantvillage_0_split_1
I0403 15:03:11.765311 11542 net.cpp:399] loss2/classifier_plantvillage_loss2/classifier_plantvillage_0_split -> loss2/classifier_plantvillage_loss2/classifier_plantvillage_0_split_2
I0403 15:03:11.765396 11542 net.cpp:141] Setting up loss2/classifier_plantvillage_loss2/classifier_plantvillage_0_split
I0403 15:03:11.765421 11542 net.cpp:148] Top shape: 24 38 (912)
I0403 15:03:11.765439 11542 net.cpp:148] Top shape: 24 38 (912)
I0403 15:03:11.765455 11542 net.cpp:148] Top shape: 24 38 (912)
I0403 15:03:11.765470 11542 net.cpp:156] Memory required for data: 1208432160
I0403 15:03:11.765485 11542 layer_factory.hpp:77] Creating layer inception_4e/1x1
I0403 15:03:11.765507 11542 net.cpp:91] Creating Layer inception_4e/1x1
I0403 15:03:11.765527 11542 net.cpp:425] inception_4e/1x1 <- inception_4d/output_inception_4d/output_0_split_1
I0403 15:03:11.765547 11542 net.cpp:399] inception_4e/1x1 -> inception_4e/1x1
I0403 15:03:11.767427 11542 net.cpp:141] Setting up inception_4e/1x1
I0403 15:03:11.767459 11542 net.cpp:148] Top shape: 24 256 14 14 (1204224)
I0403 15:03:11.767477 11542 net.cpp:156] Memory required for data: 1213249056
I0403 15:03:11.767496 11542 layer_factory.hpp:77] Creating layer inception_4e/relu_1x1
I0403 15:03:11.767515 11542 net.cpp:91] Creating Layer inception_4e/relu_1x1
I0403 15:03:11.767531 11542 net.cpp:425] inception_4e/relu_1x1 <- inception_4e/1x1
I0403 15:03:11.767549 11542 net.cpp:386] inception_4e/relu_1x1 -> inception_4e/1x1 (in-place)
I0403 15:03:11.768050 11542 net.cpp:141] Setting up inception_4e/relu_1x1
I0403 15:03:11.768080 11542 net.cpp:148] Top shape: 24 256 14 14 (1204224)
I0403 15:03:11.768097 11542 net.cpp:156] Memory required for data: 1218065952
I0403 15:03:11.768113 11542 layer_factory.hpp:77] Creating layer inception_4e/3x3_reduce
I0403 15:03:11.768136 11542 net.cpp:91] Creating Layer inception_4e/3x3_reduce
I0403 15:03:11.768162 11542 net.cpp:425] inception_4e/3x3_reduce <- inception_4d/output_inception_4d/output_0_split_2
I0403 15:03:11.768201 11542 net.cpp:399] inception_4e/3x3_reduce -> inception_4e/3x3_reduce
I0403 15:03:11.770424 11542 net.cpp:141] Setting up inception_4e/3x3_reduce
I0403 15:03:11.770457 11542 net.cpp:148] Top shape: 24 160 14 14 (752640)
I0403 15:03:11.770473 11542 net.cpp:156] Memory required for data: 1221076512
I0403 15:03:11.770493 11542 layer_factory.hpp:77] Creating layer inception_4e/relu_3x3_reduce
I0403 15:03:11.770515 11542 net.cpp:91] Creating Layer inception_4e/relu_3x3_reduce
I0403 15:03:11.770534 11542 net.cpp:425] inception_4e/relu_3x3_reduce <- inception_4e/3x3_reduce
I0403 15:03:11.770551 11542 net.cpp:386] inception_4e/relu_3x3_reduce -> inception_4e/3x3_reduce (in-place)
I0403 15:03:11.770745 11542 net.cpp:141] Setting up inception_4e/relu_3x3_reduce
I0403 15:03:11.770772 11542 net.cpp:148] Top shape: 24 160 14 14 (752640)
I0403 15:03:11.770788 11542 net.cpp:156] Memory required for data: 1224087072
I0403 15:03:11.770804 11542 layer_factory.hpp:77] Creating layer inception_4e/3x3
I0403 15:03:11.770826 11542 net.cpp:91] Creating Layer inception_4e/3x3
I0403 15:03:11.770845 11542 net.cpp:425] inception_4e/3x3 <- inception_4e/3x3_reduce
I0403 15:03:11.770864 11542 net.cpp:399] inception_4e/3x3 -> inception_4e/3x3
I0403 15:03:11.776155 11542 net.cpp:141] Setting up inception_4e/3x3
I0403 15:03:11.776204 11542 net.cpp:148] Top shape: 24 320 14 14 (1505280)
I0403 15:03:11.776222 11542 net.cpp:156] Memory required for data: 1230108192
I0403 15:03:11.776242 11542 layer_factory.hpp:77] Creating layer inception_4e/relu_3x3
I0403 15:03:11.776262 11542 net.cpp:91] Creating Layer inception_4e/relu_3x3
I0403 15:03:11.776279 11542 net.cpp:425] inception_4e/relu_3x3 <- inception_4e/3x3
I0403 15:03:11.776300 11542 net.cpp:386] inception_4e/relu_3x3 -> inception_4e/3x3 (in-place)
I0403 15:03:11.776631 11542 net.cpp:141] Setting up inception_4e/relu_3x3
I0403 15:03:11.776659 11542 net.cpp:148] Top shape: 24 320 14 14 (1505280)
I0403 15:03:11.776675 11542 net.cpp:156] Memory required for data: 1236129312
I0403 15:03:11.776691 11542 layer_factory.hpp:77] Creating layer inception_4e/5x5_reduce
I0403 15:03:11.776717 11542 net.cpp:91] Creating Layer inception_4e/5x5_reduce
I0403 15:03:11.776736 11542 net.cpp:425] inception_4e/5x5_reduce <- inception_4d/output_inception_4d/output_0_split_3
I0403 15:03:11.776759 11542 net.cpp:399] inception_4e/5x5_reduce -> inception_4e/5x5_reduce
I0403 15:03:11.777904 11542 net.cpp:141] Setting up inception_4e/5x5_reduce
I0403 15:03:11.777935 11542 net.cpp:148] Top shape: 24 32 14 14 (150528)
I0403 15:03:11.777956 11542 net.cpp:156] Memory required for data: 1236731424
I0403 15:03:11.777976 11542 layer_factory.hpp:77] Creating layer inception_4e/relu_5x5_reduce
I0403 15:03:11.777994 11542 net.cpp:91] Creating Layer inception_4e/relu_5x5_reduce
I0403 15:03:11.778012 11542 net.cpp:425] inception_4e/relu_5x5_reduce <- inception_4e/5x5_reduce
I0403 15:03:11.778030 11542 net.cpp:386] inception_4e/relu_5x5_reduce -> inception_4e/5x5_reduce (in-place)
I0403 15:03:11.778352 11542 net.cpp:141] Setting up inception_4e/relu_5x5_reduce
I0403 15:03:11.778384 11542 net.cpp:148] Top shape: 24 32 14 14 (150528)
I0403 15:03:11.778404 11542 net.cpp:156] Memory required for data: 1237333536
I0403 15:03:11.778421 11542 layer_factory.hpp:77] Creating layer inception_4e/5x5
I0403 15:03:11.778460 11542 net.cpp:91] Creating Layer inception_4e/5x5
I0403 15:03:11.778481 11542 net.cpp:425] inception_4e/5x5 <- inception_4e/5x5_reduce
I0403 15:03:11.778504 11542 net.cpp:399] inception_4e/5x5 -> inception_4e/5x5
I0403 15:03:11.780496 11542 net.cpp:141] Setting up inception_4e/5x5
I0403 15:03:11.780526 11542 net.cpp:148] Top shape: 24 128 14 14 (602112)
I0403 15:03:11.780544 11542 net.cpp:156] Memory required for data: 1239741984
I0403 15:03:11.780563 11542 layer_factory.hpp:77] Creating layer inception_4e/relu_5x5
I0403 15:03:11.780586 11542 net.cpp:91] Creating Layer inception_4e/relu_5x5
I0403 15:03:11.780603 11542 net.cpp:425] inception_4e/relu_5x5 <- inception_4e/5x5
I0403 15:03:11.780622 11542 net.cpp:386] inception_4e/relu_5x5 -> inception_4e/5x5 (in-place)
I0403 15:03:11.780833 11542 net.cpp:141] Setting up inception_4e/relu_5x5
I0403 15:03:11.780859 11542 net.cpp:148] Top shape: 24 128 14 14 (602112)
I0403 15:03:11.780874 11542 net.cpp:156] Memory required for data: 1242150432
I0403 15:03:11.780890 11542 layer_factory.hpp:77] Creating layer inception_4e/pool
I0403 15:03:11.780913 11542 net.cpp:91] Creating Layer inception_4e/pool
I0403 15:03:11.780931 11542 net.cpp:425] inception_4e/pool <- inception_4d/output_inception_4d/output_0_split_4
I0403 15:03:11.780951 11542 net.cpp:399] inception_4e/pool -> inception_4e/pool
I0403 15:03:11.781028 11542 net.cpp:141] Setting up inception_4e/pool
I0403 15:03:11.781051 11542 net.cpp:148] Top shape: 24 528 14 14 (2483712)
I0403 15:03:11.781067 11542 net.cpp:156] Memory required for data: 1252085280
I0403 15:03:11.781083 11542 layer_factory.hpp:77] Creating layer inception_4e/pool_proj
I0403 15:03:11.781106 11542 net.cpp:91] Creating Layer inception_4e/pool_proj
I0403 15:03:11.781124 11542 net.cpp:425] inception_4e/pool_proj <- inception_4e/pool
I0403 15:03:11.781147 11542 net.cpp:399] inception_4e/pool_proj -> inception_4e/pool_proj
I0403 15:03:11.782764 11542 net.cpp:141] Setting up inception_4e/pool_proj
I0403 15:03:11.782806 11542 net.cpp:148] Top shape: 24 128 14 14 (602112)
I0403 15:03:11.782824 11542 net.cpp:156] Memory required for data: 1254493728
I0403 15:03:11.782843 11542 layer_factory.hpp:77] Creating layer inception_4e/relu_pool_proj
I0403 15:03:11.782866 11542 net.cpp:91] Creating Layer inception_4e/relu_pool_proj
I0403 15:03:11.782884 11542 net.cpp:425] inception_4e/relu_pool_proj <- inception_4e/pool_proj
I0403 15:03:11.782902 11542 net.cpp:386] inception_4e/relu_pool_proj -> inception_4e/pool_proj (in-place)
I0403 15:03:11.783213 11542 net.cpp:141] Setting up inception_4e/relu_pool_proj
I0403 15:03:11.783241 11542 net.cpp:148] Top shape: 24 128 14 14 (602112)
I0403 15:03:11.783257 11542 net.cpp:156] Memory required for data: 1256902176
I0403 15:03:11.783273 11542 layer_factory.hpp:77] Creating layer inception_4e/output
I0403 15:03:11.783291 11542 net.cpp:91] Creating Layer inception_4e/output
I0403 15:03:11.783308 11542 net.cpp:425] inception_4e/output <- inception_4e/1x1
I0403 15:03:11.783327 11542 net.cpp:425] inception_4e/output <- inception_4e/3x3
I0403 15:03:11.783344 11542 net.cpp:425] inception_4e/output <- inception_4e/5x5
I0403 15:03:11.783362 11542 net.cpp:425] inception_4e/output <- inception_4e/pool_proj
I0403 15:03:11.783386 11542 net.cpp:399] inception_4e/output -> inception_4e/output
I0403 15:03:11.783442 11542 net.cpp:141] Setting up inception_4e/output
I0403 15:03:11.783470 11542 net.cpp:148] Top shape: 24 832 14 14 (3913728)
I0403 15:03:11.783488 11542 net.cpp:156] Memory required for data: 1272557088
I0403 15:03:11.783502 11542 layer_factory.hpp:77] Creating layer pool4/3x3_s2
I0403 15:03:11.783521 11542 net.cpp:91] Creating Layer pool4/3x3_s2
I0403 15:03:11.783538 11542 net.cpp:425] pool4/3x3_s2 <- inception_4e/output
I0403 15:03:11.783561 11542 net.cpp:399] pool4/3x3_s2 -> pool4/3x3_s2
I0403 15:03:11.783633 11542 net.cpp:141] Setting up pool4/3x3_s2
I0403 15:03:11.783658 11542 net.cpp:148] Top shape: 24 832 7 7 (978432)
I0403 15:03:11.783674 11542 net.cpp:156] Memory required for data: 1276470816
I0403 15:03:11.783689 11542 layer_factory.hpp:77] Creating layer pool4/3x3_s2_pool4/3x3_s2_0_split
I0403 15:03:11.783710 11542 net.cpp:91] Creating Layer pool4/3x3_s2_pool4/3x3_s2_0_split
I0403 15:03:11.783727 11542 net.cpp:425] pool4/3x3_s2_pool4/3x3_s2_0_split <- pool4/3x3_s2
I0403 15:03:11.783746 11542 net.cpp:399] pool4/3x3_s2_pool4/3x3_s2_0_split -> pool4/3x3_s2_pool4/3x3_s2_0_split_0
I0403 15:03:11.783766 11542 net.cpp:399] pool4/3x3_s2_pool4/3x3_s2_0_split -> pool4/3x3_s2_pool4/3x3_s2_0_split_1
I0403 15:03:11.783787 11542 net.cpp:399] pool4/3x3_s2_pool4/3x3_s2_0_split -> pool4/3x3_s2_pool4/3x3_s2_0_split_2
I0403 15:03:11.783812 11542 net.cpp:399] pool4/3x3_s2_pool4/3x3_s2_0_split -> pool4/3x3_s2_pool4/3x3_s2_0_split_3
I0403 15:03:11.783910 11542 net.cpp:141] Setting up pool4/3x3_s2_pool4/3x3_s2_0_split
I0403 15:03:11.783936 11542 net.cpp:148] Top shape: 24 832 7 7 (978432)
I0403 15:03:11.783954 11542 net.cpp:148] Top shape: 24 832 7 7 (978432)
I0403 15:03:11.783970 11542 net.cpp:148] Top shape: 24 832 7 7 (978432)
I0403 15:03:11.783987 11542 net.cpp:148] Top shape: 24 832 7 7 (978432)
I0403 15:03:11.784000 11542 net.cpp:156] Memory required for data: 1292125728
I0403 15:03:11.784016 11542 layer_factory.hpp:77] Creating layer inception_5a/1x1
I0403 15:03:11.784040 11542 net.cpp:91] Creating Layer inception_5a/1x1
I0403 15:03:11.784059 11542 net.cpp:425] inception_5a/1x1 <- pool4/3x3_s2_pool4/3x3_s2_0_split_0
I0403 15:03:11.784081 11542 net.cpp:399] inception_5a/1x1 -> inception_5a/1x1
I0403 15:03:11.787122 11542 net.cpp:141] Setting up inception_5a/1x1
I0403 15:03:11.787152 11542 net.cpp:148] Top shape: 24 256 7 7 (301056)
I0403 15:03:11.787169 11542 net.cpp:156] Memory required for data: 1293329952
I0403 15:03:11.787189 11542 layer_factory.hpp:77] Creating layer inception_5a/relu_1x1
I0403 15:03:11.787210 11542 net.cpp:91] Creating Layer inception_5a/relu_1x1
I0403 15:03:11.787230 11542 net.cpp:425] inception_5a/relu_1x1 <- inception_5a/1x1
I0403 15:03:11.787248 11542 net.cpp:386] inception_5a/relu_1x1 -> inception_5a/1x1 (in-place)
I0403 15:03:11.787585 11542 net.cpp:141] Setting up inception_5a/relu_1x1
I0403 15:03:11.787613 11542 net.cpp:148] Top shape: 24 256 7 7 (301056)
I0403 15:03:11.787629 11542 net.cpp:156] Memory required for data: 1294534176
I0403 15:03:11.787644 11542 layer_factory.hpp:77] Creating layer inception_5a/3x3_reduce
I0403 15:03:11.787668 11542 net.cpp:91] Creating Layer inception_5a/3x3_reduce
I0403 15:03:11.787688 11542 net.cpp:425] inception_5a/3x3_reduce <- pool4/3x3_s2_pool4/3x3_s2_0_split_1
I0403 15:03:11.787711 11542 net.cpp:399] inception_5a/3x3_reduce -> inception_5a/3x3_reduce
I0403 15:03:11.790318 11542 net.cpp:141] Setting up inception_5a/3x3_reduce
I0403 15:03:11.790348 11542 net.cpp:148] Top shape: 24 160 7 7 (188160)
I0403 15:03:11.790364 11542 net.cpp:156] Memory required for data: 1295286816
I0403 15:03:11.790388 11542 layer_factory.hpp:77] Creating layer inception_5a/relu_3x3_reduce
I0403 15:03:11.790408 11542 net.cpp:91] Creating Layer inception_5a/relu_3x3_reduce
I0403 15:03:11.790426 11542 net.cpp:425] inception_5a/relu_3x3_reduce <- inception_5a/3x3_reduce
I0403 15:03:11.790448 11542 net.cpp:386] inception_5a/relu_3x3_reduce -> inception_5a/3x3_reduce (in-place)
I0403 15:03:11.790650 11542 net.cpp:141] Setting up inception_5a/relu_3x3_reduce
I0403 15:03:11.790676 11542 net.cpp:148] Top shape: 24 160 7 7 (188160)
I0403 15:03:11.790693 11542 net.cpp:156] Memory required for data: 1296039456
I0403 15:03:11.790707 11542 layer_factory.hpp:77] Creating layer inception_5a/3x3
I0403 15:03:11.790734 11542 net.cpp:91] Creating Layer inception_5a/3x3
I0403 15:03:11.790751 11542 net.cpp:425] inception_5a/3x3 <- inception_5a/3x3_reduce
I0403 15:03:11.790776 11542 net.cpp:399] inception_5a/3x3 -> inception_5a/3x3
I0403 15:03:11.796056 11542 net.cpp:141] Setting up inception_5a/3x3
I0403 15:03:11.796087 11542 net.cpp:148] Top shape: 24 320 7 7 (376320)
I0403 15:03:11.796103 11542 net.cpp:156] Memory required for data: 1297544736
I0403 15:03:11.796123 11542 layer_factory.hpp:77] Creating layer inception_5a/relu_3x3
I0403 15:03:11.796144 11542 net.cpp:91] Creating Layer inception_5a/relu_3x3
I0403 15:03:11.796162 11542 net.cpp:425] inception_5a/relu_3x3 <- inception_5a/3x3
I0403 15:03:11.796180 11542 net.cpp:386] inception_5a/relu_3x3 -> inception_5a/3x3 (in-place)
I0403 15:03:11.796491 11542 net.cpp:141] Setting up inception_5a/relu_3x3
I0403 15:03:11.796519 11542 net.cpp:148] Top shape: 24 320 7 7 (376320)
I0403 15:03:11.796535 11542 net.cpp:156] Memory required for data: 1299050016
I0403 15:03:11.796550 11542 layer_factory.hpp:77] Creating layer inception_5a/5x5_reduce
I0403 15:03:11.796572 11542 net.cpp:91] Creating Layer inception_5a/5x5_reduce
I0403 15:03:11.796591 11542 net.cpp:425] inception_5a/5x5_reduce <- pool4/3x3_s2_pool4/3x3_s2_0_split_2
I0403 15:03:11.796615 11542 net.cpp:399] inception_5a/5x5_reduce -> inception_5a/5x5_reduce
I0403 15:03:11.797832 11542 net.cpp:141] Setting up inception_5a/5x5_reduce
I0403 15:03:11.797863 11542 net.cpp:148] Top shape: 24 32 7 7 (37632)
I0403 15:03:11.797878 11542 net.cpp:156] Memory required for data: 1299200544
I0403 15:03:11.797897 11542 layer_factory.hpp:77] Creating layer inception_5a/relu_5x5_reduce
I0403 15:03:11.797919 11542 net.cpp:91] Creating Layer inception_5a/relu_5x5_reduce
I0403 15:03:11.797936 11542 net.cpp:425] inception_5a/relu_5x5_reduce <- inception_5a/5x5_reduce
I0403 15:03:11.797955 11542 net.cpp:386] inception_5a/relu_5x5_reduce -> inception_5a/5x5_reduce (in-place)
I0403 15:03:11.798265 11542 net.cpp:141] Setting up inception_5a/relu_5x5_reduce
I0403 15:03:11.798293 11542 net.cpp:148] Top shape: 24 32 7 7 (37632)
I0403 15:03:11.798308 11542 net.cpp:156] Memory required for data: 1299351072
I0403 15:03:11.798324 11542 layer_factory.hpp:77] Creating layer inception_5a/5x5
I0403 15:03:11.798348 11542 net.cpp:91] Creating Layer inception_5a/5x5
I0403 15:03:11.798367 11542 net.cpp:425] inception_5a/5x5 <- inception_5a/5x5_reduce
I0403 15:03:11.798391 11542 net.cpp:399] inception_5a/5x5 -> inception_5a/5x5
I0403 15:03:11.800169 11542 net.cpp:141] Setting up inception_5a/5x5
I0403 15:03:11.800211 11542 net.cpp:148] Top shape: 24 128 7 7 (150528)
I0403 15:03:11.800227 11542 net.cpp:156] Memory required for data: 1299953184
I0403 15:03:11.800246 11542 layer_factory.hpp:77] Creating layer inception_5a/relu_5x5
I0403 15:03:11.800268 11542 net.cpp:91] Creating Layer inception_5a/relu_5x5
I0403 15:03:11.800285 11542 net.cpp:425] inception_5a/relu_5x5 <- inception_5a/5x5
I0403 15:03:11.800304 11542 net.cpp:386] inception_5a/relu_5x5 -> inception_5a/5x5 (in-place)
I0403 15:03:11.800508 11542 net.cpp:141] Setting up inception_5a/relu_5x5
I0403 15:03:11.800534 11542 net.cpp:148] Top shape: 24 128 7 7 (150528)
I0403 15:03:11.800550 11542 net.cpp:156] Memory required for data: 1300555296
I0403 15:03:11.800572 11542 layer_factory.hpp:77] Creating layer inception_5a/pool
I0403 15:03:11.800595 11542 net.cpp:91] Creating Layer inception_5a/pool
I0403 15:03:11.800613 11542 net.cpp:425] inception_5a/pool <- pool4/3x3_s2_pool4/3x3_s2_0_split_3
I0403 15:03:11.800642 11542 net.cpp:399] inception_5a/pool -> inception_5a/pool
I0403 15:03:11.800720 11542 net.cpp:141] Setting up inception_5a/pool
I0403 15:03:11.800745 11542 net.cpp:148] Top shape: 24 832 7 7 (978432)
I0403 15:03:11.800760 11542 net.cpp:156] Memory required for data: 1304469024
I0403 15:03:11.800776 11542 layer_factory.hpp:77] Creating layer inception_5a/pool_proj
I0403 15:03:11.800799 11542 net.cpp:91] Creating Layer inception_5a/pool_proj
I0403 15:03:11.800817 11542 net.cpp:425] inception_5a/pool_proj <- inception_5a/pool
I0403 15:03:11.800838 11542 net.cpp:399] inception_5a/pool_proj -> inception_5a/pool_proj
I0403 15:03:11.803210 11542 net.cpp:141] Setting up inception_5a/pool_proj
I0403 15:03:11.803241 11542 net.cpp:148] Top shape: 24 128 7 7 (150528)
I0403 15:03:11.803257 11542 net.cpp:156] Memory required for data: 1305071136
I0403 15:03:11.803275 11542 layer_factory.hpp:77] Creating layer inception_5a/relu_pool_proj
I0403 15:03:11.803294 11542 net.cpp:91] Creating Layer inception_5a/relu_pool_proj
I0403 15:03:11.803311 11542 net.cpp:425] inception_5a/relu_pool_proj <- inception_5a/pool_proj
I0403 15:03:11.803333 11542 net.cpp:386] inception_5a/relu_pool_proj -> inception_5a/pool_proj (in-place)
I0403 15:03:11.803644 11542 net.cpp:141] Setting up inception_5a/relu_pool_proj
I0403 15:03:11.803671 11542 net.cpp:148] Top shape: 24 128 7 7 (150528)
I0403 15:03:11.803688 11542 net.cpp:156] Memory required for data: 1305673248
I0403 15:03:11.803702 11542 layer_factory.hpp:77] Creating layer inception_5a/output
I0403 15:03:11.803720 11542 net.cpp:91] Creating Layer inception_5a/output
I0403 15:03:11.803736 11542 net.cpp:425] inception_5a/output <- inception_5a/1x1
I0403 15:03:11.803753 11542 net.cpp:425] inception_5a/output <- inception_5a/3x3
I0403 15:03:11.803771 11542 net.cpp:425] inception_5a/output <- inception_5a/5x5
I0403 15:03:11.803786 11542 net.cpp:425] inception_5a/output <- inception_5a/pool_proj
I0403 15:03:11.803807 11542 net.cpp:399] inception_5a/output -> inception_5a/output
I0403 15:03:11.803858 11542 net.cpp:141] Setting up inception_5a/output
I0403 15:03:11.803885 11542 net.cpp:148] Top shape: 24 832 7 7 (978432)
I0403 15:03:11.803901 11542 net.cpp:156] Memory required for data: 1309586976
I0403 15:03:11.803916 11542 layer_factory.hpp:77] Creating layer inception_5a/output_inception_5a/output_0_split
I0403 15:03:11.803935 11542 net.cpp:91] Creating Layer inception_5a/output_inception_5a/output_0_split
I0403 15:03:11.803951 11542 net.cpp:425] inception_5a/output_inception_5a/output_0_split <- inception_5a/output
I0403 15:03:11.803968 11542 net.cpp:399] inception_5a/output_inception_5a/output_0_split -> inception_5a/output_inception_5a/output_0_split_0
I0403 15:03:11.803992 11542 net.cpp:399] inception_5a/output_inception_5a/output_0_split -> inception_5a/output_inception_5a/output_0_split_1
I0403 15:03:11.804013 11542 net.cpp:399] inception_5a/output_inception_5a/output_0_split -> inception_5a/output_inception_5a/output_0_split_2
I0403 15:03:11.804034 11542 net.cpp:399] inception_5a/output_inception_5a/output_0_split -> inception_5a/output_inception_5a/output_0_split_3
I0403 15:03:11.804152 11542 net.cpp:141] Setting up inception_5a/output_inception_5a/output_0_split
I0403 15:03:11.804177 11542 net.cpp:148] Top shape: 24 832 7 7 (978432)
I0403 15:03:11.804193 11542 net.cpp:148] Top shape: 24 832 7 7 (978432)
I0403 15:03:11.804209 11542 net.cpp:148] Top shape: 24 832 7 7 (978432)
I0403 15:03:11.804225 11542 net.cpp:148] Top shape: 24 832 7 7 (978432)
I0403 15:03:11.804239 11542 net.cpp:156] Memory required for data: 1325241888
I0403 15:03:11.804255 11542 layer_factory.hpp:77] Creating layer inception_5b/1x1
I0403 15:03:11.804278 11542 net.cpp:91] Creating Layer inception_5b/1x1
I0403 15:03:11.804296 11542 net.cpp:425] inception_5b/1x1 <- inception_5a/output_inception_5a/output_0_split_0
I0403 15:03:11.804316 11542 net.cpp:399] inception_5b/1x1 -> inception_5b/1x1
I0403 15:03:11.808199 11542 net.cpp:141] Setting up inception_5b/1x1
I0403 15:03:11.808228 11542 net.cpp:148] Top shape: 24 384 7 7 (451584)
I0403 15:03:11.808244 11542 net.cpp:156] Memory required for data: 1327048224
I0403 15:03:11.808262 11542 layer_factory.hpp:77] Creating layer inception_5b/relu_1x1
I0403 15:03:11.808280 11542 net.cpp:91] Creating Layer inception_5b/relu_1x1
I0403 15:03:11.808296 11542 net.cpp:425] inception_5b/relu_1x1 <- inception_5b/1x1
I0403 15:03:11.808315 11542 net.cpp:386] inception_5b/relu_1x1 -> inception_5b/1x1 (in-place)
I0403 15:03:11.808629 11542 net.cpp:141] Setting up inception_5b/relu_1x1
I0403 15:03:11.808655 11542 net.cpp:148] Top shape: 24 384 7 7 (451584)
I0403 15:03:11.808670 11542 net.cpp:156] Memory required for data: 1328854560
I0403 15:03:11.808686 11542 layer_factory.hpp:77] Creating layer inception_5b/3x3_reduce
I0403 15:03:11.808708 11542 net.cpp:91] Creating Layer inception_5b/3x3_reduce
I0403 15:03:11.808725 11542 net.cpp:425] inception_5b/3x3_reduce <- inception_5a/output_inception_5a/output_0_split_1
I0403 15:03:11.808748 11542 net.cpp:399] inception_5b/3x3_reduce -> inception_5b/3x3_reduce
I0403 15:03:11.811430 11542 net.cpp:141] Setting up inception_5b/3x3_reduce
I0403 15:03:11.811460 11542 net.cpp:148] Top shape: 24 192 7 7 (225792)
I0403 15:03:11.811475 11542 net.cpp:156] Memory required for data: 1329757728
I0403 15:03:11.811494 11542 layer_factory.hpp:77] Creating layer inception_5b/relu_3x3_reduce
I0403 15:03:11.811512 11542 net.cpp:91] Creating Layer inception_5b/relu_3x3_reduce
I0403 15:03:11.811528 11542 net.cpp:425] inception_5b/relu_3x3_reduce <- inception_5b/3x3_reduce
I0403 15:03:11.811548 11542 net.cpp:386] inception_5b/relu_3x3_reduce -> inception_5b/3x3_reduce (in-place)
I0403 15:03:11.811741 11542 net.cpp:141] Setting up inception_5b/relu_3x3_reduce
I0403 15:03:11.811766 11542 net.cpp:148] Top shape: 24 192 7 7 (225792)
I0403 15:03:11.811781 11542 net.cpp:156] Memory required for data: 1330660896
I0403 15:03:11.811796 11542 layer_factory.hpp:77] Creating layer inception_5b/3x3
I0403 15:03:11.811818 11542 net.cpp:91] Creating Layer inception_5b/3x3
I0403 15:03:11.811836 11542 net.cpp:425] inception_5b/3x3 <- inception_5b/3x3_reduce
I0403 15:03:11.811857 11542 net.cpp:399] inception_5b/3x3 -> inception_5b/3x3
I0403 15:03:11.818568 11542 net.cpp:141] Setting up inception_5b/3x3
I0403 15:03:11.818598 11542 net.cpp:148] Top shape: 24 384 7 7 (451584)
I0403 15:03:11.818614 11542 net.cpp:156] Memory required for data: 1332467232
I0403 15:03:11.818631 11542 layer_factory.hpp:77] Creating layer inception_5b/relu_3x3
I0403 15:03:11.818650 11542 net.cpp:91] Creating Layer inception_5b/relu_3x3
I0403 15:03:11.818665 11542 net.cpp:425] inception_5b/relu_3x3 <- inception_5b/3x3
I0403 15:03:11.818686 11542 net.cpp:386] inception_5b/relu_3x3 -> inception_5b/3x3 (in-place)
I0403 15:03:11.818984 11542 net.cpp:141] Setting up inception_5b/relu_3x3
I0403 15:03:11.819010 11542 net.cpp:148] Top shape: 24 384 7 7 (451584)
I0403 15:03:11.819025 11542 net.cpp:156] Memory required for data: 1334273568
I0403 15:03:11.819039 11542 layer_factory.hpp:77] Creating layer inception_5b/5x5_reduce
I0403 15:03:11.819077 11542 net.cpp:91] Creating Layer inception_5b/5x5_reduce
I0403 15:03:11.819097 11542 net.cpp:425] inception_5b/5x5_reduce <- inception_5a/output_inception_5a/output_0_split_2
I0403 15:03:11.819119 11542 net.cpp:399] inception_5b/5x5_reduce -> inception_5b/5x5_reduce
I0403 15:03:11.820394 11542 net.cpp:141] Setting up inception_5b/5x5_reduce
I0403 15:03:11.820422 11542 net.cpp:148] Top shape: 24 48 7 7 (56448)
I0403 15:03:11.820438 11542 net.cpp:156] Memory required for data: 1334499360
I0403 15:03:11.820456 11542 layer_factory.hpp:77] Creating layer inception_5b/relu_5x5_reduce
I0403 15:03:11.820477 11542 net.cpp:91] Creating Layer inception_5b/relu_5x5_reduce
I0403 15:03:11.820495 11542 net.cpp:425] inception_5b/relu_5x5_reduce <- inception_5b/5x5_reduce
I0403 15:03:11.820513 11542 net.cpp:386] inception_5b/relu_5x5_reduce -> inception_5b/5x5_reduce (in-place)
I0403 15:03:11.820885 11542 net.cpp:141] Setting up inception_5b/relu_5x5_reduce
I0403 15:03:11.820911 11542 net.cpp:148] Top shape: 24 48 7 7 (56448)
I0403 15:03:11.820926 11542 net.cpp:156] Memory required for data: 1334725152
I0403 15:03:11.820942 11542 layer_factory.hpp:77] Creating layer inception_5b/5x5
I0403 15:03:11.820962 11542 net.cpp:91] Creating Layer inception_5b/5x5
I0403 15:03:11.820979 11542 net.cpp:425] inception_5b/5x5 <- inception_5b/5x5_reduce
I0403 15:03:11.820998 11542 net.cpp:399] inception_5b/5x5 -> inception_5b/5x5
I0403 15:03:11.823070 11542 net.cpp:141] Setting up inception_5b/5x5
I0403 15:03:11.823097 11542 net.cpp:148] Top shape: 24 128 7 7 (150528)
I0403 15:03:11.823113 11542 net.cpp:156] Memory required for data: 1335327264
I0403 15:03:11.823132 11542 layer_factory.hpp:77] Creating layer inception_5b/relu_5x5
I0403 15:03:11.823153 11542 net.cpp:91] Creating Layer inception_5b/relu_5x5
I0403 15:03:11.823170 11542 net.cpp:425] inception_5b/relu_5x5 <- inception_5b/5x5
I0403 15:03:11.823189 11542 net.cpp:386] inception_5b/relu_5x5 -> inception_5b/5x5 (in-place)
I0403 15:03:11.823390 11542 net.cpp:141] Setting up inception_5b/relu_5x5
I0403 15:03:11.823429 11542 net.cpp:148] Top shape: 24 128 7 7 (150528)
I0403 15:03:11.823456 11542 net.cpp:156] Memory required for data: 1335929376
I0403 15:03:11.823470 11542 layer_factory.hpp:77] Creating layer inception_5b/pool
I0403 15:03:11.823489 11542 net.cpp:91] Creating Layer inception_5b/pool
I0403 15:03:11.823505 11542 net.cpp:425] inception_5b/pool <- inception_5a/output_inception_5a/output_0_split_3
I0403 15:03:11.823524 11542 net.cpp:399] inception_5b/pool -> inception_5b/pool
I0403 15:03:11.823602 11542 net.cpp:141] Setting up inception_5b/pool
I0403 15:03:11.823626 11542 net.cpp:148] Top shape: 24 832 7 7 (978432)
I0403 15:03:11.823642 11542 net.cpp:156] Memory required for data: 1339843104
I0403 15:03:11.823657 11542 layer_factory.hpp:77] Creating layer inception_5b/pool_proj
I0403 15:03:11.823681 11542 net.cpp:91] Creating Layer inception_5b/pool_proj
I0403 15:03:11.823700 11542 net.cpp:425] inception_5b/pool_proj <- inception_5b/pool
I0403 15:03:11.823729 11542 net.cpp:399] inception_5b/pool_proj -> inception_5b/pool_proj
I0403 15:03:11.826158 11542 net.cpp:141] Setting up inception_5b/pool_proj
I0403 15:03:11.826190 11542 net.cpp:148] Top shape: 24 128 7 7 (150528)
I0403 15:03:11.826206 11542 net.cpp:156] Memory required for data: 1340445216
I0403 15:03:11.826225 11542 layer_factory.hpp:77] Creating layer inception_5b/relu_pool_proj
I0403 15:03:11.826247 11542 net.cpp:91] Creating Layer inception_5b/relu_pool_proj
I0403 15:03:11.826264 11542 net.cpp:425] inception_5b/relu_pool_proj <- inception_5b/pool_proj
I0403 15:03:11.826283 11542 net.cpp:386] inception_5b/relu_pool_proj -> inception_5b/pool_proj (in-place)
I0403 15:03:11.826616 11542 net.cpp:141] Setting up inception_5b/relu_pool_proj
I0403 15:03:11.826647 11542 net.cpp:148] Top shape: 24 128 7 7 (150528)
I0403 15:03:11.826664 11542 net.cpp:156] Memory required for data: 1341047328
I0403 15:03:11.826680 11542 layer_factory.hpp:77] Creating layer inception_5b/output
I0403 15:03:11.826699 11542 net.cpp:91] Creating Layer inception_5b/output
I0403 15:03:11.826731 11542 net.cpp:425] inception_5b/output <- inception_5b/1x1
I0403 15:03:11.826755 11542 net.cpp:425] inception_5b/output <- inception_5b/3x3
I0403 15:03:11.826772 11542 net.cpp:425] inception_5b/output <- inception_5b/5x5
I0403 15:03:11.826789 11542 net.cpp:425] inception_5b/output <- inception_5b/pool_proj
I0403 15:03:11.826807 11542 net.cpp:399] inception_5b/output -> inception_5b/output
I0403 15:03:11.826864 11542 net.cpp:141] Setting up inception_5b/output
I0403 15:03:11.826891 11542 net.cpp:148] Top shape: 24 1024 7 7 (1204224)
I0403 15:03:11.826908 11542 net.cpp:156] Memory required for data: 1345864224
I0403 15:03:11.826925 11542 layer_factory.hpp:77] Creating layer pool5/7x7_s1
I0403 15:03:11.826946 11542 net.cpp:91] Creating Layer pool5/7x7_s1
I0403 15:03:11.826963 11542 net.cpp:425] pool5/7x7_s1 <- inception_5b/output
I0403 15:03:11.826984 11542 net.cpp:399] pool5/7x7_s1 -> pool5/7x7_s1
I0403 15:03:11.827219 11542 net.cpp:141] Setting up pool5/7x7_s1
I0403 15:03:11.827245 11542 net.cpp:148] Top shape: 24 1024 1 1 (24576)
I0403 15:03:11.827261 11542 net.cpp:156] Memory required for data: 1345962528
I0403 15:03:11.827277 11542 layer_factory.hpp:77] Creating layer pool5/drop_7x7_s1
I0403 15:03:11.827299 11542 net.cpp:91] Creating Layer pool5/drop_7x7_s1
I0403 15:03:11.827317 11542 net.cpp:425] pool5/drop_7x7_s1 <- pool5/7x7_s1
I0403 15:03:11.827337 11542 net.cpp:386] pool5/drop_7x7_s1 -> pool5/7x7_s1 (in-place)
I0403 15:03:11.827399 11542 net.cpp:141] Setting up pool5/drop_7x7_s1
I0403 15:03:11.827425 11542 net.cpp:148] Top shape: 24 1024 1 1 (24576)
I0403 15:03:11.827440 11542 net.cpp:156] Memory required for data: 1346060832
I0403 15:03:11.827456 11542 layer_factory.hpp:77] Creating layer loss3/classifier_plantvillage
I0403 15:03:11.827476 11542 net.cpp:91] Creating Layer loss3/classifier_plantvillage
I0403 15:03:11.827493 11542 net.cpp:425] loss3/classifier_plantvillage <- pool5/7x7_s1
I0403 15:03:11.827517 11542 net.cpp:399] loss3/classifier_plantvillage -> loss3/classifier_plantvillage
I0403 15:03:11.827973 11542 net.cpp:141] Setting up loss3/classifier_plantvillage
I0403 15:03:11.827999 11542 net.cpp:148] Top shape: 24 38 (912)
I0403 15:03:11.828016 11542 net.cpp:156] Memory required for data: 1346064480
I0403 15:03:11.828034 11542 layer_factory.hpp:77] Creating layer loss3/classifier_plantvillage_loss3/classifier_plantvillage_0_split
I0403 15:03:11.828054 11542 net.cpp:91] Creating Layer loss3/classifier_plantvillage_loss3/classifier_plantvillage_0_split
I0403 15:03:11.828073 11542 net.cpp:425] loss3/classifier_plantvillage_loss3/classifier_plantvillage_0_split <- loss3/classifier_plantvillage
I0403 15:03:11.828094 11542 net.cpp:399] loss3/classifier_plantvillage_loss3/classifier_plantvillage_0_split -> loss3/classifier_plantvillage_loss3/classifier_plantvillage_0_split_0
I0403 15:03:11.828116 11542 net.cpp:399] loss3/classifier_plantvillage_loss3/classifier_plantvillage_0_split -> loss3/classifier_plantvillage_loss3/classifier_plantvillage_0_split_1
I0403 15:03:11.828138 11542 net.cpp:399] loss3/classifier_plantvillage_loss3/classifier_plantvillage_0_split -> loss3/classifier_plantvillage_loss3/classifier_plantvillage_0_split_2
I0403 15:03:11.828161 11542 net.cpp:399] loss3/classifier_plantvillage_loss3/classifier_plantvillage_0_split -> loss3/classifier_plantvillage_loss3/classifier_plantvillage_0_split_3
I0403 15:03:11.828270 11542 net.cpp:141] Setting up loss3/classifier_plantvillage_loss3/classifier_plantvillage_0_split
I0403 15:03:11.828296 11542 net.cpp:148] Top shape: 24 38 (912)
I0403 15:03:11.828312 11542 net.cpp:148] Top shape: 24 38 (912)
I0403 15:03:11.828330 11542 net.cpp:148] Top shape: 24 38 (912)
I0403 15:03:11.828346 11542 net.cpp:148] Top shape: 24 38 (912)
I0403 15:03:11.828361 11542 net.cpp:156] Memory required for data: 1346079072
I0403 15:03:11.828377 11542 layer_factory.hpp:77] Creating layer loss1/loss
I0403 15:03:11.828407 11542 net.cpp:91] Creating Layer loss1/loss
I0403 15:03:11.828426 11542 net.cpp:425] loss1/loss <- loss1/classifier_plantvillage_loss1/classifier_plantvillage_0_split_0
I0403 15:03:11.828459 11542 net.cpp:425] loss1/loss <- label_data_1_split_0
…
