…
I0403 15:22:12.249732 11885 net.cpp:313] The NetState phase (1) differed from the phase (0) specified by a rule in layer data
I0403 15:22:12.250922 11885 net.cpp:49] Initializing net from parameters: 
state {
  phase: TEST
}
layer {
  name: "data"
  type: "Data"
  top: "data"
  top: "label"
  include {
    phase: TEST
  }
  transform_param {
    mirror: false
    crop_size: 224
    mean_file: "/home/mohanty/data/final_dataset/lmdb/segmented-50-50/mean.binaryproto"
  }
  data_param {
    source: "/home/mohanty/data/final_dataset/lmdb/segmented-50-50/test_db"
    batch_size: 24
    backend: LMDB
  }
}
layer {
  name: "conv1/7x7_s2"
  type: "Convolution"
  bottom: "data"
  top: "conv1/7x7_s2"
  param {
    lr_mult: 1
    decay_mult: 1
  }
  param {
    lr_mult: 2
    decay_mult: 0
  }
  convolution_param {
    num_output: 64
    pad: 3
    kernel_size: 7
    stride: 2
    weight_filler {
      type: "xavier"
      std: 0.1
    }
    bias_filler {
      type: "constant"
      value: 0.2
    }
  }
}
layer {
  name: "conv1/relu_7x7"
  type: "ReLU"
  bottom: "conv1/7x7_s2"
  top: "conv1/7x7_s2"
}
layer {
  name: "pool1/3x3_s2"
  type: "Pooling"
  bottom: "conv1/7x7_s2"
  top: "pool1/3x3_s2"
  pooling_param {
    pool: MAX
    kernel_size: 3
    stride: 2
  }
}
layer {
  name: "pool1/norm1"
  type: "LRN"
  bottom: "pool1/3x3_s2"
  top: "pool1/norm1"
  lrn_param {
    local_size: 5
    alpha: 0.0001
    beta: 0.75
  }
}
layer {
  name: "conv2/3x3_reduce"
  type: "Convolution"
  bottom: "pool1/norm1"
  top: "conv2/3x3_reduce"
  param {
    lr_mult: 1
    decay_mult: 1
  }
  param {
    lr_mult: 2
    decay_mult: 0
  }
  convolution_param {
    num_output: 64
    kernel_size: 1
    weight_filler {
      type: "xavier"
      std: 0.1
    }
    bias_filler {
      type: "constant"
      value: 0.2
    }
  }
}
layer {
  name: "conv2/relu_3x3_reduce"
  type: "ReLU"
  bottom: "conv2/3x3_reduce"
  top: "conv2/3x3_reduce"
}
layer {
  name: "conv2/3x3"
  type: "Convolution"
  bottom: "conv2/3x3_reduce"
  top: "conv2/3x3"
  param {
    lr_mult: 1
    decay_mult: 1
  }
  param {
    lr_mult: 2
    decay_mult: 0
  }
  convolution_param {
    num_output: 192
    pad: 1
    kernel_size: 3
    weight_filler {
      type: "xavier"
      std: 0.03
    }
    bias_filler {
      type: "constant"
      value: 0.2
    }
  }
}
layer {
  name: "conv2/relu_3x3"
  type: "ReLU"
  bottom: "conv2/3x3"
  top: "conv2/3x3"
}
layer {
  name: "conv2/norm2"
  type: "LRN"
  bottom: "conv2/3x3"
  top: "conv2/norm2"
  lrn_param {
    local_size: 5
    alpha: 0.0001
    beta: 0.75
  }
}
layer {
  name: "pool2/3x3_s2"
  type: "Pooling"
  bottom: "conv2/norm2"
  top: "pool2/3x3_s2"
  pooling_param {
    pool: MAX
    kernel_size: 3
    stride: 2
  }
}
layer {
  name: "inception_3a/1x1"
  type: "Convolution"
  bottom: "pool2/3x3_s2"
  top: "inception_3a/1x1"
  param {
    lr_mult: 1
    decay_mult: 1
  }
  param {
    lr_mult: 2
    decay_mult: 0
  }
  convolution_param {
    num_output: 64
    kernel_size: 1
    weight_filler {
      type: "xavier"
      std: 0.03
    }
    bias_filler {
      type: "constant"
      value: 0.2
    }
  }
}
layer {
  name: "inception_3a/relu_1x1"
  type: "ReLU"
  bottom: "inception_3a/1x1"
  top: "inception_3a/1x1"
}
layer {
  name: "inception_3a/3x3_reduce"
  type: "Convolution"
  bottom: "pool2/3x3_s2"
  top: "inception_3a/3x3_reduce"
  param {
    lr_mult: 1
    decay_mult: 1
  }
  param {
    lr_mult: 2
    decay_mult: 0
  }
  convolution_param {
    num_output: 96
    kernel_size: 1
    weight_filler {
      type: "xavier"
      std: 0.09
    }
    bias_filler {
      type: "constant"
      value: 0.2
    }
  }
}
layer {
  name: "inception_3a/relu_3x3_reduce"
  type: "ReLU"
  bottom: "inception_3a/3x3_reduce"
  top: "inception_3a/3x3_reduce"
}
layer {
  name: "inception_3a/3x3"
  type: "Convolution"
  bottom: "inception_3a/3x3_reduce"
  top: "inception_3a/3x3"
  param {
    lr_mult: 1
    decay_mult: 1
  }
  param {
    lr_mult: 2
    decay_mult: 0
  }
  convolution_param {
    num_output: 128
    pad: 1
    kernel_size: 3
    weight_filler {
      type: "xavier"
      std: 0.03
    }
    bias_filler {
      type: "constant"
      value: 0.2
    }
  }
}
layer {
  name: "inception_3a/relu_3x3"
  type: "ReLU"
  bottom: "inception_3a/3x3"
  top: "inception_3a/3x3"
}
layer {
  name: "inception_3a/5x5_reduce"
  type: "Convolution"
  bottom: "pool2/3x3_s2"
  top: "inception_3a/5x5_reduce"
  param {
    lr_mult: 1
    decay_mult: 1
  }
  param {
    lr_mult: 2
    decay_mult: 0
  }
  convolution_param {
    num_output: 16
    kernel_size: 1
    weight_filler {
      type: "xavier"
      std: 0.2
    }
    bias_filler {
      type: "constant"
      value: 0.2
    }
  }
}
layer {
  name: "inception_3a/relu_5x5_reduce"
  type: "ReLU"
  bottom: "inception_3a/5x5_reduce"
  top: "inception_3a/5x5_reduce"
}
layer {
  name: "inception_3a/5x5"
  type: "Convolution"
  bottom: "inception_3a/5x5_reduce"
  top: "inception_3a/5x5"
  param {
    lr_mult: 1
    decay_mult: 1
  }
  param {
    lr_mult: 2
    decay_mult: 0
  }
  convolution_param {
    num_output: 32
    pad: 2
    kernel_size: 5
    weight_filler {
      type: "xavier"
      std: 0.03
    }
    bias_filler {
      type: "constant"
      value: 0.2
    }
  }
}
layer {
  name: "inception_3a/relu_5x5"
  type: "ReLU"
  bottom: "inception_3a/5x5"
  top: "inception_3a/5x5"
}
layer {
  name: "inception_3a/pool"
  type: "Pooling"
  bottom: "pool2/3x3_s2"
  top: "inception_3a/pool"
  pooling_param {
    pool: MAX
    kernel_size: 3
    stride: 1
    pad: 1
  }
}
layer {
  name: "inception_3a/pool_proj"
  type: "Convolution"
  bottom: "inception_3a/pool"
  top: "inception_3a/pool_proj"
  param {
    lr_mult: 1
    decay_mult: 1
  }
  param {
    lr_mult: 2
    decay_mult: 0
  }
  convolution_param {
    num_output: 32
    kernel_size: 1
    weight_filler {
      type: "xavier"
      std: 0.1
    }
    bias_filler {
      type: "constant"
      value: 0.2
    }
  }
}
layer {
  name: "inception_3a/relu_pool_proj"
  type: "ReLU"
  bottom: "inception_3a/pool_proj"
  top: "inception_3a/pool_proj"
}
layer {
  name: "inception_3a/output"
  type: "Concat"
  bottom: "inception_3a/1x1"
  bottom: "inception_3a/3x3"
  bottom: "inception_3a/5x5"
  bottom: "inception_3a/pool_proj"
  top: "inception_3a/output"
}
layer {
  name: "inception_3b/1x1"
  type: "Convolution"
  bottom: "inception_3a/output"
  top: "inception_3b/1x1"
  param {
    lr_mult: 1
    decay_mult: 1
  }
  param {
    lr_mult: 2
    decay_mult: 0
  }
  convolution_param {
    num_output: 128
    kernel_size: 1
    weight_filler {
      type: "xavier"
      std: 0.03
    }
    bias_filler {
      type: "constant"
      value: 0.2
    }
  }
}
layer {
  name: "inception_3b/relu_1x1"
  type: "ReLU"
  bottom: "inception_3b/1x1"
  top: "inception_3b/1x1"
}
layer {
  name: "inception_3b/3x3_reduce"
  type: "Convolution"
  bottom: "inception_3a/output"
  top: "inception_3b/3x3_reduce"
  param {
    lr_mult: 1
    decay_mult: 1
  }
  param {
    lr_mult: 2
    decay_mult: 0
  }
  convolution_param {
    num_output: 128
    kernel_size: 1
    weight_filler {
      type: "xavier"
      std: 0.09
    }
    bias_filler {
      type: "constant"
      value: 0.2
    }
  }
}
layer {
  name: "inception_3b/relu_3x3_reduce"
  type: "ReLU"
  bottom: "inception_3b/3x3_reduce"
  top: "inception_3b/3x3_reduce"
}
layer {
  name: "inception_3b/3x3"
  type: "Convolution"
  bottom: "inception_3b/3x3_reduce"
  top: "inception_3b/3x3"
  param {
    lr_mult: 1
    decay_mult: 1
  }
  param {
    lr_mult: 2
    decay_mult: 0
  }
  convolution_param {
    num_output: 192
    pad: 1
    kernel_size: 3
    weight_filler {
      type: "xavier"
      std: 0.03
    }
    bias_filler {
      type: "constant"
      value: 0.2
    }
  }
}
layer {
  name: "inception_3b/relu_3x3"
  type: "ReLU"
  bottom: "inception_3b/3x3"
  top: "inception_3b/3x3"
}
layer {
  name: "inception_3b/5x5_reduce"
  type: "Convolution"
  bottom: "inception_3a/output"
  top: "inception_3b/5x5_reduce"
  param {
    lr_mult: 1
    decay_mult: 1
  }
  param {
    lr_mult: 2
    decay_mult: 0
  }
  convolution_param {
    num_output: 32
    kernel_size: 1
    weight_filler {
      type: "xavier"
      std: 0.2
    }
    bias_filler {
      type: "constant"
      value: 0.2
    }
  }
}
layer {
  name: "inception_3b/relu_5x5_reduce"
  type: "ReLU"
  bottom: "inception_3b/5x5_reduce"
  top: "inception_3b/5x5_reduce"
}
layer {
  name: "inception_3b/5x5"
  type: "Convolution"
  bottom: "inception_3b/5x5_reduce"
  top: "inception_3b/5x5"
  param {
    lr_mult: 1
    decay_mult: 1
  }
  param {
    lr_mult: 2
    decay_mult: 0
  }
  convolution_param {
    num_output: 96
    pad: 2
    kernel_size: 5
    weight_filler {
      type: "xavier"
      std: 0.03
    }
    bias_filler {
      type: "constant"
      value: 0.2
    }
  }
}
layer {
  name: "inception_3b/relu_5x5"
  type: "ReLU"
  bottom: "inception_3b/5x5"
  top: "inception_3b/5x5"
}
layer {
  name: "inception_3b/pool"
  type: "Pooling"
  bottom: "inception_3a/output"
  top: "inception_3b/pool"
  pooling_param {
    pool: MAX
    kernel_size: 3
    stride: 1
    pad: 1
  }
}
layer {
  name: "inception_3b/pool_proj"
  type: "Convolution"
  bottom: "inception_3b/pool"
  top: "inception_3b/pool_proj"
  param {
    lr_mult: 1
    decay_mult: 1
  }
  param {
    lr_mult: 2
    decay_mult: 0
  }
  convolution_param {
    num_output: 64
    kernel_size: 1
    weight_filler {
      type: "xavier"
      std: 0.1
    }
    bias_filler {
      type: "constant"
      value: 0.2
    }
  }
}
layer {
  name: "inception_3b/relu_pool_proj"
  type: "ReLU"
  bottom: "inception_3b/pool_proj"
  top: "inception_3b/pool_proj"
}
layer {
  name: "inception_3b/output"
  type: "Concat"
  bottom: "inception_3b/1x1"
  bottom: "inception_3b/3x3"
  bottom: "inception_3b/5x5"
  bottom: "inception_3b/pool_proj"
  top: "inception_3b/output"
}
layer {
  name: "pool3/3x3_s2"
  type: "Pooling"
  bottom: "inception_3b/output"
  top: "pool3/3x3_s2"
  pooling_param {
    pool: MAX
    kernel_size: 3
    stride: 2
  }
}
layer {
  name: "inception_4a/1x1"
  type: "Convolution"
  bottom: "pool3/3x3_s2"
  top: "inception_4a/1x1"
  param {
    lr_mult: 1
    decay_mult: 1
  }
  param {
    lr_mult: 2
    decay_mult: 0
  }
  convolution_param {
    num_output: 192
    kernel_size: 1
    weight_filler {
      type: "xavier"
      std: 0.03
    }
    bias_filler {
      type: "constant"
      value: 0.2
    }
  }
}
layer {
  name: "inception_4a/relu_1x1"
  type: "ReLU"
  bottom: "inception_4a/1x1"
  top: "inception_4a/1x1"
}
layer {
  name: "inception_4a/3x3_reduce"
  type: "Convolution"
  bottom: "pool3/3x3_s2"
  top: "inception_4a/3x3_reduce"
  param {
    lr_mult: 1
    decay_mult: 1
  }
  param {
    lr_mult: 2
    decay_mult: 0
  }
  convolution_param {
    num_output: 96
    kernel_size: 1
    weight_filler {
      type: "xavier"
      std: 0.09
    }
    bias_filler {
      type: "constant"
      value: 0.2
    }
  }
}
layer {
  name: "inception_4a/relu_3x3_reduce"
  type: "ReLU"
  bottom: "inception_4a/3x3_reduce"
  top: "inception_4a/3x3_reduce"
}
layer {
  name: "inception_4a/3x3"
  type: "Convolution"
  bottom: "inception_4a/3x3_reduce"
  top: "inception_4a/3x3"
  param {
    lr_mult: 1
    decay_mult: 1
  }
  param {
    lr_mult: 2
    decay_mult: 0
  }
  convolution_param {
    num_output: 208
    pad: 1
    kernel_size: 3
    weight_filler {
      type: "xavier"
      std: 0.03
    }
    bias_filler {
      type: "constant"
      value: 0.2
    }
  }
}
layer {
  name: "inception_4a/relu_3x3"
  type: "ReLU"
  bottom: "inception_4a/3x3"
  top: "inception_4a/3x3"
}
layer {
  name: "inception_4a/5x5_reduce"
  type: "Convolution"
  bottom: "pool3/3x3_s2"
  top: "inception_4a/5x5_reduce"
  param {
    lr_mult: 1
    decay_mult: 1
  }
  param {
    lr_mult: 2
    decay_mult: 0
  }
  convolution_param {
    num_output: 16
    kernel_size: 1
    weight_filler {
      type: "xavier"
      std: 0.2
    }
    bias_filler {
      type: "constant"
      value: 0.2
    }
  }
}
layer {
  name: "inception_4a/relu_5x5_reduce"
  type: "ReLU"
  bottom: "inception_4a/5x5_reduce"
  top: "inception_4a/5x5_reduce"
}
layer {
  name: "inception_4a/5x5"
  type: "Convolution"
  bottom: "inception_4a/5x5_reduce"
  top: "inception_4a/5x5"
  param {
    lr_mult: 1
    decay_mult: 1
  }
  param {
    lr_mult: 2
    decay_mult: 0
  }
  convolution_param {
    num_output: 48
    pad: 2
    kernel_size: 5
    weight_filler {
      type: "xavier"
      std: 0.03
    }
    bias_filler {
      type: "constant"
      value: 0.2
    }
  }
}
layer {
  name: "inception_4a/relu_5x5"
  type: "ReLU"
  bottom: "inception_4a/5x5"
  top: "inception_4a/5x5"
}
layer {
  name: "inception_4a/pool"
  type: "Pooling"
  bottom: "pool3/3x3_s2"
  top: "inception_4a/pool"
  pooling_param {
    pool: MAX
    kernel_size: 3
    stride: 1
    pad: 1
  }
}
layer {
  name: "inception_4a/pool_proj"
  type: "Convolution"
  bottom: "inception_4a/pool"
  top: "inception_4a/pool_proj"
  param {
    lr_mult: 1
    decay_mult: 1
  }
  param {
    lr_mult: 2
    decay_mult: 0
  }
  convolution_param {
    num_output: 64
    kernel_size: 1
    weight_filler {
      type: "xavier"
      std: 0.1
    }
    bias_filler {
      type: "constant"
      value: 0.2
    }
  }
}
layer {
  name: "inception_4a/relu_pool_proj"
  type: "ReLU"
  bottom: "inception_4a/pool_proj"
  top: "inception_4a/pool_proj"
}
layer {
  name: "inception_4a/output"
  type: "Concat"
  bottom: "inception_4a/1x1"
  bottom: "inception_4a/3x3"
  bottom: "inception_4a/5x5"
  bottom: "inception_4a/pool_proj"
  top: "inception_4a/output"
}
layer {
  name: "loss1/ave_pool"
  type: "Pooling"
  bottom: "inception_4a/output"
  top: "loss1/ave_pool"
  pooling_param {
    pool: AVE
    kernel_size: 5
    stride: 3
  }
}
layer {
  name: "loss1/conv"
  type: "Convolution"
  bottom: "loss1/ave_pool"
  top: "loss1/conv"
  param {
    lr_mult: 1
    decay_mult: 1
  }
  param {
    lr_mult: 2
    decay_mult: 0
  }
  convolution_param {
    num_output: 128
    kernel_size: 1
    weight_filler {
      type: "xavier"
      std: 0.08
    }
    bias_filler {
      type: "constant"
      value: 0.2
    }
  }
}
layer {
  name: "loss1/relu_conv"
  type: "ReLU"
  bottom: "loss1/conv"
  top: "loss1/conv"
}
layer {
  name: "loss1/fc"
  type: "InnerProduct"
  bottom: "loss1/conv"
  top: "loss1/fc"
  param {
    lr_mult: 1
    decay_mult: 1
  }
  param {
    lr_mult: 2
    decay_mult: 0
  }
  inner_product_param {
    num_output: 1024
    weight_filler {
      type: "xavier"
      std: 0.02
    }
    bias_filler {
      type: "constant"
      value: 0.2
    }
  }
}
layer {
  name: "loss1/relu_fc"
  type: "ReLU"
  bottom: "loss1/fc"
  top: "loss1/fc"
}
layer {
  name: "loss1/drop_fc"
  type: "Dropout"
  bottom: "loss1/fc"
  top: "loss1/fc"
  dropout_param {
    dropout_ratio: 0.7
  }
}
layer {
  name: "loss1/classifier_plantvillage"
  type: "InnerProduct"
  bottom: "loss1/fc"
  top: "loss1/classifier_plantvillage"
  param {
    lr_mult: 1
    decay_mult: 1
  }
  param {
    lr_mult: 2
    decay_mult: 0
  }
  inner_product_param {
    num_output: 38
    weight_filler {
      type: "xavier"
      std: 0.0009765625
    }
    bias_filler {
      type: "constant"
      value: 0
    }
  }
}
layer {
  name: "inception_4b/1x1"
  type: "Convolution"
  bottom: "inception_4a/output"
  top: "inception_4b/1x1"
  param {
    lr_mult: 1
    decay_mult: 1
  }
  param {
    lr_mult: 2
    decay_mult: 0
  }
  convolution_param {
    num_output: 160
    kernel_size: 1
    weight_filler {
      type: "xavier"
      std: 0.03
    }
    bias_filler {
      type: "constant"
      value: 0.2
    }
  }
}
layer {
  name: "inception_4b/relu_1x1"
  type: "ReLU"
  bottom: "inception_4b/1x1"
  top: "inception_4b/1x1"
}
layer {
  name: "inception_4b/3x3_reduce"
  type: "Convolution"
  bottom: "inception_4a/output"
  top: "inception_4b/3x3_reduce"
  param {
    lr_mult: 1
    decay_mult: 1
  }
  param {
    lr_mult: 2
    decay_mult: 0
  }
  convolution_param {
    num_output: 112
    kernel_size: 1
    weight_filler {
      type: "xavier"
      std: 0.09
    }
    bias_filler {
      type: "constant"
      value: 0.2
    }
  }
}
layer {
  name: "inception_4b/relu_3x3_reduce"
  type: "ReLU"
  bottom: "inception_4b/3x3_reduce"
  top: "inception_4b/3x3_reduce"
}
layer {
  name: "inception_4b/3x3"
  type: "Convolution"
  bottom: "inception_4b/3x3_reduce"
  top: "inception_4b/3x3"
  param {
    lr_mult: 1
    decay_mult: 1
  }
  param {
    lr_mult: 2
    decay_mult: 0
  }
  convolution_param {
    num_output: 224
    pad: 1
    kernel_size: 3
    weight_filler {
      type: "xavier"
      std: 0.03
    }
    bias_filler {
      type: "constant"
      value: 0.2
    }
  }
}
layer {
  name: "inception_4b/relu_3x3"
  type: "ReLU"
  bottom: "inception_4b/3x3"
  top: "inception_4b/3x3"
}
layer {
  name: "inception_4b/5x5_reduce"
  type: "Convolution"
  bottom: "inception_4a/output"
  top: "inception_4b/5x5_reduce"
  param {
    lr_mult: 1
    decay_mult: 1
  }
  param {
    lr_mult: 2
    decay_mult: 0
  }
  convolution_param {
    num_output: 24
    kernel_size: 1
    weight_filler {
      type: "xavier"
      std: 0.2
    }
    bias_filler {
      type: "constant"
      value: 0.2
    }
  }
}
layer {
  name: "inception_4b/relu_5x5_reduce"
  type: "ReLU"
  bottom: "inception_4b/5x5_reduce"
  top: "inception_4b/5x5_reduce"
}
layer {
  name: "inception_4b/5x5"
  type: "Convolution"
  bottom: "inception_4b/5x5_reduce"
  top: "inception_4b/5x5"
  param {
    lr_mult: 1
    decay_mult: 1
  }
  param {
    lr_mult: 2
    decay_mult: 0
  }
  convolution_param {
    num_output: 64
    pad: 2
    kernel_size: 5
    weight_filler {
      type: "xavier"
      std: 0.03
    }
    bias_filler {
      type: "constant"
      value: 0.2
    }
  }
}
layer {
  name: "inception_4b/relu_5x5"
  type: "ReLU"
  bottom: "inception_4b/5x5"
  top: "inception_4b/5x5"
}
layer {
  name: "inception_4b/pool"
  type: "Pooling"
  bottom: "inception_4a/output"
  top: "inception_4b/pool"
  pooling_param {
    pool: MAX
    kernel_size: 3
    stride: 1
    pad: 1
  }
}
layer {
  name: "inception_4b/pool_proj"
  type: "Convolution"
  bottom: "inception_4b/pool"
  top: "inception_4b/pool_proj"
  param {
    lr_mult: 1
    decay_mult: 1
  }
  param {
    lr_mult: 2
    decay_mult: 0
  }
  convolution_param {
    num_output: 64
    kernel_size: 1
    weight_filler {
      type: "xavier"
      std: 0.1
    }
    bias_filler {
      type: "constant"
      value: 0.2
    }
  }
}
layer {
  name: "inception_4b/relu_pool_proj"
  type: "ReLU"
  bottom: "inception_4b/pool_proj"
  top: "inception_4b/pool_proj"
}
layer {
  name: "inception_4b/output"
  type: "Concat"
  bottom: "inception_4b/1x1"
  bottom: "inception_4b/3x3"
  bottom: "inception_4b/5x5"
  bottom: "inception_4b/pool_proj"
  top: "inception_4b/output"
}
layer {
  name: "inception_4c/1x1"
  type: "Convolution"
  bottom: "inception_4b/output"
  top: "inception_4c/1x1"
  param {
    lr_mult: 1
    decay_mult: 1
  }
  param {
    lr_mult: 2
    decay_mult: 0
  }
  convolution_param {
    num_output: 128
    kernel_size: 1
    weight_filler {
      type: "xavier"
      std: 0.03
    }
    bias_filler {
      type: "constant"
      value: 0.2
    }
  }
}
layer {
  name: "inception_4c/relu_1x1"
  type: "ReLU"
  bottom: "inception_4c/1x1"
  top: "inception_4c/1x1"
}
layer {
  name: "inception_4c/3x3_reduce"
  type: "Convolution"
  bottom: "inception_4b/output"
  top: "inception_4c/3x3_reduce"
  param {
    lr_mult: 1
    decay_mult: 1
  }
  param {
    lr_mult: 2
    decay_mult: 0
  }
  convolution_param {
    num_output: 128
    kernel_size: 1
    weight_filler {
      type: "xavier"
      std: 0.09
    }
    bias_filler {
      type: "constant"
      value: 0.2
    }
  }
}
layer {
  name: "inception_4c/relu_3x3_reduce"
  type: "ReLU"
  bottom: "inception_4c/3x3_reduce"
  top: "inception_4c/3x3_reduce"
}
layer {
  name: "inception_4c/3x3"
  type: "Convolution"
  bottom: "inception_4c/3x3_reduce"
  top: "inception_4c/3x3"
  param {
    lr_mult: 1
    decay_mult: 1
  }
  param {
    lr_mult: 2
    decay_mult: 0
  }
  convolution_param {
    num_output: 256
    pad: 1
    kernel_size: 3
    weight_filler {
      type: "xavier"
      std: 0.03
    }
    bias_filler {
      type: "constant"
      value: 0.2
    }
  }
}
layer {
  name: "inception_4c/relu_3x3"
  type: "ReLU"
  bottom: "inception_4c/3x3"
  top: "inception_4c/3x3"
}
layer {
  name: "inception_4c/5x5_reduce"
  type: "Convolution"
  bottom: "inception_4b/output"
  top: "inception_4c/5x5_reduce"
  param {
    lr_mult: 1
    decay_mult: 1
  }
  param {
    lr_mult: 2
    decay_mult: 0
  }
  convolution_param {
    num_output: 24
    kernel_size: 1
    weight_filler {
      type: "xavier"
      std: 0.2
    }
    bias_filler {
      type: "constant"
      value: 0.2
    }
  }
}
layer {
  name: "inception_4c/relu_5x5_reduce"
  type: "ReLU"
  bottom: "inception_4c/5x5_reduce"
  top: "inception_4c/5x5_reduce"
}
layer {
  name: "inception_4c/5x5"
  type: "Convolution"
  bottom: "inception_4c/5x5_reduce"
  top: "inception_4c/5x5"
  param {
    lr_mult: 1
    decay_mult: 1
  }
  param {
    lr_mult: 2
    decay_mult: 0
  }
  convolution_param {
    num_output: 64
    pad: 2
    kernel_size: 5
    weight_filler {
      type: "xavier"
      std: 0.03
    }
    bias_filler {
      type: "constant"
      value: 0.2
    }
  }
}
layer {
  name: "inception_4c/relu_5x5"
  type: "ReLU"
  bottom: "inception_4c/5x5"
  top: "inception_4c/5x5"
}
layer {
  name: "inception_4c/pool"
  type: "Pooling"
  bottom: "inception_4b/output"
  top: "inception_4c/pool"
  pooling_param {
    pool: MAX
    kernel_size: 3
    stride: 1
    pad: 1
  }
}
layer {
  name: "inception_4c/pool_proj"
  type: "Convolution"
  bottom: "inception_4c/pool"
  top: "inception_4c/pool_proj"
  param {
    lr_mult: 1
    decay_mult: 1
  }
  param {
    lr_mult: 2
    decay_mult: 0
  }
  convolution_param {
    num_output: 64
    kernel_size: 1
    weight_filler {
      type: "xavier"
      std: 0.1
    }
    bias_filler {
      type: "constant"
      value: 0.2
    }
  }
}
layer {
  name: "inception_4c/relu_pool_proj"
  type: "ReLU"
  bottom: "inception_4c/pool_proj"
  top: "inception_4c/pool_proj"
}
layer {
  name: "inception_4c/output"
  type: "Concat"
  bottom: "inception_4c/1x1"
  bottom: "inception_4c/3x3"
  bottom: "inception_4c/5x5"
  bottom: "inception_4c/pool_proj"
  top: "inception_4c/output"
}
layer {
  name: "inception_4d/1x1"
  type: "Convolution"
  bottom: "inception_4c/output"
  top: "inception_4d/1x1"
  param {
    lr_mult: 1
    decay_mult: 1
  }
  param {
    lr_mult: 2
    decay_mult: 0
  }
  convolution_param {
    num_output: 112
    kernel_size: 1
    weight_filler {
      type: "xavier"
      std: 0.03
    }
    bias_filler {
      type: "constant"
      value: 0.2
    }
  }
}
layer {
  name: "inception_4d/relu_1x1"
  type: "ReLU"
  bottom: "inception_4d/1x1"
  top: "inception_4d/1x1"
}
layer {
  name: "inception_4d/3x3_reduce"
  type: "Convolution"
  bottom: "inception_4c/output"
  top: "inception_4d/3x3_reduce"
  param {
    lr_mult: 1
    decay_mult: 1
  }
  param {
    lr_mult: 2
    decay_mult: 0
  }
  convolution_param {
    num_output: 144
    kernel_size: 1
    weight_filler {
      type: "xavier"
      std: 0.09
    }
    bias_filler {
      type: "constant"
      value: 0.2
    }
  }
}
layer {
  name: "inception_4d/relu_3x3_reduce"
  type: "ReLU"
  bottom: "inception_4d/3x3_reduce"
  top: "inception_4d/3x3_reduce"
}
layer {
  name: "inception_4d/3x3"
  type: "Convolution"
  bottom: "inception_4d/3x3_reduce"
  top: "inception_4d/3x3"
  param {
    lr_mult: 1
    decay_mult: 1
  }
  param {
    lr_mult: 2
    decay_mult: 0
  }
  convolution_param {
    num_output: 288
    pad: 1
    kernel_size: 3
    weight_filler {
      type: "xavier"
      std: 0.03
    }
    bias_filler {
      type: "constant"
      value: 0.2
    }
  }
}
layer {
  name: "inception_4d/relu_3x3"
  type: "ReLU"
  bottom: "inception_4d/3x3"
  top: "inception_4d/3x3"
}
layer {
  name: "inception_4d/5x5_reduce"
  type: "Convolution"
  bottom: "inception_4c/output"
  top: "inception_4d/5x5_reduce"
  param {
    lr_mult: 1
    decay_mult: 1
  }
  param {
    lr_mult: 2
    decay_mult: 0
  }
  convolution_param {
    num_output: 32
    kernel_size: 1
    weight_filler {
      type: "xavier"
      std: 0.2
    }
    bias_filler {
      type: "constant"
      value: 0.2
    }
  }
}
layer {
  name: "inception_4d/relu_5x5_reduce"
  type: "ReLU"
  bottom: "inception_4d/5x5_reduce"
  top: "inception_4d/5x5_reduce"
}
layer {
  name: "inception_4d/5x5"
  type: "Convolution"
  bottom: "inception_4d/5x5_reduce"
  top: "inception_4d/5x5"
  param {
    lr_mult: 1
    decay_mult: 1
  }
  param {
    lr_mult: 2
    decay_mult: 0
  }
  convolution_param {
    num_output: 64
    pad: 2
    kernel_size: 5
    weight_filler {
      type: "xavier"
      std: 0.03
    }
    bias_filler {
      type: "constant"
      value: 0.2
    }
  }
}
layer {
  name: "inception_4d/relu_5x5"
  type: "ReLU"
  bottom: "inception_4d/5x5"
  top: "inception_4d/5x5"
}
layer {
  name: "inception_4d/pool"
  type: "Pooling"
  bottom: "inception_4c/output"
  top: "inception_4d/pool"
  pooling_param {
    pool: MAX
    kernel_size: 3
    stride: 1
    pad: 1
  }
}
layer {
  name: "inception_4d/pool_proj"
  type: "Convolution"
  bottom: "inception_4d/pool"
  top: "inception_4d/pool_proj"
  param {
    lr_mult: 1
    decay_mult: 1
  }
  param {
    lr_mult: 2
    decay_mult: 0
  }
  convolution_param {
    num_output: 64
    kernel_size: 1
    weight_filler {
      type: "xavier"
      std: 0.1
    }
    bias_filler {
      type: "constant"
      value: 0.2
    }
  }
}
layer {
  name: "inception_4d/relu_pool_proj"
  type: "ReLU"
  bottom: "inception_4d/pool_proj"
  top: "inception_4d/pool_proj"
}
layer {
  name: "inception_4d/output"
  type: "Concat"
  bottom: "inception_4d/1x1"
  bottom: "inception_4d/3x3"
  bottom: "inception_4d/5x5"
  bottom: "inception_4d/pool_proj"
  top: "inception_4d/output"
}
layer {
  name: "loss2/ave_pool"
  type: "Pooling"
  bottom: "inception_4d/output"
  top: "loss2/ave_pool"
  pooling_param {
    pool: AVE
    kernel_size: 5
    stride: 3
  }
}
layer {
  name: "loss2/conv"
  type: "Convolution"
  bottom: "loss2/ave_pool"
  top: "loss2/conv"
  param {
    lr_mult: 1
    decay_mult: 1
  }
  param {
    lr_mult: 2
    decay_mult: 0
  }
  convolution_param {
    num_output: 128
    kernel_size: 1
    weight_filler {
      type: "xavier"
      std: 0.08
    }
    bias_filler {
      type: "constant"
      value: 0.2
    }
  }
}
layer {
  name: "loss2/relu_conv"
  type: "ReLU"
  bottom: "loss2/conv"
  top: "loss2/conv"
}
layer {
  name: "loss2/fc"
  type: "InnerProduct"
  bottom: "loss2/conv"
  top: "loss2/fc"
  param {
    lr_mult: 1
    decay_mult: 1
  }
  param {
    lr_mult: 2
    decay_mult: 0
  }
  inner_product_param {
    num_output: 1024
    weight_filler {
      type: "xavier"
      std: 0.02
    }
    bias_filler {
      type: "constant"
      value: 0.2
    }
  }
}
layer {
  name: "loss2/relu_fc"
  type: "ReLU"
  bottom: "loss2/fc"
  top: "loss2/fc"
}
layer {
  name: "loss2/drop_fc"
  type: "Dropout"
  bottom: "loss2/fc"
  top: "loss2/fc"
  dropout_param {
    dropout_ratio: 0.7
  }
}
layer {
  name: "loss2/classifier_plantvillage"
  type: "InnerProduct"
  bottom: "loss2/fc"
  top: "loss2/classifier_plantvillage"
  param {
    lr_mult: 1
    decay_mult: 1
  }
  param {
    lr_mult: 2
    decay_mult: 0
  }
  inner_product_param {
    num_output: 38
    weight_filler {
      type: "xavier"
      std: 0.0009765625
    }
    bias_filler {
      type: "constant"
      value: 0
    }
  }
}
layer {
  name: "inception_4e/1x1"
  type: "Convolution"
  bottom: "inception_4d/output"
  top: "inception_4e/1x1"
  param {
    lr_mult: 1
    decay_mult: 1
  }
  param {
    lr_mult: 2
    decay_mult: 0
  }
  convolution_param {
    num_output: 256
    kernel_size: 1
    weight_filler {
      type: "xavier"
      std: 0.03
    }
    bias_filler {
      type: "constant"
      value: 0.2
    }
  }
}
layer {
  name: "inception_4e/relu_1x1"
  type: "ReLU"
  bottom: "inception_4e/1x1"
  top: "inception_4e/1x1"
}
layer {
  name: "inception_4e/3x3_reduce"
  type: "Convolution"
  bottom: "inception_4d/output"
  top: "inception_4e/3x3_reduce"
  param {
    lr_mult: 1
    decay_mult: 1
  }
  param {
    lr_mult: 2
    decay_mult: 0
  }
  convolution_param {
    num_output: 160
    kernel_size: 1
    weight_filler {
      type: "xavier"
      std: 0.09
    }
    bias_filler {
      type: "constant"
      value: 0.2
    }
  }
}
layer {
  name: "inception_4e/relu_3x3_reduce"
  type: "ReLU"
  bottom: "inception_4e/3x3_reduce"
  top: "inception_4e/3x3_reduce"
}
layer {
  name: "inception_4e/3x3"
  type: "Convolution"
  bottom: "inception_4e/3x3_reduce"
  top: "inception_4e/3x3"
  param {
    lr_mult: 1
    decay_mult: 1
  }
  param {
    lr_mult: 2
    decay_mult: 0
  }
  convolution_param {
    num_output: 320
    pad: 1
    kernel_size: 3
    weight_filler {
      type: "xavier"
      std: 0.03
    }
    bias_filler {
      type: "constant"
      value: 0.2
    }
  }
}
layer {
  name: "inception_4e/relu_3x3"
  type: "ReLU"
  bottom: "inception_4e/3x3"
  top: "inception_4e/3x3"
}
layer {
  name: "inception_4e/5x5_reduce"
  type: "Convolution"
  bottom: "inception_4d/output"
  top: "inception_4e/5x5_reduce"
  param {
    lr_mult: 1
    decay_mult: 1
  }
  param {
    lr_mult: 2
    decay_mult: 0
  }
  convolution_param {
    num_output: 32
    kernel_size: 1
    weight_filler {
      type: "xavier"
      std: 0.2
    }
    bias_filler {
      type: "constant"
      value: 0.2
    }
  }
}
layer {
  name: "inception_4e/relu_5x5_reduce"
  type: "ReLU"
  bottom: "inception_4e/5x5_reduce"
  top: "inception_4e/5x5_reduce"
}
layer {
  name: "inception_4e/5x5"
  type: "Convolution"
  bottom: "inception_4e/5x5_reduce"
  top: "inception_4e/
I0403 15:22:12.252180 11885 layer_factory.hpp:77] Creating layer data
I0403 15:22:12.252810 11885 net.cpp:91] Creating Layer data
I0403 15:22:12.252842 11885 net.cpp:399] data -> data
I0403 15:22:12.252893 11885 net.cpp:399] data -> label
I0403 15:22:12.252930 11885 data_transformer.cpp:25] Loading mean file from: /home/mohanty/data/final_dataset/lmdb/segmented-50-50/mean.binaryproto
I0403 15:22:12.255234 11888 db_lmdb.cpp:38] Opened lmdb /home/mohanty/data/final_dataset/lmdb/segmented-50-50/test_db
I0403 15:22:12.266428 11885 data_layer.cpp:41] output data size: 24,3,224,224
I0403 15:22:12.294829 11885 net.cpp:141] Setting up data
I0403 15:22:12.294922 11885 net.cpp:148] Top shape: 24 3 224 224 (3612672)
I0403 15:22:12.294946 11885 net.cpp:148] Top shape: 24 (24)
I0403 15:22:12.294962 11885 net.cpp:156] Memory required for data: 14450784
I0403 15:22:12.294992 11885 layer_factory.hpp:77] Creating layer label_data_1_split
I0403 15:22:12.295019 11885 net.cpp:91] Creating Layer label_data_1_split
I0403 15:22:12.295038 11885 net.cpp:425] label_data_1_split <- label
I0403 15:22:12.295073 11885 net.cpp:399] label_data_1_split -> label_data_1_split_0
I0403 15:22:12.295104 11885 net.cpp:399] label_data_1_split -> label_data_1_split_1
I0403 15:22:12.295127 11885 net.cpp:399] label_data_1_split -> label_data_1_split_2
I0403 15:22:12.295148 11885 net.cpp:399] label_data_1_split -> label_data_1_split_3
I0403 15:22:12.295167 11885 net.cpp:399] label_data_1_split -> label_data_1_split_4
I0403 15:22:12.295188 11885 net.cpp:399] label_data_1_split -> label_data_1_split_5
I0403 15:22:12.295209 11885 net.cpp:399] label_data_1_split -> label_data_1_split_6
I0403 15:22:12.295230 11885 net.cpp:399] label_data_1_split -> label_data_1_split_7
I0403 15:22:12.295249 11885 net.cpp:399] label_data_1_split -> label_data_1_split_8
I0403 15:22:12.295269 11885 net.cpp:399] label_data_1_split -> label_data_1_split_9
I0403 15:22:12.295404 11885 net.cpp:141] Setting up label_data_1_split
I0403 15:22:12.295429 11885 net.cpp:148] Top shape: 24 (24)
I0403 15:22:12.295447 11885 net.cpp:148] Top shape: 24 (24)
I0403 15:22:12.295464 11885 net.cpp:148] Top shape: 24 (24)
I0403 15:22:12.295481 11885 net.cpp:148] Top shape: 24 (24)
I0403 15:22:12.295497 11885 net.cpp:148] Top shape: 24 (24)
I0403 15:22:12.295514 11885 net.cpp:148] Top shape: 24 (24)
I0403 15:22:12.295531 11885 net.cpp:148] Top shape: 24 (24)
I0403 15:22:12.295547 11885 net.cpp:148] Top shape: 24 (24)
I0403 15:22:12.295562 11885 net.cpp:148] Top shape: 24 (24)
I0403 15:22:12.295579 11885 net.cpp:148] Top shape: 24 (24)
I0403 15:22:12.295624 11885 net.cpp:156] Memory required for data: 14451744
I0403 15:22:12.295640 11885 layer_factory.hpp:77] Creating layer conv1/7x7_s2
I0403 15:22:12.295672 11885 net.cpp:91] Creating Layer conv1/7x7_s2
I0403 15:22:12.295691 11885 net.cpp:425] conv1/7x7_s2 <- data
I0403 15:22:12.295711 11885 net.cpp:399] conv1/7x7_s2 -> conv1/7x7_s2
I0403 15:22:12.439031 11885 net.cpp:141] Setting up conv1/7x7_s2
I0403 15:22:12.439091 11885 net.cpp:148] Top shape: 24 64 112 112 (19267584)
I0403 15:22:12.439111 11885 net.cpp:156] Memory required for data: 91522080
I0403 15:22:12.439141 11885 layer_factory.hpp:77] Creating layer conv1/relu_7x7
I0403 15:22:12.439168 11885 net.cpp:91] Creating Layer conv1/relu_7x7
I0403 15:22:12.439188 11885 net.cpp:425] conv1/relu_7x7 <- conv1/7x7_s2
I0403 15:22:12.439206 11885 net.cpp:386] conv1/relu_7x7 -> conv1/7x7_s2 (in-place)
I0403 15:22:12.439478 11885 net.cpp:141] Setting up conv1/relu_7x7
I0403 15:22:12.439505 11885 net.cpp:148] Top shape: 24 64 112 112 (19267584)
I0403 15:22:12.439524 11885 net.cpp:156] Memory required for data: 168592416
I0403 15:22:12.439540 11885 layer_factory.hpp:77] Creating layer pool1/3x3_s2
I0403 15:22:12.439564 11885 net.cpp:91] Creating Layer pool1/3x3_s2
I0403 15:22:12.439582 11885 net.cpp:425] pool1/3x3_s2 <- conv1/7x7_s2
I0403 15:22:12.439601 11885 net.cpp:399] pool1/3x3_s2 -> pool1/3x3_s2
I0403 15:22:12.439678 11885 net.cpp:141] Setting up pool1/3x3_s2
I0403 15:22:12.439702 11885 net.cpp:148] Top shape: 24 64 56 56 (4816896)
I0403 15:22:12.439718 11885 net.cpp:156] Memory required for data: 187860000
I0403 15:22:12.439733 11885 layer_factory.hpp:77] Creating layer pool1/norm1
I0403 15:22:12.439759 11885 net.cpp:91] Creating Layer pool1/norm1
I0403 15:22:12.439777 11885 net.cpp:425] pool1/norm1 <- pool1/3x3_s2
I0403 15:22:12.439795 11885 net.cpp:399] pool1/norm1 -> pool1/norm1
I0403 15:22:12.440094 11885 net.cpp:141] Setting up pool1/norm1
I0403 15:22:12.440121 11885 net.cpp:148] Top shape: 24 64 56 56 (4816896)
I0403 15:22:12.440136 11885 net.cpp:156] Memory required for data: 207127584
I0403 15:22:12.440151 11885 layer_factory.hpp:77] Creating layer conv2/3x3_reduce
I0403 15:22:12.440179 11885 net.cpp:91] Creating Layer conv2/3x3_reduce
I0403 15:22:12.440197 11885 net.cpp:425] conv2/3x3_reduce <- pool1/norm1
I0403 15:22:12.440215 11885 net.cpp:399] conv2/3x3_reduce -> conv2/3x3_reduce
I0403 15:22:12.441643 11885 net.cpp:141] Setting up conv2/3x3_reduce
I0403 15:22:12.441674 11885 net.cpp:148] Top shape: 24 64 56 56 (4816896)
I0403 15:22:12.441691 11885 net.cpp:156] Memory required for data: 226395168
I0403 15:22:12.441712 11885 layer_factory.hpp:77] Creating layer conv2/relu_3x3_reduce
I0403 15:22:12.441735 11885 net.cpp:91] Creating Layer conv2/relu_3x3_reduce
I0403 15:22:12.441752 11885 net.cpp:425] conv2/relu_3x3_reduce <- conv2/3x3_reduce
I0403 15:22:12.441771 11885 net.cpp:386] conv2/relu_3x3_reduce -> conv2/3x3_reduce (in-place)
I0403 15:22:12.442046 11885 net.cpp:141] Setting up conv2/relu_3x3_reduce
I0403 15:22:12.442073 11885 net.cpp:148] Top shape: 24 64 56 56 (4816896)
I0403 15:22:12.442088 11885 net.cpp:156] Memory required for data: 245662752
I0403 15:22:12.442103 11885 layer_factory.hpp:77] Creating layer conv2/3x3
I0403 15:22:12.442127 11885 net.cpp:91] Creating Layer conv2/3x3
I0403 15:22:12.442145 11885 net.cpp:425] conv2/3x3 <- conv2/3x3_reduce
I0403 15:22:12.442167 11885 net.cpp:399] conv2/3x3 -> conv2/3x3
I0403 15:22:12.444533 11885 net.cpp:141] Setting up conv2/3x3
I0403 15:22:12.444564 11885 net.cpp:148] Top shape: 24 192 56 56 (14450688)
I0403 15:22:12.444581 11885 net.cpp:156] Memory required for data: 303465504
I0403 15:22:12.444603 11885 layer_factory.hpp:77] Creating layer conv2/relu_3x3
I0403 15:22:12.444625 11885 net.cpp:91] Creating Layer conv2/relu_3x3
I0403 15:22:12.444643 11885 net.cpp:425] conv2/relu_3x3 <- conv2/3x3
I0403 15:22:12.444661 11885 net.cpp:386] conv2/relu_3x3 -> conv2/3x3 (in-place)
I0403 15:22:12.444841 11885 net.cpp:141] Setting up conv2/relu_3x3
I0403 15:22:12.444867 11885 net.cpp:148] Top shape: 24 192 56 56 (14450688)
I0403 15:22:12.444912 11885 net.cpp:156] Memory required for data: 361268256
I0403 15:22:12.444927 11885 layer_factory.hpp:77] Creating layer conv2/norm2
I0403 15:22:12.444947 11885 net.cpp:91] Creating Layer conv2/norm2
I0403 15:22:12.444964 11885 net.cpp:425] conv2/norm2 <- conv2/3x3
I0403 15:22:12.444988 11885 net.cpp:399] conv2/norm2 -> conv2/norm2
I0403 15:22:12.445298 11885 net.cpp:141] Setting up conv2/norm2
I0403 15:22:12.445328 11885 net.cpp:148] Top shape: 24 192 56 56 (14450688)
I0403 15:22:12.445343 11885 net.cpp:156] Memory required for data: 419071008
I0403 15:22:12.445360 11885 layer_factory.hpp:77] Creating layer pool2/3x3_s2
I0403 15:22:12.445381 11885 net.cpp:91] Creating Layer pool2/3x3_s2
I0403 15:22:12.445399 11885 net.cpp:425] pool2/3x3_s2 <- conv2/norm2
I0403 15:22:12.445420 11885 net.cpp:399] pool2/3x3_s2 -> pool2/3x3_s2
I0403 15:22:12.445472 11885 net.cpp:141] Setting up pool2/3x3_s2
I0403 15:22:12.445498 11885 net.cpp:148] Top shape: 24 192 28 28 (3612672)
I0403 15:22:12.445513 11885 net.cpp:156] Memory required for data: 433521696
I0403 15:22:12.445528 11885 layer_factory.hpp:77] Creating layer pool2/3x3_s2_pool2/3x3_s2_0_split
I0403 15:22:12.445545 11885 net.cpp:91] Creating Layer pool2/3x3_s2_pool2/3x3_s2_0_split
I0403 15:22:12.445560 11885 net.cpp:425] pool2/3x3_s2_pool2/3x3_s2_0_split <- pool2/3x3_s2
I0403 15:22:12.445579 11885 net.cpp:399] pool2/3x3_s2_pool2/3x3_s2_0_split -> pool2/3x3_s2_pool2/3x3_s2_0_split_0
I0403 15:22:12.445597 11885 net.cpp:399] pool2/3x3_s2_pool2/3x3_s2_0_split -> pool2/3x3_s2_pool2/3x3_s2_0_split_1
I0403 15:22:12.445619 11885 net.cpp:399] pool2/3x3_s2_pool2/3x3_s2_0_split -> pool2/3x3_s2_pool2/3x3_s2_0_split_2
I0403 15:22:12.445639 11885 net.cpp:399] pool2/3x3_s2_pool2/3x3_s2_0_split -> pool2/3x3_s2_pool2/3x3_s2_0_split_3
I0403 15:22:12.445710 11885 net.cpp:141] Setting up pool2/3x3_s2_pool2/3x3_s2_0_split
I0403 15:22:12.445732 11885 net.cpp:148] Top shape: 24 192 28 28 (3612672)
I0403 15:22:12.445749 11885 net.cpp:148] Top shape: 24 192 28 28 (3612672)
I0403 15:22:12.445765 11885 net.cpp:148] Top shape: 24 192 28 28 (3612672)
I0403 15:22:12.445778 11885 net.cpp:148] Top shape: 24 192 28 28 (3612672)
I0403 15:22:12.445792 11885 net.cpp:156] Memory required for data: 491324448
I0403 15:22:12.445806 11885 layer_factory.hpp:77] Creating layer inception_3a/1x1
I0403 15:22:12.445829 11885 net.cpp:91] Creating Layer inception_3a/1x1
I0403 15:22:12.445847 11885 net.cpp:425] inception_3a/1x1 <- pool2/3x3_s2_pool2/3x3_s2_0_split_0
I0403 15:22:12.445868 11885 net.cpp:399] inception_3a/1x1 -> inception_3a/1x1
I0403 15:22:12.447427 11885 net.cpp:141] Setting up inception_3a/1x1
I0403 15:22:12.447455 11885 net.cpp:148] Top shape: 24 64 28 28 (1204224)
I0403 15:22:12.447470 11885 net.cpp:156] Memory required for data: 496141344
I0403 15:22:12.447489 11885 layer_factory.hpp:77] Creating layer inception_3a/relu_1x1
I0403 15:22:12.447507 11885 net.cpp:91] Creating Layer inception_3a/relu_1x1
I0403 15:22:12.447522 11885 net.cpp:425] inception_3a/relu_1x1 <- inception_3a/1x1
I0403 15:22:12.447542 11885 net.cpp:386] inception_3a/relu_1x1 -> inception_3a/1x1 (in-place)
I0403 15:22:12.447721 11885 net.cpp:141] Setting up inception_3a/relu_1x1
I0403 15:22:12.447746 11885 net.cpp:148] Top shape: 24 64 28 28 (1204224)
I0403 15:22:12.447760 11885 net.cpp:156] Memory required for data: 500958240
I0403 15:22:12.447774 11885 layer_factory.hpp:77] Creating layer inception_3a/3x3_reduce
I0403 15:22:12.447796 11885 net.cpp:91] Creating Layer inception_3a/3x3_reduce
I0403 15:22:12.447814 11885 net.cpp:425] inception_3a/3x3_reduce <- pool2/3x3_s2_pool2/3x3_s2_0_split_1
I0403 15:22:12.447834 11885 net.cpp:399] inception_3a/3x3_reduce -> inception_3a/3x3_reduce
I0403 15:22:12.449563 11885 net.cpp:141] Setting up inception_3a/3x3_reduce
I0403 15:22:12.449594 11885 net.cpp:148] Top shape: 24 96 28 28 (1806336)
I0403 15:22:12.449610 11885 net.cpp:156] Memory required for data: 508183584
I0403 15:22:12.449631 11885 layer_factory.hpp:77] Creating layer inception_3a/relu_3x3_reduce
I0403 15:22:12.449671 11885 net.cpp:91] Creating Layer inception_3a/relu_3x3_reduce
I0403 15:22:12.449690 11885 net.cpp:425] inception_3a/relu_3x3_reduce <- inception_3a/3x3_reduce
I0403 15:22:12.449708 11885 net.cpp:386] inception_3a/relu_3x3_reduce -> inception_3a/3x3_reduce (in-place)
I0403 15:22:12.449894 11885 net.cpp:141] Setting up inception_3a/relu_3x3_reduce
I0403 15:22:12.449923 11885 net.cpp:148] Top shape: 24 96 28 28 (1806336)
I0403 15:22:12.449939 11885 net.cpp:156] Memory required for data: 515408928
I0403 15:22:12.449954 11885 layer_factory.hpp:77] Creating layer inception_3a/3x3
I0403 15:22:12.449978 11885 net.cpp:91] Creating Layer inception_3a/3x3
I0403 15:22:12.449996 11885 net.cpp:425] inception_3a/3x3 <- inception_3a/3x3_reduce
I0403 15:22:12.450021 11885 net.cpp:399] inception_3a/3x3 -> inception_3a/3x3
I0403 15:22:12.451700 11885 net.cpp:141] Setting up inception_3a/3x3
I0403 15:22:12.451730 11885 net.cpp:148] Top shape: 24 128 28 28 (2408448)
I0403 15:22:12.451746 11885 net.cpp:156] Memory required for data: 525042720
I0403 15:22:12.451764 11885 layer_factory.hpp:77] Creating layer inception_3a/relu_3x3
I0403 15:22:12.451786 11885 net.cpp:91] Creating Layer inception_3a/relu_3x3
I0403 15:22:12.451804 11885 net.cpp:425] inception_3a/relu_3x3 <- inception_3a/3x3
I0403 15:22:12.451823 11885 net.cpp:386] inception_3a/relu_3x3 -> inception_3a/3x3 (in-place)
I0403 15:22:12.452102 11885 net.cpp:141] Setting up inception_3a/relu_3x3
I0403 15:22:12.452129 11885 net.cpp:148] Top shape: 24 128 28 28 (2408448)
I0403 15:22:12.452145 11885 net.cpp:156] Memory required for data: 534676512
I0403 15:22:12.452160 11885 layer_factory.hpp:77] Creating layer inception_3a/5x5_reduce
I0403 15:22:12.452183 11885 net.cpp:91] Creating Layer inception_3a/5x5_reduce
I0403 15:22:12.452199 11885 net.cpp:425] inception_3a/5x5_reduce <- pool2/3x3_s2_pool2/3x3_s2_0_split_2
I0403 15:22:12.452221 11885 net.cpp:399] inception_3a/5x5_reduce -> inception_3a/5x5_reduce
I0403 15:22:12.453202 11885 net.cpp:141] Setting up inception_3a/5x5_reduce
I0403 15:22:12.453232 11885 net.cpp:148] Top shape: 24 16 28 28 (301056)
I0403 15:22:12.453248 11885 net.cpp:156] Memory required for data: 535880736
I0403 15:22:12.453268 11885 layer_factory.hpp:77] Creating layer inception_3a/relu_5x5_reduce
I0403 15:22:12.453289 11885 net.cpp:91] Creating Layer inception_3a/relu_5x5_reduce
I0403 15:22:12.453306 11885 net.cpp:425] inception_3a/relu_5x5_reduce <- inception_3a/5x5_reduce
I0403 15:22:12.453325 11885 net.cpp:386] inception_3a/relu_5x5_reduce -> inception_3a/5x5_reduce (in-place)
I0403 15:22:12.453629 11885 net.cpp:141] Setting up inception_3a/relu_5x5_reduce
I0403 15:22:12.453658 11885 net.cpp:148] Top shape: 24 16 28 28 (301056)
I0403 15:22:12.453675 11885 net.cpp:156] Memory required for data: 537084960
I0403 15:22:12.453691 11885 layer_factory.hpp:77] Creating layer inception_3a/5x5
I0403 15:22:12.453716 11885 net.cpp:91] Creating Layer inception_3a/5x5
I0403 15:22:12.453733 11885 net.cpp:425] inception_3a/5x5 <- inception_3a/5x5_reduce
I0403 15:22:12.453752 11885 net.cpp:399] inception_3a/5x5 -> inception_3a/5x5
I0403 15:22:12.454777 11885 net.cpp:141] Setting up inception_3a/5x5
I0403 15:22:12.454805 11885 net.cpp:148] Top shape: 24 32 28 28 (602112)
I0403 15:22:12.454823 11885 net.cpp:156] Memory required for data: 539493408
I0403 15:22:12.454840 11885 layer_factory.hpp:77] Creating layer inception_3a/relu_5x5
I0403 15:22:12.454861 11885 net.cpp:91] Creating Layer inception_3a/relu_5x5
I0403 15:22:12.454877 11885 net.cpp:425] inception_3a/relu_5x5 <- inception_3a/5x5
I0403 15:22:12.454896 11885 net.cpp:386] inception_3a/relu_5x5 -> inception_3a/5x5 (in-place)
I0403 15:22:12.455071 11885 net.cpp:141] Setting up inception_3a/relu_5x5
I0403 15:22:12.455098 11885 net.cpp:148] Top shape: 24 32 28 28 (602112)
I0403 15:22:12.455116 11885 net.cpp:156] Memory required for data: 541901856
I0403 15:22:12.455132 11885 layer_factory.hpp:77] Creating layer inception_3a/pool
I0403 15:22:12.455150 11885 net.cpp:91] Creating Layer inception_3a/pool
I0403 15:22:12.455180 11885 net.cpp:425] inception_3a/pool <- pool2/3x3_s2_pool2/3x3_s2_0_split_3
I0403 15:22:12.455200 11885 net.cpp:399] inception_3a/pool -> inception_3a/pool
I0403 15:22:12.455260 11885 net.cpp:141] Setting up inception_3a/pool
I0403 15:22:12.455283 11885 net.cpp:148] Top shape: 24 192 28 28 (3612672)
I0403 15:22:12.455297 11885 net.cpp:156] Memory required for data: 556352544
I0403 15:22:12.455312 11885 layer_factory.hpp:77] Creating layer inception_3a/pool_proj
I0403 15:22:12.455335 11885 net.cpp:91] Creating Layer inception_3a/pool_proj
I0403 15:22:12.455354 11885 net.cpp:425] inception_3a/pool_proj <- inception_3a/pool
I0403 15:22:12.455376 11885 net.cpp:399] inception_3a/pool_proj -> inception_3a/pool_proj
I0403 15:22:12.456357 11885 net.cpp:141] Setting up inception_3a/pool_proj
I0403 15:22:12.456393 11885 net.cpp:148] Top shape: 24 32 28 28 (602112)
I0403 15:22:12.456410 11885 net.cpp:156] Memory required for data: 558760992
I0403 15:22:12.456432 11885 layer_factory.hpp:77] Creating layer inception_3a/relu_pool_proj
I0403 15:22:12.456454 11885 net.cpp:91] Creating Layer inception_3a/relu_pool_proj
I0403 15:22:12.456471 11885 net.cpp:425] inception_3a/relu_pool_proj <- inception_3a/pool_proj
I0403 15:22:12.456488 11885 net.cpp:386] inception_3a/relu_pool_proj -> inception_3a/pool_proj (in-place)
I0403 15:22:12.456768 11885 net.cpp:141] Setting up inception_3a/relu_pool_proj
I0403 15:22:12.456794 11885 net.cpp:148] Top shape: 24 32 28 28 (602112)
I0403 15:22:12.456809 11885 net.cpp:156] Memory required for data: 561169440
I0403 15:22:12.456822 11885 layer_factory.hpp:77] Creating layer inception_3a/output
I0403 15:22:12.456840 11885 net.cpp:91] Creating Layer inception_3a/output
I0403 15:22:12.456856 11885 net.cpp:425] inception_3a/output <- inception_3a/1x1
I0403 15:22:12.456873 11885 net.cpp:425] inception_3a/output <- inception_3a/3x3
I0403 15:22:12.456889 11885 net.cpp:425] inception_3a/output <- inception_3a/5x5
I0403 15:22:12.456904 11885 net.cpp:425] inception_3a/output <- inception_3a/pool_proj
I0403 15:22:12.456924 11885 net.cpp:399] inception_3a/output -> inception_3a/output
I0403 15:22:12.456971 11885 net.cpp:141] Setting up inception_3a/output
I0403 15:22:12.456995 11885 net.cpp:148] Top shape: 24 256 28 28 (4816896)
I0403 15:22:12.457010 11885 net.cpp:156] Memory required for data: 580437024
I0403 15:22:12.457025 11885 layer_factory.hpp:77] Creating layer inception_3a/output_inception_3a/output_0_split
I0403 15:22:12.457041 11885 net.cpp:91] Creating Layer inception_3a/output_inception_3a/output_0_split
I0403 15:22:12.457056 11885 net.cpp:425] inception_3a/output_inception_3a/output_0_split <- inception_3a/output
I0403 15:22:12.457078 11885 net.cpp:399] inception_3a/output_inception_3a/output_0_split -> inception_3a/output_inception_3a/output_0_split_0
I0403 15:22:12.457099 11885 net.cpp:399] inception_3a/output_inception_3a/output_0_split -> inception_3a/output_inception_3a/output_0_split_1
I0403 15:22:12.457121 11885 net.cpp:399] inception_3a/output_inception_3a/output_0_split -> inception_3a/output_inception_3a/output_0_split_2
I0403 15:22:12.457145 11885 net.cpp:399] inception_3a/output_inception_3a/output_0_split -> inception_3a/output_inception_3a/output_0_split_3
I0403 15:22:12.457219 11885 net.cpp:141] Setting up inception_3a/output_inception_3a/output_0_split
I0403 15:22:12.457242 11885 net.cpp:148] Top shape: 24 256 28 28 (4816896)
I0403 15:22:12.457258 11885 net.cpp:148] Top shape: 24 256 28 28 (4816896)
I0403 15:22:12.457274 11885 net.cpp:148] Top shape: 24 256 28 28 (4816896)
I0403 15:22:12.457289 11885 net.cpp:148] Top shape: 24 256 28 28 (4816896)
I0403 15:22:12.457304 11885 net.cpp:156] Memory required for data: 657507360
I0403 15:22:12.457317 11885 layer_factory.hpp:77] Creating layer inception_3b/1x1
I0403 15:22:12.457340 11885 net.cpp:91] Creating Layer inception_3b/1x1
I0403 15:22:12.457357 11885 net.cpp:425] inception_3b/1x1 <- inception_3a/output_inception_3a/output_0_split_0
I0403 15:22:12.457377 11885 net.cpp:399] inception_3b/1x1 -> inception_3b/1x1
I0403 15:22:12.458551 11885 net.cpp:141] Setting up inception_3b/1x1
I0403 15:22:12.458593 11885 net.cpp:148] Top shape: 24 128 28 28 (2408448)
I0403 15:22:12.458609 11885 net.cpp:156] Memory required for data: 667141152
I0403 15:22:12.458629 11885 layer_factory.hpp:77] Creating layer inception_3b/relu_1x1
I0403 15:22:12.458647 11885 net.cpp:91] Creating Layer inception_3b/relu_1x1
I0403 15:22:12.458663 11885 net.cpp:425] inception_3b/relu_1x1 <- inception_3b/1x1
I0403 15:22:12.458685 11885 net.cpp:386] inception_3b/relu_1x1 -> inception_3b/1x1 (in-place)
I0403 15:22:12.458863 11885 net.cpp:141] Setting up inception_3b/relu_1x1
I0403 15:22:12.458887 11885 net.cpp:148] Top shape: 24 128 28 28 (2408448)
I0403 15:22:12.458902 11885 net.cpp:156] Memory required for data: 676774944
I0403 15:22:12.458916 11885 layer_factory.hpp:77] Creating layer inception_3b/3x3_reduce
I0403 15:22:12.458938 11885 net.cpp:91] Creating Layer inception_3b/3x3_reduce
I0403 15:22:12.458956 11885 net.cpp:425] inception_3b/3x3_reduce <- inception_3a/output_inception_3a/output_0_split_1
I0403 15:22:12.458977 11885 net.cpp:399] inception_3b/3x3_reduce -> inception_3b/3x3_reduce
I0403 15:22:12.460137 11885 net.cpp:141] Setting up inception_3b/3x3_reduce
I0403 15:22:12.460166 11885 net.cpp:148] Top shape: 24 128 28 28 (2408448)
I0403 15:22:12.460183 11885 net.cpp:156] Memory required for data: 686408736
I0403 15:22:12.460201 11885 layer_factory.hpp:77] Creating layer inception_3b/relu_3x3_reduce
I0403 15:22:12.460221 11885 net.cpp:91] Creating Layer inception_3b/relu_3x3_reduce
I0403 15:22:12.460237 11885 net.cpp:425] inception_3b/relu_3x3_reduce <- inception_3b/3x3_reduce
I0403 15:22:12.460258 11885 net.cpp:386] inception_3b/relu_3x3_reduce -> inception_3b/3x3_reduce (in-place)
I0403 15:22:12.460439 11885 net.cpp:141] Setting up inception_3b/relu_3x3_reduce
I0403 15:22:12.460466 11885 net.cpp:148] Top shape: 24 128 28 28 (2408448)
I0403 15:22:12.460481 11885 net.cpp:156] Memory required for data: 696042528
I0403 15:22:12.460496 11885 layer_factory.hpp:77] Creating layer inception_3b/3x3
I0403 15:22:12.460522 11885 net.cpp:91] Creating Layer inception_3b/3x3
I0403 15:22:12.460541 11885 net.cpp:425] inception_3b/3x3 <- inception_3b/3x3_reduce
I0403 15:22:12.460559 11885 net.cpp:399] inception_3b/3x3 -> inception_3b/3x3
I0403 15:22:12.463526 11885 net.cpp:141] Setting up inception_3b/3x3
I0403 15:22:12.463556 11885 net.cpp:148] Top shape: 24 192 28 28 (3612672)
I0403 15:22:12.463572 11885 net.cpp:156] Memory required for data: 710493216
I0403 15:22:12.463590 11885 layer_factory.hpp:77] Creating layer inception_3b/relu_3x3
I0403 15:22:12.463611 11885 net.cpp:91] Creating Layer inception_3b/relu_3x3
I0403 15:22:12.463629 11885 net.cpp:425] inception_3b/relu_3x3 <- inception_3b/3x3
I0403 15:22:12.463647 11885 net.cpp:386] inception_3b/relu_3x3 -> inception_3b/3x3 (in-place)
I0403 15:22:12.463927 11885 net.cpp:141] Setting up inception_3b/relu_3x3
I0403 15:22:12.463953 11885 net.cpp:148] Top shape: 24 192 28 28 (3612672)
I0403 15:22:12.463968 11885 net.cpp:156] Memory required for data: 724943904
I0403 15:22:12.463982 11885 layer_factory.hpp:77] Creating layer inception_3b/5x5_reduce
I0403 15:22:12.464005 11885 net.cpp:91] Creating Layer inception_3b/5x5_reduce
I0403 15:22:12.464022 11885 net.cpp:425] inception_3b/5x5_reduce <- inception_3a/output_inception_3a/output_0_split_2
I0403 15:22:12.464045 11885 net.cpp:399] inception_3b/5x5_reduce -> inception_3b/5x5_reduce
I0403 15:22:12.465044 11885 net.cpp:141] Setting up inception_3b/5x5_reduce
I0403 15:22:12.465072 11885 net.cpp:148] Top shape: 24 32 28 28 (602112)
I0403 15:22:12.465090 11885 net.cpp:156] Memory required for data: 727352352
I0403 15:22:12.465108 11885 layer_factory.hpp:77] Creating layer inception_3b/relu_5x5_reduce
I0403 15:22:12.465128 11885 net.cpp:91] Creating Layer inception_3b/relu_5x5_reduce
I0403 15:22:12.465148 11885 net.cpp:425] inception_3b/relu_5x5_reduce <- inception_3b/5x5_reduce
I0403 15:22:12.465165 11885 net.cpp:386] inception_3b/relu_5x5_reduce -> inception_3b/5x5_reduce (in-place)
I0403 15:22:12.465363 11885 net.cpp:141] Setting up inception_3b/relu_5x5_reduce
I0403 15:22:12.465394 11885 net.cpp:148] Top shape: 24 32 28 28 (602112)
I0403 15:22:12.465411 11885 net.cpp:156] Memory required for data: 729760800
I0403 15:22:12.465426 11885 layer_factory.hpp:77] Creating layer inception_3b/5x5
I0403 15:22:12.465446 11885 net.cpp:91] Creating Layer inception_3b/5x5
I0403 15:22:12.465462 11885 net.cpp:425] inception_3b/5x5 <- inception_3b/5x5_reduce
I0403 15:22:12.465483 11885 net.cpp:399] inception_3b/5x5 -> inception_3b/5x5
I0403 15:22:12.467471 11885 net.cpp:141] Setting up inception_3b/5x5
I0403 15:22:12.467501 11885 net.cpp:148] Top shape: 24 96 28 28 (1806336)
I0403 15:22:12.467519 11885 net.cpp:156] Memory required for data: 736986144
I0403 15:22:12.467537 11885 layer_factory.hpp:77] Creating layer inception_3b/relu_5x5
I0403 15:22:12.467555 11885 net.cpp:91] Creating Layer inception_3b/relu_5x5
I0403 15:22:12.467571 11885 net.cpp:425] inception_3b/relu_5x5 <- inception_3b/5x5
I0403 15:22:12.467592 11885 net.cpp:386] inception_3b/relu_5x5 -> inception_3b/5x5 (in-place)
I0403 15:22:12.467788 11885 net.cpp:141] Setting up inception_3b/relu_5x5
I0403 15:22:12.467814 11885 net.cpp:148] Top shape: 24 96 28 28 (1806336)
I0403 15:22:12.467828 11885 net.cpp:156] Memory required for data: 744211488
I0403 15:22:12.467844 11885 layer_factory.hpp:77] Creating layer inception_3b/pool
I0403 15:22:12.467861 11885 net.cpp:91] Creating Layer inception_3b/pool
I0403 15:22:12.467876 11885 net.cpp:425] inception_3b/pool <- inception_3a/output_inception_3a/output_0_split_3
I0403 15:22:12.467897 11885 net.cpp:399] inception_3b/pool -> inception_3b/pool
I0403 15:22:12.467953 11885 net.cpp:141] Setting up inception_3b/pool
I0403 15:22:12.467977 11885 net.cpp:148] Top shape: 24 256 28 28 (4816896)
I0403 15:22:12.467991 11885 net.cpp:156] Memory required for data: 763479072
I0403 15:22:12.468005 11885 layer_factory.hpp:77] Creating layer inception_3b/pool_proj
I0403 15:22:12.468027 11885 net.cpp:91] Creating Layer inception_3b/pool_proj
I0403 15:22:12.468044 11885 net.cpp:425] inception_3b/pool_proj <- inception_3b/pool
I0403 15:22:12.468065 11885 net.cpp:399] inception_3b/pool_proj -> inception_3b/pool_proj
I0403 15:22:12.469135 11885 net.cpp:141] Setting up inception_3b/pool_proj
I0403 15:22:12.469167 11885 net.cpp:148] Top shape: 24 64 28 28 (1204224)
I0403 15:22:12.469185 11885 net.cpp:156] Memory required for data: 768295968
I0403 15:22:12.469205 11885 layer_factory.hpp:77] Creating layer inception_3b/relu_pool_proj
I0403 15:22:12.469223 11885 net.cpp:91] Creating Layer inception_3b/relu_pool_proj
I0403 15:22:12.469239 11885 net.cpp:425] inception_3b/relu_pool_proj <- inception_3b/pool_proj
I0403 15:22:12.469256 11885 net.cpp:386] inception_3b/relu_pool_proj -> inception_3b/pool_proj (in-place)
I0403 15:22:12.469666 11885 net.cpp:141] Setting up inception_3b/relu_pool_proj
I0403 15:22:12.469691 11885 net.cpp:148] Top shape: 24 64 28 28 (1204224)
I0403 15:22:12.469707 11885 net.cpp:156] Memory required for data: 773112864
I0403 15:22:12.469720 11885 layer_factory.hpp:77] Creating layer inception_3b/output
I0403 15:22:12.469740 11885 net.cpp:91] Creating Layer inception_3b/output
I0403 15:22:12.469756 11885 net.cpp:425] inception_3b/output <- inception_3b/1x1
I0403 15:22:12.469774 11885 net.cpp:425] inception_3b/output <- inception_3b/3x3
I0403 15:22:12.469789 11885 net.cpp:425] inception_3b/output <- inception_3b/5x5
I0403 15:22:12.469805 11885 net.cpp:425] inception_3b/output <- inception_3b/pool_proj
I0403 15:22:12.469821 11885 net.cpp:399] inception_3b/output -> inception_3b/output
I0403 15:22:12.469867 11885 net.cpp:141] Setting up inception_3b/output
I0403 15:22:12.469892 11885 net.cpp:148] Top shape: 24 480 28 28 (9031680)
I0403 15:22:12.469905 11885 net.cpp:156] Memory required for data: 809239584
I0403 15:22:12.469920 11885 layer_factory.hpp:77] Creating layer pool3/3x3_s2
I0403 15:22:12.469938 11885 net.cpp:91] Creating Layer pool3/3x3_s2
I0403 15:22:12.469954 11885 net.cpp:425] pool3/3x3_s2 <- inception_3b/output
I0403 15:22:12.469988 11885 net.cpp:399] pool3/3x3_s2 -> pool3/3x3_s2
I0403 15:22:12.470048 11885 net.cpp:141] Setting up pool3/3x3_s2
I0403 15:22:12.470072 11885 net.cpp:148] Top shape: 24 480 14 14 (2257920)
I0403 15:22:12.470088 11885 net.cpp:156] Memory required for data: 818271264
I0403 15:22:12.470101 11885 layer_factory.hpp:77] Creating layer pool3/3x3_s2_pool3/3x3_s2_0_split
I0403 15:22:12.470121 11885 net.cpp:91] Creating Layer pool3/3x3_s2_pool3/3x3_s2_0_split
I0403 15:22:12.470137 11885 net.cpp:425] pool3/3x3_s2_pool3/3x3_s2_0_split <- pool3/3x3_s2
I0403 15:22:12.470157 11885 net.cpp:399] pool3/3x3_s2_pool3/3x3_s2_0_split -> pool3/3x3_s2_pool3/3x3_s2_0_split_0
I0403 15:22:12.470176 11885 net.cpp:399] pool3/3x3_s2_pool3/3x3_s2_0_split -> pool3/3x3_s2_pool3/3x3_s2_0_split_1
I0403 15:22:12.470196 11885 net.cpp:399] pool3/3x3_s2_pool3/3x3_s2_0_split -> pool3/3x3_s2_pool3/3x3_s2_0_split_2
I0403 15:22:12.470216 11885 net.cpp:399] pool3/3x3_s2_pool3/3x3_s2_0_split -> pool3/3x3_s2_pool3/3x3_s2_0_split_3
I0403 15:22:12.470289 11885 net.cpp:141] Setting up pool3/3x3_s2_pool3/3x3_s2_0_split
I0403 15:22:12.470315 11885 net.cpp:148] Top shape: 24 480 14 14 (2257920)
I0403 15:22:12.470331 11885 net.cpp:148] Top shape: 24 480 14 14 (2257920)
I0403 15:22:12.470347 11885 net.cpp:148] Top shape: 24 480 14 14 (2257920)
I0403 15:22:12.470363 11885 net.cpp:148] Top shape: 24 480 14 14 (2257920)
I0403 15:22:12.470376 11885 net.cpp:156] Memory required for data: 854397984
I0403 15:22:12.470396 11885 layer_factory.hpp:77] Creating layer inception_4a/1x1
I0403 15:22:12.470418 11885 net.cpp:91] Creating Layer inception_4a/1x1
I0403 15:22:12.470435 11885 net.cpp:425] inception_4a/1x1 <- pool3/3x3_s2_pool3/3x3_s2_0_split_0
I0403 15:22:12.470454 11885 net.cpp:399] inception_4a/1x1 -> inception_4a/1x1
I0403 15:22:12.472051 11885 net.cpp:141] Setting up inception_4a/1x1
I0403 15:22:12.472084 11885 net.cpp:148] Top shape: 24 192 14 14 (903168)
I0403 15:22:12.472100 11885 net.cpp:156] Memory required for data: 858010656
I0403 15:22:12.472118 11885 layer_factory.hpp:77] Creating layer inception_4a/relu_1x1
I0403 15:22:12.472136 11885 net.cpp:91] Creating Layer inception_4a/relu_1x1
I0403 15:22:12.472151 11885 net.cpp:425] inception_4a/relu_1x1 <- inception_4a/1x1
I0403 15:22:12.472169 11885 net.cpp:386] inception_4a/relu_1x1 -> inception_4a/1x1 (in-place)
I0403 15:22:12.472353 11885 net.cpp:141] Setting up inception_4a/relu_1x1
I0403 15:22:12.472388 11885 net.cpp:148] Top shape: 24 192 14 14 (903168)
I0403 15:22:12.472407 11885 net.cpp:156] Memory required for data: 861623328
I0403 15:22:12.472422 11885 layer_factory.hpp:77] Creating layer inception_4a/3x3_reduce
I0403 15:22:12.472445 11885 net.cpp:91] Creating Layer inception_4a/3x3_reduce
I0403 15:22:12.472461 11885 net.cpp:425] inception_4a/3x3_reduce <- pool3/3x3_s2_pool3/3x3_s2_0_split_1
I0403 15:22:12.472482 11885 net.cpp:399] inception_4a/3x3_reduce -> inception_4a/3x3_reduce
I0403 15:22:12.473778 11885 net.cpp:141] Setting up inception_4a/3x3_reduce
I0403 15:22:12.473810 11885 net.cpp:148] Top shape: 24 96 14 14 (451584)
I0403 15:22:12.473827 11885 net.cpp:156] Memory required for data: 863429664
I0403 15:22:12.473851 11885 layer_factory.hpp:77] Creating layer inception_4a/relu_3x3_reduce
I0403 15:22:12.473873 11885 net.cpp:91] Creating Layer inception_4a/relu_3x3_reduce
I0403 15:22:12.473889 11885 net.cpp:425] inception_4a/relu_3x3_reduce <- inception_4a/3x3_reduce
I0403 15:22:12.473907 11885 net.cpp:386] inception_4a/relu_3x3_reduce -> inception_4a/3x3_reduce (in-place)
I0403 15:22:12.474084 11885 net.cpp:141] Setting up inception_4a/relu_3x3_reduce
I0403 15:22:12.474112 11885 net.cpp:148] Top shape: 24 96 14 14 (451584)
I0403 15:22:12.474128 11885 net.cpp:156] Memory required for data: 865236000
I0403 15:22:12.474143 11885 layer_factory.hpp:77] Creating layer inception_4a/3x3
I0403 15:22:12.474164 11885 net.cpp:91] Creating Layer inception_4a/3x3
I0403 15:22:12.474182 11885 net.cpp:425] inception_4a/3x3 <- inception_4a/3x3_reduce
I0403 15:22:12.474203 11885 net.cpp:399] inception_4a/3x3 -> inception_4a/3x3
I0403 15:22:12.476976 11885 net.cpp:141] Setting up inception_4a/3x3
I0403 15:22:12.477006 11885 net.cpp:148] Top shape: 24 208 14 14 (978432)
I0403 15:22:12.477021 11885 net.cpp:156] Memory required for data: 869149728
I0403 15:22:12.477041 11885 layer_factory.hpp:77] Creating layer inception_4a/relu_3x3
I0403 15:22:12.477057 11885 net.cpp:91] Creating Layer inception_4a/relu_3x3
I0403 15:22:12.477073 11885 net.cpp:425] inception_4a/relu_3x3 <- inception_4a/3x3
I0403 15:22:12.477092 11885 net.cpp:386] inception_4a/relu_3x3 -> inception_4a/3x3 (in-place)
I0403 15:22:12.477393 11885 net.cpp:141] Setting up inception_4a/relu_3x3
I0403 15:22:12.477421 11885 net.cpp:148] Top shape: 24 208 14 14 (978432)
I0403 15:22:12.477437 11885 net.cpp:156] Memory required for data: 873063456
I0403 15:22:12.477452 11885 layer_factory.hpp:77] Creating layer inception_4a/5x5_reduce
I0403 15:22:12.477475 11885 net.cpp:91] Creating Layer inception_4a/5x5_reduce
I0403 15:22:12.477494 11885 net.cpp:425] inception_4a/5x5_reduce <- pool3/3x3_s2_pool3/3x3_s2_0_split_2
I0403 15:22:12.477515 11885 net.cpp:399] inception_4a/5x5_reduce -> inception_4a/5x5_reduce
I0403 15:22:12.478579 11885 net.cpp:141] Setting up inception_4a/5x5_reduce
I0403 15:22:12.478608 11885 net.cpp:148] Top shape: 24 16 14 14 (75264)
I0403 15:22:12.478624 11885 net.cpp:156] Memory required for data: 873364512
I0403 15:22:12.478646 11885 layer_factory.hpp:77] Creating layer inception_4a/relu_5x5_reduce
I0403 15:22:12.478667 11885 net.cpp:91] Creating Layer inception_4a/relu_5x5_reduce
I0403 15:22:12.478683 11885 net.cpp:425] inception_4a/relu_5x5_reduce <- inception_4a/5x5_reduce
I0403 15:22:12.478703 11885 net.cpp:386] inception_4a/relu_5x5_reduce -> inception_4a/5x5_reduce (in-place)
I0403 15:22:12.478885 11885 net.cpp:141] Setting up inception_4a/relu_5x5_reduce
I0403 15:22:12.478912 11885 net.cpp:148] Top shape: 24 16 14 14 (75264)
I0403 15:22:12.478929 11885 net.cpp:156] Memory required for data: 873665568
I0403 15:22:12.478945 11885 layer_factory.hpp:77] Creating layer inception_4a/5x5
I0403 15:22:12.478968 11885 net.cpp:91] Creating Layer inception_4a/5x5
I0403 15:22:12.478987 11885 net.cpp:425] inception_4a/5x5 <- inception_4a/5x5_reduce
I0403 15:22:12.479009 11885 net.cpp:399] inception_4a/5x5 -> inception_4a/5x5
I0403 15:22:12.480134 11885 net.cpp:141] Setting up inception_4a/5x5
I0403 15:22:12.480164 11885 net.cpp:148] Top shape: 24 48 14 14 (225792)
I0403 15:22:12.480180 11885 net.cpp:156] Memory required for data: 874568736
I0403 15:22:12.480197 11885 layer_factory.hpp:77] Creating layer inception_4a/relu_5x5
I0403 15:22:12.480218 11885 net.cpp:91] Creating Layer inception_4a/relu_5x5
I0403 15:22:12.480235 11885 net.cpp:425] inception_4a/relu_5x5 <- inception_4a/5x5
I0403 15:22:12.480253 11885 net.cpp:386] inception_4a/relu_5x5 -> inception_4a/5x5 (in-place)
I0403 15:22:12.480443 11885 net.cpp:141] Setting up inception_4a/relu_5x5
I0403 15:22:12.480470 11885 net.cpp:148] Top shape: 24 48 14 14 (225792)
I0403 15:22:12.480485 11885 net.cpp:156] Memory required for data: 875471904
I0403 15:22:12.480500 11885 layer_factory.hpp:77] Creating layer inception_4a/pool
I0403 15:22:12.480518 11885 net.cpp:91] Creating Layer inception_4a/pool
I0403 15:22:12.480535 11885 net.cpp:425] inception_4a/pool <- pool3/3x3_s2_pool3/3x3_s2_0_split_3
I0403 15:22:12.480556 11885 net.cpp:399] inception_4a/pool -> inception_4a/pool
I0403 15:22:12.480620 11885 net.cpp:141] Setting up inception_4a/pool
I0403 15:22:12.480645 11885 net.cpp:148] Top shape: 24 480 14 14 (2257920)
I0403 15:22:12.480659 11885 net.cpp:156] Memory required for data: 884503584
I0403 15:22:12.480674 11885 layer_factory.hpp:77] Creating layer inception_4a/pool_proj
I0403 15:22:12.480700 11885 net.cpp:91] Creating Layer inception_4a/pool_proj
I0403 15:22:12.480717 11885 net.cpp:425] inception_4a/pool_proj <- inception_4a/pool
I0403 15:22:12.480736 11885 net.cpp:399] inception_4a/pool_proj -> inception_4a/pool_proj
I0403 15:22:12.481947 11885 net.cpp:141] Setting up inception_4a/pool_proj
I0403 15:22:12.481981 11885 net.cpp:148] Top shape: 24 64 14 14 (301056)
I0403 15:22:12.482014 11885 net.cpp:156] Memory required for data: 885707808
I0403 15:22:12.482034 11885 layer_factory.hpp:77] Creating layer inception_4a/relu_pool_proj
I0403 15:22:12.482054 11885 net.cpp:91] Creating Layer inception_4a/relu_pool_proj
I0403 15:22:12.482071 11885 net.cpp:425] inception_4a/relu_pool_proj <- inception_4a/pool_proj
I0403 15:22:12.482094 11885 net.cpp:386] inception_4a/relu_pool_proj -> inception_4a/pool_proj (in-place)
I0403 15:22:12.482399 11885 net.cpp:141] Setting up inception_4a/relu_pool_proj
I0403 15:22:12.482431 11885 net.cpp:148] Top shape: 24 64 14 14 (301056)
I0403 15:22:12.482450 11885 net.cpp:156] Memory required for data: 886912032
I0403 15:22:12.482466 11885 layer_factory.hpp:77] Creating layer inception_4a/output
I0403 15:22:12.482484 11885 net.cpp:91] Creating Layer inception_4a/output
I0403 15:22:12.482501 11885 net.cpp:425] inception_4a/output <- inception_4a/1x1
I0403 15:22:12.482520 11885 net.cpp:425] inception_4a/output <- inception_4a/3x3
I0403 15:22:12.482537 11885 net.cpp:425] inception_4a/output <- inception_4a/5x5
I0403 15:22:12.482553 11885 net.cpp:425] inception_4a/output <- inception_4a/pool_proj
I0403 15:22:12.482571 11885 net.cpp:399] inception_4a/output -> inception_4a/output
I0403 15:22:12.482621 11885 net.cpp:141] Setting up inception_4a/output
I0403 15:22:12.482647 11885 net.cpp:148] Top shape: 24 512 14 14 (2408448)
I0403 15:22:12.482663 11885 net.cpp:156] Memory required for data: 896545824
I0403 15:22:12.482679 11885 layer_factory.hpp:77] Creating layer inception_4a/output_inception_4a/output_0_split
I0403 15:22:12.482700 11885 net.cpp:91] Creating Layer inception_4a/output_inception_4a/output_0_split
I0403 15:22:12.482718 11885 net.cpp:425] inception_4a/output_inception_4a/output_0_split <- inception_4a/output
I0403 15:22:12.482738 11885 net.cpp:399] inception_4a/output_inception_4a/output_0_split -> inception_4a/output_inception_4a/output_0_split_0
I0403 15:22:12.482759 11885 net.cpp:399] inception_4a/output_inception_4a/output_0_split -> inception_4a/output_inception_4a/output_0_split_1
I0403 15:22:12.482781 11885 net.cpp:399] inception_4a/output_inception_4a/output_0_split -> inception_4a/output_inception_4a/output_0_split_2
I0403 15:22:12.482806 11885 net.cpp:399] inception_4a/output_inception_4a/output_0_split -> inception_4a/output_inception_4a/output_0_split_3
I0403 15:22:12.482826 11885 net.cpp:399] inception_4a/output_inception_4a/output_0_split -> inception_4a/output_inception_4a/output_0_split_4
I0403 15:22:12.482923 11885 net.cpp:141] Setting up inception_4a/output_inception_4a/output_0_split
I0403 15:22:12.482947 11885 net.cpp:148] Top shape: 24 512 14 14 (2408448)
I0403 15:22:12.482964 11885 net.cpp:148] Top shape: 24 512 14 14 (2408448)
I0403 15:22:12.482980 11885 net.cpp:148] Top shape: 24 512 14 14 (2408448)
I0403 15:22:12.482995 11885 net.cpp:148] Top shape: 24 512 14 14 (2408448)
I0403 15:22:12.483011 11885 net.cpp:148] Top shape: 24 512 14 14 (2408448)
I0403 15:22:12.483026 11885 net.cpp:156] Memory required for data: 944714784
I0403 15:22:12.483041 11885 layer_factory.hpp:77] Creating layer loss1/ave_pool
I0403 15:22:12.483058 11885 net.cpp:91] Creating Layer loss1/ave_pool
I0403 15:22:12.483074 11885 net.cpp:425] loss1/ave_pool <- inception_4a/output_inception_4a/output_0_split_0
I0403 15:22:12.483096 11885 net.cpp:399] loss1/ave_pool -> loss1/ave_pool
I0403 15:22:12.483309 11885 net.cpp:141] Setting up loss1/ave_pool
I0403 15:22:12.483340 11885 net.cpp:148] Top shape: 24 512 4 4 (196608)
I0403 15:22:12.483356 11885 net.cpp:156] Memory required for data: 945501216
I0403 15:22:12.483372 11885 layer_factory.hpp:77] Creating layer loss1/conv
I0403 15:22:12.483402 11885 net.cpp:91] Creating Layer loss1/conv
I0403 15:22:12.483420 11885 net.cpp:425] loss1/conv <- loss1/ave_pool
I0403 15:22:12.483440 11885 net.cpp:399] loss1/conv -> loss1/conv
I0403 15:22:12.484907 11885 net.cpp:141] Setting up loss1/conv
I0403 15:22:12.484938 11885 net.cpp:148] Top shape: 24 128 4 4 (49152)
I0403 15:22:12.484971 11885 net.cpp:156] Memory required for data: 945697824
I0403 15:22:12.484992 11885 layer_factory.hpp:77] Creating layer loss1/relu_conv
I0403 15:22:12.485013 11885 net.cpp:91] Creating Layer loss1/relu_conv
I0403 15:22:12.485029 11885 net.cpp:425] loss1/relu_conv <- loss1/conv
I0403 15:22:12.485051 11885 net.cpp:386] loss1/relu_conv -> loss1/conv (in-place)
I0403 15:22:12.485344 11885 net.cpp:141] Setting up loss1/relu_conv
I0403 15:22:12.485374 11885 net.cpp:148] Top shape: 24 128 4 4 (49152)
I0403 15:22:12.485395 11885 net.cpp:156] Memory required for data: 945894432
I0403 15:22:12.485412 11885 layer_factory.hpp:77] Creating layer loss1/fc
I0403 15:22:12.485437 11885 net.cpp:91] Creating Layer loss1/fc
I0403 15:22:12.485456 11885 net.cpp:425] loss1/fc <- loss1/conv
I0403 15:22:12.485478 11885 net.cpp:399] loss1/fc -> loss1/fc
I0403 15:22:12.504272 11885 net.cpp:141] Setting up loss1/fc
I0403 15:22:12.504339 11885 net.cpp:148] Top shape: 24 1024 (24576)
I0403 15:22:12.504356 11885 net.cpp:156] Memory required for data: 945992736
I0403 15:22:12.504377 11885 layer_factory.hpp:77] Creating layer loss1/relu_fc
I0403 15:22:12.504403 11885 net.cpp:91] Creating Layer loss1/relu_fc
I0403 15:22:12.504422 11885 net.cpp:425] loss1/relu_fc <- loss1/fc
I0403 15:22:12.504441 11885 net.cpp:386] loss1/relu_fc -> loss1/fc (in-place)
I0403 15:22:12.504662 11885 net.cpp:141] Setting up loss1/relu_fc
I0403 15:22:12.504689 11885 net.cpp:148] Top shape: 24 1024 (24576)
I0403 15:22:12.504705 11885 net.cpp:156] Memory required for data: 946091040
I0403 15:22:12.504722 11885 layer_factory.hpp:77] Creating layer loss1/drop_fc
I0403 15:22:12.504752 11885 net.cpp:91] Creating Layer loss1/drop_fc
I0403 15:22:12.504770 11885 net.cpp:425] loss1/drop_fc <- loss1/fc
I0403 15:22:12.504791 11885 net.cpp:386] loss1/drop_fc -> loss1/fc (in-place)
I0403 15:22:12.504848 11885 net.cpp:141] Setting up loss1/drop_fc
I0403 15:22:12.504873 11885 net.cpp:148] Top shape: 24 1024 (24576)
I0403 15:22:12.504889 11885 net.cpp:156] Memory required for data: 946189344
I0403 15:22:12.504905 11885 layer_factory.hpp:77] Creating layer loss1/classifier_plantvillage
I0403 15:22:12.504930 11885 net.cpp:91] Creating Layer loss1/classifier_plantvillage
I0403 15:22:12.504950 11885 net.cpp:425] loss1/classifier_plantvillage <- loss1/fc
I0403 15:22:12.504971 11885 net.cpp:399] loss1/classifier_plantvillage -> loss1/classifier_plantvillage
I0403 15:22:12.505970 11885 net.cpp:141] Setting up loss1/classifier_plantvillage
I0403 15:22:12.506000 11885 net.cpp:148] Top shape: 24 38 (912)
I0403 15:22:12.506016 11885 net.cpp:156] Memory required for data: 946192992
I0403 15:22:12.506033 11885 layer_factory.hpp:77] Creating layer loss1/classifier_plantvillage_loss1/classifier_plantvillage_0_split
I0403 15:22:12.506052 11885 net.cpp:91] Creating Layer loss1/classifier_plantvillage_loss1/classifier_plantvillage_0_split
I0403 15:22:12.506067 11885 net.cpp:425] loss1/classifier_plantvillage_loss1/classifier_plantvillage_0_split <- loss1/classifier_plantvillage
I0403 15:22:12.506088 11885 net.cpp:399] loss1/classifier_plantvillage_loss1/classifier_plantvillage_0_split -> loss1/classifier_plantvillage_loss1/classifier_plantvillage_0_split_0
I0403 15:22:12.506109 11885 net.cpp:399] loss1/classifier_plantvillage_loss1/classifier_plantvillage_0_split -> loss1/classifier_plantvillage_loss1/classifier_plantvillage_0_split_1
I0403 15:22:12.506130 11885 net.cpp:399] loss1/classifier_plantvillage_loss1/classifier_plantvillage_0_split -> loss1/classifier_plantvillage_loss1/classifier_plantvillage_0_split_2
I0403 15:22:12.506201 11885 net.cpp:141] Setting up loss1/classifier_plantvillage_loss1/classifier_plantvillage_0_split
I0403 15:22:12.506223 11885 net.cpp:148] Top shape: 24 38 (912)
I0403 15:22:12.506239 11885 net.cpp:148] Top shape: 24 38 (912)
I0403 15:22:12.506255 11885 net.cpp:148] Top shape: 24 38 (912)
I0403 15:22:12.506269 11885 net.cpp:156] Memory required for data: 946203936
I0403 15:22:12.506284 11885 layer_factory.hpp:77] Creating layer inception_4b/1x1
I0403 15:22:12.506309 11885 net.cpp:91] Creating Layer inception_4b/1x1
I0403 15:22:12.506351 11885 net.cpp:425] inception_4b/1x1 <- inception_4a/output_inception_4a/output_0_split_1
I0403 15:22:12.506372 11885 net.cpp:399] inception_4b/1x1 -> inception_4b/1x1
I0403 15:22:12.508141 11885 net.cpp:141] Setting up inception_4b/1x1
I0403 15:22:12.508173 11885 net.cpp:148] Top shape: 24 160 14 14 (752640)
I0403 15:22:12.508189 11885 net.cpp:156] Memory required for data: 949214496
I0403 15:22:12.508209 11885 layer_factory.hpp:77] Creating layer inception_4b/relu_1x1
I0403 15:22:12.508229 11885 net.cpp:91] Creating Layer inception_4b/relu_1x1
I0403 15:22:12.508246 11885 net.cpp:425] inception_4b/relu_1x1 <- inception_4b/1x1
I0403 15:22:12.508267 11885 net.cpp:386] inception_4b/relu_1x1 -> inception_4b/1x1 (in-place)
I0403 15:22:12.508463 11885 net.cpp:141] Setting up inception_4b/relu_1x1
I0403 15:22:12.508489 11885 net.cpp:148] Top shape: 24 160 14 14 (752640)
I0403 15:22:12.508504 11885 net.cpp:156] Memory required for data: 952225056
I0403 15:22:12.508520 11885 layer_factory.hpp:77] Creating layer inception_4b/3x3_reduce
I0403 15:22:12.508543 11885 net.cpp:91] Creating Layer inception_4b/3x3_reduce
I0403 15:22:12.508561 11885 net.cpp:425] inception_4b/3x3_reduce <- inception_4a/output_inception_4a/output_0_split_2
I0403 15:22:12.508582 11885 net.cpp:399] inception_4b/3x3_reduce -> inception_4b/3x3_reduce
I0403 15:22:12.510002 11885 net.cpp:141] Setting up inception_4b/3x3_reduce
I0403 15:22:12.510033 11885 net.cpp:148] Top shape: 24 112 14 14 (526848)
I0403 15:22:12.510049 11885 net.cpp:156] Memory required for data: 954332448
I0403 15:22:12.510069 11885 layer_factory.hpp:77] Creating layer inception_4b/relu_3x3_reduce
I0403 15:22:12.510092 11885 net.cpp:91] Creating Layer inception_4b/relu_3x3_reduce
I0403 15:22:12.510110 11885 net.cpp:425] inception_4b/relu_3x3_reduce <- inception_4b/3x3_reduce
I0403 15:22:12.510128 11885 net.cpp:386] inception_4b/relu_3x3_reduce -> inception_4b/3x3_reduce (in-place)
I0403 15:22:12.510432 11885 net.cpp:141] Setting up inception_4b/relu_3x3_reduce
I0403 15:22:12.510460 11885 net.cpp:148] Top shape: 24 112 14 14 (526848)
I0403 15:22:12.510475 11885 net.cpp:156] Memory required for data: 956439840
I0403 15:22:12.510490 11885 layer_factory.hpp:77] Creating layer inception_4b/3x3
I0403 15:22:12.510514 11885 net.cpp:91] Creating Layer inception_4b/3x3
I0403 15:22:12.510532 11885 net.cpp:425] inception_4b/3x3 <- inception_4b/3x3_reduce
I0403 15:22:12.510553 11885 net.cpp:399] inception_4b/3x3 -> inception_4b/3x3
I0403 15:22:12.513629 11885 net.cpp:141] Setting up inception_4b/3x3
I0403 15:22:12.513665 11885 net.cpp:148] Top shape: 24 224 14 14 (1053696)
I0403 15:22:12.513689 11885 net.cpp:156] Memory required for data: 960654624
I0403 15:22:12.513708 11885 layer_factory.hpp:77] Creating layer inception_4b/relu_3x3
I0403 15:22:12.513726 11885 net.cpp:91] Creating Layer inception_4b/relu_3x3
I0403 15:22:12.513742 11885 net.cpp:425] inception_4b/relu_3x3 <- inception_4b/3x3
I0403 15:22:12.513762 11885 net.cpp:386] inception_4b/relu_3x3 -> inception_4b/3x3 (in-place)
I0403 15:22:12.513947 11885 net.cpp:141] Setting up inception_4b/relu_3x3
I0403 15:22:12.513972 11885 net.cpp:148] Top shape: 24 224 14 14 (1053696)
I0403 15:22:12.513988 11885 net.cpp:156] Memory required for data: 964869408
I0403 15:22:12.514003 11885 layer_factory.hpp:77] Creating layer inception_4b/5x5_reduce
I0403 15:22:12.514026 11885 net.cpp:91] Creating Layer inception_4b/5x5_reduce
I0403 15:22:12.514044 11885 net.cpp:425] inception_4b/5x5_reduce <- inception_4a/output_inception_4a/output_0_split_3
I0403 15:22:12.514065 11885 net.cpp:399] inception_4b/5x5_reduce -> inception_4b/5x5_reduce
I0403 15:22:12.515161 11885 net.cpp:141] Setting up inception_4b/5x5_reduce
I0403 15:22:12.515190 11885 net.cpp:148] Top shape: 24 24 14 14 (112896)
I0403 15:22:12.515207 11885 net.cpp:156] Memory required for data: 965320992
I0403 15:22:12.515226 11885 layer_factory.hpp:77] Creating layer inception_4b/relu_5x5_reduce
I0403 15:22:12.515247 11885 net.cpp:91] Creating Layer inception_4b/relu_5x5_reduce
I0403 15:22:12.515280 11885 net.cpp:425] inception_4b/relu_5x5_reduce <- inception_4b/5x5_reduce
I0403 15:22:12.515300 11885 net.cpp:386] inception_4b/relu_5x5_reduce -> inception_4b/5x5_reduce (in-place)
I0403 15:22:12.515491 11885 net.cpp:141] Setting up inception_4b/relu_5x5_reduce
I0403 15:22:12.515516 11885 net.cpp:148] Top shape: 24 24 14 14 (112896)
I0403 15:22:12.515532 11885 net.cpp:156] Memory required for data: 965772576
I0403 15:22:12.515547 11885 layer_factory.hpp:77] Creating layer inception_4b/5x5
I0403 15:22:12.515569 11885 net.cpp:91] Creating Layer inception_4b/5x5
I0403 15:22:12.515588 11885 net.cpp:425] inception_4b/5x5 <- inception_4b/5x5_reduce
I0403 15:22:12.515609 11885 net.cpp:399] inception_4b/5x5 -> inception_4b/5x5
I0403 15:22:12.516854 11885 net.cpp:141] Setting up inception_4b/5x5
I0403 15:22:12.516882 11885 net.cpp:148] Top shape: 24 64 14 14 (301056)
I0403 15:22:12.516898 11885 net.cpp:156] Memory required for data: 966976800
I0403 15:22:12.516918 11885 layer_factory.hpp:77] Creating layer inception_4b/relu_5x5
I0403 15:22:12.516937 11885 net.cpp:91] Creating Layer inception_4b/relu_5x5
I0403 15:22:12.516952 11885 net.cpp:425] inception_4b/relu_5x5 <- inception_4b/5x5
I0403 15:22:12.516971 11885 net.cpp:386] inception_4b/relu_5x5 -> inception_4b/5x5 (in-place)
I0403 15:22:12.517261 11885 net.cpp:141] Setting up inception_4b/relu_5x5
I0403 15:22:12.517289 11885 net.cpp:148] Top shape: 24 64 14 14 (301056)
I0403 15:22:12.517305 11885 net.cpp:156] Memory required for data: 968181024
I0403 15:22:12.517323 11885 layer_factory.hpp:77] Creating layer inception_4b/pool
I0403 15:22:12.517341 11885 net.cpp:91] Creating Layer inception_4b/pool
I0403 15:22:12.517357 11885 net.cpp:425] inception_4b/pool <- inception_4a/output_inception_4a/output_0_split_4
I0403 15:22:12.517385 11885 net.cpp:399] inception_4b/pool -> inception_4b/pool
I0403 15:22:12.517455 11885 net.cpp:141] Setting up inception_4b/pool
I0403 15:22:12.517480 11885 net.cpp:148] Top shape: 24 512 14 14 (2408448)
I0403 15:22:12.517495 11885 net.cpp:156] Memory required for data: 977814816
I0403 15:22:12.517510 11885 layer_factory.hpp:77] Creating layer inception_4b/pool_proj
I0403 15:22:12.517534 11885 net.cpp:91] Creating Layer inception_4b/pool_proj
I0403 15:22:12.517552 11885 net.cpp:425] inception_4b/pool_proj <- inception_4b/pool
I0403 15:22:12.517571 11885 net.cpp:399] inception_4b/pool_proj -> inception_4b/pool_proj
I0403 15:22:12.518800 11885 net.cpp:141] Setting up inception_4b/pool_proj
I0403 15:22:12.518828 11885 net.cpp:148] Top shape: 24 64 14 14 (301056)
I0403 15:22:12.518843 11885 net.cpp:156] Memory required for data: 979019040
I0403 15:22:12.518863 11885 layer_factory.hpp:77] Creating layer inception_4b/relu_pool_proj
I0403 15:22:12.518882 11885 net.cpp:91] Creating Layer inception_4b/relu_pool_proj
I0403 15:22:12.518899 11885 net.cpp:425] inception_4b/relu_pool_proj <- inception_4b/pool_proj
I0403 15:22:12.518918 11885 net.cpp:386] inception_4b/relu_pool_proj -> inception_4b/pool_proj (in-place)
I0403 15:22:12.519106 11885 net.cpp:141] Setting up inception_4b/relu_pool_proj
I0403 15:22:12.519134 11885 net.cpp:148] Top shape: 24 64 14 14 (301056)
I0403 15:22:12.519150 11885 net.cpp:156] Memory required for data: 980223264
I0403 15:22:12.519165 11885 layer_factory.hpp:77] Creating layer inception_4b/output
I0403 15:22:12.519181 11885 net.cpp:91] Creating Layer inception_4b/output
I0403 15:22:12.519196 11885 net.cpp:425] inception_4b/output <- inception_4b/1x1
I0403 15:22:12.519212 11885 net.cpp:425] inception_4b/output <- inception_4b/3x3
I0403 15:22:12.519227 11885 net.cpp:425] inception_4b/output <- inception_4b/5x5
I0403 15:22:12.519243 11885 net.cpp:425] inception_4b/output <- inception_4b/pool_proj
I0403 15:22:12.519260 11885 net.cpp:399] inception_4b/output -> inception_4b/output
I0403 15:22:12.519306 11885 net.cpp:141] Setting up inception_4b/output
I0403 15:22:12.519330 11885 net.cpp:148] Top shape: 24 512 14 14 (2408448)
I0403 15:22:12.519343 11885 net.cpp:156] Memory required for data: 989857056
I0403 15:22:12.519372 11885 layer_factory.hpp:77] Creating layer inception_4b/output_inception_4b/output_0_split
I0403 15:22:12.519395 11885 net.cpp:91] Creating Layer inception_4b/output_inception_4b/output_0_split
I0403 15:22:12.519415 11885 net.cpp:425] inception_4b/output_inception_4b/output_0_split <- inception_4b/output
I0403 15:22:12.519433 11885 net.cpp:399] inception_4b/output_inception_4b/output_0_split -> inception_4b/output_inception_4b/output_0_split_0
I0403 15:22:12.519453 11885 net.cpp:399] inception_4b/output_inception_4b/output_0_split -> inception_4b/output_inception_4b/output_0_split_1
I0403 15:22:12.519472 11885 net.cpp:399] inception_4b/output_inception_4b/output_0_split -> inception_4b/output_inception_4b/output_0_split_2
I0403 15:22:12.519491 11885 net.cpp:399] inception_4b/output_inception_4b/output_0_split -> inception_4b/output_inception_4b/output_0_split_3
I0403 15:22:12.519577 11885 net.cpp:141] Setting up inception_4b/output_inception_4b/output_0_split
I0403 15:22:12.519600 11885 net.cpp:148] Top shape: 24 512 14 14 (2408448)
I0403 15:22:12.519616 11885 net.cpp:148] Top shape: 24 512 14 14 (2408448)
I0403 15:22:12.519630 11885 net.cpp:148] Top shape: 24 512 14 14 (2408448)
I0403 15:22:12.519645 11885 net.cpp:148] Top shape: 24 512 14 14 (2408448)
I0403 15:22:12.519659 11885 net.cpp:156] Memory required for data: 1028392224
I0403 15:22:12.519672 11885 layer_factory.hpp:77] Creating layer inception_4c/1x1
I0403 15:22:12.519695 11885 net.cpp:91] Creating Layer inception_4c/1x1
I0403 15:22:12.519711 11885 net.cpp:425] inception_4c/1x1 <- inception_4b/output_inception_4b/output_0_split_0
I0403 15:22:12.519732 11885 net.cpp:399] inception_4c/1x1 -> inception_4c/1x1
I0403 15:22:12.521149 11885 net.cpp:141] Setting up inception_4c/1x1
I0403 15:22:12.521181 11885 net.cpp:148] Top shape: 24 128 14 14 (602112)
I0403 15:22:12.521198 11885 net.cpp:156] Memory required for data: 1030800672
I0403 15:22:12.521216 11885 layer_factory.hpp:77] Creating layer inception_4c/relu_1x1
I0403 15:22:12.521234 11885 net.cpp:91] Creating Layer inception_4c/relu_1x1
I0403 15:22:12.521250 11885 net.cpp:425] inception_4c/relu_1x1 <- inception_4c/1x1
I0403 15:22:12.521267 11885 net.cpp:386] inception_4c/relu_1x1 -> inception_4c/1x1 (in-place)
I0403 15:22:12.521455 11885 net.cpp:141] Setting up inception_4c/relu_1x1
I0403 15:22:12.521479 11885 net.cpp:148] Top shape: 24 128 14 14 (602112)
I0403 15:22:12.521494 11885 net.cpp:156] Memory required for data: 1033209120
I0403 15:22:12.521508 11885 layer_factory.hpp:77] Creating layer inception_4c/3x3_reduce
I0403 15:22:12.521529 11885 net.cpp:91] Creating Layer inception_4c/3x3_reduce
I0403 15:22:12.521546 11885 net.cpp:425] inception_4c/3x3_reduce <- inception_4b/output_inception_4b/output_0_split_1
I0403 15:22:12.521569 11885 net.cpp:399] inception_4c/3x3_reduce -> inception_4c/3x3_reduce
I0403 15:22:12.523550 11885 net.cpp:141] Setting up inception_4c/3x3_reduce
I0403 15:22:12.523579 11885 net.cpp:148] Top shape: 24 128 14 14 (602112)
I0403 15:22:12.523596 11885 net.cpp:156] Memory required for data: 1035617568
I0403 15:22:12.523614 11885 layer_factory.hpp:77] Creating layer inception_4c/relu_3x3_reduce
I0403 15:22:12.523634 11885 net.cpp:91] Creating Layer inception_4c/relu_3x3_reduce
I0403 15:22:12.523651 11885 net.cpp:425] inception_4c/relu_3x3_reduce <- inception_4c/3x3_reduce
I0403 15:22:12.523680 11885 net.cpp:386] inception_4c/relu_3x3_reduce -> inception_4c/3x3_reduce (in-place)
I0403 15:22:12.523962 11885 net.cpp:141] Setting up inception_4c/relu_3x3_reduce
I0403 15:22:12.523988 11885 net.cpp:148] Top shape: 24 128 14 14 (602112)
I0403 15:22:12.524001 11885 net.cpp:156] Memory required for data: 1038026016
I0403 15:22:12.524016 11885 layer_factory.hpp:77] Creating layer inception_4c/3x3
I0403 15:22:12.524039 11885 net.cpp:91] Creating Layer inception_4c/3x3
I0403 15:22:12.524056 11885 net.cpp:425] inception_4c/3x3 <- inception_4c/3x3_reduce
I0403 15:22:12.524077 11885 net.cpp:399] inception_4c/3x3 -> inception_4c/3x3
I0403 15:22:12.527662 11885 net.cpp:141] Setting up inception_4c/3x3
I0403 15:22:12.527704 11885 net.cpp:148] Top shape: 24 256 14 14 (1204224)
I0403 15:22:12.527720 11885 net.cpp:156] Memory required for data: 1042842912
I0403 15:22:12.527752 11885 layer_factory.hpp:77] Creating layer inception_4c/relu_3x3
I0403 15:22:12.527776 11885 net.cpp:91] Creating Layer inception_4c/relu_3x3
I0403 15:22:12.527793 11885 net.cpp:425] inception_4c/relu_3x3 <- inception_4c/3x3
I0403 15:22:12.527811 11885 net.cpp:386] inception_4c/relu_3x3 -> inception_4c/3x3 (in-place)
I0403 15:22:12.527994 11885 net.cpp:141] Setting up inception_4c/relu_3x3
I0403 15:22:12.528020 11885 net.cpp:148] Top shape: 24 256 14 14 (1204224)
I0403 15:22:12.528035 11885 net.cpp:156] Memory required for data: 1047659808
I0403 15:22:12.528049 11885 layer_factory.hpp:77] Creating layer inception_4c/5x5_reduce
I0403 15:22:12.528070 11885 net.cpp:91] Creating Layer inception_4c/5x5_reduce
I0403 15:22:12.528089 11885 net.cpp:425] inception_4c/5x5_reduce <- inception_4b/output_inception_4b/output_0_split_2
I0403 15:22:12.528108 11885 net.cpp:399] inception_4c/5x5_reduce -> inception_4c/5x5_reduce
I0403 15:22:12.529178 11885 net.cpp:141] Setting up inception_4c/5x5_reduce
I0403 15:22:12.529207 11885 net.cpp:148] Top shape: 24 24 14 14 (112896)
I0403 15:22:12.529223 11885 net.cpp:156] Memory required for data: 1048111392
I0403 15:22:12.529242 11885 layer_factory.hpp:77] Creating layer inception_4c/relu_5x5_reduce
I0403 15:22:12.529263 11885 net.cpp:91] Creating Layer inception_4c/relu_5x5_reduce
I0403 15:22:12.529280 11885 net.cpp:425] inception_4c/relu_5x5_reduce <- inception_4c/5x5_reduce
I0403 15:22:12.529299 11885 net.cpp:386] inception_4c/relu_5x5_reduce -> inception_4c/5x5_reduce (in-place)
I0403 15:22:12.529485 11885 net.cpp:141] Setting up inception_4c/relu_5x5_reduce
I0403 15:22:12.529510 11885 net.cpp:148] Top shape: 24 24 14 14 (112896)
I0403 15:22:12.529525 11885 net.cpp:156] Memory required for data: 1048562976
I0403 15:22:12.529538 11885 layer_factory.hpp:77] Creating layer inception_4c/5x5
I0403 15:22:12.529561 11885 net.cpp:91] Creating Layer inception_4c/5x5
I0403 15:22:12.529579 11885 net.cpp:425] inception_4c/5x5 <- inception_4c/5x5_reduce
I0403 15:22:12.529597 11885 net.cpp:399] inception_4c/5x5 -> inception_4c/5x5
I0403 15:22:12.530815 11885 net.cpp:141] Setting up inception_4c/5x5
I0403 15:22:12.530846 11885 net.cpp:148] Top shape: 24 64 14 14 (301056)
I0403 15:22:12.530863 11885 net.cpp:156] Memory required for data: 1049767200
I0403 15:22:12.530881 11885 layer_factory.hpp:77] Creating layer inception_4c/relu_5x5
I0403 15:22:12.530900 11885 net.cpp:91] Creating Layer inception_4c/relu_5x5
I0403 15:22:12.530916 11885 net.cpp:425] inception_4c/relu_5x5 <- inception_4c/5x5
I0403 15:22:12.530933 11885 net.cpp:386] inception_4c/relu_5x5 -> inception_4c/5x5 (in-place)
I0403 15:22:12.531219 11885 net.cpp:141] Setting up inception_4c/relu_5x5
I0403 15:22:12.531249 11885 net.cpp:148] Top shape: 24 64 14 14 (301056)
I0403 15:22:12.531265 11885 net.cpp:156] Memory required for data: 1050971424
I0403 15:22:12.531280 11885 layer_factory.hpp:77] Creating layer inception_4c/pool
I0403 15:22:12.531296 11885 net.cpp:91] Creating Layer inception_4c/pool
I0403 15:22:12.531311 11885 net.cpp:425] inception_4c/pool <- inception_4b/output_inception_4b/output_0_split_3
I0403 15:22:12.531328 11885 net.cpp:399] inception_4c/pool -> inception_4c/pool
I0403 15:22:12.531397 11885 net.cpp:141] Setting up inception_4c/pool
I0403 15:22:12.531421 11885 net.cpp:148] Top shape: 24 512 14 14 (2408448)
I0403 15:22:12.531435 11885 net.cpp:156] Memory required for data: 1060605216
I0403 15:22:12.531450 11885 layer_factory.hpp:77] Creating layer inception_4c/pool_proj
I0403 15:22:12.531471 11885 net.cpp:91] Creating Layer inception_4c/pool_proj
I0403 15:22:12.531488 11885 net.cpp:425] inception_4c/pool_proj <- inception_4c/pool
I0403 15:22:12.531508 11885 net.cpp:399] inception_4c/pool_proj -> inception_4c/pool_proj
I0403 15:22:12.532716 11885 net.cpp:141] Setting up inception_4c/pool_proj
I0403 15:22:12.532745 11885 net.cpp:148] Top shape: 24 64 14 14 (301056)
I0403 15:22:12.532775 11885 net.cpp:156] Memory required for data: 1061809440
I0403 15:22:12.532795 11885 layer_factory.hpp:77] Creating layer inception_4c/relu_pool_proj
I0403 15:22:12.532817 11885 net.cpp:91] Creating Layer inception_4c/relu_pool_proj
I0403 15:22:12.532835 11885 net.cpp:425] inception_4c/relu_pool_proj <- inception_4c/pool_proj
I0403 15:22:12.532853 11885 net.cpp:386] inception_4c/relu_pool_proj -> inception_4c/pool_proj (in-place)
I0403 15:22:12.533032 11885 net.cpp:141] Setting up inception_4c/relu_pool_proj
I0403 15:22:12.533061 11885 net.cpp:148] Top shape: 24 64 14 14 (301056)
I0403 15:22:12.533077 11885 net.cpp:156] Memory required for data: 1063013664
I0403 15:22:12.533090 11885 layer_factory.hpp:77] Creating layer inception_4c/output
I0403 15:22:12.533107 11885 net.cpp:91] Creating Layer inception_4c/output
I0403 15:22:12.533123 11885 net.cpp:425] inception_4c/output <- inception_4c/1x1
I0403 15:22:12.533141 11885 net.cpp:425] inception_4c/output <- inception_4c/3x3
I0403 15:22:12.533157 11885 net.cpp:425] inception_4c/output <- inception_4c/5x5
I0403 15:22:12.533174 11885 net.cpp:425] inception_4c/output <- inception_4c/pool_proj
I0403 15:22:12.533190 11885 net.cpp:399] inception_4c/output -> inception_4c/output
I0403 15:22:12.533238 11885 net.cpp:141] Setting up inception_4c/output
I0403 15:22:12.533262 11885 net.cpp:148] Top shape: 24 512 14 14 (2408448)
I0403 15:22:12.533277 11885 net.cpp:156] Memory required for data: 1072647456
I0403 15:22:12.533293 11885 layer_factory.hpp:77] Creating layer inception_4c/output_inception_4c/output_0_split
I0403 15:22:12.533318 11885 net.cpp:91] Creating Layer inception_4c/output_inception_4c/output_0_split
I0403 15:22:12.533334 11885 net.cpp:425] inception_4c/output_inception_4c/output_0_split <- inception_4c/output
I0403 15:22:12.533352 11885 net.cpp:399] inception_4c/output_inception_4c/output_0_split -> inception_4c/output_inception_4c/output_0_split_0
I0403 15:22:12.533373 11885 net.cpp:399] inception_4c/output_inception_4c/output_0_split -> inception_4c/output_inception_4c/output_0_split_1
I0403 15:22:12.533398 11885 net.cpp:399] inception_4c/output_inception_4c/output_0_split -> inception_4c/output_inception_4c/output_0_split_2
I0403 15:22:12.533419 11885 net.cpp:399] inception_4c/output_inception_4c/output_0_split -> inception_4c/output_inception_4c/output_0_split_3
I0403 15:22:12.533504 11885 net.cpp:141] Setting up inception_4c/output_inception_4c/output_0_split
I0403 15:22:12.533526 11885 net.cpp:148] Top shape: 24 512 14 14 (2408448)
I0403 15:22:12.533541 11885 net.cpp:148] Top shape: 24 512 14 14 (2408448)
I0403 15:22:12.533556 11885 net.cpp:148] Top shape: 24 512 14 14 (2408448)
I0403 15:22:12.533571 11885 net.cpp:148] Top shape: 24 512 14 14 (2408448)
I0403 15:22:12.533584 11885 net.cpp:156] Memory required for data: 1111182624
I0403 15:22:12.533597 11885 layer_factory.hpp:77] Creating layer inception_4d/1x1
I0403 15:22:12.533629 11885 net.cpp:91] Creating Layer inception_4d/1x1
I0403 15:22:12.533645 11885 net.cpp:425] inception_4d/1x1 <- inception_4c/output_inception_4c/output_0_split_0
I0403 15:22:12.533666 11885 net.cpp:399] inception_4d/1x1 -> inception_4d/1x1
I0403 15:22:12.535037 11885 net.cpp:141] Setting up inception_4d/1x1
I0403 15:22:12.535065 11885 net.cpp:148] Top shape: 24 112 14 14 (526848)
I0403 15:22:12.535081 11885 net.cpp:156] Memory required for data: 1113290016
I0403 15:22:12.535100 11885 layer_factory.hpp:77] Creating layer inception_4d/relu_1x1
I0403 15:22:12.535118 11885 net.cpp:91] Creating Layer inception_4d/relu_1x1
I0403 15:22:12.535135 11885 net.cpp:425] inception_4d/relu_1x1 <- inception_4d/1x1
I0403 15:22:12.535153 11885 net.cpp:386] inception_4d/relu_1x1 -> inception_4d/1x1 (in-place)
I0403 15:22:12.535338 11885 net.cpp:141] Setting up inception_4d/relu_1x1
I0403 15:22:12.535363 11885 net.cpp:148] Top shape: 24 112 14 14 (526848)
I0403 15:22:12.535377 11885 net.cpp:156] Memory required for data: 1115397408
I0403 15:22:12.535397 11885 layer_factory.hpp:77] Creating layer inception_4d/3x3_reduce
I0403 15:22:12.535434 11885 net.cpp:91] Creating Layer inception_4d/3x3_reduce
I0403 15:22:12.535452 11885 net.cpp:425] inception_4d/3x3_reduce <- inception_4c/output_inception_4c/output_0_split_1
I0403 15:22:12.535473 11885 net.cpp:399] inception_4d/3x3_reduce -> inception_4d/3x3_reduce
I0403 15:22:12.536977 11885 net.cpp:141] Setting up inception_4d/3x3_reduce
I0403 15:22:12.537004 11885 net.cpp:148] Top shape: 24 144 14 14 (677376)
I0403 15:22:12.537020 11885 net.cpp:156] Memory required for data: 1118106912
I0403 15:22:12.537040 11885 layer_factory.hpp:77] Creating layer inception_4d/relu_3x3_reduce
I0403 15:22:12.537060 11885 net.cpp:91] Creating Layer inception_4d/relu_3x3_reduce
I0403 15:22:12.537076 11885 net.cpp:425] inception_4d/relu_3x3_reduce <- inception_4d/3x3_reduce
I0403 15:22:12.537093 11885 net.cpp:386] inception_4d/relu_3x3_reduce -> inception_4d/3x3_reduce (in-place)
I0403 15:22:12.537384 11885 net.cpp:141] Setting up inception_4d/relu_3x3_reduce
I0403 15:22:12.537410 11885 net.cpp:148] Top shape: 24 144 14 14 (677376)
I0403 15:22:12.537425 11885 net.cpp:156] Memory required for data: 1120816416
I0403 15:22:12.537441 11885 layer_factory.hpp:77] Creating layer inception_4d/3x3
I0403 15:22:12.537463 11885 net.cpp:91] Creating Layer inception_4d/3x3
I0403 15:22:12.537480 11885 net.cpp:425] inception_4d/3x3 <- inception_4d/3x3_reduce
I0403 15:22:12.537499 11885 net.cpp:399] inception_4d/3x3 -> inception_4d/3x3
I0403 15:22:12.541743 11885 net.cpp:141] Setting up inception_4d/3x3
I0403 15:22:12.541774 11885 net.cpp:148] Top shape: 24 288 14 14 (1354752)
I0403 15:22:12.541790 11885 net.cpp:156] Memory required for data: 1126235424
I0403 15:22:12.541808 11885 layer_factory.hpp:77] Creating layer inception_4d/relu_3x3
I0403 15:22:12.541826 11885 net.cpp:91] Creating Layer inception_4d/relu_3x3
I0403 15:22:12.541843 11885 net.cpp:425] inception_4d/relu_3x3 <- inception_4d/3x3
I0403 15:22:12.541863 11885 net.cpp:386] inception_4d/relu_3x3 -> inception_4d/3x3 (in-place)
I0403 15:22:12.542045 11885 net.cpp:141] Setting up inception_4d/relu_3x3
I0403 15:22:12.542071 11885 net.cpp:148] Top shape: 24 288 14 14 (1354752)
I0403 15:22:12.542086 11885 net.cpp:156] Memory required for data: 1131654432
I0403 15:22:12.542101 11885 layer_factory.hpp:77] Creating layer inception_4d/5x5_reduce
I0403 15:22:12.542124 11885 net.cpp:91] Creating Layer inception_4d/5x5_reduce
I0403 15:22:12.542142 11885 net.cpp:425] inception_4d/5x5_reduce <- inception_4c/output_inception_4c/output_0_split_2
I0403 15:22:12.542165 11885 net.cpp:399] inception_4d/5x5_reduce -> inception_4d/5x5_reduce
I0403 15:22:12.543388 11885 net.cpp:141] Setting up inception_4d/5x5_reduce
I0403 15:22:12.543418 11885 net.cpp:148] Top shape: 24 32 14 14 (150528)
I0403 15:22:12.543434 11885 net.cpp:156] Memory required for data: 1132256544
I0403 15:22:12.543453 11885 layer_factory.hpp:77] Creating layer inception_4d/relu_5x5_reduce
I0403 15:22:12.543473 11885 net.cpp:91] Creating Layer inception_4d/relu_5x5_reduce
I0403 15:22:12.543489 11885 net.cpp:425] inception_4d/relu_5x5_reduce <- inception_4d/5x5_reduce
I0403 15:22:12.543509 11885 net.cpp:386] inception_4d/relu_5x5_reduce -> inception_4d/5x5_reduce (in-place)
I0403 15:22:12.543695 11885 net.cpp:141] Setting up inception_4d/relu_5x5_reduce
I0403 15:22:12.543722 11885 net.cpp:148] Top shape: 24 32 14 14 (150528)
I0403 15:22:12.543737 11885 net.cpp:156] Memory required for data: 1132858656
I0403 15:22:12.543752 11885 layer_factory.hpp:77] Creating layer inception_4d/5x5
I0403 15:22:12.543776 11885 net.cpp:91] Creating Layer inception_4d/5x5
I0403 15:22:12.543792 11885 net.cpp:425] inception_4d/5x5 <- inception_4d/5x5_reduce
I0403 15:22:12.543814 11885 net.cpp:399] inception_4d/5x5 -> inception_4d/5x5
I0403 15:22:12.545275 11885 net.cpp:141] Setting up inception_4d/5x5
I0403 15:22:12.545303 11885 net.cpp:148] Top shape: 24 64 14 14 (301056)
I0403 15:22:12.545320 11885 net.cpp:156] Memory required for data: 1134062880
I0403 15:22:12.545338 11885 layer_factory.hpp:77] Creating layer inception_4d/relu_5x5
I0403 15:22:12.545375 11885 net.cpp:91] Creating Layer inception_4d/relu_5x5
I0403 15:22:12.545398 11885 net.cpp:425] inception_4d/relu_5x5 <- inception_4d/5x5
I0403 15:22:12.545416 11885 net.cpp:386] inception_4d/relu_5x5 -> inception_4d/5x5 (in-place)
I0403 15:22:12.545714 11885 net.cpp:141] Setting up inception_4d/relu_5x5
I0403 15:22:12.545742 11885 net.cpp:148] Top shape: 24 64 14 14 (301056)
I0403 15:22:12.545758 11885 net.cpp:156] Memory required for data: 1135267104
I0403 15:22:12.545771 11885 layer_factory.hpp:77] Creating layer inception_4d/pool
I0403 15:22:12.545791 11885 net.cpp:91] Creating Layer inception_4d/pool
I0403 15:22:12.545807 11885 net.cpp:425] inception_4d/pool <- inception_4c/output_inception_4c/output_0_split_3
I0403 15:22:12.545825 11885 net.cpp:399] inception_4d/pool -> inception_4d/pool
I0403 15:22:12.545892 11885 net.cpp:141] Setting up inception_4d/pool
I0403 15:22:12.545915 11885 net.cpp:148] Top shape: 24 512 14 14 (2408448)
I0403 15:22:12.545930 11885 net.cpp:156] Memory required for data: 1144900896
I0403 15:22:12.545944 11885 layer_factory.hpp:77] Creating layer inception_4d/pool_proj
I0403 15:22:12.545965 11885 net.cpp:91] Creating Layer inception_4d/pool_proj
I0403 15:22:12.545982 11885 net.cpp:425] inception_4d/pool_proj <- inception_4d/pool
I0403 15:22:12.546003 11885 net.cpp:399] inception_4d/pool_proj -> inception_4d/pool_proj
I0403 15:22:12.547766 11885 net.cpp:141] Setting up inception_4d/pool_proj
I0403 15:22:12.547797 11885 net.cpp:148] Top shape: 24 64 14 14 (301056)
I0403 15:22:12.547813 11885 net.cpp:156] Memory required for data: 1146105120
I0403 15:22:12.547830 11885 layer_factory.hpp:77] Creating layer inception_4d/relu_pool_proj
I0403 15:22:12.547848 11885 net.cpp:91] Creating Layer inception_4d/relu_pool_proj
I0403 15:22:12.547863 11885 net.cpp:425] inception_4d/relu_pool_proj <- inception_4d/pool_proj
I0403 15:22:12.547883 11885 net.cpp:386] inception_4d/relu_pool_proj -> inception_4d/pool_proj (in-place)
I0403 15:22:12.548068 11885 net.cpp:141] Setting up inception_4d/relu_pool_proj
I0403 15:22:12.548091 11885 net.cpp:148] Top shape: 24 64 14 14 (301056)
I0403 15:22:12.548105 11885 net.cpp:156] Memory required for data: 1147309344
I0403 15:22:12.548120 11885 layer_factory.hpp:77] Creating layer inception_4d/output
I0403 15:22:12.548136 11885 net.cpp:91] Creating Layer inception_4d/output
I0403 15:22:12.548151 11885 net.cpp:425] inception_4d/output <- inception_4d/1x1
I0403 15:22:12.548168 11885 net.cpp:425] inception_4d/output <- inception_4d/3x3
I0403 15:22:12.548183 11885 net.cpp:425] inception_4d/output <- inception_4d/5x5
I0403 15:22:12.548198 11885 net.cpp:425] inception_4d/output <- inception_4d/pool_proj
I0403 15:22:12.548218 11885 net.cpp:399] inception_4d/output -> inception_4d/output
I0403 15:22:12.548266 11885 net.cpp:141] Setting up inception_4d/output
I0403 15:22:12.548290 11885 net.cpp:148] Top shape: 24 528 14 14 (2483712)
I0403 15:22:12.548305 11885 net.cpp:156] Memory required for data: 1157244192
I0403 15:22:12.548318 11885 layer_factory.hpp:77] Creating layer inception_4d/output_inception_4d/output_0_split
I0403 15:22:12.548336 11885 net.cpp:91] Creating Layer inception_4d/output_inception_4d/output_0_split
I0403 15:22:12.548352 11885 net.cpp:425] inception_4d/output_inception_4d/output_0_split <- inception_4d/output
I0403 15:22:12.548372 11885 net.cpp:399] inception_4d/output_inception_4d/output_0_split -> inception_4d/output_inception_4d/output_0_split_0
I0403 15:22:12.548398 11885 net.cpp:399] inception_4d/output_inception_4d/output_0_split -> inception_4d/output_inception_4d/output_0_split_1
I0403 15:22:12.548419 11885 net.cpp:399] inception_4d/output_inception_4d/output_0_split -> inception_4d/output_inception_4d/output_0_split_2
I0403 15:22:12.548440 11885 net.cpp:399] inception_4d/output_inception_4d/output_0_split -> inception_4d/output_inception_4d/output_0_split_3
I0403 15:22:12.548460 11885 net.cpp:399] inception_4d/output_inception_4d/output_0_split -> inception_4d/output_inception_4d/output_0_split_4
I0403 15:22:12.548558 11885 net.cpp:141] Setting up inception_4d/output_inception_4d/output_0_split
I0403 15:22:12.548595 11885 net.cpp:148] Top shape: 24 528 14 14 (2483712)
I0403 15:22:12.548612 11885 net.cpp:148] Top shape: 24 528 14 14 (2483712)
I0403 15:22:12.548627 11885 net.cpp:148] Top shape: 24 528 14 14 (2483712)
I0403 15:22:12.548642 11885 net.cpp:148] Top shape: 24 528 14 14 (2483712)
I0403 15:22:12.548656 11885 net.cpp:148] Top shape: 24 528 14 14 (2483712)
I0403 15:22:12.548669 11885 net.cpp:156] Memory required for data: 1206918432
I0403 15:22:12.548683 11885 layer_factory.hpp:77] Creating layer loss2/ave_pool
I0403 15:22:12.548701 11885 net.cpp:91] Creating Layer loss2/ave_pool
I0403 15:22:12.548717 11885 net.cpp:425] loss2/ave_pool <- inception_4d/output_inception_4d/output_0_split_0
I0403 15:22:12.548737 11885 net.cpp:399] loss2/ave_pool -> loss2/ave_pool
I0403 15:22:12.549054 11885 net.cpp:141] Setting up loss2/ave_pool
I0403 15:22:12.549082 11885 net.cpp:148] Top shape: 24 528 4 4 (202752)
I0403 15:22:12.549098 11885 net.cpp:156] Memory required for data: 1207729440
I0403 15:22:12.549113 11885 layer_factory.hpp:77] Creating layer loss2/conv
I0403 15:22:12.549134 11885 net.cpp:91] Creating Layer loss2/conv
I0403 15:22:12.549151 11885 net.cpp:425] loss2/conv <- loss2/ave_pool
I0403 15:22:12.549172 11885 net.cpp:399] loss2/conv -> loss2/conv
I0403 15:22:12.551064 11885 net.cpp:141] Setting up loss2/conv
I0403 15:22:12.551093 11885 net.cpp:148] Top shape: 24 128 4 4 (49152)
I0403 15:22:12.551110 11885 net.cpp:156] Memory required for data: 1207926048
I0403 15:22:12.551128 11885 layer_factory.hpp:77] Creating layer loss2/relu_conv
I0403 15:22:12.551151 11885 net.cpp:91] Creating Layer loss2/relu_conv
I0403 15:22:12.551167 11885 net.cpp:425] loss2/relu_conv <- loss2/conv
I0403 15:22:12.551185 11885 net.cpp:386] loss2/relu_conv -> loss2/conv (in-place)
I0403 15:22:12.551475 11885 net.cpp:141] Setting up loss2/relu_conv
I0403 15:22:12.551501 11885 net.cpp:148] Top shape: 24 128 4 4 (49152)
I0403 15:22:12.551517 11885 net.cpp:156] Memory required for data: 1208122656
I0403 15:22:12.551532 11885 layer_factory.hpp:77] Creating layer loss2/fc
I0403 15:22:12.551553 11885 net.cpp:91] Creating Layer loss2/fc
I0403 15:22:12.551571 11885 net.cpp:425] loss2/fc <- loss2/conv
I0403 15:22:12.551592 11885 net.cpp:399] loss2/fc -> loss2/fc
I0403 15:22:12.569593 11885 net.cpp:141] Setting up loss2/fc
I0403 15:22:12.569639 11885 net.cpp:148] Top shape: 24 1024 (24576)
I0403 15:22:12.569655 11885 net.cpp:156] Memory required for data: 1208220960
I0403 15:22:12.569675 11885 layer_factory.hpp:77] Creating layer loss2/relu_fc
I0403 15:22:12.569695 11885 net.cpp:91] Creating Layer loss2/relu_fc
I0403 15:22:12.569712 11885 net.cpp:425] loss2/relu_fc <- loss2/fc
I0403 15:22:12.569733 11885 net.cpp:386] loss2/relu_fc -> loss2/fc (in-place)
I0403 15:22:12.570052 11885 net.cpp:141] Setting up loss2/relu_fc
I0403 15:22:12.570080 11885 net.cpp:148] Top shape: 24 1024 (24576)
I0403 15:22:12.570096 11885 net.cpp:156] Memory required for data: 1208319264
I0403 15:22:12.570112 11885 layer_factory.hpp:77] Creating layer loss2/drop_fc
I0403 15:22:12.570130 11885 net.cpp:91] Creating Layer loss2/drop_fc
I0403 15:22:12.570147 11885 net.cpp:425] loss2/drop_fc <- loss2/fc
I0403 15:22:12.570165 11885 net.cpp:386] loss2/drop_fc -> loss2/fc (in-place)
I0403 15:22:12.570219 11885 net.cpp:141] Setting up loss2/drop_fc
I0403 15:22:12.570245 11885 net.cpp:148] Top shape: 24 1024 (24576)
I0403 15:22:12.570262 11885 net.cpp:156] Memory required for data: 1208417568
I0403 15:22:12.570278 11885 layer_factory.hpp:77] Creating layer loss2/classifier_plantvillage
I0403 15:22:12.570297 11885 net.cpp:91] Creating Layer loss2/classifier_plantvillage
I0403 15:22:12.570314 11885 net.cpp:425] loss2/classifier_plantvillage <- loss2/fc
I0403 15:22:12.570336 11885 net.cpp:399] loss2/classifier_plantvillage -> loss2/classifier_plantvillage
I0403 15:22:12.570761 11885 net.cpp:141] Setting up loss2/classifier_plantvillage
I0403 15:22:12.570786 11885 net.cpp:148] Top shape: 24 38 (912)
I0403 15:22:12.570818 11885 net.cpp:156] Memory required for data: 1208421216
I0403 15:22:12.570837 11885 layer_factory.hpp:77] Creating layer loss2/classifier_plantvillage_loss2/classifier_plantvillage_0_split
I0403 15:22:12.570858 11885 net.cpp:91] Creating Layer loss2/classifier_plantvillage_loss2/classifier_plantvillage_0_split
I0403 15:22:12.570875 11885 net.cpp:425] loss2/classifier_plantvillage_loss2/classifier_plantvillage_0_split <- loss2/classifier_plantvillage
I0403 15:22:12.570893 11885 net.cpp:399] loss2/classifier_plantvillage_loss2/classifier_plantvillage_0_split -> loss2/classifier_plantvillage_loss2/classifier_plantvillage_0_split_0
I0403 15:22:12.570912 11885 net.cpp:399] loss2/classifier_plantvillage_loss2/classifier_plantvillage_0_split -> loss2/classifier_plantvillage_loss2/classifier_plantvillage_0_split_1
I0403 15:22:12.570937 11885 net.cpp:399] loss2/classifier_plantvillage_loss2/classifier_plantvillage_0_split -> loss2/classifier_plantvillage_loss2/classifier_plantvillage_0_split_2
I0403 15:22:12.571015 11885 net.cpp:141] Setting up loss2/classifier_plantvillage_loss2/classifier_plantvillage_0_split
I0403 15:22:12.571039 11885 net.cpp:148] Top shape: 24 38 (912)
I0403 15:22:12.571054 11885 net.cpp:148] Top shape: 24 38 (912)
I0403 15:22:12.571070 11885 net.cpp:148] Top shape: 24 38 (912)
I0403 15:22:12.571084 11885 net.cpp:156] Memory required for data: 1208432160
I0403 15:22:12.571097 11885 layer_factory.hpp:77] Creating layer inception_4e/1x1
I0403 15:22:12.571120 11885 net.cpp:91] Creating Layer inception_4e/1x1
I0403 15:22:12.571137 11885 net.cpp:425] inception_4e/1x1 <- inception_4d/output_inception_4d/output_0_split_1
I0403 15:22:12.571156 11885 net.cpp:399] inception_4e/1x1 -> inception_4e/1x1
I0403 15:22:12.573035 11885 net.cpp:141] Setting up inception_4e/1x1
I0403 15:22:12.573065 11885 net.cpp:148] Top shape: 24 256 14 14 (1204224)
I0403 15:22:12.573084 11885 net.cpp:156] Memory required for data: 1213249056
I0403 15:22:12.573104 11885 layer_factory.hpp:77] Creating layer inception_4e/relu_1x1
I0403 15:22:12.573123 11885 net.cpp:91] Creating Layer inception_4e/relu_1x1
I0403 15:22:12.573139 11885 net.cpp:425] inception_4e/relu_1x1 <- inception_4e/1x1
I0403 15:22:12.573156 11885 net.cpp:386] inception_4e/relu_1x1 -> inception_4e/1x1 (in-place)
I0403 15:22:12.573472 11885 net.cpp:141] Setting up inception_4e/relu_1x1
I0403 15:22:12.573499 11885 net.cpp:148] Top shape: 24 256 14 14 (1204224)
I0403 15:22:12.573516 11885 net.cpp:156] Memory required for data: 1218065952
I0403 15:22:12.573532 11885 layer_factory.hpp:77] Creating layer inception_4e/3x3_reduce
I0403 15:22:12.573552 11885 net.cpp:91] Creating Layer inception_4e/3x3_reduce
I0403 15:22:12.573571 11885 net.cpp:425] inception_4e/3x3_reduce <- inception_4d/output_inception_4d/output_0_split_2
I0403 15:22:12.573592 11885 net.cpp:399] inception_4e/3x3_reduce -> inception_4e/3x3_reduce
I0403 15:22:12.575774 11885 net.cpp:141] Setting up inception_4e/3x3_reduce
I0403 15:22:12.575804 11885 net.cpp:148] Top shape: 24 160 14 14 (752640)
I0403 15:22:12.575821 11885 net.cpp:156] Memory required for data: 1221076512
I0403 15:22:12.575839 11885 layer_factory.hpp:77] Creating layer inception_4e/relu_3x3_reduce
I0403 15:22:12.575860 11885 net.cpp:91] Creating Layer inception_4e/relu_3x3_reduce
I0403 15:22:12.575880 11885 net.cpp:425] inception_4e/relu_3x3_reduce <- inception_4e/3x3_reduce
I0403 15:22:12.575897 11885 net.cpp:386] inception_4e/relu_3x3_reduce -> inception_4e/3x3_reduce (in-place)
I0403 15:22:12.576084 11885 net.cpp:141] Setting up inception_4e/relu_3x3_reduce
I0403 15:22:12.576112 11885 net.cpp:148] Top shape: 24 160 14 14 (752640)
I0403 15:22:12.576128 11885 net.cpp:156] Memory required for data: 1224087072
I0403 15:22:12.576143 11885 layer_factory.hpp:77] Creating layer inception_4e/3x3
I0403 15:22:12.576164 11885 net.cpp:91] Creating Layer inception_4e/3x3
I0403 15:22:12.576180 11885 net.cpp:425] inception_4e/3x3 <- inception_4e/3x3_reduce
I0403 15:22:12.576200 11885 net.cpp:399] inception_4e/3x3 -> inception_4e/3x3
I0403 15:22:12.581348 11885 net.cpp:141] Setting up inception_4e/3x3
I0403 15:22:12.581398 11885 net.cpp:148] Top shape: 24 320 14 14 (1505280)
I0403 15:22:12.581418 11885 net.cpp:156] Memory required for data: 1230108192
I0403 15:22:12.581436 11885 layer_factory.hpp:77] Creating layer inception_4e/relu_3x3
I0403 15:22:12.581454 11885 net.cpp:91] Creating Layer inception_4e/relu_3x3
I0403 15:22:12.581471 11885 net.cpp:425] inception_4e/relu_3x3 <- inception_4e/3x3
I0403 15:22:12.581488 11885 net.cpp:386] inception_4e/relu_3x3 -> inception_4e/3x3 (in-place)
I0403 15:22:12.581804 11885 net.cpp:141] Setting up inception_4e/relu_3x3
I0403 15:22:12.581830 11885 net.cpp:148] Top shape: 24 320 14 14 (1505280)
I0403 15:22:12.581845 11885 net.cpp:156] Memory required for data: 1236129312
I0403 15:22:12.581859 11885 layer_factory.hpp:77] Creating layer inception_4e/5x5_reduce
I0403 15:22:12.581883 11885 net.cpp:91] Creating Layer inception_4e/5x5_reduce
I0403 15:22:12.581902 11885 net.cpp:425] inception_4e/5x5_reduce <- inception_4d/output_inception_4d/output_0_split_3
I0403 15:22:12.581923 11885 net.cpp:399] inception_4e/5x5_reduce -> inception_4e/5x5_reduce
I0403 15:22:12.583020 11885 net.cpp:141] Setting up inception_4e/5x5_reduce
I0403 15:22:12.583050 11885 net.cpp:148] Top shape: 24 32 14 14 (150528)
I0403 15:22:12.583066 11885 net.cpp:156] Memory required for data: 1236731424
I0403 15:22:12.583083 11885 layer_factory.hpp:77] Creating layer inception_4e/relu_5x5_reduce
I0403 15:22:12.583106 11885 net.cpp:91] Creating Layer inception_4e/relu_5x5_reduce
I0403 15:22:12.583123 11885 net.cpp:425] inception_4e/relu_5x5_reduce <- inception_4e/5x5_reduce
I0403 15:22:12.583142 11885 net.cpp:386] inception_4e/relu_5x5_reduce -> inception_4e/5x5_reduce (in-place)
I0403 15:22:12.583464 11885 net.cpp:141] Setting up inception_4e/relu_5x5_reduce
I0403 15:22:12.583492 11885 net.cpp:148] Top shape: 24 32 14 14 (150528)
I0403 15:22:12.583508 11885 net.cpp:156] Memory required for data: 1237333536
I0403 15:22:12.583523 11885 layer_factory.hpp:77] Creating layer inception_4e/5x5
I0403 15:22:12.583564 11885 net.cpp:91] Creating Layer inception_4e/5x5
I0403 15:22:12.583585 11885 net.cpp:425] inception_4e/5x5 <- inception_4e/5x5_reduce
I0403 15:22:12.583607 11885 net.cpp:399] inception_4e/5x5 -> inception_4e/5x5
I0403 15:22:12.585505 11885 net.cpp:141] Setting up inception_4e/5x5
I0403 15:22:12.585536 11885 net.cpp:148] Top shape: 24 128 14 14 (602112)
I0403 15:22:12.585551 11885 net.cpp:156] Memory required for data: 1239741984
I0403 15:22:12.585571 11885 layer_factory.hpp:77] Creating layer inception_4e/relu_5x5
I0403 15:22:12.585592 11885 net.cpp:91] Creating Layer inception_4e/relu_5x5
I0403 15:22:12.585610 11885 net.cpp:425] inception_4e/relu_5x5 <- inception_4e/5x5
I0403 15:22:12.585629 11885 net.cpp:386] inception_4e/relu_5x5 -> inception_4e/5x5 (in-place)
I0403 15:22:12.585829 11885 net.cpp:141] Setting up inception_4e/relu_5x5
I0403 15:22:12.585856 11885 net.cpp:148] Top shape: 24 128 14 14 (602112)
I0403 15:22:12.585872 11885 net.cpp:156] Memory required for data: 1242150432
I0403 15:22:12.585887 11885 layer_factory.hpp:77] Creating layer inception_4e/pool
I0403 15:22:12.585907 11885 net.cpp:91] Creating Layer inception_4e/pool
I0403 15:22:12.585924 11885 net.cpp:425] inception_4e/pool <- inception_4d/output_inception_4d/output_0_split_4
I0403 15:22:12.585942 11885 net.cpp:399] inception_4e/pool -> inception_4e/pool
I0403 15:22:12.586015 11885 net.cpp:141] Setting up inception_4e/pool
I0403 15:22:12.586040 11885 net.cpp:148] Top shape: 24 528 14 14 (2483712)
I0403 15:22:12.586055 11885 net.cpp:156] Memory required for data: 1252085280
I0403 15:22:12.586068 11885 layer_factory.hpp:77] Creating layer inception_4e/pool_proj
I0403 15:22:12.586091 11885 net.cpp:91] Creating Layer inception_4e/pool_proj
I0403 15:22:12.586108 11885 net.cpp:425] inception_4e/pool_proj <- inception_4e/pool
I0403 15:22:12.586129 11885 net.cpp:399] inception_4e/pool_proj -> inception_4e/pool_proj
I0403 15:22:12.587671 11885 net.cpp:141] Setting up inception_4e/pool_proj
I0403 15:22:12.587713 11885 net.cpp:148] Top shape: 24 128 14 14 (602112)
I0403 15:22:12.587729 11885 net.cpp:156] Memory required for data: 1254493728
I0403 15:22:12.587749 11885 layer_factory.hpp:77] Creating layer inception_4e/relu_pool_proj
I0403 15:22:12.587767 11885 net.cpp:91] Creating Layer inception_4e/relu_pool_proj
I0403 15:22:12.587788 11885 net.cpp:425] inception_4e/relu_pool_proj <- inception_4e/pool_proj
I0403 15:22:12.587807 11885 net.cpp:386] inception_4e/relu_pool_proj -> inception_4e/pool_proj (in-place)
I0403 15:22:12.588109 11885 net.cpp:141] Setting up inception_4e/relu_pool_proj
I0403 15:22:12.588135 11885 net.cpp:148] Top shape: 24 128 14 14 (602112)
I0403 15:22:12.588150 11885 net.cpp:156] Memory required for data: 1256902176
I0403 15:22:12.588165 11885 layer_factory.hpp:77] Creating layer inception_4e/output
I0403 15:22:12.588182 11885 net.cpp:91] Creating Layer inception_4e/output
I0403 15:22:12.588198 11885 net.cpp:425] inception_4e/output <- inception_4e/1x1
I0403 15:22:12.588214 11885 net.cpp:425] inception_4e/output <- inception_4e/3x3
I0403 15:22:12.588230 11885 net.cpp:425] inception_4e/output <- inception_4e/5x5
I0403 15:22:12.588245 11885 net.cpp:425] inception_4e/output <- inception_4e/pool_proj
I0403 15:22:12.588264 11885 net.cpp:399] inception_4e/output -> inception_4e/output
I0403 15:22:12.588315 11885 net.cpp:141] Setting up inception_4e/output
I0403 15:22:12.588341 11885 net.cpp:148] Top shape: 24 832 14 14 (3913728)
I0403 15:22:12.588356 11885 net.cpp:156] Memory required for data: 1272557088
I0403 15:22:12.588371 11885 layer_factory.hpp:77] Creating layer pool4/3x3_s2
I0403 15:22:12.588394 11885 net.cpp:91] Creating Layer pool4/3x3_s2
I0403 15:22:12.588412 11885 net.cpp:425] pool4/3x3_s2 <- inception_4e/output
I0403 15:22:12.588433 11885 net.cpp:399] pool4/3x3_s2 -> pool4/3x3_s2
I0403 15:22:12.588502 11885 net.cpp:141] Setting up pool4/3x3_s2
I0403 15:22:12.588526 11885 net.cpp:148] Top shape: 24 832 7 7 (978432)
I0403 15:22:12.588541 11885 net.cpp:156] Memory required for data: 1276470816
I0403 15:22:12.588556 11885 layer_factory.hpp:77] Creating layer pool4/3x3_s2_pool4/3x3_s2_0_split
I0403 15:22:12.588577 11885 net.cpp:91] Creating Layer pool4/3x3_s2_pool4/3x3_s2_0_split
I0403 15:22:12.588594 11885 net.cpp:425] pool4/3x3_s2_pool4/3x3_s2_0_split <- pool4/3x3_s2
I0403 15:22:12.588611 11885 net.cpp:399] pool4/3x3_s2_pool4/3x3_s2_0_split -> pool4/3x3_s2_pool4/3x3_s2_0_split_0
I0403 15:22:12.588631 11885 net.cpp:399] pool4/3x3_s2_pool4/3x3_s2_0_split -> pool4/3x3_s2_pool4/3x3_s2_0_split_1
I0403 15:22:12.588651 11885 net.cpp:399] pool4/3x3_s2_pool4/3x3_s2_0_split -> pool4/3x3_s2_pool4/3x3_s2_0_split_2
I0403 15:22:12.588671 11885 net.cpp:399] pool4/3x3_s2_pool4/3x3_s2_0_split -> pool4/3x3_s2_pool4/3x3_s2_0_split_3
I0403 15:22:12.588763 11885 net.cpp:141] Setting up pool4/3x3_s2_pool4/3x3_s2_0_split
I0403 15:22:12.588788 11885 net.cpp:148] Top shape: 24 832 7 7 (978432)
I0403 15:22:12.588806 11885 net.cpp:148] Top shape: 24 832 7 7 (978432)
I0403 15:22:12.588821 11885 net.cpp:148] Top shape: 24 832 7 7 (978432)
I0403 15:22:12.588837 11885 net.cpp:148] Top shape: 24 832 7 7 (978432)
I0403 15:22:12.588850 11885 net.cpp:156] Memory required for data: 1292125728
I0403 15:22:12.588865 11885 layer_factory.hpp:77] Creating layer inception_5a/1x1
I0403 15:22:12.588887 11885 net.cpp:91] Creating Layer inception_5a/1x1
I0403 15:22:12.588904 11885 net.cpp:425] inception_5a/1x1 <- pool4/3x3_s2_pool4/3x3_s2_0_split_0
I0403 15:22:12.588927 11885 net.cpp:399] inception_5a/1x1 -> inception_5a/1x1
I0403 15:22:12.591858 11885 net.cpp:141] Setting up inception_5a/1x1
I0403 15:22:12.591889 11885 net.cpp:148] Top shape: 24 256 7 7 (301056)
I0403 15:22:12.591907 11885 net.cpp:156] Memory required for data: 1293329952
I0403 15:22:12.591927 11885 layer_factory.hpp:77] Creating layer inception_5a/relu_1x1
I0403 15:22:12.591948 11885 net.cpp:91] Creating Layer inception_5a/relu_1x1
I0403 15:22:12.591965 11885 net.cpp:425] inception_5a/relu_1x1 <- inception_5a/1x1
I0403 15:22:12.591984 11885 net.cpp:386] inception_5a/relu_1x1 -> inception_5a/1x1 (in-place)
I0403 15:22:12.592306 11885 net.cpp:141] Setting up inception_5a/relu_1x1
I0403 15:22:12.592332 11885 net.cpp:148] Top shape: 24 256 7 7 (301056)
I0403 15:22:12.592349 11885 net.cpp:156] Memory required for data: 1294534176
I0403 15:22:12.592362 11885 layer_factory.hpp:77] Creating layer inception_5a/3x3_reduce
I0403 15:22:12.592389 11885 net.cpp:91] Creating Layer inception_5a/3x3_reduce
I0403 15:22:12.592408 11885 net.cpp:425] inception_5a/3x3_reduce <- pool4/3x3_s2_pool4/3x3_s2_0_split_1
I0403 15:22:12.592429 11885 net.cpp:399] inception_5a/3x3_reduce -> inception_5a/3x3_reduce
I0403 15:22:12.594971 11885 net.cpp:141] Setting up inception_5a/3x3_reduce
I0403 15:22:12.595005 11885 net.cpp:148] Top shape: 24 160 7 7 (188160)
I0403 15:22:12.595021 11885 net.cpp:156] Memory required for data: 1295286816
I0403 15:22:12.595041 11885 layer_factory.hpp:77] Creating layer inception_5a/relu_3x3_reduce
I0403 15:22:12.595060 11885 net.cpp:91] Creating Layer inception_5a/relu_3x3_reduce
I0403 15:22:12.595078 11885 net.cpp:425] inception_5a/relu_3x3_reduce <- inception_5a/3x3_reduce
I0403 15:22:12.595098 11885 net.cpp:386] inception_5a/relu_3x3_reduce -> inception_5a/3x3_reduce (in-place)
I0403 15:22:12.595290 11885 net.cpp:141] Setting up inception_5a/relu_3x3_reduce
I0403 15:22:12.595317 11885 net.cpp:148] Top shape: 24 160 7 7 (188160)
I0403 15:22:12.595334 11885 net.cpp:156] Memory required for data: 1296039456
I0403 15:22:12.595350 11885 layer_factory.hpp:77] Creating layer inception_5a/3x3
I0403 15:22:12.595371 11885 net.cpp:91] Creating Layer inception_5a/3x3
I0403 15:22:12.595393 11885 net.cpp:425] inception_5a/3x3 <- inception_5a/3x3_reduce
I0403 15:22:12.595417 11885 net.cpp:399] inception_5a/3x3 -> inception_5a/3x3
I0403 15:22:12.600641 11885 net.cpp:141] Setting up inception_5a/3x3
I0403 15:22:12.600671 11885 net.cpp:148] Top shape: 24 320 7 7 (376320)
I0403 15:22:12.600687 11885 net.cpp:156] Memory required for data: 1297544736
I0403 15:22:12.600704 11885 layer_factory.hpp:77] Creating layer inception_5a/relu_3x3
I0403 15:22:12.600724 11885 net.cpp:91] Creating Layer inception_5a/relu_3x3
I0403 15:22:12.600744 11885 net.cpp:425] inception_5a/relu_3x3 <- inception_5a/3x3
I0403 15:22:12.600760 11885 net.cpp:386] inception_5a/relu_3x3 -> inception_5a/3x3 (in-place)
I0403 15:22:12.601060 11885 net.cpp:141] Setting up inception_5a/relu_3x3
I0403 15:22:12.601088 11885 net.cpp:148] Top shape: 24 320 7 7 (376320)
I0403 15:22:12.601109 11885 net.cpp:156] Memory required for data: 1299050016
I0403 15:22:12.601125 11885 layer_factory.hpp:77] Creating layer inception_5a/5x5_reduce
I0403 15:22:12.601150 11885 net.cpp:91] Creating Layer inception_5a/5x5_reduce
I0403 15:22:12.601174 11885 net.cpp:425] inception_5a/5x5_reduce <- pool4/3x3_s2_pool4/3x3_s2_0_split_2
I0403 15:22:12.601204 11885 net.cpp:399] inception_5a/5x5_reduce -> inception_5a/5x5_reduce
I0403 15:22:12.602421 11885 net.cpp:141] Setting up inception_5a/5x5_reduce
I0403 15:22:12.602449 11885 net.cpp:148] Top shape: 24 32 7 7 (37632)
I0403 15:22:12.602466 11885 net.cpp:156] Memory required for data: 1299200544
I0403 15:22:12.602484 11885 layer_factory.hpp:77] Creating layer inception_5a/relu_5x5_reduce
I0403 15:22:12.602505 11885 net.cpp:91] Creating Layer inception_5a/relu_5x5_reduce
I0403 15:22:12.602524 11885 net.cpp:425] inception_5a/relu_5x5_reduce <- inception_5a/5x5_reduce
I0403 15:22:12.602541 11885 net.cpp:386] inception_5a/relu_5x5_reduce -> inception_5a/5x5_reduce (in-place)
I0403 15:22:12.602850 11885 net.cpp:141] Setting up inception_5a/relu_5x5_reduce
I0403 15:22:12.602880 11885 net.cpp:148] Top shape: 24 32 7 7 (37632)
I0403 15:22:12.602897 11885 net.cpp:156] Memory required for data: 1299351072
I0403 15:22:12.602912 11885 layer_factory.hpp:77] Creating layer inception_5a/5x5
I0403 15:22:12.602936 11885 net.cpp:91] Creating Layer inception_5a/5x5
I0403 15:22:12.602953 11885 net.cpp:425] inception_5a/5x5 <- inception_5a/5x5_reduce
I0403 15:22:12.602974 11885 net.cpp:399] inception_5a/5x5 -> inception_5a/5x5
I0403 15:22:12.604794 11885 net.cpp:141] Setting up inception_5a/5x5
I0403 15:22:12.604835 11885 net.cpp:148] Top shape: 24 128 7 7 (150528)
I0403 15:22:12.604853 11885 net.cpp:156] Memory required for data: 1299953184
I0403 15:22:12.604872 11885 layer_factory.hpp:77] Creating layer inception_5a/relu_5x5
I0403 15:22:12.604894 11885 net.cpp:91] Creating Layer inception_5a/relu_5x5
I0403 15:22:12.604914 11885 net.cpp:425] inception_5a/relu_5x5 <- inception_5a/5x5
I0403 15:22:12.604933 11885 net.cpp:386] inception_5a/relu_5x5 -> inception_5a/5x5 (in-place)
I0403 15:22:12.605125 11885 net.cpp:141] Setting up inception_5a/relu_5x5
I0403 15:22:12.605152 11885 net.cpp:148] Top shape: 24 128 7 7 (150528)
I0403 15:22:12.605168 11885 net.cpp:156] Memory required for data: 1300555296
I0403 15:22:12.605185 11885 layer_factory.hpp:77] Creating layer inception_5a/pool
I0403 15:22:12.605206 11885 net.cpp:91] Creating Layer inception_5a/pool
I0403 15:22:12.605224 11885 net.cpp:425] inception_5a/pool <- pool4/3x3_s2_pool4/3x3_s2_0_split_3
I0403 15:22:12.605242 11885 net.cpp:399] inception_5a/pool -> inception_5a/pool
I0403 15:22:12.605315 11885 net.cpp:141] Setting up inception_5a/pool
I0403 15:22:12.605341 11885 net.cpp:148] Top shape: 24 832 7 7 (978432)
I0403 15:22:12.605357 11885 net.cpp:156] Memory required for data: 1304469024
I0403 15:22:12.605373 11885 layer_factory.hpp:77] Creating layer inception_5a/pool_proj
I0403 15:22:12.605401 11885 net.cpp:91] Creating Layer inception_5a/pool_proj
I0403 15:22:12.605419 11885 net.cpp:425] inception_5a/pool_proj <- inception_5a/pool
I0403 15:22:12.605442 11885 net.cpp:399] inception_5a/pool_proj -> inception_5a/pool_proj
I0403 15:22:12.607765 11885 net.cpp:141] Setting up inception_5a/pool_proj
I0403 15:22:12.607796 11885 net.cpp:148] Top shape: 24 128 7 7 (150528)
I0403 15:22:12.607812 11885 net.cpp:156] Memory required for data: 1305071136
I0403 15:22:12.607831 11885 layer_factory.hpp:77] Creating layer inception_5a/relu_pool_proj
I0403 15:22:12.607849 11885 net.cpp:91] Creating Layer inception_5a/relu_pool_proj
I0403 15:22:12.607866 11885 net.cpp:425] inception_5a/relu_pool_proj <- inception_5a/pool_proj
I0403 15:22:12.607884 11885 net.cpp:386] inception_5a/relu_pool_proj -> inception_5a/pool_proj (in-place)
I0403 15:22:12.608177 11885 net.cpp:141] Setting up inception_5a/relu_pool_proj
I0403 15:22:12.608203 11885 net.cpp:148] Top shape: 24 128 7 7 (150528)
I0403 15:22:12.608218 11885 net.cpp:156] Memory required for data: 1305673248
I0403 15:22:12.608233 11885 layer_factory.hpp:77] Creating layer inception_5a/output
I0403 15:22:12.608250 11885 net.cpp:91] Creating Layer inception_5a/output
I0403 15:22:12.608265 11885 net.cpp:425] inception_5a/output <- inception_5a/1x1
I0403 15:22:12.608281 11885 net.cpp:425] inception_5a/output <- inception_5a/3x3
I0403 15:22:12.608297 11885 net.cpp:425] inception_5a/output <- inception_5a/5x5
I0403 15:22:12.608312 11885 net.cpp:425] inception_5a/output <- inception_5a/pool_proj
I0403 15:22:12.608331 11885 net.cpp:399] inception_5a/output -> inception_5a/output
I0403 15:22:12.608384 11885 net.cpp:141] Setting up inception_5a/output
I0403 15:22:12.608410 11885 net.cpp:148] Top shape: 24 832 7 7 (978432)
I0403 15:22:12.608425 11885 net.cpp:156] Memory required for data: 1309586976
I0403 15:22:12.608440 11885 layer_factory.hpp:77] Creating layer inception_5a/output_inception_5a/output_0_split
I0403 15:22:12.608458 11885 net.cpp:91] Creating Layer inception_5a/output_inception_5a/output_0_split
I0403 15:22:12.608472 11885 net.cpp:425] inception_5a/output_inception_5a/output_0_split <- inception_5a/output
I0403 15:22:12.608489 11885 net.cpp:399] inception_5a/output_inception_5a/output_0_split -> inception_5a/output_inception_5a/output_0_split_0
I0403 15:22:12.608510 11885 net.cpp:399] inception_5a/output_inception_5a/output_0_split -> inception_5a/output_inception_5a/output_0_split_1
I0403 15:22:12.608531 11885 net.cpp:399] inception_5a/output_inception_5a/output_0_split -> inception_5a/output_inception_5a/output_0_split_2
I0403 15:22:12.608551 11885 net.cpp:399] inception_5a/output_inception_5a/output_0_split -> inception_5a/output_inception_5a/output_0_split_3
I0403 15:22:12.608665 11885 net.cpp:141] Setting up inception_5a/output_inception_5a/output_0_split
I0403 15:22:12.608690 11885 net.cpp:148] Top shape: 24 832 7 7 (978432)
I0403 15:22:12.608705 11885 net.cpp:148] Top shape: 24 832 7 7 (978432)
I0403 15:22:12.608719 11885 net.cpp:148] Top shape: 24 832 7 7 (978432)
I0403 15:22:12.608733 11885 net.cpp:148] Top shape: 24 832 7 7 (978432)
I0403 15:22:12.608747 11885 net.cpp:156] Memory required for data: 1325241888
I0403 15:22:12.608762 11885 layer_factory.hpp:77] Creating layer inception_5b/1x1
I0403 15:22:12.608783 11885 net.cpp:91] Creating Layer inception_5b/1x1
I0403 15:22:12.608801 11885 net.cpp:425] inception_5b/1x1 <- inception_5a/output_inception_5a/output_0_split_0
I0403 15:22:12.608821 11885 net.cpp:399] inception_5b/1x1 -> inception_5b/1x1
I0403 15:22:12.612591 11885 net.cpp:141] Setting up inception_5b/1x1
I0403 15:22:12.612623 11885 net.cpp:148] Top shape: 24 384 7 7 (451584)
I0403 15:22:12.612640 11885 net.cpp:156] Memory required for data: 1327048224
I0403 15:22:12.612659 11885 layer_factory.hpp:77] Creating layer inception_5b/relu_1x1
I0403 15:22:12.612678 11885 net.cpp:91] Creating Layer inception_5b/relu_1x1
I0403 15:22:12.612692 11885 net.cpp:425] inception_5b/relu_1x1 <- inception_5b/1x1
I0403 15:22:12.612711 11885 net.cpp:386] inception_5b/relu_1x1 -> inception_5b/1x1 (in-place)
I0403 15:22:12.613020 11885 net.cpp:141] Setting up inception_5b/relu_1x1
I0403 15:22:12.613049 11885 net.cpp:148] Top shape: 24 384 7 7 (451584)
I0403 15:22:12.613065 11885 net.cpp:156] Memory required for data: 1328854560
I0403 15:22:12.613080 11885 layer_factory.hpp:77] Creating layer inception_5b/3x3_reduce
I0403 15:22:12.613101 11885 net.cpp:91] Creating Layer inception_5b/3x3_reduce
I0403 15:22:12.613118 11885 net.cpp:425] inception_5b/3x3_reduce <- inception_5a/output_inception_5a/output_0_split_1
I0403 15:22:12.613137 11885 net.cpp:399] inception_5b/3x3_reduce -> inception_5b/3x3_reduce
I0403 15:22:12.615803 11885 net.cpp:141] Setting up inception_5b/3x3_reduce
I0403 15:22:12.615834 11885 net.cpp:148] Top shape: 24 192 7 7 (225792)
I0403 15:22:12.615852 11885 net.cpp:156] Memory required for data: 1329757728
I0403 15:22:12.615871 11885 layer_factory.hpp:77] Creating layer inception_5b/relu_3x3_reduce
I0403 15:22:12.615888 11885 net.cpp:91] Creating Layer inception_5b/relu_3x3_reduce
I0403 15:22:12.615905 11885 net.cpp:425] inception_5b/relu_3x3_reduce <- inception_5b/3x3_reduce
I0403 15:22:12.615924 11885 net.cpp:386] inception_5b/relu_3x3_reduce -> inception_5b/3x3_reduce (in-place)
I0403 15:22:12.616113 11885 net.cpp:141] Setting up inception_5b/relu_3x3_reduce
I0403 15:22:12.616138 11885 net.cpp:148] Top shape: 24 192 7 7 (225792)
I0403 15:22:12.616153 11885 net.cpp:156] Memory required for data: 1330660896
I0403 15:22:12.616168 11885 layer_factory.hpp:77] Creating layer inception_5b/3x3
I0403 15:22:12.616189 11885 net.cpp:91] Creating Layer inception_5b/3x3
I0403 15:22:12.616206 11885 net.cpp:425] inception_5b/3x3 <- inception_5b/3x3_reduce
I0403 15:22:12.616227 11885 net.cpp:399] inception_5b/3x3 -> inception_5b/3x3
I0403 15:22:12.623010 11885 net.cpp:141] Setting up inception_5b/3x3
I0403 15:22:12.623040 11885 net.cpp:148] Top shape: 24 384 7 7 (451584)
I0403 15:22:12.623055 11885 net.cpp:156] Memory required for data: 1332467232
I0403 15:22:12.623072 11885 layer_factory.hpp:77] Creating layer inception_5b/relu_3x3
I0403 15:22:12.623090 11885 net.cpp:91] Creating Layer inception_5b/relu_3x3
I0403 15:22:12.623106 11885 net.cpp:425] inception_5b/relu_3x3 <- inception_5b/3x3
I0403 15:22:12.623127 11885 net.cpp:386] inception_5b/relu_3x3 -> inception_5b/3x3 (in-place)
I0403 15:22:12.623437 11885 net.cpp:141] Setting up inception_5b/relu_3x3
I0403 15:22:12.623464 11885 net.cpp:148] Top shape: 24 384 7 7 (451584)
I0403 15:22:12.623478 11885 net.cpp:156] Memory required for data: 1334273568
I0403 15:22:12.623492 11885 layer_factory.hpp:77] Creating layer inception_5b/5x5_reduce
I0403 15:22:12.623529 11885 net.cpp:91] Creating Layer inception_5b/5x5_reduce
I0403 15:22:12.623548 11885 net.cpp:425] inception_5b/5x5_reduce <- inception_5a/output_inception_5a/output_0_split_2
I0403 15:22:12.623570 11885 net.cpp:399] inception_5b/5x5_reduce -> inception_5b/5x5_reduce
I0403 15:22:12.624836 11885 net.cpp:141] Setting up inception_5b/5x5_reduce
I0403 15:22:12.624866 11885 net.cpp:148] Top shape: 24 48 7 7 (56448)
I0403 15:22:12.624881 11885 net.cpp:156] Memory required for data: 1334499360
I0403 15:22:12.624899 11885 layer_factory.hpp:77] Creating layer inception_5b/relu_5x5_reduce
I0403 15:22:12.624917 11885 net.cpp:91] Creating Layer inception_5b/relu_5x5_reduce
I0403 15:22:12.624934 11885 net.cpp:425] inception_5b/relu_5x5_reduce <- inception_5b/5x5_reduce
I0403 15:22:12.624955 11885 net.cpp:386] inception_5b/relu_5x5_reduce -> inception_5b/5x5_reduce (in-place)
I0403 15:22:12.625329 11885 net.cpp:141] Setting up inception_5b/relu_5x5_reduce
I0403 15:22:12.625355 11885 net.cpp:148] Top shape: 24 48 7 7 (56448)
I0403 15:22:12.625370 11885 net.cpp:156] Memory required for data: 1334725152
I0403 15:22:12.625391 11885 layer_factory.hpp:77] Creating layer inception_5b/5x5
I0403 15:22:12.625411 11885 net.cpp:91] Creating Layer inception_5b/5x5
I0403 15:22:12.625428 11885 net.cpp:425] inception_5b/5x5 <- inception_5b/5x5_reduce
I0403 15:22:12.625447 11885 net.cpp:399] inception_5b/5x5 -> inception_5b/5x5
I0403 15:22:12.627499 11885 net.cpp:141] Setting up inception_5b/5x5
I0403 15:22:12.627528 11885 net.cpp:148] Top shape: 24 128 7 7 (150528)
I0403 15:22:12.627544 11885 net.cpp:156] Memory required for data: 1335327264
I0403 15:22:12.627562 11885 layer_factory.hpp:77] Creating layer inception_5b/relu_5x5
I0403 15:22:12.627584 11885 net.cpp:91] Creating Layer inception_5b/relu_5x5
I0403 15:22:12.627602 11885 net.cpp:425] inception_5b/relu_5x5 <- inception_5b/5x5
I0403 15:22:12.627620 11885 net.cpp:386] inception_5b/relu_5x5 -> inception_5b/5x5 (in-place)
I0403 15:22:12.627813 11885 net.cpp:141] Setting up inception_5b/relu_5x5
I0403 15:22:12.627841 11885 net.cpp:148] Top shape: 24 128 7 7 (150528)
I0403 15:22:12.627858 11885 net.cpp:156] Memory required for data: 1335929376
I0403 15:22:12.627873 11885 layer_factory.hpp:77] Creating layer inception_5b/pool
I0403 15:22:12.627890 11885 net.cpp:91] Creating Layer inception_5b/pool
I0403 15:22:12.627907 11885 net.cpp:425] inception_5b/pool <- inception_5a/output_inception_5a/output_0_split_3
I0403 15:22:12.627923 11885 net.cpp:399] inception_5b/pool -> inception_5b/pool
I0403 15:22:12.627996 11885 net.cpp:141] Setting up inception_5b/pool
I0403 15:22:12.628021 11885 net.cpp:148] Top shape: 24 832 7 7 (978432)
I0403 15:22:12.628034 11885 net.cpp:156] Memory required for data: 1339843104
I0403 15:22:12.628049 11885 layer_factory.hpp:77] Creating layer inception_5b/pool_proj
I0403 15:22:12.628070 11885 net.cpp:91] Creating Layer inception_5b/pool_proj
I0403 15:22:12.628087 11885 net.cpp:425] inception_5b/pool_proj <- inception_5b/pool
I0403 15:22:12.628108 11885 net.cpp:399] inception_5b/pool_proj -> inception_5b/pool_proj
I0403 15:22:12.630414 11885 net.cpp:141] Setting up inception_5b/pool_proj
I0403 15:22:12.630445 11885 net.cpp:148] Top shape: 24 128 7 7 (150528)
I0403 15:22:12.630460 11885 net.cpp:156] Memory required for data: 1340445216
I0403 15:22:12.630478 11885 layer_factory.hpp:77] Creating layer inception_5b/relu_pool_proj
I0403 15:22:12.630498 11885 net.cpp:91] Creating Layer inception_5b/relu_pool_proj
I0403 15:22:12.630516 11885 net.cpp:425] inception_5b/relu_pool_proj <- inception_5b/pool_proj
I0403 15:22:12.630532 11885 net.cpp:386] inception_5b/relu_pool_proj -> inception_5b/pool_proj (in-place)
I0403 15:22:12.630827 11885 net.cpp:141] Setting up inception_5b/relu_pool_proj
I0403 15:22:12.630853 11885 net.cpp:148] Top shape: 24 128 7 7 (150528)
I0403 15:22:12.630867 11885 net.cpp:156] Memory required for data: 1341047328
I0403 15:22:12.630882 11885 layer_factory.hpp:77] Creating layer inception_5b/output
I0403 15:22:12.630898 11885 net.cpp:91] Creating Layer inception_5b/output
I0403 15:22:12.630929 11885 net.cpp:425] inception_5b/output <- inception_5b/1x1
I0403 15:22:12.630946 11885 net.cpp:425] inception_5b/output <- inception_5b/3x3
I0403 15:22:12.630962 11885 net.cpp:425] inception_5b/output <- inception_5b/5x5
I0403 15:22:12.630978 11885 net.cpp:425] inception_5b/output <- inception_5b/pool_proj
I0403 15:22:12.630997 11885 net.cpp:399] inception_5b/output -> inception_5b/output
I0403 15:22:12.631048 11885 net.cpp:141] Setting up inception_5b/output
I0403 15:22:12.631074 11885 net.cpp:148] Top shape: 24 1024 7 7 (1204224)
I0403 15:22:12.631089 11885 net.cpp:156] Memory required for data: 1345864224
I0403 15:22:12.631104 11885 layer_factory.hpp:77] Creating layer pool5/7x7_s1
I0403 15:22:12.631121 11885 net.cpp:91] Creating Layer pool5/7x7_s1
I0403 15:22:12.631135 11885 net.cpp:425] pool5/7x7_s1 <- inception_5b/output
I0403 15:22:12.631156 11885 net.cpp:399] pool5/7x7_s1 -> pool5/7x7_s1
I0403 15:22:12.631368 11885 net.cpp:141] Setting up pool5/7x7_s1
I0403 15:22:12.631398 11885 net.cpp:148] Top shape: 24 1024 1 1 (24576)
I0403 15:22:12.631413 11885 net.cpp:156] Memory required for data: 1345962528
I0403 15:22:12.631428 11885 layer_factory.hpp:77] Creating layer pool5/drop_7x7_s1
I0403 15:22:12.631448 11885 net.cpp:91] Creating Layer pool5/drop_7x7_s1
I0403 15:22:12.631464 11885 net.cpp:425] pool5/drop_7x7_s1 <- pool5/7x7_s1
I0403 15:22:12.631481 11885 net.cpp:386] pool5/drop_7x7_s1 -> pool5/7x7_s1 (in-place)
I0403 15:22:12.631531 11885 net.cpp:141] Setting up pool5/drop_7x7_s1
I0403 15:22:12.631556 11885 net.cpp:148] Top shape: 24 1024 1 1 (24576)
I0403 15:22:12.631572 11885 net.cpp:156] Memory required for data: 1346060832
I0403 15:22:12.631587 11885 layer_factory.hpp:77] Creating layer loss3/classifier_plantvillage
I0403 15:22:12.631605 11885 net.cpp:91] Creating Layer loss3/classifier_plantvillage
I0403 15:22:12.631621 11885 net.cpp:425] loss3/classifier_plantvillage <- pool5/7x7_s1
I0403 15:22:12.631641 11885 net.cpp:399] loss3/classifier_plantvillage -> loss3/classifier_plantvillage
I0403 15:22:12.632068 11885 net.cpp:141] Setting up loss3/classifier_plantvillage
I0403 15:22:12.632093 11885 net.cpp:148] Top shape: 24 38 (912)
I0403 15:22:12.632107 11885 net.cpp:156] Memory required for data: 1346064480
I0403 15:22:12.632124 11885 layer_factory.hpp:77] Creating layer loss3/classifier_plantvillage_loss3/classifier_plantvillage_0_split
I0403 15:22:12.632143 11885 net.cpp:91] Creating Layer loss3/classifier_plantvillage_loss3/classifier_plantvillage_0_split
I0403 15:22:12.632158 11885 net.cpp:425] loss3/classifier_plantvillage_loss3/classifier_plantvillage_0_split <- loss3/classifier_plantvillage
I0403 15:22:12.632174 11885 net.cpp:399] loss3/classifier_plantvillage_loss3/classifier_plantvillage_0_split -> loss3/classifier_plantvillage_loss3/classifier_plantvillage_0_split_0
I0403 15:22:12.632197 11885 net.cpp:399] loss3/classifier_plantvillage_loss3/classifier_plantvillage_0_split -> loss3/classifier_plantvillage_loss3/classifier_plantvillage_0_split_1
I0403 15:22:12.632218 11885 net.cpp:399] loss3/classifier_plantvillage_loss3/classifier_plantvillage_0_split -> loss3/classifier_plantvillage_loss3/classifier_plantvillage_0_split_2
I0403 15:22:12.632237 11885 net.cpp:399] loss3/classifier_plantvillage_loss3/classifier_plantvillage_0_split -> loss3/classifier_plantvillage_loss3/classifier_plantvillage_0_split_3
I0403 15:22:12.632339 11885 net.cpp:141] Setting up loss3/classifier_plantvillage_loss3/classifier_plantvillage_0_split
I0403 15:22:12.632361 11885 net.cpp:148] Top shape: 24 38 (912)
I0403 15:22:12.632376 11885 net.cpp:148] Top shape: 24 38 (912)
I0403 15:22:12.632396 11885 net.cpp:148] Top shape: 24 38 (912)
I0403 15:22:12.632412 11885 net.cpp:148] Top shape: 24 38 (912)
I0403 15:22:12.632426 11885 net.cpp:156] Memory required for data: 1346079072
I0403 15:22:12.632439 11885 layer_factory.hpp:77] Creating layer loss1/loss
I0403 15:22:12.632463 11885 net.cpp:91] Creating Layer loss1/loss
I0403 15:22:12.632480 11885 net.cpp:425] loss1/loss <- loss1/classifier_plantvillage_loss1/classifier_plantvillage_0_split_0
I0403 15:22:12.632510 11885 net.cpp:425] loss1/loss <- label_data_1_split_0
…
