…
I0403 15:15:17.136399 11761 net.cpp:313] The NetState phase (1) differed from the phase (0) specified by a rule in layer data
I0403 15:15:17.137547 11761 net.cpp:49] Initializing net from parameters: 
state {
  phase: TEST
}
layer {
  name: "data"
  type: "Data"
  top: "data"
  top: "label"
  include {
    phase: TEST
  }
  transform_param {
    mirror: false
    crop_size: 224
    mean_file: "/home/mohanty/data/final_dataset/lmdb/segmented-50-50/mean.binaryproto"
  }
  data_param {
    source: "/home/mohanty/data/final_dataset/lmdb/segmented-50-50/test_db"
    batch_size: 24
    backend: LMDB
  }
}
layer {
  name: "conv1/7x7_s2"
  type: "Convolution"
  bottom: "data"
  top: "conv1/7x7_s2"
  param {
    lr_mult: 1
    decay_mult: 1
  }
  param {
    lr_mult: 2
    decay_mult: 0
  }
  convolution_param {
    num_output: 64
    pad: 3
    kernel_size: 7
    stride: 2
    weight_filler {
      type: "xavier"
      std: 0.1
    }
    bias_filler {
      type: "constant"
      value: 0.2
    }
  }
}
layer {
  name: "conv1/relu_7x7"
  type: "ReLU"
  bottom: "conv1/7x7_s2"
  top: "conv1/7x7_s2"
}
layer {
  name: "pool1/3x3_s2"
  type: "Pooling"
  bottom: "conv1/7x7_s2"
  top: "pool1/3x3_s2"
  pooling_param {
    pool: MAX
    kernel_size: 3
    stride: 2
  }
}
layer {
  name: "pool1/norm1"
  type: "LRN"
  bottom: "pool1/3x3_s2"
  top: "pool1/norm1"
  lrn_param {
    local_size: 5
    alpha: 0.0001
    beta: 0.75
  }
}
layer {
  name: "conv2/3x3_reduce"
  type: "Convolution"
  bottom: "pool1/norm1"
  top: "conv2/3x3_reduce"
  param {
    lr_mult: 1
    decay_mult: 1
  }
  param {
    lr_mult: 2
    decay_mult: 0
  }
  convolution_param {
    num_output: 64
    kernel_size: 1
    weight_filler {
      type: "xavier"
      std: 0.1
    }
    bias_filler {
      type: "constant"
      value: 0.2
    }
  }
}
layer {
  name: "conv2/relu_3x3_reduce"
  type: "ReLU"
  bottom: "conv2/3x3_reduce"
  top: "conv2/3x3_reduce"
}
layer {
  name: "conv2/3x3"
  type: "Convolution"
  bottom: "conv2/3x3_reduce"
  top: "conv2/3x3"
  param {
    lr_mult: 1
    decay_mult: 1
  }
  param {
    lr_mult: 2
    decay_mult: 0
  }
  convolution_param {
    num_output: 192
    pad: 1
    kernel_size: 3
    weight_filler {
      type: "xavier"
      std: 0.03
    }
    bias_filler {
      type: "constant"
      value: 0.2
    }
  }
}
layer {
  name: "conv2/relu_3x3"
  type: "ReLU"
  bottom: "conv2/3x3"
  top: "conv2/3x3"
}
layer {
  name: "conv2/norm2"
  type: "LRN"
  bottom: "conv2/3x3"
  top: "conv2/norm2"
  lrn_param {
    local_size: 5
    alpha: 0.0001
    beta: 0.75
  }
}
layer {
  name: "pool2/3x3_s2"
  type: "Pooling"
  bottom: "conv2/norm2"
  top: "pool2/3x3_s2"
  pooling_param {
    pool: MAX
    kernel_size: 3
    stride: 2
  }
}
layer {
  name: "inception_3a/1x1"
  type: "Convolution"
  bottom: "pool2/3x3_s2"
  top: "inception_3a/1x1"
  param {
    lr_mult: 1
    decay_mult: 1
  }
  param {
    lr_mult: 2
    decay_mult: 0
  }
  convolution_param {
    num_output: 64
    kernel_size: 1
    weight_filler {
      type: "xavier"
      std: 0.03
    }
    bias_filler {
      type: "constant"
      value: 0.2
    }
  }
}
layer {
  name: "inception_3a/relu_1x1"
  type: "ReLU"
  bottom: "inception_3a/1x1"
  top: "inception_3a/1x1"
}
layer {
  name: "inception_3a/3x3_reduce"
  type: "Convolution"
  bottom: "pool2/3x3_s2"
  top: "inception_3a/3x3_reduce"
  param {
    lr_mult: 1
    decay_mult: 1
  }
  param {
    lr_mult: 2
    decay_mult: 0
  }
  convolution_param {
    num_output: 96
    kernel_size: 1
    weight_filler {
      type: "xavier"
      std: 0.09
    }
    bias_filler {
      type: "constant"
      value: 0.2
    }
  }
}
layer {
  name: "inception_3a/relu_3x3_reduce"
  type: "ReLU"
  bottom: "inception_3a/3x3_reduce"
  top: "inception_3a/3x3_reduce"
}
layer {
  name: "inception_3a/3x3"
  type: "Convolution"
  bottom: "inception_3a/3x3_reduce"
  top: "inception_3a/3x3"
  param {
    lr_mult: 1
    decay_mult: 1
  }
  param {
    lr_mult: 2
    decay_mult: 0
  }
  convolution_param {
    num_output: 128
    pad: 1
    kernel_size: 3
    weight_filler {
      type: "xavier"
      std: 0.03
    }
    bias_filler {
      type: "constant"
      value: 0.2
    }
  }
}
layer {
  name: "inception_3a/relu_3x3"
  type: "ReLU"
  bottom: "inception_3a/3x3"
  top: "inception_3a/3x3"
}
layer {
  name: "inception_3a/5x5_reduce"
  type: "Convolution"
  bottom: "pool2/3x3_s2"
  top: "inception_3a/5x5_reduce"
  param {
    lr_mult: 1
    decay_mult: 1
  }
  param {
    lr_mult: 2
    decay_mult: 0
  }
  convolution_param {
    num_output: 16
    kernel_size: 1
    weight_filler {
      type: "xavier"
      std: 0.2
    }
    bias_filler {
      type: "constant"
      value: 0.2
    }
  }
}
layer {
  name: "inception_3a/relu_5x5_reduce"
  type: "ReLU"
  bottom: "inception_3a/5x5_reduce"
  top: "inception_3a/5x5_reduce"
}
layer {
  name: "inception_3a/5x5"
  type: "Convolution"
  bottom: "inception_3a/5x5_reduce"
  top: "inception_3a/5x5"
  param {
    lr_mult: 1
    decay_mult: 1
  }
  param {
    lr_mult: 2
    decay_mult: 0
  }
  convolution_param {
    num_output: 32
    pad: 2
    kernel_size: 5
    weight_filler {
      type: "xavier"
      std: 0.03
    }
    bias_filler {
      type: "constant"
      value: 0.2
    }
  }
}
layer {
  name: "inception_3a/relu_5x5"
  type: "ReLU"
  bottom: "inception_3a/5x5"
  top: "inception_3a/5x5"
}
layer {
  name: "inception_3a/pool"
  type: "Pooling"
  bottom: "pool2/3x3_s2"
  top: "inception_3a/pool"
  pooling_param {
    pool: MAX
    kernel_size: 3
    stride: 1
    pad: 1
  }
}
layer {
  name: "inception_3a/pool_proj"
  type: "Convolution"
  bottom: "inception_3a/pool"
  top: "inception_3a/pool_proj"
  param {
    lr_mult: 1
    decay_mult: 1
  }
  param {
    lr_mult: 2
    decay_mult: 0
  }
  convolution_param {
    num_output: 32
    kernel_size: 1
    weight_filler {
      type: "xavier"
      std: 0.1
    }
    bias_filler {
      type: "constant"
      value: 0.2
    }
  }
}
layer {
  name: "inception_3a/relu_pool_proj"
  type: "ReLU"
  bottom: "inception_3a/pool_proj"
  top: "inception_3a/pool_proj"
}
layer {
  name: "inception_3a/output"
  type: "Concat"
  bottom: "inception_3a/1x1"
  bottom: "inception_3a/3x3"
  bottom: "inception_3a/5x5"
  bottom: "inception_3a/pool_proj"
  top: "inception_3a/output"
}
layer {
  name: "inception_3b/1x1"
  type: "Convolution"
  bottom: "inception_3a/output"
  top: "inception_3b/1x1"
  param {
    lr_mult: 1
    decay_mult: 1
  }
  param {
    lr_mult: 2
    decay_mult: 0
  }
  convolution_param {
    num_output: 128
    kernel_size: 1
    weight_filler {
      type: "xavier"
      std: 0.03
    }
    bias_filler {
      type: "constant"
      value: 0.2
    }
  }
}
layer {
  name: "inception_3b/relu_1x1"
  type: "ReLU"
  bottom: "inception_3b/1x1"
  top: "inception_3b/1x1"
}
layer {
  name: "inception_3b/3x3_reduce"
  type: "Convolution"
  bottom: "inception_3a/output"
  top: "inception_3b/3x3_reduce"
  param {
    lr_mult: 1
    decay_mult: 1
  }
  param {
    lr_mult: 2
    decay_mult: 0
  }
  convolution_param {
    num_output: 128
    kernel_size: 1
    weight_filler {
      type: "xavier"
      std: 0.09
    }
    bias_filler {
      type: "constant"
      value: 0.2
    }
  }
}
layer {
  name: "inception_3b/relu_3x3_reduce"
  type: "ReLU"
  bottom: "inception_3b/3x3_reduce"
  top: "inception_3b/3x3_reduce"
}
layer {
  name: "inception_3b/3x3"
  type: "Convolution"
  bottom: "inception_3b/3x3_reduce"
  top: "inception_3b/3x3"
  param {
    lr_mult: 1
    decay_mult: 1
  }
  param {
    lr_mult: 2
    decay_mult: 0
  }
  convolution_param {
    num_output: 192
    pad: 1
    kernel_size: 3
    weight_filler {
      type: "xavier"
      std: 0.03
    }
    bias_filler {
      type: "constant"
      value: 0.2
    }
  }
}
layer {
  name: "inception_3b/relu_3x3"
  type: "ReLU"
  bottom: "inception_3b/3x3"
  top: "inception_3b/3x3"
}
layer {
  name: "inception_3b/5x5_reduce"
  type: "Convolution"
  bottom: "inception_3a/output"
  top: "inception_3b/5x5_reduce"
  param {
    lr_mult: 1
    decay_mult: 1
  }
  param {
    lr_mult: 2
    decay_mult: 0
  }
  convolution_param {
    num_output: 32
    kernel_size: 1
    weight_filler {
      type: "xavier"
      std: 0.2
    }
    bias_filler {
      type: "constant"
      value: 0.2
    }
  }
}
layer {
  name: "inception_3b/relu_5x5_reduce"
  type: "ReLU"
  bottom: "inception_3b/5x5_reduce"
  top: "inception_3b/5x5_reduce"
}
layer {
  name: "inception_3b/5x5"
  type: "Convolution"
  bottom: "inception_3b/5x5_reduce"
  top: "inception_3b/5x5"
  param {
    lr_mult: 1
    decay_mult: 1
  }
  param {
    lr_mult: 2
    decay_mult: 0
  }
  convolution_param {
    num_output: 96
    pad: 2
    kernel_size: 5
    weight_filler {
      type: "xavier"
      std: 0.03
    }
    bias_filler {
      type: "constant"
      value: 0.2
    }
  }
}
layer {
  name: "inception_3b/relu_5x5"
  type: "ReLU"
  bottom: "inception_3b/5x5"
  top: "inception_3b/5x5"
}
layer {
  name: "inception_3b/pool"
  type: "Pooling"
  bottom: "inception_3a/output"
  top: "inception_3b/pool"
  pooling_param {
    pool: MAX
    kernel_size: 3
    stride: 1
    pad: 1
  }
}
layer {
  name: "inception_3b/pool_proj"
  type: "Convolution"
  bottom: "inception_3b/pool"
  top: "inception_3b/pool_proj"
  param {
    lr_mult: 1
    decay_mult: 1
  }
  param {
    lr_mult: 2
    decay_mult: 0
  }
  convolution_param {
    num_output: 64
    kernel_size: 1
    weight_filler {
      type: "xavier"
      std: 0.1
    }
    bias_filler {
      type: "constant"
      value: 0.2
    }
  }
}
layer {
  name: "inception_3b/relu_pool_proj"
  type: "ReLU"
  bottom: "inception_3b/pool_proj"
  top: "inception_3b/pool_proj"
}
layer {
  name: "inception_3b/output"
  type: "Concat"
  bottom: "inception_3b/1x1"
  bottom: "inception_3b/3x3"
  bottom: "inception_3b/5x5"
  bottom: "inception_3b/pool_proj"
  top: "inception_3b/output"
}
layer {
  name: "pool3/3x3_s2"
  type: "Pooling"
  bottom: "inception_3b/output"
  top: "pool3/3x3_s2"
  pooling_param {
    pool: MAX
    kernel_size: 3
    stride: 2
  }
}
layer {
  name: "inception_4a/1x1"
  type: "Convolution"
  bottom: "pool3/3x3_s2"
  top: "inception_4a/1x1"
  param {
    lr_mult: 1
    decay_mult: 1
  }
  param {
    lr_mult: 2
    decay_mult: 0
  }
  convolution_param {
    num_output: 192
    kernel_size: 1
    weight_filler {
      type: "xavier"
      std: 0.03
    }
    bias_filler {
      type: "constant"
      value: 0.2
    }
  }
}
layer {
  name: "inception_4a/relu_1x1"
  type: "ReLU"
  bottom: "inception_4a/1x1"
  top: "inception_4a/1x1"
}
layer {
  name: "inception_4a/3x3_reduce"
  type: "Convolution"
  bottom: "pool3/3x3_s2"
  top: "inception_4a/3x3_reduce"
  param {
    lr_mult: 1
    decay_mult: 1
  }
  param {
    lr_mult: 2
    decay_mult: 0
  }
  convolution_param {
    num_output: 96
    kernel_size: 1
    weight_filler {
      type: "xavier"
      std: 0.09
    }
    bias_filler {
      type: "constant"
      value: 0.2
    }
  }
}
layer {
  name: "inception_4a/relu_3x3_reduce"
  type: "ReLU"
  bottom: "inception_4a/3x3_reduce"
  top: "inception_4a/3x3_reduce"
}
layer {
  name: "inception_4a/3x3"
  type: "Convolution"
  bottom: "inception_4a/3x3_reduce"
  top: "inception_4a/3x3"
  param {
    lr_mult: 1
    decay_mult: 1
  }
  param {
    lr_mult: 2
    decay_mult: 0
  }
  convolution_param {
    num_output: 208
    pad: 1
    kernel_size: 3
    weight_filler {
      type: "xavier"
      std: 0.03
    }
    bias_filler {
      type: "constant"
      value: 0.2
    }
  }
}
layer {
  name: "inception_4a/relu_3x3"
  type: "ReLU"
  bottom: "inception_4a/3x3"
  top: "inception_4a/3x3"
}
layer {
  name: "inception_4a/5x5_reduce"
  type: "Convolution"
  bottom: "pool3/3x3_s2"
  top: "inception_4a/5x5_reduce"
  param {
    lr_mult: 1
    decay_mult: 1
  }
  param {
    lr_mult: 2
    decay_mult: 0
  }
  convolution_param {
    num_output: 16
    kernel_size: 1
    weight_filler {
      type: "xavier"
      std: 0.2
    }
    bias_filler {
      type: "constant"
      value: 0.2
    }
  }
}
layer {
  name: "inception_4a/relu_5x5_reduce"
  type: "ReLU"
  bottom: "inception_4a/5x5_reduce"
  top: "inception_4a/5x5_reduce"
}
layer {
  name: "inception_4a/5x5"
  type: "Convolution"
  bottom: "inception_4a/5x5_reduce"
  top: "inception_4a/5x5"
  param {
    lr_mult: 1
    decay_mult: 1
  }
  param {
    lr_mult: 2
    decay_mult: 0
  }
  convolution_param {
    num_output: 48
    pad: 2
    kernel_size: 5
    weight_filler {
      type: "xavier"
      std: 0.03
    }
    bias_filler {
      type: "constant"
      value: 0.2
    }
  }
}
layer {
  name: "inception_4a/relu_5x5"
  type: "ReLU"
  bottom: "inception_4a/5x5"
  top: "inception_4a/5x5"
}
layer {
  name: "inception_4a/pool"
  type: "Pooling"
  bottom: "pool3/3x3_s2"
  top: "inception_4a/pool"
  pooling_param {
    pool: MAX
    kernel_size: 3
    stride: 1
    pad: 1
  }
}
layer {
  name: "inception_4a/pool_proj"
  type: "Convolution"
  bottom: "inception_4a/pool"
  top: "inception_4a/pool_proj"
  param {
    lr_mult: 1
    decay_mult: 1
  }
  param {
    lr_mult: 2
    decay_mult: 0
  }
  convolution_param {
    num_output: 64
    kernel_size: 1
    weight_filler {
      type: "xavier"
      std: 0.1
    }
    bias_filler {
      type: "constant"
      value: 0.2
    }
  }
}
layer {
  name: "inception_4a/relu_pool_proj"
  type: "ReLU"
  bottom: "inception_4a/pool_proj"
  top: "inception_4a/pool_proj"
}
layer {
  name: "inception_4a/output"
  type: "Concat"
  bottom: "inception_4a/1x1"
  bottom: "inception_4a/3x3"
  bottom: "inception_4a/5x5"
  bottom: "inception_4a/pool_proj"
  top: "inception_4a/output"
}
layer {
  name: "loss1/ave_pool"
  type: "Pooling"
  bottom: "inception_4a/output"
  top: "loss1/ave_pool"
  pooling_param {
    pool: AVE
    kernel_size: 5
    stride: 3
  }
}
layer {
  name: "loss1/conv"
  type: "Convolution"
  bottom: "loss1/ave_pool"
  top: "loss1/conv"
  param {
    lr_mult: 1
    decay_mult: 1
  }
  param {
    lr_mult: 2
    decay_mult: 0
  }
  convolution_param {
    num_output: 128
    kernel_size: 1
    weight_filler {
      type: "xavier"
      std: 0.08
    }
    bias_filler {
      type: "constant"
      value: 0.2
    }
  }
}
layer {
  name: "loss1/relu_conv"
  type: "ReLU"
  bottom: "loss1/conv"
  top: "loss1/conv"
}
layer {
  name: "loss1/fc"
  type: "InnerProduct"
  bottom: "loss1/conv"
  top: "loss1/fc"
  param {
    lr_mult: 1
    decay_mult: 1
  }
  param {
    lr_mult: 2
    decay_mult: 0
  }
  inner_product_param {
    num_output: 1024
    weight_filler {
      type: "xavier"
      std: 0.02
    }
    bias_filler {
      type: "constant"
      value: 0.2
    }
  }
}
layer {
  name: "loss1/relu_fc"
  type: "ReLU"
  bottom: "loss1/fc"
  top: "loss1/fc"
}
layer {
  name: "loss1/drop_fc"
  type: "Dropout"
  bottom: "loss1/fc"
  top: "loss1/fc"
  dropout_param {
    dropout_ratio: 0.7
  }
}
layer {
  name: "loss1/classifier_plantvillage"
  type: "InnerProduct"
  bottom: "loss1/fc"
  top: "loss1/classifier_plantvillage"
  param {
    lr_mult: 1
    decay_mult: 1
  }
  param {
    lr_mult: 2
    decay_mult: 0
  }
  inner_product_param {
    num_output: 38
    weight_filler {
      type: "xavier"
      std: 0.0009765625
    }
    bias_filler {
      type: "constant"
      value: 0
    }
  }
}
layer {
  name: "inception_4b/1x1"
  type: "Convolution"
  bottom: "inception_4a/output"
  top: "inception_4b/1x1"
  param {
    lr_mult: 1
    decay_mult: 1
  }
  param {
    lr_mult: 2
    decay_mult: 0
  }
  convolution_param {
    num_output: 160
    kernel_size: 1
    weight_filler {
      type: "xavier"
      std: 0.03
    }
    bias_filler {
      type: "constant"
      value: 0.2
    }
  }
}
layer {
  name: "inception_4b/relu_1x1"
  type: "ReLU"
  bottom: "inception_4b/1x1"
  top: "inception_4b/1x1"
}
layer {
  name: "inception_4b/3x3_reduce"
  type: "Convolution"
  bottom: "inception_4a/output"
  top: "inception_4b/3x3_reduce"
  param {
    lr_mult: 1
    decay_mult: 1
  }
  param {
    lr_mult: 2
    decay_mult: 0
  }
  convolution_param {
    num_output: 112
    kernel_size: 1
    weight_filler {
      type: "xavier"
      std: 0.09
    }
    bias_filler {
      type: "constant"
      value: 0.2
    }
  }
}
layer {
  name: "inception_4b/relu_3x3_reduce"
  type: "ReLU"
  bottom: "inception_4b/3x3_reduce"
  top: "inception_4b/3x3_reduce"
}
layer {
  name: "inception_4b/3x3"
  type: "Convolution"
  bottom: "inception_4b/3x3_reduce"
  top: "inception_4b/3x3"
  param {
    lr_mult: 1
    decay_mult: 1
  }
  param {
    lr_mult: 2
    decay_mult: 0
  }
  convolution_param {
    num_output: 224
    pad: 1
    kernel_size: 3
    weight_filler {
      type: "xavier"
      std: 0.03
    }
    bias_filler {
      type: "constant"
      value: 0.2
    }
  }
}
layer {
  name: "inception_4b/relu_3x3"
  type: "ReLU"
  bottom: "inception_4b/3x3"
  top: "inception_4b/3x3"
}
layer {
  name: "inception_4b/5x5_reduce"
  type: "Convolution"
  bottom: "inception_4a/output"
  top: "inception_4b/5x5_reduce"
  param {
    lr_mult: 1
    decay_mult: 1
  }
  param {
    lr_mult: 2
    decay_mult: 0
  }
  convolution_param {
    num_output: 24
    kernel_size: 1
    weight_filler {
      type: "xavier"
      std: 0.2
    }
    bias_filler {
      type: "constant"
      value: 0.2
    }
  }
}
layer {
  name: "inception_4b/relu_5x5_reduce"
  type: "ReLU"
  bottom: "inception_4b/5x5_reduce"
  top: "inception_4b/5x5_reduce"
}
layer {
  name: "inception_4b/5x5"
  type: "Convolution"
  bottom: "inception_4b/5x5_reduce"
  top: "inception_4b/5x5"
  param {
    lr_mult: 1
    decay_mult: 1
  }
  param {
    lr_mult: 2
    decay_mult: 0
  }
  convolution_param {
    num_output: 64
    pad: 2
    kernel_size: 5
    weight_filler {
      type: "xavier"
      std: 0.03
    }
    bias_filler {
      type: "constant"
      value: 0.2
    }
  }
}
layer {
  name: "inception_4b/relu_5x5"
  type: "ReLU"
  bottom: "inception_4b/5x5"
  top: "inception_4b/5x5"
}
layer {
  name: "inception_4b/pool"
  type: "Pooling"
  bottom: "inception_4a/output"
  top: "inception_4b/pool"
  pooling_param {
    pool: MAX
    kernel_size: 3
    stride: 1
    pad: 1
  }
}
layer {
  name: "inception_4b/pool_proj"
  type: "Convolution"
  bottom: "inception_4b/pool"
  top: "inception_4b/pool_proj"
  param {
    lr_mult: 1
    decay_mult: 1
  }
  param {
    lr_mult: 2
    decay_mult: 0
  }
  convolution_param {
    num_output: 64
    kernel_size: 1
    weight_filler {
      type: "xavier"
      std: 0.1
    }
    bias_filler {
      type: "constant"
      value: 0.2
    }
  }
}
layer {
  name: "inception_4b/relu_pool_proj"
  type: "ReLU"
  bottom: "inception_4b/pool_proj"
  top: "inception_4b/pool_proj"
}
layer {
  name: "inception_4b/output"
  type: "Concat"
  bottom: "inception_4b/1x1"
  bottom: "inception_4b/3x3"
  bottom: "inception_4b/5x5"
  bottom: "inception_4b/pool_proj"
  top: "inception_4b/output"
}
layer {
  name: "inception_4c/1x1"
  type: "Convolution"
  bottom: "inception_4b/output"
  top: "inception_4c/1x1"
  param {
    lr_mult: 1
    decay_mult: 1
  }
  param {
    lr_mult: 2
    decay_mult: 0
  }
  convolution_param {
    num_output: 128
    kernel_size: 1
    weight_filler {
      type: "xavier"
      std: 0.03
    }
    bias_filler {
      type: "constant"
      value: 0.2
    }
  }
}
layer {
  name: "inception_4c/relu_1x1"
  type: "ReLU"
  bottom: "inception_4c/1x1"
  top: "inception_4c/1x1"
}
layer {
  name: "inception_4c/3x3_reduce"
  type: "Convolution"
  bottom: "inception_4b/output"
  top: "inception_4c/3x3_reduce"
  param {
    lr_mult: 1
    decay_mult: 1
  }
  param {
    lr_mult: 2
    decay_mult: 0
  }
  convolution_param {
    num_output: 128
    kernel_size: 1
    weight_filler {
      type: "xavier"
      std: 0.09
    }
    bias_filler {
      type: "constant"
      value: 0.2
    }
  }
}
layer {
  name: "inception_4c/relu_3x3_reduce"
  type: "ReLU"
  bottom: "inception_4c/3x3_reduce"
  top: "inception_4c/3x3_reduce"
}
layer {
  name: "inception_4c/3x3"
  type: "Convolution"
  bottom: "inception_4c/3x3_reduce"
  top: "inception_4c/3x3"
  param {
    lr_mult: 1
    decay_mult: 1
  }
  param {
    lr_mult: 2
    decay_mult: 0
  }
  convolution_param {
    num_output: 256
    pad: 1
    kernel_size: 3
    weight_filler {
      type: "xavier"
      std: 0.03
    }
    bias_filler {
      type: "constant"
      value: 0.2
    }
  }
}
layer {
  name: "inception_4c/relu_3x3"
  type: "ReLU"
  bottom: "inception_4c/3x3"
  top: "inception_4c/3x3"
}
layer {
  name: "inception_4c/5x5_reduce"
  type: "Convolution"
  bottom: "inception_4b/output"
  top: "inception_4c/5x5_reduce"
  param {
    lr_mult: 1
    decay_mult: 1
  }
  param {
    lr_mult: 2
    decay_mult: 0
  }
  convolution_param {
    num_output: 24
    kernel_size: 1
    weight_filler {
      type: "xavier"
      std: 0.2
    }
    bias_filler {
      type: "constant"
      value: 0.2
    }
  }
}
layer {
  name: "inception_4c/relu_5x5_reduce"
  type: "ReLU"
  bottom: "inception_4c/5x5_reduce"
  top: "inception_4c/5x5_reduce"
}
layer {
  name: "inception_4c/5x5"
  type: "Convolution"
  bottom: "inception_4c/5x5_reduce"
  top: "inception_4c/5x5"
  param {
    lr_mult: 1
    decay_mult: 1
  }
  param {
    lr_mult: 2
    decay_mult: 0
  }
  convolution_param {
    num_output: 64
    pad: 2
    kernel_size: 5
    weight_filler {
      type: "xavier"
      std: 0.03
    }
    bias_filler {
      type: "constant"
      value: 0.2
    }
  }
}
layer {
  name: "inception_4c/relu_5x5"
  type: "ReLU"
  bottom: "inception_4c/5x5"
  top: "inception_4c/5x5"
}
layer {
  name: "inception_4c/pool"
  type: "Pooling"
  bottom: "inception_4b/output"
  top: "inception_4c/pool"
  pooling_param {
    pool: MAX
    kernel_size: 3
    stride: 1
    pad: 1
  }
}
layer {
  name: "inception_4c/pool_proj"
  type: "Convolution"
  bottom: "inception_4c/pool"
  top: "inception_4c/pool_proj"
  param {
    lr_mult: 1
    decay_mult: 1
  }
  param {
    lr_mult: 2
    decay_mult: 0
  }
  convolution_param {
    num_output: 64
    kernel_size: 1
    weight_filler {
      type: "xavier"
      std: 0.1
    }
    bias_filler {
      type: "constant"
      value: 0.2
    }
  }
}
layer {
  name: "inception_4c/relu_pool_proj"
  type: "ReLU"
  bottom: "inception_4c/pool_proj"
  top: "inception_4c/pool_proj"
}
layer {
  name: "inception_4c/output"
  type: "Concat"
  bottom: "inception_4c/1x1"
  bottom: "inception_4c/3x3"
  bottom: "inception_4c/5x5"
  bottom: "inception_4c/pool_proj"
  top: "inception_4c/output"
}
layer {
  name: "inception_4d/1x1"
  type: "Convolution"
  bottom: "inception_4c/output"
  top: "inception_4d/1x1"
  param {
    lr_mult: 1
    decay_mult: 1
  }
  param {
    lr_mult: 2
    decay_mult: 0
  }
  convolution_param {
    num_output: 112
    kernel_size: 1
    weight_filler {
      type: "xavier"
      std: 0.03
    }
    bias_filler {
      type: "constant"
      value: 0.2
    }
  }
}
layer {
  name: "inception_4d/relu_1x1"
  type: "ReLU"
  bottom: "inception_4d/1x1"
  top: "inception_4d/1x1"
}
layer {
  name: "inception_4d/3x3_reduce"
  type: "Convolution"
  bottom: "inception_4c/output"
  top: "inception_4d/3x3_reduce"
  param {
    lr_mult: 1
    decay_mult: 1
  }
  param {
    lr_mult: 2
    decay_mult: 0
  }
  convolution_param {
    num_output: 144
    kernel_size: 1
    weight_filler {
      type: "xavier"
      std: 0.09
    }
    bias_filler {
      type: "constant"
      value: 0.2
    }
  }
}
layer {
  name: "inception_4d/relu_3x3_reduce"
  type: "ReLU"
  bottom: "inception_4d/3x3_reduce"
  top: "inception_4d/3x3_reduce"
}
layer {
  name: "inception_4d/3x3"
  type: "Convolution"
  bottom: "inception_4d/3x3_reduce"
  top: "inception_4d/3x3"
  param {
    lr_mult: 1
    decay_mult: 1
  }
  param {
    lr_mult: 2
    decay_mult: 0
  }
  convolution_param {
    num_output: 288
    pad: 1
    kernel_size: 3
    weight_filler {
      type: "xavier"
      std: 0.03
    }
    bias_filler {
      type: "constant"
      value: 0.2
    }
  }
}
layer {
  name: "inception_4d/relu_3x3"
  type: "ReLU"
  bottom: "inception_4d/3x3"
  top: "inception_4d/3x3"
}
layer {
  name: "inception_4d/5x5_reduce"
  type: "Convolution"
  bottom: "inception_4c/output"
  top: "inception_4d/5x5_reduce"
  param {
    lr_mult: 1
    decay_mult: 1
  }
  param {
    lr_mult: 2
    decay_mult: 0
  }
  convolution_param {
    num_output: 32
    kernel_size: 1
    weight_filler {
      type: "xavier"
      std: 0.2
    }
    bias_filler {
      type: "constant"
      value: 0.2
    }
  }
}
layer {
  name: "inception_4d/relu_5x5_reduce"
  type: "ReLU"
  bottom: "inception_4d/5x5_reduce"
  top: "inception_4d/5x5_reduce"
}
layer {
  name: "inception_4d/5x5"
  type: "Convolution"
  bottom: "inception_4d/5x5_reduce"
  top: "inception_4d/5x5"
  param {
    lr_mult: 1
    decay_mult: 1
  }
  param {
    lr_mult: 2
    decay_mult: 0
  }
  convolution_param {
    num_output: 64
    pad: 2
    kernel_size: 5
    weight_filler {
      type: "xavier"
      std: 0.03
    }
    bias_filler {
      type: "constant"
      value: 0.2
    }
  }
}
layer {
  name: "inception_4d/relu_5x5"
  type: "ReLU"
  bottom: "inception_4d/5x5"
  top: "inception_4d/5x5"
}
layer {
  name: "inception_4d/pool"
  type: "Pooling"
  bottom: "inception_4c/output"
  top: "inception_4d/pool"
  pooling_param {
    pool: MAX
    kernel_size: 3
    stride: 1
    pad: 1
  }
}
layer {
  name: "inception_4d/pool_proj"
  type: "Convolution"
  bottom: "inception_4d/pool"
  top: "inception_4d/pool_proj"
  param {
    lr_mult: 1
    decay_mult: 1
  }
  param {
    lr_mult: 2
    decay_mult: 0
  }
  convolution_param {
    num_output: 64
    kernel_size: 1
    weight_filler {
      type: "xavier"
      std: 0.1
    }
    bias_filler {
      type: "constant"
      value: 0.2
    }
  }
}
layer {
  name: "inception_4d/relu_pool_proj"
  type: "ReLU"
  bottom: "inception_4d/pool_proj"
  top: "inception_4d/pool_proj"
}
layer {
  name: "inception_4d/output"
  type: "Concat"
  bottom: "inception_4d/1x1"
  bottom: "inception_4d/3x3"
  bottom: "inception_4d/5x5"
  bottom: "inception_4d/pool_proj"
  top: "inception_4d/output"
}
layer {
  name: "loss2/ave_pool"
  type: "Pooling"
  bottom: "inception_4d/output"
  top: "loss2/ave_pool"
  pooling_param {
    pool: AVE
    kernel_size: 5
    stride: 3
  }
}
layer {
  name: "loss2/conv"
  type: "Convolution"
  bottom: "loss2/ave_pool"
  top: "loss2/conv"
  param {
    lr_mult: 1
    decay_mult: 1
  }
  param {
    lr_mult: 2
    decay_mult: 0
  }
  convolution_param {
    num_output: 128
    kernel_size: 1
    weight_filler {
      type: "xavier"
      std: 0.08
    }
    bias_filler {
      type: "constant"
      value: 0.2
    }
  }
}
layer {
  name: "loss2/relu_conv"
  type: "ReLU"
  bottom: "loss2/conv"
  top: "loss2/conv"
}
layer {
  name: "loss2/fc"
  type: "InnerProduct"
  bottom: "loss2/conv"
  top: "loss2/fc"
  param {
    lr_mult: 1
    decay_mult: 1
  }
  param {
    lr_mult: 2
    decay_mult: 0
  }
  inner_product_param {
    num_output: 1024
    weight_filler {
      type: "xavier"
      std: 0.02
    }
    bias_filler {
      type: "constant"
      value: 0.2
    }
  }
}
layer {
  name: "loss2/relu_fc"
  type: "ReLU"
  bottom: "loss2/fc"
  top: "loss2/fc"
}
layer {
  name: "loss2/drop_fc"
  type: "Dropout"
  bottom: "loss2/fc"
  top: "loss2/fc"
  dropout_param {
    dropout_ratio: 0.7
  }
}
layer {
  name: "loss2/classifier_plantvillage"
  type: "InnerProduct"
  bottom: "loss2/fc"
  top: "loss2/classifier_plantvillage"
  param {
    lr_mult: 1
    decay_mult: 1
  }
  param {
    lr_mult: 2
    decay_mult: 0
  }
  inner_product_param {
    num_output: 38
    weight_filler {
      type: "xavier"
      std: 0.0009765625
    }
    bias_filler {
      type: "constant"
      value: 0
    }
  }
}
layer {
  name: "inception_4e/1x1"
  type: "Convolution"
  bottom: "inception_4d/output"
  top: "inception_4e/1x1"
  param {
    lr_mult: 1
    decay_mult: 1
  }
  param {
    lr_mult: 2
    decay_mult: 0
  }
  convolution_param {
    num_output: 256
    kernel_size: 1
    weight_filler {
      type: "xavier"
      std: 0.03
    }
    bias_filler {
      type: "constant"
      value: 0.2
    }
  }
}
layer {
  name: "inception_4e/relu_1x1"
  type: "ReLU"
  bottom: "inception_4e/1x1"
  top: "inception_4e/1x1"
}
layer {
  name: "inception_4e/3x3_reduce"
  type: "Convolution"
  bottom: "inception_4d/output"
  top: "inception_4e/3x3_reduce"
  param {
    lr_mult: 1
    decay_mult: 1
  }
  param {
    lr_mult: 2
    decay_mult: 0
  }
  convolution_param {
    num_output: 160
    kernel_size: 1
    weight_filler {
      type: "xavier"
      std: 0.09
    }
    bias_filler {
      type: "constant"
      value: 0.2
    }
  }
}
layer {
  name: "inception_4e/relu_3x3_reduce"
  type: "ReLU"
  bottom: "inception_4e/3x3_reduce"
  top: "inception_4e/3x3_reduce"
}
layer {
  name: "inception_4e/3x3"
  type: "Convolution"
  bottom: "inception_4e/3x3_reduce"
  top: "inception_4e/3x3"
  param {
    lr_mult: 1
    decay_mult: 1
  }
  param {
    lr_mult: 2
    decay_mult: 0
  }
  convolution_param {
    num_output: 320
    pad: 1
    kernel_size: 3
    weight_filler {
      type: "xavier"
      std: 0.03
    }
    bias_filler {
      type: "constant"
      value: 0.2
    }
  }
}
layer {
  name: "inception_4e/relu_3x3"
  type: "ReLU"
  bottom: "inception_4e/3x3"
  top: "inception_4e/3x3"
}
layer {
  name: "inception_4e/5x5_reduce"
  type: "Convolution"
  bottom: "inception_4d/output"
  top: "inception_4e/5x5_reduce"
  param {
    lr_mult: 1
    decay_mult: 1
  }
  param {
    lr_mult: 2
    decay_mult: 0
  }
  convolution_param {
    num_output: 32
    kernel_size: 1
    weight_filler {
      type: "xavier"
      std: 0.2
    }
    bias_filler {
      type: "constant"
      value: 0.2
    }
  }
}
layer {
  name: "inception_4e/relu_5x5_reduce"
  type: "ReLU"
  bottom: "inception_4e/5x5_reduce"
  top: "inception_4e/5x5_reduce"
}
layer {
  name: "inception_4e/5x5"
  type: "Convolution"
  bottom: "inception_4e/5x5_reduce"
  top: "inception_4e/
I0403 15:15:17.138856 11761 layer_factory.hpp:77] Creating layer data
I0403 15:15:17.139473 11761 net.cpp:91] Creating Layer data
I0403 15:15:17.139504 11761 net.cpp:399] data -> data
I0403 15:15:17.139556 11761 net.cpp:399] data -> label
I0403 15:15:17.139605 11761 data_transformer.cpp:25] Loading mean file from: /home/mohanty/data/final_dataset/lmdb/segmented-50-50/mean.binaryproto
I0403 15:15:17.142354 11766 db_lmdb.cpp:38] Opened lmdb /home/mohanty/data/final_dataset/lmdb/segmented-50-50/test_db
I0403 15:15:17.152331 11761 data_layer.cpp:41] output data size: 24,3,224,224
I0403 15:15:17.179209 11761 net.cpp:141] Setting up data
I0403 15:15:17.179297 11761 net.cpp:148] Top shape: 24 3 224 224 (3612672)
I0403 15:15:17.179322 11761 net.cpp:148] Top shape: 24 (24)
I0403 15:15:17.179337 11761 net.cpp:156] Memory required for data: 14450784
I0403 15:15:17.179363 11761 layer_factory.hpp:77] Creating layer label_data_1_split
I0403 15:15:17.179390 11761 net.cpp:91] Creating Layer label_data_1_split
I0403 15:15:17.179412 11761 net.cpp:425] label_data_1_split <- label
I0403 15:15:17.179445 11761 net.cpp:399] label_data_1_split -> label_data_1_split_0
I0403 15:15:17.179474 11761 net.cpp:399] label_data_1_split -> label_data_1_split_1
I0403 15:15:17.179497 11761 net.cpp:399] label_data_1_split -> label_data_1_split_2
I0403 15:15:17.179517 11761 net.cpp:399] label_data_1_split -> label_data_1_split_3
I0403 15:15:17.179538 11761 net.cpp:399] label_data_1_split -> label_data_1_split_4
I0403 15:15:17.179558 11761 net.cpp:399] label_data_1_split -> label_data_1_split_5
I0403 15:15:17.179581 11761 net.cpp:399] label_data_1_split -> label_data_1_split_6
I0403 15:15:17.179603 11761 net.cpp:399] label_data_1_split -> label_data_1_split_7
I0403 15:15:17.179623 11761 net.cpp:399] label_data_1_split -> label_data_1_split_8
I0403 15:15:17.179643 11761 net.cpp:399] label_data_1_split -> label_data_1_split_9
I0403 15:15:17.179755 11761 net.cpp:141] Setting up label_data_1_split
I0403 15:15:17.179779 11761 net.cpp:148] Top shape: 24 (24)
I0403 15:15:17.179795 11761 net.cpp:148] Top shape: 24 (24)
I0403 15:15:17.179810 11761 net.cpp:148] Top shape: 24 (24)
I0403 15:15:17.179824 11761 net.cpp:148] Top shape: 24 (24)
I0403 15:15:17.179838 11761 net.cpp:148] Top shape: 24 (24)
I0403 15:15:17.179853 11761 net.cpp:148] Top shape: 24 (24)
I0403 15:15:17.179877 11761 net.cpp:148] Top shape: 24 (24)
I0403 15:15:17.179893 11761 net.cpp:148] Top shape: 24 (24)
I0403 15:15:17.179906 11761 net.cpp:148] Top shape: 24 (24)
I0403 15:15:17.179921 11761 net.cpp:148] Top shape: 24 (24)
I0403 15:15:17.179963 11761 net.cpp:156] Memory required for data: 14451744
I0403 15:15:17.179980 11761 layer_factory.hpp:77] Creating layer conv1/7x7_s2
I0403 15:15:17.180009 11761 net.cpp:91] Creating Layer conv1/7x7_s2
I0403 15:15:17.180027 11761 net.cpp:425] conv1/7x7_s2 <- data
I0403 15:15:17.180047 11761 net.cpp:399] conv1/7x7_s2 -> conv1/7x7_s2
I0403 15:15:17.322420 11761 net.cpp:141] Setting up conv1/7x7_s2
I0403 15:15:17.322510 11761 net.cpp:148] Top shape: 24 64 112 112 (19267584)
I0403 15:15:17.322526 11761 net.cpp:156] Memory required for data: 91522080
I0403 15:15:17.322556 11761 layer_factory.hpp:77] Creating layer conv1/relu_7x7
I0403 15:15:17.322582 11761 net.cpp:91] Creating Layer conv1/relu_7x7
I0403 15:15:17.322599 11761 net.cpp:425] conv1/relu_7x7 <- conv1/7x7_s2
I0403 15:15:17.322618 11761 net.cpp:386] conv1/relu_7x7 -> conv1/7x7_s2 (in-place)
I0403 15:15:17.322865 11761 net.cpp:141] Setting up conv1/relu_7x7
I0403 15:15:17.322891 11761 net.cpp:148] Top shape: 24 64 112 112 (19267584)
I0403 15:15:17.322906 11761 net.cpp:156] Memory required for data: 168592416
I0403 15:15:17.322921 11761 layer_factory.hpp:77] Creating layer pool1/3x3_s2
I0403 15:15:17.322943 11761 net.cpp:91] Creating Layer pool1/3x3_s2
I0403 15:15:17.322960 11761 net.cpp:425] pool1/3x3_s2 <- conv1/7x7_s2
I0403 15:15:17.322978 11761 net.cpp:399] pool1/3x3_s2 -> pool1/3x3_s2
I0403 15:15:17.323050 11761 net.cpp:141] Setting up pool1/3x3_s2
I0403 15:15:17.323073 11761 net.cpp:148] Top shape: 24 64 56 56 (4816896)
I0403 15:15:17.323086 11761 net.cpp:156] Memory required for data: 187860000
I0403 15:15:17.323101 11761 layer_factory.hpp:77] Creating layer pool1/norm1
I0403 15:15:17.323123 11761 net.cpp:91] Creating Layer pool1/norm1
I0403 15:15:17.323140 11761 net.cpp:425] pool1/norm1 <- pool1/3x3_s2
I0403 15:15:17.323158 11761 net.cpp:399] pool1/norm1 -> pool1/norm1
I0403 15:15:17.323442 11761 net.cpp:141] Setting up pool1/norm1
I0403 15:15:17.323469 11761 net.cpp:148] Top shape: 24 64 56 56 (4816896)
I0403 15:15:17.323483 11761 net.cpp:156] Memory required for data: 207127584
I0403 15:15:17.323498 11761 layer_factory.hpp:77] Creating layer conv2/3x3_reduce
I0403 15:15:17.323521 11761 net.cpp:91] Creating Layer conv2/3x3_reduce
I0403 15:15:17.323537 11761 net.cpp:425] conv2/3x3_reduce <- pool1/norm1
I0403 15:15:17.323554 11761 net.cpp:399] conv2/3x3_reduce -> conv2/3x3_reduce
I0403 15:15:17.324885 11761 net.cpp:141] Setting up conv2/3x3_reduce
I0403 15:15:17.324918 11761 net.cpp:148] Top shape: 24 64 56 56 (4816896)
I0403 15:15:17.324934 11761 net.cpp:156] Memory required for data: 226395168
I0403 15:15:17.324954 11761 layer_factory.hpp:77] Creating layer conv2/relu_3x3_reduce
I0403 15:15:17.324971 11761 net.cpp:91] Creating Layer conv2/relu_3x3_reduce
I0403 15:15:17.324986 11761 net.cpp:425] conv2/relu_3x3_reduce <- conv2/3x3_reduce
I0403 15:15:17.325002 11761 net.cpp:386] conv2/relu_3x3_reduce -> conv2/3x3_reduce (in-place)
I0403 15:15:17.325265 11761 net.cpp:141] Setting up conv2/relu_3x3_reduce
I0403 15:15:17.325294 11761 net.cpp:148] Top shape: 24 64 56 56 (4816896)
I0403 15:15:17.325310 11761 net.cpp:156] Memory required for data: 245662752
I0403 15:15:17.325325 11761 layer_factory.hpp:77] Creating layer conv2/3x3
I0403 15:15:17.325347 11761 net.cpp:91] Creating Layer conv2/3x3
I0403 15:15:17.325364 11761 net.cpp:425] conv2/3x3 <- conv2/3x3_reduce
I0403 15:15:17.325386 11761 net.cpp:399] conv2/3x3 -> conv2/3x3
I0403 15:15:17.327698 11761 net.cpp:141] Setting up conv2/3x3
I0403 15:15:17.327731 11761 net.cpp:148] Top shape: 24 192 56 56 (14450688)
I0403 15:15:17.327749 11761 net.cpp:156] Memory required for data: 303465504
I0403 15:15:17.327769 11761 layer_factory.hpp:77] Creating layer conv2/relu_3x3
I0403 15:15:17.327785 11761 net.cpp:91] Creating Layer conv2/relu_3x3
I0403 15:15:17.327800 11761 net.cpp:425] conv2/relu_3x3 <- conv2/3x3
I0403 15:15:17.327818 11761 net.cpp:386] conv2/relu_3x3 -> conv2/3x3 (in-place)
I0403 15:15:17.327993 11761 net.cpp:141] Setting up conv2/relu_3x3
I0403 15:15:17.328018 11761 net.cpp:148] Top shape: 24 192 56 56 (14450688)
I0403 15:15:17.328063 11761 net.cpp:156] Memory required for data: 361268256
I0403 15:15:17.328078 11761 layer_factory.hpp:77] Creating layer conv2/norm2
I0403 15:15:17.328097 11761 net.cpp:91] Creating Layer conv2/norm2
I0403 15:15:17.328112 11761 net.cpp:425] conv2/norm2 <- conv2/3x3
I0403 15:15:17.328130 11761 net.cpp:399] conv2/norm2 -> conv2/norm2
I0403 15:15:17.328433 11761 net.cpp:141] Setting up conv2/norm2
I0403 15:15:17.328461 11761 net.cpp:148] Top shape: 24 192 56 56 (14450688)
I0403 15:15:17.328477 11761 net.cpp:156] Memory required for data: 419071008
I0403 15:15:17.328491 11761 layer_factory.hpp:77] Creating layer pool2/3x3_s2
I0403 15:15:17.328508 11761 net.cpp:91] Creating Layer pool2/3x3_s2
I0403 15:15:17.328522 11761 net.cpp:425] pool2/3x3_s2 <- conv2/norm2
I0403 15:15:17.328538 11761 net.cpp:399] pool2/3x3_s2 -> pool2/3x3_s2
I0403 15:15:17.328593 11761 net.cpp:141] Setting up pool2/3x3_s2
I0403 15:15:17.328616 11761 net.cpp:148] Top shape: 24 192 28 28 (3612672)
I0403 15:15:17.328630 11761 net.cpp:156] Memory required for data: 433521696
I0403 15:15:17.328644 11761 layer_factory.hpp:77] Creating layer pool2/3x3_s2_pool2/3x3_s2_0_split
I0403 15:15:17.328660 11761 net.cpp:91] Creating Layer pool2/3x3_s2_pool2/3x3_s2_0_split
I0403 15:15:17.328675 11761 net.cpp:425] pool2/3x3_s2_pool2/3x3_s2_0_split <- pool2/3x3_s2
I0403 15:15:17.328706 11761 net.cpp:399] pool2/3x3_s2_pool2/3x3_s2_0_split -> pool2/3x3_s2_pool2/3x3_s2_0_split_0
I0403 15:15:17.328727 11761 net.cpp:399] pool2/3x3_s2_pool2/3x3_s2_0_split -> pool2/3x3_s2_pool2/3x3_s2_0_split_1
I0403 15:15:17.328747 11761 net.cpp:399] pool2/3x3_s2_pool2/3x3_s2_0_split -> pool2/3x3_s2_pool2/3x3_s2_0_split_2
I0403 15:15:17.328766 11761 net.cpp:399] pool2/3x3_s2_pool2/3x3_s2_0_split -> pool2/3x3_s2_pool2/3x3_s2_0_split_3
I0403 15:15:17.328840 11761 net.cpp:141] Setting up pool2/3x3_s2_pool2/3x3_s2_0_split
I0403 15:15:17.328863 11761 net.cpp:148] Top shape: 24 192 28 28 (3612672)
I0403 15:15:17.328879 11761 net.cpp:148] Top shape: 24 192 28 28 (3612672)
I0403 15:15:17.328896 11761 net.cpp:148] Top shape: 24 192 28 28 (3612672)
I0403 15:15:17.328910 11761 net.cpp:148] Top shape: 24 192 28 28 (3612672)
I0403 15:15:17.328923 11761 net.cpp:156] Memory required for data: 491324448
I0403 15:15:17.328938 11761 layer_factory.hpp:77] Creating layer inception_3a/1x1
I0403 15:15:17.328958 11761 net.cpp:91] Creating Layer inception_3a/1x1
I0403 15:15:17.328975 11761 net.cpp:425] inception_3a/1x1 <- pool2/3x3_s2_pool2/3x3_s2_0_split_0
I0403 15:15:17.328995 11761 net.cpp:399] inception_3a/1x1 -> inception_3a/1x1
I0403 15:15:17.330543 11761 net.cpp:141] Setting up inception_3a/1x1
I0403 15:15:17.330574 11761 net.cpp:148] Top shape: 24 64 28 28 (1204224)
I0403 15:15:17.330591 11761 net.cpp:156] Memory required for data: 496141344
I0403 15:15:17.330611 11761 layer_factory.hpp:77] Creating layer inception_3a/relu_1x1
I0403 15:15:17.330631 11761 net.cpp:91] Creating Layer inception_3a/relu_1x1
I0403 15:15:17.330646 11761 net.cpp:425] inception_3a/relu_1x1 <- inception_3a/1x1
I0403 15:15:17.330667 11761 net.cpp:386] inception_3a/relu_1x1 -> inception_3a/1x1 (in-place)
I0403 15:15:17.330837 11761 net.cpp:141] Setting up inception_3a/relu_1x1
I0403 15:15:17.330862 11761 net.cpp:148] Top shape: 24 64 28 28 (1204224)
I0403 15:15:17.330878 11761 net.cpp:156] Memory required for data: 500958240
I0403 15:15:17.330893 11761 layer_factory.hpp:77] Creating layer inception_3a/3x3_reduce
I0403 15:15:17.330914 11761 net.cpp:91] Creating Layer inception_3a/3x3_reduce
I0403 15:15:17.330931 11761 net.cpp:425] inception_3a/3x3_reduce <- pool2/3x3_s2_pool2/3x3_s2_0_split_1
I0403 15:15:17.330952 11761 net.cpp:399] inception_3a/3x3_reduce -> inception_3a/3x3_reduce
I0403 15:15:17.332629 11761 net.cpp:141] Setting up inception_3a/3x3_reduce
I0403 15:15:17.332661 11761 net.cpp:148] Top shape: 24 96 28 28 (1806336)
I0403 15:15:17.332679 11761 net.cpp:156] Memory required for data: 508183584
I0403 15:15:17.332700 11761 layer_factory.hpp:77] Creating layer inception_3a/relu_3x3_reduce
I0403 15:15:17.332732 11761 net.cpp:91] Creating Layer inception_3a/relu_3x3_reduce
I0403 15:15:17.332749 11761 net.cpp:425] inception_3a/relu_3x3_reduce <- inception_3a/3x3_reduce
I0403 15:15:17.332768 11761 net.cpp:386] inception_3a/relu_3x3_reduce -> inception_3a/3x3_reduce (in-place)
I0403 15:15:17.332949 11761 net.cpp:141] Setting up inception_3a/relu_3x3_reduce
I0403 15:15:17.332975 11761 net.cpp:148] Top shape: 24 96 28 28 (1806336)
I0403 15:15:17.332991 11761 net.cpp:156] Memory required for data: 515408928
I0403 15:15:17.333005 11761 layer_factory.hpp:77] Creating layer inception_3a/3x3
I0403 15:15:17.333024 11761 net.cpp:91] Creating Layer inception_3a/3x3
I0403 15:15:17.333039 11761 net.cpp:425] inception_3a/3x3 <- inception_3a/3x3_reduce
I0403 15:15:17.333061 11761 net.cpp:399] inception_3a/3x3 -> inception_3a/3x3
I0403 15:15:17.334725 11761 net.cpp:141] Setting up inception_3a/3x3
I0403 15:15:17.334758 11761 net.cpp:148] Top shape: 24 128 28 28 (2408448)
I0403 15:15:17.334776 11761 net.cpp:156] Memory required for data: 525042720
I0403 15:15:17.334795 11761 layer_factory.hpp:77] Creating layer inception_3a/relu_3x3
I0403 15:15:17.334815 11761 net.cpp:91] Creating Layer inception_3a/relu_3x3
I0403 15:15:17.334830 11761 net.cpp:425] inception_3a/relu_3x3 <- inception_3a/3x3
I0403 15:15:17.334849 11761 net.cpp:386] inception_3a/relu_3x3 -> inception_3a/3x3 (in-place)
I0403 15:15:17.335117 11761 net.cpp:141] Setting up inception_3a/relu_3x3
I0403 15:15:17.335145 11761 net.cpp:148] Top shape: 24 128 28 28 (2408448)
I0403 15:15:17.335162 11761 net.cpp:156] Memory required for data: 534676512
I0403 15:15:17.335177 11761 layer_factory.hpp:77] Creating layer inception_3a/5x5_reduce
I0403 15:15:17.335199 11761 net.cpp:91] Creating Layer inception_3a/5x5_reduce
I0403 15:15:17.335216 11761 net.cpp:425] inception_3a/5x5_reduce <- pool2/3x3_s2_pool2/3x3_s2_0_split_2
I0403 15:15:17.335237 11761 net.cpp:399] inception_3a/5x5_reduce -> inception_3a/5x5_reduce
I0403 15:15:17.336175 11761 net.cpp:141] Setting up inception_3a/5x5_reduce
I0403 15:15:17.336204 11761 net.cpp:148] Top shape: 24 16 28 28 (301056)
I0403 15:15:17.336218 11761 net.cpp:156] Memory required for data: 535880736
I0403 15:15:17.336237 11761 layer_factory.hpp:77] Creating layer inception_3a/relu_5x5_reduce
I0403 15:15:17.336259 11761 net.cpp:91] Creating Layer inception_3a/relu_5x5_reduce
I0403 15:15:17.336277 11761 net.cpp:425] inception_3a/relu_5x5_reduce <- inception_3a/5x5_reduce
I0403 15:15:17.336293 11761 net.cpp:386] inception_3a/relu_5x5_reduce -> inception_3a/5x5_reduce (in-place)
I0403 15:15:17.336609 11761 net.cpp:141] Setting up inception_3a/relu_5x5_reduce
I0403 15:15:17.336647 11761 net.cpp:148] Top shape: 24 16 28 28 (301056)
I0403 15:15:17.336663 11761 net.cpp:156] Memory required for data: 537084960
I0403 15:15:17.336676 11761 layer_factory.hpp:77] Creating layer inception_3a/5x5
I0403 15:15:17.336697 11761 net.cpp:91] Creating Layer inception_3a/5x5
I0403 15:15:17.336714 11761 net.cpp:425] inception_3a/5x5 <- inception_3a/5x5_reduce
I0403 15:15:17.336733 11761 net.cpp:399] inception_3a/5x5 -> inception_3a/5x5
I0403 15:15:17.337723 11761 net.cpp:141] Setting up inception_3a/5x5
I0403 15:15:17.337752 11761 net.cpp:148] Top shape: 24 32 28 28 (602112)
I0403 15:15:17.337769 11761 net.cpp:156] Memory required for data: 539493408
I0403 15:15:17.337786 11761 layer_factory.hpp:77] Creating layer inception_3a/relu_5x5
I0403 15:15:17.337805 11761 net.cpp:91] Creating Layer inception_3a/relu_5x5
I0403 15:15:17.337818 11761 net.cpp:425] inception_3a/relu_5x5 <- inception_3a/5x5
I0403 15:15:17.337837 11761 net.cpp:386] inception_3a/relu_5x5 -> inception_3a/5x5 (in-place)
I0403 15:15:17.338008 11761 net.cpp:141] Setting up inception_3a/relu_5x5
I0403 15:15:17.338032 11761 net.cpp:148] Top shape: 24 32 28 28 (602112)
I0403 15:15:17.338047 11761 net.cpp:156] Memory required for data: 541901856
I0403 15:15:17.338060 11761 layer_factory.hpp:77] Creating layer inception_3a/pool
I0403 15:15:17.338076 11761 net.cpp:91] Creating Layer inception_3a/pool
I0403 15:15:17.338104 11761 net.cpp:425] inception_3a/pool <- pool2/3x3_s2_pool2/3x3_s2_0_split_3
I0403 15:15:17.338125 11761 net.cpp:399] inception_3a/pool -> inception_3a/pool
I0403 15:15:17.338181 11761 net.cpp:141] Setting up inception_3a/pool
I0403 15:15:17.338204 11761 net.cpp:148] Top shape: 24 192 28 28 (3612672)
I0403 15:15:17.338218 11761 net.cpp:156] Memory required for data: 556352544
I0403 15:15:17.338232 11761 layer_factory.hpp:77] Creating layer inception_3a/pool_proj
I0403 15:15:17.338255 11761 net.cpp:91] Creating Layer inception_3a/pool_proj
I0403 15:15:17.338271 11761 net.cpp:425] inception_3a/pool_proj <- inception_3a/pool
I0403 15:15:17.338289 11761 net.cpp:399] inception_3a/pool_proj -> inception_3a/pool_proj
I0403 15:15:17.339226 11761 net.cpp:141] Setting up inception_3a/pool_proj
I0403 15:15:17.339254 11761 net.cpp:148] Top shape: 24 32 28 28 (602112)
I0403 15:15:17.339270 11761 net.cpp:156] Memory required for data: 558760992
I0403 15:15:17.339293 11761 layer_factory.hpp:77] Creating layer inception_3a/relu_pool_proj
I0403 15:15:17.339313 11761 net.cpp:91] Creating Layer inception_3a/relu_pool_proj
I0403 15:15:17.339329 11761 net.cpp:425] inception_3a/relu_pool_proj <- inception_3a/pool_proj
I0403 15:15:17.339345 11761 net.cpp:386] inception_3a/relu_pool_proj -> inception_3a/pool_proj (in-place)
I0403 15:15:17.339617 11761 net.cpp:141] Setting up inception_3a/relu_pool_proj
I0403 15:15:17.339646 11761 net.cpp:148] Top shape: 24 32 28 28 (602112)
I0403 15:15:17.339663 11761 net.cpp:156] Memory required for data: 561169440
I0403 15:15:17.339676 11761 layer_factory.hpp:77] Creating layer inception_3a/output
I0403 15:15:17.339694 11761 net.cpp:91] Creating Layer inception_3a/output
I0403 15:15:17.339709 11761 net.cpp:425] inception_3a/output <- inception_3a/1x1
I0403 15:15:17.339725 11761 net.cpp:425] inception_3a/output <- inception_3a/3x3
I0403 15:15:17.339740 11761 net.cpp:425] inception_3a/output <- inception_3a/5x5
I0403 15:15:17.339756 11761 net.cpp:425] inception_3a/output <- inception_3a/pool_proj
I0403 15:15:17.339773 11761 net.cpp:399] inception_3a/output -> inception_3a/output
I0403 15:15:17.339818 11761 net.cpp:141] Setting up inception_3a/output
I0403 15:15:17.339839 11761 net.cpp:148] Top shape: 24 256 28 28 (4816896)
I0403 15:15:17.339854 11761 net.cpp:156] Memory required for data: 580437024
I0403 15:15:17.339867 11761 layer_factory.hpp:77] Creating layer inception_3a/output_inception_3a/output_0_split
I0403 15:15:17.339885 11761 net.cpp:91] Creating Layer inception_3a/output_inception_3a/output_0_split
I0403 15:15:17.339901 11761 net.cpp:425] inception_3a/output_inception_3a/output_0_split <- inception_3a/output
I0403 15:15:17.339917 11761 net.cpp:399] inception_3a/output_inception_3a/output_0_split -> inception_3a/output_inception_3a/output_0_split_0
I0403 15:15:17.339936 11761 net.cpp:399] inception_3a/output_inception_3a/output_0_split -> inception_3a/output_inception_3a/output_0_split_1
I0403 15:15:17.339962 11761 net.cpp:399] inception_3a/output_inception_3a/output_0_split -> inception_3a/output_inception_3a/output_0_split_2
I0403 15:15:17.339982 11761 net.cpp:399] inception_3a/output_inception_3a/output_0_split -> inception_3a/output_inception_3a/output_0_split_3
I0403 15:15:17.340051 11761 net.cpp:141] Setting up inception_3a/output_inception_3a/output_0_split
I0403 15:15:17.340076 11761 net.cpp:148] Top shape: 24 256 28 28 (4816896)
I0403 15:15:17.340092 11761 net.cpp:148] Top shape: 24 256 28 28 (4816896)
I0403 15:15:17.340107 11761 net.cpp:148] Top shape: 24 256 28 28 (4816896)
I0403 15:15:17.340121 11761 net.cpp:148] Top shape: 24 256 28 28 (4816896)
I0403 15:15:17.340136 11761 net.cpp:156] Memory required for data: 657507360
I0403 15:15:17.340148 11761 layer_factory.hpp:77] Creating layer inception_3b/1x1
I0403 15:15:17.340169 11761 net.cpp:91] Creating Layer inception_3b/1x1
I0403 15:15:17.340184 11761 net.cpp:425] inception_3b/1x1 <- inception_3a/output_inception_3a/output_0_split_0
I0403 15:15:17.340203 11761 net.cpp:399] inception_3b/1x1 -> inception_3b/1x1
I0403 15:15:17.341300 11761 net.cpp:141] Setting up inception_3b/1x1
I0403 15:15:17.341356 11761 net.cpp:148] Top shape: 24 128 28 28 (2408448)
I0403 15:15:17.341373 11761 net.cpp:156] Memory required for data: 667141152
I0403 15:15:17.341390 11761 layer_factory.hpp:77] Creating layer inception_3b/relu_1x1
I0403 15:15:17.341408 11761 net.cpp:91] Creating Layer inception_3b/relu_1x1
I0403 15:15:17.341441 11761 net.cpp:425] inception_3b/relu_1x1 <- inception_3b/1x1
I0403 15:15:17.341459 11761 net.cpp:386] inception_3b/relu_1x1 -> inception_3b/1x1 (in-place)
I0403 15:15:17.341647 11761 net.cpp:141] Setting up inception_3b/relu_1x1
I0403 15:15:17.341675 11761 net.cpp:148] Top shape: 24 128 28 28 (2408448)
I0403 15:15:17.341689 11761 net.cpp:156] Memory required for data: 676774944
I0403 15:15:17.341703 11761 layer_factory.hpp:77] Creating layer inception_3b/3x3_reduce
I0403 15:15:17.341724 11761 net.cpp:91] Creating Layer inception_3b/3x3_reduce
I0403 15:15:17.341742 11761 net.cpp:425] inception_3b/3x3_reduce <- inception_3a/output_inception_3a/output_0_split_1
I0403 15:15:17.341763 11761 net.cpp:399] inception_3b/3x3_reduce -> inception_3b/3x3_reduce
I0403 15:15:17.342890 11761 net.cpp:141] Setting up inception_3b/3x3_reduce
I0403 15:15:17.342919 11761 net.cpp:148] Top shape: 24 128 28 28 (2408448)
I0403 15:15:17.342934 11761 net.cpp:156] Memory required for data: 686408736
I0403 15:15:17.342952 11761 layer_factory.hpp:77] Creating layer inception_3b/relu_3x3_reduce
I0403 15:15:17.342970 11761 net.cpp:91] Creating Layer inception_3b/relu_3x3_reduce
I0403 15:15:17.342986 11761 net.cpp:425] inception_3b/relu_3x3_reduce <- inception_3b/3x3_reduce
I0403 15:15:17.343003 11761 net.cpp:386] inception_3b/relu_3x3_reduce -> inception_3b/3x3_reduce (in-place)
I0403 15:15:17.343178 11761 net.cpp:141] Setting up inception_3b/relu_3x3_reduce
I0403 15:15:17.343202 11761 net.cpp:148] Top shape: 24 128 28 28 (2408448)
I0403 15:15:17.343216 11761 net.cpp:156] Memory required for data: 696042528
I0403 15:15:17.343230 11761 layer_factory.hpp:77] Creating layer inception_3b/3x3
I0403 15:15:17.343255 11761 net.cpp:91] Creating Layer inception_3b/3x3
I0403 15:15:17.343271 11761 net.cpp:425] inception_3b/3x3 <- inception_3b/3x3_reduce
I0403 15:15:17.343292 11761 net.cpp:399] inception_3b/3x3 -> inception_3b/3x3
I0403 15:15:17.346143 11761 net.cpp:141] Setting up inception_3b/3x3
I0403 15:15:17.346174 11761 net.cpp:148] Top shape: 24 192 28 28 (3612672)
I0403 15:15:17.346192 11761 net.cpp:156] Memory required for data: 710493216
I0403 15:15:17.346210 11761 layer_factory.hpp:77] Creating layer inception_3b/relu_3x3
I0403 15:15:17.346230 11761 net.cpp:91] Creating Layer inception_3b/relu_3x3
I0403 15:15:17.346246 11761 net.cpp:425] inception_3b/relu_3x3 <- inception_3b/3x3
I0403 15:15:17.346266 11761 net.cpp:386] inception_3b/relu_3x3 -> inception_3b/3x3 (in-place)
I0403 15:15:17.346554 11761 net.cpp:141] Setting up inception_3b/relu_3x3
I0403 15:15:17.346583 11761 net.cpp:148] Top shape: 24 192 28 28 (3612672)
I0403 15:15:17.346599 11761 net.cpp:156] Memory required for data: 724943904
I0403 15:15:17.346626 11761 layer_factory.hpp:77] Creating layer inception_3b/5x5_reduce
I0403 15:15:17.346648 11761 net.cpp:91] Creating Layer inception_3b/5x5_reduce
I0403 15:15:17.346664 11761 net.cpp:425] inception_3b/5x5_reduce <- inception_3a/output_inception_3a/output_0_split_2
I0403 15:15:17.346685 11761 net.cpp:399] inception_3b/5x5_reduce -> inception_3b/5x5_reduce
I0403 15:15:17.347641 11761 net.cpp:141] Setting up inception_3b/5x5_reduce
I0403 15:15:17.347674 11761 net.cpp:148] Top shape: 24 32 28 28 (602112)
I0403 15:15:17.347690 11761 net.cpp:156] Memory required for data: 727352352
I0403 15:15:17.347708 11761 layer_factory.hpp:77] Creating layer inception_3b/relu_5x5_reduce
I0403 15:15:17.347726 11761 net.cpp:91] Creating Layer inception_3b/relu_5x5_reduce
I0403 15:15:17.347741 11761 net.cpp:425] inception_3b/relu_5x5_reduce <- inception_3b/5x5_reduce
I0403 15:15:17.347759 11761 net.cpp:386] inception_3b/relu_5x5_reduce -> inception_3b/5x5_reduce (in-place)
I0403 15:15:17.347944 11761 net.cpp:141] Setting up inception_3b/relu_5x5_reduce
I0403 15:15:17.347970 11761 net.cpp:148] Top shape: 24 32 28 28 (602112)
I0403 15:15:17.347985 11761 net.cpp:156] Memory required for data: 729760800
I0403 15:15:17.347998 11761 layer_factory.hpp:77] Creating layer inception_3b/5x5
I0403 15:15:17.348019 11761 net.cpp:91] Creating Layer inception_3b/5x5
I0403 15:15:17.348036 11761 net.cpp:425] inception_3b/5x5 <- inception_3b/5x5_reduce
I0403 15:15:17.348055 11761 net.cpp:399] inception_3b/5x5 -> inception_3b/5x5
I0403 15:15:17.350013 11761 net.cpp:141] Setting up inception_3b/5x5
I0403 15:15:17.350044 11761 net.cpp:148] Top shape: 24 96 28 28 (1806336)
I0403 15:15:17.350059 11761 net.cpp:156] Memory required for data: 736986144
I0403 15:15:17.350077 11761 layer_factory.hpp:77] Creating layer inception_3b/relu_5x5
I0403 15:15:17.350098 11761 net.cpp:91] Creating Layer inception_3b/relu_5x5
I0403 15:15:17.350114 11761 net.cpp:425] inception_3b/relu_5x5 <- inception_3b/5x5
I0403 15:15:17.350131 11761 net.cpp:386] inception_3b/relu_5x5 -> inception_3b/5x5 (in-place)
I0403 15:15:17.350324 11761 net.cpp:141] Setting up inception_3b/relu_5x5
I0403 15:15:17.350349 11761 net.cpp:148] Top shape: 24 96 28 28 (1806336)
I0403 15:15:17.350365 11761 net.cpp:156] Memory required for data: 744211488
I0403 15:15:17.350378 11761 layer_factory.hpp:77] Creating layer inception_3b/pool
I0403 15:15:17.350396 11761 net.cpp:91] Creating Layer inception_3b/pool
I0403 15:15:17.350416 11761 net.cpp:425] inception_3b/pool <- inception_3a/output_inception_3a/output_0_split_3
I0403 15:15:17.350436 11761 net.cpp:399] inception_3b/pool -> inception_3b/pool
I0403 15:15:17.350493 11761 net.cpp:141] Setting up inception_3b/pool
I0403 15:15:17.350517 11761 net.cpp:148] Top shape: 24 256 28 28 (4816896)
I0403 15:15:17.350530 11761 net.cpp:156] Memory required for data: 763479072
I0403 15:15:17.350544 11761 layer_factory.hpp:77] Creating layer inception_3b/pool_proj
I0403 15:15:17.350567 11761 net.cpp:91] Creating Layer inception_3b/pool_proj
I0403 15:15:17.350584 11761 net.cpp:425] inception_3b/pool_proj <- inception_3b/pool
I0403 15:15:17.350602 11761 net.cpp:399] inception_3b/pool_proj -> inception_3b/pool_proj
I0403 15:15:17.351663 11761 net.cpp:141] Setting up inception_3b/pool_proj
I0403 15:15:17.351691 11761 net.cpp:148] Top shape: 24 64 28 28 (1204224)
I0403 15:15:17.351706 11761 net.cpp:156] Memory required for data: 768295968
I0403 15:15:17.351722 11761 layer_factory.hpp:77] Creating layer inception_3b/relu_pool_proj
I0403 15:15:17.351742 11761 net.cpp:91] Creating Layer inception_3b/relu_pool_proj
I0403 15:15:17.351758 11761 net.cpp:425] inception_3b/relu_pool_proj <- inception_3b/pool_proj
I0403 15:15:17.351774 11761 net.cpp:386] inception_3b/relu_pool_proj -> inception_3b/pool_proj (in-place)
I0403 15:15:17.352160 11761 net.cpp:141] Setting up inception_3b/relu_pool_proj
I0403 15:15:17.352186 11761 net.cpp:148] Top shape: 24 64 28 28 (1204224)
I0403 15:15:17.352201 11761 net.cpp:156] Memory required for data: 773112864
I0403 15:15:17.352216 11761 layer_factory.hpp:77] Creating layer inception_3b/output
I0403 15:15:17.352231 11761 net.cpp:91] Creating Layer inception_3b/output
I0403 15:15:17.352246 11761 net.cpp:425] inception_3b/output <- inception_3b/1x1
I0403 15:15:17.352262 11761 net.cpp:425] inception_3b/output <- inception_3b/3x3
I0403 15:15:17.352278 11761 net.cpp:425] inception_3b/output <- inception_3b/5x5
I0403 15:15:17.352293 11761 net.cpp:425] inception_3b/output <- inception_3b/pool_proj
I0403 15:15:17.352310 11761 net.cpp:399] inception_3b/output -> inception_3b/output
I0403 15:15:17.352354 11761 net.cpp:141] Setting up inception_3b/output
I0403 15:15:17.352378 11761 net.cpp:148] Top shape: 24 480 28 28 (9031680)
I0403 15:15:17.352393 11761 net.cpp:156] Memory required for data: 809239584
I0403 15:15:17.352407 11761 layer_factory.hpp:77] Creating layer pool3/3x3_s2
I0403 15:15:17.352428 11761 net.cpp:91] Creating Layer pool3/3x3_s2
I0403 15:15:17.352443 11761 net.cpp:425] pool3/3x3_s2 <- inception_3b/output
I0403 15:15:17.352478 11761 net.cpp:399] pool3/3x3_s2 -> pool3/3x3_s2
I0403 15:15:17.352535 11761 net.cpp:141] Setting up pool3/3x3_s2
I0403 15:15:17.352556 11761 net.cpp:148] Top shape: 24 480 14 14 (2257920)
I0403 15:15:17.352571 11761 net.cpp:156] Memory required for data: 818271264
I0403 15:15:17.352583 11761 layer_factory.hpp:77] Creating layer pool3/3x3_s2_pool3/3x3_s2_0_split
I0403 15:15:17.352602 11761 net.cpp:91] Creating Layer pool3/3x3_s2_pool3/3x3_s2_0_split
I0403 15:15:17.352617 11761 net.cpp:425] pool3/3x3_s2_pool3/3x3_s2_0_split <- pool3/3x3_s2
I0403 15:15:17.352633 11761 net.cpp:399] pool3/3x3_s2_pool3/3x3_s2_0_split -> pool3/3x3_s2_pool3/3x3_s2_0_split_0
I0403 15:15:17.352653 11761 net.cpp:399] pool3/3x3_s2_pool3/3x3_s2_0_split -> pool3/3x3_s2_pool3/3x3_s2_0_split_1
I0403 15:15:17.352670 11761 net.cpp:399] pool3/3x3_s2_pool3/3x3_s2_0_split -> pool3/3x3_s2_pool3/3x3_s2_0_split_2
I0403 15:15:17.352691 11761 net.cpp:399] pool3/3x3_s2_pool3/3x3_s2_0_split -> pool3/3x3_s2_pool3/3x3_s2_0_split_3
I0403 15:15:17.352769 11761 net.cpp:141] Setting up pool3/3x3_s2_pool3/3x3_s2_0_split
I0403 15:15:17.352792 11761 net.cpp:148] Top shape: 24 480 14 14 (2257920)
I0403 15:15:17.352807 11761 net.cpp:148] Top shape: 24 480 14 14 (2257920)
I0403 15:15:17.352821 11761 net.cpp:148] Top shape: 24 480 14 14 (2257920)
I0403 15:15:17.352836 11761 net.cpp:148] Top shape: 24 480 14 14 (2257920)
I0403 15:15:17.352849 11761 net.cpp:156] Memory required for data: 854397984
I0403 15:15:17.352862 11761 layer_factory.hpp:77] Creating layer inception_4a/1x1
I0403 15:15:17.352883 11761 net.cpp:91] Creating Layer inception_4a/1x1
I0403 15:15:17.352900 11761 net.cpp:425] inception_4a/1x1 <- pool3/3x3_s2_pool3/3x3_s2_0_split_0
I0403 15:15:17.352921 11761 net.cpp:399] inception_4a/1x1 -> inception_4a/1x1
I0403 15:15:17.354460 11761 net.cpp:141] Setting up inception_4a/1x1
I0403 15:15:17.354490 11761 net.cpp:148] Top shape: 24 192 14 14 (903168)
I0403 15:15:17.354506 11761 net.cpp:156] Memory required for data: 858010656
I0403 15:15:17.354523 11761 layer_factory.hpp:77] Creating layer inception_4a/relu_1x1
I0403 15:15:17.354543 11761 net.cpp:91] Creating Layer inception_4a/relu_1x1
I0403 15:15:17.354559 11761 net.cpp:425] inception_4a/relu_1x1 <- inception_4a/1x1
I0403 15:15:17.354576 11761 net.cpp:386] inception_4a/relu_1x1 -> inception_4a/1x1 (in-place)
I0403 15:15:17.354748 11761 net.cpp:141] Setting up inception_4a/relu_1x1
I0403 15:15:17.354776 11761 net.cpp:148] Top shape: 24 192 14 14 (903168)
I0403 15:15:17.354791 11761 net.cpp:156] Memory required for data: 861623328
I0403 15:15:17.354805 11761 layer_factory.hpp:77] Creating layer inception_4a/3x3_reduce
I0403 15:15:17.354826 11761 net.cpp:91] Creating Layer inception_4a/3x3_reduce
I0403 15:15:17.354842 11761 net.cpp:425] inception_4a/3x3_reduce <- pool3/3x3_s2_pool3/3x3_s2_0_split_1
I0403 15:15:17.354861 11761 net.cpp:399] inception_4a/3x3_reduce -> inception_4a/3x3_reduce
I0403 15:15:17.356092 11761 net.cpp:141] Setting up inception_4a/3x3_reduce
I0403 15:15:17.356122 11761 net.cpp:148] Top shape: 24 96 14 14 (451584)
I0403 15:15:17.356137 11761 net.cpp:156] Memory required for data: 863429664
I0403 15:15:17.356161 11761 layer_factory.hpp:77] Creating layer inception_4a/relu_3x3_reduce
I0403 15:15:17.356181 11761 net.cpp:91] Creating Layer inception_4a/relu_3x3_reduce
I0403 15:15:17.356197 11761 net.cpp:425] inception_4a/relu_3x3_reduce <- inception_4a/3x3_reduce
I0403 15:15:17.356217 11761 net.cpp:386] inception_4a/relu_3x3_reduce -> inception_4a/3x3_reduce (in-place)
I0403 15:15:17.356405 11761 net.cpp:141] Setting up inception_4a/relu_3x3_reduce
I0403 15:15:17.356436 11761 net.cpp:148] Top shape: 24 96 14 14 (451584)
I0403 15:15:17.356451 11761 net.cpp:156] Memory required for data: 865236000
I0403 15:15:17.356467 11761 layer_factory.hpp:77] Creating layer inception_4a/3x3
I0403 15:15:17.356485 11761 net.cpp:91] Creating Layer inception_4a/3x3
I0403 15:15:17.356503 11761 net.cpp:425] inception_4a/3x3 <- inception_4a/3x3_reduce
I0403 15:15:17.356523 11761 net.cpp:399] inception_4a/3x3 -> inception_4a/3x3
I0403 15:15:17.359186 11761 net.cpp:141] Setting up inception_4a/3x3
I0403 15:15:17.359215 11761 net.cpp:148] Top shape: 24 208 14 14 (978432)
I0403 15:15:17.359230 11761 net.cpp:156] Memory required for data: 869149728
I0403 15:15:17.359251 11761 layer_factory.hpp:77] Creating layer inception_4a/relu_3x3
I0403 15:15:17.359278 11761 net.cpp:91] Creating Layer inception_4a/relu_3x3
I0403 15:15:17.359294 11761 net.cpp:425] inception_4a/relu_3x3 <- inception_4a/3x3
I0403 15:15:17.359311 11761 net.cpp:386] inception_4a/relu_3x3 -> inception_4a/3x3 (in-place)
I0403 15:15:17.359592 11761 net.cpp:141] Setting up inception_4a/relu_3x3
I0403 15:15:17.359618 11761 net.cpp:148] Top shape: 24 208 14 14 (978432)
I0403 15:15:17.359632 11761 net.cpp:156] Memory required for data: 873063456
I0403 15:15:17.359647 11761 layer_factory.hpp:77] Creating layer inception_4a/5x5_reduce
I0403 15:15:17.359670 11761 net.cpp:91] Creating Layer inception_4a/5x5_reduce
I0403 15:15:17.359688 11761 net.cpp:425] inception_4a/5x5_reduce <- pool3/3x3_s2_pool3/3x3_s2_0_split_2
I0403 15:15:17.359706 11761 net.cpp:399] inception_4a/5x5_reduce -> inception_4a/5x5_reduce
I0403 15:15:17.360702 11761 net.cpp:141] Setting up inception_4a/5x5_reduce
I0403 15:15:17.360733 11761 net.cpp:148] Top shape: 24 16 14 14 (75264)
I0403 15:15:17.360748 11761 net.cpp:156] Memory required for data: 873364512
I0403 15:15:17.360765 11761 layer_factory.hpp:77] Creating layer inception_4a/relu_5x5_reduce
I0403 15:15:17.360781 11761 net.cpp:91] Creating Layer inception_4a/relu_5x5_reduce
I0403 15:15:17.360796 11761 net.cpp:425] inception_4a/relu_5x5_reduce <- inception_4a/5x5_reduce
I0403 15:15:17.360816 11761 net.cpp:386] inception_4a/relu_5x5_reduce -> inception_4a/5x5_reduce (in-place)
I0403 15:15:17.361006 11761 net.cpp:141] Setting up inception_4a/relu_5x5_reduce
I0403 15:15:17.361030 11761 net.cpp:148] Top shape: 24 16 14 14 (75264)
I0403 15:15:17.361045 11761 net.cpp:156] Memory required for data: 873665568
I0403 15:15:17.361060 11761 layer_factory.hpp:77] Creating layer inception_4a/5x5
I0403 15:15:17.361085 11761 net.cpp:91] Creating Layer inception_4a/5x5
I0403 15:15:17.361102 11761 net.cpp:425] inception_4a/5x5 <- inception_4a/5x5_reduce
I0403 15:15:17.361124 11761 net.cpp:399] inception_4a/5x5 -> inception_4a/5x5
I0403 15:15:17.362229 11761 net.cpp:141] Setting up inception_4a/5x5
I0403 15:15:17.362257 11761 net.cpp:148] Top shape: 24 48 14 14 (225792)
I0403 15:15:17.362272 11761 net.cpp:156] Memory required for data: 874568736
I0403 15:15:17.362290 11761 layer_factory.hpp:77] Creating layer inception_4a/relu_5x5
I0403 15:15:17.362309 11761 net.cpp:91] Creating Layer inception_4a/relu_5x5
I0403 15:15:17.362325 11761 net.cpp:425] inception_4a/relu_5x5 <- inception_4a/5x5
I0403 15:15:17.362342 11761 net.cpp:386] inception_4a/relu_5x5 -> inception_4a/5x5 (in-place)
I0403 15:15:17.362521 11761 net.cpp:141] Setting up inception_4a/relu_5x5
I0403 15:15:17.362546 11761 net.cpp:148] Top shape: 24 48 14 14 (225792)
I0403 15:15:17.362560 11761 net.cpp:156] Memory required for data: 875471904
I0403 15:15:17.362574 11761 layer_factory.hpp:77] Creating layer inception_4a/pool
I0403 15:15:17.362592 11761 net.cpp:91] Creating Layer inception_4a/pool
I0403 15:15:17.362609 11761 net.cpp:425] inception_4a/pool <- pool3/3x3_s2_pool3/3x3_s2_0_split_3
I0403 15:15:17.362627 11761 net.cpp:399] inception_4a/pool -> inception_4a/pool
I0403 15:15:17.362687 11761 net.cpp:141] Setting up inception_4a/pool
I0403 15:15:17.362710 11761 net.cpp:148] Top shape: 24 480 14 14 (2257920)
I0403 15:15:17.362725 11761 net.cpp:156] Memory required for data: 884503584
I0403 15:15:17.362738 11761 layer_factory.hpp:77] Creating layer inception_4a/pool_proj
I0403 15:15:17.362759 11761 net.cpp:91] Creating Layer inception_4a/pool_proj
I0403 15:15:17.362776 11761 net.cpp:425] inception_4a/pool_proj <- inception_4a/pool
I0403 15:15:17.362794 11761 net.cpp:399] inception_4a/pool_proj -> inception_4a/pool_proj
I0403 15:15:17.363936 11761 net.cpp:141] Setting up inception_4a/pool_proj
I0403 15:15:17.363965 11761 net.cpp:148] Top shape: 24 64 14 14 (301056)
I0403 15:15:17.363994 11761 net.cpp:156] Memory required for data: 885707808
I0403 15:15:17.364013 11761 layer_factory.hpp:77] Creating layer inception_4a/relu_pool_proj
I0403 15:15:17.364033 11761 net.cpp:91] Creating Layer inception_4a/relu_pool_proj
I0403 15:15:17.364049 11761 net.cpp:425] inception_4a/relu_pool_proj <- inception_4a/pool_proj
I0403 15:15:17.364066 11761 net.cpp:386] inception_4a/relu_pool_proj -> inception_4a/pool_proj (in-place)
I0403 15:15:17.364341 11761 net.cpp:141] Setting up inception_4a/relu_pool_proj
I0403 15:15:17.364367 11761 net.cpp:148] Top shape: 24 64 14 14 (301056)
I0403 15:15:17.364382 11761 net.cpp:156] Memory required for data: 886912032
I0403 15:15:17.364395 11761 layer_factory.hpp:77] Creating layer inception_4a/output
I0403 15:15:17.364418 11761 net.cpp:91] Creating Layer inception_4a/output
I0403 15:15:17.364434 11761 net.cpp:425] inception_4a/output <- inception_4a/1x1
I0403 15:15:17.364451 11761 net.cpp:425] inception_4a/output <- inception_4a/3x3
I0403 15:15:17.364471 11761 net.cpp:425] inception_4a/output <- inception_4a/5x5
I0403 15:15:17.364486 11761 net.cpp:425] inception_4a/output <- inception_4a/pool_proj
I0403 15:15:17.364502 11761 net.cpp:399] inception_4a/output -> inception_4a/output
I0403 15:15:17.364557 11761 net.cpp:141] Setting up inception_4a/output
I0403 15:15:17.364580 11761 net.cpp:148] Top shape: 24 512 14 14 (2408448)
I0403 15:15:17.364594 11761 net.cpp:156] Memory required for data: 896545824
I0403 15:15:17.364610 11761 layer_factory.hpp:77] Creating layer inception_4a/output_inception_4a/output_0_split
I0403 15:15:17.364626 11761 net.cpp:91] Creating Layer inception_4a/output_inception_4a/output_0_split
I0403 15:15:17.364640 11761 net.cpp:425] inception_4a/output_inception_4a/output_0_split <- inception_4a/output
I0403 15:15:17.364660 11761 net.cpp:399] inception_4a/output_inception_4a/output_0_split -> inception_4a/output_inception_4a/output_0_split_0
I0403 15:15:17.364680 11761 net.cpp:399] inception_4a/output_inception_4a/output_0_split -> inception_4a/output_inception_4a/output_0_split_1
I0403 15:15:17.364698 11761 net.cpp:399] inception_4a/output_inception_4a/output_0_split -> inception_4a/output_inception_4a/output_0_split_2
I0403 15:15:17.364718 11761 net.cpp:399] inception_4a/output_inception_4a/output_0_split -> inception_4a/output_inception_4a/output_0_split_3
I0403 15:15:17.364737 11761 net.cpp:399] inception_4a/output_inception_4a/output_0_split -> inception_4a/output_inception_4a/output_0_split_4
I0403 15:15:17.364830 11761 net.cpp:141] Setting up inception_4a/output_inception_4a/output_0_split
I0403 15:15:17.364861 11761 net.cpp:148] Top shape: 24 512 14 14 (2408448)
I0403 15:15:17.364888 11761 net.cpp:148] Top shape: 24 512 14 14 (2408448)
I0403 15:15:17.364912 11761 net.cpp:148] Top shape: 24 512 14 14 (2408448)
I0403 15:15:17.364936 11761 net.cpp:148] Top shape: 24 512 14 14 (2408448)
I0403 15:15:17.364951 11761 net.cpp:148] Top shape: 24 512 14 14 (2408448)
I0403 15:15:17.364964 11761 net.cpp:156] Memory required for data: 944714784
I0403 15:15:17.364979 11761 layer_factory.hpp:77] Creating layer loss1/ave_pool
I0403 15:15:17.364995 11761 net.cpp:91] Creating Layer loss1/ave_pool
I0403 15:15:17.365010 11761 net.cpp:425] loss1/ave_pool <- inception_4a/output_inception_4a/output_0_split_0
I0403 15:15:17.365028 11761 net.cpp:399] loss1/ave_pool -> loss1/ave_pool
I0403 15:15:17.365244 11761 net.cpp:141] Setting up loss1/ave_pool
I0403 15:15:17.365270 11761 net.cpp:148] Top shape: 24 512 4 4 (196608)
I0403 15:15:17.365285 11761 net.cpp:156] Memory required for data: 945501216
I0403 15:15:17.365299 11761 layer_factory.hpp:77] Creating layer loss1/conv
I0403 15:15:17.365321 11761 net.cpp:91] Creating Layer loss1/conv
I0403 15:15:17.365339 11761 net.cpp:425] loss1/conv <- loss1/ave_pool
I0403 15:15:17.365360 11761 net.cpp:399] loss1/conv -> loss1/conv
I0403 15:15:17.366808 11761 net.cpp:141] Setting up loss1/conv
I0403 15:15:17.366840 11761 net.cpp:148] Top shape: 24 128 4 4 (49152)
I0403 15:15:17.366870 11761 net.cpp:156] Memory required for data: 945697824
I0403 15:15:17.366889 11761 layer_factory.hpp:77] Creating layer loss1/relu_conv
I0403 15:15:17.366909 11761 net.cpp:91] Creating Layer loss1/relu_conv
I0403 15:15:17.366924 11761 net.cpp:425] loss1/relu_conv <- loss1/conv
I0403 15:15:17.366943 11761 net.cpp:386] loss1/relu_conv -> loss1/conv (in-place)
I0403 15:15:17.367225 11761 net.cpp:141] Setting up loss1/relu_conv
I0403 15:15:17.367254 11761 net.cpp:148] Top shape: 24 128 4 4 (49152)
I0403 15:15:17.367269 11761 net.cpp:156] Memory required for data: 945894432
I0403 15:15:17.367285 11761 layer_factory.hpp:77] Creating layer loss1/fc
I0403 15:15:17.367306 11761 net.cpp:91] Creating Layer loss1/fc
I0403 15:15:17.367323 11761 net.cpp:425] loss1/fc <- loss1/conv
I0403 15:15:17.367344 11761 net.cpp:399] loss1/fc -> loss1/fc
I0403 15:15:17.385627 11761 net.cpp:141] Setting up loss1/fc
I0403 15:15:17.385690 11761 net.cpp:148] Top shape: 24 1024 (24576)
I0403 15:15:17.385710 11761 net.cpp:156] Memory required for data: 945992736
I0403 15:15:17.385730 11761 layer_factory.hpp:77] Creating layer loss1/relu_fc
I0403 15:15:17.385751 11761 net.cpp:91] Creating Layer loss1/relu_fc
I0403 15:15:17.385768 11761 net.cpp:425] loss1/relu_fc <- loss1/fc
I0403 15:15:17.385787 11761 net.cpp:386] loss1/relu_fc -> loss1/fc (in-place)
I0403 15:15:17.385996 11761 net.cpp:141] Setting up loss1/relu_fc
I0403 15:15:17.386024 11761 net.cpp:148] Top shape: 24 1024 (24576)
I0403 15:15:17.386039 11761 net.cpp:156] Memory required for data: 946091040
I0403 15:15:17.386054 11761 layer_factory.hpp:77] Creating layer loss1/drop_fc
I0403 15:15:17.386081 11761 net.cpp:91] Creating Layer loss1/drop_fc
I0403 15:15:17.386097 11761 net.cpp:425] loss1/drop_fc <- loss1/fc
I0403 15:15:17.386116 11761 net.cpp:386] loss1/drop_fc -> loss1/fc (in-place)
I0403 15:15:17.386170 11761 net.cpp:141] Setting up loss1/drop_fc
I0403 15:15:17.386193 11761 net.cpp:148] Top shape: 24 1024 (24576)
I0403 15:15:17.386209 11761 net.cpp:156] Memory required for data: 946189344
I0403 15:15:17.386222 11761 layer_factory.hpp:77] Creating layer loss1/classifier_plantvillage
I0403 15:15:17.386241 11761 net.cpp:91] Creating Layer loss1/classifier_plantvillage
I0403 15:15:17.386256 11761 net.cpp:425] loss1/classifier_plantvillage <- loss1/fc
I0403 15:15:17.386277 11761 net.cpp:399] loss1/classifier_plantvillage -> loss1/classifier_plantvillage
I0403 15:15:17.387239 11761 net.cpp:141] Setting up loss1/classifier_plantvillage
I0403 15:15:17.387269 11761 net.cpp:148] Top shape: 24 38 (912)
I0403 15:15:17.387285 11761 net.cpp:156] Memory required for data: 946192992
I0403 15:15:17.387303 11761 layer_factory.hpp:77] Creating layer loss1/classifier_plantvillage_loss1/classifier_plantvillage_0_split
I0403 15:15:17.387325 11761 net.cpp:91] Creating Layer loss1/classifier_plantvillage_loss1/classifier_plantvillage_0_split
I0403 15:15:17.387341 11761 net.cpp:425] loss1/classifier_plantvillage_loss1/classifier_plantvillage_0_split <- loss1/classifier_plantvillage
I0403 15:15:17.387358 11761 net.cpp:399] loss1/classifier_plantvillage_loss1/classifier_plantvillage_0_split -> loss1/classifier_plantvillage_loss1/classifier_plantvillage_0_split_0
I0403 15:15:17.387378 11761 net.cpp:399] loss1/classifier_plantvillage_loss1/classifier_plantvillage_0_split -> loss1/classifier_plantvillage_loss1/classifier_plantvillage_0_split_1
I0403 15:15:17.387401 11761 net.cpp:399] loss1/classifier_plantvillage_loss1/classifier_plantvillage_0_split -> loss1/classifier_plantvillage_loss1/classifier_plantvillage_0_split_2
I0403 15:15:17.387473 11761 net.cpp:141] Setting up loss1/classifier_plantvillage_loss1/classifier_plantvillage_0_split
I0403 15:15:17.387497 11761 net.cpp:148] Top shape: 24 38 (912)
I0403 15:15:17.387512 11761 net.cpp:148] Top shape: 24 38 (912)
I0403 15:15:17.387527 11761 net.cpp:148] Top shape: 24 38 (912)
I0403 15:15:17.387542 11761 net.cpp:156] Memory required for data: 946203936
I0403 15:15:17.387555 11761 layer_factory.hpp:77] Creating layer inception_4b/1x1
I0403 15:15:17.387581 11761 net.cpp:91] Creating Layer inception_4b/1x1
I0403 15:15:17.387622 11761 net.cpp:425] inception_4b/1x1 <- inception_4a/output_inception_4a/output_0_split_1
I0403 15:15:17.387642 11761 net.cpp:399] inception_4b/1x1 -> inception_4b/1x1
I0403 15:15:17.389369 11761 net.cpp:141] Setting up inception_4b/1x1
I0403 15:15:17.389400 11761 net.cpp:148] Top shape: 24 160 14 14 (752640)
I0403 15:15:17.389423 11761 net.cpp:156] Memory required for data: 949214496
I0403 15:15:17.389442 11761 layer_factory.hpp:77] Creating layer inception_4b/relu_1x1
I0403 15:15:17.389461 11761 net.cpp:91] Creating Layer inception_4b/relu_1x1
I0403 15:15:17.389477 11761 net.cpp:425] inception_4b/relu_1x1 <- inception_4b/1x1
I0403 15:15:17.389497 11761 net.cpp:386] inception_4b/relu_1x1 -> inception_4b/1x1 (in-place)
I0403 15:15:17.389680 11761 net.cpp:141] Setting up inception_4b/relu_1x1
I0403 15:15:17.389708 11761 net.cpp:148] Top shape: 24 160 14 14 (752640)
I0403 15:15:17.389722 11761 net.cpp:156] Memory required for data: 952225056
I0403 15:15:17.389736 11761 layer_factory.hpp:77] Creating layer inception_4b/3x3_reduce
I0403 15:15:17.389760 11761 net.cpp:91] Creating Layer inception_4b/3x3_reduce
I0403 15:15:17.389778 11761 net.cpp:425] inception_4b/3x3_reduce <- inception_4a/output_inception_4a/output_0_split_2
I0403 15:15:17.389799 11761 net.cpp:399] inception_4b/3x3_reduce -> inception_4b/3x3_reduce
I0403 15:15:17.391196 11761 net.cpp:141] Setting up inception_4b/3x3_reduce
I0403 15:15:17.391225 11761 net.cpp:148] Top shape: 24 112 14 14 (526848)
I0403 15:15:17.391242 11761 net.cpp:156] Memory required for data: 954332448
I0403 15:15:17.391260 11761 layer_factory.hpp:77] Creating layer inception_4b/relu_3x3_reduce
I0403 15:15:17.391278 11761 net.cpp:91] Creating Layer inception_4b/relu_3x3_reduce
I0403 15:15:17.391294 11761 net.cpp:425] inception_4b/relu_3x3_reduce <- inception_4b/3x3_reduce
I0403 15:15:17.391314 11761 net.cpp:386] inception_4b/relu_3x3_reduce -> inception_4b/3x3_reduce (in-place)
I0403 15:15:17.391605 11761 net.cpp:141] Setting up inception_4b/relu_3x3_reduce
I0403 15:15:17.391633 11761 net.cpp:148] Top shape: 24 112 14 14 (526848)
I0403 15:15:17.391649 11761 net.cpp:156] Memory required for data: 956439840
I0403 15:15:17.391664 11761 layer_factory.hpp:77] Creating layer inception_4b/3x3
I0403 15:15:17.391685 11761 net.cpp:91] Creating Layer inception_4b/3x3
I0403 15:15:17.391705 11761 net.cpp:425] inception_4b/3x3 <- inception_4b/3x3_reduce
I0403 15:15:17.391726 11761 net.cpp:399] inception_4b/3x3 -> inception_4b/3x3
I0403 15:15:17.394721 11761 net.cpp:141] Setting up inception_4b/3x3
I0403 15:15:17.394752 11761 net.cpp:148] Top shape: 24 224 14 14 (1053696)
I0403 15:15:17.394769 11761 net.cpp:156] Memory required for data: 960654624
I0403 15:15:17.394788 11761 layer_factory.hpp:77] Creating layer inception_4b/relu_3x3
I0403 15:15:17.394807 11761 net.cpp:91] Creating Layer inception_4b/relu_3x3
I0403 15:15:17.394826 11761 net.cpp:425] inception_4b/relu_3x3 <- inception_4b/3x3
I0403 15:15:17.394843 11761 net.cpp:386] inception_4b/relu_3x3 -> inception_4b/3x3 (in-place)
I0403 15:15:17.395030 11761 net.cpp:141] Setting up inception_4b/relu_3x3
I0403 15:15:17.395056 11761 net.cpp:148] Top shape: 24 224 14 14 (1053696)
I0403 15:15:17.395072 11761 net.cpp:156] Memory required for data: 964869408
I0403 15:15:17.395087 11761 layer_factory.hpp:77] Creating layer inception_4b/5x5_reduce
I0403 15:15:17.395109 11761 net.cpp:91] Creating Layer inception_4b/5x5_reduce
I0403 15:15:17.395128 11761 net.cpp:425] inception_4b/5x5_reduce <- inception_4a/output_inception_4a/output_0_split_3
I0403 15:15:17.395146 11761 net.cpp:399] inception_4b/5x5_reduce -> inception_4b/5x5_reduce
I0403 15:15:17.396281 11761 net.cpp:141] Setting up inception_4b/5x5_reduce
I0403 15:15:17.396309 11761 net.cpp:148] Top shape: 24 24 14 14 (112896)
I0403 15:15:17.396328 11761 net.cpp:156] Memory required for data: 965320992
I0403 15:15:17.396347 11761 layer_factory.hpp:77] Creating layer inception_4b/relu_5x5_reduce
I0403 15:15:17.396366 11761 net.cpp:91] Creating Layer inception_4b/relu_5x5_reduce
I0403 15:15:17.396397 11761 net.cpp:425] inception_4b/relu_5x5_reduce <- inception_4b/5x5_reduce
I0403 15:15:17.396422 11761 net.cpp:386] inception_4b/relu_5x5_reduce -> inception_4b/5x5_reduce (in-place)
I0403 15:15:17.396610 11761 net.cpp:141] Setting up inception_4b/relu_5x5_reduce
I0403 15:15:17.396634 11761 net.cpp:148] Top shape: 24 24 14 14 (112896)
I0403 15:15:17.396649 11761 net.cpp:156] Memory required for data: 965772576
I0403 15:15:17.396664 11761 layer_factory.hpp:77] Creating layer inception_4b/5x5
I0403 15:15:17.396689 11761 net.cpp:91] Creating Layer inception_4b/5x5
I0403 15:15:17.396706 11761 net.cpp:425] inception_4b/5x5 <- inception_4b/5x5_reduce
I0403 15:15:17.396728 11761 net.cpp:399] inception_4b/5x5 -> inception_4b/5x5
I0403 15:15:17.397964 11761 net.cpp:141] Setting up inception_4b/5x5
I0403 15:15:17.397995 11761 net.cpp:148] Top shape: 24 64 14 14 (301056)
I0403 15:15:17.398012 11761 net.cpp:156] Memory required for data: 966976800
I0403 15:15:17.398031 11761 layer_factory.hpp:77] Creating layer inception_4b/relu_5x5
I0403 15:15:17.398049 11761 net.cpp:91] Creating Layer inception_4b/relu_5x5
I0403 15:15:17.398064 11761 net.cpp:425] inception_4b/relu_5x5 <- inception_4b/5x5
I0403 15:15:17.398084 11761 net.cpp:386] inception_4b/relu_5x5 -> inception_4b/5x5 (in-place)
I0403 15:15:17.398370 11761 net.cpp:141] Setting up inception_4b/relu_5x5
I0403 15:15:17.398401 11761 net.cpp:148] Top shape: 24 64 14 14 (301056)
I0403 15:15:17.398423 11761 net.cpp:156] Memory required for data: 968181024
I0403 15:15:17.398438 11761 layer_factory.hpp:77] Creating layer inception_4b/pool
I0403 15:15:17.398457 11761 net.cpp:91] Creating Layer inception_4b/pool
I0403 15:15:17.398471 11761 net.cpp:425] inception_4b/pool <- inception_4a/output_inception_4a/output_0_split_4
I0403 15:15:17.398493 11761 net.cpp:399] inception_4b/pool -> inception_4b/pool
I0403 15:15:17.398556 11761 net.cpp:141] Setting up inception_4b/pool
I0403 15:15:17.398581 11761 net.cpp:148] Top shape: 24 512 14 14 (2408448)
I0403 15:15:17.398596 11761 net.cpp:156] Memory required for data: 977814816
I0403 15:15:17.398609 11761 layer_factory.hpp:77] Creating layer inception_4b/pool_proj
I0403 15:15:17.398630 11761 net.cpp:91] Creating Layer inception_4b/pool_proj
I0403 15:15:17.398648 11761 net.cpp:425] inception_4b/pool_proj <- inception_4b/pool
I0403 15:15:17.398669 11761 net.cpp:399] inception_4b/pool_proj -> inception_4b/pool_proj
I0403 15:15:17.399874 11761 net.cpp:141] Setting up inception_4b/pool_proj
I0403 15:15:17.399905 11761 net.cpp:148] Top shape: 24 64 14 14 (301056)
I0403 15:15:17.399924 11761 net.cpp:156] Memory required for data: 979019040
I0403 15:15:17.399943 11761 layer_factory.hpp:77] Creating layer inception_4b/relu_pool_proj
I0403 15:15:17.399961 11761 net.cpp:91] Creating Layer inception_4b/relu_pool_proj
I0403 15:15:17.399978 11761 net.cpp:425] inception_4b/relu_pool_proj <- inception_4b/pool_proj
I0403 15:15:17.399998 11761 net.cpp:386] inception_4b/relu_pool_proj -> inception_4b/pool_proj (in-place)
I0403 15:15:17.400182 11761 net.cpp:141] Setting up inception_4b/relu_pool_proj
I0403 15:15:17.400208 11761 net.cpp:148] Top shape: 24 64 14 14 (301056)
I0403 15:15:17.400223 11761 net.cpp:156] Memory required for data: 980223264
I0403 15:15:17.400238 11761 layer_factory.hpp:77] Creating layer inception_4b/output
I0403 15:15:17.400255 11761 net.cpp:91] Creating Layer inception_4b/output
I0403 15:15:17.400270 11761 net.cpp:425] inception_4b/output <- inception_4b/1x1
I0403 15:15:17.400286 11761 net.cpp:425] inception_4b/output <- inception_4b/3x3
I0403 15:15:17.400303 11761 net.cpp:425] inception_4b/output <- inception_4b/5x5
I0403 15:15:17.400320 11761 net.cpp:425] inception_4b/output <- inception_4b/pool_proj
I0403 15:15:17.400338 11761 net.cpp:399] inception_4b/output -> inception_4b/output
I0403 15:15:17.400390 11761 net.cpp:141] Setting up inception_4b/output
I0403 15:15:17.400418 11761 net.cpp:148] Top shape: 24 512 14 14 (2408448)
I0403 15:15:17.400434 11761 net.cpp:156] Memory required for data: 989857056
I0403 15:15:17.400462 11761 layer_factory.hpp:77] Creating layer inception_4b/output_inception_4b/output_0_split
I0403 15:15:17.400480 11761 net.cpp:91] Creating Layer inception_4b/output_inception_4b/output_0_split
I0403 15:15:17.400496 11761 net.cpp:425] inception_4b/output_inception_4b/output_0_split <- inception_4b/output
I0403 15:15:17.400516 11761 net.cpp:399] inception_4b/output_inception_4b/output_0_split -> inception_4b/output_inception_4b/output_0_split_0
I0403 15:15:17.400537 11761 net.cpp:399] inception_4b/output_inception_4b/output_0_split -> inception_4b/output_inception_4b/output_0_split_1
I0403 15:15:17.400557 11761 net.cpp:399] inception_4b/output_inception_4b/output_0_split -> inception_4b/output_inception_4b/output_0_split_2
I0403 15:15:17.400578 11761 net.cpp:399] inception_4b/output_inception_4b/output_0_split -> inception_4b/output_inception_4b/output_0_split_3
I0403 15:15:17.400665 11761 net.cpp:141] Setting up inception_4b/output_inception_4b/output_0_split
I0403 15:15:17.400687 11761 net.cpp:148] Top shape: 24 512 14 14 (2408448)
I0403 15:15:17.400703 11761 net.cpp:148] Top shape: 24 512 14 14 (2408448)
I0403 15:15:17.400718 11761 net.cpp:148] Top shape: 24 512 14 14 (2408448)
I0403 15:15:17.400733 11761 net.cpp:148] Top shape: 24 512 14 14 (2408448)
I0403 15:15:17.400746 11761 net.cpp:156] Memory required for data: 1028392224
I0403 15:15:17.400761 11761 layer_factory.hpp:77] Creating layer inception_4c/1x1
I0403 15:15:17.400784 11761 net.cpp:91] Creating Layer inception_4c/1x1
I0403 15:15:17.400801 11761 net.cpp:425] inception_4c/1x1 <- inception_4b/output_inception_4b/output_0_split_0
I0403 15:15:17.400820 11761 net.cpp:399] inception_4c/1x1 -> inception_4c/1x1
I0403 15:15:17.402372 11761 net.cpp:141] Setting up inception_4c/1x1
I0403 15:15:17.402402 11761 net.cpp:148] Top shape: 24 128 14 14 (602112)
I0403 15:15:17.402429 11761 net.cpp:156] Memory required for data: 1030800672
I0403 15:15:17.402451 11761 layer_factory.hpp:77] Creating layer inception_4c/relu_1x1
I0403 15:15:17.402472 11761 net.cpp:91] Creating Layer inception_4c/relu_1x1
I0403 15:15:17.402490 11761 net.cpp:425] inception_4c/relu_1x1 <- inception_4c/1x1
I0403 15:15:17.402508 11761 net.cpp:386] inception_4c/relu_1x1 -> inception_4c/1x1 (in-place)
I0403 15:15:17.402693 11761 net.cpp:141] Setting up inception_4c/relu_1x1
I0403 15:15:17.402721 11761 net.cpp:148] Top shape: 24 128 14 14 (602112)
I0403 15:15:17.402736 11761 net.cpp:156] Memory required for data: 1033209120
I0403 15:15:17.402752 11761 layer_factory.hpp:77] Creating layer inception_4c/3x3_reduce
I0403 15:15:17.402775 11761 net.cpp:91] Creating Layer inception_4c/3x3_reduce
I0403 15:15:17.402792 11761 net.cpp:425] inception_4c/3x3_reduce <- inception_4b/output_inception_4b/output_0_split_1
I0403 15:15:17.402812 11761 net.cpp:399] inception_4c/3x3_reduce -> inception_4c/3x3_reduce
I0403 15:15:17.404839 11761 net.cpp:141] Setting up inception_4c/3x3_reduce
I0403 15:15:17.404868 11761 net.cpp:148] Top shape: 24 128 14 14 (602112)
I0403 15:15:17.404884 11761 net.cpp:156] Memory required for data: 1035617568
I0403 15:15:17.404902 11761 layer_factory.hpp:77] Creating layer inception_4c/relu_3x3_reduce
I0403 15:15:17.404920 11761 net.cpp:91] Creating Layer inception_4c/relu_3x3_reduce
I0403 15:15:17.404935 11761 net.cpp:425] inception_4c/relu_3x3_reduce <- inception_4c/3x3_reduce
I0403 15:15:17.404952 11761 net.cpp:386] inception_4c/relu_3x3_reduce -> inception_4c/3x3_reduce (in-place)
I0403 15:15:17.405242 11761 net.cpp:141] Setting up inception_4c/relu_3x3_reduce
I0403 15:15:17.405269 11761 net.cpp:148] Top shape: 24 128 14 14 (602112)
I0403 15:15:17.405285 11761 net.cpp:156] Memory required for data: 1038026016
I0403 15:15:17.405299 11761 layer_factory.hpp:77] Creating layer inception_4c/3x3
I0403 15:15:17.405329 11761 net.cpp:91] Creating Layer inception_4c/3x3
I0403 15:15:17.405346 11761 net.cpp:425] inception_4c/3x3 <- inception_4c/3x3_reduce
I0403 15:15:17.405364 11761 net.cpp:399] inception_4c/3x3 -> inception_4c/3x3
I0403 15:15:17.408911 11761 net.cpp:141] Setting up inception_4c/3x3
I0403 15:15:17.408958 11761 net.cpp:148] Top shape: 24 256 14 14 (1204224)
I0403 15:15:17.408977 11761 net.cpp:156] Memory required for data: 1042842912
I0403 15:15:17.409008 11761 layer_factory.hpp:77] Creating layer inception_4c/relu_3x3
I0403 15:15:17.409027 11761 net.cpp:91] Creating Layer inception_4c/relu_3x3
I0403 15:15:17.409044 11761 net.cpp:425] inception_4c/relu_3x3 <- inception_4c/3x3
I0403 15:15:17.409065 11761 net.cpp:386] inception_4c/relu_3x3 -> inception_4c/3x3 (in-place)
I0403 15:15:17.409245 11761 net.cpp:141] Setting up inception_4c/relu_3x3
I0403 15:15:17.409271 11761 net.cpp:148] Top shape: 24 256 14 14 (1204224)
I0403 15:15:17.409286 11761 net.cpp:156] Memory required for data: 1047659808
I0403 15:15:17.409301 11761 layer_factory.hpp:77] Creating layer inception_4c/5x5_reduce
I0403 15:15:17.409322 11761 net.cpp:91] Creating Layer inception_4c/5x5_reduce
I0403 15:15:17.409339 11761 net.cpp:425] inception_4c/5x5_reduce <- inception_4b/output_inception_4b/output_0_split_2
I0403 15:15:17.409359 11761 net.cpp:399] inception_4c/5x5_reduce -> inception_4c/5x5_reduce
I0403 15:15:17.410425 11761 net.cpp:141] Setting up inception_4c/5x5_reduce
I0403 15:15:17.410454 11761 net.cpp:148] Top shape: 24 24 14 14 (112896)
I0403 15:15:17.410468 11761 net.cpp:156] Memory required for data: 1048111392
I0403 15:15:17.410486 11761 layer_factory.hpp:77] Creating layer inception_4c/relu_5x5_reduce
I0403 15:15:17.410503 11761 net.cpp:91] Creating Layer inception_4c/relu_5x5_reduce
I0403 15:15:17.410517 11761 net.cpp:425] inception_4c/relu_5x5_reduce <- inception_4c/5x5_reduce
I0403 15:15:17.410537 11761 net.cpp:386] inception_4c/relu_5x5_reduce -> inception_4c/5x5_reduce (in-place)
I0403 15:15:17.410718 11761 net.cpp:141] Setting up inception_4c/relu_5x5_reduce
I0403 15:15:17.410742 11761 net.cpp:148] Top shape: 24 24 14 14 (112896)
I0403 15:15:17.410758 11761 net.cpp:156] Memory required for data: 1048562976
I0403 15:15:17.410770 11761 layer_factory.hpp:77] Creating layer inception_4c/5x5
I0403 15:15:17.410791 11761 net.cpp:91] Creating Layer inception_4c/5x5
I0403 15:15:17.410807 11761 net.cpp:425] inception_4c/5x5 <- inception_4c/5x5_reduce
I0403 15:15:17.410828 11761 net.cpp:399] inception_4c/5x5 -> inception_4c/5x5
I0403 15:15:17.412040 11761 net.cpp:141] Setting up inception_4c/5x5
I0403 15:15:17.412068 11761 net.cpp:148] Top shape: 24 64 14 14 (301056)
I0403 15:15:17.412083 11761 net.cpp:156] Memory required for data: 1049767200
I0403 15:15:17.412101 11761 layer_factory.hpp:77] Creating layer inception_4c/relu_5x5
I0403 15:15:17.412120 11761 net.cpp:91] Creating Layer inception_4c/relu_5x5
I0403 15:15:17.412137 11761 net.cpp:425] inception_4c/relu_5x5 <- inception_4c/5x5
I0403 15:15:17.412154 11761 net.cpp:386] inception_4c/relu_5x5 -> inception_4c/5x5 (in-place)
I0403 15:15:17.412448 11761 net.cpp:141] Setting up inception_4c/relu_5x5
I0403 15:15:17.412473 11761 net.cpp:148] Top shape: 24 64 14 14 (301056)
I0403 15:15:17.412488 11761 net.cpp:156] Memory required for data: 1050971424
I0403 15:15:17.412503 11761 layer_factory.hpp:77] Creating layer inception_4c/pool
I0403 15:15:17.412518 11761 net.cpp:91] Creating Layer inception_4c/pool
I0403 15:15:17.412533 11761 net.cpp:425] inception_4c/pool <- inception_4b/output_inception_4b/output_0_split_3
I0403 15:15:17.412554 11761 net.cpp:399] inception_4c/pool -> inception_4c/pool
I0403 15:15:17.412617 11761 net.cpp:141] Setting up inception_4c/pool
I0403 15:15:17.412641 11761 net.cpp:148] Top shape: 24 512 14 14 (2408448)
I0403 15:15:17.412653 11761 net.cpp:156] Memory required for data: 1060605216
I0403 15:15:17.412667 11761 layer_factory.hpp:77] Creating layer inception_4c/pool_proj
I0403 15:15:17.412690 11761 net.cpp:91] Creating Layer inception_4c/pool_proj
I0403 15:15:17.412708 11761 net.cpp:425] inception_4c/pool_proj <- inception_4c/pool
I0403 15:15:17.412724 11761 net.cpp:399] inception_4c/pool_proj -> inception_4c/pool_proj
I0403 15:15:17.413949 11761 net.cpp:141] Setting up inception_4c/pool_proj
I0403 15:15:17.413978 11761 net.cpp:148] Top shape: 24 64 14 14 (301056)
I0403 15:15:17.414008 11761 net.cpp:156] Memory required for data: 1061809440
I0403 15:15:17.414028 11761 layer_factory.hpp:77] Creating layer inception_4c/relu_pool_proj
I0403 15:15:17.414047 11761 net.cpp:91] Creating Layer inception_4c/relu_pool_proj
I0403 15:15:17.414062 11761 net.cpp:425] inception_4c/relu_pool_proj <- inception_4c/pool_proj
I0403 15:15:17.414082 11761 net.cpp:386] inception_4c/relu_pool_proj -> inception_4c/pool_proj (in-place)
I0403 15:15:17.414263 11761 net.cpp:141] Setting up inception_4c/relu_pool_proj
I0403 15:15:17.414289 11761 net.cpp:148] Top shape: 24 64 14 14 (301056)
I0403 15:15:17.414304 11761 net.cpp:156] Memory required for data: 1063013664
I0403 15:15:17.414320 11761 layer_factory.hpp:77] Creating layer inception_4c/output
I0403 15:15:17.414336 11761 net.cpp:91] Creating Layer inception_4c/output
I0403 15:15:17.414351 11761 net.cpp:425] inception_4c/output <- inception_4c/1x1
I0403 15:15:17.414367 11761 net.cpp:425] inception_4c/output <- inception_4c/3x3
I0403 15:15:17.414382 11761 net.cpp:425] inception_4c/output <- inception_4c/5x5
I0403 15:15:17.414398 11761 net.cpp:425] inception_4c/output <- inception_4c/pool_proj
I0403 15:15:17.414423 11761 net.cpp:399] inception_4c/output -> inception_4c/output
I0403 15:15:17.414469 11761 net.cpp:141] Setting up inception_4c/output
I0403 15:15:17.414495 11761 net.cpp:148] Top shape: 24 512 14 14 (2408448)
I0403 15:15:17.414510 11761 net.cpp:156] Memory required for data: 1072647456
I0403 15:15:17.414523 11761 layer_factory.hpp:77] Creating layer inception_4c/output_inception_4c/output_0_split
I0403 15:15:17.414540 11761 net.cpp:91] Creating Layer inception_4c/output_inception_4c/output_0_split
I0403 15:15:17.414554 11761 net.cpp:425] inception_4c/output_inception_4c/output_0_split <- inception_4c/output
I0403 15:15:17.414572 11761 net.cpp:399] inception_4c/output_inception_4c/output_0_split -> inception_4c/output_inception_4c/output_0_split_0
I0403 15:15:17.414592 11761 net.cpp:399] inception_4c/output_inception_4c/output_0_split -> inception_4c/output_inception_4c/output_0_split_1
I0403 15:15:17.414613 11761 net.cpp:399] inception_4c/output_inception_4c/output_0_split -> inception_4c/output_inception_4c/output_0_split_2
I0403 15:15:17.414633 11761 net.cpp:399] inception_4c/output_inception_4c/output_0_split -> inception_4c/output_inception_4c/output_0_split_3
I0403 15:15:17.414717 11761 net.cpp:141] Setting up inception_4c/output_inception_4c/output_0_split
I0403 15:15:17.414741 11761 net.cpp:148] Top shape: 24 512 14 14 (2408448)
I0403 15:15:17.414755 11761 net.cpp:148] Top shape: 24 512 14 14 (2408448)
I0403 15:15:17.414770 11761 net.cpp:148] Top shape: 24 512 14 14 (2408448)
I0403 15:15:17.414784 11761 net.cpp:148] Top shape: 24 512 14 14 (2408448)
I0403 15:15:17.414798 11761 net.cpp:156] Memory required for data: 1111182624
I0403 15:15:17.414811 11761 layer_factory.hpp:77] Creating layer inception_4d/1x1
I0403 15:15:17.414836 11761 net.cpp:91] Creating Layer inception_4d/1x1
I0403 15:15:17.414852 11761 net.cpp:425] inception_4d/1x1 <- inception_4c/output_inception_4c/output_0_split_0
I0403 15:15:17.414871 11761 net.cpp:399] inception_4d/1x1 -> inception_4d/1x1
I0403 15:15:17.416205 11761 net.cpp:141] Setting up inception_4d/1x1
I0403 15:15:17.416234 11761 net.cpp:148] Top shape: 24 112 14 14 (526848)
I0403 15:15:17.416249 11761 net.cpp:156] Memory required for data: 1113290016
I0403 15:15:17.416268 11761 layer_factory.hpp:77] Creating layer inception_4d/relu_1x1
I0403 15:15:17.416288 11761 net.cpp:91] Creating Layer inception_4d/relu_1x1
I0403 15:15:17.416304 11761 net.cpp:425] inception_4d/relu_1x1 <- inception_4d/1x1
I0403 15:15:17.416321 11761 net.cpp:386] inception_4d/relu_1x1 -> inception_4d/1x1 (in-place)
I0403 15:15:17.416518 11761 net.cpp:141] Setting up inception_4d/relu_1x1
I0403 15:15:17.416546 11761 net.cpp:148] Top shape: 24 112 14 14 (526848)
I0403 15:15:17.416563 11761 net.cpp:156] Memory required for data: 1115397408
I0403 15:15:17.416579 11761 layer_factory.hpp:77] Creating layer inception_4d/3x3_reduce
I0403 15:15:17.416615 11761 net.cpp:91] Creating Layer inception_4d/3x3_reduce
I0403 15:15:17.416633 11761 net.cpp:425] inception_4d/3x3_reduce <- inception_4c/output_inception_4c/output_0_split_1
I0403 15:15:17.416656 11761 net.cpp:399] inception_4d/3x3_reduce -> inception_4d/3x3_reduce
I0403 15:15:17.418193 11761 net.cpp:141] Setting up inception_4d/3x3_reduce
I0403 15:15:17.418221 11761 net.cpp:148] Top shape: 24 144 14 14 (677376)
I0403 15:15:17.418238 11761 net.cpp:156] Memory required for data: 1118106912
I0403 15:15:17.418257 11761 layer_factory.hpp:77] Creating layer inception_4d/relu_3x3_reduce
I0403 15:15:17.418278 11761 net.cpp:91] Creating Layer inception_4d/relu_3x3_reduce
I0403 15:15:17.418295 11761 net.cpp:425] inception_4d/relu_3x3_reduce <- inception_4d/3x3_reduce
I0403 15:15:17.418313 11761 net.cpp:386] inception_4d/relu_3x3_reduce -> inception_4d/3x3_reduce (in-place)
I0403 15:15:17.418607 11761 net.cpp:141] Setting up inception_4d/relu_3x3_reduce
I0403 15:15:17.418633 11761 net.cpp:148] Top shape: 24 144 14 14 (677376)
I0403 15:15:17.418648 11761 net.cpp:156] Memory required for data: 1120816416
I0403 15:15:17.418661 11761 layer_factory.hpp:77] Creating layer inception_4d/3x3
I0403 15:15:17.418683 11761 net.cpp:91] Creating Layer inception_4d/3x3
I0403 15:15:17.418699 11761 net.cpp:425] inception_4d/3x3 <- inception_4d/3x3_reduce
I0403 15:15:17.418720 11761 net.cpp:399] inception_4d/3x3 -> inception_4d/3x3
I0403 15:15:17.422973 11761 net.cpp:141] Setting up inception_4d/3x3
I0403 15:15:17.423005 11761 net.cpp:148] Top shape: 24 288 14 14 (1354752)
I0403 15:15:17.423023 11761 net.cpp:156] Memory required for data: 1126235424
I0403 15:15:17.423043 11761 layer_factory.hpp:77] Creating layer inception_4d/relu_3x3
I0403 15:15:17.423061 11761 net.cpp:91] Creating Layer inception_4d/relu_3x3
I0403 15:15:17.423077 11761 net.cpp:425] inception_4d/relu_3x3 <- inception_4d/3x3
I0403 15:15:17.423094 11761 net.cpp:386] inception_4d/relu_3x3 -> inception_4d/3x3 (in-place)
I0403 15:15:17.423280 11761 net.cpp:141] Setting up inception_4d/relu_3x3
I0403 15:15:17.423321 11761 net.cpp:148] Top shape: 24 288 14 14 (1354752)
I0403 15:15:17.423338 11761 net.cpp:156] Memory required for data: 1131654432
I0403 15:15:17.423354 11761 layer_factory.hpp:77] Creating layer inception_4d/5x5_reduce
I0403 15:15:17.423377 11761 net.cpp:91] Creating Layer inception_4d/5x5_reduce
I0403 15:15:17.423394 11761 net.cpp:425] inception_4d/5x5_reduce <- inception_4c/output_inception_4c/output_0_split_2
I0403 15:15:17.423418 11761 net.cpp:399] inception_4d/5x5_reduce -> inception_4d/5x5_reduce
I0403 15:15:17.424574 11761 net.cpp:141] Setting up inception_4d/5x5_reduce
I0403 15:15:17.424615 11761 net.cpp:148] Top shape: 24 32 14 14 (150528)
I0403 15:15:17.424638 11761 net.cpp:156] Memory required for data: 1132256544
I0403 15:15:17.424656 11761 layer_factory.hpp:77] Creating layer inception_4d/relu_5x5_reduce
I0403 15:15:17.424677 11761 net.cpp:91] Creating Layer inception_4d/relu_5x5_reduce
I0403 15:15:17.424695 11761 net.cpp:425] inception_4d/relu_5x5_reduce <- inception_4d/5x5_reduce
I0403 15:15:17.424713 11761 net.cpp:386] inception_4d/relu_5x5_reduce -> inception_4d/5x5_reduce (in-place)
I0403 15:15:17.424909 11761 net.cpp:141] Setting up inception_4d/relu_5x5_reduce
I0403 15:15:17.424933 11761 net.cpp:148] Top shape: 24 32 14 14 (150528)
I0403 15:15:17.424947 11761 net.cpp:156] Memory required for data: 1132858656
I0403 15:15:17.424962 11761 layer_factory.hpp:77] Creating layer inception_4d/5x5
I0403 15:15:17.424983 11761 net.cpp:91] Creating Layer inception_4d/5x5
I0403 15:15:17.425000 11761 net.cpp:425] inception_4d/5x5 <- inception_4d/5x5_reduce
I0403 15:15:17.425020 11761 net.cpp:399] inception_4d/5x5 -> inception_4d/5x5
I0403 15:15:17.426460 11761 net.cpp:141] Setting up inception_4d/5x5
I0403 15:15:17.426489 11761 net.cpp:148] Top shape: 24 64 14 14 (301056)
I0403 15:15:17.426506 11761 net.cpp:156] Memory required for data: 1134062880
I0403 15:15:17.426524 11761 layer_factory.hpp:77] Creating layer inception_4d/relu_5x5
I0403 15:15:17.426558 11761 net.cpp:91] Creating Layer inception_4d/relu_5x5
I0403 15:15:17.426576 11761 net.cpp:425] inception_4d/relu_5x5 <- inception_4d/5x5
I0403 15:15:17.426595 11761 net.cpp:386] inception_4d/relu_5x5 -> inception_4d/5x5 (in-place)
I0403 15:15:17.426892 11761 net.cpp:141] Setting up inception_4d/relu_5x5
I0403 15:15:17.426918 11761 net.cpp:148] Top shape: 24 64 14 14 (301056)
I0403 15:15:17.426931 11761 net.cpp:156] Memory required for data: 1135267104
I0403 15:15:17.426946 11761 layer_factory.hpp:77] Creating layer inception_4d/pool
I0403 15:15:17.426964 11761 net.cpp:91] Creating Layer inception_4d/pool
I0403 15:15:17.426977 11761 net.cpp:425] inception_4d/pool <- inception_4c/output_inception_4c/output_0_split_3
I0403 15:15:17.427000 11761 net.cpp:399] inception_4d/pool -> inception_4d/pool
I0403 15:15:17.427067 11761 net.cpp:141] Setting up inception_4d/pool
I0403 15:15:17.427090 11761 net.cpp:148] Top shape: 24 512 14 14 (2408448)
I0403 15:15:17.427104 11761 net.cpp:156] Memory required for data: 1144900896
I0403 15:15:17.427119 11761 layer_factory.hpp:77] Creating layer inception_4d/pool_proj
I0403 15:15:17.427142 11761 net.cpp:91] Creating Layer inception_4d/pool_proj
I0403 15:15:17.427160 11761 net.cpp:425] inception_4d/pool_proj <- inception_4d/pool
I0403 15:15:17.427177 11761 net.cpp:399] inception_4d/pool_proj -> inception_4d/pool_proj
I0403 15:15:17.428910 11761 net.cpp:141] Setting up inception_4d/pool_proj
I0403 15:15:17.428942 11761 net.cpp:148] Top shape: 24 64 14 14 (301056)
I0403 15:15:17.428961 11761 net.cpp:156] Memory required for data: 1146105120
I0403 15:15:17.428978 11761 layer_factory.hpp:77] Creating layer inception_4d/relu_pool_proj
I0403 15:15:17.428997 11761 net.cpp:91] Creating Layer inception_4d/relu_pool_proj
I0403 15:15:17.429013 11761 net.cpp:425] inception_4d/relu_pool_proj <- inception_4d/pool_proj
I0403 15:15:17.429029 11761 net.cpp:386] inception_4d/relu_pool_proj -> inception_4d/pool_proj (in-place)
I0403 15:15:17.429213 11761 net.cpp:141] Setting up inception_4d/relu_pool_proj
I0403 15:15:17.429239 11761 net.cpp:148] Top shape: 24 64 14 14 (301056)
I0403 15:15:17.429255 11761 net.cpp:156] Memory required for data: 1147309344
I0403 15:15:17.429268 11761 layer_factory.hpp:77] Creating layer inception_4d/output
I0403 15:15:17.429285 11761 net.cpp:91] Creating Layer inception_4d/output
I0403 15:15:17.429299 11761 net.cpp:425] inception_4d/output <- inception_4d/1x1
I0403 15:15:17.429316 11761 net.cpp:425] inception_4d/output <- inception_4d/3x3
I0403 15:15:17.429332 11761 net.cpp:425] inception_4d/output <- inception_4d/5x5
I0403 15:15:17.429347 11761 net.cpp:425] inception_4d/output <- inception_4d/pool_proj
I0403 15:15:17.429364 11761 net.cpp:399] inception_4d/output -> inception_4d/output
I0403 15:15:17.429414 11761 net.cpp:141] Setting up inception_4d/output
I0403 15:15:17.429450 11761 net.cpp:148] Top shape: 24 528 14 14 (2483712)
I0403 15:15:17.429463 11761 net.cpp:156] Memory required for data: 1157244192
I0403 15:15:17.429478 11761 layer_factory.hpp:77] Creating layer inception_4d/output_inception_4d/output_0_split
I0403 15:15:17.429498 11761 net.cpp:91] Creating Layer inception_4d/output_inception_4d/output_0_split
I0403 15:15:17.429514 11761 net.cpp:425] inception_4d/output_inception_4d/output_0_split <- inception_4d/output
I0403 15:15:17.429533 11761 net.cpp:399] inception_4d/output_inception_4d/output_0_split -> inception_4d/output_inception_4d/output_0_split_0
I0403 15:15:17.429558 11761 net.cpp:399] inception_4d/output_inception_4d/output_0_split -> inception_4d/output_inception_4d/output_0_split_1
I0403 15:15:17.429579 11761 net.cpp:399] inception_4d/output_inception_4d/output_0_split -> inception_4d/output_inception_4d/output_0_split_2
I0403 15:15:17.429599 11761 net.cpp:399] inception_4d/output_inception_4d/output_0_split -> inception_4d/output_inception_4d/output_0_split_3
I0403 15:15:17.429618 11761 net.cpp:399] inception_4d/output_inception_4d/output_0_split -> inception_4d/output_inception_4d/output_0_split_4
I0403 15:15:17.429731 11761 net.cpp:141] Setting up inception_4d/output_inception_4d/output_0_split
I0403 15:15:17.429766 11761 net.cpp:148] Top shape: 24 528 14 14 (2483712)
I0403 15:15:17.429782 11761 net.cpp:148] Top shape: 24 528 14 14 (2483712)
I0403 15:15:17.429797 11761 net.cpp:148] Top shape: 24 528 14 14 (2483712)
I0403 15:15:17.429811 11761 net.cpp:148] Top shape: 24 528 14 14 (2483712)
I0403 15:15:17.429826 11761 net.cpp:148] Top shape: 24 528 14 14 (2483712)
I0403 15:15:17.429839 11761 net.cpp:156] Memory required for data: 1206918432
I0403 15:15:17.429853 11761 layer_factory.hpp:77] Creating layer loss2/ave_pool
I0403 15:15:17.429874 11761 net.cpp:91] Creating Layer loss2/ave_pool
I0403 15:15:17.429890 11761 net.cpp:425] loss2/ave_pool <- inception_4d/output_inception_4d/output_0_split_0
I0403 15:15:17.429908 11761 net.cpp:399] loss2/ave_pool -> loss2/ave_pool
I0403 15:15:17.430215 11761 net.cpp:141] Setting up loss2/ave_pool
I0403 15:15:17.430243 11761 net.cpp:148] Top shape: 24 528 4 4 (202752)
I0403 15:15:17.430259 11761 net.cpp:156] Memory required for data: 1207729440
I0403 15:15:17.430274 11761 layer_factory.hpp:77] Creating layer loss2/conv
I0403 15:15:17.430294 11761 net.cpp:91] Creating Layer loss2/conv
I0403 15:15:17.430311 11761 net.cpp:425] loss2/conv <- loss2/ave_pool
I0403 15:15:17.430330 11761 net.cpp:399] loss2/conv -> loss2/conv
I0403 15:15:17.432211 11761 net.cpp:141] Setting up loss2/conv
I0403 15:15:17.432240 11761 net.cpp:148] Top shape: 24 128 4 4 (49152)
I0403 15:15:17.432256 11761 net.cpp:156] Memory required for data: 1207926048
I0403 15:15:17.432274 11761 layer_factory.hpp:77] Creating layer loss2/relu_conv
I0403 15:15:17.432292 11761 net.cpp:91] Creating Layer loss2/relu_conv
I0403 15:15:17.432312 11761 net.cpp:425] loss2/relu_conv <- loss2/conv
I0403 15:15:17.432330 11761 net.cpp:386] loss2/relu_conv -> loss2/conv (in-place)
I0403 15:15:17.432626 11761 net.cpp:141] Setting up loss2/relu_conv
I0403 15:15:17.432651 11761 net.cpp:148] Top shape: 24 128 4 4 (49152)
I0403 15:15:17.432667 11761 net.cpp:156] Memory required for data: 1208122656
I0403 15:15:17.432680 11761 layer_factory.hpp:77] Creating layer loss2/fc
I0403 15:15:17.432698 11761 net.cpp:91] Creating Layer loss2/fc
I0403 15:15:17.432718 11761 net.cpp:425] loss2/fc <- loss2/conv
I0403 15:15:17.432736 11761 net.cpp:399] loss2/fc -> loss2/fc
I0403 15:15:17.450067 11761 net.cpp:141] Setting up loss2/fc
I0403 15:15:17.450103 11761 net.cpp:148] Top shape: 24 1024 (24576)
I0403 15:15:17.450119 11761 net.cpp:156] Memory required for data: 1208220960
I0403 15:15:17.450136 11761 layer_factory.hpp:77] Creating layer loss2/relu_fc
I0403 15:15:17.450157 11761 net.cpp:91] Creating Layer loss2/relu_fc
I0403 15:15:17.450176 11761 net.cpp:425] loss2/relu_fc <- loss2/fc
I0403 15:15:17.450193 11761 net.cpp:386] loss2/relu_fc -> loss2/fc (in-place)
I0403 15:15:17.450492 11761 net.cpp:141] Setting up loss2/relu_fc
I0403 15:15:17.450520 11761 net.cpp:148] Top shape: 24 1024 (24576)
I0403 15:15:17.450536 11761 net.cpp:156] Memory required for data: 1208319264
I0403 15:15:17.450551 11761 layer_factory.hpp:77] Creating layer loss2/drop_fc
I0403 15:15:17.450568 11761 net.cpp:91] Creating Layer loss2/drop_fc
I0403 15:15:17.450584 11761 net.cpp:425] loss2/drop_fc <- loss2/fc
I0403 15:15:17.450603 11761 net.cpp:386] loss2/drop_fc -> loss2/fc (in-place)
I0403 15:15:17.450651 11761 net.cpp:141] Setting up loss2/drop_fc
I0403 15:15:17.450675 11761 net.cpp:148] Top shape: 24 1024 (24576)
I0403 15:15:17.450687 11761 net.cpp:156] Memory required for data: 1208417568
I0403 15:15:17.450713 11761 layer_factory.hpp:77] Creating layer loss2/classifier_plantvillage
I0403 15:15:17.450734 11761 net.cpp:91] Creating Layer loss2/classifier_plantvillage
I0403 15:15:17.450752 11761 net.cpp:425] loss2/classifier_plantvillage <- loss2/fc
I0403 15:15:17.450773 11761 net.cpp:399] loss2/classifier_plantvillage -> loss2/classifier_plantvillage
I0403 15:15:17.451179 11761 net.cpp:141] Setting up loss2/classifier_plantvillage
I0403 15:15:17.451202 11761 net.cpp:148] Top shape: 24 38 (912)
I0403 15:15:17.451231 11761 net.cpp:156] Memory required for data: 1208421216
I0403 15:15:17.451251 11761 layer_factory.hpp:77] Creating layer loss2/classifier_plantvillage_loss2/classifier_plantvillage_0_split
I0403 15:15:17.451268 11761 net.cpp:91] Creating Layer loss2/classifier_plantvillage_loss2/classifier_plantvillage_0_split
I0403 15:15:17.451283 11761 net.cpp:425] loss2/classifier_plantvillage_loss2/classifier_plantvillage_0_split <- loss2/classifier_plantvillage
I0403 15:15:17.451304 11761 net.cpp:399] loss2/classifier_plantvillage_loss2/classifier_plantvillage_0_split -> loss2/classifier_plantvillage_loss2/classifier_plantvillage_0_split_0
I0403 15:15:17.451324 11761 net.cpp:399] loss2/classifier_plantvillage_loss2/classifier_plantvillage_0_split -> loss2/classifier_plantvillage_loss2/classifier_plantvillage_0_split_1
I0403 15:15:17.451344 11761 net.cpp:399] loss2/classifier_plantvillage_loss2/classifier_plantvillage_0_split -> loss2/classifier_plantvillage_loss2/classifier_plantvillage_0_split_2
I0403 15:15:17.451426 11761 net.cpp:141] Setting up loss2/classifier_plantvillage_loss2/classifier_plantvillage_0_split
I0403 15:15:17.451450 11761 net.cpp:148] Top shape: 24 38 (912)
I0403 15:15:17.451467 11761 net.cpp:148] Top shape: 24 38 (912)
I0403 15:15:17.451481 11761 net.cpp:148] Top shape: 24 38 (912)
I0403 15:15:17.451495 11761 net.cpp:156] Memory required for data: 1208432160
I0403 15:15:17.451509 11761 layer_factory.hpp:77] Creating layer inception_4e/1x1
I0403 15:15:17.451529 11761 net.cpp:91] Creating Layer inception_4e/1x1
I0403 15:15:17.451545 11761 net.cpp:425] inception_4e/1x1 <- inception_4d/output_inception_4d/output_0_split_1
I0403 15:15:17.451565 11761 net.cpp:399] inception_4e/1x1 -> inception_4e/1x1
I0403 15:15:17.453435 11761 net.cpp:141] Setting up inception_4e/1x1
I0403 15:15:17.453464 11761 net.cpp:148] Top shape: 24 256 14 14 (1204224)
I0403 15:15:17.453480 11761 net.cpp:156] Memory required for data: 1213249056
I0403 15:15:17.453498 11761 layer_factory.hpp:77] Creating layer inception_4e/relu_1x1
I0403 15:15:17.453516 11761 net.cpp:91] Creating Layer inception_4e/relu_1x1
I0403 15:15:17.453533 11761 net.cpp:425] inception_4e/relu_1x1 <- inception_4e/1x1
I0403 15:15:17.453553 11761 net.cpp:386] inception_4e/relu_1x1 -> inception_4e/1x1 (in-place)
I0403 15:15:17.453872 11761 net.cpp:141] Setting up inception_4e/relu_1x1
I0403 15:15:17.453898 11761 net.cpp:148] Top shape: 24 256 14 14 (1204224)
I0403 15:15:17.453913 11761 net.cpp:156] Memory required for data: 1218065952
I0403 15:15:17.453928 11761 layer_factory.hpp:77] Creating layer inception_4e/3x3_reduce
I0403 15:15:17.453951 11761 net.cpp:91] Creating Layer inception_4e/3x3_reduce
I0403 15:15:17.453969 11761 net.cpp:425] inception_4e/3x3_reduce <- inception_4d/output_inception_4d/output_0_split_2
I0403 15:15:17.453989 11761 net.cpp:399] inception_4e/3x3_reduce -> inception_4e/3x3_reduce
I0403 15:15:17.456117 11761 net.cpp:141] Setting up inception_4e/3x3_reduce
I0403 15:15:17.456151 11761 net.cpp:148] Top shape: 24 160 14 14 (752640)
I0403 15:15:17.456168 11761 net.cpp:156] Memory required for data: 1221076512
I0403 15:15:17.456187 11761 layer_factory.hpp:77] Creating layer inception_4e/relu_3x3_reduce
I0403 15:15:17.456204 11761 net.cpp:91] Creating Layer inception_4e/relu_3x3_reduce
I0403 15:15:17.456220 11761 net.cpp:425] inception_4e/relu_3x3_reduce <- inception_4e/3x3_reduce
I0403 15:15:17.456240 11761 net.cpp:386] inception_4e/relu_3x3_reduce -> inception_4e/3x3_reduce (in-place)
I0403 15:15:17.456435 11761 net.cpp:141] Setting up inception_4e/relu_3x3_reduce
I0403 15:15:17.456462 11761 net.cpp:148] Top shape: 24 160 14 14 (752640)
I0403 15:15:17.456480 11761 net.cpp:156] Memory required for data: 1224087072
I0403 15:15:17.456495 11761 layer_factory.hpp:77] Creating layer inception_4e/3x3
I0403 15:15:17.456517 11761 net.cpp:91] Creating Layer inception_4e/3x3
I0403 15:15:17.456534 11761 net.cpp:425] inception_4e/3x3 <- inception_4e/3x3_reduce
I0403 15:15:17.456557 11761 net.cpp:399] inception_4e/3x3 -> inception_4e/3x3
I0403 15:15:17.461580 11761 net.cpp:141] Setting up inception_4e/3x3
I0403 15:15:17.461626 11761 net.cpp:148] Top shape: 24 320 14 14 (1505280)
I0403 15:15:17.461642 11761 net.cpp:156] Memory required for data: 1230108192
I0403 15:15:17.461661 11761 layer_factory.hpp:77] Creating layer inception_4e/relu_3x3
I0403 15:15:17.461681 11761 net.cpp:91] Creating Layer inception_4e/relu_3x3
I0403 15:15:17.461699 11761 net.cpp:425] inception_4e/relu_3x3 <- inception_4e/3x3
I0403 15:15:17.461716 11761 net.cpp:386] inception_4e/relu_3x3 -> inception_4e/3x3 (in-place)
I0403 15:15:17.462023 11761 net.cpp:141] Setting up inception_4e/relu_3x3
I0403 15:15:17.462050 11761 net.cpp:148] Top shape: 24 320 14 14 (1505280)
I0403 15:15:17.462065 11761 net.cpp:156] Memory required for data: 1236129312
I0403 15:15:17.462081 11761 layer_factory.hpp:77] Creating layer inception_4e/5x5_reduce
I0403 15:15:17.462105 11761 net.cpp:91] Creating Layer inception_4e/5x5_reduce
I0403 15:15:17.462123 11761 net.cpp:425] inception_4e/5x5_reduce <- inception_4d/output_inception_4d/output_0_split_3
I0403 15:15:17.462142 11761 net.cpp:399] inception_4e/5x5_reduce -> inception_4e/5x5_reduce
I0403 15:15:17.463237 11761 net.cpp:141] Setting up inception_4e/5x5_reduce
I0403 15:15:17.463266 11761 net.cpp:148] Top shape: 24 32 14 14 (150528)
I0403 15:15:17.463282 11761 net.cpp:156] Memory required for data: 1236731424
I0403 15:15:17.463300 11761 layer_factory.hpp:77] Creating layer inception_4e/relu_5x5_reduce
I0403 15:15:17.463320 11761 net.cpp:91] Creating Layer inception_4e/relu_5x5_reduce
I0403 15:15:17.463335 11761 net.cpp:425] inception_4e/relu_5x5_reduce <- inception_4e/5x5_reduce
I0403 15:15:17.463357 11761 net.cpp:386] inception_4e/relu_5x5_reduce -> inception_4e/5x5_reduce (in-place)
I0403 15:15:17.463673 11761 net.cpp:141] Setting up inception_4e/relu_5x5_reduce
I0403 15:15:17.463699 11761 net.cpp:148] Top shape: 24 32 14 14 (150528)
I0403 15:15:17.463714 11761 net.cpp:156] Memory required for data: 1237333536
I0403 15:15:17.463729 11761 layer_factory.hpp:77] Creating layer inception_4e/5x5
I0403 15:15:17.463768 11761 net.cpp:91] Creating Layer inception_4e/5x5
I0403 15:15:17.463786 11761 net.cpp:425] inception_4e/5x5 <- inception_4e/5x5_reduce
I0403 15:15:17.463806 11761 net.cpp:399] inception_4e/5x5 -> inception_4e/5x5
I0403 15:15:17.465687 11761 net.cpp:141] Setting up inception_4e/5x5
I0403 15:15:17.465718 11761 net.cpp:148] Top shape: 24 128 14 14 (602112)
I0403 15:15:17.465734 11761 net.cpp:156] Memory required for data: 1239741984
I0403 15:15:17.465754 11761 layer_factory.hpp:77] Creating layer inception_4e/relu_5x5
I0403 15:15:17.465773 11761 net.cpp:91] Creating Layer inception_4e/relu_5x5
I0403 15:15:17.465788 11761 net.cpp:425] inception_4e/relu_5x5 <- inception_4e/5x5
I0403 15:15:17.465806 11761 net.cpp:386] inception_4e/relu_5x5 -> inception_4e/5x5 (in-place)
I0403 15:15:17.466011 11761 net.cpp:141] Setting up inception_4e/relu_5x5
I0403 15:15:17.466035 11761 net.cpp:148] Top shape: 24 128 14 14 (602112)
I0403 15:15:17.466050 11761 net.cpp:156] Memory required for data: 1242150432
I0403 15:15:17.466064 11761 layer_factory.hpp:77] Creating layer inception_4e/pool
I0403 15:15:17.466083 11761 net.cpp:91] Creating Layer inception_4e/pool
I0403 15:15:17.466097 11761 net.cpp:425] inception_4e/pool <- inception_4d/output_inception_4d/output_0_split_4
I0403 15:15:17.466117 11761 net.cpp:399] inception_4e/pool -> inception_4e/pool
I0403 15:15:17.466187 11761 net.cpp:141] Setting up inception_4e/pool
I0403 15:15:17.466214 11761 net.cpp:148] Top shape: 24 528 14 14 (2483712)
I0403 15:15:17.466230 11761 net.cpp:156] Memory required for data: 1252085280
I0403 15:15:17.466244 11761 layer_factory.hpp:77] Creating layer inception_4e/pool_proj
I0403 15:15:17.466265 11761 net.cpp:91] Creating Layer inception_4e/pool_proj
I0403 15:15:17.466282 11761 net.cpp:425] inception_4e/pool_proj <- inception_4e/pool
I0403 15:15:17.466300 11761 net.cpp:399] inception_4e/pool_proj -> inception_4e/pool_proj
I0403 15:15:17.467823 11761 net.cpp:141] Setting up inception_4e/pool_proj
I0403 15:15:17.467869 11761 net.cpp:148] Top shape: 24 128 14 14 (602112)
I0403 15:15:17.467886 11761 net.cpp:156] Memory required for data: 1254493728
I0403 15:15:17.467905 11761 layer_factory.hpp:77] Creating layer inception_4e/relu_pool_proj
I0403 15:15:17.467923 11761 net.cpp:91] Creating Layer inception_4e/relu_pool_proj
I0403 15:15:17.467941 11761 net.cpp:425] inception_4e/relu_pool_proj <- inception_4e/pool_proj
I0403 15:15:17.467959 11761 net.cpp:386] inception_4e/relu_pool_proj -> inception_4e/pool_proj (in-place)
I0403 15:15:17.468255 11761 net.cpp:141] Setting up inception_4e/relu_pool_proj
I0403 15:15:17.468284 11761 net.cpp:148] Top shape: 24 128 14 14 (602112)
I0403 15:15:17.468302 11761 net.cpp:156] Memory required for data: 1256902176
I0403 15:15:17.468317 11761 layer_factory.hpp:77] Creating layer inception_4e/output
I0403 15:15:17.468334 11761 net.cpp:91] Creating Layer inception_4e/output
I0403 15:15:17.468350 11761 net.cpp:425] inception_4e/output <- inception_4e/1x1
I0403 15:15:17.468369 11761 net.cpp:425] inception_4e/output <- inception_4e/3x3
I0403 15:15:17.468385 11761 net.cpp:425] inception_4e/output <- inception_4e/5x5
I0403 15:15:17.468402 11761 net.cpp:425] inception_4e/output <- inception_4e/pool_proj
I0403 15:15:17.468425 11761 net.cpp:399] inception_4e/output -> inception_4e/output
I0403 15:15:17.468478 11761 net.cpp:141] Setting up inception_4e/output
I0403 15:15:17.468503 11761 net.cpp:148] Top shape: 24 832 14 14 (3913728)
I0403 15:15:17.468518 11761 net.cpp:156] Memory required for data: 1272557088
I0403 15:15:17.468533 11761 layer_factory.hpp:77] Creating layer pool4/3x3_s2
I0403 15:15:17.468554 11761 net.cpp:91] Creating Layer pool4/3x3_s2
I0403 15:15:17.468571 11761 net.cpp:425] pool4/3x3_s2 <- inception_4e/output
I0403 15:15:17.468590 11761 net.cpp:399] pool4/3x3_s2 -> pool4/3x3_s2
I0403 15:15:17.468657 11761 net.cpp:141] Setting up pool4/3x3_s2
I0403 15:15:17.468682 11761 net.cpp:148] Top shape: 24 832 7 7 (978432)
I0403 15:15:17.468696 11761 net.cpp:156] Memory required for data: 1276470816
I0403 15:15:17.468709 11761 layer_factory.hpp:77] Creating layer pool4/3x3_s2_pool4/3x3_s2_0_split
I0403 15:15:17.468726 11761 net.cpp:91] Creating Layer pool4/3x3_s2_pool4/3x3_s2_0_split
I0403 15:15:17.468741 11761 net.cpp:425] pool4/3x3_s2_pool4/3x3_s2_0_split <- pool4/3x3_s2
I0403 15:15:17.468760 11761 net.cpp:399] pool4/3x3_s2_pool4/3x3_s2_0_split -> pool4/3x3_s2_pool4/3x3_s2_0_split_0
I0403 15:15:17.468781 11761 net.cpp:399] pool4/3x3_s2_pool4/3x3_s2_0_split -> pool4/3x3_s2_pool4/3x3_s2_0_split_1
I0403 15:15:17.468801 11761 net.cpp:399] pool4/3x3_s2_pool4/3x3_s2_0_split -> pool4/3x3_s2_pool4/3x3_s2_0_split_2
I0403 15:15:17.468822 11761 net.cpp:399] pool4/3x3_s2_pool4/3x3_s2_0_split -> pool4/3x3_s2_pool4/3x3_s2_0_split_3
I0403 15:15:17.468914 11761 net.cpp:141] Setting up pool4/3x3_s2_pool4/3x3_s2_0_split
I0403 15:15:17.468938 11761 net.cpp:148] Top shape: 24 832 7 7 (978432)
I0403 15:15:17.468955 11761 net.cpp:148] Top shape: 24 832 7 7 (978432)
I0403 15:15:17.468971 11761 net.cpp:148] Top shape: 24 832 7 7 (978432)
I0403 15:15:17.468986 11761 net.cpp:148] Top shape: 24 832 7 7 (978432)
I0403 15:15:17.469000 11761 net.cpp:156] Memory required for data: 1292125728
I0403 15:15:17.469014 11761 layer_factory.hpp:77] Creating layer inception_5a/1x1
I0403 15:15:17.469036 11761 net.cpp:91] Creating Layer inception_5a/1x1
I0403 15:15:17.469053 11761 net.cpp:425] inception_5a/1x1 <- pool4/3x3_s2_pool4/3x3_s2_0_split_0
I0403 15:15:17.469072 11761 net.cpp:399] inception_5a/1x1 -> inception_5a/1x1
I0403 15:15:17.471942 11761 net.cpp:141] Setting up inception_5a/1x1
I0403 15:15:17.471976 11761 net.cpp:148] Top shape: 24 256 7 7 (301056)
I0403 15:15:17.471993 11761 net.cpp:156] Memory required for data: 1293329952
I0403 15:15:17.472012 11761 layer_factory.hpp:77] Creating layer inception_5a/relu_1x1
I0403 15:15:17.472030 11761 net.cpp:91] Creating Layer inception_5a/relu_1x1
I0403 15:15:17.472048 11761 net.cpp:425] inception_5a/relu_1x1 <- inception_5a/1x1
I0403 15:15:17.472069 11761 net.cpp:386] inception_5a/relu_1x1 -> inception_5a/1x1 (in-place)
I0403 15:15:17.472388 11761 net.cpp:141] Setting up inception_5a/relu_1x1
I0403 15:15:17.472429 11761 net.cpp:148] Top shape: 24 256 7 7 (301056)
I0403 15:15:17.472450 11761 net.cpp:156] Memory required for data: 1294534176
I0403 15:15:17.472463 11761 layer_factory.hpp:77] Creating layer inception_5a/3x3_reduce
I0403 15:15:17.472486 11761 net.cpp:91] Creating Layer inception_5a/3x3_reduce
I0403 15:15:17.472506 11761 net.cpp:425] inception_5a/3x3_reduce <- pool4/3x3_s2_pool4/3x3_s2_0_split_1
I0403 15:15:17.472527 11761 net.cpp:399] inception_5a/3x3_reduce -> inception_5a/3x3_reduce
I0403 15:15:17.475085 11761 net.cpp:141] Setting up inception_5a/3x3_reduce
I0403 15:15:17.475117 11761 net.cpp:148] Top shape: 24 160 7 7 (188160)
I0403 15:15:17.475134 11761 net.cpp:156] Memory required for data: 1295286816
I0403 15:15:17.475154 11761 layer_factory.hpp:77] Creating layer inception_5a/relu_3x3_reduce
I0403 15:15:17.475175 11761 net.cpp:91] Creating Layer inception_5a/relu_3x3_reduce
I0403 15:15:17.475194 11761 net.cpp:425] inception_5a/relu_3x3_reduce <- inception_5a/3x3_reduce
I0403 15:15:17.475214 11761 net.cpp:386] inception_5a/relu_3x3_reduce -> inception_5a/3x3_reduce (in-place)
I0403 15:15:17.475420 11761 net.cpp:141] Setting up inception_5a/relu_3x3_reduce
I0403 15:15:17.475448 11761 net.cpp:148] Top shape: 24 160 7 7 (188160)
I0403 15:15:17.475464 11761 net.cpp:156] Memory required for data: 1296039456
I0403 15:15:17.475478 11761 layer_factory.hpp:77] Creating layer inception_5a/3x3
I0403 15:15:17.475502 11761 net.cpp:91] Creating Layer inception_5a/3x3
I0403 15:15:17.475519 11761 net.cpp:425] inception_5a/3x3 <- inception_5a/3x3_reduce
I0403 15:15:17.475538 11761 net.cpp:399] inception_5a/3x3 -> inception_5a/3x3
I0403 15:15:17.480725 11761 net.cpp:141] Setting up inception_5a/3x3
I0403 15:15:17.480762 11761 net.cpp:148] Top shape: 24 320 7 7 (376320)
I0403 15:15:17.480779 11761 net.cpp:156] Memory required for data: 1297544736
I0403 15:15:17.480798 11761 layer_factory.hpp:77] Creating layer inception_5a/relu_3x3
I0403 15:15:17.480816 11761 net.cpp:91] Creating Layer inception_5a/relu_3x3
I0403 15:15:17.480834 11761 net.cpp:425] inception_5a/relu_3x3 <- inception_5a/3x3
I0403 15:15:17.480854 11761 net.cpp:386] inception_5a/relu_3x3 -> inception_5a/3x3 (in-place)
I0403 15:15:17.481159 11761 net.cpp:141] Setting up inception_5a/relu_3x3
I0403 15:15:17.481189 11761 net.cpp:148] Top shape: 24 320 7 7 (376320)
I0403 15:15:17.481206 11761 net.cpp:156] Memory required for data: 1299050016
I0403 15:15:17.481221 11761 layer_factory.hpp:77] Creating layer inception_5a/5x5_reduce
I0403 15:15:17.481245 11761 net.cpp:91] Creating Layer inception_5a/5x5_reduce
I0403 15:15:17.481266 11761 net.cpp:425] inception_5a/5x5_reduce <- pool4/3x3_s2_pool4/3x3_s2_0_split_2
I0403 15:15:17.481288 11761 net.cpp:399] inception_5a/5x5_reduce -> inception_5a/5x5_reduce
I0403 15:15:17.482496 11761 net.cpp:141] Setting up inception_5a/5x5_reduce
I0403 15:15:17.482529 11761 net.cpp:148] Top shape: 24 32 7 7 (37632)
I0403 15:15:17.482547 11761 net.cpp:156] Memory required for data: 1299200544
I0403 15:15:17.482565 11761 layer_factory.hpp:77] Creating layer inception_5a/relu_5x5_reduce
I0403 15:15:17.482583 11761 net.cpp:91] Creating Layer inception_5a/relu_5x5_reduce
I0403 15:15:17.482600 11761 net.cpp:425] inception_5a/relu_5x5_reduce <- inception_5a/5x5_reduce
I0403 15:15:17.482620 11761 net.cpp:386] inception_5a/relu_5x5_reduce -> inception_5a/5x5_reduce (in-place)
I0403 15:15:17.482928 11761 net.cpp:141] Setting up inception_5a/relu_5x5_reduce
I0403 15:15:17.482955 11761 net.cpp:148] Top shape: 24 32 7 7 (37632)
I0403 15:15:17.482970 11761 net.cpp:156] Memory required for data: 1299351072
I0403 15:15:17.482985 11761 layer_factory.hpp:77] Creating layer inception_5a/5x5
I0403 15:15:17.483007 11761 net.cpp:91] Creating Layer inception_5a/5x5
I0403 15:15:17.483026 11761 net.cpp:425] inception_5a/5x5 <- inception_5a/5x5_reduce
I0403 15:15:17.483048 11761 net.cpp:399] inception_5a/5x5 -> inception_5a/5x5
I0403 15:15:17.484819 11761 net.cpp:141] Setting up inception_5a/5x5
I0403 15:15:17.484863 11761 net.cpp:148] Top shape: 24 128 7 7 (150528)
I0403 15:15:17.484881 11761 net.cpp:156] Memory required for data: 1299953184
I0403 15:15:17.484900 11761 layer_factory.hpp:77] Creating layer inception_5a/relu_5x5
I0403 15:15:17.484920 11761 net.cpp:91] Creating Layer inception_5a/relu_5x5
I0403 15:15:17.484937 11761 net.cpp:425] inception_5a/relu_5x5 <- inception_5a/5x5
I0403 15:15:17.484958 11761 net.cpp:386] inception_5a/relu_5x5 -> inception_5a/5x5 (in-place)
I0403 15:15:17.485157 11761 net.cpp:141] Setting up inception_5a/relu_5x5
I0403 15:15:17.485184 11761 net.cpp:148] Top shape: 24 128 7 7 (150528)
I0403 15:15:17.485198 11761 net.cpp:156] Memory required for data: 1300555296
I0403 15:15:17.485213 11761 layer_factory.hpp:77] Creating layer inception_5a/pool
I0403 15:15:17.485230 11761 net.cpp:91] Creating Layer inception_5a/pool
I0403 15:15:17.485246 11761 net.cpp:425] inception_5a/pool <- pool4/3x3_s2_pool4/3x3_s2_0_split_3
I0403 15:15:17.485267 11761 net.cpp:399] inception_5a/pool -> inception_5a/pool
I0403 15:15:17.485339 11761 net.cpp:141] Setting up inception_5a/pool
I0403 15:15:17.485363 11761 net.cpp:148] Top shape: 24 832 7 7 (978432)
I0403 15:15:17.485378 11761 net.cpp:156] Memory required for data: 1304469024
I0403 15:15:17.485394 11761 layer_factory.hpp:77] Creating layer inception_5a/pool_proj
I0403 15:15:17.485421 11761 net.cpp:91] Creating Layer inception_5a/pool_proj
I0403 15:15:17.485440 11761 net.cpp:425] inception_5a/pool_proj <- inception_5a/pool
I0403 15:15:17.485461 11761 net.cpp:399] inception_5a/pool_proj -> inception_5a/pool_proj
I0403 15:15:17.487763 11761 net.cpp:141] Setting up inception_5a/pool_proj
I0403 15:15:17.487794 11761 net.cpp:148] Top shape: 24 128 7 7 (150528)
I0403 15:15:17.487810 11761 net.cpp:156] Memory required for data: 1305071136
I0403 15:15:17.487828 11761 layer_factory.hpp:77] Creating layer inception_5a/relu_pool_proj
I0403 15:15:17.487850 11761 net.cpp:91] Creating Layer inception_5a/relu_pool_proj
I0403 15:15:17.487869 11761 net.cpp:425] inception_5a/relu_pool_proj <- inception_5a/pool_proj
I0403 15:15:17.487885 11761 net.cpp:386] inception_5a/relu_pool_proj -> inception_5a/pool_proj (in-place)
I0403 15:15:17.488188 11761 net.cpp:141] Setting up inception_5a/relu_pool_proj
I0403 15:15:17.488214 11761 net.cpp:148] Top shape: 24 128 7 7 (150528)
I0403 15:15:17.488230 11761 net.cpp:156] Memory required for data: 1305673248
I0403 15:15:17.488245 11761 layer_factory.hpp:77] Creating layer inception_5a/output
I0403 15:15:17.488266 11761 net.cpp:91] Creating Layer inception_5a/output
I0403 15:15:17.488283 11761 net.cpp:425] inception_5a/output <- inception_5a/1x1
I0403 15:15:17.488301 11761 net.cpp:425] inception_5a/output <- inception_5a/3x3
I0403 15:15:17.488317 11761 net.cpp:425] inception_5a/output <- inception_5a/5x5
I0403 15:15:17.488333 11761 net.cpp:425] inception_5a/output <- inception_5a/pool_proj
I0403 15:15:17.488350 11761 net.cpp:399] inception_5a/output -> inception_5a/output
I0403 15:15:17.488402 11761 net.cpp:141] Setting up inception_5a/output
I0403 15:15:17.488430 11761 net.cpp:148] Top shape: 24 832 7 7 (978432)
I0403 15:15:17.488445 11761 net.cpp:156] Memory required for data: 1309586976
I0403 15:15:17.488459 11761 layer_factory.hpp:77] Creating layer inception_5a/output_inception_5a/output_0_split
I0403 15:15:17.488476 11761 net.cpp:91] Creating Layer inception_5a/output_inception_5a/output_0_split
I0403 15:15:17.488492 11761 net.cpp:425] inception_5a/output_inception_5a/output_0_split <- inception_5a/output
I0403 15:15:17.488510 11761 net.cpp:399] inception_5a/output_inception_5a/output_0_split -> inception_5a/output_inception_5a/output_0_split_0
I0403 15:15:17.488531 11761 net.cpp:399] inception_5a/output_inception_5a/output_0_split -> inception_5a/output_inception_5a/output_0_split_1
I0403 15:15:17.488553 11761 net.cpp:399] inception_5a/output_inception_5a/output_0_split -> inception_5a/output_inception_5a/output_0_split_2
I0403 15:15:17.488572 11761 net.cpp:399] inception_5a/output_inception_5a/output_0_split -> inception_5a/output_inception_5a/output_0_split_3
I0403 15:15:17.488687 11761 net.cpp:141] Setting up inception_5a/output_inception_5a/output_0_split
I0403 15:15:17.488711 11761 net.cpp:148] Top shape: 24 832 7 7 (978432)
I0403 15:15:17.488728 11761 net.cpp:148] Top shape: 24 832 7 7 (978432)
I0403 15:15:17.488742 11761 net.cpp:148] Top shape: 24 832 7 7 (978432)
I0403 15:15:17.488757 11761 net.cpp:148] Top shape: 24 832 7 7 (978432)
I0403 15:15:17.488771 11761 net.cpp:156] Memory required for data: 1325241888
I0403 15:15:17.488786 11761 layer_factory.hpp:77] Creating layer inception_5b/1x1
I0403 15:15:17.488809 11761 net.cpp:91] Creating Layer inception_5b/1x1
I0403 15:15:17.488826 11761 net.cpp:425] inception_5b/1x1 <- inception_5a/output_inception_5a/output_0_split_0
I0403 15:15:17.488847 11761 net.cpp:399] inception_5b/1x1 -> inception_5b/1x1
I0403 15:15:17.492650 11761 net.cpp:141] Setting up inception_5b/1x1
I0403 15:15:17.492681 11761 net.cpp:148] Top shape: 24 384 7 7 (451584)
I0403 15:15:17.492697 11761 net.cpp:156] Memory required for data: 1327048224
I0403 15:15:17.492714 11761 layer_factory.hpp:77] Creating layer inception_5b/relu_1x1
I0403 15:15:17.492734 11761 net.cpp:91] Creating Layer inception_5b/relu_1x1
I0403 15:15:17.492751 11761 net.cpp:425] inception_5b/relu_1x1 <- inception_5b/1x1
I0403 15:15:17.492768 11761 net.cpp:386] inception_5b/relu_1x1 -> inception_5b/1x1 (in-place)
I0403 15:15:17.493070 11761 net.cpp:141] Setting up inception_5b/relu_1x1
I0403 15:15:17.493095 11761 net.cpp:148] Top shape: 24 384 7 7 (451584)
I0403 15:15:17.493110 11761 net.cpp:156] Memory required for data: 1328854560
I0403 15:15:17.493124 11761 layer_factory.hpp:77] Creating layer inception_5b/3x3_reduce
I0403 15:15:17.493146 11761 net.cpp:91] Creating Layer inception_5b/3x3_reduce
I0403 15:15:17.493162 11761 net.cpp:425] inception_5b/3x3_reduce <- inception_5a/output_inception_5a/output_0_split_1
I0403 15:15:17.493183 11761 net.cpp:399] inception_5b/3x3_reduce -> inception_5b/3x3_reduce
I0403 15:15:17.495815 11761 net.cpp:141] Setting up inception_5b/3x3_reduce
I0403 15:15:17.495843 11761 net.cpp:148] Top shape: 24 192 7 7 (225792)
I0403 15:15:17.495860 11761 net.cpp:156] Memory required for data: 1329757728
I0403 15:15:17.495879 11761 layer_factory.hpp:77] Creating layer inception_5b/relu_3x3_reduce
I0403 15:15:17.495899 11761 net.cpp:91] Creating Layer inception_5b/relu_3x3_reduce
I0403 15:15:17.495916 11761 net.cpp:425] inception_5b/relu_3x3_reduce <- inception_5b/3x3_reduce
I0403 15:15:17.495934 11761 net.cpp:386] inception_5b/relu_3x3_reduce -> inception_5b/3x3_reduce (in-place)
I0403 15:15:17.496126 11761 net.cpp:141] Setting up inception_5b/relu_3x3_reduce
I0403 15:15:17.496150 11761 net.cpp:148] Top shape: 24 192 7 7 (225792)
I0403 15:15:17.496165 11761 net.cpp:156] Memory required for data: 1330660896
I0403 15:15:17.496178 11761 layer_factory.hpp:77] Creating layer inception_5b/3x3
I0403 15:15:17.496199 11761 net.cpp:91] Creating Layer inception_5b/3x3
I0403 15:15:17.496217 11761 net.cpp:425] inception_5b/3x3 <- inception_5b/3x3_reduce
I0403 15:15:17.496237 11761 net.cpp:399] inception_5b/3x3 -> inception_5b/3x3
I0403 15:15:17.502918 11761 net.cpp:141] Setting up inception_5b/3x3
I0403 15:15:17.502948 11761 net.cpp:148] Top shape: 24 384 7 7 (451584)
I0403 15:15:17.502964 11761 net.cpp:156] Memory required for data: 1332467232
I0403 15:15:17.502982 11761 layer_factory.hpp:77] Creating layer inception_5b/relu_3x3
I0403 15:15:17.503002 11761 net.cpp:91] Creating Layer inception_5b/relu_3x3
I0403 15:15:17.503020 11761 net.cpp:425] inception_5b/relu_3x3 <- inception_5b/3x3
I0403 15:15:17.503036 11761 net.cpp:386] inception_5b/relu_3x3 -> inception_5b/3x3 (in-place)
I0403 15:15:17.503330 11761 net.cpp:141] Setting up inception_5b/relu_3x3
I0403 15:15:17.503355 11761 net.cpp:148] Top shape: 24 384 7 7 (451584)
I0403 15:15:17.503371 11761 net.cpp:156] Memory required for data: 1334273568
I0403 15:15:17.503384 11761 layer_factory.hpp:77] Creating layer inception_5b/5x5_reduce
I0403 15:15:17.503427 11761 net.cpp:91] Creating Layer inception_5b/5x5_reduce
I0403 15:15:17.503446 11761 net.cpp:425] inception_5b/5x5_reduce <- inception_5a/output_inception_5a/output_0_split_2
I0403 15:15:17.503466 11761 net.cpp:399] inception_5b/5x5_reduce -> inception_5b/5x5_reduce
I0403 15:15:17.504747 11761 net.cpp:141] Setting up inception_5b/5x5_reduce
I0403 15:15:17.504778 11761 net.cpp:148] Top shape: 24 48 7 7 (56448)
I0403 15:15:17.504796 11761 net.cpp:156] Memory required for data: 1334499360
I0403 15:15:17.504815 11761 layer_factory.hpp:77] Creating layer inception_5b/relu_5x5_reduce
I0403 15:15:17.504834 11761 net.cpp:91] Creating Layer inception_5b/relu_5x5_reduce
I0403 15:15:17.504851 11761 net.cpp:425] inception_5b/relu_5x5_reduce <- inception_5b/5x5_reduce
I0403 15:15:17.504870 11761 net.cpp:386] inception_5b/relu_5x5_reduce -> inception_5b/5x5_reduce (in-place)
I0403 15:15:17.505249 11761 net.cpp:141] Setting up inception_5b/relu_5x5_reduce
I0403 15:15:17.505276 11761 net.cpp:148] Top shape: 24 48 7 7 (56448)
I0403 15:15:17.505293 11761 net.cpp:156] Memory required for data: 1334725152
I0403 15:15:17.505308 11761 layer_factory.hpp:77] Creating layer inception_5b/5x5
I0403 15:15:17.505331 11761 net.cpp:91] Creating Layer inception_5b/5x5
I0403 15:15:17.505347 11761 net.cpp:425] inception_5b/5x5 <- inception_5b/5x5_reduce
I0403 15:15:17.505367 11761 net.cpp:399] inception_5b/5x5 -> inception_5b/5x5
I0403 15:15:17.507401 11761 net.cpp:141] Setting up inception_5b/5x5
I0403 15:15:17.507436 11761 net.cpp:148] Top shape: 24 128 7 7 (150528)
I0403 15:15:17.507454 11761 net.cpp:156] Memory required for data: 1335327264
I0403 15:15:17.507472 11761 layer_factory.hpp:77] Creating layer inception_5b/relu_5x5
I0403 15:15:17.507490 11761 net.cpp:91] Creating Layer inception_5b/relu_5x5
I0403 15:15:17.507506 11761 net.cpp:425] inception_5b/relu_5x5 <- inception_5b/5x5
I0403 15:15:17.507525 11761 net.cpp:386] inception_5b/relu_5x5 -> inception_5b/5x5 (in-place)
I0403 15:15:17.507719 11761 net.cpp:141] Setting up inception_5b/relu_5x5
I0403 15:15:17.507743 11761 net.cpp:148] Top shape: 24 128 7 7 (150528)
I0403 15:15:17.507757 11761 net.cpp:156] Memory required for data: 1335929376
I0403 15:15:17.507772 11761 layer_factory.hpp:77] Creating layer inception_5b/pool
I0403 15:15:17.507788 11761 net.cpp:91] Creating Layer inception_5b/pool
I0403 15:15:17.507803 11761 net.cpp:425] inception_5b/pool <- inception_5a/output_inception_5a/output_0_split_3
I0403 15:15:17.507823 11761 net.cpp:399] inception_5b/pool -> inception_5b/pool
I0403 15:15:17.507894 11761 net.cpp:141] Setting up inception_5b/pool
I0403 15:15:17.507918 11761 net.cpp:148] Top shape: 24 832 7 7 (978432)
I0403 15:15:17.507932 11761 net.cpp:156] Memory required for data: 1339843104
I0403 15:15:17.507946 11761 layer_factory.hpp:77] Creating layer inception_5b/pool_proj
I0403 15:15:17.507968 11761 net.cpp:91] Creating Layer inception_5b/pool_proj
I0403 15:15:17.507984 11761 net.cpp:425] inception_5b/pool_proj <- inception_5b/pool
I0403 15:15:17.508002 11761 net.cpp:399] inception_5b/pool_proj -> inception_5b/pool_proj
I0403 15:15:17.510372 11761 net.cpp:141] Setting up inception_5b/pool_proj
I0403 15:15:17.510403 11761 net.cpp:148] Top shape: 24 128 7 7 (150528)
I0403 15:15:17.510426 11761 net.cpp:156] Memory required for data: 1340445216
I0403 15:15:17.510445 11761 layer_factory.hpp:77] Creating layer inception_5b/relu_pool_proj
I0403 15:15:17.510464 11761 net.cpp:91] Creating Layer inception_5b/relu_pool_proj
I0403 15:15:17.510479 11761 net.cpp:425] inception_5b/relu_pool_proj <- inception_5b/pool_proj
I0403 15:15:17.510496 11761 net.cpp:386] inception_5b/relu_pool_proj -> inception_5b/pool_proj (in-place)
I0403 15:15:17.510794 11761 net.cpp:141] Setting up inception_5b/relu_pool_proj
I0403 15:15:17.510823 11761 net.cpp:148] Top shape: 24 128 7 7 (150528)
I0403 15:15:17.510838 11761 net.cpp:156] Memory required for data: 1341047328
I0403 15:15:17.510851 11761 layer_factory.hpp:77] Creating layer inception_5b/output
I0403 15:15:17.510867 11761 net.cpp:91] Creating Layer inception_5b/output
I0403 15:15:17.510896 11761 net.cpp:425] inception_5b/output <- inception_5b/1x1
I0403 15:15:17.510915 11761 net.cpp:425] inception_5b/output <- inception_5b/3x3
I0403 15:15:17.510931 11761 net.cpp:425] inception_5b/output <- inception_5b/5x5
I0403 15:15:17.510946 11761 net.cpp:425] inception_5b/output <- inception_5b/pool_proj
I0403 15:15:17.510962 11761 net.cpp:399] inception_5b/output -> inception_5b/output
I0403 15:15:17.511013 11761 net.cpp:141] Setting up inception_5b/output
I0403 15:15:17.511036 11761 net.cpp:148] Top shape: 24 1024 7 7 (1204224)
I0403 15:15:17.511051 11761 net.cpp:156] Memory required for data: 1345864224
I0403 15:15:17.511065 11761 layer_factory.hpp:77] Creating layer pool5/7x7_s1
I0403 15:15:17.511085 11761 net.cpp:91] Creating Layer pool5/7x7_s1
I0403 15:15:17.511101 11761 net.cpp:425] pool5/7x7_s1 <- inception_5b/output
I0403 15:15:17.511117 11761 net.cpp:399] pool5/7x7_s1 -> pool5/7x7_s1
I0403 15:15:17.511330 11761 net.cpp:141] Setting up pool5/7x7_s1
I0403 15:15:17.511355 11761 net.cpp:148] Top shape: 24 1024 1 1 (24576)
I0403 15:15:17.511369 11761 net.cpp:156] Memory required for data: 1345962528
I0403 15:15:17.511384 11761 layer_factory.hpp:77] Creating layer pool5/drop_7x7_s1
I0403 15:15:17.511400 11761 net.cpp:91] Creating Layer pool5/drop_7x7_s1
I0403 15:15:17.511420 11761 net.cpp:425] pool5/drop_7x7_s1 <- pool5/7x7_s1
I0403 15:15:17.511442 11761 net.cpp:386] pool5/drop_7x7_s1 -> pool5/7x7_s1 (in-place)
I0403 15:15:17.511492 11761 net.cpp:141] Setting up pool5/drop_7x7_s1
I0403 15:15:17.511514 11761 net.cpp:148] Top shape: 24 1024 1 1 (24576)
I0403 15:15:17.511528 11761 net.cpp:156] Memory required for data: 1346060832
I0403 15:15:17.511541 11761 layer_factory.hpp:77] Creating layer loss3/classifier_plantvillage
I0403 15:15:17.511562 11761 net.cpp:91] Creating Layer loss3/classifier_plantvillage
I0403 15:15:17.511579 11761 net.cpp:425] loss3/classifier_plantvillage <- pool5/7x7_s1
I0403 15:15:17.511598 11761 net.cpp:399] loss3/classifier_plantvillage -> loss3/classifier_plantvillage
I0403 15:15:17.512017 11761 net.cpp:141] Setting up loss3/classifier_plantvillage
I0403 15:15:17.512042 11761 net.cpp:148] Top shape: 24 38 (912)
I0403 15:15:17.512055 11761 net.cpp:156] Memory required for data: 1346064480
I0403 15:15:17.512073 11761 layer_factory.hpp:77] Creating layer loss3/classifier_plantvillage_loss3/classifier_plantvillage_0_split
I0403 15:15:17.512089 11761 net.cpp:91] Creating Layer loss3/classifier_plantvillage_loss3/classifier_plantvillage_0_split
I0403 15:15:17.512104 11761 net.cpp:425] loss3/classifier_plantvillage_loss3/classifier_plantvillage_0_split <- loss3/classifier_plantvillage
I0403 15:15:17.512123 11761 net.cpp:399] loss3/classifier_plantvillage_loss3/classifier_plantvillage_0_split -> loss3/classifier_plantvillage_loss3/classifier_plantvillage_0_split_0
I0403 15:15:17.512143 11761 net.cpp:399] loss3/classifier_plantvillage_loss3/classifier_plantvillage_0_split -> loss3/classifier_plantvillage_loss3/classifier_plantvillage_0_split_1
I0403 15:15:17.512163 11761 net.cpp:399] loss3/classifier_plantvillage_loss3/classifier_plantvillage_0_split -> loss3/classifier_plantvillage_loss3/classifier_plantvillage_0_split_2
I0403 15:15:17.512186 11761 net.cpp:399] loss3/classifier_plantvillage_loss3/classifier_plantvillage_0_split -> loss3/classifier_plantvillage_loss3/classifier_plantvillage_0_split_3
I0403 15:15:17.512286 11761 net.cpp:141] Setting up loss3/classifier_plantvillage_loss3/classifier_plantvillage_0_split
I0403 15:15:17.512310 11761 net.cpp:148] Top shape: 24 38 (912)
I0403 15:15:17.512326 11761 net.cpp:148] Top shape: 24 38 (912)
I0403 15:15:17.512341 11761 net.cpp:148] Top shape: 24 38 (912)
I0403 15:15:17.512356 11761 net.cpp:148] Top shape: 24 38 (912)
I0403 15:15:17.512368 11761 net.cpp:156] Memory required for data: 1346079072
I0403 15:15:17.512382 11761 layer_factory.hpp:77] Creating layer loss1/loss
I0403 15:15:17.512401 11761 net.cpp:91] Creating Layer loss1/loss
I0403 15:15:17.512428 11761 net.cpp:425] loss1/loss <- loss1/classifier_plantvillage_loss1/classifier_plantvillage_0_split_0
I0403 15:15:17.512459 11761 net.cpp:425] loss1/loss <- label_data_1_split_0
…
