…
I0403 14:58:00.157625 11439 net.cpp:313] The NetState phase (1) differed from the phase (0) specified by a rule in layer data
I0403 14:58:00.158831 11439 net.cpp:49] Initializing net from parameters: 
state {
  phase: TEST
}
layer {
  name: "data"
  type: "Data"
  top: "data"
  top: "label"
  include {
    phase: TEST
  }
  transform_param {
    mirror: false
    crop_size: 224
    mean_file: "/home/mohanty/data/final_dataset/lmdb/segmented-50-50/mean.binaryproto"
  }
  data_param {
    source: "/home/mohanty/data/final_dataset/lmdb/segmented-50-50/test_db"
    batch_size: 24
    backend: LMDB
  }
}
layer {
  name: "conv1/7x7_s2"
  type: "Convolution"
  bottom: "data"
  top: "conv1/7x7_s2"
  param {
    lr_mult: 1
    decay_mult: 1
  }
  param {
    lr_mult: 2
    decay_mult: 0
  }
  convolution_param {
    num_output: 64
    pad: 3
    kernel_size: 7
    stride: 2
    weight_filler {
      type: "xavier"
      std: 0.1
    }
    bias_filler {
      type: "constant"
      value: 0.2
    }
  }
}
layer {
  name: "conv1/relu_7x7"
  type: "ReLU"
  bottom: "conv1/7x7_s2"
  top: "conv1/7x7_s2"
}
layer {
  name: "pool1/3x3_s2"
  type: "Pooling"
  bottom: "conv1/7x7_s2"
  top: "pool1/3x3_s2"
  pooling_param {
    pool: MAX
    kernel_size: 3
    stride: 2
  }
}
layer {
  name: "pool1/norm1"
  type: "LRN"
  bottom: "pool1/3x3_s2"
  top: "pool1/norm1"
  lrn_param {
    local_size: 5
    alpha: 0.0001
    beta: 0.75
  }
}
layer {
  name: "conv2/3x3_reduce"
  type: "Convolution"
  bottom: "pool1/norm1"
  top: "conv2/3x3_reduce"
  param {
    lr_mult: 1
    decay_mult: 1
  }
  param {
    lr_mult: 2
    decay_mult: 0
  }
  convolution_param {
    num_output: 64
    kernel_size: 1
    weight_filler {
      type: "xavier"
      std: 0.1
    }
    bias_filler {
      type: "constant"
      value: 0.2
    }
  }
}
layer {
  name: "conv2/relu_3x3_reduce"
  type: "ReLU"
  bottom: "conv2/3x3_reduce"
  top: "conv2/3x3_reduce"
}
layer {
  name: "conv2/3x3"
  type: "Convolution"
  bottom: "conv2/3x3_reduce"
  top: "conv2/3x3"
  param {
    lr_mult: 1
    decay_mult: 1
  }
  param {
    lr_mult: 2
    decay_mult: 0
  }
  convolution_param {
    num_output: 192
    pad: 1
    kernel_size: 3
    weight_filler {
      type: "xavier"
      std: 0.03
    }
    bias_filler {
      type: "constant"
      value: 0.2
    }
  }
}
layer {
  name: "conv2/relu_3x3"
  type: "ReLU"
  bottom: "conv2/3x3"
  top: "conv2/3x3"
}
layer {
  name: "conv2/norm2"
  type: "LRN"
  bottom: "conv2/3x3"
  top: "conv2/norm2"
  lrn_param {
    local_size: 5
    alpha: 0.0001
    beta: 0.75
  }
}
layer {
  name: "pool2/3x3_s2"
  type: "Pooling"
  bottom: "conv2/norm2"
  top: "pool2/3x3_s2"
  pooling_param {
    pool: MAX
    kernel_size: 3
    stride: 2
  }
}
layer {
  name: "inception_3a/1x1"
  type: "Convolution"
  bottom: "pool2/3x3_s2"
  top: "inception_3a/1x1"
  param {
    lr_mult: 1
    decay_mult: 1
  }
  param {
    lr_mult: 2
    decay_mult: 0
  }
  convolution_param {
    num_output: 64
    kernel_size: 1
    weight_filler {
      type: "xavier"
      std: 0.03
    }
    bias_filler {
      type: "constant"
      value: 0.2
    }
  }
}
layer {
  name: "inception_3a/relu_1x1"
  type: "ReLU"
  bottom: "inception_3a/1x1"
  top: "inception_3a/1x1"
}
layer {
  name: "inception_3a/3x3_reduce"
  type: "Convolution"
  bottom: "pool2/3x3_s2"
  top: "inception_3a/3x3_reduce"
  param {
    lr_mult: 1
    decay_mult: 1
  }
  param {
    lr_mult: 2
    decay_mult: 0
  }
  convolution_param {
    num_output: 96
    kernel_size: 1
    weight_filler {
      type: "xavier"
      std: 0.09
    }
    bias_filler {
      type: "constant"
      value: 0.2
    }
  }
}
layer {
  name: "inception_3a/relu_3x3_reduce"
  type: "ReLU"
  bottom: "inception_3a/3x3_reduce"
  top: "inception_3a/3x3_reduce"
}
layer {
  name: "inception_3a/3x3"
  type: "Convolution"
  bottom: "inception_3a/3x3_reduce"
  top: "inception_3a/3x3"
  param {
    lr_mult: 1
    decay_mult: 1
  }
  param {
    lr_mult: 2
    decay_mult: 0
  }
  convolution_param {
    num_output: 128
    pad: 1
    kernel_size: 3
    weight_filler {
      type: "xavier"
      std: 0.03
    }
    bias_filler {
      type: "constant"
      value: 0.2
    }
  }
}
layer {
  name: "inception_3a/relu_3x3"
  type: "ReLU"
  bottom: "inception_3a/3x3"
  top: "inception_3a/3x3"
}
layer {
  name: "inception_3a/5x5_reduce"
  type: "Convolution"
  bottom: "pool2/3x3_s2"
  top: "inception_3a/5x5_reduce"
  param {
    lr_mult: 1
    decay_mult: 1
  }
  param {
    lr_mult: 2
    decay_mult: 0
  }
  convolution_param {
    num_output: 16
    kernel_size: 1
    weight_filler {
      type: "xavier"
      std: 0.2
    }
    bias_filler {
      type: "constant"
      value: 0.2
    }
  }
}
layer {
  name: "inception_3a/relu_5x5_reduce"
  type: "ReLU"
  bottom: "inception_3a/5x5_reduce"
  top: "inception_3a/5x5_reduce"
}
layer {
  name: "inception_3a/5x5"
  type: "Convolution"
  bottom: "inception_3a/5x5_reduce"
  top: "inception_3a/5x5"
  param {
    lr_mult: 1
    decay_mult: 1
  }
  param {
    lr_mult: 2
    decay_mult: 0
  }
  convolution_param {
    num_output: 32
    pad: 2
    kernel_size: 5
    weight_filler {
      type: "xavier"
      std: 0.03
    }
    bias_filler {
      type: "constant"
      value: 0.2
    }
  }
}
layer {
  name: "inception_3a/relu_5x5"
  type: "ReLU"
  bottom: "inception_3a/5x5"
  top: "inception_3a/5x5"
}
layer {
  name: "inception_3a/pool"
  type: "Pooling"
  bottom: "pool2/3x3_s2"
  top: "inception_3a/pool"
  pooling_param {
    pool: MAX
    kernel_size: 3
    stride: 1
    pad: 1
  }
}
layer {
  name: "inception_3a/pool_proj"
  type: "Convolution"
  bottom: "inception_3a/pool"
  top: "inception_3a/pool_proj"
  param {
    lr_mult: 1
    decay_mult: 1
  }
  param {
    lr_mult: 2
    decay_mult: 0
  }
  convolution_param {
    num_output: 32
    kernel_size: 1
    weight_filler {
      type: "xavier"
      std: 0.1
    }
    bias_filler {
      type: "constant"
      value: 0.2
    }
  }
}
layer {
  name: "inception_3a/relu_pool_proj"
  type: "ReLU"
  bottom: "inception_3a/pool_proj"
  top: "inception_3a/pool_proj"
}
layer {
  name: "inception_3a/output"
  type: "Concat"
  bottom: "inception_3a/1x1"
  bottom: "inception_3a/3x3"
  bottom: "inception_3a/5x5"
  bottom: "inception_3a/pool_proj"
  top: "inception_3a/output"
}
layer {
  name: "inception_3b/1x1"
  type: "Convolution"
  bottom: "inception_3a/output"
  top: "inception_3b/1x1"
  param {
    lr_mult: 1
    decay_mult: 1
  }
  param {
    lr_mult: 2
    decay_mult: 0
  }
  convolution_param {
    num_output: 128
    kernel_size: 1
    weight_filler {
      type: "xavier"
      std: 0.03
    }
    bias_filler {
      type: "constant"
      value: 0.2
    }
  }
}
layer {
  name: "inception_3b/relu_1x1"
  type: "ReLU"
  bottom: "inception_3b/1x1"
  top: "inception_3b/1x1"
}
layer {
  name: "inception_3b/3x3_reduce"
  type: "Convolution"
  bottom: "inception_3a/output"
  top: "inception_3b/3x3_reduce"
  param {
    lr_mult: 1
    decay_mult: 1
  }
  param {
    lr_mult: 2
    decay_mult: 0
  }
  convolution_param {
    num_output: 128
    kernel_size: 1
    weight_filler {
      type: "xavier"
      std: 0.09
    }
    bias_filler {
      type: "constant"
      value: 0.2
    }
  }
}
layer {
  name: "inception_3b/relu_3x3_reduce"
  type: "ReLU"
  bottom: "inception_3b/3x3_reduce"
  top: "inception_3b/3x3_reduce"
}
layer {
  name: "inception_3b/3x3"
  type: "Convolution"
  bottom: "inception_3b/3x3_reduce"
  top: "inception_3b/3x3"
  param {
    lr_mult: 1
    decay_mult: 1
  }
  param {
    lr_mult: 2
    decay_mult: 0
  }
  convolution_param {
    num_output: 192
    pad: 1
    kernel_size: 3
    weight_filler {
      type: "xavier"
      std: 0.03
    }
    bias_filler {
      type: "constant"
      value: 0.2
    }
  }
}
layer {
  name: "inception_3b/relu_3x3"
  type: "ReLU"
  bottom: "inception_3b/3x3"
  top: "inception_3b/3x3"
}
layer {
  name: "inception_3b/5x5_reduce"
  type: "Convolution"
  bottom: "inception_3a/output"
  top: "inception_3b/5x5_reduce"
  param {
    lr_mult: 1
    decay_mult: 1
  }
  param {
    lr_mult: 2
    decay_mult: 0
  }
  convolution_param {
    num_output: 32
    kernel_size: 1
    weight_filler {
      type: "xavier"
      std: 0.2
    }
    bias_filler {
      type: "constant"
      value: 0.2
    }
  }
}
layer {
  name: "inception_3b/relu_5x5_reduce"
  type: "ReLU"
  bottom: "inception_3b/5x5_reduce"
  top: "inception_3b/5x5_reduce"
}
layer {
  name: "inception_3b/5x5"
  type: "Convolution"
  bottom: "inception_3b/5x5_reduce"
  top: "inception_3b/5x5"
  param {
    lr_mult: 1
    decay_mult: 1
  }
  param {
    lr_mult: 2
    decay_mult: 0
  }
  convolution_param {
    num_output: 96
    pad: 2
    kernel_size: 5
    weight_filler {
      type: "xavier"
      std: 0.03
    }
    bias_filler {
      type: "constant"
      value: 0.2
    }
  }
}
layer {
  name: "inception_3b/relu_5x5"
  type: "ReLU"
  bottom: "inception_3b/5x5"
  top: "inception_3b/5x5"
}
layer {
  name: "inception_3b/pool"
  type: "Pooling"
  bottom: "inception_3a/output"
  top: "inception_3b/pool"
  pooling_param {
    pool: MAX
    kernel_size: 3
    stride: 1
    pad: 1
  }
}
layer {
  name: "inception_3b/pool_proj"
  type: "Convolution"
  bottom: "inception_3b/pool"
  top: "inception_3b/pool_proj"
  param {
    lr_mult: 1
    decay_mult: 1
  }
  param {
    lr_mult: 2
    decay_mult: 0
  }
  convolution_param {
    num_output: 64
    kernel_size: 1
    weight_filler {
      type: "xavier"
      std: 0.1
    }
    bias_filler {
      type: "constant"
      value: 0.2
    }
  }
}
layer {
  name: "inception_3b/relu_pool_proj"
  type: "ReLU"
  bottom: "inception_3b/pool_proj"
  top: "inception_3b/pool_proj"
}
layer {
  name: "inception_3b/output"
  type: "Concat"
  bottom: "inception_3b/1x1"
  bottom: "inception_3b/3x3"
  bottom: "inception_3b/5x5"
  bottom: "inception_3b/pool_proj"
  top: "inception_3b/output"
}
layer {
  name: "pool3/3x3_s2"
  type: "Pooling"
  bottom: "inception_3b/output"
  top: "pool3/3x3_s2"
  pooling_param {
    pool: MAX
    kernel_size: 3
    stride: 2
  }
}
layer {
  name: "inception_4a/1x1"
  type: "Convolution"
  bottom: "pool3/3x3_s2"
  top: "inception_4a/1x1"
  param {
    lr_mult: 1
    decay_mult: 1
  }
  param {
    lr_mult: 2
    decay_mult: 0
  }
  convolution_param {
    num_output: 192
    kernel_size: 1
    weight_filler {
      type: "xavier"
      std: 0.03
    }
    bias_filler {
      type: "constant"
      value: 0.2
    }
  }
}
layer {
  name: "inception_4a/relu_1x1"
  type: "ReLU"
  bottom: "inception_4a/1x1"
  top: "inception_4a/1x1"
}
layer {
  name: "inception_4a/3x3_reduce"
  type: "Convolution"
  bottom: "pool3/3x3_s2"
  top: "inception_4a/3x3_reduce"
  param {
    lr_mult: 1
    decay_mult: 1
  }
  param {
    lr_mult: 2
    decay_mult: 0
  }
  convolution_param {
    num_output: 96
    kernel_size: 1
    weight_filler {
      type: "xavier"
      std: 0.09
    }
    bias_filler {
      type: "constant"
      value: 0.2
    }
  }
}
layer {
  name: "inception_4a/relu_3x3_reduce"
  type: "ReLU"
  bottom: "inception_4a/3x3_reduce"
  top: "inception_4a/3x3_reduce"
}
layer {
  name: "inception_4a/3x3"
  type: "Convolution"
  bottom: "inception_4a/3x3_reduce"
  top: "inception_4a/3x3"
  param {
    lr_mult: 1
    decay_mult: 1
  }
  param {
    lr_mult: 2
    decay_mult: 0
  }
  convolution_param {
    num_output: 208
    pad: 1
    kernel_size: 3
    weight_filler {
      type: "xavier"
      std: 0.03
    }
    bias_filler {
      type: "constant"
      value: 0.2
    }
  }
}
layer {
  name: "inception_4a/relu_3x3"
  type: "ReLU"
  bottom: "inception_4a/3x3"
  top: "inception_4a/3x3"
}
layer {
  name: "inception_4a/5x5_reduce"
  type: "Convolution"
  bottom: "pool3/3x3_s2"
  top: "inception_4a/5x5_reduce"
  param {
    lr_mult: 1
    decay_mult: 1
  }
  param {
    lr_mult: 2
    decay_mult: 0
  }
  convolution_param {
    num_output: 16
    kernel_size: 1
    weight_filler {
      type: "xavier"
      std: 0.2
    }
    bias_filler {
      type: "constant"
      value: 0.2
    }
  }
}
layer {
  name: "inception_4a/relu_5x5_reduce"
  type: "ReLU"
  bottom: "inception_4a/5x5_reduce"
  top: "inception_4a/5x5_reduce"
}
layer {
  name: "inception_4a/5x5"
  type: "Convolution"
  bottom: "inception_4a/5x5_reduce"
  top: "inception_4a/5x5"
  param {
    lr_mult: 1
    decay_mult: 1
  }
  param {
    lr_mult: 2
    decay_mult: 0
  }
  convolution_param {
    num_output: 48
    pad: 2
    kernel_size: 5
    weight_filler {
      type: "xavier"
      std: 0.03
    }
    bias_filler {
      type: "constant"
      value: 0.2
    }
  }
}
layer {
  name: "inception_4a/relu_5x5"
  type: "ReLU"
  bottom: "inception_4a/5x5"
  top: "inception_4a/5x5"
}
layer {
  name: "inception_4a/pool"
  type: "Pooling"
  bottom: "pool3/3x3_s2"
  top: "inception_4a/pool"
  pooling_param {
    pool: MAX
    kernel_size: 3
    stride: 1
    pad: 1
  }
}
layer {
  name: "inception_4a/pool_proj"
  type: "Convolution"
  bottom: "inception_4a/pool"
  top: "inception_4a/pool_proj"
  param {
    lr_mult: 1
    decay_mult: 1
  }
  param {
    lr_mult: 2
    decay_mult: 0
  }
  convolution_param {
    num_output: 64
    kernel_size: 1
    weight_filler {
      type: "xavier"
      std: 0.1
    }
    bias_filler {
      type: "constant"
      value: 0.2
    }
  }
}
layer {
  name: "inception_4a/relu_pool_proj"
  type: "ReLU"
  bottom: "inception_4a/pool_proj"
  top: "inception_4a/pool_proj"
}
layer {
  name: "inception_4a/output"
  type: "Concat"
  bottom: "inception_4a/1x1"
  bottom: "inception_4a/3x3"
  bottom: "inception_4a/5x5"
  bottom: "inception_4a/pool_proj"
  top: "inception_4a/output"
}
layer {
  name: "loss1/ave_pool"
  type: "Pooling"
  bottom: "inception_4a/output"
  top: "loss1/ave_pool"
  pooling_param {
    pool: AVE
    kernel_size: 5
    stride: 3
  }
}
layer {
  name: "loss1/conv"
  type: "Convolution"
  bottom: "loss1/ave_pool"
  top: "loss1/conv"
  param {
    lr_mult: 1
    decay_mult: 1
  }
  param {
    lr_mult: 2
    decay_mult: 0
  }
  convolution_param {
    num_output: 128
    kernel_size: 1
    weight_filler {
      type: "xavier"
      std: 0.08
    }
    bias_filler {
      type: "constant"
      value: 0.2
    }
  }
}
layer {
  name: "loss1/relu_conv"
  type: "ReLU"
  bottom: "loss1/conv"
  top: "loss1/conv"
}
layer {
  name: "loss1/fc"
  type: "InnerProduct"
  bottom: "loss1/conv"
  top: "loss1/fc"
  param {
    lr_mult: 1
    decay_mult: 1
  }
  param {
    lr_mult: 2
    decay_mult: 0
  }
  inner_product_param {
    num_output: 1024
    weight_filler {
      type: "xavier"
      std: 0.02
    }
    bias_filler {
      type: "constant"
      value: 0.2
    }
  }
}
layer {
  name: "loss1/relu_fc"
  type: "ReLU"
  bottom: "loss1/fc"
  top: "loss1/fc"
}
layer {
  name: "loss1/drop_fc"
  type: "Dropout"
  bottom: "loss1/fc"
  top: "loss1/fc"
  dropout_param {
    dropout_ratio: 0.7
  }
}
layer {
  name: "loss1/classifier_plantvillage"
  type: "InnerProduct"
  bottom: "loss1/fc"
  top: "loss1/classifier_plantvillage"
  param {
    lr_mult: 1
    decay_mult: 1
  }
  param {
    lr_mult: 2
    decay_mult: 0
  }
  inner_product_param {
    num_output: 38
    weight_filler {
      type: "xavier"
      std: 0.0009765625
    }
    bias_filler {
      type: "constant"
      value: 0
    }
  }
}
layer {
  name: "inception_4b/1x1"
  type: "Convolution"
  bottom: "inception_4a/output"
  top: "inception_4b/1x1"
  param {
    lr_mult: 1
    decay_mult: 1
  }
  param {
    lr_mult: 2
    decay_mult: 0
  }
  convolution_param {
    num_output: 160
    kernel_size: 1
    weight_filler {
      type: "xavier"
      std: 0.03
    }
    bias_filler {
      type: "constant"
      value: 0.2
    }
  }
}
layer {
  name: "inception_4b/relu_1x1"
  type: "ReLU"
  bottom: "inception_4b/1x1"
  top: "inception_4b/1x1"
}
layer {
  name: "inception_4b/3x3_reduce"
  type: "Convolution"
  bottom: "inception_4a/output"
  top: "inception_4b/3x3_reduce"
  param {
    lr_mult: 1
    decay_mult: 1
  }
  param {
    lr_mult: 2
    decay_mult: 0
  }
  convolution_param {
    num_output: 112
    kernel_size: 1
    weight_filler {
      type: "xavier"
      std: 0.09
    }
    bias_filler {
      type: "constant"
      value: 0.2
    }
  }
}
layer {
  name: "inception_4b/relu_3x3_reduce"
  type: "ReLU"
  bottom: "inception_4b/3x3_reduce"
  top: "inception_4b/3x3_reduce"
}
layer {
  name: "inception_4b/3x3"
  type: "Convolution"
  bottom: "inception_4b/3x3_reduce"
  top: "inception_4b/3x3"
  param {
    lr_mult: 1
    decay_mult: 1
  }
  param {
    lr_mult: 2
    decay_mult: 0
  }
  convolution_param {
    num_output: 224
    pad: 1
    kernel_size: 3
    weight_filler {
      type: "xavier"
      std: 0.03
    }
    bias_filler {
      type: "constant"
      value: 0.2
    }
  }
}
layer {
  name: "inception_4b/relu_3x3"
  type: "ReLU"
  bottom: "inception_4b/3x3"
  top: "inception_4b/3x3"
}
layer {
  name: "inception_4b/5x5_reduce"
  type: "Convolution"
  bottom: "inception_4a/output"
  top: "inception_4b/5x5_reduce"
  param {
    lr_mult: 1
    decay_mult: 1
  }
  param {
    lr_mult: 2
    decay_mult: 0
  }
  convolution_param {
    num_output: 24
    kernel_size: 1
    weight_filler {
      type: "xavier"
      std: 0.2
    }
    bias_filler {
      type: "constant"
      value: 0.2
    }
  }
}
layer {
  name: "inception_4b/relu_5x5_reduce"
  type: "ReLU"
  bottom: "inception_4b/5x5_reduce"
  top: "inception_4b/5x5_reduce"
}
layer {
  name: "inception_4b/5x5"
  type: "Convolution"
  bottom: "inception_4b/5x5_reduce"
  top: "inception_4b/5x5"
  param {
    lr_mult: 1
    decay_mult: 1
  }
  param {
    lr_mult: 2
    decay_mult: 0
  }
  convolution_param {
    num_output: 64
    pad: 2
    kernel_size: 5
    weight_filler {
      type: "xavier"
      std: 0.03
    }
    bias_filler {
      type: "constant"
      value: 0.2
    }
  }
}
layer {
  name: "inception_4b/relu_5x5"
  type: "ReLU"
  bottom: "inception_4b/5x5"
  top: "inception_4b/5x5"
}
layer {
  name: "inception_4b/pool"
  type: "Pooling"
  bottom: "inception_4a/output"
  top: "inception_4b/pool"
  pooling_param {
    pool: MAX
    kernel_size: 3
    stride: 1
    pad: 1
  }
}
layer {
  name: "inception_4b/pool_proj"
  type: "Convolution"
  bottom: "inception_4b/pool"
  top: "inception_4b/pool_proj"
  param {
    lr_mult: 1
    decay_mult: 1
  }
  param {
    lr_mult: 2
    decay_mult: 0
  }
  convolution_param {
    num_output: 64
    kernel_size: 1
    weight_filler {
      type: "xavier"
      std: 0.1
    }
    bias_filler {
      type: "constant"
      value: 0.2
    }
  }
}
layer {
  name: "inception_4b/relu_pool_proj"
  type: "ReLU"
  bottom: "inception_4b/pool_proj"
  top: "inception_4b/pool_proj"
}
layer {
  name: "inception_4b/output"
  type: "Concat"
  bottom: "inception_4b/1x1"
  bottom: "inception_4b/3x3"
  bottom: "inception_4b/5x5"
  bottom: "inception_4b/pool_proj"
  top: "inception_4b/output"
}
layer {
  name: "inception_4c/1x1"
  type: "Convolution"
  bottom: "inception_4b/output"
  top: "inception_4c/1x1"
  param {
    lr_mult: 1
    decay_mult: 1
  }
  param {
    lr_mult: 2
    decay_mult: 0
  }
  convolution_param {
    num_output: 128
    kernel_size: 1
    weight_filler {
      type: "xavier"
      std: 0.03
    }
    bias_filler {
      type: "constant"
      value: 0.2
    }
  }
}
layer {
  name: "inception_4c/relu_1x1"
  type: "ReLU"
  bottom: "inception_4c/1x1"
  top: "inception_4c/1x1"
}
layer {
  name: "inception_4c/3x3_reduce"
  type: "Convolution"
  bottom: "inception_4b/output"
  top: "inception_4c/3x3_reduce"
  param {
    lr_mult: 1
    decay_mult: 1
  }
  param {
    lr_mult: 2
    decay_mult: 0
  }
  convolution_param {
    num_output: 128
    kernel_size: 1
    weight_filler {
      type: "xavier"
      std: 0.09
    }
    bias_filler {
      type: "constant"
      value: 0.2
    }
  }
}
layer {
  name: "inception_4c/relu_3x3_reduce"
  type: "ReLU"
  bottom: "inception_4c/3x3_reduce"
  top: "inception_4c/3x3_reduce"
}
layer {
  name: "inception_4c/3x3"
  type: "Convolution"
  bottom: "inception_4c/3x3_reduce"
  top: "inception_4c/3x3"
  param {
    lr_mult: 1
    decay_mult: 1
  }
  param {
    lr_mult: 2
    decay_mult: 0
  }
  convolution_param {
    num_output: 256
    pad: 1
    kernel_size: 3
    weight_filler {
      type: "xavier"
      std: 0.03
    }
    bias_filler {
      type: "constant"
      value: 0.2
    }
  }
}
layer {
  name: "inception_4c/relu_3x3"
  type: "ReLU"
  bottom: "inception_4c/3x3"
  top: "inception_4c/3x3"
}
layer {
  name: "inception_4c/5x5_reduce"
  type: "Convolution"
  bottom: "inception_4b/output"
  top: "inception_4c/5x5_reduce"
  param {
    lr_mult: 1
    decay_mult: 1
  }
  param {
    lr_mult: 2
    decay_mult: 0
  }
  convolution_param {
    num_output: 24
    kernel_size: 1
    weight_filler {
      type: "xavier"
      std: 0.2
    }
    bias_filler {
      type: "constant"
      value: 0.2
    }
  }
}
layer {
  name: "inception_4c/relu_5x5_reduce"
  type: "ReLU"
  bottom: "inception_4c/5x5_reduce"
  top: "inception_4c/5x5_reduce"
}
layer {
  name: "inception_4c/5x5"
  type: "Convolution"
  bottom: "inception_4c/5x5_reduce"
  top: "inception_4c/5x5"
  param {
    lr_mult: 1
    decay_mult: 1
  }
  param {
    lr_mult: 2
    decay_mult: 0
  }
  convolution_param {
    num_output: 64
    pad: 2
    kernel_size: 5
    weight_filler {
      type: "xavier"
      std: 0.03
    }
    bias_filler {
      type: "constant"
      value: 0.2
    }
  }
}
layer {
  name: "inception_4c/relu_5x5"
  type: "ReLU"
  bottom: "inception_4c/5x5"
  top: "inception_4c/5x5"
}
layer {
  name: "inception_4c/pool"
  type: "Pooling"
  bottom: "inception_4b/output"
  top: "inception_4c/pool"
  pooling_param {
    pool: MAX
    kernel_size: 3
    stride: 1
    pad: 1
  }
}
layer {
  name: "inception_4c/pool_proj"
  type: "Convolution"
  bottom: "inception_4c/pool"
  top: "inception_4c/pool_proj"
  param {
    lr_mult: 1
    decay_mult: 1
  }
  param {
    lr_mult: 2
    decay_mult: 0
  }
  convolution_param {
    num_output: 64
    kernel_size: 1
    weight_filler {
      type: "xavier"
      std: 0.1
    }
    bias_filler {
      type: "constant"
      value: 0.2
    }
  }
}
layer {
  name: "inception_4c/relu_pool_proj"
  type: "ReLU"
  bottom: "inception_4c/pool_proj"
  top: "inception_4c/pool_proj"
}
layer {
  name: "inception_4c/output"
  type: "Concat"
  bottom: "inception_4c/1x1"
  bottom: "inception_4c/3x3"
  bottom: "inception_4c/5x5"
  bottom: "inception_4c/pool_proj"
  top: "inception_4c/output"
}
layer {
  name: "inception_4d/1x1"
  type: "Convolution"
  bottom: "inception_4c/output"
  top: "inception_4d/1x1"
  param {
    lr_mult: 1
    decay_mult: 1
  }
  param {
    lr_mult: 2
    decay_mult: 0
  }
  convolution_param {
    num_output: 112
    kernel_size: 1
    weight_filler {
      type: "xavier"
      std: 0.03
    }
    bias_filler {
      type: "constant"
      value: 0.2
    }
  }
}
layer {
  name: "inception_4d/relu_1x1"
  type: "ReLU"
  bottom: "inception_4d/1x1"
  top: "inception_4d/1x1"
}
layer {
  name: "inception_4d/3x3_reduce"
  type: "Convolution"
  bottom: "inception_4c/output"
  top: "inception_4d/3x3_reduce"
  param {
    lr_mult: 1
    decay_mult: 1
  }
  param {
    lr_mult: 2
    decay_mult: 0
  }
  convolution_param {
    num_output: 144
    kernel_size: 1
    weight_filler {
      type: "xavier"
      std: 0.09
    }
    bias_filler {
      type: "constant"
      value: 0.2
    }
  }
}
layer {
  name: "inception_4d/relu_3x3_reduce"
  type: "ReLU"
  bottom: "inception_4d/3x3_reduce"
  top: "inception_4d/3x3_reduce"
}
layer {
  name: "inception_4d/3x3"
  type: "Convolution"
  bottom: "inception_4d/3x3_reduce"
  top: "inception_4d/3x3"
  param {
    lr_mult: 1
    decay_mult: 1
  }
  param {
    lr_mult: 2
    decay_mult: 0
  }
  convolution_param {
    num_output: 288
    pad: 1
    kernel_size: 3
    weight_filler {
      type: "xavier"
      std: 0.03
    }
    bias_filler {
      type: "constant"
      value: 0.2
    }
  }
}
layer {
  name: "inception_4d/relu_3x3"
  type: "ReLU"
  bottom: "inception_4d/3x3"
  top: "inception_4d/3x3"
}
layer {
  name: "inception_4d/5x5_reduce"
  type: "Convolution"
  bottom: "inception_4c/output"
  top: "inception_4d/5x5_reduce"
  param {
    lr_mult: 1
    decay_mult: 1
  }
  param {
    lr_mult: 2
    decay_mult: 0
  }
  convolution_param {
    num_output: 32
    kernel_size: 1
    weight_filler {
      type: "xavier"
      std: 0.2
    }
    bias_filler {
      type: "constant"
      value: 0.2
    }
  }
}
layer {
  name: "inception_4d/relu_5x5_reduce"
  type: "ReLU"
  bottom: "inception_4d/5x5_reduce"
  top: "inception_4d/5x5_reduce"
}
layer {
  name: "inception_4d/5x5"
  type: "Convolution"
  bottom: "inception_4d/5x5_reduce"
  top: "inception_4d/5x5"
  param {
    lr_mult: 1
    decay_mult: 1
  }
  param {
    lr_mult: 2
    decay_mult: 0
  }
  convolution_param {
    num_output: 64
    pad: 2
    kernel_size: 5
    weight_filler {
      type: "xavier"
      std: 0.03
    }
    bias_filler {
      type: "constant"
      value: 0.2
    }
  }
}
layer {
  name: "inception_4d/relu_5x5"
  type: "ReLU"
  bottom: "inception_4d/5x5"
  top: "inception_4d/5x5"
}
layer {
  name: "inception_4d/pool"
  type: "Pooling"
  bottom: "inception_4c/output"
  top: "inception_4d/pool"
  pooling_param {
    pool: MAX
    kernel_size: 3
    stride: 1
    pad: 1
  }
}
layer {
  name: "inception_4d/pool_proj"
  type: "Convolution"
  bottom: "inception_4d/pool"
  top: "inception_4d/pool_proj"
  param {
    lr_mult: 1
    decay_mult: 1
  }
  param {
    lr_mult: 2
    decay_mult: 0
  }
  convolution_param {
    num_output: 64
    kernel_size: 1
    weight_filler {
      type: "xavier"
      std: 0.1
    }
    bias_filler {
      type: "constant"
      value: 0.2
    }
  }
}
layer {
  name: "inception_4d/relu_pool_proj"
  type: "ReLU"
  bottom: "inception_4d/pool_proj"
  top: "inception_4d/pool_proj"
}
layer {
  name: "inception_4d/output"
  type: "Concat"
  bottom: "inception_4d/1x1"
  bottom: "inception_4d/3x3"
  bottom: "inception_4d/5x5"
  bottom: "inception_4d/pool_proj"
  top: "inception_4d/output"
}
layer {
  name: "loss2/ave_pool"
  type: "Pooling"
  bottom: "inception_4d/output"
  top: "loss2/ave_pool"
  pooling_param {
    pool: AVE
    kernel_size: 5
    stride: 3
  }
}
layer {
  name: "loss2/conv"
  type: "Convolution"
  bottom: "loss2/ave_pool"
  top: "loss2/conv"
  param {
    lr_mult: 1
    decay_mult: 1
  }
  param {
    lr_mult: 2
    decay_mult: 0
  }
  convolution_param {
    num_output: 128
    kernel_size: 1
    weight_filler {
      type: "xavier"
      std: 0.08
    }
    bias_filler {
      type: "constant"
      value: 0.2
    }
  }
}
layer {
  name: "loss2/relu_conv"
  type: "ReLU"
  bottom: "loss2/conv"
  top: "loss2/conv"
}
layer {
  name: "loss2/fc"
  type: "InnerProduct"
  bottom: "loss2/conv"
  top: "loss2/fc"
  param {
    lr_mult: 1
    decay_mult: 1
  }
  param {
    lr_mult: 2
    decay_mult: 0
  }
  inner_product_param {
    num_output: 1024
    weight_filler {
      type: "xavier"
      std: 0.02
    }
    bias_filler {
      type: "constant"
      value: 0.2
    }
  }
}
layer {
  name: "loss2/relu_fc"
  type: "ReLU"
  bottom: "loss2/fc"
  top: "loss2/fc"
}
layer {
  name: "loss2/drop_fc"
  type: "Dropout"
  bottom: "loss2/fc"
  top: "loss2/fc"
  dropout_param {
    dropout_ratio: 0.7
  }
}
layer {
  name: "loss2/classifier_plantvillage"
  type: "InnerProduct"
  bottom: "loss2/fc"
  top: "loss2/classifier_plantvillage"
  param {
    lr_mult: 1
    decay_mult: 1
  }
  param {
    lr_mult: 2
    decay_mult: 0
  }
  inner_product_param {
    num_output: 38
    weight_filler {
      type: "xavier"
      std: 0.0009765625
    }
    bias_filler {
      type: "constant"
      value: 0
    }
  }
}
layer {
  name: "inception_4e/1x1"
  type: "Convolution"
  bottom: "inception_4d/output"
  top: "inception_4e/1x1"
  param {
    lr_mult: 1
    decay_mult: 1
  }
  param {
    lr_mult: 2
    decay_mult: 0
  }
  convolution_param {
    num_output: 256
    kernel_size: 1
    weight_filler {
      type: "xavier"
      std: 0.03
    }
    bias_filler {
      type: "constant"
      value: 0.2
    }
  }
}
layer {
  name: "inception_4e/relu_1x1"
  type: "ReLU"
  bottom: "inception_4e/1x1"
  top: "inception_4e/1x1"
}
layer {
  name: "inception_4e/3x3_reduce"
  type: "Convolution"
  bottom: "inception_4d/output"
  top: "inception_4e/3x3_reduce"
  param {
    lr_mult: 1
    decay_mult: 1
  }
  param {
    lr_mult: 2
    decay_mult: 0
  }
  convolution_param {
    num_output: 160
    kernel_size: 1
    weight_filler {
      type: "xavier"
      std: 0.09
    }
    bias_filler {
      type: "constant"
      value: 0.2
    }
  }
}
layer {
  name: "inception_4e/relu_3x3_reduce"
  type: "ReLU"
  bottom: "inception_4e/3x3_reduce"
  top: "inception_4e/3x3_reduce"
}
layer {
  name: "inception_4e/3x3"
  type: "Convolution"
  bottom: "inception_4e/3x3_reduce"
  top: "inception_4e/3x3"
  param {
    lr_mult: 1
    decay_mult: 1
  }
  param {
    lr_mult: 2
    decay_mult: 0
  }
  convolution_param {
    num_output: 320
    pad: 1
    kernel_size: 3
    weight_filler {
      type: "xavier"
      std: 0.03
    }
    bias_filler {
      type: "constant"
      value: 0.2
    }
  }
}
layer {
  name: "inception_4e/relu_3x3"
  type: "ReLU"
  bottom: "inception_4e/3x3"
  top: "inception_4e/3x3"
}
layer {
  name: "inception_4e/5x5_reduce"
  type: "Convolution"
  bottom: "inception_4d/output"
  top: "inception_4e/5x5_reduce"
  param {
    lr_mult: 1
    decay_mult: 1
  }
  param {
    lr_mult: 2
    decay_mult: 0
  }
  convolution_param {
    num_output: 32
    kernel_size: 1
    weight_filler {
      type: "xavier"
      std: 0.2
    }
    bias_filler {
      type: "constant"
      value: 0.2
    }
  }
}
layer {
  name: "inception_4e/relu_5x5_reduce"
  type: "ReLU"
  bottom: "inception_4e/5x5_reduce"
  top: "inception_4e/5x5_reduce"
}
layer {
  name: "inception_4e/5x5"
  type: "Convolution"
  bottom: "inception_4e/5x5_reduce"
  top: "inception_4e/
I0403 14:58:00.160073 11439 layer_factory.hpp:77] Creating layer data
I0403 14:58:00.160692 11439 net.cpp:91] Creating Layer data
I0403 14:58:00.160727 11439 net.cpp:399] data -> data
I0403 14:58:00.160787 11439 net.cpp:399] data -> label
I0403 14:58:00.160825 11439 data_transformer.cpp:25] Loading mean file from: /home/mohanty/data/final_dataset/lmdb/segmented-50-50/mean.binaryproto
I0403 14:58:00.163192 11444 db_lmdb.cpp:38] Opened lmdb /home/mohanty/data/final_dataset/lmdb/segmented-50-50/test_db
I0403 14:58:00.173980 11439 data_layer.cpp:41] output data size: 24,3,224,224
I0403 14:58:00.204427 11439 net.cpp:141] Setting up data
I0403 14:58:00.204535 11439 net.cpp:148] Top shape: 24 3 224 224 (3612672)
I0403 14:58:00.204557 11439 net.cpp:148] Top shape: 24 (24)
I0403 14:58:00.204574 11439 net.cpp:156] Memory required for data: 14450784
I0403 14:58:00.204602 11439 layer_factory.hpp:77] Creating layer label_data_1_split
I0403 14:58:00.204630 11439 net.cpp:91] Creating Layer label_data_1_split
I0403 14:58:00.204649 11439 net.cpp:425] label_data_1_split <- label
I0403 14:58:00.204684 11439 net.cpp:399] label_data_1_split -> label_data_1_split_0
I0403 14:58:00.204712 11439 net.cpp:399] label_data_1_split -> label_data_1_split_1
I0403 14:58:00.204735 11439 net.cpp:399] label_data_1_split -> label_data_1_split_2
I0403 14:58:00.204757 11439 net.cpp:399] label_data_1_split -> label_data_1_split_3
I0403 14:58:00.204778 11439 net.cpp:399] label_data_1_split -> label_data_1_split_4
I0403 14:58:00.204799 11439 net.cpp:399] label_data_1_split -> label_data_1_split_5
I0403 14:58:00.204819 11439 net.cpp:399] label_data_1_split -> label_data_1_split_6
I0403 14:58:00.204841 11439 net.cpp:399] label_data_1_split -> label_data_1_split_7
I0403 14:58:00.204862 11439 net.cpp:399] label_data_1_split -> label_data_1_split_8
I0403 14:58:00.204885 11439 net.cpp:399] label_data_1_split -> label_data_1_split_9
I0403 14:58:00.205003 11439 net.cpp:141] Setting up label_data_1_split
I0403 14:58:00.205027 11439 net.cpp:148] Top shape: 24 (24)
I0403 14:58:00.205045 11439 net.cpp:148] Top shape: 24 (24)
I0403 14:58:00.205062 11439 net.cpp:148] Top shape: 24 (24)
I0403 14:58:00.205078 11439 net.cpp:148] Top shape: 24 (24)
I0403 14:58:00.205096 11439 net.cpp:148] Top shape: 24 (24)
I0403 14:58:00.205112 11439 net.cpp:148] Top shape: 24 (24)
I0403 14:58:00.205128 11439 net.cpp:148] Top shape: 24 (24)
I0403 14:58:00.205145 11439 net.cpp:148] Top shape: 24 (24)
I0403 14:58:00.205162 11439 net.cpp:148] Top shape: 24 (24)
I0403 14:58:00.205178 11439 net.cpp:148] Top shape: 24 (24)
I0403 14:58:00.205224 11439 net.cpp:156] Memory required for data: 14451744
I0403 14:58:00.205241 11439 layer_factory.hpp:77] Creating layer conv1/7x7_s2
I0403 14:58:00.205274 11439 net.cpp:91] Creating Layer conv1/7x7_s2
I0403 14:58:00.205293 11439 net.cpp:425] conv1/7x7_s2 <- data
I0403 14:58:00.205313 11439 net.cpp:399] conv1/7x7_s2 -> conv1/7x7_s2
I0403 14:58:00.347332 11439 net.cpp:141] Setting up conv1/7x7_s2
I0403 14:58:00.347424 11439 net.cpp:148] Top shape: 24 64 112 112 (19267584)
I0403 14:58:00.347445 11439 net.cpp:156] Memory required for data: 91522080
I0403 14:58:00.347475 11439 layer_factory.hpp:77] Creating layer conv1/relu_7x7
I0403 14:58:00.347501 11439 net.cpp:91] Creating Layer conv1/relu_7x7
I0403 14:58:00.347519 11439 net.cpp:425] conv1/relu_7x7 <- conv1/7x7_s2
I0403 14:58:00.347538 11439 net.cpp:386] conv1/relu_7x7 -> conv1/7x7_s2 (in-place)
I0403 14:58:00.347796 11439 net.cpp:141] Setting up conv1/relu_7x7
I0403 14:58:00.347823 11439 net.cpp:148] Top shape: 24 64 112 112 (19267584)
I0403 14:58:00.347838 11439 net.cpp:156] Memory required for data: 168592416
I0403 14:58:00.347854 11439 layer_factory.hpp:77] Creating layer pool1/3x3_s2
I0403 14:58:00.347879 11439 net.cpp:91] Creating Layer pool1/3x3_s2
I0403 14:58:00.347898 11439 net.cpp:425] pool1/3x3_s2 <- conv1/7x7_s2
I0403 14:58:00.347916 11439 net.cpp:399] pool1/3x3_s2 -> pool1/3x3_s2
I0403 14:58:00.347990 11439 net.cpp:141] Setting up pool1/3x3_s2
I0403 14:58:00.348013 11439 net.cpp:148] Top shape: 24 64 56 56 (4816896)
I0403 14:58:00.348029 11439 net.cpp:156] Memory required for data: 187860000
I0403 14:58:00.348044 11439 layer_factory.hpp:77] Creating layer pool1/norm1
I0403 14:58:00.348068 11439 net.cpp:91] Creating Layer pool1/norm1
I0403 14:58:00.348085 11439 net.cpp:425] pool1/norm1 <- pool1/3x3_s2
I0403 14:58:00.348104 11439 net.cpp:399] pool1/norm1 -> pool1/norm1
I0403 14:58:00.348388 11439 net.cpp:141] Setting up pool1/norm1
I0403 14:58:00.348419 11439 net.cpp:148] Top shape: 24 64 56 56 (4816896)
I0403 14:58:00.348436 11439 net.cpp:156] Memory required for data: 207127584
I0403 14:58:00.348451 11439 layer_factory.hpp:77] Creating layer conv2/3x3_reduce
I0403 14:58:00.348476 11439 net.cpp:91] Creating Layer conv2/3x3_reduce
I0403 14:58:00.348494 11439 net.cpp:425] conv2/3x3_reduce <- pool1/norm1
I0403 14:58:00.348511 11439 net.cpp:399] conv2/3x3_reduce -> conv2/3x3_reduce
I0403 14:58:00.349840 11439 net.cpp:141] Setting up conv2/3x3_reduce
I0403 14:58:00.349869 11439 net.cpp:148] Top shape: 24 64 56 56 (4816896)
I0403 14:58:00.349886 11439 net.cpp:156] Memory required for data: 226395168
I0403 14:58:00.349907 11439 layer_factory.hpp:77] Creating layer conv2/relu_3x3_reduce
I0403 14:58:00.349926 11439 net.cpp:91] Creating Layer conv2/relu_3x3_reduce
I0403 14:58:00.349942 11439 net.cpp:425] conv2/relu_3x3_reduce <- conv2/3x3_reduce
I0403 14:58:00.349961 11439 net.cpp:386] conv2/relu_3x3_reduce -> conv2/3x3_reduce (in-place)
I0403 14:58:00.350205 11439 net.cpp:141] Setting up conv2/relu_3x3_reduce
I0403 14:58:00.350232 11439 net.cpp:148] Top shape: 24 64 56 56 (4816896)
I0403 14:58:00.350249 11439 net.cpp:156] Memory required for data: 245662752
I0403 14:58:00.350263 11439 layer_factory.hpp:77] Creating layer conv2/3x3
I0403 14:58:00.350286 11439 net.cpp:91] Creating Layer conv2/3x3
I0403 14:58:00.350302 11439 net.cpp:425] conv2/3x3 <- conv2/3x3_reduce
I0403 14:58:00.350320 11439 net.cpp:399] conv2/3x3 -> conv2/3x3
I0403 14:58:00.352579 11439 net.cpp:141] Setting up conv2/3x3
I0403 14:58:00.352610 11439 net.cpp:148] Top shape: 24 192 56 56 (14450688)
I0403 14:58:00.352627 11439 net.cpp:156] Memory required for data: 303465504
I0403 14:58:00.352650 11439 layer_factory.hpp:77] Creating layer conv2/relu_3x3
I0403 14:58:00.352669 11439 net.cpp:91] Creating Layer conv2/relu_3x3
I0403 14:58:00.352686 11439 net.cpp:425] conv2/relu_3x3 <- conv2/3x3
I0403 14:58:00.352705 11439 net.cpp:386] conv2/relu_3x3 -> conv2/3x3 (in-place)
I0403 14:58:00.352867 11439 net.cpp:141] Setting up conv2/relu_3x3
I0403 14:58:00.352893 11439 net.cpp:148] Top shape: 24 192 56 56 (14450688)
I0403 14:58:00.352941 11439 net.cpp:156] Memory required for data: 361268256
I0403 14:58:00.352957 11439 layer_factory.hpp:77] Creating layer conv2/norm2
I0403 14:58:00.352977 11439 net.cpp:91] Creating Layer conv2/norm2
I0403 14:58:00.352993 11439 net.cpp:425] conv2/norm2 <- conv2/3x3
I0403 14:58:00.353013 11439 net.cpp:399] conv2/norm2 -> conv2/norm2
I0403 14:58:00.353302 11439 net.cpp:141] Setting up conv2/norm2
I0403 14:58:00.353328 11439 net.cpp:148] Top shape: 24 192 56 56 (14450688)
I0403 14:58:00.353344 11439 net.cpp:156] Memory required for data: 419071008
I0403 14:58:00.353360 11439 layer_factory.hpp:77] Creating layer pool2/3x3_s2
I0403 14:58:00.353379 11439 net.cpp:91] Creating Layer pool2/3x3_s2
I0403 14:58:00.353395 11439 net.cpp:425] pool2/3x3_s2 <- conv2/norm2
I0403 14:58:00.353438 11439 net.cpp:399] pool2/3x3_s2 -> pool2/3x3_s2
I0403 14:58:00.353493 11439 net.cpp:141] Setting up pool2/3x3_s2
I0403 14:58:00.353518 11439 net.cpp:148] Top shape: 24 192 28 28 (3612672)
I0403 14:58:00.353534 11439 net.cpp:156] Memory required for data: 433521696
I0403 14:58:00.353550 11439 layer_factory.hpp:77] Creating layer pool2/3x3_s2_pool2/3x3_s2_0_split
I0403 14:58:00.353569 11439 net.cpp:91] Creating Layer pool2/3x3_s2_pool2/3x3_s2_0_split
I0403 14:58:00.353585 11439 net.cpp:425] pool2/3x3_s2_pool2/3x3_s2_0_split <- pool2/3x3_s2
I0403 14:58:00.353603 11439 net.cpp:399] pool2/3x3_s2_pool2/3x3_s2_0_split -> pool2/3x3_s2_pool2/3x3_s2_0_split_0
I0403 14:58:00.353624 11439 net.cpp:399] pool2/3x3_s2_pool2/3x3_s2_0_split -> pool2/3x3_s2_pool2/3x3_s2_0_split_1
I0403 14:58:00.353646 11439 net.cpp:399] pool2/3x3_s2_pool2/3x3_s2_0_split -> pool2/3x3_s2_pool2/3x3_s2_0_split_2
I0403 14:58:00.353667 11439 net.cpp:399] pool2/3x3_s2_pool2/3x3_s2_0_split -> pool2/3x3_s2_pool2/3x3_s2_0_split_3
I0403 14:58:00.353745 11439 net.cpp:141] Setting up pool2/3x3_s2_pool2/3x3_s2_0_split
I0403 14:58:00.353770 11439 net.cpp:148] Top shape: 24 192 28 28 (3612672)
I0403 14:58:00.353786 11439 net.cpp:148] Top shape: 24 192 28 28 (3612672)
I0403 14:58:00.353803 11439 net.cpp:148] Top shape: 24 192 28 28 (3612672)
I0403 14:58:00.353819 11439 net.cpp:148] Top shape: 24 192 28 28 (3612672)
I0403 14:58:00.353834 11439 net.cpp:156] Memory required for data: 491324448
I0403 14:58:00.353849 11439 layer_factory.hpp:77] Creating layer inception_3a/1x1
I0403 14:58:00.353871 11439 net.cpp:91] Creating Layer inception_3a/1x1
I0403 14:58:00.353888 11439 net.cpp:425] inception_3a/1x1 <- pool2/3x3_s2_pool2/3x3_s2_0_split_0
I0403 14:58:00.353907 11439 net.cpp:399] inception_3a/1x1 -> inception_3a/1x1
I0403 14:58:00.355378 11439 net.cpp:141] Setting up inception_3a/1x1
I0403 14:58:00.355408 11439 net.cpp:148] Top shape: 24 64 28 28 (1204224)
I0403 14:58:00.355430 11439 net.cpp:156] Memory required for data: 496141344
I0403 14:58:00.355450 11439 layer_factory.hpp:77] Creating layer inception_3a/relu_1x1
I0403 14:58:00.355469 11439 net.cpp:91] Creating Layer inception_3a/relu_1x1
I0403 14:58:00.355485 11439 net.cpp:425] inception_3a/relu_1x1 <- inception_3a/1x1
I0403 14:58:00.355504 11439 net.cpp:386] inception_3a/relu_1x1 -> inception_3a/1x1 (in-place)
I0403 14:58:00.355666 11439 net.cpp:141] Setting up inception_3a/relu_1x1
I0403 14:58:00.355691 11439 net.cpp:148] Top shape: 24 64 28 28 (1204224)
I0403 14:58:00.355706 11439 net.cpp:156] Memory required for data: 500958240
I0403 14:58:00.355722 11439 layer_factory.hpp:77] Creating layer inception_3a/3x3_reduce
I0403 14:58:00.355751 11439 net.cpp:91] Creating Layer inception_3a/3x3_reduce
I0403 14:58:00.355769 11439 net.cpp:425] inception_3a/3x3_reduce <- pool2/3x3_s2_pool2/3x3_s2_0_split_1
I0403 14:58:00.355789 11439 net.cpp:399] inception_3a/3x3_reduce -> inception_3a/3x3_reduce
I0403 14:58:00.357489 11439 net.cpp:141] Setting up inception_3a/3x3_reduce
I0403 14:58:00.357519 11439 net.cpp:148] Top shape: 24 96 28 28 (1806336)
I0403 14:58:00.357537 11439 net.cpp:156] Memory required for data: 508183584
I0403 14:58:00.357558 11439 layer_factory.hpp:77] Creating layer inception_3a/relu_3x3_reduce
I0403 14:58:00.357596 11439 net.cpp:91] Creating Layer inception_3a/relu_3x3_reduce
I0403 14:58:00.357616 11439 net.cpp:425] inception_3a/relu_3x3_reduce <- inception_3a/3x3_reduce
I0403 14:58:00.357637 11439 net.cpp:386] inception_3a/relu_3x3_reduce -> inception_3a/3x3_reduce (in-place)
I0403 14:58:00.357825 11439 net.cpp:141] Setting up inception_3a/relu_3x3_reduce
I0403 14:58:00.357851 11439 net.cpp:148] Top shape: 24 96 28 28 (1806336)
I0403 14:58:00.357867 11439 net.cpp:156] Memory required for data: 515408928
I0403 14:58:00.357882 11439 layer_factory.hpp:77] Creating layer inception_3a/3x3
I0403 14:58:00.357905 11439 net.cpp:91] Creating Layer inception_3a/3x3
I0403 14:58:00.357924 11439 net.cpp:425] inception_3a/3x3 <- inception_3a/3x3_reduce
I0403 14:58:00.357946 11439 net.cpp:399] inception_3a/3x3 -> inception_3a/3x3
I0403 14:58:00.359624 11439 net.cpp:141] Setting up inception_3a/3x3
I0403 14:58:00.359655 11439 net.cpp:148] Top shape: 24 128 28 28 (2408448)
I0403 14:58:00.359673 11439 net.cpp:156] Memory required for data: 525042720
I0403 14:58:00.359693 11439 layer_factory.hpp:77] Creating layer inception_3a/relu_3x3
I0403 14:58:00.359711 11439 net.cpp:91] Creating Layer inception_3a/relu_3x3
I0403 14:58:00.359727 11439 net.cpp:425] inception_3a/relu_3x3 <- inception_3a/3x3
I0403 14:58:00.359745 11439 net.cpp:386] inception_3a/relu_3x3 -> inception_3a/3x3 (in-place)
I0403 14:58:00.360025 11439 net.cpp:141] Setting up inception_3a/relu_3x3
I0403 14:58:00.360054 11439 net.cpp:148] Top shape: 24 128 28 28 (2408448)
I0403 14:58:00.360070 11439 net.cpp:156] Memory required for data: 534676512
I0403 14:58:00.360086 11439 layer_factory.hpp:77] Creating layer inception_3a/5x5_reduce
I0403 14:58:00.360111 11439 net.cpp:91] Creating Layer inception_3a/5x5_reduce
I0403 14:58:00.360129 11439 net.cpp:425] inception_3a/5x5_reduce <- pool2/3x3_s2_pool2/3x3_s2_0_split_2
I0403 14:58:00.360151 11439 net.cpp:399] inception_3a/5x5_reduce -> inception_3a/5x5_reduce
I0403 14:58:00.361145 11439 net.cpp:141] Setting up inception_3a/5x5_reduce
I0403 14:58:00.361172 11439 net.cpp:148] Top shape: 24 16 28 28 (301056)
I0403 14:58:00.361187 11439 net.cpp:156] Memory required for data: 535880736
I0403 14:58:00.361207 11439 layer_factory.hpp:77] Creating layer inception_3a/relu_5x5_reduce
I0403 14:58:00.361224 11439 net.cpp:91] Creating Layer inception_3a/relu_5x5_reduce
I0403 14:58:00.361241 11439 net.cpp:425] inception_3a/relu_5x5_reduce <- inception_3a/5x5_reduce
I0403 14:58:00.361261 11439 net.cpp:386] inception_3a/relu_5x5_reduce -> inception_3a/5x5_reduce (in-place)
I0403 14:58:00.361562 11439 net.cpp:141] Setting up inception_3a/relu_5x5_reduce
I0403 14:58:00.361588 11439 net.cpp:148] Top shape: 24 16 28 28 (301056)
I0403 14:58:00.361603 11439 net.cpp:156] Memory required for data: 537084960
I0403 14:58:00.361619 11439 layer_factory.hpp:77] Creating layer inception_3a/5x5
I0403 14:58:00.361642 11439 net.cpp:91] Creating Layer inception_3a/5x5
I0403 14:58:00.361660 11439 net.cpp:425] inception_3a/5x5 <- inception_3a/5x5_reduce
I0403 14:58:00.361680 11439 net.cpp:399] inception_3a/5x5 -> inception_3a/5x5
I0403 14:58:00.362684 11439 net.cpp:141] Setting up inception_3a/5x5
I0403 14:58:00.362712 11439 net.cpp:148] Top shape: 24 32 28 28 (602112)
I0403 14:58:00.362728 11439 net.cpp:156] Memory required for data: 539493408
I0403 14:58:00.362747 11439 layer_factory.hpp:77] Creating layer inception_3a/relu_5x5
I0403 14:58:00.362766 11439 net.cpp:91] Creating Layer inception_3a/relu_5x5
I0403 14:58:00.362782 11439 net.cpp:425] inception_3a/relu_5x5 <- inception_3a/5x5
I0403 14:58:00.362799 11439 net.cpp:386] inception_3a/relu_5x5 -> inception_3a/5x5 (in-place)
I0403 14:58:00.362977 11439 net.cpp:141] Setting up inception_3a/relu_5x5
I0403 14:58:00.363001 11439 net.cpp:148] Top shape: 24 32 28 28 (602112)
I0403 14:58:00.363016 11439 net.cpp:156] Memory required for data: 541901856
I0403 14:58:00.363031 11439 layer_factory.hpp:77] Creating layer inception_3a/pool
I0403 14:58:00.363050 11439 net.cpp:91] Creating Layer inception_3a/pool
I0403 14:58:00.363081 11439 net.cpp:425] inception_3a/pool <- pool2/3x3_s2_pool2/3x3_s2_0_split_3
I0403 14:58:00.363102 11439 net.cpp:399] inception_3a/pool -> inception_3a/pool
I0403 14:58:00.363158 11439 net.cpp:141] Setting up inception_3a/pool
I0403 14:58:00.363184 11439 net.cpp:148] Top shape: 24 192 28 28 (3612672)
I0403 14:58:00.363200 11439 net.cpp:156] Memory required for data: 556352544
I0403 14:58:00.363215 11439 layer_factory.hpp:77] Creating layer inception_3a/pool_proj
I0403 14:58:00.363240 11439 net.cpp:91] Creating Layer inception_3a/pool_proj
I0403 14:58:00.363257 11439 net.cpp:425] inception_3a/pool_proj <- inception_3a/pool
I0403 14:58:00.363276 11439 net.cpp:399] inception_3a/pool_proj -> inception_3a/pool_proj
I0403 14:58:00.364241 11439 net.cpp:141] Setting up inception_3a/pool_proj
I0403 14:58:00.364269 11439 net.cpp:148] Top shape: 24 32 28 28 (602112)
I0403 14:58:00.364285 11439 net.cpp:156] Memory required for data: 558760992
I0403 14:58:00.364310 11439 layer_factory.hpp:77] Creating layer inception_3a/relu_pool_proj
I0403 14:58:00.364329 11439 net.cpp:91] Creating Layer inception_3a/relu_pool_proj
I0403 14:58:00.364346 11439 net.cpp:425] inception_3a/relu_pool_proj <- inception_3a/pool_proj
I0403 14:58:00.364365 11439 net.cpp:386] inception_3a/relu_pool_proj -> inception_3a/pool_proj (in-place)
I0403 14:58:00.364641 11439 net.cpp:141] Setting up inception_3a/relu_pool_proj
I0403 14:58:00.364670 11439 net.cpp:148] Top shape: 24 32 28 28 (602112)
I0403 14:58:00.364686 11439 net.cpp:156] Memory required for data: 561169440
I0403 14:58:00.364702 11439 layer_factory.hpp:77] Creating layer inception_3a/output
I0403 14:58:00.364720 11439 net.cpp:91] Creating Layer inception_3a/output
I0403 14:58:00.364735 11439 net.cpp:425] inception_3a/output <- inception_3a/1x1
I0403 14:58:00.364753 11439 net.cpp:425] inception_3a/output <- inception_3a/3x3
I0403 14:58:00.364768 11439 net.cpp:425] inception_3a/output <- inception_3a/5x5
I0403 14:58:00.364784 11439 net.cpp:425] inception_3a/output <- inception_3a/pool_proj
I0403 14:58:00.364801 11439 net.cpp:399] inception_3a/output -> inception_3a/output
I0403 14:58:00.364850 11439 net.cpp:141] Setting up inception_3a/output
I0403 14:58:00.364872 11439 net.cpp:148] Top shape: 24 256 28 28 (4816896)
I0403 14:58:00.364887 11439 net.cpp:156] Memory required for data: 580437024
I0403 14:58:00.364902 11439 layer_factory.hpp:77] Creating layer inception_3a/output_inception_3a/output_0_split
I0403 14:58:00.364923 11439 net.cpp:91] Creating Layer inception_3a/output_inception_3a/output_0_split
I0403 14:58:00.364939 11439 net.cpp:425] inception_3a/output_inception_3a/output_0_split <- inception_3a/output
I0403 14:58:00.364958 11439 net.cpp:399] inception_3a/output_inception_3a/output_0_split -> inception_3a/output_inception_3a/output_0_split_0
I0403 14:58:00.364977 11439 net.cpp:399] inception_3a/output_inception_3a/output_0_split -> inception_3a/output_inception_3a/output_0_split_1
I0403 14:58:00.365000 11439 net.cpp:399] inception_3a/output_inception_3a/output_0_split -> inception_3a/output_inception_3a/output_0_split_2
I0403 14:58:00.365022 11439 net.cpp:399] inception_3a/output_inception_3a/output_0_split -> inception_3a/output_inception_3a/output_0_split_3
I0403 14:58:00.365097 11439 net.cpp:141] Setting up inception_3a/output_inception_3a/output_0_split
I0403 14:58:00.365119 11439 net.cpp:148] Top shape: 24 256 28 28 (4816896)
I0403 14:58:00.365136 11439 net.cpp:148] Top shape: 24 256 28 28 (4816896)
I0403 14:58:00.365152 11439 net.cpp:148] Top shape: 24 256 28 28 (4816896)
I0403 14:58:00.365169 11439 net.cpp:148] Top shape: 24 256 28 28 (4816896)
I0403 14:58:00.365182 11439 net.cpp:156] Memory required for data: 657507360
I0403 14:58:00.365197 11439 layer_factory.hpp:77] Creating layer inception_3b/1x1
I0403 14:58:00.365221 11439 net.cpp:91] Creating Layer inception_3b/1x1
I0403 14:58:00.365238 11439 net.cpp:425] inception_3b/1x1 <- inception_3a/output_inception_3a/output_0_split_0
I0403 14:58:00.365257 11439 net.cpp:399] inception_3b/1x1 -> inception_3b/1x1
I0403 14:58:00.366385 11439 net.cpp:141] Setting up inception_3b/1x1
I0403 14:58:00.366428 11439 net.cpp:148] Top shape: 24 128 28 28 (2408448)
I0403 14:58:00.366446 11439 net.cpp:156] Memory required for data: 667141152
I0403 14:58:00.366464 11439 layer_factory.hpp:77] Creating layer inception_3b/relu_1x1
I0403 14:58:00.366485 11439 net.cpp:91] Creating Layer inception_3b/relu_1x1
I0403 14:58:00.366503 11439 net.cpp:425] inception_3b/relu_1x1 <- inception_3b/1x1
I0403 14:58:00.366520 11439 net.cpp:386] inception_3b/relu_1x1 -> inception_3b/1x1 (in-place)
I0403 14:58:00.366694 11439 net.cpp:141] Setting up inception_3b/relu_1x1
I0403 14:58:00.366722 11439 net.cpp:148] Top shape: 24 128 28 28 (2408448)
I0403 14:58:00.366739 11439 net.cpp:156] Memory required for data: 676774944
I0403 14:58:00.366755 11439 layer_factory.hpp:77] Creating layer inception_3b/3x3_reduce
I0403 14:58:00.366778 11439 net.cpp:91] Creating Layer inception_3b/3x3_reduce
I0403 14:58:00.366796 11439 net.cpp:425] inception_3b/3x3_reduce <- inception_3a/output_inception_3a/output_0_split_1
I0403 14:58:00.366816 11439 net.cpp:399] inception_3b/3x3_reduce -> inception_3b/3x3_reduce
I0403 14:58:00.367939 11439 net.cpp:141] Setting up inception_3b/3x3_reduce
I0403 14:58:00.367969 11439 net.cpp:148] Top shape: 24 128 28 28 (2408448)
I0403 14:58:00.367985 11439 net.cpp:156] Memory required for data: 686408736
I0403 14:58:00.368003 11439 layer_factory.hpp:77] Creating layer inception_3b/relu_3x3_reduce
I0403 14:58:00.368023 11439 net.cpp:91] Creating Layer inception_3b/relu_3x3_reduce
I0403 14:58:00.368041 11439 net.cpp:425] inception_3b/relu_3x3_reduce <- inception_3b/3x3_reduce
I0403 14:58:00.368058 11439 net.cpp:386] inception_3b/relu_3x3_reduce -> inception_3b/3x3_reduce (in-place)
I0403 14:58:00.368233 11439 net.cpp:141] Setting up inception_3b/relu_3x3_reduce
I0403 14:58:00.368259 11439 net.cpp:148] Top shape: 24 128 28 28 (2408448)
I0403 14:58:00.368275 11439 net.cpp:156] Memory required for data: 696042528
I0403 14:58:00.368290 11439 layer_factory.hpp:77] Creating layer inception_3b/3x3
I0403 14:58:00.368315 11439 net.cpp:91] Creating Layer inception_3b/3x3
I0403 14:58:00.368333 11439 net.cpp:425] inception_3b/3x3 <- inception_3b/3x3_reduce
I0403 14:58:00.368355 11439 net.cpp:399] inception_3b/3x3 -> inception_3b/3x3
I0403 14:58:00.371232 11439 net.cpp:141] Setting up inception_3b/3x3
I0403 14:58:00.371263 11439 net.cpp:148] Top shape: 24 192 28 28 (3612672)
I0403 14:58:00.371280 11439 net.cpp:156] Memory required for data: 710493216
I0403 14:58:00.371299 11439 layer_factory.hpp:77] Creating layer inception_3b/relu_3x3
I0403 14:58:00.371320 11439 net.cpp:91] Creating Layer inception_3b/relu_3x3
I0403 14:58:00.371336 11439 net.cpp:425] inception_3b/relu_3x3 <- inception_3b/3x3
I0403 14:58:00.371356 11439 net.cpp:386] inception_3b/relu_3x3 -> inception_3b/3x3 (in-place)
I0403 14:58:00.371634 11439 net.cpp:141] Setting up inception_3b/relu_3x3
I0403 14:58:00.371664 11439 net.cpp:148] Top shape: 24 192 28 28 (3612672)
I0403 14:58:00.371680 11439 net.cpp:156] Memory required for data: 724943904
I0403 14:58:00.371696 11439 layer_factory.hpp:77] Creating layer inception_3b/5x5_reduce
I0403 14:58:00.371719 11439 net.cpp:91] Creating Layer inception_3b/5x5_reduce
I0403 14:58:00.371737 11439 net.cpp:425] inception_3b/5x5_reduce <- inception_3a/output_inception_3a/output_0_split_2
I0403 14:58:00.371757 11439 net.cpp:399] inception_3b/5x5_reduce -> inception_3b/5x5_reduce
I0403 14:58:00.372735 11439 net.cpp:141] Setting up inception_3b/5x5_reduce
I0403 14:58:00.372766 11439 net.cpp:148] Top shape: 24 32 28 28 (602112)
I0403 14:58:00.372782 11439 net.cpp:156] Memory required for data: 727352352
I0403 14:58:00.372802 11439 layer_factory.hpp:77] Creating layer inception_3b/relu_5x5_reduce
I0403 14:58:00.372819 11439 net.cpp:91] Creating Layer inception_3b/relu_5x5_reduce
I0403 14:58:00.372836 11439 net.cpp:425] inception_3b/relu_5x5_reduce <- inception_3b/5x5_reduce
I0403 14:58:00.372853 11439 net.cpp:386] inception_3b/relu_5x5_reduce -> inception_3b/5x5_reduce (in-place)
I0403 14:58:00.373044 11439 net.cpp:141] Setting up inception_3b/relu_5x5_reduce
I0403 14:58:00.373070 11439 net.cpp:148] Top shape: 24 32 28 28 (602112)
I0403 14:58:00.373085 11439 net.cpp:156] Memory required for data: 729760800
I0403 14:58:00.373100 11439 layer_factory.hpp:77] Creating layer inception_3b/5x5
I0403 14:58:00.373122 11439 net.cpp:91] Creating Layer inception_3b/5x5
I0403 14:58:00.373141 11439 net.cpp:425] inception_3b/5x5 <- inception_3b/5x5_reduce
I0403 14:58:00.373162 11439 net.cpp:399] inception_3b/5x5 -> inception_3b/5x5
I0403 14:58:00.375131 11439 net.cpp:141] Setting up inception_3b/5x5
I0403 14:58:00.375161 11439 net.cpp:148] Top shape: 24 96 28 28 (1806336)
I0403 14:58:00.375177 11439 net.cpp:156] Memory required for data: 736986144
I0403 14:58:00.375198 11439 layer_factory.hpp:77] Creating layer inception_3b/relu_5x5
I0403 14:58:00.375218 11439 net.cpp:91] Creating Layer inception_3b/relu_5x5
I0403 14:58:00.375236 11439 net.cpp:425] inception_3b/relu_5x5 <- inception_3b/5x5
I0403 14:58:00.375255 11439 net.cpp:386] inception_3b/relu_5x5 -> inception_3b/5x5 (in-place)
I0403 14:58:00.375450 11439 net.cpp:141] Setting up inception_3b/relu_5x5
I0403 14:58:00.375476 11439 net.cpp:148] Top shape: 24 96 28 28 (1806336)
I0403 14:58:00.375493 11439 net.cpp:156] Memory required for data: 744211488
I0403 14:58:00.375507 11439 layer_factory.hpp:77] Creating layer inception_3b/pool
I0403 14:58:00.375525 11439 net.cpp:91] Creating Layer inception_3b/pool
I0403 14:58:00.375541 11439 net.cpp:425] inception_3b/pool <- inception_3a/output_inception_3a/output_0_split_3
I0403 14:58:00.375560 11439 net.cpp:399] inception_3b/pool -> inception_3b/pool
I0403 14:58:00.375617 11439 net.cpp:141] Setting up inception_3b/pool
I0403 14:58:00.375641 11439 net.cpp:148] Top shape: 24 256 28 28 (4816896)
I0403 14:58:00.375658 11439 net.cpp:156] Memory required for data: 763479072
I0403 14:58:00.375672 11439 layer_factory.hpp:77] Creating layer inception_3b/pool_proj
I0403 14:58:00.375695 11439 net.cpp:91] Creating Layer inception_3b/pool_proj
I0403 14:58:00.375713 11439 net.cpp:425] inception_3b/pool_proj <- inception_3b/pool
I0403 14:58:00.375735 11439 net.cpp:399] inception_3b/pool_proj -> inception_3b/pool_proj
I0403 14:58:00.376796 11439 net.cpp:141] Setting up inception_3b/pool_proj
I0403 14:58:00.376823 11439 net.cpp:148] Top shape: 24 64 28 28 (1204224)
I0403 14:58:00.376839 11439 net.cpp:156] Memory required for data: 768295968
I0403 14:58:00.376857 11439 layer_factory.hpp:77] Creating layer inception_3b/relu_pool_proj
I0403 14:58:00.376878 11439 net.cpp:91] Creating Layer inception_3b/relu_pool_proj
I0403 14:58:00.376898 11439 net.cpp:425] inception_3b/relu_pool_proj <- inception_3b/pool_proj
I0403 14:58:00.376916 11439 net.cpp:386] inception_3b/relu_pool_proj -> inception_3b/pool_proj (in-place)
I0403 14:58:00.377316 11439 net.cpp:141] Setting up inception_3b/relu_pool_proj
I0403 14:58:00.377342 11439 net.cpp:148] Top shape: 24 64 28 28 (1204224)
I0403 14:58:00.377357 11439 net.cpp:156] Memory required for data: 773112864
I0403 14:58:00.377372 11439 layer_factory.hpp:77] Creating layer inception_3b/output
I0403 14:58:00.377391 11439 net.cpp:91] Creating Layer inception_3b/output
I0403 14:58:00.377409 11439 net.cpp:425] inception_3b/output <- inception_3b/1x1
I0403 14:58:00.377446 11439 net.cpp:425] inception_3b/output <- inception_3b/3x3
I0403 14:58:00.377465 11439 net.cpp:425] inception_3b/output <- inception_3b/5x5
I0403 14:58:00.377480 11439 net.cpp:425] inception_3b/output <- inception_3b/pool_proj
I0403 14:58:00.377502 11439 net.cpp:399] inception_3b/output -> inception_3b/output
I0403 14:58:00.377548 11439 net.cpp:141] Setting up inception_3b/output
I0403 14:58:00.377574 11439 net.cpp:148] Top shape: 24 480 28 28 (9031680)
I0403 14:58:00.377591 11439 net.cpp:156] Memory required for data: 809239584
I0403 14:58:00.377607 11439 layer_factory.hpp:77] Creating layer pool3/3x3_s2
I0403 14:58:00.377626 11439 net.cpp:91] Creating Layer pool3/3x3_s2
I0403 14:58:00.377642 11439 net.cpp:425] pool3/3x3_s2 <- inception_3b/output
I0403 14:58:00.377678 11439 net.cpp:399] pool3/3x3_s2 -> pool3/3x3_s2
I0403 14:58:00.377753 11439 net.cpp:141] Setting up pool3/3x3_s2
I0403 14:58:00.377777 11439 net.cpp:148] Top shape: 24 480 14 14 (2257920)
I0403 14:58:00.377792 11439 net.cpp:156] Memory required for data: 818271264
I0403 14:58:00.377806 11439 layer_factory.hpp:77] Creating layer pool3/3x3_s2_pool3/3x3_s2_0_split
I0403 14:58:00.377825 11439 net.cpp:91] Creating Layer pool3/3x3_s2_pool3/3x3_s2_0_split
I0403 14:58:00.377840 11439 net.cpp:425] pool3/3x3_s2_pool3/3x3_s2_0_split <- pool3/3x3_s2
I0403 14:58:00.377858 11439 net.cpp:399] pool3/3x3_s2_pool3/3x3_s2_0_split -> pool3/3x3_s2_pool3/3x3_s2_0_split_0
I0403 14:58:00.377879 11439 net.cpp:399] pool3/3x3_s2_pool3/3x3_s2_0_split -> pool3/3x3_s2_pool3/3x3_s2_0_split_1
I0403 14:58:00.377899 11439 net.cpp:399] pool3/3x3_s2_pool3/3x3_s2_0_split -> pool3/3x3_s2_pool3/3x3_s2_0_split_2
I0403 14:58:00.377918 11439 net.cpp:399] pool3/3x3_s2_pool3/3x3_s2_0_split -> pool3/3x3_s2_pool3/3x3_s2_0_split_3
I0403 14:58:00.377998 11439 net.cpp:141] Setting up pool3/3x3_s2_pool3/3x3_s2_0_split
I0403 14:58:00.378021 11439 net.cpp:148] Top shape: 24 480 14 14 (2257920)
I0403 14:58:00.378038 11439 net.cpp:148] Top shape: 24 480 14 14 (2257920)
I0403 14:58:00.378056 11439 net.cpp:148] Top shape: 24 480 14 14 (2257920)
I0403 14:58:00.378070 11439 net.cpp:148] Top shape: 24 480 14 14 (2257920)
I0403 14:58:00.378084 11439 net.cpp:156] Memory required for data: 854397984
I0403 14:58:00.378099 11439 layer_factory.hpp:77] Creating layer inception_4a/1x1
I0403 14:58:00.378123 11439 net.cpp:91] Creating Layer inception_4a/1x1
I0403 14:58:00.378140 11439 net.cpp:425] inception_4a/1x1 <- pool3/3x3_s2_pool3/3x3_s2_0_split_0
I0403 14:58:00.378161 11439 net.cpp:399] inception_4a/1x1 -> inception_4a/1x1
I0403 14:58:00.379775 11439 net.cpp:141] Setting up inception_4a/1x1
I0403 14:58:00.379803 11439 net.cpp:148] Top shape: 24 192 14 14 (903168)
I0403 14:58:00.379820 11439 net.cpp:156] Memory required for data: 858010656
I0403 14:58:00.379840 11439 layer_factory.hpp:77] Creating layer inception_4a/relu_1x1
I0403 14:58:00.379860 11439 net.cpp:91] Creating Layer inception_4a/relu_1x1
I0403 14:58:00.379878 11439 net.cpp:425] inception_4a/relu_1x1 <- inception_4a/1x1
I0403 14:58:00.379896 11439 net.cpp:386] inception_4a/relu_1x1 -> inception_4a/1x1 (in-place)
I0403 14:58:00.380074 11439 net.cpp:141] Setting up inception_4a/relu_1x1
I0403 14:58:00.380100 11439 net.cpp:148] Top shape: 24 192 14 14 (903168)
I0403 14:58:00.380116 11439 net.cpp:156] Memory required for data: 861623328
I0403 14:58:00.380131 11439 layer_factory.hpp:77] Creating layer inception_4a/3x3_reduce
I0403 14:58:00.380157 11439 net.cpp:91] Creating Layer inception_4a/3x3_reduce
I0403 14:58:00.380177 11439 net.cpp:425] inception_4a/3x3_reduce <- pool3/3x3_s2_pool3/3x3_s2_0_split_1
I0403 14:58:00.380198 11439 net.cpp:399] inception_4a/3x3_reduce -> inception_4a/3x3_reduce
I0403 14:58:00.381510 11439 net.cpp:141] Setting up inception_4a/3x3_reduce
I0403 14:58:00.381538 11439 net.cpp:148] Top shape: 24 96 14 14 (451584)
I0403 14:58:00.381554 11439 net.cpp:156] Memory required for data: 863429664
I0403 14:58:00.381582 11439 layer_factory.hpp:77] Creating layer inception_4a/relu_3x3_reduce
I0403 14:58:00.381603 11439 net.cpp:91] Creating Layer inception_4a/relu_3x3_reduce
I0403 14:58:00.381620 11439 net.cpp:425] inception_4a/relu_3x3_reduce <- inception_4a/3x3_reduce
I0403 14:58:00.381641 11439 net.cpp:386] inception_4a/relu_3x3_reduce -> inception_4a/3x3_reduce (in-place)
I0403 14:58:00.381825 11439 net.cpp:141] Setting up inception_4a/relu_3x3_reduce
I0403 14:58:00.381851 11439 net.cpp:148] Top shape: 24 96 14 14 (451584)
I0403 14:58:00.381867 11439 net.cpp:156] Memory required for data: 865236000
I0403 14:58:00.381883 11439 layer_factory.hpp:77] Creating layer inception_4a/3x3
I0403 14:58:00.381906 11439 net.cpp:91] Creating Layer inception_4a/3x3
I0403 14:58:00.381924 11439 net.cpp:425] inception_4a/3x3 <- inception_4a/3x3_reduce
I0403 14:58:00.381947 11439 net.cpp:399] inception_4a/3x3 -> inception_4a/3x3
I0403 14:58:00.384696 11439 net.cpp:141] Setting up inception_4a/3x3
I0403 14:58:00.384724 11439 net.cpp:148] Top shape: 24 208 14 14 (978432)
I0403 14:58:00.384740 11439 net.cpp:156] Memory required for data: 869149728
I0403 14:58:00.384759 11439 layer_factory.hpp:77] Creating layer inception_4a/relu_3x3
I0403 14:58:00.384780 11439 net.cpp:91] Creating Layer inception_4a/relu_3x3
I0403 14:58:00.384799 11439 net.cpp:425] inception_4a/relu_3x3 <- inception_4a/3x3
I0403 14:58:00.384816 11439 net.cpp:386] inception_4a/relu_3x3 -> inception_4a/3x3 (in-place)
I0403 14:58:00.385102 11439 net.cpp:141] Setting up inception_4a/relu_3x3
I0403 14:58:00.385129 11439 net.cpp:148] Top shape: 24 208 14 14 (978432)
I0403 14:58:00.385145 11439 net.cpp:156] Memory required for data: 873063456
I0403 14:58:00.385161 11439 layer_factory.hpp:77] Creating layer inception_4a/5x5_reduce
I0403 14:58:00.385185 11439 net.cpp:91] Creating Layer inception_4a/5x5_reduce
I0403 14:58:00.385202 11439 net.cpp:425] inception_4a/5x5_reduce <- pool3/3x3_s2_pool3/3x3_s2_0_split_2
I0403 14:58:00.385224 11439 net.cpp:399] inception_4a/5x5_reduce -> inception_4a/5x5_reduce
I0403 14:58:00.386271 11439 net.cpp:141] Setting up inception_4a/5x5_reduce
I0403 14:58:00.386304 11439 net.cpp:148] Top shape: 24 16 14 14 (75264)
I0403 14:58:00.386320 11439 net.cpp:156] Memory required for data: 873364512
I0403 14:58:00.386340 11439 layer_factory.hpp:77] Creating layer inception_4a/relu_5x5_reduce
I0403 14:58:00.386358 11439 net.cpp:91] Creating Layer inception_4a/relu_5x5_reduce
I0403 14:58:00.386375 11439 net.cpp:425] inception_4a/relu_5x5_reduce <- inception_4a/5x5_reduce
I0403 14:58:00.386395 11439 net.cpp:386] inception_4a/relu_5x5_reduce -> inception_4a/5x5_reduce (in-place)
I0403 14:58:00.386582 11439 net.cpp:141] Setting up inception_4a/relu_5x5_reduce
I0403 14:58:00.386608 11439 net.cpp:148] Top shape: 24 16 14 14 (75264)
I0403 14:58:00.386625 11439 net.cpp:156] Memory required for data: 873665568
I0403 14:58:00.386639 11439 layer_factory.hpp:77] Creating layer inception_4a/5x5
I0403 14:58:00.386663 11439 net.cpp:91] Creating Layer inception_4a/5x5
I0403 14:58:00.386682 11439 net.cpp:425] inception_4a/5x5 <- inception_4a/5x5_reduce
I0403 14:58:00.386704 11439 net.cpp:399] inception_4a/5x5 -> inception_4a/5x5
I0403 14:58:00.387814 11439 net.cpp:141] Setting up inception_4a/5x5
I0403 14:58:00.387841 11439 net.cpp:148] Top shape: 24 48 14 14 (225792)
I0403 14:58:00.387857 11439 net.cpp:156] Memory required for data: 874568736
I0403 14:58:00.387877 11439 layer_factory.hpp:77] Creating layer inception_4a/relu_5x5
I0403 14:58:00.387897 11439 net.cpp:91] Creating Layer inception_4a/relu_5x5
I0403 14:58:00.387912 11439 net.cpp:425] inception_4a/relu_5x5 <- inception_4a/5x5
I0403 14:58:00.387933 11439 net.cpp:386] inception_4a/relu_5x5 -> inception_4a/5x5 (in-place)
I0403 14:58:00.388118 11439 net.cpp:141] Setting up inception_4a/relu_5x5
I0403 14:58:00.388144 11439 net.cpp:148] Top shape: 24 48 14 14 (225792)
I0403 14:58:00.388160 11439 net.cpp:156] Memory required for data: 875471904
I0403 14:58:00.388175 11439 layer_factory.hpp:77] Creating layer inception_4a/pool
I0403 14:58:00.388196 11439 net.cpp:91] Creating Layer inception_4a/pool
I0403 14:58:00.388214 11439 net.cpp:425] inception_4a/pool <- pool3/3x3_s2_pool3/3x3_s2_0_split_3
I0403 14:58:00.388234 11439 net.cpp:399] inception_4a/pool -> inception_4a/pool
I0403 14:58:00.388298 11439 net.cpp:141] Setting up inception_4a/pool
I0403 14:58:00.388322 11439 net.cpp:148] Top shape: 24 480 14 14 (2257920)
I0403 14:58:00.388337 11439 net.cpp:156] Memory required for data: 884503584
I0403 14:58:00.388352 11439 layer_factory.hpp:77] Creating layer inception_4a/pool_proj
I0403 14:58:00.388376 11439 net.cpp:91] Creating Layer inception_4a/pool_proj
I0403 14:58:00.388394 11439 net.cpp:425] inception_4a/pool_proj <- inception_4a/pool
I0403 14:58:00.388420 11439 net.cpp:399] inception_4a/pool_proj -> inception_4a/pool_proj
I0403 14:58:00.389616 11439 net.cpp:141] Setting up inception_4a/pool_proj
I0403 14:58:00.389645 11439 net.cpp:148] Top shape: 24 64 14 14 (301056)
I0403 14:58:00.389679 11439 net.cpp:156] Memory required for data: 885707808
I0403 14:58:00.389701 11439 layer_factory.hpp:77] Creating layer inception_4a/relu_pool_proj
I0403 14:58:00.389719 11439 net.cpp:91] Creating Layer inception_4a/relu_pool_proj
I0403 14:58:00.389736 11439 net.cpp:425] inception_4a/relu_pool_proj <- inception_4a/pool_proj
I0403 14:58:00.389758 11439 net.cpp:386] inception_4a/relu_pool_proj -> inception_4a/pool_proj (in-place)
I0403 14:58:00.390053 11439 net.cpp:141] Setting up inception_4a/relu_pool_proj
I0403 14:58:00.390079 11439 net.cpp:148] Top shape: 24 64 14 14 (301056)
I0403 14:58:00.390095 11439 net.cpp:156] Memory required for data: 886912032
I0403 14:58:00.390111 11439 layer_factory.hpp:77] Creating layer inception_4a/output
I0403 14:58:00.390130 11439 net.cpp:91] Creating Layer inception_4a/output
I0403 14:58:00.390146 11439 net.cpp:425] inception_4a/output <- inception_4a/1x1
I0403 14:58:00.390163 11439 net.cpp:425] inception_4a/output <- inception_4a/3x3
I0403 14:58:00.390180 11439 net.cpp:425] inception_4a/output <- inception_4a/5x5
I0403 14:58:00.390197 11439 net.cpp:425] inception_4a/output <- inception_4a/pool_proj
I0403 14:58:00.390218 11439 net.cpp:399] inception_4a/output -> inception_4a/output
I0403 14:58:00.390264 11439 net.cpp:141] Setting up inception_4a/output
I0403 14:58:00.390292 11439 net.cpp:148] Top shape: 24 512 14 14 (2408448)
I0403 14:58:00.390307 11439 net.cpp:156] Memory required for data: 896545824
I0403 14:58:00.390322 11439 layer_factory.hpp:77] Creating layer inception_4a/output_inception_4a/output_0_split
I0403 14:58:00.390341 11439 net.cpp:91] Creating Layer inception_4a/output_inception_4a/output_0_split
I0403 14:58:00.390357 11439 net.cpp:425] inception_4a/output_inception_4a/output_0_split <- inception_4a/output
I0403 14:58:00.390378 11439 net.cpp:399] inception_4a/output_inception_4a/output_0_split -> inception_4a/output_inception_4a/output_0_split_0
I0403 14:58:00.390400 11439 net.cpp:399] inception_4a/output_inception_4a/output_0_split -> inception_4a/output_inception_4a/output_0_split_1
I0403 14:58:00.390427 11439 net.cpp:399] inception_4a/output_inception_4a/output_0_split -> inception_4a/output_inception_4a/output_0_split_2
I0403 14:58:00.390450 11439 net.cpp:399] inception_4a/output_inception_4a/output_0_split -> inception_4a/output_inception_4a/output_0_split_3
I0403 14:58:00.390471 11439 net.cpp:399] inception_4a/output_inception_4a/output_0_split -> inception_4a/output_inception_4a/output_0_split_4
I0403 14:58:00.390564 11439 net.cpp:141] Setting up inception_4a/output_inception_4a/output_0_split
I0403 14:58:00.390591 11439 net.cpp:148] Top shape: 24 512 14 14 (2408448)
I0403 14:58:00.390610 11439 net.cpp:148] Top shape: 24 512 14 14 (2408448)
I0403 14:58:00.390627 11439 net.cpp:148] Top shape: 24 512 14 14 (2408448)
I0403 14:58:00.390643 11439 net.cpp:148] Top shape: 24 512 14 14 (2408448)
I0403 14:58:00.390660 11439 net.cpp:148] Top shape: 24 512 14 14 (2408448)
I0403 14:58:00.390674 11439 net.cpp:156] Memory required for data: 944714784
I0403 14:58:00.390691 11439 layer_factory.hpp:77] Creating layer loss1/ave_pool
I0403 14:58:00.390708 11439 net.cpp:91] Creating Layer loss1/ave_pool
I0403 14:58:00.390725 11439 net.cpp:425] loss1/ave_pool <- inception_4a/output_inception_4a/output_0_split_0
I0403 14:58:00.390744 11439 net.cpp:399] loss1/ave_pool -> loss1/ave_pool
I0403 14:58:00.390959 11439 net.cpp:141] Setting up loss1/ave_pool
I0403 14:58:00.390985 11439 net.cpp:148] Top shape: 24 512 4 4 (196608)
I0403 14:58:00.391000 11439 net.cpp:156] Memory required for data: 945501216
I0403 14:58:00.391016 11439 layer_factory.hpp:77] Creating layer loss1/conv
I0403 14:58:00.391041 11439 net.cpp:91] Creating Layer loss1/conv
I0403 14:58:00.391059 11439 net.cpp:425] loss1/conv <- loss1/ave_pool
I0403 14:58:00.391082 11439 net.cpp:399] loss1/conv -> loss1/conv
I0403 14:58:00.392535 11439 net.cpp:141] Setting up loss1/conv
I0403 14:58:00.392565 11439 net.cpp:148] Top shape: 24 128 4 4 (49152)
I0403 14:58:00.392598 11439 net.cpp:156] Memory required for data: 945697824
I0403 14:58:00.392618 11439 layer_factory.hpp:77] Creating layer loss1/relu_conv
I0403 14:58:00.392637 11439 net.cpp:91] Creating Layer loss1/relu_conv
I0403 14:58:00.392654 11439 net.cpp:425] loss1/relu_conv <- loss1/conv
I0403 14:58:00.392673 11439 net.cpp:386] loss1/relu_conv -> loss1/conv (in-place)
I0403 14:58:00.392967 11439 net.cpp:141] Setting up loss1/relu_conv
I0403 14:58:00.392994 11439 net.cpp:148] Top shape: 24 128 4 4 (49152)
I0403 14:58:00.393014 11439 net.cpp:156] Memory required for data: 945894432
I0403 14:58:00.393030 11439 layer_factory.hpp:77] Creating layer loss1/fc
I0403 14:58:00.393054 11439 net.cpp:91] Creating Layer loss1/fc
I0403 14:58:00.393074 11439 net.cpp:425] loss1/fc <- loss1/conv
I0403 14:58:00.393097 11439 net.cpp:399] loss1/fc -> loss1/fc
I0403 14:58:00.410626 11439 net.cpp:141] Setting up loss1/fc
I0403 14:58:00.410663 11439 net.cpp:148] Top shape: 24 1024 (24576)
I0403 14:58:00.410679 11439 net.cpp:156] Memory required for data: 945992736
I0403 14:58:00.410698 11439 layer_factory.hpp:77] Creating layer loss1/relu_fc
I0403 14:58:00.410717 11439 net.cpp:91] Creating Layer loss1/relu_fc
I0403 14:58:00.410734 11439 net.cpp:425] loss1/relu_fc <- loss1/fc
I0403 14:58:00.410751 11439 net.cpp:386] loss1/relu_fc -> loss1/fc (in-place)
I0403 14:58:00.410928 11439 net.cpp:141] Setting up loss1/relu_fc
I0403 14:58:00.410954 11439 net.cpp:148] Top shape: 24 1024 (24576)
I0403 14:58:00.410969 11439 net.cpp:156] Memory required for data: 946091040
I0403 14:58:00.410984 11439 layer_factory.hpp:77] Creating layer loss1/drop_fc
I0403 14:58:00.411012 11439 net.cpp:91] Creating Layer loss1/drop_fc
I0403 14:58:00.411031 11439 net.cpp:425] loss1/drop_fc <- loss1/fc
I0403 14:58:00.411048 11439 net.cpp:386] loss1/drop_fc -> loss1/fc (in-place)
I0403 14:58:00.411098 11439 net.cpp:141] Setting up loss1/drop_fc
I0403 14:58:00.411123 11439 net.cpp:148] Top shape: 24 1024 (24576)
I0403 14:58:00.411139 11439 net.cpp:156] Memory required for data: 946189344
I0403 14:58:00.411155 11439 layer_factory.hpp:77] Creating layer loss1/classifier_plantvillage
I0403 14:58:00.411173 11439 net.cpp:91] Creating Layer loss1/classifier_plantvillage
I0403 14:58:00.411190 11439 net.cpp:425] loss1/classifier_plantvillage <- loss1/fc
I0403 14:58:00.411211 11439 net.cpp:399] loss1/classifier_plantvillage -> loss1/classifier_plantvillage
I0403 14:58:00.412097 11439 net.cpp:141] Setting up loss1/classifier_plantvillage
I0403 14:58:00.412127 11439 net.cpp:148] Top shape: 24 38 (912)
I0403 14:58:00.412145 11439 net.cpp:156] Memory required for data: 946192992
I0403 14:58:00.412163 11439 layer_factory.hpp:77] Creating layer loss1/classifier_plantvillage_loss1/classifier_plantvillage_0_split
I0403 14:58:00.412180 11439 net.cpp:91] Creating Layer loss1/classifier_plantvillage_loss1/classifier_plantvillage_0_split
I0403 14:58:00.412195 11439 net.cpp:425] loss1/classifier_plantvillage_loss1/classifier_plantvillage_0_split <- loss1/classifier_plantvillage
I0403 14:58:00.412212 11439 net.cpp:399] loss1/classifier_plantvillage_loss1/classifier_plantvillage_0_split -> loss1/classifier_plantvillage_loss1/classifier_plantvillage_0_split_0
I0403 14:58:00.412232 11439 net.cpp:399] loss1/classifier_plantvillage_loss1/classifier_plantvillage_0_split -> loss1/classifier_plantvillage_loss1/classifier_plantvillage_0_split_1
I0403 14:58:00.412252 11439 net.cpp:399] loss1/classifier_plantvillage_loss1/classifier_plantvillage_0_split -> loss1/classifier_plantvillage_loss1/classifier_plantvillage_0_split_2
I0403 14:58:00.412317 11439 net.cpp:141] Setting up loss1/classifier_plantvillage_loss1/classifier_plantvillage_0_split
I0403 14:58:00.412338 11439 net.cpp:148] Top shape: 24 38 (912)
I0403 14:58:00.412354 11439 net.cpp:148] Top shape: 24 38 (912)
I0403 14:58:00.412370 11439 net.cpp:148] Top shape: 24 38 (912)
I0403 14:58:00.412386 11439 net.cpp:156] Memory required for data: 946203936
I0403 14:58:00.412400 11439 layer_factory.hpp:77] Creating layer inception_4b/1x1
I0403 14:58:00.412425 11439 net.cpp:91] Creating Layer inception_4b/1x1
I0403 14:58:00.412457 11439 net.cpp:425] inception_4b/1x1 <- inception_4a/output_inception_4a/output_0_split_1
I0403 14:58:00.412480 11439 net.cpp:399] inception_4b/1x1 -> inception_4b/1x1
I0403 14:58:00.414150 11439 net.cpp:141] Setting up inception_4b/1x1
I0403 14:58:00.414181 11439 net.cpp:148] Top shape: 24 160 14 14 (752640)
I0403 14:58:00.414198 11439 net.cpp:156] Memory required for data: 949214496
I0403 14:58:00.414216 11439 layer_factory.hpp:77] Creating layer inception_4b/relu_1x1
I0403 14:58:00.414234 11439 net.cpp:91] Creating Layer inception_4b/relu_1x1
I0403 14:58:00.414252 11439 net.cpp:425] inception_4b/relu_1x1 <- inception_4b/1x1
I0403 14:58:00.414268 11439 net.cpp:386] inception_4b/relu_1x1 -> inception_4b/1x1 (in-place)
I0403 14:58:00.414448 11439 net.cpp:141] Setting up inception_4b/relu_1x1
I0403 14:58:00.414474 11439 net.cpp:148] Top shape: 24 160 14 14 (752640)
I0403 14:58:00.414489 11439 net.cpp:156] Memory required for data: 952225056
I0403 14:58:00.414504 11439 layer_factory.hpp:77] Creating layer inception_4b/3x3_reduce
I0403 14:58:00.414526 11439 net.cpp:91] Creating Layer inception_4b/3x3_reduce
I0403 14:58:00.414546 11439 net.cpp:425] inception_4b/3x3_reduce <- inception_4a/output_inception_4a/output_0_split_2
I0403 14:58:00.414571 11439 net.cpp:399] inception_4b/3x3_reduce -> inception_4b/3x3_reduce
I0403 14:58:00.415866 11439 net.cpp:141] Setting up inception_4b/3x3_reduce
I0403 14:58:00.415897 11439 net.cpp:148] Top shape: 24 112 14 14 (526848)
I0403 14:58:00.415915 11439 net.cpp:156] Memory required for data: 954332448
I0403 14:58:00.415933 11439 layer_factory.hpp:77] Creating layer inception_4b/relu_3x3_reduce
I0403 14:58:00.415951 11439 net.cpp:91] Creating Layer inception_4b/relu_3x3_reduce
I0403 14:58:00.415967 11439 net.cpp:425] inception_4b/relu_3x3_reduce <- inception_4b/3x3_reduce
I0403 14:58:00.415987 11439 net.cpp:386] inception_4b/relu_3x3_reduce -> inception_4b/3x3_reduce (in-place)
I0403 14:58:00.416261 11439 net.cpp:141] Setting up inception_4b/relu_3x3_reduce
I0403 14:58:00.416290 11439 net.cpp:148] Top shape: 24 112 14 14 (526848)
I0403 14:58:00.416304 11439 net.cpp:156] Memory required for data: 956439840
I0403 14:58:00.416321 11439 layer_factory.hpp:77] Creating layer inception_4b/3x3
I0403 14:58:00.416342 11439 net.cpp:91] Creating Layer inception_4b/3x3
I0403 14:58:00.416359 11439 net.cpp:425] inception_4b/3x3 <- inception_4b/3x3_reduce
I0403 14:58:00.416378 11439 net.cpp:399] inception_4b/3x3 -> inception_4b/3x3
I0403 14:58:00.419276 11439 net.cpp:141] Setting up inception_4b/3x3
I0403 14:58:00.419304 11439 net.cpp:148] Top shape: 24 224 14 14 (1053696)
I0403 14:58:00.419319 11439 net.cpp:156] Memory required for data: 960654624
I0403 14:58:00.419338 11439 layer_factory.hpp:77] Creating layer inception_4b/relu_3x3
I0403 14:58:00.419359 11439 net.cpp:91] Creating Layer inception_4b/relu_3x3
I0403 14:58:00.419376 11439 net.cpp:425] inception_4b/relu_3x3 <- inception_4b/3x3
I0403 14:58:00.419394 11439 net.cpp:386] inception_4b/relu_3x3 -> inception_4b/3x3 (in-place)
I0403 14:58:00.419572 11439 net.cpp:141] Setting up inception_4b/relu_3x3
I0403 14:58:00.419597 11439 net.cpp:148] Top shape: 24 224 14 14 (1053696)
I0403 14:58:00.419612 11439 net.cpp:156] Memory required for data: 964869408
I0403 14:58:00.419627 11439 layer_factory.hpp:77] Creating layer inception_4b/5x5_reduce
I0403 14:58:00.419651 11439 net.cpp:91] Creating Layer inception_4b/5x5_reduce
I0403 14:58:00.419669 11439 net.cpp:425] inception_4b/5x5_reduce <- inception_4a/output_inception_4a/output_0_split_3
I0403 14:58:00.419688 11439 net.cpp:399] inception_4b/5x5_reduce -> inception_4b/5x5_reduce
I0403 14:58:00.420735 11439 net.cpp:141] Setting up inception_4b/5x5_reduce
I0403 14:58:00.420764 11439 net.cpp:148] Top shape: 24 24 14 14 (112896)
I0403 14:58:00.420780 11439 net.cpp:156] Memory required for data: 965320992
I0403 14:58:00.420799 11439 layer_factory.hpp:77] Creating layer inception_4b/relu_5x5_reduce
I0403 14:58:00.420817 11439 net.cpp:91] Creating Layer inception_4b/relu_5x5_reduce
I0403 14:58:00.420850 11439 net.cpp:425] inception_4b/relu_5x5_reduce <- inception_4b/5x5_reduce
I0403 14:58:00.420871 11439 net.cpp:386] inception_4b/relu_5x5_reduce -> inception_4b/5x5_reduce (in-place)
I0403 14:58:00.421051 11439 net.cpp:141] Setting up inception_4b/relu_5x5_reduce
I0403 14:58:00.421074 11439 net.cpp:148] Top shape: 24 24 14 14 (112896)
I0403 14:58:00.421090 11439 net.cpp:156] Memory required for data: 965772576
I0403 14:58:00.421106 11439 layer_factory.hpp:77] Creating layer inception_4b/5x5
I0403 14:58:00.421128 11439 net.cpp:91] Creating Layer inception_4b/5x5
I0403 14:58:00.421144 11439 net.cpp:425] inception_4b/5x5 <- inception_4b/5x5_reduce
I0403 14:58:00.421166 11439 net.cpp:399] inception_4b/5x5 -> inception_4b/5x5
I0403 14:58:00.422358 11439 net.cpp:141] Setting up inception_4b/5x5
I0403 14:58:00.422389 11439 net.cpp:148] Top shape: 24 64 14 14 (301056)
I0403 14:58:00.422405 11439 net.cpp:156] Memory required for data: 966976800
I0403 14:58:00.422427 11439 layer_factory.hpp:77] Creating layer inception_4b/relu_5x5
I0403 14:58:00.422446 11439 net.cpp:91] Creating Layer inception_4b/relu_5x5
I0403 14:58:00.422462 11439 net.cpp:425] inception_4b/relu_5x5 <- inception_4b/5x5
I0403 14:58:00.422480 11439 net.cpp:386] inception_4b/relu_5x5 -> inception_4b/5x5 (in-place)
I0403 14:58:00.422755 11439 net.cpp:141] Setting up inception_4b/relu_5x5
I0403 14:58:00.422783 11439 net.cpp:148] Top shape: 24 64 14 14 (301056)
I0403 14:58:00.422799 11439 net.cpp:156] Memory required for data: 968181024
I0403 14:58:00.422814 11439 layer_factory.hpp:77] Creating layer inception_4b/pool
I0403 14:58:00.422832 11439 net.cpp:91] Creating Layer inception_4b/pool
I0403 14:58:00.422847 11439 net.cpp:425] inception_4b/pool <- inception_4a/output_inception_4a/output_0_split_4
I0403 14:58:00.422866 11439 net.cpp:399] inception_4b/pool -> inception_4b/pool
I0403 14:58:00.422929 11439 net.cpp:141] Setting up inception_4b/pool
I0403 14:58:00.422951 11439 net.cpp:148] Top shape: 24 512 14 14 (2408448)
I0403 14:58:00.422966 11439 net.cpp:156] Memory required for data: 977814816
I0403 14:58:00.422979 11439 layer_factory.hpp:77] Creating layer inception_4b/pool_proj
I0403 14:58:00.423002 11439 net.cpp:91] Creating Layer inception_4b/pool_proj
I0403 14:58:00.423019 11439 net.cpp:425] inception_4b/pool_proj <- inception_4b/pool
I0403 14:58:00.423039 11439 net.cpp:399] inception_4b/pool_proj -> inception_4b/pool_proj
I0403 14:58:00.424213 11439 net.cpp:141] Setting up inception_4b/pool_proj
I0403 14:58:00.424247 11439 net.cpp:148] Top shape: 24 64 14 14 (301056)
I0403 14:58:00.424264 11439 net.cpp:156] Memory required for data: 979019040
I0403 14:58:00.424283 11439 layer_factory.hpp:77] Creating layer inception_4b/relu_pool_proj
I0403 14:58:00.424300 11439 net.cpp:91] Creating Layer inception_4b/relu_pool_proj
I0403 14:58:00.424315 11439 net.cpp:425] inception_4b/relu_pool_proj <- inception_4b/pool_proj
I0403 14:58:00.424332 11439 net.cpp:386] inception_4b/relu_pool_proj -> inception_4b/pool_proj (in-place)
I0403 14:58:00.424517 11439 net.cpp:141] Setting up inception_4b/relu_pool_proj
I0403 14:58:00.424541 11439 net.cpp:148] Top shape: 24 64 14 14 (301056)
I0403 14:58:00.424556 11439 net.cpp:156] Memory required for data: 980223264
I0403 14:58:00.424572 11439 layer_factory.hpp:77] Creating layer inception_4b/output
I0403 14:58:00.424589 11439 net.cpp:91] Creating Layer inception_4b/output
I0403 14:58:00.424607 11439 net.cpp:425] inception_4b/output <- inception_4b/1x1
I0403 14:58:00.424623 11439 net.cpp:425] inception_4b/output <- inception_4b/3x3
I0403 14:58:00.424640 11439 net.cpp:425] inception_4b/output <- inception_4b/5x5
I0403 14:58:00.424655 11439 net.cpp:425] inception_4b/output <- inception_4b/pool_proj
I0403 14:58:00.424674 11439 net.cpp:399] inception_4b/output -> inception_4b/output
I0403 14:58:00.424720 11439 net.cpp:141] Setting up inception_4b/output
I0403 14:58:00.424746 11439 net.cpp:148] Top shape: 24 512 14 14 (2408448)
I0403 14:58:00.424762 11439 net.cpp:156] Memory required for data: 989857056
I0403 14:58:00.424789 11439 layer_factory.hpp:77] Creating layer inception_4b/output_inception_4b/output_0_split
I0403 14:58:00.424808 11439 net.cpp:91] Creating Layer inception_4b/output_inception_4b/output_0_split
I0403 14:58:00.424823 11439 net.cpp:425] inception_4b/output_inception_4b/output_0_split <- inception_4b/output
I0403 14:58:00.424841 11439 net.cpp:399] inception_4b/output_inception_4b/output_0_split -> inception_4b/output_inception_4b/output_0_split_0
I0403 14:58:00.424865 11439 net.cpp:399] inception_4b/output_inception_4b/output_0_split -> inception_4b/output_inception_4b/output_0_split_1
I0403 14:58:00.424885 11439 net.cpp:399] inception_4b/output_inception_4b/output_0_split -> inception_4b/output_inception_4b/output_0_split_2
I0403 14:58:00.424904 11439 net.cpp:399] inception_4b/output_inception_4b/output_0_split -> inception_4b/output_inception_4b/output_0_split_3
I0403 14:58:00.424983 11439 net.cpp:141] Setting up inception_4b/output_inception_4b/output_0_split
I0403 14:58:00.425007 11439 net.cpp:148] Top shape: 24 512 14 14 (2408448)
I0403 14:58:00.425024 11439 net.cpp:148] Top shape: 24 512 14 14 (2408448)
I0403 14:58:00.425040 11439 net.cpp:148] Top shape: 24 512 14 14 (2408448)
I0403 14:58:00.425055 11439 net.cpp:148] Top shape: 24 512 14 14 (2408448)
I0403 14:58:00.425070 11439 net.cpp:156] Memory required for data: 1028392224
I0403 14:58:00.425084 11439 layer_factory.hpp:77] Creating layer inception_4c/1x1
I0403 14:58:00.425106 11439 net.cpp:91] Creating Layer inception_4c/1x1
I0403 14:58:00.425122 11439 net.cpp:425] inception_4c/1x1 <- inception_4b/output_inception_4b/output_0_split_0
I0403 14:58:00.425143 11439 net.cpp:399] inception_4c/1x1 -> inception_4c/1x1
I0403 14:58:00.426548 11439 net.cpp:141] Setting up inception_4c/1x1
I0403 14:58:00.426576 11439 net.cpp:148] Top shape: 24 128 14 14 (602112)
I0403 14:58:00.426592 11439 net.cpp:156] Memory required for data: 1030800672
I0403 14:58:00.426611 11439 layer_factory.hpp:77] Creating layer inception_4c/relu_1x1
I0403 14:58:00.426632 11439 net.cpp:91] Creating Layer inception_4c/relu_1x1
I0403 14:58:00.426650 11439 net.cpp:425] inception_4c/relu_1x1 <- inception_4c/1x1
I0403 14:58:00.426667 11439 net.cpp:386] inception_4c/relu_1x1 -> inception_4c/1x1 (in-place)
I0403 14:58:00.426858 11439 net.cpp:141] Setting up inception_4c/relu_1x1
I0403 14:58:00.426883 11439 net.cpp:148] Top shape: 24 128 14 14 (602112)
I0403 14:58:00.426898 11439 net.cpp:156] Memory required for data: 1033209120
I0403 14:58:00.426913 11439 layer_factory.hpp:77] Creating layer inception_4c/3x3_reduce
I0403 14:58:00.426935 11439 net.cpp:91] Creating Layer inception_4c/3x3_reduce
I0403 14:58:00.426955 11439 net.cpp:425] inception_4c/3x3_reduce <- inception_4b/output_inception_4b/output_0_split_1
I0403 14:58:00.426976 11439 net.cpp:399] inception_4c/3x3_reduce -> inception_4c/3x3_reduce
I0403 14:58:00.428936 11439 net.cpp:141] Setting up inception_4c/3x3_reduce
I0403 14:58:00.428963 11439 net.cpp:148] Top shape: 24 128 14 14 (602112)
I0403 14:58:00.428979 11439 net.cpp:156] Memory required for data: 1035617568
I0403 14:58:00.428998 11439 layer_factory.hpp:77] Creating layer inception_4c/relu_3x3_reduce
I0403 14:58:00.429019 11439 net.cpp:91] Creating Layer inception_4c/relu_3x3_reduce
I0403 14:58:00.429036 11439 net.cpp:425] inception_4c/relu_3x3_reduce <- inception_4c/3x3_reduce
I0403 14:58:00.429054 11439 net.cpp:386] inception_4c/relu_3x3_reduce -> inception_4c/3x3_reduce (in-place)
I0403 14:58:00.429339 11439 net.cpp:141] Setting up inception_4c/relu_3x3_reduce
I0403 14:58:00.429366 11439 net.cpp:148] Top shape: 24 128 14 14 (602112)
I0403 14:58:00.429383 11439 net.cpp:156] Memory required for data: 1038026016
I0403 14:58:00.429397 11439 layer_factory.hpp:77] Creating layer inception_4c/3x3
I0403 14:58:00.429427 11439 net.cpp:91] Creating Layer inception_4c/3x3
I0403 14:58:00.429446 11439 net.cpp:425] inception_4c/3x3 <- inception_4c/3x3_reduce
I0403 14:58:00.429466 11439 net.cpp:399] inception_4c/3x3 -> inception_4c/3x3
I0403 14:58:00.433046 11439 net.cpp:141] Setting up inception_4c/3x3
I0403 14:58:00.433090 11439 net.cpp:148] Top shape: 24 256 14 14 (1204224)
I0403 14:58:00.433107 11439 net.cpp:156] Memory required for data: 1042842912
I0403 14:58:00.433140 11439 layer_factory.hpp:77] Creating layer inception_4c/relu_3x3
I0403 14:58:00.433161 11439 net.cpp:91] Creating Layer inception_4c/relu_3x3
I0403 14:58:00.433177 11439 net.cpp:425] inception_4c/relu_3x3 <- inception_4c/3x3
I0403 14:58:00.433195 11439 net.cpp:386] inception_4c/relu_3x3 -> inception_4c/3x3 (in-place)
I0403 14:58:00.433377 11439 net.cpp:141] Setting up inception_4c/relu_3x3
I0403 14:58:00.433405 11439 net.cpp:148] Top shape: 24 256 14 14 (1204224)
I0403 14:58:00.433432 11439 net.cpp:156] Memory required for data: 1047659808
I0403 14:58:00.433449 11439 layer_factory.hpp:77] Creating layer inception_4c/5x5_reduce
I0403 14:58:00.433472 11439 net.cpp:91] Creating Layer inception_4c/5x5_reduce
I0403 14:58:00.433490 11439 net.cpp:425] inception_4c/5x5_reduce <- inception_4b/output_inception_4b/output_0_split_2
I0403 14:58:00.433511 11439 net.cpp:399] inception_4c/5x5_reduce -> inception_4c/5x5_reduce
I0403 14:58:00.434590 11439 net.cpp:141] Setting up inception_4c/5x5_reduce
I0403 14:58:00.434623 11439 net.cpp:148] Top shape: 24 24 14 14 (112896)
I0403 14:58:00.434638 11439 net.cpp:156] Memory required for data: 1048111392
I0403 14:58:00.434658 11439 layer_factory.hpp:77] Creating layer inception_4c/relu_5x5_reduce
I0403 14:58:00.434674 11439 net.cpp:91] Creating Layer inception_4c/relu_5x5_reduce
I0403 14:58:00.434691 11439 net.cpp:425] inception_4c/relu_5x5_reduce <- inception_4c/5x5_reduce
I0403 14:58:00.434711 11439 net.cpp:386] inception_4c/relu_5x5_reduce -> inception_4c/5x5_reduce (in-place)
I0403 14:58:00.434897 11439 net.cpp:141] Setting up inception_4c/relu_5x5_reduce
I0403 14:58:00.434921 11439 net.cpp:148] Top shape: 24 24 14 14 (112896)
I0403 14:58:00.434937 11439 net.cpp:156] Memory required for data: 1048562976
I0403 14:58:00.434953 11439 layer_factory.hpp:77] Creating layer inception_4c/5x5
I0403 14:58:00.434975 11439 net.cpp:91] Creating Layer inception_4c/5x5
I0403 14:58:00.434994 11439 net.cpp:425] inception_4c/5x5 <- inception_4c/5x5_reduce
I0403 14:58:00.435016 11439 net.cpp:399] inception_4c/5x5 -> inception_4c/5x5
I0403 14:58:00.436277 11439 net.cpp:141] Setting up inception_4c/5x5
I0403 14:58:00.436306 11439 net.cpp:148] Top shape: 24 64 14 14 (301056)
I0403 14:58:00.436322 11439 net.cpp:156] Memory required for data: 1049767200
I0403 14:58:00.436342 11439 layer_factory.hpp:77] Creating layer inception_4c/relu_5x5
I0403 14:58:00.436360 11439 net.cpp:91] Creating Layer inception_4c/relu_5x5
I0403 14:58:00.436381 11439 net.cpp:425] inception_4c/relu_5x5 <- inception_4c/5x5
I0403 14:58:00.436400 11439 net.cpp:386] inception_4c/relu_5x5 -> inception_4c/5x5 (in-place)
I0403 14:58:00.436710 11439 net.cpp:141] Setting up inception_4c/relu_5x5
I0403 14:58:00.436736 11439 net.cpp:148] Top shape: 24 64 14 14 (301056)
I0403 14:58:00.436753 11439 net.cpp:156] Memory required for data: 1050971424
I0403 14:58:00.436769 11439 layer_factory.hpp:77] Creating layer inception_4c/pool
I0403 14:58:00.436786 11439 net.cpp:91] Creating Layer inception_4c/pool
I0403 14:58:00.436803 11439 net.cpp:425] inception_4c/pool <- inception_4b/output_inception_4b/output_0_split_3
I0403 14:58:00.436825 11439 net.cpp:399] inception_4c/pool -> inception_4c/pool
I0403 14:58:00.436892 11439 net.cpp:141] Setting up inception_4c/pool
I0403 14:58:00.436919 11439 net.cpp:148] Top shape: 24 512 14 14 (2408448)
I0403 14:58:00.436935 11439 net.cpp:156] Memory required for data: 1060605216
I0403 14:58:00.436950 11439 layer_factory.hpp:77] Creating layer inception_4c/pool_proj
I0403 14:58:00.436975 11439 net.cpp:91] Creating Layer inception_4c/pool_proj
I0403 14:58:00.436992 11439 net.cpp:425] inception_4c/pool_proj <- inception_4c/pool
I0403 14:58:00.437012 11439 net.cpp:399] inception_4c/pool_proj -> inception_4c/pool_proj
I0403 14:58:00.438288 11439 net.cpp:141] Setting up inception_4c/pool_proj
I0403 14:58:00.438321 11439 net.cpp:148] Top shape: 24 64 14 14 (301056)
I0403 14:58:00.438352 11439 net.cpp:156] Memory required for data: 1061809440
I0403 14:58:00.438374 11439 layer_factory.hpp:77] Creating layer inception_4c/relu_pool_proj
I0403 14:58:00.438395 11439 net.cpp:91] Creating Layer inception_4c/relu_pool_proj
I0403 14:58:00.438416 11439 net.cpp:425] inception_4c/relu_pool_proj <- inception_4c/pool_proj
I0403 14:58:00.438438 11439 net.cpp:386] inception_4c/relu_pool_proj -> inception_4c/pool_proj (in-place)
I0403 14:58:00.438639 11439 net.cpp:141] Setting up inception_4c/relu_pool_proj
I0403 14:58:00.438668 11439 net.cpp:148] Top shape: 24 64 14 14 (301056)
I0403 14:58:00.438683 11439 net.cpp:156] Memory required for data: 1063013664
I0403 14:58:00.438699 11439 layer_factory.hpp:77] Creating layer inception_4c/output
I0403 14:58:00.438719 11439 net.cpp:91] Creating Layer inception_4c/output
I0403 14:58:00.438735 11439 net.cpp:425] inception_4c/output <- inception_4c/1x1
I0403 14:58:00.438751 11439 net.cpp:425] inception_4c/output <- inception_4c/3x3
I0403 14:58:00.438768 11439 net.cpp:425] inception_4c/output <- inception_4c/5x5
I0403 14:58:00.438786 11439 net.cpp:425] inception_4c/output <- inception_4c/pool_proj
I0403 14:58:00.438807 11439 net.cpp:399] inception_4c/output -> inception_4c/output
I0403 14:58:00.438858 11439 net.cpp:141] Setting up inception_4c/output
I0403 14:58:00.438886 11439 net.cpp:148] Top shape: 24 512 14 14 (2408448)
I0403 14:58:00.438904 11439 net.cpp:156] Memory required for data: 1072647456
I0403 14:58:00.438920 11439 layer_factory.hpp:77] Creating layer inception_4c/output_inception_4c/output_0_split
I0403 14:58:00.438937 11439 net.cpp:91] Creating Layer inception_4c/output_inception_4c/output_0_split
I0403 14:58:00.438953 11439 net.cpp:425] inception_4c/output_inception_4c/output_0_split <- inception_4c/output
I0403 14:58:00.438972 11439 net.cpp:399] inception_4c/output_inception_4c/output_0_split -> inception_4c/output_inception_4c/output_0_split_0
I0403 14:58:00.438998 11439 net.cpp:399] inception_4c/output_inception_4c/output_0_split -> inception_4c/output_inception_4c/output_0_split_1
I0403 14:58:00.439020 11439 net.cpp:399] inception_4c/output_inception_4c/output_0_split -> inception_4c/output_inception_4c/output_0_split_2
I0403 14:58:00.439041 11439 net.cpp:399] inception_4c/output_inception_4c/output_0_split -> inception_4c/output_inception_4c/output_0_split_3
I0403 14:58:00.439131 11439 net.cpp:141] Setting up inception_4c/output_inception_4c/output_0_split
I0403 14:58:00.439157 11439 net.cpp:148] Top shape: 24 512 14 14 (2408448)
I0403 14:58:00.439174 11439 net.cpp:148] Top shape: 24 512 14 14 (2408448)
I0403 14:58:00.439190 11439 net.cpp:148] Top shape: 24 512 14 14 (2408448)
I0403 14:58:00.439208 11439 net.cpp:148] Top shape: 24 512 14 14 (2408448)
I0403 14:58:00.439221 11439 net.cpp:156] Memory required for data: 1111182624
I0403 14:58:00.439237 11439 layer_factory.hpp:77] Creating layer inception_4d/1x1
I0403 14:58:00.439261 11439 net.cpp:91] Creating Layer inception_4d/1x1
I0403 14:58:00.439280 11439 net.cpp:425] inception_4d/1x1 <- inception_4c/output_inception_4c/output_0_split_0
I0403 14:58:00.439303 11439 net.cpp:399] inception_4d/1x1 -> inception_4d/1x1
I0403 14:58:00.440778 11439 net.cpp:141] Setting up inception_4d/1x1
I0403 14:58:00.440807 11439 net.cpp:148] Top shape: 24 112 14 14 (526848)
I0403 14:58:00.440824 11439 net.cpp:156] Memory required for data: 1113290016
I0403 14:58:00.440845 11439 layer_factory.hpp:77] Creating layer inception_4d/relu_1x1
I0403 14:58:00.440865 11439 net.cpp:91] Creating Layer inception_4d/relu_1x1
I0403 14:58:00.440883 11439 net.cpp:425] inception_4d/relu_1x1 <- inception_4d/1x1
I0403 14:58:00.440902 11439 net.cpp:386] inception_4d/relu_1x1 -> inception_4d/1x1 (in-place)
I0403 14:58:00.441100 11439 net.cpp:141] Setting up inception_4d/relu_1x1
I0403 14:58:00.441128 11439 net.cpp:148] Top shape: 24 112 14 14 (526848)
I0403 14:58:00.441145 11439 net.cpp:156] Memory required for data: 1115397408
I0403 14:58:00.441161 11439 layer_factory.hpp:77] Creating layer inception_4d/3x3_reduce
I0403 14:58:00.441200 11439 net.cpp:91] Creating Layer inception_4d/3x3_reduce
I0403 14:58:00.441220 11439 net.cpp:425] inception_4d/3x3_reduce <- inception_4c/output_inception_4c/output_0_split_1
I0403 14:58:00.441241 11439 net.cpp:399] inception_4d/3x3_reduce -> inception_4d/3x3_reduce
I0403 14:58:00.442850 11439 net.cpp:141] Setting up inception_4d/3x3_reduce
I0403 14:58:00.442880 11439 net.cpp:148] Top shape: 24 144 14 14 (677376)
I0403 14:58:00.442898 11439 net.cpp:156] Memory required for data: 1118106912
I0403 14:58:00.442917 11439 layer_factory.hpp:77] Creating layer inception_4d/relu_3x3_reduce
I0403 14:58:00.442936 11439 net.cpp:91] Creating Layer inception_4d/relu_3x3_reduce
I0403 14:58:00.442955 11439 net.cpp:425] inception_4d/relu_3x3_reduce <- inception_4d/3x3_reduce
I0403 14:58:00.442975 11439 net.cpp:386] inception_4d/relu_3x3_reduce -> inception_4d/3x3_reduce (in-place)
I0403 14:58:00.443285 11439 net.cpp:141] Setting up inception_4d/relu_3x3_reduce
I0403 14:58:00.443312 11439 net.cpp:148] Top shape: 24 144 14 14 (677376)
I0403 14:58:00.443328 11439 net.cpp:156] Memory required for data: 1120816416
I0403 14:58:00.443346 11439 layer_factory.hpp:77] Creating layer inception_4d/3x3
I0403 14:58:00.443369 11439 net.cpp:91] Creating Layer inception_4d/3x3
I0403 14:58:00.443389 11439 net.cpp:425] inception_4d/3x3 <- inception_4d/3x3_reduce
I0403 14:58:00.443423 11439 net.cpp:399] inception_4d/3x3 -> inception_4d/3x3
I0403 14:58:00.447867 11439 net.cpp:141] Setting up inception_4d/3x3
I0403 14:58:00.447896 11439 net.cpp:148] Top shape: 24 288 14 14 (1354752)
I0403 14:58:00.447912 11439 net.cpp:156] Memory required for data: 1126235424
I0403 14:58:00.447932 11439 layer_factory.hpp:77] Creating layer inception_4d/relu_3x3
I0403 14:58:00.447952 11439 net.cpp:91] Creating Layer inception_4d/relu_3x3
I0403 14:58:00.447969 11439 net.cpp:425] inception_4d/relu_3x3 <- inception_4d/3x3
I0403 14:58:00.447988 11439 net.cpp:386] inception_4d/relu_3x3 -> inception_4d/3x3 (in-place)
I0403 14:58:00.448179 11439 net.cpp:141] Setting up inception_4d/relu_3x3
I0403 14:58:00.448206 11439 net.cpp:148] Top shape: 24 288 14 14 (1354752)
I0403 14:58:00.448223 11439 net.cpp:156] Memory required for data: 1131654432
I0403 14:58:00.448238 11439 layer_factory.hpp:77] Creating layer inception_4d/5x5_reduce
I0403 14:58:00.448261 11439 net.cpp:91] Creating Layer inception_4d/5x5_reduce
I0403 14:58:00.448281 11439 net.cpp:425] inception_4d/5x5_reduce <- inception_4c/output_inception_4c/output_0_split_2
I0403 14:58:00.448300 11439 net.cpp:399] inception_4d/5x5_reduce -> inception_4d/5x5_reduce
I0403 14:58:00.449488 11439 net.cpp:141] Setting up inception_4d/5x5_reduce
I0403 14:58:00.449517 11439 net.cpp:148] Top shape: 24 32 14 14 (150528)
I0403 14:58:00.449534 11439 net.cpp:156] Memory required for data: 1132256544
I0403 14:58:00.449553 11439 layer_factory.hpp:77] Creating layer inception_4d/relu_5x5_reduce
I0403 14:58:00.449574 11439 net.cpp:91] Creating Layer inception_4d/relu_5x5_reduce
I0403 14:58:00.449592 11439 net.cpp:425] inception_4d/relu_5x5_reduce <- inception_4d/5x5_reduce
I0403 14:58:00.449610 11439 net.cpp:386] inception_4d/relu_5x5_reduce -> inception_4d/5x5_reduce (in-place)
I0403 14:58:00.449806 11439 net.cpp:141] Setting up inception_4d/relu_5x5_reduce
I0403 14:58:00.449834 11439 net.cpp:148] Top shape: 24 32 14 14 (150528)
I0403 14:58:00.449851 11439 net.cpp:156] Memory required for data: 1132858656
I0403 14:58:00.449867 11439 layer_factory.hpp:77] Creating layer inception_4d/5x5
I0403 14:58:00.449889 11439 net.cpp:91] Creating Layer inception_4d/5x5
I0403 14:58:00.449908 11439 net.cpp:425] inception_4d/5x5 <- inception_4d/5x5_reduce
I0403 14:58:00.449928 11439 net.cpp:399] inception_4d/5x5 -> inception_4d/5x5
I0403 14:58:00.451462 11439 net.cpp:141] Setting up inception_4d/5x5
I0403 14:58:00.451495 11439 net.cpp:148] Top shape: 24 64 14 14 (301056)
I0403 14:58:00.451513 11439 net.cpp:156] Memory required for data: 1134062880
I0403 14:58:00.451532 11439 layer_factory.hpp:77] Creating layer inception_4d/relu_5x5
I0403 14:58:00.451567 11439 net.cpp:91] Creating Layer inception_4d/relu_5x5
I0403 14:58:00.451586 11439 net.cpp:425] inception_4d/relu_5x5 <- inception_4d/5x5
I0403 14:58:00.451606 11439 net.cpp:386] inception_4d/relu_5x5 -> inception_4d/5x5 (in-place)
I0403 14:58:00.451917 11439 net.cpp:141] Setting up inception_4d/relu_5x5
I0403 14:58:00.451947 11439 net.cpp:148] Top shape: 24 64 14 14 (301056)
I0403 14:58:00.451964 11439 net.cpp:156] Memory required for data: 1135267104
I0403 14:58:00.451980 11439 layer_factory.hpp:77] Creating layer inception_4d/pool
I0403 14:58:00.451998 11439 net.cpp:91] Creating Layer inception_4d/pool
I0403 14:58:00.452015 11439 net.cpp:425] inception_4d/pool <- inception_4c/output_inception_4c/output_0_split_3
I0403 14:58:00.452038 11439 net.cpp:399] inception_4d/pool -> inception_4d/pool
I0403 14:58:00.452105 11439 net.cpp:141] Setting up inception_4d/pool
I0403 14:58:00.452132 11439 net.cpp:148] Top shape: 24 512 14 14 (2408448)
I0403 14:58:00.452148 11439 net.cpp:156] Memory required for data: 1144900896
I0403 14:58:00.452164 11439 layer_factory.hpp:77] Creating layer inception_4d/pool_proj
I0403 14:58:00.452185 11439 net.cpp:91] Creating Layer inception_4d/pool_proj
I0403 14:58:00.452203 11439 net.cpp:425] inception_4d/pool_proj <- inception_4d/pool
I0403 14:58:00.452225 11439 net.cpp:399] inception_4d/pool_proj -> inception_4d/pool_proj
I0403 14:58:00.454056 11439 net.cpp:141] Setting up inception_4d/pool_proj
I0403 14:58:00.454085 11439 net.cpp:148] Top shape: 24 64 14 14 (301056)
I0403 14:58:00.454102 11439 net.cpp:156] Memory required for data: 1146105120
I0403 14:58:00.454121 11439 layer_factory.hpp:77] Creating layer inception_4d/relu_pool_proj
I0403 14:58:00.454143 11439 net.cpp:91] Creating Layer inception_4d/relu_pool_proj
I0403 14:58:00.454160 11439 net.cpp:425] inception_4d/relu_pool_proj <- inception_4d/pool_proj
I0403 14:58:00.454180 11439 net.cpp:386] inception_4d/relu_pool_proj -> inception_4d/pool_proj (in-place)
I0403 14:58:00.454371 11439 net.cpp:141] Setting up inception_4d/relu_pool_proj
I0403 14:58:00.454399 11439 net.cpp:148] Top shape: 24 64 14 14 (301056)
I0403 14:58:00.454419 11439 net.cpp:156] Memory required for data: 1147309344
I0403 14:58:00.454437 11439 layer_factory.hpp:77] Creating layer inception_4d/output
I0403 14:58:00.454455 11439 net.cpp:91] Creating Layer inception_4d/output
I0403 14:58:00.454471 11439 net.cpp:425] inception_4d/output <- inception_4d/1x1
I0403 14:58:00.454488 11439 net.cpp:425] inception_4d/output <- inception_4d/3x3
I0403 14:58:00.454505 11439 net.cpp:425] inception_4d/output <- inception_4d/5x5
I0403 14:58:00.454524 11439 net.cpp:425] inception_4d/output <- inception_4d/pool_proj
I0403 14:58:00.454542 11439 net.cpp:399] inception_4d/output -> inception_4d/output
I0403 14:58:00.454593 11439 net.cpp:141] Setting up inception_4d/output
I0403 14:58:00.454617 11439 net.cpp:148] Top shape: 24 528 14 14 (2483712)
I0403 14:58:00.454633 11439 net.cpp:156] Memory required for data: 1157244192
I0403 14:58:00.454648 11439 layer_factory.hpp:77] Creating layer inception_4d/output_inception_4d/output_0_split
I0403 14:58:00.454669 11439 net.cpp:91] Creating Layer inception_4d/output_inception_4d/output_0_split
I0403 14:58:00.454687 11439 net.cpp:425] inception_4d/output_inception_4d/output_0_split <- inception_4d/output
I0403 14:58:00.454705 11439 net.cpp:399] inception_4d/output_inception_4d/output_0_split -> inception_4d/output_inception_4d/output_0_split_0
I0403 14:58:00.454726 11439 net.cpp:399] inception_4d/output_inception_4d/output_0_split -> inception_4d/output_inception_4d/output_0_split_1
I0403 14:58:00.454747 11439 net.cpp:399] inception_4d/output_inception_4d/output_0_split -> inception_4d/output_inception_4d/output_0_split_2
I0403 14:58:00.454772 11439 net.cpp:399] inception_4d/output_inception_4d/output_0_split -> inception_4d/output_inception_4d/output_0_split_3
I0403 14:58:00.454794 11439 net.cpp:399] inception_4d/output_inception_4d/output_0_split -> inception_4d/output_inception_4d/output_0_split_4
I0403 14:58:00.454900 11439 net.cpp:141] Setting up inception_4d/output_inception_4d/output_0_split
I0403 14:58:00.454937 11439 net.cpp:148] Top shape: 24 528 14 14 (2483712)
I0403 14:58:00.454955 11439 net.cpp:148] Top shape: 24 528 14 14 (2483712)
I0403 14:58:00.454972 11439 net.cpp:148] Top shape: 24 528 14 14 (2483712)
I0403 14:58:00.454988 11439 net.cpp:148] Top shape: 24 528 14 14 (2483712)
I0403 14:58:00.455005 11439 net.cpp:148] Top shape: 24 528 14 14 (2483712)
I0403 14:58:00.455020 11439 net.cpp:156] Memory required for data: 1206918432
I0403 14:58:00.455036 11439 layer_factory.hpp:77] Creating layer loss2/ave_pool
I0403 14:58:00.455057 11439 net.cpp:91] Creating Layer loss2/ave_pool
I0403 14:58:00.455075 11439 net.cpp:425] loss2/ave_pool <- inception_4d/output_inception_4d/output_0_split_0
I0403 14:58:00.455095 11439 net.cpp:399] loss2/ave_pool -> loss2/ave_pool
I0403 14:58:00.455418 11439 net.cpp:141] Setting up loss2/ave_pool
I0403 14:58:00.455446 11439 net.cpp:148] Top shape: 24 528 4 4 (202752)
I0403 14:58:00.455462 11439 net.cpp:156] Memory required for data: 1207729440
I0403 14:58:00.455477 11439 layer_factory.hpp:77] Creating layer loss2/conv
I0403 14:58:00.455502 11439 net.cpp:91] Creating Layer loss2/conv
I0403 14:58:00.455519 11439 net.cpp:425] loss2/conv <- loss2/ave_pool
I0403 14:58:00.455543 11439 net.cpp:399] loss2/conv -> loss2/conv
I0403 14:58:00.457518 11439 net.cpp:141] Setting up loss2/conv
I0403 14:58:00.457548 11439 net.cpp:148] Top shape: 24 128 4 4 (49152)
I0403 14:58:00.457566 11439 net.cpp:156] Memory required for data: 1207926048
I0403 14:58:00.457587 11439 layer_factory.hpp:77] Creating layer loss2/relu_conv
I0403 14:58:00.457604 11439 net.cpp:91] Creating Layer loss2/relu_conv
I0403 14:58:00.457623 11439 net.cpp:425] loss2/relu_conv <- loss2/conv
I0403 14:58:00.457646 11439 net.cpp:386] loss2/relu_conv -> loss2/conv (in-place)
I0403 14:58:00.457942 11439 net.cpp:141] Setting up loss2/relu_conv
I0403 14:58:00.457969 11439 net.cpp:148] Top shape: 24 128 4 4 (49152)
I0403 14:58:00.457985 11439 net.cpp:156] Memory required for data: 1208122656
I0403 14:58:00.458001 11439 layer_factory.hpp:77] Creating layer loss2/fc
I0403 14:58:00.458021 11439 net.cpp:91] Creating Layer loss2/fc
I0403 14:58:00.458039 11439 net.cpp:425] loss2/fc <- loss2/conv
I0403 14:58:00.458060 11439 net.cpp:399] loss2/fc -> loss2/fc
I0403 14:58:00.476228 11439 net.cpp:141] Setting up loss2/fc
I0403 14:58:00.476290 11439 net.cpp:148] Top shape: 24 1024 (24576)
I0403 14:58:00.476320 11439 net.cpp:156] Memory required for data: 1208220960
I0403 14:58:00.476339 11439 layer_factory.hpp:77] Creating layer loss2/relu_fc
I0403 14:58:00.476359 11439 net.cpp:91] Creating Layer loss2/relu_fc
I0403 14:58:00.476377 11439 net.cpp:425] loss2/relu_fc <- loss2/fc
I0403 14:58:00.476395 11439 net.cpp:386] loss2/relu_fc -> loss2/fc (in-place)
I0403 14:58:00.476737 11439 net.cpp:141] Setting up loss2/relu_fc
I0403 14:58:00.476766 11439 net.cpp:148] Top shape: 24 1024 (24576)
I0403 14:58:00.476783 11439 net.cpp:156] Memory required for data: 1208319264
I0403 14:58:00.476799 11439 layer_factory.hpp:77] Creating layer loss2/drop_fc
I0403 14:58:00.476816 11439 net.cpp:91] Creating Layer loss2/drop_fc
I0403 14:58:00.476833 11439 net.cpp:425] loss2/drop_fc <- loss2/fc
I0403 14:58:00.476851 11439 net.cpp:386] loss2/drop_fc -> loss2/fc (in-place)
I0403 14:58:00.476903 11439 net.cpp:141] Setting up loss2/drop_fc
I0403 14:58:00.476927 11439 net.cpp:148] Top shape: 24 1024 (24576)
I0403 14:58:00.476943 11439 net.cpp:156] Memory required for data: 1208417568
I0403 14:58:00.476959 11439 layer_factory.hpp:77] Creating layer loss2/classifier_plantvillage
I0403 14:58:00.476980 11439 net.cpp:91] Creating Layer loss2/classifier_plantvillage
I0403 14:58:00.476999 11439 net.cpp:425] loss2/classifier_plantvillage <- loss2/fc
I0403 14:58:00.477017 11439 net.cpp:399] loss2/classifier_plantvillage -> loss2/classifier_plantvillage
I0403 14:58:00.477429 11439 net.cpp:141] Setting up loss2/classifier_plantvillage
I0403 14:58:00.477454 11439 net.cpp:148] Top shape: 24 38 (912)
I0403 14:58:00.477494 11439 net.cpp:156] Memory required for data: 1208421216
I0403 14:58:00.477514 11439 layer_factory.hpp:77] Creating layer loss2/classifier_plantvillage_loss2/classifier_plantvillage_0_split
I0403 14:58:00.477532 11439 net.cpp:91] Creating Layer loss2/classifier_plantvillage_loss2/classifier_plantvillage_0_split
I0403 14:58:00.477550 11439 net.cpp:425] loss2/classifier_plantvillage_loss2/classifier_plantvillage_0_split <- loss2/classifier_plantvillage
I0403 14:58:00.477571 11439 net.cpp:399] loss2/classifier_plantvillage_loss2/classifier_plantvillage_0_split -> loss2/classifier_plantvillage_loss2/classifier_plantvillage_0_split_0
I0403 14:58:00.477593 11439 net.cpp:399] loss2/classifier_plantvillage_loss2/classifier_plantvillage_0_split -> loss2/classifier_plantvillage_loss2/classifier_plantvillage_0_split_1
I0403 14:58:00.477614 11439 net.cpp:399] loss2/classifier_plantvillage_loss2/classifier_plantvillage_0_split -> loss2/classifier_plantvillage_loss2/classifier_plantvillage_0_split_2
I0403 14:58:00.477691 11439 net.cpp:141] Setting up loss2/classifier_plantvillage_loss2/classifier_plantvillage_0_split
I0403 14:58:00.477717 11439 net.cpp:148] Top shape: 24 38 (912)
I0403 14:58:00.477735 11439 net.cpp:148] Top shape: 24 38 (912)
I0403 14:58:00.477751 11439 net.cpp:148] Top shape: 24 38 (912)
I0403 14:58:00.477766 11439 net.cpp:156] Memory required for data: 1208432160
I0403 14:58:00.477780 11439 layer_factory.hpp:77] Creating layer inception_4e/1x1
I0403 14:58:00.477802 11439 net.cpp:91] Creating Layer inception_4e/1x1
I0403 14:58:00.477820 11439 net.cpp:425] inception_4e/1x1 <- inception_4d/output_inception_4d/output_0_split_1
I0403 14:58:00.477840 11439 net.cpp:399] inception_4e/1x1 -> inception_4e/1x1
I0403 14:58:00.479750 11439 net.cpp:141] Setting up inception_4e/1x1
I0403 14:58:00.479779 11439 net.cpp:148] Top shape: 24 256 14 14 (1204224)
I0403 14:58:00.479795 11439 net.cpp:156] Memory required for data: 1213249056
I0403 14:58:00.479815 11439 layer_factory.hpp:77] Creating layer inception_4e/relu_1x1
I0403 14:58:00.479833 11439 net.cpp:91] Creating Layer inception_4e/relu_1x1
I0403 14:58:00.479849 11439 net.cpp:425] inception_4e/relu_1x1 <- inception_4e/1x1
I0403 14:58:00.479871 11439 net.cpp:386] inception_4e/relu_1x1 -> inception_4e/1x1 (in-place)
I0403 14:58:00.480178 11439 net.cpp:141] Setting up inception_4e/relu_1x1
I0403 14:58:00.480206 11439 net.cpp:148] Top shape: 24 256 14 14 (1204224)
I0403 14:58:00.480221 11439 net.cpp:156] Memory required for data: 1218065952
I0403 14:58:00.480237 11439 layer_factory.hpp:77] Creating layer inception_4e/3x3_reduce
I0403 14:58:00.480260 11439 net.cpp:91] Creating Layer inception_4e/3x3_reduce
I0403 14:58:00.480278 11439 net.cpp:425] inception_4e/3x3_reduce <- inception_4d/output_inception_4d/output_0_split_2
I0403 14:58:00.480300 11439 net.cpp:399] inception_4e/3x3_reduce -> inception_4e/3x3_reduce
I0403 14:58:00.482501 11439 net.cpp:141] Setting up inception_4e/3x3_reduce
I0403 14:58:00.482534 11439 net.cpp:148] Top shape: 24 160 14 14 (752640)
I0403 14:58:00.482552 11439 net.cpp:156] Memory required for data: 1221076512
I0403 14:58:00.482571 11439 layer_factory.hpp:77] Creating layer inception_4e/relu_3x3_reduce
I0403 14:58:00.482590 11439 net.cpp:91] Creating Layer inception_4e/relu_3x3_reduce
I0403 14:58:00.482607 11439 net.cpp:425] inception_4e/relu_3x3_reduce <- inception_4e/3x3_reduce
I0403 14:58:00.482627 11439 net.cpp:386] inception_4e/relu_3x3_reduce -> inception_4e/3x3_reduce (in-place)
I0403 14:58:00.482823 11439 net.cpp:141] Setting up inception_4e/relu_3x3_reduce
I0403 14:58:00.482849 11439 net.cpp:148] Top shape: 24 160 14 14 (752640)
I0403 14:58:00.482864 11439 net.cpp:156] Memory required for data: 1224087072
I0403 14:58:00.482879 11439 layer_factory.hpp:77] Creating layer inception_4e/3x3
I0403 14:58:00.482903 11439 net.cpp:91] Creating Layer inception_4e/3x3
I0403 14:58:00.482920 11439 net.cpp:425] inception_4e/3x3 <- inception_4e/3x3_reduce
I0403 14:58:00.482942 11439 net.cpp:399] inception_4e/3x3 -> inception_4e/3x3
I0403 14:58:00.488133 11439 net.cpp:141] Setting up inception_4e/3x3
I0403 14:58:00.488178 11439 net.cpp:148] Top shape: 24 320 14 14 (1505280)
I0403 14:58:00.488195 11439 net.cpp:156] Memory required for data: 1230108192
I0403 14:58:00.488215 11439 layer_factory.hpp:77] Creating layer inception_4e/relu_3x3
I0403 14:58:00.488236 11439 net.cpp:91] Creating Layer inception_4e/relu_3x3
I0403 14:58:00.488255 11439 net.cpp:425] inception_4e/relu_3x3 <- inception_4e/3x3
I0403 14:58:00.488272 11439 net.cpp:386] inception_4e/relu_3x3 -> inception_4e/3x3 (in-place)
I0403 14:58:00.488586 11439 net.cpp:141] Setting up inception_4e/relu_3x3
I0403 14:58:00.488615 11439 net.cpp:148] Top shape: 24 320 14 14 (1505280)
I0403 14:58:00.488631 11439 net.cpp:156] Memory required for data: 1236129312
I0403 14:58:00.488646 11439 layer_factory.hpp:77] Creating layer inception_4e/5x5_reduce
I0403 14:58:00.488670 11439 net.cpp:91] Creating Layer inception_4e/5x5_reduce
I0403 14:58:00.488687 11439 net.cpp:425] inception_4e/5x5_reduce <- inception_4d/output_inception_4d/output_0_split_3
I0403 14:58:00.488710 11439 net.cpp:399] inception_4e/5x5_reduce -> inception_4e/5x5_reduce
I0403 14:58:00.489842 11439 net.cpp:141] Setting up inception_4e/5x5_reduce
I0403 14:58:00.489874 11439 net.cpp:148] Top shape: 24 32 14 14 (150528)
I0403 14:58:00.489892 11439 net.cpp:156] Memory required for data: 1236731424
I0403 14:58:00.489912 11439 layer_factory.hpp:77] Creating layer inception_4e/relu_5x5_reduce
I0403 14:58:00.489931 11439 net.cpp:91] Creating Layer inception_4e/relu_5x5_reduce
I0403 14:58:00.489949 11439 net.cpp:425] inception_4e/relu_5x5_reduce <- inception_4e/5x5_reduce
I0403 14:58:00.489970 11439 net.cpp:386] inception_4e/relu_5x5_reduce -> inception_4e/5x5_reduce (in-place)
I0403 14:58:00.490286 11439 net.cpp:141] Setting up inception_4e/relu_5x5_reduce
I0403 14:58:00.490316 11439 net.cpp:148] Top shape: 24 32 14 14 (150528)
I0403 14:58:00.490334 11439 net.cpp:156] Memory required for data: 1237333536
I0403 14:58:00.490350 11439 layer_factory.hpp:77] Creating layer inception_4e/5x5
I0403 14:58:00.490392 11439 net.cpp:91] Creating Layer inception_4e/5x5
I0403 14:58:00.490417 11439 net.cpp:425] inception_4e/5x5 <- inception_4e/5x5_reduce
I0403 14:58:00.490440 11439 net.cpp:399] inception_4e/5x5 -> inception_4e/5x5
I0403 14:58:00.492388 11439 net.cpp:141] Setting up inception_4e/5x5
I0403 14:58:00.492429 11439 net.cpp:148] Top shape: 24 128 14 14 (602112)
I0403 14:58:00.492449 11439 net.cpp:156] Memory required for data: 1239741984
I0403 14:58:00.492470 11439 layer_factory.hpp:77] Creating layer inception_4e/relu_5x5
I0403 14:58:00.492491 11439 net.cpp:91] Creating Layer inception_4e/relu_5x5
I0403 14:58:00.492509 11439 net.cpp:425] inception_4e/relu_5x5 <- inception_4e/5x5
I0403 14:58:00.492529 11439 net.cpp:386] inception_4e/relu_5x5 -> inception_4e/5x5 (in-place)
I0403 14:58:00.492748 11439 net.cpp:141] Setting up inception_4e/relu_5x5
I0403 14:58:00.492775 11439 net.cpp:148] Top shape: 24 128 14 14 (602112)
I0403 14:58:00.492791 11439 net.cpp:156] Memory required for data: 1242150432
I0403 14:58:00.492806 11439 layer_factory.hpp:77] Creating layer inception_4e/pool
I0403 14:58:00.492825 11439 net.cpp:91] Creating Layer inception_4e/pool
I0403 14:58:00.492842 11439 net.cpp:425] inception_4e/pool <- inception_4d/output_inception_4d/output_0_split_4
I0403 14:58:00.492863 11439 net.cpp:399] inception_4e/pool -> inception_4e/pool
I0403 14:58:00.492934 11439 net.cpp:141] Setting up inception_4e/pool
I0403 14:58:00.492959 11439 net.cpp:148] Top shape: 24 528 14 14 (2483712)
I0403 14:58:00.492975 11439 net.cpp:156] Memory required for data: 1252085280
I0403 14:58:00.492990 11439 layer_factory.hpp:77] Creating layer inception_4e/pool_proj
I0403 14:58:00.493016 11439 net.cpp:91] Creating Layer inception_4e/pool_proj
I0403 14:58:00.493034 11439 net.cpp:425] inception_4e/pool_proj <- inception_4e/pool
I0403 14:58:00.493053 11439 net.cpp:399] inception_4e/pool_proj -> inception_4e/pool_proj
I0403 14:58:00.494680 11439 net.cpp:141] Setting up inception_4e/pool_proj
I0403 14:58:00.494720 11439 net.cpp:148] Top shape: 24 128 14 14 (602112)
I0403 14:58:00.494737 11439 net.cpp:156] Memory required for data: 1254493728
I0403 14:58:00.494756 11439 layer_factory.hpp:77] Creating layer inception_4e/relu_pool_proj
I0403 14:58:00.494776 11439 net.cpp:91] Creating Layer inception_4e/relu_pool_proj
I0403 14:58:00.494794 11439 net.cpp:425] inception_4e/relu_pool_proj <- inception_4e/pool_proj
I0403 14:58:00.494812 11439 net.cpp:386] inception_4e/relu_pool_proj -> inception_4e/pool_proj (in-place)
I0403 14:58:00.495103 11439 net.cpp:141] Setting up inception_4e/relu_pool_proj
I0403 14:58:00.495129 11439 net.cpp:148] Top shape: 24 128 14 14 (602112)
I0403 14:58:00.495146 11439 net.cpp:156] Memory required for data: 1256902176
I0403 14:58:00.495160 11439 layer_factory.hpp:77] Creating layer inception_4e/output
I0403 14:58:00.495180 11439 net.cpp:91] Creating Layer inception_4e/output
I0403 14:58:00.495198 11439 net.cpp:425] inception_4e/output <- inception_4e/1x1
I0403 14:58:00.495214 11439 net.cpp:425] inception_4e/output <- inception_4e/3x3
I0403 14:58:00.495231 11439 net.cpp:425] inception_4e/output <- inception_4e/5x5
I0403 14:58:00.495247 11439 net.cpp:425] inception_4e/output <- inception_4e/pool_proj
I0403 14:58:00.495265 11439 net.cpp:399] inception_4e/output -> inception_4e/output
I0403 14:58:00.495316 11439 net.cpp:141] Setting up inception_4e/output
I0403 14:58:00.495340 11439 net.cpp:148] Top shape: 24 832 14 14 (3913728)
I0403 14:58:00.495355 11439 net.cpp:156] Memory required for data: 1272557088
I0403 14:58:00.495370 11439 layer_factory.hpp:77] Creating layer pool4/3x3_s2
I0403 14:58:00.495388 11439 net.cpp:91] Creating Layer pool4/3x3_s2
I0403 14:58:00.495404 11439 net.cpp:425] pool4/3x3_s2 <- inception_4e/output
I0403 14:58:00.495429 11439 net.cpp:399] pool4/3x3_s2 -> pool4/3x3_s2
I0403 14:58:00.495498 11439 net.cpp:141] Setting up pool4/3x3_s2
I0403 14:58:00.495522 11439 net.cpp:148] Top shape: 24 832 7 7 (978432)
I0403 14:58:00.495537 11439 net.cpp:156] Memory required for data: 1276470816
I0403 14:58:00.495551 11439 layer_factory.hpp:77] Creating layer pool4/3x3_s2_pool4/3x3_s2_0_split
I0403 14:58:00.495573 11439 net.cpp:91] Creating Layer pool4/3x3_s2_pool4/3x3_s2_0_split
I0403 14:58:00.495589 11439 net.cpp:425] pool4/3x3_s2_pool4/3x3_s2_0_split <- pool4/3x3_s2
I0403 14:58:00.495610 11439 net.cpp:399] pool4/3x3_s2_pool4/3x3_s2_0_split -> pool4/3x3_s2_pool4/3x3_s2_0_split_0
I0403 14:58:00.495631 11439 net.cpp:399] pool4/3x3_s2_pool4/3x3_s2_0_split -> pool4/3x3_s2_pool4/3x3_s2_0_split_1
I0403 14:58:00.495651 11439 net.cpp:399] pool4/3x3_s2_pool4/3x3_s2_0_split -> pool4/3x3_s2_pool4/3x3_s2_0_split_2
I0403 14:58:00.495671 11439 net.cpp:399] pool4/3x3_s2_pool4/3x3_s2_0_split -> pool4/3x3_s2_pool4/3x3_s2_0_split_3
I0403 14:58:00.495761 11439 net.cpp:141] Setting up pool4/3x3_s2_pool4/3x3_s2_0_split
I0403 14:58:00.495787 11439 net.cpp:148] Top shape: 24 832 7 7 (978432)
I0403 14:58:00.495805 11439 net.cpp:148] Top shape: 24 832 7 7 (978432)
I0403 14:58:00.495821 11439 net.cpp:148] Top shape: 24 832 7 7 (978432)
I0403 14:58:00.495837 11439 net.cpp:148] Top shape: 24 832 7 7 (978432)
I0403 14:58:00.495852 11439 net.cpp:156] Memory required for data: 1292125728
I0403 14:58:00.495867 11439 layer_factory.hpp:77] Creating layer inception_5a/1x1
I0403 14:58:00.495887 11439 net.cpp:91] Creating Layer inception_5a/1x1
I0403 14:58:00.495904 11439 net.cpp:425] inception_5a/1x1 <- pool4/3x3_s2_pool4/3x3_s2_0_split_0
I0403 14:58:00.495925 11439 net.cpp:399] inception_5a/1x1 -> inception_5a/1x1
I0403 14:58:00.498780 11439 net.cpp:141] Setting up inception_5a/1x1
I0403 14:58:00.498811 11439 net.cpp:148] Top shape: 24 256 7 7 (301056)
I0403 14:58:00.498826 11439 net.cpp:156] Memory required for data: 1293329952
I0403 14:58:00.498844 11439 layer_factory.hpp:77] Creating layer inception_5a/relu_1x1
I0403 14:58:00.498862 11439 net.cpp:91] Creating Layer inception_5a/relu_1x1
I0403 14:58:00.498878 11439 net.cpp:425] inception_5a/relu_1x1 <- inception_5a/1x1
I0403 14:58:00.498894 11439 net.cpp:386] inception_5a/relu_1x1 -> inception_5a/1x1 (in-place)
I0403 14:58:00.499204 11439 net.cpp:141] Setting up inception_5a/relu_1x1
I0403 14:58:00.499231 11439 net.cpp:148] Top shape: 24 256 7 7 (301056)
I0403 14:58:00.499248 11439 net.cpp:156] Memory required for data: 1294534176
I0403 14:58:00.499263 11439 layer_factory.hpp:77] Creating layer inception_5a/3x3_reduce
I0403 14:58:00.499284 11439 net.cpp:91] Creating Layer inception_5a/3x3_reduce
I0403 14:58:00.499301 11439 net.cpp:425] inception_5a/3x3_reduce <- pool4/3x3_s2_pool4/3x3_s2_0_split_1
I0403 14:58:00.499321 11439 net.cpp:399] inception_5a/3x3_reduce -> inception_5a/3x3_reduce
I0403 14:58:00.501714 11439 net.cpp:141] Setting up inception_5a/3x3_reduce
I0403 14:58:00.501742 11439 net.cpp:148] Top shape: 24 160 7 7 (188160)
I0403 14:58:00.501757 11439 net.cpp:156] Memory required for data: 1295286816
I0403 14:58:00.501776 11439 layer_factory.hpp:77] Creating layer inception_5a/relu_3x3_reduce
I0403 14:58:00.501798 11439 net.cpp:91] Creating Layer inception_5a/relu_3x3_reduce
I0403 14:58:00.501816 11439 net.cpp:425] inception_5a/relu_3x3_reduce <- inception_5a/3x3_reduce
I0403 14:58:00.501832 11439 net.cpp:386] inception_5a/relu_3x3_reduce -> inception_5a/3x3_reduce (in-place)
I0403 14:58:00.502013 11439 net.cpp:141] Setting up inception_5a/relu_3x3_reduce
I0403 14:58:00.502039 11439 net.cpp:148] Top shape: 24 160 7 7 (188160)
I0403 14:58:00.502054 11439 net.cpp:156] Memory required for data: 1296039456
I0403 14:58:00.502069 11439 layer_factory.hpp:77] Creating layer inception_5a/3x3
I0403 14:58:00.502091 11439 net.cpp:91] Creating Layer inception_5a/3x3
I0403 14:58:00.502109 11439 net.cpp:425] inception_5a/3x3 <- inception_5a/3x3_reduce
I0403 14:58:00.502127 11439 net.cpp:399] inception_5a/3x3 -> inception_5a/3x3
I0403 14:58:00.507112 11439 net.cpp:141] Setting up inception_5a/3x3
I0403 14:58:00.507143 11439 net.cpp:148] Top shape: 24 320 7 7 (376320)
I0403 14:58:00.507158 11439 net.cpp:156] Memory required for data: 1297544736
I0403 14:58:00.507179 11439 layer_factory.hpp:77] Creating layer inception_5a/relu_3x3
I0403 14:58:00.507199 11439 net.cpp:91] Creating Layer inception_5a/relu_3x3
I0403 14:58:00.507215 11439 net.cpp:425] inception_5a/relu_3x3 <- inception_5a/3x3
I0403 14:58:00.507233 11439 net.cpp:386] inception_5a/relu_3x3 -> inception_5a/3x3 (in-place)
I0403 14:58:00.507536 11439 net.cpp:141] Setting up inception_5a/relu_3x3
I0403 14:58:00.507565 11439 net.cpp:148] Top shape: 24 320 7 7 (376320)
I0403 14:58:00.507580 11439 net.cpp:156] Memory required for data: 1299050016
I0403 14:58:00.507596 11439 layer_factory.hpp:77] Creating layer inception_5a/5x5_reduce
I0403 14:58:00.507621 11439 net.cpp:91] Creating Layer inception_5a/5x5_reduce
I0403 14:58:00.507638 11439 net.cpp:425] inception_5a/5x5_reduce <- pool4/3x3_s2_pool4/3x3_s2_0_split_2
I0403 14:58:00.507658 11439 net.cpp:399] inception_5a/5x5_reduce -> inception_5a/5x5_reduce
I0403 14:58:00.508823 11439 net.cpp:141] Setting up inception_5a/5x5_reduce
I0403 14:58:00.508854 11439 net.cpp:148] Top shape: 24 32 7 7 (37632)
I0403 14:58:00.508872 11439 net.cpp:156] Memory required for data: 1299200544
I0403 14:58:00.508890 11439 layer_factory.hpp:77] Creating layer inception_5a/relu_5x5_reduce
I0403 14:58:00.508908 11439 net.cpp:91] Creating Layer inception_5a/relu_5x5_reduce
I0403 14:58:00.508925 11439 net.cpp:425] inception_5a/relu_5x5_reduce <- inception_5a/5x5_reduce
I0403 14:58:00.508946 11439 net.cpp:386] inception_5a/relu_5x5_reduce -> inception_5a/5x5_reduce (in-place)
I0403 14:58:00.509249 11439 net.cpp:141] Setting up inception_5a/relu_5x5_reduce
I0403 14:58:00.509275 11439 net.cpp:148] Top shape: 24 32 7 7 (37632)
I0403 14:58:00.509291 11439 net.cpp:156] Memory required for data: 1299351072
I0403 14:58:00.509306 11439 layer_factory.hpp:77] Creating layer inception_5a/5x5
I0403 14:58:00.509330 11439 net.cpp:91] Creating Layer inception_5a/5x5
I0403 14:58:00.509347 11439 net.cpp:425] inception_5a/5x5 <- inception_5a/5x5_reduce
I0403 14:58:00.509369 11439 net.cpp:399] inception_5a/5x5 -> inception_5a/5x5
I0403 14:58:00.511128 11439 net.cpp:141] Setting up inception_5a/5x5
I0403 14:58:00.511169 11439 net.cpp:148] Top shape: 24 128 7 7 (150528)
I0403 14:58:00.511186 11439 net.cpp:156] Memory required for data: 1299953184
I0403 14:58:00.511205 11439 layer_factory.hpp:77] Creating layer inception_5a/relu_5x5
I0403 14:58:00.511226 11439 net.cpp:91] Creating Layer inception_5a/relu_5x5
I0403 14:58:00.511245 11439 net.cpp:425] inception_5a/relu_5x5 <- inception_5a/5x5
I0403 14:58:00.511263 11439 net.cpp:386] inception_5a/relu_5x5 -> inception_5a/5x5 (in-place)
I0403 14:58:00.511476 11439 net.cpp:141] Setting up inception_5a/relu_5x5
I0403 14:58:00.511500 11439 net.cpp:148] Top shape: 24 128 7 7 (150528)
I0403 14:58:00.511515 11439 net.cpp:156] Memory required for data: 1300555296
I0403 14:58:00.511530 11439 layer_factory.hpp:77] Creating layer inception_5a/pool
I0403 14:58:00.511548 11439 net.cpp:91] Creating Layer inception_5a/pool
I0403 14:58:00.511564 11439 net.cpp:425] inception_5a/pool <- pool4/3x3_s2_pool4/3x3_s2_0_split_3
I0403 14:58:00.511585 11439 net.cpp:399] inception_5a/pool -> inception_5a/pool
I0403 14:58:00.511656 11439 net.cpp:141] Setting up inception_5a/pool
I0403 14:58:00.511679 11439 net.cpp:148] Top shape: 24 832 7 7 (978432)
I0403 14:58:00.511694 11439 net.cpp:156] Memory required for data: 1304469024
I0403 14:58:00.511709 11439 layer_factory.hpp:77] Creating layer inception_5a/pool_proj
I0403 14:58:00.511734 11439 net.cpp:91] Creating Layer inception_5a/pool_proj
I0403 14:58:00.511750 11439 net.cpp:425] inception_5a/pool_proj <- inception_5a/pool
I0403 14:58:00.511770 11439 net.cpp:399] inception_5a/pool_proj -> inception_5a/pool_proj
I0403 14:58:00.514070 11439 net.cpp:141] Setting up inception_5a/pool_proj
I0403 14:58:00.514099 11439 net.cpp:148] Top shape: 24 128 7 7 (150528)
I0403 14:58:00.514116 11439 net.cpp:156] Memory required for data: 1305071136
I0403 14:58:00.514134 11439 layer_factory.hpp:77] Creating layer inception_5a/relu_pool_proj
I0403 14:58:00.514154 11439 net.cpp:91] Creating Layer inception_5a/relu_pool_proj
I0403 14:58:00.514171 11439 net.cpp:425] inception_5a/relu_pool_proj <- inception_5a/pool_proj
I0403 14:58:00.514189 11439 net.cpp:386] inception_5a/relu_pool_proj -> inception_5a/pool_proj (in-place)
I0403 14:58:00.514487 11439 net.cpp:141] Setting up inception_5a/relu_pool_proj
I0403 14:58:00.514513 11439 net.cpp:148] Top shape: 24 128 7 7 (150528)
I0403 14:58:00.514528 11439 net.cpp:156] Memory required for data: 1305673248
I0403 14:58:00.514542 11439 layer_factory.hpp:77] Creating layer inception_5a/output
I0403 14:58:00.514562 11439 net.cpp:91] Creating Layer inception_5a/output
I0403 14:58:00.514580 11439 net.cpp:425] inception_5a/output <- inception_5a/1x1
I0403 14:58:00.514597 11439 net.cpp:425] inception_5a/output <- inception_5a/3x3
I0403 14:58:00.514613 11439 net.cpp:425] inception_5a/output <- inception_5a/5x5
I0403 14:58:00.514628 11439 net.cpp:425] inception_5a/output <- inception_5a/pool_proj
I0403 14:58:00.514645 11439 net.cpp:399] inception_5a/output -> inception_5a/output
I0403 14:58:00.514696 11439 net.cpp:141] Setting up inception_5a/output
I0403 14:58:00.514720 11439 net.cpp:148] Top shape: 24 832 7 7 (978432)
I0403 14:58:00.514734 11439 net.cpp:156] Memory required for data: 1309586976
I0403 14:58:00.514750 11439 layer_factory.hpp:77] Creating layer inception_5a/output_inception_5a/output_0_split
I0403 14:58:00.514766 11439 net.cpp:91] Creating Layer inception_5a/output_inception_5a/output_0_split
I0403 14:58:00.514781 11439 net.cpp:425] inception_5a/output_inception_5a/output_0_split <- inception_5a/output
I0403 14:58:00.514801 11439 net.cpp:399] inception_5a/output_inception_5a/output_0_split -> inception_5a/output_inception_5a/output_0_split_0
I0403 14:58:00.514822 11439 net.cpp:399] inception_5a/output_inception_5a/output_0_split -> inception_5a/output_inception_5a/output_0_split_1
I0403 14:58:00.514842 11439 net.cpp:399] inception_5a/output_inception_5a/output_0_split -> inception_5a/output_inception_5a/output_0_split_2
I0403 14:58:00.514861 11439 net.cpp:399] inception_5a/output_inception_5a/output_0_split -> inception_5a/output_inception_5a/output_0_split_3
I0403 14:58:00.514971 11439 net.cpp:141] Setting up inception_5a/output_inception_5a/output_0_split
I0403 14:58:00.514993 11439 net.cpp:148] Top shape: 24 832 7 7 (978432)
I0403 14:58:00.515009 11439 net.cpp:148] Top shape: 24 832 7 7 (978432)
I0403 14:58:00.515024 11439 net.cpp:148] Top shape: 24 832 7 7 (978432)
I0403 14:58:00.515039 11439 net.cpp:148] Top shape: 24 832 7 7 (978432)
I0403 14:58:00.515053 11439 net.cpp:156] Memory required for data: 1325241888
I0403 14:58:00.515067 11439 layer_factory.hpp:77] Creating layer inception_5b/1x1
I0403 14:58:00.515089 11439 net.cpp:91] Creating Layer inception_5b/1x1
I0403 14:58:00.515106 11439 net.cpp:425] inception_5b/1x1 <- inception_5a/output_inception_5a/output_0_split_0
I0403 14:58:00.515127 11439 net.cpp:399] inception_5b/1x1 -> inception_5b/1x1
I0403 14:58:00.518797 11439 net.cpp:141] Setting up inception_5b/1x1
I0403 14:58:00.518826 11439 net.cpp:148] Top shape: 24 384 7 7 (451584)
I0403 14:58:00.518842 11439 net.cpp:156] Memory required for data: 1327048224
I0403 14:58:00.518860 11439 layer_factory.hpp:77] Creating layer inception_5b/relu_1x1
I0403 14:58:00.518880 11439 net.cpp:91] Creating Layer inception_5b/relu_1x1
I0403 14:58:00.518898 11439 net.cpp:425] inception_5b/relu_1x1 <- inception_5b/1x1
I0403 14:58:00.518914 11439 net.cpp:386] inception_5b/relu_1x1 -> inception_5b/1x1 (in-place)
I0403 14:58:00.519214 11439 net.cpp:141] Setting up inception_5b/relu_1x1
I0403 14:58:00.519240 11439 net.cpp:148] Top shape: 24 384 7 7 (451584)
I0403 14:58:00.519254 11439 net.cpp:156] Memory required for data: 1328854560
I0403 14:58:00.519269 11439 layer_factory.hpp:77] Creating layer inception_5b/3x3_reduce
I0403 14:58:00.519291 11439 net.cpp:91] Creating Layer inception_5b/3x3_reduce
I0403 14:58:00.519309 11439 net.cpp:425] inception_5b/3x3_reduce <- inception_5a/output_inception_5a/output_0_split_1
I0403 14:58:00.519330 11439 net.cpp:399] inception_5b/3x3_reduce -> inception_5b/3x3_reduce
I0403 14:58:00.521932 11439 net.cpp:141] Setting up inception_5b/3x3_reduce
I0403 14:58:00.521961 11439 net.cpp:148] Top shape: 24 192 7 7 (225792)
I0403 14:58:00.521977 11439 net.cpp:156] Memory required for data: 1329757728
I0403 14:58:00.521996 11439 layer_factory.hpp:77] Creating layer inception_5b/relu_3x3_reduce
I0403 14:58:00.522017 11439 net.cpp:91] Creating Layer inception_5b/relu_3x3_reduce
I0403 14:58:00.522032 11439 net.cpp:425] inception_5b/relu_3x3_reduce <- inception_5b/3x3_reduce
I0403 14:58:00.522050 11439 net.cpp:386] inception_5b/relu_3x3_reduce -> inception_5b/3x3_reduce (in-place)
I0403 14:58:00.522238 11439 net.cpp:141] Setting up inception_5b/relu_3x3_reduce
I0403 14:58:00.522264 11439 net.cpp:148] Top shape: 24 192 7 7 (225792)
I0403 14:58:00.522279 11439 net.cpp:156] Memory required for data: 1330660896
I0403 14:58:00.522294 11439 layer_factory.hpp:77] Creating layer inception_5b/3x3
I0403 14:58:00.522316 11439 net.cpp:91] Creating Layer inception_5b/3x3
I0403 14:58:00.522335 11439 net.cpp:425] inception_5b/3x3 <- inception_5b/3x3_reduce
I0403 14:58:00.522353 11439 net.cpp:399] inception_5b/3x3 -> inception_5b/3x3
I0403 14:58:00.529011 11439 net.cpp:141] Setting up inception_5b/3x3
I0403 14:58:00.529038 11439 net.cpp:148] Top shape: 24 384 7 7 (451584)
I0403 14:58:00.529054 11439 net.cpp:156] Memory required for data: 1332467232
I0403 14:58:00.529073 11439 layer_factory.hpp:77] Creating layer inception_5b/relu_3x3
I0403 14:58:00.529094 11439 net.cpp:91] Creating Layer inception_5b/relu_3x3
I0403 14:58:00.529111 11439 net.cpp:425] inception_5b/relu_3x3 <- inception_5b/3x3
I0403 14:58:00.529131 11439 net.cpp:386] inception_5b/relu_3x3 -> inception_5b/3x3 (in-place)
I0403 14:58:00.529441 11439 net.cpp:141] Setting up inception_5b/relu_3x3
I0403 14:58:00.529469 11439 net.cpp:148] Top shape: 24 384 7 7 (451584)
I0403 14:58:00.529484 11439 net.cpp:156] Memory required for data: 1334273568
I0403 14:58:00.529498 11439 layer_factory.hpp:77] Creating layer inception_5b/5x5_reduce
I0403 14:58:00.529536 11439 net.cpp:91] Creating Layer inception_5b/5x5_reduce
I0403 14:58:00.529556 11439 net.cpp:425] inception_5b/5x5_reduce <- inception_5a/output_inception_5a/output_0_split_2
I0403 14:58:00.529580 11439 net.cpp:399] inception_5b/5x5_reduce -> inception_5b/5x5_reduce
I0403 14:58:00.530947 11439 net.cpp:141] Setting up inception_5b/5x5_reduce
I0403 14:58:00.530977 11439 net.cpp:148] Top shape: 24 48 7 7 (56448)
I0403 14:58:00.530994 11439 net.cpp:156] Memory required for data: 1334499360
I0403 14:58:00.531013 11439 layer_factory.hpp:77] Creating layer inception_5b/relu_5x5_reduce
I0403 14:58:00.531035 11439 net.cpp:91] Creating Layer inception_5b/relu_5x5_reduce
I0403 14:58:00.531054 11439 net.cpp:425] inception_5b/relu_5x5_reduce <- inception_5b/5x5_reduce
I0403 14:58:00.531075 11439 net.cpp:386] inception_5b/relu_5x5_reduce -> inception_5b/5x5_reduce (in-place)
I0403 14:58:00.531483 11439 net.cpp:141] Setting up inception_5b/relu_5x5_reduce
I0403 14:58:00.531524 11439 net.cpp:148] Top shape: 24 48 7 7 (56448)
I0403 14:58:00.531540 11439 net.cpp:156] Memory required for data: 1334725152
I0403 14:58:00.531555 11439 layer_factory.hpp:77] Creating layer inception_5b/5x5
I0403 14:58:00.531579 11439 net.cpp:91] Creating Layer inception_5b/5x5
I0403 14:58:00.531596 11439 net.cpp:425] inception_5b/5x5 <- inception_5b/5x5_reduce
I0403 14:58:00.531616 11439 net.cpp:399] inception_5b/5x5 -> inception_5b/5x5
I0403 14:58:00.533758 11439 net.cpp:141] Setting up inception_5b/5x5
I0403 14:58:00.533790 11439 net.cpp:148] Top shape: 24 128 7 7 (150528)
I0403 14:58:00.533807 11439 net.cpp:156] Memory required for data: 1335327264
I0403 14:58:00.533828 11439 layer_factory.hpp:77] Creating layer inception_5b/relu_5x5
I0403 14:58:00.533845 11439 net.cpp:91] Creating Layer inception_5b/relu_5x5
I0403 14:58:00.533862 11439 net.cpp:425] inception_5b/relu_5x5 <- inception_5b/5x5
I0403 14:58:00.533881 11439 net.cpp:386] inception_5b/relu_5x5 -> inception_5b/5x5 (in-place)
I0403 14:58:00.534088 11439 net.cpp:141] Setting up inception_5b/relu_5x5
I0403 14:58:00.534113 11439 net.cpp:148] Top shape: 24 128 7 7 (150528)
I0403 14:58:00.534129 11439 net.cpp:156] Memory required for data: 1335929376
I0403 14:58:00.534145 11439 layer_factory.hpp:77] Creating layer inception_5b/pool
I0403 14:58:00.534163 11439 net.cpp:91] Creating Layer inception_5b/pool
I0403 14:58:00.534180 11439 net.cpp:425] inception_5b/pool <- inception_5a/output_inception_5a/output_0_split_3
I0403 14:58:00.534204 11439 net.cpp:399] inception_5b/pool -> inception_5b/pool
I0403 14:58:00.534278 11439 net.cpp:141] Setting up inception_5b/pool
I0403 14:58:00.534306 11439 net.cpp:148] Top shape: 24 832 7 7 (978432)
I0403 14:58:00.534322 11439 net.cpp:156] Memory required for data: 1339843104
I0403 14:58:00.534337 11439 layer_factory.hpp:77] Creating layer inception_5b/pool_proj
I0403 14:58:00.534360 11439 net.cpp:91] Creating Layer inception_5b/pool_proj
I0403 14:58:00.534379 11439 net.cpp:425] inception_5b/pool_proj <- inception_5b/pool
I0403 14:58:00.534399 11439 net.cpp:399] inception_5b/pool_proj -> inception_5b/pool_proj
I0403 14:58:00.536778 11439 net.cpp:141] Setting up inception_5b/pool_proj
I0403 14:58:00.536808 11439 net.cpp:148] Top shape: 24 128 7 7 (150528)
I0403 14:58:00.536825 11439 net.cpp:156] Memory required for data: 1340445216
I0403 14:58:00.536844 11439 layer_factory.hpp:77] Creating layer inception_5b/relu_pool_proj
I0403 14:58:00.536866 11439 net.cpp:91] Creating Layer inception_5b/relu_pool_proj
I0403 14:58:00.536885 11439 net.cpp:425] inception_5b/relu_pool_proj <- inception_5b/pool_proj
I0403 14:58:00.536903 11439 net.cpp:386] inception_5b/relu_pool_proj -> inception_5b/pool_proj (in-place)
I0403 14:58:00.537214 11439 net.cpp:141] Setting up inception_5b/relu_pool_proj
I0403 14:58:00.537241 11439 net.cpp:148] Top shape: 24 128 7 7 (150528)
I0403 14:58:00.537257 11439 net.cpp:156] Memory required for data: 1341047328
I0403 14:58:00.537272 11439 layer_factory.hpp:77] Creating layer inception_5b/output
I0403 14:58:00.537293 11439 net.cpp:91] Creating Layer inception_5b/output
I0403 14:58:00.537328 11439 net.cpp:425] inception_5b/output <- inception_5b/1x1
I0403 14:58:00.537348 11439 net.cpp:425] inception_5b/output <- inception_5b/3x3
I0403 14:58:00.537364 11439 net.cpp:425] inception_5b/output <- inception_5b/5x5
I0403 14:58:00.537381 11439 net.cpp:425] inception_5b/output <- inception_5b/pool_proj
I0403 14:58:00.537400 11439 net.cpp:399] inception_5b/output -> inception_5b/output
I0403 14:58:00.537461 11439 net.cpp:141] Setting up inception_5b/output
I0403 14:58:00.537487 11439 net.cpp:148] Top shape: 24 1024 7 7 (1204224)
I0403 14:58:00.537503 11439 net.cpp:156] Memory required for data: 1345864224
I0403 14:58:00.537518 11439 layer_factory.hpp:77] Creating layer pool5/7x7_s1
I0403 14:58:00.537535 11439 net.cpp:91] Creating Layer pool5/7x7_s1
I0403 14:58:00.537552 11439 net.cpp:425] pool5/7x7_s1 <- inception_5b/output
I0403 14:58:00.537575 11439 net.cpp:399] pool5/7x7_s1 -> pool5/7x7_s1
I0403 14:58:00.537801 11439 net.cpp:141] Setting up pool5/7x7_s1
I0403 14:58:00.537829 11439 net.cpp:148] Top shape: 24 1024 1 1 (24576)
I0403 14:58:00.537847 11439 net.cpp:156] Memory required for data: 1345962528
I0403 14:58:00.537863 11439 layer_factory.hpp:77] Creating layer pool5/drop_7x7_s1
I0403 14:58:00.537881 11439 net.cpp:91] Creating Layer pool5/drop_7x7_s1
I0403 14:58:00.537897 11439 net.cpp:425] pool5/drop_7x7_s1 <- pool5/7x7_s1
I0403 14:58:00.537916 11439 net.cpp:386] pool5/drop_7x7_s1 -> pool5/7x7_s1 (in-place)
I0403 14:58:00.537971 11439 net.cpp:141] Setting up pool5/drop_7x7_s1
I0403 14:58:00.537994 11439 net.cpp:148] Top shape: 24 1024 1 1 (24576)
I0403 14:58:00.538010 11439 net.cpp:156] Memory required for data: 1346060832
I0403 14:58:00.538025 11439 layer_factory.hpp:77] Creating layer loss3/classifier_plantvillage
I0403 14:58:00.538048 11439 net.cpp:91] Creating Layer loss3/classifier_plantvillage
I0403 14:58:00.538065 11439 net.cpp:425] loss3/classifier_plantvillage <- pool5/7x7_s1
I0403 14:58:00.538085 11439 net.cpp:399] loss3/classifier_plantvillage -> loss3/classifier_plantvillage
I0403 14:58:00.538532 11439 net.cpp:141] Setting up loss3/classifier_plantvillage
I0403 14:58:00.538557 11439 net.cpp:148] Top shape: 24 38 (912)
I0403 14:58:00.538573 11439 net.cpp:156] Memory required for data: 1346064480
I0403 14:58:00.538591 11439 layer_factory.hpp:77] Creating layer loss3/classifier_plantvillage_loss3/classifier_plantvillage_0_split
I0403 14:58:00.538610 11439 net.cpp:91] Creating Layer loss3/classifier_plantvillage_loss3/classifier_plantvillage_0_split
I0403 14:58:00.538627 11439 net.cpp:425] loss3/classifier_plantvillage_loss3/classifier_plantvillage_0_split <- loss3/classifier_plantvillage
I0403 14:58:00.538650 11439 net.cpp:399] loss3/classifier_plantvillage_loss3/classifier_plantvillage_0_split -> loss3/classifier_plantvillage_loss3/classifier_plantvillage_0_split_0
I0403 14:58:00.538672 11439 net.cpp:399] loss3/classifier_plantvillage_loss3/classifier_plantvillage_0_split -> loss3/classifier_plantvillage_loss3/classifier_plantvillage_0_split_1
I0403 14:58:00.538693 11439 net.cpp:399] loss3/classifier_plantvillage_loss3/classifier_plantvillage_0_split -> loss3/classifier_plantvillage_loss3/classifier_plantvillage_0_split_2
I0403 14:58:00.538714 11439 net.cpp:399] loss3/classifier_plantvillage_loss3/classifier_plantvillage_0_split -> loss3/classifier_plantvillage_loss3/classifier_plantvillage_0_split_3
I0403 14:58:00.538820 11439 net.cpp:141] Setting up loss3/classifier_plantvillage_loss3/classifier_plantvillage_0_split
I0403 14:58:00.538843 11439 net.cpp:148] Top shape: 24 38 (912)
I0403 14:58:00.538861 11439 net.cpp:148] Top shape: 24 38 (912)
I0403 14:58:00.538877 11439 net.cpp:148] Top shape: 24 38 (912)
I0403 14:58:00.538893 11439 net.cpp:148] Top shape: 24 38 (912)
I0403 14:58:00.538908 11439 net.cpp:156] Memory required for data: 1346079072
I0403 14:58:00.538923 11439 layer_factory.hpp:77] Creating layer loss1/loss
I0403 14:58:00.538945 11439 net.cpp:91] Creating Layer loss1/loss
I0403 14:58:00.538964 11439 net.cpp:425] loss1/loss <- loss1/classifier_plantvillage_loss1/classifier_plantvillage_0_split_0
I0403 14:58:00.538995 11439 net.cpp:425] loss1/loss <- label_data_1_split_0
…
