…
I0403 15:23:55.753343 11907 net.cpp:313] The NetState phase (1) differed from the phase (0) specified by a rule in layer data
I0403 15:23:55.754449 11907 net.cpp:49] Initializing net from parameters: 
state {
  phase: TEST
}
layer {
  name: "data"
  type: "Data"
  top: "data"
  top: "label"
  include {
    phase: TEST
  }
  transform_param {
    mirror: false
    crop_size: 224
    mean_file: "/home/mohanty/data/final_dataset/lmdb/segmented-50-50/mean.binaryproto"
  }
  data_param {
    source: "/home/mohanty/data/final_dataset/lmdb/segmented-50-50/test_db"
    batch_size: 24
    backend: LMDB
  }
}
layer {
  name: "conv1/7x7_s2"
  type: "Convolution"
  bottom: "data"
  top: "conv1/7x7_s2"
  param {
    lr_mult: 1
    decay_mult: 1
  }
  param {
    lr_mult: 2
    decay_mult: 0
  }
  convolution_param {
    num_output: 64
    pad: 3
    kernel_size: 7
    stride: 2
    weight_filler {
      type: "xavier"
      std: 0.1
    }
    bias_filler {
      type: "constant"
      value: 0.2
    }
  }
}
layer {
  name: "conv1/relu_7x7"
  type: "ReLU"
  bottom: "conv1/7x7_s2"
  top: "conv1/7x7_s2"
}
layer {
  name: "pool1/3x3_s2"
  type: "Pooling"
  bottom: "conv1/7x7_s2"
  top: "pool1/3x3_s2"
  pooling_param {
    pool: MAX
    kernel_size: 3
    stride: 2
  }
}
layer {
  name: "pool1/norm1"
  type: "LRN"
  bottom: "pool1/3x3_s2"
  top: "pool1/norm1"
  lrn_param {
    local_size: 5
    alpha: 0.0001
    beta: 0.75
  }
}
layer {
  name: "conv2/3x3_reduce"
  type: "Convolution"
  bottom: "pool1/norm1"
  top: "conv2/3x3_reduce"
  param {
    lr_mult: 1
    decay_mult: 1
  }
  param {
    lr_mult: 2
    decay_mult: 0
  }
  convolution_param {
    num_output: 64
    kernel_size: 1
    weight_filler {
      type: "xavier"
      std: 0.1
    }
    bias_filler {
      type: "constant"
      value: 0.2
    }
  }
}
layer {
  name: "conv2/relu_3x3_reduce"
  type: "ReLU"
  bottom: "conv2/3x3_reduce"
  top: "conv2/3x3_reduce"
}
layer {
  name: "conv2/3x3"
  type: "Convolution"
  bottom: "conv2/3x3_reduce"
  top: "conv2/3x3"
  param {
    lr_mult: 1
    decay_mult: 1
  }
  param {
    lr_mult: 2
    decay_mult: 0
  }
  convolution_param {
    num_output: 192
    pad: 1
    kernel_size: 3
    weight_filler {
      type: "xavier"
      std: 0.03
    }
    bias_filler {
      type: "constant"
      value: 0.2
    }
  }
}
layer {
  name: "conv2/relu_3x3"
  type: "ReLU"
  bottom: "conv2/3x3"
  top: "conv2/3x3"
}
layer {
  name: "conv2/norm2"
  type: "LRN"
  bottom: "conv2/3x3"
  top: "conv2/norm2"
  lrn_param {
    local_size: 5
    alpha: 0.0001
    beta: 0.75
  }
}
layer {
  name: "pool2/3x3_s2"
  type: "Pooling"
  bottom: "conv2/norm2"
  top: "pool2/3x3_s2"
  pooling_param {
    pool: MAX
    kernel_size: 3
    stride: 2
  }
}
layer {
  name: "inception_3a/1x1"
  type: "Convolution"
  bottom: "pool2/3x3_s2"
  top: "inception_3a/1x1"
  param {
    lr_mult: 1
    decay_mult: 1
  }
  param {
    lr_mult: 2
    decay_mult: 0
  }
  convolution_param {
    num_output: 64
    kernel_size: 1
    weight_filler {
      type: "xavier"
      std: 0.03
    }
    bias_filler {
      type: "constant"
      value: 0.2
    }
  }
}
layer {
  name: "inception_3a/relu_1x1"
  type: "ReLU"
  bottom: "inception_3a/1x1"
  top: "inception_3a/1x1"
}
layer {
  name: "inception_3a/3x3_reduce"
  type: "Convolution"
  bottom: "pool2/3x3_s2"
  top: "inception_3a/3x3_reduce"
  param {
    lr_mult: 1
    decay_mult: 1
  }
  param {
    lr_mult: 2
    decay_mult: 0
  }
  convolution_param {
    num_output: 96
    kernel_size: 1
    weight_filler {
      type: "xavier"
      std: 0.09
    }
    bias_filler {
      type: "constant"
      value: 0.2
    }
  }
}
layer {
  name: "inception_3a/relu_3x3_reduce"
  type: "ReLU"
  bottom: "inception_3a/3x3_reduce"
  top: "inception_3a/3x3_reduce"
}
layer {
  name: "inception_3a/3x3"
  type: "Convolution"
  bottom: "inception_3a/3x3_reduce"
  top: "inception_3a/3x3"
  param {
    lr_mult: 1
    decay_mult: 1
  }
  param {
    lr_mult: 2
    decay_mult: 0
  }
  convolution_param {
    num_output: 128
    pad: 1
    kernel_size: 3
    weight_filler {
      type: "xavier"
      std: 0.03
    }
    bias_filler {
      type: "constant"
      value: 0.2
    }
  }
}
layer {
  name: "inception_3a/relu_3x3"
  type: "ReLU"
  bottom: "inception_3a/3x3"
  top: "inception_3a/3x3"
}
layer {
  name: "inception_3a/5x5_reduce"
  type: "Convolution"
  bottom: "pool2/3x3_s2"
  top: "inception_3a/5x5_reduce"
  param {
    lr_mult: 1
    decay_mult: 1
  }
  param {
    lr_mult: 2
    decay_mult: 0
  }
  convolution_param {
    num_output: 16
    kernel_size: 1
    weight_filler {
      type: "xavier"
      std: 0.2
    }
    bias_filler {
      type: "constant"
      value: 0.2
    }
  }
}
layer {
  name: "inception_3a/relu_5x5_reduce"
  type: "ReLU"
  bottom: "inception_3a/5x5_reduce"
  top: "inception_3a/5x5_reduce"
}
layer {
  name: "inception_3a/5x5"
  type: "Convolution"
  bottom: "inception_3a/5x5_reduce"
  top: "inception_3a/5x5"
  param {
    lr_mult: 1
    decay_mult: 1
  }
  param {
    lr_mult: 2
    decay_mult: 0
  }
  convolution_param {
    num_output: 32
    pad: 2
    kernel_size: 5
    weight_filler {
      type: "xavier"
      std: 0.03
    }
    bias_filler {
      type: "constant"
      value: 0.2
    }
  }
}
layer {
  name: "inception_3a/relu_5x5"
  type: "ReLU"
  bottom: "inception_3a/5x5"
  top: "inception_3a/5x5"
}
layer {
  name: "inception_3a/pool"
  type: "Pooling"
  bottom: "pool2/3x3_s2"
  top: "inception_3a/pool"
  pooling_param {
    pool: MAX
    kernel_size: 3
    stride: 1
    pad: 1
  }
}
layer {
  name: "inception_3a/pool_proj"
  type: "Convolution"
  bottom: "inception_3a/pool"
  top: "inception_3a/pool_proj"
  param {
    lr_mult: 1
    decay_mult: 1
  }
  param {
    lr_mult: 2
    decay_mult: 0
  }
  convolution_param {
    num_output: 32
    kernel_size: 1
    weight_filler {
      type: "xavier"
      std: 0.1
    }
    bias_filler {
      type: "constant"
      value: 0.2
    }
  }
}
layer {
  name: "inception_3a/relu_pool_proj"
  type: "ReLU"
  bottom: "inception_3a/pool_proj"
  top: "inception_3a/pool_proj"
}
layer {
  name: "inception_3a/output"
  type: "Concat"
  bottom: "inception_3a/1x1"
  bottom: "inception_3a/3x3"
  bottom: "inception_3a/5x5"
  bottom: "inception_3a/pool_proj"
  top: "inception_3a/output"
}
layer {
  name: "inception_3b/1x1"
  type: "Convolution"
  bottom: "inception_3a/output"
  top: "inception_3b/1x1"
  param {
    lr_mult: 1
    decay_mult: 1
  }
  param {
    lr_mult: 2
    decay_mult: 0
  }
  convolution_param {
    num_output: 128
    kernel_size: 1
    weight_filler {
      type: "xavier"
      std: 0.03
    }
    bias_filler {
      type: "constant"
      value: 0.2
    }
  }
}
layer {
  name: "inception_3b/relu_1x1"
  type: "ReLU"
  bottom: "inception_3b/1x1"
  top: "inception_3b/1x1"
}
layer {
  name: "inception_3b/3x3_reduce"
  type: "Convolution"
  bottom: "inception_3a/output"
  top: "inception_3b/3x3_reduce"
  param {
    lr_mult: 1
    decay_mult: 1
  }
  param {
    lr_mult: 2
    decay_mult: 0
  }
  convolution_param {
    num_output: 128
    kernel_size: 1
    weight_filler {
      type: "xavier"
      std: 0.09
    }
    bias_filler {
      type: "constant"
      value: 0.2
    }
  }
}
layer {
  name: "inception_3b/relu_3x3_reduce"
  type: "ReLU"
  bottom: "inception_3b/3x3_reduce"
  top: "inception_3b/3x3_reduce"
}
layer {
  name: "inception_3b/3x3"
  type: "Convolution"
  bottom: "inception_3b/3x3_reduce"
  top: "inception_3b/3x3"
  param {
    lr_mult: 1
    decay_mult: 1
  }
  param {
    lr_mult: 2
    decay_mult: 0
  }
  convolution_param {
    num_output: 192
    pad: 1
    kernel_size: 3
    weight_filler {
      type: "xavier"
      std: 0.03
    }
    bias_filler {
      type: "constant"
      value: 0.2
    }
  }
}
layer {
  name: "inception_3b/relu_3x3"
  type: "ReLU"
  bottom: "inception_3b/3x3"
  top: "inception_3b/3x3"
}
layer {
  name: "inception_3b/5x5_reduce"
  type: "Convolution"
  bottom: "inception_3a/output"
  top: "inception_3b/5x5_reduce"
  param {
    lr_mult: 1
    decay_mult: 1
  }
  param {
    lr_mult: 2
    decay_mult: 0
  }
  convolution_param {
    num_output: 32
    kernel_size: 1
    weight_filler {
      type: "xavier"
      std: 0.2
    }
    bias_filler {
      type: "constant"
      value: 0.2
    }
  }
}
layer {
  name: "inception_3b/relu_5x5_reduce"
  type: "ReLU"
  bottom: "inception_3b/5x5_reduce"
  top: "inception_3b/5x5_reduce"
}
layer {
  name: "inception_3b/5x5"
  type: "Convolution"
  bottom: "inception_3b/5x5_reduce"
  top: "inception_3b/5x5"
  param {
    lr_mult: 1
    decay_mult: 1
  }
  param {
    lr_mult: 2
    decay_mult: 0
  }
  convolution_param {
    num_output: 96
    pad: 2
    kernel_size: 5
    weight_filler {
      type: "xavier"
      std: 0.03
    }
    bias_filler {
      type: "constant"
      value: 0.2
    }
  }
}
layer {
  name: "inception_3b/relu_5x5"
  type: "ReLU"
  bottom: "inception_3b/5x5"
  top: "inception_3b/5x5"
}
layer {
  name: "inception_3b/pool"
  type: "Pooling"
  bottom: "inception_3a/output"
  top: "inception_3b/pool"
  pooling_param {
    pool: MAX
    kernel_size: 3
    stride: 1
    pad: 1
  }
}
layer {
  name: "inception_3b/pool_proj"
  type: "Convolution"
  bottom: "inception_3b/pool"
  top: "inception_3b/pool_proj"
  param {
    lr_mult: 1
    decay_mult: 1
  }
  param {
    lr_mult: 2
    decay_mult: 0
  }
  convolution_param {
    num_output: 64
    kernel_size: 1
    weight_filler {
      type: "xavier"
      std: 0.1
    }
    bias_filler {
      type: "constant"
      value: 0.2
    }
  }
}
layer {
  name: "inception_3b/relu_pool_proj"
  type: "ReLU"
  bottom: "inception_3b/pool_proj"
  top: "inception_3b/pool_proj"
}
layer {
  name: "inception_3b/output"
  type: "Concat"
  bottom: "inception_3b/1x1"
  bottom: "inception_3b/3x3"
  bottom: "inception_3b/5x5"
  bottom: "inception_3b/pool_proj"
  top: "inception_3b/output"
}
layer {
  name: "pool3/3x3_s2"
  type: "Pooling"
  bottom: "inception_3b/output"
  top: "pool3/3x3_s2"
  pooling_param {
    pool: MAX
    kernel_size: 3
    stride: 2
  }
}
layer {
  name: "inception_4a/1x1"
  type: "Convolution"
  bottom: "pool3/3x3_s2"
  top: "inception_4a/1x1"
  param {
    lr_mult: 1
    decay_mult: 1
  }
  param {
    lr_mult: 2
    decay_mult: 0
  }
  convolution_param {
    num_output: 192
    kernel_size: 1
    weight_filler {
      type: "xavier"
      std: 0.03
    }
    bias_filler {
      type: "constant"
      value: 0.2
    }
  }
}
layer {
  name: "inception_4a/relu_1x1"
  type: "ReLU"
  bottom: "inception_4a/1x1"
  top: "inception_4a/1x1"
}
layer {
  name: "inception_4a/3x3_reduce"
  type: "Convolution"
  bottom: "pool3/3x3_s2"
  top: "inception_4a/3x3_reduce"
  param {
    lr_mult: 1
    decay_mult: 1
  }
  param {
    lr_mult: 2
    decay_mult: 0
  }
  convolution_param {
    num_output: 96
    kernel_size: 1
    weight_filler {
      type: "xavier"
      std: 0.09
    }
    bias_filler {
      type: "constant"
      value: 0.2
    }
  }
}
layer {
  name: "inception_4a/relu_3x3_reduce"
  type: "ReLU"
  bottom: "inception_4a/3x3_reduce"
  top: "inception_4a/3x3_reduce"
}
layer {
  name: "inception_4a/3x3"
  type: "Convolution"
  bottom: "inception_4a/3x3_reduce"
  top: "inception_4a/3x3"
  param {
    lr_mult: 1
    decay_mult: 1
  }
  param {
    lr_mult: 2
    decay_mult: 0
  }
  convolution_param {
    num_output: 208
    pad: 1
    kernel_size: 3
    weight_filler {
      type: "xavier"
      std: 0.03
    }
    bias_filler {
      type: "constant"
      value: 0.2
    }
  }
}
layer {
  name: "inception_4a/relu_3x3"
  type: "ReLU"
  bottom: "inception_4a/3x3"
  top: "inception_4a/3x3"
}
layer {
  name: "inception_4a/5x5_reduce"
  type: "Convolution"
  bottom: "pool3/3x3_s2"
  top: "inception_4a/5x5_reduce"
  param {
    lr_mult: 1
    decay_mult: 1
  }
  param {
    lr_mult: 2
    decay_mult: 0
  }
  convolution_param {
    num_output: 16
    kernel_size: 1
    weight_filler {
      type: "xavier"
      std: 0.2
    }
    bias_filler {
      type: "constant"
      value: 0.2
    }
  }
}
layer {
  name: "inception_4a/relu_5x5_reduce"
  type: "ReLU"
  bottom: "inception_4a/5x5_reduce"
  top: "inception_4a/5x5_reduce"
}
layer {
  name: "inception_4a/5x5"
  type: "Convolution"
  bottom: "inception_4a/5x5_reduce"
  top: "inception_4a/5x5"
  param {
    lr_mult: 1
    decay_mult: 1
  }
  param {
    lr_mult: 2
    decay_mult: 0
  }
  convolution_param {
    num_output: 48
    pad: 2
    kernel_size: 5
    weight_filler {
      type: "xavier"
      std: 0.03
    }
    bias_filler {
      type: "constant"
      value: 0.2
    }
  }
}
layer {
  name: "inception_4a/relu_5x5"
  type: "ReLU"
  bottom: "inception_4a/5x5"
  top: "inception_4a/5x5"
}
layer {
  name: "inception_4a/pool"
  type: "Pooling"
  bottom: "pool3/3x3_s2"
  top: "inception_4a/pool"
  pooling_param {
    pool: MAX
    kernel_size: 3
    stride: 1
    pad: 1
  }
}
layer {
  name: "inception_4a/pool_proj"
  type: "Convolution"
  bottom: "inception_4a/pool"
  top: "inception_4a/pool_proj"
  param {
    lr_mult: 1
    decay_mult: 1
  }
  param {
    lr_mult: 2
    decay_mult: 0
  }
  convolution_param {
    num_output: 64
    kernel_size: 1
    weight_filler {
      type: "xavier"
      std: 0.1
    }
    bias_filler {
      type: "constant"
      value: 0.2
    }
  }
}
layer {
  name: "inception_4a/relu_pool_proj"
  type: "ReLU"
  bottom: "inception_4a/pool_proj"
  top: "inception_4a/pool_proj"
}
layer {
  name: "inception_4a/output"
  type: "Concat"
  bottom: "inception_4a/1x1"
  bottom: "inception_4a/3x3"
  bottom: "inception_4a/5x5"
  bottom: "inception_4a/pool_proj"
  top: "inception_4a/output"
}
layer {
  name: "loss1/ave_pool"
  type: "Pooling"
  bottom: "inception_4a/output"
  top: "loss1/ave_pool"
  pooling_param {
    pool: AVE
    kernel_size: 5
    stride: 3
  }
}
layer {
  name: "loss1/conv"
  type: "Convolution"
  bottom: "loss1/ave_pool"
  top: "loss1/conv"
  param {
    lr_mult: 1
    decay_mult: 1
  }
  param {
    lr_mult: 2
    decay_mult: 0
  }
  convolution_param {
    num_output: 128
    kernel_size: 1
    weight_filler {
      type: "xavier"
      std: 0.08
    }
    bias_filler {
      type: "constant"
      value: 0.2
    }
  }
}
layer {
  name: "loss1/relu_conv"
  type: "ReLU"
  bottom: "loss1/conv"
  top: "loss1/conv"
}
layer {
  name: "loss1/fc"
  type: "InnerProduct"
  bottom: "loss1/conv"
  top: "loss1/fc"
  param {
    lr_mult: 1
    decay_mult: 1
  }
  param {
    lr_mult: 2
    decay_mult: 0
  }
  inner_product_param {
    num_output: 1024
    weight_filler {
      type: "xavier"
      std: 0.02
    }
    bias_filler {
      type: "constant"
      value: 0.2
    }
  }
}
layer {
  name: "loss1/relu_fc"
  type: "ReLU"
  bottom: "loss1/fc"
  top: "loss1/fc"
}
layer {
  name: "loss1/drop_fc"
  type: "Dropout"
  bottom: "loss1/fc"
  top: "loss1/fc"
  dropout_param {
    dropout_ratio: 0.7
  }
}
layer {
  name: "loss1/classifier_plantvillage"
  type: "InnerProduct"
  bottom: "loss1/fc"
  top: "loss1/classifier_plantvillage"
  param {
    lr_mult: 1
    decay_mult: 1
  }
  param {
    lr_mult: 2
    decay_mult: 0
  }
  inner_product_param {
    num_output: 38
    weight_filler {
      type: "xavier"
      std: 0.0009765625
    }
    bias_filler {
      type: "constant"
      value: 0
    }
  }
}
layer {
  name: "inception_4b/1x1"
  type: "Convolution"
  bottom: "inception_4a/output"
  top: "inception_4b/1x1"
  param {
    lr_mult: 1
    decay_mult: 1
  }
  param {
    lr_mult: 2
    decay_mult: 0
  }
  convolution_param {
    num_output: 160
    kernel_size: 1
    weight_filler {
      type: "xavier"
      std: 0.03
    }
    bias_filler {
      type: "constant"
      value: 0.2
    }
  }
}
layer {
  name: "inception_4b/relu_1x1"
  type: "ReLU"
  bottom: "inception_4b/1x1"
  top: "inception_4b/1x1"
}
layer {
  name: "inception_4b/3x3_reduce"
  type: "Convolution"
  bottom: "inception_4a/output"
  top: "inception_4b/3x3_reduce"
  param {
    lr_mult: 1
    decay_mult: 1
  }
  param {
    lr_mult: 2
    decay_mult: 0
  }
  convolution_param {
    num_output: 112
    kernel_size: 1
    weight_filler {
      type: "xavier"
      std: 0.09
    }
    bias_filler {
      type: "constant"
      value: 0.2
    }
  }
}
layer {
  name: "inception_4b/relu_3x3_reduce"
  type: "ReLU"
  bottom: "inception_4b/3x3_reduce"
  top: "inception_4b/3x3_reduce"
}
layer {
  name: "inception_4b/3x3"
  type: "Convolution"
  bottom: "inception_4b/3x3_reduce"
  top: "inception_4b/3x3"
  param {
    lr_mult: 1
    decay_mult: 1
  }
  param {
    lr_mult: 2
    decay_mult: 0
  }
  convolution_param {
    num_output: 224
    pad: 1
    kernel_size: 3
    weight_filler {
      type: "xavier"
      std: 0.03
    }
    bias_filler {
      type: "constant"
      value: 0.2
    }
  }
}
layer {
  name: "inception_4b/relu_3x3"
  type: "ReLU"
  bottom: "inception_4b/3x3"
  top: "inception_4b/3x3"
}
layer {
  name: "inception_4b/5x5_reduce"
  type: "Convolution"
  bottom: "inception_4a/output"
  top: "inception_4b/5x5_reduce"
  param {
    lr_mult: 1
    decay_mult: 1
  }
  param {
    lr_mult: 2
    decay_mult: 0
  }
  convolution_param {
    num_output: 24
    kernel_size: 1
    weight_filler {
      type: "xavier"
      std: 0.2
    }
    bias_filler {
      type: "constant"
      value: 0.2
    }
  }
}
layer {
  name: "inception_4b/relu_5x5_reduce"
  type: "ReLU"
  bottom: "inception_4b/5x5_reduce"
  top: "inception_4b/5x5_reduce"
}
layer {
  name: "inception_4b/5x5"
  type: "Convolution"
  bottom: "inception_4b/5x5_reduce"
  top: "inception_4b/5x5"
  param {
    lr_mult: 1
    decay_mult: 1
  }
  param {
    lr_mult: 2
    decay_mult: 0
  }
  convolution_param {
    num_output: 64
    pad: 2
    kernel_size: 5
    weight_filler {
      type: "xavier"
      std: 0.03
    }
    bias_filler {
      type: "constant"
      value: 0.2
    }
  }
}
layer {
  name: "inception_4b/relu_5x5"
  type: "ReLU"
  bottom: "inception_4b/5x5"
  top: "inception_4b/5x5"
}
layer {
  name: "inception_4b/pool"
  type: "Pooling"
  bottom: "inception_4a/output"
  top: "inception_4b/pool"
  pooling_param {
    pool: MAX
    kernel_size: 3
    stride: 1
    pad: 1
  }
}
layer {
  name: "inception_4b/pool_proj"
  type: "Convolution"
  bottom: "inception_4b/pool"
  top: "inception_4b/pool_proj"
  param {
    lr_mult: 1
    decay_mult: 1
  }
  param {
    lr_mult: 2
    decay_mult: 0
  }
  convolution_param {
    num_output: 64
    kernel_size: 1
    weight_filler {
      type: "xavier"
      std: 0.1
    }
    bias_filler {
      type: "constant"
      value: 0.2
    }
  }
}
layer {
  name: "inception_4b/relu_pool_proj"
  type: "ReLU"
  bottom: "inception_4b/pool_proj"
  top: "inception_4b/pool_proj"
}
layer {
  name: "inception_4b/output"
  type: "Concat"
  bottom: "inception_4b/1x1"
  bottom: "inception_4b/3x3"
  bottom: "inception_4b/5x5"
  bottom: "inception_4b/pool_proj"
  top: "inception_4b/output"
}
layer {
  name: "inception_4c/1x1"
  type: "Convolution"
  bottom: "inception_4b/output"
  top: "inception_4c/1x1"
  param {
    lr_mult: 1
    decay_mult: 1
  }
  param {
    lr_mult: 2
    decay_mult: 0
  }
  convolution_param {
    num_output: 128
    kernel_size: 1
    weight_filler {
      type: "xavier"
      std: 0.03
    }
    bias_filler {
      type: "constant"
      value: 0.2
    }
  }
}
layer {
  name: "inception_4c/relu_1x1"
  type: "ReLU"
  bottom: "inception_4c/1x1"
  top: "inception_4c/1x1"
}
layer {
  name: "inception_4c/3x3_reduce"
  type: "Convolution"
  bottom: "inception_4b/output"
  top: "inception_4c/3x3_reduce"
  param {
    lr_mult: 1
    decay_mult: 1
  }
  param {
    lr_mult: 2
    decay_mult: 0
  }
  convolution_param {
    num_output: 128
    kernel_size: 1
    weight_filler {
      type: "xavier"
      std: 0.09
    }
    bias_filler {
      type: "constant"
      value: 0.2
    }
  }
}
layer {
  name: "inception_4c/relu_3x3_reduce"
  type: "ReLU"
  bottom: "inception_4c/3x3_reduce"
  top: "inception_4c/3x3_reduce"
}
layer {
  name: "inception_4c/3x3"
  type: "Convolution"
  bottom: "inception_4c/3x3_reduce"
  top: "inception_4c/3x3"
  param {
    lr_mult: 1
    decay_mult: 1
  }
  param {
    lr_mult: 2
    decay_mult: 0
  }
  convolution_param {
    num_output: 256
    pad: 1
    kernel_size: 3
    weight_filler {
      type: "xavier"
      std: 0.03
    }
    bias_filler {
      type: "constant"
      value: 0.2
    }
  }
}
layer {
  name: "inception_4c/relu_3x3"
  type: "ReLU"
  bottom: "inception_4c/3x3"
  top: "inception_4c/3x3"
}
layer {
  name: "inception_4c/5x5_reduce"
  type: "Convolution"
  bottom: "inception_4b/output"
  top: "inception_4c/5x5_reduce"
  param {
    lr_mult: 1
    decay_mult: 1
  }
  param {
    lr_mult: 2
    decay_mult: 0
  }
  convolution_param {
    num_output: 24
    kernel_size: 1
    weight_filler {
      type: "xavier"
      std: 0.2
    }
    bias_filler {
      type: "constant"
      value: 0.2
    }
  }
}
layer {
  name: "inception_4c/relu_5x5_reduce"
  type: "ReLU"
  bottom: "inception_4c/5x5_reduce"
  top: "inception_4c/5x5_reduce"
}
layer {
  name: "inception_4c/5x5"
  type: "Convolution"
  bottom: "inception_4c/5x5_reduce"
  top: "inception_4c/5x5"
  param {
    lr_mult: 1
    decay_mult: 1
  }
  param {
    lr_mult: 2
    decay_mult: 0
  }
  convolution_param {
    num_output: 64
    pad: 2
    kernel_size: 5
    weight_filler {
      type: "xavier"
      std: 0.03
    }
    bias_filler {
      type: "constant"
      value: 0.2
    }
  }
}
layer {
  name: "inception_4c/relu_5x5"
  type: "ReLU"
  bottom: "inception_4c/5x5"
  top: "inception_4c/5x5"
}
layer {
  name: "inception_4c/pool"
  type: "Pooling"
  bottom: "inception_4b/output"
  top: "inception_4c/pool"
  pooling_param {
    pool: MAX
    kernel_size: 3
    stride: 1
    pad: 1
  }
}
layer {
  name: "inception_4c/pool_proj"
  type: "Convolution"
  bottom: "inception_4c/pool"
  top: "inception_4c/pool_proj"
  param {
    lr_mult: 1
    decay_mult: 1
  }
  param {
    lr_mult: 2
    decay_mult: 0
  }
  convolution_param {
    num_output: 64
    kernel_size: 1
    weight_filler {
      type: "xavier"
      std: 0.1
    }
    bias_filler {
      type: "constant"
      value: 0.2
    }
  }
}
layer {
  name: "inception_4c/relu_pool_proj"
  type: "ReLU"
  bottom: "inception_4c/pool_proj"
  top: "inception_4c/pool_proj"
}
layer {
  name: "inception_4c/output"
  type: "Concat"
  bottom: "inception_4c/1x1"
  bottom: "inception_4c/3x3"
  bottom: "inception_4c/5x5"
  bottom: "inception_4c/pool_proj"
  top: "inception_4c/output"
}
layer {
  name: "inception_4d/1x1"
  type: "Convolution"
  bottom: "inception_4c/output"
  top: "inception_4d/1x1"
  param {
    lr_mult: 1
    decay_mult: 1
  }
  param {
    lr_mult: 2
    decay_mult: 0
  }
  convolution_param {
    num_output: 112
    kernel_size: 1
    weight_filler {
      type: "xavier"
      std: 0.03
    }
    bias_filler {
      type: "constant"
      value: 0.2
    }
  }
}
layer {
  name: "inception_4d/relu_1x1"
  type: "ReLU"
  bottom: "inception_4d/1x1"
  top: "inception_4d/1x1"
}
layer {
  name: "inception_4d/3x3_reduce"
  type: "Convolution"
  bottom: "inception_4c/output"
  top: "inception_4d/3x3_reduce"
  param {
    lr_mult: 1
    decay_mult: 1
  }
  param {
    lr_mult: 2
    decay_mult: 0
  }
  convolution_param {
    num_output: 144
    kernel_size: 1
    weight_filler {
      type: "xavier"
      std: 0.09
    }
    bias_filler {
      type: "constant"
      value: 0.2
    }
  }
}
layer {
  name: "inception_4d/relu_3x3_reduce"
  type: "ReLU"
  bottom: "inception_4d/3x3_reduce"
  top: "inception_4d/3x3_reduce"
}
layer {
  name: "inception_4d/3x3"
  type: "Convolution"
  bottom: "inception_4d/3x3_reduce"
  top: "inception_4d/3x3"
  param {
    lr_mult: 1
    decay_mult: 1
  }
  param {
    lr_mult: 2
    decay_mult: 0
  }
  convolution_param {
    num_output: 288
    pad: 1
    kernel_size: 3
    weight_filler {
      type: "xavier"
      std: 0.03
    }
    bias_filler {
      type: "constant"
      value: 0.2
    }
  }
}
layer {
  name: "inception_4d/relu_3x3"
  type: "ReLU"
  bottom: "inception_4d/3x3"
  top: "inception_4d/3x3"
}
layer {
  name: "inception_4d/5x5_reduce"
  type: "Convolution"
  bottom: "inception_4c/output"
  top: "inception_4d/5x5_reduce"
  param {
    lr_mult: 1
    decay_mult: 1
  }
  param {
    lr_mult: 2
    decay_mult: 0
  }
  convolution_param {
    num_output: 32
    kernel_size: 1
    weight_filler {
      type: "xavier"
      std: 0.2
    }
    bias_filler {
      type: "constant"
      value: 0.2
    }
  }
}
layer {
  name: "inception_4d/relu_5x5_reduce"
  type: "ReLU"
  bottom: "inception_4d/5x5_reduce"
  top: "inception_4d/5x5_reduce"
}
layer {
  name: "inception_4d/5x5"
  type: "Convolution"
  bottom: "inception_4d/5x5_reduce"
  top: "inception_4d/5x5"
  param {
    lr_mult: 1
    decay_mult: 1
  }
  param {
    lr_mult: 2
    decay_mult: 0
  }
  convolution_param {
    num_output: 64
    pad: 2
    kernel_size: 5
    weight_filler {
      type: "xavier"
      std: 0.03
    }
    bias_filler {
      type: "constant"
      value: 0.2
    }
  }
}
layer {
  name: "inception_4d/relu_5x5"
  type: "ReLU"
  bottom: "inception_4d/5x5"
  top: "inception_4d/5x5"
}
layer {
  name: "inception_4d/pool"
  type: "Pooling"
  bottom: "inception_4c/output"
  top: "inception_4d/pool"
  pooling_param {
    pool: MAX
    kernel_size: 3
    stride: 1
    pad: 1
  }
}
layer {
  name: "inception_4d/pool_proj"
  type: "Convolution"
  bottom: "inception_4d/pool"
  top: "inception_4d/pool_proj"
  param {
    lr_mult: 1
    decay_mult: 1
  }
  param {
    lr_mult: 2
    decay_mult: 0
  }
  convolution_param {
    num_output: 64
    kernel_size: 1
    weight_filler {
      type: "xavier"
      std: 0.1
    }
    bias_filler {
      type: "constant"
      value: 0.2
    }
  }
}
layer {
  name: "inception_4d/relu_pool_proj"
  type: "ReLU"
  bottom: "inception_4d/pool_proj"
  top: "inception_4d/pool_proj"
}
layer {
  name: "inception_4d/output"
  type: "Concat"
  bottom: "inception_4d/1x1"
  bottom: "inception_4d/3x3"
  bottom: "inception_4d/5x5"
  bottom: "inception_4d/pool_proj"
  top: "inception_4d/output"
}
layer {
  name: "loss2/ave_pool"
  type: "Pooling"
  bottom: "inception_4d/output"
  top: "loss2/ave_pool"
  pooling_param {
    pool: AVE
    kernel_size: 5
    stride: 3
  }
}
layer {
  name: "loss2/conv"
  type: "Convolution"
  bottom: "loss2/ave_pool"
  top: "loss2/conv"
  param {
    lr_mult: 1
    decay_mult: 1
  }
  param {
    lr_mult: 2
    decay_mult: 0
  }
  convolution_param {
    num_output: 128
    kernel_size: 1
    weight_filler {
      type: "xavier"
      std: 0.08
    }
    bias_filler {
      type: "constant"
      value: 0.2
    }
  }
}
layer {
  name: "loss2/relu_conv"
  type: "ReLU"
  bottom: "loss2/conv"
  top: "loss2/conv"
}
layer {
  name: "loss2/fc"
  type: "InnerProduct"
  bottom: "loss2/conv"
  top: "loss2/fc"
  param {
    lr_mult: 1
    decay_mult: 1
  }
  param {
    lr_mult: 2
    decay_mult: 0
  }
  inner_product_param {
    num_output: 1024
    weight_filler {
      type: "xavier"
      std: 0.02
    }
    bias_filler {
      type: "constant"
      value: 0.2
    }
  }
}
layer {
  name: "loss2/relu_fc"
  type: "ReLU"
  bottom: "loss2/fc"
  top: "loss2/fc"
}
layer {
  name: "loss2/drop_fc"
  type: "Dropout"
  bottom: "loss2/fc"
  top: "loss2/fc"
  dropout_param {
    dropout_ratio: 0.7
  }
}
layer {
  name: "loss2/classifier_plantvillage"
  type: "InnerProduct"
  bottom: "loss2/fc"
  top: "loss2/classifier_plantvillage"
  param {
    lr_mult: 1
    decay_mult: 1
  }
  param {
    lr_mult: 2
    decay_mult: 0
  }
  inner_product_param {
    num_output: 38
    weight_filler {
      type: "xavier"
      std: 0.0009765625
    }
    bias_filler {
      type: "constant"
      value: 0
    }
  }
}
layer {
  name: "inception_4e/1x1"
  type: "Convolution"
  bottom: "inception_4d/output"
  top: "inception_4e/1x1"
  param {
    lr_mult: 1
    decay_mult: 1
  }
  param {
    lr_mult: 2
    decay_mult: 0
  }
  convolution_param {
    num_output: 256
    kernel_size: 1
    weight_filler {
      type: "xavier"
      std: 0.03
    }
    bias_filler {
      type: "constant"
      value: 0.2
    }
  }
}
layer {
  name: "inception_4e/relu_1x1"
  type: "ReLU"
  bottom: "inception_4e/1x1"
  top: "inception_4e/1x1"
}
layer {
  name: "inception_4e/3x3_reduce"
  type: "Convolution"
  bottom: "inception_4d/output"
  top: "inception_4e/3x3_reduce"
  param {
    lr_mult: 1
    decay_mult: 1
  }
  param {
    lr_mult: 2
    decay_mult: 0
  }
  convolution_param {
    num_output: 160
    kernel_size: 1
    weight_filler {
      type: "xavier"
      std: 0.09
    }
    bias_filler {
      type: "constant"
      value: 0.2
    }
  }
}
layer {
  name: "inception_4e/relu_3x3_reduce"
  type: "ReLU"
  bottom: "inception_4e/3x3_reduce"
  top: "inception_4e/3x3_reduce"
}
layer {
  name: "inception_4e/3x3"
  type: "Convolution"
  bottom: "inception_4e/3x3_reduce"
  top: "inception_4e/3x3"
  param {
    lr_mult: 1
    decay_mult: 1
  }
  param {
    lr_mult: 2
    decay_mult: 0
  }
  convolution_param {
    num_output: 320
    pad: 1
    kernel_size: 3
    weight_filler {
      type: "xavier"
      std: 0.03
    }
    bias_filler {
      type: "constant"
      value: 0.2
    }
  }
}
layer {
  name: "inception_4e/relu_3x3"
  type: "ReLU"
  bottom: "inception_4e/3x3"
  top: "inception_4e/3x3"
}
layer {
  name: "inception_4e/5x5_reduce"
  type: "Convolution"
  bottom: "inception_4d/output"
  top: "inception_4e/5x5_reduce"
  param {
    lr_mult: 1
    decay_mult: 1
  }
  param {
    lr_mult: 2
    decay_mult: 0
  }
  convolution_param {
    num_output: 32
    kernel_size: 1
    weight_filler {
      type: "xavier"
      std: 0.2
    }
    bias_filler {
      type: "constant"
      value: 0.2
    }
  }
}
layer {
  name: "inception_4e/relu_5x5_reduce"
  type: "ReLU"
  bottom: "inception_4e/5x5_reduce"
  top: "inception_4e/5x5_reduce"
}
layer {
  name: "inception_4e/5x5"
  type: "Convolution"
  bottom: "inception_4e/5x5_reduce"
  top: "inception_4e/
I0403 15:23:55.755647 11907 layer_factory.hpp:77] Creating layer data
I0403 15:23:55.756227 11907 net.cpp:91] Creating Layer data
I0403 15:23:55.756258 11907 net.cpp:399] data -> data
I0403 15:23:55.756307 11907 net.cpp:399] data -> label
I0403 15:23:55.756342 11907 data_transformer.cpp:25] Loading mean file from: /home/mohanty/data/final_dataset/lmdb/segmented-50-50/mean.binaryproto
I0403 15:23:55.759512 11911 db_lmdb.cpp:38] Opened lmdb /home/mohanty/data/final_dataset/lmdb/segmented-50-50/test_db
I0403 15:23:55.768901 11907 data_layer.cpp:41] output data size: 24,3,224,224
I0403 15:23:55.796176 11907 net.cpp:141] Setting up data
I0403 15:23:55.796262 11907 net.cpp:148] Top shape: 24 3 224 224 (3612672)
I0403 15:23:55.796284 11907 net.cpp:148] Top shape: 24 (24)
I0403 15:23:55.796299 11907 net.cpp:156] Memory required for data: 14450784
I0403 15:23:55.796326 11907 layer_factory.hpp:77] Creating layer label_data_1_split
I0403 15:23:55.796352 11907 net.cpp:91] Creating Layer label_data_1_split
I0403 15:23:55.796371 11907 net.cpp:425] label_data_1_split <- label
I0403 15:23:55.796407 11907 net.cpp:399] label_data_1_split -> label_data_1_split_0
I0403 15:23:55.796435 11907 net.cpp:399] label_data_1_split -> label_data_1_split_1
I0403 15:23:55.796457 11907 net.cpp:399] label_data_1_split -> label_data_1_split_2
I0403 15:23:55.796476 11907 net.cpp:399] label_data_1_split -> label_data_1_split_3
I0403 15:23:55.796496 11907 net.cpp:399] label_data_1_split -> label_data_1_split_4
I0403 15:23:55.796516 11907 net.cpp:399] label_data_1_split -> label_data_1_split_5
I0403 15:23:55.796536 11907 net.cpp:399] label_data_1_split -> label_data_1_split_6
I0403 15:23:55.796556 11907 net.cpp:399] label_data_1_split -> label_data_1_split_7
I0403 15:23:55.796576 11907 net.cpp:399] label_data_1_split -> label_data_1_split_8
I0403 15:23:55.796597 11907 net.cpp:399] label_data_1_split -> label_data_1_split_9
I0403 15:23:55.796710 11907 net.cpp:141] Setting up label_data_1_split
I0403 15:23:55.796733 11907 net.cpp:148] Top shape: 24 (24)
I0403 15:23:55.796751 11907 net.cpp:148] Top shape: 24 (24)
I0403 15:23:55.796766 11907 net.cpp:148] Top shape: 24 (24)
I0403 15:23:55.796782 11907 net.cpp:148] Top shape: 24 (24)
I0403 15:23:55.796797 11907 net.cpp:148] Top shape: 24 (24)
I0403 15:23:55.796813 11907 net.cpp:148] Top shape: 24 (24)
I0403 15:23:55.796829 11907 net.cpp:148] Top shape: 24 (24)
I0403 15:23:55.796844 11907 net.cpp:148] Top shape: 24 (24)
I0403 15:23:55.796860 11907 net.cpp:148] Top shape: 24 (24)
I0403 15:23:55.796876 11907 net.cpp:148] Top shape: 24 (24)
I0403 15:23:55.796921 11907 net.cpp:156] Memory required for data: 14451744
I0403 15:23:55.796937 11907 layer_factory.hpp:77] Creating layer conv1/7x7_s2
I0403 15:23:55.796968 11907 net.cpp:91] Creating Layer conv1/7x7_s2
I0403 15:23:55.796988 11907 net.cpp:425] conv1/7x7_s2 <- data
I0403 15:23:55.797008 11907 net.cpp:399] conv1/7x7_s2 -> conv1/7x7_s2
I0403 15:23:55.938902 11907 net.cpp:141] Setting up conv1/7x7_s2
I0403 15:23:55.938992 11907 net.cpp:148] Top shape: 24 64 112 112 (19267584)
I0403 15:23:55.939007 11907 net.cpp:156] Memory required for data: 91522080
I0403 15:23:55.939036 11907 layer_factory.hpp:77] Creating layer conv1/relu_7x7
I0403 15:23:55.939061 11907 net.cpp:91] Creating Layer conv1/relu_7x7
I0403 15:23:55.939079 11907 net.cpp:425] conv1/relu_7x7 <- conv1/7x7_s2
I0403 15:23:55.939097 11907 net.cpp:386] conv1/relu_7x7 -> conv1/7x7_s2 (in-place)
I0403 15:23:55.939363 11907 net.cpp:141] Setting up conv1/relu_7x7
I0403 15:23:55.939393 11907 net.cpp:148] Top shape: 24 64 112 112 (19267584)
I0403 15:23:55.939410 11907 net.cpp:156] Memory required for data: 168592416
I0403 15:23:55.939424 11907 layer_factory.hpp:77] Creating layer pool1/3x3_s2
I0403 15:23:55.939450 11907 net.cpp:91] Creating Layer pool1/3x3_s2
I0403 15:23:55.939467 11907 net.cpp:425] pool1/3x3_s2 <- conv1/7x7_s2
I0403 15:23:55.939486 11907 net.cpp:399] pool1/3x3_s2 -> pool1/3x3_s2
I0403 15:23:55.939558 11907 net.cpp:141] Setting up pool1/3x3_s2
I0403 15:23:55.939582 11907 net.cpp:148] Top shape: 24 64 56 56 (4816896)
I0403 15:23:55.939610 11907 net.cpp:156] Memory required for data: 187860000
I0403 15:23:55.939623 11907 layer_factory.hpp:77] Creating layer pool1/norm1
I0403 15:23:55.939646 11907 net.cpp:91] Creating Layer pool1/norm1
I0403 15:23:55.939663 11907 net.cpp:425] pool1/norm1 <- pool1/3x3_s2
I0403 15:23:55.939680 11907 net.cpp:399] pool1/norm1 -> pool1/norm1
I0403 15:23:55.939965 11907 net.cpp:141] Setting up pool1/norm1
I0403 15:23:55.939995 11907 net.cpp:148] Top shape: 24 64 56 56 (4816896)
I0403 15:23:55.940009 11907 net.cpp:156] Memory required for data: 207127584
I0403 15:23:55.940024 11907 layer_factory.hpp:77] Creating layer conv2/3x3_reduce
I0403 15:23:55.940050 11907 net.cpp:91] Creating Layer conv2/3x3_reduce
I0403 15:23:55.940067 11907 net.cpp:425] conv2/3x3_reduce <- pool1/norm1
I0403 15:23:55.940084 11907 net.cpp:399] conv2/3x3_reduce -> conv2/3x3_reduce
I0403 15:23:55.941440 11907 net.cpp:141] Setting up conv2/3x3_reduce
I0403 15:23:55.941468 11907 net.cpp:148] Top shape: 24 64 56 56 (4816896)
I0403 15:23:55.941483 11907 net.cpp:156] Memory required for data: 226395168
I0403 15:23:55.941504 11907 layer_factory.hpp:77] Creating layer conv2/relu_3x3_reduce
I0403 15:23:55.941524 11907 net.cpp:91] Creating Layer conv2/relu_3x3_reduce
I0403 15:23:55.941540 11907 net.cpp:425] conv2/relu_3x3_reduce <- conv2/3x3_reduce
I0403 15:23:55.941556 11907 net.cpp:386] conv2/relu_3x3_reduce -> conv2/3x3_reduce (in-place)
I0403 15:23:55.941831 11907 net.cpp:141] Setting up conv2/relu_3x3_reduce
I0403 15:23:55.941857 11907 net.cpp:148] Top shape: 24 64 56 56 (4816896)
I0403 15:23:55.941884 11907 net.cpp:156] Memory required for data: 245662752
I0403 15:23:55.941897 11907 layer_factory.hpp:77] Creating layer conv2/3x3
I0403 15:23:55.941920 11907 net.cpp:91] Creating Layer conv2/3x3
I0403 15:23:55.941937 11907 net.cpp:425] conv2/3x3 <- conv2/3x3_reduce
I0403 15:23:55.941962 11907 net.cpp:399] conv2/3x3 -> conv2/3x3
I0403 15:23:55.944181 11907 net.cpp:141] Setting up conv2/3x3
I0403 15:23:55.944211 11907 net.cpp:148] Top shape: 24 192 56 56 (14450688)
I0403 15:23:55.944226 11907 net.cpp:156] Memory required for data: 303465504
I0403 15:23:55.944248 11907 layer_factory.hpp:77] Creating layer conv2/relu_3x3
I0403 15:23:55.944267 11907 net.cpp:91] Creating Layer conv2/relu_3x3
I0403 15:23:55.944283 11907 net.cpp:425] conv2/relu_3x3 <- conv2/3x3
I0403 15:23:55.944299 11907 net.cpp:386] conv2/relu_3x3 -> conv2/3x3 (in-place)
I0403 15:23:55.944475 11907 net.cpp:141] Setting up conv2/relu_3x3
I0403 15:23:55.944501 11907 net.cpp:148] Top shape: 24 192 56 56 (14450688)
I0403 15:23:55.944545 11907 net.cpp:156] Memory required for data: 361268256
I0403 15:23:55.944561 11907 layer_factory.hpp:77] Creating layer conv2/norm2
I0403 15:23:55.944577 11907 net.cpp:91] Creating Layer conv2/norm2
I0403 15:23:55.944592 11907 net.cpp:425] conv2/norm2 <- conv2/3x3
I0403 15:23:55.944613 11907 net.cpp:399] conv2/norm2 -> conv2/norm2
I0403 15:23:55.944911 11907 net.cpp:141] Setting up conv2/norm2
I0403 15:23:55.944937 11907 net.cpp:148] Top shape: 24 192 56 56 (14450688)
I0403 15:23:55.944952 11907 net.cpp:156] Memory required for data: 419071008
I0403 15:23:55.944967 11907 layer_factory.hpp:77] Creating layer pool2/3x3_s2
I0403 15:23:55.944983 11907 net.cpp:91] Creating Layer pool2/3x3_s2
I0403 15:23:55.944999 11907 net.cpp:425] pool2/3x3_s2 <- conv2/norm2
I0403 15:23:55.945019 11907 net.cpp:399] pool2/3x3_s2 -> pool2/3x3_s2
I0403 15:23:55.945068 11907 net.cpp:141] Setting up pool2/3x3_s2
I0403 15:23:55.945092 11907 net.cpp:148] Top shape: 24 192 28 28 (3612672)
I0403 15:23:55.945107 11907 net.cpp:156] Memory required for data: 433521696
I0403 15:23:55.945121 11907 layer_factory.hpp:77] Creating layer pool2/3x3_s2_pool2/3x3_s2_0_split
I0403 15:23:55.945137 11907 net.cpp:91] Creating Layer pool2/3x3_s2_pool2/3x3_s2_0_split
I0403 15:23:55.945152 11907 net.cpp:425] pool2/3x3_s2_pool2/3x3_s2_0_split <- pool2/3x3_s2
I0403 15:23:55.945169 11907 net.cpp:399] pool2/3x3_s2_pool2/3x3_s2_0_split -> pool2/3x3_s2_pool2/3x3_s2_0_split_0
I0403 15:23:55.945190 11907 net.cpp:399] pool2/3x3_s2_pool2/3x3_s2_0_split -> pool2/3x3_s2_pool2/3x3_s2_0_split_1
I0403 15:23:55.945210 11907 net.cpp:399] pool2/3x3_s2_pool2/3x3_s2_0_split -> pool2/3x3_s2_pool2/3x3_s2_0_split_2
I0403 15:23:55.945230 11907 net.cpp:399] pool2/3x3_s2_pool2/3x3_s2_0_split -> pool2/3x3_s2_pool2/3x3_s2_0_split_3
I0403 15:23:55.945297 11907 net.cpp:141] Setting up pool2/3x3_s2_pool2/3x3_s2_0_split
I0403 15:23:55.945317 11907 net.cpp:148] Top shape: 24 192 28 28 (3612672)
I0403 15:23:55.945333 11907 net.cpp:148] Top shape: 24 192 28 28 (3612672)
I0403 15:23:55.945348 11907 net.cpp:148] Top shape: 24 192 28 28 (3612672)
I0403 15:23:55.945363 11907 net.cpp:148] Top shape: 24 192 28 28 (3612672)
I0403 15:23:55.945375 11907 net.cpp:156] Memory required for data: 491324448
I0403 15:23:55.945394 11907 layer_factory.hpp:77] Creating layer inception_3a/1x1
I0403 15:23:55.945416 11907 net.cpp:91] Creating Layer inception_3a/1x1
I0403 15:23:55.945436 11907 net.cpp:425] inception_3a/1x1 <- pool2/3x3_s2_pool2/3x3_s2_0_split_0
I0403 15:23:55.945453 11907 net.cpp:399] inception_3a/1x1 -> inception_3a/1x1
I0403 15:23:55.946962 11907 net.cpp:141] Setting up inception_3a/1x1
I0403 15:23:55.946990 11907 net.cpp:148] Top shape: 24 64 28 28 (1204224)
I0403 15:23:55.947005 11907 net.cpp:156] Memory required for data: 496141344
I0403 15:23:55.947023 11907 layer_factory.hpp:77] Creating layer inception_3a/relu_1x1
I0403 15:23:55.947041 11907 net.cpp:91] Creating Layer inception_3a/relu_1x1
I0403 15:23:55.947055 11907 net.cpp:425] inception_3a/relu_1x1 <- inception_3a/1x1
I0403 15:23:55.947074 11907 net.cpp:386] inception_3a/relu_1x1 -> inception_3a/1x1 (in-place)
I0403 15:23:55.947242 11907 net.cpp:141] Setting up inception_3a/relu_1x1
I0403 15:23:55.947266 11907 net.cpp:148] Top shape: 24 64 28 28 (1204224)
I0403 15:23:55.947279 11907 net.cpp:156] Memory required for data: 500958240
I0403 15:23:55.947294 11907 layer_factory.hpp:77] Creating layer inception_3a/3x3_reduce
I0403 15:23:55.947316 11907 net.cpp:91] Creating Layer inception_3a/3x3_reduce
I0403 15:23:55.947334 11907 net.cpp:425] inception_3a/3x3_reduce <- pool2/3x3_s2_pool2/3x3_s2_0_split_1
I0403 15:23:55.947353 11907 net.cpp:399] inception_3a/3x3_reduce -> inception_3a/3x3_reduce
I0403 15:23:55.948993 11907 net.cpp:141] Setting up inception_3a/3x3_reduce
I0403 15:23:55.949021 11907 net.cpp:148] Top shape: 24 96 28 28 (1806336)
I0403 15:23:55.949035 11907 net.cpp:156] Memory required for data: 508183584
I0403 15:23:55.949056 11907 layer_factory.hpp:77] Creating layer inception_3a/relu_3x3_reduce
I0403 15:23:55.949092 11907 net.cpp:91] Creating Layer inception_3a/relu_3x3_reduce
I0403 15:23:55.949110 11907 net.cpp:425] inception_3a/relu_3x3_reduce <- inception_3a/3x3_reduce
I0403 15:23:55.949127 11907 net.cpp:386] inception_3a/relu_3x3_reduce -> inception_3a/3x3_reduce (in-place)
I0403 15:23:55.949302 11907 net.cpp:141] Setting up inception_3a/relu_3x3_reduce
I0403 15:23:55.949326 11907 net.cpp:148] Top shape: 24 96 28 28 (1806336)
I0403 15:23:55.949339 11907 net.cpp:156] Memory required for data: 515408928
I0403 15:23:55.949357 11907 layer_factory.hpp:77] Creating layer inception_3a/3x3
I0403 15:23:55.949383 11907 net.cpp:91] Creating Layer inception_3a/3x3
I0403 15:23:55.949400 11907 net.cpp:425] inception_3a/3x3 <- inception_3a/3x3_reduce
I0403 15:23:55.949420 11907 net.cpp:399] inception_3a/3x3 -> inception_3a/3x3
I0403 15:23:55.951035 11907 net.cpp:141] Setting up inception_3a/3x3
I0403 15:23:55.951061 11907 net.cpp:148] Top shape: 24 128 28 28 (2408448)
I0403 15:23:55.951076 11907 net.cpp:156] Memory required for data: 525042720
I0403 15:23:55.951094 11907 layer_factory.hpp:77] Creating layer inception_3a/relu_3x3
I0403 15:23:55.951114 11907 net.cpp:91] Creating Layer inception_3a/relu_3x3
I0403 15:23:55.951129 11907 net.cpp:425] inception_3a/relu_3x3 <- inception_3a/3x3
I0403 15:23:55.951148 11907 net.cpp:386] inception_3a/relu_3x3 -> inception_3a/3x3 (in-place)
I0403 15:23:55.951432 11907 net.cpp:141] Setting up inception_3a/relu_3x3
I0403 15:23:55.951458 11907 net.cpp:148] Top shape: 24 128 28 28 (2408448)
I0403 15:23:55.951472 11907 net.cpp:156] Memory required for data: 534676512
I0403 15:23:55.951488 11907 layer_factory.hpp:77] Creating layer inception_3a/5x5_reduce
I0403 15:23:55.951508 11907 net.cpp:91] Creating Layer inception_3a/5x5_reduce
I0403 15:23:55.951525 11907 net.cpp:425] inception_3a/5x5_reduce <- pool2/3x3_s2_pool2/3x3_s2_0_split_2
I0403 15:23:55.951546 11907 net.cpp:399] inception_3a/5x5_reduce -> inception_3a/5x5_reduce
I0403 15:23:55.952499 11907 net.cpp:141] Setting up inception_3a/5x5_reduce
I0403 15:23:55.952527 11907 net.cpp:148] Top shape: 24 16 28 28 (301056)
I0403 15:23:55.952541 11907 net.cpp:156] Memory required for data: 535880736
I0403 15:23:55.952558 11907 layer_factory.hpp:77] Creating layer inception_3a/relu_5x5_reduce
I0403 15:23:55.952591 11907 net.cpp:91] Creating Layer inception_3a/relu_5x5_reduce
I0403 15:23:55.952607 11907 net.cpp:425] inception_3a/relu_5x5_reduce <- inception_3a/5x5_reduce
I0403 15:23:55.952625 11907 net.cpp:386] inception_3a/relu_5x5_reduce -> inception_3a/5x5_reduce (in-place)
I0403 15:23:55.952937 11907 net.cpp:141] Setting up inception_3a/relu_5x5_reduce
I0403 15:23:55.952965 11907 net.cpp:148] Top shape: 24 16 28 28 (301056)
I0403 15:23:55.952980 11907 net.cpp:156] Memory required for data: 537084960
I0403 15:23:55.952994 11907 layer_factory.hpp:77] Creating layer inception_3a/5x5
I0403 15:23:55.953016 11907 net.cpp:91] Creating Layer inception_3a/5x5
I0403 15:23:55.953033 11907 net.cpp:425] inception_3a/5x5 <- inception_3a/5x5_reduce
I0403 15:23:55.953052 11907 net.cpp:399] inception_3a/5x5 -> inception_3a/5x5
I0403 15:23:55.954099 11907 net.cpp:141] Setting up inception_3a/5x5
I0403 15:23:55.954125 11907 net.cpp:148] Top shape: 24 32 28 28 (602112)
I0403 15:23:55.954140 11907 net.cpp:156] Memory required for data: 539493408
I0403 15:23:55.954157 11907 layer_factory.hpp:77] Creating layer inception_3a/relu_5x5
I0403 15:23:55.954177 11907 net.cpp:91] Creating Layer inception_3a/relu_5x5
I0403 15:23:55.954193 11907 net.cpp:425] inception_3a/relu_5x5 <- inception_3a/5x5
I0403 15:23:55.954210 11907 net.cpp:386] inception_3a/relu_5x5 -> inception_3a/5x5 (in-place)
I0403 15:23:55.954385 11907 net.cpp:141] Setting up inception_3a/relu_5x5
I0403 15:23:55.954411 11907 net.cpp:148] Top shape: 24 32 28 28 (602112)
I0403 15:23:55.954426 11907 net.cpp:156] Memory required for data: 541901856
I0403 15:23:55.954439 11907 layer_factory.hpp:77] Creating layer inception_3a/pool
I0403 15:23:55.954457 11907 net.cpp:91] Creating Layer inception_3a/pool
I0403 15:23:55.954485 11907 net.cpp:425] inception_3a/pool <- pool2/3x3_s2_pool2/3x3_s2_0_split_3
I0403 15:23:55.954504 11907 net.cpp:399] inception_3a/pool -> inception_3a/pool
I0403 15:23:55.954558 11907 net.cpp:141] Setting up inception_3a/pool
I0403 15:23:55.954581 11907 net.cpp:148] Top shape: 24 192 28 28 (3612672)
I0403 15:23:55.954594 11907 net.cpp:156] Memory required for data: 556352544
I0403 15:23:55.954608 11907 layer_factory.hpp:77] Creating layer inception_3a/pool_proj
I0403 15:23:55.954629 11907 net.cpp:91] Creating Layer inception_3a/pool_proj
I0403 15:23:55.954646 11907 net.cpp:425] inception_3a/pool_proj <- inception_3a/pool
I0403 15:23:55.954668 11907 net.cpp:399] inception_3a/pool_proj -> inception_3a/pool_proj
I0403 15:23:55.955601 11907 net.cpp:141] Setting up inception_3a/pool_proj
I0403 15:23:55.955628 11907 net.cpp:148] Top shape: 24 32 28 28 (602112)
I0403 15:23:55.955642 11907 net.cpp:156] Memory required for data: 558760992
I0403 15:23:55.955663 11907 layer_factory.hpp:77] Creating layer inception_3a/relu_pool_proj
I0403 15:23:55.955684 11907 net.cpp:91] Creating Layer inception_3a/relu_pool_proj
I0403 15:23:55.955700 11907 net.cpp:425] inception_3a/relu_pool_proj <- inception_3a/pool_proj
I0403 15:23:55.955718 11907 net.cpp:386] inception_3a/relu_pool_proj -> inception_3a/pool_proj (in-place)
I0403 15:23:55.955987 11907 net.cpp:141] Setting up inception_3a/relu_pool_proj
I0403 15:23:55.956012 11907 net.cpp:148] Top shape: 24 32 28 28 (602112)
I0403 15:23:55.956027 11907 net.cpp:156] Memory required for data: 561169440
I0403 15:23:55.956040 11907 layer_factory.hpp:77] Creating layer inception_3a/output
I0403 15:23:55.956060 11907 net.cpp:91] Creating Layer inception_3a/output
I0403 15:23:55.956076 11907 net.cpp:425] inception_3a/output <- inception_3a/1x1
I0403 15:23:55.956092 11907 net.cpp:425] inception_3a/output <- inception_3a/3x3
I0403 15:23:55.956107 11907 net.cpp:425] inception_3a/output <- inception_3a/5x5
I0403 15:23:55.956122 11907 net.cpp:425] inception_3a/output <- inception_3a/pool_proj
I0403 15:23:55.956140 11907 net.cpp:399] inception_3a/output -> inception_3a/output
I0403 15:23:55.956185 11907 net.cpp:141] Setting up inception_3a/output
I0403 15:23:55.956207 11907 net.cpp:148] Top shape: 24 256 28 28 (4816896)
I0403 15:23:55.956220 11907 net.cpp:156] Memory required for data: 580437024
I0403 15:23:55.956234 11907 layer_factory.hpp:77] Creating layer inception_3a/output_inception_3a/output_0_split
I0403 15:23:55.956250 11907 net.cpp:91] Creating Layer inception_3a/output_inception_3a/output_0_split
I0403 15:23:55.956265 11907 net.cpp:425] inception_3a/output_inception_3a/output_0_split <- inception_3a/output
I0403 15:23:55.956284 11907 net.cpp:399] inception_3a/output_inception_3a/output_0_split -> inception_3a/output_inception_3a/output_0_split_0
I0403 15:23:55.956305 11907 net.cpp:399] inception_3a/output_inception_3a/output_0_split -> inception_3a/output_inception_3a/output_0_split_1
I0403 15:23:55.956328 11907 net.cpp:399] inception_3a/output_inception_3a/output_0_split -> inception_3a/output_inception_3a/output_0_split_2
I0403 15:23:55.956349 11907 net.cpp:399] inception_3a/output_inception_3a/output_0_split -> inception_3a/output_inception_3a/output_0_split_3
I0403 15:23:55.956423 11907 net.cpp:141] Setting up inception_3a/output_inception_3a/output_0_split
I0403 15:23:55.956444 11907 net.cpp:148] Top shape: 24 256 28 28 (4816896)
I0403 15:23:55.956462 11907 net.cpp:148] Top shape: 24 256 28 28 (4816896)
I0403 15:23:55.956478 11907 net.cpp:148] Top shape: 24 256 28 28 (4816896)
I0403 15:23:55.956493 11907 net.cpp:148] Top shape: 24 256 28 28 (4816896)
I0403 15:23:55.956506 11907 net.cpp:156] Memory required for data: 657507360
I0403 15:23:55.956521 11907 layer_factory.hpp:77] Creating layer inception_3b/1x1
I0403 15:23:55.956542 11907 net.cpp:91] Creating Layer inception_3b/1x1
I0403 15:23:55.956558 11907 net.cpp:425] inception_3b/1x1 <- inception_3a/output_inception_3a/output_0_split_0
I0403 15:23:55.956578 11907 net.cpp:399] inception_3b/1x1 -> inception_3b/1x1
I0403 15:23:55.957716 11907 net.cpp:141] Setting up inception_3b/1x1
I0403 15:23:55.957759 11907 net.cpp:148] Top shape: 24 128 28 28 (2408448)
I0403 15:23:55.957777 11907 net.cpp:156] Memory required for data: 667141152
I0403 15:23:55.957794 11907 layer_factory.hpp:77] Creating layer inception_3b/relu_1x1
I0403 15:23:55.957816 11907 net.cpp:91] Creating Layer inception_3b/relu_1x1
I0403 15:23:55.957834 11907 net.cpp:425] inception_3b/relu_1x1 <- inception_3b/1x1
I0403 15:23:55.957852 11907 net.cpp:386] inception_3b/relu_1x1 -> inception_3b/1x1 (in-place)
I0403 15:23:55.958036 11907 net.cpp:141] Setting up inception_3b/relu_1x1
I0403 15:23:55.958060 11907 net.cpp:148] Top shape: 24 128 28 28 (2408448)
I0403 15:23:55.958076 11907 net.cpp:156] Memory required for data: 676774944
I0403 15:23:55.958089 11907 layer_factory.hpp:77] Creating layer inception_3b/3x3_reduce
I0403 15:23:55.958112 11907 net.cpp:91] Creating Layer inception_3b/3x3_reduce
I0403 15:23:55.958129 11907 net.cpp:425] inception_3b/3x3_reduce <- inception_3a/output_inception_3a/output_0_split_1
I0403 15:23:55.958150 11907 net.cpp:399] inception_3b/3x3_reduce -> inception_3b/3x3_reduce
I0403 15:23:55.959276 11907 net.cpp:141] Setting up inception_3b/3x3_reduce
I0403 15:23:55.959303 11907 net.cpp:148] Top shape: 24 128 28 28 (2408448)
I0403 15:23:55.959318 11907 net.cpp:156] Memory required for data: 686408736
I0403 15:23:55.959336 11907 layer_factory.hpp:77] Creating layer inception_3b/relu_3x3_reduce
I0403 15:23:55.959355 11907 net.cpp:91] Creating Layer inception_3b/relu_3x3_reduce
I0403 15:23:55.959372 11907 net.cpp:425] inception_3b/relu_3x3_reduce <- inception_3b/3x3_reduce
I0403 15:23:55.959395 11907 net.cpp:386] inception_3b/relu_3x3_reduce -> inception_3b/3x3_reduce (in-place)
I0403 15:23:55.959571 11907 net.cpp:141] Setting up inception_3b/relu_3x3_reduce
I0403 15:23:55.959595 11907 net.cpp:148] Top shape: 24 128 28 28 (2408448)
I0403 15:23:55.959610 11907 net.cpp:156] Memory required for data: 696042528
I0403 15:23:55.959625 11907 layer_factory.hpp:77] Creating layer inception_3b/3x3
I0403 15:23:55.959650 11907 net.cpp:91] Creating Layer inception_3b/3x3
I0403 15:23:55.959667 11907 net.cpp:425] inception_3b/3x3 <- inception_3b/3x3_reduce
I0403 15:23:55.959686 11907 net.cpp:399] inception_3b/3x3 -> inception_3b/3x3
I0403 15:23:55.962677 11907 net.cpp:141] Setting up inception_3b/3x3
I0403 15:23:55.962707 11907 net.cpp:148] Top shape: 24 192 28 28 (3612672)
I0403 15:23:55.962723 11907 net.cpp:156] Memory required for data: 710493216
I0403 15:23:55.962741 11907 layer_factory.hpp:77] Creating layer inception_3b/relu_3x3
I0403 15:23:55.962762 11907 net.cpp:91] Creating Layer inception_3b/relu_3x3
I0403 15:23:55.962779 11907 net.cpp:425] inception_3b/relu_3x3 <- inception_3b/3x3
I0403 15:23:55.962797 11907 net.cpp:386] inception_3b/relu_3x3 -> inception_3b/3x3 (in-place)
I0403 15:23:55.963081 11907 net.cpp:141] Setting up inception_3b/relu_3x3
I0403 15:23:55.963109 11907 net.cpp:148] Top shape: 24 192 28 28 (3612672)
I0403 15:23:55.963124 11907 net.cpp:156] Memory required for data: 724943904
I0403 15:23:55.963138 11907 layer_factory.hpp:77] Creating layer inception_3b/5x5_reduce
I0403 15:23:55.963162 11907 net.cpp:91] Creating Layer inception_3b/5x5_reduce
I0403 15:23:55.963181 11907 net.cpp:425] inception_3b/5x5_reduce <- inception_3a/output_inception_3a/output_0_split_2
I0403 15:23:55.963202 11907 net.cpp:399] inception_3b/5x5_reduce -> inception_3b/5x5_reduce
I0403 15:23:55.964223 11907 net.cpp:141] Setting up inception_3b/5x5_reduce
I0403 15:23:55.964251 11907 net.cpp:148] Top shape: 24 32 28 28 (602112)
I0403 15:23:55.964267 11907 net.cpp:156] Memory required for data: 727352352
I0403 15:23:55.964287 11907 layer_factory.hpp:77] Creating layer inception_3b/relu_5x5_reduce
I0403 15:23:55.964306 11907 net.cpp:91] Creating Layer inception_3b/relu_5x5_reduce
I0403 15:23:55.964323 11907 net.cpp:425] inception_3b/relu_5x5_reduce <- inception_3b/5x5_reduce
I0403 15:23:55.964341 11907 net.cpp:386] inception_3b/relu_5x5_reduce -> inception_3b/5x5_reduce (in-place)
I0403 15:23:55.964541 11907 net.cpp:141] Setting up inception_3b/relu_5x5_reduce
I0403 15:23:55.964570 11907 net.cpp:148] Top shape: 24 32 28 28 (602112)
I0403 15:23:55.964586 11907 net.cpp:156] Memory required for data: 729760800
I0403 15:23:55.964601 11907 layer_factory.hpp:77] Creating layer inception_3b/5x5
I0403 15:23:55.964624 11907 net.cpp:91] Creating Layer inception_3b/5x5
I0403 15:23:55.964643 11907 net.cpp:425] inception_3b/5x5 <- inception_3b/5x5_reduce
I0403 15:23:55.964663 11907 net.cpp:399] inception_3b/5x5 -> inception_3b/5x5
I0403 15:23:55.966728 11907 net.cpp:141] Setting up inception_3b/5x5
I0403 15:23:55.966758 11907 net.cpp:148] Top shape: 24 96 28 28 (1806336)
I0403 15:23:55.966773 11907 net.cpp:156] Memory required for data: 736986144
I0403 15:23:55.966792 11907 layer_factory.hpp:77] Creating layer inception_3b/relu_5x5
I0403 15:23:55.966811 11907 net.cpp:91] Creating Layer inception_3b/relu_5x5
I0403 15:23:55.966827 11907 net.cpp:425] inception_3b/relu_5x5 <- inception_3b/5x5
I0403 15:23:55.966850 11907 net.cpp:386] inception_3b/relu_5x5 -> inception_3b/5x5 (in-place)
I0403 15:23:55.967048 11907 net.cpp:141] Setting up inception_3b/relu_5x5
I0403 15:23:55.967073 11907 net.cpp:148] Top shape: 24 96 28 28 (1806336)
I0403 15:23:55.967088 11907 net.cpp:156] Memory required for data: 744211488
I0403 15:23:55.967103 11907 layer_factory.hpp:77] Creating layer inception_3b/pool
I0403 15:23:55.967121 11907 net.cpp:91] Creating Layer inception_3b/pool
I0403 15:23:55.967138 11907 net.cpp:425] inception_3b/pool <- inception_3a/output_inception_3a/output_0_split_3
I0403 15:23:55.967156 11907 net.cpp:399] inception_3b/pool -> inception_3b/pool
I0403 15:23:55.967213 11907 net.cpp:141] Setting up inception_3b/pool
I0403 15:23:55.967236 11907 net.cpp:148] Top shape: 24 256 28 28 (4816896)
I0403 15:23:55.967250 11907 net.cpp:156] Memory required for data: 763479072
I0403 15:23:55.967264 11907 layer_factory.hpp:77] Creating layer inception_3b/pool_proj
I0403 15:23:55.967288 11907 net.cpp:91] Creating Layer inception_3b/pool_proj
I0403 15:23:55.967304 11907 net.cpp:425] inception_3b/pool_proj <- inception_3b/pool
I0403 15:23:55.967326 11907 net.cpp:399] inception_3b/pool_proj -> inception_3b/pool_proj
I0403 15:23:55.968415 11907 net.cpp:141] Setting up inception_3b/pool_proj
I0403 15:23:55.968447 11907 net.cpp:148] Top shape: 24 64 28 28 (1204224)
I0403 15:23:55.968464 11907 net.cpp:156] Memory required for data: 768295968
I0403 15:23:55.968483 11907 layer_factory.hpp:77] Creating layer inception_3b/relu_pool_proj
I0403 15:23:55.968502 11907 net.cpp:91] Creating Layer inception_3b/relu_pool_proj
I0403 15:23:55.968519 11907 net.cpp:425] inception_3b/relu_pool_proj <- inception_3b/pool_proj
I0403 15:23:55.968538 11907 net.cpp:386] inception_3b/relu_pool_proj -> inception_3b/pool_proj (in-place)
I0403 15:23:55.968950 11907 net.cpp:141] Setting up inception_3b/relu_pool_proj
I0403 15:23:55.968978 11907 net.cpp:148] Top shape: 24 64 28 28 (1204224)
I0403 15:23:55.968993 11907 net.cpp:156] Memory required for data: 773112864
I0403 15:23:55.969009 11907 layer_factory.hpp:77] Creating layer inception_3b/output
I0403 15:23:55.969029 11907 net.cpp:91] Creating Layer inception_3b/output
I0403 15:23:55.969048 11907 net.cpp:425] inception_3b/output <- inception_3b/1x1
I0403 15:23:55.969066 11907 net.cpp:425] inception_3b/output <- inception_3b/3x3
I0403 15:23:55.969082 11907 net.cpp:425] inception_3b/output <- inception_3b/5x5
I0403 15:23:55.969099 11907 net.cpp:425] inception_3b/output <- inception_3b/pool_proj
I0403 15:23:55.969115 11907 net.cpp:399] inception_3b/output -> inception_3b/output
I0403 15:23:55.969162 11907 net.cpp:141] Setting up inception_3b/output
I0403 15:23:55.969187 11907 net.cpp:148] Top shape: 24 480 28 28 (9031680)
I0403 15:23:55.969202 11907 net.cpp:156] Memory required for data: 809239584
I0403 15:23:55.969218 11907 layer_factory.hpp:77] Creating layer pool3/3x3_s2
I0403 15:23:55.969235 11907 net.cpp:91] Creating Layer pool3/3x3_s2
I0403 15:23:55.969251 11907 net.cpp:425] pool3/3x3_s2 <- inception_3b/output
I0403 15:23:55.969287 11907 net.cpp:399] pool3/3x3_s2 -> pool3/3x3_s2
I0403 15:23:55.969352 11907 net.cpp:141] Setting up pool3/3x3_s2
I0403 15:23:55.969375 11907 net.cpp:148] Top shape: 24 480 14 14 (2257920)
I0403 15:23:55.969395 11907 net.cpp:156] Memory required for data: 818271264
I0403 15:23:55.969410 11907 layer_factory.hpp:77] Creating layer pool3/3x3_s2_pool3/3x3_s2_0_split
I0403 15:23:55.969427 11907 net.cpp:91] Creating Layer pool3/3x3_s2_pool3/3x3_s2_0_split
I0403 15:23:55.969444 11907 net.cpp:425] pool3/3x3_s2_pool3/3x3_s2_0_split <- pool3/3x3_s2
I0403 15:23:55.969463 11907 net.cpp:399] pool3/3x3_s2_pool3/3x3_s2_0_split -> pool3/3x3_s2_pool3/3x3_s2_0_split_0
I0403 15:23:55.969485 11907 net.cpp:399] pool3/3x3_s2_pool3/3x3_s2_0_split -> pool3/3x3_s2_pool3/3x3_s2_0_split_1
I0403 15:23:55.969506 11907 net.cpp:399] pool3/3x3_s2_pool3/3x3_s2_0_split -> pool3/3x3_s2_pool3/3x3_s2_0_split_2
I0403 15:23:55.969526 11907 net.cpp:399] pool3/3x3_s2_pool3/3x3_s2_0_split -> pool3/3x3_s2_pool3/3x3_s2_0_split_3
I0403 15:23:55.969615 11907 net.cpp:141] Setting up pool3/3x3_s2_pool3/3x3_s2_0_split
I0403 15:23:55.969642 11907 net.cpp:148] Top shape: 24 480 14 14 (2257920)
I0403 15:23:55.969660 11907 net.cpp:148] Top shape: 24 480 14 14 (2257920)
I0403 15:23:55.969676 11907 net.cpp:148] Top shape: 24 480 14 14 (2257920)
I0403 15:23:55.969693 11907 net.cpp:148] Top shape: 24 480 14 14 (2257920)
I0403 15:23:55.969708 11907 net.cpp:156] Memory required for data: 854397984
I0403 15:23:55.969723 11907 layer_factory.hpp:77] Creating layer inception_4a/1x1
I0403 15:23:55.969746 11907 net.cpp:91] Creating Layer inception_4a/1x1
I0403 15:23:55.969765 11907 net.cpp:425] inception_4a/1x1 <- pool3/3x3_s2_pool3/3x3_s2_0_split_0
I0403 15:23:55.969785 11907 net.cpp:399] inception_4a/1x1 -> inception_4a/1x1
I0403 15:23:55.971418 11907 net.cpp:141] Setting up inception_4a/1x1
I0403 15:23:55.971449 11907 net.cpp:148] Top shape: 24 192 14 14 (903168)
I0403 15:23:55.971467 11907 net.cpp:156] Memory required for data: 858010656
I0403 15:23:55.971484 11907 layer_factory.hpp:77] Creating layer inception_4a/relu_1x1
I0403 15:23:55.971503 11907 net.cpp:91] Creating Layer inception_4a/relu_1x1
I0403 15:23:55.971519 11907 net.cpp:425] inception_4a/relu_1x1 <- inception_4a/1x1
I0403 15:23:55.971540 11907 net.cpp:386] inception_4a/relu_1x1 -> inception_4a/1x1 (in-place)
I0403 15:23:55.971724 11907 net.cpp:141] Setting up inception_4a/relu_1x1
I0403 15:23:55.971750 11907 net.cpp:148] Top shape: 24 192 14 14 (903168)
I0403 15:23:55.971765 11907 net.cpp:156] Memory required for data: 861623328
I0403 15:23:55.971781 11907 layer_factory.hpp:77] Creating layer inception_4a/3x3_reduce
I0403 15:23:55.971803 11907 net.cpp:91] Creating Layer inception_4a/3x3_reduce
I0403 15:23:55.971820 11907 net.cpp:425] inception_4a/3x3_reduce <- pool3/3x3_s2_pool3/3x3_s2_0_split_1
I0403 15:23:55.971845 11907 net.cpp:399] inception_4a/3x3_reduce -> inception_4a/3x3_reduce
I0403 15:23:55.973157 11907 net.cpp:141] Setting up inception_4a/3x3_reduce
I0403 15:23:55.973189 11907 net.cpp:148] Top shape: 24 96 14 14 (451584)
I0403 15:23:55.973206 11907 net.cpp:156] Memory required for data: 863429664
I0403 15:23:55.973232 11907 layer_factory.hpp:77] Creating layer inception_4a/relu_3x3_reduce
I0403 15:23:55.973253 11907 net.cpp:91] Creating Layer inception_4a/relu_3x3_reduce
I0403 15:23:55.973270 11907 net.cpp:425] inception_4a/relu_3x3_reduce <- inception_4a/3x3_reduce
I0403 15:23:55.973287 11907 net.cpp:386] inception_4a/relu_3x3_reduce -> inception_4a/3x3_reduce (in-place)
I0403 15:23:55.973495 11907 net.cpp:141] Setting up inception_4a/relu_3x3_reduce
I0403 15:23:55.973522 11907 net.cpp:148] Top shape: 24 96 14 14 (451584)
I0403 15:23:55.973537 11907 net.cpp:156] Memory required for data: 865236000
I0403 15:23:55.973552 11907 layer_factory.hpp:77] Creating layer inception_4a/3x3
I0403 15:23:55.973577 11907 net.cpp:91] Creating Layer inception_4a/3x3
I0403 15:23:55.973595 11907 net.cpp:425] inception_4a/3x3 <- inception_4a/3x3_reduce
I0403 15:23:55.973618 11907 net.cpp:399] inception_4a/3x3 -> inception_4a/3x3
I0403 15:23:55.976421 11907 net.cpp:141] Setting up inception_4a/3x3
I0403 15:23:55.976450 11907 net.cpp:148] Top shape: 24 208 14 14 (978432)
I0403 15:23:55.976466 11907 net.cpp:156] Memory required for data: 869149728
I0403 15:23:55.976485 11907 layer_factory.hpp:77] Creating layer inception_4a/relu_3x3
I0403 15:23:55.976503 11907 net.cpp:91] Creating Layer inception_4a/relu_3x3
I0403 15:23:55.976521 11907 net.cpp:425] inception_4a/relu_3x3 <- inception_4a/3x3
I0403 15:23:55.976541 11907 net.cpp:386] inception_4a/relu_3x3 -> inception_4a/3x3 (in-place)
I0403 15:23:55.976838 11907 net.cpp:141] Setting up inception_4a/relu_3x3
I0403 15:23:55.976864 11907 net.cpp:148] Top shape: 24 208 14 14 (978432)
I0403 15:23:55.976879 11907 net.cpp:156] Memory required for data: 873063456
I0403 15:23:55.976894 11907 layer_factory.hpp:77] Creating layer inception_4a/5x5_reduce
I0403 15:23:55.976917 11907 net.cpp:91] Creating Layer inception_4a/5x5_reduce
I0403 15:23:55.976933 11907 net.cpp:425] inception_4a/5x5_reduce <- pool3/3x3_s2_pool3/3x3_s2_0_split_2
I0403 15:23:55.976954 11907 net.cpp:399] inception_4a/5x5_reduce -> inception_4a/5x5_reduce
I0403 15:23:55.978003 11907 net.cpp:141] Setting up inception_4a/5x5_reduce
I0403 15:23:55.978030 11907 net.cpp:148] Top shape: 24 16 14 14 (75264)
I0403 15:23:55.978045 11907 net.cpp:156] Memory required for data: 873364512
I0403 15:23:55.978063 11907 layer_factory.hpp:77] Creating layer inception_4a/relu_5x5_reduce
I0403 15:23:55.978083 11907 net.cpp:91] Creating Layer inception_4a/relu_5x5_reduce
I0403 15:23:55.978101 11907 net.cpp:425] inception_4a/relu_5x5_reduce <- inception_4a/5x5_reduce
I0403 15:23:55.978118 11907 net.cpp:386] inception_4a/relu_5x5_reduce -> inception_4a/5x5_reduce (in-place)
I0403 15:23:55.978296 11907 net.cpp:141] Setting up inception_4a/relu_5x5_reduce
I0403 15:23:55.978323 11907 net.cpp:148] Top shape: 24 16 14 14 (75264)
I0403 15:23:55.978340 11907 net.cpp:156] Memory required for data: 873665568
I0403 15:23:55.978356 11907 layer_factory.hpp:77] Creating layer inception_4a/5x5
I0403 15:23:55.978379 11907 net.cpp:91] Creating Layer inception_4a/5x5
I0403 15:23:55.978400 11907 net.cpp:425] inception_4a/5x5 <- inception_4a/5x5_reduce
I0403 15:23:55.978420 11907 net.cpp:399] inception_4a/5x5 -> inception_4a/5x5
I0403 15:23:55.979499 11907 net.cpp:141] Setting up inception_4a/5x5
I0403 15:23:55.979527 11907 net.cpp:148] Top shape: 24 48 14 14 (225792)
I0403 15:23:55.979542 11907 net.cpp:156] Memory required for data: 874568736
I0403 15:23:55.979562 11907 layer_factory.hpp:77] Creating layer inception_4a/relu_5x5
I0403 15:23:55.979583 11907 net.cpp:91] Creating Layer inception_4a/relu_5x5
I0403 15:23:55.979599 11907 net.cpp:425] inception_4a/relu_5x5 <- inception_4a/5x5
I0403 15:23:55.979617 11907 net.cpp:386] inception_4a/relu_5x5 -> inception_4a/5x5 (in-place)
I0403 15:23:55.979801 11907 net.cpp:141] Setting up inception_4a/relu_5x5
I0403 15:23:55.979825 11907 net.cpp:148] Top shape: 24 48 14 14 (225792)
I0403 15:23:55.979840 11907 net.cpp:156] Memory required for data: 875471904
I0403 15:23:55.979854 11907 layer_factory.hpp:77] Creating layer inception_4a/pool
I0403 15:23:55.979871 11907 net.cpp:91] Creating Layer inception_4a/pool
I0403 15:23:55.979887 11907 net.cpp:425] inception_4a/pool <- pool3/3x3_s2_pool3/3x3_s2_0_split_3
I0403 15:23:55.979907 11907 net.cpp:399] inception_4a/pool -> inception_4a/pool
I0403 15:23:55.979967 11907 net.cpp:141] Setting up inception_4a/pool
I0403 15:23:55.979990 11907 net.cpp:148] Top shape: 24 480 14 14 (2257920)
I0403 15:23:55.980005 11907 net.cpp:156] Memory required for data: 884503584
I0403 15:23:55.980018 11907 layer_factory.hpp:77] Creating layer inception_4a/pool_proj
I0403 15:23:55.980042 11907 net.cpp:91] Creating Layer inception_4a/pool_proj
I0403 15:23:55.980059 11907 net.cpp:425] inception_4a/pool_proj <- inception_4a/pool
I0403 15:23:55.980078 11907 net.cpp:399] inception_4a/pool_proj -> inception_4a/pool_proj
I0403 15:23:55.981241 11907 net.cpp:141] Setting up inception_4a/pool_proj
I0403 15:23:55.981271 11907 net.cpp:148] Top shape: 24 64 14 14 (301056)
I0403 15:23:55.981302 11907 net.cpp:156] Memory required for data: 885707808
I0403 15:23:55.981323 11907 layer_factory.hpp:77] Creating layer inception_4a/relu_pool_proj
I0403 15:23:55.981340 11907 net.cpp:91] Creating Layer inception_4a/relu_pool_proj
I0403 15:23:55.981359 11907 net.cpp:425] inception_4a/relu_pool_proj <- inception_4a/pool_proj
I0403 15:23:55.981382 11907 net.cpp:386] inception_4a/relu_pool_proj -> inception_4a/pool_proj (in-place)
I0403 15:23:55.981678 11907 net.cpp:141] Setting up inception_4a/relu_pool_proj
I0403 15:23:55.981708 11907 net.cpp:148] Top shape: 24 64 14 14 (301056)
I0403 15:23:55.981724 11907 net.cpp:156] Memory required for data: 886912032
I0403 15:23:55.981739 11907 layer_factory.hpp:77] Creating layer inception_4a/output
I0403 15:23:55.981757 11907 net.cpp:91] Creating Layer inception_4a/output
I0403 15:23:55.981773 11907 net.cpp:425] inception_4a/output <- inception_4a/1x1
I0403 15:23:55.981791 11907 net.cpp:425] inception_4a/output <- inception_4a/3x3
I0403 15:23:55.981807 11907 net.cpp:425] inception_4a/output <- inception_4a/5x5
I0403 15:23:55.981824 11907 net.cpp:425] inception_4a/output <- inception_4a/pool_proj
I0403 15:23:55.981844 11907 net.cpp:399] inception_4a/output -> inception_4a/output
I0403 15:23:55.981900 11907 net.cpp:141] Setting up inception_4a/output
I0403 15:23:55.981922 11907 net.cpp:148] Top shape: 24 512 14 14 (2408448)
I0403 15:23:55.981937 11907 net.cpp:156] Memory required for data: 896545824
I0403 15:23:55.981952 11907 layer_factory.hpp:77] Creating layer inception_4a/output_inception_4a/output_0_split
I0403 15:23:55.981972 11907 net.cpp:91] Creating Layer inception_4a/output_inception_4a/output_0_split
I0403 15:23:55.981987 11907 net.cpp:425] inception_4a/output_inception_4a/output_0_split <- inception_4a/output
I0403 15:23:55.982005 11907 net.cpp:399] inception_4a/output_inception_4a/output_0_split -> inception_4a/output_inception_4a/output_0_split_0
I0403 15:23:55.982025 11907 net.cpp:399] inception_4a/output_inception_4a/output_0_split -> inception_4a/output_inception_4a/output_0_split_1
I0403 15:23:55.982048 11907 net.cpp:399] inception_4a/output_inception_4a/output_0_split -> inception_4a/output_inception_4a/output_0_split_2
I0403 15:23:55.982069 11907 net.cpp:399] inception_4a/output_inception_4a/output_0_split -> inception_4a/output_inception_4a/output_0_split_3
I0403 15:23:55.982089 11907 net.cpp:399] inception_4a/output_inception_4a/output_0_split -> inception_4a/output_inception_4a/output_0_split_4
I0403 15:23:55.982178 11907 net.cpp:141] Setting up inception_4a/output_inception_4a/output_0_split
I0403 15:23:55.982200 11907 net.cpp:148] Top shape: 24 512 14 14 (2408448)
I0403 15:23:55.982216 11907 net.cpp:148] Top shape: 24 512 14 14 (2408448)
I0403 15:23:55.982231 11907 net.cpp:148] Top shape: 24 512 14 14 (2408448)
I0403 15:23:55.982247 11907 net.cpp:148] Top shape: 24 512 14 14 (2408448)
I0403 15:23:55.982262 11907 net.cpp:148] Top shape: 24 512 14 14 (2408448)
I0403 15:23:55.982276 11907 net.cpp:156] Memory required for data: 944714784
I0403 15:23:55.982290 11907 layer_factory.hpp:77] Creating layer loss1/ave_pool
I0403 15:23:55.982311 11907 net.cpp:91] Creating Layer loss1/ave_pool
I0403 15:23:55.982326 11907 net.cpp:425] loss1/ave_pool <- inception_4a/output_inception_4a/output_0_split_0
I0403 15:23:55.982344 11907 net.cpp:399] loss1/ave_pool -> loss1/ave_pool
I0403 15:23:55.982565 11907 net.cpp:141] Setting up loss1/ave_pool
I0403 15:23:55.982594 11907 net.cpp:148] Top shape: 24 512 4 4 (196608)
I0403 15:23:55.982610 11907 net.cpp:156] Memory required for data: 945501216
I0403 15:23:55.982625 11907 layer_factory.hpp:77] Creating layer loss1/conv
I0403 15:23:55.982647 11907 net.cpp:91] Creating Layer loss1/conv
I0403 15:23:55.982666 11907 net.cpp:425] loss1/conv <- loss1/ave_pool
I0403 15:23:55.982684 11907 net.cpp:399] loss1/conv -> loss1/conv
I0403 15:23:55.984100 11907 net.cpp:141] Setting up loss1/conv
I0403 15:23:55.984128 11907 net.cpp:148] Top shape: 24 128 4 4 (49152)
I0403 15:23:55.984158 11907 net.cpp:156] Memory required for data: 945697824
I0403 15:23:55.984177 11907 layer_factory.hpp:77] Creating layer loss1/relu_conv
I0403 15:23:55.984197 11907 net.cpp:91] Creating Layer loss1/relu_conv
I0403 15:23:55.984215 11907 net.cpp:425] loss1/relu_conv <- loss1/conv
I0403 15:23:55.984232 11907 net.cpp:386] loss1/relu_conv -> loss1/conv (in-place)
I0403 15:23:55.984519 11907 net.cpp:141] Setting up loss1/relu_conv
I0403 15:23:55.984544 11907 net.cpp:148] Top shape: 24 128 4 4 (49152)
I0403 15:23:55.984560 11907 net.cpp:156] Memory required for data: 945894432
I0403 15:23:55.984575 11907 layer_factory.hpp:77] Creating layer loss1/fc
I0403 15:23:55.984598 11907 net.cpp:91] Creating Layer loss1/fc
I0403 15:23:55.984616 11907 net.cpp:425] loss1/fc <- loss1/conv
I0403 15:23:55.984637 11907 net.cpp:399] loss1/fc -> loss1/fc
I0403 15:23:56.002588 11907 net.cpp:141] Setting up loss1/fc
I0403 15:23:56.002621 11907 net.cpp:148] Top shape: 24 1024 (24576)
I0403 15:23:56.002636 11907 net.cpp:156] Memory required for data: 945992736
I0403 15:23:56.002655 11907 layer_factory.hpp:77] Creating layer loss1/relu_fc
I0403 15:23:56.002676 11907 net.cpp:91] Creating Layer loss1/relu_fc
I0403 15:23:56.002691 11907 net.cpp:425] loss1/relu_fc <- loss1/fc
I0403 15:23:56.002709 11907 net.cpp:386] loss1/relu_fc -> loss1/fc (in-place)
I0403 15:23:56.002914 11907 net.cpp:141] Setting up loss1/relu_fc
I0403 15:23:56.002938 11907 net.cpp:148] Top shape: 24 1024 (24576)
I0403 15:23:56.002953 11907 net.cpp:156] Memory required for data: 946091040
I0403 15:23:56.002966 11907 layer_factory.hpp:77] Creating layer loss1/drop_fc
I0403 15:23:56.002996 11907 net.cpp:91] Creating Layer loss1/drop_fc
I0403 15:23:56.003012 11907 net.cpp:425] loss1/drop_fc <- loss1/fc
I0403 15:23:56.003032 11907 net.cpp:386] loss1/drop_fc -> loss1/fc (in-place)
I0403 15:23:56.003082 11907 net.cpp:141] Setting up loss1/drop_fc
I0403 15:23:56.003108 11907 net.cpp:148] Top shape: 24 1024 (24576)
I0403 15:23:56.003123 11907 net.cpp:156] Memory required for data: 946189344
I0403 15:23:56.003137 11907 layer_factory.hpp:77] Creating layer loss1/classifier_plantvillage
I0403 15:23:56.003156 11907 net.cpp:91] Creating Layer loss1/classifier_plantvillage
I0403 15:23:56.003171 11907 net.cpp:425] loss1/classifier_plantvillage <- loss1/fc
I0403 15:23:56.003192 11907 net.cpp:399] loss1/classifier_plantvillage -> loss1/classifier_plantvillage
I0403 15:23:56.004168 11907 net.cpp:141] Setting up loss1/classifier_plantvillage
I0403 15:23:56.004195 11907 net.cpp:148] Top shape: 24 38 (912)
I0403 15:23:56.004211 11907 net.cpp:156] Memory required for data: 946192992
I0403 15:23:56.004230 11907 layer_factory.hpp:77] Creating layer loss1/classifier_plantvillage_loss1/classifier_plantvillage_0_split
I0403 15:23:56.004248 11907 net.cpp:91] Creating Layer loss1/classifier_plantvillage_loss1/classifier_plantvillage_0_split
I0403 15:23:56.004264 11907 net.cpp:425] loss1/classifier_plantvillage_loss1/classifier_plantvillage_0_split <- loss1/classifier_plantvillage
I0403 15:23:56.004284 11907 net.cpp:399] loss1/classifier_plantvillage_loss1/classifier_plantvillage_0_split -> loss1/classifier_plantvillage_loss1/classifier_plantvillage_0_split_0
I0403 15:23:56.004305 11907 net.cpp:399] loss1/classifier_plantvillage_loss1/classifier_plantvillage_0_split -> loss1/classifier_plantvillage_loss1/classifier_plantvillage_0_split_1
I0403 15:23:56.004326 11907 net.cpp:399] loss1/classifier_plantvillage_loss1/classifier_plantvillage_0_split -> loss1/classifier_plantvillage_loss1/classifier_plantvillage_0_split_2
I0403 15:23:56.004400 11907 net.cpp:141] Setting up loss1/classifier_plantvillage_loss1/classifier_plantvillage_0_split
I0403 15:23:56.004422 11907 net.cpp:148] Top shape: 24 38 (912)
I0403 15:23:56.004438 11907 net.cpp:148] Top shape: 24 38 (912)
I0403 15:23:56.004453 11907 net.cpp:148] Top shape: 24 38 (912)
I0403 15:23:56.004468 11907 net.cpp:156] Memory required for data: 946203936
I0403 15:23:56.004483 11907 layer_factory.hpp:77] Creating layer inception_4b/1x1
I0403 15:23:56.004506 11907 net.cpp:91] Creating Layer inception_4b/1x1
I0403 15:23:56.004540 11907 net.cpp:425] inception_4b/1x1 <- inception_4a/output_inception_4a/output_0_split_1
I0403 15:23:56.004561 11907 net.cpp:399] inception_4b/1x1 -> inception_4b/1x1
I0403 15:23:56.006260 11907 net.cpp:141] Setting up inception_4b/1x1
I0403 15:23:56.006289 11907 net.cpp:148] Top shape: 24 160 14 14 (752640)
I0403 15:23:56.006304 11907 net.cpp:156] Memory required for data: 949214496
I0403 15:23:56.006322 11907 layer_factory.hpp:77] Creating layer inception_4b/relu_1x1
I0403 15:23:56.006343 11907 net.cpp:91] Creating Layer inception_4b/relu_1x1
I0403 15:23:56.006361 11907 net.cpp:425] inception_4b/relu_1x1 <- inception_4b/1x1
I0403 15:23:56.006381 11907 net.cpp:386] inception_4b/relu_1x1 -> inception_4b/1x1 (in-place)
I0403 15:23:56.006564 11907 net.cpp:141] Setting up inception_4b/relu_1x1
I0403 15:23:56.006592 11907 net.cpp:148] Top shape: 24 160 14 14 (752640)
I0403 15:23:56.006606 11907 net.cpp:156] Memory required for data: 952225056
I0403 15:23:56.006620 11907 layer_factory.hpp:77] Creating layer inception_4b/3x3_reduce
I0403 15:23:56.006639 11907 net.cpp:91] Creating Layer inception_4b/3x3_reduce
I0403 15:23:56.006656 11907 net.cpp:425] inception_4b/3x3_reduce <- inception_4a/output_inception_4a/output_0_split_2
I0403 15:23:56.006682 11907 net.cpp:399] inception_4b/3x3_reduce -> inception_4b/3x3_reduce
I0403 15:23:56.008033 11907 net.cpp:141] Setting up inception_4b/3x3_reduce
I0403 15:23:56.008060 11907 net.cpp:148] Top shape: 24 112 14 14 (526848)
I0403 15:23:56.008076 11907 net.cpp:156] Memory required for data: 954332448
I0403 15:23:56.008095 11907 layer_factory.hpp:77] Creating layer inception_4b/relu_3x3_reduce
I0403 15:23:56.008116 11907 net.cpp:91] Creating Layer inception_4b/relu_3x3_reduce
I0403 15:23:56.008132 11907 net.cpp:425] inception_4b/relu_3x3_reduce <- inception_4b/3x3_reduce
I0403 15:23:56.008150 11907 net.cpp:386] inception_4b/relu_3x3_reduce -> inception_4b/3x3_reduce (in-place)
I0403 15:23:56.008436 11907 net.cpp:141] Setting up inception_4b/relu_3x3_reduce
I0403 15:23:56.008462 11907 net.cpp:148] Top shape: 24 112 14 14 (526848)
I0403 15:23:56.008477 11907 net.cpp:156] Memory required for data: 956439840
I0403 15:23:56.008492 11907 layer_factory.hpp:77] Creating layer inception_4b/3x3
I0403 15:23:56.008514 11907 net.cpp:91] Creating Layer inception_4b/3x3
I0403 15:23:56.008533 11907 net.cpp:425] inception_4b/3x3 <- inception_4b/3x3_reduce
I0403 15:23:56.008553 11907 net.cpp:399] inception_4b/3x3 -> inception_4b/3x3
I0403 15:23:56.011628 11907 net.cpp:141] Setting up inception_4b/3x3
I0403 15:23:56.011656 11907 net.cpp:148] Top shape: 24 224 14 14 (1053696)
I0403 15:23:56.011672 11907 net.cpp:156] Memory required for data: 960654624
I0403 15:23:56.011690 11907 layer_factory.hpp:77] Creating layer inception_4b/relu_3x3
I0403 15:23:56.011708 11907 net.cpp:91] Creating Layer inception_4b/relu_3x3
I0403 15:23:56.011724 11907 net.cpp:425] inception_4b/relu_3x3 <- inception_4b/3x3
I0403 15:23:56.011744 11907 net.cpp:386] inception_4b/relu_3x3 -> inception_4b/3x3 (in-place)
I0403 15:23:56.011930 11907 net.cpp:141] Setting up inception_4b/relu_3x3
I0403 15:23:56.011955 11907 net.cpp:148] Top shape: 24 224 14 14 (1053696)
I0403 15:23:56.011970 11907 net.cpp:156] Memory required for data: 964869408
I0403 15:23:56.011983 11907 layer_factory.hpp:77] Creating layer inception_4b/5x5_reduce
I0403 15:23:56.012006 11907 net.cpp:91] Creating Layer inception_4b/5x5_reduce
I0403 15:23:56.012023 11907 net.cpp:425] inception_4b/5x5_reduce <- inception_4a/output_inception_4a/output_0_split_3
I0403 15:23:56.012045 11907 net.cpp:399] inception_4b/5x5_reduce -> inception_4b/5x5_reduce
I0403 15:23:56.013144 11907 net.cpp:141] Setting up inception_4b/5x5_reduce
I0403 15:23:56.013171 11907 net.cpp:148] Top shape: 24 24 14 14 (112896)
I0403 15:23:56.013186 11907 net.cpp:156] Memory required for data: 965320992
I0403 15:23:56.013205 11907 layer_factory.hpp:77] Creating layer inception_4b/relu_5x5_reduce
I0403 15:23:56.013226 11907 net.cpp:91] Creating Layer inception_4b/relu_5x5_reduce
I0403 15:23:56.013255 11907 net.cpp:425] inception_4b/relu_5x5_reduce <- inception_4b/5x5_reduce
I0403 15:23:56.013274 11907 net.cpp:386] inception_4b/relu_5x5_reduce -> inception_4b/5x5_reduce (in-place)
I0403 15:23:56.013468 11907 net.cpp:141] Setting up inception_4b/relu_5x5_reduce
I0403 15:23:56.013494 11907 net.cpp:148] Top shape: 24 24 14 14 (112896)
I0403 15:23:56.013509 11907 net.cpp:156] Memory required for data: 965772576
I0403 15:23:56.013525 11907 layer_factory.hpp:77] Creating layer inception_4b/5x5
I0403 15:23:56.013546 11907 net.cpp:91] Creating Layer inception_4b/5x5
I0403 15:23:56.013563 11907 net.cpp:425] inception_4b/5x5 <- inception_4b/5x5_reduce
I0403 15:23:56.013582 11907 net.cpp:399] inception_4b/5x5 -> inception_4b/5x5
I0403 15:23:56.014812 11907 net.cpp:141] Setting up inception_4b/5x5
I0403 15:23:56.014840 11907 net.cpp:148] Top shape: 24 64 14 14 (301056)
I0403 15:23:56.014854 11907 net.cpp:156] Memory required for data: 966976800
I0403 15:23:56.014873 11907 layer_factory.hpp:77] Creating layer inception_4b/relu_5x5
I0403 15:23:56.014894 11907 net.cpp:91] Creating Layer inception_4b/relu_5x5
I0403 15:23:56.014910 11907 net.cpp:425] inception_4b/relu_5x5 <- inception_4b/5x5
I0403 15:23:56.014927 11907 net.cpp:386] inception_4b/relu_5x5 -> inception_4b/5x5 (in-place)
I0403 15:23:56.015218 11907 net.cpp:141] Setting up inception_4b/relu_5x5
I0403 15:23:56.015244 11907 net.cpp:148] Top shape: 24 64 14 14 (301056)
I0403 15:23:56.015259 11907 net.cpp:156] Memory required for data: 968181024
I0403 15:23:56.015275 11907 layer_factory.hpp:77] Creating layer inception_4b/pool
I0403 15:23:56.015292 11907 net.cpp:91] Creating Layer inception_4b/pool
I0403 15:23:56.015308 11907 net.cpp:425] inception_4b/pool <- inception_4a/output_inception_4a/output_0_split_4
I0403 15:23:56.015329 11907 net.cpp:399] inception_4b/pool -> inception_4b/pool
I0403 15:23:56.015400 11907 net.cpp:141] Setting up inception_4b/pool
I0403 15:23:56.015424 11907 net.cpp:148] Top shape: 24 512 14 14 (2408448)
I0403 15:23:56.015439 11907 net.cpp:156] Memory required for data: 977814816
I0403 15:23:56.015452 11907 layer_factory.hpp:77] Creating layer inception_4b/pool_proj
I0403 15:23:56.015475 11907 net.cpp:91] Creating Layer inception_4b/pool_proj
I0403 15:23:56.015492 11907 net.cpp:425] inception_4b/pool_proj <- inception_4b/pool
I0403 15:23:56.015512 11907 net.cpp:399] inception_4b/pool_proj -> inception_4b/pool_proj
I0403 15:23:56.016719 11907 net.cpp:141] Setting up inception_4b/pool_proj
I0403 15:23:56.016746 11907 net.cpp:148] Top shape: 24 64 14 14 (301056)
I0403 15:23:56.016762 11907 net.cpp:156] Memory required for data: 979019040
I0403 15:23:56.016779 11907 layer_factory.hpp:77] Creating layer inception_4b/relu_pool_proj
I0403 15:23:56.016800 11907 net.cpp:91] Creating Layer inception_4b/relu_pool_proj
I0403 15:23:56.016816 11907 net.cpp:425] inception_4b/relu_pool_proj <- inception_4b/pool_proj
I0403 15:23:56.016834 11907 net.cpp:386] inception_4b/relu_pool_proj -> inception_4b/pool_proj (in-place)
I0403 15:23:56.017015 11907 net.cpp:141] Setting up inception_4b/relu_pool_proj
I0403 15:23:56.017041 11907 net.cpp:148] Top shape: 24 64 14 14 (301056)
I0403 15:23:56.017057 11907 net.cpp:156] Memory required for data: 980223264
I0403 15:23:56.017071 11907 layer_factory.hpp:77] Creating layer inception_4b/output
I0403 15:23:56.017089 11907 net.cpp:91] Creating Layer inception_4b/output
I0403 15:23:56.017104 11907 net.cpp:425] inception_4b/output <- inception_4b/1x1
I0403 15:23:56.017120 11907 net.cpp:425] inception_4b/output <- inception_4b/3x3
I0403 15:23:56.017137 11907 net.cpp:425] inception_4b/output <- inception_4b/5x5
I0403 15:23:56.017151 11907 net.cpp:425] inception_4b/output <- inception_4b/pool_proj
I0403 15:23:56.017168 11907 net.cpp:399] inception_4b/output -> inception_4b/output
I0403 15:23:56.017215 11907 net.cpp:141] Setting up inception_4b/output
I0403 15:23:56.017237 11907 net.cpp:148] Top shape: 24 512 14 14 (2408448)
I0403 15:23:56.017251 11907 net.cpp:156] Memory required for data: 989857056
I0403 15:23:56.017280 11907 layer_factory.hpp:77] Creating layer inception_4b/output_inception_4b/output_0_split
I0403 15:23:56.017300 11907 net.cpp:91] Creating Layer inception_4b/output_inception_4b/output_0_split
I0403 15:23:56.017316 11907 net.cpp:425] inception_4b/output_inception_4b/output_0_split <- inception_4b/output
I0403 15:23:56.017334 11907 net.cpp:399] inception_4b/output_inception_4b/output_0_split -> inception_4b/output_inception_4b/output_0_split_0
I0403 15:23:56.017354 11907 net.cpp:399] inception_4b/output_inception_4b/output_0_split -> inception_4b/output_inception_4b/output_0_split_1
I0403 15:23:56.017374 11907 net.cpp:399] inception_4b/output_inception_4b/output_0_split -> inception_4b/output_inception_4b/output_0_split_2
I0403 15:23:56.017398 11907 net.cpp:399] inception_4b/output_inception_4b/output_0_split -> inception_4b/output_inception_4b/output_0_split_3
I0403 15:23:56.017483 11907 net.cpp:141] Setting up inception_4b/output_inception_4b/output_0_split
I0403 15:23:56.017505 11907 net.cpp:148] Top shape: 24 512 14 14 (2408448)
I0403 15:23:56.017521 11907 net.cpp:148] Top shape: 24 512 14 14 (2408448)
I0403 15:23:56.017536 11907 net.cpp:148] Top shape: 24 512 14 14 (2408448)
I0403 15:23:56.017552 11907 net.cpp:148] Top shape: 24 512 14 14 (2408448)
I0403 15:23:56.017565 11907 net.cpp:156] Memory required for data: 1028392224
I0403 15:23:56.017592 11907 layer_factory.hpp:77] Creating layer inception_4c/1x1
I0403 15:23:56.017614 11907 net.cpp:91] Creating Layer inception_4c/1x1
I0403 15:23:56.017632 11907 net.cpp:425] inception_4c/1x1 <- inception_4b/output_inception_4b/output_0_split_0
I0403 15:23:56.017653 11907 net.cpp:399] inception_4c/1x1 -> inception_4c/1x1
I0403 15:23:56.019103 11907 net.cpp:141] Setting up inception_4c/1x1
I0403 15:23:56.019132 11907 net.cpp:148] Top shape: 24 128 14 14 (602112)
I0403 15:23:56.019150 11907 net.cpp:156] Memory required for data: 1030800672
I0403 15:23:56.019166 11907 layer_factory.hpp:77] Creating layer inception_4c/relu_1x1
I0403 15:23:56.019184 11907 net.cpp:91] Creating Layer inception_4c/relu_1x1
I0403 15:23:56.019201 11907 net.cpp:425] inception_4c/relu_1x1 <- inception_4c/1x1
I0403 15:23:56.019217 11907 net.cpp:386] inception_4c/relu_1x1 -> inception_4c/1x1 (in-place)
I0403 15:23:56.019405 11907 net.cpp:141] Setting up inception_4c/relu_1x1
I0403 15:23:56.019429 11907 net.cpp:148] Top shape: 24 128 14 14 (602112)
I0403 15:23:56.019444 11907 net.cpp:156] Memory required for data: 1033209120
I0403 15:23:56.019459 11907 layer_factory.hpp:77] Creating layer inception_4c/3x3_reduce
I0403 15:23:56.019480 11907 net.cpp:91] Creating Layer inception_4c/3x3_reduce
I0403 15:23:56.019497 11907 net.cpp:425] inception_4c/3x3_reduce <- inception_4b/output_inception_4b/output_0_split_1
I0403 15:23:56.019520 11907 net.cpp:399] inception_4c/3x3_reduce -> inception_4c/3x3_reduce
I0403 15:23:56.021458 11907 net.cpp:141] Setting up inception_4c/3x3_reduce
I0403 15:23:56.021488 11907 net.cpp:148] Top shape: 24 128 14 14 (602112)
I0403 15:23:56.021504 11907 net.cpp:156] Memory required for data: 1035617568
I0403 15:23:56.021522 11907 layer_factory.hpp:77] Creating layer inception_4c/relu_3x3_reduce
I0403 15:23:56.021555 11907 net.cpp:91] Creating Layer inception_4c/relu_3x3_reduce
I0403 15:23:56.021574 11907 net.cpp:425] inception_4c/relu_3x3_reduce <- inception_4c/3x3_reduce
I0403 15:23:56.021605 11907 net.cpp:386] inception_4c/relu_3x3_reduce -> inception_4c/3x3_reduce (in-place)
I0403 15:23:56.021945 11907 net.cpp:141] Setting up inception_4c/relu_3x3_reduce
I0403 15:23:56.021972 11907 net.cpp:148] Top shape: 24 128 14 14 (602112)
I0403 15:23:56.021987 11907 net.cpp:156] Memory required for data: 1038026016
I0403 15:23:56.022002 11907 layer_factory.hpp:77] Creating layer inception_4c/3x3
I0403 15:23:56.022025 11907 net.cpp:91] Creating Layer inception_4c/3x3
I0403 15:23:56.022043 11907 net.cpp:425] inception_4c/3x3 <- inception_4c/3x3_reduce
I0403 15:23:56.022065 11907 net.cpp:399] inception_4c/3x3 -> inception_4c/3x3
I0403 15:23:56.025593 11907 net.cpp:141] Setting up inception_4c/3x3
I0403 15:23:56.025635 11907 net.cpp:148] Top shape: 24 256 14 14 (1204224)
I0403 15:23:56.025650 11907 net.cpp:156] Memory required for data: 1042842912
I0403 15:23:56.025681 11907 layer_factory.hpp:77] Creating layer inception_4c/relu_3x3
I0403 15:23:56.025704 11907 net.cpp:91] Creating Layer inception_4c/relu_3x3
I0403 15:23:56.025722 11907 net.cpp:425] inception_4c/relu_3x3 <- inception_4c/3x3
I0403 15:23:56.025738 11907 net.cpp:386] inception_4c/relu_3x3 -> inception_4c/3x3 (in-place)
I0403 15:23:56.025931 11907 net.cpp:141] Setting up inception_4c/relu_3x3
I0403 15:23:56.025955 11907 net.cpp:148] Top shape: 24 256 14 14 (1204224)
I0403 15:23:56.025969 11907 net.cpp:156] Memory required for data: 1047659808
I0403 15:23:56.025984 11907 layer_factory.hpp:77] Creating layer inception_4c/5x5_reduce
I0403 15:23:56.026005 11907 net.cpp:91] Creating Layer inception_4c/5x5_reduce
I0403 15:23:56.026022 11907 net.cpp:425] inception_4c/5x5_reduce <- inception_4b/output_inception_4b/output_0_split_2
I0403 15:23:56.026044 11907 net.cpp:399] inception_4c/5x5_reduce -> inception_4c/5x5_reduce
I0403 15:23:56.027106 11907 net.cpp:141] Setting up inception_4c/5x5_reduce
I0403 15:23:56.027132 11907 net.cpp:148] Top shape: 24 24 14 14 (112896)
I0403 15:23:56.027146 11907 net.cpp:156] Memory required for data: 1048111392
I0403 15:23:56.027164 11907 layer_factory.hpp:77] Creating layer inception_4c/relu_5x5_reduce
I0403 15:23:56.027184 11907 net.cpp:91] Creating Layer inception_4c/relu_5x5_reduce
I0403 15:23:56.027199 11907 net.cpp:425] inception_4c/relu_5x5_reduce <- inception_4c/5x5_reduce
I0403 15:23:56.027216 11907 net.cpp:386] inception_4c/relu_5x5_reduce -> inception_4c/5x5_reduce (in-place)
I0403 15:23:56.027400 11907 net.cpp:141] Setting up inception_4c/relu_5x5_reduce
I0403 15:23:56.027425 11907 net.cpp:148] Top shape: 24 24 14 14 (112896)
I0403 15:23:56.027438 11907 net.cpp:156] Memory required for data: 1048562976
I0403 15:23:56.027452 11907 layer_factory.hpp:77] Creating layer inception_4c/5x5
I0403 15:23:56.027475 11907 net.cpp:91] Creating Layer inception_4c/5x5
I0403 15:23:56.027493 11907 net.cpp:425] inception_4c/5x5 <- inception_4c/5x5_reduce
I0403 15:23:56.027510 11907 net.cpp:399] inception_4c/5x5 -> inception_4c/5x5
I0403 15:23:56.028728 11907 net.cpp:141] Setting up inception_4c/5x5
I0403 15:23:56.028756 11907 net.cpp:148] Top shape: 24 64 14 14 (301056)
I0403 15:23:56.028772 11907 net.cpp:156] Memory required for data: 1049767200
I0403 15:23:56.028790 11907 layer_factory.hpp:77] Creating layer inception_4c/relu_5x5
I0403 15:23:56.028807 11907 net.cpp:91] Creating Layer inception_4c/relu_5x5
I0403 15:23:56.028822 11907 net.cpp:425] inception_4c/relu_5x5 <- inception_4c/5x5
I0403 15:23:56.028839 11907 net.cpp:386] inception_4c/relu_5x5 -> inception_4c/5x5 (in-place)
I0403 15:23:56.029125 11907 net.cpp:141] Setting up inception_4c/relu_5x5
I0403 15:23:56.029152 11907 net.cpp:148] Top shape: 24 64 14 14 (301056)
I0403 15:23:56.029167 11907 net.cpp:156] Memory required for data: 1050971424
I0403 15:23:56.029182 11907 layer_factory.hpp:77] Creating layer inception_4c/pool
I0403 15:23:56.029199 11907 net.cpp:91] Creating Layer inception_4c/pool
I0403 15:23:56.029214 11907 net.cpp:425] inception_4c/pool <- inception_4b/output_inception_4b/output_0_split_3
I0403 15:23:56.029232 11907 net.cpp:399] inception_4c/pool -> inception_4c/pool
I0403 15:23:56.029297 11907 net.cpp:141] Setting up inception_4c/pool
I0403 15:23:56.029320 11907 net.cpp:148] Top shape: 24 512 14 14 (2408448)
I0403 15:23:56.029333 11907 net.cpp:156] Memory required for data: 1060605216
I0403 15:23:56.029346 11907 layer_factory.hpp:77] Creating layer inception_4c/pool_proj
I0403 15:23:56.029368 11907 net.cpp:91] Creating Layer inception_4c/pool_proj
I0403 15:23:56.029389 11907 net.cpp:425] inception_4c/pool_proj <- inception_4c/pool
I0403 15:23:56.029413 11907 net.cpp:399] inception_4c/pool_proj -> inception_4c/pool_proj
I0403 15:23:56.030637 11907 net.cpp:141] Setting up inception_4c/pool_proj
I0403 15:23:56.030663 11907 net.cpp:148] Top shape: 24 64 14 14 (301056)
I0403 15:23:56.030691 11907 net.cpp:156] Memory required for data: 1061809440
I0403 15:23:56.030709 11907 layer_factory.hpp:77] Creating layer inception_4c/relu_pool_proj
I0403 15:23:56.030730 11907 net.cpp:91] Creating Layer inception_4c/relu_pool_proj
I0403 15:23:56.030747 11907 net.cpp:425] inception_4c/relu_pool_proj <- inception_4c/pool_proj
I0403 15:23:56.030764 11907 net.cpp:386] inception_4c/relu_pool_proj -> inception_4c/pool_proj (in-place)
I0403 15:23:56.030956 11907 net.cpp:141] Setting up inception_4c/relu_pool_proj
I0403 15:23:56.030982 11907 net.cpp:148] Top shape: 24 64 14 14 (301056)
I0403 15:23:56.030998 11907 net.cpp:156] Memory required for data: 1063013664
I0403 15:23:56.031013 11907 layer_factory.hpp:77] Creating layer inception_4c/output
I0403 15:23:56.031028 11907 net.cpp:91] Creating Layer inception_4c/output
I0403 15:23:56.031044 11907 net.cpp:425] inception_4c/output <- inception_4c/1x1
I0403 15:23:56.031061 11907 net.cpp:425] inception_4c/output <- inception_4c/3x3
I0403 15:23:56.031076 11907 net.cpp:425] inception_4c/output <- inception_4c/5x5
I0403 15:23:56.031091 11907 net.cpp:425] inception_4c/output <- inception_4c/pool_proj
I0403 15:23:56.031107 11907 net.cpp:399] inception_4c/output -> inception_4c/output
I0403 15:23:56.031155 11907 net.cpp:141] Setting up inception_4c/output
I0403 15:23:56.031177 11907 net.cpp:148] Top shape: 24 512 14 14 (2408448)
I0403 15:23:56.031193 11907 net.cpp:156] Memory required for data: 1072647456
I0403 15:23:56.031206 11907 layer_factory.hpp:77] Creating layer inception_4c/output_inception_4c/output_0_split
I0403 15:23:56.031236 11907 net.cpp:91] Creating Layer inception_4c/output_inception_4c/output_0_split
I0403 15:23:56.031252 11907 net.cpp:425] inception_4c/output_inception_4c/output_0_split <- inception_4c/output
I0403 15:23:56.031270 11907 net.cpp:399] inception_4c/output_inception_4c/output_0_split -> inception_4c/output_inception_4c/output_0_split_0
I0403 15:23:56.031289 11907 net.cpp:399] inception_4c/output_inception_4c/output_0_split -> inception_4c/output_inception_4c/output_0_split_1
I0403 15:23:56.031308 11907 net.cpp:399] inception_4c/output_inception_4c/output_0_split -> inception_4c/output_inception_4c/output_0_split_2
I0403 15:23:56.031327 11907 net.cpp:399] inception_4c/output_inception_4c/output_0_split -> inception_4c/output_inception_4c/output_0_split_3
I0403 15:23:56.031414 11907 net.cpp:141] Setting up inception_4c/output_inception_4c/output_0_split
I0403 15:23:56.031437 11907 net.cpp:148] Top shape: 24 512 14 14 (2408448)
I0403 15:23:56.031452 11907 net.cpp:148] Top shape: 24 512 14 14 (2408448)
I0403 15:23:56.031467 11907 net.cpp:148] Top shape: 24 512 14 14 (2408448)
I0403 15:23:56.031481 11907 net.cpp:148] Top shape: 24 512 14 14 (2408448)
I0403 15:23:56.031494 11907 net.cpp:156] Memory required for data: 1111182624
I0403 15:23:56.031507 11907 layer_factory.hpp:77] Creating layer inception_4d/1x1
I0403 15:23:56.031530 11907 net.cpp:91] Creating Layer inception_4d/1x1
I0403 15:23:56.031548 11907 net.cpp:425] inception_4d/1x1 <- inception_4c/output_inception_4c/output_0_split_0
I0403 15:23:56.031569 11907 net.cpp:399] inception_4d/1x1 -> inception_4d/1x1
I0403 15:23:56.033124 11907 net.cpp:141] Setting up inception_4d/1x1
I0403 15:23:56.033150 11907 net.cpp:148] Top shape: 24 112 14 14 (526848)
I0403 15:23:56.033165 11907 net.cpp:156] Memory required for data: 1113290016
I0403 15:23:56.033184 11907 layer_factory.hpp:77] Creating layer inception_4d/relu_1x1
I0403 15:23:56.033201 11907 net.cpp:91] Creating Layer inception_4d/relu_1x1
I0403 15:23:56.033217 11907 net.cpp:425] inception_4d/relu_1x1 <- inception_4d/1x1
I0403 15:23:56.033237 11907 net.cpp:386] inception_4d/relu_1x1 -> inception_4d/1x1 (in-place)
I0403 15:23:56.033421 11907 net.cpp:141] Setting up inception_4d/relu_1x1
I0403 15:23:56.033445 11907 net.cpp:148] Top shape: 24 112 14 14 (526848)
I0403 15:23:56.033459 11907 net.cpp:156] Memory required for data: 1115397408
I0403 15:23:56.033473 11907 layer_factory.hpp:77] Creating layer inception_4d/3x3_reduce
I0403 15:23:56.033509 11907 net.cpp:91] Creating Layer inception_4d/3x3_reduce
I0403 15:23:56.033527 11907 net.cpp:425] inception_4d/3x3_reduce <- inception_4c/output_inception_4c/output_0_split_1
I0403 15:23:56.033552 11907 net.cpp:399] inception_4d/3x3_reduce -> inception_4d/3x3_reduce
I0403 15:23:56.035048 11907 net.cpp:141] Setting up inception_4d/3x3_reduce
I0403 15:23:56.035076 11907 net.cpp:148] Top shape: 24 144 14 14 (677376)
I0403 15:23:56.035092 11907 net.cpp:156] Memory required for data: 1118106912
I0403 15:23:56.035109 11907 layer_factory.hpp:77] Creating layer inception_4d/relu_3x3_reduce
I0403 15:23:56.035127 11907 net.cpp:91] Creating Layer inception_4d/relu_3x3_reduce
I0403 15:23:56.035143 11907 net.cpp:425] inception_4d/relu_3x3_reduce <- inception_4d/3x3_reduce
I0403 15:23:56.035162 11907 net.cpp:386] inception_4d/relu_3x3_reduce -> inception_4d/3x3_reduce (in-place)
I0403 15:23:56.035449 11907 net.cpp:141] Setting up inception_4d/relu_3x3_reduce
I0403 15:23:56.035476 11907 net.cpp:148] Top shape: 24 144 14 14 (677376)
I0403 15:23:56.035492 11907 net.cpp:156] Memory required for data: 1120816416
I0403 15:23:56.035506 11907 layer_factory.hpp:77] Creating layer inception_4d/3x3
I0403 15:23:56.035528 11907 net.cpp:91] Creating Layer inception_4d/3x3
I0403 15:23:56.035544 11907 net.cpp:425] inception_4d/3x3 <- inception_4d/3x3_reduce
I0403 15:23:56.035562 11907 net.cpp:399] inception_4d/3x3 -> inception_4d/3x3
I0403 15:23:56.039687 11907 net.cpp:141] Setting up inception_4d/3x3
I0403 15:23:56.039715 11907 net.cpp:148] Top shape: 24 288 14 14 (1354752)
I0403 15:23:56.039728 11907 net.cpp:156] Memory required for data: 1126235424
I0403 15:23:56.039746 11907 layer_factory.hpp:77] Creating layer inception_4d/relu_3x3
I0403 15:23:56.039763 11907 net.cpp:91] Creating Layer inception_4d/relu_3x3
I0403 15:23:56.039783 11907 net.cpp:425] inception_4d/relu_3x3 <- inception_4d/3x3
I0403 15:23:56.039799 11907 net.cpp:386] inception_4d/relu_3x3 -> inception_4d/3x3 (in-place)
I0403 15:23:56.039978 11907 net.cpp:141] Setting up inception_4d/relu_3x3
I0403 15:23:56.040001 11907 net.cpp:148] Top shape: 24 288 14 14 (1354752)
I0403 15:23:56.040015 11907 net.cpp:156] Memory required for data: 1131654432
I0403 15:23:56.040030 11907 layer_factory.hpp:77] Creating layer inception_4d/5x5_reduce
I0403 15:23:56.040050 11907 net.cpp:91] Creating Layer inception_4d/5x5_reduce
I0403 15:23:56.040067 11907 net.cpp:425] inception_4d/5x5_reduce <- inception_4c/output_inception_4c/output_0_split_2
I0403 15:23:56.040087 11907 net.cpp:399] inception_4d/5x5_reduce -> inception_4d/5x5_reduce
I0403 15:23:56.041200 11907 net.cpp:141] Setting up inception_4d/5x5_reduce
I0403 15:23:56.041226 11907 net.cpp:148] Top shape: 24 32 14 14 (150528)
I0403 15:23:56.041241 11907 net.cpp:156] Memory required for data: 1132256544
I0403 15:23:56.041260 11907 layer_factory.hpp:77] Creating layer inception_4d/relu_5x5_reduce
I0403 15:23:56.041276 11907 net.cpp:91] Creating Layer inception_4d/relu_5x5_reduce
I0403 15:23:56.041292 11907 net.cpp:425] inception_4d/relu_5x5_reduce <- inception_4d/5x5_reduce
I0403 15:23:56.041311 11907 net.cpp:386] inception_4d/relu_5x5_reduce -> inception_4d/5x5_reduce (in-place)
I0403 15:23:56.041503 11907 net.cpp:141] Setting up inception_4d/relu_5x5_reduce
I0403 15:23:56.041527 11907 net.cpp:148] Top shape: 24 32 14 14 (150528)
I0403 15:23:56.041541 11907 net.cpp:156] Memory required for data: 1132858656
I0403 15:23:56.041555 11907 layer_factory.hpp:77] Creating layer inception_4d/5x5
I0403 15:23:56.041589 11907 net.cpp:91] Creating Layer inception_4d/5x5
I0403 15:23:56.041605 11907 net.cpp:425] inception_4d/5x5 <- inception_4d/5x5_reduce
I0403 15:23:56.041627 11907 net.cpp:399] inception_4d/5x5 -> inception_4d/5x5
I0403 15:23:56.043083 11907 net.cpp:141] Setting up inception_4d/5x5
I0403 15:23:56.043110 11907 net.cpp:148] Top shape: 24 64 14 14 (301056)
I0403 15:23:56.043126 11907 net.cpp:156] Memory required for data: 1134062880
I0403 15:23:56.043144 11907 layer_factory.hpp:77] Creating layer inception_4d/relu_5x5
I0403 15:23:56.043179 11907 net.cpp:91] Creating Layer inception_4d/relu_5x5
I0403 15:23:56.043195 11907 net.cpp:425] inception_4d/relu_5x5 <- inception_4d/5x5
I0403 15:23:56.043213 11907 net.cpp:386] inception_4d/relu_5x5 -> inception_4d/5x5 (in-place)
I0403 15:23:56.043547 11907 net.cpp:141] Setting up inception_4d/relu_5x5
I0403 15:23:56.043575 11907 net.cpp:148] Top shape: 24 64 14 14 (301056)
I0403 15:23:56.043591 11907 net.cpp:156] Memory required for data: 1135267104
I0403 15:23:56.043606 11907 layer_factory.hpp:77] Creating layer inception_4d/pool
I0403 15:23:56.043627 11907 net.cpp:91] Creating Layer inception_4d/pool
I0403 15:23:56.043644 11907 net.cpp:425] inception_4d/pool <- inception_4c/output_inception_4c/output_0_split_3
I0403 15:23:56.043663 11907 net.cpp:399] inception_4d/pool -> inception_4d/pool
I0403 15:23:56.043742 11907 net.cpp:141] Setting up inception_4d/pool
I0403 15:23:56.043766 11907 net.cpp:148] Top shape: 24 512 14 14 (2408448)
I0403 15:23:56.043781 11907 net.cpp:156] Memory required for data: 1144900896
I0403 15:23:56.043795 11907 layer_factory.hpp:77] Creating layer inception_4d/pool_proj
I0403 15:23:56.043817 11907 net.cpp:91] Creating Layer inception_4d/pool_proj
I0403 15:23:56.043834 11907 net.cpp:425] inception_4d/pool_proj <- inception_4d/pool
I0403 15:23:56.043855 11907 net.cpp:399] inception_4d/pool_proj -> inception_4d/pool_proj
I0403 15:23:56.045634 11907 net.cpp:141] Setting up inception_4d/pool_proj
I0403 15:23:56.045661 11907 net.cpp:148] Top shape: 24 64 14 14 (301056)
I0403 15:23:56.045677 11907 net.cpp:156] Memory required for data: 1146105120
I0403 15:23:56.045696 11907 layer_factory.hpp:77] Creating layer inception_4d/relu_pool_proj
I0403 15:23:56.045714 11907 net.cpp:91] Creating Layer inception_4d/relu_pool_proj
I0403 15:23:56.045734 11907 net.cpp:425] inception_4d/relu_pool_proj <- inception_4d/pool_proj
I0403 15:23:56.045752 11907 net.cpp:386] inception_4d/relu_pool_proj -> inception_4d/pool_proj (in-place)
I0403 15:23:56.045936 11907 net.cpp:141] Setting up inception_4d/relu_pool_proj
I0403 15:23:56.045961 11907 net.cpp:148] Top shape: 24 64 14 14 (301056)
I0403 15:23:56.045975 11907 net.cpp:156] Memory required for data: 1147309344
I0403 15:23:56.045990 11907 layer_factory.hpp:77] Creating layer inception_4d/output
I0403 15:23:56.046010 11907 net.cpp:91] Creating Layer inception_4d/output
I0403 15:23:56.046025 11907 net.cpp:425] inception_4d/output <- inception_4d/1x1
I0403 15:23:56.046042 11907 net.cpp:425] inception_4d/output <- inception_4d/3x3
I0403 15:23:56.046058 11907 net.cpp:425] inception_4d/output <- inception_4d/5x5
I0403 15:23:56.046073 11907 net.cpp:425] inception_4d/output <- inception_4d/pool_proj
I0403 15:23:56.046090 11907 net.cpp:399] inception_4d/output -> inception_4d/output
I0403 15:23:56.046139 11907 net.cpp:141] Setting up inception_4d/output
I0403 15:23:56.046161 11907 net.cpp:148] Top shape: 24 528 14 14 (2483712)
I0403 15:23:56.046175 11907 net.cpp:156] Memory required for data: 1157244192
I0403 15:23:56.046190 11907 layer_factory.hpp:77] Creating layer inception_4d/output_inception_4d/output_0_split
I0403 15:23:56.046206 11907 net.cpp:91] Creating Layer inception_4d/output_inception_4d/output_0_split
I0403 15:23:56.046221 11907 net.cpp:425] inception_4d/output_inception_4d/output_0_split <- inception_4d/output
I0403 15:23:56.046242 11907 net.cpp:399] inception_4d/output_inception_4d/output_0_split -> inception_4d/output_inception_4d/output_0_split_0
I0403 15:23:56.046263 11907 net.cpp:399] inception_4d/output_inception_4d/output_0_split -> inception_4d/output_inception_4d/output_0_split_1
I0403 15:23:56.046284 11907 net.cpp:399] inception_4d/output_inception_4d/output_0_split -> inception_4d/output_inception_4d/output_0_split_2
I0403 15:23:56.046304 11907 net.cpp:399] inception_4d/output_inception_4d/output_0_split -> inception_4d/output_inception_4d/output_0_split_3
I0403 15:23:56.046324 11907 net.cpp:399] inception_4d/output_inception_4d/output_0_split -> inception_4d/output_inception_4d/output_0_split_4
I0403 15:23:56.046433 11907 net.cpp:141] Setting up inception_4d/output_inception_4d/output_0_split
I0403 15:23:56.046468 11907 net.cpp:148] Top shape: 24 528 14 14 (2483712)
I0403 15:23:56.046486 11907 net.cpp:148] Top shape: 24 528 14 14 (2483712)
I0403 15:23:56.046501 11907 net.cpp:148] Top shape: 24 528 14 14 (2483712)
I0403 15:23:56.046516 11907 net.cpp:148] Top shape: 24 528 14 14 (2483712)
I0403 15:23:56.046531 11907 net.cpp:148] Top shape: 24 528 14 14 (2483712)
I0403 15:23:56.046545 11907 net.cpp:156] Memory required for data: 1206918432
I0403 15:23:56.046561 11907 layer_factory.hpp:77] Creating layer loss2/ave_pool
I0403 15:23:56.046578 11907 net.cpp:91] Creating Layer loss2/ave_pool
I0403 15:23:56.046594 11907 net.cpp:425] loss2/ave_pool <- inception_4d/output_inception_4d/output_0_split_0
I0403 15:23:56.046614 11907 net.cpp:399] loss2/ave_pool -> loss2/ave_pool
I0403 15:23:56.046934 11907 net.cpp:141] Setting up loss2/ave_pool
I0403 15:23:56.046960 11907 net.cpp:148] Top shape: 24 528 4 4 (202752)
I0403 15:23:56.046975 11907 net.cpp:156] Memory required for data: 1207729440
I0403 15:23:56.046991 11907 layer_factory.hpp:77] Creating layer loss2/conv
I0403 15:23:56.047013 11907 net.cpp:91] Creating Layer loss2/conv
I0403 15:23:56.047030 11907 net.cpp:425] loss2/conv <- loss2/ave_pool
I0403 15:23:56.047052 11907 net.cpp:399] loss2/conv -> loss2/conv
I0403 15:23:56.048949 11907 net.cpp:141] Setting up loss2/conv
I0403 15:23:56.048979 11907 net.cpp:148] Top shape: 24 128 4 4 (49152)
I0403 15:23:56.048995 11907 net.cpp:156] Memory required for data: 1207926048
I0403 15:23:56.049012 11907 layer_factory.hpp:77] Creating layer loss2/relu_conv
I0403 15:23:56.049046 11907 net.cpp:91] Creating Layer loss2/relu_conv
I0403 15:23:56.049063 11907 net.cpp:425] loss2/relu_conv <- loss2/conv
I0403 15:23:56.049082 11907 net.cpp:386] loss2/relu_conv -> loss2/conv (in-place)
I0403 15:23:56.049377 11907 net.cpp:141] Setting up loss2/relu_conv
I0403 15:23:56.049408 11907 net.cpp:148] Top shape: 24 128 4 4 (49152)
I0403 15:23:56.049423 11907 net.cpp:156] Memory required for data: 1208122656
I0403 15:23:56.049438 11907 layer_factory.hpp:77] Creating layer loss2/fc
I0403 15:23:56.049460 11907 net.cpp:91] Creating Layer loss2/fc
I0403 15:23:56.049477 11907 net.cpp:425] loss2/fc <- loss2/conv
I0403 15:23:56.049499 11907 net.cpp:399] loss2/fc -> loss2/fc
I0403 15:23:56.067749 11907 net.cpp:141] Setting up loss2/fc
I0403 15:23:56.067814 11907 net.cpp:148] Top shape: 24 1024 (24576)
I0403 15:23:56.067831 11907 net.cpp:156] Memory required for data: 1208220960
I0403 15:23:56.067849 11907 layer_factory.hpp:77] Creating layer loss2/relu_fc
I0403 15:23:56.067870 11907 net.cpp:91] Creating Layer loss2/relu_fc
I0403 15:23:56.067888 11907 net.cpp:425] loss2/relu_fc <- loss2/fc
I0403 15:23:56.067909 11907 net.cpp:386] loss2/relu_fc -> loss2/fc (in-place)
I0403 15:23:56.068261 11907 net.cpp:141] Setting up loss2/relu_fc
I0403 15:23:56.068289 11907 net.cpp:148] Top shape: 24 1024 (24576)
I0403 15:23:56.068303 11907 net.cpp:156] Memory required for data: 1208319264
I0403 15:23:56.068318 11907 layer_factory.hpp:77] Creating layer loss2/drop_fc
I0403 15:23:56.068336 11907 net.cpp:91] Creating Layer loss2/drop_fc
I0403 15:23:56.068352 11907 net.cpp:425] loss2/drop_fc <- loss2/fc
I0403 15:23:56.068372 11907 net.cpp:386] loss2/drop_fc -> loss2/fc (in-place)
I0403 15:23:56.068426 11907 net.cpp:141] Setting up loss2/drop_fc
I0403 15:23:56.068452 11907 net.cpp:148] Top shape: 24 1024 (24576)
I0403 15:23:56.068467 11907 net.cpp:156] Memory required for data: 1208417568
I0403 15:23:56.068482 11907 layer_factory.hpp:77] Creating layer loss2/classifier_plantvillage
I0403 15:23:56.068501 11907 net.cpp:91] Creating Layer loss2/classifier_plantvillage
I0403 15:23:56.068517 11907 net.cpp:425] loss2/classifier_plantvillage <- loss2/fc
I0403 15:23:56.068539 11907 net.cpp:399] loss2/classifier_plantvillage -> loss2/classifier_plantvillage
I0403 15:23:56.068953 11907 net.cpp:141] Setting up loss2/classifier_plantvillage
I0403 15:23:56.068977 11907 net.cpp:148] Top shape: 24 38 (912)
I0403 15:23:56.069011 11907 net.cpp:156] Memory required for data: 1208421216
I0403 15:23:56.069031 11907 layer_factory.hpp:77] Creating layer loss2/classifier_plantvillage_loss2/classifier_plantvillage_0_split
I0403 15:23:56.069051 11907 net.cpp:91] Creating Layer loss2/classifier_plantvillage_loss2/classifier_plantvillage_0_split
I0403 15:23:56.069068 11907 net.cpp:425] loss2/classifier_plantvillage_loss2/classifier_plantvillage_0_split <- loss2/classifier_plantvillage
I0403 15:23:56.069087 11907 net.cpp:399] loss2/classifier_plantvillage_loss2/classifier_plantvillage_0_split -> loss2/classifier_plantvillage_loss2/classifier_plantvillage_0_split_0
I0403 15:23:56.069109 11907 net.cpp:399] loss2/classifier_plantvillage_loss2/classifier_plantvillage_0_split -> loss2/classifier_plantvillage_loss2/classifier_plantvillage_0_split_1
I0403 15:23:56.069130 11907 net.cpp:399] loss2/classifier_plantvillage_loss2/classifier_plantvillage_0_split -> loss2/classifier_plantvillage_loss2/classifier_plantvillage_0_split_2
I0403 15:23:56.069207 11907 net.cpp:141] Setting up loss2/classifier_plantvillage_loss2/classifier_plantvillage_0_split
I0403 15:23:56.069229 11907 net.cpp:148] Top shape: 24 38 (912)
I0403 15:23:56.069245 11907 net.cpp:148] Top shape: 24 38 (912)
I0403 15:23:56.069260 11907 net.cpp:148] Top shape: 24 38 (912)
I0403 15:23:56.069273 11907 net.cpp:156] Memory required for data: 1208432160
I0403 15:23:56.069288 11907 layer_factory.hpp:77] Creating layer inception_4e/1x1
I0403 15:23:56.069310 11907 net.cpp:91] Creating Layer inception_4e/1x1
I0403 15:23:56.069329 11907 net.cpp:425] inception_4e/1x1 <- inception_4d/output_inception_4d/output_0_split_1
I0403 15:23:56.069347 11907 net.cpp:399] inception_4e/1x1 -> inception_4e/1x1
I0403 15:23:56.071233 11907 net.cpp:141] Setting up inception_4e/1x1
I0403 15:23:56.071262 11907 net.cpp:148] Top shape: 24 256 14 14 (1204224)
I0403 15:23:56.071280 11907 net.cpp:156] Memory required for data: 1213249056
I0403 15:23:56.071296 11907 layer_factory.hpp:77] Creating layer inception_4e/relu_1x1
I0403 15:23:56.071315 11907 net.cpp:91] Creating Layer inception_4e/relu_1x1
I0403 15:23:56.071331 11907 net.cpp:425] inception_4e/relu_1x1 <- inception_4e/1x1
I0403 15:23:56.071348 11907 net.cpp:386] inception_4e/relu_1x1 -> inception_4e/1x1 (in-place)
I0403 15:23:56.071652 11907 net.cpp:141] Setting up inception_4e/relu_1x1
I0403 15:23:56.071681 11907 net.cpp:148] Top shape: 24 256 14 14 (1204224)
I0403 15:23:56.071696 11907 net.cpp:156] Memory required for data: 1218065952
I0403 15:23:56.071712 11907 layer_factory.hpp:77] Creating layer inception_4e/3x3_reduce
I0403 15:23:56.071734 11907 net.cpp:91] Creating Layer inception_4e/3x3_reduce
I0403 15:23:56.071751 11907 net.cpp:425] inception_4e/3x3_reduce <- inception_4d/output_inception_4d/output_0_split_2
I0403 15:23:56.071771 11907 net.cpp:399] inception_4e/3x3_reduce -> inception_4e/3x3_reduce
I0403 15:23:56.073958 11907 net.cpp:141] Setting up inception_4e/3x3_reduce
I0403 15:23:56.073987 11907 net.cpp:148] Top shape: 24 160 14 14 (752640)
I0403 15:23:56.074002 11907 net.cpp:156] Memory required for data: 1221076512
I0403 15:23:56.074020 11907 layer_factory.hpp:77] Creating layer inception_4e/relu_3x3_reduce
I0403 15:23:56.074041 11907 net.cpp:91] Creating Layer inception_4e/relu_3x3_reduce
I0403 15:23:56.074059 11907 net.cpp:425] inception_4e/relu_3x3_reduce <- inception_4e/3x3_reduce
I0403 15:23:56.074076 11907 net.cpp:386] inception_4e/relu_3x3_reduce -> inception_4e/3x3_reduce (in-place)
I0403 15:23:56.074264 11907 net.cpp:141] Setting up inception_4e/relu_3x3_reduce
I0403 15:23:56.074290 11907 net.cpp:148] Top shape: 24 160 14 14 (752640)
I0403 15:23:56.074306 11907 net.cpp:156] Memory required for data: 1224087072
I0403 15:23:56.074321 11907 layer_factory.hpp:77] Creating layer inception_4e/3x3
I0403 15:23:56.074343 11907 net.cpp:91] Creating Layer inception_4e/3x3
I0403 15:23:56.074362 11907 net.cpp:425] inception_4e/3x3 <- inception_4e/3x3_reduce
I0403 15:23:56.074383 11907 net.cpp:399] inception_4e/3x3 -> inception_4e/3x3
I0403 15:23:56.079443 11907 net.cpp:141] Setting up inception_4e/3x3
I0403 15:23:56.079488 11907 net.cpp:148] Top shape: 24 320 14 14 (1505280)
I0403 15:23:56.079504 11907 net.cpp:156] Memory required for data: 1230108192
I0403 15:23:56.079522 11907 layer_factory.hpp:77] Creating layer inception_4e/relu_3x3
I0403 15:23:56.079540 11907 net.cpp:91] Creating Layer inception_4e/relu_3x3
I0403 15:23:56.079556 11907 net.cpp:425] inception_4e/relu_3x3 <- inception_4e/3x3
I0403 15:23:56.079576 11907 net.cpp:386] inception_4e/relu_3x3 -> inception_4e/3x3 (in-place)
I0403 15:23:56.079879 11907 net.cpp:141] Setting up inception_4e/relu_3x3
I0403 15:23:56.079905 11907 net.cpp:148] Top shape: 24 320 14 14 (1505280)
I0403 15:23:56.079921 11907 net.cpp:156] Memory required for data: 1236129312
I0403 15:23:56.079934 11907 layer_factory.hpp:77] Creating layer inception_4e/5x5_reduce
I0403 15:23:56.079957 11907 net.cpp:91] Creating Layer inception_4e/5x5_reduce
I0403 15:23:56.079975 11907 net.cpp:425] inception_4e/5x5_reduce <- inception_4d/output_inception_4d/output_0_split_3
I0403 15:23:56.079998 11907 net.cpp:399] inception_4e/5x5_reduce -> inception_4e/5x5_reduce
I0403 15:23:56.081071 11907 net.cpp:141] Setting up inception_4e/5x5_reduce
I0403 15:23:56.081099 11907 net.cpp:148] Top shape: 24 32 14 14 (150528)
I0403 15:23:56.081113 11907 net.cpp:156] Memory required for data: 1236731424
I0403 15:23:56.081132 11907 layer_factory.hpp:77] Creating layer inception_4e/relu_5x5_reduce
I0403 15:23:56.081152 11907 net.cpp:91] Creating Layer inception_4e/relu_5x5_reduce
I0403 15:23:56.081169 11907 net.cpp:425] inception_4e/relu_5x5_reduce <- inception_4e/5x5_reduce
I0403 15:23:56.081187 11907 net.cpp:386] inception_4e/relu_5x5_reduce -> inception_4e/5x5_reduce (in-place)
I0403 15:23:56.081496 11907 net.cpp:141] Setting up inception_4e/relu_5x5_reduce
I0403 15:23:56.081521 11907 net.cpp:148] Top shape: 24 32 14 14 (150528)
I0403 15:23:56.081537 11907 net.cpp:156] Memory required for data: 1237333536
I0403 15:23:56.081550 11907 layer_factory.hpp:77] Creating layer inception_4e/5x5
I0403 15:23:56.081603 11907 net.cpp:91] Creating Layer inception_4e/5x5
I0403 15:23:56.081622 11907 net.cpp:425] inception_4e/5x5 <- inception_4e/5x5_reduce
I0403 15:23:56.081647 11907 net.cpp:399] inception_4e/5x5 -> inception_4e/5x5
I0403 15:23:56.083541 11907 net.cpp:141] Setting up inception_4e/5x5
I0403 15:23:56.083570 11907 net.cpp:148] Top shape: 24 128 14 14 (602112)
I0403 15:23:56.083585 11907 net.cpp:156] Memory required for data: 1239741984
I0403 15:23:56.083605 11907 layer_factory.hpp:77] Creating layer inception_4e/relu_5x5
I0403 15:23:56.083636 11907 net.cpp:91] Creating Layer inception_4e/relu_5x5
I0403 15:23:56.083653 11907 net.cpp:425] inception_4e/relu_5x5 <- inception_4e/5x5
I0403 15:23:56.083672 11907 net.cpp:386] inception_4e/relu_5x5 -> inception_4e/5x5 (in-place)
I0403 15:23:56.083869 11907 net.cpp:141] Setting up inception_4e/relu_5x5
I0403 15:23:56.083894 11907 net.cpp:148] Top shape: 24 128 14 14 (602112)
I0403 15:23:56.083909 11907 net.cpp:156] Memory required for data: 1242150432
I0403 15:23:56.083923 11907 layer_factory.hpp:77] Creating layer inception_4e/pool
I0403 15:23:56.083943 11907 net.cpp:91] Creating Layer inception_4e/pool
I0403 15:23:56.083961 11907 net.cpp:425] inception_4e/pool <- inception_4d/output_inception_4d/output_0_split_4
I0403 15:23:56.083978 11907 net.cpp:399] inception_4e/pool -> inception_4e/pool
I0403 15:23:56.084049 11907 net.cpp:141] Setting up inception_4e/pool
I0403 15:23:56.084072 11907 net.cpp:148] Top shape: 24 528 14 14 (2483712)
I0403 15:23:56.084087 11907 net.cpp:156] Memory required for data: 1252085280
I0403 15:23:56.084101 11907 layer_factory.hpp:77] Creating layer inception_4e/pool_proj
I0403 15:23:56.084123 11907 net.cpp:91] Creating Layer inception_4e/pool_proj
I0403 15:23:56.084141 11907 net.cpp:425] inception_4e/pool_proj <- inception_4e/pool
I0403 15:23:56.084161 11907 net.cpp:399] inception_4e/pool_proj -> inception_4e/pool_proj
I0403 15:23:56.085691 11907 net.cpp:141] Setting up inception_4e/pool_proj
I0403 15:23:56.085731 11907 net.cpp:148] Top shape: 24 128 14 14 (602112)
I0403 15:23:56.085747 11907 net.cpp:156] Memory required for data: 1254493728
I0403 15:23:56.085767 11907 layer_factory.hpp:77] Creating layer inception_4e/relu_pool_proj
I0403 15:23:56.085788 11907 net.cpp:91] Creating Layer inception_4e/relu_pool_proj
I0403 15:23:56.085804 11907 net.cpp:425] inception_4e/relu_pool_proj <- inception_4e/pool_proj
I0403 15:23:56.085824 11907 net.cpp:386] inception_4e/relu_pool_proj -> inception_4e/pool_proj (in-place)
I0403 15:23:56.086132 11907 net.cpp:141] Setting up inception_4e/relu_pool_proj
I0403 15:23:56.086158 11907 net.cpp:148] Top shape: 24 128 14 14 (602112)
I0403 15:23:56.086172 11907 net.cpp:156] Memory required for data: 1256902176
I0403 15:23:56.086187 11907 layer_factory.hpp:77] Creating layer inception_4e/output
I0403 15:23:56.086205 11907 net.cpp:91] Creating Layer inception_4e/output
I0403 15:23:56.086220 11907 net.cpp:425] inception_4e/output <- inception_4e/1x1
I0403 15:23:56.086237 11907 net.cpp:425] inception_4e/output <- inception_4e/3x3
I0403 15:23:56.086253 11907 net.cpp:425] inception_4e/output <- inception_4e/5x5
I0403 15:23:56.086269 11907 net.cpp:425] inception_4e/output <- inception_4e/pool_proj
I0403 15:23:56.086289 11907 net.cpp:399] inception_4e/output -> inception_4e/output
I0403 15:23:56.086338 11907 net.cpp:141] Setting up inception_4e/output
I0403 15:23:56.086365 11907 net.cpp:148] Top shape: 24 832 14 14 (3913728)
I0403 15:23:56.086385 11907 net.cpp:156] Memory required for data: 1272557088
I0403 15:23:56.086401 11907 layer_factory.hpp:77] Creating layer pool4/3x3_s2
I0403 15:23:56.086418 11907 net.cpp:91] Creating Layer pool4/3x3_s2
I0403 15:23:56.086434 11907 net.cpp:425] pool4/3x3_s2 <- inception_4e/output
I0403 15:23:56.086457 11907 net.cpp:399] pool4/3x3_s2 -> pool4/3x3_s2
I0403 15:23:56.086522 11907 net.cpp:141] Setting up pool4/3x3_s2
I0403 15:23:56.086546 11907 net.cpp:148] Top shape: 24 832 7 7 (978432)
I0403 15:23:56.086560 11907 net.cpp:156] Memory required for data: 1276470816
I0403 15:23:56.086575 11907 layer_factory.hpp:77] Creating layer pool4/3x3_s2_pool4/3x3_s2_0_split
I0403 15:23:56.086594 11907 net.cpp:91] Creating Layer pool4/3x3_s2_pool4/3x3_s2_0_split
I0403 15:23:56.086611 11907 net.cpp:425] pool4/3x3_s2_pool4/3x3_s2_0_split <- pool4/3x3_s2
I0403 15:23:56.086629 11907 net.cpp:399] pool4/3x3_s2_pool4/3x3_s2_0_split -> pool4/3x3_s2_pool4/3x3_s2_0_split_0
I0403 15:23:56.086650 11907 net.cpp:399] pool4/3x3_s2_pool4/3x3_s2_0_split -> pool4/3x3_s2_pool4/3x3_s2_0_split_1
I0403 15:23:56.086670 11907 net.cpp:399] pool4/3x3_s2_pool4/3x3_s2_0_split -> pool4/3x3_s2_pool4/3x3_s2_0_split_2
I0403 15:23:56.086693 11907 net.cpp:399] pool4/3x3_s2_pool4/3x3_s2_0_split -> pool4/3x3_s2_pool4/3x3_s2_0_split_3
I0403 15:23:56.086786 11907 net.cpp:141] Setting up pool4/3x3_s2_pool4/3x3_s2_0_split
I0403 15:23:56.086808 11907 net.cpp:148] Top shape: 24 832 7 7 (978432)
I0403 15:23:56.086823 11907 net.cpp:148] Top shape: 24 832 7 7 (978432)
I0403 15:23:56.086839 11907 net.cpp:148] Top shape: 24 832 7 7 (978432)
I0403 15:23:56.086854 11907 net.cpp:148] Top shape: 24 832 7 7 (978432)
I0403 15:23:56.086868 11907 net.cpp:156] Memory required for data: 1292125728
I0403 15:23:56.086882 11907 layer_factory.hpp:77] Creating layer inception_5a/1x1
I0403 15:23:56.086904 11907 net.cpp:91] Creating Layer inception_5a/1x1
I0403 15:23:56.086920 11907 net.cpp:425] inception_5a/1x1 <- pool4/3x3_s2_pool4/3x3_s2_0_split_0
I0403 15:23:56.086942 11907 net.cpp:399] inception_5a/1x1 -> inception_5a/1x1
I0403 15:23:56.089813 11907 net.cpp:141] Setting up inception_5a/1x1
I0403 15:23:56.089841 11907 net.cpp:148] Top shape: 24 256 7 7 (301056)
I0403 15:23:56.089856 11907 net.cpp:156] Memory required for data: 1293329952
I0403 15:23:56.089874 11907 layer_factory.hpp:77] Creating layer inception_5a/relu_1x1
I0403 15:23:56.089907 11907 net.cpp:91] Creating Layer inception_5a/relu_1x1
I0403 15:23:56.089923 11907 net.cpp:425] inception_5a/relu_1x1 <- inception_5a/1x1
I0403 15:23:56.089941 11907 net.cpp:386] inception_5a/relu_1x1 -> inception_5a/1x1 (in-place)
I0403 15:23:56.090247 11907 net.cpp:141] Setting up inception_5a/relu_1x1
I0403 15:23:56.090272 11907 net.cpp:148] Top shape: 24 256 7 7 (301056)
I0403 15:23:56.090287 11907 net.cpp:156] Memory required for data: 1294534176
I0403 15:23:56.090301 11907 layer_factory.hpp:77] Creating layer inception_5a/3x3_reduce
I0403 15:23:56.090323 11907 net.cpp:91] Creating Layer inception_5a/3x3_reduce
I0403 15:23:56.090340 11907 net.cpp:425] inception_5a/3x3_reduce <- pool4/3x3_s2_pool4/3x3_s2_0_split_1
I0403 15:23:56.090361 11907 net.cpp:399] inception_5a/3x3_reduce -> inception_5a/3x3_reduce
I0403 15:23:56.092847 11907 net.cpp:141] Setting up inception_5a/3x3_reduce
I0403 15:23:56.092877 11907 net.cpp:148] Top shape: 24 160 7 7 (188160)
I0403 15:23:56.092893 11907 net.cpp:156] Memory required for data: 1295286816
I0403 15:23:56.092911 11907 layer_factory.hpp:77] Creating layer inception_5a/relu_3x3_reduce
I0403 15:23:56.092929 11907 net.cpp:91] Creating Layer inception_5a/relu_3x3_reduce
I0403 15:23:56.092944 11907 net.cpp:425] inception_5a/relu_3x3_reduce <- inception_5a/3x3_reduce
I0403 15:23:56.092964 11907 net.cpp:386] inception_5a/relu_3x3_reduce -> inception_5a/3x3_reduce (in-place)
I0403 15:23:56.093148 11907 net.cpp:141] Setting up inception_5a/relu_3x3_reduce
I0403 15:23:56.093171 11907 net.cpp:148] Top shape: 24 160 7 7 (188160)
I0403 15:23:56.093185 11907 net.cpp:156] Memory required for data: 1296039456
I0403 15:23:56.093199 11907 layer_factory.hpp:77] Creating layer inception_5a/3x3
I0403 15:23:56.093221 11907 net.cpp:91] Creating Layer inception_5a/3x3
I0403 15:23:56.093238 11907 net.cpp:425] inception_5a/3x3 <- inception_5a/3x3_reduce
I0403 15:23:56.093261 11907 net.cpp:399] inception_5a/3x3 -> inception_5a/3x3
I0403 15:23:56.098222 11907 net.cpp:141] Setting up inception_5a/3x3
I0403 15:23:56.098249 11907 net.cpp:148] Top shape: 24 320 7 7 (376320)
I0403 15:23:56.098265 11907 net.cpp:156] Memory required for data: 1297544736
I0403 15:23:56.098283 11907 layer_factory.hpp:77] Creating layer inception_5a/relu_3x3
I0403 15:23:56.098304 11907 net.cpp:91] Creating Layer inception_5a/relu_3x3
I0403 15:23:56.098320 11907 net.cpp:425] inception_5a/relu_3x3 <- inception_5a/3x3
I0403 15:23:56.098337 11907 net.cpp:386] inception_5a/relu_3x3 -> inception_5a/3x3 (in-place)
I0403 15:23:56.098629 11907 net.cpp:141] Setting up inception_5a/relu_3x3
I0403 15:23:56.098654 11907 net.cpp:148] Top shape: 24 320 7 7 (376320)
I0403 15:23:56.098670 11907 net.cpp:156] Memory required for data: 1299050016
I0403 15:23:56.098683 11907 layer_factory.hpp:77] Creating layer inception_5a/5x5_reduce
I0403 15:23:56.098706 11907 net.cpp:91] Creating Layer inception_5a/5x5_reduce
I0403 15:23:56.098723 11907 net.cpp:425] inception_5a/5x5_reduce <- pool4/3x3_s2_pool4/3x3_s2_0_split_2
I0403 15:23:56.098744 11907 net.cpp:399] inception_5a/5x5_reduce -> inception_5a/5x5_reduce
I0403 15:23:56.099881 11907 net.cpp:141] Setting up inception_5a/5x5_reduce
I0403 15:23:56.099908 11907 net.cpp:148] Top shape: 24 32 7 7 (37632)
I0403 15:23:56.099923 11907 net.cpp:156] Memory required for data: 1299200544
I0403 15:23:56.099941 11907 layer_factory.hpp:77] Creating layer inception_5a/relu_5x5_reduce
I0403 15:23:56.099961 11907 net.cpp:91] Creating Layer inception_5a/relu_5x5_reduce
I0403 15:23:56.099978 11907 net.cpp:425] inception_5a/relu_5x5_reduce <- inception_5a/5x5_reduce
I0403 15:23:56.099997 11907 net.cpp:386] inception_5a/relu_5x5_reduce -> inception_5a/5x5_reduce (in-place)
I0403 15:23:56.100291 11907 net.cpp:141] Setting up inception_5a/relu_5x5_reduce
I0403 15:23:56.100317 11907 net.cpp:148] Top shape: 24 32 7 7 (37632)
I0403 15:23:56.100330 11907 net.cpp:156] Memory required for data: 1299351072
I0403 15:23:56.100345 11907 layer_factory.hpp:77] Creating layer inception_5a/5x5
I0403 15:23:56.100368 11907 net.cpp:91] Creating Layer inception_5a/5x5
I0403 15:23:56.100391 11907 net.cpp:425] inception_5a/5x5 <- inception_5a/5x5_reduce
I0403 15:23:56.100411 11907 net.cpp:399] inception_5a/5x5 -> inception_5a/5x5
I0403 15:23:56.102157 11907 net.cpp:141] Setting up inception_5a/5x5
I0403 15:23:56.102196 11907 net.cpp:148] Top shape: 24 128 7 7 (150528)
I0403 15:23:56.102212 11907 net.cpp:156] Memory required for data: 1299953184
I0403 15:23:56.102231 11907 layer_factory.hpp:77] Creating layer inception_5a/relu_5x5
I0403 15:23:56.102252 11907 net.cpp:91] Creating Layer inception_5a/relu_5x5
I0403 15:23:56.102268 11907 net.cpp:425] inception_5a/relu_5x5 <- inception_5a/5x5
I0403 15:23:56.102286 11907 net.cpp:386] inception_5a/relu_5x5 -> inception_5a/5x5 (in-place)
I0403 15:23:56.102485 11907 net.cpp:141] Setting up inception_5a/relu_5x5
I0403 15:23:56.102510 11907 net.cpp:148] Top shape: 24 128 7 7 (150528)
I0403 15:23:56.102525 11907 net.cpp:156] Memory required for data: 1300555296
I0403 15:23:56.102540 11907 layer_factory.hpp:77] Creating layer inception_5a/pool
I0403 15:23:56.102560 11907 net.cpp:91] Creating Layer inception_5a/pool
I0403 15:23:56.102578 11907 net.cpp:425] inception_5a/pool <- pool4/3x3_s2_pool4/3x3_s2_0_split_3
I0403 15:23:56.102596 11907 net.cpp:399] inception_5a/pool -> inception_5a/pool
I0403 15:23:56.102669 11907 net.cpp:141] Setting up inception_5a/pool
I0403 15:23:56.102691 11907 net.cpp:148] Top shape: 24 832 7 7 (978432)
I0403 15:23:56.102706 11907 net.cpp:156] Memory required for data: 1304469024
I0403 15:23:56.102720 11907 layer_factory.hpp:77] Creating layer inception_5a/pool_proj
I0403 15:23:56.102742 11907 net.cpp:91] Creating Layer inception_5a/pool_proj
I0403 15:23:56.102759 11907 net.cpp:425] inception_5a/pool_proj <- inception_5a/pool
I0403 15:23:56.102779 11907 net.cpp:399] inception_5a/pool_proj -> inception_5a/pool_proj
I0403 15:23:56.105089 11907 net.cpp:141] Setting up inception_5a/pool_proj
I0403 15:23:56.105118 11907 net.cpp:148] Top shape: 24 128 7 7 (150528)
I0403 15:23:56.105134 11907 net.cpp:156] Memory required for data: 1305071136
I0403 15:23:56.105154 11907 layer_factory.hpp:77] Creating layer inception_5a/relu_pool_proj
I0403 15:23:56.105171 11907 net.cpp:91] Creating Layer inception_5a/relu_pool_proj
I0403 15:23:56.105187 11907 net.cpp:425] inception_5a/relu_pool_proj <- inception_5a/pool_proj
I0403 15:23:56.105211 11907 net.cpp:386] inception_5a/relu_pool_proj -> inception_5a/pool_proj (in-place)
I0403 15:23:56.105514 11907 net.cpp:141] Setting up inception_5a/relu_pool_proj
I0403 15:23:56.105540 11907 net.cpp:148] Top shape: 24 128 7 7 (150528)
I0403 15:23:56.105554 11907 net.cpp:156] Memory required for data: 1305673248
I0403 15:23:56.105569 11907 layer_factory.hpp:77] Creating layer inception_5a/output
I0403 15:23:56.105587 11907 net.cpp:91] Creating Layer inception_5a/output
I0403 15:23:56.105602 11907 net.cpp:425] inception_5a/output <- inception_5a/1x1
I0403 15:23:56.105633 11907 net.cpp:425] inception_5a/output <- inception_5a/3x3
I0403 15:23:56.105649 11907 net.cpp:425] inception_5a/output <- inception_5a/5x5
I0403 15:23:56.105666 11907 net.cpp:425] inception_5a/output <- inception_5a/pool_proj
I0403 15:23:56.105686 11907 net.cpp:399] inception_5a/output -> inception_5a/output
I0403 15:23:56.105737 11907 net.cpp:141] Setting up inception_5a/output
I0403 15:23:56.105764 11907 net.cpp:148] Top shape: 24 832 7 7 (978432)
I0403 15:23:56.105780 11907 net.cpp:156] Memory required for data: 1309586976
I0403 15:23:56.105795 11907 layer_factory.hpp:77] Creating layer inception_5a/output_inception_5a/output_0_split
I0403 15:23:56.105813 11907 net.cpp:91] Creating Layer inception_5a/output_inception_5a/output_0_split
I0403 15:23:56.105829 11907 net.cpp:425] inception_5a/output_inception_5a/output_0_split <- inception_5a/output
I0403 15:23:56.105846 11907 net.cpp:399] inception_5a/output_inception_5a/output_0_split -> inception_5a/output_inception_5a/output_0_split_0
I0403 15:23:56.105870 11907 net.cpp:399] inception_5a/output_inception_5a/output_0_split -> inception_5a/output_inception_5a/output_0_split_1
I0403 15:23:56.105903 11907 net.cpp:399] inception_5a/output_inception_5a/output_0_split -> inception_5a/output_inception_5a/output_0_split_2
I0403 15:23:56.105924 11907 net.cpp:399] inception_5a/output_inception_5a/output_0_split -> inception_5a/output_inception_5a/output_0_split_3
I0403 15:23:56.106037 11907 net.cpp:141] Setting up inception_5a/output_inception_5a/output_0_split
I0403 15:23:56.106061 11907 net.cpp:148] Top shape: 24 832 7 7 (978432)
I0403 15:23:56.106077 11907 net.cpp:148] Top shape: 24 832 7 7 (978432)
I0403 15:23:56.106092 11907 net.cpp:148] Top shape: 24 832 7 7 (978432)
I0403 15:23:56.106108 11907 net.cpp:148] Top shape: 24 832 7 7 (978432)
I0403 15:23:56.106122 11907 net.cpp:156] Memory required for data: 1325241888
I0403 15:23:56.106137 11907 layer_factory.hpp:77] Creating layer inception_5b/1x1
I0403 15:23:56.106160 11907 net.cpp:91] Creating Layer inception_5b/1x1
I0403 15:23:56.106178 11907 net.cpp:425] inception_5b/1x1 <- inception_5a/output_inception_5a/output_0_split_0
I0403 15:23:56.106196 11907 net.cpp:399] inception_5b/1x1 -> inception_5b/1x1
I0403 15:23:56.109982 11907 net.cpp:141] Setting up inception_5b/1x1
I0403 15:23:56.110013 11907 net.cpp:148] Top shape: 24 384 7 7 (451584)
I0403 15:23:56.110029 11907 net.cpp:156] Memory required for data: 1327048224
I0403 15:23:56.110047 11907 layer_factory.hpp:77] Creating layer inception_5b/relu_1x1
I0403 15:23:56.110065 11907 net.cpp:91] Creating Layer inception_5b/relu_1x1
I0403 15:23:56.110082 11907 net.cpp:425] inception_5b/relu_1x1 <- inception_5b/1x1
I0403 15:23:56.110102 11907 net.cpp:386] inception_5b/relu_1x1 -> inception_5b/1x1 (in-place)
I0403 15:23:56.110414 11907 net.cpp:141] Setting up inception_5b/relu_1x1
I0403 15:23:56.110441 11907 net.cpp:148] Top shape: 24 384 7 7 (451584)
I0403 15:23:56.110457 11907 net.cpp:156] Memory required for data: 1328854560
I0403 15:23:56.110472 11907 layer_factory.hpp:77] Creating layer inception_5b/3x3_reduce
I0403 15:23:56.110497 11907 net.cpp:91] Creating Layer inception_5b/3x3_reduce
I0403 15:23:56.110515 11907 net.cpp:425] inception_5b/3x3_reduce <- inception_5a/output_inception_5a/output_0_split_1
I0403 15:23:56.110538 11907 net.cpp:399] inception_5b/3x3_reduce -> inception_5b/3x3_reduce
I0403 15:23:56.113247 11907 net.cpp:141] Setting up inception_5b/3x3_reduce
I0403 15:23:56.113277 11907 net.cpp:148] Top shape: 24 192 7 7 (225792)
I0403 15:23:56.113292 11907 net.cpp:156] Memory required for data: 1329757728
I0403 15:23:56.113311 11907 layer_factory.hpp:77] Creating layer inception_5b/relu_3x3_reduce
I0403 15:23:56.113328 11907 net.cpp:91] Creating Layer inception_5b/relu_3x3_reduce
I0403 15:23:56.113345 11907 net.cpp:425] inception_5b/relu_3x3_reduce <- inception_5b/3x3_reduce
I0403 15:23:56.113365 11907 net.cpp:386] inception_5b/relu_3x3_reduce -> inception_5b/3x3_reduce (in-place)
I0403 15:23:56.113562 11907 net.cpp:141] Setting up inception_5b/relu_3x3_reduce
I0403 15:23:56.113587 11907 net.cpp:148] Top shape: 24 192 7 7 (225792)
I0403 15:23:56.113615 11907 net.cpp:156] Memory required for data: 1330660896
I0403 15:23:56.113629 11907 layer_factory.hpp:77] Creating layer inception_5b/3x3
I0403 15:23:56.113652 11907 net.cpp:91] Creating Layer inception_5b/3x3
I0403 15:23:56.113672 11907 net.cpp:425] inception_5b/3x3 <- inception_5b/3x3_reduce
I0403 15:23:56.113692 11907 net.cpp:399] inception_5b/3x3 -> inception_5b/3x3
I0403 15:23:56.120503 11907 net.cpp:141] Setting up inception_5b/3x3
I0403 15:23:56.120532 11907 net.cpp:148] Top shape: 24 384 7 7 (451584)
I0403 15:23:56.120546 11907 net.cpp:156] Memory required for data: 1332467232
I0403 15:23:56.120564 11907 layer_factory.hpp:77] Creating layer inception_5b/relu_3x3
I0403 15:23:56.120581 11907 net.cpp:91] Creating Layer inception_5b/relu_3x3
I0403 15:23:56.120599 11907 net.cpp:425] inception_5b/relu_3x3 <- inception_5b/3x3
I0403 15:23:56.120617 11907 net.cpp:386] inception_5b/relu_3x3 -> inception_5b/3x3 (in-place)
I0403 15:23:56.120918 11907 net.cpp:141] Setting up inception_5b/relu_3x3
I0403 15:23:56.120942 11907 net.cpp:148] Top shape: 24 384 7 7 (451584)
I0403 15:23:56.120956 11907 net.cpp:156] Memory required for data: 1334273568
I0403 15:23:56.120970 11907 layer_factory.hpp:77] Creating layer inception_5b/5x5_reduce
I0403 15:23:56.121006 11907 net.cpp:91] Creating Layer inception_5b/5x5_reduce
I0403 15:23:56.121026 11907 net.cpp:425] inception_5b/5x5_reduce <- inception_5a/output_inception_5a/output_0_split_2
I0403 15:23:56.121047 11907 net.cpp:399] inception_5b/5x5_reduce -> inception_5b/5x5_reduce
I0403 15:23:56.122330 11907 net.cpp:141] Setting up inception_5b/5x5_reduce
I0403 15:23:56.122359 11907 net.cpp:148] Top shape: 24 48 7 7 (56448)
I0403 15:23:56.122375 11907 net.cpp:156] Memory required for data: 1334499360
I0403 15:23:56.122403 11907 layer_factory.hpp:77] Creating layer inception_5b/relu_5x5_reduce
I0403 15:23:56.122424 11907 net.cpp:91] Creating Layer inception_5b/relu_5x5_reduce
I0403 15:23:56.122442 11907 net.cpp:425] inception_5b/relu_5x5_reduce <- inception_5b/5x5_reduce
I0403 15:23:56.122457 11907 net.cpp:386] inception_5b/relu_5x5_reduce -> inception_5b/5x5_reduce (in-place)
I0403 15:23:56.122831 11907 net.cpp:141] Setting up inception_5b/relu_5x5_reduce
I0403 15:23:56.122858 11907 net.cpp:148] Top shape: 24 48 7 7 (56448)
I0403 15:23:56.122872 11907 net.cpp:156] Memory required for data: 1334725152
I0403 15:23:56.122886 11907 layer_factory.hpp:77] Creating layer inception_5b/5x5
I0403 15:23:56.122905 11907 net.cpp:91] Creating Layer inception_5b/5x5
I0403 15:23:56.122922 11907 net.cpp:425] inception_5b/5x5 <- inception_5b/5x5_reduce
I0403 15:23:56.122941 11907 net.cpp:399] inception_5b/5x5 -> inception_5b/5x5
I0403 15:23:56.124939 11907 net.cpp:141] Setting up inception_5b/5x5
I0403 15:23:56.124966 11907 net.cpp:148] Top shape: 24 128 7 7 (150528)
I0403 15:23:56.124980 11907 net.cpp:156] Memory required for data: 1335327264
I0403 15:23:56.124999 11907 layer_factory.hpp:77] Creating layer inception_5b/relu_5x5
I0403 15:23:56.125017 11907 net.cpp:91] Creating Layer inception_5b/relu_5x5
I0403 15:23:56.125036 11907 net.cpp:425] inception_5b/relu_5x5 <- inception_5b/5x5
I0403 15:23:56.125052 11907 net.cpp:386] inception_5b/relu_5x5 -> inception_5b/5x5 (in-place)
I0403 15:23:56.125243 11907 net.cpp:141] Setting up inception_5b/relu_5x5
I0403 15:23:56.125268 11907 net.cpp:148] Top shape: 24 128 7 7 (150528)
I0403 15:23:56.125284 11907 net.cpp:156] Memory required for data: 1335929376
I0403 15:23:56.125298 11907 layer_factory.hpp:77] Creating layer inception_5b/pool
I0403 15:23:56.125315 11907 net.cpp:91] Creating Layer inception_5b/pool
I0403 15:23:56.125331 11907 net.cpp:425] inception_5b/pool <- inception_5a/output_inception_5a/output_0_split_3
I0403 15:23:56.125349 11907 net.cpp:399] inception_5b/pool -> inception_5b/pool
I0403 15:23:56.125425 11907 net.cpp:141] Setting up inception_5b/pool
I0403 15:23:56.125448 11907 net.cpp:148] Top shape: 24 832 7 7 (978432)
I0403 15:23:56.125463 11907 net.cpp:156] Memory required for data: 1339843104
I0403 15:23:56.125475 11907 layer_factory.hpp:77] Creating layer inception_5b/pool_proj
I0403 15:23:56.125497 11907 net.cpp:91] Creating Layer inception_5b/pool_proj
I0403 15:23:56.125514 11907 net.cpp:425] inception_5b/pool_proj <- inception_5b/pool
I0403 15:23:56.125535 11907 net.cpp:399] inception_5b/pool_proj -> inception_5b/pool_proj
I0403 15:23:56.127816 11907 net.cpp:141] Setting up inception_5b/pool_proj
I0403 15:23:56.127845 11907 net.cpp:148] Top shape: 24 128 7 7 (150528)
I0403 15:23:56.127859 11907 net.cpp:156] Memory required for data: 1340445216
I0403 15:23:56.127877 11907 layer_factory.hpp:77] Creating layer inception_5b/relu_pool_proj
I0403 15:23:56.127899 11907 net.cpp:91] Creating Layer inception_5b/relu_pool_proj
I0403 15:23:56.127918 11907 net.cpp:425] inception_5b/relu_pool_proj <- inception_5b/pool_proj
I0403 15:23:56.127934 11907 net.cpp:386] inception_5b/relu_pool_proj -> inception_5b/pool_proj (in-place)
I0403 15:23:56.128226 11907 net.cpp:141] Setting up inception_5b/relu_pool_proj
I0403 15:23:56.128250 11907 net.cpp:148] Top shape: 24 128 7 7 (150528)
I0403 15:23:56.128264 11907 net.cpp:156] Memory required for data: 1341047328
I0403 15:23:56.128278 11907 layer_factory.hpp:77] Creating layer inception_5b/output
I0403 15:23:56.128295 11907 net.cpp:91] Creating Layer inception_5b/output
I0403 15:23:56.128324 11907 net.cpp:425] inception_5b/output <- inception_5b/1x1
I0403 15:23:56.128342 11907 net.cpp:425] inception_5b/output <- inception_5b/3x3
I0403 15:23:56.128360 11907 net.cpp:425] inception_5b/output <- inception_5b/5x5
I0403 15:23:56.128376 11907 net.cpp:425] inception_5b/output <- inception_5b/pool_proj
I0403 15:23:56.128399 11907 net.cpp:399] inception_5b/output -> inception_5b/output
I0403 15:23:56.128449 11907 net.cpp:141] Setting up inception_5b/output
I0403 15:23:56.128474 11907 net.cpp:148] Top shape: 24 1024 7 7 (1204224)
I0403 15:23:56.128489 11907 net.cpp:156] Memory required for data: 1345864224
I0403 15:23:56.128504 11907 layer_factory.hpp:77] Creating layer pool5/7x7_s1
I0403 15:23:56.128520 11907 net.cpp:91] Creating Layer pool5/7x7_s1
I0403 15:23:56.128535 11907 net.cpp:425] pool5/7x7_s1 <- inception_5b/output
I0403 15:23:56.128556 11907 net.cpp:399] pool5/7x7_s1 -> pool5/7x7_s1
I0403 15:23:56.128767 11907 net.cpp:141] Setting up pool5/7x7_s1
I0403 15:23:56.128792 11907 net.cpp:148] Top shape: 24 1024 1 1 (24576)
I0403 15:23:56.128805 11907 net.cpp:156] Memory required for data: 1345962528
I0403 15:23:56.128819 11907 layer_factory.hpp:77] Creating layer pool5/drop_7x7_s1
I0403 15:23:56.128839 11907 net.cpp:91] Creating Layer pool5/drop_7x7_s1
I0403 15:23:56.128854 11907 net.cpp:425] pool5/drop_7x7_s1 <- pool5/7x7_s1
I0403 15:23:56.128872 11907 net.cpp:386] pool5/drop_7x7_s1 -> pool5/7x7_s1 (in-place)
I0403 15:23:56.128919 11907 net.cpp:141] Setting up pool5/drop_7x7_s1
I0403 15:23:56.128943 11907 net.cpp:148] Top shape: 24 1024 1 1 (24576)
I0403 15:23:56.128958 11907 net.cpp:156] Memory required for data: 1346060832
I0403 15:23:56.128973 11907 layer_factory.hpp:77] Creating layer loss3/classifier_plantvillage
I0403 15:23:56.128991 11907 net.cpp:91] Creating Layer loss3/classifier_plantvillage
I0403 15:23:56.129006 11907 net.cpp:425] loss3/classifier_plantvillage <- pool5/7x7_s1
I0403 15:23:56.129026 11907 net.cpp:399] loss3/classifier_plantvillage -> loss3/classifier_plantvillage
I0403 15:23:56.129464 11907 net.cpp:141] Setting up loss3/classifier_plantvillage
I0403 15:23:56.129488 11907 net.cpp:148] Top shape: 24 38 (912)
I0403 15:23:56.129503 11907 net.cpp:156] Memory required for data: 1346064480
I0403 15:23:56.129520 11907 layer_factory.hpp:77] Creating layer loss3/classifier_plantvillage_loss3/classifier_plantvillage_0_split
I0403 15:23:56.129539 11907 net.cpp:91] Creating Layer loss3/classifier_plantvillage_loss3/classifier_plantvillage_0_split
I0403 15:23:56.129555 11907 net.cpp:425] loss3/classifier_plantvillage_loss3/classifier_plantvillage_0_split <- loss3/classifier_plantvillage
I0403 15:23:56.129572 11907 net.cpp:399] loss3/classifier_plantvillage_loss3/classifier_plantvillage_0_split -> loss3/classifier_plantvillage_loss3/classifier_plantvillage_0_split_0
I0403 15:23:56.129595 11907 net.cpp:399] loss3/classifier_plantvillage_loss3/classifier_plantvillage_0_split -> loss3/classifier_plantvillage_loss3/classifier_plantvillage_0_split_1
I0403 15:23:56.129628 11907 net.cpp:399] loss3/classifier_plantvillage_loss3/classifier_plantvillage_0_split -> loss3/classifier_plantvillage_loss3/classifier_plantvillage_0_split_2
I0403 15:23:56.129649 11907 net.cpp:399] loss3/classifier_plantvillage_loss3/classifier_plantvillage_0_split -> loss3/classifier_plantvillage_loss3/classifier_plantvillage_0_split_3
I0403 15:23:56.129755 11907 net.cpp:141] Setting up loss3/classifier_plantvillage_loss3/classifier_plantvillage_0_split
I0403 15:23:56.129778 11907 net.cpp:148] Top shape: 24 38 (912)
I0403 15:23:56.129796 11907 net.cpp:148] Top shape: 24 38 (912)
I0403 15:23:56.129811 11907 net.cpp:148] Top shape: 24 38 (912)
I0403 15:23:56.129825 11907 net.cpp:148] Top shape: 24 38 (912)
I0403 15:23:56.129839 11907 net.cpp:156] Memory required for data: 1346079072
I0403 15:23:56.129854 11907 layer_factory.hpp:77] Creating layer loss1/loss
I0403 15:23:56.129878 11907 net.cpp:91] Creating Layer loss1/loss
I0403 15:23:56.129909 11907 net.cpp:425] loss1/loss <- loss1/classifier_plantvillage_loss1/classifier_plantvillage_0_split_0
I0403 15:23:56.129941 11907 net.cpp:425] loss1/loss <- label_data_1_split_0
…
