…
I0403 15:11:49.984765 11702 net.cpp:313] The NetState phase (1) differed from the phase (0) specified by a rule in layer data
I0403 15:11:49.985983 11702 net.cpp:49] Initializing net from parameters: 
state {
  phase: TEST
}
layer {
  name: "data"
  type: "Data"
  top: "data"
  top: "label"
  include {
    phase: TEST
  }
  transform_param {
    mirror: false
    crop_size: 224
    mean_file: "/home/mohanty/data/final_dataset/lmdb/segmented-50-50/mean.binaryproto"
  }
  data_param {
    source: "/home/mohanty/data/final_dataset/lmdb/segmented-50-50/test_db"
    batch_size: 24
    backend: LMDB
  }
}
layer {
  name: "conv1/7x7_s2"
  type: "Convolution"
  bottom: "data"
  top: "conv1/7x7_s2"
  param {
    lr_mult: 1
    decay_mult: 1
  }
  param {
    lr_mult: 2
    decay_mult: 0
  }
  convolution_param {
    num_output: 64
    pad: 3
    kernel_size: 7
    stride: 2
    weight_filler {
      type: "xavier"
      std: 0.1
    }
    bias_filler {
      type: "constant"
      value: 0.2
    }
  }
}
layer {
  name: "conv1/relu_7x7"
  type: "ReLU"
  bottom: "conv1/7x7_s2"
  top: "conv1/7x7_s2"
}
layer {
  name: "pool1/3x3_s2"
  type: "Pooling"
  bottom: "conv1/7x7_s2"
  top: "pool1/3x3_s2"
  pooling_param {
    pool: MAX
    kernel_size: 3
    stride: 2
  }
}
layer {
  name: "pool1/norm1"
  type: "LRN"
  bottom: "pool1/3x3_s2"
  top: "pool1/norm1"
  lrn_param {
    local_size: 5
    alpha: 0.0001
    beta: 0.75
  }
}
layer {
  name: "conv2/3x3_reduce"
  type: "Convolution"
  bottom: "pool1/norm1"
  top: "conv2/3x3_reduce"
  param {
    lr_mult: 1
    decay_mult: 1
  }
  param {
    lr_mult: 2
    decay_mult: 0
  }
  convolution_param {
    num_output: 64
    kernel_size: 1
    weight_filler {
      type: "xavier"
      std: 0.1
    }
    bias_filler {
      type: "constant"
      value: 0.2
    }
  }
}
layer {
  name: "conv2/relu_3x3_reduce"
  type: "ReLU"
  bottom: "conv2/3x3_reduce"
  top: "conv2/3x3_reduce"
}
layer {
  name: "conv2/3x3"
  type: "Convolution"
  bottom: "conv2/3x3_reduce"
  top: "conv2/3x3"
  param {
    lr_mult: 1
    decay_mult: 1
  }
  param {
    lr_mult: 2
    decay_mult: 0
  }
  convolution_param {
    num_output: 192
    pad: 1
    kernel_size: 3
    weight_filler {
      type: "xavier"
      std: 0.03
    }
    bias_filler {
      type: "constant"
      value: 0.2
    }
  }
}
layer {
  name: "conv2/relu_3x3"
  type: "ReLU"
  bottom: "conv2/3x3"
  top: "conv2/3x3"
}
layer {
  name: "conv2/norm2"
  type: "LRN"
  bottom: "conv2/3x3"
  top: "conv2/norm2"
  lrn_param {
    local_size: 5
    alpha: 0.0001
    beta: 0.75
  }
}
layer {
  name: "pool2/3x3_s2"
  type: "Pooling"
  bottom: "conv2/norm2"
  top: "pool2/3x3_s2"
  pooling_param {
    pool: MAX
    kernel_size: 3
    stride: 2
  }
}
layer {
  name: "inception_3a/1x1"
  type: "Convolution"
  bottom: "pool2/3x3_s2"
  top: "inception_3a/1x1"
  param {
    lr_mult: 1
    decay_mult: 1
  }
  param {
    lr_mult: 2
    decay_mult: 0
  }
  convolution_param {
    num_output: 64
    kernel_size: 1
    weight_filler {
      type: "xavier"
      std: 0.03
    }
    bias_filler {
      type: "constant"
      value: 0.2
    }
  }
}
layer {
  name: "inception_3a/relu_1x1"
  type: "ReLU"
  bottom: "inception_3a/1x1"
  top: "inception_3a/1x1"
}
layer {
  name: "inception_3a/3x3_reduce"
  type: "Convolution"
  bottom: "pool2/3x3_s2"
  top: "inception_3a/3x3_reduce"
  param {
    lr_mult: 1
    decay_mult: 1
  }
  param {
    lr_mult: 2
    decay_mult: 0
  }
  convolution_param {
    num_output: 96
    kernel_size: 1
    weight_filler {
      type: "xavier"
      std: 0.09
    }
    bias_filler {
      type: "constant"
      value: 0.2
    }
  }
}
layer {
  name: "inception_3a/relu_3x3_reduce"
  type: "ReLU"
  bottom: "inception_3a/3x3_reduce"
  top: "inception_3a/3x3_reduce"
}
layer {
  name: "inception_3a/3x3"
  type: "Convolution"
  bottom: "inception_3a/3x3_reduce"
  top: "inception_3a/3x3"
  param {
    lr_mult: 1
    decay_mult: 1
  }
  param {
    lr_mult: 2
    decay_mult: 0
  }
  convolution_param {
    num_output: 128
    pad: 1
    kernel_size: 3
    weight_filler {
      type: "xavier"
      std: 0.03
    }
    bias_filler {
      type: "constant"
      value: 0.2
    }
  }
}
layer {
  name: "inception_3a/relu_3x3"
  type: "ReLU"
  bottom: "inception_3a/3x3"
  top: "inception_3a/3x3"
}
layer {
  name: "inception_3a/5x5_reduce"
  type: "Convolution"
  bottom: "pool2/3x3_s2"
  top: "inception_3a/5x5_reduce"
  param {
    lr_mult: 1
    decay_mult: 1
  }
  param {
    lr_mult: 2
    decay_mult: 0
  }
  convolution_param {
    num_output: 16
    kernel_size: 1
    weight_filler {
      type: "xavier"
      std: 0.2
    }
    bias_filler {
      type: "constant"
      value: 0.2
    }
  }
}
layer {
  name: "inception_3a/relu_5x5_reduce"
  type: "ReLU"
  bottom: "inception_3a/5x5_reduce"
  top: "inception_3a/5x5_reduce"
}
layer {
  name: "inception_3a/5x5"
  type: "Convolution"
  bottom: "inception_3a/5x5_reduce"
  top: "inception_3a/5x5"
  param {
    lr_mult: 1
    decay_mult: 1
  }
  param {
    lr_mult: 2
    decay_mult: 0
  }
  convolution_param {
    num_output: 32
    pad: 2
    kernel_size: 5
    weight_filler {
      type: "xavier"
      std: 0.03
    }
    bias_filler {
      type: "constant"
      value: 0.2
    }
  }
}
layer {
  name: "inception_3a/relu_5x5"
  type: "ReLU"
  bottom: "inception_3a/5x5"
  top: "inception_3a/5x5"
}
layer {
  name: "inception_3a/pool"
  type: "Pooling"
  bottom: "pool2/3x3_s2"
  top: "inception_3a/pool"
  pooling_param {
    pool: MAX
    kernel_size: 3
    stride: 1
    pad: 1
  }
}
layer {
  name: "inception_3a/pool_proj"
  type: "Convolution"
  bottom: "inception_3a/pool"
  top: "inception_3a/pool_proj"
  param {
    lr_mult: 1
    decay_mult: 1
  }
  param {
    lr_mult: 2
    decay_mult: 0
  }
  convolution_param {
    num_output: 32
    kernel_size: 1
    weight_filler {
      type: "xavier"
      std: 0.1
    }
    bias_filler {
      type: "constant"
      value: 0.2
    }
  }
}
layer {
  name: "inception_3a/relu_pool_proj"
  type: "ReLU"
  bottom: "inception_3a/pool_proj"
  top: "inception_3a/pool_proj"
}
layer {
  name: "inception_3a/output"
  type: "Concat"
  bottom: "inception_3a/1x1"
  bottom: "inception_3a/3x3"
  bottom: "inception_3a/5x5"
  bottom: "inception_3a/pool_proj"
  top: "inception_3a/output"
}
layer {
  name: "inception_3b/1x1"
  type: "Convolution"
  bottom: "inception_3a/output"
  top: "inception_3b/1x1"
  param {
    lr_mult: 1
    decay_mult: 1
  }
  param {
    lr_mult: 2
    decay_mult: 0
  }
  convolution_param {
    num_output: 128
    kernel_size: 1
    weight_filler {
      type: "xavier"
      std: 0.03
    }
    bias_filler {
      type: "constant"
      value: 0.2
    }
  }
}
layer {
  name: "inception_3b/relu_1x1"
  type: "ReLU"
  bottom: "inception_3b/1x1"
  top: "inception_3b/1x1"
}
layer {
  name: "inception_3b/3x3_reduce"
  type: "Convolution"
  bottom: "inception_3a/output"
  top: "inception_3b/3x3_reduce"
  param {
    lr_mult: 1
    decay_mult: 1
  }
  param {
    lr_mult: 2
    decay_mult: 0
  }
  convolution_param {
    num_output: 128
    kernel_size: 1
    weight_filler {
      type: "xavier"
      std: 0.09
    }
    bias_filler {
      type: "constant"
      value: 0.2
    }
  }
}
layer {
  name: "inception_3b/relu_3x3_reduce"
  type: "ReLU"
  bottom: "inception_3b/3x3_reduce"
  top: "inception_3b/3x3_reduce"
}
layer {
  name: "inception_3b/3x3"
  type: "Convolution"
  bottom: "inception_3b/3x3_reduce"
  top: "inception_3b/3x3"
  param {
    lr_mult: 1
    decay_mult: 1
  }
  param {
    lr_mult: 2
    decay_mult: 0
  }
  convolution_param {
    num_output: 192
    pad: 1
    kernel_size: 3
    weight_filler {
      type: "xavier"
      std: 0.03
    }
    bias_filler {
      type: "constant"
      value: 0.2
    }
  }
}
layer {
  name: "inception_3b/relu_3x3"
  type: "ReLU"
  bottom: "inception_3b/3x3"
  top: "inception_3b/3x3"
}
layer {
  name: "inception_3b/5x5_reduce"
  type: "Convolution"
  bottom: "inception_3a/output"
  top: "inception_3b/5x5_reduce"
  param {
    lr_mult: 1
    decay_mult: 1
  }
  param {
    lr_mult: 2
    decay_mult: 0
  }
  convolution_param {
    num_output: 32
    kernel_size: 1
    weight_filler {
      type: "xavier"
      std: 0.2
    }
    bias_filler {
      type: "constant"
      value: 0.2
    }
  }
}
layer {
  name: "inception_3b/relu_5x5_reduce"
  type: "ReLU"
  bottom: "inception_3b/5x5_reduce"
  top: "inception_3b/5x5_reduce"
}
layer {
  name: "inception_3b/5x5"
  type: "Convolution"
  bottom: "inception_3b/5x5_reduce"
  top: "inception_3b/5x5"
  param {
    lr_mult: 1
    decay_mult: 1
  }
  param {
    lr_mult: 2
    decay_mult: 0
  }
  convolution_param {
    num_output: 96
    pad: 2
    kernel_size: 5
    weight_filler {
      type: "xavier"
      std: 0.03
    }
    bias_filler {
      type: "constant"
      value: 0.2
    }
  }
}
layer {
  name: "inception_3b/relu_5x5"
  type: "ReLU"
  bottom: "inception_3b/5x5"
  top: "inception_3b/5x5"
}
layer {
  name: "inception_3b/pool"
  type: "Pooling"
  bottom: "inception_3a/output"
  top: "inception_3b/pool"
  pooling_param {
    pool: MAX
    kernel_size: 3
    stride: 1
    pad: 1
  }
}
layer {
  name: "inception_3b/pool_proj"
  type: "Convolution"
  bottom: "inception_3b/pool"
  top: "inception_3b/pool_proj"
  param {
    lr_mult: 1
    decay_mult: 1
  }
  param {
    lr_mult: 2
    decay_mult: 0
  }
  convolution_param {
    num_output: 64
    kernel_size: 1
    weight_filler {
      type: "xavier"
      std: 0.1
    }
    bias_filler {
      type: "constant"
      value: 0.2
    }
  }
}
layer {
  name: "inception_3b/relu_pool_proj"
  type: "ReLU"
  bottom: "inception_3b/pool_proj"
  top: "inception_3b/pool_proj"
}
layer {
  name: "inception_3b/output"
  type: "Concat"
  bottom: "inception_3b/1x1"
  bottom: "inception_3b/3x3"
  bottom: "inception_3b/5x5"
  bottom: "inception_3b/pool_proj"
  top: "inception_3b/output"
}
layer {
  name: "pool3/3x3_s2"
  type: "Pooling"
  bottom: "inception_3b/output"
  top: "pool3/3x3_s2"
  pooling_param {
    pool: MAX
    kernel_size: 3
    stride: 2
  }
}
layer {
  name: "inception_4a/1x1"
  type: "Convolution"
  bottom: "pool3/3x3_s2"
  top: "inception_4a/1x1"
  param {
    lr_mult: 1
    decay_mult: 1
  }
  param {
    lr_mult: 2
    decay_mult: 0
  }
  convolution_param {
    num_output: 192
    kernel_size: 1
    weight_filler {
      type: "xavier"
      std: 0.03
    }
    bias_filler {
      type: "constant"
      value: 0.2
    }
  }
}
layer {
  name: "inception_4a/relu_1x1"
  type: "ReLU"
  bottom: "inception_4a/1x1"
  top: "inception_4a/1x1"
}
layer {
  name: "inception_4a/3x3_reduce"
  type: "Convolution"
  bottom: "pool3/3x3_s2"
  top: "inception_4a/3x3_reduce"
  param {
    lr_mult: 1
    decay_mult: 1
  }
  param {
    lr_mult: 2
    decay_mult: 0
  }
  convolution_param {
    num_output: 96
    kernel_size: 1
    weight_filler {
      type: "xavier"
      std: 0.09
    }
    bias_filler {
      type: "constant"
      value: 0.2
    }
  }
}
layer {
  name: "inception_4a/relu_3x3_reduce"
  type: "ReLU"
  bottom: "inception_4a/3x3_reduce"
  top: "inception_4a/3x3_reduce"
}
layer {
  name: "inception_4a/3x3"
  type: "Convolution"
  bottom: "inception_4a/3x3_reduce"
  top: "inception_4a/3x3"
  param {
    lr_mult: 1
    decay_mult: 1
  }
  param {
    lr_mult: 2
    decay_mult: 0
  }
  convolution_param {
    num_output: 208
    pad: 1
    kernel_size: 3
    weight_filler {
      type: "xavier"
      std: 0.03
    }
    bias_filler {
      type: "constant"
      value: 0.2
    }
  }
}
layer {
  name: "inception_4a/relu_3x3"
  type: "ReLU"
  bottom: "inception_4a/3x3"
  top: "inception_4a/3x3"
}
layer {
  name: "inception_4a/5x5_reduce"
  type: "Convolution"
  bottom: "pool3/3x3_s2"
  top: "inception_4a/5x5_reduce"
  param {
    lr_mult: 1
    decay_mult: 1
  }
  param {
    lr_mult: 2
    decay_mult: 0
  }
  convolution_param {
    num_output: 16
    kernel_size: 1
    weight_filler {
      type: "xavier"
      std: 0.2
    }
    bias_filler {
      type: "constant"
      value: 0.2
    }
  }
}
layer {
  name: "inception_4a/relu_5x5_reduce"
  type: "ReLU"
  bottom: "inception_4a/5x5_reduce"
  top: "inception_4a/5x5_reduce"
}
layer {
  name: "inception_4a/5x5"
  type: "Convolution"
  bottom: "inception_4a/5x5_reduce"
  top: "inception_4a/5x5"
  param {
    lr_mult: 1
    decay_mult: 1
  }
  param {
    lr_mult: 2
    decay_mult: 0
  }
  convolution_param {
    num_output: 48
    pad: 2
    kernel_size: 5
    weight_filler {
      type: "xavier"
      std: 0.03
    }
    bias_filler {
      type: "constant"
      value: 0.2
    }
  }
}
layer {
  name: "inception_4a/relu_5x5"
  type: "ReLU"
  bottom: "inception_4a/5x5"
  top: "inception_4a/5x5"
}
layer {
  name: "inception_4a/pool"
  type: "Pooling"
  bottom: "pool3/3x3_s2"
  top: "inception_4a/pool"
  pooling_param {
    pool: MAX
    kernel_size: 3
    stride: 1
    pad: 1
  }
}
layer {
  name: "inception_4a/pool_proj"
  type: "Convolution"
  bottom: "inception_4a/pool"
  top: "inception_4a/pool_proj"
  param {
    lr_mult: 1
    decay_mult: 1
  }
  param {
    lr_mult: 2
    decay_mult: 0
  }
  convolution_param {
    num_output: 64
    kernel_size: 1
    weight_filler {
      type: "xavier"
      std: 0.1
    }
    bias_filler {
      type: "constant"
      value: 0.2
    }
  }
}
layer {
  name: "inception_4a/relu_pool_proj"
  type: "ReLU"
  bottom: "inception_4a/pool_proj"
  top: "inception_4a/pool_proj"
}
layer {
  name: "inception_4a/output"
  type: "Concat"
  bottom: "inception_4a/1x1"
  bottom: "inception_4a/3x3"
  bottom: "inception_4a/5x5"
  bottom: "inception_4a/pool_proj"
  top: "inception_4a/output"
}
layer {
  name: "loss1/ave_pool"
  type: "Pooling"
  bottom: "inception_4a/output"
  top: "loss1/ave_pool"
  pooling_param {
    pool: AVE
    kernel_size: 5
    stride: 3
  }
}
layer {
  name: "loss1/conv"
  type: "Convolution"
  bottom: "loss1/ave_pool"
  top: "loss1/conv"
  param {
    lr_mult: 1
    decay_mult: 1
  }
  param {
    lr_mult: 2
    decay_mult: 0
  }
  convolution_param {
    num_output: 128
    kernel_size: 1
    weight_filler {
      type: "xavier"
      std: 0.08
    }
    bias_filler {
      type: "constant"
      value: 0.2
    }
  }
}
layer {
  name: "loss1/relu_conv"
  type: "ReLU"
  bottom: "loss1/conv"
  top: "loss1/conv"
}
layer {
  name: "loss1/fc"
  type: "InnerProduct"
  bottom: "loss1/conv"
  top: "loss1/fc"
  param {
    lr_mult: 1
    decay_mult: 1
  }
  param {
    lr_mult: 2
    decay_mult: 0
  }
  inner_product_param {
    num_output: 1024
    weight_filler {
      type: "xavier"
      std: 0.02
    }
    bias_filler {
      type: "constant"
      value: 0.2
    }
  }
}
layer {
  name: "loss1/relu_fc"
  type: "ReLU"
  bottom: "loss1/fc"
  top: "loss1/fc"
}
layer {
  name: "loss1/drop_fc"
  type: "Dropout"
  bottom: "loss1/fc"
  top: "loss1/fc"
  dropout_param {
    dropout_ratio: 0.7
  }
}
layer {
  name: "loss1/classifier_plantvillage"
  type: "InnerProduct"
  bottom: "loss1/fc"
  top: "loss1/classifier_plantvillage"
  param {
    lr_mult: 1
    decay_mult: 1
  }
  param {
    lr_mult: 2
    decay_mult: 0
  }
  inner_product_param {
    num_output: 38
    weight_filler {
      type: "xavier"
      std: 0.0009765625
    }
    bias_filler {
      type: "constant"
      value: 0
    }
  }
}
layer {
  name: "inception_4b/1x1"
  type: "Convolution"
  bottom: "inception_4a/output"
  top: "inception_4b/1x1"
  param {
    lr_mult: 1
    decay_mult: 1
  }
  param {
    lr_mult: 2
    decay_mult: 0
  }
  convolution_param {
    num_output: 160
    kernel_size: 1
    weight_filler {
      type: "xavier"
      std: 0.03
    }
    bias_filler {
      type: "constant"
      value: 0.2
    }
  }
}
layer {
  name: "inception_4b/relu_1x1"
  type: "ReLU"
  bottom: "inception_4b/1x1"
  top: "inception_4b/1x1"
}
layer {
  name: "inception_4b/3x3_reduce"
  type: "Convolution"
  bottom: "inception_4a/output"
  top: "inception_4b/3x3_reduce"
  param {
    lr_mult: 1
    decay_mult: 1
  }
  param {
    lr_mult: 2
    decay_mult: 0
  }
  convolution_param {
    num_output: 112
    kernel_size: 1
    weight_filler {
      type: "xavier"
      std: 0.09
    }
    bias_filler {
      type: "constant"
      value: 0.2
    }
  }
}
layer {
  name: "inception_4b/relu_3x3_reduce"
  type: "ReLU"
  bottom: "inception_4b/3x3_reduce"
  top: "inception_4b/3x3_reduce"
}
layer {
  name: "inception_4b/3x3"
  type: "Convolution"
  bottom: "inception_4b/3x3_reduce"
  top: "inception_4b/3x3"
  param {
    lr_mult: 1
    decay_mult: 1
  }
  param {
    lr_mult: 2
    decay_mult: 0
  }
  convolution_param {
    num_output: 224
    pad: 1
    kernel_size: 3
    weight_filler {
      type: "xavier"
      std: 0.03
    }
    bias_filler {
      type: "constant"
      value: 0.2
    }
  }
}
layer {
  name: "inception_4b/relu_3x3"
  type: "ReLU"
  bottom: "inception_4b/3x3"
  top: "inception_4b/3x3"
}
layer {
  name: "inception_4b/5x5_reduce"
  type: "Convolution"
  bottom: "inception_4a/output"
  top: "inception_4b/5x5_reduce"
  param {
    lr_mult: 1
    decay_mult: 1
  }
  param {
    lr_mult: 2
    decay_mult: 0
  }
  convolution_param {
    num_output: 24
    kernel_size: 1
    weight_filler {
      type: "xavier"
      std: 0.2
    }
    bias_filler {
      type: "constant"
      value: 0.2
    }
  }
}
layer {
  name: "inception_4b/relu_5x5_reduce"
  type: "ReLU"
  bottom: "inception_4b/5x5_reduce"
  top: "inception_4b/5x5_reduce"
}
layer {
  name: "inception_4b/5x5"
  type: "Convolution"
  bottom: "inception_4b/5x5_reduce"
  top: "inception_4b/5x5"
  param {
    lr_mult: 1
    decay_mult: 1
  }
  param {
    lr_mult: 2
    decay_mult: 0
  }
  convolution_param {
    num_output: 64
    pad: 2
    kernel_size: 5
    weight_filler {
      type: "xavier"
      std: 0.03
    }
    bias_filler {
      type: "constant"
      value: 0.2
    }
  }
}
layer {
  name: "inception_4b/relu_5x5"
  type: "ReLU"
  bottom: "inception_4b/5x5"
  top: "inception_4b/5x5"
}
layer {
  name: "inception_4b/pool"
  type: "Pooling"
  bottom: "inception_4a/output"
  top: "inception_4b/pool"
  pooling_param {
    pool: MAX
    kernel_size: 3
    stride: 1
    pad: 1
  }
}
layer {
  name: "inception_4b/pool_proj"
  type: "Convolution"
  bottom: "inception_4b/pool"
  top: "inception_4b/pool_proj"
  param {
    lr_mult: 1
    decay_mult: 1
  }
  param {
    lr_mult: 2
    decay_mult: 0
  }
  convolution_param {
    num_output: 64
    kernel_size: 1
    weight_filler {
      type: "xavier"
      std: 0.1
    }
    bias_filler {
      type: "constant"
      value: 0.2
    }
  }
}
layer {
  name: "inception_4b/relu_pool_proj"
  type: "ReLU"
  bottom: "inception_4b/pool_proj"
  top: "inception_4b/pool_proj"
}
layer {
  name: "inception_4b/output"
  type: "Concat"
  bottom: "inception_4b/1x1"
  bottom: "inception_4b/3x3"
  bottom: "inception_4b/5x5"
  bottom: "inception_4b/pool_proj"
  top: "inception_4b/output"
}
layer {
  name: "inception_4c/1x1"
  type: "Convolution"
  bottom: "inception_4b/output"
  top: "inception_4c/1x1"
  param {
    lr_mult: 1
    decay_mult: 1
  }
  param {
    lr_mult: 2
    decay_mult: 0
  }
  convolution_param {
    num_output: 128
    kernel_size: 1
    weight_filler {
      type: "xavier"
      std: 0.03
    }
    bias_filler {
      type: "constant"
      value: 0.2
    }
  }
}
layer {
  name: "inception_4c/relu_1x1"
  type: "ReLU"
  bottom: "inception_4c/1x1"
  top: "inception_4c/1x1"
}
layer {
  name: "inception_4c/3x3_reduce"
  type: "Convolution"
  bottom: "inception_4b/output"
  top: "inception_4c/3x3_reduce"
  param {
    lr_mult: 1
    decay_mult: 1
  }
  param {
    lr_mult: 2
    decay_mult: 0
  }
  convolution_param {
    num_output: 128
    kernel_size: 1
    weight_filler {
      type: "xavier"
      std: 0.09
    }
    bias_filler {
      type: "constant"
      value: 0.2
    }
  }
}
layer {
  name: "inception_4c/relu_3x3_reduce"
  type: "ReLU"
  bottom: "inception_4c/3x3_reduce"
  top: "inception_4c/3x3_reduce"
}
layer {
  name: "inception_4c/3x3"
  type: "Convolution"
  bottom: "inception_4c/3x3_reduce"
  top: "inception_4c/3x3"
  param {
    lr_mult: 1
    decay_mult: 1
  }
  param {
    lr_mult: 2
    decay_mult: 0
  }
  convolution_param {
    num_output: 256
    pad: 1
    kernel_size: 3
    weight_filler {
      type: "xavier"
      std: 0.03
    }
    bias_filler {
      type: "constant"
      value: 0.2
    }
  }
}
layer {
  name: "inception_4c/relu_3x3"
  type: "ReLU"
  bottom: "inception_4c/3x3"
  top: "inception_4c/3x3"
}
layer {
  name: "inception_4c/5x5_reduce"
  type: "Convolution"
  bottom: "inception_4b/output"
  top: "inception_4c/5x5_reduce"
  param {
    lr_mult: 1
    decay_mult: 1
  }
  param {
    lr_mult: 2
    decay_mult: 0
  }
  convolution_param {
    num_output: 24
    kernel_size: 1
    weight_filler {
      type: "xavier"
      std: 0.2
    }
    bias_filler {
      type: "constant"
      value: 0.2
    }
  }
}
layer {
  name: "inception_4c/relu_5x5_reduce"
  type: "ReLU"
  bottom: "inception_4c/5x5_reduce"
  top: "inception_4c/5x5_reduce"
}
layer {
  name: "inception_4c/5x5"
  type: "Convolution"
  bottom: "inception_4c/5x5_reduce"
  top: "inception_4c/5x5"
  param {
    lr_mult: 1
    decay_mult: 1
  }
  param {
    lr_mult: 2
    decay_mult: 0
  }
  convolution_param {
    num_output: 64
    pad: 2
    kernel_size: 5
    weight_filler {
      type: "xavier"
      std: 0.03
    }
    bias_filler {
      type: "constant"
      value: 0.2
    }
  }
}
layer {
  name: "inception_4c/relu_5x5"
  type: "ReLU"
  bottom: "inception_4c/5x5"
  top: "inception_4c/5x5"
}
layer {
  name: "inception_4c/pool"
  type: "Pooling"
  bottom: "inception_4b/output"
  top: "inception_4c/pool"
  pooling_param {
    pool: MAX
    kernel_size: 3
    stride: 1
    pad: 1
  }
}
layer {
  name: "inception_4c/pool_proj"
  type: "Convolution"
  bottom: "inception_4c/pool"
  top: "inception_4c/pool_proj"
  param {
    lr_mult: 1
    decay_mult: 1
  }
  param {
    lr_mult: 2
    decay_mult: 0
  }
  convolution_param {
    num_output: 64
    kernel_size: 1
    weight_filler {
      type: "xavier"
      std: 0.1
    }
    bias_filler {
      type: "constant"
      value: 0.2
    }
  }
}
layer {
  name: "inception_4c/relu_pool_proj"
  type: "ReLU"
  bottom: "inception_4c/pool_proj"
  top: "inception_4c/pool_proj"
}
layer {
  name: "inception_4c/output"
  type: "Concat"
  bottom: "inception_4c/1x1"
  bottom: "inception_4c/3x3"
  bottom: "inception_4c/5x5"
  bottom: "inception_4c/pool_proj"
  top: "inception_4c/output"
}
layer {
  name: "inception_4d/1x1"
  type: "Convolution"
  bottom: "inception_4c/output"
  top: "inception_4d/1x1"
  param {
    lr_mult: 1
    decay_mult: 1
  }
  param {
    lr_mult: 2
    decay_mult: 0
  }
  convolution_param {
    num_output: 112
    kernel_size: 1
    weight_filler {
      type: "xavier"
      std: 0.03
    }
    bias_filler {
      type: "constant"
      value: 0.2
    }
  }
}
layer {
  name: "inception_4d/relu_1x1"
  type: "ReLU"
  bottom: "inception_4d/1x1"
  top: "inception_4d/1x1"
}
layer {
  name: "inception_4d/3x3_reduce"
  type: "Convolution"
  bottom: "inception_4c/output"
  top: "inception_4d/3x3_reduce"
  param {
    lr_mult: 1
    decay_mult: 1
  }
  param {
    lr_mult: 2
    decay_mult: 0
  }
  convolution_param {
    num_output: 144
    kernel_size: 1
    weight_filler {
      type: "xavier"
      std: 0.09
    }
    bias_filler {
      type: "constant"
      value: 0.2
    }
  }
}
layer {
  name: "inception_4d/relu_3x3_reduce"
  type: "ReLU"
  bottom: "inception_4d/3x3_reduce"
  top: "inception_4d/3x3_reduce"
}
layer {
  name: "inception_4d/3x3"
  type: "Convolution"
  bottom: "inception_4d/3x3_reduce"
  top: "inception_4d/3x3"
  param {
    lr_mult: 1
    decay_mult: 1
  }
  param {
    lr_mult: 2
    decay_mult: 0
  }
  convolution_param {
    num_output: 288
    pad: 1
    kernel_size: 3
    weight_filler {
      type: "xavier"
      std: 0.03
    }
    bias_filler {
      type: "constant"
      value: 0.2
    }
  }
}
layer {
  name: "inception_4d/relu_3x3"
  type: "ReLU"
  bottom: "inception_4d/3x3"
  top: "inception_4d/3x3"
}
layer {
  name: "inception_4d/5x5_reduce"
  type: "Convolution"
  bottom: "inception_4c/output"
  top: "inception_4d/5x5_reduce"
  param {
    lr_mult: 1
    decay_mult: 1
  }
  param {
    lr_mult: 2
    decay_mult: 0
  }
  convolution_param {
    num_output: 32
    kernel_size: 1
    weight_filler {
      type: "xavier"
      std: 0.2
    }
    bias_filler {
      type: "constant"
      value: 0.2
    }
  }
}
layer {
  name: "inception_4d/relu_5x5_reduce"
  type: "ReLU"
  bottom: "inception_4d/5x5_reduce"
  top: "inception_4d/5x5_reduce"
}
layer {
  name: "inception_4d/5x5"
  type: "Convolution"
  bottom: "inception_4d/5x5_reduce"
  top: "inception_4d/5x5"
  param {
    lr_mult: 1
    decay_mult: 1
  }
  param {
    lr_mult: 2
    decay_mult: 0
  }
  convolution_param {
    num_output: 64
    pad: 2
    kernel_size: 5
    weight_filler {
      type: "xavier"
      std: 0.03
    }
    bias_filler {
      type: "constant"
      value: 0.2
    }
  }
}
layer {
  name: "inception_4d/relu_5x5"
  type: "ReLU"
  bottom: "inception_4d/5x5"
  top: "inception_4d/5x5"
}
layer {
  name: "inception_4d/pool"
  type: "Pooling"
  bottom: "inception_4c/output"
  top: "inception_4d/pool"
  pooling_param {
    pool: MAX
    kernel_size: 3
    stride: 1
    pad: 1
  }
}
layer {
  name: "inception_4d/pool_proj"
  type: "Convolution"
  bottom: "inception_4d/pool"
  top: "inception_4d/pool_proj"
  param {
    lr_mult: 1
    decay_mult: 1
  }
  param {
    lr_mult: 2
    decay_mult: 0
  }
  convolution_param {
    num_output: 64
    kernel_size: 1
    weight_filler {
      type: "xavier"
      std: 0.1
    }
    bias_filler {
      type: "constant"
      value: 0.2
    }
  }
}
layer {
  name: "inception_4d/relu_pool_proj"
  type: "ReLU"
  bottom: "inception_4d/pool_proj"
  top: "inception_4d/pool_proj"
}
layer {
  name: "inception_4d/output"
  type: "Concat"
  bottom: "inception_4d/1x1"
  bottom: "inception_4d/3x3"
  bottom: "inception_4d/5x5"
  bottom: "inception_4d/pool_proj"
  top: "inception_4d/output"
}
layer {
  name: "loss2/ave_pool"
  type: "Pooling"
  bottom: "inception_4d/output"
  top: "loss2/ave_pool"
  pooling_param {
    pool: AVE
    kernel_size: 5
    stride: 3
  }
}
layer {
  name: "loss2/conv"
  type: "Convolution"
  bottom: "loss2/ave_pool"
  top: "loss2/conv"
  param {
    lr_mult: 1
    decay_mult: 1
  }
  param {
    lr_mult: 2
    decay_mult: 0
  }
  convolution_param {
    num_output: 128
    kernel_size: 1
    weight_filler {
      type: "xavier"
      std: 0.08
    }
    bias_filler {
      type: "constant"
      value: 0.2
    }
  }
}
layer {
  name: "loss2/relu_conv"
  type: "ReLU"
  bottom: "loss2/conv"
  top: "loss2/conv"
}
layer {
  name: "loss2/fc"
  type: "InnerProduct"
  bottom: "loss2/conv"
  top: "loss2/fc"
  param {
    lr_mult: 1
    decay_mult: 1
  }
  param {
    lr_mult: 2
    decay_mult: 0
  }
  inner_product_param {
    num_output: 1024
    weight_filler {
      type: "xavier"
      std: 0.02
    }
    bias_filler {
      type: "constant"
      value: 0.2
    }
  }
}
layer {
  name: "loss2/relu_fc"
  type: "ReLU"
  bottom: "loss2/fc"
  top: "loss2/fc"
}
layer {
  name: "loss2/drop_fc"
  type: "Dropout"
  bottom: "loss2/fc"
  top: "loss2/fc"
  dropout_param {
    dropout_ratio: 0.7
  }
}
layer {
  name: "loss2/classifier_plantvillage"
  type: "InnerProduct"
  bottom: "loss2/fc"
  top: "loss2/classifier_plantvillage"
  param {
    lr_mult: 1
    decay_mult: 1
  }
  param {
    lr_mult: 2
    decay_mult: 0
  }
  inner_product_param {
    num_output: 38
    weight_filler {
      type: "xavier"
      std: 0.0009765625
    }
    bias_filler {
      type: "constant"
      value: 0
    }
  }
}
layer {
  name: "inception_4e/1x1"
  type: "Convolution"
  bottom: "inception_4d/output"
  top: "inception_4e/1x1"
  param {
    lr_mult: 1
    decay_mult: 1
  }
  param {
    lr_mult: 2
    decay_mult: 0
  }
  convolution_param {
    num_output: 256
    kernel_size: 1
    weight_filler {
      type: "xavier"
      std: 0.03
    }
    bias_filler {
      type: "constant"
      value: 0.2
    }
  }
}
layer {
  name: "inception_4e/relu_1x1"
  type: "ReLU"
  bottom: "inception_4e/1x1"
  top: "inception_4e/1x1"
}
layer {
  name: "inception_4e/3x3_reduce"
  type: "Convolution"
  bottom: "inception_4d/output"
  top: "inception_4e/3x3_reduce"
  param {
    lr_mult: 1
    decay_mult: 1
  }
  param {
    lr_mult: 2
    decay_mult: 0
  }
  convolution_param {
    num_output: 160
    kernel_size: 1
    weight_filler {
      type: "xavier"
      std: 0.09
    }
    bias_filler {
      type: "constant"
      value: 0.2
    }
  }
}
layer {
  name: "inception_4e/relu_3x3_reduce"
  type: "ReLU"
  bottom: "inception_4e/3x3_reduce"
  top: "inception_4e/3x3_reduce"
}
layer {
  name: "inception_4e/3x3"
  type: "Convolution"
  bottom: "inception_4e/3x3_reduce"
  top: "inception_4e/3x3"
  param {
    lr_mult: 1
    decay_mult: 1
  }
  param {
    lr_mult: 2
    decay_mult: 0
  }
  convolution_param {
    num_output: 320
    pad: 1
    kernel_size: 3
    weight_filler {
      type: "xavier"
      std: 0.03
    }
    bias_filler {
      type: "constant"
      value: 0.2
    }
  }
}
layer {
  name: "inception_4e/relu_3x3"
  type: "ReLU"
  bottom: "inception_4e/3x3"
  top: "inception_4e/3x3"
}
layer {
  name: "inception_4e/5x5_reduce"
  type: "Convolution"
  bottom: "inception_4d/output"
  top: "inception_4e/5x5_reduce"
  param {
    lr_mult: 1
    decay_mult: 1
  }
  param {
    lr_mult: 2
    decay_mult: 0
  }
  convolution_param {
    num_output: 32
    kernel_size: 1
    weight_filler {
      type: "xavier"
      std: 0.2
    }
    bias_filler {
      type: "constant"
      value: 0.2
    }
  }
}
layer {
  name: "inception_4e/relu_5x5_reduce"
  type: "ReLU"
  bottom: "inception_4e/5x5_reduce"
  top: "inception_4e/5x5_reduce"
}
layer {
  name: "inception_4e/5x5"
  type: "Convolution"
  bottom: "inception_4e/5x5_reduce"
  top: "inception_4e/
I0403 15:11:49.987256 11702 layer_factory.hpp:77] Creating layer data
I0403 15:11:49.987884 11702 net.cpp:91] Creating Layer data
I0403 15:11:49.987915 11702 net.cpp:399] data -> data
I0403 15:11:49.987967 11702 net.cpp:399] data -> label
I0403 15:11:49.988006 11702 data_transformer.cpp:25] Loading mean file from: /home/mohanty/data/final_dataset/lmdb/segmented-50-50/mean.binaryproto
I0403 15:11:49.990198 11705 db_lmdb.cpp:38] Opened lmdb /home/mohanty/data/final_dataset/lmdb/segmented-50-50/test_db
I0403 15:11:50.001157 11702 data_layer.cpp:41] output data size: 24,3,224,224
I0403 15:11:50.028991 11702 net.cpp:141] Setting up data
I0403 15:11:50.029093 11702 net.cpp:148] Top shape: 24 3 224 224 (3612672)
I0403 15:11:50.029115 11702 net.cpp:148] Top shape: 24 (24)
I0403 15:11:50.029130 11702 net.cpp:156] Memory required for data: 14450784
I0403 15:11:50.029158 11702 layer_factory.hpp:77] Creating layer label_data_1_split
I0403 15:11:50.029184 11702 net.cpp:91] Creating Layer label_data_1_split
I0403 15:11:50.029202 11702 net.cpp:425] label_data_1_split <- label
I0403 15:11:50.029234 11702 net.cpp:399] label_data_1_split -> label_data_1_split_0
I0403 15:11:50.029263 11702 net.cpp:399] label_data_1_split -> label_data_1_split_1
I0403 15:11:50.029284 11702 net.cpp:399] label_data_1_split -> label_data_1_split_2
I0403 15:11:50.029304 11702 net.cpp:399] label_data_1_split -> label_data_1_split_3
I0403 15:11:50.029322 11702 net.cpp:399] label_data_1_split -> label_data_1_split_4
I0403 15:11:50.029342 11702 net.cpp:399] label_data_1_split -> label_data_1_split_5
I0403 15:11:50.029361 11702 net.cpp:399] label_data_1_split -> label_data_1_split_6
I0403 15:11:50.029381 11702 net.cpp:399] label_data_1_split -> label_data_1_split_7
I0403 15:11:50.029400 11702 net.cpp:399] label_data_1_split -> label_data_1_split_8
I0403 15:11:50.029425 11702 net.cpp:399] label_data_1_split -> label_data_1_split_9
I0403 15:11:50.029541 11702 net.cpp:141] Setting up label_data_1_split
I0403 15:11:50.029563 11702 net.cpp:148] Top shape: 24 (24)
I0403 15:11:50.029582 11702 net.cpp:148] Top shape: 24 (24)
I0403 15:11:50.029597 11702 net.cpp:148] Top shape: 24 (24)
I0403 15:11:50.029613 11702 net.cpp:148] Top shape: 24 (24)
I0403 15:11:50.029628 11702 net.cpp:148] Top shape: 24 (24)
I0403 15:11:50.029644 11702 net.cpp:148] Top shape: 24 (24)
I0403 15:11:50.029659 11702 net.cpp:148] Top shape: 24 (24)
I0403 15:11:50.029673 11702 net.cpp:148] Top shape: 24 (24)
I0403 15:11:50.029687 11702 net.cpp:148] Top shape: 24 (24)
I0403 15:11:50.029703 11702 net.cpp:148] Top shape: 24 (24)
I0403 15:11:50.029748 11702 net.cpp:156] Memory required for data: 14451744
I0403 15:11:50.029764 11702 layer_factory.hpp:77] Creating layer conv1/7x7_s2
I0403 15:11:50.029794 11702 net.cpp:91] Creating Layer conv1/7x7_s2
I0403 15:11:50.029814 11702 net.cpp:425] conv1/7x7_s2 <- data
I0403 15:11:50.029832 11702 net.cpp:399] conv1/7x7_s2 -> conv1/7x7_s2
I0403 15:11:50.173631 11702 net.cpp:141] Setting up conv1/7x7_s2
I0403 15:11:50.173719 11702 net.cpp:148] Top shape: 24 64 112 112 (19267584)
I0403 15:11:50.173738 11702 net.cpp:156] Memory required for data: 91522080
I0403 15:11:50.173768 11702 layer_factory.hpp:77] Creating layer conv1/relu_7x7
I0403 15:11:50.173794 11702 net.cpp:91] Creating Layer conv1/relu_7x7
I0403 15:11:50.173811 11702 net.cpp:425] conv1/relu_7x7 <- conv1/7x7_s2
I0403 15:11:50.173830 11702 net.cpp:386] conv1/relu_7x7 -> conv1/7x7_s2 (in-place)
I0403 15:11:50.174090 11702 net.cpp:141] Setting up conv1/relu_7x7
I0403 15:11:50.174118 11702 net.cpp:148] Top shape: 24 64 112 112 (19267584)
I0403 15:11:50.174134 11702 net.cpp:156] Memory required for data: 168592416
I0403 15:11:50.174149 11702 layer_factory.hpp:77] Creating layer pool1/3x3_s2
I0403 15:11:50.174172 11702 net.cpp:91] Creating Layer pool1/3x3_s2
I0403 15:11:50.174190 11702 net.cpp:425] pool1/3x3_s2 <- conv1/7x7_s2
I0403 15:11:50.174209 11702 net.cpp:399] pool1/3x3_s2 -> pool1/3x3_s2
I0403 15:11:50.174283 11702 net.cpp:141] Setting up pool1/3x3_s2
I0403 15:11:50.174309 11702 net.cpp:148] Top shape: 24 64 56 56 (4816896)
I0403 15:11:50.174324 11702 net.cpp:156] Memory required for data: 187860000
I0403 15:11:50.174338 11702 layer_factory.hpp:77] Creating layer pool1/norm1
I0403 15:11:50.174362 11702 net.cpp:91] Creating Layer pool1/norm1
I0403 15:11:50.174381 11702 net.cpp:425] pool1/norm1 <- pool1/3x3_s2
I0403 15:11:50.174397 11702 net.cpp:399] pool1/norm1 -> pool1/norm1
I0403 15:11:50.174688 11702 net.cpp:141] Setting up pool1/norm1
I0403 15:11:50.174715 11702 net.cpp:148] Top shape: 24 64 56 56 (4816896)
I0403 15:11:50.174731 11702 net.cpp:156] Memory required for data: 207127584
I0403 15:11:50.174747 11702 layer_factory.hpp:77] Creating layer conv2/3x3_reduce
I0403 15:11:50.174772 11702 net.cpp:91] Creating Layer conv2/3x3_reduce
I0403 15:11:50.174789 11702 net.cpp:425] conv2/3x3_reduce <- pool1/norm1
I0403 15:11:50.174810 11702 net.cpp:399] conv2/3x3_reduce -> conv2/3x3_reduce
I0403 15:11:50.176131 11702 net.cpp:141] Setting up conv2/3x3_reduce
I0403 15:11:50.176161 11702 net.cpp:148] Top shape: 24 64 56 56 (4816896)
I0403 15:11:50.176177 11702 net.cpp:156] Memory required for data: 226395168
I0403 15:11:50.176198 11702 layer_factory.hpp:77] Creating layer conv2/relu_3x3_reduce
I0403 15:11:50.176216 11702 net.cpp:91] Creating Layer conv2/relu_3x3_reduce
I0403 15:11:50.176231 11702 net.cpp:425] conv2/relu_3x3_reduce <- conv2/3x3_reduce
I0403 15:11:50.176249 11702 net.cpp:386] conv2/relu_3x3_reduce -> conv2/3x3_reduce (in-place)
I0403 15:11:50.176506 11702 net.cpp:141] Setting up conv2/relu_3x3_reduce
I0403 15:11:50.176533 11702 net.cpp:148] Top shape: 24 64 56 56 (4816896)
I0403 15:11:50.176548 11702 net.cpp:156] Memory required for data: 245662752
I0403 15:11:50.176564 11702 layer_factory.hpp:77] Creating layer conv2/3x3
I0403 15:11:50.176585 11702 net.cpp:91] Creating Layer conv2/3x3
I0403 15:11:50.176602 11702 net.cpp:425] conv2/3x3 <- conv2/3x3_reduce
I0403 15:11:50.176620 11702 net.cpp:399] conv2/3x3 -> conv2/3x3
I0403 15:11:50.178915 11702 net.cpp:141] Setting up conv2/3x3
I0403 15:11:50.178947 11702 net.cpp:148] Top shape: 24 192 56 56 (14450688)
I0403 15:11:50.178964 11702 net.cpp:156] Memory required for data: 303465504
I0403 15:11:50.178987 11702 layer_factory.hpp:77] Creating layer conv2/relu_3x3
I0403 15:11:50.179005 11702 net.cpp:91] Creating Layer conv2/relu_3x3
I0403 15:11:50.179021 11702 net.cpp:425] conv2/relu_3x3 <- conv2/3x3
I0403 15:11:50.179041 11702 net.cpp:386] conv2/relu_3x3 -> conv2/3x3 (in-place)
I0403 15:11:50.179222 11702 net.cpp:141] Setting up conv2/relu_3x3
I0403 15:11:50.179247 11702 net.cpp:148] Top shape: 24 192 56 56 (14450688)
I0403 15:11:50.179293 11702 net.cpp:156] Memory required for data: 361268256
I0403 15:11:50.179309 11702 layer_factory.hpp:77] Creating layer conv2/norm2
I0403 15:11:50.179332 11702 net.cpp:91] Creating Layer conv2/norm2
I0403 15:11:50.179348 11702 net.cpp:425] conv2/norm2 <- conv2/3x3
I0403 15:11:50.179366 11702 net.cpp:399] conv2/norm2 -> conv2/norm2
I0403 15:11:50.179680 11702 net.cpp:141] Setting up conv2/norm2
I0403 15:11:50.179708 11702 net.cpp:148] Top shape: 24 192 56 56 (14450688)
I0403 15:11:50.179723 11702 net.cpp:156] Memory required for data: 419071008
I0403 15:11:50.179739 11702 layer_factory.hpp:77] Creating layer pool2/3x3_s2
I0403 15:11:50.179759 11702 net.cpp:91] Creating Layer pool2/3x3_s2
I0403 15:11:50.179776 11702 net.cpp:425] pool2/3x3_s2 <- conv2/norm2
I0403 15:11:50.179795 11702 net.cpp:399] pool2/3x3_s2 -> pool2/3x3_s2
I0403 15:11:50.179848 11702 net.cpp:141] Setting up pool2/3x3_s2
I0403 15:11:50.179872 11702 net.cpp:148] Top shape: 24 192 28 28 (3612672)
I0403 15:11:50.179886 11702 net.cpp:156] Memory required for data: 433521696
I0403 15:11:50.179901 11702 layer_factory.hpp:77] Creating layer pool2/3x3_s2_pool2/3x3_s2_0_split
I0403 15:11:50.179922 11702 net.cpp:91] Creating Layer pool2/3x3_s2_pool2/3x3_s2_0_split
I0403 15:11:50.179939 11702 net.cpp:425] pool2/3x3_s2_pool2/3x3_s2_0_split <- pool2/3x3_s2
I0403 15:11:50.179955 11702 net.cpp:399] pool2/3x3_s2_pool2/3x3_s2_0_split -> pool2/3x3_s2_pool2/3x3_s2_0_split_0
I0403 15:11:50.179975 11702 net.cpp:399] pool2/3x3_s2_pool2/3x3_s2_0_split -> pool2/3x3_s2_pool2/3x3_s2_0_split_1
I0403 15:11:50.179996 11702 net.cpp:399] pool2/3x3_s2_pool2/3x3_s2_0_split -> pool2/3x3_s2_pool2/3x3_s2_0_split_2
I0403 15:11:50.180016 11702 net.cpp:399] pool2/3x3_s2_pool2/3x3_s2_0_split -> pool2/3x3_s2_pool2/3x3_s2_0_split_3
I0403 15:11:50.180086 11702 net.cpp:141] Setting up pool2/3x3_s2_pool2/3x3_s2_0_split
I0403 15:11:50.180109 11702 net.cpp:148] Top shape: 24 192 28 28 (3612672)
I0403 15:11:50.180125 11702 net.cpp:148] Top shape: 24 192 28 28 (3612672)
I0403 15:11:50.180140 11702 net.cpp:148] Top shape: 24 192 28 28 (3612672)
I0403 15:11:50.180155 11702 net.cpp:148] Top shape: 24 192 28 28 (3612672)
I0403 15:11:50.180169 11702 net.cpp:156] Memory required for data: 491324448
I0403 15:11:50.180184 11702 layer_factory.hpp:77] Creating layer inception_3a/1x1
I0403 15:11:50.180207 11702 net.cpp:91] Creating Layer inception_3a/1x1
I0403 15:11:50.180225 11702 net.cpp:425] inception_3a/1x1 <- pool2/3x3_s2_pool2/3x3_s2_0_split_0
I0403 15:11:50.180246 11702 net.cpp:399] inception_3a/1x1 -> inception_3a/1x1
I0403 15:11:50.181815 11702 net.cpp:141] Setting up inception_3a/1x1
I0403 15:11:50.181849 11702 net.cpp:148] Top shape: 24 64 28 28 (1204224)
I0403 15:11:50.181865 11702 net.cpp:156] Memory required for data: 496141344
I0403 15:11:50.181885 11702 layer_factory.hpp:77] Creating layer inception_3a/relu_1x1
I0403 15:11:50.181903 11702 net.cpp:91] Creating Layer inception_3a/relu_1x1
I0403 15:11:50.181920 11702 net.cpp:425] inception_3a/relu_1x1 <- inception_3a/1x1
I0403 15:11:50.181937 11702 net.cpp:386] inception_3a/relu_1x1 -> inception_3a/1x1 (in-place)
I0403 15:11:50.182116 11702 net.cpp:141] Setting up inception_3a/relu_1x1
I0403 15:11:50.182142 11702 net.cpp:148] Top shape: 24 64 28 28 (1204224)
I0403 15:11:50.182157 11702 net.cpp:156] Memory required for data: 500958240
I0403 15:11:50.182171 11702 layer_factory.hpp:77] Creating layer inception_3a/3x3_reduce
I0403 15:11:50.182198 11702 net.cpp:91] Creating Layer inception_3a/3x3_reduce
I0403 15:11:50.182215 11702 net.cpp:425] inception_3a/3x3_reduce <- pool2/3x3_s2_pool2/3x3_s2_0_split_1
I0403 15:11:50.182237 11702 net.cpp:399] inception_3a/3x3_reduce -> inception_3a/3x3_reduce
I0403 15:11:50.183990 11702 net.cpp:141] Setting up inception_3a/3x3_reduce
I0403 15:11:50.184021 11702 net.cpp:148] Top shape: 24 96 28 28 (1806336)
I0403 15:11:50.184038 11702 net.cpp:156] Memory required for data: 508183584
I0403 15:11:50.184059 11702 layer_factory.hpp:77] Creating layer inception_3a/relu_3x3_reduce
I0403 15:11:50.184100 11702 net.cpp:91] Creating Layer inception_3a/relu_3x3_reduce
I0403 15:11:50.184118 11702 net.cpp:425] inception_3a/relu_3x3_reduce <- inception_3a/3x3_reduce
I0403 15:11:50.184136 11702 net.cpp:386] inception_3a/relu_3x3_reduce -> inception_3a/3x3_reduce (in-place)
I0403 15:11:50.184317 11702 net.cpp:141] Setting up inception_3a/relu_3x3_reduce
I0403 15:11:50.184342 11702 net.cpp:148] Top shape: 24 96 28 28 (1806336)
I0403 15:11:50.184357 11702 net.cpp:156] Memory required for data: 515408928
I0403 15:11:50.184371 11702 layer_factory.hpp:77] Creating layer inception_3a/3x3
I0403 15:11:50.184396 11702 net.cpp:91] Creating Layer inception_3a/3x3
I0403 15:11:50.184417 11702 net.cpp:425] inception_3a/3x3 <- inception_3a/3x3_reduce
I0403 15:11:50.184438 11702 net.cpp:399] inception_3a/3x3 -> inception_3a/3x3
I0403 15:11:50.186115 11702 net.cpp:141] Setting up inception_3a/3x3
I0403 15:11:50.186144 11702 net.cpp:148] Top shape: 24 128 28 28 (2408448)
I0403 15:11:50.186159 11702 net.cpp:156] Memory required for data: 525042720
I0403 15:11:50.186178 11702 layer_factory.hpp:77] Creating layer inception_3a/relu_3x3
I0403 15:11:50.186197 11702 net.cpp:91] Creating Layer inception_3a/relu_3x3
I0403 15:11:50.186213 11702 net.cpp:425] inception_3a/relu_3x3 <- inception_3a/3x3
I0403 15:11:50.186233 11702 net.cpp:386] inception_3a/relu_3x3 -> inception_3a/3x3 (in-place)
I0403 15:11:50.186535 11702 net.cpp:141] Setting up inception_3a/relu_3x3
I0403 15:11:50.186563 11702 net.cpp:148] Top shape: 24 128 28 28 (2408448)
I0403 15:11:50.186578 11702 net.cpp:156] Memory required for data: 534676512
I0403 15:11:50.186594 11702 layer_factory.hpp:77] Creating layer inception_3a/5x5_reduce
I0403 15:11:50.186628 11702 net.cpp:91] Creating Layer inception_3a/5x5_reduce
I0403 15:11:50.186646 11702 net.cpp:425] inception_3a/5x5_reduce <- pool2/3x3_s2_pool2/3x3_s2_0_split_2
I0403 15:11:50.186668 11702 net.cpp:399] inception_3a/5x5_reduce -> inception_3a/5x5_reduce
I0403 15:11:50.187647 11702 net.cpp:141] Setting up inception_3a/5x5_reduce
I0403 15:11:50.187676 11702 net.cpp:148] Top shape: 24 16 28 28 (301056)
I0403 15:11:50.187691 11702 net.cpp:156] Memory required for data: 535880736
I0403 15:11:50.187710 11702 layer_factory.hpp:77] Creating layer inception_3a/relu_5x5_reduce
I0403 15:11:50.187728 11702 net.cpp:91] Creating Layer inception_3a/relu_5x5_reduce
I0403 15:11:50.187744 11702 net.cpp:425] inception_3a/relu_5x5_reduce <- inception_3a/5x5_reduce
I0403 15:11:50.187764 11702 net.cpp:386] inception_3a/relu_5x5_reduce -> inception_3a/5x5_reduce (in-place)
I0403 15:11:50.188071 11702 net.cpp:141] Setting up inception_3a/relu_5x5_reduce
I0403 15:11:50.188098 11702 net.cpp:148] Top shape: 24 16 28 28 (301056)
I0403 15:11:50.188113 11702 net.cpp:156] Memory required for data: 537084960
I0403 15:11:50.188128 11702 layer_factory.hpp:77] Creating layer inception_3a/5x5
I0403 15:11:50.188151 11702 net.cpp:91] Creating Layer inception_3a/5x5
I0403 15:11:50.188169 11702 net.cpp:425] inception_3a/5x5 <- inception_3a/5x5_reduce
I0403 15:11:50.188190 11702 net.cpp:399] inception_3a/5x5 -> inception_3a/5x5
I0403 15:11:50.189211 11702 net.cpp:141] Setting up inception_3a/5x5
I0403 15:11:50.189244 11702 net.cpp:148] Top shape: 24 32 28 28 (602112)
I0403 15:11:50.189260 11702 net.cpp:156] Memory required for data: 539493408
I0403 15:11:50.189280 11702 layer_factory.hpp:77] Creating layer inception_3a/relu_5x5
I0403 15:11:50.189299 11702 net.cpp:91] Creating Layer inception_3a/relu_5x5
I0403 15:11:50.189316 11702 net.cpp:425] inception_3a/relu_5x5 <- inception_3a/5x5
I0403 15:11:50.189348 11702 net.cpp:386] inception_3a/relu_5x5 -> inception_3a/5x5 (in-place)
I0403 15:11:50.189546 11702 net.cpp:141] Setting up inception_3a/relu_5x5
I0403 15:11:50.189574 11702 net.cpp:148] Top shape: 24 32 28 28 (602112)
I0403 15:11:50.189589 11702 net.cpp:156] Memory required for data: 541901856
I0403 15:11:50.189604 11702 layer_factory.hpp:77] Creating layer inception_3a/pool
I0403 15:11:50.189621 11702 net.cpp:91] Creating Layer inception_3a/pool
I0403 15:11:50.189656 11702 net.cpp:425] inception_3a/pool <- pool2/3x3_s2_pool2/3x3_s2_0_split_3
I0403 15:11:50.189676 11702 net.cpp:399] inception_3a/pool -> inception_3a/pool
I0403 15:11:50.189735 11702 net.cpp:141] Setting up inception_3a/pool
I0403 15:11:50.189769 11702 net.cpp:148] Top shape: 24 192 28 28 (3612672)
I0403 15:11:50.189784 11702 net.cpp:156] Memory required for data: 556352544
I0403 15:11:50.189798 11702 layer_factory.hpp:77] Creating layer inception_3a/pool_proj
I0403 15:11:50.189821 11702 net.cpp:91] Creating Layer inception_3a/pool_proj
I0403 15:11:50.189839 11702 net.cpp:425] inception_3a/pool_proj <- inception_3a/pool
I0403 15:11:50.189862 11702 net.cpp:399] inception_3a/pool_proj -> inception_3a/pool_proj
I0403 15:11:50.190862 11702 net.cpp:141] Setting up inception_3a/pool_proj
I0403 15:11:50.190891 11702 net.cpp:148] Top shape: 24 32 28 28 (602112)
I0403 15:11:50.190907 11702 net.cpp:156] Memory required for data: 558760992
I0403 15:11:50.190932 11702 layer_factory.hpp:77] Creating layer inception_3a/relu_pool_proj
I0403 15:11:50.190953 11702 net.cpp:91] Creating Layer inception_3a/relu_pool_proj
I0403 15:11:50.190969 11702 net.cpp:425] inception_3a/relu_pool_proj <- inception_3a/pool_proj
I0403 15:11:50.190989 11702 net.cpp:386] inception_3a/relu_pool_proj -> inception_3a/pool_proj (in-place)
I0403 15:11:50.191278 11702 net.cpp:141] Setting up inception_3a/relu_pool_proj
I0403 15:11:50.191306 11702 net.cpp:148] Top shape: 24 32 28 28 (602112)
I0403 15:11:50.191321 11702 net.cpp:156] Memory required for data: 561169440
I0403 15:11:50.191339 11702 layer_factory.hpp:77] Creating layer inception_3a/output
I0403 15:11:50.191359 11702 net.cpp:91] Creating Layer inception_3a/output
I0403 15:11:50.191375 11702 net.cpp:425] inception_3a/output <- inception_3a/1x1
I0403 15:11:50.191391 11702 net.cpp:425] inception_3a/output <- inception_3a/3x3
I0403 15:11:50.191408 11702 net.cpp:425] inception_3a/output <- inception_3a/5x5
I0403 15:11:50.191431 11702 net.cpp:425] inception_3a/output <- inception_3a/pool_proj
I0403 15:11:50.191452 11702 net.cpp:399] inception_3a/output -> inception_3a/output
I0403 15:11:50.191501 11702 net.cpp:141] Setting up inception_3a/output
I0403 15:11:50.191529 11702 net.cpp:148] Top shape: 24 256 28 28 (4816896)
I0403 15:11:50.191545 11702 net.cpp:156] Memory required for data: 580437024
I0403 15:11:50.191560 11702 layer_factory.hpp:77] Creating layer inception_3a/output_inception_3a/output_0_split
I0403 15:11:50.191577 11702 net.cpp:91] Creating Layer inception_3a/output_inception_3a/output_0_split
I0403 15:11:50.191593 11702 net.cpp:425] inception_3a/output_inception_3a/output_0_split <- inception_3a/output
I0403 15:11:50.191612 11702 net.cpp:399] inception_3a/output_inception_3a/output_0_split -> inception_3a/output_inception_3a/output_0_split_0
I0403 15:11:50.191632 11702 net.cpp:399] inception_3a/output_inception_3a/output_0_split -> inception_3a/output_inception_3a/output_0_split_1
I0403 15:11:50.191658 11702 net.cpp:399] inception_3a/output_inception_3a/output_0_split -> inception_3a/output_inception_3a/output_0_split_2
I0403 15:11:50.191680 11702 net.cpp:399] inception_3a/output_inception_3a/output_0_split -> inception_3a/output_inception_3a/output_0_split_3
I0403 15:11:50.191757 11702 net.cpp:141] Setting up inception_3a/output_inception_3a/output_0_split
I0403 15:11:50.191784 11702 net.cpp:148] Top shape: 24 256 28 28 (4816896)
I0403 15:11:50.191802 11702 net.cpp:148] Top shape: 24 256 28 28 (4816896)
I0403 15:11:50.191818 11702 net.cpp:148] Top shape: 24 256 28 28 (4816896)
I0403 15:11:50.191834 11702 net.cpp:148] Top shape: 24 256 28 28 (4816896)
I0403 15:11:50.191848 11702 net.cpp:156] Memory required for data: 657507360
I0403 15:11:50.191864 11702 layer_factory.hpp:77] Creating layer inception_3b/1x1
I0403 15:11:50.191887 11702 net.cpp:91] Creating Layer inception_3b/1x1
I0403 15:11:50.191905 11702 net.cpp:425] inception_3b/1x1 <- inception_3a/output_inception_3a/output_0_split_0
I0403 15:11:50.191925 11702 net.cpp:399] inception_3b/1x1 -> inception_3b/1x1
I0403 15:11:50.193106 11702 net.cpp:141] Setting up inception_3b/1x1
I0403 15:11:50.193150 11702 net.cpp:148] Top shape: 24 128 28 28 (2408448)
I0403 15:11:50.193166 11702 net.cpp:156] Memory required for data: 667141152
I0403 15:11:50.193186 11702 layer_factory.hpp:77] Creating layer inception_3b/relu_1x1
I0403 15:11:50.193207 11702 net.cpp:91] Creating Layer inception_3b/relu_1x1
I0403 15:11:50.193225 11702 net.cpp:425] inception_3b/relu_1x1 <- inception_3b/1x1
I0403 15:11:50.193244 11702 net.cpp:386] inception_3b/relu_1x1 -> inception_3b/1x1 (in-place)
I0403 15:11:50.193441 11702 net.cpp:141] Setting up inception_3b/relu_1x1
I0403 15:11:50.193469 11702 net.cpp:148] Top shape: 24 128 28 28 (2408448)
I0403 15:11:50.193483 11702 net.cpp:156] Memory required for data: 676774944
I0403 15:11:50.193500 11702 layer_factory.hpp:77] Creating layer inception_3b/3x3_reduce
I0403 15:11:50.193522 11702 net.cpp:91] Creating Layer inception_3b/3x3_reduce
I0403 15:11:50.193541 11702 net.cpp:425] inception_3b/3x3_reduce <- inception_3a/output_inception_3a/output_0_split_1
I0403 15:11:50.193563 11702 net.cpp:399] inception_3b/3x3_reduce -> inception_3b/3x3_reduce
I0403 15:11:50.194741 11702 net.cpp:141] Setting up inception_3b/3x3_reduce
I0403 15:11:50.194774 11702 net.cpp:148] Top shape: 24 128 28 28 (2408448)
I0403 15:11:50.194792 11702 net.cpp:156] Memory required for data: 686408736
I0403 15:11:50.194810 11702 layer_factory.hpp:77] Creating layer inception_3b/relu_3x3_reduce
I0403 15:11:50.194829 11702 net.cpp:91] Creating Layer inception_3b/relu_3x3_reduce
I0403 15:11:50.194846 11702 net.cpp:425] inception_3b/relu_3x3_reduce <- inception_3b/3x3_reduce
I0403 15:11:50.194865 11702 net.cpp:386] inception_3b/relu_3x3_reduce -> inception_3b/3x3_reduce (in-place)
I0403 15:11:50.195047 11702 net.cpp:141] Setting up inception_3b/relu_3x3_reduce
I0403 15:11:50.195072 11702 net.cpp:148] Top shape: 24 128 28 28 (2408448)
I0403 15:11:50.195087 11702 net.cpp:156] Memory required for data: 696042528
I0403 15:11:50.195103 11702 layer_factory.hpp:77] Creating layer inception_3b/3x3
I0403 15:11:50.195128 11702 net.cpp:91] Creating Layer inception_3b/3x3
I0403 15:11:50.195148 11702 net.cpp:425] inception_3b/3x3 <- inception_3b/3x3_reduce
I0403 15:11:50.195171 11702 net.cpp:399] inception_3b/3x3 -> inception_3b/3x3
I0403 15:11:50.198182 11702 net.cpp:141] Setting up inception_3b/3x3
I0403 15:11:50.198212 11702 net.cpp:148] Top shape: 24 192 28 28 (3612672)
I0403 15:11:50.198228 11702 net.cpp:156] Memory required for data: 710493216
I0403 15:11:50.198246 11702 layer_factory.hpp:77] Creating layer inception_3b/relu_3x3
I0403 15:11:50.198264 11702 net.cpp:91] Creating Layer inception_3b/relu_3x3
I0403 15:11:50.198282 11702 net.cpp:425] inception_3b/relu_3x3 <- inception_3b/3x3
I0403 15:11:50.198302 11702 net.cpp:386] inception_3b/relu_3x3 -> inception_3b/3x3 (in-place)
I0403 15:11:50.198585 11702 net.cpp:141] Setting up inception_3b/relu_3x3
I0403 15:11:50.198613 11702 net.cpp:148] Top shape: 24 192 28 28 (3612672)
I0403 15:11:50.198628 11702 net.cpp:156] Memory required for data: 724943904
I0403 15:11:50.198644 11702 layer_factory.hpp:77] Creating layer inception_3b/5x5_reduce
I0403 15:11:50.198668 11702 net.cpp:91] Creating Layer inception_3b/5x5_reduce
I0403 15:11:50.198686 11702 net.cpp:425] inception_3b/5x5_reduce <- inception_3a/output_inception_3a/output_0_split_2
I0403 15:11:50.198709 11702 net.cpp:399] inception_3b/5x5_reduce -> inception_3b/5x5_reduce
I0403 15:11:50.199712 11702 net.cpp:141] Setting up inception_3b/5x5_reduce
I0403 15:11:50.199739 11702 net.cpp:148] Top shape: 24 32 28 28 (602112)
I0403 15:11:50.199755 11702 net.cpp:156] Memory required for data: 727352352
I0403 15:11:50.199774 11702 layer_factory.hpp:77] Creating layer inception_3b/relu_5x5_reduce
I0403 15:11:50.199790 11702 net.cpp:91] Creating Layer inception_3b/relu_5x5_reduce
I0403 15:11:50.199807 11702 net.cpp:425] inception_3b/relu_5x5_reduce <- inception_3b/5x5_reduce
I0403 15:11:50.199826 11702 net.cpp:386] inception_3b/relu_5x5_reduce -> inception_3b/5x5_reduce (in-place)
I0403 15:11:50.200021 11702 net.cpp:141] Setting up inception_3b/relu_5x5_reduce
I0403 15:11:50.200047 11702 net.cpp:148] Top shape: 24 32 28 28 (602112)
I0403 15:11:50.200062 11702 net.cpp:156] Memory required for data: 729760800
I0403 15:11:50.200076 11702 layer_factory.hpp:77] Creating layer inception_3b/5x5
I0403 15:11:50.200099 11702 net.cpp:91] Creating Layer inception_3b/5x5
I0403 15:11:50.200117 11702 net.cpp:425] inception_3b/5x5 <- inception_3b/5x5_reduce
I0403 15:11:50.200141 11702 net.cpp:399] inception_3b/5x5 -> inception_3b/5x5
I0403 15:11:50.202191 11702 net.cpp:141] Setting up inception_3b/5x5
I0403 15:11:50.202222 11702 net.cpp:148] Top shape: 24 96 28 28 (1806336)
I0403 15:11:50.202239 11702 net.cpp:156] Memory required for data: 736986144
I0403 15:11:50.202258 11702 layer_factory.hpp:77] Creating layer inception_3b/relu_5x5
I0403 15:11:50.202277 11702 net.cpp:91] Creating Layer inception_3b/relu_5x5
I0403 15:11:50.202293 11702 net.cpp:425] inception_3b/relu_5x5 <- inception_3b/5x5
I0403 15:11:50.202311 11702 net.cpp:386] inception_3b/relu_5x5 -> inception_3b/5x5 (in-place)
I0403 15:11:50.202509 11702 net.cpp:141] Setting up inception_3b/relu_5x5
I0403 15:11:50.202535 11702 net.cpp:148] Top shape: 24 96 28 28 (1806336)
I0403 15:11:50.202550 11702 net.cpp:156] Memory required for data: 744211488
I0403 15:11:50.202565 11702 layer_factory.hpp:77] Creating layer inception_3b/pool
I0403 15:11:50.202584 11702 net.cpp:91] Creating Layer inception_3b/pool
I0403 15:11:50.202600 11702 net.cpp:425] inception_3b/pool <- inception_3a/output_inception_3a/output_0_split_3
I0403 15:11:50.202617 11702 net.cpp:399] inception_3b/pool -> inception_3b/pool
I0403 15:11:50.202674 11702 net.cpp:141] Setting up inception_3b/pool
I0403 15:11:50.202700 11702 net.cpp:148] Top shape: 24 256 28 28 (4816896)
I0403 15:11:50.202715 11702 net.cpp:156] Memory required for data: 763479072
I0403 15:11:50.202730 11702 layer_factory.hpp:77] Creating layer inception_3b/pool_proj
I0403 15:11:50.202754 11702 net.cpp:91] Creating Layer inception_3b/pool_proj
I0403 15:11:50.202772 11702 net.cpp:425] inception_3b/pool_proj <- inception_3b/pool
I0403 15:11:50.202791 11702 net.cpp:399] inception_3b/pool_proj -> inception_3b/pool_proj
I0403 15:11:50.203912 11702 net.cpp:141] Setting up inception_3b/pool_proj
I0403 15:11:50.203941 11702 net.cpp:148] Top shape: 24 64 28 28 (1204224)
I0403 15:11:50.203958 11702 net.cpp:156] Memory required for data: 768295968
I0403 15:11:50.203975 11702 layer_factory.hpp:77] Creating layer inception_3b/relu_pool_proj
I0403 15:11:50.203997 11702 net.cpp:91] Creating Layer inception_3b/relu_pool_proj
I0403 15:11:50.204015 11702 net.cpp:425] inception_3b/relu_pool_proj <- inception_3b/pool_proj
I0403 15:11:50.204033 11702 net.cpp:386] inception_3b/relu_pool_proj -> inception_3b/pool_proj (in-place)
I0403 15:11:50.204439 11702 net.cpp:141] Setting up inception_3b/relu_pool_proj
I0403 15:11:50.204466 11702 net.cpp:148] Top shape: 24 64 28 28 (1204224)
I0403 15:11:50.204483 11702 net.cpp:156] Memory required for data: 773112864
I0403 15:11:50.204499 11702 layer_factory.hpp:77] Creating layer inception_3b/output
I0403 15:11:50.204515 11702 net.cpp:91] Creating Layer inception_3b/output
I0403 15:11:50.204531 11702 net.cpp:425] inception_3b/output <- inception_3b/1x1
I0403 15:11:50.204548 11702 net.cpp:425] inception_3b/output <- inception_3b/3x3
I0403 15:11:50.204565 11702 net.cpp:425] inception_3b/output <- inception_3b/5x5
I0403 15:11:50.204581 11702 net.cpp:425] inception_3b/output <- inception_3b/pool_proj
I0403 15:11:50.204601 11702 net.cpp:399] inception_3b/output -> inception_3b/output
I0403 15:11:50.204645 11702 net.cpp:141] Setting up inception_3b/output
I0403 15:11:50.204671 11702 net.cpp:148] Top shape: 24 480 28 28 (9031680)
I0403 15:11:50.204687 11702 net.cpp:156] Memory required for data: 809239584
I0403 15:11:50.204704 11702 layer_factory.hpp:77] Creating layer pool3/3x3_s2
I0403 15:11:50.204720 11702 net.cpp:91] Creating Layer pool3/3x3_s2
I0403 15:11:50.204735 11702 net.cpp:425] pool3/3x3_s2 <- inception_3b/output
I0403 15:11:50.204772 11702 net.cpp:399] pool3/3x3_s2 -> pool3/3x3_s2
I0403 15:11:50.204834 11702 net.cpp:141] Setting up pool3/3x3_s2
I0403 15:11:50.204859 11702 net.cpp:148] Top shape: 24 480 14 14 (2257920)
I0403 15:11:50.204874 11702 net.cpp:156] Memory required for data: 818271264
I0403 15:11:50.204890 11702 layer_factory.hpp:77] Creating layer pool3/3x3_s2_pool3/3x3_s2_0_split
I0403 15:11:50.204908 11702 net.cpp:91] Creating Layer pool3/3x3_s2_pool3/3x3_s2_0_split
I0403 15:11:50.204926 11702 net.cpp:425] pool3/3x3_s2_pool3/3x3_s2_0_split <- pool3/3x3_s2
I0403 15:11:50.204942 11702 net.cpp:399] pool3/3x3_s2_pool3/3x3_s2_0_split -> pool3/3x3_s2_pool3/3x3_s2_0_split_0
I0403 15:11:50.204962 11702 net.cpp:399] pool3/3x3_s2_pool3/3x3_s2_0_split -> pool3/3x3_s2_pool3/3x3_s2_0_split_1
I0403 15:11:50.204985 11702 net.cpp:399] pool3/3x3_s2_pool3/3x3_s2_0_split -> pool3/3x3_s2_pool3/3x3_s2_0_split_2
I0403 15:11:50.205005 11702 net.cpp:399] pool3/3x3_s2_pool3/3x3_s2_0_split -> pool3/3x3_s2_pool3/3x3_s2_0_split_3
I0403 15:11:50.205081 11702 net.cpp:141] Setting up pool3/3x3_s2_pool3/3x3_s2_0_split
I0403 15:11:50.205104 11702 net.cpp:148] Top shape: 24 480 14 14 (2257920)
I0403 15:11:50.205121 11702 net.cpp:148] Top shape: 24 480 14 14 (2257920)
I0403 15:11:50.205135 11702 net.cpp:148] Top shape: 24 480 14 14 (2257920)
I0403 15:11:50.205150 11702 net.cpp:148] Top shape: 24 480 14 14 (2257920)
I0403 15:11:50.205164 11702 net.cpp:156] Memory required for data: 854397984
I0403 15:11:50.205178 11702 layer_factory.hpp:77] Creating layer inception_4a/1x1
I0403 15:11:50.205200 11702 net.cpp:91] Creating Layer inception_4a/1x1
I0403 15:11:50.205219 11702 net.cpp:425] inception_4a/1x1 <- pool3/3x3_s2_pool3/3x3_s2_0_split_0
I0403 15:11:50.205240 11702 net.cpp:399] inception_4a/1x1 -> inception_4a/1x1
I0403 15:11:50.206873 11702 net.cpp:141] Setting up inception_4a/1x1
I0403 15:11:50.206902 11702 net.cpp:148] Top shape: 24 192 14 14 (903168)
I0403 15:11:50.206918 11702 net.cpp:156] Memory required for data: 858010656
I0403 15:11:50.206936 11702 layer_factory.hpp:77] Creating layer inception_4a/relu_1x1
I0403 15:11:50.206956 11702 net.cpp:91] Creating Layer inception_4a/relu_1x1
I0403 15:11:50.206974 11702 net.cpp:425] inception_4a/relu_1x1 <- inception_4a/1x1
I0403 15:11:50.206991 11702 net.cpp:386] inception_4a/relu_1x1 -> inception_4a/1x1 (in-place)
I0403 15:11:50.207171 11702 net.cpp:141] Setting up inception_4a/relu_1x1
I0403 15:11:50.207200 11702 net.cpp:148] Top shape: 24 192 14 14 (903168)
I0403 15:11:50.207216 11702 net.cpp:156] Memory required for data: 861623328
I0403 15:11:50.207231 11702 layer_factory.hpp:77] Creating layer inception_4a/3x3_reduce
I0403 15:11:50.207257 11702 net.cpp:91] Creating Layer inception_4a/3x3_reduce
I0403 15:11:50.207275 11702 net.cpp:425] inception_4a/3x3_reduce <- pool3/3x3_s2_pool3/3x3_s2_0_split_1
I0403 15:11:50.207296 11702 net.cpp:399] inception_4a/3x3_reduce -> inception_4a/3x3_reduce
I0403 15:11:50.208590 11702 net.cpp:141] Setting up inception_4a/3x3_reduce
I0403 15:11:50.208619 11702 net.cpp:148] Top shape: 24 96 14 14 (451584)
I0403 15:11:50.208636 11702 net.cpp:156] Memory required for data: 863429664
I0403 15:11:50.208674 11702 layer_factory.hpp:77] Creating layer inception_4a/relu_3x3_reduce
I0403 15:11:50.208698 11702 net.cpp:91] Creating Layer inception_4a/relu_3x3_reduce
I0403 15:11:50.208715 11702 net.cpp:425] inception_4a/relu_3x3_reduce <- inception_4a/3x3_reduce
I0403 15:11:50.208734 11702 net.cpp:386] inception_4a/relu_3x3_reduce -> inception_4a/3x3_reduce (in-place)
I0403 15:11:50.208926 11702 net.cpp:141] Setting up inception_4a/relu_3x3_reduce
I0403 15:11:50.208951 11702 net.cpp:148] Top shape: 24 96 14 14 (451584)
I0403 15:11:50.208967 11702 net.cpp:156] Memory required for data: 865236000
I0403 15:11:50.208982 11702 layer_factory.hpp:77] Creating layer inception_4a/3x3
I0403 15:11:50.209007 11702 net.cpp:91] Creating Layer inception_4a/3x3
I0403 15:11:50.209027 11702 net.cpp:425] inception_4a/3x3 <- inception_4a/3x3_reduce
I0403 15:11:50.209046 11702 net.cpp:399] inception_4a/3x3 -> inception_4a/3x3
I0403 15:11:50.211796 11702 net.cpp:141] Setting up inception_4a/3x3
I0403 15:11:50.211827 11702 net.cpp:148] Top shape: 24 208 14 14 (978432)
I0403 15:11:50.211843 11702 net.cpp:156] Memory required for data: 869149728
I0403 15:11:50.211861 11702 layer_factory.hpp:77] Creating layer inception_4a/relu_3x3
I0403 15:11:50.211879 11702 net.cpp:91] Creating Layer inception_4a/relu_3x3
I0403 15:11:50.211894 11702 net.cpp:425] inception_4a/relu_3x3 <- inception_4a/3x3
I0403 15:11:50.211912 11702 net.cpp:386] inception_4a/relu_3x3 -> inception_4a/3x3 (in-place)
I0403 15:11:50.212189 11702 net.cpp:141] Setting up inception_4a/relu_3x3
I0403 15:11:50.212218 11702 net.cpp:148] Top shape: 24 208 14 14 (978432)
I0403 15:11:50.212232 11702 net.cpp:156] Memory required for data: 873063456
I0403 15:11:50.212249 11702 layer_factory.hpp:77] Creating layer inception_4a/5x5_reduce
I0403 15:11:50.212271 11702 net.cpp:91] Creating Layer inception_4a/5x5_reduce
I0403 15:11:50.212288 11702 net.cpp:425] inception_4a/5x5_reduce <- pool3/3x3_s2_pool3/3x3_s2_0_split_2
I0403 15:11:50.212307 11702 net.cpp:399] inception_4a/5x5_reduce -> inception_4a/5x5_reduce
I0403 15:11:50.213306 11702 net.cpp:141] Setting up inception_4a/5x5_reduce
I0403 15:11:50.213336 11702 net.cpp:148] Top shape: 24 16 14 14 (75264)
I0403 15:11:50.213352 11702 net.cpp:156] Memory required for data: 873364512
I0403 15:11:50.213372 11702 layer_factory.hpp:77] Creating layer inception_4a/relu_5x5_reduce
I0403 15:11:50.213390 11702 net.cpp:91] Creating Layer inception_4a/relu_5x5_reduce
I0403 15:11:50.213405 11702 net.cpp:425] inception_4a/relu_5x5_reduce <- inception_4a/5x5_reduce
I0403 15:11:50.213438 11702 net.cpp:386] inception_4a/relu_5x5_reduce -> inception_4a/5x5_reduce (in-place)
I0403 15:11:50.213614 11702 net.cpp:141] Setting up inception_4a/relu_5x5_reduce
I0403 15:11:50.213639 11702 net.cpp:148] Top shape: 24 16 14 14 (75264)
I0403 15:11:50.213655 11702 net.cpp:156] Memory required for data: 873665568
I0403 15:11:50.213670 11702 layer_factory.hpp:77] Creating layer inception_4a/5x5
I0403 15:11:50.213692 11702 net.cpp:91] Creating Layer inception_4a/5x5
I0403 15:11:50.213709 11702 net.cpp:425] inception_4a/5x5 <- inception_4a/5x5_reduce
I0403 15:11:50.213729 11702 net.cpp:399] inception_4a/5x5 -> inception_4a/5x5
I0403 15:11:50.214797 11702 net.cpp:141] Setting up inception_4a/5x5
I0403 15:11:50.214824 11702 net.cpp:148] Top shape: 24 48 14 14 (225792)
I0403 15:11:50.214840 11702 net.cpp:156] Memory required for data: 874568736
I0403 15:11:50.214859 11702 layer_factory.hpp:77] Creating layer inception_4a/relu_5x5
I0403 15:11:50.214879 11702 net.cpp:91] Creating Layer inception_4a/relu_5x5
I0403 15:11:50.214895 11702 net.cpp:425] inception_4a/relu_5x5 <- inception_4a/5x5
I0403 15:11:50.214913 11702 net.cpp:386] inception_4a/relu_5x5 -> inception_4a/5x5 (in-place)
I0403 15:11:50.215090 11702 net.cpp:141] Setting up inception_4a/relu_5x5
I0403 15:11:50.215114 11702 net.cpp:148] Top shape: 24 48 14 14 (225792)
I0403 15:11:50.215129 11702 net.cpp:156] Memory required for data: 875471904
I0403 15:11:50.215144 11702 layer_factory.hpp:77] Creating layer inception_4a/pool
I0403 15:11:50.215163 11702 net.cpp:91] Creating Layer inception_4a/pool
I0403 15:11:50.215180 11702 net.cpp:425] inception_4a/pool <- pool3/3x3_s2_pool3/3x3_s2_0_split_3
I0403 15:11:50.215198 11702 net.cpp:399] inception_4a/pool -> inception_4a/pool
I0403 15:11:50.215260 11702 net.cpp:141] Setting up inception_4a/pool
I0403 15:11:50.215283 11702 net.cpp:148] Top shape: 24 480 14 14 (2257920)
I0403 15:11:50.215297 11702 net.cpp:156] Memory required for data: 884503584
I0403 15:11:50.215312 11702 layer_factory.hpp:77] Creating layer inception_4a/pool_proj
I0403 15:11:50.215332 11702 net.cpp:91] Creating Layer inception_4a/pool_proj
I0403 15:11:50.215350 11702 net.cpp:425] inception_4a/pool_proj <- inception_4a/pool
I0403 15:11:50.215386 11702 net.cpp:399] inception_4a/pool_proj -> inception_4a/pool_proj
I0403 15:11:50.216567 11702 net.cpp:141] Setting up inception_4a/pool_proj
I0403 15:11:50.216595 11702 net.cpp:148] Top shape: 24 64 14 14 (301056)
I0403 15:11:50.216626 11702 net.cpp:156] Memory required for data: 885707808
I0403 15:11:50.216646 11702 layer_factory.hpp:77] Creating layer inception_4a/relu_pool_proj
I0403 15:11:50.216667 11702 net.cpp:91] Creating Layer inception_4a/relu_pool_proj
I0403 15:11:50.216686 11702 net.cpp:425] inception_4a/relu_pool_proj <- inception_4a/pool_proj
I0403 15:11:50.216703 11702 net.cpp:386] inception_4a/relu_pool_proj -> inception_4a/pool_proj (in-place)
I0403 15:11:50.216985 11702 net.cpp:141] Setting up inception_4a/relu_pool_proj
I0403 15:11:50.217011 11702 net.cpp:148] Top shape: 24 64 14 14 (301056)
I0403 15:11:50.217027 11702 net.cpp:156] Memory required for data: 886912032
I0403 15:11:50.217041 11702 layer_factory.hpp:77] Creating layer inception_4a/output
I0403 15:11:50.217058 11702 net.cpp:91] Creating Layer inception_4a/output
I0403 15:11:50.217074 11702 net.cpp:425] inception_4a/output <- inception_4a/1x1
I0403 15:11:50.217093 11702 net.cpp:425] inception_4a/output <- inception_4a/3x3
I0403 15:11:50.217110 11702 net.cpp:425] inception_4a/output <- inception_4a/5x5
I0403 15:11:50.217126 11702 net.cpp:425] inception_4a/output <- inception_4a/pool_proj
I0403 15:11:50.217144 11702 net.cpp:399] inception_4a/output -> inception_4a/output
I0403 15:11:50.217188 11702 net.cpp:141] Setting up inception_4a/output
I0403 15:11:50.217211 11702 net.cpp:148] Top shape: 24 512 14 14 (2408448)
I0403 15:11:50.217226 11702 net.cpp:156] Memory required for data: 896545824
I0403 15:11:50.217239 11702 layer_factory.hpp:77] Creating layer inception_4a/output_inception_4a/output_0_split
I0403 15:11:50.217257 11702 net.cpp:91] Creating Layer inception_4a/output_inception_4a/output_0_split
I0403 15:11:50.217272 11702 net.cpp:425] inception_4a/output_inception_4a/output_0_split <- inception_4a/output
I0403 15:11:50.217291 11702 net.cpp:399] inception_4a/output_inception_4a/output_0_split -> inception_4a/output_inception_4a/output_0_split_0
I0403 15:11:50.217313 11702 net.cpp:399] inception_4a/output_inception_4a/output_0_split -> inception_4a/output_inception_4a/output_0_split_1
I0403 15:11:50.217334 11702 net.cpp:399] inception_4a/output_inception_4a/output_0_split -> inception_4a/output_inception_4a/output_0_split_2
I0403 15:11:50.217352 11702 net.cpp:399] inception_4a/output_inception_4a/output_0_split -> inception_4a/output_inception_4a/output_0_split_3
I0403 15:11:50.217372 11702 net.cpp:399] inception_4a/output_inception_4a/output_0_split -> inception_4a/output_inception_4a/output_0_split_4
I0403 15:11:50.217468 11702 net.cpp:141] Setting up inception_4a/output_inception_4a/output_0_split
I0403 15:11:50.217491 11702 net.cpp:148] Top shape: 24 512 14 14 (2408448)
I0403 15:11:50.217507 11702 net.cpp:148] Top shape: 24 512 14 14 (2408448)
I0403 15:11:50.217522 11702 net.cpp:148] Top shape: 24 512 14 14 (2408448)
I0403 15:11:50.217537 11702 net.cpp:148] Top shape: 24 512 14 14 (2408448)
I0403 15:11:50.217552 11702 net.cpp:148] Top shape: 24 512 14 14 (2408448)
I0403 15:11:50.217566 11702 net.cpp:156] Memory required for data: 944714784
I0403 15:11:50.217579 11702 layer_factory.hpp:77] Creating layer loss1/ave_pool
I0403 15:11:50.217597 11702 net.cpp:91] Creating Layer loss1/ave_pool
I0403 15:11:50.217613 11702 net.cpp:425] loss1/ave_pool <- inception_4a/output_inception_4a/output_0_split_0
I0403 15:11:50.217634 11702 net.cpp:399] loss1/ave_pool -> loss1/ave_pool
I0403 15:11:50.217836 11702 net.cpp:141] Setting up loss1/ave_pool
I0403 15:11:50.217862 11702 net.cpp:148] Top shape: 24 512 4 4 (196608)
I0403 15:11:50.217877 11702 net.cpp:156] Memory required for data: 945501216
I0403 15:11:50.217891 11702 layer_factory.hpp:77] Creating layer loss1/conv
I0403 15:11:50.217914 11702 net.cpp:91] Creating Layer loss1/conv
I0403 15:11:50.217931 11702 net.cpp:425] loss1/conv <- loss1/ave_pool
I0403 15:11:50.217952 11702 net.cpp:399] loss1/conv -> loss1/conv
I0403 15:11:50.219341 11702 net.cpp:141] Setting up loss1/conv
I0403 15:11:50.219383 11702 net.cpp:148] Top shape: 24 128 4 4 (49152)
I0403 15:11:50.219416 11702 net.cpp:156] Memory required for data: 945697824
I0403 15:11:50.219437 11702 layer_factory.hpp:77] Creating layer loss1/relu_conv
I0403 15:11:50.219456 11702 net.cpp:91] Creating Layer loss1/relu_conv
I0403 15:11:50.219473 11702 net.cpp:425] loss1/relu_conv <- loss1/conv
I0403 15:11:50.219491 11702 net.cpp:386] loss1/relu_conv -> loss1/conv (in-place)
I0403 15:11:50.219785 11702 net.cpp:141] Setting up loss1/relu_conv
I0403 15:11:50.219813 11702 net.cpp:148] Top shape: 24 128 4 4 (49152)
I0403 15:11:50.219830 11702 net.cpp:156] Memory required for data: 945894432
I0403 15:11:50.219843 11702 layer_factory.hpp:77] Creating layer loss1/fc
I0403 15:11:50.219866 11702 net.cpp:91] Creating Layer loss1/fc
I0403 15:11:50.219884 11702 net.cpp:425] loss1/fc <- loss1/conv
I0403 15:11:50.219904 11702 net.cpp:399] loss1/fc -> loss1/fc
I0403 15:11:50.238229 11702 net.cpp:141] Setting up loss1/fc
I0403 15:11:50.238265 11702 net.cpp:148] Top shape: 24 1024 (24576)
I0403 15:11:50.238281 11702 net.cpp:156] Memory required for data: 945992736
I0403 15:11:50.238298 11702 layer_factory.hpp:77] Creating layer loss1/relu_fc
I0403 15:11:50.238319 11702 net.cpp:91] Creating Layer loss1/relu_fc
I0403 15:11:50.238337 11702 net.cpp:425] loss1/relu_fc <- loss1/fc
I0403 15:11:50.238354 11702 net.cpp:386] loss1/relu_fc -> loss1/fc (in-place)
I0403 15:11:50.238550 11702 net.cpp:141] Setting up loss1/relu_fc
I0403 15:11:50.238579 11702 net.cpp:148] Top shape: 24 1024 (24576)
I0403 15:11:50.238593 11702 net.cpp:156] Memory required for data: 946091040
I0403 15:11:50.238610 11702 layer_factory.hpp:77] Creating layer loss1/drop_fc
I0403 15:11:50.238636 11702 net.cpp:91] Creating Layer loss1/drop_fc
I0403 15:11:50.238653 11702 net.cpp:425] loss1/drop_fc <- loss1/fc
I0403 15:11:50.238672 11702 net.cpp:386] loss1/drop_fc -> loss1/fc (in-place)
I0403 15:11:50.238724 11702 net.cpp:141] Setting up loss1/drop_fc
I0403 15:11:50.238749 11702 net.cpp:148] Top shape: 24 1024 (24576)
I0403 15:11:50.238762 11702 net.cpp:156] Memory required for data: 946189344
I0403 15:11:50.238777 11702 layer_factory.hpp:77] Creating layer loss1/classifier_plantvillage
I0403 15:11:50.238801 11702 net.cpp:91] Creating Layer loss1/classifier_plantvillage
I0403 15:11:50.238816 11702 net.cpp:425] loss1/classifier_plantvillage <- loss1/fc
I0403 15:11:50.238836 11702 net.cpp:399] loss1/classifier_plantvillage -> loss1/classifier_plantvillage
I0403 15:11:50.239789 11702 net.cpp:141] Setting up loss1/classifier_plantvillage
I0403 15:11:50.239820 11702 net.cpp:148] Top shape: 24 38 (912)
I0403 15:11:50.239836 11702 net.cpp:156] Memory required for data: 946192992
I0403 15:11:50.239855 11702 layer_factory.hpp:77] Creating layer loss1/classifier_plantvillage_loss1/classifier_plantvillage_0_split
I0403 15:11:50.239871 11702 net.cpp:91] Creating Layer loss1/classifier_plantvillage_loss1/classifier_plantvillage_0_split
I0403 15:11:50.239887 11702 net.cpp:425] loss1/classifier_plantvillage_loss1/classifier_plantvillage_0_split <- loss1/classifier_plantvillage
I0403 15:11:50.239904 11702 net.cpp:399] loss1/classifier_plantvillage_loss1/classifier_plantvillage_0_split -> loss1/classifier_plantvillage_loss1/classifier_plantvillage_0_split_0
I0403 15:11:50.239925 11702 net.cpp:399] loss1/classifier_plantvillage_loss1/classifier_plantvillage_0_split -> loss1/classifier_plantvillage_loss1/classifier_plantvillage_0_split_1
I0403 15:11:50.239945 11702 net.cpp:399] loss1/classifier_plantvillage_loss1/classifier_plantvillage_0_split -> loss1/classifier_plantvillage_loss1/classifier_plantvillage_0_split_2
I0403 15:11:50.240012 11702 net.cpp:141] Setting up loss1/classifier_plantvillage_loss1/classifier_plantvillage_0_split
I0403 15:11:50.240036 11702 net.cpp:148] Top shape: 24 38 (912)
I0403 15:11:50.240051 11702 net.cpp:148] Top shape: 24 38 (912)
I0403 15:11:50.240067 11702 net.cpp:148] Top shape: 24 38 (912)
I0403 15:11:50.240090 11702 net.cpp:156] Memory required for data: 946203936
I0403 15:11:50.240105 11702 layer_factory.hpp:77] Creating layer inception_4b/1x1
I0403 15:11:50.240125 11702 net.cpp:91] Creating Layer inception_4b/1x1
I0403 15:11:50.240159 11702 net.cpp:425] inception_4b/1x1 <- inception_4a/output_inception_4a/output_0_split_1
I0403 15:11:50.240182 11702 net.cpp:399] inception_4b/1x1 -> inception_4b/1x1
I0403 15:11:50.241902 11702 net.cpp:141] Setting up inception_4b/1x1
I0403 15:11:50.241932 11702 net.cpp:148] Top shape: 24 160 14 14 (752640)
I0403 15:11:50.241948 11702 net.cpp:156] Memory required for data: 949214496
I0403 15:11:50.241966 11702 layer_factory.hpp:77] Creating layer inception_4b/relu_1x1
I0403 15:11:50.241984 11702 net.cpp:91] Creating Layer inception_4b/relu_1x1
I0403 15:11:50.241999 11702 net.cpp:425] inception_4b/relu_1x1 <- inception_4b/1x1
I0403 15:11:50.242018 11702 net.cpp:386] inception_4b/relu_1x1 -> inception_4b/1x1 (in-place)
I0403 15:11:50.242198 11702 net.cpp:141] Setting up inception_4b/relu_1x1
I0403 15:11:50.242223 11702 net.cpp:148] Top shape: 24 160 14 14 (752640)
I0403 15:11:50.242238 11702 net.cpp:156] Memory required for data: 952225056
I0403 15:11:50.242252 11702 layer_factory.hpp:77] Creating layer inception_4b/3x3_reduce
I0403 15:11:50.242274 11702 net.cpp:91] Creating Layer inception_4b/3x3_reduce
I0403 15:11:50.242291 11702 net.cpp:425] inception_4b/3x3_reduce <- inception_4a/output_inception_4a/output_0_split_2
I0403 15:11:50.242312 11702 net.cpp:399] inception_4b/3x3_reduce -> inception_4b/3x3_reduce
I0403 15:11:50.243660 11702 net.cpp:141] Setting up inception_4b/3x3_reduce
I0403 15:11:50.243687 11702 net.cpp:148] Top shape: 24 112 14 14 (526848)
I0403 15:11:50.243702 11702 net.cpp:156] Memory required for data: 954332448
I0403 15:11:50.243721 11702 layer_factory.hpp:77] Creating layer inception_4b/relu_3x3_reduce
I0403 15:11:50.243737 11702 net.cpp:91] Creating Layer inception_4b/relu_3x3_reduce
I0403 15:11:50.243757 11702 net.cpp:425] inception_4b/relu_3x3_reduce <- inception_4b/3x3_reduce
I0403 15:11:50.243775 11702 net.cpp:386] inception_4b/relu_3x3_reduce -> inception_4b/3x3_reduce (in-place)
I0403 15:11:50.244055 11702 net.cpp:141] Setting up inception_4b/relu_3x3_reduce
I0403 15:11:50.244081 11702 net.cpp:148] Top shape: 24 112 14 14 (526848)
I0403 15:11:50.244096 11702 net.cpp:156] Memory required for data: 956439840
I0403 15:11:50.244109 11702 layer_factory.hpp:77] Creating layer inception_4b/3x3
I0403 15:11:50.244132 11702 net.cpp:91] Creating Layer inception_4b/3x3
I0403 15:11:50.244149 11702 net.cpp:425] inception_4b/3x3 <- inception_4b/3x3_reduce
I0403 15:11:50.244176 11702 net.cpp:399] inception_4b/3x3 -> inception_4b/3x3
I0403 15:11:50.247210 11702 net.cpp:141] Setting up inception_4b/3x3
I0403 15:11:50.247239 11702 net.cpp:148] Top shape: 24 224 14 14 (1053696)
I0403 15:11:50.247254 11702 net.cpp:156] Memory required for data: 960654624
I0403 15:11:50.247272 11702 layer_factory.hpp:77] Creating layer inception_4b/relu_3x3
I0403 15:11:50.247292 11702 net.cpp:91] Creating Layer inception_4b/relu_3x3
I0403 15:11:50.247308 11702 net.cpp:425] inception_4b/relu_3x3 <- inception_4b/3x3
I0403 15:11:50.247325 11702 net.cpp:386] inception_4b/relu_3x3 -> inception_4b/3x3 (in-place)
I0403 15:11:50.247510 11702 net.cpp:141] Setting up inception_4b/relu_3x3
I0403 15:11:50.247537 11702 net.cpp:148] Top shape: 24 224 14 14 (1053696)
I0403 15:11:50.247553 11702 net.cpp:156] Memory required for data: 964869408
I0403 15:11:50.247567 11702 layer_factory.hpp:77] Creating layer inception_4b/5x5_reduce
I0403 15:11:50.247589 11702 net.cpp:91] Creating Layer inception_4b/5x5_reduce
I0403 15:11:50.247608 11702 net.cpp:425] inception_4b/5x5_reduce <- inception_4a/output_inception_4a/output_0_split_3
I0403 15:11:50.247627 11702 net.cpp:399] inception_4b/5x5_reduce -> inception_4b/5x5_reduce
I0403 15:11:50.248706 11702 net.cpp:141] Setting up inception_4b/5x5_reduce
I0403 15:11:50.248736 11702 net.cpp:148] Top shape: 24 24 14 14 (112896)
I0403 15:11:50.248752 11702 net.cpp:156] Memory required for data: 965320992
I0403 15:11:50.248770 11702 layer_factory.hpp:77] Creating layer inception_4b/relu_5x5_reduce
I0403 15:11:50.248787 11702 net.cpp:91] Creating Layer inception_4b/relu_5x5_reduce
I0403 15:11:50.248818 11702 net.cpp:425] inception_4b/relu_5x5_reduce <- inception_4b/5x5_reduce
I0403 15:11:50.248839 11702 net.cpp:386] inception_4b/relu_5x5_reduce -> inception_4b/5x5_reduce (in-place)
I0403 15:11:50.249020 11702 net.cpp:141] Setting up inception_4b/relu_5x5_reduce
I0403 15:11:50.249044 11702 net.cpp:148] Top shape: 24 24 14 14 (112896)
I0403 15:11:50.249058 11702 net.cpp:156] Memory required for data: 965772576
I0403 15:11:50.249073 11702 layer_factory.hpp:77] Creating layer inception_4b/5x5
I0403 15:11:50.249095 11702 net.cpp:91] Creating Layer inception_4b/5x5
I0403 15:11:50.249112 11702 net.cpp:425] inception_4b/5x5 <- inception_4b/5x5_reduce
I0403 15:11:50.249133 11702 net.cpp:399] inception_4b/5x5 -> inception_4b/5x5
I0403 15:11:50.250350 11702 net.cpp:141] Setting up inception_4b/5x5
I0403 15:11:50.250396 11702 net.cpp:148] Top shape: 24 64 14 14 (301056)
I0403 15:11:50.250416 11702 net.cpp:156] Memory required for data: 966976800
I0403 15:11:50.250435 11702 layer_factory.hpp:77] Creating layer inception_4b/relu_5x5
I0403 15:11:50.250453 11702 net.cpp:91] Creating Layer inception_4b/relu_5x5
I0403 15:11:50.250469 11702 net.cpp:425] inception_4b/relu_5x5 <- inception_4b/5x5
I0403 15:11:50.250489 11702 net.cpp:386] inception_4b/relu_5x5 -> inception_4b/5x5 (in-place)
I0403 15:11:50.250788 11702 net.cpp:141] Setting up inception_4b/relu_5x5
I0403 15:11:50.250816 11702 net.cpp:148] Top shape: 24 64 14 14 (301056)
I0403 15:11:50.250833 11702 net.cpp:156] Memory required for data: 968181024
I0403 15:11:50.250847 11702 layer_factory.hpp:77] Creating layer inception_4b/pool
I0403 15:11:50.250865 11702 net.cpp:91] Creating Layer inception_4b/pool
I0403 15:11:50.250881 11702 net.cpp:425] inception_4b/pool <- inception_4a/output_inception_4a/output_0_split_4
I0403 15:11:50.250903 11702 net.cpp:399] inception_4b/pool -> inception_4b/pool
I0403 15:11:50.250967 11702 net.cpp:141] Setting up inception_4b/pool
I0403 15:11:50.250990 11702 net.cpp:148] Top shape: 24 512 14 14 (2408448)
I0403 15:11:50.251005 11702 net.cpp:156] Memory required for data: 977814816
I0403 15:11:50.251019 11702 layer_factory.hpp:77] Creating layer inception_4b/pool_proj
I0403 15:11:50.251041 11702 net.cpp:91] Creating Layer inception_4b/pool_proj
I0403 15:11:50.251060 11702 net.cpp:425] inception_4b/pool_proj <- inception_4b/pool
I0403 15:11:50.251078 11702 net.cpp:399] inception_4b/pool_proj -> inception_4b/pool_proj
I0403 15:11:50.252275 11702 net.cpp:141] Setting up inception_4b/pool_proj
I0403 15:11:50.252302 11702 net.cpp:148] Top shape: 24 64 14 14 (301056)
I0403 15:11:50.252317 11702 net.cpp:156] Memory required for data: 979019040
I0403 15:11:50.252334 11702 layer_factory.hpp:77] Creating layer inception_4b/relu_pool_proj
I0403 15:11:50.252352 11702 net.cpp:91] Creating Layer inception_4b/relu_pool_proj
I0403 15:11:50.252368 11702 net.cpp:425] inception_4b/relu_pool_proj <- inception_4b/pool_proj
I0403 15:11:50.252388 11702 net.cpp:386] inception_4b/relu_pool_proj -> inception_4b/pool_proj (in-place)
I0403 15:11:50.252573 11702 net.cpp:141] Setting up inception_4b/relu_pool_proj
I0403 15:11:50.252598 11702 net.cpp:148] Top shape: 24 64 14 14 (301056)
I0403 15:11:50.252612 11702 net.cpp:156] Memory required for data: 980223264
I0403 15:11:50.252626 11702 layer_factory.hpp:77] Creating layer inception_4b/output
I0403 15:11:50.252643 11702 net.cpp:91] Creating Layer inception_4b/output
I0403 15:11:50.252661 11702 net.cpp:425] inception_4b/output <- inception_4b/1x1
I0403 15:11:50.252678 11702 net.cpp:425] inception_4b/output <- inception_4b/3x3
I0403 15:11:50.252694 11702 net.cpp:425] inception_4b/output <- inception_4b/5x5
I0403 15:11:50.252710 11702 net.cpp:425] inception_4b/output <- inception_4b/pool_proj
I0403 15:11:50.252727 11702 net.cpp:399] inception_4b/output -> inception_4b/output
I0403 15:11:50.252771 11702 net.cpp:141] Setting up inception_4b/output
I0403 15:11:50.252796 11702 net.cpp:148] Top shape: 24 512 14 14 (2408448)
I0403 15:11:50.252811 11702 net.cpp:156] Memory required for data: 989857056
I0403 15:11:50.252840 11702 layer_factory.hpp:77] Creating layer inception_4b/output_inception_4b/output_0_split
I0403 15:11:50.252857 11702 net.cpp:91] Creating Layer inception_4b/output_inception_4b/output_0_split
I0403 15:11:50.252873 11702 net.cpp:425] inception_4b/output_inception_4b/output_0_split <- inception_4b/output
I0403 15:11:50.252892 11702 net.cpp:399] inception_4b/output_inception_4b/output_0_split -> inception_4b/output_inception_4b/output_0_split_0
I0403 15:11:50.252913 11702 net.cpp:399] inception_4b/output_inception_4b/output_0_split -> inception_4b/output_inception_4b/output_0_split_1
I0403 15:11:50.252933 11702 net.cpp:399] inception_4b/output_inception_4b/output_0_split -> inception_4b/output_inception_4b/output_0_split_2
I0403 15:11:50.252954 11702 net.cpp:399] inception_4b/output_inception_4b/output_0_split -> inception_4b/output_inception_4b/output_0_split_3
I0403 15:11:50.253032 11702 net.cpp:141] Setting up inception_4b/output_inception_4b/output_0_split
I0403 15:11:50.253058 11702 net.cpp:148] Top shape: 24 512 14 14 (2408448)
I0403 15:11:50.253075 11702 net.cpp:148] Top shape: 24 512 14 14 (2408448)
I0403 15:11:50.253092 11702 net.cpp:148] Top shape: 24 512 14 14 (2408448)
I0403 15:11:50.253105 11702 net.cpp:148] Top shape: 24 512 14 14 (2408448)
I0403 15:11:50.253118 11702 net.cpp:156] Memory required for data: 1028392224
I0403 15:11:50.253132 11702 layer_factory.hpp:77] Creating layer inception_4c/1x1
I0403 15:11:50.253156 11702 net.cpp:91] Creating Layer inception_4c/1x1
I0403 15:11:50.253173 11702 net.cpp:425] inception_4c/1x1 <- inception_4b/output_inception_4b/output_0_split_0
I0403 15:11:50.253192 11702 net.cpp:399] inception_4c/1x1 -> inception_4c/1x1
I0403 15:11:50.254638 11702 net.cpp:141] Setting up inception_4c/1x1
I0403 15:11:50.254667 11702 net.cpp:148] Top shape: 24 128 14 14 (602112)
I0403 15:11:50.254680 11702 net.cpp:156] Memory required for data: 1030800672
I0403 15:11:50.254698 11702 layer_factory.hpp:77] Creating layer inception_4c/relu_1x1
I0403 15:11:50.254719 11702 net.cpp:91] Creating Layer inception_4c/relu_1x1
I0403 15:11:50.254735 11702 net.cpp:425] inception_4c/relu_1x1 <- inception_4c/1x1
I0403 15:11:50.254752 11702 net.cpp:386] inception_4c/relu_1x1 -> inception_4c/1x1 (in-place)
I0403 15:11:50.254933 11702 net.cpp:141] Setting up inception_4c/relu_1x1
I0403 15:11:50.254958 11702 net.cpp:148] Top shape: 24 128 14 14 (602112)
I0403 15:11:50.254972 11702 net.cpp:156] Memory required for data: 1033209120
I0403 15:11:50.254987 11702 layer_factory.hpp:77] Creating layer inception_4c/3x3_reduce
I0403 15:11:50.255010 11702 net.cpp:91] Creating Layer inception_4c/3x3_reduce
I0403 15:11:50.255028 11702 net.cpp:425] inception_4c/3x3_reduce <- inception_4b/output_inception_4b/output_0_split_1
I0403 15:11:50.255048 11702 net.cpp:399] inception_4c/3x3_reduce -> inception_4c/3x3_reduce
I0403 15:11:50.257017 11702 net.cpp:141] Setting up inception_4c/3x3_reduce
I0403 15:11:50.257048 11702 net.cpp:148] Top shape: 24 128 14 14 (602112)
I0403 15:11:50.257064 11702 net.cpp:156] Memory required for data: 1035617568
I0403 15:11:50.257082 11702 layer_factory.hpp:77] Creating layer inception_4c/relu_3x3_reduce
I0403 15:11:50.257100 11702 net.cpp:91] Creating Layer inception_4c/relu_3x3_reduce
I0403 15:11:50.257117 11702 net.cpp:425] inception_4c/relu_3x3_reduce <- inception_4c/3x3_reduce
I0403 15:11:50.257136 11702 net.cpp:386] inception_4c/relu_3x3_reduce -> inception_4c/3x3_reduce (in-place)
I0403 15:11:50.257429 11702 net.cpp:141] Setting up inception_4c/relu_3x3_reduce
I0403 15:11:50.257458 11702 net.cpp:148] Top shape: 24 128 14 14 (602112)
I0403 15:11:50.257474 11702 net.cpp:156] Memory required for data: 1038026016
I0403 15:11:50.257489 11702 layer_factory.hpp:77] Creating layer inception_4c/3x3
I0403 15:11:50.257513 11702 net.cpp:91] Creating Layer inception_4c/3x3
I0403 15:11:50.257530 11702 net.cpp:425] inception_4c/3x3 <- inception_4c/3x3_reduce
I0403 15:11:50.257549 11702 net.cpp:399] inception_4c/3x3 -> inception_4c/3x3
I0403 15:11:50.261230 11702 net.cpp:141] Setting up inception_4c/3x3
I0403 15:11:50.261271 11702 net.cpp:148] Top shape: 24 256 14 14 (1204224)
I0403 15:11:50.261287 11702 net.cpp:156] Memory required for data: 1042842912
I0403 15:11:50.261319 11702 layer_factory.hpp:77] Creating layer inception_4c/relu_3x3
I0403 15:11:50.261339 11702 net.cpp:91] Creating Layer inception_4c/relu_3x3
I0403 15:11:50.261355 11702 net.cpp:425] inception_4c/relu_3x3 <- inception_4c/3x3
I0403 15:11:50.261375 11702 net.cpp:386] inception_4c/relu_3x3 -> inception_4c/3x3 (in-place)
I0403 15:11:50.261564 11702 net.cpp:141] Setting up inception_4c/relu_3x3
I0403 15:11:50.261592 11702 net.cpp:148] Top shape: 24 256 14 14 (1204224)
I0403 15:11:50.261610 11702 net.cpp:156] Memory required for data: 1047659808
I0403 15:11:50.261625 11702 layer_factory.hpp:77] Creating layer inception_4c/5x5_reduce
I0403 15:11:50.261646 11702 net.cpp:91] Creating Layer inception_4c/5x5_reduce
I0403 15:11:50.261664 11702 net.cpp:425] inception_4c/5x5_reduce <- inception_4b/output_inception_4b/output_0_split_2
I0403 15:11:50.261685 11702 net.cpp:399] inception_4c/5x5_reduce -> inception_4c/5x5_reduce
I0403 15:11:50.262780 11702 net.cpp:141] Setting up inception_4c/5x5_reduce
I0403 15:11:50.262810 11702 net.cpp:148] Top shape: 24 24 14 14 (112896)
I0403 15:11:50.262826 11702 net.cpp:156] Memory required for data: 1048111392
I0403 15:11:50.262845 11702 layer_factory.hpp:77] Creating layer inception_4c/relu_5x5_reduce
I0403 15:11:50.262862 11702 net.cpp:91] Creating Layer inception_4c/relu_5x5_reduce
I0403 15:11:50.262877 11702 net.cpp:425] inception_4c/relu_5x5_reduce <- inception_4c/5x5_reduce
I0403 15:11:50.262897 11702 net.cpp:386] inception_4c/relu_5x5_reduce -> inception_4c/5x5_reduce (in-place)
I0403 15:11:50.263084 11702 net.cpp:141] Setting up inception_4c/relu_5x5_reduce
I0403 15:11:50.263108 11702 net.cpp:148] Top shape: 24 24 14 14 (112896)
I0403 15:11:50.263123 11702 net.cpp:156] Memory required for data: 1048562976
I0403 15:11:50.263137 11702 layer_factory.hpp:77] Creating layer inception_4c/5x5
I0403 15:11:50.263159 11702 net.cpp:91] Creating Layer inception_4c/5x5
I0403 15:11:50.263176 11702 net.cpp:425] inception_4c/5x5 <- inception_4c/5x5_reduce
I0403 15:11:50.263197 11702 net.cpp:399] inception_4c/5x5 -> inception_4c/5x5
I0403 15:11:50.264466 11702 net.cpp:141] Setting up inception_4c/5x5
I0403 15:11:50.264492 11702 net.cpp:148] Top shape: 24 64 14 14 (301056)
I0403 15:11:50.264508 11702 net.cpp:156] Memory required for data: 1049767200
I0403 15:11:50.264525 11702 layer_factory.hpp:77] Creating layer inception_4c/relu_5x5
I0403 15:11:50.264546 11702 net.cpp:91] Creating Layer inception_4c/relu_5x5
I0403 15:11:50.264564 11702 net.cpp:425] inception_4c/relu_5x5 <- inception_4c/5x5
I0403 15:11:50.264580 11702 net.cpp:386] inception_4c/relu_5x5 -> inception_4c/5x5 (in-place)
I0403 15:11:50.264869 11702 net.cpp:141] Setting up inception_4c/relu_5x5
I0403 15:11:50.264895 11702 net.cpp:148] Top shape: 24 64 14 14 (301056)
I0403 15:11:50.264909 11702 net.cpp:156] Memory required for data: 1050971424
I0403 15:11:50.264924 11702 layer_factory.hpp:77] Creating layer inception_4c/pool
I0403 15:11:50.264943 11702 net.cpp:91] Creating Layer inception_4c/pool
I0403 15:11:50.264960 11702 net.cpp:425] inception_4c/pool <- inception_4b/output_inception_4b/output_0_split_3
I0403 15:11:50.264977 11702 net.cpp:399] inception_4c/pool -> inception_4c/pool
I0403 15:11:50.265043 11702 net.cpp:141] Setting up inception_4c/pool
I0403 15:11:50.265066 11702 net.cpp:148] Top shape: 24 512 14 14 (2408448)
I0403 15:11:50.265080 11702 net.cpp:156] Memory required for data: 1060605216
I0403 15:11:50.265094 11702 layer_factory.hpp:77] Creating layer inception_4c/pool_proj
I0403 15:11:50.265120 11702 net.cpp:91] Creating Layer inception_4c/pool_proj
I0403 15:11:50.265136 11702 net.cpp:425] inception_4c/pool_proj <- inception_4c/pool
I0403 15:11:50.265157 11702 net.cpp:399] inception_4c/pool_proj -> inception_4c/pool_proj
I0403 15:11:50.266408 11702 net.cpp:141] Setting up inception_4c/pool_proj
I0403 15:11:50.266439 11702 net.cpp:148] Top shape: 24 64 14 14 (301056)
I0403 15:11:50.266469 11702 net.cpp:156] Memory required for data: 1061809440
I0403 15:11:50.266487 11702 layer_factory.hpp:77] Creating layer inception_4c/relu_pool_proj
I0403 15:11:50.266506 11702 net.cpp:91] Creating Layer inception_4c/relu_pool_proj
I0403 15:11:50.266522 11702 net.cpp:425] inception_4c/relu_pool_proj <- inception_4c/pool_proj
I0403 15:11:50.266541 11702 net.cpp:386] inception_4c/relu_pool_proj -> inception_4c/pool_proj (in-place)
I0403 15:11:50.266729 11702 net.cpp:141] Setting up inception_4c/relu_pool_proj
I0403 15:11:50.266754 11702 net.cpp:148] Top shape: 24 64 14 14 (301056)
I0403 15:11:50.266768 11702 net.cpp:156] Memory required for data: 1063013664
I0403 15:11:50.266783 11702 layer_factory.hpp:77] Creating layer inception_4c/output
I0403 15:11:50.266800 11702 net.cpp:91] Creating Layer inception_4c/output
I0403 15:11:50.266815 11702 net.cpp:425] inception_4c/output <- inception_4c/1x1
I0403 15:11:50.266831 11702 net.cpp:425] inception_4c/output <- inception_4c/3x3
I0403 15:11:50.266851 11702 net.cpp:425] inception_4c/output <- inception_4c/5x5
I0403 15:11:50.266866 11702 net.cpp:425] inception_4c/output <- inception_4c/pool_proj
I0403 15:11:50.266883 11702 net.cpp:399] inception_4c/output -> inception_4c/output
I0403 15:11:50.266928 11702 net.cpp:141] Setting up inception_4c/output
I0403 15:11:50.266953 11702 net.cpp:148] Top shape: 24 512 14 14 (2408448)
I0403 15:11:50.266969 11702 net.cpp:156] Memory required for data: 1072647456
I0403 15:11:50.266983 11702 layer_factory.hpp:77] Creating layer inception_4c/output_inception_4c/output_0_split
I0403 15:11:50.267000 11702 net.cpp:91] Creating Layer inception_4c/output_inception_4c/output_0_split
I0403 15:11:50.267015 11702 net.cpp:425] inception_4c/output_inception_4c/output_0_split <- inception_4c/output
I0403 15:11:50.267035 11702 net.cpp:399] inception_4c/output_inception_4c/output_0_split -> inception_4c/output_inception_4c/output_0_split_0
I0403 15:11:50.267056 11702 net.cpp:399] inception_4c/output_inception_4c/output_0_split -> inception_4c/output_inception_4c/output_0_split_1
I0403 15:11:50.267076 11702 net.cpp:399] inception_4c/output_inception_4c/output_0_split -> inception_4c/output_inception_4c/output_0_split_2
I0403 15:11:50.267096 11702 net.cpp:399] inception_4c/output_inception_4c/output_0_split -> inception_4c/output_inception_4c/output_0_split_3
I0403 15:11:50.267179 11702 net.cpp:141] Setting up inception_4c/output_inception_4c/output_0_split
I0403 15:11:50.267204 11702 net.cpp:148] Top shape: 24 512 14 14 (2408448)
I0403 15:11:50.267221 11702 net.cpp:148] Top shape: 24 512 14 14 (2408448)
I0403 15:11:50.267236 11702 net.cpp:148] Top shape: 24 512 14 14 (2408448)
I0403 15:11:50.267251 11702 net.cpp:148] Top shape: 24 512 14 14 (2408448)
I0403 15:11:50.267264 11702 net.cpp:156] Memory required for data: 1111182624
I0403 15:11:50.267278 11702 layer_factory.hpp:77] Creating layer inception_4d/1x1
I0403 15:11:50.267300 11702 net.cpp:91] Creating Layer inception_4d/1x1
I0403 15:11:50.267318 11702 net.cpp:425] inception_4d/1x1 <- inception_4c/output_inception_4c/output_0_split_0
I0403 15:11:50.267338 11702 net.cpp:399] inception_4d/1x1 -> inception_4d/1x1
I0403 15:11:50.268759 11702 net.cpp:141] Setting up inception_4d/1x1
I0403 15:11:50.268786 11702 net.cpp:148] Top shape: 24 112 14 14 (526848)
I0403 15:11:50.268805 11702 net.cpp:156] Memory required for data: 1113290016
I0403 15:11:50.268822 11702 layer_factory.hpp:77] Creating layer inception_4d/relu_1x1
I0403 15:11:50.268839 11702 net.cpp:91] Creating Layer inception_4d/relu_1x1
I0403 15:11:50.268856 11702 net.cpp:425] inception_4d/relu_1x1 <- inception_4d/1x1
I0403 15:11:50.268872 11702 net.cpp:386] inception_4d/relu_1x1 -> inception_4d/1x1 (in-place)
I0403 15:11:50.269057 11702 net.cpp:141] Setting up inception_4d/relu_1x1
I0403 15:11:50.269084 11702 net.cpp:148] Top shape: 24 112 14 14 (526848)
I0403 15:11:50.269098 11702 net.cpp:156] Memory required for data: 1115397408
I0403 15:11:50.269112 11702 layer_factory.hpp:77] Creating layer inception_4d/3x3_reduce
I0403 15:11:50.269151 11702 net.cpp:91] Creating Layer inception_4d/3x3_reduce
I0403 15:11:50.269171 11702 net.cpp:425] inception_4d/3x3_reduce <- inception_4c/output_inception_4c/output_0_split_1
I0403 15:11:50.269191 11702 net.cpp:399] inception_4d/3x3_reduce -> inception_4d/3x3_reduce
I0403 15:11:50.270763 11702 net.cpp:141] Setting up inception_4d/3x3_reduce
I0403 15:11:50.270792 11702 net.cpp:148] Top shape: 24 144 14 14 (677376)
I0403 15:11:50.270807 11702 net.cpp:156] Memory required for data: 1118106912
I0403 15:11:50.270825 11702 layer_factory.hpp:77] Creating layer inception_4d/relu_3x3_reduce
I0403 15:11:50.270846 11702 net.cpp:91] Creating Layer inception_4d/relu_3x3_reduce
I0403 15:11:50.270864 11702 net.cpp:425] inception_4d/relu_3x3_reduce <- inception_4d/3x3_reduce
I0403 15:11:50.270881 11702 net.cpp:386] inception_4d/relu_3x3_reduce -> inception_4d/3x3_reduce (in-place)
I0403 15:11:50.271180 11702 net.cpp:141] Setting up inception_4d/relu_3x3_reduce
I0403 15:11:50.271208 11702 net.cpp:148] Top shape: 24 144 14 14 (677376)
I0403 15:11:50.271222 11702 net.cpp:156] Memory required for data: 1120816416
I0403 15:11:50.271237 11702 layer_factory.hpp:77] Creating layer inception_4d/3x3
I0403 15:11:50.271260 11702 net.cpp:91] Creating Layer inception_4d/3x3
I0403 15:11:50.271278 11702 net.cpp:425] inception_4d/3x3 <- inception_4d/3x3_reduce
I0403 15:11:50.271301 11702 net.cpp:399] inception_4d/3x3 -> inception_4d/3x3
I0403 15:11:50.275732 11702 net.cpp:141] Setting up inception_4d/3x3
I0403 15:11:50.275763 11702 net.cpp:148] Top shape: 24 288 14 14 (1354752)
I0403 15:11:50.275777 11702 net.cpp:156] Memory required for data: 1126235424
I0403 15:11:50.275795 11702 layer_factory.hpp:77] Creating layer inception_4d/relu_3x3
I0403 15:11:50.275816 11702 net.cpp:91] Creating Layer inception_4d/relu_3x3
I0403 15:11:50.275833 11702 net.cpp:425] inception_4d/relu_3x3 <- inception_4d/3x3
I0403 15:11:50.275852 11702 net.cpp:386] inception_4d/relu_3x3 -> inception_4d/3x3 (in-place)
I0403 15:11:50.276044 11702 net.cpp:141] Setting up inception_4d/relu_3x3
I0403 15:11:50.276069 11702 net.cpp:148] Top shape: 24 288 14 14 (1354752)
I0403 15:11:50.276084 11702 net.cpp:156] Memory required for data: 1131654432
I0403 15:11:50.276098 11702 layer_factory.hpp:77] Creating layer inception_4d/5x5_reduce
I0403 15:11:50.276121 11702 net.cpp:91] Creating Layer inception_4d/5x5_reduce
I0403 15:11:50.276139 11702 net.cpp:425] inception_4d/5x5_reduce <- inception_4c/output_inception_4c/output_0_split_2
I0403 15:11:50.276161 11702 net.cpp:399] inception_4d/5x5_reduce -> inception_4d/5x5_reduce
I0403 15:11:50.277349 11702 net.cpp:141] Setting up inception_4d/5x5_reduce
I0403 15:11:50.277379 11702 net.cpp:148] Top shape: 24 32 14 14 (150528)
I0403 15:11:50.277396 11702 net.cpp:156] Memory required for data: 1132256544
I0403 15:11:50.277418 11702 layer_factory.hpp:77] Creating layer inception_4d/relu_5x5_reduce
I0403 15:11:50.277438 11702 net.cpp:91] Creating Layer inception_4d/relu_5x5_reduce
I0403 15:11:50.277454 11702 net.cpp:425] inception_4d/relu_5x5_reduce <- inception_4d/5x5_reduce
I0403 15:11:50.277472 11702 net.cpp:386] inception_4d/relu_5x5_reduce -> inception_4d/5x5_reduce (in-place)
I0403 15:11:50.277668 11702 net.cpp:141] Setting up inception_4d/relu_5x5_reduce
I0403 15:11:50.277695 11702 net.cpp:148] Top shape: 24 32 14 14 (150528)
I0403 15:11:50.277711 11702 net.cpp:156] Memory required for data: 1132858656
I0403 15:11:50.277726 11702 layer_factory.hpp:77] Creating layer inception_4d/5x5
I0403 15:11:50.277750 11702 net.cpp:91] Creating Layer inception_4d/5x5
I0403 15:11:50.277767 11702 net.cpp:425] inception_4d/5x5 <- inception_4d/5x5_reduce
I0403 15:11:50.277788 11702 net.cpp:399] inception_4d/5x5 -> inception_4d/5x5
I0403 15:11:50.279315 11702 net.cpp:141] Setting up inception_4d/5x5
I0403 15:11:50.279343 11702 net.cpp:148] Top shape: 24 64 14 14 (301056)
I0403 15:11:50.279359 11702 net.cpp:156] Memory required for data: 1134062880
I0403 15:11:50.279377 11702 layer_factory.hpp:77] Creating layer inception_4d/relu_5x5
I0403 15:11:50.279415 11702 net.cpp:91] Creating Layer inception_4d/relu_5x5
I0403 15:11:50.279436 11702 net.cpp:425] inception_4d/relu_5x5 <- inception_4d/5x5
I0403 15:11:50.279455 11702 net.cpp:386] inception_4d/relu_5x5 -> inception_4d/5x5 (in-place)
I0403 15:11:50.279765 11702 net.cpp:141] Setting up inception_4d/relu_5x5
I0403 15:11:50.279793 11702 net.cpp:148] Top shape: 24 64 14 14 (301056)
I0403 15:11:50.279808 11702 net.cpp:156] Memory required for data: 1135267104
I0403 15:11:50.279822 11702 layer_factory.hpp:77] Creating layer inception_4d/pool
I0403 15:11:50.279840 11702 net.cpp:91] Creating Layer inception_4d/pool
I0403 15:11:50.279856 11702 net.cpp:425] inception_4d/pool <- inception_4c/output_inception_4c/output_0_split_3
I0403 15:11:50.279877 11702 net.cpp:399] inception_4d/pool -> inception_4d/pool
I0403 15:11:50.279945 11702 net.cpp:141] Setting up inception_4d/pool
I0403 15:11:50.279971 11702 net.cpp:148] Top shape: 24 512 14 14 (2408448)
I0403 15:11:50.279986 11702 net.cpp:156] Memory required for data: 1144900896
I0403 15:11:50.280001 11702 layer_factory.hpp:77] Creating layer inception_4d/pool_proj
I0403 15:11:50.280024 11702 net.cpp:91] Creating Layer inception_4d/pool_proj
I0403 15:11:50.280041 11702 net.cpp:425] inception_4d/pool_proj <- inception_4d/pool
I0403 15:11:50.280061 11702 net.cpp:399] inception_4d/pool_proj -> inception_4d/pool_proj
I0403 15:11:50.281899 11702 net.cpp:141] Setting up inception_4d/pool_proj
I0403 15:11:50.281929 11702 net.cpp:148] Top shape: 24 64 14 14 (301056)
I0403 15:11:50.281944 11702 net.cpp:156] Memory required for data: 1146105120
I0403 15:11:50.281962 11702 layer_factory.hpp:77] Creating layer inception_4d/relu_pool_proj
I0403 15:11:50.281983 11702 net.cpp:91] Creating Layer inception_4d/relu_pool_proj
I0403 15:11:50.282001 11702 net.cpp:425] inception_4d/relu_pool_proj <- inception_4d/pool_proj
I0403 15:11:50.282018 11702 net.cpp:386] inception_4d/relu_pool_proj -> inception_4d/pool_proj (in-place)
I0403 15:11:50.282212 11702 net.cpp:141] Setting up inception_4d/relu_pool_proj
I0403 15:11:50.282237 11702 net.cpp:148] Top shape: 24 64 14 14 (301056)
I0403 15:11:50.282250 11702 net.cpp:156] Memory required for data: 1147309344
I0403 15:11:50.282264 11702 layer_factory.hpp:77] Creating layer inception_4d/output
I0403 15:11:50.282281 11702 net.cpp:91] Creating Layer inception_4d/output
I0403 15:11:50.282297 11702 net.cpp:425] inception_4d/output <- inception_4d/1x1
I0403 15:11:50.282315 11702 net.cpp:425] inception_4d/output <- inception_4d/3x3
I0403 15:11:50.282331 11702 net.cpp:425] inception_4d/output <- inception_4d/5x5
I0403 15:11:50.282347 11702 net.cpp:425] inception_4d/output <- inception_4d/pool_proj
I0403 15:11:50.282366 11702 net.cpp:399] inception_4d/output -> inception_4d/output
I0403 15:11:50.282420 11702 net.cpp:141] Setting up inception_4d/output
I0403 15:11:50.282447 11702 net.cpp:148] Top shape: 24 528 14 14 (2483712)
I0403 15:11:50.282462 11702 net.cpp:156] Memory required for data: 1157244192
I0403 15:11:50.282479 11702 layer_factory.hpp:77] Creating layer inception_4d/output_inception_4d/output_0_split
I0403 15:11:50.282496 11702 net.cpp:91] Creating Layer inception_4d/output_inception_4d/output_0_split
I0403 15:11:50.282512 11702 net.cpp:425] inception_4d/output_inception_4d/output_0_split <- inception_4d/output
I0403 15:11:50.282529 11702 net.cpp:399] inception_4d/output_inception_4d/output_0_split -> inception_4d/output_inception_4d/output_0_split_0
I0403 15:11:50.282553 11702 net.cpp:399] inception_4d/output_inception_4d/output_0_split -> inception_4d/output_inception_4d/output_0_split_1
I0403 15:11:50.282575 11702 net.cpp:399] inception_4d/output_inception_4d/output_0_split -> inception_4d/output_inception_4d/output_0_split_2
I0403 15:11:50.282596 11702 net.cpp:399] inception_4d/output_inception_4d/output_0_split -> inception_4d/output_inception_4d/output_0_split_3
I0403 15:11:50.282618 11702 net.cpp:399] inception_4d/output_inception_4d/output_0_split -> inception_4d/output_inception_4d/output_0_split_4
I0403 15:11:50.282722 11702 net.cpp:141] Setting up inception_4d/output_inception_4d/output_0_split
I0403 15:11:50.282758 11702 net.cpp:148] Top shape: 24 528 14 14 (2483712)
I0403 15:11:50.282775 11702 net.cpp:148] Top shape: 24 528 14 14 (2483712)
I0403 15:11:50.282791 11702 net.cpp:148] Top shape: 24 528 14 14 (2483712)
I0403 15:11:50.282806 11702 net.cpp:148] Top shape: 24 528 14 14 (2483712)
I0403 15:11:50.282821 11702 net.cpp:148] Top shape: 24 528 14 14 (2483712)
I0403 15:11:50.282836 11702 net.cpp:156] Memory required for data: 1206918432
I0403 15:11:50.282850 11702 layer_factory.hpp:77] Creating layer loss2/ave_pool
I0403 15:11:50.282871 11702 net.cpp:91] Creating Layer loss2/ave_pool
I0403 15:11:50.282887 11702 net.cpp:425] loss2/ave_pool <- inception_4d/output_inception_4d/output_0_split_0
I0403 15:11:50.282907 11702 net.cpp:399] loss2/ave_pool -> loss2/ave_pool
I0403 15:11:50.283228 11702 net.cpp:141] Setting up loss2/ave_pool
I0403 15:11:50.283258 11702 net.cpp:148] Top shape: 24 528 4 4 (202752)
I0403 15:11:50.283274 11702 net.cpp:156] Memory required for data: 1207729440
I0403 15:11:50.283288 11702 layer_factory.hpp:77] Creating layer loss2/conv
I0403 15:11:50.283311 11702 net.cpp:91] Creating Layer loss2/conv
I0403 15:11:50.283329 11702 net.cpp:425] loss2/conv <- loss2/ave_pool
I0403 15:11:50.283349 11702 net.cpp:399] loss2/conv -> loss2/conv
I0403 15:11:50.285336 11702 net.cpp:141] Setting up loss2/conv
I0403 15:11:50.285364 11702 net.cpp:148] Top shape: 24 128 4 4 (49152)
I0403 15:11:50.285380 11702 net.cpp:156] Memory required for data: 1207926048
I0403 15:11:50.285398 11702 layer_factory.hpp:77] Creating layer loss2/relu_conv
I0403 15:11:50.285421 11702 net.cpp:91] Creating Layer loss2/relu_conv
I0403 15:11:50.285439 11702 net.cpp:425] loss2/relu_conv <- loss2/conv
I0403 15:11:50.285459 11702 net.cpp:386] loss2/relu_conv -> loss2/conv (in-place)
I0403 15:11:50.285753 11702 net.cpp:141] Setting up loss2/relu_conv
I0403 15:11:50.285779 11702 net.cpp:148] Top shape: 24 128 4 4 (49152)
I0403 15:11:50.285794 11702 net.cpp:156] Memory required for data: 1208122656
I0403 15:11:50.285809 11702 layer_factory.hpp:77] Creating layer loss2/fc
I0403 15:11:50.285828 11702 net.cpp:91] Creating Layer loss2/fc
I0403 15:11:50.285845 11702 net.cpp:425] loss2/fc <- loss2/conv
I0403 15:11:50.285866 11702 net.cpp:399] loss2/fc -> loss2/fc
I0403 15:11:50.303542 11702 net.cpp:141] Setting up loss2/fc
I0403 15:11:50.303577 11702 net.cpp:148] Top shape: 24 1024 (24576)
I0403 15:11:50.303591 11702 net.cpp:156] Memory required for data: 1208220960
I0403 15:11:50.303611 11702 layer_factory.hpp:77] Creating layer loss2/relu_fc
I0403 15:11:50.303628 11702 net.cpp:91] Creating Layer loss2/relu_fc
I0403 15:11:50.303643 11702 net.cpp:425] loss2/relu_fc <- loss2/fc
I0403 15:11:50.303659 11702 net.cpp:386] loss2/relu_fc -> loss2/fc (in-place)
I0403 15:11:50.303958 11702 net.cpp:141] Setting up loss2/relu_fc
I0403 15:11:50.303987 11702 net.cpp:148] Top shape: 24 1024 (24576)
I0403 15:11:50.304002 11702 net.cpp:156] Memory required for data: 1208319264
I0403 15:11:50.304015 11702 layer_factory.hpp:77] Creating layer loss2/drop_fc
I0403 15:11:50.304033 11702 net.cpp:91] Creating Layer loss2/drop_fc
I0403 15:11:50.304049 11702 net.cpp:425] loss2/drop_fc <- loss2/fc
I0403 15:11:50.304065 11702 net.cpp:386] loss2/drop_fc -> loss2/fc (in-place)
I0403 15:11:50.304116 11702 net.cpp:141] Setting up loss2/drop_fc
I0403 15:11:50.304137 11702 net.cpp:148] Top shape: 24 1024 (24576)
I0403 15:11:50.304150 11702 net.cpp:156] Memory required for data: 1208417568
I0403 15:11:50.304165 11702 layer_factory.hpp:77] Creating layer loss2/classifier_plantvillage
I0403 15:11:50.304184 11702 net.cpp:91] Creating Layer loss2/classifier_plantvillage
I0403 15:11:50.304200 11702 net.cpp:425] loss2/classifier_plantvillage <- loss2/fc
I0403 15:11:50.304219 11702 net.cpp:399] loss2/classifier_plantvillage -> loss2/classifier_plantvillage
I0403 15:11:50.304615 11702 net.cpp:141] Setting up loss2/classifier_plantvillage
I0403 15:11:50.304639 11702 net.cpp:148] Top shape: 24 38 (912)
I0403 15:11:50.304669 11702 net.cpp:156] Memory required for data: 1208421216
I0403 15:11:50.304687 11702 layer_factory.hpp:77] Creating layer loss2/classifier_plantvillage_loss2/classifier_plantvillage_0_split
I0403 15:11:50.304704 11702 net.cpp:91] Creating Layer loss2/classifier_plantvillage_loss2/classifier_plantvillage_0_split
I0403 15:11:50.304719 11702 net.cpp:425] loss2/classifier_plantvillage_loss2/classifier_plantvillage_0_split <- loss2/classifier_plantvillage
I0403 15:11:50.304739 11702 net.cpp:399] loss2/classifier_plantvillage_loss2/classifier_plantvillage_0_split -> loss2/classifier_plantvillage_loss2/classifier_plantvillage_0_split_0
I0403 15:11:50.304760 11702 net.cpp:399] loss2/classifier_plantvillage_loss2/classifier_plantvillage_0_split -> loss2/classifier_plantvillage_loss2/classifier_plantvillage_0_split_1
I0403 15:11:50.304781 11702 net.cpp:399] loss2/classifier_plantvillage_loss2/classifier_plantvillage_0_split -> loss2/classifier_plantvillage_loss2/classifier_plantvillage_0_split_2
I0403 15:11:50.304857 11702 net.cpp:141] Setting up loss2/classifier_plantvillage_loss2/classifier_plantvillage_0_split
I0403 15:11:50.304878 11702 net.cpp:148] Top shape: 24 38 (912)
I0403 15:11:50.304893 11702 net.cpp:148] Top shape: 24 38 (912)
I0403 15:11:50.304908 11702 net.cpp:148] Top shape: 24 38 (912)
I0403 15:11:50.304920 11702 net.cpp:156] Memory required for data: 1208432160
I0403 15:11:50.304934 11702 layer_factory.hpp:77] Creating layer inception_4e/1x1
I0403 15:11:50.304955 11702 net.cpp:91] Creating Layer inception_4e/1x1
I0403 15:11:50.304972 11702 net.cpp:425] inception_4e/1x1 <- inception_4d/output_inception_4d/output_0_split_1
I0403 15:11:50.304991 11702 net.cpp:399] inception_4e/1x1 -> inception_4e/1x1
I0403 15:11:50.306761 11702 net.cpp:141] Setting up inception_4e/1x1
I0403 15:11:50.306788 11702 net.cpp:148] Top shape: 24 256 14 14 (1204224)
I0403 15:11:50.306803 11702 net.cpp:156] Memory required for data: 1213249056
I0403 15:11:50.306820 11702 layer_factory.hpp:77] Creating layer inception_4e/relu_1x1
I0403 15:11:50.306840 11702 net.cpp:91] Creating Layer inception_4e/relu_1x1
I0403 15:11:50.306856 11702 net.cpp:425] inception_4e/relu_1x1 <- inception_4e/1x1
I0403 15:11:50.306874 11702 net.cpp:386] inception_4e/relu_1x1 -> inception_4e/1x1 (in-place)
I0403 15:11:50.307165 11702 net.cpp:141] Setting up inception_4e/relu_1x1
I0403 15:11:50.307191 11702 net.cpp:148] Top shape: 24 256 14 14 (1204224)
I0403 15:11:50.307205 11702 net.cpp:156] Memory required for data: 1218065952
I0403 15:11:50.307219 11702 layer_factory.hpp:77] Creating layer inception_4e/3x3_reduce
I0403 15:11:50.307240 11702 net.cpp:91] Creating Layer inception_4e/3x3_reduce
I0403 15:11:50.307258 11702 net.cpp:425] inception_4e/3x3_reduce <- inception_4d/output_inception_4d/output_0_split_2
I0403 15:11:50.307278 11702 net.cpp:399] inception_4e/3x3_reduce -> inception_4e/3x3_reduce
I0403 15:11:50.309520 11702 net.cpp:141] Setting up inception_4e/3x3_reduce
I0403 15:11:50.309547 11702 net.cpp:148] Top shape: 24 160 14 14 (752640)
I0403 15:11:50.309561 11702 net.cpp:156] Memory required for data: 1221076512
I0403 15:11:50.309581 11702 layer_factory.hpp:77] Creating layer inception_4e/relu_3x3_reduce
I0403 15:11:50.309599 11702 net.cpp:91] Creating Layer inception_4e/relu_3x3_reduce
I0403 15:11:50.309614 11702 net.cpp:425] inception_4e/relu_3x3_reduce <- inception_4e/3x3_reduce
I0403 15:11:50.309633 11702 net.cpp:386] inception_4e/relu_3x3_reduce -> inception_4e/3x3_reduce (in-place)
I0403 15:11:50.309814 11702 net.cpp:141] Setting up inception_4e/relu_3x3_reduce
I0403 15:11:50.309839 11702 net.cpp:148] Top shape: 24 160 14 14 (752640)
I0403 15:11:50.309851 11702 net.cpp:156] Memory required for data: 1224087072
I0403 15:11:50.309865 11702 layer_factory.hpp:77] Creating layer inception_4e/3x3
I0403 15:11:50.309886 11702 net.cpp:91] Creating Layer inception_4e/3x3
I0403 15:11:50.309903 11702 net.cpp:425] inception_4e/3x3 <- inception_4e/3x3_reduce
I0403 15:11:50.309924 11702 net.cpp:399] inception_4e/3x3 -> inception_4e/3x3
I0403 15:11:50.314878 11702 net.cpp:141] Setting up inception_4e/3x3
I0403 15:11:50.314918 11702 net.cpp:148] Top shape: 24 320 14 14 (1505280)
I0403 15:11:50.314932 11702 net.cpp:156] Memory required for data: 1230108192
I0403 15:11:50.314950 11702 layer_factory.hpp:77] Creating layer inception_4e/relu_3x3
I0403 15:11:50.314970 11702 net.cpp:91] Creating Layer inception_4e/relu_3x3
I0403 15:11:50.314985 11702 net.cpp:425] inception_4e/relu_3x3 <- inception_4e/3x3
I0403 15:11:50.315003 11702 net.cpp:386] inception_4e/relu_3x3 -> inception_4e/3x3 (in-place)
I0403 15:11:50.315296 11702 net.cpp:141] Setting up inception_4e/relu_3x3
I0403 15:11:50.315323 11702 net.cpp:148] Top shape: 24 320 14 14 (1505280)
I0403 15:11:50.315338 11702 net.cpp:156] Memory required for data: 1236129312
I0403 15:11:50.315353 11702 layer_factory.hpp:77] Creating layer inception_4e/5x5_reduce
I0403 15:11:50.315372 11702 net.cpp:91] Creating Layer inception_4e/5x5_reduce
I0403 15:11:50.315389 11702 net.cpp:425] inception_4e/5x5_reduce <- inception_4d/output_inception_4d/output_0_split_3
I0403 15:11:50.315428 11702 net.cpp:399] inception_4e/5x5_reduce -> inception_4e/5x5_reduce
I0403 15:11:50.318168 11702 net.cpp:141] Setting up inception_4e/5x5_reduce
I0403 15:11:50.318197 11702 net.cpp:148] Top shape: 24 32 14 14 (150528)
I0403 15:11:50.318212 11702 net.cpp:156] Memory required for data: 1236731424
I0403 15:11:50.318229 11702 layer_factory.hpp:77] Creating layer inception_4e/relu_5x5_reduce
I0403 15:11:50.318248 11702 net.cpp:91] Creating Layer inception_4e/relu_5x5_reduce
I0403 15:11:50.318266 11702 net.cpp:425] inception_4e/relu_5x5_reduce <- inception_4e/5x5_reduce
I0403 15:11:50.318284 11702 net.cpp:386] inception_4e/relu_5x5_reduce -> inception_4e/5x5_reduce (in-place)
I0403 15:11:50.318620 11702 net.cpp:141] Setting up inception_4e/relu_5x5_reduce
I0403 15:11:50.318660 11702 net.cpp:148] Top shape: 24 32 14 14 (150528)
I0403 15:11:50.318673 11702 net.cpp:156] Memory required for data: 1237333536
I0403 15:11:50.318687 11702 layer_factory.hpp:77] Creating layer inception_4e/5x5
I0403 15:11:50.318740 11702 net.cpp:91] Creating Layer inception_4e/5x5
I0403 15:11:50.318759 11702 net.cpp:425] inception_4e/5x5 <- inception_4e/5x5_reduce
I0403 15:11:50.318778 11702 net.cpp:399] inception_4e/5x5 -> inception_4e/5x5
I0403 15:11:50.320564 11702 net.cpp:141] Setting up inception_4e/5x5
I0403 15:11:50.320592 11702 net.cpp:148] Top shape: 24 128 14 14 (602112)
I0403 15:11:50.320608 11702 net.cpp:156] Memory required for data: 1239741984
I0403 15:11:50.320626 11702 layer_factory.hpp:77] Creating layer inception_4e/relu_5x5
I0403 15:11:50.320642 11702 net.cpp:91] Creating Layer inception_4e/relu_5x5
I0403 15:11:50.320657 11702 net.cpp:425] inception_4e/relu_5x5 <- inception_4e/5x5
I0403 15:11:50.320677 11702 net.cpp:386] inception_4e/relu_5x5 -> inception_4e/5x5 (in-place)
I0403 15:11:50.320868 11702 net.cpp:141] Setting up inception_4e/relu_5x5
I0403 15:11:50.320893 11702 net.cpp:148] Top shape: 24 128 14 14 (602112)
I0403 15:11:50.320906 11702 net.cpp:156] Memory required for data: 1242150432
I0403 15:11:50.320920 11702 layer_factory.hpp:77] Creating layer inception_4e/pool
I0403 15:11:50.320937 11702 net.cpp:91] Creating Layer inception_4e/pool
I0403 15:11:50.320952 11702 net.cpp:425] inception_4e/pool <- inception_4d/output_inception_4d/output_0_split_4
I0403 15:11:50.320971 11702 net.cpp:399] inception_4e/pool -> inception_4e/pool
I0403 15:11:50.321039 11702 net.cpp:141] Setting up inception_4e/pool
I0403 15:11:50.321063 11702 net.cpp:148] Top shape: 24 528 14 14 (2483712)
I0403 15:11:50.321075 11702 net.cpp:156] Memory required for data: 1252085280
I0403 15:11:50.321089 11702 layer_factory.hpp:77] Creating layer inception_4e/pool_proj
I0403 15:11:50.321112 11702 net.cpp:91] Creating Layer inception_4e/pool_proj
I0403 15:11:50.321130 11702 net.cpp:425] inception_4e/pool_proj <- inception_4e/pool
I0403 15:11:50.321147 11702 net.cpp:399] inception_4e/pool_proj -> inception_4e/pool_proj
I0403 15:11:50.322645 11702 net.cpp:141] Setting up inception_4e/pool_proj
I0403 15:11:50.322685 11702 net.cpp:148] Top shape: 24 128 14 14 (602112)
I0403 15:11:50.322701 11702 net.cpp:156] Memory required for data: 1254493728
I0403 15:11:50.322720 11702 layer_factory.hpp:77] Creating layer inception_4e/relu_pool_proj
I0403 15:11:50.322736 11702 net.cpp:91] Creating Layer inception_4e/relu_pool_proj
I0403 15:11:50.322751 11702 net.cpp:425] inception_4e/relu_pool_proj <- inception_4e/pool_proj
I0403 15:11:50.322770 11702 net.cpp:386] inception_4e/relu_pool_proj -> inception_4e/pool_proj (in-place)
I0403 15:11:50.323057 11702 net.cpp:141] Setting up inception_4e/relu_pool_proj
I0403 15:11:50.323086 11702 net.cpp:148] Top shape: 24 128 14 14 (602112)
I0403 15:11:50.323101 11702 net.cpp:156] Memory required for data: 1256902176
I0403 15:11:50.323114 11702 layer_factory.hpp:77] Creating layer inception_4e/output
I0403 15:11:50.323132 11702 net.cpp:91] Creating Layer inception_4e/output
I0403 15:11:50.323146 11702 net.cpp:425] inception_4e/output <- inception_4e/1x1
I0403 15:11:50.323163 11702 net.cpp:425] inception_4e/output <- inception_4e/3x3
I0403 15:11:50.323179 11702 net.cpp:425] inception_4e/output <- inception_4e/5x5
I0403 15:11:50.323194 11702 net.cpp:425] inception_4e/output <- inception_4e/pool_proj
I0403 15:11:50.323210 11702 net.cpp:399] inception_4e/output -> inception_4e/output
I0403 15:11:50.323261 11702 net.cpp:141] Setting up inception_4e/output
I0403 15:11:50.323284 11702 net.cpp:148] Top shape: 24 832 14 14 (3913728)
I0403 15:11:50.323298 11702 net.cpp:156] Memory required for data: 1272557088
I0403 15:11:50.323312 11702 layer_factory.hpp:77] Creating layer pool4/3x3_s2
I0403 15:11:50.323330 11702 net.cpp:91] Creating Layer pool4/3x3_s2
I0403 15:11:50.323346 11702 net.cpp:425] pool4/3x3_s2 <- inception_4e/output
I0403 15:11:50.323364 11702 net.cpp:399] pool4/3x3_s2 -> pool4/3x3_s2
I0403 15:11:50.323442 11702 net.cpp:141] Setting up pool4/3x3_s2
I0403 15:11:50.323467 11702 net.cpp:148] Top shape: 24 832 7 7 (978432)
I0403 15:11:50.323480 11702 net.cpp:156] Memory required for data: 1276470816
I0403 15:11:50.323493 11702 layer_factory.hpp:77] Creating layer pool4/3x3_s2_pool4/3x3_s2_0_split
I0403 15:11:50.323510 11702 net.cpp:91] Creating Layer pool4/3x3_s2_pool4/3x3_s2_0_split
I0403 15:11:50.323524 11702 net.cpp:425] pool4/3x3_s2_pool4/3x3_s2_0_split <- pool4/3x3_s2
I0403 15:11:50.323544 11702 net.cpp:399] pool4/3x3_s2_pool4/3x3_s2_0_split -> pool4/3x3_s2_pool4/3x3_s2_0_split_0
I0403 15:11:50.323564 11702 net.cpp:399] pool4/3x3_s2_pool4/3x3_s2_0_split -> pool4/3x3_s2_pool4/3x3_s2_0_split_1
I0403 15:11:50.323585 11702 net.cpp:399] pool4/3x3_s2_pool4/3x3_s2_0_split -> pool4/3x3_s2_pool4/3x3_s2_0_split_2
I0403 15:11:50.323603 11702 net.cpp:399] pool4/3x3_s2_pool4/3x3_s2_0_split -> pool4/3x3_s2_pool4/3x3_s2_0_split_3
I0403 15:11:50.323688 11702 net.cpp:141] Setting up pool4/3x3_s2_pool4/3x3_s2_0_split
I0403 15:11:50.323712 11702 net.cpp:148] Top shape: 24 832 7 7 (978432)
I0403 15:11:50.323729 11702 net.cpp:148] Top shape: 24 832 7 7 (978432)
I0403 15:11:50.323745 11702 net.cpp:148] Top shape: 24 832 7 7 (978432)
I0403 15:11:50.323758 11702 net.cpp:148] Top shape: 24 832 7 7 (978432)
I0403 15:11:50.323771 11702 net.cpp:156] Memory required for data: 1292125728
I0403 15:11:50.323786 11702 layer_factory.hpp:77] Creating layer inception_5a/1x1
I0403 15:11:50.323807 11702 net.cpp:91] Creating Layer inception_5a/1x1
I0403 15:11:50.323823 11702 net.cpp:425] inception_5a/1x1 <- pool4/3x3_s2_pool4/3x3_s2_0_split_0
I0403 15:11:50.323842 11702 net.cpp:399] inception_5a/1x1 -> inception_5a/1x1
I0403 15:11:50.326637 11702 net.cpp:141] Setting up inception_5a/1x1
I0403 15:11:50.326665 11702 net.cpp:148] Top shape: 24 256 7 7 (301056)
I0403 15:11:50.326680 11702 net.cpp:156] Memory required for data: 1293329952
I0403 15:11:50.326699 11702 layer_factory.hpp:77] Creating layer inception_5a/relu_1x1
I0403 15:11:50.326727 11702 net.cpp:91] Creating Layer inception_5a/relu_1x1
I0403 15:11:50.326743 11702 net.cpp:425] inception_5a/relu_1x1 <- inception_5a/1x1
I0403 15:11:50.326762 11702 net.cpp:386] inception_5a/relu_1x1 -> inception_5a/1x1 (in-place)
I0403 15:11:50.327066 11702 net.cpp:141] Setting up inception_5a/relu_1x1
I0403 15:11:50.327091 11702 net.cpp:148] Top shape: 24 256 7 7 (301056)
I0403 15:11:50.327105 11702 net.cpp:156] Memory required for data: 1294534176
I0403 15:11:50.327119 11702 layer_factory.hpp:77] Creating layer inception_5a/3x3_reduce
I0403 15:11:50.327142 11702 net.cpp:91] Creating Layer inception_5a/3x3_reduce
I0403 15:11:50.327158 11702 net.cpp:425] inception_5a/3x3_reduce <- pool4/3x3_s2_pool4/3x3_s2_0_split_1
I0403 15:11:50.327180 11702 net.cpp:399] inception_5a/3x3_reduce -> inception_5a/3x3_reduce
I0403 15:11:50.329569 11702 net.cpp:141] Setting up inception_5a/3x3_reduce
I0403 15:11:50.329597 11702 net.cpp:148] Top shape: 24 160 7 7 (188160)
I0403 15:11:50.329612 11702 net.cpp:156] Memory required for data: 1295286816
I0403 15:11:50.329628 11702 layer_factory.hpp:77] Creating layer inception_5a/relu_3x3_reduce
I0403 15:11:50.329649 11702 net.cpp:91] Creating Layer inception_5a/relu_3x3_reduce
I0403 15:11:50.329666 11702 net.cpp:425] inception_5a/relu_3x3_reduce <- inception_5a/3x3_reduce
I0403 15:11:50.329684 11702 net.cpp:386] inception_5a/relu_3x3_reduce -> inception_5a/3x3_reduce (in-place)
I0403 15:11:50.329866 11702 net.cpp:141] Setting up inception_5a/relu_3x3_reduce
I0403 15:11:50.329891 11702 net.cpp:148] Top shape: 24 160 7 7 (188160)
I0403 15:11:50.329905 11702 net.cpp:156] Memory required for data: 1296039456
I0403 15:11:50.329918 11702 layer_factory.hpp:77] Creating layer inception_5a/3x3
I0403 15:11:50.329941 11702 net.cpp:91] Creating Layer inception_5a/3x3
I0403 15:11:50.329958 11702 net.cpp:425] inception_5a/3x3 <- inception_5a/3x3_reduce
I0403 15:11:50.329978 11702 net.cpp:399] inception_5a/3x3 -> inception_5a/3x3
I0403 15:11:50.335122 11702 net.cpp:141] Setting up inception_5a/3x3
I0403 15:11:50.335155 11702 net.cpp:148] Top shape: 24 320 7 7 (376320)
I0403 15:11:50.335171 11702 net.cpp:156] Memory required for data: 1297544736
I0403 15:11:50.335191 11702 layer_factory.hpp:77] Creating layer inception_5a/relu_3x3
I0403 15:11:50.335209 11702 net.cpp:91] Creating Layer inception_5a/relu_3x3
I0403 15:11:50.335227 11702 net.cpp:425] inception_5a/relu_3x3 <- inception_5a/3x3
I0403 15:11:50.335247 11702 net.cpp:386] inception_5a/relu_3x3 -> inception_5a/3x3 (in-place)
I0403 15:11:50.335553 11702 net.cpp:141] Setting up inception_5a/relu_3x3
I0403 15:11:50.335583 11702 net.cpp:148] Top shape: 24 320 7 7 (376320)
I0403 15:11:50.335599 11702 net.cpp:156] Memory required for data: 1299050016
I0403 15:11:50.335615 11702 layer_factory.hpp:77] Creating layer inception_5a/5x5_reduce
I0403 15:11:50.335639 11702 net.cpp:91] Creating Layer inception_5a/5x5_reduce
I0403 15:11:50.335659 11702 net.cpp:425] inception_5a/5x5_reduce <- pool4/3x3_s2_pool4/3x3_s2_0_split_2
I0403 15:11:50.335678 11702 net.cpp:399] inception_5a/5x5_reduce -> inception_5a/5x5_reduce
I0403 15:11:50.336886 11702 net.cpp:141] Setting up inception_5a/5x5_reduce
I0403 15:11:50.336917 11702 net.cpp:148] Top shape: 24 32 7 7 (37632)
I0403 15:11:50.336935 11702 net.cpp:156] Memory required for data: 1299200544
I0403 15:11:50.336952 11702 layer_factory.hpp:77] Creating layer inception_5a/relu_5x5_reduce
I0403 15:11:50.336971 11702 net.cpp:91] Creating Layer inception_5a/relu_5x5_reduce
I0403 15:11:50.336987 11702 net.cpp:425] inception_5a/relu_5x5_reduce <- inception_5a/5x5_reduce
I0403 15:11:50.337007 11702 net.cpp:386] inception_5a/relu_5x5_reduce -> inception_5a/5x5_reduce (in-place)
I0403 15:11:50.337322 11702 net.cpp:141] Setting up inception_5a/relu_5x5_reduce
I0403 15:11:50.337348 11702 net.cpp:148] Top shape: 24 32 7 7 (37632)
I0403 15:11:50.337363 11702 net.cpp:156] Memory required for data: 1299351072
I0403 15:11:50.337378 11702 layer_factory.hpp:77] Creating layer inception_5a/5x5
I0403 15:11:50.337400 11702 net.cpp:91] Creating Layer inception_5a/5x5
I0403 15:11:50.337424 11702 net.cpp:425] inception_5a/5x5 <- inception_5a/5x5_reduce
I0403 15:11:50.337448 11702 net.cpp:399] inception_5a/5x5 -> inception_5a/5x5
I0403 15:11:50.339251 11702 net.cpp:141] Setting up inception_5a/5x5
I0403 15:11:50.339295 11702 net.cpp:148] Top shape: 24 128 7 7 (150528)
I0403 15:11:50.339313 11702 net.cpp:156] Memory required for data: 1299953184
I0403 15:11:50.339332 11702 layer_factory.hpp:77] Creating layer inception_5a/relu_5x5
I0403 15:11:50.339350 11702 net.cpp:91] Creating Layer inception_5a/relu_5x5
I0403 15:11:50.339367 11702 net.cpp:425] inception_5a/relu_5x5 <- inception_5a/5x5
I0403 15:11:50.339388 11702 net.cpp:386] inception_5a/relu_5x5 -> inception_5a/5x5 (in-place)
I0403 15:11:50.339601 11702 net.cpp:141] Setting up inception_5a/relu_5x5
I0403 15:11:50.339627 11702 net.cpp:148] Top shape: 24 128 7 7 (150528)
I0403 15:11:50.339642 11702 net.cpp:156] Memory required for data: 1300555296
I0403 15:11:50.339656 11702 layer_factory.hpp:77] Creating layer inception_5a/pool
I0403 15:11:50.339674 11702 net.cpp:91] Creating Layer inception_5a/pool
I0403 15:11:50.339691 11702 net.cpp:425] inception_5a/pool <- pool4/3x3_s2_pool4/3x3_s2_0_split_3
I0403 15:11:50.339712 11702 net.cpp:399] inception_5a/pool -> inception_5a/pool
I0403 15:11:50.339787 11702 net.cpp:141] Setting up inception_5a/pool
I0403 15:11:50.339810 11702 net.cpp:148] Top shape: 24 832 7 7 (978432)
I0403 15:11:50.339824 11702 net.cpp:156] Memory required for data: 1304469024
I0403 15:11:50.339838 11702 layer_factory.hpp:77] Creating layer inception_5a/pool_proj
I0403 15:11:50.339862 11702 net.cpp:91] Creating Layer inception_5a/pool_proj
I0403 15:11:50.339881 11702 net.cpp:425] inception_5a/pool_proj <- inception_5a/pool
I0403 15:11:50.339900 11702 net.cpp:399] inception_5a/pool_proj -> inception_5a/pool_proj
I0403 15:11:50.342293 11702 net.cpp:141] Setting up inception_5a/pool_proj
I0403 15:11:50.342327 11702 net.cpp:148] Top shape: 24 128 7 7 (150528)
I0403 15:11:50.342344 11702 net.cpp:156] Memory required for data: 1305071136
I0403 15:11:50.342362 11702 layer_factory.hpp:77] Creating layer inception_5a/relu_pool_proj
I0403 15:11:50.342381 11702 net.cpp:91] Creating Layer inception_5a/relu_pool_proj
I0403 15:11:50.342397 11702 net.cpp:425] inception_5a/relu_pool_proj <- inception_5a/pool_proj
I0403 15:11:50.342418 11702 net.cpp:386] inception_5a/relu_pool_proj -> inception_5a/pool_proj (in-place)
I0403 15:11:50.342730 11702 net.cpp:141] Setting up inception_5a/relu_pool_proj
I0403 15:11:50.342758 11702 net.cpp:148] Top shape: 24 128 7 7 (150528)
I0403 15:11:50.342774 11702 net.cpp:156] Memory required for data: 1305673248
I0403 15:11:50.342789 11702 layer_factory.hpp:77] Creating layer inception_5a/output
I0403 15:11:50.342806 11702 net.cpp:91] Creating Layer inception_5a/output
I0403 15:11:50.342823 11702 net.cpp:425] inception_5a/output <- inception_5a/1x1
I0403 15:11:50.342839 11702 net.cpp:425] inception_5a/output <- inception_5a/3x3
I0403 15:11:50.342856 11702 net.cpp:425] inception_5a/output <- inception_5a/5x5
I0403 15:11:50.342872 11702 net.cpp:425] inception_5a/output <- inception_5a/pool_proj
I0403 15:11:50.342890 11702 net.cpp:399] inception_5a/output -> inception_5a/output
I0403 15:11:50.342942 11702 net.cpp:141] Setting up inception_5a/output
I0403 15:11:50.342967 11702 net.cpp:148] Top shape: 24 832 7 7 (978432)
I0403 15:11:50.342981 11702 net.cpp:156] Memory required for data: 1309586976
I0403 15:11:50.342996 11702 layer_factory.hpp:77] Creating layer inception_5a/output_inception_5a/output_0_split
I0403 15:11:50.343016 11702 net.cpp:91] Creating Layer inception_5a/output_inception_5a/output_0_split
I0403 15:11:50.343034 11702 net.cpp:425] inception_5a/output_inception_5a/output_0_split <- inception_5a/output
I0403 15:11:50.343051 11702 net.cpp:399] inception_5a/output_inception_5a/output_0_split -> inception_5a/output_inception_5a/output_0_split_0
I0403 15:11:50.343072 11702 net.cpp:399] inception_5a/output_inception_5a/output_0_split -> inception_5a/output_inception_5a/output_0_split_1
I0403 15:11:50.343093 11702 net.cpp:399] inception_5a/output_inception_5a/output_0_split -> inception_5a/output_inception_5a/output_0_split_2
I0403 15:11:50.343114 11702 net.cpp:399] inception_5a/output_inception_5a/output_0_split -> inception_5a/output_inception_5a/output_0_split_3
I0403 15:11:50.343231 11702 net.cpp:141] Setting up inception_5a/output_inception_5a/output_0_split
I0403 15:11:50.343255 11702 net.cpp:148] Top shape: 24 832 7 7 (978432)
I0403 15:11:50.343272 11702 net.cpp:148] Top shape: 24 832 7 7 (978432)
I0403 15:11:50.343287 11702 net.cpp:148] Top shape: 24 832 7 7 (978432)
I0403 15:11:50.343302 11702 net.cpp:148] Top shape: 24 832 7 7 (978432)
I0403 15:11:50.343318 11702 net.cpp:156] Memory required for data: 1325241888
I0403 15:11:50.343333 11702 layer_factory.hpp:77] Creating layer inception_5b/1x1
I0403 15:11:50.343354 11702 net.cpp:91] Creating Layer inception_5b/1x1
I0403 15:11:50.343372 11702 net.cpp:425] inception_5b/1x1 <- inception_5a/output_inception_5a/output_0_split_0
I0403 15:11:50.343394 11702 net.cpp:399] inception_5b/1x1 -> inception_5b/1x1
I0403 15:11:50.347326 11702 net.cpp:141] Setting up inception_5b/1x1
I0403 15:11:50.347357 11702 net.cpp:148] Top shape: 24 384 7 7 (451584)
I0403 15:11:50.347373 11702 net.cpp:156] Memory required for data: 1327048224
I0403 15:11:50.347391 11702 layer_factory.hpp:77] Creating layer inception_5b/relu_1x1
I0403 15:11:50.347415 11702 net.cpp:91] Creating Layer inception_5b/relu_1x1
I0403 15:11:50.347434 11702 net.cpp:425] inception_5b/relu_1x1 <- inception_5b/1x1
I0403 15:11:50.347452 11702 net.cpp:386] inception_5b/relu_1x1 -> inception_5b/1x1 (in-place)
I0403 15:11:50.347769 11702 net.cpp:141] Setting up inception_5b/relu_1x1
I0403 15:11:50.347795 11702 net.cpp:148] Top shape: 24 384 7 7 (451584)
I0403 15:11:50.347810 11702 net.cpp:156] Memory required for data: 1328854560
I0403 15:11:50.347826 11702 layer_factory.hpp:77] Creating layer inception_5b/3x3_reduce
I0403 15:11:50.347854 11702 net.cpp:91] Creating Layer inception_5b/3x3_reduce
I0403 15:11:50.347872 11702 net.cpp:425] inception_5b/3x3_reduce <- inception_5a/output_inception_5a/output_0_split_1
I0403 15:11:50.347892 11702 net.cpp:399] inception_5b/3x3_reduce -> inception_5b/3x3_reduce
I0403 15:11:50.350671 11702 net.cpp:141] Setting up inception_5b/3x3_reduce
I0403 15:11:50.350703 11702 net.cpp:148] Top shape: 24 192 7 7 (225792)
I0403 15:11:50.350718 11702 net.cpp:156] Memory required for data: 1329757728
I0403 15:11:50.350738 11702 layer_factory.hpp:77] Creating layer inception_5b/relu_3x3_reduce
I0403 15:11:50.350755 11702 net.cpp:91] Creating Layer inception_5b/relu_3x3_reduce
I0403 15:11:50.350771 11702 net.cpp:425] inception_5b/relu_3x3_reduce <- inception_5b/3x3_reduce
I0403 15:11:50.350788 11702 net.cpp:386] inception_5b/relu_3x3_reduce -> inception_5b/3x3_reduce (in-place)
I0403 15:11:50.350981 11702 net.cpp:141] Setting up inception_5b/relu_3x3_reduce
I0403 15:11:50.351007 11702 net.cpp:148] Top shape: 24 192 7 7 (225792)
I0403 15:11:50.351022 11702 net.cpp:156] Memory required for data: 1330660896
I0403 15:11:50.351037 11702 layer_factory.hpp:77] Creating layer inception_5b/3x3
I0403 15:11:50.351059 11702 net.cpp:91] Creating Layer inception_5b/3x3
I0403 15:11:50.351078 11702 net.cpp:425] inception_5b/3x3 <- inception_5b/3x3_reduce
I0403 15:11:50.351099 11702 net.cpp:399] inception_5b/3x3 -> inception_5b/3x3
I0403 15:11:50.357877 11702 net.cpp:141] Setting up inception_5b/3x3
I0403 15:11:50.357909 11702 net.cpp:148] Top shape: 24 384 7 7 (451584)
I0403 15:11:50.357925 11702 net.cpp:156] Memory required for data: 1332467232
I0403 15:11:50.357944 11702 layer_factory.hpp:77] Creating layer inception_5b/relu_3x3
I0403 15:11:50.357961 11702 net.cpp:91] Creating Layer inception_5b/relu_3x3
I0403 15:11:50.357977 11702 net.cpp:425] inception_5b/relu_3x3 <- inception_5b/3x3
I0403 15:11:50.357995 11702 net.cpp:386] inception_5b/relu_3x3 -> inception_5b/3x3 (in-place)
I0403 15:11:50.358299 11702 net.cpp:141] Setting up inception_5b/relu_3x3
I0403 15:11:50.358326 11702 net.cpp:148] Top shape: 24 384 7 7 (451584)
I0403 15:11:50.358342 11702 net.cpp:156] Memory required for data: 1334273568
I0403 15:11:50.358357 11702 layer_factory.hpp:77] Creating layer inception_5b/5x5_reduce
I0403 15:11:50.358397 11702 net.cpp:91] Creating Layer inception_5b/5x5_reduce
I0403 15:11:50.358419 11702 net.cpp:425] inception_5b/5x5_reduce <- inception_5a/output_inception_5a/output_0_split_2
I0403 15:11:50.358440 11702 net.cpp:399] inception_5b/5x5_reduce -> inception_5b/5x5_reduce
I0403 15:11:50.359750 11702 net.cpp:141] Setting up inception_5b/5x5_reduce
I0403 15:11:50.359781 11702 net.cpp:148] Top shape: 24 48 7 7 (56448)
I0403 15:11:50.359797 11702 net.cpp:156] Memory required for data: 1334499360
I0403 15:11:50.359814 11702 layer_factory.hpp:77] Creating layer inception_5b/relu_5x5_reduce
I0403 15:11:50.359832 11702 net.cpp:91] Creating Layer inception_5b/relu_5x5_reduce
I0403 15:11:50.359848 11702 net.cpp:425] inception_5b/relu_5x5_reduce <- inception_5b/5x5_reduce
I0403 15:11:50.359868 11702 net.cpp:386] inception_5b/relu_5x5_reduce -> inception_5b/5x5_reduce (in-place)
I0403 15:11:50.360244 11702 net.cpp:141] Setting up inception_5b/relu_5x5_reduce
I0403 15:11:50.360271 11702 net.cpp:148] Top shape: 24 48 7 7 (56448)
I0403 15:11:50.360286 11702 net.cpp:156] Memory required for data: 1334725152
I0403 15:11:50.360301 11702 layer_factory.hpp:77] Creating layer inception_5b/5x5
I0403 15:11:50.360321 11702 net.cpp:91] Creating Layer inception_5b/5x5
I0403 15:11:50.360337 11702 net.cpp:425] inception_5b/5x5 <- inception_5b/5x5_reduce
I0403 15:11:50.360357 11702 net.cpp:399] inception_5b/5x5 -> inception_5b/5x5
I0403 15:11:50.362444 11702 net.cpp:141] Setting up inception_5b/5x5
I0403 15:11:50.362473 11702 net.cpp:148] Top shape: 24 128 7 7 (150528)
I0403 15:11:50.362486 11702 net.cpp:156] Memory required for data: 1335327264
I0403 15:11:50.362505 11702 layer_factory.hpp:77] Creating layer inception_5b/relu_5x5
I0403 15:11:50.362522 11702 net.cpp:91] Creating Layer inception_5b/relu_5x5
I0403 15:11:50.362539 11702 net.cpp:425] inception_5b/relu_5x5 <- inception_5b/5x5
I0403 15:11:50.362558 11702 net.cpp:386] inception_5b/relu_5x5 -> inception_5b/5x5 (in-place)
I0403 15:11:50.362756 11702 net.cpp:141] Setting up inception_5b/relu_5x5
I0403 15:11:50.362781 11702 net.cpp:148] Top shape: 24 128 7 7 (150528)
I0403 15:11:50.362794 11702 net.cpp:156] Memory required for data: 1335929376
I0403 15:11:50.362808 11702 layer_factory.hpp:77] Creating layer inception_5b/pool
I0403 15:11:50.362828 11702 net.cpp:91] Creating Layer inception_5b/pool
I0403 15:11:50.362845 11702 net.cpp:425] inception_5b/pool <- inception_5a/output_inception_5a/output_0_split_3
I0403 15:11:50.362864 11702 net.cpp:399] inception_5b/pool -> inception_5b/pool
I0403 15:11:50.362939 11702 net.cpp:141] Setting up inception_5b/pool
I0403 15:11:50.362963 11702 net.cpp:148] Top shape: 24 832 7 7 (978432)
I0403 15:11:50.362977 11702 net.cpp:156] Memory required for data: 1339843104
I0403 15:11:50.362990 11702 layer_factory.hpp:77] Creating layer inception_5b/pool_proj
I0403 15:11:50.363013 11702 net.cpp:91] Creating Layer inception_5b/pool_proj
I0403 15:11:50.363030 11702 net.cpp:425] inception_5b/pool_proj <- inception_5b/pool
I0403 15:11:50.363051 11702 net.cpp:399] inception_5b/pool_proj -> inception_5b/pool_proj
I0403 15:11:50.365378 11702 net.cpp:141] Setting up inception_5b/pool_proj
I0403 15:11:50.365416 11702 net.cpp:148] Top shape: 24 128 7 7 (150528)
I0403 15:11:50.365432 11702 net.cpp:156] Memory required for data: 1340445216
I0403 15:11:50.365452 11702 layer_factory.hpp:77] Creating layer inception_5b/relu_pool_proj
I0403 15:11:50.365469 11702 net.cpp:91] Creating Layer inception_5b/relu_pool_proj
I0403 15:11:50.365485 11702 net.cpp:425] inception_5b/relu_pool_proj <- inception_5b/pool_proj
I0403 15:11:50.365505 11702 net.cpp:386] inception_5b/relu_pool_proj -> inception_5b/pool_proj (in-place)
I0403 15:11:50.365804 11702 net.cpp:141] Setting up inception_5b/relu_pool_proj
I0403 15:11:50.365833 11702 net.cpp:148] Top shape: 24 128 7 7 (150528)
I0403 15:11:50.365849 11702 net.cpp:156] Memory required for data: 1341047328
I0403 15:11:50.365864 11702 layer_factory.hpp:77] Creating layer inception_5b/output
I0403 15:11:50.365880 11702 net.cpp:91] Creating Layer inception_5b/output
I0403 15:11:50.365911 11702 net.cpp:425] inception_5b/output <- inception_5b/1x1
I0403 15:11:50.365929 11702 net.cpp:425] inception_5b/output <- inception_5b/3x3
I0403 15:11:50.365945 11702 net.cpp:425] inception_5b/output <- inception_5b/5x5
I0403 15:11:50.365962 11702 net.cpp:425] inception_5b/output <- inception_5b/pool_proj
I0403 15:11:50.365978 11702 net.cpp:399] inception_5b/output -> inception_5b/output
I0403 15:11:50.366032 11702 net.cpp:141] Setting up inception_5b/output
I0403 15:11:50.366056 11702 net.cpp:148] Top shape: 24 1024 7 7 (1204224)
I0403 15:11:50.366070 11702 net.cpp:156] Memory required for data: 1345864224
I0403 15:11:50.366085 11702 layer_factory.hpp:77] Creating layer pool5/7x7_s1
I0403 15:11:50.366104 11702 net.cpp:91] Creating Layer pool5/7x7_s1
I0403 15:11:50.366122 11702 net.cpp:425] pool5/7x7_s1 <- inception_5b/output
I0403 15:11:50.366139 11702 net.cpp:399] pool5/7x7_s1 -> pool5/7x7_s1
I0403 15:11:50.366354 11702 net.cpp:141] Setting up pool5/7x7_s1
I0403 15:11:50.366381 11702 net.cpp:148] Top shape: 24 1024 1 1 (24576)
I0403 15:11:50.366397 11702 net.cpp:156] Memory required for data: 1345962528
I0403 15:11:50.366415 11702 layer_factory.hpp:77] Creating layer pool5/drop_7x7_s1
I0403 15:11:50.366436 11702 net.cpp:91] Creating Layer pool5/drop_7x7_s1
I0403 15:11:50.366451 11702 net.cpp:425] pool5/drop_7x7_s1 <- pool5/7x7_s1
I0403 15:11:50.366471 11702 net.cpp:386] pool5/drop_7x7_s1 -> pool5/7x7_s1 (in-place)
I0403 15:11:50.366521 11702 net.cpp:141] Setting up pool5/drop_7x7_s1
I0403 15:11:50.366544 11702 net.cpp:148] Top shape: 24 1024 1 1 (24576)
I0403 15:11:50.366559 11702 net.cpp:156] Memory required for data: 1346060832
I0403 15:11:50.366575 11702 layer_factory.hpp:77] Creating layer loss3/classifier_plantvillage
I0403 15:11:50.366595 11702 net.cpp:91] Creating Layer loss3/classifier_plantvillage
I0403 15:11:50.366612 11702 net.cpp:425] loss3/classifier_plantvillage <- pool5/7x7_s1
I0403 15:11:50.366633 11702 net.cpp:399] loss3/classifier_plantvillage -> loss3/classifier_plantvillage
I0403 15:11:50.367058 11702 net.cpp:141] Setting up loss3/classifier_plantvillage
I0403 15:11:50.367084 11702 net.cpp:148] Top shape: 24 38 (912)
I0403 15:11:50.367097 11702 net.cpp:156] Memory required for data: 1346064480
I0403 15:11:50.367115 11702 layer_factory.hpp:77] Creating layer loss3/classifier_plantvillage_loss3/classifier_plantvillage_0_split
I0403 15:11:50.367136 11702 net.cpp:91] Creating Layer loss3/classifier_plantvillage_loss3/classifier_plantvillage_0_split
I0403 15:11:50.367152 11702 net.cpp:425] loss3/classifier_plantvillage_loss3/classifier_plantvillage_0_split <- loss3/classifier_plantvillage
I0403 15:11:50.367171 11702 net.cpp:399] loss3/classifier_plantvillage_loss3/classifier_plantvillage_0_split -> loss3/classifier_plantvillage_loss3/classifier_plantvillage_0_split_0
I0403 15:11:50.367190 11702 net.cpp:399] loss3/classifier_plantvillage_loss3/classifier_plantvillage_0_split -> loss3/classifier_plantvillage_loss3/classifier_plantvillage_0_split_1
I0403 15:11:50.367210 11702 net.cpp:399] loss3/classifier_plantvillage_loss3/classifier_plantvillage_0_split -> loss3/classifier_plantvillage_loss3/classifier_plantvillage_0_split_2
I0403 15:11:50.367230 11702 net.cpp:399] loss3/classifier_plantvillage_loss3/classifier_plantvillage_0_split -> loss3/classifier_plantvillage_loss3/classifier_plantvillage_0_split_3
I0403 15:11:50.367331 11702 net.cpp:141] Setting up loss3/classifier_plantvillage_loss3/classifier_plantvillage_0_split
I0403 15:11:50.367354 11702 net.cpp:148] Top shape: 24 38 (912)
I0403 15:11:50.367369 11702 net.cpp:148] Top shape: 24 38 (912)
I0403 15:11:50.367384 11702 net.cpp:148] Top shape: 24 38 (912)
I0403 15:11:50.367398 11702 net.cpp:148] Top shape: 24 38 (912)
I0403 15:11:50.367416 11702 net.cpp:156] Memory required for data: 1346079072
I0403 15:11:50.367430 11702 layer_factory.hpp:77] Creating layer loss1/loss
I0403 15:11:50.367451 11702 net.cpp:91] Creating Layer loss1/loss
I0403 15:11:50.367468 11702 net.cpp:425] loss1/loss <- loss1/classifier_plantvillage_loss1/classifier_plantvillage_0_split_0
I0403 15:11:50.367499 11702 net.cpp:425] loss1/loss <- label_data_1_split_0
…
