…
I0403 15:10:06.605479 11675 net.cpp:313] The NetState phase (1) differed from the phase (0) specified by a rule in layer data
I0403 15:10:06.606701 11675 net.cpp:49] Initializing net from parameters: 
state {
  phase: TEST
}
layer {
  name: "data"
  type: "Data"
  top: "data"
  top: "label"
  include {
    phase: TEST
  }
  transform_param {
    mirror: false
    crop_size: 224
    mean_file: "/home/mohanty/data/final_dataset/lmdb/segmented-50-50/mean.binaryproto"
  }
  data_param {
    source: "/home/mohanty/data/final_dataset/lmdb/segmented-50-50/test_db"
    batch_size: 24
    backend: LMDB
  }
}
layer {
  name: "conv1/7x7_s2"
  type: "Convolution"
  bottom: "data"
  top: "conv1/7x7_s2"
  param {
    lr_mult: 1
    decay_mult: 1
  }
  param {
    lr_mult: 2
    decay_mult: 0
  }
  convolution_param {
    num_output: 64
    pad: 3
    kernel_size: 7
    stride: 2
    weight_filler {
      type: "xavier"
      std: 0.1
    }
    bias_filler {
      type: "constant"
      value: 0.2
    }
  }
}
layer {
  name: "conv1/relu_7x7"
  type: "ReLU"
  bottom: "conv1/7x7_s2"
  top: "conv1/7x7_s2"
}
layer {
  name: "pool1/3x3_s2"
  type: "Pooling"
  bottom: "conv1/7x7_s2"
  top: "pool1/3x3_s2"
  pooling_param {
    pool: MAX
    kernel_size: 3
    stride: 2
  }
}
layer {
  name: "pool1/norm1"
  type: "LRN"
  bottom: "pool1/3x3_s2"
  top: "pool1/norm1"
  lrn_param {
    local_size: 5
    alpha: 0.0001
    beta: 0.75
  }
}
layer {
  name: "conv2/3x3_reduce"
  type: "Convolution"
  bottom: "pool1/norm1"
  top: "conv2/3x3_reduce"
  param {
    lr_mult: 1
    decay_mult: 1
  }
  param {
    lr_mult: 2
    decay_mult: 0
  }
  convolution_param {
    num_output: 64
    kernel_size: 1
    weight_filler {
      type: "xavier"
      std: 0.1
    }
    bias_filler {
      type: "constant"
      value: 0.2
    }
  }
}
layer {
  name: "conv2/relu_3x3_reduce"
  type: "ReLU"
  bottom: "conv2/3x3_reduce"
  top: "conv2/3x3_reduce"
}
layer {
  name: "conv2/3x3"
  type: "Convolution"
  bottom: "conv2/3x3_reduce"
  top: "conv2/3x3"
  param {
    lr_mult: 1
    decay_mult: 1
  }
  param {
    lr_mult: 2
    decay_mult: 0
  }
  convolution_param {
    num_output: 192
    pad: 1
    kernel_size: 3
    weight_filler {
      type: "xavier"
      std: 0.03
    }
    bias_filler {
      type: "constant"
      value: 0.2
    }
  }
}
layer {
  name: "conv2/relu_3x3"
  type: "ReLU"
  bottom: "conv2/3x3"
  top: "conv2/3x3"
}
layer {
  name: "conv2/norm2"
  type: "LRN"
  bottom: "conv2/3x3"
  top: "conv2/norm2"
  lrn_param {
    local_size: 5
    alpha: 0.0001
    beta: 0.75
  }
}
layer {
  name: "pool2/3x3_s2"
  type: "Pooling"
  bottom: "conv2/norm2"
  top: "pool2/3x3_s2"
  pooling_param {
    pool: MAX
    kernel_size: 3
    stride: 2
  }
}
layer {
  name: "inception_3a/1x1"
  type: "Convolution"
  bottom: "pool2/3x3_s2"
  top: "inception_3a/1x1"
  param {
    lr_mult: 1
    decay_mult: 1
  }
  param {
    lr_mult: 2
    decay_mult: 0
  }
  convolution_param {
    num_output: 64
    kernel_size: 1
    weight_filler {
      type: "xavier"
      std: 0.03
    }
    bias_filler {
      type: "constant"
      value: 0.2
    }
  }
}
layer {
  name: "inception_3a/relu_1x1"
  type: "ReLU"
  bottom: "inception_3a/1x1"
  top: "inception_3a/1x1"
}
layer {
  name: "inception_3a/3x3_reduce"
  type: "Convolution"
  bottom: "pool2/3x3_s2"
  top: "inception_3a/3x3_reduce"
  param {
    lr_mult: 1
    decay_mult: 1
  }
  param {
    lr_mult: 2
    decay_mult: 0
  }
  convolution_param {
    num_output: 96
    kernel_size: 1
    weight_filler {
      type: "xavier"
      std: 0.09
    }
    bias_filler {
      type: "constant"
      value: 0.2
    }
  }
}
layer {
  name: "inception_3a/relu_3x3_reduce"
  type: "ReLU"
  bottom: "inception_3a/3x3_reduce"
  top: "inception_3a/3x3_reduce"
}
layer {
  name: "inception_3a/3x3"
  type: "Convolution"
  bottom: "inception_3a/3x3_reduce"
  top: "inception_3a/3x3"
  param {
    lr_mult: 1
    decay_mult: 1
  }
  param {
    lr_mult: 2
    decay_mult: 0
  }
  convolution_param {
    num_output: 128
    pad: 1
    kernel_size: 3
    weight_filler {
      type: "xavier"
      std: 0.03
    }
    bias_filler {
      type: "constant"
      value: 0.2
    }
  }
}
layer {
  name: "inception_3a/relu_3x3"
  type: "ReLU"
  bottom: "inception_3a/3x3"
  top: "inception_3a/3x3"
}
layer {
  name: "inception_3a/5x5_reduce"
  type: "Convolution"
  bottom: "pool2/3x3_s2"
  top: "inception_3a/5x5_reduce"
  param {
    lr_mult: 1
    decay_mult: 1
  }
  param {
    lr_mult: 2
    decay_mult: 0
  }
  convolution_param {
    num_output: 16
    kernel_size: 1
    weight_filler {
      type: "xavier"
      std: 0.2
    }
    bias_filler {
      type: "constant"
      value: 0.2
    }
  }
}
layer {
  name: "inception_3a/relu_5x5_reduce"
  type: "ReLU"
  bottom: "inception_3a/5x5_reduce"
  top: "inception_3a/5x5_reduce"
}
layer {
  name: "inception_3a/5x5"
  type: "Convolution"
  bottom: "inception_3a/5x5_reduce"
  top: "inception_3a/5x5"
  param {
    lr_mult: 1
    decay_mult: 1
  }
  param {
    lr_mult: 2
    decay_mult: 0
  }
  convolution_param {
    num_output: 32
    pad: 2
    kernel_size: 5
    weight_filler {
      type: "xavier"
      std: 0.03
    }
    bias_filler {
      type: "constant"
      value: 0.2
    }
  }
}
layer {
  name: "inception_3a/relu_5x5"
  type: "ReLU"
  bottom: "inception_3a/5x5"
  top: "inception_3a/5x5"
}
layer {
  name: "inception_3a/pool"
  type: "Pooling"
  bottom: "pool2/3x3_s2"
  top: "inception_3a/pool"
  pooling_param {
    pool: MAX
    kernel_size: 3
    stride: 1
    pad: 1
  }
}
layer {
  name: "inception_3a/pool_proj"
  type: "Convolution"
  bottom: "inception_3a/pool"
  top: "inception_3a/pool_proj"
  param {
    lr_mult: 1
    decay_mult: 1
  }
  param {
    lr_mult: 2
    decay_mult: 0
  }
  convolution_param {
    num_output: 32
    kernel_size: 1
    weight_filler {
      type: "xavier"
      std: 0.1
    }
    bias_filler {
      type: "constant"
      value: 0.2
    }
  }
}
layer {
  name: "inception_3a/relu_pool_proj"
  type: "ReLU"
  bottom: "inception_3a/pool_proj"
  top: "inception_3a/pool_proj"
}
layer {
  name: "inception_3a/output"
  type: "Concat"
  bottom: "inception_3a/1x1"
  bottom: "inception_3a/3x3"
  bottom: "inception_3a/5x5"
  bottom: "inception_3a/pool_proj"
  top: "inception_3a/output"
}
layer {
  name: "inception_3b/1x1"
  type: "Convolution"
  bottom: "inception_3a/output"
  top: "inception_3b/1x1"
  param {
    lr_mult: 1
    decay_mult: 1
  }
  param {
    lr_mult: 2
    decay_mult: 0
  }
  convolution_param {
    num_output: 128
    kernel_size: 1
    weight_filler {
      type: "xavier"
      std: 0.03
    }
    bias_filler {
      type: "constant"
      value: 0.2
    }
  }
}
layer {
  name: "inception_3b/relu_1x1"
  type: "ReLU"
  bottom: "inception_3b/1x1"
  top: "inception_3b/1x1"
}
layer {
  name: "inception_3b/3x3_reduce"
  type: "Convolution"
  bottom: "inception_3a/output"
  top: "inception_3b/3x3_reduce"
  param {
    lr_mult: 1
    decay_mult: 1
  }
  param {
    lr_mult: 2
    decay_mult: 0
  }
  convolution_param {
    num_output: 128
    kernel_size: 1
    weight_filler {
      type: "xavier"
      std: 0.09
    }
    bias_filler {
      type: "constant"
      value: 0.2
    }
  }
}
layer {
  name: "inception_3b/relu_3x3_reduce"
  type: "ReLU"
  bottom: "inception_3b/3x3_reduce"
  top: "inception_3b/3x3_reduce"
}
layer {
  name: "inception_3b/3x3"
  type: "Convolution"
  bottom: "inception_3b/3x3_reduce"
  top: "inception_3b/3x3"
  param {
    lr_mult: 1
    decay_mult: 1
  }
  param {
    lr_mult: 2
    decay_mult: 0
  }
  convolution_param {
    num_output: 192
    pad: 1
    kernel_size: 3
    weight_filler {
      type: "xavier"
      std: 0.03
    }
    bias_filler {
      type: "constant"
      value: 0.2
    }
  }
}
layer {
  name: "inception_3b/relu_3x3"
  type: "ReLU"
  bottom: "inception_3b/3x3"
  top: "inception_3b/3x3"
}
layer {
  name: "inception_3b/5x5_reduce"
  type: "Convolution"
  bottom: "inception_3a/output"
  top: "inception_3b/5x5_reduce"
  param {
    lr_mult: 1
    decay_mult: 1
  }
  param {
    lr_mult: 2
    decay_mult: 0
  }
  convolution_param {
    num_output: 32
    kernel_size: 1
    weight_filler {
      type: "xavier"
      std: 0.2
    }
    bias_filler {
      type: "constant"
      value: 0.2
    }
  }
}
layer {
  name: "inception_3b/relu_5x5_reduce"
  type: "ReLU"
  bottom: "inception_3b/5x5_reduce"
  top: "inception_3b/5x5_reduce"
}
layer {
  name: "inception_3b/5x5"
  type: "Convolution"
  bottom: "inception_3b/5x5_reduce"
  top: "inception_3b/5x5"
  param {
    lr_mult: 1
    decay_mult: 1
  }
  param {
    lr_mult: 2
    decay_mult: 0
  }
  convolution_param {
    num_output: 96
    pad: 2
    kernel_size: 5
    weight_filler {
      type: "xavier"
      std: 0.03
    }
    bias_filler {
      type: "constant"
      value: 0.2
    }
  }
}
layer {
  name: "inception_3b/relu_5x5"
  type: "ReLU"
  bottom: "inception_3b/5x5"
  top: "inception_3b/5x5"
}
layer {
  name: "inception_3b/pool"
  type: "Pooling"
  bottom: "inception_3a/output"
  top: "inception_3b/pool"
  pooling_param {
    pool: MAX
    kernel_size: 3
    stride: 1
    pad: 1
  }
}
layer {
  name: "inception_3b/pool_proj"
  type: "Convolution"
  bottom: "inception_3b/pool"
  top: "inception_3b/pool_proj"
  param {
    lr_mult: 1
    decay_mult: 1
  }
  param {
    lr_mult: 2
    decay_mult: 0
  }
  convolution_param {
    num_output: 64
    kernel_size: 1
    weight_filler {
      type: "xavier"
      std: 0.1
    }
    bias_filler {
      type: "constant"
      value: 0.2
    }
  }
}
layer {
  name: "inception_3b/relu_pool_proj"
  type: "ReLU"
  bottom: "inception_3b/pool_proj"
  top: "inception_3b/pool_proj"
}
layer {
  name: "inception_3b/output"
  type: "Concat"
  bottom: "inception_3b/1x1"
  bottom: "inception_3b/3x3"
  bottom: "inception_3b/5x5"
  bottom: "inception_3b/pool_proj"
  top: "inception_3b/output"
}
layer {
  name: "pool3/3x3_s2"
  type: "Pooling"
  bottom: "inception_3b/output"
  top: "pool3/3x3_s2"
  pooling_param {
    pool: MAX
    kernel_size: 3
    stride: 2
  }
}
layer {
  name: "inception_4a/1x1"
  type: "Convolution"
  bottom: "pool3/3x3_s2"
  top: "inception_4a/1x1"
  param {
    lr_mult: 1
    decay_mult: 1
  }
  param {
    lr_mult: 2
    decay_mult: 0
  }
  convolution_param {
    num_output: 192
    kernel_size: 1
    weight_filler {
      type: "xavier"
      std: 0.03
    }
    bias_filler {
      type: "constant"
      value: 0.2
    }
  }
}
layer {
  name: "inception_4a/relu_1x1"
  type: "ReLU"
  bottom: "inception_4a/1x1"
  top: "inception_4a/1x1"
}
layer {
  name: "inception_4a/3x3_reduce"
  type: "Convolution"
  bottom: "pool3/3x3_s2"
  top: "inception_4a/3x3_reduce"
  param {
    lr_mult: 1
    decay_mult: 1
  }
  param {
    lr_mult: 2
    decay_mult: 0
  }
  convolution_param {
    num_output: 96
    kernel_size: 1
    weight_filler {
      type: "xavier"
      std: 0.09
    }
    bias_filler {
      type: "constant"
      value: 0.2
    }
  }
}
layer {
  name: "inception_4a/relu_3x3_reduce"
  type: "ReLU"
  bottom: "inception_4a/3x3_reduce"
  top: "inception_4a/3x3_reduce"
}
layer {
  name: "inception_4a/3x3"
  type: "Convolution"
  bottom: "inception_4a/3x3_reduce"
  top: "inception_4a/3x3"
  param {
    lr_mult: 1
    decay_mult: 1
  }
  param {
    lr_mult: 2
    decay_mult: 0
  }
  convolution_param {
    num_output: 208
    pad: 1
    kernel_size: 3
    weight_filler {
      type: "xavier"
      std: 0.03
    }
    bias_filler {
      type: "constant"
      value: 0.2
    }
  }
}
layer {
  name: "inception_4a/relu_3x3"
  type: "ReLU"
  bottom: "inception_4a/3x3"
  top: "inception_4a/3x3"
}
layer {
  name: "inception_4a/5x5_reduce"
  type: "Convolution"
  bottom: "pool3/3x3_s2"
  top: "inception_4a/5x5_reduce"
  param {
    lr_mult: 1
    decay_mult: 1
  }
  param {
    lr_mult: 2
    decay_mult: 0
  }
  convolution_param {
    num_output: 16
    kernel_size: 1
    weight_filler {
      type: "xavier"
      std: 0.2
    }
    bias_filler {
      type: "constant"
      value: 0.2
    }
  }
}
layer {
  name: "inception_4a/relu_5x5_reduce"
  type: "ReLU"
  bottom: "inception_4a/5x5_reduce"
  top: "inception_4a/5x5_reduce"
}
layer {
  name: "inception_4a/5x5"
  type: "Convolution"
  bottom: "inception_4a/5x5_reduce"
  top: "inception_4a/5x5"
  param {
    lr_mult: 1
    decay_mult: 1
  }
  param {
    lr_mult: 2
    decay_mult: 0
  }
  convolution_param {
    num_output: 48
    pad: 2
    kernel_size: 5
    weight_filler {
      type: "xavier"
      std: 0.03
    }
    bias_filler {
      type: "constant"
      value: 0.2
    }
  }
}
layer {
  name: "inception_4a/relu_5x5"
  type: "ReLU"
  bottom: "inception_4a/5x5"
  top: "inception_4a/5x5"
}
layer {
  name: "inception_4a/pool"
  type: "Pooling"
  bottom: "pool3/3x3_s2"
  top: "inception_4a/pool"
  pooling_param {
    pool: MAX
    kernel_size: 3
    stride: 1
    pad: 1
  }
}
layer {
  name: "inception_4a/pool_proj"
  type: "Convolution"
  bottom: "inception_4a/pool"
  top: "inception_4a/pool_proj"
  param {
    lr_mult: 1
    decay_mult: 1
  }
  param {
    lr_mult: 2
    decay_mult: 0
  }
  convolution_param {
    num_output: 64
    kernel_size: 1
    weight_filler {
      type: "xavier"
      std: 0.1
    }
    bias_filler {
      type: "constant"
      value: 0.2
    }
  }
}
layer {
  name: "inception_4a/relu_pool_proj"
  type: "ReLU"
  bottom: "inception_4a/pool_proj"
  top: "inception_4a/pool_proj"
}
layer {
  name: "inception_4a/output"
  type: "Concat"
  bottom: "inception_4a/1x1"
  bottom: "inception_4a/3x3"
  bottom: "inception_4a/5x5"
  bottom: "inception_4a/pool_proj"
  top: "inception_4a/output"
}
layer {
  name: "loss1/ave_pool"
  type: "Pooling"
  bottom: "inception_4a/output"
  top: "loss1/ave_pool"
  pooling_param {
    pool: AVE
    kernel_size: 5
    stride: 3
  }
}
layer {
  name: "loss1/conv"
  type: "Convolution"
  bottom: "loss1/ave_pool"
  top: "loss1/conv"
  param {
    lr_mult: 1
    decay_mult: 1
  }
  param {
    lr_mult: 2
    decay_mult: 0
  }
  convolution_param {
    num_output: 128
    kernel_size: 1
    weight_filler {
      type: "xavier"
      std: 0.08
    }
    bias_filler {
      type: "constant"
      value: 0.2
    }
  }
}
layer {
  name: "loss1/relu_conv"
  type: "ReLU"
  bottom: "loss1/conv"
  top: "loss1/conv"
}
layer {
  name: "loss1/fc"
  type: "InnerProduct"
  bottom: "loss1/conv"
  top: "loss1/fc"
  param {
    lr_mult: 1
    decay_mult: 1
  }
  param {
    lr_mult: 2
    decay_mult: 0
  }
  inner_product_param {
    num_output: 1024
    weight_filler {
      type: "xavier"
      std: 0.02
    }
    bias_filler {
      type: "constant"
      value: 0.2
    }
  }
}
layer {
  name: "loss1/relu_fc"
  type: "ReLU"
  bottom: "loss1/fc"
  top: "loss1/fc"
}
layer {
  name: "loss1/drop_fc"
  type: "Dropout"
  bottom: "loss1/fc"
  top: "loss1/fc"
  dropout_param {
    dropout_ratio: 0.7
  }
}
layer {
  name: "loss1/classifier_plantvillage"
  type: "InnerProduct"
  bottom: "loss1/fc"
  top: "loss1/classifier_plantvillage"
  param {
    lr_mult: 1
    decay_mult: 1
  }
  param {
    lr_mult: 2
    decay_mult: 0
  }
  inner_product_param {
    num_output: 38
    weight_filler {
      type: "xavier"
      std: 0.0009765625
    }
    bias_filler {
      type: "constant"
      value: 0
    }
  }
}
layer {
  name: "inception_4b/1x1"
  type: "Convolution"
  bottom: "inception_4a/output"
  top: "inception_4b/1x1"
  param {
    lr_mult: 1
    decay_mult: 1
  }
  param {
    lr_mult: 2
    decay_mult: 0
  }
  convolution_param {
    num_output: 160
    kernel_size: 1
    weight_filler {
      type: "xavier"
      std: 0.03
    }
    bias_filler {
      type: "constant"
      value: 0.2
    }
  }
}
layer {
  name: "inception_4b/relu_1x1"
  type: "ReLU"
  bottom: "inception_4b/1x1"
  top: "inception_4b/1x1"
}
layer {
  name: "inception_4b/3x3_reduce"
  type: "Convolution"
  bottom: "inception_4a/output"
  top: "inception_4b/3x3_reduce"
  param {
    lr_mult: 1
    decay_mult: 1
  }
  param {
    lr_mult: 2
    decay_mult: 0
  }
  convolution_param {
    num_output: 112
    kernel_size: 1
    weight_filler {
      type: "xavier"
      std: 0.09
    }
    bias_filler {
      type: "constant"
      value: 0.2
    }
  }
}
layer {
  name: "inception_4b/relu_3x3_reduce"
  type: "ReLU"
  bottom: "inception_4b/3x3_reduce"
  top: "inception_4b/3x3_reduce"
}
layer {
  name: "inception_4b/3x3"
  type: "Convolution"
  bottom: "inception_4b/3x3_reduce"
  top: "inception_4b/3x3"
  param {
    lr_mult: 1
    decay_mult: 1
  }
  param {
    lr_mult: 2
    decay_mult: 0
  }
  convolution_param {
    num_output: 224
    pad: 1
    kernel_size: 3
    weight_filler {
      type: "xavier"
      std: 0.03
    }
    bias_filler {
      type: "constant"
      value: 0.2
    }
  }
}
layer {
  name: "inception_4b/relu_3x3"
  type: "ReLU"
  bottom: "inception_4b/3x3"
  top: "inception_4b/3x3"
}
layer {
  name: "inception_4b/5x5_reduce"
  type: "Convolution"
  bottom: "inception_4a/output"
  top: "inception_4b/5x5_reduce"
  param {
    lr_mult: 1
    decay_mult: 1
  }
  param {
    lr_mult: 2
    decay_mult: 0
  }
  convolution_param {
    num_output: 24
    kernel_size: 1
    weight_filler {
      type: "xavier"
      std: 0.2
    }
    bias_filler {
      type: "constant"
      value: 0.2
    }
  }
}
layer {
  name: "inception_4b/relu_5x5_reduce"
  type: "ReLU"
  bottom: "inception_4b/5x5_reduce"
  top: "inception_4b/5x5_reduce"
}
layer {
  name: "inception_4b/5x5"
  type: "Convolution"
  bottom: "inception_4b/5x5_reduce"
  top: "inception_4b/5x5"
  param {
    lr_mult: 1
    decay_mult: 1
  }
  param {
    lr_mult: 2
    decay_mult: 0
  }
  convolution_param {
    num_output: 64
    pad: 2
    kernel_size: 5
    weight_filler {
      type: "xavier"
      std: 0.03
    }
    bias_filler {
      type: "constant"
      value: 0.2
    }
  }
}
layer {
  name: "inception_4b/relu_5x5"
  type: "ReLU"
  bottom: "inception_4b/5x5"
  top: "inception_4b/5x5"
}
layer {
  name: "inception_4b/pool"
  type: "Pooling"
  bottom: "inception_4a/output"
  top: "inception_4b/pool"
  pooling_param {
    pool: MAX
    kernel_size: 3
    stride: 1
    pad: 1
  }
}
layer {
  name: "inception_4b/pool_proj"
  type: "Convolution"
  bottom: "inception_4b/pool"
  top: "inception_4b/pool_proj"
  param {
    lr_mult: 1
    decay_mult: 1
  }
  param {
    lr_mult: 2
    decay_mult: 0
  }
  convolution_param {
    num_output: 64
    kernel_size: 1
    weight_filler {
      type: "xavier"
      std: 0.1
    }
    bias_filler {
      type: "constant"
      value: 0.2
    }
  }
}
layer {
  name: "inception_4b/relu_pool_proj"
  type: "ReLU"
  bottom: "inception_4b/pool_proj"
  top: "inception_4b/pool_proj"
}
layer {
  name: "inception_4b/output"
  type: "Concat"
  bottom: "inception_4b/1x1"
  bottom: "inception_4b/3x3"
  bottom: "inception_4b/5x5"
  bottom: "inception_4b/pool_proj"
  top: "inception_4b/output"
}
layer {
  name: "inception_4c/1x1"
  type: "Convolution"
  bottom: "inception_4b/output"
  top: "inception_4c/1x1"
  param {
    lr_mult: 1
    decay_mult: 1
  }
  param {
    lr_mult: 2
    decay_mult: 0
  }
  convolution_param {
    num_output: 128
    kernel_size: 1
    weight_filler {
      type: "xavier"
      std: 0.03
    }
    bias_filler {
      type: "constant"
      value: 0.2
    }
  }
}
layer {
  name: "inception_4c/relu_1x1"
  type: "ReLU"
  bottom: "inception_4c/1x1"
  top: "inception_4c/1x1"
}
layer {
  name: "inception_4c/3x3_reduce"
  type: "Convolution"
  bottom: "inception_4b/output"
  top: "inception_4c/3x3_reduce"
  param {
    lr_mult: 1
    decay_mult: 1
  }
  param {
    lr_mult: 2
    decay_mult: 0
  }
  convolution_param {
    num_output: 128
    kernel_size: 1
    weight_filler {
      type: "xavier"
      std: 0.09
    }
    bias_filler {
      type: "constant"
      value: 0.2
    }
  }
}
layer {
  name: "inception_4c/relu_3x3_reduce"
  type: "ReLU"
  bottom: "inception_4c/3x3_reduce"
  top: "inception_4c/3x3_reduce"
}
layer {
  name: "inception_4c/3x3"
  type: "Convolution"
  bottom: "inception_4c/3x3_reduce"
  top: "inception_4c/3x3"
  param {
    lr_mult: 1
    decay_mult: 1
  }
  param {
    lr_mult: 2
    decay_mult: 0
  }
  convolution_param {
    num_output: 256
    pad: 1
    kernel_size: 3
    weight_filler {
      type: "xavier"
      std: 0.03
    }
    bias_filler {
      type: "constant"
      value: 0.2
    }
  }
}
layer {
  name: "inception_4c/relu_3x3"
  type: "ReLU"
  bottom: "inception_4c/3x3"
  top: "inception_4c/3x3"
}
layer {
  name: "inception_4c/5x5_reduce"
  type: "Convolution"
  bottom: "inception_4b/output"
  top: "inception_4c/5x5_reduce"
  param {
    lr_mult: 1
    decay_mult: 1
  }
  param {
    lr_mult: 2
    decay_mult: 0
  }
  convolution_param {
    num_output: 24
    kernel_size: 1
    weight_filler {
      type: "xavier"
      std: 0.2
    }
    bias_filler {
      type: "constant"
      value: 0.2
    }
  }
}
layer {
  name: "inception_4c/relu_5x5_reduce"
  type: "ReLU"
  bottom: "inception_4c/5x5_reduce"
  top: "inception_4c/5x5_reduce"
}
layer {
  name: "inception_4c/5x5"
  type: "Convolution"
  bottom: "inception_4c/5x5_reduce"
  top: "inception_4c/5x5"
  param {
    lr_mult: 1
    decay_mult: 1
  }
  param {
    lr_mult: 2
    decay_mult: 0
  }
  convolution_param {
    num_output: 64
    pad: 2
    kernel_size: 5
    weight_filler {
      type: "xavier"
      std: 0.03
    }
    bias_filler {
      type: "constant"
      value: 0.2
    }
  }
}
layer {
  name: "inception_4c/relu_5x5"
  type: "ReLU"
  bottom: "inception_4c/5x5"
  top: "inception_4c/5x5"
}
layer {
  name: "inception_4c/pool"
  type: "Pooling"
  bottom: "inception_4b/output"
  top: "inception_4c/pool"
  pooling_param {
    pool: MAX
    kernel_size: 3
    stride: 1
    pad: 1
  }
}
layer {
  name: "inception_4c/pool_proj"
  type: "Convolution"
  bottom: "inception_4c/pool"
  top: "inception_4c/pool_proj"
  param {
    lr_mult: 1
    decay_mult: 1
  }
  param {
    lr_mult: 2
    decay_mult: 0
  }
  convolution_param {
    num_output: 64
    kernel_size: 1
    weight_filler {
      type: "xavier"
      std: 0.1
    }
    bias_filler {
      type: "constant"
      value: 0.2
    }
  }
}
layer {
  name: "inception_4c/relu_pool_proj"
  type: "ReLU"
  bottom: "inception_4c/pool_proj"
  top: "inception_4c/pool_proj"
}
layer {
  name: "inception_4c/output"
  type: "Concat"
  bottom: "inception_4c/1x1"
  bottom: "inception_4c/3x3"
  bottom: "inception_4c/5x5"
  bottom: "inception_4c/pool_proj"
  top: "inception_4c/output"
}
layer {
  name: "inception_4d/1x1"
  type: "Convolution"
  bottom: "inception_4c/output"
  top: "inception_4d/1x1"
  param {
    lr_mult: 1
    decay_mult: 1
  }
  param {
    lr_mult: 2
    decay_mult: 0
  }
  convolution_param {
    num_output: 112
    kernel_size: 1
    weight_filler {
      type: "xavier"
      std: 0.03
    }
    bias_filler {
      type: "constant"
      value: 0.2
    }
  }
}
layer {
  name: "inception_4d/relu_1x1"
  type: "ReLU"
  bottom: "inception_4d/1x1"
  top: "inception_4d/1x1"
}
layer {
  name: "inception_4d/3x3_reduce"
  type: "Convolution"
  bottom: "inception_4c/output"
  top: "inception_4d/3x3_reduce"
  param {
    lr_mult: 1
    decay_mult: 1
  }
  param {
    lr_mult: 2
    decay_mult: 0
  }
  convolution_param {
    num_output: 144
    kernel_size: 1
    weight_filler {
      type: "xavier"
      std: 0.09
    }
    bias_filler {
      type: "constant"
      value: 0.2
    }
  }
}
layer {
  name: "inception_4d/relu_3x3_reduce"
  type: "ReLU"
  bottom: "inception_4d/3x3_reduce"
  top: "inception_4d/3x3_reduce"
}
layer {
  name: "inception_4d/3x3"
  type: "Convolution"
  bottom: "inception_4d/3x3_reduce"
  top: "inception_4d/3x3"
  param {
    lr_mult: 1
    decay_mult: 1
  }
  param {
    lr_mult: 2
    decay_mult: 0
  }
  convolution_param {
    num_output: 288
    pad: 1
    kernel_size: 3
    weight_filler {
      type: "xavier"
      std: 0.03
    }
    bias_filler {
      type: "constant"
      value: 0.2
    }
  }
}
layer {
  name: "inception_4d/relu_3x3"
  type: "ReLU"
  bottom: "inception_4d/3x3"
  top: "inception_4d/3x3"
}
layer {
  name: "inception_4d/5x5_reduce"
  type: "Convolution"
  bottom: "inception_4c/output"
  top: "inception_4d/5x5_reduce"
  param {
    lr_mult: 1
    decay_mult: 1
  }
  param {
    lr_mult: 2
    decay_mult: 0
  }
  convolution_param {
    num_output: 32
    kernel_size: 1
    weight_filler {
      type: "xavier"
      std: 0.2
    }
    bias_filler {
      type: "constant"
      value: 0.2
    }
  }
}
layer {
  name: "inception_4d/relu_5x5_reduce"
  type: "ReLU"
  bottom: "inception_4d/5x5_reduce"
  top: "inception_4d/5x5_reduce"
}
layer {
  name: "inception_4d/5x5"
  type: "Convolution"
  bottom: "inception_4d/5x5_reduce"
  top: "inception_4d/5x5"
  param {
    lr_mult: 1
    decay_mult: 1
  }
  param {
    lr_mult: 2
    decay_mult: 0
  }
  convolution_param {
    num_output: 64
    pad: 2
    kernel_size: 5
    weight_filler {
      type: "xavier"
      std: 0.03
    }
    bias_filler {
      type: "constant"
      value: 0.2
    }
  }
}
layer {
  name: "inception_4d/relu_5x5"
  type: "ReLU"
  bottom: "inception_4d/5x5"
  top: "inception_4d/5x5"
}
layer {
  name: "inception_4d/pool"
  type: "Pooling"
  bottom: "inception_4c/output"
  top: "inception_4d/pool"
  pooling_param {
    pool: MAX
    kernel_size: 3
    stride: 1
    pad: 1
  }
}
layer {
  name: "inception_4d/pool_proj"
  type: "Convolution"
  bottom: "inception_4d/pool"
  top: "inception_4d/pool_proj"
  param {
    lr_mult: 1
    decay_mult: 1
  }
  param {
    lr_mult: 2
    decay_mult: 0
  }
  convolution_param {
    num_output: 64
    kernel_size: 1
    weight_filler {
      type: "xavier"
      std: 0.1
    }
    bias_filler {
      type: "constant"
      value: 0.2
    }
  }
}
layer {
  name: "inception_4d/relu_pool_proj"
  type: "ReLU"
  bottom: "inception_4d/pool_proj"
  top: "inception_4d/pool_proj"
}
layer {
  name: "inception_4d/output"
  type: "Concat"
  bottom: "inception_4d/1x1"
  bottom: "inception_4d/3x3"
  bottom: "inception_4d/5x5"
  bottom: "inception_4d/pool_proj"
  top: "inception_4d/output"
}
layer {
  name: "loss2/ave_pool"
  type: "Pooling"
  bottom: "inception_4d/output"
  top: "loss2/ave_pool"
  pooling_param {
    pool: AVE
    kernel_size: 5
    stride: 3
  }
}
layer {
  name: "loss2/conv"
  type: "Convolution"
  bottom: "loss2/ave_pool"
  top: "loss2/conv"
  param {
    lr_mult: 1
    decay_mult: 1
  }
  param {
    lr_mult: 2
    decay_mult: 0
  }
  convolution_param {
    num_output: 128
    kernel_size: 1
    weight_filler {
      type: "xavier"
      std: 0.08
    }
    bias_filler {
      type: "constant"
      value: 0.2
    }
  }
}
layer {
  name: "loss2/relu_conv"
  type: "ReLU"
  bottom: "loss2/conv"
  top: "loss2/conv"
}
layer {
  name: "loss2/fc"
  type: "InnerProduct"
  bottom: "loss2/conv"
  top: "loss2/fc"
  param {
    lr_mult: 1
    decay_mult: 1
  }
  param {
    lr_mult: 2
    decay_mult: 0
  }
  inner_product_param {
    num_output: 1024
    weight_filler {
      type: "xavier"
      std: 0.02
    }
    bias_filler {
      type: "constant"
      value: 0.2
    }
  }
}
layer {
  name: "loss2/relu_fc"
  type: "ReLU"
  bottom: "loss2/fc"
  top: "loss2/fc"
}
layer {
  name: "loss2/drop_fc"
  type: "Dropout"
  bottom: "loss2/fc"
  top: "loss2/fc"
  dropout_param {
    dropout_ratio: 0.7
  }
}
layer {
  name: "loss2/classifier_plantvillage"
  type: "InnerProduct"
  bottom: "loss2/fc"
  top: "loss2/classifier_plantvillage"
  param {
    lr_mult: 1
    decay_mult: 1
  }
  param {
    lr_mult: 2
    decay_mult: 0
  }
  inner_product_param {
    num_output: 38
    weight_filler {
      type: "xavier"
      std: 0.0009765625
    }
    bias_filler {
      type: "constant"
      value: 0
    }
  }
}
layer {
  name: "inception_4e/1x1"
  type: "Convolution"
  bottom: "inception_4d/output"
  top: "inception_4e/1x1"
  param {
    lr_mult: 1
    decay_mult: 1
  }
  param {
    lr_mult: 2
    decay_mult: 0
  }
  convolution_param {
    num_output: 256
    kernel_size: 1
    weight_filler {
      type: "xavier"
      std: 0.03
    }
    bias_filler {
      type: "constant"
      value: 0.2
    }
  }
}
layer {
  name: "inception_4e/relu_1x1"
  type: "ReLU"
  bottom: "inception_4e/1x1"
  top: "inception_4e/1x1"
}
layer {
  name: "inception_4e/3x3_reduce"
  type: "Convolution"
  bottom: "inception_4d/output"
  top: "inception_4e/3x3_reduce"
  param {
    lr_mult: 1
    decay_mult: 1
  }
  param {
    lr_mult: 2
    decay_mult: 0
  }
  convolution_param {
    num_output: 160
    kernel_size: 1
    weight_filler {
      type: "xavier"
      std: 0.09
    }
    bias_filler {
      type: "constant"
      value: 0.2
    }
  }
}
layer {
  name: "inception_4e/relu_3x3_reduce"
  type: "ReLU"
  bottom: "inception_4e/3x3_reduce"
  top: "inception_4e/3x3_reduce"
}
layer {
  name: "inception_4e/3x3"
  type: "Convolution"
  bottom: "inception_4e/3x3_reduce"
  top: "inception_4e/3x3"
  param {
    lr_mult: 1
    decay_mult: 1
  }
  param {
    lr_mult: 2
    decay_mult: 0
  }
  convolution_param {
    num_output: 320
    pad: 1
    kernel_size: 3
    weight_filler {
      type: "xavier"
      std: 0.03
    }
    bias_filler {
      type: "constant"
      value: 0.2
    }
  }
}
layer {
  name: "inception_4e/relu_3x3"
  type: "ReLU"
  bottom: "inception_4e/3x3"
  top: "inception_4e/3x3"
}
layer {
  name: "inception_4e/5x5_reduce"
  type: "Convolution"
  bottom: "inception_4d/output"
  top: "inception_4e/5x5_reduce"
  param {
    lr_mult: 1
    decay_mult: 1
  }
  param {
    lr_mult: 2
    decay_mult: 0
  }
  convolution_param {
    num_output: 32
    kernel_size: 1
    weight_filler {
      type: "xavier"
      std: 0.2
    }
    bias_filler {
      type: "constant"
      value: 0.2
    }
  }
}
layer {
  name: "inception_4e/relu_5x5_reduce"
  type: "ReLU"
  bottom: "inception_4e/5x5_reduce"
  top: "inception_4e/5x5_reduce"
}
layer {
  name: "inception_4e/5x5"
  type: "Convolution"
  bottom: "inception_4e/5x5_reduce"
  top: "inception_4e/
I0403 15:10:06.607939 11675 layer_factory.hpp:77] Creating layer data
I0403 15:10:06.608561 11675 net.cpp:91] Creating Layer data
I0403 15:10:06.608597 11675 net.cpp:399] data -> data
I0403 15:10:06.608649 11675 net.cpp:399] data -> label
I0403 15:10:06.608685 11675 data_transformer.cpp:25] Loading mean file from: /home/mohanty/data/final_dataset/lmdb/segmented-50-50/mean.binaryproto
I0403 15:10:06.611294 11678 db_lmdb.cpp:38] Opened lmdb /home/mohanty/data/final_dataset/lmdb/segmented-50-50/test_db
I0403 15:10:06.634305 11675 data_layer.cpp:41] output data size: 24,3,224,224
I0403 15:10:06.662454 11675 net.cpp:141] Setting up data
I0403 15:10:06.662549 11675 net.cpp:148] Top shape: 24 3 224 224 (3612672)
I0403 15:10:06.662575 11675 net.cpp:148] Top shape: 24 (24)
I0403 15:10:06.662591 11675 net.cpp:156] Memory required for data: 14450784
I0403 15:10:06.662619 11675 layer_factory.hpp:77] Creating layer label_data_1_split
I0403 15:10:06.662647 11675 net.cpp:91] Creating Layer label_data_1_split
I0403 15:10:06.662665 11675 net.cpp:425] label_data_1_split <- label
I0403 15:10:06.662698 11675 net.cpp:399] label_data_1_split -> label_data_1_split_0
I0403 15:10:06.662727 11675 net.cpp:399] label_data_1_split -> label_data_1_split_1
I0403 15:10:06.662749 11675 net.cpp:399] label_data_1_split -> label_data_1_split_2
I0403 15:10:06.662770 11675 net.cpp:399] label_data_1_split -> label_data_1_split_3
I0403 15:10:06.662789 11675 net.cpp:399] label_data_1_split -> label_data_1_split_4
I0403 15:10:06.662809 11675 net.cpp:399] label_data_1_split -> label_data_1_split_5
I0403 15:10:06.662829 11675 net.cpp:399] label_data_1_split -> label_data_1_split_6
I0403 15:10:06.662850 11675 net.cpp:399] label_data_1_split -> label_data_1_split_7
I0403 15:10:06.662870 11675 net.cpp:399] label_data_1_split -> label_data_1_split_8
I0403 15:10:06.662890 11675 net.cpp:399] label_data_1_split -> label_data_1_split_9
I0403 15:10:06.663009 11675 net.cpp:141] Setting up label_data_1_split
I0403 15:10:06.663033 11675 net.cpp:148] Top shape: 24 (24)
I0403 15:10:06.663051 11675 net.cpp:148] Top shape: 24 (24)
I0403 15:10:06.663067 11675 net.cpp:148] Top shape: 24 (24)
I0403 15:10:06.663084 11675 net.cpp:148] Top shape: 24 (24)
I0403 15:10:06.663100 11675 net.cpp:148] Top shape: 24 (24)
I0403 15:10:06.663115 11675 net.cpp:148] Top shape: 24 (24)
I0403 15:10:06.663130 11675 net.cpp:148] Top shape: 24 (24)
I0403 15:10:06.663146 11675 net.cpp:148] Top shape: 24 (24)
I0403 15:10:06.663162 11675 net.cpp:148] Top shape: 24 (24)
I0403 15:10:06.663178 11675 net.cpp:148] Top shape: 24 (24)
I0403 15:10:06.663223 11675 net.cpp:156] Memory required for data: 14451744
I0403 15:10:06.663239 11675 layer_factory.hpp:77] Creating layer conv1/7x7_s2
I0403 15:10:06.663270 11675 net.cpp:91] Creating Layer conv1/7x7_s2
I0403 15:10:06.663290 11675 net.cpp:425] conv1/7x7_s2 <- data
I0403 15:10:06.663310 11675 net.cpp:399] conv1/7x7_s2 -> conv1/7x7_s2
I0403 15:10:06.806534 11675 net.cpp:141] Setting up conv1/7x7_s2
I0403 15:10:06.806622 11675 net.cpp:148] Top shape: 24 64 112 112 (19267584)
I0403 15:10:06.806638 11675 net.cpp:156] Memory required for data: 91522080
I0403 15:10:06.806668 11675 layer_factory.hpp:77] Creating layer conv1/relu_7x7
I0403 15:10:06.806694 11675 net.cpp:91] Creating Layer conv1/relu_7x7
I0403 15:10:06.806711 11675 net.cpp:425] conv1/relu_7x7 <- conv1/7x7_s2
I0403 15:10:06.806730 11675 net.cpp:386] conv1/relu_7x7 -> conv1/7x7_s2 (in-place)
I0403 15:10:06.806982 11675 net.cpp:141] Setting up conv1/relu_7x7
I0403 15:10:06.807008 11675 net.cpp:148] Top shape: 24 64 112 112 (19267584)
I0403 15:10:06.807024 11675 net.cpp:156] Memory required for data: 168592416
I0403 15:10:06.807039 11675 layer_factory.hpp:77] Creating layer pool1/3x3_s2
I0403 15:10:06.807063 11675 net.cpp:91] Creating Layer pool1/3x3_s2
I0403 15:10:06.807080 11675 net.cpp:425] pool1/3x3_s2 <- conv1/7x7_s2
I0403 15:10:06.807102 11675 net.cpp:399] pool1/3x3_s2 -> pool1/3x3_s2
I0403 15:10:06.807178 11675 net.cpp:141] Setting up pool1/3x3_s2
I0403 15:10:06.807202 11675 net.cpp:148] Top shape: 24 64 56 56 (4816896)
I0403 15:10:06.807217 11675 net.cpp:156] Memory required for data: 187860000
I0403 15:10:06.807232 11675 layer_factory.hpp:77] Creating layer pool1/norm1
I0403 15:10:06.807255 11675 net.cpp:91] Creating Layer pool1/norm1
I0403 15:10:06.807272 11675 net.cpp:425] pool1/norm1 <- pool1/3x3_s2
I0403 15:10:06.807289 11675 net.cpp:399] pool1/norm1 -> pool1/norm1
I0403 15:10:06.807591 11675 net.cpp:141] Setting up pool1/norm1
I0403 15:10:06.807621 11675 net.cpp:148] Top shape: 24 64 56 56 (4816896)
I0403 15:10:06.807636 11675 net.cpp:156] Memory required for data: 207127584
I0403 15:10:06.807651 11675 layer_factory.hpp:77] Creating layer conv2/3x3_reduce
I0403 15:10:06.807677 11675 net.cpp:91] Creating Layer conv2/3x3_reduce
I0403 15:10:06.807694 11675 net.cpp:425] conv2/3x3_reduce <- pool1/norm1
I0403 15:10:06.807723 11675 net.cpp:399] conv2/3x3_reduce -> conv2/3x3_reduce
I0403 15:10:06.809088 11675 net.cpp:141] Setting up conv2/3x3_reduce
I0403 15:10:06.809116 11675 net.cpp:148] Top shape: 24 64 56 56 (4816896)
I0403 15:10:06.809133 11675 net.cpp:156] Memory required for data: 226395168
I0403 15:10:06.809154 11675 layer_factory.hpp:77] Creating layer conv2/relu_3x3_reduce
I0403 15:10:06.809175 11675 net.cpp:91] Creating Layer conv2/relu_3x3_reduce
I0403 15:10:06.809191 11675 net.cpp:425] conv2/relu_3x3_reduce <- conv2/3x3_reduce
I0403 15:10:06.809208 11675 net.cpp:386] conv2/relu_3x3_reduce -> conv2/3x3_reduce (in-place)
I0403 15:10:06.809495 11675 net.cpp:141] Setting up conv2/relu_3x3_reduce
I0403 15:10:06.809522 11675 net.cpp:148] Top shape: 24 64 56 56 (4816896)
I0403 15:10:06.809537 11675 net.cpp:156] Memory required for data: 245662752
I0403 15:10:06.809552 11675 layer_factory.hpp:77] Creating layer conv2/3x3
I0403 15:10:06.809577 11675 net.cpp:91] Creating Layer conv2/3x3
I0403 15:10:06.809593 11675 net.cpp:425] conv2/3x3 <- conv2/3x3_reduce
I0403 15:10:06.809615 11675 net.cpp:399] conv2/3x3 -> conv2/3x3
I0403 15:10:06.811959 11675 net.cpp:141] Setting up conv2/3x3
I0403 15:10:06.811990 11675 net.cpp:148] Top shape: 24 192 56 56 (14450688)
I0403 15:10:06.812005 11675 net.cpp:156] Memory required for data: 303465504
I0403 15:10:06.812029 11675 layer_factory.hpp:77] Creating layer conv2/relu_3x3
I0403 15:10:06.812048 11675 net.cpp:91] Creating Layer conv2/relu_3x3
I0403 15:10:06.812064 11675 net.cpp:425] conv2/relu_3x3 <- conv2/3x3
I0403 15:10:06.812083 11675 net.cpp:386] conv2/relu_3x3 -> conv2/3x3 (in-place)
I0403 15:10:06.812261 11675 net.cpp:141] Setting up conv2/relu_3x3
I0403 15:10:06.812289 11675 net.cpp:148] Top shape: 24 192 56 56 (14450688)
I0403 15:10:06.812337 11675 net.cpp:156] Memory required for data: 361268256
I0403 15:10:06.812353 11675 layer_factory.hpp:77] Creating layer conv2/norm2
I0403 15:10:06.812372 11675 net.cpp:91] Creating Layer conv2/norm2
I0403 15:10:06.812388 11675 net.cpp:425] conv2/norm2 <- conv2/3x3
I0403 15:10:06.812418 11675 net.cpp:399] conv2/norm2 -> conv2/norm2
I0403 15:10:06.812734 11675 net.cpp:141] Setting up conv2/norm2
I0403 15:10:06.812762 11675 net.cpp:148] Top shape: 24 192 56 56 (14450688)
I0403 15:10:06.812777 11675 net.cpp:156] Memory required for data: 419071008
I0403 15:10:06.812791 11675 layer_factory.hpp:77] Creating layer pool2/3x3_s2
I0403 15:10:06.812809 11675 net.cpp:91] Creating Layer pool2/3x3_s2
I0403 15:10:06.812824 11675 net.cpp:425] pool2/3x3_s2 <- conv2/norm2
I0403 15:10:06.812844 11675 net.cpp:399] pool2/3x3_s2 -> pool2/3x3_s2
I0403 15:10:06.812899 11675 net.cpp:141] Setting up pool2/3x3_s2
I0403 15:10:06.812922 11675 net.cpp:148] Top shape: 24 192 28 28 (3612672)
I0403 15:10:06.812937 11675 net.cpp:156] Memory required for data: 433521696
I0403 15:10:06.812952 11675 layer_factory.hpp:77] Creating layer pool2/3x3_s2_pool2/3x3_s2_0_split
I0403 15:10:06.812969 11675 net.cpp:91] Creating Layer pool2/3x3_s2_pool2/3x3_s2_0_split
I0403 15:10:06.812984 11675 net.cpp:425] pool2/3x3_s2_pool2/3x3_s2_0_split <- pool2/3x3_s2
I0403 15:10:06.813002 11675 net.cpp:399] pool2/3x3_s2_pool2/3x3_s2_0_split -> pool2/3x3_s2_pool2/3x3_s2_0_split_0
I0403 15:10:06.813024 11675 net.cpp:399] pool2/3x3_s2_pool2/3x3_s2_0_split -> pool2/3x3_s2_pool2/3x3_s2_0_split_1
I0403 15:10:06.813045 11675 net.cpp:399] pool2/3x3_s2_pool2/3x3_s2_0_split -> pool2/3x3_s2_pool2/3x3_s2_0_split_2
I0403 15:10:06.813063 11675 net.cpp:399] pool2/3x3_s2_pool2/3x3_s2_0_split -> pool2/3x3_s2_pool2/3x3_s2_0_split_3
I0403 15:10:06.813136 11675 net.cpp:141] Setting up pool2/3x3_s2_pool2/3x3_s2_0_split
I0403 15:10:06.813159 11675 net.cpp:148] Top shape: 24 192 28 28 (3612672)
I0403 15:10:06.813176 11675 net.cpp:148] Top shape: 24 192 28 28 (3612672)
I0403 15:10:06.813191 11675 net.cpp:148] Top shape: 24 192 28 28 (3612672)
I0403 15:10:06.813207 11675 net.cpp:148] Top shape: 24 192 28 28 (3612672)
I0403 15:10:06.813220 11675 net.cpp:156] Memory required for data: 491324448
I0403 15:10:06.813235 11675 layer_factory.hpp:77] Creating layer inception_3a/1x1
I0403 15:10:06.813259 11675 net.cpp:91] Creating Layer inception_3a/1x1
I0403 15:10:06.813277 11675 net.cpp:425] inception_3a/1x1 <- pool2/3x3_s2_pool2/3x3_s2_0_split_0
I0403 15:10:06.813295 11675 net.cpp:399] inception_3a/1x1 -> inception_3a/1x1
I0403 15:10:06.814860 11675 net.cpp:141] Setting up inception_3a/1x1
I0403 15:10:06.814889 11675 net.cpp:148] Top shape: 24 64 28 28 (1204224)
I0403 15:10:06.814905 11675 net.cpp:156] Memory required for data: 496141344
I0403 15:10:06.814924 11675 layer_factory.hpp:77] Creating layer inception_3a/relu_1x1
I0403 15:10:06.814944 11675 net.cpp:91] Creating Layer inception_3a/relu_1x1
I0403 15:10:06.814961 11675 net.cpp:425] inception_3a/relu_1x1 <- inception_3a/1x1
I0403 15:10:06.814980 11675 net.cpp:386] inception_3a/relu_1x1 -> inception_3a/1x1 (in-place)
I0403 15:10:06.815156 11675 net.cpp:141] Setting up inception_3a/relu_1x1
I0403 15:10:06.815183 11675 net.cpp:148] Top shape: 24 64 28 28 (1204224)
I0403 15:10:06.815199 11675 net.cpp:156] Memory required for data: 500958240
I0403 15:10:06.815214 11675 layer_factory.hpp:77] Creating layer inception_3a/3x3_reduce
I0403 15:10:06.815237 11675 net.cpp:91] Creating Layer inception_3a/3x3_reduce
I0403 15:10:06.815254 11675 net.cpp:425] inception_3a/3x3_reduce <- pool2/3x3_s2_pool2/3x3_s2_0_split_1
I0403 15:10:06.815274 11675 net.cpp:399] inception_3a/3x3_reduce -> inception_3a/3x3_reduce
I0403 15:10:06.817049 11675 net.cpp:141] Setting up inception_3a/3x3_reduce
I0403 15:10:06.817091 11675 net.cpp:148] Top shape: 24 96 28 28 (1806336)
I0403 15:10:06.817107 11675 net.cpp:156] Memory required for data: 508183584
I0403 15:10:06.817131 11675 layer_factory.hpp:77] Creating layer inception_3a/relu_3x3_reduce
I0403 15:10:06.817167 11675 net.cpp:91] Creating Layer inception_3a/relu_3x3_reduce
I0403 15:10:06.817184 11675 net.cpp:425] inception_3a/relu_3x3_reduce <- inception_3a/3x3_reduce
I0403 15:10:06.817203 11675 net.cpp:386] inception_3a/relu_3x3_reduce -> inception_3a/3x3_reduce (in-place)
I0403 15:10:06.817391 11675 net.cpp:141] Setting up inception_3a/relu_3x3_reduce
I0403 15:10:06.817420 11675 net.cpp:148] Top shape: 24 96 28 28 (1806336)
I0403 15:10:06.817436 11675 net.cpp:156] Memory required for data: 515408928
I0403 15:10:06.817451 11675 layer_factory.hpp:77] Creating layer inception_3a/3x3
I0403 15:10:06.817477 11675 net.cpp:91] Creating Layer inception_3a/3x3
I0403 15:10:06.817497 11675 net.cpp:425] inception_3a/3x3 <- inception_3a/3x3_reduce
I0403 15:10:06.817517 11675 net.cpp:399] inception_3a/3x3 -> inception_3a/3x3
I0403 15:10:06.819193 11675 net.cpp:141] Setting up inception_3a/3x3
I0403 15:10:06.819222 11675 net.cpp:148] Top shape: 24 128 28 28 (2408448)
I0403 15:10:06.819238 11675 net.cpp:156] Memory required for data: 525042720
I0403 15:10:06.819257 11675 layer_factory.hpp:77] Creating layer inception_3a/relu_3x3
I0403 15:10:06.819278 11675 net.cpp:91] Creating Layer inception_3a/relu_3x3
I0403 15:10:06.819294 11675 net.cpp:425] inception_3a/relu_3x3 <- inception_3a/3x3
I0403 15:10:06.819313 11675 net.cpp:386] inception_3a/relu_3x3 -> inception_3a/3x3 (in-place)
I0403 15:10:06.819594 11675 net.cpp:141] Setting up inception_3a/relu_3x3
I0403 15:10:06.819620 11675 net.cpp:148] Top shape: 24 128 28 28 (2408448)
I0403 15:10:06.819636 11675 net.cpp:156] Memory required for data: 534676512
I0403 15:10:06.819653 11675 layer_factory.hpp:77] Creating layer inception_3a/5x5_reduce
I0403 15:10:06.819684 11675 net.cpp:91] Creating Layer inception_3a/5x5_reduce
I0403 15:10:06.819702 11675 net.cpp:425] inception_3a/5x5_reduce <- pool2/3x3_s2_pool2/3x3_s2_0_split_2
I0403 15:10:06.819722 11675 net.cpp:399] inception_3a/5x5_reduce -> inception_3a/5x5_reduce
I0403 15:10:06.820703 11675 net.cpp:141] Setting up inception_3a/5x5_reduce
I0403 15:10:06.820732 11675 net.cpp:148] Top shape: 24 16 28 28 (301056)
I0403 15:10:06.820747 11675 net.cpp:156] Memory required for data: 535880736
I0403 15:10:06.820766 11675 layer_factory.hpp:77] Creating layer inception_3a/relu_5x5_reduce
I0403 15:10:06.820786 11675 net.cpp:91] Creating Layer inception_3a/relu_5x5_reduce
I0403 15:10:06.820802 11675 net.cpp:425] inception_3a/relu_5x5_reduce <- inception_3a/5x5_reduce
I0403 15:10:06.820819 11675 net.cpp:386] inception_3a/relu_5x5_reduce -> inception_3a/5x5_reduce (in-place)
I0403 15:10:06.821123 11675 net.cpp:141] Setting up inception_3a/relu_5x5_reduce
I0403 15:10:06.821152 11675 net.cpp:148] Top shape: 24 16 28 28 (301056)
I0403 15:10:06.821168 11675 net.cpp:156] Memory required for data: 537084960
I0403 15:10:06.821184 11675 layer_factory.hpp:77] Creating layer inception_3a/5x5
I0403 15:10:06.821209 11675 net.cpp:91] Creating Layer inception_3a/5x5
I0403 15:10:06.821226 11675 net.cpp:425] inception_3a/5x5 <- inception_3a/5x5_reduce
I0403 15:10:06.821245 11675 net.cpp:399] inception_3a/5x5 -> inception_3a/5x5
I0403 15:10:06.822280 11675 net.cpp:141] Setting up inception_3a/5x5
I0403 15:10:06.822309 11675 net.cpp:148] Top shape: 24 32 28 28 (602112)
I0403 15:10:06.822325 11675 net.cpp:156] Memory required for data: 539493408
I0403 15:10:06.822345 11675 layer_factory.hpp:77] Creating layer inception_3a/relu_5x5
I0403 15:10:06.822365 11675 net.cpp:91] Creating Layer inception_3a/relu_5x5
I0403 15:10:06.822386 11675 net.cpp:425] inception_3a/relu_5x5 <- inception_3a/5x5
I0403 15:10:06.822403 11675 net.cpp:386] inception_3a/relu_5x5 -> inception_3a/5x5 (in-place)
I0403 15:10:06.822590 11675 net.cpp:141] Setting up inception_3a/relu_5x5
I0403 15:10:06.822618 11675 net.cpp:148] Top shape: 24 32 28 28 (602112)
I0403 15:10:06.822635 11675 net.cpp:156] Memory required for data: 541901856
I0403 15:10:06.822649 11675 layer_factory.hpp:77] Creating layer inception_3a/pool
I0403 15:10:06.822667 11675 net.cpp:91] Creating Layer inception_3a/pool
I0403 15:10:06.822698 11675 net.cpp:425] inception_3a/pool <- pool2/3x3_s2_pool2/3x3_s2_0_split_3
I0403 15:10:06.822717 11675 net.cpp:399] inception_3a/pool -> inception_3a/pool
I0403 15:10:06.822777 11675 net.cpp:141] Setting up inception_3a/pool
I0403 15:10:06.822800 11675 net.cpp:148] Top shape: 24 192 28 28 (3612672)
I0403 15:10:06.822816 11675 net.cpp:156] Memory required for data: 556352544
I0403 15:10:06.822830 11675 layer_factory.hpp:77] Creating layer inception_3a/pool_proj
I0403 15:10:06.822852 11675 net.cpp:91] Creating Layer inception_3a/pool_proj
I0403 15:10:06.822870 11675 net.cpp:425] inception_3a/pool_proj <- inception_3a/pool
I0403 15:10:06.822892 11675 net.cpp:399] inception_3a/pool_proj -> inception_3a/pool_proj
I0403 15:10:06.823878 11675 net.cpp:141] Setting up inception_3a/pool_proj
I0403 15:10:06.823907 11675 net.cpp:148] Top shape: 24 32 28 28 (602112)
I0403 15:10:06.823923 11675 net.cpp:156] Memory required for data: 558760992
I0403 15:10:06.823945 11675 layer_factory.hpp:77] Creating layer inception_3a/relu_pool_proj
I0403 15:10:06.823966 11675 net.cpp:91] Creating Layer inception_3a/relu_pool_proj
I0403 15:10:06.823982 11675 net.cpp:425] inception_3a/relu_pool_proj <- inception_3a/pool_proj
I0403 15:10:06.824000 11675 net.cpp:386] inception_3a/relu_pool_proj -> inception_3a/pool_proj (in-place)
I0403 15:10:06.824281 11675 net.cpp:141] Setting up inception_3a/relu_pool_proj
I0403 15:10:06.824308 11675 net.cpp:148] Top shape: 24 32 28 28 (602112)
I0403 15:10:06.824323 11675 net.cpp:156] Memory required for data: 561169440
I0403 15:10:06.824339 11675 layer_factory.hpp:77] Creating layer inception_3a/output
I0403 15:10:06.824360 11675 net.cpp:91] Creating Layer inception_3a/output
I0403 15:10:06.824378 11675 net.cpp:425] inception_3a/output <- inception_3a/1x1
I0403 15:10:06.824395 11675 net.cpp:425] inception_3a/output <- inception_3a/3x3
I0403 15:10:06.824414 11675 net.cpp:425] inception_3a/output <- inception_3a/5x5
I0403 15:10:06.824432 11675 net.cpp:425] inception_3a/output <- inception_3a/pool_proj
I0403 15:10:06.824450 11675 net.cpp:399] inception_3a/output -> inception_3a/output
I0403 15:10:06.824501 11675 net.cpp:141] Setting up inception_3a/output
I0403 15:10:06.824524 11675 net.cpp:148] Top shape: 24 256 28 28 (4816896)
I0403 15:10:06.824539 11675 net.cpp:156] Memory required for data: 580437024
I0403 15:10:06.824553 11675 layer_factory.hpp:77] Creating layer inception_3a/output_inception_3a/output_0_split
I0403 15:10:06.824570 11675 net.cpp:91] Creating Layer inception_3a/output_inception_3a/output_0_split
I0403 15:10:06.824585 11675 net.cpp:425] inception_3a/output_inception_3a/output_0_split <- inception_3a/output
I0403 15:10:06.824605 11675 net.cpp:399] inception_3a/output_inception_3a/output_0_split -> inception_3a/output_inception_3a/output_0_split_0
I0403 15:10:06.824625 11675 net.cpp:399] inception_3a/output_inception_3a/output_0_split -> inception_3a/output_inception_3a/output_0_split_1
I0403 15:10:06.824651 11675 net.cpp:399] inception_3a/output_inception_3a/output_0_split -> inception_3a/output_inception_3a/output_0_split_2
I0403 15:10:06.824672 11675 net.cpp:399] inception_3a/output_inception_3a/output_0_split -> inception_3a/output_inception_3a/output_0_split_3
I0403 15:10:06.824746 11675 net.cpp:141] Setting up inception_3a/output_inception_3a/output_0_split
I0403 15:10:06.824770 11675 net.cpp:148] Top shape: 24 256 28 28 (4816896)
I0403 15:10:06.824787 11675 net.cpp:148] Top shape: 24 256 28 28 (4816896)
I0403 15:10:06.824803 11675 net.cpp:148] Top shape: 24 256 28 28 (4816896)
I0403 15:10:06.824818 11675 net.cpp:148] Top shape: 24 256 28 28 (4816896)
I0403 15:10:06.824832 11675 net.cpp:156] Memory required for data: 657507360
I0403 15:10:06.824846 11675 layer_factory.hpp:77] Creating layer inception_3b/1x1
I0403 15:10:06.824869 11675 net.cpp:91] Creating Layer inception_3b/1x1
I0403 15:10:06.824887 11675 net.cpp:425] inception_3b/1x1 <- inception_3a/output_inception_3a/output_0_split_0
I0403 15:10:06.824908 11675 net.cpp:399] inception_3b/1x1 -> inception_3b/1x1
I0403 15:10:06.826081 11675 net.cpp:141] Setting up inception_3b/1x1
I0403 15:10:06.826122 11675 net.cpp:148] Top shape: 24 128 28 28 (2408448)
I0403 15:10:06.826139 11675 net.cpp:156] Memory required for data: 667141152
I0403 15:10:06.826158 11675 layer_factory.hpp:77] Creating layer inception_3b/relu_1x1
I0403 15:10:06.826179 11675 net.cpp:91] Creating Layer inception_3b/relu_1x1
I0403 15:10:06.826197 11675 net.cpp:425] inception_3b/relu_1x1 <- inception_3b/1x1
I0403 15:10:06.826215 11675 net.cpp:386] inception_3b/relu_1x1 -> inception_3b/1x1 (in-place)
I0403 15:10:06.826392 11675 net.cpp:141] Setting up inception_3b/relu_1x1
I0403 15:10:06.826421 11675 net.cpp:148] Top shape: 24 128 28 28 (2408448)
I0403 15:10:06.826437 11675 net.cpp:156] Memory required for data: 676774944
I0403 15:10:06.826452 11675 layer_factory.hpp:77] Creating layer inception_3b/3x3_reduce
I0403 15:10:06.826478 11675 net.cpp:91] Creating Layer inception_3b/3x3_reduce
I0403 15:10:06.826494 11675 net.cpp:425] inception_3b/3x3_reduce <- inception_3a/output_inception_3a/output_0_split_1
I0403 15:10:06.826514 11675 net.cpp:399] inception_3b/3x3_reduce -> inception_3b/3x3_reduce
I0403 15:10:06.827677 11675 net.cpp:141] Setting up inception_3b/3x3_reduce
I0403 15:10:06.827707 11675 net.cpp:148] Top shape: 24 128 28 28 (2408448)
I0403 15:10:06.827723 11675 net.cpp:156] Memory required for data: 686408736
I0403 15:10:06.827740 11675 layer_factory.hpp:77] Creating layer inception_3b/relu_3x3_reduce
I0403 15:10:06.827759 11675 net.cpp:91] Creating Layer inception_3b/relu_3x3_reduce
I0403 15:10:06.827775 11675 net.cpp:425] inception_3b/relu_3x3_reduce <- inception_3b/3x3_reduce
I0403 15:10:06.827795 11675 net.cpp:386] inception_3b/relu_3x3_reduce -> inception_3b/3x3_reduce (in-place)
I0403 15:10:06.827971 11675 net.cpp:141] Setting up inception_3b/relu_3x3_reduce
I0403 15:10:06.827996 11675 net.cpp:148] Top shape: 24 128 28 28 (2408448)
I0403 15:10:06.828011 11675 net.cpp:156] Memory required for data: 696042528
I0403 15:10:06.828025 11675 layer_factory.hpp:77] Creating layer inception_3b/3x3
I0403 15:10:06.828054 11675 net.cpp:91] Creating Layer inception_3b/3x3
I0403 15:10:06.828073 11675 net.cpp:425] inception_3b/3x3 <- inception_3b/3x3_reduce
I0403 15:10:06.828094 11675 net.cpp:399] inception_3b/3x3 -> inception_3b/3x3
I0403 15:10:06.831060 11675 net.cpp:141] Setting up inception_3b/3x3
I0403 15:10:06.831089 11675 net.cpp:148] Top shape: 24 192 28 28 (3612672)
I0403 15:10:06.831104 11675 net.cpp:156] Memory required for data: 710493216
I0403 15:10:06.831121 11675 layer_factory.hpp:77] Creating layer inception_3b/relu_3x3
I0403 15:10:06.831141 11675 net.cpp:91] Creating Layer inception_3b/relu_3x3
I0403 15:10:06.831158 11675 net.cpp:425] inception_3b/relu_3x3 <- inception_3b/3x3
I0403 15:10:06.831176 11675 net.cpp:386] inception_3b/relu_3x3 -> inception_3b/3x3 (in-place)
I0403 15:10:06.831467 11675 net.cpp:141] Setting up inception_3b/relu_3x3
I0403 15:10:06.831496 11675 net.cpp:148] Top shape: 24 192 28 28 (3612672)
I0403 15:10:06.831511 11675 net.cpp:156] Memory required for data: 724943904
I0403 15:10:06.831526 11675 layer_factory.hpp:77] Creating layer inception_3b/5x5_reduce
I0403 15:10:06.831550 11675 net.cpp:91] Creating Layer inception_3b/5x5_reduce
I0403 15:10:06.831570 11675 net.cpp:425] inception_3b/5x5_reduce <- inception_3a/output_inception_3a/output_0_split_2
I0403 15:10:06.831589 11675 net.cpp:399] inception_3b/5x5_reduce -> inception_3b/5x5_reduce
I0403 15:10:06.832581 11675 net.cpp:141] Setting up inception_3b/5x5_reduce
I0403 15:10:06.832607 11675 net.cpp:148] Top shape: 24 32 28 28 (602112)
I0403 15:10:06.832623 11675 net.cpp:156] Memory required for data: 727352352
I0403 15:10:06.832639 11675 layer_factory.hpp:77] Creating layer inception_3b/relu_5x5_reduce
I0403 15:10:06.832659 11675 net.cpp:91] Creating Layer inception_3b/relu_5x5_reduce
I0403 15:10:06.832675 11675 net.cpp:425] inception_3b/relu_5x5_reduce <- inception_3b/5x5_reduce
I0403 15:10:06.832691 11675 net.cpp:386] inception_3b/relu_5x5_reduce -> inception_3b/5x5_reduce (in-place)
I0403 15:10:06.832876 11675 net.cpp:141] Setting up inception_3b/relu_5x5_reduce
I0403 15:10:06.832903 11675 net.cpp:148] Top shape: 24 32 28 28 (602112)
I0403 15:10:06.832917 11675 net.cpp:156] Memory required for data: 729760800
I0403 15:10:06.832931 11675 layer_factory.hpp:77] Creating layer inception_3b/5x5
I0403 15:10:06.832952 11675 net.cpp:91] Creating Layer inception_3b/5x5
I0403 15:10:06.832968 11675 net.cpp:425] inception_3b/5x5 <- inception_3b/5x5_reduce
I0403 15:10:06.832986 11675 net.cpp:399] inception_3b/5x5 -> inception_3b/5x5
I0403 15:10:06.834933 11675 net.cpp:141] Setting up inception_3b/5x5
I0403 15:10:06.834960 11675 net.cpp:148] Top shape: 24 96 28 28 (1806336)
I0403 15:10:06.834975 11675 net.cpp:156] Memory required for data: 736986144
I0403 15:10:06.834992 11675 layer_factory.hpp:77] Creating layer inception_3b/relu_5x5
I0403 15:10:06.835008 11675 net.cpp:91] Creating Layer inception_3b/relu_5x5
I0403 15:10:06.835023 11675 net.cpp:425] inception_3b/relu_5x5 <- inception_3b/5x5
I0403 15:10:06.835042 11675 net.cpp:386] inception_3b/relu_5x5 -> inception_3b/5x5 (in-place)
I0403 15:10:06.835228 11675 net.cpp:141] Setting up inception_3b/relu_5x5
I0403 15:10:06.835253 11675 net.cpp:148] Top shape: 24 96 28 28 (1806336)
I0403 15:10:06.835268 11675 net.cpp:156] Memory required for data: 744211488
I0403 15:10:06.835281 11675 layer_factory.hpp:77] Creating layer inception_3b/pool
I0403 15:10:06.835299 11675 net.cpp:91] Creating Layer inception_3b/pool
I0403 15:10:06.835314 11675 net.cpp:425] inception_3b/pool <- inception_3a/output_inception_3a/output_0_split_3
I0403 15:10:06.835333 11675 net.cpp:399] inception_3b/pool -> inception_3b/pool
I0403 15:10:06.835386 11675 net.cpp:141] Setting up inception_3b/pool
I0403 15:10:06.835407 11675 net.cpp:148] Top shape: 24 256 28 28 (4816896)
I0403 15:10:06.835425 11675 net.cpp:156] Memory required for data: 763479072
I0403 15:10:06.835439 11675 layer_factory.hpp:77] Creating layer inception_3b/pool_proj
I0403 15:10:06.835461 11675 net.cpp:91] Creating Layer inception_3b/pool_proj
I0403 15:10:06.835479 11675 net.cpp:425] inception_3b/pool_proj <- inception_3b/pool
I0403 15:10:06.835499 11675 net.cpp:399] inception_3b/pool_proj -> inception_3b/pool_proj
I0403 15:10:06.836513 11675 net.cpp:141] Setting up inception_3b/pool_proj
I0403 15:10:06.836542 11675 net.cpp:148] Top shape: 24 64 28 28 (1204224)
I0403 15:10:06.836557 11675 net.cpp:156] Memory required for data: 768295968
I0403 15:10:06.836575 11675 layer_factory.hpp:77] Creating layer inception_3b/relu_pool_proj
I0403 15:10:06.836592 11675 net.cpp:91] Creating Layer inception_3b/relu_pool_proj
I0403 15:10:06.836608 11675 net.cpp:425] inception_3b/relu_pool_proj <- inception_3b/pool_proj
I0403 15:10:06.836627 11675 net.cpp:386] inception_3b/relu_pool_proj -> inception_3b/pool_proj (in-place)
I0403 15:10:06.837005 11675 net.cpp:141] Setting up inception_3b/relu_pool_proj
I0403 15:10:06.837033 11675 net.cpp:148] Top shape: 24 64 28 28 (1204224)
I0403 15:10:06.837047 11675 net.cpp:156] Memory required for data: 773112864
I0403 15:10:06.837062 11675 layer_factory.hpp:77] Creating layer inception_3b/output
I0403 15:10:06.837079 11675 net.cpp:91] Creating Layer inception_3b/output
I0403 15:10:06.837093 11675 net.cpp:425] inception_3b/output <- inception_3b/1x1
I0403 15:10:06.837108 11675 net.cpp:425] inception_3b/output <- inception_3b/3x3
I0403 15:10:06.837123 11675 net.cpp:425] inception_3b/output <- inception_3b/5x5
I0403 15:10:06.837138 11675 net.cpp:425] inception_3b/output <- inception_3b/pool_proj
I0403 15:10:06.837155 11675 net.cpp:399] inception_3b/output -> inception_3b/output
I0403 15:10:06.837198 11675 net.cpp:141] Setting up inception_3b/output
I0403 15:10:06.837219 11675 net.cpp:148] Top shape: 24 480 28 28 (9031680)
I0403 15:10:06.837234 11675 net.cpp:156] Memory required for data: 809239584
I0403 15:10:06.837246 11675 layer_factory.hpp:77] Creating layer pool3/3x3_s2
I0403 15:10:06.837265 11675 net.cpp:91] Creating Layer pool3/3x3_s2
I0403 15:10:06.837281 11675 net.cpp:425] pool3/3x3_s2 <- inception_3b/output
I0403 15:10:06.837327 11675 net.cpp:399] pool3/3x3_s2 -> pool3/3x3_s2
I0403 15:10:06.837388 11675 net.cpp:141] Setting up pool3/3x3_s2
I0403 15:10:06.837414 11675 net.cpp:148] Top shape: 24 480 14 14 (2257920)
I0403 15:10:06.837430 11675 net.cpp:156] Memory required for data: 818271264
I0403 15:10:06.837445 11675 layer_factory.hpp:77] Creating layer pool3/3x3_s2_pool3/3x3_s2_0_split
I0403 15:10:06.837462 11675 net.cpp:91] Creating Layer pool3/3x3_s2_pool3/3x3_s2_0_split
I0403 15:10:06.837477 11675 net.cpp:425] pool3/3x3_s2_pool3/3x3_s2_0_split <- pool3/3x3_s2
I0403 15:10:06.837496 11675 net.cpp:399] pool3/3x3_s2_pool3/3x3_s2_0_split -> pool3/3x3_s2_pool3/3x3_s2_0_split_0
I0403 15:10:06.837517 11675 net.cpp:399] pool3/3x3_s2_pool3/3x3_s2_0_split -> pool3/3x3_s2_pool3/3x3_s2_0_split_1
I0403 15:10:06.837535 11675 net.cpp:399] pool3/3x3_s2_pool3/3x3_s2_0_split -> pool3/3x3_s2_pool3/3x3_s2_0_split_2
I0403 15:10:06.837553 11675 net.cpp:399] pool3/3x3_s2_pool3/3x3_s2_0_split -> pool3/3x3_s2_pool3/3x3_s2_0_split_3
I0403 15:10:06.837640 11675 net.cpp:141] Setting up pool3/3x3_s2_pool3/3x3_s2_0_split
I0403 15:10:06.837663 11675 net.cpp:148] Top shape: 24 480 14 14 (2257920)
I0403 15:10:06.837680 11675 net.cpp:148] Top shape: 24 480 14 14 (2257920)
I0403 15:10:06.837695 11675 net.cpp:148] Top shape: 24 480 14 14 (2257920)
I0403 15:10:06.837710 11675 net.cpp:148] Top shape: 24 480 14 14 (2257920)
I0403 15:10:06.837723 11675 net.cpp:156] Memory required for data: 854397984
I0403 15:10:06.837738 11675 layer_factory.hpp:77] Creating layer inception_4a/1x1
I0403 15:10:06.837759 11675 net.cpp:91] Creating Layer inception_4a/1x1
I0403 15:10:06.837775 11675 net.cpp:425] inception_4a/1x1 <- pool3/3x3_s2_pool3/3x3_s2_0_split_0
I0403 15:10:06.837792 11675 net.cpp:399] inception_4a/1x1 -> inception_4a/1x1
I0403 15:10:06.839315 11675 net.cpp:141] Setting up inception_4a/1x1
I0403 15:10:06.839345 11675 net.cpp:148] Top shape: 24 192 14 14 (903168)
I0403 15:10:06.839360 11675 net.cpp:156] Memory required for data: 858010656
I0403 15:10:06.839377 11675 layer_factory.hpp:77] Creating layer inception_4a/relu_1x1
I0403 15:10:06.839395 11675 net.cpp:91] Creating Layer inception_4a/relu_1x1
I0403 15:10:06.839416 11675 net.cpp:425] inception_4a/relu_1x1 <- inception_4a/1x1
I0403 15:10:06.839437 11675 net.cpp:386] inception_4a/relu_1x1 -> inception_4a/1x1 (in-place)
I0403 15:10:06.839622 11675 net.cpp:141] Setting up inception_4a/relu_1x1
I0403 15:10:06.839645 11675 net.cpp:148] Top shape: 24 192 14 14 (903168)
I0403 15:10:06.839659 11675 net.cpp:156] Memory required for data: 861623328
I0403 15:10:06.839673 11675 layer_factory.hpp:77] Creating layer inception_4a/3x3_reduce
I0403 15:10:06.839694 11675 net.cpp:91] Creating Layer inception_4a/3x3_reduce
I0403 15:10:06.839711 11675 net.cpp:425] inception_4a/3x3_reduce <- pool3/3x3_s2_pool3/3x3_s2_0_split_1
I0403 15:10:06.839731 11675 net.cpp:399] inception_4a/3x3_reduce -> inception_4a/3x3_reduce
I0403 15:10:06.840983 11675 net.cpp:141] Setting up inception_4a/3x3_reduce
I0403 15:10:06.841012 11675 net.cpp:148] Top shape: 24 96 14 14 (451584)
I0403 15:10:06.841027 11675 net.cpp:156] Memory required for data: 863429664
I0403 15:10:06.841050 11675 layer_factory.hpp:77] Creating layer inception_4a/relu_3x3_reduce
I0403 15:10:06.841070 11675 net.cpp:91] Creating Layer inception_4a/relu_3x3_reduce
I0403 15:10:06.841085 11675 net.cpp:425] inception_4a/relu_3x3_reduce <- inception_4a/3x3_reduce
I0403 15:10:06.841100 11675 net.cpp:386] inception_4a/relu_3x3_reduce -> inception_4a/3x3_reduce (in-place)
I0403 15:10:06.841269 11675 net.cpp:141] Setting up inception_4a/relu_3x3_reduce
I0403 15:10:06.841294 11675 net.cpp:148] Top shape: 24 96 14 14 (451584)
I0403 15:10:06.841307 11675 net.cpp:156] Memory required for data: 865236000
I0403 15:10:06.841323 11675 layer_factory.hpp:77] Creating layer inception_4a/3x3
I0403 15:10:06.841344 11675 net.cpp:91] Creating Layer inception_4a/3x3
I0403 15:10:06.841361 11675 net.cpp:425] inception_4a/3x3 <- inception_4a/3x3_reduce
I0403 15:10:06.841382 11675 net.cpp:399] inception_4a/3x3 -> inception_4a/3x3
I0403 15:10:06.844101 11675 net.cpp:141] Setting up inception_4a/3x3
I0403 15:10:06.844130 11675 net.cpp:148] Top shape: 24 208 14 14 (978432)
I0403 15:10:06.844146 11675 net.cpp:156] Memory required for data: 869149728
I0403 15:10:06.844163 11675 layer_factory.hpp:77] Creating layer inception_4a/relu_3x3
I0403 15:10:06.844183 11675 net.cpp:91] Creating Layer inception_4a/relu_3x3
I0403 15:10:06.844199 11675 net.cpp:425] inception_4a/relu_3x3 <- inception_4a/3x3
I0403 15:10:06.844218 11675 net.cpp:386] inception_4a/relu_3x3 -> inception_4a/3x3 (in-place)
I0403 15:10:06.844506 11675 net.cpp:141] Setting up inception_4a/relu_3x3
I0403 15:10:06.844532 11675 net.cpp:148] Top shape: 24 208 14 14 (978432)
I0403 15:10:06.844547 11675 net.cpp:156] Memory required for data: 873063456
I0403 15:10:06.844560 11675 layer_factory.hpp:77] Creating layer inception_4a/5x5_reduce
I0403 15:10:06.844583 11675 net.cpp:91] Creating Layer inception_4a/5x5_reduce
I0403 15:10:06.844599 11675 net.cpp:425] inception_4a/5x5_reduce <- pool3/3x3_s2_pool3/3x3_s2_0_split_2
I0403 15:10:06.844619 11675 net.cpp:399] inception_4a/5x5_reduce -> inception_4a/5x5_reduce
I0403 15:10:06.845636 11675 net.cpp:141] Setting up inception_4a/5x5_reduce
I0403 15:10:06.845664 11675 net.cpp:148] Top shape: 24 16 14 14 (75264)
I0403 15:10:06.845679 11675 net.cpp:156] Memory required for data: 873364512
I0403 15:10:06.845697 11675 layer_factory.hpp:77] Creating layer inception_4a/relu_5x5_reduce
I0403 15:10:06.845716 11675 net.cpp:91] Creating Layer inception_4a/relu_5x5_reduce
I0403 15:10:06.845733 11675 net.cpp:425] inception_4a/relu_5x5_reduce <- inception_4a/5x5_reduce
I0403 15:10:06.845751 11675 net.cpp:386] inception_4a/relu_5x5_reduce -> inception_4a/5x5_reduce (in-place)
I0403 15:10:06.845926 11675 net.cpp:141] Setting up inception_4a/relu_5x5_reduce
I0403 15:10:06.845953 11675 net.cpp:148] Top shape: 24 16 14 14 (75264)
I0403 15:10:06.845968 11675 net.cpp:156] Memory required for data: 873665568
I0403 15:10:06.845983 11675 layer_factory.hpp:77] Creating layer inception_4a/5x5
I0403 15:10:06.846004 11675 net.cpp:91] Creating Layer inception_4a/5x5
I0403 15:10:06.846020 11675 net.cpp:425] inception_4a/5x5 <- inception_4a/5x5_reduce
I0403 15:10:06.846040 11675 net.cpp:399] inception_4a/5x5 -> inception_4a/5x5
I0403 15:10:06.847115 11675 net.cpp:141] Setting up inception_4a/5x5
I0403 15:10:06.847143 11675 net.cpp:148] Top shape: 24 48 14 14 (225792)
I0403 15:10:06.847160 11675 net.cpp:156] Memory required for data: 874568736
I0403 15:10:06.847178 11675 layer_factory.hpp:77] Creating layer inception_4a/relu_5x5
I0403 15:10:06.847195 11675 net.cpp:91] Creating Layer inception_4a/relu_5x5
I0403 15:10:06.847211 11675 net.cpp:425] inception_4a/relu_5x5 <- inception_4a/5x5
I0403 15:10:06.847230 11675 net.cpp:386] inception_4a/relu_5x5 -> inception_4a/5x5 (in-place)
I0403 15:10:06.847404 11675 net.cpp:141] Setting up inception_4a/relu_5x5
I0403 15:10:06.847434 11675 net.cpp:148] Top shape: 24 48 14 14 (225792)
I0403 15:10:06.847447 11675 net.cpp:156] Memory required for data: 875471904
I0403 15:10:06.847461 11675 layer_factory.hpp:77] Creating layer inception_4a/pool
I0403 15:10:06.847478 11675 net.cpp:91] Creating Layer inception_4a/pool
I0403 15:10:06.847494 11675 net.cpp:425] inception_4a/pool <- pool3/3x3_s2_pool3/3x3_s2_0_split_3
I0403 15:10:06.847514 11675 net.cpp:399] inception_4a/pool -> inception_4a/pool
I0403 15:10:06.847575 11675 net.cpp:141] Setting up inception_4a/pool
I0403 15:10:06.847599 11675 net.cpp:148] Top shape: 24 480 14 14 (2257920)
I0403 15:10:06.847612 11675 net.cpp:156] Memory required for data: 884503584
I0403 15:10:06.847626 11675 layer_factory.hpp:77] Creating layer inception_4a/pool_proj
I0403 15:10:06.847650 11675 net.cpp:91] Creating Layer inception_4a/pool_proj
I0403 15:10:06.847666 11675 net.cpp:425] inception_4a/pool_proj <- inception_4a/pool
I0403 15:10:06.847684 11675 net.cpp:399] inception_4a/pool_proj -> inception_4a/pool_proj
I0403 15:10:06.848839 11675 net.cpp:141] Setting up inception_4a/pool_proj
I0403 15:10:06.848870 11675 net.cpp:148] Top shape: 24 64 14 14 (301056)
I0403 15:10:06.848901 11675 net.cpp:156] Memory required for data: 885707808
I0403 15:10:06.848920 11675 layer_factory.hpp:77] Creating layer inception_4a/relu_pool_proj
I0403 15:10:06.848937 11675 net.cpp:91] Creating Layer inception_4a/relu_pool_proj
I0403 15:10:06.848953 11675 net.cpp:425] inception_4a/relu_pool_proj <- inception_4a/pool_proj
I0403 15:10:06.848974 11675 net.cpp:386] inception_4a/relu_pool_proj -> inception_4a/pool_proj (in-place)
I0403 15:10:06.849257 11675 net.cpp:141] Setting up inception_4a/relu_pool_proj
I0403 15:10:06.849285 11675 net.cpp:148] Top shape: 24 64 14 14 (301056)
I0403 15:10:06.849313 11675 net.cpp:156] Memory required for data: 886912032
I0403 15:10:06.849329 11675 layer_factory.hpp:77] Creating layer inception_4a/output
I0403 15:10:06.849347 11675 net.cpp:91] Creating Layer inception_4a/output
I0403 15:10:06.849362 11675 net.cpp:425] inception_4a/output <- inception_4a/1x1
I0403 15:10:06.849380 11675 net.cpp:425] inception_4a/output <- inception_4a/3x3
I0403 15:10:06.849395 11675 net.cpp:425] inception_4a/output <- inception_4a/5x5
I0403 15:10:06.849414 11675 net.cpp:425] inception_4a/output <- inception_4a/pool_proj
I0403 15:10:06.849436 11675 net.cpp:399] inception_4a/output -> inception_4a/output
I0403 15:10:06.849483 11675 net.cpp:141] Setting up inception_4a/output
I0403 15:10:06.849506 11675 net.cpp:148] Top shape: 24 512 14 14 (2408448)
I0403 15:10:06.849520 11675 net.cpp:156] Memory required for data: 896545824
I0403 15:10:06.849534 11675 layer_factory.hpp:77] Creating layer inception_4a/output_inception_4a/output_0_split
I0403 15:10:06.849555 11675 net.cpp:91] Creating Layer inception_4a/output_inception_4a/output_0_split
I0403 15:10:06.849571 11675 net.cpp:425] inception_4a/output_inception_4a/output_0_split <- inception_4a/output
I0403 15:10:06.849589 11675 net.cpp:399] inception_4a/output_inception_4a/output_0_split -> inception_4a/output_inception_4a/output_0_split_0
I0403 15:10:06.849612 11675 net.cpp:399] inception_4a/output_inception_4a/output_0_split -> inception_4a/output_inception_4a/output_0_split_1
I0403 15:10:06.849634 11675 net.cpp:399] inception_4a/output_inception_4a/output_0_split -> inception_4a/output_inception_4a/output_0_split_2
I0403 15:10:06.849668 11675 net.cpp:399] inception_4a/output_inception_4a/output_0_split -> inception_4a/output_inception_4a/output_0_split_3
I0403 15:10:06.849686 11675 net.cpp:399] inception_4a/output_inception_4a/output_0_split -> inception_4a/output_inception_4a/output_0_split_4
I0403 15:10:06.849781 11675 net.cpp:141] Setting up inception_4a/output_inception_4a/output_0_split
I0403 15:10:06.849803 11675 net.cpp:148] Top shape: 24 512 14 14 (2408448)
I0403 15:10:06.849819 11675 net.cpp:148] Top shape: 24 512 14 14 (2408448)
I0403 15:10:06.849834 11675 net.cpp:148] Top shape: 24 512 14 14 (2408448)
I0403 15:10:06.849849 11675 net.cpp:148] Top shape: 24 512 14 14 (2408448)
I0403 15:10:06.849864 11675 net.cpp:148] Top shape: 24 512 14 14 (2408448)
I0403 15:10:06.849877 11675 net.cpp:156] Memory required for data: 944714784
I0403 15:10:06.849891 11675 layer_factory.hpp:77] Creating layer loss1/ave_pool
I0403 15:10:06.849911 11675 net.cpp:91] Creating Layer loss1/ave_pool
I0403 15:10:06.849927 11675 net.cpp:425] loss1/ave_pool <- inception_4a/output_inception_4a/output_0_split_0
I0403 15:10:06.849944 11675 net.cpp:399] loss1/ave_pool -> loss1/ave_pool
I0403 15:10:06.850145 11675 net.cpp:141] Setting up loss1/ave_pool
I0403 15:10:06.850173 11675 net.cpp:148] Top shape: 24 512 4 4 (196608)
I0403 15:10:06.850189 11675 net.cpp:156] Memory required for data: 945501216
I0403 15:10:06.850203 11675 layer_factory.hpp:77] Creating layer loss1/conv
I0403 15:10:06.850225 11675 net.cpp:91] Creating Layer loss1/conv
I0403 15:10:06.850242 11675 net.cpp:425] loss1/conv <- loss1/ave_pool
I0403 15:10:06.850260 11675 net.cpp:399] loss1/conv -> loss1/conv
I0403 15:10:06.851667 11675 net.cpp:141] Setting up loss1/conv
I0403 15:10:06.851696 11675 net.cpp:148] Top shape: 24 128 4 4 (49152)
I0403 15:10:06.851725 11675 net.cpp:156] Memory required for data: 945697824
I0403 15:10:06.851744 11675 layer_factory.hpp:77] Creating layer loss1/relu_conv
I0403 15:10:06.851764 11675 net.cpp:91] Creating Layer loss1/relu_conv
I0403 15:10:06.851781 11675 net.cpp:425] loss1/relu_conv <- loss1/conv
I0403 15:10:06.851799 11675 net.cpp:386] loss1/relu_conv -> loss1/conv (in-place)
I0403 15:10:06.852094 11675 net.cpp:141] Setting up loss1/relu_conv
I0403 15:10:06.852121 11675 net.cpp:148] Top shape: 24 128 4 4 (49152)
I0403 15:10:06.852136 11675 net.cpp:156] Memory required for data: 945894432
I0403 15:10:06.852151 11675 layer_factory.hpp:77] Creating layer loss1/fc
I0403 15:10:06.852177 11675 net.cpp:91] Creating Layer loss1/fc
I0403 15:10:06.852196 11675 net.cpp:425] loss1/fc <- loss1/conv
I0403 15:10:06.852215 11675 net.cpp:399] loss1/fc -> loss1/fc
I0403 15:10:06.870321 11675 net.cpp:141] Setting up loss1/fc
I0403 15:10:06.870403 11675 net.cpp:148] Top shape: 24 1024 (24576)
I0403 15:10:06.870422 11675 net.cpp:156] Memory required for data: 945992736
I0403 15:10:06.870441 11675 layer_factory.hpp:77] Creating layer loss1/relu_fc
I0403 15:10:06.870461 11675 net.cpp:91] Creating Layer loss1/relu_fc
I0403 15:10:06.870478 11675 net.cpp:425] loss1/relu_fc <- loss1/fc
I0403 15:10:06.870498 11675 net.cpp:386] loss1/relu_fc -> loss1/fc (in-place)
I0403 15:10:06.870718 11675 net.cpp:141] Setting up loss1/relu_fc
I0403 15:10:06.870741 11675 net.cpp:148] Top shape: 24 1024 (24576)
I0403 15:10:06.870756 11675 net.cpp:156] Memory required for data: 946091040
I0403 15:10:06.870770 11675 layer_factory.hpp:77] Creating layer loss1/drop_fc
I0403 15:10:06.870800 11675 net.cpp:91] Creating Layer loss1/drop_fc
I0403 15:10:06.870815 11675 net.cpp:425] loss1/drop_fc <- loss1/fc
I0403 15:10:06.870834 11675 net.cpp:386] loss1/drop_fc -> loss1/fc (in-place)
I0403 15:10:06.870887 11675 net.cpp:141] Setting up loss1/drop_fc
I0403 15:10:06.870913 11675 net.cpp:148] Top shape: 24 1024 (24576)
I0403 15:10:06.870928 11675 net.cpp:156] Memory required for data: 946189344
I0403 15:10:06.870941 11675 layer_factory.hpp:77] Creating layer loss1/classifier_plantvillage
I0403 15:10:06.870962 11675 net.cpp:91] Creating Layer loss1/classifier_plantvillage
I0403 15:10:06.870977 11675 net.cpp:425] loss1/classifier_plantvillage <- loss1/fc
I0403 15:10:06.870997 11675 net.cpp:399] loss1/classifier_plantvillage -> loss1/classifier_plantvillage
I0403 15:10:06.871968 11675 net.cpp:141] Setting up loss1/classifier_plantvillage
I0403 15:10:06.871995 11675 net.cpp:148] Top shape: 24 38 (912)
I0403 15:10:06.872009 11675 net.cpp:156] Memory required for data: 946192992
I0403 15:10:06.872026 11675 layer_factory.hpp:77] Creating layer loss1/classifier_plantvillage_loss1/classifier_plantvillage_0_split
I0403 15:10:06.872045 11675 net.cpp:91] Creating Layer loss1/classifier_plantvillage_loss1/classifier_plantvillage_0_split
I0403 15:10:06.872059 11675 net.cpp:425] loss1/classifier_plantvillage_loss1/classifier_plantvillage_0_split <- loss1/classifier_plantvillage
I0403 15:10:06.872078 11675 net.cpp:399] loss1/classifier_plantvillage_loss1/classifier_plantvillage_0_split -> loss1/classifier_plantvillage_loss1/classifier_plantvillage_0_split_0
I0403 15:10:06.872099 11675 net.cpp:399] loss1/classifier_plantvillage_loss1/classifier_plantvillage_0_split -> loss1/classifier_plantvillage_loss1/classifier_plantvillage_0_split_1
I0403 15:10:06.872118 11675 net.cpp:399] loss1/classifier_plantvillage_loss1/classifier_plantvillage_0_split -> loss1/classifier_plantvillage_loss1/classifier_plantvillage_0_split_2
I0403 15:10:06.872185 11675 net.cpp:141] Setting up loss1/classifier_plantvillage_loss1/classifier_plantvillage_0_split
I0403 15:10:06.872208 11675 net.cpp:148] Top shape: 24 38 (912)
I0403 15:10:06.872223 11675 net.cpp:148] Top shape: 24 38 (912)
I0403 15:10:06.872238 11675 net.cpp:148] Top shape: 24 38 (912)
I0403 15:10:06.872252 11675 net.cpp:156] Memory required for data: 946203936
I0403 15:10:06.872265 11675 layer_factory.hpp:77] Creating layer inception_4b/1x1
I0403 15:10:06.872289 11675 net.cpp:91] Creating Layer inception_4b/1x1
I0403 15:10:06.872340 11675 net.cpp:425] inception_4b/1x1 <- inception_4a/output_inception_4a/output_0_split_1
I0403 15:10:06.872371 11675 net.cpp:399] inception_4b/1x1 -> inception_4b/1x1
I0403 15:10:06.874121 11675 net.cpp:141] Setting up inception_4b/1x1
I0403 15:10:06.874150 11675 net.cpp:148] Top shape: 24 160 14 14 (752640)
I0403 15:10:06.874166 11675 net.cpp:156] Memory required for data: 949214496
I0403 15:10:06.874182 11675 layer_factory.hpp:77] Creating layer inception_4b/relu_1x1
I0403 15:10:06.874202 11675 net.cpp:91] Creating Layer inception_4b/relu_1x1
I0403 15:10:06.874219 11675 net.cpp:425] inception_4b/relu_1x1 <- inception_4b/1x1
I0403 15:10:06.874236 11675 net.cpp:386] inception_4b/relu_1x1 -> inception_4b/1x1 (in-place)
I0403 15:10:06.874421 11675 net.cpp:141] Setting up inception_4b/relu_1x1
I0403 15:10:06.874449 11675 net.cpp:148] Top shape: 24 160 14 14 (752640)
I0403 15:10:06.874464 11675 net.cpp:156] Memory required for data: 952225056
I0403 15:10:06.874478 11675 layer_factory.hpp:77] Creating layer inception_4b/3x3_reduce
I0403 15:10:06.874500 11675 net.cpp:91] Creating Layer inception_4b/3x3_reduce
I0403 15:10:06.874516 11675 net.cpp:425] inception_4b/3x3_reduce <- inception_4a/output_inception_4a/output_0_split_2
I0403 15:10:06.874536 11675 net.cpp:399] inception_4b/3x3_reduce -> inception_4b/3x3_reduce
I0403 15:10:06.875896 11675 net.cpp:141] Setting up inception_4b/3x3_reduce
I0403 15:10:06.875927 11675 net.cpp:148] Top shape: 24 112 14 14 (526848)
I0403 15:10:06.875943 11675 net.cpp:156] Memory required for data: 954332448
I0403 15:10:06.875962 11675 layer_factory.hpp:77] Creating layer inception_4b/relu_3x3_reduce
I0403 15:10:06.875980 11675 net.cpp:91] Creating Layer inception_4b/relu_3x3_reduce
I0403 15:10:06.875996 11675 net.cpp:425] inception_4b/relu_3x3_reduce <- inception_4b/3x3_reduce
I0403 15:10:06.876013 11675 net.cpp:386] inception_4b/relu_3x3_reduce -> inception_4b/3x3_reduce (in-place)
I0403 15:10:06.876294 11675 net.cpp:141] Setting up inception_4b/relu_3x3_reduce
I0403 15:10:06.876323 11675 net.cpp:148] Top shape: 24 112 14 14 (526848)
I0403 15:10:06.876338 11675 net.cpp:156] Memory required for data: 956439840
I0403 15:10:06.876353 11675 layer_factory.hpp:77] Creating layer inception_4b/3x3
I0403 15:10:06.876374 11675 net.cpp:91] Creating Layer inception_4b/3x3
I0403 15:10:06.876391 11675 net.cpp:425] inception_4b/3x3 <- inception_4b/3x3_reduce
I0403 15:10:06.876415 11675 net.cpp:399] inception_4b/3x3 -> inception_4b/3x3
I0403 15:10:06.880787 11675 net.cpp:141] Setting up inception_4b/3x3
I0403 15:10:06.880816 11675 net.cpp:148] Top shape: 24 224 14 14 (1053696)
I0403 15:10:06.880831 11675 net.cpp:156] Memory required for data: 960654624
I0403 15:10:06.880848 11675 layer_factory.hpp:77] Creating layer inception_4b/relu_3x3
I0403 15:10:06.880869 11675 net.cpp:91] Creating Layer inception_4b/relu_3x3
I0403 15:10:06.880897 11675 net.cpp:425] inception_4b/relu_3x3 <- inception_4b/3x3
I0403 15:10:06.880916 11675 net.cpp:386] inception_4b/relu_3x3 -> inception_4b/3x3 (in-place)
I0403 15:10:06.881103 11675 net.cpp:141] Setting up inception_4b/relu_3x3
I0403 15:10:06.881129 11675 net.cpp:148] Top shape: 24 224 14 14 (1053696)
I0403 15:10:06.881142 11675 net.cpp:156] Memory required for data: 964869408
I0403 15:10:06.881156 11675 layer_factory.hpp:77] Creating layer inception_4b/5x5_reduce
I0403 15:10:06.881191 11675 net.cpp:91] Creating Layer inception_4b/5x5_reduce
I0403 15:10:06.881207 11675 net.cpp:425] inception_4b/5x5_reduce <- inception_4a/output_inception_4a/output_0_split_3
I0403 15:10:06.881229 11675 net.cpp:399] inception_4b/5x5_reduce -> inception_4b/5x5_reduce
I0403 15:10:06.882318 11675 net.cpp:141] Setting up inception_4b/5x5_reduce
I0403 15:10:06.882345 11675 net.cpp:148] Top shape: 24 24 14 14 (112896)
I0403 15:10:06.882360 11675 net.cpp:156] Memory required for data: 965320992
I0403 15:10:06.882378 11675 layer_factory.hpp:77] Creating layer inception_4b/relu_5x5_reduce
I0403 15:10:06.882398 11675 net.cpp:91] Creating Layer inception_4b/relu_5x5_reduce
I0403 15:10:06.882454 11675 net.cpp:425] inception_4b/relu_5x5_reduce <- inception_4b/5x5_reduce
I0403 15:10:06.882477 11675 net.cpp:386] inception_4b/relu_5x5_reduce -> inception_4b/5x5_reduce (in-place)
I0403 15:10:06.882664 11675 net.cpp:141] Setting up inception_4b/relu_5x5_reduce
I0403 15:10:06.882691 11675 net.cpp:148] Top shape: 24 24 14 14 (112896)
I0403 15:10:06.882707 11675 net.cpp:156] Memory required for data: 965772576
I0403 15:10:06.882722 11675 layer_factory.hpp:77] Creating layer inception_4b/5x5
I0403 15:10:06.882745 11675 net.cpp:91] Creating Layer inception_4b/5x5
I0403 15:10:06.882762 11675 net.cpp:425] inception_4b/5x5 <- inception_4b/5x5_reduce
I0403 15:10:06.882781 11675 net.cpp:399] inception_4b/5x5 -> inception_4b/5x5
I0403 15:10:06.884117 11675 net.cpp:141] Setting up inception_4b/5x5
I0403 15:10:06.884145 11675 net.cpp:148] Top shape: 24 64 14 14 (301056)
I0403 15:10:06.884160 11675 net.cpp:156] Memory required for data: 966976800
I0403 15:10:06.884177 11675 layer_factory.hpp:77] Creating layer inception_4b/relu_5x5
I0403 15:10:06.884197 11675 net.cpp:91] Creating Layer inception_4b/relu_5x5
I0403 15:10:06.884213 11675 net.cpp:425] inception_4b/relu_5x5 <- inception_4b/5x5
I0403 15:10:06.884229 11675 net.cpp:386] inception_4b/relu_5x5 -> inception_4b/5x5 (in-place)
I0403 15:10:06.884517 11675 net.cpp:141] Setting up inception_4b/relu_5x5
I0403 15:10:06.884543 11675 net.cpp:148] Top shape: 24 64 14 14 (301056)
I0403 15:10:06.884557 11675 net.cpp:156] Memory required for data: 968181024
I0403 15:10:06.884572 11675 layer_factory.hpp:77] Creating layer inception_4b/pool
I0403 15:10:06.884594 11675 net.cpp:91] Creating Layer inception_4b/pool
I0403 15:10:06.884611 11675 net.cpp:425] inception_4b/pool <- inception_4a/output_inception_4a/output_0_split_4
I0403 15:10:06.884629 11675 net.cpp:399] inception_4b/pool -> inception_4b/pool
I0403 15:10:06.884695 11675 net.cpp:141] Setting up inception_4b/pool
I0403 15:10:06.884717 11675 net.cpp:148] Top shape: 24 512 14 14 (2408448)
I0403 15:10:06.884732 11675 net.cpp:156] Memory required for data: 977814816
I0403 15:10:06.884745 11675 layer_factory.hpp:77] Creating layer inception_4b/pool_proj
I0403 15:10:06.884766 11675 net.cpp:91] Creating Layer inception_4b/pool_proj
I0403 15:10:06.884783 11675 net.cpp:425] inception_4b/pool_proj <- inception_4b/pool
I0403 15:10:06.884804 11675 net.cpp:399] inception_4b/pool_proj -> inception_4b/pool_proj
I0403 15:10:06.886003 11675 net.cpp:141] Setting up inception_4b/pool_proj
I0403 15:10:06.886030 11675 net.cpp:148] Top shape: 24 64 14 14 (301056)
I0403 15:10:06.886045 11675 net.cpp:156] Memory required for data: 979019040
I0403 15:10:06.886064 11675 layer_factory.hpp:77] Creating layer inception_4b/relu_pool_proj
I0403 15:10:06.886083 11675 net.cpp:91] Creating Layer inception_4b/relu_pool_proj
I0403 15:10:06.886101 11675 net.cpp:425] inception_4b/relu_pool_proj <- inception_4b/pool_proj
I0403 15:10:06.886117 11675 net.cpp:386] inception_4b/relu_pool_proj -> inception_4b/pool_proj (in-place)
I0403 15:10:06.886296 11675 net.cpp:141] Setting up inception_4b/relu_pool_proj
I0403 15:10:06.886322 11675 net.cpp:148] Top shape: 24 64 14 14 (301056)
I0403 15:10:06.886337 11675 net.cpp:156] Memory required for data: 980223264
I0403 15:10:06.886351 11675 layer_factory.hpp:77] Creating layer inception_4b/output
I0403 15:10:06.886368 11675 net.cpp:91] Creating Layer inception_4b/output
I0403 15:10:06.886384 11675 net.cpp:425] inception_4b/output <- inception_4b/1x1
I0403 15:10:06.886400 11675 net.cpp:425] inception_4b/output <- inception_4b/3x3
I0403 15:10:06.886420 11675 net.cpp:425] inception_4b/output <- inception_4b/5x5
I0403 15:10:06.886436 11675 net.cpp:425] inception_4b/output <- inception_4b/pool_proj
I0403 15:10:06.886452 11675 net.cpp:399] inception_4b/output -> inception_4b/output
I0403 15:10:06.886499 11675 net.cpp:141] Setting up inception_4b/output
I0403 15:10:06.886523 11675 net.cpp:148] Top shape: 24 512 14 14 (2408448)
I0403 15:10:06.886536 11675 net.cpp:156] Memory required for data: 989857056
I0403 15:10:06.886566 11675 layer_factory.hpp:77] Creating layer inception_4b/output_inception_4b/output_0_split
I0403 15:10:06.886586 11675 net.cpp:91] Creating Layer inception_4b/output_inception_4b/output_0_split
I0403 15:10:06.886602 11675 net.cpp:425] inception_4b/output_inception_4b/output_0_split <- inception_4b/output
I0403 15:10:06.886620 11675 net.cpp:399] inception_4b/output_inception_4b/output_0_split -> inception_4b/output_inception_4b/output_0_split_0
I0403 15:10:06.886638 11675 net.cpp:399] inception_4b/output_inception_4b/output_0_split -> inception_4b/output_inception_4b/output_0_split_1
I0403 15:10:06.886658 11675 net.cpp:399] inception_4b/output_inception_4b/output_0_split -> inception_4b/output_inception_4b/output_0_split_2
I0403 15:10:06.886680 11675 net.cpp:399] inception_4b/output_inception_4b/output_0_split -> inception_4b/output_inception_4b/output_0_split_3
I0403 15:10:06.886767 11675 net.cpp:141] Setting up inception_4b/output_inception_4b/output_0_split
I0403 15:10:06.886790 11675 net.cpp:148] Top shape: 24 512 14 14 (2408448)
I0403 15:10:06.886806 11675 net.cpp:148] Top shape: 24 512 14 14 (2408448)
I0403 15:10:06.886821 11675 net.cpp:148] Top shape: 24 512 14 14 (2408448)
I0403 15:10:06.886837 11675 net.cpp:148] Top shape: 24 512 14 14 (2408448)
I0403 15:10:06.886849 11675 net.cpp:156] Memory required for data: 1028392224
I0403 15:10:06.886863 11675 layer_factory.hpp:77] Creating layer inception_4c/1x1
I0403 15:10:06.886884 11675 net.cpp:91] Creating Layer inception_4c/1x1
I0403 15:10:06.886901 11675 net.cpp:425] inception_4c/1x1 <- inception_4b/output_inception_4b/output_0_split_0
I0403 15:10:06.886921 11675 net.cpp:399] inception_4c/1x1 -> inception_4c/1x1
I0403 15:10:06.888373 11675 net.cpp:141] Setting up inception_4c/1x1
I0403 15:10:06.888404 11675 net.cpp:148] Top shape: 24 128 14 14 (602112)
I0403 15:10:06.888425 11675 net.cpp:156] Memory required for data: 1030800672
I0403 15:10:06.888443 11675 layer_factory.hpp:77] Creating layer inception_4c/relu_1x1
I0403 15:10:06.888460 11675 net.cpp:91] Creating Layer inception_4c/relu_1x1
I0403 15:10:06.888476 11675 net.cpp:425] inception_4c/relu_1x1 <- inception_4c/1x1
I0403 15:10:06.888496 11675 net.cpp:386] inception_4c/relu_1x1 -> inception_4c/1x1 (in-place)
I0403 15:10:06.888677 11675 net.cpp:141] Setting up inception_4c/relu_1x1
I0403 15:10:06.888701 11675 net.cpp:148] Top shape: 24 128 14 14 (602112)
I0403 15:10:06.888715 11675 net.cpp:156] Memory required for data: 1033209120
I0403 15:10:06.888730 11675 layer_factory.hpp:77] Creating layer inception_4c/3x3_reduce
I0403 15:10:06.888751 11675 net.cpp:91] Creating Layer inception_4c/3x3_reduce
I0403 15:10:06.888768 11675 net.cpp:425] inception_4c/3x3_reduce <- inception_4b/output_inception_4b/output_0_split_1
I0403 15:10:06.888792 11675 net.cpp:399] inception_4c/3x3_reduce -> inception_4c/3x3_reduce
I0403 15:10:06.890750 11675 net.cpp:141] Setting up inception_4c/3x3_reduce
I0403 15:10:06.890779 11675 net.cpp:148] Top shape: 24 128 14 14 (602112)
I0403 15:10:06.890794 11675 net.cpp:156] Memory required for data: 1035617568
I0403 15:10:06.890810 11675 layer_factory.hpp:77] Creating layer inception_4c/relu_3x3_reduce
I0403 15:10:06.890830 11675 net.cpp:91] Creating Layer inception_4c/relu_3x3_reduce
I0403 15:10:06.890846 11675 net.cpp:425] inception_4c/relu_3x3_reduce <- inception_4c/3x3_reduce
I0403 15:10:06.890861 11675 net.cpp:386] inception_4c/relu_3x3_reduce -> inception_4c/3x3_reduce (in-place)
I0403 15:10:06.891156 11675 net.cpp:141] Setting up inception_4c/relu_3x3_reduce
I0403 15:10:06.891182 11675 net.cpp:148] Top shape: 24 128 14 14 (602112)
I0403 15:10:06.891197 11675 net.cpp:156] Memory required for data: 1038026016
I0403 15:10:06.891211 11675 layer_factory.hpp:77] Creating layer inception_4c/3x3
I0403 15:10:06.891233 11675 net.cpp:91] Creating Layer inception_4c/3x3
I0403 15:10:06.891250 11675 net.cpp:425] inception_4c/3x3 <- inception_4c/3x3_reduce
I0403 15:10:06.891270 11675 net.cpp:399] inception_4c/3x3 -> inception_4c/3x3
I0403 15:10:06.895062 11675 net.cpp:141] Setting up inception_4c/3x3
I0403 15:10:06.895104 11675 net.cpp:148] Top shape: 24 256 14 14 (1204224)
I0403 15:10:06.895120 11675 net.cpp:156] Memory required for data: 1042842912
I0403 15:10:06.895154 11675 layer_factory.hpp:77] Creating layer inception_4c/relu_3x3
I0403 15:10:06.895179 11675 net.cpp:91] Creating Layer inception_4c/relu_3x3
I0403 15:10:06.895210 11675 net.cpp:425] inception_4c/relu_3x3 <- inception_4c/3x3
I0403 15:10:06.895226 11675 net.cpp:386] inception_4c/relu_3x3 -> inception_4c/3x3 (in-place)
I0403 15:10:06.895422 11675 net.cpp:141] Setting up inception_4c/relu_3x3
I0403 15:10:06.895447 11675 net.cpp:148] Top shape: 24 256 14 14 (1204224)
I0403 15:10:06.895462 11675 net.cpp:156] Memory required for data: 1047659808
I0403 15:10:06.895478 11675 layer_factory.hpp:77] Creating layer inception_4c/5x5_reduce
I0403 15:10:06.895499 11675 net.cpp:91] Creating Layer inception_4c/5x5_reduce
I0403 15:10:06.895516 11675 net.cpp:425] inception_4c/5x5_reduce <- inception_4b/output_inception_4b/output_0_split_2
I0403 15:10:06.895539 11675 net.cpp:399] inception_4c/5x5_reduce -> inception_4c/5x5_reduce
I0403 15:10:06.896759 11675 net.cpp:141] Setting up inception_4c/5x5_reduce
I0403 15:10:06.896788 11675 net.cpp:148] Top shape: 24 24 14 14 (112896)
I0403 15:10:06.896805 11675 net.cpp:156] Memory required for data: 1048111392
I0403 15:10:06.896822 11675 layer_factory.hpp:77] Creating layer inception_4c/relu_5x5_reduce
I0403 15:10:06.896843 11675 net.cpp:91] Creating Layer inception_4c/relu_5x5_reduce
I0403 15:10:06.896862 11675 net.cpp:425] inception_4c/relu_5x5_reduce <- inception_4c/5x5_reduce
I0403 15:10:06.896880 11675 net.cpp:386] inception_4c/relu_5x5_reduce -> inception_4c/5x5_reduce (in-place)
I0403 15:10:06.897076 11675 net.cpp:141] Setting up inception_4c/relu_5x5_reduce
I0403 15:10:06.897104 11675 net.cpp:148] Top shape: 24 24 14 14 (112896)
I0403 15:10:06.897120 11675 net.cpp:156] Memory required for data: 1048562976
I0403 15:10:06.897135 11675 layer_factory.hpp:77] Creating layer inception_4c/5x5
I0403 15:10:06.897158 11675 net.cpp:91] Creating Layer inception_4c/5x5
I0403 15:10:06.897176 11675 net.cpp:425] inception_4c/5x5 <- inception_4c/5x5_reduce
I0403 15:10:06.897207 11675 net.cpp:399] inception_4c/5x5 -> inception_4c/5x5
I0403 15:10:06.898561 11675 net.cpp:141] Setting up inception_4c/5x5
I0403 15:10:06.898591 11675 net.cpp:148] Top shape: 24 64 14 14 (301056)
I0403 15:10:06.898607 11675 net.cpp:156] Memory required for data: 1049767200
I0403 15:10:06.898625 11675 layer_factory.hpp:77] Creating layer inception_4c/relu_5x5
I0403 15:10:06.898643 11675 net.cpp:91] Creating Layer inception_4c/relu_5x5
I0403 15:10:06.898658 11675 net.cpp:425] inception_4c/relu_5x5 <- inception_4c/5x5
I0403 15:10:06.898677 11675 net.cpp:386] inception_4c/relu_5x5 -> inception_4c/5x5 (in-place)
I0403 15:10:06.898967 11675 net.cpp:141] Setting up inception_4c/relu_5x5
I0403 15:10:06.898996 11675 net.cpp:148] Top shape: 24 64 14 14 (301056)
I0403 15:10:06.899011 11675 net.cpp:156] Memory required for data: 1050971424
I0403 15:10:06.899026 11675 layer_factory.hpp:77] Creating layer inception_4c/pool
I0403 15:10:06.899044 11675 net.cpp:91] Creating Layer inception_4c/pool
I0403 15:10:06.899058 11675 net.cpp:425] inception_4c/pool <- inception_4b/output_inception_4b/output_0_split_3
I0403 15:10:06.899077 11675 net.cpp:399] inception_4c/pool -> inception_4c/pool
I0403 15:10:06.899143 11675 net.cpp:141] Setting up inception_4c/pool
I0403 15:10:06.899166 11675 net.cpp:148] Top shape: 24 512 14 14 (2408448)
I0403 15:10:06.899181 11675 net.cpp:156] Memory required for data: 1060605216
I0403 15:10:06.899194 11675 layer_factory.hpp:77] Creating layer inception_4c/pool_proj
I0403 15:10:06.899216 11675 net.cpp:91] Creating Layer inception_4c/pool_proj
I0403 15:10:06.899235 11675 net.cpp:425] inception_4c/pool_proj <- inception_4c/pool
I0403 15:10:06.899253 11675 net.cpp:399] inception_4c/pool_proj -> inception_4c/pool_proj
I0403 15:10:06.900511 11675 net.cpp:141] Setting up inception_4c/pool_proj
I0403 15:10:06.900539 11675 net.cpp:148] Top shape: 24 64 14 14 (301056)
I0403 15:10:06.900568 11675 net.cpp:156] Memory required for data: 1061809440
I0403 15:10:06.900586 11675 layer_factory.hpp:77] Creating layer inception_4c/relu_pool_proj
I0403 15:10:06.900606 11675 net.cpp:91] Creating Layer inception_4c/relu_pool_proj
I0403 15:10:06.900624 11675 net.cpp:425] inception_4c/relu_pool_proj <- inception_4c/pool_proj
I0403 15:10:06.900640 11675 net.cpp:386] inception_4c/relu_pool_proj -> inception_4c/pool_proj (in-place)
I0403 15:10:06.900821 11675 net.cpp:141] Setting up inception_4c/relu_pool_proj
I0403 15:10:06.900847 11675 net.cpp:148] Top shape: 24 64 14 14 (301056)
I0403 15:10:06.900862 11675 net.cpp:156] Memory required for data: 1063013664
I0403 15:10:06.900876 11675 layer_factory.hpp:77] Creating layer inception_4c/output
I0403 15:10:06.900893 11675 net.cpp:91] Creating Layer inception_4c/output
I0403 15:10:06.900908 11675 net.cpp:425] inception_4c/output <- inception_4c/1x1
I0403 15:10:06.900924 11675 net.cpp:425] inception_4c/output <- inception_4c/3x3
I0403 15:10:06.900939 11675 net.cpp:425] inception_4c/output <- inception_4c/5x5
I0403 15:10:06.900954 11675 net.cpp:425] inception_4c/output <- inception_4c/pool_proj
I0403 15:10:06.900970 11675 net.cpp:399] inception_4c/output -> inception_4c/output
I0403 15:10:06.901018 11675 net.cpp:141] Setting up inception_4c/output
I0403 15:10:06.901041 11675 net.cpp:148] Top shape: 24 512 14 14 (2408448)
I0403 15:10:06.901056 11675 net.cpp:156] Memory required for data: 1072647456
I0403 15:10:06.901070 11675 layer_factory.hpp:77] Creating layer inception_4c/output_inception_4c/output_0_split
I0403 15:10:06.901088 11675 net.cpp:91] Creating Layer inception_4c/output_inception_4c/output_0_split
I0403 15:10:06.901104 11675 net.cpp:425] inception_4c/output_inception_4c/output_0_split <- inception_4c/output
I0403 15:10:06.901121 11675 net.cpp:399] inception_4c/output_inception_4c/output_0_split -> inception_4c/output_inception_4c/output_0_split_0
I0403 15:10:06.901140 11675 net.cpp:399] inception_4c/output_inception_4c/output_0_split -> inception_4c/output_inception_4c/output_0_split_1
I0403 15:10:06.901160 11675 net.cpp:399] inception_4c/output_inception_4c/output_0_split -> inception_4c/output_inception_4c/output_0_split_2
I0403 15:10:06.901178 11675 net.cpp:399] inception_4c/output_inception_4c/output_0_split -> inception_4c/output_inception_4c/output_0_split_3
I0403 15:10:06.901279 11675 net.cpp:141] Setting up inception_4c/output_inception_4c/output_0_split
I0403 15:10:06.901301 11675 net.cpp:148] Top shape: 24 512 14 14 (2408448)
I0403 15:10:06.901319 11675 net.cpp:148] Top shape: 24 512 14 14 (2408448)
I0403 15:10:06.901334 11675 net.cpp:148] Top shape: 24 512 14 14 (2408448)
I0403 15:10:06.901350 11675 net.cpp:148] Top shape: 24 512 14 14 (2408448)
I0403 15:10:06.901362 11675 net.cpp:156] Memory required for data: 1111182624
I0403 15:10:06.901377 11675 layer_factory.hpp:77] Creating layer inception_4d/1x1
I0403 15:10:06.901399 11675 net.cpp:91] Creating Layer inception_4d/1x1
I0403 15:10:06.901422 11675 net.cpp:425] inception_4d/1x1 <- inception_4c/output_inception_4c/output_0_split_0
I0403 15:10:06.901444 11675 net.cpp:399] inception_4d/1x1 -> inception_4d/1x1
I0403 15:10:06.902952 11675 net.cpp:141] Setting up inception_4d/1x1
I0403 15:10:06.902982 11675 net.cpp:148] Top shape: 24 112 14 14 (526848)
I0403 15:10:06.902997 11675 net.cpp:156] Memory required for data: 1113290016
I0403 15:10:06.903015 11675 layer_factory.hpp:77] Creating layer inception_4d/relu_1x1
I0403 15:10:06.903033 11675 net.cpp:91] Creating Layer inception_4d/relu_1x1
I0403 15:10:06.903049 11675 net.cpp:425] inception_4d/relu_1x1 <- inception_4d/1x1
I0403 15:10:06.903069 11675 net.cpp:386] inception_4d/relu_1x1 -> inception_4d/1x1 (in-place)
I0403 15:10:06.903264 11675 net.cpp:141] Setting up inception_4d/relu_1x1
I0403 15:10:06.903290 11675 net.cpp:148] Top shape: 24 112 14 14 (526848)
I0403 15:10:06.903304 11675 net.cpp:156] Memory required for data: 1115397408
I0403 15:10:06.903319 11675 layer_factory.hpp:77] Creating layer inception_4d/3x3_reduce
I0403 15:10:06.903357 11675 net.cpp:91] Creating Layer inception_4d/3x3_reduce
I0403 15:10:06.903376 11675 net.cpp:425] inception_4d/3x3_reduce <- inception_4c/output_inception_4c/output_0_split_1
I0403 15:10:06.903412 11675 net.cpp:399] inception_4d/3x3_reduce -> inception_4d/3x3_reduce
I0403 15:10:06.905097 11675 net.cpp:141] Setting up inception_4d/3x3_reduce
I0403 15:10:06.905127 11675 net.cpp:148] Top shape: 24 144 14 14 (677376)
I0403 15:10:06.905143 11675 net.cpp:156] Memory required for data: 1118106912
I0403 15:10:06.905174 11675 layer_factory.hpp:77] Creating layer inception_4d/relu_3x3_reduce
I0403 15:10:06.905191 11675 net.cpp:91] Creating Layer inception_4d/relu_3x3_reduce
I0403 15:10:06.905207 11675 net.cpp:425] inception_4d/relu_3x3_reduce <- inception_4d/3x3_reduce
I0403 15:10:06.905238 11675 net.cpp:386] inception_4d/relu_3x3_reduce -> inception_4d/3x3_reduce (in-place)
I0403 15:10:06.905570 11675 net.cpp:141] Setting up inception_4d/relu_3x3_reduce
I0403 15:10:06.905598 11675 net.cpp:148] Top shape: 24 144 14 14 (677376)
I0403 15:10:06.905614 11675 net.cpp:156] Memory required for data: 1120816416
I0403 15:10:06.905629 11675 layer_factory.hpp:77] Creating layer inception_4d/3x3
I0403 15:10:06.905652 11675 net.cpp:91] Creating Layer inception_4d/3x3
I0403 15:10:06.905671 11675 net.cpp:425] inception_4d/3x3 <- inception_4d/3x3_reduce
I0403 15:10:06.905690 11675 net.cpp:399] inception_4d/3x3 -> inception_4d/3x3
I0403 15:10:06.910176 11675 net.cpp:141] Setting up inception_4d/3x3
I0403 15:10:06.910204 11675 net.cpp:148] Top shape: 24 288 14 14 (1354752)
I0403 15:10:06.910219 11675 net.cpp:156] Memory required for data: 1126235424
I0403 15:10:06.910238 11675 layer_factory.hpp:77] Creating layer inception_4d/relu_3x3
I0403 15:10:06.910257 11675 net.cpp:91] Creating Layer inception_4d/relu_3x3
I0403 15:10:06.910274 11675 net.cpp:425] inception_4d/relu_3x3 <- inception_4d/3x3
I0403 15:10:06.910305 11675 net.cpp:386] inception_4d/relu_3x3 -> inception_4d/3x3 (in-place)
I0403 15:10:06.910500 11675 net.cpp:141] Setting up inception_4d/relu_3x3
I0403 15:10:06.910526 11675 net.cpp:148] Top shape: 24 288 14 14 (1354752)
I0403 15:10:06.910539 11675 net.cpp:156] Memory required for data: 1131654432
I0403 15:10:06.910554 11675 layer_factory.hpp:77] Creating layer inception_4d/5x5_reduce
I0403 15:10:06.910589 11675 net.cpp:91] Creating Layer inception_4d/5x5_reduce
I0403 15:10:06.910607 11675 net.cpp:425] inception_4d/5x5_reduce <- inception_4c/output_inception_4c/output_0_split_2
I0403 15:10:06.910626 11675 net.cpp:399] inception_4d/5x5_reduce -> inception_4d/5x5_reduce
I0403 15:10:06.911811 11675 net.cpp:141] Setting up inception_4d/5x5_reduce
I0403 15:10:06.911839 11675 net.cpp:148] Top shape: 24 32 14 14 (150528)
I0403 15:10:06.911854 11675 net.cpp:156] Memory required for data: 1132256544
I0403 15:10:06.911872 11675 layer_factory.hpp:77] Creating layer inception_4d/relu_5x5_reduce
I0403 15:10:06.911890 11675 net.cpp:91] Creating Layer inception_4d/relu_5x5_reduce
I0403 15:10:06.911906 11675 net.cpp:425] inception_4d/relu_5x5_reduce <- inception_4d/5x5_reduce
I0403 15:10:06.911924 11675 net.cpp:386] inception_4d/relu_5x5_reduce -> inception_4d/5x5_reduce (in-place)
I0403 15:10:06.912117 11675 net.cpp:141] Setting up inception_4d/relu_5x5_reduce
I0403 15:10:06.912140 11675 net.cpp:148] Top shape: 24 32 14 14 (150528)
I0403 15:10:06.912154 11675 net.cpp:156] Memory required for data: 1132858656
I0403 15:10:06.912168 11675 layer_factory.hpp:77] Creating layer inception_4d/5x5
I0403 15:10:06.912189 11675 net.cpp:91] Creating Layer inception_4d/5x5
I0403 15:10:06.912205 11675 net.cpp:425] inception_4d/5x5 <- inception_4d/5x5_reduce
I0403 15:10:06.912225 11675 net.cpp:399] inception_4d/5x5 -> inception_4d/5x5
I0403 15:10:06.913710 11675 net.cpp:141] Setting up inception_4d/5x5
I0403 15:10:06.913739 11675 net.cpp:148] Top shape: 24 64 14 14 (301056)
I0403 15:10:06.913754 11675 net.cpp:156] Memory required for data: 1134062880
I0403 15:10:06.913772 11675 layer_factory.hpp:77] Creating layer inception_4d/relu_5x5
I0403 15:10:06.913803 11675 net.cpp:91] Creating Layer inception_4d/relu_5x5
I0403 15:10:06.913820 11675 net.cpp:425] inception_4d/relu_5x5 <- inception_4d/5x5
I0403 15:10:06.913836 11675 net.cpp:386] inception_4d/relu_5x5 -> inception_4d/5x5 (in-place)
I0403 15:10:06.914144 11675 net.cpp:141] Setting up inception_4d/relu_5x5
I0403 15:10:06.914173 11675 net.cpp:148] Top shape: 24 64 14 14 (301056)
I0403 15:10:06.914189 11675 net.cpp:156] Memory required for data: 1135267104
I0403 15:10:06.914203 11675 layer_factory.hpp:77] Creating layer inception_4d/pool
I0403 15:10:06.914222 11675 net.cpp:91] Creating Layer inception_4d/pool
I0403 15:10:06.914237 11675 net.cpp:425] inception_4d/pool <- inception_4c/output_inception_4c/output_0_split_3
I0403 15:10:06.914254 11675 net.cpp:399] inception_4d/pool -> inception_4d/pool
I0403 15:10:06.914333 11675 net.cpp:141] Setting up inception_4d/pool
I0403 15:10:06.914355 11675 net.cpp:148] Top shape: 24 512 14 14 (2408448)
I0403 15:10:06.914369 11675 net.cpp:156] Memory required for data: 1144900896
I0403 15:10:06.914382 11675 layer_factory.hpp:77] Creating layer inception_4d/pool_proj
I0403 15:10:06.914403 11675 net.cpp:91] Creating Layer inception_4d/pool_proj
I0403 15:10:06.914425 11675 net.cpp:425] inception_4d/pool_proj <- inception_4d/pool
I0403 15:10:06.914448 11675 net.cpp:399] inception_4d/pool_proj -> inception_4d/pool_proj
I0403 15:10:06.916163 11675 net.cpp:141] Setting up inception_4d/pool_proj
I0403 15:10:06.916191 11675 net.cpp:148] Top shape: 24 64 14 14 (301056)
I0403 15:10:06.916206 11675 net.cpp:156] Memory required for data: 1146105120
I0403 15:10:06.916224 11675 layer_factory.hpp:77] Creating layer inception_4d/relu_pool_proj
I0403 15:10:06.916242 11675 net.cpp:91] Creating Layer inception_4d/relu_pool_proj
I0403 15:10:06.916259 11675 net.cpp:425] inception_4d/relu_pool_proj <- inception_4d/pool_proj
I0403 15:10:06.916275 11675 net.cpp:386] inception_4d/relu_pool_proj -> inception_4d/pool_proj (in-place)
I0403 15:10:06.916457 11675 net.cpp:141] Setting up inception_4d/relu_pool_proj
I0403 15:10:06.916481 11675 net.cpp:148] Top shape: 24 64 14 14 (301056)
I0403 15:10:06.916496 11675 net.cpp:156] Memory required for data: 1147309344
I0403 15:10:06.916509 11675 layer_factory.hpp:77] Creating layer inception_4d/output
I0403 15:10:06.916539 11675 net.cpp:91] Creating Layer inception_4d/output
I0403 15:10:06.916555 11675 net.cpp:425] inception_4d/output <- inception_4d/1x1
I0403 15:10:06.916571 11675 net.cpp:425] inception_4d/output <- inception_4d/3x3
I0403 15:10:06.916587 11675 net.cpp:425] inception_4d/output <- inception_4d/5x5
I0403 15:10:06.916602 11675 net.cpp:425] inception_4d/output <- inception_4d/pool_proj
I0403 15:10:06.916618 11675 net.cpp:399] inception_4d/output -> inception_4d/output
I0403 15:10:06.916667 11675 net.cpp:141] Setting up inception_4d/output
I0403 15:10:06.916690 11675 net.cpp:148] Top shape: 24 528 14 14 (2483712)
I0403 15:10:06.916704 11675 net.cpp:156] Memory required for data: 1157244192
I0403 15:10:06.916719 11675 layer_factory.hpp:77] Creating layer inception_4d/output_inception_4d/output_0_split
I0403 15:10:06.916736 11675 net.cpp:91] Creating Layer inception_4d/output_inception_4d/output_0_split
I0403 15:10:06.916751 11675 net.cpp:425] inception_4d/output_inception_4d/output_0_split <- inception_4d/output
I0403 15:10:06.916770 11675 net.cpp:399] inception_4d/output_inception_4d/output_0_split -> inception_4d/output_inception_4d/output_0_split_0
I0403 15:10:06.916790 11675 net.cpp:399] inception_4d/output_inception_4d/output_0_split -> inception_4d/output_inception_4d/output_0_split_1
I0403 15:10:06.916823 11675 net.cpp:399] inception_4d/output_inception_4d/output_0_split -> inception_4d/output_inception_4d/output_0_split_2
I0403 15:10:06.916843 11675 net.cpp:399] inception_4d/output_inception_4d/output_0_split -> inception_4d/output_inception_4d/output_0_split_3
I0403 15:10:06.916867 11675 net.cpp:399] inception_4d/output_inception_4d/output_0_split -> inception_4d/output_inception_4d/output_0_split_4
I0403 15:10:06.916965 11675 net.cpp:141] Setting up inception_4d/output_inception_4d/output_0_split
I0403 15:10:06.916998 11675 net.cpp:148] Top shape: 24 528 14 14 (2483712)
I0403 15:10:06.917014 11675 net.cpp:148] Top shape: 24 528 14 14 (2483712)
I0403 15:10:06.917029 11675 net.cpp:148] Top shape: 24 528 14 14 (2483712)
I0403 15:10:06.917043 11675 net.cpp:148] Top shape: 24 528 14 14 (2483712)
I0403 15:10:06.917058 11675 net.cpp:148] Top shape: 24 528 14 14 (2483712)
I0403 15:10:06.917070 11675 net.cpp:156] Memory required for data: 1206918432
I0403 15:10:06.917084 11675 layer_factory.hpp:77] Creating layer loss2/ave_pool
I0403 15:10:06.917100 11675 net.cpp:91] Creating Layer loss2/ave_pool
I0403 15:10:06.917115 11675 net.cpp:425] loss2/ave_pool <- inception_4d/output_inception_4d/output_0_split_0
I0403 15:10:06.917136 11675 net.cpp:399] loss2/ave_pool -> loss2/ave_pool
I0403 15:10:06.917453 11675 net.cpp:141] Setting up loss2/ave_pool
I0403 15:10:06.917479 11675 net.cpp:148] Top shape: 24 528 4 4 (202752)
I0403 15:10:06.917492 11675 net.cpp:156] Memory required for data: 1207729440
I0403 15:10:06.917506 11675 layer_factory.hpp:77] Creating layer loss2/conv
I0403 15:10:06.917528 11675 net.cpp:91] Creating Layer loss2/conv
I0403 15:10:06.917546 11675 net.cpp:425] loss2/conv <- loss2/ave_pool
I0403 15:10:06.917565 11675 net.cpp:399] loss2/conv -> loss2/conv
I0403 15:10:06.919481 11675 net.cpp:141] Setting up loss2/conv
I0403 15:10:06.919508 11675 net.cpp:148] Top shape: 24 128 4 4 (49152)
I0403 15:10:06.919523 11675 net.cpp:156] Memory required for data: 1207926048
I0403 15:10:06.919540 11675 layer_factory.hpp:77] Creating layer loss2/relu_conv
I0403 15:10:06.919560 11675 net.cpp:91] Creating Layer loss2/relu_conv
I0403 15:10:06.919576 11675 net.cpp:425] loss2/relu_conv <- loss2/conv
I0403 15:10:06.919592 11675 net.cpp:386] loss2/relu_conv -> loss2/conv (in-place)
I0403 15:10:06.919878 11675 net.cpp:141] Setting up loss2/relu_conv
I0403 15:10:06.919903 11675 net.cpp:148] Top shape: 24 128 4 4 (49152)
I0403 15:10:06.919916 11675 net.cpp:156] Memory required for data: 1208122656
I0403 15:10:06.919930 11675 layer_factory.hpp:77] Creating layer loss2/fc
I0403 15:10:06.919951 11675 net.cpp:91] Creating Layer loss2/fc
I0403 15:10:06.919967 11675 net.cpp:425] loss2/fc <- loss2/conv
I0403 15:10:06.919987 11675 net.cpp:399] loss2/fc -> loss2/fc
I0403 15:10:06.937813 11675 net.cpp:141] Setting up loss2/fc
I0403 15:10:06.937847 11675 net.cpp:148] Top shape: 24 1024 (24576)
I0403 15:10:06.937863 11675 net.cpp:156] Memory required for data: 1208220960
I0403 15:10:06.937880 11675 layer_factory.hpp:77] Creating layer loss2/relu_fc
I0403 15:10:06.937897 11675 net.cpp:91] Creating Layer loss2/relu_fc
I0403 15:10:06.937912 11675 net.cpp:425] loss2/relu_fc <- loss2/fc
I0403 15:10:06.937930 11675 net.cpp:386] loss2/relu_fc -> loss2/fc (in-place)
I0403 15:10:06.938241 11675 net.cpp:141] Setting up loss2/relu_fc
I0403 15:10:06.938267 11675 net.cpp:148] Top shape: 24 1024 (24576)
I0403 15:10:06.938282 11675 net.cpp:156] Memory required for data: 1208319264
I0403 15:10:06.938308 11675 layer_factory.hpp:77] Creating layer loss2/drop_fc
I0403 15:10:06.938326 11675 net.cpp:91] Creating Layer loss2/drop_fc
I0403 15:10:06.938341 11675 net.cpp:425] loss2/drop_fc <- loss2/fc
I0403 15:10:06.938360 11675 net.cpp:386] loss2/drop_fc -> loss2/fc (in-place)
I0403 15:10:06.938415 11675 net.cpp:141] Setting up loss2/drop_fc
I0403 15:10:06.938437 11675 net.cpp:148] Top shape: 24 1024 (24576)
I0403 15:10:06.938452 11675 net.cpp:156] Memory required for data: 1208417568
I0403 15:10:06.938465 11675 layer_factory.hpp:77] Creating layer loss2/classifier_plantvillage
I0403 15:10:06.938482 11675 net.cpp:91] Creating Layer loss2/classifier_plantvillage
I0403 15:10:06.938498 11675 net.cpp:425] loss2/classifier_plantvillage <- loss2/fc
I0403 15:10:06.938519 11675 net.cpp:399] loss2/classifier_plantvillage -> loss2/classifier_plantvillage
I0403 15:10:06.938911 11675 net.cpp:141] Setting up loss2/classifier_plantvillage
I0403 15:10:06.938935 11675 net.cpp:148] Top shape: 24 38 (912)
I0403 15:10:06.938966 11675 net.cpp:156] Memory required for data: 1208421216
I0403 15:10:06.938983 11675 layer_factory.hpp:77] Creating layer loss2/classifier_plantvillage_loss2/classifier_plantvillage_0_split
I0403 15:10:06.939002 11675 net.cpp:91] Creating Layer loss2/classifier_plantvillage_loss2/classifier_plantvillage_0_split
I0403 15:10:06.939018 11675 net.cpp:425] loss2/classifier_plantvillage_loss2/classifier_plantvillage_0_split <- loss2/classifier_plantvillage
I0403 15:10:06.939036 11675 net.cpp:399] loss2/classifier_plantvillage_loss2/classifier_plantvillage_0_split -> loss2/classifier_plantvillage_loss2/classifier_plantvillage_0_split_0
I0403 15:10:06.939056 11675 net.cpp:399] loss2/classifier_plantvillage_loss2/classifier_plantvillage_0_split -> loss2/classifier_plantvillage_loss2/classifier_plantvillage_0_split_1
I0403 15:10:06.939076 11675 net.cpp:399] loss2/classifier_plantvillage_loss2/classifier_plantvillage_0_split -> loss2/classifier_plantvillage_loss2/classifier_plantvillage_0_split_2
I0403 15:10:06.939151 11675 net.cpp:141] Setting up loss2/classifier_plantvillage_loss2/classifier_plantvillage_0_split
I0403 15:10:06.939179 11675 net.cpp:148] Top shape: 24 38 (912)
I0403 15:10:06.939204 11675 net.cpp:148] Top shape: 24 38 (912)
I0403 15:10:06.939227 11675 net.cpp:148] Top shape: 24 38 (912)
I0403 15:10:06.939249 11675 net.cpp:156] Memory required for data: 1208432160
I0403 15:10:06.939268 11675 layer_factory.hpp:77] Creating layer inception_4e/1x1
I0403 15:10:06.939297 11675 net.cpp:91] Creating Layer inception_4e/1x1
I0403 15:10:06.939317 11675 net.cpp:425] inception_4e/1x1 <- inception_4d/output_inception_4d/output_0_split_1
I0403 15:10:06.939335 11675 net.cpp:399] inception_4e/1x1 -> inception_4e/1x1
I0403 15:10:06.941238 11675 net.cpp:141] Setting up inception_4e/1x1
I0403 15:10:06.941269 11675 net.cpp:148] Top shape: 24 256 14 14 (1204224)
I0403 15:10:06.941285 11675 net.cpp:156] Memory required for data: 1213249056
I0403 15:10:06.941303 11675 layer_factory.hpp:77] Creating layer inception_4e/relu_1x1
I0403 15:10:06.941320 11675 net.cpp:91] Creating Layer inception_4e/relu_1x1
I0403 15:10:06.941335 11675 net.cpp:425] inception_4e/relu_1x1 <- inception_4e/1x1
I0403 15:10:06.941352 11675 net.cpp:386] inception_4e/relu_1x1 -> inception_4e/1x1 (in-place)
I0403 15:10:06.941655 11675 net.cpp:141] Setting up inception_4e/relu_1x1
I0403 15:10:06.941684 11675 net.cpp:148] Top shape: 24 256 14 14 (1204224)
I0403 15:10:06.941699 11675 net.cpp:156] Memory required for data: 1218065952
I0403 15:10:06.941715 11675 layer_factory.hpp:77] Creating layer inception_4e/3x3_reduce
I0403 15:10:06.941738 11675 net.cpp:91] Creating Layer inception_4e/3x3_reduce
I0403 15:10:06.941756 11675 net.cpp:425] inception_4e/3x3_reduce <- inception_4d/output_inception_4d/output_0_split_2
I0403 15:10:06.941776 11675 net.cpp:399] inception_4e/3x3_reduce -> inception_4e/3x3_reduce
I0403 15:10:06.943976 11675 net.cpp:141] Setting up inception_4e/3x3_reduce
I0403 15:10:06.944006 11675 net.cpp:148] Top shape: 24 160 14 14 (752640)
I0403 15:10:06.944022 11675 net.cpp:156] Memory required for data: 1221076512
I0403 15:10:06.944041 11675 layer_factory.hpp:77] Creating layer inception_4e/relu_3x3_reduce
I0403 15:10:06.944061 11675 net.cpp:91] Creating Layer inception_4e/relu_3x3_reduce
I0403 15:10:06.944077 11675 net.cpp:425] inception_4e/relu_3x3_reduce <- inception_4e/3x3_reduce
I0403 15:10:06.944094 11675 net.cpp:386] inception_4e/relu_3x3_reduce -> inception_4e/3x3_reduce (in-place)
I0403 15:10:06.944294 11675 net.cpp:141] Setting up inception_4e/relu_3x3_reduce
I0403 15:10:06.944320 11675 net.cpp:148] Top shape: 24 160 14 14 (752640)
I0403 15:10:06.944334 11675 net.cpp:156] Memory required for data: 1224087072
I0403 15:10:06.944349 11675 layer_factory.hpp:77] Creating layer inception_4e/3x3
I0403 15:10:06.944370 11675 net.cpp:91] Creating Layer inception_4e/3x3
I0403 15:10:06.944387 11675 net.cpp:425] inception_4e/3x3 <- inception_4e/3x3_reduce
I0403 15:10:06.944413 11675 net.cpp:399] inception_4e/3x3 -> inception_4e/3x3
I0403 15:10:06.949741 11675 net.cpp:141] Setting up inception_4e/3x3
I0403 15:10:06.949785 11675 net.cpp:148] Top shape: 24 320 14 14 (1505280)
I0403 15:10:06.949802 11675 net.cpp:156] Memory required for data: 1230108192
I0403 15:10:06.949821 11675 layer_factory.hpp:77] Creating layer inception_4e/relu_3x3
I0403 15:10:06.949839 11675 net.cpp:91] Creating Layer inception_4e/relu_3x3
I0403 15:10:06.949856 11675 net.cpp:425] inception_4e/relu_3x3 <- inception_4e/3x3
I0403 15:10:06.949875 11675 net.cpp:386] inception_4e/relu_3x3 -> inception_4e/3x3 (in-place)
I0403 15:10:06.950194 11675 net.cpp:141] Setting up inception_4e/relu_3x3
I0403 15:10:06.950222 11675 net.cpp:148] Top shape: 24 320 14 14 (1505280)
I0403 15:10:06.950237 11675 net.cpp:156] Memory required for data: 1236129312
I0403 15:10:06.950251 11675 layer_factory.hpp:77] Creating layer inception_4e/5x5_reduce
I0403 15:10:06.950275 11675 net.cpp:91] Creating Layer inception_4e/5x5_reduce
I0403 15:10:06.950294 11675 net.cpp:425] inception_4e/5x5_reduce <- inception_4d/output_inception_4d/output_0_split_3
I0403 15:10:06.950315 11675 net.cpp:399] inception_4e/5x5_reduce -> inception_4e/5x5_reduce
I0403 15:10:06.951431 11675 net.cpp:141] Setting up inception_4e/5x5_reduce
I0403 15:10:06.951462 11675 net.cpp:148] Top shape: 24 32 14 14 (150528)
I0403 15:10:06.951478 11675 net.cpp:156] Memory required for data: 1236731424
I0403 15:10:06.951498 11675 layer_factory.hpp:77] Creating layer inception_4e/relu_5x5_reduce
I0403 15:10:06.951515 11675 net.cpp:91] Creating Layer inception_4e/relu_5x5_reduce
I0403 15:10:06.951531 11675 net.cpp:425] inception_4e/relu_5x5_reduce <- inception_4e/5x5_reduce
I0403 15:10:06.951548 11675 net.cpp:386] inception_4e/relu_5x5_reduce -> inception_4e/5x5_reduce (in-place)
I0403 15:10:06.951867 11675 net.cpp:141] Setting up inception_4e/relu_5x5_reduce
I0403 15:10:06.951896 11675 net.cpp:148] Top shape: 24 32 14 14 (150528)
I0403 15:10:06.951913 11675 net.cpp:156] Memory required for data: 1237333536
I0403 15:10:06.951930 11675 layer_factory.hpp:77] Creating layer inception_4e/5x5
I0403 15:10:06.951967 11675 net.cpp:91] Creating Layer inception_4e/5x5
I0403 15:10:06.951987 11675 net.cpp:425] inception_4e/5x5 <- inception_4e/5x5_reduce
I0403 15:10:06.952008 11675 net.cpp:399] inception_4e/5x5 -> inception_4e/5x5
I0403 15:10:06.953984 11675 net.cpp:141] Setting up inception_4e/5x5
I0403 15:10:06.954012 11675 net.cpp:148] Top shape: 24 128 14 14 (602112)
I0403 15:10:06.954028 11675 net.cpp:156] Memory required for data: 1239741984
I0403 15:10:06.954048 11675 layer_factory.hpp:77] Creating layer inception_4e/relu_5x5
I0403 15:10:06.954068 11675 net.cpp:91] Creating Layer inception_4e/relu_5x5
I0403 15:10:06.954085 11675 net.cpp:425] inception_4e/relu_5x5 <- inception_4e/5x5
I0403 15:10:06.954102 11675 net.cpp:386] inception_4e/relu_5x5 -> inception_4e/5x5 (in-place)
I0403 15:10:06.954324 11675 net.cpp:141] Setting up inception_4e/relu_5x5
I0403 15:10:06.954350 11675 net.cpp:148] Top shape: 24 128 14 14 (602112)
I0403 15:10:06.954365 11675 net.cpp:156] Memory required for data: 1242150432
I0403 15:10:06.954381 11675 layer_factory.hpp:77] Creating layer inception_4e/pool
I0403 15:10:06.954402 11675 net.cpp:91] Creating Layer inception_4e/pool
I0403 15:10:06.954437 11675 net.cpp:425] inception_4e/pool <- inception_4d/output_inception_4d/output_0_split_4
I0403 15:10:06.954457 11675 net.cpp:399] inception_4e/pool -> inception_4e/pool
I0403 15:10:06.954530 11675 net.cpp:141] Setting up inception_4e/pool
I0403 15:10:06.954555 11675 net.cpp:148] Top shape: 24 528 14 14 (2483712)
I0403 15:10:06.954568 11675 net.cpp:156] Memory required for data: 1252085280
I0403 15:10:06.954582 11675 layer_factory.hpp:77] Creating layer inception_4e/pool_proj
I0403 15:10:06.954605 11675 net.cpp:91] Creating Layer inception_4e/pool_proj
I0403 15:10:06.954622 11675 net.cpp:425] inception_4e/pool_proj <- inception_4e/pool
I0403 15:10:06.954644 11675 net.cpp:399] inception_4e/pool_proj -> inception_4e/pool_proj
I0403 15:10:06.958981 11675 net.cpp:141] Setting up inception_4e/pool_proj
I0403 15:10:06.959022 11675 net.cpp:148] Top shape: 24 128 14 14 (602112)
I0403 15:10:06.959038 11675 net.cpp:156] Memory required for data: 1254493728
I0403 15:10:06.959056 11675 layer_factory.hpp:77] Creating layer inception_4e/relu_pool_proj
I0403 15:10:06.959076 11675 net.cpp:91] Creating Layer inception_4e/relu_pool_proj
I0403 15:10:06.959094 11675 net.cpp:425] inception_4e/relu_pool_proj <- inception_4e/pool_proj
I0403 15:10:06.959122 11675 net.cpp:386] inception_4e/relu_pool_proj -> inception_4e/pool_proj (in-place)
I0403 15:10:06.959452 11675 net.cpp:141] Setting up inception_4e/relu_pool_proj
I0403 15:10:06.959480 11675 net.cpp:148] Top shape: 24 128 14 14 (602112)
I0403 15:10:06.959494 11675 net.cpp:156] Memory required for data: 1256902176
I0403 15:10:06.959508 11675 layer_factory.hpp:77] Creating layer inception_4e/output
I0403 15:10:06.959527 11675 net.cpp:91] Creating Layer inception_4e/output
I0403 15:10:06.959542 11675 net.cpp:425] inception_4e/output <- inception_4e/1x1
I0403 15:10:06.959560 11675 net.cpp:425] inception_4e/output <- inception_4e/3x3
I0403 15:10:06.959580 11675 net.cpp:425] inception_4e/output <- inception_4e/5x5
I0403 15:10:06.959596 11675 net.cpp:425] inception_4e/output <- inception_4e/pool_proj
I0403 15:10:06.959614 11675 net.cpp:399] inception_4e/output -> inception_4e/output
I0403 15:10:06.959663 11675 net.cpp:141] Setting up inception_4e/output
I0403 15:10:06.959689 11675 net.cpp:148] Top shape: 24 832 14 14 (3913728)
I0403 15:10:06.959705 11675 net.cpp:156] Memory required for data: 1272557088
I0403 15:10:06.959720 11675 layer_factory.hpp:77] Creating layer pool4/3x3_s2
I0403 15:10:06.959738 11675 net.cpp:91] Creating Layer pool4/3x3_s2
I0403 15:10:06.959753 11675 net.cpp:425] pool4/3x3_s2 <- inception_4e/output
I0403 15:10:06.959774 11675 net.cpp:399] pool4/3x3_s2 -> pool4/3x3_s2
I0403 15:10:06.959844 11675 net.cpp:141] Setting up pool4/3x3_s2
I0403 15:10:06.959870 11675 net.cpp:148] Top shape: 24 832 7 7 (978432)
I0403 15:10:06.959885 11675 net.cpp:156] Memory required for data: 1276470816
I0403 15:10:06.959900 11675 layer_factory.hpp:77] Creating layer pool4/3x3_s2_pool4/3x3_s2_0_split
I0403 15:10:06.959918 11675 net.cpp:91] Creating Layer pool4/3x3_s2_pool4/3x3_s2_0_split
I0403 15:10:06.959933 11675 net.cpp:425] pool4/3x3_s2_pool4/3x3_s2_0_split <- pool4/3x3_s2
I0403 15:10:06.959950 11675 net.cpp:399] pool4/3x3_s2_pool4/3x3_s2_0_split -> pool4/3x3_s2_pool4/3x3_s2_0_split_0
I0403 15:10:06.959969 11675 net.cpp:399] pool4/3x3_s2_pool4/3x3_s2_0_split -> pool4/3x3_s2_pool4/3x3_s2_0_split_1
I0403 15:10:06.959990 11675 net.cpp:399] pool4/3x3_s2_pool4/3x3_s2_0_split -> pool4/3x3_s2_pool4/3x3_s2_0_split_2
I0403 15:10:06.960012 11675 net.cpp:399] pool4/3x3_s2_pool4/3x3_s2_0_split -> pool4/3x3_s2_pool4/3x3_s2_0_split_3
I0403 15:10:06.960108 11675 net.cpp:141] Setting up pool4/3x3_s2_pool4/3x3_s2_0_split
I0403 15:10:06.960132 11675 net.cpp:148] Top shape: 24 832 7 7 (978432)
I0403 15:10:06.960150 11675 net.cpp:148] Top shape: 24 832 7 7 (978432)
I0403 15:10:06.960165 11675 net.cpp:148] Top shape: 24 832 7 7 (978432)
I0403 15:10:06.960180 11675 net.cpp:148] Top shape: 24 832 7 7 (978432)
I0403 15:10:06.960193 11675 net.cpp:156] Memory required for data: 1292125728
I0403 15:10:06.960208 11675 layer_factory.hpp:77] Creating layer inception_5a/1x1
I0403 15:10:06.960230 11675 net.cpp:91] Creating Layer inception_5a/1x1
I0403 15:10:06.960248 11675 net.cpp:425] inception_5a/1x1 <- pool4/3x3_s2_pool4/3x3_s2_0_split_0
I0403 15:10:06.960269 11675 net.cpp:399] inception_5a/1x1 -> inception_5a/1x1
I0403 15:10:06.963306 11675 net.cpp:141] Setting up inception_5a/1x1
I0403 15:10:06.963336 11675 net.cpp:148] Top shape: 24 256 7 7 (301056)
I0403 15:10:06.963352 11675 net.cpp:156] Memory required for data: 1293329952
I0403 15:10:06.963371 11675 layer_factory.hpp:77] Creating layer inception_5a/relu_1x1
I0403 15:10:06.963390 11675 net.cpp:91] Creating Layer inception_5a/relu_1x1
I0403 15:10:06.963408 11675 net.cpp:425] inception_5a/relu_1x1 <- inception_5a/1x1
I0403 15:10:06.963441 11675 net.cpp:386] inception_5a/relu_1x1 -> inception_5a/1x1 (in-place)
I0403 15:10:06.963773 11675 net.cpp:141] Setting up inception_5a/relu_1x1
I0403 15:10:06.963799 11675 net.cpp:148] Top shape: 24 256 7 7 (301056)
I0403 15:10:06.963815 11675 net.cpp:156] Memory required for data: 1294534176
I0403 15:10:06.963830 11675 layer_factory.hpp:77] Creating layer inception_5a/3x3_reduce
I0403 15:10:06.963853 11675 net.cpp:91] Creating Layer inception_5a/3x3_reduce
I0403 15:10:06.963871 11675 net.cpp:425] inception_5a/3x3_reduce <- pool4/3x3_s2_pool4/3x3_s2_0_split_1
I0403 15:10:06.963894 11675 net.cpp:399] inception_5a/3x3_reduce -> inception_5a/3x3_reduce
I0403 15:10:06.966542 11675 net.cpp:141] Setting up inception_5a/3x3_reduce
I0403 15:10:06.966572 11675 net.cpp:148] Top shape: 24 160 7 7 (188160)
I0403 15:10:06.966588 11675 net.cpp:156] Memory required for data: 1295286816
I0403 15:10:06.966605 11675 layer_factory.hpp:77] Creating layer inception_5a/relu_3x3_reduce
I0403 15:10:06.966624 11675 net.cpp:91] Creating Layer inception_5a/relu_3x3_reduce
I0403 15:10:06.966642 11675 net.cpp:425] inception_5a/relu_3x3_reduce <- inception_5a/3x3_reduce
I0403 15:10:06.966660 11675 net.cpp:386] inception_5a/relu_3x3_reduce -> inception_5a/3x3_reduce (in-place)
I0403 15:10:06.966861 11675 net.cpp:141] Setting up inception_5a/relu_3x3_reduce
I0403 15:10:06.966886 11675 net.cpp:148] Top shape: 24 160 7 7 (188160)
I0403 15:10:06.966900 11675 net.cpp:156] Memory required for data: 1296039456
I0403 15:10:06.966915 11675 layer_factory.hpp:77] Creating layer inception_5a/3x3
I0403 15:10:06.966938 11675 net.cpp:91] Creating Layer inception_5a/3x3
I0403 15:10:06.966954 11675 net.cpp:425] inception_5a/3x3 <- inception_5a/3x3_reduce
I0403 15:10:06.966977 11675 net.cpp:399] inception_5a/3x3 -> inception_5a/3x3
I0403 15:10:06.972142 11675 net.cpp:141] Setting up inception_5a/3x3
I0403 15:10:06.972173 11675 net.cpp:148] Top shape: 24 320 7 7 (376320)
I0403 15:10:06.972189 11675 net.cpp:156] Memory required for data: 1297544736
I0403 15:10:06.972208 11675 layer_factory.hpp:77] Creating layer inception_5a/relu_3x3
I0403 15:10:06.972226 11675 net.cpp:91] Creating Layer inception_5a/relu_3x3
I0403 15:10:06.972244 11675 net.cpp:425] inception_5a/relu_3x3 <- inception_5a/3x3
I0403 15:10:06.972260 11675 net.cpp:386] inception_5a/relu_3x3 -> inception_5a/3x3 (in-place)
I0403 15:10:06.972563 11675 net.cpp:141] Setting up inception_5a/relu_3x3
I0403 15:10:06.972589 11675 net.cpp:148] Top shape: 24 320 7 7 (376320)
I0403 15:10:06.972604 11675 net.cpp:156] Memory required for data: 1299050016
I0403 15:10:06.972620 11675 layer_factory.hpp:77] Creating layer inception_5a/5x5_reduce
I0403 15:10:06.972641 11675 net.cpp:91] Creating Layer inception_5a/5x5_reduce
I0403 15:10:06.972659 11675 net.cpp:425] inception_5a/5x5_reduce <- pool4/3x3_s2_pool4/3x3_s2_0_split_2
I0403 15:10:06.972681 11675 net.cpp:399] inception_5a/5x5_reduce -> inception_5a/5x5_reduce
I0403 15:10:06.973876 11675 net.cpp:141] Setting up inception_5a/5x5_reduce
I0403 15:10:06.973906 11675 net.cpp:148] Top shape: 24 32 7 7 (37632)
I0403 15:10:06.973922 11675 net.cpp:156] Memory required for data: 1299200544
I0403 15:10:06.973939 11675 layer_factory.hpp:77] Creating layer inception_5a/relu_5x5_reduce
I0403 15:10:06.973963 11675 net.cpp:91] Creating Layer inception_5a/relu_5x5_reduce
I0403 15:10:06.973980 11675 net.cpp:425] inception_5a/relu_5x5_reduce <- inception_5a/5x5_reduce
I0403 15:10:06.973999 11675 net.cpp:386] inception_5a/relu_5x5_reduce -> inception_5a/5x5_reduce (in-place)
I0403 15:10:06.974301 11675 net.cpp:141] Setting up inception_5a/relu_5x5_reduce
I0403 15:10:06.974328 11675 net.cpp:148] Top shape: 24 32 7 7 (37632)
I0403 15:10:06.974342 11675 net.cpp:156] Memory required for data: 1299351072
I0403 15:10:06.974356 11675 layer_factory.hpp:77] Creating layer inception_5a/5x5
I0403 15:10:06.974380 11675 net.cpp:91] Creating Layer inception_5a/5x5
I0403 15:10:06.974398 11675 net.cpp:425] inception_5a/5x5 <- inception_5a/5x5_reduce
I0403 15:10:06.974421 11675 net.cpp:399] inception_5a/5x5 -> inception_5a/5x5
I0403 15:10:06.976197 11675 net.cpp:141] Setting up inception_5a/5x5
I0403 15:10:06.976238 11675 net.cpp:148] Top shape: 24 128 7 7 (150528)
I0403 15:10:06.976254 11675 net.cpp:156] Memory required for data: 1299953184
I0403 15:10:06.976271 11675 layer_factory.hpp:77] Creating layer inception_5a/relu_5x5
I0403 15:10:06.976291 11675 net.cpp:91] Creating Layer inception_5a/relu_5x5
I0403 15:10:06.976307 11675 net.cpp:425] inception_5a/relu_5x5 <- inception_5a/5x5
I0403 15:10:06.976325 11675 net.cpp:386] inception_5a/relu_5x5 -> inception_5a/5x5 (in-place)
I0403 15:10:06.976524 11675 net.cpp:141] Setting up inception_5a/relu_5x5
I0403 15:10:06.976552 11675 net.cpp:148] Top shape: 24 128 7 7 (150528)
I0403 15:10:06.976567 11675 net.cpp:156] Memory required for data: 1300555296
I0403 15:10:06.976582 11675 layer_factory.hpp:77] Creating layer inception_5a/pool
I0403 15:10:06.976598 11675 net.cpp:91] Creating Layer inception_5a/pool
I0403 15:10:06.976614 11675 net.cpp:425] inception_5a/pool <- pool4/3x3_s2_pool4/3x3_s2_0_split_3
I0403 15:10:06.976634 11675 net.cpp:399] inception_5a/pool -> inception_5a/pool
I0403 15:10:06.976704 11675 net.cpp:141] Setting up inception_5a/pool
I0403 15:10:06.976740 11675 net.cpp:148] Top shape: 24 832 7 7 (978432)
I0403 15:10:06.976755 11675 net.cpp:156] Memory required for data: 1304469024
I0403 15:10:06.976769 11675 layer_factory.hpp:77] Creating layer inception_5a/pool_proj
I0403 15:10:06.976791 11675 net.cpp:91] Creating Layer inception_5a/pool_proj
I0403 15:10:06.976809 11675 net.cpp:425] inception_5a/pool_proj <- inception_5a/pool
I0403 15:10:06.976830 11675 net.cpp:399] inception_5a/pool_proj -> inception_5a/pool_proj
I0403 15:10:06.979213 11675 net.cpp:141] Setting up inception_5a/pool_proj
I0403 15:10:06.979245 11675 net.cpp:148] Top shape: 24 128 7 7 (150528)
I0403 15:10:06.979274 11675 net.cpp:156] Memory required for data: 1305071136
I0403 15:10:06.979290 11675 layer_factory.hpp:77] Creating layer inception_5a/relu_pool_proj
I0403 15:10:06.979310 11675 net.cpp:91] Creating Layer inception_5a/relu_pool_proj
I0403 15:10:06.979327 11675 net.cpp:425] inception_5a/relu_pool_proj <- inception_5a/pool_proj
I0403 15:10:06.979346 11675 net.cpp:386] inception_5a/relu_pool_proj -> inception_5a/pool_proj (in-place)
I0403 15:10:06.979671 11675 net.cpp:141] Setting up inception_5a/relu_pool_proj
I0403 15:10:06.979698 11675 net.cpp:148] Top shape: 24 128 7 7 (150528)
I0403 15:10:06.979712 11675 net.cpp:156] Memory required for data: 1305673248
I0403 15:10:06.979727 11675 layer_factory.hpp:77] Creating layer inception_5a/output
I0403 15:10:06.979744 11675 net.cpp:91] Creating Layer inception_5a/output
I0403 15:10:06.979759 11675 net.cpp:425] inception_5a/output <- inception_5a/1x1
I0403 15:10:06.979776 11675 net.cpp:425] inception_5a/output <- inception_5a/3x3
I0403 15:10:06.979792 11675 net.cpp:425] inception_5a/output <- inception_5a/5x5
I0403 15:10:06.979809 11675 net.cpp:425] inception_5a/output <- inception_5a/pool_proj
I0403 15:10:06.979827 11675 net.cpp:399] inception_5a/output -> inception_5a/output
I0403 15:10:06.979892 11675 net.cpp:141] Setting up inception_5a/output
I0403 15:10:06.979913 11675 net.cpp:148] Top shape: 24 832 7 7 (978432)
I0403 15:10:06.979928 11675 net.cpp:156] Memory required for data: 1309586976
I0403 15:10:06.979941 11675 layer_factory.hpp:77] Creating layer inception_5a/output_inception_5a/output_0_split
I0403 15:10:06.979957 11675 net.cpp:91] Creating Layer inception_5a/output_inception_5a/output_0_split
I0403 15:10:06.979972 11675 net.cpp:425] inception_5a/output_inception_5a/output_0_split <- inception_5a/output
I0403 15:10:06.979990 11675 net.cpp:399] inception_5a/output_inception_5a/output_0_split -> inception_5a/output_inception_5a/output_0_split_0
I0403 15:10:06.980011 11675 net.cpp:399] inception_5a/output_inception_5a/output_0_split -> inception_5a/output_inception_5a/output_0_split_1
I0403 15:10:06.980031 11675 net.cpp:399] inception_5a/output_inception_5a/output_0_split -> inception_5a/output_inception_5a/output_0_split_2
I0403 15:10:06.980051 11675 net.cpp:399] inception_5a/output_inception_5a/output_0_split -> inception_5a/output_inception_5a/output_0_split_3
I0403 15:10:06.980161 11675 net.cpp:141] Setting up inception_5a/output_inception_5a/output_0_split
I0403 15:10:06.980183 11675 net.cpp:148] Top shape: 24 832 7 7 (978432)
I0403 15:10:06.980200 11675 net.cpp:148] Top shape: 24 832 7 7 (978432)
I0403 15:10:06.980214 11675 net.cpp:148] Top shape: 24 832 7 7 (978432)
I0403 15:10:06.980229 11675 net.cpp:148] Top shape: 24 832 7 7 (978432)
I0403 15:10:06.980242 11675 net.cpp:156] Memory required for data: 1325241888
I0403 15:10:06.980255 11675 layer_factory.hpp:77] Creating layer inception_5b/1x1
I0403 15:10:06.980278 11675 net.cpp:91] Creating Layer inception_5b/1x1
I0403 15:10:06.980294 11675 net.cpp:425] inception_5b/1x1 <- inception_5a/output_inception_5a/output_0_split_0
I0403 15:10:06.980312 11675 net.cpp:399] inception_5b/1x1 -> inception_5b/1x1
I0403 15:10:06.984179 11675 net.cpp:141] Setting up inception_5b/1x1
I0403 15:10:06.984210 11675 net.cpp:148] Top shape: 24 384 7 7 (451584)
I0403 15:10:06.984225 11675 net.cpp:156] Memory required for data: 1327048224
I0403 15:10:06.984242 11675 layer_factory.hpp:77] Creating layer inception_5b/relu_1x1
I0403 15:10:06.984271 11675 net.cpp:91] Creating Layer inception_5b/relu_1x1
I0403 15:10:06.984289 11675 net.cpp:425] inception_5b/relu_1x1 <- inception_5b/1x1
I0403 15:10:06.984307 11675 net.cpp:386] inception_5b/relu_1x1 -> inception_5b/1x1 (in-place)
I0403 15:10:06.984630 11675 net.cpp:141] Setting up inception_5b/relu_1x1
I0403 15:10:06.984657 11675 net.cpp:148] Top shape: 24 384 7 7 (451584)
I0403 15:10:06.984670 11675 net.cpp:156] Memory required for data: 1328854560
I0403 15:10:06.984684 11675 layer_factory.hpp:77] Creating layer inception_5b/3x3_reduce
I0403 15:10:06.984706 11675 net.cpp:91] Creating Layer inception_5b/3x3_reduce
I0403 15:10:06.984724 11675 net.cpp:425] inception_5b/3x3_reduce <- inception_5a/output_inception_5a/output_0_split_1
I0403 15:10:06.984745 11675 net.cpp:399] inception_5b/3x3_reduce -> inception_5b/3x3_reduce
I0403 15:10:06.987449 11675 net.cpp:141] Setting up inception_5b/3x3_reduce
I0403 15:10:06.987478 11675 net.cpp:148] Top shape: 24 192 7 7 (225792)
I0403 15:10:06.987493 11675 net.cpp:156] Memory required for data: 1329757728
I0403 15:10:06.987510 11675 layer_factory.hpp:77] Creating layer inception_5b/relu_3x3_reduce
I0403 15:10:06.987527 11675 net.cpp:91] Creating Layer inception_5b/relu_3x3_reduce
I0403 15:10:06.987542 11675 net.cpp:425] inception_5b/relu_3x3_reduce <- inception_5b/3x3_reduce
I0403 15:10:06.987561 11675 net.cpp:386] inception_5b/relu_3x3_reduce -> inception_5b/3x3_reduce (in-place)
I0403 15:10:06.987748 11675 net.cpp:141] Setting up inception_5b/relu_3x3_reduce
I0403 15:10:06.987771 11675 net.cpp:148] Top shape: 24 192 7 7 (225792)
I0403 15:10:06.987785 11675 net.cpp:156] Memory required for data: 1330660896
I0403 15:10:06.987799 11675 layer_factory.hpp:77] Creating layer inception_5b/3x3
I0403 15:10:06.987820 11675 net.cpp:91] Creating Layer inception_5b/3x3
I0403 15:10:06.987838 11675 net.cpp:425] inception_5b/3x3 <- inception_5b/3x3_reduce
I0403 15:10:06.987857 11675 net.cpp:399] inception_5b/3x3 -> inception_5b/3x3
I0403 15:10:06.994781 11675 net.cpp:141] Setting up inception_5b/3x3
I0403 15:10:06.994822 11675 net.cpp:148] Top shape: 24 384 7 7 (451584)
I0403 15:10:06.994837 11675 net.cpp:156] Memory required for data: 1332467232
I0403 15:10:06.994855 11675 layer_factory.hpp:77] Creating layer inception_5b/relu_3x3
I0403 15:10:06.994874 11675 net.cpp:91] Creating Layer inception_5b/relu_3x3
I0403 15:10:06.994891 11675 net.cpp:425] inception_5b/relu_3x3 <- inception_5b/3x3
I0403 15:10:06.994907 11675 net.cpp:386] inception_5b/relu_3x3 -> inception_5b/3x3 (in-place)
I0403 15:10:06.995208 11675 net.cpp:141] Setting up inception_5b/relu_3x3
I0403 15:10:06.995232 11675 net.cpp:148] Top shape: 24 384 7 7 (451584)
I0403 15:10:06.995246 11675 net.cpp:156] Memory required for data: 1334273568
I0403 15:10:06.995260 11675 layer_factory.hpp:77] Creating layer inception_5b/5x5_reduce
I0403 15:10:06.995297 11675 net.cpp:91] Creating Layer inception_5b/5x5_reduce
I0403 15:10:06.995316 11675 net.cpp:425] inception_5b/5x5_reduce <- inception_5a/output_inception_5a/output_0_split_2
I0403 15:10:06.995337 11675 net.cpp:399] inception_5b/5x5_reduce -> inception_5b/5x5_reduce
I0403 15:10:06.996659 11675 net.cpp:141] Setting up inception_5b/5x5_reduce
I0403 15:10:06.996685 11675 net.cpp:148] Top shape: 24 48 7 7 (56448)
I0403 15:10:06.996701 11675 net.cpp:156] Memory required for data: 1334499360
I0403 15:10:06.996717 11675 layer_factory.hpp:77] Creating layer inception_5b/relu_5x5_reduce
I0403 15:10:06.996737 11675 net.cpp:91] Creating Layer inception_5b/relu_5x5_reduce
I0403 15:10:06.996753 11675 net.cpp:425] inception_5b/relu_5x5_reduce <- inception_5b/5x5_reduce
I0403 15:10:06.996769 11675 net.cpp:386] inception_5b/relu_5x5_reduce -> inception_5b/5x5_reduce (in-place)
I0403 15:10:06.997136 11675 net.cpp:141] Setting up inception_5b/relu_5x5_reduce
I0403 15:10:06.997162 11675 net.cpp:148] Top shape: 24 48 7 7 (56448)
I0403 15:10:06.997177 11675 net.cpp:156] Memory required for data: 1334725152
I0403 15:10:06.997190 11675 layer_factory.hpp:77] Creating layer inception_5b/5x5
I0403 15:10:06.997210 11675 net.cpp:91] Creating Layer inception_5b/5x5
I0403 15:10:06.997225 11675 net.cpp:425] inception_5b/5x5 <- inception_5b/5x5_reduce
I0403 15:10:06.997243 11675 net.cpp:399] inception_5b/5x5 -> inception_5b/5x5
I0403 15:10:06.999369 11675 net.cpp:141] Setting up inception_5b/5x5
I0403 15:10:06.999397 11675 net.cpp:148] Top shape: 24 128 7 7 (150528)
I0403 15:10:06.999429 11675 net.cpp:156] Memory required for data: 1335327264
I0403 15:10:06.999447 11675 layer_factory.hpp:77] Creating layer inception_5b/relu_5x5
I0403 15:10:06.999467 11675 net.cpp:91] Creating Layer inception_5b/relu_5x5
I0403 15:10:06.999483 11675 net.cpp:425] inception_5b/relu_5x5 <- inception_5b/5x5
I0403 15:10:06.999500 11675 net.cpp:386] inception_5b/relu_5x5 -> inception_5b/5x5 (in-place)
I0403 15:10:06.999687 11675 net.cpp:141] Setting up inception_5b/relu_5x5
I0403 15:10:06.999714 11675 net.cpp:148] Top shape: 24 128 7 7 (150528)
I0403 15:10:06.999728 11675 net.cpp:156] Memory required for data: 1335929376
I0403 15:10:06.999742 11675 layer_factory.hpp:77] Creating layer inception_5b/pool
I0403 15:10:06.999759 11675 net.cpp:91] Creating Layer inception_5b/pool
I0403 15:10:06.999774 11675 net.cpp:425] inception_5b/pool <- inception_5a/output_inception_5a/output_0_split_3
I0403 15:10:06.999794 11675 net.cpp:399] inception_5b/pool -> inception_5b/pool
I0403 15:10:06.999866 11675 net.cpp:141] Setting up inception_5b/pool
I0403 15:10:06.999888 11675 net.cpp:148] Top shape: 24 832 7 7 (978432)
I0403 15:10:06.999902 11675 net.cpp:156] Memory required for data: 1339843104
I0403 15:10:06.999914 11675 layer_factory.hpp:77] Creating layer inception_5b/pool_proj
I0403 15:10:06.999935 11675 net.cpp:91] Creating Layer inception_5b/pool_proj
I0403 15:10:06.999954 11675 net.cpp:425] inception_5b/pool_proj <- inception_5b/pool
I0403 15:10:06.999985 11675 net.cpp:399] inception_5b/pool_proj -> inception_5b/pool_proj
I0403 15:10:07.002463 11675 net.cpp:141] Setting up inception_5b/pool_proj
I0403 15:10:07.002495 11675 net.cpp:148] Top shape: 24 128 7 7 (150528)
I0403 15:10:07.002511 11675 net.cpp:156] Memory required for data: 1340445216
I0403 15:10:07.002540 11675 layer_factory.hpp:77] Creating layer inception_5b/relu_pool_proj
I0403 15:10:07.002560 11675 net.cpp:91] Creating Layer inception_5b/relu_pool_proj
I0403 15:10:07.002578 11675 net.cpp:425] inception_5b/relu_pool_proj <- inception_5b/pool_proj
I0403 15:10:07.002595 11675 net.cpp:386] inception_5b/relu_pool_proj -> inception_5b/pool_proj (in-place)
I0403 15:10:07.002904 11675 net.cpp:141] Setting up inception_5b/relu_pool_proj
I0403 15:10:07.002929 11675 net.cpp:148] Top shape: 24 128 7 7 (150528)
I0403 15:10:07.002944 11675 net.cpp:156] Memory required for data: 1341047328
I0403 15:10:07.002959 11675 layer_factory.hpp:77] Creating layer inception_5b/output
I0403 15:10:07.002977 11675 net.cpp:91] Creating Layer inception_5b/output
I0403 15:10:07.003006 11675 net.cpp:425] inception_5b/output <- inception_5b/1x1
I0403 15:10:07.003024 11675 net.cpp:425] inception_5b/output <- inception_5b/3x3
I0403 15:10:07.003039 11675 net.cpp:425] inception_5b/output <- inception_5b/5x5
I0403 15:10:07.003054 11675 net.cpp:425] inception_5b/output <- inception_5b/pool_proj
I0403 15:10:07.003070 11675 net.cpp:399] inception_5b/output -> inception_5b/output
I0403 15:10:07.003119 11675 net.cpp:141] Setting up inception_5b/output
I0403 15:10:07.003144 11675 net.cpp:148] Top shape: 24 1024 7 7 (1204224)
I0403 15:10:07.003160 11675 net.cpp:156] Memory required for data: 1345864224
I0403 15:10:07.003175 11675 layer_factory.hpp:77] Creating layer pool5/7x7_s1
I0403 15:10:07.003190 11675 net.cpp:91] Creating Layer pool5/7x7_s1
I0403 15:10:07.003206 11675 net.cpp:425] pool5/7x7_s1 <- inception_5b/output
I0403 15:10:07.003224 11675 net.cpp:399] pool5/7x7_s1 -> pool5/7x7_s1
I0403 15:10:07.003443 11675 net.cpp:141] Setting up pool5/7x7_s1
I0403 15:10:07.003468 11675 net.cpp:148] Top shape: 24 1024 1 1 (24576)
I0403 15:10:07.003481 11675 net.cpp:156] Memory required for data: 1345962528
I0403 15:10:07.003496 11675 layer_factory.hpp:77] Creating layer pool5/drop_7x7_s1
I0403 15:10:07.003515 11675 net.cpp:91] Creating Layer pool5/drop_7x7_s1
I0403 15:10:07.003531 11675 net.cpp:425] pool5/drop_7x7_s1 <- pool5/7x7_s1
I0403 15:10:07.003548 11675 net.cpp:386] pool5/drop_7x7_s1 -> pool5/7x7_s1 (in-place)
I0403 15:10:07.003597 11675 net.cpp:141] Setting up pool5/drop_7x7_s1
I0403 15:10:07.003620 11675 net.cpp:148] Top shape: 24 1024 1 1 (24576)
I0403 15:10:07.003633 11675 net.cpp:156] Memory required for data: 1346060832
I0403 15:10:07.003648 11675 layer_factory.hpp:77] Creating layer loss3/classifier_plantvillage
I0403 15:10:07.003665 11675 net.cpp:91] Creating Layer loss3/classifier_plantvillage
I0403 15:10:07.003684 11675 net.cpp:425] loss3/classifier_plantvillage <- pool5/7x7_s1
I0403 15:10:07.003702 11675 net.cpp:399] loss3/classifier_plantvillage -> loss3/classifier_plantvillage
I0403 15:10:07.004134 11675 net.cpp:141] Setting up loss3/classifier_plantvillage
I0403 15:10:07.004158 11675 net.cpp:148] Top shape: 24 38 (912)
I0403 15:10:07.004173 11675 net.cpp:156] Memory required for data: 1346064480
I0403 15:10:07.004190 11675 layer_factory.hpp:77] Creating layer loss3/classifier_plantvillage_loss3/classifier_plantvillage_0_split
I0403 15:10:07.004209 11675 net.cpp:91] Creating Layer loss3/classifier_plantvillage_loss3/classifier_plantvillage_0_split
I0403 15:10:07.004225 11675 net.cpp:425] loss3/classifier_plantvillage_loss3/classifier_plantvillage_0_split <- loss3/classifier_plantvillage
I0403 15:10:07.004245 11675 net.cpp:399] loss3/classifier_plantvillage_loss3/classifier_plantvillage_0_split -> loss3/classifier_plantvillage_loss3/classifier_plantvillage_0_split_0
I0403 15:10:07.004266 11675 net.cpp:399] loss3/classifier_plantvillage_loss3/classifier_plantvillage_0_split -> loss3/classifier_plantvillage_loss3/classifier_plantvillage_0_split_1
I0403 15:10:07.004284 11675 net.cpp:399] loss3/classifier_plantvillage_loss3/classifier_plantvillage_0_split -> loss3/classifier_plantvillage_loss3/classifier_plantvillage_0_split_2
I0403 15:10:07.004304 11675 net.cpp:399] loss3/classifier_plantvillage_loss3/classifier_plantvillage_0_split -> loss3/classifier_plantvillage_loss3/classifier_plantvillage_0_split_3
I0403 15:10:07.004443 11675 net.cpp:141] Setting up loss3/classifier_plantvillage_loss3/classifier_plantvillage_0_split
I0403 15:10:07.004468 11675 net.cpp:148] Top shape: 24 38 (912)
I0403 15:10:07.004485 11675 net.cpp:148] Top shape: 24 38 (912)
I0403 15:10:07.004501 11675 net.cpp:148] Top shape: 24 38 (912)
I0403 15:10:07.004518 11675 net.cpp:148] Top shape: 24 38 (912)
I0403 15:10:07.004531 11675 net.cpp:156] Memory required for data: 1346079072
I0403 15:10:07.004546 11675 layer_factory.hpp:77] Creating layer loss1/loss
I0403 15:10:07.004570 11675 net.cpp:91] Creating Layer loss1/loss
I0403 15:10:07.004590 11675 net.cpp:425] loss1/loss <- loss1/classifier_plantvillage_loss1/classifier_plantvillage_0_split_0
I0403 15:10:07.004622 11675 net.cpp:425] loss1/loss <- label_data_1_split_0
…
