…
I0403 15:36:01.430238 12130 net.cpp:313] The NetState phase (1) differed from the phase (0) specified by a rule in layer data
I0403 15:36:01.431334 12130 net.cpp:49] Initializing net from parameters: 
state {
  phase: TEST
}
layer {
  name: "data"
  type: "Data"
  top: "data"
  top: "label"
  include {
    phase: TEST
  }
  transform_param {
    mirror: false
    crop_size: 224
    mean_file: "/home/mohanty/data/final_dataset/lmdb/segmented-50-50/mean.binaryproto"
  }
  data_param {
    source: "/home/mohanty/data/final_dataset/lmdb/segmented-50-50/test_db"
    batch_size: 24
    backend: LMDB
  }
}
layer {
  name: "conv1/7x7_s2"
  type: "Convolution"
  bottom: "data"
  top: "conv1/7x7_s2"
  param {
    lr_mult: 1
    decay_mult: 1
  }
  param {
    lr_mult: 2
    decay_mult: 0
  }
  convolution_param {
    num_output: 64
    pad: 3
    kernel_size: 7
    stride: 2
    weight_filler {
      type: "xavier"
      std: 0.1
    }
    bias_filler {
      type: "constant"
      value: 0.2
    }
  }
}
layer {
  name: "conv1/relu_7x7"
  type: "ReLU"
  bottom: "conv1/7x7_s2"
  top: "conv1/7x7_s2"
}
layer {
  name: "pool1/3x3_s2"
  type: "Pooling"
  bottom: "conv1/7x7_s2"
  top: "pool1/3x3_s2"
  pooling_param {
    pool: MAX
    kernel_size: 3
    stride: 2
  }
}
layer {
  name: "pool1/norm1"
  type: "LRN"
  bottom: "pool1/3x3_s2"
  top: "pool1/norm1"
  lrn_param {
    local_size: 5
    alpha: 0.0001
    beta: 0.75
  }
}
layer {
  name: "conv2/3x3_reduce"
  type: "Convolution"
  bottom: "pool1/norm1"
  top: "conv2/3x3_reduce"
  param {
    lr_mult: 1
    decay_mult: 1
  }
  param {
    lr_mult: 2
    decay_mult: 0
  }
  convolution_param {
    num_output: 64
    kernel_size: 1
    weight_filler {
      type: "xavier"
      std: 0.1
    }
    bias_filler {
      type: "constant"
      value: 0.2
    }
  }
}
layer {
  name: "conv2/relu_3x3_reduce"
  type: "ReLU"
  bottom: "conv2/3x3_reduce"
  top: "conv2/3x3_reduce"
}
layer {
  name: "conv2/3x3"
  type: "Convolution"
  bottom: "conv2/3x3_reduce"
  top: "conv2/3x3"
  param {
    lr_mult: 1
    decay_mult: 1
  }
  param {
    lr_mult: 2
    decay_mult: 0
  }
  convolution_param {
    num_output: 192
    pad: 1
    kernel_size: 3
    weight_filler {
      type: "xavier"
      std: 0.03
    }
    bias_filler {
      type: "constant"
      value: 0.2
    }
  }
}
layer {
  name: "conv2/relu_3x3"
  type: "ReLU"
  bottom: "conv2/3x3"
  top: "conv2/3x3"
}
layer {
  name: "conv2/norm2"
  type: "LRN"
  bottom: "conv2/3x3"
  top: "conv2/norm2"
  lrn_param {
    local_size: 5
    alpha: 0.0001
    beta: 0.75
  }
}
layer {
  name: "pool2/3x3_s2"
  type: "Pooling"
  bottom: "conv2/norm2"
  top: "pool2/3x3_s2"
  pooling_param {
    pool: MAX
    kernel_size: 3
    stride: 2
  }
}
layer {
  name: "inception_3a/1x1"
  type: "Convolution"
  bottom: "pool2/3x3_s2"
  top: "inception_3a/1x1"
  param {
    lr_mult: 1
    decay_mult: 1
  }
  param {
    lr_mult: 2
    decay_mult: 0
  }
  convolution_param {
    num_output: 64
    kernel_size: 1
    weight_filler {
      type: "xavier"
      std: 0.03
    }
    bias_filler {
      type: "constant"
      value: 0.2
    }
  }
}
layer {
  name: "inception_3a/relu_1x1"
  type: "ReLU"
  bottom: "inception_3a/1x1"
  top: "inception_3a/1x1"
}
layer {
  name: "inception_3a/3x3_reduce"
  type: "Convolution"
  bottom: "pool2/3x3_s2"
  top: "inception_3a/3x3_reduce"
  param {
    lr_mult: 1
    decay_mult: 1
  }
  param {
    lr_mult: 2
    decay_mult: 0
  }
  convolution_param {
    num_output: 96
    kernel_size: 1
    weight_filler {
      type: "xavier"
      std: 0.09
    }
    bias_filler {
      type: "constant"
      value: 0.2
    }
  }
}
layer {
  name: "inception_3a/relu_3x3_reduce"
  type: "ReLU"
  bottom: "inception_3a/3x3_reduce"
  top: "inception_3a/3x3_reduce"
}
layer {
  name: "inception_3a/3x3"
  type: "Convolution"
  bottom: "inception_3a/3x3_reduce"
  top: "inception_3a/3x3"
  param {
    lr_mult: 1
    decay_mult: 1
  }
  param {
    lr_mult: 2
    decay_mult: 0
  }
  convolution_param {
    num_output: 128
    pad: 1
    kernel_size: 3
    weight_filler {
      type: "xavier"
      std: 0.03
    }
    bias_filler {
      type: "constant"
      value: 0.2
    }
  }
}
layer {
  name: "inception_3a/relu_3x3"
  type: "ReLU"
  bottom: "inception_3a/3x3"
  top: "inception_3a/3x3"
}
layer {
  name: "inception_3a/5x5_reduce"
  type: "Convolution"
  bottom: "pool2/3x3_s2"
  top: "inception_3a/5x5_reduce"
  param {
    lr_mult: 1
    decay_mult: 1
  }
  param {
    lr_mult: 2
    decay_mult: 0
  }
  convolution_param {
    num_output: 16
    kernel_size: 1
    weight_filler {
      type: "xavier"
      std: 0.2
    }
    bias_filler {
      type: "constant"
      value: 0.2
    }
  }
}
layer {
  name: "inception_3a/relu_5x5_reduce"
  type: "ReLU"
  bottom: "inception_3a/5x5_reduce"
  top: "inception_3a/5x5_reduce"
}
layer {
  name: "inception_3a/5x5"
  type: "Convolution"
  bottom: "inception_3a/5x5_reduce"
  top: "inception_3a/5x5"
  param {
    lr_mult: 1
    decay_mult: 1
  }
  param {
    lr_mult: 2
    decay_mult: 0
  }
  convolution_param {
    num_output: 32
    pad: 2
    kernel_size: 5
    weight_filler {
      type: "xavier"
      std: 0.03
    }
    bias_filler {
      type: "constant"
      value: 0.2
    }
  }
}
layer {
  name: "inception_3a/relu_5x5"
  type: "ReLU"
  bottom: "inception_3a/5x5"
  top: "inception_3a/5x5"
}
layer {
  name: "inception_3a/pool"
  type: "Pooling"
  bottom: "pool2/3x3_s2"
  top: "inception_3a/pool"
  pooling_param {
    pool: MAX
    kernel_size: 3
    stride: 1
    pad: 1
  }
}
layer {
  name: "inception_3a/pool_proj"
  type: "Convolution"
  bottom: "inception_3a/pool"
  top: "inception_3a/pool_proj"
  param {
    lr_mult: 1
    decay_mult: 1
  }
  param {
    lr_mult: 2
    decay_mult: 0
  }
  convolution_param {
    num_output: 32
    kernel_size: 1
    weight_filler {
      type: "xavier"
      std: 0.1
    }
    bias_filler {
      type: "constant"
      value: 0.2
    }
  }
}
layer {
  name: "inception_3a/relu_pool_proj"
  type: "ReLU"
  bottom: "inception_3a/pool_proj"
  top: "inception_3a/pool_proj"
}
layer {
  name: "inception_3a/output"
  type: "Concat"
  bottom: "inception_3a/1x1"
  bottom: "inception_3a/3x3"
  bottom: "inception_3a/5x5"
  bottom: "inception_3a/pool_proj"
  top: "inception_3a/output"
}
layer {
  name: "inception_3b/1x1"
  type: "Convolution"
  bottom: "inception_3a/output"
  top: "inception_3b/1x1"
  param {
    lr_mult: 1
    decay_mult: 1
  }
  param {
    lr_mult: 2
    decay_mult: 0
  }
  convolution_param {
    num_output: 128
    kernel_size: 1
    weight_filler {
      type: "xavier"
      std: 0.03
    }
    bias_filler {
      type: "constant"
      value: 0.2
    }
  }
}
layer {
  name: "inception_3b/relu_1x1"
  type: "ReLU"
  bottom: "inception_3b/1x1"
  top: "inception_3b/1x1"
}
layer {
  name: "inception_3b/3x3_reduce"
  type: "Convolution"
  bottom: "inception_3a/output"
  top: "inception_3b/3x3_reduce"
  param {
    lr_mult: 1
    decay_mult: 1
  }
  param {
    lr_mult: 2
    decay_mult: 0
  }
  convolution_param {
    num_output: 128
    kernel_size: 1
    weight_filler {
      type: "xavier"
      std: 0.09
    }
    bias_filler {
      type: "constant"
      value: 0.2
    }
  }
}
layer {
  name: "inception_3b/relu_3x3_reduce"
  type: "ReLU"
  bottom: "inception_3b/3x3_reduce"
  top: "inception_3b/3x3_reduce"
}
layer {
  name: "inception_3b/3x3"
  type: "Convolution"
  bottom: "inception_3b/3x3_reduce"
  top: "inception_3b/3x3"
  param {
    lr_mult: 1
    decay_mult: 1
  }
  param {
    lr_mult: 2
    decay_mult: 0
  }
  convolution_param {
    num_output: 192
    pad: 1
    kernel_size: 3
    weight_filler {
      type: "xavier"
      std: 0.03
    }
    bias_filler {
      type: "constant"
      value: 0.2
    }
  }
}
layer {
  name: "inception_3b/relu_3x3"
  type: "ReLU"
  bottom: "inception_3b/3x3"
  top: "inception_3b/3x3"
}
layer {
  name: "inception_3b/5x5_reduce"
  type: "Convolution"
  bottom: "inception_3a/output"
  top: "inception_3b/5x5_reduce"
  param {
    lr_mult: 1
    decay_mult: 1
  }
  param {
    lr_mult: 2
    decay_mult: 0
  }
  convolution_param {
    num_output: 32
    kernel_size: 1
    weight_filler {
      type: "xavier"
      std: 0.2
    }
    bias_filler {
      type: "constant"
      value: 0.2
    }
  }
}
layer {
  name: "inception_3b/relu_5x5_reduce"
  type: "ReLU"
  bottom: "inception_3b/5x5_reduce"
  top: "inception_3b/5x5_reduce"
}
layer {
  name: "inception_3b/5x5"
  type: "Convolution"
  bottom: "inception_3b/5x5_reduce"
  top: "inception_3b/5x5"
  param {
    lr_mult: 1
    decay_mult: 1
  }
  param {
    lr_mult: 2
    decay_mult: 0
  }
  convolution_param {
    num_output: 96
    pad: 2
    kernel_size: 5
    weight_filler {
      type: "xavier"
      std: 0.03
    }
    bias_filler {
      type: "constant"
      value: 0.2
    }
  }
}
layer {
  name: "inception_3b/relu_5x5"
  type: "ReLU"
  bottom: "inception_3b/5x5"
  top: "inception_3b/5x5"
}
layer {
  name: "inception_3b/pool"
  type: "Pooling"
  bottom: "inception_3a/output"
  top: "inception_3b/pool"
  pooling_param {
    pool: MAX
    kernel_size: 3
    stride: 1
    pad: 1
  }
}
layer {
  name: "inception_3b/pool_proj"
  type: "Convolution"
  bottom: "inception_3b/pool"
  top: "inception_3b/pool_proj"
  param {
    lr_mult: 1
    decay_mult: 1
  }
  param {
    lr_mult: 2
    decay_mult: 0
  }
  convolution_param {
    num_output: 64
    kernel_size: 1
    weight_filler {
      type: "xavier"
      std: 0.1
    }
    bias_filler {
      type: "constant"
      value: 0.2
    }
  }
}
layer {
  name: "inception_3b/relu_pool_proj"
  type: "ReLU"
  bottom: "inception_3b/pool_proj"
  top: "inception_3b/pool_proj"
}
layer {
  name: "inception_3b/output"
  type: "Concat"
  bottom: "inception_3b/1x1"
  bottom: "inception_3b/3x3"
  bottom: "inception_3b/5x5"
  bottom: "inception_3b/pool_proj"
  top: "inception_3b/output"
}
layer {
  name: "pool3/3x3_s2"
  type: "Pooling"
  bottom: "inception_3b/output"
  top: "pool3/3x3_s2"
  pooling_param {
    pool: MAX
    kernel_size: 3
    stride: 2
  }
}
layer {
  name: "inception_4a/1x1"
  type: "Convolution"
  bottom: "pool3/3x3_s2"
  top: "inception_4a/1x1"
  param {
    lr_mult: 1
    decay_mult: 1
  }
  param {
    lr_mult: 2
    decay_mult: 0
  }
  convolution_param {
    num_output: 192
    kernel_size: 1
    weight_filler {
      type: "xavier"
      std: 0.03
    }
    bias_filler {
      type: "constant"
      value: 0.2
    }
  }
}
layer {
  name: "inception_4a/relu_1x1"
  type: "ReLU"
  bottom: "inception_4a/1x1"
  top: "inception_4a/1x1"
}
layer {
  name: "inception_4a/3x3_reduce"
  type: "Convolution"
  bottom: "pool3/3x3_s2"
  top: "inception_4a/3x3_reduce"
  param {
    lr_mult: 1
    decay_mult: 1
  }
  param {
    lr_mult: 2
    decay_mult: 0
  }
  convolution_param {
    num_output: 96
    kernel_size: 1
    weight_filler {
      type: "xavier"
      std: 0.09
    }
    bias_filler {
      type: "constant"
      value: 0.2
    }
  }
}
layer {
  name: "inception_4a/relu_3x3_reduce"
  type: "ReLU"
  bottom: "inception_4a/3x3_reduce"
  top: "inception_4a/3x3_reduce"
}
layer {
  name: "inception_4a/3x3"
  type: "Convolution"
  bottom: "inception_4a/3x3_reduce"
  top: "inception_4a/3x3"
  param {
    lr_mult: 1
    decay_mult: 1
  }
  param {
    lr_mult: 2
    decay_mult: 0
  }
  convolution_param {
    num_output: 208
    pad: 1
    kernel_size: 3
    weight_filler {
      type: "xavier"
      std: 0.03
    }
    bias_filler {
      type: "constant"
      value: 0.2
    }
  }
}
layer {
  name: "inception_4a/relu_3x3"
  type: "ReLU"
  bottom: "inception_4a/3x3"
  top: "inception_4a/3x3"
}
layer {
  name: "inception_4a/5x5_reduce"
  type: "Convolution"
  bottom: "pool3/3x3_s2"
  top: "inception_4a/5x5_reduce"
  param {
    lr_mult: 1
    decay_mult: 1
  }
  param {
    lr_mult: 2
    decay_mult: 0
  }
  convolution_param {
    num_output: 16
    kernel_size: 1
    weight_filler {
      type: "xavier"
      std: 0.2
    }
    bias_filler {
      type: "constant"
      value: 0.2
    }
  }
}
layer {
  name: "inception_4a/relu_5x5_reduce"
  type: "ReLU"
  bottom: "inception_4a/5x5_reduce"
  top: "inception_4a/5x5_reduce"
}
layer {
  name: "inception_4a/5x5"
  type: "Convolution"
  bottom: "inception_4a/5x5_reduce"
  top: "inception_4a/5x5"
  param {
    lr_mult: 1
    decay_mult: 1
  }
  param {
    lr_mult: 2
    decay_mult: 0
  }
  convolution_param {
    num_output: 48
    pad: 2
    kernel_size: 5
    weight_filler {
      type: "xavier"
      std: 0.03
    }
    bias_filler {
      type: "constant"
      value: 0.2
    }
  }
}
layer {
  name: "inception_4a/relu_5x5"
  type: "ReLU"
  bottom: "inception_4a/5x5"
  top: "inception_4a/5x5"
}
layer {
  name: "inception_4a/pool"
  type: "Pooling"
  bottom: "pool3/3x3_s2"
  top: "inception_4a/pool"
  pooling_param {
    pool: MAX
    kernel_size: 3
    stride: 1
    pad: 1
  }
}
layer {
  name: "inception_4a/pool_proj"
  type: "Convolution"
  bottom: "inception_4a/pool"
  top: "inception_4a/pool_proj"
  param {
    lr_mult: 1
    decay_mult: 1
  }
  param {
    lr_mult: 2
    decay_mult: 0
  }
  convolution_param {
    num_output: 64
    kernel_size: 1
    weight_filler {
      type: "xavier"
      std: 0.1
    }
    bias_filler {
      type: "constant"
      value: 0.2
    }
  }
}
layer {
  name: "inception_4a/relu_pool_proj"
  type: "ReLU"
  bottom: "inception_4a/pool_proj"
  top: "inception_4a/pool_proj"
}
layer {
  name: "inception_4a/output"
  type: "Concat"
  bottom: "inception_4a/1x1"
  bottom: "inception_4a/3x3"
  bottom: "inception_4a/5x5"
  bottom: "inception_4a/pool_proj"
  top: "inception_4a/output"
}
layer {
  name: "loss1/ave_pool"
  type: "Pooling"
  bottom: "inception_4a/output"
  top: "loss1/ave_pool"
  pooling_param {
    pool: AVE
    kernel_size: 5
    stride: 3
  }
}
layer {
  name: "loss1/conv"
  type: "Convolution"
  bottom: "loss1/ave_pool"
  top: "loss1/conv"
  param {
    lr_mult: 1
    decay_mult: 1
  }
  param {
    lr_mult: 2
    decay_mult: 0
  }
  convolution_param {
    num_output: 128
    kernel_size: 1
    weight_filler {
      type: "xavier"
      std: 0.08
    }
    bias_filler {
      type: "constant"
      value: 0.2
    }
  }
}
layer {
  name: "loss1/relu_conv"
  type: "ReLU"
  bottom: "loss1/conv"
  top: "loss1/conv"
}
layer {
  name: "loss1/fc"
  type: "InnerProduct"
  bottom: "loss1/conv"
  top: "loss1/fc"
  param {
    lr_mult: 1
    decay_mult: 1
  }
  param {
    lr_mult: 2
    decay_mult: 0
  }
  inner_product_param {
    num_output: 1024
    weight_filler {
      type: "xavier"
      std: 0.02
    }
    bias_filler {
      type: "constant"
      value: 0.2
    }
  }
}
layer {
  name: "loss1/relu_fc"
  type: "ReLU"
  bottom: "loss1/fc"
  top: "loss1/fc"
}
layer {
  name: "loss1/drop_fc"
  type: "Dropout"
  bottom: "loss1/fc"
  top: "loss1/fc"
  dropout_param {
    dropout_ratio: 0.7
  }
}
layer {
  name: "loss1/classifier_plantvillage"
  type: "InnerProduct"
  bottom: "loss1/fc"
  top: "loss1/classifier_plantvillage"
  param {
    lr_mult: 1
    decay_mult: 1
  }
  param {
    lr_mult: 2
    decay_mult: 0
  }
  inner_product_param {
    num_output: 38
    weight_filler {
      type: "xavier"
      std: 0.0009765625
    }
    bias_filler {
      type: "constant"
      value: 0
    }
  }
}
layer {
  name: "inception_4b/1x1"
  type: "Convolution"
  bottom: "inception_4a/output"
  top: "inception_4b/1x1"
  param {
    lr_mult: 1
    decay_mult: 1
  }
  param {
    lr_mult: 2
    decay_mult: 0
  }
  convolution_param {
    num_output: 160
    kernel_size: 1
    weight_filler {
      type: "xavier"
      std: 0.03
    }
    bias_filler {
      type: "constant"
      value: 0.2
    }
  }
}
layer {
  name: "inception_4b/relu_1x1"
  type: "ReLU"
  bottom: "inception_4b/1x1"
  top: "inception_4b/1x1"
}
layer {
  name: "inception_4b/3x3_reduce"
  type: "Convolution"
  bottom: "inception_4a/output"
  top: "inception_4b/3x3_reduce"
  param {
    lr_mult: 1
    decay_mult: 1
  }
  param {
    lr_mult: 2
    decay_mult: 0
  }
  convolution_param {
    num_output: 112
    kernel_size: 1
    weight_filler {
      type: "xavier"
      std: 0.09
    }
    bias_filler {
      type: "constant"
      value: 0.2
    }
  }
}
layer {
  name: "inception_4b/relu_3x3_reduce"
  type: "ReLU"
  bottom: "inception_4b/3x3_reduce"
  top: "inception_4b/3x3_reduce"
}
layer {
  name: "inception_4b/3x3"
  type: "Convolution"
  bottom: "inception_4b/3x3_reduce"
  top: "inception_4b/3x3"
  param {
    lr_mult: 1
    decay_mult: 1
  }
  param {
    lr_mult: 2
    decay_mult: 0
  }
  convolution_param {
    num_output: 224
    pad: 1
    kernel_size: 3
    weight_filler {
      type: "xavier"
      std: 0.03
    }
    bias_filler {
      type: "constant"
      value: 0.2
    }
  }
}
layer {
  name: "inception_4b/relu_3x3"
  type: "ReLU"
  bottom: "inception_4b/3x3"
  top: "inception_4b/3x3"
}
layer {
  name: "inception_4b/5x5_reduce"
  type: "Convolution"
  bottom: "inception_4a/output"
  top: "inception_4b/5x5_reduce"
  param {
    lr_mult: 1
    decay_mult: 1
  }
  param {
    lr_mult: 2
    decay_mult: 0
  }
  convolution_param {
    num_output: 24
    kernel_size: 1
    weight_filler {
      type: "xavier"
      std: 0.2
    }
    bias_filler {
      type: "constant"
      value: 0.2
    }
  }
}
layer {
  name: "inception_4b/relu_5x5_reduce"
  type: "ReLU"
  bottom: "inception_4b/5x5_reduce"
  top: "inception_4b/5x5_reduce"
}
layer {
  name: "inception_4b/5x5"
  type: "Convolution"
  bottom: "inception_4b/5x5_reduce"
  top: "inception_4b/5x5"
  param {
    lr_mult: 1
    decay_mult: 1
  }
  param {
    lr_mult: 2
    decay_mult: 0
  }
  convolution_param {
    num_output: 64
    pad: 2
    kernel_size: 5
    weight_filler {
      type: "xavier"
      std: 0.03
    }
    bias_filler {
      type: "constant"
      value: 0.2
    }
  }
}
layer {
  name: "inception_4b/relu_5x5"
  type: "ReLU"
  bottom: "inception_4b/5x5"
  top: "inception_4b/5x5"
}
layer {
  name: "inception_4b/pool"
  type: "Pooling"
  bottom: "inception_4a/output"
  top: "inception_4b/pool"
  pooling_param {
    pool: MAX
    kernel_size: 3
    stride: 1
    pad: 1
  }
}
layer {
  name: "inception_4b/pool_proj"
  type: "Convolution"
  bottom: "inception_4b/pool"
  top: "inception_4b/pool_proj"
  param {
    lr_mult: 1
    decay_mult: 1
  }
  param {
    lr_mult: 2
    decay_mult: 0
  }
  convolution_param {
    num_output: 64
    kernel_size: 1
    weight_filler {
      type: "xavier"
      std: 0.1
    }
    bias_filler {
      type: "constant"
      value: 0.2
    }
  }
}
layer {
  name: "inception_4b/relu_pool_proj"
  type: "ReLU"
  bottom: "inception_4b/pool_proj"
  top: "inception_4b/pool_proj"
}
layer {
  name: "inception_4b/output"
  type: "Concat"
  bottom: "inception_4b/1x1"
  bottom: "inception_4b/3x3"
  bottom: "inception_4b/5x5"
  bottom: "inception_4b/pool_proj"
  top: "inception_4b/output"
}
layer {
  name: "inception_4c/1x1"
  type: "Convolution"
  bottom: "inception_4b/output"
  top: "inception_4c/1x1"
  param {
    lr_mult: 1
    decay_mult: 1
  }
  param {
    lr_mult: 2
    decay_mult: 0
  }
  convolution_param {
    num_output: 128
    kernel_size: 1
    weight_filler {
      type: "xavier"
      std: 0.03
    }
    bias_filler {
      type: "constant"
      value: 0.2
    }
  }
}
layer {
  name: "inception_4c/relu_1x1"
  type: "ReLU"
  bottom: "inception_4c/1x1"
  top: "inception_4c/1x1"
}
layer {
  name: "inception_4c/3x3_reduce"
  type: "Convolution"
  bottom: "inception_4b/output"
  top: "inception_4c/3x3_reduce"
  param {
    lr_mult: 1
    decay_mult: 1
  }
  param {
    lr_mult: 2
    decay_mult: 0
  }
  convolution_param {
    num_output: 128
    kernel_size: 1
    weight_filler {
      type: "xavier"
      std: 0.09
    }
    bias_filler {
      type: "constant"
      value: 0.2
    }
  }
}
layer {
  name: "inception_4c/relu_3x3_reduce"
  type: "ReLU"
  bottom: "inception_4c/3x3_reduce"
  top: "inception_4c/3x3_reduce"
}
layer {
  name: "inception_4c/3x3"
  type: "Convolution"
  bottom: "inception_4c/3x3_reduce"
  top: "inception_4c/3x3"
  param {
    lr_mult: 1
    decay_mult: 1
  }
  param {
    lr_mult: 2
    decay_mult: 0
  }
  convolution_param {
    num_output: 256
    pad: 1
    kernel_size: 3
    weight_filler {
      type: "xavier"
      std: 0.03
    }
    bias_filler {
      type: "constant"
      value: 0.2
    }
  }
}
layer {
  name: "inception_4c/relu_3x3"
  type: "ReLU"
  bottom: "inception_4c/3x3"
  top: "inception_4c/3x3"
}
layer {
  name: "inception_4c/5x5_reduce"
  type: "Convolution"
  bottom: "inception_4b/output"
  top: "inception_4c/5x5_reduce"
  param {
    lr_mult: 1
    decay_mult: 1
  }
  param {
    lr_mult: 2
    decay_mult: 0
  }
  convolution_param {
    num_output: 24
    kernel_size: 1
    weight_filler {
      type: "xavier"
      std: 0.2
    }
    bias_filler {
      type: "constant"
      value: 0.2
    }
  }
}
layer {
  name: "inception_4c/relu_5x5_reduce"
  type: "ReLU"
  bottom: "inception_4c/5x5_reduce"
  top: "inception_4c/5x5_reduce"
}
layer {
  name: "inception_4c/5x5"
  type: "Convolution"
  bottom: "inception_4c/5x5_reduce"
  top: "inception_4c/5x5"
  param {
    lr_mult: 1
    decay_mult: 1
  }
  param {
    lr_mult: 2
    decay_mult: 0
  }
  convolution_param {
    num_output: 64
    pad: 2
    kernel_size: 5
    weight_filler {
      type: "xavier"
      std: 0.03
    }
    bias_filler {
      type: "constant"
      value: 0.2
    }
  }
}
layer {
  name: "inception_4c/relu_5x5"
  type: "ReLU"
  bottom: "inception_4c/5x5"
  top: "inception_4c/5x5"
}
layer {
  name: "inception_4c/pool"
  type: "Pooling"
  bottom: "inception_4b/output"
  top: "inception_4c/pool"
  pooling_param {
    pool: MAX
    kernel_size: 3
    stride: 1
    pad: 1
  }
}
layer {
  name: "inception_4c/pool_proj"
  type: "Convolution"
  bottom: "inception_4c/pool"
  top: "inception_4c/pool_proj"
  param {
    lr_mult: 1
    decay_mult: 1
  }
  param {
    lr_mult: 2
    decay_mult: 0
  }
  convolution_param {
    num_output: 64
    kernel_size: 1
    weight_filler {
      type: "xavier"
      std: 0.1
    }
    bias_filler {
      type: "constant"
      value: 0.2
    }
  }
}
layer {
  name: "inception_4c/relu_pool_proj"
  type: "ReLU"
  bottom: "inception_4c/pool_proj"
  top: "inception_4c/pool_proj"
}
layer {
  name: "inception_4c/output"
  type: "Concat"
  bottom: "inception_4c/1x1"
  bottom: "inception_4c/3x3"
  bottom: "inception_4c/5x5"
  bottom: "inception_4c/pool_proj"
  top: "inception_4c/output"
}
layer {
  name: "inception_4d/1x1"
  type: "Convolution"
  bottom: "inception_4c/output"
  top: "inception_4d/1x1"
  param {
    lr_mult: 1
    decay_mult: 1
  }
  param {
    lr_mult: 2
    decay_mult: 0
  }
  convolution_param {
    num_output: 112
    kernel_size: 1
    weight_filler {
      type: "xavier"
      std: 0.03
    }
    bias_filler {
      type: "constant"
      value: 0.2
    }
  }
}
layer {
  name: "inception_4d/relu_1x1"
  type: "ReLU"
  bottom: "inception_4d/1x1"
  top: "inception_4d/1x1"
}
layer {
  name: "inception_4d/3x3_reduce"
  type: "Convolution"
  bottom: "inception_4c/output"
  top: "inception_4d/3x3_reduce"
  param {
    lr_mult: 1
    decay_mult: 1
  }
  param {
    lr_mult: 2
    decay_mult: 0
  }
  convolution_param {
    num_output: 144
    kernel_size: 1
    weight_filler {
      type: "xavier"
      std: 0.09
    }
    bias_filler {
      type: "constant"
      value: 0.2
    }
  }
}
layer {
  name: "inception_4d/relu_3x3_reduce"
  type: "ReLU"
  bottom: "inception_4d/3x3_reduce"
  top: "inception_4d/3x3_reduce"
}
layer {
  name: "inception_4d/3x3"
  type: "Convolution"
  bottom: "inception_4d/3x3_reduce"
  top: "inception_4d/3x3"
  param {
    lr_mult: 1
    decay_mult: 1
  }
  param {
    lr_mult: 2
    decay_mult: 0
  }
  convolution_param {
    num_output: 288
    pad: 1
    kernel_size: 3
    weight_filler {
      type: "xavier"
      std: 0.03
    }
    bias_filler {
      type: "constant"
      value: 0.2
    }
  }
}
layer {
  name: "inception_4d/relu_3x3"
  type: "ReLU"
  bottom: "inception_4d/3x3"
  top: "inception_4d/3x3"
}
layer {
  name: "inception_4d/5x5_reduce"
  type: "Convolution"
  bottom: "inception_4c/output"
  top: "inception_4d/5x5_reduce"
  param {
    lr_mult: 1
    decay_mult: 1
  }
  param {
    lr_mult: 2
    decay_mult: 0
  }
  convolution_param {
    num_output: 32
    kernel_size: 1
    weight_filler {
      type: "xavier"
      std: 0.2
    }
    bias_filler {
      type: "constant"
      value: 0.2
    }
  }
}
layer {
  name: "inception_4d/relu_5x5_reduce"
  type: "ReLU"
  bottom: "inception_4d/5x5_reduce"
  top: "inception_4d/5x5_reduce"
}
layer {
  name: "inception_4d/5x5"
  type: "Convolution"
  bottom: "inception_4d/5x5_reduce"
  top: "inception_4d/5x5"
  param {
    lr_mult: 1
    decay_mult: 1
  }
  param {
    lr_mult: 2
    decay_mult: 0
  }
  convolution_param {
    num_output: 64
    pad: 2
    kernel_size: 5
    weight_filler {
      type: "xavier"
      std: 0.03
    }
    bias_filler {
      type: "constant"
      value: 0.2
    }
  }
}
layer {
  name: "inception_4d/relu_5x5"
  type: "ReLU"
  bottom: "inception_4d/5x5"
  top: "inception_4d/5x5"
}
layer {
  name: "inception_4d/pool"
  type: "Pooling"
  bottom: "inception_4c/output"
  top: "inception_4d/pool"
  pooling_param {
    pool: MAX
    kernel_size: 3
    stride: 1
    pad: 1
  }
}
layer {
  name: "inception_4d/pool_proj"
  type: "Convolution"
  bottom: "inception_4d/pool"
  top: "inception_4d/pool_proj"
  param {
    lr_mult: 1
    decay_mult: 1
  }
  param {
    lr_mult: 2
    decay_mult: 0
  }
  convolution_param {
    num_output: 64
    kernel_size: 1
    weight_filler {
      type: "xavier"
      std: 0.1
    }
    bias_filler {
      type: "constant"
      value: 0.2
    }
  }
}
layer {
  name: "inception_4d/relu_pool_proj"
  type: "ReLU"
  bottom: "inception_4d/pool_proj"
  top: "inception_4d/pool_proj"
}
layer {
  name: "inception_4d/output"
  type: "Concat"
  bottom: "inception_4d/1x1"
  bottom: "inception_4d/3x3"
  bottom: "inception_4d/5x5"
  bottom: "inception_4d/pool_proj"
  top: "inception_4d/output"
}
layer {
  name: "loss2/ave_pool"
  type: "Pooling"
  bottom: "inception_4d/output"
  top: "loss2/ave_pool"
  pooling_param {
    pool: AVE
    kernel_size: 5
    stride: 3
  }
}
layer {
  name: "loss2/conv"
  type: "Convolution"
  bottom: "loss2/ave_pool"
  top: "loss2/conv"
  param {
    lr_mult: 1
    decay_mult: 1
  }
  param {
    lr_mult: 2
    decay_mult: 0
  }
  convolution_param {
    num_output: 128
    kernel_size: 1
    weight_filler {
      type: "xavier"
      std: 0.08
    }
    bias_filler {
      type: "constant"
      value: 0.2
    }
  }
}
layer {
  name: "loss2/relu_conv"
  type: "ReLU"
  bottom: "loss2/conv"
  top: "loss2/conv"
}
layer {
  name: "loss2/fc"
  type: "InnerProduct"
  bottom: "loss2/conv"
  top: "loss2/fc"
  param {
    lr_mult: 1
    decay_mult: 1
  }
  param {
    lr_mult: 2
    decay_mult: 0
  }
  inner_product_param {
    num_output: 1024
    weight_filler {
      type: "xavier"
      std: 0.02
    }
    bias_filler {
      type: "constant"
      value: 0.2
    }
  }
}
layer {
  name: "loss2/relu_fc"
  type: "ReLU"
  bottom: "loss2/fc"
  top: "loss2/fc"
}
layer {
  name: "loss2/drop_fc"
  type: "Dropout"
  bottom: "loss2/fc"
  top: "loss2/fc"
  dropout_param {
    dropout_ratio: 0.7
  }
}
layer {
  name: "loss2/classifier_plantvillage"
  type: "InnerProduct"
  bottom: "loss2/fc"
  top: "loss2/classifier_plantvillage"
  param {
    lr_mult: 1
    decay_mult: 1
  }
  param {
    lr_mult: 2
    decay_mult: 0
  }
  inner_product_param {
    num_output: 38
    weight_filler {
      type: "xavier"
      std: 0.0009765625
    }
    bias_filler {
      type: "constant"
      value: 0
    }
  }
}
layer {
  name: "inception_4e/1x1"
  type: "Convolution"
  bottom: "inception_4d/output"
  top: "inception_4e/1x1"
  param {
    lr_mult: 1
    decay_mult: 1
  }
  param {
    lr_mult: 2
    decay_mult: 0
  }
  convolution_param {
    num_output: 256
    kernel_size: 1
    weight_filler {
      type: "xavier"
      std: 0.03
    }
    bias_filler {
      type: "constant"
      value: 0.2
    }
  }
}
layer {
  name: "inception_4e/relu_1x1"
  type: "ReLU"
  bottom: "inception_4e/1x1"
  top: "inception_4e/1x1"
}
layer {
  name: "inception_4e/3x3_reduce"
  type: "Convolution"
  bottom: "inception_4d/output"
  top: "inception_4e/3x3_reduce"
  param {
    lr_mult: 1
    decay_mult: 1
  }
  param {
    lr_mult: 2
    decay_mult: 0
  }
  convolution_param {
    num_output: 160
    kernel_size: 1
    weight_filler {
      type: "xavier"
      std: 0.09
    }
    bias_filler {
      type: "constant"
      value: 0.2
    }
  }
}
layer {
  name: "inception_4e/relu_3x3_reduce"
  type: "ReLU"
  bottom: "inception_4e/3x3_reduce"
  top: "inception_4e/3x3_reduce"
}
layer {
  name: "inception_4e/3x3"
  type: "Convolution"
  bottom: "inception_4e/3x3_reduce"
  top: "inception_4e/3x3"
  param {
    lr_mult: 1
    decay_mult: 1
  }
  param {
    lr_mult: 2
    decay_mult: 0
  }
  convolution_param {
    num_output: 320
    pad: 1
    kernel_size: 3
    weight_filler {
      type: "xavier"
      std: 0.03
    }
    bias_filler {
      type: "constant"
      value: 0.2
    }
  }
}
layer {
  name: "inception_4e/relu_3x3"
  type: "ReLU"
  bottom: "inception_4e/3x3"
  top: "inception_4e/3x3"
}
layer {
  name: "inception_4e/5x5_reduce"
  type: "Convolution"
  bottom: "inception_4d/output"
  top: "inception_4e/5x5_reduce"
  param {
    lr_mult: 1
    decay_mult: 1
  }
  param {
    lr_mult: 2
    decay_mult: 0
  }
  convolution_param {
    num_output: 32
    kernel_size: 1
    weight_filler {
      type: "xavier"
      std: 0.2
    }
    bias_filler {
      type: "constant"
      value: 0.2
    }
  }
}
layer {
  name: "inception_4e/relu_5x5_reduce"
  type: "ReLU"
  bottom: "inception_4e/5x5_reduce"
  top: "inception_4e/5x5_reduce"
}
layer {
  name: "inception_4e/5x5"
  type: "Convolution"
  bottom: "inception_4e/5x5_reduce"
  top: "inception_4e/
I0403 15:36:01.432551 12130 layer_factory.hpp:77] Creating layer data
I0403 15:36:01.433126 12130 net.cpp:91] Creating Layer data
I0403 15:36:01.433156 12130 net.cpp:399] data -> data
I0403 15:36:01.433204 12130 net.cpp:399] data -> label
I0403 15:36:01.433239 12130 data_transformer.cpp:25] Loading mean file from: /home/mohanty/data/final_dataset/lmdb/segmented-50-50/mean.binaryproto
I0403 15:36:01.436156 12133 db_lmdb.cpp:38] Opened lmdb /home/mohanty/data/final_dataset/lmdb/segmented-50-50/test_db
I0403 15:36:01.446168 12130 data_layer.cpp:41] output data size: 24,3,224,224
I0403 15:36:01.473852 12130 net.cpp:141] Setting up data
I0403 15:36:01.473925 12130 net.cpp:148] Top shape: 24 3 224 224 (3612672)
I0403 15:36:01.473951 12130 net.cpp:148] Top shape: 24 (24)
I0403 15:36:01.473968 12130 net.cpp:156] Memory required for data: 14450784
I0403 15:36:01.473997 12130 layer_factory.hpp:77] Creating layer label_data_1_split
I0403 15:36:01.474025 12130 net.cpp:91] Creating Layer label_data_1_split
I0403 15:36:01.474045 12130 net.cpp:425] label_data_1_split <- label
I0403 15:36:01.474076 12130 net.cpp:399] label_data_1_split -> label_data_1_split_0
I0403 15:36:01.474105 12130 net.cpp:399] label_data_1_split -> label_data_1_split_1
I0403 15:36:01.474129 12130 net.cpp:399] label_data_1_split -> label_data_1_split_2
I0403 15:36:01.474151 12130 net.cpp:399] label_data_1_split -> label_data_1_split_3
I0403 15:36:01.474171 12130 net.cpp:399] label_data_1_split -> label_data_1_split_4
I0403 15:36:01.474191 12130 net.cpp:399] label_data_1_split -> label_data_1_split_5
I0403 15:36:01.474213 12130 net.cpp:399] label_data_1_split -> label_data_1_split_6
I0403 15:36:01.474234 12130 net.cpp:399] label_data_1_split -> label_data_1_split_7
I0403 15:36:01.474256 12130 net.cpp:399] label_data_1_split -> label_data_1_split_8
I0403 15:36:01.474277 12130 net.cpp:399] label_data_1_split -> label_data_1_split_9
I0403 15:36:01.474395 12130 net.cpp:141] Setting up label_data_1_split
I0403 15:36:01.474424 12130 net.cpp:148] Top shape: 24 (24)
I0403 15:36:01.474444 12130 net.cpp:148] Top shape: 24 (24)
I0403 15:36:01.474462 12130 net.cpp:148] Top shape: 24 (24)
I0403 15:36:01.474478 12130 net.cpp:148] Top shape: 24 (24)
I0403 15:36:01.474495 12130 net.cpp:148] Top shape: 24 (24)
I0403 15:36:01.474511 12130 net.cpp:148] Top shape: 24 (24)
I0403 15:36:01.474527 12130 net.cpp:148] Top shape: 24 (24)
I0403 15:36:01.474544 12130 net.cpp:148] Top shape: 24 (24)
I0403 15:36:01.474560 12130 net.cpp:148] Top shape: 24 (24)
I0403 15:36:01.474576 12130 net.cpp:148] Top shape: 24 (24)
I0403 15:36:01.474623 12130 net.cpp:156] Memory required for data: 14451744
I0403 15:36:01.474640 12130 layer_factory.hpp:77] Creating layer conv1/7x7_s2
I0403 15:36:01.474673 12130 net.cpp:91] Creating Layer conv1/7x7_s2
I0403 15:36:01.474692 12130 net.cpp:425] conv1/7x7_s2 <- data
I0403 15:36:01.474714 12130 net.cpp:399] conv1/7x7_s2 -> conv1/7x7_s2
I0403 15:36:01.617761 12130 net.cpp:141] Setting up conv1/7x7_s2
I0403 15:36:01.617847 12130 net.cpp:148] Top shape: 24 64 112 112 (19267584)
I0403 15:36:01.617864 12130 net.cpp:156] Memory required for data: 91522080
I0403 15:36:01.617894 12130 layer_factory.hpp:77] Creating layer conv1/relu_7x7
I0403 15:36:01.617920 12130 net.cpp:91] Creating Layer conv1/relu_7x7
I0403 15:36:01.617938 12130 net.cpp:425] conv1/relu_7x7 <- conv1/7x7_s2
I0403 15:36:01.617954 12130 net.cpp:386] conv1/relu_7x7 -> conv1/7x7_s2 (in-place)
I0403 15:36:01.618203 12130 net.cpp:141] Setting up conv1/relu_7x7
I0403 15:36:01.618229 12130 net.cpp:148] Top shape: 24 64 112 112 (19267584)
I0403 15:36:01.618243 12130 net.cpp:156] Memory required for data: 168592416
I0403 15:36:01.618258 12130 layer_factory.hpp:77] Creating layer pool1/3x3_s2
I0403 15:36:01.618283 12130 net.cpp:91] Creating Layer pool1/3x3_s2
I0403 15:36:01.618299 12130 net.cpp:425] pool1/3x3_s2 <- conv1/7x7_s2
I0403 15:36:01.618316 12130 net.cpp:399] pool1/3x3_s2 -> pool1/3x3_s2
I0403 15:36:01.618387 12130 net.cpp:141] Setting up pool1/3x3_s2
I0403 15:36:01.618413 12130 net.cpp:148] Top shape: 24 64 56 56 (4816896)
I0403 15:36:01.618429 12130 net.cpp:156] Memory required for data: 187860000
I0403 15:36:01.618444 12130 layer_factory.hpp:77] Creating layer pool1/norm1
I0403 15:36:01.618468 12130 net.cpp:91] Creating Layer pool1/norm1
I0403 15:36:01.618485 12130 net.cpp:425] pool1/norm1 <- pool1/3x3_s2
I0403 15:36:01.618502 12130 net.cpp:399] pool1/norm1 -> pool1/norm1
I0403 15:36:01.618777 12130 net.cpp:141] Setting up pool1/norm1
I0403 15:36:01.618803 12130 net.cpp:148] Top shape: 24 64 56 56 (4816896)
I0403 15:36:01.618818 12130 net.cpp:156] Memory required for data: 207127584
I0403 15:36:01.618831 12130 layer_factory.hpp:77] Creating layer conv2/3x3_reduce
I0403 15:36:01.618855 12130 net.cpp:91] Creating Layer conv2/3x3_reduce
I0403 15:36:01.618870 12130 net.cpp:425] conv2/3x3_reduce <- pool1/norm1
I0403 15:36:01.618888 12130 net.cpp:399] conv2/3x3_reduce -> conv2/3x3_reduce
I0403 15:36:01.620172 12130 net.cpp:141] Setting up conv2/3x3_reduce
I0403 15:36:01.620200 12130 net.cpp:148] Top shape: 24 64 56 56 (4816896)
I0403 15:36:01.620218 12130 net.cpp:156] Memory required for data: 226395168
I0403 15:36:01.620239 12130 layer_factory.hpp:77] Creating layer conv2/relu_3x3_reduce
I0403 15:36:01.620256 12130 net.cpp:91] Creating Layer conv2/relu_3x3_reduce
I0403 15:36:01.620272 12130 net.cpp:425] conv2/relu_3x3_reduce <- conv2/3x3_reduce
I0403 15:36:01.620290 12130 net.cpp:386] conv2/relu_3x3_reduce -> conv2/3x3_reduce (in-place)
I0403 15:36:01.620559 12130 net.cpp:141] Setting up conv2/relu_3x3_reduce
I0403 15:36:01.620586 12130 net.cpp:148] Top shape: 24 64 56 56 (4816896)
I0403 15:36:01.620601 12130 net.cpp:156] Memory required for data: 245662752
I0403 15:36:01.620616 12130 layer_factory.hpp:77] Creating layer conv2/3x3
I0403 15:36:01.620637 12130 net.cpp:91] Creating Layer conv2/3x3
I0403 15:36:01.620666 12130 net.cpp:425] conv2/3x3 <- conv2/3x3_reduce
I0403 15:36:01.620684 12130 net.cpp:399] conv2/3x3 -> conv2/3x3
I0403 15:36:01.622864 12130 net.cpp:141] Setting up conv2/3x3
I0403 15:36:01.622894 12130 net.cpp:148] Top shape: 24 192 56 56 (14450688)
I0403 15:36:01.622910 12130 net.cpp:156] Memory required for data: 303465504
I0403 15:36:01.622930 12130 layer_factory.hpp:77] Creating layer conv2/relu_3x3
I0403 15:36:01.622947 12130 net.cpp:91] Creating Layer conv2/relu_3x3
I0403 15:36:01.622963 12130 net.cpp:425] conv2/relu_3x3 <- conv2/3x3
I0403 15:36:01.622979 12130 net.cpp:386] conv2/relu_3x3 -> conv2/3x3 (in-place)
I0403 15:36:01.623131 12130 net.cpp:141] Setting up conv2/relu_3x3
I0403 15:36:01.623155 12130 net.cpp:148] Top shape: 24 192 56 56 (14450688)
I0403 15:36:01.623215 12130 net.cpp:156] Memory required for data: 361268256
I0403 15:36:01.623231 12130 layer_factory.hpp:77] Creating layer conv2/norm2
I0403 15:36:01.623250 12130 net.cpp:91] Creating Layer conv2/norm2
I0403 15:36:01.623265 12130 net.cpp:425] conv2/norm2 <- conv2/3x3
I0403 15:36:01.623282 12130 net.cpp:399] conv2/norm2 -> conv2/norm2
I0403 15:36:01.623567 12130 net.cpp:141] Setting up conv2/norm2
I0403 15:36:01.623594 12130 net.cpp:148] Top shape: 24 192 56 56 (14450688)
I0403 15:36:01.623610 12130 net.cpp:156] Memory required for data: 419071008
I0403 15:36:01.623625 12130 layer_factory.hpp:77] Creating layer pool2/3x3_s2
I0403 15:36:01.623642 12130 net.cpp:91] Creating Layer pool2/3x3_s2
I0403 15:36:01.623657 12130 net.cpp:425] pool2/3x3_s2 <- conv2/norm2
I0403 15:36:01.623687 12130 net.cpp:399] pool2/3x3_s2 -> pool2/3x3_s2
I0403 15:36:01.623733 12130 net.cpp:141] Setting up pool2/3x3_s2
I0403 15:36:01.623754 12130 net.cpp:148] Top shape: 24 192 28 28 (3612672)
I0403 15:36:01.623769 12130 net.cpp:156] Memory required for data: 433521696
I0403 15:36:01.623782 12130 layer_factory.hpp:77] Creating layer pool2/3x3_s2_pool2/3x3_s2_0_split
I0403 15:36:01.623800 12130 net.cpp:91] Creating Layer pool2/3x3_s2_pool2/3x3_s2_0_split
I0403 15:36:01.623814 12130 net.cpp:425] pool2/3x3_s2_pool2/3x3_s2_0_split <- pool2/3x3_s2
I0403 15:36:01.623831 12130 net.cpp:399] pool2/3x3_s2_pool2/3x3_s2_0_split -> pool2/3x3_s2_pool2/3x3_s2_0_split_0
I0403 15:36:01.623849 12130 net.cpp:399] pool2/3x3_s2_pool2/3x3_s2_0_split -> pool2/3x3_s2_pool2/3x3_s2_0_split_1
I0403 15:36:01.623868 12130 net.cpp:399] pool2/3x3_s2_pool2/3x3_s2_0_split -> pool2/3x3_s2_pool2/3x3_s2_0_split_2
I0403 15:36:01.623888 12130 net.cpp:399] pool2/3x3_s2_pool2/3x3_s2_0_split -> pool2/3x3_s2_pool2/3x3_s2_0_split_3
I0403 15:36:01.623947 12130 net.cpp:141] Setting up pool2/3x3_s2_pool2/3x3_s2_0_split
I0403 15:36:01.623968 12130 net.cpp:148] Top shape: 24 192 28 28 (3612672)
I0403 15:36:01.623983 12130 net.cpp:148] Top shape: 24 192 28 28 (3612672)
I0403 15:36:01.623998 12130 net.cpp:148] Top shape: 24 192 28 28 (3612672)
I0403 15:36:01.624012 12130 net.cpp:148] Top shape: 24 192 28 28 (3612672)
I0403 15:36:01.624025 12130 net.cpp:156] Memory required for data: 491324448
I0403 15:36:01.624039 12130 layer_factory.hpp:77] Creating layer inception_3a/1x1
I0403 15:36:01.624058 12130 net.cpp:91] Creating Layer inception_3a/1x1
I0403 15:36:01.624075 12130 net.cpp:425] inception_3a/1x1 <- pool2/3x3_s2_pool2/3x3_s2_0_split_0
I0403 15:36:01.624092 12130 net.cpp:399] inception_3a/1x1 -> inception_3a/1x1
I0403 15:36:01.625584 12130 net.cpp:141] Setting up inception_3a/1x1
I0403 15:36:01.625614 12130 net.cpp:148] Top shape: 24 64 28 28 (1204224)
I0403 15:36:01.625630 12130 net.cpp:156] Memory required for data: 496141344
I0403 15:36:01.625648 12130 layer_factory.hpp:77] Creating layer inception_3a/relu_1x1
I0403 15:36:01.625665 12130 net.cpp:91] Creating Layer inception_3a/relu_1x1
I0403 15:36:01.625680 12130 net.cpp:425] inception_3a/relu_1x1 <- inception_3a/1x1
I0403 15:36:01.625697 12130 net.cpp:386] inception_3a/relu_1x1 -> inception_3a/1x1 (in-place)
I0403 15:36:01.625864 12130 net.cpp:141] Setting up inception_3a/relu_1x1
I0403 15:36:01.625890 12130 net.cpp:148] Top shape: 24 64 28 28 (1204224)
I0403 15:36:01.625905 12130 net.cpp:156] Memory required for data: 500958240
I0403 15:36:01.625919 12130 layer_factory.hpp:77] Creating layer inception_3a/3x3_reduce
I0403 15:36:01.625944 12130 net.cpp:91] Creating Layer inception_3a/3x3_reduce
I0403 15:36:01.625962 12130 net.cpp:425] inception_3a/3x3_reduce <- pool2/3x3_s2_pool2/3x3_s2_0_split_1
I0403 15:36:01.625979 12130 net.cpp:399] inception_3a/3x3_reduce -> inception_3a/3x3_reduce
I0403 15:36:01.627620 12130 net.cpp:141] Setting up inception_3a/3x3_reduce
I0403 15:36:01.627650 12130 net.cpp:148] Top shape: 24 96 28 28 (1806336)
I0403 15:36:01.627665 12130 net.cpp:156] Memory required for data: 508183584
I0403 15:36:01.627688 12130 layer_factory.hpp:77] Creating layer inception_3a/relu_3x3_reduce
I0403 15:36:01.627725 12130 net.cpp:91] Creating Layer inception_3a/relu_3x3_reduce
I0403 15:36:01.627742 12130 net.cpp:425] inception_3a/relu_3x3_reduce <- inception_3a/3x3_reduce
I0403 15:36:01.627761 12130 net.cpp:386] inception_3a/relu_3x3_reduce -> inception_3a/3x3_reduce (in-place)
I0403 15:36:01.627936 12130 net.cpp:141] Setting up inception_3a/relu_3x3_reduce
I0403 15:36:01.627960 12130 net.cpp:148] Top shape: 24 96 28 28 (1806336)
I0403 15:36:01.627974 12130 net.cpp:156] Memory required for data: 515408928
I0403 15:36:01.627988 12130 layer_factory.hpp:77] Creating layer inception_3a/3x3
I0403 15:36:01.628010 12130 net.cpp:91] Creating Layer inception_3a/3x3
I0403 15:36:01.628026 12130 net.cpp:425] inception_3a/3x3 <- inception_3a/3x3_reduce
I0403 15:36:01.628048 12130 net.cpp:399] inception_3a/3x3 -> inception_3a/3x3
I0403 15:36:01.629631 12130 net.cpp:141] Setting up inception_3a/3x3
I0403 15:36:01.629662 12130 net.cpp:148] Top shape: 24 128 28 28 (2408448)
I0403 15:36:01.629679 12130 net.cpp:156] Memory required for data: 525042720
I0403 15:36:01.629698 12130 layer_factory.hpp:77] Creating layer inception_3a/relu_3x3
I0403 15:36:01.629715 12130 net.cpp:91] Creating Layer inception_3a/relu_3x3
I0403 15:36:01.629732 12130 net.cpp:425] inception_3a/relu_3x3 <- inception_3a/3x3
I0403 15:36:01.629751 12130 net.cpp:386] inception_3a/relu_3x3 -> inception_3a/3x3 (in-place)
I0403 15:36:01.630020 12130 net.cpp:141] Setting up inception_3a/relu_3x3
I0403 15:36:01.630048 12130 net.cpp:148] Top shape: 24 128 28 28 (2408448)
I0403 15:36:01.630064 12130 net.cpp:156] Memory required for data: 534676512
I0403 15:36:01.630079 12130 layer_factory.hpp:77] Creating layer inception_3a/5x5_reduce
I0403 15:36:01.630100 12130 net.cpp:91] Creating Layer inception_3a/5x5_reduce
I0403 15:36:01.630117 12130 net.cpp:425] inception_3a/5x5_reduce <- pool2/3x3_s2_pool2/3x3_s2_0_split_2
I0403 15:36:01.630136 12130 net.cpp:399] inception_3a/5x5_reduce -> inception_3a/5x5_reduce
I0403 15:36:01.631063 12130 net.cpp:141] Setting up inception_3a/5x5_reduce
I0403 15:36:01.631089 12130 net.cpp:148] Top shape: 24 16 28 28 (301056)
I0403 15:36:01.631105 12130 net.cpp:156] Memory required for data: 535880736
I0403 15:36:01.631122 12130 layer_factory.hpp:77] Creating layer inception_3a/relu_5x5_reduce
I0403 15:36:01.631139 12130 net.cpp:91] Creating Layer inception_3a/relu_5x5_reduce
I0403 15:36:01.631155 12130 net.cpp:425] inception_3a/relu_5x5_reduce <- inception_3a/5x5_reduce
I0403 15:36:01.631173 12130 net.cpp:386] inception_3a/relu_5x5_reduce -> inception_3a/5x5_reduce (in-place)
I0403 15:36:01.631465 12130 net.cpp:141] Setting up inception_3a/relu_5x5_reduce
I0403 15:36:01.631490 12130 net.cpp:148] Top shape: 24 16 28 28 (301056)
I0403 15:36:01.631505 12130 net.cpp:156] Memory required for data: 537084960
I0403 15:36:01.631520 12130 layer_factory.hpp:77] Creating layer inception_3a/5x5
I0403 15:36:01.631541 12130 net.cpp:91] Creating Layer inception_3a/5x5
I0403 15:36:01.631558 12130 net.cpp:425] inception_3a/5x5 <- inception_3a/5x5_reduce
I0403 15:36:01.631577 12130 net.cpp:399] inception_3a/5x5 -> inception_3a/5x5
I0403 15:36:01.632567 12130 net.cpp:141] Setting up inception_3a/5x5
I0403 15:36:01.632596 12130 net.cpp:148] Top shape: 24 32 28 28 (602112)
I0403 15:36:01.632612 12130 net.cpp:156] Memory required for data: 539493408
I0403 15:36:01.632630 12130 layer_factory.hpp:77] Creating layer inception_3a/relu_5x5
I0403 15:36:01.632648 12130 net.cpp:91] Creating Layer inception_3a/relu_5x5
I0403 15:36:01.632663 12130 net.cpp:425] inception_3a/relu_5x5 <- inception_3a/5x5
I0403 15:36:01.632679 12130 net.cpp:386] inception_3a/relu_5x5 -> inception_3a/5x5 (in-place)
I0403 15:36:01.632849 12130 net.cpp:141] Setting up inception_3a/relu_5x5
I0403 15:36:01.632874 12130 net.cpp:148] Top shape: 24 32 28 28 (602112)
I0403 15:36:01.632887 12130 net.cpp:156] Memory required for data: 541901856
I0403 15:36:01.632901 12130 layer_factory.hpp:77] Creating layer inception_3a/pool
I0403 15:36:01.632918 12130 net.cpp:91] Creating Layer inception_3a/pool
I0403 15:36:01.632946 12130 net.cpp:425] inception_3a/pool <- pool2/3x3_s2_pool2/3x3_s2_0_split_3
I0403 15:36:01.632967 12130 net.cpp:399] inception_3a/pool -> inception_3a/pool
I0403 15:36:01.633021 12130 net.cpp:141] Setting up inception_3a/pool
I0403 15:36:01.633046 12130 net.cpp:148] Top shape: 24 192 28 28 (3612672)
I0403 15:36:01.633061 12130 net.cpp:156] Memory required for data: 556352544
I0403 15:36:01.633075 12130 layer_factory.hpp:77] Creating layer inception_3a/pool_proj
I0403 15:36:01.633097 12130 net.cpp:91] Creating Layer inception_3a/pool_proj
I0403 15:36:01.633113 12130 net.cpp:425] inception_3a/pool_proj <- inception_3a/pool
I0403 15:36:01.633131 12130 net.cpp:399] inception_3a/pool_proj -> inception_3a/pool_proj
I0403 15:36:01.634073 12130 net.cpp:141] Setting up inception_3a/pool_proj
I0403 15:36:01.634101 12130 net.cpp:148] Top shape: 24 32 28 28 (602112)
I0403 15:36:01.634119 12130 net.cpp:156] Memory required for data: 558760992
I0403 15:36:01.634145 12130 layer_factory.hpp:77] Creating layer inception_3a/relu_pool_proj
I0403 15:36:01.634165 12130 net.cpp:91] Creating Layer inception_3a/relu_pool_proj
I0403 15:36:01.634179 12130 net.cpp:425] inception_3a/relu_pool_proj <- inception_3a/pool_proj
I0403 15:36:01.634198 12130 net.cpp:386] inception_3a/relu_pool_proj -> inception_3a/pool_proj (in-place)
I0403 15:36:01.634467 12130 net.cpp:141] Setting up inception_3a/relu_pool_proj
I0403 15:36:01.634495 12130 net.cpp:148] Top shape: 24 32 28 28 (602112)
I0403 15:36:01.634510 12130 net.cpp:156] Memory required for data: 561169440
I0403 15:36:01.634526 12130 layer_factory.hpp:77] Creating layer inception_3a/output
I0403 15:36:01.634541 12130 net.cpp:91] Creating Layer inception_3a/output
I0403 15:36:01.634564 12130 net.cpp:425] inception_3a/output <- inception_3a/1x1
I0403 15:36:01.634584 12130 net.cpp:425] inception_3a/output <- inception_3a/3x3
I0403 15:36:01.634606 12130 net.cpp:425] inception_3a/output <- inception_3a/5x5
I0403 15:36:01.634629 12130 net.cpp:425] inception_3a/output <- inception_3a/pool_proj
I0403 15:36:01.634652 12130 net.cpp:399] inception_3a/output -> inception_3a/output
I0403 15:36:01.634698 12130 net.cpp:141] Setting up inception_3a/output
I0403 15:36:01.634727 12130 net.cpp:148] Top shape: 24 256 28 28 (4816896)
I0403 15:36:01.634748 12130 net.cpp:156] Memory required for data: 580437024
I0403 15:36:01.634763 12130 layer_factory.hpp:77] Creating layer inception_3a/output_inception_3a/output_0_split
I0403 15:36:01.634781 12130 net.cpp:91] Creating Layer inception_3a/output_inception_3a/output_0_split
I0403 15:36:01.634798 12130 net.cpp:425] inception_3a/output_inception_3a/output_0_split <- inception_3a/output
I0403 15:36:01.634814 12130 net.cpp:399] inception_3a/output_inception_3a/output_0_split -> inception_3a/output_inception_3a/output_0_split_0
I0403 15:36:01.634832 12130 net.cpp:399] inception_3a/output_inception_3a/output_0_split -> inception_3a/output_inception_3a/output_0_split_1
I0403 15:36:01.634855 12130 net.cpp:399] inception_3a/output_inception_3a/output_0_split -> inception_3a/output_inception_3a/output_0_split_2
I0403 15:36:01.634876 12130 net.cpp:399] inception_3a/output_inception_3a/output_0_split -> inception_3a/output_inception_3a/output_0_split_3
I0403 15:36:01.634945 12130 net.cpp:141] Setting up inception_3a/output_inception_3a/output_0_split
I0403 15:36:01.634980 12130 net.cpp:148] Top shape: 24 256 28 28 (4816896)
I0403 15:36:01.634996 12130 net.cpp:148] Top shape: 24 256 28 28 (4816896)
I0403 15:36:01.635011 12130 net.cpp:148] Top shape: 24 256 28 28 (4816896)
I0403 15:36:01.635027 12130 net.cpp:148] Top shape: 24 256 28 28 (4816896)
I0403 15:36:01.635040 12130 net.cpp:156] Memory required for data: 657507360
I0403 15:36:01.635054 12130 layer_factory.hpp:77] Creating layer inception_3b/1x1
I0403 15:36:01.635078 12130 net.cpp:91] Creating Layer inception_3b/1x1
I0403 15:36:01.635095 12130 net.cpp:425] inception_3b/1x1 <- inception_3a/output_inception_3a/output_0_split_0
I0403 15:36:01.635113 12130 net.cpp:399] inception_3b/1x1 -> inception_3b/1x1
I0403 15:36:01.636234 12130 net.cpp:141] Setting up inception_3b/1x1
I0403 15:36:01.636277 12130 net.cpp:148] Top shape: 24 128 28 28 (2408448)
I0403 15:36:01.636293 12130 net.cpp:156] Memory required for data: 667141152
I0403 15:36:01.636312 12130 layer_factory.hpp:77] Creating layer inception_3b/relu_1x1
I0403 15:36:01.636333 12130 net.cpp:91] Creating Layer inception_3b/relu_1x1
I0403 15:36:01.636350 12130 net.cpp:425] inception_3b/relu_1x1 <- inception_3b/1x1
I0403 15:36:01.636368 12130 net.cpp:386] inception_3b/relu_1x1 -> inception_3b/1x1 (in-place)
I0403 15:36:01.636546 12130 net.cpp:141] Setting up inception_3b/relu_1x1
I0403 15:36:01.636574 12130 net.cpp:148] Top shape: 24 128 28 28 (2408448)
I0403 15:36:01.636590 12130 net.cpp:156] Memory required for data: 676774944
I0403 15:36:01.636603 12130 layer_factory.hpp:77] Creating layer inception_3b/3x3_reduce
I0403 15:36:01.636626 12130 net.cpp:91] Creating Layer inception_3b/3x3_reduce
I0403 15:36:01.636642 12130 net.cpp:425] inception_3b/3x3_reduce <- inception_3a/output_inception_3a/output_0_split_1
I0403 15:36:01.636662 12130 net.cpp:399] inception_3b/3x3_reduce -> inception_3b/3x3_reduce
I0403 15:36:01.637784 12130 net.cpp:141] Setting up inception_3b/3x3_reduce
I0403 15:36:01.637810 12130 net.cpp:148] Top shape: 24 128 28 28 (2408448)
I0403 15:36:01.637825 12130 net.cpp:156] Memory required for data: 686408736
I0403 15:36:01.637843 12130 layer_factory.hpp:77] Creating layer inception_3b/relu_3x3_reduce
I0403 15:36:01.637863 12130 net.cpp:91] Creating Layer inception_3b/relu_3x3_reduce
I0403 15:36:01.637881 12130 net.cpp:425] inception_3b/relu_3x3_reduce <- inception_3b/3x3_reduce
I0403 15:36:01.637898 12130 net.cpp:386] inception_3b/relu_3x3_reduce -> inception_3b/3x3_reduce (in-place)
I0403 15:36:01.638068 12130 net.cpp:141] Setting up inception_3b/relu_3x3_reduce
I0403 15:36:01.638095 12130 net.cpp:148] Top shape: 24 128 28 28 (2408448)
I0403 15:36:01.638110 12130 net.cpp:156] Memory required for data: 696042528
I0403 15:36:01.638125 12130 layer_factory.hpp:77] Creating layer inception_3b/3x3
I0403 15:36:01.638149 12130 net.cpp:91] Creating Layer inception_3b/3x3
I0403 15:36:01.638167 12130 net.cpp:425] inception_3b/3x3 <- inception_3b/3x3_reduce
I0403 15:36:01.638188 12130 net.cpp:399] inception_3b/3x3 -> inception_3b/3x3
I0403 15:36:01.641098 12130 net.cpp:141] Setting up inception_3b/3x3
I0403 15:36:01.641130 12130 net.cpp:148] Top shape: 24 192 28 28 (3612672)
I0403 15:36:01.641149 12130 net.cpp:156] Memory required for data: 710493216
I0403 15:36:01.641167 12130 layer_factory.hpp:77] Creating layer inception_3b/relu_3x3
I0403 15:36:01.641186 12130 net.cpp:91] Creating Layer inception_3b/relu_3x3
I0403 15:36:01.641202 12130 net.cpp:425] inception_3b/relu_3x3 <- inception_3b/3x3
I0403 15:36:01.641219 12130 net.cpp:386] inception_3b/relu_3x3 -> inception_3b/3x3 (in-place)
I0403 15:36:01.641497 12130 net.cpp:141] Setting up inception_3b/relu_3x3
I0403 15:36:01.641527 12130 net.cpp:148] Top shape: 24 192 28 28 (3612672)
I0403 15:36:01.641543 12130 net.cpp:156] Memory required for data: 724943904
I0403 15:36:01.641558 12130 layer_factory.hpp:77] Creating layer inception_3b/5x5_reduce
I0403 15:36:01.641579 12130 net.cpp:91] Creating Layer inception_3b/5x5_reduce
I0403 15:36:01.641597 12130 net.cpp:425] inception_3b/5x5_reduce <- inception_3a/output_inception_3a/output_0_split_2
I0403 15:36:01.641616 12130 net.cpp:399] inception_3b/5x5_reduce -> inception_3b/5x5_reduce
I0403 15:36:01.642611 12130 net.cpp:141] Setting up inception_3b/5x5_reduce
I0403 15:36:01.642642 12130 net.cpp:148] Top shape: 24 32 28 28 (602112)
I0403 15:36:01.642657 12130 net.cpp:156] Memory required for data: 727352352
I0403 15:36:01.642675 12130 layer_factory.hpp:77] Creating layer inception_3b/relu_5x5_reduce
I0403 15:36:01.642693 12130 net.cpp:91] Creating Layer inception_3b/relu_5x5_reduce
I0403 15:36:01.642709 12130 net.cpp:425] inception_3b/relu_5x5_reduce <- inception_3b/5x5_reduce
I0403 15:36:01.642725 12130 net.cpp:386] inception_3b/relu_5x5_reduce -> inception_3b/5x5_reduce (in-place)
I0403 15:36:01.642917 12130 net.cpp:141] Setting up inception_3b/relu_5x5_reduce
I0403 15:36:01.642942 12130 net.cpp:148] Top shape: 24 32 28 28 (602112)
I0403 15:36:01.642957 12130 net.cpp:156] Memory required for data: 729760800
I0403 15:36:01.642972 12130 layer_factory.hpp:77] Creating layer inception_3b/5x5
I0403 15:36:01.642997 12130 net.cpp:91] Creating Layer inception_3b/5x5
I0403 15:36:01.643014 12130 net.cpp:425] inception_3b/5x5 <- inception_3b/5x5_reduce
I0403 15:36:01.643036 12130 net.cpp:399] inception_3b/5x5 -> inception_3b/5x5
I0403 15:36:01.645054 12130 net.cpp:141] Setting up inception_3b/5x5
I0403 15:36:01.645086 12130 net.cpp:148] Top shape: 24 96 28 28 (1806336)
I0403 15:36:01.645102 12130 net.cpp:156] Memory required for data: 736986144
I0403 15:36:01.645119 12130 layer_factory.hpp:77] Creating layer inception_3b/relu_5x5
I0403 15:36:01.645140 12130 net.cpp:91] Creating Layer inception_3b/relu_5x5
I0403 15:36:01.645159 12130 net.cpp:425] inception_3b/relu_5x5 <- inception_3b/5x5
I0403 15:36:01.645175 12130 net.cpp:386] inception_3b/relu_5x5 -> inception_3b/5x5 (in-place)
I0403 15:36:01.645370 12130 net.cpp:141] Setting up inception_3b/relu_5x5
I0403 15:36:01.645396 12130 net.cpp:148] Top shape: 24 96 28 28 (1806336)
I0403 15:36:01.645416 12130 net.cpp:156] Memory required for data: 744211488
I0403 15:36:01.645431 12130 layer_factory.hpp:77] Creating layer inception_3b/pool
I0403 15:36:01.645449 12130 net.cpp:91] Creating Layer inception_3b/pool
I0403 15:36:01.645465 12130 net.cpp:425] inception_3b/pool <- inception_3a/output_inception_3a/output_0_split_3
I0403 15:36:01.645484 12130 net.cpp:399] inception_3b/pool -> inception_3b/pool
I0403 15:36:01.645541 12130 net.cpp:141] Setting up inception_3b/pool
I0403 15:36:01.645565 12130 net.cpp:148] Top shape: 24 256 28 28 (4816896)
I0403 15:36:01.645579 12130 net.cpp:156] Memory required for data: 763479072
I0403 15:36:01.645593 12130 layer_factory.hpp:77] Creating layer inception_3b/pool_proj
I0403 15:36:01.645617 12130 net.cpp:91] Creating Layer inception_3b/pool_proj
I0403 15:36:01.645634 12130 net.cpp:425] inception_3b/pool_proj <- inception_3b/pool
I0403 15:36:01.645655 12130 net.cpp:399] inception_3b/pool_proj -> inception_3b/pool_proj
I0403 15:36:01.646752 12130 net.cpp:141] Setting up inception_3b/pool_proj
I0403 15:36:01.646781 12130 net.cpp:148] Top shape: 24 64 28 28 (1204224)
I0403 15:36:01.646800 12130 net.cpp:156] Memory required for data: 768295968
I0403 15:36:01.646817 12130 layer_factory.hpp:77] Creating layer inception_3b/relu_pool_proj
I0403 15:36:01.646838 12130 net.cpp:91] Creating Layer inception_3b/relu_pool_proj
I0403 15:36:01.646857 12130 net.cpp:425] inception_3b/relu_pool_proj <- inception_3b/pool_proj
I0403 15:36:01.646875 12130 net.cpp:386] inception_3b/relu_pool_proj -> inception_3b/pool_proj (in-place)
I0403 15:36:01.647294 12130 net.cpp:141] Setting up inception_3b/relu_pool_proj
I0403 15:36:01.647321 12130 net.cpp:148] Top shape: 24 64 28 28 (1204224)
I0403 15:36:01.647336 12130 net.cpp:156] Memory required for data: 773112864
I0403 15:36:01.647351 12130 layer_factory.hpp:77] Creating layer inception_3b/output
I0403 15:36:01.647368 12130 net.cpp:91] Creating Layer inception_3b/output
I0403 15:36:01.647385 12130 net.cpp:425] inception_3b/output <- inception_3b/1x1
I0403 15:36:01.647403 12130 net.cpp:425] inception_3b/output <- inception_3b/3x3
I0403 15:36:01.647423 12130 net.cpp:425] inception_3b/output <- inception_3b/5x5
I0403 15:36:01.647440 12130 net.cpp:425] inception_3b/output <- inception_3b/pool_proj
I0403 15:36:01.647460 12130 net.cpp:399] inception_3b/output -> inception_3b/output
I0403 15:36:01.647505 12130 net.cpp:141] Setting up inception_3b/output
I0403 15:36:01.647532 12130 net.cpp:148] Top shape: 24 480 28 28 (9031680)
I0403 15:36:01.647549 12130 net.cpp:156] Memory required for data: 809239584
I0403 15:36:01.647564 12130 layer_factory.hpp:77] Creating layer pool3/3x3_s2
I0403 15:36:01.647583 12130 net.cpp:91] Creating Layer pool3/3x3_s2
I0403 15:36:01.647598 12130 net.cpp:425] pool3/3x3_s2 <- inception_3b/output
I0403 15:36:01.647631 12130 net.cpp:399] pool3/3x3_s2 -> pool3/3x3_s2
I0403 15:36:01.647691 12130 net.cpp:141] Setting up pool3/3x3_s2
I0403 15:36:01.647716 12130 net.cpp:148] Top shape: 24 480 14 14 (2257920)
I0403 15:36:01.647730 12130 net.cpp:156] Memory required for data: 818271264
I0403 15:36:01.647745 12130 layer_factory.hpp:77] Creating layer pool3/3x3_s2_pool3/3x3_s2_0_split
I0403 15:36:01.647763 12130 net.cpp:91] Creating Layer pool3/3x3_s2_pool3/3x3_s2_0_split
I0403 15:36:01.647778 12130 net.cpp:425] pool3/3x3_s2_pool3/3x3_s2_0_split <- pool3/3x3_s2
I0403 15:36:01.647796 12130 net.cpp:399] pool3/3x3_s2_pool3/3x3_s2_0_split -> pool3/3x3_s2_pool3/3x3_s2_0_split_0
I0403 15:36:01.647819 12130 net.cpp:399] pool3/3x3_s2_pool3/3x3_s2_0_split -> pool3/3x3_s2_pool3/3x3_s2_0_split_1
I0403 15:36:01.647837 12130 net.cpp:399] pool3/3x3_s2_pool3/3x3_s2_0_split -> pool3/3x3_s2_pool3/3x3_s2_0_split_2
I0403 15:36:01.647860 12130 net.cpp:399] pool3/3x3_s2_pool3/3x3_s2_0_split -> pool3/3x3_s2_pool3/3x3_s2_0_split_3
I0403 15:36:01.647936 12130 net.cpp:141] Setting up pool3/3x3_s2_pool3/3x3_s2_0_split
I0403 15:36:01.647960 12130 net.cpp:148] Top shape: 24 480 14 14 (2257920)
I0403 15:36:01.647976 12130 net.cpp:148] Top shape: 24 480 14 14 (2257920)
I0403 15:36:01.647992 12130 net.cpp:148] Top shape: 24 480 14 14 (2257920)
I0403 15:36:01.648008 12130 net.cpp:148] Top shape: 24 480 14 14 (2257920)
I0403 15:36:01.648023 12130 net.cpp:156] Memory required for data: 854397984
I0403 15:36:01.648037 12130 layer_factory.hpp:77] Creating layer inception_4a/1x1
I0403 15:36:01.648061 12130 net.cpp:91] Creating Layer inception_4a/1x1
I0403 15:36:01.648078 12130 net.cpp:425] inception_4a/1x1 <- pool3/3x3_s2_pool3/3x3_s2_0_split_0
I0403 15:36:01.648099 12130 net.cpp:399] inception_4a/1x1 -> inception_4a/1x1
I0403 15:36:01.649755 12130 net.cpp:141] Setting up inception_4a/1x1
I0403 15:36:01.649785 12130 net.cpp:148] Top shape: 24 192 14 14 (903168)
I0403 15:36:01.649799 12130 net.cpp:156] Memory required for data: 858010656
I0403 15:36:01.649817 12130 layer_factory.hpp:77] Creating layer inception_4a/relu_1x1
I0403 15:36:01.649839 12130 net.cpp:91] Creating Layer inception_4a/relu_1x1
I0403 15:36:01.649857 12130 net.cpp:425] inception_4a/relu_1x1 <- inception_4a/1x1
I0403 15:36:01.649874 12130 net.cpp:386] inception_4a/relu_1x1 -> inception_4a/1x1 (in-place)
I0403 15:36:01.650054 12130 net.cpp:141] Setting up inception_4a/relu_1x1
I0403 15:36:01.650079 12130 net.cpp:148] Top shape: 24 192 14 14 (903168)
I0403 15:36:01.650094 12130 net.cpp:156] Memory required for data: 861623328
I0403 15:36:01.650110 12130 layer_factory.hpp:77] Creating layer inception_4a/3x3_reduce
I0403 15:36:01.650137 12130 net.cpp:91] Creating Layer inception_4a/3x3_reduce
I0403 15:36:01.650163 12130 net.cpp:425] inception_4a/3x3_reduce <- pool3/3x3_s2_pool3/3x3_s2_0_split_1
I0403 15:36:01.650183 12130 net.cpp:399] inception_4a/3x3_reduce -> inception_4a/3x3_reduce
I0403 15:36:01.651517 12130 net.cpp:141] Setting up inception_4a/3x3_reduce
I0403 15:36:01.651547 12130 net.cpp:148] Top shape: 24 96 14 14 (451584)
I0403 15:36:01.651564 12130 net.cpp:156] Memory required for data: 863429664
I0403 15:36:01.651592 12130 layer_factory.hpp:77] Creating layer inception_4a/relu_3x3_reduce
I0403 15:36:01.651613 12130 net.cpp:91] Creating Layer inception_4a/relu_3x3_reduce
I0403 15:36:01.651629 12130 net.cpp:425] inception_4a/relu_3x3_reduce <- inception_4a/3x3_reduce
I0403 15:36:01.651649 12130 net.cpp:386] inception_4a/relu_3x3_reduce -> inception_4a/3x3_reduce (in-place)
I0403 15:36:01.651829 12130 net.cpp:141] Setting up inception_4a/relu_3x3_reduce
I0403 15:36:01.651854 12130 net.cpp:148] Top shape: 24 96 14 14 (451584)
I0403 15:36:01.651870 12130 net.cpp:156] Memory required for data: 865236000
I0403 15:36:01.651885 12130 layer_factory.hpp:77] Creating layer inception_4a/3x3
I0403 15:36:01.651907 12130 net.cpp:91] Creating Layer inception_4a/3x3
I0403 15:36:01.651926 12130 net.cpp:425] inception_4a/3x3 <- inception_4a/3x3_reduce
I0403 15:36:01.651948 12130 net.cpp:399] inception_4a/3x3 -> inception_4a/3x3
I0403 15:36:01.654758 12130 net.cpp:141] Setting up inception_4a/3x3
I0403 15:36:01.654789 12130 net.cpp:148] Top shape: 24 208 14 14 (978432)
I0403 15:36:01.654806 12130 net.cpp:156] Memory required for data: 869149728
I0403 15:36:01.654826 12130 layer_factory.hpp:77] Creating layer inception_4a/relu_3x3
I0403 15:36:01.654850 12130 net.cpp:91] Creating Layer inception_4a/relu_3x3
I0403 15:36:01.654866 12130 net.cpp:425] inception_4a/relu_3x3 <- inception_4a/3x3
I0403 15:36:01.654883 12130 net.cpp:386] inception_4a/relu_3x3 -> inception_4a/3x3 (in-place)
I0403 15:36:01.655171 12130 net.cpp:141] Setting up inception_4a/relu_3x3
I0403 15:36:01.655200 12130 net.cpp:148] Top shape: 24 208 14 14 (978432)
I0403 15:36:01.655216 12130 net.cpp:156] Memory required for data: 873063456
I0403 15:36:01.655233 12130 layer_factory.hpp:77] Creating layer inception_4a/5x5_reduce
I0403 15:36:01.655256 12130 net.cpp:91] Creating Layer inception_4a/5x5_reduce
I0403 15:36:01.655275 12130 net.cpp:425] inception_4a/5x5_reduce <- pool3/3x3_s2_pool3/3x3_s2_0_split_2
I0403 15:36:01.655298 12130 net.cpp:399] inception_4a/5x5_reduce -> inception_4a/5x5_reduce
I0403 15:36:01.656342 12130 net.cpp:141] Setting up inception_4a/5x5_reduce
I0403 15:36:01.656374 12130 net.cpp:148] Top shape: 24 16 14 14 (75264)
I0403 15:36:01.656393 12130 net.cpp:156] Memory required for data: 873364512
I0403 15:36:01.656415 12130 layer_factory.hpp:77] Creating layer inception_4a/relu_5x5_reduce
I0403 15:36:01.656435 12130 net.cpp:91] Creating Layer inception_4a/relu_5x5_reduce
I0403 15:36:01.656453 12130 net.cpp:425] inception_4a/relu_5x5_reduce <- inception_4a/5x5_reduce
I0403 15:36:01.656471 12130 net.cpp:386] inception_4a/relu_5x5_reduce -> inception_4a/5x5_reduce (in-place)
I0403 15:36:01.656653 12130 net.cpp:141] Setting up inception_4a/relu_5x5_reduce
I0403 15:36:01.656680 12130 net.cpp:148] Top shape: 24 16 14 14 (75264)
I0403 15:36:01.656697 12130 net.cpp:156] Memory required for data: 873665568
I0403 15:36:01.656714 12130 layer_factory.hpp:77] Creating layer inception_4a/5x5
I0403 15:36:01.656738 12130 net.cpp:91] Creating Layer inception_4a/5x5
I0403 15:36:01.656755 12130 net.cpp:425] inception_4a/5x5 <- inception_4a/5x5_reduce
I0403 15:36:01.656777 12130 net.cpp:399] inception_4a/5x5 -> inception_4a/5x5
I0403 15:36:01.657881 12130 net.cpp:141] Setting up inception_4a/5x5
I0403 15:36:01.657910 12130 net.cpp:148] Top shape: 24 48 14 14 (225792)
I0403 15:36:01.657927 12130 net.cpp:156] Memory required for data: 874568736
I0403 15:36:01.657946 12130 layer_factory.hpp:77] Creating layer inception_4a/relu_5x5
I0403 15:36:01.657964 12130 net.cpp:91] Creating Layer inception_4a/relu_5x5
I0403 15:36:01.657981 12130 net.cpp:425] inception_4a/relu_5x5 <- inception_4a/5x5
I0403 15:36:01.658002 12130 net.cpp:386] inception_4a/relu_5x5 -> inception_4a/5x5 (in-place)
I0403 15:36:01.658188 12130 net.cpp:141] Setting up inception_4a/relu_5x5
I0403 15:36:01.658215 12130 net.cpp:148] Top shape: 24 48 14 14 (225792)
I0403 15:36:01.658231 12130 net.cpp:156] Memory required for data: 875471904
I0403 15:36:01.658246 12130 layer_factory.hpp:77] Creating layer inception_4a/pool
I0403 15:36:01.658267 12130 net.cpp:91] Creating Layer inception_4a/pool
I0403 15:36:01.658283 12130 net.cpp:425] inception_4a/pool <- pool3/3x3_s2_pool3/3x3_s2_0_split_3
I0403 15:36:01.658301 12130 net.cpp:399] inception_4a/pool -> inception_4a/pool
I0403 15:36:01.658363 12130 net.cpp:141] Setting up inception_4a/pool
I0403 15:36:01.658388 12130 net.cpp:148] Top shape: 24 480 14 14 (2257920)
I0403 15:36:01.658403 12130 net.cpp:156] Memory required for data: 884503584
I0403 15:36:01.658423 12130 layer_factory.hpp:77] Creating layer inception_4a/pool_proj
I0403 15:36:01.658447 12130 net.cpp:91] Creating Layer inception_4a/pool_proj
I0403 15:36:01.658463 12130 net.cpp:425] inception_4a/pool_proj <- inception_4a/pool
I0403 15:36:01.658485 12130 net.cpp:399] inception_4a/pool_proj -> inception_4a/pool_proj
I0403 15:36:01.659698 12130 net.cpp:141] Setting up inception_4a/pool_proj
I0403 15:36:01.659741 12130 net.cpp:148] Top shape: 24 64 14 14 (301056)
I0403 15:36:01.659775 12130 net.cpp:156] Memory required for data: 885707808
I0403 15:36:01.659795 12130 layer_factory.hpp:77] Creating layer inception_4a/relu_pool_proj
I0403 15:36:01.659816 12130 net.cpp:91] Creating Layer inception_4a/relu_pool_proj
I0403 15:36:01.659835 12130 net.cpp:425] inception_4a/relu_pool_proj <- inception_4a/pool_proj
I0403 15:36:01.659853 12130 net.cpp:386] inception_4a/relu_pool_proj -> inception_4a/pool_proj (in-place)
I0403 15:36:01.660147 12130 net.cpp:141] Setting up inception_4a/relu_pool_proj
I0403 15:36:01.660176 12130 net.cpp:148] Top shape: 24 64 14 14 (301056)
I0403 15:36:01.660192 12130 net.cpp:156] Memory required for data: 886912032
I0403 15:36:01.660207 12130 layer_factory.hpp:77] Creating layer inception_4a/output
I0403 15:36:01.660225 12130 net.cpp:91] Creating Layer inception_4a/output
I0403 15:36:01.660241 12130 net.cpp:425] inception_4a/output <- inception_4a/1x1
I0403 15:36:01.660259 12130 net.cpp:425] inception_4a/output <- inception_4a/3x3
I0403 15:36:01.660275 12130 net.cpp:425] inception_4a/output <- inception_4a/5x5
I0403 15:36:01.660292 12130 net.cpp:425] inception_4a/output <- inception_4a/pool_proj
I0403 15:36:01.660311 12130 net.cpp:399] inception_4a/output -> inception_4a/output
I0403 15:36:01.660358 12130 net.cpp:141] Setting up inception_4a/output
I0403 15:36:01.660384 12130 net.cpp:148] Top shape: 24 512 14 14 (2408448)
I0403 15:36:01.660399 12130 net.cpp:156] Memory required for data: 896545824
I0403 15:36:01.660419 12130 layer_factory.hpp:77] Creating layer inception_4a/output_inception_4a/output_0_split
I0403 15:36:01.660439 12130 net.cpp:91] Creating Layer inception_4a/output_inception_4a/output_0_split
I0403 15:36:01.660454 12130 net.cpp:425] inception_4a/output_inception_4a/output_0_split <- inception_4a/output
I0403 15:36:01.660475 12130 net.cpp:399] inception_4a/output_inception_4a/output_0_split -> inception_4a/output_inception_4a/output_0_split_0
I0403 15:36:01.660496 12130 net.cpp:399] inception_4a/output_inception_4a/output_0_split -> inception_4a/output_inception_4a/output_0_split_1
I0403 15:36:01.660517 12130 net.cpp:399] inception_4a/output_inception_4a/output_0_split -> inception_4a/output_inception_4a/output_0_split_2
I0403 15:36:01.660537 12130 net.cpp:399] inception_4a/output_inception_4a/output_0_split -> inception_4a/output_inception_4a/output_0_split_3
I0403 15:36:01.660558 12130 net.cpp:399] inception_4a/output_inception_4a/output_0_split -> inception_4a/output_inception_4a/output_0_split_4
I0403 15:36:01.660650 12130 net.cpp:141] Setting up inception_4a/output_inception_4a/output_0_split
I0403 15:36:01.660677 12130 net.cpp:148] Top shape: 24 512 14 14 (2408448)
I0403 15:36:01.660696 12130 net.cpp:148] Top shape: 24 512 14 14 (2408448)
I0403 15:36:01.660712 12130 net.cpp:148] Top shape: 24 512 14 14 (2408448)
I0403 15:36:01.660727 12130 net.cpp:148] Top shape: 24 512 14 14 (2408448)
I0403 15:36:01.660742 12130 net.cpp:148] Top shape: 24 512 14 14 (2408448)
I0403 15:36:01.660756 12130 net.cpp:156] Memory required for data: 944714784
I0403 15:36:01.660771 12130 layer_factory.hpp:77] Creating layer loss1/ave_pool
I0403 15:36:01.660789 12130 net.cpp:91] Creating Layer loss1/ave_pool
I0403 15:36:01.660804 12130 net.cpp:425] loss1/ave_pool <- inception_4a/output_inception_4a/output_0_split_0
I0403 15:36:01.660822 12130 net.cpp:399] loss1/ave_pool -> loss1/ave_pool
I0403 15:36:01.661041 12130 net.cpp:141] Setting up loss1/ave_pool
I0403 15:36:01.661067 12130 net.cpp:148] Top shape: 24 512 4 4 (196608)
I0403 15:36:01.661082 12130 net.cpp:156] Memory required for data: 945501216
I0403 15:36:01.661097 12130 layer_factory.hpp:77] Creating layer loss1/conv
I0403 15:36:01.661119 12130 net.cpp:91] Creating Layer loss1/conv
I0403 15:36:01.661137 12130 net.cpp:425] loss1/conv <- loss1/ave_pool
I0403 15:36:01.661159 12130 net.cpp:399] loss1/conv -> loss1/conv
I0403 15:36:01.662621 12130 net.cpp:141] Setting up loss1/conv
I0403 15:36:01.662653 12130 net.cpp:148] Top shape: 24 128 4 4 (49152)
I0403 15:36:01.662685 12130 net.cpp:156] Memory required for data: 945697824
I0403 15:36:01.662706 12130 layer_factory.hpp:77] Creating layer loss1/relu_conv
I0403 15:36:01.662725 12130 net.cpp:91] Creating Layer loss1/relu_conv
I0403 15:36:01.662742 12130 net.cpp:425] loss1/relu_conv <- loss1/conv
I0403 15:36:01.662760 12130 net.cpp:386] loss1/relu_conv -> loss1/conv (in-place)
I0403 15:36:01.663049 12130 net.cpp:141] Setting up loss1/relu_conv
I0403 15:36:01.663080 12130 net.cpp:148] Top shape: 24 128 4 4 (49152)
I0403 15:36:01.663097 12130 net.cpp:156] Memory required for data: 945894432
I0403 15:36:01.663121 12130 layer_factory.hpp:77] Creating layer loss1/fc
I0403 15:36:01.663146 12130 net.cpp:91] Creating Layer loss1/fc
I0403 15:36:01.663166 12130 net.cpp:425] loss1/fc <- loss1/conv
I0403 15:36:01.663187 12130 net.cpp:399] loss1/fc -> loss1/fc
I0403 15:36:01.681308 12130 net.cpp:141] Setting up loss1/fc
I0403 15:36:01.681352 12130 net.cpp:148] Top shape: 24 1024 (24576)
I0403 15:36:01.681368 12130 net.cpp:156] Memory required for data: 945992736
I0403 15:36:01.681386 12130 layer_factory.hpp:77] Creating layer loss1/relu_fc
I0403 15:36:01.681408 12130 net.cpp:91] Creating Layer loss1/relu_fc
I0403 15:36:01.681432 12130 net.cpp:425] loss1/relu_fc <- loss1/fc
I0403 15:36:01.681450 12130 net.cpp:386] loss1/relu_fc -> loss1/fc (in-place)
I0403 15:36:01.681648 12130 net.cpp:141] Setting up loss1/relu_fc
I0403 15:36:01.681674 12130 net.cpp:148] Top shape: 24 1024 (24576)
I0403 15:36:01.681689 12130 net.cpp:156] Memory required for data: 946091040
I0403 15:36:01.681704 12130 layer_factory.hpp:77] Creating layer loss1/drop_fc
I0403 15:36:01.681732 12130 net.cpp:91] Creating Layer loss1/drop_fc
I0403 15:36:01.681751 12130 net.cpp:425] loss1/drop_fc <- loss1/fc
I0403 15:36:01.681767 12130 net.cpp:386] loss1/drop_fc -> loss1/fc (in-place)
I0403 15:36:01.681819 12130 net.cpp:141] Setting up loss1/drop_fc
I0403 15:36:01.681843 12130 net.cpp:148] Top shape: 24 1024 (24576)
I0403 15:36:01.681857 12130 net.cpp:156] Memory required for data: 946189344
I0403 15:36:01.681872 12130 layer_factory.hpp:77] Creating layer loss1/classifier_plantvillage
I0403 15:36:01.681890 12130 net.cpp:91] Creating Layer loss1/classifier_plantvillage
I0403 15:36:01.681907 12130 net.cpp:425] loss1/classifier_plantvillage <- loss1/fc
I0403 15:36:01.681928 12130 net.cpp:399] loss1/classifier_plantvillage -> loss1/classifier_plantvillage
I0403 15:36:01.682857 12130 net.cpp:141] Setting up loss1/classifier_plantvillage
I0403 15:36:01.682888 12130 net.cpp:148] Top shape: 24 38 (912)
I0403 15:36:01.682904 12130 net.cpp:156] Memory required for data: 946192992
I0403 15:36:01.682921 12130 layer_factory.hpp:77] Creating layer loss1/classifier_plantvillage_loss1/classifier_plantvillage_0_split
I0403 15:36:01.682940 12130 net.cpp:91] Creating Layer loss1/classifier_plantvillage_loss1/classifier_plantvillage_0_split
I0403 15:36:01.682955 12130 net.cpp:425] loss1/classifier_plantvillage_loss1/classifier_plantvillage_0_split <- loss1/classifier_plantvillage
I0403 15:36:01.682972 12130 net.cpp:399] loss1/classifier_plantvillage_loss1/classifier_plantvillage_0_split -> loss1/classifier_plantvillage_loss1/classifier_plantvillage_0_split_0
I0403 15:36:01.682991 12130 net.cpp:399] loss1/classifier_plantvillage_loss1/classifier_plantvillage_0_split -> loss1/classifier_plantvillage_loss1/classifier_plantvillage_0_split_1
I0403 15:36:01.683012 12130 net.cpp:399] loss1/classifier_plantvillage_loss1/classifier_plantvillage_0_split -> loss1/classifier_plantvillage_loss1/classifier_plantvillage_0_split_2
I0403 15:36:01.683078 12130 net.cpp:141] Setting up loss1/classifier_plantvillage_loss1/classifier_plantvillage_0_split
I0403 15:36:01.683100 12130 net.cpp:148] Top shape: 24 38 (912)
I0403 15:36:01.683116 12130 net.cpp:148] Top shape: 24 38 (912)
I0403 15:36:01.683131 12130 net.cpp:148] Top shape: 24 38 (912)
I0403 15:36:01.683145 12130 net.cpp:156] Memory required for data: 946203936
I0403 15:36:01.683158 12130 layer_factory.hpp:77] Creating layer inception_4b/1x1
I0403 15:36:01.683179 12130 net.cpp:91] Creating Layer inception_4b/1x1
I0403 15:36:01.683214 12130 net.cpp:425] inception_4b/1x1 <- inception_4a/output_inception_4a/output_0_split_1
I0403 15:36:01.683236 12130 net.cpp:399] inception_4b/1x1 -> inception_4b/1x1
I0403 15:36:01.684890 12130 net.cpp:141] Setting up inception_4b/1x1
I0403 15:36:01.684921 12130 net.cpp:148] Top shape: 24 160 14 14 (752640)
I0403 15:36:01.684939 12130 net.cpp:156] Memory required for data: 949214496
I0403 15:36:01.684958 12130 layer_factory.hpp:77] Creating layer inception_4b/relu_1x1
I0403 15:36:01.684976 12130 net.cpp:91] Creating Layer inception_4b/relu_1x1
I0403 15:36:01.684993 12130 net.cpp:425] inception_4b/relu_1x1 <- inception_4b/1x1
I0403 15:36:01.685011 12130 net.cpp:386] inception_4b/relu_1x1 -> inception_4b/1x1 (in-place)
I0403 15:36:01.685190 12130 net.cpp:141] Setting up inception_4b/relu_1x1
I0403 15:36:01.685220 12130 net.cpp:148] Top shape: 24 160 14 14 (752640)
I0403 15:36:01.685236 12130 net.cpp:156] Memory required for data: 952225056
I0403 15:36:01.685251 12130 layer_factory.hpp:77] Creating layer inception_4b/3x3_reduce
I0403 15:36:01.685273 12130 net.cpp:91] Creating Layer inception_4b/3x3_reduce
I0403 15:36:01.685291 12130 net.cpp:425] inception_4b/3x3_reduce <- inception_4a/output_inception_4a/output_0_split_2
I0403 15:36:01.685312 12130 net.cpp:399] inception_4b/3x3_reduce -> inception_4b/3x3_reduce
I0403 15:36:01.686681 12130 net.cpp:141] Setting up inception_4b/3x3_reduce
I0403 15:36:01.686714 12130 net.cpp:148] Top shape: 24 112 14 14 (526848)
I0403 15:36:01.686733 12130 net.cpp:156] Memory required for data: 954332448
I0403 15:36:01.686753 12130 layer_factory.hpp:77] Creating layer inception_4b/relu_3x3_reduce
I0403 15:36:01.686772 12130 net.cpp:91] Creating Layer inception_4b/relu_3x3_reduce
I0403 15:36:01.686790 12130 net.cpp:425] inception_4b/relu_3x3_reduce <- inception_4b/3x3_reduce
I0403 15:36:01.686811 12130 net.cpp:386] inception_4b/relu_3x3_reduce -> inception_4b/3x3_reduce (in-place)
I0403 15:36:01.687099 12130 net.cpp:141] Setting up inception_4b/relu_3x3_reduce
I0403 15:36:01.687130 12130 net.cpp:148] Top shape: 24 112 14 14 (526848)
I0403 15:36:01.687147 12130 net.cpp:156] Memory required for data: 956439840
I0403 15:36:01.687163 12130 layer_factory.hpp:77] Creating layer inception_4b/3x3
I0403 15:36:01.687186 12130 net.cpp:91] Creating Layer inception_4b/3x3
I0403 15:36:01.687207 12130 net.cpp:425] inception_4b/3x3 <- inception_4b/3x3_reduce
I0403 15:36:01.687227 12130 net.cpp:399] inception_4b/3x3 -> inception_4b/3x3
I0403 15:36:01.690232 12130 net.cpp:141] Setting up inception_4b/3x3
I0403 15:36:01.690263 12130 net.cpp:148] Top shape: 24 224 14 14 (1053696)
I0403 15:36:01.690279 12130 net.cpp:156] Memory required for data: 960654624
I0403 15:36:01.690300 12130 layer_factory.hpp:77] Creating layer inception_4b/relu_3x3
I0403 15:36:01.690320 12130 net.cpp:91] Creating Layer inception_4b/relu_3x3
I0403 15:36:01.690337 12130 net.cpp:425] inception_4b/relu_3x3 <- inception_4b/3x3
I0403 15:36:01.690354 12130 net.cpp:386] inception_4b/relu_3x3 -> inception_4b/3x3 (in-place)
I0403 15:36:01.690543 12130 net.cpp:141] Setting up inception_4b/relu_3x3
I0403 15:36:01.690568 12130 net.cpp:148] Top shape: 24 224 14 14 (1053696)
I0403 15:36:01.690583 12130 net.cpp:156] Memory required for data: 964869408
I0403 15:36:01.690598 12130 layer_factory.hpp:77] Creating layer inception_4b/5x5_reduce
I0403 15:36:01.690623 12130 net.cpp:91] Creating Layer inception_4b/5x5_reduce
I0403 15:36:01.690640 12130 net.cpp:425] inception_4b/5x5_reduce <- inception_4a/output_inception_4a/output_0_split_3
I0403 15:36:01.690659 12130 net.cpp:399] inception_4b/5x5_reduce -> inception_4b/5x5_reduce
I0403 15:36:01.691748 12130 net.cpp:141] Setting up inception_4b/5x5_reduce
I0403 15:36:01.691779 12130 net.cpp:148] Top shape: 24 24 14 14 (112896)
I0403 15:36:01.691797 12130 net.cpp:156] Memory required for data: 965320992
I0403 15:36:01.691817 12130 layer_factory.hpp:77] Creating layer inception_4b/relu_5x5_reduce
I0403 15:36:01.691834 12130 net.cpp:91] Creating Layer inception_4b/relu_5x5_reduce
I0403 15:36:01.691867 12130 net.cpp:425] inception_4b/relu_5x5_reduce <- inception_4b/5x5_reduce
I0403 15:36:01.691889 12130 net.cpp:386] inception_4b/relu_5x5_reduce -> inception_4b/5x5_reduce (in-place)
I0403 15:36:01.692071 12130 net.cpp:141] Setting up inception_4b/relu_5x5_reduce
I0403 15:36:01.692096 12130 net.cpp:148] Top shape: 24 24 14 14 (112896)
I0403 15:36:01.692111 12130 net.cpp:156] Memory required for data: 965772576
I0403 15:36:01.692124 12130 layer_factory.hpp:77] Creating layer inception_4b/5x5
I0403 15:36:01.692147 12130 net.cpp:91] Creating Layer inception_4b/5x5
I0403 15:36:01.692164 12130 net.cpp:425] inception_4b/5x5 <- inception_4b/5x5_reduce
I0403 15:36:01.692186 12130 net.cpp:399] inception_4b/5x5 -> inception_4b/5x5
I0403 15:36:01.693446 12130 net.cpp:141] Setting up inception_4b/5x5
I0403 15:36:01.693477 12130 net.cpp:148] Top shape: 24 64 14 14 (301056)
I0403 15:36:01.693495 12130 net.cpp:156] Memory required for data: 966976800
I0403 15:36:01.693513 12130 layer_factory.hpp:77] Creating layer inception_4b/relu_5x5
I0403 15:36:01.693531 12130 net.cpp:91] Creating Layer inception_4b/relu_5x5
I0403 15:36:01.693548 12130 net.cpp:425] inception_4b/relu_5x5 <- inception_4b/5x5
I0403 15:36:01.693565 12130 net.cpp:386] inception_4b/relu_5x5 -> inception_4b/5x5 (in-place)
I0403 15:36:01.693877 12130 net.cpp:141] Setting up inception_4b/relu_5x5
I0403 15:36:01.693907 12130 net.cpp:148] Top shape: 24 64 14 14 (301056)
I0403 15:36:01.693922 12130 net.cpp:156] Memory required for data: 968181024
I0403 15:36:01.693938 12130 layer_factory.hpp:77] Creating layer inception_4b/pool
I0403 15:36:01.693956 12130 net.cpp:91] Creating Layer inception_4b/pool
I0403 15:36:01.693972 12130 net.cpp:425] inception_4b/pool <- inception_4a/output_inception_4a/output_0_split_4
I0403 15:36:01.693991 12130 net.cpp:399] inception_4b/pool -> inception_4b/pool
I0403 15:36:01.694057 12130 net.cpp:141] Setting up inception_4b/pool
I0403 15:36:01.694080 12130 net.cpp:148] Top shape: 24 512 14 14 (2408448)
I0403 15:36:01.694095 12130 net.cpp:156] Memory required for data: 977814816
I0403 15:36:01.694109 12130 layer_factory.hpp:77] Creating layer inception_4b/pool_proj
I0403 15:36:01.694131 12130 net.cpp:91] Creating Layer inception_4b/pool_proj
I0403 15:36:01.694150 12130 net.cpp:425] inception_4b/pool_proj <- inception_4b/pool
I0403 15:36:01.694170 12130 net.cpp:399] inception_4b/pool_proj -> inception_4b/pool_proj
I0403 15:36:01.695364 12130 net.cpp:141] Setting up inception_4b/pool_proj
I0403 15:36:01.695395 12130 net.cpp:148] Top shape: 24 64 14 14 (301056)
I0403 15:36:01.695416 12130 net.cpp:156] Memory required for data: 979019040
I0403 15:36:01.695436 12130 layer_factory.hpp:77] Creating layer inception_4b/relu_pool_proj
I0403 15:36:01.695456 12130 net.cpp:91] Creating Layer inception_4b/relu_pool_proj
I0403 15:36:01.695472 12130 net.cpp:425] inception_4b/relu_pool_proj <- inception_4b/pool_proj
I0403 15:36:01.695488 12130 net.cpp:386] inception_4b/relu_pool_proj -> inception_4b/pool_proj (in-place)
I0403 15:36:01.695670 12130 net.cpp:141] Setting up inception_4b/relu_pool_proj
I0403 15:36:01.695695 12130 net.cpp:148] Top shape: 24 64 14 14 (301056)
I0403 15:36:01.695709 12130 net.cpp:156] Memory required for data: 980223264
I0403 15:36:01.695724 12130 layer_factory.hpp:77] Creating layer inception_4b/output
I0403 15:36:01.695741 12130 net.cpp:91] Creating Layer inception_4b/output
I0403 15:36:01.695756 12130 net.cpp:425] inception_4b/output <- inception_4b/1x1
I0403 15:36:01.695772 12130 net.cpp:425] inception_4b/output <- inception_4b/3x3
I0403 15:36:01.695787 12130 net.cpp:425] inception_4b/output <- inception_4b/5x5
I0403 15:36:01.695803 12130 net.cpp:425] inception_4b/output <- inception_4b/pool_proj
I0403 15:36:01.695822 12130 net.cpp:399] inception_4b/output -> inception_4b/output
I0403 15:36:01.695868 12130 net.cpp:141] Setting up inception_4b/output
I0403 15:36:01.695893 12130 net.cpp:148] Top shape: 24 512 14 14 (2408448)
I0403 15:36:01.695907 12130 net.cpp:156] Memory required for data: 989857056
I0403 15:36:01.695936 12130 layer_factory.hpp:77] Creating layer inception_4b/output_inception_4b/output_0_split
I0403 15:36:01.695955 12130 net.cpp:91] Creating Layer inception_4b/output_inception_4b/output_0_split
I0403 15:36:01.695969 12130 net.cpp:425] inception_4b/output_inception_4b/output_0_split <- inception_4b/output
I0403 15:36:01.695989 12130 net.cpp:399] inception_4b/output_inception_4b/output_0_split -> inception_4b/output_inception_4b/output_0_split_0
I0403 15:36:01.696010 12130 net.cpp:399] inception_4b/output_inception_4b/output_0_split -> inception_4b/output_inception_4b/output_0_split_1
I0403 15:36:01.696029 12130 net.cpp:399] inception_4b/output_inception_4b/output_0_split -> inception_4b/output_inception_4b/output_0_split_2
I0403 15:36:01.696048 12130 net.cpp:399] inception_4b/output_inception_4b/output_0_split -> inception_4b/output_inception_4b/output_0_split_3
I0403 15:36:01.696130 12130 net.cpp:141] Setting up inception_4b/output_inception_4b/output_0_split
I0403 15:36:01.696153 12130 net.cpp:148] Top shape: 24 512 14 14 (2408448)
I0403 15:36:01.696169 12130 net.cpp:148] Top shape: 24 512 14 14 (2408448)
I0403 15:36:01.696184 12130 net.cpp:148] Top shape: 24 512 14 14 (2408448)
I0403 15:36:01.696199 12130 net.cpp:148] Top shape: 24 512 14 14 (2408448)
I0403 15:36:01.696213 12130 net.cpp:156] Memory required for data: 1028392224
I0403 15:36:01.696226 12130 layer_factory.hpp:77] Creating layer inception_4c/1x1
I0403 15:36:01.696249 12130 net.cpp:91] Creating Layer inception_4c/1x1
I0403 15:36:01.696266 12130 net.cpp:425] inception_4c/1x1 <- inception_4b/output_inception_4b/output_0_split_0
I0403 15:36:01.696287 12130 net.cpp:399] inception_4c/1x1 -> inception_4c/1x1
I0403 15:36:01.697724 12130 net.cpp:141] Setting up inception_4c/1x1
I0403 15:36:01.697753 12130 net.cpp:148] Top shape: 24 128 14 14 (602112)
I0403 15:36:01.697768 12130 net.cpp:156] Memory required for data: 1030800672
I0403 15:36:01.697788 12130 layer_factory.hpp:77] Creating layer inception_4c/relu_1x1
I0403 15:36:01.697808 12130 net.cpp:91] Creating Layer inception_4c/relu_1x1
I0403 15:36:01.697829 12130 net.cpp:425] inception_4c/relu_1x1 <- inception_4c/1x1
I0403 15:36:01.697846 12130 net.cpp:386] inception_4c/relu_1x1 -> inception_4c/1x1 (in-place)
I0403 15:36:01.698026 12130 net.cpp:141] Setting up inception_4c/relu_1x1
I0403 15:36:01.698050 12130 net.cpp:148] Top shape: 24 128 14 14 (602112)
I0403 15:36:01.698065 12130 net.cpp:156] Memory required for data: 1033209120
I0403 15:36:01.698079 12130 layer_factory.hpp:77] Creating layer inception_4c/3x3_reduce
I0403 15:36:01.698102 12130 net.cpp:91] Creating Layer inception_4c/3x3_reduce
I0403 15:36:01.698120 12130 net.cpp:425] inception_4c/3x3_reduce <- inception_4b/output_inception_4b/output_0_split_1
I0403 15:36:01.698139 12130 net.cpp:399] inception_4c/3x3_reduce -> inception_4c/3x3_reduce
I0403 15:36:01.700093 12130 net.cpp:141] Setting up inception_4c/3x3_reduce
I0403 15:36:01.700121 12130 net.cpp:148] Top shape: 24 128 14 14 (602112)
I0403 15:36:01.700139 12130 net.cpp:156] Memory required for data: 1035617568
I0403 15:36:01.700157 12130 layer_factory.hpp:77] Creating layer inception_4c/relu_3x3_reduce
I0403 15:36:01.700177 12130 net.cpp:91] Creating Layer inception_4c/relu_3x3_reduce
I0403 15:36:01.700197 12130 net.cpp:425] inception_4c/relu_3x3_reduce <- inception_4c/3x3_reduce
I0403 15:36:01.700214 12130 net.cpp:386] inception_4c/relu_3x3_reduce -> inception_4c/3x3_reduce (in-place)
I0403 15:36:01.700523 12130 net.cpp:141] Setting up inception_4c/relu_3x3_reduce
I0403 15:36:01.700549 12130 net.cpp:148] Top shape: 24 128 14 14 (602112)
I0403 15:36:01.700565 12130 net.cpp:156] Memory required for data: 1038026016
I0403 15:36:01.700579 12130 layer_factory.hpp:77] Creating layer inception_4c/3x3
I0403 15:36:01.700603 12130 net.cpp:91] Creating Layer inception_4c/3x3
I0403 15:36:01.700621 12130 net.cpp:425] inception_4c/3x3 <- inception_4c/3x3_reduce
I0403 15:36:01.700640 12130 net.cpp:399] inception_4c/3x3 -> inception_4c/3x3
I0403 15:36:01.704262 12130 net.cpp:141] Setting up inception_4c/3x3
I0403 15:36:01.704308 12130 net.cpp:148] Top shape: 24 256 14 14 (1204224)
I0403 15:36:01.704329 12130 net.cpp:156] Memory required for data: 1042842912
I0403 15:36:01.704361 12130 layer_factory.hpp:77] Creating layer inception_4c/relu_3x3
I0403 15:36:01.704385 12130 net.cpp:91] Creating Layer inception_4c/relu_3x3
I0403 15:36:01.704401 12130 net.cpp:425] inception_4c/relu_3x3 <- inception_4c/3x3
I0403 15:36:01.704426 12130 net.cpp:386] inception_4c/relu_3x3 -> inception_4c/3x3 (in-place)
I0403 15:36:01.704617 12130 net.cpp:141] Setting up inception_4c/relu_3x3
I0403 15:36:01.704648 12130 net.cpp:148] Top shape: 24 256 14 14 (1204224)
I0403 15:36:01.704664 12130 net.cpp:156] Memory required for data: 1047659808
I0403 15:36:01.704679 12130 layer_factory.hpp:77] Creating layer inception_4c/5x5_reduce
I0403 15:36:01.704702 12130 net.cpp:91] Creating Layer inception_4c/5x5_reduce
I0403 15:36:01.704721 12130 net.cpp:425] inception_4c/5x5_reduce <- inception_4b/output_inception_4b/output_0_split_2
I0403 15:36:01.704741 12130 net.cpp:399] inception_4c/5x5_reduce -> inception_4c/5x5_reduce
I0403 15:36:01.705845 12130 net.cpp:141] Setting up inception_4c/5x5_reduce
I0403 15:36:01.705875 12130 net.cpp:148] Top shape: 24 24 14 14 (112896)
I0403 15:36:01.705893 12130 net.cpp:156] Memory required for data: 1048111392
I0403 15:36:01.705910 12130 layer_factory.hpp:77] Creating layer inception_4c/relu_5x5_reduce
I0403 15:36:01.705929 12130 net.cpp:91] Creating Layer inception_4c/relu_5x5_reduce
I0403 15:36:01.705945 12130 net.cpp:425] inception_4c/relu_5x5_reduce <- inception_4c/5x5_reduce
I0403 15:36:01.705963 12130 net.cpp:386] inception_4c/relu_5x5_reduce -> inception_4c/5x5_reduce (in-place)
I0403 15:36:01.706151 12130 net.cpp:141] Setting up inception_4c/relu_5x5_reduce
I0403 15:36:01.706176 12130 net.cpp:148] Top shape: 24 24 14 14 (112896)
I0403 15:36:01.706189 12130 net.cpp:156] Memory required for data: 1048562976
I0403 15:36:01.706203 12130 layer_factory.hpp:77] Creating layer inception_4c/5x5
I0403 15:36:01.706225 12130 net.cpp:91] Creating Layer inception_4c/5x5
I0403 15:36:01.706243 12130 net.cpp:425] inception_4c/5x5 <- inception_4c/5x5_reduce
I0403 15:36:01.706264 12130 net.cpp:399] inception_4c/5x5 -> inception_4c/5x5
I0403 15:36:01.707525 12130 net.cpp:141] Setting up inception_4c/5x5
I0403 15:36:01.707554 12130 net.cpp:148] Top shape: 24 64 14 14 (301056)
I0403 15:36:01.707571 12130 net.cpp:156] Memory required for data: 1049767200
I0403 15:36:01.707589 12130 layer_factory.hpp:77] Creating layer inception_4c/relu_5x5
I0403 15:36:01.707612 12130 net.cpp:91] Creating Layer inception_4c/relu_5x5
I0403 15:36:01.707631 12130 net.cpp:425] inception_4c/relu_5x5 <- inception_4c/5x5
I0403 15:36:01.707649 12130 net.cpp:386] inception_4c/relu_5x5 -> inception_4c/5x5 (in-place)
I0403 15:36:01.707943 12130 net.cpp:141] Setting up inception_4c/relu_5x5
I0403 15:36:01.707972 12130 net.cpp:148] Top shape: 24 64 14 14 (301056)
I0403 15:36:01.707986 12130 net.cpp:156] Memory required for data: 1050971424
I0403 15:36:01.708001 12130 layer_factory.hpp:77] Creating layer inception_4c/pool
I0403 15:36:01.708019 12130 net.cpp:91] Creating Layer inception_4c/pool
I0403 15:36:01.708035 12130 net.cpp:425] inception_4c/pool <- inception_4b/output_inception_4b/output_0_split_3
I0403 15:36:01.708056 12130 net.cpp:399] inception_4c/pool -> inception_4c/pool
I0403 15:36:01.708122 12130 net.cpp:141] Setting up inception_4c/pool
I0403 15:36:01.708150 12130 net.cpp:148] Top shape: 24 512 14 14 (2408448)
I0403 15:36:01.708164 12130 net.cpp:156] Memory required for data: 1060605216
I0403 15:36:01.708178 12130 layer_factory.hpp:77] Creating layer inception_4c/pool_proj
I0403 15:36:01.708200 12130 net.cpp:91] Creating Layer inception_4c/pool_proj
I0403 15:36:01.708219 12130 net.cpp:425] inception_4c/pool_proj <- inception_4c/pool
I0403 15:36:01.708236 12130 net.cpp:399] inception_4c/pool_proj -> inception_4c/pool_proj
I0403 15:36:01.709486 12130 net.cpp:141] Setting up inception_4c/pool_proj
I0403 15:36:01.709518 12130 net.cpp:148] Top shape: 24 64 14 14 (301056)
I0403 15:36:01.709549 12130 net.cpp:156] Memory required for data: 1061809440
I0403 15:36:01.709570 12130 layer_factory.hpp:77] Creating layer inception_4c/relu_pool_proj
I0403 15:36:01.709590 12130 net.cpp:91] Creating Layer inception_4c/relu_pool_proj
I0403 15:36:01.709606 12130 net.cpp:425] inception_4c/relu_pool_proj <- inception_4c/pool_proj
I0403 15:36:01.709625 12130 net.cpp:386] inception_4c/relu_pool_proj -> inception_4c/pool_proj (in-place)
I0403 15:36:01.709826 12130 net.cpp:141] Setting up inception_4c/relu_pool_proj
I0403 15:36:01.709851 12130 net.cpp:148] Top shape: 24 64 14 14 (301056)
I0403 15:36:01.709867 12130 net.cpp:156] Memory required for data: 1063013664
I0403 15:36:01.709882 12130 layer_factory.hpp:77] Creating layer inception_4c/output
I0403 15:36:01.709898 12130 net.cpp:91] Creating Layer inception_4c/output
I0403 15:36:01.709913 12130 net.cpp:425] inception_4c/output <- inception_4c/1x1
I0403 15:36:01.709930 12130 net.cpp:425] inception_4c/output <- inception_4c/3x3
I0403 15:36:01.709946 12130 net.cpp:425] inception_4c/output <- inception_4c/5x5
I0403 15:36:01.709962 12130 net.cpp:425] inception_4c/output <- inception_4c/pool_proj
I0403 15:36:01.709982 12130 net.cpp:399] inception_4c/output -> inception_4c/output
I0403 15:36:01.710028 12130 net.cpp:141] Setting up inception_4c/output
I0403 15:36:01.710053 12130 net.cpp:148] Top shape: 24 512 14 14 (2408448)
I0403 15:36:01.710069 12130 net.cpp:156] Memory required for data: 1072647456
I0403 15:36:01.710084 12130 layer_factory.hpp:77] Creating layer inception_4c/output_inception_4c/output_0_split
I0403 15:36:01.710100 12130 net.cpp:91] Creating Layer inception_4c/output_inception_4c/output_0_split
I0403 15:36:01.710116 12130 net.cpp:425] inception_4c/output_inception_4c/output_0_split <- inception_4c/output
I0403 15:36:01.710134 12130 net.cpp:399] inception_4c/output_inception_4c/output_0_split -> inception_4c/output_inception_4c/output_0_split_0
I0403 15:36:01.710155 12130 net.cpp:399] inception_4c/output_inception_4c/output_0_split -> inception_4c/output_inception_4c/output_0_split_1
I0403 15:36:01.710176 12130 net.cpp:399] inception_4c/output_inception_4c/output_0_split -> inception_4c/output_inception_4c/output_0_split_2
I0403 15:36:01.710196 12130 net.cpp:399] inception_4c/output_inception_4c/output_0_split -> inception_4c/output_inception_4c/output_0_split_3
I0403 15:36:01.710279 12130 net.cpp:141] Setting up inception_4c/output_inception_4c/output_0_split
I0403 15:36:01.710302 12130 net.cpp:148] Top shape: 24 512 14 14 (2408448)
I0403 15:36:01.710319 12130 net.cpp:148] Top shape: 24 512 14 14 (2408448)
I0403 15:36:01.710333 12130 net.cpp:148] Top shape: 24 512 14 14 (2408448)
I0403 15:36:01.710348 12130 net.cpp:148] Top shape: 24 512 14 14 (2408448)
I0403 15:36:01.710361 12130 net.cpp:156] Memory required for data: 1111182624
I0403 15:36:01.710376 12130 layer_factory.hpp:77] Creating layer inception_4d/1x1
I0403 15:36:01.710397 12130 net.cpp:91] Creating Layer inception_4d/1x1
I0403 15:36:01.710418 12130 net.cpp:425] inception_4d/1x1 <- inception_4c/output_inception_4c/output_0_split_0
I0403 15:36:01.710441 12130 net.cpp:399] inception_4d/1x1 -> inception_4d/1x1
I0403 15:36:01.711825 12130 net.cpp:141] Setting up inception_4d/1x1
I0403 15:36:01.711854 12130 net.cpp:148] Top shape: 24 112 14 14 (526848)
I0403 15:36:01.711870 12130 net.cpp:156] Memory required for data: 1113290016
I0403 15:36:01.711890 12130 layer_factory.hpp:77] Creating layer inception_4d/relu_1x1
I0403 15:36:01.711911 12130 net.cpp:91] Creating Layer inception_4d/relu_1x1
I0403 15:36:01.711931 12130 net.cpp:425] inception_4d/relu_1x1 <- inception_4d/1x1
I0403 15:36:01.711948 12130 net.cpp:386] inception_4d/relu_1x1 -> inception_4d/1x1 (in-place)
I0403 15:36:01.712134 12130 net.cpp:141] Setting up inception_4d/relu_1x1
I0403 15:36:01.712162 12130 net.cpp:148] Top shape: 24 112 14 14 (526848)
I0403 15:36:01.712179 12130 net.cpp:156] Memory required for data: 1115397408
I0403 15:36:01.712196 12130 layer_factory.hpp:77] Creating layer inception_4d/3x3_reduce
I0403 15:36:01.712235 12130 net.cpp:91] Creating Layer inception_4d/3x3_reduce
I0403 15:36:01.712255 12130 net.cpp:425] inception_4d/3x3_reduce <- inception_4c/output_inception_4c/output_0_split_1
I0403 15:36:01.712275 12130 net.cpp:399] inception_4d/3x3_reduce -> inception_4d/3x3_reduce
I0403 15:36:01.713805 12130 net.cpp:141] Setting up inception_4d/3x3_reduce
I0403 15:36:01.713834 12130 net.cpp:148] Top shape: 24 144 14 14 (677376)
I0403 15:36:01.713850 12130 net.cpp:156] Memory required for data: 1118106912
I0403 15:36:01.713870 12130 layer_factory.hpp:77] Creating layer inception_4d/relu_3x3_reduce
I0403 15:36:01.713887 12130 net.cpp:91] Creating Layer inception_4d/relu_3x3_reduce
I0403 15:36:01.713903 12130 net.cpp:425] inception_4d/relu_3x3_reduce <- inception_4d/3x3_reduce
I0403 15:36:01.713923 12130 net.cpp:386] inception_4d/relu_3x3_reduce -> inception_4d/3x3_reduce (in-place)
I0403 15:36:01.714213 12130 net.cpp:141] Setting up inception_4d/relu_3x3_reduce
I0403 15:36:01.714241 12130 net.cpp:148] Top shape: 24 144 14 14 (677376)
I0403 15:36:01.714256 12130 net.cpp:156] Memory required for data: 1120816416
I0403 15:36:01.714269 12130 layer_factory.hpp:77] Creating layer inception_4d/3x3
I0403 15:36:01.714292 12130 net.cpp:91] Creating Layer inception_4d/3x3
I0403 15:36:01.714309 12130 net.cpp:425] inception_4d/3x3 <- inception_4d/3x3_reduce
I0403 15:36:01.714331 12130 net.cpp:399] inception_4d/3x3 -> inception_4d/3x3
I0403 15:36:01.718621 12130 net.cpp:141] Setting up inception_4d/3x3
I0403 15:36:01.718648 12130 net.cpp:148] Top shape: 24 288 14 14 (1354752)
I0403 15:36:01.718663 12130 net.cpp:156] Memory required for data: 1126235424
I0403 15:36:01.718682 12130 layer_factory.hpp:77] Creating layer inception_4d/relu_3x3
I0403 15:36:01.718703 12130 net.cpp:91] Creating Layer inception_4d/relu_3x3
I0403 15:36:01.718719 12130 net.cpp:425] inception_4d/relu_3x3 <- inception_4d/3x3
I0403 15:36:01.718736 12130 net.cpp:386] inception_4d/relu_3x3 -> inception_4d/3x3 (in-place)
I0403 15:36:01.718921 12130 net.cpp:141] Setting up inception_4d/relu_3x3
I0403 15:36:01.718948 12130 net.cpp:148] Top shape: 24 288 14 14 (1354752)
I0403 15:36:01.718966 12130 net.cpp:156] Memory required for data: 1131654432
I0403 15:36:01.718979 12130 layer_factory.hpp:77] Creating layer inception_4d/5x5_reduce
I0403 15:36:01.719002 12130 net.cpp:91] Creating Layer inception_4d/5x5_reduce
I0403 15:36:01.719020 12130 net.cpp:425] inception_4d/5x5_reduce <- inception_4c/output_inception_4c/output_0_split_2
I0403 15:36:01.719041 12130 net.cpp:399] inception_4d/5x5_reduce -> inception_4d/5x5_reduce
I0403 15:36:01.720196 12130 net.cpp:141] Setting up inception_4d/5x5_reduce
I0403 15:36:01.720223 12130 net.cpp:148] Top shape: 24 32 14 14 (150528)
I0403 15:36:01.720238 12130 net.cpp:156] Memory required for data: 1132256544
I0403 15:36:01.720257 12130 layer_factory.hpp:77] Creating layer inception_4d/relu_5x5_reduce
I0403 15:36:01.720276 12130 net.cpp:91] Creating Layer inception_4d/relu_5x5_reduce
I0403 15:36:01.720293 12130 net.cpp:425] inception_4d/relu_5x5_reduce <- inception_4d/5x5_reduce
I0403 15:36:01.720311 12130 net.cpp:386] inception_4d/relu_5x5_reduce -> inception_4d/5x5_reduce (in-place)
I0403 15:36:01.720511 12130 net.cpp:141] Setting up inception_4d/relu_5x5_reduce
I0403 15:36:01.720537 12130 net.cpp:148] Top shape: 24 32 14 14 (150528)
I0403 15:36:01.720553 12130 net.cpp:156] Memory required for data: 1132858656
I0403 15:36:01.720568 12130 layer_factory.hpp:77] Creating layer inception_4d/5x5
I0403 15:36:01.720590 12130 net.cpp:91] Creating Layer inception_4d/5x5
I0403 15:36:01.720607 12130 net.cpp:425] inception_4d/5x5 <- inception_4d/5x5_reduce
I0403 15:36:01.720626 12130 net.cpp:399] inception_4d/5x5 -> inception_4d/5x5
I0403 15:36:01.722116 12130 net.cpp:141] Setting up inception_4d/5x5
I0403 15:36:01.722146 12130 net.cpp:148] Top shape: 24 64 14 14 (301056)
I0403 15:36:01.722162 12130 net.cpp:156] Memory required for data: 1134062880
I0403 15:36:01.722182 12130 layer_factory.hpp:77] Creating layer inception_4d/relu_5x5
I0403 15:36:01.722214 12130 net.cpp:91] Creating Layer inception_4d/relu_5x5
I0403 15:36:01.722231 12130 net.cpp:425] inception_4d/relu_5x5 <- inception_4d/5x5
I0403 15:36:01.722251 12130 net.cpp:386] inception_4d/relu_5x5 -> inception_4d/5x5 (in-place)
I0403 15:36:01.722563 12130 net.cpp:141] Setting up inception_4d/relu_5x5
I0403 15:36:01.722591 12130 net.cpp:148] Top shape: 24 64 14 14 (301056)
I0403 15:36:01.722609 12130 net.cpp:156] Memory required for data: 1135267104
I0403 15:36:01.722623 12130 layer_factory.hpp:77] Creating layer inception_4d/pool
I0403 15:36:01.722640 12130 net.cpp:91] Creating Layer inception_4d/pool
I0403 15:36:01.722657 12130 net.cpp:425] inception_4d/pool <- inception_4c/output_inception_4c/output_0_split_3
I0403 15:36:01.722690 12130 net.cpp:399] inception_4d/pool -> inception_4d/pool
I0403 15:36:01.722759 12130 net.cpp:141] Setting up inception_4d/pool
I0403 15:36:01.722785 12130 net.cpp:148] Top shape: 24 512 14 14 (2408448)
I0403 15:36:01.722802 12130 net.cpp:156] Memory required for data: 1144900896
I0403 15:36:01.722817 12130 layer_factory.hpp:77] Creating layer inception_4d/pool_proj
I0403 15:36:01.722837 12130 net.cpp:91] Creating Layer inception_4d/pool_proj
I0403 15:36:01.722854 12130 net.cpp:425] inception_4d/pool_proj <- inception_4d/pool
I0403 15:36:01.722877 12130 net.cpp:399] inception_4d/pool_proj -> inception_4d/pool_proj
I0403 15:36:01.724706 12130 net.cpp:141] Setting up inception_4d/pool_proj
I0403 15:36:01.724736 12130 net.cpp:148] Top shape: 24 64 14 14 (301056)
I0403 15:36:01.724752 12130 net.cpp:156] Memory required for data: 1146105120
I0403 15:36:01.724771 12130 layer_factory.hpp:77] Creating layer inception_4d/relu_pool_proj
I0403 15:36:01.724792 12130 net.cpp:91] Creating Layer inception_4d/relu_pool_proj
I0403 15:36:01.724810 12130 net.cpp:425] inception_4d/relu_pool_proj <- inception_4d/pool_proj
I0403 15:36:01.724828 12130 net.cpp:386] inception_4d/relu_pool_proj -> inception_4d/pool_proj (in-place)
I0403 15:36:01.725019 12130 net.cpp:141] Setting up inception_4d/relu_pool_proj
I0403 15:36:01.725046 12130 net.cpp:148] Top shape: 24 64 14 14 (301056)
I0403 15:36:01.725061 12130 net.cpp:156] Memory required for data: 1147309344
I0403 15:36:01.725076 12130 layer_factory.hpp:77] Creating layer inception_4d/output
I0403 15:36:01.725093 12130 net.cpp:91] Creating Layer inception_4d/output
I0403 15:36:01.725111 12130 net.cpp:425] inception_4d/output <- inception_4d/1x1
I0403 15:36:01.725127 12130 net.cpp:425] inception_4d/output <- inception_4d/3x3
I0403 15:36:01.725143 12130 net.cpp:425] inception_4d/output <- inception_4d/5x5
I0403 15:36:01.725159 12130 net.cpp:425] inception_4d/output <- inception_4d/pool_proj
I0403 15:36:01.725175 12130 net.cpp:399] inception_4d/output -> inception_4d/output
I0403 15:36:01.725226 12130 net.cpp:141] Setting up inception_4d/output
I0403 15:36:01.725250 12130 net.cpp:148] Top shape: 24 528 14 14 (2483712)
I0403 15:36:01.725265 12130 net.cpp:156] Memory required for data: 1157244192
I0403 15:36:01.725281 12130 layer_factory.hpp:77] Creating layer inception_4d/output_inception_4d/output_0_split
I0403 15:36:01.725301 12130 net.cpp:91] Creating Layer inception_4d/output_inception_4d/output_0_split
I0403 15:36:01.725317 12130 net.cpp:425] inception_4d/output_inception_4d/output_0_split <- inception_4d/output
I0403 15:36:01.725335 12130 net.cpp:399] inception_4d/output_inception_4d/output_0_split -> inception_4d/output_inception_4d/output_0_split_0
I0403 15:36:01.725356 12130 net.cpp:399] inception_4d/output_inception_4d/output_0_split -> inception_4d/output_inception_4d/output_0_split_1
I0403 15:36:01.725378 12130 net.cpp:399] inception_4d/output_inception_4d/output_0_split -> inception_4d/output_inception_4d/output_0_split_2
I0403 15:36:01.725401 12130 net.cpp:399] inception_4d/output_inception_4d/output_0_split -> inception_4d/output_inception_4d/output_0_split_3
I0403 15:36:01.725427 12130 net.cpp:399] inception_4d/output_inception_4d/output_0_split -> inception_4d/output_inception_4d/output_0_split_4
I0403 15:36:01.725535 12130 net.cpp:141] Setting up inception_4d/output_inception_4d/output_0_split
I0403 15:36:01.725572 12130 net.cpp:148] Top shape: 24 528 14 14 (2483712)
I0403 15:36:01.725589 12130 net.cpp:148] Top shape: 24 528 14 14 (2483712)
I0403 15:36:01.725605 12130 net.cpp:148] Top shape: 24 528 14 14 (2483712)
I0403 15:36:01.725620 12130 net.cpp:148] Top shape: 24 528 14 14 (2483712)
I0403 15:36:01.725636 12130 net.cpp:148] Top shape: 24 528 14 14 (2483712)
I0403 15:36:01.725651 12130 net.cpp:156] Memory required for data: 1206918432
I0403 15:36:01.725666 12130 layer_factory.hpp:77] Creating layer loss2/ave_pool
I0403 15:36:01.725685 12130 net.cpp:91] Creating Layer loss2/ave_pool
I0403 15:36:01.725703 12130 net.cpp:425] loss2/ave_pool <- inception_4d/output_inception_4d/output_0_split_0
I0403 15:36:01.725720 12130 net.cpp:399] loss2/ave_pool -> loss2/ave_pool
I0403 15:36:01.726042 12130 net.cpp:141] Setting up loss2/ave_pool
I0403 15:36:01.726069 12130 net.cpp:148] Top shape: 24 528 4 4 (202752)
I0403 15:36:01.726085 12130 net.cpp:156] Memory required for data: 1207729440
I0403 15:36:01.726099 12130 layer_factory.hpp:77] Creating layer loss2/conv
I0403 15:36:01.726125 12130 net.cpp:91] Creating Layer loss2/conv
I0403 15:36:01.726142 12130 net.cpp:425] loss2/conv <- loss2/ave_pool
I0403 15:36:01.726162 12130 net.cpp:399] loss2/conv -> loss2/conv
I0403 15:36:01.728118 12130 net.cpp:141] Setting up loss2/conv
I0403 15:36:01.728149 12130 net.cpp:148] Top shape: 24 128 4 4 (49152)
I0403 15:36:01.728168 12130 net.cpp:156] Memory required for data: 1207926048
I0403 15:36:01.728186 12130 layer_factory.hpp:77] Creating layer loss2/relu_conv
I0403 15:36:01.728205 12130 net.cpp:91] Creating Layer loss2/relu_conv
I0403 15:36:01.728222 12130 net.cpp:425] loss2/relu_conv <- loss2/conv
I0403 15:36:01.728245 12130 net.cpp:386] loss2/relu_conv -> loss2/conv (in-place)
I0403 15:36:01.728548 12130 net.cpp:141] Setting up loss2/relu_conv
I0403 15:36:01.728574 12130 net.cpp:148] Top shape: 24 128 4 4 (49152)
I0403 15:36:01.728590 12130 net.cpp:156] Memory required for data: 1208122656
I0403 15:36:01.728605 12130 layer_factory.hpp:77] Creating layer loss2/fc
I0403 15:36:01.728623 12130 net.cpp:91] Creating Layer loss2/fc
I0403 15:36:01.728641 12130 net.cpp:425] loss2/fc <- loss2/conv
I0403 15:36:01.728662 12130 net.cpp:399] loss2/fc -> loss2/fc
I0403 15:36:01.746606 12130 net.cpp:141] Setting up loss2/fc
I0403 15:36:01.746670 12130 net.cpp:148] Top shape: 24 1024 (24576)
I0403 15:36:01.746688 12130 net.cpp:156] Memory required for data: 1208220960
I0403 15:36:01.746709 12130 layer_factory.hpp:77] Creating layer loss2/relu_fc
I0403 15:36:01.746729 12130 net.cpp:91] Creating Layer loss2/relu_fc
I0403 15:36:01.746747 12130 net.cpp:425] loss2/relu_fc <- loss2/fc
I0403 15:36:01.746767 12130 net.cpp:386] loss2/relu_fc -> loss2/fc (in-place)
I0403 15:36:01.747112 12130 net.cpp:141] Setting up loss2/relu_fc
I0403 15:36:01.747140 12130 net.cpp:148] Top shape: 24 1024 (24576)
I0403 15:36:01.747158 12130 net.cpp:156] Memory required for data: 1208319264
I0403 15:36:01.747171 12130 layer_factory.hpp:77] Creating layer loss2/drop_fc
I0403 15:36:01.747190 12130 net.cpp:91] Creating Layer loss2/drop_fc
I0403 15:36:01.747206 12130 net.cpp:425] loss2/drop_fc <- loss2/fc
I0403 15:36:01.747225 12130 net.cpp:386] loss2/drop_fc -> loss2/fc (in-place)
I0403 15:36:01.747275 12130 net.cpp:141] Setting up loss2/drop_fc
I0403 15:36:01.747298 12130 net.cpp:148] Top shape: 24 1024 (24576)
I0403 15:36:01.747313 12130 net.cpp:156] Memory required for data: 1208417568
I0403 15:36:01.747328 12130 layer_factory.hpp:77] Creating layer loss2/classifier_plantvillage
I0403 15:36:01.747350 12130 net.cpp:91] Creating Layer loss2/classifier_plantvillage
I0403 15:36:01.747367 12130 net.cpp:425] loss2/classifier_plantvillage <- loss2/fc
I0403 15:36:01.747386 12130 net.cpp:399] loss2/classifier_plantvillage -> loss2/classifier_plantvillage
I0403 15:36:01.747802 12130 net.cpp:141] Setting up loss2/classifier_plantvillage
I0403 15:36:01.747828 12130 net.cpp:148] Top shape: 24 38 (912)
I0403 15:36:01.747869 12130 net.cpp:156] Memory required for data: 1208421216
I0403 15:36:01.747889 12130 layer_factory.hpp:77] Creating layer loss2/classifier_plantvillage_loss2/classifier_plantvillage_0_split
I0403 15:36:01.747906 12130 net.cpp:91] Creating Layer loss2/classifier_plantvillage_loss2/classifier_plantvillage_0_split
I0403 15:36:01.747922 12130 net.cpp:425] loss2/classifier_plantvillage_loss2/classifier_plantvillage_0_split <- loss2/classifier_plantvillage
I0403 15:36:01.747942 12130 net.cpp:399] loss2/classifier_plantvillage_loss2/classifier_plantvillage_0_split -> loss2/classifier_plantvillage_loss2/classifier_plantvillage_0_split_0
I0403 15:36:01.747964 12130 net.cpp:399] loss2/classifier_plantvillage_loss2/classifier_plantvillage_0_split -> loss2/classifier_plantvillage_loss2/classifier_plantvillage_0_split_1
I0403 15:36:01.747985 12130 net.cpp:399] loss2/classifier_plantvillage_loss2/classifier_plantvillage_0_split -> loss2/classifier_plantvillage_loss2/classifier_plantvillage_0_split_2
I0403 15:36:01.748061 12130 net.cpp:141] Setting up loss2/classifier_plantvillage_loss2/classifier_plantvillage_0_split
I0403 15:36:01.748086 12130 net.cpp:148] Top shape: 24 38 (912)
I0403 15:36:01.748102 12130 net.cpp:148] Top shape: 24 38 (912)
I0403 15:36:01.748118 12130 net.cpp:148] Top shape: 24 38 (912)
I0403 15:36:01.748131 12130 net.cpp:156] Memory required for data: 1208432160
I0403 15:36:01.748147 12130 layer_factory.hpp:77] Creating layer inception_4e/1x1
I0403 15:36:01.748168 12130 net.cpp:91] Creating Layer inception_4e/1x1
I0403 15:36:01.748188 12130 net.cpp:425] inception_4e/1x1 <- inception_4d/output_inception_4d/output_0_split_1
I0403 15:36:01.748208 12130 net.cpp:399] inception_4e/1x1 -> inception_4e/1x1
I0403 15:36:01.750913 12130 net.cpp:141] Setting up inception_4e/1x1
I0403 15:36:01.750948 12130 net.cpp:148] Top shape: 24 256 14 14 (1204224)
I0403 15:36:01.750967 12130 net.cpp:156] Memory required for data: 1213249056
I0403 15:36:01.750987 12130 layer_factory.hpp:77] Creating layer inception_4e/relu_1x1
I0403 15:36:01.751004 12130 net.cpp:91] Creating Layer inception_4e/relu_1x1
I0403 15:36:01.751051 12130 net.cpp:425] inception_4e/relu_1x1 <- inception_4e/1x1
I0403 15:36:01.751070 12130 net.cpp:386] inception_4e/relu_1x1 -> inception_4e/1x1 (in-place)
I0403 15:36:01.751395 12130 net.cpp:141] Setting up inception_4e/relu_1x1
I0403 15:36:01.751427 12130 net.cpp:148] Top shape: 24 256 14 14 (1204224)
I0403 15:36:01.751443 12130 net.cpp:156] Memory required for data: 1218065952
I0403 15:36:01.751458 12130 layer_factory.hpp:77] Creating layer inception_4e/3x3_reduce
I0403 15:36:01.751482 12130 net.cpp:91] Creating Layer inception_4e/3x3_reduce
I0403 15:36:01.751498 12130 net.cpp:425] inception_4e/3x3_reduce <- inception_4d/output_inception_4d/output_0_split_2
I0403 15:36:01.751519 12130 net.cpp:399] inception_4e/3x3_reduce -> inception_4e/3x3_reduce
I0403 15:36:01.753705 12130 net.cpp:141] Setting up inception_4e/3x3_reduce
I0403 15:36:01.753736 12130 net.cpp:148] Top shape: 24 160 14 14 (752640)
I0403 15:36:01.753753 12130 net.cpp:156] Memory required for data: 1221076512
I0403 15:36:01.753773 12130 layer_factory.hpp:77] Creating layer inception_4e/relu_3x3_reduce
I0403 15:36:01.753792 12130 net.cpp:91] Creating Layer inception_4e/relu_3x3_reduce
I0403 15:36:01.753808 12130 net.cpp:425] inception_4e/relu_3x3_reduce <- inception_4e/3x3_reduce
I0403 15:36:01.753826 12130 net.cpp:386] inception_4e/relu_3x3_reduce -> inception_4e/3x3_reduce (in-place)
I0403 15:36:01.754016 12130 net.cpp:141] Setting up inception_4e/relu_3x3_reduce
I0403 15:36:01.754041 12130 net.cpp:148] Top shape: 24 160 14 14 (752640)
I0403 15:36:01.754055 12130 net.cpp:156] Memory required for data: 1224087072
I0403 15:36:01.754070 12130 layer_factory.hpp:77] Creating layer inception_4e/3x3
I0403 15:36:01.754092 12130 net.cpp:91] Creating Layer inception_4e/3x3
I0403 15:36:01.754109 12130 net.cpp:425] inception_4e/3x3 <- inception_4e/3x3_reduce
I0403 15:36:01.754130 12130 net.cpp:399] inception_4e/3x3 -> inception_4e/3x3
I0403 15:36:01.759160 12130 net.cpp:141] Setting up inception_4e/3x3
I0403 15:36:01.759204 12130 net.cpp:148] Top shape: 24 320 14 14 (1505280)
I0403 15:36:01.759222 12130 net.cpp:156] Memory required for data: 1230108192
I0403 15:36:01.759240 12130 layer_factory.hpp:77] Creating layer inception_4e/relu_3x3
I0403 15:36:01.759261 12130 net.cpp:91] Creating Layer inception_4e/relu_3x3
I0403 15:36:01.759279 12130 net.cpp:425] inception_4e/relu_3x3 <- inception_4e/3x3
I0403 15:36:01.759299 12130 net.cpp:386] inception_4e/relu_3x3 -> inception_4e/3x3 (in-place)
I0403 15:36:01.759615 12130 net.cpp:141] Setting up inception_4e/relu_3x3
I0403 15:36:01.759642 12130 net.cpp:148] Top shape: 24 320 14 14 (1505280)
I0403 15:36:01.759657 12130 net.cpp:156] Memory required for data: 1236129312
I0403 15:36:01.759671 12130 layer_factory.hpp:77] Creating layer inception_4e/5x5_reduce
I0403 15:36:01.759693 12130 net.cpp:91] Creating Layer inception_4e/5x5_reduce
I0403 15:36:01.759711 12130 net.cpp:425] inception_4e/5x5_reduce <- inception_4d/output_inception_4d/output_0_split_3
I0403 15:36:01.759732 12130 net.cpp:399] inception_4e/5x5_reduce -> inception_4e/5x5_reduce
I0403 15:36:01.760785 12130 net.cpp:141] Setting up inception_4e/5x5_reduce
I0403 15:36:01.760817 12130 net.cpp:148] Top shape: 24 32 14 14 (150528)
I0403 15:36:01.760833 12130 net.cpp:156] Memory required for data: 1236731424
I0403 15:36:01.760854 12130 layer_factory.hpp:77] Creating layer inception_4e/relu_5x5_reduce
I0403 15:36:01.760871 12130 net.cpp:91] Creating Layer inception_4e/relu_5x5_reduce
I0403 15:36:01.760887 12130 net.cpp:425] inception_4e/relu_5x5_reduce <- inception_4e/5x5_reduce
I0403 15:36:01.760907 12130 net.cpp:386] inception_4e/relu_5x5_reduce -> inception_4e/5x5_reduce (in-place)
I0403 15:36:01.761198 12130 net.cpp:141] Setting up inception_4e/relu_5x5_reduce
I0403 15:36:01.761226 12130 net.cpp:148] Top shape: 24 32 14 14 (150528)
I0403 15:36:01.761242 12130 net.cpp:156] Memory required for data: 1237333536
I0403 15:36:01.761257 12130 layer_factory.hpp:77] Creating layer inception_4e/5x5
I0403 15:36:01.761301 12130 net.cpp:91] Creating Layer inception_4e/5x5
I0403 15:36:01.761323 12130 net.cpp:425] inception_4e/5x5 <- inception_4e/5x5_reduce
I0403 15:36:01.761343 12130 net.cpp:399] inception_4e/5x5 -> inception_4e/5x5
I0403 15:36:01.763149 12130 net.cpp:141] Setting up inception_4e/5x5
I0403 15:36:01.763177 12130 net.cpp:148] Top shape: 24 128 14 14 (602112)
I0403 15:36:01.763193 12130 net.cpp:156] Memory required for data: 1239741984
I0403 15:36:01.763212 12130 layer_factory.hpp:77] Creating layer inception_4e/relu_5x5
I0403 15:36:01.763234 12130 net.cpp:91] Creating Layer inception_4e/relu_5x5
I0403 15:36:01.763252 12130 net.cpp:425] inception_4e/relu_5x5 <- inception_4e/5x5
I0403 15:36:01.763268 12130 net.cpp:386] inception_4e/relu_5x5 -> inception_4e/5x5 (in-place)
I0403 15:36:01.763466 12130 net.cpp:141] Setting up inception_4e/relu_5x5
I0403 15:36:01.763491 12130 net.cpp:148] Top shape: 24 128 14 14 (602112)
I0403 15:36:01.763506 12130 net.cpp:156] Memory required for data: 1242150432
I0403 15:36:01.763520 12130 layer_factory.hpp:77] Creating layer inception_4e/pool
I0403 15:36:01.763538 12130 net.cpp:91] Creating Layer inception_4e/pool
I0403 15:36:01.763553 12130 net.cpp:425] inception_4e/pool <- inception_4d/output_inception_4d/output_0_split_4
I0403 15:36:01.763573 12130 net.cpp:399] inception_4e/pool -> inception_4e/pool
I0403 15:36:01.763643 12130 net.cpp:141] Setting up inception_4e/pool
I0403 15:36:01.763666 12130 net.cpp:148] Top shape: 24 528 14 14 (2483712)
I0403 15:36:01.763680 12130 net.cpp:156] Memory required for data: 1252085280
I0403 15:36:01.763695 12130 layer_factory.hpp:77] Creating layer inception_4e/pool_proj
I0403 15:36:01.763717 12130 net.cpp:91] Creating Layer inception_4e/pool_proj
I0403 15:36:01.763734 12130 net.cpp:425] inception_4e/pool_proj <- inception_4e/pool
I0403 15:36:01.763752 12130 net.cpp:399] inception_4e/pool_proj -> inception_4e/pool_proj
I0403 15:36:01.765215 12130 net.cpp:141] Setting up inception_4e/pool_proj
I0403 15:36:01.765255 12130 net.cpp:148] Top shape: 24 128 14 14 (602112)
I0403 15:36:01.765271 12130 net.cpp:156] Memory required for data: 1254493728
I0403 15:36:01.765290 12130 layer_factory.hpp:77] Creating layer inception_4e/relu_pool_proj
I0403 15:36:01.765308 12130 net.cpp:91] Creating Layer inception_4e/relu_pool_proj
I0403 15:36:01.765327 12130 net.cpp:425] inception_4e/relu_pool_proj <- inception_4e/pool_proj
I0403 15:36:01.765344 12130 net.cpp:386] inception_4e/relu_pool_proj -> inception_4e/pool_proj (in-place)
I0403 15:36:01.765636 12130 net.cpp:141] Setting up inception_4e/relu_pool_proj
I0403 15:36:01.765662 12130 net.cpp:148] Top shape: 24 128 14 14 (602112)
I0403 15:36:01.765676 12130 net.cpp:156] Memory required for data: 1256902176
I0403 15:36:01.765691 12130 layer_factory.hpp:77] Creating layer inception_4e/output
I0403 15:36:01.765709 12130 net.cpp:91] Creating Layer inception_4e/output
I0403 15:36:01.765727 12130 net.cpp:425] inception_4e/output <- inception_4e/1x1
I0403 15:36:01.765743 12130 net.cpp:425] inception_4e/output <- inception_4e/3x3
I0403 15:36:01.765758 12130 net.cpp:425] inception_4e/output <- inception_4e/5x5
I0403 15:36:01.765774 12130 net.cpp:425] inception_4e/output <- inception_4e/pool_proj
I0403 15:36:01.765790 12130 net.cpp:399] inception_4e/output -> inception_4e/output
I0403 15:36:01.765843 12130 net.cpp:141] Setting up inception_4e/output
I0403 15:36:01.765867 12130 net.cpp:148] Top shape: 24 832 14 14 (3913728)
I0403 15:36:01.765882 12130 net.cpp:156] Memory required for data: 1272557088
I0403 15:36:01.765895 12130 layer_factory.hpp:77] Creating layer pool4/3x3_s2
I0403 15:36:01.765913 12130 net.cpp:91] Creating Layer pool4/3x3_s2
I0403 15:36:01.765928 12130 net.cpp:425] pool4/3x3_s2 <- inception_4e/output
I0403 15:36:01.765946 12130 net.cpp:399] pool4/3x3_s2 -> pool4/3x3_s2
I0403 15:36:01.766013 12130 net.cpp:141] Setting up pool4/3x3_s2
I0403 15:36:01.766036 12130 net.cpp:148] Top shape: 24 832 7 7 (978432)
I0403 15:36:01.766052 12130 net.cpp:156] Memory required for data: 1276470816
I0403 15:36:01.766065 12130 layer_factory.hpp:77] Creating layer pool4/3x3_s2_pool4/3x3_s2_0_split
I0403 15:36:01.766084 12130 net.cpp:91] Creating Layer pool4/3x3_s2_pool4/3x3_s2_0_split
I0403 15:36:01.766101 12130 net.cpp:425] pool4/3x3_s2_pool4/3x3_s2_0_split <- pool4/3x3_s2
I0403 15:36:01.766119 12130 net.cpp:399] pool4/3x3_s2_pool4/3x3_s2_0_split -> pool4/3x3_s2_pool4/3x3_s2_0_split_0
I0403 15:36:01.766140 12130 net.cpp:399] pool4/3x3_s2_pool4/3x3_s2_0_split -> pool4/3x3_s2_pool4/3x3_s2_0_split_1
I0403 15:36:01.766160 12130 net.cpp:399] pool4/3x3_s2_pool4/3x3_s2_0_split -> pool4/3x3_s2_pool4/3x3_s2_0_split_2
I0403 15:36:01.766178 12130 net.cpp:399] pool4/3x3_s2_pool4/3x3_s2_0_split -> pool4/3x3_s2_pool4/3x3_s2_0_split_3
I0403 15:36:01.766264 12130 net.cpp:141] Setting up pool4/3x3_s2_pool4/3x3_s2_0_split
I0403 15:36:01.766288 12130 net.cpp:148] Top shape: 24 832 7 7 (978432)
I0403 15:36:01.766305 12130 net.cpp:148] Top shape: 24 832 7 7 (978432)
I0403 15:36:01.766322 12130 net.cpp:148] Top shape: 24 832 7 7 (978432)
I0403 15:36:01.766338 12130 net.cpp:148] Top shape: 24 832 7 7 (978432)
I0403 15:36:01.766351 12130 net.cpp:156] Memory required for data: 1292125728
I0403 15:36:01.766366 12130 layer_factory.hpp:77] Creating layer inception_5a/1x1
I0403 15:36:01.766386 12130 net.cpp:91] Creating Layer inception_5a/1x1
I0403 15:36:01.766403 12130 net.cpp:425] inception_5a/1x1 <- pool4/3x3_s2_pool4/3x3_s2_0_split_0
I0403 15:36:01.766427 12130 net.cpp:399] inception_5a/1x1 -> inception_5a/1x1
I0403 15:36:01.769222 12130 net.cpp:141] Setting up inception_5a/1x1
I0403 15:36:01.769254 12130 net.cpp:148] Top shape: 24 256 7 7 (301056)
I0403 15:36:01.769271 12130 net.cpp:156] Memory required for data: 1293329952
I0403 15:36:01.769289 12130 layer_factory.hpp:77] Creating layer inception_5a/relu_1x1
I0403 15:36:01.769307 12130 net.cpp:91] Creating Layer inception_5a/relu_1x1
I0403 15:36:01.769323 12130 net.cpp:425] inception_5a/relu_1x1 <- inception_5a/1x1
I0403 15:36:01.769340 12130 net.cpp:386] inception_5a/relu_1x1 -> inception_5a/1x1 (in-place)
I0403 15:36:01.769657 12130 net.cpp:141] Setting up inception_5a/relu_1x1
I0403 15:36:01.769685 12130 net.cpp:148] Top shape: 24 256 7 7 (301056)
I0403 15:36:01.769701 12130 net.cpp:156] Memory required for data: 1294534176
I0403 15:36:01.769716 12130 layer_factory.hpp:77] Creating layer inception_5a/3x3_reduce
I0403 15:36:01.769737 12130 net.cpp:91] Creating Layer inception_5a/3x3_reduce
I0403 15:36:01.769755 12130 net.cpp:425] inception_5a/3x3_reduce <- pool4/3x3_s2_pool4/3x3_s2_0_split_1
I0403 15:36:01.769773 12130 net.cpp:399] inception_5a/3x3_reduce -> inception_5a/3x3_reduce
I0403 15:36:01.772198 12130 net.cpp:141] Setting up inception_5a/3x3_reduce
I0403 15:36:01.772228 12130 net.cpp:148] Top shape: 24 160 7 7 (188160)
I0403 15:36:01.772244 12130 net.cpp:156] Memory required for data: 1295286816
I0403 15:36:01.772264 12130 layer_factory.hpp:77] Creating layer inception_5a/relu_3x3_reduce
I0403 15:36:01.772284 12130 net.cpp:91] Creating Layer inception_5a/relu_3x3_reduce
I0403 15:36:01.772301 12130 net.cpp:425] inception_5a/relu_3x3_reduce <- inception_5a/3x3_reduce
I0403 15:36:01.772320 12130 net.cpp:386] inception_5a/relu_3x3_reduce -> inception_5a/3x3_reduce (in-place)
I0403 15:36:01.772516 12130 net.cpp:141] Setting up inception_5a/relu_3x3_reduce
I0403 15:36:01.772544 12130 net.cpp:148] Top shape: 24 160 7 7 (188160)
I0403 15:36:01.772560 12130 net.cpp:156] Memory required for data: 1296039456
I0403 15:36:01.772577 12130 layer_factory.hpp:77] Creating layer inception_5a/3x3
I0403 15:36:01.772598 12130 net.cpp:91] Creating Layer inception_5a/3x3
I0403 15:36:01.772617 12130 net.cpp:425] inception_5a/3x3 <- inception_5a/3x3_reduce
I0403 15:36:01.772637 12130 net.cpp:399] inception_5a/3x3 -> inception_5a/3x3
I0403 15:36:01.777637 12130 net.cpp:141] Setting up inception_5a/3x3
I0403 15:36:01.777668 12130 net.cpp:148] Top shape: 24 320 7 7 (376320)
I0403 15:36:01.777686 12130 net.cpp:156] Memory required for data: 1297544736
I0403 15:36:01.777717 12130 layer_factory.hpp:77] Creating layer inception_5a/relu_3x3
I0403 15:36:01.777736 12130 net.cpp:91] Creating Layer inception_5a/relu_3x3
I0403 15:36:01.777755 12130 net.cpp:425] inception_5a/relu_3x3 <- inception_5a/3x3
I0403 15:36:01.777776 12130 net.cpp:386] inception_5a/relu_3x3 -> inception_5a/3x3 (in-place)
I0403 15:36:01.778082 12130 net.cpp:141] Setting up inception_5a/relu_3x3
I0403 15:36:01.778110 12130 net.cpp:148] Top shape: 24 320 7 7 (376320)
I0403 15:36:01.778126 12130 net.cpp:156] Memory required for data: 1299050016
I0403 15:36:01.778141 12130 layer_factory.hpp:77] Creating layer inception_5a/5x5_reduce
I0403 15:36:01.778163 12130 net.cpp:91] Creating Layer inception_5a/5x5_reduce
I0403 15:36:01.778182 12130 net.cpp:425] inception_5a/5x5_reduce <- pool4/3x3_s2_pool4/3x3_s2_0_split_2
I0403 15:36:01.778199 12130 net.cpp:399] inception_5a/5x5_reduce -> inception_5a/5x5_reduce
I0403 15:36:01.779343 12130 net.cpp:141] Setting up inception_5a/5x5_reduce
I0403 15:36:01.779374 12130 net.cpp:148] Top shape: 24 32 7 7 (37632)
I0403 15:36:01.779392 12130 net.cpp:156] Memory required for data: 1299200544
I0403 15:36:01.779414 12130 layer_factory.hpp:77] Creating layer inception_5a/relu_5x5_reduce
I0403 15:36:01.779433 12130 net.cpp:91] Creating Layer inception_5a/relu_5x5_reduce
I0403 15:36:01.779449 12130 net.cpp:425] inception_5a/relu_5x5_reduce <- inception_5a/5x5_reduce
I0403 15:36:01.779469 12130 net.cpp:386] inception_5a/relu_5x5_reduce -> inception_5a/5x5_reduce (in-place)
I0403 15:36:01.779767 12130 net.cpp:141] Setting up inception_5a/relu_5x5_reduce
I0403 15:36:01.779793 12130 net.cpp:148] Top shape: 24 32 7 7 (37632)
I0403 15:36:01.779808 12130 net.cpp:156] Memory required for data: 1299351072
I0403 15:36:01.779822 12130 layer_factory.hpp:77] Creating layer inception_5a/5x5
I0403 15:36:01.779844 12130 net.cpp:91] Creating Layer inception_5a/5x5
I0403 15:36:01.779860 12130 net.cpp:425] inception_5a/5x5 <- inception_5a/5x5_reduce
I0403 15:36:01.779881 12130 net.cpp:399] inception_5a/5x5 -> inception_5a/5x5
I0403 15:36:01.781576 12130 net.cpp:141] Setting up inception_5a/5x5
I0403 15:36:01.781618 12130 net.cpp:148] Top shape: 24 128 7 7 (150528)
I0403 15:36:01.781635 12130 net.cpp:156] Memory required for data: 1299953184
I0403 15:36:01.781654 12130 layer_factory.hpp:77] Creating layer inception_5a/relu_5x5
I0403 15:36:01.781672 12130 net.cpp:91] Creating Layer inception_5a/relu_5x5
I0403 15:36:01.781688 12130 net.cpp:425] inception_5a/relu_5x5 <- inception_5a/5x5
I0403 15:36:01.781708 12130 net.cpp:386] inception_5a/relu_5x5 -> inception_5a/5x5 (in-place)
I0403 15:36:01.781896 12130 net.cpp:141] Setting up inception_5a/relu_5x5
I0403 15:36:01.781921 12130 net.cpp:148] Top shape: 24 128 7 7 (150528)
I0403 15:36:01.781935 12130 net.cpp:156] Memory required for data: 1300555296
I0403 15:36:01.781949 12130 layer_factory.hpp:77] Creating layer inception_5a/pool
I0403 15:36:01.781966 12130 net.cpp:91] Creating Layer inception_5a/pool
I0403 15:36:01.781982 12130 net.cpp:425] inception_5a/pool <- pool4/3x3_s2_pool4/3x3_s2_0_split_3
I0403 15:36:01.782001 12130 net.cpp:399] inception_5a/pool -> inception_5a/pool
I0403 15:36:01.782070 12130 net.cpp:141] Setting up inception_5a/pool
I0403 15:36:01.782094 12130 net.cpp:148] Top shape: 24 832 7 7 (978432)
I0403 15:36:01.782107 12130 net.cpp:156] Memory required for data: 1304469024
I0403 15:36:01.782120 12130 layer_factory.hpp:77] Creating layer inception_5a/pool_proj
I0403 15:36:01.782143 12130 net.cpp:91] Creating Layer inception_5a/pool_proj
I0403 15:36:01.782161 12130 net.cpp:425] inception_5a/pool_proj <- inception_5a/pool
I0403 15:36:01.782179 12130 net.cpp:399] inception_5a/pool_proj -> inception_5a/pool_proj
I0403 15:36:01.784446 12130 net.cpp:141] Setting up inception_5a/pool_proj
I0403 15:36:01.784476 12130 net.cpp:148] Top shape: 24 128 7 7 (150528)
I0403 15:36:01.784497 12130 net.cpp:156] Memory required for data: 1305071136
I0403 15:36:01.784515 12130 layer_factory.hpp:77] Creating layer inception_5a/relu_pool_proj
I0403 15:36:01.784533 12130 net.cpp:91] Creating Layer inception_5a/relu_pool_proj
I0403 15:36:01.784549 12130 net.cpp:425] inception_5a/relu_pool_proj <- inception_5a/pool_proj
I0403 15:36:01.784566 12130 net.cpp:386] inception_5a/relu_pool_proj -> inception_5a/pool_proj (in-place)
I0403 15:36:01.784860 12130 net.cpp:141] Setting up inception_5a/relu_pool_proj
I0403 15:36:01.784886 12130 net.cpp:148] Top shape: 24 128 7 7 (150528)
I0403 15:36:01.784904 12130 net.cpp:156] Memory required for data: 1305673248
I0403 15:36:01.784919 12130 layer_factory.hpp:77] Creating layer inception_5a/output
I0403 15:36:01.784935 12130 net.cpp:91] Creating Layer inception_5a/output
I0403 15:36:01.784951 12130 net.cpp:425] inception_5a/output <- inception_5a/1x1
I0403 15:36:01.784968 12130 net.cpp:425] inception_5a/output <- inception_5a/3x3
I0403 15:36:01.784983 12130 net.cpp:425] inception_5a/output <- inception_5a/5x5
I0403 15:36:01.784999 12130 net.cpp:425] inception_5a/output <- inception_5a/pool_proj
I0403 15:36:01.785015 12130 net.cpp:399] inception_5a/output -> inception_5a/output
I0403 15:36:01.785065 12130 net.cpp:141] Setting up inception_5a/output
I0403 15:36:01.785089 12130 net.cpp:148] Top shape: 24 832 7 7 (978432)
I0403 15:36:01.785104 12130 net.cpp:156] Memory required for data: 1309586976
I0403 15:36:01.785118 12130 layer_factory.hpp:77] Creating layer inception_5a/output_inception_5a/output_0_split
I0403 15:36:01.785133 12130 net.cpp:91] Creating Layer inception_5a/output_inception_5a/output_0_split
I0403 15:36:01.785148 12130 net.cpp:425] inception_5a/output_inception_5a/output_0_split <- inception_5a/output
I0403 15:36:01.785167 12130 net.cpp:399] inception_5a/output_inception_5a/output_0_split -> inception_5a/output_inception_5a/output_0_split_0
I0403 15:36:01.785188 12130 net.cpp:399] inception_5a/output_inception_5a/output_0_split -> inception_5a/output_inception_5a/output_0_split_1
I0403 15:36:01.785208 12130 net.cpp:399] inception_5a/output_inception_5a/output_0_split -> inception_5a/output_inception_5a/output_0_split_2
I0403 15:36:01.785228 12130 net.cpp:399] inception_5a/output_inception_5a/output_0_split -> inception_5a/output_inception_5a/output_0_split_3
I0403 15:36:01.785337 12130 net.cpp:141] Setting up inception_5a/output_inception_5a/output_0_split
I0403 15:36:01.785361 12130 net.cpp:148] Top shape: 24 832 7 7 (978432)
I0403 15:36:01.785375 12130 net.cpp:148] Top shape: 24 832 7 7 (978432)
I0403 15:36:01.785392 12130 net.cpp:148] Top shape: 24 832 7 7 (978432)
I0403 15:36:01.785405 12130 net.cpp:148] Top shape: 24 832 7 7 (978432)
I0403 15:36:01.785423 12130 net.cpp:156] Memory required for data: 1325241888
I0403 15:36:01.785437 12130 layer_factory.hpp:77] Creating layer inception_5b/1x1
I0403 15:36:01.785459 12130 net.cpp:91] Creating Layer inception_5b/1x1
I0403 15:36:01.785476 12130 net.cpp:425] inception_5b/1x1 <- inception_5a/output_inception_5a/output_0_split_0
I0403 15:36:01.785496 12130 net.cpp:399] inception_5b/1x1 -> inception_5b/1x1
I0403 15:36:01.789167 12130 net.cpp:141] Setting up inception_5b/1x1
I0403 15:36:01.789197 12130 net.cpp:148] Top shape: 24 384 7 7 (451584)
I0403 15:36:01.789214 12130 net.cpp:156] Memory required for data: 1327048224
I0403 15:36:01.789232 12130 layer_factory.hpp:77] Creating layer inception_5b/relu_1x1
I0403 15:36:01.789252 12130 net.cpp:91] Creating Layer inception_5b/relu_1x1
I0403 15:36:01.789270 12130 net.cpp:425] inception_5b/relu_1x1 <- inception_5b/1x1
I0403 15:36:01.789288 12130 net.cpp:386] inception_5b/relu_1x1 -> inception_5b/1x1 (in-place)
I0403 15:36:01.789593 12130 net.cpp:141] Setting up inception_5b/relu_1x1
I0403 15:36:01.789619 12130 net.cpp:148] Top shape: 24 384 7 7 (451584)
I0403 15:36:01.789634 12130 net.cpp:156] Memory required for data: 1328854560
I0403 15:36:01.789649 12130 layer_factory.hpp:77] Creating layer inception_5b/3x3_reduce
I0403 15:36:01.789674 12130 net.cpp:91] Creating Layer inception_5b/3x3_reduce
I0403 15:36:01.789691 12130 net.cpp:425] inception_5b/3x3_reduce <- inception_5a/output_inception_5a/output_0_split_1
I0403 15:36:01.789713 12130 net.cpp:399] inception_5b/3x3_reduce -> inception_5b/3x3_reduce
I0403 15:36:01.792305 12130 net.cpp:141] Setting up inception_5b/3x3_reduce
I0403 15:36:01.792337 12130 net.cpp:148] Top shape: 24 192 7 7 (225792)
I0403 15:36:01.792356 12130 net.cpp:156] Memory required for data: 1329757728
I0403 15:36:01.792373 12130 layer_factory.hpp:77] Creating layer inception_5b/relu_3x3_reduce
I0403 15:36:01.792394 12130 net.cpp:91] Creating Layer inception_5b/relu_3x3_reduce
I0403 15:36:01.792421 12130 net.cpp:425] inception_5b/relu_3x3_reduce <- inception_5b/3x3_reduce
I0403 15:36:01.792441 12130 net.cpp:386] inception_5b/relu_3x3_reduce -> inception_5b/3x3_reduce (in-place)
I0403 15:36:01.792630 12130 net.cpp:141] Setting up inception_5b/relu_3x3_reduce
I0403 15:36:01.792656 12130 net.cpp:148] Top shape: 24 192 7 7 (225792)
I0403 15:36:01.792671 12130 net.cpp:156] Memory required for data: 1330660896
I0403 15:36:01.792685 12130 layer_factory.hpp:77] Creating layer inception_5b/3x3
I0403 15:36:01.792707 12130 net.cpp:91] Creating Layer inception_5b/3x3
I0403 15:36:01.792724 12130 net.cpp:425] inception_5b/3x3 <- inception_5b/3x3_reduce
I0403 15:36:01.792742 12130 net.cpp:399] inception_5b/3x3 -> inception_5b/3x3
I0403 15:36:01.799295 12130 net.cpp:141] Setting up inception_5b/3x3
I0403 15:36:01.799325 12130 net.cpp:148] Top shape: 24 384 7 7 (451584)
I0403 15:36:01.799345 12130 net.cpp:156] Memory required for data: 1332467232
I0403 15:36:01.799365 12130 layer_factory.hpp:77] Creating layer inception_5b/relu_3x3
I0403 15:36:01.799382 12130 net.cpp:91] Creating Layer inception_5b/relu_3x3
I0403 15:36:01.799398 12130 net.cpp:425] inception_5b/relu_3x3 <- inception_5b/3x3
I0403 15:36:01.799420 12130 net.cpp:386] inception_5b/relu_3x3 -> inception_5b/3x3 (in-place)
I0403 15:36:01.799723 12130 net.cpp:141] Setting up inception_5b/relu_3x3
I0403 15:36:01.799749 12130 net.cpp:148] Top shape: 24 384 7 7 (451584)
I0403 15:36:01.799767 12130 net.cpp:156] Memory required for data: 1334273568
I0403 15:36:01.799782 12130 layer_factory.hpp:77] Creating layer inception_5b/5x5_reduce
I0403 15:36:01.799816 12130 net.cpp:91] Creating Layer inception_5b/5x5_reduce
I0403 15:36:01.799834 12130 net.cpp:425] inception_5b/5x5_reduce <- inception_5a/output_inception_5a/output_0_split_2
I0403 15:36:01.799854 12130 net.cpp:399] inception_5b/5x5_reduce -> inception_5b/5x5_reduce
I0403 15:36:01.801095 12130 net.cpp:141] Setting up inception_5b/5x5_reduce
I0403 15:36:01.801122 12130 net.cpp:148] Top shape: 24 48 7 7 (56448)
I0403 15:36:01.801138 12130 net.cpp:156] Memory required for data: 1334499360
I0403 15:36:01.801156 12130 layer_factory.hpp:77] Creating layer inception_5b/relu_5x5_reduce
I0403 15:36:01.801177 12130 net.cpp:91] Creating Layer inception_5b/relu_5x5_reduce
I0403 15:36:01.801194 12130 net.cpp:425] inception_5b/relu_5x5_reduce <- inception_5b/5x5_reduce
I0403 15:36:01.801211 12130 net.cpp:386] inception_5b/relu_5x5_reduce -> inception_5b/5x5_reduce (in-place)
I0403 15:36:01.801579 12130 net.cpp:141] Setting up inception_5b/relu_5x5_reduce
I0403 15:36:01.801605 12130 net.cpp:148] Top shape: 24 48 7 7 (56448)
I0403 15:36:01.801620 12130 net.cpp:156] Memory required for data: 1334725152
I0403 15:36:01.801635 12130 layer_factory.hpp:77] Creating layer inception_5b/5x5
I0403 15:36:01.801654 12130 net.cpp:91] Creating Layer inception_5b/5x5
I0403 15:36:01.801671 12130 net.cpp:425] inception_5b/5x5 <- inception_5b/5x5_reduce
I0403 15:36:01.801689 12130 net.cpp:399] inception_5b/5x5 -> inception_5b/5x5
I0403 15:36:01.803696 12130 net.cpp:141] Setting up inception_5b/5x5
I0403 15:36:01.803727 12130 net.cpp:148] Top shape: 24 128 7 7 (150528)
I0403 15:36:01.803745 12130 net.cpp:156] Memory required for data: 1335327264
I0403 15:36:01.803762 12130 layer_factory.hpp:77] Creating layer inception_5b/relu_5x5
I0403 15:36:01.803781 12130 net.cpp:91] Creating Layer inception_5b/relu_5x5
I0403 15:36:01.803797 12130 net.cpp:425] inception_5b/relu_5x5 <- inception_5b/5x5
I0403 15:36:01.803814 12130 net.cpp:386] inception_5b/relu_5x5 -> inception_5b/5x5 (in-place)
I0403 15:36:01.804006 12130 net.cpp:141] Setting up inception_5b/relu_5x5
I0403 15:36:01.804031 12130 net.cpp:148] Top shape: 24 128 7 7 (150528)
I0403 15:36:01.804045 12130 net.cpp:156] Memory required for data: 1335929376
I0403 15:36:01.804059 12130 layer_factory.hpp:77] Creating layer inception_5b/pool
I0403 15:36:01.804076 12130 net.cpp:91] Creating Layer inception_5b/pool
I0403 15:36:01.804093 12130 net.cpp:425] inception_5b/pool <- inception_5a/output_inception_5a/output_0_split_3
I0403 15:36:01.804113 12130 net.cpp:399] inception_5b/pool -> inception_5b/pool
I0403 15:36:01.804183 12130 net.cpp:141] Setting up inception_5b/pool
I0403 15:36:01.804208 12130 net.cpp:148] Top shape: 24 832 7 7 (978432)
I0403 15:36:01.804222 12130 net.cpp:156] Memory required for data: 1339843104
I0403 15:36:01.804236 12130 layer_factory.hpp:77] Creating layer inception_5b/pool_proj
I0403 15:36:01.804257 12130 net.cpp:91] Creating Layer inception_5b/pool_proj
I0403 15:36:01.804275 12130 net.cpp:425] inception_5b/pool_proj <- inception_5b/pool
I0403 15:36:01.804294 12130 net.cpp:399] inception_5b/pool_proj -> inception_5b/pool_proj
I0403 15:36:01.806553 12130 net.cpp:141] Setting up inception_5b/pool_proj
I0403 15:36:01.806582 12130 net.cpp:148] Top shape: 24 128 7 7 (150528)
I0403 15:36:01.806599 12130 net.cpp:156] Memory required for data: 1340445216
I0403 15:36:01.806618 12130 layer_factory.hpp:77] Creating layer inception_5b/relu_pool_proj
I0403 15:36:01.806641 12130 net.cpp:91] Creating Layer inception_5b/relu_pool_proj
I0403 15:36:01.806661 12130 net.cpp:425] inception_5b/relu_pool_proj <- inception_5b/pool_proj
I0403 15:36:01.806679 12130 net.cpp:386] inception_5b/relu_pool_proj -> inception_5b/pool_proj (in-place)
I0403 15:36:01.806973 12130 net.cpp:141] Setting up inception_5b/relu_pool_proj
I0403 15:36:01.806998 12130 net.cpp:148] Top shape: 24 128 7 7 (150528)
I0403 15:36:01.807013 12130 net.cpp:156] Memory required for data: 1341047328
I0403 15:36:01.807027 12130 layer_factory.hpp:77] Creating layer inception_5b/output
I0403 15:36:01.807047 12130 net.cpp:91] Creating Layer inception_5b/output
I0403 15:36:01.807076 12130 net.cpp:425] inception_5b/output <- inception_5b/1x1
I0403 15:36:01.807095 12130 net.cpp:425] inception_5b/output <- inception_5b/3x3
I0403 15:36:01.807111 12130 net.cpp:425] inception_5b/output <- inception_5b/5x5
I0403 15:36:01.807126 12130 net.cpp:425] inception_5b/output <- inception_5b/pool_proj
I0403 15:36:01.807142 12130 net.cpp:399] inception_5b/output -> inception_5b/output
I0403 15:36:01.807195 12130 net.cpp:141] Setting up inception_5b/output
I0403 15:36:01.807219 12130 net.cpp:148] Top shape: 24 1024 7 7 (1204224)
I0403 15:36:01.807232 12130 net.cpp:156] Memory required for data: 1345864224
I0403 15:36:01.807246 12130 layer_factory.hpp:77] Creating layer pool5/7x7_s1
I0403 15:36:01.807263 12130 net.cpp:91] Creating Layer pool5/7x7_s1
I0403 15:36:01.807278 12130 net.cpp:425] pool5/7x7_s1 <- inception_5b/output
I0403 15:36:01.807298 12130 net.cpp:399] pool5/7x7_s1 -> pool5/7x7_s1
I0403 15:36:01.807524 12130 net.cpp:141] Setting up pool5/7x7_s1
I0403 15:36:01.807553 12130 net.cpp:148] Top shape: 24 1024 1 1 (24576)
I0403 15:36:01.807567 12130 net.cpp:156] Memory required for data: 1345962528
I0403 15:36:01.807581 12130 layer_factory.hpp:77] Creating layer pool5/drop_7x7_s1
I0403 15:36:01.807600 12130 net.cpp:91] Creating Layer pool5/drop_7x7_s1
I0403 15:36:01.807615 12130 net.cpp:425] pool5/drop_7x7_s1 <- pool5/7x7_s1
I0403 15:36:01.807633 12130 net.cpp:386] pool5/drop_7x7_s1 -> pool5/7x7_s1 (in-place)
I0403 15:36:01.807682 12130 net.cpp:141] Setting up pool5/drop_7x7_s1
I0403 15:36:01.807704 12130 net.cpp:148] Top shape: 24 1024 1 1 (24576)
I0403 15:36:01.807718 12130 net.cpp:156] Memory required for data: 1346060832
I0403 15:36:01.807734 12130 layer_factory.hpp:77] Creating layer loss3/classifier_plantvillage
I0403 15:36:01.807754 12130 net.cpp:91] Creating Layer loss3/classifier_plantvillage
I0403 15:36:01.807780 12130 net.cpp:425] loss3/classifier_plantvillage <- pool5/7x7_s1
I0403 15:36:01.807799 12130 net.cpp:399] loss3/classifier_plantvillage -> loss3/classifier_plantvillage
I0403 15:36:01.808212 12130 net.cpp:141] Setting up loss3/classifier_plantvillage
I0403 15:36:01.808235 12130 net.cpp:148] Top shape: 24 38 (912)
I0403 15:36:01.808249 12130 net.cpp:156] Memory required for data: 1346064480
I0403 15:36:01.808266 12130 layer_factory.hpp:77] Creating layer loss3/classifier_plantvillage_loss3/classifier_plantvillage_0_split
I0403 15:36:01.808284 12130 net.cpp:91] Creating Layer loss3/classifier_plantvillage_loss3/classifier_plantvillage_0_split
I0403 15:36:01.808305 12130 net.cpp:425] loss3/classifier_plantvillage_loss3/classifier_plantvillage_0_split <- loss3/classifier_plantvillage
I0403 15:36:01.808321 12130 net.cpp:399] loss3/classifier_plantvillage_loss3/classifier_plantvillage_0_split -> loss3/classifier_plantvillage_loss3/classifier_plantvillage_0_split_0
I0403 15:36:01.808341 12130 net.cpp:399] loss3/classifier_plantvillage_loss3/classifier_plantvillage_0_split -> loss3/classifier_plantvillage_loss3/classifier_plantvillage_0_split_1
I0403 15:36:01.808359 12130 net.cpp:399] loss3/classifier_plantvillage_loss3/classifier_plantvillage_0_split -> loss3/classifier_plantvillage_loss3/classifier_plantvillage_0_split_2
I0403 15:36:01.808379 12130 net.cpp:399] loss3/classifier_plantvillage_loss3/classifier_plantvillage_0_split -> loss3/classifier_plantvillage_loss3/classifier_plantvillage_0_split_3
I0403 15:36:01.808480 12130 net.cpp:141] Setting up loss3/classifier_plantvillage_loss3/classifier_plantvillage_0_split
I0403 15:36:01.808503 12130 net.cpp:148] Top shape: 24 38 (912)
I0403 15:36:01.808518 12130 net.cpp:148] Top shape: 24 38 (912)
I0403 15:36:01.808534 12130 net.cpp:148] Top shape: 24 38 (912)
I0403 15:36:01.808548 12130 net.cpp:148] Top shape: 24 38 (912)
I0403 15:36:01.808562 12130 net.cpp:156] Memory required for data: 1346079072
I0403 15:36:01.808575 12130 layer_factory.hpp:77] Creating layer loss1/loss
I0403 15:36:01.808596 12130 net.cpp:91] Creating Layer loss1/loss
I0403 15:36:01.808614 12130 net.cpp:425] loss1/loss <- loss1/classifier_plantvillage_loss1/classifier_plantvillage_0_split_0
I0403 15:36:01.808643 12130 net.cpp:425] loss1/loss <- label_data_1_split_0
…
