…
I0403 14:59:44.743283 11479 net.cpp:313] The NetState phase (1) differed from the phase (0) specified by a rule in layer data
I0403 14:59:44.744436 11479 net.cpp:49] Initializing net from parameters: 
state {
  phase: TEST
}
layer {
  name: "data"
  type: "Data"
  top: "data"
  top: "label"
  include {
    phase: TEST
  }
  transform_param {
    mirror: false
    crop_size: 224
    mean_file: "/home/mohanty/data/final_dataset/lmdb/segmented-50-50/mean.binaryproto"
  }
  data_param {
    source: "/home/mohanty/data/final_dataset/lmdb/segmented-50-50/test_db"
    batch_size: 24
    backend: LMDB
  }
}
layer {
  name: "conv1/7x7_s2"
  type: "Convolution"
  bottom: "data"
  top: "conv1/7x7_s2"
  param {
    lr_mult: 1
    decay_mult: 1
  }
  param {
    lr_mult: 2
    decay_mult: 0
  }
  convolution_param {
    num_output: 64
    pad: 3
    kernel_size: 7
    stride: 2
    weight_filler {
      type: "xavier"
      std: 0.1
    }
    bias_filler {
      type: "constant"
      value: 0.2
    }
  }
}
layer {
  name: "conv1/relu_7x7"
  type: "ReLU"
  bottom: "conv1/7x7_s2"
  top: "conv1/7x7_s2"
}
layer {
  name: "pool1/3x3_s2"
  type: "Pooling"
  bottom: "conv1/7x7_s2"
  top: "pool1/3x3_s2"
  pooling_param {
    pool: MAX
    kernel_size: 3
    stride: 2
  }
}
layer {
  name: "pool1/norm1"
  type: "LRN"
  bottom: "pool1/3x3_s2"
  top: "pool1/norm1"
  lrn_param {
    local_size: 5
    alpha: 0.0001
    beta: 0.75
  }
}
layer {
  name: "conv2/3x3_reduce"
  type: "Convolution"
  bottom: "pool1/norm1"
  top: "conv2/3x3_reduce"
  param {
    lr_mult: 1
    decay_mult: 1
  }
  param {
    lr_mult: 2
    decay_mult: 0
  }
  convolution_param {
    num_output: 64
    kernel_size: 1
    weight_filler {
      type: "xavier"
      std: 0.1
    }
    bias_filler {
      type: "constant"
      value: 0.2
    }
  }
}
layer {
  name: "conv2/relu_3x3_reduce"
  type: "ReLU"
  bottom: "conv2/3x3_reduce"
  top: "conv2/3x3_reduce"
}
layer {
  name: "conv2/3x3"
  type: "Convolution"
  bottom: "conv2/3x3_reduce"
  top: "conv2/3x3"
  param {
    lr_mult: 1
    decay_mult: 1
  }
  param {
    lr_mult: 2
    decay_mult: 0
  }
  convolution_param {
    num_output: 192
    pad: 1
    kernel_size: 3
    weight_filler {
      type: "xavier"
      std: 0.03
    }
    bias_filler {
      type: "constant"
      value: 0.2
    }
  }
}
layer {
  name: "conv2/relu_3x3"
  type: "ReLU"
  bottom: "conv2/3x3"
  top: "conv2/3x3"
}
layer {
  name: "conv2/norm2"
  type: "LRN"
  bottom: "conv2/3x3"
  top: "conv2/norm2"
  lrn_param {
    local_size: 5
    alpha: 0.0001
    beta: 0.75
  }
}
layer {
  name: "pool2/3x3_s2"
  type: "Pooling"
  bottom: "conv2/norm2"
  top: "pool2/3x3_s2"
  pooling_param {
    pool: MAX
    kernel_size: 3
    stride: 2
  }
}
layer {
  name: "inception_3a/1x1"
  type: "Convolution"
  bottom: "pool2/3x3_s2"
  top: "inception_3a/1x1"
  param {
    lr_mult: 1
    decay_mult: 1
  }
  param {
    lr_mult: 2
    decay_mult: 0
  }
  convolution_param {
    num_output: 64
    kernel_size: 1
    weight_filler {
      type: "xavier"
      std: 0.03
    }
    bias_filler {
      type: "constant"
      value: 0.2
    }
  }
}
layer {
  name: "inception_3a/relu_1x1"
  type: "ReLU"
  bottom: "inception_3a/1x1"
  top: "inception_3a/1x1"
}
layer {
  name: "inception_3a/3x3_reduce"
  type: "Convolution"
  bottom: "pool2/3x3_s2"
  top: "inception_3a/3x3_reduce"
  param {
    lr_mult: 1
    decay_mult: 1
  }
  param {
    lr_mult: 2
    decay_mult: 0
  }
  convolution_param {
    num_output: 96
    kernel_size: 1
    weight_filler {
      type: "xavier"
      std: 0.09
    }
    bias_filler {
      type: "constant"
      value: 0.2
    }
  }
}
layer {
  name: "inception_3a/relu_3x3_reduce"
  type: "ReLU"
  bottom: "inception_3a/3x3_reduce"
  top: "inception_3a/3x3_reduce"
}
layer {
  name: "inception_3a/3x3"
  type: "Convolution"
  bottom: "inception_3a/3x3_reduce"
  top: "inception_3a/3x3"
  param {
    lr_mult: 1
    decay_mult: 1
  }
  param {
    lr_mult: 2
    decay_mult: 0
  }
  convolution_param {
    num_output: 128
    pad: 1
    kernel_size: 3
    weight_filler {
      type: "xavier"
      std: 0.03
    }
    bias_filler {
      type: "constant"
      value: 0.2
    }
  }
}
layer {
  name: "inception_3a/relu_3x3"
  type: "ReLU"
  bottom: "inception_3a/3x3"
  top: "inception_3a/3x3"
}
layer {
  name: "inception_3a/5x5_reduce"
  type: "Convolution"
  bottom: "pool2/3x3_s2"
  top: "inception_3a/5x5_reduce"
  param {
    lr_mult: 1
    decay_mult: 1
  }
  param {
    lr_mult: 2
    decay_mult: 0
  }
  convolution_param {
    num_output: 16
    kernel_size: 1
    weight_filler {
      type: "xavier"
      std: 0.2
    }
    bias_filler {
      type: "constant"
      value: 0.2
    }
  }
}
layer {
  name: "inception_3a/relu_5x5_reduce"
  type: "ReLU"
  bottom: "inception_3a/5x5_reduce"
  top: "inception_3a/5x5_reduce"
}
layer {
  name: "inception_3a/5x5"
  type: "Convolution"
  bottom: "inception_3a/5x5_reduce"
  top: "inception_3a/5x5"
  param {
    lr_mult: 1
    decay_mult: 1
  }
  param {
    lr_mult: 2
    decay_mult: 0
  }
  convolution_param {
    num_output: 32
    pad: 2
    kernel_size: 5
    weight_filler {
      type: "xavier"
      std: 0.03
    }
    bias_filler {
      type: "constant"
      value: 0.2
    }
  }
}
layer {
  name: "inception_3a/relu_5x5"
  type: "ReLU"
  bottom: "inception_3a/5x5"
  top: "inception_3a/5x5"
}
layer {
  name: "inception_3a/pool"
  type: "Pooling"
  bottom: "pool2/3x3_s2"
  top: "inception_3a/pool"
  pooling_param {
    pool: MAX
    kernel_size: 3
    stride: 1
    pad: 1
  }
}
layer {
  name: "inception_3a/pool_proj"
  type: "Convolution"
  bottom: "inception_3a/pool"
  top: "inception_3a/pool_proj"
  param {
    lr_mult: 1
    decay_mult: 1
  }
  param {
    lr_mult: 2
    decay_mult: 0
  }
  convolution_param {
    num_output: 32
    kernel_size: 1
    weight_filler {
      type: "xavier"
      std: 0.1
    }
    bias_filler {
      type: "constant"
      value: 0.2
    }
  }
}
layer {
  name: "inception_3a/relu_pool_proj"
  type: "ReLU"
  bottom: "inception_3a/pool_proj"
  top: "inception_3a/pool_proj"
}
layer {
  name: "inception_3a/output"
  type: "Concat"
  bottom: "inception_3a/1x1"
  bottom: "inception_3a/3x3"
  bottom: "inception_3a/5x5"
  bottom: "inception_3a/pool_proj"
  top: "inception_3a/output"
}
layer {
  name: "inception_3b/1x1"
  type: "Convolution"
  bottom: "inception_3a/output"
  top: "inception_3b/1x1"
  param {
    lr_mult: 1
    decay_mult: 1
  }
  param {
    lr_mult: 2
    decay_mult: 0
  }
  convolution_param {
    num_output: 128
    kernel_size: 1
    weight_filler {
      type: "xavier"
      std: 0.03
    }
    bias_filler {
      type: "constant"
      value: 0.2
    }
  }
}
layer {
  name: "inception_3b/relu_1x1"
  type: "ReLU"
  bottom: "inception_3b/1x1"
  top: "inception_3b/1x1"
}
layer {
  name: "inception_3b/3x3_reduce"
  type: "Convolution"
  bottom: "inception_3a/output"
  top: "inception_3b/3x3_reduce"
  param {
    lr_mult: 1
    decay_mult: 1
  }
  param {
    lr_mult: 2
    decay_mult: 0
  }
  convolution_param {
    num_output: 128
    kernel_size: 1
    weight_filler {
      type: "xavier"
      std: 0.09
    }
    bias_filler {
      type: "constant"
      value: 0.2
    }
  }
}
layer {
  name: "inception_3b/relu_3x3_reduce"
  type: "ReLU"
  bottom: "inception_3b/3x3_reduce"
  top: "inception_3b/3x3_reduce"
}
layer {
  name: "inception_3b/3x3"
  type: "Convolution"
  bottom: "inception_3b/3x3_reduce"
  top: "inception_3b/3x3"
  param {
    lr_mult: 1
    decay_mult: 1
  }
  param {
    lr_mult: 2
    decay_mult: 0
  }
  convolution_param {
    num_output: 192
    pad: 1
    kernel_size: 3
    weight_filler {
      type: "xavier"
      std: 0.03
    }
    bias_filler {
      type: "constant"
      value: 0.2
    }
  }
}
layer {
  name: "inception_3b/relu_3x3"
  type: "ReLU"
  bottom: "inception_3b/3x3"
  top: "inception_3b/3x3"
}
layer {
  name: "inception_3b/5x5_reduce"
  type: "Convolution"
  bottom: "inception_3a/output"
  top: "inception_3b/5x5_reduce"
  param {
    lr_mult: 1
    decay_mult: 1
  }
  param {
    lr_mult: 2
    decay_mult: 0
  }
  convolution_param {
    num_output: 32
    kernel_size: 1
    weight_filler {
      type: "xavier"
      std: 0.2
    }
    bias_filler {
      type: "constant"
      value: 0.2
    }
  }
}
layer {
  name: "inception_3b/relu_5x5_reduce"
  type: "ReLU"
  bottom: "inception_3b/5x5_reduce"
  top: "inception_3b/5x5_reduce"
}
layer {
  name: "inception_3b/5x5"
  type: "Convolution"
  bottom: "inception_3b/5x5_reduce"
  top: "inception_3b/5x5"
  param {
    lr_mult: 1
    decay_mult: 1
  }
  param {
    lr_mult: 2
    decay_mult: 0
  }
  convolution_param {
    num_output: 96
    pad: 2
    kernel_size: 5
    weight_filler {
      type: "xavier"
      std: 0.03
    }
    bias_filler {
      type: "constant"
      value: 0.2
    }
  }
}
layer {
  name: "inception_3b/relu_5x5"
  type: "ReLU"
  bottom: "inception_3b/5x5"
  top: "inception_3b/5x5"
}
layer {
  name: "inception_3b/pool"
  type: "Pooling"
  bottom: "inception_3a/output"
  top: "inception_3b/pool"
  pooling_param {
    pool: MAX
    kernel_size: 3
    stride: 1
    pad: 1
  }
}
layer {
  name: "inception_3b/pool_proj"
  type: "Convolution"
  bottom: "inception_3b/pool"
  top: "inception_3b/pool_proj"
  param {
    lr_mult: 1
    decay_mult: 1
  }
  param {
    lr_mult: 2
    decay_mult: 0
  }
  convolution_param {
    num_output: 64
    kernel_size: 1
    weight_filler {
      type: "xavier"
      std: 0.1
    }
    bias_filler {
      type: "constant"
      value: 0.2
    }
  }
}
layer {
  name: "inception_3b/relu_pool_proj"
  type: "ReLU"
  bottom: "inception_3b/pool_proj"
  top: "inception_3b/pool_proj"
}
layer {
  name: "inception_3b/output"
  type: "Concat"
  bottom: "inception_3b/1x1"
  bottom: "inception_3b/3x3"
  bottom: "inception_3b/5x5"
  bottom: "inception_3b/pool_proj"
  top: "inception_3b/output"
}
layer {
  name: "pool3/3x3_s2"
  type: "Pooling"
  bottom: "inception_3b/output"
  top: "pool3/3x3_s2"
  pooling_param {
    pool: MAX
    kernel_size: 3
    stride: 2
  }
}
layer {
  name: "inception_4a/1x1"
  type: "Convolution"
  bottom: "pool3/3x3_s2"
  top: "inception_4a/1x1"
  param {
    lr_mult: 1
    decay_mult: 1
  }
  param {
    lr_mult: 2
    decay_mult: 0
  }
  convolution_param {
    num_output: 192
    kernel_size: 1
    weight_filler {
      type: "xavier"
      std: 0.03
    }
    bias_filler {
      type: "constant"
      value: 0.2
    }
  }
}
layer {
  name: "inception_4a/relu_1x1"
  type: "ReLU"
  bottom: "inception_4a/1x1"
  top: "inception_4a/1x1"
}
layer {
  name: "inception_4a/3x3_reduce"
  type: "Convolution"
  bottom: "pool3/3x3_s2"
  top: "inception_4a/3x3_reduce"
  param {
    lr_mult: 1
    decay_mult: 1
  }
  param {
    lr_mult: 2
    decay_mult: 0
  }
  convolution_param {
    num_output: 96
    kernel_size: 1
    weight_filler {
      type: "xavier"
      std: 0.09
    }
    bias_filler {
      type: "constant"
      value: 0.2
    }
  }
}
layer {
  name: "inception_4a/relu_3x3_reduce"
  type: "ReLU"
  bottom: "inception_4a/3x3_reduce"
  top: "inception_4a/3x3_reduce"
}
layer {
  name: "inception_4a/3x3"
  type: "Convolution"
  bottom: "inception_4a/3x3_reduce"
  top: "inception_4a/3x3"
  param {
    lr_mult: 1
    decay_mult: 1
  }
  param {
    lr_mult: 2
    decay_mult: 0
  }
  convolution_param {
    num_output: 208
    pad: 1
    kernel_size: 3
    weight_filler {
      type: "xavier"
      std: 0.03
    }
    bias_filler {
      type: "constant"
      value: 0.2
    }
  }
}
layer {
  name: "inception_4a/relu_3x3"
  type: "ReLU"
  bottom: "inception_4a/3x3"
  top: "inception_4a/3x3"
}
layer {
  name: "inception_4a/5x5_reduce"
  type: "Convolution"
  bottom: "pool3/3x3_s2"
  top: "inception_4a/5x5_reduce"
  param {
    lr_mult: 1
    decay_mult: 1
  }
  param {
    lr_mult: 2
    decay_mult: 0
  }
  convolution_param {
    num_output: 16
    kernel_size: 1
    weight_filler {
      type: "xavier"
      std: 0.2
    }
    bias_filler {
      type: "constant"
      value: 0.2
    }
  }
}
layer {
  name: "inception_4a/relu_5x5_reduce"
  type: "ReLU"
  bottom: "inception_4a/5x5_reduce"
  top: "inception_4a/5x5_reduce"
}
layer {
  name: "inception_4a/5x5"
  type: "Convolution"
  bottom: "inception_4a/5x5_reduce"
  top: "inception_4a/5x5"
  param {
    lr_mult: 1
    decay_mult: 1
  }
  param {
    lr_mult: 2
    decay_mult: 0
  }
  convolution_param {
    num_output: 48
    pad: 2
    kernel_size: 5
    weight_filler {
      type: "xavier"
      std: 0.03
    }
    bias_filler {
      type: "constant"
      value: 0.2
    }
  }
}
layer {
  name: "inception_4a/relu_5x5"
  type: "ReLU"
  bottom: "inception_4a/5x5"
  top: "inception_4a/5x5"
}
layer {
  name: "inception_4a/pool"
  type: "Pooling"
  bottom: "pool3/3x3_s2"
  top: "inception_4a/pool"
  pooling_param {
    pool: MAX
    kernel_size: 3
    stride: 1
    pad: 1
  }
}
layer {
  name: "inception_4a/pool_proj"
  type: "Convolution"
  bottom: "inception_4a/pool"
  top: "inception_4a/pool_proj"
  param {
    lr_mult: 1
    decay_mult: 1
  }
  param {
    lr_mult: 2
    decay_mult: 0
  }
  convolution_param {
    num_output: 64
    kernel_size: 1
    weight_filler {
      type: "xavier"
      std: 0.1
    }
    bias_filler {
      type: "constant"
      value: 0.2
    }
  }
}
layer {
  name: "inception_4a/relu_pool_proj"
  type: "ReLU"
  bottom: "inception_4a/pool_proj"
  top: "inception_4a/pool_proj"
}
layer {
  name: "inception_4a/output"
  type: "Concat"
  bottom: "inception_4a/1x1"
  bottom: "inception_4a/3x3"
  bottom: "inception_4a/5x5"
  bottom: "inception_4a/pool_proj"
  top: "inception_4a/output"
}
layer {
  name: "loss1/ave_pool"
  type: "Pooling"
  bottom: "inception_4a/output"
  top: "loss1/ave_pool"
  pooling_param {
    pool: AVE
    kernel_size: 5
    stride: 3
  }
}
layer {
  name: "loss1/conv"
  type: "Convolution"
  bottom: "loss1/ave_pool"
  top: "loss1/conv"
  param {
    lr_mult: 1
    decay_mult: 1
  }
  param {
    lr_mult: 2
    decay_mult: 0
  }
  convolution_param {
    num_output: 128
    kernel_size: 1
    weight_filler {
      type: "xavier"
      std: 0.08
    }
    bias_filler {
      type: "constant"
      value: 0.2
    }
  }
}
layer {
  name: "loss1/relu_conv"
  type: "ReLU"
  bottom: "loss1/conv"
  top: "loss1/conv"
}
layer {
  name: "loss1/fc"
  type: "InnerProduct"
  bottom: "loss1/conv"
  top: "loss1/fc"
  param {
    lr_mult: 1
    decay_mult: 1
  }
  param {
    lr_mult: 2
    decay_mult: 0
  }
  inner_product_param {
    num_output: 1024
    weight_filler {
      type: "xavier"
      std: 0.02
    }
    bias_filler {
      type: "constant"
      value: 0.2
    }
  }
}
layer {
  name: "loss1/relu_fc"
  type: "ReLU"
  bottom: "loss1/fc"
  top: "loss1/fc"
}
layer {
  name: "loss1/drop_fc"
  type: "Dropout"
  bottom: "loss1/fc"
  top: "loss1/fc"
  dropout_param {
    dropout_ratio: 0.7
  }
}
layer {
  name: "loss1/classifier_plantvillage"
  type: "InnerProduct"
  bottom: "loss1/fc"
  top: "loss1/classifier_plantvillage"
  param {
    lr_mult: 1
    decay_mult: 1
  }
  param {
    lr_mult: 2
    decay_mult: 0
  }
  inner_product_param {
    num_output: 38
    weight_filler {
      type: "xavier"
      std: 0.0009765625
    }
    bias_filler {
      type: "constant"
      value: 0
    }
  }
}
layer {
  name: "inception_4b/1x1"
  type: "Convolution"
  bottom: "inception_4a/output"
  top: "inception_4b/1x1"
  param {
    lr_mult: 1
    decay_mult: 1
  }
  param {
    lr_mult: 2
    decay_mult: 0
  }
  convolution_param {
    num_output: 160
    kernel_size: 1
    weight_filler {
      type: "xavier"
      std: 0.03
    }
    bias_filler {
      type: "constant"
      value: 0.2
    }
  }
}
layer {
  name: "inception_4b/relu_1x1"
  type: "ReLU"
  bottom: "inception_4b/1x1"
  top: "inception_4b/1x1"
}
layer {
  name: "inception_4b/3x3_reduce"
  type: "Convolution"
  bottom: "inception_4a/output"
  top: "inception_4b/3x3_reduce"
  param {
    lr_mult: 1
    decay_mult: 1
  }
  param {
    lr_mult: 2
    decay_mult: 0
  }
  convolution_param {
    num_output: 112
    kernel_size: 1
    weight_filler {
      type: "xavier"
      std: 0.09
    }
    bias_filler {
      type: "constant"
      value: 0.2
    }
  }
}
layer {
  name: "inception_4b/relu_3x3_reduce"
  type: "ReLU"
  bottom: "inception_4b/3x3_reduce"
  top: "inception_4b/3x3_reduce"
}
layer {
  name: "inception_4b/3x3"
  type: "Convolution"
  bottom: "inception_4b/3x3_reduce"
  top: "inception_4b/3x3"
  param {
    lr_mult: 1
    decay_mult: 1
  }
  param {
    lr_mult: 2
    decay_mult: 0
  }
  convolution_param {
    num_output: 224
    pad: 1
    kernel_size: 3
    weight_filler {
      type: "xavier"
      std: 0.03
    }
    bias_filler {
      type: "constant"
      value: 0.2
    }
  }
}
layer {
  name: "inception_4b/relu_3x3"
  type: "ReLU"
  bottom: "inception_4b/3x3"
  top: "inception_4b/3x3"
}
layer {
  name: "inception_4b/5x5_reduce"
  type: "Convolution"
  bottom: "inception_4a/output"
  top: "inception_4b/5x5_reduce"
  param {
    lr_mult: 1
    decay_mult: 1
  }
  param {
    lr_mult: 2
    decay_mult: 0
  }
  convolution_param {
    num_output: 24
    kernel_size: 1
    weight_filler {
      type: "xavier"
      std: 0.2
    }
    bias_filler {
      type: "constant"
      value: 0.2
    }
  }
}
layer {
  name: "inception_4b/relu_5x5_reduce"
  type: "ReLU"
  bottom: "inception_4b/5x5_reduce"
  top: "inception_4b/5x5_reduce"
}
layer {
  name: "inception_4b/5x5"
  type: "Convolution"
  bottom: "inception_4b/5x5_reduce"
  top: "inception_4b/5x5"
  param {
    lr_mult: 1
    decay_mult: 1
  }
  param {
    lr_mult: 2
    decay_mult: 0
  }
  convolution_param {
    num_output: 64
    pad: 2
    kernel_size: 5
    weight_filler {
      type: "xavier"
      std: 0.03
    }
    bias_filler {
      type: "constant"
      value: 0.2
    }
  }
}
layer {
  name: "inception_4b/relu_5x5"
  type: "ReLU"
  bottom: "inception_4b/5x5"
  top: "inception_4b/5x5"
}
layer {
  name: "inception_4b/pool"
  type: "Pooling"
  bottom: "inception_4a/output"
  top: "inception_4b/pool"
  pooling_param {
    pool: MAX
    kernel_size: 3
    stride: 1
    pad: 1
  }
}
layer {
  name: "inception_4b/pool_proj"
  type: "Convolution"
  bottom: "inception_4b/pool"
  top: "inception_4b/pool_proj"
  param {
    lr_mult: 1
    decay_mult: 1
  }
  param {
    lr_mult: 2
    decay_mult: 0
  }
  convolution_param {
    num_output: 64
    kernel_size: 1
    weight_filler {
      type: "xavier"
      std: 0.1
    }
    bias_filler {
      type: "constant"
      value: 0.2
    }
  }
}
layer {
  name: "inception_4b/relu_pool_proj"
  type: "ReLU"
  bottom: "inception_4b/pool_proj"
  top: "inception_4b/pool_proj"
}
layer {
  name: "inception_4b/output"
  type: "Concat"
  bottom: "inception_4b/1x1"
  bottom: "inception_4b/3x3"
  bottom: "inception_4b/5x5"
  bottom: "inception_4b/pool_proj"
  top: "inception_4b/output"
}
layer {
  name: "inception_4c/1x1"
  type: "Convolution"
  bottom: "inception_4b/output"
  top: "inception_4c/1x1"
  param {
    lr_mult: 1
    decay_mult: 1
  }
  param {
    lr_mult: 2
    decay_mult: 0
  }
  convolution_param {
    num_output: 128
    kernel_size: 1
    weight_filler {
      type: "xavier"
      std: 0.03
    }
    bias_filler {
      type: "constant"
      value: 0.2
    }
  }
}
layer {
  name: "inception_4c/relu_1x1"
  type: "ReLU"
  bottom: "inception_4c/1x1"
  top: "inception_4c/1x1"
}
layer {
  name: "inception_4c/3x3_reduce"
  type: "Convolution"
  bottom: "inception_4b/output"
  top: "inception_4c/3x3_reduce"
  param {
    lr_mult: 1
    decay_mult: 1
  }
  param {
    lr_mult: 2
    decay_mult: 0
  }
  convolution_param {
    num_output: 128
    kernel_size: 1
    weight_filler {
      type: "xavier"
      std: 0.09
    }
    bias_filler {
      type: "constant"
      value: 0.2
    }
  }
}
layer {
  name: "inception_4c/relu_3x3_reduce"
  type: "ReLU"
  bottom: "inception_4c/3x3_reduce"
  top: "inception_4c/3x3_reduce"
}
layer {
  name: "inception_4c/3x3"
  type: "Convolution"
  bottom: "inception_4c/3x3_reduce"
  top: "inception_4c/3x3"
  param {
    lr_mult: 1
    decay_mult: 1
  }
  param {
    lr_mult: 2
    decay_mult: 0
  }
  convolution_param {
    num_output: 256
    pad: 1
    kernel_size: 3
    weight_filler {
      type: "xavier"
      std: 0.03
    }
    bias_filler {
      type: "constant"
      value: 0.2
    }
  }
}
layer {
  name: "inception_4c/relu_3x3"
  type: "ReLU"
  bottom: "inception_4c/3x3"
  top: "inception_4c/3x3"
}
layer {
  name: "inception_4c/5x5_reduce"
  type: "Convolution"
  bottom: "inception_4b/output"
  top: "inception_4c/5x5_reduce"
  param {
    lr_mult: 1
    decay_mult: 1
  }
  param {
    lr_mult: 2
    decay_mult: 0
  }
  convolution_param {
    num_output: 24
    kernel_size: 1
    weight_filler {
      type: "xavier"
      std: 0.2
    }
    bias_filler {
      type: "constant"
      value: 0.2
    }
  }
}
layer {
  name: "inception_4c/relu_5x5_reduce"
  type: "ReLU"
  bottom: "inception_4c/5x5_reduce"
  top: "inception_4c/5x5_reduce"
}
layer {
  name: "inception_4c/5x5"
  type: "Convolution"
  bottom: "inception_4c/5x5_reduce"
  top: "inception_4c/5x5"
  param {
    lr_mult: 1
    decay_mult: 1
  }
  param {
    lr_mult: 2
    decay_mult: 0
  }
  convolution_param {
    num_output: 64
    pad: 2
    kernel_size: 5
    weight_filler {
      type: "xavier"
      std: 0.03
    }
    bias_filler {
      type: "constant"
      value: 0.2
    }
  }
}
layer {
  name: "inception_4c/relu_5x5"
  type: "ReLU"
  bottom: "inception_4c/5x5"
  top: "inception_4c/5x5"
}
layer {
  name: "inception_4c/pool"
  type: "Pooling"
  bottom: "inception_4b/output"
  top: "inception_4c/pool"
  pooling_param {
    pool: MAX
    kernel_size: 3
    stride: 1
    pad: 1
  }
}
layer {
  name: "inception_4c/pool_proj"
  type: "Convolution"
  bottom: "inception_4c/pool"
  top: "inception_4c/pool_proj"
  param {
    lr_mult: 1
    decay_mult: 1
  }
  param {
    lr_mult: 2
    decay_mult: 0
  }
  convolution_param {
    num_output: 64
    kernel_size: 1
    weight_filler {
      type: "xavier"
      std: 0.1
    }
    bias_filler {
      type: "constant"
      value: 0.2
    }
  }
}
layer {
  name: "inception_4c/relu_pool_proj"
  type: "ReLU"
  bottom: "inception_4c/pool_proj"
  top: "inception_4c/pool_proj"
}
layer {
  name: "inception_4c/output"
  type: "Concat"
  bottom: "inception_4c/1x1"
  bottom: "inception_4c/3x3"
  bottom: "inception_4c/5x5"
  bottom: "inception_4c/pool_proj"
  top: "inception_4c/output"
}
layer {
  name: "inception_4d/1x1"
  type: "Convolution"
  bottom: "inception_4c/output"
  top: "inception_4d/1x1"
  param {
    lr_mult: 1
    decay_mult: 1
  }
  param {
    lr_mult: 2
    decay_mult: 0
  }
  convolution_param {
    num_output: 112
    kernel_size: 1
    weight_filler {
      type: "xavier"
      std: 0.03
    }
    bias_filler {
      type: "constant"
      value: 0.2
    }
  }
}
layer {
  name: "inception_4d/relu_1x1"
  type: "ReLU"
  bottom: "inception_4d/1x1"
  top: "inception_4d/1x1"
}
layer {
  name: "inception_4d/3x3_reduce"
  type: "Convolution"
  bottom: "inception_4c/output"
  top: "inception_4d/3x3_reduce"
  param {
    lr_mult: 1
    decay_mult: 1
  }
  param {
    lr_mult: 2
    decay_mult: 0
  }
  convolution_param {
    num_output: 144
    kernel_size: 1
    weight_filler {
      type: "xavier"
      std: 0.09
    }
    bias_filler {
      type: "constant"
      value: 0.2
    }
  }
}
layer {
  name: "inception_4d/relu_3x3_reduce"
  type: "ReLU"
  bottom: "inception_4d/3x3_reduce"
  top: "inception_4d/3x3_reduce"
}
layer {
  name: "inception_4d/3x3"
  type: "Convolution"
  bottom: "inception_4d/3x3_reduce"
  top: "inception_4d/3x3"
  param {
    lr_mult: 1
    decay_mult: 1
  }
  param {
    lr_mult: 2
    decay_mult: 0
  }
  convolution_param {
    num_output: 288
    pad: 1
    kernel_size: 3
    weight_filler {
      type: "xavier"
      std: 0.03
    }
    bias_filler {
      type: "constant"
      value: 0.2
    }
  }
}
layer {
  name: "inception_4d/relu_3x3"
  type: "ReLU"
  bottom: "inception_4d/3x3"
  top: "inception_4d/3x3"
}
layer {
  name: "inception_4d/5x5_reduce"
  type: "Convolution"
  bottom: "inception_4c/output"
  top: "inception_4d/5x5_reduce"
  param {
    lr_mult: 1
    decay_mult: 1
  }
  param {
    lr_mult: 2
    decay_mult: 0
  }
  convolution_param {
    num_output: 32
    kernel_size: 1
    weight_filler {
      type: "xavier"
      std: 0.2
    }
    bias_filler {
      type: "constant"
      value: 0.2
    }
  }
}
layer {
  name: "inception_4d/relu_5x5_reduce"
  type: "ReLU"
  bottom: "inception_4d/5x5_reduce"
  top: "inception_4d/5x5_reduce"
}
layer {
  name: "inception_4d/5x5"
  type: "Convolution"
  bottom: "inception_4d/5x5_reduce"
  top: "inception_4d/5x5"
  param {
    lr_mult: 1
    decay_mult: 1
  }
  param {
    lr_mult: 2
    decay_mult: 0
  }
  convolution_param {
    num_output: 64
    pad: 2
    kernel_size: 5
    weight_filler {
      type: "xavier"
      std: 0.03
    }
    bias_filler {
      type: "constant"
      value: 0.2
    }
  }
}
layer {
  name: "inception_4d/relu_5x5"
  type: "ReLU"
  bottom: "inception_4d/5x5"
  top: "inception_4d/5x5"
}
layer {
  name: "inception_4d/pool"
  type: "Pooling"
  bottom: "inception_4c/output"
  top: "inception_4d/pool"
  pooling_param {
    pool: MAX
    kernel_size: 3
    stride: 1
    pad: 1
  }
}
layer {
  name: "inception_4d/pool_proj"
  type: "Convolution"
  bottom: "inception_4d/pool"
  top: "inception_4d/pool_proj"
  param {
    lr_mult: 1
    decay_mult: 1
  }
  param {
    lr_mult: 2
    decay_mult: 0
  }
  convolution_param {
    num_output: 64
    kernel_size: 1
    weight_filler {
      type: "xavier"
      std: 0.1
    }
    bias_filler {
      type: "constant"
      value: 0.2
    }
  }
}
layer {
  name: "inception_4d/relu_pool_proj"
  type: "ReLU"
  bottom: "inception_4d/pool_proj"
  top: "inception_4d/pool_proj"
}
layer {
  name: "inception_4d/output"
  type: "Concat"
  bottom: "inception_4d/1x1"
  bottom: "inception_4d/3x3"
  bottom: "inception_4d/5x5"
  bottom: "inception_4d/pool_proj"
  top: "inception_4d/output"
}
layer {
  name: "loss2/ave_pool"
  type: "Pooling"
  bottom: "inception_4d/output"
  top: "loss2/ave_pool"
  pooling_param {
    pool: AVE
    kernel_size: 5
    stride: 3
  }
}
layer {
  name: "loss2/conv"
  type: "Convolution"
  bottom: "loss2/ave_pool"
  top: "loss2/conv"
  param {
    lr_mult: 1
    decay_mult: 1
  }
  param {
    lr_mult: 2
    decay_mult: 0
  }
  convolution_param {
    num_output: 128
    kernel_size: 1
    weight_filler {
      type: "xavier"
      std: 0.08
    }
    bias_filler {
      type: "constant"
      value: 0.2
    }
  }
}
layer {
  name: "loss2/relu_conv"
  type: "ReLU"
  bottom: "loss2/conv"
  top: "loss2/conv"
}
layer {
  name: "loss2/fc"
  type: "InnerProduct"
  bottom: "loss2/conv"
  top: "loss2/fc"
  param {
    lr_mult: 1
    decay_mult: 1
  }
  param {
    lr_mult: 2
    decay_mult: 0
  }
  inner_product_param {
    num_output: 1024
    weight_filler {
      type: "xavier"
      std: 0.02
    }
    bias_filler {
      type: "constant"
      value: 0.2
    }
  }
}
layer {
  name: "loss2/relu_fc"
  type: "ReLU"
  bottom: "loss2/fc"
  top: "loss2/fc"
}
layer {
  name: "loss2/drop_fc"
  type: "Dropout"
  bottom: "loss2/fc"
  top: "loss2/fc"
  dropout_param {
    dropout_ratio: 0.7
  }
}
layer {
  name: "loss2/classifier_plantvillage"
  type: "InnerProduct"
  bottom: "loss2/fc"
  top: "loss2/classifier_plantvillage"
  param {
    lr_mult: 1
    decay_mult: 1
  }
  param {
    lr_mult: 2
    decay_mult: 0
  }
  inner_product_param {
    num_output: 38
    weight_filler {
      type: "xavier"
      std: 0.0009765625
    }
    bias_filler {
      type: "constant"
      value: 0
    }
  }
}
layer {
  name: "inception_4e/1x1"
  type: "Convolution"
  bottom: "inception_4d/output"
  top: "inception_4e/1x1"
  param {
    lr_mult: 1
    decay_mult: 1
  }
  param {
    lr_mult: 2
    decay_mult: 0
  }
  convolution_param {
    num_output: 256
    kernel_size: 1
    weight_filler {
      type: "xavier"
      std: 0.03
    }
    bias_filler {
      type: "constant"
      value: 0.2
    }
  }
}
layer {
  name: "inception_4e/relu_1x1"
  type: "ReLU"
  bottom: "inception_4e/1x1"
  top: "inception_4e/1x1"
}
layer {
  name: "inception_4e/3x3_reduce"
  type: "Convolution"
  bottom: "inception_4d/output"
  top: "inception_4e/3x3_reduce"
  param {
    lr_mult: 1
    decay_mult: 1
  }
  param {
    lr_mult: 2
    decay_mult: 0
  }
  convolution_param {
    num_output: 160
    kernel_size: 1
    weight_filler {
      type: "xavier"
      std: 0.09
    }
    bias_filler {
      type: "constant"
      value: 0.2
    }
  }
}
layer {
  name: "inception_4e/relu_3x3_reduce"
  type: "ReLU"
  bottom: "inception_4e/3x3_reduce"
  top: "inception_4e/3x3_reduce"
}
layer {
  name: "inception_4e/3x3"
  type: "Convolution"
  bottom: "inception_4e/3x3_reduce"
  top: "inception_4e/3x3"
  param {
    lr_mult: 1
    decay_mult: 1
  }
  param {
    lr_mult: 2
    decay_mult: 0
  }
  convolution_param {
    num_output: 320
    pad: 1
    kernel_size: 3
    weight_filler {
      type: "xavier"
      std: 0.03
    }
    bias_filler {
      type: "constant"
      value: 0.2
    }
  }
}
layer {
  name: "inception_4e/relu_3x3"
  type: "ReLU"
  bottom: "inception_4e/3x3"
  top: "inception_4e/3x3"
}
layer {
  name: "inception_4e/5x5_reduce"
  type: "Convolution"
  bottom: "inception_4d/output"
  top: "inception_4e/5x5_reduce"
  param {
    lr_mult: 1
    decay_mult: 1
  }
  param {
    lr_mult: 2
    decay_mult: 0
  }
  convolution_param {
    num_output: 32
    kernel_size: 1
    weight_filler {
      type: "xavier"
      std: 0.2
    }
    bias_filler {
      type: "constant"
      value: 0.2
    }
  }
}
layer {
  name: "inception_4e/relu_5x5_reduce"
  type: "ReLU"
  bottom: "inception_4e/5x5_reduce"
  top: "inception_4e/5x5_reduce"
}
layer {
  name: "inception_4e/5x5"
  type: "Convolution"
  bottom: "inception_4e/5x5_reduce"
  top: "inception_4e/
I0403 14:59:44.745658 11479 layer_factory.hpp:77] Creating layer data
I0403 14:59:44.746244 11479 net.cpp:91] Creating Layer data
I0403 14:59:44.746279 11479 net.cpp:399] data -> data
I0403 14:59:44.746328 11479 net.cpp:399] data -> label
I0403 14:59:44.746364 11479 data_transformer.cpp:25] Loading mean file from: /home/mohanty/data/final_dataset/lmdb/segmented-50-50/mean.binaryproto
I0403 14:59:44.749018 11482 db_lmdb.cpp:38] Opened lmdb /home/mohanty/data/final_dataset/lmdb/segmented-50-50/test_db
I0403 14:59:44.759235 11479 data_layer.cpp:41] output data size: 24,3,224,224
I0403 14:59:44.786195 11479 net.cpp:141] Setting up data
I0403 14:59:44.786293 11479 net.cpp:148] Top shape: 24 3 224 224 (3612672)
I0403 14:59:44.786314 11479 net.cpp:148] Top shape: 24 (24)
I0403 14:59:44.786329 11479 net.cpp:156] Memory required for data: 14450784
I0403 14:59:44.786355 11479 layer_factory.hpp:77] Creating layer label_data_1_split
I0403 14:59:44.786380 11479 net.cpp:91] Creating Layer label_data_1_split
I0403 14:59:44.786397 11479 net.cpp:425] label_data_1_split <- label
I0403 14:59:44.786430 11479 net.cpp:399] label_data_1_split -> label_data_1_split_0
I0403 14:59:44.786458 11479 net.cpp:399] label_data_1_split -> label_data_1_split_1
I0403 14:59:44.786478 11479 net.cpp:399] label_data_1_split -> label_data_1_split_2
I0403 14:59:44.786499 11479 net.cpp:399] label_data_1_split -> label_data_1_split_3
I0403 14:59:44.786516 11479 net.cpp:399] label_data_1_split -> label_data_1_split_4
I0403 14:59:44.786535 11479 net.cpp:399] label_data_1_split -> label_data_1_split_5
I0403 14:59:44.786553 11479 net.cpp:399] label_data_1_split -> label_data_1_split_6
I0403 14:59:44.786572 11479 net.cpp:399] label_data_1_split -> label_data_1_split_7
I0403 14:59:44.786591 11479 net.cpp:399] label_data_1_split -> label_data_1_split_8
I0403 14:59:44.786612 11479 net.cpp:399] label_data_1_split -> label_data_1_split_9
I0403 14:59:44.786721 11479 net.cpp:141] Setting up label_data_1_split
I0403 14:59:44.786743 11479 net.cpp:148] Top shape: 24 (24)
I0403 14:59:44.786759 11479 net.cpp:148] Top shape: 24 (24)
I0403 14:59:44.786774 11479 net.cpp:148] Top shape: 24 (24)
I0403 14:59:44.786789 11479 net.cpp:148] Top shape: 24 (24)
I0403 14:59:44.786804 11479 net.cpp:148] Top shape: 24 (24)
I0403 14:59:44.786818 11479 net.cpp:148] Top shape: 24 (24)
I0403 14:59:44.786834 11479 net.cpp:148] Top shape: 24 (24)
I0403 14:59:44.786847 11479 net.cpp:148] Top shape: 24 (24)
I0403 14:59:44.786861 11479 net.cpp:148] Top shape: 24 (24)
I0403 14:59:44.786876 11479 net.cpp:148] Top shape: 24 (24)
I0403 14:59:44.786919 11479 net.cpp:156] Memory required for data: 14451744
I0403 14:59:44.786936 11479 layer_factory.hpp:77] Creating layer conv1/7x7_s2
I0403 14:59:44.786967 11479 net.cpp:91] Creating Layer conv1/7x7_s2
I0403 14:59:44.786983 11479 net.cpp:425] conv1/7x7_s2 <- data
I0403 14:59:44.787001 11479 net.cpp:399] conv1/7x7_s2 -> conv1/7x7_s2
I0403 14:59:44.926106 11479 net.cpp:141] Setting up conv1/7x7_s2
I0403 14:59:44.926192 11479 net.cpp:148] Top shape: 24 64 112 112 (19267584)
I0403 14:59:44.926208 11479 net.cpp:156] Memory required for data: 91522080
I0403 14:59:44.926239 11479 layer_factory.hpp:77] Creating layer conv1/relu_7x7
I0403 14:59:44.926265 11479 net.cpp:91] Creating Layer conv1/relu_7x7
I0403 14:59:44.926283 11479 net.cpp:425] conv1/relu_7x7 <- conv1/7x7_s2
I0403 14:59:44.926302 11479 net.cpp:386] conv1/relu_7x7 -> conv1/7x7_s2 (in-place)
I0403 14:59:44.926564 11479 net.cpp:141] Setting up conv1/relu_7x7
I0403 14:59:44.926591 11479 net.cpp:148] Top shape: 24 64 112 112 (19267584)
I0403 14:59:44.926607 11479 net.cpp:156] Memory required for data: 168592416
I0403 14:59:44.926621 11479 layer_factory.hpp:77] Creating layer pool1/3x3_s2
I0403 14:59:44.926645 11479 net.cpp:91] Creating Layer pool1/3x3_s2
I0403 14:59:44.926663 11479 net.cpp:425] pool1/3x3_s2 <- conv1/7x7_s2
I0403 14:59:44.926681 11479 net.cpp:399] pool1/3x3_s2 -> pool1/3x3_s2
I0403 14:59:44.926755 11479 net.cpp:141] Setting up pool1/3x3_s2
I0403 14:59:44.926780 11479 net.cpp:148] Top shape: 24 64 56 56 (4816896)
I0403 14:59:44.926795 11479 net.cpp:156] Memory required for data: 187860000
I0403 14:59:44.926808 11479 layer_factory.hpp:77] Creating layer pool1/norm1
I0403 14:59:44.926831 11479 net.cpp:91] Creating Layer pool1/norm1
I0403 14:59:44.926848 11479 net.cpp:425] pool1/norm1 <- pool1/3x3_s2
I0403 14:59:44.926867 11479 net.cpp:399] pool1/norm1 -> pool1/norm1
I0403 14:59:44.927165 11479 net.cpp:141] Setting up pool1/norm1
I0403 14:59:44.927193 11479 net.cpp:148] Top shape: 24 64 56 56 (4816896)
I0403 14:59:44.927207 11479 net.cpp:156] Memory required for data: 207127584
I0403 14:59:44.927222 11479 layer_factory.hpp:77] Creating layer conv2/3x3_reduce
I0403 14:59:44.927248 11479 net.cpp:91] Creating Layer conv2/3x3_reduce
I0403 14:59:44.927266 11479 net.cpp:425] conv2/3x3_reduce <- pool1/norm1
I0403 14:59:44.927286 11479 net.cpp:399] conv2/3x3_reduce -> conv2/3x3_reduce
I0403 14:59:44.928681 11479 net.cpp:141] Setting up conv2/3x3_reduce
I0403 14:59:44.928710 11479 net.cpp:148] Top shape: 24 64 56 56 (4816896)
I0403 14:59:44.928725 11479 net.cpp:156] Memory required for data: 226395168
I0403 14:59:44.928745 11479 layer_factory.hpp:77] Creating layer conv2/relu_3x3_reduce
I0403 14:59:44.928766 11479 net.cpp:91] Creating Layer conv2/relu_3x3_reduce
I0403 14:59:44.928781 11479 net.cpp:425] conv2/relu_3x3_reduce <- conv2/3x3_reduce
I0403 14:59:44.928798 11479 net.cpp:386] conv2/relu_3x3_reduce -> conv2/3x3_reduce (in-place)
I0403 14:59:44.929061 11479 net.cpp:141] Setting up conv2/relu_3x3_reduce
I0403 14:59:44.929090 11479 net.cpp:148] Top shape: 24 64 56 56 (4816896)
I0403 14:59:44.929105 11479 net.cpp:156] Memory required for data: 245662752
I0403 14:59:44.929119 11479 layer_factory.hpp:77] Creating layer conv2/3x3
I0403 14:59:44.929142 11479 net.cpp:91] Creating Layer conv2/3x3
I0403 14:59:44.929159 11479 net.cpp:425] conv2/3x3 <- conv2/3x3_reduce
I0403 14:59:44.929177 11479 net.cpp:399] conv2/3x3 -> conv2/3x3
I0403 14:59:44.931434 11479 net.cpp:141] Setting up conv2/3x3
I0403 14:59:44.931466 11479 net.cpp:148] Top shape: 24 192 56 56 (14450688)
I0403 14:59:44.931483 11479 net.cpp:156] Memory required for data: 303465504
I0403 14:59:44.931504 11479 layer_factory.hpp:77] Creating layer conv2/relu_3x3
I0403 14:59:44.931522 11479 net.cpp:91] Creating Layer conv2/relu_3x3
I0403 14:59:44.931538 11479 net.cpp:425] conv2/relu_3x3 <- conv2/3x3
I0403 14:59:44.931557 11479 net.cpp:386] conv2/relu_3x3 -> conv2/3x3 (in-place)
I0403 14:59:44.931730 11479 net.cpp:141] Setting up conv2/relu_3x3
I0403 14:59:44.931754 11479 net.cpp:148] Top shape: 24 192 56 56 (14450688)
I0403 14:59:44.931798 11479 net.cpp:156] Memory required for data: 361268256
I0403 14:59:44.931813 11479 layer_factory.hpp:77] Creating layer conv2/norm2
I0403 14:59:44.931834 11479 net.cpp:91] Creating Layer conv2/norm2
I0403 14:59:44.931850 11479 net.cpp:425] conv2/norm2 <- conv2/3x3
I0403 14:59:44.931869 11479 net.cpp:399] conv2/norm2 -> conv2/norm2
I0403 14:59:44.932168 11479 net.cpp:141] Setting up conv2/norm2
I0403 14:59:44.932194 11479 net.cpp:148] Top shape: 24 192 56 56 (14450688)
I0403 14:59:44.932209 11479 net.cpp:156] Memory required for data: 419071008
I0403 14:59:44.932224 11479 layer_factory.hpp:77] Creating layer pool2/3x3_s2
I0403 14:59:44.932243 11479 net.cpp:91] Creating Layer pool2/3x3_s2
I0403 14:59:44.932260 11479 net.cpp:425] pool2/3x3_s2 <- conv2/norm2
I0403 14:59:44.932276 11479 net.cpp:399] pool2/3x3_s2 -> pool2/3x3_s2
I0403 14:59:44.932328 11479 net.cpp:141] Setting up pool2/3x3_s2
I0403 14:59:44.932350 11479 net.cpp:148] Top shape: 24 192 28 28 (3612672)
I0403 14:59:44.932379 11479 net.cpp:156] Memory required for data: 433521696
I0403 14:59:44.932392 11479 layer_factory.hpp:77] Creating layer pool2/3x3_s2_pool2/3x3_s2_0_split
I0403 14:59:44.932420 11479 net.cpp:91] Creating Layer pool2/3x3_s2_pool2/3x3_s2_0_split
I0403 14:59:44.932440 11479 net.cpp:425] pool2/3x3_s2_pool2/3x3_s2_0_split <- pool2/3x3_s2
I0403 14:59:44.932462 11479 net.cpp:399] pool2/3x3_s2_pool2/3x3_s2_0_split -> pool2/3x3_s2_pool2/3x3_s2_0_split_0
I0403 14:59:44.932482 11479 net.cpp:399] pool2/3x3_s2_pool2/3x3_s2_0_split -> pool2/3x3_s2_pool2/3x3_s2_0_split_1
I0403 14:59:44.932502 11479 net.cpp:399] pool2/3x3_s2_pool2/3x3_s2_0_split -> pool2/3x3_s2_pool2/3x3_s2_0_split_2
I0403 14:59:44.932521 11479 net.cpp:399] pool2/3x3_s2_pool2/3x3_s2_0_split -> pool2/3x3_s2_pool2/3x3_s2_0_split_3
I0403 14:59:44.932593 11479 net.cpp:141] Setting up pool2/3x3_s2_pool2/3x3_s2_0_split
I0403 14:59:44.932615 11479 net.cpp:148] Top shape: 24 192 28 28 (3612672)
I0403 14:59:44.932631 11479 net.cpp:148] Top shape: 24 192 28 28 (3612672)
I0403 14:59:44.932658 11479 net.cpp:148] Top shape: 24 192 28 28 (3612672)
I0403 14:59:44.932672 11479 net.cpp:148] Top shape: 24 192 28 28 (3612672)
I0403 14:59:44.932685 11479 net.cpp:156] Memory required for data: 491324448
I0403 14:59:44.932699 11479 layer_factory.hpp:77] Creating layer inception_3a/1x1
I0403 14:59:44.932721 11479 net.cpp:91] Creating Layer inception_3a/1x1
I0403 14:59:44.932737 11479 net.cpp:425] inception_3a/1x1 <- pool2/3x3_s2_pool2/3x3_s2_0_split_0
I0403 14:59:44.932757 11479 net.cpp:399] inception_3a/1x1 -> inception_3a/1x1
I0403 14:59:44.934242 11479 net.cpp:141] Setting up inception_3a/1x1
I0403 14:59:44.934273 11479 net.cpp:148] Top shape: 24 64 28 28 (1204224)
I0403 14:59:44.934290 11479 net.cpp:156] Memory required for data: 496141344
I0403 14:59:44.934309 11479 layer_factory.hpp:77] Creating layer inception_3a/relu_1x1
I0403 14:59:44.934326 11479 net.cpp:91] Creating Layer inception_3a/relu_1x1
I0403 14:59:44.934342 11479 net.cpp:425] inception_3a/relu_1x1 <- inception_3a/1x1
I0403 14:59:44.934360 11479 net.cpp:386] inception_3a/relu_1x1 -> inception_3a/1x1 (in-place)
I0403 14:59:44.934533 11479 net.cpp:141] Setting up inception_3a/relu_1x1
I0403 14:59:44.934561 11479 net.cpp:148] Top shape: 24 64 28 28 (1204224)
I0403 14:59:44.934576 11479 net.cpp:156] Memory required for data: 500958240
I0403 14:59:44.934589 11479 layer_factory.hpp:77] Creating layer inception_3a/3x3_reduce
I0403 14:59:44.934612 11479 net.cpp:91] Creating Layer inception_3a/3x3_reduce
I0403 14:59:44.934628 11479 net.cpp:425] inception_3a/3x3_reduce <- pool2/3x3_s2_pool2/3x3_s2_0_split_1
I0403 14:59:44.934648 11479 net.cpp:399] inception_3a/3x3_reduce -> inception_3a/3x3_reduce
I0403 14:59:44.936318 11479 net.cpp:141] Setting up inception_3a/3x3_reduce
I0403 14:59:44.936348 11479 net.cpp:148] Top shape: 24 96 28 28 (1806336)
I0403 14:59:44.936364 11479 net.cpp:156] Memory required for data: 508183584
I0403 14:59:44.936388 11479 layer_factory.hpp:77] Creating layer inception_3a/relu_3x3_reduce
I0403 14:59:44.936426 11479 net.cpp:91] Creating Layer inception_3a/relu_3x3_reduce
I0403 14:59:44.936444 11479 net.cpp:425] inception_3a/relu_3x3_reduce <- inception_3a/3x3_reduce
I0403 14:59:44.936465 11479 net.cpp:386] inception_3a/relu_3x3_reduce -> inception_3a/3x3_reduce (in-place)
I0403 14:59:44.936645 11479 net.cpp:141] Setting up inception_3a/relu_3x3_reduce
I0403 14:59:44.936668 11479 net.cpp:148] Top shape: 24 96 28 28 (1806336)
I0403 14:59:44.936682 11479 net.cpp:156] Memory required for data: 515408928
I0403 14:59:44.936697 11479 layer_factory.hpp:77] Creating layer inception_3a/3x3
I0403 14:59:44.936718 11479 net.cpp:91] Creating Layer inception_3a/3x3
I0403 14:59:44.936738 11479 net.cpp:425] inception_3a/3x3 <- inception_3a/3x3_reduce
I0403 14:59:44.936755 11479 net.cpp:399] inception_3a/3x3 -> inception_3a/3x3
I0403 14:59:44.938408 11479 net.cpp:141] Setting up inception_3a/3x3
I0403 14:59:44.938442 11479 net.cpp:148] Top shape: 24 128 28 28 (2408448)
I0403 14:59:44.938457 11479 net.cpp:156] Memory required for data: 525042720
I0403 14:59:44.938473 11479 layer_factory.hpp:77] Creating layer inception_3a/relu_3x3
I0403 14:59:44.938490 11479 net.cpp:91] Creating Layer inception_3a/relu_3x3
I0403 14:59:44.938505 11479 net.cpp:425] inception_3a/relu_3x3 <- inception_3a/3x3
I0403 14:59:44.938524 11479 net.cpp:386] inception_3a/relu_3x3 -> inception_3a/3x3 (in-place)
I0403 14:59:44.938797 11479 net.cpp:141] Setting up inception_3a/relu_3x3
I0403 14:59:44.938827 11479 net.cpp:148] Top shape: 24 128 28 28 (2408448)
I0403 14:59:44.938841 11479 net.cpp:156] Memory required for data: 534676512
I0403 14:59:44.938856 11479 layer_factory.hpp:77] Creating layer inception_3a/5x5_reduce
I0403 14:59:44.938877 11479 net.cpp:91] Creating Layer inception_3a/5x5_reduce
I0403 14:59:44.938895 11479 net.cpp:425] inception_3a/5x5_reduce <- pool2/3x3_s2_pool2/3x3_s2_0_split_2
I0403 14:59:44.938915 11479 net.cpp:399] inception_3a/5x5_reduce -> inception_3a/5x5_reduce
I0403 14:59:44.939862 11479 net.cpp:141] Setting up inception_3a/5x5_reduce
I0403 14:59:44.939888 11479 net.cpp:148] Top shape: 24 16 28 28 (301056)
I0403 14:59:44.939903 11479 net.cpp:156] Memory required for data: 535880736
I0403 14:59:44.939921 11479 layer_factory.hpp:77] Creating layer inception_3a/relu_5x5_reduce
I0403 14:59:44.939939 11479 net.cpp:91] Creating Layer inception_3a/relu_5x5_reduce
I0403 14:59:44.939954 11479 net.cpp:425] inception_3a/relu_5x5_reduce <- inception_3a/5x5_reduce
I0403 14:59:44.939972 11479 net.cpp:386] inception_3a/relu_5x5_reduce -> inception_3a/5x5_reduce (in-place)
I0403 14:59:44.940263 11479 net.cpp:141] Setting up inception_3a/relu_5x5_reduce
I0403 14:59:44.940289 11479 net.cpp:148] Top shape: 24 16 28 28 (301056)
I0403 14:59:44.940304 11479 net.cpp:156] Memory required for data: 537084960
I0403 14:59:44.940317 11479 layer_factory.hpp:77] Creating layer inception_3a/5x5
I0403 14:59:44.940338 11479 net.cpp:91] Creating Layer inception_3a/5x5
I0403 14:59:44.940356 11479 net.cpp:425] inception_3a/5x5 <- inception_3a/5x5_reduce
I0403 14:59:44.940376 11479 net.cpp:399] inception_3a/5x5 -> inception_3a/5x5
I0403 14:59:44.941367 11479 net.cpp:141] Setting up inception_3a/5x5
I0403 14:59:44.941398 11479 net.cpp:148] Top shape: 24 32 28 28 (602112)
I0403 14:59:44.941421 11479 net.cpp:156] Memory required for data: 539493408
I0403 14:59:44.941439 11479 layer_factory.hpp:77] Creating layer inception_3a/relu_5x5
I0403 14:59:44.941458 11479 net.cpp:91] Creating Layer inception_3a/relu_5x5
I0403 14:59:44.941473 11479 net.cpp:425] inception_3a/relu_5x5 <- inception_3a/5x5
I0403 14:59:44.941491 11479 net.cpp:386] inception_3a/relu_5x5 -> inception_3a/5x5 (in-place)
I0403 14:59:44.941676 11479 net.cpp:141] Setting up inception_3a/relu_5x5
I0403 14:59:44.941701 11479 net.cpp:148] Top shape: 24 32 28 28 (602112)
I0403 14:59:44.941715 11479 net.cpp:156] Memory required for data: 541901856
I0403 14:59:44.941730 11479 layer_factory.hpp:77] Creating layer inception_3a/pool
I0403 14:59:44.941747 11479 net.cpp:91] Creating Layer inception_3a/pool
I0403 14:59:44.941779 11479 net.cpp:425] inception_3a/pool <- pool2/3x3_s2_pool2/3x3_s2_0_split_3
I0403 14:59:44.941800 11479 net.cpp:399] inception_3a/pool -> inception_3a/pool
I0403 14:59:44.941856 11479 net.cpp:141] Setting up inception_3a/pool
I0403 14:59:44.941881 11479 net.cpp:148] Top shape: 24 192 28 28 (3612672)
I0403 14:59:44.941896 11479 net.cpp:156] Memory required for data: 556352544
I0403 14:59:44.941910 11479 layer_factory.hpp:77] Creating layer inception_3a/pool_proj
I0403 14:59:44.941932 11479 net.cpp:91] Creating Layer inception_3a/pool_proj
I0403 14:59:44.941948 11479 net.cpp:425] inception_3a/pool_proj <- inception_3a/pool
I0403 14:59:44.941967 11479 net.cpp:399] inception_3a/pool_proj -> inception_3a/pool_proj
I0403 14:59:44.942914 11479 net.cpp:141] Setting up inception_3a/pool_proj
I0403 14:59:44.942941 11479 net.cpp:148] Top shape: 24 32 28 28 (602112)
I0403 14:59:44.942956 11479 net.cpp:156] Memory required for data: 558760992
I0403 14:59:44.942980 11479 layer_factory.hpp:77] Creating layer inception_3a/relu_pool_proj
I0403 14:59:44.942999 11479 net.cpp:91] Creating Layer inception_3a/relu_pool_proj
I0403 14:59:44.943014 11479 net.cpp:425] inception_3a/relu_pool_proj <- inception_3a/pool_proj
I0403 14:59:44.943033 11479 net.cpp:386] inception_3a/relu_pool_proj -> inception_3a/pool_proj (in-place)
I0403 14:59:44.943301 11479 net.cpp:141] Setting up inception_3a/relu_pool_proj
I0403 14:59:44.943330 11479 net.cpp:148] Top shape: 24 32 28 28 (602112)
I0403 14:59:44.943343 11479 net.cpp:156] Memory required for data: 561169440
I0403 14:59:44.943358 11479 layer_factory.hpp:77] Creating layer inception_3a/output
I0403 14:59:44.943375 11479 net.cpp:91] Creating Layer inception_3a/output
I0403 14:59:44.943389 11479 net.cpp:425] inception_3a/output <- inception_3a/1x1
I0403 14:59:44.943405 11479 net.cpp:425] inception_3a/output <- inception_3a/3x3
I0403 14:59:44.943447 11479 net.cpp:425] inception_3a/output <- inception_3a/5x5
I0403 14:59:44.943465 11479 net.cpp:425] inception_3a/output <- inception_3a/pool_proj
I0403 14:59:44.943492 11479 net.cpp:399] inception_3a/output -> inception_3a/output
I0403 14:59:44.943542 11479 net.cpp:141] Setting up inception_3a/output
I0403 14:59:44.943565 11479 net.cpp:148] Top shape: 24 256 28 28 (4816896)
I0403 14:59:44.943579 11479 net.cpp:156] Memory required for data: 580437024
I0403 14:59:44.943593 11479 layer_factory.hpp:77] Creating layer inception_3a/output_inception_3a/output_0_split
I0403 14:59:44.943613 11479 net.cpp:91] Creating Layer inception_3a/output_inception_3a/output_0_split
I0403 14:59:44.943629 11479 net.cpp:425] inception_3a/output_inception_3a/output_0_split <- inception_3a/output
I0403 14:59:44.943646 11479 net.cpp:399] inception_3a/output_inception_3a/output_0_split -> inception_3a/output_inception_3a/output_0_split_0
I0403 14:59:44.943665 11479 net.cpp:399] inception_3a/output_inception_3a/output_0_split -> inception_3a/output_inception_3a/output_0_split_1
I0403 14:59:44.943689 11479 net.cpp:399] inception_3a/output_inception_3a/output_0_split -> inception_3a/output_inception_3a/output_0_split_2
I0403 14:59:44.943711 11479 net.cpp:399] inception_3a/output_inception_3a/output_0_split -> inception_3a/output_inception_3a/output_0_split_3
I0403 14:59:44.943784 11479 net.cpp:141] Setting up inception_3a/output_inception_3a/output_0_split
I0403 14:59:44.943807 11479 net.cpp:148] Top shape: 24 256 28 28 (4816896)
I0403 14:59:44.943825 11479 net.cpp:148] Top shape: 24 256 28 28 (4816896)
I0403 14:59:44.943840 11479 net.cpp:148] Top shape: 24 256 28 28 (4816896)
I0403 14:59:44.943855 11479 net.cpp:148] Top shape: 24 256 28 28 (4816896)
I0403 14:59:44.943867 11479 net.cpp:156] Memory required for data: 657507360
I0403 14:59:44.943881 11479 layer_factory.hpp:77] Creating layer inception_3b/1x1
I0403 14:59:44.943905 11479 net.cpp:91] Creating Layer inception_3b/1x1
I0403 14:59:44.943922 11479 net.cpp:425] inception_3b/1x1 <- inception_3a/output_inception_3a/output_0_split_0
I0403 14:59:44.943941 11479 net.cpp:399] inception_3b/1x1 -> inception_3b/1x1
I0403 14:59:44.945089 11479 net.cpp:141] Setting up inception_3b/1x1
I0403 14:59:44.945129 11479 net.cpp:148] Top shape: 24 128 28 28 (2408448)
I0403 14:59:44.945145 11479 net.cpp:156] Memory required for data: 667141152
I0403 14:59:44.945163 11479 layer_factory.hpp:77] Creating layer inception_3b/relu_1x1
I0403 14:59:44.945183 11479 net.cpp:91] Creating Layer inception_3b/relu_1x1
I0403 14:59:44.945199 11479 net.cpp:425] inception_3b/relu_1x1 <- inception_3b/1x1
I0403 14:59:44.945217 11479 net.cpp:386] inception_3b/relu_1x1 -> inception_3b/1x1 (in-place)
I0403 14:59:44.945415 11479 net.cpp:141] Setting up inception_3b/relu_1x1
I0403 14:59:44.945442 11479 net.cpp:148] Top shape: 24 128 28 28 (2408448)
I0403 14:59:44.945457 11479 net.cpp:156] Memory required for data: 676774944
I0403 14:59:44.945472 11479 layer_factory.hpp:77] Creating layer inception_3b/3x3_reduce
I0403 14:59:44.945497 11479 net.cpp:91] Creating Layer inception_3b/3x3_reduce
I0403 14:59:44.945515 11479 net.cpp:425] inception_3b/3x3_reduce <- inception_3a/output_inception_3a/output_0_split_1
I0403 14:59:44.945538 11479 net.cpp:399] inception_3b/3x3_reduce -> inception_3b/3x3_reduce
I0403 14:59:44.946684 11479 net.cpp:141] Setting up inception_3b/3x3_reduce
I0403 14:59:44.946712 11479 net.cpp:148] Top shape: 24 128 28 28 (2408448)
I0403 14:59:44.946727 11479 net.cpp:156] Memory required for data: 686408736
I0403 14:59:44.946743 11479 layer_factory.hpp:77] Creating layer inception_3b/relu_3x3_reduce
I0403 14:59:44.946764 11479 net.cpp:91] Creating Layer inception_3b/relu_3x3_reduce
I0403 14:59:44.946780 11479 net.cpp:425] inception_3b/relu_3x3_reduce <- inception_3b/3x3_reduce
I0403 14:59:44.946796 11479 net.cpp:386] inception_3b/relu_3x3_reduce -> inception_3b/3x3_reduce (in-place)
I0403 14:59:44.946964 11479 net.cpp:141] Setting up inception_3b/relu_3x3_reduce
I0403 14:59:44.946990 11479 net.cpp:148] Top shape: 24 128 28 28 (2408448)
I0403 14:59:44.947005 11479 net.cpp:156] Memory required for data: 696042528
I0403 14:59:44.947019 11479 layer_factory.hpp:77] Creating layer inception_3b/3x3
I0403 14:59:44.947042 11479 net.cpp:91] Creating Layer inception_3b/3x3
I0403 14:59:44.947060 11479 net.cpp:425] inception_3b/3x3 <- inception_3b/3x3_reduce
I0403 14:59:44.947080 11479 net.cpp:399] inception_3b/3x3 -> inception_3b/3x3
I0403 14:59:44.949947 11479 net.cpp:141] Setting up inception_3b/3x3
I0403 14:59:44.949981 11479 net.cpp:148] Top shape: 24 192 28 28 (3612672)
I0403 14:59:44.949997 11479 net.cpp:156] Memory required for data: 710493216
I0403 14:59:44.950016 11479 layer_factory.hpp:77] Creating layer inception_3b/relu_3x3
I0403 14:59:44.950032 11479 net.cpp:91] Creating Layer inception_3b/relu_3x3
I0403 14:59:44.950047 11479 net.cpp:425] inception_3b/relu_3x3 <- inception_3b/3x3
I0403 14:59:44.950065 11479 net.cpp:386] inception_3b/relu_3x3 -> inception_3b/3x3 (in-place)
I0403 14:59:44.950337 11479 net.cpp:141] Setting up inception_3b/relu_3x3
I0403 14:59:44.950377 11479 net.cpp:148] Top shape: 24 192 28 28 (3612672)
I0403 14:59:44.950392 11479 net.cpp:156] Memory required for data: 724943904
I0403 14:59:44.950407 11479 layer_factory.hpp:77] Creating layer inception_3b/5x5_reduce
I0403 14:59:44.950434 11479 net.cpp:91] Creating Layer inception_3b/5x5_reduce
I0403 14:59:44.950453 11479 net.cpp:425] inception_3b/5x5_reduce <- inception_3a/output_inception_3a/output_0_split_2
I0403 14:59:44.950475 11479 net.cpp:399] inception_3b/5x5_reduce -> inception_3b/5x5_reduce
I0403 14:59:44.951473 11479 net.cpp:141] Setting up inception_3b/5x5_reduce
I0403 14:59:44.951503 11479 net.cpp:148] Top shape: 24 32 28 28 (602112)
I0403 14:59:44.951519 11479 net.cpp:156] Memory required for data: 727352352
I0403 14:59:44.951536 11479 layer_factory.hpp:77] Creating layer inception_3b/relu_5x5_reduce
I0403 14:59:44.951555 11479 net.cpp:91] Creating Layer inception_3b/relu_5x5_reduce
I0403 14:59:44.951570 11479 net.cpp:425] inception_3b/relu_5x5_reduce <- inception_3b/5x5_reduce
I0403 14:59:44.951586 11479 net.cpp:386] inception_3b/relu_5x5_reduce -> inception_3b/5x5_reduce (in-place)
I0403 14:59:44.951778 11479 net.cpp:141] Setting up inception_3b/relu_5x5_reduce
I0403 14:59:44.951802 11479 net.cpp:148] Top shape: 24 32 28 28 (602112)
I0403 14:59:44.951817 11479 net.cpp:156] Memory required for data: 729760800
I0403 14:59:44.951831 11479 layer_factory.hpp:77] Creating layer inception_3b/5x5
I0403 14:59:44.951853 11479 net.cpp:91] Creating Layer inception_3b/5x5
I0403 14:59:44.951870 11479 net.cpp:425] inception_3b/5x5 <- inception_3b/5x5_reduce
I0403 14:59:44.951890 11479 net.cpp:399] inception_3b/5x5 -> inception_3b/5x5
I0403 14:59:44.953857 11479 net.cpp:141] Setting up inception_3b/5x5
I0403 14:59:44.953886 11479 net.cpp:148] Top shape: 24 96 28 28 (1806336)
I0403 14:59:44.953901 11479 net.cpp:156] Memory required for data: 736986144
I0403 14:59:44.953917 11479 layer_factory.hpp:77] Creating layer inception_3b/relu_5x5
I0403 14:59:44.953938 11479 net.cpp:91] Creating Layer inception_3b/relu_5x5
I0403 14:59:44.953953 11479 net.cpp:425] inception_3b/relu_5x5 <- inception_3b/5x5
I0403 14:59:44.953970 11479 net.cpp:386] inception_3b/relu_5x5 -> inception_3b/5x5 (in-place)
I0403 14:59:44.954159 11479 net.cpp:141] Setting up inception_3b/relu_5x5
I0403 14:59:44.954183 11479 net.cpp:148] Top shape: 24 96 28 28 (1806336)
I0403 14:59:44.954197 11479 net.cpp:156] Memory required for data: 744211488
I0403 14:59:44.954211 11479 layer_factory.hpp:77] Creating layer inception_3b/pool
I0403 14:59:44.954228 11479 net.cpp:91] Creating Layer inception_3b/pool
I0403 14:59:44.954243 11479 net.cpp:425] inception_3b/pool <- inception_3a/output_inception_3a/output_0_split_3
I0403 14:59:44.954262 11479 net.cpp:399] inception_3b/pool -> inception_3b/pool
I0403 14:59:44.954316 11479 net.cpp:141] Setting up inception_3b/pool
I0403 14:59:44.954339 11479 net.cpp:148] Top shape: 24 256 28 28 (4816896)
I0403 14:59:44.954352 11479 net.cpp:156] Memory required for data: 763479072
I0403 14:59:44.954366 11479 layer_factory.hpp:77] Creating layer inception_3b/pool_proj
I0403 14:59:44.954387 11479 net.cpp:91] Creating Layer inception_3b/pool_proj
I0403 14:59:44.954403 11479 net.cpp:425] inception_3b/pool_proj <- inception_3b/pool
I0403 14:59:44.954429 11479 net.cpp:399] inception_3b/pool_proj -> inception_3b/pool_proj
I0403 14:59:44.955487 11479 net.cpp:141] Setting up inception_3b/pool_proj
I0403 14:59:44.955515 11479 net.cpp:148] Top shape: 24 64 28 28 (1204224)
I0403 14:59:44.955530 11479 net.cpp:156] Memory required for data: 768295968
I0403 14:59:44.955549 11479 layer_factory.hpp:77] Creating layer inception_3b/relu_pool_proj
I0403 14:59:44.955569 11479 net.cpp:91] Creating Layer inception_3b/relu_pool_proj
I0403 14:59:44.955586 11479 net.cpp:425] inception_3b/relu_pool_proj <- inception_3b/pool_proj
I0403 14:59:44.955605 11479 net.cpp:386] inception_3b/relu_pool_proj -> inception_3b/pool_proj (in-place)
I0403 14:59:44.956012 11479 net.cpp:141] Setting up inception_3b/relu_pool_proj
I0403 14:59:44.956038 11479 net.cpp:148] Top shape: 24 64 28 28 (1204224)
I0403 14:59:44.956053 11479 net.cpp:156] Memory required for data: 773112864
I0403 14:59:44.956068 11479 layer_factory.hpp:77] Creating layer inception_3b/output
I0403 14:59:44.956084 11479 net.cpp:91] Creating Layer inception_3b/output
I0403 14:59:44.956100 11479 net.cpp:425] inception_3b/output <- inception_3b/1x1
I0403 14:59:44.956115 11479 net.cpp:425] inception_3b/output <- inception_3b/3x3
I0403 14:59:44.956130 11479 net.cpp:425] inception_3b/output <- inception_3b/5x5
I0403 14:59:44.956146 11479 net.cpp:425] inception_3b/output <- inception_3b/pool_proj
I0403 14:59:44.956164 11479 net.cpp:399] inception_3b/output -> inception_3b/output
I0403 14:59:44.956207 11479 net.cpp:141] Setting up inception_3b/output
I0403 14:59:44.956231 11479 net.cpp:148] Top shape: 24 480 28 28 (9031680)
I0403 14:59:44.956246 11479 net.cpp:156] Memory required for data: 809239584
I0403 14:59:44.956260 11479 layer_factory.hpp:77] Creating layer pool3/3x3_s2
I0403 14:59:44.956277 11479 net.cpp:91] Creating Layer pool3/3x3_s2
I0403 14:59:44.956292 11479 net.cpp:425] pool3/3x3_s2 <- inception_3b/output
I0403 14:59:44.956324 11479 net.cpp:399] pool3/3x3_s2 -> pool3/3x3_s2
I0403 14:59:44.956384 11479 net.cpp:141] Setting up pool3/3x3_s2
I0403 14:59:44.956406 11479 net.cpp:148] Top shape: 24 480 14 14 (2257920)
I0403 14:59:44.956424 11479 net.cpp:156] Memory required for data: 818271264
I0403 14:59:44.956439 11479 layer_factory.hpp:77] Creating layer pool3/3x3_s2_pool3/3x3_s2_0_split
I0403 14:59:44.956455 11479 net.cpp:91] Creating Layer pool3/3x3_s2_pool3/3x3_s2_0_split
I0403 14:59:44.956470 11479 net.cpp:425] pool3/3x3_s2_pool3/3x3_s2_0_split <- pool3/3x3_s2
I0403 14:59:44.956488 11479 net.cpp:399] pool3/3x3_s2_pool3/3x3_s2_0_split -> pool3/3x3_s2_pool3/3x3_s2_0_split_0
I0403 14:59:44.956508 11479 net.cpp:399] pool3/3x3_s2_pool3/3x3_s2_0_split -> pool3/3x3_s2_pool3/3x3_s2_0_split_1
I0403 14:59:44.956527 11479 net.cpp:399] pool3/3x3_s2_pool3/3x3_s2_0_split -> pool3/3x3_s2_pool3/3x3_s2_0_split_2
I0403 14:59:44.956547 11479 net.cpp:399] pool3/3x3_s2_pool3/3x3_s2_0_split -> pool3/3x3_s2_pool3/3x3_s2_0_split_3
I0403 14:59:44.956624 11479 net.cpp:141] Setting up pool3/3x3_s2_pool3/3x3_s2_0_split
I0403 14:59:44.956645 11479 net.cpp:148] Top shape: 24 480 14 14 (2257920)
I0403 14:59:44.956660 11479 net.cpp:148] Top shape: 24 480 14 14 (2257920)
I0403 14:59:44.956676 11479 net.cpp:148] Top shape: 24 480 14 14 (2257920)
I0403 14:59:44.956691 11479 net.cpp:148] Top shape: 24 480 14 14 (2257920)
I0403 14:59:44.956703 11479 net.cpp:156] Memory required for data: 854397984
I0403 14:59:44.956717 11479 layer_factory.hpp:77] Creating layer inception_4a/1x1
I0403 14:59:44.956738 11479 net.cpp:91] Creating Layer inception_4a/1x1
I0403 14:59:44.956754 11479 net.cpp:425] inception_4a/1x1 <- pool3/3x3_s2_pool3/3x3_s2_0_split_0
I0403 14:59:44.956775 11479 net.cpp:399] inception_4a/1x1 -> inception_4a/1x1
I0403 14:59:44.958324 11479 net.cpp:141] Setting up inception_4a/1x1
I0403 14:59:44.958351 11479 net.cpp:148] Top shape: 24 192 14 14 (903168)
I0403 14:59:44.958379 11479 net.cpp:156] Memory required for data: 858010656
I0403 14:59:44.958397 11479 layer_factory.hpp:77] Creating layer inception_4a/relu_1x1
I0403 14:59:44.958422 11479 net.cpp:91] Creating Layer inception_4a/relu_1x1
I0403 14:59:44.958439 11479 net.cpp:425] inception_4a/relu_1x1 <- inception_4a/1x1
I0403 14:59:44.958457 11479 net.cpp:386] inception_4a/relu_1x1 -> inception_4a/1x1 (in-place)
I0403 14:59:44.958637 11479 net.cpp:141] Setting up inception_4a/relu_1x1
I0403 14:59:44.958674 11479 net.cpp:148] Top shape: 24 192 14 14 (903168)
I0403 14:59:44.958688 11479 net.cpp:156] Memory required for data: 861623328
I0403 14:59:44.958703 11479 layer_factory.hpp:77] Creating layer inception_4a/3x3_reduce
I0403 14:59:44.958725 11479 net.cpp:91] Creating Layer inception_4a/3x3_reduce
I0403 14:59:44.958742 11479 net.cpp:425] inception_4a/3x3_reduce <- pool3/3x3_s2_pool3/3x3_s2_0_split_1
I0403 14:59:44.958761 11479 net.cpp:399] inception_4a/3x3_reduce -> inception_4a/3x3_reduce
I0403 14:59:44.960062 11479 net.cpp:141] Setting up inception_4a/3x3_reduce
I0403 14:59:44.960090 11479 net.cpp:148] Top shape: 24 96 14 14 (451584)
I0403 14:59:44.960105 11479 net.cpp:156] Memory required for data: 863429664
I0403 14:59:44.960131 11479 layer_factory.hpp:77] Creating layer inception_4a/relu_3x3_reduce
I0403 14:59:44.960151 11479 net.cpp:91] Creating Layer inception_4a/relu_3x3_reduce
I0403 14:59:44.960167 11479 net.cpp:425] inception_4a/relu_3x3_reduce <- inception_4a/3x3_reduce
I0403 14:59:44.960191 11479 net.cpp:386] inception_4a/relu_3x3_reduce -> inception_4a/3x3_reduce (in-place)
I0403 14:59:44.960383 11479 net.cpp:141] Setting up inception_4a/relu_3x3_reduce
I0403 14:59:44.960409 11479 net.cpp:148] Top shape: 24 96 14 14 (451584)
I0403 14:59:44.960430 11479 net.cpp:156] Memory required for data: 865236000
I0403 14:59:44.960446 11479 layer_factory.hpp:77] Creating layer inception_4a/3x3
I0403 14:59:44.960469 11479 net.cpp:91] Creating Layer inception_4a/3x3
I0403 14:59:44.960489 11479 net.cpp:425] inception_4a/3x3 <- inception_4a/3x3_reduce
I0403 14:59:44.960508 11479 net.cpp:399] inception_4a/3x3 -> inception_4a/3x3
I0403 14:59:44.963248 11479 net.cpp:141] Setting up inception_4a/3x3
I0403 14:59:44.963279 11479 net.cpp:148] Top shape: 24 208 14 14 (978432)
I0403 14:59:44.963294 11479 net.cpp:156] Memory required for data: 869149728
I0403 14:59:44.963312 11479 layer_factory.hpp:77] Creating layer inception_4a/relu_3x3
I0403 14:59:44.963330 11479 net.cpp:91] Creating Layer inception_4a/relu_3x3
I0403 14:59:44.963345 11479 net.cpp:425] inception_4a/relu_3x3 <- inception_4a/3x3
I0403 14:59:44.963361 11479 net.cpp:386] inception_4a/relu_3x3 -> inception_4a/3x3 (in-place)
I0403 14:59:44.963634 11479 net.cpp:141] Setting up inception_4a/relu_3x3
I0403 14:59:44.963662 11479 net.cpp:148] Top shape: 24 208 14 14 (978432)
I0403 14:59:44.963677 11479 net.cpp:156] Memory required for data: 873063456
I0403 14:59:44.963691 11479 layer_factory.hpp:77] Creating layer inception_4a/5x5_reduce
I0403 14:59:44.963711 11479 net.cpp:91] Creating Layer inception_4a/5x5_reduce
I0403 14:59:44.963726 11479 net.cpp:425] inception_4a/5x5_reduce <- pool3/3x3_s2_pool3/3x3_s2_0_split_2
I0403 14:59:44.963745 11479 net.cpp:399] inception_4a/5x5_reduce -> inception_4a/5x5_reduce
I0403 14:59:44.964722 11479 net.cpp:141] Setting up inception_4a/5x5_reduce
I0403 14:59:44.964751 11479 net.cpp:148] Top shape: 24 16 14 14 (75264)
I0403 14:59:44.964766 11479 net.cpp:156] Memory required for data: 873364512
I0403 14:59:44.964782 11479 layer_factory.hpp:77] Creating layer inception_4a/relu_5x5_reduce
I0403 14:59:44.964798 11479 net.cpp:91] Creating Layer inception_4a/relu_5x5_reduce
I0403 14:59:44.964813 11479 net.cpp:425] inception_4a/relu_5x5_reduce <- inception_4a/5x5_reduce
I0403 14:59:44.964829 11479 net.cpp:386] inception_4a/relu_5x5_reduce -> inception_4a/5x5_reduce (in-place)
I0403 14:59:44.965001 11479 net.cpp:141] Setting up inception_4a/relu_5x5_reduce
I0403 14:59:44.965024 11479 net.cpp:148] Top shape: 24 16 14 14 (75264)
I0403 14:59:44.965039 11479 net.cpp:156] Memory required for data: 873665568
I0403 14:59:44.965052 11479 layer_factory.hpp:77] Creating layer inception_4a/5x5
I0403 14:59:44.965073 11479 net.cpp:91] Creating Layer inception_4a/5x5
I0403 14:59:44.965090 11479 net.cpp:425] inception_4a/5x5 <- inception_4a/5x5_reduce
I0403 14:59:44.965109 11479 net.cpp:399] inception_4a/5x5 -> inception_4a/5x5
I0403 14:59:44.966182 11479 net.cpp:141] Setting up inception_4a/5x5
I0403 14:59:44.966208 11479 net.cpp:148] Top shape: 24 48 14 14 (225792)
I0403 14:59:44.966223 11479 net.cpp:156] Memory required for data: 874568736
I0403 14:59:44.966240 11479 layer_factory.hpp:77] Creating layer inception_4a/relu_5x5
I0403 14:59:44.966258 11479 net.cpp:91] Creating Layer inception_4a/relu_5x5
I0403 14:59:44.966272 11479 net.cpp:425] inception_4a/relu_5x5 <- inception_4a/5x5
I0403 14:59:44.966290 11479 net.cpp:386] inception_4a/relu_5x5 -> inception_4a/5x5 (in-place)
I0403 14:59:44.966464 11479 net.cpp:141] Setting up inception_4a/relu_5x5
I0403 14:59:44.966488 11479 net.cpp:148] Top shape: 24 48 14 14 (225792)
I0403 14:59:44.966502 11479 net.cpp:156] Memory required for data: 875471904
I0403 14:59:44.966516 11479 layer_factory.hpp:77] Creating layer inception_4a/pool
I0403 14:59:44.966534 11479 net.cpp:91] Creating Layer inception_4a/pool
I0403 14:59:44.966549 11479 net.cpp:425] inception_4a/pool <- pool3/3x3_s2_pool3/3x3_s2_0_split_3
I0403 14:59:44.966567 11479 net.cpp:399] inception_4a/pool -> inception_4a/pool
I0403 14:59:44.966625 11479 net.cpp:141] Setting up inception_4a/pool
I0403 14:59:44.966647 11479 net.cpp:148] Top shape: 24 480 14 14 (2257920)
I0403 14:59:44.966661 11479 net.cpp:156] Memory required for data: 884503584
I0403 14:59:44.966675 11479 layer_factory.hpp:77] Creating layer inception_4a/pool_proj
I0403 14:59:44.966696 11479 net.cpp:91] Creating Layer inception_4a/pool_proj
I0403 14:59:44.966713 11479 net.cpp:425] inception_4a/pool_proj <- inception_4a/pool
I0403 14:59:44.966733 11479 net.cpp:399] inception_4a/pool_proj -> inception_4a/pool_proj
I0403 14:59:44.967890 11479 net.cpp:141] Setting up inception_4a/pool_proj
I0403 14:59:44.967917 11479 net.cpp:148] Top shape: 24 64 14 14 (301056)
I0403 14:59:44.967947 11479 net.cpp:156] Memory required for data: 885707808
I0403 14:59:44.967965 11479 layer_factory.hpp:77] Creating layer inception_4a/relu_pool_proj
I0403 14:59:44.967986 11479 net.cpp:91] Creating Layer inception_4a/relu_pool_proj
I0403 14:59:44.968003 11479 net.cpp:425] inception_4a/relu_pool_proj <- inception_4a/pool_proj
I0403 14:59:44.968019 11479 net.cpp:386] inception_4a/relu_pool_proj -> inception_4a/pool_proj (in-place)
I0403 14:59:44.968300 11479 net.cpp:141] Setting up inception_4a/relu_pool_proj
I0403 14:59:44.968325 11479 net.cpp:148] Top shape: 24 64 14 14 (301056)
I0403 14:59:44.968339 11479 net.cpp:156] Memory required for data: 886912032
I0403 14:59:44.968353 11479 layer_factory.hpp:77] Creating layer inception_4a/output
I0403 14:59:44.968370 11479 net.cpp:91] Creating Layer inception_4a/output
I0403 14:59:44.968384 11479 net.cpp:425] inception_4a/output <- inception_4a/1x1
I0403 14:59:44.968400 11479 net.cpp:425] inception_4a/output <- inception_4a/3x3
I0403 14:59:44.968420 11479 net.cpp:425] inception_4a/output <- inception_4a/5x5
I0403 14:59:44.968436 11479 net.cpp:425] inception_4a/output <- inception_4a/pool_proj
I0403 14:59:44.968453 11479 net.cpp:399] inception_4a/output -> inception_4a/output
I0403 14:59:44.968498 11479 net.cpp:141] Setting up inception_4a/output
I0403 14:59:44.968519 11479 net.cpp:148] Top shape: 24 512 14 14 (2408448)
I0403 14:59:44.968533 11479 net.cpp:156] Memory required for data: 896545824
I0403 14:59:44.968546 11479 layer_factory.hpp:77] Creating layer inception_4a/output_inception_4a/output_0_split
I0403 14:59:44.968562 11479 net.cpp:91] Creating Layer inception_4a/output_inception_4a/output_0_split
I0403 14:59:44.968577 11479 net.cpp:425] inception_4a/output_inception_4a/output_0_split <- inception_4a/output
I0403 14:59:44.968596 11479 net.cpp:399] inception_4a/output_inception_4a/output_0_split -> inception_4a/output_inception_4a/output_0_split_0
I0403 14:59:44.968617 11479 net.cpp:399] inception_4a/output_inception_4a/output_0_split -> inception_4a/output_inception_4a/output_0_split_1
I0403 14:59:44.968636 11479 net.cpp:399] inception_4a/output_inception_4a/output_0_split -> inception_4a/output_inception_4a/output_0_split_2
I0403 14:59:44.968655 11479 net.cpp:399] inception_4a/output_inception_4a/output_0_split -> inception_4a/output_inception_4a/output_0_split_3
I0403 14:59:44.968673 11479 net.cpp:399] inception_4a/output_inception_4a/output_0_split -> inception_4a/output_inception_4a/output_0_split_4
I0403 14:59:44.968758 11479 net.cpp:141] Setting up inception_4a/output_inception_4a/output_0_split
I0403 14:59:44.968783 11479 net.cpp:148] Top shape: 24 512 14 14 (2408448)
I0403 14:59:44.968798 11479 net.cpp:148] Top shape: 24 512 14 14 (2408448)
I0403 14:59:44.968813 11479 net.cpp:148] Top shape: 24 512 14 14 (2408448)
I0403 14:59:44.968828 11479 net.cpp:148] Top shape: 24 512 14 14 (2408448)
I0403 14:59:44.968842 11479 net.cpp:148] Top shape: 24 512 14 14 (2408448)
I0403 14:59:44.968854 11479 net.cpp:156] Memory required for data: 944714784
I0403 14:59:44.968868 11479 layer_factory.hpp:77] Creating layer loss1/ave_pool
I0403 14:59:44.968884 11479 net.cpp:91] Creating Layer loss1/ave_pool
I0403 14:59:44.968899 11479 net.cpp:425] loss1/ave_pool <- inception_4a/output_inception_4a/output_0_split_0
I0403 14:59:44.968917 11479 net.cpp:399] loss1/ave_pool -> loss1/ave_pool
I0403 14:59:44.969115 11479 net.cpp:141] Setting up loss1/ave_pool
I0403 14:59:44.969140 11479 net.cpp:148] Top shape: 24 512 4 4 (196608)
I0403 14:59:44.969152 11479 net.cpp:156] Memory required for data: 945501216
I0403 14:59:44.969166 11479 layer_factory.hpp:77] Creating layer loss1/conv
I0403 14:59:44.969187 11479 net.cpp:91] Creating Layer loss1/conv
I0403 14:59:44.969203 11479 net.cpp:425] loss1/conv <- loss1/ave_pool
I0403 14:59:44.969223 11479 net.cpp:399] loss1/conv -> loss1/conv
I0403 14:59:44.970608 11479 net.cpp:141] Setting up loss1/conv
I0403 14:59:44.970638 11479 net.cpp:148] Top shape: 24 128 4 4 (49152)
I0403 14:59:44.970666 11479 net.cpp:156] Memory required for data: 945697824
I0403 14:59:44.970685 11479 layer_factory.hpp:77] Creating layer loss1/relu_conv
I0403 14:59:44.970701 11479 net.cpp:91] Creating Layer loss1/relu_conv
I0403 14:59:44.970716 11479 net.cpp:425] loss1/relu_conv <- loss1/conv
I0403 14:59:44.970732 11479 net.cpp:386] loss1/relu_conv -> loss1/conv (in-place)
I0403 14:59:44.971002 11479 net.cpp:141] Setting up loss1/relu_conv
I0403 14:59:44.971030 11479 net.cpp:148] Top shape: 24 128 4 4 (49152)
I0403 14:59:44.971045 11479 net.cpp:156] Memory required for data: 945894432
I0403 14:59:44.971058 11479 layer_factory.hpp:77] Creating layer loss1/fc
I0403 14:59:44.971082 11479 net.cpp:91] Creating Layer loss1/fc
I0403 14:59:44.971099 11479 net.cpp:425] loss1/fc <- loss1/conv
I0403 14:59:44.971119 11479 net.cpp:399] loss1/fc -> loss1/fc
I0403 14:59:44.988915 11479 net.cpp:141] Setting up loss1/fc
I0403 14:59:44.988951 11479 net.cpp:148] Top shape: 24 1024 (24576)
I0403 14:59:44.988967 11479 net.cpp:156] Memory required for data: 945992736
I0403 14:59:44.988984 11479 layer_factory.hpp:77] Creating layer loss1/relu_fc
I0403 14:59:44.989003 11479 net.cpp:91] Creating Layer loss1/relu_fc
I0403 14:59:44.989019 11479 net.cpp:425] loss1/relu_fc <- loss1/fc
I0403 14:59:44.989037 11479 net.cpp:386] loss1/relu_fc -> loss1/fc (in-place)
I0403 14:59:44.989223 11479 net.cpp:141] Setting up loss1/relu_fc
I0403 14:59:44.989248 11479 net.cpp:148] Top shape: 24 1024 (24576)
I0403 14:59:44.989262 11479 net.cpp:156] Memory required for data: 946091040
I0403 14:59:44.989277 11479 layer_factory.hpp:77] Creating layer loss1/drop_fc
I0403 14:59:44.989303 11479 net.cpp:91] Creating Layer loss1/drop_fc
I0403 14:59:44.989321 11479 net.cpp:425] loss1/drop_fc <- loss1/fc
I0403 14:59:44.989338 11479 net.cpp:386] loss1/drop_fc -> loss1/fc (in-place)
I0403 14:59:44.989404 11479 net.cpp:141] Setting up loss1/drop_fc
I0403 14:59:44.989433 11479 net.cpp:148] Top shape: 24 1024 (24576)
I0403 14:59:44.989447 11479 net.cpp:156] Memory required for data: 946189344
I0403 14:59:44.989462 11479 layer_factory.hpp:77] Creating layer loss1/classifier_plantvillage
I0403 14:59:44.989480 11479 net.cpp:91] Creating Layer loss1/classifier_plantvillage
I0403 14:59:44.989496 11479 net.cpp:425] loss1/classifier_plantvillage <- loss1/fc
I0403 14:59:44.989518 11479 net.cpp:399] loss1/classifier_plantvillage -> loss1/classifier_plantvillage
I0403 14:59:44.990466 11479 net.cpp:141] Setting up loss1/classifier_plantvillage
I0403 14:59:44.990499 11479 net.cpp:148] Top shape: 24 38 (912)
I0403 14:59:44.990514 11479 net.cpp:156] Memory required for data: 946192992
I0403 14:59:44.990531 11479 layer_factory.hpp:77] Creating layer loss1/classifier_plantvillage_loss1/classifier_plantvillage_0_split
I0403 14:59:44.990548 11479 net.cpp:91] Creating Layer loss1/classifier_plantvillage_loss1/classifier_plantvillage_0_split
I0403 14:59:44.990563 11479 net.cpp:425] loss1/classifier_plantvillage_loss1/classifier_plantvillage_0_split <- loss1/classifier_plantvillage
I0403 14:59:44.990581 11479 net.cpp:399] loss1/classifier_plantvillage_loss1/classifier_plantvillage_0_split -> loss1/classifier_plantvillage_loss1/classifier_plantvillage_0_split_0
I0403 14:59:44.990599 11479 net.cpp:399] loss1/classifier_plantvillage_loss1/classifier_plantvillage_0_split -> loss1/classifier_plantvillage_loss1/classifier_plantvillage_0_split_1
I0403 14:59:44.990619 11479 net.cpp:399] loss1/classifier_plantvillage_loss1/classifier_plantvillage_0_split -> loss1/classifier_plantvillage_loss1/classifier_plantvillage_0_split_2
I0403 14:59:44.990696 11479 net.cpp:141] Setting up loss1/classifier_plantvillage_loss1/classifier_plantvillage_0_split
I0403 14:59:44.990718 11479 net.cpp:148] Top shape: 24 38 (912)
I0403 14:59:44.990741 11479 net.cpp:148] Top shape: 24 38 (912)
I0403 14:59:44.990756 11479 net.cpp:148] Top shape: 24 38 (912)
I0403 14:59:44.990768 11479 net.cpp:156] Memory required for data: 946203936
I0403 14:59:44.990782 11479 layer_factory.hpp:77] Creating layer inception_4b/1x1
I0403 14:59:44.990800 11479 net.cpp:91] Creating Layer inception_4b/1x1
I0403 14:59:44.990833 11479 net.cpp:425] inception_4b/1x1 <- inception_4a/output_inception_4a/output_0_split_1
I0403 14:59:44.990855 11479 net.cpp:399] inception_4b/1x1 -> inception_4b/1x1
I0403 14:59:44.992509 11479 net.cpp:141] Setting up inception_4b/1x1
I0403 14:59:44.992539 11479 net.cpp:148] Top shape: 24 160 14 14 (752640)
I0403 14:59:44.992554 11479 net.cpp:156] Memory required for data: 949214496
I0403 14:59:44.992571 11479 layer_factory.hpp:77] Creating layer inception_4b/relu_1x1
I0403 14:59:44.992588 11479 net.cpp:91] Creating Layer inception_4b/relu_1x1
I0403 14:59:44.992604 11479 net.cpp:425] inception_4b/relu_1x1 <- inception_4b/1x1
I0403 14:59:44.992620 11479 net.cpp:386] inception_4b/relu_1x1 -> inception_4b/1x1 (in-place)
I0403 14:59:44.992795 11479 net.cpp:141] Setting up inception_4b/relu_1x1
I0403 14:59:44.992818 11479 net.cpp:148] Top shape: 24 160 14 14 (752640)
I0403 14:59:44.992832 11479 net.cpp:156] Memory required for data: 952225056
I0403 14:59:44.992846 11479 layer_factory.hpp:77] Creating layer inception_4b/3x3_reduce
I0403 14:59:44.992867 11479 net.cpp:91] Creating Layer inception_4b/3x3_reduce
I0403 14:59:44.992884 11479 net.cpp:425] inception_4b/3x3_reduce <- inception_4a/output_inception_4a/output_0_split_2
I0403 14:59:44.992904 11479 net.cpp:399] inception_4b/3x3_reduce -> inception_4b/3x3_reduce
I0403 14:59:44.994243 11479 net.cpp:141] Setting up inception_4b/3x3_reduce
I0403 14:59:44.994272 11479 net.cpp:148] Top shape: 24 112 14 14 (526848)
I0403 14:59:44.994288 11479 net.cpp:156] Memory required for data: 954332448
I0403 14:59:44.994307 11479 layer_factory.hpp:77] Creating layer inception_4b/relu_3x3_reduce
I0403 14:59:44.994323 11479 net.cpp:91] Creating Layer inception_4b/relu_3x3_reduce
I0403 14:59:44.994338 11479 net.cpp:425] inception_4b/relu_3x3_reduce <- inception_4b/3x3_reduce
I0403 14:59:44.994359 11479 net.cpp:386] inception_4b/relu_3x3_reduce -> inception_4b/3x3_reduce (in-place)
I0403 14:59:44.994637 11479 net.cpp:141] Setting up inception_4b/relu_3x3_reduce
I0403 14:59:44.994670 11479 net.cpp:148] Top shape: 24 112 14 14 (526848)
I0403 14:59:44.994685 11479 net.cpp:156] Memory required for data: 956439840
I0403 14:59:44.994699 11479 layer_factory.hpp:77] Creating layer inception_4b/3x3
I0403 14:59:44.994720 11479 net.cpp:91] Creating Layer inception_4b/3x3
I0403 14:59:44.994737 11479 net.cpp:425] inception_4b/3x3 <- inception_4b/3x3_reduce
I0403 14:59:44.994760 11479 net.cpp:399] inception_4b/3x3 -> inception_4b/3x3
I0403 14:59:44.997721 11479 net.cpp:141] Setting up inception_4b/3x3
I0403 14:59:44.997750 11479 net.cpp:148] Top shape: 24 224 14 14 (1053696)
I0403 14:59:44.997766 11479 net.cpp:156] Memory required for data: 960654624
I0403 14:59:44.997782 11479 layer_factory.hpp:77] Creating layer inception_4b/relu_3x3
I0403 14:59:44.997802 11479 net.cpp:91] Creating Layer inception_4b/relu_3x3
I0403 14:59:44.997819 11479 net.cpp:425] inception_4b/relu_3x3 <- inception_4b/3x3
I0403 14:59:44.997836 11479 net.cpp:386] inception_4b/relu_3x3 -> inception_4b/3x3 (in-place)
I0403 14:59:44.998015 11479 net.cpp:141] Setting up inception_4b/relu_3x3
I0403 14:59:44.998044 11479 net.cpp:148] Top shape: 24 224 14 14 (1053696)
I0403 14:59:44.998059 11479 net.cpp:156] Memory required for data: 964869408
I0403 14:59:44.998073 11479 layer_factory.hpp:77] Creating layer inception_4b/5x5_reduce
I0403 14:59:44.998095 11479 net.cpp:91] Creating Layer inception_4b/5x5_reduce
I0403 14:59:44.998111 11479 net.cpp:425] inception_4b/5x5_reduce <- inception_4a/output_inception_4a/output_0_split_3
I0403 14:59:44.998131 11479 net.cpp:399] inception_4b/5x5_reduce -> inception_4b/5x5_reduce
I0403 14:59:44.999241 11479 net.cpp:141] Setting up inception_4b/5x5_reduce
I0403 14:59:44.999270 11479 net.cpp:148] Top shape: 24 24 14 14 (112896)
I0403 14:59:44.999287 11479 net.cpp:156] Memory required for data: 965320992
I0403 14:59:44.999305 11479 layer_factory.hpp:77] Creating layer inception_4b/relu_5x5_reduce
I0403 14:59:44.999323 11479 net.cpp:91] Creating Layer inception_4b/relu_5x5_reduce
I0403 14:59:44.999354 11479 net.cpp:425] inception_4b/relu_5x5_reduce <- inception_4b/5x5_reduce
I0403 14:59:44.999375 11479 net.cpp:386] inception_4b/relu_5x5_reduce -> inception_4b/5x5_reduce (in-place)
I0403 14:59:44.999562 11479 net.cpp:141] Setting up inception_4b/relu_5x5_reduce
I0403 14:59:44.999588 11479 net.cpp:148] Top shape: 24 24 14 14 (112896)
I0403 14:59:44.999603 11479 net.cpp:156] Memory required for data: 965772576
I0403 14:59:44.999619 11479 layer_factory.hpp:77] Creating layer inception_4b/5x5
I0403 14:59:44.999640 11479 net.cpp:91] Creating Layer inception_4b/5x5
I0403 14:59:44.999657 11479 net.cpp:425] inception_4b/5x5 <- inception_4b/5x5_reduce
I0403 14:59:44.999678 11479 net.cpp:399] inception_4b/5x5 -> inception_4b/5x5
I0403 14:59:45.000895 11479 net.cpp:141] Setting up inception_4b/5x5
I0403 14:59:45.000926 11479 net.cpp:148] Top shape: 24 64 14 14 (301056)
I0403 14:59:45.000941 11479 net.cpp:156] Memory required for data: 966976800
I0403 14:59:45.000959 11479 layer_factory.hpp:77] Creating layer inception_4b/relu_5x5
I0403 14:59:45.000977 11479 net.cpp:91] Creating Layer inception_4b/relu_5x5
I0403 14:59:45.000991 11479 net.cpp:425] inception_4b/relu_5x5 <- inception_4b/5x5
I0403 14:59:45.001008 11479 net.cpp:386] inception_4b/relu_5x5 -> inception_4b/5x5 (in-place)
I0403 14:59:45.001288 11479 net.cpp:141] Setting up inception_4b/relu_5x5
I0403 14:59:45.001317 11479 net.cpp:148] Top shape: 24 64 14 14 (301056)
I0403 14:59:45.001332 11479 net.cpp:156] Memory required for data: 968181024
I0403 14:59:45.001346 11479 layer_factory.hpp:77] Creating layer inception_4b/pool
I0403 14:59:45.001364 11479 net.cpp:91] Creating Layer inception_4b/pool
I0403 14:59:45.001379 11479 net.cpp:425] inception_4b/pool <- inception_4a/output_inception_4a/output_0_split_4
I0403 14:59:45.001396 11479 net.cpp:399] inception_4b/pool -> inception_4b/pool
I0403 14:59:45.001466 11479 net.cpp:141] Setting up inception_4b/pool
I0403 14:59:45.001489 11479 net.cpp:148] Top shape: 24 512 14 14 (2408448)
I0403 14:59:45.001503 11479 net.cpp:156] Memory required for data: 977814816
I0403 14:59:45.001518 11479 layer_factory.hpp:77] Creating layer inception_4b/pool_proj
I0403 14:59:45.001541 11479 net.cpp:91] Creating Layer inception_4b/pool_proj
I0403 14:59:45.001559 11479 net.cpp:425] inception_4b/pool_proj <- inception_4b/pool
I0403 14:59:45.001579 11479 net.cpp:399] inception_4b/pool_proj -> inception_4b/pool_proj
I0403 14:59:45.002769 11479 net.cpp:141] Setting up inception_4b/pool_proj
I0403 14:59:45.002799 11479 net.cpp:148] Top shape: 24 64 14 14 (301056)
I0403 14:59:45.002815 11479 net.cpp:156] Memory required for data: 979019040
I0403 14:59:45.002832 11479 layer_factory.hpp:77] Creating layer inception_4b/relu_pool_proj
I0403 14:59:45.002851 11479 net.cpp:91] Creating Layer inception_4b/relu_pool_proj
I0403 14:59:45.002866 11479 net.cpp:425] inception_4b/relu_pool_proj <- inception_4b/pool_proj
I0403 14:59:45.002884 11479 net.cpp:386] inception_4b/relu_pool_proj -> inception_4b/pool_proj (in-place)
I0403 14:59:45.003067 11479 net.cpp:141] Setting up inception_4b/relu_pool_proj
I0403 14:59:45.003092 11479 net.cpp:148] Top shape: 24 64 14 14 (301056)
I0403 14:59:45.003104 11479 net.cpp:156] Memory required for data: 980223264
I0403 14:59:45.003118 11479 layer_factory.hpp:77] Creating layer inception_4b/output
I0403 14:59:45.003135 11479 net.cpp:91] Creating Layer inception_4b/output
I0403 14:59:45.003149 11479 net.cpp:425] inception_4b/output <- inception_4b/1x1
I0403 14:59:45.003165 11479 net.cpp:425] inception_4b/output <- inception_4b/3x3
I0403 14:59:45.003180 11479 net.cpp:425] inception_4b/output <- inception_4b/5x5
I0403 14:59:45.003196 11479 net.cpp:425] inception_4b/output <- inception_4b/pool_proj
I0403 14:59:45.003214 11479 net.cpp:399] inception_4b/output -> inception_4b/output
I0403 14:59:45.003259 11479 net.cpp:141] Setting up inception_4b/output
I0403 14:59:45.003284 11479 net.cpp:148] Top shape: 24 512 14 14 (2408448)
I0403 14:59:45.003299 11479 net.cpp:156] Memory required for data: 989857056
I0403 14:59:45.003340 11479 layer_factory.hpp:77] Creating layer inception_4b/output_inception_4b/output_0_split
I0403 14:59:45.003357 11479 net.cpp:91] Creating Layer inception_4b/output_inception_4b/output_0_split
I0403 14:59:45.003373 11479 net.cpp:425] inception_4b/output_inception_4b/output_0_split <- inception_4b/output
I0403 14:59:45.003393 11479 net.cpp:399] inception_4b/output_inception_4b/output_0_split -> inception_4b/output_inception_4b/output_0_split_0
I0403 14:59:45.003425 11479 net.cpp:399] inception_4b/output_inception_4b/output_0_split -> inception_4b/output_inception_4b/output_0_split_1
I0403 14:59:45.003448 11479 net.cpp:399] inception_4b/output_inception_4b/output_0_split -> inception_4b/output_inception_4b/output_0_split_2
I0403 14:59:45.003468 11479 net.cpp:399] inception_4b/output_inception_4b/output_0_split -> inception_4b/output_inception_4b/output_0_split_3
I0403 14:59:45.003551 11479 net.cpp:141] Setting up inception_4b/output_inception_4b/output_0_split
I0403 14:59:45.003576 11479 net.cpp:148] Top shape: 24 512 14 14 (2408448)
I0403 14:59:45.003597 11479 net.cpp:148] Top shape: 24 512 14 14 (2408448)
I0403 14:59:45.003623 11479 net.cpp:148] Top shape: 24 512 14 14 (2408448)
I0403 14:59:45.003638 11479 net.cpp:148] Top shape: 24 512 14 14 (2408448)
I0403 14:59:45.003651 11479 net.cpp:156] Memory required for data: 1028392224
I0403 14:59:45.003665 11479 layer_factory.hpp:77] Creating layer inception_4c/1x1
I0403 14:59:45.003684 11479 net.cpp:91] Creating Layer inception_4c/1x1
I0403 14:59:45.003700 11479 net.cpp:425] inception_4c/1x1 <- inception_4b/output_inception_4b/output_0_split_0
I0403 14:59:45.003720 11479 net.cpp:399] inception_4c/1x1 -> inception_4c/1x1
I0403 14:59:45.005151 11479 net.cpp:141] Setting up inception_4c/1x1
I0403 14:59:45.005179 11479 net.cpp:148] Top shape: 24 128 14 14 (602112)
I0403 14:59:45.005194 11479 net.cpp:156] Memory required for data: 1030800672
I0403 14:59:45.005213 11479 layer_factory.hpp:77] Creating layer inception_4c/relu_1x1
I0403 14:59:45.005235 11479 net.cpp:91] Creating Layer inception_4c/relu_1x1
I0403 14:59:45.005252 11479 net.cpp:425] inception_4c/relu_1x1 <- inception_4c/1x1
I0403 14:59:45.005269 11479 net.cpp:386] inception_4c/relu_1x1 -> inception_4c/1x1 (in-place)
I0403 14:59:45.005450 11479 net.cpp:141] Setting up inception_4c/relu_1x1
I0403 14:59:45.005475 11479 net.cpp:148] Top shape: 24 128 14 14 (602112)
I0403 14:59:45.005488 11479 net.cpp:156] Memory required for data: 1033209120
I0403 14:59:45.005502 11479 layer_factory.hpp:77] Creating layer inception_4c/3x3_reduce
I0403 14:59:45.005527 11479 net.cpp:91] Creating Layer inception_4c/3x3_reduce
I0403 14:59:45.005542 11479 net.cpp:425] inception_4c/3x3_reduce <- inception_4b/output_inception_4b/output_0_split_1
I0403 14:59:45.005560 11479 net.cpp:399] inception_4c/3x3_reduce -> inception_4c/3x3_reduce
I0403 14:59:45.007494 11479 net.cpp:141] Setting up inception_4c/3x3_reduce
I0403 14:59:45.007524 11479 net.cpp:148] Top shape: 24 128 14 14 (602112)
I0403 14:59:45.007539 11479 net.cpp:156] Memory required for data: 1035617568
I0403 14:59:45.007556 11479 layer_factory.hpp:77] Creating layer inception_4c/relu_3x3_reduce
I0403 14:59:45.007575 11479 net.cpp:91] Creating Layer inception_4c/relu_3x3_reduce
I0403 14:59:45.007592 11479 net.cpp:425] inception_4c/relu_3x3_reduce <- inception_4c/3x3_reduce
I0403 14:59:45.007611 11479 net.cpp:386] inception_4c/relu_3x3_reduce -> inception_4c/3x3_reduce (in-place)
I0403 14:59:45.007897 11479 net.cpp:141] Setting up inception_4c/relu_3x3_reduce
I0403 14:59:45.007923 11479 net.cpp:148] Top shape: 24 128 14 14 (602112)
I0403 14:59:45.007938 11479 net.cpp:156] Memory required for data: 1038026016
I0403 14:59:45.007952 11479 layer_factory.hpp:77] Creating layer inception_4c/3x3
I0403 14:59:45.007979 11479 net.cpp:91] Creating Layer inception_4c/3x3
I0403 14:59:45.007997 11479 net.cpp:425] inception_4c/3x3 <- inception_4c/3x3_reduce
I0403 14:59:45.008015 11479 net.cpp:399] inception_4c/3x3 -> inception_4c/3x3
I0403 14:59:45.011679 11479 net.cpp:141] Setting up inception_4c/3x3
I0403 14:59:45.011723 11479 net.cpp:148] Top shape: 24 256 14 14 (1204224)
I0403 14:59:45.011740 11479 net.cpp:156] Memory required for data: 1042842912
I0403 14:59:45.011773 11479 layer_factory.hpp:77] Creating layer inception_4c/relu_3x3
I0403 14:59:45.011793 11479 net.cpp:91] Creating Layer inception_4c/relu_3x3
I0403 14:59:45.011809 11479 net.cpp:425] inception_4c/relu_3x3 <- inception_4c/3x3
I0403 14:59:45.011826 11479 net.cpp:386] inception_4c/relu_3x3 -> inception_4c/3x3 (in-place)
I0403 14:59:45.012007 11479 net.cpp:141] Setting up inception_4c/relu_3x3
I0403 14:59:45.012033 11479 net.cpp:148] Top shape: 24 256 14 14 (1204224)
I0403 14:59:45.012048 11479 net.cpp:156] Memory required for data: 1047659808
I0403 14:59:45.012063 11479 layer_factory.hpp:77] Creating layer inception_4c/5x5_reduce
I0403 14:59:45.012085 11479 net.cpp:91] Creating Layer inception_4c/5x5_reduce
I0403 14:59:45.012101 11479 net.cpp:425] inception_4c/5x5_reduce <- inception_4b/output_inception_4b/output_0_split_2
I0403 14:59:45.012120 11479 net.cpp:399] inception_4c/5x5_reduce -> inception_4c/5x5_reduce
I0403 14:59:45.013211 11479 net.cpp:141] Setting up inception_4c/5x5_reduce
I0403 14:59:45.013242 11479 net.cpp:148] Top shape: 24 24 14 14 (112896)
I0403 14:59:45.013258 11479 net.cpp:156] Memory required for data: 1048111392
I0403 14:59:45.013275 11479 layer_factory.hpp:77] Creating layer inception_4c/relu_5x5_reduce
I0403 14:59:45.013293 11479 net.cpp:91] Creating Layer inception_4c/relu_5x5_reduce
I0403 14:59:45.013310 11479 net.cpp:425] inception_4c/relu_5x5_reduce <- inception_4c/5x5_reduce
I0403 14:59:45.013332 11479 net.cpp:386] inception_4c/relu_5x5_reduce -> inception_4c/5x5_reduce (in-place)
I0403 14:59:45.013530 11479 net.cpp:141] Setting up inception_4c/relu_5x5_reduce
I0403 14:59:45.013553 11479 net.cpp:148] Top shape: 24 24 14 14 (112896)
I0403 14:59:45.013568 11479 net.cpp:156] Memory required for data: 1048562976
I0403 14:59:45.013582 11479 layer_factory.hpp:77] Creating layer inception_4c/5x5
I0403 14:59:45.013603 11479 net.cpp:91] Creating Layer inception_4c/5x5
I0403 14:59:45.013620 11479 net.cpp:425] inception_4c/5x5 <- inception_4c/5x5_reduce
I0403 14:59:45.013641 11479 net.cpp:399] inception_4c/5x5 -> inception_4c/5x5
I0403 14:59:45.014925 11479 net.cpp:141] Setting up inception_4c/5x5
I0403 14:59:45.014953 11479 net.cpp:148] Top shape: 24 64 14 14 (301056)
I0403 14:59:45.014968 11479 net.cpp:156] Memory required for data: 1049767200
I0403 14:59:45.014986 11479 layer_factory.hpp:77] Creating layer inception_4c/relu_5x5
I0403 14:59:45.015005 11479 net.cpp:91] Creating Layer inception_4c/relu_5x5
I0403 14:59:45.015022 11479 net.cpp:425] inception_4c/relu_5x5 <- inception_4c/5x5
I0403 14:59:45.015038 11479 net.cpp:386] inception_4c/relu_5x5 -> inception_4c/5x5 (in-place)
I0403 14:59:45.015331 11479 net.cpp:141] Setting up inception_4c/relu_5x5
I0403 14:59:45.015357 11479 net.cpp:148] Top shape: 24 64 14 14 (301056)
I0403 14:59:45.015372 11479 net.cpp:156] Memory required for data: 1050971424
I0403 14:59:45.015386 11479 layer_factory.hpp:77] Creating layer inception_4c/pool
I0403 14:59:45.015403 11479 net.cpp:91] Creating Layer inception_4c/pool
I0403 14:59:45.015424 11479 net.cpp:425] inception_4c/pool <- inception_4b/output_inception_4b/output_0_split_3
I0403 14:59:45.015446 11479 net.cpp:399] inception_4c/pool -> inception_4c/pool
I0403 14:59:45.015511 11479 net.cpp:141] Setting up inception_4c/pool
I0403 14:59:45.015534 11479 net.cpp:148] Top shape: 24 512 14 14 (2408448)
I0403 14:59:45.015548 11479 net.cpp:156] Memory required for data: 1060605216
I0403 14:59:45.015563 11479 layer_factory.hpp:77] Creating layer inception_4c/pool_proj
I0403 14:59:45.015584 11479 net.cpp:91] Creating Layer inception_4c/pool_proj
I0403 14:59:45.015601 11479 net.cpp:425] inception_4c/pool_proj <- inception_4c/pool
I0403 14:59:45.015621 11479 net.cpp:399] inception_4c/pool_proj -> inception_4c/pool_proj
I0403 14:59:45.016827 11479 net.cpp:141] Setting up inception_4c/pool_proj
I0403 14:59:45.016860 11479 net.cpp:148] Top shape: 24 64 14 14 (301056)
I0403 14:59:45.016890 11479 net.cpp:156] Memory required for data: 1061809440
I0403 14:59:45.016908 11479 layer_factory.hpp:77] Creating layer inception_4c/relu_pool_proj
I0403 14:59:45.016927 11479 net.cpp:91] Creating Layer inception_4c/relu_pool_proj
I0403 14:59:45.016942 11479 net.cpp:425] inception_4c/relu_pool_proj <- inception_4c/pool_proj
I0403 14:59:45.016959 11479 net.cpp:386] inception_4c/relu_pool_proj -> inception_4c/pool_proj (in-place)
I0403 14:59:45.017145 11479 net.cpp:141] Setting up inception_4c/relu_pool_proj
I0403 14:59:45.017170 11479 net.cpp:148] Top shape: 24 64 14 14 (301056)
I0403 14:59:45.017184 11479 net.cpp:156] Memory required for data: 1063013664
I0403 14:59:45.017199 11479 layer_factory.hpp:77] Creating layer inception_4c/output
I0403 14:59:45.017215 11479 net.cpp:91] Creating Layer inception_4c/output
I0403 14:59:45.017230 11479 net.cpp:425] inception_4c/output <- inception_4c/1x1
I0403 14:59:45.017246 11479 net.cpp:425] inception_4c/output <- inception_4c/3x3
I0403 14:59:45.017261 11479 net.cpp:425] inception_4c/output <- inception_4c/5x5
I0403 14:59:45.017277 11479 net.cpp:425] inception_4c/output <- inception_4c/pool_proj
I0403 14:59:45.017295 11479 net.cpp:399] inception_4c/output -> inception_4c/output
I0403 14:59:45.017341 11479 net.cpp:141] Setting up inception_4c/output
I0403 14:59:45.017367 11479 net.cpp:148] Top shape: 24 512 14 14 (2408448)
I0403 14:59:45.017384 11479 net.cpp:156] Memory required for data: 1072647456
I0403 14:59:45.017397 11479 layer_factory.hpp:77] Creating layer inception_4c/output_inception_4c/output_0_split
I0403 14:59:45.017418 11479 net.cpp:91] Creating Layer inception_4c/output_inception_4c/output_0_split
I0403 14:59:45.017434 11479 net.cpp:425] inception_4c/output_inception_4c/output_0_split <- inception_4c/output
I0403 14:59:45.017453 11479 net.cpp:399] inception_4c/output_inception_4c/output_0_split -> inception_4c/output_inception_4c/output_0_split_0
I0403 14:59:45.017475 11479 net.cpp:399] inception_4c/output_inception_4c/output_0_split -> inception_4c/output_inception_4c/output_0_split_1
I0403 14:59:45.017495 11479 net.cpp:399] inception_4c/output_inception_4c/output_0_split -> inception_4c/output_inception_4c/output_0_split_2
I0403 14:59:45.017514 11479 net.cpp:399] inception_4c/output_inception_4c/output_0_split -> inception_4c/output_inception_4c/output_0_split_3
I0403 14:59:45.017596 11479 net.cpp:141] Setting up inception_4c/output_inception_4c/output_0_split
I0403 14:59:45.017619 11479 net.cpp:148] Top shape: 24 512 14 14 (2408448)
I0403 14:59:45.017634 11479 net.cpp:148] Top shape: 24 512 14 14 (2408448)
I0403 14:59:45.017649 11479 net.cpp:148] Top shape: 24 512 14 14 (2408448)
I0403 14:59:45.017664 11479 net.cpp:148] Top shape: 24 512 14 14 (2408448)
I0403 14:59:45.017678 11479 net.cpp:156] Memory required for data: 1111182624
I0403 14:59:45.017693 11479 layer_factory.hpp:77] Creating layer inception_4d/1x1
I0403 14:59:45.017714 11479 net.cpp:91] Creating Layer inception_4d/1x1
I0403 14:59:45.017730 11479 net.cpp:425] inception_4d/1x1 <- inception_4c/output_inception_4c/output_0_split_0
I0403 14:59:45.017750 11479 net.cpp:399] inception_4d/1x1 -> inception_4d/1x1
I0403 14:59:45.019124 11479 net.cpp:141] Setting up inception_4d/1x1
I0403 14:59:45.019151 11479 net.cpp:148] Top shape: 24 112 14 14 (526848)
I0403 14:59:45.019166 11479 net.cpp:156] Memory required for data: 1113290016
I0403 14:59:45.019183 11479 layer_factory.hpp:77] Creating layer inception_4d/relu_1x1
I0403 14:59:45.019203 11479 net.cpp:91] Creating Layer inception_4d/relu_1x1
I0403 14:59:45.019219 11479 net.cpp:425] inception_4d/relu_1x1 <- inception_4d/1x1
I0403 14:59:45.019237 11479 net.cpp:386] inception_4d/relu_1x1 -> inception_4d/1x1 (in-place)
I0403 14:59:45.019438 11479 net.cpp:141] Setting up inception_4d/relu_1x1
I0403 14:59:45.019465 11479 net.cpp:148] Top shape: 24 112 14 14 (526848)
I0403 14:59:45.019481 11479 net.cpp:156] Memory required for data: 1115397408
I0403 14:59:45.019496 11479 layer_factory.hpp:77] Creating layer inception_4d/3x3_reduce
I0403 14:59:45.019532 11479 net.cpp:91] Creating Layer inception_4d/3x3_reduce
I0403 14:59:45.019551 11479 net.cpp:425] inception_4d/3x3_reduce <- inception_4c/output_inception_4c/output_0_split_1
I0403 14:59:45.019570 11479 net.cpp:399] inception_4d/3x3_reduce -> inception_4d/3x3_reduce
I0403 14:59:45.021086 11479 net.cpp:141] Setting up inception_4d/3x3_reduce
I0403 14:59:45.021113 11479 net.cpp:148] Top shape: 24 144 14 14 (677376)
I0403 14:59:45.021128 11479 net.cpp:156] Memory required for data: 1118106912
I0403 14:59:45.021145 11479 layer_factory.hpp:77] Creating layer inception_4d/relu_3x3_reduce
I0403 14:59:45.021167 11479 net.cpp:91] Creating Layer inception_4d/relu_3x3_reduce
I0403 14:59:45.021185 11479 net.cpp:425] inception_4d/relu_3x3_reduce <- inception_4d/3x3_reduce
I0403 14:59:45.021203 11479 net.cpp:386] inception_4d/relu_3x3_reduce -> inception_4d/3x3_reduce (in-place)
I0403 14:59:45.021517 11479 net.cpp:141] Setting up inception_4d/relu_3x3_reduce
I0403 14:59:45.021544 11479 net.cpp:148] Top shape: 24 144 14 14 (677376)
I0403 14:59:45.021559 11479 net.cpp:156] Memory required for data: 1120816416
I0403 14:59:45.021574 11479 layer_factory.hpp:77] Creating layer inception_4d/3x3
I0403 14:59:45.021597 11479 net.cpp:91] Creating Layer inception_4d/3x3
I0403 14:59:45.021615 11479 net.cpp:425] inception_4d/3x3 <- inception_4d/3x3_reduce
I0403 14:59:45.021636 11479 net.cpp:399] inception_4d/3x3 -> inception_4d/3x3
I0403 14:59:45.026065 11479 net.cpp:141] Setting up inception_4d/3x3
I0403 14:59:45.026095 11479 net.cpp:148] Top shape: 24 288 14 14 (1354752)
I0403 14:59:45.026111 11479 net.cpp:156] Memory required for data: 1126235424
I0403 14:59:45.026129 11479 layer_factory.hpp:77] Creating layer inception_4d/relu_3x3
I0403 14:59:45.026150 11479 net.cpp:91] Creating Layer inception_4d/relu_3x3
I0403 14:59:45.026167 11479 net.cpp:425] inception_4d/relu_3x3 <- inception_4d/3x3
I0403 14:59:45.026185 11479 net.cpp:386] inception_4d/relu_3x3 -> inception_4d/3x3 (in-place)
I0403 14:59:45.026388 11479 net.cpp:141] Setting up inception_4d/relu_3x3
I0403 14:59:45.026418 11479 net.cpp:148] Top shape: 24 288 14 14 (1354752)
I0403 14:59:45.026434 11479 net.cpp:156] Memory required for data: 1131654432
I0403 14:59:45.026450 11479 layer_factory.hpp:77] Creating layer inception_4d/5x5_reduce
I0403 14:59:45.026473 11479 net.cpp:91] Creating Layer inception_4d/5x5_reduce
I0403 14:59:45.026490 11479 net.cpp:425] inception_4d/5x5_reduce <- inception_4c/output_inception_4c/output_0_split_2
I0403 14:59:45.026512 11479 net.cpp:399] inception_4d/5x5_reduce -> inception_4d/5x5_reduce
I0403 14:59:45.027722 11479 net.cpp:141] Setting up inception_4d/5x5_reduce
I0403 14:59:45.027750 11479 net.cpp:148] Top shape: 24 32 14 14 (150528)
I0403 14:59:45.027765 11479 net.cpp:156] Memory required for data: 1132256544
I0403 14:59:45.027783 11479 layer_factory.hpp:77] Creating layer inception_4d/relu_5x5_reduce
I0403 14:59:45.027804 11479 net.cpp:91] Creating Layer inception_4d/relu_5x5_reduce
I0403 14:59:45.027820 11479 net.cpp:425] inception_4d/relu_5x5_reduce <- inception_4d/5x5_reduce
I0403 14:59:45.027837 11479 net.cpp:386] inception_4d/relu_5x5_reduce -> inception_4d/5x5_reduce (in-place)
I0403 14:59:45.028033 11479 net.cpp:141] Setting up inception_4d/relu_5x5_reduce
I0403 14:59:45.028060 11479 net.cpp:148] Top shape: 24 32 14 14 (150528)
I0403 14:59:45.028076 11479 net.cpp:156] Memory required for data: 1132858656
I0403 14:59:45.028091 11479 layer_factory.hpp:77] Creating layer inception_4d/5x5
I0403 14:59:45.028115 11479 net.cpp:91] Creating Layer inception_4d/5x5
I0403 14:59:45.028134 11479 net.cpp:425] inception_4d/5x5 <- inception_4d/5x5_reduce
I0403 14:59:45.028153 11479 net.cpp:399] inception_4d/5x5 -> inception_4d/5x5
I0403 14:59:45.029728 11479 net.cpp:141] Setting up inception_4d/5x5
I0403 14:59:45.029759 11479 net.cpp:148] Top shape: 24 64 14 14 (301056)
I0403 14:59:45.029775 11479 net.cpp:156] Memory required for data: 1134062880
I0403 14:59:45.029794 11479 layer_factory.hpp:77] Creating layer inception_4d/relu_5x5
I0403 14:59:45.029829 11479 net.cpp:91] Creating Layer inception_4d/relu_5x5
I0403 14:59:45.029845 11479 net.cpp:425] inception_4d/relu_5x5 <- inception_4d/5x5
I0403 14:59:45.029865 11479 net.cpp:386] inception_4d/relu_5x5 -> inception_4d/5x5 (in-place)
I0403 14:59:45.030181 11479 net.cpp:141] Setting up inception_4d/relu_5x5
I0403 14:59:45.030210 11479 net.cpp:148] Top shape: 24 64 14 14 (301056)
I0403 14:59:45.030226 11479 net.cpp:156] Memory required for data: 1135267104
I0403 14:59:45.030241 11479 layer_factory.hpp:77] Creating layer inception_4d/pool
I0403 14:59:45.030258 11479 net.cpp:91] Creating Layer inception_4d/pool
I0403 14:59:45.030274 11479 net.cpp:425] inception_4d/pool <- inception_4c/output_inception_4c/output_0_split_3
I0403 14:59:45.030295 11479 net.cpp:399] inception_4d/pool -> inception_4d/pool
I0403 14:59:45.030364 11479 net.cpp:141] Setting up inception_4d/pool
I0403 14:59:45.030390 11479 net.cpp:148] Top shape: 24 512 14 14 (2408448)
I0403 14:59:45.030405 11479 net.cpp:156] Memory required for data: 1144900896
I0403 14:59:45.030426 11479 layer_factory.hpp:77] Creating layer inception_4d/pool_proj
I0403 14:59:45.030448 11479 net.cpp:91] Creating Layer inception_4d/pool_proj
I0403 14:59:45.030467 11479 net.cpp:425] inception_4d/pool_proj <- inception_4d/pool
I0403 14:59:45.030485 11479 net.cpp:399] inception_4d/pool_proj -> inception_4d/pool_proj
I0403 14:59:45.032296 11479 net.cpp:141] Setting up inception_4d/pool_proj
I0403 14:59:45.032325 11479 net.cpp:148] Top shape: 24 64 14 14 (301056)
I0403 14:59:45.032341 11479 net.cpp:156] Memory required for data: 1146105120
I0403 14:59:45.032362 11479 layer_factory.hpp:77] Creating layer inception_4d/relu_pool_proj
I0403 14:59:45.032382 11479 net.cpp:91] Creating Layer inception_4d/relu_pool_proj
I0403 14:59:45.032398 11479 net.cpp:425] inception_4d/relu_pool_proj <- inception_4d/pool_proj
I0403 14:59:45.032428 11479 net.cpp:386] inception_4d/relu_pool_proj -> inception_4d/pool_proj (in-place)
I0403 14:59:45.032625 11479 net.cpp:141] Setting up inception_4d/relu_pool_proj
I0403 14:59:45.032650 11479 net.cpp:148] Top shape: 24 64 14 14 (301056)
I0403 14:59:45.032665 11479 net.cpp:156] Memory required for data: 1147309344
I0403 14:59:45.032680 11479 layer_factory.hpp:77] Creating layer inception_4d/output
I0403 14:59:45.032696 11479 net.cpp:91] Creating Layer inception_4d/output
I0403 14:59:45.032712 11479 net.cpp:425] inception_4d/output <- inception_4d/1x1
I0403 14:59:45.032729 11479 net.cpp:425] inception_4d/output <- inception_4d/3x3
I0403 14:59:45.032745 11479 net.cpp:425] inception_4d/output <- inception_4d/5x5
I0403 14:59:45.032760 11479 net.cpp:425] inception_4d/output <- inception_4d/pool_proj
I0403 14:59:45.032778 11479 net.cpp:399] inception_4d/output -> inception_4d/output
I0403 14:59:45.032827 11479 net.cpp:141] Setting up inception_4d/output
I0403 14:59:45.032850 11479 net.cpp:148] Top shape: 24 528 14 14 (2483712)
I0403 14:59:45.032868 11479 net.cpp:156] Memory required for data: 1157244192
I0403 14:59:45.032883 11479 layer_factory.hpp:77] Creating layer inception_4d/output_inception_4d/output_0_split
I0403 14:59:45.032902 11479 net.cpp:91] Creating Layer inception_4d/output_inception_4d/output_0_split
I0403 14:59:45.032917 11479 net.cpp:425] inception_4d/output_inception_4d/output_0_split <- inception_4d/output
I0403 14:59:45.032933 11479 net.cpp:399] inception_4d/output_inception_4d/output_0_split -> inception_4d/output_inception_4d/output_0_split_0
I0403 14:59:45.032953 11479 net.cpp:399] inception_4d/output_inception_4d/output_0_split -> inception_4d/output_inception_4d/output_0_split_1
I0403 14:59:45.032977 11479 net.cpp:399] inception_4d/output_inception_4d/output_0_split -> inception_4d/output_inception_4d/output_0_split_2
I0403 14:59:45.032999 11479 net.cpp:399] inception_4d/output_inception_4d/output_0_split -> inception_4d/output_inception_4d/output_0_split_3
I0403 14:59:45.033020 11479 net.cpp:399] inception_4d/output_inception_4d/output_0_split -> inception_4d/output_inception_4d/output_0_split_4
I0403 14:59:45.033124 11479 net.cpp:141] Setting up inception_4d/output_inception_4d/output_0_split
I0403 14:59:45.033159 11479 net.cpp:148] Top shape: 24 528 14 14 (2483712)
I0403 14:59:45.033176 11479 net.cpp:148] Top shape: 24 528 14 14 (2483712)
I0403 14:59:45.033192 11479 net.cpp:148] Top shape: 24 528 14 14 (2483712)
I0403 14:59:45.033207 11479 net.cpp:148] Top shape: 24 528 14 14 (2483712)
I0403 14:59:45.033222 11479 net.cpp:148] Top shape: 24 528 14 14 (2483712)
I0403 14:59:45.033236 11479 net.cpp:156] Memory required for data: 1206918432
I0403 14:59:45.033251 11479 layer_factory.hpp:77] Creating layer loss2/ave_pool
I0403 14:59:45.033270 11479 net.cpp:91] Creating Layer loss2/ave_pool
I0403 14:59:45.033288 11479 net.cpp:425] loss2/ave_pool <- inception_4d/output_inception_4d/output_0_split_0
I0403 14:59:45.033306 11479 net.cpp:399] loss2/ave_pool -> loss2/ave_pool
I0403 14:59:45.033666 11479 net.cpp:141] Setting up loss2/ave_pool
I0403 14:59:45.033694 11479 net.cpp:148] Top shape: 24 528 4 4 (202752)
I0403 14:59:45.033709 11479 net.cpp:156] Memory required for data: 1207729440
I0403 14:59:45.033723 11479 layer_factory.hpp:77] Creating layer loss2/conv
I0403 14:59:45.033747 11479 net.cpp:91] Creating Layer loss2/conv
I0403 14:59:45.033766 11479 net.cpp:425] loss2/conv <- loss2/ave_pool
I0403 14:59:45.033785 11479 net.cpp:399] loss2/conv -> loss2/conv
I0403 14:59:45.035786 11479 net.cpp:141] Setting up loss2/conv
I0403 14:59:45.035815 11479 net.cpp:148] Top shape: 24 128 4 4 (49152)
I0403 14:59:45.035830 11479 net.cpp:156] Memory required for data: 1207926048
I0403 14:59:45.035848 11479 layer_factory.hpp:77] Creating layer loss2/relu_conv
I0403 14:59:45.035866 11479 net.cpp:91] Creating Layer loss2/relu_conv
I0403 14:59:45.035882 11479 net.cpp:425] loss2/relu_conv <- loss2/conv
I0403 14:59:45.035902 11479 net.cpp:386] loss2/relu_conv -> loss2/conv (in-place)
I0403 14:59:45.036188 11479 net.cpp:141] Setting up loss2/relu_conv
I0403 14:59:45.036214 11479 net.cpp:148] Top shape: 24 128 4 4 (49152)
I0403 14:59:45.036228 11479 net.cpp:156] Memory required for data: 1208122656
I0403 14:59:45.036243 11479 layer_factory.hpp:77] Creating layer loss2/fc
I0403 14:59:45.036263 11479 net.cpp:91] Creating Layer loss2/fc
I0403 14:59:45.036279 11479 net.cpp:425] loss2/fc <- loss2/conv
I0403 14:59:45.036300 11479 net.cpp:399] loss2/fc -> loss2/fc
I0403 14:59:45.053916 11479 net.cpp:141] Setting up loss2/fc
I0403 14:59:45.053959 11479 net.cpp:148] Top shape: 24 1024 (24576)
I0403 14:59:45.053974 11479 net.cpp:156] Memory required for data: 1208220960
I0403 14:59:45.053992 11479 layer_factory.hpp:77] Creating layer loss2/relu_fc
I0403 14:59:45.054008 11479 net.cpp:91] Creating Layer loss2/relu_fc
I0403 14:59:45.054023 11479 net.cpp:425] loss2/relu_fc <- loss2/fc
I0403 14:59:45.054039 11479 net.cpp:386] loss2/relu_fc -> loss2/fc (in-place)
I0403 14:59:45.054329 11479 net.cpp:141] Setting up loss2/relu_fc
I0403 14:59:45.054359 11479 net.cpp:148] Top shape: 24 1024 (24576)
I0403 14:59:45.054373 11479 net.cpp:156] Memory required for data: 1208319264
I0403 14:59:45.054388 11479 layer_factory.hpp:77] Creating layer loss2/drop_fc
I0403 14:59:45.054405 11479 net.cpp:91] Creating Layer loss2/drop_fc
I0403 14:59:45.054425 11479 net.cpp:425] loss2/drop_fc <- loss2/fc
I0403 14:59:45.054441 11479 net.cpp:386] loss2/drop_fc -> loss2/fc (in-place)
I0403 14:59:45.054491 11479 net.cpp:141] Setting up loss2/drop_fc
I0403 14:59:45.054513 11479 net.cpp:148] Top shape: 24 1024 (24576)
I0403 14:59:45.054527 11479 net.cpp:156] Memory required for data: 1208417568
I0403 14:59:45.054541 11479 layer_factory.hpp:77] Creating layer loss2/classifier_plantvillage
I0403 14:59:45.054561 11479 net.cpp:91] Creating Layer loss2/classifier_plantvillage
I0403 14:59:45.054576 11479 net.cpp:425] loss2/classifier_plantvillage <- loss2/fc
I0403 14:59:45.054594 11479 net.cpp:399] loss2/classifier_plantvillage -> loss2/classifier_plantvillage
I0403 14:59:45.054993 11479 net.cpp:141] Setting up loss2/classifier_plantvillage
I0403 14:59:45.055016 11479 net.cpp:148] Top shape: 24 38 (912)
I0403 14:59:45.055047 11479 net.cpp:156] Memory required for data: 1208421216
I0403 14:59:45.055064 11479 layer_factory.hpp:77] Creating layer loss2/classifier_plantvillage_loss2/classifier_plantvillage_0_split
I0403 14:59:45.055083 11479 net.cpp:91] Creating Layer loss2/classifier_plantvillage_loss2/classifier_plantvillage_0_split
I0403 14:59:45.055097 11479 net.cpp:425] loss2/classifier_plantvillage_loss2/classifier_plantvillage_0_split <- loss2/classifier_plantvillage
I0403 14:59:45.055116 11479 net.cpp:399] loss2/classifier_plantvillage_loss2/classifier_plantvillage_0_split -> loss2/classifier_plantvillage_loss2/classifier_plantvillage_0_split_0
I0403 14:59:45.055136 11479 net.cpp:399] loss2/classifier_plantvillage_loss2/classifier_plantvillage_0_split -> loss2/classifier_plantvillage_loss2/classifier_plantvillage_0_split_1
I0403 14:59:45.055155 11479 net.cpp:399] loss2/classifier_plantvillage_loss2/classifier_plantvillage_0_split -> loss2/classifier_plantvillage_loss2/classifier_plantvillage_0_split_2
I0403 14:59:45.055230 11479 net.cpp:141] Setting up loss2/classifier_plantvillage_loss2/classifier_plantvillage_0_split
I0403 14:59:45.055253 11479 net.cpp:148] Top shape: 24 38 (912)
I0403 14:59:45.055268 11479 net.cpp:148] Top shape: 24 38 (912)
I0403 14:59:45.055282 11479 net.cpp:148] Top shape: 24 38 (912)
I0403 14:59:45.055295 11479 net.cpp:156] Memory required for data: 1208432160
I0403 14:59:45.055310 11479 layer_factory.hpp:77] Creating layer inception_4e/1x1
I0403 14:59:45.055330 11479 net.cpp:91] Creating Layer inception_4e/1x1
I0403 14:59:45.055346 11479 net.cpp:425] inception_4e/1x1 <- inception_4d/output_inception_4d/output_0_split_1
I0403 14:59:45.055364 11479 net.cpp:399] inception_4e/1x1 -> inception_4e/1x1
I0403 14:59:45.057134 11479 net.cpp:141] Setting up inception_4e/1x1
I0403 14:59:45.057162 11479 net.cpp:148] Top shape: 24 256 14 14 (1204224)
I0403 14:59:45.057176 11479 net.cpp:156] Memory required for data: 1213249056
I0403 14:59:45.057193 11479 layer_factory.hpp:77] Creating layer inception_4e/relu_1x1
I0403 14:59:45.057211 11479 net.cpp:91] Creating Layer inception_4e/relu_1x1
I0403 14:59:45.057227 11479 net.cpp:425] inception_4e/relu_1x1 <- inception_4e/1x1
I0403 14:59:45.057243 11479 net.cpp:386] inception_4e/relu_1x1 -> inception_4e/1x1 (in-place)
I0403 14:59:45.057557 11479 net.cpp:141] Setting up inception_4e/relu_1x1
I0403 14:59:45.057582 11479 net.cpp:148] Top shape: 24 256 14 14 (1204224)
I0403 14:59:45.057597 11479 net.cpp:156] Memory required for data: 1218065952
I0403 14:59:45.057611 11479 layer_factory.hpp:77] Creating layer inception_4e/3x3_reduce
I0403 14:59:45.057632 11479 net.cpp:91] Creating Layer inception_4e/3x3_reduce
I0403 14:59:45.057649 11479 net.cpp:425] inception_4e/3x3_reduce <- inception_4d/output_inception_4d/output_0_split_2
I0403 14:59:45.057669 11479 net.cpp:399] inception_4e/3x3_reduce -> inception_4e/3x3_reduce
I0403 14:59:45.059794 11479 net.cpp:141] Setting up inception_4e/3x3_reduce
I0403 14:59:45.059821 11479 net.cpp:148] Top shape: 24 160 14 14 (752640)
I0403 14:59:45.059836 11479 net.cpp:156] Memory required for data: 1221076512
I0403 14:59:45.059854 11479 layer_factory.hpp:77] Creating layer inception_4e/relu_3x3_reduce
I0403 14:59:45.059870 11479 net.cpp:91] Creating Layer inception_4e/relu_3x3_reduce
I0403 14:59:45.059885 11479 net.cpp:425] inception_4e/relu_3x3_reduce <- inception_4e/3x3_reduce
I0403 14:59:45.059906 11479 net.cpp:386] inception_4e/relu_3x3_reduce -> inception_4e/3x3_reduce (in-place)
I0403 14:59:45.060093 11479 net.cpp:141] Setting up inception_4e/relu_3x3_reduce
I0403 14:59:45.060117 11479 net.cpp:148] Top shape: 24 160 14 14 (752640)
I0403 14:59:45.060132 11479 net.cpp:156] Memory required for data: 1224087072
I0403 14:59:45.060144 11479 layer_factory.hpp:77] Creating layer inception_4e/3x3
I0403 14:59:45.060165 11479 net.cpp:91] Creating Layer inception_4e/3x3
I0403 14:59:45.060181 11479 net.cpp:425] inception_4e/3x3 <- inception_4e/3x3_reduce
I0403 14:59:45.060201 11479 net.cpp:399] inception_4e/3x3 -> inception_4e/3x3
I0403 14:59:45.065124 11479 net.cpp:141] Setting up inception_4e/3x3
I0403 14:59:45.065165 11479 net.cpp:148] Top shape: 24 320 14 14 (1505280)
I0403 14:59:45.065181 11479 net.cpp:156] Memory required for data: 1230108192
I0403 14:59:45.065197 11479 layer_factory.hpp:77] Creating layer inception_4e/relu_3x3
I0403 14:59:45.065218 11479 net.cpp:91] Creating Layer inception_4e/relu_3x3
I0403 14:59:45.065235 11479 net.cpp:425] inception_4e/relu_3x3 <- inception_4e/3x3
I0403 14:59:45.065253 11479 net.cpp:386] inception_4e/relu_3x3 -> inception_4e/3x3 (in-place)
I0403 14:59:45.065553 11479 net.cpp:141] Setting up inception_4e/relu_3x3
I0403 14:59:45.065578 11479 net.cpp:148] Top shape: 24 320 14 14 (1505280)
I0403 14:59:45.065593 11479 net.cpp:156] Memory required for data: 1236129312
I0403 14:59:45.065608 11479 layer_factory.hpp:77] Creating layer inception_4e/5x5_reduce
I0403 14:59:45.065629 11479 net.cpp:91] Creating Layer inception_4e/5x5_reduce
I0403 14:59:45.065645 11479 net.cpp:425] inception_4e/5x5_reduce <- inception_4d/output_inception_4d/output_0_split_3
I0403 14:59:45.065666 11479 net.cpp:399] inception_4e/5x5_reduce -> inception_4e/5x5_reduce
I0403 14:59:45.066733 11479 net.cpp:141] Setting up inception_4e/5x5_reduce
I0403 14:59:45.066763 11479 net.cpp:148] Top shape: 24 32 14 14 (150528)
I0403 14:59:45.066778 11479 net.cpp:156] Memory required for data: 1236731424
I0403 14:59:45.066797 11479 layer_factory.hpp:77] Creating layer inception_4e/relu_5x5_reduce
I0403 14:59:45.066813 11479 net.cpp:91] Creating Layer inception_4e/relu_5x5_reduce
I0403 14:59:45.066828 11479 net.cpp:425] inception_4e/relu_5x5_reduce <- inception_4e/5x5_reduce
I0403 14:59:45.066848 11479 net.cpp:386] inception_4e/relu_5x5_reduce -> inception_4e/5x5_reduce (in-place)
I0403 14:59:45.067134 11479 net.cpp:141] Setting up inception_4e/relu_5x5_reduce
I0403 14:59:45.067162 11479 net.cpp:148] Top shape: 24 32 14 14 (150528)
I0403 14:59:45.067176 11479 net.cpp:156] Memory required for data: 1237333536
I0403 14:59:45.067190 11479 layer_factory.hpp:77] Creating layer inception_4e/5x5
I0403 14:59:45.067229 11479 net.cpp:91] Creating Layer inception_4e/5x5
I0403 14:59:45.067246 11479 net.cpp:425] inception_4e/5x5 <- inception_4e/5x5_reduce
I0403 14:59:45.067265 11479 net.cpp:399] inception_4e/5x5 -> inception_4e/5x5
I0403 14:59:45.069156 11479 net.cpp:141] Setting up inception_4e/5x5
I0403 14:59:45.069185 11479 net.cpp:148] Top shape: 24 128 14 14 (602112)
I0403 14:59:45.069200 11479 net.cpp:156] Memory required for data: 1239741984
I0403 14:59:45.069218 11479 layer_factory.hpp:77] Creating layer inception_4e/relu_5x5
I0403 14:59:45.069236 11479 net.cpp:91] Creating Layer inception_4e/relu_5x5
I0403 14:59:45.069250 11479 net.cpp:425] inception_4e/relu_5x5 <- inception_4e/5x5
I0403 14:59:45.069270 11479 net.cpp:386] inception_4e/relu_5x5 -> inception_4e/5x5 (in-place)
I0403 14:59:45.069466 11479 net.cpp:141] Setting up inception_4e/relu_5x5
I0403 14:59:45.069490 11479 net.cpp:148] Top shape: 24 128 14 14 (602112)
I0403 14:59:45.069504 11479 net.cpp:156] Memory required for data: 1242150432
I0403 14:59:45.069519 11479 layer_factory.hpp:77] Creating layer inception_4e/pool
I0403 14:59:45.069535 11479 net.cpp:91] Creating Layer inception_4e/pool
I0403 14:59:45.069550 11479 net.cpp:425] inception_4e/pool <- inception_4d/output_inception_4d/output_0_split_4
I0403 14:59:45.069568 11479 net.cpp:399] inception_4e/pool -> inception_4e/pool
I0403 14:59:45.069635 11479 net.cpp:141] Setting up inception_4e/pool
I0403 14:59:45.069658 11479 net.cpp:148] Top shape: 24 528 14 14 (2483712)
I0403 14:59:45.069672 11479 net.cpp:156] Memory required for data: 1252085280
I0403 14:59:45.069685 11479 layer_factory.hpp:77] Creating layer inception_4e/pool_proj
I0403 14:59:45.069707 11479 net.cpp:91] Creating Layer inception_4e/pool_proj
I0403 14:59:45.069725 11479 net.cpp:425] inception_4e/pool_proj <- inception_4e/pool
I0403 14:59:45.069741 11479 net.cpp:399] inception_4e/pool_proj -> inception_4e/pool_proj
I0403 14:59:45.071190 11479 net.cpp:141] Setting up inception_4e/pool_proj
I0403 14:59:45.071228 11479 net.cpp:148] Top shape: 24 128 14 14 (602112)
I0403 14:59:45.071244 11479 net.cpp:156] Memory required for data: 1254493728
I0403 14:59:45.071261 11479 layer_factory.hpp:77] Creating layer inception_4e/relu_pool_proj
I0403 14:59:45.071280 11479 net.cpp:91] Creating Layer inception_4e/relu_pool_proj
I0403 14:59:45.071296 11479 net.cpp:425] inception_4e/relu_pool_proj <- inception_4e/pool_proj
I0403 14:59:45.071313 11479 net.cpp:386] inception_4e/relu_pool_proj -> inception_4e/pool_proj (in-place)
I0403 14:59:45.071606 11479 net.cpp:141] Setting up inception_4e/relu_pool_proj
I0403 14:59:45.071631 11479 net.cpp:148] Top shape: 24 128 14 14 (602112)
I0403 14:59:45.071645 11479 net.cpp:156] Memory required for data: 1256902176
I0403 14:59:45.071660 11479 layer_factory.hpp:77] Creating layer inception_4e/output
I0403 14:59:45.071677 11479 net.cpp:91] Creating Layer inception_4e/output
I0403 14:59:45.071693 11479 net.cpp:425] inception_4e/output <- inception_4e/1x1
I0403 14:59:45.071708 11479 net.cpp:425] inception_4e/output <- inception_4e/3x3
I0403 14:59:45.071723 11479 net.cpp:425] inception_4e/output <- inception_4e/5x5
I0403 14:59:45.071738 11479 net.cpp:425] inception_4e/output <- inception_4e/pool_proj
I0403 14:59:45.071754 11479 net.cpp:399] inception_4e/output -> inception_4e/output
I0403 14:59:45.071804 11479 net.cpp:141] Setting up inception_4e/output
I0403 14:59:45.071826 11479 net.cpp:148] Top shape: 24 832 14 14 (3913728)
I0403 14:59:45.071840 11479 net.cpp:156] Memory required for data: 1272557088
I0403 14:59:45.071853 11479 layer_factory.hpp:77] Creating layer pool4/3x3_s2
I0403 14:59:45.071869 11479 net.cpp:91] Creating Layer pool4/3x3_s2
I0403 14:59:45.071884 11479 net.cpp:425] pool4/3x3_s2 <- inception_4e/output
I0403 14:59:45.071903 11479 net.cpp:399] pool4/3x3_s2 -> pool4/3x3_s2
I0403 14:59:45.071969 11479 net.cpp:141] Setting up pool4/3x3_s2
I0403 14:59:45.071991 11479 net.cpp:148] Top shape: 24 832 7 7 (978432)
I0403 14:59:45.072005 11479 net.cpp:156] Memory required for data: 1276470816
I0403 14:59:45.072018 11479 layer_factory.hpp:77] Creating layer pool4/3x3_s2_pool4/3x3_s2_0_split
I0403 14:59:45.072036 11479 net.cpp:91] Creating Layer pool4/3x3_s2_pool4/3x3_s2_0_split
I0403 14:59:45.072052 11479 net.cpp:425] pool4/3x3_s2_pool4/3x3_s2_0_split <- pool4/3x3_s2
I0403 14:59:45.072070 11479 net.cpp:399] pool4/3x3_s2_pool4/3x3_s2_0_split -> pool4/3x3_s2_pool4/3x3_s2_0_split_0
I0403 14:59:45.072090 11479 net.cpp:399] pool4/3x3_s2_pool4/3x3_s2_0_split -> pool4/3x3_s2_pool4/3x3_s2_0_split_1
I0403 14:59:45.072109 11479 net.cpp:399] pool4/3x3_s2_pool4/3x3_s2_0_split -> pool4/3x3_s2_pool4/3x3_s2_0_split_2
I0403 14:59:45.072129 11479 net.cpp:399] pool4/3x3_s2_pool4/3x3_s2_0_split -> pool4/3x3_s2_pool4/3x3_s2_0_split_3
I0403 14:59:45.072214 11479 net.cpp:141] Setting up pool4/3x3_s2_pool4/3x3_s2_0_split
I0403 14:59:45.072239 11479 net.cpp:148] Top shape: 24 832 7 7 (978432)
I0403 14:59:45.072255 11479 net.cpp:148] Top shape: 24 832 7 7 (978432)
I0403 14:59:45.072270 11479 net.cpp:148] Top shape: 24 832 7 7 (978432)
I0403 14:59:45.072284 11479 net.cpp:148] Top shape: 24 832 7 7 (978432)
I0403 14:59:45.072298 11479 net.cpp:156] Memory required for data: 1292125728
I0403 14:59:45.072310 11479 layer_factory.hpp:77] Creating layer inception_5a/1x1
I0403 14:59:45.072331 11479 net.cpp:91] Creating Layer inception_5a/1x1
I0403 14:59:45.072348 11479 net.cpp:425] inception_5a/1x1 <- pool4/3x3_s2_pool4/3x3_s2_0_split_0
I0403 14:59:45.072366 11479 net.cpp:399] inception_5a/1x1 -> inception_5a/1x1
I0403 14:59:45.075212 11479 net.cpp:141] Setting up inception_5a/1x1
I0403 14:59:45.075242 11479 net.cpp:148] Top shape: 24 256 7 7 (301056)
I0403 14:59:45.075258 11479 net.cpp:156] Memory required for data: 1293329952
I0403 14:59:45.075276 11479 layer_factory.hpp:77] Creating layer inception_5a/relu_1x1
I0403 14:59:45.075292 11479 net.cpp:91] Creating Layer inception_5a/relu_1x1
I0403 14:59:45.075307 11479 net.cpp:425] inception_5a/relu_1x1 <- inception_5a/1x1
I0403 14:59:45.075325 11479 net.cpp:386] inception_5a/relu_1x1 -> inception_5a/1x1 (in-place)
I0403 14:59:45.075659 11479 net.cpp:141] Setting up inception_5a/relu_1x1
I0403 14:59:45.075687 11479 net.cpp:148] Top shape: 24 256 7 7 (301056)
I0403 14:59:45.075714 11479 net.cpp:156] Memory required for data: 1294534176
I0403 14:59:45.075728 11479 layer_factory.hpp:77] Creating layer inception_5a/3x3_reduce
I0403 14:59:45.075749 11479 net.cpp:91] Creating Layer inception_5a/3x3_reduce
I0403 14:59:45.075767 11479 net.cpp:425] inception_5a/3x3_reduce <- pool4/3x3_s2_pool4/3x3_s2_0_split_1
I0403 14:59:45.075784 11479 net.cpp:399] inception_5a/3x3_reduce -> inception_5a/3x3_reduce
I0403 14:59:45.078203 11479 net.cpp:141] Setting up inception_5a/3x3_reduce
I0403 14:59:45.078232 11479 net.cpp:148] Top shape: 24 160 7 7 (188160)
I0403 14:59:45.078246 11479 net.cpp:156] Memory required for data: 1295286816
I0403 14:59:45.078264 11479 layer_factory.hpp:77] Creating layer inception_5a/relu_3x3_reduce
I0403 14:59:45.078284 11479 net.cpp:91] Creating Layer inception_5a/relu_3x3_reduce
I0403 14:59:45.078299 11479 net.cpp:425] inception_5a/relu_3x3_reduce <- inception_5a/3x3_reduce
I0403 14:59:45.078316 11479 net.cpp:386] inception_5a/relu_3x3_reduce -> inception_5a/3x3_reduce (in-place)
I0403 14:59:45.078501 11479 net.cpp:141] Setting up inception_5a/relu_3x3_reduce
I0403 14:59:45.078527 11479 net.cpp:148] Top shape: 24 160 7 7 (188160)
I0403 14:59:45.078542 11479 net.cpp:156] Memory required for data: 1296039456
I0403 14:59:45.078557 11479 layer_factory.hpp:77] Creating layer inception_5a/3x3
I0403 14:59:45.078579 11479 net.cpp:91] Creating Layer inception_5a/3x3
I0403 14:59:45.078596 11479 net.cpp:425] inception_5a/3x3 <- inception_5a/3x3_reduce
I0403 14:59:45.078613 11479 net.cpp:399] inception_5a/3x3 -> inception_5a/3x3
I0403 14:59:45.083732 11479 net.cpp:141] Setting up inception_5a/3x3
I0403 14:59:45.083765 11479 net.cpp:148] Top shape: 24 320 7 7 (376320)
I0403 14:59:45.083781 11479 net.cpp:156] Memory required for data: 1297544736
I0403 14:59:45.083801 11479 layer_factory.hpp:77] Creating layer inception_5a/relu_3x3
I0403 14:59:45.083818 11479 net.cpp:91] Creating Layer inception_5a/relu_3x3
I0403 14:59:45.083834 11479 net.cpp:425] inception_5a/relu_3x3 <- inception_5a/3x3
I0403 14:59:45.083854 11479 net.cpp:386] inception_5a/relu_3x3 -> inception_5a/3x3 (in-place)
I0403 14:59:45.084157 11479 net.cpp:141] Setting up inception_5a/relu_3x3
I0403 14:59:45.084187 11479 net.cpp:148] Top shape: 24 320 7 7 (376320)
I0403 14:59:45.084203 11479 net.cpp:156] Memory required for data: 1299050016
I0403 14:59:45.084218 11479 layer_factory.hpp:77] Creating layer inception_5a/5x5_reduce
I0403 14:59:45.084241 11479 net.cpp:91] Creating Layer inception_5a/5x5_reduce
I0403 14:59:45.084259 11479 net.cpp:425] inception_5a/5x5_reduce <- pool4/3x3_s2_pool4/3x3_s2_0_split_2
I0403 14:59:45.084278 11479 net.cpp:399] inception_5a/5x5_reduce -> inception_5a/5x5_reduce
I0403 14:59:45.085530 11479 net.cpp:141] Setting up inception_5a/5x5_reduce
I0403 14:59:45.085561 11479 net.cpp:148] Top shape: 24 32 7 7 (37632)
I0403 14:59:45.085577 11479 net.cpp:156] Memory required for data: 1299200544
I0403 14:59:45.085597 11479 layer_factory.hpp:77] Creating layer inception_5a/relu_5x5_reduce
I0403 14:59:45.085614 11479 net.cpp:91] Creating Layer inception_5a/relu_5x5_reduce
I0403 14:59:45.085631 11479 net.cpp:425] inception_5a/relu_5x5_reduce <- inception_5a/5x5_reduce
I0403 14:59:45.085651 11479 net.cpp:386] inception_5a/relu_5x5_reduce -> inception_5a/5x5_reduce (in-place)
I0403 14:59:45.085963 11479 net.cpp:141] Setting up inception_5a/relu_5x5_reduce
I0403 14:59:45.085989 11479 net.cpp:148] Top shape: 24 32 7 7 (37632)
I0403 14:59:45.086005 11479 net.cpp:156] Memory required for data: 1299351072
I0403 14:59:45.086020 11479 layer_factory.hpp:77] Creating layer inception_5a/5x5
I0403 14:59:45.086042 11479 net.cpp:91] Creating Layer inception_5a/5x5
I0403 14:59:45.086061 11479 net.cpp:425] inception_5a/5x5 <- inception_5a/5x5_reduce
I0403 14:59:45.086082 11479 net.cpp:399] inception_5a/5x5 -> inception_5a/5x5
I0403 14:59:45.087877 11479 net.cpp:141] Setting up inception_5a/5x5
I0403 14:59:45.087919 11479 net.cpp:148] Top shape: 24 128 7 7 (150528)
I0403 14:59:45.087936 11479 net.cpp:156] Memory required for data: 1299953184
I0403 14:59:45.087955 11479 layer_factory.hpp:77] Creating layer inception_5a/relu_5x5
I0403 14:59:45.087973 11479 net.cpp:91] Creating Layer inception_5a/relu_5x5
I0403 14:59:45.087990 11479 net.cpp:425] inception_5a/relu_5x5 <- inception_5a/5x5
I0403 14:59:45.088009 11479 net.cpp:386] inception_5a/relu_5x5 -> inception_5a/5x5 (in-place)
I0403 14:59:45.088207 11479 net.cpp:141] Setting up inception_5a/relu_5x5
I0403 14:59:45.088232 11479 net.cpp:148] Top shape: 24 128 7 7 (150528)
I0403 14:59:45.088246 11479 net.cpp:156] Memory required for data: 1300555296
I0403 14:59:45.088261 11479 layer_factory.hpp:77] Creating layer inception_5a/pool
I0403 14:59:45.088279 11479 net.cpp:91] Creating Layer inception_5a/pool
I0403 14:59:45.088294 11479 net.cpp:425] inception_5a/pool <- pool4/3x3_s2_pool4/3x3_s2_0_split_3
I0403 14:59:45.088315 11479 net.cpp:399] inception_5a/pool -> inception_5a/pool
I0403 14:59:45.088388 11479 net.cpp:141] Setting up inception_5a/pool
I0403 14:59:45.088429 11479 net.cpp:148] Top shape: 24 832 7 7 (978432)
I0403 14:59:45.088446 11479 net.cpp:156] Memory required for data: 1304469024
I0403 14:59:45.088461 11479 layer_factory.hpp:77] Creating layer inception_5a/pool_proj
I0403 14:59:45.088485 11479 net.cpp:91] Creating Layer inception_5a/pool_proj
I0403 14:59:45.088505 11479 net.cpp:425] inception_5a/pool_proj <- inception_5a/pool
I0403 14:59:45.088523 11479 net.cpp:399] inception_5a/pool_proj -> inception_5a/pool_proj
I0403 14:59:45.090930 11479 net.cpp:141] Setting up inception_5a/pool_proj
I0403 14:59:45.090963 11479 net.cpp:148] Top shape: 24 128 7 7 (150528)
I0403 14:59:45.090981 11479 net.cpp:156] Memory required for data: 1305071136
I0403 14:59:45.090998 11479 layer_factory.hpp:77] Creating layer inception_5a/relu_pool_proj
I0403 14:59:45.091017 11479 net.cpp:91] Creating Layer inception_5a/relu_pool_proj
I0403 14:59:45.091032 11479 net.cpp:425] inception_5a/relu_pool_proj <- inception_5a/pool_proj
I0403 14:59:45.091048 11479 net.cpp:386] inception_5a/relu_pool_proj -> inception_5a/pool_proj (in-place)
I0403 14:59:45.091361 11479 net.cpp:141] Setting up inception_5a/relu_pool_proj
I0403 14:59:45.091388 11479 net.cpp:148] Top shape: 24 128 7 7 (150528)
I0403 14:59:45.091421 11479 net.cpp:156] Memory required for data: 1305673248
I0403 14:59:45.091439 11479 layer_factory.hpp:77] Creating layer inception_5a/output
I0403 14:59:45.091455 11479 net.cpp:91] Creating Layer inception_5a/output
I0403 14:59:45.091471 11479 net.cpp:425] inception_5a/output <- inception_5a/1x1
I0403 14:59:45.091488 11479 net.cpp:425] inception_5a/output <- inception_5a/3x3
I0403 14:59:45.091506 11479 net.cpp:425] inception_5a/output <- inception_5a/5x5
I0403 14:59:45.091523 11479 net.cpp:425] inception_5a/output <- inception_5a/pool_proj
I0403 14:59:45.091541 11479 net.cpp:399] inception_5a/output -> inception_5a/output
I0403 14:59:45.091595 11479 net.cpp:141] Setting up inception_5a/output
I0403 14:59:45.091619 11479 net.cpp:148] Top shape: 24 832 7 7 (978432)
I0403 14:59:45.091635 11479 net.cpp:156] Memory required for data: 1309586976
I0403 14:59:45.091650 11479 layer_factory.hpp:77] Creating layer inception_5a/output_inception_5a/output_0_split
I0403 14:59:45.091668 11479 net.cpp:91] Creating Layer inception_5a/output_inception_5a/output_0_split
I0403 14:59:45.091683 11479 net.cpp:425] inception_5a/output_inception_5a/output_0_split <- inception_5a/output
I0403 14:59:45.091706 11479 net.cpp:399] inception_5a/output_inception_5a/output_0_split -> inception_5a/output_inception_5a/output_0_split_0
I0403 14:59:45.091737 11479 net.cpp:399] inception_5a/output_inception_5a/output_0_split -> inception_5a/output_inception_5a/output_0_split_1
I0403 14:59:45.091758 11479 net.cpp:399] inception_5a/output_inception_5a/output_0_split -> inception_5a/output_inception_5a/output_0_split_2
I0403 14:59:45.091778 11479 net.cpp:399] inception_5a/output_inception_5a/output_0_split -> inception_5a/output_inception_5a/output_0_split_3
I0403 14:59:45.091893 11479 net.cpp:141] Setting up inception_5a/output_inception_5a/output_0_split
I0403 14:59:45.091918 11479 net.cpp:148] Top shape: 24 832 7 7 (978432)
I0403 14:59:45.091934 11479 net.cpp:148] Top shape: 24 832 7 7 (978432)
I0403 14:59:45.091950 11479 net.cpp:148] Top shape: 24 832 7 7 (978432)
I0403 14:59:45.091965 11479 net.cpp:148] Top shape: 24 832 7 7 (978432)
I0403 14:59:45.091979 11479 net.cpp:156] Memory required for data: 1325241888
I0403 14:59:45.091994 11479 layer_factory.hpp:77] Creating layer inception_5b/1x1
I0403 14:59:45.092016 11479 net.cpp:91] Creating Layer inception_5b/1x1
I0403 14:59:45.092033 11479 net.cpp:425] inception_5b/1x1 <- inception_5a/output_inception_5a/output_0_split_0
I0403 14:59:45.092054 11479 net.cpp:399] inception_5b/1x1 -> inception_5b/1x1
I0403 14:59:45.095979 11479 net.cpp:141] Setting up inception_5b/1x1
I0403 14:59:45.096010 11479 net.cpp:148] Top shape: 24 384 7 7 (451584)
I0403 14:59:45.096026 11479 net.cpp:156] Memory required for data: 1327048224
I0403 14:59:45.096045 11479 layer_factory.hpp:77] Creating layer inception_5b/relu_1x1
I0403 14:59:45.096065 11479 net.cpp:91] Creating Layer inception_5b/relu_1x1
I0403 14:59:45.096082 11479 net.cpp:425] inception_5b/relu_1x1 <- inception_5b/1x1
I0403 14:59:45.096101 11479 net.cpp:386] inception_5b/relu_1x1 -> inception_5b/1x1 (in-place)
I0403 14:59:45.096431 11479 net.cpp:141] Setting up inception_5b/relu_1x1
I0403 14:59:45.096459 11479 net.cpp:148] Top shape: 24 384 7 7 (451584)
I0403 14:59:45.096474 11479 net.cpp:156] Memory required for data: 1328854560
I0403 14:59:45.096489 11479 layer_factory.hpp:77] Creating layer inception_5b/3x3_reduce
I0403 14:59:45.096513 11479 net.cpp:91] Creating Layer inception_5b/3x3_reduce
I0403 14:59:45.096532 11479 net.cpp:425] inception_5b/3x3_reduce <- inception_5a/output_inception_5a/output_0_split_1
I0403 14:59:45.096555 11479 net.cpp:399] inception_5b/3x3_reduce -> inception_5b/3x3_reduce
I0403 14:59:45.099325 11479 net.cpp:141] Setting up inception_5b/3x3_reduce
I0403 14:59:45.099356 11479 net.cpp:148] Top shape: 24 192 7 7 (225792)
I0403 14:59:45.099372 11479 net.cpp:156] Memory required for data: 1329757728
I0403 14:59:45.099390 11479 layer_factory.hpp:77] Creating layer inception_5b/relu_3x3_reduce
I0403 14:59:45.099416 11479 net.cpp:91] Creating Layer inception_5b/relu_3x3_reduce
I0403 14:59:45.099445 11479 net.cpp:425] inception_5b/relu_3x3_reduce <- inception_5b/3x3_reduce
I0403 14:59:45.099463 11479 net.cpp:386] inception_5b/relu_3x3_reduce -> inception_5b/3x3_reduce (in-place)
I0403 14:59:45.099659 11479 net.cpp:141] Setting up inception_5b/relu_3x3_reduce
I0403 14:59:45.099688 11479 net.cpp:148] Top shape: 24 192 7 7 (225792)
I0403 14:59:45.099704 11479 net.cpp:156] Memory required for data: 1330660896
I0403 14:59:45.099730 11479 layer_factory.hpp:77] Creating layer inception_5b/3x3
I0403 14:59:45.099751 11479 net.cpp:91] Creating Layer inception_5b/3x3
I0403 14:59:45.099769 11479 net.cpp:425] inception_5b/3x3 <- inception_5b/3x3_reduce
I0403 14:59:45.099788 11479 net.cpp:399] inception_5b/3x3 -> inception_5b/3x3
I0403 14:59:45.106634 11479 net.cpp:141] Setting up inception_5b/3x3
I0403 14:59:45.106667 11479 net.cpp:148] Top shape: 24 384 7 7 (451584)
I0403 14:59:45.106683 11479 net.cpp:156] Memory required for data: 1332467232
I0403 14:59:45.106701 11479 layer_factory.hpp:77] Creating layer inception_5b/relu_3x3
I0403 14:59:45.106719 11479 net.cpp:91] Creating Layer inception_5b/relu_3x3
I0403 14:59:45.106734 11479 net.cpp:425] inception_5b/relu_3x3 <- inception_5b/3x3
I0403 14:59:45.106750 11479 net.cpp:386] inception_5b/relu_3x3 -> inception_5b/3x3 (in-place)
I0403 14:59:45.107051 11479 net.cpp:141] Setting up inception_5b/relu_3x3
I0403 14:59:45.107080 11479 net.cpp:148] Top shape: 24 384 7 7 (451584)
I0403 14:59:45.107095 11479 net.cpp:156] Memory required for data: 1334273568
I0403 14:59:45.107110 11479 layer_factory.hpp:77] Creating layer inception_5b/5x5_reduce
I0403 14:59:45.107148 11479 net.cpp:91] Creating Layer inception_5b/5x5_reduce
I0403 14:59:45.107167 11479 net.cpp:425] inception_5b/5x5_reduce <- inception_5a/output_inception_5a/output_0_split_2
I0403 14:59:45.107187 11479 net.cpp:399] inception_5b/5x5_reduce -> inception_5b/5x5_reduce
I0403 14:59:45.108496 11479 net.cpp:141] Setting up inception_5b/5x5_reduce
I0403 14:59:45.108525 11479 net.cpp:148] Top shape: 24 48 7 7 (56448)
I0403 14:59:45.108541 11479 net.cpp:156] Memory required for data: 1334499360
I0403 14:59:45.108559 11479 layer_factory.hpp:77] Creating layer inception_5b/relu_5x5_reduce
I0403 14:59:45.108579 11479 net.cpp:91] Creating Layer inception_5b/relu_5x5_reduce
I0403 14:59:45.108597 11479 net.cpp:425] inception_5b/relu_5x5_reduce <- inception_5b/5x5_reduce
I0403 14:59:45.108614 11479 net.cpp:386] inception_5b/relu_5x5_reduce -> inception_5b/5x5_reduce (in-place)
I0403 14:59:45.109005 11479 net.cpp:141] Setting up inception_5b/relu_5x5_reduce
I0403 14:59:45.109031 11479 net.cpp:148] Top shape: 24 48 7 7 (56448)
I0403 14:59:45.109045 11479 net.cpp:156] Memory required for data: 1334725152
I0403 14:59:45.109061 11479 layer_factory.hpp:77] Creating layer inception_5b/5x5
I0403 14:59:45.109081 11479 net.cpp:91] Creating Layer inception_5b/5x5
I0403 14:59:45.109097 11479 net.cpp:425] inception_5b/5x5 <- inception_5b/5x5_reduce
I0403 14:59:45.109115 11479 net.cpp:399] inception_5b/5x5 -> inception_5b/5x5
I0403 14:59:45.111189 11479 net.cpp:141] Setting up inception_5b/5x5
I0403 14:59:45.111219 11479 net.cpp:148] Top shape: 24 128 7 7 (150528)
I0403 14:59:45.111235 11479 net.cpp:156] Memory required for data: 1335327264
I0403 14:59:45.111253 11479 layer_factory.hpp:77] Creating layer inception_5b/relu_5x5
I0403 14:59:45.111270 11479 net.cpp:91] Creating Layer inception_5b/relu_5x5
I0403 14:59:45.111286 11479 net.cpp:425] inception_5b/relu_5x5 <- inception_5b/5x5
I0403 14:59:45.111305 11479 net.cpp:386] inception_5b/relu_5x5 -> inception_5b/5x5 (in-place)
I0403 14:59:45.111510 11479 net.cpp:141] Setting up inception_5b/relu_5x5
I0403 14:59:45.111534 11479 net.cpp:148] Top shape: 24 128 7 7 (150528)
I0403 14:59:45.111548 11479 net.cpp:156] Memory required for data: 1335929376
I0403 14:59:45.111563 11479 layer_factory.hpp:77] Creating layer inception_5b/pool
I0403 14:59:45.111582 11479 net.cpp:91] Creating Layer inception_5b/pool
I0403 14:59:45.111596 11479 net.cpp:425] inception_5b/pool <- inception_5a/output_inception_5a/output_0_split_3
I0403 14:59:45.111618 11479 net.cpp:399] inception_5b/pool -> inception_5b/pool
I0403 14:59:45.111691 11479 net.cpp:141] Setting up inception_5b/pool
I0403 14:59:45.111716 11479 net.cpp:148] Top shape: 24 832 7 7 (978432)
I0403 14:59:45.111729 11479 net.cpp:156] Memory required for data: 1339843104
I0403 14:59:45.111743 11479 layer_factory.hpp:77] Creating layer inception_5b/pool_proj
I0403 14:59:45.111765 11479 net.cpp:91] Creating Layer inception_5b/pool_proj
I0403 14:59:45.111783 11479 net.cpp:425] inception_5b/pool_proj <- inception_5b/pool
I0403 14:59:45.111804 11479 net.cpp:399] inception_5b/pool_proj -> inception_5b/pool_proj
I0403 14:59:45.114228 11479 net.cpp:141] Setting up inception_5b/pool_proj
I0403 14:59:45.114256 11479 net.cpp:148] Top shape: 24 128 7 7 (150528)
I0403 14:59:45.114271 11479 net.cpp:156] Memory required for data: 1340445216
I0403 14:59:45.114289 11479 layer_factory.hpp:77] Creating layer inception_5b/relu_pool_proj
I0403 14:59:45.114310 11479 net.cpp:91] Creating Layer inception_5b/relu_pool_proj
I0403 14:59:45.114329 11479 net.cpp:425] inception_5b/relu_pool_proj <- inception_5b/pool_proj
I0403 14:59:45.114346 11479 net.cpp:386] inception_5b/relu_pool_proj -> inception_5b/pool_proj (in-place)
I0403 14:59:45.114653 11479 net.cpp:141] Setting up inception_5b/relu_pool_proj
I0403 14:59:45.114680 11479 net.cpp:148] Top shape: 24 128 7 7 (150528)
I0403 14:59:45.114693 11479 net.cpp:156] Memory required for data: 1341047328
I0403 14:59:45.114708 11479 layer_factory.hpp:77] Creating layer inception_5b/output
I0403 14:59:45.114728 11479 net.cpp:91] Creating Layer inception_5b/output
I0403 14:59:45.114758 11479 net.cpp:425] inception_5b/output <- inception_5b/1x1
I0403 14:59:45.114776 11479 net.cpp:425] inception_5b/output <- inception_5b/3x3
I0403 14:59:45.114792 11479 net.cpp:425] inception_5b/output <- inception_5b/5x5
I0403 14:59:45.114809 11479 net.cpp:425] inception_5b/output <- inception_5b/pool_proj
I0403 14:59:45.114825 11479 net.cpp:399] inception_5b/output -> inception_5b/output
I0403 14:59:45.114879 11479 net.cpp:141] Setting up inception_5b/output
I0403 14:59:45.114902 11479 net.cpp:148] Top shape: 24 1024 7 7 (1204224)
I0403 14:59:45.114917 11479 net.cpp:156] Memory required for data: 1345864224
I0403 14:59:45.114931 11479 layer_factory.hpp:77] Creating layer pool5/7x7_s1
I0403 14:59:45.114950 11479 net.cpp:91] Creating Layer pool5/7x7_s1
I0403 14:59:45.114969 11479 net.cpp:425] pool5/7x7_s1 <- inception_5b/output
I0403 14:59:45.114986 11479 net.cpp:399] pool5/7x7_s1 -> pool5/7x7_s1
I0403 14:59:45.115203 11479 net.cpp:141] Setting up pool5/7x7_s1
I0403 14:59:45.115231 11479 net.cpp:148] Top shape: 24 1024 1 1 (24576)
I0403 14:59:45.115247 11479 net.cpp:156] Memory required for data: 1345962528
I0403 14:59:45.115262 11479 layer_factory.hpp:77] Creating layer pool5/drop_7x7_s1
I0403 14:59:45.115278 11479 net.cpp:91] Creating Layer pool5/drop_7x7_s1
I0403 14:59:45.115294 11479 net.cpp:425] pool5/drop_7x7_s1 <- pool5/7x7_s1
I0403 14:59:45.115314 11479 net.cpp:386] pool5/drop_7x7_s1 -> pool5/7x7_s1 (in-place)
I0403 14:59:45.115365 11479 net.cpp:141] Setting up pool5/drop_7x7_s1
I0403 14:59:45.115387 11479 net.cpp:148] Top shape: 24 1024 1 1 (24576)
I0403 14:59:45.115402 11479 net.cpp:156] Memory required for data: 1346060832
I0403 14:59:45.115422 11479 layer_factory.hpp:77] Creating layer loss3/classifier_plantvillage
I0403 14:59:45.115444 11479 net.cpp:91] Creating Layer loss3/classifier_plantvillage
I0403 14:59:45.115461 11479 net.cpp:425] loss3/classifier_plantvillage <- pool5/7x7_s1
I0403 14:59:45.115481 11479 net.cpp:399] loss3/classifier_plantvillage -> loss3/classifier_plantvillage
I0403 14:59:45.115906 11479 net.cpp:141] Setting up loss3/classifier_plantvillage
I0403 14:59:45.115931 11479 net.cpp:148] Top shape: 24 38 (912)
I0403 14:59:45.115944 11479 net.cpp:156] Memory required for data: 1346064480
I0403 14:59:45.115962 11479 layer_factory.hpp:77] Creating layer loss3/classifier_plantvillage_loss3/classifier_plantvillage_0_split
I0403 14:59:45.115979 11479 net.cpp:91] Creating Layer loss3/classifier_plantvillage_loss3/classifier_plantvillage_0_split
I0403 14:59:45.116003 11479 net.cpp:425] loss3/classifier_plantvillage_loss3/classifier_plantvillage_0_split <- loss3/classifier_plantvillage
I0403 14:59:45.116021 11479 net.cpp:399] loss3/classifier_plantvillage_loss3/classifier_plantvillage_0_split -> loss3/classifier_plantvillage_loss3/classifier_plantvillage_0_split_0
I0403 14:59:45.116040 11479 net.cpp:399] loss3/classifier_plantvillage_loss3/classifier_plantvillage_0_split -> loss3/classifier_plantvillage_loss3/classifier_plantvillage_0_split_1
I0403 14:59:45.116060 11479 net.cpp:399] loss3/classifier_plantvillage_loss3/classifier_plantvillage_0_split -> loss3/classifier_plantvillage_loss3/classifier_plantvillage_0_split_2
I0403 14:59:45.116080 11479 net.cpp:399] loss3/classifier_plantvillage_loss3/classifier_plantvillage_0_split -> loss3/classifier_plantvillage_loss3/classifier_plantvillage_0_split_3
I0403 14:59:45.116180 11479 net.cpp:141] Setting up loss3/classifier_plantvillage_loss3/classifier_plantvillage_0_split
I0403 14:59:45.116204 11479 net.cpp:148] Top shape: 24 38 (912)
I0403 14:59:45.116219 11479 net.cpp:148] Top shape: 24 38 (912)
I0403 14:59:45.116235 11479 net.cpp:148] Top shape: 24 38 (912)
I0403 14:59:45.116248 11479 net.cpp:148] Top shape: 24 38 (912)
I0403 14:59:45.116261 11479 net.cpp:156] Memory required for data: 1346079072
I0403 14:59:45.116276 11479 layer_factory.hpp:77] Creating layer loss1/loss
I0403 14:59:45.116297 11479 net.cpp:91] Creating Layer loss1/loss
I0403 14:59:45.116314 11479 net.cpp:425] loss1/loss <- loss1/classifier_plantvillage_loss1/classifier_plantvillage_0_split_0
I0403 14:59:45.116345 11479 net.cpp:425] loss1/loss <- label_data_1_split_0
…
