…
I0403 15:18:44.097616 11816 net.cpp:313] The NetState phase (1) differed from the phase (0) specified by a rule in layer data
I0403 15:18:44.098821 11816 net.cpp:49] Initializing net from parameters: 
state {
  phase: TEST
}
layer {
  name: "data"
  type: "Data"
  top: "data"
  top: "label"
  include {
    phase: TEST
  }
  transform_param {
    mirror: false
    crop_size: 224
    mean_file: "/home/mohanty/data/final_dataset/lmdb/segmented-50-50/mean.binaryproto"
  }
  data_param {
    source: "/home/mohanty/data/final_dataset/lmdb/segmented-50-50/test_db"
    batch_size: 24
    backend: LMDB
  }
}
layer {
  name: "conv1/7x7_s2"
  type: "Convolution"
  bottom: "data"
  top: "conv1/7x7_s2"
  param {
    lr_mult: 1
    decay_mult: 1
  }
  param {
    lr_mult: 2
    decay_mult: 0
  }
  convolution_param {
    num_output: 64
    pad: 3
    kernel_size: 7
    stride: 2
    weight_filler {
      type: "xavier"
      std: 0.1
    }
    bias_filler {
      type: "constant"
      value: 0.2
    }
  }
}
layer {
  name: "conv1/relu_7x7"
  type: "ReLU"
  bottom: "conv1/7x7_s2"
  top: "conv1/7x7_s2"
}
layer {
  name: "pool1/3x3_s2"
  type: "Pooling"
  bottom: "conv1/7x7_s2"
  top: "pool1/3x3_s2"
  pooling_param {
    pool: MAX
    kernel_size: 3
    stride: 2
  }
}
layer {
  name: "pool1/norm1"
  type: "LRN"
  bottom: "pool1/3x3_s2"
  top: "pool1/norm1"
  lrn_param {
    local_size: 5
    alpha: 0.0001
    beta: 0.75
  }
}
layer {
  name: "conv2/3x3_reduce"
  type: "Convolution"
  bottom: "pool1/norm1"
  top: "conv2/3x3_reduce"
  param {
    lr_mult: 1
    decay_mult: 1
  }
  param {
    lr_mult: 2
    decay_mult: 0
  }
  convolution_param {
    num_output: 64
    kernel_size: 1
    weight_filler {
      type: "xavier"
      std: 0.1
    }
    bias_filler {
      type: "constant"
      value: 0.2
    }
  }
}
layer {
  name: "conv2/relu_3x3_reduce"
  type: "ReLU"
  bottom: "conv2/3x3_reduce"
  top: "conv2/3x3_reduce"
}
layer {
  name: "conv2/3x3"
  type: "Convolution"
  bottom: "conv2/3x3_reduce"
  top: "conv2/3x3"
  param {
    lr_mult: 1
    decay_mult: 1
  }
  param {
    lr_mult: 2
    decay_mult: 0
  }
  convolution_param {
    num_output: 192
    pad: 1
    kernel_size: 3
    weight_filler {
      type: "xavier"
      std: 0.03
    }
    bias_filler {
      type: "constant"
      value: 0.2
    }
  }
}
layer {
  name: "conv2/relu_3x3"
  type: "ReLU"
  bottom: "conv2/3x3"
  top: "conv2/3x3"
}
layer {
  name: "conv2/norm2"
  type: "LRN"
  bottom: "conv2/3x3"
  top: "conv2/norm2"
  lrn_param {
    local_size: 5
    alpha: 0.0001
    beta: 0.75
  }
}
layer {
  name: "pool2/3x3_s2"
  type: "Pooling"
  bottom: "conv2/norm2"
  top: "pool2/3x3_s2"
  pooling_param {
    pool: MAX
    kernel_size: 3
    stride: 2
  }
}
layer {
  name: "inception_3a/1x1"
  type: "Convolution"
  bottom: "pool2/3x3_s2"
  top: "inception_3a/1x1"
  param {
    lr_mult: 1
    decay_mult: 1
  }
  param {
    lr_mult: 2
    decay_mult: 0
  }
  convolution_param {
    num_output: 64
    kernel_size: 1
    weight_filler {
      type: "xavier"
      std: 0.03
    }
    bias_filler {
      type: "constant"
      value: 0.2
    }
  }
}
layer {
  name: "inception_3a/relu_1x1"
  type: "ReLU"
  bottom: "inception_3a/1x1"
  top: "inception_3a/1x1"
}
layer {
  name: "inception_3a/3x3_reduce"
  type: "Convolution"
  bottom: "pool2/3x3_s2"
  top: "inception_3a/3x3_reduce"
  param {
    lr_mult: 1
    decay_mult: 1
  }
  param {
    lr_mult: 2
    decay_mult: 0
  }
  convolution_param {
    num_output: 96
    kernel_size: 1
    weight_filler {
      type: "xavier"
      std: 0.09
    }
    bias_filler {
      type: "constant"
      value: 0.2
    }
  }
}
layer {
  name: "inception_3a/relu_3x3_reduce"
  type: "ReLU"
  bottom: "inception_3a/3x3_reduce"
  top: "inception_3a/3x3_reduce"
}
layer {
  name: "inception_3a/3x3"
  type: "Convolution"
  bottom: "inception_3a/3x3_reduce"
  top: "inception_3a/3x3"
  param {
    lr_mult: 1
    decay_mult: 1
  }
  param {
    lr_mult: 2
    decay_mult: 0
  }
  convolution_param {
    num_output: 128
    pad: 1
    kernel_size: 3
    weight_filler {
      type: "xavier"
      std: 0.03
    }
    bias_filler {
      type: "constant"
      value: 0.2
    }
  }
}
layer {
  name: "inception_3a/relu_3x3"
  type: "ReLU"
  bottom: "inception_3a/3x3"
  top: "inception_3a/3x3"
}
layer {
  name: "inception_3a/5x5_reduce"
  type: "Convolution"
  bottom: "pool2/3x3_s2"
  top: "inception_3a/5x5_reduce"
  param {
    lr_mult: 1
    decay_mult: 1
  }
  param {
    lr_mult: 2
    decay_mult: 0
  }
  convolution_param {
    num_output: 16
    kernel_size: 1
    weight_filler {
      type: "xavier"
      std: 0.2
    }
    bias_filler {
      type: "constant"
      value: 0.2
    }
  }
}
layer {
  name: "inception_3a/relu_5x5_reduce"
  type: "ReLU"
  bottom: "inception_3a/5x5_reduce"
  top: "inception_3a/5x5_reduce"
}
layer {
  name: "inception_3a/5x5"
  type: "Convolution"
  bottom: "inception_3a/5x5_reduce"
  top: "inception_3a/5x5"
  param {
    lr_mult: 1
    decay_mult: 1
  }
  param {
    lr_mult: 2
    decay_mult: 0
  }
  convolution_param {
    num_output: 32
    pad: 2
    kernel_size: 5
    weight_filler {
      type: "xavier"
      std: 0.03
    }
    bias_filler {
      type: "constant"
      value: 0.2
    }
  }
}
layer {
  name: "inception_3a/relu_5x5"
  type: "ReLU"
  bottom: "inception_3a/5x5"
  top: "inception_3a/5x5"
}
layer {
  name: "inception_3a/pool"
  type: "Pooling"
  bottom: "pool2/3x3_s2"
  top: "inception_3a/pool"
  pooling_param {
    pool: MAX
    kernel_size: 3
    stride: 1
    pad: 1
  }
}
layer {
  name: "inception_3a/pool_proj"
  type: "Convolution"
  bottom: "inception_3a/pool"
  top: "inception_3a/pool_proj"
  param {
    lr_mult: 1
    decay_mult: 1
  }
  param {
    lr_mult: 2
    decay_mult: 0
  }
  convolution_param {
    num_output: 32
    kernel_size: 1
    weight_filler {
      type: "xavier"
      std: 0.1
    }
    bias_filler {
      type: "constant"
      value: 0.2
    }
  }
}
layer {
  name: "inception_3a/relu_pool_proj"
  type: "ReLU"
  bottom: "inception_3a/pool_proj"
  top: "inception_3a/pool_proj"
}
layer {
  name: "inception_3a/output"
  type: "Concat"
  bottom: "inception_3a/1x1"
  bottom: "inception_3a/3x3"
  bottom: "inception_3a/5x5"
  bottom: "inception_3a/pool_proj"
  top: "inception_3a/output"
}
layer {
  name: "inception_3b/1x1"
  type: "Convolution"
  bottom: "inception_3a/output"
  top: "inception_3b/1x1"
  param {
    lr_mult: 1
    decay_mult: 1
  }
  param {
    lr_mult: 2
    decay_mult: 0
  }
  convolution_param {
    num_output: 128
    kernel_size: 1
    weight_filler {
      type: "xavier"
      std: 0.03
    }
    bias_filler {
      type: "constant"
      value: 0.2
    }
  }
}
layer {
  name: "inception_3b/relu_1x1"
  type: "ReLU"
  bottom: "inception_3b/1x1"
  top: "inception_3b/1x1"
}
layer {
  name: "inception_3b/3x3_reduce"
  type: "Convolution"
  bottom: "inception_3a/output"
  top: "inception_3b/3x3_reduce"
  param {
    lr_mult: 1
    decay_mult: 1
  }
  param {
    lr_mult: 2
    decay_mult: 0
  }
  convolution_param {
    num_output: 128
    kernel_size: 1
    weight_filler {
      type: "xavier"
      std: 0.09
    }
    bias_filler {
      type: "constant"
      value: 0.2
    }
  }
}
layer {
  name: "inception_3b/relu_3x3_reduce"
  type: "ReLU"
  bottom: "inception_3b/3x3_reduce"
  top: "inception_3b/3x3_reduce"
}
layer {
  name: "inception_3b/3x3"
  type: "Convolution"
  bottom: "inception_3b/3x3_reduce"
  top: "inception_3b/3x3"
  param {
    lr_mult: 1
    decay_mult: 1
  }
  param {
    lr_mult: 2
    decay_mult: 0
  }
  convolution_param {
    num_output: 192
    pad: 1
    kernel_size: 3
    weight_filler {
      type: "xavier"
      std: 0.03
    }
    bias_filler {
      type: "constant"
      value: 0.2
    }
  }
}
layer {
  name: "inception_3b/relu_3x3"
  type: "ReLU"
  bottom: "inception_3b/3x3"
  top: "inception_3b/3x3"
}
layer {
  name: "inception_3b/5x5_reduce"
  type: "Convolution"
  bottom: "inception_3a/output"
  top: "inception_3b/5x5_reduce"
  param {
    lr_mult: 1
    decay_mult: 1
  }
  param {
    lr_mult: 2
    decay_mult: 0
  }
  convolution_param {
    num_output: 32
    kernel_size: 1
    weight_filler {
      type: "xavier"
      std: 0.2
    }
    bias_filler {
      type: "constant"
      value: 0.2
    }
  }
}
layer {
  name: "inception_3b/relu_5x5_reduce"
  type: "ReLU"
  bottom: "inception_3b/5x5_reduce"
  top: "inception_3b/5x5_reduce"
}
layer {
  name: "inception_3b/5x5"
  type: "Convolution"
  bottom: "inception_3b/5x5_reduce"
  top: "inception_3b/5x5"
  param {
    lr_mult: 1
    decay_mult: 1
  }
  param {
    lr_mult: 2
    decay_mult: 0
  }
  convolution_param {
    num_output: 96
    pad: 2
    kernel_size: 5
    weight_filler {
      type: "xavier"
      std: 0.03
    }
    bias_filler {
      type: "constant"
      value: 0.2
    }
  }
}
layer {
  name: "inception_3b/relu_5x5"
  type: "ReLU"
  bottom: "inception_3b/5x5"
  top: "inception_3b/5x5"
}
layer {
  name: "inception_3b/pool"
  type: "Pooling"
  bottom: "inception_3a/output"
  top: "inception_3b/pool"
  pooling_param {
    pool: MAX
    kernel_size: 3
    stride: 1
    pad: 1
  }
}
layer {
  name: "inception_3b/pool_proj"
  type: "Convolution"
  bottom: "inception_3b/pool"
  top: "inception_3b/pool_proj"
  param {
    lr_mult: 1
    decay_mult: 1
  }
  param {
    lr_mult: 2
    decay_mult: 0
  }
  convolution_param {
    num_output: 64
    kernel_size: 1
    weight_filler {
      type: "xavier"
      std: 0.1
    }
    bias_filler {
      type: "constant"
      value: 0.2
    }
  }
}
layer {
  name: "inception_3b/relu_pool_proj"
  type: "ReLU"
  bottom: "inception_3b/pool_proj"
  top: "inception_3b/pool_proj"
}
layer {
  name: "inception_3b/output"
  type: "Concat"
  bottom: "inception_3b/1x1"
  bottom: "inception_3b/3x3"
  bottom: "inception_3b/5x5"
  bottom: "inception_3b/pool_proj"
  top: "inception_3b/output"
}
layer {
  name: "pool3/3x3_s2"
  type: "Pooling"
  bottom: "inception_3b/output"
  top: "pool3/3x3_s2"
  pooling_param {
    pool: MAX
    kernel_size: 3
    stride: 2
  }
}
layer {
  name: "inception_4a/1x1"
  type: "Convolution"
  bottom: "pool3/3x3_s2"
  top: "inception_4a/1x1"
  param {
    lr_mult: 1
    decay_mult: 1
  }
  param {
    lr_mult: 2
    decay_mult: 0
  }
  convolution_param {
    num_output: 192
    kernel_size: 1
    weight_filler {
      type: "xavier"
      std: 0.03
    }
    bias_filler {
      type: "constant"
      value: 0.2
    }
  }
}
layer {
  name: "inception_4a/relu_1x1"
  type: "ReLU"
  bottom: "inception_4a/1x1"
  top: "inception_4a/1x1"
}
layer {
  name: "inception_4a/3x3_reduce"
  type: "Convolution"
  bottom: "pool3/3x3_s2"
  top: "inception_4a/3x3_reduce"
  param {
    lr_mult: 1
    decay_mult: 1
  }
  param {
    lr_mult: 2
    decay_mult: 0
  }
  convolution_param {
    num_output: 96
    kernel_size: 1
    weight_filler {
      type: "xavier"
      std: 0.09
    }
    bias_filler {
      type: "constant"
      value: 0.2
    }
  }
}
layer {
  name: "inception_4a/relu_3x3_reduce"
  type: "ReLU"
  bottom: "inception_4a/3x3_reduce"
  top: "inception_4a/3x3_reduce"
}
layer {
  name: "inception_4a/3x3"
  type: "Convolution"
  bottom: "inception_4a/3x3_reduce"
  top: "inception_4a/3x3"
  param {
    lr_mult: 1
    decay_mult: 1
  }
  param {
    lr_mult: 2
    decay_mult: 0
  }
  convolution_param {
    num_output: 208
    pad: 1
    kernel_size: 3
    weight_filler {
      type: "xavier"
      std: 0.03
    }
    bias_filler {
      type: "constant"
      value: 0.2
    }
  }
}
layer {
  name: "inception_4a/relu_3x3"
  type: "ReLU"
  bottom: "inception_4a/3x3"
  top: "inception_4a/3x3"
}
layer {
  name: "inception_4a/5x5_reduce"
  type: "Convolution"
  bottom: "pool3/3x3_s2"
  top: "inception_4a/5x5_reduce"
  param {
    lr_mult: 1
    decay_mult: 1
  }
  param {
    lr_mult: 2
    decay_mult: 0
  }
  convolution_param {
    num_output: 16
    kernel_size: 1
    weight_filler {
      type: "xavier"
      std: 0.2
    }
    bias_filler {
      type: "constant"
      value: 0.2
    }
  }
}
layer {
  name: "inception_4a/relu_5x5_reduce"
  type: "ReLU"
  bottom: "inception_4a/5x5_reduce"
  top: "inception_4a/5x5_reduce"
}
layer {
  name: "inception_4a/5x5"
  type: "Convolution"
  bottom: "inception_4a/5x5_reduce"
  top: "inception_4a/5x5"
  param {
    lr_mult: 1
    decay_mult: 1
  }
  param {
    lr_mult: 2
    decay_mult: 0
  }
  convolution_param {
    num_output: 48
    pad: 2
    kernel_size: 5
    weight_filler {
      type: "xavier"
      std: 0.03
    }
    bias_filler {
      type: "constant"
      value: 0.2
    }
  }
}
layer {
  name: "inception_4a/relu_5x5"
  type: "ReLU"
  bottom: "inception_4a/5x5"
  top: "inception_4a/5x5"
}
layer {
  name: "inception_4a/pool"
  type: "Pooling"
  bottom: "pool3/3x3_s2"
  top: "inception_4a/pool"
  pooling_param {
    pool: MAX
    kernel_size: 3
    stride: 1
    pad: 1
  }
}
layer {
  name: "inception_4a/pool_proj"
  type: "Convolution"
  bottom: "inception_4a/pool"
  top: "inception_4a/pool_proj"
  param {
    lr_mult: 1
    decay_mult: 1
  }
  param {
    lr_mult: 2
    decay_mult: 0
  }
  convolution_param {
    num_output: 64
    kernel_size: 1
    weight_filler {
      type: "xavier"
      std: 0.1
    }
    bias_filler {
      type: "constant"
      value: 0.2
    }
  }
}
layer {
  name: "inception_4a/relu_pool_proj"
  type: "ReLU"
  bottom: "inception_4a/pool_proj"
  top: "inception_4a/pool_proj"
}
layer {
  name: "inception_4a/output"
  type: "Concat"
  bottom: "inception_4a/1x1"
  bottom: "inception_4a/3x3"
  bottom: "inception_4a/5x5"
  bottom: "inception_4a/pool_proj"
  top: "inception_4a/output"
}
layer {
  name: "loss1/ave_pool"
  type: "Pooling"
  bottom: "inception_4a/output"
  top: "loss1/ave_pool"
  pooling_param {
    pool: AVE
    kernel_size: 5
    stride: 3
  }
}
layer {
  name: "loss1/conv"
  type: "Convolution"
  bottom: "loss1/ave_pool"
  top: "loss1/conv"
  param {
    lr_mult: 1
    decay_mult: 1
  }
  param {
    lr_mult: 2
    decay_mult: 0
  }
  convolution_param {
    num_output: 128
    kernel_size: 1
    weight_filler {
      type: "xavier"
      std: 0.08
    }
    bias_filler {
      type: "constant"
      value: 0.2
    }
  }
}
layer {
  name: "loss1/relu_conv"
  type: "ReLU"
  bottom: "loss1/conv"
  top: "loss1/conv"
}
layer {
  name: "loss1/fc"
  type: "InnerProduct"
  bottom: "loss1/conv"
  top: "loss1/fc"
  param {
    lr_mult: 1
    decay_mult: 1
  }
  param {
    lr_mult: 2
    decay_mult: 0
  }
  inner_product_param {
    num_output: 1024
    weight_filler {
      type: "xavier"
      std: 0.02
    }
    bias_filler {
      type: "constant"
      value: 0.2
    }
  }
}
layer {
  name: "loss1/relu_fc"
  type: "ReLU"
  bottom: "loss1/fc"
  top: "loss1/fc"
}
layer {
  name: "loss1/drop_fc"
  type: "Dropout"
  bottom: "loss1/fc"
  top: "loss1/fc"
  dropout_param {
    dropout_ratio: 0.7
  }
}
layer {
  name: "loss1/classifier_plantvillage"
  type: "InnerProduct"
  bottom: "loss1/fc"
  top: "loss1/classifier_plantvillage"
  param {
    lr_mult: 1
    decay_mult: 1
  }
  param {
    lr_mult: 2
    decay_mult: 0
  }
  inner_product_param {
    num_output: 38
    weight_filler {
      type: "xavier"
      std: 0.0009765625
    }
    bias_filler {
      type: "constant"
      value: 0
    }
  }
}
layer {
  name: "inception_4b/1x1"
  type: "Convolution"
  bottom: "inception_4a/output"
  top: "inception_4b/1x1"
  param {
    lr_mult: 1
    decay_mult: 1
  }
  param {
    lr_mult: 2
    decay_mult: 0
  }
  convolution_param {
    num_output: 160
    kernel_size: 1
    weight_filler {
      type: "xavier"
      std: 0.03
    }
    bias_filler {
      type: "constant"
      value: 0.2
    }
  }
}
layer {
  name: "inception_4b/relu_1x1"
  type: "ReLU"
  bottom: "inception_4b/1x1"
  top: "inception_4b/1x1"
}
layer {
  name: "inception_4b/3x3_reduce"
  type: "Convolution"
  bottom: "inception_4a/output"
  top: "inception_4b/3x3_reduce"
  param {
    lr_mult: 1
    decay_mult: 1
  }
  param {
    lr_mult: 2
    decay_mult: 0
  }
  convolution_param {
    num_output: 112
    kernel_size: 1
    weight_filler {
      type: "xavier"
      std: 0.09
    }
    bias_filler {
      type: "constant"
      value: 0.2
    }
  }
}
layer {
  name: "inception_4b/relu_3x3_reduce"
  type: "ReLU"
  bottom: "inception_4b/3x3_reduce"
  top: "inception_4b/3x3_reduce"
}
layer {
  name: "inception_4b/3x3"
  type: "Convolution"
  bottom: "inception_4b/3x3_reduce"
  top: "inception_4b/3x3"
  param {
    lr_mult: 1
    decay_mult: 1
  }
  param {
    lr_mult: 2
    decay_mult: 0
  }
  convolution_param {
    num_output: 224
    pad: 1
    kernel_size: 3
    weight_filler {
      type: "xavier"
      std: 0.03
    }
    bias_filler {
      type: "constant"
      value: 0.2
    }
  }
}
layer {
  name: "inception_4b/relu_3x3"
  type: "ReLU"
  bottom: "inception_4b/3x3"
  top: "inception_4b/3x3"
}
layer {
  name: "inception_4b/5x5_reduce"
  type: "Convolution"
  bottom: "inception_4a/output"
  top: "inception_4b/5x5_reduce"
  param {
    lr_mult: 1
    decay_mult: 1
  }
  param {
    lr_mult: 2
    decay_mult: 0
  }
  convolution_param {
    num_output: 24
    kernel_size: 1
    weight_filler {
      type: "xavier"
      std: 0.2
    }
    bias_filler {
      type: "constant"
      value: 0.2
    }
  }
}
layer {
  name: "inception_4b/relu_5x5_reduce"
  type: "ReLU"
  bottom: "inception_4b/5x5_reduce"
  top: "inception_4b/5x5_reduce"
}
layer {
  name: "inception_4b/5x5"
  type: "Convolution"
  bottom: "inception_4b/5x5_reduce"
  top: "inception_4b/5x5"
  param {
    lr_mult: 1
    decay_mult: 1
  }
  param {
    lr_mult: 2
    decay_mult: 0
  }
  convolution_param {
    num_output: 64
    pad: 2
    kernel_size: 5
    weight_filler {
      type: "xavier"
      std: 0.03
    }
    bias_filler {
      type: "constant"
      value: 0.2
    }
  }
}
layer {
  name: "inception_4b/relu_5x5"
  type: "ReLU"
  bottom: "inception_4b/5x5"
  top: "inception_4b/5x5"
}
layer {
  name: "inception_4b/pool"
  type: "Pooling"
  bottom: "inception_4a/output"
  top: "inception_4b/pool"
  pooling_param {
    pool: MAX
    kernel_size: 3
    stride: 1
    pad: 1
  }
}
layer {
  name: "inception_4b/pool_proj"
  type: "Convolution"
  bottom: "inception_4b/pool"
  top: "inception_4b/pool_proj"
  param {
    lr_mult: 1
    decay_mult: 1
  }
  param {
    lr_mult: 2
    decay_mult: 0
  }
  convolution_param {
    num_output: 64
    kernel_size: 1
    weight_filler {
      type: "xavier"
      std: 0.1
    }
    bias_filler {
      type: "constant"
      value: 0.2
    }
  }
}
layer {
  name: "inception_4b/relu_pool_proj"
  type: "ReLU"
  bottom: "inception_4b/pool_proj"
  top: "inception_4b/pool_proj"
}
layer {
  name: "inception_4b/output"
  type: "Concat"
  bottom: "inception_4b/1x1"
  bottom: "inception_4b/3x3"
  bottom: "inception_4b/5x5"
  bottom: "inception_4b/pool_proj"
  top: "inception_4b/output"
}
layer {
  name: "inception_4c/1x1"
  type: "Convolution"
  bottom: "inception_4b/output"
  top: "inception_4c/1x1"
  param {
    lr_mult: 1
    decay_mult: 1
  }
  param {
    lr_mult: 2
    decay_mult: 0
  }
  convolution_param {
    num_output: 128
    kernel_size: 1
    weight_filler {
      type: "xavier"
      std: 0.03
    }
    bias_filler {
      type: "constant"
      value: 0.2
    }
  }
}
layer {
  name: "inception_4c/relu_1x1"
  type: "ReLU"
  bottom: "inception_4c/1x1"
  top: "inception_4c/1x1"
}
layer {
  name: "inception_4c/3x3_reduce"
  type: "Convolution"
  bottom: "inception_4b/output"
  top: "inception_4c/3x3_reduce"
  param {
    lr_mult: 1
    decay_mult: 1
  }
  param {
    lr_mult: 2
    decay_mult: 0
  }
  convolution_param {
    num_output: 128
    kernel_size: 1
    weight_filler {
      type: "xavier"
      std: 0.09
    }
    bias_filler {
      type: "constant"
      value: 0.2
    }
  }
}
layer {
  name: "inception_4c/relu_3x3_reduce"
  type: "ReLU"
  bottom: "inception_4c/3x3_reduce"
  top: "inception_4c/3x3_reduce"
}
layer {
  name: "inception_4c/3x3"
  type: "Convolution"
  bottom: "inception_4c/3x3_reduce"
  top: "inception_4c/3x3"
  param {
    lr_mult: 1
    decay_mult: 1
  }
  param {
    lr_mult: 2
    decay_mult: 0
  }
  convolution_param {
    num_output: 256
    pad: 1
    kernel_size: 3
    weight_filler {
      type: "xavier"
      std: 0.03
    }
    bias_filler {
      type: "constant"
      value: 0.2
    }
  }
}
layer {
  name: "inception_4c/relu_3x3"
  type: "ReLU"
  bottom: "inception_4c/3x3"
  top: "inception_4c/3x3"
}
layer {
  name: "inception_4c/5x5_reduce"
  type: "Convolution"
  bottom: "inception_4b/output"
  top: "inception_4c/5x5_reduce"
  param {
    lr_mult: 1
    decay_mult: 1
  }
  param {
    lr_mult: 2
    decay_mult: 0
  }
  convolution_param {
    num_output: 24
    kernel_size: 1
    weight_filler {
      type: "xavier"
      std: 0.2
    }
    bias_filler {
      type: "constant"
      value: 0.2
    }
  }
}
layer {
  name: "inception_4c/relu_5x5_reduce"
  type: "ReLU"
  bottom: "inception_4c/5x5_reduce"
  top: "inception_4c/5x5_reduce"
}
layer {
  name: "inception_4c/5x5"
  type: "Convolution"
  bottom: "inception_4c/5x5_reduce"
  top: "inception_4c/5x5"
  param {
    lr_mult: 1
    decay_mult: 1
  }
  param {
    lr_mult: 2
    decay_mult: 0
  }
  convolution_param {
    num_output: 64
    pad: 2
    kernel_size: 5
    weight_filler {
      type: "xavier"
      std: 0.03
    }
    bias_filler {
      type: "constant"
      value: 0.2
    }
  }
}
layer {
  name: "inception_4c/relu_5x5"
  type: "ReLU"
  bottom: "inception_4c/5x5"
  top: "inception_4c/5x5"
}
layer {
  name: "inception_4c/pool"
  type: "Pooling"
  bottom: "inception_4b/output"
  top: "inception_4c/pool"
  pooling_param {
    pool: MAX
    kernel_size: 3
    stride: 1
    pad: 1
  }
}
layer {
  name: "inception_4c/pool_proj"
  type: "Convolution"
  bottom: "inception_4c/pool"
  top: "inception_4c/pool_proj"
  param {
    lr_mult: 1
    decay_mult: 1
  }
  param {
    lr_mult: 2
    decay_mult: 0
  }
  convolution_param {
    num_output: 64
    kernel_size: 1
    weight_filler {
      type: "xavier"
      std: 0.1
    }
    bias_filler {
      type: "constant"
      value: 0.2
    }
  }
}
layer {
  name: "inception_4c/relu_pool_proj"
  type: "ReLU"
  bottom: "inception_4c/pool_proj"
  top: "inception_4c/pool_proj"
}
layer {
  name: "inception_4c/output"
  type: "Concat"
  bottom: "inception_4c/1x1"
  bottom: "inception_4c/3x3"
  bottom: "inception_4c/5x5"
  bottom: "inception_4c/pool_proj"
  top: "inception_4c/output"
}
layer {
  name: "inception_4d/1x1"
  type: "Convolution"
  bottom: "inception_4c/output"
  top: "inception_4d/1x1"
  param {
    lr_mult: 1
    decay_mult: 1
  }
  param {
    lr_mult: 2
    decay_mult: 0
  }
  convolution_param {
    num_output: 112
    kernel_size: 1
    weight_filler {
      type: "xavier"
      std: 0.03
    }
    bias_filler {
      type: "constant"
      value: 0.2
    }
  }
}
layer {
  name: "inception_4d/relu_1x1"
  type: "ReLU"
  bottom: "inception_4d/1x1"
  top: "inception_4d/1x1"
}
layer {
  name: "inception_4d/3x3_reduce"
  type: "Convolution"
  bottom: "inception_4c/output"
  top: "inception_4d/3x3_reduce"
  param {
    lr_mult: 1
    decay_mult: 1
  }
  param {
    lr_mult: 2
    decay_mult: 0
  }
  convolution_param {
    num_output: 144
    kernel_size: 1
    weight_filler {
      type: "xavier"
      std: 0.09
    }
    bias_filler {
      type: "constant"
      value: 0.2
    }
  }
}
layer {
  name: "inception_4d/relu_3x3_reduce"
  type: "ReLU"
  bottom: "inception_4d/3x3_reduce"
  top: "inception_4d/3x3_reduce"
}
layer {
  name: "inception_4d/3x3"
  type: "Convolution"
  bottom: "inception_4d/3x3_reduce"
  top: "inception_4d/3x3"
  param {
    lr_mult: 1
    decay_mult: 1
  }
  param {
    lr_mult: 2
    decay_mult: 0
  }
  convolution_param {
    num_output: 288
    pad: 1
    kernel_size: 3
    weight_filler {
      type: "xavier"
      std: 0.03
    }
    bias_filler {
      type: "constant"
      value: 0.2
    }
  }
}
layer {
  name: "inception_4d/relu_3x3"
  type: "ReLU"
  bottom: "inception_4d/3x3"
  top: "inception_4d/3x3"
}
layer {
  name: "inception_4d/5x5_reduce"
  type: "Convolution"
  bottom: "inception_4c/output"
  top: "inception_4d/5x5_reduce"
  param {
    lr_mult: 1
    decay_mult: 1
  }
  param {
    lr_mult: 2
    decay_mult: 0
  }
  convolution_param {
    num_output: 32
    kernel_size: 1
    weight_filler {
      type: "xavier"
      std: 0.2
    }
    bias_filler {
      type: "constant"
      value: 0.2
    }
  }
}
layer {
  name: "inception_4d/relu_5x5_reduce"
  type: "ReLU"
  bottom: "inception_4d/5x5_reduce"
  top: "inception_4d/5x5_reduce"
}
layer {
  name: "inception_4d/5x5"
  type: "Convolution"
  bottom: "inception_4d/5x5_reduce"
  top: "inception_4d/5x5"
  param {
    lr_mult: 1
    decay_mult: 1
  }
  param {
    lr_mult: 2
    decay_mult: 0
  }
  convolution_param {
    num_output: 64
    pad: 2
    kernel_size: 5
    weight_filler {
      type: "xavier"
      std: 0.03
    }
    bias_filler {
      type: "constant"
      value: 0.2
    }
  }
}
layer {
  name: "inception_4d/relu_5x5"
  type: "ReLU"
  bottom: "inception_4d/5x5"
  top: "inception_4d/5x5"
}
layer {
  name: "inception_4d/pool"
  type: "Pooling"
  bottom: "inception_4c/output"
  top: "inception_4d/pool"
  pooling_param {
    pool: MAX
    kernel_size: 3
    stride: 1
    pad: 1
  }
}
layer {
  name: "inception_4d/pool_proj"
  type: "Convolution"
  bottom: "inception_4d/pool"
  top: "inception_4d/pool_proj"
  param {
    lr_mult: 1
    decay_mult: 1
  }
  param {
    lr_mult: 2
    decay_mult: 0
  }
  convolution_param {
    num_output: 64
    kernel_size: 1
    weight_filler {
      type: "xavier"
      std: 0.1
    }
    bias_filler {
      type: "constant"
      value: 0.2
    }
  }
}
layer {
  name: "inception_4d/relu_pool_proj"
  type: "ReLU"
  bottom: "inception_4d/pool_proj"
  top: "inception_4d/pool_proj"
}
layer {
  name: "inception_4d/output"
  type: "Concat"
  bottom: "inception_4d/1x1"
  bottom: "inception_4d/3x3"
  bottom: "inception_4d/5x5"
  bottom: "inception_4d/pool_proj"
  top: "inception_4d/output"
}
layer {
  name: "loss2/ave_pool"
  type: "Pooling"
  bottom: "inception_4d/output"
  top: "loss2/ave_pool"
  pooling_param {
    pool: AVE
    kernel_size: 5
    stride: 3
  }
}
layer {
  name: "loss2/conv"
  type: "Convolution"
  bottom: "loss2/ave_pool"
  top: "loss2/conv"
  param {
    lr_mult: 1
    decay_mult: 1
  }
  param {
    lr_mult: 2
    decay_mult: 0
  }
  convolution_param {
    num_output: 128
    kernel_size: 1
    weight_filler {
      type: "xavier"
      std: 0.08
    }
    bias_filler {
      type: "constant"
      value: 0.2
    }
  }
}
layer {
  name: "loss2/relu_conv"
  type: "ReLU"
  bottom: "loss2/conv"
  top: "loss2/conv"
}
layer {
  name: "loss2/fc"
  type: "InnerProduct"
  bottom: "loss2/conv"
  top: "loss2/fc"
  param {
    lr_mult: 1
    decay_mult: 1
  }
  param {
    lr_mult: 2
    decay_mult: 0
  }
  inner_product_param {
    num_output: 1024
    weight_filler {
      type: "xavier"
      std: 0.02
    }
    bias_filler {
      type: "constant"
      value: 0.2
    }
  }
}
layer {
  name: "loss2/relu_fc"
  type: "ReLU"
  bottom: "loss2/fc"
  top: "loss2/fc"
}
layer {
  name: "loss2/drop_fc"
  type: "Dropout"
  bottom: "loss2/fc"
  top: "loss2/fc"
  dropout_param {
    dropout_ratio: 0.7
  }
}
layer {
  name: "loss2/classifier_plantvillage"
  type: "InnerProduct"
  bottom: "loss2/fc"
  top: "loss2/classifier_plantvillage"
  param {
    lr_mult: 1
    decay_mult: 1
  }
  param {
    lr_mult: 2
    decay_mult: 0
  }
  inner_product_param {
    num_output: 38
    weight_filler {
      type: "xavier"
      std: 0.0009765625
    }
    bias_filler {
      type: "constant"
      value: 0
    }
  }
}
layer {
  name: "inception_4e/1x1"
  type: "Convolution"
  bottom: "inception_4d/output"
  top: "inception_4e/1x1"
  param {
    lr_mult: 1
    decay_mult: 1
  }
  param {
    lr_mult: 2
    decay_mult: 0
  }
  convolution_param {
    num_output: 256
    kernel_size: 1
    weight_filler {
      type: "xavier"
      std: 0.03
    }
    bias_filler {
      type: "constant"
      value: 0.2
    }
  }
}
layer {
  name: "inception_4e/relu_1x1"
  type: "ReLU"
  bottom: "inception_4e/1x1"
  top: "inception_4e/1x1"
}
layer {
  name: "inception_4e/3x3_reduce"
  type: "Convolution"
  bottom: "inception_4d/output"
  top: "inception_4e/3x3_reduce"
  param {
    lr_mult: 1
    decay_mult: 1
  }
  param {
    lr_mult: 2
    decay_mult: 0
  }
  convolution_param {
    num_output: 160
    kernel_size: 1
    weight_filler {
      type: "xavier"
      std: 0.09
    }
    bias_filler {
      type: "constant"
      value: 0.2
    }
  }
}
layer {
  name: "inception_4e/relu_3x3_reduce"
  type: "ReLU"
  bottom: "inception_4e/3x3_reduce"
  top: "inception_4e/3x3_reduce"
}
layer {
  name: "inception_4e/3x3"
  type: "Convolution"
  bottom: "inception_4e/3x3_reduce"
  top: "inception_4e/3x3"
  param {
    lr_mult: 1
    decay_mult: 1
  }
  param {
    lr_mult: 2
    decay_mult: 0
  }
  convolution_param {
    num_output: 320
    pad: 1
    kernel_size: 3
    weight_filler {
      type: "xavier"
      std: 0.03
    }
    bias_filler {
      type: "constant"
      value: 0.2
    }
  }
}
layer {
  name: "inception_4e/relu_3x3"
  type: "ReLU"
  bottom: "inception_4e/3x3"
  top: "inception_4e/3x3"
}
layer {
  name: "inception_4e/5x5_reduce"
  type: "Convolution"
  bottom: "inception_4d/output"
  top: "inception_4e/5x5_reduce"
  param {
    lr_mult: 1
    decay_mult: 1
  }
  param {
    lr_mult: 2
    decay_mult: 0
  }
  convolution_param {
    num_output: 32
    kernel_size: 1
    weight_filler {
      type: "xavier"
      std: 0.2
    }
    bias_filler {
      type: "constant"
      value: 0.2
    }
  }
}
layer {
  name: "inception_4e/relu_5x5_reduce"
  type: "ReLU"
  bottom: "inception_4e/5x5_reduce"
  top: "inception_4e/5x5_reduce"
}
layer {
  name: "inception_4e/5x5"
  type: "Convolution"
  bottom: "inception_4e/5x5_reduce"
  top: "inception_4e/
I0403 15:18:44.100038 11816 layer_factory.hpp:77] Creating layer data
I0403 15:18:44.100646 11816 net.cpp:91] Creating Layer data
I0403 15:18:44.100678 11816 net.cpp:399] data -> data
I0403 15:18:44.100729 11816 net.cpp:399] data -> label
I0403 15:18:44.100765 11816 data_transformer.cpp:25] Loading mean file from: /home/mohanty/data/final_dataset/lmdb/segmented-50-50/mean.binaryproto
I0403 15:18:44.103240 11819 db_lmdb.cpp:38] Opened lmdb /home/mohanty/data/final_dataset/lmdb/segmented-50-50/test_db
I0403 15:18:44.113955 11816 data_layer.cpp:41] output data size: 24,3,224,224
I0403 15:18:44.141832 11816 net.cpp:141] Setting up data
I0403 15:18:44.141902 11816 net.cpp:148] Top shape: 24 3 224 224 (3612672)
I0403 15:18:44.141927 11816 net.cpp:148] Top shape: 24 (24)
I0403 15:18:44.141942 11816 net.cpp:156] Memory required for data: 14450784
I0403 15:18:44.141969 11816 layer_factory.hpp:77] Creating layer label_data_1_split
I0403 15:18:44.141995 11816 net.cpp:91] Creating Layer label_data_1_split
I0403 15:18:44.142014 11816 net.cpp:425] label_data_1_split <- label
I0403 15:18:44.142046 11816 net.cpp:399] label_data_1_split -> label_data_1_split_0
I0403 15:18:44.142076 11816 net.cpp:399] label_data_1_split -> label_data_1_split_1
I0403 15:18:44.142096 11816 net.cpp:399] label_data_1_split -> label_data_1_split_2
I0403 15:18:44.142117 11816 net.cpp:399] label_data_1_split -> label_data_1_split_3
I0403 15:18:44.142138 11816 net.cpp:399] label_data_1_split -> label_data_1_split_4
I0403 15:18:44.142158 11816 net.cpp:399] label_data_1_split -> label_data_1_split_5
I0403 15:18:44.142177 11816 net.cpp:399] label_data_1_split -> label_data_1_split_6
I0403 15:18:44.142199 11816 net.cpp:399] label_data_1_split -> label_data_1_split_7
I0403 15:18:44.142217 11816 net.cpp:399] label_data_1_split -> label_data_1_split_8
I0403 15:18:44.142237 11816 net.cpp:399] label_data_1_split -> label_data_1_split_9
I0403 15:18:44.142355 11816 net.cpp:141] Setting up label_data_1_split
I0403 15:18:44.142380 11816 net.cpp:148] Top shape: 24 (24)
I0403 15:18:44.142397 11816 net.cpp:148] Top shape: 24 (24)
I0403 15:18:44.142424 11816 net.cpp:148] Top shape: 24 (24)
I0403 15:18:44.142443 11816 net.cpp:148] Top shape: 24 (24)
I0403 15:18:44.142460 11816 net.cpp:148] Top shape: 24 (24)
I0403 15:18:44.142475 11816 net.cpp:148] Top shape: 24 (24)
I0403 15:18:44.142491 11816 net.cpp:148] Top shape: 24 (24)
I0403 15:18:44.142508 11816 net.cpp:148] Top shape: 24 (24)
I0403 15:18:44.142524 11816 net.cpp:148] Top shape: 24 (24)
I0403 15:18:44.142540 11816 net.cpp:148] Top shape: 24 (24)
I0403 15:18:44.142585 11816 net.cpp:156] Memory required for data: 14451744
I0403 15:18:44.142601 11816 layer_factory.hpp:77] Creating layer conv1/7x7_s2
I0403 15:18:44.142632 11816 net.cpp:91] Creating Layer conv1/7x7_s2
I0403 15:18:44.142652 11816 net.cpp:425] conv1/7x7_s2 <- data
I0403 15:18:44.142671 11816 net.cpp:399] conv1/7x7_s2 -> conv1/7x7_s2
I0403 15:18:44.285459 11816 net.cpp:141] Setting up conv1/7x7_s2
I0403 15:18:44.285545 11816 net.cpp:148] Top shape: 24 64 112 112 (19267584)
I0403 15:18:44.285562 11816 net.cpp:156] Memory required for data: 91522080
I0403 15:18:44.285591 11816 layer_factory.hpp:77] Creating layer conv1/relu_7x7
I0403 15:18:44.285616 11816 net.cpp:91] Creating Layer conv1/relu_7x7
I0403 15:18:44.285634 11816 net.cpp:425] conv1/relu_7x7 <- conv1/7x7_s2
I0403 15:18:44.285652 11816 net.cpp:386] conv1/relu_7x7 -> conv1/7x7_s2 (in-place)
I0403 15:18:44.285897 11816 net.cpp:141] Setting up conv1/relu_7x7
I0403 15:18:44.285923 11816 net.cpp:148] Top shape: 24 64 112 112 (19267584)
I0403 15:18:44.285938 11816 net.cpp:156] Memory required for data: 168592416
I0403 15:18:44.285953 11816 layer_factory.hpp:77] Creating layer pool1/3x3_s2
I0403 15:18:44.285975 11816 net.cpp:91] Creating Layer pool1/3x3_s2
I0403 15:18:44.285992 11816 net.cpp:425] pool1/3x3_s2 <- conv1/7x7_s2
I0403 15:18:44.286010 11816 net.cpp:399] pool1/3x3_s2 -> pool1/3x3_s2
I0403 15:18:44.286077 11816 net.cpp:141] Setting up pool1/3x3_s2
I0403 15:18:44.286101 11816 net.cpp:148] Top shape: 24 64 56 56 (4816896)
I0403 15:18:44.286115 11816 net.cpp:156] Memory required for data: 187860000
I0403 15:18:44.286128 11816 layer_factory.hpp:77] Creating layer pool1/norm1
I0403 15:18:44.286151 11816 net.cpp:91] Creating Layer pool1/norm1
I0403 15:18:44.286167 11816 net.cpp:425] pool1/norm1 <- pool1/3x3_s2
I0403 15:18:44.286185 11816 net.cpp:399] pool1/norm1 -> pool1/norm1
I0403 15:18:44.286459 11816 net.cpp:141] Setting up pool1/norm1
I0403 15:18:44.286484 11816 net.cpp:148] Top shape: 24 64 56 56 (4816896)
I0403 15:18:44.286499 11816 net.cpp:156] Memory required for data: 207127584
I0403 15:18:44.286514 11816 layer_factory.hpp:77] Creating layer conv2/3x3_reduce
I0403 15:18:44.286536 11816 net.cpp:91] Creating Layer conv2/3x3_reduce
I0403 15:18:44.286552 11816 net.cpp:425] conv2/3x3_reduce <- pool1/norm1
I0403 15:18:44.286571 11816 net.cpp:399] conv2/3x3_reduce -> conv2/3x3_reduce
I0403 15:18:44.287866 11816 net.cpp:141] Setting up conv2/3x3_reduce
I0403 15:18:44.287897 11816 net.cpp:148] Top shape: 24 64 56 56 (4816896)
I0403 15:18:44.287914 11816 net.cpp:156] Memory required for data: 226395168
I0403 15:18:44.287933 11816 layer_factory.hpp:77] Creating layer conv2/relu_3x3_reduce
I0403 15:18:44.287951 11816 net.cpp:91] Creating Layer conv2/relu_3x3_reduce
I0403 15:18:44.287966 11816 net.cpp:425] conv2/relu_3x3_reduce <- conv2/3x3_reduce
I0403 15:18:44.287984 11816 net.cpp:386] conv2/relu_3x3_reduce -> conv2/3x3_reduce (in-place)
I0403 15:18:44.288244 11816 net.cpp:141] Setting up conv2/relu_3x3_reduce
I0403 15:18:44.288271 11816 net.cpp:148] Top shape: 24 64 56 56 (4816896)
I0403 15:18:44.288286 11816 net.cpp:156] Memory required for data: 245662752
I0403 15:18:44.288300 11816 layer_factory.hpp:77] Creating layer conv2/3x3
I0403 15:18:44.288323 11816 net.cpp:91] Creating Layer conv2/3x3
I0403 15:18:44.288341 11816 net.cpp:425] conv2/3x3 <- conv2/3x3_reduce
I0403 15:18:44.288359 11816 net.cpp:399] conv2/3x3 -> conv2/3x3
I0403 15:18:44.290634 11816 net.cpp:141] Setting up conv2/3x3
I0403 15:18:44.290666 11816 net.cpp:148] Top shape: 24 192 56 56 (14450688)
I0403 15:18:44.290684 11816 net.cpp:156] Memory required for data: 303465504
I0403 15:18:44.290705 11816 layer_factory.hpp:77] Creating layer conv2/relu_3x3
I0403 15:18:44.290724 11816 net.cpp:91] Creating Layer conv2/relu_3x3
I0403 15:18:44.290740 11816 net.cpp:425] conv2/relu_3x3 <- conv2/3x3
I0403 15:18:44.290760 11816 net.cpp:386] conv2/relu_3x3 -> conv2/3x3 (in-place)
I0403 15:18:44.290933 11816 net.cpp:141] Setting up conv2/relu_3x3
I0403 15:18:44.290958 11816 net.cpp:148] Top shape: 24 192 56 56 (14450688)
I0403 15:18:44.291002 11816 net.cpp:156] Memory required for data: 361268256
I0403 15:18:44.291018 11816 layer_factory.hpp:77] Creating layer conv2/norm2
I0403 15:18:44.291038 11816 net.cpp:91] Creating Layer conv2/norm2
I0403 15:18:44.291052 11816 net.cpp:425] conv2/norm2 <- conv2/3x3
I0403 15:18:44.291070 11816 net.cpp:399] conv2/norm2 -> conv2/norm2
I0403 15:18:44.291366 11816 net.cpp:141] Setting up conv2/norm2
I0403 15:18:44.291393 11816 net.cpp:148] Top shape: 24 192 56 56 (14450688)
I0403 15:18:44.291407 11816 net.cpp:156] Memory required for data: 419071008
I0403 15:18:44.291435 11816 layer_factory.hpp:77] Creating layer pool2/3x3_s2
I0403 15:18:44.291455 11816 net.cpp:91] Creating Layer pool2/3x3_s2
I0403 15:18:44.291471 11816 net.cpp:425] pool2/3x3_s2 <- conv2/norm2
I0403 15:18:44.291486 11816 net.cpp:399] pool2/3x3_s2 -> pool2/3x3_s2
I0403 15:18:44.291538 11816 net.cpp:141] Setting up pool2/3x3_s2
I0403 15:18:44.291559 11816 net.cpp:148] Top shape: 24 192 28 28 (3612672)
I0403 15:18:44.291574 11816 net.cpp:156] Memory required for data: 433521696
I0403 15:18:44.291587 11816 layer_factory.hpp:77] Creating layer pool2/3x3_s2_pool2/3x3_s2_0_split
I0403 15:18:44.291606 11816 net.cpp:91] Creating Layer pool2/3x3_s2_pool2/3x3_s2_0_split
I0403 15:18:44.291621 11816 net.cpp:425] pool2/3x3_s2_pool2/3x3_s2_0_split <- pool2/3x3_s2
I0403 15:18:44.291637 11816 net.cpp:399] pool2/3x3_s2_pool2/3x3_s2_0_split -> pool2/3x3_s2_pool2/3x3_s2_0_split_0
I0403 15:18:44.291656 11816 net.cpp:399] pool2/3x3_s2_pool2/3x3_s2_0_split -> pool2/3x3_s2_pool2/3x3_s2_0_split_1
I0403 15:18:44.291674 11816 net.cpp:399] pool2/3x3_s2_pool2/3x3_s2_0_split -> pool2/3x3_s2_pool2/3x3_s2_0_split_2
I0403 15:18:44.291692 11816 net.cpp:399] pool2/3x3_s2_pool2/3x3_s2_0_split -> pool2/3x3_s2_pool2/3x3_s2_0_split_3
I0403 15:18:44.291765 11816 net.cpp:141] Setting up pool2/3x3_s2_pool2/3x3_s2_0_split
I0403 15:18:44.291786 11816 net.cpp:148] Top shape: 24 192 28 28 (3612672)
I0403 15:18:44.291801 11816 net.cpp:148] Top shape: 24 192 28 28 (3612672)
I0403 15:18:44.291815 11816 net.cpp:148] Top shape: 24 192 28 28 (3612672)
I0403 15:18:44.291829 11816 net.cpp:148] Top shape: 24 192 28 28 (3612672)
I0403 15:18:44.291842 11816 net.cpp:156] Memory required for data: 491324448
I0403 15:18:44.291857 11816 layer_factory.hpp:77] Creating layer inception_3a/1x1
I0403 15:18:44.291877 11816 net.cpp:91] Creating Layer inception_3a/1x1
I0403 15:18:44.291894 11816 net.cpp:425] inception_3a/1x1 <- pool2/3x3_s2_pool2/3x3_s2_0_split_0
I0403 15:18:44.291913 11816 net.cpp:399] inception_3a/1x1 -> inception_3a/1x1
I0403 15:18:44.293421 11816 net.cpp:141] Setting up inception_3a/1x1
I0403 15:18:44.293452 11816 net.cpp:148] Top shape: 24 64 28 28 (1204224)
I0403 15:18:44.293467 11816 net.cpp:156] Memory required for data: 496141344
I0403 15:18:44.293485 11816 layer_factory.hpp:77] Creating layer inception_3a/relu_1x1
I0403 15:18:44.293503 11816 net.cpp:91] Creating Layer inception_3a/relu_1x1
I0403 15:18:44.293519 11816 net.cpp:425] inception_3a/relu_1x1 <- inception_3a/1x1
I0403 15:18:44.293534 11816 net.cpp:386] inception_3a/relu_1x1 -> inception_3a/1x1 (in-place)
I0403 15:18:44.293702 11816 net.cpp:141] Setting up inception_3a/relu_1x1
I0403 15:18:44.293727 11816 net.cpp:148] Top shape: 24 64 28 28 (1204224)
I0403 15:18:44.293741 11816 net.cpp:156] Memory required for data: 500958240
I0403 15:18:44.293756 11816 layer_factory.hpp:77] Creating layer inception_3a/3x3_reduce
I0403 15:18:44.293776 11816 net.cpp:91] Creating Layer inception_3a/3x3_reduce
I0403 15:18:44.293792 11816 net.cpp:425] inception_3a/3x3_reduce <- pool2/3x3_s2_pool2/3x3_s2_0_split_1
I0403 15:18:44.293813 11816 net.cpp:399] inception_3a/3x3_reduce -> inception_3a/3x3_reduce
I0403 15:18:44.295478 11816 net.cpp:141] Setting up inception_3a/3x3_reduce
I0403 15:18:44.295511 11816 net.cpp:148] Top shape: 24 96 28 28 (1806336)
I0403 15:18:44.295528 11816 net.cpp:156] Memory required for data: 508183584
I0403 15:18:44.295550 11816 layer_factory.hpp:77] Creating layer inception_3a/relu_3x3_reduce
I0403 15:18:44.295588 11816 net.cpp:91] Creating Layer inception_3a/relu_3x3_reduce
I0403 15:18:44.295608 11816 net.cpp:425] inception_3a/relu_3x3_reduce <- inception_3a/3x3_reduce
I0403 15:18:44.295624 11816 net.cpp:386] inception_3a/relu_3x3_reduce -> inception_3a/3x3_reduce (in-place)
I0403 15:18:44.295807 11816 net.cpp:141] Setting up inception_3a/relu_3x3_reduce
I0403 15:18:44.295835 11816 net.cpp:148] Top shape: 24 96 28 28 (1806336)
I0403 15:18:44.295850 11816 net.cpp:156] Memory required for data: 515408928
I0403 15:18:44.295866 11816 layer_factory.hpp:77] Creating layer inception_3a/3x3
I0403 15:18:44.295888 11816 net.cpp:91] Creating Layer inception_3a/3x3
I0403 15:18:44.295905 11816 net.cpp:425] inception_3a/3x3 <- inception_3a/3x3_reduce
I0403 15:18:44.295923 11816 net.cpp:399] inception_3a/3x3 -> inception_3a/3x3
I0403 15:18:44.297565 11816 net.cpp:141] Setting up inception_3a/3x3
I0403 15:18:44.297595 11816 net.cpp:148] Top shape: 24 128 28 28 (2408448)
I0403 15:18:44.297611 11816 net.cpp:156] Memory required for data: 525042720
I0403 15:18:44.297631 11816 layer_factory.hpp:77] Creating layer inception_3a/relu_3x3
I0403 15:18:44.297649 11816 net.cpp:91] Creating Layer inception_3a/relu_3x3
I0403 15:18:44.297664 11816 net.cpp:425] inception_3a/relu_3x3 <- inception_3a/3x3
I0403 15:18:44.297684 11816 net.cpp:386] inception_3a/relu_3x3 -> inception_3a/3x3 (in-place)
I0403 15:18:44.297953 11816 net.cpp:141] Setting up inception_3a/relu_3x3
I0403 15:18:44.297982 11816 net.cpp:148] Top shape: 24 128 28 28 (2408448)
I0403 15:18:44.297997 11816 net.cpp:156] Memory required for data: 534676512
I0403 15:18:44.298012 11816 layer_factory.hpp:77] Creating layer inception_3a/5x5_reduce
I0403 15:18:44.298033 11816 net.cpp:91] Creating Layer inception_3a/5x5_reduce
I0403 15:18:44.298050 11816 net.cpp:425] inception_3a/5x5_reduce <- pool2/3x3_s2_pool2/3x3_s2_0_split_2
I0403 15:18:44.298072 11816 net.cpp:399] inception_3a/5x5_reduce -> inception_3a/5x5_reduce
I0403 15:18:44.299020 11816 net.cpp:141] Setting up inception_3a/5x5_reduce
I0403 15:18:44.299048 11816 net.cpp:148] Top shape: 24 16 28 28 (301056)
I0403 15:18:44.299063 11816 net.cpp:156] Memory required for data: 535880736
I0403 15:18:44.299082 11816 layer_factory.hpp:77] Creating layer inception_3a/relu_5x5_reduce
I0403 15:18:44.299099 11816 net.cpp:91] Creating Layer inception_3a/relu_5x5_reduce
I0403 15:18:44.299115 11816 net.cpp:425] inception_3a/relu_5x5_reduce <- inception_3a/5x5_reduce
I0403 15:18:44.299135 11816 net.cpp:386] inception_3a/relu_5x5_reduce -> inception_3a/5x5_reduce (in-place)
I0403 15:18:44.299445 11816 net.cpp:141] Setting up inception_3a/relu_5x5_reduce
I0403 15:18:44.299473 11816 net.cpp:148] Top shape: 24 16 28 28 (301056)
I0403 15:18:44.299487 11816 net.cpp:156] Memory required for data: 537084960
I0403 15:18:44.299501 11816 layer_factory.hpp:77] Creating layer inception_3a/5x5
I0403 15:18:44.299525 11816 net.cpp:91] Creating Layer inception_3a/5x5
I0403 15:18:44.299541 11816 net.cpp:425] inception_3a/5x5 <- inception_3a/5x5_reduce
I0403 15:18:44.299562 11816 net.cpp:399] inception_3a/5x5 -> inception_3a/5x5
I0403 15:18:44.300562 11816 net.cpp:141] Setting up inception_3a/5x5
I0403 15:18:44.300593 11816 net.cpp:148] Top shape: 24 32 28 28 (602112)
I0403 15:18:44.300609 11816 net.cpp:156] Memory required for data: 539493408
I0403 15:18:44.300627 11816 layer_factory.hpp:77] Creating layer inception_3a/relu_5x5
I0403 15:18:44.300647 11816 net.cpp:91] Creating Layer inception_3a/relu_5x5
I0403 15:18:44.300662 11816 net.cpp:425] inception_3a/relu_5x5 <- inception_3a/5x5
I0403 15:18:44.300680 11816 net.cpp:386] inception_3a/relu_5x5 -> inception_3a/5x5 (in-place)
I0403 15:18:44.300856 11816 net.cpp:141] Setting up inception_3a/relu_5x5
I0403 15:18:44.300881 11816 net.cpp:148] Top shape: 24 32 28 28 (602112)
I0403 15:18:44.300896 11816 net.cpp:156] Memory required for data: 541901856
I0403 15:18:44.300910 11816 layer_factory.hpp:77] Creating layer inception_3a/pool
I0403 15:18:44.300928 11816 net.cpp:91] Creating Layer inception_3a/pool
I0403 15:18:44.300959 11816 net.cpp:425] inception_3a/pool <- pool2/3x3_s2_pool2/3x3_s2_0_split_3
I0403 15:18:44.300978 11816 net.cpp:399] inception_3a/pool -> inception_3a/pool
I0403 15:18:44.301034 11816 net.cpp:141] Setting up inception_3a/pool
I0403 15:18:44.301057 11816 net.cpp:148] Top shape: 24 192 28 28 (3612672)
I0403 15:18:44.301071 11816 net.cpp:156] Memory required for data: 556352544
I0403 15:18:44.301086 11816 layer_factory.hpp:77] Creating layer inception_3a/pool_proj
I0403 15:18:44.301107 11816 net.cpp:91] Creating Layer inception_3a/pool_proj
I0403 15:18:44.301125 11816 net.cpp:425] inception_3a/pool_proj <- inception_3a/pool
I0403 15:18:44.301146 11816 net.cpp:399] inception_3a/pool_proj -> inception_3a/pool_proj
I0403 15:18:44.302094 11816 net.cpp:141] Setting up inception_3a/pool_proj
I0403 15:18:44.302122 11816 net.cpp:148] Top shape: 24 32 28 28 (602112)
I0403 15:18:44.302137 11816 net.cpp:156] Memory required for data: 558760992
I0403 15:18:44.302161 11816 layer_factory.hpp:77] Creating layer inception_3a/relu_pool_proj
I0403 15:18:44.302181 11816 net.cpp:91] Creating Layer inception_3a/relu_pool_proj
I0403 15:18:44.302196 11816 net.cpp:425] inception_3a/relu_pool_proj <- inception_3a/pool_proj
I0403 15:18:44.302214 11816 net.cpp:386] inception_3a/relu_pool_proj -> inception_3a/pool_proj (in-place)
I0403 15:18:44.302502 11816 net.cpp:141] Setting up inception_3a/relu_pool_proj
I0403 15:18:44.302530 11816 net.cpp:148] Top shape: 24 32 28 28 (602112)
I0403 15:18:44.302544 11816 net.cpp:156] Memory required for data: 561169440
I0403 15:18:44.302559 11816 layer_factory.hpp:77] Creating layer inception_3a/output
I0403 15:18:44.302577 11816 net.cpp:91] Creating Layer inception_3a/output
I0403 15:18:44.302592 11816 net.cpp:425] inception_3a/output <- inception_3a/1x1
I0403 15:18:44.302608 11816 net.cpp:425] inception_3a/output <- inception_3a/3x3
I0403 15:18:44.302624 11816 net.cpp:425] inception_3a/output <- inception_3a/5x5
I0403 15:18:44.302639 11816 net.cpp:425] inception_3a/output <- inception_3a/pool_proj
I0403 15:18:44.302657 11816 net.cpp:399] inception_3a/output -> inception_3a/output
I0403 15:18:44.302701 11816 net.cpp:141] Setting up inception_3a/output
I0403 15:18:44.302727 11816 net.cpp:148] Top shape: 24 256 28 28 (4816896)
I0403 15:18:44.302742 11816 net.cpp:156] Memory required for data: 580437024
I0403 15:18:44.302757 11816 layer_factory.hpp:77] Creating layer inception_3a/output_inception_3a/output_0_split
I0403 15:18:44.302773 11816 net.cpp:91] Creating Layer inception_3a/output_inception_3a/output_0_split
I0403 15:18:44.302788 11816 net.cpp:425] inception_3a/output_inception_3a/output_0_split <- inception_3a/output
I0403 15:18:44.302805 11816 net.cpp:399] inception_3a/output_inception_3a/output_0_split -> inception_3a/output_inception_3a/output_0_split_0
I0403 15:18:44.302824 11816 net.cpp:399] inception_3a/output_inception_3a/output_0_split -> inception_3a/output_inception_3a/output_0_split_1
I0403 15:18:44.302848 11816 net.cpp:399] inception_3a/output_inception_3a/output_0_split -> inception_3a/output_inception_3a/output_0_split_2
I0403 15:18:44.302870 11816 net.cpp:399] inception_3a/output_inception_3a/output_0_split -> inception_3a/output_inception_3a/output_0_split_3
I0403 15:18:44.302942 11816 net.cpp:141] Setting up inception_3a/output_inception_3a/output_0_split
I0403 15:18:44.302966 11816 net.cpp:148] Top shape: 24 256 28 28 (4816896)
I0403 15:18:44.302983 11816 net.cpp:148] Top shape: 24 256 28 28 (4816896)
I0403 15:18:44.302999 11816 net.cpp:148] Top shape: 24 256 28 28 (4816896)
I0403 15:18:44.303015 11816 net.cpp:148] Top shape: 24 256 28 28 (4816896)
I0403 15:18:44.303028 11816 net.cpp:156] Memory required for data: 657507360
I0403 15:18:44.303042 11816 layer_factory.hpp:77] Creating layer inception_3b/1x1
I0403 15:18:44.303064 11816 net.cpp:91] Creating Layer inception_3b/1x1
I0403 15:18:44.303081 11816 net.cpp:425] inception_3b/1x1 <- inception_3a/output_inception_3a/output_0_split_0
I0403 15:18:44.303099 11816 net.cpp:399] inception_3b/1x1 -> inception_3b/1x1
I0403 15:18:44.304239 11816 net.cpp:141] Setting up inception_3b/1x1
I0403 15:18:44.304291 11816 net.cpp:148] Top shape: 24 128 28 28 (2408448)
I0403 15:18:44.304307 11816 net.cpp:156] Memory required for data: 667141152
I0403 15:18:44.304325 11816 layer_factory.hpp:77] Creating layer inception_3b/relu_1x1
I0403 15:18:44.304345 11816 net.cpp:91] Creating Layer inception_3b/relu_1x1
I0403 15:18:44.304363 11816 net.cpp:425] inception_3b/relu_1x1 <- inception_3b/1x1
I0403 15:18:44.304379 11816 net.cpp:386] inception_3b/relu_1x1 -> inception_3b/1x1 (in-place)
I0403 15:18:44.304558 11816 net.cpp:141] Setting up inception_3b/relu_1x1
I0403 15:18:44.304584 11816 net.cpp:148] Top shape: 24 128 28 28 (2408448)
I0403 15:18:44.304599 11816 net.cpp:156] Memory required for data: 676774944
I0403 15:18:44.304612 11816 layer_factory.hpp:77] Creating layer inception_3b/3x3_reduce
I0403 15:18:44.304635 11816 net.cpp:91] Creating Layer inception_3b/3x3_reduce
I0403 15:18:44.304651 11816 net.cpp:425] inception_3b/3x3_reduce <- inception_3a/output_inception_3a/output_0_split_1
I0403 15:18:44.304672 11816 net.cpp:399] inception_3b/3x3_reduce -> inception_3b/3x3_reduce
I0403 15:18:44.305797 11816 net.cpp:141] Setting up inception_3b/3x3_reduce
I0403 15:18:44.305829 11816 net.cpp:148] Top shape: 24 128 28 28 (2408448)
I0403 15:18:44.305845 11816 net.cpp:156] Memory required for data: 686408736
I0403 15:18:44.305863 11816 layer_factory.hpp:77] Creating layer inception_3b/relu_3x3_reduce
I0403 15:18:44.305881 11816 net.cpp:91] Creating Layer inception_3b/relu_3x3_reduce
I0403 15:18:44.305896 11816 net.cpp:425] inception_3b/relu_3x3_reduce <- inception_3b/3x3_reduce
I0403 15:18:44.305912 11816 net.cpp:386] inception_3b/relu_3x3_reduce -> inception_3b/3x3_reduce (in-place)
I0403 15:18:44.306087 11816 net.cpp:141] Setting up inception_3b/relu_3x3_reduce
I0403 15:18:44.306112 11816 net.cpp:148] Top shape: 24 128 28 28 (2408448)
I0403 15:18:44.306126 11816 net.cpp:156] Memory required for data: 696042528
I0403 15:18:44.306140 11816 layer_factory.hpp:77] Creating layer inception_3b/3x3
I0403 15:18:44.306165 11816 net.cpp:91] Creating Layer inception_3b/3x3
I0403 15:18:44.306183 11816 net.cpp:425] inception_3b/3x3 <- inception_3b/3x3_reduce
I0403 15:18:44.306203 11816 net.cpp:399] inception_3b/3x3 -> inception_3b/3x3
I0403 15:18:44.309137 11816 net.cpp:141] Setting up inception_3b/3x3
I0403 15:18:44.309167 11816 net.cpp:148] Top shape: 24 192 28 28 (3612672)
I0403 15:18:44.309185 11816 net.cpp:156] Memory required for data: 710493216
I0403 15:18:44.309202 11816 layer_factory.hpp:77] Creating layer inception_3b/relu_3x3
I0403 15:18:44.309219 11816 net.cpp:91] Creating Layer inception_3b/relu_3x3
I0403 15:18:44.309234 11816 net.cpp:425] inception_3b/relu_3x3 <- inception_3b/3x3
I0403 15:18:44.309253 11816 net.cpp:386] inception_3b/relu_3x3 -> inception_3b/3x3 (in-place)
I0403 15:18:44.309530 11816 net.cpp:141] Setting up inception_3b/relu_3x3
I0403 15:18:44.309556 11816 net.cpp:148] Top shape: 24 192 28 28 (3612672)
I0403 15:18:44.309572 11816 net.cpp:156] Memory required for data: 724943904
I0403 15:18:44.309587 11816 layer_factory.hpp:77] Creating layer inception_3b/5x5_reduce
I0403 15:18:44.309612 11816 net.cpp:91] Creating Layer inception_3b/5x5_reduce
I0403 15:18:44.309629 11816 net.cpp:425] inception_3b/5x5_reduce <- inception_3a/output_inception_3a/output_0_split_2
I0403 15:18:44.309651 11816 net.cpp:399] inception_3b/5x5_reduce -> inception_3b/5x5_reduce
I0403 15:18:44.310626 11816 net.cpp:141] Setting up inception_3b/5x5_reduce
I0403 15:18:44.310654 11816 net.cpp:148] Top shape: 24 32 28 28 (602112)
I0403 15:18:44.310670 11816 net.cpp:156] Memory required for data: 727352352
I0403 15:18:44.310688 11816 layer_factory.hpp:77] Creating layer inception_3b/relu_5x5_reduce
I0403 15:18:44.310705 11816 net.cpp:91] Creating Layer inception_3b/relu_5x5_reduce
I0403 15:18:44.310727 11816 net.cpp:425] inception_3b/relu_5x5_reduce <- inception_3b/5x5_reduce
I0403 15:18:44.310746 11816 net.cpp:386] inception_3b/relu_5x5_reduce -> inception_3b/5x5_reduce (in-place)
I0403 15:18:44.310935 11816 net.cpp:141] Setting up inception_3b/relu_5x5_reduce
I0403 15:18:44.310959 11816 net.cpp:148] Top shape: 24 32 28 28 (602112)
I0403 15:18:44.310974 11816 net.cpp:156] Memory required for data: 729760800
I0403 15:18:44.310989 11816 layer_factory.hpp:77] Creating layer inception_3b/5x5
I0403 15:18:44.311012 11816 net.cpp:91] Creating Layer inception_3b/5x5
I0403 15:18:44.311030 11816 net.cpp:425] inception_3b/5x5 <- inception_3b/5x5_reduce
I0403 15:18:44.311051 11816 net.cpp:399] inception_3b/5x5 -> inception_3b/5x5
I0403 15:18:44.313040 11816 net.cpp:141] Setting up inception_3b/5x5
I0403 15:18:44.313072 11816 net.cpp:148] Top shape: 24 96 28 28 (1806336)
I0403 15:18:44.313091 11816 net.cpp:156] Memory required for data: 736986144
I0403 15:18:44.313110 11816 layer_factory.hpp:77] Creating layer inception_3b/relu_5x5
I0403 15:18:44.313127 11816 net.cpp:91] Creating Layer inception_3b/relu_5x5
I0403 15:18:44.313143 11816 net.cpp:425] inception_3b/relu_5x5 <- inception_3b/5x5
I0403 15:18:44.313159 11816 net.cpp:386] inception_3b/relu_5x5 -> inception_3b/5x5 (in-place)
I0403 15:18:44.313349 11816 net.cpp:141] Setting up inception_3b/relu_5x5
I0403 15:18:44.313375 11816 net.cpp:148] Top shape: 24 96 28 28 (1806336)
I0403 15:18:44.313390 11816 net.cpp:156] Memory required for data: 744211488
I0403 15:18:44.313405 11816 layer_factory.hpp:77] Creating layer inception_3b/pool
I0403 15:18:44.313426 11816 net.cpp:91] Creating Layer inception_3b/pool
I0403 15:18:44.313442 11816 net.cpp:425] inception_3b/pool <- inception_3a/output_inception_3a/output_0_split_3
I0403 15:18:44.313459 11816 net.cpp:399] inception_3b/pool -> inception_3b/pool
I0403 15:18:44.313514 11816 net.cpp:141] Setting up inception_3b/pool
I0403 15:18:44.313540 11816 net.cpp:148] Top shape: 24 256 28 28 (4816896)
I0403 15:18:44.313555 11816 net.cpp:156] Memory required for data: 763479072
I0403 15:18:44.313570 11816 layer_factory.hpp:77] Creating layer inception_3b/pool_proj
I0403 15:18:44.313591 11816 net.cpp:91] Creating Layer inception_3b/pool_proj
I0403 15:18:44.313607 11816 net.cpp:425] inception_3b/pool_proj <- inception_3b/pool
I0403 15:18:44.313626 11816 net.cpp:399] inception_3b/pool_proj -> inception_3b/pool_proj
I0403 15:18:44.314664 11816 net.cpp:141] Setting up inception_3b/pool_proj
I0403 15:18:44.314693 11816 net.cpp:148] Top shape: 24 64 28 28 (1204224)
I0403 15:18:44.314709 11816 net.cpp:156] Memory required for data: 768295968
I0403 15:18:44.314728 11816 layer_factory.hpp:77] Creating layer inception_3b/relu_pool_proj
I0403 15:18:44.314748 11816 net.cpp:91] Creating Layer inception_3b/relu_pool_proj
I0403 15:18:44.314764 11816 net.cpp:425] inception_3b/relu_pool_proj <- inception_3b/pool_proj
I0403 15:18:44.314782 11816 net.cpp:386] inception_3b/relu_pool_proj -> inception_3b/pool_proj (in-place)
I0403 15:18:44.315176 11816 net.cpp:141] Setting up inception_3b/relu_pool_proj
I0403 15:18:44.315203 11816 net.cpp:148] Top shape: 24 64 28 28 (1204224)
I0403 15:18:44.315219 11816 net.cpp:156] Memory required for data: 773112864
I0403 15:18:44.315235 11816 layer_factory.hpp:77] Creating layer inception_3b/output
I0403 15:18:44.315253 11816 net.cpp:91] Creating Layer inception_3b/output
I0403 15:18:44.315268 11816 net.cpp:425] inception_3b/output <- inception_3b/1x1
I0403 15:18:44.315285 11816 net.cpp:425] inception_3b/output <- inception_3b/3x3
I0403 15:18:44.315301 11816 net.cpp:425] inception_3b/output <- inception_3b/5x5
I0403 15:18:44.315317 11816 net.cpp:425] inception_3b/output <- inception_3b/pool_proj
I0403 15:18:44.315337 11816 net.cpp:399] inception_3b/output -> inception_3b/output
I0403 15:18:44.315383 11816 net.cpp:141] Setting up inception_3b/output
I0403 15:18:44.315414 11816 net.cpp:148] Top shape: 24 480 28 28 (9031680)
I0403 15:18:44.315433 11816 net.cpp:156] Memory required for data: 809239584
I0403 15:18:44.315448 11816 layer_factory.hpp:77] Creating layer pool3/3x3_s2
I0403 15:18:44.315464 11816 net.cpp:91] Creating Layer pool3/3x3_s2
I0403 15:18:44.315480 11816 net.cpp:425] pool3/3x3_s2 <- inception_3b/output
I0403 15:18:44.315516 11816 net.cpp:399] pool3/3x3_s2 -> pool3/3x3_s2
I0403 15:18:44.315577 11816 net.cpp:141] Setting up pool3/3x3_s2
I0403 15:18:44.315599 11816 net.cpp:148] Top shape: 24 480 14 14 (2257920)
I0403 15:18:44.315614 11816 net.cpp:156] Memory required for data: 818271264
I0403 15:18:44.315629 11816 layer_factory.hpp:77] Creating layer pool3/3x3_s2_pool3/3x3_s2_0_split
I0403 15:18:44.315650 11816 net.cpp:91] Creating Layer pool3/3x3_s2_pool3/3x3_s2_0_split
I0403 15:18:44.315666 11816 net.cpp:425] pool3/3x3_s2_pool3/3x3_s2_0_split <- pool3/3x3_s2
I0403 15:18:44.315683 11816 net.cpp:399] pool3/3x3_s2_pool3/3x3_s2_0_split -> pool3/3x3_s2_pool3/3x3_s2_0_split_0
I0403 15:18:44.315702 11816 net.cpp:399] pool3/3x3_s2_pool3/3x3_s2_0_split -> pool3/3x3_s2_pool3/3x3_s2_0_split_1
I0403 15:18:44.315723 11816 net.cpp:399] pool3/3x3_s2_pool3/3x3_s2_0_split -> pool3/3x3_s2_pool3/3x3_s2_0_split_2
I0403 15:18:44.315743 11816 net.cpp:399] pool3/3x3_s2_pool3/3x3_s2_0_split -> pool3/3x3_s2_pool3/3x3_s2_0_split_3
I0403 15:18:44.315816 11816 net.cpp:141] Setting up pool3/3x3_s2_pool3/3x3_s2_0_split
I0403 15:18:44.315839 11816 net.cpp:148] Top shape: 24 480 14 14 (2257920)
I0403 15:18:44.315855 11816 net.cpp:148] Top shape: 24 480 14 14 (2257920)
I0403 15:18:44.315870 11816 net.cpp:148] Top shape: 24 480 14 14 (2257920)
I0403 15:18:44.315884 11816 net.cpp:148] Top shape: 24 480 14 14 (2257920)
I0403 15:18:44.315897 11816 net.cpp:156] Memory required for data: 854397984
I0403 15:18:44.315910 11816 layer_factory.hpp:77] Creating layer inception_4a/1x1
I0403 15:18:44.315932 11816 net.cpp:91] Creating Layer inception_4a/1x1
I0403 15:18:44.315949 11816 net.cpp:425] inception_4a/1x1 <- pool3/3x3_s2_pool3/3x3_s2_0_split_0
I0403 15:18:44.315969 11816 net.cpp:399] inception_4a/1x1 -> inception_4a/1x1
I0403 15:18:44.317539 11816 net.cpp:141] Setting up inception_4a/1x1
I0403 15:18:44.317567 11816 net.cpp:148] Top shape: 24 192 14 14 (903168)
I0403 15:18:44.317584 11816 net.cpp:156] Memory required for data: 858010656
I0403 15:18:44.317602 11816 layer_factory.hpp:77] Creating layer inception_4a/relu_1x1
I0403 15:18:44.317623 11816 net.cpp:91] Creating Layer inception_4a/relu_1x1
I0403 15:18:44.317641 11816 net.cpp:425] inception_4a/relu_1x1 <- inception_4a/1x1
I0403 15:18:44.317661 11816 net.cpp:386] inception_4a/relu_1x1 -> inception_4a/1x1 (in-place)
I0403 15:18:44.317838 11816 net.cpp:141] Setting up inception_4a/relu_1x1
I0403 15:18:44.317867 11816 net.cpp:148] Top shape: 24 192 14 14 (903168)
I0403 15:18:44.317884 11816 net.cpp:156] Memory required for data: 861623328
I0403 15:18:44.317899 11816 layer_factory.hpp:77] Creating layer inception_4a/3x3_reduce
I0403 15:18:44.317921 11816 net.cpp:91] Creating Layer inception_4a/3x3_reduce
I0403 15:18:44.317939 11816 net.cpp:425] inception_4a/3x3_reduce <- pool3/3x3_s2_pool3/3x3_s2_0_split_1
I0403 15:18:44.317957 11816 net.cpp:399] inception_4a/3x3_reduce -> inception_4a/3x3_reduce
I0403 15:18:44.319232 11816 net.cpp:141] Setting up inception_4a/3x3_reduce
I0403 15:18:44.319262 11816 net.cpp:148] Top shape: 24 96 14 14 (451584)
I0403 15:18:44.319278 11816 net.cpp:156] Memory required for data: 863429664
I0403 15:18:44.319303 11816 layer_factory.hpp:77] Creating layer inception_4a/relu_3x3_reduce
I0403 15:18:44.319325 11816 net.cpp:91] Creating Layer inception_4a/relu_3x3_reduce
I0403 15:18:44.319344 11816 net.cpp:425] inception_4a/relu_3x3_reduce <- inception_4a/3x3_reduce
I0403 15:18:44.319362 11816 net.cpp:386] inception_4a/relu_3x3_reduce -> inception_4a/3x3_reduce (in-place)
I0403 15:18:44.319540 11816 net.cpp:141] Setting up inception_4a/relu_3x3_reduce
I0403 15:18:44.319564 11816 net.cpp:148] Top shape: 24 96 14 14 (451584)
I0403 15:18:44.319578 11816 net.cpp:156] Memory required for data: 865236000
I0403 15:18:44.319593 11816 layer_factory.hpp:77] Creating layer inception_4a/3x3
I0403 15:18:44.319617 11816 net.cpp:91] Creating Layer inception_4a/3x3
I0403 15:18:44.319634 11816 net.cpp:425] inception_4a/3x3 <- inception_4a/3x3_reduce
I0403 15:18:44.319653 11816 net.cpp:399] inception_4a/3x3 -> inception_4a/3x3
I0403 15:18:44.322335 11816 net.cpp:141] Setting up inception_4a/3x3
I0403 15:18:44.322366 11816 net.cpp:148] Top shape: 24 208 14 14 (978432)
I0403 15:18:44.322384 11816 net.cpp:156] Memory required for data: 869149728
I0403 15:18:44.322403 11816 layer_factory.hpp:77] Creating layer inception_4a/relu_3x3
I0403 15:18:44.322433 11816 net.cpp:91] Creating Layer inception_4a/relu_3x3
I0403 15:18:44.322451 11816 net.cpp:425] inception_4a/relu_3x3 <- inception_4a/3x3
I0403 15:18:44.322470 11816 net.cpp:386] inception_4a/relu_3x3 -> inception_4a/3x3 (in-place)
I0403 15:18:44.322751 11816 net.cpp:141] Setting up inception_4a/relu_3x3
I0403 15:18:44.322780 11816 net.cpp:148] Top shape: 24 208 14 14 (978432)
I0403 15:18:44.322798 11816 net.cpp:156] Memory required for data: 873063456
I0403 15:18:44.322813 11816 layer_factory.hpp:77] Creating layer inception_4a/5x5_reduce
I0403 15:18:44.322835 11816 net.cpp:91] Creating Layer inception_4a/5x5_reduce
I0403 15:18:44.322852 11816 net.cpp:425] inception_4a/5x5_reduce <- pool3/3x3_s2_pool3/3x3_s2_0_split_2
I0403 15:18:44.322873 11816 net.cpp:399] inception_4a/5x5_reduce -> inception_4a/5x5_reduce
I0403 15:18:44.323881 11816 net.cpp:141] Setting up inception_4a/5x5_reduce
I0403 15:18:44.323912 11816 net.cpp:148] Top shape: 24 16 14 14 (75264)
I0403 15:18:44.323930 11816 net.cpp:156] Memory required for data: 873364512
I0403 15:18:44.323950 11816 layer_factory.hpp:77] Creating layer inception_4a/relu_5x5_reduce
I0403 15:18:44.323967 11816 net.cpp:91] Creating Layer inception_4a/relu_5x5_reduce
I0403 15:18:44.323984 11816 net.cpp:425] inception_4a/relu_5x5_reduce <- inception_4a/5x5_reduce
I0403 15:18:44.324005 11816 net.cpp:386] inception_4a/relu_5x5_reduce -> inception_4a/5x5_reduce (in-place)
I0403 15:18:44.324184 11816 net.cpp:141] Setting up inception_4a/relu_5x5_reduce
I0403 15:18:44.324211 11816 net.cpp:148] Top shape: 24 16 14 14 (75264)
I0403 15:18:44.324226 11816 net.cpp:156] Memory required for data: 873665568
I0403 15:18:44.324242 11816 layer_factory.hpp:77] Creating layer inception_4a/5x5
I0403 15:18:44.324265 11816 net.cpp:91] Creating Layer inception_4a/5x5
I0403 15:18:44.324285 11816 net.cpp:425] inception_4a/5x5 <- inception_4a/5x5_reduce
I0403 15:18:44.324306 11816 net.cpp:399] inception_4a/5x5 -> inception_4a/5x5
I0403 15:18:44.325376 11816 net.cpp:141] Setting up inception_4a/5x5
I0403 15:18:44.325405 11816 net.cpp:148] Top shape: 24 48 14 14 (225792)
I0403 15:18:44.325426 11816 net.cpp:156] Memory required for data: 874568736
I0403 15:18:44.325446 11816 layer_factory.hpp:77] Creating layer inception_4a/relu_5x5
I0403 15:18:44.325479 11816 net.cpp:91] Creating Layer inception_4a/relu_5x5
I0403 15:18:44.325498 11816 net.cpp:425] inception_4a/relu_5x5 <- inception_4a/5x5
I0403 15:18:44.325517 11816 net.cpp:386] inception_4a/relu_5x5 -> inception_4a/5x5 (in-place)
I0403 15:18:44.325697 11816 net.cpp:141] Setting up inception_4a/relu_5x5
I0403 15:18:44.325724 11816 net.cpp:148] Top shape: 24 48 14 14 (225792)
I0403 15:18:44.325741 11816 net.cpp:156] Memory required for data: 875471904
I0403 15:18:44.325755 11816 layer_factory.hpp:77] Creating layer inception_4a/pool
I0403 15:18:44.325788 11816 net.cpp:91] Creating Layer inception_4a/pool
I0403 15:18:44.325804 11816 net.cpp:425] inception_4a/pool <- pool3/3x3_s2_pool3/3x3_s2_0_split_3
I0403 15:18:44.325824 11816 net.cpp:399] inception_4a/pool -> inception_4a/pool
I0403 15:18:44.325883 11816 net.cpp:141] Setting up inception_4a/pool
I0403 15:18:44.325908 11816 net.cpp:148] Top shape: 24 480 14 14 (2257920)
I0403 15:18:44.325923 11816 net.cpp:156] Memory required for data: 884503584
I0403 15:18:44.325938 11816 layer_factory.hpp:77] Creating layer inception_4a/pool_proj
I0403 15:18:44.325961 11816 net.cpp:91] Creating Layer inception_4a/pool_proj
I0403 15:18:44.325979 11816 net.cpp:425] inception_4a/pool_proj <- inception_4a/pool
I0403 15:18:44.326000 11816 net.cpp:399] inception_4a/pool_proj -> inception_4a/pool_proj
I0403 15:18:44.327157 11816 net.cpp:141] Setting up inception_4a/pool_proj
I0403 15:18:44.327186 11816 net.cpp:148] Top shape: 24 64 14 14 (301056)
I0403 15:18:44.327217 11816 net.cpp:156] Memory required for data: 885707808
I0403 15:18:44.327239 11816 layer_factory.hpp:77] Creating layer inception_4a/relu_pool_proj
I0403 15:18:44.327260 11816 net.cpp:91] Creating Layer inception_4a/relu_pool_proj
I0403 15:18:44.327277 11816 net.cpp:425] inception_4a/relu_pool_proj <- inception_4a/pool_proj
I0403 15:18:44.327296 11816 net.cpp:386] inception_4a/relu_pool_proj -> inception_4a/pool_proj (in-place)
I0403 15:18:44.327584 11816 net.cpp:141] Setting up inception_4a/relu_pool_proj
I0403 15:18:44.327611 11816 net.cpp:148] Top shape: 24 64 14 14 (301056)
I0403 15:18:44.327626 11816 net.cpp:156] Memory required for data: 886912032
I0403 15:18:44.327641 11816 layer_factory.hpp:77] Creating layer inception_4a/output
I0403 15:18:44.327658 11816 net.cpp:91] Creating Layer inception_4a/output
I0403 15:18:44.327673 11816 net.cpp:425] inception_4a/output <- inception_4a/1x1
I0403 15:18:44.327692 11816 net.cpp:425] inception_4a/output <- inception_4a/3x3
I0403 15:18:44.327708 11816 net.cpp:425] inception_4a/output <- inception_4a/5x5
I0403 15:18:44.327724 11816 net.cpp:425] inception_4a/output <- inception_4a/pool_proj
I0403 15:18:44.327740 11816 net.cpp:399] inception_4a/output -> inception_4a/output
I0403 15:18:44.327786 11816 net.cpp:141] Setting up inception_4a/output
I0403 15:18:44.327810 11816 net.cpp:148] Top shape: 24 512 14 14 (2408448)
I0403 15:18:44.327823 11816 net.cpp:156] Memory required for data: 896545824
I0403 15:18:44.327837 11816 layer_factory.hpp:77] Creating layer inception_4a/output_inception_4a/output_0_split
I0403 15:18:44.327855 11816 net.cpp:91] Creating Layer inception_4a/output_inception_4a/output_0_split
I0403 15:18:44.327870 11816 net.cpp:425] inception_4a/output_inception_4a/output_0_split <- inception_4a/output
I0403 15:18:44.327889 11816 net.cpp:399] inception_4a/output_inception_4a/output_0_split -> inception_4a/output_inception_4a/output_0_split_0
I0403 15:18:44.327910 11816 net.cpp:399] inception_4a/output_inception_4a/output_0_split -> inception_4a/output_inception_4a/output_0_split_1
I0403 15:18:44.327930 11816 net.cpp:399] inception_4a/output_inception_4a/output_0_split -> inception_4a/output_inception_4a/output_0_split_2
I0403 15:18:44.327950 11816 net.cpp:399] inception_4a/output_inception_4a/output_0_split -> inception_4a/output_inception_4a/output_0_split_3
I0403 15:18:44.327967 11816 net.cpp:399] inception_4a/output_inception_4a/output_0_split -> inception_4a/output_inception_4a/output_0_split_4
I0403 15:18:44.328058 11816 net.cpp:141] Setting up inception_4a/output_inception_4a/output_0_split
I0403 15:18:44.328080 11816 net.cpp:148] Top shape: 24 512 14 14 (2408448)
I0403 15:18:44.328096 11816 net.cpp:148] Top shape: 24 512 14 14 (2408448)
I0403 15:18:44.328111 11816 net.cpp:148] Top shape: 24 512 14 14 (2408448)
I0403 15:18:44.328126 11816 net.cpp:148] Top shape: 24 512 14 14 (2408448)
I0403 15:18:44.328141 11816 net.cpp:148] Top shape: 24 512 14 14 (2408448)
I0403 15:18:44.328155 11816 net.cpp:156] Memory required for data: 944714784
I0403 15:18:44.328168 11816 layer_factory.hpp:77] Creating layer loss1/ave_pool
I0403 15:18:44.328186 11816 net.cpp:91] Creating Layer loss1/ave_pool
I0403 15:18:44.328200 11816 net.cpp:425] loss1/ave_pool <- inception_4a/output_inception_4a/output_0_split_0
I0403 15:18:44.328220 11816 net.cpp:399] loss1/ave_pool -> loss1/ave_pool
I0403 15:18:44.328438 11816 net.cpp:141] Setting up loss1/ave_pool
I0403 15:18:44.328464 11816 net.cpp:148] Top shape: 24 512 4 4 (196608)
I0403 15:18:44.328479 11816 net.cpp:156] Memory required for data: 945501216
I0403 15:18:44.328492 11816 layer_factory.hpp:77] Creating layer loss1/conv
I0403 15:18:44.328515 11816 net.cpp:91] Creating Layer loss1/conv
I0403 15:18:44.328531 11816 net.cpp:425] loss1/conv <- loss1/ave_pool
I0403 15:18:44.328552 11816 net.cpp:399] loss1/conv -> loss1/conv
I0403 15:18:44.329959 11816 net.cpp:141] Setting up loss1/conv
I0403 15:18:44.329990 11816 net.cpp:148] Top shape: 24 128 4 4 (49152)
I0403 15:18:44.330021 11816 net.cpp:156] Memory required for data: 945697824
I0403 15:18:44.330041 11816 layer_factory.hpp:77] Creating layer loss1/relu_conv
I0403 15:18:44.330060 11816 net.cpp:91] Creating Layer loss1/relu_conv
I0403 15:18:44.330076 11816 net.cpp:425] loss1/relu_conv <- loss1/conv
I0403 15:18:44.330093 11816 net.cpp:386] loss1/relu_conv -> loss1/conv (in-place)
I0403 15:18:44.330373 11816 net.cpp:141] Setting up loss1/relu_conv
I0403 15:18:44.330404 11816 net.cpp:148] Top shape: 24 128 4 4 (49152)
I0403 15:18:44.330425 11816 net.cpp:156] Memory required for data: 945894432
I0403 15:18:44.330441 11816 layer_factory.hpp:77] Creating layer loss1/fc
I0403 15:18:44.330466 11816 net.cpp:91] Creating Layer loss1/fc
I0403 15:18:44.330483 11816 net.cpp:425] loss1/fc <- loss1/conv
I0403 15:18:44.330504 11816 net.cpp:399] loss1/fc -> loss1/fc
I0403 15:18:44.348131 11816 net.cpp:141] Setting up loss1/fc
I0403 15:18:44.348186 11816 net.cpp:148] Top shape: 24 1024 (24576)
I0403 15:18:44.348201 11816 net.cpp:156] Memory required for data: 945992736
I0403 15:18:44.348219 11816 layer_factory.hpp:77] Creating layer loss1/relu_fc
I0403 15:18:44.348239 11816 net.cpp:91] Creating Layer loss1/relu_fc
I0403 15:18:44.348255 11816 net.cpp:425] loss1/relu_fc <- loss1/fc
I0403 15:18:44.348273 11816 net.cpp:386] loss1/relu_fc -> loss1/fc (in-place)
I0403 15:18:44.348482 11816 net.cpp:141] Setting up loss1/relu_fc
I0403 15:18:44.348510 11816 net.cpp:148] Top shape: 24 1024 (24576)
I0403 15:18:44.348525 11816 net.cpp:156] Memory required for data: 946091040
I0403 15:18:44.348538 11816 layer_factory.hpp:77] Creating layer loss1/drop_fc
I0403 15:18:44.348564 11816 net.cpp:91] Creating Layer loss1/drop_fc
I0403 15:18:44.348582 11816 net.cpp:425] loss1/drop_fc <- loss1/fc
I0403 15:18:44.348599 11816 net.cpp:386] loss1/drop_fc -> loss1/fc (in-place)
I0403 15:18:44.348650 11816 net.cpp:141] Setting up loss1/drop_fc
I0403 15:18:44.348673 11816 net.cpp:148] Top shape: 24 1024 (24576)
I0403 15:18:44.348687 11816 net.cpp:156] Memory required for data: 946189344
I0403 15:18:44.348711 11816 layer_factory.hpp:77] Creating layer loss1/classifier_plantvillage
I0403 15:18:44.348732 11816 net.cpp:91] Creating Layer loss1/classifier_plantvillage
I0403 15:18:44.348748 11816 net.cpp:425] loss1/classifier_plantvillage <- loss1/fc
I0403 15:18:44.348765 11816 net.cpp:399] loss1/classifier_plantvillage -> loss1/classifier_plantvillage
I0403 15:18:44.349665 11816 net.cpp:141] Setting up loss1/classifier_plantvillage
I0403 15:18:44.349696 11816 net.cpp:148] Top shape: 24 38 (912)
I0403 15:18:44.349725 11816 net.cpp:156] Memory required for data: 946192992
I0403 15:18:44.349743 11816 layer_factory.hpp:77] Creating layer loss1/classifier_plantvillage_loss1/classifier_plantvillage_0_split
I0403 15:18:44.349761 11816 net.cpp:91] Creating Layer loss1/classifier_plantvillage_loss1/classifier_plantvillage_0_split
I0403 15:18:44.349776 11816 net.cpp:425] loss1/classifier_plantvillage_loss1/classifier_plantvillage_0_split <- loss1/classifier_plantvillage
I0403 15:18:44.349792 11816 net.cpp:399] loss1/classifier_plantvillage_loss1/classifier_plantvillage_0_split -> loss1/classifier_plantvillage_loss1/classifier_plantvillage_0_split_0
I0403 15:18:44.349812 11816 net.cpp:399] loss1/classifier_plantvillage_loss1/classifier_plantvillage_0_split -> loss1/classifier_plantvillage_loss1/classifier_plantvillage_0_split_1
I0403 15:18:44.349843 11816 net.cpp:399] loss1/classifier_plantvillage_loss1/classifier_plantvillage_0_split -> loss1/classifier_plantvillage_loss1/classifier_plantvillage_0_split_2
I0403 15:18:44.349906 11816 net.cpp:141] Setting up loss1/classifier_plantvillage_loss1/classifier_plantvillage_0_split
I0403 15:18:44.349930 11816 net.cpp:148] Top shape: 24 38 (912)
I0403 15:18:44.349946 11816 net.cpp:148] Top shape: 24 38 (912)
I0403 15:18:44.349961 11816 net.cpp:148] Top shape: 24 38 (912)
I0403 15:18:44.349974 11816 net.cpp:156] Memory required for data: 946203936
I0403 15:18:44.349988 11816 layer_factory.hpp:77] Creating layer inception_4b/1x1
I0403 15:18:44.350008 11816 net.cpp:91] Creating Layer inception_4b/1x1
I0403 15:18:44.350045 11816 net.cpp:425] inception_4b/1x1 <- inception_4a/output_inception_4a/output_0_split_1
I0403 15:18:44.350069 11816 net.cpp:399] inception_4b/1x1 -> inception_4b/1x1
I0403 15:18:44.351730 11816 net.cpp:141] Setting up inception_4b/1x1
I0403 15:18:44.351763 11816 net.cpp:148] Top shape: 24 160 14 14 (752640)
I0403 15:18:44.351779 11816 net.cpp:156] Memory required for data: 949214496
I0403 15:18:44.351799 11816 layer_factory.hpp:77] Creating layer inception_4b/relu_1x1
I0403 15:18:44.351815 11816 net.cpp:91] Creating Layer inception_4b/relu_1x1
I0403 15:18:44.351843 11816 net.cpp:425] inception_4b/relu_1x1 <- inception_4b/1x1
I0403 15:18:44.351862 11816 net.cpp:386] inception_4b/relu_1x1 -> inception_4b/1x1 (in-place)
I0403 15:18:44.352040 11816 net.cpp:141] Setting up inception_4b/relu_1x1
I0403 15:18:44.352063 11816 net.cpp:148] Top shape: 24 160 14 14 (752640)
I0403 15:18:44.352078 11816 net.cpp:156] Memory required for data: 952225056
I0403 15:18:44.352092 11816 layer_factory.hpp:77] Creating layer inception_4b/3x3_reduce
I0403 15:18:44.352113 11816 net.cpp:91] Creating Layer inception_4b/3x3_reduce
I0403 15:18:44.352129 11816 net.cpp:425] inception_4b/3x3_reduce <- inception_4a/output_inception_4a/output_0_split_2
I0403 15:18:44.352149 11816 net.cpp:399] inception_4b/3x3_reduce -> inception_4b/3x3_reduce
I0403 15:18:44.353487 11816 net.cpp:141] Setting up inception_4b/3x3_reduce
I0403 15:18:44.353514 11816 net.cpp:148] Top shape: 24 112 14 14 (526848)
I0403 15:18:44.353529 11816 net.cpp:156] Memory required for data: 954332448
I0403 15:18:44.353548 11816 layer_factory.hpp:77] Creating layer inception_4b/relu_3x3_reduce
I0403 15:18:44.353565 11816 net.cpp:91] Creating Layer inception_4b/relu_3x3_reduce
I0403 15:18:44.353581 11816 net.cpp:425] inception_4b/relu_3x3_reduce <- inception_4b/3x3_reduce
I0403 15:18:44.353597 11816 net.cpp:386] inception_4b/relu_3x3_reduce -> inception_4b/3x3_reduce (in-place)
I0403 15:18:44.353871 11816 net.cpp:141] Setting up inception_4b/relu_3x3_reduce
I0403 15:18:44.353898 11816 net.cpp:148] Top shape: 24 112 14 14 (526848)
I0403 15:18:44.353912 11816 net.cpp:156] Memory required for data: 956439840
I0403 15:18:44.353926 11816 layer_factory.hpp:77] Creating layer inception_4b/3x3
I0403 15:18:44.353948 11816 net.cpp:91] Creating Layer inception_4b/3x3
I0403 15:18:44.353965 11816 net.cpp:425] inception_4b/3x3 <- inception_4b/3x3_reduce
I0403 15:18:44.353989 11816 net.cpp:399] inception_4b/3x3 -> inception_4b/3x3
I0403 15:18:44.356889 11816 net.cpp:141] Setting up inception_4b/3x3
I0403 15:18:44.356919 11816 net.cpp:148] Top shape: 24 224 14 14 (1053696)
I0403 15:18:44.356935 11816 net.cpp:156] Memory required for data: 960654624
I0403 15:18:44.356953 11816 layer_factory.hpp:77] Creating layer inception_4b/relu_3x3
I0403 15:18:44.356973 11816 net.cpp:91] Creating Layer inception_4b/relu_3x3
I0403 15:18:44.356992 11816 net.cpp:425] inception_4b/relu_3x3 <- inception_4b/3x3
I0403 15:18:44.357008 11816 net.cpp:386] inception_4b/relu_3x3 -> inception_4b/3x3 (in-place)
I0403 15:18:44.357189 11816 net.cpp:141] Setting up inception_4b/relu_3x3
I0403 15:18:44.357218 11816 net.cpp:148] Top shape: 24 224 14 14 (1053696)
I0403 15:18:44.357235 11816 net.cpp:156] Memory required for data: 964869408
I0403 15:18:44.357250 11816 layer_factory.hpp:77] Creating layer inception_4b/5x5_reduce
I0403 15:18:44.357272 11816 net.cpp:91] Creating Layer inception_4b/5x5_reduce
I0403 15:18:44.357291 11816 net.cpp:425] inception_4b/5x5_reduce <- inception_4a/output_inception_4a/output_0_split_3
I0403 15:18:44.357311 11816 net.cpp:399] inception_4b/5x5_reduce -> inception_4b/5x5_reduce
I0403 15:18:44.358392 11816 net.cpp:141] Setting up inception_4b/5x5_reduce
I0403 15:18:44.358427 11816 net.cpp:148] Top shape: 24 24 14 14 (112896)
I0403 15:18:44.358445 11816 net.cpp:156] Memory required for data: 965320992
I0403 15:18:44.358464 11816 layer_factory.hpp:77] Creating layer inception_4b/relu_5x5_reduce
I0403 15:18:44.358480 11816 net.cpp:91] Creating Layer inception_4b/relu_5x5_reduce
I0403 15:18:44.358522 11816 net.cpp:425] inception_4b/relu_5x5_reduce <- inception_4b/5x5_reduce
I0403 15:18:44.358542 11816 net.cpp:386] inception_4b/relu_5x5_reduce -> inception_4b/5x5_reduce (in-place)
I0403 15:18:44.358719 11816 net.cpp:141] Setting up inception_4b/relu_5x5_reduce
I0403 15:18:44.358744 11816 net.cpp:148] Top shape: 24 24 14 14 (112896)
I0403 15:18:44.358758 11816 net.cpp:156] Memory required for data: 965772576
I0403 15:18:44.358772 11816 layer_factory.hpp:77] Creating layer inception_4b/5x5
I0403 15:18:44.358793 11816 net.cpp:91] Creating Layer inception_4b/5x5
I0403 15:18:44.358809 11816 net.cpp:425] inception_4b/5x5 <- inception_4b/5x5_reduce
I0403 15:18:44.358830 11816 net.cpp:399] inception_4b/5x5 -> inception_4b/5x5
I0403 15:18:44.360013 11816 net.cpp:141] Setting up inception_4b/5x5
I0403 15:18:44.360043 11816 net.cpp:148] Top shape: 24 64 14 14 (301056)
I0403 15:18:44.360059 11816 net.cpp:156] Memory required for data: 966976800
I0403 15:18:44.360075 11816 layer_factory.hpp:77] Creating layer inception_4b/relu_5x5
I0403 15:18:44.360092 11816 net.cpp:91] Creating Layer inception_4b/relu_5x5
I0403 15:18:44.360107 11816 net.cpp:425] inception_4b/relu_5x5 <- inception_4b/5x5
I0403 15:18:44.360126 11816 net.cpp:386] inception_4b/relu_5x5 -> inception_4b/5x5 (in-place)
I0403 15:18:44.360399 11816 net.cpp:141] Setting up inception_4b/relu_5x5
I0403 15:18:44.360440 11816 net.cpp:148] Top shape: 24 64 14 14 (301056)
I0403 15:18:44.360455 11816 net.cpp:156] Memory required for data: 968181024
I0403 15:18:44.360471 11816 layer_factory.hpp:77] Creating layer inception_4b/pool
I0403 15:18:44.360487 11816 net.cpp:91] Creating Layer inception_4b/pool
I0403 15:18:44.360502 11816 net.cpp:425] inception_4b/pool <- inception_4a/output_inception_4a/output_0_split_4
I0403 15:18:44.360523 11816 net.cpp:399] inception_4b/pool -> inception_4b/pool
I0403 15:18:44.360586 11816 net.cpp:141] Setting up inception_4b/pool
I0403 15:18:44.360610 11816 net.cpp:148] Top shape: 24 512 14 14 (2408448)
I0403 15:18:44.360623 11816 net.cpp:156] Memory required for data: 977814816
I0403 15:18:44.360637 11816 layer_factory.hpp:77] Creating layer inception_4b/pool_proj
I0403 15:18:44.360658 11816 net.cpp:91] Creating Layer inception_4b/pool_proj
I0403 15:18:44.360677 11816 net.cpp:425] inception_4b/pool_proj <- inception_4b/pool
I0403 15:18:44.360694 11816 net.cpp:399] inception_4b/pool_proj -> inception_4b/pool_proj
I0403 15:18:44.361855 11816 net.cpp:141] Setting up inception_4b/pool_proj
I0403 15:18:44.361882 11816 net.cpp:148] Top shape: 24 64 14 14 (301056)
I0403 15:18:44.361898 11816 net.cpp:156] Memory required for data: 979019040
I0403 15:18:44.361917 11816 layer_factory.hpp:77] Creating layer inception_4b/relu_pool_proj
I0403 15:18:44.361933 11816 net.cpp:91] Creating Layer inception_4b/relu_pool_proj
I0403 15:18:44.361949 11816 net.cpp:425] inception_4b/relu_pool_proj <- inception_4b/pool_proj
I0403 15:18:44.361969 11816 net.cpp:386] inception_4b/relu_pool_proj -> inception_4b/pool_proj (in-place)
I0403 15:18:44.362146 11816 net.cpp:141] Setting up inception_4b/relu_pool_proj
I0403 15:18:44.362174 11816 net.cpp:148] Top shape: 24 64 14 14 (301056)
I0403 15:18:44.362188 11816 net.cpp:156] Memory required for data: 980223264
I0403 15:18:44.362203 11816 layer_factory.hpp:77] Creating layer inception_4b/output
I0403 15:18:44.362223 11816 net.cpp:91] Creating Layer inception_4b/output
I0403 15:18:44.362241 11816 net.cpp:425] inception_4b/output <- inception_4b/1x1
I0403 15:18:44.362257 11816 net.cpp:425] inception_4b/output <- inception_4b/3x3
I0403 15:18:44.362273 11816 net.cpp:425] inception_4b/output <- inception_4b/5x5
I0403 15:18:44.362287 11816 net.cpp:425] inception_4b/output <- inception_4b/pool_proj
I0403 15:18:44.362303 11816 net.cpp:399] inception_4b/output -> inception_4b/output
I0403 15:18:44.362345 11816 net.cpp:141] Setting up inception_4b/output
I0403 15:18:44.362370 11816 net.cpp:148] Top shape: 24 512 14 14 (2408448)
I0403 15:18:44.362385 11816 net.cpp:156] Memory required for data: 989857056
I0403 15:18:44.362422 11816 layer_factory.hpp:77] Creating layer inception_4b/output_inception_4b/output_0_split
I0403 15:18:44.362442 11816 net.cpp:91] Creating Layer inception_4b/output_inception_4b/output_0_split
I0403 15:18:44.362457 11816 net.cpp:425] inception_4b/output_inception_4b/output_0_split <- inception_4b/output
I0403 15:18:44.362476 11816 net.cpp:399] inception_4b/output_inception_4b/output_0_split -> inception_4b/output_inception_4b/output_0_split_0
I0403 15:18:44.362496 11816 net.cpp:399] inception_4b/output_inception_4b/output_0_split -> inception_4b/output_inception_4b/output_0_split_1
I0403 15:18:44.362516 11816 net.cpp:399] inception_4b/output_inception_4b/output_0_split -> inception_4b/output_inception_4b/output_0_split_2
I0403 15:18:44.362535 11816 net.cpp:399] inception_4b/output_inception_4b/output_0_split -> inception_4b/output_inception_4b/output_0_split_3
I0403 15:18:44.362612 11816 net.cpp:141] Setting up inception_4b/output_inception_4b/output_0_split
I0403 15:18:44.362637 11816 net.cpp:148] Top shape: 24 512 14 14 (2408448)
I0403 15:18:44.362654 11816 net.cpp:148] Top shape: 24 512 14 14 (2408448)
I0403 15:18:44.362669 11816 net.cpp:148] Top shape: 24 512 14 14 (2408448)
I0403 15:18:44.362684 11816 net.cpp:148] Top shape: 24 512 14 14 (2408448)
I0403 15:18:44.362696 11816 net.cpp:156] Memory required for data: 1028392224
I0403 15:18:44.362710 11816 layer_factory.hpp:77] Creating layer inception_4c/1x1
I0403 15:18:44.362731 11816 net.cpp:91] Creating Layer inception_4c/1x1
I0403 15:18:44.362748 11816 net.cpp:425] inception_4c/1x1 <- inception_4b/output_inception_4b/output_0_split_0
I0403 15:18:44.362766 11816 net.cpp:399] inception_4c/1x1 -> inception_4c/1x1
I0403 15:18:44.364145 11816 net.cpp:141] Setting up inception_4c/1x1
I0403 15:18:44.364174 11816 net.cpp:148] Top shape: 24 128 14 14 (602112)
I0403 15:18:44.364192 11816 net.cpp:156] Memory required for data: 1030800672
I0403 15:18:44.364210 11816 layer_factory.hpp:77] Creating layer inception_4c/relu_1x1
I0403 15:18:44.364230 11816 net.cpp:91] Creating Layer inception_4c/relu_1x1
I0403 15:18:44.364246 11816 net.cpp:425] inception_4c/relu_1x1 <- inception_4c/1x1
I0403 15:18:44.364264 11816 net.cpp:386] inception_4c/relu_1x1 -> inception_4c/1x1 (in-place)
I0403 15:18:44.364445 11816 net.cpp:141] Setting up inception_4c/relu_1x1
I0403 15:18:44.364471 11816 net.cpp:148] Top shape: 24 128 14 14 (602112)
I0403 15:18:44.364487 11816 net.cpp:156] Memory required for data: 1033209120
I0403 15:18:44.364503 11816 layer_factory.hpp:77] Creating layer inception_4c/3x3_reduce
I0403 15:18:44.364527 11816 net.cpp:91] Creating Layer inception_4c/3x3_reduce
I0403 15:18:44.364545 11816 net.cpp:425] inception_4c/3x3_reduce <- inception_4b/output_inception_4b/output_0_split_1
I0403 15:18:44.364563 11816 net.cpp:399] inception_4c/3x3_reduce -> inception_4c/3x3_reduce
I0403 15:18:44.366468 11816 net.cpp:141] Setting up inception_4c/3x3_reduce
I0403 15:18:44.366500 11816 net.cpp:148] Top shape: 24 128 14 14 (602112)
I0403 15:18:44.366518 11816 net.cpp:156] Memory required for data: 1035617568
I0403 15:18:44.366536 11816 layer_factory.hpp:77] Creating layer inception_4c/relu_3x3_reduce
I0403 15:18:44.366554 11816 net.cpp:91] Creating Layer inception_4c/relu_3x3_reduce
I0403 15:18:44.366570 11816 net.cpp:425] inception_4c/relu_3x3_reduce <- inception_4c/3x3_reduce
I0403 15:18:44.366590 11816 net.cpp:386] inception_4c/relu_3x3_reduce -> inception_4c/3x3_reduce (in-place)
I0403 15:18:44.366878 11816 net.cpp:141] Setting up inception_4c/relu_3x3_reduce
I0403 15:18:44.366905 11816 net.cpp:148] Top shape: 24 128 14 14 (602112)
I0403 15:18:44.366921 11816 net.cpp:156] Memory required for data: 1038026016
I0403 15:18:44.366935 11816 layer_factory.hpp:77] Creating layer inception_4c/3x3
I0403 15:18:44.366958 11816 net.cpp:91] Creating Layer inception_4c/3x3
I0403 15:18:44.366976 11816 net.cpp:425] inception_4c/3x3 <- inception_4c/3x3_reduce
I0403 15:18:44.366994 11816 net.cpp:399] inception_4c/3x3 -> inception_4c/3x3
I0403 15:18:44.370563 11816 net.cpp:141] Setting up inception_4c/3x3
I0403 15:18:44.370604 11816 net.cpp:148] Top shape: 24 256 14 14 (1204224)
I0403 15:18:44.370621 11816 net.cpp:156] Memory required for data: 1042842912
I0403 15:18:44.370653 11816 layer_factory.hpp:77] Creating layer inception_4c/relu_3x3
I0403 15:18:44.370676 11816 net.cpp:91] Creating Layer inception_4c/relu_3x3
I0403 15:18:44.370692 11816 net.cpp:425] inception_4c/relu_3x3 <- inception_4c/3x3
I0403 15:18:44.370710 11816 net.cpp:386] inception_4c/relu_3x3 -> inception_4c/3x3 (in-place)
I0403 15:18:44.370888 11816 net.cpp:141] Setting up inception_4c/relu_3x3
I0403 15:18:44.370913 11816 net.cpp:148] Top shape: 24 256 14 14 (1204224)
I0403 15:18:44.370928 11816 net.cpp:156] Memory required for data: 1047659808
I0403 15:18:44.370941 11816 layer_factory.hpp:77] Creating layer inception_4c/5x5_reduce
I0403 15:18:44.370964 11816 net.cpp:91] Creating Layer inception_4c/5x5_reduce
I0403 15:18:44.370980 11816 net.cpp:425] inception_4c/5x5_reduce <- inception_4b/output_inception_4b/output_0_split_2
I0403 15:18:44.371001 11816 net.cpp:399] inception_4c/5x5_reduce -> inception_4c/5x5_reduce
I0403 15:18:44.372064 11816 net.cpp:141] Setting up inception_4c/5x5_reduce
I0403 15:18:44.372093 11816 net.cpp:148] Top shape: 24 24 14 14 (112896)
I0403 15:18:44.372109 11816 net.cpp:156] Memory required for data: 1048111392
I0403 15:18:44.372128 11816 layer_factory.hpp:77] Creating layer inception_4c/relu_5x5_reduce
I0403 15:18:44.372144 11816 net.cpp:91] Creating Layer inception_4c/relu_5x5_reduce
I0403 15:18:44.372160 11816 net.cpp:425] inception_4c/relu_5x5_reduce <- inception_4c/5x5_reduce
I0403 15:18:44.372179 11816 net.cpp:386] inception_4c/relu_5x5_reduce -> inception_4c/5x5_reduce (in-place)
I0403 15:18:44.372360 11816 net.cpp:141] Setting up inception_4c/relu_5x5_reduce
I0403 15:18:44.372385 11816 net.cpp:148] Top shape: 24 24 14 14 (112896)
I0403 15:18:44.372400 11816 net.cpp:156] Memory required for data: 1048562976
I0403 15:18:44.372431 11816 layer_factory.hpp:77] Creating layer inception_4c/5x5
I0403 15:18:44.372455 11816 net.cpp:91] Creating Layer inception_4c/5x5
I0403 15:18:44.372473 11816 net.cpp:425] inception_4c/5x5 <- inception_4c/5x5_reduce
I0403 15:18:44.372493 11816 net.cpp:399] inception_4c/5x5 -> inception_4c/5x5
I0403 15:18:44.373703 11816 net.cpp:141] Setting up inception_4c/5x5
I0403 15:18:44.373729 11816 net.cpp:148] Top shape: 24 64 14 14 (301056)
I0403 15:18:44.373745 11816 net.cpp:156] Memory required for data: 1049767200
I0403 15:18:44.373764 11816 layer_factory.hpp:77] Creating layer inception_4c/relu_5x5
I0403 15:18:44.373785 11816 net.cpp:91] Creating Layer inception_4c/relu_5x5
I0403 15:18:44.373800 11816 net.cpp:425] inception_4c/relu_5x5 <- inception_4c/5x5
I0403 15:18:44.373816 11816 net.cpp:386] inception_4c/relu_5x5 -> inception_4c/5x5 (in-place)
I0403 15:18:44.374099 11816 net.cpp:141] Setting up inception_4c/relu_5x5
I0403 15:18:44.374125 11816 net.cpp:148] Top shape: 24 64 14 14 (301056)
I0403 15:18:44.374138 11816 net.cpp:156] Memory required for data: 1050971424
I0403 15:18:44.374153 11816 layer_factory.hpp:77] Creating layer inception_4c/pool
I0403 15:18:44.374171 11816 net.cpp:91] Creating Layer inception_4c/pool
I0403 15:18:44.374187 11816 net.cpp:425] inception_4c/pool <- inception_4b/output_inception_4b/output_0_split_3
I0403 15:18:44.374204 11816 net.cpp:399] inception_4c/pool -> inception_4c/pool
I0403 15:18:44.374269 11816 net.cpp:141] Setting up inception_4c/pool
I0403 15:18:44.374291 11816 net.cpp:148] Top shape: 24 512 14 14 (2408448)
I0403 15:18:44.374305 11816 net.cpp:156] Memory required for data: 1060605216
I0403 15:18:44.374320 11816 layer_factory.hpp:77] Creating layer inception_4c/pool_proj
I0403 15:18:44.374341 11816 net.cpp:91] Creating Layer inception_4c/pool_proj
I0403 15:18:44.374358 11816 net.cpp:425] inception_4c/pool_proj <- inception_4c/pool
I0403 15:18:44.374378 11816 net.cpp:399] inception_4c/pool_proj -> inception_4c/pool_proj
I0403 15:18:44.375577 11816 net.cpp:141] Setting up inception_4c/pool_proj
I0403 15:18:44.375605 11816 net.cpp:148] Top shape: 24 64 14 14 (301056)
I0403 15:18:44.375636 11816 net.cpp:156] Memory required for data: 1061809440
I0403 15:18:44.375656 11816 layer_factory.hpp:77] Creating layer inception_4c/relu_pool_proj
I0403 15:18:44.375674 11816 net.cpp:91] Creating Layer inception_4c/relu_pool_proj
I0403 15:18:44.375690 11816 net.cpp:425] inception_4c/relu_pool_proj <- inception_4c/pool_proj
I0403 15:18:44.375715 11816 net.cpp:386] inception_4c/relu_pool_proj -> inception_4c/pool_proj (in-place)
I0403 15:18:44.375895 11816 net.cpp:141] Setting up inception_4c/relu_pool_proj
I0403 15:18:44.375919 11816 net.cpp:148] Top shape: 24 64 14 14 (301056)
I0403 15:18:44.375933 11816 net.cpp:156] Memory required for data: 1063013664
I0403 15:18:44.375947 11816 layer_factory.hpp:77] Creating layer inception_4c/output
I0403 15:18:44.375964 11816 net.cpp:91] Creating Layer inception_4c/output
I0403 15:18:44.375979 11816 net.cpp:425] inception_4c/output <- inception_4c/1x1
I0403 15:18:44.375998 11816 net.cpp:425] inception_4c/output <- inception_4c/3x3
I0403 15:18:44.376014 11816 net.cpp:425] inception_4c/output <- inception_4c/5x5
I0403 15:18:44.376029 11816 net.cpp:425] inception_4c/output <- inception_4c/pool_proj
I0403 15:18:44.376044 11816 net.cpp:399] inception_4c/output -> inception_4c/output
I0403 15:18:44.376087 11816 net.cpp:141] Setting up inception_4c/output
I0403 15:18:44.376112 11816 net.cpp:148] Top shape: 24 512 14 14 (2408448)
I0403 15:18:44.376127 11816 net.cpp:156] Memory required for data: 1072647456
I0403 15:18:44.376142 11816 layer_factory.hpp:77] Creating layer inception_4c/output_inception_4c/output_0_split
I0403 15:18:44.376158 11816 net.cpp:91] Creating Layer inception_4c/output_inception_4c/output_0_split
I0403 15:18:44.376173 11816 net.cpp:425] inception_4c/output_inception_4c/output_0_split <- inception_4c/output
I0403 15:18:44.376191 11816 net.cpp:399] inception_4c/output_inception_4c/output_0_split -> inception_4c/output_inception_4c/output_0_split_0
I0403 15:18:44.376211 11816 net.cpp:399] inception_4c/output_inception_4c/output_0_split -> inception_4c/output_inception_4c/output_0_split_1
I0403 15:18:44.376230 11816 net.cpp:399] inception_4c/output_inception_4c/output_0_split -> inception_4c/output_inception_4c/output_0_split_2
I0403 15:18:44.376248 11816 net.cpp:399] inception_4c/output_inception_4c/output_0_split -> inception_4c/output_inception_4c/output_0_split_3
I0403 15:18:44.376332 11816 net.cpp:141] Setting up inception_4c/output_inception_4c/output_0_split
I0403 15:18:44.376358 11816 net.cpp:148] Top shape: 24 512 14 14 (2408448)
I0403 15:18:44.376375 11816 net.cpp:148] Top shape: 24 512 14 14 (2408448)
I0403 15:18:44.376390 11816 net.cpp:148] Top shape: 24 512 14 14 (2408448)
I0403 15:18:44.376405 11816 net.cpp:148] Top shape: 24 512 14 14 (2408448)
I0403 15:18:44.376433 11816 net.cpp:156] Memory required for data: 1111182624
I0403 15:18:44.376447 11816 layer_factory.hpp:77] Creating layer inception_4d/1x1
I0403 15:18:44.376468 11816 net.cpp:91] Creating Layer inception_4d/1x1
I0403 15:18:44.376485 11816 net.cpp:425] inception_4d/1x1 <- inception_4c/output_inception_4c/output_0_split_0
I0403 15:18:44.376504 11816 net.cpp:399] inception_4d/1x1 -> inception_4d/1x1
I0403 15:18:44.377845 11816 net.cpp:141] Setting up inception_4d/1x1
I0403 15:18:44.377872 11816 net.cpp:148] Top shape: 24 112 14 14 (526848)
I0403 15:18:44.377892 11816 net.cpp:156] Memory required for data: 1113290016
I0403 15:18:44.377910 11816 layer_factory.hpp:77] Creating layer inception_4d/relu_1x1
I0403 15:18:44.377928 11816 net.cpp:91] Creating Layer inception_4d/relu_1x1
I0403 15:18:44.377944 11816 net.cpp:425] inception_4d/relu_1x1 <- inception_4d/1x1
I0403 15:18:44.377960 11816 net.cpp:386] inception_4d/relu_1x1 -> inception_4d/1x1 (in-place)
I0403 15:18:44.378137 11816 net.cpp:141] Setting up inception_4d/relu_1x1
I0403 15:18:44.378164 11816 net.cpp:148] Top shape: 24 112 14 14 (526848)
I0403 15:18:44.378180 11816 net.cpp:156] Memory required for data: 1115397408
I0403 15:18:44.378193 11816 layer_factory.hpp:77] Creating layer inception_4d/3x3_reduce
I0403 15:18:44.378228 11816 net.cpp:91] Creating Layer inception_4d/3x3_reduce
I0403 15:18:44.378247 11816 net.cpp:425] inception_4d/3x3_reduce <- inception_4c/output_inception_4c/output_0_split_1
I0403 15:18:44.378265 11816 net.cpp:399] inception_4d/3x3_reduce -> inception_4d/3x3_reduce
I0403 15:18:44.379735 11816 net.cpp:141] Setting up inception_4d/3x3_reduce
I0403 15:18:44.379763 11816 net.cpp:148] Top shape: 24 144 14 14 (677376)
I0403 15:18:44.379779 11816 net.cpp:156] Memory required for data: 1118106912
I0403 15:18:44.379796 11816 layer_factory.hpp:77] Creating layer inception_4d/relu_3x3_reduce
I0403 15:18:44.379817 11816 net.cpp:91] Creating Layer inception_4d/relu_3x3_reduce
I0403 15:18:44.379835 11816 net.cpp:425] inception_4d/relu_3x3_reduce <- inception_4d/3x3_reduce
I0403 15:18:44.379853 11816 net.cpp:386] inception_4d/relu_3x3_reduce -> inception_4d/3x3_reduce (in-place)
I0403 15:18:44.380143 11816 net.cpp:141] Setting up inception_4d/relu_3x3_reduce
I0403 15:18:44.380168 11816 net.cpp:148] Top shape: 24 144 14 14 (677376)
I0403 15:18:44.380183 11816 net.cpp:156] Memory required for data: 1120816416
I0403 15:18:44.380198 11816 layer_factory.hpp:77] Creating layer inception_4d/3x3
I0403 15:18:44.380219 11816 net.cpp:91] Creating Layer inception_4d/3x3
I0403 15:18:44.380237 11816 net.cpp:425] inception_4d/3x3 <- inception_4d/3x3_reduce
I0403 15:18:44.380259 11816 net.cpp:399] inception_4d/3x3 -> inception_4d/3x3
I0403 15:18:44.384418 11816 net.cpp:141] Setting up inception_4d/3x3
I0403 15:18:44.384451 11816 net.cpp:148] Top shape: 24 288 14 14 (1354752)
I0403 15:18:44.384467 11816 net.cpp:156] Memory required for data: 1126235424
I0403 15:18:44.384486 11816 layer_factory.hpp:77] Creating layer inception_4d/relu_3x3
I0403 15:18:44.384506 11816 net.cpp:91] Creating Layer inception_4d/relu_3x3
I0403 15:18:44.384524 11816 net.cpp:425] inception_4d/relu_3x3 <- inception_4d/3x3
I0403 15:18:44.384541 11816 net.cpp:386] inception_4d/relu_3x3 -> inception_4d/3x3 (in-place)
I0403 15:18:44.384723 11816 net.cpp:141] Setting up inception_4d/relu_3x3
I0403 15:18:44.384749 11816 net.cpp:148] Top shape: 24 288 14 14 (1354752)
I0403 15:18:44.384763 11816 net.cpp:156] Memory required for data: 1131654432
I0403 15:18:44.384778 11816 layer_factory.hpp:77] Creating layer inception_4d/5x5_reduce
I0403 15:18:44.384799 11816 net.cpp:91] Creating Layer inception_4d/5x5_reduce
I0403 15:18:44.384815 11816 net.cpp:425] inception_4d/5x5_reduce <- inception_4c/output_inception_4c/output_0_split_2
I0403 15:18:44.384835 11816 net.cpp:399] inception_4d/5x5_reduce -> inception_4d/5x5_reduce
I0403 15:18:44.385998 11816 net.cpp:141] Setting up inception_4d/5x5_reduce
I0403 15:18:44.386026 11816 net.cpp:148] Top shape: 24 32 14 14 (150528)
I0403 15:18:44.386042 11816 net.cpp:156] Memory required for data: 1132256544
I0403 15:18:44.386060 11816 layer_factory.hpp:77] Creating layer inception_4d/relu_5x5_reduce
I0403 15:18:44.386077 11816 net.cpp:91] Creating Layer inception_4d/relu_5x5_reduce
I0403 15:18:44.386092 11816 net.cpp:425] inception_4d/relu_5x5_reduce <- inception_4d/5x5_reduce
I0403 15:18:44.386109 11816 net.cpp:386] inception_4d/relu_5x5_reduce -> inception_4d/5x5_reduce (in-place)
I0403 15:18:44.386291 11816 net.cpp:141] Setting up inception_4d/relu_5x5_reduce
I0403 15:18:44.386318 11816 net.cpp:148] Top shape: 24 32 14 14 (150528)
I0403 15:18:44.386334 11816 net.cpp:156] Memory required for data: 1132858656
I0403 15:18:44.386348 11816 layer_factory.hpp:77] Creating layer inception_4d/5x5
I0403 15:18:44.386370 11816 net.cpp:91] Creating Layer inception_4d/5x5
I0403 15:18:44.386387 11816 net.cpp:425] inception_4d/5x5 <- inception_4d/5x5_reduce
I0403 15:18:44.386407 11816 net.cpp:399] inception_4d/5x5 -> inception_4d/5x5
I0403 15:18:44.387837 11816 net.cpp:141] Setting up inception_4d/5x5
I0403 15:18:44.387866 11816 net.cpp:148] Top shape: 24 64 14 14 (301056)
I0403 15:18:44.387882 11816 net.cpp:156] Memory required for data: 1134062880
I0403 15:18:44.387900 11816 layer_factory.hpp:77] Creating layer inception_4d/relu_5x5
I0403 15:18:44.387934 11816 net.cpp:91] Creating Layer inception_4d/relu_5x5
I0403 15:18:44.387951 11816 net.cpp:425] inception_4d/relu_5x5 <- inception_4d/5x5
I0403 15:18:44.387967 11816 net.cpp:386] inception_4d/relu_5x5 -> inception_4d/5x5 (in-place)
I0403 15:18:44.388262 11816 net.cpp:141] Setting up inception_4d/relu_5x5
I0403 15:18:44.388288 11816 net.cpp:148] Top shape: 24 64 14 14 (301056)
I0403 15:18:44.388301 11816 net.cpp:156] Memory required for data: 1135267104
I0403 15:18:44.388315 11816 layer_factory.hpp:77] Creating layer inception_4d/pool
I0403 15:18:44.388332 11816 net.cpp:91] Creating Layer inception_4d/pool
I0403 15:18:44.388347 11816 net.cpp:425] inception_4d/pool <- inception_4c/output_inception_4c/output_0_split_3
I0403 15:18:44.388368 11816 net.cpp:399] inception_4d/pool -> inception_4d/pool
I0403 15:18:44.388437 11816 net.cpp:141] Setting up inception_4d/pool
I0403 15:18:44.388463 11816 net.cpp:148] Top shape: 24 512 14 14 (2408448)
I0403 15:18:44.388478 11816 net.cpp:156] Memory required for data: 1144900896
I0403 15:18:44.388492 11816 layer_factory.hpp:77] Creating layer inception_4d/pool_proj
I0403 15:18:44.388514 11816 net.cpp:91] Creating Layer inception_4d/pool_proj
I0403 15:18:44.388530 11816 net.cpp:425] inception_4d/pool_proj <- inception_4d/pool
I0403 15:18:44.388548 11816 net.cpp:399] inception_4d/pool_proj -> inception_4d/pool_proj
I0403 15:18:44.390257 11816 net.cpp:141] Setting up inception_4d/pool_proj
I0403 15:18:44.390287 11816 net.cpp:148] Top shape: 24 64 14 14 (301056)
I0403 15:18:44.390316 11816 net.cpp:156] Memory required for data: 1146105120
I0403 15:18:44.390336 11816 layer_factory.hpp:77] Creating layer inception_4d/relu_pool_proj
I0403 15:18:44.390355 11816 net.cpp:91] Creating Layer inception_4d/relu_pool_proj
I0403 15:18:44.390372 11816 net.cpp:425] inception_4d/relu_pool_proj <- inception_4d/pool_proj
I0403 15:18:44.390390 11816 net.cpp:386] inception_4d/relu_pool_proj -> inception_4d/pool_proj (in-place)
I0403 15:18:44.390580 11816 net.cpp:141] Setting up inception_4d/relu_pool_proj
I0403 15:18:44.390606 11816 net.cpp:148] Top shape: 24 64 14 14 (301056)
I0403 15:18:44.390621 11816 net.cpp:156] Memory required for data: 1147309344
I0403 15:18:44.390635 11816 layer_factory.hpp:77] Creating layer inception_4d/output
I0403 15:18:44.390652 11816 net.cpp:91] Creating Layer inception_4d/output
I0403 15:18:44.390667 11816 net.cpp:425] inception_4d/output <- inception_4d/1x1
I0403 15:18:44.390683 11816 net.cpp:425] inception_4d/output <- inception_4d/3x3
I0403 15:18:44.390699 11816 net.cpp:425] inception_4d/output <- inception_4d/5x5
I0403 15:18:44.390714 11816 net.cpp:425] inception_4d/output <- inception_4d/pool_proj
I0403 15:18:44.390733 11816 net.cpp:399] inception_4d/output -> inception_4d/output
I0403 15:18:44.390780 11816 net.cpp:141] Setting up inception_4d/output
I0403 15:18:44.390806 11816 net.cpp:148] Top shape: 24 528 14 14 (2483712)
I0403 15:18:44.390822 11816 net.cpp:156] Memory required for data: 1157244192
I0403 15:18:44.390836 11816 layer_factory.hpp:77] Creating layer inception_4d/output_inception_4d/output_0_split
I0403 15:18:44.390864 11816 net.cpp:91] Creating Layer inception_4d/output_inception_4d/output_0_split
I0403 15:18:44.390878 11816 net.cpp:425] inception_4d/output_inception_4d/output_0_split <- inception_4d/output
I0403 15:18:44.390895 11816 net.cpp:399] inception_4d/output_inception_4d/output_0_split -> inception_4d/output_inception_4d/output_0_split_0
I0403 15:18:44.390929 11816 net.cpp:399] inception_4d/output_inception_4d/output_0_split -> inception_4d/output_inception_4d/output_0_split_1
I0403 15:18:44.390950 11816 net.cpp:399] inception_4d/output_inception_4d/output_0_split -> inception_4d/output_inception_4d/output_0_split_2
I0403 15:18:44.390969 11816 net.cpp:399] inception_4d/output_inception_4d/output_0_split -> inception_4d/output_inception_4d/output_0_split_3
I0403 15:18:44.390988 11816 net.cpp:399] inception_4d/output_inception_4d/output_0_split -> inception_4d/output_inception_4d/output_0_split_4
I0403 15:18:44.391093 11816 net.cpp:141] Setting up inception_4d/output_inception_4d/output_0_split
I0403 15:18:44.391129 11816 net.cpp:148] Top shape: 24 528 14 14 (2483712)
I0403 15:18:44.391146 11816 net.cpp:148] Top shape: 24 528 14 14 (2483712)
I0403 15:18:44.391161 11816 net.cpp:148] Top shape: 24 528 14 14 (2483712)
I0403 15:18:44.391176 11816 net.cpp:148] Top shape: 24 528 14 14 (2483712)
I0403 15:18:44.391191 11816 net.cpp:148] Top shape: 24 528 14 14 (2483712)
I0403 15:18:44.391203 11816 net.cpp:156] Memory required for data: 1206918432
I0403 15:18:44.391217 11816 layer_factory.hpp:77] Creating layer loss2/ave_pool
I0403 15:18:44.391237 11816 net.cpp:91] Creating Layer loss2/ave_pool
I0403 15:18:44.391253 11816 net.cpp:425] loss2/ave_pool <- inception_4d/output_inception_4d/output_0_split_0
I0403 15:18:44.391271 11816 net.cpp:399] loss2/ave_pool -> loss2/ave_pool
I0403 15:18:44.391607 11816 net.cpp:141] Setting up loss2/ave_pool
I0403 15:18:44.391634 11816 net.cpp:148] Top shape: 24 528 4 4 (202752)
I0403 15:18:44.391649 11816 net.cpp:156] Memory required for data: 1207729440
I0403 15:18:44.391664 11816 layer_factory.hpp:77] Creating layer loss2/conv
I0403 15:18:44.391685 11816 net.cpp:91] Creating Layer loss2/conv
I0403 15:18:44.391701 11816 net.cpp:425] loss2/conv <- loss2/ave_pool
I0403 15:18:44.391726 11816 net.cpp:399] loss2/conv -> loss2/conv
I0403 15:18:44.393604 11816 net.cpp:141] Setting up loss2/conv
I0403 15:18:44.393633 11816 net.cpp:148] Top shape: 24 128 4 4 (49152)
I0403 15:18:44.393649 11816 net.cpp:156] Memory required for data: 1207926048
I0403 15:18:44.393667 11816 layer_factory.hpp:77] Creating layer loss2/relu_conv
I0403 15:18:44.393685 11816 net.cpp:91] Creating Layer loss2/relu_conv
I0403 15:18:44.393702 11816 net.cpp:425] loss2/relu_conv <- loss2/conv
I0403 15:18:44.393720 11816 net.cpp:386] loss2/relu_conv -> loss2/conv (in-place)
I0403 15:18:44.394013 11816 net.cpp:141] Setting up loss2/relu_conv
I0403 15:18:44.394040 11816 net.cpp:148] Top shape: 24 128 4 4 (49152)
I0403 15:18:44.394055 11816 net.cpp:156] Memory required for data: 1208122656
I0403 15:18:44.394070 11816 layer_factory.hpp:77] Creating layer loss2/fc
I0403 15:18:44.394088 11816 net.cpp:91] Creating Layer loss2/fc
I0403 15:18:44.394104 11816 net.cpp:425] loss2/fc <- loss2/conv
I0403 15:18:44.394125 11816 net.cpp:399] loss2/fc -> loss2/fc
I0403 15:18:44.411816 11816 net.cpp:141] Setting up loss2/fc
I0403 15:18:44.411880 11816 net.cpp:148] Top shape: 24 1024 (24576)
I0403 15:18:44.411896 11816 net.cpp:156] Memory required for data: 1208220960
I0403 15:18:44.411916 11816 layer_factory.hpp:77] Creating layer loss2/relu_fc
I0403 15:18:44.411936 11816 net.cpp:91] Creating Layer loss2/relu_fc
I0403 15:18:44.411954 11816 net.cpp:425] loss2/relu_fc <- loss2/fc
I0403 15:18:44.411973 11816 net.cpp:386] loss2/relu_fc -> loss2/fc (in-place)
I0403 15:18:44.412327 11816 net.cpp:141] Setting up loss2/relu_fc
I0403 15:18:44.412359 11816 net.cpp:148] Top shape: 24 1024 (24576)
I0403 15:18:44.412377 11816 net.cpp:156] Memory required for data: 1208319264
I0403 15:18:44.412392 11816 layer_factory.hpp:77] Creating layer loss2/drop_fc
I0403 15:18:44.412420 11816 net.cpp:91] Creating Layer loss2/drop_fc
I0403 15:18:44.412441 11816 net.cpp:425] loss2/drop_fc <- loss2/fc
I0403 15:18:44.412458 11816 net.cpp:386] loss2/drop_fc -> loss2/fc (in-place)
I0403 15:18:44.412510 11816 net.cpp:141] Setting up loss2/drop_fc
I0403 15:18:44.412533 11816 net.cpp:148] Top shape: 24 1024 (24576)
I0403 15:18:44.412547 11816 net.cpp:156] Memory required for data: 1208417568
I0403 15:18:44.412562 11816 layer_factory.hpp:77] Creating layer loss2/classifier_plantvillage
I0403 15:18:44.412582 11816 net.cpp:91] Creating Layer loss2/classifier_plantvillage
I0403 15:18:44.412600 11816 net.cpp:425] loss2/classifier_plantvillage <- loss2/fc
I0403 15:18:44.412617 11816 net.cpp:399] loss2/classifier_plantvillage -> loss2/classifier_plantvillage
I0403 15:18:44.413027 11816 net.cpp:141] Setting up loss2/classifier_plantvillage
I0403 15:18:44.413050 11816 net.cpp:148] Top shape: 24 38 (912)
I0403 15:18:44.413090 11816 net.cpp:156] Memory required for data: 1208421216
I0403 15:18:44.413108 11816 layer_factory.hpp:77] Creating layer loss2/classifier_plantvillage_loss2/classifier_plantvillage_0_split
I0403 15:18:44.413126 11816 net.cpp:91] Creating Layer loss2/classifier_plantvillage_loss2/classifier_plantvillage_0_split
I0403 15:18:44.413142 11816 net.cpp:425] loss2/classifier_plantvillage_loss2/classifier_plantvillage_0_split <- loss2/classifier_plantvillage
I0403 15:18:44.413161 11816 net.cpp:399] loss2/classifier_plantvillage_loss2/classifier_plantvillage_0_split -> loss2/classifier_plantvillage_loss2/classifier_plantvillage_0_split_0
I0403 15:18:44.413182 11816 net.cpp:399] loss2/classifier_plantvillage_loss2/classifier_plantvillage_0_split -> loss2/classifier_plantvillage_loss2/classifier_plantvillage_0_split_1
I0403 15:18:44.413203 11816 net.cpp:399] loss2/classifier_plantvillage_loss2/classifier_plantvillage_0_split -> loss2/classifier_plantvillage_loss2/classifier_plantvillage_0_split_2
I0403 15:18:44.413280 11816 net.cpp:141] Setting up loss2/classifier_plantvillage_loss2/classifier_plantvillage_0_split
I0403 15:18:44.413303 11816 net.cpp:148] Top shape: 24 38 (912)
I0403 15:18:44.413319 11816 net.cpp:148] Top shape: 24 38 (912)
I0403 15:18:44.413334 11816 net.cpp:148] Top shape: 24 38 (912)
I0403 15:18:44.413347 11816 net.cpp:156] Memory required for data: 1208432160
I0403 15:18:44.413362 11816 layer_factory.hpp:77] Creating layer inception_4e/1x1
I0403 15:18:44.413385 11816 net.cpp:91] Creating Layer inception_4e/1x1
I0403 15:18:44.413403 11816 net.cpp:425] inception_4e/1x1 <- inception_4d/output_inception_4d/output_0_split_1
I0403 15:18:44.413429 11816 net.cpp:399] inception_4e/1x1 -> inception_4e/1x1
I0403 15:18:44.415282 11816 net.cpp:141] Setting up inception_4e/1x1
I0403 15:18:44.415313 11816 net.cpp:148] Top shape: 24 256 14 14 (1204224)
I0403 15:18:44.415329 11816 net.cpp:156] Memory required for data: 1213249056
I0403 15:18:44.415349 11816 layer_factory.hpp:77] Creating layer inception_4e/relu_1x1
I0403 15:18:44.415369 11816 net.cpp:91] Creating Layer inception_4e/relu_1x1
I0403 15:18:44.415386 11816 net.cpp:425] inception_4e/relu_1x1 <- inception_4e/1x1
I0403 15:18:44.415405 11816 net.cpp:386] inception_4e/relu_1x1 -> inception_4e/1x1 (in-place)
I0403 15:18:44.415707 11816 net.cpp:141] Setting up inception_4e/relu_1x1
I0403 15:18:44.415735 11816 net.cpp:148] Top shape: 24 256 14 14 (1204224)
I0403 15:18:44.415750 11816 net.cpp:156] Memory required for data: 1218065952
I0403 15:18:44.415766 11816 layer_factory.hpp:77] Creating layer inception_4e/3x3_reduce
I0403 15:18:44.415788 11816 net.cpp:91] Creating Layer inception_4e/3x3_reduce
I0403 15:18:44.415807 11816 net.cpp:425] inception_4e/3x3_reduce <- inception_4d/output_inception_4d/output_0_split_2
I0403 15:18:44.415827 11816 net.cpp:399] inception_4e/3x3_reduce -> inception_4e/3x3_reduce
I0403 15:18:44.417978 11816 net.cpp:141] Setting up inception_4e/3x3_reduce
I0403 15:18:44.418009 11816 net.cpp:148] Top shape: 24 160 14 14 (752640)
I0403 15:18:44.418026 11816 net.cpp:156] Memory required for data: 1221076512
I0403 15:18:44.418046 11816 layer_factory.hpp:77] Creating layer inception_4e/relu_3x3_reduce
I0403 15:18:44.418066 11816 net.cpp:91] Creating Layer inception_4e/relu_3x3_reduce
I0403 15:18:44.418082 11816 net.cpp:425] inception_4e/relu_3x3_reduce <- inception_4e/3x3_reduce
I0403 15:18:44.418102 11816 net.cpp:386] inception_4e/relu_3x3_reduce -> inception_4e/3x3_reduce (in-place)
I0403 15:18:44.418292 11816 net.cpp:141] Setting up inception_4e/relu_3x3_reduce
I0403 15:18:44.418318 11816 net.cpp:148] Top shape: 24 160 14 14 (752640)
I0403 15:18:44.418334 11816 net.cpp:156] Memory required for data: 1224087072
I0403 15:18:44.418349 11816 layer_factory.hpp:77] Creating layer inception_4e/3x3
I0403 15:18:44.418370 11816 net.cpp:91] Creating Layer inception_4e/3x3
I0403 15:18:44.418388 11816 net.cpp:425] inception_4e/3x3 <- inception_4e/3x3_reduce
I0403 15:18:44.418416 11816 net.cpp:399] inception_4e/3x3 -> inception_4e/3x3
I0403 15:18:44.423492 11816 net.cpp:141] Setting up inception_4e/3x3
I0403 15:18:44.423537 11816 net.cpp:148] Top shape: 24 320 14 14 (1505280)
I0403 15:18:44.423553 11816 net.cpp:156] Memory required for data: 1230108192
I0403 15:18:44.423573 11816 layer_factory.hpp:77] Creating layer inception_4e/relu_3x3
I0403 15:18:44.423594 11816 net.cpp:91] Creating Layer inception_4e/relu_3x3
I0403 15:18:44.423610 11816 net.cpp:425] inception_4e/relu_3x3 <- inception_4e/3x3
I0403 15:18:44.423629 11816 net.cpp:386] inception_4e/relu_3x3 -> inception_4e/3x3 (in-place)
I0403 15:18:44.423931 11816 net.cpp:141] Setting up inception_4e/relu_3x3
I0403 15:18:44.423962 11816 net.cpp:148] Top shape: 24 320 14 14 (1505280)
I0403 15:18:44.423980 11816 net.cpp:156] Memory required for data: 1236129312
I0403 15:18:44.423996 11816 layer_factory.hpp:77] Creating layer inception_4e/5x5_reduce
I0403 15:18:44.424016 11816 net.cpp:91] Creating Layer inception_4e/5x5_reduce
I0403 15:18:44.424033 11816 net.cpp:425] inception_4e/5x5_reduce <- inception_4d/output_inception_4d/output_0_split_3
I0403 15:18:44.424058 11816 net.cpp:399] inception_4e/5x5_reduce -> inception_4e/5x5_reduce
I0403 15:18:44.425145 11816 net.cpp:141] Setting up inception_4e/5x5_reduce
I0403 15:18:44.425174 11816 net.cpp:148] Top shape: 24 32 14 14 (150528)
I0403 15:18:44.425191 11816 net.cpp:156] Memory required for data: 1236731424
I0403 15:18:44.425210 11816 layer_factory.hpp:77] Creating layer inception_4e/relu_5x5_reduce
I0403 15:18:44.425227 11816 net.cpp:91] Creating Layer inception_4e/relu_5x5_reduce
I0403 15:18:44.425247 11816 net.cpp:425] inception_4e/relu_5x5_reduce <- inception_4e/5x5_reduce
I0403 15:18:44.425266 11816 net.cpp:386] inception_4e/relu_5x5_reduce -> inception_4e/5x5_reduce (in-place)
I0403 15:18:44.425571 11816 net.cpp:141] Setting up inception_4e/relu_5x5_reduce
I0403 15:18:44.425600 11816 net.cpp:148] Top shape: 24 32 14 14 (150528)
I0403 15:18:44.425616 11816 net.cpp:156] Memory required for data: 1237333536
I0403 15:18:44.425629 11816 layer_factory.hpp:77] Creating layer inception_4e/5x5
I0403 15:18:44.425671 11816 net.cpp:91] Creating Layer inception_4e/5x5
I0403 15:18:44.425691 11816 net.cpp:425] inception_4e/5x5 <- inception_4e/5x5_reduce
I0403 15:18:44.425711 11816 net.cpp:399] inception_4e/5x5 -> inception_4e/5x5
I0403 15:18:44.427701 11816 net.cpp:141] Setting up inception_4e/5x5
I0403 15:18:44.427743 11816 net.cpp:148] Top shape: 24 128 14 14 (602112)
I0403 15:18:44.427762 11816 net.cpp:156] Memory required for data: 1239741984
I0403 15:18:44.427781 11816 layer_factory.hpp:77] Creating layer inception_4e/relu_5x5
I0403 15:18:44.427799 11816 net.cpp:91] Creating Layer inception_4e/relu_5x5
I0403 15:18:44.427814 11816 net.cpp:425] inception_4e/relu_5x5 <- inception_4e/5x5
I0403 15:18:44.427834 11816 net.cpp:386] inception_4e/relu_5x5 -> inception_4e/5x5 (in-place)
I0403 15:18:44.428031 11816 net.cpp:141] Setting up inception_4e/relu_5x5
I0403 15:18:44.428056 11816 net.cpp:148] Top shape: 24 128 14 14 (602112)
I0403 15:18:44.428071 11816 net.cpp:156] Memory required for data: 1242150432
I0403 15:18:44.428086 11816 layer_factory.hpp:77] Creating layer inception_4e/pool
I0403 15:18:44.428104 11816 net.cpp:91] Creating Layer inception_4e/pool
I0403 15:18:44.428119 11816 net.cpp:425] inception_4e/pool <- inception_4d/output_inception_4d/output_0_split_4
I0403 15:18:44.428139 11816 net.cpp:399] inception_4e/pool -> inception_4e/pool
I0403 15:18:44.428210 11816 net.cpp:141] Setting up inception_4e/pool
I0403 15:18:44.428234 11816 net.cpp:148] Top shape: 24 528 14 14 (2483712)
I0403 15:18:44.428249 11816 net.cpp:156] Memory required for data: 1252085280
I0403 15:18:44.428264 11816 layer_factory.hpp:77] Creating layer inception_4e/pool_proj
I0403 15:18:44.428290 11816 net.cpp:91] Creating Layer inception_4e/pool_proj
I0403 15:18:44.428308 11816 net.cpp:425] inception_4e/pool_proj <- inception_4e/pool
I0403 15:18:44.428325 11816 net.cpp:399] inception_4e/pool_proj -> inception_4e/pool_proj
I0403 15:18:44.429836 11816 net.cpp:141] Setting up inception_4e/pool_proj
I0403 15:18:44.429880 11816 net.cpp:148] Top shape: 24 128 14 14 (602112)
I0403 15:18:44.429898 11816 net.cpp:156] Memory required for data: 1254493728
I0403 15:18:44.429918 11816 layer_factory.hpp:77] Creating layer inception_4e/relu_pool_proj
I0403 15:18:44.429935 11816 net.cpp:91] Creating Layer inception_4e/relu_pool_proj
I0403 15:18:44.429951 11816 net.cpp:425] inception_4e/relu_pool_proj <- inception_4e/pool_proj
I0403 15:18:44.429970 11816 net.cpp:386] inception_4e/relu_pool_proj -> inception_4e/pool_proj (in-place)
I0403 15:18:44.430263 11816 net.cpp:141] Setting up inception_4e/relu_pool_proj
I0403 15:18:44.430294 11816 net.cpp:148] Top shape: 24 128 14 14 (602112)
I0403 15:18:44.430311 11816 net.cpp:156] Memory required for data: 1256902176
I0403 15:18:44.430326 11816 layer_factory.hpp:77] Creating layer inception_4e/output
I0403 15:18:44.430344 11816 net.cpp:91] Creating Layer inception_4e/output
I0403 15:18:44.430361 11816 net.cpp:425] inception_4e/output <- inception_4e/1x1
I0403 15:18:44.430377 11816 net.cpp:425] inception_4e/output <- inception_4e/3x3
I0403 15:18:44.430392 11816 net.cpp:425] inception_4e/output <- inception_4e/5x5
I0403 15:18:44.430409 11816 net.cpp:425] inception_4e/output <- inception_4e/pool_proj
I0403 15:18:44.430431 11816 net.cpp:399] inception_4e/output -> inception_4e/output
I0403 15:18:44.430483 11816 net.cpp:141] Setting up inception_4e/output
I0403 15:18:44.430506 11816 net.cpp:148] Top shape: 24 832 14 14 (3913728)
I0403 15:18:44.430521 11816 net.cpp:156] Memory required for data: 1272557088
I0403 15:18:44.430536 11816 layer_factory.hpp:77] Creating layer pool4/3x3_s2
I0403 15:18:44.430555 11816 net.cpp:91] Creating Layer pool4/3x3_s2
I0403 15:18:44.430572 11816 net.cpp:425] pool4/3x3_s2 <- inception_4e/output
I0403 15:18:44.430590 11816 net.cpp:399] pool4/3x3_s2 -> pool4/3x3_s2
I0403 15:18:44.430658 11816 net.cpp:141] Setting up pool4/3x3_s2
I0403 15:18:44.430683 11816 net.cpp:148] Top shape: 24 832 7 7 (978432)
I0403 15:18:44.430697 11816 net.cpp:156] Memory required for data: 1276470816
I0403 15:18:44.430712 11816 layer_factory.hpp:77] Creating layer pool4/3x3_s2_pool4/3x3_s2_0_split
I0403 15:18:44.430730 11816 net.cpp:91] Creating Layer pool4/3x3_s2_pool4/3x3_s2_0_split
I0403 15:18:44.430745 11816 net.cpp:425] pool4/3x3_s2_pool4/3x3_s2_0_split <- pool4/3x3_s2
I0403 15:18:44.430764 11816 net.cpp:399] pool4/3x3_s2_pool4/3x3_s2_0_split -> pool4/3x3_s2_pool4/3x3_s2_0_split_0
I0403 15:18:44.430784 11816 net.cpp:399] pool4/3x3_s2_pool4/3x3_s2_0_split -> pool4/3x3_s2_pool4/3x3_s2_0_split_1
I0403 15:18:44.430804 11816 net.cpp:399] pool4/3x3_s2_pool4/3x3_s2_0_split -> pool4/3x3_s2_pool4/3x3_s2_0_split_2
I0403 15:18:44.430824 11816 net.cpp:399] pool4/3x3_s2_pool4/3x3_s2_0_split -> pool4/3x3_s2_pool4/3x3_s2_0_split_3
I0403 15:18:44.430912 11816 net.cpp:141] Setting up pool4/3x3_s2_pool4/3x3_s2_0_split
I0403 15:18:44.430938 11816 net.cpp:148] Top shape: 24 832 7 7 (978432)
I0403 15:18:44.430955 11816 net.cpp:148] Top shape: 24 832 7 7 (978432)
I0403 15:18:44.430970 11816 net.cpp:148] Top shape: 24 832 7 7 (978432)
I0403 15:18:44.430985 11816 net.cpp:148] Top shape: 24 832 7 7 (978432)
I0403 15:18:44.431010 11816 net.cpp:156] Memory required for data: 1292125728
I0403 15:18:44.431025 11816 layer_factory.hpp:77] Creating layer inception_5a/1x1
I0403 15:18:44.431046 11816 net.cpp:91] Creating Layer inception_5a/1x1
I0403 15:18:44.431062 11816 net.cpp:425] inception_5a/1x1 <- pool4/3x3_s2_pool4/3x3_s2_0_split_0
I0403 15:18:44.431080 11816 net.cpp:399] inception_5a/1x1 -> inception_5a/1x1
I0403 15:18:44.433873 11816 net.cpp:141] Setting up inception_5a/1x1
I0403 15:18:44.433903 11816 net.cpp:148] Top shape: 24 256 7 7 (301056)
I0403 15:18:44.433922 11816 net.cpp:156] Memory required for data: 1293329952
I0403 15:18:44.433939 11816 layer_factory.hpp:77] Creating layer inception_5a/relu_1x1
I0403 15:18:44.433957 11816 net.cpp:91] Creating Layer inception_5a/relu_1x1
I0403 15:18:44.433972 11816 net.cpp:425] inception_5a/relu_1x1 <- inception_5a/1x1
I0403 15:18:44.433990 11816 net.cpp:386] inception_5a/relu_1x1 -> inception_5a/1x1 (in-place)
I0403 15:18:44.434296 11816 net.cpp:141] Setting up inception_5a/relu_1x1
I0403 15:18:44.434322 11816 net.cpp:148] Top shape: 24 256 7 7 (301056)
I0403 15:18:44.434336 11816 net.cpp:156] Memory required for data: 1294534176
I0403 15:18:44.434353 11816 layer_factory.hpp:77] Creating layer inception_5a/3x3_reduce
I0403 15:18:44.434383 11816 net.cpp:91] Creating Layer inception_5a/3x3_reduce
I0403 15:18:44.434399 11816 net.cpp:425] inception_5a/3x3_reduce <- pool4/3x3_s2_pool4/3x3_s2_0_split_1
I0403 15:18:44.434425 11816 net.cpp:399] inception_5a/3x3_reduce -> inception_5a/3x3_reduce
I0403 15:18:44.436884 11816 net.cpp:141] Setting up inception_5a/3x3_reduce
I0403 15:18:44.436913 11816 net.cpp:148] Top shape: 24 160 7 7 (188160)
I0403 15:18:44.436929 11816 net.cpp:156] Memory required for data: 1295286816
I0403 15:18:44.436946 11816 layer_factory.hpp:77] Creating layer inception_5a/relu_3x3_reduce
I0403 15:18:44.436966 11816 net.cpp:91] Creating Layer inception_5a/relu_3x3_reduce
I0403 15:18:44.436983 11816 net.cpp:425] inception_5a/relu_3x3_reduce <- inception_5a/3x3_reduce
I0403 15:18:44.437000 11816 net.cpp:386] inception_5a/relu_3x3_reduce -> inception_5a/3x3_reduce (in-place)
I0403 15:18:44.437182 11816 net.cpp:141] Setting up inception_5a/relu_3x3_reduce
I0403 15:18:44.437208 11816 net.cpp:148] Top shape: 24 160 7 7 (188160)
I0403 15:18:44.437223 11816 net.cpp:156] Memory required for data: 1296039456
I0403 15:18:44.437237 11816 layer_factory.hpp:77] Creating layer inception_5a/3x3
I0403 15:18:44.437259 11816 net.cpp:91] Creating Layer inception_5a/3x3
I0403 15:18:44.437275 11816 net.cpp:425] inception_5a/3x3 <- inception_5a/3x3_reduce
I0403 15:18:44.437296 11816 net.cpp:399] inception_5a/3x3 -> inception_5a/3x3
I0403 15:18:44.442209 11816 net.cpp:141] Setting up inception_5a/3x3
I0403 15:18:44.442242 11816 net.cpp:148] Top shape: 24 320 7 7 (376320)
I0403 15:18:44.442260 11816 net.cpp:156] Memory required for data: 1297544736
I0403 15:18:44.442277 11816 layer_factory.hpp:77] Creating layer inception_5a/relu_3x3
I0403 15:18:44.442296 11816 net.cpp:91] Creating Layer inception_5a/relu_3x3
I0403 15:18:44.442312 11816 net.cpp:425] inception_5a/relu_3x3 <- inception_5a/3x3
I0403 15:18:44.442332 11816 net.cpp:386] inception_5a/relu_3x3 -> inception_5a/3x3 (in-place)
I0403 15:18:44.442634 11816 net.cpp:141] Setting up inception_5a/relu_3x3
I0403 15:18:44.442663 11816 net.cpp:148] Top shape: 24 320 7 7 (376320)
I0403 15:18:44.442678 11816 net.cpp:156] Memory required for data: 1299050016
I0403 15:18:44.442693 11816 layer_factory.hpp:77] Creating layer inception_5a/5x5_reduce
I0403 15:18:44.442716 11816 net.cpp:91] Creating Layer inception_5a/5x5_reduce
I0403 15:18:44.442734 11816 net.cpp:425] inception_5a/5x5_reduce <- pool4/3x3_s2_pool4/3x3_s2_0_split_2
I0403 15:18:44.442754 11816 net.cpp:399] inception_5a/5x5_reduce -> inception_5a/5x5_reduce
I0403 15:18:44.443900 11816 net.cpp:141] Setting up inception_5a/5x5_reduce
I0403 15:18:44.443929 11816 net.cpp:148] Top shape: 24 32 7 7 (37632)
I0403 15:18:44.443945 11816 net.cpp:156] Memory required for data: 1299200544
I0403 15:18:44.443964 11816 layer_factory.hpp:77] Creating layer inception_5a/relu_5x5_reduce
I0403 15:18:44.443982 11816 net.cpp:91] Creating Layer inception_5a/relu_5x5_reduce
I0403 15:18:44.443997 11816 net.cpp:425] inception_5a/relu_5x5_reduce <- inception_5a/5x5_reduce
I0403 15:18:44.444016 11816 net.cpp:386] inception_5a/relu_5x5_reduce -> inception_5a/5x5_reduce (in-place)
I0403 15:18:44.444327 11816 net.cpp:141] Setting up inception_5a/relu_5x5_reduce
I0403 15:18:44.444357 11816 net.cpp:148] Top shape: 24 32 7 7 (37632)
I0403 15:18:44.444373 11816 net.cpp:156] Memory required for data: 1299351072
I0403 15:18:44.444388 11816 layer_factory.hpp:77] Creating layer inception_5a/5x5
I0403 15:18:44.444416 11816 net.cpp:91] Creating Layer inception_5a/5x5
I0403 15:18:44.444440 11816 net.cpp:425] inception_5a/5x5 <- inception_5a/5x5_reduce
I0403 15:18:44.444463 11816 net.cpp:399] inception_5a/5x5 -> inception_5a/5x5
I0403 15:18:44.446185 11816 net.cpp:141] Setting up inception_5a/5x5
I0403 15:18:44.446228 11816 net.cpp:148] Top shape: 24 128 7 7 (150528)
I0403 15:18:44.446245 11816 net.cpp:156] Memory required for data: 1299953184
I0403 15:18:44.446264 11816 layer_factory.hpp:77] Creating layer inception_5a/relu_5x5
I0403 15:18:44.446280 11816 net.cpp:91] Creating Layer inception_5a/relu_5x5
I0403 15:18:44.446295 11816 net.cpp:425] inception_5a/relu_5x5 <- inception_5a/5x5
I0403 15:18:44.446315 11816 net.cpp:386] inception_5a/relu_5x5 -> inception_5a/5x5 (in-place)
I0403 15:18:44.446507 11816 net.cpp:141] Setting up inception_5a/relu_5x5
I0403 15:18:44.446532 11816 net.cpp:148] Top shape: 24 128 7 7 (150528)
I0403 15:18:44.446547 11816 net.cpp:156] Memory required for data: 1300555296
I0403 15:18:44.446562 11816 layer_factory.hpp:77] Creating layer inception_5a/pool
I0403 15:18:44.446578 11816 net.cpp:91] Creating Layer inception_5a/pool
I0403 15:18:44.446593 11816 net.cpp:425] inception_5a/pool <- pool4/3x3_s2_pool4/3x3_s2_0_split_3
I0403 15:18:44.446612 11816 net.cpp:399] inception_5a/pool -> inception_5a/pool
I0403 15:18:44.446681 11816 net.cpp:141] Setting up inception_5a/pool
I0403 15:18:44.446704 11816 net.cpp:148] Top shape: 24 832 7 7 (978432)
I0403 15:18:44.446717 11816 net.cpp:156] Memory required for data: 1304469024
I0403 15:18:44.446732 11816 layer_factory.hpp:77] Creating layer inception_5a/pool_proj
I0403 15:18:44.446754 11816 net.cpp:91] Creating Layer inception_5a/pool_proj
I0403 15:18:44.446771 11816 net.cpp:425] inception_5a/pool_proj <- inception_5a/pool
I0403 15:18:44.446789 11816 net.cpp:399] inception_5a/pool_proj -> inception_5a/pool_proj
I0403 15:18:44.449023 11816 net.cpp:141] Setting up inception_5a/pool_proj
I0403 15:18:44.449054 11816 net.cpp:148] Top shape: 24 128 7 7 (150528)
I0403 15:18:44.449071 11816 net.cpp:156] Memory required for data: 1305071136
I0403 15:18:44.449090 11816 layer_factory.hpp:77] Creating layer inception_5a/relu_pool_proj
I0403 15:18:44.449107 11816 net.cpp:91] Creating Layer inception_5a/relu_pool_proj
I0403 15:18:44.449122 11816 net.cpp:425] inception_5a/relu_pool_proj <- inception_5a/pool_proj
I0403 15:18:44.449138 11816 net.cpp:386] inception_5a/relu_pool_proj -> inception_5a/pool_proj (in-place)
I0403 15:18:44.449432 11816 net.cpp:141] Setting up inception_5a/relu_pool_proj
I0403 15:18:44.449460 11816 net.cpp:148] Top shape: 24 128 7 7 (150528)
I0403 15:18:44.449476 11816 net.cpp:156] Memory required for data: 1305673248
I0403 15:18:44.449491 11816 layer_factory.hpp:77] Creating layer inception_5a/output
I0403 15:18:44.449506 11816 net.cpp:91] Creating Layer inception_5a/output
I0403 15:18:44.449522 11816 net.cpp:425] inception_5a/output <- inception_5a/1x1
I0403 15:18:44.449537 11816 net.cpp:425] inception_5a/output <- inception_5a/3x3
I0403 15:18:44.449553 11816 net.cpp:425] inception_5a/output <- inception_5a/5x5
I0403 15:18:44.449566 11816 net.cpp:425] inception_5a/output <- inception_5a/pool_proj
I0403 15:18:44.449582 11816 net.cpp:399] inception_5a/output -> inception_5a/output
I0403 15:18:44.449631 11816 net.cpp:141] Setting up inception_5a/output
I0403 15:18:44.449656 11816 net.cpp:148] Top shape: 24 832 7 7 (978432)
I0403 15:18:44.449669 11816 net.cpp:156] Memory required for data: 1309586976
I0403 15:18:44.449683 11816 layer_factory.hpp:77] Creating layer inception_5a/output_inception_5a/output_0_split
I0403 15:18:44.449702 11816 net.cpp:91] Creating Layer inception_5a/output_inception_5a/output_0_split
I0403 15:18:44.449717 11816 net.cpp:425] inception_5a/output_inception_5a/output_0_split <- inception_5a/output
I0403 15:18:44.449734 11816 net.cpp:399] inception_5a/output_inception_5a/output_0_split -> inception_5a/output_inception_5a/output_0_split_0
I0403 15:18:44.449753 11816 net.cpp:399] inception_5a/output_inception_5a/output_0_split -> inception_5a/output_inception_5a/output_0_split_1
I0403 15:18:44.449772 11816 net.cpp:399] inception_5a/output_inception_5a/output_0_split -> inception_5a/output_inception_5a/output_0_split_2
I0403 15:18:44.449791 11816 net.cpp:399] inception_5a/output_inception_5a/output_0_split -> inception_5a/output_inception_5a/output_0_split_3
I0403 15:18:44.449900 11816 net.cpp:141] Setting up inception_5a/output_inception_5a/output_0_split
I0403 15:18:44.449923 11816 net.cpp:148] Top shape: 24 832 7 7 (978432)
I0403 15:18:44.449939 11816 net.cpp:148] Top shape: 24 832 7 7 (978432)
I0403 15:18:44.449954 11816 net.cpp:148] Top shape: 24 832 7 7 (978432)
I0403 15:18:44.449980 11816 net.cpp:148] Top shape: 24 832 7 7 (978432)
I0403 15:18:44.449995 11816 net.cpp:156] Memory required for data: 1325241888
I0403 15:18:44.450008 11816 layer_factory.hpp:77] Creating layer inception_5b/1x1
I0403 15:18:44.450031 11816 net.cpp:91] Creating Layer inception_5b/1x1
I0403 15:18:44.450049 11816 net.cpp:425] inception_5b/1x1 <- inception_5a/output_inception_5a/output_0_split_0
I0403 15:18:44.450070 11816 net.cpp:399] inception_5b/1x1 -> inception_5b/1x1
I0403 15:18:44.453779 11816 net.cpp:141] Setting up inception_5b/1x1
I0403 15:18:44.453809 11816 net.cpp:148] Top shape: 24 384 7 7 (451584)
I0403 15:18:44.453825 11816 net.cpp:156] Memory required for data: 1327048224
I0403 15:18:44.453845 11816 layer_factory.hpp:77] Creating layer inception_5b/relu_1x1
I0403 15:18:44.453865 11816 net.cpp:91] Creating Layer inception_5b/relu_1x1
I0403 15:18:44.453881 11816 net.cpp:425] inception_5b/relu_1x1 <- inception_5b/1x1
I0403 15:18:44.453897 11816 net.cpp:386] inception_5b/relu_1x1 -> inception_5b/1x1 (in-place)
I0403 15:18:44.454195 11816 net.cpp:141] Setting up inception_5b/relu_1x1
I0403 15:18:44.454221 11816 net.cpp:148] Top shape: 24 384 7 7 (451584)
I0403 15:18:44.454236 11816 net.cpp:156] Memory required for data: 1328854560
I0403 15:18:44.454249 11816 layer_factory.hpp:77] Creating layer inception_5b/3x3_reduce
I0403 15:18:44.454273 11816 net.cpp:91] Creating Layer inception_5b/3x3_reduce
I0403 15:18:44.454290 11816 net.cpp:425] inception_5b/3x3_reduce <- inception_5a/output_inception_5a/output_0_split_1
I0403 15:18:44.454309 11816 net.cpp:399] inception_5b/3x3_reduce -> inception_5b/3x3_reduce
I0403 15:18:44.456938 11816 net.cpp:141] Setting up inception_5b/3x3_reduce
I0403 15:18:44.456970 11816 net.cpp:148] Top shape: 24 192 7 7 (225792)
I0403 15:18:44.456986 11816 net.cpp:156] Memory required for data: 1329757728
I0403 15:18:44.457005 11816 layer_factory.hpp:77] Creating layer inception_5b/relu_3x3_reduce
I0403 15:18:44.457021 11816 net.cpp:91] Creating Layer inception_5b/relu_3x3_reduce
I0403 15:18:44.457037 11816 net.cpp:425] inception_5b/relu_3x3_reduce <- inception_5b/3x3_reduce
I0403 15:18:44.457056 11816 net.cpp:386] inception_5b/relu_3x3_reduce -> inception_5b/3x3_reduce (in-place)
I0403 15:18:44.457242 11816 net.cpp:141] Setting up inception_5b/relu_3x3_reduce
I0403 15:18:44.457269 11816 net.cpp:148] Top shape: 24 192 7 7 (225792)
I0403 15:18:44.457284 11816 net.cpp:156] Memory required for data: 1330660896
I0403 15:18:44.457298 11816 layer_factory.hpp:77] Creating layer inception_5b/3x3
I0403 15:18:44.457319 11816 net.cpp:91] Creating Layer inception_5b/3x3
I0403 15:18:44.457336 11816 net.cpp:425] inception_5b/3x3 <- inception_5b/3x3_reduce
I0403 15:18:44.457360 11816 net.cpp:399] inception_5b/3x3 -> inception_5b/3x3
I0403 15:18:44.463898 11816 net.cpp:141] Setting up inception_5b/3x3
I0403 15:18:44.463930 11816 net.cpp:148] Top shape: 24 384 7 7 (451584)
I0403 15:18:44.463948 11816 net.cpp:156] Memory required for data: 1332467232
I0403 15:18:44.463966 11816 layer_factory.hpp:77] Creating layer inception_5b/relu_3x3
I0403 15:18:44.463984 11816 net.cpp:91] Creating Layer inception_5b/relu_3x3
I0403 15:18:44.464001 11816 net.cpp:425] inception_5b/relu_3x3 <- inception_5b/3x3
I0403 15:18:44.464017 11816 net.cpp:386] inception_5b/relu_3x3 -> inception_5b/3x3 (in-place)
I0403 15:18:44.464311 11816 net.cpp:141] Setting up inception_5b/relu_3x3
I0403 15:18:44.464339 11816 net.cpp:148] Top shape: 24 384 7 7 (451584)
I0403 15:18:44.464356 11816 net.cpp:156] Memory required for data: 1334273568
I0403 15:18:44.464371 11816 layer_factory.hpp:77] Creating layer inception_5b/5x5_reduce
I0403 15:18:44.464407 11816 net.cpp:91] Creating Layer inception_5b/5x5_reduce
I0403 15:18:44.464440 11816 net.cpp:425] inception_5b/5x5_reduce <- inception_5a/output_inception_5a/output_0_split_2
I0403 15:18:44.464459 11816 net.cpp:399] inception_5b/5x5_reduce -> inception_5b/5x5_reduce
I0403 15:18:44.465700 11816 net.cpp:141] Setting up inception_5b/5x5_reduce
I0403 15:18:44.465731 11816 net.cpp:148] Top shape: 24 48 7 7 (56448)
I0403 15:18:44.465747 11816 net.cpp:156] Memory required for data: 1334499360
I0403 15:18:44.465767 11816 layer_factory.hpp:77] Creating layer inception_5b/relu_5x5_reduce
I0403 15:18:44.465785 11816 net.cpp:91] Creating Layer inception_5b/relu_5x5_reduce
I0403 15:18:44.465800 11816 net.cpp:425] inception_5b/relu_5x5_reduce <- inception_5b/5x5_reduce
I0403 15:18:44.465818 11816 net.cpp:386] inception_5b/relu_5x5_reduce -> inception_5b/5x5_reduce (in-place)
I0403 15:18:44.466183 11816 net.cpp:141] Setting up inception_5b/relu_5x5_reduce
I0403 15:18:44.466212 11816 net.cpp:148] Top shape: 24 48 7 7 (56448)
I0403 15:18:44.466226 11816 net.cpp:156] Memory required for data: 1334725152
I0403 15:18:44.466241 11816 layer_factory.hpp:77] Creating layer inception_5b/5x5
I0403 15:18:44.466260 11816 net.cpp:91] Creating Layer inception_5b/5x5
I0403 15:18:44.466275 11816 net.cpp:425] inception_5b/5x5 <- inception_5b/5x5_reduce
I0403 15:18:44.466294 11816 net.cpp:399] inception_5b/5x5 -> inception_5b/5x5
I0403 15:18:44.468292 11816 net.cpp:141] Setting up inception_5b/5x5
I0403 15:18:44.468322 11816 net.cpp:148] Top shape: 24 128 7 7 (150528)
I0403 15:18:44.468338 11816 net.cpp:156] Memory required for data: 1335327264
I0403 15:18:44.468356 11816 layer_factory.hpp:77] Creating layer inception_5b/relu_5x5
I0403 15:18:44.468374 11816 net.cpp:91] Creating Layer inception_5b/relu_5x5
I0403 15:18:44.468390 11816 net.cpp:425] inception_5b/relu_5x5 <- inception_5b/5x5
I0403 15:18:44.468413 11816 net.cpp:386] inception_5b/relu_5x5 -> inception_5b/5x5 (in-place)
I0403 15:18:44.468614 11816 net.cpp:141] Setting up inception_5b/relu_5x5
I0403 15:18:44.468639 11816 net.cpp:148] Top shape: 24 128 7 7 (150528)
I0403 15:18:44.468653 11816 net.cpp:156] Memory required for data: 1335929376
I0403 15:18:44.468667 11816 layer_factory.hpp:77] Creating layer inception_5b/pool
I0403 15:18:44.468688 11816 net.cpp:91] Creating Layer inception_5b/pool
I0403 15:18:44.468704 11816 net.cpp:425] inception_5b/pool <- inception_5a/output_inception_5a/output_0_split_3
I0403 15:18:44.468727 11816 net.cpp:399] inception_5b/pool -> inception_5b/pool
I0403 15:18:44.468798 11816 net.cpp:141] Setting up inception_5b/pool
I0403 15:18:44.468822 11816 net.cpp:148] Top shape: 24 832 7 7 (978432)
I0403 15:18:44.468835 11816 net.cpp:156] Memory required for data: 1339843104
I0403 15:18:44.468848 11816 layer_factory.hpp:77] Creating layer inception_5b/pool_proj
I0403 15:18:44.468869 11816 net.cpp:91] Creating Layer inception_5b/pool_proj
I0403 15:18:44.468886 11816 net.cpp:425] inception_5b/pool_proj <- inception_5b/pool
I0403 15:18:44.468906 11816 net.cpp:399] inception_5b/pool_proj -> inception_5b/pool_proj
I0403 15:18:44.471155 11816 net.cpp:141] Setting up inception_5b/pool_proj
I0403 15:18:44.471187 11816 net.cpp:148] Top shape: 24 128 7 7 (150528)
I0403 15:18:44.471204 11816 net.cpp:156] Memory required for data: 1340445216
I0403 15:18:44.471222 11816 layer_factory.hpp:77] Creating layer inception_5b/relu_pool_proj
I0403 15:18:44.471240 11816 net.cpp:91] Creating Layer inception_5b/relu_pool_proj
I0403 15:18:44.471257 11816 net.cpp:425] inception_5b/relu_pool_proj <- inception_5b/pool_proj
I0403 15:18:44.471277 11816 net.cpp:386] inception_5b/relu_pool_proj -> inception_5b/pool_proj (in-place)
I0403 15:18:44.471580 11816 net.cpp:141] Setting up inception_5b/relu_pool_proj
I0403 15:18:44.471609 11816 net.cpp:148] Top shape: 24 128 7 7 (150528)
I0403 15:18:44.471626 11816 net.cpp:156] Memory required for data: 1341047328
I0403 15:18:44.471642 11816 layer_factory.hpp:77] Creating layer inception_5b/output
I0403 15:18:44.471658 11816 net.cpp:91] Creating Layer inception_5b/output
I0403 15:18:44.471688 11816 net.cpp:425] inception_5b/output <- inception_5b/1x1
I0403 15:18:44.471704 11816 net.cpp:425] inception_5b/output <- inception_5b/3x3
I0403 15:18:44.471726 11816 net.cpp:425] inception_5b/output <- inception_5b/5x5
I0403 15:18:44.471741 11816 net.cpp:425] inception_5b/output <- inception_5b/pool_proj
I0403 15:18:44.471760 11816 net.cpp:399] inception_5b/output -> inception_5b/output
I0403 15:18:44.471819 11816 net.cpp:141] Setting up inception_5b/output
I0403 15:18:44.471843 11816 net.cpp:148] Top shape: 24 1024 7 7 (1204224)
I0403 15:18:44.471858 11816 net.cpp:156] Memory required for data: 1345864224
I0403 15:18:44.471871 11816 layer_factory.hpp:77] Creating layer pool5/7x7_s1
I0403 15:18:44.471891 11816 net.cpp:91] Creating Layer pool5/7x7_s1
I0403 15:18:44.471909 11816 net.cpp:425] pool5/7x7_s1 <- inception_5b/output
I0403 15:18:44.471925 11816 net.cpp:399] pool5/7x7_s1 -> pool5/7x7_s1
I0403 15:18:44.472138 11816 net.cpp:141] Setting up pool5/7x7_s1
I0403 15:18:44.472165 11816 net.cpp:148] Top shape: 24 1024 1 1 (24576)
I0403 15:18:44.472180 11816 net.cpp:156] Memory required for data: 1345962528
I0403 15:18:44.472194 11816 layer_factory.hpp:77] Creating layer pool5/drop_7x7_s1
I0403 15:18:44.472211 11816 net.cpp:91] Creating Layer pool5/drop_7x7_s1
I0403 15:18:44.472226 11816 net.cpp:425] pool5/drop_7x7_s1 <- pool5/7x7_s1
I0403 15:18:44.472246 11816 net.cpp:386] pool5/drop_7x7_s1 -> pool5/7x7_s1 (in-place)
I0403 15:18:44.472295 11816 net.cpp:141] Setting up pool5/drop_7x7_s1
I0403 15:18:44.472317 11816 net.cpp:148] Top shape: 24 1024 1 1 (24576)
I0403 15:18:44.472331 11816 net.cpp:156] Memory required for data: 1346060832
I0403 15:18:44.472344 11816 layer_factory.hpp:77] Creating layer loss3/classifier_plantvillage
I0403 15:18:44.472364 11816 net.cpp:91] Creating Layer loss3/classifier_plantvillage
I0403 15:18:44.472380 11816 net.cpp:425] loss3/classifier_plantvillage <- pool5/7x7_s1
I0403 15:18:44.472401 11816 net.cpp:399] loss3/classifier_plantvillage -> loss3/classifier_plantvillage
I0403 15:18:44.472841 11816 net.cpp:141] Setting up loss3/classifier_plantvillage
I0403 15:18:44.472865 11816 net.cpp:148] Top shape: 24 38 (912)
I0403 15:18:44.472880 11816 net.cpp:156] Memory required for data: 1346064480
I0403 15:18:44.472898 11816 layer_factory.hpp:77] Creating layer loss3/classifier_plantvillage_loss3/classifier_plantvillage_0_split
I0403 15:18:44.472918 11816 net.cpp:91] Creating Layer loss3/classifier_plantvillage_loss3/classifier_plantvillage_0_split
I0403 15:18:44.472934 11816 net.cpp:425] loss3/classifier_plantvillage_loss3/classifier_plantvillage_0_split <- loss3/classifier_plantvillage
I0403 15:18:44.472949 11816 net.cpp:399] loss3/classifier_plantvillage_loss3/classifier_plantvillage_0_split -> loss3/classifier_plantvillage_loss3/classifier_plantvillage_0_split_0
I0403 15:18:44.472968 11816 net.cpp:399] loss3/classifier_plantvillage_loss3/classifier_plantvillage_0_split -> loss3/classifier_plantvillage_loss3/classifier_plantvillage_0_split_1
I0403 15:18:44.472987 11816 net.cpp:399] loss3/classifier_plantvillage_loss3/classifier_plantvillage_0_split -> loss3/classifier_plantvillage_loss3/classifier_plantvillage_0_split_2
I0403 15:18:44.473006 11816 net.cpp:399] loss3/classifier_plantvillage_loss3/classifier_plantvillage_0_split -> loss3/classifier_plantvillage_loss3/classifier_plantvillage_0_split_3
I0403 15:18:44.473101 11816 net.cpp:141] Setting up loss3/classifier_plantvillage_loss3/classifier_plantvillage_0_split
I0403 15:18:44.473124 11816 net.cpp:148] Top shape: 24 38 (912)
I0403 15:18:44.473140 11816 net.cpp:148] Top shape: 24 38 (912)
I0403 15:18:44.473153 11816 net.cpp:148] Top shape: 24 38 (912)
I0403 15:18:44.473168 11816 net.cpp:148] Top shape: 24 38 (912)
I0403 15:18:44.473181 11816 net.cpp:156] Memory required for data: 1346079072
I0403 15:18:44.473194 11816 layer_factory.hpp:77] Creating layer loss1/loss
I0403 15:18:44.473214 11816 net.cpp:91] Creating Layer loss1/loss
I0403 15:18:44.473232 11816 net.cpp:425] loss1/loss <- loss1/classifier_plantvillage_loss1/classifier_plantvillage_0_split_0
I0403 15:18:44.473261 11816 net.cpp:425] loss1/loss <- label_data_1_split_0
…
