…
I0403 15:27:24.106950 11975 net.cpp:313] The NetState phase (1) differed from the phase (0) specified by a rule in layer data
I0403 15:27:24.108168 11975 net.cpp:49] Initializing net from parameters: 
state {
  phase: TEST
}
layer {
  name: "data"
  type: "Data"
  top: "data"
  top: "label"
  include {
    phase: TEST
  }
  transform_param {
    mirror: false
    crop_size: 224
    mean_file: "/home/mohanty/data/final_dataset/lmdb/segmented-50-50/mean.binaryproto"
  }
  data_param {
    source: "/home/mohanty/data/final_dataset/lmdb/segmented-50-50/test_db"
    batch_size: 24
    backend: LMDB
  }
}
layer {
  name: "conv1/7x7_s2"
  type: "Convolution"
  bottom: "data"
  top: "conv1/7x7_s2"
  param {
    lr_mult: 1
    decay_mult: 1
  }
  param {
    lr_mult: 2
    decay_mult: 0
  }
  convolution_param {
    num_output: 64
    pad: 3
    kernel_size: 7
    stride: 2
    weight_filler {
      type: "xavier"
      std: 0.1
    }
    bias_filler {
      type: "constant"
      value: 0.2
    }
  }
}
layer {
  name: "conv1/relu_7x7"
  type: "ReLU"
  bottom: "conv1/7x7_s2"
  top: "conv1/7x7_s2"
}
layer {
  name: "pool1/3x3_s2"
  type: "Pooling"
  bottom: "conv1/7x7_s2"
  top: "pool1/3x3_s2"
  pooling_param {
    pool: MAX
    kernel_size: 3
    stride: 2
  }
}
layer {
  name: "pool1/norm1"
  type: "LRN"
  bottom: "pool1/3x3_s2"
  top: "pool1/norm1"
  lrn_param {
    local_size: 5
    alpha: 0.0001
    beta: 0.75
  }
}
layer {
  name: "conv2/3x3_reduce"
  type: "Convolution"
  bottom: "pool1/norm1"
  top: "conv2/3x3_reduce"
  param {
    lr_mult: 1
    decay_mult: 1
  }
  param {
    lr_mult: 2
    decay_mult: 0
  }
  convolution_param {
    num_output: 64
    kernel_size: 1
    weight_filler {
      type: "xavier"
      std: 0.1
    }
    bias_filler {
      type: "constant"
      value: 0.2
    }
  }
}
layer {
  name: "conv2/relu_3x3_reduce"
  type: "ReLU"
  bottom: "conv2/3x3_reduce"
  top: "conv2/3x3_reduce"
}
layer {
  name: "conv2/3x3"
  type: "Convolution"
  bottom: "conv2/3x3_reduce"
  top: "conv2/3x3"
  param {
    lr_mult: 1
    decay_mult: 1
  }
  param {
    lr_mult: 2
    decay_mult: 0
  }
  convolution_param {
    num_output: 192
    pad: 1
    kernel_size: 3
    weight_filler {
      type: "xavier"
      std: 0.03
    }
    bias_filler {
      type: "constant"
      value: 0.2
    }
  }
}
layer {
  name: "conv2/relu_3x3"
  type: "ReLU"
  bottom: "conv2/3x3"
  top: "conv2/3x3"
}
layer {
  name: "conv2/norm2"
  type: "LRN"
  bottom: "conv2/3x3"
  top: "conv2/norm2"
  lrn_param {
    local_size: 5
    alpha: 0.0001
    beta: 0.75
  }
}
layer {
  name: "pool2/3x3_s2"
  type: "Pooling"
  bottom: "conv2/norm2"
  top: "pool2/3x3_s2"
  pooling_param {
    pool: MAX
    kernel_size: 3
    stride: 2
  }
}
layer {
  name: "inception_3a/1x1"
  type: "Convolution"
  bottom: "pool2/3x3_s2"
  top: "inception_3a/1x1"
  param {
    lr_mult: 1
    decay_mult: 1
  }
  param {
    lr_mult: 2
    decay_mult: 0
  }
  convolution_param {
    num_output: 64
    kernel_size: 1
    weight_filler {
      type: "xavier"
      std: 0.03
    }
    bias_filler {
      type: "constant"
      value: 0.2
    }
  }
}
layer {
  name: "inception_3a/relu_1x1"
  type: "ReLU"
  bottom: "inception_3a/1x1"
  top: "inception_3a/1x1"
}
layer {
  name: "inception_3a/3x3_reduce"
  type: "Convolution"
  bottom: "pool2/3x3_s2"
  top: "inception_3a/3x3_reduce"
  param {
    lr_mult: 1
    decay_mult: 1
  }
  param {
    lr_mult: 2
    decay_mult: 0
  }
  convolution_param {
    num_output: 96
    kernel_size: 1
    weight_filler {
      type: "xavier"
      std: 0.09
    }
    bias_filler {
      type: "constant"
      value: 0.2
    }
  }
}
layer {
  name: "inception_3a/relu_3x3_reduce"
  type: "ReLU"
  bottom: "inception_3a/3x3_reduce"
  top: "inception_3a/3x3_reduce"
}
layer {
  name: "inception_3a/3x3"
  type: "Convolution"
  bottom: "inception_3a/3x3_reduce"
  top: "inception_3a/3x3"
  param {
    lr_mult: 1
    decay_mult: 1
  }
  param {
    lr_mult: 2
    decay_mult: 0
  }
  convolution_param {
    num_output: 128
    pad: 1
    kernel_size: 3
    weight_filler {
      type: "xavier"
      std: 0.03
    }
    bias_filler {
      type: "constant"
      value: 0.2
    }
  }
}
layer {
  name: "inception_3a/relu_3x3"
  type: "ReLU"
  bottom: "inception_3a/3x3"
  top: "inception_3a/3x3"
}
layer {
  name: "inception_3a/5x5_reduce"
  type: "Convolution"
  bottom: "pool2/3x3_s2"
  top: "inception_3a/5x5_reduce"
  param {
    lr_mult: 1
    decay_mult: 1
  }
  param {
    lr_mult: 2
    decay_mult: 0
  }
  convolution_param {
    num_output: 16
    kernel_size: 1
    weight_filler {
      type: "xavier"
      std: 0.2
    }
    bias_filler {
      type: "constant"
      value: 0.2
    }
  }
}
layer {
  name: "inception_3a/relu_5x5_reduce"
  type: "ReLU"
  bottom: "inception_3a/5x5_reduce"
  top: "inception_3a/5x5_reduce"
}
layer {
  name: "inception_3a/5x5"
  type: "Convolution"
  bottom: "inception_3a/5x5_reduce"
  top: "inception_3a/5x5"
  param {
    lr_mult: 1
    decay_mult: 1
  }
  param {
    lr_mult: 2
    decay_mult: 0
  }
  convolution_param {
    num_output: 32
    pad: 2
    kernel_size: 5
    weight_filler {
      type: "xavier"
      std: 0.03
    }
    bias_filler {
      type: "constant"
      value: 0.2
    }
  }
}
layer {
  name: "inception_3a/relu_5x5"
  type: "ReLU"
  bottom: "inception_3a/5x5"
  top: "inception_3a/5x5"
}
layer {
  name: "inception_3a/pool"
  type: "Pooling"
  bottom: "pool2/3x3_s2"
  top: "inception_3a/pool"
  pooling_param {
    pool: MAX
    kernel_size: 3
    stride: 1
    pad: 1
  }
}
layer {
  name: "inception_3a/pool_proj"
  type: "Convolution"
  bottom: "inception_3a/pool"
  top: "inception_3a/pool_proj"
  param {
    lr_mult: 1
    decay_mult: 1
  }
  param {
    lr_mult: 2
    decay_mult: 0
  }
  convolution_param {
    num_output: 32
    kernel_size: 1
    weight_filler {
      type: "xavier"
      std: 0.1
    }
    bias_filler {
      type: "constant"
      value: 0.2
    }
  }
}
layer {
  name: "inception_3a/relu_pool_proj"
  type: "ReLU"
  bottom: "inception_3a/pool_proj"
  top: "inception_3a/pool_proj"
}
layer {
  name: "inception_3a/output"
  type: "Concat"
  bottom: "inception_3a/1x1"
  bottom: "inception_3a/3x3"
  bottom: "inception_3a/5x5"
  bottom: "inception_3a/pool_proj"
  top: "inception_3a/output"
}
layer {
  name: "inception_3b/1x1"
  type: "Convolution"
  bottom: "inception_3a/output"
  top: "inception_3b/1x1"
  param {
    lr_mult: 1
    decay_mult: 1
  }
  param {
    lr_mult: 2
    decay_mult: 0
  }
  convolution_param {
    num_output: 128
    kernel_size: 1
    weight_filler {
      type: "xavier"
      std: 0.03
    }
    bias_filler {
      type: "constant"
      value: 0.2
    }
  }
}
layer {
  name: "inception_3b/relu_1x1"
  type: "ReLU"
  bottom: "inception_3b/1x1"
  top: "inception_3b/1x1"
}
layer {
  name: "inception_3b/3x3_reduce"
  type: "Convolution"
  bottom: "inception_3a/output"
  top: "inception_3b/3x3_reduce"
  param {
    lr_mult: 1
    decay_mult: 1
  }
  param {
    lr_mult: 2
    decay_mult: 0
  }
  convolution_param {
    num_output: 128
    kernel_size: 1
    weight_filler {
      type: "xavier"
      std: 0.09
    }
    bias_filler {
      type: "constant"
      value: 0.2
    }
  }
}
layer {
  name: "inception_3b/relu_3x3_reduce"
  type: "ReLU"
  bottom: "inception_3b/3x3_reduce"
  top: "inception_3b/3x3_reduce"
}
layer {
  name: "inception_3b/3x3"
  type: "Convolution"
  bottom: "inception_3b/3x3_reduce"
  top: "inception_3b/3x3"
  param {
    lr_mult: 1
    decay_mult: 1
  }
  param {
    lr_mult: 2
    decay_mult: 0
  }
  convolution_param {
    num_output: 192
    pad: 1
    kernel_size: 3
    weight_filler {
      type: "xavier"
      std: 0.03
    }
    bias_filler {
      type: "constant"
      value: 0.2
    }
  }
}
layer {
  name: "inception_3b/relu_3x3"
  type: "ReLU"
  bottom: "inception_3b/3x3"
  top: "inception_3b/3x3"
}
layer {
  name: "inception_3b/5x5_reduce"
  type: "Convolution"
  bottom: "inception_3a/output"
  top: "inception_3b/5x5_reduce"
  param {
    lr_mult: 1
    decay_mult: 1
  }
  param {
    lr_mult: 2
    decay_mult: 0
  }
  convolution_param {
    num_output: 32
    kernel_size: 1
    weight_filler {
      type: "xavier"
      std: 0.2
    }
    bias_filler {
      type: "constant"
      value: 0.2
    }
  }
}
layer {
  name: "inception_3b/relu_5x5_reduce"
  type: "ReLU"
  bottom: "inception_3b/5x5_reduce"
  top: "inception_3b/5x5_reduce"
}
layer {
  name: "inception_3b/5x5"
  type: "Convolution"
  bottom: "inception_3b/5x5_reduce"
  top: "inception_3b/5x5"
  param {
    lr_mult: 1
    decay_mult: 1
  }
  param {
    lr_mult: 2
    decay_mult: 0
  }
  convolution_param {
    num_output: 96
    pad: 2
    kernel_size: 5
    weight_filler {
      type: "xavier"
      std: 0.03
    }
    bias_filler {
      type: "constant"
      value: 0.2
    }
  }
}
layer {
  name: "inception_3b/relu_5x5"
  type: "ReLU"
  bottom: "inception_3b/5x5"
  top: "inception_3b/5x5"
}
layer {
  name: "inception_3b/pool"
  type: "Pooling"
  bottom: "inception_3a/output"
  top: "inception_3b/pool"
  pooling_param {
    pool: MAX
    kernel_size: 3
    stride: 1
    pad: 1
  }
}
layer {
  name: "inception_3b/pool_proj"
  type: "Convolution"
  bottom: "inception_3b/pool"
  top: "inception_3b/pool_proj"
  param {
    lr_mult: 1
    decay_mult: 1
  }
  param {
    lr_mult: 2
    decay_mult: 0
  }
  convolution_param {
    num_output: 64
    kernel_size: 1
    weight_filler {
      type: "xavier"
      std: 0.1
    }
    bias_filler {
      type: "constant"
      value: 0.2
    }
  }
}
layer {
  name: "inception_3b/relu_pool_proj"
  type: "ReLU"
  bottom: "inception_3b/pool_proj"
  top: "inception_3b/pool_proj"
}
layer {
  name: "inception_3b/output"
  type: "Concat"
  bottom: "inception_3b/1x1"
  bottom: "inception_3b/3x3"
  bottom: "inception_3b/5x5"
  bottom: "inception_3b/pool_proj"
  top: "inception_3b/output"
}
layer {
  name: "pool3/3x3_s2"
  type: "Pooling"
  bottom: "inception_3b/output"
  top: "pool3/3x3_s2"
  pooling_param {
    pool: MAX
    kernel_size: 3
    stride: 2
  }
}
layer {
  name: "inception_4a/1x1"
  type: "Convolution"
  bottom: "pool3/3x3_s2"
  top: "inception_4a/1x1"
  param {
    lr_mult: 1
    decay_mult: 1
  }
  param {
    lr_mult: 2
    decay_mult: 0
  }
  convolution_param {
    num_output: 192
    kernel_size: 1
    weight_filler {
      type: "xavier"
      std: 0.03
    }
    bias_filler {
      type: "constant"
      value: 0.2
    }
  }
}
layer {
  name: "inception_4a/relu_1x1"
  type: "ReLU"
  bottom: "inception_4a/1x1"
  top: "inception_4a/1x1"
}
layer {
  name: "inception_4a/3x3_reduce"
  type: "Convolution"
  bottom: "pool3/3x3_s2"
  top: "inception_4a/3x3_reduce"
  param {
    lr_mult: 1
    decay_mult: 1
  }
  param {
    lr_mult: 2
    decay_mult: 0
  }
  convolution_param {
    num_output: 96
    kernel_size: 1
    weight_filler {
      type: "xavier"
      std: 0.09
    }
    bias_filler {
      type: "constant"
      value: 0.2
    }
  }
}
layer {
  name: "inception_4a/relu_3x3_reduce"
  type: "ReLU"
  bottom: "inception_4a/3x3_reduce"
  top: "inception_4a/3x3_reduce"
}
layer {
  name: "inception_4a/3x3"
  type: "Convolution"
  bottom: "inception_4a/3x3_reduce"
  top: "inception_4a/3x3"
  param {
    lr_mult: 1
    decay_mult: 1
  }
  param {
    lr_mult: 2
    decay_mult: 0
  }
  convolution_param {
    num_output: 208
    pad: 1
    kernel_size: 3
    weight_filler {
      type: "xavier"
      std: 0.03
    }
    bias_filler {
      type: "constant"
      value: 0.2
    }
  }
}
layer {
  name: "inception_4a/relu_3x3"
  type: "ReLU"
  bottom: "inception_4a/3x3"
  top: "inception_4a/3x3"
}
layer {
  name: "inception_4a/5x5_reduce"
  type: "Convolution"
  bottom: "pool3/3x3_s2"
  top: "inception_4a/5x5_reduce"
  param {
    lr_mult: 1
    decay_mult: 1
  }
  param {
    lr_mult: 2
    decay_mult: 0
  }
  convolution_param {
    num_output: 16
    kernel_size: 1
    weight_filler {
      type: "xavier"
      std: 0.2
    }
    bias_filler {
      type: "constant"
      value: 0.2
    }
  }
}
layer {
  name: "inception_4a/relu_5x5_reduce"
  type: "ReLU"
  bottom: "inception_4a/5x5_reduce"
  top: "inception_4a/5x5_reduce"
}
layer {
  name: "inception_4a/5x5"
  type: "Convolution"
  bottom: "inception_4a/5x5_reduce"
  top: "inception_4a/5x5"
  param {
    lr_mult: 1
    decay_mult: 1
  }
  param {
    lr_mult: 2
    decay_mult: 0
  }
  convolution_param {
    num_output: 48
    pad: 2
    kernel_size: 5
    weight_filler {
      type: "xavier"
      std: 0.03
    }
    bias_filler {
      type: "constant"
      value: 0.2
    }
  }
}
layer {
  name: "inception_4a/relu_5x5"
  type: "ReLU"
  bottom: "inception_4a/5x5"
  top: "inception_4a/5x5"
}
layer {
  name: "inception_4a/pool"
  type: "Pooling"
  bottom: "pool3/3x3_s2"
  top: "inception_4a/pool"
  pooling_param {
    pool: MAX
    kernel_size: 3
    stride: 1
    pad: 1
  }
}
layer {
  name: "inception_4a/pool_proj"
  type: "Convolution"
  bottom: "inception_4a/pool"
  top: "inception_4a/pool_proj"
  param {
    lr_mult: 1
    decay_mult: 1
  }
  param {
    lr_mult: 2
    decay_mult: 0
  }
  convolution_param {
    num_output: 64
    kernel_size: 1
    weight_filler {
      type: "xavier"
      std: 0.1
    }
    bias_filler {
      type: "constant"
      value: 0.2
    }
  }
}
layer {
  name: "inception_4a/relu_pool_proj"
  type: "ReLU"
  bottom: "inception_4a/pool_proj"
  top: "inception_4a/pool_proj"
}
layer {
  name: "inception_4a/output"
  type: "Concat"
  bottom: "inception_4a/1x1"
  bottom: "inception_4a/3x3"
  bottom: "inception_4a/5x5"
  bottom: "inception_4a/pool_proj"
  top: "inception_4a/output"
}
layer {
  name: "loss1/ave_pool"
  type: "Pooling"
  bottom: "inception_4a/output"
  top: "loss1/ave_pool"
  pooling_param {
    pool: AVE
    kernel_size: 5
    stride: 3
  }
}
layer {
  name: "loss1/conv"
  type: "Convolution"
  bottom: "loss1/ave_pool"
  top: "loss1/conv"
  param {
    lr_mult: 1
    decay_mult: 1
  }
  param {
    lr_mult: 2
    decay_mult: 0
  }
  convolution_param {
    num_output: 128
    kernel_size: 1
    weight_filler {
      type: "xavier"
      std: 0.08
    }
    bias_filler {
      type: "constant"
      value: 0.2
    }
  }
}
layer {
  name: "loss1/relu_conv"
  type: "ReLU"
  bottom: "loss1/conv"
  top: "loss1/conv"
}
layer {
  name: "loss1/fc"
  type: "InnerProduct"
  bottom: "loss1/conv"
  top: "loss1/fc"
  param {
    lr_mult: 1
    decay_mult: 1
  }
  param {
    lr_mult: 2
    decay_mult: 0
  }
  inner_product_param {
    num_output: 1024
    weight_filler {
      type: "xavier"
      std: 0.02
    }
    bias_filler {
      type: "constant"
      value: 0.2
    }
  }
}
layer {
  name: "loss1/relu_fc"
  type: "ReLU"
  bottom: "loss1/fc"
  top: "loss1/fc"
}
layer {
  name: "loss1/drop_fc"
  type: "Dropout"
  bottom: "loss1/fc"
  top: "loss1/fc"
  dropout_param {
    dropout_ratio: 0.7
  }
}
layer {
  name: "loss1/classifier_plantvillage"
  type: "InnerProduct"
  bottom: "loss1/fc"
  top: "loss1/classifier_plantvillage"
  param {
    lr_mult: 1
    decay_mult: 1
  }
  param {
    lr_mult: 2
    decay_mult: 0
  }
  inner_product_param {
    num_output: 38
    weight_filler {
      type: "xavier"
      std: 0.0009765625
    }
    bias_filler {
      type: "constant"
      value: 0
    }
  }
}
layer {
  name: "inception_4b/1x1"
  type: "Convolution"
  bottom: "inception_4a/output"
  top: "inception_4b/1x1"
  param {
    lr_mult: 1
    decay_mult: 1
  }
  param {
    lr_mult: 2
    decay_mult: 0
  }
  convolution_param {
    num_output: 160
    kernel_size: 1
    weight_filler {
      type: "xavier"
      std: 0.03
    }
    bias_filler {
      type: "constant"
      value: 0.2
    }
  }
}
layer {
  name: "inception_4b/relu_1x1"
  type: "ReLU"
  bottom: "inception_4b/1x1"
  top: "inception_4b/1x1"
}
layer {
  name: "inception_4b/3x3_reduce"
  type: "Convolution"
  bottom: "inception_4a/output"
  top: "inception_4b/3x3_reduce"
  param {
    lr_mult: 1
    decay_mult: 1
  }
  param {
    lr_mult: 2
    decay_mult: 0
  }
  convolution_param {
    num_output: 112
    kernel_size: 1
    weight_filler {
      type: "xavier"
      std: 0.09
    }
    bias_filler {
      type: "constant"
      value: 0.2
    }
  }
}
layer {
  name: "inception_4b/relu_3x3_reduce"
  type: "ReLU"
  bottom: "inception_4b/3x3_reduce"
  top: "inception_4b/3x3_reduce"
}
layer {
  name: "inception_4b/3x3"
  type: "Convolution"
  bottom: "inception_4b/3x3_reduce"
  top: "inception_4b/3x3"
  param {
    lr_mult: 1
    decay_mult: 1
  }
  param {
    lr_mult: 2
    decay_mult: 0
  }
  convolution_param {
    num_output: 224
    pad: 1
    kernel_size: 3
    weight_filler {
      type: "xavier"
      std: 0.03
    }
    bias_filler {
      type: "constant"
      value: 0.2
    }
  }
}
layer {
  name: "inception_4b/relu_3x3"
  type: "ReLU"
  bottom: "inception_4b/3x3"
  top: "inception_4b/3x3"
}
layer {
  name: "inception_4b/5x5_reduce"
  type: "Convolution"
  bottom: "inception_4a/output"
  top: "inception_4b/5x5_reduce"
  param {
    lr_mult: 1
    decay_mult: 1
  }
  param {
    lr_mult: 2
    decay_mult: 0
  }
  convolution_param {
    num_output: 24
    kernel_size: 1
    weight_filler {
      type: "xavier"
      std: 0.2
    }
    bias_filler {
      type: "constant"
      value: 0.2
    }
  }
}
layer {
  name: "inception_4b/relu_5x5_reduce"
  type: "ReLU"
  bottom: "inception_4b/5x5_reduce"
  top: "inception_4b/5x5_reduce"
}
layer {
  name: "inception_4b/5x5"
  type: "Convolution"
  bottom: "inception_4b/5x5_reduce"
  top: "inception_4b/5x5"
  param {
    lr_mult: 1
    decay_mult: 1
  }
  param {
    lr_mult: 2
    decay_mult: 0
  }
  convolution_param {
    num_output: 64
    pad: 2
    kernel_size: 5
    weight_filler {
      type: "xavier"
      std: 0.03
    }
    bias_filler {
      type: "constant"
      value: 0.2
    }
  }
}
layer {
  name: "inception_4b/relu_5x5"
  type: "ReLU"
  bottom: "inception_4b/5x5"
  top: "inception_4b/5x5"
}
layer {
  name: "inception_4b/pool"
  type: "Pooling"
  bottom: "inception_4a/output"
  top: "inception_4b/pool"
  pooling_param {
    pool: MAX
    kernel_size: 3
    stride: 1
    pad: 1
  }
}
layer {
  name: "inception_4b/pool_proj"
  type: "Convolution"
  bottom: "inception_4b/pool"
  top: "inception_4b/pool_proj"
  param {
    lr_mult: 1
    decay_mult: 1
  }
  param {
    lr_mult: 2
    decay_mult: 0
  }
  convolution_param {
    num_output: 64
    kernel_size: 1
    weight_filler {
      type: "xavier"
      std: 0.1
    }
    bias_filler {
      type: "constant"
      value: 0.2
    }
  }
}
layer {
  name: "inception_4b/relu_pool_proj"
  type: "ReLU"
  bottom: "inception_4b/pool_proj"
  top: "inception_4b/pool_proj"
}
layer {
  name: "inception_4b/output"
  type: "Concat"
  bottom: "inception_4b/1x1"
  bottom: "inception_4b/3x3"
  bottom: "inception_4b/5x5"
  bottom: "inception_4b/pool_proj"
  top: "inception_4b/output"
}
layer {
  name: "inception_4c/1x1"
  type: "Convolution"
  bottom: "inception_4b/output"
  top: "inception_4c/1x1"
  param {
    lr_mult: 1
    decay_mult: 1
  }
  param {
    lr_mult: 2
    decay_mult: 0
  }
  convolution_param {
    num_output: 128
    kernel_size: 1
    weight_filler {
      type: "xavier"
      std: 0.03
    }
    bias_filler {
      type: "constant"
      value: 0.2
    }
  }
}
layer {
  name: "inception_4c/relu_1x1"
  type: "ReLU"
  bottom: "inception_4c/1x1"
  top: "inception_4c/1x1"
}
layer {
  name: "inception_4c/3x3_reduce"
  type: "Convolution"
  bottom: "inception_4b/output"
  top: "inception_4c/3x3_reduce"
  param {
    lr_mult: 1
    decay_mult: 1
  }
  param {
    lr_mult: 2
    decay_mult: 0
  }
  convolution_param {
    num_output: 128
    kernel_size: 1
    weight_filler {
      type: "xavier"
      std: 0.09
    }
    bias_filler {
      type: "constant"
      value: 0.2
    }
  }
}
layer {
  name: "inception_4c/relu_3x3_reduce"
  type: "ReLU"
  bottom: "inception_4c/3x3_reduce"
  top: "inception_4c/3x3_reduce"
}
layer {
  name: "inception_4c/3x3"
  type: "Convolution"
  bottom: "inception_4c/3x3_reduce"
  top: "inception_4c/3x3"
  param {
    lr_mult: 1
    decay_mult: 1
  }
  param {
    lr_mult: 2
    decay_mult: 0
  }
  convolution_param {
    num_output: 256
    pad: 1
    kernel_size: 3
    weight_filler {
      type: "xavier"
      std: 0.03
    }
    bias_filler {
      type: "constant"
      value: 0.2
    }
  }
}
layer {
  name: "inception_4c/relu_3x3"
  type: "ReLU"
  bottom: "inception_4c/3x3"
  top: "inception_4c/3x3"
}
layer {
  name: "inception_4c/5x5_reduce"
  type: "Convolution"
  bottom: "inception_4b/output"
  top: "inception_4c/5x5_reduce"
  param {
    lr_mult: 1
    decay_mult: 1
  }
  param {
    lr_mult: 2
    decay_mult: 0
  }
  convolution_param {
    num_output: 24
    kernel_size: 1
    weight_filler {
      type: "xavier"
      std: 0.2
    }
    bias_filler {
      type: "constant"
      value: 0.2
    }
  }
}
layer {
  name: "inception_4c/relu_5x5_reduce"
  type: "ReLU"
  bottom: "inception_4c/5x5_reduce"
  top: "inception_4c/5x5_reduce"
}
layer {
  name: "inception_4c/5x5"
  type: "Convolution"
  bottom: "inception_4c/5x5_reduce"
  top: "inception_4c/5x5"
  param {
    lr_mult: 1
    decay_mult: 1
  }
  param {
    lr_mult: 2
    decay_mult: 0
  }
  convolution_param {
    num_output: 64
    pad: 2
    kernel_size: 5
    weight_filler {
      type: "xavier"
      std: 0.03
    }
    bias_filler {
      type: "constant"
      value: 0.2
    }
  }
}
layer {
  name: "inception_4c/relu_5x5"
  type: "ReLU"
  bottom: "inception_4c/5x5"
  top: "inception_4c/5x5"
}
layer {
  name: "inception_4c/pool"
  type: "Pooling"
  bottom: "inception_4b/output"
  top: "inception_4c/pool"
  pooling_param {
    pool: MAX
    kernel_size: 3
    stride: 1
    pad: 1
  }
}
layer {
  name: "inception_4c/pool_proj"
  type: "Convolution"
  bottom: "inception_4c/pool"
  top: "inception_4c/pool_proj"
  param {
    lr_mult: 1
    decay_mult: 1
  }
  param {
    lr_mult: 2
    decay_mult: 0
  }
  convolution_param {
    num_output: 64
    kernel_size: 1
    weight_filler {
      type: "xavier"
      std: 0.1
    }
    bias_filler {
      type: "constant"
      value: 0.2
    }
  }
}
layer {
  name: "inception_4c/relu_pool_proj"
  type: "ReLU"
  bottom: "inception_4c/pool_proj"
  top: "inception_4c/pool_proj"
}
layer {
  name: "inception_4c/output"
  type: "Concat"
  bottom: "inception_4c/1x1"
  bottom: "inception_4c/3x3"
  bottom: "inception_4c/5x5"
  bottom: "inception_4c/pool_proj"
  top: "inception_4c/output"
}
layer {
  name: "inception_4d/1x1"
  type: "Convolution"
  bottom: "inception_4c/output"
  top: "inception_4d/1x1"
  param {
    lr_mult: 1
    decay_mult: 1
  }
  param {
    lr_mult: 2
    decay_mult: 0
  }
  convolution_param {
    num_output: 112
    kernel_size: 1
    weight_filler {
      type: "xavier"
      std: 0.03
    }
    bias_filler {
      type: "constant"
      value: 0.2
    }
  }
}
layer {
  name: "inception_4d/relu_1x1"
  type: "ReLU"
  bottom: "inception_4d/1x1"
  top: "inception_4d/1x1"
}
layer {
  name: "inception_4d/3x3_reduce"
  type: "Convolution"
  bottom: "inception_4c/output"
  top: "inception_4d/3x3_reduce"
  param {
    lr_mult: 1
    decay_mult: 1
  }
  param {
    lr_mult: 2
    decay_mult: 0
  }
  convolution_param {
    num_output: 144
    kernel_size: 1
    weight_filler {
      type: "xavier"
      std: 0.09
    }
    bias_filler {
      type: "constant"
      value: 0.2
    }
  }
}
layer {
  name: "inception_4d/relu_3x3_reduce"
  type: "ReLU"
  bottom: "inception_4d/3x3_reduce"
  top: "inception_4d/3x3_reduce"
}
layer {
  name: "inception_4d/3x3"
  type: "Convolution"
  bottom: "inception_4d/3x3_reduce"
  top: "inception_4d/3x3"
  param {
    lr_mult: 1
    decay_mult: 1
  }
  param {
    lr_mult: 2
    decay_mult: 0
  }
  convolution_param {
    num_output: 288
    pad: 1
    kernel_size: 3
    weight_filler {
      type: "xavier"
      std: 0.03
    }
    bias_filler {
      type: "constant"
      value: 0.2
    }
  }
}
layer {
  name: "inception_4d/relu_3x3"
  type: "ReLU"
  bottom: "inception_4d/3x3"
  top: "inception_4d/3x3"
}
layer {
  name: "inception_4d/5x5_reduce"
  type: "Convolution"
  bottom: "inception_4c/output"
  top: "inception_4d/5x5_reduce"
  param {
    lr_mult: 1
    decay_mult: 1
  }
  param {
    lr_mult: 2
    decay_mult: 0
  }
  convolution_param {
    num_output: 32
    kernel_size: 1
    weight_filler {
      type: "xavier"
      std: 0.2
    }
    bias_filler {
      type: "constant"
      value: 0.2
    }
  }
}
layer {
  name: "inception_4d/relu_5x5_reduce"
  type: "ReLU"
  bottom: "inception_4d/5x5_reduce"
  top: "inception_4d/5x5_reduce"
}
layer {
  name: "inception_4d/5x5"
  type: "Convolution"
  bottom: "inception_4d/5x5_reduce"
  top: "inception_4d/5x5"
  param {
    lr_mult: 1
    decay_mult: 1
  }
  param {
    lr_mult: 2
    decay_mult: 0
  }
  convolution_param {
    num_output: 64
    pad: 2
    kernel_size: 5
    weight_filler {
      type: "xavier"
      std: 0.03
    }
    bias_filler {
      type: "constant"
      value: 0.2
    }
  }
}
layer {
  name: "inception_4d/relu_5x5"
  type: "ReLU"
  bottom: "inception_4d/5x5"
  top: "inception_4d/5x5"
}
layer {
  name: "inception_4d/pool"
  type: "Pooling"
  bottom: "inception_4c/output"
  top: "inception_4d/pool"
  pooling_param {
    pool: MAX
    kernel_size: 3
    stride: 1
    pad: 1
  }
}
layer {
  name: "inception_4d/pool_proj"
  type: "Convolution"
  bottom: "inception_4d/pool"
  top: "inception_4d/pool_proj"
  param {
    lr_mult: 1
    decay_mult: 1
  }
  param {
    lr_mult: 2
    decay_mult: 0
  }
  convolution_param {
    num_output: 64
    kernel_size: 1
    weight_filler {
      type: "xavier"
      std: 0.1
    }
    bias_filler {
      type: "constant"
      value: 0.2
    }
  }
}
layer {
  name: "inception_4d/relu_pool_proj"
  type: "ReLU"
  bottom: "inception_4d/pool_proj"
  top: "inception_4d/pool_proj"
}
layer {
  name: "inception_4d/output"
  type: "Concat"
  bottom: "inception_4d/1x1"
  bottom: "inception_4d/3x3"
  bottom: "inception_4d/5x5"
  bottom: "inception_4d/pool_proj"
  top: "inception_4d/output"
}
layer {
  name: "loss2/ave_pool"
  type: "Pooling"
  bottom: "inception_4d/output"
  top: "loss2/ave_pool"
  pooling_param {
    pool: AVE
    kernel_size: 5
    stride: 3
  }
}
layer {
  name: "loss2/conv"
  type: "Convolution"
  bottom: "loss2/ave_pool"
  top: "loss2/conv"
  param {
    lr_mult: 1
    decay_mult: 1
  }
  param {
    lr_mult: 2
    decay_mult: 0
  }
  convolution_param {
    num_output: 128
    kernel_size: 1
    weight_filler {
      type: "xavier"
      std: 0.08
    }
    bias_filler {
      type: "constant"
      value: 0.2
    }
  }
}
layer {
  name: "loss2/relu_conv"
  type: "ReLU"
  bottom: "loss2/conv"
  top: "loss2/conv"
}
layer {
  name: "loss2/fc"
  type: "InnerProduct"
  bottom: "loss2/conv"
  top: "loss2/fc"
  param {
    lr_mult: 1
    decay_mult: 1
  }
  param {
    lr_mult: 2
    decay_mult: 0
  }
  inner_product_param {
    num_output: 1024
    weight_filler {
      type: "xavier"
      std: 0.02
    }
    bias_filler {
      type: "constant"
      value: 0.2
    }
  }
}
layer {
  name: "loss2/relu_fc"
  type: "ReLU"
  bottom: "loss2/fc"
  top: "loss2/fc"
}
layer {
  name: "loss2/drop_fc"
  type: "Dropout"
  bottom: "loss2/fc"
  top: "loss2/fc"
  dropout_param {
    dropout_ratio: 0.7
  }
}
layer {
  name: "loss2/classifier_plantvillage"
  type: "InnerProduct"
  bottom: "loss2/fc"
  top: "loss2/classifier_plantvillage"
  param {
    lr_mult: 1
    decay_mult: 1
  }
  param {
    lr_mult: 2
    decay_mult: 0
  }
  inner_product_param {
    num_output: 38
    weight_filler {
      type: "xavier"
      std: 0.0009765625
    }
    bias_filler {
      type: "constant"
      value: 0
    }
  }
}
layer {
  name: "inception_4e/1x1"
  type: "Convolution"
  bottom: "inception_4d/output"
  top: "inception_4e/1x1"
  param {
    lr_mult: 1
    decay_mult: 1
  }
  param {
    lr_mult: 2
    decay_mult: 0
  }
  convolution_param {
    num_output: 256
    kernel_size: 1
    weight_filler {
      type: "xavier"
      std: 0.03
    }
    bias_filler {
      type: "constant"
      value: 0.2
    }
  }
}
layer {
  name: "inception_4e/relu_1x1"
  type: "ReLU"
  bottom: "inception_4e/1x1"
  top: "inception_4e/1x1"
}
layer {
  name: "inception_4e/3x3_reduce"
  type: "Convolution"
  bottom: "inception_4d/output"
  top: "inception_4e/3x3_reduce"
  param {
    lr_mult: 1
    decay_mult: 1
  }
  param {
    lr_mult: 2
    decay_mult: 0
  }
  convolution_param {
    num_output: 160
    kernel_size: 1
    weight_filler {
      type: "xavier"
      std: 0.09
    }
    bias_filler {
      type: "constant"
      value: 0.2
    }
  }
}
layer {
  name: "inception_4e/relu_3x3_reduce"
  type: "ReLU"
  bottom: "inception_4e/3x3_reduce"
  top: "inception_4e/3x3_reduce"
}
layer {
  name: "inception_4e/3x3"
  type: "Convolution"
  bottom: "inception_4e/3x3_reduce"
  top: "inception_4e/3x3"
  param {
    lr_mult: 1
    decay_mult: 1
  }
  param {
    lr_mult: 2
    decay_mult: 0
  }
  convolution_param {
    num_output: 320
    pad: 1
    kernel_size: 3
    weight_filler {
      type: "xavier"
      std: 0.03
    }
    bias_filler {
      type: "constant"
      value: 0.2
    }
  }
}
layer {
  name: "inception_4e/relu_3x3"
  type: "ReLU"
  bottom: "inception_4e/3x3"
  top: "inception_4e/3x3"
}
layer {
  name: "inception_4e/5x5_reduce"
  type: "Convolution"
  bottom: "inception_4d/output"
  top: "inception_4e/5x5_reduce"
  param {
    lr_mult: 1
    decay_mult: 1
  }
  param {
    lr_mult: 2
    decay_mult: 0
  }
  convolution_param {
    num_output: 32
    kernel_size: 1
    weight_filler {
      type: "xavier"
      std: 0.2
    }
    bias_filler {
      type: "constant"
      value: 0.2
    }
  }
}
layer {
  name: "inception_4e/relu_5x5_reduce"
  type: "ReLU"
  bottom: "inception_4e/5x5_reduce"
  top: "inception_4e/5x5_reduce"
}
layer {
  name: "inception_4e/5x5"
  type: "Convolution"
  bottom: "inception_4e/5x5_reduce"
  top: "inception_4e/
I0403 15:27:24.109437 11975 layer_factory.hpp:77] Creating layer data
I0403 15:27:24.110057 11975 net.cpp:91] Creating Layer data
I0403 15:27:24.110091 11975 net.cpp:399] data -> data
I0403 15:27:24.110142 11975 net.cpp:399] data -> label
I0403 15:27:24.110178 11975 data_transformer.cpp:25] Loading mean file from: /home/mohanty/data/final_dataset/lmdb/segmented-50-50/mean.binaryproto
I0403 15:27:24.113106 11978 db_lmdb.cpp:38] Opened lmdb /home/mohanty/data/final_dataset/lmdb/segmented-50-50/test_db
I0403 15:27:24.123370 11975 data_layer.cpp:41] output data size: 24,3,224,224
I0403 15:27:24.152009 11975 net.cpp:141] Setting up data
I0403 15:27:24.152110 11975 net.cpp:148] Top shape: 24 3 224 224 (3612672)
I0403 15:27:24.152133 11975 net.cpp:148] Top shape: 24 (24)
I0403 15:27:24.152148 11975 net.cpp:156] Memory required for data: 14450784
I0403 15:27:24.152175 11975 layer_factory.hpp:77] Creating layer label_data_1_split
I0403 15:27:24.152204 11975 net.cpp:91] Creating Layer label_data_1_split
I0403 15:27:24.152222 11975 net.cpp:425] label_data_1_split <- label
I0403 15:27:24.152254 11975 net.cpp:399] label_data_1_split -> label_data_1_split_0
I0403 15:27:24.152283 11975 net.cpp:399] label_data_1_split -> label_data_1_split_1
I0403 15:27:24.152305 11975 net.cpp:399] label_data_1_split -> label_data_1_split_2
I0403 15:27:24.152326 11975 net.cpp:399] label_data_1_split -> label_data_1_split_3
I0403 15:27:24.152348 11975 net.cpp:399] label_data_1_split -> label_data_1_split_4
I0403 15:27:24.152369 11975 net.cpp:399] label_data_1_split -> label_data_1_split_5
I0403 15:27:24.152390 11975 net.cpp:399] label_data_1_split -> label_data_1_split_6
I0403 15:27:24.152415 11975 net.cpp:399] label_data_1_split -> label_data_1_split_7
I0403 15:27:24.152436 11975 net.cpp:399] label_data_1_split -> label_data_1_split_8
I0403 15:27:24.152457 11975 net.cpp:399] label_data_1_split -> label_data_1_split_9
I0403 15:27:24.152576 11975 net.cpp:141] Setting up label_data_1_split
I0403 15:27:24.152601 11975 net.cpp:148] Top shape: 24 (24)
I0403 15:27:24.152618 11975 net.cpp:148] Top shape: 24 (24)
I0403 15:27:24.152634 11975 net.cpp:148] Top shape: 24 (24)
I0403 15:27:24.152650 11975 net.cpp:148] Top shape: 24 (24)
I0403 15:27:24.152665 11975 net.cpp:148] Top shape: 24 (24)
I0403 15:27:24.152680 11975 net.cpp:148] Top shape: 24 (24)
I0403 15:27:24.152696 11975 net.cpp:148] Top shape: 24 (24)
I0403 15:27:24.152711 11975 net.cpp:148] Top shape: 24 (24)
I0403 15:27:24.152727 11975 net.cpp:148] Top shape: 24 (24)
I0403 15:27:24.152743 11975 net.cpp:148] Top shape: 24 (24)
I0403 15:27:24.152787 11975 net.cpp:156] Memory required for data: 14451744
I0403 15:27:24.152804 11975 layer_factory.hpp:77] Creating layer conv1/7x7_s2
I0403 15:27:24.152837 11975 net.cpp:91] Creating Layer conv1/7x7_s2
I0403 15:27:24.152855 11975 net.cpp:425] conv1/7x7_s2 <- data
I0403 15:27:24.152875 11975 net.cpp:399] conv1/7x7_s2 -> conv1/7x7_s2
I0403 15:27:24.295123 11975 net.cpp:141] Setting up conv1/7x7_s2
I0403 15:27:24.295207 11975 net.cpp:148] Top shape: 24 64 112 112 (19267584)
I0403 15:27:24.295223 11975 net.cpp:156] Memory required for data: 91522080
I0403 15:27:24.295253 11975 layer_factory.hpp:77] Creating layer conv1/relu_7x7
I0403 15:27:24.295280 11975 net.cpp:91] Creating Layer conv1/relu_7x7
I0403 15:27:24.295300 11975 net.cpp:425] conv1/relu_7x7 <- conv1/7x7_s2
I0403 15:27:24.295317 11975 net.cpp:386] conv1/relu_7x7 -> conv1/7x7_s2 (in-place)
I0403 15:27:24.295591 11975 net.cpp:141] Setting up conv1/relu_7x7
I0403 15:27:24.295617 11975 net.cpp:148] Top shape: 24 64 112 112 (19267584)
I0403 15:27:24.295631 11975 net.cpp:156] Memory required for data: 168592416
I0403 15:27:24.295645 11975 layer_factory.hpp:77] Creating layer pool1/3x3_s2
I0403 15:27:24.295670 11975 net.cpp:91] Creating Layer pool1/3x3_s2
I0403 15:27:24.295686 11975 net.cpp:425] pool1/3x3_s2 <- conv1/7x7_s2
I0403 15:27:24.295704 11975 net.cpp:399] pool1/3x3_s2 -> pool1/3x3_s2
I0403 15:27:24.295779 11975 net.cpp:141] Setting up pool1/3x3_s2
I0403 15:27:24.295802 11975 net.cpp:148] Top shape: 24 64 56 56 (4816896)
I0403 15:27:24.295816 11975 net.cpp:156] Memory required for data: 187860000
I0403 15:27:24.295830 11975 layer_factory.hpp:77] Creating layer pool1/norm1
I0403 15:27:24.295855 11975 net.cpp:91] Creating Layer pool1/norm1
I0403 15:27:24.295871 11975 net.cpp:425] pool1/norm1 <- pool1/3x3_s2
I0403 15:27:24.295888 11975 net.cpp:399] pool1/norm1 -> pool1/norm1
I0403 15:27:24.296183 11975 net.cpp:141] Setting up pool1/norm1
I0403 15:27:24.296208 11975 net.cpp:148] Top shape: 24 64 56 56 (4816896)
I0403 15:27:24.296223 11975 net.cpp:156] Memory required for data: 207127584
I0403 15:27:24.296236 11975 layer_factory.hpp:77] Creating layer conv2/3x3_reduce
I0403 15:27:24.296262 11975 net.cpp:91] Creating Layer conv2/3x3_reduce
I0403 15:27:24.296277 11975 net.cpp:425] conv2/3x3_reduce <- pool1/norm1
I0403 15:27:24.296298 11975 net.cpp:399] conv2/3x3_reduce -> conv2/3x3_reduce
I0403 15:27:24.297658 11975 net.cpp:141] Setting up conv2/3x3_reduce
I0403 15:27:24.297688 11975 net.cpp:148] Top shape: 24 64 56 56 (4816896)
I0403 15:27:24.297708 11975 net.cpp:156] Memory required for data: 226395168
I0403 15:27:24.297732 11975 layer_factory.hpp:77] Creating layer conv2/relu_3x3_reduce
I0403 15:27:24.297760 11975 net.cpp:91] Creating Layer conv2/relu_3x3_reduce
I0403 15:27:24.297785 11975 net.cpp:425] conv2/relu_3x3_reduce <- conv2/3x3_reduce
I0403 15:27:24.297813 11975 net.cpp:386] conv2/relu_3x3_reduce -> conv2/3x3_reduce (in-place)
I0403 15:27:24.298092 11975 net.cpp:141] Setting up conv2/relu_3x3_reduce
I0403 15:27:24.298120 11975 net.cpp:148] Top shape: 24 64 56 56 (4816896)
I0403 15:27:24.298133 11975 net.cpp:156] Memory required for data: 245662752
I0403 15:27:24.298147 11975 layer_factory.hpp:77] Creating layer conv2/3x3
I0403 15:27:24.298171 11975 net.cpp:91] Creating Layer conv2/3x3
I0403 15:27:24.298188 11975 net.cpp:425] conv2/3x3 <- conv2/3x3_reduce
I0403 15:27:24.298210 11975 net.cpp:399] conv2/3x3 -> conv2/3x3
I0403 15:27:24.300508 11975 net.cpp:141] Setting up conv2/3x3
I0403 15:27:24.300537 11975 net.cpp:148] Top shape: 24 192 56 56 (14450688)
I0403 15:27:24.300554 11975 net.cpp:156] Memory required for data: 303465504
I0403 15:27:24.300575 11975 layer_factory.hpp:77] Creating layer conv2/relu_3x3
I0403 15:27:24.300592 11975 net.cpp:91] Creating Layer conv2/relu_3x3
I0403 15:27:24.300607 11975 net.cpp:425] conv2/relu_3x3 <- conv2/3x3
I0403 15:27:24.300626 11975 net.cpp:386] conv2/relu_3x3 -> conv2/3x3 (in-place)
I0403 15:27:24.300799 11975 net.cpp:141] Setting up conv2/relu_3x3
I0403 15:27:24.300824 11975 net.cpp:148] Top shape: 24 192 56 56 (14450688)
I0403 15:27:24.300870 11975 net.cpp:156] Memory required for data: 361268256
I0403 15:27:24.300886 11975 layer_factory.hpp:77] Creating layer conv2/norm2
I0403 15:27:24.300904 11975 net.cpp:91] Creating Layer conv2/norm2
I0403 15:27:24.300920 11975 net.cpp:425] conv2/norm2 <- conv2/3x3
I0403 15:27:24.300938 11975 net.cpp:399] conv2/norm2 -> conv2/norm2
I0403 15:27:24.301237 11975 net.cpp:141] Setting up conv2/norm2
I0403 15:27:24.301265 11975 net.cpp:148] Top shape: 24 192 56 56 (14450688)
I0403 15:27:24.301280 11975 net.cpp:156] Memory required for data: 419071008
I0403 15:27:24.301295 11975 layer_factory.hpp:77] Creating layer pool2/3x3_s2
I0403 15:27:24.301311 11975 net.cpp:91] Creating Layer pool2/3x3_s2
I0403 15:27:24.301326 11975 net.cpp:425] pool2/3x3_s2 <- conv2/norm2
I0403 15:27:24.301348 11975 net.cpp:399] pool2/3x3_s2 -> pool2/3x3_s2
I0403 15:27:24.301401 11975 net.cpp:141] Setting up pool2/3x3_s2
I0403 15:27:24.301429 11975 net.cpp:148] Top shape: 24 192 28 28 (3612672)
I0403 15:27:24.301442 11975 net.cpp:156] Memory required for data: 433521696
I0403 15:27:24.301456 11975 layer_factory.hpp:77] Creating layer pool2/3x3_s2_pool2/3x3_s2_0_split
I0403 15:27:24.301476 11975 net.cpp:91] Creating Layer pool2/3x3_s2_pool2/3x3_s2_0_split
I0403 15:27:24.301491 11975 net.cpp:425] pool2/3x3_s2_pool2/3x3_s2_0_split <- pool2/3x3_s2
I0403 15:27:24.301508 11975 net.cpp:399] pool2/3x3_s2_pool2/3x3_s2_0_split -> pool2/3x3_s2_pool2/3x3_s2_0_split_0
I0403 15:27:24.301527 11975 net.cpp:399] pool2/3x3_s2_pool2/3x3_s2_0_split -> pool2/3x3_s2_pool2/3x3_s2_0_split_1
I0403 15:27:24.301549 11975 net.cpp:399] pool2/3x3_s2_pool2/3x3_s2_0_split -> pool2/3x3_s2_pool2/3x3_s2_0_split_2
I0403 15:27:24.301570 11975 net.cpp:399] pool2/3x3_s2_pool2/3x3_s2_0_split -> pool2/3x3_s2_pool2/3x3_s2_0_split_3
I0403 15:27:24.301640 11975 net.cpp:141] Setting up pool2/3x3_s2_pool2/3x3_s2_0_split
I0403 15:27:24.301661 11975 net.cpp:148] Top shape: 24 192 28 28 (3612672)
I0403 15:27:24.301676 11975 net.cpp:148] Top shape: 24 192 28 28 (3612672)
I0403 15:27:24.301690 11975 net.cpp:148] Top shape: 24 192 28 28 (3612672)
I0403 15:27:24.301705 11975 net.cpp:148] Top shape: 24 192 28 28 (3612672)
I0403 15:27:24.301718 11975 net.cpp:156] Memory required for data: 491324448
I0403 15:27:24.301731 11975 layer_factory.hpp:77] Creating layer inception_3a/1x1
I0403 15:27:24.301753 11975 net.cpp:91] Creating Layer inception_3a/1x1
I0403 15:27:24.301770 11975 net.cpp:425] inception_3a/1x1 <- pool2/3x3_s2_pool2/3x3_s2_0_split_0
I0403 15:27:24.301790 11975 net.cpp:399] inception_3a/1x1 -> inception_3a/1x1
I0403 15:27:24.303303 11975 net.cpp:141] Setting up inception_3a/1x1
I0403 15:27:24.303333 11975 net.cpp:148] Top shape: 24 64 28 28 (1204224)
I0403 15:27:24.303350 11975 net.cpp:156] Memory required for data: 496141344
I0403 15:27:24.303367 11975 layer_factory.hpp:77] Creating layer inception_3a/relu_1x1
I0403 15:27:24.303385 11975 net.cpp:91] Creating Layer inception_3a/relu_1x1
I0403 15:27:24.303402 11975 net.cpp:425] inception_3a/relu_1x1 <- inception_3a/1x1
I0403 15:27:24.303436 11975 net.cpp:386] inception_3a/relu_1x1 -> inception_3a/1x1 (in-place)
I0403 15:27:24.303608 11975 net.cpp:141] Setting up inception_3a/relu_1x1
I0403 15:27:24.303634 11975 net.cpp:148] Top shape: 24 64 28 28 (1204224)
I0403 15:27:24.303649 11975 net.cpp:156] Memory required for data: 500958240
I0403 15:27:24.303663 11975 layer_factory.hpp:77] Creating layer inception_3a/3x3_reduce
I0403 15:27:24.303685 11975 net.cpp:91] Creating Layer inception_3a/3x3_reduce
I0403 15:27:24.303702 11975 net.cpp:425] inception_3a/3x3_reduce <- pool2/3x3_s2_pool2/3x3_s2_0_split_1
I0403 15:27:24.303724 11975 net.cpp:399] inception_3a/3x3_reduce -> inception_3a/3x3_reduce
I0403 15:27:24.305426 11975 net.cpp:141] Setting up inception_3a/3x3_reduce
I0403 15:27:24.305457 11975 net.cpp:148] Top shape: 24 96 28 28 (1806336)
I0403 15:27:24.305474 11975 net.cpp:156] Memory required for data: 508183584
I0403 15:27:24.305496 11975 layer_factory.hpp:77] Creating layer inception_3a/relu_3x3_reduce
I0403 15:27:24.305536 11975 net.cpp:91] Creating Layer inception_3a/relu_3x3_reduce
I0403 15:27:24.305554 11975 net.cpp:425] inception_3a/relu_3x3_reduce <- inception_3a/3x3_reduce
I0403 15:27:24.305573 11975 net.cpp:386] inception_3a/relu_3x3_reduce -> inception_3a/3x3_reduce (in-place)
I0403 15:27:24.305768 11975 net.cpp:141] Setting up inception_3a/relu_3x3_reduce
I0403 15:27:24.305795 11975 net.cpp:148] Top shape: 24 96 28 28 (1806336)
I0403 15:27:24.305809 11975 net.cpp:156] Memory required for data: 515408928
I0403 15:27:24.305824 11975 layer_factory.hpp:77] Creating layer inception_3a/3x3
I0403 15:27:24.305846 11975 net.cpp:91] Creating Layer inception_3a/3x3
I0403 15:27:24.305863 11975 net.cpp:425] inception_3a/3x3 <- inception_3a/3x3_reduce
I0403 15:27:24.305886 11975 net.cpp:399] inception_3a/3x3 -> inception_3a/3x3
I0403 15:27:24.307515 11975 net.cpp:141] Setting up inception_3a/3x3
I0403 15:27:24.307544 11975 net.cpp:148] Top shape: 24 128 28 28 (2408448)
I0403 15:27:24.307561 11975 net.cpp:156] Memory required for data: 525042720
I0403 15:27:24.307582 11975 layer_factory.hpp:77] Creating layer inception_3a/relu_3x3
I0403 15:27:24.307602 11975 net.cpp:91] Creating Layer inception_3a/relu_3x3
I0403 15:27:24.307618 11975 net.cpp:425] inception_3a/relu_3x3 <- inception_3a/3x3
I0403 15:27:24.307636 11975 net.cpp:386] inception_3a/relu_3x3 -> inception_3a/3x3 (in-place)
I0403 15:27:24.307906 11975 net.cpp:141] Setting up inception_3a/relu_3x3
I0403 15:27:24.307934 11975 net.cpp:148] Top shape: 24 128 28 28 (2408448)
I0403 15:27:24.307950 11975 net.cpp:156] Memory required for data: 534676512
I0403 15:27:24.307965 11975 layer_factory.hpp:77] Creating layer inception_3a/5x5_reduce
I0403 15:27:24.307988 11975 net.cpp:91] Creating Layer inception_3a/5x5_reduce
I0403 15:27:24.308007 11975 net.cpp:425] inception_3a/5x5_reduce <- pool2/3x3_s2_pool2/3x3_s2_0_split_2
I0403 15:27:24.308027 11975 net.cpp:399] inception_3a/5x5_reduce -> inception_3a/5x5_reduce
I0403 15:27:24.308985 11975 net.cpp:141] Setting up inception_3a/5x5_reduce
I0403 15:27:24.309013 11975 net.cpp:148] Top shape: 24 16 28 28 (301056)
I0403 15:27:24.309029 11975 net.cpp:156] Memory required for data: 535880736
I0403 15:27:24.309047 11975 layer_factory.hpp:77] Creating layer inception_3a/relu_5x5_reduce
I0403 15:27:24.309067 11975 net.cpp:91] Creating Layer inception_3a/relu_5x5_reduce
I0403 15:27:24.309083 11975 net.cpp:425] inception_3a/relu_5x5_reduce <- inception_3a/5x5_reduce
I0403 15:27:24.309100 11975 net.cpp:386] inception_3a/relu_5x5_reduce -> inception_3a/5x5_reduce (in-place)
I0403 15:27:24.309402 11975 net.cpp:141] Setting up inception_3a/relu_5x5_reduce
I0403 15:27:24.309433 11975 net.cpp:148] Top shape: 24 16 28 28 (301056)
I0403 15:27:24.309451 11975 net.cpp:156] Memory required for data: 537084960
I0403 15:27:24.309466 11975 layer_factory.hpp:77] Creating layer inception_3a/5x5
I0403 15:27:24.309486 11975 net.cpp:91] Creating Layer inception_3a/5x5
I0403 15:27:24.309501 11975 net.cpp:425] inception_3a/5x5 <- inception_3a/5x5_reduce
I0403 15:27:24.309522 11975 net.cpp:399] inception_3a/5x5 -> inception_3a/5x5
I0403 15:27:24.310534 11975 net.cpp:141] Setting up inception_3a/5x5
I0403 15:27:24.310562 11975 net.cpp:148] Top shape: 24 32 28 28 (602112)
I0403 15:27:24.310578 11975 net.cpp:156] Memory required for data: 539493408
I0403 15:27:24.310597 11975 layer_factory.hpp:77] Creating layer inception_3a/relu_5x5
I0403 15:27:24.310618 11975 net.cpp:91] Creating Layer inception_3a/relu_5x5
I0403 15:27:24.310636 11975 net.cpp:425] inception_3a/relu_5x5 <- inception_3a/5x5
I0403 15:27:24.310662 11975 net.cpp:386] inception_3a/relu_5x5 -> inception_3a/5x5 (in-place)
I0403 15:27:24.310834 11975 net.cpp:141] Setting up inception_3a/relu_5x5
I0403 15:27:24.310859 11975 net.cpp:148] Top shape: 24 32 28 28 (602112)
I0403 15:27:24.310874 11975 net.cpp:156] Memory required for data: 541901856
I0403 15:27:24.310889 11975 layer_factory.hpp:77] Creating layer inception_3a/pool
I0403 15:27:24.310909 11975 net.cpp:91] Creating Layer inception_3a/pool
I0403 15:27:24.310938 11975 net.cpp:425] inception_3a/pool <- pool2/3x3_s2_pool2/3x3_s2_0_split_3
I0403 15:27:24.310957 11975 net.cpp:399] inception_3a/pool -> inception_3a/pool
I0403 15:27:24.311017 11975 net.cpp:141] Setting up inception_3a/pool
I0403 15:27:24.311040 11975 net.cpp:148] Top shape: 24 192 28 28 (3612672)
I0403 15:27:24.311054 11975 net.cpp:156] Memory required for data: 556352544
I0403 15:27:24.311067 11975 layer_factory.hpp:77] Creating layer inception_3a/pool_proj
I0403 15:27:24.311089 11975 net.cpp:91] Creating Layer inception_3a/pool_proj
I0403 15:27:24.311106 11975 net.cpp:425] inception_3a/pool_proj <- inception_3a/pool
I0403 15:27:24.311128 11975 net.cpp:399] inception_3a/pool_proj -> inception_3a/pool_proj
I0403 15:27:24.312091 11975 net.cpp:141] Setting up inception_3a/pool_proj
I0403 15:27:24.312121 11975 net.cpp:148] Top shape: 24 32 28 28 (602112)
I0403 15:27:24.312139 11975 net.cpp:156] Memory required for data: 558760992
I0403 15:27:24.312160 11975 layer_factory.hpp:77] Creating layer inception_3a/relu_pool_proj
I0403 15:27:24.312181 11975 net.cpp:91] Creating Layer inception_3a/relu_pool_proj
I0403 15:27:24.312198 11975 net.cpp:425] inception_3a/relu_pool_proj <- inception_3a/pool_proj
I0403 15:27:24.312217 11975 net.cpp:386] inception_3a/relu_pool_proj -> inception_3a/pool_proj (in-place)
I0403 15:27:24.312491 11975 net.cpp:141] Setting up inception_3a/relu_pool_proj
I0403 15:27:24.312518 11975 net.cpp:148] Top shape: 24 32 28 28 (602112)
I0403 15:27:24.312533 11975 net.cpp:156] Memory required for data: 561169440
I0403 15:27:24.312548 11975 layer_factory.hpp:77] Creating layer inception_3a/output
I0403 15:27:24.312566 11975 net.cpp:91] Creating Layer inception_3a/output
I0403 15:27:24.312582 11975 net.cpp:425] inception_3a/output <- inception_3a/1x1
I0403 15:27:24.312599 11975 net.cpp:425] inception_3a/output <- inception_3a/3x3
I0403 15:27:24.312619 11975 net.cpp:425] inception_3a/output <- inception_3a/5x5
I0403 15:27:24.312636 11975 net.cpp:425] inception_3a/output <- inception_3a/pool_proj
I0403 15:27:24.312654 11975 net.cpp:399] inception_3a/output -> inception_3a/output
I0403 15:27:24.312700 11975 net.cpp:141] Setting up inception_3a/output
I0403 15:27:24.312726 11975 net.cpp:148] Top shape: 24 256 28 28 (4816896)
I0403 15:27:24.312741 11975 net.cpp:156] Memory required for data: 580437024
I0403 15:27:24.312755 11975 layer_factory.hpp:77] Creating layer inception_3a/output_inception_3a/output_0_split
I0403 15:27:24.312772 11975 net.cpp:91] Creating Layer inception_3a/output_inception_3a/output_0_split
I0403 15:27:24.312788 11975 net.cpp:425] inception_3a/output_inception_3a/output_0_split <- inception_3a/output
I0403 15:27:24.312806 11975 net.cpp:399] inception_3a/output_inception_3a/output_0_split -> inception_3a/output_inception_3a/output_0_split_0
I0403 15:27:24.312827 11975 net.cpp:399] inception_3a/output_inception_3a/output_0_split -> inception_3a/output_inception_3a/output_0_split_1
I0403 15:27:24.312849 11975 net.cpp:399] inception_3a/output_inception_3a/output_0_split -> inception_3a/output_inception_3a/output_0_split_2
I0403 15:27:24.312870 11975 net.cpp:399] inception_3a/output_inception_3a/output_0_split -> inception_3a/output_inception_3a/output_0_split_3
I0403 15:27:24.312944 11975 net.cpp:141] Setting up inception_3a/output_inception_3a/output_0_split
I0403 15:27:24.312968 11975 net.cpp:148] Top shape: 24 256 28 28 (4816896)
I0403 15:27:24.312983 11975 net.cpp:148] Top shape: 24 256 28 28 (4816896)
I0403 15:27:24.312999 11975 net.cpp:148] Top shape: 24 256 28 28 (4816896)
I0403 15:27:24.313014 11975 net.cpp:148] Top shape: 24 256 28 28 (4816896)
I0403 15:27:24.313025 11975 net.cpp:156] Memory required for data: 657507360
I0403 15:27:24.313040 11975 layer_factory.hpp:77] Creating layer inception_3b/1x1
I0403 15:27:24.313062 11975 net.cpp:91] Creating Layer inception_3b/1x1
I0403 15:27:24.313079 11975 net.cpp:425] inception_3b/1x1 <- inception_3a/output_inception_3a/output_0_split_0
I0403 15:27:24.313099 11975 net.cpp:399] inception_3b/1x1 -> inception_3b/1x1
I0403 15:27:24.314230 11975 net.cpp:141] Setting up inception_3b/1x1
I0403 15:27:24.314271 11975 net.cpp:148] Top shape: 24 128 28 28 (2408448)
I0403 15:27:24.314288 11975 net.cpp:156] Memory required for data: 667141152
I0403 15:27:24.314307 11975 layer_factory.hpp:77] Creating layer inception_3b/relu_1x1
I0403 15:27:24.314326 11975 net.cpp:91] Creating Layer inception_3b/relu_1x1
I0403 15:27:24.314342 11975 net.cpp:425] inception_3b/relu_1x1 <- inception_3b/1x1
I0403 15:27:24.314360 11975 net.cpp:386] inception_3b/relu_1x1 -> inception_3b/1x1 (in-place)
I0403 15:27:24.314538 11975 net.cpp:141] Setting up inception_3b/relu_1x1
I0403 15:27:24.314565 11975 net.cpp:148] Top shape: 24 128 28 28 (2408448)
I0403 15:27:24.314580 11975 net.cpp:156] Memory required for data: 676774944
I0403 15:27:24.314595 11975 layer_factory.hpp:77] Creating layer inception_3b/3x3_reduce
I0403 15:27:24.314617 11975 net.cpp:91] Creating Layer inception_3b/3x3_reduce
I0403 15:27:24.314635 11975 net.cpp:425] inception_3b/3x3_reduce <- inception_3a/output_inception_3a/output_0_split_1
I0403 15:27:24.314656 11975 net.cpp:399] inception_3b/3x3_reduce -> inception_3b/3x3_reduce
I0403 15:27:24.315786 11975 net.cpp:141] Setting up inception_3b/3x3_reduce
I0403 15:27:24.315819 11975 net.cpp:148] Top shape: 24 128 28 28 (2408448)
I0403 15:27:24.315835 11975 net.cpp:156] Memory required for data: 686408736
I0403 15:27:24.315855 11975 layer_factory.hpp:77] Creating layer inception_3b/relu_3x3_reduce
I0403 15:27:24.315872 11975 net.cpp:91] Creating Layer inception_3b/relu_3x3_reduce
I0403 15:27:24.315888 11975 net.cpp:425] inception_3b/relu_3x3_reduce <- inception_3b/3x3_reduce
I0403 15:27:24.315908 11975 net.cpp:386] inception_3b/relu_3x3_reduce -> inception_3b/3x3_reduce (in-place)
I0403 15:27:24.316082 11975 net.cpp:141] Setting up inception_3b/relu_3x3_reduce
I0403 15:27:24.316105 11975 net.cpp:148] Top shape: 24 128 28 28 (2408448)
I0403 15:27:24.316119 11975 net.cpp:156] Memory required for data: 696042528
I0403 15:27:24.316134 11975 layer_factory.hpp:77] Creating layer inception_3b/3x3
I0403 15:27:24.316159 11975 net.cpp:91] Creating Layer inception_3b/3x3
I0403 15:27:24.316177 11975 net.cpp:425] inception_3b/3x3 <- inception_3b/3x3_reduce
I0403 15:27:24.316196 11975 net.cpp:399] inception_3b/3x3 -> inception_3b/3x3
I0403 15:27:24.319087 11975 net.cpp:141] Setting up inception_3b/3x3
I0403 15:27:24.319118 11975 net.cpp:148] Top shape: 24 192 28 28 (3612672)
I0403 15:27:24.319133 11975 net.cpp:156] Memory required for data: 710493216
I0403 15:27:24.319152 11975 layer_factory.hpp:77] Creating layer inception_3b/relu_3x3
I0403 15:27:24.319172 11975 net.cpp:91] Creating Layer inception_3b/relu_3x3
I0403 15:27:24.319190 11975 net.cpp:425] inception_3b/relu_3x3 <- inception_3b/3x3
I0403 15:27:24.319207 11975 net.cpp:386] inception_3b/relu_3x3 -> inception_3b/3x3 (in-place)
I0403 15:27:24.319489 11975 net.cpp:141] Setting up inception_3b/relu_3x3
I0403 15:27:24.319515 11975 net.cpp:148] Top shape: 24 192 28 28 (3612672)
I0403 15:27:24.319531 11975 net.cpp:156] Memory required for data: 724943904
I0403 15:27:24.319547 11975 layer_factory.hpp:77] Creating layer inception_3b/5x5_reduce
I0403 15:27:24.319571 11975 net.cpp:91] Creating Layer inception_3b/5x5_reduce
I0403 15:27:24.319588 11975 net.cpp:425] inception_3b/5x5_reduce <- inception_3a/output_inception_3a/output_0_split_2
I0403 15:27:24.319609 11975 net.cpp:399] inception_3b/5x5_reduce -> inception_3b/5x5_reduce
I0403 15:27:24.320585 11975 net.cpp:141] Setting up inception_3b/5x5_reduce
I0403 15:27:24.320614 11975 net.cpp:148] Top shape: 24 32 28 28 (602112)
I0403 15:27:24.320631 11975 net.cpp:156] Memory required for data: 727352352
I0403 15:27:24.320659 11975 layer_factory.hpp:77] Creating layer inception_3b/relu_5x5_reduce
I0403 15:27:24.320679 11975 net.cpp:91] Creating Layer inception_3b/relu_5x5_reduce
I0403 15:27:24.320698 11975 net.cpp:425] inception_3b/relu_5x5_reduce <- inception_3b/5x5_reduce
I0403 15:27:24.320715 11975 net.cpp:386] inception_3b/relu_5x5_reduce -> inception_3b/5x5_reduce (in-place)
I0403 15:27:24.320904 11975 net.cpp:141] Setting up inception_3b/relu_5x5_reduce
I0403 15:27:24.320930 11975 net.cpp:148] Top shape: 24 32 28 28 (602112)
I0403 15:27:24.320945 11975 net.cpp:156] Memory required for data: 729760800
I0403 15:27:24.320961 11975 layer_factory.hpp:77] Creating layer inception_3b/5x5
I0403 15:27:24.320982 11975 net.cpp:91] Creating Layer inception_3b/5x5
I0403 15:27:24.321002 11975 net.cpp:425] inception_3b/5x5 <- inception_3b/5x5_reduce
I0403 15:27:24.321023 11975 net.cpp:399] inception_3b/5x5 -> inception_3b/5x5
I0403 15:27:24.323001 11975 net.cpp:141] Setting up inception_3b/5x5
I0403 15:27:24.323032 11975 net.cpp:148] Top shape: 24 96 28 28 (1806336)
I0403 15:27:24.323048 11975 net.cpp:156] Memory required for data: 736986144
I0403 15:27:24.323066 11975 layer_factory.hpp:77] Creating layer inception_3b/relu_5x5
I0403 15:27:24.323084 11975 net.cpp:91] Creating Layer inception_3b/relu_5x5
I0403 15:27:24.323099 11975 net.cpp:425] inception_3b/relu_5x5 <- inception_3b/5x5
I0403 15:27:24.323118 11975 net.cpp:386] inception_3b/relu_5x5 -> inception_3b/5x5 (in-place)
I0403 15:27:24.323318 11975 net.cpp:141] Setting up inception_3b/relu_5x5
I0403 15:27:24.323343 11975 net.cpp:148] Top shape: 24 96 28 28 (1806336)
I0403 15:27:24.323356 11975 net.cpp:156] Memory required for data: 744211488
I0403 15:27:24.323371 11975 layer_factory.hpp:77] Creating layer inception_3b/pool
I0403 15:27:24.323388 11975 net.cpp:91] Creating Layer inception_3b/pool
I0403 15:27:24.323405 11975 net.cpp:425] inception_3b/pool <- inception_3a/output_inception_3a/output_0_split_3
I0403 15:27:24.323434 11975 net.cpp:399] inception_3b/pool -> inception_3b/pool
I0403 15:27:24.323492 11975 net.cpp:141] Setting up inception_3b/pool
I0403 15:27:24.323514 11975 net.cpp:148] Top shape: 24 256 28 28 (4816896)
I0403 15:27:24.323529 11975 net.cpp:156] Memory required for data: 763479072
I0403 15:27:24.323544 11975 layer_factory.hpp:77] Creating layer inception_3b/pool_proj
I0403 15:27:24.323567 11975 net.cpp:91] Creating Layer inception_3b/pool_proj
I0403 15:27:24.323585 11975 net.cpp:425] inception_3b/pool_proj <- inception_3b/pool
I0403 15:27:24.323602 11975 net.cpp:399] inception_3b/pool_proj -> inception_3b/pool_proj
I0403 15:27:24.324671 11975 net.cpp:141] Setting up inception_3b/pool_proj
I0403 15:27:24.324700 11975 net.cpp:148] Top shape: 24 64 28 28 (1204224)
I0403 15:27:24.324717 11975 net.cpp:156] Memory required for data: 768295968
I0403 15:27:24.324734 11975 layer_factory.hpp:77] Creating layer inception_3b/relu_pool_proj
I0403 15:27:24.324755 11975 net.cpp:91] Creating Layer inception_3b/relu_pool_proj
I0403 15:27:24.324772 11975 net.cpp:425] inception_3b/relu_pool_proj <- inception_3b/pool_proj
I0403 15:27:24.324790 11975 net.cpp:386] inception_3b/relu_pool_proj -> inception_3b/pool_proj (in-place)
I0403 15:27:24.325192 11975 net.cpp:141] Setting up inception_3b/relu_pool_proj
I0403 15:27:24.325220 11975 net.cpp:148] Top shape: 24 64 28 28 (1204224)
I0403 15:27:24.325235 11975 net.cpp:156] Memory required for data: 773112864
I0403 15:27:24.325250 11975 layer_factory.hpp:77] Creating layer inception_3b/output
I0403 15:27:24.325283 11975 net.cpp:91] Creating Layer inception_3b/output
I0403 15:27:24.325299 11975 net.cpp:425] inception_3b/output <- inception_3b/1x1
I0403 15:27:24.325315 11975 net.cpp:425] inception_3b/output <- inception_3b/3x3
I0403 15:27:24.325332 11975 net.cpp:425] inception_3b/output <- inception_3b/5x5
I0403 15:27:24.325348 11975 net.cpp:425] inception_3b/output <- inception_3b/pool_proj
I0403 15:27:24.325366 11975 net.cpp:399] inception_3b/output -> inception_3b/output
I0403 15:27:24.325420 11975 net.cpp:141] Setting up inception_3b/output
I0403 15:27:24.325443 11975 net.cpp:148] Top shape: 24 480 28 28 (9031680)
I0403 15:27:24.325459 11975 net.cpp:156] Memory required for data: 809239584
I0403 15:27:24.325474 11975 layer_factory.hpp:77] Creating layer pool3/3x3_s2
I0403 15:27:24.325491 11975 net.cpp:91] Creating Layer pool3/3x3_s2
I0403 15:27:24.325506 11975 net.cpp:425] pool3/3x3_s2 <- inception_3b/output
I0403 15:27:24.325542 11975 net.cpp:399] pool3/3x3_s2 -> pool3/3x3_s2
I0403 15:27:24.325613 11975 net.cpp:141] Setting up pool3/3x3_s2
I0403 15:27:24.325637 11975 net.cpp:148] Top shape: 24 480 14 14 (2257920)
I0403 15:27:24.325652 11975 net.cpp:156] Memory required for data: 818271264
I0403 15:27:24.325666 11975 layer_factory.hpp:77] Creating layer pool3/3x3_s2_pool3/3x3_s2_0_split
I0403 15:27:24.325683 11975 net.cpp:91] Creating Layer pool3/3x3_s2_pool3/3x3_s2_0_split
I0403 15:27:24.325697 11975 net.cpp:425] pool3/3x3_s2_pool3/3x3_s2_0_split <- pool3/3x3_s2
I0403 15:27:24.325713 11975 net.cpp:399] pool3/3x3_s2_pool3/3x3_s2_0_split -> pool3/3x3_s2_pool3/3x3_s2_0_split_0
I0403 15:27:24.325734 11975 net.cpp:399] pool3/3x3_s2_pool3/3x3_s2_0_split -> pool3/3x3_s2_pool3/3x3_s2_0_split_1
I0403 15:27:24.325755 11975 net.cpp:399] pool3/3x3_s2_pool3/3x3_s2_0_split -> pool3/3x3_s2_pool3/3x3_s2_0_split_2
I0403 15:27:24.325775 11975 net.cpp:399] pool3/3x3_s2_pool3/3x3_s2_0_split -> pool3/3x3_s2_pool3/3x3_s2_0_split_3
I0403 15:27:24.325850 11975 net.cpp:141] Setting up pool3/3x3_s2_pool3/3x3_s2_0_split
I0403 15:27:24.325873 11975 net.cpp:148] Top shape: 24 480 14 14 (2257920)
I0403 15:27:24.325888 11975 net.cpp:148] Top shape: 24 480 14 14 (2257920)
I0403 15:27:24.325903 11975 net.cpp:148] Top shape: 24 480 14 14 (2257920)
I0403 15:27:24.325918 11975 net.cpp:148] Top shape: 24 480 14 14 (2257920)
I0403 15:27:24.325932 11975 net.cpp:156] Memory required for data: 854397984
I0403 15:27:24.325945 11975 layer_factory.hpp:77] Creating layer inception_4a/1x1
I0403 15:27:24.325968 11975 net.cpp:91] Creating Layer inception_4a/1x1
I0403 15:27:24.325985 11975 net.cpp:425] inception_4a/1x1 <- pool3/3x3_s2_pool3/3x3_s2_0_split_0
I0403 15:27:24.326004 11975 net.cpp:399] inception_4a/1x1 -> inception_4a/1x1
I0403 15:27:24.327600 11975 net.cpp:141] Setting up inception_4a/1x1
I0403 15:27:24.327630 11975 net.cpp:148] Top shape: 24 192 14 14 (903168)
I0403 15:27:24.327646 11975 net.cpp:156] Memory required for data: 858010656
I0403 15:27:24.327663 11975 layer_factory.hpp:77] Creating layer inception_4a/relu_1x1
I0403 15:27:24.327684 11975 net.cpp:91] Creating Layer inception_4a/relu_1x1
I0403 15:27:24.327702 11975 net.cpp:425] inception_4a/relu_1x1 <- inception_4a/1x1
I0403 15:27:24.327721 11975 net.cpp:386] inception_4a/relu_1x1 -> inception_4a/1x1 (in-place)
I0403 15:27:24.327899 11975 net.cpp:141] Setting up inception_4a/relu_1x1
I0403 15:27:24.327924 11975 net.cpp:148] Top shape: 24 192 14 14 (903168)
I0403 15:27:24.327939 11975 net.cpp:156] Memory required for data: 861623328
I0403 15:27:24.327952 11975 layer_factory.hpp:77] Creating layer inception_4a/3x3_reduce
I0403 15:27:24.327975 11975 net.cpp:91] Creating Layer inception_4a/3x3_reduce
I0403 15:27:24.327991 11975 net.cpp:425] inception_4a/3x3_reduce <- pool3/3x3_s2_pool3/3x3_s2_0_split_1
I0403 15:27:24.328012 11975 net.cpp:399] inception_4a/3x3_reduce -> inception_4a/3x3_reduce
I0403 15:27:24.329280 11975 net.cpp:141] Setting up inception_4a/3x3_reduce
I0403 15:27:24.329311 11975 net.cpp:148] Top shape: 24 96 14 14 (451584)
I0403 15:27:24.329329 11975 net.cpp:156] Memory required for data: 863429664
I0403 15:27:24.329351 11975 layer_factory.hpp:77] Creating layer inception_4a/relu_3x3_reduce
I0403 15:27:24.329385 11975 net.cpp:91] Creating Layer inception_4a/relu_3x3_reduce
I0403 15:27:24.329402 11975 net.cpp:425] inception_4a/relu_3x3_reduce <- inception_4a/3x3_reduce
I0403 15:27:24.329427 11975 net.cpp:386] inception_4a/relu_3x3_reduce -> inception_4a/3x3_reduce (in-place)
I0403 15:27:24.329609 11975 net.cpp:141] Setting up inception_4a/relu_3x3_reduce
I0403 15:27:24.329638 11975 net.cpp:148] Top shape: 24 96 14 14 (451584)
I0403 15:27:24.329661 11975 net.cpp:156] Memory required for data: 865236000
I0403 15:27:24.329677 11975 layer_factory.hpp:77] Creating layer inception_4a/3x3
I0403 15:27:24.329701 11975 net.cpp:91] Creating Layer inception_4a/3x3
I0403 15:27:24.329718 11975 net.cpp:425] inception_4a/3x3 <- inception_4a/3x3_reduce
I0403 15:27:24.329740 11975 net.cpp:399] inception_4a/3x3 -> inception_4a/3x3
I0403 15:27:24.332404 11975 net.cpp:141] Setting up inception_4a/3x3
I0403 15:27:24.332440 11975 net.cpp:148] Top shape: 24 208 14 14 (978432)
I0403 15:27:24.332458 11975 net.cpp:156] Memory required for data: 869149728
I0403 15:27:24.332476 11975 layer_factory.hpp:77] Creating layer inception_4a/relu_3x3
I0403 15:27:24.332495 11975 net.cpp:91] Creating Layer inception_4a/relu_3x3
I0403 15:27:24.332514 11975 net.cpp:425] inception_4a/relu_3x3 <- inception_4a/3x3
I0403 15:27:24.332533 11975 net.cpp:386] inception_4a/relu_3x3 -> inception_4a/3x3 (in-place)
I0403 15:27:24.332808 11975 net.cpp:141] Setting up inception_4a/relu_3x3
I0403 15:27:24.332839 11975 net.cpp:148] Top shape: 24 208 14 14 (978432)
I0403 15:27:24.332854 11975 net.cpp:156] Memory required for data: 873063456
I0403 15:27:24.332870 11975 layer_factory.hpp:77] Creating layer inception_4a/5x5_reduce
I0403 15:27:24.332895 11975 net.cpp:91] Creating Layer inception_4a/5x5_reduce
I0403 15:27:24.332912 11975 net.cpp:425] inception_4a/5x5_reduce <- pool3/3x3_s2_pool3/3x3_s2_0_split_2
I0403 15:27:24.332931 11975 net.cpp:399] inception_4a/5x5_reduce -> inception_4a/5x5_reduce
I0403 15:27:24.333957 11975 net.cpp:141] Setting up inception_4a/5x5_reduce
I0403 15:27:24.333986 11975 net.cpp:148] Top shape: 24 16 14 14 (75264)
I0403 15:27:24.334002 11975 net.cpp:156] Memory required for data: 873364512
I0403 15:27:24.334020 11975 layer_factory.hpp:77] Creating layer inception_4a/relu_5x5_reduce
I0403 15:27:24.334039 11975 net.cpp:91] Creating Layer inception_4a/relu_5x5_reduce
I0403 15:27:24.334060 11975 net.cpp:425] inception_4a/relu_5x5_reduce <- inception_4a/5x5_reduce
I0403 15:27:24.334077 11975 net.cpp:386] inception_4a/relu_5x5_reduce -> inception_4a/5x5_reduce (in-place)
I0403 15:27:24.334251 11975 net.cpp:141] Setting up inception_4a/relu_5x5_reduce
I0403 15:27:24.334275 11975 net.cpp:148] Top shape: 24 16 14 14 (75264)
I0403 15:27:24.334290 11975 net.cpp:156] Memory required for data: 873665568
I0403 15:27:24.334303 11975 layer_factory.hpp:77] Creating layer inception_4a/5x5
I0403 15:27:24.334326 11975 net.cpp:91] Creating Layer inception_4a/5x5
I0403 15:27:24.334342 11975 net.cpp:425] inception_4a/5x5 <- inception_4a/5x5_reduce
I0403 15:27:24.334372 11975 net.cpp:399] inception_4a/5x5 -> inception_4a/5x5
I0403 15:27:24.335456 11975 net.cpp:141] Setting up inception_4a/5x5
I0403 15:27:24.335484 11975 net.cpp:148] Top shape: 24 48 14 14 (225792)
I0403 15:27:24.335501 11975 net.cpp:156] Memory required for data: 874568736
I0403 15:27:24.335520 11975 layer_factory.hpp:77] Creating layer inception_4a/relu_5x5
I0403 15:27:24.335541 11975 net.cpp:91] Creating Layer inception_4a/relu_5x5
I0403 15:27:24.335558 11975 net.cpp:425] inception_4a/relu_5x5 <- inception_4a/5x5
I0403 15:27:24.335578 11975 net.cpp:386] inception_4a/relu_5x5 -> inception_4a/5x5 (in-place)
I0403 15:27:24.335762 11975 net.cpp:141] Setting up inception_4a/relu_5x5
I0403 15:27:24.335788 11975 net.cpp:148] Top shape: 24 48 14 14 (225792)
I0403 15:27:24.335803 11975 net.cpp:156] Memory required for data: 875471904
I0403 15:27:24.335816 11975 layer_factory.hpp:77] Creating layer inception_4a/pool
I0403 15:27:24.335834 11975 net.cpp:91] Creating Layer inception_4a/pool
I0403 15:27:24.335849 11975 net.cpp:425] inception_4a/pool <- pool3/3x3_s2_pool3/3x3_s2_0_split_3
I0403 15:27:24.335868 11975 net.cpp:399] inception_4a/pool -> inception_4a/pool
I0403 15:27:24.335928 11975 net.cpp:141] Setting up inception_4a/pool
I0403 15:27:24.335950 11975 net.cpp:148] Top shape: 24 480 14 14 (2257920)
I0403 15:27:24.335964 11975 net.cpp:156] Memory required for data: 884503584
I0403 15:27:24.335978 11975 layer_factory.hpp:77] Creating layer inception_4a/pool_proj
I0403 15:27:24.335999 11975 net.cpp:91] Creating Layer inception_4a/pool_proj
I0403 15:27:24.336014 11975 net.cpp:425] inception_4a/pool_proj <- inception_4a/pool
I0403 15:27:24.336035 11975 net.cpp:399] inception_4a/pool_proj -> inception_4a/pool_proj
I0403 15:27:24.337157 11975 net.cpp:141] Setting up inception_4a/pool_proj
I0403 15:27:24.337188 11975 net.cpp:148] Top shape: 24 64 14 14 (301056)
I0403 15:27:24.337218 11975 net.cpp:156] Memory required for data: 885707808
I0403 15:27:24.337235 11975 layer_factory.hpp:77] Creating layer inception_4a/relu_pool_proj
I0403 15:27:24.337254 11975 net.cpp:91] Creating Layer inception_4a/relu_pool_proj
I0403 15:27:24.337268 11975 net.cpp:425] inception_4a/relu_pool_proj <- inception_4a/pool_proj
I0403 15:27:24.337285 11975 net.cpp:386] inception_4a/relu_pool_proj -> inception_4a/pool_proj (in-place)
I0403 15:27:24.337571 11975 net.cpp:141] Setting up inception_4a/relu_pool_proj
I0403 15:27:24.337599 11975 net.cpp:148] Top shape: 24 64 14 14 (301056)
I0403 15:27:24.337615 11975 net.cpp:156] Memory required for data: 886912032
I0403 15:27:24.337628 11975 layer_factory.hpp:77] Creating layer inception_4a/output
I0403 15:27:24.337646 11975 net.cpp:91] Creating Layer inception_4a/output
I0403 15:27:24.337661 11975 net.cpp:425] inception_4a/output <- inception_4a/1x1
I0403 15:27:24.337676 11975 net.cpp:425] inception_4a/output <- inception_4a/3x3
I0403 15:27:24.337692 11975 net.cpp:425] inception_4a/output <- inception_4a/5x5
I0403 15:27:24.337707 11975 net.cpp:425] inception_4a/output <- inception_4a/pool_proj
I0403 15:27:24.337724 11975 net.cpp:399] inception_4a/output -> inception_4a/output
I0403 15:27:24.337775 11975 net.cpp:141] Setting up inception_4a/output
I0403 15:27:24.337798 11975 net.cpp:148] Top shape: 24 512 14 14 (2408448)
I0403 15:27:24.337811 11975 net.cpp:156] Memory required for data: 896545824
I0403 15:27:24.337826 11975 layer_factory.hpp:77] Creating layer inception_4a/output_inception_4a/output_0_split
I0403 15:27:24.337844 11975 net.cpp:91] Creating Layer inception_4a/output_inception_4a/output_0_split
I0403 15:27:24.337860 11975 net.cpp:425] inception_4a/output_inception_4a/output_0_split <- inception_4a/output
I0403 15:27:24.337877 11975 net.cpp:399] inception_4a/output_inception_4a/output_0_split -> inception_4a/output_inception_4a/output_0_split_0
I0403 15:27:24.337896 11975 net.cpp:399] inception_4a/output_inception_4a/output_0_split -> inception_4a/output_inception_4a/output_0_split_1
I0403 15:27:24.337915 11975 net.cpp:399] inception_4a/output_inception_4a/output_0_split -> inception_4a/output_inception_4a/output_0_split_2
I0403 15:27:24.337935 11975 net.cpp:399] inception_4a/output_inception_4a/output_0_split -> inception_4a/output_inception_4a/output_0_split_3
I0403 15:27:24.337957 11975 net.cpp:399] inception_4a/output_inception_4a/output_0_split -> inception_4a/output_inception_4a/output_0_split_4
I0403 15:27:24.338049 11975 net.cpp:141] Setting up inception_4a/output_inception_4a/output_0_split
I0403 15:27:24.338071 11975 net.cpp:148] Top shape: 24 512 14 14 (2408448)
I0403 15:27:24.338086 11975 net.cpp:148] Top shape: 24 512 14 14 (2408448)
I0403 15:27:24.338100 11975 net.cpp:148] Top shape: 24 512 14 14 (2408448)
I0403 15:27:24.338115 11975 net.cpp:148] Top shape: 24 512 14 14 (2408448)
I0403 15:27:24.338130 11975 net.cpp:148] Top shape: 24 512 14 14 (2408448)
I0403 15:27:24.338142 11975 net.cpp:156] Memory required for data: 944714784
I0403 15:27:24.338156 11975 layer_factory.hpp:77] Creating layer loss1/ave_pool
I0403 15:27:24.338173 11975 net.cpp:91] Creating Layer loss1/ave_pool
I0403 15:27:24.338188 11975 net.cpp:425] loss1/ave_pool <- inception_4a/output_inception_4a/output_0_split_0
I0403 15:27:24.338207 11975 net.cpp:399] loss1/ave_pool -> loss1/ave_pool
I0403 15:27:24.338416 11975 net.cpp:141] Setting up loss1/ave_pool
I0403 15:27:24.338443 11975 net.cpp:148] Top shape: 24 512 4 4 (196608)
I0403 15:27:24.338459 11975 net.cpp:156] Memory required for data: 945501216
I0403 15:27:24.338474 11975 layer_factory.hpp:77] Creating layer loss1/conv
I0403 15:27:24.338492 11975 net.cpp:91] Creating Layer loss1/conv
I0403 15:27:24.338507 11975 net.cpp:425] loss1/conv <- loss1/ave_pool
I0403 15:27:24.338527 11975 net.cpp:399] loss1/conv -> loss1/conv
I0403 15:27:24.339907 11975 net.cpp:141] Setting up loss1/conv
I0403 15:27:24.339938 11975 net.cpp:148] Top shape: 24 128 4 4 (49152)
I0403 15:27:24.339967 11975 net.cpp:156] Memory required for data: 945697824
I0403 15:27:24.339987 11975 layer_factory.hpp:77] Creating layer loss1/relu_conv
I0403 15:27:24.340005 11975 net.cpp:91] Creating Layer loss1/relu_conv
I0403 15:27:24.340021 11975 net.cpp:425] loss1/relu_conv <- loss1/conv
I0403 15:27:24.340040 11975 net.cpp:386] loss1/relu_conv -> loss1/conv (in-place)
I0403 15:27:24.340319 11975 net.cpp:141] Setting up loss1/relu_conv
I0403 15:27:24.340347 11975 net.cpp:148] Top shape: 24 128 4 4 (49152)
I0403 15:27:24.340363 11975 net.cpp:156] Memory required for data: 945894432
I0403 15:27:24.340376 11975 layer_factory.hpp:77] Creating layer loss1/fc
I0403 15:27:24.340399 11975 net.cpp:91] Creating Layer loss1/fc
I0403 15:27:24.340420 11975 net.cpp:425] loss1/fc <- loss1/conv
I0403 15:27:24.340441 11975 net.cpp:399] loss1/fc -> loss1/fc
I0403 15:27:24.357897 11975 net.cpp:141] Setting up loss1/fc
I0403 15:27:24.357931 11975 net.cpp:148] Top shape: 24 1024 (24576)
I0403 15:27:24.357946 11975 net.cpp:156] Memory required for data: 945992736
I0403 15:27:24.357964 11975 layer_factory.hpp:77] Creating layer loss1/relu_fc
I0403 15:27:24.357985 11975 net.cpp:91] Creating Layer loss1/relu_fc
I0403 15:27:24.358002 11975 net.cpp:425] loss1/relu_fc <- loss1/fc
I0403 15:27:24.358019 11975 net.cpp:386] loss1/relu_fc -> loss1/fc (in-place)
I0403 15:27:24.358198 11975 net.cpp:141] Setting up loss1/relu_fc
I0403 15:27:24.358223 11975 net.cpp:148] Top shape: 24 1024 (24576)
I0403 15:27:24.358238 11975 net.cpp:156] Memory required for data: 946091040
I0403 15:27:24.358253 11975 layer_factory.hpp:77] Creating layer loss1/drop_fc
I0403 15:27:24.358279 11975 net.cpp:91] Creating Layer loss1/drop_fc
I0403 15:27:24.358295 11975 net.cpp:425] loss1/drop_fc <- loss1/fc
I0403 15:27:24.358314 11975 net.cpp:386] loss1/drop_fc -> loss1/fc (in-place)
I0403 15:27:24.358363 11975 net.cpp:141] Setting up loss1/drop_fc
I0403 15:27:24.358384 11975 net.cpp:148] Top shape: 24 1024 (24576)
I0403 15:27:24.358398 11975 net.cpp:156] Memory required for data: 946189344
I0403 15:27:24.358415 11975 layer_factory.hpp:77] Creating layer loss1/classifier_plantvillage
I0403 15:27:24.358438 11975 net.cpp:91] Creating Layer loss1/classifier_plantvillage
I0403 15:27:24.358454 11975 net.cpp:425] loss1/classifier_plantvillage <- loss1/fc
I0403 15:27:24.358474 11975 net.cpp:399] loss1/classifier_plantvillage -> loss1/classifier_plantvillage
I0403 15:27:24.359349 11975 net.cpp:141] Setting up loss1/classifier_plantvillage
I0403 15:27:24.359380 11975 net.cpp:148] Top shape: 24 38 (912)
I0403 15:27:24.359395 11975 net.cpp:156] Memory required for data: 946192992
I0403 15:27:24.359417 11975 layer_factory.hpp:77] Creating layer loss1/classifier_plantvillage_loss1/classifier_plantvillage_0_split
I0403 15:27:24.359436 11975 net.cpp:91] Creating Layer loss1/classifier_plantvillage_loss1/classifier_plantvillage_0_split
I0403 15:27:24.359450 11975 net.cpp:425] loss1/classifier_plantvillage_loss1/classifier_plantvillage_0_split <- loss1/classifier_plantvillage
I0403 15:27:24.359469 11975 net.cpp:399] loss1/classifier_plantvillage_loss1/classifier_plantvillage_0_split -> loss1/classifier_plantvillage_loss1/classifier_plantvillage_0_split_0
I0403 15:27:24.359489 11975 net.cpp:399] loss1/classifier_plantvillage_loss1/classifier_plantvillage_0_split -> loss1/classifier_plantvillage_loss1/classifier_plantvillage_0_split_1
I0403 15:27:24.359508 11975 net.cpp:399] loss1/classifier_plantvillage_loss1/classifier_plantvillage_0_split -> loss1/classifier_plantvillage_loss1/classifier_plantvillage_0_split_2
I0403 15:27:24.359573 11975 net.cpp:141] Setting up loss1/classifier_plantvillage_loss1/classifier_plantvillage_0_split
I0403 15:27:24.359594 11975 net.cpp:148] Top shape: 24 38 (912)
I0403 15:27:24.359609 11975 net.cpp:148] Top shape: 24 38 (912)
I0403 15:27:24.359623 11975 net.cpp:148] Top shape: 24 38 (912)
I0403 15:27:24.359635 11975 net.cpp:156] Memory required for data: 946203936
I0403 15:27:24.359649 11975 layer_factory.hpp:77] Creating layer inception_4b/1x1
I0403 15:27:24.359670 11975 net.cpp:91] Creating Layer inception_4b/1x1
I0403 15:27:24.359702 11975 net.cpp:425] inception_4b/1x1 <- inception_4a/output_inception_4a/output_0_split_1
I0403 15:27:24.359721 11975 net.cpp:399] inception_4b/1x1 -> inception_4b/1x1
I0403 15:27:24.361321 11975 net.cpp:141] Setting up inception_4b/1x1
I0403 15:27:24.361351 11975 net.cpp:148] Top shape: 24 160 14 14 (752640)
I0403 15:27:24.361366 11975 net.cpp:156] Memory required for data: 949214496
I0403 15:27:24.361384 11975 layer_factory.hpp:77] Creating layer inception_4b/relu_1x1
I0403 15:27:24.361402 11975 net.cpp:91] Creating Layer inception_4b/relu_1x1
I0403 15:27:24.361421 11975 net.cpp:425] inception_4b/relu_1x1 <- inception_4b/1x1
I0403 15:27:24.361441 11975 net.cpp:386] inception_4b/relu_1x1 -> inception_4b/1x1 (in-place)
I0403 15:27:24.361620 11975 net.cpp:141] Setting up inception_4b/relu_1x1
I0403 15:27:24.361644 11975 net.cpp:148] Top shape: 24 160 14 14 (752640)
I0403 15:27:24.361659 11975 net.cpp:156] Memory required for data: 952225056
I0403 15:27:24.361673 11975 layer_factory.hpp:77] Creating layer inception_4b/3x3_reduce
I0403 15:27:24.361697 11975 net.cpp:91] Creating Layer inception_4b/3x3_reduce
I0403 15:27:24.361714 11975 net.cpp:425] inception_4b/3x3_reduce <- inception_4a/output_inception_4a/output_0_split_2
I0403 15:27:24.361735 11975 net.cpp:399] inception_4b/3x3_reduce -> inception_4b/3x3_reduce
I0403 15:27:24.363098 11975 net.cpp:141] Setting up inception_4b/3x3_reduce
I0403 15:27:24.363127 11975 net.cpp:148] Top shape: 24 112 14 14 (526848)
I0403 15:27:24.363144 11975 net.cpp:156] Memory required for data: 954332448
I0403 15:27:24.363164 11975 layer_factory.hpp:77] Creating layer inception_4b/relu_3x3_reduce
I0403 15:27:24.363184 11975 net.cpp:91] Creating Layer inception_4b/relu_3x3_reduce
I0403 15:27:24.363203 11975 net.cpp:425] inception_4b/relu_3x3_reduce <- inception_4b/3x3_reduce
I0403 15:27:24.363220 11975 net.cpp:386] inception_4b/relu_3x3_reduce -> inception_4b/3x3_reduce (in-place)
I0403 15:27:24.363505 11975 net.cpp:141] Setting up inception_4b/relu_3x3_reduce
I0403 15:27:24.363533 11975 net.cpp:148] Top shape: 24 112 14 14 (526848)
I0403 15:27:24.363548 11975 net.cpp:156] Memory required for data: 956439840
I0403 15:27:24.363561 11975 layer_factory.hpp:77] Creating layer inception_4b/3x3
I0403 15:27:24.363584 11975 net.cpp:91] Creating Layer inception_4b/3x3
I0403 15:27:24.363600 11975 net.cpp:425] inception_4b/3x3 <- inception_4b/3x3_reduce
I0403 15:27:24.363620 11975 net.cpp:399] inception_4b/3x3 -> inception_4b/3x3
I0403 15:27:24.366575 11975 net.cpp:141] Setting up inception_4b/3x3
I0403 15:27:24.366607 11975 net.cpp:148] Top shape: 24 224 14 14 (1053696)
I0403 15:27:24.366624 11975 net.cpp:156] Memory required for data: 960654624
I0403 15:27:24.366642 11975 layer_factory.hpp:77] Creating layer inception_4b/relu_3x3
I0403 15:27:24.366660 11975 net.cpp:91] Creating Layer inception_4b/relu_3x3
I0403 15:27:24.366675 11975 net.cpp:425] inception_4b/relu_3x3 <- inception_4b/3x3
I0403 15:27:24.366694 11975 net.cpp:386] inception_4b/relu_3x3 -> inception_4b/3x3 (in-place)
I0403 15:27:24.366876 11975 net.cpp:141] Setting up inception_4b/relu_3x3
I0403 15:27:24.366900 11975 net.cpp:148] Top shape: 24 224 14 14 (1053696)
I0403 15:27:24.366915 11975 net.cpp:156] Memory required for data: 964869408
I0403 15:27:24.366930 11975 layer_factory.hpp:77] Creating layer inception_4b/5x5_reduce
I0403 15:27:24.366950 11975 net.cpp:91] Creating Layer inception_4b/5x5_reduce
I0403 15:27:24.366967 11975 net.cpp:425] inception_4b/5x5_reduce <- inception_4a/output_inception_4a/output_0_split_3
I0403 15:27:24.366989 11975 net.cpp:399] inception_4b/5x5_reduce -> inception_4b/5x5_reduce
I0403 15:27:24.368083 11975 net.cpp:141] Setting up inception_4b/5x5_reduce
I0403 15:27:24.368110 11975 net.cpp:148] Top shape: 24 24 14 14 (112896)
I0403 15:27:24.368125 11975 net.cpp:156] Memory required for data: 965320992
I0403 15:27:24.368144 11975 layer_factory.hpp:77] Creating layer inception_4b/relu_5x5_reduce
I0403 15:27:24.368160 11975 net.cpp:91] Creating Layer inception_4b/relu_5x5_reduce
I0403 15:27:24.368193 11975 net.cpp:425] inception_4b/relu_5x5_reduce <- inception_4b/5x5_reduce
I0403 15:27:24.368214 11975 net.cpp:386] inception_4b/relu_5x5_reduce -> inception_4b/5x5_reduce (in-place)
I0403 15:27:24.368397 11975 net.cpp:141] Setting up inception_4b/relu_5x5_reduce
I0403 15:27:24.368427 11975 net.cpp:148] Top shape: 24 24 14 14 (112896)
I0403 15:27:24.368440 11975 net.cpp:156] Memory required for data: 965772576
I0403 15:27:24.368455 11975 layer_factory.hpp:77] Creating layer inception_4b/5x5
I0403 15:27:24.368476 11975 net.cpp:91] Creating Layer inception_4b/5x5
I0403 15:27:24.368494 11975 net.cpp:425] inception_4b/5x5 <- inception_4b/5x5_reduce
I0403 15:27:24.368515 11975 net.cpp:399] inception_4b/5x5 -> inception_4b/5x5
I0403 15:27:24.369741 11975 net.cpp:141] Setting up inception_4b/5x5
I0403 15:27:24.369771 11975 net.cpp:148] Top shape: 24 64 14 14 (301056)
I0403 15:27:24.369786 11975 net.cpp:156] Memory required for data: 966976800
I0403 15:27:24.369804 11975 layer_factory.hpp:77] Creating layer inception_4b/relu_5x5
I0403 15:27:24.369823 11975 net.cpp:91] Creating Layer inception_4b/relu_5x5
I0403 15:27:24.369840 11975 net.cpp:425] inception_4b/relu_5x5 <- inception_4b/5x5
I0403 15:27:24.369859 11975 net.cpp:386] inception_4b/relu_5x5 -> inception_4b/5x5 (in-place)
I0403 15:27:24.370147 11975 net.cpp:141] Setting up inception_4b/relu_5x5
I0403 15:27:24.370174 11975 net.cpp:148] Top shape: 24 64 14 14 (301056)
I0403 15:27:24.370188 11975 net.cpp:156] Memory required for data: 968181024
I0403 15:27:24.370203 11975 layer_factory.hpp:77] Creating layer inception_4b/pool
I0403 15:27:24.370220 11975 net.cpp:91] Creating Layer inception_4b/pool
I0403 15:27:24.370236 11975 net.cpp:425] inception_4b/pool <- inception_4a/output_inception_4a/output_0_split_4
I0403 15:27:24.370256 11975 net.cpp:399] inception_4b/pool -> inception_4b/pool
I0403 15:27:24.370317 11975 net.cpp:141] Setting up inception_4b/pool
I0403 15:27:24.370342 11975 net.cpp:148] Top shape: 24 512 14 14 (2408448)
I0403 15:27:24.370357 11975 net.cpp:156] Memory required for data: 977814816
I0403 15:27:24.370371 11975 layer_factory.hpp:77] Creating layer inception_4b/pool_proj
I0403 15:27:24.370393 11975 net.cpp:91] Creating Layer inception_4b/pool_proj
I0403 15:27:24.370414 11975 net.cpp:425] inception_4b/pool_proj <- inception_4b/pool
I0403 15:27:24.370434 11975 net.cpp:399] inception_4b/pool_proj -> inception_4b/pool_proj
I0403 15:27:24.371634 11975 net.cpp:141] Setting up inception_4b/pool_proj
I0403 15:27:24.371670 11975 net.cpp:148] Top shape: 24 64 14 14 (301056)
I0403 15:27:24.371685 11975 net.cpp:156] Memory required for data: 979019040
I0403 15:27:24.371703 11975 layer_factory.hpp:77] Creating layer inception_4b/relu_pool_proj
I0403 15:27:24.371724 11975 net.cpp:91] Creating Layer inception_4b/relu_pool_proj
I0403 15:27:24.371742 11975 net.cpp:425] inception_4b/relu_pool_proj <- inception_4b/pool_proj
I0403 15:27:24.371758 11975 net.cpp:386] inception_4b/relu_pool_proj -> inception_4b/pool_proj (in-place)
I0403 15:27:24.371937 11975 net.cpp:141] Setting up inception_4b/relu_pool_proj
I0403 15:27:24.371960 11975 net.cpp:148] Top shape: 24 64 14 14 (301056)
I0403 15:27:24.371974 11975 net.cpp:156] Memory required for data: 980223264
I0403 15:27:24.371989 11975 layer_factory.hpp:77] Creating layer inception_4b/output
I0403 15:27:24.372009 11975 net.cpp:91] Creating Layer inception_4b/output
I0403 15:27:24.372025 11975 net.cpp:425] inception_4b/output <- inception_4b/1x1
I0403 15:27:24.372040 11975 net.cpp:425] inception_4b/output <- inception_4b/3x3
I0403 15:27:24.372056 11975 net.cpp:425] inception_4b/output <- inception_4b/5x5
I0403 15:27:24.372072 11975 net.cpp:425] inception_4b/output <- inception_4b/pool_proj
I0403 15:27:24.372089 11975 net.cpp:399] inception_4b/output -> inception_4b/output
I0403 15:27:24.372135 11975 net.cpp:141] Setting up inception_4b/output
I0403 15:27:24.372159 11975 net.cpp:148] Top shape: 24 512 14 14 (2408448)
I0403 15:27:24.372172 11975 net.cpp:156] Memory required for data: 989857056
I0403 15:27:24.372200 11975 layer_factory.hpp:77] Creating layer inception_4b/output_inception_4b/output_0_split
I0403 15:27:24.372218 11975 net.cpp:91] Creating Layer inception_4b/output_inception_4b/output_0_split
I0403 15:27:24.372234 11975 net.cpp:425] inception_4b/output_inception_4b/output_0_split <- inception_4b/output
I0403 15:27:24.372253 11975 net.cpp:399] inception_4b/output_inception_4b/output_0_split -> inception_4b/output_inception_4b/output_0_split_0
I0403 15:27:24.372273 11975 net.cpp:399] inception_4b/output_inception_4b/output_0_split -> inception_4b/output_inception_4b/output_0_split_1
I0403 15:27:24.372294 11975 net.cpp:399] inception_4b/output_inception_4b/output_0_split -> inception_4b/output_inception_4b/output_0_split_2
I0403 15:27:24.372313 11975 net.cpp:399] inception_4b/output_inception_4b/output_0_split -> inception_4b/output_inception_4b/output_0_split_3
I0403 15:27:24.372398 11975 net.cpp:141] Setting up inception_4b/output_inception_4b/output_0_split
I0403 15:27:24.372428 11975 net.cpp:148] Top shape: 24 512 14 14 (2408448)
I0403 15:27:24.372447 11975 net.cpp:148] Top shape: 24 512 14 14 (2408448)
I0403 15:27:24.372462 11975 net.cpp:148] Top shape: 24 512 14 14 (2408448)
I0403 15:27:24.372475 11975 net.cpp:148] Top shape: 24 512 14 14 (2408448)
I0403 15:27:24.372488 11975 net.cpp:156] Memory required for data: 1028392224
I0403 15:27:24.372503 11975 layer_factory.hpp:77] Creating layer inception_4c/1x1
I0403 15:27:24.372524 11975 net.cpp:91] Creating Layer inception_4c/1x1
I0403 15:27:24.372540 11975 net.cpp:425] inception_4c/1x1 <- inception_4b/output_inception_4b/output_0_split_0
I0403 15:27:24.372558 11975 net.cpp:399] inception_4c/1x1 -> inception_4c/1x1
I0403 15:27:24.373983 11975 net.cpp:141] Setting up inception_4c/1x1
I0403 15:27:24.374011 11975 net.cpp:148] Top shape: 24 128 14 14 (602112)
I0403 15:27:24.374028 11975 net.cpp:156] Memory required for data: 1030800672
I0403 15:27:24.374047 11975 layer_factory.hpp:77] Creating layer inception_4c/relu_1x1
I0403 15:27:24.374068 11975 net.cpp:91] Creating Layer inception_4c/relu_1x1
I0403 15:27:24.374085 11975 net.cpp:425] inception_4c/relu_1x1 <- inception_4c/1x1
I0403 15:27:24.374104 11975 net.cpp:386] inception_4c/relu_1x1 -> inception_4c/1x1 (in-place)
I0403 15:27:24.374285 11975 net.cpp:141] Setting up inception_4c/relu_1x1
I0403 15:27:24.374311 11975 net.cpp:148] Top shape: 24 128 14 14 (602112)
I0403 15:27:24.374327 11975 net.cpp:156] Memory required for data: 1033209120
I0403 15:27:24.374342 11975 layer_factory.hpp:77] Creating layer inception_4c/3x3_reduce
I0403 15:27:24.374364 11975 net.cpp:91] Creating Layer inception_4c/3x3_reduce
I0403 15:27:24.374383 11975 net.cpp:425] inception_4c/3x3_reduce <- inception_4b/output_inception_4b/output_0_split_1
I0403 15:27:24.374405 11975 net.cpp:399] inception_4c/3x3_reduce -> inception_4c/3x3_reduce
I0403 15:27:24.376330 11975 net.cpp:141] Setting up inception_4c/3x3_reduce
I0403 15:27:24.376371 11975 net.cpp:148] Top shape: 24 128 14 14 (602112)
I0403 15:27:24.376387 11975 net.cpp:156] Memory required for data: 1035617568
I0403 15:27:24.376406 11975 layer_factory.hpp:77] Creating layer inception_4c/relu_3x3_reduce
I0403 15:27:24.376431 11975 net.cpp:91] Creating Layer inception_4c/relu_3x3_reduce
I0403 15:27:24.376448 11975 net.cpp:425] inception_4c/relu_3x3_reduce <- inception_4c/3x3_reduce
I0403 15:27:24.376468 11975 net.cpp:386] inception_4c/relu_3x3_reduce -> inception_4c/3x3_reduce (in-place)
I0403 15:27:24.376754 11975 net.cpp:141] Setting up inception_4c/relu_3x3_reduce
I0403 15:27:24.376781 11975 net.cpp:148] Top shape: 24 128 14 14 (602112)
I0403 15:27:24.376796 11975 net.cpp:156] Memory required for data: 1038026016
I0403 15:27:24.376811 11975 layer_factory.hpp:77] Creating layer inception_4c/3x3
I0403 15:27:24.376834 11975 net.cpp:91] Creating Layer inception_4c/3x3
I0403 15:27:24.376853 11975 net.cpp:425] inception_4c/3x3 <- inception_4c/3x3_reduce
I0403 15:27:24.376875 11975 net.cpp:399] inception_4c/3x3 -> inception_4c/3x3
I0403 15:27:24.380503 11975 net.cpp:141] Setting up inception_4c/3x3
I0403 15:27:24.380547 11975 net.cpp:148] Top shape: 24 256 14 14 (1204224)
I0403 15:27:24.380564 11975 net.cpp:156] Memory required for data: 1042842912
I0403 15:27:24.380597 11975 layer_factory.hpp:77] Creating layer inception_4c/relu_3x3
I0403 15:27:24.380621 11975 net.cpp:91] Creating Layer inception_4c/relu_3x3
I0403 15:27:24.380638 11975 net.cpp:425] inception_4c/relu_3x3 <- inception_4c/3x3
I0403 15:27:24.380655 11975 net.cpp:386] inception_4c/relu_3x3 -> inception_4c/3x3 (in-place)
I0403 15:27:24.380834 11975 net.cpp:141] Setting up inception_4c/relu_3x3
I0403 15:27:24.380858 11975 net.cpp:148] Top shape: 24 256 14 14 (1204224)
I0403 15:27:24.380873 11975 net.cpp:156] Memory required for data: 1047659808
I0403 15:27:24.380887 11975 layer_factory.hpp:77] Creating layer inception_4c/5x5_reduce
I0403 15:27:24.380910 11975 net.cpp:91] Creating Layer inception_4c/5x5_reduce
I0403 15:27:24.380928 11975 net.cpp:425] inception_4c/5x5_reduce <- inception_4b/output_inception_4b/output_0_split_2
I0403 15:27:24.380949 11975 net.cpp:399] inception_4c/5x5_reduce -> inception_4c/5x5_reduce
I0403 15:27:24.382030 11975 net.cpp:141] Setting up inception_4c/5x5_reduce
I0403 15:27:24.382058 11975 net.cpp:148] Top shape: 24 24 14 14 (112896)
I0403 15:27:24.382073 11975 net.cpp:156] Memory required for data: 1048111392
I0403 15:27:24.382092 11975 layer_factory.hpp:77] Creating layer inception_4c/relu_5x5_reduce
I0403 15:27:24.382112 11975 net.cpp:91] Creating Layer inception_4c/relu_5x5_reduce
I0403 15:27:24.382128 11975 net.cpp:425] inception_4c/relu_5x5_reduce <- inception_4c/5x5_reduce
I0403 15:27:24.382149 11975 net.cpp:386] inception_4c/relu_5x5_reduce -> inception_4c/5x5_reduce (in-place)
I0403 15:27:24.382334 11975 net.cpp:141] Setting up inception_4c/relu_5x5_reduce
I0403 15:27:24.382359 11975 net.cpp:148] Top shape: 24 24 14 14 (112896)
I0403 15:27:24.382374 11975 net.cpp:156] Memory required for data: 1048562976
I0403 15:27:24.382387 11975 layer_factory.hpp:77] Creating layer inception_4c/5x5
I0403 15:27:24.382408 11975 net.cpp:91] Creating Layer inception_4c/5x5
I0403 15:27:24.382431 11975 net.cpp:425] inception_4c/5x5 <- inception_4c/5x5_reduce
I0403 15:27:24.382452 11975 net.cpp:399] inception_4c/5x5 -> inception_4c/5x5
I0403 15:27:24.383683 11975 net.cpp:141] Setting up inception_4c/5x5
I0403 15:27:24.383713 11975 net.cpp:148] Top shape: 24 64 14 14 (301056)
I0403 15:27:24.383728 11975 net.cpp:156] Memory required for data: 1049767200
I0403 15:27:24.383745 11975 layer_factory.hpp:77] Creating layer inception_4c/relu_5x5
I0403 15:27:24.383766 11975 net.cpp:91] Creating Layer inception_4c/relu_5x5
I0403 15:27:24.383782 11975 net.cpp:425] inception_4c/relu_5x5 <- inception_4c/5x5
I0403 15:27:24.383798 11975 net.cpp:386] inception_4c/relu_5x5 -> inception_4c/5x5 (in-place)
I0403 15:27:24.384085 11975 net.cpp:141] Setting up inception_4c/relu_5x5
I0403 15:27:24.384111 11975 net.cpp:148] Top shape: 24 64 14 14 (301056)
I0403 15:27:24.384126 11975 net.cpp:156] Memory required for data: 1050971424
I0403 15:27:24.384141 11975 layer_factory.hpp:77] Creating layer inception_4c/pool
I0403 15:27:24.384160 11975 net.cpp:91] Creating Layer inception_4c/pool
I0403 15:27:24.384177 11975 net.cpp:425] inception_4c/pool <- inception_4b/output_inception_4b/output_0_split_3
I0403 15:27:24.384196 11975 net.cpp:399] inception_4c/pool -> inception_4c/pool
I0403 15:27:24.384261 11975 net.cpp:141] Setting up inception_4c/pool
I0403 15:27:24.384284 11975 net.cpp:148] Top shape: 24 512 14 14 (2408448)
I0403 15:27:24.384299 11975 net.cpp:156] Memory required for data: 1060605216
I0403 15:27:24.384312 11975 layer_factory.hpp:77] Creating layer inception_4c/pool_proj
I0403 15:27:24.384333 11975 net.cpp:91] Creating Layer inception_4c/pool_proj
I0403 15:27:24.384351 11975 net.cpp:425] inception_4c/pool_proj <- inception_4c/pool
I0403 15:27:24.384371 11975 net.cpp:399] inception_4c/pool_proj -> inception_4c/pool_proj
I0403 15:27:24.385587 11975 net.cpp:141] Setting up inception_4c/pool_proj
I0403 15:27:24.385628 11975 net.cpp:148] Top shape: 24 64 14 14 (301056)
I0403 15:27:24.385664 11975 net.cpp:156] Memory required for data: 1061809440
I0403 15:27:24.385684 11975 layer_factory.hpp:77] Creating layer inception_4c/relu_pool_proj
I0403 15:27:24.385704 11975 net.cpp:91] Creating Layer inception_4c/relu_pool_proj
I0403 15:27:24.385725 11975 net.cpp:425] inception_4c/relu_pool_proj <- inception_4c/pool_proj
I0403 15:27:24.385742 11975 net.cpp:386] inception_4c/relu_pool_proj -> inception_4c/pool_proj (in-place)
I0403 15:27:24.385933 11975 net.cpp:141] Setting up inception_4c/relu_pool_proj
I0403 15:27:24.385958 11975 net.cpp:148] Top shape: 24 64 14 14 (301056)
I0403 15:27:24.385973 11975 net.cpp:156] Memory required for data: 1063013664
I0403 15:27:24.385995 11975 layer_factory.hpp:77] Creating layer inception_4c/output
I0403 15:27:24.386014 11975 net.cpp:91] Creating Layer inception_4c/output
I0403 15:27:24.386031 11975 net.cpp:425] inception_4c/output <- inception_4c/1x1
I0403 15:27:24.386049 11975 net.cpp:425] inception_4c/output <- inception_4c/3x3
I0403 15:27:24.386065 11975 net.cpp:425] inception_4c/output <- inception_4c/5x5
I0403 15:27:24.386080 11975 net.cpp:425] inception_4c/output <- inception_4c/pool_proj
I0403 15:27:24.386098 11975 net.cpp:399] inception_4c/output -> inception_4c/output
I0403 15:27:24.386148 11975 net.cpp:141] Setting up inception_4c/output
I0403 15:27:24.386173 11975 net.cpp:148] Top shape: 24 512 14 14 (2408448)
I0403 15:27:24.386188 11975 net.cpp:156] Memory required for data: 1072647456
I0403 15:27:24.386203 11975 layer_factory.hpp:77] Creating layer inception_4c/output_inception_4c/output_0_split
I0403 15:27:24.386219 11975 net.cpp:91] Creating Layer inception_4c/output_inception_4c/output_0_split
I0403 15:27:24.386235 11975 net.cpp:425] inception_4c/output_inception_4c/output_0_split <- inception_4c/output
I0403 15:27:24.386255 11975 net.cpp:399] inception_4c/output_inception_4c/output_0_split -> inception_4c/output_inception_4c/output_0_split_0
I0403 15:27:24.386277 11975 net.cpp:399] inception_4c/output_inception_4c/output_0_split -> inception_4c/output_inception_4c/output_0_split_1
I0403 15:27:24.386298 11975 net.cpp:399] inception_4c/output_inception_4c/output_0_split -> inception_4c/output_inception_4c/output_0_split_2
I0403 15:27:24.386319 11975 net.cpp:399] inception_4c/output_inception_4c/output_0_split -> inception_4c/output_inception_4c/output_0_split_3
I0403 15:27:24.386420 11975 net.cpp:141] Setting up inception_4c/output_inception_4c/output_0_split
I0403 15:27:24.386447 11975 net.cpp:148] Top shape: 24 512 14 14 (2408448)
I0403 15:27:24.386464 11975 net.cpp:148] Top shape: 24 512 14 14 (2408448)
I0403 15:27:24.386481 11975 net.cpp:148] Top shape: 24 512 14 14 (2408448)
I0403 15:27:24.386495 11975 net.cpp:148] Top shape: 24 512 14 14 (2408448)
I0403 15:27:24.386509 11975 net.cpp:156] Memory required for data: 1111182624
I0403 15:27:24.386524 11975 layer_factory.hpp:77] Creating layer inception_4d/1x1
I0403 15:27:24.386546 11975 net.cpp:91] Creating Layer inception_4d/1x1
I0403 15:27:24.386564 11975 net.cpp:425] inception_4d/1x1 <- inception_4c/output_inception_4c/output_0_split_0
I0403 15:27:24.386584 11975 net.cpp:399] inception_4d/1x1 -> inception_4d/1x1
I0403 15:27:24.388000 11975 net.cpp:141] Setting up inception_4d/1x1
I0403 15:27:24.388032 11975 net.cpp:148] Top shape: 24 112 14 14 (526848)
I0403 15:27:24.388051 11975 net.cpp:156] Memory required for data: 1113290016
I0403 15:27:24.388070 11975 layer_factory.hpp:77] Creating layer inception_4d/relu_1x1
I0403 15:27:24.388088 11975 net.cpp:91] Creating Layer inception_4d/relu_1x1
I0403 15:27:24.388105 11975 net.cpp:425] inception_4d/relu_1x1 <- inception_4d/1x1
I0403 15:27:24.388126 11975 net.cpp:386] inception_4d/relu_1x1 -> inception_4d/1x1 (in-place)
I0403 15:27:24.388315 11975 net.cpp:141] Setting up inception_4d/relu_1x1
I0403 15:27:24.388342 11975 net.cpp:148] Top shape: 24 112 14 14 (526848)
I0403 15:27:24.388360 11975 net.cpp:156] Memory required for data: 1115397408
I0403 15:27:24.388375 11975 layer_factory.hpp:77] Creating layer inception_4d/3x3_reduce
I0403 15:27:24.388417 11975 net.cpp:91] Creating Layer inception_4d/3x3_reduce
I0403 15:27:24.388437 11975 net.cpp:425] inception_4d/3x3_reduce <- inception_4c/output_inception_4c/output_0_split_1
I0403 15:27:24.388461 11975 net.cpp:399] inception_4d/3x3_reduce -> inception_4d/3x3_reduce
I0403 15:27:24.390014 11975 net.cpp:141] Setting up inception_4d/3x3_reduce
I0403 15:27:24.390044 11975 net.cpp:148] Top shape: 24 144 14 14 (677376)
I0403 15:27:24.390060 11975 net.cpp:156] Memory required for data: 1118106912
I0403 15:27:24.390080 11975 layer_factory.hpp:77] Creating layer inception_4d/relu_3x3_reduce
I0403 15:27:24.390102 11975 net.cpp:91] Creating Layer inception_4d/relu_3x3_reduce
I0403 15:27:24.390120 11975 net.cpp:425] inception_4d/relu_3x3_reduce <- inception_4d/3x3_reduce
I0403 15:27:24.390138 11975 net.cpp:386] inception_4d/relu_3x3_reduce -> inception_4d/3x3_reduce (in-place)
I0403 15:27:24.390444 11975 net.cpp:141] Setting up inception_4d/relu_3x3_reduce
I0403 15:27:24.390471 11975 net.cpp:148] Top shape: 24 144 14 14 (677376)
I0403 15:27:24.390486 11975 net.cpp:156] Memory required for data: 1120816416
I0403 15:27:24.390501 11975 layer_factory.hpp:77] Creating layer inception_4d/3x3
I0403 15:27:24.390523 11975 net.cpp:91] Creating Layer inception_4d/3x3
I0403 15:27:24.390542 11975 net.cpp:425] inception_4d/3x3 <- inception_4d/3x3_reduce
I0403 15:27:24.390563 11975 net.cpp:399] inception_4d/3x3 -> inception_4d/3x3
I0403 15:27:24.394955 11975 net.cpp:141] Setting up inception_4d/3x3
I0403 15:27:24.394989 11975 net.cpp:148] Top shape: 24 288 14 14 (1354752)
I0403 15:27:24.395006 11975 net.cpp:156] Memory required for data: 1126235424
I0403 15:27:24.395026 11975 layer_factory.hpp:77] Creating layer inception_4d/relu_3x3
I0403 15:27:24.395045 11975 net.cpp:91] Creating Layer inception_4d/relu_3x3
I0403 15:27:24.395062 11975 net.cpp:425] inception_4d/relu_3x3 <- inception_4d/3x3
I0403 15:27:24.395082 11975 net.cpp:386] inception_4d/relu_3x3 -> inception_4d/3x3 (in-place)
I0403 15:27:24.395275 11975 net.cpp:141] Setting up inception_4d/relu_3x3
I0403 15:27:24.395303 11975 net.cpp:148] Top shape: 24 288 14 14 (1354752)
I0403 15:27:24.395318 11975 net.cpp:156] Memory required for data: 1131654432
I0403 15:27:24.395334 11975 layer_factory.hpp:77] Creating layer inception_4d/5x5_reduce
I0403 15:27:24.395357 11975 net.cpp:91] Creating Layer inception_4d/5x5_reduce
I0403 15:27:24.395375 11975 net.cpp:425] inception_4d/5x5_reduce <- inception_4c/output_inception_4c/output_0_split_2
I0403 15:27:24.395397 11975 net.cpp:399] inception_4d/5x5_reduce -> inception_4d/5x5_reduce
I0403 15:27:24.396574 11975 net.cpp:141] Setting up inception_4d/5x5_reduce
I0403 15:27:24.396607 11975 net.cpp:148] Top shape: 24 32 14 14 (150528)
I0403 15:27:24.396625 11975 net.cpp:156] Memory required for data: 1132256544
I0403 15:27:24.396646 11975 layer_factory.hpp:77] Creating layer inception_4d/relu_5x5_reduce
I0403 15:27:24.396666 11975 net.cpp:91] Creating Layer inception_4d/relu_5x5_reduce
I0403 15:27:24.396682 11975 net.cpp:425] inception_4d/relu_5x5_reduce <- inception_4d/5x5_reduce
I0403 15:27:24.396703 11975 net.cpp:386] inception_4d/relu_5x5_reduce -> inception_4d/5x5_reduce (in-place)
I0403 15:27:24.396896 11975 net.cpp:141] Setting up inception_4d/relu_5x5_reduce
I0403 15:27:24.396924 11975 net.cpp:148] Top shape: 24 32 14 14 (150528)
I0403 15:27:24.396939 11975 net.cpp:156] Memory required for data: 1132858656
I0403 15:27:24.396956 11975 layer_factory.hpp:77] Creating layer inception_4d/5x5
I0403 15:27:24.396978 11975 net.cpp:91] Creating Layer inception_4d/5x5
I0403 15:27:24.396997 11975 net.cpp:425] inception_4d/5x5 <- inception_4d/5x5_reduce
I0403 15:27:24.397019 11975 net.cpp:399] inception_4d/5x5 -> inception_4d/5x5
I0403 15:27:24.398545 11975 net.cpp:141] Setting up inception_4d/5x5
I0403 15:27:24.398576 11975 net.cpp:148] Top shape: 24 64 14 14 (301056)
I0403 15:27:24.398594 11975 net.cpp:156] Memory required for data: 1134062880
I0403 15:27:24.398613 11975 layer_factory.hpp:77] Creating layer inception_4d/relu_5x5
I0403 15:27:24.398653 11975 net.cpp:91] Creating Layer inception_4d/relu_5x5
I0403 15:27:24.398674 11975 net.cpp:425] inception_4d/relu_5x5 <- inception_4d/5x5
I0403 15:27:24.398691 11975 net.cpp:386] inception_4d/relu_5x5 -> inception_4d/5x5 (in-place)
I0403 15:27:24.399005 11975 net.cpp:141] Setting up inception_4d/relu_5x5
I0403 15:27:24.399034 11975 net.cpp:148] Top shape: 24 64 14 14 (301056)
I0403 15:27:24.399051 11975 net.cpp:156] Memory required for data: 1135267104
I0403 15:27:24.399067 11975 layer_factory.hpp:77] Creating layer inception_4d/pool
I0403 15:27:24.399085 11975 net.cpp:91] Creating Layer inception_4d/pool
I0403 15:27:24.399103 11975 net.cpp:425] inception_4d/pool <- inception_4c/output_inception_4c/output_0_split_3
I0403 15:27:24.399126 11975 net.cpp:399] inception_4d/pool -> inception_4d/pool
I0403 15:27:24.399199 11975 net.cpp:141] Setting up inception_4d/pool
I0403 15:27:24.399225 11975 net.cpp:148] Top shape: 24 512 14 14 (2408448)
I0403 15:27:24.399241 11975 net.cpp:156] Memory required for data: 1144900896
I0403 15:27:24.399257 11975 layer_factory.hpp:77] Creating layer inception_4d/pool_proj
I0403 15:27:24.399281 11975 net.cpp:91] Creating Layer inception_4d/pool_proj
I0403 15:27:24.399299 11975 net.cpp:425] inception_4d/pool_proj <- inception_4d/pool
I0403 15:27:24.399320 11975 net.cpp:399] inception_4d/pool_proj -> inception_4d/pool_proj
I0403 15:27:24.401157 11975 net.cpp:141] Setting up inception_4d/pool_proj
I0403 15:27:24.401191 11975 net.cpp:148] Top shape: 24 64 14 14 (301056)
I0403 15:27:24.401209 11975 net.cpp:156] Memory required for data: 1146105120
I0403 15:27:24.401228 11975 layer_factory.hpp:77] Creating layer inception_4d/relu_pool_proj
I0403 15:27:24.401247 11975 net.cpp:91] Creating Layer inception_4d/relu_pool_proj
I0403 15:27:24.401263 11975 net.cpp:425] inception_4d/relu_pool_proj <- inception_4d/pool_proj
I0403 15:27:24.401283 11975 net.cpp:386] inception_4d/relu_pool_proj -> inception_4d/pool_proj (in-place)
I0403 15:27:24.401482 11975 net.cpp:141] Setting up inception_4d/relu_pool_proj
I0403 15:27:24.401510 11975 net.cpp:148] Top shape: 24 64 14 14 (301056)
I0403 15:27:24.401525 11975 net.cpp:156] Memory required for data: 1147309344
I0403 15:27:24.401540 11975 layer_factory.hpp:77] Creating layer inception_4d/output
I0403 15:27:24.401557 11975 net.cpp:91] Creating Layer inception_4d/output
I0403 15:27:24.401576 11975 net.cpp:425] inception_4d/output <- inception_4d/1x1
I0403 15:27:24.401592 11975 net.cpp:425] inception_4d/output <- inception_4d/3x3
I0403 15:27:24.401612 11975 net.cpp:425] inception_4d/output <- inception_4d/5x5
I0403 15:27:24.401629 11975 net.cpp:425] inception_4d/output <- inception_4d/pool_proj
I0403 15:27:24.401646 11975 net.cpp:399] inception_4d/output -> inception_4d/output
I0403 15:27:24.401695 11975 net.cpp:141] Setting up inception_4d/output
I0403 15:27:24.401721 11975 net.cpp:148] Top shape: 24 528 14 14 (2483712)
I0403 15:27:24.401737 11975 net.cpp:156] Memory required for data: 1157244192
I0403 15:27:24.401752 11975 layer_factory.hpp:77] Creating layer inception_4d/output_inception_4d/output_0_split
I0403 15:27:24.401770 11975 net.cpp:91] Creating Layer inception_4d/output_inception_4d/output_0_split
I0403 15:27:24.401787 11975 net.cpp:425] inception_4d/output_inception_4d/output_0_split <- inception_4d/output
I0403 15:27:24.401806 11975 net.cpp:399] inception_4d/output_inception_4d/output_0_split -> inception_4d/output_inception_4d/output_0_split_0
I0403 15:27:24.401829 11975 net.cpp:399] inception_4d/output_inception_4d/output_0_split -> inception_4d/output_inception_4d/output_0_split_1
I0403 15:27:24.401850 11975 net.cpp:399] inception_4d/output_inception_4d/output_0_split -> inception_4d/output_inception_4d/output_0_split_2
I0403 15:27:24.401871 11975 net.cpp:399] inception_4d/output_inception_4d/output_0_split -> inception_4d/output_inception_4d/output_0_split_3
I0403 15:27:24.401892 11975 net.cpp:399] inception_4d/output_inception_4d/output_0_split -> inception_4d/output_inception_4d/output_0_split_4
I0403 15:27:24.401998 11975 net.cpp:141] Setting up inception_4d/output_inception_4d/output_0_split
I0403 15:27:24.402034 11975 net.cpp:148] Top shape: 24 528 14 14 (2483712)
I0403 15:27:24.402053 11975 net.cpp:148] Top shape: 24 528 14 14 (2483712)
I0403 15:27:24.402071 11975 net.cpp:148] Top shape: 24 528 14 14 (2483712)
I0403 15:27:24.402086 11975 net.cpp:148] Top shape: 24 528 14 14 (2483712)
I0403 15:27:24.402101 11975 net.cpp:148] Top shape: 24 528 14 14 (2483712)
I0403 15:27:24.402115 11975 net.cpp:156] Memory required for data: 1206918432
I0403 15:27:24.402129 11975 layer_factory.hpp:77] Creating layer loss2/ave_pool
I0403 15:27:24.402148 11975 net.cpp:91] Creating Layer loss2/ave_pool
I0403 15:27:24.402164 11975 net.cpp:425] loss2/ave_pool <- inception_4d/output_inception_4d/output_0_split_0
I0403 15:27:24.402186 11975 net.cpp:399] loss2/ave_pool -> loss2/ave_pool
I0403 15:27:24.402510 11975 net.cpp:141] Setting up loss2/ave_pool
I0403 15:27:24.402537 11975 net.cpp:148] Top shape: 24 528 4 4 (202752)
I0403 15:27:24.402565 11975 net.cpp:156] Memory required for data: 1207729440
I0403 15:27:24.402581 11975 layer_factory.hpp:77] Creating layer loss2/conv
I0403 15:27:24.402604 11975 net.cpp:91] Creating Layer loss2/conv
I0403 15:27:24.402623 11975 net.cpp:425] loss2/conv <- loss2/ave_pool
I0403 15:27:24.402645 11975 net.cpp:399] loss2/conv -> loss2/conv
I0403 15:27:24.404621 11975 net.cpp:141] Setting up loss2/conv
I0403 15:27:24.404661 11975 net.cpp:148] Top shape: 24 128 4 4 (49152)
I0403 15:27:24.404677 11975 net.cpp:156] Memory required for data: 1207926048
I0403 15:27:24.404697 11975 layer_factory.hpp:77] Creating layer loss2/relu_conv
I0403 15:27:24.404719 11975 net.cpp:91] Creating Layer loss2/relu_conv
I0403 15:27:24.404737 11975 net.cpp:425] loss2/relu_conv <- loss2/conv
I0403 15:27:24.404757 11975 net.cpp:386] loss2/relu_conv -> loss2/conv (in-place)
I0403 15:27:24.405055 11975 net.cpp:141] Setting up loss2/relu_conv
I0403 15:27:24.405082 11975 net.cpp:148] Top shape: 24 128 4 4 (49152)
I0403 15:27:24.405098 11975 net.cpp:156] Memory required for data: 1208122656
I0403 15:27:24.405112 11975 layer_factory.hpp:77] Creating layer loss2/fc
I0403 15:27:24.405134 11975 net.cpp:91] Creating Layer loss2/fc
I0403 15:27:24.405153 11975 net.cpp:425] loss2/fc <- loss2/conv
I0403 15:27:24.405174 11975 net.cpp:399] loss2/fc -> loss2/fc
I0403 15:27:24.423398 11975 net.cpp:141] Setting up loss2/fc
I0403 15:27:24.423465 11975 net.cpp:148] Top shape: 24 1024 (24576)
I0403 15:27:24.423482 11975 net.cpp:156] Memory required for data: 1208220960
I0403 15:27:24.423503 11975 layer_factory.hpp:77] Creating layer loss2/relu_fc
I0403 15:27:24.423524 11975 net.cpp:91] Creating Layer loss2/relu_fc
I0403 15:27:24.423544 11975 net.cpp:425] loss2/relu_fc <- loss2/fc
I0403 15:27:24.423566 11975 net.cpp:386] loss2/relu_fc -> loss2/fc (in-place)
I0403 15:27:24.423918 11975 net.cpp:141] Setting up loss2/relu_fc
I0403 15:27:24.423946 11975 net.cpp:148] Top shape: 24 1024 (24576)
I0403 15:27:24.423962 11975 net.cpp:156] Memory required for data: 1208319264
I0403 15:27:24.423977 11975 layer_factory.hpp:77] Creating layer loss2/drop_fc
I0403 15:27:24.423997 11975 net.cpp:91] Creating Layer loss2/drop_fc
I0403 15:27:24.424015 11975 net.cpp:425] loss2/drop_fc <- loss2/fc
I0403 15:27:24.424036 11975 net.cpp:386] loss2/drop_fc -> loss2/fc (in-place)
I0403 15:27:24.424090 11975 net.cpp:141] Setting up loss2/drop_fc
I0403 15:27:24.424114 11975 net.cpp:148] Top shape: 24 1024 (24576)
I0403 15:27:24.424129 11975 net.cpp:156] Memory required for data: 1208417568
I0403 15:27:24.424144 11975 layer_factory.hpp:77] Creating layer loss2/classifier_plantvillage
I0403 15:27:24.424167 11975 net.cpp:91] Creating Layer loss2/classifier_plantvillage
I0403 15:27:24.424186 11975 net.cpp:425] loss2/classifier_plantvillage <- loss2/fc
I0403 15:27:24.424207 11975 net.cpp:399] loss2/classifier_plantvillage -> loss2/classifier_plantvillage
I0403 15:27:24.424635 11975 net.cpp:141] Setting up loss2/classifier_plantvillage
I0403 15:27:24.424662 11975 net.cpp:148] Top shape: 24 38 (912)
I0403 15:27:24.424701 11975 net.cpp:156] Memory required for data: 1208421216
I0403 15:27:24.424720 11975 layer_factory.hpp:77] Creating layer loss2/classifier_plantvillage_loss2/classifier_plantvillage_0_split
I0403 15:27:24.424737 11975 net.cpp:91] Creating Layer loss2/classifier_plantvillage_loss2/classifier_plantvillage_0_split
I0403 15:27:24.424753 11975 net.cpp:425] loss2/classifier_plantvillage_loss2/classifier_plantvillage_0_split <- loss2/classifier_plantvillage
I0403 15:27:24.424769 11975 net.cpp:399] loss2/classifier_plantvillage_loss2/classifier_plantvillage_0_split -> loss2/classifier_plantvillage_loss2/classifier_plantvillage_0_split_0
I0403 15:27:24.424789 11975 net.cpp:399] loss2/classifier_plantvillage_loss2/classifier_plantvillage_0_split -> loss2/classifier_plantvillage_loss2/classifier_plantvillage_0_split_1
I0403 15:27:24.424809 11975 net.cpp:399] loss2/classifier_plantvillage_loss2/classifier_plantvillage_0_split -> loss2/classifier_plantvillage_loss2/classifier_plantvillage_0_split_2
I0403 15:27:24.424891 11975 net.cpp:141] Setting up loss2/classifier_plantvillage_loss2/classifier_plantvillage_0_split
I0403 15:27:24.424914 11975 net.cpp:148] Top shape: 24 38 (912)
I0403 15:27:24.424931 11975 net.cpp:148] Top shape: 24 38 (912)
I0403 15:27:24.424944 11975 net.cpp:148] Top shape: 24 38 (912)
I0403 15:27:24.424958 11975 net.cpp:156] Memory required for data: 1208432160
I0403 15:27:24.424973 11975 layer_factory.hpp:77] Creating layer inception_4e/1x1
I0403 15:27:24.425003 11975 net.cpp:91] Creating Layer inception_4e/1x1
I0403 15:27:24.425020 11975 net.cpp:425] inception_4e/1x1 <- inception_4d/output_inception_4d/output_0_split_1
I0403 15:27:24.425042 11975 net.cpp:399] inception_4e/1x1 -> inception_4e/1x1
I0403 15:27:24.426900 11975 net.cpp:141] Setting up inception_4e/1x1
I0403 15:27:24.426930 11975 net.cpp:148] Top shape: 24 256 14 14 (1204224)
I0403 15:27:24.426947 11975 net.cpp:156] Memory required for data: 1213249056
I0403 15:27:24.426966 11975 layer_factory.hpp:77] Creating layer inception_4e/relu_1x1
I0403 15:27:24.426987 11975 net.cpp:91] Creating Layer inception_4e/relu_1x1
I0403 15:27:24.427005 11975 net.cpp:425] inception_4e/relu_1x1 <- inception_4e/1x1
I0403 15:27:24.427021 11975 net.cpp:386] inception_4e/relu_1x1 -> inception_4e/1x1 (in-place)
I0403 15:27:24.427320 11975 net.cpp:141] Setting up inception_4e/relu_1x1
I0403 15:27:24.427345 11975 net.cpp:148] Top shape: 24 256 14 14 (1204224)
I0403 15:27:24.427361 11975 net.cpp:156] Memory required for data: 1218065952
I0403 15:27:24.427376 11975 layer_factory.hpp:77] Creating layer inception_4e/3x3_reduce
I0403 15:27:24.427397 11975 net.cpp:91] Creating Layer inception_4e/3x3_reduce
I0403 15:27:24.427419 11975 net.cpp:425] inception_4e/3x3_reduce <- inception_4d/output_inception_4d/output_0_split_2
I0403 15:27:24.427443 11975 net.cpp:399] inception_4e/3x3_reduce -> inception_4e/3x3_reduce
I0403 15:27:24.429625 11975 net.cpp:141] Setting up inception_4e/3x3_reduce
I0403 15:27:24.429654 11975 net.cpp:148] Top shape: 24 160 14 14 (752640)
I0403 15:27:24.429672 11975 net.cpp:156] Memory required for data: 1221076512
I0403 15:27:24.429692 11975 layer_factory.hpp:77] Creating layer inception_4e/relu_3x3_reduce
I0403 15:27:24.429710 11975 net.cpp:91] Creating Layer inception_4e/relu_3x3_reduce
I0403 15:27:24.429728 11975 net.cpp:425] inception_4e/relu_3x3_reduce <- inception_4e/3x3_reduce
I0403 15:27:24.429744 11975 net.cpp:386] inception_4e/relu_3x3_reduce -> inception_4e/3x3_reduce (in-place)
I0403 15:27:24.429935 11975 net.cpp:141] Setting up inception_4e/relu_3x3_reduce
I0403 15:27:24.429960 11975 net.cpp:148] Top shape: 24 160 14 14 (752640)
I0403 15:27:24.429975 11975 net.cpp:156] Memory required for data: 1224087072
I0403 15:27:24.429988 11975 layer_factory.hpp:77] Creating layer inception_4e/3x3
I0403 15:27:24.430012 11975 net.cpp:91] Creating Layer inception_4e/3x3
I0403 15:27:24.430028 11975 net.cpp:425] inception_4e/3x3 <- inception_4e/3x3_reduce
I0403 15:27:24.430047 11975 net.cpp:399] inception_4e/3x3 -> inception_4e/3x3
I0403 15:27:24.436206 11975 net.cpp:141] Setting up inception_4e/3x3
I0403 15:27:24.436249 11975 net.cpp:148] Top shape: 24 320 14 14 (1505280)
I0403 15:27:24.436266 11975 net.cpp:156] Memory required for data: 1230108192
I0403 15:27:24.436285 11975 layer_factory.hpp:77] Creating layer inception_4e/relu_3x3
I0403 15:27:24.436305 11975 net.cpp:91] Creating Layer inception_4e/relu_3x3
I0403 15:27:24.436323 11975 net.cpp:425] inception_4e/relu_3x3 <- inception_4e/3x3
I0403 15:27:24.436341 11975 net.cpp:386] inception_4e/relu_3x3 -> inception_4e/3x3 (in-place)
I0403 15:27:24.436648 11975 net.cpp:141] Setting up inception_4e/relu_3x3
I0403 15:27:24.436679 11975 net.cpp:148] Top shape: 24 320 14 14 (1505280)
I0403 15:27:24.436697 11975 net.cpp:156] Memory required for data: 1236129312
I0403 15:27:24.436710 11975 layer_factory.hpp:77] Creating layer inception_4e/5x5_reduce
I0403 15:27:24.436733 11975 net.cpp:91] Creating Layer inception_4e/5x5_reduce
I0403 15:27:24.436751 11975 net.cpp:425] inception_4e/5x5_reduce <- inception_4d/output_inception_4d/output_0_split_3
I0403 15:27:24.436770 11975 net.cpp:399] inception_4e/5x5_reduce -> inception_4e/5x5_reduce
I0403 15:27:24.437896 11975 net.cpp:141] Setting up inception_4e/5x5_reduce
I0403 15:27:24.437927 11975 net.cpp:148] Top shape: 24 32 14 14 (150528)
I0403 15:27:24.437943 11975 net.cpp:156] Memory required for data: 1236731424
I0403 15:27:24.437961 11975 layer_factory.hpp:77] Creating layer inception_4e/relu_5x5_reduce
I0403 15:27:24.437984 11975 net.cpp:91] Creating Layer inception_4e/relu_5x5_reduce
I0403 15:27:24.438004 11975 net.cpp:425] inception_4e/relu_5x5_reduce <- inception_4e/5x5_reduce
I0403 15:27:24.438022 11975 net.cpp:386] inception_4e/relu_5x5_reduce -> inception_4e/5x5_reduce (in-place)
I0403 15:27:24.438333 11975 net.cpp:141] Setting up inception_4e/relu_5x5_reduce
I0403 15:27:24.438361 11975 net.cpp:148] Top shape: 24 32 14 14 (150528)
I0403 15:27:24.438379 11975 net.cpp:156] Memory required for data: 1237333536
I0403 15:27:24.438393 11975 layer_factory.hpp:77] Creating layer inception_4e/5x5
I0403 15:27:24.438438 11975 net.cpp:91] Creating Layer inception_4e/5x5
I0403 15:27:24.438462 11975 net.cpp:425] inception_4e/5x5 <- inception_4e/5x5_reduce
I0403 15:27:24.438483 11975 net.cpp:399] inception_4e/5x5 -> inception_4e/5x5
I0403 15:27:24.440354 11975 net.cpp:141] Setting up inception_4e/5x5
I0403 15:27:24.440384 11975 net.cpp:148] Top shape: 24 128 14 14 (602112)
I0403 15:27:24.440402 11975 net.cpp:156] Memory required for data: 1239741984
I0403 15:27:24.440428 11975 layer_factory.hpp:77] Creating layer inception_4e/relu_5x5
I0403 15:27:24.440448 11975 net.cpp:91] Creating Layer inception_4e/relu_5x5
I0403 15:27:24.440464 11975 net.cpp:425] inception_4e/relu_5x5 <- inception_4e/5x5
I0403 15:27:24.440484 11975 net.cpp:386] inception_4e/relu_5x5 -> inception_4e/5x5 (in-place)
I0403 15:27:24.440685 11975 net.cpp:141] Setting up inception_4e/relu_5x5
I0403 15:27:24.440711 11975 net.cpp:148] Top shape: 24 128 14 14 (602112)
I0403 15:27:24.440726 11975 net.cpp:156] Memory required for data: 1242150432
I0403 15:27:24.440740 11975 layer_factory.hpp:77] Creating layer inception_4e/pool
I0403 15:27:24.440762 11975 net.cpp:91] Creating Layer inception_4e/pool
I0403 15:27:24.440778 11975 net.cpp:425] inception_4e/pool <- inception_4d/output_inception_4d/output_0_split_4
I0403 15:27:24.440796 11975 net.cpp:399] inception_4e/pool -> inception_4e/pool
I0403 15:27:24.440868 11975 net.cpp:141] Setting up inception_4e/pool
I0403 15:27:24.440892 11975 net.cpp:148] Top shape: 24 528 14 14 (2483712)
I0403 15:27:24.440907 11975 net.cpp:156] Memory required for data: 1252085280
I0403 15:27:24.440922 11975 layer_factory.hpp:77] Creating layer inception_4e/pool_proj
I0403 15:27:24.440943 11975 net.cpp:91] Creating Layer inception_4e/pool_proj
I0403 15:27:24.440960 11975 net.cpp:425] inception_4e/pool_proj <- inception_4e/pool
I0403 15:27:24.440981 11975 net.cpp:399] inception_4e/pool_proj -> inception_4e/pool_proj
I0403 15:27:24.442494 11975 net.cpp:141] Setting up inception_4e/pool_proj
I0403 15:27:24.442535 11975 net.cpp:148] Top shape: 24 128 14 14 (602112)
I0403 15:27:24.442553 11975 net.cpp:156] Memory required for data: 1254493728
I0403 15:27:24.442572 11975 layer_factory.hpp:77] Creating layer inception_4e/relu_pool_proj
I0403 15:27:24.442594 11975 net.cpp:91] Creating Layer inception_4e/relu_pool_proj
I0403 15:27:24.442611 11975 net.cpp:425] inception_4e/relu_pool_proj <- inception_4e/pool_proj
I0403 15:27:24.442631 11975 net.cpp:386] inception_4e/relu_pool_proj -> inception_4e/pool_proj (in-place)
I0403 15:27:24.442929 11975 net.cpp:141] Setting up inception_4e/relu_pool_proj
I0403 15:27:24.442955 11975 net.cpp:148] Top shape: 24 128 14 14 (602112)
I0403 15:27:24.442970 11975 net.cpp:156] Memory required for data: 1256902176
I0403 15:27:24.442984 11975 layer_factory.hpp:77] Creating layer inception_4e/output
I0403 15:27:24.443002 11975 net.cpp:91] Creating Layer inception_4e/output
I0403 15:27:24.443017 11975 net.cpp:425] inception_4e/output <- inception_4e/1x1
I0403 15:27:24.443032 11975 net.cpp:425] inception_4e/output <- inception_4e/3x3
I0403 15:27:24.443048 11975 net.cpp:425] inception_4e/output <- inception_4e/5x5
I0403 15:27:24.443064 11975 net.cpp:425] inception_4e/output <- inception_4e/pool_proj
I0403 15:27:24.443084 11975 net.cpp:399] inception_4e/output -> inception_4e/output
I0403 15:27:24.443135 11975 net.cpp:141] Setting up inception_4e/output
I0403 15:27:24.443158 11975 net.cpp:148] Top shape: 24 832 14 14 (3913728)
I0403 15:27:24.443176 11975 net.cpp:156] Memory required for data: 1272557088
I0403 15:27:24.443191 11975 layer_factory.hpp:77] Creating layer pool4/3x3_s2
I0403 15:27:24.443207 11975 net.cpp:91] Creating Layer pool4/3x3_s2
I0403 15:27:24.443223 11975 net.cpp:425] pool4/3x3_s2 <- inception_4e/output
I0403 15:27:24.443241 11975 net.cpp:399] pool4/3x3_s2 -> pool4/3x3_s2
I0403 15:27:24.443311 11975 net.cpp:141] Setting up pool4/3x3_s2
I0403 15:27:24.443334 11975 net.cpp:148] Top shape: 24 832 7 7 (978432)
I0403 15:27:24.443348 11975 net.cpp:156] Memory required for data: 1276470816
I0403 15:27:24.443362 11975 layer_factory.hpp:77] Creating layer pool4/3x3_s2_pool4/3x3_s2_0_split
I0403 15:27:24.443379 11975 net.cpp:91] Creating Layer pool4/3x3_s2_pool4/3x3_s2_0_split
I0403 15:27:24.443394 11975 net.cpp:425] pool4/3x3_s2_pool4/3x3_s2_0_split <- pool4/3x3_s2
I0403 15:27:24.443424 11975 net.cpp:399] pool4/3x3_s2_pool4/3x3_s2_0_split -> pool4/3x3_s2_pool4/3x3_s2_0_split_0
I0403 15:27:24.443454 11975 net.cpp:399] pool4/3x3_s2_pool4/3x3_s2_0_split -> pool4/3x3_s2_pool4/3x3_s2_0_split_1
I0403 15:27:24.443475 11975 net.cpp:399] pool4/3x3_s2_pool4/3x3_s2_0_split -> pool4/3x3_s2_pool4/3x3_s2_0_split_2
I0403 15:27:24.443503 11975 net.cpp:399] pool4/3x3_s2_pool4/3x3_s2_0_split -> pool4/3x3_s2_pool4/3x3_s2_0_split_3
I0403 15:27:24.443598 11975 net.cpp:141] Setting up pool4/3x3_s2_pool4/3x3_s2_0_split
I0403 15:27:24.443621 11975 net.cpp:148] Top shape: 24 832 7 7 (978432)
I0403 15:27:24.443639 11975 net.cpp:148] Top shape: 24 832 7 7 (978432)
I0403 15:27:24.443652 11975 net.cpp:148] Top shape: 24 832 7 7 (978432)
I0403 15:27:24.443667 11975 net.cpp:148] Top shape: 24 832 7 7 (978432)
I0403 15:27:24.443681 11975 net.cpp:156] Memory required for data: 1292125728
I0403 15:27:24.443696 11975 layer_factory.hpp:77] Creating layer inception_5a/1x1
I0403 15:27:24.443717 11975 net.cpp:91] Creating Layer inception_5a/1x1
I0403 15:27:24.443735 11975 net.cpp:425] inception_5a/1x1 <- pool4/3x3_s2_pool4/3x3_s2_0_split_0
I0403 15:27:24.443756 11975 net.cpp:399] inception_5a/1x1 -> inception_5a/1x1
I0403 15:27:24.446681 11975 net.cpp:141] Setting up inception_5a/1x1
I0403 15:27:24.446712 11975 net.cpp:148] Top shape: 24 256 7 7 (301056)
I0403 15:27:24.446728 11975 net.cpp:156] Memory required for data: 1293329952
I0403 15:27:24.446746 11975 layer_factory.hpp:77] Creating layer inception_5a/relu_1x1
I0403 15:27:24.446766 11975 net.cpp:91] Creating Layer inception_5a/relu_1x1
I0403 15:27:24.446782 11975 net.cpp:425] inception_5a/relu_1x1 <- inception_5a/1x1
I0403 15:27:24.446799 11975 net.cpp:386] inception_5a/relu_1x1 -> inception_5a/1x1 (in-place)
I0403 15:27:24.447109 11975 net.cpp:141] Setting up inception_5a/relu_1x1
I0403 15:27:24.447135 11975 net.cpp:148] Top shape: 24 256 7 7 (301056)
I0403 15:27:24.447150 11975 net.cpp:156] Memory required for data: 1294534176
I0403 15:27:24.447165 11975 layer_factory.hpp:77] Creating layer inception_5a/3x3_reduce
I0403 15:27:24.447186 11975 net.cpp:91] Creating Layer inception_5a/3x3_reduce
I0403 15:27:24.447202 11975 net.cpp:425] inception_5a/3x3_reduce <- pool4/3x3_s2_pool4/3x3_s2_0_split_1
I0403 15:27:24.447223 11975 net.cpp:399] inception_5a/3x3_reduce -> inception_5a/3x3_reduce
I0403 15:27:24.449664 11975 net.cpp:141] Setting up inception_5a/3x3_reduce
I0403 15:27:24.449697 11975 net.cpp:148] Top shape: 24 160 7 7 (188160)
I0403 15:27:24.449714 11975 net.cpp:156] Memory required for data: 1295286816
I0403 15:27:24.449733 11975 layer_factory.hpp:77] Creating layer inception_5a/relu_3x3_reduce
I0403 15:27:24.449749 11975 net.cpp:91] Creating Layer inception_5a/relu_3x3_reduce
I0403 15:27:24.449765 11975 net.cpp:425] inception_5a/relu_3x3_reduce <- inception_5a/3x3_reduce
I0403 15:27:24.449784 11975 net.cpp:386] inception_5a/relu_3x3_reduce -> inception_5a/3x3_reduce (in-place)
I0403 15:27:24.449971 11975 net.cpp:141] Setting up inception_5a/relu_3x3_reduce
I0403 15:27:24.449995 11975 net.cpp:148] Top shape: 24 160 7 7 (188160)
I0403 15:27:24.450009 11975 net.cpp:156] Memory required for data: 1296039456
I0403 15:27:24.450023 11975 layer_factory.hpp:77] Creating layer inception_5a/3x3
I0403 15:27:24.450044 11975 net.cpp:91] Creating Layer inception_5a/3x3
I0403 15:27:24.450062 11975 net.cpp:425] inception_5a/3x3 <- inception_5a/3x3_reduce
I0403 15:27:24.450083 11975 net.cpp:399] inception_5a/3x3 -> inception_5a/3x3
I0403 15:27:24.454993 11975 net.cpp:141] Setting up inception_5a/3x3
I0403 15:27:24.455024 11975 net.cpp:148] Top shape: 24 320 7 7 (376320)
I0403 15:27:24.455041 11975 net.cpp:156] Memory required for data: 1297544736
I0403 15:27:24.455059 11975 layer_factory.hpp:77] Creating layer inception_5a/relu_3x3
I0403 15:27:24.455077 11975 net.cpp:91] Creating Layer inception_5a/relu_3x3
I0403 15:27:24.455095 11975 net.cpp:425] inception_5a/relu_3x3 <- inception_5a/3x3
I0403 15:27:24.455114 11975 net.cpp:386] inception_5a/relu_3x3 -> inception_5a/3x3 (in-place)
I0403 15:27:24.455405 11975 net.cpp:141] Setting up inception_5a/relu_3x3
I0403 15:27:24.455436 11975 net.cpp:148] Top shape: 24 320 7 7 (376320)
I0403 15:27:24.455451 11975 net.cpp:156] Memory required for data: 1299050016
I0403 15:27:24.455466 11975 layer_factory.hpp:77] Creating layer inception_5a/5x5_reduce
I0403 15:27:24.455487 11975 net.cpp:91] Creating Layer inception_5a/5x5_reduce
I0403 15:27:24.455504 11975 net.cpp:425] inception_5a/5x5_reduce <- pool4/3x3_s2_pool4/3x3_s2_0_split_2
I0403 15:27:24.455525 11975 net.cpp:399] inception_5a/5x5_reduce -> inception_5a/5x5_reduce
I0403 15:27:24.456676 11975 net.cpp:141] Setting up inception_5a/5x5_reduce
I0403 15:27:24.456704 11975 net.cpp:148] Top shape: 24 32 7 7 (37632)
I0403 15:27:24.456728 11975 net.cpp:156] Memory required for data: 1299200544
I0403 15:27:24.456746 11975 layer_factory.hpp:77] Creating layer inception_5a/relu_5x5_reduce
I0403 15:27:24.456766 11975 net.cpp:91] Creating Layer inception_5a/relu_5x5_reduce
I0403 15:27:24.456784 11975 net.cpp:425] inception_5a/relu_5x5_reduce <- inception_5a/5x5_reduce
I0403 15:27:24.456799 11975 net.cpp:386] inception_5a/relu_5x5_reduce -> inception_5a/5x5_reduce (in-place)
I0403 15:27:24.457089 11975 net.cpp:141] Setting up inception_5a/relu_5x5_reduce
I0403 15:27:24.457114 11975 net.cpp:148] Top shape: 24 32 7 7 (37632)
I0403 15:27:24.457129 11975 net.cpp:156] Memory required for data: 1299351072
I0403 15:27:24.457142 11975 layer_factory.hpp:77] Creating layer inception_5a/5x5
I0403 15:27:24.457165 11975 net.cpp:91] Creating Layer inception_5a/5x5
I0403 15:27:24.457180 11975 net.cpp:425] inception_5a/5x5 <- inception_5a/5x5_reduce
I0403 15:27:24.457201 11975 net.cpp:399] inception_5a/5x5 -> inception_5a/5x5
I0403 15:27:24.458884 11975 net.cpp:141] Setting up inception_5a/5x5
I0403 15:27:24.458923 11975 net.cpp:148] Top shape: 24 128 7 7 (150528)
I0403 15:27:24.458940 11975 net.cpp:156] Memory required for data: 1299953184
I0403 15:27:24.458958 11975 layer_factory.hpp:77] Creating layer inception_5a/relu_5x5
I0403 15:27:24.458976 11975 net.cpp:91] Creating Layer inception_5a/relu_5x5
I0403 15:27:24.458992 11975 net.cpp:425] inception_5a/relu_5x5 <- inception_5a/5x5
I0403 15:27:24.459012 11975 net.cpp:386] inception_5a/relu_5x5 -> inception_5a/5x5 (in-place)
I0403 15:27:24.459200 11975 net.cpp:141] Setting up inception_5a/relu_5x5
I0403 15:27:24.459226 11975 net.cpp:148] Top shape: 24 128 7 7 (150528)
I0403 15:27:24.459242 11975 net.cpp:156] Memory required for data: 1300555296
I0403 15:27:24.459259 11975 layer_factory.hpp:77] Creating layer inception_5a/pool
I0403 15:27:24.459276 11975 net.cpp:91] Creating Layer inception_5a/pool
I0403 15:27:24.459293 11975 net.cpp:425] inception_5a/pool <- pool4/3x3_s2_pool4/3x3_s2_0_split_3
I0403 15:27:24.459311 11975 net.cpp:399] inception_5a/pool -> inception_5a/pool
I0403 15:27:24.459379 11975 net.cpp:141] Setting up inception_5a/pool
I0403 15:27:24.459403 11975 net.cpp:148] Top shape: 24 832 7 7 (978432)
I0403 15:27:24.459421 11975 net.cpp:156] Memory required for data: 1304469024
I0403 15:27:24.459435 11975 layer_factory.hpp:77] Creating layer inception_5a/pool_proj
I0403 15:27:24.459456 11975 net.cpp:91] Creating Layer inception_5a/pool_proj
I0403 15:27:24.459473 11975 net.cpp:425] inception_5a/pool_proj <- inception_5a/pool
I0403 15:27:24.459493 11975 net.cpp:399] inception_5a/pool_proj -> inception_5a/pool_proj
I0403 15:27:24.461809 11975 net.cpp:141] Setting up inception_5a/pool_proj
I0403 15:27:24.461840 11975 net.cpp:148] Top shape: 24 128 7 7 (150528)
I0403 15:27:24.461856 11975 net.cpp:156] Memory required for data: 1305071136
I0403 15:27:24.461874 11975 layer_factory.hpp:77] Creating layer inception_5a/relu_pool_proj
I0403 15:27:24.461891 11975 net.cpp:91] Creating Layer inception_5a/relu_pool_proj
I0403 15:27:24.461906 11975 net.cpp:425] inception_5a/relu_pool_proj <- inception_5a/pool_proj
I0403 15:27:24.461925 11975 net.cpp:386] inception_5a/relu_pool_proj -> inception_5a/pool_proj (in-place)
I0403 15:27:24.462214 11975 net.cpp:141] Setting up inception_5a/relu_pool_proj
I0403 15:27:24.462241 11975 net.cpp:148] Top shape: 24 128 7 7 (150528)
I0403 15:27:24.462256 11975 net.cpp:156] Memory required for data: 1305673248
I0403 15:27:24.462271 11975 layer_factory.hpp:77] Creating layer inception_5a/output
I0403 15:27:24.462287 11975 net.cpp:91] Creating Layer inception_5a/output
I0403 15:27:24.462302 11975 net.cpp:425] inception_5a/output <- inception_5a/1x1
I0403 15:27:24.462318 11975 net.cpp:425] inception_5a/output <- inception_5a/3x3
I0403 15:27:24.462333 11975 net.cpp:425] inception_5a/output <- inception_5a/5x5
I0403 15:27:24.462348 11975 net.cpp:425] inception_5a/output <- inception_5a/pool_proj
I0403 15:27:24.462368 11975 net.cpp:399] inception_5a/output -> inception_5a/output
I0403 15:27:24.462419 11975 net.cpp:141] Setting up inception_5a/output
I0403 15:27:24.462442 11975 net.cpp:148] Top shape: 24 832 7 7 (978432)
I0403 15:27:24.462456 11975 net.cpp:156] Memory required for data: 1309586976
I0403 15:27:24.462471 11975 layer_factory.hpp:77] Creating layer inception_5a/output_inception_5a/output_0_split
I0403 15:27:24.462493 11975 net.cpp:91] Creating Layer inception_5a/output_inception_5a/output_0_split
I0403 15:27:24.462508 11975 net.cpp:425] inception_5a/output_inception_5a/output_0_split <- inception_5a/output
I0403 15:27:24.462525 11975 net.cpp:399] inception_5a/output_inception_5a/output_0_split -> inception_5a/output_inception_5a/output_0_split_0
I0403 15:27:24.462545 11975 net.cpp:399] inception_5a/output_inception_5a/output_0_split -> inception_5a/output_inception_5a/output_0_split_1
I0403 15:27:24.462568 11975 net.cpp:399] inception_5a/output_inception_5a/output_0_split -> inception_5a/output_inception_5a/output_0_split_2
I0403 15:27:24.462589 11975 net.cpp:399] inception_5a/output_inception_5a/output_0_split -> inception_5a/output_inception_5a/output_0_split_3
I0403 15:27:24.462697 11975 net.cpp:141] Setting up inception_5a/output_inception_5a/output_0_split
I0403 15:27:24.462720 11975 net.cpp:148] Top shape: 24 832 7 7 (978432)
I0403 15:27:24.462735 11975 net.cpp:148] Top shape: 24 832 7 7 (978432)
I0403 15:27:24.462750 11975 net.cpp:148] Top shape: 24 832 7 7 (978432)
I0403 15:27:24.462764 11975 net.cpp:148] Top shape: 24 832 7 7 (978432)
I0403 15:27:24.462777 11975 net.cpp:156] Memory required for data: 1325241888
I0403 15:27:24.462791 11975 layer_factory.hpp:77] Creating layer inception_5b/1x1
I0403 15:27:24.462812 11975 net.cpp:91] Creating Layer inception_5b/1x1
I0403 15:27:24.462828 11975 net.cpp:425] inception_5b/1x1 <- inception_5a/output_inception_5a/output_0_split_0
I0403 15:27:24.462849 11975 net.cpp:399] inception_5b/1x1 -> inception_5b/1x1
I0403 15:27:24.466529 11975 net.cpp:141] Setting up inception_5b/1x1
I0403 15:27:24.466562 11975 net.cpp:148] Top shape: 24 384 7 7 (451584)
I0403 15:27:24.466580 11975 net.cpp:156] Memory required for data: 1327048224
I0403 15:27:24.466598 11975 layer_factory.hpp:77] Creating layer inception_5b/relu_1x1
I0403 15:27:24.466616 11975 net.cpp:91] Creating Layer inception_5b/relu_1x1
I0403 15:27:24.466632 11975 net.cpp:425] inception_5b/relu_1x1 <- inception_5b/1x1
I0403 15:27:24.466650 11975 net.cpp:386] inception_5b/relu_1x1 -> inception_5b/1x1 (in-place)
I0403 15:27:24.466949 11975 net.cpp:141] Setting up inception_5b/relu_1x1
I0403 15:27:24.466977 11975 net.cpp:148] Top shape: 24 384 7 7 (451584)
I0403 15:27:24.466992 11975 net.cpp:156] Memory required for data: 1328854560
I0403 15:27:24.467006 11975 layer_factory.hpp:77] Creating layer inception_5b/3x3_reduce
I0403 15:27:24.467027 11975 net.cpp:91] Creating Layer inception_5b/3x3_reduce
I0403 15:27:24.467046 11975 net.cpp:425] inception_5b/3x3_reduce <- inception_5a/output_inception_5a/output_0_split_1
I0403 15:27:24.467063 11975 net.cpp:399] inception_5b/3x3_reduce -> inception_5b/3x3_reduce
I0403 15:27:24.469673 11975 net.cpp:141] Setting up inception_5b/3x3_reduce
I0403 15:27:24.469705 11975 net.cpp:148] Top shape: 24 192 7 7 (225792)
I0403 15:27:24.469722 11975 net.cpp:156] Memory required for data: 1329757728
I0403 15:27:24.469740 11975 layer_factory.hpp:77] Creating layer inception_5b/relu_3x3_reduce
I0403 15:27:24.469758 11975 net.cpp:91] Creating Layer inception_5b/relu_3x3_reduce
I0403 15:27:24.469772 11975 net.cpp:425] inception_5b/relu_3x3_reduce <- inception_5b/3x3_reduce
I0403 15:27:24.469792 11975 net.cpp:386] inception_5b/relu_3x3_reduce -> inception_5b/3x3_reduce (in-place)
I0403 15:27:24.469979 11975 net.cpp:141] Setting up inception_5b/relu_3x3_reduce
I0403 15:27:24.470002 11975 net.cpp:148] Top shape: 24 192 7 7 (225792)
I0403 15:27:24.470016 11975 net.cpp:156] Memory required for data: 1330660896
I0403 15:27:24.470029 11975 layer_factory.hpp:77] Creating layer inception_5b/3x3
I0403 15:27:24.470051 11975 net.cpp:91] Creating Layer inception_5b/3x3
I0403 15:27:24.470067 11975 net.cpp:425] inception_5b/3x3 <- inception_5b/3x3_reduce
I0403 15:27:24.470088 11975 net.cpp:399] inception_5b/3x3 -> inception_5b/3x3
I0403 15:27:24.476794 11975 net.cpp:141] Setting up inception_5b/3x3
I0403 15:27:24.476827 11975 net.cpp:148] Top shape: 24 384 7 7 (451584)
I0403 15:27:24.476845 11975 net.cpp:156] Memory required for data: 1332467232
I0403 15:27:24.476862 11975 layer_factory.hpp:77] Creating layer inception_5b/relu_3x3
I0403 15:27:24.476881 11975 net.cpp:91] Creating Layer inception_5b/relu_3x3
I0403 15:27:24.476898 11975 net.cpp:425] inception_5b/relu_3x3 <- inception_5b/3x3
I0403 15:27:24.476918 11975 net.cpp:386] inception_5b/relu_3x3 -> inception_5b/3x3 (in-place)
I0403 15:27:24.477223 11975 net.cpp:141] Setting up inception_5b/relu_3x3
I0403 15:27:24.477252 11975 net.cpp:148] Top shape: 24 384 7 7 (451584)
I0403 15:27:24.477268 11975 net.cpp:156] Memory required for data: 1334273568
I0403 15:27:24.477284 11975 layer_factory.hpp:77] Creating layer inception_5b/5x5_reduce
I0403 15:27:24.477324 11975 net.cpp:91] Creating Layer inception_5b/5x5_reduce
I0403 15:27:24.477342 11975 net.cpp:425] inception_5b/5x5_reduce <- inception_5a/output_inception_5a/output_0_split_2
I0403 15:27:24.477361 11975 net.cpp:399] inception_5b/5x5_reduce -> inception_5b/5x5_reduce
I0403 15:27:24.478660 11975 net.cpp:141] Setting up inception_5b/5x5_reduce
I0403 15:27:24.478689 11975 net.cpp:148] Top shape: 24 48 7 7 (56448)
I0403 15:27:24.478705 11975 net.cpp:156] Memory required for data: 1334499360
I0403 15:27:24.478724 11975 layer_factory.hpp:77] Creating layer inception_5b/relu_5x5_reduce
I0403 15:27:24.478742 11975 net.cpp:91] Creating Layer inception_5b/relu_5x5_reduce
I0403 15:27:24.478760 11975 net.cpp:425] inception_5b/relu_5x5_reduce <- inception_5b/5x5_reduce
I0403 15:27:24.478780 11975 net.cpp:386] inception_5b/relu_5x5_reduce -> inception_5b/5x5_reduce (in-place)
I0403 15:27:24.479156 11975 net.cpp:141] Setting up inception_5b/relu_5x5_reduce
I0403 15:27:24.479183 11975 net.cpp:148] Top shape: 24 48 7 7 (56448)
I0403 15:27:24.479198 11975 net.cpp:156] Memory required for data: 1334725152
I0403 15:27:24.479212 11975 layer_factory.hpp:77] Creating layer inception_5b/5x5
I0403 15:27:24.479233 11975 net.cpp:91] Creating Layer inception_5b/5x5
I0403 15:27:24.479249 11975 net.cpp:425] inception_5b/5x5 <- inception_5b/5x5_reduce
I0403 15:27:24.479269 11975 net.cpp:399] inception_5b/5x5 -> inception_5b/5x5
I0403 15:27:24.481345 11975 net.cpp:141] Setting up inception_5b/5x5
I0403 15:27:24.481374 11975 net.cpp:148] Top shape: 24 128 7 7 (150528)
I0403 15:27:24.481390 11975 net.cpp:156] Memory required for data: 1335327264
I0403 15:27:24.481408 11975 layer_factory.hpp:77] Creating layer inception_5b/relu_5x5
I0403 15:27:24.481433 11975 net.cpp:91] Creating Layer inception_5b/relu_5x5
I0403 15:27:24.481451 11975 net.cpp:425] inception_5b/relu_5x5 <- inception_5b/5x5
I0403 15:27:24.481468 11975 net.cpp:386] inception_5b/relu_5x5 -> inception_5b/5x5 (in-place)
I0403 15:27:24.481664 11975 net.cpp:141] Setting up inception_5b/relu_5x5
I0403 15:27:24.481689 11975 net.cpp:148] Top shape: 24 128 7 7 (150528)
I0403 15:27:24.481704 11975 net.cpp:156] Memory required for data: 1335929376
I0403 15:27:24.481719 11975 layer_factory.hpp:77] Creating layer inception_5b/pool
I0403 15:27:24.481739 11975 net.cpp:91] Creating Layer inception_5b/pool
I0403 15:27:24.481755 11975 net.cpp:425] inception_5b/pool <- inception_5a/output_inception_5a/output_0_split_3
I0403 15:27:24.481773 11975 net.cpp:399] inception_5b/pool -> inception_5b/pool
I0403 15:27:24.481849 11975 net.cpp:141] Setting up inception_5b/pool
I0403 15:27:24.481873 11975 net.cpp:148] Top shape: 24 832 7 7 (978432)
I0403 15:27:24.481886 11975 net.cpp:156] Memory required for data: 1339843104
I0403 15:27:24.481901 11975 layer_factory.hpp:77] Creating layer inception_5b/pool_proj
I0403 15:27:24.481923 11975 net.cpp:91] Creating Layer inception_5b/pool_proj
I0403 15:27:24.481940 11975 net.cpp:425] inception_5b/pool_proj <- inception_5b/pool
I0403 15:27:24.481961 11975 net.cpp:399] inception_5b/pool_proj -> inception_5b/pool_proj
I0403 15:27:24.484282 11975 net.cpp:141] Setting up inception_5b/pool_proj
I0403 15:27:24.484313 11975 net.cpp:148] Top shape: 24 128 7 7 (150528)
I0403 15:27:24.484330 11975 net.cpp:156] Memory required for data: 1340445216
I0403 15:27:24.484349 11975 layer_factory.hpp:77] Creating layer inception_5b/relu_pool_proj
I0403 15:27:24.484367 11975 net.cpp:91] Creating Layer inception_5b/relu_pool_proj
I0403 15:27:24.484385 11975 net.cpp:425] inception_5b/relu_pool_proj <- inception_5b/pool_proj
I0403 15:27:24.484405 11975 net.cpp:386] inception_5b/relu_pool_proj -> inception_5b/pool_proj (in-place)
I0403 15:27:24.484709 11975 net.cpp:141] Setting up inception_5b/relu_pool_proj
I0403 15:27:24.484736 11975 net.cpp:148] Top shape: 24 128 7 7 (150528)
I0403 15:27:24.484750 11975 net.cpp:156] Memory required for data: 1341047328
I0403 15:27:24.484765 11975 layer_factory.hpp:77] Creating layer inception_5b/output
I0403 15:27:24.484782 11975 net.cpp:91] Creating Layer inception_5b/output
I0403 15:27:24.484813 11975 net.cpp:425] inception_5b/output <- inception_5b/1x1
I0403 15:27:24.484832 11975 net.cpp:425] inception_5b/output <- inception_5b/3x3
I0403 15:27:24.484848 11975 net.cpp:425] inception_5b/output <- inception_5b/5x5
I0403 15:27:24.484864 11975 net.cpp:425] inception_5b/output <- inception_5b/pool_proj
I0403 15:27:24.484884 11975 net.cpp:399] inception_5b/output -> inception_5b/output
I0403 15:27:24.484937 11975 net.cpp:141] Setting up inception_5b/output
I0403 15:27:24.484966 11975 net.cpp:148] Top shape: 24 1024 7 7 (1204224)
I0403 15:27:24.484982 11975 net.cpp:156] Memory required for data: 1345864224
I0403 15:27:24.484995 11975 layer_factory.hpp:77] Creating layer pool5/7x7_s1
I0403 15:27:24.485013 11975 net.cpp:91] Creating Layer pool5/7x7_s1
I0403 15:27:24.485028 11975 net.cpp:425] pool5/7x7_s1 <- inception_5b/output
I0403 15:27:24.485046 11975 net.cpp:399] pool5/7x7_s1 -> pool5/7x7_s1
I0403 15:27:24.485265 11975 net.cpp:141] Setting up pool5/7x7_s1
I0403 15:27:24.485291 11975 net.cpp:148] Top shape: 24 1024 1 1 (24576)
I0403 15:27:24.485304 11975 net.cpp:156] Memory required for data: 1345962528
I0403 15:27:24.485318 11975 layer_factory.hpp:77] Creating layer pool5/drop_7x7_s1
I0403 15:27:24.485335 11975 net.cpp:91] Creating Layer pool5/drop_7x7_s1
I0403 15:27:24.485350 11975 net.cpp:425] pool5/drop_7x7_s1 <- pool5/7x7_s1
I0403 15:27:24.485370 11975 net.cpp:386] pool5/drop_7x7_s1 -> pool5/7x7_s1 (in-place)
I0403 15:27:24.485426 11975 net.cpp:141] Setting up pool5/drop_7x7_s1
I0403 15:27:24.485452 11975 net.cpp:148] Top shape: 24 1024 1 1 (24576)
I0403 15:27:24.485467 11975 net.cpp:156] Memory required for data: 1346060832
I0403 15:27:24.485481 11975 layer_factory.hpp:77] Creating layer loss3/classifier_plantvillage
I0403 15:27:24.485501 11975 net.cpp:91] Creating Layer loss3/classifier_plantvillage
I0403 15:27:24.485517 11975 net.cpp:425] loss3/classifier_plantvillage <- pool5/7x7_s1
I0403 15:27:24.485538 11975 net.cpp:399] loss3/classifier_plantvillage -> loss3/classifier_plantvillage
I0403 15:27:24.485968 11975 net.cpp:141] Setting up loss3/classifier_plantvillage
I0403 15:27:24.485992 11975 net.cpp:148] Top shape: 24 38 (912)
I0403 15:27:24.486006 11975 net.cpp:156] Memory required for data: 1346064480
I0403 15:27:24.486024 11975 layer_factory.hpp:77] Creating layer loss3/classifier_plantvillage_loss3/classifier_plantvillage_0_split
I0403 15:27:24.486045 11975 net.cpp:91] Creating Layer loss3/classifier_plantvillage_loss3/classifier_plantvillage_0_split
I0403 15:27:24.486063 11975 net.cpp:425] loss3/classifier_plantvillage_loss3/classifier_plantvillage_0_split <- loss3/classifier_plantvillage
I0403 15:27:24.486080 11975 net.cpp:399] loss3/classifier_plantvillage_loss3/classifier_plantvillage_0_split -> loss3/classifier_plantvillage_loss3/classifier_plantvillage_0_split_0
I0403 15:27:24.486099 11975 net.cpp:399] loss3/classifier_plantvillage_loss3/classifier_plantvillage_0_split -> loss3/classifier_plantvillage_loss3/classifier_plantvillage_0_split_1
I0403 15:27:24.486122 11975 net.cpp:399] loss3/classifier_plantvillage_loss3/classifier_plantvillage_0_split -> loss3/classifier_plantvillage_loss3/classifier_plantvillage_0_split_2
I0403 15:27:24.486143 11975 net.cpp:399] loss3/classifier_plantvillage_loss3/classifier_plantvillage_0_split -> loss3/classifier_plantvillage_loss3/classifier_plantvillage_0_split_3
I0403 15:27:24.486245 11975 net.cpp:141] Setting up loss3/classifier_plantvillage_loss3/classifier_plantvillage_0_split
I0403 15:27:24.486269 11975 net.cpp:148] Top shape: 24 38 (912)
I0403 15:27:24.486285 11975 net.cpp:148] Top shape: 24 38 (912)
I0403 15:27:24.486300 11975 net.cpp:148] Top shape: 24 38 (912)
I0403 15:27:24.486315 11975 net.cpp:148] Top shape: 24 38 (912)
I0403 15:27:24.486328 11975 net.cpp:156] Memory required for data: 1346079072
I0403 15:27:24.486342 11975 layer_factory.hpp:77] Creating layer loss1/loss
I0403 15:27:24.486363 11975 net.cpp:91] Creating Layer loss1/loss
I0403 15:27:24.486382 11975 net.cpp:425] loss1/loss <- loss1/classifier_plantvillage_loss1/classifier_plantvillage_0_split_0
I0403 15:27:24.486414 11975 net.cpp:425] loss1/loss <- label_data_1_split_0
…
