…
I0403 15:20:28.751616 11857 net.cpp:313] The NetState phase (1) differed from the phase (0) specified by a rule in layer data
I0403 15:20:28.752756 11857 net.cpp:49] Initializing net from parameters: 
state {
  phase: TEST
}
layer {
  name: "data"
  type: "Data"
  top: "data"
  top: "label"
  include {
    phase: TEST
  }
  transform_param {
    mirror: false
    crop_size: 224
    mean_file: "/home/mohanty/data/final_dataset/lmdb/segmented-50-50/mean.binaryproto"
  }
  data_param {
    source: "/home/mohanty/data/final_dataset/lmdb/segmented-50-50/test_db"
    batch_size: 24
    backend: LMDB
  }
}
layer {
  name: "conv1/7x7_s2"
  type: "Convolution"
  bottom: "data"
  top: "conv1/7x7_s2"
  param {
    lr_mult: 1
    decay_mult: 1
  }
  param {
    lr_mult: 2
    decay_mult: 0
  }
  convolution_param {
    num_output: 64
    pad: 3
    kernel_size: 7
    stride: 2
    weight_filler {
      type: "xavier"
      std: 0.1
    }
    bias_filler {
      type: "constant"
      value: 0.2
    }
  }
}
layer {
  name: "conv1/relu_7x7"
  type: "ReLU"
  bottom: "conv1/7x7_s2"
  top: "conv1/7x7_s2"
}
layer {
  name: "pool1/3x3_s2"
  type: "Pooling"
  bottom: "conv1/7x7_s2"
  top: "pool1/3x3_s2"
  pooling_param {
    pool: MAX
    kernel_size: 3
    stride: 2
  }
}
layer {
  name: "pool1/norm1"
  type: "LRN"
  bottom: "pool1/3x3_s2"
  top: "pool1/norm1"
  lrn_param {
    local_size: 5
    alpha: 0.0001
    beta: 0.75
  }
}
layer {
  name: "conv2/3x3_reduce"
  type: "Convolution"
  bottom: "pool1/norm1"
  top: "conv2/3x3_reduce"
  param {
    lr_mult: 1
    decay_mult: 1
  }
  param {
    lr_mult: 2
    decay_mult: 0
  }
  convolution_param {
    num_output: 64
    kernel_size: 1
    weight_filler {
      type: "xavier"
      std: 0.1
    }
    bias_filler {
      type: "constant"
      value: 0.2
    }
  }
}
layer {
  name: "conv2/relu_3x3_reduce"
  type: "ReLU"
  bottom: "conv2/3x3_reduce"
  top: "conv2/3x3_reduce"
}
layer {
  name: "conv2/3x3"
  type: "Convolution"
  bottom: "conv2/3x3_reduce"
  top: "conv2/3x3"
  param {
    lr_mult: 1
    decay_mult: 1
  }
  param {
    lr_mult: 2
    decay_mult: 0
  }
  convolution_param {
    num_output: 192
    pad: 1
    kernel_size: 3
    weight_filler {
      type: "xavier"
      std: 0.03
    }
    bias_filler {
      type: "constant"
      value: 0.2
    }
  }
}
layer {
  name: "conv2/relu_3x3"
  type: "ReLU"
  bottom: "conv2/3x3"
  top: "conv2/3x3"
}
layer {
  name: "conv2/norm2"
  type: "LRN"
  bottom: "conv2/3x3"
  top: "conv2/norm2"
  lrn_param {
    local_size: 5
    alpha: 0.0001
    beta: 0.75
  }
}
layer {
  name: "pool2/3x3_s2"
  type: "Pooling"
  bottom: "conv2/norm2"
  top: "pool2/3x3_s2"
  pooling_param {
    pool: MAX
    kernel_size: 3
    stride: 2
  }
}
layer {
  name: "inception_3a/1x1"
  type: "Convolution"
  bottom: "pool2/3x3_s2"
  top: "inception_3a/1x1"
  param {
    lr_mult: 1
    decay_mult: 1
  }
  param {
    lr_mult: 2
    decay_mult: 0
  }
  convolution_param {
    num_output: 64
    kernel_size: 1
    weight_filler {
      type: "xavier"
      std: 0.03
    }
    bias_filler {
      type: "constant"
      value: 0.2
    }
  }
}
layer {
  name: "inception_3a/relu_1x1"
  type: "ReLU"
  bottom: "inception_3a/1x1"
  top: "inception_3a/1x1"
}
layer {
  name: "inception_3a/3x3_reduce"
  type: "Convolution"
  bottom: "pool2/3x3_s2"
  top: "inception_3a/3x3_reduce"
  param {
    lr_mult: 1
    decay_mult: 1
  }
  param {
    lr_mult: 2
    decay_mult: 0
  }
  convolution_param {
    num_output: 96
    kernel_size: 1
    weight_filler {
      type: "xavier"
      std: 0.09
    }
    bias_filler {
      type: "constant"
      value: 0.2
    }
  }
}
layer {
  name: "inception_3a/relu_3x3_reduce"
  type: "ReLU"
  bottom: "inception_3a/3x3_reduce"
  top: "inception_3a/3x3_reduce"
}
layer {
  name: "inception_3a/3x3"
  type: "Convolution"
  bottom: "inception_3a/3x3_reduce"
  top: "inception_3a/3x3"
  param {
    lr_mult: 1
    decay_mult: 1
  }
  param {
    lr_mult: 2
    decay_mult: 0
  }
  convolution_param {
    num_output: 128
    pad: 1
    kernel_size: 3
    weight_filler {
      type: "xavier"
      std: 0.03
    }
    bias_filler {
      type: "constant"
      value: 0.2
    }
  }
}
layer {
  name: "inception_3a/relu_3x3"
  type: "ReLU"
  bottom: "inception_3a/3x3"
  top: "inception_3a/3x3"
}
layer {
  name: "inception_3a/5x5_reduce"
  type: "Convolution"
  bottom: "pool2/3x3_s2"
  top: "inception_3a/5x5_reduce"
  param {
    lr_mult: 1
    decay_mult: 1
  }
  param {
    lr_mult: 2
    decay_mult: 0
  }
  convolution_param {
    num_output: 16
    kernel_size: 1
    weight_filler {
      type: "xavier"
      std: 0.2
    }
    bias_filler {
      type: "constant"
      value: 0.2
    }
  }
}
layer {
  name: "inception_3a/relu_5x5_reduce"
  type: "ReLU"
  bottom: "inception_3a/5x5_reduce"
  top: "inception_3a/5x5_reduce"
}
layer {
  name: "inception_3a/5x5"
  type: "Convolution"
  bottom: "inception_3a/5x5_reduce"
  top: "inception_3a/5x5"
  param {
    lr_mult: 1
    decay_mult: 1
  }
  param {
    lr_mult: 2
    decay_mult: 0
  }
  convolution_param {
    num_output: 32
    pad: 2
    kernel_size: 5
    weight_filler {
      type: "xavier"
      std: 0.03
    }
    bias_filler {
      type: "constant"
      value: 0.2
    }
  }
}
layer {
  name: "inception_3a/relu_5x5"
  type: "ReLU"
  bottom: "inception_3a/5x5"
  top: "inception_3a/5x5"
}
layer {
  name: "inception_3a/pool"
  type: "Pooling"
  bottom: "pool2/3x3_s2"
  top: "inception_3a/pool"
  pooling_param {
    pool: MAX
    kernel_size: 3
    stride: 1
    pad: 1
  }
}
layer {
  name: "inception_3a/pool_proj"
  type: "Convolution"
  bottom: "inception_3a/pool"
  top: "inception_3a/pool_proj"
  param {
    lr_mult: 1
    decay_mult: 1
  }
  param {
    lr_mult: 2
    decay_mult: 0
  }
  convolution_param {
    num_output: 32
    kernel_size: 1
    weight_filler {
      type: "xavier"
      std: 0.1
    }
    bias_filler {
      type: "constant"
      value: 0.2
    }
  }
}
layer {
  name: "inception_3a/relu_pool_proj"
  type: "ReLU"
  bottom: "inception_3a/pool_proj"
  top: "inception_3a/pool_proj"
}
layer {
  name: "inception_3a/output"
  type: "Concat"
  bottom: "inception_3a/1x1"
  bottom: "inception_3a/3x3"
  bottom: "inception_3a/5x5"
  bottom: "inception_3a/pool_proj"
  top: "inception_3a/output"
}
layer {
  name: "inception_3b/1x1"
  type: "Convolution"
  bottom: "inception_3a/output"
  top: "inception_3b/1x1"
  param {
    lr_mult: 1
    decay_mult: 1
  }
  param {
    lr_mult: 2
    decay_mult: 0
  }
  convolution_param {
    num_output: 128
    kernel_size: 1
    weight_filler {
      type: "xavier"
      std: 0.03
    }
    bias_filler {
      type: "constant"
      value: 0.2
    }
  }
}
layer {
  name: "inception_3b/relu_1x1"
  type: "ReLU"
  bottom: "inception_3b/1x1"
  top: "inception_3b/1x1"
}
layer {
  name: "inception_3b/3x3_reduce"
  type: "Convolution"
  bottom: "inception_3a/output"
  top: "inception_3b/3x3_reduce"
  param {
    lr_mult: 1
    decay_mult: 1
  }
  param {
    lr_mult: 2
    decay_mult: 0
  }
  convolution_param {
    num_output: 128
    kernel_size: 1
    weight_filler {
      type: "xavier"
      std: 0.09
    }
    bias_filler {
      type: "constant"
      value: 0.2
    }
  }
}
layer {
  name: "inception_3b/relu_3x3_reduce"
  type: "ReLU"
  bottom: "inception_3b/3x3_reduce"
  top: "inception_3b/3x3_reduce"
}
layer {
  name: "inception_3b/3x3"
  type: "Convolution"
  bottom: "inception_3b/3x3_reduce"
  top: "inception_3b/3x3"
  param {
    lr_mult: 1
    decay_mult: 1
  }
  param {
    lr_mult: 2
    decay_mult: 0
  }
  convolution_param {
    num_output: 192
    pad: 1
    kernel_size: 3
    weight_filler {
      type: "xavier"
      std: 0.03
    }
    bias_filler {
      type: "constant"
      value: 0.2
    }
  }
}
layer {
  name: "inception_3b/relu_3x3"
  type: "ReLU"
  bottom: "inception_3b/3x3"
  top: "inception_3b/3x3"
}
layer {
  name: "inception_3b/5x5_reduce"
  type: "Convolution"
  bottom: "inception_3a/output"
  top: "inception_3b/5x5_reduce"
  param {
    lr_mult: 1
    decay_mult: 1
  }
  param {
    lr_mult: 2
    decay_mult: 0
  }
  convolution_param {
    num_output: 32
    kernel_size: 1
    weight_filler {
      type: "xavier"
      std: 0.2
    }
    bias_filler {
      type: "constant"
      value: 0.2
    }
  }
}
layer {
  name: "inception_3b/relu_5x5_reduce"
  type: "ReLU"
  bottom: "inception_3b/5x5_reduce"
  top: "inception_3b/5x5_reduce"
}
layer {
  name: "inception_3b/5x5"
  type: "Convolution"
  bottom: "inception_3b/5x5_reduce"
  top: "inception_3b/5x5"
  param {
    lr_mult: 1
    decay_mult: 1
  }
  param {
    lr_mult: 2
    decay_mult: 0
  }
  convolution_param {
    num_output: 96
    pad: 2
    kernel_size: 5
    weight_filler {
      type: "xavier"
      std: 0.03
    }
    bias_filler {
      type: "constant"
      value: 0.2
    }
  }
}
layer {
  name: "inception_3b/relu_5x5"
  type: "ReLU"
  bottom: "inception_3b/5x5"
  top: "inception_3b/5x5"
}
layer {
  name: "inception_3b/pool"
  type: "Pooling"
  bottom: "inception_3a/output"
  top: "inception_3b/pool"
  pooling_param {
    pool: MAX
    kernel_size: 3
    stride: 1
    pad: 1
  }
}
layer {
  name: "inception_3b/pool_proj"
  type: "Convolution"
  bottom: "inception_3b/pool"
  top: "inception_3b/pool_proj"
  param {
    lr_mult: 1
    decay_mult: 1
  }
  param {
    lr_mult: 2
    decay_mult: 0
  }
  convolution_param {
    num_output: 64
    kernel_size: 1
    weight_filler {
      type: "xavier"
      std: 0.1
    }
    bias_filler {
      type: "constant"
      value: 0.2
    }
  }
}
layer {
  name: "inception_3b/relu_pool_proj"
  type: "ReLU"
  bottom: "inception_3b/pool_proj"
  top: "inception_3b/pool_proj"
}
layer {
  name: "inception_3b/output"
  type: "Concat"
  bottom: "inception_3b/1x1"
  bottom: "inception_3b/3x3"
  bottom: "inception_3b/5x5"
  bottom: "inception_3b/pool_proj"
  top: "inception_3b/output"
}
layer {
  name: "pool3/3x3_s2"
  type: "Pooling"
  bottom: "inception_3b/output"
  top: "pool3/3x3_s2"
  pooling_param {
    pool: MAX
    kernel_size: 3
    stride: 2
  }
}
layer {
  name: "inception_4a/1x1"
  type: "Convolution"
  bottom: "pool3/3x3_s2"
  top: "inception_4a/1x1"
  param {
    lr_mult: 1
    decay_mult: 1
  }
  param {
    lr_mult: 2
    decay_mult: 0
  }
  convolution_param {
    num_output: 192
    kernel_size: 1
    weight_filler {
      type: "xavier"
      std: 0.03
    }
    bias_filler {
      type: "constant"
      value: 0.2
    }
  }
}
layer {
  name: "inception_4a/relu_1x1"
  type: "ReLU"
  bottom: "inception_4a/1x1"
  top: "inception_4a/1x1"
}
layer {
  name: "inception_4a/3x3_reduce"
  type: "Convolution"
  bottom: "pool3/3x3_s2"
  top: "inception_4a/3x3_reduce"
  param {
    lr_mult: 1
    decay_mult: 1
  }
  param {
    lr_mult: 2
    decay_mult: 0
  }
  convolution_param {
    num_output: 96
    kernel_size: 1
    weight_filler {
      type: "xavier"
      std: 0.09
    }
    bias_filler {
      type: "constant"
      value: 0.2
    }
  }
}
layer {
  name: "inception_4a/relu_3x3_reduce"
  type: "ReLU"
  bottom: "inception_4a/3x3_reduce"
  top: "inception_4a/3x3_reduce"
}
layer {
  name: "inception_4a/3x3"
  type: "Convolution"
  bottom: "inception_4a/3x3_reduce"
  top: "inception_4a/3x3"
  param {
    lr_mult: 1
    decay_mult: 1
  }
  param {
    lr_mult: 2
    decay_mult: 0
  }
  convolution_param {
    num_output: 208
    pad: 1
    kernel_size: 3
    weight_filler {
      type: "xavier"
      std: 0.03
    }
    bias_filler {
      type: "constant"
      value: 0.2
    }
  }
}
layer {
  name: "inception_4a/relu_3x3"
  type: "ReLU"
  bottom: "inception_4a/3x3"
  top: "inception_4a/3x3"
}
layer {
  name: "inception_4a/5x5_reduce"
  type: "Convolution"
  bottom: "pool3/3x3_s2"
  top: "inception_4a/5x5_reduce"
  param {
    lr_mult: 1
    decay_mult: 1
  }
  param {
    lr_mult: 2
    decay_mult: 0
  }
  convolution_param {
    num_output: 16
    kernel_size: 1
    weight_filler {
      type: "xavier"
      std: 0.2
    }
    bias_filler {
      type: "constant"
      value: 0.2
    }
  }
}
layer {
  name: "inception_4a/relu_5x5_reduce"
  type: "ReLU"
  bottom: "inception_4a/5x5_reduce"
  top: "inception_4a/5x5_reduce"
}
layer {
  name: "inception_4a/5x5"
  type: "Convolution"
  bottom: "inception_4a/5x5_reduce"
  top: "inception_4a/5x5"
  param {
    lr_mult: 1
    decay_mult: 1
  }
  param {
    lr_mult: 2
    decay_mult: 0
  }
  convolution_param {
    num_output: 48
    pad: 2
    kernel_size: 5
    weight_filler {
      type: "xavier"
      std: 0.03
    }
    bias_filler {
      type: "constant"
      value: 0.2
    }
  }
}
layer {
  name: "inception_4a/relu_5x5"
  type: "ReLU"
  bottom: "inception_4a/5x5"
  top: "inception_4a/5x5"
}
layer {
  name: "inception_4a/pool"
  type: "Pooling"
  bottom: "pool3/3x3_s2"
  top: "inception_4a/pool"
  pooling_param {
    pool: MAX
    kernel_size: 3
    stride: 1
    pad: 1
  }
}
layer {
  name: "inception_4a/pool_proj"
  type: "Convolution"
  bottom: "inception_4a/pool"
  top: "inception_4a/pool_proj"
  param {
    lr_mult: 1
    decay_mult: 1
  }
  param {
    lr_mult: 2
    decay_mult: 0
  }
  convolution_param {
    num_output: 64
    kernel_size: 1
    weight_filler {
      type: "xavier"
      std: 0.1
    }
    bias_filler {
      type: "constant"
      value: 0.2
    }
  }
}
layer {
  name: "inception_4a/relu_pool_proj"
  type: "ReLU"
  bottom: "inception_4a/pool_proj"
  top: "inception_4a/pool_proj"
}
layer {
  name: "inception_4a/output"
  type: "Concat"
  bottom: "inception_4a/1x1"
  bottom: "inception_4a/3x3"
  bottom: "inception_4a/5x5"
  bottom: "inception_4a/pool_proj"
  top: "inception_4a/output"
}
layer {
  name: "loss1/ave_pool"
  type: "Pooling"
  bottom: "inception_4a/output"
  top: "loss1/ave_pool"
  pooling_param {
    pool: AVE
    kernel_size: 5
    stride: 3
  }
}
layer {
  name: "loss1/conv"
  type: "Convolution"
  bottom: "loss1/ave_pool"
  top: "loss1/conv"
  param {
    lr_mult: 1
    decay_mult: 1
  }
  param {
    lr_mult: 2
    decay_mult: 0
  }
  convolution_param {
    num_output: 128
    kernel_size: 1
    weight_filler {
      type: "xavier"
      std: 0.08
    }
    bias_filler {
      type: "constant"
      value: 0.2
    }
  }
}
layer {
  name: "loss1/relu_conv"
  type: "ReLU"
  bottom: "loss1/conv"
  top: "loss1/conv"
}
layer {
  name: "loss1/fc"
  type: "InnerProduct"
  bottom: "loss1/conv"
  top: "loss1/fc"
  param {
    lr_mult: 1
    decay_mult: 1
  }
  param {
    lr_mult: 2
    decay_mult: 0
  }
  inner_product_param {
    num_output: 1024
    weight_filler {
      type: "xavier"
      std: 0.02
    }
    bias_filler {
      type: "constant"
      value: 0.2
    }
  }
}
layer {
  name: "loss1/relu_fc"
  type: "ReLU"
  bottom: "loss1/fc"
  top: "loss1/fc"
}
layer {
  name: "loss1/drop_fc"
  type: "Dropout"
  bottom: "loss1/fc"
  top: "loss1/fc"
  dropout_param {
    dropout_ratio: 0.7
  }
}
layer {
  name: "loss1/classifier_plantvillage"
  type: "InnerProduct"
  bottom: "loss1/fc"
  top: "loss1/classifier_plantvillage"
  param {
    lr_mult: 1
    decay_mult: 1
  }
  param {
    lr_mult: 2
    decay_mult: 0
  }
  inner_product_param {
    num_output: 38
    weight_filler {
      type: "xavier"
      std: 0.0009765625
    }
    bias_filler {
      type: "constant"
      value: 0
    }
  }
}
layer {
  name: "inception_4b/1x1"
  type: "Convolution"
  bottom: "inception_4a/output"
  top: "inception_4b/1x1"
  param {
    lr_mult: 1
    decay_mult: 1
  }
  param {
    lr_mult: 2
    decay_mult: 0
  }
  convolution_param {
    num_output: 160
    kernel_size: 1
    weight_filler {
      type: "xavier"
      std: 0.03
    }
    bias_filler {
      type: "constant"
      value: 0.2
    }
  }
}
layer {
  name: "inception_4b/relu_1x1"
  type: "ReLU"
  bottom: "inception_4b/1x1"
  top: "inception_4b/1x1"
}
layer {
  name: "inception_4b/3x3_reduce"
  type: "Convolution"
  bottom: "inception_4a/output"
  top: "inception_4b/3x3_reduce"
  param {
    lr_mult: 1
    decay_mult: 1
  }
  param {
    lr_mult: 2
    decay_mult: 0
  }
  convolution_param {
    num_output: 112
    kernel_size: 1
    weight_filler {
      type: "xavier"
      std: 0.09
    }
    bias_filler {
      type: "constant"
      value: 0.2
    }
  }
}
layer {
  name: "inception_4b/relu_3x3_reduce"
  type: "ReLU"
  bottom: "inception_4b/3x3_reduce"
  top: "inception_4b/3x3_reduce"
}
layer {
  name: "inception_4b/3x3"
  type: "Convolution"
  bottom: "inception_4b/3x3_reduce"
  top: "inception_4b/3x3"
  param {
    lr_mult: 1
    decay_mult: 1
  }
  param {
    lr_mult: 2
    decay_mult: 0
  }
  convolution_param {
    num_output: 224
    pad: 1
    kernel_size: 3
    weight_filler {
      type: "xavier"
      std: 0.03
    }
    bias_filler {
      type: "constant"
      value: 0.2
    }
  }
}
layer {
  name: "inception_4b/relu_3x3"
  type: "ReLU"
  bottom: "inception_4b/3x3"
  top: "inception_4b/3x3"
}
layer {
  name: "inception_4b/5x5_reduce"
  type: "Convolution"
  bottom: "inception_4a/output"
  top: "inception_4b/5x5_reduce"
  param {
    lr_mult: 1
    decay_mult: 1
  }
  param {
    lr_mult: 2
    decay_mult: 0
  }
  convolution_param {
    num_output: 24
    kernel_size: 1
    weight_filler {
      type: "xavier"
      std: 0.2
    }
    bias_filler {
      type: "constant"
      value: 0.2
    }
  }
}
layer {
  name: "inception_4b/relu_5x5_reduce"
  type: "ReLU"
  bottom: "inception_4b/5x5_reduce"
  top: "inception_4b/5x5_reduce"
}
layer {
  name: "inception_4b/5x5"
  type: "Convolution"
  bottom: "inception_4b/5x5_reduce"
  top: "inception_4b/5x5"
  param {
    lr_mult: 1
    decay_mult: 1
  }
  param {
    lr_mult: 2
    decay_mult: 0
  }
  convolution_param {
    num_output: 64
    pad: 2
    kernel_size: 5
    weight_filler {
      type: "xavier"
      std: 0.03
    }
    bias_filler {
      type: "constant"
      value: 0.2
    }
  }
}
layer {
  name: "inception_4b/relu_5x5"
  type: "ReLU"
  bottom: "inception_4b/5x5"
  top: "inception_4b/5x5"
}
layer {
  name: "inception_4b/pool"
  type: "Pooling"
  bottom: "inception_4a/output"
  top: "inception_4b/pool"
  pooling_param {
    pool: MAX
    kernel_size: 3
    stride: 1
    pad: 1
  }
}
layer {
  name: "inception_4b/pool_proj"
  type: "Convolution"
  bottom: "inception_4b/pool"
  top: "inception_4b/pool_proj"
  param {
    lr_mult: 1
    decay_mult: 1
  }
  param {
    lr_mult: 2
    decay_mult: 0
  }
  convolution_param {
    num_output: 64
    kernel_size: 1
    weight_filler {
      type: "xavier"
      std: 0.1
    }
    bias_filler {
      type: "constant"
      value: 0.2
    }
  }
}
layer {
  name: "inception_4b/relu_pool_proj"
  type: "ReLU"
  bottom: "inception_4b/pool_proj"
  top: "inception_4b/pool_proj"
}
layer {
  name: "inception_4b/output"
  type: "Concat"
  bottom: "inception_4b/1x1"
  bottom: "inception_4b/3x3"
  bottom: "inception_4b/5x5"
  bottom: "inception_4b/pool_proj"
  top: "inception_4b/output"
}
layer {
  name: "inception_4c/1x1"
  type: "Convolution"
  bottom: "inception_4b/output"
  top: "inception_4c/1x1"
  param {
    lr_mult: 1
    decay_mult: 1
  }
  param {
    lr_mult: 2
    decay_mult: 0
  }
  convolution_param {
    num_output: 128
    kernel_size: 1
    weight_filler {
      type: "xavier"
      std: 0.03
    }
    bias_filler {
      type: "constant"
      value: 0.2
    }
  }
}
layer {
  name: "inception_4c/relu_1x1"
  type: "ReLU"
  bottom: "inception_4c/1x1"
  top: "inception_4c/1x1"
}
layer {
  name: "inception_4c/3x3_reduce"
  type: "Convolution"
  bottom: "inception_4b/output"
  top: "inception_4c/3x3_reduce"
  param {
    lr_mult: 1
    decay_mult: 1
  }
  param {
    lr_mult: 2
    decay_mult: 0
  }
  convolution_param {
    num_output: 128
    kernel_size: 1
    weight_filler {
      type: "xavier"
      std: 0.09
    }
    bias_filler {
      type: "constant"
      value: 0.2
    }
  }
}
layer {
  name: "inception_4c/relu_3x3_reduce"
  type: "ReLU"
  bottom: "inception_4c/3x3_reduce"
  top: "inception_4c/3x3_reduce"
}
layer {
  name: "inception_4c/3x3"
  type: "Convolution"
  bottom: "inception_4c/3x3_reduce"
  top: "inception_4c/3x3"
  param {
    lr_mult: 1
    decay_mult: 1
  }
  param {
    lr_mult: 2
    decay_mult: 0
  }
  convolution_param {
    num_output: 256
    pad: 1
    kernel_size: 3
    weight_filler {
      type: "xavier"
      std: 0.03
    }
    bias_filler {
      type: "constant"
      value: 0.2
    }
  }
}
layer {
  name: "inception_4c/relu_3x3"
  type: "ReLU"
  bottom: "inception_4c/3x3"
  top: "inception_4c/3x3"
}
layer {
  name: "inception_4c/5x5_reduce"
  type: "Convolution"
  bottom: "inception_4b/output"
  top: "inception_4c/5x5_reduce"
  param {
    lr_mult: 1
    decay_mult: 1
  }
  param {
    lr_mult: 2
    decay_mult: 0
  }
  convolution_param {
    num_output: 24
    kernel_size: 1
    weight_filler {
      type: "xavier"
      std: 0.2
    }
    bias_filler {
      type: "constant"
      value: 0.2
    }
  }
}
layer {
  name: "inception_4c/relu_5x5_reduce"
  type: "ReLU"
  bottom: "inception_4c/5x5_reduce"
  top: "inception_4c/5x5_reduce"
}
layer {
  name: "inception_4c/5x5"
  type: "Convolution"
  bottom: "inception_4c/5x5_reduce"
  top: "inception_4c/5x5"
  param {
    lr_mult: 1
    decay_mult: 1
  }
  param {
    lr_mult: 2
    decay_mult: 0
  }
  convolution_param {
    num_output: 64
    pad: 2
    kernel_size: 5
    weight_filler {
      type: "xavier"
      std: 0.03
    }
    bias_filler {
      type: "constant"
      value: 0.2
    }
  }
}
layer {
  name: "inception_4c/relu_5x5"
  type: "ReLU"
  bottom: "inception_4c/5x5"
  top: "inception_4c/5x5"
}
layer {
  name: "inception_4c/pool"
  type: "Pooling"
  bottom: "inception_4b/output"
  top: "inception_4c/pool"
  pooling_param {
    pool: MAX
    kernel_size: 3
    stride: 1
    pad: 1
  }
}
layer {
  name: "inception_4c/pool_proj"
  type: "Convolution"
  bottom: "inception_4c/pool"
  top: "inception_4c/pool_proj"
  param {
    lr_mult: 1
    decay_mult: 1
  }
  param {
    lr_mult: 2
    decay_mult: 0
  }
  convolution_param {
    num_output: 64
    kernel_size: 1
    weight_filler {
      type: "xavier"
      std: 0.1
    }
    bias_filler {
      type: "constant"
      value: 0.2
    }
  }
}
layer {
  name: "inception_4c/relu_pool_proj"
  type: "ReLU"
  bottom: "inception_4c/pool_proj"
  top: "inception_4c/pool_proj"
}
layer {
  name: "inception_4c/output"
  type: "Concat"
  bottom: "inception_4c/1x1"
  bottom: "inception_4c/3x3"
  bottom: "inception_4c/5x5"
  bottom: "inception_4c/pool_proj"
  top: "inception_4c/output"
}
layer {
  name: "inception_4d/1x1"
  type: "Convolution"
  bottom: "inception_4c/output"
  top: "inception_4d/1x1"
  param {
    lr_mult: 1
    decay_mult: 1
  }
  param {
    lr_mult: 2
    decay_mult: 0
  }
  convolution_param {
    num_output: 112
    kernel_size: 1
    weight_filler {
      type: "xavier"
      std: 0.03
    }
    bias_filler {
      type: "constant"
      value: 0.2
    }
  }
}
layer {
  name: "inception_4d/relu_1x1"
  type: "ReLU"
  bottom: "inception_4d/1x1"
  top: "inception_4d/1x1"
}
layer {
  name: "inception_4d/3x3_reduce"
  type: "Convolution"
  bottom: "inception_4c/output"
  top: "inception_4d/3x3_reduce"
  param {
    lr_mult: 1
    decay_mult: 1
  }
  param {
    lr_mult: 2
    decay_mult: 0
  }
  convolution_param {
    num_output: 144
    kernel_size: 1
    weight_filler {
      type: "xavier"
      std: 0.09
    }
    bias_filler {
      type: "constant"
      value: 0.2
    }
  }
}
layer {
  name: "inception_4d/relu_3x3_reduce"
  type: "ReLU"
  bottom: "inception_4d/3x3_reduce"
  top: "inception_4d/3x3_reduce"
}
layer {
  name: "inception_4d/3x3"
  type: "Convolution"
  bottom: "inception_4d/3x3_reduce"
  top: "inception_4d/3x3"
  param {
    lr_mult: 1
    decay_mult: 1
  }
  param {
    lr_mult: 2
    decay_mult: 0
  }
  convolution_param {
    num_output: 288
    pad: 1
    kernel_size: 3
    weight_filler {
      type: "xavier"
      std: 0.03
    }
    bias_filler {
      type: "constant"
      value: 0.2
    }
  }
}
layer {
  name: "inception_4d/relu_3x3"
  type: "ReLU"
  bottom: "inception_4d/3x3"
  top: "inception_4d/3x3"
}
layer {
  name: "inception_4d/5x5_reduce"
  type: "Convolution"
  bottom: "inception_4c/output"
  top: "inception_4d/5x5_reduce"
  param {
    lr_mult: 1
    decay_mult: 1
  }
  param {
    lr_mult: 2
    decay_mult: 0
  }
  convolution_param {
    num_output: 32
    kernel_size: 1
    weight_filler {
      type: "xavier"
      std: 0.2
    }
    bias_filler {
      type: "constant"
      value: 0.2
    }
  }
}
layer {
  name: "inception_4d/relu_5x5_reduce"
  type: "ReLU"
  bottom: "inception_4d/5x5_reduce"
  top: "inception_4d/5x5_reduce"
}
layer {
  name: "inception_4d/5x5"
  type: "Convolution"
  bottom: "inception_4d/5x5_reduce"
  top: "inception_4d/5x5"
  param {
    lr_mult: 1
    decay_mult: 1
  }
  param {
    lr_mult: 2
    decay_mult: 0
  }
  convolution_param {
    num_output: 64
    pad: 2
    kernel_size: 5
    weight_filler {
      type: "xavier"
      std: 0.03
    }
    bias_filler {
      type: "constant"
      value: 0.2
    }
  }
}
layer {
  name: "inception_4d/relu_5x5"
  type: "ReLU"
  bottom: "inception_4d/5x5"
  top: "inception_4d/5x5"
}
layer {
  name: "inception_4d/pool"
  type: "Pooling"
  bottom: "inception_4c/output"
  top: "inception_4d/pool"
  pooling_param {
    pool: MAX
    kernel_size: 3
    stride: 1
    pad: 1
  }
}
layer {
  name: "inception_4d/pool_proj"
  type: "Convolution"
  bottom: "inception_4d/pool"
  top: "inception_4d/pool_proj"
  param {
    lr_mult: 1
    decay_mult: 1
  }
  param {
    lr_mult: 2
    decay_mult: 0
  }
  convolution_param {
    num_output: 64
    kernel_size: 1
    weight_filler {
      type: "xavier"
      std: 0.1
    }
    bias_filler {
      type: "constant"
      value: 0.2
    }
  }
}
layer {
  name: "inception_4d/relu_pool_proj"
  type: "ReLU"
  bottom: "inception_4d/pool_proj"
  top: "inception_4d/pool_proj"
}
layer {
  name: "inception_4d/output"
  type: "Concat"
  bottom: "inception_4d/1x1"
  bottom: "inception_4d/3x3"
  bottom: "inception_4d/5x5"
  bottom: "inception_4d/pool_proj"
  top: "inception_4d/output"
}
layer {
  name: "loss2/ave_pool"
  type: "Pooling"
  bottom: "inception_4d/output"
  top: "loss2/ave_pool"
  pooling_param {
    pool: AVE
    kernel_size: 5
    stride: 3
  }
}
layer {
  name: "loss2/conv"
  type: "Convolution"
  bottom: "loss2/ave_pool"
  top: "loss2/conv"
  param {
    lr_mult: 1
    decay_mult: 1
  }
  param {
    lr_mult: 2
    decay_mult: 0
  }
  convolution_param {
    num_output: 128
    kernel_size: 1
    weight_filler {
      type: "xavier"
      std: 0.08
    }
    bias_filler {
      type: "constant"
      value: 0.2
    }
  }
}
layer {
  name: "loss2/relu_conv"
  type: "ReLU"
  bottom: "loss2/conv"
  top: "loss2/conv"
}
layer {
  name: "loss2/fc"
  type: "InnerProduct"
  bottom: "loss2/conv"
  top: "loss2/fc"
  param {
    lr_mult: 1
    decay_mult: 1
  }
  param {
    lr_mult: 2
    decay_mult: 0
  }
  inner_product_param {
    num_output: 1024
    weight_filler {
      type: "xavier"
      std: 0.02
    }
    bias_filler {
      type: "constant"
      value: 0.2
    }
  }
}
layer {
  name: "loss2/relu_fc"
  type: "ReLU"
  bottom: "loss2/fc"
  top: "loss2/fc"
}
layer {
  name: "loss2/drop_fc"
  type: "Dropout"
  bottom: "loss2/fc"
  top: "loss2/fc"
  dropout_param {
    dropout_ratio: 0.7
  }
}
layer {
  name: "loss2/classifier_plantvillage"
  type: "InnerProduct"
  bottom: "loss2/fc"
  top: "loss2/classifier_plantvillage"
  param {
    lr_mult: 1
    decay_mult: 1
  }
  param {
    lr_mult: 2
    decay_mult: 0
  }
  inner_product_param {
    num_output: 38
    weight_filler {
      type: "xavier"
      std: 0.0009765625
    }
    bias_filler {
      type: "constant"
      value: 0
    }
  }
}
layer {
  name: "inception_4e/1x1"
  type: "Convolution"
  bottom: "inception_4d/output"
  top: "inception_4e/1x1"
  param {
    lr_mult: 1
    decay_mult: 1
  }
  param {
    lr_mult: 2
    decay_mult: 0
  }
  convolution_param {
    num_output: 256
    kernel_size: 1
    weight_filler {
      type: "xavier"
      std: 0.03
    }
    bias_filler {
      type: "constant"
      value: 0.2
    }
  }
}
layer {
  name: "inception_4e/relu_1x1"
  type: "ReLU"
  bottom: "inception_4e/1x1"
  top: "inception_4e/1x1"
}
layer {
  name: "inception_4e/3x3_reduce"
  type: "Convolution"
  bottom: "inception_4d/output"
  top: "inception_4e/3x3_reduce"
  param {
    lr_mult: 1
    decay_mult: 1
  }
  param {
    lr_mult: 2
    decay_mult: 0
  }
  convolution_param {
    num_output: 160
    kernel_size: 1
    weight_filler {
      type: "xavier"
      std: 0.09
    }
    bias_filler {
      type: "constant"
      value: 0.2
    }
  }
}
layer {
  name: "inception_4e/relu_3x3_reduce"
  type: "ReLU"
  bottom: "inception_4e/3x3_reduce"
  top: "inception_4e/3x3_reduce"
}
layer {
  name: "inception_4e/3x3"
  type: "Convolution"
  bottom: "inception_4e/3x3_reduce"
  top: "inception_4e/3x3"
  param {
    lr_mult: 1
    decay_mult: 1
  }
  param {
    lr_mult: 2
    decay_mult: 0
  }
  convolution_param {
    num_output: 320
    pad: 1
    kernel_size: 3
    weight_filler {
      type: "xavier"
      std: 0.03
    }
    bias_filler {
      type: "constant"
      value: 0.2
    }
  }
}
layer {
  name: "inception_4e/relu_3x3"
  type: "ReLU"
  bottom: "inception_4e/3x3"
  top: "inception_4e/3x3"
}
layer {
  name: "inception_4e/5x5_reduce"
  type: "Convolution"
  bottom: "inception_4d/output"
  top: "inception_4e/5x5_reduce"
  param {
    lr_mult: 1
    decay_mult: 1
  }
  param {
    lr_mult: 2
    decay_mult: 0
  }
  convolution_param {
    num_output: 32
    kernel_size: 1
    weight_filler {
      type: "xavier"
      std: 0.2
    }
    bias_filler {
      type: "constant"
      value: 0.2
    }
  }
}
layer {
  name: "inception_4e/relu_5x5_reduce"
  type: "ReLU"
  bottom: "inception_4e/5x5_reduce"
  top: "inception_4e/5x5_reduce"
}
layer {
  name: "inception_4e/5x5"
  type: "Convolution"
  bottom: "inception_4e/5x5_reduce"
  top: "inception_4e/
I0403 15:20:28.754004 11857 layer_factory.hpp:77] Creating layer data
I0403 15:20:28.754609 11857 net.cpp:91] Creating Layer data
I0403 15:20:28.754642 11857 net.cpp:399] data -> data
I0403 15:20:28.754691 11857 net.cpp:399] data -> label
I0403 15:20:28.754726 11857 data_transformer.cpp:25] Loading mean file from: /home/mohanty/data/final_dataset/lmdb/segmented-50-50/mean.binaryproto
I0403 15:20:28.757542 11860 db_lmdb.cpp:38] Opened lmdb /home/mohanty/data/final_dataset/lmdb/segmented-50-50/test_db
I0403 15:20:28.767706 11857 data_layer.cpp:41] output data size: 24,3,224,224
I0403 15:20:28.795310 11857 net.cpp:141] Setting up data
I0403 15:20:28.795413 11857 net.cpp:148] Top shape: 24 3 224 224 (3612672)
I0403 15:20:28.795439 11857 net.cpp:148] Top shape: 24 (24)
I0403 15:20:28.795454 11857 net.cpp:156] Memory required for data: 14450784
I0403 15:20:28.795483 11857 layer_factory.hpp:77] Creating layer label_data_1_split
I0403 15:20:28.795511 11857 net.cpp:91] Creating Layer label_data_1_split
I0403 15:20:28.795528 11857 net.cpp:425] label_data_1_split <- label
I0403 15:20:28.795559 11857 net.cpp:399] label_data_1_split -> label_data_1_split_0
I0403 15:20:28.795588 11857 net.cpp:399] label_data_1_split -> label_data_1_split_1
I0403 15:20:28.795609 11857 net.cpp:399] label_data_1_split -> label_data_1_split_2
I0403 15:20:28.795630 11857 net.cpp:399] label_data_1_split -> label_data_1_split_3
I0403 15:20:28.795651 11857 net.cpp:399] label_data_1_split -> label_data_1_split_4
I0403 15:20:28.795671 11857 net.cpp:399] label_data_1_split -> label_data_1_split_5
I0403 15:20:28.795691 11857 net.cpp:399] label_data_1_split -> label_data_1_split_6
I0403 15:20:28.795712 11857 net.cpp:399] label_data_1_split -> label_data_1_split_7
I0403 15:20:28.795732 11857 net.cpp:399] label_data_1_split -> label_data_1_split_8
I0403 15:20:28.795753 11857 net.cpp:399] label_data_1_split -> label_data_1_split_9
I0403 15:20:28.795868 11857 net.cpp:141] Setting up label_data_1_split
I0403 15:20:28.795892 11857 net.cpp:148] Top shape: 24 (24)
I0403 15:20:28.795909 11857 net.cpp:148] Top shape: 24 (24)
I0403 15:20:28.795925 11857 net.cpp:148] Top shape: 24 (24)
I0403 15:20:28.795943 11857 net.cpp:148] Top shape: 24 (24)
I0403 15:20:28.795958 11857 net.cpp:148] Top shape: 24 (24)
I0403 15:20:28.795972 11857 net.cpp:148] Top shape: 24 (24)
I0403 15:20:28.795989 11857 net.cpp:148] Top shape: 24 (24)
I0403 15:20:28.796003 11857 net.cpp:148] Top shape: 24 (24)
I0403 15:20:28.796018 11857 net.cpp:148] Top shape: 24 (24)
I0403 15:20:28.796035 11857 net.cpp:148] Top shape: 24 (24)
I0403 15:20:28.796079 11857 net.cpp:156] Memory required for data: 14451744
I0403 15:20:28.796097 11857 layer_factory.hpp:77] Creating layer conv1/7x7_s2
I0403 15:20:28.796129 11857 net.cpp:91] Creating Layer conv1/7x7_s2
I0403 15:20:28.796149 11857 net.cpp:425] conv1/7x7_s2 <- data
I0403 15:20:28.796167 11857 net.cpp:399] conv1/7x7_s2 -> conv1/7x7_s2
I0403 15:20:28.934993 11857 net.cpp:141] Setting up conv1/7x7_s2
I0403 15:20:28.935082 11857 net.cpp:148] Top shape: 24 64 112 112 (19267584)
I0403 15:20:28.935098 11857 net.cpp:156] Memory required for data: 91522080
I0403 15:20:28.935128 11857 layer_factory.hpp:77] Creating layer conv1/relu_7x7
I0403 15:20:28.935154 11857 net.cpp:91] Creating Layer conv1/relu_7x7
I0403 15:20:28.935173 11857 net.cpp:425] conv1/relu_7x7 <- conv1/7x7_s2
I0403 15:20:28.935190 11857 net.cpp:386] conv1/relu_7x7 -> conv1/7x7_s2 (in-place)
I0403 15:20:28.935441 11857 net.cpp:141] Setting up conv1/relu_7x7
I0403 15:20:28.935467 11857 net.cpp:148] Top shape: 24 64 112 112 (19267584)
I0403 15:20:28.935482 11857 net.cpp:156] Memory required for data: 168592416
I0403 15:20:28.935497 11857 layer_factory.hpp:77] Creating layer pool1/3x3_s2
I0403 15:20:28.935520 11857 net.cpp:91] Creating Layer pool1/3x3_s2
I0403 15:20:28.935539 11857 net.cpp:425] pool1/3x3_s2 <- conv1/7x7_s2
I0403 15:20:28.935555 11857 net.cpp:399] pool1/3x3_s2 -> pool1/3x3_s2
I0403 15:20:28.935626 11857 net.cpp:141] Setting up pool1/3x3_s2
I0403 15:20:28.935647 11857 net.cpp:148] Top shape: 24 64 56 56 (4816896)
I0403 15:20:28.935662 11857 net.cpp:156] Memory required for data: 187860000
I0403 15:20:28.935675 11857 layer_factory.hpp:77] Creating layer pool1/norm1
I0403 15:20:28.935698 11857 net.cpp:91] Creating Layer pool1/norm1
I0403 15:20:28.935715 11857 net.cpp:425] pool1/norm1 <- pool1/3x3_s2
I0403 15:20:28.935731 11857 net.cpp:399] pool1/norm1 -> pool1/norm1
I0403 15:20:28.936003 11857 net.cpp:141] Setting up pool1/norm1
I0403 15:20:28.936029 11857 net.cpp:148] Top shape: 24 64 56 56 (4816896)
I0403 15:20:28.936043 11857 net.cpp:156] Memory required for data: 207127584
I0403 15:20:28.936058 11857 layer_factory.hpp:77] Creating layer conv2/3x3_reduce
I0403 15:20:28.936082 11857 net.cpp:91] Creating Layer conv2/3x3_reduce
I0403 15:20:28.936099 11857 net.cpp:425] conv2/3x3_reduce <- pool1/norm1
I0403 15:20:28.936115 11857 net.cpp:399] conv2/3x3_reduce -> conv2/3x3_reduce
I0403 15:20:28.937456 11857 net.cpp:141] Setting up conv2/3x3_reduce
I0403 15:20:28.937484 11857 net.cpp:148] Top shape: 24 64 56 56 (4816896)
I0403 15:20:28.937500 11857 net.cpp:156] Memory required for data: 226395168
I0403 15:20:28.937520 11857 layer_factory.hpp:77] Creating layer conv2/relu_3x3_reduce
I0403 15:20:28.937537 11857 net.cpp:91] Creating Layer conv2/relu_3x3_reduce
I0403 15:20:28.937552 11857 net.cpp:425] conv2/relu_3x3_reduce <- conv2/3x3_reduce
I0403 15:20:28.937572 11857 net.cpp:386] conv2/relu_3x3_reduce -> conv2/3x3_reduce (in-place)
I0403 15:20:28.937834 11857 net.cpp:141] Setting up conv2/relu_3x3_reduce
I0403 15:20:28.937860 11857 net.cpp:148] Top shape: 24 64 56 56 (4816896)
I0403 15:20:28.937873 11857 net.cpp:156] Memory required for data: 245662752
I0403 15:20:28.937887 11857 layer_factory.hpp:77] Creating layer conv2/3x3
I0403 15:20:28.937911 11857 net.cpp:91] Creating Layer conv2/3x3
I0403 15:20:28.937927 11857 net.cpp:425] conv2/3x3 <- conv2/3x3_reduce
I0403 15:20:28.937947 11857 net.cpp:399] conv2/3x3 -> conv2/3x3
I0403 15:20:28.940222 11857 net.cpp:141] Setting up conv2/3x3
I0403 15:20:28.940250 11857 net.cpp:148] Top shape: 24 192 56 56 (14450688)
I0403 15:20:28.940279 11857 net.cpp:156] Memory required for data: 303465504
I0403 15:20:28.940299 11857 layer_factory.hpp:77] Creating layer conv2/relu_3x3
I0403 15:20:28.940320 11857 net.cpp:91] Creating Layer conv2/relu_3x3
I0403 15:20:28.940335 11857 net.cpp:425] conv2/relu_3x3 <- conv2/3x3
I0403 15:20:28.940352 11857 net.cpp:386] conv2/relu_3x3 -> conv2/3x3 (in-place)
I0403 15:20:28.940537 11857 net.cpp:141] Setting up conv2/relu_3x3
I0403 15:20:28.940563 11857 net.cpp:148] Top shape: 24 192 56 56 (14450688)
I0403 15:20:28.940619 11857 net.cpp:156] Memory required for data: 361268256
I0403 15:20:28.940634 11857 layer_factory.hpp:77] Creating layer conv2/norm2
I0403 15:20:28.940651 11857 net.cpp:91] Creating Layer conv2/norm2
I0403 15:20:28.940667 11857 net.cpp:425] conv2/norm2 <- conv2/3x3
I0403 15:20:28.940686 11857 net.cpp:399] conv2/norm2 -> conv2/norm2
I0403 15:20:28.940989 11857 net.cpp:141] Setting up conv2/norm2
I0403 15:20:28.941015 11857 net.cpp:148] Top shape: 24 192 56 56 (14450688)
I0403 15:20:28.941028 11857 net.cpp:156] Memory required for data: 419071008
I0403 15:20:28.941042 11857 layer_factory.hpp:77] Creating layer pool2/3x3_s2
I0403 15:20:28.941059 11857 net.cpp:91] Creating Layer pool2/3x3_s2
I0403 15:20:28.941074 11857 net.cpp:425] pool2/3x3_s2 <- conv2/norm2
I0403 15:20:28.941093 11857 net.cpp:399] pool2/3x3_s2 -> pool2/3x3_s2
I0403 15:20:28.941143 11857 net.cpp:141] Setting up pool2/3x3_s2
I0403 15:20:28.941164 11857 net.cpp:148] Top shape: 24 192 28 28 (3612672)
I0403 15:20:28.941179 11857 net.cpp:156] Memory required for data: 433521696
I0403 15:20:28.941192 11857 layer_factory.hpp:77] Creating layer pool2/3x3_s2_pool2/3x3_s2_0_split
I0403 15:20:28.941211 11857 net.cpp:91] Creating Layer pool2/3x3_s2_pool2/3x3_s2_0_split
I0403 15:20:28.941227 11857 net.cpp:425] pool2/3x3_s2_pool2/3x3_s2_0_split <- pool2/3x3_s2
I0403 15:20:28.941243 11857 net.cpp:399] pool2/3x3_s2_pool2/3x3_s2_0_split -> pool2/3x3_s2_pool2/3x3_s2_0_split_0
I0403 15:20:28.941264 11857 net.cpp:399] pool2/3x3_s2_pool2/3x3_s2_0_split -> pool2/3x3_s2_pool2/3x3_s2_0_split_1
I0403 15:20:28.941283 11857 net.cpp:399] pool2/3x3_s2_pool2/3x3_s2_0_split -> pool2/3x3_s2_pool2/3x3_s2_0_split_2
I0403 15:20:28.941301 11857 net.cpp:399] pool2/3x3_s2_pool2/3x3_s2_0_split -> pool2/3x3_s2_pool2/3x3_s2_0_split_3
I0403 15:20:28.941367 11857 net.cpp:141] Setting up pool2/3x3_s2_pool2/3x3_s2_0_split
I0403 15:20:28.941388 11857 net.cpp:148] Top shape: 24 192 28 28 (3612672)
I0403 15:20:28.941403 11857 net.cpp:148] Top shape: 24 192 28 28 (3612672)
I0403 15:20:28.941423 11857 net.cpp:148] Top shape: 24 192 28 28 (3612672)
I0403 15:20:28.941439 11857 net.cpp:148] Top shape: 24 192 28 28 (3612672)
I0403 15:20:28.941452 11857 net.cpp:156] Memory required for data: 491324448
I0403 15:20:28.941465 11857 layer_factory.hpp:77] Creating layer inception_3a/1x1
I0403 15:20:28.941488 11857 net.cpp:91] Creating Layer inception_3a/1x1
I0403 15:20:28.941504 11857 net.cpp:425] inception_3a/1x1 <- pool2/3x3_s2_pool2/3x3_s2_0_split_0
I0403 15:20:28.941524 11857 net.cpp:399] inception_3a/1x1 -> inception_3a/1x1
I0403 15:20:28.943040 11857 net.cpp:141] Setting up inception_3a/1x1
I0403 15:20:28.943068 11857 net.cpp:148] Top shape: 24 64 28 28 (1204224)
I0403 15:20:28.943084 11857 net.cpp:156] Memory required for data: 496141344
I0403 15:20:28.943101 11857 layer_factory.hpp:77] Creating layer inception_3a/relu_1x1
I0403 15:20:28.943121 11857 net.cpp:91] Creating Layer inception_3a/relu_1x1
I0403 15:20:28.943136 11857 net.cpp:425] inception_3a/relu_1x1 <- inception_3a/1x1
I0403 15:20:28.943152 11857 net.cpp:386] inception_3a/relu_1x1 -> inception_3a/1x1 (in-place)
I0403 15:20:28.943321 11857 net.cpp:141] Setting up inception_3a/relu_1x1
I0403 15:20:28.943344 11857 net.cpp:148] Top shape: 24 64 28 28 (1204224)
I0403 15:20:28.943358 11857 net.cpp:156] Memory required for data: 500958240
I0403 15:20:28.943372 11857 layer_factory.hpp:77] Creating layer inception_3a/3x3_reduce
I0403 15:20:28.943394 11857 net.cpp:91] Creating Layer inception_3a/3x3_reduce
I0403 15:20:28.943415 11857 net.cpp:425] inception_3a/3x3_reduce <- pool2/3x3_s2_pool2/3x3_s2_0_split_1
I0403 15:20:28.943434 11857 net.cpp:399] inception_3a/3x3_reduce -> inception_3a/3x3_reduce
I0403 15:20:28.945077 11857 net.cpp:141] Setting up inception_3a/3x3_reduce
I0403 15:20:28.945106 11857 net.cpp:148] Top shape: 24 96 28 28 (1806336)
I0403 15:20:28.945121 11857 net.cpp:156] Memory required for data: 508183584
I0403 15:20:28.945140 11857 layer_factory.hpp:77] Creating layer inception_3a/relu_3x3_reduce
I0403 15:20:28.945175 11857 net.cpp:91] Creating Layer inception_3a/relu_3x3_reduce
I0403 15:20:28.945193 11857 net.cpp:425] inception_3a/relu_3x3_reduce <- inception_3a/3x3_reduce
I0403 15:20:28.945209 11857 net.cpp:386] inception_3a/relu_3x3_reduce -> inception_3a/3x3_reduce (in-place)
I0403 15:20:28.945389 11857 net.cpp:141] Setting up inception_3a/relu_3x3_reduce
I0403 15:20:28.945416 11857 net.cpp:148] Top shape: 24 96 28 28 (1806336)
I0403 15:20:28.945432 11857 net.cpp:156] Memory required for data: 515408928
I0403 15:20:28.945446 11857 layer_factory.hpp:77] Creating layer inception_3a/3x3
I0403 15:20:28.945467 11857 net.cpp:91] Creating Layer inception_3a/3x3
I0403 15:20:28.945483 11857 net.cpp:425] inception_3a/3x3 <- inception_3a/3x3_reduce
I0403 15:20:28.945504 11857 net.cpp:399] inception_3a/3x3 -> inception_3a/3x3
I0403 15:20:28.947085 11857 net.cpp:141] Setting up inception_3a/3x3
I0403 15:20:28.947113 11857 net.cpp:148] Top shape: 24 128 28 28 (2408448)
I0403 15:20:28.947129 11857 net.cpp:156] Memory required for data: 525042720
I0403 15:20:28.947146 11857 layer_factory.hpp:77] Creating layer inception_3a/relu_3x3
I0403 15:20:28.947165 11857 net.cpp:91] Creating Layer inception_3a/relu_3x3
I0403 15:20:28.947181 11857 net.cpp:425] inception_3a/relu_3x3 <- inception_3a/3x3
I0403 15:20:28.947197 11857 net.cpp:386] inception_3a/relu_3x3 -> inception_3a/3x3 (in-place)
I0403 15:20:28.947468 11857 net.cpp:141] Setting up inception_3a/relu_3x3
I0403 15:20:28.947492 11857 net.cpp:148] Top shape: 24 128 28 28 (2408448)
I0403 15:20:28.947506 11857 net.cpp:156] Memory required for data: 534676512
I0403 15:20:28.947520 11857 layer_factory.hpp:77] Creating layer inception_3a/5x5_reduce
I0403 15:20:28.947540 11857 net.cpp:91] Creating Layer inception_3a/5x5_reduce
I0403 15:20:28.947557 11857 net.cpp:425] inception_3a/5x5_reduce <- pool2/3x3_s2_pool2/3x3_s2_0_split_2
I0403 15:20:28.947577 11857 net.cpp:399] inception_3a/5x5_reduce -> inception_3a/5x5_reduce
I0403 15:20:28.948498 11857 net.cpp:141] Setting up inception_3a/5x5_reduce
I0403 15:20:28.948524 11857 net.cpp:148] Top shape: 24 16 28 28 (301056)
I0403 15:20:28.948539 11857 net.cpp:156] Memory required for data: 535880736
I0403 15:20:28.948556 11857 layer_factory.hpp:77] Creating layer inception_3a/relu_5x5_reduce
I0403 15:20:28.948575 11857 net.cpp:91] Creating Layer inception_3a/relu_5x5_reduce
I0403 15:20:28.948591 11857 net.cpp:425] inception_3a/relu_5x5_reduce <- inception_3a/5x5_reduce
I0403 15:20:28.948609 11857 net.cpp:386] inception_3a/relu_5x5_reduce -> inception_3a/5x5_reduce (in-place)
I0403 15:20:28.948901 11857 net.cpp:141] Setting up inception_3a/relu_5x5_reduce
I0403 15:20:28.948930 11857 net.cpp:148] Top shape: 24 16 28 28 (301056)
I0403 15:20:28.948945 11857 net.cpp:156] Memory required for data: 537084960
I0403 15:20:28.948957 11857 layer_factory.hpp:77] Creating layer inception_3a/5x5
I0403 15:20:28.948978 11857 net.cpp:91] Creating Layer inception_3a/5x5
I0403 15:20:28.948995 11857 net.cpp:425] inception_3a/5x5 <- inception_3a/5x5_reduce
I0403 15:20:28.949013 11857 net.cpp:399] inception_3a/5x5 -> inception_3a/5x5
I0403 15:20:28.950021 11857 net.cpp:141] Setting up inception_3a/5x5
I0403 15:20:28.950048 11857 net.cpp:148] Top shape: 24 32 28 28 (602112)
I0403 15:20:28.950063 11857 net.cpp:156] Memory required for data: 539493408
I0403 15:20:28.950081 11857 layer_factory.hpp:77] Creating layer inception_3a/relu_5x5
I0403 15:20:28.950101 11857 net.cpp:91] Creating Layer inception_3a/relu_5x5
I0403 15:20:28.950117 11857 net.cpp:425] inception_3a/relu_5x5 <- inception_3a/5x5
I0403 15:20:28.950134 11857 net.cpp:386] inception_3a/relu_5x5 -> inception_3a/5x5 (in-place)
I0403 15:20:28.950307 11857 net.cpp:141] Setting up inception_3a/relu_5x5
I0403 15:20:28.950333 11857 net.cpp:148] Top shape: 24 32 28 28 (602112)
I0403 15:20:28.950347 11857 net.cpp:156] Memory required for data: 541901856
I0403 15:20:28.950361 11857 layer_factory.hpp:77] Creating layer inception_3a/pool
I0403 15:20:28.950381 11857 net.cpp:91] Creating Layer inception_3a/pool
I0403 15:20:28.950414 11857 net.cpp:425] inception_3a/pool <- pool2/3x3_s2_pool2/3x3_s2_0_split_3
I0403 15:20:28.950435 11857 net.cpp:399] inception_3a/pool -> inception_3a/pool
I0403 15:20:28.950494 11857 net.cpp:141] Setting up inception_3a/pool
I0403 15:20:28.950516 11857 net.cpp:148] Top shape: 24 192 28 28 (3612672)
I0403 15:20:28.950531 11857 net.cpp:156] Memory required for data: 556352544
I0403 15:20:28.950544 11857 layer_factory.hpp:77] Creating layer inception_3a/pool_proj
I0403 15:20:28.950567 11857 net.cpp:91] Creating Layer inception_3a/pool_proj
I0403 15:20:28.950583 11857 net.cpp:425] inception_3a/pool_proj <- inception_3a/pool
I0403 15:20:28.950604 11857 net.cpp:399] inception_3a/pool_proj -> inception_3a/pool_proj
I0403 15:20:28.951561 11857 net.cpp:141] Setting up inception_3a/pool_proj
I0403 15:20:28.951592 11857 net.cpp:148] Top shape: 24 32 28 28 (602112)
I0403 15:20:28.951607 11857 net.cpp:156] Memory required for data: 558760992
I0403 15:20:28.951629 11857 layer_factory.hpp:77] Creating layer inception_3a/relu_pool_proj
I0403 15:20:28.951650 11857 net.cpp:91] Creating Layer inception_3a/relu_pool_proj
I0403 15:20:28.951665 11857 net.cpp:425] inception_3a/relu_pool_proj <- inception_3a/pool_proj
I0403 15:20:28.951683 11857 net.cpp:386] inception_3a/relu_pool_proj -> inception_3a/pool_proj (in-place)
I0403 15:20:28.951956 11857 net.cpp:141] Setting up inception_3a/relu_pool_proj
I0403 15:20:28.951982 11857 net.cpp:148] Top shape: 24 32 28 28 (602112)
I0403 15:20:28.951997 11857 net.cpp:156] Memory required for data: 561169440
I0403 15:20:28.952011 11857 layer_factory.hpp:77] Creating layer inception_3a/output
I0403 15:20:28.952031 11857 net.cpp:91] Creating Layer inception_3a/output
I0403 15:20:28.952047 11857 net.cpp:425] inception_3a/output <- inception_3a/1x1
I0403 15:20:28.952064 11857 net.cpp:425] inception_3a/output <- inception_3a/3x3
I0403 15:20:28.952078 11857 net.cpp:425] inception_3a/output <- inception_3a/5x5
I0403 15:20:28.952093 11857 net.cpp:425] inception_3a/output <- inception_3a/pool_proj
I0403 15:20:28.952111 11857 net.cpp:399] inception_3a/output -> inception_3a/output
I0403 15:20:28.952157 11857 net.cpp:141] Setting up inception_3a/output
I0403 15:20:28.952180 11857 net.cpp:148] Top shape: 24 256 28 28 (4816896)
I0403 15:20:28.952194 11857 net.cpp:156] Memory required for data: 580437024
I0403 15:20:28.952208 11857 layer_factory.hpp:77] Creating layer inception_3a/output_inception_3a/output_0_split
I0403 15:20:28.952224 11857 net.cpp:91] Creating Layer inception_3a/output_inception_3a/output_0_split
I0403 15:20:28.952240 11857 net.cpp:425] inception_3a/output_inception_3a/output_0_split <- inception_3a/output
I0403 15:20:28.952260 11857 net.cpp:399] inception_3a/output_inception_3a/output_0_split -> inception_3a/output_inception_3a/output_0_split_0
I0403 15:20:28.952280 11857 net.cpp:399] inception_3a/output_inception_3a/output_0_split -> inception_3a/output_inception_3a/output_0_split_1
I0403 15:20:28.952302 11857 net.cpp:399] inception_3a/output_inception_3a/output_0_split -> inception_3a/output_inception_3a/output_0_split_2
I0403 15:20:28.952322 11857 net.cpp:399] inception_3a/output_inception_3a/output_0_split -> inception_3a/output_inception_3a/output_0_split_3
I0403 15:20:28.952394 11857 net.cpp:141] Setting up inception_3a/output_inception_3a/output_0_split
I0403 15:20:28.952427 11857 net.cpp:148] Top shape: 24 256 28 28 (4816896)
I0403 15:20:28.952446 11857 net.cpp:148] Top shape: 24 256 28 28 (4816896)
I0403 15:20:28.952461 11857 net.cpp:148] Top shape: 24 256 28 28 (4816896)
I0403 15:20:28.952476 11857 net.cpp:148] Top shape: 24 256 28 28 (4816896)
I0403 15:20:28.952489 11857 net.cpp:156] Memory required for data: 657507360
I0403 15:20:28.952503 11857 layer_factory.hpp:77] Creating layer inception_3b/1x1
I0403 15:20:28.952525 11857 net.cpp:91] Creating Layer inception_3b/1x1
I0403 15:20:28.952543 11857 net.cpp:425] inception_3b/1x1 <- inception_3a/output_inception_3a/output_0_split_0
I0403 15:20:28.952564 11857 net.cpp:399] inception_3b/1x1 -> inception_3b/1x1
I0403 15:20:28.953691 11857 net.cpp:141] Setting up inception_3b/1x1
I0403 15:20:28.953729 11857 net.cpp:148] Top shape: 24 128 28 28 (2408448)
I0403 15:20:28.953745 11857 net.cpp:156] Memory required for data: 667141152
I0403 15:20:28.953763 11857 layer_factory.hpp:77] Creating layer inception_3b/relu_1x1
I0403 15:20:28.953781 11857 net.cpp:91] Creating Layer inception_3b/relu_1x1
I0403 15:20:28.953796 11857 net.cpp:425] inception_3b/relu_1x1 <- inception_3b/1x1
I0403 15:20:28.953815 11857 net.cpp:386] inception_3b/relu_1x1 -> inception_3b/1x1 (in-place)
I0403 15:20:28.953990 11857 net.cpp:141] Setting up inception_3b/relu_1x1
I0403 15:20:28.954015 11857 net.cpp:148] Top shape: 24 128 28 28 (2408448)
I0403 15:20:28.954028 11857 net.cpp:156] Memory required for data: 676774944
I0403 15:20:28.954043 11857 layer_factory.hpp:77] Creating layer inception_3b/3x3_reduce
I0403 15:20:28.954066 11857 net.cpp:91] Creating Layer inception_3b/3x3_reduce
I0403 15:20:28.954082 11857 net.cpp:425] inception_3b/3x3_reduce <- inception_3a/output_inception_3a/output_0_split_1
I0403 15:20:28.954103 11857 net.cpp:399] inception_3b/3x3_reduce -> inception_3b/3x3_reduce
I0403 15:20:28.955296 11857 net.cpp:141] Setting up inception_3b/3x3_reduce
I0403 15:20:28.955327 11857 net.cpp:148] Top shape: 24 128 28 28 (2408448)
I0403 15:20:28.955343 11857 net.cpp:156] Memory required for data: 686408736
I0403 15:20:28.955361 11857 layer_factory.hpp:77] Creating layer inception_3b/relu_3x3_reduce
I0403 15:20:28.955380 11857 net.cpp:91] Creating Layer inception_3b/relu_3x3_reduce
I0403 15:20:28.955395 11857 net.cpp:425] inception_3b/relu_3x3_reduce <- inception_3b/3x3_reduce
I0403 15:20:28.955421 11857 net.cpp:386] inception_3b/relu_3x3_reduce -> inception_3b/3x3_reduce (in-place)
I0403 15:20:28.955603 11857 net.cpp:141] Setting up inception_3b/relu_3x3_reduce
I0403 15:20:28.955629 11857 net.cpp:148] Top shape: 24 128 28 28 (2408448)
I0403 15:20:28.955644 11857 net.cpp:156] Memory required for data: 696042528
I0403 15:20:28.955658 11857 layer_factory.hpp:77] Creating layer inception_3b/3x3
I0403 15:20:28.955684 11857 net.cpp:91] Creating Layer inception_3b/3x3
I0403 15:20:28.955703 11857 net.cpp:425] inception_3b/3x3 <- inception_3b/3x3_reduce
I0403 15:20:28.955721 11857 net.cpp:399] inception_3b/3x3 -> inception_3b/3x3
I0403 15:20:28.958712 11857 net.cpp:141] Setting up inception_3b/3x3
I0403 15:20:28.958741 11857 net.cpp:148] Top shape: 24 192 28 28 (3612672)
I0403 15:20:28.958757 11857 net.cpp:156] Memory required for data: 710493216
I0403 15:20:28.958776 11857 layer_factory.hpp:77] Creating layer inception_3b/relu_3x3
I0403 15:20:28.958796 11857 net.cpp:91] Creating Layer inception_3b/relu_3x3
I0403 15:20:28.958813 11857 net.cpp:425] inception_3b/relu_3x3 <- inception_3b/3x3
I0403 15:20:28.958832 11857 net.cpp:386] inception_3b/relu_3x3 -> inception_3b/3x3 (in-place)
I0403 15:20:28.959115 11857 net.cpp:141] Setting up inception_3b/relu_3x3
I0403 15:20:28.959141 11857 net.cpp:148] Top shape: 24 192 28 28 (3612672)
I0403 15:20:28.959156 11857 net.cpp:156] Memory required for data: 724943904
I0403 15:20:28.959172 11857 layer_factory.hpp:77] Creating layer inception_3b/5x5_reduce
I0403 15:20:28.959193 11857 net.cpp:91] Creating Layer inception_3b/5x5_reduce
I0403 15:20:28.959210 11857 net.cpp:425] inception_3b/5x5_reduce <- inception_3a/output_inception_3a/output_0_split_2
I0403 15:20:28.959233 11857 net.cpp:399] inception_3b/5x5_reduce -> inception_3b/5x5_reduce
I0403 15:20:28.960249 11857 net.cpp:141] Setting up inception_3b/5x5_reduce
I0403 15:20:28.960278 11857 net.cpp:148] Top shape: 24 32 28 28 (602112)
I0403 15:20:28.960294 11857 net.cpp:156] Memory required for data: 727352352
I0403 15:20:28.960312 11857 layer_factory.hpp:77] Creating layer inception_3b/relu_5x5_reduce
I0403 15:20:28.960335 11857 net.cpp:91] Creating Layer inception_3b/relu_5x5_reduce
I0403 15:20:28.960351 11857 net.cpp:425] inception_3b/relu_5x5_reduce <- inception_3b/5x5_reduce
I0403 15:20:28.960368 11857 net.cpp:386] inception_3b/relu_5x5_reduce -> inception_3b/5x5_reduce (in-place)
I0403 15:20:28.960577 11857 net.cpp:141] Setting up inception_3b/relu_5x5_reduce
I0403 15:20:28.960603 11857 net.cpp:148] Top shape: 24 32 28 28 (602112)
I0403 15:20:28.960618 11857 net.cpp:156] Memory required for data: 729760800
I0403 15:20:28.960633 11857 layer_factory.hpp:77] Creating layer inception_3b/5x5
I0403 15:20:28.960656 11857 net.cpp:91] Creating Layer inception_3b/5x5
I0403 15:20:28.960674 11857 net.cpp:425] inception_3b/5x5 <- inception_3b/5x5_reduce
I0403 15:20:28.960692 11857 net.cpp:399] inception_3b/5x5 -> inception_3b/5x5
I0403 15:20:28.962733 11857 net.cpp:141] Setting up inception_3b/5x5
I0403 15:20:28.962761 11857 net.cpp:148] Top shape: 24 96 28 28 (1806336)
I0403 15:20:28.962777 11857 net.cpp:156] Memory required for data: 736986144
I0403 15:20:28.962795 11857 layer_factory.hpp:77] Creating layer inception_3b/relu_5x5
I0403 15:20:28.962813 11857 net.cpp:91] Creating Layer inception_3b/relu_5x5
I0403 15:20:28.962829 11857 net.cpp:425] inception_3b/relu_5x5 <- inception_3b/5x5
I0403 15:20:28.962848 11857 net.cpp:386] inception_3b/relu_5x5 -> inception_3b/5x5 (in-place)
I0403 15:20:28.963048 11857 net.cpp:141] Setting up inception_3b/relu_5x5
I0403 15:20:28.963074 11857 net.cpp:148] Top shape: 24 96 28 28 (1806336)
I0403 15:20:28.963088 11857 net.cpp:156] Memory required for data: 744211488
I0403 15:20:28.963102 11857 layer_factory.hpp:77] Creating layer inception_3b/pool
I0403 15:20:28.963121 11857 net.cpp:91] Creating Layer inception_3b/pool
I0403 15:20:28.963137 11857 net.cpp:425] inception_3b/pool <- inception_3a/output_inception_3a/output_0_split_3
I0403 15:20:28.963155 11857 net.cpp:399] inception_3b/pool -> inception_3b/pool
I0403 15:20:28.963215 11857 net.cpp:141] Setting up inception_3b/pool
I0403 15:20:28.963238 11857 net.cpp:148] Top shape: 24 256 28 28 (4816896)
I0403 15:20:28.963253 11857 net.cpp:156] Memory required for data: 763479072
I0403 15:20:28.963268 11857 layer_factory.hpp:77] Creating layer inception_3b/pool_proj
I0403 15:20:28.963289 11857 net.cpp:91] Creating Layer inception_3b/pool_proj
I0403 15:20:28.963307 11857 net.cpp:425] inception_3b/pool_proj <- inception_3b/pool
I0403 15:20:28.963330 11857 net.cpp:399] inception_3b/pool_proj -> inception_3b/pool_proj
I0403 15:20:28.964406 11857 net.cpp:141] Setting up inception_3b/pool_proj
I0403 15:20:28.964440 11857 net.cpp:148] Top shape: 24 64 28 28 (1204224)
I0403 15:20:28.964457 11857 net.cpp:156] Memory required for data: 768295968
I0403 15:20:28.964475 11857 layer_factory.hpp:77] Creating layer inception_3b/relu_pool_proj
I0403 15:20:28.964493 11857 net.cpp:91] Creating Layer inception_3b/relu_pool_proj
I0403 15:20:28.964509 11857 net.cpp:425] inception_3b/relu_pool_proj <- inception_3b/pool_proj
I0403 15:20:28.964529 11857 net.cpp:386] inception_3b/relu_pool_proj -> inception_3b/pool_proj (in-place)
I0403 15:20:28.964931 11857 net.cpp:141] Setting up inception_3b/relu_pool_proj
I0403 15:20:28.964958 11857 net.cpp:148] Top shape: 24 64 28 28 (1204224)
I0403 15:20:28.964977 11857 net.cpp:156] Memory required for data: 773112864
I0403 15:20:28.964992 11857 layer_factory.hpp:77] Creating layer inception_3b/output
I0403 15:20:28.965008 11857 net.cpp:91] Creating Layer inception_3b/output
I0403 15:20:28.965023 11857 net.cpp:425] inception_3b/output <- inception_3b/1x1
I0403 15:20:28.965040 11857 net.cpp:425] inception_3b/output <- inception_3b/3x3
I0403 15:20:28.965056 11857 net.cpp:425] inception_3b/output <- inception_3b/5x5
I0403 15:20:28.965072 11857 net.cpp:425] inception_3b/output <- inception_3b/pool_proj
I0403 15:20:28.965088 11857 net.cpp:399] inception_3b/output -> inception_3b/output
I0403 15:20:28.965133 11857 net.cpp:141] Setting up inception_3b/output
I0403 15:20:28.965157 11857 net.cpp:148] Top shape: 24 480 28 28 (9031680)
I0403 15:20:28.965172 11857 net.cpp:156] Memory required for data: 809239584
I0403 15:20:28.965185 11857 layer_factory.hpp:77] Creating layer pool3/3x3_s2
I0403 15:20:28.965205 11857 net.cpp:91] Creating Layer pool3/3x3_s2
I0403 15:20:28.965221 11857 net.cpp:425] pool3/3x3_s2 <- inception_3b/output
I0403 15:20:28.965255 11857 net.cpp:399] pool3/3x3_s2 -> pool3/3x3_s2
I0403 15:20:28.965315 11857 net.cpp:141] Setting up pool3/3x3_s2
I0403 15:20:28.965339 11857 net.cpp:148] Top shape: 24 480 14 14 (2257920)
I0403 15:20:28.965354 11857 net.cpp:156] Memory required for data: 818271264
I0403 15:20:28.965368 11857 layer_factory.hpp:77] Creating layer pool3/3x3_s2_pool3/3x3_s2_0_split
I0403 15:20:28.965385 11857 net.cpp:91] Creating Layer pool3/3x3_s2_pool3/3x3_s2_0_split
I0403 15:20:28.965400 11857 net.cpp:425] pool3/3x3_s2_pool3/3x3_s2_0_split <- pool3/3x3_s2
I0403 15:20:28.965425 11857 net.cpp:399] pool3/3x3_s2_pool3/3x3_s2_0_split -> pool3/3x3_s2_pool3/3x3_s2_0_split_0
I0403 15:20:28.965446 11857 net.cpp:399] pool3/3x3_s2_pool3/3x3_s2_0_split -> pool3/3x3_s2_pool3/3x3_s2_0_split_1
I0403 15:20:28.965466 11857 net.cpp:399] pool3/3x3_s2_pool3/3x3_s2_0_split -> pool3/3x3_s2_pool3/3x3_s2_0_split_2
I0403 15:20:28.965484 11857 net.cpp:399] pool3/3x3_s2_pool3/3x3_s2_0_split -> pool3/3x3_s2_pool3/3x3_s2_0_split_3
I0403 15:20:28.965561 11857 net.cpp:141] Setting up pool3/3x3_s2_pool3/3x3_s2_0_split
I0403 15:20:28.965584 11857 net.cpp:148] Top shape: 24 480 14 14 (2257920)
I0403 15:20:28.965600 11857 net.cpp:148] Top shape: 24 480 14 14 (2257920)
I0403 15:20:28.965615 11857 net.cpp:148] Top shape: 24 480 14 14 (2257920)
I0403 15:20:28.965631 11857 net.cpp:148] Top shape: 24 480 14 14 (2257920)
I0403 15:20:28.965643 11857 net.cpp:156] Memory required for data: 854397984
I0403 15:20:28.965658 11857 layer_factory.hpp:77] Creating layer inception_4a/1x1
I0403 15:20:28.965685 11857 net.cpp:91] Creating Layer inception_4a/1x1
I0403 15:20:28.965703 11857 net.cpp:425] inception_4a/1x1 <- pool3/3x3_s2_pool3/3x3_s2_0_split_0
I0403 15:20:28.965721 11857 net.cpp:399] inception_4a/1x1 -> inception_4a/1x1
I0403 15:20:28.967320 11857 net.cpp:141] Setting up inception_4a/1x1
I0403 15:20:28.967355 11857 net.cpp:148] Top shape: 24 192 14 14 (903168)
I0403 15:20:28.967371 11857 net.cpp:156] Memory required for data: 858010656
I0403 15:20:28.967391 11857 layer_factory.hpp:77] Creating layer inception_4a/relu_1x1
I0403 15:20:28.967407 11857 net.cpp:91] Creating Layer inception_4a/relu_1x1
I0403 15:20:28.967428 11857 net.cpp:425] inception_4a/relu_1x1 <- inception_4a/1x1
I0403 15:20:28.967461 11857 net.cpp:386] inception_4a/relu_1x1 -> inception_4a/1x1 (in-place)
I0403 15:20:28.967653 11857 net.cpp:141] Setting up inception_4a/relu_1x1
I0403 15:20:28.967679 11857 net.cpp:148] Top shape: 24 192 14 14 (903168)
I0403 15:20:28.967694 11857 net.cpp:156] Memory required for data: 861623328
I0403 15:20:28.967710 11857 layer_factory.hpp:77] Creating layer inception_4a/3x3_reduce
I0403 15:20:28.967731 11857 net.cpp:91] Creating Layer inception_4a/3x3_reduce
I0403 15:20:28.967762 11857 net.cpp:425] inception_4a/3x3_reduce <- pool3/3x3_s2_pool3/3x3_s2_0_split_1
I0403 15:20:28.967784 11857 net.cpp:399] inception_4a/3x3_reduce -> inception_4a/3x3_reduce
I0403 15:20:28.969110 11857 net.cpp:141] Setting up inception_4a/3x3_reduce
I0403 15:20:28.969140 11857 net.cpp:148] Top shape: 24 96 14 14 (451584)
I0403 15:20:28.969156 11857 net.cpp:156] Memory required for data: 863429664
I0403 15:20:28.969177 11857 layer_factory.hpp:77] Creating layer inception_4a/relu_3x3_reduce
I0403 15:20:28.969198 11857 net.cpp:91] Creating Layer inception_4a/relu_3x3_reduce
I0403 15:20:28.969215 11857 net.cpp:425] inception_4a/relu_3x3_reduce <- inception_4a/3x3_reduce
I0403 15:20:28.969233 11857 net.cpp:386] inception_4a/relu_3x3_reduce -> inception_4a/3x3_reduce (in-place)
I0403 15:20:28.969413 11857 net.cpp:141] Setting up inception_4a/relu_3x3_reduce
I0403 15:20:28.969439 11857 net.cpp:148] Top shape: 24 96 14 14 (451584)
I0403 15:20:28.969452 11857 net.cpp:156] Memory required for data: 865236000
I0403 15:20:28.969467 11857 layer_factory.hpp:77] Creating layer inception_4a/3x3
I0403 15:20:28.969490 11857 net.cpp:91] Creating Layer inception_4a/3x3
I0403 15:20:28.969506 11857 net.cpp:425] inception_4a/3x3 <- inception_4a/3x3_reduce
I0403 15:20:28.969527 11857 net.cpp:399] inception_4a/3x3 -> inception_4a/3x3
I0403 15:20:28.972231 11857 net.cpp:141] Setting up inception_4a/3x3
I0403 15:20:28.972260 11857 net.cpp:148] Top shape: 24 208 14 14 (978432)
I0403 15:20:28.972275 11857 net.cpp:156] Memory required for data: 869149728
I0403 15:20:28.972293 11857 layer_factory.hpp:77] Creating layer inception_4a/relu_3x3
I0403 15:20:28.972313 11857 net.cpp:91] Creating Layer inception_4a/relu_3x3
I0403 15:20:28.972333 11857 net.cpp:425] inception_4a/relu_3x3 <- inception_4a/3x3
I0403 15:20:28.972350 11857 net.cpp:386] inception_4a/relu_3x3 -> inception_4a/3x3 (in-place)
I0403 15:20:28.972640 11857 net.cpp:141] Setting up inception_4a/relu_3x3
I0403 15:20:28.972666 11857 net.cpp:148] Top shape: 24 208 14 14 (978432)
I0403 15:20:28.972681 11857 net.cpp:156] Memory required for data: 873063456
I0403 15:20:28.972695 11857 layer_factory.hpp:77] Creating layer inception_4a/5x5_reduce
I0403 15:20:28.972719 11857 net.cpp:91] Creating Layer inception_4a/5x5_reduce
I0403 15:20:28.972736 11857 net.cpp:425] inception_4a/5x5_reduce <- pool3/3x3_s2_pool3/3x3_s2_0_split_2
I0403 15:20:28.972757 11857 net.cpp:399] inception_4a/5x5_reduce -> inception_4a/5x5_reduce
I0403 15:20:28.973788 11857 net.cpp:141] Setting up inception_4a/5x5_reduce
I0403 15:20:28.973815 11857 net.cpp:148] Top shape: 24 16 14 14 (75264)
I0403 15:20:28.973830 11857 net.cpp:156] Memory required for data: 873364512
I0403 15:20:28.973848 11857 layer_factory.hpp:77] Creating layer inception_4a/relu_5x5_reduce
I0403 15:20:28.973870 11857 net.cpp:91] Creating Layer inception_4a/relu_5x5_reduce
I0403 15:20:28.973886 11857 net.cpp:425] inception_4a/relu_5x5_reduce <- inception_4a/5x5_reduce
I0403 15:20:28.973903 11857 net.cpp:386] inception_4a/relu_5x5_reduce -> inception_4a/5x5_reduce (in-place)
I0403 15:20:28.974081 11857 net.cpp:141] Setting up inception_4a/relu_5x5_reduce
I0403 15:20:28.974105 11857 net.cpp:148] Top shape: 24 16 14 14 (75264)
I0403 15:20:28.974119 11857 net.cpp:156] Memory required for data: 873665568
I0403 15:20:28.974134 11857 layer_factory.hpp:77] Creating layer inception_4a/5x5
I0403 15:20:28.974160 11857 net.cpp:91] Creating Layer inception_4a/5x5
I0403 15:20:28.974179 11857 net.cpp:425] inception_4a/5x5 <- inception_4a/5x5_reduce
I0403 15:20:28.974195 11857 net.cpp:399] inception_4a/5x5 -> inception_4a/5x5
I0403 15:20:28.975275 11857 net.cpp:141] Setting up inception_4a/5x5
I0403 15:20:28.975306 11857 net.cpp:148] Top shape: 24 48 14 14 (225792)
I0403 15:20:28.975323 11857 net.cpp:156] Memory required for data: 874568736
I0403 15:20:28.975342 11857 layer_factory.hpp:77] Creating layer inception_4a/relu_5x5
I0403 15:20:28.975358 11857 net.cpp:91] Creating Layer inception_4a/relu_5x5
I0403 15:20:28.975374 11857 net.cpp:425] inception_4a/relu_5x5 <- inception_4a/5x5
I0403 15:20:28.975392 11857 net.cpp:386] inception_4a/relu_5x5 -> inception_4a/5x5 (in-place)
I0403 15:20:28.975574 11857 net.cpp:141] Setting up inception_4a/relu_5x5
I0403 15:20:28.975600 11857 net.cpp:148] Top shape: 24 48 14 14 (225792)
I0403 15:20:28.975615 11857 net.cpp:156] Memory required for data: 875471904
I0403 15:20:28.975630 11857 layer_factory.hpp:77] Creating layer inception_4a/pool
I0403 15:20:28.975646 11857 net.cpp:91] Creating Layer inception_4a/pool
I0403 15:20:28.975661 11857 net.cpp:425] inception_4a/pool <- pool3/3x3_s2_pool3/3x3_s2_0_split_3
I0403 15:20:28.975682 11857 net.cpp:399] inception_4a/pool -> inception_4a/pool
I0403 15:20:28.975740 11857 net.cpp:141] Setting up inception_4a/pool
I0403 15:20:28.975765 11857 net.cpp:148] Top shape: 24 480 14 14 (2257920)
I0403 15:20:28.975780 11857 net.cpp:156] Memory required for data: 884503584
I0403 15:20:28.975795 11857 layer_factory.hpp:77] Creating layer inception_4a/pool_proj
I0403 15:20:28.975813 11857 net.cpp:91] Creating Layer inception_4a/pool_proj
I0403 15:20:28.975828 11857 net.cpp:425] inception_4a/pool_proj <- inception_4a/pool
I0403 15:20:28.975848 11857 net.cpp:399] inception_4a/pool_proj -> inception_4a/pool_proj
I0403 15:20:28.977008 11857 net.cpp:141] Setting up inception_4a/pool_proj
I0403 15:20:28.977041 11857 net.cpp:148] Top shape: 24 64 14 14 (301056)
I0403 15:20:28.977071 11857 net.cpp:156] Memory required for data: 885707808
I0403 15:20:28.977089 11857 layer_factory.hpp:77] Creating layer inception_4a/relu_pool_proj
I0403 15:20:28.977108 11857 net.cpp:91] Creating Layer inception_4a/relu_pool_proj
I0403 15:20:28.977123 11857 net.cpp:425] inception_4a/relu_pool_proj <- inception_4a/pool_proj
I0403 15:20:28.977139 11857 net.cpp:386] inception_4a/relu_pool_proj -> inception_4a/pool_proj (in-place)
I0403 15:20:28.977430 11857 net.cpp:141] Setting up inception_4a/relu_pool_proj
I0403 15:20:28.977458 11857 net.cpp:148] Top shape: 24 64 14 14 (301056)
I0403 15:20:28.977473 11857 net.cpp:156] Memory required for data: 886912032
I0403 15:20:28.977488 11857 layer_factory.hpp:77] Creating layer inception_4a/output
I0403 15:20:28.977504 11857 net.cpp:91] Creating Layer inception_4a/output
I0403 15:20:28.977520 11857 net.cpp:425] inception_4a/output <- inception_4a/1x1
I0403 15:20:28.977536 11857 net.cpp:425] inception_4a/output <- inception_4a/3x3
I0403 15:20:28.977551 11857 net.cpp:425] inception_4a/output <- inception_4a/5x5
I0403 15:20:28.977566 11857 net.cpp:425] inception_4a/output <- inception_4a/pool_proj
I0403 15:20:28.977583 11857 net.cpp:399] inception_4a/output -> inception_4a/output
I0403 15:20:28.977628 11857 net.cpp:141] Setting up inception_4a/output
I0403 15:20:28.977651 11857 net.cpp:148] Top shape: 24 512 14 14 (2408448)
I0403 15:20:28.977665 11857 net.cpp:156] Memory required for data: 896545824
I0403 15:20:28.977679 11857 layer_factory.hpp:77] Creating layer inception_4a/output_inception_4a/output_0_split
I0403 15:20:28.977702 11857 net.cpp:91] Creating Layer inception_4a/output_inception_4a/output_0_split
I0403 15:20:28.977718 11857 net.cpp:425] inception_4a/output_inception_4a/output_0_split <- inception_4a/output
I0403 15:20:28.977735 11857 net.cpp:399] inception_4a/output_inception_4a/output_0_split -> inception_4a/output_inception_4a/output_0_split_0
I0403 15:20:28.977754 11857 net.cpp:399] inception_4a/output_inception_4a/output_0_split -> inception_4a/output_inception_4a/output_0_split_1
I0403 15:20:28.977774 11857 net.cpp:399] inception_4a/output_inception_4a/output_0_split -> inception_4a/output_inception_4a/output_0_split_2
I0403 15:20:28.977797 11857 net.cpp:399] inception_4a/output_inception_4a/output_0_split -> inception_4a/output_inception_4a/output_0_split_3
I0403 15:20:28.977818 11857 net.cpp:399] inception_4a/output_inception_4a/output_0_split -> inception_4a/output_inception_4a/output_0_split_4
I0403 15:20:28.977910 11857 net.cpp:141] Setting up inception_4a/output_inception_4a/output_0_split
I0403 15:20:28.977932 11857 net.cpp:148] Top shape: 24 512 14 14 (2408448)
I0403 15:20:28.977947 11857 net.cpp:148] Top shape: 24 512 14 14 (2408448)
I0403 15:20:28.977962 11857 net.cpp:148] Top shape: 24 512 14 14 (2408448)
I0403 15:20:28.977977 11857 net.cpp:148] Top shape: 24 512 14 14 (2408448)
I0403 15:20:28.977993 11857 net.cpp:148] Top shape: 24 512 14 14 (2408448)
I0403 15:20:28.978005 11857 net.cpp:156] Memory required for data: 944714784
I0403 15:20:28.978019 11857 layer_factory.hpp:77] Creating layer loss1/ave_pool
I0403 15:20:28.978039 11857 net.cpp:91] Creating Layer loss1/ave_pool
I0403 15:20:28.978055 11857 net.cpp:425] loss1/ave_pool <- inception_4a/output_inception_4a/output_0_split_0
I0403 15:20:28.978073 11857 net.cpp:399] loss1/ave_pool -> loss1/ave_pool
I0403 15:20:28.978279 11857 net.cpp:141] Setting up loss1/ave_pool
I0403 15:20:28.978307 11857 net.cpp:148] Top shape: 24 512 4 4 (196608)
I0403 15:20:28.978323 11857 net.cpp:156] Memory required for data: 945501216
I0403 15:20:28.978338 11857 layer_factory.hpp:77] Creating layer loss1/conv
I0403 15:20:28.978360 11857 net.cpp:91] Creating Layer loss1/conv
I0403 15:20:28.978377 11857 net.cpp:425] loss1/conv <- loss1/ave_pool
I0403 15:20:28.978395 11857 net.cpp:399] loss1/conv -> loss1/conv
I0403 15:20:28.979899 11857 net.cpp:141] Setting up loss1/conv
I0403 15:20:28.979928 11857 net.cpp:148] Top shape: 24 128 4 4 (49152)
I0403 15:20:28.979960 11857 net.cpp:156] Memory required for data: 945697824
I0403 15:20:28.979980 11857 layer_factory.hpp:77] Creating layer loss1/relu_conv
I0403 15:20:28.980002 11857 net.cpp:91] Creating Layer loss1/relu_conv
I0403 15:20:28.980018 11857 net.cpp:425] loss1/relu_conv <- loss1/conv
I0403 15:20:28.980036 11857 net.cpp:386] loss1/relu_conv -> loss1/conv (in-place)
I0403 15:20:28.980324 11857 net.cpp:141] Setting up loss1/relu_conv
I0403 15:20:28.980351 11857 net.cpp:148] Top shape: 24 128 4 4 (49152)
I0403 15:20:28.980366 11857 net.cpp:156] Memory required for data: 945894432
I0403 15:20:28.980381 11857 layer_factory.hpp:77] Creating layer loss1/fc
I0403 15:20:28.980407 11857 net.cpp:91] Creating Layer loss1/fc
I0403 15:20:28.980429 11857 net.cpp:425] loss1/fc <- loss1/conv
I0403 15:20:28.980449 11857 net.cpp:399] loss1/fc -> loss1/fc
I0403 15:20:28.998800 11857 net.cpp:141] Setting up loss1/fc
I0403 15:20:28.998847 11857 net.cpp:148] Top shape: 24 1024 (24576)
I0403 15:20:28.998862 11857 net.cpp:156] Memory required for data: 945992736
I0403 15:20:28.998883 11857 layer_factory.hpp:77] Creating layer loss1/relu_fc
I0403 15:20:28.998905 11857 net.cpp:91] Creating Layer loss1/relu_fc
I0403 15:20:28.998924 11857 net.cpp:425] loss1/relu_fc <- loss1/fc
I0403 15:20:28.998944 11857 net.cpp:386] loss1/relu_fc -> loss1/fc (in-place)
I0403 15:20:28.999166 11857 net.cpp:141] Setting up loss1/relu_fc
I0403 15:20:28.999191 11857 net.cpp:148] Top shape: 24 1024 (24576)
I0403 15:20:28.999203 11857 net.cpp:156] Memory required for data: 946091040
I0403 15:20:28.999217 11857 layer_factory.hpp:77] Creating layer loss1/drop_fc
I0403 15:20:28.999245 11857 net.cpp:91] Creating Layer loss1/drop_fc
I0403 15:20:28.999263 11857 net.cpp:425] loss1/drop_fc <- loss1/fc
I0403 15:20:28.999281 11857 net.cpp:386] loss1/drop_fc -> loss1/fc (in-place)
I0403 15:20:28.999332 11857 net.cpp:141] Setting up loss1/drop_fc
I0403 15:20:28.999353 11857 net.cpp:148] Top shape: 24 1024 (24576)
I0403 15:20:28.999367 11857 net.cpp:156] Memory required for data: 946189344
I0403 15:20:28.999382 11857 layer_factory.hpp:77] Creating layer loss1/classifier_plantvillage
I0403 15:20:28.999404 11857 net.cpp:91] Creating Layer loss1/classifier_plantvillage
I0403 15:20:28.999425 11857 net.cpp:425] loss1/classifier_plantvillage <- loss1/fc
I0403 15:20:28.999445 11857 net.cpp:399] loss1/classifier_plantvillage -> loss1/classifier_plantvillage
I0403 15:20:29.000344 11857 net.cpp:141] Setting up loss1/classifier_plantvillage
I0403 15:20:29.000372 11857 net.cpp:148] Top shape: 24 38 (912)
I0403 15:20:29.000387 11857 net.cpp:156] Memory required for data: 946192992
I0403 15:20:29.000406 11857 layer_factory.hpp:77] Creating layer loss1/classifier_plantvillage_loss1/classifier_plantvillage_0_split
I0403 15:20:29.000427 11857 net.cpp:91] Creating Layer loss1/classifier_plantvillage_loss1/classifier_plantvillage_0_split
I0403 15:20:29.000442 11857 net.cpp:425] loss1/classifier_plantvillage_loss1/classifier_plantvillage_0_split <- loss1/classifier_plantvillage
I0403 15:20:29.000461 11857 net.cpp:399] loss1/classifier_plantvillage_loss1/classifier_plantvillage_0_split -> loss1/classifier_plantvillage_loss1/classifier_plantvillage_0_split_0
I0403 15:20:29.000483 11857 net.cpp:399] loss1/classifier_plantvillage_loss1/classifier_plantvillage_0_split -> loss1/classifier_plantvillage_loss1/classifier_plantvillage_0_split_1
I0403 15:20:29.000501 11857 net.cpp:399] loss1/classifier_plantvillage_loss1/classifier_plantvillage_0_split -> loss1/classifier_plantvillage_loss1/classifier_plantvillage_0_split_2
I0403 15:20:29.000565 11857 net.cpp:141] Setting up loss1/classifier_plantvillage_loss1/classifier_plantvillage_0_split
I0403 15:20:29.000586 11857 net.cpp:148] Top shape: 24 38 (912)
I0403 15:20:29.000600 11857 net.cpp:148] Top shape: 24 38 (912)
I0403 15:20:29.000615 11857 net.cpp:148] Top shape: 24 38 (912)
I0403 15:20:29.000627 11857 net.cpp:156] Memory required for data: 946203936
I0403 15:20:29.000641 11857 layer_factory.hpp:77] Creating layer inception_4b/1x1
I0403 15:20:29.000664 11857 net.cpp:91] Creating Layer inception_4b/1x1
I0403 15:20:29.000701 11857 net.cpp:425] inception_4b/1x1 <- inception_4a/output_inception_4a/output_0_split_1
I0403 15:20:29.000720 11857 net.cpp:399] inception_4b/1x1 -> inception_4b/1x1
I0403 15:20:29.002356 11857 net.cpp:141] Setting up inception_4b/1x1
I0403 15:20:29.002383 11857 net.cpp:148] Top shape: 24 160 14 14 (752640)
I0403 15:20:29.002398 11857 net.cpp:156] Memory required for data: 949214496
I0403 15:20:29.002426 11857 layer_factory.hpp:77] Creating layer inception_4b/relu_1x1
I0403 15:20:29.002449 11857 net.cpp:91] Creating Layer inception_4b/relu_1x1
I0403 15:20:29.002465 11857 net.cpp:425] inception_4b/relu_1x1 <- inception_4b/1x1
I0403 15:20:29.002480 11857 net.cpp:386] inception_4b/relu_1x1 -> inception_4b/1x1 (in-place)
I0403 15:20:29.002658 11857 net.cpp:141] Setting up inception_4b/relu_1x1
I0403 15:20:29.002682 11857 net.cpp:148] Top shape: 24 160 14 14 (752640)
I0403 15:20:29.002696 11857 net.cpp:156] Memory required for data: 952225056
I0403 15:20:29.002709 11857 layer_factory.hpp:77] Creating layer inception_4b/3x3_reduce
I0403 15:20:29.002732 11857 net.cpp:91] Creating Layer inception_4b/3x3_reduce
I0403 15:20:29.002748 11857 net.cpp:425] inception_4b/3x3_reduce <- inception_4a/output_inception_4a/output_0_split_2
I0403 15:20:29.002766 11857 net.cpp:399] inception_4b/3x3_reduce -> inception_4b/3x3_reduce
I0403 15:20:29.004086 11857 net.cpp:141] Setting up inception_4b/3x3_reduce
I0403 15:20:29.004112 11857 net.cpp:148] Top shape: 24 112 14 14 (526848)
I0403 15:20:29.004127 11857 net.cpp:156] Memory required for data: 954332448
I0403 15:20:29.004144 11857 layer_factory.hpp:77] Creating layer inception_4b/relu_3x3_reduce
I0403 15:20:29.004163 11857 net.cpp:91] Creating Layer inception_4b/relu_3x3_reduce
I0403 15:20:29.004179 11857 net.cpp:425] inception_4b/relu_3x3_reduce <- inception_4b/3x3_reduce
I0403 15:20:29.004195 11857 net.cpp:386] inception_4b/relu_3x3_reduce -> inception_4b/3x3_reduce (in-place)
I0403 15:20:29.004477 11857 net.cpp:141] Setting up inception_4b/relu_3x3_reduce
I0403 15:20:29.004501 11857 net.cpp:148] Top shape: 24 112 14 14 (526848)
I0403 15:20:29.004515 11857 net.cpp:156] Memory required for data: 956439840
I0403 15:20:29.004529 11857 layer_factory.hpp:77] Creating layer inception_4b/3x3
I0403 15:20:29.004550 11857 net.cpp:91] Creating Layer inception_4b/3x3
I0403 15:20:29.004567 11857 net.cpp:425] inception_4b/3x3 <- inception_4b/3x3_reduce
I0403 15:20:29.004587 11857 net.cpp:399] inception_4b/3x3 -> inception_4b/3x3
I0403 15:20:29.007478 11857 net.cpp:141] Setting up inception_4b/3x3
I0403 15:20:29.007508 11857 net.cpp:148] Top shape: 24 224 14 14 (1053696)
I0403 15:20:29.007524 11857 net.cpp:156] Memory required for data: 960654624
I0403 15:20:29.007542 11857 layer_factory.hpp:77] Creating layer inception_4b/relu_3x3
I0403 15:20:29.007560 11857 net.cpp:91] Creating Layer inception_4b/relu_3x3
I0403 15:20:29.007575 11857 net.cpp:425] inception_4b/relu_3x3 <- inception_4b/3x3
I0403 15:20:29.007594 11857 net.cpp:386] inception_4b/relu_3x3 -> inception_4b/3x3 (in-place)
I0403 15:20:29.007772 11857 net.cpp:141] Setting up inception_4b/relu_3x3
I0403 15:20:29.007796 11857 net.cpp:148] Top shape: 24 224 14 14 (1053696)
I0403 15:20:29.007809 11857 net.cpp:156] Memory required for data: 964869408
I0403 15:20:29.007823 11857 layer_factory.hpp:77] Creating layer inception_4b/5x5_reduce
I0403 15:20:29.007844 11857 net.cpp:91] Creating Layer inception_4b/5x5_reduce
I0403 15:20:29.007860 11857 net.cpp:425] inception_4b/5x5_reduce <- inception_4a/output_inception_4a/output_0_split_3
I0403 15:20:29.007882 11857 net.cpp:399] inception_4b/5x5_reduce -> inception_4b/5x5_reduce
I0403 15:20:29.008934 11857 net.cpp:141] Setting up inception_4b/5x5_reduce
I0403 15:20:29.008960 11857 net.cpp:148] Top shape: 24 24 14 14 (112896)
I0403 15:20:29.008975 11857 net.cpp:156] Memory required for data: 965320992
I0403 15:20:29.008991 11857 layer_factory.hpp:77] Creating layer inception_4b/relu_5x5_reduce
I0403 15:20:29.009011 11857 net.cpp:91] Creating Layer inception_4b/relu_5x5_reduce
I0403 15:20:29.009040 11857 net.cpp:425] inception_4b/relu_5x5_reduce <- inception_4b/5x5_reduce
I0403 15:20:29.009058 11857 net.cpp:386] inception_4b/relu_5x5_reduce -> inception_4b/5x5_reduce (in-place)
I0403 15:20:29.009237 11857 net.cpp:141] Setting up inception_4b/relu_5x5_reduce
I0403 15:20:29.009263 11857 net.cpp:148] Top shape: 24 24 14 14 (112896)
I0403 15:20:29.009277 11857 net.cpp:156] Memory required for data: 965772576
I0403 15:20:29.009291 11857 layer_factory.hpp:77] Creating layer inception_4b/5x5
I0403 15:20:29.009315 11857 net.cpp:91] Creating Layer inception_4b/5x5
I0403 15:20:29.009331 11857 net.cpp:425] inception_4b/5x5 <- inception_4b/5x5_reduce
I0403 15:20:29.009349 11857 net.cpp:399] inception_4b/5x5 -> inception_4b/5x5
I0403 15:20:29.010574 11857 net.cpp:141] Setting up inception_4b/5x5
I0403 15:20:29.010601 11857 net.cpp:148] Top shape: 24 64 14 14 (301056)
I0403 15:20:29.010628 11857 net.cpp:156] Memory required for data: 966976800
I0403 15:20:29.010646 11857 layer_factory.hpp:77] Creating layer inception_4b/relu_5x5
I0403 15:20:29.010665 11857 net.cpp:91] Creating Layer inception_4b/relu_5x5
I0403 15:20:29.010681 11857 net.cpp:425] inception_4b/relu_5x5 <- inception_4b/5x5
I0403 15:20:29.010697 11857 net.cpp:386] inception_4b/relu_5x5 -> inception_4b/5x5 (in-place)
I0403 15:20:29.010978 11857 net.cpp:141] Setting up inception_4b/relu_5x5
I0403 15:20:29.011003 11857 net.cpp:148] Top shape: 24 64 14 14 (301056)
I0403 15:20:29.011018 11857 net.cpp:156] Memory required for data: 968181024
I0403 15:20:29.011031 11857 layer_factory.hpp:77] Creating layer inception_4b/pool
I0403 15:20:29.011049 11857 net.cpp:91] Creating Layer inception_4b/pool
I0403 15:20:29.011066 11857 net.cpp:425] inception_4b/pool <- inception_4a/output_inception_4a/output_0_split_4
I0403 15:20:29.011085 11857 net.cpp:399] inception_4b/pool -> inception_4b/pool
I0403 15:20:29.011147 11857 net.cpp:141] Setting up inception_4b/pool
I0403 15:20:29.011169 11857 net.cpp:148] Top shape: 24 512 14 14 (2408448)
I0403 15:20:29.011183 11857 net.cpp:156] Memory required for data: 977814816
I0403 15:20:29.011198 11857 layer_factory.hpp:77] Creating layer inception_4b/pool_proj
I0403 15:20:29.011217 11857 net.cpp:91] Creating Layer inception_4b/pool_proj
I0403 15:20:29.011234 11857 net.cpp:425] inception_4b/pool_proj <- inception_4b/pool
I0403 15:20:29.011253 11857 net.cpp:399] inception_4b/pool_proj -> inception_4b/pool_proj
I0403 15:20:29.012431 11857 net.cpp:141] Setting up inception_4b/pool_proj
I0403 15:20:29.012459 11857 net.cpp:148] Top shape: 24 64 14 14 (301056)
I0403 15:20:29.012475 11857 net.cpp:156] Memory required for data: 979019040
I0403 15:20:29.012490 11857 layer_factory.hpp:77] Creating layer inception_4b/relu_pool_proj
I0403 15:20:29.012511 11857 net.cpp:91] Creating Layer inception_4b/relu_pool_proj
I0403 15:20:29.012527 11857 net.cpp:425] inception_4b/relu_pool_proj <- inception_4b/pool_proj
I0403 15:20:29.012543 11857 net.cpp:386] inception_4b/relu_pool_proj -> inception_4b/pool_proj (in-place)
I0403 15:20:29.012722 11857 net.cpp:141] Setting up inception_4b/relu_pool_proj
I0403 15:20:29.012745 11857 net.cpp:148] Top shape: 24 64 14 14 (301056)
I0403 15:20:29.012759 11857 net.cpp:156] Memory required for data: 980223264
I0403 15:20:29.012773 11857 layer_factory.hpp:77] Creating layer inception_4b/output
I0403 15:20:29.012791 11857 net.cpp:91] Creating Layer inception_4b/output
I0403 15:20:29.012807 11857 net.cpp:425] inception_4b/output <- inception_4b/1x1
I0403 15:20:29.012823 11857 net.cpp:425] inception_4b/output <- inception_4b/3x3
I0403 15:20:29.012838 11857 net.cpp:425] inception_4b/output <- inception_4b/5x5
I0403 15:20:29.012853 11857 net.cpp:425] inception_4b/output <- inception_4b/pool_proj
I0403 15:20:29.012869 11857 net.cpp:399] inception_4b/output -> inception_4b/output
I0403 15:20:29.012914 11857 net.cpp:141] Setting up inception_4b/output
I0403 15:20:29.012936 11857 net.cpp:148] Top shape: 24 512 14 14 (2408448)
I0403 15:20:29.012950 11857 net.cpp:156] Memory required for data: 989857056
I0403 15:20:29.012980 11857 layer_factory.hpp:77] Creating layer inception_4b/output_inception_4b/output_0_split
I0403 15:20:29.012998 11857 net.cpp:91] Creating Layer inception_4b/output_inception_4b/output_0_split
I0403 15:20:29.013012 11857 net.cpp:425] inception_4b/output_inception_4b/output_0_split <- inception_4b/output
I0403 15:20:29.013031 11857 net.cpp:399] inception_4b/output_inception_4b/output_0_split -> inception_4b/output_inception_4b/output_0_split_0
I0403 15:20:29.013051 11857 net.cpp:399] inception_4b/output_inception_4b/output_0_split -> inception_4b/output_inception_4b/output_0_split_1
I0403 15:20:29.013070 11857 net.cpp:399] inception_4b/output_inception_4b/output_0_split -> inception_4b/output_inception_4b/output_0_split_2
I0403 15:20:29.013089 11857 net.cpp:399] inception_4b/output_inception_4b/output_0_split -> inception_4b/output_inception_4b/output_0_split_3
I0403 15:20:29.013172 11857 net.cpp:141] Setting up inception_4b/output_inception_4b/output_0_split
I0403 15:20:29.013195 11857 net.cpp:148] Top shape: 24 512 14 14 (2408448)
I0403 15:20:29.013209 11857 net.cpp:148] Top shape: 24 512 14 14 (2408448)
I0403 15:20:29.013224 11857 net.cpp:148] Top shape: 24 512 14 14 (2408448)
I0403 15:20:29.013238 11857 net.cpp:148] Top shape: 24 512 14 14 (2408448)
I0403 15:20:29.013252 11857 net.cpp:156] Memory required for data: 1028392224
I0403 15:20:29.013265 11857 layer_factory.hpp:77] Creating layer inception_4c/1x1
I0403 15:20:29.013286 11857 net.cpp:91] Creating Layer inception_4c/1x1
I0403 15:20:29.013301 11857 net.cpp:425] inception_4c/1x1 <- inception_4b/output_inception_4b/output_0_split_0
I0403 15:20:29.013321 11857 net.cpp:399] inception_4c/1x1 -> inception_4c/1x1
I0403 15:20:29.014719 11857 net.cpp:141] Setting up inception_4c/1x1
I0403 15:20:29.014750 11857 net.cpp:148] Top shape: 24 128 14 14 (602112)
I0403 15:20:29.014765 11857 net.cpp:156] Memory required for data: 1030800672
I0403 15:20:29.014782 11857 layer_factory.hpp:77] Creating layer inception_4c/relu_1x1
I0403 15:20:29.014799 11857 net.cpp:91] Creating Layer inception_4c/relu_1x1
I0403 15:20:29.014814 11857 net.cpp:425] inception_4c/relu_1x1 <- inception_4c/1x1
I0403 15:20:29.014832 11857 net.cpp:386] inception_4c/relu_1x1 -> inception_4c/1x1 (in-place)
I0403 15:20:29.015007 11857 net.cpp:141] Setting up inception_4c/relu_1x1
I0403 15:20:29.015030 11857 net.cpp:148] Top shape: 24 128 14 14 (602112)
I0403 15:20:29.015044 11857 net.cpp:156] Memory required for data: 1033209120
I0403 15:20:29.015058 11857 layer_factory.hpp:77] Creating layer inception_4c/3x3_reduce
I0403 15:20:29.015077 11857 net.cpp:91] Creating Layer inception_4c/3x3_reduce
I0403 15:20:29.015094 11857 net.cpp:425] inception_4c/3x3_reduce <- inception_4b/output_inception_4b/output_0_split_1
I0403 15:20:29.015115 11857 net.cpp:399] inception_4c/3x3_reduce -> inception_4c/3x3_reduce
I0403 15:20:29.017021 11857 net.cpp:141] Setting up inception_4c/3x3_reduce
I0403 15:20:29.017048 11857 net.cpp:148] Top shape: 24 128 14 14 (602112)
I0403 15:20:29.017063 11857 net.cpp:156] Memory required for data: 1035617568
I0403 15:20:29.017081 11857 layer_factory.hpp:77] Creating layer inception_4c/relu_3x3_reduce
I0403 15:20:29.017098 11857 net.cpp:91] Creating Layer inception_4c/relu_3x3_reduce
I0403 15:20:29.017113 11857 net.cpp:425] inception_4c/relu_3x3_reduce <- inception_4c/3x3_reduce
I0403 15:20:29.017132 11857 net.cpp:386] inception_4c/relu_3x3_reduce -> inception_4c/3x3_reduce (in-place)
I0403 15:20:29.017431 11857 net.cpp:141] Setting up inception_4c/relu_3x3_reduce
I0403 15:20:29.017457 11857 net.cpp:148] Top shape: 24 128 14 14 (602112)
I0403 15:20:29.017470 11857 net.cpp:156] Memory required for data: 1038026016
I0403 15:20:29.017484 11857 layer_factory.hpp:77] Creating layer inception_4c/3x3
I0403 15:20:29.017506 11857 net.cpp:91] Creating Layer inception_4c/3x3
I0403 15:20:29.017524 11857 net.cpp:425] inception_4c/3x3 <- inception_4c/3x3_reduce
I0403 15:20:29.017544 11857 net.cpp:399] inception_4c/3x3 -> inception_4c/3x3
I0403 15:20:29.021049 11857 net.cpp:141] Setting up inception_4c/3x3
I0403 15:20:29.021088 11857 net.cpp:148] Top shape: 24 256 14 14 (1204224)
I0403 15:20:29.021105 11857 net.cpp:156] Memory required for data: 1042842912
I0403 15:20:29.021137 11857 layer_factory.hpp:77] Creating layer inception_4c/relu_3x3
I0403 15:20:29.021159 11857 net.cpp:91] Creating Layer inception_4c/relu_3x3
I0403 15:20:29.021175 11857 net.cpp:425] inception_4c/relu_3x3 <- inception_4c/3x3
I0403 15:20:29.021193 11857 net.cpp:386] inception_4c/relu_3x3 -> inception_4c/3x3 (in-place)
I0403 15:20:29.021369 11857 net.cpp:141] Setting up inception_4c/relu_3x3
I0403 15:20:29.021394 11857 net.cpp:148] Top shape: 24 256 14 14 (1204224)
I0403 15:20:29.021406 11857 net.cpp:156] Memory required for data: 1047659808
I0403 15:20:29.021425 11857 layer_factory.hpp:77] Creating layer inception_4c/5x5_reduce
I0403 15:20:29.021447 11857 net.cpp:91] Creating Layer inception_4c/5x5_reduce
I0403 15:20:29.021464 11857 net.cpp:425] inception_4c/5x5_reduce <- inception_4b/output_inception_4b/output_0_split_2
I0403 15:20:29.021486 11857 net.cpp:399] inception_4c/5x5_reduce -> inception_4c/5x5_reduce
I0403 15:20:29.022555 11857 net.cpp:141] Setting up inception_4c/5x5_reduce
I0403 15:20:29.022583 11857 net.cpp:148] Top shape: 24 24 14 14 (112896)
I0403 15:20:29.022598 11857 net.cpp:156] Memory required for data: 1048111392
I0403 15:20:29.022614 11857 layer_factory.hpp:77] Creating layer inception_4c/relu_5x5_reduce
I0403 15:20:29.022634 11857 net.cpp:91] Creating Layer inception_4c/relu_5x5_reduce
I0403 15:20:29.022650 11857 net.cpp:425] inception_4c/relu_5x5_reduce <- inception_4c/5x5_reduce
I0403 15:20:29.022666 11857 net.cpp:386] inception_4c/relu_5x5_reduce -> inception_4c/5x5_reduce (in-place)
I0403 15:20:29.022846 11857 net.cpp:141] Setting up inception_4c/relu_5x5_reduce
I0403 15:20:29.022872 11857 net.cpp:148] Top shape: 24 24 14 14 (112896)
I0403 15:20:29.022887 11857 net.cpp:156] Memory required for data: 1048562976
I0403 15:20:29.022902 11857 layer_factory.hpp:77] Creating layer inception_4c/5x5
I0403 15:20:29.022923 11857 net.cpp:91] Creating Layer inception_4c/5x5
I0403 15:20:29.022939 11857 net.cpp:425] inception_4c/5x5 <- inception_4c/5x5_reduce
I0403 15:20:29.022958 11857 net.cpp:399] inception_4c/5x5 -> inception_4c/5x5
I0403 15:20:29.024169 11857 net.cpp:141] Setting up inception_4c/5x5
I0403 15:20:29.024195 11857 net.cpp:148] Top shape: 24 64 14 14 (301056)
I0403 15:20:29.024210 11857 net.cpp:156] Memory required for data: 1049767200
I0403 15:20:29.024227 11857 layer_factory.hpp:77] Creating layer inception_4c/relu_5x5
I0403 15:20:29.024247 11857 net.cpp:91] Creating Layer inception_4c/relu_5x5
I0403 15:20:29.024263 11857 net.cpp:425] inception_4c/relu_5x5 <- inception_4c/5x5
I0403 15:20:29.024279 11857 net.cpp:386] inception_4c/relu_5x5 -> inception_4c/5x5 (in-place)
I0403 15:20:29.024569 11857 net.cpp:141] Setting up inception_4c/relu_5x5
I0403 15:20:29.024595 11857 net.cpp:148] Top shape: 24 64 14 14 (301056)
I0403 15:20:29.024607 11857 net.cpp:156] Memory required for data: 1050971424
I0403 15:20:29.024621 11857 layer_factory.hpp:77] Creating layer inception_4c/pool
I0403 15:20:29.024641 11857 net.cpp:91] Creating Layer inception_4c/pool
I0403 15:20:29.024657 11857 net.cpp:425] inception_4c/pool <- inception_4b/output_inception_4b/output_0_split_3
I0403 15:20:29.024677 11857 net.cpp:399] inception_4c/pool -> inception_4c/pool
I0403 15:20:29.024739 11857 net.cpp:141] Setting up inception_4c/pool
I0403 15:20:29.024761 11857 net.cpp:148] Top shape: 24 512 14 14 (2408448)
I0403 15:20:29.024775 11857 net.cpp:156] Memory required for data: 1060605216
I0403 15:20:29.024788 11857 layer_factory.hpp:77] Creating layer inception_4c/pool_proj
I0403 15:20:29.024809 11857 net.cpp:91] Creating Layer inception_4c/pool_proj
I0403 15:20:29.024826 11857 net.cpp:425] inception_4c/pool_proj <- inception_4c/pool
I0403 15:20:29.024845 11857 net.cpp:399] inception_4c/pool_proj -> inception_4c/pool_proj
I0403 15:20:29.026032 11857 net.cpp:141] Setting up inception_4c/pool_proj
I0403 15:20:29.026058 11857 net.cpp:148] Top shape: 24 64 14 14 (301056)
I0403 15:20:29.026087 11857 net.cpp:156] Memory required for data: 1061809440
I0403 15:20:29.026105 11857 layer_factory.hpp:77] Creating layer inception_4c/relu_pool_proj
I0403 15:20:29.026126 11857 net.cpp:91] Creating Layer inception_4c/relu_pool_proj
I0403 15:20:29.026141 11857 net.cpp:425] inception_4c/relu_pool_proj <- inception_4c/pool_proj
I0403 15:20:29.026157 11857 net.cpp:386] inception_4c/relu_pool_proj -> inception_4c/pool_proj (in-place)
I0403 15:20:29.026336 11857 net.cpp:141] Setting up inception_4c/relu_pool_proj
I0403 15:20:29.026360 11857 net.cpp:148] Top shape: 24 64 14 14 (301056)
I0403 15:20:29.026373 11857 net.cpp:156] Memory required for data: 1063013664
I0403 15:20:29.026387 11857 layer_factory.hpp:77] Creating layer inception_4c/output
I0403 15:20:29.026407 11857 net.cpp:91] Creating Layer inception_4c/output
I0403 15:20:29.026427 11857 net.cpp:425] inception_4c/output <- inception_4c/1x1
I0403 15:20:29.026443 11857 net.cpp:425] inception_4c/output <- inception_4c/3x3
I0403 15:20:29.026458 11857 net.cpp:425] inception_4c/output <- inception_4c/5x5
I0403 15:20:29.026473 11857 net.cpp:425] inception_4c/output <- inception_4c/pool_proj
I0403 15:20:29.026489 11857 net.cpp:399] inception_4c/output -> inception_4c/output
I0403 15:20:29.026535 11857 net.cpp:141] Setting up inception_4c/output
I0403 15:20:29.026558 11857 net.cpp:148] Top shape: 24 512 14 14 (2408448)
I0403 15:20:29.026571 11857 net.cpp:156] Memory required for data: 1072647456
I0403 15:20:29.026585 11857 layer_factory.hpp:77] Creating layer inception_4c/output_inception_4c/output_0_split
I0403 15:20:29.026602 11857 net.cpp:91] Creating Layer inception_4c/output_inception_4c/output_0_split
I0403 15:20:29.026617 11857 net.cpp:425] inception_4c/output_inception_4c/output_0_split <- inception_4c/output
I0403 15:20:29.026635 11857 net.cpp:399] inception_4c/output_inception_4c/output_0_split -> inception_4c/output_inception_4c/output_0_split_0
I0403 15:20:29.026655 11857 net.cpp:399] inception_4c/output_inception_4c/output_0_split -> inception_4c/output_inception_4c/output_0_split_1
I0403 15:20:29.026675 11857 net.cpp:399] inception_4c/output_inception_4c/output_0_split -> inception_4c/output_inception_4c/output_0_split_2
I0403 15:20:29.026693 11857 net.cpp:399] inception_4c/output_inception_4c/output_0_split -> inception_4c/output_inception_4c/output_0_split_3
I0403 15:20:29.026778 11857 net.cpp:141] Setting up inception_4c/output_inception_4c/output_0_split
I0403 15:20:29.026800 11857 net.cpp:148] Top shape: 24 512 14 14 (2408448)
I0403 15:20:29.026815 11857 net.cpp:148] Top shape: 24 512 14 14 (2408448)
I0403 15:20:29.026830 11857 net.cpp:148] Top shape: 24 512 14 14 (2408448)
I0403 15:20:29.026844 11857 net.cpp:148] Top shape: 24 512 14 14 (2408448)
I0403 15:20:29.026856 11857 net.cpp:156] Memory required for data: 1111182624
I0403 15:20:29.026870 11857 layer_factory.hpp:77] Creating layer inception_4d/1x1
I0403 15:20:29.026891 11857 net.cpp:91] Creating Layer inception_4d/1x1
I0403 15:20:29.026907 11857 net.cpp:425] inception_4d/1x1 <- inception_4c/output_inception_4c/output_0_split_0
I0403 15:20:29.026929 11857 net.cpp:399] inception_4d/1x1 -> inception_4d/1x1
I0403 15:20:29.028337 11857 net.cpp:141] Setting up inception_4d/1x1
I0403 15:20:29.028368 11857 net.cpp:148] Top shape: 24 112 14 14 (526848)
I0403 15:20:29.028384 11857 net.cpp:156] Memory required for data: 1113290016
I0403 15:20:29.028403 11857 layer_factory.hpp:77] Creating layer inception_4d/relu_1x1
I0403 15:20:29.028425 11857 net.cpp:91] Creating Layer inception_4d/relu_1x1
I0403 15:20:29.028441 11857 net.cpp:425] inception_4d/relu_1x1 <- inception_4d/1x1
I0403 15:20:29.028460 11857 net.cpp:386] inception_4d/relu_1x1 -> inception_4d/1x1 (in-place)
I0403 15:20:29.028648 11857 net.cpp:141] Setting up inception_4d/relu_1x1
I0403 15:20:29.028673 11857 net.cpp:148] Top shape: 24 112 14 14 (526848)
I0403 15:20:29.028687 11857 net.cpp:156] Memory required for data: 1115397408
I0403 15:20:29.028702 11857 layer_factory.hpp:77] Creating layer inception_4d/3x3_reduce
I0403 15:20:29.028738 11857 net.cpp:91] Creating Layer inception_4d/3x3_reduce
I0403 15:20:29.028755 11857 net.cpp:425] inception_4d/3x3_reduce <- inception_4c/output_inception_4c/output_0_split_1
I0403 15:20:29.028776 11857 net.cpp:399] inception_4d/3x3_reduce -> inception_4d/3x3_reduce
I0403 15:20:29.030284 11857 net.cpp:141] Setting up inception_4d/3x3_reduce
I0403 15:20:29.030313 11857 net.cpp:148] Top shape: 24 144 14 14 (677376)
I0403 15:20:29.030329 11857 net.cpp:156] Memory required for data: 1118106912
I0403 15:20:29.030347 11857 layer_factory.hpp:77] Creating layer inception_4d/relu_3x3_reduce
I0403 15:20:29.030364 11857 net.cpp:91] Creating Layer inception_4d/relu_3x3_reduce
I0403 15:20:29.030380 11857 net.cpp:425] inception_4d/relu_3x3_reduce <- inception_4d/3x3_reduce
I0403 15:20:29.030396 11857 net.cpp:386] inception_4d/relu_3x3_reduce -> inception_4d/3x3_reduce (in-place)
I0403 15:20:29.030690 11857 net.cpp:141] Setting up inception_4d/relu_3x3_reduce
I0403 15:20:29.030719 11857 net.cpp:148] Top shape: 24 144 14 14 (677376)
I0403 15:20:29.030735 11857 net.cpp:156] Memory required for data: 1120816416
I0403 15:20:29.030750 11857 layer_factory.hpp:77] Creating layer inception_4d/3x3
I0403 15:20:29.030771 11857 net.cpp:91] Creating Layer inception_4d/3x3
I0403 15:20:29.030788 11857 net.cpp:425] inception_4d/3x3 <- inception_4d/3x3_reduce
I0403 15:20:29.030807 11857 net.cpp:399] inception_4d/3x3 -> inception_4d/3x3
I0403 15:20:29.035073 11857 net.cpp:141] Setting up inception_4d/3x3
I0403 15:20:29.035101 11857 net.cpp:148] Top shape: 24 288 14 14 (1354752)
I0403 15:20:29.035116 11857 net.cpp:156] Memory required for data: 1126235424
I0403 15:20:29.035135 11857 layer_factory.hpp:77] Creating layer inception_4d/relu_3x3
I0403 15:20:29.035152 11857 net.cpp:91] Creating Layer inception_4d/relu_3x3
I0403 15:20:29.035168 11857 net.cpp:425] inception_4d/relu_3x3 <- inception_4d/3x3
I0403 15:20:29.035187 11857 net.cpp:386] inception_4d/relu_3x3 -> inception_4d/3x3 (in-place)
I0403 15:20:29.035373 11857 net.cpp:141] Setting up inception_4d/relu_3x3
I0403 15:20:29.035398 11857 net.cpp:148] Top shape: 24 288 14 14 (1354752)
I0403 15:20:29.035416 11857 net.cpp:156] Memory required for data: 1131654432
I0403 15:20:29.035432 11857 layer_factory.hpp:77] Creating layer inception_4d/5x5_reduce
I0403 15:20:29.035456 11857 net.cpp:91] Creating Layer inception_4d/5x5_reduce
I0403 15:20:29.035473 11857 net.cpp:425] inception_4d/5x5_reduce <- inception_4c/output_inception_4c/output_0_split_2
I0403 15:20:29.035495 11857 net.cpp:399] inception_4d/5x5_reduce -> inception_4d/5x5_reduce
I0403 15:20:29.036676 11857 net.cpp:141] Setting up inception_4d/5x5_reduce
I0403 15:20:29.036705 11857 net.cpp:148] Top shape: 24 32 14 14 (150528)
I0403 15:20:29.036720 11857 net.cpp:156] Memory required for data: 1132256544
I0403 15:20:29.036737 11857 layer_factory.hpp:77] Creating layer inception_4d/relu_5x5_reduce
I0403 15:20:29.036754 11857 net.cpp:91] Creating Layer inception_4d/relu_5x5_reduce
I0403 15:20:29.036770 11857 net.cpp:425] inception_4d/relu_5x5_reduce <- inception_4d/5x5_reduce
I0403 15:20:29.036789 11857 net.cpp:386] inception_4d/relu_5x5_reduce -> inception_4d/5x5_reduce (in-place)
I0403 15:20:29.036979 11857 net.cpp:141] Setting up inception_4d/relu_5x5_reduce
I0403 15:20:29.037003 11857 net.cpp:148] Top shape: 24 32 14 14 (150528)
I0403 15:20:29.037017 11857 net.cpp:156] Memory required for data: 1132858656
I0403 15:20:29.037032 11857 layer_factory.hpp:77] Creating layer inception_4d/5x5
I0403 15:20:29.037053 11857 net.cpp:91] Creating Layer inception_4d/5x5
I0403 15:20:29.037070 11857 net.cpp:425] inception_4d/5x5 <- inception_4d/5x5_reduce
I0403 15:20:29.037091 11857 net.cpp:399] inception_4d/5x5 -> inception_4d/5x5
I0403 15:20:29.038578 11857 net.cpp:141] Setting up inception_4d/5x5
I0403 15:20:29.038605 11857 net.cpp:148] Top shape: 24 64 14 14 (301056)
I0403 15:20:29.038620 11857 net.cpp:156] Memory required for data: 1134062880
I0403 15:20:29.038638 11857 layer_factory.hpp:77] Creating layer inception_4d/relu_5x5
I0403 15:20:29.038673 11857 net.cpp:91] Creating Layer inception_4d/relu_5x5
I0403 15:20:29.038691 11857 net.cpp:425] inception_4d/relu_5x5 <- inception_4d/5x5
I0403 15:20:29.038708 11857 net.cpp:386] inception_4d/relu_5x5 -> inception_4d/5x5 (in-place)
I0403 15:20:29.039012 11857 net.cpp:141] Setting up inception_4d/relu_5x5
I0403 15:20:29.039038 11857 net.cpp:148] Top shape: 24 64 14 14 (301056)
I0403 15:20:29.039053 11857 net.cpp:156] Memory required for data: 1135267104
I0403 15:20:29.039067 11857 layer_factory.hpp:77] Creating layer inception_4d/pool
I0403 15:20:29.039088 11857 net.cpp:91] Creating Layer inception_4d/pool
I0403 15:20:29.039104 11857 net.cpp:425] inception_4d/pool <- inception_4c/output_inception_4c/output_0_split_3
I0403 15:20:29.039122 11857 net.cpp:399] inception_4d/pool -> inception_4d/pool
I0403 15:20:29.039192 11857 net.cpp:141] Setting up inception_4d/pool
I0403 15:20:29.039216 11857 net.cpp:148] Top shape: 24 512 14 14 (2408448)
I0403 15:20:29.039230 11857 net.cpp:156] Memory required for data: 1144900896
I0403 15:20:29.039243 11857 layer_factory.hpp:77] Creating layer inception_4d/pool_proj
I0403 15:20:29.039265 11857 net.cpp:91] Creating Layer inception_4d/pool_proj
I0403 15:20:29.039283 11857 net.cpp:425] inception_4d/pool_proj <- inception_4d/pool
I0403 15:20:29.039302 11857 net.cpp:399] inception_4d/pool_proj -> inception_4d/pool_proj
I0403 15:20:29.041108 11857 net.cpp:141] Setting up inception_4d/pool_proj
I0403 15:20:29.041137 11857 net.cpp:148] Top shape: 24 64 14 14 (301056)
I0403 15:20:29.041152 11857 net.cpp:156] Memory required for data: 1146105120
I0403 15:20:29.041170 11857 layer_factory.hpp:77] Creating layer inception_4d/relu_pool_proj
I0403 15:20:29.041188 11857 net.cpp:91] Creating Layer inception_4d/relu_pool_proj
I0403 15:20:29.041204 11857 net.cpp:425] inception_4d/relu_pool_proj <- inception_4d/pool_proj
I0403 15:20:29.041224 11857 net.cpp:386] inception_4d/relu_pool_proj -> inception_4d/pool_proj (in-place)
I0403 15:20:29.041415 11857 net.cpp:141] Setting up inception_4d/relu_pool_proj
I0403 15:20:29.041440 11857 net.cpp:148] Top shape: 24 64 14 14 (301056)
I0403 15:20:29.041455 11857 net.cpp:156] Memory required for data: 1147309344
I0403 15:20:29.041470 11857 layer_factory.hpp:77] Creating layer inception_4d/output
I0403 15:20:29.041488 11857 net.cpp:91] Creating Layer inception_4d/output
I0403 15:20:29.041506 11857 net.cpp:425] inception_4d/output <- inception_4d/1x1
I0403 15:20:29.041522 11857 net.cpp:425] inception_4d/output <- inception_4d/3x3
I0403 15:20:29.041538 11857 net.cpp:425] inception_4d/output <- inception_4d/5x5
I0403 15:20:29.041553 11857 net.cpp:425] inception_4d/output <- inception_4d/pool_proj
I0403 15:20:29.041569 11857 net.cpp:399] inception_4d/output -> inception_4d/output
I0403 15:20:29.041618 11857 net.cpp:141] Setting up inception_4d/output
I0403 15:20:29.041641 11857 net.cpp:148] Top shape: 24 528 14 14 (2483712)
I0403 15:20:29.041656 11857 net.cpp:156] Memory required for data: 1157244192
I0403 15:20:29.041669 11857 layer_factory.hpp:77] Creating layer inception_4d/output_inception_4d/output_0_split
I0403 15:20:29.041687 11857 net.cpp:91] Creating Layer inception_4d/output_inception_4d/output_0_split
I0403 15:20:29.041702 11857 net.cpp:425] inception_4d/output_inception_4d/output_0_split <- inception_4d/output
I0403 15:20:29.041725 11857 net.cpp:399] inception_4d/output_inception_4d/output_0_split -> inception_4d/output_inception_4d/output_0_split_0
I0403 15:20:29.041746 11857 net.cpp:399] inception_4d/output_inception_4d/output_0_split -> inception_4d/output_inception_4d/output_0_split_1
I0403 15:20:29.041766 11857 net.cpp:399] inception_4d/output_inception_4d/output_0_split -> inception_4d/output_inception_4d/output_0_split_2
I0403 15:20:29.041786 11857 net.cpp:399] inception_4d/output_inception_4d/output_0_split -> inception_4d/output_inception_4d/output_0_split_3
I0403 15:20:29.041806 11857 net.cpp:399] inception_4d/output_inception_4d/output_0_split -> inception_4d/output_inception_4d/output_0_split_4
I0403 15:20:29.041908 11857 net.cpp:141] Setting up inception_4d/output_inception_4d/output_0_split
I0403 15:20:29.041944 11857 net.cpp:148] Top shape: 24 528 14 14 (2483712)
I0403 15:20:29.041963 11857 net.cpp:148] Top shape: 24 528 14 14 (2483712)
I0403 15:20:29.041980 11857 net.cpp:148] Top shape: 24 528 14 14 (2483712)
I0403 15:20:29.041995 11857 net.cpp:148] Top shape: 24 528 14 14 (2483712)
I0403 15:20:29.042009 11857 net.cpp:148] Top shape: 24 528 14 14 (2483712)
I0403 15:20:29.042022 11857 net.cpp:156] Memory required for data: 1206918432
I0403 15:20:29.042037 11857 layer_factory.hpp:77] Creating layer loss2/ave_pool
I0403 15:20:29.042054 11857 net.cpp:91] Creating Layer loss2/ave_pool
I0403 15:20:29.042069 11857 net.cpp:425] loss2/ave_pool <- inception_4d/output_inception_4d/output_0_split_0
I0403 15:20:29.042089 11857 net.cpp:399] loss2/ave_pool -> loss2/ave_pool
I0403 15:20:29.042438 11857 net.cpp:141] Setting up loss2/ave_pool
I0403 15:20:29.042465 11857 net.cpp:148] Top shape: 24 528 4 4 (202752)
I0403 15:20:29.042480 11857 net.cpp:156] Memory required for data: 1207729440
I0403 15:20:29.042495 11857 layer_factory.hpp:77] Creating layer loss2/conv
I0403 15:20:29.042518 11857 net.cpp:91] Creating Layer loss2/conv
I0403 15:20:29.042536 11857 net.cpp:425] loss2/conv <- loss2/ave_pool
I0403 15:20:29.042557 11857 net.cpp:399] loss2/conv -> loss2/conv
I0403 15:20:29.044518 11857 net.cpp:141] Setting up loss2/conv
I0403 15:20:29.044548 11857 net.cpp:148] Top shape: 24 128 4 4 (49152)
I0403 15:20:29.044564 11857 net.cpp:156] Memory required for data: 1207926048
I0403 15:20:29.044582 11857 layer_factory.hpp:77] Creating layer loss2/relu_conv
I0403 15:20:29.044603 11857 net.cpp:91] Creating Layer loss2/relu_conv
I0403 15:20:29.044620 11857 net.cpp:425] loss2/relu_conv <- loss2/conv
I0403 15:20:29.044638 11857 net.cpp:386] loss2/relu_conv -> loss2/conv (in-place)
I0403 15:20:29.044934 11857 net.cpp:141] Setting up loss2/relu_conv
I0403 15:20:29.044961 11857 net.cpp:148] Top shape: 24 128 4 4 (49152)
I0403 15:20:29.044976 11857 net.cpp:156] Memory required for data: 1208122656
I0403 15:20:29.044991 11857 layer_factory.hpp:77] Creating layer loss2/fc
I0403 15:20:29.045012 11857 net.cpp:91] Creating Layer loss2/fc
I0403 15:20:29.045029 11857 net.cpp:425] loss2/fc <- loss2/conv
I0403 15:20:29.045053 11857 net.cpp:399] loss2/fc -> loss2/fc
I0403 15:20:29.062795 11857 net.cpp:141] Setting up loss2/fc
I0403 15:20:29.062855 11857 net.cpp:148] Top shape: 24 1024 (24576)
I0403 15:20:29.062870 11857 net.cpp:156] Memory required for data: 1208220960
I0403 15:20:29.062890 11857 layer_factory.hpp:77] Creating layer loss2/relu_fc
I0403 15:20:29.062909 11857 net.cpp:91] Creating Layer loss2/relu_fc
I0403 15:20:29.062927 11857 net.cpp:425] loss2/relu_fc <- loss2/fc
I0403 15:20:29.062947 11857 net.cpp:386] loss2/relu_fc -> loss2/fc (in-place)
I0403 15:20:29.063297 11857 net.cpp:141] Setting up loss2/relu_fc
I0403 15:20:29.063323 11857 net.cpp:148] Top shape: 24 1024 (24576)
I0403 15:20:29.063338 11857 net.cpp:156] Memory required for data: 1208319264
I0403 15:20:29.063352 11857 layer_factory.hpp:77] Creating layer loss2/drop_fc
I0403 15:20:29.063370 11857 net.cpp:91] Creating Layer loss2/drop_fc
I0403 15:20:29.063386 11857 net.cpp:425] loss2/drop_fc <- loss2/fc
I0403 15:20:29.063405 11857 net.cpp:386] loss2/drop_fc -> loss2/fc (in-place)
I0403 15:20:29.063460 11857 net.cpp:141] Setting up loss2/drop_fc
I0403 15:20:29.063485 11857 net.cpp:148] Top shape: 24 1024 (24576)
I0403 15:20:29.063501 11857 net.cpp:156] Memory required for data: 1208417568
I0403 15:20:29.063515 11857 layer_factory.hpp:77] Creating layer loss2/classifier_plantvillage
I0403 15:20:29.063534 11857 net.cpp:91] Creating Layer loss2/classifier_plantvillage
I0403 15:20:29.063549 11857 net.cpp:425] loss2/classifier_plantvillage <- loss2/fc
I0403 15:20:29.063570 11857 net.cpp:399] loss2/classifier_plantvillage -> loss2/classifier_plantvillage
I0403 15:20:29.063979 11857 net.cpp:141] Setting up loss2/classifier_plantvillage
I0403 15:20:29.064007 11857 net.cpp:148] Top shape: 24 38 (912)
I0403 15:20:29.064043 11857 net.cpp:156] Memory required for data: 1208421216
I0403 15:20:29.064064 11857 layer_factory.hpp:77] Creating layer loss2/classifier_plantvillage_loss2/classifier_plantvillage_0_split
I0403 15:20:29.064081 11857 net.cpp:91] Creating Layer loss2/classifier_plantvillage_loss2/classifier_plantvillage_0_split
I0403 15:20:29.064097 11857 net.cpp:425] loss2/classifier_plantvillage_loss2/classifier_plantvillage_0_split <- loss2/classifier_plantvillage
I0403 15:20:29.064115 11857 net.cpp:399] loss2/classifier_plantvillage_loss2/classifier_plantvillage_0_split -> loss2/classifier_plantvillage_loss2/classifier_plantvillage_0_split_0
I0403 15:20:29.064134 11857 net.cpp:399] loss2/classifier_plantvillage_loss2/classifier_plantvillage_0_split -> loss2/classifier_plantvillage_loss2/classifier_plantvillage_0_split_1
I0403 15:20:29.064157 11857 net.cpp:399] loss2/classifier_plantvillage_loss2/classifier_plantvillage_0_split -> loss2/classifier_plantvillage_loss2/classifier_plantvillage_0_split_2
I0403 15:20:29.064234 11857 net.cpp:141] Setting up loss2/classifier_plantvillage_loss2/classifier_plantvillage_0_split
I0403 15:20:29.064257 11857 net.cpp:148] Top shape: 24 38 (912)
I0403 15:20:29.064272 11857 net.cpp:148] Top shape: 24 38 (912)
I0403 15:20:29.064286 11857 net.cpp:148] Top shape: 24 38 (912)
I0403 15:20:29.064301 11857 net.cpp:156] Memory required for data: 1208432160
I0403 15:20:29.064314 11857 layer_factory.hpp:77] Creating layer inception_4e/1x1
I0403 15:20:29.064337 11857 net.cpp:91] Creating Layer inception_4e/1x1
I0403 15:20:29.064354 11857 net.cpp:425] inception_4e/1x1 <- inception_4d/output_inception_4d/output_0_split_1
I0403 15:20:29.064375 11857 net.cpp:399] inception_4e/1x1 -> inception_4e/1x1
I0403 15:20:29.066238 11857 net.cpp:141] Setting up inception_4e/1x1
I0403 15:20:29.066267 11857 net.cpp:148] Top shape: 24 256 14 14 (1204224)
I0403 15:20:29.066282 11857 net.cpp:156] Memory required for data: 1213249056
I0403 15:20:29.066300 11857 layer_factory.hpp:77] Creating layer inception_4e/relu_1x1
I0403 15:20:29.066320 11857 net.cpp:91] Creating Layer inception_4e/relu_1x1
I0403 15:20:29.066337 11857 net.cpp:425] inception_4e/relu_1x1 <- inception_4e/1x1
I0403 15:20:29.066354 11857 net.cpp:386] inception_4e/relu_1x1 -> inception_4e/1x1 (in-place)
I0403 15:20:29.066658 11857 net.cpp:141] Setting up inception_4e/relu_1x1
I0403 15:20:29.066684 11857 net.cpp:148] Top shape: 24 256 14 14 (1204224)
I0403 15:20:29.066699 11857 net.cpp:156] Memory required for data: 1218065952
I0403 15:20:29.066715 11857 layer_factory.hpp:77] Creating layer inception_4e/3x3_reduce
I0403 15:20:29.066738 11857 net.cpp:91] Creating Layer inception_4e/3x3_reduce
I0403 15:20:29.066756 11857 net.cpp:425] inception_4e/3x3_reduce <- inception_4d/output_inception_4d/output_0_split_2
I0403 15:20:29.066776 11857 net.cpp:399] inception_4e/3x3_reduce -> inception_4e/3x3_reduce
I0403 15:20:29.068936 11857 net.cpp:141] Setting up inception_4e/3x3_reduce
I0403 15:20:29.068964 11857 net.cpp:148] Top shape: 24 160 14 14 (752640)
I0403 15:20:29.068979 11857 net.cpp:156] Memory required for data: 1221076512
I0403 15:20:29.068999 11857 layer_factory.hpp:77] Creating layer inception_4e/relu_3x3_reduce
I0403 15:20:29.069020 11857 net.cpp:91] Creating Layer inception_4e/relu_3x3_reduce
I0403 15:20:29.069036 11857 net.cpp:425] inception_4e/relu_3x3_reduce <- inception_4e/3x3_reduce
I0403 15:20:29.069053 11857 net.cpp:386] inception_4e/relu_3x3_reduce -> inception_4e/3x3_reduce (in-place)
I0403 15:20:29.069245 11857 net.cpp:141] Setting up inception_4e/relu_3x3_reduce
I0403 15:20:29.069272 11857 net.cpp:148] Top shape: 24 160 14 14 (752640)
I0403 15:20:29.069288 11857 net.cpp:156] Memory required for data: 1224087072
I0403 15:20:29.069303 11857 layer_factory.hpp:77] Creating layer inception_4e/3x3
I0403 15:20:29.069324 11857 net.cpp:91] Creating Layer inception_4e/3x3
I0403 15:20:29.069342 11857 net.cpp:425] inception_4e/3x3 <- inception_4e/3x3_reduce
I0403 15:20:29.069360 11857 net.cpp:399] inception_4e/3x3 -> inception_4e/3x3
I0403 15:20:29.074434 11857 net.cpp:141] Setting up inception_4e/3x3
I0403 15:20:29.074478 11857 net.cpp:148] Top shape: 24 320 14 14 (1505280)
I0403 15:20:29.074496 11857 net.cpp:156] Memory required for data: 1230108192
I0403 15:20:29.074513 11857 layer_factory.hpp:77] Creating layer inception_4e/relu_3x3
I0403 15:20:29.074532 11857 net.cpp:91] Creating Layer inception_4e/relu_3x3
I0403 15:20:29.074548 11857 net.cpp:425] inception_4e/relu_3x3 <- inception_4e/3x3
I0403 15:20:29.074568 11857 net.cpp:386] inception_4e/relu_3x3 -> inception_4e/3x3 (in-place)
I0403 15:20:29.074870 11857 net.cpp:141] Setting up inception_4e/relu_3x3
I0403 15:20:29.074898 11857 net.cpp:148] Top shape: 24 320 14 14 (1505280)
I0403 15:20:29.074914 11857 net.cpp:156] Memory required for data: 1236129312
I0403 15:20:29.074928 11857 layer_factory.hpp:77] Creating layer inception_4e/5x5_reduce
I0403 15:20:29.074951 11857 net.cpp:91] Creating Layer inception_4e/5x5_reduce
I0403 15:20:29.074968 11857 net.cpp:425] inception_4e/5x5_reduce <- inception_4d/output_inception_4d/output_0_split_3
I0403 15:20:29.074990 11857 net.cpp:399] inception_4e/5x5_reduce -> inception_4e/5x5_reduce
I0403 15:20:29.076071 11857 net.cpp:141] Setting up inception_4e/5x5_reduce
I0403 15:20:29.076098 11857 net.cpp:148] Top shape: 24 32 14 14 (150528)
I0403 15:20:29.076113 11857 net.cpp:156] Memory required for data: 1236731424
I0403 15:20:29.076131 11857 layer_factory.hpp:77] Creating layer inception_4e/relu_5x5_reduce
I0403 15:20:29.076151 11857 net.cpp:91] Creating Layer inception_4e/relu_5x5_reduce
I0403 15:20:29.076169 11857 net.cpp:425] inception_4e/relu_5x5_reduce <- inception_4e/5x5_reduce
I0403 15:20:29.076184 11857 net.cpp:386] inception_4e/relu_5x5_reduce -> inception_4e/5x5_reduce (in-place)
I0403 15:20:29.076496 11857 net.cpp:141] Setting up inception_4e/relu_5x5_reduce
I0403 15:20:29.076521 11857 net.cpp:148] Top shape: 24 32 14 14 (150528)
I0403 15:20:29.076536 11857 net.cpp:156] Memory required for data: 1237333536
I0403 15:20:29.076550 11857 layer_factory.hpp:77] Creating layer inception_4e/5x5
I0403 15:20:29.076588 11857 net.cpp:91] Creating Layer inception_4e/5x5
I0403 15:20:29.076607 11857 net.cpp:425] inception_4e/5x5 <- inception_4e/5x5_reduce
I0403 15:20:29.076628 11857 net.cpp:399] inception_4e/5x5 -> inception_4e/5x5
I0403 15:20:29.078515 11857 net.cpp:141] Setting up inception_4e/5x5
I0403 15:20:29.078542 11857 net.cpp:148] Top shape: 24 128 14 14 (602112)
I0403 15:20:29.078557 11857 net.cpp:156] Memory required for data: 1239741984
I0403 15:20:29.078577 11857 layer_factory.hpp:77] Creating layer inception_4e/relu_5x5
I0403 15:20:29.078594 11857 net.cpp:91] Creating Layer inception_4e/relu_5x5
I0403 15:20:29.078609 11857 net.cpp:425] inception_4e/relu_5x5 <- inception_4e/5x5
I0403 15:20:29.078629 11857 net.cpp:386] inception_4e/relu_5x5 -> inception_4e/5x5 (in-place)
I0403 15:20:29.078830 11857 net.cpp:141] Setting up inception_4e/relu_5x5
I0403 15:20:29.078853 11857 net.cpp:148] Top shape: 24 128 14 14 (602112)
I0403 15:20:29.078868 11857 net.cpp:156] Memory required for data: 1242150432
I0403 15:20:29.078882 11857 layer_factory.hpp:77] Creating layer inception_4e/pool
I0403 15:20:29.078902 11857 net.cpp:91] Creating Layer inception_4e/pool
I0403 15:20:29.078918 11857 net.cpp:425] inception_4e/pool <- inception_4d/output_inception_4d/output_0_split_4
I0403 15:20:29.078936 11857 net.cpp:399] inception_4e/pool -> inception_4e/pool
I0403 15:20:29.079007 11857 net.cpp:141] Setting up inception_4e/pool
I0403 15:20:29.079030 11857 net.cpp:148] Top shape: 24 528 14 14 (2483712)
I0403 15:20:29.079044 11857 net.cpp:156] Memory required for data: 1252085280
I0403 15:20:29.079058 11857 layer_factory.hpp:77] Creating layer inception_4e/pool_proj
I0403 15:20:29.079080 11857 net.cpp:91] Creating Layer inception_4e/pool_proj
I0403 15:20:29.079097 11857 net.cpp:425] inception_4e/pool_proj <- inception_4e/pool
I0403 15:20:29.079118 11857 net.cpp:399] inception_4e/pool_proj -> inception_4e/pool_proj
I0403 15:20:29.080639 11857 net.cpp:141] Setting up inception_4e/pool_proj
I0403 15:20:29.080678 11857 net.cpp:148] Top shape: 24 128 14 14 (602112)
I0403 15:20:29.080693 11857 net.cpp:156] Memory required for data: 1254493728
I0403 15:20:29.080711 11857 layer_factory.hpp:77] Creating layer inception_4e/relu_pool_proj
I0403 15:20:29.080729 11857 net.cpp:91] Creating Layer inception_4e/relu_pool_proj
I0403 15:20:29.080744 11857 net.cpp:425] inception_4e/relu_pool_proj <- inception_4e/pool_proj
I0403 15:20:29.080766 11857 net.cpp:386] inception_4e/relu_pool_proj -> inception_4e/pool_proj (in-place)
I0403 15:20:29.081066 11857 net.cpp:141] Setting up inception_4e/relu_pool_proj
I0403 15:20:29.081092 11857 net.cpp:148] Top shape: 24 128 14 14 (602112)
I0403 15:20:29.081106 11857 net.cpp:156] Memory required for data: 1256902176
I0403 15:20:29.081121 11857 layer_factory.hpp:77] Creating layer inception_4e/output
I0403 15:20:29.081140 11857 net.cpp:91] Creating Layer inception_4e/output
I0403 15:20:29.081154 11857 net.cpp:425] inception_4e/output <- inception_4e/1x1
I0403 15:20:29.081171 11857 net.cpp:425] inception_4e/output <- inception_4e/3x3
I0403 15:20:29.081187 11857 net.cpp:425] inception_4e/output <- inception_4e/5x5
I0403 15:20:29.081202 11857 net.cpp:425] inception_4e/output <- inception_4e/pool_proj
I0403 15:20:29.081221 11857 net.cpp:399] inception_4e/output -> inception_4e/output
I0403 15:20:29.081270 11857 net.cpp:141] Setting up inception_4e/output
I0403 15:20:29.081297 11857 net.cpp:148] Top shape: 24 832 14 14 (3913728)
I0403 15:20:29.081312 11857 net.cpp:156] Memory required for data: 1272557088
I0403 15:20:29.081327 11857 layer_factory.hpp:77] Creating layer pool4/3x3_s2
I0403 15:20:29.081344 11857 net.cpp:91] Creating Layer pool4/3x3_s2
I0403 15:20:29.081360 11857 net.cpp:425] pool4/3x3_s2 <- inception_4e/output
I0403 15:20:29.081378 11857 net.cpp:399] pool4/3x3_s2 -> pool4/3x3_s2
I0403 15:20:29.081452 11857 net.cpp:141] Setting up pool4/3x3_s2
I0403 15:20:29.081476 11857 net.cpp:148] Top shape: 24 832 7 7 (978432)
I0403 15:20:29.081490 11857 net.cpp:156] Memory required for data: 1276470816
I0403 15:20:29.081504 11857 layer_factory.hpp:77] Creating layer pool4/3x3_s2_pool4/3x3_s2_0_split
I0403 15:20:29.081524 11857 net.cpp:91] Creating Layer pool4/3x3_s2_pool4/3x3_s2_0_split
I0403 15:20:29.081542 11857 net.cpp:425] pool4/3x3_s2_pool4/3x3_s2_0_split <- pool4/3x3_s2
I0403 15:20:29.081558 11857 net.cpp:399] pool4/3x3_s2_pool4/3x3_s2_0_split -> pool4/3x3_s2_pool4/3x3_s2_0_split_0
I0403 15:20:29.081581 11857 net.cpp:399] pool4/3x3_s2_pool4/3x3_s2_0_split -> pool4/3x3_s2_pool4/3x3_s2_0_split_1
I0403 15:20:29.081600 11857 net.cpp:399] pool4/3x3_s2_pool4/3x3_s2_0_split -> pool4/3x3_s2_pool4/3x3_s2_0_split_2
I0403 15:20:29.081624 11857 net.cpp:399] pool4/3x3_s2_pool4/3x3_s2_0_split -> pool4/3x3_s2_pool4/3x3_s2_0_split_3
I0403 15:20:29.081714 11857 net.cpp:141] Setting up pool4/3x3_s2_pool4/3x3_s2_0_split
I0403 15:20:29.081737 11857 net.cpp:148] Top shape: 24 832 7 7 (978432)
I0403 15:20:29.081753 11857 net.cpp:148] Top shape: 24 832 7 7 (978432)
I0403 15:20:29.081768 11857 net.cpp:148] Top shape: 24 832 7 7 (978432)
I0403 15:20:29.081782 11857 net.cpp:148] Top shape: 24 832 7 7 (978432)
I0403 15:20:29.081796 11857 net.cpp:156] Memory required for data: 1292125728
I0403 15:20:29.081810 11857 layer_factory.hpp:77] Creating layer inception_5a/1x1
I0403 15:20:29.081843 11857 net.cpp:91] Creating Layer inception_5a/1x1
I0403 15:20:29.081861 11857 net.cpp:425] inception_5a/1x1 <- pool4/3x3_s2_pool4/3x3_s2_0_split_0
I0403 15:20:29.081881 11857 net.cpp:399] inception_5a/1x1 -> inception_5a/1x1
I0403 15:20:29.084805 11857 net.cpp:141] Setting up inception_5a/1x1
I0403 15:20:29.084833 11857 net.cpp:148] Top shape: 24 256 7 7 (301056)
I0403 15:20:29.084849 11857 net.cpp:156] Memory required for data: 1293329952
I0403 15:20:29.084867 11857 layer_factory.hpp:77] Creating layer inception_5a/relu_1x1
I0403 15:20:29.084887 11857 net.cpp:91] Creating Layer inception_5a/relu_1x1
I0403 15:20:29.084904 11857 net.cpp:425] inception_5a/relu_1x1 <- inception_5a/1x1
I0403 15:20:29.084920 11857 net.cpp:386] inception_5a/relu_1x1 -> inception_5a/1x1 (in-place)
I0403 15:20:29.085242 11857 net.cpp:141] Setting up inception_5a/relu_1x1
I0403 15:20:29.085268 11857 net.cpp:148] Top shape: 24 256 7 7 (301056)
I0403 15:20:29.085283 11857 net.cpp:156] Memory required for data: 1294534176
I0403 15:20:29.085297 11857 layer_factory.hpp:77] Creating layer inception_5a/3x3_reduce
I0403 15:20:29.085319 11857 net.cpp:91] Creating Layer inception_5a/3x3_reduce
I0403 15:20:29.085336 11857 net.cpp:425] inception_5a/3x3_reduce <- pool4/3x3_s2_pool4/3x3_s2_0_split_1
I0403 15:20:29.085357 11857 net.cpp:399] inception_5a/3x3_reduce -> inception_5a/3x3_reduce
I0403 15:20:29.087834 11857 net.cpp:141] Setting up inception_5a/3x3_reduce
I0403 15:20:29.087863 11857 net.cpp:148] Top shape: 24 160 7 7 (188160)
I0403 15:20:29.087878 11857 net.cpp:156] Memory required for data: 1295286816
I0403 15:20:29.087896 11857 layer_factory.hpp:77] Creating layer inception_5a/relu_3x3_reduce
I0403 15:20:29.087914 11857 net.cpp:91] Creating Layer inception_5a/relu_3x3_reduce
I0403 15:20:29.087930 11857 net.cpp:425] inception_5a/relu_3x3_reduce <- inception_5a/3x3_reduce
I0403 15:20:29.087949 11857 net.cpp:386] inception_5a/relu_3x3_reduce -> inception_5a/3x3_reduce (in-place)
I0403 15:20:29.088143 11857 net.cpp:141] Setting up inception_5a/relu_3x3_reduce
I0403 15:20:29.088168 11857 net.cpp:148] Top shape: 24 160 7 7 (188160)
I0403 15:20:29.088182 11857 net.cpp:156] Memory required for data: 1296039456
I0403 15:20:29.088197 11857 layer_factory.hpp:77] Creating layer inception_5a/3x3
I0403 15:20:29.088219 11857 net.cpp:91] Creating Layer inception_5a/3x3
I0403 15:20:29.088237 11857 net.cpp:425] inception_5a/3x3 <- inception_5a/3x3_reduce
I0403 15:20:29.088258 11857 net.cpp:399] inception_5a/3x3 -> inception_5a/3x3
I0403 15:20:29.093415 11857 net.cpp:141] Setting up inception_5a/3x3
I0403 15:20:29.093444 11857 net.cpp:148] Top shape: 24 320 7 7 (376320)
I0403 15:20:29.093461 11857 net.cpp:156] Memory required for data: 1297544736
I0403 15:20:29.093478 11857 layer_factory.hpp:77] Creating layer inception_5a/relu_3x3
I0403 15:20:29.093499 11857 net.cpp:91] Creating Layer inception_5a/relu_3x3
I0403 15:20:29.093515 11857 net.cpp:425] inception_5a/relu_3x3 <- inception_5a/3x3
I0403 15:20:29.093533 11857 net.cpp:386] inception_5a/relu_3x3 -> inception_5a/3x3 (in-place)
I0403 15:20:29.093835 11857 net.cpp:141] Setting up inception_5a/relu_3x3
I0403 15:20:29.093861 11857 net.cpp:148] Top shape: 24 320 7 7 (376320)
I0403 15:20:29.093876 11857 net.cpp:156] Memory required for data: 1299050016
I0403 15:20:29.093890 11857 layer_factory.hpp:77] Creating layer inception_5a/5x5_reduce
I0403 15:20:29.093912 11857 net.cpp:91] Creating Layer inception_5a/5x5_reduce
I0403 15:20:29.093930 11857 net.cpp:425] inception_5a/5x5_reduce <- pool4/3x3_s2_pool4/3x3_s2_0_split_2
I0403 15:20:29.093952 11857 net.cpp:399] inception_5a/5x5_reduce -> inception_5a/5x5_reduce
I0403 15:20:29.095142 11857 net.cpp:141] Setting up inception_5a/5x5_reduce
I0403 15:20:29.095172 11857 net.cpp:148] Top shape: 24 32 7 7 (37632)
I0403 15:20:29.095188 11857 net.cpp:156] Memory required for data: 1299200544
I0403 15:20:29.095206 11857 layer_factory.hpp:77] Creating layer inception_5a/relu_5x5_reduce
I0403 15:20:29.095223 11857 net.cpp:91] Creating Layer inception_5a/relu_5x5_reduce
I0403 15:20:29.095238 11857 net.cpp:425] inception_5a/relu_5x5_reduce <- inception_5a/5x5_reduce
I0403 15:20:29.095254 11857 net.cpp:386] inception_5a/relu_5x5_reduce -> inception_5a/5x5_reduce (in-place)
I0403 15:20:29.095564 11857 net.cpp:141] Setting up inception_5a/relu_5x5_reduce
I0403 15:20:29.095590 11857 net.cpp:148] Top shape: 24 32 7 7 (37632)
I0403 15:20:29.095605 11857 net.cpp:156] Memory required for data: 1299351072
I0403 15:20:29.095620 11857 layer_factory.hpp:77] Creating layer inception_5a/5x5
I0403 15:20:29.095641 11857 net.cpp:91] Creating Layer inception_5a/5x5
I0403 15:20:29.095659 11857 net.cpp:425] inception_5a/5x5 <- inception_5a/5x5_reduce
I0403 15:20:29.095679 11857 net.cpp:399] inception_5a/5x5 -> inception_5a/5x5
I0403 15:20:29.097429 11857 net.cpp:141] Setting up inception_5a/5x5
I0403 15:20:29.097470 11857 net.cpp:148] Top shape: 24 128 7 7 (150528)
I0403 15:20:29.097486 11857 net.cpp:156] Memory required for data: 1299953184
I0403 15:20:29.097504 11857 layer_factory.hpp:77] Creating layer inception_5a/relu_5x5
I0403 15:20:29.097525 11857 net.cpp:91] Creating Layer inception_5a/relu_5x5
I0403 15:20:29.097543 11857 net.cpp:425] inception_5a/relu_5x5 <- inception_5a/5x5
I0403 15:20:29.097560 11857 net.cpp:386] inception_5a/relu_5x5 -> inception_5a/5x5 (in-place)
I0403 15:20:29.097769 11857 net.cpp:141] Setting up inception_5a/relu_5x5
I0403 15:20:29.097795 11857 net.cpp:148] Top shape: 24 128 7 7 (150528)
I0403 15:20:29.097810 11857 net.cpp:156] Memory required for data: 1300555296
I0403 15:20:29.097825 11857 layer_factory.hpp:77] Creating layer inception_5a/pool
I0403 15:20:29.097841 11857 net.cpp:91] Creating Layer inception_5a/pool
I0403 15:20:29.097856 11857 net.cpp:425] inception_5a/pool <- pool4/3x3_s2_pool4/3x3_s2_0_split_3
I0403 15:20:29.097875 11857 net.cpp:399] inception_5a/pool -> inception_5a/pool
I0403 15:20:29.097946 11857 net.cpp:141] Setting up inception_5a/pool
I0403 15:20:29.097970 11857 net.cpp:148] Top shape: 24 832 7 7 (978432)
I0403 15:20:29.097985 11857 net.cpp:156] Memory required for data: 1304469024
I0403 15:20:29.097998 11857 layer_factory.hpp:77] Creating layer inception_5a/pool_proj
I0403 15:20:29.098019 11857 net.cpp:91] Creating Layer inception_5a/pool_proj
I0403 15:20:29.098037 11857 net.cpp:425] inception_5a/pool_proj <- inception_5a/pool
I0403 15:20:29.098058 11857 net.cpp:399] inception_5a/pool_proj -> inception_5a/pool_proj
I0403 15:20:29.100363 11857 net.cpp:141] Setting up inception_5a/pool_proj
I0403 15:20:29.100390 11857 net.cpp:148] Top shape: 24 128 7 7 (150528)
I0403 15:20:29.100405 11857 net.cpp:156] Memory required for data: 1305071136
I0403 15:20:29.100428 11857 layer_factory.hpp:77] Creating layer inception_5a/relu_pool_proj
I0403 15:20:29.100450 11857 net.cpp:91] Creating Layer inception_5a/relu_pool_proj
I0403 15:20:29.100466 11857 net.cpp:425] inception_5a/relu_pool_proj <- inception_5a/pool_proj
I0403 15:20:29.100482 11857 net.cpp:386] inception_5a/relu_pool_proj -> inception_5a/pool_proj (in-place)
I0403 15:20:29.100800 11857 net.cpp:141] Setting up inception_5a/relu_pool_proj
I0403 15:20:29.100826 11857 net.cpp:148] Top shape: 24 128 7 7 (150528)
I0403 15:20:29.100852 11857 net.cpp:156] Memory required for data: 1305673248
I0403 15:20:29.100867 11857 layer_factory.hpp:77] Creating layer inception_5a/output
I0403 15:20:29.100884 11857 net.cpp:91] Creating Layer inception_5a/output
I0403 15:20:29.100899 11857 net.cpp:425] inception_5a/output <- inception_5a/1x1
I0403 15:20:29.100915 11857 net.cpp:425] inception_5a/output <- inception_5a/3x3
I0403 15:20:29.100930 11857 net.cpp:425] inception_5a/output <- inception_5a/5x5
I0403 15:20:29.100946 11857 net.cpp:425] inception_5a/output <- inception_5a/pool_proj
I0403 15:20:29.100965 11857 net.cpp:399] inception_5a/output -> inception_5a/output
I0403 15:20:29.101016 11857 net.cpp:141] Setting up inception_5a/output
I0403 15:20:29.101042 11857 net.cpp:148] Top shape: 24 832 7 7 (978432)
I0403 15:20:29.101057 11857 net.cpp:156] Memory required for data: 1309586976
I0403 15:20:29.101071 11857 layer_factory.hpp:77] Creating layer inception_5a/output_inception_5a/output_0_split
I0403 15:20:29.101089 11857 net.cpp:91] Creating Layer inception_5a/output_inception_5a/output_0_split
I0403 15:20:29.101104 11857 net.cpp:425] inception_5a/output_inception_5a/output_0_split <- inception_5a/output
I0403 15:20:29.101121 11857 net.cpp:399] inception_5a/output_inception_5a/output_0_split -> inception_5a/output_inception_5a/output_0_split_0
I0403 15:20:29.101157 11857 net.cpp:399] inception_5a/output_inception_5a/output_0_split -> inception_5a/output_inception_5a/output_0_split_1
I0403 15:20:29.101177 11857 net.cpp:399] inception_5a/output_inception_5a/output_0_split -> inception_5a/output_inception_5a/output_0_split_2
I0403 15:20:29.101197 11857 net.cpp:399] inception_5a/output_inception_5a/output_0_split -> inception_5a/output_inception_5a/output_0_split_3
I0403 15:20:29.101303 11857 net.cpp:141] Setting up inception_5a/output_inception_5a/output_0_split
I0403 15:20:29.101326 11857 net.cpp:148] Top shape: 24 832 7 7 (978432)
I0403 15:20:29.101342 11857 net.cpp:148] Top shape: 24 832 7 7 (978432)
I0403 15:20:29.101357 11857 net.cpp:148] Top shape: 24 832 7 7 (978432)
I0403 15:20:29.101372 11857 net.cpp:148] Top shape: 24 832 7 7 (978432)
I0403 15:20:29.101384 11857 net.cpp:156] Memory required for data: 1325241888
I0403 15:20:29.101398 11857 layer_factory.hpp:77] Creating layer inception_5b/1x1
I0403 15:20:29.101423 11857 net.cpp:91] Creating Layer inception_5b/1x1
I0403 15:20:29.101440 11857 net.cpp:425] inception_5b/1x1 <- inception_5a/output_inception_5a/output_0_split_0
I0403 15:20:29.101461 11857 net.cpp:399] inception_5b/1x1 -> inception_5b/1x1
I0403 15:20:29.105151 11857 net.cpp:141] Setting up inception_5b/1x1
I0403 15:20:29.105180 11857 net.cpp:148] Top shape: 24 384 7 7 (451584)
I0403 15:20:29.105195 11857 net.cpp:156] Memory required for data: 1327048224
I0403 15:20:29.105212 11857 layer_factory.hpp:77] Creating layer inception_5b/relu_1x1
I0403 15:20:29.105229 11857 net.cpp:91] Creating Layer inception_5b/relu_1x1
I0403 15:20:29.105245 11857 net.cpp:425] inception_5b/relu_1x1 <- inception_5b/1x1
I0403 15:20:29.105264 11857 net.cpp:386] inception_5b/relu_1x1 -> inception_5b/1x1 (in-place)
I0403 15:20:29.105572 11857 net.cpp:141] Setting up inception_5b/relu_1x1
I0403 15:20:29.105598 11857 net.cpp:148] Top shape: 24 384 7 7 (451584)
I0403 15:20:29.105612 11857 net.cpp:156] Memory required for data: 1328854560
I0403 15:20:29.105626 11857 layer_factory.hpp:77] Creating layer inception_5b/3x3_reduce
I0403 15:20:29.105648 11857 net.cpp:91] Creating Layer inception_5b/3x3_reduce
I0403 15:20:29.105664 11857 net.cpp:425] inception_5b/3x3_reduce <- inception_5a/output_inception_5a/output_0_split_1
I0403 15:20:29.105686 11857 net.cpp:399] inception_5b/3x3_reduce -> inception_5b/3x3_reduce
I0403 15:20:29.108302 11857 net.cpp:141] Setting up inception_5b/3x3_reduce
I0403 15:20:29.108332 11857 net.cpp:148] Top shape: 24 192 7 7 (225792)
I0403 15:20:29.108347 11857 net.cpp:156] Memory required for data: 1329757728
I0403 15:20:29.108364 11857 layer_factory.hpp:77] Creating layer inception_5b/relu_3x3_reduce
I0403 15:20:29.108382 11857 net.cpp:91] Creating Layer inception_5b/relu_3x3_reduce
I0403 15:20:29.108397 11857 net.cpp:425] inception_5b/relu_3x3_reduce <- inception_5b/3x3_reduce
I0403 15:20:29.108419 11857 net.cpp:386] inception_5b/relu_3x3_reduce -> inception_5b/3x3_reduce (in-place)
I0403 15:20:29.108613 11857 net.cpp:141] Setting up inception_5b/relu_3x3_reduce
I0403 15:20:29.108636 11857 net.cpp:148] Top shape: 24 192 7 7 (225792)
I0403 15:20:29.108650 11857 net.cpp:156] Memory required for data: 1330660896
I0403 15:20:29.108664 11857 layer_factory.hpp:77] Creating layer inception_5b/3x3
I0403 15:20:29.108685 11857 net.cpp:91] Creating Layer inception_5b/3x3
I0403 15:20:29.108702 11857 net.cpp:425] inception_5b/3x3 <- inception_5b/3x3_reduce
I0403 15:20:29.108723 11857 net.cpp:399] inception_5b/3x3 -> inception_5b/3x3
I0403 15:20:29.115278 11857 net.cpp:141] Setting up inception_5b/3x3
I0403 15:20:29.115305 11857 net.cpp:148] Top shape: 24 384 7 7 (451584)
I0403 15:20:29.115322 11857 net.cpp:156] Memory required for data: 1332467232
I0403 15:20:29.115339 11857 layer_factory.hpp:77] Creating layer inception_5b/relu_3x3
I0403 15:20:29.115360 11857 net.cpp:91] Creating Layer inception_5b/relu_3x3
I0403 15:20:29.115375 11857 net.cpp:425] inception_5b/relu_3x3 <- inception_5b/3x3
I0403 15:20:29.115392 11857 net.cpp:386] inception_5b/relu_3x3 -> inception_5b/3x3 (in-place)
I0403 15:20:29.115689 11857 net.cpp:141] Setting up inception_5b/relu_3x3
I0403 15:20:29.115715 11857 net.cpp:148] Top shape: 24 384 7 7 (451584)
I0403 15:20:29.115730 11857 net.cpp:156] Memory required for data: 1334273568
I0403 15:20:29.115742 11857 layer_factory.hpp:77] Creating layer inception_5b/5x5_reduce
I0403 15:20:29.115779 11857 net.cpp:91] Creating Layer inception_5b/5x5_reduce
I0403 15:20:29.115797 11857 net.cpp:425] inception_5b/5x5_reduce <- inception_5a/output_inception_5a/output_0_split_2
I0403 15:20:29.115819 11857 net.cpp:399] inception_5b/5x5_reduce -> inception_5b/5x5_reduce
I0403 15:20:29.117069 11857 net.cpp:141] Setting up inception_5b/5x5_reduce
I0403 15:20:29.117096 11857 net.cpp:148] Top shape: 24 48 7 7 (56448)
I0403 15:20:29.117112 11857 net.cpp:156] Memory required for data: 1334499360
I0403 15:20:29.117130 11857 layer_factory.hpp:77] Creating layer inception_5b/relu_5x5_reduce
I0403 15:20:29.117146 11857 net.cpp:91] Creating Layer inception_5b/relu_5x5_reduce
I0403 15:20:29.117161 11857 net.cpp:425] inception_5b/relu_5x5_reduce <- inception_5b/5x5_reduce
I0403 15:20:29.117179 11857 net.cpp:386] inception_5b/relu_5x5_reduce -> inception_5b/5x5_reduce (in-place)
I0403 15:20:29.117554 11857 net.cpp:141] Setting up inception_5b/relu_5x5_reduce
I0403 15:20:29.117580 11857 net.cpp:148] Top shape: 24 48 7 7 (56448)
I0403 15:20:29.117594 11857 net.cpp:156] Memory required for data: 1334725152
I0403 15:20:29.117609 11857 layer_factory.hpp:77] Creating layer inception_5b/5x5
I0403 15:20:29.117629 11857 net.cpp:91] Creating Layer inception_5b/5x5
I0403 15:20:29.117645 11857 net.cpp:425] inception_5b/5x5 <- inception_5b/5x5_reduce
I0403 15:20:29.117662 11857 net.cpp:399] inception_5b/5x5 -> inception_5b/5x5
I0403 15:20:29.119673 11857 net.cpp:141] Setting up inception_5b/5x5
I0403 15:20:29.119700 11857 net.cpp:148] Top shape: 24 128 7 7 (150528)
I0403 15:20:29.119714 11857 net.cpp:156] Memory required for data: 1335327264
I0403 15:20:29.119731 11857 layer_factory.hpp:77] Creating layer inception_5b/relu_5x5
I0403 15:20:29.119751 11857 net.cpp:91] Creating Layer inception_5b/relu_5x5
I0403 15:20:29.119767 11857 net.cpp:425] inception_5b/relu_5x5 <- inception_5b/5x5
I0403 15:20:29.119784 11857 net.cpp:386] inception_5b/relu_5x5 -> inception_5b/5x5 (in-place)
I0403 15:20:29.119978 11857 net.cpp:141] Setting up inception_5b/relu_5x5
I0403 15:20:29.120002 11857 net.cpp:148] Top shape: 24 128 7 7 (150528)
I0403 15:20:29.120017 11857 net.cpp:156] Memory required for data: 1335929376
I0403 15:20:29.120030 11857 layer_factory.hpp:77] Creating layer inception_5b/pool
I0403 15:20:29.120049 11857 net.cpp:91] Creating Layer inception_5b/pool
I0403 15:20:29.120066 11857 net.cpp:425] inception_5b/pool <- inception_5a/output_inception_5a/output_0_split_3
I0403 15:20:29.120084 11857 net.cpp:399] inception_5b/pool -> inception_5b/pool
I0403 15:20:29.120156 11857 net.cpp:141] Setting up inception_5b/pool
I0403 15:20:29.120177 11857 net.cpp:148] Top shape: 24 832 7 7 (978432)
I0403 15:20:29.120192 11857 net.cpp:156] Memory required for data: 1339843104
I0403 15:20:29.120204 11857 layer_factory.hpp:77] Creating layer inception_5b/pool_proj
I0403 15:20:29.120226 11857 net.cpp:91] Creating Layer inception_5b/pool_proj
I0403 15:20:29.120242 11857 net.cpp:425] inception_5b/pool_proj <- inception_5b/pool
I0403 15:20:29.120262 11857 net.cpp:399] inception_5b/pool_proj -> inception_5b/pool_proj
I0403 15:20:29.122570 11857 net.cpp:141] Setting up inception_5b/pool_proj
I0403 15:20:29.122599 11857 net.cpp:148] Top shape: 24 128 7 7 (150528)
I0403 15:20:29.122614 11857 net.cpp:156] Memory required for data: 1340445216
I0403 15:20:29.122632 11857 layer_factory.hpp:77] Creating layer inception_5b/relu_pool_proj
I0403 15:20:29.122649 11857 net.cpp:91] Creating Layer inception_5b/relu_pool_proj
I0403 15:20:29.122665 11857 net.cpp:425] inception_5b/relu_pool_proj <- inception_5b/pool_proj
I0403 15:20:29.122684 11857 net.cpp:386] inception_5b/relu_pool_proj -> inception_5b/pool_proj (in-place)
I0403 15:20:29.122987 11857 net.cpp:141] Setting up inception_5b/relu_pool_proj
I0403 15:20:29.123013 11857 net.cpp:148] Top shape: 24 128 7 7 (150528)
I0403 15:20:29.123026 11857 net.cpp:156] Memory required for data: 1341047328
I0403 15:20:29.123040 11857 layer_factory.hpp:77] Creating layer inception_5b/output
I0403 15:20:29.123057 11857 net.cpp:91] Creating Layer inception_5b/output
I0403 15:20:29.123086 11857 net.cpp:425] inception_5b/output <- inception_5b/1x1
I0403 15:20:29.123103 11857 net.cpp:425] inception_5b/output <- inception_5b/3x3
I0403 15:20:29.123119 11857 net.cpp:425] inception_5b/output <- inception_5b/5x5
I0403 15:20:29.123136 11857 net.cpp:425] inception_5b/output <- inception_5b/pool_proj
I0403 15:20:29.123154 11857 net.cpp:399] inception_5b/output -> inception_5b/output
I0403 15:20:29.123204 11857 net.cpp:141] Setting up inception_5b/output
I0403 15:20:29.123229 11857 net.cpp:148] Top shape: 24 1024 7 7 (1204224)
I0403 15:20:29.123245 11857 net.cpp:156] Memory required for data: 1345864224
I0403 15:20:29.123258 11857 layer_factory.hpp:77] Creating layer pool5/7x7_s1
I0403 15:20:29.123276 11857 net.cpp:91] Creating Layer pool5/7x7_s1
I0403 15:20:29.123292 11857 net.cpp:425] pool5/7x7_s1 <- inception_5b/output
I0403 15:20:29.123311 11857 net.cpp:399] pool5/7x7_s1 -> pool5/7x7_s1
I0403 15:20:29.123529 11857 net.cpp:141] Setting up pool5/7x7_s1
I0403 15:20:29.123553 11857 net.cpp:148] Top shape: 24 1024 1 1 (24576)
I0403 15:20:29.123566 11857 net.cpp:156] Memory required for data: 1345962528
I0403 15:20:29.123580 11857 layer_factory.hpp:77] Creating layer pool5/drop_7x7_s1
I0403 15:20:29.123597 11857 net.cpp:91] Creating Layer pool5/drop_7x7_s1
I0403 15:20:29.123612 11857 net.cpp:425] pool5/drop_7x7_s1 <- pool5/7x7_s1
I0403 15:20:29.123631 11857 net.cpp:386] pool5/drop_7x7_s1 -> pool5/7x7_s1 (in-place)
I0403 15:20:29.123687 11857 net.cpp:141] Setting up pool5/drop_7x7_s1
I0403 15:20:29.123708 11857 net.cpp:148] Top shape: 24 1024 1 1 (24576)
I0403 15:20:29.123721 11857 net.cpp:156] Memory required for data: 1346060832
I0403 15:20:29.123735 11857 layer_factory.hpp:77] Creating layer loss3/classifier_plantvillage
I0403 15:20:29.123754 11857 net.cpp:91] Creating Layer loss3/classifier_plantvillage
I0403 15:20:29.123769 11857 net.cpp:425] loss3/classifier_plantvillage <- pool5/7x7_s1
I0403 15:20:29.123790 11857 net.cpp:399] loss3/classifier_plantvillage -> loss3/classifier_plantvillage
I0403 15:20:29.124203 11857 net.cpp:141] Setting up loss3/classifier_plantvillage
I0403 15:20:29.124228 11857 net.cpp:148] Top shape: 24 38 (912)
I0403 15:20:29.124241 11857 net.cpp:156] Memory required for data: 1346064480
I0403 15:20:29.124258 11857 layer_factory.hpp:77] Creating layer loss3/classifier_plantvillage_loss3/classifier_plantvillage_0_split
I0403 15:20:29.124279 11857 net.cpp:91] Creating Layer loss3/classifier_plantvillage_loss3/classifier_plantvillage_0_split
I0403 15:20:29.124295 11857 net.cpp:425] loss3/classifier_plantvillage_loss3/classifier_plantvillage_0_split <- loss3/classifier_plantvillage
I0403 15:20:29.124315 11857 net.cpp:399] loss3/classifier_plantvillage_loss3/classifier_plantvillage_0_split -> loss3/classifier_plantvillage_loss3/classifier_plantvillage_0_split_0
I0403 15:20:29.124335 11857 net.cpp:399] loss3/classifier_plantvillage_loss3/classifier_plantvillage_0_split -> loss3/classifier_plantvillage_loss3/classifier_plantvillage_0_split_1
I0403 15:20:29.124353 11857 net.cpp:399] loss3/classifier_plantvillage_loss3/classifier_plantvillage_0_split -> loss3/classifier_plantvillage_loss3/classifier_plantvillage_0_split_2
I0403 15:20:29.124372 11857 net.cpp:399] loss3/classifier_plantvillage_loss3/classifier_plantvillage_0_split -> loss3/classifier_plantvillage_loss3/classifier_plantvillage_0_split_3
I0403 15:20:29.124475 11857 net.cpp:141] Setting up loss3/classifier_plantvillage_loss3/classifier_plantvillage_0_split
I0403 15:20:29.124498 11857 net.cpp:148] Top shape: 24 38 (912)
I0403 15:20:29.124513 11857 net.cpp:148] Top shape: 24 38 (912)
I0403 15:20:29.124527 11857 net.cpp:148] Top shape: 24 38 (912)
I0403 15:20:29.124542 11857 net.cpp:148] Top shape: 24 38 (912)
I0403 15:20:29.124555 11857 net.cpp:156] Memory required for data: 1346079072
I0403 15:20:29.124569 11857 layer_factory.hpp:77] Creating layer loss1/loss
I0403 15:20:29.124589 11857 net.cpp:91] Creating Layer loss1/loss
I0403 15:20:29.124606 11857 net.cpp:425] loss1/loss <- loss1/classifier_plantvillage_loss1/classifier_plantvillage_0_split_0
I0403 15:20:29.124635 11857 net.cpp:425] loss1/loss <- label_data_1_split_0
…
