…
I0403 14:49:21.504230 11291 net.cpp:313] The NetState phase (1) differed from the phase (0) specified by a rule in layer data
I0403 14:49:21.505597 11291 net.cpp:49] Initializing net from parameters: 
state {
  phase: TEST
}
layer {
  name: "data"
  type: "Data"
  top: "data"
  top: "label"
  include {
    phase: TEST
  }
  transform_param {
    mirror: false
    crop_size: 224
    mean_file: "/home/mohanty/data/final_dataset/lmdb/segmented-50-50/mean.binaryproto"
  }
  data_param {
    source: "/home/mohanty/data/final_dataset/lmdb/segmented-50-50/test_db"
    batch_size: 24
    backend: LMDB
  }
}
layer {
  name: "conv1/7x7_s2"
  type: "Convolution"
  bottom: "data"
  top: "conv1/7x7_s2"
  param {
    lr_mult: 1
    decay_mult: 1
  }
  param {
    lr_mult: 2
    decay_mult: 0
  }
  convolution_param {
    num_output: 64
    pad: 3
    kernel_size: 7
    stride: 2
    weight_filler {
      type: "xavier"
      std: 0.1
    }
    bias_filler {
      type: "constant"
      value: 0.2
    }
  }
}
layer {
  name: "conv1/relu_7x7"
  type: "ReLU"
  bottom: "conv1/7x7_s2"
  top: "conv1/7x7_s2"
}
layer {
  name: "pool1/3x3_s2"
  type: "Pooling"
  bottom: "conv1/7x7_s2"
  top: "pool1/3x3_s2"
  pooling_param {
    pool: MAX
    kernel_size: 3
    stride: 2
  }
}
layer {
  name: "pool1/norm1"
  type: "LRN"
  bottom: "pool1/3x3_s2"
  top: "pool1/norm1"
  lrn_param {
    local_size: 5
    alpha: 0.0001
    beta: 0.75
  }
}
layer {
  name: "conv2/3x3_reduce"
  type: "Convolution"
  bottom: "pool1/norm1"
  top: "conv2/3x3_reduce"
  param {
    lr_mult: 1
    decay_mult: 1
  }
  param {
    lr_mult: 2
    decay_mult: 0
  }
  convolution_param {
    num_output: 64
    kernel_size: 1
    weight_filler {
      type: "xavier"
      std: 0.1
    }
    bias_filler {
      type: "constant"
      value: 0.2
    }
  }
}
layer {
  name: "conv2/relu_3x3_reduce"
  type: "ReLU"
  bottom: "conv2/3x3_reduce"
  top: "conv2/3x3_reduce"
}
layer {
  name: "conv2/3x3"
  type: "Convolution"
  bottom: "conv2/3x3_reduce"
  top: "conv2/3x3"
  param {
    lr_mult: 1
    decay_mult: 1
  }
  param {
    lr_mult: 2
    decay_mult: 0
  }
  convolution_param {
    num_output: 192
    pad: 1
    kernel_size: 3
    weight_filler {
      type: "xavier"
      std: 0.03
    }
    bias_filler {
      type: "constant"
      value: 0.2
    }
  }
}
layer {
  name: "conv2/relu_3x3"
  type: "ReLU"
  bottom: "conv2/3x3"
  top: "conv2/3x3"
}
layer {
  name: "conv2/norm2"
  type: "LRN"
  bottom: "conv2/3x3"
  top: "conv2/norm2"
  lrn_param {
    local_size: 5
    alpha: 0.0001
    beta: 0.75
  }
}
layer {
  name: "pool2/3x3_s2"
  type: "Pooling"
  bottom: "conv2/norm2"
  top: "pool2/3x3_s2"
  pooling_param {
    pool: MAX
    kernel_size: 3
    stride: 2
  }
}
layer {
  name: "inception_3a/1x1"
  type: "Convolution"
  bottom: "pool2/3x3_s2"
  top: "inception_3a/1x1"
  param {
    lr_mult: 1
    decay_mult: 1
  }
  param {
    lr_mult: 2
    decay_mult: 0
  }
  convolution_param {
    num_output: 64
    kernel_size: 1
    weight_filler {
      type: "xavier"
      std: 0.03
    }
    bias_filler {
      type: "constant"
      value: 0.2
    }
  }
}
layer {
  name: "inception_3a/relu_1x1"
  type: "ReLU"
  bottom: "inception_3a/1x1"
  top: "inception_3a/1x1"
}
layer {
  name: "inception_3a/3x3_reduce"
  type: "Convolution"
  bottom: "pool2/3x3_s2"
  top: "inception_3a/3x3_reduce"
  param {
    lr_mult: 1
    decay_mult: 1
  }
  param {
    lr_mult: 2
    decay_mult: 0
  }
  convolution_param {
    num_output: 96
    kernel_size: 1
    weight_filler {
      type: "xavier"
      std: 0.09
    }
    bias_filler {
      type: "constant"
      value: 0.2
    }
  }
}
layer {
  name: "inception_3a/relu_3x3_reduce"
  type: "ReLU"
  bottom: "inception_3a/3x3_reduce"
  top: "inception_3a/3x3_reduce"
}
layer {
  name: "inception_3a/3x3"
  type: "Convolution"
  bottom: "inception_3a/3x3_reduce"
  top: "inception_3a/3x3"
  param {
    lr_mult: 1
    decay_mult: 1
  }
  param {
    lr_mult: 2
    decay_mult: 0
  }
  convolution_param {
    num_output: 128
    pad: 1
    kernel_size: 3
    weight_filler {
      type: "xavier"
      std: 0.03
    }
    bias_filler {
      type: "constant"
      value: 0.2
    }
  }
}
layer {
  name: "inception_3a/relu_3x3"
  type: "ReLU"
  bottom: "inception_3a/3x3"
  top: "inception_3a/3x3"
}
layer {
  name: "inception_3a/5x5_reduce"
  type: "Convolution"
  bottom: "pool2/3x3_s2"
  top: "inception_3a/5x5_reduce"
  param {
    lr_mult: 1
    decay_mult: 1
  }
  param {
    lr_mult: 2
    decay_mult: 0
  }
  convolution_param {
    num_output: 16
    kernel_size: 1
    weight_filler {
      type: "xavier"
      std: 0.2
    }
    bias_filler {
      type: "constant"
      value: 0.2
    }
  }
}
layer {
  name: "inception_3a/relu_5x5_reduce"
  type: "ReLU"
  bottom: "inception_3a/5x5_reduce"
  top: "inception_3a/5x5_reduce"
}
layer {
  name: "inception_3a/5x5"
  type: "Convolution"
  bottom: "inception_3a/5x5_reduce"
  top: "inception_3a/5x5"
  param {
    lr_mult: 1
    decay_mult: 1
  }
  param {
    lr_mult: 2
    decay_mult: 0
  }
  convolution_param {
    num_output: 32
    pad: 2
    kernel_size: 5
    weight_filler {
      type: "xavier"
      std: 0.03
    }
    bias_filler {
      type: "constant"
      value: 0.2
    }
  }
}
layer {
  name: "inception_3a/relu_5x5"
  type: "ReLU"
  bottom: "inception_3a/5x5"
  top: "inception_3a/5x5"
}
layer {
  name: "inception_3a/pool"
  type: "Pooling"
  bottom: "pool2/3x3_s2"
  top: "inception_3a/pool"
  pooling_param {
    pool: MAX
    kernel_size: 3
    stride: 1
    pad: 1
  }
}
layer {
  name: "inception_3a/pool_proj"
  type: "Convolution"
  bottom: "inception_3a/pool"
  top: "inception_3a/pool_proj"
  param {
    lr_mult: 1
    decay_mult: 1
  }
  param {
    lr_mult: 2
    decay_mult: 0
  }
  convolution_param {
    num_output: 32
    kernel_size: 1
    weight_filler {
      type: "xavier"
      std: 0.1
    }
    bias_filler {
      type: "constant"
      value: 0.2
    }
  }
}
layer {
  name: "inception_3a/relu_pool_proj"
  type: "ReLU"
  bottom: "inception_3a/pool_proj"
  top: "inception_3a/pool_proj"
}
layer {
  name: "inception_3a/output"
  type: "Concat"
  bottom: "inception_3a/1x1"
  bottom: "inception_3a/3x3"
  bottom: "inception_3a/5x5"
  bottom: "inception_3a/pool_proj"
  top: "inception_3a/output"
}
layer {
  name: "inception_3b/1x1"
  type: "Convolution"
  bottom: "inception_3a/output"
  top: "inception_3b/1x1"
  param {
    lr_mult: 1
    decay_mult: 1
  }
  param {
    lr_mult: 2
    decay_mult: 0
  }
  convolution_param {
    num_output: 128
    kernel_size: 1
    weight_filler {
      type: "xavier"
      std: 0.03
    }
    bias_filler {
      type: "constant"
      value: 0.2
    }
  }
}
layer {
  name: "inception_3b/relu_1x1"
  type: "ReLU"
  bottom: "inception_3b/1x1"
  top: "inception_3b/1x1"
}
layer {
  name: "inception_3b/3x3_reduce"
  type: "Convolution"
  bottom: "inception_3a/output"
  top: "inception_3b/3x3_reduce"
  param {
    lr_mult: 1
    decay_mult: 1
  }
  param {
    lr_mult: 2
    decay_mult: 0
  }
  convolution_param {
    num_output: 128
    kernel_size: 1
    weight_filler {
      type: "xavier"
      std: 0.09
    }
    bias_filler {
      type: "constant"
      value: 0.2
    }
  }
}
layer {
  name: "inception_3b/relu_3x3_reduce"
  type: "ReLU"
  bottom: "inception_3b/3x3_reduce"
  top: "inception_3b/3x3_reduce"
}
layer {
  name: "inception_3b/3x3"
  type: "Convolution"
  bottom: "inception_3b/3x3_reduce"
  top: "inception_3b/3x3"
  param {
    lr_mult: 1
    decay_mult: 1
  }
  param {
    lr_mult: 2
    decay_mult: 0
  }
  convolution_param {
    num_output: 192
    pad: 1
    kernel_size: 3
    weight_filler {
      type: "xavier"
      std: 0.03
    }
    bias_filler {
      type: "constant"
      value: 0.2
    }
  }
}
layer {
  name: "inception_3b/relu_3x3"
  type: "ReLU"
  bottom: "inception_3b/3x3"
  top: "inception_3b/3x3"
}
layer {
  name: "inception_3b/5x5_reduce"
  type: "Convolution"
  bottom: "inception_3a/output"
  top: "inception_3b/5x5_reduce"
  param {
    lr_mult: 1
    decay_mult: 1
  }
  param {
    lr_mult: 2
    decay_mult: 0
  }
  convolution_param {
    num_output: 32
    kernel_size: 1
    weight_filler {
      type: "xavier"
      std: 0.2
    }
    bias_filler {
      type: "constant"
      value: 0.2
    }
  }
}
layer {
  name: "inception_3b/relu_5x5_reduce"
  type: "ReLU"
  bottom: "inception_3b/5x5_reduce"
  top: "inception_3b/5x5_reduce"
}
layer {
  name: "inception_3b/5x5"
  type: "Convolution"
  bottom: "inception_3b/5x5_reduce"
  top: "inception_3b/5x5"
  param {
    lr_mult: 1
    decay_mult: 1
  }
  param {
    lr_mult: 2
    decay_mult: 0
  }
  convolution_param {
    num_output: 96
    pad: 2
    kernel_size: 5
    weight_filler {
      type: "xavier"
      std: 0.03
    }
    bias_filler {
      type: "constant"
      value: 0.2
    }
  }
}
layer {
  name: "inception_3b/relu_5x5"
  type: "ReLU"
  bottom: "inception_3b/5x5"
  top: "inception_3b/5x5"
}
layer {
  name: "inception_3b/pool"
  type: "Pooling"
  bottom: "inception_3a/output"
  top: "inception_3b/pool"
  pooling_param {
    pool: MAX
    kernel_size: 3
    stride: 1
    pad: 1
  }
}
layer {
  name: "inception_3b/pool_proj"
  type: "Convolution"
  bottom: "inception_3b/pool"
  top: "inception_3b/pool_proj"
  param {
    lr_mult: 1
    decay_mult: 1
  }
  param {
    lr_mult: 2
    decay_mult: 0
  }
  convolution_param {
    num_output: 64
    kernel_size: 1
    weight_filler {
      type: "xavier"
      std: 0.1
    }
    bias_filler {
      type: "constant"
      value: 0.2
    }
  }
}
layer {
  name: "inception_3b/relu_pool_proj"
  type: "ReLU"
  bottom: "inception_3b/pool_proj"
  top: "inception_3b/pool_proj"
}
layer {
  name: "inception_3b/output"
  type: "Concat"
  bottom: "inception_3b/1x1"
  bottom: "inception_3b/3x3"
  bottom: "inception_3b/5x5"
  bottom: "inception_3b/pool_proj"
  top: "inception_3b/output"
}
layer {
  name: "pool3/3x3_s2"
  type: "Pooling"
  bottom: "inception_3b/output"
  top: "pool3/3x3_s2"
  pooling_param {
    pool: MAX
    kernel_size: 3
    stride: 2
  }
}
layer {
  name: "inception_4a/1x1"
  type: "Convolution"
  bottom: "pool3/3x3_s2"
  top: "inception_4a/1x1"
  param {
    lr_mult: 1
    decay_mult: 1
  }
  param {
    lr_mult: 2
    decay_mult: 0
  }
  convolution_param {
    num_output: 192
    kernel_size: 1
    weight_filler {
      type: "xavier"
      std: 0.03
    }
    bias_filler {
      type: "constant"
      value: 0.2
    }
  }
}
layer {
  name: "inception_4a/relu_1x1"
  type: "ReLU"
  bottom: "inception_4a/1x1"
  top: "inception_4a/1x1"
}
layer {
  name: "inception_4a/3x3_reduce"
  type: "Convolution"
  bottom: "pool3/3x3_s2"
  top: "inception_4a/3x3_reduce"
  param {
    lr_mult: 1
    decay_mult: 1
  }
  param {
    lr_mult: 2
    decay_mult: 0
  }
  convolution_param {
    num_output: 96
    kernel_size: 1
    weight_filler {
      type: "xavier"
      std: 0.09
    }
    bias_filler {
      type: "constant"
      value: 0.2
    }
  }
}
layer {
  name: "inception_4a/relu_3x3_reduce"
  type: "ReLU"
  bottom: "inception_4a/3x3_reduce"
  top: "inception_4a/3x3_reduce"
}
layer {
  name: "inception_4a/3x3"
  type: "Convolution"
  bottom: "inception_4a/3x3_reduce"
  top: "inception_4a/3x3"
  param {
    lr_mult: 1
    decay_mult: 1
  }
  param {
    lr_mult: 2
    decay_mult: 0
  }
  convolution_param {
    num_output: 208
    pad: 1
    kernel_size: 3
    weight_filler {
      type: "xavier"
      std: 0.03
    }
    bias_filler {
      type: "constant"
      value: 0.2
    }
  }
}
layer {
  name: "inception_4a/relu_3x3"
  type: "ReLU"
  bottom: "inception_4a/3x3"
  top: "inception_4a/3x3"
}
layer {
  name: "inception_4a/5x5_reduce"
  type: "Convolution"
  bottom: "pool3/3x3_s2"
  top: "inception_4a/5x5_reduce"
  param {
    lr_mult: 1
    decay_mult: 1
  }
  param {
    lr_mult: 2
    decay_mult: 0
  }
  convolution_param {
    num_output: 16
    kernel_size: 1
    weight_filler {
      type: "xavier"
      std: 0.2
    }
    bias_filler {
      type: "constant"
      value: 0.2
    }
  }
}
layer {
  name: "inception_4a/relu_5x5_reduce"
  type: "ReLU"
  bottom: "inception_4a/5x5_reduce"
  top: "inception_4a/5x5_reduce"
}
layer {
  name: "inception_4a/5x5"
  type: "Convolution"
  bottom: "inception_4a/5x5_reduce"
  top: "inception_4a/5x5"
  param {
    lr_mult: 1
    decay_mult: 1
  }
  param {
    lr_mult: 2
    decay_mult: 0
  }
  convolution_param {
    num_output: 48
    pad: 2
    kernel_size: 5
    weight_filler {
      type: "xavier"
      std: 0.03
    }
    bias_filler {
      type: "constant"
      value: 0.2
    }
  }
}
layer {
  name: "inception_4a/relu_5x5"
  type: "ReLU"
  bottom: "inception_4a/5x5"
  top: "inception_4a/5x5"
}
layer {
  name: "inception_4a/pool"
  type: "Pooling"
  bottom: "pool3/3x3_s2"
  top: "inception_4a/pool"
  pooling_param {
    pool: MAX
    kernel_size: 3
    stride: 1
    pad: 1
  }
}
layer {
  name: "inception_4a/pool_proj"
  type: "Convolution"
  bottom: "inception_4a/pool"
  top: "inception_4a/pool_proj"
  param {
    lr_mult: 1
    decay_mult: 1
  }
  param {
    lr_mult: 2
    decay_mult: 0
  }
  convolution_param {
    num_output: 64
    kernel_size: 1
    weight_filler {
      type: "xavier"
      std: 0.1
    }
    bias_filler {
      type: "constant"
      value: 0.2
    }
  }
}
layer {
  name: "inception_4a/relu_pool_proj"
  type: "ReLU"
  bottom: "inception_4a/pool_proj"
  top: "inception_4a/pool_proj"
}
layer {
  name: "inception_4a/output"
  type: "Concat"
  bottom: "inception_4a/1x1"
  bottom: "inception_4a/3x3"
  bottom: "inception_4a/5x5"
  bottom: "inception_4a/pool_proj"
  top: "inception_4a/output"
}
layer {
  name: "loss1/ave_pool"
  type: "Pooling"
  bottom: "inception_4a/output"
  top: "loss1/ave_pool"
  pooling_param {
    pool: AVE
    kernel_size: 5
    stride: 3
  }
}
layer {
  name: "loss1/conv"
  type: "Convolution"
  bottom: "loss1/ave_pool"
  top: "loss1/conv"
  param {
    lr_mult: 1
    decay_mult: 1
  }
  param {
    lr_mult: 2
    decay_mult: 0
  }
  convolution_param {
    num_output: 128
    kernel_size: 1
    weight_filler {
      type: "xavier"
      std: 0.08
    }
    bias_filler {
      type: "constant"
      value: 0.2
    }
  }
}
layer {
  name: "loss1/relu_conv"
  type: "ReLU"
  bottom: "loss1/conv"
  top: "loss1/conv"
}
layer {
  name: "loss1/fc"
  type: "InnerProduct"
  bottom: "loss1/conv"
  top: "loss1/fc"
  param {
    lr_mult: 1
    decay_mult: 1
  }
  param {
    lr_mult: 2
    decay_mult: 0
  }
  inner_product_param {
    num_output: 1024
    weight_filler {
      type: "xavier"
      std: 0.02
    }
    bias_filler {
      type: "constant"
      value: 0.2
    }
  }
}
layer {
  name: "loss1/relu_fc"
  type: "ReLU"
  bottom: "loss1/fc"
  top: "loss1/fc"
}
layer {
  name: "loss1/drop_fc"
  type: "Dropout"
  bottom: "loss1/fc"
  top: "loss1/fc"
  dropout_param {
    dropout_ratio: 0.7
  }
}
layer {
  name: "loss1/classifier_plantvillage"
  type: "InnerProduct"
  bottom: "loss1/fc"
  top: "loss1/classifier_plantvillage"
  param {
    lr_mult: 1
    decay_mult: 1
  }
  param {
    lr_mult: 2
    decay_mult: 0
  }
  inner_product_param {
    num_output: 38
    weight_filler {
      type: "xavier"
      std: 0.0009765625
    }
    bias_filler {
      type: "constant"
      value: 0
    }
  }
}
layer {
  name: "inception_4b/1x1"
  type: "Convolution"
  bottom: "inception_4a/output"
  top: "inception_4b/1x1"
  param {
    lr_mult: 1
    decay_mult: 1
  }
  param {
    lr_mult: 2
    decay_mult: 0
  }
  convolution_param {
    num_output: 160
    kernel_size: 1
    weight_filler {
      type: "xavier"
      std: 0.03
    }
    bias_filler {
      type: "constant"
      value: 0.2
    }
  }
}
layer {
  name: "inception_4b/relu_1x1"
  type: "ReLU"
  bottom: "inception_4b/1x1"
  top: "inception_4b/1x1"
}
layer {
  name: "inception_4b/3x3_reduce"
  type: "Convolution"
  bottom: "inception_4a/output"
  top: "inception_4b/3x3_reduce"
  param {
    lr_mult: 1
    decay_mult: 1
  }
  param {
    lr_mult: 2
    decay_mult: 0
  }
  convolution_param {
    num_output: 112
    kernel_size: 1
    weight_filler {
      type: "xavier"
      std: 0.09
    }
    bias_filler {
      type: "constant"
      value: 0.2
    }
  }
}
layer {
  name: "inception_4b/relu_3x3_reduce"
  type: "ReLU"
  bottom: "inception_4b/3x3_reduce"
  top: "inception_4b/3x3_reduce"
}
layer {
  name: "inception_4b/3x3"
  type: "Convolution"
  bottom: "inception_4b/3x3_reduce"
  top: "inception_4b/3x3"
  param {
    lr_mult: 1
    decay_mult: 1
  }
  param {
    lr_mult: 2
    decay_mult: 0
  }
  convolution_param {
    num_output: 224
    pad: 1
    kernel_size: 3
    weight_filler {
      type: "xavier"
      std: 0.03
    }
    bias_filler {
      type: "constant"
      value: 0.2
    }
  }
}
layer {
  name: "inception_4b/relu_3x3"
  type: "ReLU"
  bottom: "inception_4b/3x3"
  top: "inception_4b/3x3"
}
layer {
  name: "inception_4b/5x5_reduce"
  type: "Convolution"
  bottom: "inception_4a/output"
  top: "inception_4b/5x5_reduce"
  param {
    lr_mult: 1
    decay_mult: 1
  }
  param {
    lr_mult: 2
    decay_mult: 0
  }
  convolution_param {
    num_output: 24
    kernel_size: 1
    weight_filler {
      type: "xavier"
      std: 0.2
    }
    bias_filler {
      type: "constant"
      value: 0.2
    }
  }
}
layer {
  name: "inception_4b/relu_5x5_reduce"
  type: "ReLU"
  bottom: "inception_4b/5x5_reduce"
  top: "inception_4b/5x5_reduce"
}
layer {
  name: "inception_4b/5x5"
  type: "Convolution"
  bottom: "inception_4b/5x5_reduce"
  top: "inception_4b/5x5"
  param {
    lr_mult: 1
    decay_mult: 1
  }
  param {
    lr_mult: 2
    decay_mult: 0
  }
  convolution_param {
    num_output: 64
    pad: 2
    kernel_size: 5
    weight_filler {
      type: "xavier"
      std: 0.03
    }
    bias_filler {
      type: "constant"
      value: 0.2
    }
  }
}
layer {
  name: "inception_4b/relu_5x5"
  type: "ReLU"
  bottom: "inception_4b/5x5"
  top: "inception_4b/5x5"
}
layer {
  name: "inception_4b/pool"
  type: "Pooling"
  bottom: "inception_4a/output"
  top: "inception_4b/pool"
  pooling_param {
    pool: MAX
    kernel_size: 3
    stride: 1
    pad: 1
  }
}
layer {
  name: "inception_4b/pool_proj"
  type: "Convolution"
  bottom: "inception_4b/pool"
  top: "inception_4b/pool_proj"
  param {
    lr_mult: 1
    decay_mult: 1
  }
  param {
    lr_mult: 2
    decay_mult: 0
  }
  convolution_param {
    num_output: 64
    kernel_size: 1
    weight_filler {
      type: "xavier"
      std: 0.1
    }
    bias_filler {
      type: "constant"
      value: 0.2
    }
  }
}
layer {
  name: "inception_4b/relu_pool_proj"
  type: "ReLU"
  bottom: "inception_4b/pool_proj"
  top: "inception_4b/pool_proj"
}
layer {
  name: "inception_4b/output"
  type: "Concat"
  bottom: "inception_4b/1x1"
  bottom: "inception_4b/3x3"
  bottom: "inception_4b/5x5"
  bottom: "inception_4b/pool_proj"
  top: "inception_4b/output"
}
layer {
  name: "inception_4c/1x1"
  type: "Convolution"
  bottom: "inception_4b/output"
  top: "inception_4c/1x1"
  param {
    lr_mult: 1
    decay_mult: 1
  }
  param {
    lr_mult: 2
    decay_mult: 0
  }
  convolution_param {
    num_output: 128
    kernel_size: 1
    weight_filler {
      type: "xavier"
      std: 0.03
    }
    bias_filler {
      type: "constant"
      value: 0.2
    }
  }
}
layer {
  name: "inception_4c/relu_1x1"
  type: "ReLU"
  bottom: "inception_4c/1x1"
  top: "inception_4c/1x1"
}
layer {
  name: "inception_4c/3x3_reduce"
  type: "Convolution"
  bottom: "inception_4b/output"
  top: "inception_4c/3x3_reduce"
  param {
    lr_mult: 1
    decay_mult: 1
  }
  param {
    lr_mult: 2
    decay_mult: 0
  }
  convolution_param {
    num_output: 128
    kernel_size: 1
    weight_filler {
      type: "xavier"
      std: 0.09
    }
    bias_filler {
      type: "constant"
      value: 0.2
    }
  }
}
layer {
  name: "inception_4c/relu_3x3_reduce"
  type: "ReLU"
  bottom: "inception_4c/3x3_reduce"
  top: "inception_4c/3x3_reduce"
}
layer {
  name: "inception_4c/3x3"
  type: "Convolution"
  bottom: "inception_4c/3x3_reduce"
  top: "inception_4c/3x3"
  param {
    lr_mult: 1
    decay_mult: 1
  }
  param {
    lr_mult: 2
    decay_mult: 0
  }
  convolution_param {
    num_output: 256
    pad: 1
    kernel_size: 3
    weight_filler {
      type: "xavier"
      std: 0.03
    }
    bias_filler {
      type: "constant"
      value: 0.2
    }
  }
}
layer {
  name: "inception_4c/relu_3x3"
  type: "ReLU"
  bottom: "inception_4c/3x3"
  top: "inception_4c/3x3"
}
layer {
  name: "inception_4c/5x5_reduce"
  type: "Convolution"
  bottom: "inception_4b/output"
  top: "inception_4c/5x5_reduce"
  param {
    lr_mult: 1
    decay_mult: 1
  }
  param {
    lr_mult: 2
    decay_mult: 0
  }
  convolution_param {
    num_output: 24
    kernel_size: 1
    weight_filler {
      type: "xavier"
      std: 0.2
    }
    bias_filler {
      type: "constant"
      value: 0.2
    }
  }
}
layer {
  name: "inception_4c/relu_5x5_reduce"
  type: "ReLU"
  bottom: "inception_4c/5x5_reduce"
  top: "inception_4c/5x5_reduce"
}
layer {
  name: "inception_4c/5x5"
  type: "Convolution"
  bottom: "inception_4c/5x5_reduce"
  top: "inception_4c/5x5"
  param {
    lr_mult: 1
    decay_mult: 1
  }
  param {
    lr_mult: 2
    decay_mult: 0
  }
  convolution_param {
    num_output: 64
    pad: 2
    kernel_size: 5
    weight_filler {
      type: "xavier"
      std: 0.03
    }
    bias_filler {
      type: "constant"
      value: 0.2
    }
  }
}
layer {
  name: "inception_4c/relu_5x5"
  type: "ReLU"
  bottom: "inception_4c/5x5"
  top: "inception_4c/5x5"
}
layer {
  name: "inception_4c/pool"
  type: "Pooling"
  bottom: "inception_4b/output"
  top: "inception_4c/pool"
  pooling_param {
    pool: MAX
    kernel_size: 3
    stride: 1
    pad: 1
  }
}
layer {
  name: "inception_4c/pool_proj"
  type: "Convolution"
  bottom: "inception_4c/pool"
  top: "inception_4c/pool_proj"
  param {
    lr_mult: 1
    decay_mult: 1
  }
  param {
    lr_mult: 2
    decay_mult: 0
  }
  convolution_param {
    num_output: 64
    kernel_size: 1
    weight_filler {
      type: "xavier"
      std: 0.1
    }
    bias_filler {
      type: "constant"
      value: 0.2
    }
  }
}
layer {
  name: "inception_4c/relu_pool_proj"
  type: "ReLU"
  bottom: "inception_4c/pool_proj"
  top: "inception_4c/pool_proj"
}
layer {
  name: "inception_4c/output"
  type: "Concat"
  bottom: "inception_4c/1x1"
  bottom: "inception_4c/3x3"
  bottom: "inception_4c/5x5"
  bottom: "inception_4c/pool_proj"
  top: "inception_4c/output"
}
layer {
  name: "inception_4d/1x1"
  type: "Convolution"
  bottom: "inception_4c/output"
  top: "inception_4d/1x1"
  param {
    lr_mult: 1
    decay_mult: 1
  }
  param {
    lr_mult: 2
    decay_mult: 0
  }
  convolution_param {
    num_output: 112
    kernel_size: 1
    weight_filler {
      type: "xavier"
      std: 0.03
    }
    bias_filler {
      type: "constant"
      value: 0.2
    }
  }
}
layer {
  name: "inception_4d/relu_1x1"
  type: "ReLU"
  bottom: "inception_4d/1x1"
  top: "inception_4d/1x1"
}
layer {
  name: "inception_4d/3x3_reduce"
  type: "Convolution"
  bottom: "inception_4c/output"
  top: "inception_4d/3x3_reduce"
  param {
    lr_mult: 1
    decay_mult: 1
  }
  param {
    lr_mult: 2
    decay_mult: 0
  }
  convolution_param {
    num_output: 144
    kernel_size: 1
    weight_filler {
      type: "xavier"
      std: 0.09
    }
    bias_filler {
      type: "constant"
      value: 0.2
    }
  }
}
layer {
  name: "inception_4d/relu_3x3_reduce"
  type: "ReLU"
  bottom: "inception_4d/3x3_reduce"
  top: "inception_4d/3x3_reduce"
}
layer {
  name: "inception_4d/3x3"
  type: "Convolution"
  bottom: "inception_4d/3x3_reduce"
  top: "inception_4d/3x3"
  param {
    lr_mult: 1
    decay_mult: 1
  }
  param {
    lr_mult: 2
    decay_mult: 0
  }
  convolution_param {
    num_output: 288
    pad: 1
    kernel_size: 3
    weight_filler {
      type: "xavier"
      std: 0.03
    }
    bias_filler {
      type: "constant"
      value: 0.2
    }
  }
}
layer {
  name: "inception_4d/relu_3x3"
  type: "ReLU"
  bottom: "inception_4d/3x3"
  top: "inception_4d/3x3"
}
layer {
  name: "inception_4d/5x5_reduce"
  type: "Convolution"
  bottom: "inception_4c/output"
  top: "inception_4d/5x5_reduce"
  param {
    lr_mult: 1
    decay_mult: 1
  }
  param {
    lr_mult: 2
    decay_mult: 0
  }
  convolution_param {
    num_output: 32
    kernel_size: 1
    weight_filler {
      type: "xavier"
      std: 0.2
    }
    bias_filler {
      type: "constant"
      value: 0.2
    }
  }
}
layer {
  name: "inception_4d/relu_5x5_reduce"
  type: "ReLU"
  bottom: "inception_4d/5x5_reduce"
  top: "inception_4d/5x5_reduce"
}
layer {
  name: "inception_4d/5x5"
  type: "Convolution"
  bottom: "inception_4d/5x5_reduce"
  top: "inception_4d/5x5"
  param {
    lr_mult: 1
    decay_mult: 1
  }
  param {
    lr_mult: 2
    decay_mult: 0
  }
  convolution_param {
    num_output: 64
    pad: 2
    kernel_size: 5
    weight_filler {
      type: "xavier"
      std: 0.03
    }
    bias_filler {
      type: "constant"
      value: 0.2
    }
  }
}
layer {
  name: "inception_4d/relu_5x5"
  type: "ReLU"
  bottom: "inception_4d/5x5"
  top: "inception_4d/5x5"
}
layer {
  name: "inception_4d/pool"
  type: "Pooling"
  bottom: "inception_4c/output"
  top: "inception_4d/pool"
  pooling_param {
    pool: MAX
    kernel_size: 3
    stride: 1
    pad: 1
  }
}
layer {
  name: "inception_4d/pool_proj"
  type: "Convolution"
  bottom: "inception_4d/pool"
  top: "inception_4d/pool_proj"
  param {
    lr_mult: 1
    decay_mult: 1
  }
  param {
    lr_mult: 2
    decay_mult: 0
  }
  convolution_param {
    num_output: 64
    kernel_size: 1
    weight_filler {
      type: "xavier"
      std: 0.1
    }
    bias_filler {
      type: "constant"
      value: 0.2
    }
  }
}
layer {
  name: "inception_4d/relu_pool_proj"
  type: "ReLU"
  bottom: "inception_4d/pool_proj"
  top: "inception_4d/pool_proj"
}
layer {
  name: "inception_4d/output"
  type: "Concat"
  bottom: "inception_4d/1x1"
  bottom: "inception_4d/3x3"
  bottom: "inception_4d/5x5"
  bottom: "inception_4d/pool_proj"
  top: "inception_4d/output"
}
layer {
  name: "loss2/ave_pool"
  type: "Pooling"
  bottom: "inception_4d/output"
  top: "loss2/ave_pool"
  pooling_param {
    pool: AVE
    kernel_size: 5
    stride: 3
  }
}
layer {
  name: "loss2/conv"
  type: "Convolution"
  bottom: "loss2/ave_pool"
  top: "loss2/conv"
  param {
    lr_mult: 1
    decay_mult: 1
  }
  param {
    lr_mult: 2
    decay_mult: 0
  }
  convolution_param {
    num_output: 128
    kernel_size: 1
    weight_filler {
      type: "xavier"
      std: 0.08
    }
    bias_filler {
      type: "constant"
      value: 0.2
    }
  }
}
layer {
  name: "loss2/relu_conv"
  type: "ReLU"
  bottom: "loss2/conv"
  top: "loss2/conv"
}
layer {
  name: "loss2/fc"
  type: "InnerProduct"
  bottom: "loss2/conv"
  top: "loss2/fc"
  param {
    lr_mult: 1
    decay_mult: 1
  }
  param {
    lr_mult: 2
    decay_mult: 0
  }
  inner_product_param {
    num_output: 1024
    weight_filler {
      type: "xavier"
      std: 0.02
    }
    bias_filler {
      type: "constant"
      value: 0.2
    }
  }
}
layer {
  name: "loss2/relu_fc"
  type: "ReLU"
  bottom: "loss2/fc"
  top: "loss2/fc"
}
layer {
  name: "loss2/drop_fc"
  type: "Dropout"
  bottom: "loss2/fc"
  top: "loss2/fc"
  dropout_param {
    dropout_ratio: 0.7
  }
}
layer {
  name: "loss2/classifier_plantvillage"
  type: "InnerProduct"
  bottom: "loss2/fc"
  top: "loss2/classifier_plantvillage"
  param {
    lr_mult: 1
    decay_mult: 1
  }
  param {
    lr_mult: 2
    decay_mult: 0
  }
  inner_product_param {
    num_output: 38
    weight_filler {
      type: "xavier"
      std: 0.0009765625
    }
    bias_filler {
      type: "constant"
      value: 0
    }
  }
}
layer {
  name: "inception_4e/1x1"
  type: "Convolution"
  bottom: "inception_4d/output"
  top: "inception_4e/1x1"
  param {
    lr_mult: 1
    decay_mult: 1
  }
  param {
    lr_mult: 2
    decay_mult: 0
  }
  convolution_param {
    num_output: 256
    kernel_size: 1
    weight_filler {
      type: "xavier"
      std: 0.03
    }
    bias_filler {
      type: "constant"
      value: 0.2
    }
  }
}
layer {
  name: "inception_4e/relu_1x1"
  type: "ReLU"
  bottom: "inception_4e/1x1"
  top: "inception_4e/1x1"
}
layer {
  name: "inception_4e/3x3_reduce"
  type: "Convolution"
  bottom: "inception_4d/output"
  top: "inception_4e/3x3_reduce"
  param {
    lr_mult: 1
    decay_mult: 1
  }
  param {
    lr_mult: 2
    decay_mult: 0
  }
  convolution_param {
    num_output: 160
    kernel_size: 1
    weight_filler {
      type: "xavier"
      std: 0.09
    }
    bias_filler {
      type: "constant"
      value: 0.2
    }
  }
}
layer {
  name: "inception_4e/relu_3x3_reduce"
  type: "ReLU"
  bottom: "inception_4e/3x3_reduce"
  top: "inception_4e/3x3_reduce"
}
layer {
  name: "inception_4e/3x3"
  type: "Convolution"
  bottom: "inception_4e/3x3_reduce"
  top: "inception_4e/3x3"
  param {
    lr_mult: 1
    decay_mult: 1
  }
  param {
    lr_mult: 2
    decay_mult: 0
  }
  convolution_param {
    num_output: 320
    pad: 1
    kernel_size: 3
    weight_filler {
      type: "xavier"
      std: 0.03
    }
    bias_filler {
      type: "constant"
      value: 0.2
    }
  }
}
layer {
  name: "inception_4e/relu_3x3"
  type: "ReLU"
  bottom: "inception_4e/3x3"
  top: "inception_4e/3x3"
}
layer {
  name: "inception_4e/5x5_reduce"
  type: "Convolution"
  bottom: "inception_4d/output"
  top: "inception_4e/5x5_reduce"
  param {
    lr_mult: 1
    decay_mult: 1
  }
  param {
    lr_mult: 2
    decay_mult: 0
  }
  convolution_param {
    num_output: 32
    kernel_size: 1
    weight_filler {
      type: "xavier"
      std: 0.2
    }
    bias_filler {
      type: "constant"
      value: 0.2
    }
  }
}
layer {
  name: "inception_4e/relu_5x5_reduce"
  type: "ReLU"
  bottom: "inception_4e/5x5_reduce"
  top: "inception_4e/5x5_reduce"
}
layer {
  name: "inception_4e/5x5"
  type: "Convolution"
  bottom: "inception_4e/5x5_reduce"
  top: "inception_4e/
I0403 14:49:21.507086 11291 layer_factory.hpp:77] Creating layer data
I0403 14:49:21.507849 11291 net.cpp:91] Creating Layer data
I0403 14:49:21.507889 11291 net.cpp:399] data -> data
I0403 14:49:21.507939 11291 net.cpp:399] data -> label
I0403 14:49:21.507979 11291 data_transformer.cpp:25] Loading mean file from: /home/mohanty/data/final_dataset/lmdb/segmented-50-50/mean.binaryproto
I0403 14:49:21.558426 11296 db_lmdb.cpp:38] Opened lmdb /home/mohanty/data/final_dataset/lmdb/segmented-50-50/test_db
I0403 14:49:21.577800 11291 data_layer.cpp:41] output data size: 24,3,224,224
I0403 14:49:21.611181 11291 net.cpp:141] Setting up data
I0403 14:49:21.611279 11291 net.cpp:148] Top shape: 24 3 224 224 (3612672)
I0403 14:49:21.611310 11291 net.cpp:148] Top shape: 24 (24)
I0403 14:49:21.611330 11291 net.cpp:156] Memory required for data: 14450784
I0403 14:49:21.611361 11291 layer_factory.hpp:77] Creating layer label_data_1_split
I0403 14:49:21.611393 11291 net.cpp:91] Creating Layer label_data_1_split
I0403 14:49:21.611419 11291 net.cpp:425] label_data_1_split <- label
I0403 14:49:21.611456 11291 net.cpp:399] label_data_1_split -> label_data_1_split_0
I0403 14:49:21.611490 11291 net.cpp:399] label_data_1_split -> label_data_1_split_1
I0403 14:49:21.611516 11291 net.cpp:399] label_data_1_split -> label_data_1_split_2
I0403 14:49:21.611541 11291 net.cpp:399] label_data_1_split -> label_data_1_split_3
I0403 14:49:21.611563 11291 net.cpp:399] label_data_1_split -> label_data_1_split_4
I0403 14:49:21.611587 11291 net.cpp:399] label_data_1_split -> label_data_1_split_5
I0403 14:49:21.611609 11291 net.cpp:399] label_data_1_split -> label_data_1_split_6
I0403 14:49:21.611634 11291 net.cpp:399] label_data_1_split -> label_data_1_split_7
I0403 14:49:21.611657 11291 net.cpp:399] label_data_1_split -> label_data_1_split_8
I0403 14:49:21.611681 11291 net.cpp:399] label_data_1_split -> label_data_1_split_9
I0403 14:49:21.611820 11291 net.cpp:141] Setting up label_data_1_split
I0403 14:49:21.611850 11291 net.cpp:148] Top shape: 24 (24)
I0403 14:49:21.611868 11291 net.cpp:148] Top shape: 24 (24)
I0403 14:49:21.611888 11291 net.cpp:148] Top shape: 24 (24)
I0403 14:49:21.611907 11291 net.cpp:148] Top shape: 24 (24)
I0403 14:49:21.611925 11291 net.cpp:148] Top shape: 24 (24)
I0403 14:49:21.611944 11291 net.cpp:148] Top shape: 24 (24)
I0403 14:49:21.611963 11291 net.cpp:148] Top shape: 24 (24)
I0403 14:49:21.611980 11291 net.cpp:148] Top shape: 24 (24)
I0403 14:49:21.611999 11291 net.cpp:148] Top shape: 24 (24)
I0403 14:49:21.612018 11291 net.cpp:148] Top shape: 24 (24)
I0403 14:49:21.612071 11291 net.cpp:156] Memory required for data: 14451744
I0403 14:49:21.612089 11291 layer_factory.hpp:77] Creating layer conv1/7x7_s2
I0403 14:49:21.612125 11291 net.cpp:91] Creating Layer conv1/7x7_s2
I0403 14:49:21.612149 11291 net.cpp:425] conv1/7x7_s2 <- data
I0403 14:49:21.612170 11291 net.cpp:399] conv1/7x7_s2 -> conv1/7x7_s2
I0403 14:49:21.993743 11291 net.cpp:141] Setting up conv1/7x7_s2
I0403 14:49:21.993829 11291 net.cpp:148] Top shape: 24 64 112 112 (19267584)
I0403 14:49:21.993856 11291 net.cpp:156] Memory required for data: 91522080
I0403 14:49:21.993893 11291 layer_factory.hpp:77] Creating layer conv1/relu_7x7
I0403 14:49:21.993940 11291 net.cpp:91] Creating Layer conv1/relu_7x7
I0403 14:49:21.993964 11291 net.cpp:425] conv1/relu_7x7 <- conv1/7x7_s2
I0403 14:49:21.993988 11291 net.cpp:386] conv1/relu_7x7 -> conv1/7x7_s2 (in-place)
I0403 14:49:21.994300 11291 net.cpp:141] Setting up conv1/relu_7x7
I0403 14:49:21.994336 11291 net.cpp:148] Top shape: 24 64 112 112 (19267584)
I0403 14:49:21.994354 11291 net.cpp:156] Memory required for data: 168592416
I0403 14:49:21.994372 11291 layer_factory.hpp:77] Creating layer pool1/3x3_s2
I0403 14:49:21.994424 11291 net.cpp:91] Creating Layer pool1/3x3_s2
I0403 14:49:21.994448 11291 net.cpp:425] pool1/3x3_s2 <- conv1/7x7_s2
I0403 14:49:21.994470 11291 net.cpp:399] pool1/3x3_s2 -> pool1/3x3_s2
I0403 14:49:21.994591 11291 net.cpp:141] Setting up pool1/3x3_s2
I0403 14:49:21.994621 11291 net.cpp:148] Top shape: 24 64 56 56 (4816896)
I0403 14:49:21.994638 11291 net.cpp:156] Memory required for data: 187860000
I0403 14:49:21.994655 11291 layer_factory.hpp:77] Creating layer pool1/norm1
I0403 14:49:21.994696 11291 net.cpp:91] Creating Layer pool1/norm1
I0403 14:49:21.994719 11291 net.cpp:425] pool1/norm1 <- pool1/3x3_s2
I0403 14:49:21.994740 11291 net.cpp:399] pool1/norm1 -> pool1/norm1
I0403 14:49:21.995126 11291 net.cpp:141] Setting up pool1/norm1
I0403 14:49:21.995158 11291 net.cpp:148] Top shape: 24 64 56 56 (4816896)
I0403 14:49:21.995177 11291 net.cpp:156] Memory required for data: 207127584
I0403 14:49:21.995195 11291 layer_factory.hpp:77] Creating layer conv2/3x3_reduce
I0403 14:49:21.995228 11291 net.cpp:91] Creating Layer conv2/3x3_reduce
I0403 14:49:21.995249 11291 net.cpp:425] conv2/3x3_reduce <- pool1/norm1
I0403 14:49:21.995275 11291 net.cpp:399] conv2/3x3_reduce -> conv2/3x3_reduce
I0403 14:49:21.997037 11291 net.cpp:141] Setting up conv2/3x3_reduce
I0403 14:49:21.997073 11291 net.cpp:148] Top shape: 24 64 56 56 (4816896)
I0403 14:49:21.997094 11291 net.cpp:156] Memory required for data: 226395168
I0403 14:49:21.997119 11291 layer_factory.hpp:77] Creating layer conv2/relu_3x3_reduce
I0403 14:49:21.997143 11291 net.cpp:91] Creating Layer conv2/relu_3x3_reduce
I0403 14:49:21.997161 11291 net.cpp:425] conv2/relu_3x3_reduce <- conv2/3x3_reduce
I0403 14:49:21.997184 11291 net.cpp:386] conv2/relu_3x3_reduce -> conv2/3x3_reduce (in-place)
I0403 14:49:21.997510 11291 net.cpp:141] Setting up conv2/relu_3x3_reduce
I0403 14:49:21.997545 11291 net.cpp:148] Top shape: 24 64 56 56 (4816896)
I0403 14:49:21.997565 11291 net.cpp:156] Memory required for data: 245662752
I0403 14:49:21.997582 11291 layer_factory.hpp:77] Creating layer conv2/3x3
I0403 14:49:21.997611 11291 net.cpp:91] Creating Layer conv2/3x3
I0403 14:49:21.997632 11291 net.cpp:425] conv2/3x3 <- conv2/3x3_reduce
I0403 14:49:21.997659 11291 net.cpp:399] conv2/3x3 -> conv2/3x3
I0403 14:49:22.000522 11291 net.cpp:141] Setting up conv2/3x3
I0403 14:49:22.000561 11291 net.cpp:148] Top shape: 24 192 56 56 (14450688)
I0403 14:49:22.000581 11291 net.cpp:156] Memory required for data: 303465504
I0403 14:49:22.000607 11291 layer_factory.hpp:77] Creating layer conv2/relu_3x3
I0403 14:49:22.000632 11291 net.cpp:91] Creating Layer conv2/relu_3x3
I0403 14:49:22.000649 11291 net.cpp:425] conv2/relu_3x3 <- conv2/3x3
I0403 14:49:22.000674 11291 net.cpp:386] conv2/relu_3x3 -> conv2/3x3 (in-place)
I0403 14:49:22.000890 11291 net.cpp:141] Setting up conv2/relu_3x3
I0403 14:49:22.000919 11291 net.cpp:148] Top shape: 24 192 56 56 (14450688)
I0403 14:49:22.000965 11291 net.cpp:156] Memory required for data: 361268256
I0403 14:49:22.000985 11291 layer_factory.hpp:77] Creating layer conv2/norm2
I0403 14:49:22.001009 11291 net.cpp:91] Creating Layer conv2/norm2
I0403 14:49:22.001030 11291 net.cpp:425] conv2/norm2 <- conv2/3x3
I0403 14:49:22.001055 11291 net.cpp:399] conv2/norm2 -> conv2/norm2
I0403 14:49:22.001426 11291 net.cpp:141] Setting up conv2/norm2
I0403 14:49:22.001461 11291 net.cpp:148] Top shape: 24 192 56 56 (14450688)
I0403 14:49:22.001482 11291 net.cpp:156] Memory required for data: 419071008
I0403 14:49:22.001502 11291 layer_factory.hpp:77] Creating layer pool2/3x3_s2
I0403 14:49:22.001528 11291 net.cpp:91] Creating Layer pool2/3x3_s2
I0403 14:49:22.001546 11291 net.cpp:425] pool2/3x3_s2 <- conv2/norm2
I0403 14:49:22.001571 11291 net.cpp:399] pool2/3x3_s2 -> pool2/3x3_s2
I0403 14:49:22.001636 11291 net.cpp:141] Setting up pool2/3x3_s2
I0403 14:49:22.001669 11291 net.cpp:148] Top shape: 24 192 28 28 (3612672)
I0403 14:49:22.001688 11291 net.cpp:156] Memory required for data: 433521696
I0403 14:49:22.001713 11291 layer_factory.hpp:77] Creating layer pool2/3x3_s2_pool2/3x3_s2_0_split
I0403 14:49:22.001750 11291 net.cpp:91] Creating Layer pool2/3x3_s2_pool2/3x3_s2_0_split
I0403 14:49:22.001778 11291 net.cpp:425] pool2/3x3_s2_pool2/3x3_s2_0_split <- pool2/3x3_s2
I0403 14:49:22.001801 11291 net.cpp:399] pool2/3x3_s2_pool2/3x3_s2_0_split -> pool2/3x3_s2_pool2/3x3_s2_0_split_0
I0403 14:49:22.001827 11291 net.cpp:399] pool2/3x3_s2_pool2/3x3_s2_0_split -> pool2/3x3_s2_pool2/3x3_s2_0_split_1
I0403 14:49:22.001849 11291 net.cpp:399] pool2/3x3_s2_pool2/3x3_s2_0_split -> pool2/3x3_s2_pool2/3x3_s2_0_split_2
I0403 14:49:22.001873 11291 net.cpp:399] pool2/3x3_s2_pool2/3x3_s2_0_split -> pool2/3x3_s2_pool2/3x3_s2_0_split_3
I0403 14:49:22.001958 11291 net.cpp:141] Setting up pool2/3x3_s2_pool2/3x3_s2_0_split
I0403 14:49:22.001984 11291 net.cpp:148] Top shape: 24 192 28 28 (3612672)
I0403 14:49:22.002004 11291 net.cpp:148] Top shape: 24 192 28 28 (3612672)
I0403 14:49:22.002023 11291 net.cpp:148] Top shape: 24 192 28 28 (3612672)
I0403 14:49:22.002043 11291 net.cpp:148] Top shape: 24 192 28 28 (3612672)
I0403 14:49:22.002058 11291 net.cpp:156] Memory required for data: 491324448
I0403 14:49:22.002075 11291 layer_factory.hpp:77] Creating layer inception_3a/1x1
I0403 14:49:22.002104 11291 net.cpp:91] Creating Layer inception_3a/1x1
I0403 14:49:22.002130 11291 net.cpp:425] inception_3a/1x1 <- pool2/3x3_s2_pool2/3x3_s2_0_split_0
I0403 14:49:22.002158 11291 net.cpp:399] inception_3a/1x1 -> inception_3a/1x1
I0403 14:49:22.004070 11291 net.cpp:141] Setting up inception_3a/1x1
I0403 14:49:22.004104 11291 net.cpp:148] Top shape: 24 64 28 28 (1204224)
I0403 14:49:22.004124 11291 net.cpp:156] Memory required for data: 496141344
I0403 14:49:22.004148 11291 layer_factory.hpp:77] Creating layer inception_3a/relu_1x1
I0403 14:49:22.004169 11291 net.cpp:91] Creating Layer inception_3a/relu_1x1
I0403 14:49:22.004189 11291 net.cpp:425] inception_3a/relu_1x1 <- inception_3a/1x1
I0403 14:49:22.004214 11291 net.cpp:386] inception_3a/relu_1x1 -> inception_3a/1x1 (in-place)
I0403 14:49:22.004433 11291 net.cpp:141] Setting up inception_3a/relu_1x1
I0403 14:49:22.004463 11291 net.cpp:148] Top shape: 24 64 28 28 (1204224)
I0403 14:49:22.004482 11291 net.cpp:156] Memory required for data: 500958240
I0403 14:49:22.004499 11291 layer_factory.hpp:77] Creating layer inception_3a/3x3_reduce
I0403 14:49:22.004526 11291 net.cpp:91] Creating Layer inception_3a/3x3_reduce
I0403 14:49:22.004546 11291 net.cpp:425] inception_3a/3x3_reduce <- pool2/3x3_s2_pool2/3x3_s2_0_split_1
I0403 14:49:22.004572 11291 net.cpp:399] inception_3a/3x3_reduce -> inception_3a/3x3_reduce
I0403 14:49:22.006670 11291 net.cpp:141] Setting up inception_3a/3x3_reduce
I0403 14:49:22.006707 11291 net.cpp:148] Top shape: 24 96 28 28 (1806336)
I0403 14:49:22.006729 11291 net.cpp:156] Memory required for data: 508183584
I0403 14:49:22.006755 11291 layer_factory.hpp:77] Creating layer inception_3a/relu_3x3_reduce
I0403 14:49:22.006803 11291 net.cpp:91] Creating Layer inception_3a/relu_3x3_reduce
I0403 14:49:22.006826 11291 net.cpp:425] inception_3a/relu_3x3_reduce <- inception_3a/3x3_reduce
I0403 14:49:22.006847 11291 net.cpp:386] inception_3a/relu_3x3_reduce -> inception_3a/3x3_reduce (in-place)
I0403 14:49:22.007071 11291 net.cpp:141] Setting up inception_3a/relu_3x3_reduce
I0403 14:49:22.007104 11291 net.cpp:148] Top shape: 24 96 28 28 (1806336)
I0403 14:49:22.007123 11291 net.cpp:156] Memory required for data: 515408928
I0403 14:49:22.007141 11291 layer_factory.hpp:77] Creating layer inception_3a/3x3
I0403 14:49:22.007169 11291 net.cpp:91] Creating Layer inception_3a/3x3
I0403 14:49:22.007189 11291 net.cpp:425] inception_3a/3x3 <- inception_3a/3x3_reduce
I0403 14:49:22.007212 11291 net.cpp:399] inception_3a/3x3 -> inception_3a/3x3
I0403 14:49:22.009196 11291 net.cpp:141] Setting up inception_3a/3x3
I0403 14:49:22.009238 11291 net.cpp:148] Top shape: 24 128 28 28 (2408448)
I0403 14:49:22.009264 11291 net.cpp:156] Memory required for data: 525042720
I0403 14:49:22.009300 11291 layer_factory.hpp:77] Creating layer inception_3a/relu_3x3
I0403 14:49:22.009325 11291 net.cpp:91] Creating Layer inception_3a/relu_3x3
I0403 14:49:22.009343 11291 net.cpp:425] inception_3a/relu_3x3 <- inception_3a/3x3
I0403 14:49:22.009367 11291 net.cpp:386] inception_3a/relu_3x3 -> inception_3a/3x3 (in-place)
I0403 14:49:22.009709 11291 net.cpp:141] Setting up inception_3a/relu_3x3
I0403 14:49:22.009742 11291 net.cpp:148] Top shape: 24 128 28 28 (2408448)
I0403 14:49:22.009760 11291 net.cpp:156] Memory required for data: 534676512
I0403 14:49:22.009778 11291 layer_factory.hpp:77] Creating layer inception_3a/5x5_reduce
I0403 14:49:22.009806 11291 net.cpp:91] Creating Layer inception_3a/5x5_reduce
I0403 14:49:22.009827 11291 net.cpp:425] inception_3a/5x5_reduce <- pool2/3x3_s2_pool2/3x3_s2_0_split_2
I0403 14:49:22.009855 11291 net.cpp:399] inception_3a/5x5_reduce -> inception_3a/5x5_reduce
I0403 14:49:22.011023 11291 net.cpp:141] Setting up inception_3a/5x5_reduce
I0403 14:49:22.011055 11291 net.cpp:148] Top shape: 24 16 28 28 (301056)
I0403 14:49:22.011075 11291 net.cpp:156] Memory required for data: 535880736
I0403 14:49:22.011096 11291 layer_factory.hpp:77] Creating layer inception_3a/relu_5x5_reduce
I0403 14:49:22.011121 11291 net.cpp:91] Creating Layer inception_3a/relu_5x5_reduce
I0403 14:49:22.011142 11291 net.cpp:425] inception_3a/relu_5x5_reduce <- inception_3a/5x5_reduce
I0403 14:49:22.011163 11291 net.cpp:386] inception_3a/relu_5x5_reduce -> inception_3a/5x5_reduce (in-place)
I0403 14:49:22.011521 11291 net.cpp:141] Setting up inception_3a/relu_5x5_reduce
I0403 14:49:22.011564 11291 net.cpp:148] Top shape: 24 16 28 28 (301056)
I0403 14:49:22.011582 11291 net.cpp:156] Memory required for data: 537084960
I0403 14:49:22.011601 11291 layer_factory.hpp:77] Creating layer inception_3a/5x5
I0403 14:49:22.011628 11291 net.cpp:91] Creating Layer inception_3a/5x5
I0403 14:49:22.011649 11291 net.cpp:425] inception_3a/5x5 <- inception_3a/5x5_reduce
I0403 14:49:22.011675 11291 net.cpp:399] inception_3a/5x5 -> inception_3a/5x5
I0403 14:49:22.013048 11291 net.cpp:141] Setting up inception_3a/5x5
I0403 14:49:22.013080 11291 net.cpp:148] Top shape: 24 32 28 28 (602112)
I0403 14:49:22.013099 11291 net.cpp:156] Memory required for data: 539493408
I0403 14:49:22.013123 11291 layer_factory.hpp:77] Creating layer inception_3a/relu_5x5
I0403 14:49:22.013144 11291 net.cpp:91] Creating Layer inception_3a/relu_5x5
I0403 14:49:22.013164 11291 net.cpp:425] inception_3a/relu_5x5 <- inception_3a/5x5
I0403 14:49:22.013188 11291 net.cpp:386] inception_3a/relu_5x5 -> inception_3a/5x5 (in-place)
I0403 14:49:22.013401 11291 net.cpp:141] Setting up inception_3a/relu_5x5
I0403 14:49:22.013432 11291 net.cpp:148] Top shape: 24 32 28 28 (602112)
I0403 14:49:22.013448 11291 net.cpp:156] Memory required for data: 541901856
I0403 14:49:22.013466 11291 layer_factory.hpp:77] Creating layer inception_3a/pool
I0403 14:49:22.013491 11291 net.cpp:91] Creating Layer inception_3a/pool
I0403 14:49:22.013528 11291 net.cpp:425] inception_3a/pool <- pool2/3x3_s2_pool2/3x3_s2_0_split_3
I0403 14:49:22.013552 11291 net.cpp:399] inception_3a/pool -> inception_3a/pool
I0403 14:49:22.013623 11291 net.cpp:141] Setting up inception_3a/pool
I0403 14:49:22.013651 11291 net.cpp:148] Top shape: 24 192 28 28 (3612672)
I0403 14:49:22.013669 11291 net.cpp:156] Memory required for data: 556352544
I0403 14:49:22.013687 11291 layer_factory.hpp:77] Creating layer inception_3a/pool_proj
I0403 14:49:22.013715 11291 net.cpp:91] Creating Layer inception_3a/pool_proj
I0403 14:49:22.013737 11291 net.cpp:425] inception_3a/pool_proj <- inception_3a/pool
I0403 14:49:22.013761 11291 net.cpp:399] inception_3a/pool_proj -> inception_3a/pool_proj
I0403 14:49:22.014914 11291 net.cpp:141] Setting up inception_3a/pool_proj
I0403 14:49:22.014951 11291 net.cpp:148] Top shape: 24 32 28 28 (602112)
I0403 14:49:22.014971 11291 net.cpp:156] Memory required for data: 558760992
I0403 14:49:22.014998 11291 layer_factory.hpp:77] Creating layer inception_3a/relu_pool_proj
I0403 14:49:22.015027 11291 net.cpp:91] Creating Layer inception_3a/relu_pool_proj
I0403 14:49:22.015048 11291 net.cpp:425] inception_3a/relu_pool_proj <- inception_3a/pool_proj
I0403 14:49:22.015067 11291 net.cpp:386] inception_3a/relu_pool_proj -> inception_3a/pool_proj (in-place)
I0403 14:49:22.015401 11291 net.cpp:141] Setting up inception_3a/relu_pool_proj
I0403 14:49:22.015434 11291 net.cpp:148] Top shape: 24 32 28 28 (602112)
I0403 14:49:22.015453 11291 net.cpp:156] Memory required for data: 561169440
I0403 14:49:22.015471 11291 layer_factory.hpp:77] Creating layer inception_3a/output
I0403 14:49:22.015493 11291 net.cpp:91] Creating Layer inception_3a/output
I0403 14:49:22.015512 11291 net.cpp:425] inception_3a/output <- inception_3a/1x1
I0403 14:49:22.015532 11291 net.cpp:425] inception_3a/output <- inception_3a/3x3
I0403 14:49:22.015550 11291 net.cpp:425] inception_3a/output <- inception_3a/5x5
I0403 14:49:22.015570 11291 net.cpp:425] inception_3a/output <- inception_3a/pool_proj
I0403 14:49:22.015594 11291 net.cpp:399] inception_3a/output -> inception_3a/output
I0403 14:49:22.015668 11291 net.cpp:141] Setting up inception_3a/output
I0403 14:49:22.015702 11291 net.cpp:148] Top shape: 24 256 28 28 (4816896)
I0403 14:49:22.015722 11291 net.cpp:156] Memory required for data: 580437024
I0403 14:49:22.015739 11291 layer_factory.hpp:77] Creating layer inception_3a/output_inception_3a/output_0_split
I0403 14:49:22.015760 11291 net.cpp:91] Creating Layer inception_3a/output_inception_3a/output_0_split
I0403 14:49:22.015779 11291 net.cpp:425] inception_3a/output_inception_3a/output_0_split <- inception_3a/output
I0403 14:49:22.015799 11291 net.cpp:399] inception_3a/output_inception_3a/output_0_split -> inception_3a/output_inception_3a/output_0_split_0
I0403 14:49:22.015821 11291 net.cpp:399] inception_3a/output_inception_3a/output_0_split -> inception_3a/output_inception_3a/output_0_split_1
I0403 14:49:22.015851 11291 net.cpp:399] inception_3a/output_inception_3a/output_0_split -> inception_3a/output_inception_3a/output_0_split_2
I0403 14:49:22.015877 11291 net.cpp:399] inception_3a/output_inception_3a/output_0_split -> inception_3a/output_inception_3a/output_0_split_3
I0403 14:49:22.015966 11291 net.cpp:141] Setting up inception_3a/output_inception_3a/output_0_split
I0403 14:49:22.015996 11291 net.cpp:148] Top shape: 24 256 28 28 (4816896)
I0403 14:49:22.016017 11291 net.cpp:148] Top shape: 24 256 28 28 (4816896)
I0403 14:49:22.016036 11291 net.cpp:148] Top shape: 24 256 28 28 (4816896)
I0403 14:49:22.016055 11291 net.cpp:148] Top shape: 24 256 28 28 (4816896)
I0403 14:49:22.016072 11291 net.cpp:156] Memory required for data: 657507360
I0403 14:49:22.016090 11291 layer_factory.hpp:77] Creating layer inception_3b/1x1
I0403 14:49:22.016118 11291 net.cpp:91] Creating Layer inception_3b/1x1
I0403 14:49:22.016139 11291 net.cpp:425] inception_3b/1x1 <- inception_3a/output_inception_3a/output_0_split_0
I0403 14:49:22.016160 11291 net.cpp:399] inception_3b/1x1 -> inception_3b/1x1
I0403 14:49:22.017523 11291 net.cpp:141] Setting up inception_3b/1x1
I0403 14:49:22.017575 11291 net.cpp:148] Top shape: 24 128 28 28 (2408448)
I0403 14:49:22.017596 11291 net.cpp:156] Memory required for data: 667141152
I0403 14:49:22.017618 11291 layer_factory.hpp:77] Creating layer inception_3b/relu_1x1
I0403 14:49:22.017640 11291 net.cpp:91] Creating Layer inception_3b/relu_1x1
I0403 14:49:22.017659 11291 net.cpp:425] inception_3b/relu_1x1 <- inception_3b/1x1
I0403 14:49:22.017684 11291 net.cpp:386] inception_3b/relu_1x1 -> inception_3b/1x1 (in-place)
I0403 14:49:22.017896 11291 net.cpp:141] Setting up inception_3b/relu_1x1
I0403 14:49:22.017927 11291 net.cpp:148] Top shape: 24 128 28 28 (2408448)
I0403 14:49:22.017946 11291 net.cpp:156] Memory required for data: 676774944
I0403 14:49:22.017963 11291 layer_factory.hpp:77] Creating layer inception_3b/3x3_reduce
I0403 14:49:22.017990 11291 net.cpp:91] Creating Layer inception_3b/3x3_reduce
I0403 14:49:22.018012 11291 net.cpp:425] inception_3b/3x3_reduce <- inception_3a/output_inception_3a/output_0_split_1
I0403 14:49:22.018036 11291 net.cpp:399] inception_3b/3x3_reduce -> inception_3b/3x3_reduce
I0403 14:49:22.019484 11291 net.cpp:141] Setting up inception_3b/3x3_reduce
I0403 14:49:22.019521 11291 net.cpp:148] Top shape: 24 128 28 28 (2408448)
I0403 14:49:22.019542 11291 net.cpp:156] Memory required for data: 686408736
I0403 14:49:22.019564 11291 layer_factory.hpp:77] Creating layer inception_3b/relu_3x3_reduce
I0403 14:49:22.019587 11291 net.cpp:91] Creating Layer inception_3b/relu_3x3_reduce
I0403 14:49:22.019606 11291 net.cpp:425] inception_3b/relu_3x3_reduce <- inception_3b/3x3_reduce
I0403 14:49:22.019628 11291 net.cpp:386] inception_3b/relu_3x3_reduce -> inception_3b/3x3_reduce (in-place)
I0403 14:49:22.019840 11291 net.cpp:141] Setting up inception_3b/relu_3x3_reduce
I0403 14:49:22.019870 11291 net.cpp:148] Top shape: 24 128 28 28 (2408448)
I0403 14:49:22.019887 11291 net.cpp:156] Memory required for data: 696042528
I0403 14:49:22.019906 11291 layer_factory.hpp:77] Creating layer inception_3b/3x3
I0403 14:49:22.019935 11291 net.cpp:91] Creating Layer inception_3b/3x3
I0403 14:49:22.019958 11291 net.cpp:425] inception_3b/3x3 <- inception_3b/3x3_reduce
I0403 14:49:22.019982 11291 net.cpp:399] inception_3b/3x3 -> inception_3b/3x3
I0403 14:49:22.023507 11291 net.cpp:141] Setting up inception_3b/3x3
I0403 14:49:22.023541 11291 net.cpp:148] Top shape: 24 192 28 28 (3612672)
I0403 14:49:22.023561 11291 net.cpp:156] Memory required for data: 710493216
I0403 14:49:22.023582 11291 layer_factory.hpp:77] Creating layer inception_3b/relu_3x3
I0403 14:49:22.023604 11291 net.cpp:91] Creating Layer inception_3b/relu_3x3
I0403 14:49:22.023623 11291 net.cpp:425] inception_3b/relu_3x3 <- inception_3b/3x3
I0403 14:49:22.023648 11291 net.cpp:386] inception_3b/relu_3x3 -> inception_3b/3x3 (in-place)
I0403 14:49:22.023977 11291 net.cpp:141] Setting up inception_3b/relu_3x3
I0403 14:49:22.024008 11291 net.cpp:148] Top shape: 24 192 28 28 (3612672)
I0403 14:49:22.024027 11291 net.cpp:156] Memory required for data: 724943904
I0403 14:49:22.024045 11291 layer_factory.hpp:77] Creating layer inception_3b/5x5_reduce
I0403 14:49:22.024073 11291 net.cpp:91] Creating Layer inception_3b/5x5_reduce
I0403 14:49:22.024093 11291 net.cpp:425] inception_3b/5x5_reduce <- inception_3a/output_inception_3a/output_0_split_2
I0403 14:49:22.024124 11291 net.cpp:399] inception_3b/5x5_reduce -> inception_3b/5x5_reduce
I0403 14:49:22.025303 11291 net.cpp:141] Setting up inception_3b/5x5_reduce
I0403 14:49:22.025341 11291 net.cpp:148] Top shape: 24 32 28 28 (602112)
I0403 14:49:22.025358 11291 net.cpp:156] Memory required for data: 727352352
I0403 14:49:22.025387 11291 layer_factory.hpp:77] Creating layer inception_3b/relu_5x5_reduce
I0403 14:49:22.025411 11291 net.cpp:91] Creating Layer inception_3b/relu_5x5_reduce
I0403 14:49:22.025431 11291 net.cpp:425] inception_3b/relu_5x5_reduce <- inception_3b/5x5_reduce
I0403 14:49:22.025454 11291 net.cpp:386] inception_3b/relu_5x5_reduce -> inception_3b/5x5_reduce (in-place)
I0403 14:49:22.025686 11291 net.cpp:141] Setting up inception_3b/relu_5x5_reduce
I0403 14:49:22.025717 11291 net.cpp:148] Top shape: 24 32 28 28 (602112)
I0403 14:49:22.025735 11291 net.cpp:156] Memory required for data: 729760800
I0403 14:49:22.025754 11291 layer_factory.hpp:77] Creating layer inception_3b/5x5
I0403 14:49:22.025781 11291 net.cpp:91] Creating Layer inception_3b/5x5
I0403 14:49:22.025802 11291 net.cpp:425] inception_3b/5x5 <- inception_3b/5x5_reduce
I0403 14:49:22.025827 11291 net.cpp:399] inception_3b/5x5 -> inception_3b/5x5
I0403 14:49:22.028167 11291 net.cpp:141] Setting up inception_3b/5x5
I0403 14:49:22.028206 11291 net.cpp:148] Top shape: 24 96 28 28 (1806336)
I0403 14:49:22.028228 11291 net.cpp:156] Memory required for data: 736986144
I0403 14:49:22.028249 11291 layer_factory.hpp:77] Creating layer inception_3b/relu_5x5
I0403 14:49:22.028271 11291 net.cpp:91] Creating Layer inception_3b/relu_5x5
I0403 14:49:22.028291 11291 net.cpp:425] inception_3b/relu_5x5 <- inception_3b/5x5
I0403 14:49:22.028312 11291 net.cpp:386] inception_3b/relu_5x5 -> inception_3b/5x5 (in-place)
I0403 14:49:22.028553 11291 net.cpp:141] Setting up inception_3b/relu_5x5
I0403 14:49:22.028584 11291 net.cpp:148] Top shape: 24 96 28 28 (1806336)
I0403 14:49:22.028602 11291 net.cpp:156] Memory required for data: 744211488
I0403 14:49:22.028620 11291 layer_factory.hpp:77] Creating layer inception_3b/pool
I0403 14:49:22.028641 11291 net.cpp:91] Creating Layer inception_3b/pool
I0403 14:49:22.028661 11291 net.cpp:425] inception_3b/pool <- inception_3a/output_inception_3a/output_0_split_3
I0403 14:49:22.028682 11291 net.cpp:399] inception_3b/pool -> inception_3b/pool
I0403 14:49:22.028751 11291 net.cpp:141] Setting up inception_3b/pool
I0403 14:49:22.028782 11291 net.cpp:148] Top shape: 24 256 28 28 (4816896)
I0403 14:49:22.028800 11291 net.cpp:156] Memory required for data: 763479072
I0403 14:49:22.028818 11291 layer_factory.hpp:77] Creating layer inception_3b/pool_proj
I0403 14:49:22.028846 11291 net.cpp:91] Creating Layer inception_3b/pool_proj
I0403 14:49:22.028867 11291 net.cpp:425] inception_3b/pool_proj <- inception_3b/pool
I0403 14:49:22.028889 11291 net.cpp:399] inception_3b/pool_proj -> inception_3b/pool_proj
I0403 14:49:22.030256 11291 net.cpp:141] Setting up inception_3b/pool_proj
I0403 14:49:22.030292 11291 net.cpp:148] Top shape: 24 64 28 28 (1204224)
I0403 14:49:22.030311 11291 net.cpp:156] Memory required for data: 768295968
I0403 14:49:22.030336 11291 layer_factory.hpp:77] Creating layer inception_3b/relu_pool_proj
I0403 14:49:22.030360 11291 net.cpp:91] Creating Layer inception_3b/relu_pool_proj
I0403 14:49:22.030385 11291 net.cpp:425] inception_3b/relu_pool_proj <- inception_3b/pool_proj
I0403 14:49:22.030411 11291 net.cpp:386] inception_3b/relu_pool_proj -> inception_3b/pool_proj (in-place)
I0403 14:49:22.030930 11291 net.cpp:141] Setting up inception_3b/relu_pool_proj
I0403 14:49:22.030962 11291 net.cpp:148] Top shape: 24 64 28 28 (1204224)
I0403 14:49:22.030982 11291 net.cpp:156] Memory required for data: 773112864
I0403 14:49:22.031000 11291 layer_factory.hpp:77] Creating layer inception_3b/output
I0403 14:49:22.031020 11291 net.cpp:91] Creating Layer inception_3b/output
I0403 14:49:22.031039 11291 net.cpp:425] inception_3b/output <- inception_3b/1x1
I0403 14:49:22.031059 11291 net.cpp:425] inception_3b/output <- inception_3b/3x3
I0403 14:49:22.031080 11291 net.cpp:425] inception_3b/output <- inception_3b/5x5
I0403 14:49:22.031105 11291 net.cpp:425] inception_3b/output <- inception_3b/pool_proj
I0403 14:49:22.031127 11291 net.cpp:399] inception_3b/output -> inception_3b/output
I0403 14:49:22.031191 11291 net.cpp:141] Setting up inception_3b/output
I0403 14:49:22.031222 11291 net.cpp:148] Top shape: 24 480 28 28 (9031680)
I0403 14:49:22.031240 11291 net.cpp:156] Memory required for data: 809239584
I0403 14:49:22.031270 11291 layer_factory.hpp:77] Creating layer pool3/3x3_s2
I0403 14:49:22.031291 11291 net.cpp:91] Creating Layer pool3/3x3_s2
I0403 14:49:22.031309 11291 net.cpp:425] pool3/3x3_s2 <- inception_3b/output
I0403 14:49:22.031352 11291 net.cpp:399] pool3/3x3_s2 -> pool3/3x3_s2
I0403 14:49:22.031430 11291 net.cpp:141] Setting up pool3/3x3_s2
I0403 14:49:22.031460 11291 net.cpp:148] Top shape: 24 480 14 14 (2257920)
I0403 14:49:22.031477 11291 net.cpp:156] Memory required for data: 818271264
I0403 14:49:22.031494 11291 layer_factory.hpp:77] Creating layer pool3/3x3_s2_pool3/3x3_s2_0_split
I0403 14:49:22.031518 11291 net.cpp:91] Creating Layer pool3/3x3_s2_pool3/3x3_s2_0_split
I0403 14:49:22.031538 11291 net.cpp:425] pool3/3x3_s2_pool3/3x3_s2_0_split <- pool3/3x3_s2
I0403 14:49:22.031558 11291 net.cpp:399] pool3/3x3_s2_pool3/3x3_s2_0_split -> pool3/3x3_s2_pool3/3x3_s2_0_split_0
I0403 14:49:22.031584 11291 net.cpp:399] pool3/3x3_s2_pool3/3x3_s2_0_split -> pool3/3x3_s2_pool3/3x3_s2_0_split_1
I0403 14:49:22.031610 11291 net.cpp:399] pool3/3x3_s2_pool3/3x3_s2_0_split -> pool3/3x3_s2_pool3/3x3_s2_0_split_2
I0403 14:49:22.031633 11291 net.cpp:399] pool3/3x3_s2_pool3/3x3_s2_0_split -> pool3/3x3_s2_pool3/3x3_s2_0_split_3
I0403 14:49:22.031723 11291 net.cpp:141] Setting up pool3/3x3_s2_pool3/3x3_s2_0_split
I0403 14:49:22.031750 11291 net.cpp:148] Top shape: 24 480 14 14 (2257920)
I0403 14:49:22.031770 11291 net.cpp:148] Top shape: 24 480 14 14 (2257920)
I0403 14:49:22.031790 11291 net.cpp:148] Top shape: 24 480 14 14 (2257920)
I0403 14:49:22.031807 11291 net.cpp:148] Top shape: 24 480 14 14 (2257920)
I0403 14:49:22.031826 11291 net.cpp:156] Memory required for data: 854397984
I0403 14:49:22.031842 11291 layer_factory.hpp:77] Creating layer inception_4a/1x1
I0403 14:49:22.031868 11291 net.cpp:91] Creating Layer inception_4a/1x1
I0403 14:49:22.031889 11291 net.cpp:425] inception_4a/1x1 <- pool3/3x3_s2_pool3/3x3_s2_0_split_0
I0403 14:49:22.031914 11291 net.cpp:399] inception_4a/1x1 -> inception_4a/1x1
I0403 14:49:22.033875 11291 net.cpp:141] Setting up inception_4a/1x1
I0403 14:49:22.033910 11291 net.cpp:148] Top shape: 24 192 14 14 (903168)
I0403 14:49:22.033929 11291 net.cpp:156] Memory required for data: 858010656
I0403 14:49:22.033951 11291 layer_factory.hpp:77] Creating layer inception_4a/relu_1x1
I0403 14:49:22.033977 11291 net.cpp:91] Creating Layer inception_4a/relu_1x1
I0403 14:49:22.033996 11291 net.cpp:425] inception_4a/relu_1x1 <- inception_4a/1x1
I0403 14:49:22.034018 11291 net.cpp:386] inception_4a/relu_1x1 -> inception_4a/1x1 (in-place)
I0403 14:49:22.034236 11291 net.cpp:141] Setting up inception_4a/relu_1x1
I0403 14:49:22.034271 11291 net.cpp:148] Top shape: 24 192 14 14 (903168)
I0403 14:49:22.034291 11291 net.cpp:156] Memory required for data: 861623328
I0403 14:49:22.034308 11291 layer_factory.hpp:77] Creating layer inception_4a/3x3_reduce
I0403 14:49:22.034337 11291 net.cpp:91] Creating Layer inception_4a/3x3_reduce
I0403 14:49:22.034358 11291 net.cpp:425] inception_4a/3x3_reduce <- pool3/3x3_s2_pool3/3x3_s2_0_split_1
I0403 14:49:22.034387 11291 net.cpp:399] inception_4a/3x3_reduce -> inception_4a/3x3_reduce
I0403 14:49:22.035969 11291 net.cpp:141] Setting up inception_4a/3x3_reduce
I0403 14:49:22.036013 11291 net.cpp:148] Top shape: 24 96 14 14 (451584)
I0403 14:49:22.036043 11291 net.cpp:156] Memory required for data: 863429664
I0403 14:49:22.036085 11291 layer_factory.hpp:77] Creating layer inception_4a/relu_3x3_reduce
I0403 14:49:22.036120 11291 net.cpp:91] Creating Layer inception_4a/relu_3x3_reduce
I0403 14:49:22.036141 11291 net.cpp:425] inception_4a/relu_3x3_reduce <- inception_4a/3x3_reduce
I0403 14:49:22.036164 11291 net.cpp:386] inception_4a/relu_3x3_reduce -> inception_4a/3x3_reduce (in-place)
I0403 14:49:22.036377 11291 net.cpp:141] Setting up inception_4a/relu_3x3_reduce
I0403 14:49:22.036415 11291 net.cpp:148] Top shape: 24 96 14 14 (451584)
I0403 14:49:22.036435 11291 net.cpp:156] Memory required for data: 865236000
I0403 14:49:22.036453 11291 layer_factory.hpp:77] Creating layer inception_4a/3x3
I0403 14:49:22.036480 11291 net.cpp:91] Creating Layer inception_4a/3x3
I0403 14:49:22.036501 11291 net.cpp:425] inception_4a/3x3 <- inception_4a/3x3_reduce
I0403 14:49:22.036523 11291 net.cpp:399] inception_4a/3x3 -> inception_4a/3x3
I0403 14:49:22.039758 11291 net.cpp:141] Setting up inception_4a/3x3
I0403 14:49:22.039795 11291 net.cpp:148] Top shape: 24 208 14 14 (978432)
I0403 14:49:22.039816 11291 net.cpp:156] Memory required for data: 869149728
I0403 14:49:22.039839 11291 layer_factory.hpp:77] Creating layer inception_4a/relu_3x3
I0403 14:49:22.039860 11291 net.cpp:91] Creating Layer inception_4a/relu_3x3
I0403 14:49:22.039880 11291 net.cpp:425] inception_4a/relu_3x3 <- inception_4a/3x3
I0403 14:49:22.039903 11291 net.cpp:386] inception_4a/relu_3x3 -> inception_4a/3x3 (in-place)
I0403 14:49:22.040240 11291 net.cpp:141] Setting up inception_4a/relu_3x3
I0403 14:49:22.040276 11291 net.cpp:148] Top shape: 24 208 14 14 (978432)
I0403 14:49:22.040295 11291 net.cpp:156] Memory required for data: 873063456
I0403 14:49:22.040313 11291 layer_factory.hpp:77] Creating layer inception_4a/5x5_reduce
I0403 14:49:22.040343 11291 net.cpp:91] Creating Layer inception_4a/5x5_reduce
I0403 14:49:22.040364 11291 net.cpp:425] inception_4a/5x5_reduce <- pool3/3x3_s2_pool3/3x3_s2_0_split_2
I0403 14:49:22.040393 11291 net.cpp:399] inception_4a/5x5_reduce -> inception_4a/5x5_reduce
I0403 14:49:22.041645 11291 net.cpp:141] Setting up inception_4a/5x5_reduce
I0403 14:49:22.041678 11291 net.cpp:148] Top shape: 24 16 14 14 (75264)
I0403 14:49:22.041697 11291 net.cpp:156] Memory required for data: 873364512
I0403 14:49:22.041719 11291 layer_factory.hpp:77] Creating layer inception_4a/relu_5x5_reduce
I0403 14:49:22.041741 11291 net.cpp:91] Creating Layer inception_4a/relu_5x5_reduce
I0403 14:49:22.041760 11291 net.cpp:425] inception_4a/relu_5x5_reduce <- inception_4a/5x5_reduce
I0403 14:49:22.041784 11291 net.cpp:386] inception_4a/relu_5x5_reduce -> inception_4a/5x5_reduce (in-place)
I0403 14:49:22.042001 11291 net.cpp:141] Setting up inception_4a/relu_5x5_reduce
I0403 14:49:22.042031 11291 net.cpp:148] Top shape: 24 16 14 14 (75264)
I0403 14:49:22.042048 11291 net.cpp:156] Memory required for data: 873665568
I0403 14:49:22.042068 11291 layer_factory.hpp:77] Creating layer inception_4a/5x5
I0403 14:49:22.042093 11291 net.cpp:91] Creating Layer inception_4a/5x5
I0403 14:49:22.042114 11291 net.cpp:425] inception_4a/5x5 <- inception_4a/5x5_reduce
I0403 14:49:22.042140 11291 net.cpp:399] inception_4a/5x5 -> inception_4a/5x5
I0403 14:49:22.043480 11291 net.cpp:141] Setting up inception_4a/5x5
I0403 14:49:22.043514 11291 net.cpp:148] Top shape: 24 48 14 14 (225792)
I0403 14:49:22.043532 11291 net.cpp:156] Memory required for data: 874568736
I0403 14:49:22.043555 11291 layer_factory.hpp:77] Creating layer inception_4a/relu_5x5
I0403 14:49:22.043581 11291 net.cpp:91] Creating Layer inception_4a/relu_5x5
I0403 14:49:22.043602 11291 net.cpp:425] inception_4a/relu_5x5 <- inception_4a/5x5
I0403 14:49:22.043622 11291 net.cpp:386] inception_4a/relu_5x5 -> inception_4a/5x5 (in-place)
I0403 14:49:22.043835 11291 net.cpp:141] Setting up inception_4a/relu_5x5
I0403 14:49:22.043867 11291 net.cpp:148] Top shape: 24 48 14 14 (225792)
I0403 14:49:22.043886 11291 net.cpp:156] Memory required for data: 875471904
I0403 14:49:22.043905 11291 layer_factory.hpp:77] Creating layer inception_4a/pool
I0403 14:49:22.043926 11291 net.cpp:91] Creating Layer inception_4a/pool
I0403 14:49:22.043944 11291 net.cpp:425] inception_4a/pool <- pool3/3x3_s2_pool3/3x3_s2_0_split_3
I0403 14:49:22.043965 11291 net.cpp:399] inception_4a/pool -> inception_4a/pool
I0403 14:49:22.044039 11291 net.cpp:141] Setting up inception_4a/pool
I0403 14:49:22.044069 11291 net.cpp:148] Top shape: 24 480 14 14 (2257920)
I0403 14:49:22.044086 11291 net.cpp:156] Memory required for data: 884503584
I0403 14:49:22.044103 11291 layer_factory.hpp:77] Creating layer inception_4a/pool_proj
I0403 14:49:22.044131 11291 net.cpp:91] Creating Layer inception_4a/pool_proj
I0403 14:49:22.044152 11291 net.cpp:425] inception_4a/pool_proj <- inception_4a/pool
I0403 14:49:22.044176 11291 net.cpp:399] inception_4a/pool_proj -> inception_4a/pool_proj
I0403 14:49:22.045588 11291 net.cpp:141] Setting up inception_4a/pool_proj
I0403 14:49:22.045624 11291 net.cpp:148] Top shape: 24 64 14 14 (301056)
I0403 14:49:22.045660 11291 net.cpp:156] Memory required for data: 885707808
I0403 14:49:22.045686 11291 layer_factory.hpp:77] Creating layer inception_4a/relu_pool_proj
I0403 14:49:22.045712 11291 net.cpp:91] Creating Layer inception_4a/relu_pool_proj
I0403 14:49:22.045733 11291 net.cpp:425] inception_4a/relu_pool_proj <- inception_4a/pool_proj
I0403 14:49:22.045754 11291 net.cpp:386] inception_4a/relu_pool_proj -> inception_4a/pool_proj (in-place)
I0403 14:49:22.046093 11291 net.cpp:141] Setting up inception_4a/relu_pool_proj
I0403 14:49:22.046125 11291 net.cpp:148] Top shape: 24 64 14 14 (301056)
I0403 14:49:22.046144 11291 net.cpp:156] Memory required for data: 886912032
I0403 14:49:22.046161 11291 layer_factory.hpp:77] Creating layer inception_4a/output
I0403 14:49:22.046186 11291 net.cpp:91] Creating Layer inception_4a/output
I0403 14:49:22.046206 11291 net.cpp:425] inception_4a/output <- inception_4a/1x1
I0403 14:49:22.046227 11291 net.cpp:425] inception_4a/output <- inception_4a/3x3
I0403 14:49:22.046248 11291 net.cpp:425] inception_4a/output <- inception_4a/5x5
I0403 14:49:22.046268 11291 net.cpp:425] inception_4a/output <- inception_4a/pool_proj
I0403 14:49:22.046288 11291 net.cpp:399] inception_4a/output -> inception_4a/output
I0403 14:49:22.046344 11291 net.cpp:141] Setting up inception_4a/output
I0403 14:49:22.046373 11291 net.cpp:148] Top shape: 24 512 14 14 (2408448)
I0403 14:49:22.046397 11291 net.cpp:156] Memory required for data: 896545824
I0403 14:49:22.046416 11291 layer_factory.hpp:77] Creating layer inception_4a/output_inception_4a/output_0_split
I0403 14:49:22.046437 11291 net.cpp:91] Creating Layer inception_4a/output_inception_4a/output_0_split
I0403 14:49:22.046457 11291 net.cpp:425] inception_4a/output_inception_4a/output_0_split <- inception_4a/output
I0403 14:49:22.046481 11291 net.cpp:399] inception_4a/output_inception_4a/output_0_split -> inception_4a/output_inception_4a/output_0_split_0
I0403 14:49:22.046506 11291 net.cpp:399] inception_4a/output_inception_4a/output_0_split -> inception_4a/output_inception_4a/output_0_split_1
I0403 14:49:22.046531 11291 net.cpp:399] inception_4a/output_inception_4a/output_0_split -> inception_4a/output_inception_4a/output_0_split_2
I0403 14:49:22.046556 11291 net.cpp:399] inception_4a/output_inception_4a/output_0_split -> inception_4a/output_inception_4a/output_0_split_3
I0403 14:49:22.046581 11291 net.cpp:399] inception_4a/output_inception_4a/output_0_split -> inception_4a/output_inception_4a/output_0_split_4
I0403 14:49:22.046695 11291 net.cpp:141] Setting up inception_4a/output_inception_4a/output_0_split
I0403 14:49:22.046730 11291 net.cpp:148] Top shape: 24 512 14 14 (2408448)
I0403 14:49:22.046761 11291 net.cpp:148] Top shape: 24 512 14 14 (2408448)
I0403 14:49:22.046790 11291 net.cpp:148] Top shape: 24 512 14 14 (2408448)
I0403 14:49:22.046818 11291 net.cpp:148] Top shape: 24 512 14 14 (2408448)
I0403 14:49:22.046838 11291 net.cpp:148] Top shape: 24 512 14 14 (2408448)
I0403 14:49:22.046855 11291 net.cpp:156] Memory required for data: 944714784
I0403 14:49:22.046875 11291 layer_factory.hpp:77] Creating layer loss1/ave_pool
I0403 14:49:22.046895 11291 net.cpp:91] Creating Layer loss1/ave_pool
I0403 14:49:22.046914 11291 net.cpp:425] loss1/ave_pool <- inception_4a/output_inception_4a/output_0_split_0
I0403 14:49:22.046938 11291 net.cpp:399] loss1/ave_pool -> loss1/ave_pool
I0403 14:49:22.047212 11291 net.cpp:141] Setting up loss1/ave_pool
I0403 14:49:22.047247 11291 net.cpp:148] Top shape: 24 512 4 4 (196608)
I0403 14:49:22.047272 11291 net.cpp:156] Memory required for data: 945501216
I0403 14:49:22.047291 11291 layer_factory.hpp:77] Creating layer loss1/conv
I0403 14:49:22.047327 11291 net.cpp:91] Creating Layer loss1/conv
I0403 14:49:22.047348 11291 net.cpp:425] loss1/conv <- loss1/ave_pool
I0403 14:49:22.047374 11291 net.cpp:399] loss1/conv -> loss1/conv
I0403 14:49:22.049196 11291 net.cpp:141] Setting up loss1/conv
I0403 14:49:22.049237 11291 net.cpp:148] Top shape: 24 128 4 4 (49152)
I0403 14:49:22.049273 11291 net.cpp:156] Memory required for data: 945697824
I0403 14:49:22.049296 11291 layer_factory.hpp:77] Creating layer loss1/relu_conv
I0403 14:49:22.049320 11291 net.cpp:91] Creating Layer loss1/relu_conv
I0403 14:49:22.049340 11291 net.cpp:425] loss1/relu_conv <- loss1/conv
I0403 14:49:22.049365 11291 net.cpp:386] loss1/relu_conv -> loss1/conv (in-place)
I0403 14:49:22.049764 11291 net.cpp:141] Setting up loss1/relu_conv
I0403 14:49:22.049801 11291 net.cpp:148] Top shape: 24 128 4 4 (49152)
I0403 14:49:22.049820 11291 net.cpp:156] Memory required for data: 945894432
I0403 14:49:22.049839 11291 layer_factory.hpp:77] Creating layer loss1/fc
I0403 14:49:22.049885 11291 net.cpp:91] Creating Layer loss1/fc
I0403 14:49:22.049907 11291 net.cpp:425] loss1/fc <- loss1/conv
I0403 14:49:22.049933 11291 net.cpp:399] loss1/fc -> loss1/fc
I0403 14:49:22.071621 11291 net.cpp:141] Setting up loss1/fc
I0403 14:49:22.071672 11291 net.cpp:148] Top shape: 24 1024 (24576)
I0403 14:49:22.071692 11291 net.cpp:156] Memory required for data: 945992736
I0403 14:49:22.071715 11291 layer_factory.hpp:77] Creating layer loss1/relu_fc
I0403 14:49:22.071738 11291 net.cpp:91] Creating Layer loss1/relu_fc
I0403 14:49:22.071758 11291 net.cpp:425] loss1/relu_fc <- loss1/fc
I0403 14:49:22.071779 11291 net.cpp:386] loss1/relu_fc -> loss1/fc (in-place)
I0403 14:49:22.072032 11291 net.cpp:141] Setting up loss1/relu_fc
I0403 14:49:22.072065 11291 net.cpp:148] Top shape: 24 1024 (24576)
I0403 14:49:22.072084 11291 net.cpp:156] Memory required for data: 946091040
I0403 14:49:22.072103 11291 layer_factory.hpp:77] Creating layer loss1/drop_fc
I0403 14:49:22.072135 11291 net.cpp:91] Creating Layer loss1/drop_fc
I0403 14:49:22.072156 11291 net.cpp:425] loss1/drop_fc <- loss1/fc
I0403 14:49:22.072177 11291 net.cpp:386] loss1/drop_fc -> loss1/fc (in-place)
I0403 14:49:22.072264 11291 net.cpp:141] Setting up loss1/drop_fc
I0403 14:49:22.072293 11291 net.cpp:148] Top shape: 24 1024 (24576)
I0403 14:49:22.072309 11291 net.cpp:156] Memory required for data: 946189344
I0403 14:49:22.072331 11291 layer_factory.hpp:77] Creating layer loss1/classifier_plantvillage
I0403 14:49:22.072360 11291 net.cpp:91] Creating Layer loss1/classifier_plantvillage
I0403 14:49:22.072392 11291 net.cpp:425] loss1/classifier_plantvillage <- loss1/fc
I0403 14:49:22.072418 11291 net.cpp:399] loss1/classifier_plantvillage -> loss1/classifier_plantvillage
I0403 14:49:22.073519 11291 net.cpp:141] Setting up loss1/classifier_plantvillage
I0403 14:49:22.073556 11291 net.cpp:148] Top shape: 24 38 (912)
I0403 14:49:22.073575 11291 net.cpp:156] Memory required for data: 946192992
I0403 14:49:22.073597 11291 layer_factory.hpp:77] Creating layer loss1/classifier_plantvillage_loss1/classifier_plantvillage_0_split
I0403 14:49:22.073621 11291 net.cpp:91] Creating Layer loss1/classifier_plantvillage_loss1/classifier_plantvillage_0_split
I0403 14:49:22.073639 11291 net.cpp:425] loss1/classifier_plantvillage_loss1/classifier_plantvillage_0_split <- loss1/classifier_plantvillage
I0403 14:49:22.073659 11291 net.cpp:399] loss1/classifier_plantvillage_loss1/classifier_plantvillage_0_split -> loss1/classifier_plantvillage_loss1/classifier_plantvillage_0_split_0
I0403 14:49:22.073683 11291 net.cpp:399] loss1/classifier_plantvillage_loss1/classifier_plantvillage_0_split -> loss1/classifier_plantvillage_loss1/classifier_plantvillage_0_split_1
I0403 14:49:22.073710 11291 net.cpp:399] loss1/classifier_plantvillage_loss1/classifier_plantvillage_0_split -> loss1/classifier_plantvillage_loss1/classifier_plantvillage_0_split_2
I0403 14:49:22.073791 11291 net.cpp:141] Setting up loss1/classifier_plantvillage_loss1/classifier_plantvillage_0_split
I0403 14:49:22.073819 11291 net.cpp:148] Top shape: 24 38 (912)
I0403 14:49:22.073838 11291 net.cpp:148] Top shape: 24 38 (912)
I0403 14:49:22.073858 11291 net.cpp:148] Top shape: 24 38 (912)
I0403 14:49:22.073874 11291 net.cpp:156] Memory required for data: 946203936
I0403 14:49:22.073891 11291 layer_factory.hpp:77] Creating layer inception_4b/1x1
I0403 14:49:22.073916 11291 net.cpp:91] Creating Layer inception_4b/1x1
I0403 14:49:22.073959 11291 net.cpp:425] inception_4b/1x1 <- inception_4a/output_inception_4a/output_0_split_1
I0403 14:49:22.073987 11291 net.cpp:399] inception_4b/1x1 -> inception_4b/1x1
I0403 14:49:22.076009 11291 net.cpp:141] Setting up inception_4b/1x1
I0403 14:49:22.076043 11291 net.cpp:148] Top shape: 24 160 14 14 (752640)
I0403 14:49:22.076062 11291 net.cpp:156] Memory required for data: 949214496
I0403 14:49:22.076084 11291 layer_factory.hpp:77] Creating layer inception_4b/relu_1x1
I0403 14:49:22.076107 11291 net.cpp:91] Creating Layer inception_4b/relu_1x1
I0403 14:49:22.076125 11291 net.cpp:425] inception_4b/relu_1x1 <- inception_4b/1x1
I0403 14:49:22.076148 11291 net.cpp:386] inception_4b/relu_1x1 -> inception_4b/1x1 (in-place)
I0403 14:49:22.076369 11291 net.cpp:141] Setting up inception_4b/relu_1x1
I0403 14:49:22.076403 11291 net.cpp:148] Top shape: 24 160 14 14 (752640)
I0403 14:49:22.076422 11291 net.cpp:156] Memory required for data: 952225056
I0403 14:49:22.076439 11291 layer_factory.hpp:77] Creating layer inception_4b/3x3_reduce
I0403 14:49:22.076467 11291 net.cpp:91] Creating Layer inception_4b/3x3_reduce
I0403 14:49:22.076488 11291 net.cpp:425] inception_4b/3x3_reduce <- inception_4a/output_inception_4a/output_0_split_2
I0403 14:49:22.076513 11291 net.cpp:399] inception_4b/3x3_reduce -> inception_4b/3x3_reduce
I0403 14:49:22.078184 11291 net.cpp:141] Setting up inception_4b/3x3_reduce
I0403 14:49:22.078223 11291 net.cpp:148] Top shape: 24 112 14 14 (526848)
I0403 14:49:22.078246 11291 net.cpp:156] Memory required for data: 954332448
I0403 14:49:22.078271 11291 layer_factory.hpp:77] Creating layer inception_4b/relu_3x3_reduce
I0403 14:49:22.078299 11291 net.cpp:91] Creating Layer inception_4b/relu_3x3_reduce
I0403 14:49:22.078326 11291 net.cpp:425] inception_4b/relu_3x3_reduce <- inception_4b/3x3_reduce
I0403 14:49:22.078349 11291 net.cpp:386] inception_4b/relu_3x3_reduce -> inception_4b/3x3_reduce (in-place)
I0403 14:49:22.078702 11291 net.cpp:141] Setting up inception_4b/relu_3x3_reduce
I0403 14:49:22.078737 11291 net.cpp:148] Top shape: 24 112 14 14 (526848)
I0403 14:49:22.078763 11291 net.cpp:156] Memory required for data: 956439840
I0403 14:49:22.078783 11291 layer_factory.hpp:77] Creating layer inception_4b/3x3
I0403 14:49:22.078811 11291 net.cpp:91] Creating Layer inception_4b/3x3
I0403 14:49:22.078833 11291 net.cpp:425] inception_4b/3x3 <- inception_4b/3x3_reduce
I0403 14:49:22.078866 11291 net.cpp:399] inception_4b/3x3 -> inception_4b/3x3
I0403 14:49:22.082691 11291 net.cpp:141] Setting up inception_4b/3x3
I0403 14:49:22.082737 11291 net.cpp:148] Top shape: 24 224 14 14 (1053696)
I0403 14:49:22.082762 11291 net.cpp:156] Memory required for data: 960654624
I0403 14:49:22.082794 11291 layer_factory.hpp:77] Creating layer inception_4b/relu_3x3
I0403 14:49:22.082825 11291 net.cpp:91] Creating Layer inception_4b/relu_3x3
I0403 14:49:22.082851 11291 net.cpp:425] inception_4b/relu_3x3 <- inception_4b/3x3
I0403 14:49:22.082885 11291 net.cpp:386] inception_4b/relu_3x3 -> inception_4b/3x3 (in-place)
I0403 14:49:22.083112 11291 net.cpp:141] Setting up inception_4b/relu_3x3
I0403 14:49:22.083151 11291 net.cpp:148] Top shape: 24 224 14 14 (1053696)
I0403 14:49:22.083175 11291 net.cpp:156] Memory required for data: 964869408
I0403 14:49:22.083194 11291 layer_factory.hpp:77] Creating layer inception_4b/5x5_reduce
I0403 14:49:22.083230 11291 net.cpp:91] Creating Layer inception_4b/5x5_reduce
I0403 14:49:22.083250 11291 net.cpp:425] inception_4b/5x5_reduce <- inception_4a/output_inception_4a/output_0_split_3
I0403 14:49:22.083281 11291 net.cpp:399] inception_4b/5x5_reduce -> inception_4b/5x5_reduce
I0403 14:49:22.084632 11291 net.cpp:141] Setting up inception_4b/5x5_reduce
I0403 14:49:22.084666 11291 net.cpp:148] Top shape: 24 24 14 14 (112896)
I0403 14:49:22.084686 11291 net.cpp:156] Memory required for data: 965320992
I0403 14:49:22.084709 11291 layer_factory.hpp:77] Creating layer inception_4b/relu_5x5_reduce
I0403 14:49:22.084733 11291 net.cpp:91] Creating Layer inception_4b/relu_5x5_reduce
I0403 14:49:22.084770 11291 net.cpp:425] inception_4b/relu_5x5_reduce <- inception_4b/5x5_reduce
I0403 14:49:22.084796 11291 net.cpp:386] inception_4b/relu_5x5_reduce -> inception_4b/5x5_reduce (in-place)
I0403 14:49:22.085018 11291 net.cpp:141] Setting up inception_4b/relu_5x5_reduce
I0403 14:49:22.085054 11291 net.cpp:148] Top shape: 24 24 14 14 (112896)
I0403 14:49:22.085073 11291 net.cpp:156] Memory required for data: 965772576
I0403 14:49:22.085091 11291 layer_factory.hpp:77] Creating layer inception_4b/5x5
I0403 14:49:22.085119 11291 net.cpp:91] Creating Layer inception_4b/5x5
I0403 14:49:22.085140 11291 net.cpp:425] inception_4b/5x5 <- inception_4b/5x5_reduce
I0403 14:49:22.085166 11291 net.cpp:399] inception_4b/5x5 -> inception_4b/5x5
I0403 14:49:22.086743 11291 net.cpp:141] Setting up inception_4b/5x5
I0403 14:49:22.086777 11291 net.cpp:148] Top shape: 24 64 14 14 (301056)
I0403 14:49:22.086798 11291 net.cpp:156] Memory required for data: 966976800
I0403 14:49:22.086820 11291 layer_factory.hpp:77] Creating layer inception_4b/relu_5x5
I0403 14:49:22.086843 11291 net.cpp:91] Creating Layer inception_4b/relu_5x5
I0403 14:49:22.086863 11291 net.cpp:425] inception_4b/relu_5x5 <- inception_4b/5x5
I0403 14:49:22.086885 11291 net.cpp:386] inception_4b/relu_5x5 -> inception_4b/5x5 (in-place)
I0403 14:49:22.087235 11291 net.cpp:141] Setting up inception_4b/relu_5x5
I0403 14:49:22.087268 11291 net.cpp:148] Top shape: 24 64 14 14 (301056)
I0403 14:49:22.087286 11291 net.cpp:156] Memory required for data: 968181024
I0403 14:49:22.087306 11291 layer_factory.hpp:77] Creating layer inception_4b/pool
I0403 14:49:22.087328 11291 net.cpp:91] Creating Layer inception_4b/pool
I0403 14:49:22.087348 11291 net.cpp:425] inception_4b/pool <- inception_4a/output_inception_4a/output_0_split_4
I0403 14:49:22.087376 11291 net.cpp:399] inception_4b/pool -> inception_4b/pool
I0403 14:49:22.087462 11291 net.cpp:141] Setting up inception_4b/pool
I0403 14:49:22.087491 11291 net.cpp:148] Top shape: 24 512 14 14 (2408448)
I0403 14:49:22.087510 11291 net.cpp:156] Memory required for data: 977814816
I0403 14:49:22.087528 11291 layer_factory.hpp:77] Creating layer inception_4b/pool_proj
I0403 14:49:22.087558 11291 net.cpp:91] Creating Layer inception_4b/pool_proj
I0403 14:49:22.087579 11291 net.cpp:425] inception_4b/pool_proj <- inception_4b/pool
I0403 14:49:22.087601 11291 net.cpp:399] inception_4b/pool_proj -> inception_4b/pool_proj
I0403 14:49:22.089064 11291 net.cpp:141] Setting up inception_4b/pool_proj
I0403 14:49:22.089098 11291 net.cpp:148] Top shape: 24 64 14 14 (301056)
I0403 14:49:22.089118 11291 net.cpp:156] Memory required for data: 979019040
I0403 14:49:22.089140 11291 layer_factory.hpp:77] Creating layer inception_4b/relu_pool_proj
I0403 14:49:22.089162 11291 net.cpp:91] Creating Layer inception_4b/relu_pool_proj
I0403 14:49:22.089182 11291 net.cpp:425] inception_4b/relu_pool_proj <- inception_4b/pool_proj
I0403 14:49:22.089207 11291 net.cpp:386] inception_4b/relu_pool_proj -> inception_4b/pool_proj (in-place)
I0403 14:49:22.089442 11291 net.cpp:141] Setting up inception_4b/relu_pool_proj
I0403 14:49:22.089474 11291 net.cpp:148] Top shape: 24 64 14 14 (301056)
I0403 14:49:22.089491 11291 net.cpp:156] Memory required for data: 980223264
I0403 14:49:22.089510 11291 layer_factory.hpp:77] Creating layer inception_4b/output
I0403 14:49:22.089534 11291 net.cpp:91] Creating Layer inception_4b/output
I0403 14:49:22.089555 11291 net.cpp:425] inception_4b/output <- inception_4b/1x1
I0403 14:49:22.089575 11291 net.cpp:425] inception_4b/output <- inception_4b/3x3
I0403 14:49:22.089594 11291 net.cpp:425] inception_4b/output <- inception_4b/5x5
I0403 14:49:22.089624 11291 net.cpp:425] inception_4b/output <- inception_4b/pool_proj
I0403 14:49:22.089650 11291 net.cpp:399] inception_4b/output -> inception_4b/output
I0403 14:49:22.089715 11291 net.cpp:141] Setting up inception_4b/output
I0403 14:49:22.089747 11291 net.cpp:148] Top shape: 24 512 14 14 (2408448)
I0403 14:49:22.089766 11291 net.cpp:156] Memory required for data: 989857056
I0403 14:49:22.089800 11291 layer_factory.hpp:77] Creating layer inception_4b/output_inception_4b/output_0_split
I0403 14:49:22.089823 11291 net.cpp:91] Creating Layer inception_4b/output_inception_4b/output_0_split
I0403 14:49:22.089843 11291 net.cpp:425] inception_4b/output_inception_4b/output_0_split <- inception_4b/output
I0403 14:49:22.089866 11291 net.cpp:399] inception_4b/output_inception_4b/output_0_split -> inception_4b/output_inception_4b/output_0_split_0
I0403 14:49:22.089892 11291 net.cpp:399] inception_4b/output_inception_4b/output_0_split -> inception_4b/output_inception_4b/output_0_split_1
I0403 14:49:22.089916 11291 net.cpp:399] inception_4b/output_inception_4b/output_0_split -> inception_4b/output_inception_4b/output_0_split_2
I0403 14:49:22.089941 11291 net.cpp:399] inception_4b/output_inception_4b/output_0_split -> inception_4b/output_inception_4b/output_0_split_3
I0403 14:49:22.090039 11291 net.cpp:141] Setting up inception_4b/output_inception_4b/output_0_split
I0403 14:49:22.090070 11291 net.cpp:148] Top shape: 24 512 14 14 (2408448)
I0403 14:49:22.090091 11291 net.cpp:148] Top shape: 24 512 14 14 (2408448)
I0403 14:49:22.090111 11291 net.cpp:148] Top shape: 24 512 14 14 (2408448)
I0403 14:49:22.090129 11291 net.cpp:148] Top shape: 24 512 14 14 (2408448)
I0403 14:49:22.090145 11291 net.cpp:156] Memory required for data: 1028392224
I0403 14:49:22.090163 11291 layer_factory.hpp:77] Creating layer inception_4c/1x1
I0403 14:49:22.090191 11291 net.cpp:91] Creating Layer inception_4c/1x1
I0403 14:49:22.090212 11291 net.cpp:425] inception_4c/1x1 <- inception_4b/output_inception_4b/output_0_split_0
I0403 14:49:22.090235 11291 net.cpp:399] inception_4c/1x1 -> inception_4c/1x1
I0403 14:49:22.091989 11291 net.cpp:141] Setting up inception_4c/1x1
I0403 14:49:22.092022 11291 net.cpp:148] Top shape: 24 128 14 14 (602112)
I0403 14:49:22.092041 11291 net.cpp:156] Memory required for data: 1030800672
I0403 14:49:22.092064 11291 layer_factory.hpp:77] Creating layer inception_4c/relu_1x1
I0403 14:49:22.092092 11291 net.cpp:91] Creating Layer inception_4c/relu_1x1
I0403 14:49:22.092113 11291 net.cpp:425] inception_4c/relu_1x1 <- inception_4c/1x1
I0403 14:49:22.092134 11291 net.cpp:386] inception_4c/relu_1x1 -> inception_4c/1x1 (in-place)
I0403 14:49:22.092357 11291 net.cpp:141] Setting up inception_4c/relu_1x1
I0403 14:49:22.092402 11291 net.cpp:148] Top shape: 24 128 14 14 (602112)
I0403 14:49:22.092424 11291 net.cpp:156] Memory required for data: 1033209120
I0403 14:49:22.092443 11291 layer_factory.hpp:77] Creating layer inception_4c/3x3_reduce
I0403 14:49:22.092470 11291 net.cpp:91] Creating Layer inception_4c/3x3_reduce
I0403 14:49:22.092491 11291 net.cpp:425] inception_4c/3x3_reduce <- inception_4b/output_inception_4b/output_0_split_1
I0403 14:49:22.092514 11291 net.cpp:399] inception_4c/3x3_reduce -> inception_4c/3x3_reduce
I0403 14:49:22.094867 11291 net.cpp:141] Setting up inception_4c/3x3_reduce
I0403 14:49:22.094907 11291 net.cpp:148] Top shape: 24 128 14 14 (602112)
I0403 14:49:22.094928 11291 net.cpp:156] Memory required for data: 1035617568
I0403 14:49:22.094950 11291 layer_factory.hpp:77] Creating layer inception_4c/relu_3x3_reduce
I0403 14:49:22.094972 11291 net.cpp:91] Creating Layer inception_4c/relu_3x3_reduce
I0403 14:49:22.094991 11291 net.cpp:425] inception_4c/relu_3x3_reduce <- inception_4c/3x3_reduce
I0403 14:49:22.095016 11291 net.cpp:386] inception_4c/relu_3x3_reduce -> inception_4c/3x3_reduce (in-place)
I0403 14:49:22.095396 11291 net.cpp:141] Setting up inception_4c/relu_3x3_reduce
I0403 14:49:22.095435 11291 net.cpp:148] Top shape: 24 128 14 14 (602112)
I0403 14:49:22.095465 11291 net.cpp:156] Memory required for data: 1038026016
I0403 14:49:22.095492 11291 layer_factory.hpp:77] Creating layer inception_4c/3x3
I0403 14:49:22.095526 11291 net.cpp:91] Creating Layer inception_4c/3x3
I0403 14:49:22.095554 11291 net.cpp:425] inception_4c/3x3 <- inception_4c/3x3_reduce
I0403 14:49:22.095589 11291 net.cpp:399] inception_4c/3x3 -> inception_4c/3x3
I0403 14:49:22.099962 11291 net.cpp:141] Setting up inception_4c/3x3
I0403 14:49:22.100014 11291 net.cpp:148] Top shape: 24 256 14 14 (1204224)
I0403 14:49:22.100035 11291 net.cpp:156] Memory required for data: 1042842912
I0403 14:49:22.100075 11291 layer_factory.hpp:77] Creating layer inception_4c/relu_3x3
I0403 14:49:22.100100 11291 net.cpp:91] Creating Layer inception_4c/relu_3x3
I0403 14:49:22.100119 11291 net.cpp:425] inception_4c/relu_3x3 <- inception_4c/3x3
I0403 14:49:22.100142 11291 net.cpp:386] inception_4c/relu_3x3 -> inception_4c/3x3 (in-place)
I0403 14:49:22.100368 11291 net.cpp:141] Setting up inception_4c/relu_3x3
I0403 14:49:22.100404 11291 net.cpp:148] Top shape: 24 256 14 14 (1204224)
I0403 14:49:22.100422 11291 net.cpp:156] Memory required for data: 1047659808
I0403 14:49:22.100440 11291 layer_factory.hpp:77] Creating layer inception_4c/5x5_reduce
I0403 14:49:22.100471 11291 net.cpp:91] Creating Layer inception_4c/5x5_reduce
I0403 14:49:22.100493 11291 net.cpp:425] inception_4c/5x5_reduce <- inception_4b/output_inception_4b/output_0_split_2
I0403 14:49:22.100518 11291 net.cpp:399] inception_4c/5x5_reduce -> inception_4c/5x5_reduce
I0403 14:49:22.101934 11291 net.cpp:141] Setting up inception_4c/5x5_reduce
I0403 14:49:22.101969 11291 net.cpp:148] Top shape: 24 24 14 14 (112896)
I0403 14:49:22.101989 11291 net.cpp:156] Memory required for data: 1048111392
I0403 14:49:22.102010 11291 layer_factory.hpp:77] Creating layer inception_4c/relu_5x5_reduce
I0403 14:49:22.102032 11291 net.cpp:91] Creating Layer inception_4c/relu_5x5_reduce
I0403 14:49:22.102051 11291 net.cpp:425] inception_4c/relu_5x5_reduce <- inception_4c/5x5_reduce
I0403 14:49:22.102075 11291 net.cpp:386] inception_4c/relu_5x5_reduce -> inception_4c/5x5_reduce (in-place)
I0403 14:49:22.102303 11291 net.cpp:141] Setting up inception_4c/relu_5x5_reduce
I0403 14:49:22.102335 11291 net.cpp:148] Top shape: 24 24 14 14 (112896)
I0403 14:49:22.102354 11291 net.cpp:156] Memory required for data: 1048562976
I0403 14:49:22.102370 11291 layer_factory.hpp:77] Creating layer inception_4c/5x5
I0403 14:49:22.102412 11291 net.cpp:91] Creating Layer inception_4c/5x5
I0403 14:49:22.102435 11291 net.cpp:425] inception_4c/5x5 <- inception_4c/5x5_reduce
I0403 14:49:22.102460 11291 net.cpp:399] inception_4c/5x5 -> inception_4c/5x5
I0403 14:49:22.103971 11291 net.cpp:141] Setting up inception_4c/5x5
I0403 14:49:22.104006 11291 net.cpp:148] Top shape: 24 64 14 14 (301056)
I0403 14:49:22.104024 11291 net.cpp:156] Memory required for data: 1049767200
I0403 14:49:22.104048 11291 layer_factory.hpp:77] Creating layer inception_4c/relu_5x5
I0403 14:49:22.104073 11291 net.cpp:91] Creating Layer inception_4c/relu_5x5
I0403 14:49:22.104095 11291 net.cpp:425] inception_4c/relu_5x5 <- inception_4c/5x5
I0403 14:49:22.104116 11291 net.cpp:386] inception_4c/relu_5x5 -> inception_4c/5x5 (in-place)
I0403 14:49:22.104472 11291 net.cpp:141] Setting up inception_4c/relu_5x5
I0403 14:49:22.104504 11291 net.cpp:148] Top shape: 24 64 14 14 (301056)
I0403 14:49:22.104523 11291 net.cpp:156] Memory required for data: 1050971424
I0403 14:49:22.104542 11291 layer_factory.hpp:77] Creating layer inception_4c/pool
I0403 14:49:22.104568 11291 net.cpp:91] Creating Layer inception_4c/pool
I0403 14:49:22.104589 11291 net.cpp:425] inception_4c/pool <- inception_4b/output_inception_4b/output_0_split_3
I0403 14:49:22.104611 11291 net.cpp:399] inception_4c/pool -> inception_4c/pool
I0403 14:49:22.104692 11291 net.cpp:141] Setting up inception_4c/pool
I0403 14:49:22.104720 11291 net.cpp:148] Top shape: 24 512 14 14 (2408448)
I0403 14:49:22.104739 11291 net.cpp:156] Memory required for data: 1060605216
I0403 14:49:22.104758 11291 layer_factory.hpp:77] Creating layer inception_4c/pool_proj
I0403 14:49:22.104784 11291 net.cpp:91] Creating Layer inception_4c/pool_proj
I0403 14:49:22.104806 11291 net.cpp:425] inception_4c/pool_proj <- inception_4c/pool
I0403 14:49:22.104833 11291 net.cpp:399] inception_4c/pool_proj -> inception_4c/pool_proj
I0403 14:49:22.106389 11291 net.cpp:141] Setting up inception_4c/pool_proj
I0403 14:49:22.106428 11291 net.cpp:148] Top shape: 24 64 14 14 (301056)
I0403 14:49:22.106467 11291 net.cpp:156] Memory required for data: 1061809440
I0403 14:49:22.106493 11291 layer_factory.hpp:77] Creating layer inception_4c/relu_pool_proj
I0403 14:49:22.106520 11291 net.cpp:91] Creating Layer inception_4c/relu_pool_proj
I0403 14:49:22.106540 11291 net.cpp:425] inception_4c/relu_pool_proj <- inception_4c/pool_proj
I0403 14:49:22.106566 11291 net.cpp:386] inception_4c/relu_pool_proj -> inception_4c/pool_proj (in-place)
I0403 14:49:22.106791 11291 net.cpp:141] Setting up inception_4c/relu_pool_proj
I0403 14:49:22.106825 11291 net.cpp:148] Top shape: 24 64 14 14 (301056)
I0403 14:49:22.106853 11291 net.cpp:156] Memory required for data: 1063013664
I0403 14:49:22.106870 11291 layer_factory.hpp:77] Creating layer inception_4c/output
I0403 14:49:22.106904 11291 net.cpp:91] Creating Layer inception_4c/output
I0403 14:49:22.106927 11291 net.cpp:425] inception_4c/output <- inception_4c/1x1
I0403 14:49:22.106957 11291 net.cpp:425] inception_4c/output <- inception_4c/3x3
I0403 14:49:22.106977 11291 net.cpp:425] inception_4c/output <- inception_4c/5x5
I0403 14:49:22.106997 11291 net.cpp:425] inception_4c/output <- inception_4c/pool_proj
I0403 14:49:22.107017 11291 net.cpp:399] inception_4c/output -> inception_4c/output
I0403 14:49:22.107074 11291 net.cpp:141] Setting up inception_4c/output
I0403 14:49:22.107102 11291 net.cpp:148] Top shape: 24 512 14 14 (2408448)
I0403 14:49:22.107120 11291 net.cpp:156] Memory required for data: 1072647456
I0403 14:49:22.107137 11291 layer_factory.hpp:77] Creating layer inception_4c/output_inception_4c/output_0_split
I0403 14:49:22.107157 11291 net.cpp:91] Creating Layer inception_4c/output_inception_4c/output_0_split
I0403 14:49:22.107177 11291 net.cpp:425] inception_4c/output_inception_4c/output_0_split <- inception_4c/output
I0403 14:49:22.107200 11291 net.cpp:399] inception_4c/output_inception_4c/output_0_split -> inception_4c/output_inception_4c/output_0_split_0
I0403 14:49:22.107226 11291 net.cpp:399] inception_4c/output_inception_4c/output_0_split -> inception_4c/output_inception_4c/output_0_split_1
I0403 14:49:22.107250 11291 net.cpp:399] inception_4c/output_inception_4c/output_0_split -> inception_4c/output_inception_4c/output_0_split_2
I0403 14:49:22.107275 11291 net.cpp:399] inception_4c/output_inception_4c/output_0_split -> inception_4c/output_inception_4c/output_0_split_3
I0403 14:49:22.107378 11291 net.cpp:141] Setting up inception_4c/output_inception_4c/output_0_split
I0403 14:49:22.107415 11291 net.cpp:148] Top shape: 24 512 14 14 (2408448)
I0403 14:49:22.107435 11291 net.cpp:148] Top shape: 24 512 14 14 (2408448)
I0403 14:49:22.107455 11291 net.cpp:148] Top shape: 24 512 14 14 (2408448)
I0403 14:49:22.107473 11291 net.cpp:148] Top shape: 24 512 14 14 (2408448)
I0403 14:49:22.107491 11291 net.cpp:156] Memory required for data: 1111182624
I0403 14:49:22.107508 11291 layer_factory.hpp:77] Creating layer inception_4d/1x1
I0403 14:49:22.107535 11291 net.cpp:91] Creating Layer inception_4d/1x1
I0403 14:49:22.107558 11291 net.cpp:425] inception_4d/1x1 <- inception_4c/output_inception_4c/output_0_split_0
I0403 14:49:22.107580 11291 net.cpp:399] inception_4d/1x1 -> inception_4d/1x1
I0403 14:49:22.109273 11291 net.cpp:141] Setting up inception_4d/1x1
I0403 14:49:22.109309 11291 net.cpp:148] Top shape: 24 112 14 14 (526848)
I0403 14:49:22.109331 11291 net.cpp:156] Memory required for data: 1113290016
I0403 14:49:22.109354 11291 layer_factory.hpp:77] Creating layer inception_4d/relu_1x1
I0403 14:49:22.109376 11291 net.cpp:91] Creating Layer inception_4d/relu_1x1
I0403 14:49:22.109402 11291 net.cpp:425] inception_4d/relu_1x1 <- inception_4d/1x1
I0403 14:49:22.109423 11291 net.cpp:386] inception_4d/relu_1x1 -> inception_4d/1x1 (in-place)
I0403 14:49:22.109653 11291 net.cpp:141] Setting up inception_4d/relu_1x1
I0403 14:49:22.109683 11291 net.cpp:148] Top shape: 24 112 14 14 (526848)
I0403 14:49:22.109701 11291 net.cpp:156] Memory required for data: 1115397408
I0403 14:49:22.109720 11291 layer_factory.hpp:77] Creating layer inception_4d/3x3_reduce
I0403 14:49:22.109768 11291 net.cpp:91] Creating Layer inception_4d/3x3_reduce
I0403 14:49:22.109791 11291 net.cpp:425] inception_4d/3x3_reduce <- inception_4c/output_inception_4c/output_0_split_1
I0403 14:49:22.109817 11291 net.cpp:399] inception_4d/3x3_reduce -> inception_4d/3x3_reduce
I0403 14:49:22.111675 11291 net.cpp:141] Setting up inception_4d/3x3_reduce
I0403 14:49:22.111709 11291 net.cpp:148] Top shape: 24 144 14 14 (677376)
I0403 14:49:22.111728 11291 net.cpp:156] Memory required for data: 1118106912
I0403 14:49:22.111752 11291 layer_factory.hpp:77] Creating layer inception_4d/relu_3x3_reduce
I0403 14:49:22.111776 11291 net.cpp:91] Creating Layer inception_4d/relu_3x3_reduce
I0403 14:49:22.111796 11291 net.cpp:425] inception_4d/relu_3x3_reduce <- inception_4d/3x3_reduce
I0403 14:49:22.111819 11291 net.cpp:386] inception_4d/relu_3x3_reduce -> inception_4d/3x3_reduce (in-place)
I0403 14:49:22.112221 11291 net.cpp:141] Setting up inception_4d/relu_3x3_reduce
I0403 14:49:22.112252 11291 net.cpp:148] Top shape: 24 144 14 14 (677376)
I0403 14:49:22.112272 11291 net.cpp:156] Memory required for data: 1120816416
I0403 14:49:22.112289 11291 layer_factory.hpp:77] Creating layer inception_4d/3x3
I0403 14:49:22.112316 11291 net.cpp:91] Creating Layer inception_4d/3x3
I0403 14:49:22.112339 11291 net.cpp:425] inception_4d/3x3 <- inception_4d/3x3_reduce
I0403 14:49:22.112365 11291 net.cpp:399] inception_4d/3x3 -> inception_4d/3x3
I0403 14:49:22.117655 11291 net.cpp:141] Setting up inception_4d/3x3
I0403 14:49:22.117691 11291 net.cpp:148] Top shape: 24 288 14 14 (1354752)
I0403 14:49:22.117712 11291 net.cpp:156] Memory required for data: 1126235424
I0403 14:49:22.117733 11291 layer_factory.hpp:77] Creating layer inception_4d/relu_3x3
I0403 14:49:22.117756 11291 net.cpp:91] Creating Layer inception_4d/relu_3x3
I0403 14:49:22.117776 11291 net.cpp:425] inception_4d/relu_3x3 <- inception_4d/3x3
I0403 14:49:22.117800 11291 net.cpp:386] inception_4d/relu_3x3 -> inception_4d/3x3 (in-place)
I0403 14:49:22.118026 11291 net.cpp:141] Setting up inception_4d/relu_3x3
I0403 14:49:22.118067 11291 net.cpp:148] Top shape: 24 288 14 14 (1354752)
I0403 14:49:22.118098 11291 net.cpp:156] Memory required for data: 1131654432
I0403 14:49:22.118115 11291 layer_factory.hpp:77] Creating layer inception_4d/5x5_reduce
I0403 14:49:22.118142 11291 net.cpp:91] Creating Layer inception_4d/5x5_reduce
I0403 14:49:22.118163 11291 net.cpp:425] inception_4d/5x5_reduce <- inception_4c/output_inception_4c/output_0_split_2
I0403 14:49:22.118190 11291 net.cpp:399] inception_4d/5x5_reduce -> inception_4d/5x5_reduce
I0403 14:49:22.119596 11291 net.cpp:141] Setting up inception_4d/5x5_reduce
I0403 14:49:22.119632 11291 net.cpp:148] Top shape: 24 32 14 14 (150528)
I0403 14:49:22.119652 11291 net.cpp:156] Memory required for data: 1132256544
I0403 14:49:22.119673 11291 layer_factory.hpp:77] Creating layer inception_4d/relu_5x5_reduce
I0403 14:49:22.119694 11291 net.cpp:91] Creating Layer inception_4d/relu_5x5_reduce
I0403 14:49:22.119714 11291 net.cpp:425] inception_4d/relu_5x5_reduce <- inception_4d/5x5_reduce
I0403 14:49:22.119735 11291 net.cpp:386] inception_4d/relu_5x5_reduce -> inception_4d/5x5_reduce (in-place)
I0403 14:49:22.119968 11291 net.cpp:141] Setting up inception_4d/relu_5x5_reduce
I0403 14:49:22.119998 11291 net.cpp:148] Top shape: 24 32 14 14 (150528)
I0403 14:49:22.120017 11291 net.cpp:156] Memory required for data: 1132858656
I0403 14:49:22.120034 11291 layer_factory.hpp:77] Creating layer inception_4d/5x5
I0403 14:49:22.120061 11291 net.cpp:91] Creating Layer inception_4d/5x5
I0403 14:49:22.120081 11291 net.cpp:425] inception_4d/5x5 <- inception_4d/5x5_reduce
I0403 14:49:22.120106 11291 net.cpp:399] inception_4d/5x5 -> inception_4d/5x5
I0403 14:49:22.121909 11291 net.cpp:141] Setting up inception_4d/5x5
I0403 14:49:22.121943 11291 net.cpp:148] Top shape: 24 64 14 14 (301056)
I0403 14:49:22.121963 11291 net.cpp:156] Memory required for data: 1134062880
I0403 14:49:22.121985 11291 layer_factory.hpp:77] Creating layer inception_4d/relu_5x5
I0403 14:49:22.122028 11291 net.cpp:91] Creating Layer inception_4d/relu_5x5
I0403 14:49:22.122051 11291 net.cpp:425] inception_4d/relu_5x5 <- inception_4d/5x5
I0403 14:49:22.122071 11291 net.cpp:386] inception_4d/relu_5x5 -> inception_4d/5x5 (in-place)
I0403 14:49:22.122450 11291 net.cpp:141] Setting up inception_4d/relu_5x5
I0403 14:49:22.122483 11291 net.cpp:148] Top shape: 24 64 14 14 (301056)
I0403 14:49:22.122500 11291 net.cpp:156] Memory required for data: 1135267104
I0403 14:49:22.122519 11291 layer_factory.hpp:77] Creating layer inception_4d/pool
I0403 14:49:22.122541 11291 net.cpp:91] Creating Layer inception_4d/pool
I0403 14:49:22.122565 11291 net.cpp:425] inception_4d/pool <- inception_4c/output_inception_4c/output_0_split_3
I0403 14:49:22.122587 11291 net.cpp:399] inception_4d/pool -> inception_4d/pool
I0403 14:49:22.122670 11291 net.cpp:141] Setting up inception_4d/pool
I0403 14:49:22.122699 11291 net.cpp:148] Top shape: 24 512 14 14 (2408448)
I0403 14:49:22.122716 11291 net.cpp:156] Memory required for data: 1144900896
I0403 14:49:22.122735 11291 layer_factory.hpp:77] Creating layer inception_4d/pool_proj
I0403 14:49:22.122761 11291 net.cpp:91] Creating Layer inception_4d/pool_proj
I0403 14:49:22.122782 11291 net.cpp:425] inception_4d/pool_proj <- inception_4d/pool
I0403 14:49:22.122808 11291 net.cpp:399] inception_4d/pool_proj -> inception_4d/pool_proj
I0403 14:49:22.124990 11291 net.cpp:141] Setting up inception_4d/pool_proj
I0403 14:49:22.125032 11291 net.cpp:148] Top shape: 24 64 14 14 (301056)
I0403 14:49:22.125053 11291 net.cpp:156] Memory required for data: 1146105120
I0403 14:49:22.125077 11291 layer_factory.hpp:77] Creating layer inception_4d/relu_pool_proj
I0403 14:49:22.125098 11291 net.cpp:91] Creating Layer inception_4d/relu_pool_proj
I0403 14:49:22.125118 11291 net.cpp:425] inception_4d/relu_pool_proj <- inception_4d/pool_proj
I0403 14:49:22.125141 11291 net.cpp:386] inception_4d/relu_pool_proj -> inception_4d/pool_proj (in-place)
I0403 14:49:22.125370 11291 net.cpp:141] Setting up inception_4d/relu_pool_proj
I0403 14:49:22.125406 11291 net.cpp:148] Top shape: 24 64 14 14 (301056)
I0403 14:49:22.125423 11291 net.cpp:156] Memory required for data: 1147309344
I0403 14:49:22.125442 11291 layer_factory.hpp:77] Creating layer inception_4d/output
I0403 14:49:22.125463 11291 net.cpp:91] Creating Layer inception_4d/output
I0403 14:49:22.125481 11291 net.cpp:425] inception_4d/output <- inception_4d/1x1
I0403 14:49:22.125501 11291 net.cpp:425] inception_4d/output <- inception_4d/3x3
I0403 14:49:22.125521 11291 net.cpp:425] inception_4d/output <- inception_4d/5x5
I0403 14:49:22.125541 11291 net.cpp:425] inception_4d/output <- inception_4d/pool_proj
I0403 14:49:22.125565 11291 net.cpp:399] inception_4d/output -> inception_4d/output
I0403 14:49:22.125622 11291 net.cpp:141] Setting up inception_4d/output
I0403 14:49:22.125653 11291 net.cpp:148] Top shape: 24 528 14 14 (2483712)
I0403 14:49:22.125672 11291 net.cpp:156] Memory required for data: 1157244192
I0403 14:49:22.125689 11291 layer_factory.hpp:77] Creating layer inception_4d/output_inception_4d/output_0_split
I0403 14:49:22.125711 11291 net.cpp:91] Creating Layer inception_4d/output_inception_4d/output_0_split
I0403 14:49:22.125730 11291 net.cpp:425] inception_4d/output_inception_4d/output_0_split <- inception_4d/output
I0403 14:49:22.125751 11291 net.cpp:399] inception_4d/output_inception_4d/output_0_split -> inception_4d/output_inception_4d/output_0_split_0
I0403 14:49:22.125777 11291 net.cpp:399] inception_4d/output_inception_4d/output_0_split -> inception_4d/output_inception_4d/output_0_split_1
I0403 14:49:22.125803 11291 net.cpp:399] inception_4d/output_inception_4d/output_0_split -> inception_4d/output_inception_4d/output_0_split_2
I0403 14:49:22.125829 11291 net.cpp:399] inception_4d/output_inception_4d/output_0_split -> inception_4d/output_inception_4d/output_0_split_3
I0403 14:49:22.125854 11291 net.cpp:399] inception_4d/output_inception_4d/output_0_split -> inception_4d/output_inception_4d/output_0_split_4
I0403 14:49:22.125990 11291 net.cpp:141] Setting up inception_4d/output_inception_4d/output_0_split
I0403 14:49:22.126039 11291 net.cpp:148] Top shape: 24 528 14 14 (2483712)
I0403 14:49:22.126060 11291 net.cpp:148] Top shape: 24 528 14 14 (2483712)
I0403 14:49:22.126080 11291 net.cpp:148] Top shape: 24 528 14 14 (2483712)
I0403 14:49:22.126098 11291 net.cpp:148] Top shape: 24 528 14 14 (2483712)
I0403 14:49:22.126118 11291 net.cpp:148] Top shape: 24 528 14 14 (2483712)
I0403 14:49:22.126135 11291 net.cpp:156] Memory required for data: 1206918432
I0403 14:49:22.126153 11291 layer_factory.hpp:77] Creating layer loss2/ave_pool
I0403 14:49:22.126175 11291 net.cpp:91] Creating Layer loss2/ave_pool
I0403 14:49:22.126194 11291 net.cpp:425] loss2/ave_pool <- inception_4d/output_inception_4d/output_0_split_0
I0403 14:49:22.126215 11291 net.cpp:399] loss2/ave_pool -> loss2/ave_pool
I0403 14:49:22.126607 11291 net.cpp:141] Setting up loss2/ave_pool
I0403 14:49:22.126642 11291 net.cpp:148] Top shape: 24 528 4 4 (202752)
I0403 14:49:22.126663 11291 net.cpp:156] Memory required for data: 1207729440
I0403 14:49:22.126682 11291 layer_factory.hpp:77] Creating layer loss2/conv
I0403 14:49:22.126709 11291 net.cpp:91] Creating Layer loss2/conv
I0403 14:49:22.126734 11291 net.cpp:425] loss2/conv <- loss2/ave_pool
I0403 14:49:22.126756 11291 net.cpp:399] loss2/conv -> loss2/conv
I0403 14:49:22.129184 11291 net.cpp:141] Setting up loss2/conv
I0403 14:49:22.129220 11291 net.cpp:148] Top shape: 24 128 4 4 (49152)
I0403 14:49:22.129241 11291 net.cpp:156] Memory required for data: 1207926048
I0403 14:49:22.129264 11291 layer_factory.hpp:77] Creating layer loss2/relu_conv
I0403 14:49:22.129289 11291 net.cpp:91] Creating Layer loss2/relu_conv
I0403 14:49:22.129309 11291 net.cpp:425] loss2/relu_conv <- loss2/conv
I0403 14:49:22.129333 11291 net.cpp:386] loss2/relu_conv -> loss2/conv (in-place)
I0403 14:49:22.129686 11291 net.cpp:141] Setting up loss2/relu_conv
I0403 14:49:22.129719 11291 net.cpp:148] Top shape: 24 128 4 4 (49152)
I0403 14:49:22.129736 11291 net.cpp:156] Memory required for data: 1208122656
I0403 14:49:22.129755 11291 layer_factory.hpp:77] Creating layer loss2/fc
I0403 14:49:22.129781 11291 net.cpp:91] Creating Layer loss2/fc
I0403 14:49:22.129801 11291 net.cpp:425] loss2/fc <- loss2/conv
I0403 14:49:22.129823 11291 net.cpp:399] loss2/fc -> loss2/fc
I0403 14:49:22.151487 11291 net.cpp:141] Setting up loss2/fc
I0403 14:49:22.151535 11291 net.cpp:148] Top shape: 24 1024 (24576)
I0403 14:49:22.151554 11291 net.cpp:156] Memory required for data: 1208220960
I0403 14:49:22.151579 11291 layer_factory.hpp:77] Creating layer loss2/relu_fc
I0403 14:49:22.151603 11291 net.cpp:91] Creating Layer loss2/relu_fc
I0403 14:49:22.151624 11291 net.cpp:425] loss2/relu_fc <- loss2/fc
I0403 14:49:22.151649 11291 net.cpp:386] loss2/relu_fc -> loss2/fc (in-place)
I0403 14:49:22.152066 11291 net.cpp:141] Setting up loss2/relu_fc
I0403 14:49:22.152098 11291 net.cpp:148] Top shape: 24 1024 (24576)
I0403 14:49:22.152117 11291 net.cpp:156] Memory required for data: 1208319264
I0403 14:49:22.152134 11291 layer_factory.hpp:77] Creating layer loss2/drop_fc
I0403 14:49:22.152158 11291 net.cpp:91] Creating Layer loss2/drop_fc
I0403 14:49:22.152178 11291 net.cpp:425] loss2/drop_fc <- loss2/fc
I0403 14:49:22.152200 11291 net.cpp:386] loss2/drop_fc -> loss2/fc (in-place)
I0403 14:49:22.152262 11291 net.cpp:141] Setting up loss2/drop_fc
I0403 14:49:22.152290 11291 net.cpp:148] Top shape: 24 1024 (24576)
I0403 14:49:22.152307 11291 net.cpp:156] Memory required for data: 1208417568
I0403 14:49:22.152325 11291 layer_factory.hpp:77] Creating layer loss2/classifier_plantvillage
I0403 14:49:22.152351 11291 net.cpp:91] Creating Layer loss2/classifier_plantvillage
I0403 14:49:22.152371 11291 net.cpp:425] loss2/classifier_plantvillage <- loss2/fc
I0403 14:49:22.152413 11291 net.cpp:399] loss2/classifier_plantvillage -> loss2/classifier_plantvillage
I0403 14:49:22.152922 11291 net.cpp:141] Setting up loss2/classifier_plantvillage
I0403 14:49:22.152952 11291 net.cpp:148] Top shape: 24 38 (912)
I0403 14:49:22.152993 11291 net.cpp:156] Memory required for data: 1208421216
I0403 14:49:22.153017 11291 layer_factory.hpp:77] Creating layer loss2/classifier_plantvillage_loss2/classifier_plantvillage_0_split
I0403 14:49:22.153040 11291 net.cpp:91] Creating Layer loss2/classifier_plantvillage_loss2/classifier_plantvillage_0_split
I0403 14:49:22.153059 11291 net.cpp:425] loss2/classifier_plantvillage_loss2/classifier_plantvillage_0_split <- loss2/classifier_plantvillage
I0403 14:49:22.153084 11291 net.cpp:399] loss2/classifier_plantvillage_loss2/classifier_plantvillage_0_split -> loss2/classifier_plantvillage_loss2/classifier_plantvillage_0_split_0
I0403 14:49:22.153110 11291 net.cpp:399] loss2/classifier_plantvillage_loss2/classifier_plantvillage_0_split -> loss2/classifier_plantvillage_loss2/classifier_plantvillage_0_split_1
I0403 14:49:22.153134 11291 net.cpp:399] loss2/classifier_plantvillage_loss2/classifier_plantvillage_0_split -> loss2/classifier_plantvillage_loss2/classifier_plantvillage_0_split_2
I0403 14:49:22.153230 11291 net.cpp:141] Setting up loss2/classifier_plantvillage_loss2/classifier_plantvillage_0_split
I0403 14:49:22.153259 11291 net.cpp:148] Top shape: 24 38 (912)
I0403 14:49:22.153280 11291 net.cpp:148] Top shape: 24 38 (912)
I0403 14:49:22.153297 11291 net.cpp:148] Top shape: 24 38 (912)
I0403 14:49:22.153314 11291 net.cpp:156] Memory required for data: 1208432160
I0403 14:49:22.153332 11291 layer_factory.hpp:77] Creating layer inception_4e/1x1
I0403 14:49:22.153359 11291 net.cpp:91] Creating Layer inception_4e/1x1
I0403 14:49:22.153385 11291 net.cpp:425] inception_4e/1x1 <- inception_4d/output_inception_4d/output_0_split_1
I0403 14:49:22.153410 11291 net.cpp:399] inception_4e/1x1 -> inception_4e/1x1
I0403 14:49:22.155699 11291 net.cpp:141] Setting up inception_4e/1x1
I0403 14:49:22.155735 11291 net.cpp:148] Top shape: 24 256 14 14 (1204224)
I0403 14:49:22.155753 11291 net.cpp:156] Memory required for data: 1213249056
I0403 14:49:22.155776 11291 layer_factory.hpp:77] Creating layer inception_4e/relu_1x1
I0403 14:49:22.155800 11291 net.cpp:91] Creating Layer inception_4e/relu_1x1
I0403 14:49:22.155822 11291 net.cpp:425] inception_4e/relu_1x1 <- inception_4e/1x1
I0403 14:49:22.155843 11291 net.cpp:386] inception_4e/relu_1x1 -> inception_4e/1x1 (in-place)
I0403 14:49:22.156205 11291 net.cpp:141] Setting up inception_4e/relu_1x1
I0403 14:49:22.156239 11291 net.cpp:148] Top shape: 24 256 14 14 (1204224)
I0403 14:49:22.156256 11291 net.cpp:156] Memory required for data: 1218065952
I0403 14:49:22.156273 11291 layer_factory.hpp:77] Creating layer inception_4e/3x3_reduce
I0403 14:49:22.156301 11291 net.cpp:91] Creating Layer inception_4e/3x3_reduce
I0403 14:49:22.156322 11291 net.cpp:425] inception_4e/3x3_reduce <- inception_4d/output_inception_4d/output_0_split_2
I0403 14:49:22.156348 11291 net.cpp:399] inception_4e/3x3_reduce -> inception_4e/3x3_reduce
I0403 14:49:22.158984 11291 net.cpp:141] Setting up inception_4e/3x3_reduce
I0403 14:49:22.159023 11291 net.cpp:148] Top shape: 24 160 14 14 (752640)
I0403 14:49:22.159046 11291 net.cpp:156] Memory required for data: 1221076512
I0403 14:49:22.159071 11291 layer_factory.hpp:77] Creating layer inception_4e/relu_3x3_reduce
I0403 14:49:22.159098 11291 net.cpp:91] Creating Layer inception_4e/relu_3x3_reduce
I0403 14:49:22.159122 11291 net.cpp:425] inception_4e/relu_3x3_reduce <- inception_4e/3x3_reduce
I0403 14:49:22.159152 11291 net.cpp:386] inception_4e/relu_3x3_reduce -> inception_4e/3x3_reduce (in-place)
I0403 14:49:22.159404 11291 net.cpp:141] Setting up inception_4e/relu_3x3_reduce
I0403 14:49:22.159440 11291 net.cpp:148] Top shape: 24 160 14 14 (752640)
I0403 14:49:22.159457 11291 net.cpp:156] Memory required for data: 1224087072
I0403 14:49:22.159484 11291 layer_factory.hpp:77] Creating layer inception_4e/3x3
I0403 14:49:22.159521 11291 net.cpp:91] Creating Layer inception_4e/3x3
I0403 14:49:22.159549 11291 net.cpp:425] inception_4e/3x3 <- inception_4e/3x3_reduce
I0403 14:49:22.159574 11291 net.cpp:399] inception_4e/3x3 -> inception_4e/3x3
I0403 14:49:22.165765 11291 net.cpp:141] Setting up inception_4e/3x3
I0403 14:49:22.165813 11291 net.cpp:148] Top shape: 24 320 14 14 (1505280)
I0403 14:49:22.165833 11291 net.cpp:156] Memory required for data: 1230108192
I0403 14:49:22.165855 11291 layer_factory.hpp:77] Creating layer inception_4e/relu_3x3
I0403 14:49:22.165880 11291 net.cpp:91] Creating Layer inception_4e/relu_3x3
I0403 14:49:22.165901 11291 net.cpp:425] inception_4e/relu_3x3 <- inception_4e/3x3
I0403 14:49:22.165922 11291 net.cpp:386] inception_4e/relu_3x3 -> inception_4e/3x3 (in-place)
I0403 14:49:22.166287 11291 net.cpp:141] Setting up inception_4e/relu_3x3
I0403 14:49:22.166322 11291 net.cpp:148] Top shape: 24 320 14 14 (1505280)
I0403 14:49:22.166342 11291 net.cpp:156] Memory required for data: 1236129312
I0403 14:49:22.166362 11291 layer_factory.hpp:77] Creating layer inception_4e/5x5_reduce
I0403 14:49:22.166394 11291 net.cpp:91] Creating Layer inception_4e/5x5_reduce
I0403 14:49:22.166416 11291 net.cpp:425] inception_4e/5x5_reduce <- inception_4d/output_inception_4d/output_0_split_3
I0403 14:49:22.166440 11291 net.cpp:399] inception_4e/5x5_reduce -> inception_4e/5x5_reduce
I0403 14:49:22.167752 11291 net.cpp:141] Setting up inception_4e/5x5_reduce
I0403 14:49:22.167786 11291 net.cpp:148] Top shape: 24 32 14 14 (150528)
I0403 14:49:22.167805 11291 net.cpp:156] Memory required for data: 1236731424
I0403 14:49:22.167829 11291 layer_factory.hpp:77] Creating layer inception_4e/relu_5x5_reduce
I0403 14:49:22.167853 11291 net.cpp:91] Creating Layer inception_4e/relu_5x5_reduce
I0403 14:49:22.167873 11291 net.cpp:425] inception_4e/relu_5x5_reduce <- inception_4e/5x5_reduce
I0403 14:49:22.167894 11291 net.cpp:386] inception_4e/relu_5x5_reduce -> inception_4e/5x5_reduce (in-place)
I0403 14:49:22.168257 11291 net.cpp:141] Setting up inception_4e/relu_5x5_reduce
I0403 14:49:22.168289 11291 net.cpp:148] Top shape: 24 32 14 14 (150528)
I0403 14:49:22.168308 11291 net.cpp:156] Memory required for data: 1237333536
I0403 14:49:22.168325 11291 layer_factory.hpp:77] Creating layer inception_4e/5x5
I0403 14:49:22.168372 11291 net.cpp:91] Creating Layer inception_4e/5x5
I0403 14:49:22.168401 11291 net.cpp:425] inception_4e/5x5 <- inception_4e/5x5_reduce
I0403 14:49:22.168426 11291 net.cpp:399] inception_4e/5x5 -> inception_4e/5x5
I0403 14:49:22.170693 11291 net.cpp:141] Setting up inception_4e/5x5
I0403 14:49:22.170730 11291 net.cpp:148] Top shape: 24 128 14 14 (602112)
I0403 14:49:22.170750 11291 net.cpp:156] Memory required for data: 1239741984
I0403 14:49:22.170773 11291 layer_factory.hpp:77] Creating layer inception_4e/relu_5x5
I0403 14:49:22.170795 11291 net.cpp:91] Creating Layer inception_4e/relu_5x5
I0403 14:49:22.170815 11291 net.cpp:425] inception_4e/relu_5x5 <- inception_4e/5x5
I0403 14:49:22.170840 11291 net.cpp:386] inception_4e/relu_5x5 -> inception_4e/5x5 (in-place)
I0403 14:49:22.171080 11291 net.cpp:141] Setting up inception_4e/relu_5x5
I0403 14:49:22.171111 11291 net.cpp:148] Top shape: 24 128 14 14 (602112)
I0403 14:49:22.171129 11291 net.cpp:156] Memory required for data: 1242150432
I0403 14:49:22.171147 11291 layer_factory.hpp:77] Creating layer inception_4e/pool
I0403 14:49:22.171169 11291 net.cpp:91] Creating Layer inception_4e/pool
I0403 14:49:22.171188 11291 net.cpp:425] inception_4e/pool <- inception_4d/output_inception_4d/output_0_split_4
I0403 14:49:22.171212 11291 net.cpp:399] inception_4e/pool -> inception_4e/pool
I0403 14:49:22.171300 11291 net.cpp:141] Setting up inception_4e/pool
I0403 14:49:22.171330 11291 net.cpp:148] Top shape: 24 528 14 14 (2483712)
I0403 14:49:22.171347 11291 net.cpp:156] Memory required for data: 1252085280
I0403 14:49:22.171366 11291 layer_factory.hpp:77] Creating layer inception_4e/pool_proj
I0403 14:49:22.171402 11291 net.cpp:91] Creating Layer inception_4e/pool_proj
I0403 14:49:22.171424 11291 net.cpp:425] inception_4e/pool_proj <- inception_4e/pool
I0403 14:49:22.171449 11291 net.cpp:399] inception_4e/pool_proj -> inception_4e/pool_proj
I0403 14:49:22.173305 11291 net.cpp:141] Setting up inception_4e/pool_proj
I0403 14:49:22.173357 11291 net.cpp:148] Top shape: 24 128 14 14 (602112)
I0403 14:49:22.173377 11291 net.cpp:156] Memory required for data: 1254493728
I0403 14:49:22.173408 11291 layer_factory.hpp:77] Creating layer inception_4e/relu_pool_proj
I0403 14:49:22.173430 11291 net.cpp:91] Creating Layer inception_4e/relu_pool_proj
I0403 14:49:22.173449 11291 net.cpp:425] inception_4e/relu_pool_proj <- inception_4e/pool_proj
I0403 14:49:22.173473 11291 net.cpp:386] inception_4e/relu_pool_proj -> inception_4e/pool_proj (in-place)
I0403 14:49:22.173828 11291 net.cpp:141] Setting up inception_4e/relu_pool_proj
I0403 14:49:22.173871 11291 net.cpp:148] Top shape: 24 128 14 14 (602112)
I0403 14:49:22.173892 11291 net.cpp:156] Memory required for data: 1256902176
I0403 14:49:22.173910 11291 layer_factory.hpp:77] Creating layer inception_4e/output
I0403 14:49:22.173933 11291 net.cpp:91] Creating Layer inception_4e/output
I0403 14:49:22.173951 11291 net.cpp:425] inception_4e/output <- inception_4e/1x1
I0403 14:49:22.173972 11291 net.cpp:425] inception_4e/output <- inception_4e/3x3
I0403 14:49:22.173991 11291 net.cpp:425] inception_4e/output <- inception_4e/5x5
I0403 14:49:22.174011 11291 net.cpp:425] inception_4e/output <- inception_4e/pool_proj
I0403 14:49:22.174034 11291 net.cpp:399] inception_4e/output -> inception_4e/output
I0403 14:49:22.174096 11291 net.cpp:141] Setting up inception_4e/output
I0403 14:49:22.174124 11291 net.cpp:148] Top shape: 24 832 14 14 (3913728)
I0403 14:49:22.174141 11291 net.cpp:156] Memory required for data: 1272557088
I0403 14:49:22.174160 11291 layer_factory.hpp:77] Creating layer pool4/3x3_s2
I0403 14:49:22.174185 11291 net.cpp:91] Creating Layer pool4/3x3_s2
I0403 14:49:22.174206 11291 net.cpp:425] pool4/3x3_s2 <- inception_4e/output
I0403 14:49:22.174227 11291 net.cpp:399] pool4/3x3_s2 -> pool4/3x3_s2
I0403 14:49:22.174314 11291 net.cpp:141] Setting up pool4/3x3_s2
I0403 14:49:22.174346 11291 net.cpp:148] Top shape: 24 832 7 7 (978432)
I0403 14:49:22.174368 11291 net.cpp:156] Memory required for data: 1276470816
I0403 14:49:22.174398 11291 layer_factory.hpp:77] Creating layer pool4/3x3_s2_pool4/3x3_s2_0_split
I0403 14:49:22.174432 11291 net.cpp:91] Creating Layer pool4/3x3_s2_pool4/3x3_s2_0_split
I0403 14:49:22.174453 11291 net.cpp:425] pool4/3x3_s2_pool4/3x3_s2_0_split <- pool4/3x3_s2
I0403 14:49:22.174475 11291 net.cpp:399] pool4/3x3_s2_pool4/3x3_s2_0_split -> pool4/3x3_s2_pool4/3x3_s2_0_split_0
I0403 14:49:22.174501 11291 net.cpp:399] pool4/3x3_s2_pool4/3x3_s2_0_split -> pool4/3x3_s2_pool4/3x3_s2_0_split_1
I0403 14:49:22.174525 11291 net.cpp:399] pool4/3x3_s2_pool4/3x3_s2_0_split -> pool4/3x3_s2_pool4/3x3_s2_0_split_2
I0403 14:49:22.174551 11291 net.cpp:399] pool4/3x3_s2_pool4/3x3_s2_0_split -> pool4/3x3_s2_pool4/3x3_s2_0_split_3
I0403 14:49:22.174661 11291 net.cpp:141] Setting up pool4/3x3_s2_pool4/3x3_s2_0_split
I0403 14:49:22.174690 11291 net.cpp:148] Top shape: 24 832 7 7 (978432)
I0403 14:49:22.174710 11291 net.cpp:148] Top shape: 24 832 7 7 (978432)
I0403 14:49:22.174729 11291 net.cpp:148] Top shape: 24 832 7 7 (978432)
I0403 14:49:22.174748 11291 net.cpp:148] Top shape: 24 832 7 7 (978432)
I0403 14:49:22.174767 11291 net.cpp:156] Memory required for data: 1292125728
I0403 14:49:22.174784 11291 layer_factory.hpp:77] Creating layer inception_5a/1x1
I0403 14:49:22.174811 11291 net.cpp:91] Creating Layer inception_5a/1x1
I0403 14:49:22.174832 11291 net.cpp:425] inception_5a/1x1 <- pool4/3x3_s2_pool4/3x3_s2_0_split_0
I0403 14:49:22.174859 11291 net.cpp:399] inception_5a/1x1 -> inception_5a/1x1
I0403 14:49:22.178383 11291 net.cpp:141] Setting up inception_5a/1x1
I0403 14:49:22.178417 11291 net.cpp:148] Top shape: 24 256 7 7 (301056)
I0403 14:49:22.178437 11291 net.cpp:156] Memory required for data: 1293329952
I0403 14:49:22.178460 11291 layer_factory.hpp:77] Creating layer inception_5a/relu_1x1
I0403 14:49:22.178483 11291 net.cpp:91] Creating Layer inception_5a/relu_1x1
I0403 14:49:22.178503 11291 net.cpp:425] inception_5a/relu_1x1 <- inception_5a/1x1
I0403 14:49:22.178526 11291 net.cpp:386] inception_5a/relu_1x1 -> inception_5a/1x1 (in-place)
I0403 14:49:22.178910 11291 net.cpp:141] Setting up inception_5a/relu_1x1
I0403 14:49:22.178942 11291 net.cpp:148] Top shape: 24 256 7 7 (301056)
I0403 14:49:22.178961 11291 net.cpp:156] Memory required for data: 1294534176
I0403 14:49:22.178978 11291 layer_factory.hpp:77] Creating layer inception_5a/3x3_reduce
I0403 14:49:22.179006 11291 net.cpp:91] Creating Layer inception_5a/3x3_reduce
I0403 14:49:22.179029 11291 net.cpp:425] inception_5a/3x3_reduce <- pool4/3x3_s2_pool4/3x3_s2_0_split_1
I0403 14:49:22.179055 11291 net.cpp:399] inception_5a/3x3_reduce -> inception_5a/3x3_reduce
I0403 14:49:22.182051 11291 net.cpp:141] Setting up inception_5a/3x3_reduce
I0403 14:49:22.182090 11291 net.cpp:148] Top shape: 24 160 7 7 (188160)
I0403 14:49:22.182109 11291 net.cpp:156] Memory required for data: 1295286816
I0403 14:49:22.182132 11291 layer_factory.hpp:77] Creating layer inception_5a/relu_3x3_reduce
I0403 14:49:22.182157 11291 net.cpp:91] Creating Layer inception_5a/relu_3x3_reduce
I0403 14:49:22.182178 11291 net.cpp:425] inception_5a/relu_3x3_reduce <- inception_5a/3x3_reduce
I0403 14:49:22.182199 11291 net.cpp:386] inception_5a/relu_3x3_reduce -> inception_5a/3x3_reduce (in-place)
I0403 14:49:22.182448 11291 net.cpp:141] Setting up inception_5a/relu_3x3_reduce
I0403 14:49:22.182478 11291 net.cpp:148] Top shape: 24 160 7 7 (188160)
I0403 14:49:22.182497 11291 net.cpp:156] Memory required for data: 1296039456
I0403 14:49:22.182514 11291 layer_factory.hpp:77] Creating layer inception_5a/3x3
I0403 14:49:22.182543 11291 net.cpp:91] Creating Layer inception_5a/3x3
I0403 14:49:22.182564 11291 net.cpp:425] inception_5a/3x3 <- inception_5a/3x3_reduce
I0403 14:49:22.182591 11291 net.cpp:399] inception_5a/3x3 -> inception_5a/3x3
I0403 14:49:22.188778 11291 net.cpp:141] Setting up inception_5a/3x3
I0403 14:49:22.188817 11291 net.cpp:148] Top shape: 24 320 7 7 (376320)
I0403 14:49:22.188838 11291 net.cpp:156] Memory required for data: 1297544736
I0403 14:49:22.188860 11291 layer_factory.hpp:77] Creating layer inception_5a/relu_3x3
I0403 14:49:22.188882 11291 net.cpp:91] Creating Layer inception_5a/relu_3x3
I0403 14:49:22.188901 11291 net.cpp:425] inception_5a/relu_3x3 <- inception_5a/3x3
I0403 14:49:22.188925 11291 net.cpp:386] inception_5a/relu_3x3 -> inception_5a/3x3 (in-place)
I0403 14:49:22.189280 11291 net.cpp:141] Setting up inception_5a/relu_3x3
I0403 14:49:22.189316 11291 net.cpp:148] Top shape: 24 320 7 7 (376320)
I0403 14:49:22.189337 11291 net.cpp:156] Memory required for data: 1299050016
I0403 14:49:22.189354 11291 layer_factory.hpp:77] Creating layer inception_5a/5x5_reduce
I0403 14:49:22.189386 11291 net.cpp:91] Creating Layer inception_5a/5x5_reduce
I0403 14:49:22.189409 11291 net.cpp:425] inception_5a/5x5_reduce <- pool4/3x3_s2_pool4/3x3_s2_0_split_2
I0403 14:49:22.189435 11291 net.cpp:399] inception_5a/5x5_reduce -> inception_5a/5x5_reduce
I0403 14:49:22.190867 11291 net.cpp:141] Setting up inception_5a/5x5_reduce
I0403 14:49:22.190902 11291 net.cpp:148] Top shape: 24 32 7 7 (37632)
I0403 14:49:22.190922 11291 net.cpp:156] Memory required for data: 1299200544
I0403 14:49:22.190943 11291 layer_factory.hpp:77] Creating layer inception_5a/relu_5x5_reduce
I0403 14:49:22.190965 11291 net.cpp:91] Creating Layer inception_5a/relu_5x5_reduce
I0403 14:49:22.190984 11291 net.cpp:425] inception_5a/relu_5x5_reduce <- inception_5a/5x5_reduce
I0403 14:49:22.191009 11291 net.cpp:386] inception_5a/relu_5x5_reduce -> inception_5a/5x5_reduce (in-place)
I0403 14:49:22.191385 11291 net.cpp:141] Setting up inception_5a/relu_5x5_reduce
I0403 14:49:22.191417 11291 net.cpp:148] Top shape: 24 32 7 7 (37632)
I0403 14:49:22.191434 11291 net.cpp:156] Memory required for data: 1299351072
I0403 14:49:22.191452 11291 layer_factory.hpp:77] Creating layer inception_5a/5x5
I0403 14:49:22.191479 11291 net.cpp:91] Creating Layer inception_5a/5x5
I0403 14:49:22.191500 11291 net.cpp:425] inception_5a/5x5 <- inception_5a/5x5_reduce
I0403 14:49:22.191525 11291 net.cpp:399] inception_5a/5x5 -> inception_5a/5x5
I0403 14:49:22.193645 11291 net.cpp:141] Setting up inception_5a/5x5
I0403 14:49:22.193697 11291 net.cpp:148] Top shape: 24 128 7 7 (150528)
I0403 14:49:22.193719 11291 net.cpp:156] Memory required for data: 1299953184
I0403 14:49:22.193742 11291 layer_factory.hpp:77] Creating layer inception_5a/relu_5x5
I0403 14:49:22.193765 11291 net.cpp:91] Creating Layer inception_5a/relu_5x5
I0403 14:49:22.193785 11291 net.cpp:425] inception_5a/relu_5x5 <- inception_5a/5x5
I0403 14:49:22.193809 11291 net.cpp:386] inception_5a/relu_5x5 -> inception_5a/5x5 (in-place)
I0403 14:49:22.194044 11291 net.cpp:141] Setting up inception_5a/relu_5x5
I0403 14:49:22.194075 11291 net.cpp:148] Top shape: 24 128 7 7 (150528)
I0403 14:49:22.194093 11291 net.cpp:156] Memory required for data: 1300555296
I0403 14:49:22.194111 11291 layer_factory.hpp:77] Creating layer inception_5a/pool
I0403 14:49:22.194133 11291 net.cpp:91] Creating Layer inception_5a/pool
I0403 14:49:22.194154 11291 net.cpp:425] inception_5a/pool <- pool4/3x3_s2_pool4/3x3_s2_0_split_3
I0403 14:49:22.194178 11291 net.cpp:399] inception_5a/pool -> inception_5a/pool
I0403 14:49:22.194267 11291 net.cpp:141] Setting up inception_5a/pool
I0403 14:49:22.194296 11291 net.cpp:148] Top shape: 24 832 7 7 (978432)
I0403 14:49:22.194314 11291 net.cpp:156] Memory required for data: 1304469024
I0403 14:49:22.194332 11291 layer_factory.hpp:77] Creating layer inception_5a/pool_proj
I0403 14:49:22.194360 11291 net.cpp:91] Creating Layer inception_5a/pool_proj
I0403 14:49:22.194386 11291 net.cpp:425] inception_5a/pool_proj <- inception_5a/pool
I0403 14:49:22.194416 11291 net.cpp:399] inception_5a/pool_proj -> inception_5a/pool_proj
I0403 14:49:22.197252 11291 net.cpp:141] Setting up inception_5a/pool_proj
I0403 14:49:22.197293 11291 net.cpp:148] Top shape: 24 128 7 7 (150528)
I0403 14:49:22.197314 11291 net.cpp:156] Memory required for data: 1305071136
I0403 14:49:22.197340 11291 layer_factory.hpp:77] Creating layer inception_5a/relu_pool_proj
I0403 14:49:22.197362 11291 net.cpp:91] Creating Layer inception_5a/relu_pool_proj
I0403 14:49:22.197396 11291 net.cpp:425] inception_5a/relu_pool_proj <- inception_5a/pool_proj
I0403 14:49:22.197430 11291 net.cpp:386] inception_5a/relu_pool_proj -> inception_5a/pool_proj (in-place)
I0403 14:49:22.197798 11291 net.cpp:141] Setting up inception_5a/relu_pool_proj
I0403 14:49:22.197834 11291 net.cpp:148] Top shape: 24 128 7 7 (150528)
I0403 14:49:22.197854 11291 net.cpp:156] Memory required for data: 1305673248
I0403 14:49:22.197872 11291 layer_factory.hpp:77] Creating layer inception_5a/output
I0403 14:49:22.197893 11291 net.cpp:91] Creating Layer inception_5a/output
I0403 14:49:22.197913 11291 net.cpp:425] inception_5a/output <- inception_5a/1x1
I0403 14:49:22.197933 11291 net.cpp:425] inception_5a/output <- inception_5a/3x3
I0403 14:49:22.197952 11291 net.cpp:425] inception_5a/output <- inception_5a/5x5
I0403 14:49:22.197973 11291 net.cpp:425] inception_5a/output <- inception_5a/pool_proj
I0403 14:49:22.197993 11291 net.cpp:399] inception_5a/output -> inception_5a/output
I0403 14:49:22.198055 11291 net.cpp:141] Setting up inception_5a/output
I0403 14:49:22.198086 11291 net.cpp:148] Top shape: 24 832 7 7 (978432)
I0403 14:49:22.198103 11291 net.cpp:156] Memory required for data: 1309586976
I0403 14:49:22.198122 11291 layer_factory.hpp:77] Creating layer inception_5a/output_inception_5a/output_0_split
I0403 14:49:22.198145 11291 net.cpp:91] Creating Layer inception_5a/output_inception_5a/output_0_split
I0403 14:49:22.198165 11291 net.cpp:425] inception_5a/output_inception_5a/output_0_split <- inception_5a/output
I0403 14:49:22.198187 11291 net.cpp:399] inception_5a/output_inception_5a/output_0_split -> inception_5a/output_inception_5a/output_0_split_0
I0403 14:49:22.198211 11291 net.cpp:399] inception_5a/output_inception_5a/output_0_split -> inception_5a/output_inception_5a/output_0_split_1
I0403 14:49:22.198236 11291 net.cpp:399] inception_5a/output_inception_5a/output_0_split -> inception_5a/output_inception_5a/output_0_split_2
I0403 14:49:22.198264 11291 net.cpp:399] inception_5a/output_inception_5a/output_0_split -> inception_5a/output_inception_5a/output_0_split_3
I0403 14:49:22.198410 11291 net.cpp:141] Setting up inception_5a/output_inception_5a/output_0_split
I0403 14:49:22.198441 11291 net.cpp:148] Top shape: 24 832 7 7 (978432)
I0403 14:49:22.198459 11291 net.cpp:148] Top shape: 24 832 7 7 (978432)
I0403 14:49:22.198478 11291 net.cpp:148] Top shape: 24 832 7 7 (978432)
I0403 14:49:22.198498 11291 net.cpp:148] Top shape: 24 832 7 7 (978432)
I0403 14:49:22.198515 11291 net.cpp:156] Memory required for data: 1325241888
I0403 14:49:22.198534 11291 layer_factory.hpp:77] Creating layer inception_5b/1x1
I0403 14:49:22.198561 11291 net.cpp:91] Creating Layer inception_5b/1x1
I0403 14:49:22.198585 11291 net.cpp:425] inception_5b/1x1 <- inception_5a/output_inception_5a/output_0_split_0
I0403 14:49:22.198609 11291 net.cpp:399] inception_5b/1x1 -> inception_5b/1x1
I0403 14:49:22.203228 11291 net.cpp:141] Setting up inception_5b/1x1
I0403 14:49:22.203268 11291 net.cpp:148] Top shape: 24 384 7 7 (451584)
I0403 14:49:22.203290 11291 net.cpp:156] Memory required for data: 1327048224
I0403 14:49:22.203313 11291 layer_factory.hpp:77] Creating layer inception_5b/relu_1x1
I0403 14:49:22.203341 11291 net.cpp:91] Creating Layer inception_5b/relu_1x1
I0403 14:49:22.203361 11291 net.cpp:425] inception_5b/relu_1x1 <- inception_5b/1x1
I0403 14:49:22.203394 11291 net.cpp:386] inception_5b/relu_1x1 -> inception_5b/1x1 (in-place)
I0403 14:49:22.203855 11291 net.cpp:141] Setting up inception_5b/relu_1x1
I0403 14:49:22.203893 11291 net.cpp:148] Top shape: 24 384 7 7 (451584)
I0403 14:49:22.203922 11291 net.cpp:156] Memory required for data: 1328854560
I0403 14:49:22.203953 11291 layer_factory.hpp:77] Creating layer inception_5b/3x3_reduce
I0403 14:49:22.203991 11291 net.cpp:91] Creating Layer inception_5b/3x3_reduce
I0403 14:49:22.204013 11291 net.cpp:425] inception_5b/3x3_reduce <- inception_5a/output_inception_5a/output_0_split_1
I0403 14:49:22.204037 11291 net.cpp:399] inception_5b/3x3_reduce -> inception_5b/3x3_reduce
I0403 14:49:22.207298 11291 net.cpp:141] Setting up inception_5b/3x3_reduce
I0403 14:49:22.207340 11291 net.cpp:148] Top shape: 24 192 7 7 (225792)
I0403 14:49:22.207360 11291 net.cpp:156] Memory required for data: 1329757728
I0403 14:49:22.207387 11291 layer_factory.hpp:77] Creating layer inception_5b/relu_3x3_reduce
I0403 14:49:22.207412 11291 net.cpp:91] Creating Layer inception_5b/relu_3x3_reduce
I0403 14:49:22.207432 11291 net.cpp:425] inception_5b/relu_3x3_reduce <- inception_5b/3x3_reduce
I0403 14:49:22.207453 11291 net.cpp:386] inception_5b/relu_3x3_reduce -> inception_5b/3x3_reduce (in-place)
I0403 14:49:22.207692 11291 net.cpp:141] Setting up inception_5b/relu_3x3_reduce
I0403 14:49:22.207723 11291 net.cpp:148] Top shape: 24 192 7 7 (225792)
I0403 14:49:22.207742 11291 net.cpp:156] Memory required for data: 1330660896
I0403 14:49:22.207761 11291 layer_factory.hpp:77] Creating layer inception_5b/3x3
I0403 14:49:22.207788 11291 net.cpp:91] Creating Layer inception_5b/3x3
I0403 14:49:22.207810 11291 net.cpp:425] inception_5b/3x3 <- inception_5b/3x3_reduce
I0403 14:49:22.207836 11291 net.cpp:399] inception_5b/3x3 -> inception_5b/3x3
I0403 14:49:22.216119 11291 net.cpp:141] Setting up inception_5b/3x3
I0403 14:49:22.216156 11291 net.cpp:148] Top shape: 24 384 7 7 (451584)
I0403 14:49:22.216177 11291 net.cpp:156] Memory required for data: 1332467232
I0403 14:49:22.216200 11291 layer_factory.hpp:77] Creating layer inception_5b/relu_3x3
I0403 14:49:22.216223 11291 net.cpp:91] Creating Layer inception_5b/relu_3x3
I0403 14:49:22.216243 11291 net.cpp:425] inception_5b/relu_3x3 <- inception_5b/3x3
I0403 14:49:22.216269 11291 net.cpp:386] inception_5b/relu_3x3 -> inception_5b/3x3 (in-place)
I0403 14:49:22.216644 11291 net.cpp:141] Setting up inception_5b/relu_3x3
I0403 14:49:22.216678 11291 net.cpp:148] Top shape: 24 384 7 7 (451584)
I0403 14:49:22.216697 11291 net.cpp:156] Memory required for data: 1334273568
I0403 14:49:22.216717 11291 layer_factory.hpp:77] Creating layer inception_5b/5x5_reduce
I0403 14:49:22.216764 11291 net.cpp:91] Creating Layer inception_5b/5x5_reduce
I0403 14:49:22.216787 11291 net.cpp:425] inception_5b/5x5_reduce <- inception_5a/output_inception_5a/output_0_split_2
I0403 14:49:22.216811 11291 net.cpp:399] inception_5b/5x5_reduce -> inception_5b/5x5_reduce
I0403 14:49:22.218375 11291 net.cpp:141] Setting up inception_5b/5x5_reduce
I0403 14:49:22.218416 11291 net.cpp:148] Top shape: 24 48 7 7 (56448)
I0403 14:49:22.218436 11291 net.cpp:156] Memory required for data: 1334499360
I0403 14:49:22.218459 11291 layer_factory.hpp:77] Creating layer inception_5b/relu_5x5_reduce
I0403 14:49:22.218482 11291 net.cpp:91] Creating Layer inception_5b/relu_5x5_reduce
I0403 14:49:22.218502 11291 net.cpp:425] inception_5b/relu_5x5_reduce <- inception_5b/5x5_reduce
I0403 14:49:22.218525 11291 net.cpp:386] inception_5b/relu_5x5_reduce -> inception_5b/5x5_reduce (in-place)
I0403 14:49:22.218978 11291 net.cpp:141] Setting up inception_5b/relu_5x5_reduce
I0403 14:49:22.219010 11291 net.cpp:148] Top shape: 24 48 7 7 (56448)
I0403 14:49:22.219028 11291 net.cpp:156] Memory required for data: 1334725152
I0403 14:49:22.219046 11291 layer_factory.hpp:77] Creating layer inception_5b/5x5
I0403 14:49:22.219071 11291 net.cpp:91] Creating Layer inception_5b/5x5
I0403 14:49:22.219090 11291 net.cpp:425] inception_5b/5x5 <- inception_5b/5x5_reduce
I0403 14:49:22.219113 11291 net.cpp:399] inception_5b/5x5 -> inception_5b/5x5
I0403 14:49:22.221735 11291 net.cpp:141] Setting up inception_5b/5x5
I0403 14:49:22.221770 11291 net.cpp:148] Top shape: 24 128 7 7 (150528)
I0403 14:49:22.221788 11291 net.cpp:156] Memory required for data: 1335327264
I0403 14:49:22.221812 11291 layer_factory.hpp:77] Creating layer inception_5b/relu_5x5
I0403 14:49:22.221834 11291 net.cpp:91] Creating Layer inception_5b/relu_5x5
I0403 14:49:22.221854 11291 net.cpp:425] inception_5b/relu_5x5 <- inception_5b/5x5
I0403 14:49:22.221879 11291 net.cpp:386] inception_5b/relu_5x5 -> inception_5b/5x5 (in-place)
I0403 14:49:22.222118 11291 net.cpp:141] Setting up inception_5b/relu_5x5
I0403 14:49:22.222149 11291 net.cpp:148] Top shape: 24 128 7 7 (150528)
I0403 14:49:22.222168 11291 net.cpp:156] Memory required for data: 1335929376
I0403 14:49:22.222187 11291 layer_factory.hpp:77] Creating layer inception_5b/pool
I0403 14:49:22.222210 11291 net.cpp:91] Creating Layer inception_5b/pool
I0403 14:49:22.222231 11291 net.cpp:425] inception_5b/pool <- inception_5a/output_inception_5a/output_0_split_3
I0403 14:49:22.222254 11291 net.cpp:399] inception_5b/pool -> inception_5b/pool
I0403 14:49:22.222345 11291 net.cpp:141] Setting up inception_5b/pool
I0403 14:49:22.222375 11291 net.cpp:148] Top shape: 24 832 7 7 (978432)
I0403 14:49:22.222399 11291 net.cpp:156] Memory required for data: 1339843104
I0403 14:49:22.222417 11291 layer_factory.hpp:77] Creating layer inception_5b/pool_proj
I0403 14:49:22.222445 11291 net.cpp:91] Creating Layer inception_5b/pool_proj
I0403 14:49:22.222466 11291 net.cpp:425] inception_5b/pool_proj <- inception_5b/pool
I0403 14:49:22.222491 11291 net.cpp:399] inception_5b/pool_proj -> inception_5b/pool_proj
I0403 14:49:22.225303 11291 net.cpp:141] Setting up inception_5b/pool_proj
I0403 14:49:22.225343 11291 net.cpp:148] Top shape: 24 128 7 7 (150528)
I0403 14:49:22.225363 11291 net.cpp:156] Memory required for data: 1340445216
I0403 14:49:22.225391 11291 layer_factory.hpp:77] Creating layer inception_5b/relu_pool_proj
I0403 14:49:22.225416 11291 net.cpp:91] Creating Layer inception_5b/relu_pool_proj
I0403 14:49:22.225437 11291 net.cpp:425] inception_5b/relu_pool_proj <- inception_5b/pool_proj
I0403 14:49:22.225461 11291 net.cpp:386] inception_5b/relu_pool_proj -> inception_5b/pool_proj (in-place)
I0403 14:49:22.225823 11291 net.cpp:141] Setting up inception_5b/relu_pool_proj
I0403 14:49:22.225858 11291 net.cpp:148] Top shape: 24 128 7 7 (150528)
I0403 14:49:22.225878 11291 net.cpp:156] Memory required for data: 1341047328
I0403 14:49:22.225898 11291 layer_factory.hpp:77] Creating layer inception_5b/output
I0403 14:49:22.225919 11291 net.cpp:91] Creating Layer inception_5b/output
I0403 14:49:22.225957 11291 net.cpp:425] inception_5b/output <- inception_5b/1x1
I0403 14:49:22.225980 11291 net.cpp:425] inception_5b/output <- inception_5b/3x3
I0403 14:49:22.225999 11291 net.cpp:425] inception_5b/output <- inception_5b/5x5
I0403 14:49:22.226019 11291 net.cpp:425] inception_5b/output <- inception_5b/pool_proj
I0403 14:49:22.226044 11291 net.cpp:399] inception_5b/output -> inception_5b/output
I0403 14:49:22.226109 11291 net.cpp:141] Setting up inception_5b/output
I0403 14:49:22.226140 11291 net.cpp:148] Top shape: 24 1024 7 7 (1204224)
I0403 14:49:22.226157 11291 net.cpp:156] Memory required for data: 1345864224
I0403 14:49:22.226176 11291 layer_factory.hpp:77] Creating layer pool5/7x7_s1
I0403 14:49:22.226200 11291 net.cpp:91] Creating Layer pool5/7x7_s1
I0403 14:49:22.226222 11291 net.cpp:425] pool5/7x7_s1 <- inception_5b/output
I0403 14:49:22.226244 11291 net.cpp:399] pool5/7x7_s1 -> pool5/7x7_s1
I0403 14:49:22.226517 11291 net.cpp:141] Setting up pool5/7x7_s1
I0403 14:49:22.226549 11291 net.cpp:148] Top shape: 24 1024 1 1 (24576)
I0403 14:49:22.226567 11291 net.cpp:156] Memory required for data: 1345962528
I0403 14:49:22.226586 11291 layer_factory.hpp:77] Creating layer pool5/drop_7x7_s1
I0403 14:49:22.226608 11291 net.cpp:91] Creating Layer pool5/drop_7x7_s1
I0403 14:49:22.226627 11291 net.cpp:425] pool5/drop_7x7_s1 <- pool5/7x7_s1
I0403 14:49:22.226651 11291 net.cpp:386] pool5/drop_7x7_s1 -> pool5/7x7_s1 (in-place)
I0403 14:49:22.226713 11291 net.cpp:141] Setting up pool5/drop_7x7_s1
I0403 14:49:22.226742 11291 net.cpp:148] Top shape: 24 1024 1 1 (24576)
I0403 14:49:22.226759 11291 net.cpp:156] Memory required for data: 1346060832
I0403 14:49:22.226778 11291 layer_factory.hpp:77] Creating layer loss3/classifier_plantvillage
I0403 14:49:22.226804 11291 net.cpp:91] Creating Layer loss3/classifier_plantvillage
I0403 14:49:22.226824 11291 net.cpp:425] loss3/classifier_plantvillage <- pool5/7x7_s1
I0403 14:49:22.226850 11291 net.cpp:399] loss3/classifier_plantvillage -> loss3/classifier_plantvillage
I0403 14:49:22.227376 11291 net.cpp:141] Setting up loss3/classifier_plantvillage
I0403 14:49:22.227414 11291 net.cpp:148] Top shape: 24 38 (912)
I0403 14:49:22.227433 11291 net.cpp:156] Memory required for data: 1346064480
I0403 14:49:22.227455 11291 layer_factory.hpp:77] Creating layer loss3/classifier_plantvillage_loss3/classifier_plantvillage_0_split
I0403 14:49:22.227478 11291 net.cpp:91] Creating Layer loss3/classifier_plantvillage_loss3/classifier_plantvillage_0_split
I0403 14:49:22.227497 11291 net.cpp:425] loss3/classifier_plantvillage_loss3/classifier_plantvillage_0_split <- loss3/classifier_plantvillage
I0403 14:49:22.227519 11291 net.cpp:399] loss3/classifier_plantvillage_loss3/classifier_plantvillage_0_split -> loss3/classifier_plantvillage_loss3/classifier_plantvillage_0_split_0
I0403 14:49:22.227542 11291 net.cpp:399] loss3/classifier_plantvillage_loss3/classifier_plantvillage_0_split -> loss3/classifier_plantvillage_loss3/classifier_plantvillage_0_split_1
I0403 14:49:22.227569 11291 net.cpp:399] loss3/classifier_plantvillage_loss3/classifier_plantvillage_0_split -> loss3/classifier_plantvillage_loss3/classifier_plantvillage_0_split_2
I0403 14:49:22.227601 11291 net.cpp:399] loss3/classifier_plantvillage_loss3/classifier_plantvillage_0_split -> loss3/classifier_plantvillage_loss3/classifier_plantvillage_0_split_3
I0403 14:49:22.227732 11291 net.cpp:141] Setting up loss3/classifier_plantvillage_loss3/classifier_plantvillage_0_split
I0403 14:49:22.227761 11291 net.cpp:148] Top shape: 24 38 (912)
I0403 14:49:22.227782 11291 net.cpp:148] Top shape: 24 38 (912)
I0403 14:49:22.227800 11291 net.cpp:148] Top shape: 24 38 (912)
I0403 14:49:22.227819 11291 net.cpp:148] Top shape: 24 38 (912)
I0403 14:49:22.227838 11291 net.cpp:156] Memory required for data: 1346079072
I0403 14:49:22.227855 11291 layer_factory.hpp:77] Creating layer loss1/loss
I0403 14:49:22.227911 11291 net.cpp:91] Creating Layer loss1/loss
I0403 14:49:22.227934 11291 net.cpp:425] loss1/loss <- loss1/classifier_plantvillage_loss1/classifier_plantvillage_0_split_0
I0403 14:49:22.227980 11291 net.cpp:425] loss1/loss <- label_data_1_split_0
…
