…
I0403 15:04:55.197460 11582 net.cpp:313] The NetState phase (1) differed from the phase (0) specified by a rule in layer data
I0403 15:04:55.198675 11582 net.cpp:49] Initializing net from parameters: 
state {
  phase: TEST
}
layer {
  name: "data"
  type: "Data"
  top: "data"
  top: "label"
  include {
    phase: TEST
  }
  transform_param {
    mirror: false
    crop_size: 224
    mean_file: "/home/mohanty/data/final_dataset/lmdb/segmented-50-50/mean.binaryproto"
  }
  data_param {
    source: "/home/mohanty/data/final_dataset/lmdb/segmented-50-50/test_db"
    batch_size: 24
    backend: LMDB
  }
}
layer {
  name: "conv1/7x7_s2"
  type: "Convolution"
  bottom: "data"
  top: "conv1/7x7_s2"
  param {
    lr_mult: 1
    decay_mult: 1
  }
  param {
    lr_mult: 2
    decay_mult: 0
  }
  convolution_param {
    num_output: 64
    pad: 3
    kernel_size: 7
    stride: 2
    weight_filler {
      type: "xavier"
      std: 0.1
    }
    bias_filler {
      type: "constant"
      value: 0.2
    }
  }
}
layer {
  name: "conv1/relu_7x7"
  type: "ReLU"
  bottom: "conv1/7x7_s2"
  top: "conv1/7x7_s2"
}
layer {
  name: "pool1/3x3_s2"
  type: "Pooling"
  bottom: "conv1/7x7_s2"
  top: "pool1/3x3_s2"
  pooling_param {
    pool: MAX
    kernel_size: 3
    stride: 2
  }
}
layer {
  name: "pool1/norm1"
  type: "LRN"
  bottom: "pool1/3x3_s2"
  top: "pool1/norm1"
  lrn_param {
    local_size: 5
    alpha: 0.0001
    beta: 0.75
  }
}
layer {
  name: "conv2/3x3_reduce"
  type: "Convolution"
  bottom: "pool1/norm1"
  top: "conv2/3x3_reduce"
  param {
    lr_mult: 1
    decay_mult: 1
  }
  param {
    lr_mult: 2
    decay_mult: 0
  }
  convolution_param {
    num_output: 64
    kernel_size: 1
    weight_filler {
      type: "xavier"
      std: 0.1
    }
    bias_filler {
      type: "constant"
      value: 0.2
    }
  }
}
layer {
  name: "conv2/relu_3x3_reduce"
  type: "ReLU"
  bottom: "conv2/3x3_reduce"
  top: "conv2/3x3_reduce"
}
layer {
  name: "conv2/3x3"
  type: "Convolution"
  bottom: "conv2/3x3_reduce"
  top: "conv2/3x3"
  param {
    lr_mult: 1
    decay_mult: 1
  }
  param {
    lr_mult: 2
    decay_mult: 0
  }
  convolution_param {
    num_output: 192
    pad: 1
    kernel_size: 3
    weight_filler {
      type: "xavier"
      std: 0.03
    }
    bias_filler {
      type: "constant"
      value: 0.2
    }
  }
}
layer {
  name: "conv2/relu_3x3"
  type: "ReLU"
  bottom: "conv2/3x3"
  top: "conv2/3x3"
}
layer {
  name: "conv2/norm2"
  type: "LRN"
  bottom: "conv2/3x3"
  top: "conv2/norm2"
  lrn_param {
    local_size: 5
    alpha: 0.0001
    beta: 0.75
  }
}
layer {
  name: "pool2/3x3_s2"
  type: "Pooling"
  bottom: "conv2/norm2"
  top: "pool2/3x3_s2"
  pooling_param {
    pool: MAX
    kernel_size: 3
    stride: 2
  }
}
layer {
  name: "inception_3a/1x1"
  type: "Convolution"
  bottom: "pool2/3x3_s2"
  top: "inception_3a/1x1"
  param {
    lr_mult: 1
    decay_mult: 1
  }
  param {
    lr_mult: 2
    decay_mult: 0
  }
  convolution_param {
    num_output: 64
    kernel_size: 1
    weight_filler {
      type: "xavier"
      std: 0.03
    }
    bias_filler {
      type: "constant"
      value: 0.2
    }
  }
}
layer {
  name: "inception_3a/relu_1x1"
  type: "ReLU"
  bottom: "inception_3a/1x1"
  top: "inception_3a/1x1"
}
layer {
  name: "inception_3a/3x3_reduce"
  type: "Convolution"
  bottom: "pool2/3x3_s2"
  top: "inception_3a/3x3_reduce"
  param {
    lr_mult: 1
    decay_mult: 1
  }
  param {
    lr_mult: 2
    decay_mult: 0
  }
  convolution_param {
    num_output: 96
    kernel_size: 1
    weight_filler {
      type: "xavier"
      std: 0.09
    }
    bias_filler {
      type: "constant"
      value: 0.2
    }
  }
}
layer {
  name: "inception_3a/relu_3x3_reduce"
  type: "ReLU"
  bottom: "inception_3a/3x3_reduce"
  top: "inception_3a/3x3_reduce"
}
layer {
  name: "inception_3a/3x3"
  type: "Convolution"
  bottom: "inception_3a/3x3_reduce"
  top: "inception_3a/3x3"
  param {
    lr_mult: 1
    decay_mult: 1
  }
  param {
    lr_mult: 2
    decay_mult: 0
  }
  convolution_param {
    num_output: 128
    pad: 1
    kernel_size: 3
    weight_filler {
      type: "xavier"
      std: 0.03
    }
    bias_filler {
      type: "constant"
      value: 0.2
    }
  }
}
layer {
  name: "inception_3a/relu_3x3"
  type: "ReLU"
  bottom: "inception_3a/3x3"
  top: "inception_3a/3x3"
}
layer {
  name: "inception_3a/5x5_reduce"
  type: "Convolution"
  bottom: "pool2/3x3_s2"
  top: "inception_3a/5x5_reduce"
  param {
    lr_mult: 1
    decay_mult: 1
  }
  param {
    lr_mult: 2
    decay_mult: 0
  }
  convolution_param {
    num_output: 16
    kernel_size: 1
    weight_filler {
      type: "xavier"
      std: 0.2
    }
    bias_filler {
      type: "constant"
      value: 0.2
    }
  }
}
layer {
  name: "inception_3a/relu_5x5_reduce"
  type: "ReLU"
  bottom: "inception_3a/5x5_reduce"
  top: "inception_3a/5x5_reduce"
}
layer {
  name: "inception_3a/5x5"
  type: "Convolution"
  bottom: "inception_3a/5x5_reduce"
  top: "inception_3a/5x5"
  param {
    lr_mult: 1
    decay_mult: 1
  }
  param {
    lr_mult: 2
    decay_mult: 0
  }
  convolution_param {
    num_output: 32
    pad: 2
    kernel_size: 5
    weight_filler {
      type: "xavier"
      std: 0.03
    }
    bias_filler {
      type: "constant"
      value: 0.2
    }
  }
}
layer {
  name: "inception_3a/relu_5x5"
  type: "ReLU"
  bottom: "inception_3a/5x5"
  top: "inception_3a/5x5"
}
layer {
  name: "inception_3a/pool"
  type: "Pooling"
  bottom: "pool2/3x3_s2"
  top: "inception_3a/pool"
  pooling_param {
    pool: MAX
    kernel_size: 3
    stride: 1
    pad: 1
  }
}
layer {
  name: "inception_3a/pool_proj"
  type: "Convolution"
  bottom: "inception_3a/pool"
  top: "inception_3a/pool_proj"
  param {
    lr_mult: 1
    decay_mult: 1
  }
  param {
    lr_mult: 2
    decay_mult: 0
  }
  convolution_param {
    num_output: 32
    kernel_size: 1
    weight_filler {
      type: "xavier"
      std: 0.1
    }
    bias_filler {
      type: "constant"
      value: 0.2
    }
  }
}
layer {
  name: "inception_3a/relu_pool_proj"
  type: "ReLU"
  bottom: "inception_3a/pool_proj"
  top: "inception_3a/pool_proj"
}
layer {
  name: "inception_3a/output"
  type: "Concat"
  bottom: "inception_3a/1x1"
  bottom: "inception_3a/3x3"
  bottom: "inception_3a/5x5"
  bottom: "inception_3a/pool_proj"
  top: "inception_3a/output"
}
layer {
  name: "inception_3b/1x1"
  type: "Convolution"
  bottom: "inception_3a/output"
  top: "inception_3b/1x1"
  param {
    lr_mult: 1
    decay_mult: 1
  }
  param {
    lr_mult: 2
    decay_mult: 0
  }
  convolution_param {
    num_output: 128
    kernel_size: 1
    weight_filler {
      type: "xavier"
      std: 0.03
    }
    bias_filler {
      type: "constant"
      value: 0.2
    }
  }
}
layer {
  name: "inception_3b/relu_1x1"
  type: "ReLU"
  bottom: "inception_3b/1x1"
  top: "inception_3b/1x1"
}
layer {
  name: "inception_3b/3x3_reduce"
  type: "Convolution"
  bottom: "inception_3a/output"
  top: "inception_3b/3x3_reduce"
  param {
    lr_mult: 1
    decay_mult: 1
  }
  param {
    lr_mult: 2
    decay_mult: 0
  }
  convolution_param {
    num_output: 128
    kernel_size: 1
    weight_filler {
      type: "xavier"
      std: 0.09
    }
    bias_filler {
      type: "constant"
      value: 0.2
    }
  }
}
layer {
  name: "inception_3b/relu_3x3_reduce"
  type: "ReLU"
  bottom: "inception_3b/3x3_reduce"
  top: "inception_3b/3x3_reduce"
}
layer {
  name: "inception_3b/3x3"
  type: "Convolution"
  bottom: "inception_3b/3x3_reduce"
  top: "inception_3b/3x3"
  param {
    lr_mult: 1
    decay_mult: 1
  }
  param {
    lr_mult: 2
    decay_mult: 0
  }
  convolution_param {
    num_output: 192
    pad: 1
    kernel_size: 3
    weight_filler {
      type: "xavier"
      std: 0.03
    }
    bias_filler {
      type: "constant"
      value: 0.2
    }
  }
}
layer {
  name: "inception_3b/relu_3x3"
  type: "ReLU"
  bottom: "inception_3b/3x3"
  top: "inception_3b/3x3"
}
layer {
  name: "inception_3b/5x5_reduce"
  type: "Convolution"
  bottom: "inception_3a/output"
  top: "inception_3b/5x5_reduce"
  param {
    lr_mult: 1
    decay_mult: 1
  }
  param {
    lr_mult: 2
    decay_mult: 0
  }
  convolution_param {
    num_output: 32
    kernel_size: 1
    weight_filler {
      type: "xavier"
      std: 0.2
    }
    bias_filler {
      type: "constant"
      value: 0.2
    }
  }
}
layer {
  name: "inception_3b/relu_5x5_reduce"
  type: "ReLU"
  bottom: "inception_3b/5x5_reduce"
  top: "inception_3b/5x5_reduce"
}
layer {
  name: "inception_3b/5x5"
  type: "Convolution"
  bottom: "inception_3b/5x5_reduce"
  top: "inception_3b/5x5"
  param {
    lr_mult: 1
    decay_mult: 1
  }
  param {
    lr_mult: 2
    decay_mult: 0
  }
  convolution_param {
    num_output: 96
    pad: 2
    kernel_size: 5
    weight_filler {
      type: "xavier"
      std: 0.03
    }
    bias_filler {
      type: "constant"
      value: 0.2
    }
  }
}
layer {
  name: "inception_3b/relu_5x5"
  type: "ReLU"
  bottom: "inception_3b/5x5"
  top: "inception_3b/5x5"
}
layer {
  name: "inception_3b/pool"
  type: "Pooling"
  bottom: "inception_3a/output"
  top: "inception_3b/pool"
  pooling_param {
    pool: MAX
    kernel_size: 3
    stride: 1
    pad: 1
  }
}
layer {
  name: "inception_3b/pool_proj"
  type: "Convolution"
  bottom: "inception_3b/pool"
  top: "inception_3b/pool_proj"
  param {
    lr_mult: 1
    decay_mult: 1
  }
  param {
    lr_mult: 2
    decay_mult: 0
  }
  convolution_param {
    num_output: 64
    kernel_size: 1
    weight_filler {
      type: "xavier"
      std: 0.1
    }
    bias_filler {
      type: "constant"
      value: 0.2
    }
  }
}
layer {
  name: "inception_3b/relu_pool_proj"
  type: "ReLU"
  bottom: "inception_3b/pool_proj"
  top: "inception_3b/pool_proj"
}
layer {
  name: "inception_3b/output"
  type: "Concat"
  bottom: "inception_3b/1x1"
  bottom: "inception_3b/3x3"
  bottom: "inception_3b/5x5"
  bottom: "inception_3b/pool_proj"
  top: "inception_3b/output"
}
layer {
  name: "pool3/3x3_s2"
  type: "Pooling"
  bottom: "inception_3b/output"
  top: "pool3/3x3_s2"
  pooling_param {
    pool: MAX
    kernel_size: 3
    stride: 2
  }
}
layer {
  name: "inception_4a/1x1"
  type: "Convolution"
  bottom: "pool3/3x3_s2"
  top: "inception_4a/1x1"
  param {
    lr_mult: 1
    decay_mult: 1
  }
  param {
    lr_mult: 2
    decay_mult: 0
  }
  convolution_param {
    num_output: 192
    kernel_size: 1
    weight_filler {
      type: "xavier"
      std: 0.03
    }
    bias_filler {
      type: "constant"
      value: 0.2
    }
  }
}
layer {
  name: "inception_4a/relu_1x1"
  type: "ReLU"
  bottom: "inception_4a/1x1"
  top: "inception_4a/1x1"
}
layer {
  name: "inception_4a/3x3_reduce"
  type: "Convolution"
  bottom: "pool3/3x3_s2"
  top: "inception_4a/3x3_reduce"
  param {
    lr_mult: 1
    decay_mult: 1
  }
  param {
    lr_mult: 2
    decay_mult: 0
  }
  convolution_param {
    num_output: 96
    kernel_size: 1
    weight_filler {
      type: "xavier"
      std: 0.09
    }
    bias_filler {
      type: "constant"
      value: 0.2
    }
  }
}
layer {
  name: "inception_4a/relu_3x3_reduce"
  type: "ReLU"
  bottom: "inception_4a/3x3_reduce"
  top: "inception_4a/3x3_reduce"
}
layer {
  name: "inception_4a/3x3"
  type: "Convolution"
  bottom: "inception_4a/3x3_reduce"
  top: "inception_4a/3x3"
  param {
    lr_mult: 1
    decay_mult: 1
  }
  param {
    lr_mult: 2
    decay_mult: 0
  }
  convolution_param {
    num_output: 208
    pad: 1
    kernel_size: 3
    weight_filler {
      type: "xavier"
      std: 0.03
    }
    bias_filler {
      type: "constant"
      value: 0.2
    }
  }
}
layer {
  name: "inception_4a/relu_3x3"
  type: "ReLU"
  bottom: "inception_4a/3x3"
  top: "inception_4a/3x3"
}
layer {
  name: "inception_4a/5x5_reduce"
  type: "Convolution"
  bottom: "pool3/3x3_s2"
  top: "inception_4a/5x5_reduce"
  param {
    lr_mult: 1
    decay_mult: 1
  }
  param {
    lr_mult: 2
    decay_mult: 0
  }
  convolution_param {
    num_output: 16
    kernel_size: 1
    weight_filler {
      type: "xavier"
      std: 0.2
    }
    bias_filler {
      type: "constant"
      value: 0.2
    }
  }
}
layer {
  name: "inception_4a/relu_5x5_reduce"
  type: "ReLU"
  bottom: "inception_4a/5x5_reduce"
  top: "inception_4a/5x5_reduce"
}
layer {
  name: "inception_4a/5x5"
  type: "Convolution"
  bottom: "inception_4a/5x5_reduce"
  top: "inception_4a/5x5"
  param {
    lr_mult: 1
    decay_mult: 1
  }
  param {
    lr_mult: 2
    decay_mult: 0
  }
  convolution_param {
    num_output: 48
    pad: 2
    kernel_size: 5
    weight_filler {
      type: "xavier"
      std: 0.03
    }
    bias_filler {
      type: "constant"
      value: 0.2
    }
  }
}
layer {
  name: "inception_4a/relu_5x5"
  type: "ReLU"
  bottom: "inception_4a/5x5"
  top: "inception_4a/5x5"
}
layer {
  name: "inception_4a/pool"
  type: "Pooling"
  bottom: "pool3/3x3_s2"
  top: "inception_4a/pool"
  pooling_param {
    pool: MAX
    kernel_size: 3
    stride: 1
    pad: 1
  }
}
layer {
  name: "inception_4a/pool_proj"
  type: "Convolution"
  bottom: "inception_4a/pool"
  top: "inception_4a/pool_proj"
  param {
    lr_mult: 1
    decay_mult: 1
  }
  param {
    lr_mult: 2
    decay_mult: 0
  }
  convolution_param {
    num_output: 64
    kernel_size: 1
    weight_filler {
      type: "xavier"
      std: 0.1
    }
    bias_filler {
      type: "constant"
      value: 0.2
    }
  }
}
layer {
  name: "inception_4a/relu_pool_proj"
  type: "ReLU"
  bottom: "inception_4a/pool_proj"
  top: "inception_4a/pool_proj"
}
layer {
  name: "inception_4a/output"
  type: "Concat"
  bottom: "inception_4a/1x1"
  bottom: "inception_4a/3x3"
  bottom: "inception_4a/5x5"
  bottom: "inception_4a/pool_proj"
  top: "inception_4a/output"
}
layer {
  name: "loss1/ave_pool"
  type: "Pooling"
  bottom: "inception_4a/output"
  top: "loss1/ave_pool"
  pooling_param {
    pool: AVE
    kernel_size: 5
    stride: 3
  }
}
layer {
  name: "loss1/conv"
  type: "Convolution"
  bottom: "loss1/ave_pool"
  top: "loss1/conv"
  param {
    lr_mult: 1
    decay_mult: 1
  }
  param {
    lr_mult: 2
    decay_mult: 0
  }
  convolution_param {
    num_output: 128
    kernel_size: 1
    weight_filler {
      type: "xavier"
      std: 0.08
    }
    bias_filler {
      type: "constant"
      value: 0.2
    }
  }
}
layer {
  name: "loss1/relu_conv"
  type: "ReLU"
  bottom: "loss1/conv"
  top: "loss1/conv"
}
layer {
  name: "loss1/fc"
  type: "InnerProduct"
  bottom: "loss1/conv"
  top: "loss1/fc"
  param {
    lr_mult: 1
    decay_mult: 1
  }
  param {
    lr_mult: 2
    decay_mult: 0
  }
  inner_product_param {
    num_output: 1024
    weight_filler {
      type: "xavier"
      std: 0.02
    }
    bias_filler {
      type: "constant"
      value: 0.2
    }
  }
}
layer {
  name: "loss1/relu_fc"
  type: "ReLU"
  bottom: "loss1/fc"
  top: "loss1/fc"
}
layer {
  name: "loss1/drop_fc"
  type: "Dropout"
  bottom: "loss1/fc"
  top: "loss1/fc"
  dropout_param {
    dropout_ratio: 0.7
  }
}
layer {
  name: "loss1/classifier_plantvillage"
  type: "InnerProduct"
  bottom: "loss1/fc"
  top: "loss1/classifier_plantvillage"
  param {
    lr_mult: 1
    decay_mult: 1
  }
  param {
    lr_mult: 2
    decay_mult: 0
  }
  inner_product_param {
    num_output: 38
    weight_filler {
      type: "xavier"
      std: 0.0009765625
    }
    bias_filler {
      type: "constant"
      value: 0
    }
  }
}
layer {
  name: "inception_4b/1x1"
  type: "Convolution"
  bottom: "inception_4a/output"
  top: "inception_4b/1x1"
  param {
    lr_mult: 1
    decay_mult: 1
  }
  param {
    lr_mult: 2
    decay_mult: 0
  }
  convolution_param {
    num_output: 160
    kernel_size: 1
    weight_filler {
      type: "xavier"
      std: 0.03
    }
    bias_filler {
      type: "constant"
      value: 0.2
    }
  }
}
layer {
  name: "inception_4b/relu_1x1"
  type: "ReLU"
  bottom: "inception_4b/1x1"
  top: "inception_4b/1x1"
}
layer {
  name: "inception_4b/3x3_reduce"
  type: "Convolution"
  bottom: "inception_4a/output"
  top: "inception_4b/3x3_reduce"
  param {
    lr_mult: 1
    decay_mult: 1
  }
  param {
    lr_mult: 2
    decay_mult: 0
  }
  convolution_param {
    num_output: 112
    kernel_size: 1
    weight_filler {
      type: "xavier"
      std: 0.09
    }
    bias_filler {
      type: "constant"
      value: 0.2
    }
  }
}
layer {
  name: "inception_4b/relu_3x3_reduce"
  type: "ReLU"
  bottom: "inception_4b/3x3_reduce"
  top: "inception_4b/3x3_reduce"
}
layer {
  name: "inception_4b/3x3"
  type: "Convolution"
  bottom: "inception_4b/3x3_reduce"
  top: "inception_4b/3x3"
  param {
    lr_mult: 1
    decay_mult: 1
  }
  param {
    lr_mult: 2
    decay_mult: 0
  }
  convolution_param {
    num_output: 224
    pad: 1
    kernel_size: 3
    weight_filler {
      type: "xavier"
      std: 0.03
    }
    bias_filler {
      type: "constant"
      value: 0.2
    }
  }
}
layer {
  name: "inception_4b/relu_3x3"
  type: "ReLU"
  bottom: "inception_4b/3x3"
  top: "inception_4b/3x3"
}
layer {
  name: "inception_4b/5x5_reduce"
  type: "Convolution"
  bottom: "inception_4a/output"
  top: "inception_4b/5x5_reduce"
  param {
    lr_mult: 1
    decay_mult: 1
  }
  param {
    lr_mult: 2
    decay_mult: 0
  }
  convolution_param {
    num_output: 24
    kernel_size: 1
    weight_filler {
      type: "xavier"
      std: 0.2
    }
    bias_filler {
      type: "constant"
      value: 0.2
    }
  }
}
layer {
  name: "inception_4b/relu_5x5_reduce"
  type: "ReLU"
  bottom: "inception_4b/5x5_reduce"
  top: "inception_4b/5x5_reduce"
}
layer {
  name: "inception_4b/5x5"
  type: "Convolution"
  bottom: "inception_4b/5x5_reduce"
  top: "inception_4b/5x5"
  param {
    lr_mult: 1
    decay_mult: 1
  }
  param {
    lr_mult: 2
    decay_mult: 0
  }
  convolution_param {
    num_output: 64
    pad: 2
    kernel_size: 5
    weight_filler {
      type: "xavier"
      std: 0.03
    }
    bias_filler {
      type: "constant"
      value: 0.2
    }
  }
}
layer {
  name: "inception_4b/relu_5x5"
  type: "ReLU"
  bottom: "inception_4b/5x5"
  top: "inception_4b/5x5"
}
layer {
  name: "inception_4b/pool"
  type: "Pooling"
  bottom: "inception_4a/output"
  top: "inception_4b/pool"
  pooling_param {
    pool: MAX
    kernel_size: 3
    stride: 1
    pad: 1
  }
}
layer {
  name: "inception_4b/pool_proj"
  type: "Convolution"
  bottom: "inception_4b/pool"
  top: "inception_4b/pool_proj"
  param {
    lr_mult: 1
    decay_mult: 1
  }
  param {
    lr_mult: 2
    decay_mult: 0
  }
  convolution_param {
    num_output: 64
    kernel_size: 1
    weight_filler {
      type: "xavier"
      std: 0.1
    }
    bias_filler {
      type: "constant"
      value: 0.2
    }
  }
}
layer {
  name: "inception_4b/relu_pool_proj"
  type: "ReLU"
  bottom: "inception_4b/pool_proj"
  top: "inception_4b/pool_proj"
}
layer {
  name: "inception_4b/output"
  type: "Concat"
  bottom: "inception_4b/1x1"
  bottom: "inception_4b/3x3"
  bottom: "inception_4b/5x5"
  bottom: "inception_4b/pool_proj"
  top: "inception_4b/output"
}
layer {
  name: "inception_4c/1x1"
  type: "Convolution"
  bottom: "inception_4b/output"
  top: "inception_4c/1x1"
  param {
    lr_mult: 1
    decay_mult: 1
  }
  param {
    lr_mult: 2
    decay_mult: 0
  }
  convolution_param {
    num_output: 128
    kernel_size: 1
    weight_filler {
      type: "xavier"
      std: 0.03
    }
    bias_filler {
      type: "constant"
      value: 0.2
    }
  }
}
layer {
  name: "inception_4c/relu_1x1"
  type: "ReLU"
  bottom: "inception_4c/1x1"
  top: "inception_4c/1x1"
}
layer {
  name: "inception_4c/3x3_reduce"
  type: "Convolution"
  bottom: "inception_4b/output"
  top: "inception_4c/3x3_reduce"
  param {
    lr_mult: 1
    decay_mult: 1
  }
  param {
    lr_mult: 2
    decay_mult: 0
  }
  convolution_param {
    num_output: 128
    kernel_size: 1
    weight_filler {
      type: "xavier"
      std: 0.09
    }
    bias_filler {
      type: "constant"
      value: 0.2
    }
  }
}
layer {
  name: "inception_4c/relu_3x3_reduce"
  type: "ReLU"
  bottom: "inception_4c/3x3_reduce"
  top: "inception_4c/3x3_reduce"
}
layer {
  name: "inception_4c/3x3"
  type: "Convolution"
  bottom: "inception_4c/3x3_reduce"
  top: "inception_4c/3x3"
  param {
    lr_mult: 1
    decay_mult: 1
  }
  param {
    lr_mult: 2
    decay_mult: 0
  }
  convolution_param {
    num_output: 256
    pad: 1
    kernel_size: 3
    weight_filler {
      type: "xavier"
      std: 0.03
    }
    bias_filler {
      type: "constant"
      value: 0.2
    }
  }
}
layer {
  name: "inception_4c/relu_3x3"
  type: "ReLU"
  bottom: "inception_4c/3x3"
  top: "inception_4c/3x3"
}
layer {
  name: "inception_4c/5x5_reduce"
  type: "Convolution"
  bottom: "inception_4b/output"
  top: "inception_4c/5x5_reduce"
  param {
    lr_mult: 1
    decay_mult: 1
  }
  param {
    lr_mult: 2
    decay_mult: 0
  }
  convolution_param {
    num_output: 24
    kernel_size: 1
    weight_filler {
      type: "xavier"
      std: 0.2
    }
    bias_filler {
      type: "constant"
      value: 0.2
    }
  }
}
layer {
  name: "inception_4c/relu_5x5_reduce"
  type: "ReLU"
  bottom: "inception_4c/5x5_reduce"
  top: "inception_4c/5x5_reduce"
}
layer {
  name: "inception_4c/5x5"
  type: "Convolution"
  bottom: "inception_4c/5x5_reduce"
  top: "inception_4c/5x5"
  param {
    lr_mult: 1
    decay_mult: 1
  }
  param {
    lr_mult: 2
    decay_mult: 0
  }
  convolution_param {
    num_output: 64
    pad: 2
    kernel_size: 5
    weight_filler {
      type: "xavier"
      std: 0.03
    }
    bias_filler {
      type: "constant"
      value: 0.2
    }
  }
}
layer {
  name: "inception_4c/relu_5x5"
  type: "ReLU"
  bottom: "inception_4c/5x5"
  top: "inception_4c/5x5"
}
layer {
  name: "inception_4c/pool"
  type: "Pooling"
  bottom: "inception_4b/output"
  top: "inception_4c/pool"
  pooling_param {
    pool: MAX
    kernel_size: 3
    stride: 1
    pad: 1
  }
}
layer {
  name: "inception_4c/pool_proj"
  type: "Convolution"
  bottom: "inception_4c/pool"
  top: "inception_4c/pool_proj"
  param {
    lr_mult: 1
    decay_mult: 1
  }
  param {
    lr_mult: 2
    decay_mult: 0
  }
  convolution_param {
    num_output: 64
    kernel_size: 1
    weight_filler {
      type: "xavier"
      std: 0.1
    }
    bias_filler {
      type: "constant"
      value: 0.2
    }
  }
}
layer {
  name: "inception_4c/relu_pool_proj"
  type: "ReLU"
  bottom: "inception_4c/pool_proj"
  top: "inception_4c/pool_proj"
}
layer {
  name: "inception_4c/output"
  type: "Concat"
  bottom: "inception_4c/1x1"
  bottom: "inception_4c/3x3"
  bottom: "inception_4c/5x5"
  bottom: "inception_4c/pool_proj"
  top: "inception_4c/output"
}
layer {
  name: "inception_4d/1x1"
  type: "Convolution"
  bottom: "inception_4c/output"
  top: "inception_4d/1x1"
  param {
    lr_mult: 1
    decay_mult: 1
  }
  param {
    lr_mult: 2
    decay_mult: 0
  }
  convolution_param {
    num_output: 112
    kernel_size: 1
    weight_filler {
      type: "xavier"
      std: 0.03
    }
    bias_filler {
      type: "constant"
      value: 0.2
    }
  }
}
layer {
  name: "inception_4d/relu_1x1"
  type: "ReLU"
  bottom: "inception_4d/1x1"
  top: "inception_4d/1x1"
}
layer {
  name: "inception_4d/3x3_reduce"
  type: "Convolution"
  bottom: "inception_4c/output"
  top: "inception_4d/3x3_reduce"
  param {
    lr_mult: 1
    decay_mult: 1
  }
  param {
    lr_mult: 2
    decay_mult: 0
  }
  convolution_param {
    num_output: 144
    kernel_size: 1
    weight_filler {
      type: "xavier"
      std: 0.09
    }
    bias_filler {
      type: "constant"
      value: 0.2
    }
  }
}
layer {
  name: "inception_4d/relu_3x3_reduce"
  type: "ReLU"
  bottom: "inception_4d/3x3_reduce"
  top: "inception_4d/3x3_reduce"
}
layer {
  name: "inception_4d/3x3"
  type: "Convolution"
  bottom: "inception_4d/3x3_reduce"
  top: "inception_4d/3x3"
  param {
    lr_mult: 1
    decay_mult: 1
  }
  param {
    lr_mult: 2
    decay_mult: 0
  }
  convolution_param {
    num_output: 288
    pad: 1
    kernel_size: 3
    weight_filler {
      type: "xavier"
      std: 0.03
    }
    bias_filler {
      type: "constant"
      value: 0.2
    }
  }
}
layer {
  name: "inception_4d/relu_3x3"
  type: "ReLU"
  bottom: "inception_4d/3x3"
  top: "inception_4d/3x3"
}
layer {
  name: "inception_4d/5x5_reduce"
  type: "Convolution"
  bottom: "inception_4c/output"
  top: "inception_4d/5x5_reduce"
  param {
    lr_mult: 1
    decay_mult: 1
  }
  param {
    lr_mult: 2
    decay_mult: 0
  }
  convolution_param {
    num_output: 32
    kernel_size: 1
    weight_filler {
      type: "xavier"
      std: 0.2
    }
    bias_filler {
      type: "constant"
      value: 0.2
    }
  }
}
layer {
  name: "inception_4d/relu_5x5_reduce"
  type: "ReLU"
  bottom: "inception_4d/5x5_reduce"
  top: "inception_4d/5x5_reduce"
}
layer {
  name: "inception_4d/5x5"
  type: "Convolution"
  bottom: "inception_4d/5x5_reduce"
  top: "inception_4d/5x5"
  param {
    lr_mult: 1
    decay_mult: 1
  }
  param {
    lr_mult: 2
    decay_mult: 0
  }
  convolution_param {
    num_output: 64
    pad: 2
    kernel_size: 5
    weight_filler {
      type: "xavier"
      std: 0.03
    }
    bias_filler {
      type: "constant"
      value: 0.2
    }
  }
}
layer {
  name: "inception_4d/relu_5x5"
  type: "ReLU"
  bottom: "inception_4d/5x5"
  top: "inception_4d/5x5"
}
layer {
  name: "inception_4d/pool"
  type: "Pooling"
  bottom: "inception_4c/output"
  top: "inception_4d/pool"
  pooling_param {
    pool: MAX
    kernel_size: 3
    stride: 1
    pad: 1
  }
}
layer {
  name: "inception_4d/pool_proj"
  type: "Convolution"
  bottom: "inception_4d/pool"
  top: "inception_4d/pool_proj"
  param {
    lr_mult: 1
    decay_mult: 1
  }
  param {
    lr_mult: 2
    decay_mult: 0
  }
  convolution_param {
    num_output: 64
    kernel_size: 1
    weight_filler {
      type: "xavier"
      std: 0.1
    }
    bias_filler {
      type: "constant"
      value: 0.2
    }
  }
}
layer {
  name: "inception_4d/relu_pool_proj"
  type: "ReLU"
  bottom: "inception_4d/pool_proj"
  top: "inception_4d/pool_proj"
}
layer {
  name: "inception_4d/output"
  type: "Concat"
  bottom: "inception_4d/1x1"
  bottom: "inception_4d/3x3"
  bottom: "inception_4d/5x5"
  bottom: "inception_4d/pool_proj"
  top: "inception_4d/output"
}
layer {
  name: "loss2/ave_pool"
  type: "Pooling"
  bottom: "inception_4d/output"
  top: "loss2/ave_pool"
  pooling_param {
    pool: AVE
    kernel_size: 5
    stride: 3
  }
}
layer {
  name: "loss2/conv"
  type: "Convolution"
  bottom: "loss2/ave_pool"
  top: "loss2/conv"
  param {
    lr_mult: 1
    decay_mult: 1
  }
  param {
    lr_mult: 2
    decay_mult: 0
  }
  convolution_param {
    num_output: 128
    kernel_size: 1
    weight_filler {
      type: "xavier"
      std: 0.08
    }
    bias_filler {
      type: "constant"
      value: 0.2
    }
  }
}
layer {
  name: "loss2/relu_conv"
  type: "ReLU"
  bottom: "loss2/conv"
  top: "loss2/conv"
}
layer {
  name: "loss2/fc"
  type: "InnerProduct"
  bottom: "loss2/conv"
  top: "loss2/fc"
  param {
    lr_mult: 1
    decay_mult: 1
  }
  param {
    lr_mult: 2
    decay_mult: 0
  }
  inner_product_param {
    num_output: 1024
    weight_filler {
      type: "xavier"
      std: 0.02
    }
    bias_filler {
      type: "constant"
      value: 0.2
    }
  }
}
layer {
  name: "loss2/relu_fc"
  type: "ReLU"
  bottom: "loss2/fc"
  top: "loss2/fc"
}
layer {
  name: "loss2/drop_fc"
  type: "Dropout"
  bottom: "loss2/fc"
  top: "loss2/fc"
  dropout_param {
    dropout_ratio: 0.7
  }
}
layer {
  name: "loss2/classifier_plantvillage"
  type: "InnerProduct"
  bottom: "loss2/fc"
  top: "loss2/classifier_plantvillage"
  param {
    lr_mult: 1
    decay_mult: 1
  }
  param {
    lr_mult: 2
    decay_mult: 0
  }
  inner_product_param {
    num_output: 38
    weight_filler {
      type: "xavier"
      std: 0.0009765625
    }
    bias_filler {
      type: "constant"
      value: 0
    }
  }
}
layer {
  name: "inception_4e/1x1"
  type: "Convolution"
  bottom: "inception_4d/output"
  top: "inception_4e/1x1"
  param {
    lr_mult: 1
    decay_mult: 1
  }
  param {
    lr_mult: 2
    decay_mult: 0
  }
  convolution_param {
    num_output: 256
    kernel_size: 1
    weight_filler {
      type: "xavier"
      std: 0.03
    }
    bias_filler {
      type: "constant"
      value: 0.2
    }
  }
}
layer {
  name: "inception_4e/relu_1x1"
  type: "ReLU"
  bottom: "inception_4e/1x1"
  top: "inception_4e/1x1"
}
layer {
  name: "inception_4e/3x3_reduce"
  type: "Convolution"
  bottom: "inception_4d/output"
  top: "inception_4e/3x3_reduce"
  param {
    lr_mult: 1
    decay_mult: 1
  }
  param {
    lr_mult: 2
    decay_mult: 0
  }
  convolution_param {
    num_output: 160
    kernel_size: 1
    weight_filler {
      type: "xavier"
      std: 0.09
    }
    bias_filler {
      type: "constant"
      value: 0.2
    }
  }
}
layer {
  name: "inception_4e/relu_3x3_reduce"
  type: "ReLU"
  bottom: "inception_4e/3x3_reduce"
  top: "inception_4e/3x3_reduce"
}
layer {
  name: "inception_4e/3x3"
  type: "Convolution"
  bottom: "inception_4e/3x3_reduce"
  top: "inception_4e/3x3"
  param {
    lr_mult: 1
    decay_mult: 1
  }
  param {
    lr_mult: 2
    decay_mult: 0
  }
  convolution_param {
    num_output: 320
    pad: 1
    kernel_size: 3
    weight_filler {
      type: "xavier"
      std: 0.03
    }
    bias_filler {
      type: "constant"
      value: 0.2
    }
  }
}
layer {
  name: "inception_4e/relu_3x3"
  type: "ReLU"
  bottom: "inception_4e/3x3"
  top: "inception_4e/3x3"
}
layer {
  name: "inception_4e/5x5_reduce"
  type: "Convolution"
  bottom: "inception_4d/output"
  top: "inception_4e/5x5_reduce"
  param {
    lr_mult: 1
    decay_mult: 1
  }
  param {
    lr_mult: 2
    decay_mult: 0
  }
  convolution_param {
    num_output: 32
    kernel_size: 1
    weight_filler {
      type: "xavier"
      std: 0.2
    }
    bias_filler {
      type: "constant"
      value: 0.2
    }
  }
}
layer {
  name: "inception_4e/relu_5x5_reduce"
  type: "ReLU"
  bottom: "inception_4e/5x5_reduce"
  top: "inception_4e/5x5_reduce"
}
layer {
  name: "inception_4e/5x5"
  type: "Convolution"
  bottom: "inception_4e/5x5_reduce"
  top: "inception_4e/
I0403 15:04:55.199960 11582 layer_factory.hpp:77] Creating layer data
I0403 15:04:55.200621 11582 net.cpp:91] Creating Layer data
I0403 15:04:55.200654 11582 net.cpp:399] data -> data
I0403 15:04:55.200707 11582 net.cpp:399] data -> label
I0403 15:04:55.200744 11582 data_transformer.cpp:25] Loading mean file from: /home/mohanty/data/final_dataset/lmdb/segmented-50-50/mean.binaryproto
I0403 15:04:55.203549 11584 db_lmdb.cpp:38] Opened lmdb /home/mohanty/data/final_dataset/lmdb/segmented-50-50/test_db
I0403 15:04:55.214078 11582 data_layer.cpp:41] output data size: 24,3,224,224
I0403 15:04:55.241677 11582 net.cpp:141] Setting up data
I0403 15:04:55.241757 11582 net.cpp:148] Top shape: 24 3 224 224 (3612672)
I0403 15:04:55.241780 11582 net.cpp:148] Top shape: 24 (24)
I0403 15:04:55.241794 11582 net.cpp:156] Memory required for data: 14450784
I0403 15:04:55.241822 11582 layer_factory.hpp:77] Creating layer label_data_1_split
I0403 15:04:55.241848 11582 net.cpp:91] Creating Layer label_data_1_split
I0403 15:04:55.241865 11582 net.cpp:425] label_data_1_split <- label
I0403 15:04:55.241896 11582 net.cpp:399] label_data_1_split -> label_data_1_split_0
I0403 15:04:55.241925 11582 net.cpp:399] label_data_1_split -> label_data_1_split_1
I0403 15:04:55.241945 11582 net.cpp:399] label_data_1_split -> label_data_1_split_2
I0403 15:04:55.241964 11582 net.cpp:399] label_data_1_split -> label_data_1_split_3
I0403 15:04:55.241983 11582 net.cpp:399] label_data_1_split -> label_data_1_split_4
I0403 15:04:55.242002 11582 net.cpp:399] label_data_1_split -> label_data_1_split_5
I0403 15:04:55.242022 11582 net.cpp:399] label_data_1_split -> label_data_1_split_6
I0403 15:04:55.242040 11582 net.cpp:399] label_data_1_split -> label_data_1_split_7
I0403 15:04:55.242059 11582 net.cpp:399] label_data_1_split -> label_data_1_split_8
I0403 15:04:55.242079 11582 net.cpp:399] label_data_1_split -> label_data_1_split_9
I0403 15:04:55.242192 11582 net.cpp:141] Setting up label_data_1_split
I0403 15:04:55.242215 11582 net.cpp:148] Top shape: 24 (24)
I0403 15:04:55.242231 11582 net.cpp:148] Top shape: 24 (24)
I0403 15:04:55.242246 11582 net.cpp:148] Top shape: 24 (24)
I0403 15:04:55.242261 11582 net.cpp:148] Top shape: 24 (24)
I0403 15:04:55.242276 11582 net.cpp:148] Top shape: 24 (24)
I0403 15:04:55.242290 11582 net.cpp:148] Top shape: 24 (24)
I0403 15:04:55.242326 11582 net.cpp:148] Top shape: 24 (24)
I0403 15:04:55.242367 11582 net.cpp:148] Top shape: 24 (24)
I0403 15:04:55.242408 11582 net.cpp:148] Top shape: 24 (24)
I0403 15:04:55.242463 11582 net.cpp:148] Top shape: 24 (24)
I0403 15:04:55.242503 11582 net.cpp:156] Memory required for data: 14451744
I0403 15:04:55.242519 11582 layer_factory.hpp:77] Creating layer conv1/7x7_s2
I0403 15:04:55.242550 11582 net.cpp:91] Creating Layer conv1/7x7_s2
I0403 15:04:55.242568 11582 net.cpp:425] conv1/7x7_s2 <- data
I0403 15:04:55.242588 11582 net.cpp:399] conv1/7x7_s2 -> conv1/7x7_s2
I0403 15:04:55.388118 11582 net.cpp:141] Setting up conv1/7x7_s2
I0403 15:04:55.388175 11582 net.cpp:148] Top shape: 24 64 112 112 (19267584)
I0403 15:04:55.388191 11582 net.cpp:156] Memory required for data: 91522080
I0403 15:04:55.388221 11582 layer_factory.hpp:77] Creating layer conv1/relu_7x7
I0403 15:04:55.388245 11582 net.cpp:91] Creating Layer conv1/relu_7x7
I0403 15:04:55.388264 11582 net.cpp:425] conv1/relu_7x7 <- conv1/7x7_s2
I0403 15:04:55.388283 11582 net.cpp:386] conv1/relu_7x7 -> conv1/7x7_s2 (in-place)
I0403 15:04:55.388537 11582 net.cpp:141] Setting up conv1/relu_7x7
I0403 15:04:55.388566 11582 net.cpp:148] Top shape: 24 64 112 112 (19267584)
I0403 15:04:55.388579 11582 net.cpp:156] Memory required for data: 168592416
I0403 15:04:55.388594 11582 layer_factory.hpp:77] Creating layer pool1/3x3_s2
I0403 15:04:55.388618 11582 net.cpp:91] Creating Layer pool1/3x3_s2
I0403 15:04:55.388635 11582 net.cpp:425] pool1/3x3_s2 <- conv1/7x7_s2
I0403 15:04:55.388653 11582 net.cpp:399] pool1/3x3_s2 -> pool1/3x3_s2
I0403 15:04:55.388725 11582 net.cpp:141] Setting up pool1/3x3_s2
I0403 15:04:55.388748 11582 net.cpp:148] Top shape: 24 64 56 56 (4816896)
I0403 15:04:55.388762 11582 net.cpp:156] Memory required for data: 187860000
I0403 15:04:55.388777 11582 layer_factory.hpp:77] Creating layer pool1/norm1
I0403 15:04:55.388799 11582 net.cpp:91] Creating Layer pool1/norm1
I0403 15:04:55.388816 11582 net.cpp:425] pool1/norm1 <- pool1/3x3_s2
I0403 15:04:55.388833 11582 net.cpp:399] pool1/norm1 -> pool1/norm1
I0403 15:04:55.389116 11582 net.cpp:141] Setting up pool1/norm1
I0403 15:04:55.389142 11582 net.cpp:148] Top shape: 24 64 56 56 (4816896)
I0403 15:04:55.389158 11582 net.cpp:156] Memory required for data: 207127584
I0403 15:04:55.389171 11582 layer_factory.hpp:77] Creating layer conv2/3x3_reduce
I0403 15:04:55.389195 11582 net.cpp:91] Creating Layer conv2/3x3_reduce
I0403 15:04:55.389211 11582 net.cpp:425] conv2/3x3_reduce <- pool1/norm1
I0403 15:04:55.389230 11582 net.cpp:399] conv2/3x3_reduce -> conv2/3x3_reduce
I0403 15:04:55.390543 11582 net.cpp:141] Setting up conv2/3x3_reduce
I0403 15:04:55.390573 11582 net.cpp:148] Top shape: 24 64 56 56 (4816896)
I0403 15:04:55.390588 11582 net.cpp:156] Memory required for data: 226395168
I0403 15:04:55.390609 11582 layer_factory.hpp:77] Creating layer conv2/relu_3x3_reduce
I0403 15:04:55.390626 11582 net.cpp:91] Creating Layer conv2/relu_3x3_reduce
I0403 15:04:55.390642 11582 net.cpp:425] conv2/relu_3x3_reduce <- conv2/3x3_reduce
I0403 15:04:55.390658 11582 net.cpp:386] conv2/relu_3x3_reduce -> conv2/3x3_reduce (in-place)
I0403 15:04:55.390910 11582 net.cpp:141] Setting up conv2/relu_3x3_reduce
I0403 15:04:55.390936 11582 net.cpp:148] Top shape: 24 64 56 56 (4816896)
I0403 15:04:55.390950 11582 net.cpp:156] Memory required for data: 245662752
I0403 15:04:55.390965 11582 layer_factory.hpp:77] Creating layer conv2/3x3
I0403 15:04:55.390986 11582 net.cpp:91] Creating Layer conv2/3x3
I0403 15:04:55.391003 11582 net.cpp:425] conv2/3x3 <- conv2/3x3_reduce
I0403 15:04:55.391021 11582 net.cpp:399] conv2/3x3 -> conv2/3x3
I0403 15:04:55.393229 11582 net.cpp:141] Setting up conv2/3x3
I0403 15:04:55.393288 11582 net.cpp:148] Top shape: 24 192 56 56 (14450688)
I0403 15:04:55.393331 11582 net.cpp:156] Memory required for data: 303465504
I0403 15:04:55.393375 11582 layer_factory.hpp:77] Creating layer conv2/relu_3x3
I0403 15:04:55.393396 11582 net.cpp:91] Creating Layer conv2/relu_3x3
I0403 15:04:55.393415 11582 net.cpp:425] conv2/relu_3x3 <- conv2/3x3
I0403 15:04:55.393436 11582 net.cpp:386] conv2/relu_3x3 -> conv2/3x3 (in-place)
I0403 15:04:55.393613 11582 net.cpp:141] Setting up conv2/relu_3x3
I0403 15:04:55.393640 11582 net.cpp:148] Top shape: 24 192 56 56 (14450688)
I0403 15:04:55.393685 11582 net.cpp:156] Memory required for data: 361268256
I0403 15:04:55.393700 11582 layer_factory.hpp:77] Creating layer conv2/norm2
I0403 15:04:55.393718 11582 net.cpp:91] Creating Layer conv2/norm2
I0403 15:04:55.393733 11582 net.cpp:425] conv2/norm2 <- conv2/3x3
I0403 15:04:55.393753 11582 net.cpp:399] conv2/norm2 -> conv2/norm2
I0403 15:04:55.394053 11582 net.cpp:141] Setting up conv2/norm2
I0403 15:04:55.394080 11582 net.cpp:148] Top shape: 24 192 56 56 (14450688)
I0403 15:04:55.394094 11582 net.cpp:156] Memory required for data: 419071008
I0403 15:04:55.394109 11582 layer_factory.hpp:77] Creating layer pool2/3x3_s2
I0403 15:04:55.394126 11582 net.cpp:91] Creating Layer pool2/3x3_s2
I0403 15:04:55.394141 11582 net.cpp:425] pool2/3x3_s2 <- conv2/norm2
I0403 15:04:55.394160 11582 net.cpp:399] pool2/3x3_s2 -> pool2/3x3_s2
I0403 15:04:55.394214 11582 net.cpp:141] Setting up pool2/3x3_s2
I0403 15:04:55.394239 11582 net.cpp:148] Top shape: 24 192 28 28 (3612672)
I0403 15:04:55.394254 11582 net.cpp:156] Memory required for data: 433521696
I0403 15:04:55.394269 11582 layer_factory.hpp:77] Creating layer pool2/3x3_s2_pool2/3x3_s2_0_split
I0403 15:04:55.394285 11582 net.cpp:91] Creating Layer pool2/3x3_s2_pool2/3x3_s2_0_split
I0403 15:04:55.394300 11582 net.cpp:425] pool2/3x3_s2_pool2/3x3_s2_0_split <- pool2/3x3_s2
I0403 15:04:55.394316 11582 net.cpp:399] pool2/3x3_s2_pool2/3x3_s2_0_split -> pool2/3x3_s2_pool2/3x3_s2_0_split_0
I0403 15:04:55.394336 11582 net.cpp:399] pool2/3x3_s2_pool2/3x3_s2_0_split -> pool2/3x3_s2_pool2/3x3_s2_0_split_1
I0403 15:04:55.394358 11582 net.cpp:399] pool2/3x3_s2_pool2/3x3_s2_0_split -> pool2/3x3_s2_pool2/3x3_s2_0_split_2
I0403 15:04:55.394377 11582 net.cpp:399] pool2/3x3_s2_pool2/3x3_s2_0_split -> pool2/3x3_s2_pool2/3x3_s2_0_split_3
I0403 15:04:55.394449 11582 net.cpp:141] Setting up pool2/3x3_s2_pool2/3x3_s2_0_split
I0403 15:04:55.394471 11582 net.cpp:148] Top shape: 24 192 28 28 (3612672)
I0403 15:04:55.394486 11582 net.cpp:148] Top shape: 24 192 28 28 (3612672)
I0403 15:04:55.394501 11582 net.cpp:148] Top shape: 24 192 28 28 (3612672)
I0403 15:04:55.394516 11582 net.cpp:148] Top shape: 24 192 28 28 (3612672)
I0403 15:04:55.394529 11582 net.cpp:156] Memory required for data: 491324448
I0403 15:04:55.394543 11582 layer_factory.hpp:77] Creating layer inception_3a/1x1
I0403 15:04:55.394567 11582 net.cpp:91] Creating Layer inception_3a/1x1
I0403 15:04:55.394585 11582 net.cpp:425] inception_3a/1x1 <- pool2/3x3_s2_pool2/3x3_s2_0_split_0
I0403 15:04:55.394603 11582 net.cpp:399] inception_3a/1x1 -> inception_3a/1x1
I0403 15:04:55.396113 11582 net.cpp:141] Setting up inception_3a/1x1
I0403 15:04:55.396145 11582 net.cpp:148] Top shape: 24 64 28 28 (1204224)
I0403 15:04:55.396162 11582 net.cpp:156] Memory required for data: 496141344
I0403 15:04:55.396179 11582 layer_factory.hpp:77] Creating layer inception_3a/relu_1x1
I0403 15:04:55.396196 11582 net.cpp:91] Creating Layer inception_3a/relu_1x1
I0403 15:04:55.396211 11582 net.cpp:425] inception_3a/relu_1x1 <- inception_3a/1x1
I0403 15:04:55.396231 11582 net.cpp:386] inception_3a/relu_1x1 -> inception_3a/1x1 (in-place)
I0403 15:04:55.396404 11582 net.cpp:141] Setting up inception_3a/relu_1x1
I0403 15:04:55.396431 11582 net.cpp:148] Top shape: 24 64 28 28 (1204224)
I0403 15:04:55.396446 11582 net.cpp:156] Memory required for data: 500958240
I0403 15:04:55.396461 11582 layer_factory.hpp:77] Creating layer inception_3a/3x3_reduce
I0403 15:04:55.396483 11582 net.cpp:91] Creating Layer inception_3a/3x3_reduce
I0403 15:04:55.396500 11582 net.cpp:425] inception_3a/3x3_reduce <- pool2/3x3_s2_pool2/3x3_s2_0_split_1
I0403 15:04:55.396520 11582 net.cpp:399] inception_3a/3x3_reduce -> inception_3a/3x3_reduce
I0403 15:04:55.398188 11582 net.cpp:141] Setting up inception_3a/3x3_reduce
I0403 15:04:55.398218 11582 net.cpp:148] Top shape: 24 96 28 28 (1806336)
I0403 15:04:55.398234 11582 net.cpp:156] Memory required for data: 508183584
I0403 15:04:55.398255 11582 layer_factory.hpp:77] Creating layer inception_3a/relu_3x3_reduce
I0403 15:04:55.398293 11582 net.cpp:91] Creating Layer inception_3a/relu_3x3_reduce
I0403 15:04:55.398313 11582 net.cpp:425] inception_3a/relu_3x3_reduce <- inception_3a/3x3_reduce
I0403 15:04:55.398330 11582 net.cpp:386] inception_3a/relu_3x3_reduce -> inception_3a/3x3_reduce (in-place)
I0403 15:04:55.398524 11582 net.cpp:141] Setting up inception_3a/relu_3x3_reduce
I0403 15:04:55.398550 11582 net.cpp:148] Top shape: 24 96 28 28 (1806336)
I0403 15:04:55.398563 11582 net.cpp:156] Memory required for data: 515408928
I0403 15:04:55.398577 11582 layer_factory.hpp:77] Creating layer inception_3a/3x3
I0403 15:04:55.398600 11582 net.cpp:91] Creating Layer inception_3a/3x3
I0403 15:04:55.398617 11582 net.cpp:425] inception_3a/3x3 <- inception_3a/3x3_reduce
I0403 15:04:55.398638 11582 net.cpp:399] inception_3a/3x3 -> inception_3a/3x3
I0403 15:04:55.400296 11582 net.cpp:141] Setting up inception_3a/3x3
I0403 15:04:55.400327 11582 net.cpp:148] Top shape: 24 128 28 28 (2408448)
I0403 15:04:55.400343 11582 net.cpp:156] Memory required for data: 525042720
I0403 15:04:55.400364 11582 layer_factory.hpp:77] Creating layer inception_3a/relu_3x3
I0403 15:04:55.400384 11582 net.cpp:91] Creating Layer inception_3a/relu_3x3
I0403 15:04:55.400434 11582 net.cpp:425] inception_3a/relu_3x3 <- inception_3a/3x3
I0403 15:04:55.400480 11582 net.cpp:386] inception_3a/relu_3x3 -> inception_3a/3x3 (in-place)
I0403 15:04:55.400763 11582 net.cpp:141] Setting up inception_3a/relu_3x3
I0403 15:04:55.400790 11582 net.cpp:148] Top shape: 24 128 28 28 (2408448)
I0403 15:04:55.400804 11582 net.cpp:156] Memory required for data: 534676512
I0403 15:04:55.400820 11582 layer_factory.hpp:77] Creating layer inception_3a/5x5_reduce
I0403 15:04:55.400841 11582 net.cpp:91] Creating Layer inception_3a/5x5_reduce
I0403 15:04:55.400858 11582 net.cpp:425] inception_3a/5x5_reduce <- pool2/3x3_s2_pool2/3x3_s2_0_split_2
I0403 15:04:55.400879 11582 net.cpp:399] inception_3a/5x5_reduce -> inception_3a/5x5_reduce
I0403 15:04:55.401823 11582 net.cpp:141] Setting up inception_3a/5x5_reduce
I0403 15:04:55.401851 11582 net.cpp:148] Top shape: 24 16 28 28 (301056)
I0403 15:04:55.401867 11582 net.cpp:156] Memory required for data: 535880736
I0403 15:04:55.401885 11582 layer_factory.hpp:77] Creating layer inception_3a/relu_5x5_reduce
I0403 15:04:55.401904 11582 net.cpp:91] Creating Layer inception_3a/relu_5x5_reduce
I0403 15:04:55.401922 11582 net.cpp:425] inception_3a/relu_5x5_reduce <- inception_3a/5x5_reduce
I0403 15:04:55.401940 11582 net.cpp:386] inception_3a/relu_5x5_reduce -> inception_3a/5x5_reduce (in-place)
I0403 15:04:55.402235 11582 net.cpp:141] Setting up inception_3a/relu_5x5_reduce
I0403 15:04:55.402269 11582 net.cpp:148] Top shape: 24 16 28 28 (301056)
I0403 15:04:55.402313 11582 net.cpp:156] Memory required for data: 537084960
I0403 15:04:55.402355 11582 layer_factory.hpp:77] Creating layer inception_3a/5x5
I0403 15:04:55.402402 11582 net.cpp:91] Creating Layer inception_3a/5x5
I0403 15:04:55.402431 11582 net.cpp:425] inception_3a/5x5 <- inception_3a/5x5_reduce
I0403 15:04:55.402453 11582 net.cpp:399] inception_3a/5x5 -> inception_3a/5x5
I0403 15:04:55.403486 11582 net.cpp:141] Setting up inception_3a/5x5
I0403 15:04:55.403513 11582 net.cpp:148] Top shape: 24 32 28 28 (602112)
I0403 15:04:55.403529 11582 net.cpp:156] Memory required for data: 539493408
I0403 15:04:55.403548 11582 layer_factory.hpp:77] Creating layer inception_3a/relu_5x5
I0403 15:04:55.403568 11582 net.cpp:91] Creating Layer inception_3a/relu_5x5
I0403 15:04:55.403586 11582 net.cpp:425] inception_3a/relu_5x5 <- inception_3a/5x5
I0403 15:04:55.403604 11582 net.cpp:386] inception_3a/relu_5x5 -> inception_3a/5x5 (in-place)
I0403 15:04:55.403777 11582 net.cpp:141] Setting up inception_3a/relu_5x5
I0403 15:04:55.403808 11582 net.cpp:148] Top shape: 24 32 28 28 (602112)
I0403 15:04:55.403823 11582 net.cpp:156] Memory required for data: 541901856
I0403 15:04:55.403839 11582 layer_factory.hpp:77] Creating layer inception_3a/pool
I0403 15:04:55.403857 11582 net.cpp:91] Creating Layer inception_3a/pool
I0403 15:04:55.403887 11582 net.cpp:425] inception_3a/pool <- pool2/3x3_s2_pool2/3x3_s2_0_split_3
I0403 15:04:55.403908 11582 net.cpp:399] inception_3a/pool -> inception_3a/pool
I0403 15:04:55.403966 11582 net.cpp:141] Setting up inception_3a/pool
I0403 15:04:55.403990 11582 net.cpp:148] Top shape: 24 192 28 28 (3612672)
I0403 15:04:55.404005 11582 net.cpp:156] Memory required for data: 556352544
I0403 15:04:55.404018 11582 layer_factory.hpp:77] Creating layer inception_3a/pool_proj
I0403 15:04:55.404041 11582 net.cpp:91] Creating Layer inception_3a/pool_proj
I0403 15:04:55.404057 11582 net.cpp:425] inception_3a/pool_proj <- inception_3a/pool
I0403 15:04:55.404079 11582 net.cpp:399] inception_3a/pool_proj -> inception_3a/pool_proj
I0403 15:04:55.405097 11582 net.cpp:141] Setting up inception_3a/pool_proj
I0403 15:04:55.405128 11582 net.cpp:148] Top shape: 24 32 28 28 (602112)
I0403 15:04:55.405144 11582 net.cpp:156] Memory required for data: 558760992
I0403 15:04:55.405166 11582 layer_factory.hpp:77] Creating layer inception_3a/relu_pool_proj
I0403 15:04:55.405189 11582 net.cpp:91] Creating Layer inception_3a/relu_pool_proj
I0403 15:04:55.405206 11582 net.cpp:425] inception_3a/relu_pool_proj <- inception_3a/pool_proj
I0403 15:04:55.405225 11582 net.cpp:386] inception_3a/relu_pool_proj -> inception_3a/pool_proj (in-place)
I0403 15:04:55.405519 11582 net.cpp:141] Setting up inception_3a/relu_pool_proj
I0403 15:04:55.405546 11582 net.cpp:148] Top shape: 24 32 28 28 (602112)
I0403 15:04:55.405562 11582 net.cpp:156] Memory required for data: 561169440
I0403 15:04:55.405578 11582 layer_factory.hpp:77] Creating layer inception_3a/output
I0403 15:04:55.405599 11582 net.cpp:91] Creating Layer inception_3a/output
I0403 15:04:55.405616 11582 net.cpp:425] inception_3a/output <- inception_3a/1x1
I0403 15:04:55.405633 11582 net.cpp:425] inception_3a/output <- inception_3a/3x3
I0403 15:04:55.405650 11582 net.cpp:425] inception_3a/output <- inception_3a/5x5
I0403 15:04:55.405666 11582 net.cpp:425] inception_3a/output <- inception_3a/pool_proj
I0403 15:04:55.405684 11582 net.cpp:399] inception_3a/output -> inception_3a/output
I0403 15:04:55.405735 11582 net.cpp:141] Setting up inception_3a/output
I0403 15:04:55.405760 11582 net.cpp:148] Top shape: 24 256 28 28 (4816896)
I0403 15:04:55.405774 11582 net.cpp:156] Memory required for data: 580437024
I0403 15:04:55.405789 11582 layer_factory.hpp:77] Creating layer inception_3a/output_inception_3a/output_0_split
I0403 15:04:55.405807 11582 net.cpp:91] Creating Layer inception_3a/output_inception_3a/output_0_split
I0403 15:04:55.405822 11582 net.cpp:425] inception_3a/output_inception_3a/output_0_split <- inception_3a/output
I0403 15:04:55.405843 11582 net.cpp:399] inception_3a/output_inception_3a/output_0_split -> inception_3a/output_inception_3a/output_0_split_0
I0403 15:04:55.405864 11582 net.cpp:399] inception_3a/output_inception_3a/output_0_split -> inception_3a/output_inception_3a/output_0_split_1
I0403 15:04:55.405889 11582 net.cpp:399] inception_3a/output_inception_3a/output_0_split -> inception_3a/output_inception_3a/output_0_split_2
I0403 15:04:55.405935 11582 net.cpp:399] inception_3a/output_inception_3a/output_0_split -> inception_3a/output_inception_3a/output_0_split_3
I0403 15:04:55.406038 11582 net.cpp:141] Setting up inception_3a/output_inception_3a/output_0_split
I0403 15:04:55.406062 11582 net.cpp:148] Top shape: 24 256 28 28 (4816896)
I0403 15:04:55.406080 11582 net.cpp:148] Top shape: 24 256 28 28 (4816896)
I0403 15:04:55.406095 11582 net.cpp:148] Top shape: 24 256 28 28 (4816896)
I0403 15:04:55.406111 11582 net.cpp:148] Top shape: 24 256 28 28 (4816896)
I0403 15:04:55.406126 11582 net.cpp:156] Memory required for data: 657507360
I0403 15:04:55.406141 11582 layer_factory.hpp:77] Creating layer inception_3b/1x1
I0403 15:04:55.406163 11582 net.cpp:91] Creating Layer inception_3b/1x1
I0403 15:04:55.406182 11582 net.cpp:425] inception_3b/1x1 <- inception_3a/output_inception_3a/output_0_split_0
I0403 15:04:55.406203 11582 net.cpp:399] inception_3b/1x1 -> inception_3b/1x1
I0403 15:04:55.407390 11582 net.cpp:141] Setting up inception_3b/1x1
I0403 15:04:55.407436 11582 net.cpp:148] Top shape: 24 128 28 28 (2408448)
I0403 15:04:55.407454 11582 net.cpp:156] Memory required for data: 667141152
I0403 15:04:55.407474 11582 layer_factory.hpp:77] Creating layer inception_3b/relu_1x1
I0403 15:04:55.407496 11582 net.cpp:91] Creating Layer inception_3b/relu_1x1
I0403 15:04:55.407515 11582 net.cpp:425] inception_3b/relu_1x1 <- inception_3b/1x1
I0403 15:04:55.407533 11582 net.cpp:386] inception_3b/relu_1x1 -> inception_3b/1x1 (in-place)
I0403 15:04:55.407714 11582 net.cpp:141] Setting up inception_3b/relu_1x1
I0403 15:04:55.407742 11582 net.cpp:148] Top shape: 24 128 28 28 (2408448)
I0403 15:04:55.407757 11582 net.cpp:156] Memory required for data: 676774944
I0403 15:04:55.407773 11582 layer_factory.hpp:77] Creating layer inception_3b/3x3_reduce
I0403 15:04:55.407796 11582 net.cpp:91] Creating Layer inception_3b/3x3_reduce
I0403 15:04:55.407815 11582 net.cpp:425] inception_3b/3x3_reduce <- inception_3a/output_inception_3a/output_0_split_1
I0403 15:04:55.407837 11582 net.cpp:399] inception_3b/3x3_reduce -> inception_3b/3x3_reduce
I0403 15:04:55.408988 11582 net.cpp:141] Setting up inception_3b/3x3_reduce
I0403 15:04:55.409018 11582 net.cpp:148] Top shape: 24 128 28 28 (2408448)
I0403 15:04:55.409034 11582 net.cpp:156] Memory required for data: 686408736
I0403 15:04:55.409054 11582 layer_factory.hpp:77] Creating layer inception_3b/relu_3x3_reduce
I0403 15:04:55.409071 11582 net.cpp:91] Creating Layer inception_3b/relu_3x3_reduce
I0403 15:04:55.409088 11582 net.cpp:425] inception_3b/relu_3x3_reduce <- inception_3b/3x3_reduce
I0403 15:04:55.409108 11582 net.cpp:386] inception_3b/relu_3x3_reduce -> inception_3b/3x3_reduce (in-place)
I0403 15:04:55.409282 11582 net.cpp:141] Setting up inception_3b/relu_3x3_reduce
I0403 15:04:55.409307 11582 net.cpp:148] Top shape: 24 128 28 28 (2408448)
I0403 15:04:55.409322 11582 net.cpp:156] Memory required for data: 696042528
I0403 15:04:55.409337 11582 layer_factory.hpp:77] Creating layer inception_3b/3x3
I0403 15:04:55.409365 11582 net.cpp:91] Creating Layer inception_3b/3x3
I0403 15:04:55.409384 11582 net.cpp:425] inception_3b/3x3 <- inception_3b/3x3_reduce
I0403 15:04:55.409420 11582 net.cpp:399] inception_3b/3x3 -> inception_3b/3x3
I0403 15:04:55.412401 11582 net.cpp:141] Setting up inception_3b/3x3
I0403 15:04:55.412442 11582 net.cpp:148] Top shape: 24 192 28 28 (3612672)
I0403 15:04:55.412458 11582 net.cpp:156] Memory required for data: 710493216
I0403 15:04:55.412477 11582 layer_factory.hpp:77] Creating layer inception_3b/relu_3x3
I0403 15:04:55.412497 11582 net.cpp:91] Creating Layer inception_3b/relu_3x3
I0403 15:04:55.412515 11582 net.cpp:425] inception_3b/relu_3x3 <- inception_3b/3x3
I0403 15:04:55.412533 11582 net.cpp:386] inception_3b/relu_3x3 -> inception_3b/3x3 (in-place)
I0403 15:04:55.412812 11582 net.cpp:141] Setting up inception_3b/relu_3x3
I0403 15:04:55.412866 11582 net.cpp:148] Top shape: 24 192 28 28 (3612672)
I0403 15:04:55.412894 11582 net.cpp:156] Memory required for data: 724943904
I0403 15:04:55.412909 11582 layer_factory.hpp:77] Creating layer inception_3b/5x5_reduce
I0403 15:04:55.412931 11582 net.cpp:91] Creating Layer inception_3b/5x5_reduce
I0403 15:04:55.412950 11582 net.cpp:425] inception_3b/5x5_reduce <- inception_3a/output_inception_3a/output_0_split_2
I0403 15:04:55.412971 11582 net.cpp:399] inception_3b/5x5_reduce -> inception_3b/5x5_reduce
I0403 15:04:55.413980 11582 net.cpp:141] Setting up inception_3b/5x5_reduce
I0403 15:04:55.414010 11582 net.cpp:148] Top shape: 24 32 28 28 (602112)
I0403 15:04:55.414024 11582 net.cpp:156] Memory required for data: 727352352
I0403 15:04:55.414042 11582 layer_factory.hpp:77] Creating layer inception_3b/relu_5x5_reduce
I0403 15:04:55.414062 11582 net.cpp:91] Creating Layer inception_3b/relu_5x5_reduce
I0403 15:04:55.414080 11582 net.cpp:425] inception_3b/relu_5x5_reduce <- inception_3b/5x5_reduce
I0403 15:04:55.414098 11582 net.cpp:386] inception_3b/relu_5x5_reduce -> inception_3b/5x5_reduce (in-place)
I0403 15:04:55.414294 11582 net.cpp:141] Setting up inception_3b/relu_5x5_reduce
I0403 15:04:55.414321 11582 net.cpp:148] Top shape: 24 32 28 28 (602112)
I0403 15:04:55.414338 11582 net.cpp:156] Memory required for data: 729760800
I0403 15:04:55.414355 11582 layer_factory.hpp:77] Creating layer inception_3b/5x5
I0403 15:04:55.414376 11582 net.cpp:91] Creating Layer inception_3b/5x5
I0403 15:04:55.414394 11582 net.cpp:425] inception_3b/5x5 <- inception_3b/5x5_reduce
I0403 15:04:55.414417 11582 net.cpp:399] inception_3b/5x5 -> inception_3b/5x5
I0403 15:04:55.416440 11582 net.cpp:141] Setting up inception_3b/5x5
I0403 15:04:55.416497 11582 net.cpp:148] Top shape: 24 96 28 28 (1806336)
I0403 15:04:55.416533 11582 net.cpp:156] Memory required for data: 736986144
I0403 15:04:55.416553 11582 layer_factory.hpp:77] Creating layer inception_3b/relu_5x5
I0403 15:04:55.416571 11582 net.cpp:91] Creating Layer inception_3b/relu_5x5
I0403 15:04:55.416589 11582 net.cpp:425] inception_3b/relu_5x5 <- inception_3b/5x5
I0403 15:04:55.416620 11582 net.cpp:386] inception_3b/relu_5x5 -> inception_3b/5x5 (in-place)
I0403 15:04:55.416816 11582 net.cpp:141] Setting up inception_3b/relu_5x5
I0403 15:04:55.416841 11582 net.cpp:148] Top shape: 24 96 28 28 (1806336)
I0403 15:04:55.416857 11582 net.cpp:156] Memory required for data: 744211488
I0403 15:04:55.416870 11582 layer_factory.hpp:77] Creating layer inception_3b/pool
I0403 15:04:55.416887 11582 net.cpp:91] Creating Layer inception_3b/pool
I0403 15:04:55.416904 11582 net.cpp:425] inception_3b/pool <- inception_3a/output_inception_3a/output_0_split_3
I0403 15:04:55.416923 11582 net.cpp:399] inception_3b/pool -> inception_3b/pool
I0403 15:04:55.416977 11582 net.cpp:141] Setting up inception_3b/pool
I0403 15:04:55.417001 11582 net.cpp:148] Top shape: 24 256 28 28 (4816896)
I0403 15:04:55.417016 11582 net.cpp:156] Memory required for data: 763479072
I0403 15:04:55.417029 11582 layer_factory.hpp:77] Creating layer inception_3b/pool_proj
I0403 15:04:55.417052 11582 net.cpp:91] Creating Layer inception_3b/pool_proj
I0403 15:04:55.417068 11582 net.cpp:425] inception_3b/pool_proj <- inception_3b/pool
I0403 15:04:55.417090 11582 net.cpp:399] inception_3b/pool_proj -> inception_3b/pool_proj
I0403 15:04:55.418161 11582 net.cpp:141] Setting up inception_3b/pool_proj
I0403 15:04:55.418193 11582 net.cpp:148] Top shape: 24 64 28 28 (1204224)
I0403 15:04:55.418210 11582 net.cpp:156] Memory required for data: 768295968
I0403 15:04:55.418227 11582 layer_factory.hpp:77] Creating layer inception_3b/relu_pool_proj
I0403 15:04:55.418246 11582 net.cpp:91] Creating Layer inception_3b/relu_pool_proj
I0403 15:04:55.418262 11582 net.cpp:425] inception_3b/relu_pool_proj <- inception_3b/pool_proj
I0403 15:04:55.418280 11582 net.cpp:386] inception_3b/relu_pool_proj -> inception_3b/pool_proj (in-place)
I0403 15:04:55.418691 11582 net.cpp:141] Setting up inception_3b/relu_pool_proj
I0403 15:04:55.418718 11582 net.cpp:148] Top shape: 24 64 28 28 (1204224)
I0403 15:04:55.418733 11582 net.cpp:156] Memory required for data: 773112864
I0403 15:04:55.418748 11582 layer_factory.hpp:77] Creating layer inception_3b/output
I0403 15:04:55.418768 11582 net.cpp:91] Creating Layer inception_3b/output
I0403 15:04:55.418786 11582 net.cpp:425] inception_3b/output <- inception_3b/1x1
I0403 15:04:55.418802 11582 net.cpp:425] inception_3b/output <- inception_3b/3x3
I0403 15:04:55.418818 11582 net.cpp:425] inception_3b/output <- inception_3b/5x5
I0403 15:04:55.418833 11582 net.cpp:425] inception_3b/output <- inception_3b/pool_proj
I0403 15:04:55.418850 11582 net.cpp:399] inception_3b/output -> inception_3b/output
I0403 15:04:55.418897 11582 net.cpp:141] Setting up inception_3b/output
I0403 15:04:55.418920 11582 net.cpp:148] Top shape: 24 480 28 28 (9031680)
I0403 15:04:55.418934 11582 net.cpp:156] Memory required for data: 809239584
I0403 15:04:55.418949 11582 layer_factory.hpp:77] Creating layer pool3/3x3_s2
I0403 15:04:55.418967 11582 net.cpp:91] Creating Layer pool3/3x3_s2
I0403 15:04:55.418982 11582 net.cpp:425] pool3/3x3_s2 <- inception_3b/output
I0403 15:04:55.419018 11582 net.cpp:399] pool3/3x3_s2 -> pool3/3x3_s2
I0403 15:04:55.419080 11582 net.cpp:141] Setting up pool3/3x3_s2
I0403 15:04:55.419105 11582 net.cpp:148] Top shape: 24 480 14 14 (2257920)
I0403 15:04:55.419118 11582 net.cpp:156] Memory required for data: 818271264
I0403 15:04:55.419132 11582 layer_factory.hpp:77] Creating layer pool3/3x3_s2_pool3/3x3_s2_0_split
I0403 15:04:55.419149 11582 net.cpp:91] Creating Layer pool3/3x3_s2_pool3/3x3_s2_0_split
I0403 15:04:55.419164 11582 net.cpp:425] pool3/3x3_s2_pool3/3x3_s2_0_split <- pool3/3x3_s2
I0403 15:04:55.419183 11582 net.cpp:399] pool3/3x3_s2_pool3/3x3_s2_0_split -> pool3/3x3_s2_pool3/3x3_s2_0_split_0
I0403 15:04:55.419204 11582 net.cpp:399] pool3/3x3_s2_pool3/3x3_s2_0_split -> pool3/3x3_s2_pool3/3x3_s2_0_split_1
I0403 15:04:55.419224 11582 net.cpp:399] pool3/3x3_s2_pool3/3x3_s2_0_split -> pool3/3x3_s2_pool3/3x3_s2_0_split_2
I0403 15:04:55.419242 11582 net.cpp:399] pool3/3x3_s2_pool3/3x3_s2_0_split -> pool3/3x3_s2_pool3/3x3_s2_0_split_3
I0403 15:04:55.419317 11582 net.cpp:141] Setting up pool3/3x3_s2_pool3/3x3_s2_0_split
I0403 15:04:55.419342 11582 net.cpp:148] Top shape: 24 480 14 14 (2257920)
I0403 15:04:55.419360 11582 net.cpp:148] Top shape: 24 480 14 14 (2257920)
I0403 15:04:55.419376 11582 net.cpp:148] Top shape: 24 480 14 14 (2257920)
I0403 15:04:55.419391 11582 net.cpp:148] Top shape: 24 480 14 14 (2257920)
I0403 15:04:55.419405 11582 net.cpp:156] Memory required for data: 854397984
I0403 15:04:55.419423 11582 layer_factory.hpp:77] Creating layer inception_4a/1x1
I0403 15:04:55.419446 11582 net.cpp:91] Creating Layer inception_4a/1x1
I0403 15:04:55.419463 11582 net.cpp:425] inception_4a/1x1 <- pool3/3x3_s2_pool3/3x3_s2_0_split_0
I0403 15:04:55.419483 11582 net.cpp:399] inception_4a/1x1 -> inception_4a/1x1
I0403 15:04:55.421089 11582 net.cpp:141] Setting up inception_4a/1x1
I0403 15:04:55.421123 11582 net.cpp:148] Top shape: 24 192 14 14 (903168)
I0403 15:04:55.421139 11582 net.cpp:156] Memory required for data: 858010656
I0403 15:04:55.421159 11582 layer_factory.hpp:77] Creating layer inception_4a/relu_1x1
I0403 15:04:55.421176 11582 net.cpp:91] Creating Layer inception_4a/relu_1x1
I0403 15:04:55.421193 11582 net.cpp:425] inception_4a/relu_1x1 <- inception_4a/1x1
I0403 15:04:55.421214 11582 net.cpp:386] inception_4a/relu_1x1 -> inception_4a/1x1 (in-place)
I0403 15:04:55.421416 11582 net.cpp:141] Setting up inception_4a/relu_1x1
I0403 15:04:55.421443 11582 net.cpp:148] Top shape: 24 192 14 14 (903168)
I0403 15:04:55.421459 11582 net.cpp:156] Memory required for data: 861623328
I0403 15:04:55.421473 11582 layer_factory.hpp:77] Creating layer inception_4a/3x3_reduce
I0403 15:04:55.421497 11582 net.cpp:91] Creating Layer inception_4a/3x3_reduce
I0403 15:04:55.421515 11582 net.cpp:425] inception_4a/3x3_reduce <- pool3/3x3_s2_pool3/3x3_s2_0_split_1
I0403 15:04:55.421556 11582 net.cpp:399] inception_4a/3x3_reduce -> inception_4a/3x3_reduce
I0403 15:04:55.422982 11582 net.cpp:141] Setting up inception_4a/3x3_reduce
I0403 15:04:55.423014 11582 net.cpp:148] Top shape: 24 96 14 14 (451584)
I0403 15:04:55.423032 11582 net.cpp:156] Memory required for data: 863429664
I0403 15:04:55.423055 11582 layer_factory.hpp:77] Creating layer inception_4a/relu_3x3_reduce
I0403 15:04:55.423074 11582 net.cpp:91] Creating Layer inception_4a/relu_3x3_reduce
I0403 15:04:55.423090 11582 net.cpp:425] inception_4a/relu_3x3_reduce <- inception_4a/3x3_reduce
I0403 15:04:55.423107 11582 net.cpp:386] inception_4a/relu_3x3_reduce -> inception_4a/3x3_reduce (in-place)
I0403 15:04:55.423281 11582 net.cpp:141] Setting up inception_4a/relu_3x3_reduce
I0403 15:04:55.423307 11582 net.cpp:148] Top shape: 24 96 14 14 (451584)
I0403 15:04:55.423321 11582 net.cpp:156] Memory required for data: 865236000
I0403 15:04:55.423336 11582 layer_factory.hpp:77] Creating layer inception_4a/3x3
I0403 15:04:55.423357 11582 net.cpp:91] Creating Layer inception_4a/3x3
I0403 15:04:55.423373 11582 net.cpp:425] inception_4a/3x3 <- inception_4a/3x3_reduce
I0403 15:04:55.423394 11582 net.cpp:399] inception_4a/3x3 -> inception_4a/3x3
I0403 15:04:55.426048 11582 net.cpp:141] Setting up inception_4a/3x3
I0403 15:04:55.426077 11582 net.cpp:148] Top shape: 24 208 14 14 (978432)
I0403 15:04:55.426093 11582 net.cpp:156] Memory required for data: 869149728
I0403 15:04:55.426111 11582 layer_factory.hpp:77] Creating layer inception_4a/relu_3x3
I0403 15:04:55.426129 11582 net.cpp:91] Creating Layer inception_4a/relu_3x3
I0403 15:04:55.426146 11582 net.cpp:425] inception_4a/relu_3x3 <- inception_4a/3x3
I0403 15:04:55.426167 11582 net.cpp:386] inception_4a/relu_3x3 -> inception_4a/3x3 (in-place)
I0403 15:04:55.426452 11582 net.cpp:141] Setting up inception_4a/relu_3x3
I0403 15:04:55.426481 11582 net.cpp:148] Top shape: 24 208 14 14 (978432)
I0403 15:04:55.426496 11582 net.cpp:156] Memory required for data: 873063456
I0403 15:04:55.426512 11582 layer_factory.hpp:77] Creating layer inception_4a/5x5_reduce
I0403 15:04:55.426535 11582 net.cpp:91] Creating Layer inception_4a/5x5_reduce
I0403 15:04:55.426553 11582 net.cpp:425] inception_4a/5x5_reduce <- pool3/3x3_s2_pool3/3x3_s2_0_split_2
I0403 15:04:55.426575 11582 net.cpp:399] inception_4a/5x5_reduce -> inception_4a/5x5_reduce
I0403 15:04:55.427639 11582 net.cpp:141] Setting up inception_4a/5x5_reduce
I0403 15:04:55.427670 11582 net.cpp:148] Top shape: 24 16 14 14 (75264)
I0403 15:04:55.427688 11582 net.cpp:156] Memory required for data: 873364512
I0403 15:04:55.427707 11582 layer_factory.hpp:77] Creating layer inception_4a/relu_5x5_reduce
I0403 15:04:55.427729 11582 net.cpp:91] Creating Layer inception_4a/relu_5x5_reduce
I0403 15:04:55.427748 11582 net.cpp:425] inception_4a/relu_5x5_reduce <- inception_4a/5x5_reduce
I0403 15:04:55.427767 11582 net.cpp:386] inception_4a/relu_5x5_reduce -> inception_4a/5x5_reduce (in-place)
I0403 15:04:55.427958 11582 net.cpp:141] Setting up inception_4a/relu_5x5_reduce
I0403 15:04:55.427990 11582 net.cpp:148] Top shape: 24 16 14 14 (75264)
I0403 15:04:55.428009 11582 net.cpp:156] Memory required for data: 873665568
I0403 15:04:55.428023 11582 layer_factory.hpp:77] Creating layer inception_4a/5x5
I0403 15:04:55.428045 11582 net.cpp:91] Creating Layer inception_4a/5x5
I0403 15:04:55.428063 11582 net.cpp:425] inception_4a/5x5 <- inception_4a/5x5_reduce
I0403 15:04:55.428086 11582 net.cpp:399] inception_4a/5x5 -> inception_4a/5x5
I0403 15:04:55.429239 11582 net.cpp:141] Setting up inception_4a/5x5
I0403 15:04:55.429270 11582 net.cpp:148] Top shape: 24 48 14 14 (225792)
I0403 15:04:55.429286 11582 net.cpp:156] Memory required for data: 874568736
I0403 15:04:55.429306 11582 layer_factory.hpp:77] Creating layer inception_4a/relu_5x5
I0403 15:04:55.429329 11582 net.cpp:91] Creating Layer inception_4a/relu_5x5
I0403 15:04:55.429347 11582 net.cpp:425] inception_4a/relu_5x5 <- inception_4a/5x5
I0403 15:04:55.429366 11582 net.cpp:386] inception_4a/relu_5x5 -> inception_4a/5x5 (in-place)
I0403 15:04:55.429559 11582 net.cpp:141] Setting up inception_4a/relu_5x5
I0403 15:04:55.429586 11582 net.cpp:148] Top shape: 24 48 14 14 (225792)
I0403 15:04:55.429601 11582 net.cpp:156] Memory required for data: 875471904
I0403 15:04:55.429617 11582 layer_factory.hpp:77] Creating layer inception_4a/pool
I0403 15:04:55.429636 11582 net.cpp:91] Creating Layer inception_4a/pool
I0403 15:04:55.429651 11582 net.cpp:425] inception_4a/pool <- pool3/3x3_s2_pool3/3x3_s2_0_split_3
I0403 15:04:55.429672 11582 net.cpp:399] inception_4a/pool -> inception_4a/pool
I0403 15:04:55.429739 11582 net.cpp:141] Setting up inception_4a/pool
I0403 15:04:55.429764 11582 net.cpp:148] Top shape: 24 480 14 14 (2257920)
I0403 15:04:55.429779 11582 net.cpp:156] Memory required for data: 884503584
I0403 15:04:55.429793 11582 layer_factory.hpp:77] Creating layer inception_4a/pool_proj
I0403 15:04:55.429818 11582 net.cpp:91] Creating Layer inception_4a/pool_proj
I0403 15:04:55.429836 11582 net.cpp:425] inception_4a/pool_proj <- inception_4a/pool
I0403 15:04:55.429854 11582 net.cpp:399] inception_4a/pool_proj -> inception_4a/pool_proj
I0403 15:04:55.431102 11582 net.cpp:141] Setting up inception_4a/pool_proj
I0403 15:04:55.431134 11582 net.cpp:148] Top shape: 24 64 14 14 (301056)
I0403 15:04:55.431166 11582 net.cpp:156] Memory required for data: 885707808
I0403 15:04:55.431186 11582 layer_factory.hpp:77] Creating layer inception_4a/relu_pool_proj
I0403 15:04:55.431205 11582 net.cpp:91] Creating Layer inception_4a/relu_pool_proj
I0403 15:04:55.431221 11582 net.cpp:425] inception_4a/relu_pool_proj <- inception_4a/pool_proj
I0403 15:04:55.431243 11582 net.cpp:386] inception_4a/relu_pool_proj -> inception_4a/pool_proj (in-place)
I0403 15:04:55.431547 11582 net.cpp:141] Setting up inception_4a/relu_pool_proj
I0403 15:04:55.431577 11582 net.cpp:148] Top shape: 24 64 14 14 (301056)
I0403 15:04:55.431593 11582 net.cpp:156] Memory required for data: 886912032
I0403 15:04:55.431609 11582 layer_factory.hpp:77] Creating layer inception_4a/output
I0403 15:04:55.431627 11582 net.cpp:91] Creating Layer inception_4a/output
I0403 15:04:55.431643 11582 net.cpp:425] inception_4a/output <- inception_4a/1x1
I0403 15:04:55.431660 11582 net.cpp:425] inception_4a/output <- inception_4a/3x3
I0403 15:04:55.431676 11582 net.cpp:425] inception_4a/output <- inception_4a/5x5
I0403 15:04:55.431694 11582 net.cpp:425] inception_4a/output <- inception_4a/pool_proj
I0403 15:04:55.431713 11582 net.cpp:399] inception_4a/output -> inception_4a/output
I0403 15:04:55.431761 11582 net.cpp:141] Setting up inception_4a/output
I0403 15:04:55.431784 11582 net.cpp:148] Top shape: 24 512 14 14 (2408448)
I0403 15:04:55.431799 11582 net.cpp:156] Memory required for data: 896545824
I0403 15:04:55.431814 11582 layer_factory.hpp:77] Creating layer inception_4a/output_inception_4a/output_0_split
I0403 15:04:55.431835 11582 net.cpp:91] Creating Layer inception_4a/output_inception_4a/output_0_split
I0403 15:04:55.431851 11582 net.cpp:425] inception_4a/output_inception_4a/output_0_split <- inception_4a/output
I0403 15:04:55.431870 11582 net.cpp:399] inception_4a/output_inception_4a/output_0_split -> inception_4a/output_inception_4a/output_0_split_0
I0403 15:04:55.431891 11582 net.cpp:399] inception_4a/output_inception_4a/output_0_split -> inception_4a/output_inception_4a/output_0_split_1
I0403 15:04:55.431915 11582 net.cpp:399] inception_4a/output_inception_4a/output_0_split -> inception_4a/output_inception_4a/output_0_split_2
I0403 15:04:55.431937 11582 net.cpp:399] inception_4a/output_inception_4a/output_0_split -> inception_4a/output_inception_4a/output_0_split_3
I0403 15:04:55.431958 11582 net.cpp:399] inception_4a/output_inception_4a/output_0_split -> inception_4a/output_inception_4a/output_0_split_4
I0403 15:04:55.432054 11582 net.cpp:141] Setting up inception_4a/output_inception_4a/output_0_split
I0403 15:04:55.432078 11582 net.cpp:148] Top shape: 24 512 14 14 (2408448)
I0403 15:04:55.432095 11582 net.cpp:148] Top shape: 24 512 14 14 (2408448)
I0403 15:04:55.432109 11582 net.cpp:148] Top shape: 24 512 14 14 (2408448)
I0403 15:04:55.432126 11582 net.cpp:148] Top shape: 24 512 14 14 (2408448)
I0403 15:04:55.432140 11582 net.cpp:148] Top shape: 24 512 14 14 (2408448)
I0403 15:04:55.432155 11582 net.cpp:156] Memory required for data: 944714784
I0403 15:04:55.432170 11582 layer_factory.hpp:77] Creating layer loss1/ave_pool
I0403 15:04:55.432190 11582 net.cpp:91] Creating Layer loss1/ave_pool
I0403 15:04:55.432209 11582 net.cpp:425] loss1/ave_pool <- inception_4a/output_inception_4a/output_0_split_0
I0403 15:04:55.432226 11582 net.cpp:399] loss1/ave_pool -> loss1/ave_pool
I0403 15:04:55.432456 11582 net.cpp:141] Setting up loss1/ave_pool
I0403 15:04:55.432487 11582 net.cpp:148] Top shape: 24 512 4 4 (196608)
I0403 15:04:55.432503 11582 net.cpp:156] Memory required for data: 945501216
I0403 15:04:55.432518 11582 layer_factory.hpp:77] Creating layer loss1/conv
I0403 15:04:55.432540 11582 net.cpp:91] Creating Layer loss1/conv
I0403 15:04:55.432559 11582 net.cpp:425] loss1/conv <- loss1/ave_pool
I0403 15:04:55.432579 11582 net.cpp:399] loss1/conv -> loss1/conv
I0403 15:04:55.434067 11582 net.cpp:141] Setting up loss1/conv
I0403 15:04:55.434098 11582 net.cpp:148] Top shape: 24 128 4 4 (49152)
I0403 15:04:55.434128 11582 net.cpp:156] Memory required for data: 945697824
I0403 15:04:55.434149 11582 layer_factory.hpp:77] Creating layer loss1/relu_conv
I0403 15:04:55.434167 11582 net.cpp:91] Creating Layer loss1/relu_conv
I0403 15:04:55.434183 11582 net.cpp:425] loss1/relu_conv <- loss1/conv
I0403 15:04:55.434204 11582 net.cpp:386] loss1/relu_conv -> loss1/conv (in-place)
I0403 15:04:55.434509 11582 net.cpp:141] Setting up loss1/relu_conv
I0403 15:04:55.434536 11582 net.cpp:148] Top shape: 24 128 4 4 (49152)
I0403 15:04:55.434552 11582 net.cpp:156] Memory required for data: 945894432
I0403 15:04:55.434568 11582 layer_factory.hpp:77] Creating layer loss1/fc
I0403 15:04:55.434592 11582 net.cpp:91] Creating Layer loss1/fc
I0403 15:04:55.434610 11582 net.cpp:425] loss1/fc <- loss1/conv
I0403 15:04:55.434633 11582 net.cpp:399] loss1/fc -> loss1/fc
I0403 15:04:55.453531 11582 net.cpp:141] Setting up loss1/fc
I0403 15:04:55.453599 11582 net.cpp:148] Top shape: 24 1024 (24576)
I0403 15:04:55.453616 11582 net.cpp:156] Memory required for data: 945992736
I0403 15:04:55.453637 11582 layer_factory.hpp:77] Creating layer loss1/relu_fc
I0403 15:04:55.453660 11582 net.cpp:91] Creating Layer loss1/relu_fc
I0403 15:04:55.453678 11582 net.cpp:425] loss1/relu_fc <- loss1/fc
I0403 15:04:55.453697 11582 net.cpp:386] loss1/relu_fc -> loss1/fc (in-place)
I0403 15:04:55.453929 11582 net.cpp:141] Setting up loss1/relu_fc
I0403 15:04:55.453955 11582 net.cpp:148] Top shape: 24 1024 (24576)
I0403 15:04:55.453970 11582 net.cpp:156] Memory required for data: 946091040
I0403 15:04:55.453985 11582 layer_factory.hpp:77] Creating layer loss1/drop_fc
I0403 15:04:55.454015 11582 net.cpp:91] Creating Layer loss1/drop_fc
I0403 15:04:55.454033 11582 net.cpp:425] loss1/drop_fc <- loss1/fc
I0403 15:04:55.454054 11582 net.cpp:386] loss1/drop_fc -> loss1/fc (in-place)
I0403 15:04:55.454110 11582 net.cpp:141] Setting up loss1/drop_fc
I0403 15:04:55.454138 11582 net.cpp:148] Top shape: 24 1024 (24576)
I0403 15:04:55.454154 11582 net.cpp:156] Memory required for data: 946189344
I0403 15:04:55.454169 11582 layer_factory.hpp:77] Creating layer loss1/classifier_plantvillage
I0403 15:04:55.454190 11582 net.cpp:91] Creating Layer loss1/classifier_plantvillage
I0403 15:04:55.454205 11582 net.cpp:425] loss1/classifier_plantvillage <- loss1/fc
I0403 15:04:55.454227 11582 net.cpp:399] loss1/classifier_plantvillage -> loss1/classifier_plantvillage
I0403 15:04:55.455237 11582 net.cpp:141] Setting up loss1/classifier_plantvillage
I0403 15:04:55.455267 11582 net.cpp:148] Top shape: 24 38 (912)
I0403 15:04:55.455283 11582 net.cpp:156] Memory required for data: 946192992
I0403 15:04:55.455301 11582 layer_factory.hpp:77] Creating layer loss1/classifier_plantvillage_loss1/classifier_plantvillage_0_split
I0403 15:04:55.455319 11582 net.cpp:91] Creating Layer loss1/classifier_plantvillage_loss1/classifier_plantvillage_0_split
I0403 15:04:55.455337 11582 net.cpp:425] loss1/classifier_plantvillage_loss1/classifier_plantvillage_0_split <- loss1/classifier_plantvillage
I0403 15:04:55.455359 11582 net.cpp:399] loss1/classifier_plantvillage_loss1/classifier_plantvillage_0_split -> loss1/classifier_plantvillage_loss1/classifier_plantvillage_0_split_0
I0403 15:04:55.455381 11582 net.cpp:399] loss1/classifier_plantvillage_loss1/classifier_plantvillage_0_split -> loss1/classifier_plantvillage_loss1/classifier_plantvillage_0_split_1
I0403 15:04:55.455404 11582 net.cpp:399] loss1/classifier_plantvillage_loss1/classifier_plantvillage_0_split -> loss1/classifier_plantvillage_loss1/classifier_plantvillage_0_split_2
I0403 15:04:55.455481 11582 net.cpp:141] Setting up loss1/classifier_plantvillage_loss1/classifier_plantvillage_0_split
I0403 15:04:55.455504 11582 net.cpp:148] Top shape: 24 38 (912)
I0403 15:04:55.455521 11582 net.cpp:148] Top shape: 24 38 (912)
I0403 15:04:55.455538 11582 net.cpp:148] Top shape: 24 38 (912)
I0403 15:04:55.455552 11582 net.cpp:156] Memory required for data: 946203936
I0403 15:04:55.455567 11582 layer_factory.hpp:77] Creating layer inception_4b/1x1
I0403 15:04:55.455591 11582 net.cpp:91] Creating Layer inception_4b/1x1
I0403 15:04:55.455631 11582 net.cpp:425] inception_4b/1x1 <- inception_4a/output_inception_4a/output_0_split_1
I0403 15:04:55.455652 11582 net.cpp:399] inception_4b/1x1 -> inception_4b/1x1
I0403 15:04:55.457433 11582 net.cpp:141] Setting up inception_4b/1x1
I0403 15:04:55.457463 11582 net.cpp:148] Top shape: 24 160 14 14 (752640)
I0403 15:04:55.457479 11582 net.cpp:156] Memory required for data: 949214496
I0403 15:04:55.457499 11582 layer_factory.hpp:77] Creating layer inception_4b/relu_1x1
I0403 15:04:55.457520 11582 net.cpp:91] Creating Layer inception_4b/relu_1x1
I0403 15:04:55.457538 11582 net.cpp:425] inception_4b/relu_1x1 <- inception_4b/1x1
I0403 15:04:55.457556 11582 net.cpp:386] inception_4b/relu_1x1 -> inception_4b/1x1 (in-place)
I0403 15:04:55.457747 11582 net.cpp:141] Setting up inception_4b/relu_1x1
I0403 15:04:55.457777 11582 net.cpp:148] Top shape: 24 160 14 14 (752640)
I0403 15:04:55.457792 11582 net.cpp:156] Memory required for data: 952225056
I0403 15:04:55.457808 11582 layer_factory.hpp:77] Creating layer inception_4b/3x3_reduce
I0403 15:04:55.457828 11582 net.cpp:91] Creating Layer inception_4b/3x3_reduce
I0403 15:04:55.457846 11582 net.cpp:425] inception_4b/3x3_reduce <- inception_4a/output_inception_4a/output_0_split_2
I0403 15:04:55.457869 11582 net.cpp:399] inception_4b/3x3_reduce -> inception_4b/3x3_reduce
I0403 15:04:55.459301 11582 net.cpp:141] Setting up inception_4b/3x3_reduce
I0403 15:04:55.459331 11582 net.cpp:148] Top shape: 24 112 14 14 (526848)
I0403 15:04:55.459347 11582 net.cpp:156] Memory required for data: 954332448
I0403 15:04:55.459367 11582 layer_factory.hpp:77] Creating layer inception_4b/relu_3x3_reduce
I0403 15:04:55.459393 11582 net.cpp:91] Creating Layer inception_4b/relu_3x3_reduce
I0403 15:04:55.459409 11582 net.cpp:425] inception_4b/relu_3x3_reduce <- inception_4b/3x3_reduce
I0403 15:04:55.459432 11582 net.cpp:386] inception_4b/relu_3x3_reduce -> inception_4b/3x3_reduce (in-place)
I0403 15:04:55.459731 11582 net.cpp:141] Setting up inception_4b/relu_3x3_reduce
I0403 15:04:55.459759 11582 net.cpp:148] Top shape: 24 112 14 14 (526848)
I0403 15:04:55.459775 11582 net.cpp:156] Memory required for data: 956439840
I0403 15:04:55.459790 11582 layer_factory.hpp:77] Creating layer inception_4b/3x3
I0403 15:04:55.459813 11582 net.cpp:91] Creating Layer inception_4b/3x3
I0403 15:04:55.459831 11582 net.cpp:425] inception_4b/3x3 <- inception_4b/3x3_reduce
I0403 15:04:55.459853 11582 net.cpp:399] inception_4b/3x3 -> inception_4b/3x3
I0403 15:04:55.463042 11582 net.cpp:141] Setting up inception_4b/3x3
I0403 15:04:55.463071 11582 net.cpp:148] Top shape: 24 224 14 14 (1053696)
I0403 15:04:55.463088 11582 net.cpp:156] Memory required for data: 960654624
I0403 15:04:55.463106 11582 layer_factory.hpp:77] Creating layer inception_4b/relu_3x3
I0403 15:04:55.463130 11582 net.cpp:91] Creating Layer inception_4b/relu_3x3
I0403 15:04:55.463147 11582 net.cpp:425] inception_4b/relu_3x3 <- inception_4b/3x3
I0403 15:04:55.463167 11582 net.cpp:386] inception_4b/relu_3x3 -> inception_4b/3x3 (in-place)
I0403 15:04:55.463363 11582 net.cpp:141] Setting up inception_4b/relu_3x3
I0403 15:04:55.463390 11582 net.cpp:148] Top shape: 24 224 14 14 (1053696)
I0403 15:04:55.463405 11582 net.cpp:156] Memory required for data: 964869408
I0403 15:04:55.463425 11582 layer_factory.hpp:77] Creating layer inception_4b/5x5_reduce
I0403 15:04:55.463449 11582 net.cpp:91] Creating Layer inception_4b/5x5_reduce
I0403 15:04:55.463467 11582 net.cpp:425] inception_4b/5x5_reduce <- inception_4a/output_inception_4a/output_0_split_3
I0403 15:04:55.463491 11582 net.cpp:399] inception_4b/5x5_reduce -> inception_4b/5x5_reduce
I0403 15:04:55.464648 11582 net.cpp:141] Setting up inception_4b/5x5_reduce
I0403 15:04:55.464676 11582 net.cpp:148] Top shape: 24 24 14 14 (112896)
I0403 15:04:55.464692 11582 net.cpp:156] Memory required for data: 965320992
I0403 15:04:55.464711 11582 layer_factory.hpp:77] Creating layer inception_4b/relu_5x5_reduce
I0403 15:04:55.464732 11582 net.cpp:91] Creating Layer inception_4b/relu_5x5_reduce
I0403 15:04:55.464766 11582 net.cpp:425] inception_4b/relu_5x5_reduce <- inception_4b/5x5_reduce
I0403 15:04:55.464786 11582 net.cpp:386] inception_4b/relu_5x5_reduce -> inception_4b/5x5_reduce (in-place)
I0403 15:04:55.464979 11582 net.cpp:141] Setting up inception_4b/relu_5x5_reduce
I0403 15:04:55.465008 11582 net.cpp:148] Top shape: 24 24 14 14 (112896)
I0403 15:04:55.465023 11582 net.cpp:156] Memory required for data: 965772576
I0403 15:04:55.465039 11582 layer_factory.hpp:77] Creating layer inception_4b/5x5
I0403 15:04:55.465062 11582 net.cpp:91] Creating Layer inception_4b/5x5
I0403 15:04:55.465082 11582 net.cpp:425] inception_4b/5x5 <- inception_4b/5x5_reduce
I0403 15:04:55.465101 11582 net.cpp:399] inception_4b/5x5 -> inception_4b/5x5
I0403 15:04:55.466403 11582 net.cpp:141] Setting up inception_4b/5x5
I0403 15:04:55.466437 11582 net.cpp:148] Top shape: 24 64 14 14 (301056)
I0403 15:04:55.466454 11582 net.cpp:156] Memory required for data: 966976800
I0403 15:04:55.466472 11582 layer_factory.hpp:77] Creating layer inception_4b/relu_5x5
I0403 15:04:55.466495 11582 net.cpp:91] Creating Layer inception_4b/relu_5x5
I0403 15:04:55.466511 11582 net.cpp:425] inception_4b/relu_5x5 <- inception_4b/5x5
I0403 15:04:55.466531 11582 net.cpp:386] inception_4b/relu_5x5 -> inception_4b/5x5 (in-place)
I0403 15:04:55.466831 11582 net.cpp:141] Setting up inception_4b/relu_5x5
I0403 15:04:55.466859 11582 net.cpp:148] Top shape: 24 64 14 14 (301056)
I0403 15:04:55.466874 11582 net.cpp:156] Memory required for data: 968181024
I0403 15:04:55.466891 11582 layer_factory.hpp:77] Creating layer inception_4b/pool
I0403 15:04:55.466909 11582 net.cpp:91] Creating Layer inception_4b/pool
I0403 15:04:55.466927 11582 net.cpp:425] inception_4b/pool <- inception_4a/output_inception_4a/output_0_split_4
I0403 15:04:55.466949 11582 net.cpp:399] inception_4b/pool -> inception_4b/pool
I0403 15:04:55.467021 11582 net.cpp:141] Setting up inception_4b/pool
I0403 15:04:55.467046 11582 net.cpp:148] Top shape: 24 512 14 14 (2408448)
I0403 15:04:55.467061 11582 net.cpp:156] Memory required for data: 977814816
I0403 15:04:55.467077 11582 layer_factory.hpp:77] Creating layer inception_4b/pool_proj
I0403 15:04:55.467099 11582 net.cpp:91] Creating Layer inception_4b/pool_proj
I0403 15:04:55.467118 11582 net.cpp:425] inception_4b/pool_proj <- inception_4b/pool
I0403 15:04:55.467139 11582 net.cpp:399] inception_4b/pool_proj -> inception_4b/pool_proj
I0403 15:04:55.468421 11582 net.cpp:141] Setting up inception_4b/pool_proj
I0403 15:04:55.468451 11582 net.cpp:148] Top shape: 24 64 14 14 (301056)
I0403 15:04:55.468466 11582 net.cpp:156] Memory required for data: 979019040
I0403 15:04:55.468484 11582 layer_factory.hpp:77] Creating layer inception_4b/relu_pool_proj
I0403 15:04:55.468518 11582 net.cpp:91] Creating Layer inception_4b/relu_pool_proj
I0403 15:04:55.468535 11582 net.cpp:425] inception_4b/relu_pool_proj <- inception_4b/pool_proj
I0403 15:04:55.468554 11582 net.cpp:386] inception_4b/relu_pool_proj -> inception_4b/pool_proj (in-place)
I0403 15:04:55.468737 11582 net.cpp:141] Setting up inception_4b/relu_pool_proj
I0403 15:04:55.468765 11582 net.cpp:148] Top shape: 24 64 14 14 (301056)
I0403 15:04:55.468780 11582 net.cpp:156] Memory required for data: 980223264
I0403 15:04:55.468794 11582 layer_factory.hpp:77] Creating layer inception_4b/output
I0403 15:04:55.468811 11582 net.cpp:91] Creating Layer inception_4b/output
I0403 15:04:55.468827 11582 net.cpp:425] inception_4b/output <- inception_4b/1x1
I0403 15:04:55.468843 11582 net.cpp:425] inception_4b/output <- inception_4b/3x3
I0403 15:04:55.468859 11582 net.cpp:425] inception_4b/output <- inception_4b/5x5
I0403 15:04:55.468874 11582 net.cpp:425] inception_4b/output <- inception_4b/pool_proj
I0403 15:04:55.468891 11582 net.cpp:399] inception_4b/output -> inception_4b/output
I0403 15:04:55.468940 11582 net.cpp:141] Setting up inception_4b/output
I0403 15:04:55.468963 11582 net.cpp:148] Top shape: 24 512 14 14 (2408448)
I0403 15:04:55.468977 11582 net.cpp:156] Memory required for data: 989857056
I0403 15:04:55.469007 11582 layer_factory.hpp:77] Creating layer inception_4b/output_inception_4b/output_0_split
I0403 15:04:55.469027 11582 net.cpp:91] Creating Layer inception_4b/output_inception_4b/output_0_split
I0403 15:04:55.469043 11582 net.cpp:425] inception_4b/output_inception_4b/output_0_split <- inception_4b/output
I0403 15:04:55.469061 11582 net.cpp:399] inception_4b/output_inception_4b/output_0_split -> inception_4b/output_inception_4b/output_0_split_0
I0403 15:04:55.469081 11582 net.cpp:399] inception_4b/output_inception_4b/output_0_split -> inception_4b/output_inception_4b/output_0_split_1
I0403 15:04:55.469101 11582 net.cpp:399] inception_4b/output_inception_4b/output_0_split -> inception_4b/output_inception_4b/output_0_split_2
I0403 15:04:55.469120 11582 net.cpp:399] inception_4b/output_inception_4b/output_0_split -> inception_4b/output_inception_4b/output_0_split_3
I0403 15:04:55.469205 11582 net.cpp:141] Setting up inception_4b/output_inception_4b/output_0_split
I0403 15:04:55.469229 11582 net.cpp:148] Top shape: 24 512 14 14 (2408448)
I0403 15:04:55.469245 11582 net.cpp:148] Top shape: 24 512 14 14 (2408448)
I0403 15:04:55.469260 11582 net.cpp:148] Top shape: 24 512 14 14 (2408448)
I0403 15:04:55.469275 11582 net.cpp:148] Top shape: 24 512 14 14 (2408448)
I0403 15:04:55.469288 11582 net.cpp:156] Memory required for data: 1028392224
I0403 15:04:55.469302 11582 layer_factory.hpp:77] Creating layer inception_4c/1x1
I0403 15:04:55.469326 11582 net.cpp:91] Creating Layer inception_4c/1x1
I0403 15:04:55.469342 11582 net.cpp:425] inception_4c/1x1 <- inception_4b/output_inception_4b/output_0_split_0
I0403 15:04:55.469364 11582 net.cpp:399] inception_4c/1x1 -> inception_4c/1x1
I0403 15:04:55.470852 11582 net.cpp:141] Setting up inception_4c/1x1
I0403 15:04:55.470886 11582 net.cpp:148] Top shape: 24 128 14 14 (602112)
I0403 15:04:55.470903 11582 net.cpp:156] Memory required for data: 1030800672
I0403 15:04:55.470921 11582 layer_factory.hpp:77] Creating layer inception_4c/relu_1x1
I0403 15:04:55.470940 11582 net.cpp:91] Creating Layer inception_4c/relu_1x1
I0403 15:04:55.470957 11582 net.cpp:425] inception_4c/relu_1x1 <- inception_4c/1x1
I0403 15:04:55.470973 11582 net.cpp:386] inception_4c/relu_1x1 -> inception_4c/1x1 (in-place)
I0403 15:04:55.471161 11582 net.cpp:141] Setting up inception_4c/relu_1x1
I0403 15:04:55.471186 11582 net.cpp:148] Top shape: 24 128 14 14 (602112)
I0403 15:04:55.471200 11582 net.cpp:156] Memory required for data: 1033209120
I0403 15:04:55.471215 11582 layer_factory.hpp:77] Creating layer inception_4c/3x3_reduce
I0403 15:04:55.471238 11582 net.cpp:91] Creating Layer inception_4c/3x3_reduce
I0403 15:04:55.471256 11582 net.cpp:425] inception_4c/3x3_reduce <- inception_4b/output_inception_4b/output_0_split_1
I0403 15:04:55.471279 11582 net.cpp:399] inception_4c/3x3_reduce -> inception_4c/3x3_reduce
I0403 15:04:55.473317 11582 net.cpp:141] Setting up inception_4c/3x3_reduce
I0403 15:04:55.473347 11582 net.cpp:148] Top shape: 24 128 14 14 (602112)
I0403 15:04:55.473363 11582 net.cpp:156] Memory required for data: 1035617568
I0403 15:04:55.473382 11582 layer_factory.hpp:77] Creating layer inception_4c/relu_3x3_reduce
I0403 15:04:55.473402 11582 net.cpp:91] Creating Layer inception_4c/relu_3x3_reduce
I0403 15:04:55.473434 11582 net.cpp:425] inception_4c/relu_3x3_reduce <- inception_4c/3x3_reduce
I0403 15:04:55.473453 11582 net.cpp:386] inception_4c/relu_3x3_reduce -> inception_4c/3x3_reduce (in-place)
I0403 15:04:55.473755 11582 net.cpp:141] Setting up inception_4c/relu_3x3_reduce
I0403 15:04:55.473783 11582 net.cpp:148] Top shape: 24 128 14 14 (602112)
I0403 15:04:55.473798 11582 net.cpp:156] Memory required for data: 1038026016
I0403 15:04:55.473814 11582 layer_factory.hpp:77] Creating layer inception_4c/3x3
I0403 15:04:55.473836 11582 net.cpp:91] Creating Layer inception_4c/3x3
I0403 15:04:55.473853 11582 net.cpp:425] inception_4c/3x3 <- inception_4c/3x3_reduce
I0403 15:04:55.473876 11582 net.cpp:399] inception_4c/3x3 -> inception_4c/3x3
I0403 15:04:55.477618 11582 net.cpp:141] Setting up inception_4c/3x3
I0403 15:04:55.477660 11582 net.cpp:148] Top shape: 24 256 14 14 (1204224)
I0403 15:04:55.477676 11582 net.cpp:156] Memory required for data: 1042842912
I0403 15:04:55.477715 11582 layer_factory.hpp:77] Creating layer inception_4c/relu_3x3
I0403 15:04:55.477738 11582 net.cpp:91] Creating Layer inception_4c/relu_3x3
I0403 15:04:55.477756 11582 net.cpp:425] inception_4c/relu_3x3 <- inception_4c/3x3
I0403 15:04:55.477774 11582 net.cpp:386] inception_4c/relu_3x3 -> inception_4c/3x3 (in-place)
I0403 15:04:55.477959 11582 net.cpp:141] Setting up inception_4c/relu_3x3
I0403 15:04:55.477987 11582 net.cpp:148] Top shape: 24 256 14 14 (1204224)
I0403 15:04:55.478001 11582 net.cpp:156] Memory required for data: 1047659808
I0403 15:04:55.478015 11582 layer_factory.hpp:77] Creating layer inception_4c/5x5_reduce
I0403 15:04:55.478039 11582 net.cpp:91] Creating Layer inception_4c/5x5_reduce
I0403 15:04:55.478055 11582 net.cpp:425] inception_4c/5x5_reduce <- inception_4b/output_inception_4b/output_0_split_2
I0403 15:04:55.478077 11582 net.cpp:399] inception_4c/5x5_reduce -> inception_4c/5x5_reduce
I0403 15:04:55.479184 11582 net.cpp:141] Setting up inception_4c/5x5_reduce
I0403 15:04:55.479213 11582 net.cpp:148] Top shape: 24 24 14 14 (112896)
I0403 15:04:55.479228 11582 net.cpp:156] Memory required for data: 1048111392
I0403 15:04:55.479246 11582 layer_factory.hpp:77] Creating layer inception_4c/relu_5x5_reduce
I0403 15:04:55.479270 11582 net.cpp:91] Creating Layer inception_4c/relu_5x5_reduce
I0403 15:04:55.479287 11582 net.cpp:425] inception_4c/relu_5x5_reduce <- inception_4c/5x5_reduce
I0403 15:04:55.479305 11582 net.cpp:386] inception_4c/relu_5x5_reduce -> inception_4c/5x5_reduce (in-place)
I0403 15:04:55.479498 11582 net.cpp:141] Setting up inception_4c/relu_5x5_reduce
I0403 15:04:55.479526 11582 net.cpp:148] Top shape: 24 24 14 14 (112896)
I0403 15:04:55.479542 11582 net.cpp:156] Memory required for data: 1048562976
I0403 15:04:55.479557 11582 layer_factory.hpp:77] Creating layer inception_4c/5x5
I0403 15:04:55.479578 11582 net.cpp:91] Creating Layer inception_4c/5x5
I0403 15:04:55.479595 11582 net.cpp:425] inception_4c/5x5 <- inception_4c/5x5_reduce
I0403 15:04:55.479615 11582 net.cpp:399] inception_4c/5x5 -> inception_4c/5x5
I0403 15:04:55.480892 11582 net.cpp:141] Setting up inception_4c/5x5
I0403 15:04:55.480922 11582 net.cpp:148] Top shape: 24 64 14 14 (301056)
I0403 15:04:55.480939 11582 net.cpp:156] Memory required for data: 1049767200
I0403 15:04:55.480957 11582 layer_factory.hpp:77] Creating layer inception_4c/relu_5x5
I0403 15:04:55.480975 11582 net.cpp:91] Creating Layer inception_4c/relu_5x5
I0403 15:04:55.480991 11582 net.cpp:425] inception_4c/relu_5x5 <- inception_4c/5x5
I0403 15:04:55.481009 11582 net.cpp:386] inception_4c/relu_5x5 -> inception_4c/5x5 (in-place)
I0403 15:04:55.481304 11582 net.cpp:141] Setting up inception_4c/relu_5x5
I0403 15:04:55.481334 11582 net.cpp:148] Top shape: 24 64 14 14 (301056)
I0403 15:04:55.481353 11582 net.cpp:156] Memory required for data: 1050971424
I0403 15:04:55.481369 11582 layer_factory.hpp:77] Creating layer inception_4c/pool
I0403 15:04:55.481386 11582 net.cpp:91] Creating Layer inception_4c/pool
I0403 15:04:55.481402 11582 net.cpp:425] inception_4c/pool <- inception_4b/output_inception_4b/output_0_split_3
I0403 15:04:55.481426 11582 net.cpp:399] inception_4c/pool -> inception_4c/pool
I0403 15:04:55.481495 11582 net.cpp:141] Setting up inception_4c/pool
I0403 15:04:55.481518 11582 net.cpp:148] Top shape: 24 512 14 14 (2408448)
I0403 15:04:55.481534 11582 net.cpp:156] Memory required for data: 1060605216
I0403 15:04:55.481547 11582 layer_factory.hpp:77] Creating layer inception_4c/pool_proj
I0403 15:04:55.481570 11582 net.cpp:91] Creating Layer inception_4c/pool_proj
I0403 15:04:55.481586 11582 net.cpp:425] inception_4c/pool_proj <- inception_4c/pool
I0403 15:04:55.481607 11582 net.cpp:399] inception_4c/pool_proj -> inception_4c/pool_proj
I0403 15:04:55.482955 11582 net.cpp:141] Setting up inception_4c/pool_proj
I0403 15:04:55.482985 11582 net.cpp:148] Top shape: 24 64 14 14 (301056)
I0403 15:04:55.483014 11582 net.cpp:156] Memory required for data: 1061809440
I0403 15:04:55.483034 11582 layer_factory.hpp:77] Creating layer inception_4c/relu_pool_proj
I0403 15:04:55.483058 11582 net.cpp:91] Creating Layer inception_4c/relu_pool_proj
I0403 15:04:55.483077 11582 net.cpp:425] inception_4c/relu_pool_proj <- inception_4c/pool_proj
I0403 15:04:55.483094 11582 net.cpp:386] inception_4c/relu_pool_proj -> inception_4c/pool_proj (in-place)
I0403 15:04:55.483281 11582 net.cpp:141] Setting up inception_4c/relu_pool_proj
I0403 15:04:55.483309 11582 net.cpp:148] Top shape: 24 64 14 14 (301056)
I0403 15:04:55.483325 11582 net.cpp:156] Memory required for data: 1063013664
I0403 15:04:55.483340 11582 layer_factory.hpp:77] Creating layer inception_4c/output
I0403 15:04:55.483360 11582 net.cpp:91] Creating Layer inception_4c/output
I0403 15:04:55.483374 11582 net.cpp:425] inception_4c/output <- inception_4c/1x1
I0403 15:04:55.483392 11582 net.cpp:425] inception_4c/output <- inception_4c/3x3
I0403 15:04:55.483407 11582 net.cpp:425] inception_4c/output <- inception_4c/5x5
I0403 15:04:55.483430 11582 net.cpp:425] inception_4c/output <- inception_4c/pool_proj
I0403 15:04:55.483448 11582 net.cpp:399] inception_4c/output -> inception_4c/output
I0403 15:04:55.483496 11582 net.cpp:141] Setting up inception_4c/output
I0403 15:04:55.483520 11582 net.cpp:148] Top shape: 24 512 14 14 (2408448)
I0403 15:04:55.483535 11582 net.cpp:156] Memory required for data: 1072647456
I0403 15:04:55.483548 11582 layer_factory.hpp:77] Creating layer inception_4c/output_inception_4c/output_0_split
I0403 15:04:55.483568 11582 net.cpp:91] Creating Layer inception_4c/output_inception_4c/output_0_split
I0403 15:04:55.483584 11582 net.cpp:425] inception_4c/output_inception_4c/output_0_split <- inception_4c/output
I0403 15:04:55.483602 11582 net.cpp:399] inception_4c/output_inception_4c/output_0_split -> inception_4c/output_inception_4c/output_0_split_0
I0403 15:04:55.483621 11582 net.cpp:399] inception_4c/output_inception_4c/output_0_split -> inception_4c/output_inception_4c/output_0_split_1
I0403 15:04:55.483641 11582 net.cpp:399] inception_4c/output_inception_4c/output_0_split -> inception_4c/output_inception_4c/output_0_split_2
I0403 15:04:55.483661 11582 net.cpp:399] inception_4c/output_inception_4c/output_0_split -> inception_4c/output_inception_4c/output_0_split_3
I0403 15:04:55.483747 11582 net.cpp:141] Setting up inception_4c/output_inception_4c/output_0_split
I0403 15:04:55.483770 11582 net.cpp:148] Top shape: 24 512 14 14 (2408448)
I0403 15:04:55.483786 11582 net.cpp:148] Top shape: 24 512 14 14 (2408448)
I0403 15:04:55.483801 11582 net.cpp:148] Top shape: 24 512 14 14 (2408448)
I0403 15:04:55.483816 11582 net.cpp:148] Top shape: 24 512 14 14 (2408448)
I0403 15:04:55.483829 11582 net.cpp:156] Memory required for data: 1111182624
I0403 15:04:55.483844 11582 layer_factory.hpp:77] Creating layer inception_4d/1x1
I0403 15:04:55.483867 11582 net.cpp:91] Creating Layer inception_4d/1x1
I0403 15:04:55.483886 11582 net.cpp:425] inception_4d/1x1 <- inception_4c/output_inception_4c/output_0_split_0
I0403 15:04:55.483906 11582 net.cpp:399] inception_4d/1x1 -> inception_4d/1x1
I0403 15:04:55.485323 11582 net.cpp:141] Setting up inception_4d/1x1
I0403 15:04:55.485352 11582 net.cpp:148] Top shape: 24 112 14 14 (526848)
I0403 15:04:55.485368 11582 net.cpp:156] Memory required for data: 1113290016
I0403 15:04:55.485385 11582 layer_factory.hpp:77] Creating layer inception_4d/relu_1x1
I0403 15:04:55.485404 11582 net.cpp:91] Creating Layer inception_4d/relu_1x1
I0403 15:04:55.485432 11582 net.cpp:425] inception_4d/relu_1x1 <- inception_4d/1x1
I0403 15:04:55.485455 11582 net.cpp:386] inception_4d/relu_1x1 -> inception_4d/1x1 (in-place)
I0403 15:04:55.485643 11582 net.cpp:141] Setting up inception_4d/relu_1x1
I0403 15:04:55.485668 11582 net.cpp:148] Top shape: 24 112 14 14 (526848)
I0403 15:04:55.485683 11582 net.cpp:156] Memory required for data: 1115397408
I0403 15:04:55.485698 11582 layer_factory.hpp:77] Creating layer inception_4d/3x3_reduce
I0403 15:04:55.485738 11582 net.cpp:91] Creating Layer inception_4d/3x3_reduce
I0403 15:04:55.485757 11582 net.cpp:425] inception_4d/3x3_reduce <- inception_4c/output_inception_4c/output_0_split_1
I0403 15:04:55.485780 11582 net.cpp:399] inception_4d/3x3_reduce -> inception_4d/3x3_reduce
I0403 15:04:55.487367 11582 net.cpp:141] Setting up inception_4d/3x3_reduce
I0403 15:04:55.487399 11582 net.cpp:148] Top shape: 24 144 14 14 (677376)
I0403 15:04:55.487419 11582 net.cpp:156] Memory required for data: 1118106912
I0403 15:04:55.487439 11582 layer_factory.hpp:77] Creating layer inception_4d/relu_3x3_reduce
I0403 15:04:55.487457 11582 net.cpp:91] Creating Layer inception_4d/relu_3x3_reduce
I0403 15:04:55.487473 11582 net.cpp:425] inception_4d/relu_3x3_reduce <- inception_4d/3x3_reduce
I0403 15:04:55.487493 11582 net.cpp:386] inception_4d/relu_3x3_reduce -> inception_4d/3x3_reduce (in-place)
I0403 15:04:55.487792 11582 net.cpp:141] Setting up inception_4d/relu_3x3_reduce
I0403 15:04:55.487821 11582 net.cpp:148] Top shape: 24 144 14 14 (677376)
I0403 15:04:55.487836 11582 net.cpp:156] Memory required for data: 1120816416
I0403 15:04:55.487851 11582 layer_factory.hpp:77] Creating layer inception_4d/3x3
I0403 15:04:55.487874 11582 net.cpp:91] Creating Layer inception_4d/3x3
I0403 15:04:55.487891 11582 net.cpp:425] inception_4d/3x3 <- inception_4d/3x3_reduce
I0403 15:04:55.487910 11582 net.cpp:399] inception_4d/3x3 -> inception_4d/3x3
I0403 15:04:55.492302 11582 net.cpp:141] Setting up inception_4d/3x3
I0403 15:04:55.492331 11582 net.cpp:148] Top shape: 24 288 14 14 (1354752)
I0403 15:04:55.492347 11582 net.cpp:156] Memory required for data: 1126235424
I0403 15:04:55.492364 11582 layer_factory.hpp:77] Creating layer inception_4d/relu_3x3
I0403 15:04:55.492384 11582 net.cpp:91] Creating Layer inception_4d/relu_3x3
I0403 15:04:55.492400 11582 net.cpp:425] inception_4d/relu_3x3 <- inception_4d/3x3
I0403 15:04:55.492429 11582 net.cpp:386] inception_4d/relu_3x3 -> inception_4d/3x3 (in-place)
I0403 15:04:55.492615 11582 net.cpp:141] Setting up inception_4d/relu_3x3
I0403 15:04:55.492640 11582 net.cpp:148] Top shape: 24 288 14 14 (1354752)
I0403 15:04:55.492653 11582 net.cpp:156] Memory required for data: 1131654432
I0403 15:04:55.492667 11582 layer_factory.hpp:77] Creating layer inception_4d/5x5_reduce
I0403 15:04:55.492689 11582 net.cpp:91] Creating Layer inception_4d/5x5_reduce
I0403 15:04:55.492705 11582 net.cpp:425] inception_4d/5x5_reduce <- inception_4c/output_inception_4c/output_0_split_2
I0403 15:04:55.492727 11582 net.cpp:399] inception_4d/5x5_reduce -> inception_4d/5x5_reduce
I0403 15:04:55.493891 11582 net.cpp:141] Setting up inception_4d/5x5_reduce
I0403 15:04:55.493919 11582 net.cpp:148] Top shape: 24 32 14 14 (150528)
I0403 15:04:55.493934 11582 net.cpp:156] Memory required for data: 1132256544
I0403 15:04:55.493952 11582 layer_factory.hpp:77] Creating layer inception_4d/relu_5x5_reduce
I0403 15:04:55.493969 11582 net.cpp:91] Creating Layer inception_4d/relu_5x5_reduce
I0403 15:04:55.493985 11582 net.cpp:425] inception_4d/relu_5x5_reduce <- inception_4d/5x5_reduce
I0403 15:04:55.494004 11582 net.cpp:386] inception_4d/relu_5x5_reduce -> inception_4d/5x5_reduce (in-place)
I0403 15:04:55.494191 11582 net.cpp:141] Setting up inception_4d/relu_5x5_reduce
I0403 15:04:55.494215 11582 net.cpp:148] Top shape: 24 32 14 14 (150528)
I0403 15:04:55.494230 11582 net.cpp:156] Memory required for data: 1132858656
I0403 15:04:55.494245 11582 layer_factory.hpp:77] Creating layer inception_4d/5x5
I0403 15:04:55.494268 11582 net.cpp:91] Creating Layer inception_4d/5x5
I0403 15:04:55.494287 11582 net.cpp:425] inception_4d/5x5 <- inception_4d/5x5_reduce
I0403 15:04:55.494307 11582 net.cpp:399] inception_4d/5x5 -> inception_4d/5x5
I0403 15:04:55.495802 11582 net.cpp:141] Setting up inception_4d/5x5
I0403 15:04:55.495831 11582 net.cpp:148] Top shape: 24 64 14 14 (301056)
I0403 15:04:55.495846 11582 net.cpp:156] Memory required for data: 1134062880
I0403 15:04:55.495864 11582 layer_factory.hpp:77] Creating layer inception_4d/relu_5x5
I0403 15:04:55.495899 11582 net.cpp:91] Creating Layer inception_4d/relu_5x5
I0403 15:04:55.495916 11582 net.cpp:425] inception_4d/relu_5x5 <- inception_4d/5x5
I0403 15:04:55.495934 11582 net.cpp:386] inception_4d/relu_5x5 -> inception_4d/5x5 (in-place)
I0403 15:04:55.496237 11582 net.cpp:141] Setting up inception_4d/relu_5x5
I0403 15:04:55.496263 11582 net.cpp:148] Top shape: 24 64 14 14 (301056)
I0403 15:04:55.496278 11582 net.cpp:156] Memory required for data: 1135267104
I0403 15:04:55.496292 11582 layer_factory.hpp:77] Creating layer inception_4d/pool
I0403 15:04:55.496312 11582 net.cpp:91] Creating Layer inception_4d/pool
I0403 15:04:55.496330 11582 net.cpp:425] inception_4d/pool <- inception_4c/output_inception_4c/output_0_split_3
I0403 15:04:55.496347 11582 net.cpp:399] inception_4d/pool -> inception_4d/pool
I0403 15:04:55.496420 11582 net.cpp:141] Setting up inception_4d/pool
I0403 15:04:55.496444 11582 net.cpp:148] Top shape: 24 512 14 14 (2408448)
I0403 15:04:55.496459 11582 net.cpp:156] Memory required for data: 1144900896
I0403 15:04:55.496474 11582 layer_factory.hpp:77] Creating layer inception_4d/pool_proj
I0403 15:04:55.496495 11582 net.cpp:91] Creating Layer inception_4d/pool_proj
I0403 15:04:55.496511 11582 net.cpp:425] inception_4d/pool_proj <- inception_4d/pool
I0403 15:04:55.496532 11582 net.cpp:399] inception_4d/pool_proj -> inception_4d/pool_proj
I0403 15:04:55.498301 11582 net.cpp:141] Setting up inception_4d/pool_proj
I0403 15:04:55.498330 11582 net.cpp:148] Top shape: 24 64 14 14 (301056)
I0403 15:04:55.498345 11582 net.cpp:156] Memory required for data: 1146105120
I0403 15:04:55.498364 11582 layer_factory.hpp:77] Creating layer inception_4d/relu_pool_proj
I0403 15:04:55.498385 11582 net.cpp:91] Creating Layer inception_4d/relu_pool_proj
I0403 15:04:55.498402 11582 net.cpp:425] inception_4d/relu_pool_proj <- inception_4d/pool_proj
I0403 15:04:55.498425 11582 net.cpp:386] inception_4d/relu_pool_proj -> inception_4d/pool_proj (in-place)
I0403 15:04:55.498610 11582 net.cpp:141] Setting up inception_4d/relu_pool_proj
I0403 15:04:55.498634 11582 net.cpp:148] Top shape: 24 64 14 14 (301056)
I0403 15:04:55.498648 11582 net.cpp:156] Memory required for data: 1147309344
I0403 15:04:55.498662 11582 layer_factory.hpp:77] Creating layer inception_4d/output
I0403 15:04:55.498682 11582 net.cpp:91] Creating Layer inception_4d/output
I0403 15:04:55.498698 11582 net.cpp:425] inception_4d/output <- inception_4d/1x1
I0403 15:04:55.498714 11582 net.cpp:425] inception_4d/output <- inception_4d/3x3
I0403 15:04:55.498730 11582 net.cpp:425] inception_4d/output <- inception_4d/5x5
I0403 15:04:55.498745 11582 net.cpp:425] inception_4d/output <- inception_4d/pool_proj
I0403 15:04:55.498762 11582 net.cpp:399] inception_4d/output -> inception_4d/output
I0403 15:04:55.498811 11582 net.cpp:141] Setting up inception_4d/output
I0403 15:04:55.498833 11582 net.cpp:148] Top shape: 24 528 14 14 (2483712)
I0403 15:04:55.498847 11582 net.cpp:156] Memory required for data: 1157244192
I0403 15:04:55.498862 11582 layer_factory.hpp:77] Creating layer inception_4d/output_inception_4d/output_0_split
I0403 15:04:55.498878 11582 net.cpp:91] Creating Layer inception_4d/output_inception_4d/output_0_split
I0403 15:04:55.498893 11582 net.cpp:425] inception_4d/output_inception_4d/output_0_split <- inception_4d/output
I0403 15:04:55.498913 11582 net.cpp:399] inception_4d/output_inception_4d/output_0_split -> inception_4d/output_inception_4d/output_0_split_0
I0403 15:04:55.498934 11582 net.cpp:399] inception_4d/output_inception_4d/output_0_split -> inception_4d/output_inception_4d/output_0_split_1
I0403 15:04:55.498952 11582 net.cpp:399] inception_4d/output_inception_4d/output_0_split -> inception_4d/output_inception_4d/output_0_split_2
I0403 15:04:55.498972 11582 net.cpp:399] inception_4d/output_inception_4d/output_0_split -> inception_4d/output_inception_4d/output_0_split_3
I0403 15:04:55.498991 11582 net.cpp:399] inception_4d/output_inception_4d/output_0_split -> inception_4d/output_inception_4d/output_0_split_4
I0403 15:04:55.499094 11582 net.cpp:141] Setting up inception_4d/output_inception_4d/output_0_split
I0403 15:04:55.499130 11582 net.cpp:148] Top shape: 24 528 14 14 (2483712)
I0403 15:04:55.499146 11582 net.cpp:148] Top shape: 24 528 14 14 (2483712)
I0403 15:04:55.499161 11582 net.cpp:148] Top shape: 24 528 14 14 (2483712)
I0403 15:04:55.499176 11582 net.cpp:148] Top shape: 24 528 14 14 (2483712)
I0403 15:04:55.499191 11582 net.cpp:148] Top shape: 24 528 14 14 (2483712)
I0403 15:04:55.499203 11582 net.cpp:156] Memory required for data: 1206918432
I0403 15:04:55.499217 11582 layer_factory.hpp:77] Creating layer loss2/ave_pool
I0403 15:04:55.499234 11582 net.cpp:91] Creating Layer loss2/ave_pool
I0403 15:04:55.499249 11582 net.cpp:425] loss2/ave_pool <- inception_4d/output_inception_4d/output_0_split_0
I0403 15:04:55.499269 11582 net.cpp:399] loss2/ave_pool -> loss2/ave_pool
I0403 15:04:55.499588 11582 net.cpp:141] Setting up loss2/ave_pool
I0403 15:04:55.499614 11582 net.cpp:148] Top shape: 24 528 4 4 (202752)
I0403 15:04:55.499629 11582 net.cpp:156] Memory required for data: 1207729440
I0403 15:04:55.499642 11582 layer_factory.hpp:77] Creating layer loss2/conv
I0403 15:04:55.499665 11582 net.cpp:91] Creating Layer loss2/conv
I0403 15:04:55.499681 11582 net.cpp:425] loss2/conv <- loss2/ave_pool
I0403 15:04:55.499702 11582 net.cpp:399] loss2/conv -> loss2/conv
I0403 15:04:55.501605 11582 net.cpp:141] Setting up loss2/conv
I0403 15:04:55.501633 11582 net.cpp:148] Top shape: 24 128 4 4 (49152)
I0403 15:04:55.501648 11582 net.cpp:156] Memory required for data: 1207926048
I0403 15:04:55.501665 11582 layer_factory.hpp:77] Creating layer loss2/relu_conv
I0403 15:04:55.501685 11582 net.cpp:91] Creating Layer loss2/relu_conv
I0403 15:04:55.501703 11582 net.cpp:425] loss2/relu_conv <- loss2/conv
I0403 15:04:55.501729 11582 net.cpp:386] loss2/relu_conv -> loss2/conv (in-place)
I0403 15:04:55.502015 11582 net.cpp:141] Setting up loss2/relu_conv
I0403 15:04:55.502041 11582 net.cpp:148] Top shape: 24 128 4 4 (49152)
I0403 15:04:55.502056 11582 net.cpp:156] Memory required for data: 1208122656
I0403 15:04:55.502070 11582 layer_factory.hpp:77] Creating layer loss2/fc
I0403 15:04:55.502091 11582 net.cpp:91] Creating Layer loss2/fc
I0403 15:04:55.502109 11582 net.cpp:425] loss2/fc <- loss2/conv
I0403 15:04:55.502130 11582 net.cpp:399] loss2/fc -> loss2/fc
I0403 15:04:55.519942 11582 net.cpp:141] Setting up loss2/fc
I0403 15:04:55.519979 11582 net.cpp:148] Top shape: 24 1024 (24576)
I0403 15:04:55.519994 11582 net.cpp:156] Memory required for data: 1208220960
I0403 15:04:55.520012 11582 layer_factory.hpp:77] Creating layer loss2/relu_fc
I0403 15:04:55.520031 11582 net.cpp:91] Creating Layer loss2/relu_fc
I0403 15:04:55.520048 11582 net.cpp:425] loss2/relu_fc <- loss2/fc
I0403 15:04:55.520068 11582 net.cpp:386] loss2/relu_fc -> loss2/fc (in-place)
I0403 15:04:55.520375 11582 net.cpp:141] Setting up loss2/relu_fc
I0403 15:04:55.520402 11582 net.cpp:148] Top shape: 24 1024 (24576)
I0403 15:04:55.520422 11582 net.cpp:156] Memory required for data: 1208319264
I0403 15:04:55.520437 11582 layer_factory.hpp:77] Creating layer loss2/drop_fc
I0403 15:04:55.520457 11582 net.cpp:91] Creating Layer loss2/drop_fc
I0403 15:04:55.520473 11582 net.cpp:425] loss2/drop_fc <- loss2/fc
I0403 15:04:55.520493 11582 net.cpp:386] loss2/drop_fc -> loss2/fc (in-place)
I0403 15:04:55.520544 11582 net.cpp:141] Setting up loss2/drop_fc
I0403 15:04:55.520570 11582 net.cpp:148] Top shape: 24 1024 (24576)
I0403 15:04:55.520583 11582 net.cpp:156] Memory required for data: 1208417568
I0403 15:04:55.520598 11582 layer_factory.hpp:77] Creating layer loss2/classifier_plantvillage
I0403 15:04:55.520617 11582 net.cpp:91] Creating Layer loss2/classifier_plantvillage
I0403 15:04:55.520632 11582 net.cpp:425] loss2/classifier_plantvillage <- loss2/fc
I0403 15:04:55.520655 11582 net.cpp:399] loss2/classifier_plantvillage -> loss2/classifier_plantvillage
I0403 15:04:55.521073 11582 net.cpp:141] Setting up loss2/classifier_plantvillage
I0403 15:04:55.521098 11582 net.cpp:148] Top shape: 24 38 (912)
I0403 15:04:55.521131 11582 net.cpp:156] Memory required for data: 1208421216
I0403 15:04:55.521150 11582 layer_factory.hpp:77] Creating layer loss2/classifier_plantvillage_loss2/classifier_plantvillage_0_split
I0403 15:04:55.521172 11582 net.cpp:91] Creating Layer loss2/classifier_plantvillage_loss2/classifier_plantvillage_0_split
I0403 15:04:55.521188 11582 net.cpp:425] loss2/classifier_plantvillage_loss2/classifier_plantvillage_0_split <- loss2/classifier_plantvillage
I0403 15:04:55.521206 11582 net.cpp:399] loss2/classifier_plantvillage_loss2/classifier_plantvillage_0_split -> loss2/classifier_plantvillage_loss2/classifier_plantvillage_0_split_0
I0403 15:04:55.521229 11582 net.cpp:399] loss2/classifier_plantvillage_loss2/classifier_plantvillage_0_split -> loss2/classifier_plantvillage_loss2/classifier_plantvillage_0_split_1
I0403 15:04:55.521250 11582 net.cpp:399] loss2/classifier_plantvillage_loss2/classifier_plantvillage_0_split -> loss2/classifier_plantvillage_loss2/classifier_plantvillage_0_split_2
I0403 15:04:55.521327 11582 net.cpp:141] Setting up loss2/classifier_plantvillage_loss2/classifier_plantvillage_0_split
I0403 15:04:55.521352 11582 net.cpp:148] Top shape: 24 38 (912)
I0403 15:04:55.521368 11582 net.cpp:148] Top shape: 24 38 (912)
I0403 15:04:55.521383 11582 net.cpp:148] Top shape: 24 38 (912)
I0403 15:04:55.521396 11582 net.cpp:156] Memory required for data: 1208432160
I0403 15:04:55.521414 11582 layer_factory.hpp:77] Creating layer inception_4e/1x1
I0403 15:04:55.521438 11582 net.cpp:91] Creating Layer inception_4e/1x1
I0403 15:04:55.521456 11582 net.cpp:425] inception_4e/1x1 <- inception_4d/output_inception_4d/output_0_split_1
I0403 15:04:55.521476 11582 net.cpp:399] inception_4e/1x1 -> inception_4e/1x1
I0403 15:04:55.523358 11582 net.cpp:141] Setting up inception_4e/1x1
I0403 15:04:55.523389 11582 net.cpp:148] Top shape: 24 256 14 14 (1204224)
I0403 15:04:55.523406 11582 net.cpp:156] Memory required for data: 1213249056
I0403 15:04:55.523429 11582 layer_factory.hpp:77] Creating layer inception_4e/relu_1x1
I0403 15:04:55.523448 11582 net.cpp:91] Creating Layer inception_4e/relu_1x1
I0403 15:04:55.523465 11582 net.cpp:425] inception_4e/relu_1x1 <- inception_4e/1x1
I0403 15:04:55.523483 11582 net.cpp:386] inception_4e/relu_1x1 -> inception_4e/1x1 (in-place)
I0403 15:04:55.523789 11582 net.cpp:141] Setting up inception_4e/relu_1x1
I0403 15:04:55.523818 11582 net.cpp:148] Top shape: 24 256 14 14 (1204224)
I0403 15:04:55.523833 11582 net.cpp:156] Memory required for data: 1218065952
I0403 15:04:55.523849 11582 layer_factory.hpp:77] Creating layer inception_4e/3x3_reduce
I0403 15:04:55.523871 11582 net.cpp:91] Creating Layer inception_4e/3x3_reduce
I0403 15:04:55.523890 11582 net.cpp:425] inception_4e/3x3_reduce <- inception_4d/output_inception_4d/output_0_split_2
I0403 15:04:55.523910 11582 net.cpp:399] inception_4e/3x3_reduce -> inception_4e/3x3_reduce
I0403 15:04:55.526108 11582 net.cpp:141] Setting up inception_4e/3x3_reduce
I0403 15:04:55.526137 11582 net.cpp:148] Top shape: 24 160 14 14 (752640)
I0403 15:04:55.526154 11582 net.cpp:156] Memory required for data: 1221076512
I0403 15:04:55.526171 11582 layer_factory.hpp:77] Creating layer inception_4e/relu_3x3_reduce
I0403 15:04:55.526192 11582 net.cpp:91] Creating Layer inception_4e/relu_3x3_reduce
I0403 15:04:55.526209 11582 net.cpp:425] inception_4e/relu_3x3_reduce <- inception_4e/3x3_reduce
I0403 15:04:55.526227 11582 net.cpp:386] inception_4e/relu_3x3_reduce -> inception_4e/3x3_reduce (in-place)
I0403 15:04:55.526433 11582 net.cpp:141] Setting up inception_4e/relu_3x3_reduce
I0403 15:04:55.526461 11582 net.cpp:148] Top shape: 24 160 14 14 (752640)
I0403 15:04:55.526478 11582 net.cpp:156] Memory required for data: 1224087072
I0403 15:04:55.526492 11582 layer_factory.hpp:77] Creating layer inception_4e/3x3
I0403 15:04:55.526515 11582 net.cpp:91] Creating Layer inception_4e/3x3
I0403 15:04:55.526531 11582 net.cpp:425] inception_4e/3x3 <- inception_4e/3x3_reduce
I0403 15:04:55.526552 11582 net.cpp:399] inception_4e/3x3 -> inception_4e/3x3
I0403 15:04:55.531893 11582 net.cpp:141] Setting up inception_4e/3x3
I0403 15:04:55.531944 11582 net.cpp:148] Top shape: 24 320 14 14 (1505280)
I0403 15:04:55.531961 11582 net.cpp:156] Memory required for data: 1230108192
I0403 15:04:55.531980 11582 layer_factory.hpp:77] Creating layer inception_4e/relu_3x3
I0403 15:04:55.531999 11582 net.cpp:91] Creating Layer inception_4e/relu_3x3
I0403 15:04:55.532016 11582 net.cpp:425] inception_4e/relu_3x3 <- inception_4e/3x3
I0403 15:04:55.532035 11582 net.cpp:386] inception_4e/relu_3x3 -> inception_4e/3x3 (in-place)
I0403 15:04:55.532356 11582 net.cpp:141] Setting up inception_4e/relu_3x3
I0403 15:04:55.532384 11582 net.cpp:148] Top shape: 24 320 14 14 (1505280)
I0403 15:04:55.532400 11582 net.cpp:156] Memory required for data: 1236129312
I0403 15:04:55.532426 11582 layer_factory.hpp:77] Creating layer inception_4e/5x5_reduce
I0403 15:04:55.532454 11582 net.cpp:91] Creating Layer inception_4e/5x5_reduce
I0403 15:04:55.532474 11582 net.cpp:425] inception_4e/5x5_reduce <- inception_4d/output_inception_4d/output_0_split_3
I0403 15:04:55.532496 11582 net.cpp:399] inception_4e/5x5_reduce -> inception_4e/5x5_reduce
I0403 15:04:55.533653 11582 net.cpp:141] Setting up inception_4e/5x5_reduce
I0403 15:04:55.533684 11582 net.cpp:148] Top shape: 24 32 14 14 (150528)
I0403 15:04:55.533699 11582 net.cpp:156] Memory required for data: 1236731424
I0403 15:04:55.533717 11582 layer_factory.hpp:77] Creating layer inception_4e/relu_5x5_reduce
I0403 15:04:55.533738 11582 net.cpp:91] Creating Layer inception_4e/relu_5x5_reduce
I0403 15:04:55.533756 11582 net.cpp:425] inception_4e/relu_5x5_reduce <- inception_4e/5x5_reduce
I0403 15:04:55.533773 11582 net.cpp:386] inception_4e/relu_5x5_reduce -> inception_4e/5x5_reduce (in-place)
I0403 15:04:55.534091 11582 net.cpp:141] Setting up inception_4e/relu_5x5_reduce
I0403 15:04:55.534118 11582 net.cpp:148] Top shape: 24 32 14 14 (150528)
I0403 15:04:55.534134 11582 net.cpp:156] Memory required for data: 1237333536
I0403 15:04:55.534150 11582 layer_factory.hpp:77] Creating layer inception_4e/5x5
I0403 15:04:55.534191 11582 net.cpp:91] Creating Layer inception_4e/5x5
I0403 15:04:55.534211 11582 net.cpp:425] inception_4e/5x5 <- inception_4e/5x5_reduce
I0403 15:04:55.534234 11582 net.cpp:399] inception_4e/5x5 -> inception_4e/5x5
I0403 15:04:55.536207 11582 net.cpp:141] Setting up inception_4e/5x5
I0403 15:04:55.536237 11582 net.cpp:148] Top shape: 24 128 14 14 (602112)
I0403 15:04:55.536253 11582 net.cpp:156] Memory required for data: 1239741984
I0403 15:04:55.536273 11582 layer_factory.hpp:77] Creating layer inception_4e/relu_5x5
I0403 15:04:55.536296 11582 net.cpp:91] Creating Layer inception_4e/relu_5x5
I0403 15:04:55.536315 11582 net.cpp:425] inception_4e/relu_5x5 <- inception_4e/5x5
I0403 15:04:55.536334 11582 net.cpp:386] inception_4e/relu_5x5 -> inception_4e/5x5 (in-place)
I0403 15:04:55.536550 11582 net.cpp:141] Setting up inception_4e/relu_5x5
I0403 15:04:55.536576 11582 net.cpp:148] Top shape: 24 128 14 14 (602112)
I0403 15:04:55.536592 11582 net.cpp:156] Memory required for data: 1242150432
I0403 15:04:55.536607 11582 layer_factory.hpp:77] Creating layer inception_4e/pool
I0403 15:04:55.536628 11582 net.cpp:91] Creating Layer inception_4e/pool
I0403 15:04:55.536646 11582 net.cpp:425] inception_4e/pool <- inception_4d/output_inception_4d/output_0_split_4
I0403 15:04:55.536665 11582 net.cpp:399] inception_4e/pool -> inception_4e/pool
I0403 15:04:55.536741 11582 net.cpp:141] Setting up inception_4e/pool
I0403 15:04:55.536767 11582 net.cpp:148] Top shape: 24 528 14 14 (2483712)
I0403 15:04:55.536782 11582 net.cpp:156] Memory required for data: 1252085280
I0403 15:04:55.536797 11582 layer_factory.hpp:77] Creating layer inception_4e/pool_proj
I0403 15:04:55.536819 11582 net.cpp:91] Creating Layer inception_4e/pool_proj
I0403 15:04:55.536837 11582 net.cpp:425] inception_4e/pool_proj <- inception_4e/pool
I0403 15:04:55.536859 11582 net.cpp:399] inception_4e/pool_proj -> inception_4e/pool_proj
I0403 15:04:55.538482 11582 net.cpp:141] Setting up inception_4e/pool_proj
I0403 15:04:55.538524 11582 net.cpp:148] Top shape: 24 128 14 14 (602112)
I0403 15:04:55.538540 11582 net.cpp:156] Memory required for data: 1254493728
I0403 15:04:55.538558 11582 layer_factory.hpp:77] Creating layer inception_4e/relu_pool_proj
I0403 15:04:55.538579 11582 net.cpp:91] Creating Layer inception_4e/relu_pool_proj
I0403 15:04:55.538597 11582 net.cpp:425] inception_4e/relu_pool_proj <- inception_4e/pool_proj
I0403 15:04:55.538616 11582 net.cpp:386] inception_4e/relu_pool_proj -> inception_4e/pool_proj (in-place)
I0403 15:04:55.538928 11582 net.cpp:141] Setting up inception_4e/relu_pool_proj
I0403 15:04:55.538954 11582 net.cpp:148] Top shape: 24 128 14 14 (602112)
I0403 15:04:55.538970 11582 net.cpp:156] Memory required for data: 1256902176
I0403 15:04:55.538985 11582 layer_factory.hpp:77] Creating layer inception_4e/output
I0403 15:04:55.539003 11582 net.cpp:91] Creating Layer inception_4e/output
I0403 15:04:55.539019 11582 net.cpp:425] inception_4e/output <- inception_4e/1x1
I0403 15:04:55.539036 11582 net.cpp:425] inception_4e/output <- inception_4e/3x3
I0403 15:04:55.539052 11582 net.cpp:425] inception_4e/output <- inception_4e/5x5
I0403 15:04:55.539069 11582 net.cpp:425] inception_4e/output <- inception_4e/pool_proj
I0403 15:04:55.539089 11582 net.cpp:399] inception_4e/output -> inception_4e/output
I0403 15:04:55.539141 11582 net.cpp:141] Setting up inception_4e/output
I0403 15:04:55.539170 11582 net.cpp:148] Top shape: 24 832 14 14 (3913728)
I0403 15:04:55.539186 11582 net.cpp:156] Memory required for data: 1272557088
I0403 15:04:55.539201 11582 layer_factory.hpp:77] Creating layer pool4/3x3_s2
I0403 15:04:55.539218 11582 net.cpp:91] Creating Layer pool4/3x3_s2
I0403 15:04:55.539234 11582 net.cpp:425] pool4/3x3_s2 <- inception_4e/output
I0403 15:04:55.539257 11582 net.cpp:399] pool4/3x3_s2 -> pool4/3x3_s2
I0403 15:04:55.539329 11582 net.cpp:141] Setting up pool4/3x3_s2
I0403 15:04:55.539352 11582 net.cpp:148] Top shape: 24 832 7 7 (978432)
I0403 15:04:55.539367 11582 net.cpp:156] Memory required for data: 1276470816
I0403 15:04:55.539382 11582 layer_factory.hpp:77] Creating layer pool4/3x3_s2_pool4/3x3_s2_0_split
I0403 15:04:55.539402 11582 net.cpp:91] Creating Layer pool4/3x3_s2_pool4/3x3_s2_0_split
I0403 15:04:55.539424 11582 net.cpp:425] pool4/3x3_s2_pool4/3x3_s2_0_split <- pool4/3x3_s2
I0403 15:04:55.539443 11582 net.cpp:399] pool4/3x3_s2_pool4/3x3_s2_0_split -> pool4/3x3_s2_pool4/3x3_s2_0_split_0
I0403 15:04:55.539464 11582 net.cpp:399] pool4/3x3_s2_pool4/3x3_s2_0_split -> pool4/3x3_s2_pool4/3x3_s2_0_split_1
I0403 15:04:55.539485 11582 net.cpp:399] pool4/3x3_s2_pool4/3x3_s2_0_split -> pool4/3x3_s2_pool4/3x3_s2_0_split_2
I0403 15:04:55.539510 11582 net.cpp:399] pool4/3x3_s2_pool4/3x3_s2_0_split -> pool4/3x3_s2_pool4/3x3_s2_0_split_3
I0403 15:04:55.539608 11582 net.cpp:141] Setting up pool4/3x3_s2_pool4/3x3_s2_0_split
I0403 15:04:55.539631 11582 net.cpp:148] Top shape: 24 832 7 7 (978432)
I0403 15:04:55.539649 11582 net.cpp:148] Top shape: 24 832 7 7 (978432)
I0403 15:04:55.539664 11582 net.cpp:148] Top shape: 24 832 7 7 (978432)
I0403 15:04:55.539680 11582 net.cpp:148] Top shape: 24 832 7 7 (978432)
I0403 15:04:55.539693 11582 net.cpp:156] Memory required for data: 1292125728
I0403 15:04:55.539708 11582 layer_factory.hpp:77] Creating layer inception_5a/1x1
I0403 15:04:55.539731 11582 net.cpp:91] Creating Layer inception_5a/1x1
I0403 15:04:55.539749 11582 net.cpp:425] inception_5a/1x1 <- pool4/3x3_s2_pool4/3x3_s2_0_split_0
I0403 15:04:55.539770 11582 net.cpp:399] inception_5a/1x1 -> inception_5a/1x1
I0403 15:04:55.542830 11582 net.cpp:141] Setting up inception_5a/1x1
I0403 15:04:55.542861 11582 net.cpp:148] Top shape: 24 256 7 7 (301056)
I0403 15:04:55.542877 11582 net.cpp:156] Memory required for data: 1293329952
I0403 15:04:55.542896 11582 layer_factory.hpp:77] Creating layer inception_5a/relu_1x1
I0403 15:04:55.542917 11582 net.cpp:91] Creating Layer inception_5a/relu_1x1
I0403 15:04:55.542934 11582 net.cpp:425] inception_5a/relu_1x1 <- inception_5a/1x1
I0403 15:04:55.542953 11582 net.cpp:386] inception_5a/relu_1x1 -> inception_5a/1x1 (in-place)
I0403 15:04:55.543289 11582 net.cpp:141] Setting up inception_5a/relu_1x1
I0403 15:04:55.543318 11582 net.cpp:148] Top shape: 24 256 7 7 (301056)
I0403 15:04:55.543334 11582 net.cpp:156] Memory required for data: 1294534176
I0403 15:04:55.543349 11582 layer_factory.hpp:77] Creating layer inception_5a/3x3_reduce
I0403 15:04:55.543372 11582 net.cpp:91] Creating Layer inception_5a/3x3_reduce
I0403 15:04:55.543391 11582 net.cpp:425] inception_5a/3x3_reduce <- pool4/3x3_s2_pool4/3x3_s2_0_split_1
I0403 15:04:55.543418 11582 net.cpp:399] inception_5a/3x3_reduce -> inception_5a/3x3_reduce
I0403 15:04:55.546042 11582 net.cpp:141] Setting up inception_5a/3x3_reduce
I0403 15:04:55.546075 11582 net.cpp:148] Top shape: 24 160 7 7 (188160)
I0403 15:04:55.546092 11582 net.cpp:156] Memory required for data: 1295286816
I0403 15:04:55.546111 11582 layer_factory.hpp:77] Creating layer inception_5a/relu_3x3_reduce
I0403 15:04:55.546130 11582 net.cpp:91] Creating Layer inception_5a/relu_3x3_reduce
I0403 15:04:55.546147 11582 net.cpp:425] inception_5a/relu_3x3_reduce <- inception_5a/3x3_reduce
I0403 15:04:55.546180 11582 net.cpp:386] inception_5a/relu_3x3_reduce -> inception_5a/3x3_reduce (in-place)
I0403 15:04:55.546373 11582 net.cpp:141] Setting up inception_5a/relu_3x3_reduce
I0403 15:04:55.546399 11582 net.cpp:148] Top shape: 24 160 7 7 (188160)
I0403 15:04:55.546418 11582 net.cpp:156] Memory required for data: 1296039456
I0403 15:04:55.546435 11582 layer_factory.hpp:77] Creating layer inception_5a/3x3
I0403 15:04:55.546458 11582 net.cpp:91] Creating Layer inception_5a/3x3
I0403 15:04:55.546478 11582 net.cpp:425] inception_5a/3x3 <- inception_5a/3x3_reduce
I0403 15:04:55.546499 11582 net.cpp:399] inception_5a/3x3 -> inception_5a/3x3
I0403 15:04:55.551705 11582 net.cpp:141] Setting up inception_5a/3x3
I0403 15:04:55.551736 11582 net.cpp:148] Top shape: 24 320 7 7 (376320)
I0403 15:04:55.551751 11582 net.cpp:156] Memory required for data: 1297544736
I0403 15:04:55.551769 11582 layer_factory.hpp:77] Creating layer inception_5a/relu_3x3
I0403 15:04:55.551790 11582 net.cpp:91] Creating Layer inception_5a/relu_3x3
I0403 15:04:55.551808 11582 net.cpp:425] inception_5a/relu_3x3 <- inception_5a/3x3
I0403 15:04:55.551826 11582 net.cpp:386] inception_5a/relu_3x3 -> inception_5a/3x3 (in-place)
I0403 15:04:55.552129 11582 net.cpp:141] Setting up inception_5a/relu_3x3
I0403 15:04:55.552155 11582 net.cpp:148] Top shape: 24 320 7 7 (376320)
I0403 15:04:55.552170 11582 net.cpp:156] Memory required for data: 1299050016
I0403 15:04:55.552186 11582 layer_factory.hpp:77] Creating layer inception_5a/5x5_reduce
I0403 15:04:55.552208 11582 net.cpp:91] Creating Layer inception_5a/5x5_reduce
I0403 15:04:55.552227 11582 net.cpp:425] inception_5a/5x5_reduce <- pool4/3x3_s2_pool4/3x3_s2_0_split_2
I0403 15:04:55.552248 11582 net.cpp:399] inception_5a/5x5_reduce -> inception_5a/5x5_reduce
I0403 15:04:55.553493 11582 net.cpp:141] Setting up inception_5a/5x5_reduce
I0403 15:04:55.553522 11582 net.cpp:148] Top shape: 24 32 7 7 (37632)
I0403 15:04:55.553539 11582 net.cpp:156] Memory required for data: 1299200544
I0403 15:04:55.553568 11582 layer_factory.hpp:77] Creating layer inception_5a/relu_5x5_reduce
I0403 15:04:55.553591 11582 net.cpp:91] Creating Layer inception_5a/relu_5x5_reduce
I0403 15:04:55.553609 11582 net.cpp:425] inception_5a/relu_5x5_reduce <- inception_5a/5x5_reduce
I0403 15:04:55.553627 11582 net.cpp:386] inception_5a/relu_5x5_reduce -> inception_5a/5x5_reduce (in-place)
I0403 15:04:55.553956 11582 net.cpp:141] Setting up inception_5a/relu_5x5_reduce
I0403 15:04:55.553982 11582 net.cpp:148] Top shape: 24 32 7 7 (37632)
I0403 15:04:55.553998 11582 net.cpp:156] Memory required for data: 1299351072
I0403 15:04:55.554013 11582 layer_factory.hpp:77] Creating layer inception_5a/5x5
I0403 15:04:55.554038 11582 net.cpp:91] Creating Layer inception_5a/5x5
I0403 15:04:55.554055 11582 net.cpp:425] inception_5a/5x5 <- inception_5a/5x5_reduce
I0403 15:04:55.554075 11582 net.cpp:399] inception_5a/5x5 -> inception_5a/5x5
I0403 15:04:55.555871 11582 net.cpp:141] Setting up inception_5a/5x5
I0403 15:04:55.555912 11582 net.cpp:148] Top shape: 24 128 7 7 (150528)
I0403 15:04:55.555927 11582 net.cpp:156] Memory required for data: 1299953184
I0403 15:04:55.555944 11582 layer_factory.hpp:77] Creating layer inception_5a/relu_5x5
I0403 15:04:55.555965 11582 net.cpp:91] Creating Layer inception_5a/relu_5x5
I0403 15:04:55.555982 11582 net.cpp:425] inception_5a/relu_5x5 <- inception_5a/5x5
I0403 15:04:55.556000 11582 net.cpp:386] inception_5a/relu_5x5 -> inception_5a/5x5 (in-place)
I0403 15:04:55.556205 11582 net.cpp:141] Setting up inception_5a/relu_5x5
I0403 15:04:55.556228 11582 net.cpp:148] Top shape: 24 128 7 7 (150528)
I0403 15:04:55.556242 11582 net.cpp:156] Memory required for data: 1300555296
I0403 15:04:55.556257 11582 layer_factory.hpp:77] Creating layer inception_5a/pool
I0403 15:04:55.556277 11582 net.cpp:91] Creating Layer inception_5a/pool
I0403 15:04:55.556293 11582 net.cpp:425] inception_5a/pool <- pool4/3x3_s2_pool4/3x3_s2_0_split_3
I0403 15:04:55.556310 11582 net.cpp:399] inception_5a/pool -> inception_5a/pool
I0403 15:04:55.556382 11582 net.cpp:141] Setting up inception_5a/pool
I0403 15:04:55.556406 11582 net.cpp:148] Top shape: 24 832 7 7 (978432)
I0403 15:04:55.556426 11582 net.cpp:156] Memory required for data: 1304469024
I0403 15:04:55.556440 11582 layer_factory.hpp:77] Creating layer inception_5a/pool_proj
I0403 15:04:55.556463 11582 net.cpp:91] Creating Layer inception_5a/pool_proj
I0403 15:04:55.556480 11582 net.cpp:425] inception_5a/pool_proj <- inception_5a/pool
I0403 15:04:55.556501 11582 net.cpp:399] inception_5a/pool_proj -> inception_5a/pool_proj
I0403 15:04:55.558809 11582 net.cpp:141] Setting up inception_5a/pool_proj
I0403 15:04:55.558841 11582 net.cpp:148] Top shape: 24 128 7 7 (150528)
I0403 15:04:55.558857 11582 net.cpp:156] Memory required for data: 1305071136
I0403 15:04:55.558876 11582 layer_factory.hpp:77] Creating layer inception_5a/relu_pool_proj
I0403 15:04:55.558892 11582 net.cpp:91] Creating Layer inception_5a/relu_pool_proj
I0403 15:04:55.558908 11582 net.cpp:425] inception_5a/relu_pool_proj <- inception_5a/pool_proj
I0403 15:04:55.558928 11582 net.cpp:386] inception_5a/relu_pool_proj -> inception_5a/pool_proj (in-place)
I0403 15:04:55.559233 11582 net.cpp:141] Setting up inception_5a/relu_pool_proj
I0403 15:04:55.559259 11582 net.cpp:148] Top shape: 24 128 7 7 (150528)
I0403 15:04:55.559273 11582 net.cpp:156] Memory required for data: 1305673248
I0403 15:04:55.559288 11582 layer_factory.hpp:77] Creating layer inception_5a/output
I0403 15:04:55.559305 11582 net.cpp:91] Creating Layer inception_5a/output
I0403 15:04:55.559320 11582 net.cpp:425] inception_5a/output <- inception_5a/1x1
I0403 15:04:55.559336 11582 net.cpp:425] inception_5a/output <- inception_5a/3x3
I0403 15:04:55.559352 11582 net.cpp:425] inception_5a/output <- inception_5a/5x5
I0403 15:04:55.559367 11582 net.cpp:425] inception_5a/output <- inception_5a/pool_proj
I0403 15:04:55.559386 11582 net.cpp:399] inception_5a/output -> inception_5a/output
I0403 15:04:55.559440 11582 net.cpp:141] Setting up inception_5a/output
I0403 15:04:55.559466 11582 net.cpp:148] Top shape: 24 832 7 7 (978432)
I0403 15:04:55.559481 11582 net.cpp:156] Memory required for data: 1309586976
I0403 15:04:55.559495 11582 layer_factory.hpp:77] Creating layer inception_5a/output_inception_5a/output_0_split
I0403 15:04:55.559514 11582 net.cpp:91] Creating Layer inception_5a/output_inception_5a/output_0_split
I0403 15:04:55.559528 11582 net.cpp:425] inception_5a/output_inception_5a/output_0_split <- inception_5a/output
I0403 15:04:55.559545 11582 net.cpp:399] inception_5a/output_inception_5a/output_0_split -> inception_5a/output_inception_5a/output_0_split_0
I0403 15:04:55.559567 11582 net.cpp:399] inception_5a/output_inception_5a/output_0_split -> inception_5a/output_inception_5a/output_0_split_1
I0403 15:04:55.559587 11582 net.cpp:399] inception_5a/output_inception_5a/output_0_split -> inception_5a/output_inception_5a/output_0_split_2
I0403 15:04:55.559607 11582 net.cpp:399] inception_5a/output_inception_5a/output_0_split -> inception_5a/output_inception_5a/output_0_split_3
I0403 15:04:55.559720 11582 net.cpp:141] Setting up inception_5a/output_inception_5a/output_0_split
I0403 15:04:55.559743 11582 net.cpp:148] Top shape: 24 832 7 7 (978432)
I0403 15:04:55.559759 11582 net.cpp:148] Top shape: 24 832 7 7 (978432)
I0403 15:04:55.559774 11582 net.cpp:148] Top shape: 24 832 7 7 (978432)
I0403 15:04:55.559788 11582 net.cpp:148] Top shape: 24 832 7 7 (978432)
I0403 15:04:55.559801 11582 net.cpp:156] Memory required for data: 1325241888
I0403 15:04:55.559815 11582 layer_factory.hpp:77] Creating layer inception_5b/1x1
I0403 15:04:55.559839 11582 net.cpp:91] Creating Layer inception_5b/1x1
I0403 15:04:55.559855 11582 net.cpp:425] inception_5b/1x1 <- inception_5a/output_inception_5a/output_0_split_0
I0403 15:04:55.559875 11582 net.cpp:399] inception_5b/1x1 -> inception_5b/1x1
I0403 15:04:55.563660 11582 net.cpp:141] Setting up inception_5b/1x1
I0403 15:04:55.563693 11582 net.cpp:148] Top shape: 24 384 7 7 (451584)
I0403 15:04:55.563709 11582 net.cpp:156] Memory required for data: 1327048224
I0403 15:04:55.563727 11582 layer_factory.hpp:77] Creating layer inception_5b/relu_1x1
I0403 15:04:55.563745 11582 net.cpp:91] Creating Layer inception_5b/relu_1x1
I0403 15:04:55.563760 11582 net.cpp:425] inception_5b/relu_1x1 <- inception_5b/1x1
I0403 15:04:55.563779 11582 net.cpp:386] inception_5b/relu_1x1 -> inception_5b/1x1 (in-place)
I0403 15:04:55.564085 11582 net.cpp:141] Setting up inception_5b/relu_1x1
I0403 15:04:55.564112 11582 net.cpp:148] Top shape: 24 384 7 7 (451584)
I0403 15:04:55.564127 11582 net.cpp:156] Memory required for data: 1328854560
I0403 15:04:55.564141 11582 layer_factory.hpp:77] Creating layer inception_5b/3x3_reduce
I0403 15:04:55.564163 11582 net.cpp:91] Creating Layer inception_5b/3x3_reduce
I0403 15:04:55.564180 11582 net.cpp:425] inception_5b/3x3_reduce <- inception_5a/output_inception_5a/output_0_split_1
I0403 15:04:55.564203 11582 net.cpp:399] inception_5b/3x3_reduce -> inception_5b/3x3_reduce
I0403 15:04:55.566892 11582 net.cpp:141] Setting up inception_5b/3x3_reduce
I0403 15:04:55.566921 11582 net.cpp:148] Top shape: 24 192 7 7 (225792)
I0403 15:04:55.566937 11582 net.cpp:156] Memory required for data: 1329757728
I0403 15:04:55.566956 11582 layer_factory.hpp:77] Creating layer inception_5b/relu_3x3_reduce
I0403 15:04:55.566974 11582 net.cpp:91] Creating Layer inception_5b/relu_3x3_reduce
I0403 15:04:55.566989 11582 net.cpp:425] inception_5b/relu_3x3_reduce <- inception_5b/3x3_reduce
I0403 15:04:55.567009 11582 net.cpp:386] inception_5b/relu_3x3_reduce -> inception_5b/3x3_reduce (in-place)
I0403 15:04:55.567199 11582 net.cpp:141] Setting up inception_5b/relu_3x3_reduce
I0403 15:04:55.567224 11582 net.cpp:148] Top shape: 24 192 7 7 (225792)
I0403 15:04:55.567239 11582 net.cpp:156] Memory required for data: 1330660896
I0403 15:04:55.567252 11582 layer_factory.hpp:77] Creating layer inception_5b/3x3
I0403 15:04:55.567273 11582 net.cpp:91] Creating Layer inception_5b/3x3
I0403 15:04:55.567291 11582 net.cpp:425] inception_5b/3x3 <- inception_5b/3x3_reduce
I0403 15:04:55.567312 11582 net.cpp:399] inception_5b/3x3 -> inception_5b/3x3
I0403 15:04:55.574102 11582 net.cpp:141] Setting up inception_5b/3x3
I0403 15:04:55.574132 11582 net.cpp:148] Top shape: 24 384 7 7 (451584)
I0403 15:04:55.574147 11582 net.cpp:156] Memory required for data: 1332467232
I0403 15:04:55.574164 11582 layer_factory.hpp:77] Creating layer inception_5b/relu_3x3
I0403 15:04:55.574182 11582 net.cpp:91] Creating Layer inception_5b/relu_3x3
I0403 15:04:55.574196 11582 net.cpp:425] inception_5b/relu_3x3 <- inception_5b/3x3
I0403 15:04:55.574215 11582 net.cpp:386] inception_5b/relu_3x3 -> inception_5b/3x3 (in-place)
I0403 15:04:55.574527 11582 net.cpp:141] Setting up inception_5b/relu_3x3
I0403 15:04:55.574555 11582 net.cpp:148] Top shape: 24 384 7 7 (451584)
I0403 15:04:55.574569 11582 net.cpp:156] Memory required for data: 1334273568
I0403 15:04:55.574584 11582 layer_factory.hpp:77] Creating layer inception_5b/5x5_reduce
I0403 15:04:55.574621 11582 net.cpp:91] Creating Layer inception_5b/5x5_reduce
I0403 15:04:55.574640 11582 net.cpp:425] inception_5b/5x5_reduce <- inception_5a/output_inception_5a/output_0_split_2
I0403 15:04:55.574664 11582 net.cpp:399] inception_5b/5x5_reduce -> inception_5b/5x5_reduce
I0403 15:04:55.575942 11582 net.cpp:141] Setting up inception_5b/5x5_reduce
I0403 15:04:55.575969 11582 net.cpp:148] Top shape: 24 48 7 7 (56448)
I0403 15:04:55.575984 11582 net.cpp:156] Memory required for data: 1334499360
I0403 15:04:55.576002 11582 layer_factory.hpp:77] Creating layer inception_5b/relu_5x5_reduce
I0403 15:04:55.576021 11582 net.cpp:91] Creating Layer inception_5b/relu_5x5_reduce
I0403 15:04:55.576040 11582 net.cpp:425] inception_5b/relu_5x5_reduce <- inception_5b/5x5_reduce
I0403 15:04:55.576056 11582 net.cpp:386] inception_5b/relu_5x5_reduce -> inception_5b/5x5_reduce (in-place)
I0403 15:04:55.576433 11582 net.cpp:141] Setting up inception_5b/relu_5x5_reduce
I0403 15:04:55.576462 11582 net.cpp:148] Top shape: 24 48 7 7 (56448)
I0403 15:04:55.576475 11582 net.cpp:156] Memory required for data: 1334725152
I0403 15:04:55.576490 11582 layer_factory.hpp:77] Creating layer inception_5b/5x5
I0403 15:04:55.576510 11582 net.cpp:91] Creating Layer inception_5b/5x5
I0403 15:04:55.576527 11582 net.cpp:425] inception_5b/5x5 <- inception_5b/5x5_reduce
I0403 15:04:55.576545 11582 net.cpp:399] inception_5b/5x5 -> inception_5b/5x5
I0403 15:04:55.578609 11582 net.cpp:141] Setting up inception_5b/5x5
I0403 15:04:55.578639 11582 net.cpp:148] Top shape: 24 128 7 7 (150528)
I0403 15:04:55.578655 11582 net.cpp:156] Memory required for data: 1335327264
I0403 15:04:55.578672 11582 layer_factory.hpp:77] Creating layer inception_5b/relu_5x5
I0403 15:04:55.578694 11582 net.cpp:91] Creating Layer inception_5b/relu_5x5
I0403 15:04:55.578711 11582 net.cpp:425] inception_5b/relu_5x5 <- inception_5b/5x5
I0403 15:04:55.578728 11582 net.cpp:386] inception_5b/relu_5x5 -> inception_5b/5x5 (in-place)
I0403 15:04:55.578923 11582 net.cpp:141] Setting up inception_5b/relu_5x5
I0403 15:04:55.578949 11582 net.cpp:148] Top shape: 24 128 7 7 (150528)
I0403 15:04:55.578964 11582 net.cpp:156] Memory required for data: 1335929376
I0403 15:04:55.578979 11582 layer_factory.hpp:77] Creating layer inception_5b/pool
I0403 15:04:55.578996 11582 net.cpp:91] Creating Layer inception_5b/pool
I0403 15:04:55.579012 11582 net.cpp:425] inception_5b/pool <- inception_5a/output_inception_5a/output_0_split_3
I0403 15:04:55.579030 11582 net.cpp:399] inception_5b/pool -> inception_5b/pool
I0403 15:04:55.579105 11582 net.cpp:141] Setting up inception_5b/pool
I0403 15:04:55.579128 11582 net.cpp:148] Top shape: 24 832 7 7 (978432)
I0403 15:04:55.579143 11582 net.cpp:156] Memory required for data: 1339843104
I0403 15:04:55.579156 11582 layer_factory.hpp:77] Creating layer inception_5b/pool_proj
I0403 15:04:55.579179 11582 net.cpp:91] Creating Layer inception_5b/pool_proj
I0403 15:04:55.579196 11582 net.cpp:425] inception_5b/pool_proj <- inception_5b/pool
I0403 15:04:55.579217 11582 net.cpp:399] inception_5b/pool_proj -> inception_5b/pool_proj
I0403 15:04:55.581614 11582 net.cpp:141] Setting up inception_5b/pool_proj
I0403 15:04:55.581645 11582 net.cpp:148] Top shape: 24 128 7 7 (150528)
I0403 15:04:55.581688 11582 net.cpp:156] Memory required for data: 1340445216
I0403 15:04:55.581728 11582 layer_factory.hpp:77] Creating layer inception_5b/relu_pool_proj
I0403 15:04:55.581773 11582 net.cpp:91] Creating Layer inception_5b/relu_pool_proj
I0403 15:04:55.581791 11582 net.cpp:425] inception_5b/relu_pool_proj <- inception_5b/pool_proj
I0403 15:04:55.581809 11582 net.cpp:386] inception_5b/relu_pool_proj -> inception_5b/pool_proj (in-place)
I0403 15:04:55.582118 11582 net.cpp:141] Setting up inception_5b/relu_pool_proj
I0403 15:04:55.582144 11582 net.cpp:148] Top shape: 24 128 7 7 (150528)
I0403 15:04:55.582159 11582 net.cpp:156] Memory required for data: 1341047328
I0403 15:04:55.582175 11582 layer_factory.hpp:77] Creating layer inception_5b/output
I0403 15:04:55.582192 11582 net.cpp:91] Creating Layer inception_5b/output
I0403 15:04:55.582223 11582 net.cpp:425] inception_5b/output <- inception_5b/1x1
I0403 15:04:55.582242 11582 net.cpp:425] inception_5b/output <- inception_5b/3x3
I0403 15:04:55.582262 11582 net.cpp:425] inception_5b/output <- inception_5b/5x5
I0403 15:04:55.582278 11582 net.cpp:425] inception_5b/output <- inception_5b/pool_proj
I0403 15:04:55.582294 11582 net.cpp:399] inception_5b/output -> inception_5b/output
I0403 15:04:55.582346 11582 net.cpp:141] Setting up inception_5b/output
I0403 15:04:55.582375 11582 net.cpp:148] Top shape: 24 1024 7 7 (1204224)
I0403 15:04:55.582391 11582 net.cpp:156] Memory required for data: 1345864224
I0403 15:04:55.582404 11582 layer_factory.hpp:77] Creating layer pool5/7x7_s1
I0403 15:04:55.582435 11582 net.cpp:91] Creating Layer pool5/7x7_s1
I0403 15:04:55.582453 11582 net.cpp:425] pool5/7x7_s1 <- inception_5b/output
I0403 15:04:55.582475 11582 net.cpp:399] pool5/7x7_s1 -> pool5/7x7_s1
I0403 15:04:55.582697 11582 net.cpp:141] Setting up pool5/7x7_s1
I0403 15:04:55.582723 11582 net.cpp:148] Top shape: 24 1024 1 1 (24576)
I0403 15:04:55.582737 11582 net.cpp:156] Memory required for data: 1345962528
I0403 15:04:55.582752 11582 layer_factory.hpp:77] Creating layer pool5/drop_7x7_s1
I0403 15:04:55.582772 11582 net.cpp:91] Creating Layer pool5/drop_7x7_s1
I0403 15:04:55.582789 11582 net.cpp:425] pool5/drop_7x7_s1 <- pool5/7x7_s1
I0403 15:04:55.582808 11582 net.cpp:386] pool5/drop_7x7_s1 -> pool5/7x7_s1 (in-place)
I0403 15:04:55.582859 11582 net.cpp:141] Setting up pool5/drop_7x7_s1
I0403 15:04:55.582885 11582 net.cpp:148] Top shape: 24 1024 1 1 (24576)
I0403 15:04:55.582900 11582 net.cpp:156] Memory required for data: 1346060832
I0403 15:04:55.582914 11582 layer_factory.hpp:77] Creating layer loss3/classifier_plantvillage
I0403 15:04:55.582933 11582 net.cpp:91] Creating Layer loss3/classifier_plantvillage
I0403 15:04:55.582949 11582 net.cpp:425] loss3/classifier_plantvillage <- pool5/7x7_s1
I0403 15:04:55.582970 11582 net.cpp:399] loss3/classifier_plantvillage -> loss3/classifier_plantvillage
I0403 15:04:55.583415 11582 net.cpp:141] Setting up loss3/classifier_plantvillage
I0403 15:04:55.583473 11582 net.cpp:148] Top shape: 24 38 (912)
I0403 15:04:55.583515 11582 net.cpp:156] Memory required for data: 1346064480
I0403 15:04:55.583564 11582 layer_factory.hpp:77] Creating layer loss3/classifier_plantvillage_loss3/classifier_plantvillage_0_split
I0403 15:04:55.583581 11582 net.cpp:91] Creating Layer loss3/classifier_plantvillage_loss3/classifier_plantvillage_0_split
I0403 15:04:55.583598 11582 net.cpp:425] loss3/classifier_plantvillage_loss3/classifier_plantvillage_0_split <- loss3/classifier_plantvillage
I0403 15:04:55.583616 11582 net.cpp:399] loss3/classifier_plantvillage_loss3/classifier_plantvillage_0_split -> loss3/classifier_plantvillage_loss3/classifier_plantvillage_0_split_0
I0403 15:04:55.583638 11582 net.cpp:399] loss3/classifier_plantvillage_loss3/classifier_plantvillage_0_split -> loss3/classifier_plantvillage_loss3/classifier_plantvillage_0_split_1
I0403 15:04:55.583659 11582 net.cpp:399] loss3/classifier_plantvillage_loss3/classifier_plantvillage_0_split -> loss3/classifier_plantvillage_loss3/classifier_plantvillage_0_split_2
I0403 15:04:55.583680 11582 net.cpp:399] loss3/classifier_plantvillage_loss3/classifier_plantvillage_0_split -> loss3/classifier_plantvillage_loss3/classifier_plantvillage_0_split_3
I0403 15:04:55.583787 11582 net.cpp:141] Setting up loss3/classifier_plantvillage_loss3/classifier_plantvillage_0_split
I0403 15:04:55.583811 11582 net.cpp:148] Top shape: 24 38 (912)
I0403 15:04:55.583827 11582 net.cpp:148] Top shape: 24 38 (912)
I0403 15:04:55.583842 11582 net.cpp:148] Top shape: 24 38 (912)
I0403 15:04:55.583856 11582 net.cpp:148] Top shape: 24 38 (912)
I0403 15:04:55.583869 11582 net.cpp:156] Memory required for data: 1346079072
I0403 15:04:55.583884 11582 layer_factory.hpp:77] Creating layer loss1/loss
I0403 15:04:55.583909 11582 net.cpp:91] Creating Layer loss1/loss
I0403 15:04:55.583925 11582 net.cpp:425] loss1/loss <- loss1/classifier_plantvillage_loss1/classifier_plantvillage_0_split_0
I0403 15:04:55.583956 11582 net.cpp:425] loss1/loss <- label_data_1_split_0
…
