…
I0403 15:32:34.587780 12068 net.cpp:313] The NetState phase (1) differed from the phase (0) specified by a rule in layer data
I0403 15:32:34.588897 12068 net.cpp:49] Initializing net from parameters: 
state {
  phase: TEST
}
layer {
  name: "data"
  type: "Data"
  top: "data"
  top: "label"
  include {
    phase: TEST
  }
  transform_param {
    mirror: false
    crop_size: 224
    mean_file: "/home/mohanty/data/final_dataset/lmdb/segmented-50-50/mean.binaryproto"
  }
  data_param {
    source: "/home/mohanty/data/final_dataset/lmdb/segmented-50-50/test_db"
    batch_size: 24
    backend: LMDB
  }
}
layer {
  name: "conv1/7x7_s2"
  type: "Convolution"
  bottom: "data"
  top: "conv1/7x7_s2"
  param {
    lr_mult: 1
    decay_mult: 1
  }
  param {
    lr_mult: 2
    decay_mult: 0
  }
  convolution_param {
    num_output: 64
    pad: 3
    kernel_size: 7
    stride: 2
    weight_filler {
      type: "xavier"
      std: 0.1
    }
    bias_filler {
      type: "constant"
      value: 0.2
    }
  }
}
layer {
  name: "conv1/relu_7x7"
  type: "ReLU"
  bottom: "conv1/7x7_s2"
  top: "conv1/7x7_s2"
}
layer {
  name: "pool1/3x3_s2"
  type: "Pooling"
  bottom: "conv1/7x7_s2"
  top: "pool1/3x3_s2"
  pooling_param {
    pool: MAX
    kernel_size: 3
    stride: 2
  }
}
layer {
  name: "pool1/norm1"
  type: "LRN"
  bottom: "pool1/3x3_s2"
  top: "pool1/norm1"
  lrn_param {
    local_size: 5
    alpha: 0.0001
    beta: 0.75
  }
}
layer {
  name: "conv2/3x3_reduce"
  type: "Convolution"
  bottom: "pool1/norm1"
  top: "conv2/3x3_reduce"
  param {
    lr_mult: 1
    decay_mult: 1
  }
  param {
    lr_mult: 2
    decay_mult: 0
  }
  convolution_param {
    num_output: 64
    kernel_size: 1
    weight_filler {
      type: "xavier"
      std: 0.1
    }
    bias_filler {
      type: "constant"
      value: 0.2
    }
  }
}
layer {
  name: "conv2/relu_3x3_reduce"
  type: "ReLU"
  bottom: "conv2/3x3_reduce"
  top: "conv2/3x3_reduce"
}
layer {
  name: "conv2/3x3"
  type: "Convolution"
  bottom: "conv2/3x3_reduce"
  top: "conv2/3x3"
  param {
    lr_mult: 1
    decay_mult: 1
  }
  param {
    lr_mult: 2
    decay_mult: 0
  }
  convolution_param {
    num_output: 192
    pad: 1
    kernel_size: 3
    weight_filler {
      type: "xavier"
      std: 0.03
    }
    bias_filler {
      type: "constant"
      value: 0.2
    }
  }
}
layer {
  name: "conv2/relu_3x3"
  type: "ReLU"
  bottom: "conv2/3x3"
  top: "conv2/3x3"
}
layer {
  name: "conv2/norm2"
  type: "LRN"
  bottom: "conv2/3x3"
  top: "conv2/norm2"
  lrn_param {
    local_size: 5
    alpha: 0.0001
    beta: 0.75
  }
}
layer {
  name: "pool2/3x3_s2"
  type: "Pooling"
  bottom: "conv2/norm2"
  top: "pool2/3x3_s2"
  pooling_param {
    pool: MAX
    kernel_size: 3
    stride: 2
  }
}
layer {
  name: "inception_3a/1x1"
  type: "Convolution"
  bottom: "pool2/3x3_s2"
  top: "inception_3a/1x1"
  param {
    lr_mult: 1
    decay_mult: 1
  }
  param {
    lr_mult: 2
    decay_mult: 0
  }
  convolution_param {
    num_output: 64
    kernel_size: 1
    weight_filler {
      type: "xavier"
      std: 0.03
    }
    bias_filler {
      type: "constant"
      value: 0.2
    }
  }
}
layer {
  name: "inception_3a/relu_1x1"
  type: "ReLU"
  bottom: "inception_3a/1x1"
  top: "inception_3a/1x1"
}
layer {
  name: "inception_3a/3x3_reduce"
  type: "Convolution"
  bottom: "pool2/3x3_s2"
  top: "inception_3a/3x3_reduce"
  param {
    lr_mult: 1
    decay_mult: 1
  }
  param {
    lr_mult: 2
    decay_mult: 0
  }
  convolution_param {
    num_output: 96
    kernel_size: 1
    weight_filler {
      type: "xavier"
      std: 0.09
    }
    bias_filler {
      type: "constant"
      value: 0.2
    }
  }
}
layer {
  name: "inception_3a/relu_3x3_reduce"
  type: "ReLU"
  bottom: "inception_3a/3x3_reduce"
  top: "inception_3a/3x3_reduce"
}
layer {
  name: "inception_3a/3x3"
  type: "Convolution"
  bottom: "inception_3a/3x3_reduce"
  top: "inception_3a/3x3"
  param {
    lr_mult: 1
    decay_mult: 1
  }
  param {
    lr_mult: 2
    decay_mult: 0
  }
  convolution_param {
    num_output: 128
    pad: 1
    kernel_size: 3
    weight_filler {
      type: "xavier"
      std: 0.03
    }
    bias_filler {
      type: "constant"
      value: 0.2
    }
  }
}
layer {
  name: "inception_3a/relu_3x3"
  type: "ReLU"
  bottom: "inception_3a/3x3"
  top: "inception_3a/3x3"
}
layer {
  name: "inception_3a/5x5_reduce"
  type: "Convolution"
  bottom: "pool2/3x3_s2"
  top: "inception_3a/5x5_reduce"
  param {
    lr_mult: 1
    decay_mult: 1
  }
  param {
    lr_mult: 2
    decay_mult: 0
  }
  convolution_param {
    num_output: 16
    kernel_size: 1
    weight_filler {
      type: "xavier"
      std: 0.2
    }
    bias_filler {
      type: "constant"
      value: 0.2
    }
  }
}
layer {
  name: "inception_3a/relu_5x5_reduce"
  type: "ReLU"
  bottom: "inception_3a/5x5_reduce"
  top: "inception_3a/5x5_reduce"
}
layer {
  name: "inception_3a/5x5"
  type: "Convolution"
  bottom: "inception_3a/5x5_reduce"
  top: "inception_3a/5x5"
  param {
    lr_mult: 1
    decay_mult: 1
  }
  param {
    lr_mult: 2
    decay_mult: 0
  }
  convolution_param {
    num_output: 32
    pad: 2
    kernel_size: 5
    weight_filler {
      type: "xavier"
      std: 0.03
    }
    bias_filler {
      type: "constant"
      value: 0.2
    }
  }
}
layer {
  name: "inception_3a/relu_5x5"
  type: "ReLU"
  bottom: "inception_3a/5x5"
  top: "inception_3a/5x5"
}
layer {
  name: "inception_3a/pool"
  type: "Pooling"
  bottom: "pool2/3x3_s2"
  top: "inception_3a/pool"
  pooling_param {
    pool: MAX
    kernel_size: 3
    stride: 1
    pad: 1
  }
}
layer {
  name: "inception_3a/pool_proj"
  type: "Convolution"
  bottom: "inception_3a/pool"
  top: "inception_3a/pool_proj"
  param {
    lr_mult: 1
    decay_mult: 1
  }
  param {
    lr_mult: 2
    decay_mult: 0
  }
  convolution_param {
    num_output: 32
    kernel_size: 1
    weight_filler {
      type: "xavier"
      std: 0.1
    }
    bias_filler {
      type: "constant"
      value: 0.2
    }
  }
}
layer {
  name: "inception_3a/relu_pool_proj"
  type: "ReLU"
  bottom: "inception_3a/pool_proj"
  top: "inception_3a/pool_proj"
}
layer {
  name: "inception_3a/output"
  type: "Concat"
  bottom: "inception_3a/1x1"
  bottom: "inception_3a/3x3"
  bottom: "inception_3a/5x5"
  bottom: "inception_3a/pool_proj"
  top: "inception_3a/output"
}
layer {
  name: "inception_3b/1x1"
  type: "Convolution"
  bottom: "inception_3a/output"
  top: "inception_3b/1x1"
  param {
    lr_mult: 1
    decay_mult: 1
  }
  param {
    lr_mult: 2
    decay_mult: 0
  }
  convolution_param {
    num_output: 128
    kernel_size: 1
    weight_filler {
      type: "xavier"
      std: 0.03
    }
    bias_filler {
      type: "constant"
      value: 0.2
    }
  }
}
layer {
  name: "inception_3b/relu_1x1"
  type: "ReLU"
  bottom: "inception_3b/1x1"
  top: "inception_3b/1x1"
}
layer {
  name: "inception_3b/3x3_reduce"
  type: "Convolution"
  bottom: "inception_3a/output"
  top: "inception_3b/3x3_reduce"
  param {
    lr_mult: 1
    decay_mult: 1
  }
  param {
    lr_mult: 2
    decay_mult: 0
  }
  convolution_param {
    num_output: 128
    kernel_size: 1
    weight_filler {
      type: "xavier"
      std: 0.09
    }
    bias_filler {
      type: "constant"
      value: 0.2
    }
  }
}
layer {
  name: "inception_3b/relu_3x3_reduce"
  type: "ReLU"
  bottom: "inception_3b/3x3_reduce"
  top: "inception_3b/3x3_reduce"
}
layer {
  name: "inception_3b/3x3"
  type: "Convolution"
  bottom: "inception_3b/3x3_reduce"
  top: "inception_3b/3x3"
  param {
    lr_mult: 1
    decay_mult: 1
  }
  param {
    lr_mult: 2
    decay_mult: 0
  }
  convolution_param {
    num_output: 192
    pad: 1
    kernel_size: 3
    weight_filler {
      type: "xavier"
      std: 0.03
    }
    bias_filler {
      type: "constant"
      value: 0.2
    }
  }
}
layer {
  name: "inception_3b/relu_3x3"
  type: "ReLU"
  bottom: "inception_3b/3x3"
  top: "inception_3b/3x3"
}
layer {
  name: "inception_3b/5x5_reduce"
  type: "Convolution"
  bottom: "inception_3a/output"
  top: "inception_3b/5x5_reduce"
  param {
    lr_mult: 1
    decay_mult: 1
  }
  param {
    lr_mult: 2
    decay_mult: 0
  }
  convolution_param {
    num_output: 32
    kernel_size: 1
    weight_filler {
      type: "xavier"
      std: 0.2
    }
    bias_filler {
      type: "constant"
      value: 0.2
    }
  }
}
layer {
  name: "inception_3b/relu_5x5_reduce"
  type: "ReLU"
  bottom: "inception_3b/5x5_reduce"
  top: "inception_3b/5x5_reduce"
}
layer {
  name: "inception_3b/5x5"
  type: "Convolution"
  bottom: "inception_3b/5x5_reduce"
  top: "inception_3b/5x5"
  param {
    lr_mult: 1
    decay_mult: 1
  }
  param {
    lr_mult: 2
    decay_mult: 0
  }
  convolution_param {
    num_output: 96
    pad: 2
    kernel_size: 5
    weight_filler {
      type: "xavier"
      std: 0.03
    }
    bias_filler {
      type: "constant"
      value: 0.2
    }
  }
}
layer {
  name: "inception_3b/relu_5x5"
  type: "ReLU"
  bottom: "inception_3b/5x5"
  top: "inception_3b/5x5"
}
layer {
  name: "inception_3b/pool"
  type: "Pooling"
  bottom: "inception_3a/output"
  top: "inception_3b/pool"
  pooling_param {
    pool: MAX
    kernel_size: 3
    stride: 1
    pad: 1
  }
}
layer {
  name: "inception_3b/pool_proj"
  type: "Convolution"
  bottom: "inception_3b/pool"
  top: "inception_3b/pool_proj"
  param {
    lr_mult: 1
    decay_mult: 1
  }
  param {
    lr_mult: 2
    decay_mult: 0
  }
  convolution_param {
    num_output: 64
    kernel_size: 1
    weight_filler {
      type: "xavier"
      std: 0.1
    }
    bias_filler {
      type: "constant"
      value: 0.2
    }
  }
}
layer {
  name: "inception_3b/relu_pool_proj"
  type: "ReLU"
  bottom: "inception_3b/pool_proj"
  top: "inception_3b/pool_proj"
}
layer {
  name: "inception_3b/output"
  type: "Concat"
  bottom: "inception_3b/1x1"
  bottom: "inception_3b/3x3"
  bottom: "inception_3b/5x5"
  bottom: "inception_3b/pool_proj"
  top: "inception_3b/output"
}
layer {
  name: "pool3/3x3_s2"
  type: "Pooling"
  bottom: "inception_3b/output"
  top: "pool3/3x3_s2"
  pooling_param {
    pool: MAX
    kernel_size: 3
    stride: 2
  }
}
layer {
  name: "inception_4a/1x1"
  type: "Convolution"
  bottom: "pool3/3x3_s2"
  top: "inception_4a/1x1"
  param {
    lr_mult: 1
    decay_mult: 1
  }
  param {
    lr_mult: 2
    decay_mult: 0
  }
  convolution_param {
    num_output: 192
    kernel_size: 1
    weight_filler {
      type: "xavier"
      std: 0.03
    }
    bias_filler {
      type: "constant"
      value: 0.2
    }
  }
}
layer {
  name: "inception_4a/relu_1x1"
  type: "ReLU"
  bottom: "inception_4a/1x1"
  top: "inception_4a/1x1"
}
layer {
  name: "inception_4a/3x3_reduce"
  type: "Convolution"
  bottom: "pool3/3x3_s2"
  top: "inception_4a/3x3_reduce"
  param {
    lr_mult: 1
    decay_mult: 1
  }
  param {
    lr_mult: 2
    decay_mult: 0
  }
  convolution_param {
    num_output: 96
    kernel_size: 1
    weight_filler {
      type: "xavier"
      std: 0.09
    }
    bias_filler {
      type: "constant"
      value: 0.2
    }
  }
}
layer {
  name: "inception_4a/relu_3x3_reduce"
  type: "ReLU"
  bottom: "inception_4a/3x3_reduce"
  top: "inception_4a/3x3_reduce"
}
layer {
  name: "inception_4a/3x3"
  type: "Convolution"
  bottom: "inception_4a/3x3_reduce"
  top: "inception_4a/3x3"
  param {
    lr_mult: 1
    decay_mult: 1
  }
  param {
    lr_mult: 2
    decay_mult: 0
  }
  convolution_param {
    num_output: 208
    pad: 1
    kernel_size: 3
    weight_filler {
      type: "xavier"
      std: 0.03
    }
    bias_filler {
      type: "constant"
      value: 0.2
    }
  }
}
layer {
  name: "inception_4a/relu_3x3"
  type: "ReLU"
  bottom: "inception_4a/3x3"
  top: "inception_4a/3x3"
}
layer {
  name: "inception_4a/5x5_reduce"
  type: "Convolution"
  bottom: "pool3/3x3_s2"
  top: "inception_4a/5x5_reduce"
  param {
    lr_mult: 1
    decay_mult: 1
  }
  param {
    lr_mult: 2
    decay_mult: 0
  }
  convolution_param {
    num_output: 16
    kernel_size: 1
    weight_filler {
      type: "xavier"
      std: 0.2
    }
    bias_filler {
      type: "constant"
      value: 0.2
    }
  }
}
layer {
  name: "inception_4a/relu_5x5_reduce"
  type: "ReLU"
  bottom: "inception_4a/5x5_reduce"
  top: "inception_4a/5x5_reduce"
}
layer {
  name: "inception_4a/5x5"
  type: "Convolution"
  bottom: "inception_4a/5x5_reduce"
  top: "inception_4a/5x5"
  param {
    lr_mult: 1
    decay_mult: 1
  }
  param {
    lr_mult: 2
    decay_mult: 0
  }
  convolution_param {
    num_output: 48
    pad: 2
    kernel_size: 5
    weight_filler {
      type: "xavier"
      std: 0.03
    }
    bias_filler {
      type: "constant"
      value: 0.2
    }
  }
}
layer {
  name: "inception_4a/relu_5x5"
  type: "ReLU"
  bottom: "inception_4a/5x5"
  top: "inception_4a/5x5"
}
layer {
  name: "inception_4a/pool"
  type: "Pooling"
  bottom: "pool3/3x3_s2"
  top: "inception_4a/pool"
  pooling_param {
    pool: MAX
    kernel_size: 3
    stride: 1
    pad: 1
  }
}
layer {
  name: "inception_4a/pool_proj"
  type: "Convolution"
  bottom: "inception_4a/pool"
  top: "inception_4a/pool_proj"
  param {
    lr_mult: 1
    decay_mult: 1
  }
  param {
    lr_mult: 2
    decay_mult: 0
  }
  convolution_param {
    num_output: 64
    kernel_size: 1
    weight_filler {
      type: "xavier"
      std: 0.1
    }
    bias_filler {
      type: "constant"
      value: 0.2
    }
  }
}
layer {
  name: "inception_4a/relu_pool_proj"
  type: "ReLU"
  bottom: "inception_4a/pool_proj"
  top: "inception_4a/pool_proj"
}
layer {
  name: "inception_4a/output"
  type: "Concat"
  bottom: "inception_4a/1x1"
  bottom: "inception_4a/3x3"
  bottom: "inception_4a/5x5"
  bottom: "inception_4a/pool_proj"
  top: "inception_4a/output"
}
layer {
  name: "loss1/ave_pool"
  type: "Pooling"
  bottom: "inception_4a/output"
  top: "loss1/ave_pool"
  pooling_param {
    pool: AVE
    kernel_size: 5
    stride: 3
  }
}
layer {
  name: "loss1/conv"
  type: "Convolution"
  bottom: "loss1/ave_pool"
  top: "loss1/conv"
  param {
    lr_mult: 1
    decay_mult: 1
  }
  param {
    lr_mult: 2
    decay_mult: 0
  }
  convolution_param {
    num_output: 128
    kernel_size: 1
    weight_filler {
      type: "xavier"
      std: 0.08
    }
    bias_filler {
      type: "constant"
      value: 0.2
    }
  }
}
layer {
  name: "loss1/relu_conv"
  type: "ReLU"
  bottom: "loss1/conv"
  top: "loss1/conv"
}
layer {
  name: "loss1/fc"
  type: "InnerProduct"
  bottom: "loss1/conv"
  top: "loss1/fc"
  param {
    lr_mult: 1
    decay_mult: 1
  }
  param {
    lr_mult: 2
    decay_mult: 0
  }
  inner_product_param {
    num_output: 1024
    weight_filler {
      type: "xavier"
      std: 0.02
    }
    bias_filler {
      type: "constant"
      value: 0.2
    }
  }
}
layer {
  name: "loss1/relu_fc"
  type: "ReLU"
  bottom: "loss1/fc"
  top: "loss1/fc"
}
layer {
  name: "loss1/drop_fc"
  type: "Dropout"
  bottom: "loss1/fc"
  top: "loss1/fc"
  dropout_param {
    dropout_ratio: 0.7
  }
}
layer {
  name: "loss1/classifier_plantvillage"
  type: "InnerProduct"
  bottom: "loss1/fc"
  top: "loss1/classifier_plantvillage"
  param {
    lr_mult: 1
    decay_mult: 1
  }
  param {
    lr_mult: 2
    decay_mult: 0
  }
  inner_product_param {
    num_output: 38
    weight_filler {
      type: "xavier"
      std: 0.0009765625
    }
    bias_filler {
      type: "constant"
      value: 0
    }
  }
}
layer {
  name: "inception_4b/1x1"
  type: "Convolution"
  bottom: "inception_4a/output"
  top: "inception_4b/1x1"
  param {
    lr_mult: 1
    decay_mult: 1
  }
  param {
    lr_mult: 2
    decay_mult: 0
  }
  convolution_param {
    num_output: 160
    kernel_size: 1
    weight_filler {
      type: "xavier"
      std: 0.03
    }
    bias_filler {
      type: "constant"
      value: 0.2
    }
  }
}
layer {
  name: "inception_4b/relu_1x1"
  type: "ReLU"
  bottom: "inception_4b/1x1"
  top: "inception_4b/1x1"
}
layer {
  name: "inception_4b/3x3_reduce"
  type: "Convolution"
  bottom: "inception_4a/output"
  top: "inception_4b/3x3_reduce"
  param {
    lr_mult: 1
    decay_mult: 1
  }
  param {
    lr_mult: 2
    decay_mult: 0
  }
  convolution_param {
    num_output: 112
    kernel_size: 1
    weight_filler {
      type: "xavier"
      std: 0.09
    }
    bias_filler {
      type: "constant"
      value: 0.2
    }
  }
}
layer {
  name: "inception_4b/relu_3x3_reduce"
  type: "ReLU"
  bottom: "inception_4b/3x3_reduce"
  top: "inception_4b/3x3_reduce"
}
layer {
  name: "inception_4b/3x3"
  type: "Convolution"
  bottom: "inception_4b/3x3_reduce"
  top: "inception_4b/3x3"
  param {
    lr_mult: 1
    decay_mult: 1
  }
  param {
    lr_mult: 2
    decay_mult: 0
  }
  convolution_param {
    num_output: 224
    pad: 1
    kernel_size: 3
    weight_filler {
      type: "xavier"
      std: 0.03
    }
    bias_filler {
      type: "constant"
      value: 0.2
    }
  }
}
layer {
  name: "inception_4b/relu_3x3"
  type: "ReLU"
  bottom: "inception_4b/3x3"
  top: "inception_4b/3x3"
}
layer {
  name: "inception_4b/5x5_reduce"
  type: "Convolution"
  bottom: "inception_4a/output"
  top: "inception_4b/5x5_reduce"
  param {
    lr_mult: 1
    decay_mult: 1
  }
  param {
    lr_mult: 2
    decay_mult: 0
  }
  convolution_param {
    num_output: 24
    kernel_size: 1
    weight_filler {
      type: "xavier"
      std: 0.2
    }
    bias_filler {
      type: "constant"
      value: 0.2
    }
  }
}
layer {
  name: "inception_4b/relu_5x5_reduce"
  type: "ReLU"
  bottom: "inception_4b/5x5_reduce"
  top: "inception_4b/5x5_reduce"
}
layer {
  name: "inception_4b/5x5"
  type: "Convolution"
  bottom: "inception_4b/5x5_reduce"
  top: "inception_4b/5x5"
  param {
    lr_mult: 1
    decay_mult: 1
  }
  param {
    lr_mult: 2
    decay_mult: 0
  }
  convolution_param {
    num_output: 64
    pad: 2
    kernel_size: 5
    weight_filler {
      type: "xavier"
      std: 0.03
    }
    bias_filler {
      type: "constant"
      value: 0.2
    }
  }
}
layer {
  name: "inception_4b/relu_5x5"
  type: "ReLU"
  bottom: "inception_4b/5x5"
  top: "inception_4b/5x5"
}
layer {
  name: "inception_4b/pool"
  type: "Pooling"
  bottom: "inception_4a/output"
  top: "inception_4b/pool"
  pooling_param {
    pool: MAX
    kernel_size: 3
    stride: 1
    pad: 1
  }
}
layer {
  name: "inception_4b/pool_proj"
  type: "Convolution"
  bottom: "inception_4b/pool"
  top: "inception_4b/pool_proj"
  param {
    lr_mult: 1
    decay_mult: 1
  }
  param {
    lr_mult: 2
    decay_mult: 0
  }
  convolution_param {
    num_output: 64
    kernel_size: 1
    weight_filler {
      type: "xavier"
      std: 0.1
    }
    bias_filler {
      type: "constant"
      value: 0.2
    }
  }
}
layer {
  name: "inception_4b/relu_pool_proj"
  type: "ReLU"
  bottom: "inception_4b/pool_proj"
  top: "inception_4b/pool_proj"
}
layer {
  name: "inception_4b/output"
  type: "Concat"
  bottom: "inception_4b/1x1"
  bottom: "inception_4b/3x3"
  bottom: "inception_4b/5x5"
  bottom: "inception_4b/pool_proj"
  top: "inception_4b/output"
}
layer {
  name: "inception_4c/1x1"
  type: "Convolution"
  bottom: "inception_4b/output"
  top: "inception_4c/1x1"
  param {
    lr_mult: 1
    decay_mult: 1
  }
  param {
    lr_mult: 2
    decay_mult: 0
  }
  convolution_param {
    num_output: 128
    kernel_size: 1
    weight_filler {
      type: "xavier"
      std: 0.03
    }
    bias_filler {
      type: "constant"
      value: 0.2
    }
  }
}
layer {
  name: "inception_4c/relu_1x1"
  type: "ReLU"
  bottom: "inception_4c/1x1"
  top: "inception_4c/1x1"
}
layer {
  name: "inception_4c/3x3_reduce"
  type: "Convolution"
  bottom: "inception_4b/output"
  top: "inception_4c/3x3_reduce"
  param {
    lr_mult: 1
    decay_mult: 1
  }
  param {
    lr_mult: 2
    decay_mult: 0
  }
  convolution_param {
    num_output: 128
    kernel_size: 1
    weight_filler {
      type: "xavier"
      std: 0.09
    }
    bias_filler {
      type: "constant"
      value: 0.2
    }
  }
}
layer {
  name: "inception_4c/relu_3x3_reduce"
  type: "ReLU"
  bottom: "inception_4c/3x3_reduce"
  top: "inception_4c/3x3_reduce"
}
layer {
  name: "inception_4c/3x3"
  type: "Convolution"
  bottom: "inception_4c/3x3_reduce"
  top: "inception_4c/3x3"
  param {
    lr_mult: 1
    decay_mult: 1
  }
  param {
    lr_mult: 2
    decay_mult: 0
  }
  convolution_param {
    num_output: 256
    pad: 1
    kernel_size: 3
    weight_filler {
      type: "xavier"
      std: 0.03
    }
    bias_filler {
      type: "constant"
      value: 0.2
    }
  }
}
layer {
  name: "inception_4c/relu_3x3"
  type: "ReLU"
  bottom: "inception_4c/3x3"
  top: "inception_4c/3x3"
}
layer {
  name: "inception_4c/5x5_reduce"
  type: "Convolution"
  bottom: "inception_4b/output"
  top: "inception_4c/5x5_reduce"
  param {
    lr_mult: 1
    decay_mult: 1
  }
  param {
    lr_mult: 2
    decay_mult: 0
  }
  convolution_param {
    num_output: 24
    kernel_size: 1
    weight_filler {
      type: "xavier"
      std: 0.2
    }
    bias_filler {
      type: "constant"
      value: 0.2
    }
  }
}
layer {
  name: "inception_4c/relu_5x5_reduce"
  type: "ReLU"
  bottom: "inception_4c/5x5_reduce"
  top: "inception_4c/5x5_reduce"
}
layer {
  name: "inception_4c/5x5"
  type: "Convolution"
  bottom: "inception_4c/5x5_reduce"
  top: "inception_4c/5x5"
  param {
    lr_mult: 1
    decay_mult: 1
  }
  param {
    lr_mult: 2
    decay_mult: 0
  }
  convolution_param {
    num_output: 64
    pad: 2
    kernel_size: 5
    weight_filler {
      type: "xavier"
      std: 0.03
    }
    bias_filler {
      type: "constant"
      value: 0.2
    }
  }
}
layer {
  name: "inception_4c/relu_5x5"
  type: "ReLU"
  bottom: "inception_4c/5x5"
  top: "inception_4c/5x5"
}
layer {
  name: "inception_4c/pool"
  type: "Pooling"
  bottom: "inception_4b/output"
  top: "inception_4c/pool"
  pooling_param {
    pool: MAX
    kernel_size: 3
    stride: 1
    pad: 1
  }
}
layer {
  name: "inception_4c/pool_proj"
  type: "Convolution"
  bottom: "inception_4c/pool"
  top: "inception_4c/pool_proj"
  param {
    lr_mult: 1
    decay_mult: 1
  }
  param {
    lr_mult: 2
    decay_mult: 0
  }
  convolution_param {
    num_output: 64
    kernel_size: 1
    weight_filler {
      type: "xavier"
      std: 0.1
    }
    bias_filler {
      type: "constant"
      value: 0.2
    }
  }
}
layer {
  name: "inception_4c/relu_pool_proj"
  type: "ReLU"
  bottom: "inception_4c/pool_proj"
  top: "inception_4c/pool_proj"
}
layer {
  name: "inception_4c/output"
  type: "Concat"
  bottom: "inception_4c/1x1"
  bottom: "inception_4c/3x3"
  bottom: "inception_4c/5x5"
  bottom: "inception_4c/pool_proj"
  top: "inception_4c/output"
}
layer {
  name: "inception_4d/1x1"
  type: "Convolution"
  bottom: "inception_4c/output"
  top: "inception_4d/1x1"
  param {
    lr_mult: 1
    decay_mult: 1
  }
  param {
    lr_mult: 2
    decay_mult: 0
  }
  convolution_param {
    num_output: 112
    kernel_size: 1
    weight_filler {
      type: "xavier"
      std: 0.03
    }
    bias_filler {
      type: "constant"
      value: 0.2
    }
  }
}
layer {
  name: "inception_4d/relu_1x1"
  type: "ReLU"
  bottom: "inception_4d/1x1"
  top: "inception_4d/1x1"
}
layer {
  name: "inception_4d/3x3_reduce"
  type: "Convolution"
  bottom: "inception_4c/output"
  top: "inception_4d/3x3_reduce"
  param {
    lr_mult: 1
    decay_mult: 1
  }
  param {
    lr_mult: 2
    decay_mult: 0
  }
  convolution_param {
    num_output: 144
    kernel_size: 1
    weight_filler {
      type: "xavier"
      std: 0.09
    }
    bias_filler {
      type: "constant"
      value: 0.2
    }
  }
}
layer {
  name: "inception_4d/relu_3x3_reduce"
  type: "ReLU"
  bottom: "inception_4d/3x3_reduce"
  top: "inception_4d/3x3_reduce"
}
layer {
  name: "inception_4d/3x3"
  type: "Convolution"
  bottom: "inception_4d/3x3_reduce"
  top: "inception_4d/3x3"
  param {
    lr_mult: 1
    decay_mult: 1
  }
  param {
    lr_mult: 2
    decay_mult: 0
  }
  convolution_param {
    num_output: 288
    pad: 1
    kernel_size: 3
    weight_filler {
      type: "xavier"
      std: 0.03
    }
    bias_filler {
      type: "constant"
      value: 0.2
    }
  }
}
layer {
  name: "inception_4d/relu_3x3"
  type: "ReLU"
  bottom: "inception_4d/3x3"
  top: "inception_4d/3x3"
}
layer {
  name: "inception_4d/5x5_reduce"
  type: "Convolution"
  bottom: "inception_4c/output"
  top: "inception_4d/5x5_reduce"
  param {
    lr_mult: 1
    decay_mult: 1
  }
  param {
    lr_mult: 2
    decay_mult: 0
  }
  convolution_param {
    num_output: 32
    kernel_size: 1
    weight_filler {
      type: "xavier"
      std: 0.2
    }
    bias_filler {
      type: "constant"
      value: 0.2
    }
  }
}
layer {
  name: "inception_4d/relu_5x5_reduce"
  type: "ReLU"
  bottom: "inception_4d/5x5_reduce"
  top: "inception_4d/5x5_reduce"
}
layer {
  name: "inception_4d/5x5"
  type: "Convolution"
  bottom: "inception_4d/5x5_reduce"
  top: "inception_4d/5x5"
  param {
    lr_mult: 1
    decay_mult: 1
  }
  param {
    lr_mult: 2
    decay_mult: 0
  }
  convolution_param {
    num_output: 64
    pad: 2
    kernel_size: 5
    weight_filler {
      type: "xavier"
      std: 0.03
    }
    bias_filler {
      type: "constant"
      value: 0.2
    }
  }
}
layer {
  name: "inception_4d/relu_5x5"
  type: "ReLU"
  bottom: "inception_4d/5x5"
  top: "inception_4d/5x5"
}
layer {
  name: "inception_4d/pool"
  type: "Pooling"
  bottom: "inception_4c/output"
  top: "inception_4d/pool"
  pooling_param {
    pool: MAX
    kernel_size: 3
    stride: 1
    pad: 1
  }
}
layer {
  name: "inception_4d/pool_proj"
  type: "Convolution"
  bottom: "inception_4d/pool"
  top: "inception_4d/pool_proj"
  param {
    lr_mult: 1
    decay_mult: 1
  }
  param {
    lr_mult: 2
    decay_mult: 0
  }
  convolution_param {
    num_output: 64
    kernel_size: 1
    weight_filler {
      type: "xavier"
      std: 0.1
    }
    bias_filler {
      type: "constant"
      value: 0.2
    }
  }
}
layer {
  name: "inception_4d/relu_pool_proj"
  type: "ReLU"
  bottom: "inception_4d/pool_proj"
  top: "inception_4d/pool_proj"
}
layer {
  name: "inception_4d/output"
  type: "Concat"
  bottom: "inception_4d/1x1"
  bottom: "inception_4d/3x3"
  bottom: "inception_4d/5x5"
  bottom: "inception_4d/pool_proj"
  top: "inception_4d/output"
}
layer {
  name: "loss2/ave_pool"
  type: "Pooling"
  bottom: "inception_4d/output"
  top: "loss2/ave_pool"
  pooling_param {
    pool: AVE
    kernel_size: 5
    stride: 3
  }
}
layer {
  name: "loss2/conv"
  type: "Convolution"
  bottom: "loss2/ave_pool"
  top: "loss2/conv"
  param {
    lr_mult: 1
    decay_mult: 1
  }
  param {
    lr_mult: 2
    decay_mult: 0
  }
  convolution_param {
    num_output: 128
    kernel_size: 1
    weight_filler {
      type: "xavier"
      std: 0.08
    }
    bias_filler {
      type: "constant"
      value: 0.2
    }
  }
}
layer {
  name: "loss2/relu_conv"
  type: "ReLU"
  bottom: "loss2/conv"
  top: "loss2/conv"
}
layer {
  name: "loss2/fc"
  type: "InnerProduct"
  bottom: "loss2/conv"
  top: "loss2/fc"
  param {
    lr_mult: 1
    decay_mult: 1
  }
  param {
    lr_mult: 2
    decay_mult: 0
  }
  inner_product_param {
    num_output: 1024
    weight_filler {
      type: "xavier"
      std: 0.02
    }
    bias_filler {
      type: "constant"
      value: 0.2
    }
  }
}
layer {
  name: "loss2/relu_fc"
  type: "ReLU"
  bottom: "loss2/fc"
  top: "loss2/fc"
}
layer {
  name: "loss2/drop_fc"
  type: "Dropout"
  bottom: "loss2/fc"
  top: "loss2/fc"
  dropout_param {
    dropout_ratio: 0.7
  }
}
layer {
  name: "loss2/classifier_plantvillage"
  type: "InnerProduct"
  bottom: "loss2/fc"
  top: "loss2/classifier_plantvillage"
  param {
    lr_mult: 1
    decay_mult: 1
  }
  param {
    lr_mult: 2
    decay_mult: 0
  }
  inner_product_param {
    num_output: 38
    weight_filler {
      type: "xavier"
      std: 0.0009765625
    }
    bias_filler {
      type: "constant"
      value: 0
    }
  }
}
layer {
  name: "inception_4e/1x1"
  type: "Convolution"
  bottom: "inception_4d/output"
  top: "inception_4e/1x1"
  param {
    lr_mult: 1
    decay_mult: 1
  }
  param {
    lr_mult: 2
    decay_mult: 0
  }
  convolution_param {
    num_output: 256
    kernel_size: 1
    weight_filler {
      type: "xavier"
      std: 0.03
    }
    bias_filler {
      type: "constant"
      value: 0.2
    }
  }
}
layer {
  name: "inception_4e/relu_1x1"
  type: "ReLU"
  bottom: "inception_4e/1x1"
  top: "inception_4e/1x1"
}
layer {
  name: "inception_4e/3x3_reduce"
  type: "Convolution"
  bottom: "inception_4d/output"
  top: "inception_4e/3x3_reduce"
  param {
    lr_mult: 1
    decay_mult: 1
  }
  param {
    lr_mult: 2
    decay_mult: 0
  }
  convolution_param {
    num_output: 160
    kernel_size: 1
    weight_filler {
      type: "xavier"
      std: 0.09
    }
    bias_filler {
      type: "constant"
      value: 0.2
    }
  }
}
layer {
  name: "inception_4e/relu_3x3_reduce"
  type: "ReLU"
  bottom: "inception_4e/3x3_reduce"
  top: "inception_4e/3x3_reduce"
}
layer {
  name: "inception_4e/3x3"
  type: "Convolution"
  bottom: "inception_4e/3x3_reduce"
  top: "inception_4e/3x3"
  param {
    lr_mult: 1
    decay_mult: 1
  }
  param {
    lr_mult: 2
    decay_mult: 0
  }
  convolution_param {
    num_output: 320
    pad: 1
    kernel_size: 3
    weight_filler {
      type: "xavier"
      std: 0.03
    }
    bias_filler {
      type: "constant"
      value: 0.2
    }
  }
}
layer {
  name: "inception_4e/relu_3x3"
  type: "ReLU"
  bottom: "inception_4e/3x3"
  top: "inception_4e/3x3"
}
layer {
  name: "inception_4e/5x5_reduce"
  type: "Convolution"
  bottom: "inception_4d/output"
  top: "inception_4e/5x5_reduce"
  param {
    lr_mult: 1
    decay_mult: 1
  }
  param {
    lr_mult: 2
    decay_mult: 0
  }
  convolution_param {
    num_output: 32
    kernel_size: 1
    weight_filler {
      type: "xavier"
      std: 0.2
    }
    bias_filler {
      type: "constant"
      value: 0.2
    }
  }
}
layer {
  name: "inception_4e/relu_5x5_reduce"
  type: "ReLU"
  bottom: "inception_4e/5x5_reduce"
  top: "inception_4e/5x5_reduce"
}
layer {
  name: "inception_4e/5x5"
  type: "Convolution"
  bottom: "inception_4e/5x5_reduce"
  top: "inception_4e/
I0403 15:32:34.590076 12068 layer_factory.hpp:77] Creating layer data
I0403 15:32:34.590677 12068 net.cpp:91] Creating Layer data
I0403 15:32:34.590711 12068 net.cpp:399] data -> data
I0403 15:32:34.590764 12068 net.cpp:399] data -> label
I0403 15:32:34.590801 12068 data_transformer.cpp:25] Loading mean file from: /home/mohanty/data/final_dataset/lmdb/segmented-50-50/mean.binaryproto
I0403 15:32:34.594027 12074 db_lmdb.cpp:38] Opened lmdb /home/mohanty/data/final_dataset/lmdb/segmented-50-50/test_db
I0403 15:32:34.603767 12068 data_layer.cpp:41] output data size: 24,3,224,224
I0403 15:32:34.631253 12068 net.cpp:141] Setting up data
I0403 15:32:34.631309 12068 net.cpp:148] Top shape: 24 3 224 224 (3612672)
I0403 15:32:34.631332 12068 net.cpp:148] Top shape: 24 (24)
I0403 15:32:34.631347 12068 net.cpp:156] Memory required for data: 14450784
I0403 15:32:34.631373 12068 layer_factory.hpp:77] Creating layer label_data_1_split
I0403 15:32:34.631404 12068 net.cpp:91] Creating Layer label_data_1_split
I0403 15:32:34.631423 12068 net.cpp:425] label_data_1_split <- label
I0403 15:32:34.631455 12068 net.cpp:399] label_data_1_split -> label_data_1_split_0
I0403 15:32:34.631484 12068 net.cpp:399] label_data_1_split -> label_data_1_split_1
I0403 15:32:34.631505 12068 net.cpp:399] label_data_1_split -> label_data_1_split_2
I0403 15:32:34.631525 12068 net.cpp:399] label_data_1_split -> label_data_1_split_3
I0403 15:32:34.631546 12068 net.cpp:399] label_data_1_split -> label_data_1_split_4
I0403 15:32:34.631567 12068 net.cpp:399] label_data_1_split -> label_data_1_split_5
I0403 15:32:34.631587 12068 net.cpp:399] label_data_1_split -> label_data_1_split_6
I0403 15:32:34.631608 12068 net.cpp:399] label_data_1_split -> label_data_1_split_7
I0403 15:32:34.631628 12068 net.cpp:399] label_data_1_split -> label_data_1_split_8
I0403 15:32:34.631649 12068 net.cpp:399] label_data_1_split -> label_data_1_split_9
I0403 15:32:34.631763 12068 net.cpp:141] Setting up label_data_1_split
I0403 15:32:34.631788 12068 net.cpp:148] Top shape: 24 (24)
I0403 15:32:34.631804 12068 net.cpp:148] Top shape: 24 (24)
I0403 15:32:34.631820 12068 net.cpp:148] Top shape: 24 (24)
I0403 15:32:34.631835 12068 net.cpp:148] Top shape: 24 (24)
I0403 15:32:34.631850 12068 net.cpp:148] Top shape: 24 (24)
I0403 15:32:34.631865 12068 net.cpp:148] Top shape: 24 (24)
I0403 15:32:34.631880 12068 net.cpp:148] Top shape: 24 (24)
I0403 15:32:34.631896 12068 net.cpp:148] Top shape: 24 (24)
I0403 15:32:34.631911 12068 net.cpp:148] Top shape: 24 (24)
I0403 15:32:34.631927 12068 net.cpp:148] Top shape: 24 (24)
I0403 15:32:34.631970 12068 net.cpp:156] Memory required for data: 14451744
I0403 15:32:34.631986 12068 layer_factory.hpp:77] Creating layer conv1/7x7_s2
I0403 15:32:34.632017 12068 net.cpp:91] Creating Layer conv1/7x7_s2
I0403 15:32:34.632036 12068 net.cpp:425] conv1/7x7_s2 <- data
I0403 15:32:34.632056 12068 net.cpp:399] conv1/7x7_s2 -> conv1/7x7_s2
I0403 15:32:34.774979 12068 net.cpp:141] Setting up conv1/7x7_s2
I0403 15:32:34.775068 12068 net.cpp:148] Top shape: 24 64 112 112 (19267584)
I0403 15:32:34.775084 12068 net.cpp:156] Memory required for data: 91522080
I0403 15:32:34.775115 12068 layer_factory.hpp:77] Creating layer conv1/relu_7x7
I0403 15:32:34.775142 12068 net.cpp:91] Creating Layer conv1/relu_7x7
I0403 15:32:34.775161 12068 net.cpp:425] conv1/relu_7x7 <- conv1/7x7_s2
I0403 15:32:34.775178 12068 net.cpp:386] conv1/relu_7x7 -> conv1/7x7_s2 (in-place)
I0403 15:32:34.775432 12068 net.cpp:141] Setting up conv1/relu_7x7
I0403 15:32:34.775460 12068 net.cpp:148] Top shape: 24 64 112 112 (19267584)
I0403 15:32:34.775475 12068 net.cpp:156] Memory required for data: 168592416
I0403 15:32:34.775490 12068 layer_factory.hpp:77] Creating layer pool1/3x3_s2
I0403 15:32:34.775514 12068 net.cpp:91] Creating Layer pool1/3x3_s2
I0403 15:32:34.775532 12068 net.cpp:425] pool1/3x3_s2 <- conv1/7x7_s2
I0403 15:32:34.775552 12068 net.cpp:399] pool1/3x3_s2 -> pool1/3x3_s2
I0403 15:32:34.775624 12068 net.cpp:141] Setting up pool1/3x3_s2
I0403 15:32:34.775647 12068 net.cpp:148] Top shape: 24 64 56 56 (4816896)
I0403 15:32:34.775663 12068 net.cpp:156] Memory required for data: 187860000
I0403 15:32:34.775677 12068 layer_factory.hpp:77] Creating layer pool1/norm1
I0403 15:32:34.775701 12068 net.cpp:91] Creating Layer pool1/norm1
I0403 15:32:34.775719 12068 net.cpp:425] pool1/norm1 <- pool1/3x3_s2
I0403 15:32:34.775738 12068 net.cpp:399] pool1/norm1 -> pool1/norm1
I0403 15:32:34.776016 12068 net.cpp:141] Setting up pool1/norm1
I0403 15:32:34.776042 12068 net.cpp:148] Top shape: 24 64 56 56 (4816896)
I0403 15:32:34.776057 12068 net.cpp:156] Memory required for data: 207127584
I0403 15:32:34.776072 12068 layer_factory.hpp:77] Creating layer conv2/3x3_reduce
I0403 15:32:34.776098 12068 net.cpp:91] Creating Layer conv2/3x3_reduce
I0403 15:32:34.776114 12068 net.cpp:425] conv2/3x3_reduce <- pool1/norm1
I0403 15:32:34.776134 12068 net.cpp:399] conv2/3x3_reduce -> conv2/3x3_reduce
I0403 15:32:34.777530 12068 net.cpp:141] Setting up conv2/3x3_reduce
I0403 15:32:34.777559 12068 net.cpp:148] Top shape: 24 64 56 56 (4816896)
I0403 15:32:34.777575 12068 net.cpp:156] Memory required for data: 226395168
I0403 15:32:34.777595 12068 layer_factory.hpp:77] Creating layer conv2/relu_3x3_reduce
I0403 15:32:34.777613 12068 net.cpp:91] Creating Layer conv2/relu_3x3_reduce
I0403 15:32:34.777629 12068 net.cpp:425] conv2/relu_3x3_reduce <- conv2/3x3_reduce
I0403 15:32:34.777648 12068 net.cpp:386] conv2/relu_3x3_reduce -> conv2/3x3_reduce (in-place)
I0403 15:32:34.777914 12068 net.cpp:141] Setting up conv2/relu_3x3_reduce
I0403 15:32:34.777940 12068 net.cpp:148] Top shape: 24 64 56 56 (4816896)
I0403 15:32:34.777956 12068 net.cpp:156] Memory required for data: 245662752
I0403 15:32:34.777969 12068 layer_factory.hpp:77] Creating layer conv2/3x3
I0403 15:32:34.777994 12068 net.cpp:91] Creating Layer conv2/3x3
I0403 15:32:34.778012 12068 net.cpp:425] conv2/3x3 <- conv2/3x3_reduce
I0403 15:32:34.778036 12068 net.cpp:399] conv2/3x3 -> conv2/3x3
I0403 15:32:34.780318 12068 net.cpp:141] Setting up conv2/3x3
I0403 15:32:34.780349 12068 net.cpp:148] Top shape: 24 192 56 56 (14450688)
I0403 15:32:34.780364 12068 net.cpp:156] Memory required for data: 303465504
I0403 15:32:34.780390 12068 layer_factory.hpp:77] Creating layer conv2/relu_3x3
I0403 15:32:34.780411 12068 net.cpp:91] Creating Layer conv2/relu_3x3
I0403 15:32:34.780428 12068 net.cpp:425] conv2/relu_3x3 <- conv2/3x3
I0403 15:32:34.780447 12068 net.cpp:386] conv2/relu_3x3 -> conv2/3x3 (in-place)
I0403 15:32:34.780617 12068 net.cpp:141] Setting up conv2/relu_3x3
I0403 15:32:34.780644 12068 net.cpp:148] Top shape: 24 192 56 56 (14450688)
I0403 15:32:34.780699 12068 net.cpp:156] Memory required for data: 361268256
I0403 15:32:34.780714 12068 layer_factory.hpp:77] Creating layer conv2/norm2
I0403 15:32:34.780731 12068 net.cpp:91] Creating Layer conv2/norm2
I0403 15:32:34.780747 12068 net.cpp:425] conv2/norm2 <- conv2/3x3
I0403 15:32:34.780767 12068 net.cpp:399] conv2/norm2 -> conv2/norm2
I0403 15:32:34.781075 12068 net.cpp:141] Setting up conv2/norm2
I0403 15:32:34.781100 12068 net.cpp:148] Top shape: 24 192 56 56 (14450688)
I0403 15:32:34.781116 12068 net.cpp:156] Memory required for data: 419071008
I0403 15:32:34.781129 12068 layer_factory.hpp:77] Creating layer pool2/3x3_s2
I0403 15:32:34.781147 12068 net.cpp:91] Creating Layer pool2/3x3_s2
I0403 15:32:34.781162 12068 net.cpp:425] pool2/3x3_s2 <- conv2/norm2
I0403 15:32:34.781183 12068 net.cpp:399] pool2/3x3_s2 -> pool2/3x3_s2
I0403 15:32:34.781235 12068 net.cpp:141] Setting up pool2/3x3_s2
I0403 15:32:34.781258 12068 net.cpp:148] Top shape: 24 192 28 28 (3612672)
I0403 15:32:34.781272 12068 net.cpp:156] Memory required for data: 433521696
I0403 15:32:34.781287 12068 layer_factory.hpp:77] Creating layer pool2/3x3_s2_pool2/3x3_s2_0_split
I0403 15:32:34.781306 12068 net.cpp:91] Creating Layer pool2/3x3_s2_pool2/3x3_s2_0_split
I0403 15:32:34.781324 12068 net.cpp:425] pool2/3x3_s2_pool2/3x3_s2_0_split <- pool2/3x3_s2
I0403 15:32:34.781342 12068 net.cpp:399] pool2/3x3_s2_pool2/3x3_s2_0_split -> pool2/3x3_s2_pool2/3x3_s2_0_split_0
I0403 15:32:34.781363 12068 net.cpp:399] pool2/3x3_s2_pool2/3x3_s2_0_split -> pool2/3x3_s2_pool2/3x3_s2_0_split_1
I0403 15:32:34.781388 12068 net.cpp:399] pool2/3x3_s2_pool2/3x3_s2_0_split -> pool2/3x3_s2_pool2/3x3_s2_0_split_2
I0403 15:32:34.781409 12068 net.cpp:399] pool2/3x3_s2_pool2/3x3_s2_0_split -> pool2/3x3_s2_pool2/3x3_s2_0_split_3
I0403 15:32:34.781479 12068 net.cpp:141] Setting up pool2/3x3_s2_pool2/3x3_s2_0_split
I0403 15:32:34.781502 12068 net.cpp:148] Top shape: 24 192 28 28 (3612672)
I0403 15:32:34.781518 12068 net.cpp:148] Top shape: 24 192 28 28 (3612672)
I0403 15:32:34.781533 12068 net.cpp:148] Top shape: 24 192 28 28 (3612672)
I0403 15:32:34.781548 12068 net.cpp:148] Top shape: 24 192 28 28 (3612672)
I0403 15:32:34.781561 12068 net.cpp:156] Memory required for data: 491324448
I0403 15:32:34.781575 12068 layer_factory.hpp:77] Creating layer inception_3a/1x1
I0403 15:32:34.781597 12068 net.cpp:91] Creating Layer inception_3a/1x1
I0403 15:32:34.781615 12068 net.cpp:425] inception_3a/1x1 <- pool2/3x3_s2_pool2/3x3_s2_0_split_0
I0403 15:32:34.781635 12068 net.cpp:399] inception_3a/1x1 -> inception_3a/1x1
I0403 15:32:34.783164 12068 net.cpp:141] Setting up inception_3a/1x1
I0403 15:32:34.783192 12068 net.cpp:148] Top shape: 24 64 28 28 (1204224)
I0403 15:32:34.783208 12068 net.cpp:156] Memory required for data: 496141344
I0403 15:32:34.783226 12068 layer_factory.hpp:77] Creating layer inception_3a/relu_1x1
I0403 15:32:34.783246 12068 net.cpp:91] Creating Layer inception_3a/relu_1x1
I0403 15:32:34.783264 12068 net.cpp:425] inception_3a/relu_1x1 <- inception_3a/1x1
I0403 15:32:34.783282 12068 net.cpp:386] inception_3a/relu_1x1 -> inception_3a/1x1 (in-place)
I0403 15:32:34.783457 12068 net.cpp:141] Setting up inception_3a/relu_1x1
I0403 15:32:34.783481 12068 net.cpp:148] Top shape: 24 64 28 28 (1204224)
I0403 15:32:34.783496 12068 net.cpp:156] Memory required for data: 500958240
I0403 15:32:34.783511 12068 layer_factory.hpp:77] Creating layer inception_3a/3x3_reduce
I0403 15:32:34.783534 12068 net.cpp:91] Creating Layer inception_3a/3x3_reduce
I0403 15:32:34.783550 12068 net.cpp:425] inception_3a/3x3_reduce <- pool2/3x3_s2_pool2/3x3_s2_0_split_1
I0403 15:32:34.783572 12068 net.cpp:399] inception_3a/3x3_reduce -> inception_3a/3x3_reduce
I0403 15:32:34.785254 12068 net.cpp:141] Setting up inception_3a/3x3_reduce
I0403 15:32:34.785282 12068 net.cpp:148] Top shape: 24 96 28 28 (1806336)
I0403 15:32:34.785297 12068 net.cpp:156] Memory required for data: 508183584
I0403 15:32:34.785320 12068 layer_factory.hpp:77] Creating layer inception_3a/relu_3x3_reduce
I0403 15:32:34.785356 12068 net.cpp:91] Creating Layer inception_3a/relu_3x3_reduce
I0403 15:32:34.785375 12068 net.cpp:425] inception_3a/relu_3x3_reduce <- inception_3a/3x3_reduce
I0403 15:32:34.785398 12068 net.cpp:386] inception_3a/relu_3x3_reduce -> inception_3a/3x3_reduce (in-place)
I0403 15:32:34.785578 12068 net.cpp:141] Setting up inception_3a/relu_3x3_reduce
I0403 15:32:34.785604 12068 net.cpp:148] Top shape: 24 96 28 28 (1806336)
I0403 15:32:34.785617 12068 net.cpp:156] Memory required for data: 515408928
I0403 15:32:34.785631 12068 layer_factory.hpp:77] Creating layer inception_3a/3x3
I0403 15:32:34.785656 12068 net.cpp:91] Creating Layer inception_3a/3x3
I0403 15:32:34.785673 12068 net.cpp:425] inception_3a/3x3 <- inception_3a/3x3_reduce
I0403 15:32:34.785696 12068 net.cpp:399] inception_3a/3x3 -> inception_3a/3x3
I0403 15:32:34.787319 12068 net.cpp:141] Setting up inception_3a/3x3
I0403 15:32:34.787348 12068 net.cpp:148] Top shape: 24 128 28 28 (2408448)
I0403 15:32:34.787364 12068 net.cpp:156] Memory required for data: 525042720
I0403 15:32:34.787385 12068 layer_factory.hpp:77] Creating layer inception_3a/relu_3x3
I0403 15:32:34.787407 12068 net.cpp:91] Creating Layer inception_3a/relu_3x3
I0403 15:32:34.787425 12068 net.cpp:425] inception_3a/relu_3x3 <- inception_3a/3x3
I0403 15:32:34.787441 12068 net.cpp:386] inception_3a/relu_3x3 -> inception_3a/3x3 (in-place)
I0403 15:32:34.787719 12068 net.cpp:141] Setting up inception_3a/relu_3x3
I0403 15:32:34.787744 12068 net.cpp:148] Top shape: 24 128 28 28 (2408448)
I0403 15:32:34.787760 12068 net.cpp:156] Memory required for data: 534676512
I0403 15:32:34.787773 12068 layer_factory.hpp:77] Creating layer inception_3a/5x5_reduce
I0403 15:32:34.787796 12068 net.cpp:91] Creating Layer inception_3a/5x5_reduce
I0403 15:32:34.787813 12068 net.cpp:425] inception_3a/5x5_reduce <- pool2/3x3_s2_pool2/3x3_s2_0_split_2
I0403 15:32:34.787834 12068 net.cpp:399] inception_3a/5x5_reduce -> inception_3a/5x5_reduce
I0403 15:32:34.788795 12068 net.cpp:141] Setting up inception_3a/5x5_reduce
I0403 15:32:34.788822 12068 net.cpp:148] Top shape: 24 16 28 28 (301056)
I0403 15:32:34.788837 12068 net.cpp:156] Memory required for data: 535880736
I0403 15:32:34.788856 12068 layer_factory.hpp:77] Creating layer inception_3a/relu_5x5_reduce
I0403 15:32:34.788874 12068 net.cpp:91] Creating Layer inception_3a/relu_5x5_reduce
I0403 15:32:34.788892 12068 net.cpp:425] inception_3a/relu_5x5_reduce <- inception_3a/5x5_reduce
I0403 15:32:34.788908 12068 net.cpp:386] inception_3a/relu_5x5_reduce -> inception_3a/5x5_reduce (in-place)
I0403 15:32:34.789202 12068 net.cpp:141] Setting up inception_3a/relu_5x5_reduce
I0403 15:32:34.789232 12068 net.cpp:148] Top shape: 24 16 28 28 (301056)
I0403 15:32:34.789247 12068 net.cpp:156] Memory required for data: 537084960
I0403 15:32:34.789261 12068 layer_factory.hpp:77] Creating layer inception_3a/5x5
I0403 15:32:34.789283 12068 net.cpp:91] Creating Layer inception_3a/5x5
I0403 15:32:34.789301 12068 net.cpp:425] inception_3a/5x5 <- inception_3a/5x5_reduce
I0403 15:32:34.789320 12068 net.cpp:399] inception_3a/5x5 -> inception_3a/5x5
I0403 15:32:34.790316 12068 net.cpp:141] Setting up inception_3a/5x5
I0403 15:32:34.790344 12068 net.cpp:148] Top shape: 24 32 28 28 (602112)
I0403 15:32:34.790360 12068 net.cpp:156] Memory required for data: 539493408
I0403 15:32:34.790381 12068 layer_factory.hpp:77] Creating layer inception_3a/relu_5x5
I0403 15:32:34.790403 12068 net.cpp:91] Creating Layer inception_3a/relu_5x5
I0403 15:32:34.790421 12068 net.cpp:425] inception_3a/relu_5x5 <- inception_3a/5x5
I0403 15:32:34.790437 12068 net.cpp:386] inception_3a/relu_5x5 -> inception_3a/5x5 (in-place)
I0403 15:32:34.790608 12068 net.cpp:141] Setting up inception_3a/relu_5x5
I0403 15:32:34.790633 12068 net.cpp:148] Top shape: 24 32 28 28 (602112)
I0403 15:32:34.790647 12068 net.cpp:156] Memory required for data: 541901856
I0403 15:32:34.790662 12068 layer_factory.hpp:77] Creating layer inception_3a/pool
I0403 15:32:34.790681 12068 net.cpp:91] Creating Layer inception_3a/pool
I0403 15:32:34.790711 12068 net.cpp:425] inception_3a/pool <- pool2/3x3_s2_pool2/3x3_s2_0_split_3
I0403 15:32:34.790730 12068 net.cpp:399] inception_3a/pool -> inception_3a/pool
I0403 15:32:34.790789 12068 net.cpp:141] Setting up inception_3a/pool
I0403 15:32:34.790813 12068 net.cpp:148] Top shape: 24 192 28 28 (3612672)
I0403 15:32:34.790827 12068 net.cpp:156] Memory required for data: 556352544
I0403 15:32:34.790841 12068 layer_factory.hpp:77] Creating layer inception_3a/pool_proj
I0403 15:32:34.790864 12068 net.cpp:91] Creating Layer inception_3a/pool_proj
I0403 15:32:34.790881 12068 net.cpp:425] inception_3a/pool_proj <- inception_3a/pool
I0403 15:32:34.790904 12068 net.cpp:399] inception_3a/pool_proj -> inception_3a/pool_proj
I0403 15:32:34.791854 12068 net.cpp:141] Setting up inception_3a/pool_proj
I0403 15:32:34.791884 12068 net.cpp:148] Top shape: 24 32 28 28 (602112)
I0403 15:32:34.791901 12068 net.cpp:156] Memory required for data: 558760992
I0403 15:32:34.791923 12068 layer_factory.hpp:77] Creating layer inception_3a/relu_pool_proj
I0403 15:32:34.791944 12068 net.cpp:91] Creating Layer inception_3a/relu_pool_proj
I0403 15:32:34.791960 12068 net.cpp:425] inception_3a/relu_pool_proj <- inception_3a/pool_proj
I0403 15:32:34.791978 12068 net.cpp:386] inception_3a/relu_pool_proj -> inception_3a/pool_proj (in-place)
I0403 15:32:34.792248 12068 net.cpp:141] Setting up inception_3a/relu_pool_proj
I0403 15:32:34.792273 12068 net.cpp:148] Top shape: 24 32 28 28 (602112)
I0403 15:32:34.792289 12068 net.cpp:156] Memory required for data: 561169440
I0403 15:32:34.792302 12068 layer_factory.hpp:77] Creating layer inception_3a/output
I0403 15:32:34.792323 12068 net.cpp:91] Creating Layer inception_3a/output
I0403 15:32:34.792340 12068 net.cpp:425] inception_3a/output <- inception_3a/1x1
I0403 15:32:34.792356 12068 net.cpp:425] inception_3a/output <- inception_3a/3x3
I0403 15:32:34.792371 12068 net.cpp:425] inception_3a/output <- inception_3a/5x5
I0403 15:32:34.792410 12068 net.cpp:425] inception_3a/output <- inception_3a/pool_proj
I0403 15:32:34.792430 12068 net.cpp:399] inception_3a/output -> inception_3a/output
I0403 15:32:34.792475 12068 net.cpp:141] Setting up inception_3a/output
I0403 15:32:34.792501 12068 net.cpp:148] Top shape: 24 256 28 28 (4816896)
I0403 15:32:34.792517 12068 net.cpp:156] Memory required for data: 580437024
I0403 15:32:34.792532 12068 layer_factory.hpp:77] Creating layer inception_3a/output_inception_3a/output_0_split
I0403 15:32:34.792548 12068 net.cpp:91] Creating Layer inception_3a/output_inception_3a/output_0_split
I0403 15:32:34.792563 12068 net.cpp:425] inception_3a/output_inception_3a/output_0_split <- inception_3a/output
I0403 15:32:34.792582 12068 net.cpp:399] inception_3a/output_inception_3a/output_0_split -> inception_3a/output_inception_3a/output_0_split_0
I0403 15:32:34.792603 12068 net.cpp:399] inception_3a/output_inception_3a/output_0_split -> inception_3a/output_inception_3a/output_0_split_1
I0403 15:32:34.792628 12068 net.cpp:399] inception_3a/output_inception_3a/output_0_split -> inception_3a/output_inception_3a/output_0_split_2
I0403 15:32:34.792647 12068 net.cpp:399] inception_3a/output_inception_3a/output_0_split -> inception_3a/output_inception_3a/output_0_split_3
I0403 15:32:34.792722 12068 net.cpp:141] Setting up inception_3a/output_inception_3a/output_0_split
I0403 15:32:34.792745 12068 net.cpp:148] Top shape: 24 256 28 28 (4816896)
I0403 15:32:34.792762 12068 net.cpp:148] Top shape: 24 256 28 28 (4816896)
I0403 15:32:34.792778 12068 net.cpp:148] Top shape: 24 256 28 28 (4816896)
I0403 15:32:34.792791 12068 net.cpp:148] Top shape: 24 256 28 28 (4816896)
I0403 15:32:34.792804 12068 net.cpp:156] Memory required for data: 657507360
I0403 15:32:34.792819 12068 layer_factory.hpp:77] Creating layer inception_3b/1x1
I0403 15:32:34.792840 12068 net.cpp:91] Creating Layer inception_3b/1x1
I0403 15:32:34.792858 12068 net.cpp:425] inception_3b/1x1 <- inception_3a/output_inception_3a/output_0_split_0
I0403 15:32:34.792879 12068 net.cpp:399] inception_3b/1x1 -> inception_3b/1x1
I0403 15:32:34.794005 12068 net.cpp:141] Setting up inception_3b/1x1
I0403 15:32:34.794045 12068 net.cpp:148] Top shape: 24 128 28 28 (2408448)
I0403 15:32:34.794061 12068 net.cpp:156] Memory required for data: 667141152
I0403 15:32:34.794080 12068 layer_factory.hpp:77] Creating layer inception_3b/relu_1x1
I0403 15:32:34.794097 12068 net.cpp:91] Creating Layer inception_3b/relu_1x1
I0403 15:32:34.794113 12068 net.cpp:425] inception_3b/relu_1x1 <- inception_3b/1x1
I0403 15:32:34.794136 12068 net.cpp:386] inception_3b/relu_1x1 -> inception_3b/1x1 (in-place)
I0403 15:32:34.794312 12068 net.cpp:141] Setting up inception_3b/relu_1x1
I0403 15:32:34.794338 12068 net.cpp:148] Top shape: 24 128 28 28 (2408448)
I0403 15:32:34.794353 12068 net.cpp:156] Memory required for data: 676774944
I0403 15:32:34.794368 12068 layer_factory.hpp:77] Creating layer inception_3b/3x3_reduce
I0403 15:32:34.794394 12068 net.cpp:91] Creating Layer inception_3b/3x3_reduce
I0403 15:32:34.794412 12068 net.cpp:425] inception_3b/3x3_reduce <- inception_3a/output_inception_3a/output_0_split_1
I0403 15:32:34.794433 12068 net.cpp:399] inception_3b/3x3_reduce -> inception_3b/3x3_reduce
I0403 15:32:34.795562 12068 net.cpp:141] Setting up inception_3b/3x3_reduce
I0403 15:32:34.795591 12068 net.cpp:148] Top shape: 24 128 28 28 (2408448)
I0403 15:32:34.795608 12068 net.cpp:156] Memory required for data: 686408736
I0403 15:32:34.795626 12068 layer_factory.hpp:77] Creating layer inception_3b/relu_3x3_reduce
I0403 15:32:34.795644 12068 net.cpp:91] Creating Layer inception_3b/relu_3x3_reduce
I0403 15:32:34.795660 12068 net.cpp:425] inception_3b/relu_3x3_reduce <- inception_3b/3x3_reduce
I0403 15:32:34.795680 12068 net.cpp:386] inception_3b/relu_3x3_reduce -> inception_3b/3x3_reduce (in-place)
I0403 15:32:34.795850 12068 net.cpp:141] Setting up inception_3b/relu_3x3_reduce
I0403 15:32:34.795874 12068 net.cpp:148] Top shape: 24 128 28 28 (2408448)
I0403 15:32:34.795889 12068 net.cpp:156] Memory required for data: 696042528
I0403 15:32:34.795903 12068 layer_factory.hpp:77] Creating layer inception_3b/3x3
I0403 15:32:34.795929 12068 net.cpp:91] Creating Layer inception_3b/3x3
I0403 15:32:34.795948 12068 net.cpp:425] inception_3b/3x3 <- inception_3b/3x3_reduce
I0403 15:32:34.795967 12068 net.cpp:399] inception_3b/3x3 -> inception_3b/3x3
I0403 15:32:34.798861 12068 net.cpp:141] Setting up inception_3b/3x3
I0403 15:32:34.798890 12068 net.cpp:148] Top shape: 24 192 28 28 (3612672)
I0403 15:32:34.798905 12068 net.cpp:156] Memory required for data: 710493216
I0403 15:32:34.798923 12068 layer_factory.hpp:77] Creating layer inception_3b/relu_3x3
I0403 15:32:34.798943 12068 net.cpp:91] Creating Layer inception_3b/relu_3x3
I0403 15:32:34.798960 12068 net.cpp:425] inception_3b/relu_3x3 <- inception_3b/3x3
I0403 15:32:34.798977 12068 net.cpp:386] inception_3b/relu_3x3 -> inception_3b/3x3 (in-place)
I0403 15:32:34.799253 12068 net.cpp:141] Setting up inception_3b/relu_3x3
I0403 15:32:34.799280 12068 net.cpp:148] Top shape: 24 192 28 28 (3612672)
I0403 15:32:34.799294 12068 net.cpp:156] Memory required for data: 724943904
I0403 15:32:34.799309 12068 layer_factory.hpp:77] Creating layer inception_3b/5x5_reduce
I0403 15:32:34.799334 12068 net.cpp:91] Creating Layer inception_3b/5x5_reduce
I0403 15:32:34.799351 12068 net.cpp:425] inception_3b/5x5_reduce <- inception_3a/output_inception_3a/output_0_split_2
I0403 15:32:34.799373 12068 net.cpp:399] inception_3b/5x5_reduce -> inception_3b/5x5_reduce
I0403 15:32:34.800371 12068 net.cpp:141] Setting up inception_3b/5x5_reduce
I0403 15:32:34.800403 12068 net.cpp:148] Top shape: 24 32 28 28 (602112)
I0403 15:32:34.800420 12068 net.cpp:156] Memory required for data: 727352352
I0403 15:32:34.800436 12068 layer_factory.hpp:77] Creating layer inception_3b/relu_5x5_reduce
I0403 15:32:34.800457 12068 net.cpp:91] Creating Layer inception_3b/relu_5x5_reduce
I0403 15:32:34.800473 12068 net.cpp:425] inception_3b/relu_5x5_reduce <- inception_3b/5x5_reduce
I0403 15:32:34.800490 12068 net.cpp:386] inception_3b/relu_5x5_reduce -> inception_3b/5x5_reduce (in-place)
I0403 15:32:34.800688 12068 net.cpp:141] Setting up inception_3b/relu_5x5_reduce
I0403 15:32:34.800714 12068 net.cpp:148] Top shape: 24 32 28 28 (602112)
I0403 15:32:34.800727 12068 net.cpp:156] Memory required for data: 729760800
I0403 15:32:34.800741 12068 layer_factory.hpp:77] Creating layer inception_3b/5x5
I0403 15:32:34.800766 12068 net.cpp:91] Creating Layer inception_3b/5x5
I0403 15:32:34.800784 12068 net.cpp:425] inception_3b/5x5 <- inception_3b/5x5_reduce
I0403 15:32:34.800803 12068 net.cpp:399] inception_3b/5x5 -> inception_3b/5x5
I0403 15:32:34.802881 12068 net.cpp:141] Setting up inception_3b/5x5
I0403 15:32:34.802912 12068 net.cpp:148] Top shape: 24 96 28 28 (1806336)
I0403 15:32:34.802929 12068 net.cpp:156] Memory required for data: 736986144
I0403 15:32:34.802947 12068 layer_factory.hpp:77] Creating layer inception_3b/relu_5x5
I0403 15:32:34.802966 12068 net.cpp:91] Creating Layer inception_3b/relu_5x5
I0403 15:32:34.802983 12068 net.cpp:425] inception_3b/relu_5x5 <- inception_3b/5x5
I0403 15:32:34.803004 12068 net.cpp:386] inception_3b/relu_5x5 -> inception_3b/5x5 (in-place)
I0403 15:32:34.803200 12068 net.cpp:141] Setting up inception_3b/relu_5x5
I0403 15:32:34.803226 12068 net.cpp:148] Top shape: 24 96 28 28 (1806336)
I0403 15:32:34.803241 12068 net.cpp:156] Memory required for data: 744211488
I0403 15:32:34.803256 12068 layer_factory.hpp:77] Creating layer inception_3b/pool
I0403 15:32:34.803272 12068 net.cpp:91] Creating Layer inception_3b/pool
I0403 15:32:34.803288 12068 net.cpp:425] inception_3b/pool <- inception_3a/output_inception_3a/output_0_split_3
I0403 15:32:34.803308 12068 net.cpp:399] inception_3b/pool -> inception_3b/pool
I0403 15:32:34.803370 12068 net.cpp:141] Setting up inception_3b/pool
I0403 15:32:34.803400 12068 net.cpp:148] Top shape: 24 256 28 28 (4816896)
I0403 15:32:34.803414 12068 net.cpp:156] Memory required for data: 763479072
I0403 15:32:34.803428 12068 layer_factory.hpp:77] Creating layer inception_3b/pool_proj
I0403 15:32:34.803452 12068 net.cpp:91] Creating Layer inception_3b/pool_proj
I0403 15:32:34.803470 12068 net.cpp:425] inception_3b/pool_proj <- inception_3b/pool
I0403 15:32:34.803491 12068 net.cpp:399] inception_3b/pool_proj -> inception_3b/pool_proj
I0403 15:32:34.804579 12068 net.cpp:141] Setting up inception_3b/pool_proj
I0403 15:32:34.804608 12068 net.cpp:148] Top shape: 24 64 28 28 (1204224)
I0403 15:32:34.804623 12068 net.cpp:156] Memory required for data: 768295968
I0403 15:32:34.804642 12068 layer_factory.hpp:77] Creating layer inception_3b/relu_pool_proj
I0403 15:32:34.804666 12068 net.cpp:91] Creating Layer inception_3b/relu_pool_proj
I0403 15:32:34.804683 12068 net.cpp:425] inception_3b/relu_pool_proj <- inception_3b/pool_proj
I0403 15:32:34.804702 12068 net.cpp:386] inception_3b/relu_pool_proj -> inception_3b/pool_proj (in-place)
I0403 15:32:34.805106 12068 net.cpp:141] Setting up inception_3b/relu_pool_proj
I0403 15:32:34.805133 12068 net.cpp:148] Top shape: 24 64 28 28 (1204224)
I0403 15:32:34.805148 12068 net.cpp:156] Memory required for data: 773112864
I0403 15:32:34.805165 12068 layer_factory.hpp:77] Creating layer inception_3b/output
I0403 15:32:34.805184 12068 net.cpp:91] Creating Layer inception_3b/output
I0403 15:32:34.805202 12068 net.cpp:425] inception_3b/output <- inception_3b/1x1
I0403 15:32:34.805219 12068 net.cpp:425] inception_3b/output <- inception_3b/3x3
I0403 15:32:34.805236 12068 net.cpp:425] inception_3b/output <- inception_3b/5x5
I0403 15:32:34.805253 12068 net.cpp:425] inception_3b/output <- inception_3b/pool_proj
I0403 15:32:34.805270 12068 net.cpp:399] inception_3b/output -> inception_3b/output
I0403 15:32:34.805317 12068 net.cpp:141] Setting up inception_3b/output
I0403 15:32:34.805341 12068 net.cpp:148] Top shape: 24 480 28 28 (9031680)
I0403 15:32:34.805356 12068 net.cpp:156] Memory required for data: 809239584
I0403 15:32:34.805388 12068 layer_factory.hpp:77] Creating layer pool3/3x3_s2
I0403 15:32:34.805408 12068 net.cpp:91] Creating Layer pool3/3x3_s2
I0403 15:32:34.805424 12068 net.cpp:425] pool3/3x3_s2 <- inception_3b/output
I0403 15:32:34.805462 12068 net.cpp:399] pool3/3x3_s2 -> pool3/3x3_s2
I0403 15:32:34.805527 12068 net.cpp:141] Setting up pool3/3x3_s2
I0403 15:32:34.805552 12068 net.cpp:148] Top shape: 24 480 14 14 (2257920)
I0403 15:32:34.805567 12068 net.cpp:156] Memory required for data: 818271264
I0403 15:32:34.805583 12068 layer_factory.hpp:77] Creating layer pool3/3x3_s2_pool3/3x3_s2_0_split
I0403 15:32:34.805600 12068 net.cpp:91] Creating Layer pool3/3x3_s2_pool3/3x3_s2_0_split
I0403 15:32:34.805616 12068 net.cpp:425] pool3/3x3_s2_pool3/3x3_s2_0_split <- pool3/3x3_s2
I0403 15:32:34.805634 12068 net.cpp:399] pool3/3x3_s2_pool3/3x3_s2_0_split -> pool3/3x3_s2_pool3/3x3_s2_0_split_0
I0403 15:32:34.805657 12068 net.cpp:399] pool3/3x3_s2_pool3/3x3_s2_0_split -> pool3/3x3_s2_pool3/3x3_s2_0_split_1
I0403 15:32:34.805681 12068 net.cpp:399] pool3/3x3_s2_pool3/3x3_s2_0_split -> pool3/3x3_s2_pool3/3x3_s2_0_split_2
I0403 15:32:34.805703 12068 net.cpp:399] pool3/3x3_s2_pool3/3x3_s2_0_split -> pool3/3x3_s2_pool3/3x3_s2_0_split_3
I0403 15:32:34.805784 12068 net.cpp:141] Setting up pool3/3x3_s2_pool3/3x3_s2_0_split
I0403 15:32:34.805809 12068 net.cpp:148] Top shape: 24 480 14 14 (2257920)
I0403 15:32:34.805825 12068 net.cpp:148] Top shape: 24 480 14 14 (2257920)
I0403 15:32:34.805841 12068 net.cpp:148] Top shape: 24 480 14 14 (2257920)
I0403 15:32:34.805857 12068 net.cpp:148] Top shape: 24 480 14 14 (2257920)
I0403 15:32:34.805871 12068 net.cpp:156] Memory required for data: 854397984
I0403 15:32:34.805898 12068 layer_factory.hpp:77] Creating layer inception_4a/1x1
I0403 15:32:34.805922 12068 net.cpp:91] Creating Layer inception_4a/1x1
I0403 15:32:34.805940 12068 net.cpp:425] inception_4a/1x1 <- pool3/3x3_s2_pool3/3x3_s2_0_split_0
I0403 15:32:34.805960 12068 net.cpp:399] inception_4a/1x1 -> inception_4a/1x1
I0403 15:32:34.807601 12068 net.cpp:141] Setting up inception_4a/1x1
I0403 15:32:34.807631 12068 net.cpp:148] Top shape: 24 192 14 14 (903168)
I0403 15:32:34.807647 12068 net.cpp:156] Memory required for data: 858010656
I0403 15:32:34.807665 12068 layer_factory.hpp:77] Creating layer inception_4a/relu_1x1
I0403 15:32:34.807683 12068 net.cpp:91] Creating Layer inception_4a/relu_1x1
I0403 15:32:34.807698 12068 net.cpp:425] inception_4a/relu_1x1 <- inception_4a/1x1
I0403 15:32:34.807723 12068 net.cpp:386] inception_4a/relu_1x1 -> inception_4a/1x1 (in-place)
I0403 15:32:34.807899 12068 net.cpp:141] Setting up inception_4a/relu_1x1
I0403 15:32:34.807924 12068 net.cpp:148] Top shape: 24 192 14 14 (903168)
I0403 15:32:34.807939 12068 net.cpp:156] Memory required for data: 861623328
I0403 15:32:34.807952 12068 layer_factory.hpp:77] Creating layer inception_4a/3x3_reduce
I0403 15:32:34.807974 12068 net.cpp:91] Creating Layer inception_4a/3x3_reduce
I0403 15:32:34.807991 12068 net.cpp:425] inception_4a/3x3_reduce <- pool3/3x3_s2_pool3/3x3_s2_0_split_1
I0403 15:32:34.808013 12068 net.cpp:399] inception_4a/3x3_reduce -> inception_4a/3x3_reduce
I0403 15:32:34.809288 12068 net.cpp:141] Setting up inception_4a/3x3_reduce
I0403 15:32:34.809319 12068 net.cpp:148] Top shape: 24 96 14 14 (451584)
I0403 15:32:34.809335 12068 net.cpp:156] Memory required for data: 863429664
I0403 15:32:34.809358 12068 layer_factory.hpp:77] Creating layer inception_4a/relu_3x3_reduce
I0403 15:32:34.809383 12068 net.cpp:91] Creating Layer inception_4a/relu_3x3_reduce
I0403 15:32:34.809402 12068 net.cpp:425] inception_4a/relu_3x3_reduce <- inception_4a/3x3_reduce
I0403 15:32:34.809419 12068 net.cpp:386] inception_4a/relu_3x3_reduce -> inception_4a/3x3_reduce (in-place)
I0403 15:32:34.809597 12068 net.cpp:141] Setting up inception_4a/relu_3x3_reduce
I0403 15:32:34.809622 12068 net.cpp:148] Top shape: 24 96 14 14 (451584)
I0403 15:32:34.809636 12068 net.cpp:156] Memory required for data: 865236000
I0403 15:32:34.809650 12068 layer_factory.hpp:77] Creating layer inception_4a/3x3
I0403 15:32:34.809672 12068 net.cpp:91] Creating Layer inception_4a/3x3
I0403 15:32:34.809690 12068 net.cpp:425] inception_4a/3x3 <- inception_4a/3x3_reduce
I0403 15:32:34.809712 12068 net.cpp:399] inception_4a/3x3 -> inception_4a/3x3
I0403 15:32:34.812397 12068 net.cpp:141] Setting up inception_4a/3x3
I0403 15:32:34.812425 12068 net.cpp:148] Top shape: 24 208 14 14 (978432)
I0403 15:32:34.812441 12068 net.cpp:156] Memory required for data: 869149728
I0403 15:32:34.812459 12068 layer_factory.hpp:77] Creating layer inception_4a/relu_3x3
I0403 15:32:34.812477 12068 net.cpp:91] Creating Layer inception_4a/relu_3x3
I0403 15:32:34.812494 12068 net.cpp:425] inception_4a/relu_3x3 <- inception_4a/3x3
I0403 15:32:34.812513 12068 net.cpp:386] inception_4a/relu_3x3 -> inception_4a/3x3 (in-place)
I0403 15:32:34.812794 12068 net.cpp:141] Setting up inception_4a/relu_3x3
I0403 15:32:34.812821 12068 net.cpp:148] Top shape: 24 208 14 14 (978432)
I0403 15:32:34.812835 12068 net.cpp:156] Memory required for data: 873063456
I0403 15:32:34.812850 12068 layer_factory.hpp:77] Creating layer inception_4a/5x5_reduce
I0403 15:32:34.812873 12068 net.cpp:91] Creating Layer inception_4a/5x5_reduce
I0403 15:32:34.812891 12068 net.cpp:425] inception_4a/5x5_reduce <- pool3/3x3_s2_pool3/3x3_s2_0_split_2
I0403 15:32:34.812913 12068 net.cpp:399] inception_4a/5x5_reduce -> inception_4a/5x5_reduce
I0403 15:32:34.813946 12068 net.cpp:141] Setting up inception_4a/5x5_reduce
I0403 15:32:34.813973 12068 net.cpp:148] Top shape: 24 16 14 14 (75264)
I0403 15:32:34.813987 12068 net.cpp:156] Memory required for data: 873364512
I0403 15:32:34.814007 12068 layer_factory.hpp:77] Creating layer inception_4a/relu_5x5_reduce
I0403 15:32:34.814026 12068 net.cpp:91] Creating Layer inception_4a/relu_5x5_reduce
I0403 15:32:34.814043 12068 net.cpp:425] inception_4a/relu_5x5_reduce <- inception_4a/5x5_reduce
I0403 15:32:34.814061 12068 net.cpp:386] inception_4a/relu_5x5_reduce -> inception_4a/5x5_reduce (in-place)
I0403 15:32:34.814237 12068 net.cpp:141] Setting up inception_4a/relu_5x5_reduce
I0403 15:32:34.814262 12068 net.cpp:148] Top shape: 24 16 14 14 (75264)
I0403 15:32:34.814276 12068 net.cpp:156] Memory required for data: 873665568
I0403 15:32:34.814291 12068 layer_factory.hpp:77] Creating layer inception_4a/5x5
I0403 15:32:34.814313 12068 net.cpp:91] Creating Layer inception_4a/5x5
I0403 15:32:34.814332 12068 net.cpp:425] inception_4a/5x5 <- inception_4a/5x5_reduce
I0403 15:32:34.814352 12068 net.cpp:399] inception_4a/5x5 -> inception_4a/5x5
I0403 15:32:34.815451 12068 net.cpp:141] Setting up inception_4a/5x5
I0403 15:32:34.815479 12068 net.cpp:148] Top shape: 24 48 14 14 (225792)
I0403 15:32:34.815493 12068 net.cpp:156] Memory required for data: 874568736
I0403 15:32:34.815512 12068 layer_factory.hpp:77] Creating layer inception_4a/relu_5x5
I0403 15:32:34.815533 12068 net.cpp:91] Creating Layer inception_4a/relu_5x5
I0403 15:32:34.815549 12068 net.cpp:425] inception_4a/relu_5x5 <- inception_4a/5x5
I0403 15:32:34.815567 12068 net.cpp:386] inception_4a/relu_5x5 -> inception_4a/5x5 (in-place)
I0403 15:32:34.815748 12068 net.cpp:141] Setting up inception_4a/relu_5x5
I0403 15:32:34.815775 12068 net.cpp:148] Top shape: 24 48 14 14 (225792)
I0403 15:32:34.815791 12068 net.cpp:156] Memory required for data: 875471904
I0403 15:32:34.815805 12068 layer_factory.hpp:77] Creating layer inception_4a/pool
I0403 15:32:34.815824 12068 net.cpp:91] Creating Layer inception_4a/pool
I0403 15:32:34.815839 12068 net.cpp:425] inception_4a/pool <- pool3/3x3_s2_pool3/3x3_s2_0_split_3
I0403 15:32:34.815860 12068 net.cpp:399] inception_4a/pool -> inception_4a/pool
I0403 15:32:34.815920 12068 net.cpp:141] Setting up inception_4a/pool
I0403 15:32:34.815944 12068 net.cpp:148] Top shape: 24 480 14 14 (2257920)
I0403 15:32:34.815958 12068 net.cpp:156] Memory required for data: 884503584
I0403 15:32:34.815973 12068 layer_factory.hpp:77] Creating layer inception_4a/pool_proj
I0403 15:32:34.815994 12068 net.cpp:91] Creating Layer inception_4a/pool_proj
I0403 15:32:34.816014 12068 net.cpp:425] inception_4a/pool_proj <- inception_4a/pool
I0403 15:32:34.816035 12068 net.cpp:399] inception_4a/pool_proj -> inception_4a/pool_proj
I0403 15:32:34.817224 12068 net.cpp:141] Setting up inception_4a/pool_proj
I0403 15:32:34.817255 12068 net.cpp:148] Top shape: 24 64 14 14 (301056)
I0403 15:32:34.817284 12068 net.cpp:156] Memory required for data: 885707808
I0403 15:32:34.817303 12068 layer_factory.hpp:77] Creating layer inception_4a/relu_pool_proj
I0403 15:32:34.817322 12068 net.cpp:91] Creating Layer inception_4a/relu_pool_proj
I0403 15:32:34.817337 12068 net.cpp:425] inception_4a/relu_pool_proj <- inception_4a/pool_proj
I0403 15:32:34.817354 12068 net.cpp:386] inception_4a/relu_pool_proj -> inception_4a/pool_proj (in-place)
I0403 15:32:34.817646 12068 net.cpp:141] Setting up inception_4a/relu_pool_proj
I0403 15:32:34.817673 12068 net.cpp:148] Top shape: 24 64 14 14 (301056)
I0403 15:32:34.817689 12068 net.cpp:156] Memory required for data: 886912032
I0403 15:32:34.817703 12068 layer_factory.hpp:77] Creating layer inception_4a/output
I0403 15:32:34.817720 12068 net.cpp:91] Creating Layer inception_4a/output
I0403 15:32:34.817736 12068 net.cpp:425] inception_4a/output <- inception_4a/1x1
I0403 15:32:34.817754 12068 net.cpp:425] inception_4a/output <- inception_4a/3x3
I0403 15:32:34.817770 12068 net.cpp:425] inception_4a/output <- inception_4a/5x5
I0403 15:32:34.817785 12068 net.cpp:425] inception_4a/output <- inception_4a/pool_proj
I0403 15:32:34.817802 12068 net.cpp:399] inception_4a/output -> inception_4a/output
I0403 15:32:34.817848 12068 net.cpp:141] Setting up inception_4a/output
I0403 15:32:34.817872 12068 net.cpp:148] Top shape: 24 512 14 14 (2408448)
I0403 15:32:34.817885 12068 net.cpp:156] Memory required for data: 896545824
I0403 15:32:34.817900 12068 layer_factory.hpp:77] Creating layer inception_4a/output_inception_4a/output_0_split
I0403 15:32:34.817919 12068 net.cpp:91] Creating Layer inception_4a/output_inception_4a/output_0_split
I0403 15:32:34.817935 12068 net.cpp:425] inception_4a/output_inception_4a/output_0_split <- inception_4a/output
I0403 15:32:34.817953 12068 net.cpp:399] inception_4a/output_inception_4a/output_0_split -> inception_4a/output_inception_4a/output_0_split_0
I0403 15:32:34.817975 12068 net.cpp:399] inception_4a/output_inception_4a/output_0_split -> inception_4a/output_inception_4a/output_0_split_1
I0403 15:32:34.817996 12068 net.cpp:399] inception_4a/output_inception_4a/output_0_split -> inception_4a/output_inception_4a/output_0_split_2
I0403 15:32:34.818017 12068 net.cpp:399] inception_4a/output_inception_4a/output_0_split -> inception_4a/output_inception_4a/output_0_split_3
I0403 15:32:34.818039 12068 net.cpp:399] inception_4a/output_inception_4a/output_0_split -> inception_4a/output_inception_4a/output_0_split_4
I0403 15:32:34.818135 12068 net.cpp:141] Setting up inception_4a/output_inception_4a/output_0_split
I0403 15:32:34.818158 12068 net.cpp:148] Top shape: 24 512 14 14 (2408448)
I0403 15:32:34.818174 12068 net.cpp:148] Top shape: 24 512 14 14 (2408448)
I0403 15:32:34.818189 12068 net.cpp:148] Top shape: 24 512 14 14 (2408448)
I0403 15:32:34.818204 12068 net.cpp:148] Top shape: 24 512 14 14 (2408448)
I0403 15:32:34.818219 12068 net.cpp:148] Top shape: 24 512 14 14 (2408448)
I0403 15:32:34.818233 12068 net.cpp:156] Memory required for data: 944714784
I0403 15:32:34.818246 12068 layer_factory.hpp:77] Creating layer loss1/ave_pool
I0403 15:32:34.818266 12068 net.cpp:91] Creating Layer loss1/ave_pool
I0403 15:32:34.818284 12068 net.cpp:425] loss1/ave_pool <- inception_4a/output_inception_4a/output_0_split_0
I0403 15:32:34.818301 12068 net.cpp:399] loss1/ave_pool -> loss1/ave_pool
I0403 15:32:34.818511 12068 net.cpp:141] Setting up loss1/ave_pool
I0403 15:32:34.818541 12068 net.cpp:148] Top shape: 24 512 4 4 (196608)
I0403 15:32:34.818557 12068 net.cpp:156] Memory required for data: 945501216
I0403 15:32:34.818572 12068 layer_factory.hpp:77] Creating layer loss1/conv
I0403 15:32:34.818593 12068 net.cpp:91] Creating Layer loss1/conv
I0403 15:32:34.818610 12068 net.cpp:425] loss1/conv <- loss1/ave_pool
I0403 15:32:34.818630 12068 net.cpp:399] loss1/conv -> loss1/conv
I0403 15:32:34.820078 12068 net.cpp:141] Setting up loss1/conv
I0403 15:32:34.820106 12068 net.cpp:148] Top shape: 24 128 4 4 (49152)
I0403 15:32:34.820147 12068 net.cpp:156] Memory required for data: 945697824
I0403 15:32:34.820165 12068 layer_factory.hpp:77] Creating layer loss1/relu_conv
I0403 15:32:34.820183 12068 net.cpp:91] Creating Layer loss1/relu_conv
I0403 15:32:34.820204 12068 net.cpp:425] loss1/relu_conv <- loss1/conv
I0403 15:32:34.820219 12068 net.cpp:386] loss1/relu_conv -> loss1/conv (in-place)
I0403 15:32:34.820498 12068 net.cpp:141] Setting up loss1/relu_conv
I0403 15:32:34.820523 12068 net.cpp:148] Top shape: 24 128 4 4 (49152)
I0403 15:32:34.820538 12068 net.cpp:156] Memory required for data: 945894432
I0403 15:32:34.820551 12068 layer_factory.hpp:77] Creating layer loss1/fc
I0403 15:32:34.820575 12068 net.cpp:91] Creating Layer loss1/fc
I0403 15:32:34.820596 12068 net.cpp:425] loss1/fc <- loss1/conv
I0403 15:32:34.820614 12068 net.cpp:399] loss1/fc -> loss1/fc
I0403 15:32:34.837880 12068 net.cpp:141] Setting up loss1/fc
I0403 15:32:34.837915 12068 net.cpp:148] Top shape: 24 1024 (24576)
I0403 15:32:34.837929 12068 net.cpp:156] Memory required for data: 945992736
I0403 15:32:34.837947 12068 layer_factory.hpp:77] Creating layer loss1/relu_fc
I0403 15:32:34.837967 12068 net.cpp:91] Creating Layer loss1/relu_fc
I0403 15:32:34.837983 12068 net.cpp:425] loss1/relu_fc <- loss1/fc
I0403 15:32:34.838001 12068 net.cpp:386] loss1/relu_fc -> loss1/fc (in-place)
I0403 15:32:34.838184 12068 net.cpp:141] Setting up loss1/relu_fc
I0403 15:32:34.838208 12068 net.cpp:148] Top shape: 24 1024 (24576)
I0403 15:32:34.838222 12068 net.cpp:156] Memory required for data: 946091040
I0403 15:32:34.838237 12068 layer_factory.hpp:77] Creating layer loss1/drop_fc
I0403 15:32:34.838263 12068 net.cpp:91] Creating Layer loss1/drop_fc
I0403 15:32:34.838281 12068 net.cpp:425] loss1/drop_fc <- loss1/fc
I0403 15:32:34.838300 12068 net.cpp:386] loss1/drop_fc -> loss1/fc (in-place)
I0403 15:32:34.838351 12068 net.cpp:141] Setting up loss1/drop_fc
I0403 15:32:34.838373 12068 net.cpp:148] Top shape: 24 1024 (24576)
I0403 15:32:34.838392 12068 net.cpp:156] Memory required for data: 946189344
I0403 15:32:34.838407 12068 layer_factory.hpp:77] Creating layer loss1/classifier_plantvillage
I0403 15:32:34.838428 12068 net.cpp:91] Creating Layer loss1/classifier_plantvillage
I0403 15:32:34.838445 12068 net.cpp:425] loss1/classifier_plantvillage <- loss1/fc
I0403 15:32:34.838465 12068 net.cpp:399] loss1/classifier_plantvillage -> loss1/classifier_plantvillage
I0403 15:32:34.839351 12068 net.cpp:141] Setting up loss1/classifier_plantvillage
I0403 15:32:34.839385 12068 net.cpp:148] Top shape: 24 38 (912)
I0403 15:32:34.839401 12068 net.cpp:156] Memory required for data: 946192992
I0403 15:32:34.839418 12068 layer_factory.hpp:77] Creating layer loss1/classifier_plantvillage_loss1/classifier_plantvillage_0_split
I0403 15:32:34.839437 12068 net.cpp:91] Creating Layer loss1/classifier_plantvillage_loss1/classifier_plantvillage_0_split
I0403 15:32:34.839452 12068 net.cpp:425] loss1/classifier_plantvillage_loss1/classifier_plantvillage_0_split <- loss1/classifier_plantvillage
I0403 15:32:34.839483 12068 net.cpp:399] loss1/classifier_plantvillage_loss1/classifier_plantvillage_0_split -> loss1/classifier_plantvillage_loss1/classifier_plantvillage_0_split_0
I0403 15:32:34.839504 12068 net.cpp:399] loss1/classifier_plantvillage_loss1/classifier_plantvillage_0_split -> loss1/classifier_plantvillage_loss1/classifier_plantvillage_0_split_1
I0403 15:32:34.839525 12068 net.cpp:399] loss1/classifier_plantvillage_loss1/classifier_plantvillage_0_split -> loss1/classifier_plantvillage_loss1/classifier_plantvillage_0_split_2
I0403 15:32:34.839591 12068 net.cpp:141] Setting up loss1/classifier_plantvillage_loss1/classifier_plantvillage_0_split
I0403 15:32:34.839614 12068 net.cpp:148] Top shape: 24 38 (912)
I0403 15:32:34.839630 12068 net.cpp:148] Top shape: 24 38 (912)
I0403 15:32:34.839645 12068 net.cpp:148] Top shape: 24 38 (912)
I0403 15:32:34.839659 12068 net.cpp:156] Memory required for data: 946203936
I0403 15:32:34.839673 12068 layer_factory.hpp:77] Creating layer inception_4b/1x1
I0403 15:32:34.839695 12068 net.cpp:91] Creating Layer inception_4b/1x1
I0403 15:32:34.839727 12068 net.cpp:425] inception_4b/1x1 <- inception_4a/output_inception_4a/output_0_split_1
I0403 15:32:34.839748 12068 net.cpp:399] inception_4b/1x1 -> inception_4b/1x1
I0403 15:32:34.841397 12068 net.cpp:141] Setting up inception_4b/1x1
I0403 15:32:34.841423 12068 net.cpp:148] Top shape: 24 160 14 14 (752640)
I0403 15:32:34.841439 12068 net.cpp:156] Memory required for data: 949214496
I0403 15:32:34.841456 12068 layer_factory.hpp:77] Creating layer inception_4b/relu_1x1
I0403 15:32:34.841476 12068 net.cpp:91] Creating Layer inception_4b/relu_1x1
I0403 15:32:34.841492 12068 net.cpp:425] inception_4b/relu_1x1 <- inception_4b/1x1
I0403 15:32:34.841509 12068 net.cpp:386] inception_4b/relu_1x1 -> inception_4b/1x1 (in-place)
I0403 15:32:34.841682 12068 net.cpp:141] Setting up inception_4b/relu_1x1
I0403 15:32:34.841706 12068 net.cpp:148] Top shape: 24 160 14 14 (752640)
I0403 15:32:34.841720 12068 net.cpp:156] Memory required for data: 952225056
I0403 15:32:34.841734 12068 layer_factory.hpp:77] Creating layer inception_4b/3x3_reduce
I0403 15:32:34.841756 12068 net.cpp:91] Creating Layer inception_4b/3x3_reduce
I0403 15:32:34.841773 12068 net.cpp:425] inception_4b/3x3_reduce <- inception_4a/output_inception_4a/output_0_split_2
I0403 15:32:34.841797 12068 net.cpp:399] inception_4b/3x3_reduce -> inception_4b/3x3_reduce
I0403 15:32:34.843122 12068 net.cpp:141] Setting up inception_4b/3x3_reduce
I0403 15:32:34.843149 12068 net.cpp:148] Top shape: 24 112 14 14 (526848)
I0403 15:32:34.843163 12068 net.cpp:156] Memory required for data: 954332448
I0403 15:32:34.843180 12068 layer_factory.hpp:77] Creating layer inception_4b/relu_3x3_reduce
I0403 15:32:34.843200 12068 net.cpp:91] Creating Layer inception_4b/relu_3x3_reduce
I0403 15:32:34.843217 12068 net.cpp:425] inception_4b/relu_3x3_reduce <- inception_4b/3x3_reduce
I0403 15:32:34.843235 12068 net.cpp:386] inception_4b/relu_3x3_reduce -> inception_4b/3x3_reduce (in-place)
I0403 15:32:34.843513 12068 net.cpp:141] Setting up inception_4b/relu_3x3_reduce
I0403 15:32:34.843539 12068 net.cpp:148] Top shape: 24 112 14 14 (526848)
I0403 15:32:34.843554 12068 net.cpp:156] Memory required for data: 956439840
I0403 15:32:34.843566 12068 layer_factory.hpp:77] Creating layer inception_4b/3x3
I0403 15:32:34.843588 12068 net.cpp:91] Creating Layer inception_4b/3x3
I0403 15:32:34.843605 12068 net.cpp:425] inception_4b/3x3 <- inception_4b/3x3_reduce
I0403 15:32:34.843626 12068 net.cpp:399] inception_4b/3x3 -> inception_4b/3x3
I0403 15:32:34.846554 12068 net.cpp:141] Setting up inception_4b/3x3
I0403 15:32:34.846585 12068 net.cpp:148] Top shape: 24 224 14 14 (1053696)
I0403 15:32:34.846599 12068 net.cpp:156] Memory required for data: 960654624
I0403 15:32:34.846617 12068 layer_factory.hpp:77] Creating layer inception_4b/relu_3x3
I0403 15:32:34.846634 12068 net.cpp:91] Creating Layer inception_4b/relu_3x3
I0403 15:32:34.846650 12068 net.cpp:425] inception_4b/relu_3x3 <- inception_4b/3x3
I0403 15:32:34.846669 12068 net.cpp:386] inception_4b/relu_3x3 -> inception_4b/3x3 (in-place)
I0403 15:32:34.846849 12068 net.cpp:141] Setting up inception_4b/relu_3x3
I0403 15:32:34.846873 12068 net.cpp:148] Top shape: 24 224 14 14 (1053696)
I0403 15:32:34.846887 12068 net.cpp:156] Memory required for data: 964869408
I0403 15:32:34.846901 12068 layer_factory.hpp:77] Creating layer inception_4b/5x5_reduce
I0403 15:32:34.846923 12068 net.cpp:91] Creating Layer inception_4b/5x5_reduce
I0403 15:32:34.846940 12068 net.cpp:425] inception_4b/5x5_reduce <- inception_4a/output_inception_4a/output_0_split_3
I0403 15:32:34.846963 12068 net.cpp:399] inception_4b/5x5_reduce -> inception_4b/5x5_reduce
I0403 15:32:34.848026 12068 net.cpp:141] Setting up inception_4b/5x5_reduce
I0403 15:32:34.848053 12068 net.cpp:148] Top shape: 24 24 14 14 (112896)
I0403 15:32:34.848068 12068 net.cpp:156] Memory required for data: 965320992
I0403 15:32:34.848085 12068 layer_factory.hpp:77] Creating layer inception_4b/relu_5x5_reduce
I0403 15:32:34.848106 12068 net.cpp:91] Creating Layer inception_4b/relu_5x5_reduce
I0403 15:32:34.848135 12068 net.cpp:425] inception_4b/relu_5x5_reduce <- inception_4b/5x5_reduce
I0403 15:32:34.848153 12068 net.cpp:386] inception_4b/relu_5x5_reduce -> inception_4b/5x5_reduce (in-place)
I0403 15:32:34.848331 12068 net.cpp:141] Setting up inception_4b/relu_5x5_reduce
I0403 15:32:34.848357 12068 net.cpp:148] Top shape: 24 24 14 14 (112896)
I0403 15:32:34.848372 12068 net.cpp:156] Memory required for data: 965772576
I0403 15:32:34.848405 12068 layer_factory.hpp:77] Creating layer inception_4b/5x5
I0403 15:32:34.848426 12068 net.cpp:91] Creating Layer inception_4b/5x5
I0403 15:32:34.848444 12068 net.cpp:425] inception_4b/5x5 <- inception_4b/5x5_reduce
I0403 15:32:34.848480 12068 net.cpp:399] inception_4b/5x5 -> inception_4b/5x5
I0403 15:32:34.849745 12068 net.cpp:141] Setting up inception_4b/5x5
I0403 15:32:34.849772 12068 net.cpp:148] Top shape: 24 64 14 14 (301056)
I0403 15:32:34.849788 12068 net.cpp:156] Memory required for data: 966976800
I0403 15:32:34.849807 12068 layer_factory.hpp:77] Creating layer inception_4b/relu_5x5
I0403 15:32:34.849827 12068 net.cpp:91] Creating Layer inception_4b/relu_5x5
I0403 15:32:34.849843 12068 net.cpp:425] inception_4b/relu_5x5 <- inception_4b/5x5
I0403 15:32:34.849863 12068 net.cpp:386] inception_4b/relu_5x5 -> inception_4b/5x5 (in-place)
I0403 15:32:34.850152 12068 net.cpp:141] Setting up inception_4b/relu_5x5
I0403 15:32:34.850178 12068 net.cpp:148] Top shape: 24 64 14 14 (301056)
I0403 15:32:34.850191 12068 net.cpp:156] Memory required for data: 968181024
I0403 15:32:34.850206 12068 layer_factory.hpp:77] Creating layer inception_4b/pool
I0403 15:32:34.850224 12068 net.cpp:91] Creating Layer inception_4b/pool
I0403 15:32:34.850240 12068 net.cpp:425] inception_4b/pool <- inception_4a/output_inception_4a/output_0_split_4
I0403 15:32:34.850260 12068 net.cpp:399] inception_4b/pool -> inception_4b/pool
I0403 15:32:34.850324 12068 net.cpp:141] Setting up inception_4b/pool
I0403 15:32:34.850349 12068 net.cpp:148] Top shape: 24 512 14 14 (2408448)
I0403 15:32:34.850364 12068 net.cpp:156] Memory required for data: 977814816
I0403 15:32:34.850381 12068 layer_factory.hpp:77] Creating layer inception_4b/pool_proj
I0403 15:32:34.850405 12068 net.cpp:91] Creating Layer inception_4b/pool_proj
I0403 15:32:34.850424 12068 net.cpp:425] inception_4b/pool_proj <- inception_4b/pool
I0403 15:32:34.850445 12068 net.cpp:399] inception_4b/pool_proj -> inception_4b/pool_proj
I0403 15:32:34.851644 12068 net.cpp:141] Setting up inception_4b/pool_proj
I0403 15:32:34.851670 12068 net.cpp:148] Top shape: 24 64 14 14 (301056)
I0403 15:32:34.851686 12068 net.cpp:156] Memory required for data: 979019040
I0403 15:32:34.851703 12068 layer_factory.hpp:77] Creating layer inception_4b/relu_pool_proj
I0403 15:32:34.851724 12068 net.cpp:91] Creating Layer inception_4b/relu_pool_proj
I0403 15:32:34.851742 12068 net.cpp:425] inception_4b/relu_pool_proj <- inception_4b/pool_proj
I0403 15:32:34.851759 12068 net.cpp:386] inception_4b/relu_pool_proj -> inception_4b/pool_proj (in-place)
I0403 15:32:34.851943 12068 net.cpp:141] Setting up inception_4b/relu_pool_proj
I0403 15:32:34.851968 12068 net.cpp:148] Top shape: 24 64 14 14 (301056)
I0403 15:32:34.851982 12068 net.cpp:156] Memory required for data: 980223264
I0403 15:32:34.851997 12068 layer_factory.hpp:77] Creating layer inception_4b/output
I0403 15:32:34.852016 12068 net.cpp:91] Creating Layer inception_4b/output
I0403 15:32:34.852033 12068 net.cpp:425] inception_4b/output <- inception_4b/1x1
I0403 15:32:34.852051 12068 net.cpp:425] inception_4b/output <- inception_4b/3x3
I0403 15:32:34.852067 12068 net.cpp:425] inception_4b/output <- inception_4b/5x5
I0403 15:32:34.852082 12068 net.cpp:425] inception_4b/output <- inception_4b/pool_proj
I0403 15:32:34.852100 12068 net.cpp:399] inception_4b/output -> inception_4b/output
I0403 15:32:34.852147 12068 net.cpp:141] Setting up inception_4b/output
I0403 15:32:34.852171 12068 net.cpp:148] Top shape: 24 512 14 14 (2408448)
I0403 15:32:34.852185 12068 net.cpp:156] Memory required for data: 989857056
I0403 15:32:34.852215 12068 layer_factory.hpp:77] Creating layer inception_4b/output_inception_4b/output_0_split
I0403 15:32:34.852232 12068 net.cpp:91] Creating Layer inception_4b/output_inception_4b/output_0_split
I0403 15:32:34.852248 12068 net.cpp:425] inception_4b/output_inception_4b/output_0_split <- inception_4b/output
I0403 15:32:34.852268 12068 net.cpp:399] inception_4b/output_inception_4b/output_0_split -> inception_4b/output_inception_4b/output_0_split_0
I0403 15:32:34.852290 12068 net.cpp:399] inception_4b/output_inception_4b/output_0_split -> inception_4b/output_inception_4b/output_0_split_1
I0403 15:32:34.852310 12068 net.cpp:399] inception_4b/output_inception_4b/output_0_split -> inception_4b/output_inception_4b/output_0_split_2
I0403 15:32:34.852334 12068 net.cpp:399] inception_4b/output_inception_4b/output_0_split -> inception_4b/output_inception_4b/output_0_split_3
I0403 15:32:34.852432 12068 net.cpp:141] Setting up inception_4b/output_inception_4b/output_0_split
I0403 15:32:34.852458 12068 net.cpp:148] Top shape: 24 512 14 14 (2408448)
I0403 15:32:34.852473 12068 net.cpp:148] Top shape: 24 512 14 14 (2408448)
I0403 15:32:34.852488 12068 net.cpp:148] Top shape: 24 512 14 14 (2408448)
I0403 15:32:34.852502 12068 net.cpp:148] Top shape: 24 512 14 14 (2408448)
I0403 15:32:34.852516 12068 net.cpp:156] Memory required for data: 1028392224
I0403 15:32:34.852530 12068 layer_factory.hpp:77] Creating layer inception_4c/1x1
I0403 15:32:34.852552 12068 net.cpp:91] Creating Layer inception_4c/1x1
I0403 15:32:34.852571 12068 net.cpp:425] inception_4c/1x1 <- inception_4b/output_inception_4b/output_0_split_0
I0403 15:32:34.852592 12068 net.cpp:399] inception_4c/1x1 -> inception_4c/1x1
I0403 15:32:34.854024 12068 net.cpp:141] Setting up inception_4c/1x1
I0403 15:32:34.854065 12068 net.cpp:148] Top shape: 24 128 14 14 (602112)
I0403 15:32:34.854081 12068 net.cpp:156] Memory required for data: 1030800672
I0403 15:32:34.854101 12068 layer_factory.hpp:77] Creating layer inception_4c/relu_1x1
I0403 15:32:34.854123 12068 net.cpp:91] Creating Layer inception_4c/relu_1x1
I0403 15:32:34.854141 12068 net.cpp:425] inception_4c/relu_1x1 <- inception_4c/1x1
I0403 15:32:34.854159 12068 net.cpp:386] inception_4c/relu_1x1 -> inception_4c/1x1 (in-place)
I0403 15:32:34.854346 12068 net.cpp:141] Setting up inception_4c/relu_1x1
I0403 15:32:34.854372 12068 net.cpp:148] Top shape: 24 128 14 14 (602112)
I0403 15:32:34.854393 12068 net.cpp:156] Memory required for data: 1033209120
I0403 15:32:34.854408 12068 layer_factory.hpp:77] Creating layer inception_4c/3x3_reduce
I0403 15:32:34.854430 12068 net.cpp:91] Creating Layer inception_4c/3x3_reduce
I0403 15:32:34.854449 12068 net.cpp:425] inception_4c/3x3_reduce <- inception_4b/output_inception_4b/output_0_split_1
I0403 15:32:34.854471 12068 net.cpp:399] inception_4c/3x3_reduce -> inception_4c/3x3_reduce
I0403 15:32:34.856487 12068 net.cpp:141] Setting up inception_4c/3x3_reduce
I0403 15:32:34.856515 12068 net.cpp:148] Top shape: 24 128 14 14 (602112)
I0403 15:32:34.856531 12068 net.cpp:156] Memory required for data: 1035617568
I0403 15:32:34.856550 12068 layer_factory.hpp:77] Creating layer inception_4c/relu_3x3_reduce
I0403 15:32:34.856569 12068 net.cpp:91] Creating Layer inception_4c/relu_3x3_reduce
I0403 15:32:34.856585 12068 net.cpp:425] inception_4c/relu_3x3_reduce <- inception_4c/3x3_reduce
I0403 15:32:34.856606 12068 net.cpp:386] inception_4c/relu_3x3_reduce -> inception_4c/3x3_reduce (in-place)
I0403 15:32:34.856904 12068 net.cpp:141] Setting up inception_4c/relu_3x3_reduce
I0403 15:32:34.856931 12068 net.cpp:148] Top shape: 24 128 14 14 (602112)
I0403 15:32:34.856946 12068 net.cpp:156] Memory required for data: 1038026016
I0403 15:32:34.856961 12068 layer_factory.hpp:77] Creating layer inception_4c/3x3
I0403 15:32:34.856986 12068 net.cpp:91] Creating Layer inception_4c/3x3
I0403 15:32:34.857004 12068 net.cpp:425] inception_4c/3x3 <- inception_4c/3x3_reduce
I0403 15:32:34.857026 12068 net.cpp:399] inception_4c/3x3 -> inception_4c/3x3
I0403 15:32:34.860754 12068 net.cpp:141] Setting up inception_4c/3x3
I0403 15:32:34.860797 12068 net.cpp:148] Top shape: 24 256 14 14 (1204224)
I0403 15:32:34.860815 12068 net.cpp:156] Memory required for data: 1042842912
I0403 15:32:34.860846 12068 layer_factory.hpp:77] Creating layer inception_4c/relu_3x3
I0403 15:32:34.860870 12068 net.cpp:91] Creating Layer inception_4c/relu_3x3
I0403 15:32:34.860888 12068 net.cpp:425] inception_4c/relu_3x3 <- inception_4c/3x3
I0403 15:32:34.860906 12068 net.cpp:386] inception_4c/relu_3x3 -> inception_4c/3x3 (in-place)
I0403 15:32:34.861095 12068 net.cpp:141] Setting up inception_4c/relu_3x3
I0403 15:32:34.861120 12068 net.cpp:148] Top shape: 24 256 14 14 (1204224)
I0403 15:32:34.861135 12068 net.cpp:156] Memory required for data: 1047659808
I0403 15:32:34.861150 12068 layer_factory.hpp:77] Creating layer inception_4c/5x5_reduce
I0403 15:32:34.861174 12068 net.cpp:91] Creating Layer inception_4c/5x5_reduce
I0403 15:32:34.861192 12068 net.cpp:425] inception_4c/5x5_reduce <- inception_4b/output_inception_4b/output_0_split_2
I0403 15:32:34.861218 12068 net.cpp:399] inception_4c/5x5_reduce -> inception_4c/5x5_reduce
I0403 15:32:34.862354 12068 net.cpp:141] Setting up inception_4c/5x5_reduce
I0403 15:32:34.862392 12068 net.cpp:148] Top shape: 24 24 14 14 (112896)
I0403 15:32:34.862411 12068 net.cpp:156] Memory required for data: 1048111392
I0403 15:32:34.862429 12068 layer_factory.hpp:77] Creating layer inception_4c/relu_5x5_reduce
I0403 15:32:34.862450 12068 net.cpp:91] Creating Layer inception_4c/relu_5x5_reduce
I0403 15:32:34.862468 12068 net.cpp:425] inception_4c/relu_5x5_reduce <- inception_4c/5x5_reduce
I0403 15:32:34.862486 12068 net.cpp:386] inception_4c/relu_5x5_reduce -> inception_4c/5x5_reduce (in-place)
I0403 15:32:34.862676 12068 net.cpp:141] Setting up inception_4c/relu_5x5_reduce
I0403 15:32:34.862701 12068 net.cpp:148] Top shape: 24 24 14 14 (112896)
I0403 15:32:34.862720 12068 net.cpp:156] Memory required for data: 1048562976
I0403 15:32:34.862735 12068 layer_factory.hpp:77] Creating layer inception_4c/5x5
I0403 15:32:34.862754 12068 net.cpp:91] Creating Layer inception_4c/5x5
I0403 15:32:34.862772 12068 net.cpp:425] inception_4c/5x5 <- inception_4c/5x5_reduce
I0403 15:32:34.862794 12068 net.cpp:399] inception_4c/5x5 -> inception_4c/5x5
I0403 15:32:34.864100 12068 net.cpp:141] Setting up inception_4c/5x5
I0403 15:32:34.864128 12068 net.cpp:148] Top shape: 24 64 14 14 (301056)
I0403 15:32:34.864145 12068 net.cpp:156] Memory required for data: 1049767200
I0403 15:32:34.864163 12068 layer_factory.hpp:77] Creating layer inception_4c/relu_5x5
I0403 15:32:34.864183 12068 net.cpp:91] Creating Layer inception_4c/relu_5x5
I0403 15:32:34.864202 12068 net.cpp:425] inception_4c/relu_5x5 <- inception_4c/5x5
I0403 15:32:34.864220 12068 net.cpp:386] inception_4c/relu_5x5 -> inception_4c/5x5 (in-place)
I0403 15:32:34.864552 12068 net.cpp:141] Setting up inception_4c/relu_5x5
I0403 15:32:34.864580 12068 net.cpp:148] Top shape: 24 64 14 14 (301056)
I0403 15:32:34.864595 12068 net.cpp:156] Memory required for data: 1050971424
I0403 15:32:34.864610 12068 layer_factory.hpp:77] Creating layer inception_4c/pool
I0403 15:32:34.864644 12068 net.cpp:91] Creating Layer inception_4c/pool
I0403 15:32:34.864661 12068 net.cpp:425] inception_4c/pool <- inception_4b/output_inception_4b/output_0_split_3
I0403 15:32:34.864681 12068 net.cpp:399] inception_4c/pool -> inception_4c/pool
I0403 15:32:34.864749 12068 net.cpp:141] Setting up inception_4c/pool
I0403 15:32:34.864774 12068 net.cpp:148] Top shape: 24 512 14 14 (2408448)
I0403 15:32:34.864789 12068 net.cpp:156] Memory required for data: 1060605216
I0403 15:32:34.864804 12068 layer_factory.hpp:77] Creating layer inception_4c/pool_proj
I0403 15:32:34.864826 12068 net.cpp:91] Creating Layer inception_4c/pool_proj
I0403 15:32:34.864845 12068 net.cpp:425] inception_4c/pool_proj <- inception_4c/pool
I0403 15:32:34.864869 12068 net.cpp:399] inception_4c/pool_proj -> inception_4c/pool_proj
I0403 15:32:34.866134 12068 net.cpp:141] Setting up inception_4c/pool_proj
I0403 15:32:34.866163 12068 net.cpp:148] Top shape: 24 64 14 14 (301056)
I0403 15:32:34.866194 12068 net.cpp:156] Memory required for data: 1061809440
I0403 15:32:34.866214 12068 layer_factory.hpp:77] Creating layer inception_4c/relu_pool_proj
I0403 15:32:34.866233 12068 net.cpp:91] Creating Layer inception_4c/relu_pool_proj
I0403 15:32:34.866251 12068 net.cpp:425] inception_4c/relu_pool_proj <- inception_4c/pool_proj
I0403 15:32:34.866269 12068 net.cpp:386] inception_4c/relu_pool_proj -> inception_4c/pool_proj (in-place)
I0403 15:32:34.866461 12068 net.cpp:141] Setting up inception_4c/relu_pool_proj
I0403 15:32:34.866485 12068 net.cpp:148] Top shape: 24 64 14 14 (301056)
I0403 15:32:34.866500 12068 net.cpp:156] Memory required for data: 1063013664
I0403 15:32:34.866515 12068 layer_factory.hpp:77] Creating layer inception_4c/output
I0403 15:32:34.866535 12068 net.cpp:91] Creating Layer inception_4c/output
I0403 15:32:34.866552 12068 net.cpp:425] inception_4c/output <- inception_4c/1x1
I0403 15:32:34.866569 12068 net.cpp:425] inception_4c/output <- inception_4c/3x3
I0403 15:32:34.866586 12068 net.cpp:425] inception_4c/output <- inception_4c/5x5
I0403 15:32:34.866602 12068 net.cpp:425] inception_4c/output <- inception_4c/pool_proj
I0403 15:32:34.866621 12068 net.cpp:399] inception_4c/output -> inception_4c/output
I0403 15:32:34.866672 12068 net.cpp:141] Setting up inception_4c/output
I0403 15:32:34.866694 12068 net.cpp:148] Top shape: 24 512 14 14 (2408448)
I0403 15:32:34.866709 12068 net.cpp:156] Memory required for data: 1072647456
I0403 15:32:34.866724 12068 layer_factory.hpp:77] Creating layer inception_4c/output_inception_4c/output_0_split
I0403 15:32:34.866741 12068 net.cpp:91] Creating Layer inception_4c/output_inception_4c/output_0_split
I0403 15:32:34.866757 12068 net.cpp:425] inception_4c/output_inception_4c/output_0_split <- inception_4c/output
I0403 15:32:34.866777 12068 net.cpp:399] inception_4c/output_inception_4c/output_0_split -> inception_4c/output_inception_4c/output_0_split_0
I0403 15:32:34.866801 12068 net.cpp:399] inception_4c/output_inception_4c/output_0_split -> inception_4c/output_inception_4c/output_0_split_1
I0403 15:32:34.866833 12068 net.cpp:399] inception_4c/output_inception_4c/output_0_split -> inception_4c/output_inception_4c/output_0_split_2
I0403 15:32:34.866854 12068 net.cpp:399] inception_4c/output_inception_4c/output_0_split -> inception_4c/output_inception_4c/output_0_split_3
I0403 15:32:34.866947 12068 net.cpp:141] Setting up inception_4c/output_inception_4c/output_0_split
I0403 15:32:34.866976 12068 net.cpp:148] Top shape: 24 512 14 14 (2408448)
I0403 15:32:34.866993 12068 net.cpp:148] Top shape: 24 512 14 14 (2408448)
I0403 15:32:34.867010 12068 net.cpp:148] Top shape: 24 512 14 14 (2408448)
I0403 15:32:34.867027 12068 net.cpp:148] Top shape: 24 512 14 14 (2408448)
I0403 15:32:34.867040 12068 net.cpp:156] Memory required for data: 1111182624
I0403 15:32:34.867055 12068 layer_factory.hpp:77] Creating layer inception_4d/1x1
I0403 15:32:34.867079 12068 net.cpp:91] Creating Layer inception_4d/1x1
I0403 15:32:34.867110 12068 net.cpp:425] inception_4d/1x1 <- inception_4c/output_inception_4c/output_0_split_0
I0403 15:32:34.867131 12068 net.cpp:399] inception_4d/1x1 -> inception_4d/1x1
I0403 15:32:34.868546 12068 net.cpp:141] Setting up inception_4d/1x1
I0403 15:32:34.868577 12068 net.cpp:148] Top shape: 24 112 14 14 (526848)
I0403 15:32:34.868592 12068 net.cpp:156] Memory required for data: 1113290016
I0403 15:32:34.868609 12068 layer_factory.hpp:77] Creating layer inception_4d/relu_1x1
I0403 15:32:34.868628 12068 net.cpp:91] Creating Layer inception_4d/relu_1x1
I0403 15:32:34.868643 12068 net.cpp:425] inception_4d/relu_1x1 <- inception_4d/1x1
I0403 15:32:34.868664 12068 net.cpp:386] inception_4d/relu_1x1 -> inception_4d/1x1 (in-place)
I0403 15:32:34.868849 12068 net.cpp:141] Setting up inception_4d/relu_1x1
I0403 15:32:34.868873 12068 net.cpp:148] Top shape: 24 112 14 14 (526848)
I0403 15:32:34.868887 12068 net.cpp:156] Memory required for data: 1115397408
I0403 15:32:34.868902 12068 layer_factory.hpp:77] Creating layer inception_4d/3x3_reduce
I0403 15:32:34.868938 12068 net.cpp:91] Creating Layer inception_4d/3x3_reduce
I0403 15:32:34.868957 12068 net.cpp:425] inception_4d/3x3_reduce <- inception_4c/output_inception_4c/output_0_split_1
I0403 15:32:34.868983 12068 net.cpp:399] inception_4d/3x3_reduce -> inception_4d/3x3_reduce
I0403 15:32:34.870498 12068 net.cpp:141] Setting up inception_4d/3x3_reduce
I0403 15:32:34.870528 12068 net.cpp:148] Top shape: 24 144 14 14 (677376)
I0403 15:32:34.870544 12068 net.cpp:156] Memory required for data: 1118106912
I0403 15:32:34.870563 12068 layer_factory.hpp:77] Creating layer inception_4d/relu_3x3_reduce
I0403 15:32:34.870580 12068 net.cpp:91] Creating Layer inception_4d/relu_3x3_reduce
I0403 15:32:34.870596 12068 net.cpp:425] inception_4d/relu_3x3_reduce <- inception_4d/3x3_reduce
I0403 15:32:34.870615 12068 net.cpp:386] inception_4d/relu_3x3_reduce -> inception_4d/3x3_reduce (in-place)
I0403 15:32:34.870908 12068 net.cpp:141] Setting up inception_4d/relu_3x3_reduce
I0403 15:32:34.870936 12068 net.cpp:148] Top shape: 24 144 14 14 (677376)
I0403 15:32:34.870952 12068 net.cpp:156] Memory required for data: 1120816416
I0403 15:32:34.870966 12068 layer_factory.hpp:77] Creating layer inception_4d/3x3
I0403 15:32:34.870988 12068 net.cpp:91] Creating Layer inception_4d/3x3
I0403 15:32:34.871006 12068 net.cpp:425] inception_4d/3x3 <- inception_4d/3x3_reduce
I0403 15:32:34.871026 12068 net.cpp:399] inception_4d/3x3 -> inception_4d/3x3
I0403 15:32:34.875320 12068 net.cpp:141] Setting up inception_4d/3x3
I0403 15:32:34.875349 12068 net.cpp:148] Top shape: 24 288 14 14 (1354752)
I0403 15:32:34.875365 12068 net.cpp:156] Memory required for data: 1126235424
I0403 15:32:34.875385 12068 layer_factory.hpp:77] Creating layer inception_4d/relu_3x3
I0403 15:32:34.875406 12068 net.cpp:91] Creating Layer inception_4d/relu_3x3
I0403 15:32:34.875422 12068 net.cpp:425] inception_4d/relu_3x3 <- inception_4d/3x3
I0403 15:32:34.875442 12068 net.cpp:386] inception_4d/relu_3x3 -> inception_4d/3x3 (in-place)
I0403 15:32:34.875628 12068 net.cpp:141] Setting up inception_4d/relu_3x3
I0403 15:32:34.875653 12068 net.cpp:148] Top shape: 24 288 14 14 (1354752)
I0403 15:32:34.875668 12068 net.cpp:156] Memory required for data: 1131654432
I0403 15:32:34.875681 12068 layer_factory.hpp:77] Creating layer inception_4d/5x5_reduce
I0403 15:32:34.875704 12068 net.cpp:91] Creating Layer inception_4d/5x5_reduce
I0403 15:32:34.875722 12068 net.cpp:425] inception_4d/5x5_reduce <- inception_4c/output_inception_4c/output_0_split_2
I0403 15:32:34.875743 12068 net.cpp:399] inception_4d/5x5_reduce -> inception_4d/5x5_reduce
I0403 15:32:34.876911 12068 net.cpp:141] Setting up inception_4d/5x5_reduce
I0403 15:32:34.876940 12068 net.cpp:148] Top shape: 24 32 14 14 (150528)
I0403 15:32:34.876957 12068 net.cpp:156] Memory required for data: 1132256544
I0403 15:32:34.876974 12068 layer_factory.hpp:77] Creating layer inception_4d/relu_5x5_reduce
I0403 15:32:34.876992 12068 net.cpp:91] Creating Layer inception_4d/relu_5x5_reduce
I0403 15:32:34.877008 12068 net.cpp:425] inception_4d/relu_5x5_reduce <- inception_4d/5x5_reduce
I0403 15:32:34.877028 12068 net.cpp:386] inception_4d/relu_5x5_reduce -> inception_4d/5x5_reduce (in-place)
I0403 15:32:34.877219 12068 net.cpp:141] Setting up inception_4d/relu_5x5_reduce
I0403 15:32:34.877244 12068 net.cpp:148] Top shape: 24 32 14 14 (150528)
I0403 15:32:34.877259 12068 net.cpp:156] Memory required for data: 1132858656
I0403 15:32:34.877274 12068 layer_factory.hpp:77] Creating layer inception_4d/5x5
I0403 15:32:34.877295 12068 net.cpp:91] Creating Layer inception_4d/5x5
I0403 15:32:34.877313 12068 net.cpp:425] inception_4d/5x5 <- inception_4d/5x5_reduce
I0403 15:32:34.877337 12068 net.cpp:399] inception_4d/5x5 -> inception_4d/5x5
I0403 15:32:34.878845 12068 net.cpp:141] Setting up inception_4d/5x5
I0403 15:32:34.878873 12068 net.cpp:148] Top shape: 24 64 14 14 (301056)
I0403 15:32:34.878887 12068 net.cpp:156] Memory required for data: 1134062880
I0403 15:32:34.878906 12068 layer_factory.hpp:77] Creating layer inception_4d/relu_5x5
I0403 15:32:34.878942 12068 net.cpp:91] Creating Layer inception_4d/relu_5x5
I0403 15:32:34.878959 12068 net.cpp:425] inception_4d/relu_5x5 <- inception_4d/5x5
I0403 15:32:34.878978 12068 net.cpp:386] inception_4d/relu_5x5 -> inception_4d/5x5 (in-place)
I0403 15:32:34.879283 12068 net.cpp:141] Setting up inception_4d/relu_5x5
I0403 15:32:34.879310 12068 net.cpp:148] Top shape: 24 64 14 14 (301056)
I0403 15:32:34.879326 12068 net.cpp:156] Memory required for data: 1135267104
I0403 15:32:34.879340 12068 layer_factory.hpp:77] Creating layer inception_4d/pool
I0403 15:32:34.879361 12068 net.cpp:91] Creating Layer inception_4d/pool
I0403 15:32:34.879382 12068 net.cpp:425] inception_4d/pool <- inception_4c/output_inception_4c/output_0_split_3
I0403 15:32:34.879402 12068 net.cpp:399] inception_4d/pool -> inception_4d/pool
I0403 15:32:34.879472 12068 net.cpp:141] Setting up inception_4d/pool
I0403 15:32:34.879495 12068 net.cpp:148] Top shape: 24 512 14 14 (2408448)
I0403 15:32:34.879509 12068 net.cpp:156] Memory required for data: 1144900896
I0403 15:32:34.879523 12068 layer_factory.hpp:77] Creating layer inception_4d/pool_proj
I0403 15:32:34.879546 12068 net.cpp:91] Creating Layer inception_4d/pool_proj
I0403 15:32:34.879565 12068 net.cpp:425] inception_4d/pool_proj <- inception_4d/pool
I0403 15:32:34.879587 12068 net.cpp:399] inception_4d/pool_proj -> inception_4d/pool_proj
I0403 15:32:34.881366 12068 net.cpp:141] Setting up inception_4d/pool_proj
I0403 15:32:34.881400 12068 net.cpp:148] Top shape: 24 64 14 14 (301056)
I0403 15:32:34.881417 12068 net.cpp:156] Memory required for data: 1146105120
I0403 15:32:34.881434 12068 layer_factory.hpp:77] Creating layer inception_4d/relu_pool_proj
I0403 15:32:34.881453 12068 net.cpp:91] Creating Layer inception_4d/relu_pool_proj
I0403 15:32:34.881469 12068 net.cpp:425] inception_4d/relu_pool_proj <- inception_4d/pool_proj
I0403 15:32:34.881489 12068 net.cpp:386] inception_4d/relu_pool_proj -> inception_4d/pool_proj (in-place)
I0403 15:32:34.881675 12068 net.cpp:141] Setting up inception_4d/relu_pool_proj
I0403 15:32:34.881700 12068 net.cpp:148] Top shape: 24 64 14 14 (301056)
I0403 15:32:34.881714 12068 net.cpp:156] Memory required for data: 1147309344
I0403 15:32:34.881728 12068 layer_factory.hpp:77] Creating layer inception_4d/output
I0403 15:32:34.881747 12068 net.cpp:91] Creating Layer inception_4d/output
I0403 15:32:34.881764 12068 net.cpp:425] inception_4d/output <- inception_4d/1x1
I0403 15:32:34.881781 12068 net.cpp:425] inception_4d/output <- inception_4d/3x3
I0403 15:32:34.881798 12068 net.cpp:425] inception_4d/output <- inception_4d/5x5
I0403 15:32:34.881813 12068 net.cpp:425] inception_4d/output <- inception_4d/pool_proj
I0403 15:32:34.881829 12068 net.cpp:399] inception_4d/output -> inception_4d/output
I0403 15:32:34.881876 12068 net.cpp:141] Setting up inception_4d/output
I0403 15:32:34.881902 12068 net.cpp:148] Top shape: 24 528 14 14 (2483712)
I0403 15:32:34.881918 12068 net.cpp:156] Memory required for data: 1157244192
I0403 15:32:34.881933 12068 layer_factory.hpp:77] Creating layer inception_4d/output_inception_4d/output_0_split
I0403 15:32:34.881950 12068 net.cpp:91] Creating Layer inception_4d/output_inception_4d/output_0_split
I0403 15:32:34.881966 12068 net.cpp:425] inception_4d/output_inception_4d/output_0_split <- inception_4d/output
I0403 15:32:34.881986 12068 net.cpp:399] inception_4d/output_inception_4d/output_0_split -> inception_4d/output_inception_4d/output_0_split_0
I0403 15:32:34.882009 12068 net.cpp:399] inception_4d/output_inception_4d/output_0_split -> inception_4d/output_inception_4d/output_0_split_1
I0403 15:32:34.882030 12068 net.cpp:399] inception_4d/output_inception_4d/output_0_split -> inception_4d/output_inception_4d/output_0_split_2
I0403 15:32:34.882051 12068 net.cpp:399] inception_4d/output_inception_4d/output_0_split -> inception_4d/output_inception_4d/output_0_split_3
I0403 15:32:34.882071 12068 net.cpp:399] inception_4d/output_inception_4d/output_0_split -> inception_4d/output_inception_4d/output_0_split_4
I0403 15:32:34.882175 12068 net.cpp:141] Setting up inception_4d/output_inception_4d/output_0_split
I0403 15:32:34.882211 12068 net.cpp:148] Top shape: 24 528 14 14 (2483712)
I0403 15:32:34.882230 12068 net.cpp:148] Top shape: 24 528 14 14 (2483712)
I0403 15:32:34.882247 12068 net.cpp:148] Top shape: 24 528 14 14 (2483712)
I0403 15:32:34.882262 12068 net.cpp:148] Top shape: 24 528 14 14 (2483712)
I0403 15:32:34.882277 12068 net.cpp:148] Top shape: 24 528 14 14 (2483712)
I0403 15:32:34.882290 12068 net.cpp:156] Memory required for data: 1206918432
I0403 15:32:34.882305 12068 layer_factory.hpp:77] Creating layer loss2/ave_pool
I0403 15:32:34.882323 12068 net.cpp:91] Creating Layer loss2/ave_pool
I0403 15:32:34.882339 12068 net.cpp:425] loss2/ave_pool <- inception_4d/output_inception_4d/output_0_split_0
I0403 15:32:34.882361 12068 net.cpp:399] loss2/ave_pool -> loss2/ave_pool
I0403 15:32:34.882685 12068 net.cpp:141] Setting up loss2/ave_pool
I0403 15:32:34.882711 12068 net.cpp:148] Top shape: 24 528 4 4 (202752)
I0403 15:32:34.882726 12068 net.cpp:156] Memory required for data: 1207729440
I0403 15:32:34.882740 12068 layer_factory.hpp:77] Creating layer loss2/conv
I0403 15:32:34.882764 12068 net.cpp:91] Creating Layer loss2/conv
I0403 15:32:34.882783 12068 net.cpp:425] loss2/conv <- loss2/ave_pool
I0403 15:32:34.882805 12068 net.cpp:399] loss2/conv -> loss2/conv
I0403 15:32:34.884769 12068 net.cpp:141] Setting up loss2/conv
I0403 15:32:34.884799 12068 net.cpp:148] Top shape: 24 128 4 4 (49152)
I0403 15:32:34.884814 12068 net.cpp:156] Memory required for data: 1207926048
I0403 15:32:34.884832 12068 layer_factory.hpp:77] Creating layer loss2/relu_conv
I0403 15:32:34.884853 12068 net.cpp:91] Creating Layer loss2/relu_conv
I0403 15:32:34.884871 12068 net.cpp:425] loss2/relu_conv <- loss2/conv
I0403 15:32:34.884891 12068 net.cpp:386] loss2/relu_conv -> loss2/conv (in-place)
I0403 15:32:34.885186 12068 net.cpp:141] Setting up loss2/relu_conv
I0403 15:32:34.885213 12068 net.cpp:148] Top shape: 24 128 4 4 (49152)
I0403 15:32:34.885228 12068 net.cpp:156] Memory required for data: 1208122656
I0403 15:32:34.885243 12068 layer_factory.hpp:77] Creating layer loss2/fc
I0403 15:32:34.885265 12068 net.cpp:91] Creating Layer loss2/fc
I0403 15:32:34.885284 12068 net.cpp:425] loss2/fc <- loss2/conv
I0403 15:32:34.885303 12068 net.cpp:399] loss2/fc -> loss2/fc
I0403 15:32:34.903252 12068 net.cpp:141] Setting up loss2/fc
I0403 15:32:34.903290 12068 net.cpp:148] Top shape: 24 1024 (24576)
I0403 15:32:34.903304 12068 net.cpp:156] Memory required for data: 1208220960
I0403 15:32:34.903323 12068 layer_factory.hpp:77] Creating layer loss2/relu_fc
I0403 15:32:34.903342 12068 net.cpp:91] Creating Layer loss2/relu_fc
I0403 15:32:34.903359 12068 net.cpp:425] loss2/relu_fc <- loss2/fc
I0403 15:32:34.903383 12068 net.cpp:386] loss2/relu_fc -> loss2/fc (in-place)
I0403 15:32:34.903712 12068 net.cpp:141] Setting up loss2/relu_fc
I0403 15:32:34.903736 12068 net.cpp:148] Top shape: 24 1024 (24576)
I0403 15:32:34.903750 12068 net.cpp:156] Memory required for data: 1208319264
I0403 15:32:34.903765 12068 layer_factory.hpp:77] Creating layer loss2/drop_fc
I0403 15:32:34.903782 12068 net.cpp:91] Creating Layer loss2/drop_fc
I0403 15:32:34.903800 12068 net.cpp:425] loss2/drop_fc <- loss2/fc
I0403 15:32:34.903818 12068 net.cpp:386] loss2/drop_fc -> loss2/fc (in-place)
I0403 15:32:34.903869 12068 net.cpp:141] Setting up loss2/drop_fc
I0403 15:32:34.903894 12068 net.cpp:148] Top shape: 24 1024 (24576)
I0403 15:32:34.903909 12068 net.cpp:156] Memory required for data: 1208417568
I0403 15:32:34.903923 12068 layer_factory.hpp:77] Creating layer loss2/classifier_plantvillage
I0403 15:32:34.903941 12068 net.cpp:91] Creating Layer loss2/classifier_plantvillage
I0403 15:32:34.903956 12068 net.cpp:425] loss2/classifier_plantvillage <- loss2/fc
I0403 15:32:34.903976 12068 net.cpp:399] loss2/classifier_plantvillage -> loss2/classifier_plantvillage
I0403 15:32:34.904376 12068 net.cpp:141] Setting up loss2/classifier_plantvillage
I0403 15:32:34.904407 12068 net.cpp:148] Top shape: 24 38 (912)
I0403 15:32:34.904439 12068 net.cpp:156] Memory required for data: 1208421216
I0403 15:32:34.904458 12068 layer_factory.hpp:77] Creating layer loss2/classifier_plantvillage_loss2/classifier_plantvillage_0_split
I0403 15:32:34.904475 12068 net.cpp:91] Creating Layer loss2/classifier_plantvillage_loss2/classifier_plantvillage_0_split
I0403 15:32:34.904491 12068 net.cpp:425] loss2/classifier_plantvillage_loss2/classifier_plantvillage_0_split <- loss2/classifier_plantvillage
I0403 15:32:34.904508 12068 net.cpp:399] loss2/classifier_plantvillage_loss2/classifier_plantvillage_0_split -> loss2/classifier_plantvillage_loss2/classifier_plantvillage_0_split_0
I0403 15:32:34.904530 12068 net.cpp:399] loss2/classifier_plantvillage_loss2/classifier_plantvillage_0_split -> loss2/classifier_plantvillage_loss2/classifier_plantvillage_0_split_1
I0403 15:32:34.904549 12068 net.cpp:399] loss2/classifier_plantvillage_loss2/classifier_plantvillage_0_split -> loss2/classifier_plantvillage_loss2/classifier_plantvillage_0_split_2
I0403 15:32:34.904625 12068 net.cpp:141] Setting up loss2/classifier_plantvillage_loss2/classifier_plantvillage_0_split
I0403 15:32:34.904649 12068 net.cpp:148] Top shape: 24 38 (912)
I0403 15:32:34.904664 12068 net.cpp:148] Top shape: 24 38 (912)
I0403 15:32:34.904678 12068 net.cpp:148] Top shape: 24 38 (912)
I0403 15:32:34.904691 12068 net.cpp:156] Memory required for data: 1208432160
I0403 15:32:34.904706 12068 layer_factory.hpp:77] Creating layer inception_4e/1x1
I0403 15:32:34.904726 12068 net.cpp:91] Creating Layer inception_4e/1x1
I0403 15:32:34.904742 12068 net.cpp:425] inception_4e/1x1 <- inception_4d/output_inception_4d/output_0_split_1
I0403 15:32:34.904763 12068 net.cpp:399] inception_4e/1x1 -> inception_4e/1x1
I0403 15:32:34.906565 12068 net.cpp:141] Setting up inception_4e/1x1
I0403 15:32:34.906592 12068 net.cpp:148] Top shape: 24 256 14 14 (1204224)
I0403 15:32:34.906607 12068 net.cpp:156] Memory required for data: 1213249056
I0403 15:32:34.906625 12068 layer_factory.hpp:77] Creating layer inception_4e/relu_1x1
I0403 15:32:34.906644 12068 net.cpp:91] Creating Layer inception_4e/relu_1x1
I0403 15:32:34.906661 12068 net.cpp:425] inception_4e/relu_1x1 <- inception_4e/1x1
I0403 15:32:34.906689 12068 net.cpp:386] inception_4e/relu_1x1 -> inception_4e/1x1 (in-place)
I0403 15:32:34.907002 12068 net.cpp:141] Setting up inception_4e/relu_1x1
I0403 15:32:34.907027 12068 net.cpp:148] Top shape: 24 256 14 14 (1204224)
I0403 15:32:34.907042 12068 net.cpp:156] Memory required for data: 1218065952
I0403 15:32:34.907057 12068 layer_factory.hpp:77] Creating layer inception_4e/3x3_reduce
I0403 15:32:34.907079 12068 net.cpp:91] Creating Layer inception_4e/3x3_reduce
I0403 15:32:34.907096 12068 net.cpp:425] inception_4e/3x3_reduce <- inception_4d/output_inception_4d/output_0_split_2
I0403 15:32:34.907115 12068 net.cpp:399] inception_4e/3x3_reduce -> inception_4e/3x3_reduce
I0403 15:32:34.909224 12068 net.cpp:141] Setting up inception_4e/3x3_reduce
I0403 15:32:34.909251 12068 net.cpp:148] Top shape: 24 160 14 14 (752640)
I0403 15:32:34.909266 12068 net.cpp:156] Memory required for data: 1221076512
I0403 15:32:34.909283 12068 layer_factory.hpp:77] Creating layer inception_4e/relu_3x3_reduce
I0403 15:32:34.909302 12068 net.cpp:91] Creating Layer inception_4e/relu_3x3_reduce
I0403 15:32:34.909319 12068 net.cpp:425] inception_4e/relu_3x3_reduce <- inception_4e/3x3_reduce
I0403 15:32:34.909337 12068 net.cpp:386] inception_4e/relu_3x3_reduce -> inception_4e/3x3_reduce (in-place)
I0403 15:32:34.909525 12068 net.cpp:141] Setting up inception_4e/relu_3x3_reduce
I0403 15:32:34.909550 12068 net.cpp:148] Top shape: 24 160 14 14 (752640)
I0403 15:32:34.909564 12068 net.cpp:156] Memory required for data: 1224087072
I0403 15:32:34.909577 12068 layer_factory.hpp:77] Creating layer inception_4e/3x3
I0403 15:32:34.909601 12068 net.cpp:91] Creating Layer inception_4e/3x3
I0403 15:32:34.909618 12068 net.cpp:425] inception_4e/3x3 <- inception_4e/3x3_reduce
I0403 15:32:34.909637 12068 net.cpp:399] inception_4e/3x3 -> inception_4e/3x3
I0403 15:32:34.914522 12068 net.cpp:141] Setting up inception_4e/3x3
I0403 15:32:34.914564 12068 net.cpp:148] Top shape: 24 320 14 14 (1505280)
I0403 15:32:34.914580 12068 net.cpp:156] Memory required for data: 1230108192
I0403 15:32:34.914598 12068 layer_factory.hpp:77] Creating layer inception_4e/relu_3x3
I0403 15:32:34.914616 12068 net.cpp:91] Creating Layer inception_4e/relu_3x3
I0403 15:32:34.914633 12068 net.cpp:425] inception_4e/relu_3x3 <- inception_4e/3x3
I0403 15:32:34.914652 12068 net.cpp:386] inception_4e/relu_3x3 -> inception_4e/3x3 (in-place)
I0403 15:32:34.914944 12068 net.cpp:141] Setting up inception_4e/relu_3x3
I0403 15:32:34.914973 12068 net.cpp:148] Top shape: 24 320 14 14 (1505280)
I0403 15:32:34.914988 12068 net.cpp:156] Memory required for data: 1236129312
I0403 15:32:34.915004 12068 layer_factory.hpp:77] Creating layer inception_4e/5x5_reduce
I0403 15:32:34.915026 12068 net.cpp:91] Creating Layer inception_4e/5x5_reduce
I0403 15:32:34.915043 12068 net.cpp:425] inception_4e/5x5_reduce <- inception_4d/output_inception_4d/output_0_split_3
I0403 15:32:34.915062 12068 net.cpp:399] inception_4e/5x5_reduce -> inception_4e/5x5_reduce
I0403 15:32:34.916110 12068 net.cpp:141] Setting up inception_4e/5x5_reduce
I0403 15:32:34.916137 12068 net.cpp:148] Top shape: 24 32 14 14 (150528)
I0403 15:32:34.916152 12068 net.cpp:156] Memory required for data: 1236731424
I0403 15:32:34.916169 12068 layer_factory.hpp:77] Creating layer inception_4e/relu_5x5_reduce
I0403 15:32:34.916188 12068 net.cpp:91] Creating Layer inception_4e/relu_5x5_reduce
I0403 15:32:34.916206 12068 net.cpp:425] inception_4e/relu_5x5_reduce <- inception_4e/5x5_reduce
I0403 15:32:34.916224 12068 net.cpp:386] inception_4e/relu_5x5_reduce -> inception_4e/5x5_reduce (in-place)
I0403 15:32:34.916522 12068 net.cpp:141] Setting up inception_4e/relu_5x5_reduce
I0403 15:32:34.916546 12068 net.cpp:148] Top shape: 24 32 14 14 (150528)
I0403 15:32:34.916560 12068 net.cpp:156] Memory required for data: 1237333536
I0403 15:32:34.916574 12068 layer_factory.hpp:77] Creating layer inception_4e/5x5
I0403 15:32:34.916611 12068 net.cpp:91] Creating Layer inception_4e/5x5
I0403 15:32:34.916630 12068 net.cpp:425] inception_4e/5x5 <- inception_4e/5x5_reduce
I0403 15:32:34.916652 12068 net.cpp:399] inception_4e/5x5 -> inception_4e/5x5
I0403 15:32:34.918462 12068 net.cpp:141] Setting up inception_4e/5x5
I0403 15:32:34.918488 12068 net.cpp:148] Top shape: 24 128 14 14 (602112)
I0403 15:32:34.918503 12068 net.cpp:156] Memory required for data: 1239741984
I0403 15:32:34.918521 12068 layer_factory.hpp:77] Creating layer inception_4e/relu_5x5
I0403 15:32:34.918539 12068 net.cpp:91] Creating Layer inception_4e/relu_5x5
I0403 15:32:34.918555 12068 net.cpp:425] inception_4e/relu_5x5 <- inception_4e/5x5
I0403 15:32:34.918573 12068 net.cpp:386] inception_4e/relu_5x5 -> inception_4e/5x5 (in-place)
I0403 15:32:34.918767 12068 net.cpp:141] Setting up inception_4e/relu_5x5
I0403 15:32:34.918792 12068 net.cpp:148] Top shape: 24 128 14 14 (602112)
I0403 15:32:34.918805 12068 net.cpp:156] Memory required for data: 1242150432
I0403 15:32:34.918819 12068 layer_factory.hpp:77] Creating layer inception_4e/pool
I0403 15:32:34.918839 12068 net.cpp:91] Creating Layer inception_4e/pool
I0403 15:32:34.918855 12068 net.cpp:425] inception_4e/pool <- inception_4d/output_inception_4d/output_0_split_4
I0403 15:32:34.918874 12068 net.cpp:399] inception_4e/pool -> inception_4e/pool
I0403 15:32:34.918942 12068 net.cpp:141] Setting up inception_4e/pool
I0403 15:32:34.918965 12068 net.cpp:148] Top shape: 24 528 14 14 (2483712)
I0403 15:32:34.918979 12068 net.cpp:156] Memory required for data: 1252085280
I0403 15:32:34.918993 12068 layer_factory.hpp:77] Creating layer inception_4e/pool_proj
I0403 15:32:34.919015 12068 net.cpp:91] Creating Layer inception_4e/pool_proj
I0403 15:32:34.919033 12068 net.cpp:425] inception_4e/pool_proj <- inception_4e/pool
I0403 15:32:34.919054 12068 net.cpp:399] inception_4e/pool_proj -> inception_4e/pool_proj
I0403 15:32:34.920524 12068 net.cpp:141] Setting up inception_4e/pool_proj
I0403 15:32:34.920562 12068 net.cpp:148] Top shape: 24 128 14 14 (602112)
I0403 15:32:34.920578 12068 net.cpp:156] Memory required for data: 1254493728
I0403 15:32:34.920594 12068 layer_factory.hpp:77] Creating layer inception_4e/relu_pool_proj
I0403 15:32:34.920611 12068 net.cpp:91] Creating Layer inception_4e/relu_pool_proj
I0403 15:32:34.920627 12068 net.cpp:425] inception_4e/relu_pool_proj <- inception_4e/pool_proj
I0403 15:32:34.920646 12068 net.cpp:386] inception_4e/relu_pool_proj -> inception_4e/pool_proj (in-place)
I0403 15:32:34.920936 12068 net.cpp:141] Setting up inception_4e/relu_pool_proj
I0403 15:32:34.920963 12068 net.cpp:148] Top shape: 24 128 14 14 (602112)
I0403 15:32:34.920976 12068 net.cpp:156] Memory required for data: 1256902176
I0403 15:32:34.920990 12068 layer_factory.hpp:77] Creating layer inception_4e/output
I0403 15:32:34.921007 12068 net.cpp:91] Creating Layer inception_4e/output
I0403 15:32:34.921023 12068 net.cpp:425] inception_4e/output <- inception_4e/1x1
I0403 15:32:34.921039 12068 net.cpp:425] inception_4e/output <- inception_4e/3x3
I0403 15:32:34.921054 12068 net.cpp:425] inception_4e/output <- inception_4e/5x5
I0403 15:32:34.921071 12068 net.cpp:425] inception_4e/output <- inception_4e/pool_proj
I0403 15:32:34.921089 12068 net.cpp:399] inception_4e/output -> inception_4e/output
I0403 15:32:34.921139 12068 net.cpp:141] Setting up inception_4e/output
I0403 15:32:34.921164 12068 net.cpp:148] Top shape: 24 832 14 14 (3913728)
I0403 15:32:34.921180 12068 net.cpp:156] Memory required for data: 1272557088
I0403 15:32:34.921193 12068 layer_factory.hpp:77] Creating layer pool4/3x3_s2
I0403 15:32:34.921210 12068 net.cpp:91] Creating Layer pool4/3x3_s2
I0403 15:32:34.921226 12068 net.cpp:425] pool4/3x3_s2 <- inception_4e/output
I0403 15:32:34.921242 12068 net.cpp:399] pool4/3x3_s2 -> pool4/3x3_s2
I0403 15:32:34.921313 12068 net.cpp:141] Setting up pool4/3x3_s2
I0403 15:32:34.921336 12068 net.cpp:148] Top shape: 24 832 7 7 (978432)
I0403 15:32:34.921350 12068 net.cpp:156] Memory required for data: 1276470816
I0403 15:32:34.921365 12068 layer_factory.hpp:77] Creating layer pool4/3x3_s2_pool4/3x3_s2_0_split
I0403 15:32:34.921385 12068 net.cpp:91] Creating Layer pool4/3x3_s2_pool4/3x3_s2_0_split
I0403 15:32:34.921401 12068 net.cpp:425] pool4/3x3_s2_pool4/3x3_s2_0_split <- pool4/3x3_s2
I0403 15:32:34.921421 12068 net.cpp:399] pool4/3x3_s2_pool4/3x3_s2_0_split -> pool4/3x3_s2_pool4/3x3_s2_0_split_0
I0403 15:32:34.921442 12068 net.cpp:399] pool4/3x3_s2_pool4/3x3_s2_0_split -> pool4/3x3_s2_pool4/3x3_s2_0_split_1
I0403 15:32:34.921461 12068 net.cpp:399] pool4/3x3_s2_pool4/3x3_s2_0_split -> pool4/3x3_s2_pool4/3x3_s2_0_split_2
I0403 15:32:34.921483 12068 net.cpp:399] pool4/3x3_s2_pool4/3x3_s2_0_split -> pool4/3x3_s2_pool4/3x3_s2_0_split_3
I0403 15:32:34.921573 12068 net.cpp:141] Setting up pool4/3x3_s2_pool4/3x3_s2_0_split
I0403 15:32:34.921596 12068 net.cpp:148] Top shape: 24 832 7 7 (978432)
I0403 15:32:34.921612 12068 net.cpp:148] Top shape: 24 832 7 7 (978432)
I0403 15:32:34.921625 12068 net.cpp:148] Top shape: 24 832 7 7 (978432)
I0403 15:32:34.921640 12068 net.cpp:148] Top shape: 24 832 7 7 (978432)
I0403 15:32:34.921653 12068 net.cpp:156] Memory required for data: 1292125728
I0403 15:32:34.921668 12068 layer_factory.hpp:77] Creating layer inception_5a/1x1
I0403 15:32:34.921689 12068 net.cpp:91] Creating Layer inception_5a/1x1
I0403 15:32:34.921705 12068 net.cpp:425] inception_5a/1x1 <- pool4/3x3_s2_pool4/3x3_s2_0_split_0
I0403 15:32:34.921726 12068 net.cpp:399] inception_5a/1x1 -> inception_5a/1x1
I0403 15:32:34.924530 12068 net.cpp:141] Setting up inception_5a/1x1
I0403 15:32:34.924558 12068 net.cpp:148] Top shape: 24 256 7 7 (301056)
I0403 15:32:34.924572 12068 net.cpp:156] Memory required for data: 1293329952
I0403 15:32:34.924590 12068 layer_factory.hpp:77] Creating layer inception_5a/relu_1x1
I0403 15:32:34.924609 12068 net.cpp:91] Creating Layer inception_5a/relu_1x1
I0403 15:32:34.924626 12068 net.cpp:425] inception_5a/relu_1x1 <- inception_5a/1x1
I0403 15:32:34.924643 12068 net.cpp:386] inception_5a/relu_1x1 -> inception_5a/1x1 (in-place)
I0403 15:32:34.924950 12068 net.cpp:141] Setting up inception_5a/relu_1x1
I0403 15:32:34.924976 12068 net.cpp:148] Top shape: 24 256 7 7 (301056)
I0403 15:32:34.924989 12068 net.cpp:156] Memory required for data: 1294534176
I0403 15:32:34.925004 12068 layer_factory.hpp:77] Creating layer inception_5a/3x3_reduce
I0403 15:32:34.925025 12068 net.cpp:91] Creating Layer inception_5a/3x3_reduce
I0403 15:32:34.925043 12068 net.cpp:425] inception_5a/3x3_reduce <- pool4/3x3_s2_pool4/3x3_s2_0_split_1
I0403 15:32:34.925065 12068 net.cpp:399] inception_5a/3x3_reduce -> inception_5a/3x3_reduce
I0403 15:32:34.927474 12068 net.cpp:141] Setting up inception_5a/3x3_reduce
I0403 15:32:34.927505 12068 net.cpp:148] Top shape: 24 160 7 7 (188160)
I0403 15:32:34.927520 12068 net.cpp:156] Memory required for data: 1295286816
I0403 15:32:34.927537 12068 layer_factory.hpp:77] Creating layer inception_5a/relu_3x3_reduce
I0403 15:32:34.927556 12068 net.cpp:91] Creating Layer inception_5a/relu_3x3_reduce
I0403 15:32:34.927572 12068 net.cpp:425] inception_5a/relu_3x3_reduce <- inception_5a/3x3_reduce
I0403 15:32:34.927590 12068 net.cpp:386] inception_5a/relu_3x3_reduce -> inception_5a/3x3_reduce (in-place)
I0403 15:32:34.927775 12068 net.cpp:141] Setting up inception_5a/relu_3x3_reduce
I0403 15:32:34.927800 12068 net.cpp:148] Top shape: 24 160 7 7 (188160)
I0403 15:32:34.927814 12068 net.cpp:156] Memory required for data: 1296039456
I0403 15:32:34.927829 12068 layer_factory.hpp:77] Creating layer inception_5a/3x3
I0403 15:32:34.927851 12068 net.cpp:91] Creating Layer inception_5a/3x3
I0403 15:32:34.927870 12068 net.cpp:425] inception_5a/3x3 <- inception_5a/3x3_reduce
I0403 15:32:34.927891 12068 net.cpp:399] inception_5a/3x3 -> inception_5a/3x3
I0403 15:32:34.932811 12068 net.cpp:141] Setting up inception_5a/3x3
I0403 15:32:34.932838 12068 net.cpp:148] Top shape: 24 320 7 7 (376320)
I0403 15:32:34.932853 12068 net.cpp:156] Memory required for data: 1297544736
I0403 15:32:34.932871 12068 layer_factory.hpp:77] Creating layer inception_5a/relu_3x3
I0403 15:32:34.932891 12068 net.cpp:91] Creating Layer inception_5a/relu_3x3
I0403 15:32:34.932909 12068 net.cpp:425] inception_5a/relu_3x3 <- inception_5a/3x3
I0403 15:32:34.932925 12068 net.cpp:386] inception_5a/relu_3x3 -> inception_5a/3x3 (in-place)
I0403 15:32:34.933212 12068 net.cpp:141] Setting up inception_5a/relu_3x3
I0403 15:32:34.933238 12068 net.cpp:148] Top shape: 24 320 7 7 (376320)
I0403 15:32:34.933253 12068 net.cpp:156] Memory required for data: 1299050016
I0403 15:32:34.933266 12068 layer_factory.hpp:77] Creating layer inception_5a/5x5_reduce
I0403 15:32:34.933289 12068 net.cpp:91] Creating Layer inception_5a/5x5_reduce
I0403 15:32:34.933306 12068 net.cpp:425] inception_5a/5x5_reduce <- pool4/3x3_s2_pool4/3x3_s2_0_split_2
I0403 15:32:34.933331 12068 net.cpp:399] inception_5a/5x5_reduce -> inception_5a/5x5_reduce
I0403 15:32:34.934484 12068 net.cpp:141] Setting up inception_5a/5x5_reduce
I0403 15:32:34.934514 12068 net.cpp:148] Top shape: 24 32 7 7 (37632)
I0403 15:32:34.934530 12068 net.cpp:156] Memory required for data: 1299200544
I0403 15:32:34.934547 12068 layer_factory.hpp:77] Creating layer inception_5a/relu_5x5_reduce
I0403 15:32:34.934564 12068 net.cpp:91] Creating Layer inception_5a/relu_5x5_reduce
I0403 15:32:34.934581 12068 net.cpp:425] inception_5a/relu_5x5_reduce <- inception_5a/5x5_reduce
I0403 15:32:34.934597 12068 net.cpp:386] inception_5a/relu_5x5_reduce -> inception_5a/5x5_reduce (in-place)
I0403 15:32:34.934890 12068 net.cpp:141] Setting up inception_5a/relu_5x5_reduce
I0403 15:32:34.934916 12068 net.cpp:148] Top shape: 24 32 7 7 (37632)
I0403 15:32:34.934931 12068 net.cpp:156] Memory required for data: 1299351072
I0403 15:32:34.934944 12068 layer_factory.hpp:77] Creating layer inception_5a/5x5
I0403 15:32:34.934968 12068 net.cpp:91] Creating Layer inception_5a/5x5
I0403 15:32:34.934986 12068 net.cpp:425] inception_5a/5x5 <- inception_5a/5x5_reduce
I0403 15:32:34.935008 12068 net.cpp:399] inception_5a/5x5 -> inception_5a/5x5
I0403 15:32:34.936713 12068 net.cpp:141] Setting up inception_5a/5x5
I0403 15:32:34.936751 12068 net.cpp:148] Top shape: 24 128 7 7 (150528)
I0403 15:32:34.936767 12068 net.cpp:156] Memory required for data: 1299953184
I0403 15:32:34.936784 12068 layer_factory.hpp:77] Creating layer inception_5a/relu_5x5
I0403 15:32:34.936802 12068 net.cpp:91] Creating Layer inception_5a/relu_5x5
I0403 15:32:34.936818 12068 net.cpp:425] inception_5a/relu_5x5 <- inception_5a/5x5
I0403 15:32:34.936837 12068 net.cpp:386] inception_5a/relu_5x5 -> inception_5a/5x5 (in-place)
I0403 15:32:34.937023 12068 net.cpp:141] Setting up inception_5a/relu_5x5
I0403 15:32:34.937047 12068 net.cpp:148] Top shape: 24 128 7 7 (150528)
I0403 15:32:34.937062 12068 net.cpp:156] Memory required for data: 1300555296
I0403 15:32:34.937075 12068 layer_factory.hpp:77] Creating layer inception_5a/pool
I0403 15:32:34.937094 12068 net.cpp:91] Creating Layer inception_5a/pool
I0403 15:32:34.937110 12068 net.cpp:425] inception_5a/pool <- pool4/3x3_s2_pool4/3x3_s2_0_split_3
I0403 15:32:34.937129 12068 net.cpp:399] inception_5a/pool -> inception_5a/pool
I0403 15:32:34.937199 12068 net.cpp:141] Setting up inception_5a/pool
I0403 15:32:34.937222 12068 net.cpp:148] Top shape: 24 832 7 7 (978432)
I0403 15:32:34.937237 12068 net.cpp:156] Memory required for data: 1304469024
I0403 15:32:34.937249 12068 layer_factory.hpp:77] Creating layer inception_5a/pool_proj
I0403 15:32:34.937271 12068 net.cpp:91] Creating Layer inception_5a/pool_proj
I0403 15:32:34.937289 12068 net.cpp:425] inception_5a/pool_proj <- inception_5a/pool
I0403 15:32:34.937310 12068 net.cpp:399] inception_5a/pool_proj -> inception_5a/pool_proj
I0403 15:32:34.939564 12068 net.cpp:141] Setting up inception_5a/pool_proj
I0403 15:32:34.939594 12068 net.cpp:148] Top shape: 24 128 7 7 (150528)
I0403 15:32:34.939620 12068 net.cpp:156] Memory required for data: 1305071136
I0403 15:32:34.939638 12068 layer_factory.hpp:77] Creating layer inception_5a/relu_pool_proj
I0403 15:32:34.939656 12068 net.cpp:91] Creating Layer inception_5a/relu_pool_proj
I0403 15:32:34.939673 12068 net.cpp:425] inception_5a/relu_pool_proj <- inception_5a/pool_proj
I0403 15:32:34.939695 12068 net.cpp:386] inception_5a/relu_pool_proj -> inception_5a/pool_proj (in-place)
I0403 15:32:34.940009 12068 net.cpp:141] Setting up inception_5a/relu_pool_proj
I0403 15:32:34.940034 12068 net.cpp:148] Top shape: 24 128 7 7 (150528)
I0403 15:32:34.940049 12068 net.cpp:156] Memory required for data: 1305673248
I0403 15:32:34.940063 12068 layer_factory.hpp:77] Creating layer inception_5a/output
I0403 15:32:34.940079 12068 net.cpp:91] Creating Layer inception_5a/output
I0403 15:32:34.940095 12068 net.cpp:425] inception_5a/output <- inception_5a/1x1
I0403 15:32:34.940112 12068 net.cpp:425] inception_5a/output <- inception_5a/3x3
I0403 15:32:34.940129 12068 net.cpp:425] inception_5a/output <- inception_5a/5x5
I0403 15:32:34.940143 12068 net.cpp:425] inception_5a/output <- inception_5a/pool_proj
I0403 15:32:34.940163 12068 net.cpp:399] inception_5a/output -> inception_5a/output
I0403 15:32:34.940212 12068 net.cpp:141] Setting up inception_5a/output
I0403 15:32:34.940237 12068 net.cpp:148] Top shape: 24 832 7 7 (978432)
I0403 15:32:34.940253 12068 net.cpp:156] Memory required for data: 1309586976
I0403 15:32:34.940266 12068 layer_factory.hpp:77] Creating layer inception_5a/output_inception_5a/output_0_split
I0403 15:32:34.940282 12068 net.cpp:91] Creating Layer inception_5a/output_inception_5a/output_0_split
I0403 15:32:34.940299 12068 net.cpp:425] inception_5a/output_inception_5a/output_0_split <- inception_5a/output
I0403 15:32:34.940315 12068 net.cpp:399] inception_5a/output_inception_5a/output_0_split -> inception_5a/output_inception_5a/output_0_split_0
I0403 15:32:34.940340 12068 net.cpp:399] inception_5a/output_inception_5a/output_0_split -> inception_5a/output_inception_5a/output_0_split_1
I0403 15:32:34.940361 12068 net.cpp:399] inception_5a/output_inception_5a/output_0_split -> inception_5a/output_inception_5a/output_0_split_2
I0403 15:32:34.940385 12068 net.cpp:399] inception_5a/output_inception_5a/output_0_split -> inception_5a/output_inception_5a/output_0_split_3
I0403 15:32:34.940496 12068 net.cpp:141] Setting up inception_5a/output_inception_5a/output_0_split
I0403 15:32:34.940520 12068 net.cpp:148] Top shape: 24 832 7 7 (978432)
I0403 15:32:34.940534 12068 net.cpp:148] Top shape: 24 832 7 7 (978432)
I0403 15:32:34.940549 12068 net.cpp:148] Top shape: 24 832 7 7 (978432)
I0403 15:32:34.940564 12068 net.cpp:148] Top shape: 24 832 7 7 (978432)
I0403 15:32:34.940577 12068 net.cpp:156] Memory required for data: 1325241888
I0403 15:32:34.940590 12068 layer_factory.hpp:77] Creating layer inception_5b/1x1
I0403 15:32:34.940613 12068 net.cpp:91] Creating Layer inception_5b/1x1
I0403 15:32:34.940630 12068 net.cpp:425] inception_5b/1x1 <- inception_5a/output_inception_5a/output_0_split_0
I0403 15:32:34.940654 12068 net.cpp:399] inception_5b/1x1 -> inception_5b/1x1
I0403 15:32:34.944567 12068 net.cpp:141] Setting up inception_5b/1x1
I0403 15:32:34.944599 12068 net.cpp:148] Top shape: 24 384 7 7 (451584)
I0403 15:32:34.944615 12068 net.cpp:156] Memory required for data: 1327048224
I0403 15:32:34.944634 12068 layer_factory.hpp:77] Creating layer inception_5b/relu_1x1
I0403 15:32:34.944653 12068 net.cpp:91] Creating Layer inception_5b/relu_1x1
I0403 15:32:34.944669 12068 net.cpp:425] inception_5b/relu_1x1 <- inception_5b/1x1
I0403 15:32:34.944690 12068 net.cpp:386] inception_5b/relu_1x1 -> inception_5b/1x1 (in-place)
I0403 15:32:34.945005 12068 net.cpp:141] Setting up inception_5b/relu_1x1
I0403 15:32:34.945034 12068 net.cpp:148] Top shape: 24 384 7 7 (451584)
I0403 15:32:34.945050 12068 net.cpp:156] Memory required for data: 1328854560
I0403 15:32:34.945065 12068 layer_factory.hpp:77] Creating layer inception_5b/3x3_reduce
I0403 15:32:34.945087 12068 net.cpp:91] Creating Layer inception_5b/3x3_reduce
I0403 15:32:34.945106 12068 net.cpp:425] inception_5b/3x3_reduce <- inception_5a/output_inception_5a/output_0_split_1
I0403 15:32:34.945132 12068 net.cpp:399] inception_5b/3x3_reduce -> inception_5b/3x3_reduce
I0403 15:32:34.947906 12068 net.cpp:141] Setting up inception_5b/3x3_reduce
I0403 15:32:34.947939 12068 net.cpp:148] Top shape: 24 192 7 7 (225792)
I0403 15:32:34.947957 12068 net.cpp:156] Memory required for data: 1329757728
I0403 15:32:34.947975 12068 layer_factory.hpp:77] Creating layer inception_5b/relu_3x3_reduce
I0403 15:32:34.947993 12068 net.cpp:91] Creating Layer inception_5b/relu_3x3_reduce
I0403 15:32:34.948011 12068 net.cpp:425] inception_5b/relu_3x3_reduce <- inception_5b/3x3_reduce
I0403 15:32:34.948031 12068 net.cpp:386] inception_5b/relu_3x3_reduce -> inception_5b/3x3_reduce (in-place)
I0403 15:32:34.948228 12068 net.cpp:141] Setting up inception_5b/relu_3x3_reduce
I0403 15:32:34.948253 12068 net.cpp:148] Top shape: 24 192 7 7 (225792)
I0403 15:32:34.948268 12068 net.cpp:156] Memory required for data: 1330660896
I0403 15:32:34.948283 12068 layer_factory.hpp:77] Creating layer inception_5b/3x3
I0403 15:32:34.948307 12068 net.cpp:91] Creating Layer inception_5b/3x3
I0403 15:32:34.948326 12068 net.cpp:425] inception_5b/3x3 <- inception_5b/3x3_reduce
I0403 15:32:34.948350 12068 net.cpp:399] inception_5b/3x3 -> inception_5b/3x3
I0403 15:32:34.955293 12068 net.cpp:141] Setting up inception_5b/3x3
I0403 15:32:34.955327 12068 net.cpp:148] Top shape: 24 384 7 7 (451584)
I0403 15:32:34.955344 12068 net.cpp:156] Memory required for data: 1332467232
I0403 15:32:34.955363 12068 layer_factory.hpp:77] Creating layer inception_5b/relu_3x3
I0403 15:32:34.955385 12068 net.cpp:91] Creating Layer inception_5b/relu_3x3
I0403 15:32:34.955404 12068 net.cpp:425] inception_5b/relu_3x3 <- inception_5b/3x3
I0403 15:32:34.955425 12068 net.cpp:386] inception_5b/relu_3x3 -> inception_5b/3x3 (in-place)
I0403 15:32:34.955735 12068 net.cpp:141] Setting up inception_5b/relu_3x3
I0403 15:32:34.955762 12068 net.cpp:148] Top shape: 24 384 7 7 (451584)
I0403 15:32:34.955777 12068 net.cpp:156] Memory required for data: 1334273568
I0403 15:32:34.955793 12068 layer_factory.hpp:77] Creating layer inception_5b/5x5_reduce
I0403 15:32:34.955837 12068 net.cpp:91] Creating Layer inception_5b/5x5_reduce
I0403 15:32:34.955857 12068 net.cpp:425] inception_5b/5x5_reduce <- inception_5a/output_inception_5a/output_0_split_2
I0403 15:32:34.955881 12068 net.cpp:399] inception_5b/5x5_reduce -> inception_5b/5x5_reduce
I0403 15:32:34.957206 12068 net.cpp:141] Setting up inception_5b/5x5_reduce
I0403 15:32:34.957234 12068 net.cpp:148] Top shape: 24 48 7 7 (56448)
I0403 15:32:34.957249 12068 net.cpp:156] Memory required for data: 1334499360
I0403 15:32:34.957268 12068 layer_factory.hpp:77] Creating layer inception_5b/relu_5x5_reduce
I0403 15:32:34.957286 12068 net.cpp:91] Creating Layer inception_5b/relu_5x5_reduce
I0403 15:32:34.957304 12068 net.cpp:425] inception_5b/relu_5x5_reduce <- inception_5b/5x5_reduce
I0403 15:32:34.957324 12068 net.cpp:386] inception_5b/relu_5x5_reduce -> inception_5b/5x5_reduce (in-place)
I0403 15:32:34.957715 12068 net.cpp:141] Setting up inception_5b/relu_5x5_reduce
I0403 15:32:34.957742 12068 net.cpp:148] Top shape: 24 48 7 7 (56448)
I0403 15:32:34.957757 12068 net.cpp:156] Memory required for data: 1334725152
I0403 15:32:34.957773 12068 layer_factory.hpp:77] Creating layer inception_5b/5x5
I0403 15:32:34.957794 12068 net.cpp:91] Creating Layer inception_5b/5x5
I0403 15:32:34.957813 12068 net.cpp:425] inception_5b/5x5 <- inception_5b/5x5_reduce
I0403 15:32:34.957831 12068 net.cpp:399] inception_5b/5x5 -> inception_5b/5x5
I0403 15:32:34.960031 12068 net.cpp:141] Setting up inception_5b/5x5
I0403 15:32:34.960059 12068 net.cpp:148] Top shape: 24 128 7 7 (150528)
I0403 15:32:34.960075 12068 net.cpp:156] Memory required for data: 1335327264
I0403 15:32:34.960094 12068 layer_factory.hpp:77] Creating layer inception_5b/relu_5x5
I0403 15:32:34.960114 12068 net.cpp:91] Creating Layer inception_5b/relu_5x5
I0403 15:32:34.960132 12068 net.cpp:425] inception_5b/relu_5x5 <- inception_5b/5x5
I0403 15:32:34.960150 12068 net.cpp:386] inception_5b/relu_5x5 -> inception_5b/5x5 (in-place)
I0403 15:32:34.960345 12068 net.cpp:141] Setting up inception_5b/relu_5x5
I0403 15:32:34.960369 12068 net.cpp:148] Top shape: 24 128 7 7 (150528)
I0403 15:32:34.960388 12068 net.cpp:156] Memory required for data: 1335929376
I0403 15:32:34.960404 12068 layer_factory.hpp:77] Creating layer inception_5b/pool
I0403 15:32:34.960424 12068 net.cpp:91] Creating Layer inception_5b/pool
I0403 15:32:34.960443 12068 net.cpp:425] inception_5b/pool <- inception_5a/output_inception_5a/output_0_split_3
I0403 15:32:34.960461 12068 net.cpp:399] inception_5b/pool -> inception_5b/pool
I0403 15:32:34.960537 12068 net.cpp:141] Setting up inception_5b/pool
I0403 15:32:34.960561 12068 net.cpp:148] Top shape: 24 832 7 7 (978432)
I0403 15:32:34.960575 12068 net.cpp:156] Memory required for data: 1339843104
I0403 15:32:34.960590 12068 layer_factory.hpp:77] Creating layer inception_5b/pool_proj
I0403 15:32:34.960613 12068 net.cpp:91] Creating Layer inception_5b/pool_proj
I0403 15:32:34.960630 12068 net.cpp:425] inception_5b/pool_proj <- inception_5b/pool
I0403 15:32:34.960651 12068 net.cpp:399] inception_5b/pool_proj -> inception_5b/pool_proj
I0403 15:32:34.962990 12068 net.cpp:141] Setting up inception_5b/pool_proj
I0403 15:32:34.963019 12068 net.cpp:148] Top shape: 24 128 7 7 (150528)
I0403 15:32:34.963034 12068 net.cpp:156] Memory required for data: 1340445216
I0403 15:32:34.963052 12068 layer_factory.hpp:77] Creating layer inception_5b/relu_pool_proj
I0403 15:32:34.963070 12068 net.cpp:91] Creating Layer inception_5b/relu_pool_proj
I0403 15:32:34.963086 12068 net.cpp:425] inception_5b/relu_pool_proj <- inception_5b/pool_proj
I0403 15:32:34.963107 12068 net.cpp:386] inception_5b/relu_pool_proj -> inception_5b/pool_proj (in-place)
I0403 15:32:34.963415 12068 net.cpp:141] Setting up inception_5b/relu_pool_proj
I0403 15:32:34.963441 12068 net.cpp:148] Top shape: 24 128 7 7 (150528)
I0403 15:32:34.963456 12068 net.cpp:156] Memory required for data: 1341047328
I0403 15:32:34.963471 12068 layer_factory.hpp:77] Creating layer inception_5b/output
I0403 15:32:34.963488 12068 net.cpp:91] Creating Layer inception_5b/output
I0403 15:32:34.963520 12068 net.cpp:425] inception_5b/output <- inception_5b/1x1
I0403 15:32:34.963537 12068 net.cpp:425] inception_5b/output <- inception_5b/3x3
I0403 15:32:34.963553 12068 net.cpp:425] inception_5b/output <- inception_5b/5x5
I0403 15:32:34.963569 12068 net.cpp:425] inception_5b/output <- inception_5b/pool_proj
I0403 15:32:34.963589 12068 net.cpp:399] inception_5b/output -> inception_5b/output
I0403 15:32:34.963641 12068 net.cpp:141] Setting up inception_5b/output
I0403 15:32:34.963668 12068 net.cpp:148] Top shape: 24 1024 7 7 (1204224)
I0403 15:32:34.963683 12068 net.cpp:156] Memory required for data: 1345864224
I0403 15:32:34.963697 12068 layer_factory.hpp:77] Creating layer pool5/7x7_s1
I0403 15:32:34.963716 12068 net.cpp:91] Creating Layer pool5/7x7_s1
I0403 15:32:34.963732 12068 net.cpp:425] pool5/7x7_s1 <- inception_5b/output
I0403 15:32:34.963750 12068 net.cpp:399] pool5/7x7_s1 -> pool5/7x7_s1
I0403 15:32:34.963968 12068 net.cpp:141] Setting up pool5/7x7_s1
I0403 15:32:34.963994 12068 net.cpp:148] Top shape: 24 1024 1 1 (24576)
I0403 15:32:34.964007 12068 net.cpp:156] Memory required for data: 1345962528
I0403 15:32:34.964022 12068 layer_factory.hpp:77] Creating layer pool5/drop_7x7_s1
I0403 15:32:34.964040 12068 net.cpp:91] Creating Layer pool5/drop_7x7_s1
I0403 15:32:34.964056 12068 net.cpp:425] pool5/drop_7x7_s1 <- pool5/7x7_s1
I0403 15:32:34.964076 12068 net.cpp:386] pool5/drop_7x7_s1 -> pool5/7x7_s1 (in-place)
I0403 15:32:34.964126 12068 net.cpp:141] Setting up pool5/drop_7x7_s1
I0403 15:32:34.964151 12068 net.cpp:148] Top shape: 24 1024 1 1 (24576)
I0403 15:32:34.964165 12068 net.cpp:156] Memory required for data: 1346060832
I0403 15:32:34.964179 12068 layer_factory.hpp:77] Creating layer loss3/classifier_plantvillage
I0403 15:32:34.964198 12068 net.cpp:91] Creating Layer loss3/classifier_plantvillage
I0403 15:32:34.964215 12068 net.cpp:425] loss3/classifier_plantvillage <- pool5/7x7_s1
I0403 15:32:34.964236 12068 net.cpp:399] loss3/classifier_plantvillage -> loss3/classifier_plantvillage
I0403 15:32:34.964674 12068 net.cpp:141] Setting up loss3/classifier_plantvillage
I0403 15:32:34.964699 12068 net.cpp:148] Top shape: 24 38 (912)
I0403 15:32:34.964715 12068 net.cpp:156] Memory required for data: 1346064480
I0403 15:32:34.964732 12068 layer_factory.hpp:77] Creating layer loss3/classifier_plantvillage_loss3/classifier_plantvillage_0_split
I0403 15:32:34.964753 12068 net.cpp:91] Creating Layer loss3/classifier_plantvillage_loss3/classifier_plantvillage_0_split
I0403 15:32:34.964771 12068 net.cpp:425] loss3/classifier_plantvillage_loss3/classifier_plantvillage_0_split <- loss3/classifier_plantvillage
I0403 15:32:34.964788 12068 net.cpp:399] loss3/classifier_plantvillage_loss3/classifier_plantvillage_0_split -> loss3/classifier_plantvillage_loss3/classifier_plantvillage_0_split_0
I0403 15:32:34.964813 12068 net.cpp:399] loss3/classifier_plantvillage_loss3/classifier_plantvillage_0_split -> loss3/classifier_plantvillage_loss3/classifier_plantvillage_0_split_1
I0403 15:32:34.964834 12068 net.cpp:399] loss3/classifier_plantvillage_loss3/classifier_plantvillage_0_split -> loss3/classifier_plantvillage_loss3/classifier_plantvillage_0_split_2
I0403 15:32:34.964855 12068 net.cpp:399] loss3/classifier_plantvillage_loss3/classifier_plantvillage_0_split -> loss3/classifier_plantvillage_loss3/classifier_plantvillage_0_split_3
I0403 15:32:34.964958 12068 net.cpp:141] Setting up loss3/classifier_plantvillage_loss3/classifier_plantvillage_0_split
I0403 15:32:34.964983 12068 net.cpp:148] Top shape: 24 38 (912)
I0403 15:32:34.964999 12068 net.cpp:148] Top shape: 24 38 (912)
I0403 15:32:34.965013 12068 net.cpp:148] Top shape: 24 38 (912)
I0403 15:32:34.965029 12068 net.cpp:148] Top shape: 24 38 (912)
I0403 15:32:34.965042 12068 net.cpp:156] Memory required for data: 1346079072
I0403 15:32:34.965056 12068 layer_factory.hpp:77] Creating layer loss1/loss
I0403 15:32:34.965076 12068 net.cpp:91] Creating Layer loss1/loss
I0403 15:32:34.965095 12068 net.cpp:425] loss1/loss <- loss1/classifier_plantvillage_loss1/classifier_plantvillage_0_split_0
I0403 15:32:34.965124 12068 net.cpp:425] loss1/loss <- label_data_1_split_0
…
