…
I0403 15:29:07.709482 12002 net.cpp:313] The NetState phase (1) differed from the phase (0) specified by a rule in layer data
I0403 15:29:07.710687 12002 net.cpp:49] Initializing net from parameters: 
state {
  phase: TEST
}
layer {
  name: "data"
  type: "Data"
  top: "data"
  top: "label"
  include {
    phase: TEST
  }
  transform_param {
    mirror: false
    crop_size: 224
    mean_file: "/home/mohanty/data/final_dataset/lmdb/segmented-50-50/mean.binaryproto"
  }
  data_param {
    source: "/home/mohanty/data/final_dataset/lmdb/segmented-50-50/test_db"
    batch_size: 24
    backend: LMDB
  }
}
layer {
  name: "conv1/7x7_s2"
  type: "Convolution"
  bottom: "data"
  top: "conv1/7x7_s2"
  param {
    lr_mult: 1
    decay_mult: 1
  }
  param {
    lr_mult: 2
    decay_mult: 0
  }
  convolution_param {
    num_output: 64
    pad: 3
    kernel_size: 7
    stride: 2
    weight_filler {
      type: "xavier"
      std: 0.1
    }
    bias_filler {
      type: "constant"
      value: 0.2
    }
  }
}
layer {
  name: "conv1/relu_7x7"
  type: "ReLU"
  bottom: "conv1/7x7_s2"
  top: "conv1/7x7_s2"
}
layer {
  name: "pool1/3x3_s2"
  type: "Pooling"
  bottom: "conv1/7x7_s2"
  top: "pool1/3x3_s2"
  pooling_param {
    pool: MAX
    kernel_size: 3
    stride: 2
  }
}
layer {
  name: "pool1/norm1"
  type: "LRN"
  bottom: "pool1/3x3_s2"
  top: "pool1/norm1"
  lrn_param {
    local_size: 5
    alpha: 0.0001
    beta: 0.75
  }
}
layer {
  name: "conv2/3x3_reduce"
  type: "Convolution"
  bottom: "pool1/norm1"
  top: "conv2/3x3_reduce"
  param {
    lr_mult: 1
    decay_mult: 1
  }
  param {
    lr_mult: 2
    decay_mult: 0
  }
  convolution_param {
    num_output: 64
    kernel_size: 1
    weight_filler {
      type: "xavier"
      std: 0.1
    }
    bias_filler {
      type: "constant"
      value: 0.2
    }
  }
}
layer {
  name: "conv2/relu_3x3_reduce"
  type: "ReLU"
  bottom: "conv2/3x3_reduce"
  top: "conv2/3x3_reduce"
}
layer {
  name: "conv2/3x3"
  type: "Convolution"
  bottom: "conv2/3x3_reduce"
  top: "conv2/3x3"
  param {
    lr_mult: 1
    decay_mult: 1
  }
  param {
    lr_mult: 2
    decay_mult: 0
  }
  convolution_param {
    num_output: 192
    pad: 1
    kernel_size: 3
    weight_filler {
      type: "xavier"
      std: 0.03
    }
    bias_filler {
      type: "constant"
      value: 0.2
    }
  }
}
layer {
  name: "conv2/relu_3x3"
  type: "ReLU"
  bottom: "conv2/3x3"
  top: "conv2/3x3"
}
layer {
  name: "conv2/norm2"
  type: "LRN"
  bottom: "conv2/3x3"
  top: "conv2/norm2"
  lrn_param {
    local_size: 5
    alpha: 0.0001
    beta: 0.75
  }
}
layer {
  name: "pool2/3x3_s2"
  type: "Pooling"
  bottom: "conv2/norm2"
  top: "pool2/3x3_s2"
  pooling_param {
    pool: MAX
    kernel_size: 3
    stride: 2
  }
}
layer {
  name: "inception_3a/1x1"
  type: "Convolution"
  bottom: "pool2/3x3_s2"
  top: "inception_3a/1x1"
  param {
    lr_mult: 1
    decay_mult: 1
  }
  param {
    lr_mult: 2
    decay_mult: 0
  }
  convolution_param {
    num_output: 64
    kernel_size: 1
    weight_filler {
      type: "xavier"
      std: 0.03
    }
    bias_filler {
      type: "constant"
      value: 0.2
    }
  }
}
layer {
  name: "inception_3a/relu_1x1"
  type: "ReLU"
  bottom: "inception_3a/1x1"
  top: "inception_3a/1x1"
}
layer {
  name: "inception_3a/3x3_reduce"
  type: "Convolution"
  bottom: "pool2/3x3_s2"
  top: "inception_3a/3x3_reduce"
  param {
    lr_mult: 1
    decay_mult: 1
  }
  param {
    lr_mult: 2
    decay_mult: 0
  }
  convolution_param {
    num_output: 96
    kernel_size: 1
    weight_filler {
      type: "xavier"
      std: 0.09
    }
    bias_filler {
      type: "constant"
      value: 0.2
    }
  }
}
layer {
  name: "inception_3a/relu_3x3_reduce"
  type: "ReLU"
  bottom: "inception_3a/3x3_reduce"
  top: "inception_3a/3x3_reduce"
}
layer {
  name: "inception_3a/3x3"
  type: "Convolution"
  bottom: "inception_3a/3x3_reduce"
  top: "inception_3a/3x3"
  param {
    lr_mult: 1
    decay_mult: 1
  }
  param {
    lr_mult: 2
    decay_mult: 0
  }
  convolution_param {
    num_output: 128
    pad: 1
    kernel_size: 3
    weight_filler {
      type: "xavier"
      std: 0.03
    }
    bias_filler {
      type: "constant"
      value: 0.2
    }
  }
}
layer {
  name: "inception_3a/relu_3x3"
  type: "ReLU"
  bottom: "inception_3a/3x3"
  top: "inception_3a/3x3"
}
layer {
  name: "inception_3a/5x5_reduce"
  type: "Convolution"
  bottom: "pool2/3x3_s2"
  top: "inception_3a/5x5_reduce"
  param {
    lr_mult: 1
    decay_mult: 1
  }
  param {
    lr_mult: 2
    decay_mult: 0
  }
  convolution_param {
    num_output: 16
    kernel_size: 1
    weight_filler {
      type: "xavier"
      std: 0.2
    }
    bias_filler {
      type: "constant"
      value: 0.2
    }
  }
}
layer {
  name: "inception_3a/relu_5x5_reduce"
  type: "ReLU"
  bottom: "inception_3a/5x5_reduce"
  top: "inception_3a/5x5_reduce"
}
layer {
  name: "inception_3a/5x5"
  type: "Convolution"
  bottom: "inception_3a/5x5_reduce"
  top: "inception_3a/5x5"
  param {
    lr_mult: 1
    decay_mult: 1
  }
  param {
    lr_mult: 2
    decay_mult: 0
  }
  convolution_param {
    num_output: 32
    pad: 2
    kernel_size: 5
    weight_filler {
      type: "xavier"
      std: 0.03
    }
    bias_filler {
      type: "constant"
      value: 0.2
    }
  }
}
layer {
  name: "inception_3a/relu_5x5"
  type: "ReLU"
  bottom: "inception_3a/5x5"
  top: "inception_3a/5x5"
}
layer {
  name: "inception_3a/pool"
  type: "Pooling"
  bottom: "pool2/3x3_s2"
  top: "inception_3a/pool"
  pooling_param {
    pool: MAX
    kernel_size: 3
    stride: 1
    pad: 1
  }
}
layer {
  name: "inception_3a/pool_proj"
  type: "Convolution"
  bottom: "inception_3a/pool"
  top: "inception_3a/pool_proj"
  param {
    lr_mult: 1
    decay_mult: 1
  }
  param {
    lr_mult: 2
    decay_mult: 0
  }
  convolution_param {
    num_output: 32
    kernel_size: 1
    weight_filler {
      type: "xavier"
      std: 0.1
    }
    bias_filler {
      type: "constant"
      value: 0.2
    }
  }
}
layer {
  name: "inception_3a/relu_pool_proj"
  type: "ReLU"
  bottom: "inception_3a/pool_proj"
  top: "inception_3a/pool_proj"
}
layer {
  name: "inception_3a/output"
  type: "Concat"
  bottom: "inception_3a/1x1"
  bottom: "inception_3a/3x3"
  bottom: "inception_3a/5x5"
  bottom: "inception_3a/pool_proj"
  top: "inception_3a/output"
}
layer {
  name: "inception_3b/1x1"
  type: "Convolution"
  bottom: "inception_3a/output"
  top: "inception_3b/1x1"
  param {
    lr_mult: 1
    decay_mult: 1
  }
  param {
    lr_mult: 2
    decay_mult: 0
  }
  convolution_param {
    num_output: 128
    kernel_size: 1
    weight_filler {
      type: "xavier"
      std: 0.03
    }
    bias_filler {
      type: "constant"
      value: 0.2
    }
  }
}
layer {
  name: "inception_3b/relu_1x1"
  type: "ReLU"
  bottom: "inception_3b/1x1"
  top: "inception_3b/1x1"
}
layer {
  name: "inception_3b/3x3_reduce"
  type: "Convolution"
  bottom: "inception_3a/output"
  top: "inception_3b/3x3_reduce"
  param {
    lr_mult: 1
    decay_mult: 1
  }
  param {
    lr_mult: 2
    decay_mult: 0
  }
  convolution_param {
    num_output: 128
    kernel_size: 1
    weight_filler {
      type: "xavier"
      std: 0.09
    }
    bias_filler {
      type: "constant"
      value: 0.2
    }
  }
}
layer {
  name: "inception_3b/relu_3x3_reduce"
  type: "ReLU"
  bottom: "inception_3b/3x3_reduce"
  top: "inception_3b/3x3_reduce"
}
layer {
  name: "inception_3b/3x3"
  type: "Convolution"
  bottom: "inception_3b/3x3_reduce"
  top: "inception_3b/3x3"
  param {
    lr_mult: 1
    decay_mult: 1
  }
  param {
    lr_mult: 2
    decay_mult: 0
  }
  convolution_param {
    num_output: 192
    pad: 1
    kernel_size: 3
    weight_filler {
      type: "xavier"
      std: 0.03
    }
    bias_filler {
      type: "constant"
      value: 0.2
    }
  }
}
layer {
  name: "inception_3b/relu_3x3"
  type: "ReLU"
  bottom: "inception_3b/3x3"
  top: "inception_3b/3x3"
}
layer {
  name: "inception_3b/5x5_reduce"
  type: "Convolution"
  bottom: "inception_3a/output"
  top: "inception_3b/5x5_reduce"
  param {
    lr_mult: 1
    decay_mult: 1
  }
  param {
    lr_mult: 2
    decay_mult: 0
  }
  convolution_param {
    num_output: 32
    kernel_size: 1
    weight_filler {
      type: "xavier"
      std: 0.2
    }
    bias_filler {
      type: "constant"
      value: 0.2
    }
  }
}
layer {
  name: "inception_3b/relu_5x5_reduce"
  type: "ReLU"
  bottom: "inception_3b/5x5_reduce"
  top: "inception_3b/5x5_reduce"
}
layer {
  name: "inception_3b/5x5"
  type: "Convolution"
  bottom: "inception_3b/5x5_reduce"
  top: "inception_3b/5x5"
  param {
    lr_mult: 1
    decay_mult: 1
  }
  param {
    lr_mult: 2
    decay_mult: 0
  }
  convolution_param {
    num_output: 96
    pad: 2
    kernel_size: 5
    weight_filler {
      type: "xavier"
      std: 0.03
    }
    bias_filler {
      type: "constant"
      value: 0.2
    }
  }
}
layer {
  name: "inception_3b/relu_5x5"
  type: "ReLU"
  bottom: "inception_3b/5x5"
  top: "inception_3b/5x5"
}
layer {
  name: "inception_3b/pool"
  type: "Pooling"
  bottom: "inception_3a/output"
  top: "inception_3b/pool"
  pooling_param {
    pool: MAX
    kernel_size: 3
    stride: 1
    pad: 1
  }
}
layer {
  name: "inception_3b/pool_proj"
  type: "Convolution"
  bottom: "inception_3b/pool"
  top: "inception_3b/pool_proj"
  param {
    lr_mult: 1
    decay_mult: 1
  }
  param {
    lr_mult: 2
    decay_mult: 0
  }
  convolution_param {
    num_output: 64
    kernel_size: 1
    weight_filler {
      type: "xavier"
      std: 0.1
    }
    bias_filler {
      type: "constant"
      value: 0.2
    }
  }
}
layer {
  name: "inception_3b/relu_pool_proj"
  type: "ReLU"
  bottom: "inception_3b/pool_proj"
  top: "inception_3b/pool_proj"
}
layer {
  name: "inception_3b/output"
  type: "Concat"
  bottom: "inception_3b/1x1"
  bottom: "inception_3b/3x3"
  bottom: "inception_3b/5x5"
  bottom: "inception_3b/pool_proj"
  top: "inception_3b/output"
}
layer {
  name: "pool3/3x3_s2"
  type: "Pooling"
  bottom: "inception_3b/output"
  top: "pool3/3x3_s2"
  pooling_param {
    pool: MAX
    kernel_size: 3
    stride: 2
  }
}
layer {
  name: "inception_4a/1x1"
  type: "Convolution"
  bottom: "pool3/3x3_s2"
  top: "inception_4a/1x1"
  param {
    lr_mult: 1
    decay_mult: 1
  }
  param {
    lr_mult: 2
    decay_mult: 0
  }
  convolution_param {
    num_output: 192
    kernel_size: 1
    weight_filler {
      type: "xavier"
      std: 0.03
    }
    bias_filler {
      type: "constant"
      value: 0.2
    }
  }
}
layer {
  name: "inception_4a/relu_1x1"
  type: "ReLU"
  bottom: "inception_4a/1x1"
  top: "inception_4a/1x1"
}
layer {
  name: "inception_4a/3x3_reduce"
  type: "Convolution"
  bottom: "pool3/3x3_s2"
  top: "inception_4a/3x3_reduce"
  param {
    lr_mult: 1
    decay_mult: 1
  }
  param {
    lr_mult: 2
    decay_mult: 0
  }
  convolution_param {
    num_output: 96
    kernel_size: 1
    weight_filler {
      type: "xavier"
      std: 0.09
    }
    bias_filler {
      type: "constant"
      value: 0.2
    }
  }
}
layer {
  name: "inception_4a/relu_3x3_reduce"
  type: "ReLU"
  bottom: "inception_4a/3x3_reduce"
  top: "inception_4a/3x3_reduce"
}
layer {
  name: "inception_4a/3x3"
  type: "Convolution"
  bottom: "inception_4a/3x3_reduce"
  top: "inception_4a/3x3"
  param {
    lr_mult: 1
    decay_mult: 1
  }
  param {
    lr_mult: 2
    decay_mult: 0
  }
  convolution_param {
    num_output: 208
    pad: 1
    kernel_size: 3
    weight_filler {
      type: "xavier"
      std: 0.03
    }
    bias_filler {
      type: "constant"
      value: 0.2
    }
  }
}
layer {
  name: "inception_4a/relu_3x3"
  type: "ReLU"
  bottom: "inception_4a/3x3"
  top: "inception_4a/3x3"
}
layer {
  name: "inception_4a/5x5_reduce"
  type: "Convolution"
  bottom: "pool3/3x3_s2"
  top: "inception_4a/5x5_reduce"
  param {
    lr_mult: 1
    decay_mult: 1
  }
  param {
    lr_mult: 2
    decay_mult: 0
  }
  convolution_param {
    num_output: 16
    kernel_size: 1
    weight_filler {
      type: "xavier"
      std: 0.2
    }
    bias_filler {
      type: "constant"
      value: 0.2
    }
  }
}
layer {
  name: "inception_4a/relu_5x5_reduce"
  type: "ReLU"
  bottom: "inception_4a/5x5_reduce"
  top: "inception_4a/5x5_reduce"
}
layer {
  name: "inception_4a/5x5"
  type: "Convolution"
  bottom: "inception_4a/5x5_reduce"
  top: "inception_4a/5x5"
  param {
    lr_mult: 1
    decay_mult: 1
  }
  param {
    lr_mult: 2
    decay_mult: 0
  }
  convolution_param {
    num_output: 48
    pad: 2
    kernel_size: 5
    weight_filler {
      type: "xavier"
      std: 0.03
    }
    bias_filler {
      type: "constant"
      value: 0.2
    }
  }
}
layer {
  name: "inception_4a/relu_5x5"
  type: "ReLU"
  bottom: "inception_4a/5x5"
  top: "inception_4a/5x5"
}
layer {
  name: "inception_4a/pool"
  type: "Pooling"
  bottom: "pool3/3x3_s2"
  top: "inception_4a/pool"
  pooling_param {
    pool: MAX
    kernel_size: 3
    stride: 1
    pad: 1
  }
}
layer {
  name: "inception_4a/pool_proj"
  type: "Convolution"
  bottom: "inception_4a/pool"
  top: "inception_4a/pool_proj"
  param {
    lr_mult: 1
    decay_mult: 1
  }
  param {
    lr_mult: 2
    decay_mult: 0
  }
  convolution_param {
    num_output: 64
    kernel_size: 1
    weight_filler {
      type: "xavier"
      std: 0.1
    }
    bias_filler {
      type: "constant"
      value: 0.2
    }
  }
}
layer {
  name: "inception_4a/relu_pool_proj"
  type: "ReLU"
  bottom: "inception_4a/pool_proj"
  top: "inception_4a/pool_proj"
}
layer {
  name: "inception_4a/output"
  type: "Concat"
  bottom: "inception_4a/1x1"
  bottom: "inception_4a/3x3"
  bottom: "inception_4a/5x5"
  bottom: "inception_4a/pool_proj"
  top: "inception_4a/output"
}
layer {
  name: "loss1/ave_pool"
  type: "Pooling"
  bottom: "inception_4a/output"
  top: "loss1/ave_pool"
  pooling_param {
    pool: AVE
    kernel_size: 5
    stride: 3
  }
}
layer {
  name: "loss1/conv"
  type: "Convolution"
  bottom: "loss1/ave_pool"
  top: "loss1/conv"
  param {
    lr_mult: 1
    decay_mult: 1
  }
  param {
    lr_mult: 2
    decay_mult: 0
  }
  convolution_param {
    num_output: 128
    kernel_size: 1
    weight_filler {
      type: "xavier"
      std: 0.08
    }
    bias_filler {
      type: "constant"
      value: 0.2
    }
  }
}
layer {
  name: "loss1/relu_conv"
  type: "ReLU"
  bottom: "loss1/conv"
  top: "loss1/conv"
}
layer {
  name: "loss1/fc"
  type: "InnerProduct"
  bottom: "loss1/conv"
  top: "loss1/fc"
  param {
    lr_mult: 1
    decay_mult: 1
  }
  param {
    lr_mult: 2
    decay_mult: 0
  }
  inner_product_param {
    num_output: 1024
    weight_filler {
      type: "xavier"
      std: 0.02
    }
    bias_filler {
      type: "constant"
      value: 0.2
    }
  }
}
layer {
  name: "loss1/relu_fc"
  type: "ReLU"
  bottom: "loss1/fc"
  top: "loss1/fc"
}
layer {
  name: "loss1/drop_fc"
  type: "Dropout"
  bottom: "loss1/fc"
  top: "loss1/fc"
  dropout_param {
    dropout_ratio: 0.7
  }
}
layer {
  name: "loss1/classifier_plantvillage"
  type: "InnerProduct"
  bottom: "loss1/fc"
  top: "loss1/classifier_plantvillage"
  param {
    lr_mult: 1
    decay_mult: 1
  }
  param {
    lr_mult: 2
    decay_mult: 0
  }
  inner_product_param {
    num_output: 38
    weight_filler {
      type: "xavier"
      std: 0.0009765625
    }
    bias_filler {
      type: "constant"
      value: 0
    }
  }
}
layer {
  name: "inception_4b/1x1"
  type: "Convolution"
  bottom: "inception_4a/output"
  top: "inception_4b/1x1"
  param {
    lr_mult: 1
    decay_mult: 1
  }
  param {
    lr_mult: 2
    decay_mult: 0
  }
  convolution_param {
    num_output: 160
    kernel_size: 1
    weight_filler {
      type: "xavier"
      std: 0.03
    }
    bias_filler {
      type: "constant"
      value: 0.2
    }
  }
}
layer {
  name: "inception_4b/relu_1x1"
  type: "ReLU"
  bottom: "inception_4b/1x1"
  top: "inception_4b/1x1"
}
layer {
  name: "inception_4b/3x3_reduce"
  type: "Convolution"
  bottom: "inception_4a/output"
  top: "inception_4b/3x3_reduce"
  param {
    lr_mult: 1
    decay_mult: 1
  }
  param {
    lr_mult: 2
    decay_mult: 0
  }
  convolution_param {
    num_output: 112
    kernel_size: 1
    weight_filler {
      type: "xavier"
      std: 0.09
    }
    bias_filler {
      type: "constant"
      value: 0.2
    }
  }
}
layer {
  name: "inception_4b/relu_3x3_reduce"
  type: "ReLU"
  bottom: "inception_4b/3x3_reduce"
  top: "inception_4b/3x3_reduce"
}
layer {
  name: "inception_4b/3x3"
  type: "Convolution"
  bottom: "inception_4b/3x3_reduce"
  top: "inception_4b/3x3"
  param {
    lr_mult: 1
    decay_mult: 1
  }
  param {
    lr_mult: 2
    decay_mult: 0
  }
  convolution_param {
    num_output: 224
    pad: 1
    kernel_size: 3
    weight_filler {
      type: "xavier"
      std: 0.03
    }
    bias_filler {
      type: "constant"
      value: 0.2
    }
  }
}
layer {
  name: "inception_4b/relu_3x3"
  type: "ReLU"
  bottom: "inception_4b/3x3"
  top: "inception_4b/3x3"
}
layer {
  name: "inception_4b/5x5_reduce"
  type: "Convolution"
  bottom: "inception_4a/output"
  top: "inception_4b/5x5_reduce"
  param {
    lr_mult: 1
    decay_mult: 1
  }
  param {
    lr_mult: 2
    decay_mult: 0
  }
  convolution_param {
    num_output: 24
    kernel_size: 1
    weight_filler {
      type: "xavier"
      std: 0.2
    }
    bias_filler {
      type: "constant"
      value: 0.2
    }
  }
}
layer {
  name: "inception_4b/relu_5x5_reduce"
  type: "ReLU"
  bottom: "inception_4b/5x5_reduce"
  top: "inception_4b/5x5_reduce"
}
layer {
  name: "inception_4b/5x5"
  type: "Convolution"
  bottom: "inception_4b/5x5_reduce"
  top: "inception_4b/5x5"
  param {
    lr_mult: 1
    decay_mult: 1
  }
  param {
    lr_mult: 2
    decay_mult: 0
  }
  convolution_param {
    num_output: 64
    pad: 2
    kernel_size: 5
    weight_filler {
      type: "xavier"
      std: 0.03
    }
    bias_filler {
      type: "constant"
      value: 0.2
    }
  }
}
layer {
  name: "inception_4b/relu_5x5"
  type: "ReLU"
  bottom: "inception_4b/5x5"
  top: "inception_4b/5x5"
}
layer {
  name: "inception_4b/pool"
  type: "Pooling"
  bottom: "inception_4a/output"
  top: "inception_4b/pool"
  pooling_param {
    pool: MAX
    kernel_size: 3
    stride: 1
    pad: 1
  }
}
layer {
  name: "inception_4b/pool_proj"
  type: "Convolution"
  bottom: "inception_4b/pool"
  top: "inception_4b/pool_proj"
  param {
    lr_mult: 1
    decay_mult: 1
  }
  param {
    lr_mult: 2
    decay_mult: 0
  }
  convolution_param {
    num_output: 64
    kernel_size: 1
    weight_filler {
      type: "xavier"
      std: 0.1
    }
    bias_filler {
      type: "constant"
      value: 0.2
    }
  }
}
layer {
  name: "inception_4b/relu_pool_proj"
  type: "ReLU"
  bottom: "inception_4b/pool_proj"
  top: "inception_4b/pool_proj"
}
layer {
  name: "inception_4b/output"
  type: "Concat"
  bottom: "inception_4b/1x1"
  bottom: "inception_4b/3x3"
  bottom: "inception_4b/5x5"
  bottom: "inception_4b/pool_proj"
  top: "inception_4b/output"
}
layer {
  name: "inception_4c/1x1"
  type: "Convolution"
  bottom: "inception_4b/output"
  top: "inception_4c/1x1"
  param {
    lr_mult: 1
    decay_mult: 1
  }
  param {
    lr_mult: 2
    decay_mult: 0
  }
  convolution_param {
    num_output: 128
    kernel_size: 1
    weight_filler {
      type: "xavier"
      std: 0.03
    }
    bias_filler {
      type: "constant"
      value: 0.2
    }
  }
}
layer {
  name: "inception_4c/relu_1x1"
  type: "ReLU"
  bottom: "inception_4c/1x1"
  top: "inception_4c/1x1"
}
layer {
  name: "inception_4c/3x3_reduce"
  type: "Convolution"
  bottom: "inception_4b/output"
  top: "inception_4c/3x3_reduce"
  param {
    lr_mult: 1
    decay_mult: 1
  }
  param {
    lr_mult: 2
    decay_mult: 0
  }
  convolution_param {
    num_output: 128
    kernel_size: 1
    weight_filler {
      type: "xavier"
      std: 0.09
    }
    bias_filler {
      type: "constant"
      value: 0.2
    }
  }
}
layer {
  name: "inception_4c/relu_3x3_reduce"
  type: "ReLU"
  bottom: "inception_4c/3x3_reduce"
  top: "inception_4c/3x3_reduce"
}
layer {
  name: "inception_4c/3x3"
  type: "Convolution"
  bottom: "inception_4c/3x3_reduce"
  top: "inception_4c/3x3"
  param {
    lr_mult: 1
    decay_mult: 1
  }
  param {
    lr_mult: 2
    decay_mult: 0
  }
  convolution_param {
    num_output: 256
    pad: 1
    kernel_size: 3
    weight_filler {
      type: "xavier"
      std: 0.03
    }
    bias_filler {
      type: "constant"
      value: 0.2
    }
  }
}
layer {
  name: "inception_4c/relu_3x3"
  type: "ReLU"
  bottom: "inception_4c/3x3"
  top: "inception_4c/3x3"
}
layer {
  name: "inception_4c/5x5_reduce"
  type: "Convolution"
  bottom: "inception_4b/output"
  top: "inception_4c/5x5_reduce"
  param {
    lr_mult: 1
    decay_mult: 1
  }
  param {
    lr_mult: 2
    decay_mult: 0
  }
  convolution_param {
    num_output: 24
    kernel_size: 1
    weight_filler {
      type: "xavier"
      std: 0.2
    }
    bias_filler {
      type: "constant"
      value: 0.2
    }
  }
}
layer {
  name: "inception_4c/relu_5x5_reduce"
  type: "ReLU"
  bottom: "inception_4c/5x5_reduce"
  top: "inception_4c/5x5_reduce"
}
layer {
  name: "inception_4c/5x5"
  type: "Convolution"
  bottom: "inception_4c/5x5_reduce"
  top: "inception_4c/5x5"
  param {
    lr_mult: 1
    decay_mult: 1
  }
  param {
    lr_mult: 2
    decay_mult: 0
  }
  convolution_param {
    num_output: 64
    pad: 2
    kernel_size: 5
    weight_filler {
      type: "xavier"
      std: 0.03
    }
    bias_filler {
      type: "constant"
      value: 0.2
    }
  }
}
layer {
  name: "inception_4c/relu_5x5"
  type: "ReLU"
  bottom: "inception_4c/5x5"
  top: "inception_4c/5x5"
}
layer {
  name: "inception_4c/pool"
  type: "Pooling"
  bottom: "inception_4b/output"
  top: "inception_4c/pool"
  pooling_param {
    pool: MAX
    kernel_size: 3
    stride: 1
    pad: 1
  }
}
layer {
  name: "inception_4c/pool_proj"
  type: "Convolution"
  bottom: "inception_4c/pool"
  top: "inception_4c/pool_proj"
  param {
    lr_mult: 1
    decay_mult: 1
  }
  param {
    lr_mult: 2
    decay_mult: 0
  }
  convolution_param {
    num_output: 64
    kernel_size: 1
    weight_filler {
      type: "xavier"
      std: 0.1
    }
    bias_filler {
      type: "constant"
      value: 0.2
    }
  }
}
layer {
  name: "inception_4c/relu_pool_proj"
  type: "ReLU"
  bottom: "inception_4c/pool_proj"
  top: "inception_4c/pool_proj"
}
layer {
  name: "inception_4c/output"
  type: "Concat"
  bottom: "inception_4c/1x1"
  bottom: "inception_4c/3x3"
  bottom: "inception_4c/5x5"
  bottom: "inception_4c/pool_proj"
  top: "inception_4c/output"
}
layer {
  name: "inception_4d/1x1"
  type: "Convolution"
  bottom: "inception_4c/output"
  top: "inception_4d/1x1"
  param {
    lr_mult: 1
    decay_mult: 1
  }
  param {
    lr_mult: 2
    decay_mult: 0
  }
  convolution_param {
    num_output: 112
    kernel_size: 1
    weight_filler {
      type: "xavier"
      std: 0.03
    }
    bias_filler {
      type: "constant"
      value: 0.2
    }
  }
}
layer {
  name: "inception_4d/relu_1x1"
  type: "ReLU"
  bottom: "inception_4d/1x1"
  top: "inception_4d/1x1"
}
layer {
  name: "inception_4d/3x3_reduce"
  type: "Convolution"
  bottom: "inception_4c/output"
  top: "inception_4d/3x3_reduce"
  param {
    lr_mult: 1
    decay_mult: 1
  }
  param {
    lr_mult: 2
    decay_mult: 0
  }
  convolution_param {
    num_output: 144
    kernel_size: 1
    weight_filler {
      type: "xavier"
      std: 0.09
    }
    bias_filler {
      type: "constant"
      value: 0.2
    }
  }
}
layer {
  name: "inception_4d/relu_3x3_reduce"
  type: "ReLU"
  bottom: "inception_4d/3x3_reduce"
  top: "inception_4d/3x3_reduce"
}
layer {
  name: "inception_4d/3x3"
  type: "Convolution"
  bottom: "inception_4d/3x3_reduce"
  top: "inception_4d/3x3"
  param {
    lr_mult: 1
    decay_mult: 1
  }
  param {
    lr_mult: 2
    decay_mult: 0
  }
  convolution_param {
    num_output: 288
    pad: 1
    kernel_size: 3
    weight_filler {
      type: "xavier"
      std: 0.03
    }
    bias_filler {
      type: "constant"
      value: 0.2
    }
  }
}
layer {
  name: "inception_4d/relu_3x3"
  type: "ReLU"
  bottom: "inception_4d/3x3"
  top: "inception_4d/3x3"
}
layer {
  name: "inception_4d/5x5_reduce"
  type: "Convolution"
  bottom: "inception_4c/output"
  top: "inception_4d/5x5_reduce"
  param {
    lr_mult: 1
    decay_mult: 1
  }
  param {
    lr_mult: 2
    decay_mult: 0
  }
  convolution_param {
    num_output: 32
    kernel_size: 1
    weight_filler {
      type: "xavier"
      std: 0.2
    }
    bias_filler {
      type: "constant"
      value: 0.2
    }
  }
}
layer {
  name: "inception_4d/relu_5x5_reduce"
  type: "ReLU"
  bottom: "inception_4d/5x5_reduce"
  top: "inception_4d/5x5_reduce"
}
layer {
  name: "inception_4d/5x5"
  type: "Convolution"
  bottom: "inception_4d/5x5_reduce"
  top: "inception_4d/5x5"
  param {
    lr_mult: 1
    decay_mult: 1
  }
  param {
    lr_mult: 2
    decay_mult: 0
  }
  convolution_param {
    num_output: 64
    pad: 2
    kernel_size: 5
    weight_filler {
      type: "xavier"
      std: 0.03
    }
    bias_filler {
      type: "constant"
      value: 0.2
    }
  }
}
layer {
  name: "inception_4d/relu_5x5"
  type: "ReLU"
  bottom: "inception_4d/5x5"
  top: "inception_4d/5x5"
}
layer {
  name: "inception_4d/pool"
  type: "Pooling"
  bottom: "inception_4c/output"
  top: "inception_4d/pool"
  pooling_param {
    pool: MAX
    kernel_size: 3
    stride: 1
    pad: 1
  }
}
layer {
  name: "inception_4d/pool_proj"
  type: "Convolution"
  bottom: "inception_4d/pool"
  top: "inception_4d/pool_proj"
  param {
    lr_mult: 1
    decay_mult: 1
  }
  param {
    lr_mult: 2
    decay_mult: 0
  }
  convolution_param {
    num_output: 64
    kernel_size: 1
    weight_filler {
      type: "xavier"
      std: 0.1
    }
    bias_filler {
      type: "constant"
      value: 0.2
    }
  }
}
layer {
  name: "inception_4d/relu_pool_proj"
  type: "ReLU"
  bottom: "inception_4d/pool_proj"
  top: "inception_4d/pool_proj"
}
layer {
  name: "inception_4d/output"
  type: "Concat"
  bottom: "inception_4d/1x1"
  bottom: "inception_4d/3x3"
  bottom: "inception_4d/5x5"
  bottom: "inception_4d/pool_proj"
  top: "inception_4d/output"
}
layer {
  name: "loss2/ave_pool"
  type: "Pooling"
  bottom: "inception_4d/output"
  top: "loss2/ave_pool"
  pooling_param {
    pool: AVE
    kernel_size: 5
    stride: 3
  }
}
layer {
  name: "loss2/conv"
  type: "Convolution"
  bottom: "loss2/ave_pool"
  top: "loss2/conv"
  param {
    lr_mult: 1
    decay_mult: 1
  }
  param {
    lr_mult: 2
    decay_mult: 0
  }
  convolution_param {
    num_output: 128
    kernel_size: 1
    weight_filler {
      type: "xavier"
      std: 0.08
    }
    bias_filler {
      type: "constant"
      value: 0.2
    }
  }
}
layer {
  name: "loss2/relu_conv"
  type: "ReLU"
  bottom: "loss2/conv"
  top: "loss2/conv"
}
layer {
  name: "loss2/fc"
  type: "InnerProduct"
  bottom: "loss2/conv"
  top: "loss2/fc"
  param {
    lr_mult: 1
    decay_mult: 1
  }
  param {
    lr_mult: 2
    decay_mult: 0
  }
  inner_product_param {
    num_output: 1024
    weight_filler {
      type: "xavier"
      std: 0.02
    }
    bias_filler {
      type: "constant"
      value: 0.2
    }
  }
}
layer {
  name: "loss2/relu_fc"
  type: "ReLU"
  bottom: "loss2/fc"
  top: "loss2/fc"
}
layer {
  name: "loss2/drop_fc"
  type: "Dropout"
  bottom: "loss2/fc"
  top: "loss2/fc"
  dropout_param {
    dropout_ratio: 0.7
  }
}
layer {
  name: "loss2/classifier_plantvillage"
  type: "InnerProduct"
  bottom: "loss2/fc"
  top: "loss2/classifier_plantvillage"
  param {
    lr_mult: 1
    decay_mult: 1
  }
  param {
    lr_mult: 2
    decay_mult: 0
  }
  inner_product_param {
    num_output: 38
    weight_filler {
      type: "xavier"
      std: 0.0009765625
    }
    bias_filler {
      type: "constant"
      value: 0
    }
  }
}
layer {
  name: "inception_4e/1x1"
  type: "Convolution"
  bottom: "inception_4d/output"
  top: "inception_4e/1x1"
  param {
    lr_mult: 1
    decay_mult: 1
  }
  param {
    lr_mult: 2
    decay_mult: 0
  }
  convolution_param {
    num_output: 256
    kernel_size: 1
    weight_filler {
      type: "xavier"
      std: 0.03
    }
    bias_filler {
      type: "constant"
      value: 0.2
    }
  }
}
layer {
  name: "inception_4e/relu_1x1"
  type: "ReLU"
  bottom: "inception_4e/1x1"
  top: "inception_4e/1x1"
}
layer {
  name: "inception_4e/3x3_reduce"
  type: "Convolution"
  bottom: "inception_4d/output"
  top: "inception_4e/3x3_reduce"
  param {
    lr_mult: 1
    decay_mult: 1
  }
  param {
    lr_mult: 2
    decay_mult: 0
  }
  convolution_param {
    num_output: 160
    kernel_size: 1
    weight_filler {
      type: "xavier"
      std: 0.09
    }
    bias_filler {
      type: "constant"
      value: 0.2
    }
  }
}
layer {
  name: "inception_4e/relu_3x3_reduce"
  type: "ReLU"
  bottom: "inception_4e/3x3_reduce"
  top: "inception_4e/3x3_reduce"
}
layer {
  name: "inception_4e/3x3"
  type: "Convolution"
  bottom: "inception_4e/3x3_reduce"
  top: "inception_4e/3x3"
  param {
    lr_mult: 1
    decay_mult: 1
  }
  param {
    lr_mult: 2
    decay_mult: 0
  }
  convolution_param {
    num_output: 320
    pad: 1
    kernel_size: 3
    weight_filler {
      type: "xavier"
      std: 0.03
    }
    bias_filler {
      type: "constant"
      value: 0.2
    }
  }
}
layer {
  name: "inception_4e/relu_3x3"
  type: "ReLU"
  bottom: "inception_4e/3x3"
  top: "inception_4e/3x3"
}
layer {
  name: "inception_4e/5x5_reduce"
  type: "Convolution"
  bottom: "inception_4d/output"
  top: "inception_4e/5x5_reduce"
  param {
    lr_mult: 1
    decay_mult: 1
  }
  param {
    lr_mult: 2
    decay_mult: 0
  }
  convolution_param {
    num_output: 32
    kernel_size: 1
    weight_filler {
      type: "xavier"
      std: 0.2
    }
    bias_filler {
      type: "constant"
      value: 0.2
    }
  }
}
layer {
  name: "inception_4e/relu_5x5_reduce"
  type: "ReLU"
  bottom: "inception_4e/5x5_reduce"
  top: "inception_4e/5x5_reduce"
}
layer {
  name: "inception_4e/5x5"
  type: "Convolution"
  bottom: "inception_4e/5x5_reduce"
  top: "inception_4e/
I0403 15:29:07.711933 12002 layer_factory.hpp:77] Creating layer data
I0403 15:29:07.712548 12002 net.cpp:91] Creating Layer data
I0403 15:29:07.712580 12002 net.cpp:399] data -> data
I0403 15:29:07.712631 12002 net.cpp:399] data -> label
I0403 15:29:07.712667 12002 data_transformer.cpp:25] Loading mean file from: /home/mohanty/data/final_dataset/lmdb/segmented-50-50/mean.binaryproto
I0403 15:29:07.715045 12005 db_lmdb.cpp:38] Opened lmdb /home/mohanty/data/final_dataset/lmdb/segmented-50-50/test_db
I0403 15:29:07.725885 12002 data_layer.cpp:41] output data size: 24,3,224,224
I0403 15:29:07.753840 12002 net.cpp:141] Setting up data
I0403 15:29:07.753947 12002 net.cpp:148] Top shape: 24 3 224 224 (3612672)
I0403 15:29:07.753968 12002 net.cpp:148] Top shape: 24 (24)
I0403 15:29:07.753983 12002 net.cpp:156] Memory required for data: 14450784
I0403 15:29:07.754010 12002 layer_factory.hpp:77] Creating layer label_data_1_split
I0403 15:29:07.754036 12002 net.cpp:91] Creating Layer label_data_1_split
I0403 15:29:07.754055 12002 net.cpp:425] label_data_1_split <- label
I0403 15:29:07.754087 12002 net.cpp:399] label_data_1_split -> label_data_1_split_0
I0403 15:29:07.754115 12002 net.cpp:399] label_data_1_split -> label_data_1_split_1
I0403 15:29:07.754135 12002 net.cpp:399] label_data_1_split -> label_data_1_split_2
I0403 15:29:07.754156 12002 net.cpp:399] label_data_1_split -> label_data_1_split_3
I0403 15:29:07.754175 12002 net.cpp:399] label_data_1_split -> label_data_1_split_4
I0403 15:29:07.754195 12002 net.cpp:399] label_data_1_split -> label_data_1_split_5
I0403 15:29:07.754214 12002 net.cpp:399] label_data_1_split -> label_data_1_split_6
I0403 15:29:07.754235 12002 net.cpp:399] label_data_1_split -> label_data_1_split_7
I0403 15:29:07.754253 12002 net.cpp:399] label_data_1_split -> label_data_1_split_8
I0403 15:29:07.754273 12002 net.cpp:399] label_data_1_split -> label_data_1_split_9
I0403 15:29:07.754392 12002 net.cpp:141] Setting up label_data_1_split
I0403 15:29:07.754416 12002 net.cpp:148] Top shape: 24 (24)
I0403 15:29:07.754433 12002 net.cpp:148] Top shape: 24 (24)
I0403 15:29:07.754448 12002 net.cpp:148] Top shape: 24 (24)
I0403 15:29:07.754464 12002 net.cpp:148] Top shape: 24 (24)
I0403 15:29:07.754479 12002 net.cpp:148] Top shape: 24 (24)
I0403 15:29:07.754494 12002 net.cpp:148] Top shape: 24 (24)
I0403 15:29:07.754510 12002 net.cpp:148] Top shape: 24 (24)
I0403 15:29:07.754525 12002 net.cpp:148] Top shape: 24 (24)
I0403 15:29:07.754541 12002 net.cpp:148] Top shape: 24 (24)
I0403 15:29:07.754557 12002 net.cpp:148] Top shape: 24 (24)
I0403 15:29:07.754602 12002 net.cpp:156] Memory required for data: 14451744
I0403 15:29:07.754631 12002 layer_factory.hpp:77] Creating layer conv1/7x7_s2
I0403 15:29:07.754662 12002 net.cpp:91] Creating Layer conv1/7x7_s2
I0403 15:29:07.754681 12002 net.cpp:425] conv1/7x7_s2 <- data
I0403 15:29:07.754701 12002 net.cpp:399] conv1/7x7_s2 -> conv1/7x7_s2
I0403 15:29:07.897651 12002 net.cpp:141] Setting up conv1/7x7_s2
I0403 15:29:07.897743 12002 net.cpp:148] Top shape: 24 64 112 112 (19267584)
I0403 15:29:07.897763 12002 net.cpp:156] Memory required for data: 91522080
I0403 15:29:07.897794 12002 layer_factory.hpp:77] Creating layer conv1/relu_7x7
I0403 15:29:07.897822 12002 net.cpp:91] Creating Layer conv1/relu_7x7
I0403 15:29:07.897840 12002 net.cpp:425] conv1/relu_7x7 <- conv1/7x7_s2
I0403 15:29:07.897860 12002 net.cpp:386] conv1/relu_7x7 -> conv1/7x7_s2 (in-place)
I0403 15:29:07.898124 12002 net.cpp:141] Setting up conv1/relu_7x7
I0403 15:29:07.898152 12002 net.cpp:148] Top shape: 24 64 112 112 (19267584)
I0403 15:29:07.898169 12002 net.cpp:156] Memory required for data: 168592416
I0403 15:29:07.898183 12002 layer_factory.hpp:77] Creating layer pool1/3x3_s2
I0403 15:29:07.898208 12002 net.cpp:91] Creating Layer pool1/3x3_s2
I0403 15:29:07.898226 12002 net.cpp:425] pool1/3x3_s2 <- conv1/7x7_s2
I0403 15:29:07.898246 12002 net.cpp:399] pool1/3x3_s2 -> pool1/3x3_s2
I0403 15:29:07.898319 12002 net.cpp:141] Setting up pool1/3x3_s2
I0403 15:29:07.898344 12002 net.cpp:148] Top shape: 24 64 56 56 (4816896)
I0403 15:29:07.898360 12002 net.cpp:156] Memory required for data: 187860000
I0403 15:29:07.898375 12002 layer_factory.hpp:77] Creating layer pool1/norm1
I0403 15:29:07.898404 12002 net.cpp:91] Creating Layer pool1/norm1
I0403 15:29:07.898422 12002 net.cpp:425] pool1/norm1 <- pool1/3x3_s2
I0403 15:29:07.898440 12002 net.cpp:399] pool1/norm1 -> pool1/norm1
I0403 15:29:07.898727 12002 net.cpp:141] Setting up pool1/norm1
I0403 15:29:07.898754 12002 net.cpp:148] Top shape: 24 64 56 56 (4816896)
I0403 15:29:07.898771 12002 net.cpp:156] Memory required for data: 207127584
I0403 15:29:07.898785 12002 layer_factory.hpp:77] Creating layer conv2/3x3_reduce
I0403 15:29:07.898811 12002 net.cpp:91] Creating Layer conv2/3x3_reduce
I0403 15:29:07.898828 12002 net.cpp:425] conv2/3x3_reduce <- pool1/norm1
I0403 15:29:07.898850 12002 net.cpp:399] conv2/3x3_reduce -> conv2/3x3_reduce
I0403 15:29:07.900301 12002 net.cpp:141] Setting up conv2/3x3_reduce
I0403 15:29:07.900333 12002 net.cpp:148] Top shape: 24 64 56 56 (4816896)
I0403 15:29:07.900352 12002 net.cpp:156] Memory required for data: 226395168
I0403 15:29:07.900374 12002 layer_factory.hpp:77] Creating layer conv2/relu_3x3_reduce
I0403 15:29:07.900403 12002 net.cpp:91] Creating Layer conv2/relu_3x3_reduce
I0403 15:29:07.900421 12002 net.cpp:425] conv2/relu_3x3_reduce <- conv2/3x3_reduce
I0403 15:29:07.900439 12002 net.cpp:386] conv2/relu_3x3_reduce -> conv2/3x3_reduce (in-place)
I0403 15:29:07.900714 12002 net.cpp:141] Setting up conv2/relu_3x3_reduce
I0403 15:29:07.900743 12002 net.cpp:148] Top shape: 24 64 56 56 (4816896)
I0403 15:29:07.900758 12002 net.cpp:156] Memory required for data: 245662752
I0403 15:29:07.900774 12002 layer_factory.hpp:77] Creating layer conv2/3x3
I0403 15:29:07.900799 12002 net.cpp:91] Creating Layer conv2/3x3
I0403 15:29:07.900820 12002 net.cpp:425] conv2/3x3 <- conv2/3x3_reduce
I0403 15:29:07.900842 12002 net.cpp:399] conv2/3x3 -> conv2/3x3
I0403 15:29:07.903235 12002 net.cpp:141] Setting up conv2/3x3
I0403 15:29:07.903267 12002 net.cpp:148] Top shape: 24 192 56 56 (14450688)
I0403 15:29:07.903283 12002 net.cpp:156] Memory required for data: 303465504
I0403 15:29:07.903306 12002 layer_factory.hpp:77] Creating layer conv2/relu_3x3
I0403 15:29:07.903327 12002 net.cpp:91] Creating Layer conv2/relu_3x3
I0403 15:29:07.903345 12002 net.cpp:425] conv2/relu_3x3 <- conv2/3x3
I0403 15:29:07.903364 12002 net.cpp:386] conv2/relu_3x3 -> conv2/3x3 (in-place)
I0403 15:29:07.903564 12002 net.cpp:141] Setting up conv2/relu_3x3
I0403 15:29:07.903595 12002 net.cpp:148] Top shape: 24 192 56 56 (14450688)
I0403 15:29:07.903645 12002 net.cpp:156] Memory required for data: 361268256
I0403 15:29:07.903663 12002 layer_factory.hpp:77] Creating layer conv2/norm2
I0403 15:29:07.903694 12002 net.cpp:91] Creating Layer conv2/norm2
I0403 15:29:07.903712 12002 net.cpp:425] conv2/norm2 <- conv2/3x3
I0403 15:29:07.903734 12002 net.cpp:399] conv2/norm2 -> conv2/norm2
I0403 15:29:07.904052 12002 net.cpp:141] Setting up conv2/norm2
I0403 15:29:07.904080 12002 net.cpp:148] Top shape: 24 192 56 56 (14450688)
I0403 15:29:07.904095 12002 net.cpp:156] Memory required for data: 419071008
I0403 15:29:07.904111 12002 layer_factory.hpp:77] Creating layer pool2/3x3_s2
I0403 15:29:07.904129 12002 net.cpp:91] Creating Layer pool2/3x3_s2
I0403 15:29:07.904145 12002 net.cpp:425] pool2/3x3_s2 <- conv2/norm2
I0403 15:29:07.904165 12002 net.cpp:399] pool2/3x3_s2 -> pool2/3x3_s2
I0403 15:29:07.904218 12002 net.cpp:141] Setting up pool2/3x3_s2
I0403 15:29:07.904242 12002 net.cpp:148] Top shape: 24 192 28 28 (3612672)
I0403 15:29:07.904256 12002 net.cpp:156] Memory required for data: 433521696
I0403 15:29:07.904271 12002 layer_factory.hpp:77] Creating layer pool2/3x3_s2_pool2/3x3_s2_0_split
I0403 15:29:07.904291 12002 net.cpp:91] Creating Layer pool2/3x3_s2_pool2/3x3_s2_0_split
I0403 15:29:07.904307 12002 net.cpp:425] pool2/3x3_s2_pool2/3x3_s2_0_split <- pool2/3x3_s2
I0403 15:29:07.904327 12002 net.cpp:399] pool2/3x3_s2_pool2/3x3_s2_0_split -> pool2/3x3_s2_pool2/3x3_s2_0_split_0
I0403 15:29:07.904347 12002 net.cpp:399] pool2/3x3_s2_pool2/3x3_s2_0_split -> pool2/3x3_s2_pool2/3x3_s2_0_split_1
I0403 15:29:07.904367 12002 net.cpp:399] pool2/3x3_s2_pool2/3x3_s2_0_split -> pool2/3x3_s2_pool2/3x3_s2_0_split_2
I0403 15:29:07.904405 12002 net.cpp:399] pool2/3x3_s2_pool2/3x3_s2_0_split -> pool2/3x3_s2_pool2/3x3_s2_0_split_3
I0403 15:29:07.904479 12002 net.cpp:141] Setting up pool2/3x3_s2_pool2/3x3_s2_0_split
I0403 15:29:07.904502 12002 net.cpp:148] Top shape: 24 192 28 28 (3612672)
I0403 15:29:07.904526 12002 net.cpp:148] Top shape: 24 192 28 28 (3612672)
I0403 15:29:07.904543 12002 net.cpp:148] Top shape: 24 192 28 28 (3612672)
I0403 15:29:07.904561 12002 net.cpp:148] Top shape: 24 192 28 28 (3612672)
I0403 15:29:07.904574 12002 net.cpp:156] Memory required for data: 491324448
I0403 15:29:07.904589 12002 layer_factory.hpp:77] Creating layer inception_3a/1x1
I0403 15:29:07.904610 12002 net.cpp:91] Creating Layer inception_3a/1x1
I0403 15:29:07.904628 12002 net.cpp:425] inception_3a/1x1 <- pool2/3x3_s2_pool2/3x3_s2_0_split_0
I0403 15:29:07.904649 12002 net.cpp:399] inception_3a/1x1 -> inception_3a/1x1
I0403 15:29:07.906244 12002 net.cpp:141] Setting up inception_3a/1x1
I0403 15:29:07.906275 12002 net.cpp:148] Top shape: 24 64 28 28 (1204224)
I0403 15:29:07.906293 12002 net.cpp:156] Memory required for data: 496141344
I0403 15:29:07.906313 12002 layer_factory.hpp:77] Creating layer inception_3a/relu_1x1
I0403 15:29:07.906335 12002 net.cpp:91] Creating Layer inception_3a/relu_1x1
I0403 15:29:07.906355 12002 net.cpp:425] inception_3a/relu_1x1 <- inception_3a/1x1
I0403 15:29:07.906374 12002 net.cpp:386] inception_3a/relu_1x1 -> inception_3a/1x1 (in-place)
I0403 15:29:07.906559 12002 net.cpp:141] Setting up inception_3a/relu_1x1
I0403 15:29:07.906587 12002 net.cpp:148] Top shape: 24 64 28 28 (1204224)
I0403 15:29:07.906602 12002 net.cpp:156] Memory required for data: 500958240
I0403 15:29:07.906617 12002 layer_factory.hpp:77] Creating layer inception_3a/3x3_reduce
I0403 15:29:07.906642 12002 net.cpp:91] Creating Layer inception_3a/3x3_reduce
I0403 15:29:07.906661 12002 net.cpp:425] inception_3a/3x3_reduce <- pool2/3x3_s2_pool2/3x3_s2_0_split_1
I0403 15:29:07.906682 12002 net.cpp:399] inception_3a/3x3_reduce -> inception_3a/3x3_reduce
I0403 15:29:07.908460 12002 net.cpp:141] Setting up inception_3a/3x3_reduce
I0403 15:29:07.908491 12002 net.cpp:148] Top shape: 24 96 28 28 (1806336)
I0403 15:29:07.908509 12002 net.cpp:156] Memory required for data: 508183584
I0403 15:29:07.908531 12002 layer_factory.hpp:77] Creating layer inception_3a/relu_3x3_reduce
I0403 15:29:07.908571 12002 net.cpp:91] Creating Layer inception_3a/relu_3x3_reduce
I0403 15:29:07.908591 12002 net.cpp:425] inception_3a/relu_3x3_reduce <- inception_3a/3x3_reduce
I0403 15:29:07.908618 12002 net.cpp:386] inception_3a/relu_3x3_reduce -> inception_3a/3x3_reduce (in-place)
I0403 15:29:07.908808 12002 net.cpp:141] Setting up inception_3a/relu_3x3_reduce
I0403 15:29:07.908836 12002 net.cpp:148] Top shape: 24 96 28 28 (1806336)
I0403 15:29:07.908851 12002 net.cpp:156] Memory required for data: 515408928
I0403 15:29:07.908867 12002 layer_factory.hpp:77] Creating layer inception_3a/3x3
I0403 15:29:07.908890 12002 net.cpp:91] Creating Layer inception_3a/3x3
I0403 15:29:07.908908 12002 net.cpp:425] inception_3a/3x3 <- inception_3a/3x3_reduce
I0403 15:29:07.908932 12002 net.cpp:399] inception_3a/3x3 -> inception_3a/3x3
I0403 15:29:07.910636 12002 net.cpp:141] Setting up inception_3a/3x3
I0403 15:29:07.910667 12002 net.cpp:148] Top shape: 24 128 28 28 (2408448)
I0403 15:29:07.910684 12002 net.cpp:156] Memory required for data: 525042720
I0403 15:29:07.910704 12002 layer_factory.hpp:77] Creating layer inception_3a/relu_3x3
I0403 15:29:07.910727 12002 net.cpp:91] Creating Layer inception_3a/relu_3x3
I0403 15:29:07.910755 12002 net.cpp:425] inception_3a/relu_3x3 <- inception_3a/3x3
I0403 15:29:07.910773 12002 net.cpp:386] inception_3a/relu_3x3 -> inception_3a/3x3 (in-place)
I0403 15:29:07.911043 12002 net.cpp:141] Setting up inception_3a/relu_3x3
I0403 15:29:07.911069 12002 net.cpp:148] Top shape: 24 128 28 28 (2408448)
I0403 15:29:07.911084 12002 net.cpp:156] Memory required for data: 534676512
I0403 15:29:07.911099 12002 layer_factory.hpp:77] Creating layer inception_3a/5x5_reduce
I0403 15:29:07.911121 12002 net.cpp:91] Creating Layer inception_3a/5x5_reduce
I0403 15:29:07.911139 12002 net.cpp:425] inception_3a/5x5_reduce <- pool2/3x3_s2_pool2/3x3_s2_0_split_2
I0403 15:29:07.911159 12002 net.cpp:399] inception_3a/5x5_reduce -> inception_3a/5x5_reduce
I0403 15:29:07.912142 12002 net.cpp:141] Setting up inception_3a/5x5_reduce
I0403 15:29:07.912171 12002 net.cpp:148] Top shape: 24 16 28 28 (301056)
I0403 15:29:07.912189 12002 net.cpp:156] Memory required for data: 535880736
I0403 15:29:07.912209 12002 layer_factory.hpp:77] Creating layer inception_3a/relu_5x5_reduce
I0403 15:29:07.912226 12002 net.cpp:91] Creating Layer inception_3a/relu_5x5_reduce
I0403 15:29:07.912241 12002 net.cpp:425] inception_3a/relu_5x5_reduce <- inception_3a/5x5_reduce
I0403 15:29:07.912258 12002 net.cpp:386] inception_3a/relu_5x5_reduce -> inception_3a/5x5_reduce (in-place)
I0403 15:29:07.912581 12002 net.cpp:141] Setting up inception_3a/relu_5x5_reduce
I0403 15:29:07.912609 12002 net.cpp:148] Top shape: 24 16 28 28 (301056)
I0403 15:29:07.912626 12002 net.cpp:156] Memory required for data: 537084960
I0403 15:29:07.912641 12002 layer_factory.hpp:77] Creating layer inception_3a/5x5
I0403 15:29:07.912663 12002 net.cpp:91] Creating Layer inception_3a/5x5
I0403 15:29:07.912693 12002 net.cpp:425] inception_3a/5x5 <- inception_3a/5x5_reduce
I0403 15:29:07.912714 12002 net.cpp:399] inception_3a/5x5 -> inception_3a/5x5
I0403 15:29:07.913714 12002 net.cpp:141] Setting up inception_3a/5x5
I0403 15:29:07.913743 12002 net.cpp:148] Top shape: 24 32 28 28 (602112)
I0403 15:29:07.913759 12002 net.cpp:156] Memory required for data: 539493408
I0403 15:29:07.913777 12002 layer_factory.hpp:77] Creating layer inception_3a/relu_5x5
I0403 15:29:07.913799 12002 net.cpp:91] Creating Layer inception_3a/relu_5x5
I0403 15:29:07.913827 12002 net.cpp:425] inception_3a/relu_5x5 <- inception_3a/5x5
I0403 15:29:07.913846 12002 net.cpp:386] inception_3a/relu_5x5 -> inception_3a/5x5 (in-place)
I0403 15:29:07.914021 12002 net.cpp:141] Setting up inception_3a/relu_5x5
I0403 15:29:07.914047 12002 net.cpp:148] Top shape: 24 32 28 28 (602112)
I0403 15:29:07.914062 12002 net.cpp:156] Memory required for data: 541901856
I0403 15:29:07.914077 12002 layer_factory.hpp:77] Creating layer inception_3a/pool
I0403 15:29:07.914093 12002 net.cpp:91] Creating Layer inception_3a/pool
I0403 15:29:07.914124 12002 net.cpp:425] inception_3a/pool <- pool2/3x3_s2_pool2/3x3_s2_0_split_3
I0403 15:29:07.914144 12002 net.cpp:399] inception_3a/pool -> inception_3a/pool
I0403 15:29:07.914201 12002 net.cpp:141] Setting up inception_3a/pool
I0403 15:29:07.914223 12002 net.cpp:148] Top shape: 24 192 28 28 (3612672)
I0403 15:29:07.914237 12002 net.cpp:156] Memory required for data: 556352544
I0403 15:29:07.914252 12002 layer_factory.hpp:77] Creating layer inception_3a/pool_proj
I0403 15:29:07.914278 12002 net.cpp:91] Creating Layer inception_3a/pool_proj
I0403 15:29:07.914294 12002 net.cpp:425] inception_3a/pool_proj <- inception_3a/pool
I0403 15:29:07.914316 12002 net.cpp:399] inception_3a/pool_proj -> inception_3a/pool_proj
I0403 15:29:07.915266 12002 net.cpp:141] Setting up inception_3a/pool_proj
I0403 15:29:07.915295 12002 net.cpp:148] Top shape: 24 32 28 28 (602112)
I0403 15:29:07.915313 12002 net.cpp:156] Memory required for data: 558760992
I0403 15:29:07.915336 12002 layer_factory.hpp:77] Creating layer inception_3a/relu_pool_proj
I0403 15:29:07.915359 12002 net.cpp:91] Creating Layer inception_3a/relu_pool_proj
I0403 15:29:07.915377 12002 net.cpp:425] inception_3a/relu_pool_proj <- inception_3a/pool_proj
I0403 15:29:07.915412 12002 net.cpp:386] inception_3a/relu_pool_proj -> inception_3a/pool_proj (in-place)
I0403 15:29:07.915701 12002 net.cpp:141] Setting up inception_3a/relu_pool_proj
I0403 15:29:07.915727 12002 net.cpp:148] Top shape: 24 32 28 28 (602112)
I0403 15:29:07.915743 12002 net.cpp:156] Memory required for data: 561169440
I0403 15:29:07.915758 12002 layer_factory.hpp:77] Creating layer inception_3a/output
I0403 15:29:07.915778 12002 net.cpp:91] Creating Layer inception_3a/output
I0403 15:29:07.915796 12002 net.cpp:425] inception_3a/output <- inception_3a/1x1
I0403 15:29:07.915812 12002 net.cpp:425] inception_3a/output <- inception_3a/3x3
I0403 15:29:07.915828 12002 net.cpp:425] inception_3a/output <- inception_3a/5x5
I0403 15:29:07.915843 12002 net.cpp:425] inception_3a/output <- inception_3a/pool_proj
I0403 15:29:07.915860 12002 net.cpp:399] inception_3a/output -> inception_3a/output
I0403 15:29:07.915910 12002 net.cpp:141] Setting up inception_3a/output
I0403 15:29:07.915932 12002 net.cpp:148] Top shape: 24 256 28 28 (4816896)
I0403 15:29:07.915946 12002 net.cpp:156] Memory required for data: 580437024
I0403 15:29:07.915962 12002 layer_factory.hpp:77] Creating layer inception_3a/output_inception_3a/output_0_split
I0403 15:29:07.915979 12002 net.cpp:91] Creating Layer inception_3a/output_inception_3a/output_0_split
I0403 15:29:07.915994 12002 net.cpp:425] inception_3a/output_inception_3a/output_0_split <- inception_3a/output
I0403 15:29:07.916014 12002 net.cpp:399] inception_3a/output_inception_3a/output_0_split -> inception_3a/output_inception_3a/output_0_split_0
I0403 15:29:07.916034 12002 net.cpp:399] inception_3a/output_inception_3a/output_0_split -> inception_3a/output_inception_3a/output_0_split_1
I0403 15:29:07.916056 12002 net.cpp:399] inception_3a/output_inception_3a/output_0_split -> inception_3a/output_inception_3a/output_0_split_2
I0403 15:29:07.916079 12002 net.cpp:399] inception_3a/output_inception_3a/output_0_split -> inception_3a/output_inception_3a/output_0_split_3
I0403 15:29:07.916154 12002 net.cpp:141] Setting up inception_3a/output_inception_3a/output_0_split
I0403 15:29:07.916177 12002 net.cpp:148] Top shape: 24 256 28 28 (4816896)
I0403 15:29:07.916193 12002 net.cpp:148] Top shape: 24 256 28 28 (4816896)
I0403 15:29:07.916208 12002 net.cpp:148] Top shape: 24 256 28 28 (4816896)
I0403 15:29:07.916224 12002 net.cpp:148] Top shape: 24 256 28 28 (4816896)
I0403 15:29:07.916239 12002 net.cpp:156] Memory required for data: 657507360
I0403 15:29:07.916252 12002 layer_factory.hpp:77] Creating layer inception_3b/1x1
I0403 15:29:07.916275 12002 net.cpp:91] Creating Layer inception_3b/1x1
I0403 15:29:07.916291 12002 net.cpp:425] inception_3b/1x1 <- inception_3a/output_inception_3a/output_0_split_0
I0403 15:29:07.916326 12002 net.cpp:399] inception_3b/1x1 -> inception_3b/1x1
I0403 15:29:07.917544 12002 net.cpp:141] Setting up inception_3b/1x1
I0403 15:29:07.917584 12002 net.cpp:148] Top shape: 24 128 28 28 (2408448)
I0403 15:29:07.917601 12002 net.cpp:156] Memory required for data: 667141152
I0403 15:29:07.917619 12002 layer_factory.hpp:77] Creating layer inception_3b/relu_1x1
I0403 15:29:07.917636 12002 net.cpp:91] Creating Layer inception_3b/relu_1x1
I0403 15:29:07.917652 12002 net.cpp:425] inception_3b/relu_1x1 <- inception_3b/1x1
I0403 15:29:07.917671 12002 net.cpp:386] inception_3b/relu_1x1 -> inception_3b/1x1 (in-place)
I0403 15:29:07.917845 12002 net.cpp:141] Setting up inception_3b/relu_1x1
I0403 15:29:07.917870 12002 net.cpp:148] Top shape: 24 128 28 28 (2408448)
I0403 15:29:07.917883 12002 net.cpp:156] Memory required for data: 676774944
I0403 15:29:07.917898 12002 layer_factory.hpp:77] Creating layer inception_3b/3x3_reduce
I0403 15:29:07.917923 12002 net.cpp:91] Creating Layer inception_3b/3x3_reduce
I0403 15:29:07.917940 12002 net.cpp:425] inception_3b/3x3_reduce <- inception_3a/output_inception_3a/output_0_split_1
I0403 15:29:07.917961 12002 net.cpp:399] inception_3b/3x3_reduce -> inception_3b/3x3_reduce
I0403 15:29:07.919085 12002 net.cpp:141] Setting up inception_3b/3x3_reduce
I0403 15:29:07.919114 12002 net.cpp:148] Top shape: 24 128 28 28 (2408448)
I0403 15:29:07.919131 12002 net.cpp:156] Memory required for data: 686408736
I0403 15:29:07.919149 12002 layer_factory.hpp:77] Creating layer inception_3b/relu_3x3_reduce
I0403 15:29:07.919170 12002 net.cpp:91] Creating Layer inception_3b/relu_3x3_reduce
I0403 15:29:07.919188 12002 net.cpp:425] inception_3b/relu_3x3_reduce <- inception_3b/3x3_reduce
I0403 15:29:07.919204 12002 net.cpp:386] inception_3b/relu_3x3_reduce -> inception_3b/3x3_reduce (in-place)
I0403 15:29:07.919373 12002 net.cpp:141] Setting up inception_3b/relu_3x3_reduce
I0403 15:29:07.919415 12002 net.cpp:148] Top shape: 24 128 28 28 (2408448)
I0403 15:29:07.919430 12002 net.cpp:156] Memory required for data: 696042528
I0403 15:29:07.919445 12002 layer_factory.hpp:77] Creating layer inception_3b/3x3
I0403 15:29:07.919472 12002 net.cpp:91] Creating Layer inception_3b/3x3
I0403 15:29:07.919492 12002 net.cpp:425] inception_3b/3x3 <- inception_3b/3x3_reduce
I0403 15:29:07.919510 12002 net.cpp:399] inception_3b/3x3 -> inception_3b/3x3
I0403 15:29:07.922425 12002 net.cpp:141] Setting up inception_3b/3x3
I0403 15:29:07.922454 12002 net.cpp:148] Top shape: 24 192 28 28 (3612672)
I0403 15:29:07.922472 12002 net.cpp:156] Memory required for data: 710493216
I0403 15:29:07.922490 12002 layer_factory.hpp:77] Creating layer inception_3b/relu_3x3
I0403 15:29:07.922510 12002 net.cpp:91] Creating Layer inception_3b/relu_3x3
I0403 15:29:07.922528 12002 net.cpp:425] inception_3b/relu_3x3 <- inception_3b/3x3
I0403 15:29:07.922545 12002 net.cpp:386] inception_3b/relu_3x3 -> inception_3b/3x3 (in-place)
I0403 15:29:07.922826 12002 net.cpp:141] Setting up inception_3b/relu_3x3
I0403 15:29:07.922852 12002 net.cpp:148] Top shape: 24 192 28 28 (3612672)
I0403 15:29:07.922868 12002 net.cpp:156] Memory required for data: 724943904
I0403 15:29:07.922883 12002 layer_factory.hpp:77] Creating layer inception_3b/5x5_reduce
I0403 15:29:07.922904 12002 net.cpp:91] Creating Layer inception_3b/5x5_reduce
I0403 15:29:07.922921 12002 net.cpp:425] inception_3b/5x5_reduce <- inception_3a/output_inception_3a/output_0_split_2
I0403 15:29:07.922943 12002 net.cpp:399] inception_3b/5x5_reduce -> inception_3b/5x5_reduce
I0403 15:29:07.923988 12002 net.cpp:141] Setting up inception_3b/5x5_reduce
I0403 15:29:07.924018 12002 net.cpp:148] Top shape: 24 32 28 28 (602112)
I0403 15:29:07.924036 12002 net.cpp:156] Memory required for data: 727352352
I0403 15:29:07.924055 12002 layer_factory.hpp:77] Creating layer inception_3b/relu_5x5_reduce
I0403 15:29:07.924077 12002 net.cpp:91] Creating Layer inception_3b/relu_5x5_reduce
I0403 15:29:07.924094 12002 net.cpp:425] inception_3b/relu_5x5_reduce <- inception_3b/5x5_reduce
I0403 15:29:07.924113 12002 net.cpp:386] inception_3b/relu_5x5_reduce -> inception_3b/5x5_reduce (in-place)
I0403 15:29:07.924306 12002 net.cpp:141] Setting up inception_3b/relu_5x5_reduce
I0403 15:29:07.924335 12002 net.cpp:148] Top shape: 24 32 28 28 (602112)
I0403 15:29:07.924355 12002 net.cpp:156] Memory required for data: 729760800
I0403 15:29:07.924371 12002 layer_factory.hpp:77] Creating layer inception_3b/5x5
I0403 15:29:07.924401 12002 net.cpp:91] Creating Layer inception_3b/5x5
I0403 15:29:07.924420 12002 net.cpp:425] inception_3b/5x5 <- inception_3b/5x5_reduce
I0403 15:29:07.924440 12002 net.cpp:399] inception_3b/5x5 -> inception_3b/5x5
I0403 15:29:07.926415 12002 net.cpp:141] Setting up inception_3b/5x5
I0403 15:29:07.926445 12002 net.cpp:148] Top shape: 24 96 28 28 (1806336)
I0403 15:29:07.926461 12002 net.cpp:156] Memory required for data: 736986144
I0403 15:29:07.926479 12002 layer_factory.hpp:77] Creating layer inception_3b/relu_5x5
I0403 15:29:07.926501 12002 net.cpp:91] Creating Layer inception_3b/relu_5x5
I0403 15:29:07.926517 12002 net.cpp:425] inception_3b/relu_5x5 <- inception_3b/5x5
I0403 15:29:07.926535 12002 net.cpp:386] inception_3b/relu_5x5 -> inception_3b/5x5 (in-place)
I0403 15:29:07.926723 12002 net.cpp:141] Setting up inception_3b/relu_5x5
I0403 15:29:07.926748 12002 net.cpp:148] Top shape: 24 96 28 28 (1806336)
I0403 15:29:07.926762 12002 net.cpp:156] Memory required for data: 744211488
I0403 15:29:07.926776 12002 layer_factory.hpp:77] Creating layer inception_3b/pool
I0403 15:29:07.926795 12002 net.cpp:91] Creating Layer inception_3b/pool
I0403 15:29:07.926810 12002 net.cpp:425] inception_3b/pool <- inception_3a/output_inception_3a/output_0_split_3
I0403 15:29:07.926828 12002 net.cpp:399] inception_3b/pool -> inception_3b/pool
I0403 15:29:07.926885 12002 net.cpp:141] Setting up inception_3b/pool
I0403 15:29:07.926908 12002 net.cpp:148] Top shape: 24 256 28 28 (4816896)
I0403 15:29:07.926923 12002 net.cpp:156] Memory required for data: 763479072
I0403 15:29:07.926936 12002 layer_factory.hpp:77] Creating layer inception_3b/pool_proj
I0403 15:29:07.926959 12002 net.cpp:91] Creating Layer inception_3b/pool_proj
I0403 15:29:07.926975 12002 net.cpp:425] inception_3b/pool_proj <- inception_3b/pool
I0403 15:29:07.926996 12002 net.cpp:399] inception_3b/pool_proj -> inception_3b/pool_proj
I0403 15:29:07.928066 12002 net.cpp:141] Setting up inception_3b/pool_proj
I0403 15:29:07.928097 12002 net.cpp:148] Top shape: 24 64 28 28 (1204224)
I0403 15:29:07.928115 12002 net.cpp:156] Memory required for data: 768295968
I0403 15:29:07.928133 12002 layer_factory.hpp:77] Creating layer inception_3b/relu_pool_proj
I0403 15:29:07.928153 12002 net.cpp:91] Creating Layer inception_3b/relu_pool_proj
I0403 15:29:07.928169 12002 net.cpp:425] inception_3b/relu_pool_proj <- inception_3b/pool_proj
I0403 15:29:07.928187 12002 net.cpp:386] inception_3b/relu_pool_proj -> inception_3b/pool_proj (in-place)
I0403 15:29:07.928613 12002 net.cpp:141] Setting up inception_3b/relu_pool_proj
I0403 15:29:07.928643 12002 net.cpp:148] Top shape: 24 64 28 28 (1204224)
I0403 15:29:07.928660 12002 net.cpp:156] Memory required for data: 773112864
I0403 15:29:07.928689 12002 layer_factory.hpp:77] Creating layer inception_3b/output
I0403 15:29:07.928705 12002 net.cpp:91] Creating Layer inception_3b/output
I0403 15:29:07.928720 12002 net.cpp:425] inception_3b/output <- inception_3b/1x1
I0403 15:29:07.928736 12002 net.cpp:425] inception_3b/output <- inception_3b/3x3
I0403 15:29:07.928752 12002 net.cpp:425] inception_3b/output <- inception_3b/5x5
I0403 15:29:07.928767 12002 net.cpp:425] inception_3b/output <- inception_3b/pool_proj
I0403 15:29:07.928784 12002 net.cpp:399] inception_3b/output -> inception_3b/output
I0403 15:29:07.928829 12002 net.cpp:141] Setting up inception_3b/output
I0403 15:29:07.928853 12002 net.cpp:148] Top shape: 24 480 28 28 (9031680)
I0403 15:29:07.928867 12002 net.cpp:156] Memory required for data: 809239584
I0403 15:29:07.928881 12002 layer_factory.hpp:77] Creating layer pool3/3x3_s2
I0403 15:29:07.928900 12002 net.cpp:91] Creating Layer pool3/3x3_s2
I0403 15:29:07.928917 12002 net.cpp:425] pool3/3x3_s2 <- inception_3b/output
I0403 15:29:07.928949 12002 net.cpp:399] pool3/3x3_s2 -> pool3/3x3_s2
I0403 15:29:07.929009 12002 net.cpp:141] Setting up pool3/3x3_s2
I0403 15:29:07.929033 12002 net.cpp:148] Top shape: 24 480 14 14 (2257920)
I0403 15:29:07.929047 12002 net.cpp:156] Memory required for data: 818271264
I0403 15:29:07.929061 12002 layer_factory.hpp:77] Creating layer pool3/3x3_s2_pool3/3x3_s2_0_split
I0403 15:29:07.929077 12002 net.cpp:91] Creating Layer pool3/3x3_s2_pool3/3x3_s2_0_split
I0403 15:29:07.929092 12002 net.cpp:425] pool3/3x3_s2_pool3/3x3_s2_0_split <- pool3/3x3_s2
I0403 15:29:07.929112 12002 net.cpp:399] pool3/3x3_s2_pool3/3x3_s2_0_split -> pool3/3x3_s2_pool3/3x3_s2_0_split_0
I0403 15:29:07.929131 12002 net.cpp:399] pool3/3x3_s2_pool3/3x3_s2_0_split -> pool3/3x3_s2_pool3/3x3_s2_0_split_1
I0403 15:29:07.929150 12002 net.cpp:399] pool3/3x3_s2_pool3/3x3_s2_0_split -> pool3/3x3_s2_pool3/3x3_s2_0_split_2
I0403 15:29:07.929169 12002 net.cpp:399] pool3/3x3_s2_pool3/3x3_s2_0_split -> pool3/3x3_s2_pool3/3x3_s2_0_split_3
I0403 15:29:07.929244 12002 net.cpp:141] Setting up pool3/3x3_s2_pool3/3x3_s2_0_split
I0403 15:29:07.929270 12002 net.cpp:148] Top shape: 24 480 14 14 (2257920)
I0403 15:29:07.929286 12002 net.cpp:148] Top shape: 24 480 14 14 (2257920)
I0403 15:29:07.929301 12002 net.cpp:148] Top shape: 24 480 14 14 (2257920)
I0403 15:29:07.929317 12002 net.cpp:148] Top shape: 24 480 14 14 (2257920)
I0403 15:29:07.929329 12002 net.cpp:156] Memory required for data: 854397984
I0403 15:29:07.929343 12002 layer_factory.hpp:77] Creating layer inception_4a/1x1
I0403 15:29:07.929366 12002 net.cpp:91] Creating Layer inception_4a/1x1
I0403 15:29:07.929388 12002 net.cpp:425] inception_4a/1x1 <- pool3/3x3_s2_pool3/3x3_s2_0_split_0
I0403 15:29:07.929407 12002 net.cpp:399] inception_4a/1x1 -> inception_4a/1x1
I0403 15:29:07.930980 12002 net.cpp:141] Setting up inception_4a/1x1
I0403 15:29:07.931012 12002 net.cpp:148] Top shape: 24 192 14 14 (903168)
I0403 15:29:07.931030 12002 net.cpp:156] Memory required for data: 858010656
I0403 15:29:07.931048 12002 layer_factory.hpp:77] Creating layer inception_4a/relu_1x1
I0403 15:29:07.931066 12002 net.cpp:91] Creating Layer inception_4a/relu_1x1
I0403 15:29:07.931083 12002 net.cpp:425] inception_4a/relu_1x1 <- inception_4a/1x1
I0403 15:29:07.931104 12002 net.cpp:386] inception_4a/relu_1x1 -> inception_4a/1x1 (in-place)
I0403 15:29:07.931277 12002 net.cpp:141] Setting up inception_4a/relu_1x1
I0403 15:29:07.931301 12002 net.cpp:148] Top shape: 24 192 14 14 (903168)
I0403 15:29:07.931316 12002 net.cpp:156] Memory required for data: 861623328
I0403 15:29:07.931331 12002 layer_factory.hpp:77] Creating layer inception_4a/3x3_reduce
I0403 15:29:07.931354 12002 net.cpp:91] Creating Layer inception_4a/3x3_reduce
I0403 15:29:07.931370 12002 net.cpp:425] inception_4a/3x3_reduce <- pool3/3x3_s2_pool3/3x3_s2_0_split_1
I0403 15:29:07.931409 12002 net.cpp:399] inception_4a/3x3_reduce -> inception_4a/3x3_reduce
I0403 15:29:07.932694 12002 net.cpp:141] Setting up inception_4a/3x3_reduce
I0403 15:29:07.932723 12002 net.cpp:148] Top shape: 24 96 14 14 (451584)
I0403 15:29:07.932739 12002 net.cpp:156] Memory required for data: 863429664
I0403 15:29:07.932761 12002 layer_factory.hpp:77] Creating layer inception_4a/relu_3x3_reduce
I0403 15:29:07.932782 12002 net.cpp:91] Creating Layer inception_4a/relu_3x3_reduce
I0403 15:29:07.932801 12002 net.cpp:425] inception_4a/relu_3x3_reduce <- inception_4a/3x3_reduce
I0403 15:29:07.932818 12002 net.cpp:386] inception_4a/relu_3x3_reduce -> inception_4a/3x3_reduce (in-place)
I0403 15:29:07.932999 12002 net.cpp:141] Setting up inception_4a/relu_3x3_reduce
I0403 15:29:07.933025 12002 net.cpp:148] Top shape: 24 96 14 14 (451584)
I0403 15:29:07.933040 12002 net.cpp:156] Memory required for data: 865236000
I0403 15:29:07.933056 12002 layer_factory.hpp:77] Creating layer inception_4a/3x3
I0403 15:29:07.933079 12002 net.cpp:91] Creating Layer inception_4a/3x3
I0403 15:29:07.933096 12002 net.cpp:425] inception_4a/3x3 <- inception_4a/3x3_reduce
I0403 15:29:07.933118 12002 net.cpp:399] inception_4a/3x3 -> inception_4a/3x3
I0403 15:29:07.935900 12002 net.cpp:141] Setting up inception_4a/3x3
I0403 15:29:07.935930 12002 net.cpp:148] Top shape: 24 208 14 14 (978432)
I0403 15:29:07.935947 12002 net.cpp:156] Memory required for data: 869149728
I0403 15:29:07.935967 12002 layer_factory.hpp:77] Creating layer inception_4a/relu_3x3
I0403 15:29:07.935987 12002 net.cpp:91] Creating Layer inception_4a/relu_3x3
I0403 15:29:07.936004 12002 net.cpp:425] inception_4a/relu_3x3 <- inception_4a/3x3
I0403 15:29:07.936022 12002 net.cpp:386] inception_4a/relu_3x3 -> inception_4a/3x3 (in-place)
I0403 15:29:07.936300 12002 net.cpp:141] Setting up inception_4a/relu_3x3
I0403 15:29:07.936326 12002 net.cpp:148] Top shape: 24 208 14 14 (978432)
I0403 15:29:07.936342 12002 net.cpp:156] Memory required for data: 873063456
I0403 15:29:07.936359 12002 layer_factory.hpp:77] Creating layer inception_4a/5x5_reduce
I0403 15:29:07.936384 12002 net.cpp:91] Creating Layer inception_4a/5x5_reduce
I0403 15:29:07.936403 12002 net.cpp:425] inception_4a/5x5_reduce <- pool3/3x3_s2_pool3/3x3_s2_0_split_2
I0403 15:29:07.936426 12002 net.cpp:399] inception_4a/5x5_reduce -> inception_4a/5x5_reduce
I0403 15:29:07.937435 12002 net.cpp:141] Setting up inception_4a/5x5_reduce
I0403 15:29:07.937464 12002 net.cpp:148] Top shape: 24 16 14 14 (75264)
I0403 15:29:07.937480 12002 net.cpp:156] Memory required for data: 873364512
I0403 15:29:07.937499 12002 layer_factory.hpp:77] Creating layer inception_4a/relu_5x5_reduce
I0403 15:29:07.937518 12002 net.cpp:91] Creating Layer inception_4a/relu_5x5_reduce
I0403 15:29:07.937536 12002 net.cpp:425] inception_4a/relu_5x5_reduce <- inception_4a/5x5_reduce
I0403 15:29:07.937552 12002 net.cpp:386] inception_4a/relu_5x5_reduce -> inception_4a/5x5_reduce (in-place)
I0403 15:29:07.937729 12002 net.cpp:141] Setting up inception_4a/relu_5x5_reduce
I0403 15:29:07.937757 12002 net.cpp:148] Top shape: 24 16 14 14 (75264)
I0403 15:29:07.937772 12002 net.cpp:156] Memory required for data: 873665568
I0403 15:29:07.937786 12002 layer_factory.hpp:77] Creating layer inception_4a/5x5
I0403 15:29:07.937808 12002 net.cpp:91] Creating Layer inception_4a/5x5
I0403 15:29:07.937825 12002 net.cpp:425] inception_4a/5x5 <- inception_4a/5x5_reduce
I0403 15:29:07.937844 12002 net.cpp:399] inception_4a/5x5 -> inception_4a/5x5
I0403 15:29:07.938910 12002 net.cpp:141] Setting up inception_4a/5x5
I0403 15:29:07.938941 12002 net.cpp:148] Top shape: 24 48 14 14 (225792)
I0403 15:29:07.938958 12002 net.cpp:156] Memory required for data: 874568736
I0403 15:29:07.938977 12002 layer_factory.hpp:77] Creating layer inception_4a/relu_5x5
I0403 15:29:07.938995 12002 net.cpp:91] Creating Layer inception_4a/relu_5x5
I0403 15:29:07.939012 12002 net.cpp:425] inception_4a/relu_5x5 <- inception_4a/5x5
I0403 15:29:07.939028 12002 net.cpp:386] inception_4a/relu_5x5 -> inception_4a/5x5 (in-place)
I0403 15:29:07.939208 12002 net.cpp:141] Setting up inception_4a/relu_5x5
I0403 15:29:07.939231 12002 net.cpp:148] Top shape: 24 48 14 14 (225792)
I0403 15:29:07.939246 12002 net.cpp:156] Memory required for data: 875471904
I0403 15:29:07.939260 12002 layer_factory.hpp:77] Creating layer inception_4a/pool
I0403 15:29:07.939278 12002 net.cpp:91] Creating Layer inception_4a/pool
I0403 15:29:07.939293 12002 net.cpp:425] inception_4a/pool <- pool3/3x3_s2_pool3/3x3_s2_0_split_3
I0403 15:29:07.939314 12002 net.cpp:399] inception_4a/pool -> inception_4a/pool
I0403 15:29:07.939374 12002 net.cpp:141] Setting up inception_4a/pool
I0403 15:29:07.939417 12002 net.cpp:148] Top shape: 24 480 14 14 (2257920)
I0403 15:29:07.939434 12002 net.cpp:156] Memory required for data: 884503584
I0403 15:29:07.939447 12002 layer_factory.hpp:77] Creating layer inception_4a/pool_proj
I0403 15:29:07.939471 12002 net.cpp:91] Creating Layer inception_4a/pool_proj
I0403 15:29:07.939488 12002 net.cpp:425] inception_4a/pool_proj <- inception_4a/pool
I0403 15:29:07.939507 12002 net.cpp:399] inception_4a/pool_proj -> inception_4a/pool_proj
I0403 15:29:07.940670 12002 net.cpp:141] Setting up inception_4a/pool_proj
I0403 15:29:07.940699 12002 net.cpp:148] Top shape: 24 64 14 14 (301056)
I0403 15:29:07.940732 12002 net.cpp:156] Memory required for data: 885707808
I0403 15:29:07.940752 12002 layer_factory.hpp:77] Creating layer inception_4a/relu_pool_proj
I0403 15:29:07.940770 12002 net.cpp:91] Creating Layer inception_4a/relu_pool_proj
I0403 15:29:07.940788 12002 net.cpp:425] inception_4a/relu_pool_proj <- inception_4a/pool_proj
I0403 15:29:07.940807 12002 net.cpp:386] inception_4a/relu_pool_proj -> inception_4a/pool_proj (in-place)
I0403 15:29:07.941085 12002 net.cpp:141] Setting up inception_4a/relu_pool_proj
I0403 15:29:07.941113 12002 net.cpp:148] Top shape: 24 64 14 14 (301056)
I0403 15:29:07.941128 12002 net.cpp:156] Memory required for data: 886912032
I0403 15:29:07.941144 12002 layer_factory.hpp:77] Creating layer inception_4a/output
I0403 15:29:07.941161 12002 net.cpp:91] Creating Layer inception_4a/output
I0403 15:29:07.941177 12002 net.cpp:425] inception_4a/output <- inception_4a/1x1
I0403 15:29:07.941193 12002 net.cpp:425] inception_4a/output <- inception_4a/3x3
I0403 15:29:07.941210 12002 net.cpp:425] inception_4a/output <- inception_4a/5x5
I0403 15:29:07.941226 12002 net.cpp:425] inception_4a/output <- inception_4a/pool_proj
I0403 15:29:07.941246 12002 net.cpp:399] inception_4a/output -> inception_4a/output
I0403 15:29:07.941290 12002 net.cpp:141] Setting up inception_4a/output
I0403 15:29:07.941314 12002 net.cpp:148] Top shape: 24 512 14 14 (2408448)
I0403 15:29:07.941332 12002 net.cpp:156] Memory required for data: 896545824
I0403 15:29:07.941347 12002 layer_factory.hpp:77] Creating layer inception_4a/output_inception_4a/output_0_split
I0403 15:29:07.941365 12002 net.cpp:91] Creating Layer inception_4a/output_inception_4a/output_0_split
I0403 15:29:07.941383 12002 net.cpp:425] inception_4a/output_inception_4a/output_0_split <- inception_4a/output
I0403 15:29:07.941403 12002 net.cpp:399] inception_4a/output_inception_4a/output_0_split -> inception_4a/output_inception_4a/output_0_split_0
I0403 15:29:07.941423 12002 net.cpp:399] inception_4a/output_inception_4a/output_0_split -> inception_4a/output_inception_4a/output_0_split_1
I0403 15:29:07.941445 12002 net.cpp:399] inception_4a/output_inception_4a/output_0_split -> inception_4a/output_inception_4a/output_0_split_2
I0403 15:29:07.941467 12002 net.cpp:399] inception_4a/output_inception_4a/output_0_split -> inception_4a/output_inception_4a/output_0_split_3
I0403 15:29:07.941486 12002 net.cpp:399] inception_4a/output_inception_4a/output_0_split -> inception_4a/output_inception_4a/output_0_split_4
I0403 15:29:07.941576 12002 net.cpp:141] Setting up inception_4a/output_inception_4a/output_0_split
I0403 15:29:07.941612 12002 net.cpp:148] Top shape: 24 512 14 14 (2408448)
I0403 15:29:07.941627 12002 net.cpp:148] Top shape: 24 512 14 14 (2408448)
I0403 15:29:07.941643 12002 net.cpp:148] Top shape: 24 512 14 14 (2408448)
I0403 15:29:07.941658 12002 net.cpp:148] Top shape: 24 512 14 14 (2408448)
I0403 15:29:07.941674 12002 net.cpp:148] Top shape: 24 512 14 14 (2408448)
I0403 15:29:07.941687 12002 net.cpp:156] Memory required for data: 944714784
I0403 15:29:07.941702 12002 layer_factory.hpp:77] Creating layer loss1/ave_pool
I0403 15:29:07.941722 12002 net.cpp:91] Creating Layer loss1/ave_pool
I0403 15:29:07.941740 12002 net.cpp:425] loss1/ave_pool <- inception_4a/output_inception_4a/output_0_split_0
I0403 15:29:07.941756 12002 net.cpp:399] loss1/ave_pool -> loss1/ave_pool
I0403 15:29:07.941963 12002 net.cpp:141] Setting up loss1/ave_pool
I0403 15:29:07.941989 12002 net.cpp:148] Top shape: 24 512 4 4 (196608)
I0403 15:29:07.942004 12002 net.cpp:156] Memory required for data: 945501216
I0403 15:29:07.942019 12002 layer_factory.hpp:77] Creating layer loss1/conv
I0403 15:29:07.942041 12002 net.cpp:91] Creating Layer loss1/conv
I0403 15:29:07.942059 12002 net.cpp:425] loss1/conv <- loss1/ave_pool
I0403 15:29:07.942080 12002 net.cpp:399] loss1/conv -> loss1/conv
I0403 15:29:07.943567 12002 net.cpp:141] Setting up loss1/conv
I0403 15:29:07.943596 12002 net.cpp:148] Top shape: 24 128 4 4 (49152)
I0403 15:29:07.943630 12002 net.cpp:156] Memory required for data: 945697824
I0403 15:29:07.943651 12002 layer_factory.hpp:77] Creating layer loss1/relu_conv
I0403 15:29:07.943672 12002 net.cpp:91] Creating Layer loss1/relu_conv
I0403 15:29:07.943701 12002 net.cpp:425] loss1/relu_conv <- loss1/conv
I0403 15:29:07.943720 12002 net.cpp:386] loss1/relu_conv -> loss1/conv (in-place)
I0403 15:29:07.944012 12002 net.cpp:141] Setting up loss1/relu_conv
I0403 15:29:07.944039 12002 net.cpp:148] Top shape: 24 128 4 4 (49152)
I0403 15:29:07.944054 12002 net.cpp:156] Memory required for data: 945894432
I0403 15:29:07.944069 12002 layer_factory.hpp:77] Creating layer loss1/fc
I0403 15:29:07.944095 12002 net.cpp:91] Creating Layer loss1/fc
I0403 15:29:07.944113 12002 net.cpp:425] loss1/fc <- loss1/conv
I0403 15:29:07.944133 12002 net.cpp:399] loss1/fc -> loss1/fc
I0403 15:29:07.962646 12002 net.cpp:141] Setting up loss1/fc
I0403 15:29:07.962679 12002 net.cpp:148] Top shape: 24 1024 (24576)
I0403 15:29:07.962697 12002 net.cpp:156] Memory required for data: 945992736
I0403 15:29:07.962718 12002 layer_factory.hpp:77] Creating layer loss1/relu_fc
I0403 15:29:07.962736 12002 net.cpp:91] Creating Layer loss1/relu_fc
I0403 15:29:07.962752 12002 net.cpp:425] loss1/relu_fc <- loss1/fc
I0403 15:29:07.962774 12002 net.cpp:386] loss1/relu_fc -> loss1/fc (in-place)
I0403 15:29:07.962965 12002 net.cpp:141] Setting up loss1/relu_fc
I0403 15:29:07.962991 12002 net.cpp:148] Top shape: 24 1024 (24576)
I0403 15:29:07.963007 12002 net.cpp:156] Memory required for data: 946091040
I0403 15:29:07.963022 12002 layer_factory.hpp:77] Creating layer loss1/drop_fc
I0403 15:29:07.963052 12002 net.cpp:91] Creating Layer loss1/drop_fc
I0403 15:29:07.963070 12002 net.cpp:425] loss1/drop_fc <- loss1/fc
I0403 15:29:07.963089 12002 net.cpp:386] loss1/drop_fc -> loss1/fc (in-place)
I0403 15:29:07.963140 12002 net.cpp:141] Setting up loss1/drop_fc
I0403 15:29:07.963165 12002 net.cpp:148] Top shape: 24 1024 (24576)
I0403 15:29:07.963181 12002 net.cpp:156] Memory required for data: 946189344
I0403 15:29:07.963196 12002 layer_factory.hpp:77] Creating layer loss1/classifier_plantvillage
I0403 15:29:07.963217 12002 net.cpp:91] Creating Layer loss1/classifier_plantvillage
I0403 15:29:07.963235 12002 net.cpp:425] loss1/classifier_plantvillage <- loss1/fc
I0403 15:29:07.963256 12002 net.cpp:399] loss1/classifier_plantvillage -> loss1/classifier_plantvillage
I0403 15:29:07.964251 12002 net.cpp:141] Setting up loss1/classifier_plantvillage
I0403 15:29:07.964282 12002 net.cpp:148] Top shape: 24 38 (912)
I0403 15:29:07.964296 12002 net.cpp:156] Memory required for data: 946192992
I0403 15:29:07.964314 12002 layer_factory.hpp:77] Creating layer loss1/classifier_plantvillage_loss1/classifier_plantvillage_0_split
I0403 15:29:07.964332 12002 net.cpp:91] Creating Layer loss1/classifier_plantvillage_loss1/classifier_plantvillage_0_split
I0403 15:29:07.964349 12002 net.cpp:425] loss1/classifier_plantvillage_loss1/classifier_plantvillage_0_split <- loss1/classifier_plantvillage
I0403 15:29:07.964370 12002 net.cpp:399] loss1/classifier_plantvillage_loss1/classifier_plantvillage_0_split -> loss1/classifier_plantvillage_loss1/classifier_plantvillage_0_split_0
I0403 15:29:07.964396 12002 net.cpp:399] loss1/classifier_plantvillage_loss1/classifier_plantvillage_0_split -> loss1/classifier_plantvillage_loss1/classifier_plantvillage_0_split_1
I0403 15:29:07.964417 12002 net.cpp:399] loss1/classifier_plantvillage_loss1/classifier_plantvillage_0_split -> loss1/classifier_plantvillage_loss1/classifier_plantvillage_0_split_2
I0403 15:29:07.964484 12002 net.cpp:141] Setting up loss1/classifier_plantvillage_loss1/classifier_plantvillage_0_split
I0403 15:29:07.964510 12002 net.cpp:148] Top shape: 24 38 (912)
I0403 15:29:07.964527 12002 net.cpp:148] Top shape: 24 38 (912)
I0403 15:29:07.964543 12002 net.cpp:148] Top shape: 24 38 (912)
I0403 15:29:07.964557 12002 net.cpp:156] Memory required for data: 946203936
I0403 15:29:07.964572 12002 layer_factory.hpp:77] Creating layer inception_4b/1x1
I0403 15:29:07.964593 12002 net.cpp:91] Creating Layer inception_4b/1x1
I0403 15:29:07.964640 12002 net.cpp:425] inception_4b/1x1 <- inception_4a/output_inception_4a/output_0_split_1
I0403 15:29:07.964663 12002 net.cpp:399] inception_4b/1x1 -> inception_4b/1x1
I0403 15:29:07.966428 12002 net.cpp:141] Setting up inception_4b/1x1
I0403 15:29:07.966459 12002 net.cpp:148] Top shape: 24 160 14 14 (752640)
I0403 15:29:07.966475 12002 net.cpp:156] Memory required for data: 949214496
I0403 15:29:07.966493 12002 layer_factory.hpp:77] Creating layer inception_4b/relu_1x1
I0403 15:29:07.966514 12002 net.cpp:91] Creating Layer inception_4b/relu_1x1
I0403 15:29:07.966531 12002 net.cpp:425] inception_4b/relu_1x1 <- inception_4b/1x1
I0403 15:29:07.966548 12002 net.cpp:386] inception_4b/relu_1x1 -> inception_4b/1x1 (in-place)
I0403 15:29:07.966733 12002 net.cpp:141] Setting up inception_4b/relu_1x1
I0403 15:29:07.966758 12002 net.cpp:148] Top shape: 24 160 14 14 (752640)
I0403 15:29:07.966774 12002 net.cpp:156] Memory required for data: 952225056
I0403 15:29:07.966789 12002 layer_factory.hpp:77] Creating layer inception_4b/3x3_reduce
I0403 15:29:07.966814 12002 net.cpp:91] Creating Layer inception_4b/3x3_reduce
I0403 15:29:07.966830 12002 net.cpp:425] inception_4b/3x3_reduce <- inception_4a/output_inception_4a/output_0_split_2
I0403 15:29:07.966850 12002 net.cpp:399] inception_4b/3x3_reduce -> inception_4b/3x3_reduce
I0403 15:29:07.968263 12002 net.cpp:141] Setting up inception_4b/3x3_reduce
I0403 15:29:07.968292 12002 net.cpp:148] Top shape: 24 112 14 14 (526848)
I0403 15:29:07.968310 12002 net.cpp:156] Memory required for data: 954332448
I0403 15:29:07.968329 12002 layer_factory.hpp:77] Creating layer inception_4b/relu_3x3_reduce
I0403 15:29:07.968351 12002 net.cpp:91] Creating Layer inception_4b/relu_3x3_reduce
I0403 15:29:07.968369 12002 net.cpp:425] inception_4b/relu_3x3_reduce <- inception_4b/3x3_reduce
I0403 15:29:07.968394 12002 net.cpp:386] inception_4b/relu_3x3_reduce -> inception_4b/3x3_reduce (in-place)
I0403 15:29:07.968686 12002 net.cpp:141] Setting up inception_4b/relu_3x3_reduce
I0403 15:29:07.968713 12002 net.cpp:148] Top shape: 24 112 14 14 (526848)
I0403 15:29:07.968729 12002 net.cpp:156] Memory required for data: 956439840
I0403 15:29:07.968745 12002 layer_factory.hpp:77] Creating layer inception_4b/3x3
I0403 15:29:07.968770 12002 net.cpp:91] Creating Layer inception_4b/3x3
I0403 15:29:07.968786 12002 net.cpp:425] inception_4b/3x3 <- inception_4b/3x3_reduce
I0403 15:29:07.968806 12002 net.cpp:399] inception_4b/3x3 -> inception_4b/3x3
I0403 15:29:07.971879 12002 net.cpp:141] Setting up inception_4b/3x3
I0403 15:29:07.971911 12002 net.cpp:148] Top shape: 24 224 14 14 (1053696)
I0403 15:29:07.971930 12002 net.cpp:156] Memory required for data: 960654624
I0403 15:29:07.971949 12002 layer_factory.hpp:77] Creating layer inception_4b/relu_3x3
I0403 15:29:07.971971 12002 net.cpp:91] Creating Layer inception_4b/relu_3x3
I0403 15:29:07.971987 12002 net.cpp:425] inception_4b/relu_3x3 <- inception_4b/3x3
I0403 15:29:07.972007 12002 net.cpp:386] inception_4b/relu_3x3 -> inception_4b/3x3 (in-place)
I0403 15:29:07.972189 12002 net.cpp:141] Setting up inception_4b/relu_3x3
I0403 15:29:07.972216 12002 net.cpp:148] Top shape: 24 224 14 14 (1053696)
I0403 15:29:07.972232 12002 net.cpp:156] Memory required for data: 964869408
I0403 15:29:07.972249 12002 layer_factory.hpp:77] Creating layer inception_4b/5x5_reduce
I0403 15:29:07.972270 12002 net.cpp:91] Creating Layer inception_4b/5x5_reduce
I0403 15:29:07.972288 12002 net.cpp:425] inception_4b/5x5_reduce <- inception_4a/output_inception_4a/output_0_split_3
I0403 15:29:07.972311 12002 net.cpp:399] inception_4b/5x5_reduce -> inception_4b/5x5_reduce
I0403 15:29:07.973428 12002 net.cpp:141] Setting up inception_4b/5x5_reduce
I0403 15:29:07.973458 12002 net.cpp:148] Top shape: 24 24 14 14 (112896)
I0403 15:29:07.973474 12002 net.cpp:156] Memory required for data: 965320992
I0403 15:29:07.973494 12002 layer_factory.hpp:77] Creating layer inception_4b/relu_5x5_reduce
I0403 15:29:07.973515 12002 net.cpp:91] Creating Layer inception_4b/relu_5x5_reduce
I0403 15:29:07.973548 12002 net.cpp:425] inception_4b/relu_5x5_reduce <- inception_4b/5x5_reduce
I0403 15:29:07.973568 12002 net.cpp:386] inception_4b/relu_5x5_reduce -> inception_4b/5x5_reduce (in-place)
I0403 15:29:07.973755 12002 net.cpp:141] Setting up inception_4b/relu_5x5_reduce
I0403 15:29:07.973784 12002 net.cpp:148] Top shape: 24 24 14 14 (112896)
I0403 15:29:07.973801 12002 net.cpp:156] Memory required for data: 965772576
I0403 15:29:07.973830 12002 layer_factory.hpp:77] Creating layer inception_4b/5x5
I0403 15:29:07.973855 12002 net.cpp:91] Creating Layer inception_4b/5x5
I0403 15:29:07.973873 12002 net.cpp:425] inception_4b/5x5 <- inception_4b/5x5_reduce
I0403 15:29:07.973894 12002 net.cpp:399] inception_4b/5x5 -> inception_4b/5x5
I0403 15:29:07.975204 12002 net.cpp:141] Setting up inception_4b/5x5
I0403 15:29:07.975234 12002 net.cpp:148] Top shape: 24 64 14 14 (301056)
I0403 15:29:07.975250 12002 net.cpp:156] Memory required for data: 966976800
I0403 15:29:07.975270 12002 layer_factory.hpp:77] Creating layer inception_4b/relu_5x5
I0403 15:29:07.975289 12002 net.cpp:91] Creating Layer inception_4b/relu_5x5
I0403 15:29:07.975306 12002 net.cpp:425] inception_4b/relu_5x5 <- inception_4b/5x5
I0403 15:29:07.975324 12002 net.cpp:386] inception_4b/relu_5x5 -> inception_4b/5x5 (in-place)
I0403 15:29:07.975646 12002 net.cpp:141] Setting up inception_4b/relu_5x5
I0403 15:29:07.975674 12002 net.cpp:148] Top shape: 24 64 14 14 (301056)
I0403 15:29:07.975703 12002 net.cpp:156] Memory required for data: 968181024
I0403 15:29:07.975719 12002 layer_factory.hpp:77] Creating layer inception_4b/pool
I0403 15:29:07.975740 12002 net.cpp:91] Creating Layer inception_4b/pool
I0403 15:29:07.975757 12002 net.cpp:425] inception_4b/pool <- inception_4a/output_inception_4a/output_0_split_4
I0403 15:29:07.975775 12002 net.cpp:399] inception_4b/pool -> inception_4b/pool
I0403 15:29:07.975842 12002 net.cpp:141] Setting up inception_4b/pool
I0403 15:29:07.975867 12002 net.cpp:148] Top shape: 24 512 14 14 (2408448)
I0403 15:29:07.975881 12002 net.cpp:156] Memory required for data: 977814816
I0403 15:29:07.975896 12002 layer_factory.hpp:77] Creating layer inception_4b/pool_proj
I0403 15:29:07.975919 12002 net.cpp:91] Creating Layer inception_4b/pool_proj
I0403 15:29:07.975936 12002 net.cpp:425] inception_4b/pool_proj <- inception_4b/pool
I0403 15:29:07.975958 12002 net.cpp:399] inception_4b/pool_proj -> inception_4b/pool_proj
I0403 15:29:07.977197 12002 net.cpp:141] Setting up inception_4b/pool_proj
I0403 15:29:07.977226 12002 net.cpp:148] Top shape: 24 64 14 14 (301056)
I0403 15:29:07.977244 12002 net.cpp:156] Memory required for data: 979019040
I0403 15:29:07.977265 12002 layer_factory.hpp:77] Creating layer inception_4b/relu_pool_proj
I0403 15:29:07.977288 12002 net.cpp:91] Creating Layer inception_4b/relu_pool_proj
I0403 15:29:07.977306 12002 net.cpp:425] inception_4b/relu_pool_proj <- inception_4b/pool_proj
I0403 15:29:07.977325 12002 net.cpp:386] inception_4b/relu_pool_proj -> inception_4b/pool_proj (in-place)
I0403 15:29:07.977515 12002 net.cpp:141] Setting up inception_4b/relu_pool_proj
I0403 15:29:07.977545 12002 net.cpp:148] Top shape: 24 64 14 14 (301056)
I0403 15:29:07.977562 12002 net.cpp:156] Memory required for data: 980223264
I0403 15:29:07.977577 12002 layer_factory.hpp:77] Creating layer inception_4b/output
I0403 15:29:07.977596 12002 net.cpp:91] Creating Layer inception_4b/output
I0403 15:29:07.977612 12002 net.cpp:425] inception_4b/output <- inception_4b/1x1
I0403 15:29:07.977629 12002 net.cpp:425] inception_4b/output <- inception_4b/3x3
I0403 15:29:07.977646 12002 net.cpp:425] inception_4b/output <- inception_4b/5x5
I0403 15:29:07.977664 12002 net.cpp:425] inception_4b/output <- inception_4b/pool_proj
I0403 15:29:07.977684 12002 net.cpp:399] inception_4b/output -> inception_4b/output
I0403 15:29:07.977732 12002 net.cpp:141] Setting up inception_4b/output
I0403 15:29:07.977757 12002 net.cpp:148] Top shape: 24 512 14 14 (2408448)
I0403 15:29:07.977773 12002 net.cpp:156] Memory required for data: 989857056
I0403 15:29:07.977803 12002 layer_factory.hpp:77] Creating layer inception_4b/output_inception_4b/output_0_split
I0403 15:29:07.977823 12002 net.cpp:91] Creating Layer inception_4b/output_inception_4b/output_0_split
I0403 15:29:07.977840 12002 net.cpp:425] inception_4b/output_inception_4b/output_0_split <- inception_4b/output
I0403 15:29:07.977859 12002 net.cpp:399] inception_4b/output_inception_4b/output_0_split -> inception_4b/output_inception_4b/output_0_split_0
I0403 15:29:07.977879 12002 net.cpp:399] inception_4b/output_inception_4b/output_0_split -> inception_4b/output_inception_4b/output_0_split_1
I0403 15:29:07.977898 12002 net.cpp:399] inception_4b/output_inception_4b/output_0_split -> inception_4b/output_inception_4b/output_0_split_2
I0403 15:29:07.977921 12002 net.cpp:399] inception_4b/output_inception_4b/output_0_split -> inception_4b/output_inception_4b/output_0_split_3
I0403 15:29:07.978015 12002 net.cpp:141] Setting up inception_4b/output_inception_4b/output_0_split
I0403 15:29:07.978039 12002 net.cpp:148] Top shape: 24 512 14 14 (2408448)
I0403 15:29:07.978055 12002 net.cpp:148] Top shape: 24 512 14 14 (2408448)
I0403 15:29:07.978080 12002 net.cpp:148] Top shape: 24 512 14 14 (2408448)
I0403 15:29:07.978094 12002 net.cpp:148] Top shape: 24 512 14 14 (2408448)
I0403 15:29:07.978108 12002 net.cpp:156] Memory required for data: 1028392224
I0403 15:29:07.978123 12002 layer_factory.hpp:77] Creating layer inception_4c/1x1
I0403 15:29:07.978145 12002 net.cpp:91] Creating Layer inception_4c/1x1
I0403 15:29:07.978163 12002 net.cpp:425] inception_4c/1x1 <- inception_4b/output_inception_4b/output_0_split_0
I0403 15:29:07.978184 12002 net.cpp:399] inception_4c/1x1 -> inception_4c/1x1
I0403 15:29:07.979691 12002 net.cpp:141] Setting up inception_4c/1x1
I0403 15:29:07.979723 12002 net.cpp:148] Top shape: 24 128 14 14 (602112)
I0403 15:29:07.979742 12002 net.cpp:156] Memory required for data: 1030800672
I0403 15:29:07.979761 12002 layer_factory.hpp:77] Creating layer inception_4c/relu_1x1
I0403 15:29:07.979780 12002 net.cpp:91] Creating Layer inception_4c/relu_1x1
I0403 15:29:07.979799 12002 net.cpp:425] inception_4c/relu_1x1 <- inception_4c/1x1
I0403 15:29:07.979818 12002 net.cpp:386] inception_4c/relu_1x1 -> inception_4c/1x1 (in-place)
I0403 15:29:07.980007 12002 net.cpp:141] Setting up inception_4c/relu_1x1
I0403 15:29:07.980034 12002 net.cpp:148] Top shape: 24 128 14 14 (602112)
I0403 15:29:07.980051 12002 net.cpp:156] Memory required for data: 1033209120
I0403 15:29:07.980067 12002 layer_factory.hpp:77] Creating layer inception_4c/3x3_reduce
I0403 15:29:07.980089 12002 net.cpp:91] Creating Layer inception_4c/3x3_reduce
I0403 15:29:07.980108 12002 net.cpp:425] inception_4c/3x3_reduce <- inception_4b/output_inception_4b/output_0_split_1
I0403 15:29:07.980129 12002 net.cpp:399] inception_4c/3x3_reduce -> inception_4c/3x3_reduce
I0403 15:29:07.982138 12002 net.cpp:141] Setting up inception_4c/3x3_reduce
I0403 15:29:07.982169 12002 net.cpp:148] Top shape: 24 128 14 14 (602112)
I0403 15:29:07.982185 12002 net.cpp:156] Memory required for data: 1035617568
I0403 15:29:07.982204 12002 layer_factory.hpp:77] Creating layer inception_4c/relu_3x3_reduce
I0403 15:29:07.982224 12002 net.cpp:91] Creating Layer inception_4c/relu_3x3_reduce
I0403 15:29:07.982242 12002 net.cpp:425] inception_4c/relu_3x3_reduce <- inception_4c/3x3_reduce
I0403 15:29:07.982259 12002 net.cpp:386] inception_4c/relu_3x3_reduce -> inception_4c/3x3_reduce (in-place)
I0403 15:29:07.982568 12002 net.cpp:141] Setting up inception_4c/relu_3x3_reduce
I0403 15:29:07.982596 12002 net.cpp:148] Top shape: 24 128 14 14 (602112)
I0403 15:29:07.982611 12002 net.cpp:156] Memory required for data: 1038026016
I0403 15:29:07.982626 12002 layer_factory.hpp:77] Creating layer inception_4c/3x3
I0403 15:29:07.982650 12002 net.cpp:91] Creating Layer inception_4c/3x3
I0403 15:29:07.982667 12002 net.cpp:425] inception_4c/3x3 <- inception_4c/3x3_reduce
I0403 15:29:07.982689 12002 net.cpp:399] inception_4c/3x3 -> inception_4c/3x3
I0403 15:29:07.986484 12002 net.cpp:141] Setting up inception_4c/3x3
I0403 15:29:07.986529 12002 net.cpp:148] Top shape: 24 256 14 14 (1204224)
I0403 15:29:07.986548 12002 net.cpp:156] Memory required for data: 1042842912
I0403 15:29:07.986582 12002 layer_factory.hpp:77] Creating layer inception_4c/relu_3x3
I0403 15:29:07.986608 12002 net.cpp:91] Creating Layer inception_4c/relu_3x3
I0403 15:29:07.986626 12002 net.cpp:425] inception_4c/relu_3x3 <- inception_4c/3x3
I0403 15:29:07.986645 12002 net.cpp:386] inception_4c/relu_3x3 -> inception_4c/3x3 (in-place)
I0403 15:29:07.986835 12002 net.cpp:141] Setting up inception_4c/relu_3x3
I0403 15:29:07.986862 12002 net.cpp:148] Top shape: 24 256 14 14 (1204224)
I0403 15:29:07.986877 12002 net.cpp:156] Memory required for data: 1047659808
I0403 15:29:07.986893 12002 layer_factory.hpp:77] Creating layer inception_4c/5x5_reduce
I0403 15:29:07.986917 12002 net.cpp:91] Creating Layer inception_4c/5x5_reduce
I0403 15:29:07.986939 12002 net.cpp:425] inception_4c/5x5_reduce <- inception_4b/output_inception_4b/output_0_split_2
I0403 15:29:07.986959 12002 net.cpp:399] inception_4c/5x5_reduce -> inception_4c/5x5_reduce
I0403 15:29:07.988148 12002 net.cpp:141] Setting up inception_4c/5x5_reduce
I0403 15:29:07.988179 12002 net.cpp:148] Top shape: 24 24 14 14 (112896)
I0403 15:29:07.988196 12002 net.cpp:156] Memory required for data: 1048111392
I0403 15:29:07.988216 12002 layer_factory.hpp:77] Creating layer inception_4c/relu_5x5_reduce
I0403 15:29:07.988239 12002 net.cpp:91] Creating Layer inception_4c/relu_5x5_reduce
I0403 15:29:07.988257 12002 net.cpp:425] inception_4c/relu_5x5_reduce <- inception_4c/5x5_reduce
I0403 15:29:07.988276 12002 net.cpp:386] inception_4c/relu_5x5_reduce -> inception_4c/5x5_reduce (in-place)
I0403 15:29:07.988474 12002 net.cpp:141] Setting up inception_4c/relu_5x5_reduce
I0403 15:29:07.988504 12002 net.cpp:148] Top shape: 24 24 14 14 (112896)
I0403 15:29:07.988523 12002 net.cpp:156] Memory required for data: 1048562976
I0403 15:29:07.988538 12002 layer_factory.hpp:77] Creating layer inception_4c/5x5
I0403 15:29:07.988561 12002 net.cpp:91] Creating Layer inception_4c/5x5
I0403 15:29:07.988579 12002 net.cpp:425] inception_4c/5x5 <- inception_4c/5x5_reduce
I0403 15:29:07.988600 12002 net.cpp:399] inception_4c/5x5 -> inception_4c/5x5
I0403 15:29:07.989877 12002 net.cpp:141] Setting up inception_4c/5x5
I0403 15:29:07.989908 12002 net.cpp:148] Top shape: 24 64 14 14 (301056)
I0403 15:29:07.989926 12002 net.cpp:156] Memory required for data: 1049767200
I0403 15:29:07.989945 12002 layer_factory.hpp:77] Creating layer inception_4c/relu_5x5
I0403 15:29:07.989965 12002 net.cpp:91] Creating Layer inception_4c/relu_5x5
I0403 15:29:07.989984 12002 net.cpp:425] inception_4c/relu_5x5 <- inception_4c/5x5
I0403 15:29:07.990005 12002 net.cpp:386] inception_4c/relu_5x5 -> inception_4c/5x5 (in-place)
I0403 15:29:07.990303 12002 net.cpp:141] Setting up inception_4c/relu_5x5
I0403 15:29:07.990334 12002 net.cpp:148] Top shape: 24 64 14 14 (301056)
I0403 15:29:07.990353 12002 net.cpp:156] Memory required for data: 1050971424
I0403 15:29:07.990370 12002 layer_factory.hpp:77] Creating layer inception_4c/pool
I0403 15:29:07.990394 12002 net.cpp:91] Creating Layer inception_4c/pool
I0403 15:29:07.990411 12002 net.cpp:425] inception_4c/pool <- inception_4b/output_inception_4b/output_0_split_3
I0403 15:29:07.990432 12002 net.cpp:399] inception_4c/pool -> inception_4c/pool
I0403 15:29:07.990499 12002 net.cpp:141] Setting up inception_4c/pool
I0403 15:29:07.990525 12002 net.cpp:148] Top shape: 24 512 14 14 (2408448)
I0403 15:29:07.990540 12002 net.cpp:156] Memory required for data: 1060605216
I0403 15:29:07.990555 12002 layer_factory.hpp:77] Creating layer inception_4c/pool_proj
I0403 15:29:07.990577 12002 net.cpp:91] Creating Layer inception_4c/pool_proj
I0403 15:29:07.990595 12002 net.cpp:425] inception_4c/pool_proj <- inception_4c/pool
I0403 15:29:07.990617 12002 net.cpp:399] inception_4c/pool_proj -> inception_4c/pool_proj
I0403 15:29:07.991909 12002 net.cpp:141] Setting up inception_4c/pool_proj
I0403 15:29:07.991940 12002 net.cpp:148] Top shape: 24 64 14 14 (301056)
I0403 15:29:07.991971 12002 net.cpp:156] Memory required for data: 1061809440
I0403 15:29:07.991992 12002 layer_factory.hpp:77] Creating layer inception_4c/relu_pool_proj
I0403 15:29:07.992014 12002 net.cpp:91] Creating Layer inception_4c/relu_pool_proj
I0403 15:29:07.992033 12002 net.cpp:425] inception_4c/relu_pool_proj <- inception_4c/pool_proj
I0403 15:29:07.992050 12002 net.cpp:386] inception_4c/relu_pool_proj -> inception_4c/pool_proj (in-place)
I0403 15:29:07.992243 12002 net.cpp:141] Setting up inception_4c/relu_pool_proj
I0403 15:29:07.992269 12002 net.cpp:148] Top shape: 24 64 14 14 (301056)
I0403 15:29:07.992285 12002 net.cpp:156] Memory required for data: 1063013664
I0403 15:29:07.992312 12002 layer_factory.hpp:77] Creating layer inception_4c/output
I0403 15:29:07.992332 12002 net.cpp:91] Creating Layer inception_4c/output
I0403 15:29:07.992349 12002 net.cpp:425] inception_4c/output <- inception_4c/1x1
I0403 15:29:07.992367 12002 net.cpp:425] inception_4c/output <- inception_4c/3x3
I0403 15:29:07.992395 12002 net.cpp:425] inception_4c/output <- inception_4c/5x5
I0403 15:29:07.992415 12002 net.cpp:425] inception_4c/output <- inception_4c/pool_proj
I0403 15:29:07.992434 12002 net.cpp:399] inception_4c/output -> inception_4c/output
I0403 15:29:07.992486 12002 net.cpp:141] Setting up inception_4c/output
I0403 15:29:07.992511 12002 net.cpp:148] Top shape: 24 512 14 14 (2408448)
I0403 15:29:07.992525 12002 net.cpp:156] Memory required for data: 1072647456
I0403 15:29:07.992540 12002 layer_factory.hpp:77] Creating layer inception_4c/output_inception_4c/output_0_split
I0403 15:29:07.992558 12002 net.cpp:91] Creating Layer inception_4c/output_inception_4c/output_0_split
I0403 15:29:07.992574 12002 net.cpp:425] inception_4c/output_inception_4c/output_0_split <- inception_4c/output
I0403 15:29:07.992595 12002 net.cpp:399] inception_4c/output_inception_4c/output_0_split -> inception_4c/output_inception_4c/output_0_split_0
I0403 15:29:07.992630 12002 net.cpp:399] inception_4c/output_inception_4c/output_0_split -> inception_4c/output_inception_4c/output_0_split_1
I0403 15:29:07.992650 12002 net.cpp:399] inception_4c/output_inception_4c/output_0_split -> inception_4c/output_inception_4c/output_0_split_2
I0403 15:29:07.992672 12002 net.cpp:399] inception_4c/output_inception_4c/output_0_split -> inception_4c/output_inception_4c/output_0_split_3
I0403 15:29:07.992763 12002 net.cpp:141] Setting up inception_4c/output_inception_4c/output_0_split
I0403 15:29:07.992786 12002 net.cpp:148] Top shape: 24 512 14 14 (2408448)
I0403 15:29:07.992802 12002 net.cpp:148] Top shape: 24 512 14 14 (2408448)
I0403 15:29:07.992818 12002 net.cpp:148] Top shape: 24 512 14 14 (2408448)
I0403 15:29:07.992833 12002 net.cpp:148] Top shape: 24 512 14 14 (2408448)
I0403 15:29:07.992847 12002 net.cpp:156] Memory required for data: 1111182624
I0403 15:29:07.992861 12002 layer_factory.hpp:77] Creating layer inception_4d/1x1
I0403 15:29:07.992884 12002 net.cpp:91] Creating Layer inception_4d/1x1
I0403 15:29:07.992902 12002 net.cpp:425] inception_4d/1x1 <- inception_4c/output_inception_4c/output_0_split_0
I0403 15:29:07.992924 12002 net.cpp:399] inception_4d/1x1 -> inception_4d/1x1
I0403 15:29:07.994338 12002 net.cpp:141] Setting up inception_4d/1x1
I0403 15:29:07.994370 12002 net.cpp:148] Top shape: 24 112 14 14 (526848)
I0403 15:29:07.994393 12002 net.cpp:156] Memory required for data: 1113290016
I0403 15:29:07.994412 12002 layer_factory.hpp:77] Creating layer inception_4d/relu_1x1
I0403 15:29:07.994432 12002 net.cpp:91] Creating Layer inception_4d/relu_1x1
I0403 15:29:07.994453 12002 net.cpp:425] inception_4d/relu_1x1 <- inception_4d/1x1
I0403 15:29:07.994472 12002 net.cpp:386] inception_4d/relu_1x1 -> inception_4d/1x1 (in-place)
I0403 15:29:07.994663 12002 net.cpp:141] Setting up inception_4d/relu_1x1
I0403 15:29:07.994688 12002 net.cpp:148] Top shape: 24 112 14 14 (526848)
I0403 15:29:07.994702 12002 net.cpp:156] Memory required for data: 1115397408
I0403 15:29:07.994717 12002 layer_factory.hpp:77] Creating layer inception_4d/3x3_reduce
I0403 15:29:07.994755 12002 net.cpp:91] Creating Layer inception_4d/3x3_reduce
I0403 15:29:07.994774 12002 net.cpp:425] inception_4d/3x3_reduce <- inception_4c/output_inception_4c/output_0_split_1
I0403 15:29:07.994796 12002 net.cpp:399] inception_4d/3x3_reduce -> inception_4d/3x3_reduce
I0403 15:29:07.996399 12002 net.cpp:141] Setting up inception_4d/3x3_reduce
I0403 15:29:07.996433 12002 net.cpp:148] Top shape: 24 144 14 14 (677376)
I0403 15:29:07.996451 12002 net.cpp:156] Memory required for data: 1118106912
I0403 15:29:07.996471 12002 layer_factory.hpp:77] Creating layer inception_4d/relu_3x3_reduce
I0403 15:29:07.996491 12002 net.cpp:91] Creating Layer inception_4d/relu_3x3_reduce
I0403 15:29:07.996510 12002 net.cpp:425] inception_4d/relu_3x3_reduce <- inception_4d/3x3_reduce
I0403 15:29:07.996531 12002 net.cpp:386] inception_4d/relu_3x3_reduce -> inception_4d/3x3_reduce (in-place)
I0403 15:29:07.996846 12002 net.cpp:141] Setting up inception_4d/relu_3x3_reduce
I0403 15:29:07.996877 12002 net.cpp:148] Top shape: 24 144 14 14 (677376)
I0403 15:29:07.996894 12002 net.cpp:156] Memory required for data: 1120816416
I0403 15:29:07.996912 12002 layer_factory.hpp:77] Creating layer inception_4d/3x3
I0403 15:29:07.996934 12002 net.cpp:91] Creating Layer inception_4d/3x3
I0403 15:29:07.996953 12002 net.cpp:425] inception_4d/3x3 <- inception_4d/3x3_reduce
I0403 15:29:07.996973 12002 net.cpp:399] inception_4d/3x3 -> inception_4d/3x3
I0403 15:29:08.001366 12002 net.cpp:141] Setting up inception_4d/3x3
I0403 15:29:08.001400 12002 net.cpp:148] Top shape: 24 288 14 14 (1354752)
I0403 15:29:08.001417 12002 net.cpp:156] Memory required for data: 1126235424
I0403 15:29:08.001437 12002 layer_factory.hpp:77] Creating layer inception_4d/relu_3x3
I0403 15:29:08.001454 12002 net.cpp:91] Creating Layer inception_4d/relu_3x3
I0403 15:29:08.001471 12002 net.cpp:425] inception_4d/relu_3x3 <- inception_4d/3x3
I0403 15:29:08.001490 12002 net.cpp:386] inception_4d/relu_3x3 -> inception_4d/3x3 (in-place)
I0403 15:29:08.001673 12002 net.cpp:141] Setting up inception_4d/relu_3x3
I0403 15:29:08.001698 12002 net.cpp:148] Top shape: 24 288 14 14 (1354752)
I0403 15:29:08.001713 12002 net.cpp:156] Memory required for data: 1131654432
I0403 15:29:08.001727 12002 layer_factory.hpp:77] Creating layer inception_4d/5x5_reduce
I0403 15:29:08.001749 12002 net.cpp:91] Creating Layer inception_4d/5x5_reduce
I0403 15:29:08.001766 12002 net.cpp:425] inception_4d/5x5_reduce <- inception_4c/output_inception_4c/output_0_split_2
I0403 15:29:08.001787 12002 net.cpp:399] inception_4d/5x5_reduce -> inception_4d/5x5_reduce
I0403 15:29:08.002943 12002 net.cpp:141] Setting up inception_4d/5x5_reduce
I0403 15:29:08.002972 12002 net.cpp:148] Top shape: 24 32 14 14 (150528)
I0403 15:29:08.002988 12002 net.cpp:156] Memory required for data: 1132256544
I0403 15:29:08.003008 12002 layer_factory.hpp:77] Creating layer inception_4d/relu_5x5_reduce
I0403 15:29:08.003029 12002 net.cpp:91] Creating Layer inception_4d/relu_5x5_reduce
I0403 15:29:08.003047 12002 net.cpp:425] inception_4d/relu_5x5_reduce <- inception_4d/5x5_reduce
I0403 15:29:08.003064 12002 net.cpp:386] inception_4d/relu_5x5_reduce -> inception_4d/5x5_reduce (in-place)
I0403 15:29:08.003249 12002 net.cpp:141] Setting up inception_4d/relu_5x5_reduce
I0403 15:29:08.003275 12002 net.cpp:148] Top shape: 24 32 14 14 (150528)
I0403 15:29:08.003290 12002 net.cpp:156] Memory required for data: 1132858656
I0403 15:29:08.003306 12002 layer_factory.hpp:77] Creating layer inception_4d/5x5
I0403 15:29:08.003329 12002 net.cpp:91] Creating Layer inception_4d/5x5
I0403 15:29:08.003345 12002 net.cpp:425] inception_4d/5x5 <- inception_4d/5x5_reduce
I0403 15:29:08.003366 12002 net.cpp:399] inception_4d/5x5 -> inception_4d/5x5
I0403 15:29:08.004899 12002 net.cpp:141] Setting up inception_4d/5x5
I0403 15:29:08.004928 12002 net.cpp:148] Top shape: 24 64 14 14 (301056)
I0403 15:29:08.004945 12002 net.cpp:156] Memory required for data: 1134062880
I0403 15:29:08.004966 12002 layer_factory.hpp:77] Creating layer inception_4d/relu_5x5
I0403 15:29:08.005002 12002 net.cpp:91] Creating Layer inception_4d/relu_5x5
I0403 15:29:08.005022 12002 net.cpp:425] inception_4d/relu_5x5 <- inception_4d/5x5
I0403 15:29:08.005040 12002 net.cpp:386] inception_4d/relu_5x5 -> inception_4d/5x5 (in-place)
I0403 15:29:08.005339 12002 net.cpp:141] Setting up inception_4d/relu_5x5
I0403 15:29:08.005367 12002 net.cpp:148] Top shape: 24 64 14 14 (301056)
I0403 15:29:08.005385 12002 net.cpp:156] Memory required for data: 1135267104
I0403 15:29:08.005401 12002 layer_factory.hpp:77] Creating layer inception_4d/pool
I0403 15:29:08.005421 12002 net.cpp:91] Creating Layer inception_4d/pool
I0403 15:29:08.005439 12002 net.cpp:425] inception_4d/pool <- inception_4c/output_inception_4c/output_0_split_3
I0403 15:29:08.005456 12002 net.cpp:399] inception_4d/pool -> inception_4d/pool
I0403 15:29:08.005524 12002 net.cpp:141] Setting up inception_4d/pool
I0403 15:29:08.005548 12002 net.cpp:148] Top shape: 24 512 14 14 (2408448)
I0403 15:29:08.005563 12002 net.cpp:156] Memory required for data: 1144900896
I0403 15:29:08.005578 12002 layer_factory.hpp:77] Creating layer inception_4d/pool_proj
I0403 15:29:08.005599 12002 net.cpp:91] Creating Layer inception_4d/pool_proj
I0403 15:29:08.005615 12002 net.cpp:425] inception_4d/pool_proj <- inception_4d/pool
I0403 15:29:08.005636 12002 net.cpp:399] inception_4d/pool_proj -> inception_4d/pool_proj
I0403 15:29:08.007441 12002 net.cpp:141] Setting up inception_4d/pool_proj
I0403 15:29:08.007473 12002 net.cpp:148] Top shape: 24 64 14 14 (301056)
I0403 15:29:08.007490 12002 net.cpp:156] Memory required for data: 1146105120
I0403 15:29:08.007509 12002 layer_factory.hpp:77] Creating layer inception_4d/relu_pool_proj
I0403 15:29:08.007529 12002 net.cpp:91] Creating Layer inception_4d/relu_pool_proj
I0403 15:29:08.007546 12002 net.cpp:425] inception_4d/relu_pool_proj <- inception_4d/pool_proj
I0403 15:29:08.007568 12002 net.cpp:386] inception_4d/relu_pool_proj -> inception_4d/pool_proj (in-place)
I0403 15:29:08.007772 12002 net.cpp:141] Setting up inception_4d/relu_pool_proj
I0403 15:29:08.007799 12002 net.cpp:148] Top shape: 24 64 14 14 (301056)
I0403 15:29:08.007815 12002 net.cpp:156] Memory required for data: 1147309344
I0403 15:29:08.007830 12002 layer_factory.hpp:77] Creating layer inception_4d/output
I0403 15:29:08.007849 12002 net.cpp:91] Creating Layer inception_4d/output
I0403 15:29:08.007866 12002 net.cpp:425] inception_4d/output <- inception_4d/1x1
I0403 15:29:08.007884 12002 net.cpp:425] inception_4d/output <- inception_4d/3x3
I0403 15:29:08.007899 12002 net.cpp:425] inception_4d/output <- inception_4d/5x5
I0403 15:29:08.007915 12002 net.cpp:425] inception_4d/output <- inception_4d/pool_proj
I0403 15:29:08.007931 12002 net.cpp:399] inception_4d/output -> inception_4d/output
I0403 15:29:08.007980 12002 net.cpp:141] Setting up inception_4d/output
I0403 15:29:08.008003 12002 net.cpp:148] Top shape: 24 528 14 14 (2483712)
I0403 15:29:08.008018 12002 net.cpp:156] Memory required for data: 1157244192
I0403 15:29:08.008033 12002 layer_factory.hpp:77] Creating layer inception_4d/output_inception_4d/output_0_split
I0403 15:29:08.008050 12002 net.cpp:91] Creating Layer inception_4d/output_inception_4d/output_0_split
I0403 15:29:08.008065 12002 net.cpp:425] inception_4d/output_inception_4d/output_0_split <- inception_4d/output
I0403 15:29:08.008085 12002 net.cpp:399] inception_4d/output_inception_4d/output_0_split -> inception_4d/output_inception_4d/output_0_split_0
I0403 15:29:08.008106 12002 net.cpp:399] inception_4d/output_inception_4d/output_0_split -> inception_4d/output_inception_4d/output_0_split_1
I0403 15:29:08.008128 12002 net.cpp:399] inception_4d/output_inception_4d/output_0_split -> inception_4d/output_inception_4d/output_0_split_2
I0403 15:29:08.008148 12002 net.cpp:399] inception_4d/output_inception_4d/output_0_split -> inception_4d/output_inception_4d/output_0_split_3
I0403 15:29:08.008168 12002 net.cpp:399] inception_4d/output_inception_4d/output_0_split -> inception_4d/output_inception_4d/output_0_split_4
I0403 15:29:08.008272 12002 net.cpp:141] Setting up inception_4d/output_inception_4d/output_0_split
I0403 15:29:08.008307 12002 net.cpp:148] Top shape: 24 528 14 14 (2483712)
I0403 15:29:08.008324 12002 net.cpp:148] Top shape: 24 528 14 14 (2483712)
I0403 15:29:08.008340 12002 net.cpp:148] Top shape: 24 528 14 14 (2483712)
I0403 15:29:08.008358 12002 net.cpp:148] Top shape: 24 528 14 14 (2483712)
I0403 15:29:08.008373 12002 net.cpp:148] Top shape: 24 528 14 14 (2483712)
I0403 15:29:08.008390 12002 net.cpp:156] Memory required for data: 1206918432
I0403 15:29:08.008405 12002 layer_factory.hpp:77] Creating layer loss2/ave_pool
I0403 15:29:08.008424 12002 net.cpp:91] Creating Layer loss2/ave_pool
I0403 15:29:08.008438 12002 net.cpp:425] loss2/ave_pool <- inception_4d/output_inception_4d/output_0_split_0
I0403 15:29:08.008460 12002 net.cpp:399] loss2/ave_pool -> loss2/ave_pool
I0403 15:29:08.008774 12002 net.cpp:141] Setting up loss2/ave_pool
I0403 15:29:08.008800 12002 net.cpp:148] Top shape: 24 528 4 4 (202752)
I0403 15:29:08.008815 12002 net.cpp:156] Memory required for data: 1207729440
I0403 15:29:08.008829 12002 layer_factory.hpp:77] Creating layer loss2/conv
I0403 15:29:08.008852 12002 net.cpp:91] Creating Layer loss2/conv
I0403 15:29:08.008869 12002 net.cpp:425] loss2/conv <- loss2/ave_pool
I0403 15:29:08.008890 12002 net.cpp:399] loss2/conv -> loss2/conv
I0403 15:29:08.010820 12002 net.cpp:141] Setting up loss2/conv
I0403 15:29:08.010854 12002 net.cpp:148] Top shape: 24 128 4 4 (49152)
I0403 15:29:08.010869 12002 net.cpp:156] Memory required for data: 1207926048
I0403 15:29:08.010887 12002 layer_factory.hpp:77] Creating layer loss2/relu_conv
I0403 15:29:08.010905 12002 net.cpp:91] Creating Layer loss2/relu_conv
I0403 15:29:08.010921 12002 net.cpp:425] loss2/relu_conv <- loss2/conv
I0403 15:29:08.010937 12002 net.cpp:386] loss2/relu_conv -> loss2/conv (in-place)
I0403 15:29:08.011220 12002 net.cpp:141] Setting up loss2/relu_conv
I0403 15:29:08.011248 12002 net.cpp:148] Top shape: 24 128 4 4 (49152)
I0403 15:29:08.011265 12002 net.cpp:156] Memory required for data: 1208122656
I0403 15:29:08.011278 12002 layer_factory.hpp:77] Creating layer loss2/fc
I0403 15:29:08.011297 12002 net.cpp:91] Creating Layer loss2/fc
I0403 15:29:08.011313 12002 net.cpp:425] loss2/fc <- loss2/conv
I0403 15:29:08.011346 12002 net.cpp:399] loss2/fc -> loss2/fc
I0403 15:29:08.028730 12002 net.cpp:141] Setting up loss2/fc
I0403 15:29:08.028765 12002 net.cpp:148] Top shape: 24 1024 (24576)
I0403 15:29:08.028781 12002 net.cpp:156] Memory required for data: 1208220960
I0403 15:29:08.028800 12002 layer_factory.hpp:77] Creating layer loss2/relu_fc
I0403 15:29:08.028821 12002 net.cpp:91] Creating Layer loss2/relu_fc
I0403 15:29:08.028838 12002 net.cpp:425] loss2/relu_fc <- loss2/fc
I0403 15:29:08.028856 12002 net.cpp:386] loss2/relu_fc -> loss2/fc (in-place)
I0403 15:29:08.029146 12002 net.cpp:141] Setting up loss2/relu_fc
I0403 15:29:08.029175 12002 net.cpp:148] Top shape: 24 1024 (24576)
I0403 15:29:08.029189 12002 net.cpp:156] Memory required for data: 1208319264
I0403 15:29:08.029204 12002 layer_factory.hpp:77] Creating layer loss2/drop_fc
I0403 15:29:08.029223 12002 net.cpp:91] Creating Layer loss2/drop_fc
I0403 15:29:08.029239 12002 net.cpp:425] loss2/drop_fc <- loss2/fc
I0403 15:29:08.029255 12002 net.cpp:386] loss2/drop_fc -> loss2/fc (in-place)
I0403 15:29:08.029301 12002 net.cpp:141] Setting up loss2/drop_fc
I0403 15:29:08.029326 12002 net.cpp:148] Top shape: 24 1024 (24576)
I0403 15:29:08.029341 12002 net.cpp:156] Memory required for data: 1208417568
I0403 15:29:08.029357 12002 layer_factory.hpp:77] Creating layer loss2/classifier_plantvillage
I0403 15:29:08.029374 12002 net.cpp:91] Creating Layer loss2/classifier_plantvillage
I0403 15:29:08.029409 12002 net.cpp:425] loss2/classifier_plantvillage <- loss2/fc
I0403 15:29:08.029430 12002 net.cpp:399] loss2/classifier_plantvillage -> loss2/classifier_plantvillage
I0403 15:29:08.029841 12002 net.cpp:141] Setting up loss2/classifier_plantvillage
I0403 15:29:08.029867 12002 net.cpp:148] Top shape: 24 38 (912)
I0403 15:29:08.029899 12002 net.cpp:156] Memory required for data: 1208421216
I0403 15:29:08.029917 12002 layer_factory.hpp:77] Creating layer loss2/classifier_plantvillage_loss2/classifier_plantvillage_0_split
I0403 15:29:08.029933 12002 net.cpp:91] Creating Layer loss2/classifier_plantvillage_loss2/classifier_plantvillage_0_split
I0403 15:29:08.029949 12002 net.cpp:425] loss2/classifier_plantvillage_loss2/classifier_plantvillage_0_split <- loss2/classifier_plantvillage
I0403 15:29:08.029966 12002 net.cpp:399] loss2/classifier_plantvillage_loss2/classifier_plantvillage_0_split -> loss2/classifier_plantvillage_loss2/classifier_plantvillage_0_split_0
I0403 15:29:08.029989 12002 net.cpp:399] loss2/classifier_plantvillage_loss2/classifier_plantvillage_0_split -> loss2/classifier_plantvillage_loss2/classifier_plantvillage_0_split_1
I0403 15:29:08.030009 12002 net.cpp:399] loss2/classifier_plantvillage_loss2/classifier_plantvillage_0_split -> loss2/classifier_plantvillage_loss2/classifier_plantvillage_0_split_2
I0403 15:29:08.030082 12002 net.cpp:141] Setting up loss2/classifier_plantvillage_loss2/classifier_plantvillage_0_split
I0403 15:29:08.030104 12002 net.cpp:148] Top shape: 24 38 (912)
I0403 15:29:08.030120 12002 net.cpp:148] Top shape: 24 38 (912)
I0403 15:29:08.030134 12002 net.cpp:148] Top shape: 24 38 (912)
I0403 15:29:08.030148 12002 net.cpp:156] Memory required for data: 1208432160
I0403 15:29:08.030161 12002 layer_factory.hpp:77] Creating layer inception_4e/1x1
I0403 15:29:08.030182 12002 net.cpp:91] Creating Layer inception_4e/1x1
I0403 15:29:08.030199 12002 net.cpp:425] inception_4e/1x1 <- inception_4d/output_inception_4d/output_0_split_1
I0403 15:29:08.030220 12002 net.cpp:399] inception_4e/1x1 -> inception_4e/1x1
I0403 15:29:08.032050 12002 net.cpp:141] Setting up inception_4e/1x1
I0403 15:29:08.032081 12002 net.cpp:148] Top shape: 24 256 14 14 (1204224)
I0403 15:29:08.032099 12002 net.cpp:156] Memory required for data: 1213249056
I0403 15:29:08.032119 12002 layer_factory.hpp:77] Creating layer inception_4e/relu_1x1
I0403 15:29:08.032138 12002 net.cpp:91] Creating Layer inception_4e/relu_1x1
I0403 15:29:08.032153 12002 net.cpp:425] inception_4e/relu_1x1 <- inception_4e/1x1
I0403 15:29:08.032172 12002 net.cpp:386] inception_4e/relu_1x1 -> inception_4e/1x1 (in-place)
I0403 15:29:08.032472 12002 net.cpp:141] Setting up inception_4e/relu_1x1
I0403 15:29:08.032500 12002 net.cpp:148] Top shape: 24 256 14 14 (1204224)
I0403 15:29:08.032516 12002 net.cpp:156] Memory required for data: 1218065952
I0403 15:29:08.032531 12002 layer_factory.hpp:77] Creating layer inception_4e/3x3_reduce
I0403 15:29:08.032552 12002 net.cpp:91] Creating Layer inception_4e/3x3_reduce
I0403 15:29:08.032568 12002 net.cpp:425] inception_4e/3x3_reduce <- inception_4d/output_inception_4d/output_0_split_2
I0403 15:29:08.032588 12002 net.cpp:399] inception_4e/3x3_reduce -> inception_4e/3x3_reduce
I0403 15:29:08.034636 12002 net.cpp:141] Setting up inception_4e/3x3_reduce
I0403 15:29:08.034664 12002 net.cpp:148] Top shape: 24 160 14 14 (752640)
I0403 15:29:08.034682 12002 net.cpp:156] Memory required for data: 1221076512
I0403 15:29:08.034700 12002 layer_factory.hpp:77] Creating layer inception_4e/relu_3x3_reduce
I0403 15:29:08.034720 12002 net.cpp:91] Creating Layer inception_4e/relu_3x3_reduce
I0403 15:29:08.034736 12002 net.cpp:425] inception_4e/relu_3x3_reduce <- inception_4e/3x3_reduce
I0403 15:29:08.034754 12002 net.cpp:386] inception_4e/relu_3x3_reduce -> inception_4e/3x3_reduce (in-place)
I0403 15:29:08.034937 12002 net.cpp:141] Setting up inception_4e/relu_3x3_reduce
I0403 15:29:08.034965 12002 net.cpp:148] Top shape: 24 160 14 14 (752640)
I0403 15:29:08.034979 12002 net.cpp:156] Memory required for data: 1224087072
I0403 15:29:08.034993 12002 layer_factory.hpp:77] Creating layer inception_4e/3x3
I0403 15:29:08.035014 12002 net.cpp:91] Creating Layer inception_4e/3x3
I0403 15:29:08.035030 12002 net.cpp:425] inception_4e/3x3 <- inception_4e/3x3_reduce
I0403 15:29:08.035048 12002 net.cpp:399] inception_4e/3x3 -> inception_4e/3x3
I0403 15:29:08.040000 12002 net.cpp:141] Setting up inception_4e/3x3
I0403 15:29:08.040045 12002 net.cpp:148] Top shape: 24 320 14 14 (1505280)
I0403 15:29:08.040062 12002 net.cpp:156] Memory required for data: 1230108192
I0403 15:29:08.040081 12002 layer_factory.hpp:77] Creating layer inception_4e/relu_3x3
I0403 15:29:08.040098 12002 net.cpp:91] Creating Layer inception_4e/relu_3x3
I0403 15:29:08.040113 12002 net.cpp:425] inception_4e/relu_3x3 <- inception_4e/3x3
I0403 15:29:08.040132 12002 net.cpp:386] inception_4e/relu_3x3 -> inception_4e/3x3 (in-place)
I0403 15:29:08.040433 12002 net.cpp:141] Setting up inception_4e/relu_3x3
I0403 15:29:08.040458 12002 net.cpp:148] Top shape: 24 320 14 14 (1505280)
I0403 15:29:08.040473 12002 net.cpp:156] Memory required for data: 1236129312
I0403 15:29:08.040488 12002 layer_factory.hpp:77] Creating layer inception_4e/5x5_reduce
I0403 15:29:08.040510 12002 net.cpp:91] Creating Layer inception_4e/5x5_reduce
I0403 15:29:08.040529 12002 net.cpp:425] inception_4e/5x5_reduce <- inception_4d/output_inception_4d/output_0_split_3
I0403 15:29:08.040549 12002 net.cpp:399] inception_4e/5x5_reduce -> inception_4e/5x5_reduce
I0403 15:29:08.041584 12002 net.cpp:141] Setting up inception_4e/5x5_reduce
I0403 15:29:08.041611 12002 net.cpp:148] Top shape: 24 32 14 14 (150528)
I0403 15:29:08.041626 12002 net.cpp:156] Memory required for data: 1236731424
I0403 15:29:08.041646 12002 layer_factory.hpp:77] Creating layer inception_4e/relu_5x5_reduce
I0403 15:29:08.041664 12002 net.cpp:91] Creating Layer inception_4e/relu_5x5_reduce
I0403 15:29:08.041681 12002 net.cpp:425] inception_4e/relu_5x5_reduce <- inception_4e/5x5_reduce
I0403 15:29:08.041697 12002 net.cpp:386] inception_4e/relu_5x5_reduce -> inception_4e/5x5_reduce (in-place)
I0403 15:29:08.042011 12002 net.cpp:141] Setting up inception_4e/relu_5x5_reduce
I0403 15:29:08.042048 12002 net.cpp:148] Top shape: 24 32 14 14 (150528)
I0403 15:29:08.042062 12002 net.cpp:156] Memory required for data: 1237333536
I0403 15:29:08.042078 12002 layer_factory.hpp:77] Creating layer inception_4e/5x5
I0403 15:29:08.042114 12002 net.cpp:91] Creating Layer inception_4e/5x5
I0403 15:29:08.042134 12002 net.cpp:425] inception_4e/5x5 <- inception_4e/5x5_reduce
I0403 15:29:08.042151 12002 net.cpp:399] inception_4e/5x5 -> inception_4e/5x5
I0403 15:29:08.043997 12002 net.cpp:141] Setting up inception_4e/5x5
I0403 15:29:08.044024 12002 net.cpp:148] Top shape: 24 128 14 14 (602112)
I0403 15:29:08.044040 12002 net.cpp:156] Memory required for data: 1239741984
I0403 15:29:08.044060 12002 layer_factory.hpp:77] Creating layer inception_4e/relu_5x5
I0403 15:29:08.044080 12002 net.cpp:91] Creating Layer inception_4e/relu_5x5
I0403 15:29:08.044096 12002 net.cpp:425] inception_4e/relu_5x5 <- inception_4e/5x5
I0403 15:29:08.044112 12002 net.cpp:386] inception_4e/relu_5x5 -> inception_4e/5x5 (in-place)
I0403 15:29:08.044303 12002 net.cpp:141] Setting up inception_4e/relu_5x5
I0403 15:29:08.044329 12002 net.cpp:148] Top shape: 24 128 14 14 (602112)
I0403 15:29:08.044344 12002 net.cpp:156] Memory required for data: 1242150432
I0403 15:29:08.044360 12002 layer_factory.hpp:77] Creating layer inception_4e/pool
I0403 15:29:08.044378 12002 net.cpp:91] Creating Layer inception_4e/pool
I0403 15:29:08.044399 12002 net.cpp:425] inception_4e/pool <- inception_4d/output_inception_4d/output_0_split_4
I0403 15:29:08.044416 12002 net.cpp:399] inception_4e/pool -> inception_4e/pool
I0403 15:29:08.044484 12002 net.cpp:141] Setting up inception_4e/pool
I0403 15:29:08.044507 12002 net.cpp:148] Top shape: 24 528 14 14 (2483712)
I0403 15:29:08.044522 12002 net.cpp:156] Memory required for data: 1252085280
I0403 15:29:08.044534 12002 layer_factory.hpp:77] Creating layer inception_4e/pool_proj
I0403 15:29:08.044554 12002 net.cpp:91] Creating Layer inception_4e/pool_proj
I0403 15:29:08.044571 12002 net.cpp:425] inception_4e/pool_proj <- inception_4e/pool
I0403 15:29:08.044591 12002 net.cpp:399] inception_4e/pool_proj -> inception_4e/pool_proj
I0403 15:29:08.046075 12002 net.cpp:141] Setting up inception_4e/pool_proj
I0403 15:29:08.046115 12002 net.cpp:148] Top shape: 24 128 14 14 (602112)
I0403 15:29:08.046133 12002 net.cpp:156] Memory required for data: 1254493728
I0403 15:29:08.046151 12002 layer_factory.hpp:77] Creating layer inception_4e/relu_pool_proj
I0403 15:29:08.046171 12002 net.cpp:91] Creating Layer inception_4e/relu_pool_proj
I0403 15:29:08.046190 12002 net.cpp:425] inception_4e/relu_pool_proj <- inception_4e/pool_proj
I0403 15:29:08.046207 12002 net.cpp:386] inception_4e/relu_pool_proj -> inception_4e/pool_proj (in-place)
I0403 15:29:08.046494 12002 net.cpp:141] Setting up inception_4e/relu_pool_proj
I0403 15:29:08.046519 12002 net.cpp:148] Top shape: 24 128 14 14 (602112)
I0403 15:29:08.046535 12002 net.cpp:156] Memory required for data: 1256902176
I0403 15:29:08.046548 12002 layer_factory.hpp:77] Creating layer inception_4e/output
I0403 15:29:08.046566 12002 net.cpp:91] Creating Layer inception_4e/output
I0403 15:29:08.046581 12002 net.cpp:425] inception_4e/output <- inception_4e/1x1
I0403 15:29:08.046597 12002 net.cpp:425] inception_4e/output <- inception_4e/3x3
I0403 15:29:08.046612 12002 net.cpp:425] inception_4e/output <- inception_4e/5x5
I0403 15:29:08.046627 12002 net.cpp:425] inception_4e/output <- inception_4e/pool_proj
I0403 15:29:08.046645 12002 net.cpp:399] inception_4e/output -> inception_4e/output
I0403 15:29:08.046692 12002 net.cpp:141] Setting up inception_4e/output
I0403 15:29:08.046718 12002 net.cpp:148] Top shape: 24 832 14 14 (3913728)
I0403 15:29:08.046732 12002 net.cpp:156] Memory required for data: 1272557088
I0403 15:29:08.046747 12002 layer_factory.hpp:77] Creating layer pool4/3x3_s2
I0403 15:29:08.046763 12002 net.cpp:91] Creating Layer pool4/3x3_s2
I0403 15:29:08.046777 12002 net.cpp:425] pool4/3x3_s2 <- inception_4e/output
I0403 15:29:08.046797 12002 net.cpp:399] pool4/3x3_s2 -> pool4/3x3_s2
I0403 15:29:08.046864 12002 net.cpp:141] Setting up pool4/3x3_s2
I0403 15:29:08.046887 12002 net.cpp:148] Top shape: 24 832 7 7 (978432)
I0403 15:29:08.046900 12002 net.cpp:156] Memory required for data: 1276470816
I0403 15:29:08.046914 12002 layer_factory.hpp:77] Creating layer pool4/3x3_s2_pool4/3x3_s2_0_split
I0403 15:29:08.046933 12002 net.cpp:91] Creating Layer pool4/3x3_s2_pool4/3x3_s2_0_split
I0403 15:29:08.046952 12002 net.cpp:425] pool4/3x3_s2_pool4/3x3_s2_0_split <- pool4/3x3_s2
I0403 15:29:08.046968 12002 net.cpp:399] pool4/3x3_s2_pool4/3x3_s2_0_split -> pool4/3x3_s2_pool4/3x3_s2_0_split_0
I0403 15:29:08.046988 12002 net.cpp:399] pool4/3x3_s2_pool4/3x3_s2_0_split -> pool4/3x3_s2_pool4/3x3_s2_0_split_1
I0403 15:29:08.047008 12002 net.cpp:399] pool4/3x3_s2_pool4/3x3_s2_0_split -> pool4/3x3_s2_pool4/3x3_s2_0_split_2
I0403 15:29:08.047029 12002 net.cpp:399] pool4/3x3_s2_pool4/3x3_s2_0_split -> pool4/3x3_s2_pool4/3x3_s2_0_split_3
I0403 15:29:08.047116 12002 net.cpp:141] Setting up pool4/3x3_s2_pool4/3x3_s2_0_split
I0403 15:29:08.047144 12002 net.cpp:148] Top shape: 24 832 7 7 (978432)
I0403 15:29:08.047160 12002 net.cpp:148] Top shape: 24 832 7 7 (978432)
I0403 15:29:08.047178 12002 net.cpp:148] Top shape: 24 832 7 7 (978432)
I0403 15:29:08.047193 12002 net.cpp:148] Top shape: 24 832 7 7 (978432)
I0403 15:29:08.047206 12002 net.cpp:156] Memory required for data: 1292125728
I0403 15:29:08.047219 12002 layer_factory.hpp:77] Creating layer inception_5a/1x1
I0403 15:29:08.047241 12002 net.cpp:91] Creating Layer inception_5a/1x1
I0403 15:29:08.047257 12002 net.cpp:425] inception_5a/1x1 <- pool4/3x3_s2_pool4/3x3_s2_0_split_0
I0403 15:29:08.047277 12002 net.cpp:399] inception_5a/1x1 -> inception_5a/1x1
I0403 15:29:08.050168 12002 net.cpp:141] Setting up inception_5a/1x1
I0403 15:29:08.050199 12002 net.cpp:148] Top shape: 24 256 7 7 (301056)
I0403 15:29:08.050216 12002 net.cpp:156] Memory required for data: 1293329952
I0403 15:29:08.050235 12002 layer_factory.hpp:77] Creating layer inception_5a/relu_1x1
I0403 15:29:08.050256 12002 net.cpp:91] Creating Layer inception_5a/relu_1x1
I0403 15:29:08.050273 12002 net.cpp:425] inception_5a/relu_1x1 <- inception_5a/1x1
I0403 15:29:08.050292 12002 net.cpp:386] inception_5a/relu_1x1 -> inception_5a/1x1 (in-place)
I0403 15:29:08.050607 12002 net.cpp:141] Setting up inception_5a/relu_1x1
I0403 15:29:08.050634 12002 net.cpp:148] Top shape: 24 256 7 7 (301056)
I0403 15:29:08.050649 12002 net.cpp:156] Memory required for data: 1294534176
I0403 15:29:08.050664 12002 layer_factory.hpp:77] Creating layer inception_5a/3x3_reduce
I0403 15:29:08.050686 12002 net.cpp:91] Creating Layer inception_5a/3x3_reduce
I0403 15:29:08.050704 12002 net.cpp:425] inception_5a/3x3_reduce <- pool4/3x3_s2_pool4/3x3_s2_0_split_1
I0403 15:29:08.050725 12002 net.cpp:399] inception_5a/3x3_reduce -> inception_5a/3x3_reduce
I0403 15:29:08.053220 12002 net.cpp:141] Setting up inception_5a/3x3_reduce
I0403 15:29:08.053252 12002 net.cpp:148] Top shape: 24 160 7 7 (188160)
I0403 15:29:08.053269 12002 net.cpp:156] Memory required for data: 1295286816
I0403 15:29:08.053287 12002 layer_factory.hpp:77] Creating layer inception_5a/relu_3x3_reduce
I0403 15:29:08.053306 12002 net.cpp:91] Creating Layer inception_5a/relu_3x3_reduce
I0403 15:29:08.053323 12002 net.cpp:425] inception_5a/relu_3x3_reduce <- inception_5a/3x3_reduce
I0403 15:29:08.053344 12002 net.cpp:386] inception_5a/relu_3x3_reduce -> inception_5a/3x3_reduce (in-place)
I0403 15:29:08.053535 12002 net.cpp:141] Setting up inception_5a/relu_3x3_reduce
I0403 15:29:08.053560 12002 net.cpp:148] Top shape: 24 160 7 7 (188160)
I0403 15:29:08.053575 12002 net.cpp:156] Memory required for data: 1296039456
I0403 15:29:08.053591 12002 layer_factory.hpp:77] Creating layer inception_5a/3x3
I0403 15:29:08.053612 12002 net.cpp:91] Creating Layer inception_5a/3x3
I0403 15:29:08.053629 12002 net.cpp:425] inception_5a/3x3 <- inception_5a/3x3_reduce
I0403 15:29:08.053652 12002 net.cpp:399] inception_5a/3x3 -> inception_5a/3x3
I0403 15:29:08.058751 12002 net.cpp:141] Setting up inception_5a/3x3
I0403 15:29:08.058782 12002 net.cpp:148] Top shape: 24 320 7 7 (376320)
I0403 15:29:08.058799 12002 net.cpp:156] Memory required for data: 1297544736
I0403 15:29:08.058818 12002 layer_factory.hpp:77] Creating layer inception_5a/relu_3x3
I0403 15:29:08.058841 12002 net.cpp:91] Creating Layer inception_5a/relu_3x3
I0403 15:29:08.058861 12002 net.cpp:425] inception_5a/relu_3x3 <- inception_5a/3x3
I0403 15:29:08.058878 12002 net.cpp:386] inception_5a/relu_3x3 -> inception_5a/3x3 (in-place)
I0403 15:29:08.059176 12002 net.cpp:141] Setting up inception_5a/relu_3x3
I0403 15:29:08.059204 12002 net.cpp:148] Top shape: 24 320 7 7 (376320)
I0403 15:29:08.059221 12002 net.cpp:156] Memory required for data: 1299050016
I0403 15:29:08.059237 12002 layer_factory.hpp:77] Creating layer inception_5a/5x5_reduce
I0403 15:29:08.059258 12002 net.cpp:91] Creating Layer inception_5a/5x5_reduce
I0403 15:29:08.059275 12002 net.cpp:425] inception_5a/5x5_reduce <- pool4/3x3_s2_pool4/3x3_s2_0_split_2
I0403 15:29:08.059299 12002 net.cpp:399] inception_5a/5x5_reduce -> inception_5a/5x5_reduce
I0403 15:29:08.060537 12002 net.cpp:141] Setting up inception_5a/5x5_reduce
I0403 15:29:08.060571 12002 net.cpp:148] Top shape: 24 32 7 7 (37632)
I0403 15:29:08.060590 12002 net.cpp:156] Memory required for data: 1299200544
I0403 15:29:08.060608 12002 layer_factory.hpp:77] Creating layer inception_5a/relu_5x5_reduce
I0403 15:29:08.060626 12002 net.cpp:91] Creating Layer inception_5a/relu_5x5_reduce
I0403 15:29:08.060643 12002 net.cpp:425] inception_5a/relu_5x5_reduce <- inception_5a/5x5_reduce
I0403 15:29:08.060662 12002 net.cpp:386] inception_5a/relu_5x5_reduce -> inception_5a/5x5_reduce (in-place)
I0403 15:29:08.060961 12002 net.cpp:141] Setting up inception_5a/relu_5x5_reduce
I0403 15:29:08.060991 12002 net.cpp:148] Top shape: 24 32 7 7 (37632)
I0403 15:29:08.061007 12002 net.cpp:156] Memory required for data: 1299351072
I0403 15:29:08.061022 12002 layer_factory.hpp:77] Creating layer inception_5a/5x5
I0403 15:29:08.061040 12002 net.cpp:91] Creating Layer inception_5a/5x5
I0403 15:29:08.061056 12002 net.cpp:425] inception_5a/5x5 <- inception_5a/5x5_reduce
I0403 15:29:08.061077 12002 net.cpp:399] inception_5a/5x5 -> inception_5a/5x5
I0403 15:29:08.062855 12002 net.cpp:141] Setting up inception_5a/5x5
I0403 15:29:08.062896 12002 net.cpp:148] Top shape: 24 128 7 7 (150528)
I0403 15:29:08.062914 12002 net.cpp:156] Memory required for data: 1299953184
I0403 15:29:08.062933 12002 layer_factory.hpp:77] Creating layer inception_5a/relu_5x5
I0403 15:29:08.062954 12002 net.cpp:91] Creating Layer inception_5a/relu_5x5
I0403 15:29:08.062973 12002 net.cpp:425] inception_5a/relu_5x5 <- inception_5a/5x5
I0403 15:29:08.062991 12002 net.cpp:386] inception_5a/relu_5x5 -> inception_5a/5x5 (in-place)
I0403 15:29:08.063182 12002 net.cpp:141] Setting up inception_5a/relu_5x5
I0403 15:29:08.063211 12002 net.cpp:148] Top shape: 24 128 7 7 (150528)
I0403 15:29:08.063230 12002 net.cpp:156] Memory required for data: 1300555296
I0403 15:29:08.063246 12002 layer_factory.hpp:77] Creating layer inception_5a/pool
I0403 15:29:08.063263 12002 net.cpp:91] Creating Layer inception_5a/pool
I0403 15:29:08.063279 12002 net.cpp:425] inception_5a/pool <- pool4/3x3_s2_pool4/3x3_s2_0_split_3
I0403 15:29:08.063298 12002 net.cpp:399] inception_5a/pool -> inception_5a/pool
I0403 15:29:08.063370 12002 net.cpp:141] Setting up inception_5a/pool
I0403 15:29:08.063412 12002 net.cpp:148] Top shape: 24 832 7 7 (978432)
I0403 15:29:08.063428 12002 net.cpp:156] Memory required for data: 1304469024
I0403 15:29:08.063443 12002 layer_factory.hpp:77] Creating layer inception_5a/pool_proj
I0403 15:29:08.063467 12002 net.cpp:91] Creating Layer inception_5a/pool_proj
I0403 15:29:08.063488 12002 net.cpp:425] inception_5a/pool_proj <- inception_5a/pool
I0403 15:29:08.063509 12002 net.cpp:399] inception_5a/pool_proj -> inception_5a/pool_proj
I0403 15:29:08.065814 12002 net.cpp:141] Setting up inception_5a/pool_proj
I0403 15:29:08.065845 12002 net.cpp:148] Top shape: 24 128 7 7 (150528)
I0403 15:29:08.065863 12002 net.cpp:156] Memory required for data: 1305071136
I0403 15:29:08.065881 12002 layer_factory.hpp:77] Creating layer inception_5a/relu_pool_proj
I0403 15:29:08.065903 12002 net.cpp:91] Creating Layer inception_5a/relu_pool_proj
I0403 15:29:08.065922 12002 net.cpp:425] inception_5a/relu_pool_proj <- inception_5a/pool_proj
I0403 15:29:08.065939 12002 net.cpp:386] inception_5a/relu_pool_proj -> inception_5a/pool_proj (in-place)
I0403 15:29:08.066239 12002 net.cpp:141] Setting up inception_5a/relu_pool_proj
I0403 15:29:08.066265 12002 net.cpp:148] Top shape: 24 128 7 7 (150528)
I0403 15:29:08.066282 12002 net.cpp:156] Memory required for data: 1305673248
I0403 15:29:08.066295 12002 layer_factory.hpp:77] Creating layer inception_5a/output
I0403 15:29:08.066313 12002 net.cpp:91] Creating Layer inception_5a/output
I0403 15:29:08.066329 12002 net.cpp:425] inception_5a/output <- inception_5a/1x1
I0403 15:29:08.066345 12002 net.cpp:425] inception_5a/output <- inception_5a/3x3
I0403 15:29:08.066365 12002 net.cpp:425] inception_5a/output <- inception_5a/5x5
I0403 15:29:08.066386 12002 net.cpp:425] inception_5a/output <- inception_5a/pool_proj
I0403 15:29:08.066404 12002 net.cpp:399] inception_5a/output -> inception_5a/output
I0403 15:29:08.066454 12002 net.cpp:141] Setting up inception_5a/output
I0403 15:29:08.066480 12002 net.cpp:148] Top shape: 24 832 7 7 (978432)
I0403 15:29:08.066495 12002 net.cpp:156] Memory required for data: 1309586976
I0403 15:29:08.066510 12002 layer_factory.hpp:77] Creating layer inception_5a/output_inception_5a/output_0_split
I0403 15:29:08.066527 12002 net.cpp:91] Creating Layer inception_5a/output_inception_5a/output_0_split
I0403 15:29:08.066542 12002 net.cpp:425] inception_5a/output_inception_5a/output_0_split <- inception_5a/output
I0403 15:29:08.066562 12002 net.cpp:399] inception_5a/output_inception_5a/output_0_split -> inception_5a/output_inception_5a/output_0_split_0
I0403 15:29:08.066583 12002 net.cpp:399] inception_5a/output_inception_5a/output_0_split -> inception_5a/output_inception_5a/output_0_split_1
I0403 15:29:08.066604 12002 net.cpp:399] inception_5a/output_inception_5a/output_0_split -> inception_5a/output_inception_5a/output_0_split_2
I0403 15:29:08.066624 12002 net.cpp:399] inception_5a/output_inception_5a/output_0_split -> inception_5a/output_inception_5a/output_0_split_3
I0403 15:29:08.066733 12002 net.cpp:141] Setting up inception_5a/output_inception_5a/output_0_split
I0403 15:29:08.066759 12002 net.cpp:148] Top shape: 24 832 7 7 (978432)
I0403 15:29:08.066777 12002 net.cpp:148] Top shape: 24 832 7 7 (978432)
I0403 15:29:08.066792 12002 net.cpp:148] Top shape: 24 832 7 7 (978432)
I0403 15:29:08.066807 12002 net.cpp:148] Top shape: 24 832 7 7 (978432)
I0403 15:29:08.066820 12002 net.cpp:156] Memory required for data: 1325241888
I0403 15:29:08.066835 12002 layer_factory.hpp:77] Creating layer inception_5b/1x1
I0403 15:29:08.066855 12002 net.cpp:91] Creating Layer inception_5b/1x1
I0403 15:29:08.066871 12002 net.cpp:425] inception_5b/1x1 <- inception_5a/output_inception_5a/output_0_split_0
I0403 15:29:08.066892 12002 net.cpp:399] inception_5b/1x1 -> inception_5b/1x1
I0403 15:29:08.070737 12002 net.cpp:141] Setting up inception_5b/1x1
I0403 15:29:08.070768 12002 net.cpp:148] Top shape: 24 384 7 7 (451584)
I0403 15:29:08.070786 12002 net.cpp:156] Memory required for data: 1327048224
I0403 15:29:08.070806 12002 layer_factory.hpp:77] Creating layer inception_5b/relu_1x1
I0403 15:29:08.070823 12002 net.cpp:91] Creating Layer inception_5b/relu_1x1
I0403 15:29:08.070842 12002 net.cpp:425] inception_5b/relu_1x1 <- inception_5b/1x1
I0403 15:29:08.070861 12002 net.cpp:386] inception_5b/relu_1x1 -> inception_5b/1x1 (in-place)
I0403 15:29:08.071171 12002 net.cpp:141] Setting up inception_5b/relu_1x1
I0403 15:29:08.071198 12002 net.cpp:148] Top shape: 24 384 7 7 (451584)
I0403 15:29:08.071214 12002 net.cpp:156] Memory required for data: 1328854560
I0403 15:29:08.071229 12002 layer_factory.hpp:77] Creating layer inception_5b/3x3_reduce
I0403 15:29:08.071254 12002 net.cpp:91] Creating Layer inception_5b/3x3_reduce
I0403 15:29:08.071271 12002 net.cpp:425] inception_5b/3x3_reduce <- inception_5a/output_inception_5a/output_0_split_1
I0403 15:29:08.071295 12002 net.cpp:399] inception_5b/3x3_reduce -> inception_5b/3x3_reduce
I0403 15:29:08.074025 12002 net.cpp:141] Setting up inception_5b/3x3_reduce
I0403 15:29:08.074057 12002 net.cpp:148] Top shape: 24 192 7 7 (225792)
I0403 15:29:08.074075 12002 net.cpp:156] Memory required for data: 1329757728
I0403 15:29:08.074095 12002 layer_factory.hpp:77] Creating layer inception_5b/relu_3x3_reduce
I0403 15:29:08.074115 12002 net.cpp:91] Creating Layer inception_5b/relu_3x3_reduce
I0403 15:29:08.074134 12002 net.cpp:425] inception_5b/relu_3x3_reduce <- inception_5b/3x3_reduce
I0403 15:29:08.074152 12002 net.cpp:386] inception_5b/relu_3x3_reduce -> inception_5b/3x3_reduce (in-place)
I0403 15:29:08.074342 12002 net.cpp:141] Setting up inception_5b/relu_3x3_reduce
I0403 15:29:08.074369 12002 net.cpp:148] Top shape: 24 192 7 7 (225792)
I0403 15:29:08.074389 12002 net.cpp:156] Memory required for data: 1330660896
I0403 15:29:08.074405 12002 layer_factory.hpp:77] Creating layer inception_5b/3x3
I0403 15:29:08.074427 12002 net.cpp:91] Creating Layer inception_5b/3x3
I0403 15:29:08.074445 12002 net.cpp:425] inception_5b/3x3 <- inception_5b/3x3_reduce
I0403 15:29:08.074466 12002 net.cpp:399] inception_5b/3x3 -> inception_5b/3x3
I0403 15:29:08.081313 12002 net.cpp:141] Setting up inception_5b/3x3
I0403 15:29:08.081343 12002 net.cpp:148] Top shape: 24 384 7 7 (451584)
I0403 15:29:08.081363 12002 net.cpp:156] Memory required for data: 1332467232
I0403 15:29:08.081387 12002 layer_factory.hpp:77] Creating layer inception_5b/relu_3x3
I0403 15:29:08.081410 12002 net.cpp:91] Creating Layer inception_5b/relu_3x3
I0403 15:29:08.081429 12002 net.cpp:425] inception_5b/relu_3x3 <- inception_5b/3x3
I0403 15:29:08.081449 12002 net.cpp:386] inception_5b/relu_3x3 -> inception_5b/3x3 (in-place)
I0403 15:29:08.081744 12002 net.cpp:141] Setting up inception_5b/relu_3x3
I0403 15:29:08.081771 12002 net.cpp:148] Top shape: 24 384 7 7 (451584)
I0403 15:29:08.081787 12002 net.cpp:156] Memory required for data: 1334273568
I0403 15:29:08.081802 12002 layer_factory.hpp:77] Creating layer inception_5b/5x5_reduce
I0403 15:29:08.081843 12002 net.cpp:91] Creating Layer inception_5b/5x5_reduce
I0403 15:29:08.081863 12002 net.cpp:425] inception_5b/5x5_reduce <- inception_5a/output_inception_5a/output_0_split_2
I0403 15:29:08.081887 12002 net.cpp:399] inception_5b/5x5_reduce -> inception_5b/5x5_reduce
I0403 15:29:08.083163 12002 net.cpp:141] Setting up inception_5b/5x5_reduce
I0403 15:29:08.083194 12002 net.cpp:148] Top shape: 24 48 7 7 (56448)
I0403 15:29:08.083210 12002 net.cpp:156] Memory required for data: 1334499360
I0403 15:29:08.083230 12002 layer_factory.hpp:77] Creating layer inception_5b/relu_5x5_reduce
I0403 15:29:08.083248 12002 net.cpp:91] Creating Layer inception_5b/relu_5x5_reduce
I0403 15:29:08.083266 12002 net.cpp:425] inception_5b/relu_5x5_reduce <- inception_5b/5x5_reduce
I0403 15:29:08.083287 12002 net.cpp:386] inception_5b/relu_5x5_reduce -> inception_5b/5x5_reduce (in-place)
I0403 15:29:08.083699 12002 net.cpp:141] Setting up inception_5b/relu_5x5_reduce
I0403 15:29:08.083726 12002 net.cpp:148] Top shape: 24 48 7 7 (56448)
I0403 15:29:08.083741 12002 net.cpp:156] Memory required for data: 1334725152
I0403 15:29:08.083757 12002 layer_factory.hpp:77] Creating layer inception_5b/5x5
I0403 15:29:08.083777 12002 net.cpp:91] Creating Layer inception_5b/5x5
I0403 15:29:08.083794 12002 net.cpp:425] inception_5b/5x5 <- inception_5b/5x5_reduce
I0403 15:29:08.083813 12002 net.cpp:399] inception_5b/5x5 -> inception_5b/5x5
I0403 15:29:08.085882 12002 net.cpp:141] Setting up inception_5b/5x5
I0403 15:29:08.085911 12002 net.cpp:148] Top shape: 24 128 7 7 (150528)
I0403 15:29:08.085927 12002 net.cpp:156] Memory required for data: 1335327264
I0403 15:29:08.085945 12002 layer_factory.hpp:77] Creating layer inception_5b/relu_5x5
I0403 15:29:08.085964 12002 net.cpp:91] Creating Layer inception_5b/relu_5x5
I0403 15:29:08.085980 12002 net.cpp:425] inception_5b/relu_5x5 <- inception_5b/5x5
I0403 15:29:08.085997 12002 net.cpp:386] inception_5b/relu_5x5 -> inception_5b/5x5 (in-place)
I0403 15:29:08.086187 12002 net.cpp:141] Setting up inception_5b/relu_5x5
I0403 15:29:08.086213 12002 net.cpp:148] Top shape: 24 128 7 7 (150528)
I0403 15:29:08.086228 12002 net.cpp:156] Memory required for data: 1335929376
I0403 15:29:08.086242 12002 layer_factory.hpp:77] Creating layer inception_5b/pool
I0403 15:29:08.086259 12002 net.cpp:91] Creating Layer inception_5b/pool
I0403 15:29:08.086274 12002 net.cpp:425] inception_5b/pool <- inception_5a/output_inception_5a/output_0_split_3
I0403 15:29:08.086294 12002 net.cpp:399] inception_5b/pool -> inception_5b/pool
I0403 15:29:08.086370 12002 net.cpp:141] Setting up inception_5b/pool
I0403 15:29:08.086397 12002 net.cpp:148] Top shape: 24 832 7 7 (978432)
I0403 15:29:08.086413 12002 net.cpp:156] Memory required for data: 1339843104
I0403 15:29:08.086427 12002 layer_factory.hpp:77] Creating layer inception_5b/pool_proj
I0403 15:29:08.086448 12002 net.cpp:91] Creating Layer inception_5b/pool_proj
I0403 15:29:08.086464 12002 net.cpp:425] inception_5b/pool_proj <- inception_5b/pool
I0403 15:29:08.086484 12002 net.cpp:399] inception_5b/pool_proj -> inception_5b/pool_proj
I0403 15:29:08.088795 12002 net.cpp:141] Setting up inception_5b/pool_proj
I0403 15:29:08.088825 12002 net.cpp:148] Top shape: 24 128 7 7 (150528)
I0403 15:29:08.088843 12002 net.cpp:156] Memory required for data: 1340445216
I0403 15:29:08.088861 12002 layer_factory.hpp:77] Creating layer inception_5b/relu_pool_proj
I0403 15:29:08.088881 12002 net.cpp:91] Creating Layer inception_5b/relu_pool_proj
I0403 15:29:08.088898 12002 net.cpp:425] inception_5b/relu_pool_proj <- inception_5b/pool_proj
I0403 15:29:08.088915 12002 net.cpp:386] inception_5b/relu_pool_proj -> inception_5b/pool_proj (in-place)
I0403 15:29:08.089208 12002 net.cpp:141] Setting up inception_5b/relu_pool_proj
I0403 15:29:08.089234 12002 net.cpp:148] Top shape: 24 128 7 7 (150528)
I0403 15:29:08.089249 12002 net.cpp:156] Memory required for data: 1341047328
I0403 15:29:08.089263 12002 layer_factory.hpp:77] Creating layer inception_5b/output
I0403 15:29:08.089279 12002 net.cpp:91] Creating Layer inception_5b/output
I0403 15:29:08.089313 12002 net.cpp:425] inception_5b/output <- inception_5b/1x1
I0403 15:29:08.089330 12002 net.cpp:425] inception_5b/output <- inception_5b/3x3
I0403 15:29:08.089346 12002 net.cpp:425] inception_5b/output <- inception_5b/5x5
I0403 15:29:08.089361 12002 net.cpp:425] inception_5b/output <- inception_5b/pool_proj
I0403 15:29:08.089385 12002 net.cpp:399] inception_5b/output -> inception_5b/output
I0403 15:29:08.089438 12002 net.cpp:141] Setting up inception_5b/output
I0403 15:29:08.089462 12002 net.cpp:148] Top shape: 24 1024 7 7 (1204224)
I0403 15:29:08.089475 12002 net.cpp:156] Memory required for data: 1345864224
I0403 15:29:08.089490 12002 layer_factory.hpp:77] Creating layer pool5/7x7_s1
I0403 15:29:08.089507 12002 net.cpp:91] Creating Layer pool5/7x7_s1
I0403 15:29:08.089521 12002 net.cpp:425] pool5/7x7_s1 <- inception_5b/output
I0403 15:29:08.089540 12002 net.cpp:399] pool5/7x7_s1 -> pool5/7x7_s1
I0403 15:29:08.089751 12002 net.cpp:141] Setting up pool5/7x7_s1
I0403 15:29:08.089774 12002 net.cpp:148] Top shape: 24 1024 1 1 (24576)
I0403 15:29:08.089788 12002 net.cpp:156] Memory required for data: 1345962528
I0403 15:29:08.089802 12002 layer_factory.hpp:77] Creating layer pool5/drop_7x7_s1
I0403 15:29:08.089821 12002 net.cpp:91] Creating Layer pool5/drop_7x7_s1
I0403 15:29:08.089838 12002 net.cpp:425] pool5/drop_7x7_s1 <- pool5/7x7_s1
I0403 15:29:08.089854 12002 net.cpp:386] pool5/drop_7x7_s1 -> pool5/7x7_s1 (in-place)
I0403 15:29:08.089905 12002 net.cpp:141] Setting up pool5/drop_7x7_s1
I0403 15:29:08.089927 12002 net.cpp:148] Top shape: 24 1024 1 1 (24576)
I0403 15:29:08.089941 12002 net.cpp:156] Memory required for data: 1346060832
I0403 15:29:08.089956 12002 layer_factory.hpp:77] Creating layer loss3/classifier_plantvillage
I0403 15:29:08.089973 12002 net.cpp:91] Creating Layer loss3/classifier_plantvillage
I0403 15:29:08.089989 12002 net.cpp:425] loss3/classifier_plantvillage <- pool5/7x7_s1
I0403 15:29:08.090009 12002 net.cpp:399] loss3/classifier_plantvillage -> loss3/classifier_plantvillage
I0403 15:29:08.090435 12002 net.cpp:141] Setting up loss3/classifier_plantvillage
I0403 15:29:08.090459 12002 net.cpp:148] Top shape: 24 38 (912)
I0403 15:29:08.090473 12002 net.cpp:156] Memory required for data: 1346064480
I0403 15:29:08.090490 12002 layer_factory.hpp:77] Creating layer loss3/classifier_plantvillage_loss3/classifier_plantvillage_0_split
I0403 15:29:08.090508 12002 net.cpp:91] Creating Layer loss3/classifier_plantvillage_loss3/classifier_plantvillage_0_split
I0403 15:29:08.090523 12002 net.cpp:425] loss3/classifier_plantvillage_loss3/classifier_plantvillage_0_split <- loss3/classifier_plantvillage
I0403 15:29:08.090543 12002 net.cpp:399] loss3/classifier_plantvillage_loss3/classifier_plantvillage_0_split -> loss3/classifier_plantvillage_loss3/classifier_plantvillage_0_split_0
I0403 15:29:08.090564 12002 net.cpp:399] loss3/classifier_plantvillage_loss3/classifier_plantvillage_0_split -> loss3/classifier_plantvillage_loss3/classifier_plantvillage_0_split_1
I0403 15:29:08.090584 12002 net.cpp:399] loss3/classifier_plantvillage_loss3/classifier_plantvillage_0_split -> loss3/classifier_plantvillage_loss3/classifier_plantvillage_0_split_2
I0403 15:29:08.090602 12002 net.cpp:399] loss3/classifier_plantvillage_loss3/classifier_plantvillage_0_split -> loss3/classifier_plantvillage_loss3/classifier_plantvillage_0_split_3
I0403 15:29:08.090699 12002 net.cpp:141] Setting up loss3/classifier_plantvillage_loss3/classifier_plantvillage_0_split
I0403 15:29:08.090723 12002 net.cpp:148] Top shape: 24 38 (912)
I0403 15:29:08.090737 12002 net.cpp:148] Top shape: 24 38 (912)
I0403 15:29:08.090752 12002 net.cpp:148] Top shape: 24 38 (912)
I0403 15:29:08.090766 12002 net.cpp:148] Top shape: 24 38 (912)
I0403 15:29:08.090780 12002 net.cpp:156] Memory required for data: 1346079072
I0403 15:29:08.090793 12002 layer_factory.hpp:77] Creating layer loss1/loss
I0403 15:29:08.090813 12002 net.cpp:91] Creating Layer loss1/loss
I0403 15:29:08.090829 12002 net.cpp:425] loss1/loss <- loss1/classifier_plantvillage_loss1/classifier_plantvillage_0_split_0
I0403 15:29:08.090859 12002 net.cpp:425] loss1/loss <- label_data_1_split_0
…
