…
I0403 15:08:22.077378 11633 net.cpp:313] The NetState phase (1) differed from the phase (0) specified by a rule in layer data
I0403 15:08:22.078605 11633 net.cpp:49] Initializing net from parameters: 
state {
  phase: TEST
}
layer {
  name: "data"
  type: "Data"
  top: "data"
  top: "label"
  include {
    phase: TEST
  }
  transform_param {
    mirror: false
    crop_size: 224
    mean_file: "/home/mohanty/data/final_dataset/lmdb/segmented-50-50/mean.binaryproto"
  }
  data_param {
    source: "/home/mohanty/data/final_dataset/lmdb/segmented-50-50/test_db"
    batch_size: 24
    backend: LMDB
  }
}
layer {
  name: "conv1/7x7_s2"
  type: "Convolution"
  bottom: "data"
  top: "conv1/7x7_s2"
  param {
    lr_mult: 1
    decay_mult: 1
  }
  param {
    lr_mult: 2
    decay_mult: 0
  }
  convolution_param {
    num_output: 64
    pad: 3
    kernel_size: 7
    stride: 2
    weight_filler {
      type: "xavier"
      std: 0.1
    }
    bias_filler {
      type: "constant"
      value: 0.2
    }
  }
}
layer {
  name: "conv1/relu_7x7"
  type: "ReLU"
  bottom: "conv1/7x7_s2"
  top: "conv1/7x7_s2"
}
layer {
  name: "pool1/3x3_s2"
  type: "Pooling"
  bottom: "conv1/7x7_s2"
  top: "pool1/3x3_s2"
  pooling_param {
    pool: MAX
    kernel_size: 3
    stride: 2
  }
}
layer {
  name: "pool1/norm1"
  type: "LRN"
  bottom: "pool1/3x3_s2"
  top: "pool1/norm1"
  lrn_param {
    local_size: 5
    alpha: 0.0001
    beta: 0.75
  }
}
layer {
  name: "conv2/3x3_reduce"
  type: "Convolution"
  bottom: "pool1/norm1"
  top: "conv2/3x3_reduce"
  param {
    lr_mult: 1
    decay_mult: 1
  }
  param {
    lr_mult: 2
    decay_mult: 0
  }
  convolution_param {
    num_output: 64
    kernel_size: 1
    weight_filler {
      type: "xavier"
      std: 0.1
    }
    bias_filler {
      type: "constant"
      value: 0.2
    }
  }
}
layer {
  name: "conv2/relu_3x3_reduce"
  type: "ReLU"
  bottom: "conv2/3x3_reduce"
  top: "conv2/3x3_reduce"
}
layer {
  name: "conv2/3x3"
  type: "Convolution"
  bottom: "conv2/3x3_reduce"
  top: "conv2/3x3"
  param {
    lr_mult: 1
    decay_mult: 1
  }
  param {
    lr_mult: 2
    decay_mult: 0
  }
  convolution_param {
    num_output: 192
    pad: 1
    kernel_size: 3
    weight_filler {
      type: "xavier"
      std: 0.03
    }
    bias_filler {
      type: "constant"
      value: 0.2
    }
  }
}
layer {
  name: "conv2/relu_3x3"
  type: "ReLU"
  bottom: "conv2/3x3"
  top: "conv2/3x3"
}
layer {
  name: "conv2/norm2"
  type: "LRN"
  bottom: "conv2/3x3"
  top: "conv2/norm2"
  lrn_param {
    local_size: 5
    alpha: 0.0001
    beta: 0.75
  }
}
layer {
  name: "pool2/3x3_s2"
  type: "Pooling"
  bottom: "conv2/norm2"
  top: "pool2/3x3_s2"
  pooling_param {
    pool: MAX
    kernel_size: 3
    stride: 2
  }
}
layer {
  name: "inception_3a/1x1"
  type: "Convolution"
  bottom: "pool2/3x3_s2"
  top: "inception_3a/1x1"
  param {
    lr_mult: 1
    decay_mult: 1
  }
  param {
    lr_mult: 2
    decay_mult: 0
  }
  convolution_param {
    num_output: 64
    kernel_size: 1
    weight_filler {
      type: "xavier"
      std: 0.03
    }
    bias_filler {
      type: "constant"
      value: 0.2
    }
  }
}
layer {
  name: "inception_3a/relu_1x1"
  type: "ReLU"
  bottom: "inception_3a/1x1"
  top: "inception_3a/1x1"
}
layer {
  name: "inception_3a/3x3_reduce"
  type: "Convolution"
  bottom: "pool2/3x3_s2"
  top: "inception_3a/3x3_reduce"
  param {
    lr_mult: 1
    decay_mult: 1
  }
  param {
    lr_mult: 2
    decay_mult: 0
  }
  convolution_param {
    num_output: 96
    kernel_size: 1
    weight_filler {
      type: "xavier"
      std: 0.09
    }
    bias_filler {
      type: "constant"
      value: 0.2
    }
  }
}
layer {
  name: "inception_3a/relu_3x3_reduce"
  type: "ReLU"
  bottom: "inception_3a/3x3_reduce"
  top: "inception_3a/3x3_reduce"
}
layer {
  name: "inception_3a/3x3"
  type: "Convolution"
  bottom: "inception_3a/3x3_reduce"
  top: "inception_3a/3x3"
  param {
    lr_mult: 1
    decay_mult: 1
  }
  param {
    lr_mult: 2
    decay_mult: 0
  }
  convolution_param {
    num_output: 128
    pad: 1
    kernel_size: 3
    weight_filler {
      type: "xavier"
      std: 0.03
    }
    bias_filler {
      type: "constant"
      value: 0.2
    }
  }
}
layer {
  name: "inception_3a/relu_3x3"
  type: "ReLU"
  bottom: "inception_3a/3x3"
  top: "inception_3a/3x3"
}
layer {
  name: "inception_3a/5x5_reduce"
  type: "Convolution"
  bottom: "pool2/3x3_s2"
  top: "inception_3a/5x5_reduce"
  param {
    lr_mult: 1
    decay_mult: 1
  }
  param {
    lr_mult: 2
    decay_mult: 0
  }
  convolution_param {
    num_output: 16
    kernel_size: 1
    weight_filler {
      type: "xavier"
      std: 0.2
    }
    bias_filler {
      type: "constant"
      value: 0.2
    }
  }
}
layer {
  name: "inception_3a/relu_5x5_reduce"
  type: "ReLU"
  bottom: "inception_3a/5x5_reduce"
  top: "inception_3a/5x5_reduce"
}
layer {
  name: "inception_3a/5x5"
  type: "Convolution"
  bottom: "inception_3a/5x5_reduce"
  top: "inception_3a/5x5"
  param {
    lr_mult: 1
    decay_mult: 1
  }
  param {
    lr_mult: 2
    decay_mult: 0
  }
  convolution_param {
    num_output: 32
    pad: 2
    kernel_size: 5
    weight_filler {
      type: "xavier"
      std: 0.03
    }
    bias_filler {
      type: "constant"
      value: 0.2
    }
  }
}
layer {
  name: "inception_3a/relu_5x5"
  type: "ReLU"
  bottom: "inception_3a/5x5"
  top: "inception_3a/5x5"
}
layer {
  name: "inception_3a/pool"
  type: "Pooling"
  bottom: "pool2/3x3_s2"
  top: "inception_3a/pool"
  pooling_param {
    pool: MAX
    kernel_size: 3
    stride: 1
    pad: 1
  }
}
layer {
  name: "inception_3a/pool_proj"
  type: "Convolution"
  bottom: "inception_3a/pool"
  top: "inception_3a/pool_proj"
  param {
    lr_mult: 1
    decay_mult: 1
  }
  param {
    lr_mult: 2
    decay_mult: 0
  }
  convolution_param {
    num_output: 32
    kernel_size: 1
    weight_filler {
      type: "xavier"
      std: 0.1
    }
    bias_filler {
      type: "constant"
      value: 0.2
    }
  }
}
layer {
  name: "inception_3a/relu_pool_proj"
  type: "ReLU"
  bottom: "inception_3a/pool_proj"
  top: "inception_3a/pool_proj"
}
layer {
  name: "inception_3a/output"
  type: "Concat"
  bottom: "inception_3a/1x1"
  bottom: "inception_3a/3x3"
  bottom: "inception_3a/5x5"
  bottom: "inception_3a/pool_proj"
  top: "inception_3a/output"
}
layer {
  name: "inception_3b/1x1"
  type: "Convolution"
  bottom: "inception_3a/output"
  top: "inception_3b/1x1"
  param {
    lr_mult: 1
    decay_mult: 1
  }
  param {
    lr_mult: 2
    decay_mult: 0
  }
  convolution_param {
    num_output: 128
    kernel_size: 1
    weight_filler {
      type: "xavier"
      std: 0.03
    }
    bias_filler {
      type: "constant"
      value: 0.2
    }
  }
}
layer {
  name: "inception_3b/relu_1x1"
  type: "ReLU"
  bottom: "inception_3b/1x1"
  top: "inception_3b/1x1"
}
layer {
  name: "inception_3b/3x3_reduce"
  type: "Convolution"
  bottom: "inception_3a/output"
  top: "inception_3b/3x3_reduce"
  param {
    lr_mult: 1
    decay_mult: 1
  }
  param {
    lr_mult: 2
    decay_mult: 0
  }
  convolution_param {
    num_output: 128
    kernel_size: 1
    weight_filler {
      type: "xavier"
      std: 0.09
    }
    bias_filler {
      type: "constant"
      value: 0.2
    }
  }
}
layer {
  name: "inception_3b/relu_3x3_reduce"
  type: "ReLU"
  bottom: "inception_3b/3x3_reduce"
  top: "inception_3b/3x3_reduce"
}
layer {
  name: "inception_3b/3x3"
  type: "Convolution"
  bottom: "inception_3b/3x3_reduce"
  top: "inception_3b/3x3"
  param {
    lr_mult: 1
    decay_mult: 1
  }
  param {
    lr_mult: 2
    decay_mult: 0
  }
  convolution_param {
    num_output: 192
    pad: 1
    kernel_size: 3
    weight_filler {
      type: "xavier"
      std: 0.03
    }
    bias_filler {
      type: "constant"
      value: 0.2
    }
  }
}
layer {
  name: "inception_3b/relu_3x3"
  type: "ReLU"
  bottom: "inception_3b/3x3"
  top: "inception_3b/3x3"
}
layer {
  name: "inception_3b/5x5_reduce"
  type: "Convolution"
  bottom: "inception_3a/output"
  top: "inception_3b/5x5_reduce"
  param {
    lr_mult: 1
    decay_mult: 1
  }
  param {
    lr_mult: 2
    decay_mult: 0
  }
  convolution_param {
    num_output: 32
    kernel_size: 1
    weight_filler {
      type: "xavier"
      std: 0.2
    }
    bias_filler {
      type: "constant"
      value: 0.2
    }
  }
}
layer {
  name: "inception_3b/relu_5x5_reduce"
  type: "ReLU"
  bottom: "inception_3b/5x5_reduce"
  top: "inception_3b/5x5_reduce"
}
layer {
  name: "inception_3b/5x5"
  type: "Convolution"
  bottom: "inception_3b/5x5_reduce"
  top: "inception_3b/5x5"
  param {
    lr_mult: 1
    decay_mult: 1
  }
  param {
    lr_mult: 2
    decay_mult: 0
  }
  convolution_param {
    num_output: 96
    pad: 2
    kernel_size: 5
    weight_filler {
      type: "xavier"
      std: 0.03
    }
    bias_filler {
      type: "constant"
      value: 0.2
    }
  }
}
layer {
  name: "inception_3b/relu_5x5"
  type: "ReLU"
  bottom: "inception_3b/5x5"
  top: "inception_3b/5x5"
}
layer {
  name: "inception_3b/pool"
  type: "Pooling"
  bottom: "inception_3a/output"
  top: "inception_3b/pool"
  pooling_param {
    pool: MAX
    kernel_size: 3
    stride: 1
    pad: 1
  }
}
layer {
  name: "inception_3b/pool_proj"
  type: "Convolution"
  bottom: "inception_3b/pool"
  top: "inception_3b/pool_proj"
  param {
    lr_mult: 1
    decay_mult: 1
  }
  param {
    lr_mult: 2
    decay_mult: 0
  }
  convolution_param {
    num_output: 64
    kernel_size: 1
    weight_filler {
      type: "xavier"
      std: 0.1
    }
    bias_filler {
      type: "constant"
      value: 0.2
    }
  }
}
layer {
  name: "inception_3b/relu_pool_proj"
  type: "ReLU"
  bottom: "inception_3b/pool_proj"
  top: "inception_3b/pool_proj"
}
layer {
  name: "inception_3b/output"
  type: "Concat"
  bottom: "inception_3b/1x1"
  bottom: "inception_3b/3x3"
  bottom: "inception_3b/5x5"
  bottom: "inception_3b/pool_proj"
  top: "inception_3b/output"
}
layer {
  name: "pool3/3x3_s2"
  type: "Pooling"
  bottom: "inception_3b/output"
  top: "pool3/3x3_s2"
  pooling_param {
    pool: MAX
    kernel_size: 3
    stride: 2
  }
}
layer {
  name: "inception_4a/1x1"
  type: "Convolution"
  bottom: "pool3/3x3_s2"
  top: "inception_4a/1x1"
  param {
    lr_mult: 1
    decay_mult: 1
  }
  param {
    lr_mult: 2
    decay_mult: 0
  }
  convolution_param {
    num_output: 192
    kernel_size: 1
    weight_filler {
      type: "xavier"
      std: 0.03
    }
    bias_filler {
      type: "constant"
      value: 0.2
    }
  }
}
layer {
  name: "inception_4a/relu_1x1"
  type: "ReLU"
  bottom: "inception_4a/1x1"
  top: "inception_4a/1x1"
}
layer {
  name: "inception_4a/3x3_reduce"
  type: "Convolution"
  bottom: "pool3/3x3_s2"
  top: "inception_4a/3x3_reduce"
  param {
    lr_mult: 1
    decay_mult: 1
  }
  param {
    lr_mult: 2
    decay_mult: 0
  }
  convolution_param {
    num_output: 96
    kernel_size: 1
    weight_filler {
      type: "xavier"
      std: 0.09
    }
    bias_filler {
      type: "constant"
      value: 0.2
    }
  }
}
layer {
  name: "inception_4a/relu_3x3_reduce"
  type: "ReLU"
  bottom: "inception_4a/3x3_reduce"
  top: "inception_4a/3x3_reduce"
}
layer {
  name: "inception_4a/3x3"
  type: "Convolution"
  bottom: "inception_4a/3x3_reduce"
  top: "inception_4a/3x3"
  param {
    lr_mult: 1
    decay_mult: 1
  }
  param {
    lr_mult: 2
    decay_mult: 0
  }
  convolution_param {
    num_output: 208
    pad: 1
    kernel_size: 3
    weight_filler {
      type: "xavier"
      std: 0.03
    }
    bias_filler {
      type: "constant"
      value: 0.2
    }
  }
}
layer {
  name: "inception_4a/relu_3x3"
  type: "ReLU"
  bottom: "inception_4a/3x3"
  top: "inception_4a/3x3"
}
layer {
  name: "inception_4a/5x5_reduce"
  type: "Convolution"
  bottom: "pool3/3x3_s2"
  top: "inception_4a/5x5_reduce"
  param {
    lr_mult: 1
    decay_mult: 1
  }
  param {
    lr_mult: 2
    decay_mult: 0
  }
  convolution_param {
    num_output: 16
    kernel_size: 1
    weight_filler {
      type: "xavier"
      std: 0.2
    }
    bias_filler {
      type: "constant"
      value: 0.2
    }
  }
}
layer {
  name: "inception_4a/relu_5x5_reduce"
  type: "ReLU"
  bottom: "inception_4a/5x5_reduce"
  top: "inception_4a/5x5_reduce"
}
layer {
  name: "inception_4a/5x5"
  type: "Convolution"
  bottom: "inception_4a/5x5_reduce"
  top: "inception_4a/5x5"
  param {
    lr_mult: 1
    decay_mult: 1
  }
  param {
    lr_mult: 2
    decay_mult: 0
  }
  convolution_param {
    num_output: 48
    pad: 2
    kernel_size: 5
    weight_filler {
      type: "xavier"
      std: 0.03
    }
    bias_filler {
      type: "constant"
      value: 0.2
    }
  }
}
layer {
  name: "inception_4a/relu_5x5"
  type: "ReLU"
  bottom: "inception_4a/5x5"
  top: "inception_4a/5x5"
}
layer {
  name: "inception_4a/pool"
  type: "Pooling"
  bottom: "pool3/3x3_s2"
  top: "inception_4a/pool"
  pooling_param {
    pool: MAX
    kernel_size: 3
    stride: 1
    pad: 1
  }
}
layer {
  name: "inception_4a/pool_proj"
  type: "Convolution"
  bottom: "inception_4a/pool"
  top: "inception_4a/pool_proj"
  param {
    lr_mult: 1
    decay_mult: 1
  }
  param {
    lr_mult: 2
    decay_mult: 0
  }
  convolution_param {
    num_output: 64
    kernel_size: 1
    weight_filler {
      type: "xavier"
      std: 0.1
    }
    bias_filler {
      type: "constant"
      value: 0.2
    }
  }
}
layer {
  name: "inception_4a/relu_pool_proj"
  type: "ReLU"
  bottom: "inception_4a/pool_proj"
  top: "inception_4a/pool_proj"
}
layer {
  name: "inception_4a/output"
  type: "Concat"
  bottom: "inception_4a/1x1"
  bottom: "inception_4a/3x3"
  bottom: "inception_4a/5x5"
  bottom: "inception_4a/pool_proj"
  top: "inception_4a/output"
}
layer {
  name: "loss1/ave_pool"
  type: "Pooling"
  bottom: "inception_4a/output"
  top: "loss1/ave_pool"
  pooling_param {
    pool: AVE
    kernel_size: 5
    stride: 3
  }
}
layer {
  name: "loss1/conv"
  type: "Convolution"
  bottom: "loss1/ave_pool"
  top: "loss1/conv"
  param {
    lr_mult: 1
    decay_mult: 1
  }
  param {
    lr_mult: 2
    decay_mult: 0
  }
  convolution_param {
    num_output: 128
    kernel_size: 1
    weight_filler {
      type: "xavier"
      std: 0.08
    }
    bias_filler {
      type: "constant"
      value: 0.2
    }
  }
}
layer {
  name: "loss1/relu_conv"
  type: "ReLU"
  bottom: "loss1/conv"
  top: "loss1/conv"
}
layer {
  name: "loss1/fc"
  type: "InnerProduct"
  bottom: "loss1/conv"
  top: "loss1/fc"
  param {
    lr_mult: 1
    decay_mult: 1
  }
  param {
    lr_mult: 2
    decay_mult: 0
  }
  inner_product_param {
    num_output: 1024
    weight_filler {
      type: "xavier"
      std: 0.02
    }
    bias_filler {
      type: "constant"
      value: 0.2
    }
  }
}
layer {
  name: "loss1/relu_fc"
  type: "ReLU"
  bottom: "loss1/fc"
  top: "loss1/fc"
}
layer {
  name: "loss1/drop_fc"
  type: "Dropout"
  bottom: "loss1/fc"
  top: "loss1/fc"
  dropout_param {
    dropout_ratio: 0.7
  }
}
layer {
  name: "loss1/classifier_plantvillage"
  type: "InnerProduct"
  bottom: "loss1/fc"
  top: "loss1/classifier_plantvillage"
  param {
    lr_mult: 1
    decay_mult: 1
  }
  param {
    lr_mult: 2
    decay_mult: 0
  }
  inner_product_param {
    num_output: 38
    weight_filler {
      type: "xavier"
      std: 0.0009765625
    }
    bias_filler {
      type: "constant"
      value: 0
    }
  }
}
layer {
  name: "inception_4b/1x1"
  type: "Convolution"
  bottom: "inception_4a/output"
  top: "inception_4b/1x1"
  param {
    lr_mult: 1
    decay_mult: 1
  }
  param {
    lr_mult: 2
    decay_mult: 0
  }
  convolution_param {
    num_output: 160
    kernel_size: 1
    weight_filler {
      type: "xavier"
      std: 0.03
    }
    bias_filler {
      type: "constant"
      value: 0.2
    }
  }
}
layer {
  name: "inception_4b/relu_1x1"
  type: "ReLU"
  bottom: "inception_4b/1x1"
  top: "inception_4b/1x1"
}
layer {
  name: "inception_4b/3x3_reduce"
  type: "Convolution"
  bottom: "inception_4a/output"
  top: "inception_4b/3x3_reduce"
  param {
    lr_mult: 1
    decay_mult: 1
  }
  param {
    lr_mult: 2
    decay_mult: 0
  }
  convolution_param {
    num_output: 112
    kernel_size: 1
    weight_filler {
      type: "xavier"
      std: 0.09
    }
    bias_filler {
      type: "constant"
      value: 0.2
    }
  }
}
layer {
  name: "inception_4b/relu_3x3_reduce"
  type: "ReLU"
  bottom: "inception_4b/3x3_reduce"
  top: "inception_4b/3x3_reduce"
}
layer {
  name: "inception_4b/3x3"
  type: "Convolution"
  bottom: "inception_4b/3x3_reduce"
  top: "inception_4b/3x3"
  param {
    lr_mult: 1
    decay_mult: 1
  }
  param {
    lr_mult: 2
    decay_mult: 0
  }
  convolution_param {
    num_output: 224
    pad: 1
    kernel_size: 3
    weight_filler {
      type: "xavier"
      std: 0.03
    }
    bias_filler {
      type: "constant"
      value: 0.2
    }
  }
}
layer {
  name: "inception_4b/relu_3x3"
  type: "ReLU"
  bottom: "inception_4b/3x3"
  top: "inception_4b/3x3"
}
layer {
  name: "inception_4b/5x5_reduce"
  type: "Convolution"
  bottom: "inception_4a/output"
  top: "inception_4b/5x5_reduce"
  param {
    lr_mult: 1
    decay_mult: 1
  }
  param {
    lr_mult: 2
    decay_mult: 0
  }
  convolution_param {
    num_output: 24
    kernel_size: 1
    weight_filler {
      type: "xavier"
      std: 0.2
    }
    bias_filler {
      type: "constant"
      value: 0.2
    }
  }
}
layer {
  name: "inception_4b/relu_5x5_reduce"
  type: "ReLU"
  bottom: "inception_4b/5x5_reduce"
  top: "inception_4b/5x5_reduce"
}
layer {
  name: "inception_4b/5x5"
  type: "Convolution"
  bottom: "inception_4b/5x5_reduce"
  top: "inception_4b/5x5"
  param {
    lr_mult: 1
    decay_mult: 1
  }
  param {
    lr_mult: 2
    decay_mult: 0
  }
  convolution_param {
    num_output: 64
    pad: 2
    kernel_size: 5
    weight_filler {
      type: "xavier"
      std: 0.03
    }
    bias_filler {
      type: "constant"
      value: 0.2
    }
  }
}
layer {
  name: "inception_4b/relu_5x5"
  type: "ReLU"
  bottom: "inception_4b/5x5"
  top: "inception_4b/5x5"
}
layer {
  name: "inception_4b/pool"
  type: "Pooling"
  bottom: "inception_4a/output"
  top: "inception_4b/pool"
  pooling_param {
    pool: MAX
    kernel_size: 3
    stride: 1
    pad: 1
  }
}
layer {
  name: "inception_4b/pool_proj"
  type: "Convolution"
  bottom: "inception_4b/pool"
  top: "inception_4b/pool_proj"
  param {
    lr_mult: 1
    decay_mult: 1
  }
  param {
    lr_mult: 2
    decay_mult: 0
  }
  convolution_param {
    num_output: 64
    kernel_size: 1
    weight_filler {
      type: "xavier"
      std: 0.1
    }
    bias_filler {
      type: "constant"
      value: 0.2
    }
  }
}
layer {
  name: "inception_4b/relu_pool_proj"
  type: "ReLU"
  bottom: "inception_4b/pool_proj"
  top: "inception_4b/pool_proj"
}
layer {
  name: "inception_4b/output"
  type: "Concat"
  bottom: "inception_4b/1x1"
  bottom: "inception_4b/3x3"
  bottom: "inception_4b/5x5"
  bottom: "inception_4b/pool_proj"
  top: "inception_4b/output"
}
layer {
  name: "inception_4c/1x1"
  type: "Convolution"
  bottom: "inception_4b/output"
  top: "inception_4c/1x1"
  param {
    lr_mult: 1
    decay_mult: 1
  }
  param {
    lr_mult: 2
    decay_mult: 0
  }
  convolution_param {
    num_output: 128
    kernel_size: 1
    weight_filler {
      type: "xavier"
      std: 0.03
    }
    bias_filler {
      type: "constant"
      value: 0.2
    }
  }
}
layer {
  name: "inception_4c/relu_1x1"
  type: "ReLU"
  bottom: "inception_4c/1x1"
  top: "inception_4c/1x1"
}
layer {
  name: "inception_4c/3x3_reduce"
  type: "Convolution"
  bottom: "inception_4b/output"
  top: "inception_4c/3x3_reduce"
  param {
    lr_mult: 1
    decay_mult: 1
  }
  param {
    lr_mult: 2
    decay_mult: 0
  }
  convolution_param {
    num_output: 128
    kernel_size: 1
    weight_filler {
      type: "xavier"
      std: 0.09
    }
    bias_filler {
      type: "constant"
      value: 0.2
    }
  }
}
layer {
  name: "inception_4c/relu_3x3_reduce"
  type: "ReLU"
  bottom: "inception_4c/3x3_reduce"
  top: "inception_4c/3x3_reduce"
}
layer {
  name: "inception_4c/3x3"
  type: "Convolution"
  bottom: "inception_4c/3x3_reduce"
  top: "inception_4c/3x3"
  param {
    lr_mult: 1
    decay_mult: 1
  }
  param {
    lr_mult: 2
    decay_mult: 0
  }
  convolution_param {
    num_output: 256
    pad: 1
    kernel_size: 3
    weight_filler {
      type: "xavier"
      std: 0.03
    }
    bias_filler {
      type: "constant"
      value: 0.2
    }
  }
}
layer {
  name: "inception_4c/relu_3x3"
  type: "ReLU"
  bottom: "inception_4c/3x3"
  top: "inception_4c/3x3"
}
layer {
  name: "inception_4c/5x5_reduce"
  type: "Convolution"
  bottom: "inception_4b/output"
  top: "inception_4c/5x5_reduce"
  param {
    lr_mult: 1
    decay_mult: 1
  }
  param {
    lr_mult: 2
    decay_mult: 0
  }
  convolution_param {
    num_output: 24
    kernel_size: 1
    weight_filler {
      type: "xavier"
      std: 0.2
    }
    bias_filler {
      type: "constant"
      value: 0.2
    }
  }
}
layer {
  name: "inception_4c/relu_5x5_reduce"
  type: "ReLU"
  bottom: "inception_4c/5x5_reduce"
  top: "inception_4c/5x5_reduce"
}
layer {
  name: "inception_4c/5x5"
  type: "Convolution"
  bottom: "inception_4c/5x5_reduce"
  top: "inception_4c/5x5"
  param {
    lr_mult: 1
    decay_mult: 1
  }
  param {
    lr_mult: 2
    decay_mult: 0
  }
  convolution_param {
    num_output: 64
    pad: 2
    kernel_size: 5
    weight_filler {
      type: "xavier"
      std: 0.03
    }
    bias_filler {
      type: "constant"
      value: 0.2
    }
  }
}
layer {
  name: "inception_4c/relu_5x5"
  type: "ReLU"
  bottom: "inception_4c/5x5"
  top: "inception_4c/5x5"
}
layer {
  name: "inception_4c/pool"
  type: "Pooling"
  bottom: "inception_4b/output"
  top: "inception_4c/pool"
  pooling_param {
    pool: MAX
    kernel_size: 3
    stride: 1
    pad: 1
  }
}
layer {
  name: "inception_4c/pool_proj"
  type: "Convolution"
  bottom: "inception_4c/pool"
  top: "inception_4c/pool_proj"
  param {
    lr_mult: 1
    decay_mult: 1
  }
  param {
    lr_mult: 2
    decay_mult: 0
  }
  convolution_param {
    num_output: 64
    kernel_size: 1
    weight_filler {
      type: "xavier"
      std: 0.1
    }
    bias_filler {
      type: "constant"
      value: 0.2
    }
  }
}
layer {
  name: "inception_4c/relu_pool_proj"
  type: "ReLU"
  bottom: "inception_4c/pool_proj"
  top: "inception_4c/pool_proj"
}
layer {
  name: "inception_4c/output"
  type: "Concat"
  bottom: "inception_4c/1x1"
  bottom: "inception_4c/3x3"
  bottom: "inception_4c/5x5"
  bottom: "inception_4c/pool_proj"
  top: "inception_4c/output"
}
layer {
  name: "inception_4d/1x1"
  type: "Convolution"
  bottom: "inception_4c/output"
  top: "inception_4d/1x1"
  param {
    lr_mult: 1
    decay_mult: 1
  }
  param {
    lr_mult: 2
    decay_mult: 0
  }
  convolution_param {
    num_output: 112
    kernel_size: 1
    weight_filler {
      type: "xavier"
      std: 0.03
    }
    bias_filler {
      type: "constant"
      value: 0.2
    }
  }
}
layer {
  name: "inception_4d/relu_1x1"
  type: "ReLU"
  bottom: "inception_4d/1x1"
  top: "inception_4d/1x1"
}
layer {
  name: "inception_4d/3x3_reduce"
  type: "Convolution"
  bottom: "inception_4c/output"
  top: "inception_4d/3x3_reduce"
  param {
    lr_mult: 1
    decay_mult: 1
  }
  param {
    lr_mult: 2
    decay_mult: 0
  }
  convolution_param {
    num_output: 144
    kernel_size: 1
    weight_filler {
      type: "xavier"
      std: 0.09
    }
    bias_filler {
      type: "constant"
      value: 0.2
    }
  }
}
layer {
  name: "inception_4d/relu_3x3_reduce"
  type: "ReLU"
  bottom: "inception_4d/3x3_reduce"
  top: "inception_4d/3x3_reduce"
}
layer {
  name: "inception_4d/3x3"
  type: "Convolution"
  bottom: "inception_4d/3x3_reduce"
  top: "inception_4d/3x3"
  param {
    lr_mult: 1
    decay_mult: 1
  }
  param {
    lr_mult: 2
    decay_mult: 0
  }
  convolution_param {
    num_output: 288
    pad: 1
    kernel_size: 3
    weight_filler {
      type: "xavier"
      std: 0.03
    }
    bias_filler {
      type: "constant"
      value: 0.2
    }
  }
}
layer {
  name: "inception_4d/relu_3x3"
  type: "ReLU"
  bottom: "inception_4d/3x3"
  top: "inception_4d/3x3"
}
layer {
  name: "inception_4d/5x5_reduce"
  type: "Convolution"
  bottom: "inception_4c/output"
  top: "inception_4d/5x5_reduce"
  param {
    lr_mult: 1
    decay_mult: 1
  }
  param {
    lr_mult: 2
    decay_mult: 0
  }
  convolution_param {
    num_output: 32
    kernel_size: 1
    weight_filler {
      type: "xavier"
      std: 0.2
    }
    bias_filler {
      type: "constant"
      value: 0.2
    }
  }
}
layer {
  name: "inception_4d/relu_5x5_reduce"
  type: "ReLU"
  bottom: "inception_4d/5x5_reduce"
  top: "inception_4d/5x5_reduce"
}
layer {
  name: "inception_4d/5x5"
  type: "Convolution"
  bottom: "inception_4d/5x5_reduce"
  top: "inception_4d/5x5"
  param {
    lr_mult: 1
    decay_mult: 1
  }
  param {
    lr_mult: 2
    decay_mult: 0
  }
  convolution_param {
    num_output: 64
    pad: 2
    kernel_size: 5
    weight_filler {
      type: "xavier"
      std: 0.03
    }
    bias_filler {
      type: "constant"
      value: 0.2
    }
  }
}
layer {
  name: "inception_4d/relu_5x5"
  type: "ReLU"
  bottom: "inception_4d/5x5"
  top: "inception_4d/5x5"
}
layer {
  name: "inception_4d/pool"
  type: "Pooling"
  bottom: "inception_4c/output"
  top: "inception_4d/pool"
  pooling_param {
    pool: MAX
    kernel_size: 3
    stride: 1
    pad: 1
  }
}
layer {
  name: "inception_4d/pool_proj"
  type: "Convolution"
  bottom: "inception_4d/pool"
  top: "inception_4d/pool_proj"
  param {
    lr_mult: 1
    decay_mult: 1
  }
  param {
    lr_mult: 2
    decay_mult: 0
  }
  convolution_param {
    num_output: 64
    kernel_size: 1
    weight_filler {
      type: "xavier"
      std: 0.1
    }
    bias_filler {
      type: "constant"
      value: 0.2
    }
  }
}
layer {
  name: "inception_4d/relu_pool_proj"
  type: "ReLU"
  bottom: "inception_4d/pool_proj"
  top: "inception_4d/pool_proj"
}
layer {
  name: "inception_4d/output"
  type: "Concat"
  bottom: "inception_4d/1x1"
  bottom: "inception_4d/3x3"
  bottom: "inception_4d/5x5"
  bottom: "inception_4d/pool_proj"
  top: "inception_4d/output"
}
layer {
  name: "loss2/ave_pool"
  type: "Pooling"
  bottom: "inception_4d/output"
  top: "loss2/ave_pool"
  pooling_param {
    pool: AVE
    kernel_size: 5
    stride: 3
  }
}
layer {
  name: "loss2/conv"
  type: "Convolution"
  bottom: "loss2/ave_pool"
  top: "loss2/conv"
  param {
    lr_mult: 1
    decay_mult: 1
  }
  param {
    lr_mult: 2
    decay_mult: 0
  }
  convolution_param {
    num_output: 128
    kernel_size: 1
    weight_filler {
      type: "xavier"
      std: 0.08
    }
    bias_filler {
      type: "constant"
      value: 0.2
    }
  }
}
layer {
  name: "loss2/relu_conv"
  type: "ReLU"
  bottom: "loss2/conv"
  top: "loss2/conv"
}
layer {
  name: "loss2/fc"
  type: "InnerProduct"
  bottom: "loss2/conv"
  top: "loss2/fc"
  param {
    lr_mult: 1
    decay_mult: 1
  }
  param {
    lr_mult: 2
    decay_mult: 0
  }
  inner_product_param {
    num_output: 1024
    weight_filler {
      type: "xavier"
      std: 0.02
    }
    bias_filler {
      type: "constant"
      value: 0.2
    }
  }
}
layer {
  name: "loss2/relu_fc"
  type: "ReLU"
  bottom: "loss2/fc"
  top: "loss2/fc"
}
layer {
  name: "loss2/drop_fc"
  type: "Dropout"
  bottom: "loss2/fc"
  top: "loss2/fc"
  dropout_param {
    dropout_ratio: 0.7
  }
}
layer {
  name: "loss2/classifier_plantvillage"
  type: "InnerProduct"
  bottom: "loss2/fc"
  top: "loss2/classifier_plantvillage"
  param {
    lr_mult: 1
    decay_mult: 1
  }
  param {
    lr_mult: 2
    decay_mult: 0
  }
  inner_product_param {
    num_output: 38
    weight_filler {
      type: "xavier"
      std: 0.0009765625
    }
    bias_filler {
      type: "constant"
      value: 0
    }
  }
}
layer {
  name: "inception_4e/1x1"
  type: "Convolution"
  bottom: "inception_4d/output"
  top: "inception_4e/1x1"
  param {
    lr_mult: 1
    decay_mult: 1
  }
  param {
    lr_mult: 2
    decay_mult: 0
  }
  convolution_param {
    num_output: 256
    kernel_size: 1
    weight_filler {
      type: "xavier"
      std: 0.03
    }
    bias_filler {
      type: "constant"
      value: 0.2
    }
  }
}
layer {
  name: "inception_4e/relu_1x1"
  type: "ReLU"
  bottom: "inception_4e/1x1"
  top: "inception_4e/1x1"
}
layer {
  name: "inception_4e/3x3_reduce"
  type: "Convolution"
  bottom: "inception_4d/output"
  top: "inception_4e/3x3_reduce"
  param {
    lr_mult: 1
    decay_mult: 1
  }
  param {
    lr_mult: 2
    decay_mult: 0
  }
  convolution_param {
    num_output: 160
    kernel_size: 1
    weight_filler {
      type: "xavier"
      std: 0.09
    }
    bias_filler {
      type: "constant"
      value: 0.2
    }
  }
}
layer {
  name: "inception_4e/relu_3x3_reduce"
  type: "ReLU"
  bottom: "inception_4e/3x3_reduce"
  top: "inception_4e/3x3_reduce"
}
layer {
  name: "inception_4e/3x3"
  type: "Convolution"
  bottom: "inception_4e/3x3_reduce"
  top: "inception_4e/3x3"
  param {
    lr_mult: 1
    decay_mult: 1
  }
  param {
    lr_mult: 2
    decay_mult: 0
  }
  convolution_param {
    num_output: 320
    pad: 1
    kernel_size: 3
    weight_filler {
      type: "xavier"
      std: 0.03
    }
    bias_filler {
      type: "constant"
      value: 0.2
    }
  }
}
layer {
  name: "inception_4e/relu_3x3"
  type: "ReLU"
  bottom: "inception_4e/3x3"
  top: "inception_4e/3x3"
}
layer {
  name: "inception_4e/5x5_reduce"
  type: "Convolution"
  bottom: "inception_4d/output"
  top: "inception_4e/5x5_reduce"
  param {
    lr_mult: 1
    decay_mult: 1
  }
  param {
    lr_mult: 2
    decay_mult: 0
  }
  convolution_param {
    num_output: 32
    kernel_size: 1
    weight_filler {
      type: "xavier"
      std: 0.2
    }
    bias_filler {
      type: "constant"
      value: 0.2
    }
  }
}
layer {
  name: "inception_4e/relu_5x5_reduce"
  type: "ReLU"
  bottom: "inception_4e/5x5_reduce"
  top: "inception_4e/5x5_reduce"
}
layer {
  name: "inception_4e/5x5"
  type: "Convolution"
  bottom: "inception_4e/5x5_reduce"
  top: "inception_4e/
I0403 15:08:22.079944 11633 layer_factory.hpp:77] Creating layer data
I0403 15:08:22.080567 11633 net.cpp:91] Creating Layer data
I0403 15:08:22.080601 11633 net.cpp:399] data -> data
I0403 15:08:22.080652 11633 net.cpp:399] data -> label
I0403 15:08:22.080692 11633 data_transformer.cpp:25] Loading mean file from: /home/mohanty/data/final_dataset/lmdb/segmented-50-50/mean.binaryproto
I0403 15:08:22.083777 11637 db_lmdb.cpp:38] Opened lmdb /home/mohanty/data/final_dataset/lmdb/segmented-50-50/test_db
I0403 15:08:22.096071 11633 data_layer.cpp:41] output data size: 24,3,224,224
I0403 15:08:22.124845 11633 net.cpp:141] Setting up data
I0403 15:08:22.124932 11633 net.cpp:148] Top shape: 24 3 224 224 (3612672)
I0403 15:08:22.124954 11633 net.cpp:148] Top shape: 24 (24)
I0403 15:08:22.124969 11633 net.cpp:156] Memory required for data: 14450784
I0403 15:08:22.124995 11633 layer_factory.hpp:77] Creating layer label_data_1_split
I0403 15:08:22.125021 11633 net.cpp:91] Creating Layer label_data_1_split
I0403 15:08:22.125039 11633 net.cpp:425] label_data_1_split <- label
I0403 15:08:22.125071 11633 net.cpp:399] label_data_1_split -> label_data_1_split_0
I0403 15:08:22.125097 11633 net.cpp:399] label_data_1_split -> label_data_1_split_1
I0403 15:08:22.125118 11633 net.cpp:399] label_data_1_split -> label_data_1_split_2
I0403 15:08:22.125139 11633 net.cpp:399] label_data_1_split -> label_data_1_split_3
I0403 15:08:22.125159 11633 net.cpp:399] label_data_1_split -> label_data_1_split_4
I0403 15:08:22.125177 11633 net.cpp:399] label_data_1_split -> label_data_1_split_5
I0403 15:08:22.125196 11633 net.cpp:399] label_data_1_split -> label_data_1_split_6
I0403 15:08:22.125216 11633 net.cpp:399] label_data_1_split -> label_data_1_split_7
I0403 15:08:22.125234 11633 net.cpp:399] label_data_1_split -> label_data_1_split_8
I0403 15:08:22.125254 11633 net.cpp:399] label_data_1_split -> label_data_1_split_9
I0403 15:08:22.125370 11633 net.cpp:141] Setting up label_data_1_split
I0403 15:08:22.125411 11633 net.cpp:148] Top shape: 24 (24)
I0403 15:08:22.125429 11633 net.cpp:148] Top shape: 24 (24)
I0403 15:08:22.125447 11633 net.cpp:148] Top shape: 24 (24)
I0403 15:08:22.125461 11633 net.cpp:148] Top shape: 24 (24)
I0403 15:08:22.125478 11633 net.cpp:148] Top shape: 24 (24)
I0403 15:08:22.125493 11633 net.cpp:148] Top shape: 24 (24)
I0403 15:08:22.125509 11633 net.cpp:148] Top shape: 24 (24)
I0403 15:08:22.125524 11633 net.cpp:148] Top shape: 24 (24)
I0403 15:08:22.125540 11633 net.cpp:148] Top shape: 24 (24)
I0403 15:08:22.125556 11633 net.cpp:148] Top shape: 24 (24)
I0403 15:08:22.125602 11633 net.cpp:156] Memory required for data: 14451744
I0403 15:08:22.125618 11633 layer_factory.hpp:77] Creating layer conv1/7x7_s2
I0403 15:08:22.125650 11633 net.cpp:91] Creating Layer conv1/7x7_s2
I0403 15:08:22.125669 11633 net.cpp:425] conv1/7x7_s2 <- data
I0403 15:08:22.125700 11633 net.cpp:399] conv1/7x7_s2 -> conv1/7x7_s2
I0403 15:08:22.269434 11633 net.cpp:141] Setting up conv1/7x7_s2
I0403 15:08:22.269477 11633 net.cpp:148] Top shape: 24 64 112 112 (19267584)
I0403 15:08:22.269495 11633 net.cpp:156] Memory required for data: 91522080
I0403 15:08:22.269525 11633 layer_factory.hpp:77] Creating layer conv1/relu_7x7
I0403 15:08:22.269551 11633 net.cpp:91] Creating Layer conv1/relu_7x7
I0403 15:08:22.269569 11633 net.cpp:425] conv1/relu_7x7 <- conv1/7x7_s2
I0403 15:08:22.269588 11633 net.cpp:386] conv1/relu_7x7 -> conv1/7x7_s2 (in-place)
I0403 15:08:22.269850 11633 net.cpp:141] Setting up conv1/relu_7x7
I0403 15:08:22.269877 11633 net.cpp:148] Top shape: 24 64 112 112 (19267584)
I0403 15:08:22.269893 11633 net.cpp:156] Memory required for data: 168592416
I0403 15:08:22.269908 11633 layer_factory.hpp:77] Creating layer pool1/3x3_s2
I0403 15:08:22.269932 11633 net.cpp:91] Creating Layer pool1/3x3_s2
I0403 15:08:22.269949 11633 net.cpp:425] pool1/3x3_s2 <- conv1/7x7_s2
I0403 15:08:22.269968 11633 net.cpp:399] pool1/3x3_s2 -> pool1/3x3_s2
I0403 15:08:22.270040 11633 net.cpp:141] Setting up pool1/3x3_s2
I0403 15:08:22.270064 11633 net.cpp:148] Top shape: 24 64 56 56 (4816896)
I0403 15:08:22.270081 11633 net.cpp:156] Memory required for data: 187860000
I0403 15:08:22.270094 11633 layer_factory.hpp:77] Creating layer pool1/norm1
I0403 15:08:22.270118 11633 net.cpp:91] Creating Layer pool1/norm1
I0403 15:08:22.270136 11633 net.cpp:425] pool1/norm1 <- pool1/3x3_s2
I0403 15:08:22.270153 11633 net.cpp:399] pool1/norm1 -> pool1/norm1
I0403 15:08:22.270450 11633 net.cpp:141] Setting up pool1/norm1
I0403 15:08:22.270478 11633 net.cpp:148] Top shape: 24 64 56 56 (4816896)
I0403 15:08:22.270493 11633 net.cpp:156] Memory required for data: 207127584
I0403 15:08:22.270509 11633 layer_factory.hpp:77] Creating layer conv2/3x3_reduce
I0403 15:08:22.270532 11633 net.cpp:91] Creating Layer conv2/3x3_reduce
I0403 15:08:22.270550 11633 net.cpp:425] conv2/3x3_reduce <- pool1/norm1
I0403 15:08:22.270571 11633 net.cpp:399] conv2/3x3_reduce -> conv2/3x3_reduce
I0403 15:08:22.271991 11633 net.cpp:141] Setting up conv2/3x3_reduce
I0403 15:08:22.272022 11633 net.cpp:148] Top shape: 24 64 56 56 (4816896)
I0403 15:08:22.272037 11633 net.cpp:156] Memory required for data: 226395168
I0403 15:08:22.272061 11633 layer_factory.hpp:77] Creating layer conv2/relu_3x3_reduce
I0403 15:08:22.272080 11633 net.cpp:91] Creating Layer conv2/relu_3x3_reduce
I0403 15:08:22.272096 11633 net.cpp:425] conv2/relu_3x3_reduce <- conv2/3x3_reduce
I0403 15:08:22.272114 11633 net.cpp:386] conv2/relu_3x3_reduce -> conv2/3x3_reduce (in-place)
I0403 15:08:22.272404 11633 net.cpp:141] Setting up conv2/relu_3x3_reduce
I0403 15:08:22.272433 11633 net.cpp:148] Top shape: 24 64 56 56 (4816896)
I0403 15:08:22.272446 11633 net.cpp:156] Memory required for data: 245662752
I0403 15:08:22.272461 11633 layer_factory.hpp:77] Creating layer conv2/3x3
I0403 15:08:22.272485 11633 net.cpp:91] Creating Layer conv2/3x3
I0403 15:08:22.272502 11633 net.cpp:425] conv2/3x3 <- conv2/3x3_reduce
I0403 15:08:22.272522 11633 net.cpp:399] conv2/3x3 -> conv2/3x3
I0403 15:08:22.274814 11633 net.cpp:141] Setting up conv2/3x3
I0403 15:08:22.274844 11633 net.cpp:148] Top shape: 24 192 56 56 (14450688)
I0403 15:08:22.274860 11633 net.cpp:156] Memory required for data: 303465504
I0403 15:08:22.274883 11633 layer_factory.hpp:77] Creating layer conv2/relu_3x3
I0403 15:08:22.274902 11633 net.cpp:91] Creating Layer conv2/relu_3x3
I0403 15:08:22.274917 11633 net.cpp:425] conv2/relu_3x3 <- conv2/3x3
I0403 15:08:22.274935 11633 net.cpp:386] conv2/relu_3x3 -> conv2/3x3 (in-place)
I0403 15:08:22.275115 11633 net.cpp:141] Setting up conv2/relu_3x3
I0403 15:08:22.275141 11633 net.cpp:148] Top shape: 24 192 56 56 (14450688)
I0403 15:08:22.275184 11633 net.cpp:156] Memory required for data: 361268256
I0403 15:08:22.275200 11633 layer_factory.hpp:77] Creating layer conv2/norm2
I0403 15:08:22.275218 11633 net.cpp:91] Creating Layer conv2/norm2
I0403 15:08:22.275238 11633 net.cpp:425] conv2/norm2 <- conv2/3x3
I0403 15:08:22.275255 11633 net.cpp:399] conv2/norm2 -> conv2/norm2
I0403 15:08:22.275581 11633 net.cpp:141] Setting up conv2/norm2
I0403 15:08:22.275620 11633 net.cpp:148] Top shape: 24 192 56 56 (14450688)
I0403 15:08:22.275635 11633 net.cpp:156] Memory required for data: 419071008
I0403 15:08:22.275648 11633 layer_factory.hpp:77] Creating layer pool2/3x3_s2
I0403 15:08:22.275665 11633 net.cpp:91] Creating Layer pool2/3x3_s2
I0403 15:08:22.275686 11633 net.cpp:425] pool2/3x3_s2 <- conv2/norm2
I0403 15:08:22.275702 11633 net.cpp:399] pool2/3x3_s2 -> pool2/3x3_s2
I0403 15:08:22.275754 11633 net.cpp:141] Setting up pool2/3x3_s2
I0403 15:08:22.275777 11633 net.cpp:148] Top shape: 24 192 28 28 (3612672)
I0403 15:08:22.275791 11633 net.cpp:156] Memory required for data: 433521696
I0403 15:08:22.275805 11633 layer_factory.hpp:77] Creating layer pool2/3x3_s2_pool2/3x3_s2_0_split
I0403 15:08:22.275822 11633 net.cpp:91] Creating Layer pool2/3x3_s2_pool2/3x3_s2_0_split
I0403 15:08:22.275837 11633 net.cpp:425] pool2/3x3_s2_pool2/3x3_s2_0_split <- pool2/3x3_s2
I0403 15:08:22.275856 11633 net.cpp:399] pool2/3x3_s2_pool2/3x3_s2_0_split -> pool2/3x3_s2_pool2/3x3_s2_0_split_0
I0403 15:08:22.275876 11633 net.cpp:399] pool2/3x3_s2_pool2/3x3_s2_0_split -> pool2/3x3_s2_pool2/3x3_s2_0_split_1
I0403 15:08:22.275894 11633 net.cpp:399] pool2/3x3_s2_pool2/3x3_s2_0_split -> pool2/3x3_s2_pool2/3x3_s2_0_split_2
I0403 15:08:22.275913 11633 net.cpp:399] pool2/3x3_s2_pool2/3x3_s2_0_split -> pool2/3x3_s2_pool2/3x3_s2_0_split_3
I0403 15:08:22.275985 11633 net.cpp:141] Setting up pool2/3x3_s2_pool2/3x3_s2_0_split
I0403 15:08:22.276008 11633 net.cpp:148] Top shape: 24 192 28 28 (3612672)
I0403 15:08:22.276023 11633 net.cpp:148] Top shape: 24 192 28 28 (3612672)
I0403 15:08:22.276038 11633 net.cpp:148] Top shape: 24 192 28 28 (3612672)
I0403 15:08:22.276052 11633 net.cpp:148] Top shape: 24 192 28 28 (3612672)
I0403 15:08:22.276065 11633 net.cpp:156] Memory required for data: 491324448
I0403 15:08:22.276079 11633 layer_factory.hpp:77] Creating layer inception_3a/1x1
I0403 15:08:22.276103 11633 net.cpp:91] Creating Layer inception_3a/1x1
I0403 15:08:22.276119 11633 net.cpp:425] inception_3a/1x1 <- pool2/3x3_s2_pool2/3x3_s2_0_split_0
I0403 15:08:22.276137 11633 net.cpp:399] inception_3a/1x1 -> inception_3a/1x1
I0403 15:08:22.277668 11633 net.cpp:141] Setting up inception_3a/1x1
I0403 15:08:22.277698 11633 net.cpp:148] Top shape: 24 64 28 28 (1204224)
I0403 15:08:22.277712 11633 net.cpp:156] Memory required for data: 496141344
I0403 15:08:22.277730 11633 layer_factory.hpp:77] Creating layer inception_3a/relu_1x1
I0403 15:08:22.277750 11633 net.cpp:91] Creating Layer inception_3a/relu_1x1
I0403 15:08:22.277767 11633 net.cpp:425] inception_3a/relu_1x1 <- inception_3a/1x1
I0403 15:08:22.277783 11633 net.cpp:386] inception_3a/relu_1x1 -> inception_3a/1x1 (in-place)
I0403 15:08:22.277958 11633 net.cpp:141] Setting up inception_3a/relu_1x1
I0403 15:08:22.277984 11633 net.cpp:148] Top shape: 24 64 28 28 (1204224)
I0403 15:08:22.277999 11633 net.cpp:156] Memory required for data: 500958240
I0403 15:08:22.278014 11633 layer_factory.hpp:77] Creating layer inception_3a/3x3_reduce
I0403 15:08:22.278036 11633 net.cpp:91] Creating Layer inception_3a/3x3_reduce
I0403 15:08:22.278053 11633 net.cpp:425] inception_3a/3x3_reduce <- pool2/3x3_s2_pool2/3x3_s2_0_split_1
I0403 15:08:22.278071 11633 net.cpp:399] inception_3a/3x3_reduce -> inception_3a/3x3_reduce
I0403 15:08:22.279770 11633 net.cpp:141] Setting up inception_3a/3x3_reduce
I0403 15:08:22.279799 11633 net.cpp:148] Top shape: 24 96 28 28 (1806336)
I0403 15:08:22.279815 11633 net.cpp:156] Memory required for data: 508183584
I0403 15:08:22.279839 11633 layer_factory.hpp:77] Creating layer inception_3a/relu_3x3_reduce
I0403 15:08:22.279873 11633 net.cpp:91] Creating Layer inception_3a/relu_3x3_reduce
I0403 15:08:22.279889 11633 net.cpp:425] inception_3a/relu_3x3_reduce <- inception_3a/3x3_reduce
I0403 15:08:22.279907 11633 net.cpp:386] inception_3a/relu_3x3_reduce -> inception_3a/3x3_reduce (in-place)
I0403 15:08:22.280093 11633 net.cpp:141] Setting up inception_3a/relu_3x3_reduce
I0403 15:08:22.280117 11633 net.cpp:148] Top shape: 24 96 28 28 (1806336)
I0403 15:08:22.280133 11633 net.cpp:156] Memory required for data: 515408928
I0403 15:08:22.280146 11633 layer_factory.hpp:77] Creating layer inception_3a/3x3
I0403 15:08:22.280169 11633 net.cpp:91] Creating Layer inception_3a/3x3
I0403 15:08:22.280186 11633 net.cpp:425] inception_3a/3x3 <- inception_3a/3x3_reduce
I0403 15:08:22.280206 11633 net.cpp:399] inception_3a/3x3 -> inception_3a/3x3
I0403 15:08:22.281870 11633 net.cpp:141] Setting up inception_3a/3x3
I0403 15:08:22.281898 11633 net.cpp:148] Top shape: 24 128 28 28 (2408448)
I0403 15:08:22.281913 11633 net.cpp:156] Memory required for data: 525042720
I0403 15:08:22.281932 11633 layer_factory.hpp:77] Creating layer inception_3a/relu_3x3
I0403 15:08:22.281952 11633 net.cpp:91] Creating Layer inception_3a/relu_3x3
I0403 15:08:22.281968 11633 net.cpp:425] inception_3a/relu_3x3 <- inception_3a/3x3
I0403 15:08:22.281985 11633 net.cpp:386] inception_3a/relu_3x3 -> inception_3a/3x3 (in-place)
I0403 15:08:22.282256 11633 net.cpp:141] Setting up inception_3a/relu_3x3
I0403 15:08:22.282284 11633 net.cpp:148] Top shape: 24 128 28 28 (2408448)
I0403 15:08:22.282297 11633 net.cpp:156] Memory required for data: 534676512
I0403 15:08:22.282312 11633 layer_factory.hpp:77] Creating layer inception_3a/5x5_reduce
I0403 15:08:22.282338 11633 net.cpp:91] Creating Layer inception_3a/5x5_reduce
I0403 15:08:22.282356 11633 net.cpp:425] inception_3a/5x5_reduce <- pool2/3x3_s2_pool2/3x3_s2_0_split_2
I0403 15:08:22.282373 11633 net.cpp:399] inception_3a/5x5_reduce -> inception_3a/5x5_reduce
I0403 15:08:22.283335 11633 net.cpp:141] Setting up inception_3a/5x5_reduce
I0403 15:08:22.283365 11633 net.cpp:148] Top shape: 24 16 28 28 (301056)
I0403 15:08:22.283398 11633 net.cpp:156] Memory required for data: 535880736
I0403 15:08:22.283419 11633 layer_factory.hpp:77] Creating layer inception_3a/relu_5x5_reduce
I0403 15:08:22.283437 11633 net.cpp:91] Creating Layer inception_3a/relu_5x5_reduce
I0403 15:08:22.283453 11633 net.cpp:425] inception_3a/relu_5x5_reduce <- inception_3a/5x5_reduce
I0403 15:08:22.283475 11633 net.cpp:386] inception_3a/relu_5x5_reduce -> inception_3a/5x5_reduce (in-place)
I0403 15:08:22.283789 11633 net.cpp:141] Setting up inception_3a/relu_5x5_reduce
I0403 15:08:22.283818 11633 net.cpp:148] Top shape: 24 16 28 28 (301056)
I0403 15:08:22.283833 11633 net.cpp:156] Memory required for data: 537084960
I0403 15:08:22.283848 11633 layer_factory.hpp:77] Creating layer inception_3a/5x5
I0403 15:08:22.283869 11633 net.cpp:91] Creating Layer inception_3a/5x5
I0403 15:08:22.283887 11633 net.cpp:425] inception_3a/5x5 <- inception_3a/5x5_reduce
I0403 15:08:22.283905 11633 net.cpp:399] inception_3a/5x5 -> inception_3a/5x5
I0403 15:08:22.284916 11633 net.cpp:141] Setting up inception_3a/5x5
I0403 15:08:22.284943 11633 net.cpp:148] Top shape: 24 32 28 28 (602112)
I0403 15:08:22.284958 11633 net.cpp:156] Memory required for data: 539493408
I0403 15:08:22.284976 11633 layer_factory.hpp:77] Creating layer inception_3a/relu_5x5
I0403 15:08:22.284996 11633 net.cpp:91] Creating Layer inception_3a/relu_5x5
I0403 15:08:22.285013 11633 net.cpp:425] inception_3a/relu_5x5 <- inception_3a/5x5
I0403 15:08:22.285030 11633 net.cpp:386] inception_3a/relu_5x5 -> inception_3a/5x5 (in-place)
I0403 15:08:22.285202 11633 net.cpp:141] Setting up inception_3a/relu_5x5
I0403 15:08:22.285228 11633 net.cpp:148] Top shape: 24 32 28 28 (602112)
I0403 15:08:22.285243 11633 net.cpp:156] Memory required for data: 541901856
I0403 15:08:22.285259 11633 layer_factory.hpp:77] Creating layer inception_3a/pool
I0403 15:08:22.285276 11633 net.cpp:91] Creating Layer inception_3a/pool
I0403 15:08:22.285305 11633 net.cpp:425] inception_3a/pool <- pool2/3x3_s2_pool2/3x3_s2_0_split_3
I0403 15:08:22.285329 11633 net.cpp:399] inception_3a/pool -> inception_3a/pool
I0403 15:08:22.285392 11633 net.cpp:141] Setting up inception_3a/pool
I0403 15:08:22.285414 11633 net.cpp:148] Top shape: 24 192 28 28 (3612672)
I0403 15:08:22.285429 11633 net.cpp:156] Memory required for data: 556352544
I0403 15:08:22.285444 11633 layer_factory.hpp:77] Creating layer inception_3a/pool_proj
I0403 15:08:22.285465 11633 net.cpp:91] Creating Layer inception_3a/pool_proj
I0403 15:08:22.285482 11633 net.cpp:425] inception_3a/pool_proj <- inception_3a/pool
I0403 15:08:22.285506 11633 net.cpp:399] inception_3a/pool_proj -> inception_3a/pool_proj
I0403 15:08:22.286466 11633 net.cpp:141] Setting up inception_3a/pool_proj
I0403 15:08:22.286494 11633 net.cpp:148] Top shape: 24 32 28 28 (602112)
I0403 15:08:22.286509 11633 net.cpp:156] Memory required for data: 558760992
I0403 15:08:22.286531 11633 layer_factory.hpp:77] Creating layer inception_3a/relu_pool_proj
I0403 15:08:22.286550 11633 net.cpp:91] Creating Layer inception_3a/relu_pool_proj
I0403 15:08:22.286566 11633 net.cpp:425] inception_3a/relu_pool_proj <- inception_3a/pool_proj
I0403 15:08:22.286584 11633 net.cpp:386] inception_3a/relu_pool_proj -> inception_3a/pool_proj (in-place)
I0403 15:08:22.286857 11633 net.cpp:141] Setting up inception_3a/relu_pool_proj
I0403 15:08:22.286885 11633 net.cpp:148] Top shape: 24 32 28 28 (602112)
I0403 15:08:22.286898 11633 net.cpp:156] Memory required for data: 561169440
I0403 15:08:22.286913 11633 layer_factory.hpp:77] Creating layer inception_3a/output
I0403 15:08:22.286933 11633 net.cpp:91] Creating Layer inception_3a/output
I0403 15:08:22.286949 11633 net.cpp:425] inception_3a/output <- inception_3a/1x1
I0403 15:08:22.286965 11633 net.cpp:425] inception_3a/output <- inception_3a/3x3
I0403 15:08:22.286980 11633 net.cpp:425] inception_3a/output <- inception_3a/5x5
I0403 15:08:22.286996 11633 net.cpp:425] inception_3a/output <- inception_3a/pool_proj
I0403 15:08:22.287012 11633 net.cpp:399] inception_3a/output -> inception_3a/output
I0403 15:08:22.287060 11633 net.cpp:141] Setting up inception_3a/output
I0403 15:08:22.287082 11633 net.cpp:148] Top shape: 24 256 28 28 (4816896)
I0403 15:08:22.287096 11633 net.cpp:156] Memory required for data: 580437024
I0403 15:08:22.287111 11633 layer_factory.hpp:77] Creating layer inception_3a/output_inception_3a/output_0_split
I0403 15:08:22.287127 11633 net.cpp:91] Creating Layer inception_3a/output_inception_3a/output_0_split
I0403 15:08:22.287142 11633 net.cpp:425] inception_3a/output_inception_3a/output_0_split <- inception_3a/output
I0403 15:08:22.287160 11633 net.cpp:399] inception_3a/output_inception_3a/output_0_split -> inception_3a/output_inception_3a/output_0_split_0
I0403 15:08:22.287181 11633 net.cpp:399] inception_3a/output_inception_3a/output_0_split -> inception_3a/output_inception_3a/output_0_split_1
I0403 15:08:22.287205 11633 net.cpp:399] inception_3a/output_inception_3a/output_0_split -> inception_3a/output_inception_3a/output_0_split_2
I0403 15:08:22.287225 11633 net.cpp:399] inception_3a/output_inception_3a/output_0_split -> inception_3a/output_inception_3a/output_0_split_3
I0403 15:08:22.287297 11633 net.cpp:141] Setting up inception_3a/output_inception_3a/output_0_split
I0403 15:08:22.287319 11633 net.cpp:148] Top shape: 24 256 28 28 (4816896)
I0403 15:08:22.287338 11633 net.cpp:148] Top shape: 24 256 28 28 (4816896)
I0403 15:08:22.287354 11633 net.cpp:148] Top shape: 24 256 28 28 (4816896)
I0403 15:08:22.287370 11633 net.cpp:148] Top shape: 24 256 28 28 (4816896)
I0403 15:08:22.287387 11633 net.cpp:156] Memory required for data: 657507360
I0403 15:08:22.287402 11633 layer_factory.hpp:77] Creating layer inception_3b/1x1
I0403 15:08:22.287421 11633 net.cpp:91] Creating Layer inception_3b/1x1
I0403 15:08:22.287438 11633 net.cpp:425] inception_3b/1x1 <- inception_3a/output_inception_3a/output_0_split_0
I0403 15:08:22.287459 11633 net.cpp:399] inception_3b/1x1 -> inception_3b/1x1
I0403 15:08:22.288592 11633 net.cpp:141] Setting up inception_3b/1x1
I0403 15:08:22.288632 11633 net.cpp:148] Top shape: 24 128 28 28 (2408448)
I0403 15:08:22.288648 11633 net.cpp:156] Memory required for data: 667141152
I0403 15:08:22.288666 11633 layer_factory.hpp:77] Creating layer inception_3b/relu_1x1
I0403 15:08:22.288686 11633 net.cpp:91] Creating Layer inception_3b/relu_1x1
I0403 15:08:22.288703 11633 net.cpp:425] inception_3b/relu_1x1 <- inception_3b/1x1
I0403 15:08:22.288720 11633 net.cpp:386] inception_3b/relu_1x1 -> inception_3b/1x1 (in-place)
I0403 15:08:22.288897 11633 net.cpp:141] Setting up inception_3b/relu_1x1
I0403 15:08:22.288921 11633 net.cpp:148] Top shape: 24 128 28 28 (2408448)
I0403 15:08:22.288935 11633 net.cpp:156] Memory required for data: 676774944
I0403 15:08:22.288949 11633 layer_factory.hpp:77] Creating layer inception_3b/3x3_reduce
I0403 15:08:22.288975 11633 net.cpp:91] Creating Layer inception_3b/3x3_reduce
I0403 15:08:22.288992 11633 net.cpp:425] inception_3b/3x3_reduce <- inception_3a/output_inception_3a/output_0_split_1
I0403 15:08:22.289011 11633 net.cpp:399] inception_3b/3x3_reduce -> inception_3b/3x3_reduce
I0403 15:08:22.290169 11633 net.cpp:141] Setting up inception_3b/3x3_reduce
I0403 15:08:22.290196 11633 net.cpp:148] Top shape: 24 128 28 28 (2408448)
I0403 15:08:22.290211 11633 net.cpp:156] Memory required for data: 686408736
I0403 15:08:22.290230 11633 layer_factory.hpp:77] Creating layer inception_3b/relu_3x3_reduce
I0403 15:08:22.290251 11633 net.cpp:91] Creating Layer inception_3b/relu_3x3_reduce
I0403 15:08:22.290267 11633 net.cpp:425] inception_3b/relu_3x3_reduce <- inception_3b/3x3_reduce
I0403 15:08:22.290284 11633 net.cpp:386] inception_3b/relu_3x3_reduce -> inception_3b/3x3_reduce (in-place)
I0403 15:08:22.290477 11633 net.cpp:141] Setting up inception_3b/relu_3x3_reduce
I0403 15:08:22.290504 11633 net.cpp:148] Top shape: 24 128 28 28 (2408448)
I0403 15:08:22.290520 11633 net.cpp:156] Memory required for data: 696042528
I0403 15:08:22.290535 11633 layer_factory.hpp:77] Creating layer inception_3b/3x3
I0403 15:08:22.290560 11633 net.cpp:91] Creating Layer inception_3b/3x3
I0403 15:08:22.290577 11633 net.cpp:425] inception_3b/3x3 <- inception_3b/3x3_reduce
I0403 15:08:22.290599 11633 net.cpp:399] inception_3b/3x3 -> inception_3b/3x3
I0403 15:08:22.293572 11633 net.cpp:141] Setting up inception_3b/3x3
I0403 15:08:22.293601 11633 net.cpp:148] Top shape: 24 192 28 28 (3612672)
I0403 15:08:22.293617 11633 net.cpp:156] Memory required for data: 710493216
I0403 15:08:22.293633 11633 layer_factory.hpp:77] Creating layer inception_3b/relu_3x3
I0403 15:08:22.293654 11633 net.cpp:91] Creating Layer inception_3b/relu_3x3
I0403 15:08:22.293671 11633 net.cpp:425] inception_3b/relu_3x3 <- inception_3b/3x3
I0403 15:08:22.293689 11633 net.cpp:386] inception_3b/relu_3x3 -> inception_3b/3x3 (in-place)
I0403 15:08:22.293969 11633 net.cpp:141] Setting up inception_3b/relu_3x3
I0403 15:08:22.293995 11633 net.cpp:148] Top shape: 24 192 28 28 (3612672)
I0403 15:08:22.294009 11633 net.cpp:156] Memory required for data: 724943904
I0403 15:08:22.294023 11633 layer_factory.hpp:77] Creating layer inception_3b/5x5_reduce
I0403 15:08:22.294049 11633 net.cpp:91] Creating Layer inception_3b/5x5_reduce
I0403 15:08:22.294065 11633 net.cpp:425] inception_3b/5x5_reduce <- inception_3a/output_inception_3a/output_0_split_2
I0403 15:08:22.294083 11633 net.cpp:399] inception_3b/5x5_reduce -> inception_3b/5x5_reduce
I0403 15:08:22.295120 11633 net.cpp:141] Setting up inception_3b/5x5_reduce
I0403 15:08:22.295148 11633 net.cpp:148] Top shape: 24 32 28 28 (602112)
I0403 15:08:22.295163 11633 net.cpp:156] Memory required for data: 727352352
I0403 15:08:22.295181 11633 layer_factory.hpp:77] Creating layer inception_3b/relu_5x5_reduce
I0403 15:08:22.295202 11633 net.cpp:91] Creating Layer inception_3b/relu_5x5_reduce
I0403 15:08:22.295220 11633 net.cpp:425] inception_3b/relu_5x5_reduce <- inception_3b/5x5_reduce
I0403 15:08:22.295238 11633 net.cpp:386] inception_3b/relu_5x5_reduce -> inception_3b/5x5_reduce (in-place)
I0403 15:08:22.295440 11633 net.cpp:141] Setting up inception_3b/relu_5x5_reduce
I0403 15:08:22.295469 11633 net.cpp:148] Top shape: 24 32 28 28 (602112)
I0403 15:08:22.295483 11633 net.cpp:156] Memory required for data: 729760800
I0403 15:08:22.295498 11633 layer_factory.hpp:77] Creating layer inception_3b/5x5
I0403 15:08:22.295521 11633 net.cpp:91] Creating Layer inception_3b/5x5
I0403 15:08:22.295539 11633 net.cpp:425] inception_3b/5x5 <- inception_3b/5x5_reduce
I0403 15:08:22.295559 11633 net.cpp:399] inception_3b/5x5 -> inception_3b/5x5
I0403 15:08:22.297626 11633 net.cpp:141] Setting up inception_3b/5x5
I0403 15:08:22.297655 11633 net.cpp:148] Top shape: 24 96 28 28 (1806336)
I0403 15:08:22.297672 11633 net.cpp:156] Memory required for data: 736986144
I0403 15:08:22.297703 11633 layer_factory.hpp:77] Creating layer inception_3b/relu_5x5
I0403 15:08:22.297724 11633 net.cpp:91] Creating Layer inception_3b/relu_5x5
I0403 15:08:22.297740 11633 net.cpp:425] inception_3b/relu_5x5 <- inception_3b/5x5
I0403 15:08:22.297758 11633 net.cpp:386] inception_3b/relu_5x5 -> inception_3b/5x5 (in-place)
I0403 15:08:22.297956 11633 net.cpp:141] Setting up inception_3b/relu_5x5
I0403 15:08:22.297981 11633 net.cpp:148] Top shape: 24 96 28 28 (1806336)
I0403 15:08:22.297996 11633 net.cpp:156] Memory required for data: 744211488
I0403 15:08:22.298012 11633 layer_factory.hpp:77] Creating layer inception_3b/pool
I0403 15:08:22.298029 11633 net.cpp:91] Creating Layer inception_3b/pool
I0403 15:08:22.298045 11633 net.cpp:425] inception_3b/pool <- inception_3a/output_inception_3a/output_0_split_3
I0403 15:08:22.298063 11633 net.cpp:399] inception_3b/pool -> inception_3b/pool
I0403 15:08:22.298120 11633 net.cpp:141] Setting up inception_3b/pool
I0403 15:08:22.298143 11633 net.cpp:148] Top shape: 24 256 28 28 (4816896)
I0403 15:08:22.298157 11633 net.cpp:156] Memory required for data: 763479072
I0403 15:08:22.298171 11633 layer_factory.hpp:77] Creating layer inception_3b/pool_proj
I0403 15:08:22.298193 11633 net.cpp:91] Creating Layer inception_3b/pool_proj
I0403 15:08:22.298212 11633 net.cpp:425] inception_3b/pool_proj <- inception_3b/pool
I0403 15:08:22.298233 11633 net.cpp:399] inception_3b/pool_proj -> inception_3b/pool_proj
I0403 15:08:22.299314 11633 net.cpp:141] Setting up inception_3b/pool_proj
I0403 15:08:22.299343 11633 net.cpp:148] Top shape: 24 64 28 28 (1204224)
I0403 15:08:22.299358 11633 net.cpp:156] Memory required for data: 768295968
I0403 15:08:22.299376 11633 layer_factory.hpp:77] Creating layer inception_3b/relu_pool_proj
I0403 15:08:22.299399 11633 net.cpp:91] Creating Layer inception_3b/relu_pool_proj
I0403 15:08:22.299417 11633 net.cpp:425] inception_3b/relu_pool_proj <- inception_3b/pool_proj
I0403 15:08:22.299435 11633 net.cpp:386] inception_3b/relu_pool_proj -> inception_3b/pool_proj (in-place)
I0403 15:08:22.299840 11633 net.cpp:141] Setting up inception_3b/relu_pool_proj
I0403 15:08:22.299870 11633 net.cpp:148] Top shape: 24 64 28 28 (1204224)
I0403 15:08:22.299885 11633 net.cpp:156] Memory required for data: 773112864
I0403 15:08:22.299901 11633 layer_factory.hpp:77] Creating layer inception_3b/output
I0403 15:08:22.299918 11633 net.cpp:91] Creating Layer inception_3b/output
I0403 15:08:22.299933 11633 net.cpp:425] inception_3b/output <- inception_3b/1x1
I0403 15:08:22.299950 11633 net.cpp:425] inception_3b/output <- inception_3b/3x3
I0403 15:08:22.299967 11633 net.cpp:425] inception_3b/output <- inception_3b/5x5
I0403 15:08:22.299983 11633 net.cpp:425] inception_3b/output <- inception_3b/pool_proj
I0403 15:08:22.299999 11633 net.cpp:399] inception_3b/output -> inception_3b/output
I0403 15:08:22.300047 11633 net.cpp:141] Setting up inception_3b/output
I0403 15:08:22.300071 11633 net.cpp:148] Top shape: 24 480 28 28 (9031680)
I0403 15:08:22.300084 11633 net.cpp:156] Memory required for data: 809239584
I0403 15:08:22.300099 11633 layer_factory.hpp:77] Creating layer pool3/3x3_s2
I0403 15:08:22.300118 11633 net.cpp:91] Creating Layer pool3/3x3_s2
I0403 15:08:22.300137 11633 net.cpp:425] pool3/3x3_s2 <- inception_3b/output
I0403 15:08:22.300169 11633 net.cpp:399] pool3/3x3_s2 -> pool3/3x3_s2
I0403 15:08:22.300231 11633 net.cpp:141] Setting up pool3/3x3_s2
I0403 15:08:22.300254 11633 net.cpp:148] Top shape: 24 480 14 14 (2257920)
I0403 15:08:22.300269 11633 net.cpp:156] Memory required for data: 818271264
I0403 15:08:22.300283 11633 layer_factory.hpp:77] Creating layer pool3/3x3_s2_pool3/3x3_s2_0_split
I0403 15:08:22.300300 11633 net.cpp:91] Creating Layer pool3/3x3_s2_pool3/3x3_s2_0_split
I0403 15:08:22.300317 11633 net.cpp:425] pool3/3x3_s2_pool3/3x3_s2_0_split <- pool3/3x3_s2
I0403 15:08:22.300336 11633 net.cpp:399] pool3/3x3_s2_pool3/3x3_s2_0_split -> pool3/3x3_s2_pool3/3x3_s2_0_split_0
I0403 15:08:22.300357 11633 net.cpp:399] pool3/3x3_s2_pool3/3x3_s2_0_split -> pool3/3x3_s2_pool3/3x3_s2_0_split_1
I0403 15:08:22.300377 11633 net.cpp:399] pool3/3x3_s2_pool3/3x3_s2_0_split -> pool3/3x3_s2_pool3/3x3_s2_0_split_2
I0403 15:08:22.300402 11633 net.cpp:399] pool3/3x3_s2_pool3/3x3_s2_0_split -> pool3/3x3_s2_pool3/3x3_s2_0_split_3
I0403 15:08:22.300478 11633 net.cpp:141] Setting up pool3/3x3_s2_pool3/3x3_s2_0_split
I0403 15:08:22.300503 11633 net.cpp:148] Top shape: 24 480 14 14 (2257920)
I0403 15:08:22.300519 11633 net.cpp:148] Top shape: 24 480 14 14 (2257920)
I0403 15:08:22.300534 11633 net.cpp:148] Top shape: 24 480 14 14 (2257920)
I0403 15:08:22.300549 11633 net.cpp:148] Top shape: 24 480 14 14 (2257920)
I0403 15:08:22.300562 11633 net.cpp:156] Memory required for data: 854397984
I0403 15:08:22.300576 11633 layer_factory.hpp:77] Creating layer inception_4a/1x1
I0403 15:08:22.300600 11633 net.cpp:91] Creating Layer inception_4a/1x1
I0403 15:08:22.300617 11633 net.cpp:425] inception_4a/1x1 <- pool3/3x3_s2_pool3/3x3_s2_0_split_0
I0403 15:08:22.300638 11633 net.cpp:399] inception_4a/1x1 -> inception_4a/1x1
I0403 15:08:22.302245 11633 net.cpp:141] Setting up inception_4a/1x1
I0403 15:08:22.302273 11633 net.cpp:148] Top shape: 24 192 14 14 (903168)
I0403 15:08:22.302289 11633 net.cpp:156] Memory required for data: 858010656
I0403 15:08:22.302309 11633 layer_factory.hpp:77] Creating layer inception_4a/relu_1x1
I0403 15:08:22.302330 11633 net.cpp:91] Creating Layer inception_4a/relu_1x1
I0403 15:08:22.302345 11633 net.cpp:425] inception_4a/relu_1x1 <- inception_4a/1x1
I0403 15:08:22.302364 11633 net.cpp:386] inception_4a/relu_1x1 -> inception_4a/1x1 (in-place)
I0403 15:08:22.302559 11633 net.cpp:141] Setting up inception_4a/relu_1x1
I0403 15:08:22.302585 11633 net.cpp:148] Top shape: 24 192 14 14 (903168)
I0403 15:08:22.302599 11633 net.cpp:156] Memory required for data: 861623328
I0403 15:08:22.302614 11633 layer_factory.hpp:77] Creating layer inception_4a/3x3_reduce
I0403 15:08:22.302637 11633 net.cpp:91] Creating Layer inception_4a/3x3_reduce
I0403 15:08:22.302654 11633 net.cpp:425] inception_4a/3x3_reduce <- pool3/3x3_s2_pool3/3x3_s2_0_split_1
I0403 15:08:22.302675 11633 net.cpp:399] inception_4a/3x3_reduce -> inception_4a/3x3_reduce
I0403 15:08:22.303979 11633 net.cpp:141] Setting up inception_4a/3x3_reduce
I0403 15:08:22.304010 11633 net.cpp:148] Top shape: 24 96 14 14 (451584)
I0403 15:08:22.304026 11633 net.cpp:156] Memory required for data: 863429664
I0403 15:08:22.304051 11633 layer_factory.hpp:77] Creating layer inception_4a/relu_3x3_reduce
I0403 15:08:22.304071 11633 net.cpp:91] Creating Layer inception_4a/relu_3x3_reduce
I0403 15:08:22.304087 11633 net.cpp:425] inception_4a/relu_3x3_reduce <- inception_4a/3x3_reduce
I0403 15:08:22.304105 11633 net.cpp:386] inception_4a/relu_3x3_reduce -> inception_4a/3x3_reduce (in-place)
I0403 15:08:22.304291 11633 net.cpp:141] Setting up inception_4a/relu_3x3_reduce
I0403 15:08:22.304316 11633 net.cpp:148] Top shape: 24 96 14 14 (451584)
I0403 15:08:22.304330 11633 net.cpp:156] Memory required for data: 865236000
I0403 15:08:22.304347 11633 layer_factory.hpp:77] Creating layer inception_4a/3x3
I0403 15:08:22.304368 11633 net.cpp:91] Creating Layer inception_4a/3x3
I0403 15:08:22.304390 11633 net.cpp:425] inception_4a/3x3 <- inception_4a/3x3_reduce
I0403 15:08:22.304414 11633 net.cpp:399] inception_4a/3x3 -> inception_4a/3x3
I0403 15:08:22.307175 11633 net.cpp:141] Setting up inception_4a/3x3
I0403 15:08:22.307205 11633 net.cpp:148] Top shape: 24 208 14 14 (978432)
I0403 15:08:22.307221 11633 net.cpp:156] Memory required for data: 869149728
I0403 15:08:22.307240 11633 layer_factory.hpp:77] Creating layer inception_4a/relu_3x3
I0403 15:08:22.307260 11633 net.cpp:91] Creating Layer inception_4a/relu_3x3
I0403 15:08:22.307277 11633 net.cpp:425] inception_4a/relu_3x3 <- inception_4a/3x3
I0403 15:08:22.307294 11633 net.cpp:386] inception_4a/relu_3x3 -> inception_4a/3x3 (in-place)
I0403 15:08:22.307610 11633 net.cpp:141] Setting up inception_4a/relu_3x3
I0403 15:08:22.307636 11633 net.cpp:148] Top shape: 24 208 14 14 (978432)
I0403 15:08:22.307652 11633 net.cpp:156] Memory required for data: 873063456
I0403 15:08:22.307667 11633 layer_factory.hpp:77] Creating layer inception_4a/5x5_reduce
I0403 15:08:22.307703 11633 net.cpp:91] Creating Layer inception_4a/5x5_reduce
I0403 15:08:22.307720 11633 net.cpp:425] inception_4a/5x5_reduce <- pool3/3x3_s2_pool3/3x3_s2_0_split_2
I0403 15:08:22.307742 11633 net.cpp:399] inception_4a/5x5_reduce -> inception_4a/5x5_reduce
I0403 15:08:22.308801 11633 net.cpp:141] Setting up inception_4a/5x5_reduce
I0403 15:08:22.308830 11633 net.cpp:148] Top shape: 24 16 14 14 (75264)
I0403 15:08:22.308845 11633 net.cpp:156] Memory required for data: 873364512
I0403 15:08:22.308863 11633 layer_factory.hpp:77] Creating layer inception_4a/relu_5x5_reduce
I0403 15:08:22.308883 11633 net.cpp:91] Creating Layer inception_4a/relu_5x5_reduce
I0403 15:08:22.308902 11633 net.cpp:425] inception_4a/relu_5x5_reduce <- inception_4a/5x5_reduce
I0403 15:08:22.308918 11633 net.cpp:386] inception_4a/relu_5x5_reduce -> inception_4a/5x5_reduce (in-place)
I0403 15:08:22.309103 11633 net.cpp:141] Setting up inception_4a/relu_5x5_reduce
I0403 15:08:22.309133 11633 net.cpp:148] Top shape: 24 16 14 14 (75264)
I0403 15:08:22.309149 11633 net.cpp:156] Memory required for data: 873665568
I0403 15:08:22.309164 11633 layer_factory.hpp:77] Creating layer inception_4a/5x5
I0403 15:08:22.309185 11633 net.cpp:91] Creating Layer inception_4a/5x5
I0403 15:08:22.309202 11633 net.cpp:425] inception_4a/5x5 <- inception_4a/5x5_reduce
I0403 15:08:22.309221 11633 net.cpp:399] inception_4a/5x5 -> inception_4a/5x5
I0403 15:08:22.310385 11633 net.cpp:141] Setting up inception_4a/5x5
I0403 15:08:22.310416 11633 net.cpp:148] Top shape: 24 48 14 14 (225792)
I0403 15:08:22.310433 11633 net.cpp:156] Memory required for data: 874568736
I0403 15:08:22.310452 11633 layer_factory.hpp:77] Creating layer inception_4a/relu_5x5
I0403 15:08:22.310472 11633 net.cpp:91] Creating Layer inception_4a/relu_5x5
I0403 15:08:22.310488 11633 net.cpp:425] inception_4a/relu_5x5 <- inception_4a/5x5
I0403 15:08:22.310509 11633 net.cpp:386] inception_4a/relu_5x5 -> inception_4a/5x5 (in-place)
I0403 15:08:22.310698 11633 net.cpp:141] Setting up inception_4a/relu_5x5
I0403 15:08:22.310724 11633 net.cpp:148] Top shape: 24 48 14 14 (225792)
I0403 15:08:22.310739 11633 net.cpp:156] Memory required for data: 875471904
I0403 15:08:22.310755 11633 layer_factory.hpp:77] Creating layer inception_4a/pool
I0403 15:08:22.310772 11633 net.cpp:91] Creating Layer inception_4a/pool
I0403 15:08:22.310788 11633 net.cpp:425] inception_4a/pool <- pool3/3x3_s2_pool3/3x3_s2_0_split_3
I0403 15:08:22.310811 11633 net.cpp:399] inception_4a/pool -> inception_4a/pool
I0403 15:08:22.310874 11633 net.cpp:141] Setting up inception_4a/pool
I0403 15:08:22.310899 11633 net.cpp:148] Top shape: 24 480 14 14 (2257920)
I0403 15:08:22.310914 11633 net.cpp:156] Memory required for data: 884503584
I0403 15:08:22.310928 11633 layer_factory.hpp:77] Creating layer inception_4a/pool_proj
I0403 15:08:22.310953 11633 net.cpp:91] Creating Layer inception_4a/pool_proj
I0403 15:08:22.310971 11633 net.cpp:425] inception_4a/pool_proj <- inception_4a/pool
I0403 15:08:22.310991 11633 net.cpp:399] inception_4a/pool_proj -> inception_4a/pool_proj
I0403 15:08:22.312229 11633 net.cpp:141] Setting up inception_4a/pool_proj
I0403 15:08:22.312263 11633 net.cpp:148] Top shape: 24 64 14 14 (301056)
I0403 15:08:22.312294 11633 net.cpp:156] Memory required for data: 885707808
I0403 15:08:22.312312 11633 layer_factory.hpp:77] Creating layer inception_4a/relu_pool_proj
I0403 15:08:22.312333 11633 net.cpp:91] Creating Layer inception_4a/relu_pool_proj
I0403 15:08:22.312350 11633 net.cpp:425] inception_4a/relu_pool_proj <- inception_4a/pool_proj
I0403 15:08:22.312371 11633 net.cpp:386] inception_4a/relu_pool_proj -> inception_4a/pool_proj (in-place)
I0403 15:08:22.312672 11633 net.cpp:141] Setting up inception_4a/relu_pool_proj
I0403 15:08:22.312701 11633 net.cpp:148] Top shape: 24 64 14 14 (301056)
I0403 15:08:22.312717 11633 net.cpp:156] Memory required for data: 886912032
I0403 15:08:22.312732 11633 layer_factory.hpp:77] Creating layer inception_4a/output
I0403 15:08:22.312749 11633 net.cpp:91] Creating Layer inception_4a/output
I0403 15:08:22.312765 11633 net.cpp:425] inception_4a/output <- inception_4a/1x1
I0403 15:08:22.312782 11633 net.cpp:425] inception_4a/output <- inception_4a/3x3
I0403 15:08:22.312798 11633 net.cpp:425] inception_4a/output <- inception_4a/5x5
I0403 15:08:22.312814 11633 net.cpp:425] inception_4a/output <- inception_4a/pool_proj
I0403 15:08:22.312834 11633 net.cpp:399] inception_4a/output -> inception_4a/output
I0403 15:08:22.312880 11633 net.cpp:141] Setting up inception_4a/output
I0403 15:08:22.312903 11633 net.cpp:148] Top shape: 24 512 14 14 (2408448)
I0403 15:08:22.312917 11633 net.cpp:156] Memory required for data: 896545824
I0403 15:08:22.312932 11633 layer_factory.hpp:77] Creating layer inception_4a/output_inception_4a/output_0_split
I0403 15:08:22.312952 11633 net.cpp:91] Creating Layer inception_4a/output_inception_4a/output_0_split
I0403 15:08:22.312968 11633 net.cpp:425] inception_4a/output_inception_4a/output_0_split <- inception_4a/output
I0403 15:08:22.312985 11633 net.cpp:399] inception_4a/output_inception_4a/output_0_split -> inception_4a/output_inception_4a/output_0_split_0
I0403 15:08:22.313010 11633 net.cpp:399] inception_4a/output_inception_4a/output_0_split -> inception_4a/output_inception_4a/output_0_split_1
I0403 15:08:22.313031 11633 net.cpp:399] inception_4a/output_inception_4a/output_0_split -> inception_4a/output_inception_4a/output_0_split_2
I0403 15:08:22.313052 11633 net.cpp:399] inception_4a/output_inception_4a/output_0_split -> inception_4a/output_inception_4a/output_0_split_3
I0403 15:08:22.313072 11633 net.cpp:399] inception_4a/output_inception_4a/output_0_split -> inception_4a/output_inception_4a/output_0_split_4
I0403 15:08:22.313165 11633 net.cpp:141] Setting up inception_4a/output_inception_4a/output_0_split
I0403 15:08:22.313189 11633 net.cpp:148] Top shape: 24 512 14 14 (2408448)
I0403 15:08:22.313205 11633 net.cpp:148] Top shape: 24 512 14 14 (2408448)
I0403 15:08:22.313220 11633 net.cpp:148] Top shape: 24 512 14 14 (2408448)
I0403 15:08:22.313235 11633 net.cpp:148] Top shape: 24 512 14 14 (2408448)
I0403 15:08:22.313251 11633 net.cpp:148] Top shape: 24 512 14 14 (2408448)
I0403 15:08:22.313264 11633 net.cpp:156] Memory required for data: 944714784
I0403 15:08:22.313278 11633 layer_factory.hpp:77] Creating layer loss1/ave_pool
I0403 15:08:22.313298 11633 net.cpp:91] Creating Layer loss1/ave_pool
I0403 15:08:22.313315 11633 net.cpp:425] loss1/ave_pool <- inception_4a/output_inception_4a/output_0_split_0
I0403 15:08:22.313333 11633 net.cpp:399] loss1/ave_pool -> loss1/ave_pool
I0403 15:08:22.313566 11633 net.cpp:141] Setting up loss1/ave_pool
I0403 15:08:22.313593 11633 net.cpp:148] Top shape: 24 512 4 4 (196608)
I0403 15:08:22.313608 11633 net.cpp:156] Memory required for data: 945501216
I0403 15:08:22.313624 11633 layer_factory.hpp:77] Creating layer loss1/conv
I0403 15:08:22.313648 11633 net.cpp:91] Creating Layer loss1/conv
I0403 15:08:22.313668 11633 net.cpp:425] loss1/conv <- loss1/ave_pool
I0403 15:08:22.313700 11633 net.cpp:399] loss1/conv -> loss1/conv
I0403 15:08:22.315132 11633 net.cpp:141] Setting up loss1/conv
I0403 15:08:22.315160 11633 net.cpp:148] Top shape: 24 128 4 4 (49152)
I0403 15:08:22.315191 11633 net.cpp:156] Memory required for data: 945697824
I0403 15:08:22.315209 11633 layer_factory.hpp:77] Creating layer loss1/relu_conv
I0403 15:08:22.315230 11633 net.cpp:91] Creating Layer loss1/relu_conv
I0403 15:08:22.315248 11633 net.cpp:425] loss1/relu_conv <- loss1/conv
I0403 15:08:22.315265 11633 net.cpp:386] loss1/relu_conv -> loss1/conv (in-place)
I0403 15:08:22.315569 11633 net.cpp:141] Setting up loss1/relu_conv
I0403 15:08:22.315596 11633 net.cpp:148] Top shape: 24 128 4 4 (49152)
I0403 15:08:22.315611 11633 net.cpp:156] Memory required for data: 945894432
I0403 15:08:22.315626 11633 layer_factory.hpp:77] Creating layer loss1/fc
I0403 15:08:22.315651 11633 net.cpp:91] Creating Layer loss1/fc
I0403 15:08:22.315670 11633 net.cpp:425] loss1/fc <- loss1/conv
I0403 15:08:22.315701 11633 net.cpp:399] loss1/fc -> loss1/fc
I0403 15:08:22.334031 11633 net.cpp:141] Setting up loss1/fc
I0403 15:08:22.334086 11633 net.cpp:148] Top shape: 24 1024 (24576)
I0403 15:08:22.334103 11633 net.cpp:156] Memory required for data: 945992736
I0403 15:08:22.334122 11633 layer_factory.hpp:77] Creating layer loss1/relu_fc
I0403 15:08:22.334141 11633 net.cpp:91] Creating Layer loss1/relu_fc
I0403 15:08:22.334157 11633 net.cpp:425] loss1/relu_fc <- loss1/fc
I0403 15:08:22.334179 11633 net.cpp:386] loss1/relu_fc -> loss1/fc (in-place)
I0403 15:08:22.334395 11633 net.cpp:141] Setting up loss1/relu_fc
I0403 15:08:22.334421 11633 net.cpp:148] Top shape: 24 1024 (24576)
I0403 15:08:22.334435 11633 net.cpp:156] Memory required for data: 946091040
I0403 15:08:22.334450 11633 layer_factory.hpp:77] Creating layer loss1/drop_fc
I0403 15:08:22.334481 11633 net.cpp:91] Creating Layer loss1/drop_fc
I0403 15:08:22.334498 11633 net.cpp:425] loss1/drop_fc <- loss1/fc
I0403 15:08:22.334517 11633 net.cpp:386] loss1/drop_fc -> loss1/fc (in-place)
I0403 15:08:22.334569 11633 net.cpp:141] Setting up loss1/drop_fc
I0403 15:08:22.334595 11633 net.cpp:148] Top shape: 24 1024 (24576)
I0403 15:08:22.334611 11633 net.cpp:156] Memory required for data: 946189344
I0403 15:08:22.334626 11633 layer_factory.hpp:77] Creating layer loss1/classifier_plantvillage
I0403 15:08:22.334645 11633 net.cpp:91] Creating Layer loss1/classifier_plantvillage
I0403 15:08:22.334664 11633 net.cpp:425] loss1/classifier_plantvillage <- loss1/fc
I0403 15:08:22.334686 11633 net.cpp:399] loss1/classifier_plantvillage -> loss1/classifier_plantvillage
I0403 15:08:22.335636 11633 net.cpp:141] Setting up loss1/classifier_plantvillage
I0403 15:08:22.335664 11633 net.cpp:148] Top shape: 24 38 (912)
I0403 15:08:22.335680 11633 net.cpp:156] Memory required for data: 946192992
I0403 15:08:22.335697 11633 layer_factory.hpp:77] Creating layer loss1/classifier_plantvillage_loss1/classifier_plantvillage_0_split
I0403 15:08:22.335716 11633 net.cpp:91] Creating Layer loss1/classifier_plantvillage_loss1/classifier_plantvillage_0_split
I0403 15:08:22.335733 11633 net.cpp:425] loss1/classifier_plantvillage_loss1/classifier_plantvillage_0_split <- loss1/classifier_plantvillage
I0403 15:08:22.335753 11633 net.cpp:399] loss1/classifier_plantvillage_loss1/classifier_plantvillage_0_split -> loss1/classifier_plantvillage_loss1/classifier_plantvillage_0_split_0
I0403 15:08:22.335775 11633 net.cpp:399] loss1/classifier_plantvillage_loss1/classifier_plantvillage_0_split -> loss1/classifier_plantvillage_loss1/classifier_plantvillage_0_split_1
I0403 15:08:22.335795 11633 net.cpp:399] loss1/classifier_plantvillage_loss1/classifier_plantvillage_0_split -> loss1/classifier_plantvillage_loss1/classifier_plantvillage_0_split_2
I0403 15:08:22.335865 11633 net.cpp:141] Setting up loss1/classifier_plantvillage_loss1/classifier_plantvillage_0_split
I0403 15:08:22.335889 11633 net.cpp:148] Top shape: 24 38 (912)
I0403 15:08:22.335906 11633 net.cpp:148] Top shape: 24 38 (912)
I0403 15:08:22.335921 11633 net.cpp:148] Top shape: 24 38 (912)
I0403 15:08:22.335934 11633 net.cpp:156] Memory required for data: 946203936
I0403 15:08:22.335948 11633 layer_factory.hpp:77] Creating layer inception_4b/1x1
I0403 15:08:22.335973 11633 net.cpp:91] Creating Layer inception_4b/1x1
I0403 15:08:22.336011 11633 net.cpp:425] inception_4b/1x1 <- inception_4a/output_inception_4a/output_0_split_1
I0403 15:08:22.336032 11633 net.cpp:399] inception_4b/1x1 -> inception_4b/1x1
I0403 15:08:22.337807 11633 net.cpp:141] Setting up inception_4b/1x1
I0403 15:08:22.337836 11633 net.cpp:148] Top shape: 24 160 14 14 (752640)
I0403 15:08:22.337852 11633 net.cpp:156] Memory required for data: 949214496
I0403 15:08:22.337870 11633 layer_factory.hpp:77] Creating layer inception_4b/relu_1x1
I0403 15:08:22.337890 11633 net.cpp:91] Creating Layer inception_4b/relu_1x1
I0403 15:08:22.337908 11633 net.cpp:425] inception_4b/relu_1x1 <- inception_4b/1x1
I0403 15:08:22.337925 11633 net.cpp:386] inception_4b/relu_1x1 -> inception_4b/1x1 (in-place)
I0403 15:08:22.338114 11633 net.cpp:141] Setting up inception_4b/relu_1x1
I0403 15:08:22.338140 11633 net.cpp:148] Top shape: 24 160 14 14 (752640)
I0403 15:08:22.338156 11633 net.cpp:156] Memory required for data: 952225056
I0403 15:08:22.338171 11633 layer_factory.hpp:77] Creating layer inception_4b/3x3_reduce
I0403 15:08:22.338193 11633 net.cpp:91] Creating Layer inception_4b/3x3_reduce
I0403 15:08:22.338212 11633 net.cpp:425] inception_4b/3x3_reduce <- inception_4a/output_inception_4a/output_0_split_2
I0403 15:08:22.338230 11633 net.cpp:399] inception_4b/3x3_reduce -> inception_4b/3x3_reduce
I0403 15:08:22.339642 11633 net.cpp:141] Setting up inception_4b/3x3_reduce
I0403 15:08:22.339673 11633 net.cpp:148] Top shape: 24 112 14 14 (526848)
I0403 15:08:22.339690 11633 net.cpp:156] Memory required for data: 954332448
I0403 15:08:22.339709 11633 layer_factory.hpp:77] Creating layer inception_4b/relu_3x3_reduce
I0403 15:08:22.339727 11633 net.cpp:91] Creating Layer inception_4b/relu_3x3_reduce
I0403 15:08:22.339742 11633 net.cpp:425] inception_4b/relu_3x3_reduce <- inception_4b/3x3_reduce
I0403 15:08:22.339761 11633 net.cpp:386] inception_4b/relu_3x3_reduce -> inception_4b/3x3_reduce (in-place)
I0403 15:08:22.340057 11633 net.cpp:141] Setting up inception_4b/relu_3x3_reduce
I0403 15:08:22.340086 11633 net.cpp:148] Top shape: 24 112 14 14 (526848)
I0403 15:08:22.340103 11633 net.cpp:156] Memory required for data: 956439840
I0403 15:08:22.340118 11633 layer_factory.hpp:77] Creating layer inception_4b/3x3
I0403 15:08:22.340142 11633 net.cpp:91] Creating Layer inception_4b/3x3
I0403 15:08:22.340159 11633 net.cpp:425] inception_4b/3x3 <- inception_4b/3x3_reduce
I0403 15:08:22.340178 11633 net.cpp:399] inception_4b/3x3 -> inception_4b/3x3
I0403 15:08:22.343255 11633 net.cpp:141] Setting up inception_4b/3x3
I0403 15:08:22.343284 11633 net.cpp:148] Top shape: 24 224 14 14 (1053696)
I0403 15:08:22.343300 11633 net.cpp:156] Memory required for data: 960654624
I0403 15:08:22.343319 11633 layer_factory.hpp:77] Creating layer inception_4b/relu_3x3
I0403 15:08:22.343338 11633 net.cpp:91] Creating Layer inception_4b/relu_3x3
I0403 15:08:22.343354 11633 net.cpp:425] inception_4b/relu_3x3 <- inception_4b/3x3
I0403 15:08:22.343374 11633 net.cpp:386] inception_4b/relu_3x3 -> inception_4b/3x3 (in-place)
I0403 15:08:22.343569 11633 net.cpp:141] Setting up inception_4b/relu_3x3
I0403 15:08:22.343593 11633 net.cpp:148] Top shape: 24 224 14 14 (1053696)
I0403 15:08:22.343608 11633 net.cpp:156] Memory required for data: 964869408
I0403 15:08:22.343623 11633 layer_factory.hpp:77] Creating layer inception_4b/5x5_reduce
I0403 15:08:22.343646 11633 net.cpp:91] Creating Layer inception_4b/5x5_reduce
I0403 15:08:22.343664 11633 net.cpp:425] inception_4b/5x5_reduce <- inception_4a/output_inception_4a/output_0_split_3
I0403 15:08:22.343688 11633 net.cpp:399] inception_4b/5x5_reduce -> inception_4b/5x5_reduce
I0403 15:08:22.344848 11633 net.cpp:141] Setting up inception_4b/5x5_reduce
I0403 15:08:22.344877 11633 net.cpp:148] Top shape: 24 24 14 14 (112896)
I0403 15:08:22.344893 11633 net.cpp:156] Memory required for data: 965320992
I0403 15:08:22.344913 11633 layer_factory.hpp:77] Creating layer inception_4b/relu_5x5_reduce
I0403 15:08:22.344935 11633 net.cpp:91] Creating Layer inception_4b/relu_5x5_reduce
I0403 15:08:22.344969 11633 net.cpp:425] inception_4b/relu_5x5_reduce <- inception_4b/5x5_reduce
I0403 15:08:22.344988 11633 net.cpp:386] inception_4b/relu_5x5_reduce -> inception_4b/5x5_reduce (in-place)
I0403 15:08:22.345185 11633 net.cpp:141] Setting up inception_4b/relu_5x5_reduce
I0403 15:08:22.345213 11633 net.cpp:148] Top shape: 24 24 14 14 (112896)
I0403 15:08:22.345229 11633 net.cpp:156] Memory required for data: 965772576
I0403 15:08:22.345245 11633 layer_factory.hpp:77] Creating layer inception_4b/5x5
I0403 15:08:22.345268 11633 net.cpp:91] Creating Layer inception_4b/5x5
I0403 15:08:22.345288 11633 net.cpp:425] inception_4b/5x5 <- inception_4b/5x5_reduce
I0403 15:08:22.345307 11633 net.cpp:399] inception_4b/5x5 -> inception_4b/5x5
I0403 15:08:22.346619 11633 net.cpp:141] Setting up inception_4b/5x5
I0403 15:08:22.346648 11633 net.cpp:148] Top shape: 24 64 14 14 (301056)
I0403 15:08:22.346664 11633 net.cpp:156] Memory required for data: 966976800
I0403 15:08:22.346683 11633 layer_factory.hpp:77] Creating layer inception_4b/relu_5x5
I0403 15:08:22.346704 11633 net.cpp:91] Creating Layer inception_4b/relu_5x5
I0403 15:08:22.346722 11633 net.cpp:425] inception_4b/relu_5x5 <- inception_4b/5x5
I0403 15:08:22.346740 11633 net.cpp:386] inception_4b/relu_5x5 -> inception_4b/5x5 (in-place)
I0403 15:08:22.347041 11633 net.cpp:141] Setting up inception_4b/relu_5x5
I0403 15:08:22.347069 11633 net.cpp:148] Top shape: 24 64 14 14 (301056)
I0403 15:08:22.347084 11633 net.cpp:156] Memory required for data: 968181024
I0403 15:08:22.347100 11633 layer_factory.hpp:77] Creating layer inception_4b/pool
I0403 15:08:22.347123 11633 net.cpp:91] Creating Layer inception_4b/pool
I0403 15:08:22.347142 11633 net.cpp:425] inception_4b/pool <- inception_4a/output_inception_4a/output_0_split_4
I0403 15:08:22.347162 11633 net.cpp:399] inception_4b/pool -> inception_4b/pool
I0403 15:08:22.347230 11633 net.cpp:141] Setting up inception_4b/pool
I0403 15:08:22.347255 11633 net.cpp:148] Top shape: 24 512 14 14 (2408448)
I0403 15:08:22.347270 11633 net.cpp:156] Memory required for data: 977814816
I0403 15:08:22.347286 11633 layer_factory.hpp:77] Creating layer inception_4b/pool_proj
I0403 15:08:22.347309 11633 net.cpp:91] Creating Layer inception_4b/pool_proj
I0403 15:08:22.347328 11633 net.cpp:425] inception_4b/pool_proj <- inception_4b/pool
I0403 15:08:22.347352 11633 net.cpp:399] inception_4b/pool_proj -> inception_4b/pool_proj
I0403 15:08:22.348635 11633 net.cpp:141] Setting up inception_4b/pool_proj
I0403 15:08:22.348665 11633 net.cpp:148] Top shape: 24 64 14 14 (301056)
I0403 15:08:22.348681 11633 net.cpp:156] Memory required for data: 979019040
I0403 15:08:22.348701 11633 layer_factory.hpp:77] Creating layer inception_4b/relu_pool_proj
I0403 15:08:22.348721 11633 net.cpp:91] Creating Layer inception_4b/relu_pool_proj
I0403 15:08:22.348739 11633 net.cpp:425] inception_4b/relu_pool_proj <- inception_4b/pool_proj
I0403 15:08:22.348758 11633 net.cpp:386] inception_4b/relu_pool_proj -> inception_4b/pool_proj (in-place)
I0403 15:08:22.348949 11633 net.cpp:141] Setting up inception_4b/relu_pool_proj
I0403 15:08:22.348978 11633 net.cpp:148] Top shape: 24 64 14 14 (301056)
I0403 15:08:22.348992 11633 net.cpp:156] Memory required for data: 980223264
I0403 15:08:22.349007 11633 layer_factory.hpp:77] Creating layer inception_4b/output
I0403 15:08:22.349025 11633 net.cpp:91] Creating Layer inception_4b/output
I0403 15:08:22.349041 11633 net.cpp:425] inception_4b/output <- inception_4b/1x1
I0403 15:08:22.349059 11633 net.cpp:425] inception_4b/output <- inception_4b/3x3
I0403 15:08:22.349076 11633 net.cpp:425] inception_4b/output <- inception_4b/5x5
I0403 15:08:22.349093 11633 net.cpp:425] inception_4b/output <- inception_4b/pool_proj
I0403 15:08:22.349110 11633 net.cpp:399] inception_4b/output -> inception_4b/output
I0403 15:08:22.349160 11633 net.cpp:141] Setting up inception_4b/output
I0403 15:08:22.349184 11633 net.cpp:148] Top shape: 24 512 14 14 (2408448)
I0403 15:08:22.349200 11633 net.cpp:156] Memory required for data: 989857056
I0403 15:08:22.349231 11633 layer_factory.hpp:77] Creating layer inception_4b/output_inception_4b/output_0_split
I0403 15:08:22.349251 11633 net.cpp:91] Creating Layer inception_4b/output_inception_4b/output_0_split
I0403 15:08:22.349269 11633 net.cpp:425] inception_4b/output_inception_4b/output_0_split <- inception_4b/output
I0403 15:08:22.349288 11633 net.cpp:399] inception_4b/output_inception_4b/output_0_split -> inception_4b/output_inception_4b/output_0_split_0
I0403 15:08:22.349309 11633 net.cpp:399] inception_4b/output_inception_4b/output_0_split -> inception_4b/output_inception_4b/output_0_split_1
I0403 15:08:22.349330 11633 net.cpp:399] inception_4b/output_inception_4b/output_0_split -> inception_4b/output_inception_4b/output_0_split_2
I0403 15:08:22.349354 11633 net.cpp:399] inception_4b/output_inception_4b/output_0_split -> inception_4b/output_inception_4b/output_0_split_3
I0403 15:08:22.349448 11633 net.cpp:141] Setting up inception_4b/output_inception_4b/output_0_split
I0403 15:08:22.349474 11633 net.cpp:148] Top shape: 24 512 14 14 (2408448)
I0403 15:08:22.349490 11633 net.cpp:148] Top shape: 24 512 14 14 (2408448)
I0403 15:08:22.349506 11633 net.cpp:148] Top shape: 24 512 14 14 (2408448)
I0403 15:08:22.349522 11633 net.cpp:148] Top shape: 24 512 14 14 (2408448)
I0403 15:08:22.349537 11633 net.cpp:156] Memory required for data: 1028392224
I0403 15:08:22.349552 11633 layer_factory.hpp:77] Creating layer inception_4c/1x1
I0403 15:08:22.349575 11633 net.cpp:91] Creating Layer inception_4c/1x1
I0403 15:08:22.349592 11633 net.cpp:425] inception_4c/1x1 <- inception_4b/output_inception_4b/output_0_split_0
I0403 15:08:22.349614 11633 net.cpp:399] inception_4c/1x1 -> inception_4c/1x1
I0403 15:08:22.351145 11633 net.cpp:141] Setting up inception_4c/1x1
I0403 15:08:22.351174 11633 net.cpp:148] Top shape: 24 128 14 14 (602112)
I0403 15:08:22.351191 11633 net.cpp:156] Memory required for data: 1030800672
I0403 15:08:22.351210 11633 layer_factory.hpp:77] Creating layer inception_4c/relu_1x1
I0403 15:08:22.351229 11633 net.cpp:91] Creating Layer inception_4c/relu_1x1
I0403 15:08:22.351246 11633 net.cpp:425] inception_4c/relu_1x1 <- inception_4c/1x1
I0403 15:08:22.351268 11633 net.cpp:386] inception_4c/relu_1x1 -> inception_4c/1x1 (in-place)
I0403 15:08:22.351469 11633 net.cpp:141] Setting up inception_4c/relu_1x1
I0403 15:08:22.351495 11633 net.cpp:148] Top shape: 24 128 14 14 (602112)
I0403 15:08:22.351511 11633 net.cpp:156] Memory required for data: 1033209120
I0403 15:08:22.351526 11633 layer_factory.hpp:77] Creating layer inception_4c/3x3_reduce
I0403 15:08:22.351549 11633 net.cpp:91] Creating Layer inception_4c/3x3_reduce
I0403 15:08:22.351567 11633 net.cpp:425] inception_4c/3x3_reduce <- inception_4b/output_inception_4b/output_0_split_1
I0403 15:08:22.351593 11633 net.cpp:399] inception_4c/3x3_reduce -> inception_4c/3x3_reduce
I0403 15:08:22.353682 11633 net.cpp:141] Setting up inception_4c/3x3_reduce
I0403 15:08:22.353713 11633 net.cpp:148] Top shape: 24 128 14 14 (602112)
I0403 15:08:22.353730 11633 net.cpp:156] Memory required for data: 1035617568
I0403 15:08:22.353749 11633 layer_factory.hpp:77] Creating layer inception_4c/relu_3x3_reduce
I0403 15:08:22.353770 11633 net.cpp:91] Creating Layer inception_4c/relu_3x3_reduce
I0403 15:08:22.353787 11633 net.cpp:425] inception_4c/relu_3x3_reduce <- inception_4c/3x3_reduce
I0403 15:08:22.353806 11633 net.cpp:386] inception_4c/relu_3x3_reduce -> inception_4c/3x3_reduce (in-place)
I0403 15:08:22.354116 11633 net.cpp:141] Setting up inception_4c/relu_3x3_reduce
I0403 15:08:22.354143 11633 net.cpp:148] Top shape: 24 128 14 14 (602112)
I0403 15:08:22.354159 11633 net.cpp:156] Memory required for data: 1038026016
I0403 15:08:22.354176 11633 layer_factory.hpp:77] Creating layer inception_4c/3x3
I0403 15:08:22.354199 11633 net.cpp:91] Creating Layer inception_4c/3x3
I0403 15:08:22.354218 11633 net.cpp:425] inception_4c/3x3 <- inception_4c/3x3_reduce
I0403 15:08:22.354240 11633 net.cpp:399] inception_4c/3x3 -> inception_4c/3x3
I0403 15:08:22.358151 11633 net.cpp:141] Setting up inception_4c/3x3
I0403 15:08:22.358196 11633 net.cpp:148] Top shape: 24 256 14 14 (1204224)
I0403 15:08:22.358212 11633 net.cpp:156] Memory required for data: 1042842912
I0403 15:08:22.358248 11633 layer_factory.hpp:77] Creating layer inception_4c/relu_3x3
I0403 15:08:22.358273 11633 net.cpp:91] Creating Layer inception_4c/relu_3x3
I0403 15:08:22.358289 11633 net.cpp:425] inception_4c/relu_3x3 <- inception_4c/3x3
I0403 15:08:22.358307 11633 net.cpp:386] inception_4c/relu_3x3 -> inception_4c/3x3 (in-place)
I0403 15:08:22.358510 11633 net.cpp:141] Setting up inception_4c/relu_3x3
I0403 15:08:22.358536 11633 net.cpp:148] Top shape: 24 256 14 14 (1204224)
I0403 15:08:22.358554 11633 net.cpp:156] Memory required for data: 1047659808
I0403 15:08:22.358571 11633 layer_factory.hpp:77] Creating layer inception_4c/5x5_reduce
I0403 15:08:22.358592 11633 net.cpp:91] Creating Layer inception_4c/5x5_reduce
I0403 15:08:22.358608 11633 net.cpp:425] inception_4c/5x5_reduce <- inception_4b/output_inception_4b/output_0_split_2
I0403 15:08:22.358633 11633 net.cpp:399] inception_4c/5x5_reduce -> inception_4c/5x5_reduce
I0403 15:08:22.359802 11633 net.cpp:141] Setting up inception_4c/5x5_reduce
I0403 15:08:22.359832 11633 net.cpp:148] Top shape: 24 24 14 14 (112896)
I0403 15:08:22.359848 11633 net.cpp:156] Memory required for data: 1048111392
I0403 15:08:22.359868 11633 layer_factory.hpp:77] Creating layer inception_4c/relu_5x5_reduce
I0403 15:08:22.359889 11633 net.cpp:91] Creating Layer inception_4c/relu_5x5_reduce
I0403 15:08:22.359906 11633 net.cpp:425] inception_4c/relu_5x5_reduce <- inception_4c/5x5_reduce
I0403 15:08:22.359925 11633 net.cpp:386] inception_4c/relu_5x5_reduce -> inception_4c/5x5_reduce (in-place)
I0403 15:08:22.360127 11633 net.cpp:141] Setting up inception_4c/relu_5x5_reduce
I0403 15:08:22.360155 11633 net.cpp:148] Top shape: 24 24 14 14 (112896)
I0403 15:08:22.360172 11633 net.cpp:156] Memory required for data: 1048562976
I0403 15:08:22.360188 11633 layer_factory.hpp:77] Creating layer inception_4c/5x5
I0403 15:08:22.360210 11633 net.cpp:91] Creating Layer inception_4c/5x5
I0403 15:08:22.360229 11633 net.cpp:425] inception_4c/5x5 <- inception_4c/5x5_reduce
I0403 15:08:22.360249 11633 net.cpp:399] inception_4c/5x5 -> inception_4c/5x5
I0403 15:08:22.361569 11633 net.cpp:141] Setting up inception_4c/5x5
I0403 15:08:22.361599 11633 net.cpp:148] Top shape: 24 64 14 14 (301056)
I0403 15:08:22.361615 11633 net.cpp:156] Memory required for data: 1049767200
I0403 15:08:22.361634 11633 layer_factory.hpp:77] Creating layer inception_4c/relu_5x5
I0403 15:08:22.361651 11633 net.cpp:91] Creating Layer inception_4c/relu_5x5
I0403 15:08:22.361667 11633 net.cpp:425] inception_4c/relu_5x5 <- inception_4c/5x5
I0403 15:08:22.361687 11633 net.cpp:386] inception_4c/relu_5x5 -> inception_4c/5x5 (in-place)
I0403 15:08:22.361985 11633 net.cpp:141] Setting up inception_4c/relu_5x5
I0403 15:08:22.362013 11633 net.cpp:148] Top shape: 24 64 14 14 (301056)
I0403 15:08:22.362028 11633 net.cpp:156] Memory required for data: 1050971424
I0403 15:08:22.362043 11633 layer_factory.hpp:77] Creating layer inception_4c/pool
I0403 15:08:22.362061 11633 net.cpp:91] Creating Layer inception_4c/pool
I0403 15:08:22.362077 11633 net.cpp:425] inception_4c/pool <- inception_4b/output_inception_4b/output_0_split_3
I0403 15:08:22.362098 11633 net.cpp:399] inception_4c/pool -> inception_4c/pool
I0403 15:08:22.362167 11633 net.cpp:141] Setting up inception_4c/pool
I0403 15:08:22.362191 11633 net.cpp:148] Top shape: 24 512 14 14 (2408448)
I0403 15:08:22.362206 11633 net.cpp:156] Memory required for data: 1060605216
I0403 15:08:22.362221 11633 layer_factory.hpp:77] Creating layer inception_4c/pool_proj
I0403 15:08:22.362244 11633 net.cpp:91] Creating Layer inception_4c/pool_proj
I0403 15:08:22.362262 11633 net.cpp:425] inception_4c/pool_proj <- inception_4c/pool
I0403 15:08:22.362282 11633 net.cpp:399] inception_4c/pool_proj -> inception_4c/pool_proj
I0403 15:08:22.363590 11633 net.cpp:141] Setting up inception_4c/pool_proj
I0403 15:08:22.363617 11633 net.cpp:148] Top shape: 24 64 14 14 (301056)
I0403 15:08:22.363647 11633 net.cpp:156] Memory required for data: 1061809440
I0403 15:08:22.363665 11633 layer_factory.hpp:77] Creating layer inception_4c/relu_pool_proj
I0403 15:08:22.363687 11633 net.cpp:91] Creating Layer inception_4c/relu_pool_proj
I0403 15:08:22.363703 11633 net.cpp:425] inception_4c/relu_pool_proj <- inception_4c/pool_proj
I0403 15:08:22.363720 11633 net.cpp:386] inception_4c/relu_pool_proj -> inception_4c/pool_proj (in-place)
I0403 15:08:22.363912 11633 net.cpp:141] Setting up inception_4c/relu_pool_proj
I0403 15:08:22.363939 11633 net.cpp:148] Top shape: 24 64 14 14 (301056)
I0403 15:08:22.363953 11633 net.cpp:156] Memory required for data: 1063013664
I0403 15:08:22.363968 11633 layer_factory.hpp:77] Creating layer inception_4c/output
I0403 15:08:22.363984 11633 net.cpp:91] Creating Layer inception_4c/output
I0403 15:08:22.363999 11633 net.cpp:425] inception_4c/output <- inception_4c/1x1
I0403 15:08:22.364015 11633 net.cpp:425] inception_4c/output <- inception_4c/3x3
I0403 15:08:22.364032 11633 net.cpp:425] inception_4c/output <- inception_4c/5x5
I0403 15:08:22.364048 11633 net.cpp:425] inception_4c/output <- inception_4c/pool_proj
I0403 15:08:22.364063 11633 net.cpp:399] inception_4c/output -> inception_4c/output
I0403 15:08:22.364111 11633 net.cpp:141] Setting up inception_4c/output
I0403 15:08:22.364135 11633 net.cpp:148] Top shape: 24 512 14 14 (2408448)
I0403 15:08:22.364148 11633 net.cpp:156] Memory required for data: 1072647456
I0403 15:08:22.364162 11633 layer_factory.hpp:77] Creating layer inception_4c/output_inception_4c/output_0_split
I0403 15:08:22.364181 11633 net.cpp:91] Creating Layer inception_4c/output_inception_4c/output_0_split
I0403 15:08:22.364197 11633 net.cpp:425] inception_4c/output_inception_4c/output_0_split <- inception_4c/output
I0403 15:08:22.364214 11633 net.cpp:399] inception_4c/output_inception_4c/output_0_split -> inception_4c/output_inception_4c/output_0_split_0
I0403 15:08:22.364235 11633 net.cpp:399] inception_4c/output_inception_4c/output_0_split -> inception_4c/output_inception_4c/output_0_split_1
I0403 15:08:22.364254 11633 net.cpp:399] inception_4c/output_inception_4c/output_0_split -> inception_4c/output_inception_4c/output_0_split_2
I0403 15:08:22.364277 11633 net.cpp:399] inception_4c/output_inception_4c/output_0_split -> inception_4c/output_inception_4c/output_0_split_3
I0403 15:08:22.364364 11633 net.cpp:141] Setting up inception_4c/output_inception_4c/output_0_split
I0403 15:08:22.364392 11633 net.cpp:148] Top shape: 24 512 14 14 (2408448)
I0403 15:08:22.364409 11633 net.cpp:148] Top shape: 24 512 14 14 (2408448)
I0403 15:08:22.364424 11633 net.cpp:148] Top shape: 24 512 14 14 (2408448)
I0403 15:08:22.364439 11633 net.cpp:148] Top shape: 24 512 14 14 (2408448)
I0403 15:08:22.364452 11633 net.cpp:156] Memory required for data: 1111182624
I0403 15:08:22.364466 11633 layer_factory.hpp:77] Creating layer inception_4d/1x1
I0403 15:08:22.364488 11633 net.cpp:91] Creating Layer inception_4d/1x1
I0403 15:08:22.364505 11633 net.cpp:425] inception_4d/1x1 <- inception_4c/output_inception_4c/output_0_split_0
I0403 15:08:22.364526 11633 net.cpp:399] inception_4d/1x1 -> inception_4d/1x1
I0403 15:08:22.365927 11633 net.cpp:141] Setting up inception_4d/1x1
I0403 15:08:22.365955 11633 net.cpp:148] Top shape: 24 112 14 14 (526848)
I0403 15:08:22.365970 11633 net.cpp:156] Memory required for data: 1113290016
I0403 15:08:22.365988 11633 layer_factory.hpp:77] Creating layer inception_4d/relu_1x1
I0403 15:08:22.366006 11633 net.cpp:91] Creating Layer inception_4d/relu_1x1
I0403 15:08:22.366021 11633 net.cpp:425] inception_4d/relu_1x1 <- inception_4d/1x1
I0403 15:08:22.366040 11633 net.cpp:386] inception_4d/relu_1x1 -> inception_4d/1x1 (in-place)
I0403 15:08:22.366228 11633 net.cpp:141] Setting up inception_4d/relu_1x1
I0403 15:08:22.366252 11633 net.cpp:148] Top shape: 24 112 14 14 (526848)
I0403 15:08:22.366266 11633 net.cpp:156] Memory required for data: 1115397408
I0403 15:08:22.366281 11633 layer_factory.hpp:77] Creating layer inception_4d/3x3_reduce
I0403 15:08:22.366317 11633 net.cpp:91] Creating Layer inception_4d/3x3_reduce
I0403 15:08:22.366334 11633 net.cpp:425] inception_4d/3x3_reduce <- inception_4c/output_inception_4c/output_0_split_1
I0403 15:08:22.366369 11633 net.cpp:399] inception_4d/3x3_reduce -> inception_4d/3x3_reduce
I0403 15:08:22.367924 11633 net.cpp:141] Setting up inception_4d/3x3_reduce
I0403 15:08:22.367954 11633 net.cpp:148] Top shape: 24 144 14 14 (677376)
I0403 15:08:22.367970 11633 net.cpp:156] Memory required for data: 1118106912
I0403 15:08:22.367988 11633 layer_factory.hpp:77] Creating layer inception_4d/relu_3x3_reduce
I0403 15:08:22.368006 11633 net.cpp:91] Creating Layer inception_4d/relu_3x3_reduce
I0403 15:08:22.368022 11633 net.cpp:425] inception_4d/relu_3x3_reduce <- inception_4d/3x3_reduce
I0403 15:08:22.368041 11633 net.cpp:386] inception_4d/relu_3x3_reduce -> inception_4d/3x3_reduce (in-place)
I0403 15:08:22.368340 11633 net.cpp:141] Setting up inception_4d/relu_3x3_reduce
I0403 15:08:22.368367 11633 net.cpp:148] Top shape: 24 144 14 14 (677376)
I0403 15:08:22.368401 11633 net.cpp:156] Memory required for data: 1120816416
I0403 15:08:22.368417 11633 layer_factory.hpp:77] Creating layer inception_4d/3x3
I0403 15:08:22.368439 11633 net.cpp:91] Creating Layer inception_4d/3x3
I0403 15:08:22.368458 11633 net.cpp:425] inception_4d/3x3 <- inception_4d/3x3_reduce
I0403 15:08:22.368477 11633 net.cpp:399] inception_4d/3x3 -> inception_4d/3x3
I0403 15:08:22.372828 11633 net.cpp:141] Setting up inception_4d/3x3
I0403 15:08:22.372859 11633 net.cpp:148] Top shape: 24 288 14 14 (1354752)
I0403 15:08:22.372874 11633 net.cpp:156] Memory required for data: 1126235424
I0403 15:08:22.372892 11633 layer_factory.hpp:77] Creating layer inception_4d/relu_3x3
I0403 15:08:22.372913 11633 net.cpp:91] Creating Layer inception_4d/relu_3x3
I0403 15:08:22.372942 11633 net.cpp:425] inception_4d/relu_3x3 <- inception_4d/3x3
I0403 15:08:22.372959 11633 net.cpp:386] inception_4d/relu_3x3 -> inception_4d/3x3 (in-place)
I0403 15:08:22.373148 11633 net.cpp:141] Setting up inception_4d/relu_3x3
I0403 15:08:22.373172 11633 net.cpp:148] Top shape: 24 288 14 14 (1354752)
I0403 15:08:22.373188 11633 net.cpp:156] Memory required for data: 1131654432
I0403 15:08:22.373201 11633 layer_factory.hpp:77] Creating layer inception_4d/5x5_reduce
I0403 15:08:22.373225 11633 net.cpp:91] Creating Layer inception_4d/5x5_reduce
I0403 15:08:22.373244 11633 net.cpp:425] inception_4d/5x5_reduce <- inception_4c/output_inception_4c/output_0_split_2
I0403 15:08:22.373262 11633 net.cpp:399] inception_4d/5x5_reduce -> inception_4d/5x5_reduce
I0403 15:08:22.374439 11633 net.cpp:141] Setting up inception_4d/5x5_reduce
I0403 15:08:22.374469 11633 net.cpp:148] Top shape: 24 32 14 14 (150528)
I0403 15:08:22.374485 11633 net.cpp:156] Memory required for data: 1132256544
I0403 15:08:22.374503 11633 layer_factory.hpp:77] Creating layer inception_4d/relu_5x5_reduce
I0403 15:08:22.374524 11633 net.cpp:91] Creating Layer inception_4d/relu_5x5_reduce
I0403 15:08:22.374541 11633 net.cpp:425] inception_4d/relu_5x5_reduce <- inception_4d/5x5_reduce
I0403 15:08:22.374559 11633 net.cpp:386] inception_4d/relu_5x5_reduce -> inception_4d/5x5_reduce (in-place)
I0403 15:08:22.374770 11633 net.cpp:141] Setting up inception_4d/relu_5x5_reduce
I0403 15:08:22.374794 11633 net.cpp:148] Top shape: 24 32 14 14 (150528)
I0403 15:08:22.374812 11633 net.cpp:156] Memory required for data: 1132858656
I0403 15:08:22.374827 11633 layer_factory.hpp:77] Creating layer inception_4d/5x5
I0403 15:08:22.374846 11633 net.cpp:91] Creating Layer inception_4d/5x5
I0403 15:08:22.374862 11633 net.cpp:425] inception_4d/5x5 <- inception_4d/5x5_reduce
I0403 15:08:22.374883 11633 net.cpp:399] inception_4d/5x5 -> inception_4d/5x5
I0403 15:08:22.376373 11633 net.cpp:141] Setting up inception_4d/5x5
I0403 15:08:22.376422 11633 net.cpp:148] Top shape: 24 64 14 14 (301056)
I0403 15:08:22.376438 11633 net.cpp:156] Memory required for data: 1134062880
I0403 15:08:22.376458 11633 layer_factory.hpp:77] Creating layer inception_4d/relu_5x5
I0403 15:08:22.376492 11633 net.cpp:91] Creating Layer inception_4d/relu_5x5
I0403 15:08:22.376508 11633 net.cpp:425] inception_4d/relu_5x5 <- inception_4d/5x5
I0403 15:08:22.376526 11633 net.cpp:386] inception_4d/relu_5x5 -> inception_4d/5x5 (in-place)
I0403 15:08:22.376847 11633 net.cpp:141] Setting up inception_4d/relu_5x5
I0403 15:08:22.376874 11633 net.cpp:148] Top shape: 24 64 14 14 (301056)
I0403 15:08:22.376890 11633 net.cpp:156] Memory required for data: 1135267104
I0403 15:08:22.376905 11633 layer_factory.hpp:77] Creating layer inception_4d/pool
I0403 15:08:22.376922 11633 net.cpp:91] Creating Layer inception_4d/pool
I0403 15:08:22.376938 11633 net.cpp:425] inception_4d/pool <- inception_4c/output_inception_4c/output_0_split_3
I0403 15:08:22.376956 11633 net.cpp:399] inception_4d/pool -> inception_4d/pool
I0403 15:08:22.377023 11633 net.cpp:141] Setting up inception_4d/pool
I0403 15:08:22.377048 11633 net.cpp:148] Top shape: 24 512 14 14 (2408448)
I0403 15:08:22.377061 11633 net.cpp:156] Memory required for data: 1144900896
I0403 15:08:22.377075 11633 layer_factory.hpp:77] Creating layer inception_4d/pool_proj
I0403 15:08:22.377097 11633 net.cpp:91] Creating Layer inception_4d/pool_proj
I0403 15:08:22.377115 11633 net.cpp:425] inception_4d/pool_proj <- inception_4d/pool
I0403 15:08:22.377135 11633 net.cpp:399] inception_4d/pool_proj -> inception_4d/pool_proj
I0403 15:08:22.378940 11633 net.cpp:141] Setting up inception_4d/pool_proj
I0403 15:08:22.378969 11633 net.cpp:148] Top shape: 24 64 14 14 (301056)
I0403 15:08:22.378984 11633 net.cpp:156] Memory required for data: 1146105120
I0403 15:08:22.379001 11633 layer_factory.hpp:77] Creating layer inception_4d/relu_pool_proj
I0403 15:08:22.379021 11633 net.cpp:91] Creating Layer inception_4d/relu_pool_proj
I0403 15:08:22.379039 11633 net.cpp:425] inception_4d/relu_pool_proj <- inception_4d/pool_proj
I0403 15:08:22.379056 11633 net.cpp:386] inception_4d/relu_pool_proj -> inception_4d/pool_proj (in-place)
I0403 15:08:22.379248 11633 net.cpp:141] Setting up inception_4d/relu_pool_proj
I0403 15:08:22.379273 11633 net.cpp:148] Top shape: 24 64 14 14 (301056)
I0403 15:08:22.379287 11633 net.cpp:156] Memory required for data: 1147309344
I0403 15:08:22.379302 11633 layer_factory.hpp:77] Creating layer inception_4d/output
I0403 15:08:22.379322 11633 net.cpp:91] Creating Layer inception_4d/output
I0403 15:08:22.379338 11633 net.cpp:425] inception_4d/output <- inception_4d/1x1
I0403 15:08:22.379354 11633 net.cpp:425] inception_4d/output <- inception_4d/3x3
I0403 15:08:22.379370 11633 net.cpp:425] inception_4d/output <- inception_4d/5x5
I0403 15:08:22.379405 11633 net.cpp:425] inception_4d/output <- inception_4d/pool_proj
I0403 15:08:22.379422 11633 net.cpp:399] inception_4d/output -> inception_4d/output
I0403 15:08:22.379473 11633 net.cpp:141] Setting up inception_4d/output
I0403 15:08:22.379498 11633 net.cpp:148] Top shape: 24 528 14 14 (2483712)
I0403 15:08:22.379511 11633 net.cpp:156] Memory required for data: 1157244192
I0403 15:08:22.379526 11633 layer_factory.hpp:77] Creating layer inception_4d/output_inception_4d/output_0_split
I0403 15:08:22.379544 11633 net.cpp:91] Creating Layer inception_4d/output_inception_4d/output_0_split
I0403 15:08:22.379559 11633 net.cpp:425] inception_4d/output_inception_4d/output_0_split <- inception_4d/output
I0403 15:08:22.379580 11633 net.cpp:399] inception_4d/output_inception_4d/output_0_split -> inception_4d/output_inception_4d/output_0_split_0
I0403 15:08:22.379601 11633 net.cpp:399] inception_4d/output_inception_4d/output_0_split -> inception_4d/output_inception_4d/output_0_split_1
I0403 15:08:22.379622 11633 net.cpp:399] inception_4d/output_inception_4d/output_0_split -> inception_4d/output_inception_4d/output_0_split_2
I0403 15:08:22.379647 11633 net.cpp:399] inception_4d/output_inception_4d/output_0_split -> inception_4d/output_inception_4d/output_0_split_3
I0403 15:08:22.379668 11633 net.cpp:399] inception_4d/output_inception_4d/output_0_split -> inception_4d/output_inception_4d/output_0_split_4
I0403 15:08:22.379781 11633 net.cpp:141] Setting up inception_4d/output_inception_4d/output_0_split
I0403 15:08:22.379817 11633 net.cpp:148] Top shape: 24 528 14 14 (2483712)
I0403 15:08:22.379832 11633 net.cpp:148] Top shape: 24 528 14 14 (2483712)
I0403 15:08:22.379848 11633 net.cpp:148] Top shape: 24 528 14 14 (2483712)
I0403 15:08:22.379863 11633 net.cpp:148] Top shape: 24 528 14 14 (2483712)
I0403 15:08:22.379878 11633 net.cpp:148] Top shape: 24 528 14 14 (2483712)
I0403 15:08:22.379890 11633 net.cpp:156] Memory required for data: 1206918432
I0403 15:08:22.379904 11633 layer_factory.hpp:77] Creating layer loss2/ave_pool
I0403 15:08:22.379921 11633 net.cpp:91] Creating Layer loss2/ave_pool
I0403 15:08:22.379936 11633 net.cpp:425] loss2/ave_pool <- inception_4d/output_inception_4d/output_0_split_0
I0403 15:08:22.379956 11633 net.cpp:399] loss2/ave_pool -> loss2/ave_pool
I0403 15:08:22.380271 11633 net.cpp:141] Setting up loss2/ave_pool
I0403 15:08:22.380296 11633 net.cpp:148] Top shape: 24 528 4 4 (202752)
I0403 15:08:22.380311 11633 net.cpp:156] Memory required for data: 1207729440
I0403 15:08:22.380326 11633 layer_factory.hpp:77] Creating layer loss2/conv
I0403 15:08:22.380348 11633 net.cpp:91] Creating Layer loss2/conv
I0403 15:08:22.380367 11633 net.cpp:425] loss2/conv <- loss2/ave_pool
I0403 15:08:22.380405 11633 net.cpp:399] loss2/conv -> loss2/conv
I0403 15:08:22.382390 11633 net.cpp:141] Setting up loss2/conv
I0403 15:08:22.382426 11633 net.cpp:148] Top shape: 24 128 4 4 (49152)
I0403 15:08:22.382444 11633 net.cpp:156] Memory required for data: 1207926048
I0403 15:08:22.382464 11633 layer_factory.hpp:77] Creating layer loss2/relu_conv
I0403 15:08:22.382483 11633 net.cpp:91] Creating Layer loss2/relu_conv
I0403 15:08:22.382501 11633 net.cpp:425] loss2/relu_conv <- loss2/conv
I0403 15:08:22.382521 11633 net.cpp:386] loss2/relu_conv -> loss2/conv (in-place)
I0403 15:08:22.382824 11633 net.cpp:141] Setting up loss2/relu_conv
I0403 15:08:22.382855 11633 net.cpp:148] Top shape: 24 128 4 4 (49152)
I0403 15:08:22.382870 11633 net.cpp:156] Memory required for data: 1208122656
I0403 15:08:22.382887 11633 layer_factory.hpp:77] Creating layer loss2/fc
I0403 15:08:22.382906 11633 net.cpp:91] Creating Layer loss2/fc
I0403 15:08:22.382923 11633 net.cpp:425] loss2/fc <- loss2/conv
I0403 15:08:22.382946 11633 net.cpp:399] loss2/fc -> loss2/fc
I0403 15:08:22.401183 11633 net.cpp:141] Setting up loss2/fc
I0403 15:08:22.401217 11633 net.cpp:148] Top shape: 24 1024 (24576)
I0403 15:08:22.401233 11633 net.cpp:156] Memory required for data: 1208220960
I0403 15:08:22.401252 11633 layer_factory.hpp:77] Creating layer loss2/relu_fc
I0403 15:08:22.401271 11633 net.cpp:91] Creating Layer loss2/relu_fc
I0403 15:08:22.401289 11633 net.cpp:425] loss2/relu_fc <- loss2/fc
I0403 15:08:22.401306 11633 net.cpp:386] loss2/relu_fc -> loss2/fc (in-place)
I0403 15:08:22.401613 11633 net.cpp:141] Setting up loss2/relu_fc
I0403 15:08:22.401639 11633 net.cpp:148] Top shape: 24 1024 (24576)
I0403 15:08:22.401654 11633 net.cpp:156] Memory required for data: 1208319264
I0403 15:08:22.401669 11633 layer_factory.hpp:77] Creating layer loss2/drop_fc
I0403 15:08:22.401689 11633 net.cpp:91] Creating Layer loss2/drop_fc
I0403 15:08:22.401706 11633 net.cpp:425] loss2/drop_fc <- loss2/fc
I0403 15:08:22.401726 11633 net.cpp:386] loss2/drop_fc -> loss2/fc (in-place)
I0403 15:08:22.401778 11633 net.cpp:141] Setting up loss2/drop_fc
I0403 15:08:22.401803 11633 net.cpp:148] Top shape: 24 1024 (24576)
I0403 15:08:22.401818 11633 net.cpp:156] Memory required for data: 1208417568
I0403 15:08:22.401834 11633 layer_factory.hpp:77] Creating layer loss2/classifier_plantvillage
I0403 15:08:22.401850 11633 net.cpp:91] Creating Layer loss2/classifier_plantvillage
I0403 15:08:22.401865 11633 net.cpp:425] loss2/classifier_plantvillage <- loss2/fc
I0403 15:08:22.401886 11633 net.cpp:399] loss2/classifier_plantvillage -> loss2/classifier_plantvillage
I0403 15:08:22.402293 11633 net.cpp:141] Setting up loss2/classifier_plantvillage
I0403 15:08:22.402318 11633 net.cpp:148] Top shape: 24 38 (912)
I0403 15:08:22.402348 11633 net.cpp:156] Memory required for data: 1208421216
I0403 15:08:22.402367 11633 layer_factory.hpp:77] Creating layer loss2/classifier_plantvillage_loss2/classifier_plantvillage_0_split
I0403 15:08:22.402395 11633 net.cpp:91] Creating Layer loss2/classifier_plantvillage_loss2/classifier_plantvillage_0_split
I0403 15:08:22.402413 11633 net.cpp:425] loss2/classifier_plantvillage_loss2/classifier_plantvillage_0_split <- loss2/classifier_plantvillage
I0403 15:08:22.402434 11633 net.cpp:399] loss2/classifier_plantvillage_loss2/classifier_plantvillage_0_split -> loss2/classifier_plantvillage_loss2/classifier_plantvillage_0_split_0
I0403 15:08:22.402456 11633 net.cpp:399] loss2/classifier_plantvillage_loss2/classifier_plantvillage_0_split -> loss2/classifier_plantvillage_loss2/classifier_plantvillage_0_split_1
I0403 15:08:22.402477 11633 net.cpp:399] loss2/classifier_plantvillage_loss2/classifier_plantvillage_0_split -> loss2/classifier_plantvillage_loss2/classifier_plantvillage_0_split_2
I0403 15:08:22.402554 11633 net.cpp:141] Setting up loss2/classifier_plantvillage_loss2/classifier_plantvillage_0_split
I0403 15:08:22.402576 11633 net.cpp:148] Top shape: 24 38 (912)
I0403 15:08:22.402592 11633 net.cpp:148] Top shape: 24 38 (912)
I0403 15:08:22.402606 11633 net.cpp:148] Top shape: 24 38 (912)
I0403 15:08:22.402621 11633 net.cpp:156] Memory required for data: 1208432160
I0403 15:08:22.402636 11633 layer_factory.hpp:77] Creating layer inception_4e/1x1
I0403 15:08:22.402657 11633 net.cpp:91] Creating Layer inception_4e/1x1
I0403 15:08:22.402673 11633 net.cpp:425] inception_4e/1x1 <- inception_4d/output_inception_4d/output_0_split_1
I0403 15:08:22.402693 11633 net.cpp:399] inception_4e/1x1 -> inception_4e/1x1
I0403 15:08:22.404523 11633 net.cpp:141] Setting up inception_4e/1x1
I0403 15:08:22.404553 11633 net.cpp:148] Top shape: 24 256 14 14 (1204224)
I0403 15:08:22.404570 11633 net.cpp:156] Memory required for data: 1213249056
I0403 15:08:22.404588 11633 layer_factory.hpp:77] Creating layer inception_4e/relu_1x1
I0403 15:08:22.404605 11633 net.cpp:91] Creating Layer inception_4e/relu_1x1
I0403 15:08:22.404621 11633 net.cpp:425] inception_4e/relu_1x1 <- inception_4e/1x1
I0403 15:08:22.404639 11633 net.cpp:386] inception_4e/relu_1x1 -> inception_4e/1x1 (in-place)
I0403 15:08:22.404937 11633 net.cpp:141] Setting up inception_4e/relu_1x1
I0403 15:08:22.404965 11633 net.cpp:148] Top shape: 24 256 14 14 (1204224)
I0403 15:08:22.404981 11633 net.cpp:156] Memory required for data: 1218065952
I0403 15:08:22.404995 11633 layer_factory.hpp:77] Creating layer inception_4e/3x3_reduce
I0403 15:08:22.405017 11633 net.cpp:91] Creating Layer inception_4e/3x3_reduce
I0403 15:08:22.405035 11633 net.cpp:425] inception_4e/3x3_reduce <- inception_4d/output_inception_4d/output_0_split_2
I0403 15:08:22.405053 11633 net.cpp:399] inception_4e/3x3_reduce -> inception_4e/3x3_reduce
I0403 15:08:22.407196 11633 net.cpp:141] Setting up inception_4e/3x3_reduce
I0403 15:08:22.407227 11633 net.cpp:148] Top shape: 24 160 14 14 (752640)
I0403 15:08:22.407243 11633 net.cpp:156] Memory required for data: 1221076512
I0403 15:08:22.407260 11633 layer_factory.hpp:77] Creating layer inception_4e/relu_3x3_reduce
I0403 15:08:22.407281 11633 net.cpp:91] Creating Layer inception_4e/relu_3x3_reduce
I0403 15:08:22.407299 11633 net.cpp:425] inception_4e/relu_3x3_reduce <- inception_4e/3x3_reduce
I0403 15:08:22.407316 11633 net.cpp:386] inception_4e/relu_3x3_reduce -> inception_4e/3x3_reduce (in-place)
I0403 15:08:22.407521 11633 net.cpp:141] Setting up inception_4e/relu_3x3_reduce
I0403 15:08:22.407546 11633 net.cpp:148] Top shape: 24 160 14 14 (752640)
I0403 15:08:22.407562 11633 net.cpp:156] Memory required for data: 1224087072
I0403 15:08:22.407577 11633 layer_factory.hpp:77] Creating layer inception_4e/3x3
I0403 15:08:22.407600 11633 net.cpp:91] Creating Layer inception_4e/3x3
I0403 15:08:22.407618 11633 net.cpp:425] inception_4e/3x3 <- inception_4e/3x3_reduce
I0403 15:08:22.407642 11633 net.cpp:399] inception_4e/3x3 -> inception_4e/3x3
I0403 15:08:22.412935 11633 net.cpp:141] Setting up inception_4e/3x3
I0403 15:08:22.412978 11633 net.cpp:148] Top shape: 24 320 14 14 (1505280)
I0403 15:08:22.412995 11633 net.cpp:156] Memory required for data: 1230108192
I0403 15:08:22.413014 11633 layer_factory.hpp:77] Creating layer inception_4e/relu_3x3
I0403 15:08:22.413033 11633 net.cpp:91] Creating Layer inception_4e/relu_3x3
I0403 15:08:22.413049 11633 net.cpp:425] inception_4e/relu_3x3 <- inception_4e/3x3
I0403 15:08:22.413069 11633 net.cpp:386] inception_4e/relu_3x3 -> inception_4e/3x3 (in-place)
I0403 15:08:22.413398 11633 net.cpp:141] Setting up inception_4e/relu_3x3
I0403 15:08:22.413425 11633 net.cpp:148] Top shape: 24 320 14 14 (1505280)
I0403 15:08:22.413441 11633 net.cpp:156] Memory required for data: 1236129312
I0403 15:08:22.413455 11633 layer_factory.hpp:77] Creating layer inception_4e/5x5_reduce
I0403 15:08:22.413480 11633 net.cpp:91] Creating Layer inception_4e/5x5_reduce
I0403 15:08:22.413497 11633 net.cpp:425] inception_4e/5x5_reduce <- inception_4d/output_inception_4d/output_0_split_3
I0403 15:08:22.413519 11633 net.cpp:399] inception_4e/5x5_reduce -> inception_4e/5x5_reduce
I0403 15:08:22.414640 11633 net.cpp:141] Setting up inception_4e/5x5_reduce
I0403 15:08:22.414671 11633 net.cpp:148] Top shape: 24 32 14 14 (150528)
I0403 15:08:22.414687 11633 net.cpp:156] Memory required for data: 1236731424
I0403 15:08:22.414705 11633 layer_factory.hpp:77] Creating layer inception_4e/relu_5x5_reduce
I0403 15:08:22.414724 11633 net.cpp:91] Creating Layer inception_4e/relu_5x5_reduce
I0403 15:08:22.414741 11633 net.cpp:425] inception_4e/relu_5x5_reduce <- inception_4e/5x5_reduce
I0403 15:08:22.414758 11633 net.cpp:386] inception_4e/relu_5x5_reduce -> inception_4e/5x5_reduce (in-place)
I0403 15:08:22.415076 11633 net.cpp:141] Setting up inception_4e/relu_5x5_reduce
I0403 15:08:22.415105 11633 net.cpp:148] Top shape: 24 32 14 14 (150528)
I0403 15:08:22.415122 11633 net.cpp:156] Memory required for data: 1237333536
I0403 15:08:22.415137 11633 layer_factory.hpp:77] Creating layer inception_4e/5x5
I0403 15:08:22.415176 11633 net.cpp:91] Creating Layer inception_4e/5x5
I0403 15:08:22.415196 11633 net.cpp:425] inception_4e/5x5 <- inception_4e/5x5_reduce
I0403 15:08:22.415216 11633 net.cpp:399] inception_4e/5x5 -> inception_4e/5x5
I0403 15:08:22.417153 11633 net.cpp:141] Setting up inception_4e/5x5
I0403 15:08:22.417183 11633 net.cpp:148] Top shape: 24 128 14 14 (602112)
I0403 15:08:22.417199 11633 net.cpp:156] Memory required for data: 1239741984
I0403 15:08:22.417219 11633 layer_factory.hpp:77] Creating layer inception_4e/relu_5x5
I0403 15:08:22.417242 11633 net.cpp:91] Creating Layer inception_4e/relu_5x5
I0403 15:08:22.417259 11633 net.cpp:425] inception_4e/relu_5x5 <- inception_4e/5x5
I0403 15:08:22.417278 11633 net.cpp:386] inception_4e/relu_5x5 -> inception_4e/5x5 (in-place)
I0403 15:08:22.417523 11633 net.cpp:141] Setting up inception_4e/relu_5x5
I0403 15:08:22.417551 11633 net.cpp:148] Top shape: 24 128 14 14 (602112)
I0403 15:08:22.417567 11633 net.cpp:156] Memory required for data: 1242150432
I0403 15:08:22.417583 11633 layer_factory.hpp:77] Creating layer inception_4e/pool
I0403 15:08:22.417603 11633 net.cpp:91] Creating Layer inception_4e/pool
I0403 15:08:22.417618 11633 net.cpp:425] inception_4e/pool <- inception_4d/output_inception_4d/output_0_split_4
I0403 15:08:22.417640 11633 net.cpp:399] inception_4e/pool -> inception_4e/pool
I0403 15:08:22.417716 11633 net.cpp:141] Setting up inception_4e/pool
I0403 15:08:22.417752 11633 net.cpp:148] Top shape: 24 528 14 14 (2483712)
I0403 15:08:22.417765 11633 net.cpp:156] Memory required for data: 1252085280
I0403 15:08:22.417779 11633 layer_factory.hpp:77] Creating layer inception_4e/pool_proj
I0403 15:08:22.417801 11633 net.cpp:91] Creating Layer inception_4e/pool_proj
I0403 15:08:22.417819 11633 net.cpp:425] inception_4e/pool_proj <- inception_4e/pool
I0403 15:08:22.417840 11633 net.cpp:399] inception_4e/pool_proj -> inception_4e/pool_proj
I0403 15:08:22.419411 11633 net.cpp:141] Setting up inception_4e/pool_proj
I0403 15:08:22.419451 11633 net.cpp:148] Top shape: 24 128 14 14 (602112)
I0403 15:08:22.419468 11633 net.cpp:156] Memory required for data: 1254493728
I0403 15:08:22.419486 11633 layer_factory.hpp:77] Creating layer inception_4e/relu_pool_proj
I0403 15:08:22.419507 11633 net.cpp:91] Creating Layer inception_4e/relu_pool_proj
I0403 15:08:22.419525 11633 net.cpp:425] inception_4e/relu_pool_proj <- inception_4e/pool_proj
I0403 15:08:22.419543 11633 net.cpp:386] inception_4e/relu_pool_proj -> inception_4e/pool_proj (in-place)
I0403 15:08:22.419849 11633 net.cpp:141] Setting up inception_4e/relu_pool_proj
I0403 15:08:22.419877 11633 net.cpp:148] Top shape: 24 128 14 14 (602112)
I0403 15:08:22.419891 11633 net.cpp:156] Memory required for data: 1256902176
I0403 15:08:22.419906 11633 layer_factory.hpp:77] Creating layer inception_4e/output
I0403 15:08:22.419926 11633 net.cpp:91] Creating Layer inception_4e/output
I0403 15:08:22.419945 11633 net.cpp:425] inception_4e/output <- inception_4e/1x1
I0403 15:08:22.419961 11633 net.cpp:425] inception_4e/output <- inception_4e/3x3
I0403 15:08:22.419977 11633 net.cpp:425] inception_4e/output <- inception_4e/5x5
I0403 15:08:22.419993 11633 net.cpp:425] inception_4e/output <- inception_4e/pool_proj
I0403 15:08:22.420011 11633 net.cpp:399] inception_4e/output -> inception_4e/output
I0403 15:08:22.420060 11633 net.cpp:141] Setting up inception_4e/output
I0403 15:08:22.420086 11633 net.cpp:148] Top shape: 24 832 14 14 (3913728)
I0403 15:08:22.420102 11633 net.cpp:156] Memory required for data: 1272557088
I0403 15:08:22.420117 11633 layer_factory.hpp:77] Creating layer pool4/3x3_s2
I0403 15:08:22.420135 11633 net.cpp:91] Creating Layer pool4/3x3_s2
I0403 15:08:22.420151 11633 net.cpp:425] pool4/3x3_s2 <- inception_4e/output
I0403 15:08:22.420172 11633 net.cpp:399] pool4/3x3_s2 -> pool4/3x3_s2
I0403 15:08:22.420243 11633 net.cpp:141] Setting up pool4/3x3_s2
I0403 15:08:22.420269 11633 net.cpp:148] Top shape: 24 832 7 7 (978432)
I0403 15:08:22.420284 11633 net.cpp:156] Memory required for data: 1276470816
I0403 15:08:22.420298 11633 layer_factory.hpp:77] Creating layer pool4/3x3_s2_pool4/3x3_s2_0_split
I0403 15:08:22.420315 11633 net.cpp:91] Creating Layer pool4/3x3_s2_pool4/3x3_s2_0_split
I0403 15:08:22.420331 11633 net.cpp:425] pool4/3x3_s2_pool4/3x3_s2_0_split <- pool4/3x3_s2
I0403 15:08:22.420349 11633 net.cpp:399] pool4/3x3_s2_pool4/3x3_s2_0_split -> pool4/3x3_s2_pool4/3x3_s2_0_split_0
I0403 15:08:22.420369 11633 net.cpp:399] pool4/3x3_s2_pool4/3x3_s2_0_split -> pool4/3x3_s2_pool4/3x3_s2_0_split_1
I0403 15:08:22.420397 11633 net.cpp:399] pool4/3x3_s2_pool4/3x3_s2_0_split -> pool4/3x3_s2_pool4/3x3_s2_0_split_2
I0403 15:08:22.420421 11633 net.cpp:399] pool4/3x3_s2_pool4/3x3_s2_0_split -> pool4/3x3_s2_pool4/3x3_s2_0_split_3
I0403 15:08:22.420516 11633 net.cpp:141] Setting up pool4/3x3_s2_pool4/3x3_s2_0_split
I0403 15:08:22.420539 11633 net.cpp:148] Top shape: 24 832 7 7 (978432)
I0403 15:08:22.420555 11633 net.cpp:148] Top shape: 24 832 7 7 (978432)
I0403 15:08:22.420570 11633 net.cpp:148] Top shape: 24 832 7 7 (978432)
I0403 15:08:22.420586 11633 net.cpp:148] Top shape: 24 832 7 7 (978432)
I0403 15:08:22.420599 11633 net.cpp:156] Memory required for data: 1292125728
I0403 15:08:22.420614 11633 layer_factory.hpp:77] Creating layer inception_5a/1x1
I0403 15:08:22.420636 11633 net.cpp:91] Creating Layer inception_5a/1x1
I0403 15:08:22.420655 11633 net.cpp:425] inception_5a/1x1 <- pool4/3x3_s2_pool4/3x3_s2_0_split_0
I0403 15:08:22.420676 11633 net.cpp:399] inception_5a/1x1 -> inception_5a/1x1
I0403 15:08:22.423681 11633 net.cpp:141] Setting up inception_5a/1x1
I0403 15:08:22.423712 11633 net.cpp:148] Top shape: 24 256 7 7 (301056)
I0403 15:08:22.423727 11633 net.cpp:156] Memory required for data: 1293329952
I0403 15:08:22.423745 11633 layer_factory.hpp:77] Creating layer inception_5a/relu_1x1
I0403 15:08:22.423766 11633 net.cpp:91] Creating Layer inception_5a/relu_1x1
I0403 15:08:22.423784 11633 net.cpp:425] inception_5a/relu_1x1 <- inception_5a/1x1
I0403 15:08:22.423801 11633 net.cpp:386] inception_5a/relu_1x1 -> inception_5a/1x1 (in-place)
I0403 15:08:22.424127 11633 net.cpp:141] Setting up inception_5a/relu_1x1
I0403 15:08:22.424154 11633 net.cpp:148] Top shape: 24 256 7 7 (301056)
I0403 15:08:22.424170 11633 net.cpp:156] Memory required for data: 1294534176
I0403 15:08:22.424183 11633 layer_factory.hpp:77] Creating layer inception_5a/3x3_reduce
I0403 15:08:22.424208 11633 net.cpp:91] Creating Layer inception_5a/3x3_reduce
I0403 15:08:22.424226 11633 net.cpp:425] inception_5a/3x3_reduce <- pool4/3x3_s2_pool4/3x3_s2_0_split_1
I0403 15:08:22.424245 11633 net.cpp:399] inception_5a/3x3_reduce -> inception_5a/3x3_reduce
I0403 15:08:22.426839 11633 net.cpp:141] Setting up inception_5a/3x3_reduce
I0403 15:08:22.426870 11633 net.cpp:148] Top shape: 24 160 7 7 (188160)
I0403 15:08:22.426887 11633 net.cpp:156] Memory required for data: 1295286816
I0403 15:08:22.426905 11633 layer_factory.hpp:77] Creating layer inception_5a/relu_3x3_reduce
I0403 15:08:22.426926 11633 net.cpp:91] Creating Layer inception_5a/relu_3x3_reduce
I0403 15:08:22.426944 11633 net.cpp:425] inception_5a/relu_3x3_reduce <- inception_5a/3x3_reduce
I0403 15:08:22.426961 11633 net.cpp:386] inception_5a/relu_3x3_reduce -> inception_5a/3x3_reduce (in-place)
I0403 15:08:22.427160 11633 net.cpp:141] Setting up inception_5a/relu_3x3_reduce
I0403 15:08:22.427184 11633 net.cpp:148] Top shape: 24 160 7 7 (188160)
I0403 15:08:22.427199 11633 net.cpp:156] Memory required for data: 1296039456
I0403 15:08:22.427216 11633 layer_factory.hpp:77] Creating layer inception_5a/3x3
I0403 15:08:22.427237 11633 net.cpp:91] Creating Layer inception_5a/3x3
I0403 15:08:22.427255 11633 net.cpp:425] inception_5a/3x3 <- inception_5a/3x3_reduce
I0403 15:08:22.427278 11633 net.cpp:399] inception_5a/3x3 -> inception_5a/3x3
I0403 15:08:22.432560 11633 net.cpp:141] Setting up inception_5a/3x3
I0403 15:08:22.432593 11633 net.cpp:148] Top shape: 24 320 7 7 (376320)
I0403 15:08:22.432610 11633 net.cpp:156] Memory required for data: 1297544736
I0403 15:08:22.432629 11633 layer_factory.hpp:77] Creating layer inception_5a/relu_3x3
I0403 15:08:22.432651 11633 net.cpp:91] Creating Layer inception_5a/relu_3x3
I0403 15:08:22.432668 11633 net.cpp:425] inception_5a/relu_3x3 <- inception_5a/3x3
I0403 15:08:22.432698 11633 net.cpp:386] inception_5a/relu_3x3 -> inception_5a/3x3 (in-place)
I0403 15:08:22.433008 11633 net.cpp:141] Setting up inception_5a/relu_3x3
I0403 15:08:22.433035 11633 net.cpp:148] Top shape: 24 320 7 7 (376320)
I0403 15:08:22.433050 11633 net.cpp:156] Memory required for data: 1299050016
I0403 15:08:22.433065 11633 layer_factory.hpp:77] Creating layer inception_5a/5x5_reduce
I0403 15:08:22.433087 11633 net.cpp:91] Creating Layer inception_5a/5x5_reduce
I0403 15:08:22.433105 11633 net.cpp:425] inception_5a/5x5_reduce <- pool4/3x3_s2_pool4/3x3_s2_0_split_2
I0403 15:08:22.433127 11633 net.cpp:399] inception_5a/5x5_reduce -> inception_5a/5x5_reduce
I0403 15:08:22.434357 11633 net.cpp:141] Setting up inception_5a/5x5_reduce
I0403 15:08:22.434391 11633 net.cpp:148] Top shape: 24 32 7 7 (37632)
I0403 15:08:22.434407 11633 net.cpp:156] Memory required for data: 1299200544
I0403 15:08:22.434427 11633 layer_factory.hpp:77] Creating layer inception_5a/relu_5x5_reduce
I0403 15:08:22.434448 11633 net.cpp:91] Creating Layer inception_5a/relu_5x5_reduce
I0403 15:08:22.434464 11633 net.cpp:425] inception_5a/relu_5x5_reduce <- inception_5a/5x5_reduce
I0403 15:08:22.434483 11633 net.cpp:386] inception_5a/relu_5x5_reduce -> inception_5a/5x5_reduce (in-place)
I0403 15:08:22.434797 11633 net.cpp:141] Setting up inception_5a/relu_5x5_reduce
I0403 15:08:22.434825 11633 net.cpp:148] Top shape: 24 32 7 7 (37632)
I0403 15:08:22.434841 11633 net.cpp:156] Memory required for data: 1299351072
I0403 15:08:22.434856 11633 layer_factory.hpp:77] Creating layer inception_5a/5x5
I0403 15:08:22.434878 11633 net.cpp:91] Creating Layer inception_5a/5x5
I0403 15:08:22.434896 11633 net.cpp:425] inception_5a/5x5 <- inception_5a/5x5_reduce
I0403 15:08:22.434916 11633 net.cpp:399] inception_5a/5x5 -> inception_5a/5x5
I0403 15:08:22.436749 11633 net.cpp:141] Setting up inception_5a/5x5
I0403 15:08:22.436790 11633 net.cpp:148] Top shape: 24 128 7 7 (150528)
I0403 15:08:22.436807 11633 net.cpp:156] Memory required for data: 1299953184
I0403 15:08:22.436825 11633 layer_factory.hpp:77] Creating layer inception_5a/relu_5x5
I0403 15:08:22.436846 11633 net.cpp:91] Creating Layer inception_5a/relu_5x5
I0403 15:08:22.436864 11633 net.cpp:425] inception_5a/relu_5x5 <- inception_5a/5x5
I0403 15:08:22.436882 11633 net.cpp:386] inception_5a/relu_5x5 -> inception_5a/5x5 (in-place)
I0403 15:08:22.437085 11633 net.cpp:141] Setting up inception_5a/relu_5x5
I0403 15:08:22.437113 11633 net.cpp:148] Top shape: 24 128 7 7 (150528)
I0403 15:08:22.437129 11633 net.cpp:156] Memory required for data: 1300555296
I0403 15:08:22.437144 11633 layer_factory.hpp:77] Creating layer inception_5a/pool
I0403 15:08:22.437162 11633 net.cpp:91] Creating Layer inception_5a/pool
I0403 15:08:22.437178 11633 net.cpp:425] inception_5a/pool <- pool4/3x3_s2_pool4/3x3_s2_0_split_3
I0403 15:08:22.437198 11633 net.cpp:399] inception_5a/pool -> inception_5a/pool
I0403 15:08:22.437273 11633 net.cpp:141] Setting up inception_5a/pool
I0403 15:08:22.437296 11633 net.cpp:148] Top shape: 24 832 7 7 (978432)
I0403 15:08:22.437310 11633 net.cpp:156] Memory required for data: 1304469024
I0403 15:08:22.437326 11633 layer_factory.hpp:77] Creating layer inception_5a/pool_proj
I0403 15:08:22.437348 11633 net.cpp:91] Creating Layer inception_5a/pool_proj
I0403 15:08:22.437366 11633 net.cpp:425] inception_5a/pool_proj <- inception_5a/pool
I0403 15:08:22.437391 11633 net.cpp:399] inception_5a/pool_proj -> inception_5a/pool_proj
I0403 15:08:22.439759 11633 net.cpp:141] Setting up inception_5a/pool_proj
I0403 15:08:22.439788 11633 net.cpp:148] Top shape: 24 128 7 7 (150528)
I0403 15:08:22.439805 11633 net.cpp:156] Memory required for data: 1305071136
I0403 15:08:22.439823 11633 layer_factory.hpp:77] Creating layer inception_5a/relu_pool_proj
I0403 15:08:22.439843 11633 net.cpp:91] Creating Layer inception_5a/relu_pool_proj
I0403 15:08:22.439862 11633 net.cpp:425] inception_5a/relu_pool_proj <- inception_5a/pool_proj
I0403 15:08:22.439879 11633 net.cpp:386] inception_5a/relu_pool_proj -> inception_5a/pool_proj (in-place)
I0403 15:08:22.440187 11633 net.cpp:141] Setting up inception_5a/relu_pool_proj
I0403 15:08:22.440214 11633 net.cpp:148] Top shape: 24 128 7 7 (150528)
I0403 15:08:22.440229 11633 net.cpp:156] Memory required for data: 1305673248
I0403 15:08:22.440245 11633 layer_factory.hpp:77] Creating layer inception_5a/output
I0403 15:08:22.440263 11633 net.cpp:91] Creating Layer inception_5a/output
I0403 15:08:22.440279 11633 net.cpp:425] inception_5a/output <- inception_5a/1x1
I0403 15:08:22.440295 11633 net.cpp:425] inception_5a/output <- inception_5a/3x3
I0403 15:08:22.440311 11633 net.cpp:425] inception_5a/output <- inception_5a/5x5
I0403 15:08:22.440330 11633 net.cpp:425] inception_5a/output <- inception_5a/pool_proj
I0403 15:08:22.440352 11633 net.cpp:399] inception_5a/output -> inception_5a/output
I0403 15:08:22.440412 11633 net.cpp:141] Setting up inception_5a/output
I0403 15:08:22.440436 11633 net.cpp:148] Top shape: 24 832 7 7 (978432)
I0403 15:08:22.440451 11633 net.cpp:156] Memory required for data: 1309586976
I0403 15:08:22.440465 11633 layer_factory.hpp:77] Creating layer inception_5a/output_inception_5a/output_0_split
I0403 15:08:22.440484 11633 net.cpp:91] Creating Layer inception_5a/output_inception_5a/output_0_split
I0403 15:08:22.440500 11633 net.cpp:425] inception_5a/output_inception_5a/output_0_split <- inception_5a/output
I0403 15:08:22.440520 11633 net.cpp:399] inception_5a/output_inception_5a/output_0_split -> inception_5a/output_inception_5a/output_0_split_0
I0403 15:08:22.440541 11633 net.cpp:399] inception_5a/output_inception_5a/output_0_split -> inception_5a/output_inception_5a/output_0_split_1
I0403 15:08:22.440562 11633 net.cpp:399] inception_5a/output_inception_5a/output_0_split -> inception_5a/output_inception_5a/output_0_split_2
I0403 15:08:22.440582 11633 net.cpp:399] inception_5a/output_inception_5a/output_0_split -> inception_5a/output_inception_5a/output_0_split_3
I0403 15:08:22.440699 11633 net.cpp:141] Setting up inception_5a/output_inception_5a/output_0_split
I0403 15:08:22.440726 11633 net.cpp:148] Top shape: 24 832 7 7 (978432)
I0403 15:08:22.440744 11633 net.cpp:148] Top shape: 24 832 7 7 (978432)
I0403 15:08:22.440762 11633 net.cpp:148] Top shape: 24 832 7 7 (978432)
I0403 15:08:22.440776 11633 net.cpp:148] Top shape: 24 832 7 7 (978432)
I0403 15:08:22.440790 11633 net.cpp:156] Memory required for data: 1325241888
I0403 15:08:22.440805 11633 layer_factory.hpp:77] Creating layer inception_5b/1x1
I0403 15:08:22.440827 11633 net.cpp:91] Creating Layer inception_5b/1x1
I0403 15:08:22.440847 11633 net.cpp:425] inception_5b/1x1 <- inception_5a/output_inception_5a/output_0_split_0
I0403 15:08:22.440866 11633 net.cpp:399] inception_5b/1x1 -> inception_5b/1x1
I0403 15:08:22.444932 11633 net.cpp:141] Setting up inception_5b/1x1
I0403 15:08:22.444964 11633 net.cpp:148] Top shape: 24 384 7 7 (451584)
I0403 15:08:22.444982 11633 net.cpp:156] Memory required for data: 1327048224
I0403 15:08:22.445000 11633 layer_factory.hpp:77] Creating layer inception_5b/relu_1x1
I0403 15:08:22.445022 11633 net.cpp:91] Creating Layer inception_5b/relu_1x1
I0403 15:08:22.445040 11633 net.cpp:425] inception_5b/relu_1x1 <- inception_5b/1x1
I0403 15:08:22.445060 11633 net.cpp:386] inception_5b/relu_1x1 -> inception_5b/1x1 (in-place)
I0403 15:08:22.445395 11633 net.cpp:141] Setting up inception_5b/relu_1x1
I0403 15:08:22.445423 11633 net.cpp:148] Top shape: 24 384 7 7 (451584)
I0403 15:08:22.445438 11633 net.cpp:156] Memory required for data: 1328854560
I0403 15:08:22.445454 11633 layer_factory.hpp:77] Creating layer inception_5b/3x3_reduce
I0403 15:08:22.445478 11633 net.cpp:91] Creating Layer inception_5b/3x3_reduce
I0403 15:08:22.445497 11633 net.cpp:425] inception_5b/3x3_reduce <- inception_5a/output_inception_5a/output_0_split_1
I0403 15:08:22.445520 11633 net.cpp:399] inception_5b/3x3_reduce -> inception_5b/3x3_reduce
I0403 15:08:22.448370 11633 net.cpp:141] Setting up inception_5b/3x3_reduce
I0403 15:08:22.448405 11633 net.cpp:148] Top shape: 24 192 7 7 (225792)
I0403 15:08:22.448421 11633 net.cpp:156] Memory required for data: 1329757728
I0403 15:08:22.448439 11633 layer_factory.hpp:77] Creating layer inception_5b/relu_3x3_reduce
I0403 15:08:22.448460 11633 net.cpp:91] Creating Layer inception_5b/relu_3x3_reduce
I0403 15:08:22.448478 11633 net.cpp:425] inception_5b/relu_3x3_reduce <- inception_5b/3x3_reduce
I0403 15:08:22.448496 11633 net.cpp:386] inception_5b/relu_3x3_reduce -> inception_5b/3x3_reduce (in-place)
I0403 15:08:22.448698 11633 net.cpp:141] Setting up inception_5b/relu_3x3_reduce
I0403 15:08:22.448724 11633 net.cpp:148] Top shape: 24 192 7 7 (225792)
I0403 15:08:22.448740 11633 net.cpp:156] Memory required for data: 1330660896
I0403 15:08:22.448755 11633 layer_factory.hpp:77] Creating layer inception_5b/3x3
I0403 15:08:22.448776 11633 net.cpp:91] Creating Layer inception_5b/3x3
I0403 15:08:22.448793 11633 net.cpp:425] inception_5b/3x3 <- inception_5b/3x3_reduce
I0403 15:08:22.448815 11633 net.cpp:399] inception_5b/3x3 -> inception_5b/3x3
I0403 15:08:22.455775 11633 net.cpp:141] Setting up inception_5b/3x3
I0403 15:08:22.455804 11633 net.cpp:148] Top shape: 24 384 7 7 (451584)
I0403 15:08:22.455821 11633 net.cpp:156] Memory required for data: 1332467232
I0403 15:08:22.455838 11633 layer_factory.hpp:77] Creating layer inception_5b/relu_3x3
I0403 15:08:22.455859 11633 net.cpp:91] Creating Layer inception_5b/relu_3x3
I0403 15:08:22.455878 11633 net.cpp:425] inception_5b/relu_3x3 <- inception_5b/3x3
I0403 15:08:22.455894 11633 net.cpp:386] inception_5b/relu_3x3 -> inception_5b/3x3 (in-place)
I0403 15:08:22.456207 11633 net.cpp:141] Setting up inception_5b/relu_3x3
I0403 15:08:22.456233 11633 net.cpp:148] Top shape: 24 384 7 7 (451584)
I0403 15:08:22.456248 11633 net.cpp:156] Memory required for data: 1334273568
I0403 15:08:22.456264 11633 layer_factory.hpp:77] Creating layer inception_5b/5x5_reduce
I0403 15:08:22.456303 11633 net.cpp:91] Creating Layer inception_5b/5x5_reduce
I0403 15:08:22.456324 11633 net.cpp:425] inception_5b/5x5_reduce <- inception_5a/output_inception_5a/output_0_split_2
I0403 15:08:22.456347 11633 net.cpp:399] inception_5b/5x5_reduce -> inception_5b/5x5_reduce
I0403 15:08:22.457723 11633 net.cpp:141] Setting up inception_5b/5x5_reduce
I0403 15:08:22.457752 11633 net.cpp:148] Top shape: 24 48 7 7 (56448)
I0403 15:08:22.457768 11633 net.cpp:156] Memory required for data: 1334499360
I0403 15:08:22.457787 11633 layer_factory.hpp:77] Creating layer inception_5b/relu_5x5_reduce
I0403 15:08:22.457806 11633 net.cpp:91] Creating Layer inception_5b/relu_5x5_reduce
I0403 15:08:22.457824 11633 net.cpp:425] inception_5b/relu_5x5_reduce <- inception_5b/5x5_reduce
I0403 15:08:22.457842 11633 net.cpp:386] inception_5b/relu_5x5_reduce -> inception_5b/5x5_reduce (in-place)
I0403 15:08:22.458240 11633 net.cpp:141] Setting up inception_5b/relu_5x5_reduce
I0403 15:08:22.458267 11633 net.cpp:148] Top shape: 24 48 7 7 (56448)
I0403 15:08:22.458282 11633 net.cpp:156] Memory required for data: 1334725152
I0403 15:08:22.458297 11633 layer_factory.hpp:77] Creating layer inception_5b/5x5
I0403 15:08:22.458331 11633 net.cpp:91] Creating Layer inception_5b/5x5
I0403 15:08:22.458349 11633 net.cpp:425] inception_5b/5x5 <- inception_5b/5x5_reduce
I0403 15:08:22.458369 11633 net.cpp:399] inception_5b/5x5 -> inception_5b/5x5
I0403 15:08:22.460551 11633 net.cpp:141] Setting up inception_5b/5x5
I0403 15:08:22.460578 11633 net.cpp:148] Top shape: 24 128 7 7 (150528)
I0403 15:08:22.460594 11633 net.cpp:156] Memory required for data: 1335327264
I0403 15:08:22.460613 11633 layer_factory.hpp:77] Creating layer inception_5b/relu_5x5
I0403 15:08:22.460631 11633 net.cpp:91] Creating Layer inception_5b/relu_5x5
I0403 15:08:22.460649 11633 net.cpp:425] inception_5b/relu_5x5 <- inception_5b/5x5
I0403 15:08:22.460667 11633 net.cpp:386] inception_5b/relu_5x5 -> inception_5b/5x5 (in-place)
I0403 15:08:22.460868 11633 net.cpp:141] Setting up inception_5b/relu_5x5
I0403 15:08:22.460894 11633 net.cpp:148] Top shape: 24 128 7 7 (150528)
I0403 15:08:22.460908 11633 net.cpp:156] Memory required for data: 1335929376
I0403 15:08:22.460923 11633 layer_factory.hpp:77] Creating layer inception_5b/pool
I0403 15:08:22.460940 11633 net.cpp:91] Creating Layer inception_5b/pool
I0403 15:08:22.460958 11633 net.cpp:425] inception_5b/pool <- inception_5a/output_inception_5a/output_0_split_3
I0403 15:08:22.460978 11633 net.cpp:399] inception_5b/pool -> inception_5b/pool
I0403 15:08:22.461051 11633 net.cpp:141] Setting up inception_5b/pool
I0403 15:08:22.461074 11633 net.cpp:148] Top shape: 24 832 7 7 (978432)
I0403 15:08:22.461088 11633 net.cpp:156] Memory required for data: 1339843104
I0403 15:08:22.461102 11633 layer_factory.hpp:77] Creating layer inception_5b/pool_proj
I0403 15:08:22.461125 11633 net.cpp:91] Creating Layer inception_5b/pool_proj
I0403 15:08:22.461143 11633 net.cpp:425] inception_5b/pool_proj <- inception_5b/pool
I0403 15:08:22.461161 11633 net.cpp:399] inception_5b/pool_proj -> inception_5b/pool_proj
I0403 15:08:22.463490 11633 net.cpp:141] Setting up inception_5b/pool_proj
I0403 15:08:22.463520 11633 net.cpp:148] Top shape: 24 128 7 7 (150528)
I0403 15:08:22.463534 11633 net.cpp:156] Memory required for data: 1340445216
I0403 15:08:22.463552 11633 layer_factory.hpp:77] Creating layer inception_5b/relu_pool_proj
I0403 15:08:22.463573 11633 net.cpp:91] Creating Layer inception_5b/relu_pool_proj
I0403 15:08:22.463590 11633 net.cpp:425] inception_5b/relu_pool_proj <- inception_5b/pool_proj
I0403 15:08:22.463608 11633 net.cpp:386] inception_5b/relu_pool_proj -> inception_5b/pool_proj (in-place)
I0403 15:08:22.463912 11633 net.cpp:141] Setting up inception_5b/relu_pool_proj
I0403 15:08:22.463938 11633 net.cpp:148] Top shape: 24 128 7 7 (150528)
I0403 15:08:22.463953 11633 net.cpp:156] Memory required for data: 1341047328
I0403 15:08:22.463968 11633 layer_factory.hpp:77] Creating layer inception_5b/output
I0403 15:08:22.463987 11633 net.cpp:91] Creating Layer inception_5b/output
I0403 15:08:22.464020 11633 net.cpp:425] inception_5b/output <- inception_5b/1x1
I0403 15:08:22.464038 11633 net.cpp:425] inception_5b/output <- inception_5b/3x3
I0403 15:08:22.464056 11633 net.cpp:425] inception_5b/output <- inception_5b/5x5
I0403 15:08:22.464071 11633 net.cpp:425] inception_5b/output <- inception_5b/pool_proj
I0403 15:08:22.464088 11633 net.cpp:399] inception_5b/output -> inception_5b/output
I0403 15:08:22.464141 11633 net.cpp:141] Setting up inception_5b/output
I0403 15:08:22.464165 11633 net.cpp:148] Top shape: 24 1024 7 7 (1204224)
I0403 15:08:22.464179 11633 net.cpp:156] Memory required for data: 1345864224
I0403 15:08:22.464195 11633 layer_factory.hpp:77] Creating layer pool5/7x7_s1
I0403 15:08:22.464210 11633 net.cpp:91] Creating Layer pool5/7x7_s1
I0403 15:08:22.464226 11633 net.cpp:425] pool5/7x7_s1 <- inception_5b/output
I0403 15:08:22.464246 11633 net.cpp:399] pool5/7x7_s1 -> pool5/7x7_s1
I0403 15:08:22.464489 11633 net.cpp:141] Setting up pool5/7x7_s1
I0403 15:08:22.464515 11633 net.cpp:148] Top shape: 24 1024 1 1 (24576)
I0403 15:08:22.464530 11633 net.cpp:156] Memory required for data: 1345962528
I0403 15:08:22.464545 11633 layer_factory.hpp:77] Creating layer pool5/drop_7x7_s1
I0403 15:08:22.464565 11633 net.cpp:91] Creating Layer pool5/drop_7x7_s1
I0403 15:08:22.464583 11633 net.cpp:425] pool5/drop_7x7_s1 <- pool5/7x7_s1
I0403 15:08:22.464601 11633 net.cpp:386] pool5/drop_7x7_s1 -> pool5/7x7_s1 (in-place)
I0403 15:08:22.464654 11633 net.cpp:141] Setting up pool5/drop_7x7_s1
I0403 15:08:22.464689 11633 net.cpp:148] Top shape: 24 1024 1 1 (24576)
I0403 15:08:22.464704 11633 net.cpp:156] Memory required for data: 1346060832
I0403 15:08:22.464717 11633 layer_factory.hpp:77] Creating layer loss3/classifier_plantvillage
I0403 15:08:22.464740 11633 net.cpp:91] Creating Layer loss3/classifier_plantvillage
I0403 15:08:22.464756 11633 net.cpp:425] loss3/classifier_plantvillage <- pool5/7x7_s1
I0403 15:08:22.464774 11633 net.cpp:399] loss3/classifier_plantvillage -> loss3/classifier_plantvillage
I0403 15:08:22.465199 11633 net.cpp:141] Setting up loss3/classifier_plantvillage
I0403 15:08:22.465224 11633 net.cpp:148] Top shape: 24 38 (912)
I0403 15:08:22.465237 11633 net.cpp:156] Memory required for data: 1346064480
I0403 15:08:22.465255 11633 layer_factory.hpp:77] Creating layer loss3/classifier_plantvillage_loss3/classifier_plantvillage_0_split
I0403 15:08:22.465272 11633 net.cpp:91] Creating Layer loss3/classifier_plantvillage_loss3/classifier_plantvillage_0_split
I0403 15:08:22.465288 11633 net.cpp:425] loss3/classifier_plantvillage_loss3/classifier_plantvillage_0_split <- loss3/classifier_plantvillage
I0403 15:08:22.465308 11633 net.cpp:399] loss3/classifier_plantvillage_loss3/classifier_plantvillage_0_split -> loss3/classifier_plantvillage_loss3/classifier_plantvillage_0_split_0
I0403 15:08:22.465332 11633 net.cpp:399] loss3/classifier_plantvillage_loss3/classifier_plantvillage_0_split -> loss3/classifier_plantvillage_loss3/classifier_plantvillage_0_split_1
I0403 15:08:22.465353 11633 net.cpp:399] loss3/classifier_plantvillage_loss3/classifier_plantvillage_0_split -> loss3/classifier_plantvillage_loss3/classifier_plantvillage_0_split_2
I0403 15:08:22.465371 11633 net.cpp:399] loss3/classifier_plantvillage_loss3/classifier_plantvillage_0_split -> loss3/classifier_plantvillage_loss3/classifier_plantvillage_0_split_3
I0403 15:08:22.465479 11633 net.cpp:141] Setting up loss3/classifier_plantvillage_loss3/classifier_plantvillage_0_split
I0403 15:08:22.465505 11633 net.cpp:148] Top shape: 24 38 (912)
I0403 15:08:22.465523 11633 net.cpp:148] Top shape: 24 38 (912)
I0403 15:08:22.465538 11633 net.cpp:148] Top shape: 24 38 (912)
I0403 15:08:22.465553 11633 net.cpp:148] Top shape: 24 38 (912)
I0403 15:08:22.465566 11633 net.cpp:156] Memory required for data: 1346079072
I0403 15:08:22.465580 11633 layer_factory.hpp:77] Creating layer loss1/loss
I0403 15:08:22.465600 11633 net.cpp:91] Creating Layer loss1/loss
I0403 15:08:22.465618 11633 net.cpp:425] loss1/loss <- loss1/classifier_plantvillage_loss1/classifier_plantvillage_0_split_0
I0403 15:08:22.465648 11633 net.cpp:425] loss1/loss <- label_data_1_split_0
…
