…
I0403 15:41:15.254009 12226 net.cpp:313] The NetState phase (1) differed from the phase (0) specified by a rule in layer data
I0403 15:41:15.255178 12226 net.cpp:49] Initializing net from parameters: 
state {
  phase: TEST
}
layer {
  name: "data"
  type: "Data"
  top: "data"
  top: "label"
  include {
    phase: TEST
  }
  transform_param {
    mirror: false
    crop_size: 224
    mean_file: "/home/mohanty/data/final_dataset/lmdb/segmented-50-50/mean.binaryproto"
  }
  data_param {
    source: "/home/mohanty/data/final_dataset/lmdb/segmented-50-50/test_db"
    batch_size: 24
    backend: LMDB
  }
}
layer {
  name: "conv1/7x7_s2"
  type: "Convolution"
  bottom: "data"
  top: "conv1/7x7_s2"
  param {
    lr_mult: 1
    decay_mult: 1
  }
  param {
    lr_mult: 2
    decay_mult: 0
  }
  convolution_param {
    num_output: 64
    pad: 3
    kernel_size: 7
    stride: 2
    weight_filler {
      type: "xavier"
      std: 0.1
    }
    bias_filler {
      type: "constant"
      value: 0.2
    }
  }
}
layer {
  name: "conv1/relu_7x7"
  type: "ReLU"
  bottom: "conv1/7x7_s2"
  top: "conv1/7x7_s2"
}
layer {
  name: "pool1/3x3_s2"
  type: "Pooling"
  bottom: "conv1/7x7_s2"
  top: "pool1/3x3_s2"
  pooling_param {
    pool: MAX
    kernel_size: 3
    stride: 2
  }
}
layer {
  name: "pool1/norm1"
  type: "LRN"
  bottom: "pool1/3x3_s2"
  top: "pool1/norm1"
  lrn_param {
    local_size: 5
    alpha: 0.0001
    beta: 0.75
  }
}
layer {
  name: "conv2/3x3_reduce"
  type: "Convolution"
  bottom: "pool1/norm1"
  top: "conv2/3x3_reduce"
  param {
    lr_mult: 1
    decay_mult: 1
  }
  param {
    lr_mult: 2
    decay_mult: 0
  }
  convolution_param {
    num_output: 64
    kernel_size: 1
    weight_filler {
      type: "xavier"
      std: 0.1
    }
    bias_filler {
      type: "constant"
      value: 0.2
    }
  }
}
layer {
  name: "conv2/relu_3x3_reduce"
  type: "ReLU"
  bottom: "conv2/3x3_reduce"
  top: "conv2/3x3_reduce"
}
layer {
  name: "conv2/3x3"
  type: "Convolution"
  bottom: "conv2/3x3_reduce"
  top: "conv2/3x3"
  param {
    lr_mult: 1
    decay_mult: 1
  }
  param {
    lr_mult: 2
    decay_mult: 0
  }
  convolution_param {
    num_output: 192
    pad: 1
    kernel_size: 3
    weight_filler {
      type: "xavier"
      std: 0.03
    }
    bias_filler {
      type: "constant"
      value: 0.2
    }
  }
}
layer {
  name: "conv2/relu_3x3"
  type: "ReLU"
  bottom: "conv2/3x3"
  top: "conv2/3x3"
}
layer {
  name: "conv2/norm2"
  type: "LRN"
  bottom: "conv2/3x3"
  top: "conv2/norm2"
  lrn_param {
    local_size: 5
    alpha: 0.0001
    beta: 0.75
  }
}
layer {
  name: "pool2/3x3_s2"
  type: "Pooling"
  bottom: "conv2/norm2"
  top: "pool2/3x3_s2"
  pooling_param {
    pool: MAX
    kernel_size: 3
    stride: 2
  }
}
layer {
  name: "inception_3a/1x1"
  type: "Convolution"
  bottom: "pool2/3x3_s2"
  top: "inception_3a/1x1"
  param {
    lr_mult: 1
    decay_mult: 1
  }
  param {
    lr_mult: 2
    decay_mult: 0
  }
  convolution_param {
    num_output: 64
    kernel_size: 1
    weight_filler {
      type: "xavier"
      std: 0.03
    }
    bias_filler {
      type: "constant"
      value: 0.2
    }
  }
}
layer {
  name: "inception_3a/relu_1x1"
  type: "ReLU"
  bottom: "inception_3a/1x1"
  top: "inception_3a/1x1"
}
layer {
  name: "inception_3a/3x3_reduce"
  type: "Convolution"
  bottom: "pool2/3x3_s2"
  top: "inception_3a/3x3_reduce"
  param {
    lr_mult: 1
    decay_mult: 1
  }
  param {
    lr_mult: 2
    decay_mult: 0
  }
  convolution_param {
    num_output: 96
    kernel_size: 1
    weight_filler {
      type: "xavier"
      std: 0.09
    }
    bias_filler {
      type: "constant"
      value: 0.2
    }
  }
}
layer {
  name: "inception_3a/relu_3x3_reduce"
  type: "ReLU"
  bottom: "inception_3a/3x3_reduce"
  top: "inception_3a/3x3_reduce"
}
layer {
  name: "inception_3a/3x3"
  type: "Convolution"
  bottom: "inception_3a/3x3_reduce"
  top: "inception_3a/3x3"
  param {
    lr_mult: 1
    decay_mult: 1
  }
  param {
    lr_mult: 2
    decay_mult: 0
  }
  convolution_param {
    num_output: 128
    pad: 1
    kernel_size: 3
    weight_filler {
      type: "xavier"
      std: 0.03
    }
    bias_filler {
      type: "constant"
      value: 0.2
    }
  }
}
layer {
  name: "inception_3a/relu_3x3"
  type: "ReLU"
  bottom: "inception_3a/3x3"
  top: "inception_3a/3x3"
}
layer {
  name: "inception_3a/5x5_reduce"
  type: "Convolution"
  bottom: "pool2/3x3_s2"
  top: "inception_3a/5x5_reduce"
  param {
    lr_mult: 1
    decay_mult: 1
  }
  param {
    lr_mult: 2
    decay_mult: 0
  }
  convolution_param {
    num_output: 16
    kernel_size: 1
    weight_filler {
      type: "xavier"
      std: 0.2
    }
    bias_filler {
      type: "constant"
      value: 0.2
    }
  }
}
layer {
  name: "inception_3a/relu_5x5_reduce"
  type: "ReLU"
  bottom: "inception_3a/5x5_reduce"
  top: "inception_3a/5x5_reduce"
}
layer {
  name: "inception_3a/5x5"
  type: "Convolution"
  bottom: "inception_3a/5x5_reduce"
  top: "inception_3a/5x5"
  param {
    lr_mult: 1
    decay_mult: 1
  }
  param {
    lr_mult: 2
    decay_mult: 0
  }
  convolution_param {
    num_output: 32
    pad: 2
    kernel_size: 5
    weight_filler {
      type: "xavier"
      std: 0.03
    }
    bias_filler {
      type: "constant"
      value: 0.2
    }
  }
}
layer {
  name: "inception_3a/relu_5x5"
  type: "ReLU"
  bottom: "inception_3a/5x5"
  top: "inception_3a/5x5"
}
layer {
  name: "inception_3a/pool"
  type: "Pooling"
  bottom: "pool2/3x3_s2"
  top: "inception_3a/pool"
  pooling_param {
    pool: MAX
    kernel_size: 3
    stride: 1
    pad: 1
  }
}
layer {
  name: "inception_3a/pool_proj"
  type: "Convolution"
  bottom: "inception_3a/pool"
  top: "inception_3a/pool_proj"
  param {
    lr_mult: 1
    decay_mult: 1
  }
  param {
    lr_mult: 2
    decay_mult: 0
  }
  convolution_param {
    num_output: 32
    kernel_size: 1
    weight_filler {
      type: "xavier"
      std: 0.1
    }
    bias_filler {
      type: "constant"
      value: 0.2
    }
  }
}
layer {
  name: "inception_3a/relu_pool_proj"
  type: "ReLU"
  bottom: "inception_3a/pool_proj"
  top: "inception_3a/pool_proj"
}
layer {
  name: "inception_3a/output"
  type: "Concat"
  bottom: "inception_3a/1x1"
  bottom: "inception_3a/3x3"
  bottom: "inception_3a/5x5"
  bottom: "inception_3a/pool_proj"
  top: "inception_3a/output"
}
layer {
  name: "inception_3b/1x1"
  type: "Convolution"
  bottom: "inception_3a/output"
  top: "inception_3b/1x1"
  param {
    lr_mult: 1
    decay_mult: 1
  }
  param {
    lr_mult: 2
    decay_mult: 0
  }
  convolution_param {
    num_output: 128
    kernel_size: 1
    weight_filler {
      type: "xavier"
      std: 0.03
    }
    bias_filler {
      type: "constant"
      value: 0.2
    }
  }
}
layer {
  name: "inception_3b/relu_1x1"
  type: "ReLU"
  bottom: "inception_3b/1x1"
  top: "inception_3b/1x1"
}
layer {
  name: "inception_3b/3x3_reduce"
  type: "Convolution"
  bottom: "inception_3a/output"
  top: "inception_3b/3x3_reduce"
  param {
    lr_mult: 1
    decay_mult: 1
  }
  param {
    lr_mult: 2
    decay_mult: 0
  }
  convolution_param {
    num_output: 128
    kernel_size: 1
    weight_filler {
      type: "xavier"
      std: 0.09
    }
    bias_filler {
      type: "constant"
      value: 0.2
    }
  }
}
layer {
  name: "inception_3b/relu_3x3_reduce"
  type: "ReLU"
  bottom: "inception_3b/3x3_reduce"
  top: "inception_3b/3x3_reduce"
}
layer {
  name: "inception_3b/3x3"
  type: "Convolution"
  bottom: "inception_3b/3x3_reduce"
  top: "inception_3b/3x3"
  param {
    lr_mult: 1
    decay_mult: 1
  }
  param {
    lr_mult: 2
    decay_mult: 0
  }
  convolution_param {
    num_output: 192
    pad: 1
    kernel_size: 3
    weight_filler {
      type: "xavier"
      std: 0.03
    }
    bias_filler {
      type: "constant"
      value: 0.2
    }
  }
}
layer {
  name: "inception_3b/relu_3x3"
  type: "ReLU"
  bottom: "inception_3b/3x3"
  top: "inception_3b/3x3"
}
layer {
  name: "inception_3b/5x5_reduce"
  type: "Convolution"
  bottom: "inception_3a/output"
  top: "inception_3b/5x5_reduce"
  param {
    lr_mult: 1
    decay_mult: 1
  }
  param {
    lr_mult: 2
    decay_mult: 0
  }
  convolution_param {
    num_output: 32
    kernel_size: 1
    weight_filler {
      type: "xavier"
      std: 0.2
    }
    bias_filler {
      type: "constant"
      value: 0.2
    }
  }
}
layer {
  name: "inception_3b/relu_5x5_reduce"
  type: "ReLU"
  bottom: "inception_3b/5x5_reduce"
  top: "inception_3b/5x5_reduce"
}
layer {
  name: "inception_3b/5x5"
  type: "Convolution"
  bottom: "inception_3b/5x5_reduce"
  top: "inception_3b/5x5"
  param {
    lr_mult: 1
    decay_mult: 1
  }
  param {
    lr_mult: 2
    decay_mult: 0
  }
  convolution_param {
    num_output: 96
    pad: 2
    kernel_size: 5
    weight_filler {
      type: "xavier"
      std: 0.03
    }
    bias_filler {
      type: "constant"
      value: 0.2
    }
  }
}
layer {
  name: "inception_3b/relu_5x5"
  type: "ReLU"
  bottom: "inception_3b/5x5"
  top: "inception_3b/5x5"
}
layer {
  name: "inception_3b/pool"
  type: "Pooling"
  bottom: "inception_3a/output"
  top: "inception_3b/pool"
  pooling_param {
    pool: MAX
    kernel_size: 3
    stride: 1
    pad: 1
  }
}
layer {
  name: "inception_3b/pool_proj"
  type: "Convolution"
  bottom: "inception_3b/pool"
  top: "inception_3b/pool_proj"
  param {
    lr_mult: 1
    decay_mult: 1
  }
  param {
    lr_mult: 2
    decay_mult: 0
  }
  convolution_param {
    num_output: 64
    kernel_size: 1
    weight_filler {
      type: "xavier"
      std: 0.1
    }
    bias_filler {
      type: "constant"
      value: 0.2
    }
  }
}
layer {
  name: "inception_3b/relu_pool_proj"
  type: "ReLU"
  bottom: "inception_3b/pool_proj"
  top: "inception_3b/pool_proj"
}
layer {
  name: "inception_3b/output"
  type: "Concat"
  bottom: "inception_3b/1x1"
  bottom: "inception_3b/3x3"
  bottom: "inception_3b/5x5"
  bottom: "inception_3b/pool_proj"
  top: "inception_3b/output"
}
layer {
  name: "pool3/3x3_s2"
  type: "Pooling"
  bottom: "inception_3b/output"
  top: "pool3/3x3_s2"
  pooling_param {
    pool: MAX
    kernel_size: 3
    stride: 2
  }
}
layer {
  name: "inception_4a/1x1"
  type: "Convolution"
  bottom: "pool3/3x3_s2"
  top: "inception_4a/1x1"
  param {
    lr_mult: 1
    decay_mult: 1
  }
  param {
    lr_mult: 2
    decay_mult: 0
  }
  convolution_param {
    num_output: 192
    kernel_size: 1
    weight_filler {
      type: "xavier"
      std: 0.03
    }
    bias_filler {
      type: "constant"
      value: 0.2
    }
  }
}
layer {
  name: "inception_4a/relu_1x1"
  type: "ReLU"
  bottom: "inception_4a/1x1"
  top: "inception_4a/1x1"
}
layer {
  name: "inception_4a/3x3_reduce"
  type: "Convolution"
  bottom: "pool3/3x3_s2"
  top: "inception_4a/3x3_reduce"
  param {
    lr_mult: 1
    decay_mult: 1
  }
  param {
    lr_mult: 2
    decay_mult: 0
  }
  convolution_param {
    num_output: 96
    kernel_size: 1
    weight_filler {
      type: "xavier"
      std: 0.09
    }
    bias_filler {
      type: "constant"
      value: 0.2
    }
  }
}
layer {
  name: "inception_4a/relu_3x3_reduce"
  type: "ReLU"
  bottom: "inception_4a/3x3_reduce"
  top: "inception_4a/3x3_reduce"
}
layer {
  name: "inception_4a/3x3"
  type: "Convolution"
  bottom: "inception_4a/3x3_reduce"
  top: "inception_4a/3x3"
  param {
    lr_mult: 1
    decay_mult: 1
  }
  param {
    lr_mult: 2
    decay_mult: 0
  }
  convolution_param {
    num_output: 208
    pad: 1
    kernel_size: 3
    weight_filler {
      type: "xavier"
      std: 0.03
    }
    bias_filler {
      type: "constant"
      value: 0.2
    }
  }
}
layer {
  name: "inception_4a/relu_3x3"
  type: "ReLU"
  bottom: "inception_4a/3x3"
  top: "inception_4a/3x3"
}
layer {
  name: "inception_4a/5x5_reduce"
  type: "Convolution"
  bottom: "pool3/3x3_s2"
  top: "inception_4a/5x5_reduce"
  param {
    lr_mult: 1
    decay_mult: 1
  }
  param {
    lr_mult: 2
    decay_mult: 0
  }
  convolution_param {
    num_output: 16
    kernel_size: 1
    weight_filler {
      type: "xavier"
      std: 0.2
    }
    bias_filler {
      type: "constant"
      value: 0.2
    }
  }
}
layer {
  name: "inception_4a/relu_5x5_reduce"
  type: "ReLU"
  bottom: "inception_4a/5x5_reduce"
  top: "inception_4a/5x5_reduce"
}
layer {
  name: "inception_4a/5x5"
  type: "Convolution"
  bottom: "inception_4a/5x5_reduce"
  top: "inception_4a/5x5"
  param {
    lr_mult: 1
    decay_mult: 1
  }
  param {
    lr_mult: 2
    decay_mult: 0
  }
  convolution_param {
    num_output: 48
    pad: 2
    kernel_size: 5
    weight_filler {
      type: "xavier"
      std: 0.03
    }
    bias_filler {
      type: "constant"
      value: 0.2
    }
  }
}
layer {
  name: "inception_4a/relu_5x5"
  type: "ReLU"
  bottom: "inception_4a/5x5"
  top: "inception_4a/5x5"
}
layer {
  name: "inception_4a/pool"
  type: "Pooling"
  bottom: "pool3/3x3_s2"
  top: "inception_4a/pool"
  pooling_param {
    pool: MAX
    kernel_size: 3
    stride: 1
    pad: 1
  }
}
layer {
  name: "inception_4a/pool_proj"
  type: "Convolution"
  bottom: "inception_4a/pool"
  top: "inception_4a/pool_proj"
  param {
    lr_mult: 1
    decay_mult: 1
  }
  param {
    lr_mult: 2
    decay_mult: 0
  }
  convolution_param {
    num_output: 64
    kernel_size: 1
    weight_filler {
      type: "xavier"
      std: 0.1
    }
    bias_filler {
      type: "constant"
      value: 0.2
    }
  }
}
layer {
  name: "inception_4a/relu_pool_proj"
  type: "ReLU"
  bottom: "inception_4a/pool_proj"
  top: "inception_4a/pool_proj"
}
layer {
  name: "inception_4a/output"
  type: "Concat"
  bottom: "inception_4a/1x1"
  bottom: "inception_4a/3x3"
  bottom: "inception_4a/5x5"
  bottom: "inception_4a/pool_proj"
  top: "inception_4a/output"
}
layer {
  name: "loss1/ave_pool"
  type: "Pooling"
  bottom: "inception_4a/output"
  top: "loss1/ave_pool"
  pooling_param {
    pool: AVE
    kernel_size: 5
    stride: 3
  }
}
layer {
  name: "loss1/conv"
  type: "Convolution"
  bottom: "loss1/ave_pool"
  top: "loss1/conv"
  param {
    lr_mult: 1
    decay_mult: 1
  }
  param {
    lr_mult: 2
    decay_mult: 0
  }
  convolution_param {
    num_output: 128
    kernel_size: 1
    weight_filler {
      type: "xavier"
      std: 0.08
    }
    bias_filler {
      type: "constant"
      value: 0.2
    }
  }
}
layer {
  name: "loss1/relu_conv"
  type: "ReLU"
  bottom: "loss1/conv"
  top: "loss1/conv"
}
layer {
  name: "loss1/fc"
  type: "InnerProduct"
  bottom: "loss1/conv"
  top: "loss1/fc"
  param {
    lr_mult: 1
    decay_mult: 1
  }
  param {
    lr_mult: 2
    decay_mult: 0
  }
  inner_product_param {
    num_output: 1024
    weight_filler {
      type: "xavier"
      std: 0.02
    }
    bias_filler {
      type: "constant"
      value: 0.2
    }
  }
}
layer {
  name: "loss1/relu_fc"
  type: "ReLU"
  bottom: "loss1/fc"
  top: "loss1/fc"
}
layer {
  name: "loss1/drop_fc"
  type: "Dropout"
  bottom: "loss1/fc"
  top: "loss1/fc"
  dropout_param {
    dropout_ratio: 0.7
  }
}
layer {
  name: "loss1/classifier_plantvillage"
  type: "InnerProduct"
  bottom: "loss1/fc"
  top: "loss1/classifier_plantvillage"
  param {
    lr_mult: 1
    decay_mult: 1
  }
  param {
    lr_mult: 2
    decay_mult: 0
  }
  inner_product_param {
    num_output: 38
    weight_filler {
      type: "xavier"
      std: 0.0009765625
    }
    bias_filler {
      type: "constant"
      value: 0
    }
  }
}
layer {
  name: "inception_4b/1x1"
  type: "Convolution"
  bottom: "inception_4a/output"
  top: "inception_4b/1x1"
  param {
    lr_mult: 1
    decay_mult: 1
  }
  param {
    lr_mult: 2
    decay_mult: 0
  }
  convolution_param {
    num_output: 160
    kernel_size: 1
    weight_filler {
      type: "xavier"
      std: 0.03
    }
    bias_filler {
      type: "constant"
      value: 0.2
    }
  }
}
layer {
  name: "inception_4b/relu_1x1"
  type: "ReLU"
  bottom: "inception_4b/1x1"
  top: "inception_4b/1x1"
}
layer {
  name: "inception_4b/3x3_reduce"
  type: "Convolution"
  bottom: "inception_4a/output"
  top: "inception_4b/3x3_reduce"
  param {
    lr_mult: 1
    decay_mult: 1
  }
  param {
    lr_mult: 2
    decay_mult: 0
  }
  convolution_param {
    num_output: 112
    kernel_size: 1
    weight_filler {
      type: "xavier"
      std: 0.09
    }
    bias_filler {
      type: "constant"
      value: 0.2
    }
  }
}
layer {
  name: "inception_4b/relu_3x3_reduce"
  type: "ReLU"
  bottom: "inception_4b/3x3_reduce"
  top: "inception_4b/3x3_reduce"
}
layer {
  name: "inception_4b/3x3"
  type: "Convolution"
  bottom: "inception_4b/3x3_reduce"
  top: "inception_4b/3x3"
  param {
    lr_mult: 1
    decay_mult: 1
  }
  param {
    lr_mult: 2
    decay_mult: 0
  }
  convolution_param {
    num_output: 224
    pad: 1
    kernel_size: 3
    weight_filler {
      type: "xavier"
      std: 0.03
    }
    bias_filler {
      type: "constant"
      value: 0.2
    }
  }
}
layer {
  name: "inception_4b/relu_3x3"
  type: "ReLU"
  bottom: "inception_4b/3x3"
  top: "inception_4b/3x3"
}
layer {
  name: "inception_4b/5x5_reduce"
  type: "Convolution"
  bottom: "inception_4a/output"
  top: "inception_4b/5x5_reduce"
  param {
    lr_mult: 1
    decay_mult: 1
  }
  param {
    lr_mult: 2
    decay_mult: 0
  }
  convolution_param {
    num_output: 24
    kernel_size: 1
    weight_filler {
      type: "xavier"
      std: 0.2
    }
    bias_filler {
      type: "constant"
      value: 0.2
    }
  }
}
layer {
  name: "inception_4b/relu_5x5_reduce"
  type: "ReLU"
  bottom: "inception_4b/5x5_reduce"
  top: "inception_4b/5x5_reduce"
}
layer {
  name: "inception_4b/5x5"
  type: "Convolution"
  bottom: "inception_4b/5x5_reduce"
  top: "inception_4b/5x5"
  param {
    lr_mult: 1
    decay_mult: 1
  }
  param {
    lr_mult: 2
    decay_mult: 0
  }
  convolution_param {
    num_output: 64
    pad: 2
    kernel_size: 5
    weight_filler {
      type: "xavier"
      std: 0.03
    }
    bias_filler {
      type: "constant"
      value: 0.2
    }
  }
}
layer {
  name: "inception_4b/relu_5x5"
  type: "ReLU"
  bottom: "inception_4b/5x5"
  top: "inception_4b/5x5"
}
layer {
  name: "inception_4b/pool"
  type: "Pooling"
  bottom: "inception_4a/output"
  top: "inception_4b/pool"
  pooling_param {
    pool: MAX
    kernel_size: 3
    stride: 1
    pad: 1
  }
}
layer {
  name: "inception_4b/pool_proj"
  type: "Convolution"
  bottom: "inception_4b/pool"
  top: "inception_4b/pool_proj"
  param {
    lr_mult: 1
    decay_mult: 1
  }
  param {
    lr_mult: 2
    decay_mult: 0
  }
  convolution_param {
    num_output: 64
    kernel_size: 1
    weight_filler {
      type: "xavier"
      std: 0.1
    }
    bias_filler {
      type: "constant"
      value: 0.2
    }
  }
}
layer {
  name: "inception_4b/relu_pool_proj"
  type: "ReLU"
  bottom: "inception_4b/pool_proj"
  top: "inception_4b/pool_proj"
}
layer {
  name: "inception_4b/output"
  type: "Concat"
  bottom: "inception_4b/1x1"
  bottom: "inception_4b/3x3"
  bottom: "inception_4b/5x5"
  bottom: "inception_4b/pool_proj"
  top: "inception_4b/output"
}
layer {
  name: "inception_4c/1x1"
  type: "Convolution"
  bottom: "inception_4b/output"
  top: "inception_4c/1x1"
  param {
    lr_mult: 1
    decay_mult: 1
  }
  param {
    lr_mult: 2
    decay_mult: 0
  }
  convolution_param {
    num_output: 128
    kernel_size: 1
    weight_filler {
      type: "xavier"
      std: 0.03
    }
    bias_filler {
      type: "constant"
      value: 0.2
    }
  }
}
layer {
  name: "inception_4c/relu_1x1"
  type: "ReLU"
  bottom: "inception_4c/1x1"
  top: "inception_4c/1x1"
}
layer {
  name: "inception_4c/3x3_reduce"
  type: "Convolution"
  bottom: "inception_4b/output"
  top: "inception_4c/3x3_reduce"
  param {
    lr_mult: 1
    decay_mult: 1
  }
  param {
    lr_mult: 2
    decay_mult: 0
  }
  convolution_param {
    num_output: 128
    kernel_size: 1
    weight_filler {
      type: "xavier"
      std: 0.09
    }
    bias_filler {
      type: "constant"
      value: 0.2
    }
  }
}
layer {
  name: "inception_4c/relu_3x3_reduce"
  type: "ReLU"
  bottom: "inception_4c/3x3_reduce"
  top: "inception_4c/3x3_reduce"
}
layer {
  name: "inception_4c/3x3"
  type: "Convolution"
  bottom: "inception_4c/3x3_reduce"
  top: "inception_4c/3x3"
  param {
    lr_mult: 1
    decay_mult: 1
  }
  param {
    lr_mult: 2
    decay_mult: 0
  }
  convolution_param {
    num_output: 256
    pad: 1
    kernel_size: 3
    weight_filler {
      type: "xavier"
      std: 0.03
    }
    bias_filler {
      type: "constant"
      value: 0.2
    }
  }
}
layer {
  name: "inception_4c/relu_3x3"
  type: "ReLU"
  bottom: "inception_4c/3x3"
  top: "inception_4c/3x3"
}
layer {
  name: "inception_4c/5x5_reduce"
  type: "Convolution"
  bottom: "inception_4b/output"
  top: "inception_4c/5x5_reduce"
  param {
    lr_mult: 1
    decay_mult: 1
  }
  param {
    lr_mult: 2
    decay_mult: 0
  }
  convolution_param {
    num_output: 24
    kernel_size: 1
    weight_filler {
      type: "xavier"
      std: 0.2
    }
    bias_filler {
      type: "constant"
      value: 0.2
    }
  }
}
layer {
  name: "inception_4c/relu_5x5_reduce"
  type: "ReLU"
  bottom: "inception_4c/5x5_reduce"
  top: "inception_4c/5x5_reduce"
}
layer {
  name: "inception_4c/5x5"
  type: "Convolution"
  bottom: "inception_4c/5x5_reduce"
  top: "inception_4c/5x5"
  param {
    lr_mult: 1
    decay_mult: 1
  }
  param {
    lr_mult: 2
    decay_mult: 0
  }
  convolution_param {
    num_output: 64
    pad: 2
    kernel_size: 5
    weight_filler {
      type: "xavier"
      std: 0.03
    }
    bias_filler {
      type: "constant"
      value: 0.2
    }
  }
}
layer {
  name: "inception_4c/relu_5x5"
  type: "ReLU"
  bottom: "inception_4c/5x5"
  top: "inception_4c/5x5"
}
layer {
  name: "inception_4c/pool"
  type: "Pooling"
  bottom: "inception_4b/output"
  top: "inception_4c/pool"
  pooling_param {
    pool: MAX
    kernel_size: 3
    stride: 1
    pad: 1
  }
}
layer {
  name: "inception_4c/pool_proj"
  type: "Convolution"
  bottom: "inception_4c/pool"
  top: "inception_4c/pool_proj"
  param {
    lr_mult: 1
    decay_mult: 1
  }
  param {
    lr_mult: 2
    decay_mult: 0
  }
  convolution_param {
    num_output: 64
    kernel_size: 1
    weight_filler {
      type: "xavier"
      std: 0.1
    }
    bias_filler {
      type: "constant"
      value: 0.2
    }
  }
}
layer {
  name: "inception_4c/relu_pool_proj"
  type: "ReLU"
  bottom: "inception_4c/pool_proj"
  top: "inception_4c/pool_proj"
}
layer {
  name: "inception_4c/output"
  type: "Concat"
  bottom: "inception_4c/1x1"
  bottom: "inception_4c/3x3"
  bottom: "inception_4c/5x5"
  bottom: "inception_4c/pool_proj"
  top: "inception_4c/output"
}
layer {
  name: "inception_4d/1x1"
  type: "Convolution"
  bottom: "inception_4c/output"
  top: "inception_4d/1x1"
  param {
    lr_mult: 1
    decay_mult: 1
  }
  param {
    lr_mult: 2
    decay_mult: 0
  }
  convolution_param {
    num_output: 112
    kernel_size: 1
    weight_filler {
      type: "xavier"
      std: 0.03
    }
    bias_filler {
      type: "constant"
      value: 0.2
    }
  }
}
layer {
  name: "inception_4d/relu_1x1"
  type: "ReLU"
  bottom: "inception_4d/1x1"
  top: "inception_4d/1x1"
}
layer {
  name: "inception_4d/3x3_reduce"
  type: "Convolution"
  bottom: "inception_4c/output"
  top: "inception_4d/3x3_reduce"
  param {
    lr_mult: 1
    decay_mult: 1
  }
  param {
    lr_mult: 2
    decay_mult: 0
  }
  convolution_param {
    num_output: 144
    kernel_size: 1
    weight_filler {
      type: "xavier"
      std: 0.09
    }
    bias_filler {
      type: "constant"
      value: 0.2
    }
  }
}
layer {
  name: "inception_4d/relu_3x3_reduce"
  type: "ReLU"
  bottom: "inception_4d/3x3_reduce"
  top: "inception_4d/3x3_reduce"
}
layer {
  name: "inception_4d/3x3"
  type: "Convolution"
  bottom: "inception_4d/3x3_reduce"
  top: "inception_4d/3x3"
  param {
    lr_mult: 1
    decay_mult: 1
  }
  param {
    lr_mult: 2
    decay_mult: 0
  }
  convolution_param {
    num_output: 288
    pad: 1
    kernel_size: 3
    weight_filler {
      type: "xavier"
      std: 0.03
    }
    bias_filler {
      type: "constant"
      value: 0.2
    }
  }
}
layer {
  name: "inception_4d/relu_3x3"
  type: "ReLU"
  bottom: "inception_4d/3x3"
  top: "inception_4d/3x3"
}
layer {
  name: "inception_4d/5x5_reduce"
  type: "Convolution"
  bottom: "inception_4c/output"
  top: "inception_4d/5x5_reduce"
  param {
    lr_mult: 1
    decay_mult: 1
  }
  param {
    lr_mult: 2
    decay_mult: 0
  }
  convolution_param {
    num_output: 32
    kernel_size: 1
    weight_filler {
      type: "xavier"
      std: 0.2
    }
    bias_filler {
      type: "constant"
      value: 0.2
    }
  }
}
layer {
  name: "inception_4d/relu_5x5_reduce"
  type: "ReLU"
  bottom: "inception_4d/5x5_reduce"
  top: "inception_4d/5x5_reduce"
}
layer {
  name: "inception_4d/5x5"
  type: "Convolution"
  bottom: "inception_4d/5x5_reduce"
  top: "inception_4d/5x5"
  param {
    lr_mult: 1
    decay_mult: 1
  }
  param {
    lr_mult: 2
    decay_mult: 0
  }
  convolution_param {
    num_output: 64
    pad: 2
    kernel_size: 5
    weight_filler {
      type: "xavier"
      std: 0.03
    }
    bias_filler {
      type: "constant"
      value: 0.2
    }
  }
}
layer {
  name: "inception_4d/relu_5x5"
  type: "ReLU"
  bottom: "inception_4d/5x5"
  top: "inception_4d/5x5"
}
layer {
  name: "inception_4d/pool"
  type: "Pooling"
  bottom: "inception_4c/output"
  top: "inception_4d/pool"
  pooling_param {
    pool: MAX
    kernel_size: 3
    stride: 1
    pad: 1
  }
}
layer {
  name: "inception_4d/pool_proj"
  type: "Convolution"
  bottom: "inception_4d/pool"
  top: "inception_4d/pool_proj"
  param {
    lr_mult: 1
    decay_mult: 1
  }
  param {
    lr_mult: 2
    decay_mult: 0
  }
  convolution_param {
    num_output: 64
    kernel_size: 1
    weight_filler {
      type: "xavier"
      std: 0.1
    }
    bias_filler {
      type: "constant"
      value: 0.2
    }
  }
}
layer {
  name: "inception_4d/relu_pool_proj"
  type: "ReLU"
  bottom: "inception_4d/pool_proj"
  top: "inception_4d/pool_proj"
}
layer {
  name: "inception_4d/output"
  type: "Concat"
  bottom: "inception_4d/1x1"
  bottom: "inception_4d/3x3"
  bottom: "inception_4d/5x5"
  bottom: "inception_4d/pool_proj"
  top: "inception_4d/output"
}
layer {
  name: "loss2/ave_pool"
  type: "Pooling"
  bottom: "inception_4d/output"
  top: "loss2/ave_pool"
  pooling_param {
    pool: AVE
    kernel_size: 5
    stride: 3
  }
}
layer {
  name: "loss2/conv"
  type: "Convolution"
  bottom: "loss2/ave_pool"
  top: "loss2/conv"
  param {
    lr_mult: 1
    decay_mult: 1
  }
  param {
    lr_mult: 2
    decay_mult: 0
  }
  convolution_param {
    num_output: 128
    kernel_size: 1
    weight_filler {
      type: "xavier"
      std: 0.08
    }
    bias_filler {
      type: "constant"
      value: 0.2
    }
  }
}
layer {
  name: "loss2/relu_conv"
  type: "ReLU"
  bottom: "loss2/conv"
  top: "loss2/conv"
}
layer {
  name: "loss2/fc"
  type: "InnerProduct"
  bottom: "loss2/conv"
  top: "loss2/fc"
  param {
    lr_mult: 1
    decay_mult: 1
  }
  param {
    lr_mult: 2
    decay_mult: 0
  }
  inner_product_param {
    num_output: 1024
    weight_filler {
      type: "xavier"
      std: 0.02
    }
    bias_filler {
      type: "constant"
      value: 0.2
    }
  }
}
layer {
  name: "loss2/relu_fc"
  type: "ReLU"
  bottom: "loss2/fc"
  top: "loss2/fc"
}
layer {
  name: "loss2/drop_fc"
  type: "Dropout"
  bottom: "loss2/fc"
  top: "loss2/fc"
  dropout_param {
    dropout_ratio: 0.7
  }
}
layer {
  name: "loss2/classifier_plantvillage"
  type: "InnerProduct"
  bottom: "loss2/fc"
  top: "loss2/classifier_plantvillage"
  param {
    lr_mult: 1
    decay_mult: 1
  }
  param {
    lr_mult: 2
    decay_mult: 0
  }
  inner_product_param {
    num_output: 38
    weight_filler {
      type: "xavier"
      std: 0.0009765625
    }
    bias_filler {
      type: "constant"
      value: 0
    }
  }
}
layer {
  name: "inception_4e/1x1"
  type: "Convolution"
  bottom: "inception_4d/output"
  top: "inception_4e/1x1"
  param {
    lr_mult: 1
    decay_mult: 1
  }
  param {
    lr_mult: 2
    decay_mult: 0
  }
  convolution_param {
    num_output: 256
    kernel_size: 1
    weight_filler {
      type: "xavier"
      std: 0.03
    }
    bias_filler {
      type: "constant"
      value: 0.2
    }
  }
}
layer {
  name: "inception_4e/relu_1x1"
  type: "ReLU"
  bottom: "inception_4e/1x1"
  top: "inception_4e/1x1"
}
layer {
  name: "inception_4e/3x3_reduce"
  type: "Convolution"
  bottom: "inception_4d/output"
  top: "inception_4e/3x3_reduce"
  param {
    lr_mult: 1
    decay_mult: 1
  }
  param {
    lr_mult: 2
    decay_mult: 0
  }
  convolution_param {
    num_output: 160
    kernel_size: 1
    weight_filler {
      type: "xavier"
      std: 0.09
    }
    bias_filler {
      type: "constant"
      value: 0.2
    }
  }
}
layer {
  name: "inception_4e/relu_3x3_reduce"
  type: "ReLU"
  bottom: "inception_4e/3x3_reduce"
  top: "inception_4e/3x3_reduce"
}
layer {
  name: "inception_4e/3x3"
  type: "Convolution"
  bottom: "inception_4e/3x3_reduce"
  top: "inception_4e/3x3"
  param {
    lr_mult: 1
    decay_mult: 1
  }
  param {
    lr_mult: 2
    decay_mult: 0
  }
  convolution_param {
    num_output: 320
    pad: 1
    kernel_size: 3
    weight_filler {
      type: "xavier"
      std: 0.03
    }
    bias_filler {
      type: "constant"
      value: 0.2
    }
  }
}
layer {
  name: "inception_4e/relu_3x3"
  type: "ReLU"
  bottom: "inception_4e/3x3"
  top: "inception_4e/3x3"
}
layer {
  name: "inception_4e/5x5_reduce"
  type: "Convolution"
  bottom: "inception_4d/output"
  top: "inception_4e/5x5_reduce"
  param {
    lr_mult: 1
    decay_mult: 1
  }
  param {
    lr_mult: 2
    decay_mult: 0
  }
  convolution_param {
    num_output: 32
    kernel_size: 1
    weight_filler {
      type: "xavier"
      std: 0.2
    }
    bias_filler {
      type: "constant"
      value: 0.2
    }
  }
}
layer {
  name: "inception_4e/relu_5x5_reduce"
  type: "ReLU"
  bottom: "inception_4e/5x5_reduce"
  top: "inception_4e/5x5_reduce"
}
layer {
  name: "inception_4e/5x5"
  type: "Convolution"
  bottom: "inception_4e/5x5_reduce"
  top: "inception_4e/
I0403 15:41:15.256435 12226 layer_factory.hpp:77] Creating layer data
I0403 15:41:15.257045 12226 net.cpp:91] Creating Layer data
I0403 15:41:15.257079 12226 net.cpp:399] data -> data
I0403 15:41:15.257129 12226 net.cpp:399] data -> label
I0403 15:41:15.257166 12226 data_transformer.cpp:25] Loading mean file from: /home/mohanty/data/final_dataset/lmdb/segmented-50-50/mean.binaryproto
I0403 15:41:15.260162 12229 db_lmdb.cpp:38] Opened lmdb /home/mohanty/data/final_dataset/lmdb/segmented-50-50/test_db
I0403 15:41:15.270340 12226 data_layer.cpp:41] output data size: 24,3,224,224
I0403 15:41:15.298269 12226 net.cpp:141] Setting up data
I0403 15:41:15.298338 12226 net.cpp:148] Top shape: 24 3 224 224 (3612672)
I0403 15:41:15.298362 12226 net.cpp:148] Top shape: 24 (24)
I0403 15:41:15.298377 12226 net.cpp:156] Memory required for data: 14450784
I0403 15:41:15.298404 12226 layer_factory.hpp:77] Creating layer label_data_1_split
I0403 15:41:15.298434 12226 net.cpp:91] Creating Layer label_data_1_split
I0403 15:41:15.298454 12226 net.cpp:425] label_data_1_split <- label
I0403 15:41:15.298483 12226 net.cpp:399] label_data_1_split -> label_data_1_split_0
I0403 15:41:15.298511 12226 net.cpp:399] label_data_1_split -> label_data_1_split_1
I0403 15:41:15.298533 12226 net.cpp:399] label_data_1_split -> label_data_1_split_2
I0403 15:41:15.298554 12226 net.cpp:399] label_data_1_split -> label_data_1_split_3
I0403 15:41:15.298575 12226 net.cpp:399] label_data_1_split -> label_data_1_split_4
I0403 15:41:15.298595 12226 net.cpp:399] label_data_1_split -> label_data_1_split_5
I0403 15:41:15.298626 12226 net.cpp:399] label_data_1_split -> label_data_1_split_6
I0403 15:41:15.298647 12226 net.cpp:399] label_data_1_split -> label_data_1_split_7
I0403 15:41:15.298667 12226 net.cpp:399] label_data_1_split -> label_data_1_split_8
I0403 15:41:15.298686 12226 net.cpp:399] label_data_1_split -> label_data_1_split_9
I0403 15:41:15.298800 12226 net.cpp:141] Setting up label_data_1_split
I0403 15:41:15.298825 12226 net.cpp:148] Top shape: 24 (24)
I0403 15:41:15.298841 12226 net.cpp:148] Top shape: 24 (24)
I0403 15:41:15.298857 12226 net.cpp:148] Top shape: 24 (24)
I0403 15:41:15.298873 12226 net.cpp:148] Top shape: 24 (24)
I0403 15:41:15.298889 12226 net.cpp:148] Top shape: 24 (24)
I0403 15:41:15.298904 12226 net.cpp:148] Top shape: 24 (24)
I0403 15:41:15.298919 12226 net.cpp:148] Top shape: 24 (24)
I0403 15:41:15.298935 12226 net.cpp:148] Top shape: 24 (24)
I0403 15:41:15.298950 12226 net.cpp:148] Top shape: 24 (24)
I0403 15:41:15.298966 12226 net.cpp:148] Top shape: 24 (24)
I0403 15:41:15.299006 12226 net.cpp:156] Memory required for data: 14451744
I0403 15:41:15.299021 12226 layer_factory.hpp:77] Creating layer conv1/7x7_s2
I0403 15:41:15.299052 12226 net.cpp:91] Creating Layer conv1/7x7_s2
I0403 15:41:15.299070 12226 net.cpp:425] conv1/7x7_s2 <- data
I0403 15:41:15.299088 12226 net.cpp:399] conv1/7x7_s2 -> conv1/7x7_s2
I0403 15:41:15.438439 12226 net.cpp:141] Setting up conv1/7x7_s2
I0403 15:41:15.438529 12226 net.cpp:148] Top shape: 24 64 112 112 (19267584)
I0403 15:41:15.438546 12226 net.cpp:156] Memory required for data: 91522080
I0403 15:41:15.438576 12226 layer_factory.hpp:77] Creating layer conv1/relu_7x7
I0403 15:41:15.438616 12226 net.cpp:91] Creating Layer conv1/relu_7x7
I0403 15:41:15.438635 12226 net.cpp:425] conv1/relu_7x7 <- conv1/7x7_s2
I0403 15:41:15.438654 12226 net.cpp:386] conv1/relu_7x7 -> conv1/7x7_s2 (in-place)
I0403 15:41:15.438922 12226 net.cpp:141] Setting up conv1/relu_7x7
I0403 15:41:15.438949 12226 net.cpp:148] Top shape: 24 64 112 112 (19267584)
I0403 15:41:15.438964 12226 net.cpp:156] Memory required for data: 168592416
I0403 15:41:15.438979 12226 layer_factory.hpp:77] Creating layer pool1/3x3_s2
I0403 15:41:15.439007 12226 net.cpp:91] Creating Layer pool1/3x3_s2
I0403 15:41:15.439025 12226 net.cpp:425] pool1/3x3_s2 <- conv1/7x7_s2
I0403 15:41:15.439043 12226 net.cpp:399] pool1/3x3_s2 -> pool1/3x3_s2
I0403 15:41:15.439121 12226 net.cpp:141] Setting up pool1/3x3_s2
I0403 15:41:15.439146 12226 net.cpp:148] Top shape: 24 64 56 56 (4816896)
I0403 15:41:15.439160 12226 net.cpp:156] Memory required for data: 187860000
I0403 15:41:15.439175 12226 layer_factory.hpp:77] Creating layer pool1/norm1
I0403 15:41:15.439200 12226 net.cpp:91] Creating Layer pool1/norm1
I0403 15:41:15.439219 12226 net.cpp:425] pool1/norm1 <- pool1/3x3_s2
I0403 15:41:15.439236 12226 net.cpp:399] pool1/norm1 -> pool1/norm1
I0403 15:41:15.439563 12226 net.cpp:141] Setting up pool1/norm1
I0403 15:41:15.439592 12226 net.cpp:148] Top shape: 24 64 56 56 (4816896)
I0403 15:41:15.439609 12226 net.cpp:156] Memory required for data: 207127584
I0403 15:41:15.439623 12226 layer_factory.hpp:77] Creating layer conv2/3x3_reduce
I0403 15:41:15.439656 12226 net.cpp:91] Creating Layer conv2/3x3_reduce
I0403 15:41:15.439673 12226 net.cpp:425] conv2/3x3_reduce <- pool1/norm1
I0403 15:41:15.439694 12226 net.cpp:399] conv2/3x3_reduce -> conv2/3x3_reduce
I0403 15:41:15.441125 12226 net.cpp:141] Setting up conv2/3x3_reduce
I0403 15:41:15.441155 12226 net.cpp:148] Top shape: 24 64 56 56 (4816896)
I0403 15:41:15.441172 12226 net.cpp:156] Memory required for data: 226395168
I0403 15:41:15.441195 12226 layer_factory.hpp:77] Creating layer conv2/relu_3x3_reduce
I0403 15:41:15.441215 12226 net.cpp:91] Creating Layer conv2/relu_3x3_reduce
I0403 15:41:15.441231 12226 net.cpp:425] conv2/relu_3x3_reduce <- conv2/3x3_reduce
I0403 15:41:15.441251 12226 net.cpp:386] conv2/relu_3x3_reduce -> conv2/3x3_reduce (in-place)
I0403 15:41:15.441539 12226 net.cpp:141] Setting up conv2/relu_3x3_reduce
I0403 15:41:15.441566 12226 net.cpp:148] Top shape: 24 64 56 56 (4816896)
I0403 15:41:15.441581 12226 net.cpp:156] Memory required for data: 245662752
I0403 15:41:15.441596 12226 layer_factory.hpp:77] Creating layer conv2/3x3
I0403 15:41:15.441620 12226 net.cpp:91] Creating Layer conv2/3x3
I0403 15:41:15.441639 12226 net.cpp:425] conv2/3x3 <- conv2/3x3_reduce
I0403 15:41:15.441661 12226 net.cpp:399] conv2/3x3 -> conv2/3x3
I0403 15:41:15.444048 12226 net.cpp:141] Setting up conv2/3x3
I0403 15:41:15.444079 12226 net.cpp:148] Top shape: 24 192 56 56 (14450688)
I0403 15:41:15.444097 12226 net.cpp:156] Memory required for data: 303465504
I0403 15:41:15.444119 12226 layer_factory.hpp:77] Creating layer conv2/relu_3x3
I0403 15:41:15.444140 12226 net.cpp:91] Creating Layer conv2/relu_3x3
I0403 15:41:15.444156 12226 net.cpp:425] conv2/relu_3x3 <- conv2/3x3
I0403 15:41:15.444176 12226 net.cpp:386] conv2/relu_3x3 -> conv2/3x3 (in-place)
I0403 15:41:15.444360 12226 net.cpp:141] Setting up conv2/relu_3x3
I0403 15:41:15.444386 12226 net.cpp:148] Top shape: 24 192 56 56 (14450688)
I0403 15:41:15.444439 12226 net.cpp:156] Memory required for data: 361268256
I0403 15:41:15.444458 12226 layer_factory.hpp:77] Creating layer conv2/norm2
I0403 15:41:15.444476 12226 net.cpp:91] Creating Layer conv2/norm2
I0403 15:41:15.444492 12226 net.cpp:425] conv2/norm2 <- conv2/3x3
I0403 15:41:15.444512 12226 net.cpp:399] conv2/norm2 -> conv2/norm2
I0403 15:41:15.444836 12226 net.cpp:141] Setting up conv2/norm2
I0403 15:41:15.444865 12226 net.cpp:148] Top shape: 24 192 56 56 (14450688)
I0403 15:41:15.444881 12226 net.cpp:156] Memory required for data: 419071008
I0403 15:41:15.444897 12226 layer_factory.hpp:77] Creating layer pool2/3x3_s2
I0403 15:41:15.444916 12226 net.cpp:91] Creating Layer pool2/3x3_s2
I0403 15:41:15.444931 12226 net.cpp:425] pool2/3x3_s2 <- conv2/norm2
I0403 15:41:15.444953 12226 net.cpp:399] pool2/3x3_s2 -> pool2/3x3_s2
I0403 15:41:15.445008 12226 net.cpp:141] Setting up pool2/3x3_s2
I0403 15:41:15.445032 12226 net.cpp:148] Top shape: 24 192 28 28 (3612672)
I0403 15:41:15.445049 12226 net.cpp:156] Memory required for data: 433521696
I0403 15:41:15.445063 12226 layer_factory.hpp:77] Creating layer pool2/3x3_s2_pool2/3x3_s2_0_split
I0403 15:41:15.445083 12226 net.cpp:91] Creating Layer pool2/3x3_s2_pool2/3x3_s2_0_split
I0403 15:41:15.445101 12226 net.cpp:425] pool2/3x3_s2_pool2/3x3_s2_0_split <- pool2/3x3_s2
I0403 15:41:15.445117 12226 net.cpp:399] pool2/3x3_s2_pool2/3x3_s2_0_split -> pool2/3x3_s2_pool2/3x3_s2_0_split_0
I0403 15:41:15.445138 12226 net.cpp:399] pool2/3x3_s2_pool2/3x3_s2_0_split -> pool2/3x3_s2_pool2/3x3_s2_0_split_1
I0403 15:41:15.445163 12226 net.cpp:399] pool2/3x3_s2_pool2/3x3_s2_0_split -> pool2/3x3_s2_pool2/3x3_s2_0_split_2
I0403 15:41:15.445184 12226 net.cpp:399] pool2/3x3_s2_pool2/3x3_s2_0_split -> pool2/3x3_s2_pool2/3x3_s2_0_split_3
I0403 15:41:15.445257 12226 net.cpp:141] Setting up pool2/3x3_s2_pool2/3x3_s2_0_split
I0403 15:41:15.445281 12226 net.cpp:148] Top shape: 24 192 28 28 (3612672)
I0403 15:41:15.445298 12226 net.cpp:148] Top shape: 24 192 28 28 (3612672)
I0403 15:41:15.445315 12226 net.cpp:148] Top shape: 24 192 28 28 (3612672)
I0403 15:41:15.445333 12226 net.cpp:148] Top shape: 24 192 28 28 (3612672)
I0403 15:41:15.445346 12226 net.cpp:156] Memory required for data: 491324448
I0403 15:41:15.445361 12226 layer_factory.hpp:77] Creating layer inception_3a/1x1
I0403 15:41:15.445384 12226 net.cpp:91] Creating Layer inception_3a/1x1
I0403 15:41:15.445404 12226 net.cpp:425] inception_3a/1x1 <- pool2/3x3_s2_pool2/3x3_s2_0_split_0
I0403 15:41:15.445430 12226 net.cpp:399] inception_3a/1x1 -> inception_3a/1x1
I0403 15:41:15.447002 12226 net.cpp:141] Setting up inception_3a/1x1
I0403 15:41:15.447033 12226 net.cpp:148] Top shape: 24 64 28 28 (1204224)
I0403 15:41:15.447049 12226 net.cpp:156] Memory required for data: 496141344
I0403 15:41:15.447069 12226 layer_factory.hpp:77] Creating layer inception_3a/relu_1x1
I0403 15:41:15.447088 12226 net.cpp:91] Creating Layer inception_3a/relu_1x1
I0403 15:41:15.447103 12226 net.cpp:425] inception_3a/relu_1x1 <- inception_3a/1x1
I0403 15:41:15.447124 12226 net.cpp:386] inception_3a/relu_1x1 -> inception_3a/1x1 (in-place)
I0403 15:41:15.447307 12226 net.cpp:141] Setting up inception_3a/relu_1x1
I0403 15:41:15.447334 12226 net.cpp:148] Top shape: 24 64 28 28 (1204224)
I0403 15:41:15.447348 12226 net.cpp:156] Memory required for data: 500958240
I0403 15:41:15.447363 12226 layer_factory.hpp:77] Creating layer inception_3a/3x3_reduce
I0403 15:41:15.447386 12226 net.cpp:91] Creating Layer inception_3a/3x3_reduce
I0403 15:41:15.447404 12226 net.cpp:425] inception_3a/3x3_reduce <- pool2/3x3_s2_pool2/3x3_s2_0_split_1
I0403 15:41:15.447432 12226 net.cpp:399] inception_3a/3x3_reduce -> inception_3a/3x3_reduce
I0403 15:41:15.449167 12226 net.cpp:141] Setting up inception_3a/3x3_reduce
I0403 15:41:15.449198 12226 net.cpp:148] Top shape: 24 96 28 28 (1806336)
I0403 15:41:15.449214 12226 net.cpp:156] Memory required for data: 508183584
I0403 15:41:15.449236 12226 layer_factory.hpp:77] Creating layer inception_3a/relu_3x3_reduce
I0403 15:41:15.449275 12226 net.cpp:91] Creating Layer inception_3a/relu_3x3_reduce
I0403 15:41:15.449295 12226 net.cpp:425] inception_3a/relu_3x3_reduce <- inception_3a/3x3_reduce
I0403 15:41:15.449312 12226 net.cpp:386] inception_3a/relu_3x3_reduce -> inception_3a/3x3_reduce (in-place)
I0403 15:41:15.449506 12226 net.cpp:141] Setting up inception_3a/relu_3x3_reduce
I0403 15:41:15.449534 12226 net.cpp:148] Top shape: 24 96 28 28 (1806336)
I0403 15:41:15.449550 12226 net.cpp:156] Memory required for data: 515408928
I0403 15:41:15.449565 12226 layer_factory.hpp:77] Creating layer inception_3a/3x3
I0403 15:41:15.449589 12226 net.cpp:91] Creating Layer inception_3a/3x3
I0403 15:41:15.449606 12226 net.cpp:425] inception_3a/3x3 <- inception_3a/3x3_reduce
I0403 15:41:15.449630 12226 net.cpp:399] inception_3a/3x3 -> inception_3a/3x3
I0403 15:41:15.451328 12226 net.cpp:141] Setting up inception_3a/3x3
I0403 15:41:15.451359 12226 net.cpp:148] Top shape: 24 128 28 28 (2408448)
I0403 15:41:15.451377 12226 net.cpp:156] Memory required for data: 525042720
I0403 15:41:15.451396 12226 layer_factory.hpp:77] Creating layer inception_3a/relu_3x3
I0403 15:41:15.451422 12226 net.cpp:91] Creating Layer inception_3a/relu_3x3
I0403 15:41:15.451441 12226 net.cpp:425] inception_3a/relu_3x3 <- inception_3a/3x3
I0403 15:41:15.451458 12226 net.cpp:386] inception_3a/relu_3x3 -> inception_3a/3x3 (in-place)
I0403 15:41:15.451741 12226 net.cpp:141] Setting up inception_3a/relu_3x3
I0403 15:41:15.451768 12226 net.cpp:148] Top shape: 24 128 28 28 (2408448)
I0403 15:41:15.451784 12226 net.cpp:156] Memory required for data: 534676512
I0403 15:41:15.451799 12226 layer_factory.hpp:77] Creating layer inception_3a/5x5_reduce
I0403 15:41:15.451822 12226 net.cpp:91] Creating Layer inception_3a/5x5_reduce
I0403 15:41:15.451839 12226 net.cpp:425] inception_3a/5x5_reduce <- pool2/3x3_s2_pool2/3x3_s2_0_split_2
I0403 15:41:15.451860 12226 net.cpp:399] inception_3a/5x5_reduce -> inception_3a/5x5_reduce
I0403 15:41:15.452877 12226 net.cpp:141] Setting up inception_3a/5x5_reduce
I0403 15:41:15.452905 12226 net.cpp:148] Top shape: 24 16 28 28 (301056)
I0403 15:41:15.452922 12226 net.cpp:156] Memory required for data: 535880736
I0403 15:41:15.452940 12226 layer_factory.hpp:77] Creating layer inception_3a/relu_5x5_reduce
I0403 15:41:15.452963 12226 net.cpp:91] Creating Layer inception_3a/relu_5x5_reduce
I0403 15:41:15.452980 12226 net.cpp:425] inception_3a/relu_5x5_reduce <- inception_3a/5x5_reduce
I0403 15:41:15.452997 12226 net.cpp:386] inception_3a/relu_5x5_reduce -> inception_3a/5x5_reduce (in-place)
I0403 15:41:15.453310 12226 net.cpp:141] Setting up inception_3a/relu_5x5_reduce
I0403 15:41:15.453339 12226 net.cpp:148] Top shape: 24 16 28 28 (301056)
I0403 15:41:15.453358 12226 net.cpp:156] Memory required for data: 537084960
I0403 15:41:15.453373 12226 layer_factory.hpp:77] Creating layer inception_3a/5x5
I0403 15:41:15.453394 12226 net.cpp:91] Creating Layer inception_3a/5x5
I0403 15:41:15.453415 12226 net.cpp:425] inception_3a/5x5 <- inception_3a/5x5_reduce
I0403 15:41:15.453438 12226 net.cpp:399] inception_3a/5x5 -> inception_3a/5x5
I0403 15:41:15.454494 12226 net.cpp:141] Setting up inception_3a/5x5
I0403 15:41:15.454524 12226 net.cpp:148] Top shape: 24 32 28 28 (602112)
I0403 15:41:15.454540 12226 net.cpp:156] Memory required for data: 539493408
I0403 15:41:15.454558 12226 layer_factory.hpp:77] Creating layer inception_3a/relu_5x5
I0403 15:41:15.454581 12226 net.cpp:91] Creating Layer inception_3a/relu_5x5
I0403 15:41:15.454598 12226 net.cpp:425] inception_3a/relu_5x5 <- inception_3a/5x5
I0403 15:41:15.454615 12226 net.cpp:386] inception_3a/relu_5x5 -> inception_3a/5x5 (in-place)
I0403 15:41:15.454800 12226 net.cpp:141] Setting up inception_3a/relu_5x5
I0403 15:41:15.454825 12226 net.cpp:148] Top shape: 24 32 28 28 (602112)
I0403 15:41:15.454841 12226 net.cpp:156] Memory required for data: 541901856
I0403 15:41:15.454856 12226 layer_factory.hpp:77] Creating layer inception_3a/pool
I0403 15:41:15.454877 12226 net.cpp:91] Creating Layer inception_3a/pool
I0403 15:41:15.454907 12226 net.cpp:425] inception_3a/pool <- pool2/3x3_s2_pool2/3x3_s2_0_split_3
I0403 15:41:15.454927 12226 net.cpp:399] inception_3a/pool -> inception_3a/pool
I0403 15:41:15.454990 12226 net.cpp:141] Setting up inception_3a/pool
I0403 15:41:15.455015 12226 net.cpp:148] Top shape: 24 192 28 28 (3612672)
I0403 15:41:15.455030 12226 net.cpp:156] Memory required for data: 556352544
I0403 15:41:15.455045 12226 layer_factory.hpp:77] Creating layer inception_3a/pool_proj
I0403 15:41:15.455067 12226 net.cpp:91] Creating Layer inception_3a/pool_proj
I0403 15:41:15.455085 12226 net.cpp:425] inception_3a/pool_proj <- inception_3a/pool
I0403 15:41:15.455107 12226 net.cpp:399] inception_3a/pool_proj -> inception_3a/pool_proj
I0403 15:41:15.456112 12226 net.cpp:141] Setting up inception_3a/pool_proj
I0403 15:41:15.456143 12226 net.cpp:148] Top shape: 24 32 28 28 (602112)
I0403 15:41:15.456161 12226 net.cpp:156] Memory required for data: 558760992
I0403 15:41:15.456183 12226 layer_factory.hpp:77] Creating layer inception_3a/relu_pool_proj
I0403 15:41:15.456205 12226 net.cpp:91] Creating Layer inception_3a/relu_pool_proj
I0403 15:41:15.456223 12226 net.cpp:425] inception_3a/relu_pool_proj <- inception_3a/pool_proj
I0403 15:41:15.456240 12226 net.cpp:386] inception_3a/relu_pool_proj -> inception_3a/pool_proj (in-place)
I0403 15:41:15.456533 12226 net.cpp:141] Setting up inception_3a/relu_pool_proj
I0403 15:41:15.456562 12226 net.cpp:148] Top shape: 24 32 28 28 (602112)
I0403 15:41:15.456576 12226 net.cpp:156] Memory required for data: 561169440
I0403 15:41:15.456591 12226 layer_factory.hpp:77] Creating layer inception_3a/output
I0403 15:41:15.456609 12226 net.cpp:91] Creating Layer inception_3a/output
I0403 15:41:15.456625 12226 net.cpp:425] inception_3a/output <- inception_3a/1x1
I0403 15:41:15.456642 12226 net.cpp:425] inception_3a/output <- inception_3a/3x3
I0403 15:41:15.456662 12226 net.cpp:425] inception_3a/output <- inception_3a/5x5
I0403 15:41:15.456679 12226 net.cpp:425] inception_3a/output <- inception_3a/pool_proj
I0403 15:41:15.456696 12226 net.cpp:399] inception_3a/output -> inception_3a/output
I0403 15:41:15.456742 12226 net.cpp:141] Setting up inception_3a/output
I0403 15:41:15.456768 12226 net.cpp:148] Top shape: 24 256 28 28 (4816896)
I0403 15:41:15.456785 12226 net.cpp:156] Memory required for data: 580437024
I0403 15:41:15.456801 12226 layer_factory.hpp:77] Creating layer inception_3a/output_inception_3a/output_0_split
I0403 15:41:15.456818 12226 net.cpp:91] Creating Layer inception_3a/output_inception_3a/output_0_split
I0403 15:41:15.456833 12226 net.cpp:425] inception_3a/output_inception_3a/output_0_split <- inception_3a/output
I0403 15:41:15.456852 12226 net.cpp:399] inception_3a/output_inception_3a/output_0_split -> inception_3a/output_inception_3a/output_0_split_0
I0403 15:41:15.456876 12226 net.cpp:399] inception_3a/output_inception_3a/output_0_split -> inception_3a/output_inception_3a/output_0_split_1
I0403 15:41:15.456900 12226 net.cpp:399] inception_3a/output_inception_3a/output_0_split -> inception_3a/output_inception_3a/output_0_split_2
I0403 15:41:15.456923 12226 net.cpp:399] inception_3a/output_inception_3a/output_0_split -> inception_3a/output_inception_3a/output_0_split_3
I0403 15:41:15.456998 12226 net.cpp:141] Setting up inception_3a/output_inception_3a/output_0_split
I0403 15:41:15.457022 12226 net.cpp:148] Top shape: 24 256 28 28 (4816896)
I0403 15:41:15.457041 12226 net.cpp:148] Top shape: 24 256 28 28 (4816896)
I0403 15:41:15.457057 12226 net.cpp:148] Top shape: 24 256 28 28 (4816896)
I0403 15:41:15.457073 12226 net.cpp:148] Top shape: 24 256 28 28 (4816896)
I0403 15:41:15.457088 12226 net.cpp:156] Memory required for data: 657507360
I0403 15:41:15.457104 12226 layer_factory.hpp:77] Creating layer inception_3b/1x1
I0403 15:41:15.457126 12226 net.cpp:91] Creating Layer inception_3b/1x1
I0403 15:41:15.457144 12226 net.cpp:425] inception_3b/1x1 <- inception_3a/output_inception_3a/output_0_split_0
I0403 15:41:15.457165 12226 net.cpp:399] inception_3b/1x1 -> inception_3b/1x1
I0403 15:41:15.458358 12226 net.cpp:141] Setting up inception_3b/1x1
I0403 15:41:15.458400 12226 net.cpp:148] Top shape: 24 128 28 28 (2408448)
I0403 15:41:15.458422 12226 net.cpp:156] Memory required for data: 667141152
I0403 15:41:15.458441 12226 layer_factory.hpp:77] Creating layer inception_3b/relu_1x1
I0403 15:41:15.458461 12226 net.cpp:91] Creating Layer inception_3b/relu_1x1
I0403 15:41:15.458478 12226 net.cpp:425] inception_3b/relu_1x1 <- inception_3b/1x1
I0403 15:41:15.458498 12226 net.cpp:386] inception_3b/relu_1x1 -> inception_3b/1x1 (in-place)
I0403 15:41:15.458685 12226 net.cpp:141] Setting up inception_3b/relu_1x1
I0403 15:41:15.458711 12226 net.cpp:148] Top shape: 24 128 28 28 (2408448)
I0403 15:41:15.458727 12226 net.cpp:156] Memory required for data: 676774944
I0403 15:41:15.458742 12226 layer_factory.hpp:77] Creating layer inception_3b/3x3_reduce
I0403 15:41:15.458765 12226 net.cpp:91] Creating Layer inception_3b/3x3_reduce
I0403 15:41:15.458783 12226 net.cpp:425] inception_3b/3x3_reduce <- inception_3a/output_inception_3a/output_0_split_1
I0403 15:41:15.458806 12226 net.cpp:399] inception_3b/3x3_reduce -> inception_3b/3x3_reduce
I0403 15:41:15.460050 12226 net.cpp:141] Setting up inception_3b/3x3_reduce
I0403 15:41:15.460080 12226 net.cpp:148] Top shape: 24 128 28 28 (2408448)
I0403 15:41:15.460098 12226 net.cpp:156] Memory required for data: 686408736
I0403 15:41:15.460115 12226 layer_factory.hpp:77] Creating layer inception_3b/relu_3x3_reduce
I0403 15:41:15.460134 12226 net.cpp:91] Creating Layer inception_3b/relu_3x3_reduce
I0403 15:41:15.460150 12226 net.cpp:425] inception_3b/relu_3x3_reduce <- inception_3b/3x3_reduce
I0403 15:41:15.460170 12226 net.cpp:386] inception_3b/relu_3x3_reduce -> inception_3b/3x3_reduce (in-place)
I0403 15:41:15.460351 12226 net.cpp:141] Setting up inception_3b/relu_3x3_reduce
I0403 15:41:15.460376 12226 net.cpp:148] Top shape: 24 128 28 28 (2408448)
I0403 15:41:15.460391 12226 net.cpp:156] Memory required for data: 696042528
I0403 15:41:15.460407 12226 layer_factory.hpp:77] Creating layer inception_3b/3x3
I0403 15:41:15.460438 12226 net.cpp:91] Creating Layer inception_3b/3x3
I0403 15:41:15.460455 12226 net.cpp:425] inception_3b/3x3 <- inception_3b/3x3_reduce
I0403 15:41:15.460474 12226 net.cpp:399] inception_3b/3x3 -> inception_3b/3x3
I0403 15:41:15.463382 12226 net.cpp:141] Setting up inception_3b/3x3
I0403 15:41:15.463413 12226 net.cpp:148] Top shape: 24 192 28 28 (3612672)
I0403 15:41:15.463431 12226 net.cpp:156] Memory required for data: 710493216
I0403 15:41:15.463449 12226 layer_factory.hpp:77] Creating layer inception_3b/relu_3x3
I0403 15:41:15.463471 12226 net.cpp:91] Creating Layer inception_3b/relu_3x3
I0403 15:41:15.463488 12226 net.cpp:425] inception_3b/relu_3x3 <- inception_3b/3x3
I0403 15:41:15.463505 12226 net.cpp:386] inception_3b/relu_3x3 -> inception_3b/3x3 (in-place)
I0403 15:41:15.463788 12226 net.cpp:141] Setting up inception_3b/relu_3x3
I0403 15:41:15.463815 12226 net.cpp:148] Top shape: 24 192 28 28 (3612672)
I0403 15:41:15.463830 12226 net.cpp:156] Memory required for data: 724943904
I0403 15:41:15.463846 12226 layer_factory.hpp:77] Creating layer inception_3b/5x5_reduce
I0403 15:41:15.463870 12226 net.cpp:91] Creating Layer inception_3b/5x5_reduce
I0403 15:41:15.463886 12226 net.cpp:425] inception_3b/5x5_reduce <- inception_3a/output_inception_3a/output_0_split_2
I0403 15:41:15.463907 12226 net.cpp:399] inception_3b/5x5_reduce -> inception_3b/5x5_reduce
I0403 15:41:15.464910 12226 net.cpp:141] Setting up inception_3b/5x5_reduce
I0403 15:41:15.464937 12226 net.cpp:148] Top shape: 24 32 28 28 (602112)
I0403 15:41:15.464953 12226 net.cpp:156] Memory required for data: 727352352
I0403 15:41:15.464972 12226 layer_factory.hpp:77] Creating layer inception_3b/relu_5x5_reduce
I0403 15:41:15.464993 12226 net.cpp:91] Creating Layer inception_3b/relu_5x5_reduce
I0403 15:41:15.465009 12226 net.cpp:425] inception_3b/relu_5x5_reduce <- inception_3b/5x5_reduce
I0403 15:41:15.465026 12226 net.cpp:386] inception_3b/relu_5x5_reduce -> inception_3b/5x5_reduce (in-place)
I0403 15:41:15.465222 12226 net.cpp:141] Setting up inception_3b/relu_5x5_reduce
I0403 15:41:15.465247 12226 net.cpp:148] Top shape: 24 32 28 28 (602112)
I0403 15:41:15.465262 12226 net.cpp:156] Memory required for data: 729760800
I0403 15:41:15.465277 12226 layer_factory.hpp:77] Creating layer inception_3b/5x5
I0403 15:41:15.465299 12226 net.cpp:91] Creating Layer inception_3b/5x5
I0403 15:41:15.465318 12226 net.cpp:425] inception_3b/5x5 <- inception_3b/5x5_reduce
I0403 15:41:15.465337 12226 net.cpp:399] inception_3b/5x5 -> inception_3b/5x5
I0403 15:41:15.467315 12226 net.cpp:141] Setting up inception_3b/5x5
I0403 15:41:15.467347 12226 net.cpp:148] Top shape: 24 96 28 28 (1806336)
I0403 15:41:15.467366 12226 net.cpp:156] Memory required for data: 736986144
I0403 15:41:15.467386 12226 layer_factory.hpp:77] Creating layer inception_3b/relu_5x5
I0403 15:41:15.467403 12226 net.cpp:91] Creating Layer inception_3b/relu_5x5
I0403 15:41:15.467424 12226 net.cpp:425] inception_3b/relu_5x5 <- inception_3b/5x5
I0403 15:41:15.467445 12226 net.cpp:386] inception_3b/relu_5x5 -> inception_3b/5x5 (in-place)
I0403 15:41:15.467643 12226 net.cpp:141] Setting up inception_3b/relu_5x5
I0403 15:41:15.467669 12226 net.cpp:148] Top shape: 24 96 28 28 (1806336)
I0403 15:41:15.467684 12226 net.cpp:156] Memory required for data: 744211488
I0403 15:41:15.467700 12226 layer_factory.hpp:77] Creating layer inception_3b/pool
I0403 15:41:15.467717 12226 net.cpp:91] Creating Layer inception_3b/pool
I0403 15:41:15.467732 12226 net.cpp:425] inception_3b/pool <- inception_3a/output_inception_3a/output_0_split_3
I0403 15:41:15.467751 12226 net.cpp:399] inception_3b/pool -> inception_3b/pool
I0403 15:41:15.467806 12226 net.cpp:141] Setting up inception_3b/pool
I0403 15:41:15.467830 12226 net.cpp:148] Top shape: 24 256 28 28 (4816896)
I0403 15:41:15.467845 12226 net.cpp:156] Memory required for data: 763479072
I0403 15:41:15.467860 12226 layer_factory.hpp:77] Creating layer inception_3b/pool_proj
I0403 15:41:15.467883 12226 net.cpp:91] Creating Layer inception_3b/pool_proj
I0403 15:41:15.467900 12226 net.cpp:425] inception_3b/pool_proj <- inception_3b/pool
I0403 15:41:15.467918 12226 net.cpp:399] inception_3b/pool_proj -> inception_3b/pool_proj
I0403 15:41:15.468982 12226 net.cpp:141] Setting up inception_3b/pool_proj
I0403 15:41:15.469010 12226 net.cpp:148] Top shape: 24 64 28 28 (1204224)
I0403 15:41:15.469027 12226 net.cpp:156] Memory required for data: 768295968
I0403 15:41:15.469045 12226 layer_factory.hpp:77] Creating layer inception_3b/relu_pool_proj
I0403 15:41:15.469066 12226 net.cpp:91] Creating Layer inception_3b/relu_pool_proj
I0403 15:41:15.469082 12226 net.cpp:425] inception_3b/relu_pool_proj <- inception_3b/pool_proj
I0403 15:41:15.469099 12226 net.cpp:386] inception_3b/relu_pool_proj -> inception_3b/pool_proj (in-place)
I0403 15:41:15.469506 12226 net.cpp:141] Setting up inception_3b/relu_pool_proj
I0403 15:41:15.469533 12226 net.cpp:148] Top shape: 24 64 28 28 (1204224)
I0403 15:41:15.469548 12226 net.cpp:156] Memory required for data: 773112864
I0403 15:41:15.469564 12226 layer_factory.hpp:77] Creating layer inception_3b/output
I0403 15:41:15.469583 12226 net.cpp:91] Creating Layer inception_3b/output
I0403 15:41:15.469599 12226 net.cpp:425] inception_3b/output <- inception_3b/1x1
I0403 15:41:15.469615 12226 net.cpp:425] inception_3b/output <- inception_3b/3x3
I0403 15:41:15.469631 12226 net.cpp:425] inception_3b/output <- inception_3b/5x5
I0403 15:41:15.469647 12226 net.cpp:425] inception_3b/output <- inception_3b/pool_proj
I0403 15:41:15.469665 12226 net.cpp:399] inception_3b/output -> inception_3b/output
I0403 15:41:15.469709 12226 net.cpp:141] Setting up inception_3b/output
I0403 15:41:15.469732 12226 net.cpp:148] Top shape: 24 480 28 28 (9031680)
I0403 15:41:15.469748 12226 net.cpp:156] Memory required for data: 809239584
I0403 15:41:15.469763 12226 layer_factory.hpp:77] Creating layer pool3/3x3_s2
I0403 15:41:15.469779 12226 net.cpp:91] Creating Layer pool3/3x3_s2
I0403 15:41:15.469794 12226 net.cpp:425] pool3/3x3_s2 <- inception_3b/output
I0403 15:41:15.469830 12226 net.cpp:399] pool3/3x3_s2 -> pool3/3x3_s2
I0403 15:41:15.469888 12226 net.cpp:141] Setting up pool3/3x3_s2
I0403 15:41:15.469914 12226 net.cpp:148] Top shape: 24 480 14 14 (2257920)
I0403 15:41:15.469930 12226 net.cpp:156] Memory required for data: 818271264
I0403 15:41:15.469944 12226 layer_factory.hpp:77] Creating layer pool3/3x3_s2_pool3/3x3_s2_0_split
I0403 15:41:15.469962 12226 net.cpp:91] Creating Layer pool3/3x3_s2_pool3/3x3_s2_0_split
I0403 15:41:15.469977 12226 net.cpp:425] pool3/3x3_s2_pool3/3x3_s2_0_split <- pool3/3x3_s2
I0403 15:41:15.469995 12226 net.cpp:399] pool3/3x3_s2_pool3/3x3_s2_0_split -> pool3/3x3_s2_pool3/3x3_s2_0_split_0
I0403 15:41:15.470016 12226 net.cpp:399] pool3/3x3_s2_pool3/3x3_s2_0_split -> pool3/3x3_s2_pool3/3x3_s2_0_split_1
I0403 15:41:15.470037 12226 net.cpp:399] pool3/3x3_s2_pool3/3x3_s2_0_split -> pool3/3x3_s2_pool3/3x3_s2_0_split_2
I0403 15:41:15.470058 12226 net.cpp:399] pool3/3x3_s2_pool3/3x3_s2_0_split -> pool3/3x3_s2_pool3/3x3_s2_0_split_3
I0403 15:41:15.470135 12226 net.cpp:141] Setting up pool3/3x3_s2_pool3/3x3_s2_0_split
I0403 15:41:15.470160 12226 net.cpp:148] Top shape: 24 480 14 14 (2257920)
I0403 15:41:15.470175 12226 net.cpp:148] Top shape: 24 480 14 14 (2257920)
I0403 15:41:15.470191 12226 net.cpp:148] Top shape: 24 480 14 14 (2257920)
I0403 15:41:15.470207 12226 net.cpp:148] Top shape: 24 480 14 14 (2257920)
I0403 15:41:15.470222 12226 net.cpp:156] Memory required for data: 854397984
I0403 15:41:15.470237 12226 layer_factory.hpp:77] Creating layer inception_4a/1x1
I0403 15:41:15.470259 12226 net.cpp:91] Creating Layer inception_4a/1x1
I0403 15:41:15.470278 12226 net.cpp:425] inception_4a/1x1 <- pool3/3x3_s2_pool3/3x3_s2_0_split_0
I0403 15:41:15.470296 12226 net.cpp:399] inception_4a/1x1 -> inception_4a/1x1
I0403 15:41:15.471936 12226 net.cpp:141] Setting up inception_4a/1x1
I0403 15:41:15.471964 12226 net.cpp:148] Top shape: 24 192 14 14 (903168)
I0403 15:41:15.471981 12226 net.cpp:156] Memory required for data: 858010656
I0403 15:41:15.471998 12226 layer_factory.hpp:77] Creating layer inception_4a/relu_1x1
I0403 15:41:15.472019 12226 net.cpp:91] Creating Layer inception_4a/relu_1x1
I0403 15:41:15.472036 12226 net.cpp:425] inception_4a/relu_1x1 <- inception_4a/1x1
I0403 15:41:15.472053 12226 net.cpp:386] inception_4a/relu_1x1 -> inception_4a/1x1 (in-place)
I0403 15:41:15.472239 12226 net.cpp:141] Setting up inception_4a/relu_1x1
I0403 15:41:15.472264 12226 net.cpp:148] Top shape: 24 192 14 14 (903168)
I0403 15:41:15.472278 12226 net.cpp:156] Memory required for data: 861623328
I0403 15:41:15.472292 12226 layer_factory.hpp:77] Creating layer inception_4a/3x3_reduce
I0403 15:41:15.472314 12226 net.cpp:91] Creating Layer inception_4a/3x3_reduce
I0403 15:41:15.472333 12226 net.cpp:425] inception_4a/3x3_reduce <- pool3/3x3_s2_pool3/3x3_s2_0_split_1
I0403 15:41:15.472355 12226 net.cpp:399] inception_4a/3x3_reduce -> inception_4a/3x3_reduce
I0403 15:41:15.473677 12226 net.cpp:141] Setting up inception_4a/3x3_reduce
I0403 15:41:15.473707 12226 net.cpp:148] Top shape: 24 96 14 14 (451584)
I0403 15:41:15.473724 12226 net.cpp:156] Memory required for data: 863429664
I0403 15:41:15.473747 12226 layer_factory.hpp:77] Creating layer inception_4a/relu_3x3_reduce
I0403 15:41:15.473769 12226 net.cpp:91] Creating Layer inception_4a/relu_3x3_reduce
I0403 15:41:15.473788 12226 net.cpp:425] inception_4a/relu_3x3_reduce <- inception_4a/3x3_reduce
I0403 15:41:15.473804 12226 net.cpp:386] inception_4a/relu_3x3_reduce -> inception_4a/3x3_reduce (in-place)
I0403 15:41:15.473989 12226 net.cpp:141] Setting up inception_4a/relu_3x3_reduce
I0403 15:41:15.474016 12226 net.cpp:148] Top shape: 24 96 14 14 (451584)
I0403 15:41:15.474031 12226 net.cpp:156] Memory required for data: 865236000
I0403 15:41:15.474046 12226 layer_factory.hpp:77] Creating layer inception_4a/3x3
I0403 15:41:15.474067 12226 net.cpp:91] Creating Layer inception_4a/3x3
I0403 15:41:15.474086 12226 net.cpp:425] inception_4a/3x3 <- inception_4a/3x3_reduce
I0403 15:41:15.474107 12226 net.cpp:399] inception_4a/3x3 -> inception_4a/3x3
I0403 15:41:15.477937 12226 net.cpp:141] Setting up inception_4a/3x3
I0403 15:41:15.477968 12226 net.cpp:148] Top shape: 24 208 14 14 (978432)
I0403 15:41:15.477985 12226 net.cpp:156] Memory required for data: 869149728
I0403 15:41:15.478003 12226 layer_factory.hpp:77] Creating layer inception_4a/relu_3x3
I0403 15:41:15.478023 12226 net.cpp:91] Creating Layer inception_4a/relu_3x3
I0403 15:41:15.478039 12226 net.cpp:425] inception_4a/relu_3x3 <- inception_4a/3x3
I0403 15:41:15.478058 12226 net.cpp:386] inception_4a/relu_3x3 -> inception_4a/3x3 (in-place)
I0403 15:41:15.478343 12226 net.cpp:141] Setting up inception_4a/relu_3x3
I0403 15:41:15.478371 12226 net.cpp:148] Top shape: 24 208 14 14 (978432)
I0403 15:41:15.478387 12226 net.cpp:156] Memory required for data: 873063456
I0403 15:41:15.478402 12226 layer_factory.hpp:77] Creating layer inception_4a/5x5_reduce
I0403 15:41:15.478431 12226 net.cpp:91] Creating Layer inception_4a/5x5_reduce
I0403 15:41:15.478448 12226 net.cpp:425] inception_4a/5x5_reduce <- pool3/3x3_s2_pool3/3x3_s2_0_split_2
I0403 15:41:15.478473 12226 net.cpp:399] inception_4a/5x5_reduce -> inception_4a/5x5_reduce
I0403 15:41:15.479507 12226 net.cpp:141] Setting up inception_4a/5x5_reduce
I0403 15:41:15.479535 12226 net.cpp:148] Top shape: 24 16 14 14 (75264)
I0403 15:41:15.479552 12226 net.cpp:156] Memory required for data: 873364512
I0403 15:41:15.479569 12226 layer_factory.hpp:77] Creating layer inception_4a/relu_5x5_reduce
I0403 15:41:15.479591 12226 net.cpp:91] Creating Layer inception_4a/relu_5x5_reduce
I0403 15:41:15.479609 12226 net.cpp:425] inception_4a/relu_5x5_reduce <- inception_4a/5x5_reduce
I0403 15:41:15.479625 12226 net.cpp:386] inception_4a/relu_5x5_reduce -> inception_4a/5x5_reduce (in-place)
I0403 15:41:15.479807 12226 net.cpp:141] Setting up inception_4a/relu_5x5_reduce
I0403 15:41:15.479832 12226 net.cpp:148] Top shape: 24 16 14 14 (75264)
I0403 15:41:15.479847 12226 net.cpp:156] Memory required for data: 873665568
I0403 15:41:15.479862 12226 layer_factory.hpp:77] Creating layer inception_4a/5x5
I0403 15:41:15.479884 12226 net.cpp:91] Creating Layer inception_4a/5x5
I0403 15:41:15.479902 12226 net.cpp:425] inception_4a/5x5 <- inception_4a/5x5_reduce
I0403 15:41:15.479923 12226 net.cpp:399] inception_4a/5x5 -> inception_4a/5x5
I0403 15:41:15.481021 12226 net.cpp:141] Setting up inception_4a/5x5
I0403 15:41:15.481050 12226 net.cpp:148] Top shape: 24 48 14 14 (225792)
I0403 15:41:15.481065 12226 net.cpp:156] Memory required for data: 874568736
I0403 15:41:15.481084 12226 layer_factory.hpp:77] Creating layer inception_4a/relu_5x5
I0403 15:41:15.481106 12226 net.cpp:91] Creating Layer inception_4a/relu_5x5
I0403 15:41:15.481122 12226 net.cpp:425] inception_4a/relu_5x5 <- inception_4a/5x5
I0403 15:41:15.481139 12226 net.cpp:386] inception_4a/relu_5x5 -> inception_4a/5x5 (in-place)
I0403 15:41:15.481323 12226 net.cpp:141] Setting up inception_4a/relu_5x5
I0403 15:41:15.481351 12226 net.cpp:148] Top shape: 24 48 14 14 (225792)
I0403 15:41:15.481367 12226 net.cpp:156] Memory required for data: 875471904
I0403 15:41:15.481381 12226 layer_factory.hpp:77] Creating layer inception_4a/pool
I0403 15:41:15.481400 12226 net.cpp:91] Creating Layer inception_4a/pool
I0403 15:41:15.481420 12226 net.cpp:425] inception_4a/pool <- pool3/3x3_s2_pool3/3x3_s2_0_split_3
I0403 15:41:15.481441 12226 net.cpp:399] inception_4a/pool -> inception_4a/pool
I0403 15:41:15.481503 12226 net.cpp:141] Setting up inception_4a/pool
I0403 15:41:15.481525 12226 net.cpp:148] Top shape: 24 480 14 14 (2257920)
I0403 15:41:15.481540 12226 net.cpp:156] Memory required for data: 884503584
I0403 15:41:15.481554 12226 layer_factory.hpp:77] Creating layer inception_4a/pool_proj
I0403 15:41:15.481576 12226 net.cpp:91] Creating Layer inception_4a/pool_proj
I0403 15:41:15.481595 12226 net.cpp:425] inception_4a/pool_proj <- inception_4a/pool
I0403 15:41:15.481614 12226 net.cpp:399] inception_4a/pool_proj -> inception_4a/pool_proj
I0403 15:41:15.482800 12226 net.cpp:141] Setting up inception_4a/pool_proj
I0403 15:41:15.482832 12226 net.cpp:148] Top shape: 24 64 14 14 (301056)
I0403 15:41:15.482866 12226 net.cpp:156] Memory required for data: 885707808
I0403 15:41:15.482885 12226 layer_factory.hpp:77] Creating layer inception_4a/relu_pool_proj
I0403 15:41:15.482905 12226 net.cpp:91] Creating Layer inception_4a/relu_pool_proj
I0403 15:41:15.482921 12226 net.cpp:425] inception_4a/relu_pool_proj <- inception_4a/pool_proj
I0403 15:41:15.482938 12226 net.cpp:386] inception_4a/relu_pool_proj -> inception_4a/pool_proj (in-place)
I0403 15:41:15.483224 12226 net.cpp:141] Setting up inception_4a/relu_pool_proj
I0403 15:41:15.483253 12226 net.cpp:148] Top shape: 24 64 14 14 (301056)
I0403 15:41:15.483269 12226 net.cpp:156] Memory required for data: 886912032
I0403 15:41:15.483285 12226 layer_factory.hpp:77] Creating layer inception_4a/output
I0403 15:41:15.483302 12226 net.cpp:91] Creating Layer inception_4a/output
I0403 15:41:15.483317 12226 net.cpp:425] inception_4a/output <- inception_4a/1x1
I0403 15:41:15.483333 12226 net.cpp:425] inception_4a/output <- inception_4a/3x3
I0403 15:41:15.483350 12226 net.cpp:425] inception_4a/output <- inception_4a/5x5
I0403 15:41:15.483366 12226 net.cpp:425] inception_4a/output <- inception_4a/pool_proj
I0403 15:41:15.483381 12226 net.cpp:399] inception_4a/output -> inception_4a/output
I0403 15:41:15.483431 12226 net.cpp:141] Setting up inception_4a/output
I0403 15:41:15.483455 12226 net.cpp:148] Top shape: 24 512 14 14 (2408448)
I0403 15:41:15.483470 12226 net.cpp:156] Memory required for data: 896545824
I0403 15:41:15.483485 12226 layer_factory.hpp:77] Creating layer inception_4a/output_inception_4a/output_0_split
I0403 15:41:15.483506 12226 net.cpp:91] Creating Layer inception_4a/output_inception_4a/output_0_split
I0403 15:41:15.483522 12226 net.cpp:425] inception_4a/output_inception_4a/output_0_split <- inception_4a/output
I0403 15:41:15.483539 12226 net.cpp:399] inception_4a/output_inception_4a/output_0_split -> inception_4a/output_inception_4a/output_0_split_0
I0403 15:41:15.483559 12226 net.cpp:399] inception_4a/output_inception_4a/output_0_split -> inception_4a/output_inception_4a/output_0_split_1
I0403 15:41:15.483580 12226 net.cpp:399] inception_4a/output_inception_4a/output_0_split -> inception_4a/output_inception_4a/output_0_split_2
I0403 15:41:15.483602 12226 net.cpp:399] inception_4a/output_inception_4a/output_0_split -> inception_4a/output_inception_4a/output_0_split_3
I0403 15:41:15.483623 12226 net.cpp:399] inception_4a/output_inception_4a/output_0_split -> inception_4a/output_inception_4a/output_0_split_4
I0403 15:41:15.483718 12226 net.cpp:141] Setting up inception_4a/output_inception_4a/output_0_split
I0403 15:41:15.483741 12226 net.cpp:148] Top shape: 24 512 14 14 (2408448)
I0403 15:41:15.483759 12226 net.cpp:148] Top shape: 24 512 14 14 (2408448)
I0403 15:41:15.483775 12226 net.cpp:148] Top shape: 24 512 14 14 (2408448)
I0403 15:41:15.483791 12226 net.cpp:148] Top shape: 24 512 14 14 (2408448)
I0403 15:41:15.483808 12226 net.cpp:148] Top shape: 24 512 14 14 (2408448)
I0403 15:41:15.483821 12226 net.cpp:156] Memory required for data: 944714784
I0403 15:41:15.483836 12226 layer_factory.hpp:77] Creating layer loss1/ave_pool
I0403 15:41:15.483853 12226 net.cpp:91] Creating Layer loss1/ave_pool
I0403 15:41:15.483870 12226 net.cpp:425] loss1/ave_pool <- inception_4a/output_inception_4a/output_0_split_0
I0403 15:41:15.483891 12226 net.cpp:399] loss1/ave_pool -> loss1/ave_pool
I0403 15:41:15.484102 12226 net.cpp:141] Setting up loss1/ave_pool
I0403 15:41:15.484130 12226 net.cpp:148] Top shape: 24 512 4 4 (196608)
I0403 15:41:15.484146 12226 net.cpp:156] Memory required for data: 945501216
I0403 15:41:15.484160 12226 layer_factory.hpp:77] Creating layer loss1/conv
I0403 15:41:15.484182 12226 net.cpp:91] Creating Layer loss1/conv
I0403 15:41:15.484200 12226 net.cpp:425] loss1/conv <- loss1/ave_pool
I0403 15:41:15.484217 12226 net.cpp:399] loss1/conv -> loss1/conv
I0403 15:41:15.485661 12226 net.cpp:141] Setting up loss1/conv
I0403 15:41:15.485690 12226 net.cpp:148] Top shape: 24 128 4 4 (49152)
I0403 15:41:15.485723 12226 net.cpp:156] Memory required for data: 945697824
I0403 15:41:15.485744 12226 layer_factory.hpp:77] Creating layer loss1/relu_conv
I0403 15:41:15.485764 12226 net.cpp:91] Creating Layer loss1/relu_conv
I0403 15:41:15.485780 12226 net.cpp:425] loss1/relu_conv <- loss1/conv
I0403 15:41:15.485801 12226 net.cpp:386] loss1/relu_conv -> loss1/conv (in-place)
I0403 15:41:15.486106 12226 net.cpp:141] Setting up loss1/relu_conv
I0403 15:41:15.486132 12226 net.cpp:148] Top shape: 24 128 4 4 (49152)
I0403 15:41:15.486147 12226 net.cpp:156] Memory required for data: 945894432
I0403 15:41:15.486162 12226 layer_factory.hpp:77] Creating layer loss1/fc
I0403 15:41:15.486186 12226 net.cpp:91] Creating Layer loss1/fc
I0403 15:41:15.486203 12226 net.cpp:425] loss1/fc <- loss1/conv
I0403 15:41:15.486225 12226 net.cpp:399] loss1/fc -> loss1/fc
I0403 15:41:15.503504 12226 net.cpp:141] Setting up loss1/fc
I0403 15:41:15.503540 12226 net.cpp:148] Top shape: 24 1024 (24576)
I0403 15:41:15.503554 12226 net.cpp:156] Memory required for data: 945992736
I0403 15:41:15.503573 12226 layer_factory.hpp:77] Creating layer loss1/relu_fc
I0403 15:41:15.503593 12226 net.cpp:91] Creating Layer loss1/relu_fc
I0403 15:41:15.503609 12226 net.cpp:425] loss1/relu_fc <- loss1/fc
I0403 15:41:15.503626 12226 net.cpp:386] loss1/relu_fc -> loss1/fc (in-place)
I0403 15:41:15.503810 12226 net.cpp:141] Setting up loss1/relu_fc
I0403 15:41:15.503834 12226 net.cpp:148] Top shape: 24 1024 (24576)
I0403 15:41:15.503849 12226 net.cpp:156] Memory required for data: 946091040
I0403 15:41:15.503864 12226 layer_factory.hpp:77] Creating layer loss1/drop_fc
I0403 15:41:15.503888 12226 net.cpp:91] Creating Layer loss1/drop_fc
I0403 15:41:15.503906 12226 net.cpp:425] loss1/drop_fc <- loss1/fc
I0403 15:41:15.503924 12226 net.cpp:386] loss1/drop_fc -> loss1/fc (in-place)
I0403 15:41:15.503974 12226 net.cpp:141] Setting up loss1/drop_fc
I0403 15:41:15.503998 12226 net.cpp:148] Top shape: 24 1024 (24576)
I0403 15:41:15.504011 12226 net.cpp:156] Memory required for data: 946189344
I0403 15:41:15.504026 12226 layer_factory.hpp:77] Creating layer loss1/classifier_plantvillage
I0403 15:41:15.504048 12226 net.cpp:91] Creating Layer loss1/classifier_plantvillage
I0403 15:41:15.504065 12226 net.cpp:425] loss1/classifier_plantvillage <- loss1/fc
I0403 15:41:15.504084 12226 net.cpp:399] loss1/classifier_plantvillage -> loss1/classifier_plantvillage
I0403 15:41:15.504971 12226 net.cpp:141] Setting up loss1/classifier_plantvillage
I0403 15:41:15.504999 12226 net.cpp:148] Top shape: 24 38 (912)
I0403 15:41:15.505017 12226 net.cpp:156] Memory required for data: 946192992
I0403 15:41:15.505033 12226 layer_factory.hpp:77] Creating layer loss1/classifier_plantvillage_loss1/classifier_plantvillage_0_split
I0403 15:41:15.505050 12226 net.cpp:91] Creating Layer loss1/classifier_plantvillage_loss1/classifier_plantvillage_0_split
I0403 15:41:15.505066 12226 net.cpp:425] loss1/classifier_plantvillage_loss1/classifier_plantvillage_0_split <- loss1/classifier_plantvillage
I0403 15:41:15.505084 12226 net.cpp:399] loss1/classifier_plantvillage_loss1/classifier_plantvillage_0_split -> loss1/classifier_plantvillage_loss1/classifier_plantvillage_0_split_0
I0403 15:41:15.505105 12226 net.cpp:399] loss1/classifier_plantvillage_loss1/classifier_plantvillage_0_split -> loss1/classifier_plantvillage_loss1/classifier_plantvillage_0_split_1
I0403 15:41:15.505125 12226 net.cpp:399] loss1/classifier_plantvillage_loss1/classifier_plantvillage_0_split -> loss1/classifier_plantvillage_loss1/classifier_plantvillage_0_split_2
I0403 15:41:15.505189 12226 net.cpp:141] Setting up loss1/classifier_plantvillage_loss1/classifier_plantvillage_0_split
I0403 15:41:15.505213 12226 net.cpp:148] Top shape: 24 38 (912)
I0403 15:41:15.505228 12226 net.cpp:148] Top shape: 24 38 (912)
I0403 15:41:15.505244 12226 net.cpp:148] Top shape: 24 38 (912)
I0403 15:41:15.505256 12226 net.cpp:156] Memory required for data: 946203936
I0403 15:41:15.505271 12226 layer_factory.hpp:77] Creating layer inception_4b/1x1
I0403 15:41:15.505293 12226 net.cpp:91] Creating Layer inception_4b/1x1
I0403 15:41:15.505324 12226 net.cpp:425] inception_4b/1x1 <- inception_4a/output_inception_4a/output_0_split_1
I0403 15:41:15.505343 12226 net.cpp:399] inception_4b/1x1 -> inception_4b/1x1
I0403 15:41:15.506984 12226 net.cpp:141] Setting up inception_4b/1x1
I0403 15:41:15.507012 12226 net.cpp:148] Top shape: 24 160 14 14 (752640)
I0403 15:41:15.507027 12226 net.cpp:156] Memory required for data: 949214496
I0403 15:41:15.507045 12226 layer_factory.hpp:77] Creating layer inception_4b/relu_1x1
I0403 15:41:15.507063 12226 net.cpp:91] Creating Layer inception_4b/relu_1x1
I0403 15:41:15.507083 12226 net.cpp:425] inception_4b/relu_1x1 <- inception_4b/1x1
I0403 15:41:15.507099 12226 net.cpp:386] inception_4b/relu_1x1 -> inception_4b/1x1 (in-place)
I0403 15:41:15.507278 12226 net.cpp:141] Setting up inception_4b/relu_1x1
I0403 15:41:15.507302 12226 net.cpp:148] Top shape: 24 160 14 14 (752640)
I0403 15:41:15.507318 12226 net.cpp:156] Memory required for data: 952225056
I0403 15:41:15.507331 12226 layer_factory.hpp:77] Creating layer inception_4b/3x3_reduce
I0403 15:41:15.507354 12226 net.cpp:91] Creating Layer inception_4b/3x3_reduce
I0403 15:41:15.507369 12226 net.cpp:425] inception_4b/3x3_reduce <- inception_4a/output_inception_4a/output_0_split_2
I0403 15:41:15.507390 12226 net.cpp:399] inception_4b/3x3_reduce -> inception_4b/3x3_reduce
I0403 15:41:15.508723 12226 net.cpp:141] Setting up inception_4b/3x3_reduce
I0403 15:41:15.508750 12226 net.cpp:148] Top shape: 24 112 14 14 (526848)
I0403 15:41:15.508766 12226 net.cpp:156] Memory required for data: 954332448
I0403 15:41:15.508785 12226 layer_factory.hpp:77] Creating layer inception_4b/relu_3x3_reduce
I0403 15:41:15.508805 12226 net.cpp:91] Creating Layer inception_4b/relu_3x3_reduce
I0403 15:41:15.508821 12226 net.cpp:425] inception_4b/relu_3x3_reduce <- inception_4b/3x3_reduce
I0403 15:41:15.508837 12226 net.cpp:386] inception_4b/relu_3x3_reduce -> inception_4b/3x3_reduce (in-place)
I0403 15:41:15.509121 12226 net.cpp:141] Setting up inception_4b/relu_3x3_reduce
I0403 15:41:15.509147 12226 net.cpp:148] Top shape: 24 112 14 14 (526848)
I0403 15:41:15.509162 12226 net.cpp:156] Memory required for data: 956439840
I0403 15:41:15.509176 12226 layer_factory.hpp:77] Creating layer inception_4b/3x3
I0403 15:41:15.509198 12226 net.cpp:91] Creating Layer inception_4b/3x3
I0403 15:41:15.509215 12226 net.cpp:425] inception_4b/3x3 <- inception_4b/3x3_reduce
I0403 15:41:15.509235 12226 net.cpp:399] inception_4b/3x3 -> inception_4b/3x3
I0403 15:41:15.512238 12226 net.cpp:141] Setting up inception_4b/3x3
I0403 15:41:15.512269 12226 net.cpp:148] Top shape: 24 224 14 14 (1053696)
I0403 15:41:15.512284 12226 net.cpp:156] Memory required for data: 960654624
I0403 15:41:15.512302 12226 layer_factory.hpp:77] Creating layer inception_4b/relu_3x3
I0403 15:41:15.512320 12226 net.cpp:91] Creating Layer inception_4b/relu_3x3
I0403 15:41:15.512336 12226 net.cpp:425] inception_4b/relu_3x3 <- inception_4b/3x3
I0403 15:41:15.512354 12226 net.cpp:386] inception_4b/relu_3x3 -> inception_4b/3x3 (in-place)
I0403 15:41:15.512549 12226 net.cpp:141] Setting up inception_4b/relu_3x3
I0403 15:41:15.512574 12226 net.cpp:148] Top shape: 24 224 14 14 (1053696)
I0403 15:41:15.512588 12226 net.cpp:156] Memory required for data: 964869408
I0403 15:41:15.512603 12226 layer_factory.hpp:77] Creating layer inception_4b/5x5_reduce
I0403 15:41:15.512624 12226 net.cpp:91] Creating Layer inception_4b/5x5_reduce
I0403 15:41:15.512641 12226 net.cpp:425] inception_4b/5x5_reduce <- inception_4a/output_inception_4a/output_0_split_3
I0403 15:41:15.512662 12226 net.cpp:399] inception_4b/5x5_reduce -> inception_4b/5x5_reduce
I0403 15:41:15.513736 12226 net.cpp:141] Setting up inception_4b/5x5_reduce
I0403 15:41:15.513764 12226 net.cpp:148] Top shape: 24 24 14 14 (112896)
I0403 15:41:15.513779 12226 net.cpp:156] Memory required for data: 965320992
I0403 15:41:15.513797 12226 layer_factory.hpp:77] Creating layer inception_4b/relu_5x5_reduce
I0403 15:41:15.513818 12226 net.cpp:91] Creating Layer inception_4b/relu_5x5_reduce
I0403 15:41:15.513847 12226 net.cpp:425] inception_4b/relu_5x5_reduce <- inception_4b/5x5_reduce
I0403 15:41:15.513864 12226 net.cpp:386] inception_4b/relu_5x5_reduce -> inception_4b/5x5_reduce (in-place)
I0403 15:41:15.514047 12226 net.cpp:141] Setting up inception_4b/relu_5x5_reduce
I0403 15:41:15.514072 12226 net.cpp:148] Top shape: 24 24 14 14 (112896)
I0403 15:41:15.514091 12226 net.cpp:156] Memory required for data: 965772576
I0403 15:41:15.514104 12226 layer_factory.hpp:77] Creating layer inception_4b/5x5
I0403 15:41:15.514123 12226 net.cpp:91] Creating Layer inception_4b/5x5
I0403 15:41:15.514140 12226 net.cpp:425] inception_4b/5x5 <- inception_4b/5x5_reduce
I0403 15:41:15.514160 12226 net.cpp:399] inception_4b/5x5 -> inception_4b/5x5
I0403 15:41:15.515369 12226 net.cpp:141] Setting up inception_4b/5x5
I0403 15:41:15.515396 12226 net.cpp:148] Top shape: 24 64 14 14 (301056)
I0403 15:41:15.515415 12226 net.cpp:156] Memory required for data: 966976800
I0403 15:41:15.515434 12226 layer_factory.hpp:77] Creating layer inception_4b/relu_5x5
I0403 15:41:15.515452 12226 net.cpp:91] Creating Layer inception_4b/relu_5x5
I0403 15:41:15.515472 12226 net.cpp:425] inception_4b/relu_5x5 <- inception_4b/5x5
I0403 15:41:15.515488 12226 net.cpp:386] inception_4b/relu_5x5 -> inception_4b/5x5 (in-place)
I0403 15:41:15.515770 12226 net.cpp:141] Setting up inception_4b/relu_5x5
I0403 15:41:15.515795 12226 net.cpp:148] Top shape: 24 64 14 14 (301056)
I0403 15:41:15.515811 12226 net.cpp:156] Memory required for data: 968181024
I0403 15:41:15.515826 12226 layer_factory.hpp:77] Creating layer inception_4b/pool
I0403 15:41:15.515843 12226 net.cpp:91] Creating Layer inception_4b/pool
I0403 15:41:15.515858 12226 net.cpp:425] inception_4b/pool <- inception_4a/output_inception_4a/output_0_split_4
I0403 15:41:15.515879 12226 net.cpp:399] inception_4b/pool -> inception_4b/pool
I0403 15:41:15.515940 12226 net.cpp:141] Setting up inception_4b/pool
I0403 15:41:15.515966 12226 net.cpp:148] Top shape: 24 512 14 14 (2408448)
I0403 15:41:15.515981 12226 net.cpp:156] Memory required for data: 977814816
I0403 15:41:15.515996 12226 layer_factory.hpp:77] Creating layer inception_4b/pool_proj
I0403 15:41:15.516017 12226 net.cpp:91] Creating Layer inception_4b/pool_proj
I0403 15:41:15.516034 12226 net.cpp:425] inception_4b/pool_proj <- inception_4b/pool
I0403 15:41:15.516052 12226 net.cpp:399] inception_4b/pool_proj -> inception_4b/pool_proj
I0403 15:41:15.517241 12226 net.cpp:141] Setting up inception_4b/pool_proj
I0403 15:41:15.517268 12226 net.cpp:148] Top shape: 24 64 14 14 (301056)
I0403 15:41:15.517283 12226 net.cpp:156] Memory required for data: 979019040
I0403 15:41:15.517302 12226 layer_factory.hpp:77] Creating layer inception_4b/relu_pool_proj
I0403 15:41:15.517320 12226 net.cpp:91] Creating Layer inception_4b/relu_pool_proj
I0403 15:41:15.517338 12226 net.cpp:425] inception_4b/relu_pool_proj <- inception_4b/pool_proj
I0403 15:41:15.517355 12226 net.cpp:386] inception_4b/relu_pool_proj -> inception_4b/pool_proj (in-place)
I0403 15:41:15.517540 12226 net.cpp:141] Setting up inception_4b/relu_pool_proj
I0403 15:41:15.517565 12226 net.cpp:148] Top shape: 24 64 14 14 (301056)
I0403 15:41:15.517580 12226 net.cpp:156] Memory required for data: 980223264
I0403 15:41:15.517595 12226 layer_factory.hpp:77] Creating layer inception_4b/output
I0403 15:41:15.517613 12226 net.cpp:91] Creating Layer inception_4b/output
I0403 15:41:15.517629 12226 net.cpp:425] inception_4b/output <- inception_4b/1x1
I0403 15:41:15.517644 12226 net.cpp:425] inception_4b/output <- inception_4b/3x3
I0403 15:41:15.517660 12226 net.cpp:425] inception_4b/output <- inception_4b/5x5
I0403 15:41:15.517675 12226 net.cpp:425] inception_4b/output <- inception_4b/pool_proj
I0403 15:41:15.517693 12226 net.cpp:399] inception_4b/output -> inception_4b/output
I0403 15:41:15.517737 12226 net.cpp:141] Setting up inception_4b/output
I0403 15:41:15.517760 12226 net.cpp:148] Top shape: 24 512 14 14 (2408448)
I0403 15:41:15.517774 12226 net.cpp:156] Memory required for data: 989857056
I0403 15:41:15.517802 12226 layer_factory.hpp:77] Creating layer inception_4b/output_inception_4b/output_0_split
I0403 15:41:15.517819 12226 net.cpp:91] Creating Layer inception_4b/output_inception_4b/output_0_split
I0403 15:41:15.517835 12226 net.cpp:425] inception_4b/output_inception_4b/output_0_split <- inception_4b/output
I0403 15:41:15.517854 12226 net.cpp:399] inception_4b/output_inception_4b/output_0_split -> inception_4b/output_inception_4b/output_0_split_0
I0403 15:41:15.517875 12226 net.cpp:399] inception_4b/output_inception_4b/output_0_split -> inception_4b/output_inception_4b/output_0_split_1
I0403 15:41:15.517895 12226 net.cpp:399] inception_4b/output_inception_4b/output_0_split -> inception_4b/output_inception_4b/output_0_split_2
I0403 15:41:15.517915 12226 net.cpp:399] inception_4b/output_inception_4b/output_0_split -> inception_4b/output_inception_4b/output_0_split_3
I0403 15:41:15.517998 12226 net.cpp:141] Setting up inception_4b/output_inception_4b/output_0_split
I0403 15:41:15.518024 12226 net.cpp:148] Top shape: 24 512 14 14 (2408448)
I0403 15:41:15.518041 12226 net.cpp:148] Top shape: 24 512 14 14 (2408448)
I0403 15:41:15.518056 12226 net.cpp:148] Top shape: 24 512 14 14 (2408448)
I0403 15:41:15.518071 12226 net.cpp:148] Top shape: 24 512 14 14 (2408448)
I0403 15:41:15.518085 12226 net.cpp:156] Memory required for data: 1028392224
I0403 15:41:15.518100 12226 layer_factory.hpp:77] Creating layer inception_4c/1x1
I0403 15:41:15.518121 12226 net.cpp:91] Creating Layer inception_4c/1x1
I0403 15:41:15.518138 12226 net.cpp:425] inception_4c/1x1 <- inception_4b/output_inception_4b/output_0_split_0
I0403 15:41:15.518157 12226 net.cpp:399] inception_4c/1x1 -> inception_4c/1x1
I0403 15:41:15.519619 12226 net.cpp:141] Setting up inception_4c/1x1
I0403 15:41:15.519649 12226 net.cpp:148] Top shape: 24 128 14 14 (602112)
I0403 15:41:15.519665 12226 net.cpp:156] Memory required for data: 1030800672
I0403 15:41:15.519682 12226 layer_factory.hpp:77] Creating layer inception_4c/relu_1x1
I0403 15:41:15.519706 12226 net.cpp:91] Creating Layer inception_4c/relu_1x1
I0403 15:41:15.519724 12226 net.cpp:425] inception_4c/relu_1x1 <- inception_4c/1x1
I0403 15:41:15.519740 12226 net.cpp:386] inception_4c/relu_1x1 -> inception_4c/1x1 (in-place)
I0403 15:41:15.519930 12226 net.cpp:141] Setting up inception_4c/relu_1x1
I0403 15:41:15.519955 12226 net.cpp:148] Top shape: 24 128 14 14 (602112)
I0403 15:41:15.519971 12226 net.cpp:156] Memory required for data: 1033209120
I0403 15:41:15.519985 12226 layer_factory.hpp:77] Creating layer inception_4c/3x3_reduce
I0403 15:41:15.520007 12226 net.cpp:91] Creating Layer inception_4c/3x3_reduce
I0403 15:41:15.520025 12226 net.cpp:425] inception_4c/3x3_reduce <- inception_4b/output_inception_4b/output_0_split_1
I0403 15:41:15.520045 12226 net.cpp:399] inception_4c/3x3_reduce -> inception_4c/3x3_reduce
I0403 15:41:15.522083 12226 net.cpp:141] Setting up inception_4c/3x3_reduce
I0403 15:41:15.522114 12226 net.cpp:148] Top shape: 24 128 14 14 (602112)
I0403 15:41:15.522131 12226 net.cpp:156] Memory required for data: 1035617568
I0403 15:41:15.522150 12226 layer_factory.hpp:77] Creating layer inception_4c/relu_3x3_reduce
I0403 15:41:15.522169 12226 net.cpp:91] Creating Layer inception_4c/relu_3x3_reduce
I0403 15:41:15.522186 12226 net.cpp:425] inception_4c/relu_3x3_reduce <- inception_4c/3x3_reduce
I0403 15:41:15.522205 12226 net.cpp:386] inception_4c/relu_3x3_reduce -> inception_4c/3x3_reduce (in-place)
I0403 15:41:15.522514 12226 net.cpp:141] Setting up inception_4c/relu_3x3_reduce
I0403 15:41:15.522541 12226 net.cpp:148] Top shape: 24 128 14 14 (602112)
I0403 15:41:15.522557 12226 net.cpp:156] Memory required for data: 1038026016
I0403 15:41:15.522575 12226 layer_factory.hpp:77] Creating layer inception_4c/3x3
I0403 15:41:15.522599 12226 net.cpp:91] Creating Layer inception_4c/3x3
I0403 15:41:15.522617 12226 net.cpp:425] inception_4c/3x3 <- inception_4c/3x3_reduce
I0403 15:41:15.522639 12226 net.cpp:399] inception_4c/3x3 -> inception_4c/3x3
I0403 15:41:15.526372 12226 net.cpp:141] Setting up inception_4c/3x3
I0403 15:41:15.526419 12226 net.cpp:148] Top shape: 24 256 14 14 (1204224)
I0403 15:41:15.526437 12226 net.cpp:156] Memory required for data: 1042842912
I0403 15:41:15.526471 12226 layer_factory.hpp:77] Creating layer inception_4c/relu_3x3
I0403 15:41:15.526495 12226 net.cpp:91] Creating Layer inception_4c/relu_3x3
I0403 15:41:15.526513 12226 net.cpp:425] inception_4c/relu_3x3 <- inception_4c/3x3
I0403 15:41:15.526531 12226 net.cpp:386] inception_4c/relu_3x3 -> inception_4c/3x3 (in-place)
I0403 15:41:15.526724 12226 net.cpp:141] Setting up inception_4c/relu_3x3
I0403 15:41:15.526751 12226 net.cpp:148] Top shape: 24 256 14 14 (1204224)
I0403 15:41:15.526767 12226 net.cpp:156] Memory required for data: 1047659808
I0403 15:41:15.526782 12226 layer_factory.hpp:77] Creating layer inception_4c/5x5_reduce
I0403 15:41:15.526805 12226 net.cpp:91] Creating Layer inception_4c/5x5_reduce
I0403 15:41:15.526823 12226 net.cpp:425] inception_4c/5x5_reduce <- inception_4b/output_inception_4b/output_0_split_2
I0403 15:41:15.526844 12226 net.cpp:399] inception_4c/5x5_reduce -> inception_4c/5x5_reduce
I0403 15:41:15.527987 12226 net.cpp:141] Setting up inception_4c/5x5_reduce
I0403 15:41:15.528017 12226 net.cpp:148] Top shape: 24 24 14 14 (112896)
I0403 15:41:15.528033 12226 net.cpp:156] Memory required for data: 1048111392
I0403 15:41:15.528051 12226 layer_factory.hpp:77] Creating layer inception_4c/relu_5x5_reduce
I0403 15:41:15.528071 12226 net.cpp:91] Creating Layer inception_4c/relu_5x5_reduce
I0403 15:41:15.528089 12226 net.cpp:425] inception_4c/relu_5x5_reduce <- inception_4c/5x5_reduce
I0403 15:41:15.528107 12226 net.cpp:386] inception_4c/relu_5x5_reduce -> inception_4c/5x5_reduce (in-place)
I0403 15:41:15.528309 12226 net.cpp:141] Setting up inception_4c/relu_5x5_reduce
I0403 15:41:15.528336 12226 net.cpp:148] Top shape: 24 24 14 14 (112896)
I0403 15:41:15.528352 12226 net.cpp:156] Memory required for data: 1048562976
I0403 15:41:15.528367 12226 layer_factory.hpp:77] Creating layer inception_4c/5x5
I0403 15:41:15.528389 12226 net.cpp:91] Creating Layer inception_4c/5x5
I0403 15:41:15.528408 12226 net.cpp:425] inception_4c/5x5 <- inception_4c/5x5_reduce
I0403 15:41:15.528434 12226 net.cpp:399] inception_4c/5x5 -> inception_4c/5x5
I0403 15:41:15.529769 12226 net.cpp:141] Setting up inception_4c/5x5
I0403 15:41:15.529798 12226 net.cpp:148] Top shape: 24 64 14 14 (301056)
I0403 15:41:15.529815 12226 net.cpp:156] Memory required for data: 1049767200
I0403 15:41:15.529834 12226 layer_factory.hpp:77] Creating layer inception_4c/relu_5x5
I0403 15:41:15.529855 12226 net.cpp:91] Creating Layer inception_4c/relu_5x5
I0403 15:41:15.529872 12226 net.cpp:425] inception_4c/relu_5x5 <- inception_4c/5x5
I0403 15:41:15.529891 12226 net.cpp:386] inception_4c/relu_5x5 -> inception_4c/5x5 (in-place)
I0403 15:41:15.530196 12226 net.cpp:141] Setting up inception_4c/relu_5x5
I0403 15:41:15.530225 12226 net.cpp:148] Top shape: 24 64 14 14 (301056)
I0403 15:41:15.530241 12226 net.cpp:156] Memory required for data: 1050971424
I0403 15:41:15.530256 12226 layer_factory.hpp:77] Creating layer inception_4c/pool
I0403 15:41:15.530275 12226 net.cpp:91] Creating Layer inception_4c/pool
I0403 15:41:15.530293 12226 net.cpp:425] inception_4c/pool <- inception_4b/output_inception_4b/output_0_split_3
I0403 15:41:15.530311 12226 net.cpp:399] inception_4c/pool -> inception_4c/pool
I0403 15:41:15.530381 12226 net.cpp:141] Setting up inception_4c/pool
I0403 15:41:15.530405 12226 net.cpp:148] Top shape: 24 512 14 14 (2408448)
I0403 15:41:15.530426 12226 net.cpp:156] Memory required for data: 1060605216
I0403 15:41:15.530442 12226 layer_factory.hpp:77] Creating layer inception_4c/pool_proj
I0403 15:41:15.530465 12226 net.cpp:91] Creating Layer inception_4c/pool_proj
I0403 15:41:15.530483 12226 net.cpp:425] inception_4c/pool_proj <- inception_4c/pool
I0403 15:41:15.530504 12226 net.cpp:399] inception_4c/pool_proj -> inception_4c/pool_proj
I0403 15:41:15.531803 12226 net.cpp:141] Setting up inception_4c/pool_proj
I0403 15:41:15.531832 12226 net.cpp:148] Top shape: 24 64 14 14 (301056)
I0403 15:41:15.531862 12226 net.cpp:156] Memory required for data: 1061809440
I0403 15:41:15.531883 12226 layer_factory.hpp:77] Creating layer inception_4c/relu_pool_proj
I0403 15:41:15.531905 12226 net.cpp:91] Creating Layer inception_4c/relu_pool_proj
I0403 15:41:15.531922 12226 net.cpp:425] inception_4c/relu_pool_proj <- inception_4c/pool_proj
I0403 15:41:15.531940 12226 net.cpp:386] inception_4c/relu_pool_proj -> inception_4c/pool_proj (in-place)
I0403 15:41:15.532137 12226 net.cpp:141] Setting up inception_4c/relu_pool_proj
I0403 15:41:15.532163 12226 net.cpp:148] Top shape: 24 64 14 14 (301056)
I0403 15:41:15.532178 12226 net.cpp:156] Memory required for data: 1063013664
I0403 15:41:15.532193 12226 layer_factory.hpp:77] Creating layer inception_4c/output
I0403 15:41:15.532212 12226 net.cpp:91] Creating Layer inception_4c/output
I0403 15:41:15.532229 12226 net.cpp:425] inception_4c/output <- inception_4c/1x1
I0403 15:41:15.532245 12226 net.cpp:425] inception_4c/output <- inception_4c/3x3
I0403 15:41:15.532263 12226 net.cpp:425] inception_4c/output <- inception_4c/5x5
I0403 15:41:15.532279 12226 net.cpp:425] inception_4c/output <- inception_4c/pool_proj
I0403 15:41:15.532295 12226 net.cpp:399] inception_4c/output -> inception_4c/output
I0403 15:41:15.532347 12226 net.cpp:141] Setting up inception_4c/output
I0403 15:41:15.532371 12226 net.cpp:148] Top shape: 24 512 14 14 (2408448)
I0403 15:41:15.532387 12226 net.cpp:156] Memory required for data: 1072647456
I0403 15:41:15.532402 12226 layer_factory.hpp:77] Creating layer inception_4c/output_inception_4c/output_0_split
I0403 15:41:15.532423 12226 net.cpp:91] Creating Layer inception_4c/output_inception_4c/output_0_split
I0403 15:41:15.532439 12226 net.cpp:425] inception_4c/output_inception_4c/output_0_split <- inception_4c/output
I0403 15:41:15.532460 12226 net.cpp:399] inception_4c/output_inception_4c/output_0_split -> inception_4c/output_inception_4c/output_0_split_0
I0403 15:41:15.532482 12226 net.cpp:399] inception_4c/output_inception_4c/output_0_split -> inception_4c/output_inception_4c/output_0_split_1
I0403 15:41:15.532503 12226 net.cpp:399] inception_4c/output_inception_4c/output_0_split -> inception_4c/output_inception_4c/output_0_split_2
I0403 15:41:15.532524 12226 net.cpp:399] inception_4c/output_inception_4c/output_0_split -> inception_4c/output_inception_4c/output_0_split_3
I0403 15:41:15.532615 12226 net.cpp:141] Setting up inception_4c/output_inception_4c/output_0_split
I0403 15:41:15.532644 12226 net.cpp:148] Top shape: 24 512 14 14 (2408448)
I0403 15:41:15.532662 12226 net.cpp:148] Top shape: 24 512 14 14 (2408448)
I0403 15:41:15.532680 12226 net.cpp:148] Top shape: 24 512 14 14 (2408448)
I0403 15:41:15.532696 12226 net.cpp:148] Top shape: 24 512 14 14 (2408448)
I0403 15:41:15.532711 12226 net.cpp:156] Memory required for data: 1111182624
I0403 15:41:15.532726 12226 layer_factory.hpp:77] Creating layer inception_4d/1x1
I0403 15:41:15.532747 12226 net.cpp:91] Creating Layer inception_4d/1x1
I0403 15:41:15.532765 12226 net.cpp:425] inception_4d/1x1 <- inception_4c/output_inception_4c/output_0_split_0
I0403 15:41:15.532784 12226 net.cpp:399] inception_4d/1x1 -> inception_4d/1x1
I0403 15:41:15.534260 12226 net.cpp:141] Setting up inception_4d/1x1
I0403 15:41:15.534291 12226 net.cpp:148] Top shape: 24 112 14 14 (526848)
I0403 15:41:15.534307 12226 net.cpp:156] Memory required for data: 1113290016
I0403 15:41:15.534327 12226 layer_factory.hpp:77] Creating layer inception_4d/relu_1x1
I0403 15:41:15.534345 12226 net.cpp:91] Creating Layer inception_4d/relu_1x1
I0403 15:41:15.534363 12226 net.cpp:425] inception_4d/relu_1x1 <- inception_4d/1x1
I0403 15:41:15.534382 12226 net.cpp:386] inception_4d/relu_1x1 -> inception_4d/1x1 (in-place)
I0403 15:41:15.534584 12226 net.cpp:141] Setting up inception_4d/relu_1x1
I0403 15:41:15.534610 12226 net.cpp:148] Top shape: 24 112 14 14 (526848)
I0403 15:41:15.534626 12226 net.cpp:156] Memory required for data: 1115397408
I0403 15:41:15.534641 12226 layer_factory.hpp:77] Creating layer inception_4d/3x3_reduce
I0403 15:41:15.534677 12226 net.cpp:91] Creating Layer inception_4d/3x3_reduce
I0403 15:41:15.534696 12226 net.cpp:425] inception_4d/3x3_reduce <- inception_4c/output_inception_4c/output_0_split_1
I0403 15:41:15.534718 12226 net.cpp:399] inception_4d/3x3_reduce -> inception_4d/3x3_reduce
I0403 15:41:15.536325 12226 net.cpp:141] Setting up inception_4d/3x3_reduce
I0403 15:41:15.536355 12226 net.cpp:148] Top shape: 24 144 14 14 (677376)
I0403 15:41:15.536373 12226 net.cpp:156] Memory required for data: 1118106912
I0403 15:41:15.536393 12226 layer_factory.hpp:77] Creating layer inception_4d/relu_3x3_reduce
I0403 15:41:15.536417 12226 net.cpp:91] Creating Layer inception_4d/relu_3x3_reduce
I0403 15:41:15.536435 12226 net.cpp:425] inception_4d/relu_3x3_reduce <- inception_4d/3x3_reduce
I0403 15:41:15.536453 12226 net.cpp:386] inception_4d/relu_3x3_reduce -> inception_4d/3x3_reduce (in-place)
I0403 15:41:15.536764 12226 net.cpp:141] Setting up inception_4d/relu_3x3_reduce
I0403 15:41:15.536794 12226 net.cpp:148] Top shape: 24 144 14 14 (677376)
I0403 15:41:15.536811 12226 net.cpp:156] Memory required for data: 1120816416
I0403 15:41:15.536828 12226 layer_factory.hpp:77] Creating layer inception_4d/3x3
I0403 15:41:15.536847 12226 net.cpp:91] Creating Layer inception_4d/3x3
I0403 15:41:15.536864 12226 net.cpp:425] inception_4d/3x3 <- inception_4d/3x3_reduce
I0403 15:41:15.536885 12226 net.cpp:399] inception_4d/3x3 -> inception_4d/3x3
I0403 15:41:15.541331 12226 net.cpp:141] Setting up inception_4d/3x3
I0403 15:41:15.541362 12226 net.cpp:148] Top shape: 24 288 14 14 (1354752)
I0403 15:41:15.541378 12226 net.cpp:156] Memory required for data: 1126235424
I0403 15:41:15.541396 12226 layer_factory.hpp:77] Creating layer inception_4d/relu_3x3
I0403 15:41:15.541419 12226 net.cpp:91] Creating Layer inception_4d/relu_3x3
I0403 15:41:15.541436 12226 net.cpp:425] inception_4d/relu_3x3 <- inception_4d/3x3
I0403 15:41:15.541456 12226 net.cpp:386] inception_4d/relu_3x3 -> inception_4d/3x3 (in-place)
I0403 15:41:15.541649 12226 net.cpp:141] Setting up inception_4d/relu_3x3
I0403 15:41:15.541674 12226 net.cpp:148] Top shape: 24 288 14 14 (1354752)
I0403 15:41:15.541689 12226 net.cpp:156] Memory required for data: 1131654432
I0403 15:41:15.541704 12226 layer_factory.hpp:77] Creating layer inception_4d/5x5_reduce
I0403 15:41:15.541726 12226 net.cpp:91] Creating Layer inception_4d/5x5_reduce
I0403 15:41:15.541744 12226 net.cpp:425] inception_4d/5x5_reduce <- inception_4c/output_inception_4c/output_0_split_2
I0403 15:41:15.541766 12226 net.cpp:399] inception_4d/5x5_reduce -> inception_4d/5x5_reduce
I0403 15:41:15.542954 12226 net.cpp:141] Setting up inception_4d/5x5_reduce
I0403 15:41:15.542985 12226 net.cpp:148] Top shape: 24 32 14 14 (150528)
I0403 15:41:15.543002 12226 net.cpp:156] Memory required for data: 1132256544
I0403 15:41:15.543020 12226 layer_factory.hpp:77] Creating layer inception_4d/relu_5x5_reduce
I0403 15:41:15.543040 12226 net.cpp:91] Creating Layer inception_4d/relu_5x5_reduce
I0403 15:41:15.543056 12226 net.cpp:425] inception_4d/relu_5x5_reduce <- inception_4d/5x5_reduce
I0403 15:41:15.543076 12226 net.cpp:386] inception_4d/relu_5x5_reduce -> inception_4d/5x5_reduce (in-place)
I0403 15:41:15.543270 12226 net.cpp:141] Setting up inception_4d/relu_5x5_reduce
I0403 15:41:15.543295 12226 net.cpp:148] Top shape: 24 32 14 14 (150528)
I0403 15:41:15.543311 12226 net.cpp:156] Memory required for data: 1132858656
I0403 15:41:15.543326 12226 layer_factory.hpp:77] Creating layer inception_4d/5x5
I0403 15:41:15.543349 12226 net.cpp:91] Creating Layer inception_4d/5x5
I0403 15:41:15.543366 12226 net.cpp:425] inception_4d/5x5 <- inception_4d/5x5_reduce
I0403 15:41:15.543387 12226 net.cpp:399] inception_4d/5x5 -> inception_4d/5x5
I0403 15:41:15.544911 12226 net.cpp:141] Setting up inception_4d/5x5
I0403 15:41:15.544940 12226 net.cpp:148] Top shape: 24 64 14 14 (301056)
I0403 15:41:15.544956 12226 net.cpp:156] Memory required for data: 1134062880
I0403 15:41:15.544975 12226 layer_factory.hpp:77] Creating layer inception_4d/relu_5x5
I0403 15:41:15.545011 12226 net.cpp:91] Creating Layer inception_4d/relu_5x5
I0403 15:41:15.545030 12226 net.cpp:425] inception_4d/relu_5x5 <- inception_4d/5x5
I0403 15:41:15.545047 12226 net.cpp:386] inception_4d/relu_5x5 -> inception_4d/5x5 (in-place)
I0403 15:41:15.545356 12226 net.cpp:141] Setting up inception_4d/relu_5x5
I0403 15:41:15.545382 12226 net.cpp:148] Top shape: 24 64 14 14 (301056)
I0403 15:41:15.545397 12226 net.cpp:156] Memory required for data: 1135267104
I0403 15:41:15.545415 12226 layer_factory.hpp:77] Creating layer inception_4d/pool
I0403 15:41:15.545438 12226 net.cpp:91] Creating Layer inception_4d/pool
I0403 15:41:15.545454 12226 net.cpp:425] inception_4d/pool <- inception_4c/output_inception_4c/output_0_split_3
I0403 15:41:15.545472 12226 net.cpp:399] inception_4d/pool -> inception_4d/pool
I0403 15:41:15.545542 12226 net.cpp:141] Setting up inception_4d/pool
I0403 15:41:15.545567 12226 net.cpp:148] Top shape: 24 512 14 14 (2408448)
I0403 15:41:15.545583 12226 net.cpp:156] Memory required for data: 1144900896
I0403 15:41:15.545598 12226 layer_factory.hpp:77] Creating layer inception_4d/pool_proj
I0403 15:41:15.545619 12226 net.cpp:91] Creating Layer inception_4d/pool_proj
I0403 15:41:15.545636 12226 net.cpp:425] inception_4d/pool_proj <- inception_4d/pool
I0403 15:41:15.545657 12226 net.cpp:399] inception_4d/pool_proj -> inception_4d/pool_proj
I0403 15:41:15.547457 12226 net.cpp:141] Setting up inception_4d/pool_proj
I0403 15:41:15.547487 12226 net.cpp:148] Top shape: 24 64 14 14 (301056)
I0403 15:41:15.547502 12226 net.cpp:156] Memory required for data: 1146105120
I0403 15:41:15.547520 12226 layer_factory.hpp:77] Creating layer inception_4d/relu_pool_proj
I0403 15:41:15.547539 12226 net.cpp:91] Creating Layer inception_4d/relu_pool_proj
I0403 15:41:15.547555 12226 net.cpp:425] inception_4d/relu_pool_proj <- inception_4d/pool_proj
I0403 15:41:15.547576 12226 net.cpp:386] inception_4d/relu_pool_proj -> inception_4d/pool_proj (in-place)
I0403 15:41:15.547770 12226 net.cpp:141] Setting up inception_4d/relu_pool_proj
I0403 15:41:15.547796 12226 net.cpp:148] Top shape: 24 64 14 14 (301056)
I0403 15:41:15.547811 12226 net.cpp:156] Memory required for data: 1147309344
I0403 15:41:15.547826 12226 layer_factory.hpp:77] Creating layer inception_4d/output
I0403 15:41:15.547842 12226 net.cpp:91] Creating Layer inception_4d/output
I0403 15:41:15.547857 12226 net.cpp:425] inception_4d/output <- inception_4d/1x1
I0403 15:41:15.547875 12226 net.cpp:425] inception_4d/output <- inception_4d/3x3
I0403 15:41:15.547893 12226 net.cpp:425] inception_4d/output <- inception_4d/5x5
I0403 15:41:15.547909 12226 net.cpp:425] inception_4d/output <- inception_4d/pool_proj
I0403 15:41:15.547926 12226 net.cpp:399] inception_4d/output -> inception_4d/output
I0403 15:41:15.547974 12226 net.cpp:141] Setting up inception_4d/output
I0403 15:41:15.548001 12226 net.cpp:148] Top shape: 24 528 14 14 (2483712)
I0403 15:41:15.548017 12226 net.cpp:156] Memory required for data: 1157244192
I0403 15:41:15.548032 12226 layer_factory.hpp:77] Creating layer inception_4d/output_inception_4d/output_0_split
I0403 15:41:15.548048 12226 net.cpp:91] Creating Layer inception_4d/output_inception_4d/output_0_split
I0403 15:41:15.548064 12226 net.cpp:425] inception_4d/output_inception_4d/output_0_split <- inception_4d/output
I0403 15:41:15.548084 12226 net.cpp:399] inception_4d/output_inception_4d/output_0_split -> inception_4d/output_inception_4d/output_0_split_0
I0403 15:41:15.548105 12226 net.cpp:399] inception_4d/output_inception_4d/output_0_split -> inception_4d/output_inception_4d/output_0_split_1
I0403 15:41:15.548127 12226 net.cpp:399] inception_4d/output_inception_4d/output_0_split -> inception_4d/output_inception_4d/output_0_split_2
I0403 15:41:15.548148 12226 net.cpp:399] inception_4d/output_inception_4d/output_0_split -> inception_4d/output_inception_4d/output_0_split_3
I0403 15:41:15.548168 12226 net.cpp:399] inception_4d/output_inception_4d/output_0_split -> inception_4d/output_inception_4d/output_0_split_4
I0403 15:41:15.548272 12226 net.cpp:141] Setting up inception_4d/output_inception_4d/output_0_split
I0403 15:41:15.548308 12226 net.cpp:148] Top shape: 24 528 14 14 (2483712)
I0403 15:41:15.548328 12226 net.cpp:148] Top shape: 24 528 14 14 (2483712)
I0403 15:41:15.548346 12226 net.cpp:148] Top shape: 24 528 14 14 (2483712)
I0403 15:41:15.548362 12226 net.cpp:148] Top shape: 24 528 14 14 (2483712)
I0403 15:41:15.548377 12226 net.cpp:148] Top shape: 24 528 14 14 (2483712)
I0403 15:41:15.548393 12226 net.cpp:156] Memory required for data: 1206918432
I0403 15:41:15.548406 12226 layer_factory.hpp:77] Creating layer loss2/ave_pool
I0403 15:41:15.548429 12226 net.cpp:91] Creating Layer loss2/ave_pool
I0403 15:41:15.548446 12226 net.cpp:425] loss2/ave_pool <- inception_4d/output_inception_4d/output_0_split_0
I0403 15:41:15.548467 12226 net.cpp:399] loss2/ave_pool -> loss2/ave_pool
I0403 15:41:15.548799 12226 net.cpp:141] Setting up loss2/ave_pool
I0403 15:41:15.548825 12226 net.cpp:148] Top shape: 24 528 4 4 (202752)
I0403 15:41:15.548840 12226 net.cpp:156] Memory required for data: 1207729440
I0403 15:41:15.548856 12226 layer_factory.hpp:77] Creating layer loss2/conv
I0403 15:41:15.548878 12226 net.cpp:91] Creating Layer loss2/conv
I0403 15:41:15.548897 12226 net.cpp:425] loss2/conv <- loss2/ave_pool
I0403 15:41:15.548918 12226 net.cpp:399] loss2/conv -> loss2/conv
I0403 15:41:15.550859 12226 net.cpp:141] Setting up loss2/conv
I0403 15:41:15.550887 12226 net.cpp:148] Top shape: 24 128 4 4 (49152)
I0403 15:41:15.550904 12226 net.cpp:156] Memory required for data: 1207926048
I0403 15:41:15.550922 12226 layer_factory.hpp:77] Creating layer loss2/relu_conv
I0403 15:41:15.550943 12226 net.cpp:91] Creating Layer loss2/relu_conv
I0403 15:41:15.550961 12226 net.cpp:425] loss2/relu_conv <- loss2/conv
I0403 15:41:15.550978 12226 net.cpp:386] loss2/relu_conv -> loss2/conv (in-place)
I0403 15:41:15.551275 12226 net.cpp:141] Setting up loss2/relu_conv
I0403 15:41:15.551302 12226 net.cpp:148] Top shape: 24 128 4 4 (49152)
I0403 15:41:15.551317 12226 net.cpp:156] Memory required for data: 1208122656
I0403 15:41:15.551332 12226 layer_factory.hpp:77] Creating layer loss2/fc
I0403 15:41:15.551354 12226 net.cpp:91] Creating Layer loss2/fc
I0403 15:41:15.551372 12226 net.cpp:425] loss2/fc <- loss2/conv
I0403 15:41:15.551389 12226 net.cpp:399] loss2/fc -> loss2/fc
I0403 15:41:15.568768 12226 net.cpp:141] Setting up loss2/fc
I0403 15:41:15.568799 12226 net.cpp:148] Top shape: 24 1024 (24576)
I0403 15:41:15.568814 12226 net.cpp:156] Memory required for data: 1208220960
I0403 15:41:15.568833 12226 layer_factory.hpp:77] Creating layer loss2/relu_fc
I0403 15:41:15.568852 12226 net.cpp:91] Creating Layer loss2/relu_fc
I0403 15:41:15.568868 12226 net.cpp:425] loss2/relu_fc <- loss2/fc
I0403 15:41:15.568888 12226 net.cpp:386] loss2/relu_fc -> loss2/fc (in-place)
I0403 15:41:15.569205 12226 net.cpp:141] Setting up loss2/relu_fc
I0403 15:41:15.569231 12226 net.cpp:148] Top shape: 24 1024 (24576)
I0403 15:41:15.569244 12226 net.cpp:156] Memory required for data: 1208319264
I0403 15:41:15.569259 12226 layer_factory.hpp:77] Creating layer loss2/drop_fc
I0403 15:41:15.569278 12226 net.cpp:91] Creating Layer loss2/drop_fc
I0403 15:41:15.569293 12226 net.cpp:425] loss2/drop_fc <- loss2/fc
I0403 15:41:15.569313 12226 net.cpp:386] loss2/drop_fc -> loss2/fc (in-place)
I0403 15:41:15.569362 12226 net.cpp:141] Setting up loss2/drop_fc
I0403 15:41:15.569385 12226 net.cpp:148] Top shape: 24 1024 (24576)
I0403 15:41:15.569399 12226 net.cpp:156] Memory required for data: 1208417568
I0403 15:41:15.569417 12226 layer_factory.hpp:77] Creating layer loss2/classifier_plantvillage
I0403 15:41:15.569440 12226 net.cpp:91] Creating Layer loss2/classifier_plantvillage
I0403 15:41:15.569458 12226 net.cpp:425] loss2/classifier_plantvillage <- loss2/fc
I0403 15:41:15.569476 12226 net.cpp:399] loss2/classifier_plantvillage -> loss2/classifier_plantvillage
I0403 15:41:15.569874 12226 net.cpp:141] Setting up loss2/classifier_plantvillage
I0403 15:41:15.569900 12226 net.cpp:148] Top shape: 24 38 (912)
I0403 15:41:15.569934 12226 net.cpp:156] Memory required for data: 1208421216
I0403 15:41:15.569954 12226 layer_factory.hpp:77] Creating layer loss2/classifier_plantvillage_loss2/classifier_plantvillage_0_split
I0403 15:41:15.569972 12226 net.cpp:91] Creating Layer loss2/classifier_plantvillage_loss2/classifier_plantvillage_0_split
I0403 15:41:15.569988 12226 net.cpp:425] loss2/classifier_plantvillage_loss2/classifier_plantvillage_0_split <- loss2/classifier_plantvillage
I0403 15:41:15.570005 12226 net.cpp:399] loss2/classifier_plantvillage_loss2/classifier_plantvillage_0_split -> loss2/classifier_plantvillage_loss2/classifier_plantvillage_0_split_0
I0403 15:41:15.570024 12226 net.cpp:399] loss2/classifier_plantvillage_loss2/classifier_plantvillage_0_split -> loss2/classifier_plantvillage_loss2/classifier_plantvillage_0_split_1
I0403 15:41:15.570045 12226 net.cpp:399] loss2/classifier_plantvillage_loss2/classifier_plantvillage_0_split -> loss2/classifier_plantvillage_loss2/classifier_plantvillage_0_split_2
I0403 15:41:15.570122 12226 net.cpp:141] Setting up loss2/classifier_plantvillage_loss2/classifier_plantvillage_0_split
I0403 15:41:15.570145 12226 net.cpp:148] Top shape: 24 38 (912)
I0403 15:41:15.570161 12226 net.cpp:148] Top shape: 24 38 (912)
I0403 15:41:15.570176 12226 net.cpp:148] Top shape: 24 38 (912)
I0403 15:41:15.570190 12226 net.cpp:156] Memory required for data: 1208432160
I0403 15:41:15.570204 12226 layer_factory.hpp:77] Creating layer inception_4e/1x1
I0403 15:41:15.570225 12226 net.cpp:91] Creating Layer inception_4e/1x1
I0403 15:41:15.570241 12226 net.cpp:425] inception_4e/1x1 <- inception_4d/output_inception_4d/output_0_split_1
I0403 15:41:15.570261 12226 net.cpp:399] inception_4e/1x1 -> inception_4e/1x1
I0403 15:41:15.572078 12226 net.cpp:141] Setting up inception_4e/1x1
I0403 15:41:15.572108 12226 net.cpp:148] Top shape: 24 256 14 14 (1204224)
I0403 15:41:15.572123 12226 net.cpp:156] Memory required for data: 1213249056
I0403 15:41:15.572140 12226 layer_factory.hpp:77] Creating layer inception_4e/relu_1x1
I0403 15:41:15.572161 12226 net.cpp:91] Creating Layer inception_4e/relu_1x1
I0403 15:41:15.572178 12226 net.cpp:425] inception_4e/relu_1x1 <- inception_4e/1x1
I0403 15:41:15.572196 12226 net.cpp:386] inception_4e/relu_1x1 -> inception_4e/1x1 (in-place)
I0403 15:41:15.572496 12226 net.cpp:141] Setting up inception_4e/relu_1x1
I0403 15:41:15.572522 12226 net.cpp:148] Top shape: 24 256 14 14 (1204224)
I0403 15:41:15.572537 12226 net.cpp:156] Memory required for data: 1218065952
I0403 15:41:15.572552 12226 layer_factory.hpp:77] Creating layer inception_4e/3x3_reduce
I0403 15:41:15.572573 12226 net.cpp:91] Creating Layer inception_4e/3x3_reduce
I0403 15:41:15.572592 12226 net.cpp:425] inception_4e/3x3_reduce <- inception_4d/output_inception_4d/output_0_split_2
I0403 15:41:15.572612 12226 net.cpp:399] inception_4e/3x3_reduce -> inception_4e/3x3_reduce
I0403 15:41:15.574792 12226 net.cpp:141] Setting up inception_4e/3x3_reduce
I0403 15:41:15.574822 12226 net.cpp:148] Top shape: 24 160 14 14 (752640)
I0403 15:41:15.574838 12226 net.cpp:156] Memory required for data: 1221076512
I0403 15:41:15.574857 12226 layer_factory.hpp:77] Creating layer inception_4e/relu_3x3_reduce
I0403 15:41:15.574879 12226 net.cpp:91] Creating Layer inception_4e/relu_3x3_reduce
I0403 15:41:15.574897 12226 net.cpp:425] inception_4e/relu_3x3_reduce <- inception_4e/3x3_reduce
I0403 15:41:15.574913 12226 net.cpp:386] inception_4e/relu_3x3_reduce -> inception_4e/3x3_reduce (in-place)
I0403 15:41:15.575110 12226 net.cpp:141] Setting up inception_4e/relu_3x3_reduce
I0403 15:41:15.575135 12226 net.cpp:148] Top shape: 24 160 14 14 (752640)
I0403 15:41:15.575150 12226 net.cpp:156] Memory required for data: 1224087072
I0403 15:41:15.575165 12226 layer_factory.hpp:77] Creating layer inception_4e/3x3
I0403 15:41:15.575188 12226 net.cpp:91] Creating Layer inception_4e/3x3
I0403 15:41:15.575206 12226 net.cpp:425] inception_4e/3x3 <- inception_4e/3x3_reduce
I0403 15:41:15.575224 12226 net.cpp:399] inception_4e/3x3 -> inception_4e/3x3
I0403 15:41:15.580265 12226 net.cpp:141] Setting up inception_4e/3x3
I0403 15:41:15.580307 12226 net.cpp:148] Top shape: 24 320 14 14 (1505280)
I0403 15:41:15.580323 12226 net.cpp:156] Memory required for data: 1230108192
I0403 15:41:15.580343 12226 layer_factory.hpp:77] Creating layer inception_4e/relu_3x3
I0403 15:41:15.580363 12226 net.cpp:91] Creating Layer inception_4e/relu_3x3
I0403 15:41:15.580380 12226 net.cpp:425] inception_4e/relu_3x3 <- inception_4e/3x3
I0403 15:41:15.580399 12226 net.cpp:386] inception_4e/relu_3x3 -> inception_4e/3x3 (in-place)
I0403 15:41:15.580713 12226 net.cpp:141] Setting up inception_4e/relu_3x3
I0403 15:41:15.580741 12226 net.cpp:148] Top shape: 24 320 14 14 (1505280)
I0403 15:41:15.580759 12226 net.cpp:156] Memory required for data: 1236129312
I0403 15:41:15.580773 12226 layer_factory.hpp:77] Creating layer inception_4e/5x5_reduce
I0403 15:41:15.580796 12226 net.cpp:91] Creating Layer inception_4e/5x5_reduce
I0403 15:41:15.580814 12226 net.cpp:425] inception_4e/5x5_reduce <- inception_4d/output_inception_4d/output_0_split_3
I0403 15:41:15.580833 12226 net.cpp:399] inception_4e/5x5_reduce -> inception_4e/5x5_reduce
I0403 15:41:15.581946 12226 net.cpp:141] Setting up inception_4e/5x5_reduce
I0403 15:41:15.581974 12226 net.cpp:148] Top shape: 24 32 14 14 (150528)
I0403 15:41:15.581990 12226 net.cpp:156] Memory required for data: 1236731424
I0403 15:41:15.582008 12226 layer_factory.hpp:77] Creating layer inception_4e/relu_5x5_reduce
I0403 15:41:15.582029 12226 net.cpp:91] Creating Layer inception_4e/relu_5x5_reduce
I0403 15:41:15.582046 12226 net.cpp:425] inception_4e/relu_5x5_reduce <- inception_4e/5x5_reduce
I0403 15:41:15.582063 12226 net.cpp:386] inception_4e/relu_5x5_reduce -> inception_4e/5x5_reduce (in-place)
I0403 15:41:15.582370 12226 net.cpp:141] Setting up inception_4e/relu_5x5_reduce
I0403 15:41:15.582396 12226 net.cpp:148] Top shape: 24 32 14 14 (150528)
I0403 15:41:15.582415 12226 net.cpp:156] Memory required for data: 1237333536
I0403 15:41:15.582430 12226 layer_factory.hpp:77] Creating layer inception_4e/5x5
I0403 15:41:15.582468 12226 net.cpp:91] Creating Layer inception_4e/5x5
I0403 15:41:15.582489 12226 net.cpp:425] inception_4e/5x5 <- inception_4e/5x5_reduce
I0403 15:41:15.582507 12226 net.cpp:399] inception_4e/5x5 -> inception_4e/5x5
I0403 15:41:15.584400 12226 net.cpp:141] Setting up inception_4e/5x5
I0403 15:41:15.584432 12226 net.cpp:148] Top shape: 24 128 14 14 (602112)
I0403 15:41:15.584450 12226 net.cpp:156] Memory required for data: 1239741984
I0403 15:41:15.584468 12226 layer_factory.hpp:77] Creating layer inception_4e/relu_5x5
I0403 15:41:15.584487 12226 net.cpp:91] Creating Layer inception_4e/relu_5x5
I0403 15:41:15.584503 12226 net.cpp:425] inception_4e/relu_5x5 <- inception_4e/5x5
I0403 15:41:15.584523 12226 net.cpp:386] inception_4e/relu_5x5 -> inception_4e/5x5 (in-place)
I0403 15:41:15.584731 12226 net.cpp:141] Setting up inception_4e/relu_5x5
I0403 15:41:15.584756 12226 net.cpp:148] Top shape: 24 128 14 14 (602112)
I0403 15:41:15.584772 12226 net.cpp:156] Memory required for data: 1242150432
I0403 15:41:15.584786 12226 layer_factory.hpp:77] Creating layer inception_4e/pool
I0403 15:41:15.584807 12226 net.cpp:91] Creating Layer inception_4e/pool
I0403 15:41:15.584825 12226 net.cpp:425] inception_4e/pool <- inception_4d/output_inception_4d/output_0_split_4
I0403 15:41:15.584842 12226 net.cpp:399] inception_4e/pool -> inception_4e/pool
I0403 15:41:15.584914 12226 net.cpp:141] Setting up inception_4e/pool
I0403 15:41:15.584939 12226 net.cpp:148] Top shape: 24 528 14 14 (2483712)
I0403 15:41:15.584954 12226 net.cpp:156] Memory required for data: 1252085280
I0403 15:41:15.584967 12226 layer_factory.hpp:77] Creating layer inception_4e/pool_proj
I0403 15:41:15.584990 12226 net.cpp:91] Creating Layer inception_4e/pool_proj
I0403 15:41:15.585007 12226 net.cpp:425] inception_4e/pool_proj <- inception_4e/pool
I0403 15:41:15.585027 12226 net.cpp:399] inception_4e/pool_proj -> inception_4e/pool_proj
I0403 15:41:15.586575 12226 net.cpp:141] Setting up inception_4e/pool_proj
I0403 15:41:15.586614 12226 net.cpp:148] Top shape: 24 128 14 14 (602112)
I0403 15:41:15.586630 12226 net.cpp:156] Memory required for data: 1254493728
I0403 15:41:15.586661 12226 layer_factory.hpp:77] Creating layer inception_4e/relu_pool_proj
I0403 15:41:15.586680 12226 net.cpp:91] Creating Layer inception_4e/relu_pool_proj
I0403 15:41:15.586697 12226 net.cpp:425] inception_4e/relu_pool_proj <- inception_4e/pool_proj
I0403 15:41:15.586725 12226 net.cpp:386] inception_4e/relu_pool_proj -> inception_4e/pool_proj (in-place)
I0403 15:41:15.587040 12226 net.cpp:141] Setting up inception_4e/relu_pool_proj
I0403 15:41:15.587080 12226 net.cpp:148] Top shape: 24 128 14 14 (602112)
I0403 15:41:15.587096 12226 net.cpp:156] Memory required for data: 1256902176
I0403 15:41:15.587111 12226 layer_factory.hpp:77] Creating layer inception_4e/output
I0403 15:41:15.587128 12226 net.cpp:91] Creating Layer inception_4e/output
I0403 15:41:15.587143 12226 net.cpp:425] inception_4e/output <- inception_4e/1x1
I0403 15:41:15.587159 12226 net.cpp:425] inception_4e/output <- inception_4e/3x3
I0403 15:41:15.587175 12226 net.cpp:425] inception_4e/output <- inception_4e/5x5
I0403 15:41:15.587191 12226 net.cpp:425] inception_4e/output <- inception_4e/pool_proj
I0403 15:41:15.587211 12226 net.cpp:399] inception_4e/output -> inception_4e/output
I0403 15:41:15.587261 12226 net.cpp:141] Setting up inception_4e/output
I0403 15:41:15.587287 12226 net.cpp:148] Top shape: 24 832 14 14 (3913728)
I0403 15:41:15.587303 12226 net.cpp:156] Memory required for data: 1272557088
I0403 15:41:15.587318 12226 layer_factory.hpp:77] Creating layer pool4/3x3_s2
I0403 15:41:15.587335 12226 net.cpp:91] Creating Layer pool4/3x3_s2
I0403 15:41:15.587352 12226 net.cpp:425] pool4/3x3_s2 <- inception_4e/output
I0403 15:41:15.587368 12226 net.cpp:399] pool4/3x3_s2 -> pool4/3x3_s2
I0403 15:41:15.587443 12226 net.cpp:141] Setting up pool4/3x3_s2
I0403 15:41:15.587467 12226 net.cpp:148] Top shape: 24 832 7 7 (978432)
I0403 15:41:15.587482 12226 net.cpp:156] Memory required for data: 1276470816
I0403 15:41:15.587497 12226 layer_factory.hpp:77] Creating layer pool4/3x3_s2_pool4/3x3_s2_0_split
I0403 15:41:15.587514 12226 net.cpp:91] Creating Layer pool4/3x3_s2_pool4/3x3_s2_0_split
I0403 15:41:15.587529 12226 net.cpp:425] pool4/3x3_s2_pool4/3x3_s2_0_split <- pool4/3x3_s2
I0403 15:41:15.587548 12226 net.cpp:399] pool4/3x3_s2_pool4/3x3_s2_0_split -> pool4/3x3_s2_pool4/3x3_s2_0_split_0
I0403 15:41:15.587569 12226 net.cpp:399] pool4/3x3_s2_pool4/3x3_s2_0_split -> pool4/3x3_s2_pool4/3x3_s2_0_split_1
I0403 15:41:15.587590 12226 net.cpp:399] pool4/3x3_s2_pool4/3x3_s2_0_split -> pool4/3x3_s2_pool4/3x3_s2_0_split_2
I0403 15:41:15.587610 12226 net.cpp:399] pool4/3x3_s2_pool4/3x3_s2_0_split -> pool4/3x3_s2_pool4/3x3_s2_0_split_3
I0403 15:41:15.587707 12226 net.cpp:141] Setting up pool4/3x3_s2_pool4/3x3_s2_0_split
I0403 15:41:15.587730 12226 net.cpp:148] Top shape: 24 832 7 7 (978432)
I0403 15:41:15.587748 12226 net.cpp:148] Top shape: 24 832 7 7 (978432)
I0403 15:41:15.587762 12226 net.cpp:148] Top shape: 24 832 7 7 (978432)
I0403 15:41:15.587779 12226 net.cpp:148] Top shape: 24 832 7 7 (978432)
I0403 15:41:15.587791 12226 net.cpp:156] Memory required for data: 1292125728
I0403 15:41:15.587806 12226 layer_factory.hpp:77] Creating layer inception_5a/1x1
I0403 15:41:15.587831 12226 net.cpp:91] Creating Layer inception_5a/1x1
I0403 15:41:15.587848 12226 net.cpp:425] inception_5a/1x1 <- pool4/3x3_s2_pool4/3x3_s2_0_split_0
I0403 15:41:15.587869 12226 net.cpp:399] inception_5a/1x1 -> inception_5a/1x1
I0403 15:41:15.590759 12226 net.cpp:141] Setting up inception_5a/1x1
I0403 15:41:15.590788 12226 net.cpp:148] Top shape: 24 256 7 7 (301056)
I0403 15:41:15.590806 12226 net.cpp:156] Memory required for data: 1293329952
I0403 15:41:15.590823 12226 layer_factory.hpp:77] Creating layer inception_5a/relu_1x1
I0403 15:41:15.590845 12226 net.cpp:91] Creating Layer inception_5a/relu_1x1
I0403 15:41:15.590862 12226 net.cpp:425] inception_5a/relu_1x1 <- inception_5a/1x1
I0403 15:41:15.590880 12226 net.cpp:386] inception_5a/relu_1x1 -> inception_5a/1x1 (in-place)
I0403 15:41:15.591219 12226 net.cpp:141] Setting up inception_5a/relu_1x1
I0403 15:41:15.591248 12226 net.cpp:148] Top shape: 24 256 7 7 (301056)
I0403 15:41:15.591264 12226 net.cpp:156] Memory required for data: 1294534176
I0403 15:41:15.591279 12226 layer_factory.hpp:77] Creating layer inception_5a/3x3_reduce
I0403 15:41:15.591301 12226 net.cpp:91] Creating Layer inception_5a/3x3_reduce
I0403 15:41:15.591331 12226 net.cpp:425] inception_5a/3x3_reduce <- pool4/3x3_s2_pool4/3x3_s2_0_split_1
I0403 15:41:15.591352 12226 net.cpp:399] inception_5a/3x3_reduce -> inception_5a/3x3_reduce
I0403 15:41:15.593808 12226 net.cpp:141] Setting up inception_5a/3x3_reduce
I0403 15:41:15.593839 12226 net.cpp:148] Top shape: 24 160 7 7 (188160)
I0403 15:41:15.593857 12226 net.cpp:156] Memory required for data: 1295286816
I0403 15:41:15.593874 12226 layer_factory.hpp:77] Creating layer inception_5a/relu_3x3_reduce
I0403 15:41:15.593893 12226 net.cpp:91] Creating Layer inception_5a/relu_3x3_reduce
I0403 15:41:15.593909 12226 net.cpp:425] inception_5a/relu_3x3_reduce <- inception_5a/3x3_reduce
I0403 15:41:15.593925 12226 net.cpp:386] inception_5a/relu_3x3_reduce -> inception_5a/3x3_reduce (in-place)
I0403 15:41:15.594120 12226 net.cpp:141] Setting up inception_5a/relu_3x3_reduce
I0403 15:41:15.594144 12226 net.cpp:148] Top shape: 24 160 7 7 (188160)
I0403 15:41:15.594158 12226 net.cpp:156] Memory required for data: 1296039456
I0403 15:41:15.594172 12226 layer_factory.hpp:77] Creating layer inception_5a/3x3
I0403 15:41:15.594194 12226 net.cpp:91] Creating Layer inception_5a/3x3
I0403 15:41:15.594211 12226 net.cpp:425] inception_5a/3x3 <- inception_5a/3x3_reduce
I0403 15:41:15.594233 12226 net.cpp:399] inception_5a/3x3 -> inception_5a/3x3
I0403 15:41:15.599153 12226 net.cpp:141] Setting up inception_5a/3x3
I0403 15:41:15.599182 12226 net.cpp:148] Top shape: 24 320 7 7 (376320)
I0403 15:41:15.599198 12226 net.cpp:156] Memory required for data: 1297544736
I0403 15:41:15.599216 12226 layer_factory.hpp:77] Creating layer inception_5a/relu_3x3
I0403 15:41:15.599234 12226 net.cpp:91] Creating Layer inception_5a/relu_3x3
I0403 15:41:15.599251 12226 net.cpp:425] inception_5a/relu_3x3 <- inception_5a/3x3
I0403 15:41:15.599269 12226 net.cpp:386] inception_5a/relu_3x3 -> inception_5a/3x3 (in-place)
I0403 15:41:15.599572 12226 net.cpp:141] Setting up inception_5a/relu_3x3
I0403 15:41:15.599598 12226 net.cpp:148] Top shape: 24 320 7 7 (376320)
I0403 15:41:15.599613 12226 net.cpp:156] Memory required for data: 1299050016
I0403 15:41:15.599628 12226 layer_factory.hpp:77] Creating layer inception_5a/5x5_reduce
I0403 15:41:15.599649 12226 net.cpp:91] Creating Layer inception_5a/5x5_reduce
I0403 15:41:15.599668 12226 net.cpp:425] inception_5a/5x5_reduce <- pool4/3x3_s2_pool4/3x3_s2_0_split_2
I0403 15:41:15.599689 12226 net.cpp:399] inception_5a/5x5_reduce -> inception_5a/5x5_reduce
I0403 15:41:15.600862 12226 net.cpp:141] Setting up inception_5a/5x5_reduce
I0403 15:41:15.600893 12226 net.cpp:148] Top shape: 24 32 7 7 (37632)
I0403 15:41:15.600908 12226 net.cpp:156] Memory required for data: 1299200544
I0403 15:41:15.600926 12226 layer_factory.hpp:77] Creating layer inception_5a/relu_5x5_reduce
I0403 15:41:15.600944 12226 net.cpp:91] Creating Layer inception_5a/relu_5x5_reduce
I0403 15:41:15.600960 12226 net.cpp:425] inception_5a/relu_5x5_reduce <- inception_5a/5x5_reduce
I0403 15:41:15.600977 12226 net.cpp:386] inception_5a/relu_5x5_reduce -> inception_5a/5x5_reduce (in-place)
I0403 15:41:15.601279 12226 net.cpp:141] Setting up inception_5a/relu_5x5_reduce
I0403 15:41:15.601305 12226 net.cpp:148] Top shape: 24 32 7 7 (37632)
I0403 15:41:15.601320 12226 net.cpp:156] Memory required for data: 1299351072
I0403 15:41:15.601335 12226 layer_factory.hpp:77] Creating layer inception_5a/5x5
I0403 15:41:15.601356 12226 net.cpp:91] Creating Layer inception_5a/5x5
I0403 15:41:15.601373 12226 net.cpp:425] inception_5a/5x5 <- inception_5a/5x5_reduce
I0403 15:41:15.601393 12226 net.cpp:399] inception_5a/5x5 -> inception_5a/5x5
I0403 15:41:15.603103 12226 net.cpp:141] Setting up inception_5a/5x5
I0403 15:41:15.603142 12226 net.cpp:148] Top shape: 24 128 7 7 (150528)
I0403 15:41:15.603158 12226 net.cpp:156] Memory required for data: 1299953184
I0403 15:41:15.603176 12226 layer_factory.hpp:77] Creating layer inception_5a/relu_5x5
I0403 15:41:15.603193 12226 net.cpp:91] Creating Layer inception_5a/relu_5x5
I0403 15:41:15.603209 12226 net.cpp:425] inception_5a/relu_5x5 <- inception_5a/5x5
I0403 15:41:15.603229 12226 net.cpp:386] inception_5a/relu_5x5 -> inception_5a/5x5 (in-place)
I0403 15:41:15.603435 12226 net.cpp:141] Setting up inception_5a/relu_5x5
I0403 15:41:15.603459 12226 net.cpp:148] Top shape: 24 128 7 7 (150528)
I0403 15:41:15.603474 12226 net.cpp:156] Memory required for data: 1300555296
I0403 15:41:15.603488 12226 layer_factory.hpp:77] Creating layer inception_5a/pool
I0403 15:41:15.603507 12226 net.cpp:91] Creating Layer inception_5a/pool
I0403 15:41:15.603524 12226 net.cpp:425] inception_5a/pool <- pool4/3x3_s2_pool4/3x3_s2_0_split_3
I0403 15:41:15.603541 12226 net.cpp:399] inception_5a/pool -> inception_5a/pool
I0403 15:41:15.603611 12226 net.cpp:141] Setting up inception_5a/pool
I0403 15:41:15.603636 12226 net.cpp:148] Top shape: 24 832 7 7 (978432)
I0403 15:41:15.603649 12226 net.cpp:156] Memory required for data: 1304469024
I0403 15:41:15.603663 12226 layer_factory.hpp:77] Creating layer inception_5a/pool_proj
I0403 15:41:15.603685 12226 net.cpp:91] Creating Layer inception_5a/pool_proj
I0403 15:41:15.603703 12226 net.cpp:425] inception_5a/pool_proj <- inception_5a/pool
I0403 15:41:15.603724 12226 net.cpp:399] inception_5a/pool_proj -> inception_5a/pool_proj
I0403 15:41:15.605976 12226 net.cpp:141] Setting up inception_5a/pool_proj
I0403 15:41:15.606009 12226 net.cpp:148] Top shape: 24 128 7 7 (150528)
I0403 15:41:15.606024 12226 net.cpp:156] Memory required for data: 1305071136
I0403 15:41:15.606042 12226 layer_factory.hpp:77] Creating layer inception_5a/relu_pool_proj
I0403 15:41:15.606060 12226 net.cpp:91] Creating Layer inception_5a/relu_pool_proj
I0403 15:41:15.606076 12226 net.cpp:425] inception_5a/relu_pool_proj <- inception_5a/pool_proj
I0403 15:41:15.606094 12226 net.cpp:386] inception_5a/relu_pool_proj -> inception_5a/pool_proj (in-place)
I0403 15:41:15.606394 12226 net.cpp:141] Setting up inception_5a/relu_pool_proj
I0403 15:41:15.606441 12226 net.cpp:148] Top shape: 24 128 7 7 (150528)
I0403 15:41:15.606457 12226 net.cpp:156] Memory required for data: 1305673248
I0403 15:41:15.606472 12226 layer_factory.hpp:77] Creating layer inception_5a/output
I0403 15:41:15.606489 12226 net.cpp:91] Creating Layer inception_5a/output
I0403 15:41:15.606505 12226 net.cpp:425] inception_5a/output <- inception_5a/1x1
I0403 15:41:15.606523 12226 net.cpp:425] inception_5a/output <- inception_5a/3x3
I0403 15:41:15.606539 12226 net.cpp:425] inception_5a/output <- inception_5a/5x5
I0403 15:41:15.606554 12226 net.cpp:425] inception_5a/output <- inception_5a/pool_proj
I0403 15:41:15.606573 12226 net.cpp:399] inception_5a/output -> inception_5a/output
I0403 15:41:15.606623 12226 net.cpp:141] Setting up inception_5a/output
I0403 15:41:15.606647 12226 net.cpp:148] Top shape: 24 832 7 7 (978432)
I0403 15:41:15.606662 12226 net.cpp:156] Memory required for data: 1309586976
I0403 15:41:15.606676 12226 layer_factory.hpp:77] Creating layer inception_5a/output_inception_5a/output_0_split
I0403 15:41:15.606696 12226 net.cpp:91] Creating Layer inception_5a/output_inception_5a/output_0_split
I0403 15:41:15.606712 12226 net.cpp:425] inception_5a/output_inception_5a/output_0_split <- inception_5a/output
I0403 15:41:15.606729 12226 net.cpp:399] inception_5a/output_inception_5a/output_0_split -> inception_5a/output_inception_5a/output_0_split_0
I0403 15:41:15.606750 12226 net.cpp:399] inception_5a/output_inception_5a/output_0_split -> inception_5a/output_inception_5a/output_0_split_1
I0403 15:41:15.606776 12226 net.cpp:399] inception_5a/output_inception_5a/output_0_split -> inception_5a/output_inception_5a/output_0_split_2
I0403 15:41:15.606798 12226 net.cpp:399] inception_5a/output_inception_5a/output_0_split -> inception_5a/output_inception_5a/output_0_split_3
I0403 15:41:15.606909 12226 net.cpp:141] Setting up inception_5a/output_inception_5a/output_0_split
I0403 15:41:15.606933 12226 net.cpp:148] Top shape: 24 832 7 7 (978432)
I0403 15:41:15.606950 12226 net.cpp:148] Top shape: 24 832 7 7 (978432)
I0403 15:41:15.606966 12226 net.cpp:148] Top shape: 24 832 7 7 (978432)
I0403 15:41:15.606982 12226 net.cpp:148] Top shape: 24 832 7 7 (978432)
I0403 15:41:15.606997 12226 net.cpp:156] Memory required for data: 1325241888
I0403 15:41:15.607010 12226 layer_factory.hpp:77] Creating layer inception_5b/1x1
I0403 15:41:15.607033 12226 net.cpp:91] Creating Layer inception_5b/1x1
I0403 15:41:15.607049 12226 net.cpp:425] inception_5b/1x1 <- inception_5a/output_inception_5a/output_0_split_0
I0403 15:41:15.607070 12226 net.cpp:399] inception_5b/1x1 -> inception_5b/1x1
I0403 15:41:15.610914 12226 net.cpp:141] Setting up inception_5b/1x1
I0403 15:41:15.610947 12226 net.cpp:148] Top shape: 24 384 7 7 (451584)
I0403 15:41:15.610965 12226 net.cpp:156] Memory required for data: 1327048224
I0403 15:41:15.610983 12226 layer_factory.hpp:77] Creating layer inception_5b/relu_1x1
I0403 15:41:15.611002 12226 net.cpp:91] Creating Layer inception_5b/relu_1x1
I0403 15:41:15.611018 12226 net.cpp:425] inception_5b/relu_1x1 <- inception_5b/1x1
I0403 15:41:15.611035 12226 net.cpp:386] inception_5b/relu_1x1 -> inception_5b/1x1 (in-place)
I0403 15:41:15.611356 12226 net.cpp:141] Setting up inception_5b/relu_1x1
I0403 15:41:15.611387 12226 net.cpp:148] Top shape: 24 384 7 7 (451584)
I0403 15:41:15.611402 12226 net.cpp:156] Memory required for data: 1328854560
I0403 15:41:15.611423 12226 layer_factory.hpp:77] Creating layer inception_5b/3x3_reduce
I0403 15:41:15.611445 12226 net.cpp:91] Creating Layer inception_5b/3x3_reduce
I0403 15:41:15.611464 12226 net.cpp:425] inception_5b/3x3_reduce <- inception_5a/output_inception_5a/output_0_split_1
I0403 15:41:15.611484 12226 net.cpp:399] inception_5b/3x3_reduce -> inception_5b/3x3_reduce
I0403 15:41:15.614192 12226 net.cpp:141] Setting up inception_5b/3x3_reduce
I0403 15:41:15.614224 12226 net.cpp:148] Top shape: 24 192 7 7 (225792)
I0403 15:41:15.614241 12226 net.cpp:156] Memory required for data: 1329757728
I0403 15:41:15.614260 12226 layer_factory.hpp:77] Creating layer inception_5b/relu_3x3_reduce
I0403 15:41:15.614279 12226 net.cpp:91] Creating Layer inception_5b/relu_3x3_reduce
I0403 15:41:15.614295 12226 net.cpp:425] inception_5b/relu_3x3_reduce <- inception_5b/3x3_reduce
I0403 15:41:15.614315 12226 net.cpp:386] inception_5b/relu_3x3_reduce -> inception_5b/3x3_reduce (in-place)
I0403 15:41:15.614521 12226 net.cpp:141] Setting up inception_5b/relu_3x3_reduce
I0403 15:41:15.614547 12226 net.cpp:148] Top shape: 24 192 7 7 (225792)
I0403 15:41:15.614562 12226 net.cpp:156] Memory required for data: 1330660896
I0403 15:41:15.614578 12226 layer_factory.hpp:77] Creating layer inception_5b/3x3
I0403 15:41:15.614600 12226 net.cpp:91] Creating Layer inception_5b/3x3
I0403 15:41:15.614619 12226 net.cpp:425] inception_5b/3x3 <- inception_5b/3x3_reduce
I0403 15:41:15.614640 12226 net.cpp:399] inception_5b/3x3 -> inception_5b/3x3
I0403 15:41:15.621407 12226 net.cpp:141] Setting up inception_5b/3x3
I0403 15:41:15.621443 12226 net.cpp:148] Top shape: 24 384 7 7 (451584)
I0403 15:41:15.621461 12226 net.cpp:156] Memory required for data: 1332467232
I0403 15:41:15.621479 12226 layer_factory.hpp:77] Creating layer inception_5b/relu_3x3
I0403 15:41:15.621498 12226 net.cpp:91] Creating Layer inception_5b/relu_3x3
I0403 15:41:15.621515 12226 net.cpp:425] inception_5b/relu_3x3 <- inception_5b/3x3
I0403 15:41:15.621536 12226 net.cpp:386] inception_5b/relu_3x3 -> inception_5b/3x3 (in-place)
I0403 15:41:15.621845 12226 net.cpp:141] Setting up inception_5b/relu_3x3
I0403 15:41:15.621873 12226 net.cpp:148] Top shape: 24 384 7 7 (451584)
I0403 15:41:15.621889 12226 net.cpp:156] Memory required for data: 1334273568
I0403 15:41:15.621904 12226 layer_factory.hpp:77] Creating layer inception_5b/5x5_reduce
I0403 15:41:15.621944 12226 net.cpp:91] Creating Layer inception_5b/5x5_reduce
I0403 15:41:15.621964 12226 net.cpp:425] inception_5b/5x5_reduce <- inception_5a/output_inception_5a/output_0_split_2
I0403 15:41:15.621986 12226 net.cpp:399] inception_5b/5x5_reduce -> inception_5b/5x5_reduce
I0403 15:41:15.623301 12226 net.cpp:141] Setting up inception_5b/5x5_reduce
I0403 15:41:15.623329 12226 net.cpp:148] Top shape: 24 48 7 7 (56448)
I0403 15:41:15.623345 12226 net.cpp:156] Memory required for data: 1334499360
I0403 15:41:15.623363 12226 layer_factory.hpp:77] Creating layer inception_5b/relu_5x5_reduce
I0403 15:41:15.623383 12226 net.cpp:91] Creating Layer inception_5b/relu_5x5_reduce
I0403 15:41:15.623399 12226 net.cpp:425] inception_5b/relu_5x5_reduce <- inception_5b/5x5_reduce
I0403 15:41:15.623430 12226 net.cpp:386] inception_5b/relu_5x5_reduce -> inception_5b/5x5_reduce (in-place)
I0403 15:41:15.623824 12226 net.cpp:141] Setting up inception_5b/relu_5x5_reduce
I0403 15:41:15.623852 12226 net.cpp:148] Top shape: 24 48 7 7 (56448)
I0403 15:41:15.623867 12226 net.cpp:156] Memory required for data: 1334725152
I0403 15:41:15.623883 12226 layer_factory.hpp:77] Creating layer inception_5b/5x5
I0403 15:41:15.623903 12226 net.cpp:91] Creating Layer inception_5b/5x5
I0403 15:41:15.623919 12226 net.cpp:425] inception_5b/5x5 <- inception_5b/5x5_reduce
I0403 15:41:15.623939 12226 net.cpp:399] inception_5b/5x5 -> inception_5b/5x5
I0403 15:41:15.626061 12226 net.cpp:141] Setting up inception_5b/5x5
I0403 15:41:15.626091 12226 net.cpp:148] Top shape: 24 128 7 7 (150528)
I0403 15:41:15.626106 12226 net.cpp:156] Memory required for data: 1335327264
I0403 15:41:15.626124 12226 layer_factory.hpp:77] Creating layer inception_5b/relu_5x5
I0403 15:41:15.626147 12226 net.cpp:91] Creating Layer inception_5b/relu_5x5
I0403 15:41:15.626164 12226 net.cpp:425] inception_5b/relu_5x5 <- inception_5b/5x5
I0403 15:41:15.626183 12226 net.cpp:386] inception_5b/relu_5x5 -> inception_5b/5x5 (in-place)
I0403 15:41:15.626384 12226 net.cpp:141] Setting up inception_5b/relu_5x5
I0403 15:41:15.626412 12226 net.cpp:148] Top shape: 24 128 7 7 (150528)
I0403 15:41:15.626430 12226 net.cpp:156] Memory required for data: 1335929376
I0403 15:41:15.626444 12226 layer_factory.hpp:77] Creating layer inception_5b/pool
I0403 15:41:15.626466 12226 net.cpp:91] Creating Layer inception_5b/pool
I0403 15:41:15.626483 12226 net.cpp:425] inception_5b/pool <- inception_5a/output_inception_5a/output_0_split_3
I0403 15:41:15.626502 12226 net.cpp:399] inception_5b/pool -> inception_5b/pool
I0403 15:41:15.626579 12226 net.cpp:141] Setting up inception_5b/pool
I0403 15:41:15.626602 12226 net.cpp:148] Top shape: 24 832 7 7 (978432)
I0403 15:41:15.626617 12226 net.cpp:156] Memory required for data: 1339843104
I0403 15:41:15.626632 12226 layer_factory.hpp:77] Creating layer inception_5b/pool_proj
I0403 15:41:15.626654 12226 net.cpp:91] Creating Layer inception_5b/pool_proj
I0403 15:41:15.626672 12226 net.cpp:425] inception_5b/pool_proj <- inception_5b/pool
I0403 15:41:15.626693 12226 net.cpp:399] inception_5b/pool_proj -> inception_5b/pool_proj
I0403 15:41:15.629124 12226 net.cpp:141] Setting up inception_5b/pool_proj
I0403 15:41:15.629155 12226 net.cpp:148] Top shape: 24 128 7 7 (150528)
I0403 15:41:15.629171 12226 net.cpp:156] Memory required for data: 1340445216
I0403 15:41:15.629190 12226 layer_factory.hpp:77] Creating layer inception_5b/relu_pool_proj
I0403 15:41:15.629209 12226 net.cpp:91] Creating Layer inception_5b/relu_pool_proj
I0403 15:41:15.629227 12226 net.cpp:425] inception_5b/relu_pool_proj <- inception_5b/pool_proj
I0403 15:41:15.629247 12226 net.cpp:386] inception_5b/relu_pool_proj -> inception_5b/pool_proj (in-place)
I0403 15:41:15.629575 12226 net.cpp:141] Setting up inception_5b/relu_pool_proj
I0403 15:41:15.629602 12226 net.cpp:148] Top shape: 24 128 7 7 (150528)
I0403 15:41:15.629617 12226 net.cpp:156] Memory required for data: 1341047328
I0403 15:41:15.629633 12226 layer_factory.hpp:77] Creating layer inception_5b/output
I0403 15:41:15.629652 12226 net.cpp:91] Creating Layer inception_5b/output
I0403 15:41:15.629683 12226 net.cpp:425] inception_5b/output <- inception_5b/1x1
I0403 15:41:15.629700 12226 net.cpp:425] inception_5b/output <- inception_5b/3x3
I0403 15:41:15.629717 12226 net.cpp:425] inception_5b/output <- inception_5b/5x5
I0403 15:41:15.629734 12226 net.cpp:425] inception_5b/output <- inception_5b/pool_proj
I0403 15:41:15.629755 12226 net.cpp:399] inception_5b/output -> inception_5b/output
I0403 15:41:15.629811 12226 net.cpp:141] Setting up inception_5b/output
I0403 15:41:15.629837 12226 net.cpp:148] Top shape: 24 1024 7 7 (1204224)
I0403 15:41:15.629854 12226 net.cpp:156] Memory required for data: 1345864224
I0403 15:41:15.629869 12226 layer_factory.hpp:77] Creating layer pool5/7x7_s1
I0403 15:41:15.629887 12226 net.cpp:91] Creating Layer pool5/7x7_s1
I0403 15:41:15.629904 12226 net.cpp:425] pool5/7x7_s1 <- inception_5b/output
I0403 15:41:15.629922 12226 net.cpp:399] pool5/7x7_s1 -> pool5/7x7_s1
I0403 15:41:15.630158 12226 net.cpp:141] Setting up pool5/7x7_s1
I0403 15:41:15.630184 12226 net.cpp:148] Top shape: 24 1024 1 1 (24576)
I0403 15:41:15.630200 12226 net.cpp:156] Memory required for data: 1345962528
I0403 15:41:15.630214 12226 layer_factory.hpp:77] Creating layer pool5/drop_7x7_s1
I0403 15:41:15.630233 12226 net.cpp:91] Creating Layer pool5/drop_7x7_s1
I0403 15:41:15.630249 12226 net.cpp:425] pool5/drop_7x7_s1 <- pool5/7x7_s1
I0403 15:41:15.630270 12226 net.cpp:386] pool5/drop_7x7_s1 -> pool5/7x7_s1 (in-place)
I0403 15:41:15.630323 12226 net.cpp:141] Setting up pool5/drop_7x7_s1
I0403 15:41:15.630352 12226 net.cpp:148] Top shape: 24 1024 1 1 (24576)
I0403 15:41:15.630367 12226 net.cpp:156] Memory required for data: 1346060832
I0403 15:41:15.630383 12226 layer_factory.hpp:77] Creating layer loss3/classifier_plantvillage
I0403 15:41:15.630401 12226 net.cpp:91] Creating Layer loss3/classifier_plantvillage
I0403 15:41:15.630424 12226 net.cpp:425] loss3/classifier_plantvillage <- pool5/7x7_s1
I0403 15:41:15.630445 12226 net.cpp:399] loss3/classifier_plantvillage -> loss3/classifier_plantvillage
I0403 15:41:15.630892 12226 net.cpp:141] Setting up loss3/classifier_plantvillage
I0403 15:41:15.630918 12226 net.cpp:148] Top shape: 24 38 (912)
I0403 15:41:15.630934 12226 net.cpp:156] Memory required for data: 1346064480
I0403 15:41:15.630952 12226 layer_factory.hpp:77] Creating layer loss3/classifier_plantvillage_loss3/classifier_plantvillage_0_split
I0403 15:41:15.630975 12226 net.cpp:91] Creating Layer loss3/classifier_plantvillage_loss3/classifier_plantvillage_0_split
I0403 15:41:15.630993 12226 net.cpp:425] loss3/classifier_plantvillage_loss3/classifier_plantvillage_0_split <- loss3/classifier_plantvillage
I0403 15:41:15.631012 12226 net.cpp:399] loss3/classifier_plantvillage_loss3/classifier_plantvillage_0_split -> loss3/classifier_plantvillage_loss3/classifier_plantvillage_0_split_0
I0403 15:41:15.631036 12226 net.cpp:399] loss3/classifier_plantvillage_loss3/classifier_plantvillage_0_split -> loss3/classifier_plantvillage_loss3/classifier_plantvillage_0_split_1
I0403 15:41:15.631057 12226 net.cpp:399] loss3/classifier_plantvillage_loss3/classifier_plantvillage_0_split -> loss3/classifier_plantvillage_loss3/classifier_plantvillage_0_split_2
I0403 15:41:15.631079 12226 net.cpp:399] loss3/classifier_plantvillage_loss3/classifier_plantvillage_0_split -> loss3/classifier_plantvillage_loss3/classifier_plantvillage_0_split_3
I0403 15:41:15.631186 12226 net.cpp:141] Setting up loss3/classifier_plantvillage_loss3/classifier_plantvillage_0_split
I0403 15:41:15.631211 12226 net.cpp:148] Top shape: 24 38 (912)
I0403 15:41:15.631227 12226 net.cpp:148] Top shape: 24 38 (912)
I0403 15:41:15.631243 12226 net.cpp:148] Top shape: 24 38 (912)
I0403 15:41:15.631260 12226 net.cpp:148] Top shape: 24 38 (912)
I0403 15:41:15.631274 12226 net.cpp:156] Memory required for data: 1346079072
I0403 15:41:15.631289 12226 layer_factory.hpp:77] Creating layer loss1/loss
I0403 15:41:15.631312 12226 net.cpp:91] Creating Layer loss1/loss
I0403 15:41:15.631330 12226 net.cpp:425] loss1/loss <- loss1/classifier_plantvillage_loss1/classifier_plantvillage_0_split_0
I0403 15:41:15.631361 12226 net.cpp:425] loss1/loss <- label_data_1_split_0
…
