…
I0403 15:17:00.623121 11787 net.cpp:313] The NetState phase (1) differed from the phase (0) specified by a rule in layer data
I0403 15:17:00.624371 11787 net.cpp:49] Initializing net from parameters: 
state {
  phase: TEST
}
layer {
  name: "data"
  type: "Data"
  top: "data"
  top: "label"
  include {
    phase: TEST
  }
  transform_param {
    mirror: false
    crop_size: 224
    mean_file: "/home/mohanty/data/final_dataset/lmdb/segmented-50-50/mean.binaryproto"
  }
  data_param {
    source: "/home/mohanty/data/final_dataset/lmdb/segmented-50-50/test_db"
    batch_size: 24
    backend: LMDB
  }
}
layer {
  name: "conv1/7x7_s2"
  type: "Convolution"
  bottom: "data"
  top: "conv1/7x7_s2"
  param {
    lr_mult: 1
    decay_mult: 1
  }
  param {
    lr_mult: 2
    decay_mult: 0
  }
  convolution_param {
    num_output: 64
    pad: 3
    kernel_size: 7
    stride: 2
    weight_filler {
      type: "xavier"
      std: 0.1
    }
    bias_filler {
      type: "constant"
      value: 0.2
    }
  }
}
layer {
  name: "conv1/relu_7x7"
  type: "ReLU"
  bottom: "conv1/7x7_s2"
  top: "conv1/7x7_s2"
}
layer {
  name: "pool1/3x3_s2"
  type: "Pooling"
  bottom: "conv1/7x7_s2"
  top: "pool1/3x3_s2"
  pooling_param {
    pool: MAX
    kernel_size: 3
    stride: 2
  }
}
layer {
  name: "pool1/norm1"
  type: "LRN"
  bottom: "pool1/3x3_s2"
  top: "pool1/norm1"
  lrn_param {
    local_size: 5
    alpha: 0.0001
    beta: 0.75
  }
}
layer {
  name: "conv2/3x3_reduce"
  type: "Convolution"
  bottom: "pool1/norm1"
  top: "conv2/3x3_reduce"
  param {
    lr_mult: 1
    decay_mult: 1
  }
  param {
    lr_mult: 2
    decay_mult: 0
  }
  convolution_param {
    num_output: 64
    kernel_size: 1
    weight_filler {
      type: "xavier"
      std: 0.1
    }
    bias_filler {
      type: "constant"
      value: 0.2
    }
  }
}
layer {
  name: "conv2/relu_3x3_reduce"
  type: "ReLU"
  bottom: "conv2/3x3_reduce"
  top: "conv2/3x3_reduce"
}
layer {
  name: "conv2/3x3"
  type: "Convolution"
  bottom: "conv2/3x3_reduce"
  top: "conv2/3x3"
  param {
    lr_mult: 1
    decay_mult: 1
  }
  param {
    lr_mult: 2
    decay_mult: 0
  }
  convolution_param {
    num_output: 192
    pad: 1
    kernel_size: 3
    weight_filler {
      type: "xavier"
      std: 0.03
    }
    bias_filler {
      type: "constant"
      value: 0.2
    }
  }
}
layer {
  name: "conv2/relu_3x3"
  type: "ReLU"
  bottom: "conv2/3x3"
  top: "conv2/3x3"
}
layer {
  name: "conv2/norm2"
  type: "LRN"
  bottom: "conv2/3x3"
  top: "conv2/norm2"
  lrn_param {
    local_size: 5
    alpha: 0.0001
    beta: 0.75
  }
}
layer {
  name: "pool2/3x3_s2"
  type: "Pooling"
  bottom: "conv2/norm2"
  top: "pool2/3x3_s2"
  pooling_param {
    pool: MAX
    kernel_size: 3
    stride: 2
  }
}
layer {
  name: "inception_3a/1x1"
  type: "Convolution"
  bottom: "pool2/3x3_s2"
  top: "inception_3a/1x1"
  param {
    lr_mult: 1
    decay_mult: 1
  }
  param {
    lr_mult: 2
    decay_mult: 0
  }
  convolution_param {
    num_output: 64
    kernel_size: 1
    weight_filler {
      type: "xavier"
      std: 0.03
    }
    bias_filler {
      type: "constant"
      value: 0.2
    }
  }
}
layer {
  name: "inception_3a/relu_1x1"
  type: "ReLU"
  bottom: "inception_3a/1x1"
  top: "inception_3a/1x1"
}
layer {
  name: "inception_3a/3x3_reduce"
  type: "Convolution"
  bottom: "pool2/3x3_s2"
  top: "inception_3a/3x3_reduce"
  param {
    lr_mult: 1
    decay_mult: 1
  }
  param {
    lr_mult: 2
    decay_mult: 0
  }
  convolution_param {
    num_output: 96
    kernel_size: 1
    weight_filler {
      type: "xavier"
      std: 0.09
    }
    bias_filler {
      type: "constant"
      value: 0.2
    }
  }
}
layer {
  name: "inception_3a/relu_3x3_reduce"
  type: "ReLU"
  bottom: "inception_3a/3x3_reduce"
  top: "inception_3a/3x3_reduce"
}
layer {
  name: "inception_3a/3x3"
  type: "Convolution"
  bottom: "inception_3a/3x3_reduce"
  top: "inception_3a/3x3"
  param {
    lr_mult: 1
    decay_mult: 1
  }
  param {
    lr_mult: 2
    decay_mult: 0
  }
  convolution_param {
    num_output: 128
    pad: 1
    kernel_size: 3
    weight_filler {
      type: "xavier"
      std: 0.03
    }
    bias_filler {
      type: "constant"
      value: 0.2
    }
  }
}
layer {
  name: "inception_3a/relu_3x3"
  type: "ReLU"
  bottom: "inception_3a/3x3"
  top: "inception_3a/3x3"
}
layer {
  name: "inception_3a/5x5_reduce"
  type: "Convolution"
  bottom: "pool2/3x3_s2"
  top: "inception_3a/5x5_reduce"
  param {
    lr_mult: 1
    decay_mult: 1
  }
  param {
    lr_mult: 2
    decay_mult: 0
  }
  convolution_param {
    num_output: 16
    kernel_size: 1
    weight_filler {
      type: "xavier"
      std: 0.2
    }
    bias_filler {
      type: "constant"
      value: 0.2
    }
  }
}
layer {
  name: "inception_3a/relu_5x5_reduce"
  type: "ReLU"
  bottom: "inception_3a/5x5_reduce"
  top: "inception_3a/5x5_reduce"
}
layer {
  name: "inception_3a/5x5"
  type: "Convolution"
  bottom: "inception_3a/5x5_reduce"
  top: "inception_3a/5x5"
  param {
    lr_mult: 1
    decay_mult: 1
  }
  param {
    lr_mult: 2
    decay_mult: 0
  }
  convolution_param {
    num_output: 32
    pad: 2
    kernel_size: 5
    weight_filler {
      type: "xavier"
      std: 0.03
    }
    bias_filler {
      type: "constant"
      value: 0.2
    }
  }
}
layer {
  name: "inception_3a/relu_5x5"
  type: "ReLU"
  bottom: "inception_3a/5x5"
  top: "inception_3a/5x5"
}
layer {
  name: "inception_3a/pool"
  type: "Pooling"
  bottom: "pool2/3x3_s2"
  top: "inception_3a/pool"
  pooling_param {
    pool: MAX
    kernel_size: 3
    stride: 1
    pad: 1
  }
}
layer {
  name: "inception_3a/pool_proj"
  type: "Convolution"
  bottom: "inception_3a/pool"
  top: "inception_3a/pool_proj"
  param {
    lr_mult: 1
    decay_mult: 1
  }
  param {
    lr_mult: 2
    decay_mult: 0
  }
  convolution_param {
    num_output: 32
    kernel_size: 1
    weight_filler {
      type: "xavier"
      std: 0.1
    }
    bias_filler {
      type: "constant"
      value: 0.2
    }
  }
}
layer {
  name: "inception_3a/relu_pool_proj"
  type: "ReLU"
  bottom: "inception_3a/pool_proj"
  top: "inception_3a/pool_proj"
}
layer {
  name: "inception_3a/output"
  type: "Concat"
  bottom: "inception_3a/1x1"
  bottom: "inception_3a/3x3"
  bottom: "inception_3a/5x5"
  bottom: "inception_3a/pool_proj"
  top: "inception_3a/output"
}
layer {
  name: "inception_3b/1x1"
  type: "Convolution"
  bottom: "inception_3a/output"
  top: "inception_3b/1x1"
  param {
    lr_mult: 1
    decay_mult: 1
  }
  param {
    lr_mult: 2
    decay_mult: 0
  }
  convolution_param {
    num_output: 128
    kernel_size: 1
    weight_filler {
      type: "xavier"
      std: 0.03
    }
    bias_filler {
      type: "constant"
      value: 0.2
    }
  }
}
layer {
  name: "inception_3b/relu_1x1"
  type: "ReLU"
  bottom: "inception_3b/1x1"
  top: "inception_3b/1x1"
}
layer {
  name: "inception_3b/3x3_reduce"
  type: "Convolution"
  bottom: "inception_3a/output"
  top: "inception_3b/3x3_reduce"
  param {
    lr_mult: 1
    decay_mult: 1
  }
  param {
    lr_mult: 2
    decay_mult: 0
  }
  convolution_param {
    num_output: 128
    kernel_size: 1
    weight_filler {
      type: "xavier"
      std: 0.09
    }
    bias_filler {
      type: "constant"
      value: 0.2
    }
  }
}
layer {
  name: "inception_3b/relu_3x3_reduce"
  type: "ReLU"
  bottom: "inception_3b/3x3_reduce"
  top: "inception_3b/3x3_reduce"
}
layer {
  name: "inception_3b/3x3"
  type: "Convolution"
  bottom: "inception_3b/3x3_reduce"
  top: "inception_3b/3x3"
  param {
    lr_mult: 1
    decay_mult: 1
  }
  param {
    lr_mult: 2
    decay_mult: 0
  }
  convolution_param {
    num_output: 192
    pad: 1
    kernel_size: 3
    weight_filler {
      type: "xavier"
      std: 0.03
    }
    bias_filler {
      type: "constant"
      value: 0.2
    }
  }
}
layer {
  name: "inception_3b/relu_3x3"
  type: "ReLU"
  bottom: "inception_3b/3x3"
  top: "inception_3b/3x3"
}
layer {
  name: "inception_3b/5x5_reduce"
  type: "Convolution"
  bottom: "inception_3a/output"
  top: "inception_3b/5x5_reduce"
  param {
    lr_mult: 1
    decay_mult: 1
  }
  param {
    lr_mult: 2
    decay_mult: 0
  }
  convolution_param {
    num_output: 32
    kernel_size: 1
    weight_filler {
      type: "xavier"
      std: 0.2
    }
    bias_filler {
      type: "constant"
      value: 0.2
    }
  }
}
layer {
  name: "inception_3b/relu_5x5_reduce"
  type: "ReLU"
  bottom: "inception_3b/5x5_reduce"
  top: "inception_3b/5x5_reduce"
}
layer {
  name: "inception_3b/5x5"
  type: "Convolution"
  bottom: "inception_3b/5x5_reduce"
  top: "inception_3b/5x5"
  param {
    lr_mult: 1
    decay_mult: 1
  }
  param {
    lr_mult: 2
    decay_mult: 0
  }
  convolution_param {
    num_output: 96
    pad: 2
    kernel_size: 5
    weight_filler {
      type: "xavier"
      std: 0.03
    }
    bias_filler {
      type: "constant"
      value: 0.2
    }
  }
}
layer {
  name: "inception_3b/relu_5x5"
  type: "ReLU"
  bottom: "inception_3b/5x5"
  top: "inception_3b/5x5"
}
layer {
  name: "inception_3b/pool"
  type: "Pooling"
  bottom: "inception_3a/output"
  top: "inception_3b/pool"
  pooling_param {
    pool: MAX
    kernel_size: 3
    stride: 1
    pad: 1
  }
}
layer {
  name: "inception_3b/pool_proj"
  type: "Convolution"
  bottom: "inception_3b/pool"
  top: "inception_3b/pool_proj"
  param {
    lr_mult: 1
    decay_mult: 1
  }
  param {
    lr_mult: 2
    decay_mult: 0
  }
  convolution_param {
    num_output: 64
    kernel_size: 1
    weight_filler {
      type: "xavier"
      std: 0.1
    }
    bias_filler {
      type: "constant"
      value: 0.2
    }
  }
}
layer {
  name: "inception_3b/relu_pool_proj"
  type: "ReLU"
  bottom: "inception_3b/pool_proj"
  top: "inception_3b/pool_proj"
}
layer {
  name: "inception_3b/output"
  type: "Concat"
  bottom: "inception_3b/1x1"
  bottom: "inception_3b/3x3"
  bottom: "inception_3b/5x5"
  bottom: "inception_3b/pool_proj"
  top: "inception_3b/output"
}
layer {
  name: "pool3/3x3_s2"
  type: "Pooling"
  bottom: "inception_3b/output"
  top: "pool3/3x3_s2"
  pooling_param {
    pool: MAX
    kernel_size: 3
    stride: 2
  }
}
layer {
  name: "inception_4a/1x1"
  type: "Convolution"
  bottom: "pool3/3x3_s2"
  top: "inception_4a/1x1"
  param {
    lr_mult: 1
    decay_mult: 1
  }
  param {
    lr_mult: 2
    decay_mult: 0
  }
  convolution_param {
    num_output: 192
    kernel_size: 1
    weight_filler {
      type: "xavier"
      std: 0.03
    }
    bias_filler {
      type: "constant"
      value: 0.2
    }
  }
}
layer {
  name: "inception_4a/relu_1x1"
  type: "ReLU"
  bottom: "inception_4a/1x1"
  top: "inception_4a/1x1"
}
layer {
  name: "inception_4a/3x3_reduce"
  type: "Convolution"
  bottom: "pool3/3x3_s2"
  top: "inception_4a/3x3_reduce"
  param {
    lr_mult: 1
    decay_mult: 1
  }
  param {
    lr_mult: 2
    decay_mult: 0
  }
  convolution_param {
    num_output: 96
    kernel_size: 1
    weight_filler {
      type: "xavier"
      std: 0.09
    }
    bias_filler {
      type: "constant"
      value: 0.2
    }
  }
}
layer {
  name: "inception_4a/relu_3x3_reduce"
  type: "ReLU"
  bottom: "inception_4a/3x3_reduce"
  top: "inception_4a/3x3_reduce"
}
layer {
  name: "inception_4a/3x3"
  type: "Convolution"
  bottom: "inception_4a/3x3_reduce"
  top: "inception_4a/3x3"
  param {
    lr_mult: 1
    decay_mult: 1
  }
  param {
    lr_mult: 2
    decay_mult: 0
  }
  convolution_param {
    num_output: 208
    pad: 1
    kernel_size: 3
    weight_filler {
      type: "xavier"
      std: 0.03
    }
    bias_filler {
      type: "constant"
      value: 0.2
    }
  }
}
layer {
  name: "inception_4a/relu_3x3"
  type: "ReLU"
  bottom: "inception_4a/3x3"
  top: "inception_4a/3x3"
}
layer {
  name: "inception_4a/5x5_reduce"
  type: "Convolution"
  bottom: "pool3/3x3_s2"
  top: "inception_4a/5x5_reduce"
  param {
    lr_mult: 1
    decay_mult: 1
  }
  param {
    lr_mult: 2
    decay_mult: 0
  }
  convolution_param {
    num_output: 16
    kernel_size: 1
    weight_filler {
      type: "xavier"
      std: 0.2
    }
    bias_filler {
      type: "constant"
      value: 0.2
    }
  }
}
layer {
  name: "inception_4a/relu_5x5_reduce"
  type: "ReLU"
  bottom: "inception_4a/5x5_reduce"
  top: "inception_4a/5x5_reduce"
}
layer {
  name: "inception_4a/5x5"
  type: "Convolution"
  bottom: "inception_4a/5x5_reduce"
  top: "inception_4a/5x5"
  param {
    lr_mult: 1
    decay_mult: 1
  }
  param {
    lr_mult: 2
    decay_mult: 0
  }
  convolution_param {
    num_output: 48
    pad: 2
    kernel_size: 5
    weight_filler {
      type: "xavier"
      std: 0.03
    }
    bias_filler {
      type: "constant"
      value: 0.2
    }
  }
}
layer {
  name: "inception_4a/relu_5x5"
  type: "ReLU"
  bottom: "inception_4a/5x5"
  top: "inception_4a/5x5"
}
layer {
  name: "inception_4a/pool"
  type: "Pooling"
  bottom: "pool3/3x3_s2"
  top: "inception_4a/pool"
  pooling_param {
    pool: MAX
    kernel_size: 3
    stride: 1
    pad: 1
  }
}
layer {
  name: "inception_4a/pool_proj"
  type: "Convolution"
  bottom: "inception_4a/pool"
  top: "inception_4a/pool_proj"
  param {
    lr_mult: 1
    decay_mult: 1
  }
  param {
    lr_mult: 2
    decay_mult: 0
  }
  convolution_param {
    num_output: 64
    kernel_size: 1
    weight_filler {
      type: "xavier"
      std: 0.1
    }
    bias_filler {
      type: "constant"
      value: 0.2
    }
  }
}
layer {
  name: "inception_4a/relu_pool_proj"
  type: "ReLU"
  bottom: "inception_4a/pool_proj"
  top: "inception_4a/pool_proj"
}
layer {
  name: "inception_4a/output"
  type: "Concat"
  bottom: "inception_4a/1x1"
  bottom: "inception_4a/3x3"
  bottom: "inception_4a/5x5"
  bottom: "inception_4a/pool_proj"
  top: "inception_4a/output"
}
layer {
  name: "loss1/ave_pool"
  type: "Pooling"
  bottom: "inception_4a/output"
  top: "loss1/ave_pool"
  pooling_param {
    pool: AVE
    kernel_size: 5
    stride: 3
  }
}
layer {
  name: "loss1/conv"
  type: "Convolution"
  bottom: "loss1/ave_pool"
  top: "loss1/conv"
  param {
    lr_mult: 1
    decay_mult: 1
  }
  param {
    lr_mult: 2
    decay_mult: 0
  }
  convolution_param {
    num_output: 128
    kernel_size: 1
    weight_filler {
      type: "xavier"
      std: 0.08
    }
    bias_filler {
      type: "constant"
      value: 0.2
    }
  }
}
layer {
  name: "loss1/relu_conv"
  type: "ReLU"
  bottom: "loss1/conv"
  top: "loss1/conv"
}
layer {
  name: "loss1/fc"
  type: "InnerProduct"
  bottom: "loss1/conv"
  top: "loss1/fc"
  param {
    lr_mult: 1
    decay_mult: 1
  }
  param {
    lr_mult: 2
    decay_mult: 0
  }
  inner_product_param {
    num_output: 1024
    weight_filler {
      type: "xavier"
      std: 0.02
    }
    bias_filler {
      type: "constant"
      value: 0.2
    }
  }
}
layer {
  name: "loss1/relu_fc"
  type: "ReLU"
  bottom: "loss1/fc"
  top: "loss1/fc"
}
layer {
  name: "loss1/drop_fc"
  type: "Dropout"
  bottom: "loss1/fc"
  top: "loss1/fc"
  dropout_param {
    dropout_ratio: 0.7
  }
}
layer {
  name: "loss1/classifier_plantvillage"
  type: "InnerProduct"
  bottom: "loss1/fc"
  top: "loss1/classifier_plantvillage"
  param {
    lr_mult: 1
    decay_mult: 1
  }
  param {
    lr_mult: 2
    decay_mult: 0
  }
  inner_product_param {
    num_output: 38
    weight_filler {
      type: "xavier"
      std: 0.0009765625
    }
    bias_filler {
      type: "constant"
      value: 0
    }
  }
}
layer {
  name: "inception_4b/1x1"
  type: "Convolution"
  bottom: "inception_4a/output"
  top: "inception_4b/1x1"
  param {
    lr_mult: 1
    decay_mult: 1
  }
  param {
    lr_mult: 2
    decay_mult: 0
  }
  convolution_param {
    num_output: 160
    kernel_size: 1
    weight_filler {
      type: "xavier"
      std: 0.03
    }
    bias_filler {
      type: "constant"
      value: 0.2
    }
  }
}
layer {
  name: "inception_4b/relu_1x1"
  type: "ReLU"
  bottom: "inception_4b/1x1"
  top: "inception_4b/1x1"
}
layer {
  name: "inception_4b/3x3_reduce"
  type: "Convolution"
  bottom: "inception_4a/output"
  top: "inception_4b/3x3_reduce"
  param {
    lr_mult: 1
    decay_mult: 1
  }
  param {
    lr_mult: 2
    decay_mult: 0
  }
  convolution_param {
    num_output: 112
    kernel_size: 1
    weight_filler {
      type: "xavier"
      std: 0.09
    }
    bias_filler {
      type: "constant"
      value: 0.2
    }
  }
}
layer {
  name: "inception_4b/relu_3x3_reduce"
  type: "ReLU"
  bottom: "inception_4b/3x3_reduce"
  top: "inception_4b/3x3_reduce"
}
layer {
  name: "inception_4b/3x3"
  type: "Convolution"
  bottom: "inception_4b/3x3_reduce"
  top: "inception_4b/3x3"
  param {
    lr_mult: 1
    decay_mult: 1
  }
  param {
    lr_mult: 2
    decay_mult: 0
  }
  convolution_param {
    num_output: 224
    pad: 1
    kernel_size: 3
    weight_filler {
      type: "xavier"
      std: 0.03
    }
    bias_filler {
      type: "constant"
      value: 0.2
    }
  }
}
layer {
  name: "inception_4b/relu_3x3"
  type: "ReLU"
  bottom: "inception_4b/3x3"
  top: "inception_4b/3x3"
}
layer {
  name: "inception_4b/5x5_reduce"
  type: "Convolution"
  bottom: "inception_4a/output"
  top: "inception_4b/5x5_reduce"
  param {
    lr_mult: 1
    decay_mult: 1
  }
  param {
    lr_mult: 2
    decay_mult: 0
  }
  convolution_param {
    num_output: 24
    kernel_size: 1
    weight_filler {
      type: "xavier"
      std: 0.2
    }
    bias_filler {
      type: "constant"
      value: 0.2
    }
  }
}
layer {
  name: "inception_4b/relu_5x5_reduce"
  type: "ReLU"
  bottom: "inception_4b/5x5_reduce"
  top: "inception_4b/5x5_reduce"
}
layer {
  name: "inception_4b/5x5"
  type: "Convolution"
  bottom: "inception_4b/5x5_reduce"
  top: "inception_4b/5x5"
  param {
    lr_mult: 1
    decay_mult: 1
  }
  param {
    lr_mult: 2
    decay_mult: 0
  }
  convolution_param {
    num_output: 64
    pad: 2
    kernel_size: 5
    weight_filler {
      type: "xavier"
      std: 0.03
    }
    bias_filler {
      type: "constant"
      value: 0.2
    }
  }
}
layer {
  name: "inception_4b/relu_5x5"
  type: "ReLU"
  bottom: "inception_4b/5x5"
  top: "inception_4b/5x5"
}
layer {
  name: "inception_4b/pool"
  type: "Pooling"
  bottom: "inception_4a/output"
  top: "inception_4b/pool"
  pooling_param {
    pool: MAX
    kernel_size: 3
    stride: 1
    pad: 1
  }
}
layer {
  name: "inception_4b/pool_proj"
  type: "Convolution"
  bottom: "inception_4b/pool"
  top: "inception_4b/pool_proj"
  param {
    lr_mult: 1
    decay_mult: 1
  }
  param {
    lr_mult: 2
    decay_mult: 0
  }
  convolution_param {
    num_output: 64
    kernel_size: 1
    weight_filler {
      type: "xavier"
      std: 0.1
    }
    bias_filler {
      type: "constant"
      value: 0.2
    }
  }
}
layer {
  name: "inception_4b/relu_pool_proj"
  type: "ReLU"
  bottom: "inception_4b/pool_proj"
  top: "inception_4b/pool_proj"
}
layer {
  name: "inception_4b/output"
  type: "Concat"
  bottom: "inception_4b/1x1"
  bottom: "inception_4b/3x3"
  bottom: "inception_4b/5x5"
  bottom: "inception_4b/pool_proj"
  top: "inception_4b/output"
}
layer {
  name: "inception_4c/1x1"
  type: "Convolution"
  bottom: "inception_4b/output"
  top: "inception_4c/1x1"
  param {
    lr_mult: 1
    decay_mult: 1
  }
  param {
    lr_mult: 2
    decay_mult: 0
  }
  convolution_param {
    num_output: 128
    kernel_size: 1
    weight_filler {
      type: "xavier"
      std: 0.03
    }
    bias_filler {
      type: "constant"
      value: 0.2
    }
  }
}
layer {
  name: "inception_4c/relu_1x1"
  type: "ReLU"
  bottom: "inception_4c/1x1"
  top: "inception_4c/1x1"
}
layer {
  name: "inception_4c/3x3_reduce"
  type: "Convolution"
  bottom: "inception_4b/output"
  top: "inception_4c/3x3_reduce"
  param {
    lr_mult: 1
    decay_mult: 1
  }
  param {
    lr_mult: 2
    decay_mult: 0
  }
  convolution_param {
    num_output: 128
    kernel_size: 1
    weight_filler {
      type: "xavier"
      std: 0.09
    }
    bias_filler {
      type: "constant"
      value: 0.2
    }
  }
}
layer {
  name: "inception_4c/relu_3x3_reduce"
  type: "ReLU"
  bottom: "inception_4c/3x3_reduce"
  top: "inception_4c/3x3_reduce"
}
layer {
  name: "inception_4c/3x3"
  type: "Convolution"
  bottom: "inception_4c/3x3_reduce"
  top: "inception_4c/3x3"
  param {
    lr_mult: 1
    decay_mult: 1
  }
  param {
    lr_mult: 2
    decay_mult: 0
  }
  convolution_param {
    num_output: 256
    pad: 1
    kernel_size: 3
    weight_filler {
      type: "xavier"
      std: 0.03
    }
    bias_filler {
      type: "constant"
      value: 0.2
    }
  }
}
layer {
  name: "inception_4c/relu_3x3"
  type: "ReLU"
  bottom: "inception_4c/3x3"
  top: "inception_4c/3x3"
}
layer {
  name: "inception_4c/5x5_reduce"
  type: "Convolution"
  bottom: "inception_4b/output"
  top: "inception_4c/5x5_reduce"
  param {
    lr_mult: 1
    decay_mult: 1
  }
  param {
    lr_mult: 2
    decay_mult: 0
  }
  convolution_param {
    num_output: 24
    kernel_size: 1
    weight_filler {
      type: "xavier"
      std: 0.2
    }
    bias_filler {
      type: "constant"
      value: 0.2
    }
  }
}
layer {
  name: "inception_4c/relu_5x5_reduce"
  type: "ReLU"
  bottom: "inception_4c/5x5_reduce"
  top: "inception_4c/5x5_reduce"
}
layer {
  name: "inception_4c/5x5"
  type: "Convolution"
  bottom: "inception_4c/5x5_reduce"
  top: "inception_4c/5x5"
  param {
    lr_mult: 1
    decay_mult: 1
  }
  param {
    lr_mult: 2
    decay_mult: 0
  }
  convolution_param {
    num_output: 64
    pad: 2
    kernel_size: 5
    weight_filler {
      type: "xavier"
      std: 0.03
    }
    bias_filler {
      type: "constant"
      value: 0.2
    }
  }
}
layer {
  name: "inception_4c/relu_5x5"
  type: "ReLU"
  bottom: "inception_4c/5x5"
  top: "inception_4c/5x5"
}
layer {
  name: "inception_4c/pool"
  type: "Pooling"
  bottom: "inception_4b/output"
  top: "inception_4c/pool"
  pooling_param {
    pool: MAX
    kernel_size: 3
    stride: 1
    pad: 1
  }
}
layer {
  name: "inception_4c/pool_proj"
  type: "Convolution"
  bottom: "inception_4c/pool"
  top: "inception_4c/pool_proj"
  param {
    lr_mult: 1
    decay_mult: 1
  }
  param {
    lr_mult: 2
    decay_mult: 0
  }
  convolution_param {
    num_output: 64
    kernel_size: 1
    weight_filler {
      type: "xavier"
      std: 0.1
    }
    bias_filler {
      type: "constant"
      value: 0.2
    }
  }
}
layer {
  name: "inception_4c/relu_pool_proj"
  type: "ReLU"
  bottom: "inception_4c/pool_proj"
  top: "inception_4c/pool_proj"
}
layer {
  name: "inception_4c/output"
  type: "Concat"
  bottom: "inception_4c/1x1"
  bottom: "inception_4c/3x3"
  bottom: "inception_4c/5x5"
  bottom: "inception_4c/pool_proj"
  top: "inception_4c/output"
}
layer {
  name: "inception_4d/1x1"
  type: "Convolution"
  bottom: "inception_4c/output"
  top: "inception_4d/1x1"
  param {
    lr_mult: 1
    decay_mult: 1
  }
  param {
    lr_mult: 2
    decay_mult: 0
  }
  convolution_param {
    num_output: 112
    kernel_size: 1
    weight_filler {
      type: "xavier"
      std: 0.03
    }
    bias_filler {
      type: "constant"
      value: 0.2
    }
  }
}
layer {
  name: "inception_4d/relu_1x1"
  type: "ReLU"
  bottom: "inception_4d/1x1"
  top: "inception_4d/1x1"
}
layer {
  name: "inception_4d/3x3_reduce"
  type: "Convolution"
  bottom: "inception_4c/output"
  top: "inception_4d/3x3_reduce"
  param {
    lr_mult: 1
    decay_mult: 1
  }
  param {
    lr_mult: 2
    decay_mult: 0
  }
  convolution_param {
    num_output: 144
    kernel_size: 1
    weight_filler {
      type: "xavier"
      std: 0.09
    }
    bias_filler {
      type: "constant"
      value: 0.2
    }
  }
}
layer {
  name: "inception_4d/relu_3x3_reduce"
  type: "ReLU"
  bottom: "inception_4d/3x3_reduce"
  top: "inception_4d/3x3_reduce"
}
layer {
  name: "inception_4d/3x3"
  type: "Convolution"
  bottom: "inception_4d/3x3_reduce"
  top: "inception_4d/3x3"
  param {
    lr_mult: 1
    decay_mult: 1
  }
  param {
    lr_mult: 2
    decay_mult: 0
  }
  convolution_param {
    num_output: 288
    pad: 1
    kernel_size: 3
    weight_filler {
      type: "xavier"
      std: 0.03
    }
    bias_filler {
      type: "constant"
      value: 0.2
    }
  }
}
layer {
  name: "inception_4d/relu_3x3"
  type: "ReLU"
  bottom: "inception_4d/3x3"
  top: "inception_4d/3x3"
}
layer {
  name: "inception_4d/5x5_reduce"
  type: "Convolution"
  bottom: "inception_4c/output"
  top: "inception_4d/5x5_reduce"
  param {
    lr_mult: 1
    decay_mult: 1
  }
  param {
    lr_mult: 2
    decay_mult: 0
  }
  convolution_param {
    num_output: 32
    kernel_size: 1
    weight_filler {
      type: "xavier"
      std: 0.2
    }
    bias_filler {
      type: "constant"
      value: 0.2
    }
  }
}
layer {
  name: "inception_4d/relu_5x5_reduce"
  type: "ReLU"
  bottom: "inception_4d/5x5_reduce"
  top: "inception_4d/5x5_reduce"
}
layer {
  name: "inception_4d/5x5"
  type: "Convolution"
  bottom: "inception_4d/5x5_reduce"
  top: "inception_4d/5x5"
  param {
    lr_mult: 1
    decay_mult: 1
  }
  param {
    lr_mult: 2
    decay_mult: 0
  }
  convolution_param {
    num_output: 64
    pad: 2
    kernel_size: 5
    weight_filler {
      type: "xavier"
      std: 0.03
    }
    bias_filler {
      type: "constant"
      value: 0.2
    }
  }
}
layer {
  name: "inception_4d/relu_5x5"
  type: "ReLU"
  bottom: "inception_4d/5x5"
  top: "inception_4d/5x5"
}
layer {
  name: "inception_4d/pool"
  type: "Pooling"
  bottom: "inception_4c/output"
  top: "inception_4d/pool"
  pooling_param {
    pool: MAX
    kernel_size: 3
    stride: 1
    pad: 1
  }
}
layer {
  name: "inception_4d/pool_proj"
  type: "Convolution"
  bottom: "inception_4d/pool"
  top: "inception_4d/pool_proj"
  param {
    lr_mult: 1
    decay_mult: 1
  }
  param {
    lr_mult: 2
    decay_mult: 0
  }
  convolution_param {
    num_output: 64
    kernel_size: 1
    weight_filler {
      type: "xavier"
      std: 0.1
    }
    bias_filler {
      type: "constant"
      value: 0.2
    }
  }
}
layer {
  name: "inception_4d/relu_pool_proj"
  type: "ReLU"
  bottom: "inception_4d/pool_proj"
  top: "inception_4d/pool_proj"
}
layer {
  name: "inception_4d/output"
  type: "Concat"
  bottom: "inception_4d/1x1"
  bottom: "inception_4d/3x3"
  bottom: "inception_4d/5x5"
  bottom: "inception_4d/pool_proj"
  top: "inception_4d/output"
}
layer {
  name: "loss2/ave_pool"
  type: "Pooling"
  bottom: "inception_4d/output"
  top: "loss2/ave_pool"
  pooling_param {
    pool: AVE
    kernel_size: 5
    stride: 3
  }
}
layer {
  name: "loss2/conv"
  type: "Convolution"
  bottom: "loss2/ave_pool"
  top: "loss2/conv"
  param {
    lr_mult: 1
    decay_mult: 1
  }
  param {
    lr_mult: 2
    decay_mult: 0
  }
  convolution_param {
    num_output: 128
    kernel_size: 1
    weight_filler {
      type: "xavier"
      std: 0.08
    }
    bias_filler {
      type: "constant"
      value: 0.2
    }
  }
}
layer {
  name: "loss2/relu_conv"
  type: "ReLU"
  bottom: "loss2/conv"
  top: "loss2/conv"
}
layer {
  name: "loss2/fc"
  type: "InnerProduct"
  bottom: "loss2/conv"
  top: "loss2/fc"
  param {
    lr_mult: 1
    decay_mult: 1
  }
  param {
    lr_mult: 2
    decay_mult: 0
  }
  inner_product_param {
    num_output: 1024
    weight_filler {
      type: "xavier"
      std: 0.02
    }
    bias_filler {
      type: "constant"
      value: 0.2
    }
  }
}
layer {
  name: "loss2/relu_fc"
  type: "ReLU"
  bottom: "loss2/fc"
  top: "loss2/fc"
}
layer {
  name: "loss2/drop_fc"
  type: "Dropout"
  bottom: "loss2/fc"
  top: "loss2/fc"
  dropout_param {
    dropout_ratio: 0.7
  }
}
layer {
  name: "loss2/classifier_plantvillage"
  type: "InnerProduct"
  bottom: "loss2/fc"
  top: "loss2/classifier_plantvillage"
  param {
    lr_mult: 1
    decay_mult: 1
  }
  param {
    lr_mult: 2
    decay_mult: 0
  }
  inner_product_param {
    num_output: 38
    weight_filler {
      type: "xavier"
      std: 0.0009765625
    }
    bias_filler {
      type: "constant"
      value: 0
    }
  }
}
layer {
  name: "inception_4e/1x1"
  type: "Convolution"
  bottom: "inception_4d/output"
  top: "inception_4e/1x1"
  param {
    lr_mult: 1
    decay_mult: 1
  }
  param {
    lr_mult: 2
    decay_mult: 0
  }
  convolution_param {
    num_output: 256
    kernel_size: 1
    weight_filler {
      type: "xavier"
      std: 0.03
    }
    bias_filler {
      type: "constant"
      value: 0.2
    }
  }
}
layer {
  name: "inception_4e/relu_1x1"
  type: "ReLU"
  bottom: "inception_4e/1x1"
  top: "inception_4e/1x1"
}
layer {
  name: "inception_4e/3x3_reduce"
  type: "Convolution"
  bottom: "inception_4d/output"
  top: "inception_4e/3x3_reduce"
  param {
    lr_mult: 1
    decay_mult: 1
  }
  param {
    lr_mult: 2
    decay_mult: 0
  }
  convolution_param {
    num_output: 160
    kernel_size: 1
    weight_filler {
      type: "xavier"
      std: 0.09
    }
    bias_filler {
      type: "constant"
      value: 0.2
    }
  }
}
layer {
  name: "inception_4e/relu_3x3_reduce"
  type: "ReLU"
  bottom: "inception_4e/3x3_reduce"
  top: "inception_4e/3x3_reduce"
}
layer {
  name: "inception_4e/3x3"
  type: "Convolution"
  bottom: "inception_4e/3x3_reduce"
  top: "inception_4e/3x3"
  param {
    lr_mult: 1
    decay_mult: 1
  }
  param {
    lr_mult: 2
    decay_mult: 0
  }
  convolution_param {
    num_output: 320
    pad: 1
    kernel_size: 3
    weight_filler {
      type: "xavier"
      std: 0.03
    }
    bias_filler {
      type: "constant"
      value: 0.2
    }
  }
}
layer {
  name: "inception_4e/relu_3x3"
  type: "ReLU"
  bottom: "inception_4e/3x3"
  top: "inception_4e/3x3"
}
layer {
  name: "inception_4e/5x5_reduce"
  type: "Convolution"
  bottom: "inception_4d/output"
  top: "inception_4e/5x5_reduce"
  param {
    lr_mult: 1
    decay_mult: 1
  }
  param {
    lr_mult: 2
    decay_mult: 0
  }
  convolution_param {
    num_output: 32
    kernel_size: 1
    weight_filler {
      type: "xavier"
      std: 0.2
    }
    bias_filler {
      type: "constant"
      value: 0.2
    }
  }
}
layer {
  name: "inception_4e/relu_5x5_reduce"
  type: "ReLU"
  bottom: "inception_4e/5x5_reduce"
  top: "inception_4e/5x5_reduce"
}
layer {
  name: "inception_4e/5x5"
  type: "Convolution"
  bottom: "inception_4e/5x5_reduce"
  top: "inception_4e/
I0403 15:17:00.625690 11787 layer_factory.hpp:77] Creating layer data
I0403 15:17:00.626298 11787 net.cpp:91] Creating Layer data
I0403 15:17:00.626332 11787 net.cpp:399] data -> data
I0403 15:17:00.626386 11787 net.cpp:399] data -> label
I0403 15:17:00.626426 11787 data_transformer.cpp:25] Loading mean file from: /home/mohanty/data/final_dataset/lmdb/segmented-50-50/mean.binaryproto
I0403 15:17:00.628949 11790 db_lmdb.cpp:38] Opened lmdb /home/mohanty/data/final_dataset/lmdb/segmented-50-50/test_db
I0403 15:17:00.639580 11787 data_layer.cpp:41] output data size: 24,3,224,224
I0403 15:17:00.668292 11787 net.cpp:141] Setting up data
I0403 15:17:00.668386 11787 net.cpp:148] Top shape: 24 3 224 224 (3612672)
I0403 15:17:00.668408 11787 net.cpp:148] Top shape: 24 (24)
I0403 15:17:00.668438 11787 net.cpp:156] Memory required for data: 14450784
I0403 15:17:00.668467 11787 layer_factory.hpp:77] Creating layer label_data_1_split
I0403 15:17:00.668494 11787 net.cpp:91] Creating Layer label_data_1_split
I0403 15:17:00.668514 11787 net.cpp:425] label_data_1_split <- label
I0403 15:17:00.668545 11787 net.cpp:399] label_data_1_split -> label_data_1_split_0
I0403 15:17:00.668575 11787 net.cpp:399] label_data_1_split -> label_data_1_split_1
I0403 15:17:00.668596 11787 net.cpp:399] label_data_1_split -> label_data_1_split_2
I0403 15:17:00.668618 11787 net.cpp:399] label_data_1_split -> label_data_1_split_3
I0403 15:17:00.668639 11787 net.cpp:399] label_data_1_split -> label_data_1_split_4
I0403 15:17:00.668660 11787 net.cpp:399] label_data_1_split -> label_data_1_split_5
I0403 15:17:00.668680 11787 net.cpp:399] label_data_1_split -> label_data_1_split_6
I0403 15:17:00.668701 11787 net.cpp:399] label_data_1_split -> label_data_1_split_7
I0403 15:17:00.668731 11787 net.cpp:399] label_data_1_split -> label_data_1_split_8
I0403 15:17:00.668752 11787 net.cpp:399] label_data_1_split -> label_data_1_split_9
I0403 15:17:00.668872 11787 net.cpp:141] Setting up label_data_1_split
I0403 15:17:00.668896 11787 net.cpp:148] Top shape: 24 (24)
I0403 15:17:00.668915 11787 net.cpp:148] Top shape: 24 (24)
I0403 15:17:00.668931 11787 net.cpp:148] Top shape: 24 (24)
I0403 15:17:00.668947 11787 net.cpp:148] Top shape: 24 (24)
I0403 15:17:00.668963 11787 net.cpp:148] Top shape: 24 (24)
I0403 15:17:00.668979 11787 net.cpp:148] Top shape: 24 (24)
I0403 15:17:00.668995 11787 net.cpp:148] Top shape: 24 (24)
I0403 15:17:00.669010 11787 net.cpp:148] Top shape: 24 (24)
I0403 15:17:00.669026 11787 net.cpp:148] Top shape: 24 (24)
I0403 15:17:00.669044 11787 net.cpp:148] Top shape: 24 (24)
I0403 15:17:00.669082 11787 net.cpp:156] Memory required for data: 14451744
I0403 15:17:00.669100 11787 layer_factory.hpp:77] Creating layer conv1/7x7_s2
I0403 15:17:00.669131 11787 net.cpp:91] Creating Layer conv1/7x7_s2
I0403 15:17:00.669152 11787 net.cpp:425] conv1/7x7_s2 <- data
I0403 15:17:00.669172 11787 net.cpp:399] conv1/7x7_s2 -> conv1/7x7_s2
I0403 15:17:00.812160 11787 net.cpp:141] Setting up conv1/7x7_s2
I0403 15:17:00.812247 11787 net.cpp:148] Top shape: 24 64 112 112 (19267584)
I0403 15:17:00.812265 11787 net.cpp:156] Memory required for data: 91522080
I0403 15:17:00.812295 11787 layer_factory.hpp:77] Creating layer conv1/relu_7x7
I0403 15:17:00.812322 11787 net.cpp:91] Creating Layer conv1/relu_7x7
I0403 15:17:00.812341 11787 net.cpp:425] conv1/relu_7x7 <- conv1/7x7_s2
I0403 15:17:00.812361 11787 net.cpp:386] conv1/relu_7x7 -> conv1/7x7_s2 (in-place)
I0403 15:17:00.812628 11787 net.cpp:141] Setting up conv1/relu_7x7
I0403 15:17:00.812654 11787 net.cpp:148] Top shape: 24 64 112 112 (19267584)
I0403 15:17:00.812669 11787 net.cpp:156] Memory required for data: 168592416
I0403 15:17:00.812685 11787 layer_factory.hpp:77] Creating layer pool1/3x3_s2
I0403 15:17:00.812711 11787 net.cpp:91] Creating Layer pool1/3x3_s2
I0403 15:17:00.812727 11787 net.cpp:425] pool1/3x3_s2 <- conv1/7x7_s2
I0403 15:17:00.812746 11787 net.cpp:399] pool1/3x3_s2 -> pool1/3x3_s2
I0403 15:17:00.812819 11787 net.cpp:141] Setting up pool1/3x3_s2
I0403 15:17:00.812842 11787 net.cpp:148] Top shape: 24 64 56 56 (4816896)
I0403 15:17:00.812858 11787 net.cpp:156] Memory required for data: 187860000
I0403 15:17:00.812873 11787 layer_factory.hpp:77] Creating layer pool1/norm1
I0403 15:17:00.812896 11787 net.cpp:91] Creating Layer pool1/norm1
I0403 15:17:00.812913 11787 net.cpp:425] pool1/norm1 <- pool1/3x3_s2
I0403 15:17:00.812932 11787 net.cpp:399] pool1/norm1 -> pool1/norm1
I0403 15:17:00.813213 11787 net.cpp:141] Setting up pool1/norm1
I0403 15:17:00.813241 11787 net.cpp:148] Top shape: 24 64 56 56 (4816896)
I0403 15:17:00.813256 11787 net.cpp:156] Memory required for data: 207127584
I0403 15:17:00.813271 11787 layer_factory.hpp:77] Creating layer conv2/3x3_reduce
I0403 15:17:00.813294 11787 net.cpp:91] Creating Layer conv2/3x3_reduce
I0403 15:17:00.813311 11787 net.cpp:425] conv2/3x3_reduce <- pool1/norm1
I0403 15:17:00.813339 11787 net.cpp:399] conv2/3x3_reduce -> conv2/3x3_reduce
I0403 15:17:00.814730 11787 net.cpp:141] Setting up conv2/3x3_reduce
I0403 15:17:00.814760 11787 net.cpp:148] Top shape: 24 64 56 56 (4816896)
I0403 15:17:00.814777 11787 net.cpp:156] Memory required for data: 226395168
I0403 15:17:00.814798 11787 layer_factory.hpp:77] Creating layer conv2/relu_3x3_reduce
I0403 15:17:00.814817 11787 net.cpp:91] Creating Layer conv2/relu_3x3_reduce
I0403 15:17:00.814834 11787 net.cpp:425] conv2/relu_3x3_reduce <- conv2/3x3_reduce
I0403 15:17:00.814852 11787 net.cpp:386] conv2/relu_3x3_reduce -> conv2/3x3_reduce (in-place)
I0403 15:17:00.815104 11787 net.cpp:141] Setting up conv2/relu_3x3_reduce
I0403 15:17:00.815131 11787 net.cpp:148] Top shape: 24 64 56 56 (4816896)
I0403 15:17:00.815147 11787 net.cpp:156] Memory required for data: 245662752
I0403 15:17:00.815163 11787 layer_factory.hpp:77] Creating layer conv2/3x3
I0403 15:17:00.815186 11787 net.cpp:91] Creating Layer conv2/3x3
I0403 15:17:00.815203 11787 net.cpp:425] conv2/3x3 <- conv2/3x3_reduce
I0403 15:17:00.815222 11787 net.cpp:399] conv2/3x3 -> conv2/3x3
I0403 15:17:00.817512 11787 net.cpp:141] Setting up conv2/3x3
I0403 15:17:00.817543 11787 net.cpp:148] Top shape: 24 192 56 56 (14450688)
I0403 15:17:00.817560 11787 net.cpp:156] Memory required for data: 303465504
I0403 15:17:00.817582 11787 layer_factory.hpp:77] Creating layer conv2/relu_3x3
I0403 15:17:00.817605 11787 net.cpp:91] Creating Layer conv2/relu_3x3
I0403 15:17:00.817625 11787 net.cpp:425] conv2/relu_3x3 <- conv2/3x3
I0403 15:17:00.817642 11787 net.cpp:386] conv2/relu_3x3 -> conv2/3x3 (in-place)
I0403 15:17:00.817823 11787 net.cpp:141] Setting up conv2/relu_3x3
I0403 15:17:00.817849 11787 net.cpp:148] Top shape: 24 192 56 56 (14450688)
I0403 15:17:00.817895 11787 net.cpp:156] Memory required for data: 361268256
I0403 15:17:00.817912 11787 layer_factory.hpp:77] Creating layer conv2/norm2
I0403 15:17:00.817934 11787 net.cpp:91] Creating Layer conv2/norm2
I0403 15:17:00.817952 11787 net.cpp:425] conv2/norm2 <- conv2/3x3
I0403 15:17:00.817972 11787 net.cpp:399] conv2/norm2 -> conv2/norm2
I0403 15:17:00.818284 11787 net.cpp:141] Setting up conv2/norm2
I0403 15:17:00.818313 11787 net.cpp:148] Top shape: 24 192 56 56 (14450688)
I0403 15:17:00.818330 11787 net.cpp:156] Memory required for data: 419071008
I0403 15:17:00.818346 11787 layer_factory.hpp:77] Creating layer pool2/3x3_s2
I0403 15:17:00.818364 11787 net.cpp:91] Creating Layer pool2/3x3_s2
I0403 15:17:00.818380 11787 net.cpp:425] pool2/3x3_s2 <- conv2/norm2
I0403 15:17:00.818403 11787 net.cpp:399] pool2/3x3_s2 -> pool2/3x3_s2
I0403 15:17:00.818461 11787 net.cpp:141] Setting up pool2/3x3_s2
I0403 15:17:00.818485 11787 net.cpp:148] Top shape: 24 192 28 28 (3612672)
I0403 15:17:00.818500 11787 net.cpp:156] Memory required for data: 433521696
I0403 15:17:00.818516 11787 layer_factory.hpp:77] Creating layer pool2/3x3_s2_pool2/3x3_s2_0_split
I0403 15:17:00.818537 11787 net.cpp:91] Creating Layer pool2/3x3_s2_pool2/3x3_s2_0_split
I0403 15:17:00.818553 11787 net.cpp:425] pool2/3x3_s2_pool2/3x3_s2_0_split <- pool2/3x3_s2
I0403 15:17:00.818572 11787 net.cpp:399] pool2/3x3_s2_pool2/3x3_s2_0_split -> pool2/3x3_s2_pool2/3x3_s2_0_split_0
I0403 15:17:00.818593 11787 net.cpp:399] pool2/3x3_s2_pool2/3x3_s2_0_split -> pool2/3x3_s2_pool2/3x3_s2_0_split_1
I0403 15:17:00.818613 11787 net.cpp:399] pool2/3x3_s2_pool2/3x3_s2_0_split -> pool2/3x3_s2_pool2/3x3_s2_0_split_2
I0403 15:17:00.818635 11787 net.cpp:399] pool2/3x3_s2_pool2/3x3_s2_0_split -> pool2/3x3_s2_pool2/3x3_s2_0_split_3
I0403 15:17:00.818707 11787 net.cpp:141] Setting up pool2/3x3_s2_pool2/3x3_s2_0_split
I0403 15:17:00.818730 11787 net.cpp:148] Top shape: 24 192 28 28 (3612672)
I0403 15:17:00.818747 11787 net.cpp:148] Top shape: 24 192 28 28 (3612672)
I0403 15:17:00.818763 11787 net.cpp:148] Top shape: 24 192 28 28 (3612672)
I0403 15:17:00.818778 11787 net.cpp:148] Top shape: 24 192 28 28 (3612672)
I0403 15:17:00.818792 11787 net.cpp:156] Memory required for data: 491324448
I0403 15:17:00.818807 11787 layer_factory.hpp:77] Creating layer inception_3a/1x1
I0403 15:17:00.818830 11787 net.cpp:91] Creating Layer inception_3a/1x1
I0403 15:17:00.818848 11787 net.cpp:425] inception_3a/1x1 <- pool2/3x3_s2_pool2/3x3_s2_0_split_0
I0403 15:17:00.818871 11787 net.cpp:399] inception_3a/1x1 -> inception_3a/1x1
I0403 15:17:00.820441 11787 net.cpp:141] Setting up inception_3a/1x1
I0403 15:17:00.820472 11787 net.cpp:148] Top shape: 24 64 28 28 (1204224)
I0403 15:17:00.820489 11787 net.cpp:156] Memory required for data: 496141344
I0403 15:17:00.820509 11787 layer_factory.hpp:77] Creating layer inception_3a/relu_1x1
I0403 15:17:00.820528 11787 net.cpp:91] Creating Layer inception_3a/relu_1x1
I0403 15:17:00.820545 11787 net.cpp:425] inception_3a/relu_1x1 <- inception_3a/1x1
I0403 15:17:00.820566 11787 net.cpp:386] inception_3a/relu_1x1 -> inception_3a/1x1 (in-place)
I0403 15:17:00.820744 11787 net.cpp:141] Setting up inception_3a/relu_1x1
I0403 15:17:00.820770 11787 net.cpp:148] Top shape: 24 64 28 28 (1204224)
I0403 15:17:00.820786 11787 net.cpp:156] Memory required for data: 500958240
I0403 15:17:00.820801 11787 layer_factory.hpp:77] Creating layer inception_3a/3x3_reduce
I0403 15:17:00.820824 11787 net.cpp:91] Creating Layer inception_3a/3x3_reduce
I0403 15:17:00.820843 11787 net.cpp:425] inception_3a/3x3_reduce <- pool2/3x3_s2_pool2/3x3_s2_0_split_1
I0403 15:17:00.820864 11787 net.cpp:399] inception_3a/3x3_reduce -> inception_3a/3x3_reduce
I0403 15:17:00.822667 11787 net.cpp:141] Setting up inception_3a/3x3_reduce
I0403 15:17:00.822698 11787 net.cpp:148] Top shape: 24 96 28 28 (1806336)
I0403 15:17:00.822715 11787 net.cpp:156] Memory required for data: 508183584
I0403 15:17:00.822738 11787 layer_factory.hpp:77] Creating layer inception_3a/relu_3x3_reduce
I0403 15:17:00.822778 11787 net.cpp:91] Creating Layer inception_3a/relu_3x3_reduce
I0403 15:17:00.822798 11787 net.cpp:425] inception_3a/relu_3x3_reduce <- inception_3a/3x3_reduce
I0403 15:17:00.822816 11787 net.cpp:386] inception_3a/relu_3x3_reduce -> inception_3a/3x3_reduce (in-place)
I0403 15:17:00.823011 11787 net.cpp:141] Setting up inception_3a/relu_3x3_reduce
I0403 15:17:00.823040 11787 net.cpp:148] Top shape: 24 96 28 28 (1806336)
I0403 15:17:00.823057 11787 net.cpp:156] Memory required for data: 515408928
I0403 15:17:00.823073 11787 layer_factory.hpp:77] Creating layer inception_3a/3x3
I0403 15:17:00.823098 11787 net.cpp:91] Creating Layer inception_3a/3x3
I0403 15:17:00.823117 11787 net.cpp:425] inception_3a/3x3 <- inception_3a/3x3_reduce
I0403 15:17:00.823137 11787 net.cpp:399] inception_3a/3x3 -> inception_3a/3x3
I0403 15:17:00.824888 11787 net.cpp:141] Setting up inception_3a/3x3
I0403 15:17:00.824918 11787 net.cpp:148] Top shape: 24 128 28 28 (2408448)
I0403 15:17:00.824935 11787 net.cpp:156] Memory required for data: 525042720
I0403 15:17:00.824955 11787 layer_factory.hpp:77] Creating layer inception_3a/relu_3x3
I0403 15:17:00.824975 11787 net.cpp:91] Creating Layer inception_3a/relu_3x3
I0403 15:17:00.824995 11787 net.cpp:425] inception_3a/relu_3x3 <- inception_3a/3x3
I0403 15:17:00.825016 11787 net.cpp:386] inception_3a/relu_3x3 -> inception_3a/3x3 (in-place)
I0403 15:17:00.825306 11787 net.cpp:141] Setting up inception_3a/relu_3x3
I0403 15:17:00.825335 11787 net.cpp:148] Top shape: 24 128 28 28 (2408448)
I0403 15:17:00.825350 11787 net.cpp:156] Memory required for data: 534676512
I0403 15:17:00.825366 11787 layer_factory.hpp:77] Creating layer inception_3a/5x5_reduce
I0403 15:17:00.825390 11787 net.cpp:91] Creating Layer inception_3a/5x5_reduce
I0403 15:17:00.825408 11787 net.cpp:425] inception_3a/5x5_reduce <- pool2/3x3_s2_pool2/3x3_s2_0_split_2
I0403 15:17:00.825438 11787 net.cpp:399] inception_3a/5x5_reduce -> inception_3a/5x5_reduce
I0403 15:17:00.826447 11787 net.cpp:141] Setting up inception_3a/5x5_reduce
I0403 15:17:00.826478 11787 net.cpp:148] Top shape: 24 16 28 28 (301056)
I0403 15:17:00.826494 11787 net.cpp:156] Memory required for data: 535880736
I0403 15:17:00.826514 11787 layer_factory.hpp:77] Creating layer inception_3a/relu_5x5_reduce
I0403 15:17:00.826535 11787 net.cpp:91] Creating Layer inception_3a/relu_5x5_reduce
I0403 15:17:00.826555 11787 net.cpp:425] inception_3a/relu_5x5_reduce <- inception_3a/5x5_reduce
I0403 15:17:00.826572 11787 net.cpp:386] inception_3a/relu_5x5_reduce -> inception_3a/5x5_reduce (in-place)
I0403 15:17:00.826889 11787 net.cpp:141] Setting up inception_3a/relu_5x5_reduce
I0403 15:17:00.826916 11787 net.cpp:148] Top shape: 24 16 28 28 (301056)
I0403 15:17:00.826935 11787 net.cpp:156] Memory required for data: 537084960
I0403 15:17:00.826949 11787 layer_factory.hpp:77] Creating layer inception_3a/5x5
I0403 15:17:00.826974 11787 net.cpp:91] Creating Layer inception_3a/5x5
I0403 15:17:00.826994 11787 net.cpp:425] inception_3a/5x5 <- inception_3a/5x5_reduce
I0403 15:17:00.827014 11787 net.cpp:399] inception_3a/5x5 -> inception_3a/5x5
I0403 15:17:00.828081 11787 net.cpp:141] Setting up inception_3a/5x5
I0403 15:17:00.828111 11787 net.cpp:148] Top shape: 24 32 28 28 (602112)
I0403 15:17:00.828130 11787 net.cpp:156] Memory required for data: 539493408
I0403 15:17:00.828150 11787 layer_factory.hpp:77] Creating layer inception_3a/relu_5x5
I0403 15:17:00.828169 11787 net.cpp:91] Creating Layer inception_3a/relu_5x5
I0403 15:17:00.828186 11787 net.cpp:425] inception_3a/relu_5x5 <- inception_3a/5x5
I0403 15:17:00.828207 11787 net.cpp:386] inception_3a/relu_5x5 -> inception_3a/5x5 (in-place)
I0403 15:17:00.828392 11787 net.cpp:141] Setting up inception_3a/relu_5x5
I0403 15:17:00.828424 11787 net.cpp:148] Top shape: 24 32 28 28 (602112)
I0403 15:17:00.828443 11787 net.cpp:156] Memory required for data: 541901856
I0403 15:17:00.828457 11787 layer_factory.hpp:77] Creating layer inception_3a/pool
I0403 15:17:00.828480 11787 net.cpp:91] Creating Layer inception_3a/pool
I0403 15:17:00.828510 11787 net.cpp:425] inception_3a/pool <- pool2/3x3_s2_pool2/3x3_s2_0_split_3
I0403 15:17:00.828531 11787 net.cpp:399] inception_3a/pool -> inception_3a/pool
I0403 15:17:00.828593 11787 net.cpp:141] Setting up inception_3a/pool
I0403 15:17:00.828618 11787 net.cpp:148] Top shape: 24 192 28 28 (3612672)
I0403 15:17:00.828634 11787 net.cpp:156] Memory required for data: 556352544
I0403 15:17:00.828649 11787 layer_factory.hpp:77] Creating layer inception_3a/pool_proj
I0403 15:17:00.828672 11787 net.cpp:91] Creating Layer inception_3a/pool_proj
I0403 15:17:00.828691 11787 net.cpp:425] inception_3a/pool_proj <- inception_3a/pool
I0403 15:17:00.828722 11787 net.cpp:399] inception_3a/pool_proj -> inception_3a/pool_proj
I0403 15:17:00.829728 11787 net.cpp:141] Setting up inception_3a/pool_proj
I0403 15:17:00.829761 11787 net.cpp:148] Top shape: 24 32 28 28 (602112)
I0403 15:17:00.829779 11787 net.cpp:156] Memory required for data: 558760992
I0403 15:17:00.829803 11787 layer_factory.hpp:77] Creating layer inception_3a/relu_pool_proj
I0403 15:17:00.829826 11787 net.cpp:91] Creating Layer inception_3a/relu_pool_proj
I0403 15:17:00.829844 11787 net.cpp:425] inception_3a/relu_pool_proj <- inception_3a/pool_proj
I0403 15:17:00.829864 11787 net.cpp:386] inception_3a/relu_pool_proj -> inception_3a/pool_proj (in-place)
I0403 15:17:00.830153 11787 net.cpp:141] Setting up inception_3a/relu_pool_proj
I0403 15:17:00.830181 11787 net.cpp:148] Top shape: 24 32 28 28 (602112)
I0403 15:17:00.830198 11787 net.cpp:156] Memory required for data: 561169440
I0403 15:17:00.830214 11787 layer_factory.hpp:77] Creating layer inception_3a/output
I0403 15:17:00.830232 11787 net.cpp:91] Creating Layer inception_3a/output
I0403 15:17:00.830250 11787 net.cpp:425] inception_3a/output <- inception_3a/1x1
I0403 15:17:00.830267 11787 net.cpp:425] inception_3a/output <- inception_3a/3x3
I0403 15:17:00.830283 11787 net.cpp:425] inception_3a/output <- inception_3a/5x5
I0403 15:17:00.830299 11787 net.cpp:425] inception_3a/output <- inception_3a/pool_proj
I0403 15:17:00.830319 11787 net.cpp:399] inception_3a/output -> inception_3a/output
I0403 15:17:00.830368 11787 net.cpp:141] Setting up inception_3a/output
I0403 15:17:00.830395 11787 net.cpp:148] Top shape: 24 256 28 28 (4816896)
I0403 15:17:00.830416 11787 net.cpp:156] Memory required for data: 580437024
I0403 15:17:00.830435 11787 layer_factory.hpp:77] Creating layer inception_3a/output_inception_3a/output_0_split
I0403 15:17:00.830453 11787 net.cpp:91] Creating Layer inception_3a/output_inception_3a/output_0_split
I0403 15:17:00.830471 11787 net.cpp:425] inception_3a/output_inception_3a/output_0_split <- inception_3a/output
I0403 15:17:00.830488 11787 net.cpp:399] inception_3a/output_inception_3a/output_0_split -> inception_3a/output_inception_3a/output_0_split_0
I0403 15:17:00.830513 11787 net.cpp:399] inception_3a/output_inception_3a/output_0_split -> inception_3a/output_inception_3a/output_0_split_1
I0403 15:17:00.830538 11787 net.cpp:399] inception_3a/output_inception_3a/output_0_split -> inception_3a/output_inception_3a/output_0_split_2
I0403 15:17:00.830559 11787 net.cpp:399] inception_3a/output_inception_3a/output_0_split -> inception_3a/output_inception_3a/output_0_split_3
I0403 15:17:00.830636 11787 net.cpp:141] Setting up inception_3a/output_inception_3a/output_0_split
I0403 15:17:00.830663 11787 net.cpp:148] Top shape: 24 256 28 28 (4816896)
I0403 15:17:00.830683 11787 net.cpp:148] Top shape: 24 256 28 28 (4816896)
I0403 15:17:00.830700 11787 net.cpp:148] Top shape: 24 256 28 28 (4816896)
I0403 15:17:00.830718 11787 net.cpp:148] Top shape: 24 256 28 28 (4816896)
I0403 15:17:00.830732 11787 net.cpp:156] Memory required for data: 657507360
I0403 15:17:00.830747 11787 layer_factory.hpp:77] Creating layer inception_3b/1x1
I0403 15:17:00.830770 11787 net.cpp:91] Creating Layer inception_3b/1x1
I0403 15:17:00.830790 11787 net.cpp:425] inception_3b/1x1 <- inception_3a/output_inception_3a/output_0_split_0
I0403 15:17:00.830811 11787 net.cpp:399] inception_3b/1x1 -> inception_3b/1x1
I0403 15:17:00.832000 11787 net.cpp:141] Setting up inception_3b/1x1
I0403 15:17:00.832043 11787 net.cpp:148] Top shape: 24 128 28 28 (2408448)
I0403 15:17:00.832062 11787 net.cpp:156] Memory required for data: 667141152
I0403 15:17:00.832082 11787 layer_factory.hpp:77] Creating layer inception_3b/relu_1x1
I0403 15:17:00.832099 11787 net.cpp:91] Creating Layer inception_3b/relu_1x1
I0403 15:17:00.832118 11787 net.cpp:425] inception_3b/relu_1x1 <- inception_3b/1x1
I0403 15:17:00.832139 11787 net.cpp:386] inception_3b/relu_1x1 -> inception_3b/1x1 (in-place)
I0403 15:17:00.832317 11787 net.cpp:141] Setting up inception_3b/relu_1x1
I0403 15:17:00.832345 11787 net.cpp:148] Top shape: 24 128 28 28 (2408448)
I0403 15:17:00.832361 11787 net.cpp:156] Memory required for data: 676774944
I0403 15:17:00.832376 11787 layer_factory.hpp:77] Creating layer inception_3b/3x3_reduce
I0403 15:17:00.832401 11787 net.cpp:91] Creating Layer inception_3b/3x3_reduce
I0403 15:17:00.832440 11787 net.cpp:425] inception_3b/3x3_reduce <- inception_3a/output_inception_3a/output_0_split_1
I0403 15:17:00.832465 11787 net.cpp:399] inception_3b/3x3_reduce -> inception_3b/3x3_reduce
I0403 15:17:00.833649 11787 net.cpp:141] Setting up inception_3b/3x3_reduce
I0403 15:17:00.833679 11787 net.cpp:148] Top shape: 24 128 28 28 (2408448)
I0403 15:17:00.833695 11787 net.cpp:156] Memory required for data: 686408736
I0403 15:17:00.833714 11787 layer_factory.hpp:77] Creating layer inception_3b/relu_3x3_reduce
I0403 15:17:00.833734 11787 net.cpp:91] Creating Layer inception_3b/relu_3x3_reduce
I0403 15:17:00.833750 11787 net.cpp:425] inception_3b/relu_3x3_reduce <- inception_3b/3x3_reduce
I0403 15:17:00.833770 11787 net.cpp:386] inception_3b/relu_3x3_reduce -> inception_3b/3x3_reduce (in-place)
I0403 15:17:00.833963 11787 net.cpp:141] Setting up inception_3b/relu_3x3_reduce
I0403 15:17:00.833988 11787 net.cpp:148] Top shape: 24 128 28 28 (2408448)
I0403 15:17:00.834002 11787 net.cpp:156] Memory required for data: 696042528
I0403 15:17:00.834018 11787 layer_factory.hpp:77] Creating layer inception_3b/3x3
I0403 15:17:00.834044 11787 net.cpp:91] Creating Layer inception_3b/3x3
I0403 15:17:00.834063 11787 net.cpp:425] inception_3b/3x3 <- inception_3b/3x3_reduce
I0403 15:17:00.834081 11787 net.cpp:399] inception_3b/3x3 -> inception_3b/3x3
I0403 15:17:00.837028 11787 net.cpp:141] Setting up inception_3b/3x3
I0403 15:17:00.837056 11787 net.cpp:148] Top shape: 24 192 28 28 (3612672)
I0403 15:17:00.837074 11787 net.cpp:156] Memory required for data: 710493216
I0403 15:17:00.837092 11787 layer_factory.hpp:77] Creating layer inception_3b/relu_3x3
I0403 15:17:00.837110 11787 net.cpp:91] Creating Layer inception_3b/relu_3x3
I0403 15:17:00.837128 11787 net.cpp:425] inception_3b/relu_3x3 <- inception_3b/3x3
I0403 15:17:00.837147 11787 net.cpp:386] inception_3b/relu_3x3 -> inception_3b/3x3 (in-place)
I0403 15:17:00.837445 11787 net.cpp:141] Setting up inception_3b/relu_3x3
I0403 15:17:00.837472 11787 net.cpp:148] Top shape: 24 192 28 28 (3612672)
I0403 15:17:00.837488 11787 net.cpp:156] Memory required for data: 724943904
I0403 15:17:00.837505 11787 layer_factory.hpp:77] Creating layer inception_3b/5x5_reduce
I0403 15:17:00.837527 11787 net.cpp:91] Creating Layer inception_3b/5x5_reduce
I0403 15:17:00.837546 11787 net.cpp:425] inception_3b/5x5_reduce <- inception_3a/output_inception_3a/output_0_split_2
I0403 15:17:00.837570 11787 net.cpp:399] inception_3b/5x5_reduce -> inception_3b/5x5_reduce
I0403 15:17:00.838573 11787 net.cpp:141] Setting up inception_3b/5x5_reduce
I0403 15:17:00.838605 11787 net.cpp:148] Top shape: 24 32 28 28 (602112)
I0403 15:17:00.838621 11787 net.cpp:156] Memory required for data: 727352352
I0403 15:17:00.838640 11787 layer_factory.hpp:77] Creating layer inception_3b/relu_5x5_reduce
I0403 15:17:00.838659 11787 net.cpp:91] Creating Layer inception_3b/relu_5x5_reduce
I0403 15:17:00.838675 11787 net.cpp:425] inception_3b/relu_5x5_reduce <- inception_3b/5x5_reduce
I0403 15:17:00.838698 11787 net.cpp:386] inception_3b/relu_5x5_reduce -> inception_3b/5x5_reduce (in-place)
I0403 15:17:00.838887 11787 net.cpp:141] Setting up inception_3b/relu_5x5_reduce
I0403 15:17:00.838912 11787 net.cpp:148] Top shape: 24 32 28 28 (602112)
I0403 15:17:00.838927 11787 net.cpp:156] Memory required for data: 729760800
I0403 15:17:00.838943 11787 layer_factory.hpp:77] Creating layer inception_3b/5x5
I0403 15:17:00.838964 11787 net.cpp:91] Creating Layer inception_3b/5x5
I0403 15:17:00.838982 11787 net.cpp:425] inception_3b/5x5 <- inception_3b/5x5_reduce
I0403 15:17:00.839004 11787 net.cpp:399] inception_3b/5x5 -> inception_3b/5x5
I0403 15:17:00.841003 11787 net.cpp:141] Setting up inception_3b/5x5
I0403 15:17:00.841035 11787 net.cpp:148] Top shape: 24 96 28 28 (1806336)
I0403 15:17:00.841053 11787 net.cpp:156] Memory required for data: 736986144
I0403 15:17:00.841071 11787 layer_factory.hpp:77] Creating layer inception_3b/relu_5x5
I0403 15:17:00.841089 11787 net.cpp:91] Creating Layer inception_3b/relu_5x5
I0403 15:17:00.841106 11787 net.cpp:425] inception_3b/relu_5x5 <- inception_3b/5x5
I0403 15:17:00.841125 11787 net.cpp:386] inception_3b/relu_5x5 -> inception_3b/5x5 (in-place)
I0403 15:17:00.841323 11787 net.cpp:141] Setting up inception_3b/relu_5x5
I0403 15:17:00.841349 11787 net.cpp:148] Top shape: 24 96 28 28 (1806336)
I0403 15:17:00.841366 11787 net.cpp:156] Memory required for data: 744211488
I0403 15:17:00.841380 11787 layer_factory.hpp:77] Creating layer inception_3b/pool
I0403 15:17:00.841398 11787 net.cpp:91] Creating Layer inception_3b/pool
I0403 15:17:00.841419 11787 net.cpp:425] inception_3b/pool <- inception_3a/output_inception_3a/output_0_split_3
I0403 15:17:00.841439 11787 net.cpp:399] inception_3b/pool -> inception_3b/pool
I0403 15:17:00.841500 11787 net.cpp:141] Setting up inception_3b/pool
I0403 15:17:00.841523 11787 net.cpp:148] Top shape: 24 256 28 28 (4816896)
I0403 15:17:00.841537 11787 net.cpp:156] Memory required for data: 763479072
I0403 15:17:00.841552 11787 layer_factory.hpp:77] Creating layer inception_3b/pool_proj
I0403 15:17:00.841574 11787 net.cpp:91] Creating Layer inception_3b/pool_proj
I0403 15:17:00.841593 11787 net.cpp:425] inception_3b/pool_proj <- inception_3b/pool
I0403 15:17:00.841614 11787 net.cpp:399] inception_3b/pool_proj -> inception_3b/pool_proj
I0403 15:17:00.842669 11787 net.cpp:141] Setting up inception_3b/pool_proj
I0403 15:17:00.842697 11787 net.cpp:148] Top shape: 24 64 28 28 (1204224)
I0403 15:17:00.842715 11787 net.cpp:156] Memory required for data: 768295968
I0403 15:17:00.842732 11787 layer_factory.hpp:77] Creating layer inception_3b/relu_pool_proj
I0403 15:17:00.842752 11787 net.cpp:91] Creating Layer inception_3b/relu_pool_proj
I0403 15:17:00.842769 11787 net.cpp:425] inception_3b/relu_pool_proj <- inception_3b/pool_proj
I0403 15:17:00.842787 11787 net.cpp:386] inception_3b/relu_pool_proj -> inception_3b/pool_proj (in-place)
I0403 15:17:00.843183 11787 net.cpp:141] Setting up inception_3b/relu_pool_proj
I0403 15:17:00.843210 11787 net.cpp:148] Top shape: 24 64 28 28 (1204224)
I0403 15:17:00.843225 11787 net.cpp:156] Memory required for data: 773112864
I0403 15:17:00.843242 11787 layer_factory.hpp:77] Creating layer inception_3b/output
I0403 15:17:00.843260 11787 net.cpp:91] Creating Layer inception_3b/output
I0403 15:17:00.843277 11787 net.cpp:425] inception_3b/output <- inception_3b/1x1
I0403 15:17:00.843310 11787 net.cpp:425] inception_3b/output <- inception_3b/3x3
I0403 15:17:00.843330 11787 net.cpp:425] inception_3b/output <- inception_3b/5x5
I0403 15:17:00.843346 11787 net.cpp:425] inception_3b/output <- inception_3b/pool_proj
I0403 15:17:00.843363 11787 net.cpp:399] inception_3b/output -> inception_3b/output
I0403 15:17:00.843408 11787 net.cpp:141] Setting up inception_3b/output
I0403 15:17:00.843443 11787 net.cpp:148] Top shape: 24 480 28 28 (9031680)
I0403 15:17:00.843458 11787 net.cpp:156] Memory required for data: 809239584
I0403 15:17:00.843473 11787 layer_factory.hpp:77] Creating layer pool3/3x3_s2
I0403 15:17:00.843492 11787 net.cpp:91] Creating Layer pool3/3x3_s2
I0403 15:17:00.843508 11787 net.cpp:425] pool3/3x3_s2 <- inception_3b/output
I0403 15:17:00.843544 11787 net.cpp:399] pool3/3x3_s2 -> pool3/3x3_s2
I0403 15:17:00.843605 11787 net.cpp:141] Setting up pool3/3x3_s2
I0403 15:17:00.843629 11787 net.cpp:148] Top shape: 24 480 14 14 (2257920)
I0403 15:17:00.843643 11787 net.cpp:156] Memory required for data: 818271264
I0403 15:17:00.843658 11787 layer_factory.hpp:77] Creating layer pool3/3x3_s2_pool3/3x3_s2_0_split
I0403 15:17:00.843678 11787 net.cpp:91] Creating Layer pool3/3x3_s2_pool3/3x3_s2_0_split
I0403 15:17:00.843694 11787 net.cpp:425] pool3/3x3_s2_pool3/3x3_s2_0_split <- pool3/3x3_s2
I0403 15:17:00.843713 11787 net.cpp:399] pool3/3x3_s2_pool3/3x3_s2_0_split -> pool3/3x3_s2_pool3/3x3_s2_0_split_0
I0403 15:17:00.843735 11787 net.cpp:399] pool3/3x3_s2_pool3/3x3_s2_0_split -> pool3/3x3_s2_pool3/3x3_s2_0_split_1
I0403 15:17:00.843755 11787 net.cpp:399] pool3/3x3_s2_pool3/3x3_s2_0_split -> pool3/3x3_s2_pool3/3x3_s2_0_split_2
I0403 15:17:00.843775 11787 net.cpp:399] pool3/3x3_s2_pool3/3x3_s2_0_split -> pool3/3x3_s2_pool3/3x3_s2_0_split_3
I0403 15:17:00.843852 11787 net.cpp:141] Setting up pool3/3x3_s2_pool3/3x3_s2_0_split
I0403 15:17:00.843874 11787 net.cpp:148] Top shape: 24 480 14 14 (2257920)
I0403 15:17:00.843890 11787 net.cpp:148] Top shape: 24 480 14 14 (2257920)
I0403 15:17:00.843906 11787 net.cpp:148] Top shape: 24 480 14 14 (2257920)
I0403 15:17:00.843922 11787 net.cpp:148] Top shape: 24 480 14 14 (2257920)
I0403 15:17:00.843936 11787 net.cpp:156] Memory required for data: 854397984
I0403 15:17:00.843950 11787 layer_factory.hpp:77] Creating layer inception_4a/1x1
I0403 15:17:00.843971 11787 net.cpp:91] Creating Layer inception_4a/1x1
I0403 15:17:00.843988 11787 net.cpp:425] inception_4a/1x1 <- pool3/3x3_s2_pool3/3x3_s2_0_split_0
I0403 15:17:00.844013 11787 net.cpp:399] inception_4a/1x1 -> inception_4a/1x1
I0403 15:17:00.845671 11787 net.cpp:141] Setting up inception_4a/1x1
I0403 15:17:00.845705 11787 net.cpp:148] Top shape: 24 192 14 14 (903168)
I0403 15:17:00.845722 11787 net.cpp:156] Memory required for data: 858010656
I0403 15:17:00.845742 11787 layer_factory.hpp:77] Creating layer inception_4a/relu_1x1
I0403 15:17:00.845762 11787 net.cpp:91] Creating Layer inception_4a/relu_1x1
I0403 15:17:00.845778 11787 net.cpp:425] inception_4a/relu_1x1 <- inception_4a/1x1
I0403 15:17:00.845796 11787 net.cpp:386] inception_4a/relu_1x1 -> inception_4a/1x1 (in-place)
I0403 15:17:00.845978 11787 net.cpp:141] Setting up inception_4a/relu_1x1
I0403 15:17:00.846006 11787 net.cpp:148] Top shape: 24 192 14 14 (903168)
I0403 15:17:00.846024 11787 net.cpp:156] Memory required for data: 861623328
I0403 15:17:00.846040 11787 layer_factory.hpp:77] Creating layer inception_4a/3x3_reduce
I0403 15:17:00.846062 11787 net.cpp:91] Creating Layer inception_4a/3x3_reduce
I0403 15:17:00.846079 11787 net.cpp:425] inception_4a/3x3_reduce <- pool3/3x3_s2_pool3/3x3_s2_0_split_1
I0403 15:17:00.846101 11787 net.cpp:399] inception_4a/3x3_reduce -> inception_4a/3x3_reduce
I0403 15:17:00.847451 11787 net.cpp:141] Setting up inception_4a/3x3_reduce
I0403 15:17:00.847481 11787 net.cpp:148] Top shape: 24 96 14 14 (451584)
I0403 15:17:00.847496 11787 net.cpp:156] Memory required for data: 863429664
I0403 15:17:00.847524 11787 layer_factory.hpp:77] Creating layer inception_4a/relu_3x3_reduce
I0403 15:17:00.847544 11787 net.cpp:91] Creating Layer inception_4a/relu_3x3_reduce
I0403 15:17:00.847561 11787 net.cpp:425] inception_4a/relu_3x3_reduce <- inception_4a/3x3_reduce
I0403 15:17:00.847579 11787 net.cpp:386] inception_4a/relu_3x3_reduce -> inception_4a/3x3_reduce (in-place)
I0403 15:17:00.847761 11787 net.cpp:141] Setting up inception_4a/relu_3x3_reduce
I0403 15:17:00.847789 11787 net.cpp:148] Top shape: 24 96 14 14 (451584)
I0403 15:17:00.847805 11787 net.cpp:156] Memory required for data: 865236000
I0403 15:17:00.847821 11787 layer_factory.hpp:77] Creating layer inception_4a/3x3
I0403 15:17:00.847844 11787 net.cpp:91] Creating Layer inception_4a/3x3
I0403 15:17:00.847862 11787 net.cpp:425] inception_4a/3x3 <- inception_4a/3x3_reduce
I0403 15:17:00.847882 11787 net.cpp:399] inception_4a/3x3 -> inception_4a/3x3
I0403 15:17:00.850653 11787 net.cpp:141] Setting up inception_4a/3x3
I0403 15:17:00.850683 11787 net.cpp:148] Top shape: 24 208 14 14 (978432)
I0403 15:17:00.850699 11787 net.cpp:156] Memory required for data: 869149728
I0403 15:17:00.850719 11787 layer_factory.hpp:77] Creating layer inception_4a/relu_3x3
I0403 15:17:00.850739 11787 net.cpp:91] Creating Layer inception_4a/relu_3x3
I0403 15:17:00.850755 11787 net.cpp:425] inception_4a/relu_3x3 <- inception_4a/3x3
I0403 15:17:00.850776 11787 net.cpp:386] inception_4a/relu_3x3 -> inception_4a/3x3 (in-place)
I0403 15:17:00.851065 11787 net.cpp:141] Setting up inception_4a/relu_3x3
I0403 15:17:00.851092 11787 net.cpp:148] Top shape: 24 208 14 14 (978432)
I0403 15:17:00.851107 11787 net.cpp:156] Memory required for data: 873063456
I0403 15:17:00.851124 11787 layer_factory.hpp:77] Creating layer inception_4a/5x5_reduce
I0403 15:17:00.851146 11787 net.cpp:91] Creating Layer inception_4a/5x5_reduce
I0403 15:17:00.851164 11787 net.cpp:425] inception_4a/5x5_reduce <- pool3/3x3_s2_pool3/3x3_s2_0_split_2
I0403 15:17:00.851188 11787 net.cpp:399] inception_4a/5x5_reduce -> inception_4a/5x5_reduce
I0403 15:17:00.852243 11787 net.cpp:141] Setting up inception_4a/5x5_reduce
I0403 15:17:00.852272 11787 net.cpp:148] Top shape: 24 16 14 14 (75264)
I0403 15:17:00.852289 11787 net.cpp:156] Memory required for data: 873364512
I0403 15:17:00.852308 11787 layer_factory.hpp:77] Creating layer inception_4a/relu_5x5_reduce
I0403 15:17:00.852326 11787 net.cpp:91] Creating Layer inception_4a/relu_5x5_reduce
I0403 15:17:00.852344 11787 net.cpp:425] inception_4a/relu_5x5_reduce <- inception_4a/5x5_reduce
I0403 15:17:00.852365 11787 net.cpp:386] inception_4a/relu_5x5_reduce -> inception_4a/5x5_reduce (in-place)
I0403 15:17:00.852569 11787 net.cpp:141] Setting up inception_4a/relu_5x5_reduce
I0403 15:17:00.852596 11787 net.cpp:148] Top shape: 24 16 14 14 (75264)
I0403 15:17:00.852612 11787 net.cpp:156] Memory required for data: 873665568
I0403 15:17:00.852627 11787 layer_factory.hpp:77] Creating layer inception_4a/5x5
I0403 15:17:00.852651 11787 net.cpp:91] Creating Layer inception_4a/5x5
I0403 15:17:00.852669 11787 net.cpp:425] inception_4a/5x5 <- inception_4a/5x5_reduce
I0403 15:17:00.852694 11787 net.cpp:399] inception_4a/5x5 -> inception_4a/5x5
I0403 15:17:00.853833 11787 net.cpp:141] Setting up inception_4a/5x5
I0403 15:17:00.853862 11787 net.cpp:148] Top shape: 24 48 14 14 (225792)
I0403 15:17:00.853878 11787 net.cpp:156] Memory required for data: 874568736
I0403 15:17:00.853896 11787 layer_factory.hpp:77] Creating layer inception_4a/relu_5x5
I0403 15:17:00.853917 11787 net.cpp:91] Creating Layer inception_4a/relu_5x5
I0403 15:17:00.853935 11787 net.cpp:425] inception_4a/relu_5x5 <- inception_4a/5x5
I0403 15:17:00.853953 11787 net.cpp:386] inception_4a/relu_5x5 -> inception_4a/5x5 (in-place)
I0403 15:17:00.854136 11787 net.cpp:141] Setting up inception_4a/relu_5x5
I0403 15:17:00.854166 11787 net.cpp:148] Top shape: 24 48 14 14 (225792)
I0403 15:17:00.854182 11787 net.cpp:156] Memory required for data: 875471904
I0403 15:17:00.854197 11787 layer_factory.hpp:77] Creating layer inception_4a/pool
I0403 15:17:00.854213 11787 net.cpp:91] Creating Layer inception_4a/pool
I0403 15:17:00.854230 11787 net.cpp:425] inception_4a/pool <- pool3/3x3_s2_pool3/3x3_s2_0_split_3
I0403 15:17:00.854249 11787 net.cpp:399] inception_4a/pool -> inception_4a/pool
I0403 15:17:00.854312 11787 net.cpp:141] Setting up inception_4a/pool
I0403 15:17:00.854336 11787 net.cpp:148] Top shape: 24 480 14 14 (2257920)
I0403 15:17:00.854353 11787 net.cpp:156] Memory required for data: 884503584
I0403 15:17:00.854367 11787 layer_factory.hpp:77] Creating layer inception_4a/pool_proj
I0403 15:17:00.854389 11787 net.cpp:91] Creating Layer inception_4a/pool_proj
I0403 15:17:00.854408 11787 net.cpp:425] inception_4a/pool_proj <- inception_4a/pool
I0403 15:17:00.854434 11787 net.cpp:399] inception_4a/pool_proj -> inception_4a/pool_proj
I0403 15:17:00.855634 11787 net.cpp:141] Setting up inception_4a/pool_proj
I0403 15:17:00.855664 11787 net.cpp:148] Top shape: 24 64 14 14 (301056)
I0403 15:17:00.855696 11787 net.cpp:156] Memory required for data: 885707808
I0403 15:17:00.855716 11787 layer_factory.hpp:77] Creating layer inception_4a/relu_pool_proj
I0403 15:17:00.855738 11787 net.cpp:91] Creating Layer inception_4a/relu_pool_proj
I0403 15:17:00.855756 11787 net.cpp:425] inception_4a/relu_pool_proj <- inception_4a/pool_proj
I0403 15:17:00.855774 11787 net.cpp:386] inception_4a/relu_pool_proj -> inception_4a/pool_proj (in-place)
I0403 15:17:00.856065 11787 net.cpp:141] Setting up inception_4a/relu_pool_proj
I0403 15:17:00.856092 11787 net.cpp:148] Top shape: 24 64 14 14 (301056)
I0403 15:17:00.856107 11787 net.cpp:156] Memory required for data: 886912032
I0403 15:17:00.856123 11787 layer_factory.hpp:77] Creating layer inception_4a/output
I0403 15:17:00.856143 11787 net.cpp:91] Creating Layer inception_4a/output
I0403 15:17:00.856161 11787 net.cpp:425] inception_4a/output <- inception_4a/1x1
I0403 15:17:00.856178 11787 net.cpp:425] inception_4a/output <- inception_4a/3x3
I0403 15:17:00.856195 11787 net.cpp:425] inception_4a/output <- inception_4a/5x5
I0403 15:17:00.856212 11787 net.cpp:425] inception_4a/output <- inception_4a/pool_proj
I0403 15:17:00.856230 11787 net.cpp:399] inception_4a/output -> inception_4a/output
I0403 15:17:00.856281 11787 net.cpp:141] Setting up inception_4a/output
I0403 15:17:00.856303 11787 net.cpp:148] Top shape: 24 512 14 14 (2408448)
I0403 15:17:00.856318 11787 net.cpp:156] Memory required for data: 896545824
I0403 15:17:00.856334 11787 layer_factory.hpp:77] Creating layer inception_4a/output_inception_4a/output_0_split
I0403 15:17:00.856353 11787 net.cpp:91] Creating Layer inception_4a/output_inception_4a/output_0_split
I0403 15:17:00.856369 11787 net.cpp:425] inception_4a/output_inception_4a/output_0_split <- inception_4a/output
I0403 15:17:00.856389 11787 net.cpp:399] inception_4a/output_inception_4a/output_0_split -> inception_4a/output_inception_4a/output_0_split_0
I0403 15:17:00.856415 11787 net.cpp:399] inception_4a/output_inception_4a/output_0_split -> inception_4a/output_inception_4a/output_0_split_1
I0403 15:17:00.856448 11787 net.cpp:399] inception_4a/output_inception_4a/output_0_split -> inception_4a/output_inception_4a/output_0_split_2
I0403 15:17:00.856472 11787 net.cpp:399] inception_4a/output_inception_4a/output_0_split -> inception_4a/output_inception_4a/output_0_split_3
I0403 15:17:00.856494 11787 net.cpp:399] inception_4a/output_inception_4a/output_0_split -> inception_4a/output_inception_4a/output_0_split_4
I0403 15:17:00.856588 11787 net.cpp:141] Setting up inception_4a/output_inception_4a/output_0_split
I0403 15:17:00.856612 11787 net.cpp:148] Top shape: 24 512 14 14 (2408448)
I0403 15:17:00.856629 11787 net.cpp:148] Top shape: 24 512 14 14 (2408448)
I0403 15:17:00.856645 11787 net.cpp:148] Top shape: 24 512 14 14 (2408448)
I0403 15:17:00.856662 11787 net.cpp:148] Top shape: 24 512 14 14 (2408448)
I0403 15:17:00.856676 11787 net.cpp:148] Top shape: 24 512 14 14 (2408448)
I0403 15:17:00.856691 11787 net.cpp:156] Memory required for data: 944714784
I0403 15:17:00.856715 11787 layer_factory.hpp:77] Creating layer loss1/ave_pool
I0403 15:17:00.856732 11787 net.cpp:91] Creating Layer loss1/ave_pool
I0403 15:17:00.856748 11787 net.cpp:425] loss1/ave_pool <- inception_4a/output_inception_4a/output_0_split_0
I0403 15:17:00.856770 11787 net.cpp:399] loss1/ave_pool -> loss1/ave_pool
I0403 15:17:00.856986 11787 net.cpp:141] Setting up loss1/ave_pool
I0403 15:17:00.857012 11787 net.cpp:148] Top shape: 24 512 4 4 (196608)
I0403 15:17:00.857028 11787 net.cpp:156] Memory required for data: 945501216
I0403 15:17:00.857043 11787 layer_factory.hpp:77] Creating layer loss1/conv
I0403 15:17:00.857066 11787 net.cpp:91] Creating Layer loss1/conv
I0403 15:17:00.857084 11787 net.cpp:425] loss1/conv <- loss1/ave_pool
I0403 15:17:00.857103 11787 net.cpp:399] loss1/conv -> loss1/conv
I0403 15:17:00.858557 11787 net.cpp:141] Setting up loss1/conv
I0403 15:17:00.858587 11787 net.cpp:148] Top shape: 24 128 4 4 (49152)
I0403 15:17:00.858619 11787 net.cpp:156] Memory required for data: 945697824
I0403 15:17:00.858640 11787 layer_factory.hpp:77] Creating layer loss1/relu_conv
I0403 15:17:00.858659 11787 net.cpp:91] Creating Layer loss1/relu_conv
I0403 15:17:00.858676 11787 net.cpp:425] loss1/relu_conv <- loss1/conv
I0403 15:17:00.858697 11787 net.cpp:386] loss1/relu_conv -> loss1/conv (in-place)
I0403 15:17:00.858988 11787 net.cpp:141] Setting up loss1/relu_conv
I0403 15:17:00.859015 11787 net.cpp:148] Top shape: 24 128 4 4 (49152)
I0403 15:17:00.859032 11787 net.cpp:156] Memory required for data: 945894432
I0403 15:17:00.859047 11787 layer_factory.hpp:77] Creating layer loss1/fc
I0403 15:17:00.859071 11787 net.cpp:91] Creating Layer loss1/fc
I0403 15:17:00.859091 11787 net.cpp:425] loss1/fc <- loss1/conv
I0403 15:17:00.859112 11787 net.cpp:399] loss1/fc -> loss1/fc
I0403 15:17:00.877027 11787 net.cpp:141] Setting up loss1/fc
I0403 15:17:00.877068 11787 net.cpp:148] Top shape: 24 1024 (24576)
I0403 15:17:00.877085 11787 net.cpp:156] Memory required for data: 945992736
I0403 15:17:00.877105 11787 layer_factory.hpp:77] Creating layer loss1/relu_fc
I0403 15:17:00.877125 11787 net.cpp:91] Creating Layer loss1/relu_fc
I0403 15:17:00.877141 11787 net.cpp:425] loss1/relu_fc <- loss1/fc
I0403 15:17:00.877158 11787 net.cpp:386] loss1/relu_fc -> loss1/fc (in-place)
I0403 15:17:00.877347 11787 net.cpp:141] Setting up loss1/relu_fc
I0403 15:17:00.877372 11787 net.cpp:148] Top shape: 24 1024 (24576)
I0403 15:17:00.877388 11787 net.cpp:156] Memory required for data: 946091040
I0403 15:17:00.877403 11787 layer_factory.hpp:77] Creating layer loss1/drop_fc
I0403 15:17:00.877435 11787 net.cpp:91] Creating Layer loss1/drop_fc
I0403 15:17:00.877454 11787 net.cpp:425] loss1/drop_fc <- loss1/fc
I0403 15:17:00.877473 11787 net.cpp:386] loss1/drop_fc -> loss1/fc (in-place)
I0403 15:17:00.877524 11787 net.cpp:141] Setting up loss1/drop_fc
I0403 15:17:00.877547 11787 net.cpp:148] Top shape: 24 1024 (24576)
I0403 15:17:00.877562 11787 net.cpp:156] Memory required for data: 946189344
I0403 15:17:00.877578 11787 layer_factory.hpp:77] Creating layer loss1/classifier_plantvillage
I0403 15:17:00.877600 11787 net.cpp:91] Creating Layer loss1/classifier_plantvillage
I0403 15:17:00.877617 11787 net.cpp:425] loss1/classifier_plantvillage <- loss1/fc
I0403 15:17:00.877635 11787 net.cpp:399] loss1/classifier_plantvillage -> loss1/classifier_plantvillage
I0403 15:17:00.878540 11787 net.cpp:141] Setting up loss1/classifier_plantvillage
I0403 15:17:00.878571 11787 net.cpp:148] Top shape: 24 38 (912)
I0403 15:17:00.878587 11787 net.cpp:156] Memory required for data: 946192992
I0403 15:17:00.878605 11787 layer_factory.hpp:77] Creating layer loss1/classifier_plantvillage_loss1/classifier_plantvillage_0_split
I0403 15:17:00.878624 11787 net.cpp:91] Creating Layer loss1/classifier_plantvillage_loss1/classifier_plantvillage_0_split
I0403 15:17:00.878641 11787 net.cpp:425] loss1/classifier_plantvillage_loss1/classifier_plantvillage_0_split <- loss1/classifier_plantvillage
I0403 15:17:00.878659 11787 net.cpp:399] loss1/classifier_plantvillage_loss1/classifier_plantvillage_0_split -> loss1/classifier_plantvillage_loss1/classifier_plantvillage_0_split_0
I0403 15:17:00.878682 11787 net.cpp:399] loss1/classifier_plantvillage_loss1/classifier_plantvillage_0_split -> loss1/classifier_plantvillage_loss1/classifier_plantvillage_0_split_1
I0403 15:17:00.878705 11787 net.cpp:399] loss1/classifier_plantvillage_loss1/classifier_plantvillage_0_split -> loss1/classifier_plantvillage_loss1/classifier_plantvillage_0_split_2
I0403 15:17:00.878770 11787 net.cpp:141] Setting up loss1/classifier_plantvillage_loss1/classifier_plantvillage_0_split
I0403 15:17:00.878793 11787 net.cpp:148] Top shape: 24 38 (912)
I0403 15:17:00.878808 11787 net.cpp:148] Top shape: 24 38 (912)
I0403 15:17:00.878824 11787 net.cpp:148] Top shape: 24 38 (912)
I0403 15:17:00.878839 11787 net.cpp:156] Memory required for data: 946203936
I0403 15:17:00.878854 11787 layer_factory.hpp:77] Creating layer inception_4b/1x1
I0403 15:17:00.878875 11787 net.cpp:91] Creating Layer inception_4b/1x1
I0403 15:17:00.878906 11787 net.cpp:425] inception_4b/1x1 <- inception_4a/output_inception_4a/output_0_split_1
I0403 15:17:00.878931 11787 net.cpp:399] inception_4b/1x1 -> inception_4b/1x1
I0403 15:17:00.880590 11787 net.cpp:141] Setting up inception_4b/1x1
I0403 15:17:00.880620 11787 net.cpp:148] Top shape: 24 160 14 14 (752640)
I0403 15:17:00.880635 11787 net.cpp:156] Memory required for data: 949214496
I0403 15:17:00.880655 11787 layer_factory.hpp:77] Creating layer inception_4b/relu_1x1
I0403 15:17:00.880672 11787 net.cpp:91] Creating Layer inception_4b/relu_1x1
I0403 15:17:00.880689 11787 net.cpp:425] inception_4b/relu_1x1 <- inception_4b/1x1
I0403 15:17:00.880715 11787 net.cpp:386] inception_4b/relu_1x1 -> inception_4b/1x1 (in-place)
I0403 15:17:00.880893 11787 net.cpp:141] Setting up inception_4b/relu_1x1
I0403 15:17:00.880919 11787 net.cpp:148] Top shape: 24 160 14 14 (752640)
I0403 15:17:00.880934 11787 net.cpp:156] Memory required for data: 952225056
I0403 15:17:00.880949 11787 layer_factory.hpp:77] Creating layer inception_4b/3x3_reduce
I0403 15:17:00.880972 11787 net.cpp:91] Creating Layer inception_4b/3x3_reduce
I0403 15:17:00.880990 11787 net.cpp:425] inception_4b/3x3_reduce <- inception_4a/output_inception_4a/output_0_split_2
I0403 15:17:00.881014 11787 net.cpp:399] inception_4b/3x3_reduce -> inception_4b/3x3_reduce
I0403 15:17:00.882370 11787 net.cpp:141] Setting up inception_4b/3x3_reduce
I0403 15:17:00.882398 11787 net.cpp:148] Top shape: 24 112 14 14 (526848)
I0403 15:17:00.882426 11787 net.cpp:156] Memory required for data: 954332448
I0403 15:17:00.882447 11787 layer_factory.hpp:77] Creating layer inception_4b/relu_3x3_reduce
I0403 15:17:00.882469 11787 net.cpp:91] Creating Layer inception_4b/relu_3x3_reduce
I0403 15:17:00.882488 11787 net.cpp:425] inception_4b/relu_3x3_reduce <- inception_4b/3x3_reduce
I0403 15:17:00.882504 11787 net.cpp:386] inception_4b/relu_3x3_reduce -> inception_4b/3x3_reduce (in-place)
I0403 15:17:00.882793 11787 net.cpp:141] Setting up inception_4b/relu_3x3_reduce
I0403 15:17:00.882819 11787 net.cpp:148] Top shape: 24 112 14 14 (526848)
I0403 15:17:00.882834 11787 net.cpp:156] Memory required for data: 956439840
I0403 15:17:00.882849 11787 layer_factory.hpp:77] Creating layer inception_4b/3x3
I0403 15:17:00.882871 11787 net.cpp:91] Creating Layer inception_4b/3x3
I0403 15:17:00.882889 11787 net.cpp:425] inception_4b/3x3 <- inception_4b/3x3_reduce
I0403 15:17:00.882911 11787 net.cpp:399] inception_4b/3x3 -> inception_4b/3x3
I0403 15:17:00.885885 11787 net.cpp:141] Setting up inception_4b/3x3
I0403 15:17:00.885916 11787 net.cpp:148] Top shape: 24 224 14 14 (1053696)
I0403 15:17:00.885933 11787 net.cpp:156] Memory required for data: 960654624
I0403 15:17:00.885952 11787 layer_factory.hpp:77] Creating layer inception_4b/relu_3x3
I0403 15:17:00.885970 11787 net.cpp:91] Creating Layer inception_4b/relu_3x3
I0403 15:17:00.885987 11787 net.cpp:425] inception_4b/relu_3x3 <- inception_4b/3x3
I0403 15:17:00.886005 11787 net.cpp:386] inception_4b/relu_3x3 -> inception_4b/3x3 (in-place)
I0403 15:17:00.886188 11787 net.cpp:141] Setting up inception_4b/relu_3x3
I0403 15:17:00.886215 11787 net.cpp:148] Top shape: 24 224 14 14 (1053696)
I0403 15:17:00.886230 11787 net.cpp:156] Memory required for data: 964869408
I0403 15:17:00.886245 11787 layer_factory.hpp:77] Creating layer inception_4b/5x5_reduce
I0403 15:17:00.886268 11787 net.cpp:91] Creating Layer inception_4b/5x5_reduce
I0403 15:17:00.886286 11787 net.cpp:425] inception_4b/5x5_reduce <- inception_4a/output_inception_4a/output_0_split_3
I0403 15:17:00.886310 11787 net.cpp:399] inception_4b/5x5_reduce -> inception_4b/5x5_reduce
I0403 15:17:00.887390 11787 net.cpp:141] Setting up inception_4b/5x5_reduce
I0403 15:17:00.887423 11787 net.cpp:148] Top shape: 24 24 14 14 (112896)
I0403 15:17:00.887439 11787 net.cpp:156] Memory required for data: 965320992
I0403 15:17:00.887459 11787 layer_factory.hpp:77] Creating layer inception_4b/relu_5x5_reduce
I0403 15:17:00.887481 11787 net.cpp:91] Creating Layer inception_4b/relu_5x5_reduce
I0403 15:17:00.887512 11787 net.cpp:425] inception_4b/relu_5x5_reduce <- inception_4b/5x5_reduce
I0403 15:17:00.887531 11787 net.cpp:386] inception_4b/relu_5x5_reduce -> inception_4b/5x5_reduce (in-place)
I0403 15:17:00.887713 11787 net.cpp:141] Setting up inception_4b/relu_5x5_reduce
I0403 15:17:00.887738 11787 net.cpp:148] Top shape: 24 24 14 14 (112896)
I0403 15:17:00.887753 11787 net.cpp:156] Memory required for data: 965772576
I0403 15:17:00.887768 11787 layer_factory.hpp:77] Creating layer inception_4b/5x5
I0403 15:17:00.887794 11787 net.cpp:91] Creating Layer inception_4b/5x5
I0403 15:17:00.887812 11787 net.cpp:425] inception_4b/5x5 <- inception_4b/5x5_reduce
I0403 15:17:00.887832 11787 net.cpp:399] inception_4b/5x5 -> inception_4b/5x5
I0403 15:17:00.889055 11787 net.cpp:141] Setting up inception_4b/5x5
I0403 15:17:00.889083 11787 net.cpp:148] Top shape: 24 64 14 14 (301056)
I0403 15:17:00.889099 11787 net.cpp:156] Memory required for data: 966976800
I0403 15:17:00.889117 11787 layer_factory.hpp:77] Creating layer inception_4b/relu_5x5
I0403 15:17:00.889135 11787 net.cpp:91] Creating Layer inception_4b/relu_5x5
I0403 15:17:00.889153 11787 net.cpp:425] inception_4b/relu_5x5 <- inception_4b/5x5
I0403 15:17:00.889173 11787 net.cpp:386] inception_4b/relu_5x5 -> inception_4b/5x5 (in-place)
I0403 15:17:00.889461 11787 net.cpp:141] Setting up inception_4b/relu_5x5
I0403 15:17:00.889488 11787 net.cpp:148] Top shape: 24 64 14 14 (301056)
I0403 15:17:00.889504 11787 net.cpp:156] Memory required for data: 968181024
I0403 15:17:00.889520 11787 layer_factory.hpp:77] Creating layer inception_4b/pool
I0403 15:17:00.889539 11787 net.cpp:91] Creating Layer inception_4b/pool
I0403 15:17:00.889556 11787 net.cpp:425] inception_4b/pool <- inception_4a/output_inception_4a/output_0_split_4
I0403 15:17:00.889577 11787 net.cpp:399] inception_4b/pool -> inception_4b/pool
I0403 15:17:00.889642 11787 net.cpp:141] Setting up inception_4b/pool
I0403 15:17:00.889667 11787 net.cpp:148] Top shape: 24 512 14 14 (2408448)
I0403 15:17:00.889681 11787 net.cpp:156] Memory required for data: 977814816
I0403 15:17:00.889695 11787 layer_factory.hpp:77] Creating layer inception_4b/pool_proj
I0403 15:17:00.889719 11787 net.cpp:91] Creating Layer inception_4b/pool_proj
I0403 15:17:00.889737 11787 net.cpp:425] inception_4b/pool_proj <- inception_4b/pool
I0403 15:17:00.889757 11787 net.cpp:399] inception_4b/pool_proj -> inception_4b/pool_proj
I0403 15:17:00.890946 11787 net.cpp:141] Setting up inception_4b/pool_proj
I0403 15:17:00.890974 11787 net.cpp:148] Top shape: 24 64 14 14 (301056)
I0403 15:17:00.890990 11787 net.cpp:156] Memory required for data: 979019040
I0403 15:17:00.891008 11787 layer_factory.hpp:77] Creating layer inception_4b/relu_pool_proj
I0403 15:17:00.891028 11787 net.cpp:91] Creating Layer inception_4b/relu_pool_proj
I0403 15:17:00.891046 11787 net.cpp:425] inception_4b/relu_pool_proj <- inception_4b/pool_proj
I0403 15:17:00.891067 11787 net.cpp:386] inception_4b/relu_pool_proj -> inception_4b/pool_proj (in-place)
I0403 15:17:00.891248 11787 net.cpp:141] Setting up inception_4b/relu_pool_proj
I0403 15:17:00.891273 11787 net.cpp:148] Top shape: 24 64 14 14 (301056)
I0403 15:17:00.891288 11787 net.cpp:156] Memory required for data: 980223264
I0403 15:17:00.891304 11787 layer_factory.hpp:77] Creating layer inception_4b/output
I0403 15:17:00.891324 11787 net.cpp:91] Creating Layer inception_4b/output
I0403 15:17:00.891341 11787 net.cpp:425] inception_4b/output <- inception_4b/1x1
I0403 15:17:00.891360 11787 net.cpp:425] inception_4b/output <- inception_4b/3x3
I0403 15:17:00.891376 11787 net.cpp:425] inception_4b/output <- inception_4b/5x5
I0403 15:17:00.891392 11787 net.cpp:425] inception_4b/output <- inception_4b/pool_proj
I0403 15:17:00.891413 11787 net.cpp:399] inception_4b/output -> inception_4b/output
I0403 15:17:00.891463 11787 net.cpp:141] Setting up inception_4b/output
I0403 15:17:00.891486 11787 net.cpp:148] Top shape: 24 512 14 14 (2408448)
I0403 15:17:00.891501 11787 net.cpp:156] Memory required for data: 989857056
I0403 15:17:00.891533 11787 layer_factory.hpp:77] Creating layer inception_4b/output_inception_4b/output_0_split
I0403 15:17:00.891552 11787 net.cpp:91] Creating Layer inception_4b/output_inception_4b/output_0_split
I0403 15:17:00.891568 11787 net.cpp:425] inception_4b/output_inception_4b/output_0_split <- inception_4b/output
I0403 15:17:00.891588 11787 net.cpp:399] inception_4b/output_inception_4b/output_0_split -> inception_4b/output_inception_4b/output_0_split_0
I0403 15:17:00.891610 11787 net.cpp:399] inception_4b/output_inception_4b/output_0_split -> inception_4b/output_inception_4b/output_0_split_1
I0403 15:17:00.891631 11787 net.cpp:399] inception_4b/output_inception_4b/output_0_split -> inception_4b/output_inception_4b/output_0_split_2
I0403 15:17:00.891652 11787 net.cpp:399] inception_4b/output_inception_4b/output_0_split -> inception_4b/output_inception_4b/output_0_split_3
I0403 15:17:00.891733 11787 net.cpp:141] Setting up inception_4b/output_inception_4b/output_0_split
I0403 15:17:00.891759 11787 net.cpp:148] Top shape: 24 512 14 14 (2408448)
I0403 15:17:00.891777 11787 net.cpp:148] Top shape: 24 512 14 14 (2408448)
I0403 15:17:00.891791 11787 net.cpp:148] Top shape: 24 512 14 14 (2408448)
I0403 15:17:00.891806 11787 net.cpp:148] Top shape: 24 512 14 14 (2408448)
I0403 15:17:00.891820 11787 net.cpp:156] Memory required for data: 1028392224
I0403 15:17:00.891835 11787 layer_factory.hpp:77] Creating layer inception_4c/1x1
I0403 15:17:00.891857 11787 net.cpp:91] Creating Layer inception_4c/1x1
I0403 15:17:00.891875 11787 net.cpp:425] inception_4c/1x1 <- inception_4b/output_inception_4b/output_0_split_0
I0403 15:17:00.891896 11787 net.cpp:399] inception_4c/1x1 -> inception_4c/1x1
I0403 15:17:00.893342 11787 net.cpp:141] Setting up inception_4c/1x1
I0403 15:17:00.893373 11787 net.cpp:148] Top shape: 24 128 14 14 (602112)
I0403 15:17:00.893389 11787 net.cpp:156] Memory required for data: 1030800672
I0403 15:17:00.893407 11787 layer_factory.hpp:77] Creating layer inception_4c/relu_1x1
I0403 15:17:00.893435 11787 net.cpp:91] Creating Layer inception_4c/relu_1x1
I0403 15:17:00.893452 11787 net.cpp:425] inception_4c/relu_1x1 <- inception_4c/1x1
I0403 15:17:00.893471 11787 net.cpp:386] inception_4c/relu_1x1 -> inception_4c/1x1 (in-place)
I0403 15:17:00.893656 11787 net.cpp:141] Setting up inception_4c/relu_1x1
I0403 15:17:00.893684 11787 net.cpp:148] Top shape: 24 128 14 14 (602112)
I0403 15:17:00.893702 11787 net.cpp:156] Memory required for data: 1033209120
I0403 15:17:00.893717 11787 layer_factory.hpp:77] Creating layer inception_4c/3x3_reduce
I0403 15:17:00.893738 11787 net.cpp:91] Creating Layer inception_4c/3x3_reduce
I0403 15:17:00.893756 11787 net.cpp:425] inception_4c/3x3_reduce <- inception_4b/output_inception_4b/output_0_split_1
I0403 15:17:00.893775 11787 net.cpp:399] inception_4c/3x3_reduce -> inception_4c/3x3_reduce
I0403 15:17:00.895776 11787 net.cpp:141] Setting up inception_4c/3x3_reduce
I0403 15:17:00.895808 11787 net.cpp:148] Top shape: 24 128 14 14 (602112)
I0403 15:17:00.895826 11787 net.cpp:156] Memory required for data: 1035617568
I0403 15:17:00.895845 11787 layer_factory.hpp:77] Creating layer inception_4c/relu_3x3_reduce
I0403 15:17:00.895864 11787 net.cpp:91] Creating Layer inception_4c/relu_3x3_reduce
I0403 15:17:00.895882 11787 net.cpp:425] inception_4c/relu_3x3_reduce <- inception_4c/3x3_reduce
I0403 15:17:00.895905 11787 net.cpp:386] inception_4c/relu_3x3_reduce -> inception_4c/3x3_reduce (in-place)
I0403 15:17:00.896199 11787 net.cpp:141] Setting up inception_4c/relu_3x3_reduce
I0403 15:17:00.896229 11787 net.cpp:148] Top shape: 24 128 14 14 (602112)
I0403 15:17:00.896246 11787 net.cpp:156] Memory required for data: 1038026016
I0403 15:17:00.896262 11787 layer_factory.hpp:77] Creating layer inception_4c/3x3
I0403 15:17:00.896286 11787 net.cpp:91] Creating Layer inception_4c/3x3
I0403 15:17:00.896306 11787 net.cpp:425] inception_4c/3x3 <- inception_4c/3x3_reduce
I0403 15:17:00.896327 11787 net.cpp:399] inception_4c/3x3 -> inception_4c/3x3
I0403 15:17:00.900085 11787 net.cpp:141] Setting up inception_4c/3x3
I0403 15:17:00.900131 11787 net.cpp:148] Top shape: 24 256 14 14 (1204224)
I0403 15:17:00.900148 11787 net.cpp:156] Memory required for data: 1042842912
I0403 15:17:00.900182 11787 layer_factory.hpp:77] Creating layer inception_4c/relu_3x3
I0403 15:17:00.900203 11787 net.cpp:91] Creating Layer inception_4c/relu_3x3
I0403 15:17:00.900221 11787 net.cpp:425] inception_4c/relu_3x3 <- inception_4c/3x3
I0403 15:17:00.900243 11787 net.cpp:386] inception_4c/relu_3x3 -> inception_4c/3x3 (in-place)
I0403 15:17:00.900441 11787 net.cpp:141] Setting up inception_4c/relu_3x3
I0403 15:17:00.900467 11787 net.cpp:148] Top shape: 24 256 14 14 (1204224)
I0403 15:17:00.900483 11787 net.cpp:156] Memory required for data: 1047659808
I0403 15:17:00.900498 11787 layer_factory.hpp:77] Creating layer inception_4c/5x5_reduce
I0403 15:17:00.900522 11787 net.cpp:91] Creating Layer inception_4c/5x5_reduce
I0403 15:17:00.900540 11787 net.cpp:425] inception_4c/5x5_reduce <- inception_4b/output_inception_4b/output_0_split_2
I0403 15:17:00.900564 11787 net.cpp:399] inception_4c/5x5_reduce -> inception_4c/5x5_reduce
I0403 15:17:00.901690 11787 net.cpp:141] Setting up inception_4c/5x5_reduce
I0403 15:17:00.901726 11787 net.cpp:148] Top shape: 24 24 14 14 (112896)
I0403 15:17:00.901743 11787 net.cpp:156] Memory required for data: 1048111392
I0403 15:17:00.901762 11787 layer_factory.hpp:77] Creating layer inception_4c/relu_5x5_reduce
I0403 15:17:00.901784 11787 net.cpp:91] Creating Layer inception_4c/relu_5x5_reduce
I0403 15:17:00.901803 11787 net.cpp:425] inception_4c/relu_5x5_reduce <- inception_4c/5x5_reduce
I0403 15:17:00.901821 11787 net.cpp:386] inception_4c/relu_5x5_reduce -> inception_4c/5x5_reduce (in-place)
I0403 15:17:00.902010 11787 net.cpp:141] Setting up inception_4c/relu_5x5_reduce
I0403 15:17:00.902037 11787 net.cpp:148] Top shape: 24 24 14 14 (112896)
I0403 15:17:00.902053 11787 net.cpp:156] Memory required for data: 1048562976
I0403 15:17:00.902068 11787 layer_factory.hpp:77] Creating layer inception_4c/5x5
I0403 15:17:00.902091 11787 net.cpp:91] Creating Layer inception_4c/5x5
I0403 15:17:00.902112 11787 net.cpp:425] inception_4c/5x5 <- inception_4c/5x5_reduce
I0403 15:17:00.902133 11787 net.cpp:399] inception_4c/5x5 -> inception_4c/5x5
I0403 15:17:00.903421 11787 net.cpp:141] Setting up inception_4c/5x5
I0403 15:17:00.903450 11787 net.cpp:148] Top shape: 24 64 14 14 (301056)
I0403 15:17:00.903465 11787 net.cpp:156] Memory required for data: 1049767200
I0403 15:17:00.903484 11787 layer_factory.hpp:77] Creating layer inception_4c/relu_5x5
I0403 15:17:00.903506 11787 net.cpp:91] Creating Layer inception_4c/relu_5x5
I0403 15:17:00.903523 11787 net.cpp:425] inception_4c/relu_5x5 <- inception_4c/5x5
I0403 15:17:00.903542 11787 net.cpp:386] inception_4c/relu_5x5 -> inception_4c/5x5 (in-place)
I0403 15:17:00.903842 11787 net.cpp:141] Setting up inception_4c/relu_5x5
I0403 15:17:00.903869 11787 net.cpp:148] Top shape: 24 64 14 14 (301056)
I0403 15:17:00.903885 11787 net.cpp:156] Memory required for data: 1050971424
I0403 15:17:00.903900 11787 layer_factory.hpp:77] Creating layer inception_4c/pool
I0403 15:17:00.903920 11787 net.cpp:91] Creating Layer inception_4c/pool
I0403 15:17:00.903937 11787 net.cpp:425] inception_4c/pool <- inception_4b/output_inception_4b/output_0_split_3
I0403 15:17:00.903956 11787 net.cpp:399] inception_4c/pool -> inception_4c/pool
I0403 15:17:00.904024 11787 net.cpp:141] Setting up inception_4c/pool
I0403 15:17:00.904049 11787 net.cpp:148] Top shape: 24 512 14 14 (2408448)
I0403 15:17:00.904064 11787 net.cpp:156] Memory required for data: 1060605216
I0403 15:17:00.904080 11787 layer_factory.hpp:77] Creating layer inception_4c/pool_proj
I0403 15:17:00.904103 11787 net.cpp:91] Creating Layer inception_4c/pool_proj
I0403 15:17:00.904120 11787 net.cpp:425] inception_4c/pool_proj <- inception_4c/pool
I0403 15:17:00.904144 11787 net.cpp:399] inception_4c/pool_proj -> inception_4c/pool_proj
I0403 15:17:00.905402 11787 net.cpp:141] Setting up inception_4c/pool_proj
I0403 15:17:00.905434 11787 net.cpp:148] Top shape: 24 64 14 14 (301056)
I0403 15:17:00.905465 11787 net.cpp:156] Memory required for data: 1061809440
I0403 15:17:00.905485 11787 layer_factory.hpp:77] Creating layer inception_4c/relu_pool_proj
I0403 15:17:00.905505 11787 net.cpp:91] Creating Layer inception_4c/relu_pool_proj
I0403 15:17:00.905522 11787 net.cpp:425] inception_4c/relu_pool_proj <- inception_4c/pool_proj
I0403 15:17:00.905544 11787 net.cpp:386] inception_4c/relu_pool_proj -> inception_4c/pool_proj (in-place)
I0403 15:17:00.905733 11787 net.cpp:141] Setting up inception_4c/relu_pool_proj
I0403 15:17:00.905758 11787 net.cpp:148] Top shape: 24 64 14 14 (301056)
I0403 15:17:00.905773 11787 net.cpp:156] Memory required for data: 1063013664
I0403 15:17:00.905789 11787 layer_factory.hpp:77] Creating layer inception_4c/output
I0403 15:17:00.905809 11787 net.cpp:91] Creating Layer inception_4c/output
I0403 15:17:00.905827 11787 net.cpp:425] inception_4c/output <- inception_4c/1x1
I0403 15:17:00.905843 11787 net.cpp:425] inception_4c/output <- inception_4c/3x3
I0403 15:17:00.905859 11787 net.cpp:425] inception_4c/output <- inception_4c/5x5
I0403 15:17:00.905875 11787 net.cpp:425] inception_4c/output <- inception_4c/pool_proj
I0403 15:17:00.905894 11787 net.cpp:399] inception_4c/output -> inception_4c/output
I0403 15:17:00.905942 11787 net.cpp:141] Setting up inception_4c/output
I0403 15:17:00.905966 11787 net.cpp:148] Top shape: 24 512 14 14 (2408448)
I0403 15:17:00.905982 11787 net.cpp:156] Memory required for data: 1072647456
I0403 15:17:00.905997 11787 layer_factory.hpp:77] Creating layer inception_4c/output_inception_4c/output_0_split
I0403 15:17:00.906013 11787 net.cpp:91] Creating Layer inception_4c/output_inception_4c/output_0_split
I0403 15:17:00.906029 11787 net.cpp:425] inception_4c/output_inception_4c/output_0_split <- inception_4c/output
I0403 15:17:00.906050 11787 net.cpp:399] inception_4c/output_inception_4c/output_0_split -> inception_4c/output_inception_4c/output_0_split_0
I0403 15:17:00.906072 11787 net.cpp:399] inception_4c/output_inception_4c/output_0_split -> inception_4c/output_inception_4c/output_0_split_1
I0403 15:17:00.906095 11787 net.cpp:399] inception_4c/output_inception_4c/output_0_split -> inception_4c/output_inception_4c/output_0_split_2
I0403 15:17:00.906114 11787 net.cpp:399] inception_4c/output_inception_4c/output_0_split -> inception_4c/output_inception_4c/output_0_split_3
I0403 15:17:00.906199 11787 net.cpp:141] Setting up inception_4c/output_inception_4c/output_0_split
I0403 15:17:00.906226 11787 net.cpp:148] Top shape: 24 512 14 14 (2408448)
I0403 15:17:00.906244 11787 net.cpp:148] Top shape: 24 512 14 14 (2408448)
I0403 15:17:00.906260 11787 net.cpp:148] Top shape: 24 512 14 14 (2408448)
I0403 15:17:00.906275 11787 net.cpp:148] Top shape: 24 512 14 14 (2408448)
I0403 15:17:00.906289 11787 net.cpp:156] Memory required for data: 1111182624
I0403 15:17:00.906303 11787 layer_factory.hpp:77] Creating layer inception_4d/1x1
I0403 15:17:00.906327 11787 net.cpp:91] Creating Layer inception_4d/1x1
I0403 15:17:00.906345 11787 net.cpp:425] inception_4d/1x1 <- inception_4c/output_inception_4c/output_0_split_0
I0403 15:17:00.906366 11787 net.cpp:399] inception_4d/1x1 -> inception_4d/1x1
I0403 15:17:00.907793 11787 net.cpp:141] Setting up inception_4d/1x1
I0403 15:17:00.907825 11787 net.cpp:148] Top shape: 24 112 14 14 (526848)
I0403 15:17:00.907842 11787 net.cpp:156] Memory required for data: 1113290016
I0403 15:17:00.907861 11787 layer_factory.hpp:77] Creating layer inception_4d/relu_1x1
I0403 15:17:00.907879 11787 net.cpp:91] Creating Layer inception_4d/relu_1x1
I0403 15:17:00.907897 11787 net.cpp:425] inception_4d/relu_1x1 <- inception_4d/1x1
I0403 15:17:00.907915 11787 net.cpp:386] inception_4d/relu_1x1 -> inception_4d/1x1 (in-place)
I0403 15:17:00.908107 11787 net.cpp:141] Setting up inception_4d/relu_1x1
I0403 15:17:00.908133 11787 net.cpp:148] Top shape: 24 112 14 14 (526848)
I0403 15:17:00.908148 11787 net.cpp:156] Memory required for data: 1115397408
I0403 15:17:00.908162 11787 layer_factory.hpp:77] Creating layer inception_4d/3x3_reduce
I0403 15:17:00.908200 11787 net.cpp:91] Creating Layer inception_4d/3x3_reduce
I0403 15:17:00.908220 11787 net.cpp:425] inception_4d/3x3_reduce <- inception_4c/output_inception_4c/output_0_split_1
I0403 15:17:00.908241 11787 net.cpp:399] inception_4d/3x3_reduce -> inception_4d/3x3_reduce
I0403 15:17:00.909835 11787 net.cpp:141] Setting up inception_4d/3x3_reduce
I0403 15:17:00.909865 11787 net.cpp:148] Top shape: 24 144 14 14 (677376)
I0403 15:17:00.909881 11787 net.cpp:156] Memory required for data: 1118106912
I0403 15:17:00.909900 11787 layer_factory.hpp:77] Creating layer inception_4d/relu_3x3_reduce
I0403 15:17:00.909922 11787 net.cpp:91] Creating Layer inception_4d/relu_3x3_reduce
I0403 15:17:00.909940 11787 net.cpp:425] inception_4d/relu_3x3_reduce <- inception_4d/3x3_reduce
I0403 15:17:00.909960 11787 net.cpp:386] inception_4d/relu_3x3_reduce -> inception_4d/3x3_reduce (in-place)
I0403 15:17:00.910264 11787 net.cpp:141] Setting up inception_4d/relu_3x3_reduce
I0403 15:17:00.910292 11787 net.cpp:148] Top shape: 24 144 14 14 (677376)
I0403 15:17:00.910308 11787 net.cpp:156] Memory required for data: 1120816416
I0403 15:17:00.910325 11787 layer_factory.hpp:77] Creating layer inception_4d/3x3
I0403 15:17:00.910349 11787 net.cpp:91] Creating Layer inception_4d/3x3
I0403 15:17:00.910369 11787 net.cpp:425] inception_4d/3x3 <- inception_4d/3x3_reduce
I0403 15:17:00.910389 11787 net.cpp:399] inception_4d/3x3 -> inception_4d/3x3
I0403 15:17:00.914845 11787 net.cpp:141] Setting up inception_4d/3x3
I0403 15:17:00.914878 11787 net.cpp:148] Top shape: 24 288 14 14 (1354752)
I0403 15:17:00.914896 11787 net.cpp:156] Memory required for data: 1126235424
I0403 15:17:00.914914 11787 layer_factory.hpp:77] Creating layer inception_4d/relu_3x3
I0403 15:17:00.914933 11787 net.cpp:91] Creating Layer inception_4d/relu_3x3
I0403 15:17:00.914949 11787 net.cpp:425] inception_4d/relu_3x3 <- inception_4d/3x3
I0403 15:17:00.914969 11787 net.cpp:386] inception_4d/relu_3x3 -> inception_4d/3x3 (in-place)
I0403 15:17:00.915156 11787 net.cpp:141] Setting up inception_4d/relu_3x3
I0403 15:17:00.915181 11787 net.cpp:148] Top shape: 24 288 14 14 (1354752)
I0403 15:17:00.915196 11787 net.cpp:156] Memory required for data: 1131654432
I0403 15:17:00.915211 11787 layer_factory.hpp:77] Creating layer inception_4d/5x5_reduce
I0403 15:17:00.915233 11787 net.cpp:91] Creating Layer inception_4d/5x5_reduce
I0403 15:17:00.915251 11787 net.cpp:425] inception_4d/5x5_reduce <- inception_4c/output_inception_4c/output_0_split_2
I0403 15:17:00.915273 11787 net.cpp:399] inception_4d/5x5_reduce -> inception_4d/5x5_reduce
I0403 15:17:00.916425 11787 net.cpp:141] Setting up inception_4d/5x5_reduce
I0403 15:17:00.916456 11787 net.cpp:148] Top shape: 24 32 14 14 (150528)
I0403 15:17:00.916472 11787 net.cpp:156] Memory required for data: 1132256544
I0403 15:17:00.916491 11787 layer_factory.hpp:77] Creating layer inception_4d/relu_5x5_reduce
I0403 15:17:00.916508 11787 net.cpp:91] Creating Layer inception_4d/relu_5x5_reduce
I0403 15:17:00.916525 11787 net.cpp:425] inception_4d/relu_5x5_reduce <- inception_4d/5x5_reduce
I0403 15:17:00.916544 11787 net.cpp:386] inception_4d/relu_5x5_reduce -> inception_4d/5x5_reduce (in-place)
I0403 15:17:00.916743 11787 net.cpp:141] Setting up inception_4d/relu_5x5_reduce
I0403 15:17:00.916767 11787 net.cpp:148] Top shape: 24 32 14 14 (150528)
I0403 15:17:00.916782 11787 net.cpp:156] Memory required for data: 1132858656
I0403 15:17:00.916797 11787 layer_factory.hpp:77] Creating layer inception_4d/5x5
I0403 15:17:00.916820 11787 net.cpp:91] Creating Layer inception_4d/5x5
I0403 15:17:00.916837 11787 net.cpp:425] inception_4d/5x5 <- inception_4d/5x5_reduce
I0403 15:17:00.916857 11787 net.cpp:399] inception_4d/5x5 -> inception_4d/5x5
I0403 15:17:00.918329 11787 net.cpp:141] Setting up inception_4d/5x5
I0403 15:17:00.918357 11787 net.cpp:148] Top shape: 24 64 14 14 (301056)
I0403 15:17:00.918372 11787 net.cpp:156] Memory required for data: 1134062880
I0403 15:17:00.918391 11787 layer_factory.hpp:77] Creating layer inception_4d/relu_5x5
I0403 15:17:00.918433 11787 net.cpp:91] Creating Layer inception_4d/relu_5x5
I0403 15:17:00.918452 11787 net.cpp:425] inception_4d/relu_5x5 <- inception_4d/5x5
I0403 15:17:00.918468 11787 net.cpp:386] inception_4d/relu_5x5 -> inception_4d/5x5 (in-place)
I0403 15:17:00.918769 11787 net.cpp:141] Setting up inception_4d/relu_5x5
I0403 15:17:00.918795 11787 net.cpp:148] Top shape: 24 64 14 14 (301056)
I0403 15:17:00.918810 11787 net.cpp:156] Memory required for data: 1135267104
I0403 15:17:00.918825 11787 layer_factory.hpp:77] Creating layer inception_4d/pool
I0403 15:17:00.918845 11787 net.cpp:91] Creating Layer inception_4d/pool
I0403 15:17:00.918864 11787 net.cpp:425] inception_4d/pool <- inception_4c/output_inception_4c/output_0_split_3
I0403 15:17:00.918881 11787 net.cpp:399] inception_4d/pool -> inception_4d/pool
I0403 15:17:00.918951 11787 net.cpp:141] Setting up inception_4d/pool
I0403 15:17:00.918973 11787 net.cpp:148] Top shape: 24 512 14 14 (2408448)
I0403 15:17:00.918988 11787 net.cpp:156] Memory required for data: 1144900896
I0403 15:17:00.919003 11787 layer_factory.hpp:77] Creating layer inception_4d/pool_proj
I0403 15:17:00.919024 11787 net.cpp:91] Creating Layer inception_4d/pool_proj
I0403 15:17:00.919042 11787 net.cpp:425] inception_4d/pool_proj <- inception_4d/pool
I0403 15:17:00.919064 11787 net.cpp:399] inception_4d/pool_proj -> inception_4d/pool_proj
I0403 15:17:00.920833 11787 net.cpp:141] Setting up inception_4d/pool_proj
I0403 15:17:00.920864 11787 net.cpp:148] Top shape: 24 64 14 14 (301056)
I0403 15:17:00.920882 11787 net.cpp:156] Memory required for data: 1146105120
I0403 15:17:00.920900 11787 layer_factory.hpp:77] Creating layer inception_4d/relu_pool_proj
I0403 15:17:00.920919 11787 net.cpp:91] Creating Layer inception_4d/relu_pool_proj
I0403 15:17:00.920936 11787 net.cpp:425] inception_4d/relu_pool_proj <- inception_4d/pool_proj
I0403 15:17:00.920956 11787 net.cpp:386] inception_4d/relu_pool_proj -> inception_4d/pool_proj (in-place)
I0403 15:17:00.921142 11787 net.cpp:141] Setting up inception_4d/relu_pool_proj
I0403 15:17:00.921169 11787 net.cpp:148] Top shape: 24 64 14 14 (301056)
I0403 15:17:00.921183 11787 net.cpp:156] Memory required for data: 1147309344
I0403 15:17:00.921198 11787 layer_factory.hpp:77] Creating layer inception_4d/output
I0403 15:17:00.921216 11787 net.cpp:91] Creating Layer inception_4d/output
I0403 15:17:00.921231 11787 net.cpp:425] inception_4d/output <- inception_4d/1x1
I0403 15:17:00.921248 11787 net.cpp:425] inception_4d/output <- inception_4d/3x3
I0403 15:17:00.921264 11787 net.cpp:425] inception_4d/output <- inception_4d/5x5
I0403 15:17:00.921280 11787 net.cpp:425] inception_4d/output <- inception_4d/pool_proj
I0403 15:17:00.921300 11787 net.cpp:399] inception_4d/output -> inception_4d/output
I0403 15:17:00.921349 11787 net.cpp:141] Setting up inception_4d/output
I0403 15:17:00.921373 11787 net.cpp:148] Top shape: 24 528 14 14 (2483712)
I0403 15:17:00.921389 11787 net.cpp:156] Memory required for data: 1157244192
I0403 15:17:00.921404 11787 layer_factory.hpp:77] Creating layer inception_4d/output_inception_4d/output_0_split
I0403 15:17:00.921429 11787 net.cpp:91] Creating Layer inception_4d/output_inception_4d/output_0_split
I0403 15:17:00.921445 11787 net.cpp:425] inception_4d/output_inception_4d/output_0_split <- inception_4d/output
I0403 15:17:00.921466 11787 net.cpp:399] inception_4d/output_inception_4d/output_0_split -> inception_4d/output_inception_4d/output_0_split_0
I0403 15:17:00.921489 11787 net.cpp:399] inception_4d/output_inception_4d/output_0_split -> inception_4d/output_inception_4d/output_0_split_1
I0403 15:17:00.921509 11787 net.cpp:399] inception_4d/output_inception_4d/output_0_split -> inception_4d/output_inception_4d/output_0_split_2
I0403 15:17:00.921530 11787 net.cpp:399] inception_4d/output_inception_4d/output_0_split -> inception_4d/output_inception_4d/output_0_split_3
I0403 15:17:00.921550 11787 net.cpp:399] inception_4d/output_inception_4d/output_0_split -> inception_4d/output_inception_4d/output_0_split_4
I0403 15:17:00.921650 11787 net.cpp:141] Setting up inception_4d/output_inception_4d/output_0_split
I0403 15:17:00.921689 11787 net.cpp:148] Top shape: 24 528 14 14 (2483712)
I0403 15:17:00.921705 11787 net.cpp:148] Top shape: 24 528 14 14 (2483712)
I0403 15:17:00.921721 11787 net.cpp:148] Top shape: 24 528 14 14 (2483712)
I0403 15:17:00.921737 11787 net.cpp:148] Top shape: 24 528 14 14 (2483712)
I0403 15:17:00.921752 11787 net.cpp:148] Top shape: 24 528 14 14 (2483712)
I0403 15:17:00.921766 11787 net.cpp:156] Memory required for data: 1206918432
I0403 15:17:00.921780 11787 layer_factory.hpp:77] Creating layer loss2/ave_pool
I0403 15:17:00.921797 11787 net.cpp:91] Creating Layer loss2/ave_pool
I0403 15:17:00.921814 11787 net.cpp:425] loss2/ave_pool <- inception_4d/output_inception_4d/output_0_split_0
I0403 15:17:00.921833 11787 net.cpp:399] loss2/ave_pool -> loss2/ave_pool
I0403 15:17:00.922149 11787 net.cpp:141] Setting up loss2/ave_pool
I0403 15:17:00.922178 11787 net.cpp:148] Top shape: 24 528 4 4 (202752)
I0403 15:17:00.922194 11787 net.cpp:156] Memory required for data: 1207729440
I0403 15:17:00.922209 11787 layer_factory.hpp:77] Creating layer loss2/conv
I0403 15:17:00.922230 11787 net.cpp:91] Creating Layer loss2/conv
I0403 15:17:00.922248 11787 net.cpp:425] loss2/conv <- loss2/ave_pool
I0403 15:17:00.922267 11787 net.cpp:399] loss2/conv -> loss2/conv
I0403 15:17:00.924170 11787 net.cpp:141] Setting up loss2/conv
I0403 15:17:00.924198 11787 net.cpp:148] Top shape: 24 128 4 4 (49152)
I0403 15:17:00.924214 11787 net.cpp:156] Memory required for data: 1207926048
I0403 15:17:00.924232 11787 layer_factory.hpp:77] Creating layer loss2/relu_conv
I0403 15:17:00.924253 11787 net.cpp:91] Creating Layer loss2/relu_conv
I0403 15:17:00.924271 11787 net.cpp:425] loss2/relu_conv <- loss2/conv
I0403 15:17:00.924289 11787 net.cpp:386] loss2/relu_conv -> loss2/conv (in-place)
I0403 15:17:00.924582 11787 net.cpp:141] Setting up loss2/relu_conv
I0403 15:17:00.924608 11787 net.cpp:148] Top shape: 24 128 4 4 (49152)
I0403 15:17:00.924624 11787 net.cpp:156] Memory required for data: 1208122656
I0403 15:17:00.924639 11787 layer_factory.hpp:77] Creating layer loss2/fc
I0403 15:17:00.924662 11787 net.cpp:91] Creating Layer loss2/fc
I0403 15:17:00.924679 11787 net.cpp:425] loss2/fc <- loss2/conv
I0403 15:17:00.924697 11787 net.cpp:399] loss2/fc -> loss2/fc
I0403 15:17:00.942430 11787 net.cpp:141] Setting up loss2/fc
I0403 15:17:00.942488 11787 net.cpp:148] Top shape: 24 1024 (24576)
I0403 15:17:00.942504 11787 net.cpp:156] Memory required for data: 1208220960
I0403 15:17:00.942524 11787 layer_factory.hpp:77] Creating layer loss2/relu_fc
I0403 15:17:00.942543 11787 net.cpp:91] Creating Layer loss2/relu_fc
I0403 15:17:00.942561 11787 net.cpp:425] loss2/relu_fc <- loss2/fc
I0403 15:17:00.942581 11787 net.cpp:386] loss2/relu_fc -> loss2/fc (in-place)
I0403 15:17:00.942929 11787 net.cpp:141] Setting up loss2/relu_fc
I0403 15:17:00.942955 11787 net.cpp:148] Top shape: 24 1024 (24576)
I0403 15:17:00.942970 11787 net.cpp:156] Memory required for data: 1208319264
I0403 15:17:00.942986 11787 layer_factory.hpp:77] Creating layer loss2/drop_fc
I0403 15:17:00.943003 11787 net.cpp:91] Creating Layer loss2/drop_fc
I0403 15:17:00.943020 11787 net.cpp:425] loss2/drop_fc <- loss2/fc
I0403 15:17:00.943040 11787 net.cpp:386] loss2/drop_fc -> loss2/fc (in-place)
I0403 15:17:00.943091 11787 net.cpp:141] Setting up loss2/drop_fc
I0403 15:17:00.943117 11787 net.cpp:148] Top shape: 24 1024 (24576)
I0403 15:17:00.943132 11787 net.cpp:156] Memory required for data: 1208417568
I0403 15:17:00.943147 11787 layer_factory.hpp:77] Creating layer loss2/classifier_plantvillage
I0403 15:17:00.943166 11787 net.cpp:91] Creating Layer loss2/classifier_plantvillage
I0403 15:17:00.943183 11787 net.cpp:425] loss2/classifier_plantvillage <- loss2/fc
I0403 15:17:00.943205 11787 net.cpp:399] loss2/classifier_plantvillage -> loss2/classifier_plantvillage
I0403 15:17:00.943624 11787 net.cpp:141] Setting up loss2/classifier_plantvillage
I0403 15:17:00.943650 11787 net.cpp:148] Top shape: 24 38 (912)
I0403 15:17:00.943688 11787 net.cpp:156] Memory required for data: 1208421216
I0403 15:17:00.943706 11787 layer_factory.hpp:77] Creating layer loss2/classifier_plantvillage_loss2/classifier_plantvillage_0_split
I0403 15:17:00.943727 11787 net.cpp:91] Creating Layer loss2/classifier_plantvillage_loss2/classifier_plantvillage_0_split
I0403 15:17:00.943745 11787 net.cpp:425] loss2/classifier_plantvillage_loss2/classifier_plantvillage_0_split <- loss2/classifier_plantvillage
I0403 15:17:00.943764 11787 net.cpp:399] loss2/classifier_plantvillage_loss2/classifier_plantvillage_0_split -> loss2/classifier_plantvillage_loss2/classifier_plantvillage_0_split_0
I0403 15:17:00.943784 11787 net.cpp:399] loss2/classifier_plantvillage_loss2/classifier_plantvillage_0_split -> loss2/classifier_plantvillage_loss2/classifier_plantvillage_0_split_1
I0403 15:17:00.943805 11787 net.cpp:399] loss2/classifier_plantvillage_loss2/classifier_plantvillage_0_split -> loss2/classifier_plantvillage_loss2/classifier_plantvillage_0_split_2
I0403 15:17:00.943884 11787 net.cpp:141] Setting up loss2/classifier_plantvillage_loss2/classifier_plantvillage_0_split
I0403 15:17:00.943908 11787 net.cpp:148] Top shape: 24 38 (912)
I0403 15:17:00.943924 11787 net.cpp:148] Top shape: 24 38 (912)
I0403 15:17:00.943940 11787 net.cpp:148] Top shape: 24 38 (912)
I0403 15:17:00.943953 11787 net.cpp:156] Memory required for data: 1208432160
I0403 15:17:00.943969 11787 layer_factory.hpp:77] Creating layer inception_4e/1x1
I0403 15:17:00.943992 11787 net.cpp:91] Creating Layer inception_4e/1x1
I0403 15:17:00.944010 11787 net.cpp:425] inception_4e/1x1 <- inception_4d/output_inception_4d/output_0_split_1
I0403 15:17:00.944031 11787 net.cpp:399] inception_4e/1x1 -> inception_4e/1x1
I0403 15:17:00.945981 11787 net.cpp:141] Setting up inception_4e/1x1
I0403 15:17:00.946010 11787 net.cpp:148] Top shape: 24 256 14 14 (1204224)
I0403 15:17:00.946027 11787 net.cpp:156] Memory required for data: 1213249056
I0403 15:17:00.946045 11787 layer_factory.hpp:77] Creating layer inception_4e/relu_1x1
I0403 15:17:00.946072 11787 net.cpp:91] Creating Layer inception_4e/relu_1x1
I0403 15:17:00.946089 11787 net.cpp:425] inception_4e/relu_1x1 <- inception_4e/1x1
I0403 15:17:00.946107 11787 net.cpp:386] inception_4e/relu_1x1 -> inception_4e/1x1 (in-place)
I0403 15:17:00.946421 11787 net.cpp:141] Setting up inception_4e/relu_1x1
I0403 15:17:00.946449 11787 net.cpp:148] Top shape: 24 256 14 14 (1204224)
I0403 15:17:00.946465 11787 net.cpp:156] Memory required for data: 1218065952
I0403 15:17:00.946480 11787 layer_factory.hpp:77] Creating layer inception_4e/3x3_reduce
I0403 15:17:00.946503 11787 net.cpp:91] Creating Layer inception_4e/3x3_reduce
I0403 15:17:00.946521 11787 net.cpp:425] inception_4e/3x3_reduce <- inception_4d/output_inception_4d/output_0_split_2
I0403 15:17:00.946543 11787 net.cpp:399] inception_4e/3x3_reduce -> inception_4e/3x3_reduce
I0403 15:17:00.948724 11787 net.cpp:141] Setting up inception_4e/3x3_reduce
I0403 15:17:00.948752 11787 net.cpp:148] Top shape: 24 160 14 14 (752640)
I0403 15:17:00.948768 11787 net.cpp:156] Memory required for data: 1221076512
I0403 15:17:00.948786 11787 layer_factory.hpp:77] Creating layer inception_4e/relu_3x3_reduce
I0403 15:17:00.948813 11787 net.cpp:91] Creating Layer inception_4e/relu_3x3_reduce
I0403 15:17:00.948830 11787 net.cpp:425] inception_4e/relu_3x3_reduce <- inception_4e/3x3_reduce
I0403 15:17:00.948848 11787 net.cpp:386] inception_4e/relu_3x3_reduce -> inception_4e/3x3_reduce (in-place)
I0403 15:17:00.949035 11787 net.cpp:141] Setting up inception_4e/relu_3x3_reduce
I0403 15:17:00.949060 11787 net.cpp:148] Top shape: 24 160 14 14 (752640)
I0403 15:17:00.949075 11787 net.cpp:156] Memory required for data: 1224087072
I0403 15:17:00.949090 11787 layer_factory.hpp:77] Creating layer inception_4e/3x3
I0403 15:17:00.949112 11787 net.cpp:91] Creating Layer inception_4e/3x3
I0403 15:17:00.949131 11787 net.cpp:425] inception_4e/3x3 <- inception_4e/3x3_reduce
I0403 15:17:00.949151 11787 net.cpp:399] inception_4e/3x3 -> inception_4e/3x3
I0403 15:17:00.954179 11787 net.cpp:141] Setting up inception_4e/3x3
I0403 15:17:00.954219 11787 net.cpp:148] Top shape: 24 320 14 14 (1505280)
I0403 15:17:00.954239 11787 net.cpp:156] Memory required for data: 1230108192
I0403 15:17:00.954258 11787 layer_factory.hpp:77] Creating layer inception_4e/relu_3x3
I0403 15:17:00.954275 11787 net.cpp:91] Creating Layer inception_4e/relu_3x3
I0403 15:17:00.954291 11787 net.cpp:425] inception_4e/relu_3x3 <- inception_4e/3x3
I0403 15:17:00.954309 11787 net.cpp:386] inception_4e/relu_3x3 -> inception_4e/3x3 (in-place)
I0403 15:17:00.954618 11787 net.cpp:141] Setting up inception_4e/relu_3x3
I0403 15:17:00.954648 11787 net.cpp:148] Top shape: 24 320 14 14 (1505280)
I0403 15:17:00.954663 11787 net.cpp:156] Memory required for data: 1236129312
I0403 15:17:00.954679 11787 layer_factory.hpp:77] Creating layer inception_4e/5x5_reduce
I0403 15:17:00.954702 11787 net.cpp:91] Creating Layer inception_4e/5x5_reduce
I0403 15:17:00.954720 11787 net.cpp:425] inception_4e/5x5_reduce <- inception_4d/output_inception_4d/output_0_split_3
I0403 15:17:00.954741 11787 net.cpp:399] inception_4e/5x5_reduce -> inception_4e/5x5_reduce
I0403 15:17:00.955848 11787 net.cpp:141] Setting up inception_4e/5x5_reduce
I0403 15:17:00.955876 11787 net.cpp:148] Top shape: 24 32 14 14 (150528)
I0403 15:17:00.955891 11787 net.cpp:156] Memory required for data: 1236731424
I0403 15:17:00.955910 11787 layer_factory.hpp:77] Creating layer inception_4e/relu_5x5_reduce
I0403 15:17:00.955931 11787 net.cpp:91] Creating Layer inception_4e/relu_5x5_reduce
I0403 15:17:00.955948 11787 net.cpp:425] inception_4e/relu_5x5_reduce <- inception_4e/5x5_reduce
I0403 15:17:00.955966 11787 net.cpp:386] inception_4e/relu_5x5_reduce -> inception_4e/5x5_reduce (in-place)
I0403 15:17:00.956267 11787 net.cpp:141] Setting up inception_4e/relu_5x5_reduce
I0403 15:17:00.956293 11787 net.cpp:148] Top shape: 24 32 14 14 (150528)
I0403 15:17:00.956308 11787 net.cpp:156] Memory required for data: 1237333536
I0403 15:17:00.956322 11787 layer_factory.hpp:77] Creating layer inception_4e/5x5
I0403 15:17:00.956363 11787 net.cpp:91] Creating Layer inception_4e/5x5
I0403 15:17:00.956382 11787 net.cpp:425] inception_4e/5x5 <- inception_4e/5x5_reduce
I0403 15:17:00.956403 11787 net.cpp:399] inception_4e/5x5 -> inception_4e/5x5
I0403 15:17:00.958258 11787 net.cpp:141] Setting up inception_4e/5x5
I0403 15:17:00.958287 11787 net.cpp:148] Top shape: 24 128 14 14 (602112)
I0403 15:17:00.958302 11787 net.cpp:156] Memory required for data: 1239741984
I0403 15:17:00.958322 11787 layer_factory.hpp:77] Creating layer inception_4e/relu_5x5
I0403 15:17:00.958340 11787 net.cpp:91] Creating Layer inception_4e/relu_5x5
I0403 15:17:00.958356 11787 net.cpp:425] inception_4e/relu_5x5 <- inception_4e/5x5
I0403 15:17:00.958376 11787 net.cpp:386] inception_4e/relu_5x5 -> inception_4e/5x5 (in-place)
I0403 15:17:00.958580 11787 net.cpp:141] Setting up inception_4e/relu_5x5
I0403 15:17:00.958606 11787 net.cpp:148] Top shape: 24 128 14 14 (602112)
I0403 15:17:00.958621 11787 net.cpp:156] Memory required for data: 1242150432
I0403 15:17:00.958636 11787 layer_factory.hpp:77] Creating layer inception_4e/pool
I0403 15:17:00.958657 11787 net.cpp:91] Creating Layer inception_4e/pool
I0403 15:17:00.958674 11787 net.cpp:425] inception_4e/pool <- inception_4d/output_inception_4d/output_0_split_4
I0403 15:17:00.958693 11787 net.cpp:399] inception_4e/pool -> inception_4e/pool
I0403 15:17:00.958765 11787 net.cpp:141] Setting up inception_4e/pool
I0403 15:17:00.958788 11787 net.cpp:148] Top shape: 24 528 14 14 (2483712)
I0403 15:17:00.958802 11787 net.cpp:156] Memory required for data: 1252085280
I0403 15:17:00.958817 11787 layer_factory.hpp:77] Creating layer inception_4e/pool_proj
I0403 15:17:00.958839 11787 net.cpp:91] Creating Layer inception_4e/pool_proj
I0403 15:17:00.958858 11787 net.cpp:425] inception_4e/pool_proj <- inception_4e/pool
I0403 15:17:00.958878 11787 net.cpp:399] inception_4e/pool_proj -> inception_4e/pool_proj
I0403 15:17:00.960388 11787 net.cpp:141] Setting up inception_4e/pool_proj
I0403 15:17:00.960438 11787 net.cpp:148] Top shape: 24 128 14 14 (602112)
I0403 15:17:00.960455 11787 net.cpp:156] Memory required for data: 1254493728
I0403 15:17:00.960474 11787 layer_factory.hpp:77] Creating layer inception_4e/relu_pool_proj
I0403 15:17:00.960492 11787 net.cpp:91] Creating Layer inception_4e/relu_pool_proj
I0403 15:17:00.960508 11787 net.cpp:425] inception_4e/relu_pool_proj <- inception_4e/pool_proj
I0403 15:17:00.960528 11787 net.cpp:386] inception_4e/relu_pool_proj -> inception_4e/pool_proj (in-place)
I0403 15:17:00.960837 11787 net.cpp:141] Setting up inception_4e/relu_pool_proj
I0403 15:17:00.960866 11787 net.cpp:148] Top shape: 24 128 14 14 (602112)
I0403 15:17:00.960883 11787 net.cpp:156] Memory required for data: 1256902176
I0403 15:17:00.960899 11787 layer_factory.hpp:77] Creating layer inception_4e/output
I0403 15:17:00.960917 11787 net.cpp:91] Creating Layer inception_4e/output
I0403 15:17:00.960933 11787 net.cpp:425] inception_4e/output <- inception_4e/1x1
I0403 15:17:00.960952 11787 net.cpp:425] inception_4e/output <- inception_4e/3x3
I0403 15:17:00.960968 11787 net.cpp:425] inception_4e/output <- inception_4e/5x5
I0403 15:17:00.960985 11787 net.cpp:425] inception_4e/output <- inception_4e/pool_proj
I0403 15:17:00.961005 11787 net.cpp:399] inception_4e/output -> inception_4e/output
I0403 15:17:00.961057 11787 net.cpp:141] Setting up inception_4e/output
I0403 15:17:00.961081 11787 net.cpp:148] Top shape: 24 832 14 14 (3913728)
I0403 15:17:00.961097 11787 net.cpp:156] Memory required for data: 1272557088
I0403 15:17:00.961112 11787 layer_factory.hpp:77] Creating layer pool4/3x3_s2
I0403 15:17:00.961133 11787 net.cpp:91] Creating Layer pool4/3x3_s2
I0403 15:17:00.961150 11787 net.cpp:425] pool4/3x3_s2 <- inception_4e/output
I0403 15:17:00.961169 11787 net.cpp:399] pool4/3x3_s2 -> pool4/3x3_s2
I0403 15:17:00.961239 11787 net.cpp:141] Setting up pool4/3x3_s2
I0403 15:17:00.961264 11787 net.cpp:148] Top shape: 24 832 7 7 (978432)
I0403 15:17:00.961279 11787 net.cpp:156] Memory required for data: 1276470816
I0403 15:17:00.961293 11787 layer_factory.hpp:77] Creating layer pool4/3x3_s2_pool4/3x3_s2_0_split
I0403 15:17:00.961311 11787 net.cpp:91] Creating Layer pool4/3x3_s2_pool4/3x3_s2_0_split
I0403 15:17:00.961328 11787 net.cpp:425] pool4/3x3_s2_pool4/3x3_s2_0_split <- pool4/3x3_s2
I0403 15:17:00.961349 11787 net.cpp:399] pool4/3x3_s2_pool4/3x3_s2_0_split -> pool4/3x3_s2_pool4/3x3_s2_0_split_0
I0403 15:17:00.961370 11787 net.cpp:399] pool4/3x3_s2_pool4/3x3_s2_0_split -> pool4/3x3_s2_pool4/3x3_s2_0_split_1
I0403 15:17:00.961391 11787 net.cpp:399] pool4/3x3_s2_pool4/3x3_s2_0_split -> pool4/3x3_s2_pool4/3x3_s2_0_split_2
I0403 15:17:00.961418 11787 net.cpp:399] pool4/3x3_s2_pool4/3x3_s2_0_split -> pool4/3x3_s2_pool4/3x3_s2_0_split_3
I0403 15:17:00.961515 11787 net.cpp:141] Setting up pool4/3x3_s2_pool4/3x3_s2_0_split
I0403 15:17:00.961539 11787 net.cpp:148] Top shape: 24 832 7 7 (978432)
I0403 15:17:00.961556 11787 net.cpp:148] Top shape: 24 832 7 7 (978432)
I0403 15:17:00.961572 11787 net.cpp:148] Top shape: 24 832 7 7 (978432)
I0403 15:17:00.961588 11787 net.cpp:148] Top shape: 24 832 7 7 (978432)
I0403 15:17:00.961602 11787 net.cpp:156] Memory required for data: 1292125728
I0403 15:17:00.961617 11787 layer_factory.hpp:77] Creating layer inception_5a/1x1
I0403 15:17:00.961640 11787 net.cpp:91] Creating Layer inception_5a/1x1
I0403 15:17:00.961658 11787 net.cpp:425] inception_5a/1x1 <- pool4/3x3_s2_pool4/3x3_s2_0_split_0
I0403 15:17:00.961680 11787 net.cpp:399] inception_5a/1x1 -> inception_5a/1x1
I0403 15:17:00.964598 11787 net.cpp:141] Setting up inception_5a/1x1
I0403 15:17:00.964627 11787 net.cpp:148] Top shape: 24 256 7 7 (301056)
I0403 15:17:00.964643 11787 net.cpp:156] Memory required for data: 1293329952
I0403 15:17:00.964660 11787 layer_factory.hpp:77] Creating layer inception_5a/relu_1x1
I0403 15:17:00.964679 11787 net.cpp:91] Creating Layer inception_5a/relu_1x1
I0403 15:17:00.964694 11787 net.cpp:425] inception_5a/relu_1x1 <- inception_5a/1x1
I0403 15:17:00.964714 11787 net.cpp:386] inception_5a/relu_1x1 -> inception_5a/1x1 (in-place)
I0403 15:17:00.965020 11787 net.cpp:141] Setting up inception_5a/relu_1x1
I0403 15:17:00.965045 11787 net.cpp:148] Top shape: 24 256 7 7 (301056)
I0403 15:17:00.965060 11787 net.cpp:156] Memory required for data: 1294534176
I0403 15:17:00.965075 11787 layer_factory.hpp:77] Creating layer inception_5a/3x3_reduce
I0403 15:17:00.965097 11787 net.cpp:91] Creating Layer inception_5a/3x3_reduce
I0403 15:17:00.965114 11787 net.cpp:425] inception_5a/3x3_reduce <- pool4/3x3_s2_pool4/3x3_s2_0_split_1
I0403 15:17:00.965137 11787 net.cpp:399] inception_5a/3x3_reduce -> inception_5a/3x3_reduce
I0403 15:17:00.967547 11787 net.cpp:141] Setting up inception_5a/3x3_reduce
I0403 15:17:00.967578 11787 net.cpp:148] Top shape: 24 160 7 7 (188160)
I0403 15:17:00.967594 11787 net.cpp:156] Memory required for data: 1295286816
I0403 15:17:00.967612 11787 layer_factory.hpp:77] Creating layer inception_5a/relu_3x3_reduce
I0403 15:17:00.967629 11787 net.cpp:91] Creating Layer inception_5a/relu_3x3_reduce
I0403 15:17:00.967646 11787 net.cpp:425] inception_5a/relu_3x3_reduce <- inception_5a/3x3_reduce
I0403 15:17:00.967666 11787 net.cpp:386] inception_5a/relu_3x3_reduce -> inception_5a/3x3_reduce (in-place)
I0403 15:17:00.967849 11787 net.cpp:141] Setting up inception_5a/relu_3x3_reduce
I0403 15:17:00.967874 11787 net.cpp:148] Top shape: 24 160 7 7 (188160)
I0403 15:17:00.967887 11787 net.cpp:156] Memory required for data: 1296039456
I0403 15:17:00.967901 11787 layer_factory.hpp:77] Creating layer inception_5a/3x3
I0403 15:17:00.967923 11787 net.cpp:91] Creating Layer inception_5a/3x3
I0403 15:17:00.967941 11787 net.cpp:425] inception_5a/3x3 <- inception_5a/3x3_reduce
I0403 15:17:00.967963 11787 net.cpp:399] inception_5a/3x3 -> inception_5a/3x3
I0403 15:17:00.972930 11787 net.cpp:141] Setting up inception_5a/3x3
I0403 15:17:00.972959 11787 net.cpp:148] Top shape: 24 320 7 7 (376320)
I0403 15:17:00.972976 11787 net.cpp:156] Memory required for data: 1297544736
I0403 15:17:00.972995 11787 layer_factory.hpp:77] Creating layer inception_5a/relu_3x3
I0403 15:17:00.973012 11787 net.cpp:91] Creating Layer inception_5a/relu_3x3
I0403 15:17:00.973033 11787 net.cpp:425] inception_5a/relu_3x3 <- inception_5a/3x3
I0403 15:17:00.973050 11787 net.cpp:386] inception_5a/relu_3x3 -> inception_5a/3x3 (in-place)
I0403 15:17:00.973340 11787 net.cpp:141] Setting up inception_5a/relu_3x3
I0403 15:17:00.973366 11787 net.cpp:148] Top shape: 24 320 7 7 (376320)
I0403 15:17:00.973381 11787 net.cpp:156] Memory required for data: 1299050016
I0403 15:17:00.973395 11787 layer_factory.hpp:77] Creating layer inception_5a/5x5_reduce
I0403 15:17:00.973424 11787 net.cpp:91] Creating Layer inception_5a/5x5_reduce
I0403 15:17:00.973443 11787 net.cpp:425] inception_5a/5x5_reduce <- pool4/3x3_s2_pool4/3x3_s2_0_split_2
I0403 15:17:00.973464 11787 net.cpp:399] inception_5a/5x5_reduce -> inception_5a/5x5_reduce
I0403 15:17:00.974609 11787 net.cpp:141] Setting up inception_5a/5x5_reduce
I0403 15:17:00.974637 11787 net.cpp:148] Top shape: 24 32 7 7 (37632)
I0403 15:17:00.974653 11787 net.cpp:156] Memory required for data: 1299200544
I0403 15:17:00.974670 11787 layer_factory.hpp:77] Creating layer inception_5a/relu_5x5_reduce
I0403 15:17:00.974690 11787 net.cpp:91] Creating Layer inception_5a/relu_5x5_reduce
I0403 15:17:00.974707 11787 net.cpp:425] inception_5a/relu_5x5_reduce <- inception_5a/5x5_reduce
I0403 15:17:00.974725 11787 net.cpp:386] inception_5a/relu_5x5_reduce -> inception_5a/5x5_reduce (in-place)
I0403 15:17:00.975019 11787 net.cpp:141] Setting up inception_5a/relu_5x5_reduce
I0403 15:17:00.975045 11787 net.cpp:148] Top shape: 24 32 7 7 (37632)
I0403 15:17:00.975059 11787 net.cpp:156] Memory required for data: 1299351072
I0403 15:17:00.975074 11787 layer_factory.hpp:77] Creating layer inception_5a/5x5
I0403 15:17:00.975096 11787 net.cpp:91] Creating Layer inception_5a/5x5
I0403 15:17:00.975114 11787 net.cpp:425] inception_5a/5x5 <- inception_5a/5x5_reduce
I0403 15:17:00.975136 11787 net.cpp:399] inception_5a/5x5 -> inception_5a/5x5
I0403 15:17:00.976811 11787 net.cpp:141] Setting up inception_5a/5x5
I0403 15:17:00.976850 11787 net.cpp:148] Top shape: 24 128 7 7 (150528)
I0403 15:17:00.976866 11787 net.cpp:156] Memory required for data: 1299953184
I0403 15:17:00.976884 11787 layer_factory.hpp:77] Creating layer inception_5a/relu_5x5
I0403 15:17:00.976902 11787 net.cpp:91] Creating Layer inception_5a/relu_5x5
I0403 15:17:00.976922 11787 net.cpp:425] inception_5a/relu_5x5 <- inception_5a/5x5
I0403 15:17:00.976939 11787 net.cpp:386] inception_5a/relu_5x5 -> inception_5a/5x5 (in-place)
I0403 15:17:00.977125 11787 net.cpp:141] Setting up inception_5a/relu_5x5
I0403 15:17:00.977149 11787 net.cpp:148] Top shape: 24 128 7 7 (150528)
I0403 15:17:00.977164 11787 net.cpp:156] Memory required for data: 1300555296
I0403 15:17:00.977179 11787 layer_factory.hpp:77] Creating layer inception_5a/pool
I0403 15:17:00.977197 11787 net.cpp:91] Creating Layer inception_5a/pool
I0403 15:17:00.977215 11787 net.cpp:425] inception_5a/pool <- pool4/3x3_s2_pool4/3x3_s2_0_split_3
I0403 15:17:00.977232 11787 net.cpp:399] inception_5a/pool -> inception_5a/pool
I0403 15:17:00.977301 11787 net.cpp:141] Setting up inception_5a/pool
I0403 15:17:00.977324 11787 net.cpp:148] Top shape: 24 832 7 7 (978432)
I0403 15:17:00.977339 11787 net.cpp:156] Memory required for data: 1304469024
I0403 15:17:00.977354 11787 layer_factory.hpp:77] Creating layer inception_5a/pool_proj
I0403 15:17:00.977375 11787 net.cpp:91] Creating Layer inception_5a/pool_proj
I0403 15:17:00.977391 11787 net.cpp:425] inception_5a/pool_proj <- inception_5a/pool
I0403 15:17:00.977421 11787 net.cpp:399] inception_5a/pool_proj -> inception_5a/pool_proj
I0403 15:17:00.979678 11787 net.cpp:141] Setting up inception_5a/pool_proj
I0403 15:17:00.979707 11787 net.cpp:148] Top shape: 24 128 7 7 (150528)
I0403 15:17:00.979722 11787 net.cpp:156] Memory required for data: 1305071136
I0403 15:17:00.979740 11787 layer_factory.hpp:77] Creating layer inception_5a/relu_pool_proj
I0403 15:17:00.979758 11787 net.cpp:91] Creating Layer inception_5a/relu_pool_proj
I0403 15:17:00.979773 11787 net.cpp:425] inception_5a/relu_pool_proj <- inception_5a/pool_proj
I0403 15:17:00.979794 11787 net.cpp:386] inception_5a/relu_pool_proj -> inception_5a/pool_proj (in-place)
I0403 15:17:00.980082 11787 net.cpp:141] Setting up inception_5a/relu_pool_proj
I0403 15:17:00.980108 11787 net.cpp:148] Top shape: 24 128 7 7 (150528)
I0403 15:17:00.980123 11787 net.cpp:156] Memory required for data: 1305673248
I0403 15:17:00.980137 11787 layer_factory.hpp:77] Creating layer inception_5a/output
I0403 15:17:00.980154 11787 net.cpp:91] Creating Layer inception_5a/output
I0403 15:17:00.980170 11787 net.cpp:425] inception_5a/output <- inception_5a/1x1
I0403 15:17:00.980186 11787 net.cpp:425] inception_5a/output <- inception_5a/3x3
I0403 15:17:00.980202 11787 net.cpp:425] inception_5a/output <- inception_5a/5x5
I0403 15:17:00.980217 11787 net.cpp:425] inception_5a/output <- inception_5a/pool_proj
I0403 15:17:00.980237 11787 net.cpp:399] inception_5a/output -> inception_5a/output
I0403 15:17:00.980285 11787 net.cpp:141] Setting up inception_5a/output
I0403 15:17:00.980309 11787 net.cpp:148] Top shape: 24 832 7 7 (978432)
I0403 15:17:00.980325 11787 net.cpp:156] Memory required for data: 1309586976
I0403 15:17:00.980340 11787 layer_factory.hpp:77] Creating layer inception_5a/output_inception_5a/output_0_split
I0403 15:17:00.980356 11787 net.cpp:91] Creating Layer inception_5a/output_inception_5a/output_0_split
I0403 15:17:00.980371 11787 net.cpp:425] inception_5a/output_inception_5a/output_0_split <- inception_5a/output
I0403 15:17:00.980388 11787 net.cpp:399] inception_5a/output_inception_5a/output_0_split -> inception_5a/output_inception_5a/output_0_split_0
I0403 15:17:00.980408 11787 net.cpp:399] inception_5a/output_inception_5a/output_0_split -> inception_5a/output_inception_5a/output_0_split_1
I0403 15:17:00.980437 11787 net.cpp:399] inception_5a/output_inception_5a/output_0_split -> inception_5a/output_inception_5a/output_0_split_2
I0403 15:17:00.980459 11787 net.cpp:399] inception_5a/output_inception_5a/output_0_split -> inception_5a/output_inception_5a/output_0_split_3
I0403 15:17:00.980567 11787 net.cpp:141] Setting up inception_5a/output_inception_5a/output_0_split
I0403 15:17:00.980590 11787 net.cpp:148] Top shape: 24 832 7 7 (978432)
I0403 15:17:00.980607 11787 net.cpp:148] Top shape: 24 832 7 7 (978432)
I0403 15:17:00.980622 11787 net.cpp:148] Top shape: 24 832 7 7 (978432)
I0403 15:17:00.980638 11787 net.cpp:148] Top shape: 24 832 7 7 (978432)
I0403 15:17:00.980650 11787 net.cpp:156] Memory required for data: 1325241888
I0403 15:17:00.980664 11787 layer_factory.hpp:77] Creating layer inception_5b/1x1
I0403 15:17:00.980685 11787 net.cpp:91] Creating Layer inception_5b/1x1
I0403 15:17:00.980703 11787 net.cpp:425] inception_5b/1x1 <- inception_5a/output_inception_5a/output_0_split_0
I0403 15:17:00.980723 11787 net.cpp:399] inception_5b/1x1 -> inception_5b/1x1
I0403 15:17:00.984432 11787 net.cpp:141] Setting up inception_5b/1x1
I0403 15:17:00.984464 11787 net.cpp:148] Top shape: 24 384 7 7 (451584)
I0403 15:17:00.984480 11787 net.cpp:156] Memory required for data: 1327048224
I0403 15:17:00.984498 11787 layer_factory.hpp:77] Creating layer inception_5b/relu_1x1
I0403 15:17:00.984516 11787 net.cpp:91] Creating Layer inception_5b/relu_1x1
I0403 15:17:00.984532 11787 net.cpp:425] inception_5b/relu_1x1 <- inception_5b/1x1
I0403 15:17:00.984552 11787 net.cpp:386] inception_5b/relu_1x1 -> inception_5b/1x1 (in-place)
I0403 15:17:00.984849 11787 net.cpp:141] Setting up inception_5b/relu_1x1
I0403 15:17:00.984876 11787 net.cpp:148] Top shape: 24 384 7 7 (451584)
I0403 15:17:00.984892 11787 net.cpp:156] Memory required for data: 1328854560
I0403 15:17:00.984906 11787 layer_factory.hpp:77] Creating layer inception_5b/3x3_reduce
I0403 15:17:00.984928 11787 net.cpp:91] Creating Layer inception_5b/3x3_reduce
I0403 15:17:00.984946 11787 net.cpp:425] inception_5b/3x3_reduce <- inception_5a/output_inception_5a/output_0_split_1
I0403 15:17:00.984966 11787 net.cpp:399] inception_5b/3x3_reduce -> inception_5b/3x3_reduce
I0403 15:17:00.987577 11787 net.cpp:141] Setting up inception_5b/3x3_reduce
I0403 15:17:00.987609 11787 net.cpp:148] Top shape: 24 192 7 7 (225792)
I0403 15:17:00.987625 11787 net.cpp:156] Memory required for data: 1329757728
I0403 15:17:00.987643 11787 layer_factory.hpp:77] Creating layer inception_5b/relu_3x3_reduce
I0403 15:17:00.987660 11787 net.cpp:91] Creating Layer inception_5b/relu_3x3_reduce
I0403 15:17:00.987678 11787 net.cpp:425] inception_5b/relu_3x3_reduce <- inception_5b/3x3_reduce
I0403 15:17:00.987696 11787 net.cpp:386] inception_5b/relu_3x3_reduce -> inception_5b/3x3_reduce (in-place)
I0403 15:17:00.987885 11787 net.cpp:141] Setting up inception_5b/relu_3x3_reduce
I0403 15:17:00.987910 11787 net.cpp:148] Top shape: 24 192 7 7 (225792)
I0403 15:17:00.987923 11787 net.cpp:156] Memory required for data: 1330660896
I0403 15:17:00.987937 11787 layer_factory.hpp:77] Creating layer inception_5b/3x3
I0403 15:17:00.987960 11787 net.cpp:91] Creating Layer inception_5b/3x3
I0403 15:17:00.987977 11787 net.cpp:425] inception_5b/3x3 <- inception_5b/3x3_reduce
I0403 15:17:00.987999 11787 net.cpp:399] inception_5b/3x3 -> inception_5b/3x3
I0403 15:17:00.994547 11787 net.cpp:141] Setting up inception_5b/3x3
I0403 15:17:00.994575 11787 net.cpp:148] Top shape: 24 384 7 7 (451584)
I0403 15:17:00.994590 11787 net.cpp:156] Memory required for data: 1332467232
I0403 15:17:00.994608 11787 layer_factory.hpp:77] Creating layer inception_5b/relu_3x3
I0403 15:17:00.994626 11787 net.cpp:91] Creating Layer inception_5b/relu_3x3
I0403 15:17:00.994642 11787 net.cpp:425] inception_5b/relu_3x3 <- inception_5b/3x3
I0403 15:17:00.994663 11787 net.cpp:386] inception_5b/relu_3x3 -> inception_5b/3x3 (in-place)
I0403 15:17:00.994956 11787 net.cpp:141] Setting up inception_5b/relu_3x3
I0403 15:17:00.994981 11787 net.cpp:148] Top shape: 24 384 7 7 (451584)
I0403 15:17:00.994994 11787 net.cpp:156] Memory required for data: 1334273568
I0403 15:17:00.995009 11787 layer_factory.hpp:77] Creating layer inception_5b/5x5_reduce
I0403 15:17:00.995048 11787 net.cpp:91] Creating Layer inception_5b/5x5_reduce
I0403 15:17:00.995065 11787 net.cpp:425] inception_5b/5x5_reduce <- inception_5a/output_inception_5a/output_0_split_2
I0403 15:17:00.995087 11787 net.cpp:399] inception_5b/5x5_reduce -> inception_5b/5x5_reduce
I0403 15:17:00.996321 11787 net.cpp:141] Setting up inception_5b/5x5_reduce
I0403 15:17:00.996351 11787 net.cpp:148] Top shape: 24 48 7 7 (56448)
I0403 15:17:00.996367 11787 net.cpp:156] Memory required for data: 1334499360
I0403 15:17:00.996389 11787 layer_factory.hpp:77] Creating layer inception_5b/relu_5x5_reduce
I0403 15:17:00.996407 11787 net.cpp:91] Creating Layer inception_5b/relu_5x5_reduce
I0403 15:17:00.996431 11787 net.cpp:425] inception_5b/relu_5x5_reduce <- inception_5b/5x5_reduce
I0403 15:17:00.996451 11787 net.cpp:386] inception_5b/relu_5x5_reduce -> inception_5b/5x5_reduce (in-place)
I0403 15:17:00.996830 11787 net.cpp:141] Setting up inception_5b/relu_5x5_reduce
I0403 15:17:00.996863 11787 net.cpp:148] Top shape: 24 48 7 7 (56448)
I0403 15:17:00.996889 11787 net.cpp:156] Memory required for data: 1334725152
I0403 15:17:00.996912 11787 layer_factory.hpp:77] Creating layer inception_5b/5x5
I0403 15:17:00.996937 11787 net.cpp:91] Creating Layer inception_5b/5x5
I0403 15:17:00.996960 11787 net.cpp:425] inception_5b/5x5 <- inception_5b/5x5_reduce
I0403 15:17:00.996997 11787 net.cpp:399] inception_5b/5x5 -> inception_5b/5x5
I0403 15:17:00.999095 11787 net.cpp:141] Setting up inception_5b/5x5
I0403 15:17:00.999125 11787 net.cpp:148] Top shape: 24 128 7 7 (150528)
I0403 15:17:00.999141 11787 net.cpp:156] Memory required for data: 1335327264
I0403 15:17:00.999160 11787 layer_factory.hpp:77] Creating layer inception_5b/relu_5x5
I0403 15:17:00.999177 11787 net.cpp:91] Creating Layer inception_5b/relu_5x5
I0403 15:17:00.999194 11787 net.cpp:425] inception_5b/relu_5x5 <- inception_5b/5x5
I0403 15:17:00.999214 11787 net.cpp:386] inception_5b/relu_5x5 -> inception_5b/5x5 (in-place)
I0403 15:17:00.999421 11787 net.cpp:141] Setting up inception_5b/relu_5x5
I0403 15:17:00.999449 11787 net.cpp:148] Top shape: 24 128 7 7 (150528)
I0403 15:17:00.999464 11787 net.cpp:156] Memory required for data: 1335929376
I0403 15:17:00.999480 11787 layer_factory.hpp:77] Creating layer inception_5b/pool
I0403 15:17:00.999500 11787 net.cpp:91] Creating Layer inception_5b/pool
I0403 15:17:00.999517 11787 net.cpp:425] inception_5b/pool <- inception_5a/output_inception_5a/output_0_split_3
I0403 15:17:00.999536 11787 net.cpp:399] inception_5b/pool -> inception_5b/pool
I0403 15:17:00.999614 11787 net.cpp:141] Setting up inception_5b/pool
I0403 15:17:00.999639 11787 net.cpp:148] Top shape: 24 832 7 7 (978432)
I0403 15:17:00.999653 11787 net.cpp:156] Memory required for data: 1339843104
I0403 15:17:00.999668 11787 layer_factory.hpp:77] Creating layer inception_5b/pool_proj
I0403 15:17:00.999691 11787 net.cpp:91] Creating Layer inception_5b/pool_proj
I0403 15:17:00.999709 11787 net.cpp:425] inception_5b/pool_proj <- inception_5b/pool
I0403 15:17:00.999732 11787 net.cpp:399] inception_5b/pool_proj -> inception_5b/pool_proj
I0403 15:17:01.002128 11787 net.cpp:141] Setting up inception_5b/pool_proj
I0403 15:17:01.002161 11787 net.cpp:148] Top shape: 24 128 7 7 (150528)
I0403 15:17:01.002179 11787 net.cpp:156] Memory required for data: 1340445216
I0403 15:17:01.002198 11787 layer_factory.hpp:77] Creating layer inception_5b/relu_pool_proj
I0403 15:17:01.002218 11787 net.cpp:91] Creating Layer inception_5b/relu_pool_proj
I0403 15:17:01.002234 11787 net.cpp:425] inception_5b/relu_pool_proj <- inception_5b/pool_proj
I0403 15:17:01.002255 11787 net.cpp:386] inception_5b/relu_pool_proj -> inception_5b/pool_proj (in-place)
I0403 15:17:01.002579 11787 net.cpp:141] Setting up inception_5b/relu_pool_proj
I0403 15:17:01.002609 11787 net.cpp:148] Top shape: 24 128 7 7 (150528)
I0403 15:17:01.002625 11787 net.cpp:156] Memory required for data: 1341047328
I0403 15:17:01.002641 11787 layer_factory.hpp:77] Creating layer inception_5b/output
I0403 15:17:01.002660 11787 net.cpp:91] Creating Layer inception_5b/output
I0403 15:17:01.002691 11787 net.cpp:425] inception_5b/output <- inception_5b/1x1
I0403 15:17:01.002710 11787 net.cpp:425] inception_5b/output <- inception_5b/3x3
I0403 15:17:01.002728 11787 net.cpp:425] inception_5b/output <- inception_5b/5x5
I0403 15:17:01.002744 11787 net.cpp:425] inception_5b/output <- inception_5b/pool_proj
I0403 15:17:01.002765 11787 net.cpp:399] inception_5b/output -> inception_5b/output
I0403 15:17:01.002820 11787 net.cpp:141] Setting up inception_5b/output
I0403 15:17:01.002845 11787 net.cpp:148] Top shape: 24 1024 7 7 (1204224)
I0403 15:17:01.002861 11787 net.cpp:156] Memory required for data: 1345864224
I0403 15:17:01.002876 11787 layer_factory.hpp:77] Creating layer pool5/7x7_s1
I0403 15:17:01.002897 11787 net.cpp:91] Creating Layer pool5/7x7_s1
I0403 15:17:01.002913 11787 net.cpp:425] pool5/7x7_s1 <- inception_5b/output
I0403 15:17:01.002931 11787 net.cpp:399] pool5/7x7_s1 -> pool5/7x7_s1
I0403 15:17:01.003159 11787 net.cpp:141] Setting up pool5/7x7_s1
I0403 15:17:01.003185 11787 net.cpp:148] Top shape: 24 1024 1 1 (24576)
I0403 15:17:01.003201 11787 net.cpp:156] Memory required for data: 1345962528
I0403 15:17:01.003216 11787 layer_factory.hpp:77] Creating layer pool5/drop_7x7_s1
I0403 15:17:01.003234 11787 net.cpp:91] Creating Layer pool5/drop_7x7_s1
I0403 15:17:01.003252 11787 net.cpp:425] pool5/drop_7x7_s1 <- pool5/7x7_s1
I0403 15:17:01.003273 11787 net.cpp:386] pool5/drop_7x7_s1 -> pool5/7x7_s1 (in-place)
I0403 15:17:01.003325 11787 net.cpp:141] Setting up pool5/drop_7x7_s1
I0403 15:17:01.003352 11787 net.cpp:148] Top shape: 24 1024 1 1 (24576)
I0403 15:17:01.003367 11787 net.cpp:156] Memory required for data: 1346060832
I0403 15:17:01.003383 11787 layer_factory.hpp:77] Creating layer loss3/classifier_plantvillage
I0403 15:17:01.003402 11787 net.cpp:91] Creating Layer loss3/classifier_plantvillage
I0403 15:17:01.003424 11787 net.cpp:425] loss3/classifier_plantvillage <- pool5/7x7_s1
I0403 15:17:01.003448 11787 net.cpp:399] loss3/classifier_plantvillage -> loss3/classifier_plantvillage
I0403 15:17:01.003882 11787 net.cpp:141] Setting up loss3/classifier_plantvillage
I0403 15:17:01.003911 11787 net.cpp:148] Top shape: 24 38 (912)
I0403 15:17:01.003927 11787 net.cpp:156] Memory required for data: 1346064480
I0403 15:17:01.003945 11787 layer_factory.hpp:77] Creating layer loss3/classifier_plantvillage_loss3/classifier_plantvillage_0_split
I0403 15:17:01.003965 11787 net.cpp:91] Creating Layer loss3/classifier_plantvillage_loss3/classifier_plantvillage_0_split
I0403 15:17:01.003981 11787 net.cpp:425] loss3/classifier_plantvillage_loss3/classifier_plantvillage_0_split <- loss3/classifier_plantvillage
I0403 15:17:01.004000 11787 net.cpp:399] loss3/classifier_plantvillage_loss3/classifier_plantvillage_0_split -> loss3/classifier_plantvillage_loss3/classifier_plantvillage_0_split_0
I0403 15:17:01.004020 11787 net.cpp:399] loss3/classifier_plantvillage_loss3/classifier_plantvillage_0_split -> loss3/classifier_plantvillage_loss3/classifier_plantvillage_0_split_1
I0403 15:17:01.004043 11787 net.cpp:399] loss3/classifier_plantvillage_loss3/classifier_plantvillage_0_split -> loss3/classifier_plantvillage_loss3/classifier_plantvillage_0_split_2
I0403 15:17:01.004065 11787 net.cpp:399] loss3/classifier_plantvillage_loss3/classifier_plantvillage_0_split -> loss3/classifier_plantvillage_loss3/classifier_plantvillage_0_split_3
I0403 15:17:01.004169 11787 net.cpp:141] Setting up loss3/classifier_plantvillage_loss3/classifier_plantvillage_0_split
I0403 15:17:01.004194 11787 net.cpp:148] Top shape: 24 38 (912)
I0403 15:17:01.004211 11787 net.cpp:148] Top shape: 24 38 (912)
I0403 15:17:01.004226 11787 net.cpp:148] Top shape: 24 38 (912)
I0403 15:17:01.004242 11787 net.cpp:148] Top shape: 24 38 (912)
I0403 15:17:01.004256 11787 net.cpp:156] Memory required for data: 1346079072
I0403 15:17:01.004271 11787 layer_factory.hpp:77] Creating layer loss1/loss
I0403 15:17:01.004292 11787 net.cpp:91] Creating Layer loss1/loss
I0403 15:17:01.004310 11787 net.cpp:425] loss1/loss <- loss1/classifier_plantvillage_loss1/classifier_plantvillage_0_split_0
I0403 15:17:01.004344 11787 net.cpp:425] loss1/loss <- label_data_1_split_0
…
