…
I0403 04:58:14.313189 19635 net.cpp:313] The NetState phase (0) differed from the phase (1) specified by a rule in layer accuracy
I0403 04:58:14.314909 19635 net.cpp:49] Initializing net from parameters: 
state {
  phase: TRAIN
}
layer {
  name: "data"
  type: "Data"
  top: "data"
  top: "label"
  include {
    phase: TRAIN
  }
  transform_param {
    mirror: true
    crop_size: 227
    mean_file: "/home/mohanty/data/final_dataset/lmdb/color-40-60/mean.binaryproto"
  }
  data_param {
    source: "/home/mohanty/data/final_dataset/lmdb/color-40-60/train_db"
    batch_size: 100
    backend: LMDB
  }
}
layer {
  name: "conv1"
  type: "Convolution"
  bottom: "data"
  top: "conv1"
  param {
    lr_mult: 1
    decay_mult: 1
  }
  param {
    lr_mult: 2
    decay_mult: 0
  }
  convolution_param {
    num_output: 96
    kernel_size: 11
    stride: 4
    weight_filler {
      type: "gaussian"
      std: 0.01
    }
    bias_filler {
      type: "constant"
      value: 0
    }
  }
}
layer {
  name: "relu1"
  type: "ReLU"
  bottom: "conv1"
  top: "conv1"
}
layer {
  name: "norm1"
  type: "LRN"
  bottom: "conv1"
  top: "norm1"
  lrn_param {
    local_size: 5
    alpha: 0.0001
    beta: 0.75
  }
}
layer {
  name: "pool1"
  type: "Pooling"
  bottom: "norm1"
  top: "pool1"
  pooling_param {
    pool: MAX
    kernel_size: 3
    stride: 2
  }
}
layer {
  name: "conv2"
  type: "Convolution"
  bottom: "pool1"
  top: "conv2"
  param {
    lr_mult: 1
    decay_mult: 1
  }
  param {
    lr_mult: 2
    decay_mult: 0
  }
  convolution_param {
    num_output: 256
    pad: 2
    kernel_size: 5
    group: 2
    weight_filler {
      type: "gaussian"
      std: 0.01
    }
    bias_filler {
      type: "constant"
      value: 0.1
    }
  }
}
layer {
  name: "relu2"
  type: "ReLU"
  bottom: "conv2"
  top: "conv2"
}
layer {
  name: "norm2"
  type: "LRN"
  bottom: "conv2"
  top: "norm2"
  lrn_param {
    local_size: 5
    alpha: 0.0001
    beta: 0.75
  }
}
layer {
  name: "pool2"
  type: "Pooling"
  bottom: "norm2"
  top: "pool2"
  pooling_param {
    pool: MAX
    kernel_size: 3
    stride: 2
  }
}
layer {
  name: "conv3"
  type: "Convolution"
  bottom: "pool2"
  top: "conv3"
  param {
    lr_mult: 1
    decay_mult: 1
  }
  param {
    lr_mult: 2
    decay_mult: 0
  }
  convolution_param {
    num_output: 384
    pad: 1
    kernel_size: 3
    weight_filler {
      type: "gaussian"
      std: 0.01
    }
    bias_filler {
      type: "constant"
      value: 0
    }
  }
}
layer {
  name: "relu3"
  type: "ReLU"
  bottom: "conv3"
  top: "conv3"
}
layer {
  name: "conv4"
  type: "Convolution"
  bottom: "conv3"
  top: "conv4"
  param {
    lr_mult: 1
    decay_mult: 1
  }
  param {
    lr_mult: 2
    decay_mult: 0
  }
  convolution_param {
    num_output: 384
    pad: 1
    kernel_size: 3
    group: 2
    weight_filler {
      type: "gaussian"
      std: 0.01
    }
    bias_filler {
      type: "constant"
      value: 0.1
    }
  }
}
layer {
  name: "relu4"
  type: "ReLU"
  bottom: "conv4"
  top: "conv4"
}
layer {
  name: "conv5"
  type: "Convolution"
  bottom: "conv4"
  top: "conv5"
  param {
    lr_mult: 1
    decay_mult: 1
  }
  param {
    lr_mult: 2
    decay_mult: 0
  }
  convolution_param {
    num_output: 256
    pad: 1
    kernel_size: 3
    group: 2
    weight_filler {
      type: "gaussian"
      std: 0.01
    }
    bias_filler {
      type: "constant"
      value: 0.1
    }
  }
}
layer {
  name: "relu5"
  type: "ReLU"
  bottom: "conv5"
  top: "conv5"
}
layer {
  name: "pool5"
  type: "Pooling"
  bottom: "conv5"
  top: "pool5"
  pooling_param {
    pool: MAX
    kernel_size: 3
    stride: 2
  }
}
layer {
  name: "fc6"
  type: "InnerProduct"
  bottom: "pool5"
  top: "fc6"
  param {
    lr_mult: 1
    decay_mult: 1
  }
  param {
    lr_mult: 2
    decay_mult: 0
  }
  inner_product_param {
    num_output: 4096
    weight_filler {
      type: "gaussian"
      std: 0.005
    }
    bias_filler {
      type: "constant"
      value: 0.1
    }
  }
}
layer {
  name: "relu6"
  type: "ReLU"
  bottom: "fc6"
  top: "fc6"
}
layer {
  name: "drop6"
  type: "Dropout"
  bottom: "fc6"
  top: "fc6"
  dropout_param {
    dropout_ratio: 0.5
  }
}
layer {
  name: "fc7"
  type: "InnerProduct"
  bottom: "fc6"
  top: "fc7"
  param {
    lr_mult: 1
    decay_mult: 1
  }
  param {
    lr_mult: 2
    decay_mult: 0
  }
  inner_product_param {
    num_output: 4096
    weight_filler {
      type: "gaussian"
      std: 0.005
    }
    bias_filler {
      type: "constant"
      value: 0.1
    }
  }
}
layer {
  name: "relu7"
  type: "ReLU"
  bottom: "fc7"
  top: "fc7"
}
layer {
  name: "drop7"
  type: "Dropout"
  bottom: "fc7"
  top: "fc7"
  dropout_param {
    dropout_ratio: 0.5
  }
}
layer {
  name: "fc8_plantvillage"
  type: "InnerProduct"
  bottom: "fc7"
  top: "fc8_plantvillage"
  param {
    lr_mult: 1
    decay_mult: 1
  }
  param {
    lr_mult: 2
    decay_mult: 0
  }
  inner_product_param {
    num_output: 38
    weight_filler {
      type: "gaussian"
      std: 0.01
    }
    bias_filler {
      type: "constant"
      value: 0
    }
  }
}
layer {
  name: "loss"
  type: "SoftmaxWithLoss"
  bottom: "fc8_plantvillage"
  bottom: "label"
  top: "loss"
}
I0403 04:58:14.315882 19635 layer_factory.hpp:77] Creating layer data
I0403 04:58:14.317569 19635 net.cpp:91] Creating Layer data
I0403 04:58:14.317659 19635 net.cpp:399] data -> data
I0403 04:58:14.317785 19635 net.cpp:399] data -> label
I0403 04:58:14.317876 19635 data_transformer.cpp:25] Loading mean file from: /home/mohanty/data/final_dataset/lmdb/color-40-60/mean.binaryproto
I0403 04:58:14.382782 19638 db_lmdb.cpp:38] Opened lmdb /home/mohanty/data/final_dataset/lmdb/color-40-60/train_db
I0403 04:58:14.414209 19635 data_layer.cpp:41] output data size: 100,3,227,227
I0403 04:58:14.531915 19635 net.cpp:141] Setting up data
I0403 04:58:14.532018 19635 net.cpp:148] Top shape: 100 3 227 227 (15458700)
I0403 04:58:14.532039 19635 net.cpp:148] Top shape: 100 (100)
I0403 04:58:14.532054 19635 net.cpp:156] Memory required for data: 61835200
I0403 04:58:14.532085 19635 layer_factory.hpp:77] Creating layer conv1
I0403 04:58:14.532130 19635 net.cpp:91] Creating Layer conv1
I0403 04:58:14.532151 19635 net.cpp:425] conv1 <- data
I0403 04:58:14.532182 19635 net.cpp:399] conv1 -> conv1
I0403 04:58:14.534742 19635 net.cpp:141] Setting up conv1
I0403 04:58:14.534771 19635 net.cpp:148] Top shape: 100 96 55 55 (29040000)
I0403 04:58:14.534787 19635 net.cpp:156] Memory required for data: 177995200
I0403 04:58:14.534823 19635 layer_factory.hpp:77] Creating layer relu1
I0403 04:58:14.534849 19635 net.cpp:91] Creating Layer relu1
I0403 04:58:14.534867 19635 net.cpp:425] relu1 <- conv1
I0403 04:58:14.534883 19635 net.cpp:386] relu1 -> conv1 (in-place)
I0403 04:58:14.534906 19635 net.cpp:141] Setting up relu1
I0403 04:58:14.534925 19635 net.cpp:148] Top shape: 100 96 55 55 (29040000)
I0403 04:58:14.534940 19635 net.cpp:156] Memory required for data: 294155200
I0403 04:58:14.534955 19635 layer_factory.hpp:77] Creating layer norm1
I0403 04:58:14.534975 19635 net.cpp:91] Creating Layer norm1
I0403 04:58:14.535027 19635 net.cpp:425] norm1 <- conv1
I0403 04:58:14.535046 19635 net.cpp:399] norm1 -> norm1
I0403 04:58:14.540721 19635 net.cpp:141] Setting up norm1
I0403 04:58:14.540755 19635 net.cpp:148] Top shape: 100 96 55 55 (29040000)
I0403 04:58:14.540771 19635 net.cpp:156] Memory required for data: 410315200
I0403 04:58:14.540786 19635 layer_factory.hpp:77] Creating layer pool1
I0403 04:58:14.540808 19635 net.cpp:91] Creating Layer pool1
I0403 04:58:14.540823 19635 net.cpp:425] pool1 <- norm1
I0403 04:58:14.540843 19635 net.cpp:399] pool1 -> pool1
I0403 04:58:14.540904 19635 net.cpp:141] Setting up pool1
I0403 04:58:14.540928 19635 net.cpp:148] Top shape: 100 96 27 27 (6998400)
I0403 04:58:14.540945 19635 net.cpp:156] Memory required for data: 438308800
I0403 04:58:14.540959 19635 layer_factory.hpp:77] Creating layer conv2
I0403 04:58:14.540980 19635 net.cpp:91] Creating Layer conv2
I0403 04:58:14.540997 19635 net.cpp:425] conv2 <- pool1
I0403 04:58:14.541014 19635 net.cpp:399] conv2 -> conv2
I0403 04:58:14.542435 19639 blocking_queue.cpp:50] Waiting for data
I0403 04:58:14.558039 19635 net.cpp:141] Setting up conv2
I0403 04:58:14.558068 19635 net.cpp:148] Top shape: 100 256 27 27 (18662400)
I0403 04:58:14.558082 19635 net.cpp:156] Memory required for data: 512958400
I0403 04:58:14.558104 19635 layer_factory.hpp:77] Creating layer relu2
I0403 04:58:14.558121 19635 net.cpp:91] Creating Layer relu2
I0403 04:58:14.558136 19635 net.cpp:425] relu2 <- conv2
I0403 04:58:14.558153 19635 net.cpp:386] relu2 -> conv2 (in-place)
I0403 04:58:14.558171 19635 net.cpp:141] Setting up relu2
I0403 04:58:14.558188 19635 net.cpp:148] Top shape: 100 256 27 27 (18662400)
I0403 04:58:14.558202 19635 net.cpp:156] Memory required for data: 587608000
I0403 04:58:14.558215 19635 layer_factory.hpp:77] Creating layer norm2
I0403 04:58:14.558233 19635 net.cpp:91] Creating Layer norm2
I0403 04:58:14.558248 19635 net.cpp:425] norm2 <- conv2
I0403 04:58:14.558265 19635 net.cpp:399] norm2 -> norm2
I0403 04:58:14.558310 19635 net.cpp:141] Setting up norm2
I0403 04:58:14.558331 19635 net.cpp:148] Top shape: 100 256 27 27 (18662400)
I0403 04:58:14.558344 19635 net.cpp:156] Memory required for data: 662257600
I0403 04:58:14.558358 19635 layer_factory.hpp:77] Creating layer pool2
I0403 04:58:14.558377 19635 net.cpp:91] Creating Layer pool2
I0403 04:58:14.558393 19635 net.cpp:425] pool2 <- norm2
I0403 04:58:14.558410 19635 net.cpp:399] pool2 -> pool2
I0403 04:58:14.558450 19635 net.cpp:141] Setting up pool2
I0403 04:58:14.558471 19635 net.cpp:148] Top shape: 100 256 13 13 (4326400)
I0403 04:58:14.558485 19635 net.cpp:156] Memory required for data: 679563200
I0403 04:58:14.558500 19635 layer_factory.hpp:77] Creating layer conv3
I0403 04:58:14.558521 19635 net.cpp:91] Creating Layer conv3
I0403 04:58:14.558540 19635 net.cpp:425] conv3 <- pool2
I0403 04:58:14.558560 19635 net.cpp:399] conv3 -> conv3
I0403 04:58:14.590452 19635 net.cpp:141] Setting up conv3
I0403 04:58:14.590481 19635 net.cpp:148] Top shape: 100 384 13 13 (6489600)
I0403 04:58:14.590498 19635 net.cpp:156] Memory required for data: 705521600
I0403 04:58:14.590519 19635 layer_factory.hpp:77] Creating layer relu3
I0403 04:58:14.590543 19635 net.cpp:91] Creating Layer relu3
I0403 04:58:14.590562 19635 net.cpp:425] relu3 <- conv3
I0403 04:58:14.590579 19635 net.cpp:386] relu3 -> conv3 (in-place)
I0403 04:58:14.590597 19635 net.cpp:141] Setting up relu3
I0403 04:58:14.590615 19635 net.cpp:148] Top shape: 100 384 13 13 (6489600)
I0403 04:58:14.590629 19635 net.cpp:156] Memory required for data: 731480000
I0403 04:58:14.590642 19635 layer_factory.hpp:77] Creating layer conv4
I0403 04:58:14.590662 19635 net.cpp:91] Creating Layer conv4
I0403 04:58:14.590677 19635 net.cpp:425] conv4 <- conv3
I0403 04:58:14.590695 19635 net.cpp:399] conv4 -> conv4
I0403 04:58:14.614675 19635 net.cpp:141] Setting up conv4
I0403 04:58:14.614706 19635 net.cpp:148] Top shape: 100 384 13 13 (6489600)
I0403 04:58:14.614722 19635 net.cpp:156] Memory required for data: 757438400
I0403 04:58:14.614755 19635 layer_factory.hpp:77] Creating layer relu4
I0403 04:58:14.614775 19635 net.cpp:91] Creating Layer relu4
I0403 04:58:14.614790 19635 net.cpp:425] relu4 <- conv4
I0403 04:58:14.614807 19635 net.cpp:386] relu4 -> conv4 (in-place)
I0403 04:58:14.614825 19635 net.cpp:141] Setting up relu4
I0403 04:58:14.614841 19635 net.cpp:148] Top shape: 100 384 13 13 (6489600)
I0403 04:58:14.614856 19635 net.cpp:156] Memory required for data: 783396800
I0403 04:58:14.614869 19635 layer_factory.hpp:77] Creating layer conv5
I0403 04:58:14.614891 19635 net.cpp:91] Creating Layer conv5
I0403 04:58:14.614905 19635 net.cpp:425] conv5 <- conv4
I0403 04:58:14.614923 19635 net.cpp:399] conv5 -> conv5
I0403 04:58:14.631022 19635 net.cpp:141] Setting up conv5
I0403 04:58:14.631052 19635 net.cpp:148] Top shape: 100 256 13 13 (4326400)
I0403 04:58:14.631067 19635 net.cpp:156] Memory required for data: 800702400
I0403 04:58:14.631089 19635 layer_factory.hpp:77] Creating layer relu5
I0403 04:58:14.631109 19635 net.cpp:91] Creating Layer relu5
I0403 04:58:14.631125 19635 net.cpp:425] relu5 <- conv5
I0403 04:58:14.631142 19635 net.cpp:386] relu5 -> conv5 (in-place)
I0403 04:58:14.631161 19635 net.cpp:141] Setting up relu5
I0403 04:58:14.631177 19635 net.cpp:148] Top shape: 100 256 13 13 (4326400)
I0403 04:58:14.631193 19635 net.cpp:156] Memory required for data: 818008000
I0403 04:58:14.631207 19635 layer_factory.hpp:77] Creating layer pool5
I0403 04:58:14.631223 19635 net.cpp:91] Creating Layer pool5
I0403 04:58:14.631238 19635 net.cpp:425] pool5 <- conv5
I0403 04:58:14.631255 19635 net.cpp:399] pool5 -> pool5
I0403 04:58:14.631301 19635 net.cpp:141] Setting up pool5
I0403 04:58:14.631324 19635 net.cpp:148] Top shape: 100 256 6 6 (921600)
I0403 04:58:14.631338 19635 net.cpp:156] Memory required for data: 821694400
I0403 04:58:14.631352 19635 layer_factory.hpp:77] Creating layer fc6
I0403 04:58:14.631379 19635 net.cpp:91] Creating Layer fc6
I0403 04:58:14.631397 19635 net.cpp:425] fc6 <- pool5
I0403 04:58:14.631414 19635 net.cpp:399] fc6 -> fc6
I0403 04:58:15.986497 19635 net.cpp:141] Setting up fc6
I0403 04:58:15.986598 19635 net.cpp:148] Top shape: 100 4096 (409600)
I0403 04:58:15.986614 19635 net.cpp:156] Memory required for data: 823332800
I0403 04:58:15.986635 19635 layer_factory.hpp:77] Creating layer relu6
I0403 04:58:15.986659 19635 net.cpp:91] Creating Layer relu6
I0403 04:58:15.986675 19635 net.cpp:425] relu6 <- fc6
I0403 04:58:15.986695 19635 net.cpp:386] relu6 -> fc6 (in-place)
I0403 04:58:15.986717 19635 net.cpp:141] Setting up relu6
I0403 04:58:15.986733 19635 net.cpp:148] Top shape: 100 4096 (409600)
I0403 04:58:15.986747 19635 net.cpp:156] Memory required for data: 824971200
I0403 04:58:15.986762 19635 layer_factory.hpp:77] Creating layer drop6
I0403 04:58:15.986789 19635 net.cpp:91] Creating Layer drop6
I0403 04:58:15.986805 19635 net.cpp:425] drop6 <- fc6
I0403 04:58:15.986822 19635 net.cpp:386] drop6 -> fc6 (in-place)
I0403 04:58:15.986870 19635 net.cpp:141] Setting up drop6
I0403 04:58:15.986891 19635 net.cpp:148] Top shape: 100 4096 (409600)
I0403 04:58:15.986904 19635 net.cpp:156] Memory required for data: 826609600
I0403 04:58:15.986918 19635 layer_factory.hpp:77] Creating layer fc7
I0403 04:58:15.986938 19635 net.cpp:91] Creating Layer fc7
I0403 04:58:15.986953 19635 net.cpp:425] fc7 <- fc6
I0403 04:58:15.986974 19635 net.cpp:399] fc7 -> fc7
I0403 04:58:16.589114 19635 net.cpp:141] Setting up fc7
I0403 04:58:16.589210 19635 net.cpp:148] Top shape: 100 4096 (409600)
I0403 04:58:16.589226 19635 net.cpp:156] Memory required for data: 828248000
I0403 04:58:16.589247 19635 layer_factory.hpp:77] Creating layer relu7
I0403 04:58:16.589270 19635 net.cpp:91] Creating Layer relu7
I0403 04:58:16.589287 19635 net.cpp:425] relu7 <- fc7
I0403 04:58:16.589309 19635 net.cpp:386] relu7 -> fc7 (in-place)
I0403 04:58:16.589330 19635 net.cpp:141] Setting up relu7
I0403 04:58:16.589346 19635 net.cpp:148] Top shape: 100 4096 (409600)
I0403 04:58:16.589360 19635 net.cpp:156] Memory required for data: 829886400
I0403 04:58:16.589375 19635 layer_factory.hpp:77] Creating layer drop7
I0403 04:58:16.589434 19635 net.cpp:91] Creating Layer drop7
I0403 04:58:16.589450 19635 net.cpp:425] drop7 <- fc7
I0403 04:58:16.589468 19635 net.cpp:386] drop7 -> fc7 (in-place)
I0403 04:58:16.589509 19635 net.cpp:141] Setting up drop7
I0403 04:58:16.589529 19635 net.cpp:148] Top shape: 100 4096 (409600)
I0403 04:58:16.589550 19635 net.cpp:156] Memory required for data: 831524800
I0403 04:58:16.589565 19635 layer_factory.hpp:77] Creating layer fc8_plantvillage
I0403 04:58:16.589587 19635 net.cpp:91] Creating Layer fc8_plantvillage
I0403 04:58:16.589604 19635 net.cpp:425] fc8_plantvillage <- fc7
I0403 04:58:16.589622 19635 net.cpp:399] fc8_plantvillage -> fc8_plantvillage
I0403 04:58:16.595602 19635 net.cpp:141] Setting up fc8_plantvillage
I0403 04:58:16.595628 19635 net.cpp:148] Top shape: 100 38 (3800)
I0403 04:58:16.595643 19635 net.cpp:156] Memory required for data: 831540000
I0403 04:58:16.595660 19635 layer_factory.hpp:77] Creating layer loss
I0403 04:58:16.595687 19635 net.cpp:91] Creating Layer loss
I0403 04:58:16.595705 19635 net.cpp:425] loss <- fc8_plantvillage
I0403 04:58:16.595721 19635 net.cpp:425] loss <- label
I0403 04:58:16.595741 19635 net.cpp:399] loss -> loss
I0403 04:58:16.595769 19635 layer_factory.hpp:77] Creating layer loss
…
I0403 04:58:16.597410 19635 net.cpp:313] The NetState phase (1) differed from the phase (0) specified by a rule in layer data
I0403 04:58:16.598029 19635 net.cpp:49] Initializing net from parameters: 
state {
  phase: TEST
}
layer {
  name: "data"
  type: "Data"
  top: "data"
  top: "label"
  include {
    phase: TEST
  }
  transform_param {
    crop_size: 227
    mean_file: "/home/mohanty/data/final_dataset/lmdb/color-40-60/mean.binaryproto"
  }
  data_param {
    source: "/home/mohanty/data/final_dataset/lmdb/color-40-60/test_db"
    batch_size: 100
    backend: LMDB
  }
}
layer {
  name: "conv1"
  type: "Convolution"
  bottom: "data"
  top: "conv1"
  param {
    lr_mult: 1
    decay_mult: 1
  }
  param {
    lr_mult: 2
    decay_mult: 0
  }
  convolution_param {
    num_output: 96
    kernel_size: 11
    stride: 4
    weight_filler {
      type: "gaussian"
      std: 0.01
    }
    bias_filler {
      type: "constant"
      value: 0
    }
  }
}
layer {
  name: "relu1"
  type: "ReLU"
  bottom: "conv1"
  top: "conv1"
}
layer {
  name: "norm1"
  type: "LRN"
  bottom: "conv1"
  top: "norm1"
  lrn_param {
    local_size: 5
    alpha: 0.0001
    beta: 0.75
  }
}
layer {
  name: "pool1"
  type: "Pooling"
  bottom: "norm1"
  top: "pool1"
  pooling_param {
    pool: MAX
    kernel_size: 3
    stride: 2
  }
}
layer {
  name: "conv2"
  type: "Convolution"
  bottom: "pool1"
  top: "conv2"
  param {
    lr_mult: 1
    decay_mult: 1
  }
  param {
    lr_mult: 2
    decay_mult: 0
  }
  convolution_param {
    num_output: 256
    pad: 2
    kernel_size: 5
    group: 2
    weight_filler {
      type: "gaussian"
      std: 0.01
    }
    bias_filler {
      type: "constant"
      value: 0.1
    }
  }
}
layer {
  name: "relu2"
  type: "ReLU"
  bottom: "conv2"
  top: "conv2"
}
layer {
  name: "norm2"
  type: "LRN"
  bottom: "conv2"
  top: "norm2"
  lrn_param {
    local_size: 5
    alpha: 0.0001
    beta: 0.75
  }
}
layer {
  name: "pool2"
  type: "Pooling"
  bottom: "norm2"
  top: "pool2"
  pooling_param {
    pool: MAX
    kernel_size: 3
    stride: 2
  }
}
layer {
  name: "conv3"
  type: "Convolution"
  bottom: "pool2"
  top: "conv3"
  param {
    lr_mult: 1
    decay_mult: 1
  }
  param {
    lr_mult: 2
    decay_mult: 0
  }
  convolution_param {
    num_output: 384
    pad: 1
    kernel_size: 3
    weight_filler {
      type: "gaussian"
      std: 0.01
    }
    bias_filler {
      type: "constant"
      value: 0
    }
  }
}
layer {
  name: "relu3"
  type: "ReLU"
  bottom: "conv3"
  top: "conv3"
}
layer {
  name: "conv4"
  type: "Convolution"
  bottom: "conv3"
  top: "conv4"
  param {
    lr_mult: 1
    decay_mult: 1
  }
  param {
    lr_mult: 2
    decay_mult: 0
  }
  convolution_param {
    num_output: 384
    pad: 1
    kernel_size: 3
    group: 2
    weight_filler {
      type: "gaussian"
      std: 0.01
    }
    bias_filler {
      type: "constant"
      value: 0.1
    }
  }
}
layer {
  name: "relu4"
  type: "ReLU"
  bottom: "conv4"
  top: "conv4"
}
layer {
  name: "conv5"
  type: "Convolution"
  bottom: "conv4"
  top: "conv5"
  param {
    lr_mult: 1
    decay_mult: 1
  }
  param {
    lr_mult: 2
    decay_mult: 0
  }
  convolution_param {
    num_output: 256
    pad: 1
    kernel_size: 3
    group: 2
    weight_filler {
      type: "gaussian"
      std: 0.01
    }
    bias_filler {
      type: "constant"
      value: 0.1
    }
  }
}
layer {
  name: "relu5"
  type: "ReLU"
  bottom: "conv5"
  top: "conv5"
}
layer {
  name: "pool5"
  type: "Pooling"
  bottom: "conv5"
  top: "pool5"
  pooling_param {
    pool: MAX
    kernel_size: 3
    stride: 2
  }
}
layer {
  name: "fc6"
  type: "InnerProduct"
  bottom: "pool5"
  top: "fc6"
  param {
    lr_mult: 1
    decay_mult: 1
  }
  param {
    lr_mult: 2
    decay_mult: 0
  }
  inner_product_param {
    num_output: 4096
    weight_filler {
      type: "gaussian"
      std: 0.005
    }
    bias_filler {
      type: "constant"
      value: 0.1
    }
  }
}
layer {
  name: "relu6"
  type: "ReLU"
  bottom: "fc6"
  top: "fc6"
}
layer {
  name: "drop6"
  type: "Dropout"
  bottom: "fc6"
  top: "fc6"
  dropout_param {
    dropout_ratio: 0.5
  }
}
layer {
  name: "fc7"
  type: "InnerProduct"
  bottom: "fc6"
  top: "fc7"
  param {
    lr_mult: 1
    decay_mult: 1
  }
  param {
    lr_mult: 2
    decay_mult: 0
  }
  inner_product_param {
    num_output: 4096
    weight_filler {
      type: "gaussian"
      std: 0.005
    }
    bias_filler {
      type: "constant"
      value: 0.1
    }
  }
}
layer {
  name: "relu7"
  type: "ReLU"
  bottom: "fc7"
  top: "fc7"
}
layer {
  name: "drop7"
  type: "Dropout"
  bottom: "fc7"
  top: "fc7"
  dropout_param {
    dropout_ratio: 0.5
  }
}
layer {
  name: "fc8_plantvillage"
  type: "InnerProduct"
  bottom: "fc7"
  top: "fc8_plantvillage"
  param {
    lr_mult: 1
    decay_mult: 1
  }
  param {
    lr_mult: 2
    decay_mult: 0
  }
  inner_product_param {
    num_output: 38
    weight_filler {
      type: "gaussian"
      std: 0.01
    }
    bias_filler {
      type: "constant"
      value: 0
    }
  }
}
layer {
  name: "loss"
  type: "SoftmaxWithLoss"
  bottom: "fc8_plantvillage"
  bottom: "label"
  top: "loss"
}
layer {
  name: "accuracy"
  type: "Accuracy"
  bottom: "fc8_plantvillage"
  bottom: "label"
  top: "accuracy"
  include {
    phase: TEST
  }
}
I0403 04:58:16.598181 19635 layer_factory.hpp:77] Creating layer data
I0403 04:58:16.598346 19635 net.cpp:91] Creating Layer data
I0403 04:58:16.598372 19635 net.cpp:399] data -> data
I0403 04:58:16.598395 19635 net.cpp:399] data -> label
I0403 04:58:16.598417 19635 data_transformer.cpp:25] Loading mean file from: /home/mohanty/data/final_dataset/lmdb/color-40-60/mean.binaryproto
I0403 04:58:16.646270 19640 db_lmdb.cpp:38] Opened lmdb /home/mohanty/data/final_dataset/lmdb/color-40-60/test_db
I0403 04:58:16.701380 19635 data_layer.cpp:41] output data size: 100,3,227,227
I0403 04:58:16.846557 19635 net.cpp:141] Setting up data
I0403 04:58:16.846649 19635 net.cpp:148] Top shape: 100 3 227 227 (15458700)
I0403 04:58:16.846674 19635 net.cpp:148] Top shape: 100 (100)
I0403 04:58:16.846707 19635 net.cpp:156] Memory required for data: 61835200
I0403 04:58:16.846732 19635 layer_factory.hpp:77] Creating layer label_data_1_split
I0403 04:58:16.846765 19635 net.cpp:91] Creating Layer label_data_1_split
I0403 04:58:16.846787 19635 net.cpp:425] label_data_1_split <- label
I0403 04:58:16.846815 19635 net.cpp:399] label_data_1_split -> label_data_1_split_0
I0403 04:58:16.846846 19635 net.cpp:399] label_data_1_split -> label_data_1_split_1
I0403 04:58:16.846907 19635 net.cpp:141] Setting up label_data_1_split
I0403 04:58:16.846933 19635 net.cpp:148] Top shape: 100 (100)
I0403 04:58:16.846951 19635 net.cpp:148] Top shape: 100 (100)
I0403 04:58:16.846971 19635 net.cpp:156] Memory required for data: 61836000
I0403 04:58:16.846993 19635 layer_factory.hpp:77] Creating layer conv1
I0403 04:58:16.847028 19635 net.cpp:91] Creating Layer conv1
I0403 04:58:16.847045 19635 net.cpp:425] conv1 <- data
I0403 04:58:16.847069 19635 net.cpp:399] conv1 -> conv1
I0403 04:58:16.848723 19635 net.cpp:141] Setting up conv1
I0403 04:58:16.848748 19635 net.cpp:148] Top shape: 100 96 55 55 (29040000)
I0403 04:58:16.848763 19635 net.cpp:156] Memory required for data: 177996000
I0403 04:58:16.848786 19635 layer_factory.hpp:77] Creating layer relu1
I0403 04:58:16.848806 19635 net.cpp:91] Creating Layer relu1
I0403 04:58:16.848821 19635 net.cpp:425] relu1 <- conv1
I0403 04:58:16.848839 19635 net.cpp:386] relu1 -> conv1 (in-place)
I0403 04:58:16.848857 19635 net.cpp:141] Setting up relu1
I0403 04:58:16.848875 19635 net.cpp:148] Top shape: 100 96 55 55 (29040000)
I0403 04:58:16.848888 19635 net.cpp:156] Memory required for data: 294156000
I0403 04:58:16.848902 19635 layer_factory.hpp:77] Creating layer norm1
I0403 04:58:16.848922 19635 net.cpp:91] Creating Layer norm1
I0403 04:58:16.848937 19635 net.cpp:425] norm1 <- conv1
I0403 04:58:16.848955 19635 net.cpp:399] norm1 -> norm1
I0403 04:58:16.849001 19635 net.cpp:141] Setting up norm1
I0403 04:58:16.849022 19635 net.cpp:148] Top shape: 100 96 55 55 (29040000)
I0403 04:58:16.849036 19635 net.cpp:156] Memory required for data: 410316000
I0403 04:58:16.849051 19635 layer_factory.hpp:77] Creating layer pool1
I0403 04:58:16.849069 19635 net.cpp:91] Creating Layer pool1
I0403 04:58:16.849086 19635 net.cpp:425] pool1 <- norm1
I0403 04:58:16.849102 19635 net.cpp:399] pool1 -> pool1
I0403 04:58:16.849148 19635 net.cpp:141] Setting up pool1
I0403 04:58:16.849169 19635 net.cpp:148] Top shape: 100 96 27 27 (6998400)
I0403 04:58:16.849182 19635 net.cpp:156] Memory required for data: 438309600
I0403 04:58:16.849220 19635 layer_factory.hpp:77] Creating layer conv2
I0403 04:58:16.849243 19635 net.cpp:91] Creating Layer conv2
I0403 04:58:16.849261 19635 net.cpp:425] conv2 <- pool1
I0403 04:58:16.849279 19635 net.cpp:399] conv2 -> conv2
I0403 04:58:16.868427 19635 net.cpp:141] Setting up conv2
I0403 04:58:16.877012 19635 net.cpp:148] Top shape: 100 256 27 27 (18662400)
I0403 04:58:16.877043 19635 net.cpp:156] Memory required for data: 512959200
I0403 04:58:16.877079 19635 layer_factory.hpp:77] Creating layer relu2
I0403 04:58:16.877109 19635 net.cpp:91] Creating Layer relu2
I0403 04:58:16.877126 19635 net.cpp:425] relu2 <- conv2
I0403 04:58:16.877146 19635 net.cpp:386] relu2 -> conv2 (in-place)
I0403 04:58:16.877166 19635 net.cpp:141] Setting up relu2
I0403 04:58:16.877185 19635 net.cpp:148] Top shape: 100 256 27 27 (18662400)
I0403 04:58:16.877200 19635 net.cpp:156] Memory required for data: 587608800
I0403 04:58:16.877215 19635 layer_factory.hpp:77] Creating layer norm2
I0403 04:58:16.877244 19635 net.cpp:91] Creating Layer norm2
I0403 04:58:16.877260 19635 net.cpp:425] norm2 <- conv2
I0403 04:58:16.877279 19635 net.cpp:399] norm2 -> norm2
I0403 04:58:16.877347 19635 net.cpp:141] Setting up norm2
I0403 04:58:16.877377 19635 net.cpp:148] Top shape: 100 256 27 27 (18662400)
I0403 04:58:16.877396 19635 net.cpp:156] Memory required for data: 662258400
I0403 04:58:16.877413 19635 layer_factory.hpp:77] Creating layer pool2
I0403 04:58:16.877432 19635 net.cpp:91] Creating Layer pool2
I0403 04:58:16.877449 19635 net.cpp:425] pool2 <- norm2
I0403 04:58:16.877478 19635 net.cpp:399] pool2 -> pool2
I0403 04:58:16.877526 19635 net.cpp:141] Setting up pool2
I0403 04:58:16.877581 19635 net.cpp:148] Top shape: 100 256 13 13 (4326400)
I0403 04:58:16.877602 19635 net.cpp:156] Memory required for data: 679564000
I0403 04:58:16.877617 19635 layer_factory.hpp:77] Creating layer conv3
I0403 04:58:16.877641 19635 net.cpp:91] Creating Layer conv3
I0403 04:58:16.877658 19635 net.cpp:425] conv3 <- pool2
I0403 04:58:16.877678 19635 net.cpp:399] conv3 -> conv3
I0403 04:58:16.916312 19635 net.cpp:141] Setting up conv3
I0403 04:58:16.925576 19635 net.cpp:148] Top shape: 100 384 13 13 (6489600)
I0403 04:58:16.925601 19635 net.cpp:156] Memory required for data: 705522400
I0403 04:58:16.925637 19635 layer_factory.hpp:77] Creating layer relu3
I0403 04:58:16.925662 19635 net.cpp:91] Creating Layer relu3
I0403 04:58:16.925678 19635 net.cpp:425] relu3 <- conv3
I0403 04:58:16.925710 19635 net.cpp:386] relu3 -> conv3 (in-place)
I0403 04:58:16.925734 19635 net.cpp:141] Setting up relu3
I0403 04:58:16.925752 19635 net.cpp:148] Top shape: 100 384 13 13 (6489600)
I0403 04:58:16.925768 19635 net.cpp:156] Memory required for data: 731480800
I0403 04:58:16.925782 19635 layer_factory.hpp:77] Creating layer conv4
I0403 04:58:16.925807 19635 net.cpp:91] Creating Layer conv4
I0403 04:58:16.925824 19635 net.cpp:425] conv4 <- conv3
I0403 04:58:16.925843 19635 net.cpp:399] conv4 -> conv4
I0403 04:58:16.955741 19635 net.cpp:141] Setting up conv4
I0403 04:58:16.955785 19635 net.cpp:148] Top shape: 100 384 13 13 (6489600)
I0403 04:58:16.955801 19635 net.cpp:156] Memory required for data: 757439200
I0403 04:58:16.955821 19635 layer_factory.hpp:77] Creating layer relu4
I0403 04:58:16.955842 19635 net.cpp:91] Creating Layer relu4
I0403 04:58:16.955858 19635 net.cpp:425] relu4 <- conv4
I0403 04:58:16.955876 19635 net.cpp:386] relu4 -> conv4 (in-place)
I0403 04:58:16.955904 19635 net.cpp:141] Setting up relu4
I0403 04:58:16.955920 19635 net.cpp:148] Top shape: 100 384 13 13 (6489600)
I0403 04:58:16.955935 19635 net.cpp:156] Memory required for data: 783397600
I0403 04:58:16.955950 19635 layer_factory.hpp:77] Creating layer conv5
I0403 04:58:16.955973 19635 net.cpp:91] Creating Layer conv5
I0403 04:58:16.955989 19635 net.cpp:425] conv5 <- conv4
I0403 04:58:16.956008 19635 net.cpp:399] conv5 -> conv5
I0403 04:58:16.974875 19635 net.cpp:141] Setting up conv5
I0403 04:58:16.974907 19635 net.cpp:148] Top shape: 100 256 13 13 (4326400)
I0403 04:58:16.974923 19635 net.cpp:156] Memory required for data: 800703200
I0403 04:58:16.974967 19635 layer_factory.hpp:77] Creating layer relu5
I0403 04:58:16.974987 19635 net.cpp:91] Creating Layer relu5
I0403 04:58:16.975003 19635 net.cpp:425] relu5 <- conv5
I0403 04:58:16.975021 19635 net.cpp:386] relu5 -> conv5 (in-place)
I0403 04:58:16.975040 19635 net.cpp:141] Setting up relu5
I0403 04:58:16.975059 19635 net.cpp:148] Top shape: 100 256 13 13 (4326400)
I0403 04:58:16.975072 19635 net.cpp:156] Memory required for data: 818008800
I0403 04:58:16.975086 19635 layer_factory.hpp:77] Creating layer pool5
I0403 04:58:16.975107 19635 net.cpp:91] Creating Layer pool5
I0403 04:58:16.975123 19635 net.cpp:425] pool5 <- conv5
I0403 04:58:16.975143 19635 net.cpp:399] pool5 -> pool5
I0403 04:58:16.975193 19635 net.cpp:141] Setting up pool5
I0403 04:58:16.975215 19635 net.cpp:148] Top shape: 100 256 6 6 (921600)
I0403 04:58:16.975229 19635 net.cpp:156] Memory required for data: 821695200
I0403 04:58:16.975244 19635 layer_factory.hpp:77] Creating layer fc6
I0403 04:58:16.975268 19635 net.cpp:91] Creating Layer fc6
I0403 04:58:16.975286 19635 net.cpp:425] fc6 <- pool5
I0403 04:58:16.975306 19635 net.cpp:399] fc6 -> fc6
I0403 04:58:18.364709 19635 net.cpp:141] Setting up fc6
I0403 04:58:18.364804 19635 net.cpp:148] Top shape: 100 4096 (409600)
I0403 04:58:18.364820 19635 net.cpp:156] Memory required for data: 823333600
I0403 04:58:18.364842 19635 layer_factory.hpp:77] Creating layer relu6
I0403 04:58:18.364866 19635 net.cpp:91] Creating Layer relu6
I0403 04:58:18.364882 19635 net.cpp:425] relu6 <- fc6
I0403 04:58:18.364902 19635 net.cpp:386] relu6 -> fc6 (in-place)
I0403 04:58:18.364923 19635 net.cpp:141] Setting up relu6
I0403 04:58:18.364939 19635 net.cpp:148] Top shape: 100 4096 (409600)
I0403 04:58:18.364954 19635 net.cpp:156] Memory required for data: 824972000
I0403 04:58:18.364969 19635 layer_factory.hpp:77] Creating layer drop6
I0403 04:58:18.364989 19635 net.cpp:91] Creating Layer drop6
I0403 04:58:18.365005 19635 net.cpp:425] drop6 <- fc6
I0403 04:58:18.365021 19635 net.cpp:386] drop6 -> fc6 (in-place)
I0403 04:58:18.365059 19635 net.cpp:141] Setting up drop6
I0403 04:58:18.365080 19635 net.cpp:148] Top shape: 100 4096 (409600)
I0403 04:58:18.365094 19635 net.cpp:156] Memory required for data: 826610400
I0403 04:58:18.365108 19635 layer_factory.hpp:77] Creating layer fc7
I0403 04:58:18.365128 19635 net.cpp:91] Creating Layer fc7
I0403 04:58:18.365144 19635 net.cpp:425] fc7 <- fc6
I0403 04:58:18.365164 19635 net.cpp:399] fc7 -> fc7
I0403 04:58:18.972226 19635 net.cpp:141] Setting up fc7
I0403 04:58:18.972322 19635 net.cpp:148] Top shape: 100 4096 (409600)
I0403 04:58:18.972338 19635 net.cpp:156] Memory required for data: 828248800
I0403 04:58:18.972360 19635 layer_factory.hpp:77] Creating layer relu7
I0403 04:58:18.972384 19635 net.cpp:91] Creating Layer relu7
I0403 04:58:18.972401 19635 net.cpp:425] relu7 <- fc7
I0403 04:58:18.972424 19635 net.cpp:386] relu7 -> fc7 (in-place)
I0403 04:58:18.972446 19635 net.cpp:141] Setting up relu7
I0403 04:58:18.972462 19635 net.cpp:148] Top shape: 100 4096 (409600)
I0403 04:58:18.972476 19635 net.cpp:156] Memory required for data: 829887200
I0403 04:58:18.972491 19635 layer_factory.hpp:77] Creating layer drop7
I0403 04:58:18.972509 19635 net.cpp:91] Creating Layer drop7
I0403 04:58:18.972524 19635 net.cpp:425] drop7 <- fc7
I0403 04:58:18.972548 19635 net.cpp:386] drop7 -> fc7 (in-place)
I0403 04:58:18.972589 19635 net.cpp:141] Setting up drop7
I0403 04:58:18.972610 19635 net.cpp:148] Top shape: 100 4096 (409600)
I0403 04:58:18.972625 19635 net.cpp:156] Memory required for data: 831525600
I0403 04:58:18.972637 19635 layer_factory.hpp:77] Creating layer fc8_plantvillage
I0403 04:58:18.972659 19635 net.cpp:91] Creating Layer fc8_plantvillage
I0403 04:58:18.972676 19635 net.cpp:425] fc8_plantvillage <- fc7
I0403 04:58:18.972694 19635 net.cpp:399] fc8_plantvillage -> fc8_plantvillage
I0403 04:58:18.978780 19635 net.cpp:141] Setting up fc8_plantvillage
I0403 04:58:18.978807 19635 net.cpp:148] Top shape: 100 38 (3800)
I0403 04:58:18.978857 19635 net.cpp:156] Memory required for data: 831540800
I0403 04:58:18.978876 19635 layer_factory.hpp:77] Creating layer fc8_plantvillage_fc8_plantvillage_0_split
I0403 04:58:18.978895 19635 net.cpp:91] Creating Layer fc8_plantvillage_fc8_plantvillage_0_split
I0403 04:58:18.978911 19635 net.cpp:425] fc8_plantvillage_fc8_plantvillage_0_split <- fc8_plantvillage
I0403 04:58:18.978931 19635 net.cpp:399] fc8_plantvillage_fc8_plantvillage_0_split -> fc8_plantvillage_fc8_plantvillage_0_split_0
I0403 04:58:18.978951 19635 net.cpp:399] fc8_plantvillage_fc8_plantvillage_0_split -> fc8_plantvillage_fc8_plantvillage_0_split_1
I0403 04:58:18.978998 19635 net.cpp:141] Setting up fc8_plantvillage_fc8_plantvillage_0_split
I0403 04:58:18.979022 19635 net.cpp:148] Top shape: 100 38 (3800)
I0403 04:58:18.979038 19635 net.cpp:148] Top shape: 100 38 (3800)
I0403 04:58:18.979051 19635 net.cpp:156] Memory required for data: 831571200
I0403 04:58:18.979066 19635 layer_factory.hpp:77] Creating layer loss
I0403 04:58:18.979084 19635 net.cpp:91] Creating Layer loss
I0403 04:58:18.979097 19635 net.cpp:425] loss <- fc8_plantvillage_fc8_plantvillage_0_split_0
I0403 04:58:18.979113 19635 net.cpp:425] loss <- label_data_1_split_0
I0403 04:58:18.979130 19635 net.cpp:399] loss -> loss
…
