…
I0403 13:50:59.463297 28762 net.cpp:313] The NetState phase (1) differed from the phase (0) specified by a rule in layer data
I0403 13:50:59.463613 28762 net.cpp:49] Initializing net from parameters: 
state {
  phase: TEST
}
layer {
  name: "data"
  type: "Data"
  top: "data"
  top: "label"
  include {
    phase: TEST
  }
  transform_param {
    crop_size: 227
    mean_file: "/home/mohanty/data/final_dataset/lmdb/color-40-60/mean.binaryproto"
  }
  data_param {
    source: "/home/mohanty/data/final_dataset/lmdb/color-40-60/test_db"
    batch_size: 100
    backend: LMDB
  }
}
layer {
  name: "conv1"
  type: "Convolution"
  bottom: "data"
  top: "conv1"
  param {
    lr_mult: 1
    decay_mult: 1
  }
  param {
    lr_mult: 2
    decay_mult: 0
  }
  convolution_param {
    num_output: 96
    kernel_size: 11
    stride: 4
    weight_filler {
      type: "gaussian"
      std: 0.01
    }
    bias_filler {
      type: "constant"
      value: 0
    }
  }
}
layer {
  name: "relu1"
  type: "ReLU"
  bottom: "conv1"
  top: "conv1"
}
layer {
  name: "norm1"
  type: "LRN"
  bottom: "conv1"
  top: "norm1"
  lrn_param {
    local_size: 5
    alpha: 0.0001
    beta: 0.75
  }
}
layer {
  name: "pool1"
  type: "Pooling"
  bottom: "norm1"
  top: "pool1"
  pooling_param {
    pool: MAX
    kernel_size: 3
    stride: 2
  }
}
layer {
  name: "conv2"
  type: "Convolution"
  bottom: "pool1"
  top: "conv2"
  param {
    lr_mult: 1
    decay_mult: 1
  }
  param {
    lr_mult: 2
    decay_mult: 0
  }
  convolution_param {
    num_output: 256
    pad: 2
    kernel_size: 5
    group: 2
    weight_filler {
      type: "gaussian"
      std: 0.01
    }
    bias_filler {
      type: "constant"
      value: 0.1
    }
  }
}
layer {
  name: "relu2"
  type: "ReLU"
  bottom: "conv2"
  top: "conv2"
}
layer {
  name: "norm2"
  type: "LRN"
  bottom: "conv2"
  top: "norm2"
  lrn_param {
    local_size: 5
    alpha: 0.0001
    beta: 0.75
  }
}
layer {
  name: "pool2"
  type: "Pooling"
  bottom: "norm2"
  top: "pool2"
  pooling_param {
    pool: MAX
    kernel_size: 3
    stride: 2
  }
}
layer {
  name: "conv3"
  type: "Convolution"
  bottom: "pool2"
  top: "conv3"
  param {
    lr_mult: 1
    decay_mult: 1
  }
  param {
    lr_mult: 2
    decay_mult: 0
  }
  convolution_param {
    num_output: 384
    pad: 1
    kernel_size: 3
    weight_filler {
      type: "gaussian"
      std: 0.01
    }
    bias_filler {
      type: "constant"
      value: 0
    }
  }
}
layer {
  name: "relu3"
  type: "ReLU"
  bottom: "conv3"
  top: "conv3"
}
layer {
  name: "conv4"
  type: "Convolution"
  bottom: "conv3"
  top: "conv4"
  param {
    lr_mult: 1
    decay_mult: 1
  }
  param {
    lr_mult: 2
    decay_mult: 0
  }
  convolution_param {
    num_output: 384
    pad: 1
    kernel_size: 3
    group: 2
    weight_filler {
      type: "gaussian"
      std: 0.01
    }
    bias_filler {
      type: "constant"
      value: 0.1
    }
  }
}
layer {
  name: "relu4"
  type: "ReLU"
  bottom: "conv4"
  top: "conv4"
}
layer {
  name: "conv5"
  type: "Convolution"
  bottom: "conv4"
  top: "conv5"
  param {
    lr_mult: 1
    decay_mult: 1
  }
  param {
    lr_mult: 2
    decay_mult: 0
  }
  convolution_param {
    num_output: 256
    pad: 1
    kernel_size: 3
    group: 2
    weight_filler {
      type: "gaussian"
      std: 0.01
    }
    bias_filler {
      type: "constant"
      value: 0.1
    }
  }
}
layer {
  name: "relu5"
  type: "ReLU"
  bottom: "conv5"
  top: "conv5"
}
layer {
  name: "pool5"
  type: "Pooling"
  bottom: "conv5"
  top: "pool5"
  pooling_param {
    pool: MAX
    kernel_size: 3
    stride: 2
  }
}
layer {
  name: "fc6"
  type: "InnerProduct"
  bottom: "pool5"
  top: "fc6"
  param {
    lr_mult: 1
    decay_mult: 1
  }
  param {
    lr_mult: 2
    decay_mult: 0
  }
  inner_product_param {
    num_output: 4096
    weight_filler {
      type: "gaussian"
      std: 0.005
    }
    bias_filler {
      type: "constant"
      value: 0.1
    }
  }
}
layer {
  name: "relu6"
  type: "ReLU"
  bottom: "fc6"
  top: "fc6"
}
layer {
  name: "drop6"
  type: "Dropout"
  bottom: "fc6"
  top: "fc6"
  dropout_param {
    dropout_ratio: 0.5
  }
}
layer {
  name: "fc7"
  type: "InnerProduct"
  bottom: "fc6"
  top: "fc7"
  param {
    lr_mult: 1
    decay_mult: 1
  }
  param {
    lr_mult: 2
    decay_mult: 0
  }
  inner_product_param {
    num_output: 4096
    weight_filler {
      type: "gaussian"
      std: 0.005
    }
    bias_filler {
      type: "constant"
      value: 0.1
    }
  }
}
layer {
  name: "relu7"
  type: "ReLU"
  bottom: "fc7"
  top: "fc7"
}
layer {
  name: "drop7"
  type: "Dropout"
  bottom: "fc7"
  top: "fc7"
  dropout_param {
    dropout_ratio: 0.5
  }
}
layer {
  name: "fc8_plantvillage"
  type: "InnerProduct"
  bottom: "fc7"
  top: "fc8_plantvillage"
  param {
    lr_mult: 1
    decay_mult: 1
  }
  param {
    lr_mult: 2
    decay_mult: 0
  }
  inner_product_param {
    num_output: 38
    weight_filler {
      type: "gaussian"
      std: 0.01
    }
    bias_filler {
      type: "constant"
      value: 0
    }
  }
}
layer {
  name: "prob"
  type: "Softmax"
  bottom: "fc8_plantvillage"
  top: "prob"
  include {
    phase: TEST
  }
}
layer {
  name: "hdf5out"
  type: "HDF5Output"
  bottom: "prob"
  bottom: "label"
  include {
    phase: TEST
  }
  hdf5_output_param {
    file_name: "hdf5_dumps/iter_4340.h5"
  }
}
layer {
  name: "loss"
  type: "SoftmaxWithLoss"
  bottom: "fc8_plantvillage"
  bottom: "label"
  top: "loss"
}
layer {
  name: "accuracy"
  type: "Accuracy"
  bottom: "fc8_plantvillage"
  bottom: "label"
  top: "accuracy"
  include {
    phase: TEST
  }
}
I0403 13:50:59.464212 28762 layer_factory.hpp:77] Creating layer data
I0403 13:50:59.464879 28762 net.cpp:91] Creating Layer data
I0403 13:50:59.464911 28762 net.cpp:399] data -> data
I0403 13:50:59.464965 28762 net.cpp:399] data -> label
I0403 13:50:59.465010 28762 data_transformer.cpp:25] Loading mean file from: /home/mohanty/data/final_dataset/lmdb/color-40-60/mean.binaryproto
I0403 13:50:59.467531 28766 db_lmdb.cpp:38] Opened lmdb /home/mohanty/data/final_dataset/lmdb/color-40-60/test_db
I0403 13:50:59.479666 28762 data_layer.cpp:41] output data size: 100,3,227,227
I0403 13:50:59.613034 28762 net.cpp:141] Setting up data
I0403 13:50:59.613132 28762 net.cpp:148] Top shape: 100 3 227 227 (15458700)
I0403 13:50:59.613157 28762 net.cpp:148] Top shape: 100 (100)
I0403 13:50:59.613173 28762 net.cpp:156] Memory required for data: 61835200
I0403 13:50:59.613203 28762 layer_factory.hpp:77] Creating layer label_data_1_split
I0403 13:50:59.613230 28762 net.cpp:91] Creating Layer label_data_1_split
I0403 13:50:59.613250 28762 net.cpp:425] label_data_1_split <- label
I0403 13:50:59.613282 28762 net.cpp:399] label_data_1_split -> label_data_1_split_0
I0403 13:50:59.613317 28762 net.cpp:399] label_data_1_split -> label_data_1_split_1
I0403 13:50:59.613338 28762 net.cpp:399] label_data_1_split -> label_data_1_split_2
I0403 13:50:59.613405 28762 net.cpp:141] Setting up label_data_1_split
I0403 13:50:59.613431 28762 net.cpp:148] Top shape: 100 (100)
I0403 13:50:59.613450 28762 net.cpp:148] Top shape: 100 (100)
I0403 13:50:59.613466 28762 net.cpp:148] Top shape: 100 (100)
I0403 13:50:59.613481 28762 net.cpp:156] Memory required for data: 61836400
I0403 13:50:59.613497 28762 layer_factory.hpp:77] Creating layer conv1
I0403 13:50:59.613533 28762 net.cpp:91] Creating Layer conv1
I0403 13:50:59.613554 28762 net.cpp:425] conv1 <- data
I0403 13:50:59.613574 28762 net.cpp:399] conv1 -> conv1
I0403 13:50:59.768600 28762 net.cpp:141] Setting up conv1
I0403 13:50:59.768677 28762 net.cpp:148] Top shape: 100 96 55 55 (29040000)
I0403 13:50:59.768695 28762 net.cpp:156] Memory required for data: 177996400
I0403 13:50:59.768728 28762 layer_factory.hpp:77] Creating layer relu1
I0403 13:50:59.768757 28762 net.cpp:91] Creating Layer relu1
I0403 13:50:59.768777 28762 net.cpp:425] relu1 <- conv1
I0403 13:50:59.768800 28762 net.cpp:386] relu1 -> conv1 (in-place)
I0403 13:50:59.769088 28762 net.cpp:141] Setting up relu1
I0403 13:50:59.769116 28762 net.cpp:148] Top shape: 100 96 55 55 (29040000)
I0403 13:50:59.769134 28762 net.cpp:156] Memory required for data: 294156400
I0403 13:50:59.769182 28762 layer_factory.hpp:77] Creating layer norm1
I0403 13:50:59.769213 28762 net.cpp:91] Creating Layer norm1
I0403 13:50:59.769235 28762 net.cpp:425] norm1 <- conv1
I0403 13:50:59.769256 28762 net.cpp:399] norm1 -> norm1
I0403 13:50:59.769606 28762 net.cpp:141] Setting up norm1
I0403 13:50:59.769639 28762 net.cpp:148] Top shape: 100 96 55 55 (29040000)
I0403 13:50:59.769656 28762 net.cpp:156] Memory required for data: 410316400
I0403 13:50:59.769673 28762 layer_factory.hpp:77] Creating layer pool1
I0403 13:50:59.769697 28762 net.cpp:91] Creating Layer pool1
I0403 13:50:59.769717 28762 net.cpp:425] pool1 <- norm1
I0403 13:50:59.769739 28762 net.cpp:399] pool1 -> pool1
I0403 13:50:59.769812 28762 net.cpp:141] Setting up pool1
I0403 13:50:59.769839 28762 net.cpp:148] Top shape: 100 96 27 27 (6998400)
I0403 13:50:59.769855 28762 net.cpp:156] Memory required for data: 438310000
I0403 13:50:59.769871 28762 layer_factory.hpp:77] Creating layer conv2
I0403 13:50:59.769901 28762 net.cpp:91] Creating Layer conv2
I0403 13:50:59.769919 28762 net.cpp:425] conv2 <- pool1
I0403 13:50:59.769942 28762 net.cpp:399] conv2 -> conv2
I0403 13:50:59.785392 28762 net.cpp:141] Setting up conv2
I0403 13:50:59.785444 28762 net.cpp:148] Top shape: 100 256 27 27 (18662400)
I0403 13:50:59.785462 28762 net.cpp:156] Memory required for data: 512959600
I0403 13:50:59.785486 28762 layer_factory.hpp:77] Creating layer relu2
I0403 13:50:59.785507 28762 net.cpp:91] Creating Layer relu2
I0403 13:50:59.785524 28762 net.cpp:425] relu2 <- conv2
I0403 13:50:59.785542 28762 net.cpp:386] relu2 -> conv2 (in-place)
I0403 13:50:59.785828 28762 net.cpp:141] Setting up relu2
I0403 13:50:59.785857 28762 net.cpp:148] Top shape: 100 256 27 27 (18662400)
I0403 13:50:59.785872 28762 net.cpp:156] Memory required for data: 587609200
I0403 13:50:59.785887 28762 layer_factory.hpp:77] Creating layer norm2
I0403 13:50:59.785912 28762 net.cpp:91] Creating Layer norm2
I0403 13:50:59.785930 28762 net.cpp:425] norm2 <- conv2
I0403 13:50:59.785950 28762 net.cpp:399] norm2 -> norm2
I0403 13:50:59.786154 28762 net.cpp:141] Setting up norm2
I0403 13:50:59.786185 28762 net.cpp:148] Top shape: 100 256 27 27 (18662400)
I0403 13:50:59.786201 28762 net.cpp:156] Memory required for data: 662258800
I0403 13:50:59.786218 28762 layer_factory.hpp:77] Creating layer pool2
I0403 13:50:59.786237 28762 net.cpp:91] Creating Layer pool2
I0403 13:50:59.786254 28762 net.cpp:425] pool2 <- norm2
I0403 13:50:59.786273 28762 net.cpp:399] pool2 -> pool2
I0403 13:50:59.786332 28762 net.cpp:141] Setting up pool2
I0403 13:50:59.786358 28762 net.cpp:148] Top shape: 100 256 13 13 (4326400)
I0403 13:50:59.786375 28762 net.cpp:156] Memory required for data: 679564400
I0403 13:50:59.786389 28762 layer_factory.hpp:77] Creating layer conv3
I0403 13:50:59.786413 28762 net.cpp:91] Creating Layer conv3
I0403 13:50:59.786432 28762 net.cpp:425] conv3 <- pool2
I0403 13:50:59.786454 28762 net.cpp:399] conv3 -> conv3
I0403 13:50:59.827029 28762 net.cpp:141] Setting up conv3
I0403 13:50:59.827101 28762 net.cpp:148] Top shape: 100 384 13 13 (6489600)
I0403 13:50:59.827119 28762 net.cpp:156] Memory required for data: 705522800
I0403 13:50:59.827144 28762 layer_factory.hpp:77] Creating layer relu3
I0403 13:50:59.827170 28762 net.cpp:91] Creating Layer relu3
I0403 13:50:59.827190 28762 net.cpp:425] relu3 <- conv3
I0403 13:50:59.827210 28762 net.cpp:386] relu3 -> conv3 (in-place)
I0403 13:50:59.827496 28762 net.cpp:141] Setting up relu3
I0403 13:50:59.827525 28762 net.cpp:148] Top shape: 100 384 13 13 (6489600)
I0403 13:50:59.827543 28762 net.cpp:156] Memory required for data: 731481200
I0403 13:50:59.827559 28762 layer_factory.hpp:77] Creating layer conv4
I0403 13:50:59.827586 28762 net.cpp:91] Creating Layer conv4
I0403 13:50:59.827605 28762 net.cpp:425] conv4 <- conv3
I0403 13:50:59.827625 28762 net.cpp:399] conv4 -> conv4
I0403 13:50:59.858299 28762 net.cpp:141] Setting up conv4
I0403 13:50:59.858367 28762 net.cpp:148] Top shape: 100 384 13 13 (6489600)
I0403 13:50:59.858419 28762 net.cpp:156] Memory required for data: 757439600
I0403 13:50:59.858443 28762 layer_factory.hpp:77] Creating layer relu4
I0403 13:50:59.858469 28762 net.cpp:91] Creating Layer relu4
I0403 13:50:59.858489 28762 net.cpp:425] relu4 <- conv4
I0403 13:50:59.858510 28762 net.cpp:386] relu4 -> conv4 (in-place)
I0403 13:50:59.858834 28762 net.cpp:141] Setting up relu4
I0403 13:50:59.858861 28762 net.cpp:148] Top shape: 100 384 13 13 (6489600)
I0403 13:50:59.858880 28762 net.cpp:156] Memory required for data: 783398000
I0403 13:50:59.858896 28762 layer_factory.hpp:77] Creating layer conv5
I0403 13:50:59.858921 28762 net.cpp:91] Creating Layer conv5
I0403 13:50:59.858940 28762 net.cpp:425] conv5 <- conv4
I0403 13:50:59.858963 28762 net.cpp:399] conv5 -> conv5
I0403 13:50:59.880030 28762 net.cpp:141] Setting up conv5
I0403 13:50:59.880087 28762 net.cpp:148] Top shape: 100 256 13 13 (4326400)
I0403 13:50:59.880110 28762 net.cpp:156] Memory required for data: 800703600
I0403 13:50:59.880136 28762 layer_factory.hpp:77] Creating layer relu5
I0403 13:50:59.880157 28762 net.cpp:91] Creating Layer relu5
I0403 13:50:59.880174 28762 net.cpp:425] relu5 <- conv5
I0403 13:50:59.880193 28762 net.cpp:386] relu5 -> conv5 (in-place)
I0403 13:50:59.880486 28762 net.cpp:141] Setting up relu5
I0403 13:50:59.880518 28762 net.cpp:148] Top shape: 100 256 13 13 (4326400)
I0403 13:50:59.880535 28762 net.cpp:156] Memory required for data: 818009200
I0403 13:50:59.880559 28762 layer_factory.hpp:77] Creating layer pool5
I0403 13:50:59.880583 28762 net.cpp:91] Creating Layer pool5
I0403 13:50:59.880600 28762 net.cpp:425] pool5 <- conv5
I0403 13:50:59.880622 28762 net.cpp:399] pool5 -> pool5
I0403 13:50:59.880686 28762 net.cpp:141] Setting up pool5
I0403 13:50:59.880712 28762 net.cpp:148] Top shape: 100 256 6 6 (921600)
I0403 13:50:59.880728 28762 net.cpp:156] Memory required for data: 821695600
I0403 13:50:59.880743 28762 layer_factory.hpp:77] Creating layer fc6
I0403 13:50:59.880772 28762 net.cpp:91] Creating Layer fc6
I0403 13:50:59.880792 28762 net.cpp:425] fc6 <- pool5
I0403 13:50:59.880815 28762 net.cpp:399] fc6 -> fc6
I0403 13:51:01.449879 28762 net.cpp:141] Setting up fc6
I0403 13:51:01.449965 28762 net.cpp:148] Top shape: 100 4096 (409600)
I0403 13:51:01.449982 28762 net.cpp:156] Memory required for data: 823334000
I0403 13:51:01.450004 28762 layer_factory.hpp:77] Creating layer relu6
I0403 13:51:01.450029 28762 net.cpp:91] Creating Layer relu6
I0403 13:51:01.450049 28762 net.cpp:425] relu6 <- fc6
I0403 13:51:01.450068 28762 net.cpp:386] relu6 -> fc6 (in-place)
I0403 13:51:01.450296 28762 net.cpp:141] Setting up relu6
I0403 13:51:01.450325 28762 net.cpp:148] Top shape: 100 4096 (409600)
I0403 13:51:01.450341 28762 net.cpp:156] Memory required for data: 824972400
I0403 13:51:01.450357 28762 layer_factory.hpp:77] Creating layer drop6
I0403 13:51:01.450376 28762 net.cpp:91] Creating Layer drop6
I0403 13:51:01.450393 28762 net.cpp:425] drop6 <- fc6
I0403 13:51:01.450412 28762 net.cpp:386] drop6 -> fc6 (in-place)
I0403 13:51:01.450465 28762 net.cpp:141] Setting up drop6
I0403 13:51:01.450489 28762 net.cpp:148] Top shape: 100 4096 (409600)
I0403 13:51:01.450505 28762 net.cpp:156] Memory required for data: 826610800
I0403 13:51:01.450518 28762 layer_factory.hpp:77] Creating layer fc7
I0403 13:51:01.450541 28762 net.cpp:91] Creating Layer fc7
I0403 13:51:01.450568 28762 net.cpp:425] fc7 <- fc6
I0403 13:51:01.450587 28762 net.cpp:399] fc7 -> fc7
I0403 13:51:02.136124 28762 net.cpp:141] Setting up fc7
I0403 13:51:02.136198 28762 net.cpp:148] Top shape: 100 4096 (409600)
I0403 13:51:02.136216 28762 net.cpp:156] Memory required for data: 828249200
I0403 13:51:02.136240 28762 layer_factory.hpp:77] Creating layer relu7
I0403 13:51:02.136265 28762 net.cpp:91] Creating Layer relu7
I0403 13:51:02.136289 28762 net.cpp:425] relu7 <- fc7
I0403 13:51:02.136312 28762 net.cpp:386] relu7 -> fc7 (in-place)
I0403 13:51:02.136716 28762 net.cpp:141] Setting up relu7
I0403 13:51:02.136744 28762 net.cpp:148] Top shape: 100 4096 (409600)
I0403 13:51:02.136792 28762 net.cpp:156] Memory required for data: 829887600
I0403 13:51:02.136809 28762 layer_factory.hpp:77] Creating layer drop7
I0403 13:51:02.136843 28762 net.cpp:91] Creating Layer drop7
I0403 13:51:02.136862 28762 net.cpp:425] drop7 <- fc7
I0403 13:51:02.136879 28762 net.cpp:386] drop7 -> fc7 (in-place)
I0403 13:51:02.136925 28762 net.cpp:141] Setting up drop7
I0403 13:51:02.136948 28762 net.cpp:148] Top shape: 100 4096 (409600)
I0403 13:51:02.136965 28762 net.cpp:156] Memory required for data: 831526000
I0403 13:51:02.136979 28762 layer_factory.hpp:77] Creating layer fc8_plantvillage
I0403 13:51:02.137002 28762 net.cpp:91] Creating Layer fc8_plantvillage
I0403 13:51:02.137019 28762 net.cpp:425] fc8_plantvillage <- fc7
I0403 13:51:02.137038 28762 net.cpp:399] fc8_plantvillage -> fc8_plantvillage
I0403 13:51:02.143792 28762 net.cpp:141] Setting up fc8_plantvillage
I0403 13:51:02.143822 28762 net.cpp:148] Top shape: 100 38 (3800)
I0403 13:51:02.143838 28762 net.cpp:156] Memory required for data: 831541200
I0403 13:51:02.143857 28762 layer_factory.hpp:77] Creating layer fc8_plantvillage_fc8_plantvillage_0_split
I0403 13:51:02.143877 28762 net.cpp:91] Creating Layer fc8_plantvillage_fc8_plantvillage_0_split
I0403 13:51:02.143894 28762 net.cpp:425] fc8_plantvillage_fc8_plantvillage_0_split <- fc8_plantvillage
I0403 13:51:02.143914 28762 net.cpp:399] fc8_plantvillage_fc8_plantvillage_0_split -> fc8_plantvillage_fc8_plantvillage_0_split_0
I0403 13:51:02.143937 28762 net.cpp:399] fc8_plantvillage_fc8_plantvillage_0_split -> fc8_plantvillage_fc8_plantvillage_0_split_1
I0403 13:51:02.143959 28762 net.cpp:399] fc8_plantvillage_fc8_plantvillage_0_split -> fc8_plantvillage_fc8_plantvillage_0_split_2
I0403 13:51:02.144037 28762 net.cpp:141] Setting up fc8_plantvillage_fc8_plantvillage_0_split
I0403 13:51:02.144060 28762 net.cpp:148] Top shape: 100 38 (3800)
I0403 13:51:02.144078 28762 net.cpp:148] Top shape: 100 38 (3800)
I0403 13:51:02.144094 28762 net.cpp:148] Top shape: 100 38 (3800)
I0403 13:51:02.144109 28762 net.cpp:156] Memory required for data: 831586800
I0403 13:51:02.144124 28762 layer_factory.hpp:77] Creating layer prob
I0403 13:51:02.144142 28762 net.cpp:91] Creating Layer prob
I0403 13:51:02.144158 28762 net.cpp:425] prob <- fc8_plantvillage_fc8_plantvillage_0_split_0
I0403 13:51:02.144176 28762 net.cpp:399] prob -> prob
I0403 13:51:02.144407 28762 net.cpp:141] Setting up prob
I0403 13:51:02.144434 28762 net.cpp:148] Top shape: 100 38 (3800)
I0403 13:51:02.144449 28762 net.cpp:156] Memory required for data: 831602000
I0403 13:51:02.144464 28762 layer_factory.hpp:77] Creating layer hdf5out
I0403 13:51:02.144487 28762 net.cpp:91] Creating Layer hdf5out
I0403 13:51:02.144505 28762 net.cpp:425] hdf5out <- prob
I0403 13:51:02.144522 28762 net.cpp:425] hdf5out <- label_data_1_split_0
I0403 13:51:02.148399 28762 net.cpp:141] Setting up hdf5out
…
