…
I0403 13:44:10.972074 28606 net.cpp:313] The NetState phase (1) differed from the phase (0) specified by a rule in layer data
I0403 13:44:10.972398 28606 net.cpp:49] Initializing net from parameters: 
state {
  phase: TEST
}
layer {
  name: "data"
  type: "Data"
  top: "data"
  top: "label"
  include {
    phase: TEST
  }
  transform_param {
    crop_size: 227
    mean_file: "/home/mohanty/data/final_dataset/lmdb/color-40-60/mean.binaryproto"
  }
  data_param {
    source: "/home/mohanty/data/final_dataset/lmdb/color-40-60/test_db"
    batch_size: 100
    backend: LMDB
  }
}
layer {
  name: "conv1"
  type: "Convolution"
  bottom: "data"
  top: "conv1"
  param {
    lr_mult: 1
    decay_mult: 1
  }
  param {
    lr_mult: 2
    decay_mult: 0
  }
  convolution_param {
    num_output: 96
    kernel_size: 11
    stride: 4
    weight_filler {
      type: "gaussian"
      std: 0.01
    }
    bias_filler {
      type: "constant"
      value: 0
    }
  }
}
layer {
  name: "relu1"
  type: "ReLU"
  bottom: "conv1"
  top: "conv1"
}
layer {
  name: "norm1"
  type: "LRN"
  bottom: "conv1"
  top: "norm1"
  lrn_param {
    local_size: 5
    alpha: 0.0001
    beta: 0.75
  }
}
layer {
  name: "pool1"
  type: "Pooling"
  bottom: "norm1"
  top: "pool1"
  pooling_param {
    pool: MAX
    kernel_size: 3
    stride: 2
  }
}
layer {
  name: "conv2"
  type: "Convolution"
  bottom: "pool1"
  top: "conv2"
  param {
    lr_mult: 1
    decay_mult: 1
  }
  param {
    lr_mult: 2
    decay_mult: 0
  }
  convolution_param {
    num_output: 256
    pad: 2
    kernel_size: 5
    group: 2
    weight_filler {
      type: "gaussian"
      std: 0.01
    }
    bias_filler {
      type: "constant"
      value: 0.1
    }
  }
}
layer {
  name: "relu2"
  type: "ReLU"
  bottom: "conv2"
  top: "conv2"
}
layer {
  name: "norm2"
  type: "LRN"
  bottom: "conv2"
  top: "norm2"
  lrn_param {
    local_size: 5
    alpha: 0.0001
    beta: 0.75
  }
}
layer {
  name: "pool2"
  type: "Pooling"
  bottom: "norm2"
  top: "pool2"
  pooling_param {
    pool: MAX
    kernel_size: 3
    stride: 2
  }
}
layer {
  name: "conv3"
  type: "Convolution"
  bottom: "pool2"
  top: "conv3"
  param {
    lr_mult: 1
    decay_mult: 1
  }
  param {
    lr_mult: 2
    decay_mult: 0
  }
  convolution_param {
    num_output: 384
    pad: 1
    kernel_size: 3
    weight_filler {
      type: "gaussian"
      std: 0.01
    }
    bias_filler {
      type: "constant"
      value: 0
    }
  }
}
layer {
  name: "relu3"
  type: "ReLU"
  bottom: "conv3"
  top: "conv3"
}
layer {
  name: "conv4"
  type: "Convolution"
  bottom: "conv3"
  top: "conv4"
  param {
    lr_mult: 1
    decay_mult: 1
  }
  param {
    lr_mult: 2
    decay_mult: 0
  }
  convolution_param {
    num_output: 384
    pad: 1
    kernel_size: 3
    group: 2
    weight_filler {
      type: "gaussian"
      std: 0.01
    }
    bias_filler {
      type: "constant"
      value: 0.1
    }
  }
}
layer {
  name: "relu4"
  type: "ReLU"
  bottom: "conv4"
  top: "conv4"
}
layer {
  name: "conv5"
  type: "Convolution"
  bottom: "conv4"
  top: "conv5"
  param {
    lr_mult: 1
    decay_mult: 1
  }
  param {
    lr_mult: 2
    decay_mult: 0
  }
  convolution_param {
    num_output: 256
    pad: 1
    kernel_size: 3
    group: 2
    weight_filler {
      type: "gaussian"
      std: 0.01
    }
    bias_filler {
      type: "constant"
      value: 0.1
    }
  }
}
layer {
  name: "relu5"
  type: "ReLU"
  bottom: "conv5"
  top: "conv5"
}
layer {
  name: "pool5"
  type: "Pooling"
  bottom: "conv5"
  top: "pool5"
  pooling_param {
    pool: MAX
    kernel_size: 3
    stride: 2
  }
}
layer {
  name: "fc6"
  type: "InnerProduct"
  bottom: "pool5"
  top: "fc6"
  param {
    lr_mult: 1
    decay_mult: 1
  }
  param {
    lr_mult: 2
    decay_mult: 0
  }
  inner_product_param {
    num_output: 4096
    weight_filler {
      type: "gaussian"
      std: 0.005
    }
    bias_filler {
      type: "constant"
      value: 0.1
    }
  }
}
layer {
  name: "relu6"
  type: "ReLU"
  bottom: "fc6"
  top: "fc6"
}
layer {
  name: "drop6"
  type: "Dropout"
  bottom: "fc6"
  top: "fc6"
  dropout_param {
    dropout_ratio: 0.5
  }
}
layer {
  name: "fc7"
  type: "InnerProduct"
  bottom: "fc6"
  top: "fc7"
  param {
    lr_mult: 1
    decay_mult: 1
  }
  param {
    lr_mult: 2
    decay_mult: 0
  }
  inner_product_param {
    num_output: 4096
    weight_filler {
      type: "gaussian"
      std: 0.005
    }
    bias_filler {
      type: "constant"
      value: 0.1
    }
  }
}
layer {
  name: "relu7"
  type: "ReLU"
  bottom: "fc7"
  top: "fc7"
}
layer {
  name: "drop7"
  type: "Dropout"
  bottom: "fc7"
  top: "fc7"
  dropout_param {
    dropout_ratio: 0.5
  }
}
layer {
  name: "fc8_plantvillage"
  type: "InnerProduct"
  bottom: "fc7"
  top: "fc8_plantvillage"
  param {
    lr_mult: 1
    decay_mult: 1
  }
  param {
    lr_mult: 2
    decay_mult: 0
  }
  inner_product_param {
    num_output: 38
    weight_filler {
      type: "gaussian"
      std: 0.01
    }
    bias_filler {
      type: "constant"
      value: 0
    }
  }
}
layer {
  name: "prob"
  type: "Softmax"
  bottom: "fc8_plantvillage"
  top: "prob"
  include {
    phase: TEST
  }
}
layer {
  name: "hdf5out"
  type: "HDF5Output"
  bottom: "prob"
  bottom: "label"
  include {
    phase: TEST
  }
  hdf5_output_param {
    file_name: "hdf5_dumps/iter_3038.h5"
  }
}
layer {
  name: "loss"
  type: "SoftmaxWithLoss"
  bottom: "fc8_plantvillage"
  bottom: "label"
  top: "loss"
}
layer {
  name: "accuracy"
  type: "Accuracy"
  bottom: "fc8_plantvillage"
  bottom: "label"
  top: "accuracy"
  include {
    phase: TEST
  }
}
I0403 13:44:10.973000 28606 layer_factory.hpp:77] Creating layer data
I0403 13:44:10.973683 28606 net.cpp:91] Creating Layer data
I0403 13:44:10.973717 28606 net.cpp:399] data -> data
I0403 13:44:10.973770 28606 net.cpp:399] data -> label
I0403 13:44:10.973809 28606 data_transformer.cpp:25] Loading mean file from: /home/mohanty/data/final_dataset/lmdb/color-40-60/mean.binaryproto
I0403 13:44:10.976533 28609 db_lmdb.cpp:38] Opened lmdb /home/mohanty/data/final_dataset/lmdb/color-40-60/test_db
I0403 13:44:10.988551 28606 data_layer.cpp:41] output data size: 100,3,227,227
I0403 13:44:11.125721 28606 net.cpp:141] Setting up data
I0403 13:44:11.125818 28606 net.cpp:148] Top shape: 100 3 227 227 (15458700)
I0403 13:44:11.125843 28606 net.cpp:148] Top shape: 100 (100)
I0403 13:44:11.125859 28606 net.cpp:156] Memory required for data: 61835200
I0403 13:44:11.125887 28606 layer_factory.hpp:77] Creating layer label_data_1_split
I0403 13:44:11.125913 28606 net.cpp:91] Creating Layer label_data_1_split
I0403 13:44:11.125933 28606 net.cpp:425] label_data_1_split <- label
I0403 13:44:11.125967 28606 net.cpp:399] label_data_1_split -> label_data_1_split_0
I0403 13:44:11.125994 28606 net.cpp:399] label_data_1_split -> label_data_1_split_1
I0403 13:44:11.126016 28606 net.cpp:399] label_data_1_split -> label_data_1_split_2
I0403 13:44:11.126083 28606 net.cpp:141] Setting up label_data_1_split
I0403 13:44:11.126108 28606 net.cpp:148] Top shape: 100 (100)
I0403 13:44:11.126127 28606 net.cpp:148] Top shape: 100 (100)
I0403 13:44:11.126143 28606 net.cpp:148] Top shape: 100 (100)
I0403 13:44:11.126158 28606 net.cpp:156] Memory required for data: 61836400
I0403 13:44:11.126174 28606 layer_factory.hpp:77] Creating layer conv1
I0403 13:44:11.126206 28606 net.cpp:91] Creating Layer conv1
I0403 13:44:11.126231 28606 net.cpp:425] conv1 <- data
I0403 13:44:11.126252 28606 net.cpp:399] conv1 -> conv1
I0403 13:44:11.274920 28606 net.cpp:141] Setting up conv1
I0403 13:44:11.274996 28606 net.cpp:148] Top shape: 100 96 55 55 (29040000)
I0403 13:44:11.275014 28606 net.cpp:156] Memory required for data: 177996400
I0403 13:44:11.275048 28606 layer_factory.hpp:77] Creating layer relu1
I0403 13:44:11.275076 28606 net.cpp:91] Creating Layer relu1
I0403 13:44:11.275095 28606 net.cpp:425] relu1 <- conv1
I0403 13:44:11.275116 28606 net.cpp:386] relu1 -> conv1 (in-place)
I0403 13:44:11.275388 28606 net.cpp:141] Setting up relu1
I0403 13:44:11.275416 28606 net.cpp:148] Top shape: 100 96 55 55 (29040000)
I0403 13:44:11.275432 28606 net.cpp:156] Memory required for data: 294156400
I0403 13:44:11.275483 28606 layer_factory.hpp:77] Creating layer norm1
I0403 13:44:11.275514 28606 net.cpp:91] Creating Layer norm1
I0403 13:44:11.275533 28606 net.cpp:425] norm1 <- conv1
I0403 13:44:11.275553 28606 net.cpp:399] norm1 -> norm1
I0403 13:44:11.275869 28606 net.cpp:141] Setting up norm1
I0403 13:44:11.275899 28606 net.cpp:148] Top shape: 100 96 55 55 (29040000)
I0403 13:44:11.275916 28606 net.cpp:156] Memory required for data: 410316400
I0403 13:44:11.275933 28606 layer_factory.hpp:77] Creating layer pool1
I0403 13:44:11.275957 28606 net.cpp:91] Creating Layer pool1
I0403 13:44:11.275975 28606 net.cpp:425] pool1 <- norm1
I0403 13:44:11.275995 28606 net.cpp:399] pool1 -> pool1
I0403 13:44:11.276065 28606 net.cpp:141] Setting up pool1
I0403 13:44:11.276090 28606 net.cpp:148] Top shape: 100 96 27 27 (6998400)
I0403 13:44:11.276106 28606 net.cpp:156] Memory required for data: 438310000
I0403 13:44:11.276123 28606 layer_factory.hpp:77] Creating layer conv2
I0403 13:44:11.276149 28606 net.cpp:91] Creating Layer conv2
I0403 13:44:11.276166 28606 net.cpp:425] conv2 <- pool1
I0403 13:44:11.276185 28606 net.cpp:399] conv2 -> conv2
I0403 13:44:11.291878 28606 net.cpp:141] Setting up conv2
I0403 13:44:11.291929 28606 net.cpp:148] Top shape: 100 256 27 27 (18662400)
I0403 13:44:11.291947 28606 net.cpp:156] Memory required for data: 512959600
I0403 13:44:11.291972 28606 layer_factory.hpp:77] Creating layer relu2
I0403 13:44:11.291995 28606 net.cpp:91] Creating Layer relu2
I0403 13:44:11.292012 28606 net.cpp:425] relu2 <- conv2
I0403 13:44:11.292032 28606 net.cpp:386] relu2 -> conv2 (in-place)
I0403 13:44:11.292316 28606 net.cpp:141] Setting up relu2
I0403 13:44:11.292346 28606 net.cpp:148] Top shape: 100 256 27 27 (18662400)
I0403 13:44:11.292362 28606 net.cpp:156] Memory required for data: 587609200
I0403 13:44:11.292378 28606 layer_factory.hpp:77] Creating layer norm2
I0403 13:44:11.292402 28606 net.cpp:91] Creating Layer norm2
I0403 13:44:11.292420 28606 net.cpp:425] norm2 <- conv2
I0403 13:44:11.292440 28606 net.cpp:399] norm2 -> norm2
I0403 13:44:11.292644 28606 net.cpp:141] Setting up norm2
I0403 13:44:11.292670 28606 net.cpp:148] Top shape: 100 256 27 27 (18662400)
I0403 13:44:11.292687 28606 net.cpp:156] Memory required for data: 662258800
I0403 13:44:11.292702 28606 layer_factory.hpp:77] Creating layer pool2
I0403 13:44:11.292722 28606 net.cpp:91] Creating Layer pool2
I0403 13:44:11.292738 28606 net.cpp:425] pool2 <- norm2
I0403 13:44:11.292758 28606 net.cpp:399] pool2 -> pool2
I0403 13:44:11.292812 28606 net.cpp:141] Setting up pool2
I0403 13:44:11.292837 28606 net.cpp:148] Top shape: 100 256 13 13 (4326400)
I0403 13:44:11.292853 28606 net.cpp:156] Memory required for data: 679564400
I0403 13:44:11.292870 28606 layer_factory.hpp:77] Creating layer conv3
I0403 13:44:11.292892 28606 net.cpp:91] Creating Layer conv3
I0403 13:44:11.292909 28606 net.cpp:425] conv3 <- pool2
I0403 13:44:11.292929 28606 net.cpp:399] conv3 -> conv3
I0403 13:44:11.333235 28606 net.cpp:141] Setting up conv3
I0403 13:44:11.333281 28606 net.cpp:148] Top shape: 100 384 13 13 (6489600)
I0403 13:44:11.333303 28606 net.cpp:156] Memory required for data: 705522800
I0403 13:44:11.333330 28606 layer_factory.hpp:77] Creating layer relu3
I0403 13:44:11.333355 28606 net.cpp:91] Creating Layer relu3
I0403 13:44:11.333374 28606 net.cpp:425] relu3 <- conv3
I0403 13:44:11.333397 28606 net.cpp:386] relu3 -> conv3 (in-place)
I0403 13:44:11.333690 28606 net.cpp:141] Setting up relu3
I0403 13:44:11.333719 28606 net.cpp:148] Top shape: 100 384 13 13 (6489600)
I0403 13:44:11.333735 28606 net.cpp:156] Memory required for data: 731481200
I0403 13:44:11.333752 28606 layer_factory.hpp:77] Creating layer conv4
I0403 13:44:11.333786 28606 net.cpp:91] Creating Layer conv4
I0403 13:44:11.333806 28606 net.cpp:425] conv4 <- conv3
I0403 13:44:11.333828 28606 net.cpp:399] conv4 -> conv4
I0403 13:44:11.365020 28606 net.cpp:141] Setting up conv4
I0403 13:44:11.365085 28606 net.cpp:148] Top shape: 100 384 13 13 (6489600)
I0403 13:44:11.365136 28606 net.cpp:156] Memory required for data: 757439600
I0403 13:44:11.365160 28606 layer_factory.hpp:77] Creating layer relu4
I0403 13:44:11.365183 28606 net.cpp:91] Creating Layer relu4
I0403 13:44:11.365201 28606 net.cpp:425] relu4 <- conv4
I0403 13:44:11.365223 28606 net.cpp:386] relu4 -> conv4 (in-place)
I0403 13:44:11.365519 28606 net.cpp:141] Setting up relu4
I0403 13:44:11.365548 28606 net.cpp:148] Top shape: 100 384 13 13 (6489600)
I0403 13:44:11.365564 28606 net.cpp:156] Memory required for data: 783398000
I0403 13:44:11.365581 28606 layer_factory.hpp:77] Creating layer conv5
I0403 13:44:11.365607 28606 net.cpp:91] Creating Layer conv5
I0403 13:44:11.365625 28606 net.cpp:425] conv5 <- conv4
I0403 13:44:11.365648 28606 net.cpp:399] conv5 -> conv5
I0403 13:44:11.386790 28606 net.cpp:141] Setting up conv5
I0403 13:44:11.386844 28606 net.cpp:148] Top shape: 100 256 13 13 (4326400)
I0403 13:44:11.386862 28606 net.cpp:156] Memory required for data: 800703600
I0403 13:44:11.386889 28606 layer_factory.hpp:77] Creating layer relu5
I0403 13:44:11.386911 28606 net.cpp:91] Creating Layer relu5
I0403 13:44:11.386931 28606 net.cpp:425] relu5 <- conv5
I0403 13:44:11.386955 28606 net.cpp:386] relu5 -> conv5 (in-place)
I0403 13:44:11.387260 28606 net.cpp:141] Setting up relu5
I0403 13:44:11.387293 28606 net.cpp:148] Top shape: 100 256 13 13 (4326400)
I0403 13:44:11.387310 28606 net.cpp:156] Memory required for data: 818009200
I0403 13:44:11.387326 28606 layer_factory.hpp:77] Creating layer pool5
I0403 13:44:11.387352 28606 net.cpp:91] Creating Layer pool5
I0403 13:44:11.387370 28606 net.cpp:425] pool5 <- conv5
I0403 13:44:11.387390 28606 net.cpp:399] pool5 -> pool5
I0403 13:44:11.387455 28606 net.cpp:141] Setting up pool5
I0403 13:44:11.387480 28606 net.cpp:148] Top shape: 100 256 6 6 (921600)
I0403 13:44:11.387497 28606 net.cpp:156] Memory required for data: 821695600
I0403 13:44:11.387512 28606 layer_factory.hpp:77] Creating layer fc6
I0403 13:44:11.387539 28606 net.cpp:91] Creating Layer fc6
I0403 13:44:11.387558 28606 net.cpp:425] fc6 <- pool5
I0403 13:44:11.387580 28606 net.cpp:399] fc6 -> fc6
I0403 13:44:12.966152 28606 net.cpp:141] Setting up fc6
I0403 13:44:12.966229 28606 net.cpp:148] Top shape: 100 4096 (409600)
I0403 13:44:12.966245 28606 net.cpp:156] Memory required for data: 823334000
I0403 13:44:12.966267 28606 layer_factory.hpp:77] Creating layer relu6
I0403 13:44:12.966295 28606 net.cpp:91] Creating Layer relu6
I0403 13:44:12.966315 28606 net.cpp:425] relu6 <- fc6
I0403 13:44:12.966336 28606 net.cpp:386] relu6 -> fc6 (in-place)
I0403 13:44:12.966553 28606 net.cpp:141] Setting up relu6
I0403 13:44:12.966578 28606 net.cpp:148] Top shape: 100 4096 (409600)
I0403 13:44:12.966593 28606 net.cpp:156] Memory required for data: 824972400
I0403 13:44:12.966609 28606 layer_factory.hpp:77] Creating layer drop6
I0403 13:44:12.966627 28606 net.cpp:91] Creating Layer drop6
I0403 13:44:12.966642 28606 net.cpp:425] drop6 <- fc6
I0403 13:44:12.966661 28606 net.cpp:386] drop6 -> fc6 (in-place)
I0403 13:44:12.966712 28606 net.cpp:141] Setting up drop6
I0403 13:44:12.966742 28606 net.cpp:148] Top shape: 100 4096 (409600)
I0403 13:44:12.966758 28606 net.cpp:156] Memory required for data: 826610800
I0403 13:44:12.966773 28606 layer_factory.hpp:77] Creating layer fc7
I0403 13:44:12.966794 28606 net.cpp:91] Creating Layer fc7
I0403 13:44:12.966809 28606 net.cpp:425] fc7 <- fc6
I0403 13:44:12.966828 28606 net.cpp:399] fc7 -> fc7
I0403 13:44:13.655966 28606 net.cpp:141] Setting up fc7
I0403 13:44:13.656045 28606 net.cpp:148] Top shape: 100 4096 (409600)
I0403 13:44:13.656064 28606 net.cpp:156] Memory required for data: 828249200
I0403 13:44:13.656087 28606 layer_factory.hpp:77] Creating layer relu7
I0403 13:44:13.656111 28606 net.cpp:91] Creating Layer relu7
I0403 13:44:13.656128 28606 net.cpp:425] relu7 <- fc7
I0403 13:44:13.656152 28606 net.cpp:386] relu7 -> fc7 (in-place)
I0403 13:44:13.656594 28606 net.cpp:141] Setting up relu7
I0403 13:44:13.656635 28606 net.cpp:148] Top shape: 100 4096 (409600)
I0403 13:44:13.656685 28606 net.cpp:156] Memory required for data: 829887600
I0403 13:44:13.656702 28606 layer_factory.hpp:77] Creating layer drop7
I0403 13:44:13.656721 28606 net.cpp:91] Creating Layer drop7
I0403 13:44:13.656738 28606 net.cpp:425] drop7 <- fc7
I0403 13:44:13.656759 28606 net.cpp:386] drop7 -> fc7 (in-place)
I0403 13:44:13.656805 28606 net.cpp:141] Setting up drop7
I0403 13:44:13.656831 28606 net.cpp:148] Top shape: 100 4096 (409600)
I0403 13:44:13.656847 28606 net.cpp:156] Memory required for data: 831526000
I0403 13:44:13.656862 28606 layer_factory.hpp:77] Creating layer fc8_plantvillage
I0403 13:44:13.656883 28606 net.cpp:91] Creating Layer fc8_plantvillage
I0403 13:44:13.656898 28606 net.cpp:425] fc8_plantvillage <- fc7
I0403 13:44:13.656919 28606 net.cpp:399] fc8_plantvillage -> fc8_plantvillage
I0403 13:44:13.663885 28606 net.cpp:141] Setting up fc8_plantvillage
I0403 13:44:13.663916 28606 net.cpp:148] Top shape: 100 38 (3800)
I0403 13:44:13.663931 28606 net.cpp:156] Memory required for data: 831541200
I0403 13:44:13.663949 28606 layer_factory.hpp:77] Creating layer fc8_plantvillage_fc8_plantvillage_0_split
I0403 13:44:13.663969 28606 net.cpp:91] Creating Layer fc8_plantvillage_fc8_plantvillage_0_split
I0403 13:44:13.663990 28606 net.cpp:425] fc8_plantvillage_fc8_plantvillage_0_split <- fc8_plantvillage
I0403 13:44:13.664007 28606 net.cpp:399] fc8_plantvillage_fc8_plantvillage_0_split -> fc8_plantvillage_fc8_plantvillage_0_split_0
I0403 13:44:13.664028 28606 net.cpp:399] fc8_plantvillage_fc8_plantvillage_0_split -> fc8_plantvillage_fc8_plantvillage_0_split_1
I0403 13:44:13.664049 28606 net.cpp:399] fc8_plantvillage_fc8_plantvillage_0_split -> fc8_plantvillage_fc8_plantvillage_0_split_2
I0403 13:44:13.664126 28606 net.cpp:141] Setting up fc8_plantvillage_fc8_plantvillage_0_split
I0403 13:44:13.664154 28606 net.cpp:148] Top shape: 100 38 (3800)
I0403 13:44:13.664170 28606 net.cpp:148] Top shape: 100 38 (3800)
I0403 13:44:13.664187 28606 net.cpp:148] Top shape: 100 38 (3800)
I0403 13:44:13.664201 28606 net.cpp:156] Memory required for data: 831586800
I0403 13:44:13.664217 28606 layer_factory.hpp:77] Creating layer prob
I0403 13:44:13.664237 28606 net.cpp:91] Creating Layer prob
I0403 13:44:13.664253 28606 net.cpp:425] prob <- fc8_plantvillage_fc8_plantvillage_0_split_0
I0403 13:44:13.664271 28606 net.cpp:399] prob -> prob
I0403 13:44:13.664530 28606 net.cpp:141] Setting up prob
I0403 13:44:13.664557 28606 net.cpp:148] Top shape: 100 38 (3800)
I0403 13:44:13.664573 28606 net.cpp:156] Memory required for data: 831602000
I0403 13:44:13.664590 28606 layer_factory.hpp:77] Creating layer hdf5out
I0403 13:44:13.664623 28606 net.cpp:91] Creating Layer hdf5out
I0403 13:44:13.664639 28606 net.cpp:425] hdf5out <- prob
I0403 13:44:13.664655 28606 net.cpp:425] hdf5out <- label_data_1_split_0
I0403 13:44:13.679692 28606 net.cpp:141] Setting up hdf5out
…
