…
I0403 13:43:02.231065 28566 net.cpp:313] The NetState phase (1) differed from the phase (0) specified by a rule in layer data
I0403 13:43:02.231385 28566 net.cpp:49] Initializing net from parameters: 
state {
  phase: TEST
}
layer {
  name: "data"
  type: "Data"
  top: "data"
  top: "label"
  include {
    phase: TEST
  }
  transform_param {
    crop_size: 227
    mean_file: "/home/mohanty/data/final_dataset/lmdb/color-40-60/mean.binaryproto"
  }
  data_param {
    source: "/home/mohanty/data/final_dataset/lmdb/color-40-60/test_db"
    batch_size: 100
    backend: LMDB
  }
}
layer {
  name: "conv1"
  type: "Convolution"
  bottom: "data"
  top: "conv1"
  param {
    lr_mult: 1
    decay_mult: 1
  }
  param {
    lr_mult: 2
    decay_mult: 0
  }
  convolution_param {
    num_output: 96
    kernel_size: 11
    stride: 4
    weight_filler {
      type: "gaussian"
      std: 0.01
    }
    bias_filler {
      type: "constant"
      value: 0
    }
  }
}
layer {
  name: "relu1"
  type: "ReLU"
  bottom: "conv1"
  top: "conv1"
}
layer {
  name: "norm1"
  type: "LRN"
  bottom: "conv1"
  top: "norm1"
  lrn_param {
    local_size: 5
    alpha: 0.0001
    beta: 0.75
  }
}
layer {
  name: "pool1"
  type: "Pooling"
  bottom: "norm1"
  top: "pool1"
  pooling_param {
    pool: MAX
    kernel_size: 3
    stride: 2
  }
}
layer {
  name: "conv2"
  type: "Convolution"
  bottom: "pool1"
  top: "conv2"
  param {
    lr_mult: 1
    decay_mult: 1
  }
  param {
    lr_mult: 2
    decay_mult: 0
  }
  convolution_param {
    num_output: 256
    pad: 2
    kernel_size: 5
    group: 2
    weight_filler {
      type: "gaussian"
      std: 0.01
    }
    bias_filler {
      type: "constant"
      value: 0.1
    }
  }
}
layer {
  name: "relu2"
  type: "ReLU"
  bottom: "conv2"
  top: "conv2"
}
layer {
  name: "norm2"
  type: "LRN"
  bottom: "conv2"
  top: "norm2"
  lrn_param {
    local_size: 5
    alpha: 0.0001
    beta: 0.75
  }
}
layer {
  name: "pool2"
  type: "Pooling"
  bottom: "norm2"
  top: "pool2"
  pooling_param {
    pool: MAX
    kernel_size: 3
    stride: 2
  }
}
layer {
  name: "conv3"
  type: "Convolution"
  bottom: "pool2"
  top: "conv3"
  param {
    lr_mult: 1
    decay_mult: 1
  }
  param {
    lr_mult: 2
    decay_mult: 0
  }
  convolution_param {
    num_output: 384
    pad: 1
    kernel_size: 3
    weight_filler {
      type: "gaussian"
      std: 0.01
    }
    bias_filler {
      type: "constant"
      value: 0
    }
  }
}
layer {
  name: "relu3"
  type: "ReLU"
  bottom: "conv3"
  top: "conv3"
}
layer {
  name: "conv4"
  type: "Convolution"
  bottom: "conv3"
  top: "conv4"
  param {
    lr_mult: 1
    decay_mult: 1
  }
  param {
    lr_mult: 2
    decay_mult: 0
  }
  convolution_param {
    num_output: 384
    pad: 1
    kernel_size: 3
    group: 2
    weight_filler {
      type: "gaussian"
      std: 0.01
    }
    bias_filler {
      type: "constant"
      value: 0.1
    }
  }
}
layer {
  name: "relu4"
  type: "ReLU"
  bottom: "conv4"
  top: "conv4"
}
layer {
  name: "conv5"
  type: "Convolution"
  bottom: "conv4"
  top: "conv5"
  param {
    lr_mult: 1
    decay_mult: 1
  }
  param {
    lr_mult: 2
    decay_mult: 0
  }
  convolution_param {
    num_output: 256
    pad: 1
    kernel_size: 3
    group: 2
    weight_filler {
      type: "gaussian"
      std: 0.01
    }
    bias_filler {
      type: "constant"
      value: 0.1
    }
  }
}
layer {
  name: "relu5"
  type: "ReLU"
  bottom: "conv5"
  top: "conv5"
}
layer {
  name: "pool5"
  type: "Pooling"
  bottom: "conv5"
  top: "pool5"
  pooling_param {
    pool: MAX
    kernel_size: 3
    stride: 2
  }
}
layer {
  name: "fc6"
  type: "InnerProduct"
  bottom: "pool5"
  top: "fc6"
  param {
    lr_mult: 1
    decay_mult: 1
  }
  param {
    lr_mult: 2
    decay_mult: 0
  }
  inner_product_param {
    num_output: 4096
    weight_filler {
      type: "gaussian"
      std: 0.005
    }
    bias_filler {
      type: "constant"
      value: 0.1
    }
  }
}
layer {
  name: "relu6"
  type: "ReLU"
  bottom: "fc6"
  top: "fc6"
}
layer {
  name: "drop6"
  type: "Dropout"
  bottom: "fc6"
  top: "fc6"
  dropout_param {
    dropout_ratio: 0.5
  }
}
layer {
  name: "fc7"
  type: "InnerProduct"
  bottom: "fc6"
  top: "fc7"
  param {
    lr_mult: 1
    decay_mult: 1
  }
  param {
    lr_mult: 2
    decay_mult: 0
  }
  inner_product_param {
    num_output: 4096
    weight_filler {
      type: "gaussian"
      std: 0.005
    }
    bias_filler {
      type: "constant"
      value: 0.1
    }
  }
}
layer {
  name: "relu7"
  type: "ReLU"
  bottom: "fc7"
  top: "fc7"
}
layer {
  name: "drop7"
  type: "Dropout"
  bottom: "fc7"
  top: "fc7"
  dropout_param {
    dropout_ratio: 0.5
  }
}
layer {
  name: "fc8_plantvillage"
  type: "InnerProduct"
  bottom: "fc7"
  top: "fc8_plantvillage"
  param {
    lr_mult: 1
    decay_mult: 1
  }
  param {
    lr_mult: 2
    decay_mult: 0
  }
  inner_product_param {
    num_output: 38
    weight_filler {
      type: "gaussian"
      std: 0.01
    }
    bias_filler {
      type: "constant"
      value: 0
    }
  }
}
layer {
  name: "prob"
  type: "Softmax"
  bottom: "fc8_plantvillage"
  top: "prob"
  include {
    phase: TEST
  }
}
layer {
  name: "hdf5out"
  type: "HDF5Output"
  bottom: "prob"
  bottom: "label"
  include {
    phase: TEST
  }
  hdf5_output_param {
    file_name: "hdf5_dumps/iter_2821.h5"
  }
}
layer {
  name: "loss"
  type: "SoftmaxWithLoss"
  bottom: "fc8_plantvillage"
  bottom: "label"
  top: "loss"
}
layer {
  name: "accuracy"
  type: "Accuracy"
  bottom: "fc8_plantvillage"
  bottom: "label"
  top: "accuracy"
  include {
    phase: TEST
  }
}
I0403 13:43:02.231967 28566 layer_factory.hpp:77] Creating layer data
I0403 13:43:02.232625 28566 net.cpp:91] Creating Layer data
I0403 13:43:02.232661 28566 net.cpp:399] data -> data
I0403 13:43:02.232714 28566 net.cpp:399] data -> label
I0403 13:43:02.232753 28566 data_transformer.cpp:25] Loading mean file from: /home/mohanty/data/final_dataset/lmdb/color-40-60/mean.binaryproto
I0403 13:43:02.235512 28569 db_lmdb.cpp:38] Opened lmdb /home/mohanty/data/final_dataset/lmdb/color-40-60/test_db
I0403 13:43:02.247442 28566 data_layer.cpp:41] output data size: 100,3,227,227
I0403 13:43:02.383882 28566 net.cpp:141] Setting up data
I0403 13:43:02.383945 28566 net.cpp:148] Top shape: 100 3 227 227 (15458700)
I0403 13:43:02.383970 28566 net.cpp:148] Top shape: 100 (100)
I0403 13:43:02.383986 28566 net.cpp:156] Memory required for data: 61835200
I0403 13:43:02.384016 28566 layer_factory.hpp:77] Creating layer label_data_1_split
I0403 13:43:02.384042 28566 net.cpp:91] Creating Layer label_data_1_split
I0403 13:43:02.384062 28566 net.cpp:425] label_data_1_split <- label
I0403 13:43:02.384095 28566 net.cpp:399] label_data_1_split -> label_data_1_split_0
I0403 13:43:02.384124 28566 net.cpp:399] label_data_1_split -> label_data_1_split_1
I0403 13:43:02.384145 28566 net.cpp:399] label_data_1_split -> label_data_1_split_2
I0403 13:43:02.384212 28566 net.cpp:141] Setting up label_data_1_split
I0403 13:43:02.384237 28566 net.cpp:148] Top shape: 100 (100)
I0403 13:43:02.384260 28566 net.cpp:148] Top shape: 100 (100)
I0403 13:43:02.384279 28566 net.cpp:148] Top shape: 100 (100)
I0403 13:43:02.384295 28566 net.cpp:156] Memory required for data: 61836400
I0403 13:43:02.384312 28566 layer_factory.hpp:77] Creating layer conv1
I0403 13:43:02.384346 28566 net.cpp:91] Creating Layer conv1
I0403 13:43:02.384366 28566 net.cpp:425] conv1 <- data
I0403 13:43:02.384387 28566 net.cpp:399] conv1 -> conv1
I0403 13:43:02.533859 28566 net.cpp:141] Setting up conv1
I0403 13:43:02.533941 28566 net.cpp:148] Top shape: 100 96 55 55 (29040000)
I0403 13:43:02.533960 28566 net.cpp:156] Memory required for data: 177996400
I0403 13:43:02.533995 28566 layer_factory.hpp:77] Creating layer relu1
I0403 13:43:02.534037 28566 net.cpp:91] Creating Layer relu1
I0403 13:43:02.534060 28566 net.cpp:425] relu1 <- conv1
I0403 13:43:02.534088 28566 net.cpp:386] relu1 -> conv1 (in-place)
I0403 13:43:02.534395 28566 net.cpp:141] Setting up relu1
I0403 13:43:02.534427 28566 net.cpp:148] Top shape: 100 96 55 55 (29040000)
I0403 13:43:02.534446 28566 net.cpp:156] Memory required for data: 294156400
I0403 13:43:02.534494 28566 layer_factory.hpp:77] Creating layer norm1
I0403 13:43:02.534528 28566 net.cpp:91] Creating Layer norm1
I0403 13:43:02.534549 28566 net.cpp:425] norm1 <- conv1
I0403 13:43:02.534570 28566 net.cpp:399] norm1 -> norm1
I0403 13:43:02.534914 28566 net.cpp:141] Setting up norm1
I0403 13:43:02.534943 28566 net.cpp:148] Top shape: 100 96 55 55 (29040000)
I0403 13:43:02.534960 28566 net.cpp:156] Memory required for data: 410316400
I0403 13:43:02.534977 28566 layer_factory.hpp:77] Creating layer pool1
I0403 13:43:02.535003 28566 net.cpp:91] Creating Layer pool1
I0403 13:43:02.535023 28566 net.cpp:425] pool1 <- norm1
I0403 13:43:02.535043 28566 net.cpp:399] pool1 -> pool1
I0403 13:43:02.535117 28566 net.cpp:141] Setting up pool1
I0403 13:43:02.535143 28566 net.cpp:148] Top shape: 100 96 27 27 (6998400)
I0403 13:43:02.535159 28566 net.cpp:156] Memory required for data: 438310000
I0403 13:43:02.535176 28566 layer_factory.hpp:77] Creating layer conv2
I0403 13:43:02.535204 28566 net.cpp:91] Creating Layer conv2
I0403 13:43:02.535223 28566 net.cpp:425] conv2 <- pool1
I0403 13:43:02.535246 28566 net.cpp:399] conv2 -> conv2
I0403 13:43:02.550756 28566 net.cpp:141] Setting up conv2
I0403 13:43:02.550806 28566 net.cpp:148] Top shape: 100 256 27 27 (18662400)
I0403 13:43:02.550824 28566 net.cpp:156] Memory required for data: 512959600
I0403 13:43:02.550848 28566 layer_factory.hpp:77] Creating layer relu2
I0403 13:43:02.550873 28566 net.cpp:91] Creating Layer relu2
I0403 13:43:02.550890 28566 net.cpp:425] relu2 <- conv2
I0403 13:43:02.550910 28566 net.cpp:386] relu2 -> conv2 (in-place)
I0403 13:43:02.551205 28566 net.cpp:141] Setting up relu2
I0403 13:43:02.551234 28566 net.cpp:148] Top shape: 100 256 27 27 (18662400)
I0403 13:43:02.551250 28566 net.cpp:156] Memory required for data: 587609200
I0403 13:43:02.551266 28566 layer_factory.hpp:77] Creating layer norm2
I0403 13:43:02.551297 28566 net.cpp:91] Creating Layer norm2
I0403 13:43:02.551321 28566 net.cpp:425] norm2 <- conv2
I0403 13:43:02.551345 28566 net.cpp:399] norm2 -> norm2
I0403 13:43:02.551558 28566 net.cpp:141] Setting up norm2
I0403 13:43:02.551586 28566 net.cpp:148] Top shape: 100 256 27 27 (18662400)
I0403 13:43:02.551604 28566 net.cpp:156] Memory required for data: 662258800
I0403 13:43:02.551620 28566 layer_factory.hpp:77] Creating layer pool2
I0403 13:43:02.551638 28566 net.cpp:91] Creating Layer pool2
I0403 13:43:02.551656 28566 net.cpp:425] pool2 <- norm2
I0403 13:43:02.551677 28566 net.cpp:399] pool2 -> pool2
I0403 13:43:02.551734 28566 net.cpp:141] Setting up pool2
I0403 13:43:02.551759 28566 net.cpp:148] Top shape: 100 256 13 13 (4326400)
I0403 13:43:02.551775 28566 net.cpp:156] Memory required for data: 679564400
I0403 13:43:02.551790 28566 layer_factory.hpp:77] Creating layer conv3
I0403 13:43:02.551817 28566 net.cpp:91] Creating Layer conv3
I0403 13:43:02.551836 28566 net.cpp:425] conv3 <- pool2
I0403 13:43:02.551856 28566 net.cpp:399] conv3 -> conv3
I0403 13:43:02.591573 28566 net.cpp:141] Setting up conv3
I0403 13:43:02.591635 28566 net.cpp:148] Top shape: 100 384 13 13 (6489600)
I0403 13:43:02.591653 28566 net.cpp:156] Memory required for data: 705522800
I0403 13:43:02.591680 28566 layer_factory.hpp:77] Creating layer relu3
I0403 13:43:02.591706 28566 net.cpp:91] Creating Layer relu3
I0403 13:43:02.591724 28566 net.cpp:425] relu3 <- conv3
I0403 13:43:02.591747 28566 net.cpp:386] relu3 -> conv3 (in-place)
I0403 13:43:02.592033 28566 net.cpp:141] Setting up relu3
I0403 13:43:02.592062 28566 net.cpp:148] Top shape: 100 384 13 13 (6489600)
I0403 13:43:02.592079 28566 net.cpp:156] Memory required for data: 731481200
I0403 13:43:02.592095 28566 layer_factory.hpp:77] Creating layer conv4
I0403 13:43:02.592123 28566 net.cpp:91] Creating Layer conv4
I0403 13:43:02.592141 28566 net.cpp:425] conv4 <- conv3
I0403 13:43:02.592165 28566 net.cpp:399] conv4 -> conv4
I0403 13:43:02.622843 28566 net.cpp:141] Setting up conv4
I0403 13:43:02.622908 28566 net.cpp:148] Top shape: 100 384 13 13 (6489600)
I0403 13:43:02.622997 28566 net.cpp:156] Memory required for data: 757439600
I0403 13:43:02.623020 28566 layer_factory.hpp:77] Creating layer relu4
I0403 13:43:02.623042 28566 net.cpp:91] Creating Layer relu4
I0403 13:43:02.623061 28566 net.cpp:425] relu4 <- conv4
I0403 13:43:02.623085 28566 net.cpp:386] relu4 -> conv4 (in-place)
I0403 13:43:02.623384 28566 net.cpp:141] Setting up relu4
I0403 13:43:02.623414 28566 net.cpp:148] Top shape: 100 384 13 13 (6489600)
I0403 13:43:02.623430 28566 net.cpp:156] Memory required for data: 783398000
I0403 13:43:02.623446 28566 layer_factory.hpp:77] Creating layer conv5
I0403 13:43:02.623472 28566 net.cpp:91] Creating Layer conv5
I0403 13:43:02.623491 28566 net.cpp:425] conv5 <- conv4
I0403 13:43:02.623518 28566 net.cpp:399] conv5 -> conv5
I0403 13:43:02.645148 28566 net.cpp:141] Setting up conv5
I0403 13:43:02.645200 28566 net.cpp:148] Top shape: 100 256 13 13 (4326400)
I0403 13:43:02.645216 28566 net.cpp:156] Memory required for data: 800703600
I0403 13:43:02.645242 28566 layer_factory.hpp:77] Creating layer relu5
I0403 13:43:02.645265 28566 net.cpp:91] Creating Layer relu5
I0403 13:43:02.645287 28566 net.cpp:425] relu5 <- conv5
I0403 13:43:02.645309 28566 net.cpp:386] relu5 -> conv5 (in-place)
I0403 13:43:02.645602 28566 net.cpp:141] Setting up relu5
I0403 13:43:02.645632 28566 net.cpp:148] Top shape: 100 256 13 13 (4326400)
I0403 13:43:02.645648 28566 net.cpp:156] Memory required for data: 818009200
I0403 13:43:02.645664 28566 layer_factory.hpp:77] Creating layer pool5
I0403 13:43:02.645691 28566 net.cpp:91] Creating Layer pool5
I0403 13:43:02.645711 28566 net.cpp:425] pool5 <- conv5
I0403 13:43:02.645731 28566 net.cpp:399] pool5 -> pool5
I0403 13:43:02.645794 28566 net.cpp:141] Setting up pool5
I0403 13:43:02.645820 28566 net.cpp:148] Top shape: 100 256 6 6 (921600)
I0403 13:43:02.645836 28566 net.cpp:156] Memory required for data: 821695600
I0403 13:43:02.645853 28566 layer_factory.hpp:77] Creating layer fc6
I0403 13:43:02.645884 28566 net.cpp:91] Creating Layer fc6
I0403 13:43:02.645902 28566 net.cpp:425] fc6 <- pool5
I0403 13:43:02.645921 28566 net.cpp:399] fc6 -> fc6
I0403 13:43:04.208715 28566 net.cpp:141] Setting up fc6
I0403 13:43:04.208757 28566 net.cpp:148] Top shape: 100 4096 (409600)
I0403 13:43:04.208773 28566 net.cpp:156] Memory required for data: 823334000
I0403 13:43:04.208796 28566 layer_factory.hpp:77] Creating layer relu6
I0403 13:43:04.208817 28566 net.cpp:91] Creating Layer relu6
I0403 13:43:04.208848 28566 net.cpp:425] relu6 <- fc6
I0403 13:43:04.208870 28566 net.cpp:386] relu6 -> fc6 (in-place)
I0403 13:43:04.209080 28566 net.cpp:141] Setting up relu6
I0403 13:43:04.209105 28566 net.cpp:148] Top shape: 100 4096 (409600)
I0403 13:43:04.209120 28566 net.cpp:156] Memory required for data: 824972400
I0403 13:43:04.209134 28566 layer_factory.hpp:77] Creating layer drop6
I0403 13:43:04.209153 28566 net.cpp:91] Creating Layer drop6
I0403 13:43:04.209168 28566 net.cpp:425] drop6 <- fc6
I0403 13:43:04.209188 28566 net.cpp:386] drop6 -> fc6 (in-place)
I0403 13:43:04.209241 28566 net.cpp:141] Setting up drop6
I0403 13:43:04.209265 28566 net.cpp:148] Top shape: 100 4096 (409600)
I0403 13:43:04.209280 28566 net.cpp:156] Memory required for data: 826610800
I0403 13:43:04.209300 28566 layer_factory.hpp:77] Creating layer fc7
I0403 13:43:04.209319 28566 net.cpp:91] Creating Layer fc7
I0403 13:43:04.209336 28566 net.cpp:425] fc7 <- fc6
I0403 13:43:04.209360 28566 net.cpp:399] fc7 -> fc7
I0403 13:43:04.901367 28566 net.cpp:141] Setting up fc7
I0403 13:43:04.901443 28566 net.cpp:148] Top shape: 100 4096 (409600)
I0403 13:43:04.901463 28566 net.cpp:156] Memory required for data: 828249200
I0403 13:43:04.901485 28566 layer_factory.hpp:77] Creating layer relu7
I0403 13:43:04.901512 28566 net.cpp:91] Creating Layer relu7
I0403 13:43:04.901533 28566 net.cpp:425] relu7 <- fc7
I0403 13:43:04.901554 28566 net.cpp:386] relu7 -> fc7 (in-place)
I0403 13:43:04.901962 28566 net.cpp:141] Setting up relu7
I0403 13:43:04.901991 28566 net.cpp:148] Top shape: 100 4096 (409600)
I0403 13:43:04.902040 28566 net.cpp:156] Memory required for data: 829887600
I0403 13:43:04.902057 28566 layer_factory.hpp:77] Creating layer drop7
I0403 13:43:04.902077 28566 net.cpp:91] Creating Layer drop7
I0403 13:43:04.902101 28566 net.cpp:425] drop7 <- fc7
I0403 13:43:04.902119 28566 net.cpp:386] drop7 -> fc7 (in-place)
I0403 13:43:04.902165 28566 net.cpp:141] Setting up drop7
I0403 13:43:04.902194 28566 net.cpp:148] Top shape: 100 4096 (409600)
I0403 13:43:04.902210 28566 net.cpp:156] Memory required for data: 831526000
I0403 13:43:04.902226 28566 layer_factory.hpp:77] Creating layer fc8_plantvillage
I0403 13:43:04.902247 28566 net.cpp:91] Creating Layer fc8_plantvillage
I0403 13:43:04.902264 28566 net.cpp:425] fc8_plantvillage <- fc7
I0403 13:43:04.902292 28566 net.cpp:399] fc8_plantvillage -> fc8_plantvillage
I0403 13:43:04.909437 28566 net.cpp:141] Setting up fc8_plantvillage
I0403 13:43:04.909469 28566 net.cpp:148] Top shape: 100 38 (3800)
I0403 13:43:04.909493 28566 net.cpp:156] Memory required for data: 831541200
I0403 13:43:04.909518 28566 layer_factory.hpp:77] Creating layer fc8_plantvillage_fc8_plantvillage_0_split
I0403 13:43:04.909539 28566 net.cpp:91] Creating Layer fc8_plantvillage_fc8_plantvillage_0_split
I0403 13:43:04.909561 28566 net.cpp:425] fc8_plantvillage_fc8_plantvillage_0_split <- fc8_plantvillage
I0403 13:43:04.909581 28566 net.cpp:399] fc8_plantvillage_fc8_plantvillage_0_split -> fc8_plantvillage_fc8_plantvillage_0_split_0
I0403 13:43:04.909605 28566 net.cpp:399] fc8_plantvillage_fc8_plantvillage_0_split -> fc8_plantvillage_fc8_plantvillage_0_split_1
I0403 13:43:04.909626 28566 net.cpp:399] fc8_plantvillage_fc8_plantvillage_0_split -> fc8_plantvillage_fc8_plantvillage_0_split_2
I0403 13:43:04.909718 28566 net.cpp:141] Setting up fc8_plantvillage_fc8_plantvillage_0_split
I0403 13:43:04.909744 28566 net.cpp:148] Top shape: 100 38 (3800)
I0403 13:43:04.909761 28566 net.cpp:148] Top shape: 100 38 (3800)
I0403 13:43:04.909778 28566 net.cpp:148] Top shape: 100 38 (3800)
I0403 13:43:04.909793 28566 net.cpp:156] Memory required for data: 831586800
I0403 13:43:04.909809 28566 layer_factory.hpp:77] Creating layer prob
I0403 13:43:04.909829 28566 net.cpp:91] Creating Layer prob
I0403 13:43:04.909847 28566 net.cpp:425] prob <- fc8_plantvillage_fc8_plantvillage_0_split_0
I0403 13:43:04.909868 28566 net.cpp:399] prob -> prob
I0403 13:43:04.910109 28566 net.cpp:141] Setting up prob
I0403 13:43:04.910138 28566 net.cpp:148] Top shape: 100 38 (3800)
I0403 13:43:04.910154 28566 net.cpp:156] Memory required for data: 831602000
I0403 13:43:04.910169 28566 layer_factory.hpp:77] Creating layer hdf5out
I0403 13:43:04.910192 28566 net.cpp:91] Creating Layer hdf5out
I0403 13:43:04.910210 28566 net.cpp:425] hdf5out <- prob
I0403 13:43:04.910228 28566 net.cpp:425] hdf5out <- label_data_1_split_0
I0403 13:43:04.913830 28566 net.cpp:141] Setting up hdf5out
…
