…
I0403 14:03:28.637342 29050 net.cpp:313] The NetState phase (1) differed from the phase (0) specified by a rule in layer data
I0403 14:03:28.637642 29050 net.cpp:49] Initializing net from parameters: 
state {
  phase: TEST
}
layer {
  name: "data"
  type: "Data"
  top: "data"
  top: "label"
  include {
    phase: TEST
  }
  transform_param {
    crop_size: 227
    mean_file: "/home/mohanty/data/final_dataset/lmdb/color-40-60/mean.binaryproto"
  }
  data_param {
    source: "/home/mohanty/data/final_dataset/lmdb/color-40-60/test_db"
    batch_size: 100
    backend: LMDB
  }
}
layer {
  name: "conv1"
  type: "Convolution"
  bottom: "data"
  top: "conv1"
  param {
    lr_mult: 1
    decay_mult: 1
  }
  param {
    lr_mult: 2
    decay_mult: 0
  }
  convolution_param {
    num_output: 96
    kernel_size: 11
    stride: 4
    weight_filler {
      type: "gaussian"
      std: 0.01
    }
    bias_filler {
      type: "constant"
      value: 0
    }
  }
}
layer {
  name: "relu1"
  type: "ReLU"
  bottom: "conv1"
  top: "conv1"
}
layer {
  name: "norm1"
  type: "LRN"
  bottom: "conv1"
  top: "norm1"
  lrn_param {
    local_size: 5
    alpha: 0.0001
    beta: 0.75
  }
}
layer {
  name: "pool1"
  type: "Pooling"
  bottom: "norm1"
  top: "pool1"
  pooling_param {
    pool: MAX
    kernel_size: 3
    stride: 2
  }
}
layer {
  name: "conv2"
  type: "Convolution"
  bottom: "pool1"
  top: "conv2"
  param {
    lr_mult: 1
    decay_mult: 1
  }
  param {
    lr_mult: 2
    decay_mult: 0
  }
  convolution_param {
    num_output: 256
    pad: 2
    kernel_size: 5
    group: 2
    weight_filler {
      type: "gaussian"
      std: 0.01
    }
    bias_filler {
      type: "constant"
      value: 0.1
    }
  }
}
layer {
  name: "relu2"
  type: "ReLU"
  bottom: "conv2"
  top: "conv2"
}
layer {
  name: "norm2"
  type: "LRN"
  bottom: "conv2"
  top: "norm2"
  lrn_param {
    local_size: 5
    alpha: 0.0001
    beta: 0.75
  }
}
layer {
  name: "pool2"
  type: "Pooling"
  bottom: "norm2"
  top: "pool2"
  pooling_param {
    pool: MAX
    kernel_size: 3
    stride: 2
  }
}
layer {
  name: "conv3"
  type: "Convolution"
  bottom: "pool2"
  top: "conv3"
  param {
    lr_mult: 1
    decay_mult: 1
  }
  param {
    lr_mult: 2
    decay_mult: 0
  }
  convolution_param {
    num_output: 384
    pad: 1
    kernel_size: 3
    weight_filler {
      type: "gaussian"
      std: 0.01
    }
    bias_filler {
      type: "constant"
      value: 0
    }
  }
}
layer {
  name: "relu3"
  type: "ReLU"
  bottom: "conv3"
  top: "conv3"
}
layer {
  name: "conv4"
  type: "Convolution"
  bottom: "conv3"
  top: "conv4"
  param {
    lr_mult: 1
    decay_mult: 1
  }
  param {
    lr_mult: 2
    decay_mult: 0
  }
  convolution_param {
    num_output: 384
    pad: 1
    kernel_size: 3
    group: 2
    weight_filler {
      type: "gaussian"
      std: 0.01
    }
    bias_filler {
      type: "constant"
      value: 0.1
    }
  }
}
layer {
  name: "relu4"
  type: "ReLU"
  bottom: "conv4"
  top: "conv4"
}
layer {
  name: "conv5"
  type: "Convolution"
  bottom: "conv4"
  top: "conv5"
  param {
    lr_mult: 1
    decay_mult: 1
  }
  param {
    lr_mult: 2
    decay_mult: 0
  }
  convolution_param {
    num_output: 256
    pad: 1
    kernel_size: 3
    group: 2
    weight_filler {
      type: "gaussian"
      std: 0.01
    }
    bias_filler {
      type: "constant"
      value: 0.1
    }
  }
}
layer {
  name: "relu5"
  type: "ReLU"
  bottom: "conv5"
  top: "conv5"
}
layer {
  name: "pool5"
  type: "Pooling"
  bottom: "conv5"
  top: "pool5"
  pooling_param {
    pool: MAX
    kernel_size: 3
    stride: 2
  }
}
layer {
  name: "fc6"
  type: "InnerProduct"
  bottom: "pool5"
  top: "fc6"
  param {
    lr_mult: 1
    decay_mult: 1
  }
  param {
    lr_mult: 2
    decay_mult: 0
  }
  inner_product_param {
    num_output: 4096
    weight_filler {
      type: "gaussian"
      std: 0.005
    }
    bias_filler {
      type: "constant"
      value: 0.1
    }
  }
}
layer {
  name: "relu6"
  type: "ReLU"
  bottom: "fc6"
  top: "fc6"
}
layer {
  name: "drop6"
  type: "Dropout"
  bottom: "fc6"
  top: "fc6"
  dropout_param {
    dropout_ratio: 0.5
  }
}
layer {
  name: "fc7"
  type: "InnerProduct"
  bottom: "fc6"
  top: "fc7"
  param {
    lr_mult: 1
    decay_mult: 1
  }
  param {
    lr_mult: 2
    decay_mult: 0
  }
  inner_product_param {
    num_output: 4096
    weight_filler {
      type: "gaussian"
      std: 0.005
    }
    bias_filler {
      type: "constant"
      value: 0.1
    }
  }
}
layer {
  name: "relu7"
  type: "ReLU"
  bottom: "fc7"
  top: "fc7"
}
layer {
  name: "drop7"
  type: "Dropout"
  bottom: "fc7"
  top: "fc7"
  dropout_param {
    dropout_ratio: 0.5
  }
}
layer {
  name: "fc8_plantvillage"
  type: "InnerProduct"
  bottom: "fc7"
  top: "fc8_plantvillage"
  param {
    lr_mult: 1
    decay_mult: 1
  }
  param {
    lr_mult: 2
    decay_mult: 0
  }
  inner_product_param {
    num_output: 38
    weight_filler {
      type: "gaussian"
      std: 0.01
    }
    bias_filler {
      type: "constant"
      value: 0
    }
  }
}
layer {
  name: "prob"
  type: "Softmax"
  bottom: "fc8_plantvillage"
  top: "prob"
  include {
    phase: TEST
  }
}
layer {
  name: "hdf5out"
  type: "HDF5Output"
  bottom: "prob"
  bottom: "label"
  include {
    phase: TEST
  }
  hdf5_output_param {
    file_name: "hdf5_dumps/iter_6525.h5"
  }
}
layer {
  name: "loss"
  type: "SoftmaxWithLoss"
  bottom: "fc8_plantvillage"
  bottom: "label"
  top: "loss"
}
layer {
  name: "accuracy"
  type: "Accuracy"
  bottom: "fc8_plantvillage"
  bottom: "label"
  top: "accuracy"
  include {
    phase: TEST
  }
}
I0403 14:03:28.638223 29050 layer_factory.hpp:77] Creating layer data
I0403 14:03:28.638891 29050 net.cpp:91] Creating Layer data
I0403 14:03:28.638926 29050 net.cpp:399] data -> data
I0403 14:03:28.638978 29050 net.cpp:399] data -> label
I0403 14:03:28.639017 29050 data_transformer.cpp:25] Loading mean file from: /home/mohanty/data/final_dataset/lmdb/color-40-60/mean.binaryproto
I0403 14:03:28.641854 29052 db_lmdb.cpp:38] Opened lmdb /home/mohanty/data/final_dataset/lmdb/color-40-60/test_db
I0403 14:03:28.653524 29050 data_layer.cpp:41] output data size: 100,3,227,227
I0403 14:03:28.789260 29050 net.cpp:141] Setting up data
I0403 14:03:28.789361 29050 net.cpp:148] Top shape: 100 3 227 227 (15458700)
I0403 14:03:28.789384 29050 net.cpp:148] Top shape: 100 (100)
I0403 14:03:28.789402 29050 net.cpp:156] Memory required for data: 61835200
I0403 14:03:28.789432 29050 layer_factory.hpp:77] Creating layer label_data_1_split
I0403 14:03:28.789459 29050 net.cpp:91] Creating Layer label_data_1_split
I0403 14:03:28.789479 29050 net.cpp:425] label_data_1_split <- label
I0403 14:03:28.789520 29050 net.cpp:399] label_data_1_split -> label_data_1_split_0
I0403 14:03:28.789549 29050 net.cpp:399] label_data_1_split -> label_data_1_split_1
I0403 14:03:28.789571 29050 net.cpp:399] label_data_1_split -> label_data_1_split_2
I0403 14:03:28.789638 29050 net.cpp:141] Setting up label_data_1_split
I0403 14:03:28.789664 29050 net.cpp:148] Top shape: 100 (100)
I0403 14:03:28.789682 29050 net.cpp:148] Top shape: 100 (100)
I0403 14:03:28.789700 29050 net.cpp:148] Top shape: 100 (100)
I0403 14:03:28.789716 29050 net.cpp:156] Memory required for data: 61836400
I0403 14:03:28.789731 29050 layer_factory.hpp:77] Creating layer conv1
I0403 14:03:28.789767 29050 net.cpp:91] Creating Layer conv1
I0403 14:03:28.789786 29050 net.cpp:425] conv1 <- data
I0403 14:03:28.789818 29050 net.cpp:399] conv1 -> conv1
I0403 14:03:28.940948 29050 net.cpp:141] Setting up conv1
I0403 14:03:28.941022 29050 net.cpp:148] Top shape: 100 96 55 55 (29040000)
I0403 14:03:28.941041 29050 net.cpp:156] Memory required for data: 177996400
I0403 14:03:28.941074 29050 layer_factory.hpp:77] Creating layer relu1
I0403 14:03:28.941104 29050 net.cpp:91] Creating Layer relu1
I0403 14:03:28.941123 29050 net.cpp:425] relu1 <- conv1
I0403 14:03:28.941144 29050 net.cpp:386] relu1 -> conv1 (in-place)
I0403 14:03:28.941411 29050 net.cpp:141] Setting up relu1
I0403 14:03:28.941442 29050 net.cpp:148] Top shape: 100 96 55 55 (29040000)
I0403 14:03:28.941458 29050 net.cpp:156] Memory required for data: 294156400
I0403 14:03:28.941509 29050 layer_factory.hpp:77] Creating layer norm1
I0403 14:03:28.941539 29050 net.cpp:91] Creating Layer norm1
I0403 14:03:28.941557 29050 net.cpp:425] norm1 <- conv1
I0403 14:03:28.941576 29050 net.cpp:399] norm1 -> norm1
I0403 14:03:28.941893 29050 net.cpp:141] Setting up norm1
I0403 14:03:28.941926 29050 net.cpp:148] Top shape: 100 96 55 55 (29040000)
I0403 14:03:28.941943 29050 net.cpp:156] Memory required for data: 410316400
I0403 14:03:28.941959 29050 layer_factory.hpp:77] Creating layer pool1
I0403 14:03:28.941984 29050 net.cpp:91] Creating Layer pool1
I0403 14:03:28.942001 29050 net.cpp:425] pool1 <- norm1
I0403 14:03:28.942021 29050 net.cpp:399] pool1 -> pool1
I0403 14:03:28.942091 29050 net.cpp:141] Setting up pool1
I0403 14:03:28.942117 29050 net.cpp:148] Top shape: 100 96 27 27 (6998400)
I0403 14:03:28.942133 29050 net.cpp:156] Memory required for data: 438310000
I0403 14:03:28.942149 29050 layer_factory.hpp:77] Creating layer conv2
I0403 14:03:28.942175 29050 net.cpp:91] Creating Layer conv2
I0403 14:03:28.942193 29050 net.cpp:425] conv2 <- pool1
I0403 14:03:28.942211 29050 net.cpp:399] conv2 -> conv2
I0403 14:03:28.957581 29050 net.cpp:141] Setting up conv2
I0403 14:03:28.957629 29050 net.cpp:148] Top shape: 100 256 27 27 (18662400)
I0403 14:03:28.957648 29050 net.cpp:156] Memory required for data: 512959600
I0403 14:03:28.957671 29050 layer_factory.hpp:77] Creating layer relu2
I0403 14:03:28.957693 29050 net.cpp:91] Creating Layer relu2
I0403 14:03:28.957711 29050 net.cpp:425] relu2 <- conv2
I0403 14:03:28.957731 29050 net.cpp:386] relu2 -> conv2 (in-place)
I0403 14:03:28.958010 29050 net.cpp:141] Setting up relu2
I0403 14:03:28.958039 29050 net.cpp:148] Top shape: 100 256 27 27 (18662400)
I0403 14:03:28.958056 29050 net.cpp:156] Memory required for data: 587609200
I0403 14:03:28.958072 29050 layer_factory.hpp:77] Creating layer norm2
I0403 14:03:28.958096 29050 net.cpp:91] Creating Layer norm2
I0403 14:03:28.958118 29050 net.cpp:425] norm2 <- conv2
I0403 14:03:28.958140 29050 net.cpp:399] norm2 -> norm2
I0403 14:03:28.958343 29050 net.cpp:141] Setting up norm2
I0403 14:03:28.958374 29050 net.cpp:148] Top shape: 100 256 27 27 (18662400)
I0403 14:03:28.958391 29050 net.cpp:156] Memory required for data: 662258800
I0403 14:03:28.958407 29050 layer_factory.hpp:77] Creating layer pool2
I0403 14:03:28.958427 29050 net.cpp:91] Creating Layer pool2
I0403 14:03:28.958444 29050 net.cpp:425] pool2 <- norm2
I0403 14:03:28.958464 29050 net.cpp:399] pool2 -> pool2
I0403 14:03:28.958516 29050 net.cpp:141] Setting up pool2
I0403 14:03:28.958540 29050 net.cpp:148] Top shape: 100 256 13 13 (4326400)
I0403 14:03:28.958556 29050 net.cpp:156] Memory required for data: 679564400
I0403 14:03:28.958572 29050 layer_factory.hpp:77] Creating layer conv3
I0403 14:03:28.958595 29050 net.cpp:91] Creating Layer conv3
I0403 14:03:28.958612 29050 net.cpp:425] conv3 <- pool2
I0403 14:03:28.958633 29050 net.cpp:399] conv3 -> conv3
I0403 14:03:29.007702 29050 net.cpp:141] Setting up conv3
I0403 14:03:29.007781 29050 net.cpp:148] Top shape: 100 384 13 13 (6489600)
I0403 14:03:29.007799 29050 net.cpp:156] Memory required for data: 705522800
I0403 14:03:29.007827 29050 layer_factory.hpp:77] Creating layer relu3
I0403 14:03:29.007853 29050 net.cpp:91] Creating Layer relu3
I0403 14:03:29.007872 29050 net.cpp:425] relu3 <- conv3
I0403 14:03:29.007894 29050 net.cpp:386] relu3 -> conv3 (in-place)
I0403 14:03:29.008170 29050 net.cpp:141] Setting up relu3
I0403 14:03:29.008199 29050 net.cpp:148] Top shape: 100 384 13 13 (6489600)
I0403 14:03:29.008216 29050 net.cpp:156] Memory required for data: 731481200
I0403 14:03:29.008232 29050 layer_factory.hpp:77] Creating layer conv4
I0403 14:03:29.008260 29050 net.cpp:91] Creating Layer conv4
I0403 14:03:29.008277 29050 net.cpp:425] conv4 <- conv3
I0403 14:03:29.008304 29050 net.cpp:399] conv4 -> conv4
I0403 14:03:29.039011 29050 net.cpp:141] Setting up conv4
I0403 14:03:29.039072 29050 net.cpp:148] Top shape: 100 384 13 13 (6489600)
I0403 14:03:29.039122 29050 net.cpp:156] Memory required for data: 757439600
I0403 14:03:29.039146 29050 layer_factory.hpp:77] Creating layer relu4
I0403 14:03:29.039170 29050 net.cpp:91] Creating Layer relu4
I0403 14:03:29.039189 29050 net.cpp:425] relu4 <- conv4
I0403 14:03:29.039212 29050 net.cpp:386] relu4 -> conv4 (in-place)
I0403 14:03:29.039506 29050 net.cpp:141] Setting up relu4
I0403 14:03:29.039535 29050 net.cpp:148] Top shape: 100 384 13 13 (6489600)
I0403 14:03:29.039552 29050 net.cpp:156] Memory required for data: 783398000
I0403 14:03:29.039569 29050 layer_factory.hpp:77] Creating layer conv5
I0403 14:03:29.039597 29050 net.cpp:91] Creating Layer conv5
I0403 14:03:29.039618 29050 net.cpp:425] conv5 <- conv4
I0403 14:03:29.039641 29050 net.cpp:399] conv5 -> conv5
I0403 14:03:29.060817 29050 net.cpp:141] Setting up conv5
I0403 14:03:29.060870 29050 net.cpp:148] Top shape: 100 256 13 13 (4326400)
I0403 14:03:29.060889 29050 net.cpp:156] Memory required for data: 800703600
I0403 14:03:29.060915 29050 layer_factory.hpp:77] Creating layer relu5
I0403 14:03:29.060940 29050 net.cpp:91] Creating Layer relu5
I0403 14:03:29.060959 29050 net.cpp:425] relu5 <- conv5
I0403 14:03:29.060979 29050 net.cpp:386] relu5 -> conv5 (in-place)
I0403 14:03:29.061270 29050 net.cpp:141] Setting up relu5
I0403 14:03:29.061303 29050 net.cpp:148] Top shape: 100 256 13 13 (4326400)
I0403 14:03:29.061321 29050 net.cpp:156] Memory required for data: 818009200
I0403 14:03:29.061337 29050 layer_factory.hpp:77] Creating layer pool5
I0403 14:03:29.061367 29050 net.cpp:91] Creating Layer pool5
I0403 14:03:29.061384 29050 net.cpp:425] pool5 <- conv5
I0403 14:03:29.061405 29050 net.cpp:399] pool5 -> pool5
I0403 14:03:29.061470 29050 net.cpp:141] Setting up pool5
I0403 14:03:29.061496 29050 net.cpp:148] Top shape: 100 256 6 6 (921600)
I0403 14:03:29.061511 29050 net.cpp:156] Memory required for data: 821695600
I0403 14:03:29.061528 29050 layer_factory.hpp:77] Creating layer fc6
I0403 14:03:29.061555 29050 net.cpp:91] Creating Layer fc6
I0403 14:03:29.061574 29050 net.cpp:425] fc6 <- pool5
I0403 14:03:29.061596 29050 net.cpp:399] fc6 -> fc6
I0403 14:03:30.632493 29050 net.cpp:141] Setting up fc6
I0403 14:03:30.632570 29050 net.cpp:148] Top shape: 100 4096 (409600)
I0403 14:03:30.632587 29050 net.cpp:156] Memory required for data: 823334000
I0403 14:03:30.632609 29050 layer_factory.hpp:77] Creating layer relu6
I0403 14:03:30.632634 29050 net.cpp:91] Creating Layer relu6
I0403 14:03:30.632653 29050 net.cpp:425] relu6 <- fc6
I0403 14:03:30.632674 29050 net.cpp:386] relu6 -> fc6 (in-place)
I0403 14:03:30.632901 29050 net.cpp:141] Setting up relu6
I0403 14:03:30.632927 29050 net.cpp:148] Top shape: 100 4096 (409600)
I0403 14:03:30.632942 29050 net.cpp:156] Memory required for data: 824972400
I0403 14:03:30.632958 29050 layer_factory.hpp:77] Creating layer drop6
I0403 14:03:30.632977 29050 net.cpp:91] Creating Layer drop6
I0403 14:03:30.632992 29050 net.cpp:425] drop6 <- fc6
I0403 14:03:30.633015 29050 net.cpp:386] drop6 -> fc6 (in-place)
I0403 14:03:30.633067 29050 net.cpp:141] Setting up drop6
I0403 14:03:30.633095 29050 net.cpp:148] Top shape: 100 4096 (409600)
I0403 14:03:30.633111 29050 net.cpp:156] Memory required for data: 826610800
I0403 14:03:30.633126 29050 layer_factory.hpp:77] Creating layer fc7
I0403 14:03:30.633147 29050 net.cpp:91] Creating Layer fc7
I0403 14:03:30.633163 29050 net.cpp:425] fc7 <- fc6
I0403 14:03:30.633184 29050 net.cpp:399] fc7 -> fc7
I0403 14:03:31.326334 29050 net.cpp:141] Setting up fc7
I0403 14:03:31.326411 29050 net.cpp:148] Top shape: 100 4096 (409600)
I0403 14:03:31.326428 29050 net.cpp:156] Memory required for data: 828249200
I0403 14:03:31.326449 29050 layer_factory.hpp:77] Creating layer relu7
I0403 14:03:31.326473 29050 net.cpp:91] Creating Layer relu7
I0403 14:03:31.326491 29050 net.cpp:425] relu7 <- fc7
I0403 14:03:31.326514 29050 net.cpp:386] relu7 -> fc7 (in-place)
I0403 14:03:31.326915 29050 net.cpp:141] Setting up relu7
I0403 14:03:31.326942 29050 net.cpp:148] Top shape: 100 4096 (409600)
I0403 14:03:31.327008 29050 net.cpp:156] Memory required for data: 829887600
I0403 14:03:31.327024 29050 layer_factory.hpp:77] Creating layer drop7
I0403 14:03:31.327045 29050 net.cpp:91] Creating Layer drop7
I0403 14:03:31.327061 29050 net.cpp:425] drop7 <- fc7
I0403 14:03:31.327082 29050 net.cpp:386] drop7 -> fc7 (in-place)
I0403 14:03:31.327127 29050 net.cpp:141] Setting up drop7
I0403 14:03:31.327158 29050 net.cpp:148] Top shape: 100 4096 (409600)
I0403 14:03:31.327174 29050 net.cpp:156] Memory required for data: 831526000
I0403 14:03:31.327191 29050 layer_factory.hpp:77] Creating layer fc8_plantvillage
I0403 14:03:31.327213 29050 net.cpp:91] Creating Layer fc8_plantvillage
I0403 14:03:31.327229 29050 net.cpp:425] fc8_plantvillage <- fc7
I0403 14:03:31.327250 29050 net.cpp:399] fc8_plantvillage -> fc8_plantvillage
I0403 14:03:31.334177 29050 net.cpp:141] Setting up fc8_plantvillage
I0403 14:03:31.334208 29050 net.cpp:148] Top shape: 100 38 (3800)
I0403 14:03:31.334223 29050 net.cpp:156] Memory required for data: 831541200
I0403 14:03:31.334242 29050 layer_factory.hpp:77] Creating layer fc8_plantvillage_fc8_plantvillage_0_split
I0403 14:03:31.334264 29050 net.cpp:91] Creating Layer fc8_plantvillage_fc8_plantvillage_0_split
I0403 14:03:31.334281 29050 net.cpp:425] fc8_plantvillage_fc8_plantvillage_0_split <- fc8_plantvillage
I0403 14:03:31.334306 29050 net.cpp:399] fc8_plantvillage_fc8_plantvillage_0_split -> fc8_plantvillage_fc8_plantvillage_0_split_0
I0403 14:03:31.334327 29050 net.cpp:399] fc8_plantvillage_fc8_plantvillage_0_split -> fc8_plantvillage_fc8_plantvillage_0_split_1
I0403 14:03:31.334347 29050 net.cpp:399] fc8_plantvillage_fc8_plantvillage_0_split -> fc8_plantvillage_fc8_plantvillage_0_split_2
I0403 14:03:31.334427 29050 net.cpp:141] Setting up fc8_plantvillage_fc8_plantvillage_0_split
I0403 14:03:31.334452 29050 net.cpp:148] Top shape: 100 38 (3800)
I0403 14:03:31.334470 29050 net.cpp:148] Top shape: 100 38 (3800)
I0403 14:03:31.334486 29050 net.cpp:148] Top shape: 100 38 (3800)
I0403 14:03:31.334501 29050 net.cpp:156] Memory required for data: 831586800
I0403 14:03:31.334516 29050 layer_factory.hpp:77] Creating layer prob
I0403 14:03:31.334535 29050 net.cpp:91] Creating Layer prob
I0403 14:03:31.334552 29050 net.cpp:425] prob <- fc8_plantvillage_fc8_plantvillage_0_split_0
I0403 14:03:31.334569 29050 net.cpp:399] prob -> prob
I0403 14:03:31.334792 29050 net.cpp:141] Setting up prob
I0403 14:03:31.334818 29050 net.cpp:148] Top shape: 100 38 (3800)
I0403 14:03:31.334833 29050 net.cpp:156] Memory required for data: 831602000
I0403 14:03:31.334848 29050 layer_factory.hpp:77] Creating layer hdf5out
I0403 14:03:31.334868 29050 net.cpp:91] Creating Layer hdf5out
I0403 14:03:31.334884 29050 net.cpp:425] hdf5out <- prob
I0403 14:03:31.334902 29050 net.cpp:425] hdf5out <- label_data_1_split_0
I0403 14:03:31.338775 29050 net.cpp:141] Setting up hdf5out
…
