…
I0403 14:02:21.218271 29033 net.cpp:313] The NetState phase (1) differed from the phase (0) specified by a rule in layer data
I0403 14:02:21.218610 29033 net.cpp:49] Initializing net from parameters: 
state {
  phase: TEST
}
layer {
  name: "data"
  type: "Data"
  top: "data"
  top: "label"
  include {
    phase: TEST
  }
  transform_param {
    crop_size: 227
    mean_file: "/home/mohanty/data/final_dataset/lmdb/color-40-60/mean.binaryproto"
  }
  data_param {
    source: "/home/mohanty/data/final_dataset/lmdb/color-40-60/test_db"
    batch_size: 100
    backend: LMDB
  }
}
layer {
  name: "conv1"
  type: "Convolution"
  bottom: "data"
  top: "conv1"
  param {
    lr_mult: 1
    decay_mult: 1
  }
  param {
    lr_mult: 2
    decay_mult: 0
  }
  convolution_param {
    num_output: 96
    kernel_size: 11
    stride: 4
    weight_filler {
      type: "gaussian"
      std: 0.01
    }
    bias_filler {
      type: "constant"
      value: 0
    }
  }
}
layer {
  name: "relu1"
  type: "ReLU"
  bottom: "conv1"
  top: "conv1"
}
layer {
  name: "norm1"
  type: "LRN"
  bottom: "conv1"
  top: "norm1"
  lrn_param {
    local_size: 5
    alpha: 0.0001
    beta: 0.75
  }
}
layer {
  name: "pool1"
  type: "Pooling"
  bottom: "norm1"
  top: "pool1"
  pooling_param {
    pool: MAX
    kernel_size: 3
    stride: 2
  }
}
layer {
  name: "conv2"
  type: "Convolution"
  bottom: "pool1"
  top: "conv2"
  param {
    lr_mult: 1
    decay_mult: 1
  }
  param {
    lr_mult: 2
    decay_mult: 0
  }
  convolution_param {
    num_output: 256
    pad: 2
    kernel_size: 5
    group: 2
    weight_filler {
      type: "gaussian"
      std: 0.01
    }
    bias_filler {
      type: "constant"
      value: 0.1
    }
  }
}
layer {
  name: "relu2"
  type: "ReLU"
  bottom: "conv2"
  top: "conv2"
}
layer {
  name: "norm2"
  type: "LRN"
  bottom: "conv2"
  top: "norm2"
  lrn_param {
    local_size: 5
    alpha: 0.0001
    beta: 0.75
  }
}
layer {
  name: "pool2"
  type: "Pooling"
  bottom: "norm2"
  top: "pool2"
  pooling_param {
    pool: MAX
    kernel_size: 3
    stride: 2
  }
}
layer {
  name: "conv3"
  type: "Convolution"
  bottom: "pool2"
  top: "conv3"
  param {
    lr_mult: 1
    decay_mult: 1
  }
  param {
    lr_mult: 2
    decay_mult: 0
  }
  convolution_param {
    num_output: 384
    pad: 1
    kernel_size: 3
    weight_filler {
      type: "gaussian"
      std: 0.01
    }
    bias_filler {
      type: "constant"
      value: 0
    }
  }
}
layer {
  name: "relu3"
  type: "ReLU"
  bottom: "conv3"
  top: "conv3"
}
layer {
  name: "conv4"
  type: "Convolution"
  bottom: "conv3"
  top: "conv4"
  param {
    lr_mult: 1
    decay_mult: 1
  }
  param {
    lr_mult: 2
    decay_mult: 0
  }
  convolution_param {
    num_output: 384
    pad: 1
    kernel_size: 3
    group: 2
    weight_filler {
      type: "gaussian"
      std: 0.01
    }
    bias_filler {
      type: "constant"
      value: 0.1
    }
  }
}
layer {
  name: "relu4"
  type: "ReLU"
  bottom: "conv4"
  top: "conv4"
}
layer {
  name: "conv5"
  type: "Convolution"
  bottom: "conv4"
  top: "conv5"
  param {
    lr_mult: 1
    decay_mult: 1
  }
  param {
    lr_mult: 2
    decay_mult: 0
  }
  convolution_param {
    num_output: 256
    pad: 1
    kernel_size: 3
    group: 2
    weight_filler {
      type: "gaussian"
      std: 0.01
    }
    bias_filler {
      type: "constant"
      value: 0.1
    }
  }
}
layer {
  name: "relu5"
  type: "ReLU"
  bottom: "conv5"
  top: "conv5"
}
layer {
  name: "pool5"
  type: "Pooling"
  bottom: "conv5"
  top: "pool5"
  pooling_param {
    pool: MAX
    kernel_size: 3
    stride: 2
  }
}
layer {
  name: "fc6"
  type: "InnerProduct"
  bottom: "pool5"
  top: "fc6"
  param {
    lr_mult: 1
    decay_mult: 1
  }
  param {
    lr_mult: 2
    decay_mult: 0
  }
  inner_product_param {
    num_output: 4096
    weight_filler {
      type: "gaussian"
      std: 0.005
    }
    bias_filler {
      type: "constant"
      value: 0.1
    }
  }
}
layer {
  name: "relu6"
  type: "ReLU"
  bottom: "fc6"
  top: "fc6"
}
layer {
  name: "drop6"
  type: "Dropout"
  bottom: "fc6"
  top: "fc6"
  dropout_param {
    dropout_ratio: 0.5
  }
}
layer {
  name: "fc7"
  type: "InnerProduct"
  bottom: "fc6"
  top: "fc7"
  param {
    lr_mult: 1
    decay_mult: 1
  }
  param {
    lr_mult: 2
    decay_mult: 0
  }
  inner_product_param {
    num_output: 4096
    weight_filler {
      type: "gaussian"
      std: 0.005
    }
    bias_filler {
      type: "constant"
      value: 0.1
    }
  }
}
layer {
  name: "relu7"
  type: "ReLU"
  bottom: "fc7"
  top: "fc7"
}
layer {
  name: "drop7"
  type: "Dropout"
  bottom: "fc7"
  top: "fc7"
  dropout_param {
    dropout_ratio: 0.5
  }
}
layer {
  name: "fc8_plantvillage"
  type: "InnerProduct"
  bottom: "fc7"
  top: "fc8_plantvillage"
  param {
    lr_mult: 1
    decay_mult: 1
  }
  param {
    lr_mult: 2
    decay_mult: 0
  }
  inner_product_param {
    num_output: 38
    weight_filler {
      type: "gaussian"
      std: 0.01
    }
    bias_filler {
      type: "constant"
      value: 0
    }
  }
}
layer {
  name: "prob"
  type: "Softmax"
  bottom: "fc8_plantvillage"
  top: "prob"
  include {
    phase: TEST
  }
}
layer {
  name: "hdf5out"
  type: "HDF5Output"
  bottom: "prob"
  bottom: "label"
  include {
    phase: TEST
  }
  hdf5_output_param {
    file_name: "hdf5_dumps/iter_6510.h5"
  }
}
layer {
  name: "loss"
  type: "SoftmaxWithLoss"
  bottom: "fc8_plantvillage"
  bottom: "label"
  top: "loss"
}
layer {
  name: "accuracy"
  type: "Accuracy"
  bottom: "fc8_plantvillage"
  bottom: "label"
  top: "accuracy"
  include {
    phase: TEST
  }
}
I0403 14:02:21.219235 29033 layer_factory.hpp:77] Creating layer data
I0403 14:02:21.219918 29033 net.cpp:91] Creating Layer data
I0403 14:02:21.219950 29033 net.cpp:399] data -> data
I0403 14:02:21.220016 29033 net.cpp:399] data -> label
I0403 14:02:21.220054 29033 data_transformer.cpp:25] Loading mean file from: /home/mohanty/data/final_dataset/lmdb/color-40-60/mean.binaryproto
I0403 14:02:21.223273 29036 db_lmdb.cpp:38] Opened lmdb /home/mohanty/data/final_dataset/lmdb/color-40-60/test_db
I0403 14:02:21.234462 29033 data_layer.cpp:41] output data size: 100,3,227,227
I0403 14:02:21.368553 29033 net.cpp:141] Setting up data
I0403 14:02:21.368619 29033 net.cpp:148] Top shape: 100 3 227 227 (15458700)
I0403 14:02:21.368644 29033 net.cpp:148] Top shape: 100 (100)
I0403 14:02:21.368659 29033 net.cpp:156] Memory required for data: 61835200
I0403 14:02:21.368687 29033 layer_factory.hpp:77] Creating layer label_data_1_split
I0403 14:02:21.368713 29033 net.cpp:91] Creating Layer label_data_1_split
I0403 14:02:21.368732 29033 net.cpp:425] label_data_1_split <- label
I0403 14:02:21.368765 29033 net.cpp:399] label_data_1_split -> label_data_1_split_0
I0403 14:02:21.368793 29033 net.cpp:399] label_data_1_split -> label_data_1_split_1
I0403 14:02:21.368815 29033 net.cpp:399] label_data_1_split -> label_data_1_split_2
I0403 14:02:21.368881 29033 net.cpp:141] Setting up label_data_1_split
I0403 14:02:21.368906 29033 net.cpp:148] Top shape: 100 (100)
I0403 14:02:21.368923 29033 net.cpp:148] Top shape: 100 (100)
I0403 14:02:21.368939 29033 net.cpp:148] Top shape: 100 (100)
I0403 14:02:21.368954 29033 net.cpp:156] Memory required for data: 61836400
I0403 14:02:21.368970 29033 layer_factory.hpp:77] Creating layer conv1
I0403 14:02:21.369004 29033 net.cpp:91] Creating Layer conv1
I0403 14:02:21.369022 29033 net.cpp:425] conv1 <- data
I0403 14:02:21.369045 29033 net.cpp:399] conv1 -> conv1
I0403 14:02:21.519939 29033 net.cpp:141] Setting up conv1
I0403 14:02:21.519987 29033 net.cpp:148] Top shape: 100 96 55 55 (29040000)
I0403 14:02:21.520007 29033 net.cpp:156] Memory required for data: 177996400
I0403 14:02:21.520041 29033 layer_factory.hpp:77] Creating layer relu1
I0403 14:02:21.520071 29033 net.cpp:91] Creating Layer relu1
I0403 14:02:21.520090 29033 net.cpp:425] relu1 <- conv1
I0403 14:02:21.520112 29033 net.cpp:386] relu1 -> conv1 (in-place)
I0403 14:02:21.520386 29033 net.cpp:141] Setting up relu1
I0403 14:02:21.520416 29033 net.cpp:148] Top shape: 100 96 55 55 (29040000)
I0403 14:02:21.520434 29033 net.cpp:156] Memory required for data: 294156400
I0403 14:02:21.520486 29033 layer_factory.hpp:77] Creating layer norm1
I0403 14:02:21.520515 29033 net.cpp:91] Creating Layer norm1
I0403 14:02:21.520535 29033 net.cpp:425] norm1 <- conv1
I0403 14:02:21.520555 29033 net.cpp:399] norm1 -> norm1
I0403 14:02:21.520879 29033 net.cpp:141] Setting up norm1
I0403 14:02:21.520908 29033 net.cpp:148] Top shape: 100 96 55 55 (29040000)
I0403 14:02:21.520927 29033 net.cpp:156] Memory required for data: 410316400
I0403 14:02:21.520944 29033 layer_factory.hpp:77] Creating layer pool1
I0403 14:02:21.520970 29033 net.cpp:91] Creating Layer pool1
I0403 14:02:21.520989 29033 net.cpp:425] pool1 <- norm1
I0403 14:02:21.521009 29033 net.cpp:399] pool1 -> pool1
I0403 14:02:21.521080 29033 net.cpp:141] Setting up pool1
I0403 14:02:21.521106 29033 net.cpp:148] Top shape: 100 96 27 27 (6998400)
I0403 14:02:21.521123 29033 net.cpp:156] Memory required for data: 438310000
I0403 14:02:21.521139 29033 layer_factory.hpp:77] Creating layer conv2
I0403 14:02:21.521165 29033 net.cpp:91] Creating Layer conv2
I0403 14:02:21.521183 29033 net.cpp:425] conv2 <- pool1
I0403 14:02:21.521203 29033 net.cpp:399] conv2 -> conv2
I0403 14:02:21.537835 29033 net.cpp:141] Setting up conv2
I0403 14:02:21.537886 29033 net.cpp:148] Top shape: 100 256 27 27 (18662400)
I0403 14:02:21.537905 29033 net.cpp:156] Memory required for data: 512959600
I0403 14:02:21.537930 29033 layer_factory.hpp:77] Creating layer relu2
I0403 14:02:21.537951 29033 net.cpp:91] Creating Layer relu2
I0403 14:02:21.537969 29033 net.cpp:425] relu2 <- conv2
I0403 14:02:21.537988 29033 net.cpp:386] relu2 -> conv2 (in-place)
I0403 14:02:21.538280 29033 net.cpp:141] Setting up relu2
I0403 14:02:21.538312 29033 net.cpp:148] Top shape: 100 256 27 27 (18662400)
I0403 14:02:21.538329 29033 net.cpp:156] Memory required for data: 587609200
I0403 14:02:21.538349 29033 layer_factory.hpp:77] Creating layer norm2
I0403 14:02:21.538373 29033 net.cpp:91] Creating Layer norm2
I0403 14:02:21.538390 29033 net.cpp:425] norm2 <- conv2
I0403 14:02:21.538409 29033 net.cpp:399] norm2 -> norm2
I0403 14:02:21.538602 29033 net.cpp:141] Setting up norm2
I0403 14:02:21.538630 29033 net.cpp:148] Top shape: 100 256 27 27 (18662400)
I0403 14:02:21.538647 29033 net.cpp:156] Memory required for data: 662258800
I0403 14:02:21.538663 29033 layer_factory.hpp:77] Creating layer pool2
I0403 14:02:21.538683 29033 net.cpp:91] Creating Layer pool2
I0403 14:02:21.538700 29033 net.cpp:425] pool2 <- norm2
I0403 14:02:21.538719 29033 net.cpp:399] pool2 -> pool2
I0403 14:02:21.538774 29033 net.cpp:141] Setting up pool2
I0403 14:02:21.538799 29033 net.cpp:148] Top shape: 100 256 13 13 (4326400)
I0403 14:02:21.538815 29033 net.cpp:156] Memory required for data: 679564400
I0403 14:02:21.538831 29033 layer_factory.hpp:77] Creating layer conv3
I0403 14:02:21.538854 29033 net.cpp:91] Creating Layer conv3
I0403 14:02:21.538872 29033 net.cpp:425] conv3 <- pool2
I0403 14:02:21.538890 29033 net.cpp:399] conv3 -> conv3
I0403 14:02:21.578649 29033 net.cpp:141] Setting up conv3
I0403 14:02:21.578725 29033 net.cpp:148] Top shape: 100 384 13 13 (6489600)
I0403 14:02:21.578745 29033 net.cpp:156] Memory required for data: 705522800
I0403 14:02:21.578773 29033 layer_factory.hpp:77] Creating layer relu3
I0403 14:02:21.578797 29033 net.cpp:91] Creating Layer relu3
I0403 14:02:21.578815 29033 net.cpp:425] relu3 <- conv3
I0403 14:02:21.578836 29033 net.cpp:386] relu3 -> conv3 (in-place)
I0403 14:02:21.579119 29033 net.cpp:141] Setting up relu3
I0403 14:02:21.579149 29033 net.cpp:148] Top shape: 100 384 13 13 (6489600)
I0403 14:02:21.579166 29033 net.cpp:156] Memory required for data: 731481200
I0403 14:02:21.579183 29033 layer_factory.hpp:77] Creating layer conv4
I0403 14:02:21.579211 29033 net.cpp:91] Creating Layer conv4
I0403 14:02:21.579231 29033 net.cpp:425] conv4 <- conv3
I0403 14:02:21.579258 29033 net.cpp:399] conv4 -> conv4
I0403 14:02:21.619477 29033 net.cpp:141] Setting up conv4
I0403 14:02:21.619551 29033 net.cpp:148] Top shape: 100 384 13 13 (6489600)
I0403 14:02:21.619603 29033 net.cpp:156] Memory required for data: 757439600
I0403 14:02:21.619627 29033 layer_factory.hpp:77] Creating layer relu4
I0403 14:02:21.619650 29033 net.cpp:91] Creating Layer relu4
I0403 14:02:21.619669 29033 net.cpp:425] relu4 <- conv4
I0403 14:02:21.619694 29033 net.cpp:386] relu4 -> conv4 (in-place)
I0403 14:02:21.619998 29033 net.cpp:141] Setting up relu4
I0403 14:02:21.620028 29033 net.cpp:148] Top shape: 100 384 13 13 (6489600)
I0403 14:02:21.620044 29033 net.cpp:156] Memory required for data: 783398000
I0403 14:02:21.620060 29033 layer_factory.hpp:77] Creating layer conv5
I0403 14:02:21.620088 29033 net.cpp:91] Creating Layer conv5
I0403 14:02:21.620106 29033 net.cpp:425] conv5 <- conv4
I0403 14:02:21.620129 29033 net.cpp:399] conv5 -> conv5
I0403 14:02:21.641307 29033 net.cpp:141] Setting up conv5
I0403 14:02:21.641361 29033 net.cpp:148] Top shape: 100 256 13 13 (4326400)
I0403 14:02:21.641379 29033 net.cpp:156] Memory required for data: 800703600
I0403 14:02:21.641405 29033 layer_factory.hpp:77] Creating layer relu5
I0403 14:02:21.641432 29033 net.cpp:91] Creating Layer relu5
I0403 14:02:21.641451 29033 net.cpp:425] relu5 <- conv5
I0403 14:02:21.641471 29033 net.cpp:386] relu5 -> conv5 (in-place)
I0403 14:02:21.641769 29033 net.cpp:141] Setting up relu5
I0403 14:02:21.641798 29033 net.cpp:148] Top shape: 100 256 13 13 (4326400)
I0403 14:02:21.641814 29033 net.cpp:156] Memory required for data: 818009200
I0403 14:02:21.641830 29033 layer_factory.hpp:77] Creating layer pool5
I0403 14:02:21.641856 29033 net.cpp:91] Creating Layer pool5
I0403 14:02:21.641875 29033 net.cpp:425] pool5 <- conv5
I0403 14:02:21.641894 29033 net.cpp:399] pool5 -> pool5
I0403 14:02:21.641960 29033 net.cpp:141] Setting up pool5
I0403 14:02:21.641985 29033 net.cpp:148] Top shape: 100 256 6 6 (921600)
I0403 14:02:21.642001 29033 net.cpp:156] Memory required for data: 821695600
I0403 14:02:21.642017 29033 layer_factory.hpp:77] Creating layer fc6
I0403 14:02:21.642047 29033 net.cpp:91] Creating Layer fc6
I0403 14:02:21.642066 29033 net.cpp:425] fc6 <- pool5
I0403 14:02:21.642086 29033 net.cpp:399] fc6 -> fc6
I0403 14:02:23.211406 29033 net.cpp:141] Setting up fc6
I0403 14:02:23.211478 29033 net.cpp:148] Top shape: 100 4096 (409600)
I0403 14:02:23.211494 29033 net.cpp:156] Memory required for data: 823334000
I0403 14:02:23.211516 29033 layer_factory.hpp:77] Creating layer relu6
I0403 14:02:23.211539 29033 net.cpp:91] Creating Layer relu6
I0403 14:02:23.211558 29033 net.cpp:425] relu6 <- fc6
I0403 14:02:23.211580 29033 net.cpp:386] relu6 -> fc6 (in-place)
I0403 14:02:23.211814 29033 net.cpp:141] Setting up relu6
I0403 14:02:23.211840 29033 net.cpp:148] Top shape: 100 4096 (409600)
I0403 14:02:23.211855 29033 net.cpp:156] Memory required for data: 824972400
I0403 14:02:23.211870 29033 layer_factory.hpp:77] Creating layer drop6
I0403 14:02:23.211892 29033 net.cpp:91] Creating Layer drop6
I0403 14:02:23.211910 29033 net.cpp:425] drop6 <- fc6
I0403 14:02:23.211926 29033 net.cpp:386] drop6 -> fc6 (in-place)
I0403 14:02:23.211978 29033 net.cpp:141] Setting up drop6
I0403 14:02:23.212002 29033 net.cpp:148] Top shape: 100 4096 (409600)
I0403 14:02:23.212018 29033 net.cpp:156] Memory required for data: 826610800
I0403 14:02:23.212033 29033 layer_factory.hpp:77] Creating layer fc7
I0403 14:02:23.212052 29033 net.cpp:91] Creating Layer fc7
I0403 14:02:23.212069 29033 net.cpp:425] fc7 <- fc6
I0403 14:02:23.212087 29033 net.cpp:399] fc7 -> fc7
I0403 14:02:23.898319 29033 net.cpp:141] Setting up fc7
I0403 14:02:23.898372 29033 net.cpp:148] Top shape: 100 4096 (409600)
I0403 14:02:23.898391 29033 net.cpp:156] Memory required for data: 828249200
I0403 14:02:23.898413 29033 layer_factory.hpp:77] Creating layer relu7
I0403 14:02:23.898439 29033 net.cpp:91] Creating Layer relu7
I0403 14:02:23.898458 29033 net.cpp:425] relu7 <- fc7
I0403 14:02:23.898478 29033 net.cpp:386] relu7 -> fc7 (in-place)
I0403 14:02:23.898886 29033 net.cpp:141] Setting up relu7
I0403 14:02:23.898913 29033 net.cpp:148] Top shape: 100 4096 (409600)
I0403 14:02:23.898962 29033 net.cpp:156] Memory required for data: 829887600
I0403 14:02:23.898978 29033 layer_factory.hpp:77] Creating layer drop7
I0403 14:02:23.898998 29033 net.cpp:91] Creating Layer drop7
I0403 14:02:23.899013 29033 net.cpp:425] drop7 <- fc7
I0403 14:02:23.899032 29033 net.cpp:386] drop7 -> fc7 (in-place)
I0403 14:02:23.899080 29033 net.cpp:141] Setting up drop7
I0403 14:02:23.899104 29033 net.cpp:148] Top shape: 100 4096 (409600)
I0403 14:02:23.899119 29033 net.cpp:156] Memory required for data: 831526000
I0403 14:02:23.899135 29033 layer_factory.hpp:77] Creating layer fc8_plantvillage
I0403 14:02:23.899154 29033 net.cpp:91] Creating Layer fc8_plantvillage
I0403 14:02:23.899170 29033 net.cpp:425] fc8_plantvillage <- fc7
I0403 14:02:23.899190 29033 net.cpp:399] fc8_plantvillage -> fc8_plantvillage
I0403 14:02:23.905858 29033 net.cpp:141] Setting up fc8_plantvillage
I0403 14:02:23.905890 29033 net.cpp:148] Top shape: 100 38 (3800)
I0403 14:02:23.905908 29033 net.cpp:156] Memory required for data: 831541200
I0403 14:02:23.905926 29033 layer_factory.hpp:77] Creating layer fc8_plantvillage_fc8_plantvillage_0_split
I0403 14:02:23.905946 29033 net.cpp:91] Creating Layer fc8_plantvillage_fc8_plantvillage_0_split
I0403 14:02:23.905963 29033 net.cpp:425] fc8_plantvillage_fc8_plantvillage_0_split <- fc8_plantvillage
I0403 14:02:23.905985 29033 net.cpp:399] fc8_plantvillage_fc8_plantvillage_0_split -> fc8_plantvillage_fc8_plantvillage_0_split_0
I0403 14:02:23.906007 29033 net.cpp:399] fc8_plantvillage_fc8_plantvillage_0_split -> fc8_plantvillage_fc8_plantvillage_0_split_1
I0403 14:02:23.906026 29033 net.cpp:399] fc8_plantvillage_fc8_plantvillage_0_split -> fc8_plantvillage_fc8_plantvillage_0_split_2
I0403 14:02:23.906103 29033 net.cpp:141] Setting up fc8_plantvillage_fc8_plantvillage_0_split
I0403 14:02:23.906127 29033 net.cpp:148] Top shape: 100 38 (3800)
I0403 14:02:23.906143 29033 net.cpp:148] Top shape: 100 38 (3800)
I0403 14:02:23.906160 29033 net.cpp:148] Top shape: 100 38 (3800)
I0403 14:02:23.906174 29033 net.cpp:156] Memory required for data: 831586800
I0403 14:02:23.906189 29033 layer_factory.hpp:77] Creating layer prob
I0403 14:02:23.906206 29033 net.cpp:91] Creating Layer prob
I0403 14:02:23.906222 29033 net.cpp:425] prob <- fc8_plantvillage_fc8_plantvillage_0_split_0
I0403 14:02:23.906240 29033 net.cpp:399] prob -> prob
I0403 14:02:23.906477 29033 net.cpp:141] Setting up prob
I0403 14:02:23.906504 29033 net.cpp:148] Top shape: 100 38 (3800)
I0403 14:02:23.906519 29033 net.cpp:156] Memory required for data: 831602000
I0403 14:02:23.906534 29033 layer_factory.hpp:77] Creating layer hdf5out
I0403 14:02:23.906558 29033 net.cpp:91] Creating Layer hdf5out
I0403 14:02:23.906574 29033 net.cpp:425] hdf5out <- prob
I0403 14:02:23.906601 29033 net.cpp:425] hdf5out <- label_data_1_split_0
I0403 14:02:23.911134 29033 net.cpp:141] Setting up hdf5out
…
