…
I0403 13:36:15.488468 28418 net.cpp:313] The NetState phase (1) differed from the phase (0) specified by a rule in layer data
I0403 13:36:15.488816 28418 net.cpp:49] Initializing net from parameters: 
state {
  phase: TEST
}
layer {
  name: "data"
  type: "Data"
  top: "data"
  top: "label"
  include {
    phase: TEST
  }
  transform_param {
    crop_size: 227
    mean_file: "/home/mohanty/data/final_dataset/lmdb/color-40-60/mean.binaryproto"
  }
  data_param {
    source: "/home/mohanty/data/final_dataset/lmdb/color-40-60/test_db"
    batch_size: 100
    backend: LMDB
  }
}
layer {
  name: "conv1"
  type: "Convolution"
  bottom: "data"
  top: "conv1"
  param {
    lr_mult: 1
    decay_mult: 1
  }
  param {
    lr_mult: 2
    decay_mult: 0
  }
  convolution_param {
    num_output: 96
    kernel_size: 11
    stride: 4
    weight_filler {
      type: "gaussian"
      std: 0.01
    }
    bias_filler {
      type: "constant"
      value: 0
    }
  }
}
layer {
  name: "relu1"
  type: "ReLU"
  bottom: "conv1"
  top: "conv1"
}
layer {
  name: "norm1"
  type: "LRN"
  bottom: "conv1"
  top: "norm1"
  lrn_param {
    local_size: 5
    alpha: 0.0001
    beta: 0.75
  }
}
layer {
  name: "pool1"
  type: "Pooling"
  bottom: "norm1"
  top: "pool1"
  pooling_param {
    pool: MAX
    kernel_size: 3
    stride: 2
  }
}
layer {
  name: "conv2"
  type: "Convolution"
  bottom: "pool1"
  top: "conv2"
  param {
    lr_mult: 1
    decay_mult: 1
  }
  param {
    lr_mult: 2
    decay_mult: 0
  }
  convolution_param {
    num_output: 256
    pad: 2
    kernel_size: 5
    group: 2
    weight_filler {
      type: "gaussian"
      std: 0.01
    }
    bias_filler {
      type: "constant"
      value: 0.1
    }
  }
}
layer {
  name: "relu2"
  type: "ReLU"
  bottom: "conv2"
  top: "conv2"
}
layer {
  name: "norm2"
  type: "LRN"
  bottom: "conv2"
  top: "norm2"
  lrn_param {
    local_size: 5
    alpha: 0.0001
    beta: 0.75
  }
}
layer {
  name: "pool2"
  type: "Pooling"
  bottom: "norm2"
  top: "pool2"
  pooling_param {
    pool: MAX
    kernel_size: 3
    stride: 2
  }
}
layer {
  name: "conv3"
  type: "Convolution"
  bottom: "pool2"
  top: "conv3"
  param {
    lr_mult: 1
    decay_mult: 1
  }
  param {
    lr_mult: 2
    decay_mult: 0
  }
  convolution_param {
    num_output: 384
    pad: 1
    kernel_size: 3
    weight_filler {
      type: "gaussian"
      std: 0.01
    }
    bias_filler {
      type: "constant"
      value: 0
    }
  }
}
layer {
  name: "relu3"
  type: "ReLU"
  bottom: "conv3"
  top: "conv3"
}
layer {
  name: "conv4"
  type: "Convolution"
  bottom: "conv3"
  top: "conv4"
  param {
    lr_mult: 1
    decay_mult: 1
  }
  param {
    lr_mult: 2
    decay_mult: 0
  }
  convolution_param {
    num_output: 384
    pad: 1
    kernel_size: 3
    group: 2
    weight_filler {
      type: "gaussian"
      std: 0.01
    }
    bias_filler {
      type: "constant"
      value: 0.1
    }
  }
}
layer {
  name: "relu4"
  type: "ReLU"
  bottom: "conv4"
  top: "conv4"
}
layer {
  name: "conv5"
  type: "Convolution"
  bottom: "conv4"
  top: "conv5"
  param {
    lr_mult: 1
    decay_mult: 1
  }
  param {
    lr_mult: 2
    decay_mult: 0
  }
  convolution_param {
    num_output: 256
    pad: 1
    kernel_size: 3
    group: 2
    weight_filler {
      type: "gaussian"
      std: 0.01
    }
    bias_filler {
      type: "constant"
      value: 0.1
    }
  }
}
layer {
  name: "relu5"
  type: "ReLU"
  bottom: "conv5"
  top: "conv5"
}
layer {
  name: "pool5"
  type: "Pooling"
  bottom: "conv5"
  top: "pool5"
  pooling_param {
    pool: MAX
    kernel_size: 3
    stride: 2
  }
}
layer {
  name: "fc6"
  type: "InnerProduct"
  bottom: "pool5"
  top: "fc6"
  param {
    lr_mult: 1
    decay_mult: 1
  }
  param {
    lr_mult: 2
    decay_mult: 0
  }
  inner_product_param {
    num_output: 4096
    weight_filler {
      type: "gaussian"
      std: 0.005
    }
    bias_filler {
      type: "constant"
      value: 0.1
    }
  }
}
layer {
  name: "relu6"
  type: "ReLU"
  bottom: "fc6"
  top: "fc6"
}
layer {
  name: "drop6"
  type: "Dropout"
  bottom: "fc6"
  top: "fc6"
  dropout_param {
    dropout_ratio: 0.5
  }
}
layer {
  name: "fc7"
  type: "InnerProduct"
  bottom: "fc6"
  top: "fc7"
  param {
    lr_mult: 1
    decay_mult: 1
  }
  param {
    lr_mult: 2
    decay_mult: 0
  }
  inner_product_param {
    num_output: 4096
    weight_filler {
      type: "gaussian"
      std: 0.005
    }
    bias_filler {
      type: "constant"
      value: 0.1
    }
  }
}
layer {
  name: "relu7"
  type: "ReLU"
  bottom: "fc7"
  top: "fc7"
}
layer {
  name: "drop7"
  type: "Dropout"
  bottom: "fc7"
  top: "fc7"
  dropout_param {
    dropout_ratio: 0.5
  }
}
layer {
  name: "fc8_plantvillage"
  type: "InnerProduct"
  bottom: "fc7"
  top: "fc8_plantvillage"
  param {
    lr_mult: 1
    decay_mult: 1
  }
  param {
    lr_mult: 2
    decay_mult: 0
  }
  inner_product_param {
    num_output: 38
    weight_filler {
      type: "gaussian"
      std: 0.01
    }
    bias_filler {
      type: "constant"
      value: 0
    }
  }
}
layer {
  name: "prob"
  type: "Softmax"
  bottom: "fc8_plantvillage"
  top: "prob"
  include {
    phase: TEST
  }
}
layer {
  name: "hdf5out"
  type: "HDF5Output"
  bottom: "prob"
  bottom: "label"
  include {
    phase: TEST
  }
  hdf5_output_param {
    file_name: "hdf5_dumps/iter_1519.h5"
  }
}
layer {
  name: "loss"
  type: "SoftmaxWithLoss"
  bottom: "fc8_plantvillage"
  bottom: "label"
  top: "loss"
}
layer {
  name: "accuracy"
  type: "Accuracy"
  bottom: "fc8_plantvillage"
  bottom: "label"
  top: "accuracy"
  include {
    phase: TEST
  }
}
I0403 13:36:15.489439 28418 layer_factory.hpp:77] Creating layer data
I0403 13:36:15.490128 28418 net.cpp:91] Creating Layer data
I0403 13:36:15.490160 28418 net.cpp:399] data -> data
I0403 13:36:15.490213 28418 net.cpp:399] data -> label
I0403 13:36:15.490253 28418 data_transformer.cpp:25] Loading mean file from: /home/mohanty/data/final_dataset/lmdb/color-40-60/mean.binaryproto
I0403 13:36:15.523713 28421 db_lmdb.cpp:38] Opened lmdb /home/mohanty/data/final_dataset/lmdb/color-40-60/test_db
I0403 13:36:15.534909 28418 data_layer.cpp:41] output data size: 100,3,227,227
I0403 13:36:15.678750 28418 net.cpp:141] Setting up data
I0403 13:36:15.678841 28418 net.cpp:148] Top shape: 100 3 227 227 (15458700)
I0403 13:36:15.678866 28418 net.cpp:148] Top shape: 100 (100)
I0403 13:36:15.678884 28418 net.cpp:156] Memory required for data: 61835200
I0403 13:36:15.678913 28418 layer_factory.hpp:77] Creating layer label_data_1_split
I0403 13:36:15.678941 28418 net.cpp:91] Creating Layer label_data_1_split
I0403 13:36:15.678961 28418 net.cpp:425] label_data_1_split <- label
I0403 13:36:15.678993 28418 net.cpp:399] label_data_1_split -> label_data_1_split_0
I0403 13:36:15.679024 28418 net.cpp:399] label_data_1_split -> label_data_1_split_1
I0403 13:36:15.679049 28418 net.cpp:399] label_data_1_split -> label_data_1_split_2
I0403 13:36:15.679122 28418 net.cpp:141] Setting up label_data_1_split
I0403 13:36:15.679148 28418 net.cpp:148] Top shape: 100 (100)
I0403 13:36:15.679168 28418 net.cpp:148] Top shape: 100 (100)
I0403 13:36:15.679188 28418 net.cpp:148] Top shape: 100 (100)
I0403 13:36:15.679204 28418 net.cpp:156] Memory required for data: 61836400
I0403 13:36:15.679222 28418 layer_factory.hpp:77] Creating layer conv1
I0403 13:36:15.679256 28418 net.cpp:91] Creating Layer conv1
I0403 13:36:15.679278 28418 net.cpp:425] conv1 <- data
I0403 13:36:15.679303 28418 net.cpp:399] conv1 -> conv1
I0403 13:36:15.876984 28418 net.cpp:141] Setting up conv1
I0403 13:36:15.877030 28418 net.cpp:148] Top shape: 100 96 55 55 (29040000)
I0403 13:36:15.877049 28418 net.cpp:156] Memory required for data: 177996400
I0403 13:36:15.877082 28418 layer_factory.hpp:77] Creating layer relu1
I0403 13:36:15.877112 28418 net.cpp:91] Creating Layer relu1
I0403 13:36:15.877130 28418 net.cpp:425] relu1 <- conv1
I0403 13:36:15.877151 28418 net.cpp:386] relu1 -> conv1 (in-place)
I0403 13:36:15.877420 28418 net.cpp:141] Setting up relu1
I0403 13:36:15.877450 28418 net.cpp:148] Top shape: 100 96 55 55 (29040000)
I0403 13:36:15.877467 28418 net.cpp:156] Memory required for data: 294156400
I0403 13:36:15.877517 28418 layer_factory.hpp:77] Creating layer norm1
I0403 13:36:15.877547 28418 net.cpp:91] Creating Layer norm1
I0403 13:36:15.877568 28418 net.cpp:425] norm1 <- conv1
I0403 13:36:15.877588 28418 net.cpp:399] norm1 -> norm1
I0403 13:36:15.877908 28418 net.cpp:141] Setting up norm1
I0403 13:36:15.877939 28418 net.cpp:148] Top shape: 100 96 55 55 (29040000)
I0403 13:36:15.877956 28418 net.cpp:156] Memory required for data: 410316400
I0403 13:36:15.877974 28418 layer_factory.hpp:77] Creating layer pool1
I0403 13:36:15.877998 28418 net.cpp:91] Creating Layer pool1
I0403 13:36:15.878016 28418 net.cpp:425] pool1 <- norm1
I0403 13:36:15.878036 28418 net.cpp:399] pool1 -> pool1
I0403 13:36:15.878108 28418 net.cpp:141] Setting up pool1
I0403 13:36:15.878134 28418 net.cpp:148] Top shape: 100 96 27 27 (6998400)
I0403 13:36:15.878150 28418 net.cpp:156] Memory required for data: 438310000
I0403 13:36:15.878166 28418 layer_factory.hpp:77] Creating layer conv2
I0403 13:36:15.878192 28418 net.cpp:91] Creating Layer conv2
I0403 13:36:15.878209 28418 net.cpp:425] conv2 <- pool1
I0403 13:36:15.878233 28418 net.cpp:399] conv2 -> conv2
I0403 13:36:15.893844 28418 net.cpp:141] Setting up conv2
I0403 13:36:15.893893 28418 net.cpp:148] Top shape: 100 256 27 27 (18662400)
I0403 13:36:15.893913 28418 net.cpp:156] Memory required for data: 512959600
I0403 13:36:15.893937 28418 layer_factory.hpp:77] Creating layer relu2
I0403 13:36:15.893959 28418 net.cpp:91] Creating Layer relu2
I0403 13:36:15.893975 28418 net.cpp:425] relu2 <- conv2
I0403 13:36:15.893995 28418 net.cpp:386] relu2 -> conv2 (in-place)
I0403 13:36:15.894315 28418 net.cpp:141] Setting up relu2
I0403 13:36:15.894346 28418 net.cpp:148] Top shape: 100 256 27 27 (18662400)
I0403 13:36:15.894366 28418 net.cpp:156] Memory required for data: 587609200
I0403 13:36:15.894381 28418 layer_factory.hpp:77] Creating layer norm2
I0403 13:36:15.894407 28418 net.cpp:91] Creating Layer norm2
I0403 13:36:15.894426 28418 net.cpp:425] norm2 <- conv2
I0403 13:36:15.894446 28418 net.cpp:399] norm2 -> norm2
I0403 13:36:15.894656 28418 net.cpp:141] Setting up norm2
I0403 13:36:15.894685 28418 net.cpp:148] Top shape: 100 256 27 27 (18662400)
I0403 13:36:15.894701 28418 net.cpp:156] Memory required for data: 662258800
I0403 13:36:15.894717 28418 layer_factory.hpp:77] Creating layer pool2
I0403 13:36:15.894742 28418 net.cpp:91] Creating Layer pool2
I0403 13:36:15.894759 28418 net.cpp:425] pool2 <- norm2
I0403 13:36:15.894779 28418 net.cpp:399] pool2 -> pool2
I0403 13:36:15.894839 28418 net.cpp:141] Setting up pool2
I0403 13:36:15.894865 28418 net.cpp:148] Top shape: 100 256 13 13 (4326400)
I0403 13:36:15.894881 28418 net.cpp:156] Memory required for data: 679564400
I0403 13:36:15.894896 28418 layer_factory.hpp:77] Creating layer conv3
I0403 13:36:15.894922 28418 net.cpp:91] Creating Layer conv3
I0403 13:36:15.894940 28418 net.cpp:425] conv3 <- pool2
I0403 13:36:15.894963 28418 net.cpp:399] conv3 -> conv3
I0403 13:36:15.934792 28418 net.cpp:141] Setting up conv3
I0403 13:36:15.934870 28418 net.cpp:148] Top shape: 100 384 13 13 (6489600)
I0403 13:36:15.934890 28418 net.cpp:156] Memory required for data: 705522800
I0403 13:36:15.934916 28418 layer_factory.hpp:77] Creating layer relu3
I0403 13:36:15.934940 28418 net.cpp:91] Creating Layer relu3
I0403 13:36:15.934960 28418 net.cpp:425] relu3 <- conv3
I0403 13:36:15.934980 28418 net.cpp:386] relu3 -> conv3 (in-place)
I0403 13:36:15.935274 28418 net.cpp:141] Setting up relu3
I0403 13:36:15.935307 28418 net.cpp:148] Top shape: 100 384 13 13 (6489600)
I0403 13:36:15.935323 28418 net.cpp:156] Memory required for data: 731481200
I0403 13:36:15.935341 28418 layer_factory.hpp:77] Creating layer conv4
I0403 13:36:15.935370 28418 net.cpp:91] Creating Layer conv4
I0403 13:36:15.935389 28418 net.cpp:425] conv4 <- conv3
I0403 13:36:15.935410 28418 net.cpp:399] conv4 -> conv4
I0403 13:36:15.975641 28418 net.cpp:141] Setting up conv4
I0403 13:36:15.975716 28418 net.cpp:148] Top shape: 100 384 13 13 (6489600)
I0403 13:36:15.975767 28418 net.cpp:156] Memory required for data: 757439600
I0403 13:36:15.975791 28418 layer_factory.hpp:77] Creating layer relu4
I0403 13:36:15.975817 28418 net.cpp:91] Creating Layer relu4
I0403 13:36:15.975838 28418 net.cpp:425] relu4 <- conv4
I0403 13:36:15.975859 28418 net.cpp:386] relu4 -> conv4 (in-place)
I0403 13:36:15.976161 28418 net.cpp:141] Setting up relu4
I0403 13:36:15.976189 28418 net.cpp:148] Top shape: 100 384 13 13 (6489600)
I0403 13:36:15.976205 28418 net.cpp:156] Memory required for data: 783398000
I0403 13:36:15.976222 28418 layer_factory.hpp:77] Creating layer conv5
I0403 13:36:15.976250 28418 net.cpp:91] Creating Layer conv5
I0403 13:36:15.976274 28418 net.cpp:425] conv5 <- conv4
I0403 13:36:15.976297 28418 net.cpp:399] conv5 -> conv5
I0403 13:36:15.997453 28418 net.cpp:141] Setting up conv5
I0403 13:36:15.997514 28418 net.cpp:148] Top shape: 100 256 13 13 (4326400)
I0403 13:36:15.997531 28418 net.cpp:156] Memory required for data: 800703600
I0403 13:36:15.997556 28418 layer_factory.hpp:77] Creating layer relu5
I0403 13:36:15.997583 28418 net.cpp:91] Creating Layer relu5
I0403 13:36:15.997604 28418 net.cpp:425] relu5 <- conv5
I0403 13:36:15.997625 28418 net.cpp:386] relu5 -> conv5 (in-place)
I0403 13:36:15.997920 28418 net.cpp:141] Setting up relu5
I0403 13:36:15.997952 28418 net.cpp:148] Top shape: 100 256 13 13 (4326400)
I0403 13:36:15.997970 28418 net.cpp:156] Memory required for data: 818009200
I0403 13:36:15.997987 28418 layer_factory.hpp:77] Creating layer pool5
I0403 13:36:15.998009 28418 net.cpp:91] Creating Layer pool5
I0403 13:36:15.998026 28418 net.cpp:425] pool5 <- conv5
I0403 13:36:15.998049 28418 net.cpp:399] pool5 -> pool5
I0403 13:36:15.998113 28418 net.cpp:141] Setting up pool5
I0403 13:36:15.998142 28418 net.cpp:148] Top shape: 100 256 6 6 (921600)
I0403 13:36:15.998159 28418 net.cpp:156] Memory required for data: 821695600
I0403 13:36:15.998175 28418 layer_factory.hpp:77] Creating layer fc6
I0403 13:36:15.998203 28418 net.cpp:91] Creating Layer fc6
I0403 13:36:15.998221 28418 net.cpp:425] fc6 <- pool5
I0403 13:36:15.998245 28418 net.cpp:399] fc6 -> fc6
I0403 13:36:17.605697 28418 net.cpp:141] Setting up fc6
I0403 13:36:17.605769 28418 net.cpp:148] Top shape: 100 4096 (409600)
I0403 13:36:17.605787 28418 net.cpp:156] Memory required for data: 823334000
I0403 13:36:17.605809 28418 layer_factory.hpp:77] Creating layer relu6
I0403 13:36:17.605834 28418 net.cpp:91] Creating Layer relu6
I0403 13:36:17.605854 28418 net.cpp:425] relu6 <- fc6
I0403 13:36:17.605873 28418 net.cpp:386] relu6 -> fc6 (in-place)
I0403 13:36:17.606102 28418 net.cpp:141] Setting up relu6
I0403 13:36:17.606130 28418 net.cpp:148] Top shape: 100 4096 (409600)
I0403 13:36:17.606148 28418 net.cpp:156] Memory required for data: 824972400
I0403 13:36:17.606163 28418 layer_factory.hpp:77] Creating layer drop6
I0403 13:36:17.606181 28418 net.cpp:91] Creating Layer drop6
I0403 13:36:17.606197 28418 net.cpp:425] drop6 <- fc6
I0403 13:36:17.606215 28418 net.cpp:386] drop6 -> fc6 (in-place)
I0403 13:36:17.606274 28418 net.cpp:141] Setting up drop6
I0403 13:36:17.606299 28418 net.cpp:148] Top shape: 100 4096 (409600)
I0403 13:36:17.606314 28418 net.cpp:156] Memory required for data: 826610800
I0403 13:36:17.606339 28418 layer_factory.hpp:77] Creating layer fc7
I0403 13:36:17.606362 28418 net.cpp:91] Creating Layer fc7
I0403 13:36:17.606379 28418 net.cpp:425] fc7 <- fc6
I0403 13:36:17.606400 28418 net.cpp:399] fc7 -> fc7
I0403 13:36:18.292444 28418 net.cpp:141] Setting up fc7
I0403 13:36:18.292497 28418 net.cpp:148] Top shape: 100 4096 (409600)
I0403 13:36:18.292515 28418 net.cpp:156] Memory required for data: 828249200
I0403 13:36:18.292537 28418 layer_factory.hpp:77] Creating layer relu7
I0403 13:36:18.292562 28418 net.cpp:91] Creating Layer relu7
I0403 13:36:18.292580 28418 net.cpp:425] relu7 <- fc7
I0403 13:36:18.292599 28418 net.cpp:386] relu7 -> fc7 (in-place)
I0403 13:36:18.293006 28418 net.cpp:141] Setting up relu7
I0403 13:36:18.293035 28418 net.cpp:148] Top shape: 100 4096 (409600)
I0403 13:36:18.293083 28418 net.cpp:156] Memory required for data: 829887600
I0403 13:36:18.293100 28418 layer_factory.hpp:77] Creating layer drop7
I0403 13:36:18.293120 28418 net.cpp:91] Creating Layer drop7
I0403 13:36:18.293136 28418 net.cpp:425] drop7 <- fc7
I0403 13:36:18.293154 28418 net.cpp:386] drop7 -> fc7 (in-place)
I0403 13:36:18.293198 28418 net.cpp:141] Setting up drop7
I0403 13:36:18.293222 28418 net.cpp:148] Top shape: 100 4096 (409600)
I0403 13:36:18.293238 28418 net.cpp:156] Memory required for data: 831526000
I0403 13:36:18.293264 28418 layer_factory.hpp:77] Creating layer fc8_plantvillage
I0403 13:36:18.293292 28418 net.cpp:91] Creating Layer fc8_plantvillage
I0403 13:36:18.293310 28418 net.cpp:425] fc8_plantvillage <- fc7
I0403 13:36:18.293329 28418 net.cpp:399] fc8_plantvillage -> fc8_plantvillage
I0403 13:36:18.300015 28418 net.cpp:141] Setting up fc8_plantvillage
I0403 13:36:18.300045 28418 net.cpp:148] Top shape: 100 38 (3800)
I0403 13:36:18.300060 28418 net.cpp:156] Memory required for data: 831541200
I0403 13:36:18.300078 28418 layer_factory.hpp:77] Creating layer fc8_plantvillage_fc8_plantvillage_0_split
I0403 13:36:18.300099 28418 net.cpp:91] Creating Layer fc8_plantvillage_fc8_plantvillage_0_split
I0403 13:36:18.300115 28418 net.cpp:425] fc8_plantvillage_fc8_plantvillage_0_split <- fc8_plantvillage
I0403 13:36:18.300134 28418 net.cpp:399] fc8_plantvillage_fc8_plantvillage_0_split -> fc8_plantvillage_fc8_plantvillage_0_split_0
I0403 13:36:18.300155 28418 net.cpp:399] fc8_plantvillage_fc8_plantvillage_0_split -> fc8_plantvillage_fc8_plantvillage_0_split_1
I0403 13:36:18.300176 28418 net.cpp:399] fc8_plantvillage_fc8_plantvillage_0_split -> fc8_plantvillage_fc8_plantvillage_0_split_2
I0403 13:36:18.300257 28418 net.cpp:141] Setting up fc8_plantvillage_fc8_plantvillage_0_split
I0403 13:36:18.300282 28418 net.cpp:148] Top shape: 100 38 (3800)
I0403 13:36:18.300298 28418 net.cpp:148] Top shape: 100 38 (3800)
I0403 13:36:18.300313 28418 net.cpp:148] Top shape: 100 38 (3800)
I0403 13:36:18.300328 28418 net.cpp:156] Memory required for data: 831586800
I0403 13:36:18.300343 28418 layer_factory.hpp:77] Creating layer prob
I0403 13:36:18.300364 28418 net.cpp:91] Creating Layer prob
I0403 13:36:18.300380 28418 net.cpp:425] prob <- fc8_plantvillage_fc8_plantvillage_0_split_0
I0403 13:36:18.300400 28418 net.cpp:399] prob -> prob
I0403 13:36:18.300619 28418 net.cpp:141] Setting up prob
I0403 13:36:18.300648 28418 net.cpp:148] Top shape: 100 38 (3800)
I0403 13:36:18.300664 28418 net.cpp:156] Memory required for data: 831602000
I0403 13:36:18.300680 28418 layer_factory.hpp:77] Creating layer hdf5out
I0403 13:36:18.300698 28418 net.cpp:91] Creating Layer hdf5out
I0403 13:36:18.300714 28418 net.cpp:425] hdf5out <- prob
I0403 13:36:18.300729 28418 net.cpp:425] hdf5out <- label_data_1_split_0
I0403 13:36:18.304983 28418 net.cpp:141] Setting up hdf5out
…
