…
I0403 13:45:19.158442 28629 net.cpp:313] The NetState phase (1) differed from the phase (0) specified by a rule in layer data
I0403 13:45:19.158759 28629 net.cpp:49] Initializing net from parameters: 
state {
  phase: TEST
}
layer {
  name: "data"
  type: "Data"
  top: "data"
  top: "label"
  include {
    phase: TEST
  }
  transform_param {
    crop_size: 227
    mean_file: "/home/mohanty/data/final_dataset/lmdb/color-40-60/mean.binaryproto"
  }
  data_param {
    source: "/home/mohanty/data/final_dataset/lmdb/color-40-60/test_db"
    batch_size: 100
    backend: LMDB
  }
}
layer {
  name: "conv1"
  type: "Convolution"
  bottom: "data"
  top: "conv1"
  param {
    lr_mult: 1
    decay_mult: 1
  }
  param {
    lr_mult: 2
    decay_mult: 0
  }
  convolution_param {
    num_output: 96
    kernel_size: 11
    stride: 4
    weight_filler {
      type: "gaussian"
      std: 0.01
    }
    bias_filler {
      type: "constant"
      value: 0
    }
  }
}
layer {
  name: "relu1"
  type: "ReLU"
  bottom: "conv1"
  top: "conv1"
}
layer {
  name: "norm1"
  type: "LRN"
  bottom: "conv1"
  top: "norm1"
  lrn_param {
    local_size: 5
    alpha: 0.0001
    beta: 0.75
  }
}
layer {
  name: "pool1"
  type: "Pooling"
  bottom: "norm1"
  top: "pool1"
  pooling_param {
    pool: MAX
    kernel_size: 3
    stride: 2
  }
}
layer {
  name: "conv2"
  type: "Convolution"
  bottom: "pool1"
  top: "conv2"
  param {
    lr_mult: 1
    decay_mult: 1
  }
  param {
    lr_mult: 2
    decay_mult: 0
  }
  convolution_param {
    num_output: 256
    pad: 2
    kernel_size: 5
    group: 2
    weight_filler {
      type: "gaussian"
      std: 0.01
    }
    bias_filler {
      type: "constant"
      value: 0.1
    }
  }
}
layer {
  name: "relu2"
  type: "ReLU"
  bottom: "conv2"
  top: "conv2"
}
layer {
  name: "norm2"
  type: "LRN"
  bottom: "conv2"
  top: "norm2"
  lrn_param {
    local_size: 5
    alpha: 0.0001
    beta: 0.75
  }
}
layer {
  name: "pool2"
  type: "Pooling"
  bottom: "norm2"
  top: "pool2"
  pooling_param {
    pool: MAX
    kernel_size: 3
    stride: 2
  }
}
layer {
  name: "conv3"
  type: "Convolution"
  bottom: "pool2"
  top: "conv3"
  param {
    lr_mult: 1
    decay_mult: 1
  }
  param {
    lr_mult: 2
    decay_mult: 0
  }
  convolution_param {
    num_output: 384
    pad: 1
    kernel_size: 3
    weight_filler {
      type: "gaussian"
      std: 0.01
    }
    bias_filler {
      type: "constant"
      value: 0
    }
  }
}
layer {
  name: "relu3"
  type: "ReLU"
  bottom: "conv3"
  top: "conv3"
}
layer {
  name: "conv4"
  type: "Convolution"
  bottom: "conv3"
  top: "conv4"
  param {
    lr_mult: 1
    decay_mult: 1
  }
  param {
    lr_mult: 2
    decay_mult: 0
  }
  convolution_param {
    num_output: 384
    pad: 1
    kernel_size: 3
    group: 2
    weight_filler {
      type: "gaussian"
      std: 0.01
    }
    bias_filler {
      type: "constant"
      value: 0.1
    }
  }
}
layer {
  name: "relu4"
  type: "ReLU"
  bottom: "conv4"
  top: "conv4"
}
layer {
  name: "conv5"
  type: "Convolution"
  bottom: "conv4"
  top: "conv5"
  param {
    lr_mult: 1
    decay_mult: 1
  }
  param {
    lr_mult: 2
    decay_mult: 0
  }
  convolution_param {
    num_output: 256
    pad: 1
    kernel_size: 3
    group: 2
    weight_filler {
      type: "gaussian"
      std: 0.01
    }
    bias_filler {
      type: "constant"
      value: 0.1
    }
  }
}
layer {
  name: "relu5"
  type: "ReLU"
  bottom: "conv5"
  top: "conv5"
}
layer {
  name: "pool5"
  type: "Pooling"
  bottom: "conv5"
  top: "pool5"
  pooling_param {
    pool: MAX
    kernel_size: 3
    stride: 2
  }
}
layer {
  name: "fc6"
  type: "InnerProduct"
  bottom: "pool5"
  top: "fc6"
  param {
    lr_mult: 1
    decay_mult: 1
  }
  param {
    lr_mult: 2
    decay_mult: 0
  }
  inner_product_param {
    num_output: 4096
    weight_filler {
      type: "gaussian"
      std: 0.005
    }
    bias_filler {
      type: "constant"
      value: 0.1
    }
  }
}
layer {
  name: "relu6"
  type: "ReLU"
  bottom: "fc6"
  top: "fc6"
}
layer {
  name: "drop6"
  type: "Dropout"
  bottom: "fc6"
  top: "fc6"
  dropout_param {
    dropout_ratio: 0.5
  }
}
layer {
  name: "fc7"
  type: "InnerProduct"
  bottom: "fc6"
  top: "fc7"
  param {
    lr_mult: 1
    decay_mult: 1
  }
  param {
    lr_mult: 2
    decay_mult: 0
  }
  inner_product_param {
    num_output: 4096
    weight_filler {
      type: "gaussian"
      std: 0.005
    }
    bias_filler {
      type: "constant"
      value: 0.1
    }
  }
}
layer {
  name: "relu7"
  type: "ReLU"
  bottom: "fc7"
  top: "fc7"
}
layer {
  name: "drop7"
  type: "Dropout"
  bottom: "fc7"
  top: "fc7"
  dropout_param {
    dropout_ratio: 0.5
  }
}
layer {
  name: "fc8_plantvillage"
  type: "InnerProduct"
  bottom: "fc7"
  top: "fc8_plantvillage"
  param {
    lr_mult: 1
    decay_mult: 1
  }
  param {
    lr_mult: 2
    decay_mult: 0
  }
  inner_product_param {
    num_output: 38
    weight_filler {
      type: "gaussian"
      std: 0.01
    }
    bias_filler {
      type: "constant"
      value: 0
    }
  }
}
layer {
  name: "prob"
  type: "Softmax"
  bottom: "fc8_plantvillage"
  top: "prob"
  include {
    phase: TEST
  }
}
layer {
  name: "hdf5out"
  type: "HDF5Output"
  bottom: "prob"
  bottom: "label"
  include {
    phase: TEST
  }
  hdf5_output_param {
    file_name: "hdf5_dumps/iter_3255.h5"
  }
}
layer {
  name: "loss"
  type: "SoftmaxWithLoss"
  bottom: "fc8_plantvillage"
  bottom: "label"
  top: "loss"
}
layer {
  name: "accuracy"
  type: "Accuracy"
  bottom: "fc8_plantvillage"
  bottom: "label"
  top: "accuracy"
  include {
    phase: TEST
  }
}
I0403 13:45:19.159296 28629 layer_factory.hpp:77] Creating layer data
I0403 13:45:19.159937 28629 net.cpp:91] Creating Layer data
I0403 13:45:19.159971 28629 net.cpp:399] data -> data
I0403 13:45:19.160024 28629 net.cpp:399] data -> label
I0403 13:45:19.160085 28629 data_transformer.cpp:25] Loading mean file from: /home/mohanty/data/final_dataset/lmdb/color-40-60/mean.binaryproto
I0403 13:45:19.163025 28633 db_lmdb.cpp:38] Opened lmdb /home/mohanty/data/final_dataset/lmdb/color-40-60/test_db
I0403 13:45:19.174737 28629 data_layer.cpp:41] output data size: 100,3,227,227
I0403 13:45:19.307955 28629 net.cpp:141] Setting up data
I0403 13:45:19.308053 28629 net.cpp:148] Top shape: 100 3 227 227 (15458700)
I0403 13:45:19.308076 28629 net.cpp:148] Top shape: 100 (100)
I0403 13:45:19.308092 28629 net.cpp:156] Memory required for data: 61835200
I0403 13:45:19.308125 28629 layer_factory.hpp:77] Creating layer label_data_1_split
I0403 13:45:19.308151 28629 net.cpp:91] Creating Layer label_data_1_split
I0403 13:45:19.308171 28629 net.cpp:425] label_data_1_split <- label
I0403 13:45:19.308204 28629 net.cpp:399] label_data_1_split -> label_data_1_split_0
I0403 13:45:19.308234 28629 net.cpp:399] label_data_1_split -> label_data_1_split_1
I0403 13:45:19.308260 28629 net.cpp:399] label_data_1_split -> label_data_1_split_2
I0403 13:45:19.308327 28629 net.cpp:141] Setting up label_data_1_split
I0403 13:45:19.308352 28629 net.cpp:148] Top shape: 100 (100)
I0403 13:45:19.308370 28629 net.cpp:148] Top shape: 100 (100)
I0403 13:45:19.308388 28629 net.cpp:148] Top shape: 100 (100)
I0403 13:45:19.308404 28629 net.cpp:156] Memory required for data: 61836400
I0403 13:45:19.308421 28629 layer_factory.hpp:77] Creating layer conv1
I0403 13:45:19.308454 28629 net.cpp:91] Creating Layer conv1
I0403 13:45:19.308473 28629 net.cpp:425] conv1 <- data
I0403 13:45:19.308495 28629 net.cpp:399] conv1 -> conv1
I0403 13:45:19.456404 28629 net.cpp:141] Setting up conv1
I0403 13:45:19.456481 28629 net.cpp:148] Top shape: 100 96 55 55 (29040000)
I0403 13:45:19.456499 28629 net.cpp:156] Memory required for data: 177996400
I0403 13:45:19.456533 28629 layer_factory.hpp:77] Creating layer relu1
I0403 13:45:19.456562 28629 net.cpp:91] Creating Layer relu1
I0403 13:45:19.456583 28629 net.cpp:425] relu1 <- conv1
I0403 13:45:19.456604 28629 net.cpp:386] relu1 -> conv1 (in-place)
I0403 13:45:19.456876 28629 net.cpp:141] Setting up relu1
I0403 13:45:19.456903 28629 net.cpp:148] Top shape: 100 96 55 55 (29040000)
I0403 13:45:19.456920 28629 net.cpp:156] Memory required for data: 294156400
I0403 13:45:19.456971 28629 layer_factory.hpp:77] Creating layer norm1
I0403 13:45:19.457015 28629 net.cpp:91] Creating Layer norm1
I0403 13:45:19.457038 28629 net.cpp:425] norm1 <- conv1
I0403 13:45:19.457059 28629 net.cpp:399] norm1 -> norm1
I0403 13:45:19.457394 28629 net.cpp:141] Setting up norm1
I0403 13:45:19.457424 28629 net.cpp:148] Top shape: 100 96 55 55 (29040000)
I0403 13:45:19.457442 28629 net.cpp:156] Memory required for data: 410316400
I0403 13:45:19.457458 28629 layer_factory.hpp:77] Creating layer pool1
I0403 13:45:19.457484 28629 net.cpp:91] Creating Layer pool1
I0403 13:45:19.457504 28629 net.cpp:425] pool1 <- norm1
I0403 13:45:19.457525 28629 net.cpp:399] pool1 -> pool1
I0403 13:45:19.457599 28629 net.cpp:141] Setting up pool1
I0403 13:45:19.457626 28629 net.cpp:148] Top shape: 100 96 27 27 (6998400)
I0403 13:45:19.457643 28629 net.cpp:156] Memory required for data: 438310000
I0403 13:45:19.457659 28629 layer_factory.hpp:77] Creating layer conv2
I0403 13:45:19.457687 28629 net.cpp:91] Creating Layer conv2
I0403 13:45:19.457706 28629 net.cpp:425] conv2 <- pool1
I0403 13:45:19.457729 28629 net.cpp:399] conv2 -> conv2
I0403 13:45:19.472879 28629 net.cpp:141] Setting up conv2
I0403 13:45:19.472926 28629 net.cpp:148] Top shape: 100 256 27 27 (18662400)
I0403 13:45:19.472945 28629 net.cpp:156] Memory required for data: 512959600
I0403 13:45:19.472970 28629 layer_factory.hpp:77] Creating layer relu2
I0403 13:45:19.472993 28629 net.cpp:91] Creating Layer relu2
I0403 13:45:19.473011 28629 net.cpp:425] relu2 <- conv2
I0403 13:45:19.473031 28629 net.cpp:386] relu2 -> conv2 (in-place)
I0403 13:45:19.473341 28629 net.cpp:141] Setting up relu2
I0403 13:45:19.473369 28629 net.cpp:148] Top shape: 100 256 27 27 (18662400)
I0403 13:45:19.473387 28629 net.cpp:156] Memory required for data: 587609200
I0403 13:45:19.473402 28629 layer_factory.hpp:77] Creating layer norm2
I0403 13:45:19.473426 28629 net.cpp:91] Creating Layer norm2
I0403 13:45:19.473446 28629 net.cpp:425] norm2 <- conv2
I0403 13:45:19.473469 28629 net.cpp:399] norm2 -> norm2
I0403 13:45:19.473680 28629 net.cpp:141] Setting up norm2
I0403 13:45:19.473707 28629 net.cpp:148] Top shape: 100 256 27 27 (18662400)
I0403 13:45:19.473726 28629 net.cpp:156] Memory required for data: 662258800
I0403 13:45:19.473744 28629 layer_factory.hpp:77] Creating layer pool2
I0403 13:45:19.473768 28629 net.cpp:91] Creating Layer pool2
I0403 13:45:19.473789 28629 net.cpp:425] pool2 <- norm2
I0403 13:45:19.473809 28629 net.cpp:399] pool2 -> pool2
I0403 13:45:19.473865 28629 net.cpp:141] Setting up pool2
I0403 13:45:19.473891 28629 net.cpp:148] Top shape: 100 256 13 13 (4326400)
I0403 13:45:19.473906 28629 net.cpp:156] Memory required for data: 679564400
I0403 13:45:19.473920 28629 layer_factory.hpp:77] Creating layer conv3
I0403 13:45:19.473944 28629 net.cpp:91] Creating Layer conv3
I0403 13:45:19.473963 28629 net.cpp:425] conv3 <- pool2
I0403 13:45:19.473985 28629 net.cpp:399] conv3 -> conv3
I0403 13:45:19.521946 28629 net.cpp:141] Setting up conv3
I0403 13:45:19.522020 28629 net.cpp:148] Top shape: 100 384 13 13 (6489600)
I0403 13:45:19.522040 28629 net.cpp:156] Memory required for data: 705522800
I0403 13:45:19.522073 28629 layer_factory.hpp:77] Creating layer relu3
I0403 13:45:19.522097 28629 net.cpp:91] Creating Layer relu3
I0403 13:45:19.522116 28629 net.cpp:425] relu3 <- conv3
I0403 13:45:19.522138 28629 net.cpp:386] relu3 -> conv3 (in-place)
I0403 13:45:19.522433 28629 net.cpp:141] Setting up relu3
I0403 13:45:19.522460 28629 net.cpp:148] Top shape: 100 384 13 13 (6489600)
I0403 13:45:19.522477 28629 net.cpp:156] Memory required for data: 731481200
I0403 13:45:19.522493 28629 layer_factory.hpp:77] Creating layer conv4
I0403 13:45:19.522522 28629 net.cpp:91] Creating Layer conv4
I0403 13:45:19.522541 28629 net.cpp:425] conv4 <- conv3
I0403 13:45:19.522563 28629 net.cpp:399] conv4 -> conv4
I0403 13:45:19.552953 28629 net.cpp:141] Setting up conv4
I0403 13:45:19.553020 28629 net.cpp:148] Top shape: 100 384 13 13 (6489600)
I0403 13:45:19.553072 28629 net.cpp:156] Memory required for data: 757439600
I0403 13:45:19.553097 28629 layer_factory.hpp:77] Creating layer relu4
I0403 13:45:19.553122 28629 net.cpp:91] Creating Layer relu4
I0403 13:45:19.553141 28629 net.cpp:425] relu4 <- conv4
I0403 13:45:19.553163 28629 net.cpp:386] relu4 -> conv4 (in-place)
I0403 13:45:19.553457 28629 net.cpp:141] Setting up relu4
I0403 13:45:19.553486 28629 net.cpp:148] Top shape: 100 384 13 13 (6489600)
I0403 13:45:19.553503 28629 net.cpp:156] Memory required for data: 783398000
I0403 13:45:19.553520 28629 layer_factory.hpp:77] Creating layer conv5
I0403 13:45:19.553547 28629 net.cpp:91] Creating Layer conv5
I0403 13:45:19.553566 28629 net.cpp:425] conv5 <- conv4
I0403 13:45:19.553591 28629 net.cpp:399] conv5 -> conv5
I0403 13:45:19.574187 28629 net.cpp:141] Setting up conv5
I0403 13:45:19.574241 28629 net.cpp:148] Top shape: 100 256 13 13 (4326400)
I0403 13:45:19.574261 28629 net.cpp:156] Memory required for data: 800703600
I0403 13:45:19.574291 28629 layer_factory.hpp:77] Creating layer relu5
I0403 13:45:19.574321 28629 net.cpp:91] Creating Layer relu5
I0403 13:45:19.574340 28629 net.cpp:425] relu5 <- conv5
I0403 13:45:19.574360 28629 net.cpp:386] relu5 -> conv5 (in-place)
I0403 13:45:19.574645 28629 net.cpp:141] Setting up relu5
I0403 13:45:19.574673 28629 net.cpp:148] Top shape: 100 256 13 13 (4326400)
I0403 13:45:19.574690 28629 net.cpp:156] Memory required for data: 818009200
I0403 13:45:19.574707 28629 layer_factory.hpp:77] Creating layer pool5
I0403 13:45:19.574733 28629 net.cpp:91] Creating Layer pool5
I0403 13:45:19.574753 28629 net.cpp:425] pool5 <- conv5
I0403 13:45:19.574777 28629 net.cpp:399] pool5 -> pool5
I0403 13:45:19.574841 28629 net.cpp:141] Setting up pool5
I0403 13:45:19.574867 28629 net.cpp:148] Top shape: 100 256 6 6 (921600)
I0403 13:45:19.574883 28629 net.cpp:156] Memory required for data: 821695600
I0403 13:45:19.574899 28629 layer_factory.hpp:77] Creating layer fc6
I0403 13:45:19.574930 28629 net.cpp:91] Creating Layer fc6
I0403 13:45:19.574949 28629 net.cpp:425] fc6 <- pool5
I0403 13:45:19.574970 28629 net.cpp:399] fc6 -> fc6
I0403 13:45:21.138432 28629 net.cpp:141] Setting up fc6
I0403 13:45:21.138506 28629 net.cpp:148] Top shape: 100 4096 (409600)
I0403 13:45:21.138525 28629 net.cpp:156] Memory required for data: 823334000
I0403 13:45:21.138547 28629 layer_factory.hpp:77] Creating layer relu6
I0403 13:45:21.138571 28629 net.cpp:91] Creating Layer relu6
I0403 13:45:21.138588 28629 net.cpp:425] relu6 <- fc6
I0403 13:45:21.138612 28629 net.cpp:386] relu6 -> fc6 (in-place)
I0403 13:45:21.138833 28629 net.cpp:141] Setting up relu6
I0403 13:45:21.138860 28629 net.cpp:148] Top shape: 100 4096 (409600)
I0403 13:45:21.138876 28629 net.cpp:156] Memory required for data: 824972400
I0403 13:45:21.138892 28629 layer_factory.hpp:77] Creating layer drop6
I0403 13:45:21.138914 28629 net.cpp:91] Creating Layer drop6
I0403 13:45:21.138931 28629 net.cpp:425] drop6 <- fc6
I0403 13:45:21.138949 28629 net.cpp:386] drop6 -> fc6 (in-place)
I0403 13:45:21.139004 28629 net.cpp:141] Setting up drop6
I0403 13:45:21.139029 28629 net.cpp:148] Top shape: 100 4096 (409600)
I0403 13:45:21.139045 28629 net.cpp:156] Memory required for data: 826610800
I0403 13:45:21.139060 28629 layer_factory.hpp:77] Creating layer fc7
I0403 13:45:21.139082 28629 net.cpp:91] Creating Layer fc7
I0403 13:45:21.139099 28629 net.cpp:425] fc7 <- fc6
I0403 13:45:21.139122 28629 net.cpp:399] fc7 -> fc7
I0403 13:45:21.823860 28629 net.cpp:141] Setting up fc7
I0403 13:45:21.823937 28629 net.cpp:148] Top shape: 100 4096 (409600)
I0403 13:45:21.823954 28629 net.cpp:156] Memory required for data: 828249200
I0403 13:45:21.823977 28629 layer_factory.hpp:77] Creating layer relu7
I0403 13:45:21.824002 28629 net.cpp:91] Creating Layer relu7
I0403 13:45:21.824023 28629 net.cpp:425] relu7 <- fc7
I0403 13:45:21.824043 28629 net.cpp:386] relu7 -> fc7 (in-place)
I0403 13:45:21.824462 28629 net.cpp:141] Setting up relu7
I0403 13:45:21.824489 28629 net.cpp:148] Top shape: 100 4096 (409600)
I0403 13:45:21.824537 28629 net.cpp:156] Memory required for data: 829887600
I0403 13:45:21.824553 28629 layer_factory.hpp:77] Creating layer drop7
I0403 13:45:21.824575 28629 net.cpp:91] Creating Layer drop7
I0403 13:45:21.824594 28629 net.cpp:425] drop7 <- fc7
I0403 13:45:21.824611 28629 net.cpp:386] drop7 -> fc7 (in-place)
I0403 13:45:21.824656 28629 net.cpp:141] Setting up drop7
I0403 13:45:21.824681 28629 net.cpp:148] Top shape: 100 4096 (409600)
I0403 13:45:21.824697 28629 net.cpp:156] Memory required for data: 831526000
I0403 13:45:21.824712 28629 layer_factory.hpp:77] Creating layer fc8_plantvillage
I0403 13:45:21.824733 28629 net.cpp:91] Creating Layer fc8_plantvillage
I0403 13:45:21.824749 28629 net.cpp:425] fc8_plantvillage <- fc7
I0403 13:45:21.824770 28629 net.cpp:399] fc8_plantvillage -> fc8_plantvillage
I0403 13:45:21.831487 28629 net.cpp:141] Setting up fc8_plantvillage
I0403 13:45:21.831517 28629 net.cpp:148] Top shape: 100 38 (3800)
I0403 13:45:21.831533 28629 net.cpp:156] Memory required for data: 831541200
I0403 13:45:21.831552 28629 layer_factory.hpp:77] Creating layer fc8_plantvillage_fc8_plantvillage_0_split
I0403 13:45:21.831575 28629 net.cpp:91] Creating Layer fc8_plantvillage_fc8_plantvillage_0_split
I0403 13:45:21.831593 28629 net.cpp:425] fc8_plantvillage_fc8_plantvillage_0_split <- fc8_plantvillage
I0403 13:45:21.831612 28629 net.cpp:399] fc8_plantvillage_fc8_plantvillage_0_split -> fc8_plantvillage_fc8_plantvillage_0_split_0
I0403 13:45:21.831632 28629 net.cpp:399] fc8_plantvillage_fc8_plantvillage_0_split -> fc8_plantvillage_fc8_plantvillage_0_split_1
I0403 13:45:21.831656 28629 net.cpp:399] fc8_plantvillage_fc8_plantvillage_0_split -> fc8_plantvillage_fc8_plantvillage_0_split_2
I0403 13:45:21.831734 28629 net.cpp:141] Setting up fc8_plantvillage_fc8_plantvillage_0_split
I0403 13:45:21.831759 28629 net.cpp:148] Top shape: 100 38 (3800)
I0403 13:45:21.831778 28629 net.cpp:148] Top shape: 100 38 (3800)
I0403 13:45:21.831795 28629 net.cpp:148] Top shape: 100 38 (3800)
I0403 13:45:21.831810 28629 net.cpp:156] Memory required for data: 831586800
I0403 13:45:21.831826 28629 layer_factory.hpp:77] Creating layer prob
I0403 13:45:21.831848 28629 net.cpp:91] Creating Layer prob
I0403 13:45:21.831866 28629 net.cpp:425] prob <- fc8_plantvillage_fc8_plantvillage_0_split_0
I0403 13:45:21.831886 28629 net.cpp:399] prob -> prob
I0403 13:45:21.832113 28629 net.cpp:141] Setting up prob
I0403 13:45:21.832139 28629 net.cpp:148] Top shape: 100 38 (3800)
I0403 13:45:21.832155 28629 net.cpp:156] Memory required for data: 831602000
I0403 13:45:21.832172 28629 layer_factory.hpp:77] Creating layer hdf5out
I0403 13:45:21.832195 28629 net.cpp:91] Creating Layer hdf5out
I0403 13:45:21.832211 28629 net.cpp:425] hdf5out <- prob
I0403 13:45:21.832228 28629 net.cpp:425] hdf5out <- label_data_1_split_0
I0403 13:45:21.852712 28629 net.cpp:141] Setting up hdf5out
…
